…
Java HotSpot(TM) 64-Bit Server VM warning: You have loaded library /tmp/cvld3294463420753203194/libopencv_java310.xine1.so which might have disabled stack guard. The VM will try to fix the stack guard now.
It's highly recommended that you fix the library with 'execstack -c <libfile>', or link it with '-z noexecstack'.
WARNING: Logging before InitGoogleLogging() is written to STDERR
I0713 13:59:44.174940  7792 net.cpp:49] Initializing net from parameters: 
name: "GoogleNet"
state {
  phase: TEST
}
layer {
  name: "data"
  type: "Input"
  top: "data"
  input_param {
    shape {
      dim: 10
      dim: 3
      dim: 224
      dim: 224
    }
  }
}
layer {
  name: "conv1/7x7_s2"
  type: "Convolution"
  bottom: "data"
  top: "conv1/7x7_s2"
  param {
    lr_mult: 1
    decay_mult: 1
  }
  param {
    lr_mult: 2
    decay_mult: 0
  }
  convolution_param {
    num_output: 64
    pad: 3
    kernel_size: 7
    stride: 2
    weight_filler {
      type: "xavier"
      std: 0.1
    }
    bias_filler {
      type: "constant"
      value: 0.2
    }
  }
}
layer {
  name: "conv1/relu_7x7"
  type: "ReLU"
  bottom: "conv1/7x7_s2"
  top: "conv1/7x7_s2"
}
layer {
  name: "pool1/3x3_s2"
  type: "Pooling"
  bottom: "conv1/7x7_s2"
  top: "pool1/3x3_s2"
  pooling_param {
    pool: MAX
    kernel_size: 3
    stride: 2
  }
}
layer {
  name: "pool1/norm1"
  type: "LRN"
  bottom: "pool1/3x3_s2"
  top: "pool1/norm1"
  lrn_param {
    local_size: 5
    alpha: 0.0001
    beta: 0.75
  }
}
layer {
  name: "conv2/3x3_reduce"
  type: "Convolution"
  bottom: "pool1/norm1"
  top: "conv2/3x3_reduce"
  param {
    lr_mult: 1
    decay_mult: 1
  }
  param {
    lr_mult: 2
    decay_mult: 0
  }
  convolution_param {
    num_output: 64
    kernel_size: 1
    weight_filler {
      type: "xavier"
      std: 0.1
    }
    bias_filler {
      type: "constant"
      value: 0.2
    }
  }
}
layer {
  name: "conv2/relu_3x3_reduce"
  type: "ReLU"
  bottom: "conv2/3x3_reduce"
  top: "conv2/3x3_reduce"
}
layer {
  name: "conv2/3x3"
  type: "Convolution"
  bottom: "conv2/3x3_reduce"
  top: "conv2/3x3"
  param {
    lr_mult: 1
    decay_mult: 1
  }
  param {
    lr_mult: 2
    decay_mult: 0
  }
  convolution_param {
    num_output: 192
    pad: 1
    kernel_size: 3
    weight_filler {
      type: "xavier"
      std: 0.03
    }
    bias_filler {
      type: "constant"
      value: 0.2
    }
  }
}
layer {
  name: "conv2/relu_3x3"
  type: "ReLU"
  bottom: "conv2/3x3"
  top: "conv2/3x3"
}
layer {
  name: "conv2/norm2"
  type: "LRN"
  bottom: "conv2/3x3"
  top: "conv2/norm2"
  lrn_param {
    local_size: 5
    alpha: 0.0001
    beta: 0.75
  }
}
layer {
  name: "pool2/3x3_s2"
  type: "Pooling"
  bottom: "conv2/norm2"
  top: "pool2/3x3_s2"
  pooling_param {
    pool: MAX
    kernel_size: 3
    stride: 2
  }
}
layer {
  name: "inception_3a/1x1"
  type: "Convolution"
  bottom: "pool2/3x3_s2"
  top: "inception_3a/1x1"
  param {
    lr_mult: 1
    decay_mult: 1
  }
  param {
    lr_mult: 2
    decay_mult: 0
  }
  convolution_param {
    num_output: 64
    kernel_size: 1
    weight_filler {
      type: "xavier"
      std: 0.03
    }
    bias_filler {
      type: "constant"
      value: 0.2
    }
  }
}
layer {
  name: "inception_3a/relu_1x1"
  type: "ReLU"
  bottom: "inception_3a/1x1"
  top: "inception_3a/1x1"
}
layer {
  name: "inception_3a/3x3_reduce"
  type: "Convolution"
  bottom: "pool2/3x3_s2"
  top: "inception_3a/3x3_reduce"
  param {
    lr_mult: 1
    decay_mult: 1
  }
  param {
    lr_mult: 2
    decay_mult: 0
  }
  convolution_param {
    num_output: 96
    kernel_size: 1
    weight_filler {
      type: "xavier"
      std: 0.09
    }
    bias_filler {
      type: "constant"
      value: 0.2
    }
  }
}
layer {
  name: "inception_3a/relu_3x3_reduce"
  type: "ReLU"
  bottom: "inception_3a/3x3_reduce"
  top: "inception_3a/3x3_reduce"
}
layer {
  name: "inception_3a/3x3"
  type: "Convolution"
  bottom: "inception_3a/3x3_reduce"
  top: "inception_3a/3x3"
  param {
    lr_mult: 1
    decay_mult: 1
  }
  param {
    lr_mult: 2
    decay_mult: 0
  }
  convolution_param {
    num_output: 128
    pad: 1
    kernel_size: 3
    weight_filler {
      type: "xavier"
      std: 0.03
    }
    bias_filler {
      type: "constant"
      value: 0.2
    }
  }
}
layer {
  name: "inception_3a/relu_3x3"
  type: "ReLU"
  bottom: "inception_3a/3x3"
  top: "inception_3a/3x3"
}
layer {
  name: "inception_3a/5x5_reduce"
  type: "Convolution"
  bottom: "pool2/3x3_s2"
  top: "inception_3a/5x5_reduce"
  param {
    lr_mult: 1
    decay_mult: 1
  }
  param {
    lr_mult: 2
    decay_mult: 0
  }
  convolution_param {
    num_output: 16
    kernel_size: 1
    weight_filler {
      type: "xavier"
      std: 0.2
    }
    bias_filler {
      type: "constant"
      value: 0.2
    }
  }
}
layer {
  name: "inception_3a/relu_5x5_reduce"
  type: "ReLU"
  bottom: "inception_3a/5x5_reduce"
  top: "inception_3a/5x5_reduce"
}
layer {
  name: "inception_3a/5x5"
  type: "Convolution"
  bottom: "inception_3a/5x5_reduce"
  top: "inception_3a/5x5"
  param {
    lr_mult: 1
    decay_mult: 1
  }
  param {
    lr_mult: 2
    decay_mult: 0
  }
  convolution_param {
    num_output: 32
    pad: 2
    kernel_size: 5
    weight_filler {
      type: "xavier"
      std: 0.03
    }
    bias_filler {
      type: "constant"
      value: 0.2
    }
  }
}
layer {
  name: "inception_3a/relu_5x5"
  type: "ReLU"
  bottom: "inception_3a/5x5"
  top: "inception_3a/5x5"
}
layer {
  name: "inception_3a/pool"
  type: "Pooling"
  bottom: "pool2/3x3_s2"
  top: "inception_3a/pool"
  pooling_param {
    pool: MAX
    kernel_size: 3
    stride: 1
    pad: 1
  }
}
layer {
  name: "inception_3a/pool_proj"
  type: "Convolution"
  bottom: "inception_3a/pool"
  top: "inception_3a/pool_proj"
  param {
    lr_mult: 1
    decay_mult: 1
  }
  param {
    lr_mult: 2
    decay_mult: 0
  }
  convolution_param {
    num_output: 32
    kernel_size: 1
    weight_filler {
      type: "xavier"
      std: 0.1
    }
    bias_filler {
      type: "constant"
      value: 0.2
    }
  }
}
layer {
  name: "inception_3a/relu_pool_proj"
  type: "ReLU"
  bottom: "inception_3a/pool_proj"
  top: "inception_3a/pool_proj"
}
layer {
  name: "inception_3a/output"
  type: "Concat"
  bottom: "inception_3a/1x1"
  bottom: "inception_3a/3x3"
  bottom: "inception_3a/5x5"
  bottom: "inception_3a/pool_proj"
  top: "inception_3a/output"
}
layer {
  name: "inception_3b/1x1"
  type: "Convolution"
  bottom: "inception_3a/output"
  top: "inception_3b/1x1"
  param {
    lr_mult: 1
    decay_mult: 1
  }
  param {
    lr_mult: 2
    decay_mult: 0
  }
  convolution_param {
    num_output: 128
    kernel_size: 1
    weight_filler {
      type: "xavier"
      std: 0.03
    }
    bias_filler {
      type: "constant"
      value: 0.2
    }
  }
}
layer {
  name: "inception_3b/relu_1x1"
  type: "ReLU"
  bottom: "inception_3b/1x1"
  top: "inception_3b/1x1"
}
layer {
  name: "inception_3b/3x3_reduce"
  type: "Convolution"
  bottom: "inception_3a/output"
  top: "inception_3b/3x3_reduce"
  param {
    lr_mult: 1
    decay_mult: 1
  }
  param {
    lr_mult: 2
    decay_mult: 0
  }
  convolution_param {
    num_output: 128
    kernel_size: 1
    weight_filler {
      type: "xavier"
      std: 0.09
    }
    bias_filler {
      type: "constant"
      value: 0.2
    }
  }
}
layer {
  name: "inception_3b/relu_3x3_reduce"
  type: "ReLU"
  bottom: "inception_3b/3x3_reduce"
  top: "inception_3b/3x3_reduce"
}
layer {
  name: "inception_3b/3x3"
  type: "Convolution"
  bottom: "inception_3b/3x3_reduce"
  top: "inception_3b/3x3"
  param {
    lr_mult: 1
    decay_mult: 1
  }
  param {
    lr_mult: 2
    decay_mult: 0
  }
  convolution_param {
    num_output: 192
    pad: 1
    kernel_size: 3
    weight_filler {
      type: "xavier"
      std: 0.03
    }
    bias_filler {
      type: "constant"
      value: 0.2
    }
  }
}
layer {
  name: "inception_3b/relu_3x3"
  type: "ReLU"
  bottom: "inception_3b/3x3"
  top: "inception_3b/3x3"
}
layer {
  name: "inception_3b/5x5_reduce"
  type: "Convolution"
  bottom: "inception_3a/output"
  top: "inception_3b/5x5_reduce"
  param {
    lr_mult: 1
    decay_mult: 1
  }
  param {
    lr_mult: 2
    decay_mult: 0
  }
  convolution_param {
    num_output: 32
    kernel_size: 1
    weight_filler {
      type: "xavier"
      std: 0.2
    }
    bias_filler {
      type: "constant"
      value: 0.2
    }
  }
}
layer {
  name: "inception_3b/relu_5x5_reduce"
  type: "ReLU"
  bottom: "inception_3b/5x5_reduce"
  top: "inception_3b/5x5_reduce"
}
layer {
  name: "inception_3b/5x5"
  type: "Convolution"
  bottom: "inception_3b/5x5_reduce"
  top: "inception_3b/5x5"
  param {
    lr_mult: 1
    decay_mult: 1
  }
  param {
    lr_mult: 2
    decay_mult: 0
  }
  convolution_param {
    num_output: 96
    pad: 2
    kernel_size: 5
    weight_filler {
      type: "xavier"
      std: 0.03
    }
    bias_filler {
      type: "constant"
      value: 0.2
    }
  }
}
layer {
  name: "inception_3b/relu_5x5"
  type: "ReLU"
  bottom: "inception_3b/5x5"
  top: "inception_3b/5x5"
}
layer {
  name: "inception_3b/pool"
  type: "Pooling"
  bottom: "inception_3a/output"
  top: "inception_3b/pool"
  pooling_param {
    pool: MAX
    kernel_size: 3
    stride: 1
    pad: 1
  }
}
layer {
  name: "inception_3b/pool_proj"
  type: "Convolution"
  bottom: "inception_3b/pool"
  top: "inception_3b/pool_proj"
  param {
    lr_mult: 1
    decay_mult: 1
  }
  param {
    lr_mult: 2
    decay_mult: 0
  }
  convolution_param {
    num_output: 64
    kernel_size: 1
    weight_filler {
      type: "xavier"
      std: 0.1
    }
    bias_filler {
      type: "constant"
      value: 0.2
    }
  }
}
layer {
  name: "inception_3b/relu_pool_proj"
  type: "ReLU"
  bottom: "inception_3b/pool_proj"
  top: "inception_3b/pool_proj"
}
layer {
  name: "inception_3b/output"
  type: "Concat"
  bottom: "inception_3b/1x1"
  bottom: "inception_3b/3x3"
  bottom: "inception_3b/5x5"
  bottom: "inception_3b/pool_proj"
  top: "inception_3b/output"
}
layer {
  name: "pool3/3x3_s2"
  type: "Pooling"
  bottom: "inception_3b/output"
  top: "pool3/3x3_s2"
  pooling_param {
    pool: MAX
    kernel_size: 3
    stride: 2
  }
}
layer {
  name: "inception_4a/1x1"
  type: "Convolution"
  bottom: "pool3/3x3_s2"
  top: "inception_4a/1x1"
  param {
    lr_mult: 1
    decay_mult: 1
  }
  param {
    lr_mult: 2
    decay_mult: 0
  }
  convolution_param {
    num_output: 192
    kernel_size: 1
    weight_filler {
      type: "xavier"
      std: 0.03
    }
    bias_filler {
      type: "constant"
      value: 0.2
    }
  }
}
layer {
  name: "inception_4a/relu_1x1"
  type: "ReLU"
  bottom: "inception_4a/1x1"
  top: "inception_4a/1x1"
}
layer {
  name: "inception_4a/3x3_reduce"
  type: "Convolution"
  bottom: "pool3/3x3_s2"
  top: "inception_4a/3x3_reduce"
  param {
    lr_mult: 1
    decay_mult: 1
  }
  param {
    lr_mult: 2
    decay_mult: 0
  }
  convolution_param {
    num_output: 96
    kernel_size: 1
    weight_filler {
      type: "xavier"
      std: 0.09
    }
    bias_filler {
      type: "constant"
      value: 0.2
    }
  }
}
layer {
  name: "inception_4a/relu_3x3_reduce"
  type: "ReLU"
  bottom: "inception_4a/3x3_reduce"
  top: "inception_4a/3x3_reduce"
}
layer {
  name: "inception_4a/3x3"
  type: "Convolution"
  bottom: "inception_4a/3x3_reduce"
  top: "inception_4a/3x3"
  param {
    lr_mult: 1
    decay_mult: 1
  }
  param {
    lr_mult: 2
    decay_mult: 0
  }
  convolution_param {
    num_output: 208
    pad: 1
    kernel_size: 3
    weight_filler {
      type: "xavier"
      std: 0.03
    }
    bias_filler {
      type: "constant"
      value: 0.2
    }
  }
}
layer {
  name: "inception_4a/relu_3x3"
  type: "ReLU"
  bottom: "inception_4a/3x3"
  top: "inception_4a/3x3"
}
layer {
  name: "inception_4a/5x5_reduce"
  type: "Convolution"
  bottom: "pool3/3x3_s2"
  top: "inception_4a/5x5_reduce"
  param {
    lr_mult: 1
    decay_mult: 1
  }
  param {
    lr_mult: 2
    decay_mult: 0
  }
  convolution_param {
    num_output: 16
    kernel_size: 1
    weight_filler {
      type: "xavier"
      std: 0.2
    }
    bias_filler {
      type: "constant"
      value: 0.2
    }
  }
}
layer {
  name: "inception_4a/relu_5x5_reduce"
  type: "ReLU"
  bottom: "inception_4a/5x5_reduce"
  top: "inception_4a/5x5_reduce"
}
layer {
  name: "inception_4a/5x5"
  type: "Convolution"
  bottom: "inception_4a/5x5_reduce"
  top: "inception_4a/5x5"
  param {
    lr_mult: 1
    decay_mult: 1
  }
  param {
    lr_mult: 2
    decay_mult: 0
  }
  convolution_param {
    num_output: 48
    pad: 2
    kernel_size: 5
    weight_filler {
      type: "xavier"
      std: 0.03
    }
    bias_filler {
      type: "constant"
      value: 0.2
    }
  }
}
layer {
  name: "inception_4a/relu_5x5"
  type: "ReLU"
  bottom: "inception_4a/5x5"
  top: "inception_4a/5x5"
}
layer {
  name: "inception_4a/pool"
  type: "Pooling"
  bottom: "pool3/3x3_s2"
  top: "inception_4a/pool"
  pooling_param {
    pool: MAX
    kernel_size: 3
    stride: 1
    pad: 1
  }
}
layer {
  name: "inception_4a/pool_proj"
  type: "Convolution"
  bottom: "inception_4a/pool"
  top: "inception_4a/pool_proj"
  param {
    lr_mult: 1
    decay_mult: 1
  }
  param {
    lr_mult: 2
    decay_mult: 0
  }
  convolution_param {
    num_output: 64
    kernel_size: 1
    weight_filler {
      type: "xavier"
      std: 0.1
    }
    bias_filler {
      type: "constant"
      value: 0.2
    }
  }
}
layer {
  name: "inception_4a/relu_pool_proj"
  type: "ReLU"
  bottom: "inception_4a/pool_proj"
  top: "inception_4a/pool_proj"
}
layer {
  name: "inception_4a/output"
  type: "Concat"
  bottom: "inception_4a/1x1"
  bottom: "inception_4a/3x3"
  bottom: "inception_4a/5x5"
  bottom: "inception_4a/pool_proj"
  top: "inception_4a/output"
}
layer {
  name: "inception_4b/1x1"
  type: "Convolution"
  bottom: "inception_4a/output"
  top: "inception_4b/1x1"
  param {
    lr_mult: 1
    decay_mult: 1
  }
  param {
    lr_mult: 2
    decay_mult: 0
  }
  convolution_param {
    num_output: 160
    kernel_size: 1
    weight_filler {
      type: "xavier"
      std: 0.03
    }
    bias_filler {
      type: "constant"
      value: 0.2
    }
  }
}
layer {
  name: "inception_4b/relu_1x1"
  type: "ReLU"
  bottom: "inception_4b/1x1"
  top: "inception_4b/1x1"
}
layer {
  name: "inception_4b/3x3_reduce"
  type: "Convolution"
  bottom: "inception_4a/output"
  top: "inception_4b/3x3_reduce"
  param {
    lr_mult: 1
    decay_mult: 1
  }
  param {
    lr_mult: 2
    decay_mult: 0
  }
  convolution_param {
    num_output: 112
    kernel_size: 1
    weight_filler {
      type: "xavier"
      std: 0.09
    }
    bias_filler {
      type: "constant"
      value: 0.2
    }
  }
}
layer {
  name: "inception_4b/relu_3x3_reduce"
  type: "ReLU"
  bottom: "inception_4b/3x3_reduce"
  top: "inception_4b/3x3_reduce"
}
layer {
  name: "inception_4b/3x3"
  type: "Convolution"
  bottom: "inception_4b/3x3_reduce"
  top: "inception_4b/3x3"
  param {
    lr_mult: 1
    decay_mult: 1
  }
  param {
    lr_mult: 2
    decay_mult: 0
  }
  convolution_param {
    num_output: 224
    pad: 1
    kernel_size: 3
    weight_filler {
      type: "xavier"
      std: 0.03
    }
    bias_filler {
      type: "constant"
      value: 0.2
    }
  }
}
layer {
  name: "inception_4b/relu_3x3"
  type: "ReLU"
  bottom: "inception_4b/3x3"
  top: "inception_4b/3x3"
}
layer {
  name: "inception_4b/5x5_reduce"
  type: "Convolution"
  bottom: "inception_4a/output"
  top: "inception_4b/5x5_reduce"
  param {
    lr_mult: 1
    decay_mult: 1
  }
  param {
    lr_mult: 2
    decay_mult: 0
  }
  convolution_param {
    num_output: 24
    kernel_size: 1
    weight_filler {
      type: "xavier"
      std: 0.2
    }
    bias_filler {
      type: "constant"
      value: 0.2
    }
  }
}
layer {
  name: "inception_4b/relu_5x5_reduce"
  type: "ReLU"
  bottom: "inception_4b/5x5_reduce"
  top: "inception_4b/5x5_reduce"
}
layer {
  name: "inception_4b/5x5"
  type: "Convolution"
  bottom: "inception_4b/5x5_reduce"
  top: "inception_4b/5x5"
  param {
    lr_mult: 1
    decay_mult: 1
  }
  param {
    lr_mult: 2
    decay_mult: 0
  }
  convolution_param {
    num_output: 64
    pad: 2
    kernel_size: 5
    weight_filler {
      type: "xavier"
      std: 0.03
    }
    bias_filler {
      type: "constant"
      value: 0.2
    }
  }
}
layer {
  name: "inception_4b/relu_5x5"
  type: "ReLU"
  bottom: "inception_4b/5x5"
  top: "inception_4b/5x5"
}
layer {
  name: "inception_4b/pool"
  type: "Pooling"
  bottom: "inception_4a/output"
  top: "inception_4b/pool"
  pooling_param {
    pool: MAX
    kernel_size: 3
    stride: 1
    pad: 1
  }
}
layer {
  name: "inception_4b/pool_proj"
  type: "Convolution"
  bottom: "inception_4b/pool"
  top: "inception_4b/pool_proj"
  param {
    lr_mult: 1
    decay_mult: 1
  }
  param {
    lr_mult: 2
    decay_mult: 0
  }
  convolution_param {
    num_output: 64
    kernel_size: 1
    weight_filler {
      type: "xavier"
      std: 0.1
    }
    bias_filler {
      type: "constant"
      value: 0.2
    }
  }
}
layer {
  name: "inception_4b/relu_pool_proj"
  type: "ReLU"
  bottom: "inception_4b/pool_proj"
  top: "inception_4b/pool_proj"
}
layer {
  name: "inception_4b/output"
  type: "Concat"
  bottom: "inception_4b/1x1"
  bottom: "inception_4b/3x3"
  bottom: "inception_4b/5x5"
  bottom: "inception_4b/pool_proj"
  top: "inception_4b/output"
}
layer {
  name: "inception_4c/1x1"
  type: "Convolution"
  bottom: "inception_4b/output"
  top: "inception_4c/1x1"
  param {
    lr_mult: 1
    decay_mult: 1
  }
  param {
    lr_mult: 2
    decay_mult: 0
  }
  convolution_param {
    num_output: 128
    kernel_size: 1
    weight_filler {
      type: "xavier"
      std: 0.03
    }
    bias_filler {
      type: "constant"
      value: 0.2
    }
  }
}
layer {
  name: "inception_4c/relu_1x1"
  type: "ReLU"
  bottom: "inception_4c/1x1"
  top: "inception_4c/1x1"
}
layer {
  name: "inception_4c/3x3_reduce"
  type: "Convolution"
  bottom: "inception_4b/output"
  top: "inception_4c/3x3_reduce"
  param {
    lr_mult: 1
    decay_mult: 1
  }
  param {
    lr_mult: 2
    decay_mult: 0
  }
  convolution_param {
    num_output: 128
    kernel_size: 1
    weight_filler {
      type: "xavier"
      std: 0.09
    }
    bias_filler {
      type: "constant"
      value: 0.2
    }
  }
}
layer {
  name: "inception_4c/relu_3x3_reduce"
  type: "ReLU"
  bottom: "inception_4c/3x3_reduce"
  top: "inception_4c/3x3_reduce"
}
layer {
  name: "inception_4c/3x3"
  type: "Convolution"
  bottom: "inception_4c/3x3_reduce"
  top: "inception_4c/3x3"
  param {
    lr_mult: 1
    decay_mult: 1
  }
  param {
    lr_mult: 2
    decay_mult: 0
  }
  convolution_param {
    num_output: 256
    pad: 1
    kernel_size: 3
    weight_filler {
      type: "xavier"
      std: 0.03
    }
    bias_filler {
      type: "constant"
      value: 0.2
    }
  }
}
layer {
  name: "inception_4c/relu_3x3"
  type: "ReLU"
  bottom: "inception_4c/3x3"
  top: "inception_4c/3x3"
}
layer {
  name: "inception_4c/5x5_reduce"
  type: "Convolution"
  bottom: "inception_4b/output"
  top: "inception_4c/5x5_reduce"
  param {
    lr_mult: 1
    decay_mult: 1
  }
  param {
    lr_mult: 2
    decay_mult: 0
  }
  convolution_param {
    num_output: 24
    kernel_size: 1
    weight_filler {
      type: "xavier"
      std: 0.2
    }
    bias_filler {
      type: "constant"
      value: 0.2
    }
  }
}
layer {
  name: "inception_4c/relu_5x5_reduce"
  type: "ReLU"
  bottom: "inception_4c/5x5_reduce"
  top: "inception_4c/5x5_reduce"
}
layer {
  name: "inception_4c/5x5"
  type: "Convolution"
  bottom: "inception_4c/5x5_reduce"
  top: "inception_4c/5x5"
  param {
    lr_mult: 1
    decay_mult: 1
  }
  param {
    lr_mult: 2
    decay_mult: 0
  }
  convolution_param {
    num_output: 64
    pad: 2
    kernel_size: 5
    weight_filler {
      type: "xavier"
      std: 0.03
    }
    bias_filler {
      type: "constant"
      value: 0.2
    }
  }
}
layer {
  name: "inception_4c/relu_5x5"
  type: "ReLU"
  bottom: "inception_4c/5x5"
  top: "inception_4c/5x5"
}
layer {
  name: "inception_4c/pool"
  type: "Pooling"
  bottom: "inception_4b/output"
  top: "inception_4c/pool"
  pooling_param {
    pool: MAX
    kernel_size: 3
    stride: 1
    pad: 1
  }
}
layer {
  name: "inception_4c/pool_proj"
  type: "Convolution"
  bottom: "inception_4c/pool"
  top: "inception_4c/pool_proj"
  param {
    lr_mult: 1
    decay_mult: 1
  }
  param {
    lr_mult: 2
    decay_mult: 0
  }
  convolution_param {
    num_output: 64
    kernel_size: 1
    weight_filler {
      type: "xavier"
      std: 0.1
    }
    bias_filler {
      type: "constant"
      value: 0.2
    }
  }
}
layer {
  name: "inception_4c/relu_pool_proj"
  type: "ReLU"
  bottom: "inception_4c/pool_proj"
  top: "inception_4c/pool_proj"
}
layer {
  name: "inception_4c/output"
  type: "Concat"
  bottom: "inception_4c/1x1"
  bottom: "inception_4c/3x3"
  bottom: "inception_4c/5x5"
  bottom: "inception_4c/pool_proj"
  top: "inception_4c/output"
}
layer {
  name: "inception_4d/1x1"
  type: "Convolution"
  bottom: "inception_4c/output"
  top: "inception_4d/1x1"
  param {
    lr_mult: 1
    decay_mult: 1
  }
  param {
    lr_mult: 2
    decay_mult: 0
  }
  convolution_param {
    num_output: 112
    kernel_size: 1
    weight_filler {
      type: "xavier"
      std: 0.03
    }
    bias_filler {
      type: "constant"
      value: 0.2
    }
  }
}
layer {
  name: "inception_4d/relu_1x1"
  type: "ReLU"
  bottom: "inception_4d/1x1"
  top: "inception_4d/1x1"
}
layer {
  name: "inception_4d/3x3_reduce"
  type: "Convolution"
  bottom: "inception_4c/output"
  top: "inception_4d/3x3_reduce"
  param {
    lr_mult: 1
    decay_mult: 1
  }
  param {
    lr_mult: 2
    decay_mult: 0
  }
  convolution_param {
    num_output: 144
    kernel_size: 1
    weight_filler {
      type: "xavier"
      std: 0.09
    }
    bias_filler {
      type: "constant"
      value: 0.2
    }
  }
}
layer {
  name: "inception_4d/relu_3x3_reduce"
  type: "ReLU"
  bottom: "inception_4d/3x3_reduce"
  top: "inception_4d/3x3_reduce"
}
layer {
  name: "inception_4d/3x3"
  type: "Convolution"
  bottom: "inception_4d/3x3_reduce"
  top: "inception_4d/3x3"
  param {
    lr_mult: 1
    decay_mult: 1
  }
  param {
    lr_mult: 2
    decay_mult: 0
  }
  convolution_param {
    num_output: 288
    pad: 1
    kernel_size: 3
    weight_filler {
      type: "xavier"
      std: 0.03
    }
    bias_filler {
      type: "constant"
      value: 0.2
    }
  }
}
layer {
  name: "inception_4d/relu_3x3"
  type: "ReLU"
  bottom: "inception_4d/3x3"
  top: "inception_4d/3x3"
}
layer {
  name: "inception_4d/5x5_reduce"
  type: "Convolution"
  bottom: "inception_4c/output"
  top: "inception_4d/5x5_reduce"
  param {
    lr_mult: 1
    decay_mult: 1
  }
  param {
    lr_mult: 2
    decay_mult: 0
  }
  convolution_param {
    num_output: 32
    kernel_size: 1
    weight_filler {
      type: "xavier"
      std: 0.2
    }
    bias_filler {
      type: "constant"
      value: 0.2
    }
  }
}
layer {
  name: "inception_4d/relu_5x5_reduce"
  type: "ReLU"
  bottom: "inception_4d/5x5_reduce"
  top: "inception_4d/5x5_reduce"
}
layer {
  name: "inception_4d/5x5"
  type: "Convolution"
  bottom: "inception_4d/5x5_reduce"
  top: "inception_4d/5x5"
  param {
    lr_mult: 1
    decay_mult: 1
  }
  param {
    lr_mult: 2
    decay_mult: 0
  }
  convolution_param {
    num_output: 64
    pad: 2
    kernel_size: 5
    weight_filler {
      type: "xavier"
      std: 0.03
    }
    bias_filler {
      type: "constant"
      value: 0.2
    }
  }
}
layer {
  name: "inception_4d/relu_5x5"
  type: "ReLU"
  bottom: "inception_4d/5x5"
  top: "inception_4d/5x5"
}
layer {
  name: "inception_4d/pool"
  type: "Pooling"
  bottom: "inception_4c/output"
  top: "inception_4d/pool"
  pooling_param {
    pool: MAX
    kernel_size: 3
    stride: 1
    pad: 1
  }
}
layer {
  name: "inception_4d/pool_proj"
  type: "Convolution"
  bottom: "inception_4d/pool"
  top: "inception_4d/pool_proj"
  param {
    lr_mult: 1
    decay_mult: 1
  }
  param {
    lr_mult: 2
    decay_mult: 0
  }
  convolution_param {
    num_output: 64
    kernel_size: 1
    weight_filler {
      type: "xavier"
      std: 0.1
    }
    bias_filler {
      type: "constant"
      value: 0.2
    }
  }
}
layer {
  name: "inception_4d/relu_pool_proj"
  type: "ReLU"
  bottom: "inception_4d/pool_proj"
  top: "inception_4d/pool_proj"
}
layer {
  name: "inception_4d/output"
  type: "Concat"
  bottom: "inception_4d/1x1"
  bottom: "inception_4d/3x3"
  bottom: "inception_4d/5x5"
  bottom: "inception_4d/pool_proj"
  top: "inception_4d/output"
}
layer {
  name: "inception_4e/1x1"
  type: "Convolution"
  bottom: "inception_4d/output"
  top: "inception_4e/1x1"
  param {
    lr_mult: 1
    decay_mult: 1
  }
  param {
    lr_mult: 2
    decay_mult: 0
  }
  convolution_param {
    num_output: 256
    kernel_size: 1
    weight_filler {
      type: "xavier"
      std: 0.03
    }
    bias_filler {
      type: "constant"
      value: 0.2
    }
  }
}
layer {
  name: "inception_4e/relu_1x1"
  type: "ReLU"
  bottom: "inception_4e/1x1"
  top: "inception_4e/1x1"
}
layer {
  name: "inception_4e/3x3_reduce"
  type: "Convolution"
  bottom: "inception_4d/output"
  top: "inception_4e/3x3_reduce"
  param {
    lr_mult: 1
    decay_mult: 1
  }
  param {
    lr_mult: 2
    decay_mult: 0
  }
  convolution_param {
    num_output: 160
    kernel_size: 1
    weight_filler {
      type: "xavier"
      std: 0.09
    }
    bias_filler {
      type: "constant"
      value: 0.2
    }
  }
}
layer {
  name: "inception_4e/relu_3x3_reduce"
  type: "ReLU"
  bottom: "inception_4e/3x3_reduce"
  top: "inception_4e/3x3_reduce"
}
layer {
  name: "inception_4e/3x3"
  type: "Convolution"
  bottom: "inception_4e/3x3_reduce"
  top: "inception_4e/3x3"
  param {
    lr_mult: 1
    decay_mult: 1
  }
  param {
    lr_mult: 2
    decay_mult: 0
  }
  convolution_param {
    num_output: 320
    pad: 1
    kernel_size: 3
    weight_filler {
      type: "xavier"
      std: 0.03
    }
    bias_filler {
      type: "constant"
      value: 0.2
    }
  }
}
layer {
  name: "inception_4e/relu_3x3"
  type: "ReLU"
  bottom: "inception_4e/3x3"
  top: "inception_4e/3x3"
}
layer {
  name: "inception_4e/5x5_reduce"
  type: "Convolution"
  bottom: "inception_4d/output"
  top: "inception_4e/5x5_reduce"
  param {
    lr_mult: 1
    decay_mult: 1
  }
  param {
    lr_mult: 2
    decay_mult: 0
  }
  convolution_param {
    num_output: 32
    kernel_size: 1
    weight_filler {
      type: "xavier"
      std: 0.2
    }
    bias_filler {
      type: "constant"
      value: 0.2
    }
  }
}
layer {
  name: "inception_4e/relu_5x5_reduce"
  type: "ReLU"
  bottom: "inception_4e/5x5_reduce"
  top: "inception_4e/5x5_reduce"
}
layer {
  name: "inception_4e/5x5"
  type: "Convolution"
  bottom: "inception_4e/5x5_reduce"
  top: "inception_4e/5x5"
  param {
    lr_mult: 1
    decay_mult: 1
  }
  param {
    lr_mult: 2
    decay_mult: 0
  }
  convolution_param {
    num_output: 128
    pad: 2
    kernel_size: 5
    weight_filler {
      type: "xavier"
      std: 0.03
    }
    bias_filler {
      type: "constant"
      value: 0.2
    }
  }
}
layer {
  name: "inception_4e/relu_5x5"
  type: "ReLU"
  bottom: "inception_4e/5x5"
  top: "inception_4e/5x5"
}
layer {
  name: "inception_4e/pool"
  type: "Pooling"
  bottom: "inception_4d/output"
  top: "inception_4e/pool"
  pooling_param {
    pool: MAX
    kernel_size: 3
    stride: 1
    pad: 1
  }
}
layer {
  name: "inception_4e/pool_proj"
  type: "Convolution"
  bottom: "inception_4e/pool"
  top: "inception_4e/pool_proj"
  param {
    lr_mult: 1
    decay_mult: 1
  }
  param {
    lr_mult: 2
    decay_mult: 0
  }
  convolution_param {
    num_output: 128
    kernel_size: 1
    weight_filler {
      type: "xavier"
      std: 0.1
    }
    bias_filler {
      type: "constant"
      value: 0.2
    }
  }
}
layer {
  name: "inception_4e/relu_pool_proj"
  type: "ReLU"
  bottom: "inception_4e/pool_proj"
  top: "inception_4e/pool_proj"
}
layer {
  name: "inception_4e/output"
  type: "Concat"
  bottom: "inception_4e/1x1"
  bottom: "inception_4e/3x3"
  bottom: "inception_4e/5x5"
  bottom: "inception_4e/pool_proj"
  top: "inception_4e/output"
}
layer {
  name: "pool4/3x3_s2"
  type: "Pooling"
  bottom: "inception_4e/output"
  top: "pool4/3x3_s2"
  pooling_param {
    pool: MAX
    kernel_size: 3
    stride: 2
  }
}
layer {
  name: "inception_5a/1x1"
  type: "Convolution"
  bottom: "pool4/3x3_s2"
  top: "inception_5a/1x1"
  param {
    lr_mult: 1
    decay_mult: 1
  }
  param {
    lr_mult: 2
    decay_mult: 0
  }
  convolution_param {
    num_output: 256
    kernel_size: 1
    weight_filler {
      type: "xavier"
      std: 0.03
    }
    bias_filler {
      type: "constant"
      value: 0.2
    }
  }
}
layer {
  name: "inception_5a/relu_1x1"
  type: "ReLU"
  bottom: "inception_5a/1x1"
  top: "inception_5a/1x1"
}
layer {
  name: "inception_5a/3x3_reduce"
  type: "Convolution"
  bottom: "pool4/3x3_s2"
  top: "inception_5a/3x3_reduce"
  param {
    lr_mult: 1
    decay_mult: 1
  }
  param {
    lr_mult: 2
    decay_mult: 0
  }
  convolution_param {
    num_output: 160
    kernel_size: 1
    weight_filler {
      type: "xavier"
      std: 0.09
    }
    bias_filler {
      type: "constant"
      value: 0.2
    }
  }
}
layer {
  name: "inception_5a/relu_3x3_reduce"
  type: "ReLU"
  bottom: "inception_5a/3x3_reduce"
  top: "inception_5a/3x3_reduce"
}
layer {
  name: "inception_5a/3x3"
  type: "Convolution"
  bottom: "inception_5a/3x3_reduce"
  top: "inception_5a/3x3"
  param {
    lr_mult: 1
    decay_mult: 1
  }
  param {
    lr_mult: 2
    decay_mult: 0
  }
  convolution_param {
    num_output: 320
    pad: 1
    kernel_size: 3
    weight_filler {
      type: "xavier"
      std: 0.03
    }
    bias_filler {
      type: "constant"
      value: 0.2
    }
  }
}
layer {
  name: "inception_5a/relu_3x3"
  type: "ReLU"
  bottom: "inception_5a/3x3"
  top: "inception_5a/3x3"
}
layer {
  name: "inception_5a/5x5_reduce"
  type: "Convolution"
  bottom: "pool4/3x3_s2"
  top: "inception_5a/5x5_reduce"
  param {
    lr_mult: 1
    decay_mult: 1
  }
  param {
    lr_mult: 2
    decay_mult: 0
  }
  convolution_param {
    num_output: 32
    kernel_size: 1
    weight_filler {
      type: "xavier"
      std: 0.2
    }
    bias_filler {
      type: "constant"
      value: 0.2
    }
I0713 13:59:44.175890  7792 layer_factory.hpp:77] Creating layer data
I0713 13:59:44.175918  7792 net.cpp:91] Creating Layer data
I0713 13:59:44.175930  7792 net.cpp:399] data -> data
I0713 13:59:44.788789  7792 net.cpp:141] Setting up data
I0713 13:59:44.788861  7792 net.cpp:148] Top shape: 10 3 224 224 (1505280)
I0713 13:59:44.788868  7792 net.cpp:156] Memory required for data: 6021120
I0713 13:59:44.788890  7792 layer_factory.hpp:77] Creating layer conv1/7x7_s2
I0713 13:59:44.788928  7792 net.cpp:91] Creating Layer conv1/7x7_s2
I0713 13:59:44.788938  7792 net.cpp:425] conv1/7x7_s2 <- data
I0713 13:59:44.788952  7792 net.cpp:399] conv1/7x7_s2 -> conv1/7x7_s2
I0713 13:59:45.044762  7792 net.cpp:141] Setting up conv1/7x7_s2
I0713 13:59:45.044812  7792 net.cpp:148] Top shape: 10 64 112 112 (8028160)
I0713 13:59:45.044822  7792 net.cpp:156] Memory required for data: 38133760
I0713 13:59:45.044850  7792 layer_factory.hpp:77] Creating layer conv1/relu_7x7
I0713 13:59:45.044868  7792 net.cpp:91] Creating Layer conv1/relu_7x7
I0713 13:59:45.044874  7792 net.cpp:425] conv1/relu_7x7 <- conv1/7x7_s2
I0713 13:59:45.044883  7792 net.cpp:386] conv1/relu_7x7 -> conv1/7x7_s2 (in-place)
I0713 13:59:45.045683  7792 net.cpp:141] Setting up conv1/relu_7x7
I0713 13:59:45.045697  7792 net.cpp:148] Top shape: 10 64 112 112 (8028160)
I0713 13:59:45.045703  7792 net.cpp:156] Memory required for data: 70246400
I0713 13:59:45.045708  7792 layer_factory.hpp:77] Creating layer pool1/3x3_s2
I0713 13:59:45.045722  7792 net.cpp:91] Creating Layer pool1/3x3_s2
I0713 13:59:45.045727  7792 net.cpp:425] pool1/3x3_s2 <- conv1/7x7_s2
I0713 13:59:45.045738  7792 net.cpp:399] pool1/3x3_s2 -> pool1/3x3_s2
I0713 13:59:45.045817  7792 net.cpp:141] Setting up pool1/3x3_s2
I0713 13:59:45.045828  7792 net.cpp:148] Top shape: 10 64 56 56 (2007040)
I0713 13:59:45.045833  7792 net.cpp:156] Memory required for data: 78274560
I0713 13:59:45.045838  7792 layer_factory.hpp:77] Creating layer pool1/norm1
I0713 13:59:45.045860  7792 net.cpp:91] Creating Layer pool1/norm1
I0713 13:59:45.045866  7792 net.cpp:425] pool1/norm1 <- pool1/3x3_s2
I0713 13:59:45.045876  7792 net.cpp:399] pool1/norm1 -> pool1/norm1
I0713 13:59:45.046718  7792 net.cpp:141] Setting up pool1/norm1
I0713 13:59:45.046733  7792 net.cpp:148] Top shape: 10 64 56 56 (2007040)
I0713 13:59:45.046738  7792 net.cpp:156] Memory required for data: 86302720
I0713 13:59:45.046744  7792 layer_factory.hpp:77] Creating layer conv2/3x3_reduce
I0713 13:59:45.046766  7792 net.cpp:91] Creating Layer conv2/3x3_reduce
I0713 13:59:45.046772  7792 net.cpp:425] conv2/3x3_reduce <- pool1/norm1
I0713 13:59:45.046784  7792 net.cpp:399] conv2/3x3_reduce -> conv2/3x3_reduce
I0713 13:59:45.049697  7792 net.cpp:141] Setting up conv2/3x3_reduce
I0713 13:59:45.049718  7792 net.cpp:148] Top shape: 10 64 56 56 (2007040)
I0713 13:59:45.049724  7792 net.cpp:156] Memory required for data: 94330880
I0713 13:59:45.049746  7792 layer_factory.hpp:77] Creating layer conv2/relu_3x3_reduce
I0713 13:59:45.049760  7792 net.cpp:91] Creating Layer conv2/relu_3x3_reduce
I0713 13:59:45.049767  7792 net.cpp:425] conv2/relu_3x3_reduce <- conv2/3x3_reduce
I0713 13:59:45.049774  7792 net.cpp:386] conv2/relu_3x3_reduce -> conv2/3x3_reduce (in-place)
I0713 13:59:45.050550  7792 net.cpp:141] Setting up conv2/relu_3x3_reduce
I0713 13:59:45.050567  7792 net.cpp:148] Top shape: 10 64 56 56 (2007040)
I0713 13:59:45.050573  7792 net.cpp:156] Memory required for data: 102359040
I0713 13:59:45.050578  7792 layer_factory.hpp:77] Creating layer conv2/3x3
I0713 13:59:45.050598  7792 net.cpp:91] Creating Layer conv2/3x3
I0713 13:59:45.050604  7792 net.cpp:425] conv2/3x3 <- conv2/3x3_reduce
I0713 13:59:45.050613  7792 net.cpp:399] conv2/3x3 -> conv2/3x3
I0713 13:59:45.055544  7792 net.cpp:141] Setting up conv2/3x3
I0713 13:59:45.055564  7792 net.cpp:148] Top shape: 10 192 56 56 (6021120)
I0713 13:59:45.055570  7792 net.cpp:156] Memory required for data: 126443520
I0713 13:59:45.055584  7792 layer_factory.hpp:77] Creating layer conv2/relu_3x3
I0713 13:59:45.055598  7792 net.cpp:91] Creating Layer conv2/relu_3x3
I0713 13:59:45.055603  7792 net.cpp:425] conv2/relu_3x3 <- conv2/3x3
I0713 13:59:45.055610  7792 net.cpp:386] conv2/relu_3x3 -> conv2/3x3 (in-place)
I0713 13:59:45.055876  7792 net.cpp:141] Setting up conv2/relu_3x3
I0713 13:59:45.055887  7792 net.cpp:148] Top shape: 10 192 56 56 (6021120)
I0713 13:59:45.055892  7792 net.cpp:156] Memory required for data: 150528000
I0713 13:59:45.055897  7792 layer_factory.hpp:77] Creating layer conv2/norm2
I0713 13:59:45.055910  7792 net.cpp:91] Creating Layer conv2/norm2
I0713 13:59:45.055915  7792 net.cpp:425] conv2/norm2 <- conv2/3x3
I0713 13:59:45.055925  7792 net.cpp:399] conv2/norm2 -> conv2/norm2
I0713 13:59:45.056756  7792 net.cpp:141] Setting up conv2/norm2
I0713 13:59:45.056774  7792 net.cpp:148] Top shape: 10 192 56 56 (6021120)
I0713 13:59:45.056779  7792 net.cpp:156] Memory required for data: 174612480
I0713 13:59:45.056784  7792 layer_factory.hpp:77] Creating layer pool2/3x3_s2
I0713 13:59:45.056797  7792 net.cpp:91] Creating Layer pool2/3x3_s2
I0713 13:59:45.056802  7792 net.cpp:425] pool2/3x3_s2 <- conv2/norm2
I0713 13:59:45.056810  7792 net.cpp:399] pool2/3x3_s2 -> pool2/3x3_s2
I0713 13:59:45.056869  7792 net.cpp:141] Setting up pool2/3x3_s2
I0713 13:59:45.056877  7792 net.cpp:148] Top shape: 10 192 28 28 (1505280)
I0713 13:59:45.056882  7792 net.cpp:156] Memory required for data: 180633600
I0713 13:59:45.056887  7792 layer_factory.hpp:77] Creating layer pool2/3x3_s2_pool2/3x3_s2_0_split
I0713 13:59:45.056902  7792 net.cpp:91] Creating Layer pool2/3x3_s2_pool2/3x3_s2_0_split
I0713 13:59:45.056907  7792 net.cpp:425] pool2/3x3_s2_pool2/3x3_s2_0_split <- pool2/3x3_s2
I0713 13:59:45.056915  7792 net.cpp:399] pool2/3x3_s2_pool2/3x3_s2_0_split -> pool2/3x3_s2_pool2/3x3_s2_0_split_0
I0713 13:59:45.056928  7792 net.cpp:399] pool2/3x3_s2_pool2/3x3_s2_0_split -> pool2/3x3_s2_pool2/3x3_s2_0_split_1
I0713 13:59:45.056937  7792 net.cpp:399] pool2/3x3_s2_pool2/3x3_s2_0_split -> pool2/3x3_s2_pool2/3x3_s2_0_split_2
I0713 13:59:45.056946  7792 net.cpp:399] pool2/3x3_s2_pool2/3x3_s2_0_split -> pool2/3x3_s2_pool2/3x3_s2_0_split_3
I0713 13:59:45.057027  7792 net.cpp:141] Setting up pool2/3x3_s2_pool2/3x3_s2_0_split
I0713 13:59:45.057037  7792 net.cpp:148] Top shape: 10 192 28 28 (1505280)
I0713 13:59:45.057044  7792 net.cpp:148] Top shape: 10 192 28 28 (1505280)
I0713 13:59:45.057049  7792 net.cpp:148] Top shape: 10 192 28 28 (1505280)
I0713 13:59:45.057054  7792 net.cpp:148] Top shape: 10 192 28 28 (1505280)
I0713 13:59:45.057059  7792 net.cpp:156] Memory required for data: 204718080
I0713 13:59:45.057063  7792 layer_factory.hpp:77] Creating layer inception_3a/1x1
I0713 13:59:45.057081  7792 net.cpp:91] Creating Layer inception_3a/1x1
I0713 13:59:45.057087  7792 net.cpp:425] inception_3a/1x1 <- pool2/3x3_s2_pool2/3x3_s2_0_split_0
I0713 13:59:45.057114  7792 net.cpp:399] inception_3a/1x1 -> inception_3a/1x1
I0713 13:59:45.061187  7792 net.cpp:141] Setting up inception_3a/1x1
I0713 13:59:45.061208  7792 net.cpp:148] Top shape: 10 64 28 28 (501760)
I0713 13:59:45.061213  7792 net.cpp:156] Memory required for data: 206725120
I0713 13:59:45.061224  7792 layer_factory.hpp:77] Creating layer inception_3a/relu_1x1
I0713 13:59:45.061239  7792 net.cpp:91] Creating Layer inception_3a/relu_1x1
I0713 13:59:45.061244  7792 net.cpp:425] inception_3a/relu_1x1 <- inception_3a/1x1
I0713 13:59:45.061254  7792 net.cpp:386] inception_3a/relu_1x1 -> inception_3a/1x1 (in-place)
I0713 13:59:45.061528  7792 net.cpp:141] Setting up inception_3a/relu_1x1
I0713 13:59:45.061540  7792 net.cpp:148] Top shape: 10 64 28 28 (501760)
I0713 13:59:45.061545  7792 net.cpp:156] Memory required for data: 208732160
I0713 13:59:45.061550  7792 layer_factory.hpp:77] Creating layer inception_3a/3x3_reduce
I0713 13:59:45.061568  7792 net.cpp:91] Creating Layer inception_3a/3x3_reduce
I0713 13:59:45.061574  7792 net.cpp:425] inception_3a/3x3_reduce <- pool2/3x3_s2_pool2/3x3_s2_0_split_1
I0713 13:59:45.061586  7792 net.cpp:399] inception_3a/3x3_reduce -> inception_3a/3x3_reduce
I0713 13:59:45.065183  7792 net.cpp:141] Setting up inception_3a/3x3_reduce
I0713 13:59:45.065204  7792 net.cpp:148] Top shape: 10 96 28 28 (752640)
I0713 13:59:45.065209  7792 net.cpp:156] Memory required for data: 211742720
I0713 13:59:45.065223  7792 layer_factory.hpp:77] Creating layer inception_3a/relu_3x3_reduce
I0713 13:59:45.065243  7792 net.cpp:91] Creating Layer inception_3a/relu_3x3_reduce
I0713 13:59:45.065248  7792 net.cpp:425] inception_3a/relu_3x3_reduce <- inception_3a/3x3_reduce
I0713 13:59:45.065260  7792 net.cpp:386] inception_3a/relu_3x3_reduce -> inception_3a/3x3_reduce (in-place)
I0713 13:59:45.065517  7792 net.cpp:141] Setting up inception_3a/relu_3x3_reduce
I0713 13:59:45.065532  7792 net.cpp:148] Top shape: 10 96 28 28 (752640)
I0713 13:59:45.065537  7792 net.cpp:156] Memory required for data: 214753280
I0713 13:59:45.065542  7792 layer_factory.hpp:77] Creating layer inception_3a/3x3
I0713 13:59:45.065562  7792 net.cpp:91] Creating Layer inception_3a/3x3
I0713 13:59:45.065567  7792 net.cpp:425] inception_3a/3x3 <- inception_3a/3x3_reduce
I0713 13:59:45.065579  7792 net.cpp:399] inception_3a/3x3 -> inception_3a/3x3
I0713 13:59:45.068804  7792 net.cpp:141] Setting up inception_3a/3x3
I0713 13:59:45.068826  7792 net.cpp:148] Top shape: 10 128 28 28 (1003520)
I0713 13:59:45.068831  7792 net.cpp:156] Memory required for data: 218767360
I0713 13:59:45.068841  7792 layer_factory.hpp:77] Creating layer inception_3a/relu_3x3
I0713 13:59:45.068856  7792 net.cpp:91] Creating Layer inception_3a/relu_3x3
I0713 13:59:45.068862  7792 net.cpp:425] inception_3a/relu_3x3 <- inception_3a/3x3
I0713 13:59:45.068871  7792 net.cpp:386] inception_3a/relu_3x3 -> inception_3a/3x3 (in-place)
I0713 13:59:45.069646  7792 net.cpp:141] Setting up inception_3a/relu_3x3
I0713 13:59:45.069664  7792 net.cpp:148] Top shape: 10 128 28 28 (1003520)
I0713 13:59:45.069669  7792 net.cpp:156] Memory required for data: 222781440
I0713 13:59:45.069674  7792 layer_factory.hpp:77] Creating layer inception_3a/5x5_reduce
I0713 13:59:45.069702  7792 net.cpp:91] Creating Layer inception_3a/5x5_reduce
I0713 13:59:45.069710  7792 net.cpp:425] inception_3a/5x5_reduce <- pool2/3x3_s2_pool2/3x3_s2_0_split_2
I0713 13:59:45.069720  7792 net.cpp:399] inception_3a/5x5_reduce -> inception_3a/5x5_reduce
I0713 13:59:45.072007  7792 net.cpp:141] Setting up inception_3a/5x5_reduce
I0713 13:59:45.072034  7792 net.cpp:148] Top shape: 10 16 28 28 (125440)
I0713 13:59:45.072041  7792 net.cpp:156] Memory required for data: 223283200
I0713 13:59:45.072051  7792 layer_factory.hpp:77] Creating layer inception_3a/relu_5x5_reduce
I0713 13:59:45.072062  7792 net.cpp:91] Creating Layer inception_3a/relu_5x5_reduce
I0713 13:59:45.072068  7792 net.cpp:425] inception_3a/relu_5x5_reduce <- inception_3a/5x5_reduce
I0713 13:59:45.072077  7792 net.cpp:386] inception_3a/relu_5x5_reduce -> inception_3a/5x5_reduce (in-place)
I0713 13:59:45.072331  7792 net.cpp:141] Setting up inception_3a/relu_5x5_reduce
I0713 13:59:45.072343  7792 net.cpp:148] Top shape: 10 16 28 28 (125440)
I0713 13:59:45.072348  7792 net.cpp:156] Memory required for data: 223784960
I0713 13:59:45.072353  7792 layer_factory.hpp:77] Creating layer inception_3a/5x5
I0713 13:59:45.072372  7792 net.cpp:91] Creating Layer inception_3a/5x5
I0713 13:59:45.072378  7792 net.cpp:425] inception_3a/5x5 <- inception_3a/5x5_reduce
I0713 13:59:45.072387  7792 net.cpp:399] inception_3a/5x5 -> inception_3a/5x5
I0713 13:59:45.075942  7792 net.cpp:141] Setting up inception_3a/5x5
I0713 13:59:45.075961  7792 net.cpp:148] Top shape: 10 32 28 28 (250880)
I0713 13:59:45.075968  7792 net.cpp:156] Memory required for data: 224788480
I0713 13:59:45.075978  7792 layer_factory.hpp:77] Creating layer inception_3a/relu_5x5
I0713 13:59:45.075986  7792 net.cpp:91] Creating Layer inception_3a/relu_5x5
I0713 13:59:45.075996  7792 net.cpp:425] inception_3a/relu_5x5 <- inception_3a/5x5
I0713 13:59:45.076004  7792 net.cpp:386] inception_3a/relu_5x5 -> inception_3a/5x5 (in-place)
I0713 13:59:45.076267  7792 net.cpp:141] Setting up inception_3a/relu_5x5
I0713 13:59:45.076278  7792 net.cpp:148] Top shape: 10 32 28 28 (250880)
I0713 13:59:45.076283  7792 net.cpp:156] Memory required for data: 225792000
I0713 13:59:45.076288  7792 layer_factory.hpp:77] Creating layer inception_3a/pool
I0713 13:59:45.076303  7792 net.cpp:91] Creating Layer inception_3a/pool
I0713 13:59:45.076308  7792 net.cpp:425] inception_3a/pool <- pool2/3x3_s2_pool2/3x3_s2_0_split_3
I0713 13:59:45.076318  7792 net.cpp:399] inception_3a/pool -> inception_3a/pool
I0713 13:59:45.076383  7792 net.cpp:141] Setting up inception_3a/pool
I0713 13:59:45.076392  7792 net.cpp:148] Top shape: 10 192 28 28 (1505280)
I0713 13:59:45.076397  7792 net.cpp:156] Memory required for data: 231813120
I0713 13:59:45.076402  7792 layer_factory.hpp:77] Creating layer inception_3a/pool_proj
I0713 13:59:45.076417  7792 net.cpp:91] Creating Layer inception_3a/pool_proj
I0713 13:59:45.076423  7792 net.cpp:425] inception_3a/pool_proj <- inception_3a/pool
I0713 13:59:45.076436  7792 net.cpp:399] inception_3a/pool_proj -> inception_3a/pool_proj
I0713 13:59:45.078701  7792 net.cpp:141] Setting up inception_3a/pool_proj
I0713 13:59:45.078721  7792 net.cpp:148] Top shape: 10 32 28 28 (250880)
I0713 13:59:45.078727  7792 net.cpp:156] Memory required for data: 232816640
I0713 13:59:45.078742  7792 layer_factory.hpp:77] Creating layer inception_3a/relu_pool_proj
I0713 13:59:45.078752  7792 net.cpp:91] Creating Layer inception_3a/relu_pool_proj
I0713 13:59:45.078757  7792 net.cpp:425] inception_3a/relu_pool_proj <- inception_3a/pool_proj
I0713 13:59:45.078769  7792 net.cpp:386] inception_3a/relu_pool_proj -> inception_3a/pool_proj (in-place)
I0713 13:59:45.079567  7792 net.cpp:141] Setting up inception_3a/relu_pool_proj
I0713 13:59:45.079586  7792 net.cpp:148] Top shape: 10 32 28 28 (250880)
I0713 13:59:45.079591  7792 net.cpp:156] Memory required for data: 233820160
I0713 13:59:45.079596  7792 layer_factory.hpp:77] Creating layer inception_3a/output
I0713 13:59:45.079617  7792 net.cpp:91] Creating Layer inception_3a/output
I0713 13:59:45.079623  7792 net.cpp:425] inception_3a/output <- inception_3a/1x1
I0713 13:59:45.079633  7792 net.cpp:425] inception_3a/output <- inception_3a/3x3
I0713 13:59:45.079639  7792 net.cpp:425] inception_3a/output <- inception_3a/5x5
I0713 13:59:45.079644  7792 net.cpp:425] inception_3a/output <- inception_3a/pool_proj
I0713 13:59:45.079651  7792 net.cpp:399] inception_3a/output -> inception_3a/output
I0713 13:59:45.079699  7792 net.cpp:141] Setting up inception_3a/output
I0713 13:59:45.079708  7792 net.cpp:148] Top shape: 10 256 28 28 (2007040)
I0713 13:59:45.079712  7792 net.cpp:156] Memory required for data: 241848320
I0713 13:59:45.079718  7792 layer_factory.hpp:77] Creating layer inception_3a/output_inception_3a/output_0_split
I0713 13:59:45.079726  7792 net.cpp:91] Creating Layer inception_3a/output_inception_3a/output_0_split
I0713 13:59:45.079731  7792 net.cpp:425] inception_3a/output_inception_3a/output_0_split <- inception_3a/output
I0713 13:59:45.079742  7792 net.cpp:399] inception_3a/output_inception_3a/output_0_split -> inception_3a/output_inception_3a/output_0_split_0
I0713 13:59:45.079752  7792 net.cpp:399] inception_3a/output_inception_3a/output_0_split -> inception_3a/output_inception_3a/output_0_split_1
I0713 13:59:45.079761  7792 net.cpp:399] inception_3a/output_inception_3a/output_0_split -> inception_3a/output_inception_3a/output_0_split_2
I0713 13:59:45.079768  7792 net.cpp:399] inception_3a/output_inception_3a/output_0_split -> inception_3a/output_inception_3a/output_0_split_3
I0713 13:59:45.079859  7792 net.cpp:141] Setting up inception_3a/output_inception_3a/output_0_split
I0713 13:59:45.079867  7792 net.cpp:148] Top shape: 10 256 28 28 (2007040)
I0713 13:59:45.079874  7792 net.cpp:148] Top shape: 10 256 28 28 (2007040)
I0713 13:59:45.079879  7792 net.cpp:148] Top shape: 10 256 28 28 (2007040)
I0713 13:59:45.079885  7792 net.cpp:148] Top shape: 10 256 28 28 (2007040)
I0713 13:59:45.079888  7792 net.cpp:156] Memory required for data: 273960960
I0713 13:59:45.079893  7792 layer_factory.hpp:77] Creating layer inception_3b/1x1
I0713 13:59:45.079913  7792 net.cpp:91] Creating Layer inception_3b/1x1
I0713 13:59:45.079919  7792 net.cpp:425] inception_3b/1x1 <- inception_3a/output_inception_3a/output_0_split_0
I0713 13:59:45.079928  7792 net.cpp:399] inception_3b/1x1 -> inception_3b/1x1
I0713 13:59:45.082402  7792 net.cpp:141] Setting up inception_3b/1x1
I0713 13:59:45.082422  7792 net.cpp:148] Top shape: 10 128 28 28 (1003520)
I0713 13:59:45.082427  7792 net.cpp:156] Memory required for data: 277975040
I0713 13:59:45.082437  7792 layer_factory.hpp:77] Creating layer inception_3b/relu_1x1
I0713 13:59:45.082448  7792 net.cpp:91] Creating Layer inception_3b/relu_1x1
I0713 13:59:45.082454  7792 net.cpp:425] inception_3b/relu_1x1 <- inception_3b/1x1
I0713 13:59:45.082461  7792 net.cpp:386] inception_3b/relu_1x1 -> inception_3b/1x1 (in-place)
I0713 13:59:45.082729  7792 net.cpp:141] Setting up inception_3b/relu_1x1
I0713 13:59:45.082742  7792 net.cpp:148] Top shape: 10 128 28 28 (1003520)
I0713 13:59:45.082747  7792 net.cpp:156] Memory required for data: 281989120
I0713 13:59:45.082752  7792 layer_factory.hpp:77] Creating layer inception_3b/3x3_reduce
I0713 13:59:45.082773  7792 net.cpp:91] Creating Layer inception_3b/3x3_reduce
I0713 13:59:45.082779  7792 net.cpp:425] inception_3b/3x3_reduce <- inception_3a/output_inception_3a/output_0_split_1
I0713 13:59:45.082788  7792 net.cpp:399] inception_3b/3x3_reduce -> inception_3b/3x3_reduce
I0713 13:59:45.085338  7792 net.cpp:141] Setting up inception_3b/3x3_reduce
I0713 13:59:45.085357  7792 net.cpp:148] Top shape: 10 128 28 28 (1003520)
I0713 13:59:45.085362  7792 net.cpp:156] Memory required for data: 286003200
I0713 13:59:45.085372  7792 layer_factory.hpp:77] Creating layer inception_3b/relu_3x3_reduce
I0713 13:59:45.085384  7792 net.cpp:91] Creating Layer inception_3b/relu_3x3_reduce
I0713 13:59:45.085391  7792 net.cpp:425] inception_3b/relu_3x3_reduce <- inception_3b/3x3_reduce
I0713 13:59:45.085398  7792 net.cpp:386] inception_3b/relu_3x3_reduce -> inception_3b/3x3_reduce (in-place)
I0713 13:59:45.085652  7792 net.cpp:141] Setting up inception_3b/relu_3x3_reduce
I0713 13:59:45.085664  7792 net.cpp:148] Top shape: 10 128 28 28 (1003520)
I0713 13:59:45.085669  7792 net.cpp:156] Memory required for data: 290017280
I0713 13:59:45.085675  7792 layer_factory.hpp:77] Creating layer inception_3b/3x3
I0713 13:59:45.085693  7792 net.cpp:91] Creating Layer inception_3b/3x3
I0713 13:59:45.085700  7792 net.cpp:425] inception_3b/3x3 <- inception_3b/3x3_reduce
I0713 13:59:45.085710  7792 net.cpp:399] inception_3b/3x3 -> inception_3b/3x3
I0713 13:59:45.090948  7792 net.cpp:141] Setting up inception_3b/3x3
I0713 13:59:45.090968  7792 net.cpp:148] Top shape: 10 192 28 28 (1505280)
I0713 13:59:45.090976  7792 net.cpp:156] Memory required for data: 296038400
I0713 13:59:45.090986  7792 layer_factory.hpp:77] Creating layer inception_3b/relu_3x3
I0713 13:59:45.091004  7792 net.cpp:91] Creating Layer inception_3b/relu_3x3
I0713 13:59:45.091012  7792 net.cpp:425] inception_3b/relu_3x3 <- inception_3b/3x3
I0713 13:59:45.091019  7792 net.cpp:386] inception_3b/relu_3x3 -> inception_3b/3x3 (in-place)
I0713 13:59:45.091979  7792 net.cpp:141] Setting up inception_3b/relu_3x3
I0713 13:59:45.091997  7792 net.cpp:148] Top shape: 10 192 28 28 (1505280)
I0713 13:59:45.092002  7792 net.cpp:156] Memory required for data: 302059520
I0713 13:59:45.092008  7792 layer_factory.hpp:77] Creating layer inception_3b/5x5_reduce
I0713 13:59:45.092027  7792 net.cpp:91] Creating Layer inception_3b/5x5_reduce
I0713 13:59:45.092034  7792 net.cpp:425] inception_3b/5x5_reduce <- inception_3a/output_inception_3a/output_0_split_2
I0713 13:59:45.092044  7792 net.cpp:399] inception_3b/5x5_reduce -> inception_3b/5x5_reduce
I0713 13:59:45.094354  7792 net.cpp:141] Setting up inception_3b/5x5_reduce
I0713 13:59:45.094372  7792 net.cpp:148] Top shape: 10 32 28 28 (250880)
I0713 13:59:45.094378  7792 net.cpp:156] Memory required for data: 303063040
I0713 13:59:45.094388  7792 layer_factory.hpp:77] Creating layer inception_3b/relu_5x5_reduce
I0713 13:59:45.094399  7792 net.cpp:91] Creating Layer inception_3b/relu_5x5_reduce
I0713 13:59:45.094405  7792 net.cpp:425] inception_3b/relu_5x5_reduce <- inception_3b/5x5_reduce
I0713 13:59:45.094413  7792 net.cpp:386] inception_3b/relu_5x5_reduce -> inception_3b/5x5_reduce (in-place)
I0713 13:59:45.094669  7792 net.cpp:141] Setting up inception_3b/relu_5x5_reduce
I0713 13:59:45.094681  7792 net.cpp:148] Top shape: 10 32 28 28 (250880)
I0713 13:59:45.094697  7792 net.cpp:156] Memory required for data: 304066560
I0713 13:59:45.094703  7792 layer_factory.hpp:77] Creating layer inception_3b/5x5
I0713 13:59:45.094724  7792 net.cpp:91] Creating Layer inception_3b/5x5
I0713 13:59:45.094732  7792 net.cpp:425] inception_3b/5x5 <- inception_3b/5x5_reduce
I0713 13:59:45.094740  7792 net.cpp:399] inception_3b/5x5 -> inception_3b/5x5
I0713 13:59:45.098804  7792 net.cpp:141] Setting up inception_3b/5x5
I0713 13:59:45.098825  7792 net.cpp:148] Top shape: 10 96 28 28 (752640)
I0713 13:59:45.098831  7792 net.cpp:156] Memory required for data: 307077120
I0713 13:59:45.098841  7792 layer_factory.hpp:77] Creating layer inception_3b/relu_5x5
I0713 13:59:45.098855  7792 net.cpp:91] Creating Layer inception_3b/relu_5x5
I0713 13:59:45.098862  7792 net.cpp:425] inception_3b/relu_5x5 <- inception_3b/5x5
I0713 13:59:45.098870  7792 net.cpp:386] inception_3b/relu_5x5 -> inception_3b/5x5 (in-place)
I0713 13:59:45.099130  7792 net.cpp:141] Setting up inception_3b/relu_5x5
I0713 13:59:45.099143  7792 net.cpp:148] Top shape: 10 96 28 28 (752640)
I0713 13:59:45.099148  7792 net.cpp:156] Memory required for data: 310087680
I0713 13:59:45.099153  7792 layer_factory.hpp:77] Creating layer inception_3b/pool
I0713 13:59:45.099161  7792 net.cpp:91] Creating Layer inception_3b/pool
I0713 13:59:45.099167  7792 net.cpp:425] inception_3b/pool <- inception_3a/output_inception_3a/output_0_split_3
I0713 13:59:45.099179  7792 net.cpp:399] inception_3b/pool -> inception_3b/pool
I0713 13:59:45.099243  7792 net.cpp:141] Setting up inception_3b/pool
I0713 13:59:45.099252  7792 net.cpp:148] Top shape: 10 256 28 28 (2007040)
I0713 13:59:45.099256  7792 net.cpp:156] Memory required for data: 318115840
I0713 13:59:45.099261  7792 layer_factory.hpp:77] Creating layer inception_3b/pool_proj
I0713 13:59:45.099280  7792 net.cpp:91] Creating Layer inception_3b/pool_proj
I0713 13:59:45.099287  7792 net.cpp:425] inception_3b/pool_proj <- inception_3b/pool
I0713 13:59:45.099295  7792 net.cpp:399] inception_3b/pool_proj -> inception_3b/pool_proj
I0713 13:59:45.101688  7792 net.cpp:141] Setting up inception_3b/pool_proj
I0713 13:59:45.101711  7792 net.cpp:148] Top shape: 10 64 28 28 (501760)
I0713 13:59:45.101716  7792 net.cpp:156] Memory required for data: 320122880
I0713 13:59:45.101725  7792 layer_factory.hpp:77] Creating layer inception_3b/relu_pool_proj
I0713 13:59:45.101735  7792 net.cpp:91] Creating Layer inception_3b/relu_pool_proj
I0713 13:59:45.101742  7792 net.cpp:425] inception_3b/relu_pool_proj <- inception_3b/pool_proj
I0713 13:59:45.101752  7792 net.cpp:386] inception_3b/relu_pool_proj -> inception_3b/pool_proj (in-place)
I0713 13:59:45.102532  7792 net.cpp:141] Setting up inception_3b/relu_pool_proj
I0713 13:59:45.102550  7792 net.cpp:148] Top shape: 10 64 28 28 (501760)
I0713 13:59:45.102555  7792 net.cpp:156] Memory required for data: 322129920
I0713 13:59:45.102560  7792 layer_factory.hpp:77] Creating layer inception_3b/output
I0713 13:59:45.102568  7792 net.cpp:91] Creating Layer inception_3b/output
I0713 13:59:45.102574  7792 net.cpp:425] inception_3b/output <- inception_3b/1x1
I0713 13:59:45.102581  7792 net.cpp:425] inception_3b/output <- inception_3b/3x3
I0713 13:59:45.102586  7792 net.cpp:425] inception_3b/output <- inception_3b/5x5
I0713 13:59:45.102592  7792 net.cpp:425] inception_3b/output <- inception_3b/pool_proj
I0713 13:59:45.102604  7792 net.cpp:399] inception_3b/output -> inception_3b/output
I0713 13:59:45.102648  7792 net.cpp:141] Setting up inception_3b/output
I0713 13:59:45.102658  7792 net.cpp:148] Top shape: 10 480 28 28 (3763200)
I0713 13:59:45.102663  7792 net.cpp:156] Memory required for data: 337182720
I0713 13:59:45.102668  7792 layer_factory.hpp:77] Creating layer pool3/3x3_s2
I0713 13:59:45.102682  7792 net.cpp:91] Creating Layer pool3/3x3_s2
I0713 13:59:45.102699  7792 net.cpp:425] pool3/3x3_s2 <- inception_3b/output
I0713 13:59:45.102706  7792 net.cpp:399] pool3/3x3_s2 -> pool3/3x3_s2
I0713 13:59:45.102776  7792 net.cpp:141] Setting up pool3/3x3_s2
I0713 13:59:45.102788  7792 net.cpp:148] Top shape: 10 480 14 14 (940800)
I0713 13:59:45.102793  7792 net.cpp:156] Memory required for data: 340945920
I0713 13:59:45.102798  7792 layer_factory.hpp:77] Creating layer pool3/3x3_s2_pool3/3x3_s2_0_split
I0713 13:59:45.102807  7792 net.cpp:91] Creating Layer pool3/3x3_s2_pool3/3x3_s2_0_split
I0713 13:59:45.102812  7792 net.cpp:425] pool3/3x3_s2_pool3/3x3_s2_0_split <- pool3/3x3_s2
I0713 13:59:45.102818  7792 net.cpp:399] pool3/3x3_s2_pool3/3x3_s2_0_split -> pool3/3x3_s2_pool3/3x3_s2_0_split_0
I0713 13:59:45.102828  7792 net.cpp:399] pool3/3x3_s2_pool3/3x3_s2_0_split -> pool3/3x3_s2_pool3/3x3_s2_0_split_1
I0713 13:59:45.102839  7792 net.cpp:399] pool3/3x3_s2_pool3/3x3_s2_0_split -> pool3/3x3_s2_pool3/3x3_s2_0_split_2
I0713 13:59:45.102849  7792 net.cpp:399] pool3/3x3_s2_pool3/3x3_s2_0_split -> pool3/3x3_s2_pool3/3x3_s2_0_split_3
I0713 13:59:45.102936  7792 net.cpp:141] Setting up pool3/3x3_s2_pool3/3x3_s2_0_split
I0713 13:59:45.102946  7792 net.cpp:148] Top shape: 10 480 14 14 (940800)
I0713 13:59:45.102952  7792 net.cpp:148] Top shape: 10 480 14 14 (940800)
I0713 13:59:45.102957  7792 net.cpp:148] Top shape: 10 480 14 14 (940800)
I0713 13:59:45.102963  7792 net.cpp:148] Top shape: 10 480 14 14 (940800)
I0713 13:59:45.102967  7792 net.cpp:156] Memory required for data: 355998720
I0713 13:59:45.102972  7792 layer_factory.hpp:77] Creating layer inception_4a/1x1
I0713 13:59:45.102996  7792 net.cpp:91] Creating Layer inception_4a/1x1
I0713 13:59:45.103003  7792 net.cpp:425] inception_4a/1x1 <- pool3/3x3_s2_pool3/3x3_s2_0_split_0
I0713 13:59:45.103013  7792 net.cpp:399] inception_4a/1x1 -> inception_4a/1x1
I0713 13:59:45.106647  7792 net.cpp:141] Setting up inception_4a/1x1
I0713 13:59:45.106667  7792 net.cpp:148] Top shape: 10 192 14 14 (376320)
I0713 13:59:45.106672  7792 net.cpp:156] Memory required for data: 357504000
I0713 13:59:45.106681  7792 layer_factory.hpp:77] Creating layer inception_4a/relu_1x1
I0713 13:59:45.106698  7792 net.cpp:91] Creating Layer inception_4a/relu_1x1
I0713 13:59:45.106705  7792 net.cpp:425] inception_4a/relu_1x1 <- inception_4a/1x1
I0713 13:59:45.106717  7792 net.cpp:386] inception_4a/relu_1x1 -> inception_4a/1x1 (in-place)
I0713 13:59:45.106978  7792 net.cpp:141] Setting up inception_4a/relu_1x1
I0713 13:59:45.106992  7792 net.cpp:148] Top shape: 10 192 14 14 (376320)
I0713 13:59:45.106997  7792 net.cpp:156] Memory required for data: 359009280
I0713 13:59:45.107002  7792 layer_factory.hpp:77] Creating layer inception_4a/3x3_reduce
I0713 13:59:45.107017  7792 net.cpp:91] Creating Layer inception_4a/3x3_reduce
I0713 13:59:45.107023  7792 net.cpp:425] inception_4a/3x3_reduce <- pool3/3x3_s2_pool3/3x3_s2_0_split_1
I0713 13:59:45.107036  7792 net.cpp:399] inception_4a/3x3_reduce -> inception_4a/3x3_reduce
I0713 13:59:45.109695  7792 net.cpp:141] Setting up inception_4a/3x3_reduce
I0713 13:59:45.109712  7792 net.cpp:148] Top shape: 10 96 14 14 (188160)
I0713 13:59:45.109719  7792 net.cpp:156] Memory required for data: 359761920
I0713 13:59:45.109738  7792 layer_factory.hpp:77] Creating layer inception_4a/relu_3x3_reduce
I0713 13:59:45.109747  7792 net.cpp:91] Creating Layer inception_4a/relu_3x3_reduce
I0713 13:59:45.109755  7792 net.cpp:425] inception_4a/relu_3x3_reduce <- inception_4a/3x3_reduce
I0713 13:59:45.109764  7792 net.cpp:386] inception_4a/relu_3x3_reduce -> inception_4a/3x3_reduce (in-place)
I0713 13:59:45.110026  7792 net.cpp:141] Setting up inception_4a/relu_3x3_reduce
I0713 13:59:45.110039  7792 net.cpp:148] Top shape: 10 96 14 14 (188160)
I0713 13:59:45.110044  7792 net.cpp:156] Memory required for data: 360514560
I0713 13:59:45.110049  7792 layer_factory.hpp:77] Creating layer inception_4a/3x3
I0713 13:59:45.110066  7792 net.cpp:91] Creating Layer inception_4a/3x3
I0713 13:59:45.110074  7792 net.cpp:425] inception_4a/3x3 <- inception_4a/3x3_reduce
I0713 13:59:45.110085  7792 net.cpp:399] inception_4a/3x3 -> inception_4a/3x3
I0713 13:59:45.115011  7792 net.cpp:141] Setting up inception_4a/3x3
I0713 13:59:45.115033  7792 net.cpp:148] Top shape: 10 208 14 14 (407680)
I0713 13:59:45.115038  7792 net.cpp:156] Memory required for data: 362145280
I0713 13:59:45.115048  7792 layer_factory.hpp:77] Creating layer inception_4a/relu_3x3
I0713 13:59:45.115057  7792 net.cpp:91] Creating Layer inception_4a/relu_3x3
I0713 13:59:45.115063  7792 net.cpp:425] inception_4a/relu_3x3 <- inception_4a/3x3
I0713 13:59:45.115077  7792 net.cpp:386] inception_4a/relu_3x3 -> inception_4a/3x3 (in-place)
I0713 13:59:45.115869  7792 net.cpp:141] Setting up inception_4a/relu_3x3
I0713 13:59:45.115885  7792 net.cpp:148] Top shape: 10 208 14 14 (407680)
I0713 13:59:45.115890  7792 net.cpp:156] Memory required for data: 363776000
I0713 13:59:45.115895  7792 layer_factory.hpp:77] Creating layer inception_4a/5x5_reduce
I0713 13:59:45.115913  7792 net.cpp:91] Creating Layer inception_4a/5x5_reduce
I0713 13:59:45.115921  7792 net.cpp:425] inception_4a/5x5_reduce <- pool3/3x3_s2_pool3/3x3_s2_0_split_2
I0713 13:59:45.115932  7792 net.cpp:399] inception_4a/5x5_reduce -> inception_4a/5x5_reduce
I0713 13:59:45.118271  7792 net.cpp:141] Setting up inception_4a/5x5_reduce
I0713 13:59:45.118289  7792 net.cpp:148] Top shape: 10 16 14 14 (31360)
I0713 13:59:45.118295  7792 net.cpp:156] Memory required for data: 363901440
I0713 13:59:45.118304  7792 layer_factory.hpp:77] Creating layer inception_4a/relu_5x5_reduce
I0713 13:59:45.118320  7792 net.cpp:91] Creating Layer inception_4a/relu_5x5_reduce
I0713 13:59:45.118327  7792 net.cpp:425] inception_4a/relu_5x5_reduce <- inception_4a/5x5_reduce
I0713 13:59:45.118335  7792 net.cpp:386] inception_4a/relu_5x5_reduce -> inception_4a/5x5_reduce (in-place)
I0713 13:59:45.118605  7792 net.cpp:141] Setting up inception_4a/relu_5x5_reduce
I0713 13:59:45.118618  7792 net.cpp:148] Top shape: 10 16 14 14 (31360)
I0713 13:59:45.118621  7792 net.cpp:156] Memory required for data: 364026880
I0713 13:59:45.118628  7792 layer_factory.hpp:77] Creating layer inception_4a/5x5
I0713 13:59:45.118654  7792 net.cpp:91] Creating Layer inception_4a/5x5
I0713 13:59:45.118660  7792 net.cpp:425] inception_4a/5x5 <- inception_4a/5x5_reduce
I0713 13:59:45.118670  7792 net.cpp:399] inception_4a/5x5 -> inception_4a/5x5
I0713 13:59:45.121110  7792 net.cpp:141] Setting up inception_4a/5x5
I0713 13:59:45.121129  7792 net.cpp:148] Top shape: 10 48 14 14 (94080)
I0713 13:59:45.121134  7792 net.cpp:156] Memory required for data: 364403200
I0713 13:59:45.121145  7792 layer_factory.hpp:77] Creating layer inception_4a/relu_5x5
I0713 13:59:45.121158  7792 net.cpp:91] Creating Layer inception_4a/relu_5x5
I0713 13:59:45.121165  7792 net.cpp:425] inception_4a/relu_5x5 <- inception_4a/5x5
I0713 13:59:45.121173  7792 net.cpp:386] inception_4a/relu_5x5 -> inception_4a/5x5 (in-place)
I0713 13:59:45.121435  7792 net.cpp:141] Setting up inception_4a/relu_5x5
I0713 13:59:45.121448  7792 net.cpp:148] Top shape: 10 48 14 14 (94080)
I0713 13:59:45.121453  7792 net.cpp:156] Memory required for data: 364779520
I0713 13:59:45.121457  7792 layer_factory.hpp:77] Creating layer inception_4a/pool
I0713 13:59:45.121466  7792 net.cpp:91] Creating Layer inception_4a/pool
I0713 13:59:45.121472  7792 net.cpp:425] inception_4a/pool <- pool3/3x3_s2_pool3/3x3_s2_0_split_3
I0713 13:59:45.121484  7792 net.cpp:399] inception_4a/pool -> inception_4a/pool
I0713 13:59:45.121551  7792 net.cpp:141] Setting up inception_4a/pool
I0713 13:59:45.121561  7792 net.cpp:148] Top shape: 10 480 14 14 (940800)
I0713 13:59:45.121564  7792 net.cpp:156] Memory required for data: 368542720
I0713 13:59:45.121569  7792 layer_factory.hpp:77] Creating layer inception_4a/pool_proj
I0713 13:59:45.121588  7792 net.cpp:91] Creating Layer inception_4a/pool_proj
I0713 13:59:45.121595  7792 net.cpp:425] inception_4a/pool_proj <- inception_4a/pool
I0713 13:59:45.121604  7792 net.cpp:399] inception_4a/pool_proj -> inception_4a/pool_proj
I0713 13:59:45.124146  7792 net.cpp:141] Setting up inception_4a/pool_proj
I0713 13:59:45.124176  7792 net.cpp:148] Top shape: 10 64 14 14 (125440)
I0713 13:59:45.124181  7792 net.cpp:156] Memory required for data: 369044480
I0713 13:59:45.124191  7792 layer_factory.hpp:77] Creating layer inception_4a/relu_pool_proj
I0713 13:59:45.124199  7792 net.cpp:91] Creating Layer inception_4a/relu_pool_proj
I0713 13:59:45.124205  7792 net.cpp:425] inception_4a/relu_pool_proj <- inception_4a/pool_proj
I0713 13:59:45.124213  7792 net.cpp:386] inception_4a/relu_pool_proj -> inception_4a/pool_proj (in-place)
I0713 13:59:45.125015  7792 net.cpp:141] Setting up inception_4a/relu_pool_proj
I0713 13:59:45.125033  7792 net.cpp:148] Top shape: 10 64 14 14 (125440)
I0713 13:59:45.125039  7792 net.cpp:156] Memory required for data: 369546240
I0713 13:59:45.125044  7792 layer_factory.hpp:77] Creating layer inception_4a/output
I0713 13:59:45.125054  7792 net.cpp:91] Creating Layer inception_4a/output
I0713 13:59:45.125061  7792 net.cpp:425] inception_4a/output <- inception_4a/1x1
I0713 13:59:45.125067  7792 net.cpp:425] inception_4a/output <- inception_4a/3x3
I0713 13:59:45.125073  7792 net.cpp:425] inception_4a/output <- inception_4a/5x5
I0713 13:59:45.125078  7792 net.cpp:425] inception_4a/output <- inception_4a/pool_proj
I0713 13:59:45.125085  7792 net.cpp:399] inception_4a/output -> inception_4a/output
I0713 13:59:45.125135  7792 net.cpp:141] Setting up inception_4a/output
I0713 13:59:45.125146  7792 net.cpp:148] Top shape: 10 512 14 14 (1003520)
I0713 13:59:45.125150  7792 net.cpp:156] Memory required for data: 373560320
I0713 13:59:45.125155  7792 layer_factory.hpp:77] Creating layer inception_4a/output_inception_4a/output_0_split
I0713 13:59:45.125166  7792 net.cpp:91] Creating Layer inception_4a/output_inception_4a/output_0_split
I0713 13:59:45.125171  7792 net.cpp:425] inception_4a/output_inception_4a/output_0_split <- inception_4a/output
I0713 13:59:45.125179  7792 net.cpp:399] inception_4a/output_inception_4a/output_0_split -> inception_4a/output_inception_4a/output_0_split_0
I0713 13:59:45.125187  7792 net.cpp:399] inception_4a/output_inception_4a/output_0_split -> inception_4a/output_inception_4a/output_0_split_1
I0713 13:59:45.125196  7792 net.cpp:399] inception_4a/output_inception_4a/output_0_split -> inception_4a/output_inception_4a/output_0_split_2
I0713 13:59:45.125205  7792 net.cpp:399] inception_4a/output_inception_4a/output_0_split -> inception_4a/output_inception_4a/output_0_split_3
I0713 13:59:45.125310  7792 net.cpp:141] Setting up inception_4a/output_inception_4a/output_0_split
I0713 13:59:45.125319  7792 net.cpp:148] Top shape: 10 512 14 14 (1003520)
I0713 13:59:45.125325  7792 net.cpp:148] Top shape: 10 512 14 14 (1003520)
I0713 13:59:45.125331  7792 net.cpp:148] Top shape: 10 512 14 14 (1003520)
I0713 13:59:45.125336  7792 net.cpp:148] Top shape: 10 512 14 14 (1003520)
I0713 13:59:45.125340  7792 net.cpp:156] Memory required for data: 389616640
I0713 13:59:45.125345  7792 layer_factory.hpp:77] Creating layer inception_4b/1x1
I0713 13:59:45.125366  7792 net.cpp:91] Creating Layer inception_4b/1x1
I0713 13:59:45.125372  7792 net.cpp:425] inception_4b/1x1 <- inception_4a/output_inception_4a/output_0_split_0
I0713 13:59:45.125383  7792 net.cpp:399] inception_4b/1x1 -> inception_4b/1x1
I0713 13:59:45.128371  7792 net.cpp:141] Setting up inception_4b/1x1
I0713 13:59:45.128391  7792 net.cpp:148] Top shape: 10 160 14 14 (313600)
I0713 13:59:45.128396  7792 net.cpp:156] Memory required for data: 390871040
I0713 13:59:45.128407  7792 layer_factory.hpp:77] Creating layer inception_4b/relu_1x1
I0713 13:59:45.128415  7792 net.cpp:91] Creating Layer inception_4b/relu_1x1
I0713 13:59:45.128422  7792 net.cpp:425] inception_4b/relu_1x1 <- inception_4b/1x1
I0713 13:59:45.128432  7792 net.cpp:386] inception_4b/relu_1x1 -> inception_4b/1x1 (in-place)
I0713 13:59:45.128698  7792 net.cpp:141] Setting up inception_4b/relu_1x1
I0713 13:59:45.128711  7792 net.cpp:148] Top shape: 10 160 14 14 (313600)
I0713 13:59:45.128715  7792 net.cpp:156] Memory required for data: 392125440
I0713 13:59:45.128721  7792 layer_factory.hpp:77] Creating layer inception_4b/3x3_reduce
I0713 13:59:45.128739  7792 net.cpp:91] Creating Layer inception_4b/3x3_reduce
I0713 13:59:45.128746  7792 net.cpp:425] inception_4b/3x3_reduce <- inception_4a/output_inception_4a/output_0_split_1
I0713 13:59:45.128756  7792 net.cpp:399] inception_4b/3x3_reduce -> inception_4b/3x3_reduce
I0713 13:59:45.131577  7792 net.cpp:141] Setting up inception_4b/3x3_reduce
I0713 13:59:45.131597  7792 net.cpp:148] Top shape: 10 112 14 14 (219520)
I0713 13:59:45.131603  7792 net.cpp:156] Memory required for data: 393003520
I0713 13:59:45.131613  7792 layer_factory.hpp:77] Creating layer inception_4b/relu_3x3_reduce
I0713 13:59:45.131626  7792 net.cpp:91] Creating Layer inception_4b/relu_3x3_reduce
I0713 13:59:45.131633  7792 net.cpp:425] inception_4b/relu_3x3_reduce <- inception_4b/3x3_reduce
I0713 13:59:45.131641  7792 net.cpp:386] inception_4b/relu_3x3_reduce -> inception_4b/3x3_reduce (in-place)
I0713 13:59:45.131916  7792 net.cpp:141] Setting up inception_4b/relu_3x3_reduce
I0713 13:59:45.131933  7792 net.cpp:148] Top shape: 10 112 14 14 (219520)
I0713 13:59:45.131939  7792 net.cpp:156] Memory required for data: 393881600
I0713 13:59:45.131944  7792 layer_factory.hpp:77] Creating layer inception_4b/3x3
I0713 13:59:45.131958  7792 net.cpp:91] Creating Layer inception_4b/3x3
I0713 13:59:45.131964  7792 net.cpp:425] inception_4b/3x3 <- inception_4b/3x3_reduce
I0713 13:59:45.131974  7792 net.cpp:399] inception_4b/3x3 -> inception_4b/3x3
I0713 13:59:45.137991  7792 net.cpp:141] Setting up inception_4b/3x3
I0713 13:59:45.138012  7792 net.cpp:148] Top shape: 10 224 14 14 (439040)
I0713 13:59:45.138017  7792 net.cpp:156] Memory required for data: 395637760
I0713 13:59:45.138028  7792 layer_factory.hpp:77] Creating layer inception_4b/relu_3x3
I0713 13:59:45.138042  7792 net.cpp:91] Creating Layer inception_4b/relu_3x3
I0713 13:59:45.138048  7792 net.cpp:425] inception_4b/relu_3x3 <- inception_4b/3x3
I0713 13:59:45.138057  7792 net.cpp:386] inception_4b/relu_3x3 -> inception_4b/3x3 (in-place)
I0713 13:59:45.138872  7792 net.cpp:141] Setting up inception_4b/relu_3x3
I0713 13:59:45.138890  7792 net.cpp:148] Top shape: 10 224 14 14 (439040)
I0713 13:59:45.138895  7792 net.cpp:156] Memory required for data: 397393920
I0713 13:59:45.138901  7792 layer_factory.hpp:77] Creating layer inception_4b/5x5_reduce
I0713 13:59:45.138929  7792 net.cpp:91] Creating Layer inception_4b/5x5_reduce
I0713 13:59:45.138936  7792 net.cpp:425] inception_4b/5x5_reduce <- inception_4a/output_inception_4a/output_0_split_2
I0713 13:59:45.138950  7792 net.cpp:399] inception_4b/5x5_reduce -> inception_4b/5x5_reduce
I0713 13:59:45.141614  7792 net.cpp:141] Setting up inception_4b/5x5_reduce
I0713 13:59:45.141634  7792 net.cpp:148] Top shape: 10 24 14 14 (47040)
I0713 13:59:45.141639  7792 net.cpp:156] Memory required for data: 397582080
I0713 13:59:45.141650  7792 layer_factory.hpp:77] Creating layer inception_4b/relu_5x5_reduce
I0713 13:59:45.141659  7792 net.cpp:91] Creating Layer inception_4b/relu_5x5_reduce
I0713 13:59:45.141665  7792 net.cpp:425] inception_4b/relu_5x5_reduce <- inception_4b/5x5_reduce
I0713 13:59:45.141672  7792 net.cpp:386] inception_4b/relu_5x5_reduce -> inception_4b/5x5_reduce (in-place)
I0713 13:59:45.141944  7792 net.cpp:141] Setting up inception_4b/relu_5x5_reduce
I0713 13:59:45.141957  7792 net.cpp:148] Top shape: 10 24 14 14 (47040)
I0713 13:59:45.141962  7792 net.cpp:156] Memory required for data: 397770240
I0713 13:59:45.141968  7792 layer_factory.hpp:77] Creating layer inception_4b/5x5
I0713 13:59:45.141983  7792 net.cpp:91] Creating Layer inception_4b/5x5
I0713 13:59:45.141989  7792 net.cpp:425] inception_4b/5x5 <- inception_4b/5x5_reduce
I0713 13:59:45.142002  7792 net.cpp:399] inception_4b/5x5 -> inception_4b/5x5
I0713 13:59:45.146111  7792 net.cpp:141] Setting up inception_4b/5x5
I0713 13:59:45.146131  7792 net.cpp:148] Top shape: 10 64 14 14 (125440)
I0713 13:59:45.146136  7792 net.cpp:156] Memory required for data: 398272000
I0713 13:59:45.146147  7792 layer_factory.hpp:77] Creating layer inception_4b/relu_5x5
I0713 13:59:45.146164  7792 net.cpp:91] Creating Layer inception_4b/relu_5x5
I0713 13:59:45.146172  7792 net.cpp:425] inception_4b/relu_5x5 <- inception_4b/5x5
I0713 13:59:45.146178  7792 net.cpp:386] inception_4b/relu_5x5 -> inception_4b/5x5 (in-place)
I0713 13:59:45.146447  7792 net.cpp:141] Setting up inception_4b/relu_5x5
I0713 13:59:45.146459  7792 net.cpp:148] Top shape: 10 64 14 14 (125440)
I0713 13:59:45.146464  7792 net.cpp:156] Memory required for data: 398773760
I0713 13:59:45.146469  7792 layer_factory.hpp:77] Creating layer inception_4b/pool
I0713 13:59:45.146478  7792 net.cpp:91] Creating Layer inception_4b/pool
I0713 13:59:45.146484  7792 net.cpp:425] inception_4b/pool <- inception_4a/output_inception_4a/output_0_split_3
I0713 13:59:45.146497  7792 net.cpp:399] inception_4b/pool -> inception_4b/pool
I0713 13:59:45.146569  7792 net.cpp:141] Setting up inception_4b/pool
I0713 13:59:45.146579  7792 net.cpp:148] Top shape: 10 512 14 14 (1003520)
I0713 13:59:45.146584  7792 net.cpp:156] Memory required for data: 402787840
I0713 13:59:45.146589  7792 layer_factory.hpp:77] Creating layer inception_4b/pool_proj
I0713 13:59:45.146608  7792 net.cpp:91] Creating Layer inception_4b/pool_proj
I0713 13:59:45.146615  7792 net.cpp:425] inception_4b/pool_proj <- inception_4b/pool
I0713 13:59:45.146623  7792 net.cpp:399] inception_4b/pool_proj -> inception_4b/pool_proj
I0713 13:59:45.149222  7792 net.cpp:141] Setting up inception_4b/pool_proj
I0713 13:59:45.149242  7792 net.cpp:148] Top shape: 10 64 14 14 (125440)
I0713 13:59:45.149247  7792 net.cpp:156] Memory required for data: 403289600
I0713 13:59:45.149257  7792 layer_factory.hpp:77] Creating layer inception_4b/relu_pool_proj
I0713 13:59:45.149269  7792 net.cpp:91] Creating Layer inception_4b/relu_pool_proj
I0713 13:59:45.149276  7792 net.cpp:425] inception_4b/relu_pool_proj <- inception_4b/pool_proj
I0713 13:59:45.149283  7792 net.cpp:386] inception_4b/relu_pool_proj -> inception_4b/pool_proj (in-place)
I0713 13:59:45.150086  7792 net.cpp:141] Setting up inception_4b/relu_pool_proj
I0713 13:59:45.150106  7792 net.cpp:148] Top shape: 10 64 14 14 (125440)
I0713 13:59:45.150111  7792 net.cpp:156] Memory required for data: 403791360
I0713 13:59:45.150117  7792 layer_factory.hpp:77] Creating layer inception_4b/output
I0713 13:59:45.150125  7792 net.cpp:91] Creating Layer inception_4b/output
I0713 13:59:45.150131  7792 net.cpp:425] inception_4b/output <- inception_4b/1x1
I0713 13:59:45.150138  7792 net.cpp:425] inception_4b/output <- inception_4b/3x3
I0713 13:59:45.150144  7792 net.cpp:425] inception_4b/output <- inception_4b/5x5
I0713 13:59:45.150149  7792 net.cpp:425] inception_4b/output <- inception_4b/pool_proj
I0713 13:59:45.150156  7792 net.cpp:399] inception_4b/output -> inception_4b/output
I0713 13:59:45.150208  7792 net.cpp:141] Setting up inception_4b/output
I0713 13:59:45.150219  7792 net.cpp:148] Top shape: 10 512 14 14 (1003520)
I0713 13:59:45.150223  7792 net.cpp:156] Memory required for data: 407805440
I0713 13:59:45.150228  7792 layer_factory.hpp:77] Creating layer inception_4b/output_inception_4b/output_0_split
I0713 13:59:45.150236  7792 net.cpp:91] Creating Layer inception_4b/output_inception_4b/output_0_split
I0713 13:59:45.150241  7792 net.cpp:425] inception_4b/output_inception_4b/output_0_split <- inception_4b/output
I0713 13:59:45.150251  7792 net.cpp:399] inception_4b/output_inception_4b/output_0_split -> inception_4b/output_inception_4b/output_0_split_0
I0713 13:59:45.150261  7792 net.cpp:399] inception_4b/output_inception_4b/output_0_split -> inception_4b/output_inception_4b/output_0_split_1
I0713 13:59:45.150269  7792 net.cpp:399] inception_4b/output_inception_4b/output_0_split -> inception_4b/output_inception_4b/output_0_split_2
I0713 13:59:45.150277  7792 net.cpp:399] inception_4b/output_inception_4b/output_0_split -> inception_4b/output_inception_4b/output_0_split_3
I0713 13:59:45.150377  7792 net.cpp:141] Setting up inception_4b/output_inception_4b/output_0_split
I0713 13:59:45.150388  7792 net.cpp:148] Top shape: 10 512 14 14 (1003520)
I0713 13:59:45.150393  7792 net.cpp:148] Top shape: 10 512 14 14 (1003520)
I0713 13:59:45.150399  7792 net.cpp:148] Top shape: 10 512 14 14 (1003520)
I0713 13:59:45.150404  7792 net.cpp:148] Top shape: 10 512 14 14 (1003520)
I0713 13:59:45.150408  7792 net.cpp:156] Memory required for data: 423861760
I0713 13:59:45.150413  7792 layer_factory.hpp:77] Creating layer inception_4c/1x1
I0713 13:59:45.150429  7792 net.cpp:91] Creating Layer inception_4c/1x1
I0713 13:59:45.150435  7792 net.cpp:425] inception_4c/1x1 <- inception_4b/output_inception_4b/output_0_split_0
I0713 13:59:45.150450  7792 net.cpp:399] inception_4c/1x1 -> inception_4c/1x1
I0713 13:59:45.153343  7792 net.cpp:141] Setting up inception_4c/1x1
I0713 13:59:45.153363  7792 net.cpp:148] Top shape: 10 128 14 14 (250880)
I0713 13:59:45.153368  7792 net.cpp:156] Memory required for data: 424865280
I0713 13:59:45.153379  7792 layer_factory.hpp:77] Creating layer inception_4c/relu_1x1
I0713 13:59:45.153388  7792 net.cpp:91] Creating Layer inception_4c/relu_1x1
I0713 13:59:45.153394  7792 net.cpp:425] inception_4c/relu_1x1 <- inception_4c/1x1
I0713 13:59:45.153403  7792 net.cpp:386] inception_4c/relu_1x1 -> inception_4c/1x1 (in-place)
I0713 13:59:45.153671  7792 net.cpp:141] Setting up inception_4c/relu_1x1
I0713 13:59:45.153682  7792 net.cpp:148] Top shape: 10 128 14 14 (250880)
I0713 13:59:45.153687  7792 net.cpp:156] Memory required for data: 425868800
I0713 13:59:45.153692  7792 layer_factory.hpp:77] Creating layer inception_4c/3x3_reduce
I0713 13:59:45.153708  7792 net.cpp:91] Creating Layer inception_4c/3x3_reduce
I0713 13:59:45.153714  7792 net.cpp:425] inception_4c/3x3_reduce <- inception_4b/output_inception_4b/output_0_split_1
I0713 13:59:45.153728  7792 net.cpp:399] inception_4c/3x3_reduce -> inception_4c/3x3_reduce
I0713 13:59:45.156651  7792 net.cpp:141] Setting up inception_4c/3x3_reduce
I0713 13:59:45.156673  7792 net.cpp:148] Top shape: 10 128 14 14 (250880)
I0713 13:59:45.156678  7792 net.cpp:156] Memory required for data: 426872320
I0713 13:59:45.156688  7792 layer_factory.hpp:77] Creating layer inception_4c/relu_3x3_reduce
I0713 13:59:45.156697  7792 net.cpp:91] Creating Layer inception_4c/relu_3x3_reduce
I0713 13:59:45.156703  7792 net.cpp:425] inception_4c/relu_3x3_reduce <- inception_4c/3x3_reduce
I0713 13:59:45.156710  7792 net.cpp:386] inception_4c/relu_3x3_reduce -> inception_4c/3x3_reduce (in-place)
I0713 13:59:45.156983  7792 net.cpp:141] Setting up inception_4c/relu_3x3_reduce
I0713 13:59:45.156996  7792 net.cpp:148] Top shape: 10 128 14 14 (250880)
I0713 13:59:45.157001  7792 net.cpp:156] Memory required for data: 427875840
I0713 13:59:45.157006  7792 layer_factory.hpp:77] Creating layer inception_4c/3x3
I0713 13:59:45.157021  7792 net.cpp:91] Creating Layer inception_4c/3x3
I0713 13:59:45.157027  7792 net.cpp:425] inception_4c/3x3 <- inception_4c/3x3_reduce
I0713 13:59:45.157040  7792 net.cpp:399] inception_4c/3x3 -> inception_4c/3x3
I0713 13:59:45.163045  7792 net.cpp:141] Setting up inception_4c/3x3
I0713 13:59:45.163065  7792 net.cpp:148] Top shape: 10 256 14 14 (501760)
I0713 13:59:45.163071  7792 net.cpp:156] Memory required for data: 429882880
I0713 13:59:45.163081  7792 layer_factory.hpp:77] Creating layer inception_4c/relu_3x3
I0713 13:59:45.163094  7792 net.cpp:91] Creating Layer inception_4c/relu_3x3
I0713 13:59:45.163101  7792 net.cpp:425] inception_4c/relu_3x3 <- inception_4c/3x3
I0713 13:59:45.163110  7792 net.cpp:386] inception_4c/relu_3x3 -> inception_4c/3x3 (in-place)
I0713 13:59:45.163918  7792 net.cpp:141] Setting up inception_4c/relu_3x3
I0713 13:59:45.163934  7792 net.cpp:148] Top shape: 10 256 14 14 (501760)
I0713 13:59:45.163939  7792 net.cpp:156] Memory required for data: 431889920
I0713 13:59:45.163944  7792 layer_factory.hpp:77] Creating layer inception_4c/5x5_reduce
I0713 13:59:45.163964  7792 net.cpp:91] Creating Layer inception_4c/5x5_reduce
I0713 13:59:45.163971  7792 net.cpp:425] inception_4c/5x5_reduce <- inception_4b/output_inception_4b/output_0_split_2
I0713 13:59:45.163981  7792 net.cpp:399] inception_4c/5x5_reduce -> inception_4c/5x5_reduce
I0713 13:59:45.166618  7792 net.cpp:141] Setting up inception_4c/5x5_reduce
I0713 13:59:45.166640  7792 net.cpp:148] Top shape: 10 24 14 14 (47040)
I0713 13:59:45.166646  7792 net.cpp:156] Memory required for data: 432078080
I0713 13:59:45.166656  7792 layer_factory.hpp:77] Creating layer inception_4c/relu_5x5_reduce
I0713 13:59:45.166666  7792 net.cpp:91] Creating Layer inception_4c/relu_5x5_reduce
I0713 13:59:45.166672  7792 net.cpp:425] inception_4c/relu_5x5_reduce <- inception_4c/5x5_reduce
I0713 13:59:45.166679  7792 net.cpp:386] inception_4c/relu_5x5_reduce -> inception_4c/5x5_reduce (in-place)
I0713 13:59:45.166965  7792 net.cpp:141] Setting up inception_4c/relu_5x5_reduce
I0713 13:59:45.166978  7792 net.cpp:148] Top shape: 10 24 14 14 (47040)
I0713 13:59:45.166983  7792 net.cpp:156] Memory required for data: 432266240
I0713 13:59:45.166988  7792 layer_factory.hpp:77] Creating layer inception_4c/5x5
I0713 13:59:45.167004  7792 net.cpp:91] Creating Layer inception_4c/5x5
I0713 13:59:45.167011  7792 net.cpp:425] inception_4c/5x5 <- inception_4c/5x5_reduce
I0713 13:59:45.167023  7792 net.cpp:399] inception_4c/5x5 -> inception_4c/5x5
I0713 13:59:45.170584  7792 net.cpp:141] Setting up inception_4c/5x5
I0713 13:59:45.170603  7792 net.cpp:148] Top shape: 10 64 14 14 (125440)
I0713 13:59:45.170609  7792 net.cpp:156] Memory required for data: 432768000
I0713 13:59:45.170619  7792 layer_factory.hpp:77] Creating layer inception_4c/relu_5x5
I0713 13:59:45.170629  7792 net.cpp:91] Creating Layer inception_4c/relu_5x5
I0713 13:59:45.170635  7792 net.cpp:425] inception_4c/relu_5x5 <- inception_4c/5x5
I0713 13:59:45.170647  7792 net.cpp:386] inception_4c/relu_5x5 -> inception_4c/5x5 (in-place)
I0713 13:59:45.170927  7792 net.cpp:141] Setting up inception_4c/relu_5x5
I0713 13:59:45.170941  7792 net.cpp:148] Top shape: 10 64 14 14 (125440)
I0713 13:59:45.170946  7792 net.cpp:156] Memory required for data: 433269760
I0713 13:59:45.170953  7792 layer_factory.hpp:77] Creating layer inception_4c/pool
I0713 13:59:45.170961  7792 net.cpp:91] Creating Layer inception_4c/pool
I0713 13:59:45.170967  7792 net.cpp:425] inception_4c/pool <- inception_4b/output_inception_4b/output_0_split_3
I0713 13:59:45.170974  7792 net.cpp:399] inception_4c/pool -> inception_4c/pool
I0713 13:59:45.171052  7792 net.cpp:141] Setting up inception_4c/pool
I0713 13:59:45.171063  7792 net.cpp:148] Top shape: 10 512 14 14 (1003520)
I0713 13:59:45.171067  7792 net.cpp:156] Memory required for data: 437283840
I0713 13:59:45.171072  7792 layer_factory.hpp:77] Creating layer inception_4c/pool_proj
I0713 13:59:45.171088  7792 net.cpp:91] Creating Layer inception_4c/pool_proj
I0713 13:59:45.171095  7792 net.cpp:425] inception_4c/pool_proj <- inception_4c/pool
I0713 13:59:45.171106  7792 net.cpp:399] inception_4c/pool_proj -> inception_4c/pool_proj
I0713 13:59:45.174877  7792 net.cpp:141] Setting up inception_4c/pool_proj
I0713 13:59:45.174898  7792 net.cpp:148] Top shape: 10 64 14 14 (125440)
I0713 13:59:45.174903  7792 net.cpp:156] Memory required for data: 437785600
I0713 13:59:45.174933  7792 layer_factory.hpp:77] Creating layer inception_4c/relu_pool_proj
I0713 13:59:45.174947  7792 net.cpp:91] Creating Layer inception_4c/relu_pool_proj
I0713 13:59:45.174953  7792 net.cpp:425] inception_4c/relu_pool_proj <- inception_4c/pool_proj
I0713 13:59:45.174960  7792 net.cpp:386] inception_4c/relu_pool_proj -> inception_4c/pool_proj (in-place)
I0713 13:59:45.175775  7792 net.cpp:141] Setting up inception_4c/relu_pool_proj
I0713 13:59:45.175791  7792 net.cpp:148] Top shape: 10 64 14 14 (125440)
I0713 13:59:45.175796  7792 net.cpp:156] Memory required for data: 438287360
I0713 13:59:45.175801  7792 layer_factory.hpp:77] Creating layer inception_4c/output
I0713 13:59:45.175811  7792 net.cpp:91] Creating Layer inception_4c/output
I0713 13:59:45.175819  7792 net.cpp:425] inception_4c/output <- inception_4c/1x1
I0713 13:59:45.175827  7792 net.cpp:425] inception_4c/output <- inception_4c/3x3
I0713 13:59:45.175832  7792 net.cpp:425] inception_4c/output <- inception_4c/5x5
I0713 13:59:45.175838  7792 net.cpp:425] inception_4c/output <- inception_4c/pool_proj
I0713 13:59:45.175845  7792 net.cpp:399] inception_4c/output -> inception_4c/output
I0713 13:59:45.175894  7792 net.cpp:141] Setting up inception_4c/output
I0713 13:59:45.175904  7792 net.cpp:148] Top shape: 10 512 14 14 (1003520)
I0713 13:59:45.175909  7792 net.cpp:156] Memory required for data: 442301440
I0713 13:59:45.175915  7792 layer_factory.hpp:77] Creating layer inception_4c/output_inception_4c/output_0_split
I0713 13:59:45.175935  7792 net.cpp:91] Creating Layer inception_4c/output_inception_4c/output_0_split
I0713 13:59:45.175941  7792 net.cpp:425] inception_4c/output_inception_4c/output_0_split <- inception_4c/output
I0713 13:59:45.175951  7792 net.cpp:399] inception_4c/output_inception_4c/output_0_split -> inception_4c/output_inception_4c/output_0_split_0
I0713 13:59:45.175961  7792 net.cpp:399] inception_4c/output_inception_4c/output_0_split -> inception_4c/output_inception_4c/output_0_split_1
I0713 13:59:45.175969  7792 net.cpp:399] inception_4c/output_inception_4c/output_0_split -> inception_4c/output_inception_4c/output_0_split_2
I0713 13:59:45.175977  7792 net.cpp:399] inception_4c/output_inception_4c/output_0_split -> inception_4c/output_inception_4c/output_0_split_3
I0713 13:59:45.176084  7792 net.cpp:141] Setting up inception_4c/output_inception_4c/output_0_split
I0713 13:59:45.176093  7792 net.cpp:148] Top shape: 10 512 14 14 (1003520)
I0713 13:59:45.176100  7792 net.cpp:148] Top shape: 10 512 14 14 (1003520)
I0713 13:59:45.176105  7792 net.cpp:148] Top shape: 10 512 14 14 (1003520)
I0713 13:59:45.176110  7792 net.cpp:148] Top shape: 10 512 14 14 (1003520)
I0713 13:59:45.176115  7792 net.cpp:156] Memory required for data: 458357760
I0713 13:59:45.176120  7792 layer_factory.hpp:77] Creating layer inception_4d/1x1
I0713 13:59:45.176134  7792 net.cpp:91] Creating Layer inception_4d/1x1
I0713 13:59:45.176141  7792 net.cpp:425] inception_4d/1x1 <- inception_4c/output_inception_4c/output_0_split_0
I0713 13:59:45.176153  7792 net.cpp:399] inception_4d/1x1 -> inception_4d/1x1
I0713 13:59:45.179033  7792 net.cpp:141] Setting up inception_4d/1x1
I0713 13:59:45.179054  7792 net.cpp:148] Top shape: 10 112 14 14 (219520)
I0713 13:59:45.179059  7792 net.cpp:156] Memory required for data: 459235840
I0713 13:59:45.179069  7792 layer_factory.hpp:77] Creating layer inception_4d/relu_1x1
I0713 13:59:45.179077  7792 net.cpp:91] Creating Layer inception_4d/relu_1x1
I0713 13:59:45.179085  7792 net.cpp:425] inception_4d/relu_1x1 <- inception_4d/1x1
I0713 13:59:45.179097  7792 net.cpp:386] inception_4d/relu_1x1 -> inception_4d/1x1 (in-place)
I0713 13:59:45.179374  7792 net.cpp:141] Setting up inception_4d/relu_1x1
I0713 13:59:45.179389  7792 net.cpp:148] Top shape: 10 112 14 14 (219520)
I0713 13:59:45.179394  7792 net.cpp:156] Memory required for data: 460113920
I0713 13:59:45.179400  7792 layer_factory.hpp:77] Creating layer inception_4d/3x3_reduce
I0713 13:59:45.179415  7792 net.cpp:91] Creating Layer inception_4d/3x3_reduce
I0713 13:59:45.179422  7792 net.cpp:425] inception_4d/3x3_reduce <- inception_4c/output_inception_4c/output_0_split_1
I0713 13:59:45.179431  7792 net.cpp:399] inception_4d/3x3_reduce -> inception_4d/3x3_reduce
I0713 13:59:45.182427  7792 net.cpp:141] Setting up inception_4d/3x3_reduce
I0713 13:59:45.182446  7792 net.cpp:148] Top shape: 10 144 14 14 (282240)
I0713 13:59:45.182451  7792 net.cpp:156] Memory required for data: 461242880
I0713 13:59:45.182461  7792 layer_factory.hpp:77] Creating layer inception_4d/relu_3x3_reduce
I0713 13:59:45.182474  7792 net.cpp:91] Creating Layer inception_4d/relu_3x3_reduce
I0713 13:59:45.182482  7792 net.cpp:425] inception_4d/relu_3x3_reduce <- inception_4d/3x3_reduce
I0713 13:59:45.182488  7792 net.cpp:386] inception_4d/relu_3x3_reduce -> inception_4d/3x3_reduce (in-place)
I0713 13:59:45.182776  7792 net.cpp:141] Setting up inception_4d/relu_3x3_reduce
I0713 13:59:45.182788  7792 net.cpp:148] Top shape: 10 144 14 14 (282240)
I0713 13:59:45.182793  7792 net.cpp:156] Memory required for data: 462371840
I0713 13:59:45.182799  7792 layer_factory.hpp:77] Creating layer inception_4d/3x3
I0713 13:59:45.182816  7792 net.cpp:91] Creating Layer inception_4d/3x3
I0713 13:59:45.182823  7792 net.cpp:425] inception_4d/3x3 <- inception_4d/3x3_reduce
I0713 13:59:45.182834  7792 net.cpp:399] inception_4d/3x3 -> inception_4d/3x3
I0713 13:59:45.189697  7792 net.cpp:141] Setting up inception_4d/3x3
I0713 13:59:45.189716  7792 net.cpp:148] Top shape: 10 288 14 14 (564480)
I0713 13:59:45.189723  7792 net.cpp:156] Memory required for data: 464629760
I0713 13:59:45.189733  7792 layer_factory.hpp:77] Creating layer inception_4d/relu_3x3
I0713 13:59:45.189741  7792 net.cpp:91] Creating Layer inception_4d/relu_3x3
I0713 13:59:45.189748  7792 net.cpp:425] inception_4d/relu_3x3 <- inception_4d/3x3
I0713 13:59:45.189757  7792 net.cpp:386] inception_4d/relu_3x3 -> inception_4d/3x3 (in-place)
I0713 13:59:45.190618  7792 net.cpp:141] Setting up inception_4d/relu_3x3
I0713 13:59:45.190636  7792 net.cpp:148] Top shape: 10 288 14 14 (564480)
I0713 13:59:45.190642  7792 net.cpp:156] Memory required for data: 466887680
I0713 13:59:45.190647  7792 layer_factory.hpp:77] Creating layer inception_4d/5x5_reduce
I0713 13:59:45.190665  7792 net.cpp:91] Creating Layer inception_4d/5x5_reduce
I0713 13:59:45.190671  7792 net.cpp:425] inception_4d/5x5_reduce <- inception_4c/output_inception_4c/output_0_split_2
I0713 13:59:45.190692  7792 net.cpp:399] inception_4d/5x5_reduce -> inception_4d/5x5_reduce
I0713 13:59:45.193280  7792 net.cpp:141] Setting up inception_4d/5x5_reduce
I0713 13:59:45.193300  7792 net.cpp:148] Top shape: 10 32 14 14 (62720)
I0713 13:59:45.193306  7792 net.cpp:156] Memory required for data: 467138560
I0713 13:59:45.193316  7792 layer_factory.hpp:77] Creating layer inception_4d/relu_5x5_reduce
I0713 13:59:45.193325  7792 net.cpp:91] Creating Layer inception_4d/relu_5x5_reduce
I0713 13:59:45.193331  7792 net.cpp:425] inception_4d/relu_5x5_reduce <- inception_4d/5x5_reduce
I0713 13:59:45.193343  7792 net.cpp:386] inception_4d/relu_5x5_reduce -> inception_4d/5x5_reduce (in-place)
I0713 13:59:45.193619  7792 net.cpp:141] Setting up inception_4d/relu_5x5_reduce
I0713 13:59:45.193634  7792 net.cpp:148] Top shape: 10 32 14 14 (62720)
I0713 13:59:45.193639  7792 net.cpp:156] Memory required for data: 467389440
I0713 13:59:45.193644  7792 layer_factory.hpp:77] Creating layer inception_4d/5x5
I0713 13:59:45.193660  7792 net.cpp:91] Creating Layer inception_4d/5x5
I0713 13:59:45.193667  7792 net.cpp:425] inception_4d/5x5 <- inception_4d/5x5_reduce
I0713 13:59:45.193677  7792 net.cpp:399] inception_4d/5x5 -> inception_4d/5x5
I0713 13:59:45.196488  7792 net.cpp:141] Setting up inception_4d/5x5
I0713 13:59:45.196508  7792 net.cpp:148] Top shape: 10 64 14 14 (125440)
I0713 13:59:45.196513  7792 net.cpp:156] Memory required for data: 467891200
I0713 13:59:45.196523  7792 layer_factory.hpp:77] Creating layer inception_4d/relu_5x5
I0713 13:59:45.196532  7792 net.cpp:91] Creating Layer inception_4d/relu_5x5
I0713 13:59:45.196538  7792 net.cpp:425] inception_4d/relu_5x5 <- inception_4d/5x5
I0713 13:59:45.196549  7792 net.cpp:386] inception_4d/relu_5x5 -> inception_4d/5x5 (in-place)
I0713 13:59:45.196822  7792 net.cpp:141] Setting up inception_4d/relu_5x5
I0713 13:59:45.196835  7792 net.cpp:148] Top shape: 10 64 14 14 (125440)
I0713 13:59:45.196840  7792 net.cpp:156] Memory required for data: 468392960
I0713 13:59:45.196844  7792 layer_factory.hpp:77] Creating layer inception_4d/pool
I0713 13:59:45.196856  7792 net.cpp:91] Creating Layer inception_4d/pool
I0713 13:59:45.196862  7792 net.cpp:425] inception_4d/pool <- inception_4c/output_inception_4c/output_0_split_3
I0713 13:59:45.196871  7792 net.cpp:399] inception_4d/pool -> inception_4d/pool
I0713 13:59:45.196950  7792 net.cpp:141] Setting up inception_4d/pool
I0713 13:59:45.196960  7792 net.cpp:148] Top shape: 10 512 14 14 (1003520)
I0713 13:59:45.196965  7792 net.cpp:156] Memory required for data: 472407040
I0713 13:59:45.196970  7792 layer_factory.hpp:77] Creating layer inception_4d/pool_proj
I0713 13:59:45.196986  7792 net.cpp:91] Creating Layer inception_4d/pool_proj
I0713 13:59:45.196992  7792 net.cpp:425] inception_4d/pool_proj <- inception_4d/pool
I0713 13:59:45.197005  7792 net.cpp:399] inception_4d/pool_proj -> inception_4d/pool_proj
I0713 13:59:45.199677  7792 net.cpp:141] Setting up inception_4d/pool_proj
I0713 13:59:45.199697  7792 net.cpp:148] Top shape: 10 64 14 14 (125440)
I0713 13:59:45.199702  7792 net.cpp:156] Memory required for data: 472908800
I0713 13:59:45.199712  7792 layer_factory.hpp:77] Creating layer inception_4d/relu_pool_proj
I0713 13:59:45.199722  7792 net.cpp:91] Creating Layer inception_4d/relu_pool_proj
I0713 13:59:45.199728  7792 net.cpp:425] inception_4d/relu_pool_proj <- inception_4d/pool_proj
I0713 13:59:45.199738  7792 net.cpp:386] inception_4d/relu_pool_proj -> inception_4d/pool_proj (in-place)
I0713 13:59:45.200541  7792 net.cpp:141] Setting up inception_4d/relu_pool_proj
I0713 13:59:45.200554  7792 net.cpp:148] Top shape: 10 64 14 14 (125440)
I0713 13:59:45.200559  7792 net.cpp:156] Memory required for data: 473410560
I0713 13:59:45.200564  7792 layer_factory.hpp:77] Creating layer inception_4d/output
I0713 13:59:45.200577  7792 net.cpp:91] Creating Layer inception_4d/output
I0713 13:59:45.200584  7792 net.cpp:425] inception_4d/output <- inception_4d/1x1
I0713 13:59:45.200590  7792 net.cpp:425] inception_4d/output <- inception_4d/3x3
I0713 13:59:45.200597  7792 net.cpp:425] inception_4d/output <- inception_4d/5x5
I0713 13:59:45.200603  7792 net.cpp:425] inception_4d/output <- inception_4d/pool_proj
I0713 13:59:45.200609  7792 net.cpp:399] inception_4d/output -> inception_4d/output
I0713 13:59:45.200662  7792 net.cpp:141] Setting up inception_4d/output
I0713 13:59:45.200672  7792 net.cpp:148] Top shape: 10 528 14 14 (1034880)
I0713 13:59:45.200677  7792 net.cpp:156] Memory required for data: 477550080
I0713 13:59:45.200682  7792 layer_factory.hpp:77] Creating layer inception_4d/output_inception_4d/output_0_split
I0713 13:59:45.200690  7792 net.cpp:91] Creating Layer inception_4d/output_inception_4d/output_0_split
I0713 13:59:45.200695  7792 net.cpp:425] inception_4d/output_inception_4d/output_0_split <- inception_4d/output
I0713 13:59:45.200708  7792 net.cpp:399] inception_4d/output_inception_4d/output_0_split -> inception_4d/output_inception_4d/output_0_split_0
I0713 13:59:45.200718  7792 net.cpp:399] inception_4d/output_inception_4d/output_0_split -> inception_4d/output_inception_4d/output_0_split_1
I0713 13:59:45.200727  7792 net.cpp:399] inception_4d/output_inception_4d/output_0_split -> inception_4d/output_inception_4d/output_0_split_2
I0713 13:59:45.200736  7792 net.cpp:399] inception_4d/output_inception_4d/output_0_split -> inception_4d/output_inception_4d/output_0_split_3
I0713 13:59:45.200848  7792 net.cpp:141] Setting up inception_4d/output_inception_4d/output_0_split
I0713 13:59:45.200858  7792 net.cpp:148] Top shape: 10 528 14 14 (1034880)
I0713 13:59:45.200865  7792 net.cpp:148] Top shape: 10 528 14 14 (1034880)
I0713 13:59:45.200870  7792 net.cpp:148] Top shape: 10 528 14 14 (1034880)
I0713 13:59:45.200875  7792 net.cpp:148] Top shape: 10 528 14 14 (1034880)
I0713 13:59:45.200878  7792 net.cpp:156] Memory required for data: 494108160
I0713 13:59:45.200883  7792 layer_factory.hpp:77] Creating layer inception_4e/1x1
I0713 13:59:45.200902  7792 net.cpp:91] Creating Layer inception_4e/1x1
I0713 13:59:45.200908  7792 net.cpp:425] inception_4e/1x1 <- inception_4d/output_inception_4d/output_0_split_0
I0713 13:59:45.200917  7792 net.cpp:399] inception_4e/1x1 -> inception_4e/1x1
I0713 13:59:45.206437  7792 net.cpp:141] Setting up inception_4e/1x1
I0713 13:59:45.206459  7792 net.cpp:148] Top shape: 10 256 14 14 (501760)
I0713 13:59:45.206465  7792 net.cpp:156] Memory required for data: 496115200
I0713 13:59:45.206476  7792 layer_factory.hpp:77] Creating layer inception_4e/relu_1x1
I0713 13:59:45.206491  7792 net.cpp:91] Creating Layer inception_4e/relu_1x1
I0713 13:59:45.206498  7792 net.cpp:425] inception_4e/relu_1x1 <- inception_4e/1x1
I0713 13:59:45.206506  7792 net.cpp:386] inception_4e/relu_1x1 -> inception_4e/1x1 (in-place)
I0713 13:59:45.206820  7792 net.cpp:141] Setting up inception_4e/relu_1x1
I0713 13:59:45.206835  7792 net.cpp:148] Top shape: 10 256 14 14 (501760)
I0713 13:59:45.206838  7792 net.cpp:156] Memory required for data: 498122240
I0713 13:59:45.206845  7792 layer_factory.hpp:77] Creating layer inception_4e/3x3_reduce
I0713 13:59:45.207447  7792 net.cpp:91] Creating Layer inception_4e/3x3_reduce
I0713 13:59:45.207468  7792 net.cpp:425] inception_4e/3x3_reduce <- inception_4d/output_inception_4d/output_0_split_1
I0713 13:59:45.207484  7792 net.cpp:399] inception_4e/3x3_reduce -> inception_4e/3x3_reduce
I0713 13:59:45.211091  7792 net.cpp:141] Setting up inception_4e/3x3_reduce
I0713 13:59:45.211113  7792 net.cpp:148] Top shape: 10 160 14 14 (313600)
I0713 13:59:45.211119  7792 net.cpp:156] Memory required for data: 499376640
I0713 13:59:45.211132  7792 layer_factory.hpp:77] Creating layer inception_4e/relu_3x3_reduce
I0713 13:59:45.211145  7792 net.cpp:91] Creating Layer inception_4e/relu_3x3_reduce
I0713 13:59:45.211153  7792 net.cpp:425] inception_4e/relu_3x3_reduce <- inception_4e/3x3_reduce
I0713 13:59:45.211160  7792 net.cpp:386] inception_4e/relu_3x3_reduce -> inception_4e/3x3_reduce (in-place)
I0713 13:59:45.211443  7792 net.cpp:141] Setting up inception_4e/relu_3x3_reduce
I0713 13:59:45.211455  7792 net.cpp:148] Top shape: 10 160 14 14 (313600)
I0713 13:59:45.211460  7792 net.cpp:156] Memory required for data: 500631040
I0713 13:59:45.211465  7792 layer_factory.hpp:77] Creating layer inception_4e/3x3
I0713 13:59:45.211484  7792 net.cpp:91] Creating Layer inception_4e/3x3
I0713 13:59:45.211490  7792 net.cpp:425] inception_4e/3x3 <- inception_4e/3x3_reduce
I0713 13:59:45.211503  7792 net.cpp:399] inception_4e/3x3 -> inception_4e/3x3
I0713 13:59:45.219949  7792 net.cpp:141] Setting up inception_4e/3x3
I0713 13:59:45.219982  7792 net.cpp:148] Top shape: 10 320 14 14 (627200)
I0713 13:59:45.219988  7792 net.cpp:156] Memory required for data: 503139840
I0713 13:59:45.220000  7792 layer_factory.hpp:77] Creating layer inception_4e/relu_3x3
I0713 13:59:45.220012  7792 net.cpp:91] Creating Layer inception_4e/relu_3x3
I0713 13:59:45.220021  7792 net.cpp:425] inception_4e/relu_3x3 <- inception_4e/3x3
I0713 13:59:45.220029  7792 net.cpp:386] inception_4e/relu_3x3 -> inception_4e/3x3 (in-place)
I0713 13:59:45.221052  7792 net.cpp:141] Setting up inception_4e/relu_3x3
I0713 13:59:45.221071  7792 net.cpp:148] Top shape: 10 320 14 14 (627200)
I0713 13:59:45.221076  7792 net.cpp:156] Memory required for data: 505648640
I0713 13:59:45.221082  7792 layer_factory.hpp:77] Creating layer inception_4e/5x5_reduce
I0713 13:59:45.221104  7792 net.cpp:91] Creating Layer inception_4e/5x5_reduce
I0713 13:59:45.221112  7792 net.cpp:425] inception_4e/5x5_reduce <- inception_4d/output_inception_4d/output_0_split_2
I0713 13:59:45.221125  7792 net.cpp:399] inception_4e/5x5_reduce -> inception_4e/5x5_reduce
I0713 13:59:45.223774  7792 net.cpp:141] Setting up inception_4e/5x5_reduce
I0713 13:59:45.223794  7792 net.cpp:148] Top shape: 10 32 14 14 (62720)
I0713 13:59:45.223800  7792 net.cpp:156] Memory required for data: 505899520
I0713 13:59:45.223810  7792 layer_factory.hpp:77] Creating layer inception_4e/relu_5x5_reduce
I0713 13:59:45.223820  7792 net.cpp:91] Creating Layer inception_4e/relu_5x5_reduce
I0713 13:59:45.223826  7792 net.cpp:425] inception_4e/relu_5x5_reduce <- inception_4e/5x5_reduce
I0713 13:59:45.223836  7792 net.cpp:386] inception_4e/relu_5x5_reduce -> inception_4e/5x5_reduce (in-place)
I0713 13:59:45.224117  7792 net.cpp:141] Setting up inception_4e/relu_5x5_reduce
I0713 13:59:45.224128  7792 net.cpp:148] Top shape: 10 32 14 14 (62720)
I0713 13:59:45.224133  7792 net.cpp:156] Memory required for data: 506150400
I0713 13:59:45.224138  7792 layer_factory.hpp:77] Creating layer inception_4e/5x5
I0713 13:59:45.224158  7792 net.cpp:91] Creating Layer inception_4e/5x5
I0713 13:59:45.224164  7792 net.cpp:425] inception_4e/5x5 <- inception_4e/5x5_reduce
I0713 13:59:45.224174  7792 net.cpp:399] inception_4e/5x5 -> inception_4e/5x5
I0713 13:59:45.228735  7792 net.cpp:141] Setting up inception_4e/5x5
I0713 13:59:45.228757  7792 net.cpp:148] Top shape: 10 128 14 14 (250880)
I0713 13:59:45.228763  7792 net.cpp:156] Memory required for data: 507153920
I0713 13:59:45.228775  7792 layer_factory.hpp:77] Creating layer inception_4e/relu_5x5
I0713 13:59:45.228785  7792 net.cpp:91] Creating Layer inception_4e/relu_5x5
I0713 13:59:45.228791  7792 net.cpp:425] inception_4e/relu_5x5 <- inception_4e/5x5
I0713 13:59:45.228802  7792 net.cpp:386] inception_4e/relu_5x5 -> inception_4e/5x5 (in-place)
I0713 13:59:45.229081  7792 net.cpp:141] Setting up inception_4e/relu_5x5
I0713 13:59:45.229094  7792 net.cpp:148] Top shape: 10 128 14 14 (250880)
I0713 13:59:45.229099  7792 net.cpp:156] Memory required for data: 508157440
I0713 13:59:45.229104  7792 layer_factory.hpp:77] Creating layer inception_4e/pool
I0713 13:59:45.229117  7792 net.cpp:91] Creating Layer inception_4e/pool
I0713 13:59:45.229125  7792 net.cpp:425] inception_4e/pool <- inception_4d/output_inception_4d/output_0_split_3
I0713 13:59:45.229132  7792 net.cpp:399] inception_4e/pool -> inception_4e/pool
I0713 13:59:45.229218  7792 net.cpp:141] Setting up inception_4e/pool
I0713 13:59:45.229228  7792 net.cpp:148] Top shape: 10 528 14 14 (1034880)
I0713 13:59:45.229233  7792 net.cpp:156] Memory required for data: 512296960
I0713 13:59:45.229238  7792 layer_factory.hpp:77] Creating layer inception_4e/pool_proj
I0713 13:59:45.229254  7792 net.cpp:91] Creating Layer inception_4e/pool_proj
I0713 13:59:45.229259  7792 net.cpp:425] inception_4e/pool_proj <- inception_4e/pool
I0713 13:59:45.229275  7792 net.cpp:399] inception_4e/pool_proj -> inception_4e/pool_proj
I0713 13:59:45.232259  7792 net.cpp:141] Setting up inception_4e/pool_proj
I0713 13:59:45.232278  7792 net.cpp:148] Top shape: 10 128 14 14 (250880)
I0713 13:59:45.232283  7792 net.cpp:156] Memory required for data: 513300480
I0713 13:59:45.232295  7792 layer_factory.hpp:77] Creating layer inception_4e/relu_pool_proj
I0713 13:59:45.232305  7792 net.cpp:91] Creating Layer inception_4e/relu_pool_proj
I0713 13:59:45.232311  7792 net.cpp:425] inception_4e/relu_pool_proj <- inception_4e/pool_proj
I0713 13:59:45.232318  7792 net.cpp:386] inception_4e/relu_pool_proj -> inception_4e/pool_proj (in-place)
I0713 13:59:45.233156  7792 net.cpp:141] Setting up inception_4e/relu_pool_proj
I0713 13:59:45.233173  7792 net.cpp:148] Top shape: 10 128 14 14 (250880)
I0713 13:59:45.233178  7792 net.cpp:156] Memory required for data: 514304000
I0713 13:59:45.233184  7792 layer_factory.hpp:77] Creating layer inception_4e/output
I0713 13:59:45.233193  7792 net.cpp:91] Creating Layer inception_4e/output
I0713 13:59:45.233201  7792 net.cpp:425] inception_4e/output <- inception_4e/1x1
I0713 13:59:45.233207  7792 net.cpp:425] inception_4e/output <- inception_4e/3x3
I0713 13:59:45.233213  7792 net.cpp:425] inception_4e/output <- inception_4e/5x5
I0713 13:59:45.233219  7792 net.cpp:425] inception_4e/output <- inception_4e/pool_proj
I0713 13:59:45.233232  7792 net.cpp:399] inception_4e/output -> inception_4e/output
I0713 13:59:45.233286  7792 net.cpp:141] Setting up inception_4e/output
I0713 13:59:45.233299  7792 net.cpp:148] Top shape: 10 832 14 14 (1630720)
I0713 13:59:45.233304  7792 net.cpp:156] Memory required for data: 520826880
I0713 13:59:45.233309  7792 layer_factory.hpp:77] Creating layer pool4/3x3_s2
I0713 13:59:45.233317  7792 net.cpp:91] Creating Layer pool4/3x3_s2
I0713 13:59:45.233324  7792 net.cpp:425] pool4/3x3_s2 <- inception_4e/output
I0713 13:59:45.233330  7792 net.cpp:399] pool4/3x3_s2 -> pool4/3x3_s2
I0713 13:59:45.233403  7792 net.cpp:141] Setting up pool4/3x3_s2
I0713 13:59:45.233413  7792 net.cpp:148] Top shape: 10 832 7 7 (407680)
I0713 13:59:45.233417  7792 net.cpp:156] Memory required for data: 522457600
I0713 13:59:45.233422  7792 layer_factory.hpp:77] Creating layer pool4/3x3_s2_pool4/3x3_s2_0_split
I0713 13:59:45.233431  7792 net.cpp:91] Creating Layer pool4/3x3_s2_pool4/3x3_s2_0_split
I0713 13:59:45.233436  7792 net.cpp:425] pool4/3x3_s2_pool4/3x3_s2_0_split <- pool4/3x3_s2
I0713 13:59:45.233448  7792 net.cpp:399] pool4/3x3_s2_pool4/3x3_s2_0_split -> pool4/3x3_s2_pool4/3x3_s2_0_split_0
I0713 13:59:45.233458  7792 net.cpp:399] pool4/3x3_s2_pool4/3x3_s2_0_split -> pool4/3x3_s2_pool4/3x3_s2_0_split_1
I0713 13:59:45.233466  7792 net.cpp:399] pool4/3x3_s2_pool4/3x3_s2_0_split -> pool4/3x3_s2_pool4/3x3_s2_0_split_2
I0713 13:59:45.233474  7792 net.cpp:399] pool4/3x3_s2_pool4/3x3_s2_0_split -> pool4/3x3_s2_pool4/3x3_s2_0_split_3
I0713 13:59:45.233593  7792 net.cpp:141] Setting up pool4/3x3_s2_pool4/3x3_s2_0_split
I0713 13:59:45.233608  7792 net.cpp:148] Top shape: 10 832 7 7 (407680)
I0713 13:59:45.233613  7792 net.cpp:148] Top shape: 10 832 7 7 (407680)
I0713 13:59:45.233618  7792 net.cpp:148] Top shape: 10 832 7 7 (407680)
I0713 13:59:45.233624  7792 net.cpp:148] Top shape: 10 832 7 7 (407680)
I0713 13:59:45.233628  7792 net.cpp:156] Memory required for data: 528980480
I0713 13:59:45.233633  7792 layer_factory.hpp:77] Creating layer inception_5a/1x1
I0713 13:59:45.233649  7792 net.cpp:91] Creating Layer inception_5a/1x1
I0713 13:59:45.233654  7792 net.cpp:425] inception_5a/1x1 <- pool4/3x3_s2_pool4/3x3_s2_0_split_0
I0713 13:59:45.233664  7792 net.cpp:399] inception_5a/1x1 -> inception_5a/1x1
I0713 13:59:45.239071  7792 net.cpp:141] Setting up inception_5a/1x1
I0713 13:59:45.239094  7792 net.cpp:148] Top shape: 10 256 7 7 (125440)
I0713 13:59:45.239100  7792 net.cpp:156] Memory required for data: 529482240
I0713 13:59:45.239110  7792 layer_factory.hpp:77] Creating layer inception_5a/relu_1x1
I0713 13:59:45.239125  7792 net.cpp:91] Creating Layer inception_5a/relu_1x1
I0713 13:59:45.239131  7792 net.cpp:425] inception_5a/relu_1x1 <- inception_5a/1x1
I0713 13:59:45.239140  7792 net.cpp:386] inception_5a/relu_1x1 -> inception_5a/1x1 (in-place)
I0713 13:59:45.239434  7792 net.cpp:141] Setting up inception_5a/relu_1x1
I0713 13:59:45.239446  7792 net.cpp:148] Top shape: 10 256 7 7 (125440)
I0713 13:59:45.239451  7792 net.cpp:156] Memory required for data: 529984000
I0713 13:59:45.239456  7792 layer_factory.hpp:77] Creating layer inception_5a/3x3_reduce
I0713 13:59:45.239473  7792 net.cpp:91] Creating Layer inception_5a/3x3_reduce
I0713 13:59:45.239480  7792 net.cpp:425] inception_5a/3x3_reduce <- pool4/3x3_s2_pool4/3x3_s2_0_split_1
I0713 13:59:45.239492  7792 net.cpp:399] inception_5a/3x3_reduce -> inception_5a/3x3_reduce
I0713 13:59:45.244220  7792 net.cpp:141] Setting up inception_5a/3x3_reduce
I0713 13:59:45.244240  7792 net.cpp:148] Top shape: 10 160 7 7 (78400)
I0713 13:59:45.244246  7792 net.cpp:156] Memory required for data: 530297600
I0713 13:59:45.244256  7792 layer_factory.hpp:77] Creating layer inception_5a/relu_3x3_reduce
I0713 13:59:45.244268  7792 net.cpp:91] Creating Layer inception_5a/relu_3x3_reduce
I0713 13:59:45.244276  7792 net.cpp:425] inception_5a/relu_3x3_reduce <- inception_5a/3x3_reduce
I0713 13:59:45.244283  7792 net.cpp:386] inception_5a/relu_3x3_reduce -> inception_5a/3x3_reduce (in-place)
I0713 13:59:45.244565  7792 net.cpp:141] Setting up inception_5a/relu_3x3_reduce
I0713 13:59:45.244577  7792 net.cpp:148] Top shape: 10 160 7 7 (78400)
I0713 13:59:45.244582  7792 net.cpp:156] Memory required for data: 530611200
I0713 13:59:45.244587  7792 layer_factory.hpp:77] Creating layer inception_5a/3x3
I0713 13:59:45.244609  7792 net.cpp:91] Creating Layer inception_5a/3x3
I0713 13:59:45.244616  7792 net.cpp:425] inception_5a/3x3 <- inception_5a/3x3_reduce
I0713 13:59:45.244626  7792 net.cpp:399] inception_5a/3x3 -> inception_5a/3x3
I0713 13:59:45.253779  7792 net.cpp:141] Setting up inception_5a/3x3
I0713 13:59:45.253804  7792 net.cpp:148] Top shape: 10 320 7 7 (156800)
I0713 13:59:45.253809  7792 net.cpp:156] Memory required for data: 531238400
I0713 13:59:45.253820  7792 layer_factory.hpp:77] Creating layer inception_5a/relu_3x3
I0713 13:59:45.253830  7792 net.cpp:91] Creating Layer inception_5a/relu_3x3
I0713 13:59:45.253836  7792 net.cpp:425] inception_5a/relu_3x3 <- inception_5a/3x3
I0713 13:59:45.253849  7792 net.cpp:386] inception_5a/relu_3x3 -> inception_5a/3x3 (in-place)
I0713 13:59:45.254683  7792 net.cpp:141] Setting up inception_5a/relu_3x3
I0713 13:59:45.254709  7792 net.cpp:148] Top shape: 10 320 7 7 (156800)
I0713 13:59:45.254714  7792 net.cpp:156] Memory required for data: 531865600
I0713 13:59:45.254720  7792 layer_factory.hpp:77] Creating layer inception_5a/5x5_reduce
I0713 13:59:45.254739  7792 net.cpp:91] Creating Layer inception_5a/5x5_reduce
I0713 13:59:45.254745  7792 net.cpp:425] inception_5a/5x5_reduce <- pool4/3x3_s2_pool4/3x3_s2_0_split_2
I0713 13:59:45.254758  7792 net.cpp:399] inception_5a/5x5_reduce -> inception_5a/5x5_reduce
I0713 13:59:45.257455  7792 net.cpp:141] Setting up inception_5a/5x5_reduce
I0713 13:59:45.257474  7792 net.cpp:148] Top shape: 10 32 7 7 (15680)
I0713 13:59:45.257480  7792 net.cpp:156] Memory required for data: 531928320
I0713 13:59:45.257490  7792 layer_factory.hpp:77] Creating layer inception_5a/relu_5x5_reduce
I0713 13:59:45.257504  7792 net.cpp:91] Creating Layer inception_5a/relu_5x5_reduce
I0713 13:59:45.257511  7792 net.cpp:425] inception_5a/relu_5x5_reduce <- inception_5a/5x5_reduce
I0713 13:59:45.257519  7792 net.cpp:386] inception_5a/relu_5x5_reduce -> inception_5a/5x5_reduce (in-place)
I0713 13:59:45.257804  7792 net.cpp:141] Setting up inception_5a/relu_5x5_reduce
I0713 13:59:45.257817  7792 net.cpp:148] Top shape: 10 32 7 7 (15680)
I0713 13:59:45.257822  7792 net.cpp:156] Memory required for data: 531991040
I0713 13:59:45.257827  7792 layer_factory.hpp:77] Creating layer inception_5a/5x5
I0713 13:59:45.257843  7792 net.cpp:91] Creating Layer inception_5a/5x5
I0713 13:59:45.257849  7792 net.cpp:425] inception_5a/5x5 <- inception_5a/5x5_reduce
I0713 13:59:45.257861  7792 net.cpp:399] inception_5a/5x5 -> inception_5a/5x5
I0713 13:59:45.261188  7792 net.cpp:141] Setting up inception_5a/5x5
I0713 13:59:45.261207  7792 net.cpp:148] Top shape: 10 128 7 7 (62720)
I0713 13:59:45.261214  7792 net.cpp:156] Memory required for data: 532241920
I0713 13:59:45.261224  7792 layer_factory.hpp:77] Creating layer inception_5a/relu_5x5
I0713 13:59:45.261260  7792 net.cpp:91] Creating Layer inception_5a/relu_5x5
I0713 13:59:45.261266  7792 net.cpp:425] inception_5a/relu_5x5 <- inception_5a/5x5
I0713 13:59:45.261274  7792 net.cpp:386] inception_5a/relu_5x5 -> inception_5a/5x5 (in-place)
I0713 13:59:45.261601  7792 net.cpp:141] Setting up inception_5a/relu_5x5
I0713 13:59:45.261615  7792 net.cpp:148] Top shape: 10 128 7 7 (62720)
I0713 13:59:45.261620  7792 net.cpp:156] Memory required for data: 532492800
I0713 13:59:45.261626  7792 layer_factory.hpp:77] Creating layer inception_5a/pool
I0713 13:59:45.261637  7792 net.cpp:91] Creating Layer inception_5a/pool
I0713 13:59:45.261643  7792 net.cpp:425] inception_5a/pool <- pool4/3x3_s2_pool4/3x3_s2_0_split_3
I0713 13:59:45.261651  7792 net.cpp:399] inception_5a/pool -> inception_5a/pool
I0713 13:59:45.261739  7792 net.cpp:141] Setting up inception_5a/pool
I0713 13:59:45.261750  7792 net.cpp:148] Top shape: 10 832 7 7 (407680)
I0713 13:59:45.261754  7792 net.cpp:156] Memory required for data: 534123520
I0713 13:59:45.261759  7792 layer_factory.hpp:77] Creating layer inception_5a/pool_proj
I0713 13:59:45.261776  7792 net.cpp:91] Creating Layer inception_5a/pool_proj
I0713 13:59:45.261782  7792 net.cpp:425] inception_5a/pool_proj <- inception_5a/pool
I0713 13:59:45.261795  7792 net.cpp:399] inception_5a/pool_proj -> inception_5a/pool_proj
I0713 13:59:45.266548  7792 net.cpp:141] Setting up inception_5a/pool_proj
I0713 13:59:45.266572  7792 net.cpp:148] Top shape: 10 128 7 7 (62720)
I0713 13:59:45.266578  7792 net.cpp:156] Memory required for data: 534374400
I0713 13:59:45.266588  7792 layer_factory.hpp:77] Creating layer inception_5a/relu_pool_proj
I0713 13:59:45.266602  7792 net.cpp:91] Creating Layer inception_5a/relu_pool_proj
I0713 13:59:45.266608  7792 net.cpp:425] inception_5a/relu_pool_proj <- inception_5a/pool_proj
I0713 13:59:45.266616  7792 net.cpp:386] inception_5a/relu_pool_proj -> inception_5a/pool_proj (in-place)
I0713 13:59:45.267463  7792 net.cpp:141] Setting up inception_5a/relu_pool_proj
I0713 13:59:45.267483  7792 net.cpp:148] Top shape: 10 128 7 7 (62720)
I0713 13:59:45.267489  7792 net.cpp:156] Memory required for data: 534625280
I0713 13:59:45.267495  7792 layer_factory.hpp:77] Creating layer inception_5a/output
I0713 13:59:45.267504  7792 net.cpp:91] Creating Layer inception_5a/output
I0713 13:59:45.267510  7792 net.cpp:425] inception_5a/output <- inception_5a/1x1
I0713 13:59:45.267518  7792 net.cpp:425] inception_5a/output <- inception_5a/3x3
I0713 13:59:45.267524  7792 net.cpp:425] inception_5a/output <- inception_5a/5x5
I0713 13:59:45.267529  7792 net.cpp:425] inception_5a/output <- inception_5a/pool_proj
I0713 13:59:45.267536  7792 net.cpp:399] inception_5a/output -> inception_5a/output
I0713 13:59:45.267596  7792 net.cpp:141] Setting up inception_5a/output
I0713 13:59:45.267606  7792 net.cpp:148] Top shape: 10 832 7 7 (407680)
I0713 13:59:45.267611  7792 net.cpp:156] Memory required for data: 536256000
I0713 13:59:45.267616  7792 layer_factory.hpp:77] Creating layer inception_5a/output_inception_5a/output_0_split
I0713 13:59:45.267626  7792 net.cpp:91] Creating Layer inception_5a/output_inception_5a/output_0_split
I0713 13:59:45.267633  7792 net.cpp:425] inception_5a/output_inception_5a/output_0_split <- inception_5a/output
I0713 13:59:45.267640  7792 net.cpp:399] inception_5a/output_inception_5a/output_0_split -> inception_5a/output_inception_5a/output_0_split_0
I0713 13:59:45.267650  7792 net.cpp:399] inception_5a/output_inception_5a/output_0_split -> inception_5a/output_inception_5a/output_0_split_1
I0713 13:59:45.267659  7792 net.cpp:399] inception_5a/output_inception_5a/output_0_split -> inception_5a/output_inception_5a/output_0_split_2
I0713 13:59:45.267668  7792 net.cpp:399] inception_5a/output_inception_5a/output_0_split -> inception_5a/output_inception_5a/output_0_split_3
I0713 13:59:45.267788  7792 net.cpp:141] Setting up inception_5a/output_inception_5a/output_0_split
I0713 13:59:45.267798  7792 net.cpp:148] Top shape: 10 832 7 7 (407680)
I0713 13:59:45.267804  7792 net.cpp:148] Top shape: 10 832 7 7 (407680)
I0713 13:59:45.267809  7792 net.cpp:148] Top shape: 10 832 7 7 (407680)
I0713 13:59:45.267815  7792 net.cpp:148] Top shape: 10 832 7 7 (407680)
I0713 13:59:45.267819  7792 net.cpp:156] Memory required for data: 542778880
I0713 13:59:45.267823  7792 layer_factory.hpp:77] Creating layer inception_5b/1x1
I0713 13:59:45.267840  7792 net.cpp:91] Creating Layer inception_5b/1x1
I0713 13:59:45.267848  7792 net.cpp:425] inception_5b/1x1 <- inception_5a/output_inception_5a/output_0_split_0
I0713 13:59:45.267858  7792 net.cpp:399] inception_5b/1x1 -> inception_5b/1x1
I0713 13:59:45.274301  7792 net.cpp:141] Setting up inception_5b/1x1
I0713 13:59:45.274322  7792 net.cpp:148] Top shape: 10 384 7 7 (188160)
I0713 13:59:45.274328  7792 net.cpp:156] Memory required for data: 543531520
I0713 13:59:45.274338  7792 layer_factory.hpp:77] Creating layer inception_5b/relu_1x1
I0713 13:59:45.274351  7792 net.cpp:91] Creating Layer inception_5b/relu_1x1
I0713 13:59:45.274358  7792 net.cpp:425] inception_5b/relu_1x1 <- inception_5b/1x1
I0713 13:59:45.274366  7792 net.cpp:386] inception_5b/relu_1x1 -> inception_5b/1x1 (in-place)
I0713 13:59:45.274653  7792 net.cpp:141] Setting up inception_5b/relu_1x1
I0713 13:59:45.274665  7792 net.cpp:148] Top shape: 10 384 7 7 (188160)
I0713 13:59:45.274670  7792 net.cpp:156] Memory required for data: 544284160
I0713 13:59:45.274675  7792 layer_factory.hpp:77] Creating layer inception_5b/3x3_reduce
I0713 13:59:45.274703  7792 net.cpp:91] Creating Layer inception_5b/3x3_reduce
I0713 13:59:45.274711  7792 net.cpp:425] inception_5b/3x3_reduce <- inception_5a/output_inception_5a/output_0_split_1
I0713 13:59:45.274721  7792 net.cpp:399] inception_5b/3x3_reduce -> inception_5b/3x3_reduce
I0713 13:59:45.279700  7792 net.cpp:141] Setting up inception_5b/3x3_reduce
I0713 13:59:45.279721  7792 net.cpp:148] Top shape: 10 192 7 7 (94080)
I0713 13:59:45.279726  7792 net.cpp:156] Memory required for data: 544660480
I0713 13:59:45.279736  7792 layer_factory.hpp:77] Creating layer inception_5b/relu_3x3_reduce
I0713 13:59:45.279749  7792 net.cpp:91] Creating Layer inception_5b/relu_3x3_reduce
I0713 13:59:45.279757  7792 net.cpp:425] inception_5b/relu_3x3_reduce <- inception_5b/3x3_reduce
I0713 13:59:45.279764  7792 net.cpp:386] inception_5b/relu_3x3_reduce -> inception_5b/3x3_reduce (in-place)
I0713 13:59:45.280053  7792 net.cpp:141] Setting up inception_5b/relu_3x3_reduce
I0713 13:59:45.280066  7792 net.cpp:148] Top shape: 10 192 7 7 (94080)
I0713 13:59:45.280071  7792 net.cpp:156] Memory required for data: 545036800
I0713 13:59:45.280076  7792 layer_factory.hpp:77] Creating layer inception_5b/3x3
I0713 13:59:45.280093  7792 net.cpp:91] Creating Layer inception_5b/3x3
I0713 13:59:45.280100  7792 net.cpp:425] inception_5b/3x3 <- inception_5b/3x3_reduce
I0713 13:59:45.280112  7792 net.cpp:399] inception_5b/3x3 -> inception_5b/3x3
I0713 13:59:45.290168  7792 net.cpp:141] Setting up inception_5b/3x3
I0713 13:59:45.290195  7792 net.cpp:148] Top shape: 10 384 7 7 (188160)
I0713 13:59:45.290201  7792 net.cpp:156] Memory required for data: 545789440
I0713 13:59:45.290212  7792 layer_factory.hpp:77] Creating layer inception_5b/relu_3x3
I0713 13:59:45.290222  7792 net.cpp:91] Creating Layer inception_5b/relu_3x3
I0713 13:59:45.290230  7792 net.cpp:425] inception_5b/relu_3x3 <- inception_5b/3x3
I0713 13:59:45.290237  7792 net.cpp:386] inception_5b/relu_3x3 -> inception_5b/3x3 (in-place)
I0713 13:59:45.291093  7792 net.cpp:141] Setting up inception_5b/relu_3x3
I0713 13:59:45.291112  7792 net.cpp:148] Top shape: 10 384 7 7 (188160)
I0713 13:59:45.291291  7792 net.cpp:156] Memory required for data: 546542080
I0713 13:59:45.291299  7792 layer_factory.hpp:77] Creating layer inception_5b/5x5_reduce
I0713 13:59:45.291318  7792 net.cpp:91] Creating Layer inception_5b/5x5_reduce
I0713 13:59:45.291326  7792 net.cpp:425] inception_5b/5x5_reduce <- inception_5a/output_inception_5a/output_0_split_2
I0713 13:59:45.291335  7792 net.cpp:399] inception_5b/5x5_reduce -> inception_5b/5x5_reduce
I0713 13:59:45.294204  7792 net.cpp:141] Setting up inception_5b/5x5_reduce
I0713 13:59:45.294222  7792 net.cpp:148] Top shape: 10 48 7 7 (23520)
I0713 13:59:45.294229  7792 net.cpp:156] Memory required for data: 546636160
I0713 13:59:45.294239  7792 layer_factory.hpp:77] Creating layer inception_5b/relu_5x5_reduce
I0713 13:59:45.294246  7792 net.cpp:91] Creating Layer inception_5b/relu_5x5_reduce
I0713 13:59:45.294253  7792 net.cpp:425] inception_5b/relu_5x5_reduce <- inception_5b/5x5_reduce
I0713 13:59:45.294265  7792 net.cpp:386] inception_5b/relu_5x5_reduce -> inception_5b/5x5_reduce (in-place)
I0713 13:59:45.294544  7792 net.cpp:141] Setting up inception_5b/relu_5x5_reduce
I0713 13:59:45.294556  7792 net.cpp:148] Top shape: 10 48 7 7 (23520)
I0713 13:59:45.294561  7792 net.cpp:156] Memory required for data: 546730240
I0713 13:59:45.294566  7792 layer_factory.hpp:77] Creating layer inception_5b/5x5
I0713 13:59:45.294585  7792 net.cpp:91] Creating Layer inception_5b/5x5
I0713 13:59:45.294592  7792 net.cpp:425] inception_5b/5x5 <- inception_5b/5x5_reduce
I0713 13:59:45.294605  7792 net.cpp:399] inception_5b/5x5 -> inception_5b/5x5
I0713 13:59:45.299105  7792 net.cpp:141] Setting up inception_5b/5x5
I0713 13:59:45.299125  7792 net.cpp:148] Top shape: 10 128 7 7 (62720)
I0713 13:59:45.299131  7792 net.cpp:156] Memory required for data: 546981120
I0713 13:59:45.299141  7792 layer_factory.hpp:77] Creating layer inception_5b/relu_5x5
I0713 13:59:45.299156  7792 net.cpp:91] Creating Layer inception_5b/relu_5x5
I0713 13:59:45.299163  7792 net.cpp:425] inception_5b/relu_5x5 <- inception_5b/5x5
I0713 13:59:45.299171  7792 net.cpp:386] inception_5b/relu_5x5 -> inception_5b/5x5 (in-place)
I0713 13:59:45.299454  7792 net.cpp:141] Setting up inception_5b/relu_5x5
I0713 13:59:45.299466  7792 net.cpp:148] Top shape: 10 128 7 7 (62720)
I0713 13:59:45.299471  7792 net.cpp:156] Memory required for data: 547232000
I0713 13:59:45.299476  7792 layer_factory.hpp:77] Creating layer inception_5b/pool
I0713 13:59:45.299486  7792 net.cpp:91] Creating Layer inception_5b/pool
I0713 13:59:45.299492  7792 net.cpp:425] inception_5b/pool <- inception_5a/output_inception_5a/output_0_split_3
I0713 13:59:45.299500  7792 net.cpp:399] inception_5b/pool -> inception_5b/pool
I0713 13:59:45.299588  7792 net.cpp:141] Setting up inception_5b/pool
I0713 13:59:45.299599  7792 net.cpp:148] Top shape: 10 832 7 7 (407680)
I0713 13:59:45.299603  7792 net.cpp:156] Memory required for data: 548862720
I0713 13:59:45.299608  7792 layer_factory.hpp:77] Creating layer inception_5b/pool_proj
I0713 13:59:45.299626  7792 net.cpp:91] Creating Layer inception_5b/pool_proj
I0713 13:59:45.299633  7792 net.cpp:425] inception_5b/pool_proj <- inception_5b/pool
I0713 13:59:45.299641  7792 net.cpp:399] inception_5b/pool_proj -> inception_5b/pool_proj
I0713 13:59:45.304208  7792 net.cpp:141] Setting up inception_5b/pool_proj
I0713 13:59:45.304231  7792 net.cpp:148] Top shape: 10 128 7 7 (62720)
I0713 13:59:45.304237  7792 net.cpp:156] Memory required for data: 549113600
I0713 13:59:45.304249  7792 layer_factory.hpp:77] Creating layer inception_5b/relu_pool_proj
I0713 13:59:45.304257  7792 net.cpp:91] Creating Layer inception_5b/relu_pool_proj
I0713 13:59:45.304263  7792 net.cpp:425] inception_5b/relu_pool_proj <- inception_5b/pool_proj
I0713 13:59:45.304271  7792 net.cpp:386] inception_5b/relu_pool_proj -> inception_5b/pool_proj (in-place)
I0713 13:59:45.305111  7792 net.cpp:141] Setting up inception_5b/relu_pool_proj
I0713 13:59:45.305131  7792 net.cpp:148] Top shape: 10 128 7 7 (62720)
I0713 13:59:45.305136  7792 net.cpp:156] Memory required for data: 549364480
I0713 13:59:45.305142  7792 layer_factory.hpp:77] Creating layer inception_5b/output
I0713 13:59:45.305151  7792 net.cpp:91] Creating Layer inception_5b/output
I0713 13:59:45.305157  7792 net.cpp:425] inception_5b/output <- inception_5b/1x1
I0713 13:59:45.305163  7792 net.cpp:425] inception_5b/output <- inception_5b/3x3
I0713 13:59:45.305169  7792 net.cpp:425] inception_5b/output <- inception_5b/5x5
I0713 13:59:45.305176  7792 net.cpp:425] inception_5b/output <- inception_5b/pool_proj
I0713 13:59:45.305182  7792 net.cpp:399] inception_5b/output -> inception_5b/output
I0713 13:59:45.305243  7792 net.cpp:141] Setting up inception_5b/output
I0713 13:59:45.305253  7792 net.cpp:148] Top shape: 10 1024 7 7 (501760)
I0713 13:59:45.305258  7792 net.cpp:156] Memory required for data: 551371520
I0713 13:59:45.305263  7792 layer_factory.hpp:77] Creating layer pool5/7x7_s1
I0713 13:59:45.305274  7792 net.cpp:91] Creating Layer pool5/7x7_s1
I0713 13:59:45.305279  7792 net.cpp:425] pool5/7x7_s1 <- inception_5b/output
I0713 13:59:45.305286  7792 net.cpp:399] pool5/7x7_s1 -> pool5/7x7_s1
I0713 13:59:45.305637  7792 net.cpp:141] Setting up pool5/7x7_s1
I0713 13:59:45.305650  7792 net.cpp:148] Top shape: 10 1024 1 1 (10240)
I0713 13:59:45.305655  7792 net.cpp:156] Memory required for data: 551412480
I0713 13:59:45.305660  7792 layer_factory.hpp:77] Creating layer pool5/drop_7x7_s1
I0713 13:59:45.305676  7792 net.cpp:91] Creating Layer pool5/drop_7x7_s1
I0713 13:59:45.305682  7792 net.cpp:425] pool5/drop_7x7_s1 <- pool5/7x7_s1
I0713 13:59:45.305692  7792 net.cpp:386] pool5/drop_7x7_s1 -> pool5/7x7_s1 (in-place)
I0713 13:59:45.305747  7792 net.cpp:141] Setting up pool5/drop_7x7_s1
I0713 13:59:45.305760  7792 net.cpp:148] Top shape: 10 1024 1 1 (10240)
I0713 13:59:45.305765  7792 net.cpp:156] Memory required for data: 551453440
I0713 13:59:45.305770  7792 layer_factory.hpp:77] Creating layer loss3/classifier
I0713 13:59:45.305788  7792 net.cpp:91] Creating Layer loss3/classifier
I0713 13:59:45.305794  7792 net.cpp:425] loss3/classifier <- pool5/7x7_s1
I0713 13:59:45.305806  7792 net.cpp:399] loss3/classifier -> loss3/classifier
I0713 13:59:45.317312  7792 net.cpp:141] Setting up loss3/classifier
I0713 13:59:45.317338  7792 net.cpp:148] Top shape: 10 1000 (10000)
I0713 13:59:45.317343  7792 net.cpp:156] Memory required for data: 551493440
I0713 13:59:45.317354  7792 layer_factory.hpp:77] Creating layer prob
I0713 13:59:45.317365  7792 net.cpp:91] Creating Layer prob
I0713 13:59:45.317371  7792 net.cpp:425] prob <- loss3/classifier
I0713 13:59:45.317383  7792 net.cpp:399] prob -> prob
I0713 13:59:45.318552  7792 net.cpp:141] Setting up prob
I0713 13:59:45.318570  7792 net.cpp:148] Top shape: 10 1000 (10000)
I0713 13:59:45.318575  7792 net.cpp:156] Memory required for data: 551533440
I0713 13:59:45.318580  7792 net.cpp:219] prob does not need backward computation.
I0713 13:59:45.318586  7792 net.cpp:219] loss3/classifier does not need backward computation.
I0713 13:59:45.318591  7792 net.cpp:219] pool5/drop_7x7_s1 does not need backward computation.
I0713 13:59:45.318595  7792 net.cpp:219] pool5/7x7_s1 does not need backward computation.
…
