…
Java HotSpot(TM) 64-Bit Server VM warning: You have loaded library /tmp/cvld7979262828042739972/libopencv_java310.xine1.so which might have disabled stack guard. The VM will try to fix the stack guard now.
It's highly recommended that you fix the library with 'execstack -c <libfile>', or link it with '-z noexecstack'.
WARNING: Logging before InitGoogleLogging() is written to STDERR
I0714 21:19:37.050570 23892 net.cpp:49] Initializing net from parameters: 
name: "GoogleNet"
state {
  phase: TEST
}
layer {
  name: "data"
  type: "Input"
  top: "data"
  input_param {
    shape {
      dim: 10
      dim: 3
      dim: 224
      dim: 224
    }
  }
}
layer {
  name: "conv1/7x7_s2"
  type: "Convolution"
  bottom: "data"
  top: "conv1/7x7_s2"
  param {
    lr_mult: 1
    decay_mult: 1
  }
  param {
    lr_mult: 2
    decay_mult: 0
  }
  convolution_param {
    num_output: 64
    pad: 3
    kernel_size: 7
    stride: 2
    weight_filler {
      type: "xavier"
      std: 0.1
    }
    bias_filler {
      type: "constant"
      value: 0.2
    }
  }
}
layer {
  name: "conv1/relu_7x7"
  type: "ReLU"
  bottom: "conv1/7x7_s2"
  top: "conv1/7x7_s2"
}
layer {
  name: "pool1/3x3_s2"
  type: "Pooling"
  bottom: "conv1/7x7_s2"
  top: "pool1/3x3_s2"
  pooling_param {
    pool: MAX
    kernel_size: 3
    stride: 2
  }
}
layer {
  name: "pool1/norm1"
  type: "LRN"
  bottom: "pool1/3x3_s2"
  top: "pool1/norm1"
  lrn_param {
    local_size: 5
    alpha: 0.0001
    beta: 0.75
  }
}
layer {
  name: "conv2/3x3_reduce"
  type: "Convolution"
  bottom: "pool1/norm1"
  top: "conv2/3x3_reduce"
  param {
    lr_mult: 1
    decay_mult: 1
  }
  param {
    lr_mult: 2
    decay_mult: 0
  }
  convolution_param {
    num_output: 64
    kernel_size: 1
    weight_filler {
      type: "xavier"
      std: 0.1
    }
    bias_filler {
      type: "constant"
      value: 0.2
    }
  }
}
layer {
  name: "conv2/relu_3x3_reduce"
  type: "ReLU"
  bottom: "conv2/3x3_reduce"
  top: "conv2/3x3_reduce"
}
layer {
  name: "conv2/3x3"
  type: "Convolution"
  bottom: "conv2/3x3_reduce"
  top: "conv2/3x3"
  param {
    lr_mult: 1
    decay_mult: 1
  }
  param {
    lr_mult: 2
    decay_mult: 0
  }
  convolution_param {
    num_output: 192
    pad: 1
    kernel_size: 3
    weight_filler {
      type: "xavier"
      std: 0.03
    }
    bias_filler {
      type: "constant"
      value: 0.2
    }
  }
}
layer {
  name: "conv2/relu_3x3"
  type: "ReLU"
  bottom: "conv2/3x3"
  top: "conv2/3x3"
}
layer {
  name: "conv2/norm2"
  type: "LRN"
  bottom: "conv2/3x3"
  top: "conv2/norm2"
  lrn_param {
    local_size: 5
    alpha: 0.0001
    beta: 0.75
  }
}
layer {
  name: "pool2/3x3_s2"
  type: "Pooling"
  bottom: "conv2/norm2"
  top: "pool2/3x3_s2"
  pooling_param {
    pool: MAX
    kernel_size: 3
    stride: 2
  }
}
layer {
  name: "inception_3a/1x1"
  type: "Convolution"
  bottom: "pool2/3x3_s2"
  top: "inception_3a/1x1"
  param {
    lr_mult: 1
    decay_mult: 1
  }
  param {
    lr_mult: 2
    decay_mult: 0
  }
  convolution_param {
    num_output: 64
    kernel_size: 1
    weight_filler {
      type: "xavier"
      std: 0.03
    }
    bias_filler {
      type: "constant"
      value: 0.2
    }
  }
}
layer {
  name: "inception_3a/relu_1x1"
  type: "ReLU"
  bottom: "inception_3a/1x1"
  top: "inception_3a/1x1"
}
layer {
  name: "inception_3a/3x3_reduce"
  type: "Convolution"
  bottom: "pool2/3x3_s2"
  top: "inception_3a/3x3_reduce"
  param {
    lr_mult: 1
    decay_mult: 1
  }
  param {
    lr_mult: 2
    decay_mult: 0
  }
  convolution_param {
    num_output: 96
    kernel_size: 1
    weight_filler {
      type: "xavier"
      std: 0.09
    }
    bias_filler {
      type: "constant"
      value: 0.2
    }
  }
}
layer {
  name: "inception_3a/relu_3x3_reduce"
  type: "ReLU"
  bottom: "inception_3a/3x3_reduce"
  top: "inception_3a/3x3_reduce"
}
layer {
  name: "inception_3a/3x3"
  type: "Convolution"
  bottom: "inception_3a/3x3_reduce"
  top: "inception_3a/3x3"
  param {
    lr_mult: 1
    decay_mult: 1
  }
  param {
    lr_mult: 2
    decay_mult: 0
  }
  convolution_param {
    num_output: 128
    pad: 1
    kernel_size: 3
    weight_filler {
      type: "xavier"
      std: 0.03
    }
    bias_filler {
      type: "constant"
      value: 0.2
    }
  }
}
layer {
  name: "inception_3a/relu_3x3"
  type: "ReLU"
  bottom: "inception_3a/3x3"
  top: "inception_3a/3x3"
}
layer {
  name: "inception_3a/5x5_reduce"
  type: "Convolution"
  bottom: "pool2/3x3_s2"
  top: "inception_3a/5x5_reduce"
  param {
    lr_mult: 1
    decay_mult: 1
  }
  param {
    lr_mult: 2
    decay_mult: 0
  }
  convolution_param {
    num_output: 16
    kernel_size: 1
    weight_filler {
      type: "xavier"
      std: 0.2
    }
    bias_filler {
      type: "constant"
      value: 0.2
    }
  }
}
layer {
  name: "inception_3a/relu_5x5_reduce"
  type: "ReLU"
  bottom: "inception_3a/5x5_reduce"
  top: "inception_3a/5x5_reduce"
}
layer {
  name: "inception_3a/5x5"
  type: "Convolution"
  bottom: "inception_3a/5x5_reduce"
  top: "inception_3a/5x5"
  param {
    lr_mult: 1
    decay_mult: 1
  }
  param {
    lr_mult: 2
    decay_mult: 0
  }
  convolution_param {
    num_output: 32
    pad: 2
    kernel_size: 5
    weight_filler {
      type: "xavier"
      std: 0.03
    }
    bias_filler {
      type: "constant"
      value: 0.2
    }
  }
}
layer {
  name: "inception_3a/relu_5x5"
  type: "ReLU"
  bottom: "inception_3a/5x5"
  top: "inception_3a/5x5"
}
layer {
  name: "inception_3a/pool"
  type: "Pooling"
  bottom: "pool2/3x3_s2"
  top: "inception_3a/pool"
  pooling_param {
    pool: MAX
    kernel_size: 3
    stride: 1
    pad: 1
  }
}
layer {
  name: "inception_3a/pool_proj"
  type: "Convolution"
  bottom: "inception_3a/pool"
  top: "inception_3a/pool_proj"
  param {
    lr_mult: 1
    decay_mult: 1
  }
  param {
    lr_mult: 2
    decay_mult: 0
  }
  convolution_param {
    num_output: 32
    kernel_size: 1
    weight_filler {
      type: "xavier"
      std: 0.1
    }
    bias_filler {
      type: "constant"
      value: 0.2
    }
  }
}
layer {
  name: "inception_3a/relu_pool_proj"
  type: "ReLU"
  bottom: "inception_3a/pool_proj"
  top: "inception_3a/pool_proj"
}
layer {
  name: "inception_3a/output"
  type: "Concat"
  bottom: "inception_3a/1x1"
  bottom: "inception_3a/3x3"
  bottom: "inception_3a/5x5"
  bottom: "inception_3a/pool_proj"
  top: "inception_3a/output"
}
layer {
  name: "inception_3b/1x1"
  type: "Convolution"
  bottom: "inception_3a/output"
  top: "inception_3b/1x1"
  param {
    lr_mult: 1
    decay_mult: 1
  }
  param {
    lr_mult: 2
    decay_mult: 0
  }
  convolution_param {
    num_output: 128
    kernel_size: 1
    weight_filler {
      type: "xavier"
      std: 0.03
    }
    bias_filler {
      type: "constant"
      value: 0.2
    }
  }
}
layer {
  name: "inception_3b/relu_1x1"
  type: "ReLU"
  bottom: "inception_3b/1x1"
  top: "inception_3b/1x1"
}
layer {
  name: "inception_3b/3x3_reduce"
  type: "Convolution"
  bottom: "inception_3a/output"
  top: "inception_3b/3x3_reduce"
  param {
    lr_mult: 1
    decay_mult: 1
  }
  param {
    lr_mult: 2
    decay_mult: 0
  }
  convolution_param {
    num_output: 128
    kernel_size: 1
    weight_filler {
      type: "xavier"
      std: 0.09
    }
    bias_filler {
      type: "constant"
      value: 0.2
    }
  }
}
layer {
  name: "inception_3b/relu_3x3_reduce"
  type: "ReLU"
  bottom: "inception_3b/3x3_reduce"
  top: "inception_3b/3x3_reduce"
}
layer {
  name: "inception_3b/3x3"
  type: "Convolution"
  bottom: "inception_3b/3x3_reduce"
  top: "inception_3b/3x3"
  param {
    lr_mult: 1
    decay_mult: 1
  }
  param {
    lr_mult: 2
    decay_mult: 0
  }
  convolution_param {
    num_output: 192
    pad: 1
    kernel_size: 3
    weight_filler {
      type: "xavier"
      std: 0.03
    }
    bias_filler {
      type: "constant"
      value: 0.2
    }
  }
}
layer {
  name: "inception_3b/relu_3x3"
  type: "ReLU"
  bottom: "inception_3b/3x3"
  top: "inception_3b/3x3"
}
layer {
  name: "inception_3b/5x5_reduce"
  type: "Convolution"
  bottom: "inception_3a/output"
  top: "inception_3b/5x5_reduce"
  param {
    lr_mult: 1
    decay_mult: 1
  }
  param {
    lr_mult: 2
    decay_mult: 0
  }
  convolution_param {
    num_output: 32
    kernel_size: 1
    weight_filler {
      type: "xavier"
      std: 0.2
    }
    bias_filler {
      type: "constant"
      value: 0.2
    }
  }
}
layer {
  name: "inception_3b/relu_5x5_reduce"
  type: "ReLU"
  bottom: "inception_3b/5x5_reduce"
  top: "inception_3b/5x5_reduce"
}
layer {
  name: "inception_3b/5x5"
  type: "Convolution"
  bottom: "inception_3b/5x5_reduce"
  top: "inception_3b/5x5"
  param {
    lr_mult: 1
    decay_mult: 1
  }
  param {
    lr_mult: 2
    decay_mult: 0
  }
  convolution_param {
    num_output: 96
    pad: 2
    kernel_size: 5
    weight_filler {
      type: "xavier"
      std: 0.03
    }
    bias_filler {
      type: "constant"
      value: 0.2
    }
  }
}
layer {
  name: "inception_3b/relu_5x5"
  type: "ReLU"
  bottom: "inception_3b/5x5"
  top: "inception_3b/5x5"
}
layer {
  name: "inception_3b/pool"
  type: "Pooling"
  bottom: "inception_3a/output"
  top: "inception_3b/pool"
  pooling_param {
    pool: MAX
    kernel_size: 3
    stride: 1
    pad: 1
  }
}
layer {
  name: "inception_3b/pool_proj"
  type: "Convolution"
  bottom: "inception_3b/pool"
  top: "inception_3b/pool_proj"
  param {
    lr_mult: 1
    decay_mult: 1
  }
  param {
    lr_mult: 2
    decay_mult: 0
  }
  convolution_param {
    num_output: 64
    kernel_size: 1
    weight_filler {
      type: "xavier"
      std: 0.1
    }
    bias_filler {
      type: "constant"
      value: 0.2
    }
  }
}
layer {
  name: "inception_3b/relu_pool_proj"
  type: "ReLU"
  bottom: "inception_3b/pool_proj"
  top: "inception_3b/pool_proj"
}
layer {
  name: "inception_3b/output"
  type: "Concat"
  bottom: "inception_3b/1x1"
  bottom: "inception_3b/3x3"
  bottom: "inception_3b/5x5"
  bottom: "inception_3b/pool_proj"
  top: "inception_3b/output"
}
layer {
  name: "pool3/3x3_s2"
  type: "Pooling"
  bottom: "inception_3b/output"
  top: "pool3/3x3_s2"
  pooling_param {
    pool: MAX
    kernel_size: 3
    stride: 2
  }
}
layer {
  name: "inception_4a/1x1"
  type: "Convolution"
  bottom: "pool3/3x3_s2"
  top: "inception_4a/1x1"
  param {
    lr_mult: 1
    decay_mult: 1
  }
  param {
    lr_mult: 2
    decay_mult: 0
  }
  convolution_param {
    num_output: 192
    kernel_size: 1
    weight_filler {
      type: "xavier"
      std: 0.03
    }
    bias_filler {
      type: "constant"
      value: 0.2
    }
  }
}
layer {
  name: "inception_4a/relu_1x1"
  type: "ReLU"
  bottom: "inception_4a/1x1"
  top: "inception_4a/1x1"
}
layer {
  name: "inception_4a/3x3_reduce"
  type: "Convolution"
  bottom: "pool3/3x3_s2"
  top: "inception_4a/3x3_reduce"
  param {
    lr_mult: 1
    decay_mult: 1
  }
  param {
    lr_mult: 2
    decay_mult: 0
  }
  convolution_param {
    num_output: 96
    kernel_size: 1
    weight_filler {
      type: "xavier"
      std: 0.09
    }
    bias_filler {
      type: "constant"
      value: 0.2
    }
  }
}
layer {
  name: "inception_4a/relu_3x3_reduce"
  type: "ReLU"
  bottom: "inception_4a/3x3_reduce"
  top: "inception_4a/3x3_reduce"
}
layer {
  name: "inception_4a/3x3"
  type: "Convolution"
  bottom: "inception_4a/3x3_reduce"
  top: "inception_4a/3x3"
  param {
    lr_mult: 1
    decay_mult: 1
  }
  param {
    lr_mult: 2
    decay_mult: 0
  }
  convolution_param {
    num_output: 208
    pad: 1
    kernel_size: 3
    weight_filler {
      type: "xavier"
      std: 0.03
    }
    bias_filler {
      type: "constant"
      value: 0.2
    }
  }
}
layer {
  name: "inception_4a/relu_3x3"
  type: "ReLU"
  bottom: "inception_4a/3x3"
  top: "inception_4a/3x3"
}
layer {
  name: "inception_4a/5x5_reduce"
  type: "Convolution"
  bottom: "pool3/3x3_s2"
  top: "inception_4a/5x5_reduce"
  param {
    lr_mult: 1
    decay_mult: 1
  }
  param {
    lr_mult: 2
    decay_mult: 0
  }
  convolution_param {
    num_output: 16
    kernel_size: 1
    weight_filler {
      type: "xavier"
      std: 0.2
    }
    bias_filler {
      type: "constant"
      value: 0.2
    }
  }
}
layer {
  name: "inception_4a/relu_5x5_reduce"
  type: "ReLU"
  bottom: "inception_4a/5x5_reduce"
  top: "inception_4a/5x5_reduce"
}
layer {
  name: "inception_4a/5x5"
  type: "Convolution"
  bottom: "inception_4a/5x5_reduce"
  top: "inception_4a/5x5"
  param {
    lr_mult: 1
    decay_mult: 1
  }
  param {
    lr_mult: 2
    decay_mult: 0
  }
  convolution_param {
    num_output: 48
    pad: 2
    kernel_size: 5
    weight_filler {
      type: "xavier"
      std: 0.03
    }
    bias_filler {
      type: "constant"
      value: 0.2
    }
  }
}
layer {
  name: "inception_4a/relu_5x5"
  type: "ReLU"
  bottom: "inception_4a/5x5"
  top: "inception_4a/5x5"
}
layer {
  name: "inception_4a/pool"
  type: "Pooling"
  bottom: "pool3/3x3_s2"
  top: "inception_4a/pool"
  pooling_param {
    pool: MAX
    kernel_size: 3
    stride: 1
    pad: 1
  }
}
layer {
  name: "inception_4a/pool_proj"
  type: "Convolution"
  bottom: "inception_4a/pool"
  top: "inception_4a/pool_proj"
  param {
    lr_mult: 1
    decay_mult: 1
  }
  param {
    lr_mult: 2
    decay_mult: 0
  }
  convolution_param {
    num_output: 64
    kernel_size: 1
    weight_filler {
      type: "xavier"
      std: 0.1
    }
    bias_filler {
      type: "constant"
      value: 0.2
    }
  }
}
layer {
  name: "inception_4a/relu_pool_proj"
  type: "ReLU"
  bottom: "inception_4a/pool_proj"
  top: "inception_4a/pool_proj"
}
layer {
  name: "inception_4a/output"
  type: "Concat"
  bottom: "inception_4a/1x1"
  bottom: "inception_4a/3x3"
  bottom: "inception_4a/5x5"
  bottom: "inception_4a/pool_proj"
  top: "inception_4a/output"
}
layer {
  name: "inception_4b/1x1"
  type: "Convolution"
  bottom: "inception_4a/output"
  top: "inception_4b/1x1"
  param {
    lr_mult: 1
    decay_mult: 1
  }
  param {
    lr_mult: 2
    decay_mult: 0
  }
  convolution_param {
    num_output: 160
    kernel_size: 1
    weight_filler {
      type: "xavier"
      std: 0.03
    }
    bias_filler {
      type: "constant"
      value: 0.2
    }
  }
}
layer {
  name: "inception_4b/relu_1x1"
  type: "ReLU"
  bottom: "inception_4b/1x1"
  top: "inception_4b/1x1"
}
layer {
  name: "inception_4b/3x3_reduce"
  type: "Convolution"
  bottom: "inception_4a/output"
  top: "inception_4b/3x3_reduce"
  param {
    lr_mult: 1
    decay_mult: 1
  }
  param {
    lr_mult: 2
    decay_mult: 0
  }
  convolution_param {
    num_output: 112
    kernel_size: 1
    weight_filler {
      type: "xavier"
      std: 0.09
    }
    bias_filler {
      type: "constant"
      value: 0.2
    }
  }
}
layer {
  name: "inception_4b/relu_3x3_reduce"
  type: "ReLU"
  bottom: "inception_4b/3x3_reduce"
  top: "inception_4b/3x3_reduce"
}
layer {
  name: "inception_4b/3x3"
  type: "Convolution"
  bottom: "inception_4b/3x3_reduce"
  top: "inception_4b/3x3"
  param {
    lr_mult: 1
    decay_mult: 1
  }
  param {
    lr_mult: 2
    decay_mult: 0
  }
  convolution_param {
    num_output: 224
    pad: 1
    kernel_size: 3
    weight_filler {
      type: "xavier"
      std: 0.03
    }
    bias_filler {
      type: "constant"
      value: 0.2
    }
  }
}
layer {
  name: "inception_4b/relu_3x3"
  type: "ReLU"
  bottom: "inception_4b/3x3"
  top: "inception_4b/3x3"
}
layer {
  name: "inception_4b/5x5_reduce"
  type: "Convolution"
  bottom: "inception_4a/output"
  top: "inception_4b/5x5_reduce"
  param {
    lr_mult: 1
    decay_mult: 1
  }
  param {
    lr_mult: 2
    decay_mult: 0
  }
  convolution_param {
    num_output: 24
    kernel_size: 1
    weight_filler {
      type: "xavier"
      std: 0.2
    }
    bias_filler {
      type: "constant"
      value: 0.2
    }
  }
}
layer {
  name: "inception_4b/relu_5x5_reduce"
  type: "ReLU"
  bottom: "inception_4b/5x5_reduce"
  top: "inception_4b/5x5_reduce"
}
layer {
  name: "inception_4b/5x5"
  type: "Convolution"
  bottom: "inception_4b/5x5_reduce"
  top: "inception_4b/5x5"
  param {
    lr_mult: 1
    decay_mult: 1
  }
  param {
    lr_mult: 2
    decay_mult: 0
  }
  convolution_param {
    num_output: 64
    pad: 2
    kernel_size: 5
    weight_filler {
      type: "xavier"
      std: 0.03
    }
    bias_filler {
      type: "constant"
      value: 0.2
    }
  }
}
layer {
  name: "inception_4b/relu_5x5"
  type: "ReLU"
  bottom: "inception_4b/5x5"
  top: "inception_4b/5x5"
}
layer {
  name: "inception_4b/pool"
  type: "Pooling"
  bottom: "inception_4a/output"
  top: "inception_4b/pool"
  pooling_param {
    pool: MAX
    kernel_size: 3
    stride: 1
    pad: 1
  }
}
layer {
  name: "inception_4b/pool_proj"
  type: "Convolution"
  bottom: "inception_4b/pool"
  top: "inception_4b/pool_proj"
  param {
    lr_mult: 1
    decay_mult: 1
  }
  param {
    lr_mult: 2
    decay_mult: 0
  }
  convolution_param {
    num_output: 64
    kernel_size: 1
    weight_filler {
      type: "xavier"
      std: 0.1
    }
    bias_filler {
      type: "constant"
      value: 0.2
    }
  }
}
layer {
  name: "inception_4b/relu_pool_proj"
  type: "ReLU"
  bottom: "inception_4b/pool_proj"
  top: "inception_4b/pool_proj"
}
layer {
  name: "inception_4b/output"
  type: "Concat"
  bottom: "inception_4b/1x1"
  bottom: "inception_4b/3x3"
  bottom: "inception_4b/5x5"
  bottom: "inception_4b/pool_proj"
  top: "inception_4b/output"
}
layer {
  name: "inception_4c/1x1"
  type: "Convolution"
  bottom: "inception_4b/output"
  top: "inception_4c/1x1"
  param {
    lr_mult: 1
    decay_mult: 1
  }
  param {
    lr_mult: 2
    decay_mult: 0
  }
  convolution_param {
    num_output: 128
    kernel_size: 1
    weight_filler {
      type: "xavier"
      std: 0.03
    }
    bias_filler {
      type: "constant"
      value: 0.2
    }
  }
}
layer {
  name: "inception_4c/relu_1x1"
  type: "ReLU"
  bottom: "inception_4c/1x1"
  top: "inception_4c/1x1"
}
layer {
  name: "inception_4c/3x3_reduce"
  type: "Convolution"
  bottom: "inception_4b/output"
  top: "inception_4c/3x3_reduce"
  param {
    lr_mult: 1
    decay_mult: 1
  }
  param {
    lr_mult: 2
    decay_mult: 0
  }
  convolution_param {
    num_output: 128
    kernel_size: 1
    weight_filler {
      type: "xavier"
      std: 0.09
    }
    bias_filler {
      type: "constant"
      value: 0.2
    }
  }
}
layer {
  name: "inception_4c/relu_3x3_reduce"
  type: "ReLU"
  bottom: "inception_4c/3x3_reduce"
  top: "inception_4c/3x3_reduce"
}
layer {
  name: "inception_4c/3x3"
  type: "Convolution"
  bottom: "inception_4c/3x3_reduce"
  top: "inception_4c/3x3"
  param {
    lr_mult: 1
    decay_mult: 1
  }
  param {
    lr_mult: 2
    decay_mult: 0
  }
  convolution_param {
    num_output: 256
    pad: 1
    kernel_size: 3
    weight_filler {
      type: "xavier"
      std: 0.03
    }
    bias_filler {
      type: "constant"
      value: 0.2
    }
  }
}
layer {
  name: "inception_4c/relu_3x3"
  type: "ReLU"
  bottom: "inception_4c/3x3"
  top: "inception_4c/3x3"
}
layer {
  name: "inception_4c/5x5_reduce"
  type: "Convolution"
  bottom: "inception_4b/output"
  top: "inception_4c/5x5_reduce"
  param {
    lr_mult: 1
    decay_mult: 1
  }
  param {
    lr_mult: 2
    decay_mult: 0
  }
  convolution_param {
    num_output: 24
    kernel_size: 1
    weight_filler {
      type: "xavier"
      std: 0.2
    }
    bias_filler {
      type: "constant"
      value: 0.2
    }
  }
}
layer {
  name: "inception_4c/relu_5x5_reduce"
  type: "ReLU"
  bottom: "inception_4c/5x5_reduce"
  top: "inception_4c/5x5_reduce"
}
layer {
  name: "inception_4c/5x5"
  type: "Convolution"
  bottom: "inception_4c/5x5_reduce"
  top: "inception_4c/5x5"
  param {
    lr_mult: 1
    decay_mult: 1
  }
  param {
    lr_mult: 2
    decay_mult: 0
  }
  convolution_param {
    num_output: 64
    pad: 2
    kernel_size: 5
    weight_filler {
      type: "xavier"
      std: 0.03
    }
    bias_filler {
      type: "constant"
      value: 0.2
    }
  }
}
layer {
  name: "inception_4c/relu_5x5"
  type: "ReLU"
  bottom: "inception_4c/5x5"
  top: "inception_4c/5x5"
}
layer {
  name: "inception_4c/pool"
  type: "Pooling"
  bottom: "inception_4b/output"
  top: "inception_4c/pool"
  pooling_param {
    pool: MAX
    kernel_size: 3
    stride: 1
    pad: 1
  }
}
layer {
  name: "inception_4c/pool_proj"
  type: "Convolution"
  bottom: "inception_4c/pool"
  top: "inception_4c/pool_proj"
  param {
    lr_mult: 1
    decay_mult: 1
  }
  param {
    lr_mult: 2
    decay_mult: 0
  }
  convolution_param {
    num_output: 64
    kernel_size: 1
    weight_filler {
      type: "xavier"
      std: 0.1
    }
    bias_filler {
      type: "constant"
      value: 0.2
    }
  }
}
layer {
  name: "inception_4c/relu_pool_proj"
  type: "ReLU"
  bottom: "inception_4c/pool_proj"
  top: "inception_4c/pool_proj"
}
layer {
  name: "inception_4c/output"
  type: "Concat"
  bottom: "inception_4c/1x1"
  bottom: "inception_4c/3x3"
  bottom: "inception_4c/5x5"
  bottom: "inception_4c/pool_proj"
  top: "inception_4c/output"
}
layer {
  name: "inception_4d/1x1"
  type: "Convolution"
  bottom: "inception_4c/output"
  top: "inception_4d/1x1"
  param {
    lr_mult: 1
    decay_mult: 1
  }
  param {
    lr_mult: 2
    decay_mult: 0
  }
  convolution_param {
    num_output: 112
    kernel_size: 1
    weight_filler {
      type: "xavier"
      std: 0.03
    }
    bias_filler {
      type: "constant"
      value: 0.2
    }
  }
}
layer {
  name: "inception_4d/relu_1x1"
  type: "ReLU"
  bottom: "inception_4d/1x1"
  top: "inception_4d/1x1"
}
layer {
  name: "inception_4d/3x3_reduce"
  type: "Convolution"
  bottom: "inception_4c/output"
  top: "inception_4d/3x3_reduce"
  param {
    lr_mult: 1
    decay_mult: 1
  }
  param {
    lr_mult: 2
    decay_mult: 0
  }
  convolution_param {
    num_output: 144
    kernel_size: 1
    weight_filler {
      type: "xavier"
      std: 0.09
    }
    bias_filler {
      type: "constant"
      value: 0.2
    }
  }
}
layer {
  name: "inception_4d/relu_3x3_reduce"
  type: "ReLU"
  bottom: "inception_4d/3x3_reduce"
  top: "inception_4d/3x3_reduce"
}
layer {
  name: "inception_4d/3x3"
  type: "Convolution"
  bottom: "inception_4d/3x3_reduce"
  top: "inception_4d/3x3"
  param {
    lr_mult: 1
    decay_mult: 1
  }
  param {
    lr_mult: 2
    decay_mult: 0
  }
  convolution_param {
    num_output: 288
    pad: 1
    kernel_size: 3
    weight_filler {
      type: "xavier"
      std: 0.03
    }
    bias_filler {
      type: "constant"
      value: 0.2
    }
  }
}
layer {
  name: "inception_4d/relu_3x3"
  type: "ReLU"
  bottom: "inception_4d/3x3"
  top: "inception_4d/3x3"
}
layer {
  name: "inception_4d/5x5_reduce"
  type: "Convolution"
  bottom: "inception_4c/output"
  top: "inception_4d/5x5_reduce"
  param {
    lr_mult: 1
    decay_mult: 1
  }
  param {
    lr_mult: 2
    decay_mult: 0
  }
  convolution_param {
    num_output: 32
    kernel_size: 1
    weight_filler {
      type: "xavier"
      std: 0.2
    }
    bias_filler {
      type: "constant"
      value: 0.2
    }
  }
}
layer {
  name: "inception_4d/relu_5x5_reduce"
  type: "ReLU"
  bottom: "inception_4d/5x5_reduce"
  top: "inception_4d/5x5_reduce"
}
layer {
  name: "inception_4d/5x5"
  type: "Convolution"
  bottom: "inception_4d/5x5_reduce"
  top: "inception_4d/5x5"
  param {
    lr_mult: 1
    decay_mult: 1
  }
  param {
    lr_mult: 2
    decay_mult: 0
  }
  convolution_param {
    num_output: 64
    pad: 2
    kernel_size: 5
    weight_filler {
      type: "xavier"
      std: 0.03
    }
    bias_filler {
      type: "constant"
      value: 0.2
    }
  }
}
layer {
  name: "inception_4d/relu_5x5"
  type: "ReLU"
  bottom: "inception_4d/5x5"
  top: "inception_4d/5x5"
}
layer {
  name: "inception_4d/pool"
  type: "Pooling"
  bottom: "inception_4c/output"
  top: "inception_4d/pool"
  pooling_param {
    pool: MAX
    kernel_size: 3
    stride: 1
    pad: 1
  }
}
layer {
  name: "inception_4d/pool_proj"
  type: "Convolution"
  bottom: "inception_4d/pool"
  top: "inception_4d/pool_proj"
  param {
    lr_mult: 1
    decay_mult: 1
  }
  param {
    lr_mult: 2
    decay_mult: 0
  }
  convolution_param {
    num_output: 64
    kernel_size: 1
    weight_filler {
      type: "xavier"
      std: 0.1
    }
    bias_filler {
      type: "constant"
      value: 0.2
    }
  }
}
layer {
  name: "inception_4d/relu_pool_proj"
  type: "ReLU"
  bottom: "inception_4d/pool_proj"
  top: "inception_4d/pool_proj"
}
layer {
  name: "inception_4d/output"
  type: "Concat"
  bottom: "inception_4d/1x1"
  bottom: "inception_4d/3x3"
  bottom: "inception_4d/5x5"
  bottom: "inception_4d/pool_proj"
  top: "inception_4d/output"
}
layer {
  name: "inception_4e/1x1"
  type: "Convolution"
  bottom: "inception_4d/output"
  top: "inception_4e/1x1"
  param {
    lr_mult: 1
    decay_mult: 1
  }
  param {
    lr_mult: 2
    decay_mult: 0
  }
  convolution_param {
    num_output: 256
    kernel_size: 1
    weight_filler {
      type: "xavier"
      std: 0.03
    }
    bias_filler {
      type: "constant"
      value: 0.2
    }
  }
}
layer {
  name: "inception_4e/relu_1x1"
  type: "ReLU"
  bottom: "inception_4e/1x1"
  top: "inception_4e/1x1"
}
layer {
  name: "inception_4e/3x3_reduce"
  type: "Convolution"
  bottom: "inception_4d/output"
  top: "inception_4e/3x3_reduce"
  param {
    lr_mult: 1
    decay_mult: 1
  }
  param {
    lr_mult: 2
    decay_mult: 0
  }
  convolution_param {
    num_output: 160
    kernel_size: 1
    weight_filler {
      type: "xavier"
      std: 0.09
    }
    bias_filler {
      type: "constant"
      value: 0.2
    }
  }
}
layer {
  name: "inception_4e/relu_3x3_reduce"
  type: "ReLU"
  bottom: "inception_4e/3x3_reduce"
  top: "inception_4e/3x3_reduce"
}
layer {
  name: "inception_4e/3x3"
  type: "Convolution"
  bottom: "inception_4e/3x3_reduce"
  top: "inception_4e/3x3"
  param {
    lr_mult: 1
    decay_mult: 1
  }
  param {
    lr_mult: 2
    decay_mult: 0
  }
  convolution_param {
    num_output: 320
    pad: 1
    kernel_size: 3
    weight_filler {
      type: "xavier"
      std: 0.03
    }
    bias_filler {
      type: "constant"
      value: 0.2
    }
  }
}
layer {
  name: "inception_4e/relu_3x3"
  type: "ReLU"
  bottom: "inception_4e/3x3"
  top: "inception_4e/3x3"
}
layer {
  name: "inception_4e/5x5_reduce"
  type: "Convolution"
  bottom: "inception_4d/output"
  top: "inception_4e/5x5_reduce"
  param {
    lr_mult: 1
    decay_mult: 1
  }
  param {
    lr_mult: 2
    decay_mult: 0
  }
  convolution_param {
    num_output: 32
    kernel_size: 1
    weight_filler {
      type: "xavier"
      std: 0.2
    }
    bias_filler {
      type: "constant"
      value: 0.2
    }
  }
}
layer {
  name: "inception_4e/relu_5x5_reduce"
  type: "ReLU"
  bottom: "inception_4e/5x5_reduce"
  top: "inception_4e/5x5_reduce"
}
layer {
  name: "inception_4e/5x5"
  type: "Convolution"
  bottom: "inception_4e/5x5_reduce"
  top: "inception_4e/5x5"
  param {
    lr_mult: 1
    decay_mult: 1
  }
  param {
    lr_mult: 2
    decay_mult: 0
  }
  convolution_param {
    num_output: 128
    pad: 2
    kernel_size: 5
    weight_filler {
      type: "xavier"
      std: 0.03
    }
    bias_filler {
      type: "constant"
      value: 0.2
    }
  }
}
layer {
  name: "inception_4e/relu_5x5"
  type: "ReLU"
  bottom: "inception_4e/5x5"
  top: "inception_4e/5x5"
}
layer {
  name: "inception_4e/pool"
  type: "Pooling"
  bottom: "inception_4d/output"
  top: "inception_4e/pool"
  pooling_param {
    pool: MAX
    kernel_size: 3
    stride: 1
    pad: 1
  }
}
layer {
  name: "inception_4e/pool_proj"
  type: "Convolution"
  bottom: "inception_4e/pool"
  top: "inception_4e/pool_proj"
  param {
    lr_mult: 1
    decay_mult: 1
  }
  param {
    lr_mult: 2
    decay_mult: 0
  }
  convolution_param {
    num_output: 128
    kernel_size: 1
    weight_filler {
      type: "xavier"
      std: 0.1
    }
    bias_filler {
      type: "constant"
      value: 0.2
    }
  }
}
layer {
  name: "inception_4e/relu_pool_proj"
  type: "ReLU"
  bottom: "inception_4e/pool_proj"
  top: "inception_4e/pool_proj"
}
layer {
  name: "inception_4e/output"
  type: "Concat"
  bottom: "inception_4e/1x1"
  bottom: "inception_4e/3x3"
  bottom: "inception_4e/5x5"
  bottom: "inception_4e/pool_proj"
  top: "inception_4e/output"
}
layer {
  name: "pool4/3x3_s2"
  type: "Pooling"
  bottom: "inception_4e/output"
  top: "pool4/3x3_s2"
  pooling_param {
    pool: MAX
    kernel_size: 3
    stride: 2
  }
}
layer {
  name: "inception_5a/1x1"
  type: "Convolution"
  bottom: "pool4/3x3_s2"
  top: "inception_5a/1x1"
  param {
    lr_mult: 1
    decay_mult: 1
  }
  param {
    lr_mult: 2
    decay_mult: 0
  }
  convolution_param {
    num_output: 256
    kernel_size: 1
    weight_filler {
      type: "xavier"
      std: 0.03
    }
    bias_filler {
      type: "constant"
      value: 0.2
    }
  }
}
layer {
  name: "inception_5a/relu_1x1"
  type: "ReLU"
  bottom: "inception_5a/1x1"
  top: "inception_5a/1x1"
}
layer {
  name: "inception_5a/3x3_reduce"
  type: "Convolution"
  bottom: "pool4/3x3_s2"
  top: "inception_5a/3x3_reduce"
  param {
    lr_mult: 1
    decay_mult: 1
  }
  param {
    lr_mult: 2
    decay_mult: 0
  }
  convolution_param {
    num_output: 160
    kernel_size: 1
    weight_filler {
      type: "xavier"
      std: 0.09
    }
    bias_filler {
      type: "constant"
      value: 0.2
    }
  }
}
layer {
  name: "inception_5a/relu_3x3_reduce"
  type: "ReLU"
  bottom: "inception_5a/3x3_reduce"
  top: "inception_5a/3x3_reduce"
}
layer {
  name: "inception_5a/3x3"
  type: "Convolution"
  bottom: "inception_5a/3x3_reduce"
  top: "inception_5a/3x3"
  param {
    lr_mult: 1
    decay_mult: 1
  }
  param {
    lr_mult: 2
    decay_mult: 0
  }
  convolution_param {
    num_output: 320
    pad: 1
    kernel_size: 3
    weight_filler {
      type: "xavier"
      std: 0.03
    }
    bias_filler {
      type: "constant"
      value: 0.2
    }
  }
}
layer {
  name: "inception_5a/relu_3x3"
  type: "ReLU"
  bottom: "inception_5a/3x3"
  top: "inception_5a/3x3"
}
layer {
  name: "inception_5a/5x5_reduce"
  type: "Convolution"
  bottom: "pool4/3x3_s2"
  top: "inception_5a/5x5_reduce"
  param {
    lr_mult: 1
    decay_mult: 1
  }
  param {
    lr_mult: 2
    decay_mult: 0
  }
  convolution_param {
    num_output: 32
    kernel_size: 1
    weight_filler {
      type: "xavier"
      std: 0.2
    }
    bias_filler {
      type: "constant"
      value: 0.2
    }
I0714 21:19:37.051607 23892 layer_factory.hpp:77] Creating layer data
I0714 21:19:37.051642 23892 net.cpp:91] Creating Layer data
I0714 21:19:37.051656 23892 net.cpp:399] data -> data
I0714 21:19:37.057332 23888 net.cpp:49] Initializing net from parameters: 
name: "GoogleNet"
state {
  phase: TEST
}
layer {
  name: "data"
  type: "Input"
  top: "data"
  input_param {
    shape {
      dim: 10
      dim: 3
      dim: 224
      dim: 224
    }
  }
}
layer {
  name: "conv1/7x7_s2"
  type: "Convolution"
  bottom: "data"
  top: "conv1/7x7_s2"
  param {
    lr_mult: 1
    decay_mult: 1
  }
  param {
    lr_mult: 2
    decay_mult: 0
  }
  convolution_param {
    num_output: 64
    pad: 3
    kernel_size: 7
    stride: 2
    weight_filler {
      type: "xavier"
      std: 0.1
    }
    bias_filler {
      type: "constant"
      value: 0.2
    }
  }
}
layer {
  name: "conv1/relu_7x7"
  type: "ReLU"
  bottom: "conv1/7x7_s2"
  top: "conv1/7x7_s2"
}
layer {
  name: "pool1/3x3_s2"
  type: "Pooling"
  bottom: "conv1/7x7_s2"
  top: "pool1/3x3_s2"
  pooling_param {
    pool: MAX
    kernel_size: 3
    stride: 2
  }
}
layer {
  name: "pool1/norm1"
  type: "LRN"
  bottom: "pool1/3x3_s2"
  top: "pool1/norm1"
  lrn_param {
    local_size: 5
    alpha: 0.0001
    beta: 0.75
  }
}
layer {
  name: "conv2/3x3_reduce"
  type: "Convolution"
  bottom: "pool1/norm1"
  top: "conv2/3x3_reduce"
  param {
    lr_mult: 1
    decay_mult: 1
  }
  param {
    lr_mult: 2
    decay_mult: 0
  }
  convolution_param {
    num_output: 64
    kernel_size: 1
    weight_filler {
      type: "xavier"
      std: 0.1
    }
    bias_filler {
      type: "constant"
      value: 0.2
    }
  }
}
layer {
  name: "conv2/relu_3x3_reduce"
  type: "ReLU"
  bottom: "conv2/3x3_reduce"
  top: "conv2/3x3_reduce"
}
layer {
  name: "conv2/3x3"
  type: "Convolution"
  bottom: "conv2/3x3_reduce"
  top: "conv2/3x3"
  param {
    lr_mult: 1
    decay_mult: 1
  }
  param {
    lr_mult: 2
    decay_mult: 0
  }
  convolution_param {
    num_output: 192
    pad: 1
    kernel_size: 3
    weight_filler {
      type: "xavier"
      std: 0.03
    }
    bias_filler {
      type: "constant"
      value: 0.2
    }
  }
}
layer {
  name: "conv2/relu_3x3"
  type: "ReLU"
  bottom: "conv2/3x3"
  top: "conv2/3x3"
}
layer {
  name: "conv2/norm2"
  type: "LRN"
  bottom: "conv2/3x3"
  top: "conv2/norm2"
  lrn_param {
    local_size: 5
    alpha: 0.0001
    beta: 0.75
  }
}
layer {
  name: "pool2/3x3_s2"
  type: "Pooling"
  bottom: "conv2/norm2"
  top: "pool2/3x3_s2"
  pooling_param {
    pool: MAX
    kernel_size: 3
    stride: 2
  }
}
layer {
  name: "inception_3a/1x1"
  type: "Convolution"
  bottom: "pool2/3x3_s2"
  top: "inception_3a/1x1"
  param {
    lr_mult: 1
    decay_mult: 1
  }
  param {
    lr_mult: 2
    decay_mult: 0
  }
  convolution_param {
    num_output: 64
    kernel_size: 1
    weight_filler {
      type: "xavier"
      std: 0.03
    }
    bias_filler {
      type: "constant"
      value: 0.2
    }
  }
}
layer {
  name: "inception_3a/relu_1x1"
  type: "ReLU"
  bottom: "inception_3a/1x1"
  top: "inception_3a/1x1"
}
layer {
  name: "inception_3a/3x3_reduce"
  type: "Convolution"
  bottom: "pool2/3x3_s2"
  top: "inception_3a/3x3_reduce"
  param {
    lr_mult: 1
    decay_mult: 1
  }
  param {
    lr_mult: 2
    decay_mult: 0
  }
  convolution_param {
    num_output: 96
    kernel_size: 1
    weight_filler {
      type: "xavier"
      std: 0.09
    }
    bias_filler {
      type: "constant"
      value: 0.2
    }
  }
}
layer {
  name: "inception_3a/relu_3x3_reduce"
  type: "ReLU"
  bottom: "inception_3a/3x3_reduce"
  top: "inception_3a/3x3_reduce"
}
layer {
  name: "inception_3a/3x3"
  type: "Convolution"
  bottom: "inception_3a/3x3_reduce"
  top: "inception_3a/3x3"
  param {
    lr_mult: 1
    decay_mult: 1
  }
  param {
    lr_mult: 2
    decay_mult: 0
  }
  convolution_param {
    num_output: 128
    pad: 1
    kernel_size: 3
    weight_filler {
      type: "xavier"
      std: 0.03
    }
    bias_filler {
      type: "constant"
      value: 0.2
    }
  }
}
layer {
  name: "inception_3a/relu_3x3"
  type: "ReLU"
  bottom: "inception_3a/3x3"
  top: "inception_3a/3x3"
}
layer {
  name: "inception_3a/5x5_reduce"
  type: "Convolution"
  bottom: "pool2/3x3_s2"
  top: "inception_3a/5x5_reduce"
  param {
    lr_mult: 1
    decay_mult: 1
  }
  param {
    lr_mult: 2
    decay_mult: 0
  }
  convolution_param {
    num_output: 16
    kernel_size: 1
    weight_filler {
      type: "xavier"
      std: 0.2
    }
    bias_filler {
      type: "constant"
      value: 0.2
    }
  }
}
layer {
  name: "inception_3a/relu_5x5_reduce"
  type: "ReLU"
  bottom: "inception_3a/5x5_reduce"
  top: "inception_3a/5x5_reduce"
}
layer {
  name: "inception_3a/5x5"
  type: "Convolution"
  bottom: "inception_3a/5x5_reduce"
  top: "inception_3a/5x5"
  param {
    lr_mult: 1
    decay_mult: 1
  }
  param {
    lr_mult: 2
    decay_mult: 0
  }
  convolution_param {
    num_output: 32
    pad: 2
    kernel_size: 5
    weight_filler {
      type: "xavier"
      std: 0.03
    }
    bias_filler {
      type: "constant"
      value: 0.2
    }
  }
}
layer {
  name: "inception_3a/relu_5x5"
  type: "ReLU"
  bottom: "inception_3a/5x5"
  top: "inception_3a/5x5"
}
layer {
  name: "inception_3a/pool"
  type: "Pooling"
  bottom: "pool2/3x3_s2"
  top: "inception_3a/pool"
  pooling_param {
    pool: MAX
    kernel_size: 3
    stride: 1
    pad: 1
  }
}
layer {
  name: "inception_3a/pool_proj"
  type: "Convolution"
  bottom: "inception_3a/pool"
  top: "inception_3a/pool_proj"
  param {
    lr_mult: 1
    decay_mult: 1
  }
  param {
    lr_mult: 2
    decay_mult: 0
  }
  convolution_param {
    num_output: 32
    kernel_size: 1
    weight_filler {
      type: "xavier"
      std: 0.1
    }
    bias_filler {
      type: "constant"
      value: 0.2
    }
  }
}
layer {
  name: "inception_3a/relu_pool_proj"
  type: "ReLU"
  bottom: "inception_3a/pool_proj"
  top: "inception_3a/pool_proj"
}
layer {
  name: "inception_3a/output"
  type: "Concat"
  bottom: "inception_3a/1x1"
  bottom: "inception_3a/3x3"
  bottom: "inception_3a/5x5"
  bottom: "inception_3a/pool_proj"
  top: "inception_3a/output"
}
layer {
  name: "inception_3b/1x1"
  type: "Convolution"
  bottom: "inception_3a/output"
  top: "inception_3b/1x1"
  param {
    lr_mult: 1
    decay_mult: 1
  }
  param {
    lr_mult: 2
    decay_mult: 0
  }
  convolution_param {
    num_output: 128
    kernel_size: 1
    weight_filler {
      type: "xavier"
      std: 0.03
    }
    bias_filler {
      type: "constant"
      value: 0.2
    }
  }
}
layer {
  name: "inception_3b/relu_1x1"
  type: "ReLU"
  bottom: "inception_3b/1x1"
  top: "inception_3b/1x1"
}
layer {
  name: "inception_3b/3x3_reduce"
  type: "Convolution"
  bottom: "inception_3a/output"
  top: "inception_3b/3x3_reduce"
  param {
    lr_mult: 1
    decay_mult: 1
  }
  param {
    lr_mult: 2
    decay_mult: 0
  }
  convolution_param {
    num_output: 128
    kernel_size: 1
    weight_filler {
      type: "xavier"
      std: 0.09
    }
    bias_filler {
      type: "constant"
      value: 0.2
    }
  }
}
layer {
  name: "inception_3b/relu_3x3_reduce"
  type: "ReLU"
  bottom: "inception_3b/3x3_reduce"
  top: "inception_3b/3x3_reduce"
}
layer {
  name: "inception_3b/3x3"
  type: "Convolution"
  bottom: "inception_3b/3x3_reduce"
  top: "inception_3b/3x3"
  param {
    lr_mult: 1
    decay_mult: 1
  }
  param {
    lr_mult: 2
    decay_mult: 0
  }
  convolution_param {
    num_output: 192
    pad: 1
    kernel_size: 3
    weight_filler {
      type: "xavier"
      std: 0.03
    }
    bias_filler {
      type: "constant"
      value: 0.2
    }
  }
}
layer {
  name: "inception_3b/relu_3x3"
  type: "ReLU"
  bottom: "inception_3b/3x3"
  top: "inception_3b/3x3"
}
layer {
  name: "inception_3b/5x5_reduce"
  type: "Convolution"
  bottom: "inception_3a/output"
  top: "inception_3b/5x5_reduce"
  param {
    lr_mult: 1
    decay_mult: 1
  }
  param {
    lr_mult: 2
    decay_mult: 0
  }
  convolution_param {
    num_output: 32
    kernel_size: 1
    weight_filler {
      type: "xavier"
      std: 0.2
    }
    bias_filler {
      type: "constant"
      value: 0.2
    }
  }
}
layer {
  name: "inception_3b/relu_5x5_reduce"
  type: "ReLU"
  bottom: "inception_3b/5x5_reduce"
  top: "inception_3b/5x5_reduce"
}
layer {
  name: "inception_3b/5x5"
  type: "Convolution"
  bottom: "inception_3b/5x5_reduce"
  top: "inception_3b/5x5"
  param {
    lr_mult: 1
    decay_mult: 1
  }
  param {
    lr_mult: 2
    decay_mult: 0
  }
  convolution_param {
    num_output: 96
    pad: 2
    kernel_size: 5
    weight_filler {
      type: "xavier"
      std: 0.03
    }
    bias_filler {
      type: "constant"
      value: 0.2
    }
  }
}
layer {
  name: "inception_3b/relu_5x5"
  type: "ReLU"
  bottom: "inception_3b/5x5"
  top: "inception_3b/5x5"
}
layer {
  name: "inception_3b/pool"
  type: "Pooling"
  bottom: "inception_3a/output"
  top: "inception_3b/pool"
  pooling_param {
    pool: MAX
    kernel_size: 3
    stride: 1
    pad: 1
  }
}
layer {
  name: "inception_3b/pool_proj"
  type: "Convolution"
  bottom: "inception_3b/pool"
  top: "inception_3b/pool_proj"
  param {
    lr_mult: 1
    decay_mult: 1
  }
  param {
    lr_mult: 2
    decay_mult: 0
  }
  convolution_param {
    num_output: 64
    kernel_size: 1
    weight_filler {
      type: "xavier"
      std: 0.1
    }
    bias_filler {
      type: "constant"
      value: 0.2
    }
  }
}
layer {
  name: "inception_3b/relu_pool_proj"
  type: "ReLU"
  bottom: "inception_3b/pool_proj"
  top: "inception_3b/pool_proj"
}
layer {
  name: "inception_3b/output"
  type: "Concat"
  bottom: "inception_3b/1x1"
  bottom: "inception_3b/3x3"
  bottom: "inception_3b/5x5"
  bottom: "inception_3b/pool_proj"
  top: "inception_3b/output"
}
layer {
  name: "pool3/3x3_s2"
  type: "Pooling"
  bottom: "inception_3b/output"
  top: "pool3/3x3_s2"
  pooling_param {
    pool: MAX
    kernel_size: 3
    stride: 2
  }
}
layer {
  name: "inception_4a/1x1"
  type: "Convolution"
  bottom: "pool3/3x3_s2"
  top: "inception_4a/1x1"
  param {
    lr_mult: 1
    decay_mult: 1
  }
  param {
    lr_mult: 2
    decay_mult: 0
  }
  convolution_param {
    num_output: 192
    kernel_size: 1
    weight_filler {
      type: "xavier"
      std: 0.03
    }
    bias_filler {
      type: "constant"
      value: 0.2
    }
  }
}
layer {
  name: "inception_4a/relu_1x1"
  type: "ReLU"
  bottom: "inception_4a/1x1"
  top: "inception_4a/1x1"
}
layer {
  name: "inception_4a/3x3_reduce"
  type: "Convolution"
  bottom: "pool3/3x3_s2"
  top: "inception_4a/3x3_reduce"
  param {
    lr_mult: 1
    decay_mult: 1
  }
  param {
    lr_mult: 2
    decay_mult: 0
  }
  convolution_param {
    num_output: 96
    kernel_size: 1
    weight_filler {
      type: "xavier"
      std: 0.09
    }
    bias_filler {
      type: "constant"
      value: 0.2
    }
  }
}
layer {
  name: "inception_4a/relu_3x3_reduce"
  type: "ReLU"
  bottom: "inception_4a/3x3_reduce"
  top: "inception_4a/3x3_reduce"
}
layer {
  name: "inception_4a/3x3"
  type: "Convolution"
  bottom: "inception_4a/3x3_reduce"
  top: "inception_4a/3x3"
  param {
    lr_mult: 1
    decay_mult: 1
  }
  param {
    lr_mult: 2
    decay_mult: 0
  }
  convolution_param {
    num_output: 208
    pad: 1
    kernel_size: 3
    weight_filler {
      type: "xavier"
      std: 0.03
    }
    bias_filler {
      type: "constant"
      value: 0.2
    }
  }
}
layer {
  name: "inception_4a/relu_3x3"
  type: "ReLU"
  bottom: "inception_4a/3x3"
  top: "inception_4a/3x3"
}
layer {
  name: "inception_4a/5x5_reduce"
  type: "Convolution"
  bottom: "pool3/3x3_s2"
  top: "inception_4a/5x5_reduce"
  param {
    lr_mult: 1
    decay_mult: 1
  }
  param {
    lr_mult: 2
    decay_mult: 0
  }
  convolution_param {
    num_output: 16
    kernel_size: 1
    weight_filler {
      type: "xavier"
      std: 0.2
    }
    bias_filler {
      type: "constant"
      value: 0.2
    }
  }
}
layer {
  name: "inception_4a/relu_5x5_reduce"
  type: "ReLU"
  bottom: "inception_4a/5x5_reduce"
  top: "inception_4a/5x5_reduce"
}
layer {
  name: "inception_4a/5x5"
  type: "Convolution"
  bottom: "inception_4a/5x5_reduce"
  top: "inception_4a/5x5"
  param {
    lr_mult: 1
    decay_mult: 1
  }
  param {
    lr_mult: 2
    decay_mult: 0
  }
  convolution_param {
    num_output: 48
    pad: 2
    kernel_size: 5
    weight_filler {
      type: "xavier"
      std: 0.03
    }
    bias_filler {
      type: "constant"
      value: 0.2
    }
  }
}
layer {
  name: "inception_4a/relu_5x5"
  type: "ReLU"
  bottom: "inception_4a/5x5"
  top: "inception_4a/5x5"
}
layer {
  name: "inception_4a/pool"
  type: "Pooling"
  bottom: "pool3/3x3_s2"
  top: "inception_4a/pool"
  pooling_param {
    pool: MAX
    kernel_size: 3
    stride: 1
    pad: 1
  }
}
layer {
  name: "inception_4a/pool_proj"
  type: "Convolution"
  bottom: "inception_4a/pool"
  top: "inception_4a/pool_proj"
  param {
    lr_mult: 1
    decay_mult: 1
  }
  param {
    lr_mult: 2
    decay_mult: 0
  }
  convolution_param {
    num_output: 64
    kernel_size: 1
    weight_filler {
      type: "xavier"
      std: 0.1
    }
    bias_filler {
      type: "constant"
      value: 0.2
    }
  }
}
layer {
  name: "inception_4a/relu_pool_proj"
  type: "ReLU"
  bottom: "inception_4a/pool_proj"
  top: "inception_4a/pool_proj"
}
layer {
  name: "inception_4a/output"
  type: "Concat"
  bottom: "inception_4a/1x1"
  bottom: "inception_4a/3x3"
  bottom: "inception_4a/5x5"
  bottom: "inception_4a/pool_proj"
  top: "inception_4a/output"
}
layer {
  name: "inception_4b/1x1"
  type: "Convolution"
  bottom: "inception_4a/output"
  top: "inception_4b/1x1"
  param {
    lr_mult: 1
    decay_mult: 1
  }
  param {
    lr_mult: 2
    decay_mult: 0
  }
  convolution_param {
    num_output: 160
    kernel_size: 1
    weight_filler {
      type: "xavier"
      std: 0.03
    }
    bias_filler {
      type: "constant"
      value: 0.2
    }
  }
}
layer {
  name: "inception_4b/relu_1x1"
  type: "ReLU"
  bottom: "inception_4b/1x1"
  top: "inception_4b/1x1"
}
layer {
  name: "inception_4b/3x3_reduce"
  type: "Convolution"
  bottom: "inception_4a/output"
  top: "inception_4b/3x3_reduce"
  param {
    lr_mult: 1
    decay_mult: 1
  }
  param {
    lr_mult: 2
    decay_mult: 0
  }
  convolution_param {
    num_output: 112
    kernel_size: 1
    weight_filler {
      type: "xavier"
      std: 0.09
    }
    bias_filler {
      type: "constant"
      value: 0.2
    }
  }
}
layer {
  name: "inception_4b/relu_3x3_reduce"
  type: "ReLU"
  bottom: "inception_4b/3x3_reduce"
  top: "inception_4b/3x3_reduce"
}
layer {
  name: "inception_4b/3x3"
  type: "Convolution"
  bottom: "inception_4b/3x3_reduce"
  top: "inception_4b/3x3"
  param {
    lr_mult: 1
    decay_mult: 1
  }
  param {
    lr_mult: 2
    decay_mult: 0
  }
  convolution_param {
    num_output: 224
    pad: 1
    kernel_size: 3
    weight_filler {
      type: "xavier"
      std: 0.03
    }
    bias_filler {
      type: "constant"
      value: 0.2
    }
  }
}
layer {
  name: "inception_4b/relu_3x3"
  type: "ReLU"
  bottom: "inception_4b/3x3"
  top: "inception_4b/3x3"
}
layer {
  name: "inception_4b/5x5_reduce"
  type: "Convolution"
  bottom: "inception_4a/output"
  top: "inception_4b/5x5_reduce"
  param {
    lr_mult: 1
    decay_mult: 1
  }
  param {
    lr_mult: 2
    decay_mult: 0
  }
  convolution_param {
    num_output: 24
    kernel_size: 1
    weight_filler {
      type: "xavier"
      std: 0.2
    }
    bias_filler {
      type: "constant"
      value: 0.2
    }
  }
}
layer {
  name: "inception_4b/relu_5x5_reduce"
  type: "ReLU"
  bottom: "inception_4b/5x5_reduce"
  top: "inception_4b/5x5_reduce"
}
layer {
  name: "inception_4b/5x5"
  type: "Convolution"
  bottom: "inception_4b/5x5_reduce"
  top: "inception_4b/5x5"
  param {
    lr_mult: 1
    decay_mult: 1
  }
  param {
    lr_mult: 2
    decay_mult: 0
  }
  convolution_param {
    num_output: 64
    pad: 2
    kernel_size: 5
    weight_filler {
      type: "xavier"
      std: 0.03
    }
    bias_filler {
      type: "constant"
      value: 0.2
    }
  }
}
layer {
  name: "inception_4b/relu_5x5"
  type: "ReLU"
  bottom: "inception_4b/5x5"
  top: "inception_4b/5x5"
}
layer {
  name: "inception_4b/pool"
  type: "Pooling"
  bottom: "inception_4a/output"
  top: "inception_4b/pool"
  pooling_param {
    pool: MAX
    kernel_size: 3
    stride: 1
    pad: 1
  }
}
layer {
  name: "inception_4b/pool_proj"
  type: "Convolution"
  bottom: "inception_4b/pool"
  top: "inception_4b/pool_proj"
  param {
    lr_mult: 1
    decay_mult: 1
  }
  param {
    lr_mult: 2
    decay_mult: 0
  }
  convolution_param {
    num_output: 64
    kernel_size: 1
    weight_filler {
      type: "xavier"
      std: 0.1
    }
    bias_filler {
      type: "constant"
      value: 0.2
    }
  }
}
layer {
  name: "inception_4b/relu_pool_proj"
  type: "ReLU"
  bottom: "inception_4b/pool_proj"
  top: "inception_4b/pool_proj"
}
layer {
  name: "inception_4b/output"
  type: "Concat"
  bottom: "inception_4b/1x1"
  bottom: "inception_4b/3x3"
  bottom: "inception_4b/5x5"
  bottom: "inception_4b/pool_proj"
  top: "inception_4b/output"
}
layer {
  name: "inception_4c/1x1"
  type: "Convolution"
  bottom: "inception_4b/output"
  top: "inception_4c/1x1"
  param {
    lr_mult: 1
    decay_mult: 1
  }
  param {
    lr_mult: 2
    decay_mult: 0
  }
  convolution_param {
    num_output: 128
    kernel_size: 1
    weight_filler {
      type: "xavier"
      std: 0.03
    }
    bias_filler {
      type: "constant"
      value: 0.2
    }
  }
}
layer {
  name: "inception_4c/relu_1x1"
  type: "ReLU"
  bottom: "inception_4c/1x1"
  top: "inception_4c/1x1"
}
layer {
  name: "inception_4c/3x3_reduce"
  type: "Convolution"
  bottom: "inception_4b/output"
  top: "inception_4c/3x3_reduce"
  param {
    lr_mult: 1
    decay_mult: 1
  }
  param {
    lr_mult: 2
    decay_mult: 0
  }
  convolution_param {
    num_output: 128
    kernel_size: 1
    weight_filler {
      type: "xavier"
      std: 0.09
    }
    bias_filler {
      type: "constant"
      value: 0.2
    }
  }
}
layer {
  name: "inception_4c/relu_3x3_reduce"
  type: "ReLU"
  bottom: "inception_4c/3x3_reduce"
  top: "inception_4c/3x3_reduce"
}
layer {
  name: "inception_4c/3x3"
  type: "Convolution"
  bottom: "inception_4c/3x3_reduce"
  top: "inception_4c/3x3"
  param {
    lr_mult: 1
    decay_mult: 1
  }
  param {
    lr_mult: 2
    decay_mult: 0
  }
  convolution_param {
    num_output: 256
    pad: 1
    kernel_size: 3
    weight_filler {
      type: "xavier"
      std: 0.03
    }
    bias_filler {
      type: "constant"
      value: 0.2
    }
  }
}
layer {
  name: "inception_4c/relu_3x3"
  type: "ReLU"
  bottom: "inception_4c/3x3"
  top: "inception_4c/3x3"
}
layer {
  name: "inception_4c/5x5_reduce"
  type: "Convolution"
  bottom: "inception_4b/output"
  top: "inception_4c/5x5_reduce"
  param {
    lr_mult: 1
    decay_mult: 1
  }
  param {
    lr_mult: 2
    decay_mult: 0
  }
  convolution_param {
    num_output: 24
    kernel_size: 1
    weight_filler {
      type: "xavier"
      std: 0.2
    }
    bias_filler {
      type: "constant"
      value: 0.2
    }
  }
}
layer {
  name: "inception_4c/relu_5x5_reduce"
  type: "ReLU"
  bottom: "inception_4c/5x5_reduce"
  top: "inception_4c/5x5_reduce"
}
layer {
  name: "inception_4c/5x5"
  type: "Convolution"
  bottom: "inception_4c/5x5_reduce"
  top: "inception_4c/5x5"
  param {
    lr_mult: 1
    decay_mult: 1
  }
  param {
    lr_mult: 2
    decay_mult: 0
  }
  convolution_param {
    num_output: 64
    pad: 2
    kernel_size: 5
    weight_filler {
      type: "xavier"
      std: 0.03
    }
    bias_filler {
      type: "constant"
      value: 0.2
    }
  }
}
layer {
  name: "inception_4c/relu_5x5"
  type: "ReLU"
  bottom: "inception_4c/5x5"
  top: "inception_4c/5x5"
}
layer {
  name: "inception_4c/pool"
  type: "Pooling"
  bottom: "inception_4b/output"
  top: "inception_4c/pool"
  pooling_param {
    pool: MAX
    kernel_size: 3
    stride: 1
    pad: 1
  }
}
layer {
  name: "inception_4c/pool_proj"
  type: "Convolution"
  bottom: "inception_4c/pool"
  top: "inception_4c/pool_proj"
  param {
    lr_mult: 1
    decay_mult: 1
  }
  param {
    lr_mult: 2
    decay_mult: 0
  }
  convolution_param {
    num_output: 64
    kernel_size: 1
    weight_filler {
      type: "xavier"
      std: 0.1
    }
    bias_filler {
      type: "constant"
      value: 0.2
    }
  }
}
layer {
  name: "inception_4c/relu_pool_proj"
  type: "ReLU"
  bottom: "inception_4c/pool_proj"
  top: "inception_4c/pool_proj"
}
layer {
  name: "inception_4c/output"
  type: "Concat"
  bottom: "inception_4c/1x1"
  bottom: "inception_4c/3x3"
  bottom: "inception_4c/5x5"
  bottom: "inception_4c/pool_proj"
  top: "inception_4c/output"
}
layer {
  name: "inception_4d/1x1"
  type: "Convolution"
  bottom: "inception_4c/output"
  top: "inception_4d/1x1"
  param {
    lr_mult: 1
    decay_mult: 1
  }
  param {
    lr_mult: 2
    decay_mult: 0
  }
  convolution_param {
    num_output: 112
    kernel_size: 1
    weight_filler {
      type: "xavier"
      std: 0.03
    }
    bias_filler {
      type: "constant"
      value: 0.2
    }
  }
}
layer {
  name: "inception_4d/relu_1x1"
  type: "ReLU"
  bottom: "inception_4d/1x1"
  top: "inception_4d/1x1"
}
layer {
  name: "inception_4d/3x3_reduce"
  type: "Convolution"
  bottom: "inception_4c/output"
  top: "inception_4d/3x3_reduce"
  param {
    lr_mult: 1
    decay_mult: 1
  }
  param {
    lr_mult: 2
    decay_mult: 0
  }
  convolution_param {
    num_output: 144
    kernel_size: 1
    weight_filler {
      type: "xavier"
      std: 0.09
    }
    bias_filler {
      type: "constant"
      value: 0.2
    }
  }
}
layer {
  name: "inception_4d/relu_3x3_reduce"
  type: "ReLU"
  bottom: "inception_4d/3x3_reduce"
  top: "inception_4d/3x3_reduce"
}
layer {
  name: "inception_4d/3x3"
  type: "Convolution"
  bottom: "inception_4d/3x3_reduce"
  top: "inception_4d/3x3"
  param {
    lr_mult: 1
    decay_mult: 1
  }
  param {
    lr_mult: 2
    decay_mult: 0
  }
  convolution_param {
    num_output: 288
    pad: 1
    kernel_size: 3
    weight_filler {
      type: "xavier"
      std: 0.03
    }
    bias_filler {
      type: "constant"
      value: 0.2
    }
  }
}
layer {
  name: "inception_4d/relu_3x3"
  type: "ReLU"
  bottom: "inception_4d/3x3"
  top: "inception_4d/3x3"
}
layer {
  name: "inception_4d/5x5_reduce"
  type: "Convolution"
  bottom: "inception_4c/output"
  top: "inception_4d/5x5_reduce"
  param {
    lr_mult: 1
    decay_mult: 1
  }
  param {
    lr_mult: 2
    decay_mult: 0
  }
  convolution_param {
    num_output: 32
    kernel_size: 1
    weight_filler {
      type: "xavier"
      std: 0.2
    }
    bias_filler {
      type: "constant"
      value: 0.2
    }
  }
}
layer {
  name: "inception_4d/relu_5x5_reduce"
  type: "ReLU"
  bottom: "inception_4d/5x5_reduce"
  top: "inception_4d/5x5_reduce"
}
layer {
  name: "inception_4d/5x5"
  type: "Convolution"
  bottom: "inception_4d/5x5_reduce"
  top: "inception_4d/5x5"
  param {
    lr_mult: 1
    decay_mult: 1
  }
  param {
    lr_mult: 2
    decay_mult: 0
  }
  convolution_param {
    num_output: 64
    pad: 2
    kernel_size: 5
    weight_filler {
      type: "xavier"
      std: 0.03
    }
    bias_filler {
      type: "constant"
      value: 0.2
    }
  }
}
layer {
  name: "inception_4d/relu_5x5"
  type: "ReLU"
  bottom: "inception_4d/5x5"
  top: "inception_4d/5x5"
}
layer {
  name: "inception_4d/pool"
  type: "Pooling"
  bottom: "inception_4c/output"
  top: "inception_4d/pool"
  pooling_param {
    pool: MAX
    kernel_size: 3
    stride: 1
    pad: 1
  }
}
layer {
  name: "inception_4d/pool_proj"
  type: "Convolution"
  bottom: "inception_4d/pool"
  top: "inception_4d/pool_proj"
  param {
    lr_mult: 1
    decay_mult: 1
  }
  param {
    lr_mult: 2
    decay_mult: 0
  }
  convolution_param {
    num_output: 64
    kernel_size: 1
    weight_filler {
      type: "xavier"
      std: 0.1
    }
    bias_filler {
      type: "constant"
      value: 0.2
    }
  }
}
layer {
  name: "inception_4d/relu_pool_proj"
  type: "ReLU"
  bottom: "inception_4d/pool_proj"
  top: "inception_4d/pool_proj"
}
layer {
  name: "inception_4d/output"
  type: "Concat"
  bottom: "inception_4d/1x1"
  bottom: "inception_4d/3x3"
  bottom: "inception_4d/5x5"
  bottom: "inception_4d/pool_proj"
  top: "inception_4d/output"
}
layer {
  name: "inception_4e/1x1"
  type: "Convolution"
  bottom: "inception_4d/output"
  top: "inception_4e/1x1"
  param {
    lr_mult: 1
    decay_mult: 1
  }
  param {
    lr_mult: 2
    decay_mult: 0
  }
  convolution_param {
    num_output: 256
    kernel_size: 1
    weight_filler {
      type: "xavier"
      std: 0.03
    }
    bias_filler {
      type: "constant"
      value: 0.2
    }
  }
}
layer {
  name: "inception_4e/relu_1x1"
  type: "ReLU"
  bottom: "inception_4e/1x1"
  top: "inception_4e/1x1"
}
layer {
  name: "inception_4e/3x3_reduce"
  type: "Convolution"
  bottom: "inception_4d/output"
  top: "inception_4e/3x3_reduce"
  param {
    lr_mult: 1
    decay_mult: 1
  }
  param {
    lr_mult: 2
    decay_mult: 0
  }
  convolution_param {
    num_output: 160
    kernel_size: 1
    weight_filler {
      type: "xavier"
      std: 0.09
    }
    bias_filler {
      type: "constant"
      value: 0.2
    }
  }
}
layer {
  name: "inception_4e/relu_3x3_reduce"
  type: "ReLU"
  bottom: "inception_4e/3x3_reduce"
  top: "inception_4e/3x3_reduce"
}
layer {
  name: "inception_4e/3x3"
  type: "Convolution"
  bottom: "inception_4e/3x3_reduce"
  top: "inception_4e/3x3"
  param {
    lr_mult: 1
    decay_mult: 1
  }
  param {
    lr_mult: 2
    decay_mult: 0
  }
  convolution_param {
    num_output: 320
    pad: 1
    kernel_size: 3
    weight_filler {
      type: "xavier"
      std: 0.03
    }
    bias_filler {
      type: "constant"
      value: 0.2
    }
  }
}
layer {
  name: "inception_4e/relu_3x3"
  type: "ReLU"
  bottom: "inception_4e/3x3"
  top: "inception_4e/3x3"
}
layer {
  name: "inception_4e/5x5_reduce"
  type: "Convolution"
  bottom: "inception_4d/output"
  top: "inception_4e/5x5_reduce"
  param {
    lr_mult: 1
    decay_mult: 1
  }
  param {
    lr_mult: 2
    decay_mult: 0
  }
  convolution_param {
    num_output: 32
    kernel_size: 1
    weight_filler {
      type: "xavier"
      std: 0.2
    }
    bias_filler {
      type: "constant"
      value: 0.2
    }
  }
}
layer {
  name: "inception_4e/relu_5x5_reduce"
  type: "ReLU"
  bottom: "inception_4e/5x5_reduce"
  top: "inception_4e/5x5_reduce"
}
layer {
  name: "inception_4e/5x5"
  type: "Convolution"
  bottom: "inception_4e/5x5_reduce"
  top: "inception_4e/5x5"
  param {
    lr_mult: 1
    decay_mult: 1
  }
  param {
    lr_mult: 2
    decay_mult: 0
  }
  convolution_param {
    num_output: 128
    pad: 2
    kernel_size: 5
    weight_filler {
      type: "xavier"
      std: 0.03
    }
    bias_filler {
      type: "constant"
      value: 0.2
    }
  }
}
layer {
  name: "inception_4e/relu_5x5"
  type: "ReLU"
  bottom: "inception_4e/5x5"
  top: "inception_4e/5x5"
}
layer {
  name: "inception_4e/pool"
  type: "Pooling"
  bottom: "inception_4d/output"
  top: "inception_4e/pool"
  pooling_param {
    pool: MAX
    kernel_size: 3
    stride: 1
    pad: 1
  }
}
layer {
  name: "inception_4e/pool_proj"
  type: "Convolution"
  bottom: "inception_4e/pool"
  top: "inception_4e/pool_proj"
  param {
    lr_mult: 1
    decay_mult: 1
  }
  param {
    lr_mult: 2
    decay_mult: 0
  }
  convolution_param {
    num_output: 128
    kernel_size: 1
    weight_filler {
      type: "xavier"
      std: 0.1
    }
    bias_filler {
      type: "constant"
      value: 0.2
    }
  }
}
layer {
  name: "inception_4e/relu_pool_proj"
  type: "ReLU"
  bottom: "inception_4e/pool_proj"
  top: "inception_4e/pool_proj"
}
layer {
  name: "inception_4e/output"
  type: "Concat"
  bottom: "inception_4e/1x1"
  bottom: "inception_4e/3x3"
  bottom: "inception_4e/5x5"
  bottom: "inception_4e/pool_proj"
  top: "inception_4e/output"
}
layer {
  name: "pool4/3x3_s2"
  type: "Pooling"
  bottom: "inception_4e/output"
  top: "pool4/3x3_s2"
  pooling_param {
    pool: MAX
    kernel_size: 3
    stride: 2
  }
}
layer {
  name: "inception_5a/1x1"
  type: "Convolution"
  bottom: "pool4/3x3_s2"
  top: "inception_5a/1x1"
  param {
    lr_mult: 1
    decay_mult: 1
  }
  param {
    lr_mult: 2
    decay_mult: 0
  }
  convolution_param {
    num_output: 256
    kernel_size: 1
    weight_filler {
      type: "xavier"
      std: 0.03
    }
    bias_filler {
      type: "constant"
      value: 0.2
    }
  }
}
layer {
  name: "inception_5a/relu_1x1"
  type: "ReLU"
  bottom: "inception_5a/1x1"
  top: "inception_5a/1x1"
}
layer {
  name: "inception_5a/3x3_reduce"
  type: "Convolution"
  bottom: "pool4/3x3_s2"
  top: "inception_5a/3x3_reduce"
  param {
    lr_mult: 1
    decay_mult: 1
  }
  param {
    lr_mult: 2
    decay_mult: 0
  }
  convolution_param {
    num_output: 160
    kernel_size: 1
    weight_filler {
      type: "xavier"
      std: 0.09
    }
    bias_filler {
      type: "constant"
      value: 0.2
    }
  }
}
layer {
  name: "inception_5a/relu_3x3_reduce"
  type: "ReLU"
  bottom: "inception_5a/3x3_reduce"
  top: "inception_5a/3x3_reduce"
}
layer {
  name: "inception_5a/3x3"
  type: "Convolution"
  bottom: "inception_5a/3x3_reduce"
  top: "inception_5a/3x3"
  param {
    lr_mult: 1
    decay_mult: 1
  }
  param {
    lr_mult: 2
    decay_mult: 0
  }
  convolution_param {
    num_output: 320
    pad: 1
    kernel_size: 3
    weight_filler {
      type: "xavier"
      std: 0.03
    }
    bias_filler {
      type: "constant"
      value: 0.2
    }
  }
}
layer {
  name: "inception_5a/relu_3x3"
  type: "ReLU"
  bottom: "inception_5a/3x3"
  top: "inception_5a/3x3"
}
layer {
  name: "inception_5a/5x5_reduce"
  type: "Convolution"
  bottom: "pool4/3x3_s2"
  top: "inception_5a/5x5_reduce"
  param {
    lr_mult: 1
    decay_mult: 1
  }
  param {
    lr_mult: 2
    decay_mult: 0
  }
  convolution_param {
    num_output: 32
    kernel_size: 1
    weight_filler {
      type: "xavier"
      std: 0.2
    }
    bias_filler {
      type: "constant"
      value: 0.2
    }
I0714 21:19:37.058343 23888 layer_factory.hpp:77] Creating layer data
I0714 21:19:37.058364 23888 net.cpp:91] Creating Layer data
I0714 21:19:37.058372 23888 net.cpp:399] data -> data
I0714 21:19:38.152622 23892 net.cpp:141] Setting up data
I0714 21:19:38.152729 23892 net.cpp:148] Top shape: 10 3 224 224 (1505280)
I0714 21:19:38.152737 23892 net.cpp:156] Memory required for data: 6021120
I0714 21:19:38.152765 23892 layer_factory.hpp:77] Creating layer conv1/7x7_s2
I0714 21:19:38.152812 23892 net.cpp:91] Creating Layer conv1/7x7_s2
I0714 21:19:38.152822 23892 net.cpp:425] conv1/7x7_s2 <- data
I0714 21:19:38.152839 23892 net.cpp:399] conv1/7x7_s2 -> conv1/7x7_s2
I0714 21:19:38.167894 23888 net.cpp:141] Setting up data
I0714 21:19:38.167942 23888 net.cpp:148] Top shape: 10 3 224 224 (1505280)
I0714 21:19:38.167948 23888 net.cpp:156] Memory required for data: 6021120
I0714 21:19:38.167959 23888 layer_factory.hpp:77] Creating layer conv1/7x7_s2
I0714 21:19:38.167989 23888 net.cpp:91] Creating Layer conv1/7x7_s2
I0714 21:19:38.167997 23888 net.cpp:425] conv1/7x7_s2 <- data
I0714 21:19:38.168009 23888 net.cpp:399] conv1/7x7_s2 -> conv1/7x7_s2
I0714 21:19:38.600128 23892 net.cpp:141] Setting up conv1/7x7_s2
I0714 21:19:38.600188 23892 net.cpp:148] Top shape: 10 64 112 112 (8028160)
I0714 21:19:38.600195 23892 net.cpp:156] Memory required for data: 38133760
I0714 21:19:38.600229 23892 layer_factory.hpp:77] Creating layer conv1/relu_7x7
I0714 21:19:38.600250 23892 net.cpp:91] Creating Layer conv1/relu_7x7
I0714 21:19:38.600260 23892 net.cpp:425] conv1/relu_7x7 <- conv1/7x7_s2
I0714 21:19:38.600270 23892 net.cpp:386] conv1/relu_7x7 -> conv1/7x7_s2 (in-place)
I0714 21:19:38.601322 23892 net.cpp:141] Setting up conv1/relu_7x7
I0714 21:19:38.601344 23892 net.cpp:148] Top shape: 10 64 112 112 (8028160)
I0714 21:19:38.601351 23892 net.cpp:156] Memory required for data: 70246400
I0714 21:19:38.601356 23892 layer_factory.hpp:77] Creating layer pool1/3x3_s2
I0714 21:19:38.601372 23892 net.cpp:91] Creating Layer pool1/3x3_s2
I0714 21:19:38.601378 23892 net.cpp:425] pool1/3x3_s2 <- conv1/7x7_s2
I0714 21:19:38.601388 23892 net.cpp:399] pool1/3x3_s2 -> pool1/3x3_s2
I0714 21:19:38.606041 23892 net.cpp:141] Setting up pool1/3x3_s2
I0714 21:19:38.606083 23892 net.cpp:148] Top shape: 10 64 56 56 (2007040)
I0714 21:19:38.606091 23892 net.cpp:156] Memory required for data: 78274560
I0714 21:19:38.606099 23892 layer_factory.hpp:77] Creating layer pool1/norm1
I0714 21:19:38.606132 23892 net.cpp:91] Creating Layer pool1/norm1
I0714 21:19:38.606139 23892 net.cpp:425] pool1/norm1 <- pool1/3x3_s2
I0714 21:19:38.606150 23892 net.cpp:399] pool1/norm1 -> pool1/norm1
I0714 21:19:38.608669 23892 net.cpp:141] Setting up pool1/norm1
I0714 21:19:38.608707 23892 net.cpp:148] Top shape: 10 64 56 56 (2007040)
I0714 21:19:38.608716 23892 net.cpp:156] Memory required for data: 86302720
I0714 21:19:38.608723 23892 layer_factory.hpp:77] Creating layer conv2/3x3_reduce
I0714 21:19:38.608760 23892 net.cpp:91] Creating Layer conv2/3x3_reduce
I0714 21:19:38.608767 23892 net.cpp:425] conv2/3x3_reduce <- pool1/norm1
I0714 21:19:38.608780 23892 net.cpp:399] conv2/3x3_reduce -> conv2/3x3_reduce
I0714 21:19:38.615991 23888 net.cpp:141] Setting up conv1/7x7_s2
I0714 21:19:38.616051 23888 net.cpp:148] Top shape: 10 64 112 112 (8028160)
I0714 21:19:38.616060 23888 net.cpp:156] Memory required for data: 38133760
I0714 21:19:38.616088 23888 layer_factory.hpp:77] Creating layer conv1/relu_7x7
I0714 21:19:38.616112 23888 net.cpp:91] Creating Layer conv1/relu_7x7
I0714 21:19:38.616120 23888 net.cpp:425] conv1/relu_7x7 <- conv1/7x7_s2
I0714 21:19:38.616132 23888 net.cpp:386] conv1/relu_7x7 -> conv1/7x7_s2 (in-place)
I0714 21:19:38.617159 23888 net.cpp:141] Setting up conv1/relu_7x7
I0714 21:19:38.617179 23888 net.cpp:148] Top shape: 10 64 112 112 (8028160)
I0714 21:19:38.617185 23888 net.cpp:156] Memory required for data: 70246400
I0714 21:19:38.617193 23888 layer_factory.hpp:77] Creating layer pool1/3x3_s2
I0714 21:19:38.617208 23888 net.cpp:91] Creating Layer pool1/3x3_s2
I0714 21:19:38.617214 23888 net.cpp:425] pool1/3x3_s2 <- conv1/7x7_s2
I0714 21:19:38.617223 23888 net.cpp:399] pool1/3x3_s2 -> pool1/3x3_s2
I0714 21:19:38.617615 23888 net.cpp:141] Setting up pool1/3x3_s2
I0714 21:19:38.617630 23888 net.cpp:148] Top shape: 10 64 56 56 (2007040)
I0714 21:19:38.617635 23888 net.cpp:156] Memory required for data: 78274560
I0714 21:19:38.617648 23888 layer_factory.hpp:77] Creating layer pool1/norm1
I0714 21:19:38.617663 23888 net.cpp:91] Creating Layer pool1/norm1
I0714 21:19:38.617669 23888 net.cpp:425] pool1/norm1 <- pool1/3x3_s2
I0714 21:19:38.617681 23888 net.cpp:399] pool1/norm1 -> pool1/norm1
I0714 21:19:38.618983 23888 net.cpp:141] Setting up pool1/norm1
I0714 21:19:38.619004 23888 net.cpp:148] Top shape: 10 64 56 56 (2007040)
I0714 21:19:38.619010 23888 net.cpp:156] Memory required for data: 86302720
I0714 21:19:38.619016 23888 layer_factory.hpp:77] Creating layer conv2/3x3_reduce
I0714 21:19:38.619043 23888 net.cpp:91] Creating Layer conv2/3x3_reduce
I0714 21:19:38.619050 23888 net.cpp:425] conv2/3x3_reduce <- pool1/norm1
I0714 21:19:38.619047 23892 net.cpp:141] Setting up conv2/3x3_reduce
I0714 21:19:38.619060 23888 net.cpp:399] conv2/3x3_reduce -> conv2/3x3_reduce
I0714 21:19:38.619071 23892 net.cpp:148] Top shape: 10 64 56 56 (2007040)
I0714 21:19:38.619076 23892 net.cpp:156] Memory required for data: 94330880
I0714 21:19:38.619093 23892 layer_factory.hpp:77] Creating layer conv2/relu_3x3_reduce
I0714 21:19:38.619104 23892 net.cpp:91] Creating Layer conv2/relu_3x3_reduce
I0714 21:19:38.619112 23892 net.cpp:425] conv2/relu_3x3_reduce <- conv2/3x3_reduce
I0714 21:19:38.619119 23892 net.cpp:386] conv2/relu_3x3_reduce -> conv2/3x3_reduce (in-place)
I0714 21:19:38.620178 23892 net.cpp:141] Setting up conv2/relu_3x3_reduce
I0714 21:19:38.620198 23892 net.cpp:148] Top shape: 10 64 56 56 (2007040)
I0714 21:19:38.620203 23892 net.cpp:156] Memory required for data: 102359040
I0714 21:19:38.620209 23892 layer_factory.hpp:77] Creating layer conv2/3x3
I0714 21:19:38.620226 23892 net.cpp:91] Creating Layer conv2/3x3
I0714 21:19:38.620232 23892 net.cpp:425] conv2/3x3 <- conv2/3x3_reduce
I0714 21:19:38.620244 23892 net.cpp:399] conv2/3x3 -> conv2/3x3
I0714 21:19:38.624899 23888 net.cpp:141] Setting up conv2/3x3_reduce
I0714 21:19:38.624923 23888 net.cpp:148] Top shape: 10 64 56 56 (2007040)
I0714 21:19:38.624930 23888 net.cpp:156] Memory required for data: 94330880
I0714 21:19:38.624945 23888 layer_factory.hpp:77] Creating layer conv2/relu_3x3_reduce
I0714 21:19:38.624958 23888 net.cpp:91] Creating Layer conv2/relu_3x3_reduce
I0714 21:19:38.624963 23888 net.cpp:425] conv2/relu_3x3_reduce <- conv2/3x3_reduce
I0714 21:19:38.624971 23888 net.cpp:386] conv2/relu_3x3_reduce -> conv2/3x3_reduce (in-place)
I0714 21:19:38.625864 23888 net.cpp:141] Setting up conv2/relu_3x3_reduce
I0714 21:19:38.625882 23888 net.cpp:148] Top shape: 10 64 56 56 (2007040)
I0714 21:19:38.625887 23888 net.cpp:156] Memory required for data: 102359040
I0714 21:19:38.625897 23888 layer_factory.hpp:77] Creating layer conv2/3x3
I0714 21:19:38.625916 23888 net.cpp:91] Creating Layer conv2/3x3
I0714 21:19:38.625923 23888 net.cpp:425] conv2/3x3 <- conv2/3x3_reduce
I0714 21:19:38.625933 23888 net.cpp:399] conv2/3x3 -> conv2/3x3
I0714 21:19:38.630018 23892 net.cpp:141] Setting up conv2/3x3
I0714 21:19:38.630044 23892 net.cpp:148] Top shape: 10 192 56 56 (6021120)
I0714 21:19:38.630050 23892 net.cpp:156] Memory required for data: 126443520
I0714 21:19:38.630066 23892 layer_factory.hpp:77] Creating layer conv2/relu_3x3
I0714 21:19:38.630079 23892 net.cpp:91] Creating Layer conv2/relu_3x3
I0714 21:19:38.630085 23892 net.cpp:425] conv2/relu_3x3 <- conv2/3x3
I0714 21:19:38.630095 23892 net.cpp:386] conv2/relu_3x3 -> conv2/3x3 (in-place)
I0714 21:19:38.630471 23892 net.cpp:141] Setting up conv2/relu_3x3
I0714 21:19:38.630486 23892 net.cpp:148] Top shape: 10 192 56 56 (6021120)
I0714 21:19:38.630491 23892 net.cpp:156] Memory required for data: 150528000
I0714 21:19:38.630497 23892 layer_factory.hpp:77] Creating layer conv2/norm2
I0714 21:19:38.630509 23892 net.cpp:91] Creating Layer conv2/norm2
I0714 21:19:38.630516 23892 net.cpp:425] conv2/norm2 <- conv2/3x3
I0714 21:19:38.630523 23892 net.cpp:399] conv2/norm2 -> conv2/norm2
I0714 21:19:38.632091 23892 net.cpp:141] Setting up conv2/norm2
I0714 21:19:38.632114 23892 net.cpp:148] Top shape: 10 192 56 56 (6021120)
I0714 21:19:38.632122 23892 net.cpp:156] Memory required for data: 174612480
I0714 21:19:38.632128 23892 layer_factory.hpp:77] Creating layer pool2/3x3_s2
I0714 21:19:38.632139 23892 net.cpp:91] Creating Layer pool2/3x3_s2
I0714 21:19:38.632145 23892 net.cpp:425] pool2/3x3_s2 <- conv2/norm2
I0714 21:19:38.632155 23892 net.cpp:399] pool2/3x3_s2 -> pool2/3x3_s2
I0714 21:19:38.632942 23892 net.cpp:141] Setting up pool2/3x3_s2
I0714 21:19:38.632957 23892 net.cpp:148] Top shape: 10 192 28 28 (1505280)
I0714 21:19:38.632962 23892 net.cpp:156] Memory required for data: 180633600
I0714 21:19:38.632968 23892 layer_factory.hpp:77] Creating layer pool2/3x3_s2_pool2/3x3_s2_0_split
I0714 21:19:38.632992 23892 net.cpp:91] Creating Layer pool2/3x3_s2_pool2/3x3_s2_0_split
I0714 21:19:38.632998 23892 net.cpp:425] pool2/3x3_s2_pool2/3x3_s2_0_split <- pool2/3x3_s2
I0714 21:19:38.633008 23892 net.cpp:399] pool2/3x3_s2_pool2/3x3_s2_0_split -> pool2/3x3_s2_pool2/3x3_s2_0_split_0
I0714 21:19:38.633020 23892 net.cpp:399] pool2/3x3_s2_pool2/3x3_s2_0_split -> pool2/3x3_s2_pool2/3x3_s2_0_split_1
I0714 21:19:38.633030 23892 net.cpp:399] pool2/3x3_s2_pool2/3x3_s2_0_split -> pool2/3x3_s2_pool2/3x3_s2_0_split_2
I0714 21:19:38.633039 23892 net.cpp:399] pool2/3x3_s2_pool2/3x3_s2_0_split -> pool2/3x3_s2_pool2/3x3_s2_0_split_3
I0714 21:19:38.633345 23892 net.cpp:141] Setting up pool2/3x3_s2_pool2/3x3_s2_0_split
I0714 21:19:38.633359 23892 net.cpp:148] Top shape: 10 192 28 28 (1505280)
I0714 21:19:38.633366 23892 net.cpp:148] Top shape: 10 192 28 28 (1505280)
I0714 21:19:38.633371 23892 net.cpp:148] Top shape: 10 192 28 28 (1505280)
I0714 21:19:38.633378 23892 net.cpp:148] Top shape: 10 192 28 28 (1505280)
I0714 21:19:38.633383 23892 net.cpp:156] Memory required for data: 204718080
I0714 21:19:38.633388 23892 layer_factory.hpp:77] Creating layer inception_3a/1x1
I0714 21:19:38.633404 23892 net.cpp:91] Creating Layer inception_3a/1x1
I0714 21:19:38.633409 23892 net.cpp:425] inception_3a/1x1 <- pool2/3x3_s2_pool2/3x3_s2_0_split_0
I0714 21:19:38.633442 23892 net.cpp:399] inception_3a/1x1 -> inception_3a/1x1
I0714 21:19:38.634119 23888 net.cpp:141] Setting up conv2/3x3
I0714 21:19:38.634141 23888 net.cpp:148] Top shape: 10 192 56 56 (6021120)
I0714 21:19:38.634147 23888 net.cpp:156] Memory required for data: 126443520
I0714 21:19:38.634165 23888 layer_factory.hpp:77] Creating layer conv2/relu_3x3
I0714 21:19:38.634177 23888 net.cpp:91] Creating Layer conv2/relu_3x3
I0714 21:19:38.634183 23888 net.cpp:425] conv2/relu_3x3 <- conv2/3x3
I0714 21:19:38.634197 23888 net.cpp:386] conv2/relu_3x3 -> conv2/3x3 (in-place)
I0714 21:19:38.634601 23888 net.cpp:141] Setting up conv2/relu_3x3
I0714 21:19:38.634618 23888 net.cpp:148] Top shape: 10 192 56 56 (6021120)
I0714 21:19:38.634624 23888 net.cpp:156] Memory required for data: 150528000
I0714 21:19:38.634630 23888 layer_factory.hpp:77] Creating layer conv2/norm2
I0714 21:19:38.634642 23888 net.cpp:91] Creating Layer conv2/norm2
I0714 21:19:38.634649 23888 net.cpp:425] conv2/norm2 <- conv2/3x3
I0714 21:19:38.634657 23888 net.cpp:399] conv2/norm2 -> conv2/norm2
I0714 21:19:38.635851 23888 net.cpp:141] Setting up conv2/norm2
I0714 21:19:38.635869 23888 net.cpp:148] Top shape: 10 192 56 56 (6021120)
I0714 21:19:38.635874 23888 net.cpp:156] Memory required for data: 174612480
I0714 21:19:38.635879 23888 layer_factory.hpp:77] Creating layer pool2/3x3_s2
I0714 21:19:38.635891 23888 net.cpp:91] Creating Layer pool2/3x3_s2
I0714 21:19:38.635897 23888 net.cpp:425] pool2/3x3_s2 <- conv2/norm2
I0714 21:19:38.635910 23888 net.cpp:399] pool2/3x3_s2 -> pool2/3x3_s2
I0714 21:19:38.636802 23888 net.cpp:141] Setting up pool2/3x3_s2
I0714 21:19:38.636818 23888 net.cpp:148] Top shape: 10 192 28 28 (1505280)
I0714 21:19:38.636824 23888 net.cpp:156] Memory required for data: 180633600
I0714 21:19:38.636832 23888 layer_factory.hpp:77] Creating layer pool2/3x3_s2_pool2/3x3_s2_0_split
I0714 21:19:38.636845 23888 net.cpp:91] Creating Layer pool2/3x3_s2_pool2/3x3_s2_0_split
I0714 21:19:38.636852 23888 net.cpp:425] pool2/3x3_s2_pool2/3x3_s2_0_split <- pool2/3x3_s2
I0714 21:19:38.636860 23888 net.cpp:399] pool2/3x3_s2_pool2/3x3_s2_0_split -> pool2/3x3_s2_pool2/3x3_s2_0_split_0
I0714 21:19:38.636873 23888 net.cpp:399] pool2/3x3_s2_pool2/3x3_s2_0_split -> pool2/3x3_s2_pool2/3x3_s2_0_split_1
I0714 21:19:38.636883 23888 net.cpp:399] pool2/3x3_s2_pool2/3x3_s2_0_split -> pool2/3x3_s2_pool2/3x3_s2_0_split_2
I0714 21:19:38.636891 23888 net.cpp:399] pool2/3x3_s2_pool2/3x3_s2_0_split -> pool2/3x3_s2_pool2/3x3_s2_0_split_3
I0714 21:19:38.637840 23888 net.cpp:141] Setting up pool2/3x3_s2_pool2/3x3_s2_0_split
I0714 21:19:38.637857 23888 net.cpp:148] Top shape: 10 192 28 28 (1505280)
I0714 21:19:38.637864 23888 net.cpp:148] Top shape: 10 192 28 28 (1505280)
I0714 21:19:38.637871 23888 net.cpp:148] Top shape: 10 192 28 28 (1505280)
I0714 21:19:38.637876 23888 net.cpp:148] Top shape: 10 192 28 28 (1505280)
I0714 21:19:38.637881 23888 net.cpp:156] Memory required for data: 204718080
I0714 21:19:38.637887 23888 layer_factory.hpp:77] Creating layer inception_3a/1x1
I0714 21:19:38.637907 23888 net.cpp:91] Creating Layer inception_3a/1x1
I0714 21:19:38.637913 23888 net.cpp:425] inception_3a/1x1 <- pool2/3x3_s2_pool2/3x3_s2_0_split_0
I0714 21:19:38.637924 23888 net.cpp:399] inception_3a/1x1 -> inception_3a/1x1
I0714 21:19:38.640837 23892 net.cpp:141] Setting up inception_3a/1x1
I0714 21:19:38.640858 23892 net.cpp:148] Top shape: 10 64 28 28 (501760)
I0714 21:19:38.640864 23892 net.cpp:156] Memory required for data: 206725120
I0714 21:19:38.640877 23892 layer_factory.hpp:77] Creating layer inception_3a/relu_1x1
I0714 21:19:38.640890 23892 net.cpp:91] Creating Layer inception_3a/relu_1x1
I0714 21:19:38.640897 23892 net.cpp:425] inception_3a/relu_1x1 <- inception_3a/1x1
I0714 21:19:38.640905 23892 net.cpp:386] inception_3a/relu_1x1 -> inception_3a/1x1 (in-place)
I0714 21:19:38.641247 23892 net.cpp:141] Setting up inception_3a/relu_1x1
I0714 21:19:38.641259 23892 net.cpp:148] Top shape: 10 64 28 28 (501760)
I0714 21:19:38.641264 23892 net.cpp:156] Memory required for data: 208732160
I0714 21:19:38.641270 23892 layer_factory.hpp:77] Creating layer inception_3a/3x3_reduce
I0714 21:19:38.641288 23892 net.cpp:91] Creating Layer inception_3a/3x3_reduce
I0714 21:19:38.641294 23892 net.cpp:425] inception_3a/3x3_reduce <- pool2/3x3_s2_pool2/3x3_s2_0_split_1
I0714 21:19:38.641306 23892 net.cpp:399] inception_3a/3x3_reduce -> inception_3a/3x3_reduce
I0714 21:19:38.648645 23888 net.cpp:141] Setting up inception_3a/1x1
I0714 21:19:38.648675 23888 net.cpp:148] Top shape: 10 64 28 28 (501760)
I0714 21:19:38.648682 23888 net.cpp:156] Memory required for data: 206725120
I0714 21:19:38.648694 23888 layer_factory.hpp:77] Creating layer inception_3a/relu_1x1
I0714 21:19:38.648706 23888 net.cpp:91] Creating Layer inception_3a/relu_1x1
I0714 21:19:38.648712 23888 net.cpp:425] inception_3a/relu_1x1 <- inception_3a/1x1
I0714 21:19:38.648721 23888 net.cpp:386] inception_3a/relu_1x1 -> inception_3a/1x1 (in-place)
I0714 21:19:38.649020 23888 net.cpp:141] Setting up inception_3a/relu_1x1
I0714 21:19:38.649034 23888 net.cpp:148] Top shape: 10 64 28 28 (501760)
I0714 21:19:38.649039 23888 net.cpp:156] Memory required for data: 208732160
I0714 21:19:38.649052 23888 layer_factory.hpp:77] Creating layer inception_3a/3x3_reduce
I0714 21:19:38.649075 23888 net.cpp:91] Creating Layer inception_3a/3x3_reduce
I0714 21:19:38.649081 23888 net.cpp:425] inception_3a/3x3_reduce <- pool2/3x3_s2_pool2/3x3_s2_0_split_1
I0714 21:19:38.649096 23888 net.cpp:399] inception_3a/3x3_reduce -> inception_3a/3x3_reduce
I0714 21:19:38.651864 23892 net.cpp:141] Setting up inception_3a/3x3_reduce
I0714 21:19:38.651899 23892 net.cpp:148] Top shape: 10 96 28 28 (752640)
I0714 21:19:38.651906 23892 net.cpp:156] Memory required for data: 211742720
I0714 21:19:38.651922 23892 layer_factory.hpp:77] Creating layer inception_3a/relu_3x3_reduce
I0714 21:19:38.651933 23892 net.cpp:91] Creating Layer inception_3a/relu_3x3_reduce
I0714 21:19:38.651940 23892 net.cpp:425] inception_3a/relu_3x3_reduce <- inception_3a/3x3_reduce
I0714 21:19:38.651953 23892 net.cpp:386] inception_3a/relu_3x3_reduce -> inception_3a/3x3_reduce (in-place)
I0714 21:19:38.652343 23892 net.cpp:141] Setting up inception_3a/relu_3x3_reduce
I0714 21:19:38.652357 23892 net.cpp:148] Top shape: 10 96 28 28 (752640)
I0714 21:19:38.652362 23892 net.cpp:156] Memory required for data: 214753280
I0714 21:19:38.652367 23892 layer_factory.hpp:77] Creating layer inception_3a/3x3
I0714 21:19:38.652395 23892 net.cpp:91] Creating Layer inception_3a/3x3
I0714 21:19:38.652401 23892 net.cpp:425] inception_3a/3x3 <- inception_3a/3x3_reduce
I0714 21:19:38.652415 23892 net.cpp:399] inception_3a/3x3 -> inception_3a/3x3
I0714 21:19:38.654960 23888 net.cpp:141] Setting up inception_3a/3x3_reduce
I0714 21:19:38.654983 23888 net.cpp:148] Top shape: 10 96 28 28 (752640)
I0714 21:19:38.654989 23888 net.cpp:156] Memory required for data: 211742720
I0714 21:19:38.655016 23888 layer_factory.hpp:77] Creating layer inception_3a/relu_3x3_reduce
I0714 21:19:38.655030 23888 net.cpp:91] Creating Layer inception_3a/relu_3x3_reduce
I0714 21:19:38.655037 23888 net.cpp:425] inception_3a/relu_3x3_reduce <- inception_3a/3x3_reduce
I0714 21:19:38.655045 23888 net.cpp:386] inception_3a/relu_3x3_reduce -> inception_3a/3x3_reduce (in-place)
I0714 21:19:38.655320 23888 net.cpp:141] Setting up inception_3a/relu_3x3_reduce
I0714 21:19:38.655333 23888 net.cpp:148] Top shape: 10 96 28 28 (752640)
I0714 21:19:38.655339 23888 net.cpp:156] Memory required for data: 214753280
I0714 21:19:38.655344 23888 layer_factory.hpp:77] Creating layer inception_3a/3x3
I0714 21:19:38.655370 23888 net.cpp:91] Creating Layer inception_3a/3x3
I0714 21:19:38.655377 23888 net.cpp:425] inception_3a/3x3 <- inception_3a/3x3_reduce
I0714 21:19:38.655390 23888 net.cpp:399] inception_3a/3x3 -> inception_3a/3x3
I0714 21:19:38.657481 23892 net.cpp:141] Setting up inception_3a/3x3
I0714 21:19:38.657507 23892 net.cpp:148] Top shape: 10 128 28 28 (1003520)
I0714 21:19:38.657515 23892 net.cpp:156] Memory required for data: 218767360
I0714 21:19:38.657524 23892 layer_factory.hpp:77] Creating layer inception_3a/relu_3x3
I0714 21:19:38.657534 23892 net.cpp:91] Creating Layer inception_3a/relu_3x3
I0714 21:19:38.657541 23892 net.cpp:425] inception_3a/relu_3x3 <- inception_3a/3x3
I0714 21:19:38.657549 23892 net.cpp:386] inception_3a/relu_3x3 -> inception_3a/3x3 (in-place)
I0714 21:19:38.658452 23892 net.cpp:141] Setting up inception_3a/relu_3x3
I0714 21:19:38.658470 23892 net.cpp:148] Top shape: 10 128 28 28 (1003520)
I0714 21:19:38.658476 23892 net.cpp:156] Memory required for data: 222781440
I0714 21:19:38.658483 23892 layer_factory.hpp:77] Creating layer inception_3a/5x5_reduce
I0714 21:19:38.658500 23892 net.cpp:91] Creating Layer inception_3a/5x5_reduce
I0714 21:19:38.658507 23892 net.cpp:425] inception_3a/5x5_reduce <- pool2/3x3_s2_pool2/3x3_s2_0_split_2
I0714 21:19:38.658519 23892 net.cpp:399] inception_3a/5x5_reduce -> inception_3a/5x5_reduce
I0714 21:19:38.662080 23888 net.cpp:141] Setting up inception_3a/3x3
I0714 21:19:38.662099 23888 net.cpp:148] Top shape: 10 128 28 28 (1003520)
I0714 21:19:38.662104 23888 net.cpp:156] Memory required for data: 218767360
I0714 21:19:38.662117 23888 layer_factory.hpp:77] Creating layer inception_3a/relu_3x3
I0714 21:19:38.662132 23888 net.cpp:91] Creating Layer inception_3a/relu_3x3
I0714 21:19:38.662139 23888 net.cpp:425] inception_3a/relu_3x3 <- inception_3a/3x3
I0714 21:19:38.662148 23888 net.cpp:386] inception_3a/relu_3x3 -> inception_3a/3x3 (in-place)
I0714 21:19:38.663130 23888 net.cpp:141] Setting up inception_3a/relu_3x3
I0714 21:19:38.663148 23888 net.cpp:148] Top shape: 10 128 28 28 (1003520)
I0714 21:19:38.663153 23888 net.cpp:156] Memory required for data: 222781440
I0714 21:19:38.663161 23888 layer_factory.hpp:77] Creating layer inception_3a/5x5_reduce
I0714 21:19:38.663182 23888 net.cpp:91] Creating Layer inception_3a/5x5_reduce
I0714 21:19:38.663189 23888 net.cpp:425] inception_3a/5x5_reduce <- pool2/3x3_s2_pool2/3x3_s2_0_split_2
I0714 21:19:38.663200 23888 net.cpp:399] inception_3a/5x5_reduce -> inception_3a/5x5_reduce
I0714 21:19:38.664189 23892 net.cpp:141] Setting up inception_3a/5x5_reduce
I0714 21:19:38.664209 23892 net.cpp:148] Top shape: 10 16 28 28 (125440)
I0714 21:19:38.664216 23892 net.cpp:156] Memory required for data: 223283200
I0714 21:19:38.664225 23892 layer_factory.hpp:77] Creating layer inception_3a/relu_5x5_reduce
I0714 21:19:38.664235 23892 net.cpp:91] Creating Layer inception_3a/relu_5x5_reduce
I0714 21:19:38.664242 23892 net.cpp:425] inception_3a/relu_5x5_reduce <- inception_3a/5x5_reduce
I0714 21:19:38.664252 23892 net.cpp:386] inception_3a/relu_5x5_reduce -> inception_3a/5x5_reduce (in-place)
I0714 21:19:38.664635 23892 net.cpp:141] Setting up inception_3a/relu_5x5_reduce
I0714 21:19:38.664649 23892 net.cpp:148] Top shape: 10 16 28 28 (125440)
I0714 21:19:38.664654 23892 net.cpp:156] Memory required for data: 223784960
I0714 21:19:38.664659 23892 layer_factory.hpp:77] Creating layer inception_3a/5x5
I0714 21:19:38.664677 23892 net.cpp:91] Creating Layer inception_3a/5x5
I0714 21:19:38.664685 23892 net.cpp:425] inception_3a/5x5 <- inception_3a/5x5_reduce
I0714 21:19:38.664698 23892 net.cpp:399] inception_3a/5x5 -> inception_3a/5x5
I0714 21:19:38.667693 23888 net.cpp:141] Setting up inception_3a/5x5_reduce
I0714 21:19:38.667718 23888 net.cpp:148] Top shape: 10 16 28 28 (125440)
I0714 21:19:38.667724 23888 net.cpp:156] Memory required for data: 223283200
I0714 21:19:38.667734 23888 layer_factory.hpp:77] Creating layer inception_3a/relu_5x5_reduce
I0714 21:19:38.667745 23888 net.cpp:91] Creating Layer inception_3a/relu_5x5_reduce
I0714 21:19:38.667752 23888 net.cpp:425] inception_3a/relu_5x5_reduce <- inception_3a/5x5_reduce
I0714 21:19:38.667762 23888 net.cpp:386] inception_3a/relu_5x5_reduce -> inception_3a/5x5_reduce (in-place)
I0714 21:19:38.668041 23888 net.cpp:141] Setting up inception_3a/relu_5x5_reduce
I0714 21:19:38.668054 23888 net.cpp:148] Top shape: 10 16 28 28 (125440)
I0714 21:19:38.668059 23888 net.cpp:156] Memory required for data: 223784960
I0714 21:19:38.668066 23888 layer_factory.hpp:77] Creating layer inception_3a/5x5
I0714 21:19:38.668087 23888 net.cpp:91] Creating Layer inception_3a/5x5
I0714 21:19:38.668094 23888 net.cpp:425] inception_3a/5x5 <- inception_3a/5x5_reduce
I0714 21:19:38.668104 23888 net.cpp:399] inception_3a/5x5 -> inception_3a/5x5
I0714 21:19:38.672467 23892 net.cpp:141] Setting up inception_3a/5x5
I0714 21:19:38.672488 23892 net.cpp:148] Top shape: 10 32 28 28 (250880)
I0714 21:19:38.672494 23892 net.cpp:156] Memory required for data: 224788480
I0714 21:19:38.672504 23892 layer_factory.hpp:77] Creating layer inception_3a/relu_5x5
I0714 21:19:38.672514 23892 net.cpp:91] Creating Layer inception_3a/relu_5x5
I0714 21:19:38.672520 23892 net.cpp:425] inception_3a/relu_5x5 <- inception_3a/5x5
I0714 21:19:38.672531 23892 net.cpp:386] inception_3a/relu_5x5 -> inception_3a/5x5 (in-place)
I0714 21:19:38.672812 23892 net.cpp:141] Setting up inception_3a/relu_5x5
I0714 21:19:38.672830 23892 net.cpp:148] Top shape: 10 32 28 28 (250880)
I0714 21:19:38.672835 23892 net.cpp:156] Memory required for data: 225792000
I0714 21:19:38.672840 23892 layer_factory.hpp:77] Creating layer inception_3a/pool
I0714 21:19:38.672855 23892 net.cpp:91] Creating Layer inception_3a/pool
I0714 21:19:38.672861 23892 net.cpp:425] inception_3a/pool <- pool2/3x3_s2_pool2/3x3_s2_0_split_3
I0714 21:19:38.672870 23892 net.cpp:399] inception_3a/pool -> inception_3a/pool
I0714 21:19:38.673108 23892 net.cpp:141] Setting up inception_3a/pool
I0714 21:19:38.673121 23892 net.cpp:148] Top shape: 10 192 28 28 (1505280)
I0714 21:19:38.673126 23892 net.cpp:156] Memory required for data: 231813120
I0714 21:19:38.673131 23892 layer_factory.hpp:77] Creating layer inception_3a/pool_proj
I0714 21:19:38.673159 23892 net.cpp:91] Creating Layer inception_3a/pool_proj
I0714 21:19:38.673166 23892 net.cpp:425] inception_3a/pool_proj <- inception_3a/pool
I0714 21:19:38.673177 23892 net.cpp:399] inception_3a/pool_proj -> inception_3a/pool_proj
I0714 21:19:38.675894 23888 net.cpp:141] Setting up inception_3a/5x5
I0714 21:19:38.675916 23888 net.cpp:148] Top shape: 10 32 28 28 (250880)
I0714 21:19:38.675922 23888 net.cpp:156] Memory required for data: 224788480
I0714 21:19:38.675933 23888 layer_factory.hpp:77] Creating layer inception_3a/relu_5x5
I0714 21:19:38.675943 23888 net.cpp:91] Creating Layer inception_3a/relu_5x5
I0714 21:19:38.675951 23888 net.cpp:425] inception_3a/relu_5x5 <- inception_3a/5x5
I0714 21:19:38.675963 23888 net.cpp:386] inception_3a/relu_5x5 -> inception_3a/5x5 (in-place)
I0714 21:19:38.676350 23888 net.cpp:141] Setting up inception_3a/relu_5x5
I0714 21:19:38.676367 23888 net.cpp:148] Top shape: 10 32 28 28 (250880)
I0714 21:19:38.676372 23888 net.cpp:156] Memory required for data: 225792000
I0714 21:19:38.676379 23888 layer_factory.hpp:77] Creating layer inception_3a/pool
I0714 21:19:38.676398 23888 net.cpp:91] Creating Layer inception_3a/pool
I0714 21:19:38.676404 23888 net.cpp:425] inception_3a/pool <- pool2/3x3_s2_pool2/3x3_s2_0_split_3
I0714 21:19:38.676412 23888 net.cpp:399] inception_3a/pool -> inception_3a/pool
I0714 21:19:38.676990 23888 net.cpp:141] Setting up inception_3a/pool
I0714 21:19:38.677003 23888 net.cpp:148] Top shape: 10 192 28 28 (1505280)
I0714 21:19:38.677008 23888 net.cpp:156] Memory required for data: 231813120
I0714 21:19:38.677014 23888 layer_factory.hpp:77] Creating layer inception_3a/pool_proj
I0714 21:19:38.677040 23888 net.cpp:91] Creating Layer inception_3a/pool_proj
I0714 21:19:38.677047 23888 net.cpp:425] inception_3a/pool_proj <- inception_3a/pool
I0714 21:19:38.677062 23888 net.cpp:399] inception_3a/pool_proj -> inception_3a/pool_proj
I0714 21:19:38.678040 23892 net.cpp:141] Setting up inception_3a/pool_proj
I0714 21:19:38.678058 23892 net.cpp:148] Top shape: 10 32 28 28 (250880)
I0714 21:19:38.678064 23892 net.cpp:156] Memory required for data: 232816640
I0714 21:19:38.678081 23892 layer_factory.hpp:77] Creating layer inception_3a/relu_pool_proj
I0714 21:19:38.678094 23892 net.cpp:91] Creating Layer inception_3a/relu_pool_proj
I0714 21:19:38.678102 23892 net.cpp:425] inception_3a/relu_pool_proj <- inception_3a/pool_proj
I0714 21:19:38.678110 23892 net.cpp:386] inception_3a/relu_pool_proj -> inception_3a/pool_proj (in-place)
I0714 21:19:38.679363 23892 net.cpp:141] Setting up inception_3a/relu_pool_proj
I0714 21:19:38.679380 23892 net.cpp:148] Top shape: 10 32 28 28 (250880)
I0714 21:19:38.679386 23892 net.cpp:156] Memory required for data: 233820160
I0714 21:19:38.679392 23892 layer_factory.hpp:77] Creating layer inception_3a/output
I0714 21:19:38.679419 23892 net.cpp:91] Creating Layer inception_3a/output
I0714 21:19:38.679425 23892 net.cpp:425] inception_3a/output <- inception_3a/1x1
I0714 21:19:38.679432 23892 net.cpp:425] inception_3a/output <- inception_3a/3x3
I0714 21:19:38.679438 23892 net.cpp:425] inception_3a/output <- inception_3a/5x5
I0714 21:19:38.679445 23892 net.cpp:425] inception_3a/output <- inception_3a/pool_proj
I0714 21:19:38.679451 23892 net.cpp:399] inception_3a/output -> inception_3a/output
I0714 21:19:38.679775 23892 net.cpp:141] Setting up inception_3a/output
I0714 21:19:38.679788 23892 net.cpp:148] Top shape: 10 256 28 28 (2007040)
I0714 21:19:38.679792 23892 net.cpp:156] Memory required for data: 241848320
I0714 21:19:38.679798 23892 layer_factory.hpp:77] Creating layer inception_3a/output_inception_3a/output_0_split
I0714 21:19:38.679807 23892 net.cpp:91] Creating Layer inception_3a/output_inception_3a/output_0_split
I0714 21:19:38.679813 23892 net.cpp:425] inception_3a/output_inception_3a/output_0_split <- inception_3a/output
I0714 21:19:38.679823 23892 net.cpp:399] inception_3a/output_inception_3a/output_0_split -> inception_3a/output_inception_3a/output_0_split_0
I0714 21:19:38.679833 23892 net.cpp:399] inception_3a/output_inception_3a/output_0_split -> inception_3a/output_inception_3a/output_0_split_1
I0714 21:19:38.679843 23892 net.cpp:399] inception_3a/output_inception_3a/output_0_split -> inception_3a/output_inception_3a/output_0_split_2
I0714 21:19:38.679852 23892 net.cpp:399] inception_3a/output_inception_3a/output_0_split -> inception_3a/output_inception_3a/output_0_split_3
I0714 21:19:38.680272 23892 net.cpp:141] Setting up inception_3a/output_inception_3a/output_0_split
I0714 21:19:38.680284 23892 net.cpp:148] Top shape: 10 256 28 28 (2007040)
I0714 21:19:38.680291 23892 net.cpp:148] Top shape: 10 256 28 28 (2007040)
I0714 21:19:38.680296 23892 net.cpp:148] Top shape: 10 256 28 28 (2007040)
I0714 21:19:38.680302 23892 net.cpp:148] Top shape: 10 256 28 28 (2007040)
I0714 21:19:38.680306 23892 net.cpp:156] Memory required for data: 273960960
I0714 21:19:38.680311 23892 layer_factory.hpp:77] Creating layer inception_3b/1x1
I0714 21:19:38.680330 23892 net.cpp:91] Creating Layer inception_3b/1x1
I0714 21:19:38.680335 23892 net.cpp:425] inception_3b/1x1 <- inception_3a/output_inception_3a/output_0_split_0
I0714 21:19:38.680347 23892 net.cpp:399] inception_3b/1x1 -> inception_3b/1x1
I0714 21:19:38.680912 23888 net.cpp:141] Setting up inception_3a/pool_proj
I0714 21:19:38.680929 23888 net.cpp:148] Top shape: 10 32 28 28 (250880)
I0714 21:19:38.680934 23888 net.cpp:156] Memory required for data: 232816640
I0714 21:19:38.680953 23888 layer_factory.hpp:77] Creating layer inception_3a/relu_pool_proj
I0714 21:19:38.680963 23888 net.cpp:91] Creating Layer inception_3a/relu_pool_proj
I0714 21:19:38.680969 23888 net.cpp:425] inception_3a/relu_pool_proj <- inception_3a/pool_proj
I0714 21:19:38.680977 23888 net.cpp:386] inception_3a/relu_pool_proj -> inception_3a/pool_proj (in-place)
I0714 21:19:38.681893 23888 net.cpp:141] Setting up inception_3a/relu_pool_proj
I0714 21:19:38.681913 23888 net.cpp:148] Top shape: 10 32 28 28 (250880)
I0714 21:19:38.681918 23888 net.cpp:156] Memory required for data: 233820160
I0714 21:19:38.681926 23888 layer_factory.hpp:77] Creating layer inception_3a/output
I0714 21:19:38.681936 23888 net.cpp:91] Creating Layer inception_3a/output
I0714 21:19:38.681941 23888 net.cpp:425] inception_3a/output <- inception_3a/1x1
I0714 21:19:38.681948 23888 net.cpp:425] inception_3a/output <- inception_3a/3x3
I0714 21:19:38.681954 23888 net.cpp:425] inception_3a/output <- inception_3a/5x5
I0714 21:19:38.681960 23888 net.cpp:425] inception_3a/output <- inception_3a/pool_proj
I0714 21:19:38.681968 23888 net.cpp:399] inception_3a/output -> inception_3a/output
I0714 21:19:38.682071 23888 net.cpp:141] Setting up inception_3a/output
I0714 21:19:38.682083 23888 net.cpp:148] Top shape: 10 256 28 28 (2007040)
I0714 21:19:38.682088 23888 net.cpp:156] Memory required for data: 241848320
I0714 21:19:38.682096 23888 layer_factory.hpp:77] Creating layer inception_3a/output_inception_3a/output_0_split
I0714 21:19:38.682106 23888 net.cpp:91] Creating Layer inception_3a/output_inception_3a/output_0_split
I0714 21:19:38.682112 23888 net.cpp:425] inception_3a/output_inception_3a/output_0_split <- inception_3a/output
I0714 21:19:38.682123 23888 net.cpp:399] inception_3a/output_inception_3a/output_0_split -> inception_3a/output_inception_3a/output_0_split_0
I0714 21:19:38.682134 23888 net.cpp:399] inception_3a/output_inception_3a/output_0_split -> inception_3a/output_inception_3a/output_0_split_1
I0714 21:19:38.682144 23888 net.cpp:399] inception_3a/output_inception_3a/output_0_split -> inception_3a/output_inception_3a/output_0_split_2
I0714 21:19:38.682152 23888 net.cpp:399] inception_3a/output_inception_3a/output_0_split -> inception_3a/output_inception_3a/output_0_split_3
I0714 21:19:38.682590 23888 net.cpp:141] Setting up inception_3a/output_inception_3a/output_0_split
I0714 21:19:38.682603 23888 net.cpp:148] Top shape: 10 256 28 28 (2007040)
I0714 21:19:38.682610 23888 net.cpp:148] Top shape: 10 256 28 28 (2007040)
I0714 21:19:38.682615 23888 net.cpp:148] Top shape: 10 256 28 28 (2007040)
I0714 21:19:38.682621 23888 net.cpp:148] Top shape: 10 256 28 28 (2007040)
I0714 21:19:38.682626 23888 net.cpp:156] Memory required for data: 273960960
I0714 21:19:38.682631 23888 layer_factory.hpp:77] Creating layer inception_3b/1x1
I0714 21:19:38.682649 23888 net.cpp:91] Creating Layer inception_3b/1x1
I0714 21:19:38.682657 23888 net.cpp:425] inception_3b/1x1 <- inception_3a/output_inception_3a/output_0_split_0
I0714 21:19:38.682669 23888 net.cpp:399] inception_3b/1x1 -> inception_3b/1x1
I0714 21:19:38.684859 23892 net.cpp:141] Setting up inception_3b/1x1
I0714 21:19:38.684881 23892 net.cpp:148] Top shape: 10 128 28 28 (1003520)
I0714 21:19:38.684886 23892 net.cpp:156] Memory required for data: 277975040
I0714 21:19:38.684897 23892 layer_factory.hpp:77] Creating layer inception_3b/relu_1x1
I0714 21:19:38.684906 23892 net.cpp:91] Creating Layer inception_3b/relu_1x1
I0714 21:19:38.684913 23892 net.cpp:425] inception_3b/relu_1x1 <- inception_3b/1x1
I0714 21:19:38.684921 23892 net.cpp:386] inception_3b/relu_1x1 -> inception_3b/1x1 (in-place)
I0714 21:19:38.685292 23892 net.cpp:141] Setting up inception_3b/relu_1x1
I0714 21:19:38.685307 23892 net.cpp:148] Top shape: 10 128 28 28 (1003520)
I0714 21:19:38.685312 23892 net.cpp:156] Memory required for data: 281989120
I0714 21:19:38.685317 23892 layer_factory.hpp:77] Creating layer inception_3b/3x3_reduce
I0714 21:19:38.685333 23892 net.cpp:91] Creating Layer inception_3b/3x3_reduce
I0714 21:19:38.685339 23892 net.cpp:425] inception_3b/3x3_reduce <- inception_3a/output_inception_3a/output_0_split_1
I0714 21:19:38.685353 23892 net.cpp:399] inception_3b/3x3_reduce -> inception_3b/3x3_reduce
I0714 21:19:38.688665 23888 net.cpp:141] Setting up inception_3b/1x1
I0714 21:19:38.688685 23888 net.cpp:148] Top shape: 10 128 28 28 (1003520)
I0714 21:19:38.688691 23888 net.cpp:156] Memory required for data: 277975040
I0714 21:19:38.688701 23888 layer_factory.hpp:77] Creating layer inception_3b/relu_1x1
I0714 21:19:38.688716 23888 net.cpp:91] Creating Layer inception_3b/relu_1x1
I0714 21:19:38.688724 23888 net.cpp:425] inception_3b/relu_1x1 <- inception_3b/1x1
I0714 21:19:38.688735 23888 net.cpp:386] inception_3b/relu_1x1 -> inception_3b/1x1 (in-place)
I0714 21:19:38.689083 23888 net.cpp:141] Setting up inception_3b/relu_1x1
I0714 21:19:38.689097 23888 net.cpp:148] Top shape: 10 128 28 28 (1003520)
I0714 21:19:38.689102 23888 net.cpp:156] Memory required for data: 281989120
I0714 21:19:38.689107 23888 layer_factory.hpp:77] Creating layer inception_3b/3x3_reduce
I0714 21:19:38.689128 23888 net.cpp:91] Creating Layer inception_3b/3x3_reduce
I0714 21:19:38.689136 23888 net.cpp:425] inception_3b/3x3_reduce <- inception_3a/output_inception_3a/output_0_split_1
I0714 21:19:38.689151 23888 net.cpp:399] inception_3b/3x3_reduce -> inception_3b/3x3_reduce
I0714 21:19:38.690410 23892 net.cpp:141] Setting up inception_3b/3x3_reduce
I0714 21:19:38.690429 23892 net.cpp:148] Top shape: 10 128 28 28 (1003520)
I0714 21:19:38.690434 23892 net.cpp:156] Memory required for data: 286003200
I0714 21:19:38.690444 23892 layer_factory.hpp:77] Creating layer inception_3b/relu_3x3_reduce
I0714 21:19:38.690459 23892 net.cpp:91] Creating Layer inception_3b/relu_3x3_reduce
I0714 21:19:38.690466 23892 net.cpp:425] inception_3b/relu_3x3_reduce <- inception_3b/3x3_reduce
I0714 21:19:38.690474 23892 net.cpp:386] inception_3b/relu_3x3_reduce -> inception_3b/3x3_reduce (in-place)
I0714 21:19:38.690850 23892 net.cpp:141] Setting up inception_3b/relu_3x3_reduce
I0714 21:19:38.690865 23892 net.cpp:148] Top shape: 10 128 28 28 (1003520)
I0714 21:19:38.690870 23892 net.cpp:156] Memory required for data: 290017280
I0714 21:19:38.690876 23892 layer_factory.hpp:77] Creating layer inception_3b/3x3
I0714 21:19:38.690896 23892 net.cpp:91] Creating Layer inception_3b/3x3
I0714 21:19:38.690903 23892 net.cpp:425] inception_3b/3x3 <- inception_3b/3x3_reduce
I0714 21:19:38.690915 23892 net.cpp:399] inception_3b/3x3 -> inception_3b/3x3
I0714 21:19:38.695348 23888 net.cpp:141] Setting up inception_3b/3x3_reduce
I0714 21:19:38.695374 23888 net.cpp:148] Top shape: 10 128 28 28 (1003520)
I0714 21:19:38.695379 23888 net.cpp:156] Memory required for data: 286003200
I0714 21:19:38.695390 23888 layer_factory.hpp:77] Creating layer inception_3b/relu_3x3_reduce
I0714 21:19:38.695407 23888 net.cpp:91] Creating Layer inception_3b/relu_3x3_reduce
I0714 21:19:38.695415 23888 net.cpp:425] inception_3b/relu_3x3_reduce <- inception_3b/3x3_reduce
I0714 21:19:38.695423 23888 net.cpp:386] inception_3b/relu_3x3_reduce -> inception_3b/3x3_reduce (in-place)
I0714 21:19:38.695709 23888 net.cpp:141] Setting up inception_3b/relu_3x3_reduce
I0714 21:19:38.695722 23888 net.cpp:148] Top shape: 10 128 28 28 (1003520)
I0714 21:19:38.695726 23888 net.cpp:156] Memory required for data: 290017280
I0714 21:19:38.695732 23888 layer_factory.hpp:77] Creating layer inception_3b/3x3
I0714 21:19:38.695754 23888 net.cpp:91] Creating Layer inception_3b/3x3
I0714 21:19:38.695760 23888 net.cpp:425] inception_3b/3x3 <- inception_3b/3x3_reduce
I0714 21:19:38.695773 23888 net.cpp:399] inception_3b/3x3 -> inception_3b/3x3
I0714 21:19:38.702002 23892 net.cpp:141] Setting up inception_3b/3x3
I0714 21:19:38.702025 23892 net.cpp:148] Top shape: 10 192 28 28 (1505280)
I0714 21:19:38.702031 23892 net.cpp:156] Memory required for data: 296038400
I0714 21:19:38.702042 23892 layer_factory.hpp:77] Creating layer inception_3b/relu_3x3
I0714 21:19:38.702057 23892 net.cpp:91] Creating Layer inception_3b/relu_3x3
I0714 21:19:38.702064 23892 net.cpp:425] inception_3b/relu_3x3 <- inception_3b/3x3
I0714 21:19:38.702076 23892 net.cpp:386] inception_3b/relu_3x3 -> inception_3b/3x3 (in-place)
I0714 21:19:38.703207 23892 net.cpp:141] Setting up inception_3b/relu_3x3
I0714 21:19:38.703228 23892 net.cpp:148] Top shape: 10 192 28 28 (1505280)
I0714 21:19:38.703233 23892 net.cpp:156] Memory required for data: 302059520
I0714 21:19:38.703239 23892 layer_factory.hpp:77] Creating layer inception_3b/5x5_reduce
I0714 21:19:38.703258 23892 net.cpp:91] Creating Layer inception_3b/5x5_reduce
I0714 21:19:38.703265 23892 net.cpp:425] inception_3b/5x5_reduce <- inception_3a/output_inception_3a/output_0_split_2
I0714 21:19:38.703287 23892 net.cpp:399] inception_3b/5x5_reduce -> inception_3b/5x5_reduce
I0714 21:19:38.703346 23888 net.cpp:141] Setting up inception_3b/3x3
I0714 21:19:38.703362 23888 net.cpp:148] Top shape: 10 192 28 28 (1505280)
I0714 21:19:38.703368 23888 net.cpp:156] Memory required for data: 296038400
I0714 21:19:38.703378 23888 layer_factory.hpp:77] Creating layer inception_3b/relu_3x3
I0714 21:19:38.703397 23888 net.cpp:91] Creating Layer inception_3b/relu_3x3
I0714 21:19:38.703407 23888 net.cpp:425] inception_3b/relu_3x3 <- inception_3b/3x3
I0714 21:19:38.703419 23888 net.cpp:386] inception_3b/relu_3x3 -> inception_3b/3x3 (in-place)
I0714 21:19:38.704483 23888 net.cpp:141] Setting up inception_3b/relu_3x3
I0714 21:19:38.704500 23888 net.cpp:148] Top shape: 10 192 28 28 (1505280)
I0714 21:19:38.704505 23888 net.cpp:156] Memory required for data: 302059520
I0714 21:19:38.704514 23888 layer_factory.hpp:77] Creating layer inception_3b/5x5_reduce
I0714 21:19:38.704533 23888 net.cpp:91] Creating Layer inception_3b/5x5_reduce
I0714 21:19:38.704541 23888 net.cpp:425] inception_3b/5x5_reduce <- inception_3a/output_inception_3a/output_0_split_2
I0714 21:19:38.704556 23888 net.cpp:399] inception_3b/5x5_reduce -> inception_3b/5x5_reduce
I0714 21:19:38.709213 23892 net.cpp:141] Setting up inception_3b/5x5_reduce
I0714 21:19:38.709233 23892 net.cpp:148] Top shape: 10 32 28 28 (250880)
I0714 21:19:38.709239 23892 net.cpp:156] Memory required for data: 303063040
I0714 21:19:38.709249 23892 layer_factory.hpp:77] Creating layer inception_3b/relu_5x5_reduce
I0714 21:19:38.709259 23892 net.cpp:91] Creating Layer inception_3b/relu_5x5_reduce
I0714 21:19:38.709265 23892 net.cpp:425] inception_3b/relu_5x5_reduce <- inception_3b/5x5_reduce
I0714 21:19:38.709278 23892 net.cpp:386] inception_3b/relu_5x5_reduce -> inception_3b/5x5_reduce (in-place)
I0714 21:19:38.709702 23892 net.cpp:141] Setting up inception_3b/relu_5x5_reduce
I0714 21:19:38.709720 23892 net.cpp:148] Top shape: 10 32 28 28 (250880)
I0714 21:19:38.709728 23892 net.cpp:156] Memory required for data: 304066560
I0714 21:19:38.709733 23892 layer_factory.hpp:77] Creating layer inception_3b/5x5
I0714 21:19:38.709748 23892 net.cpp:91] Creating Layer inception_3b/5x5
I0714 21:19:38.709754 23892 net.cpp:425] inception_3b/5x5 <- inception_3b/5x5_reduce
I0714 21:19:38.709769 23892 net.cpp:399] inception_3b/5x5 -> inception_3b/5x5
I0714 21:19:38.709822 23888 net.cpp:141] Setting up inception_3b/5x5_reduce
I0714 21:19:38.709839 23888 net.cpp:148] Top shape: 10 32 28 28 (250880)
I0714 21:19:38.709844 23888 net.cpp:156] Memory required for data: 303063040
I0714 21:19:38.709854 23888 layer_factory.hpp:77] Creating layer inception_3b/relu_5x5_reduce
I0714 21:19:38.709864 23888 net.cpp:91] Creating Layer inception_3b/relu_5x5_reduce
I0714 21:19:38.709870 23888 net.cpp:425] inception_3b/relu_5x5_reduce <- inception_3b/5x5_reduce
I0714 21:19:38.709884 23888 net.cpp:386] inception_3b/relu_5x5_reduce -> inception_3b/5x5_reduce (in-place)
I0714 21:19:38.710281 23888 net.cpp:141] Setting up inception_3b/relu_5x5_reduce
I0714 21:19:38.710301 23888 net.cpp:148] Top shape: 10 32 28 28 (250880)
I0714 21:19:38.710310 23888 net.cpp:156] Memory required for data: 304066560
I0714 21:19:38.710316 23888 layer_factory.hpp:77] Creating layer inception_3b/5x5
I0714 21:19:38.710340 23888 net.cpp:91] Creating Layer inception_3b/5x5
I0714 21:19:38.710347 23888 net.cpp:425] inception_3b/5x5 <- inception_3b/5x5_reduce
I0714 21:19:38.710357 23888 net.cpp:399] inception_3b/5x5 -> inception_3b/5x5
I0714 21:19:38.718426 23892 net.cpp:141] Setting up inception_3b/5x5
I0714 21:19:38.718452 23892 net.cpp:148] Top shape: 10 96 28 28 (752640)
I0714 21:19:38.718458 23892 net.cpp:156] Memory required for data: 307077120
I0714 21:19:38.718469 23892 layer_factory.hpp:77] Creating layer inception_3b/relu_5x5
I0714 21:19:38.718483 23892 net.cpp:91] Creating Layer inception_3b/relu_5x5
I0714 21:19:38.718490 23892 net.cpp:425] inception_3b/relu_5x5 <- inception_3b/5x5
I0714 21:19:38.718499 23892 net.cpp:386] inception_3b/relu_5x5 -> inception_3b/5x5 (in-place)
I0714 21:19:38.718850 23888 net.cpp:141] Setting up inception_3b/5x5
I0714 21:19:38.718868 23888 net.cpp:148] Top shape: 10 96 28 28 (752640)
I0714 21:19:38.718873 23888 net.cpp:156] Memory required for data: 307077120
I0714 21:19:38.718883 23888 layer_factory.hpp:77] Creating layer inception_3b/relu_5x5
I0714 21:19:38.718888 23892 net.cpp:141] Setting up inception_3b/relu_5x5
I0714 21:19:38.718895 23888 net.cpp:91] Creating Layer inception_3b/relu_5x5
I0714 21:19:38.718901 23892 net.cpp:148] Top shape: 10 96 28 28 (752640)
I0714 21:19:38.718902 23888 net.cpp:425] inception_3b/relu_5x5 <- inception_3b/5x5
I0714 21:19:38.718912 23892 net.cpp:156] Memory required for data: 310087680
I0714 21:19:38.718919 23892 layer_factory.hpp:77] Creating layer inception_3b/pool
I0714 21:19:38.718924 23888 net.cpp:386] inception_3b/relu_5x5 -> inception_3b/5x5 (in-place)
I0714 21:19:38.718933 23892 net.cpp:91] Creating Layer inception_3b/pool
I0714 21:19:38.718940 23892 net.cpp:425] inception_3b/pool <- inception_3a/output_inception_3a/output_0_split_3
I0714 21:19:38.718952 23892 net.cpp:399] inception_3b/pool -> inception_3b/pool
I0714 21:19:38.719229 23892 net.cpp:141] Setting up inception_3b/pool
I0714 21:19:38.719243 23892 net.cpp:148] Top shape: 10 256 28 28 (2007040)
I0714 21:19:38.719247 23892 net.cpp:156] Memory required for data: 318115840
I0714 21:19:38.719252 23892 layer_factory.hpp:77] Creating layer inception_3b/pool_proj
I0714 21:19:38.719272 23892 net.cpp:91] Creating Layer inception_3b/pool_proj
I0714 21:19:38.719280 23892 net.cpp:425] inception_3b/pool_proj <- inception_3b/pool
I0714 21:19:38.719288 23892 net.cpp:399] inception_3b/pool_proj -> inception_3b/pool_proj
I0714 21:19:38.719295 23888 net.cpp:141] Setting up inception_3b/relu_5x5
I0714 21:19:38.719311 23888 net.cpp:148] Top shape: 10 96 28 28 (752640)
I0714 21:19:38.719316 23888 net.cpp:156] Memory required for data: 310087680
I0714 21:19:38.719326 23888 layer_factory.hpp:77] Creating layer inception_3b/pool
I0714 21:19:38.719337 23888 net.cpp:91] Creating Layer inception_3b/pool
I0714 21:19:38.719344 23888 net.cpp:425] inception_3b/pool <- inception_3a/output_inception_3a/output_0_split_3
I0714 21:19:38.719353 23888 net.cpp:399] inception_3b/pool -> inception_3b/pool
I0714 21:19:38.719605 23888 net.cpp:141] Setting up inception_3b/pool
I0714 21:19:38.719620 23888 net.cpp:148] Top shape: 10 256 28 28 (2007040)
I0714 21:19:38.719625 23888 net.cpp:156] Memory required for data: 318115840
I0714 21:19:38.719631 23888 layer_factory.hpp:77] Creating layer inception_3b/pool_proj
I0714 21:19:38.719650 23888 net.cpp:91] Creating Layer inception_3b/pool_proj
I0714 21:19:38.719655 23888 net.cpp:425] inception_3b/pool_proj <- inception_3b/pool
I0714 21:19:38.719667 23888 net.cpp:399] inception_3b/pool_proj -> inception_3b/pool_proj
I0714 21:19:38.723543 23892 net.cpp:141] Setting up inception_3b/pool_proj
I0714 21:19:38.723567 23892 net.cpp:148] Top shape: 10 64 28 28 (501760)
I0714 21:19:38.723572 23892 net.cpp:156] Memory required for data: 320122880
I0714 21:19:38.723583 23892 layer_factory.hpp:77] Creating layer inception_3b/relu_pool_proj
I0714 21:19:38.723594 23892 net.cpp:91] Creating Layer inception_3b/relu_pool_proj
I0714 21:19:38.723600 23892 net.cpp:425] inception_3b/relu_pool_proj <- inception_3b/pool_proj
I0714 21:19:38.723621 23892 net.cpp:386] inception_3b/relu_pool_proj -> inception_3b/pool_proj (in-place)
I0714 21:19:38.724628 23892 net.cpp:141] Setting up inception_3b/relu_pool_proj
I0714 21:19:38.724645 23892 net.cpp:148] Top shape: 10 64 28 28 (501760)
I0714 21:19:38.724650 23892 net.cpp:156] Memory required for data: 322129920
I0714 21:19:38.724656 23892 layer_factory.hpp:77] Creating layer inception_3b/output
I0714 21:19:38.724666 23892 net.cpp:91] Creating Layer inception_3b/output
I0714 21:19:38.724673 23892 net.cpp:425] inception_3b/output <- inception_3b/1x1
I0714 21:19:38.724680 23892 net.cpp:425] inception_3b/output <- inception_3b/3x3
I0714 21:19:38.724681 23888 net.cpp:141] Setting up inception_3b/pool_proj
I0714 21:19:38.724686 23892 net.cpp:425] inception_3b/output <- inception_3b/5x5
I0714 21:19:38.724701 23888 net.cpp:148] Top shape: 10 64 28 28 (501760)
I0714 21:19:38.724704 23892 net.cpp:425] inception_3b/output <- inception_3b/pool_proj
I0714 21:19:38.724709 23888 net.cpp:156] Memory required for data: 320122880
I0714 21:19:38.724716 23892 net.cpp:399] inception_3b/output -> inception_3b/output
I0714 21:19:38.724720 23888 layer_factory.hpp:77] Creating layer inception_3b/relu_pool_proj
I0714 21:19:38.724730 23888 net.cpp:91] Creating Layer inception_3b/relu_pool_proj
I0714 21:19:38.724736 23888 net.cpp:425] inception_3b/relu_pool_proj <- inception_3b/pool_proj
I0714 21:19:38.724747 23888 net.cpp:386] inception_3b/relu_pool_proj -> inception_3b/pool_proj (in-place)
I0714 21:19:38.725466 23892 net.cpp:141] Setting up inception_3b/output
I0714 21:19:38.725478 23892 net.cpp:148] Top shape: 10 480 28 28 (3763200)
I0714 21:19:38.725483 23892 net.cpp:156] Memory required for data: 337182720
I0714 21:19:38.725488 23892 layer_factory.hpp:77] Creating layer pool3/3x3_s2
I0714 21:19:38.725505 23892 net.cpp:91] Creating Layer pool3/3x3_s2
I0714 21:19:38.725512 23892 net.cpp:425] pool3/3x3_s2 <- inception_3b/output
I0714 21:19:38.725520 23892 net.cpp:399] pool3/3x3_s2 -> pool3/3x3_s2
I0714 21:19:38.725683 23892 net.cpp:141] Setting up pool3/3x3_s2
I0714 21:19:38.725697 23892 net.cpp:148] Top shape: 10 480 14 14 (940800)
I0714 21:19:38.725702 23892 net.cpp:156] Memory required for data: 340945920
I0714 21:19:38.725706 23892 layer_factory.hpp:77] Creating layer pool3/3x3_s2_pool3/3x3_s2_0_split
I0714 21:19:38.725715 23888 net.cpp:141] Setting up inception_3b/relu_pool_proj
I0714 21:19:38.725720 23892 net.cpp:91] Creating Layer pool3/3x3_s2_pool3/3x3_s2_0_split
I0714 21:19:38.725734 23888 net.cpp:148] Top shape: 10 64 28 28 (501760)
I0714 21:19:38.725735 23892 net.cpp:425] pool3/3x3_s2_pool3/3x3_s2_0_split <- pool3/3x3_s2
I0714 21:19:38.725740 23888 net.cpp:156] Memory required for data: 322129920
I0714 21:19:38.725745 23888 layer_factory.hpp:77] Creating layer inception_3b/output
I0714 21:19:38.725749 23892 net.cpp:399] pool3/3x3_s2_pool3/3x3_s2_0_split -> pool3/3x3_s2_pool3/3x3_s2_0_split_0
I0714 21:19:38.725755 23888 net.cpp:91] Creating Layer inception_3b/output
I0714 21:19:38.725759 23892 net.cpp:399] pool3/3x3_s2_pool3/3x3_s2_0_split -> pool3/3x3_s2_pool3/3x3_s2_0_split_1
I0714 21:19:38.725769 23892 net.cpp:399] pool3/3x3_s2_pool3/3x3_s2_0_split -> pool3/3x3_s2_pool3/3x3_s2_0_split_2
I0714 21:19:38.725762 23888 net.cpp:425] inception_3b/output <- inception_3b/1x1
I0714 21:19:38.725780 23892 net.cpp:399] pool3/3x3_s2_pool3/3x3_s2_0_split -> pool3/3x3_s2_pool3/3x3_s2_0_split_3
I0714 21:19:38.725780 23888 net.cpp:425] inception_3b/output <- inception_3b/3x3
I0714 21:19:38.725788 23888 net.cpp:425] inception_3b/output <- inception_3b/5x5
I0714 21:19:38.725795 23888 net.cpp:425] inception_3b/output <- inception_3b/pool_proj
I0714 21:19:38.725801 23888 net.cpp:399] inception_3b/output -> inception_3b/output
I0714 21:19:38.725911 23888 net.cpp:141] Setting up inception_3b/output
I0714 21:19:38.725924 23888 net.cpp:148] Top shape: 10 480 28 28 (3763200)
I0714 21:19:38.725929 23888 net.cpp:156] Memory required for data: 337182720
I0714 21:19:38.725937 23888 layer_factory.hpp:77] Creating layer pool3/3x3_s2
I0714 21:19:38.725950 23888 net.cpp:91] Creating Layer pool3/3x3_s2
I0714 21:19:38.725956 23888 net.cpp:425] pool3/3x3_s2 <- inception_3b/output
I0714 21:19:38.725965 23888 net.cpp:399] pool3/3x3_s2 -> pool3/3x3_s2
I0714 21:19:38.726052 23892 net.cpp:141] Setting up pool3/3x3_s2_pool3/3x3_s2_0_split
I0714 21:19:38.726063 23892 net.cpp:148] Top shape: 10 480 14 14 (940800)
I0714 21:19:38.726069 23892 net.cpp:148] Top shape: 10 480 14 14 (940800)
I0714 21:19:38.726075 23892 net.cpp:148] Top shape: 10 480 14 14 (940800)
I0714 21:19:38.726081 23892 net.cpp:148] Top shape: 10 480 14 14 (940800)
I0714 21:19:38.726085 23892 net.cpp:156] Memory required for data: 355998720
I0714 21:19:38.726090 23892 layer_factory.hpp:77] Creating layer inception_4a/1x1
I0714 21:19:38.726109 23892 net.cpp:91] Creating Layer inception_4a/1x1
I0714 21:19:38.726116 23892 net.cpp:425] inception_4a/1x1 <- pool3/3x3_s2_pool3/3x3_s2_0_split_0
I0714 21:19:38.726119 23888 net.cpp:141] Setting up pool3/3x3_s2
I0714 21:19:38.726126 23892 net.cpp:399] inception_4a/1x1 -> inception_4a/1x1
I0714 21:19:38.726135 23888 net.cpp:148] Top shape: 10 480 14 14 (940800)
I0714 21:19:38.726140 23888 net.cpp:156] Memory required for data: 340945920
I0714 21:19:38.726145 23888 layer_factory.hpp:77] Creating layer pool3/3x3_s2_pool3/3x3_s2_0_split
I0714 21:19:38.726156 23888 net.cpp:91] Creating Layer pool3/3x3_s2_pool3/3x3_s2_0_split
I0714 21:19:38.726161 23888 net.cpp:425] pool3/3x3_s2_pool3/3x3_s2_0_split <- pool3/3x3_s2
I0714 21:19:38.726169 23888 net.cpp:399] pool3/3x3_s2_pool3/3x3_s2_0_split -> pool3/3x3_s2_pool3/3x3_s2_0_split_0
I0714 21:19:38.726178 23888 net.cpp:399] pool3/3x3_s2_pool3/3x3_s2_0_split -> pool3/3x3_s2_pool3/3x3_s2_0_split_1
I0714 21:19:38.726191 23888 net.cpp:399] pool3/3x3_s2_pool3/3x3_s2_0_split -> pool3/3x3_s2_pool3/3x3_s2_0_split_2
I0714 21:19:38.726202 23888 net.cpp:399] pool3/3x3_s2_pool3/3x3_s2_0_split -> pool3/3x3_s2_pool3/3x3_s2_0_split_3
I0714 21:19:38.726562 23888 net.cpp:141] Setting up pool3/3x3_s2_pool3/3x3_s2_0_split
I0714 21:19:38.726574 23888 net.cpp:148] Top shape: 10 480 14 14 (940800)
I0714 21:19:38.726582 23888 net.cpp:148] Top shape: 10 480 14 14 (940800)
I0714 21:19:38.726586 23888 net.cpp:148] Top shape: 10 480 14 14 (940800)
I0714 21:19:38.726593 23888 net.cpp:148] Top shape: 10 480 14 14 (940800)
I0714 21:19:38.726596 23888 net.cpp:156] Memory required for data: 355998720
I0714 21:19:38.726601 23888 layer_factory.hpp:77] Creating layer inception_4a/1x1
I0714 21:19:38.726618 23888 net.cpp:91] Creating Layer inception_4a/1x1
I0714 21:19:38.726624 23888 net.cpp:425] inception_4a/1x1 <- pool3/3x3_s2_pool3/3x3_s2_0_split_0
I0714 21:19:38.726634 23888 net.cpp:399] inception_4a/1x1 -> inception_4a/1x1
I0714 21:19:38.732182 23892 net.cpp:141] Setting up inception_4a/1x1
I0714 21:19:38.732203 23892 net.cpp:148] Top shape: 10 192 14 14 (376320)
I0714 21:19:38.732209 23892 net.cpp:156] Memory required for data: 357504000
I0714 21:19:38.732221 23892 layer_factory.hpp:77] Creating layer inception_4a/relu_1x1
I0714 21:19:38.732236 23892 net.cpp:91] Creating Layer inception_4a/relu_1x1
I0714 21:19:38.732244 23892 net.cpp:425] inception_4a/relu_1x1 <- inception_4a/1x1
I0714 21:19:38.732252 23892 net.cpp:386] inception_4a/relu_1x1 -> inception_4a/1x1 (in-place)
I0714 21:19:38.732317 23888 net.cpp:141] Setting up inception_4a/1x1
I0714 21:19:38.732337 23888 net.cpp:148] Top shape: 10 192 14 14 (376320)
I0714 21:19:38.732343 23888 net.cpp:156] Memory required for data: 357504000
I0714 21:19:38.732353 23888 layer_factory.hpp:77] Creating layer inception_4a/relu_1x1
I0714 21:19:38.732363 23888 net.cpp:91] Creating Layer inception_4a/relu_1x1
I0714 21:19:38.732369 23888 net.cpp:425] inception_4a/relu_1x1 <- inception_4a/1x1
I0714 21:19:38.732378 23888 net.cpp:386] inception_4a/relu_1x1 -> inception_4a/1x1 (in-place)
I0714 21:19:38.732642 23892 net.cpp:141] Setting up inception_4a/relu_1x1
I0714 21:19:38.732656 23892 net.cpp:148] Top shape: 10 192 14 14 (376320)
I0714 21:19:38.732661 23892 net.cpp:156] Memory required for data: 359009280
I0714 21:19:38.732667 23892 layer_factory.hpp:77] Creating layer inception_4a/3x3_reduce
I0714 21:19:38.732686 23892 net.cpp:91] Creating Layer inception_4a/3x3_reduce
I0714 21:19:38.732694 23892 net.cpp:425] inception_4a/3x3_reduce <- pool3/3x3_s2_pool3/3x3_s2_0_split_1
I0714 21:19:38.732707 23892 net.cpp:399] inception_4a/3x3_reduce -> inception_4a/3x3_reduce
I0714 21:19:38.732753 23888 net.cpp:141] Setting up inception_4a/relu_1x1
I0714 21:19:38.732767 23888 net.cpp:148] Top shape: 10 192 14 14 (376320)
I0714 21:19:38.732774 23888 net.cpp:156] Memory required for data: 359009280
I0714 21:19:38.732780 23888 layer_factory.hpp:77] Creating layer inception_4a/3x3_reduce
I0714 21:19:38.732800 23888 net.cpp:91] Creating Layer inception_4a/3x3_reduce
I0714 21:19:38.732807 23888 net.cpp:425] inception_4a/3x3_reduce <- pool3/3x3_s2_pool3/3x3_s2_0_split_1
I0714 21:19:38.732825 23888 net.cpp:399] inception_4a/3x3_reduce -> inception_4a/3x3_reduce
I0714 21:19:38.737370 23892 net.cpp:141] Setting up inception_4a/3x3_reduce
I0714 21:19:38.737390 23892 net.cpp:148] Top shape: 10 96 14 14 (188160)
I0714 21:19:38.737396 23892 net.cpp:156] Memory required for data: 359761920
I0714 21:19:38.737421 23892 layer_factory.hpp:77] Creating layer inception_4a/relu_3x3_reduce
I0714 21:19:38.737432 23892 net.cpp:91] Creating Layer inception_4a/relu_3x3_reduce
I0714 21:19:38.737438 23892 net.cpp:425] inception_4a/relu_3x3_reduce <- inception_4a/3x3_reduce
I0714 21:19:38.737447 23892 net.cpp:386] inception_4a/relu_3x3_reduce -> inception_4a/3x3_reduce (in-place)
I0714 21:19:38.737807 23888 net.cpp:141] Setting up inception_4a/3x3_reduce
I0714 21:19:38.737823 23888 net.cpp:148] Top shape: 10 96 14 14 (188160)
I0714 21:19:38.737829 23888 net.cpp:156] Memory required for data: 359761920
I0714 21:19:38.737831 23892 net.cpp:141] Setting up inception_4a/relu_3x3_reduce
I0714 21:19:38.737845 23892 net.cpp:148] Top shape: 10 96 14 14 (188160)
I0714 21:19:38.737850 23892 net.cpp:156] Memory required for data: 360514560
I0714 21:19:38.737854 23888 layer_factory.hpp:77] Creating layer inception_4a/relu_3x3_reduce
I0714 21:19:38.737855 23892 layer_factory.hpp:77] Creating layer inception_4a/3x3
I0714 21:19:38.737869 23888 net.cpp:91] Creating Layer inception_4a/relu_3x3_reduce
I0714 21:19:38.737876 23888 net.cpp:425] inception_4a/relu_3x3_reduce <- inception_4a/3x3_reduce
I0714 21:19:38.737884 23892 net.cpp:91] Creating Layer inception_4a/3x3
I0714 21:19:38.737885 23888 net.cpp:386] inception_4a/relu_3x3_reduce -> inception_4a/3x3_reduce (in-place)
I0714 21:19:38.737891 23892 net.cpp:425] inception_4a/3x3 <- inception_4a/3x3_reduce
I0714 21:19:38.737905 23892 net.cpp:399] inception_4a/3x3 -> inception_4a/3x3
I0714 21:19:38.738332 23888 net.cpp:141] Setting up inception_4a/relu_3x3_reduce
I0714 21:19:38.738346 23888 net.cpp:148] Top shape: 10 96 14 14 (188160)
I0714 21:19:38.738351 23888 net.cpp:156] Memory required for data: 360514560
I0714 21:19:38.738358 23888 layer_factory.hpp:77] Creating layer inception_4a/3x3
I0714 21:19:38.738374 23888 net.cpp:91] Creating Layer inception_4a/3x3
I0714 21:19:38.738381 23888 net.cpp:425] inception_4a/3x3 <- inception_4a/3x3_reduce
I0714 21:19:38.738395 23888 net.cpp:399] inception_4a/3x3 -> inception_4a/3x3
I0714 21:19:38.746171 23892 net.cpp:141] Setting up inception_4a/3x3
I0714 21:19:38.746194 23892 net.cpp:148] Top shape: 10 208 14 14 (407680)
I0714 21:19:38.746201 23892 net.cpp:156] Memory required for data: 362145280
I0714 21:19:38.746211 23892 layer_factory.hpp:77] Creating layer inception_4a/relu_3x3
I0714 21:19:38.746222 23892 net.cpp:91] Creating Layer inception_4a/relu_3x3
I0714 21:19:38.746228 23892 net.cpp:425] inception_4a/relu_3x3 <- inception_4a/3x3
I0714 21:19:38.746242 23892 net.cpp:386] inception_4a/relu_3x3 -> inception_4a/3x3 (in-place)
I0714 21:19:38.747270 23892 net.cpp:141] Setting up inception_4a/relu_3x3
I0714 21:19:38.747288 23892 net.cpp:148] Top shape: 10 208 14 14 (407680)
I0714 21:19:38.747293 23892 net.cpp:156] Memory required for data: 363776000
I0714 21:19:38.747299 23892 layer_factory.hpp:77] Creating layer inception_4a/5x5_reduce
I0714 21:19:38.747318 23892 net.cpp:91] Creating Layer inception_4a/5x5_reduce
I0714 21:19:38.747325 23892 net.cpp:425] inception_4a/5x5_reduce <- pool3/3x3_s2_pool3/3x3_s2_0_split_2
I0714 21:19:38.747342 23892 net.cpp:399] inception_4a/5x5_reduce -> inception_4a/5x5_reduce
I0714 21:19:38.747387 23888 net.cpp:141] Setting up inception_4a/3x3
I0714 21:19:38.747403 23888 net.cpp:148] Top shape: 10 208 14 14 (407680)
I0714 21:19:38.747409 23888 net.cpp:156] Memory required for data: 362145280
I0714 21:19:38.747422 23888 layer_factory.hpp:77] Creating layer inception_4a/relu_3x3
I0714 21:19:38.747434 23888 net.cpp:91] Creating Layer inception_4a/relu_3x3
I0714 21:19:38.747442 23888 net.cpp:425] inception_4a/relu_3x3 <- inception_4a/3x3
I0714 21:19:38.747452 23888 net.cpp:386] inception_4a/relu_3x3 -> inception_4a/3x3 (in-place)
I0714 21:19:38.748472 23888 net.cpp:141] Setting up inception_4a/relu_3x3
I0714 21:19:38.748492 23888 net.cpp:148] Top shape: 10 208 14 14 (407680)
I0714 21:19:38.748497 23888 net.cpp:156] Memory required for data: 363776000
I0714 21:19:38.748504 23888 layer_factory.hpp:77] Creating layer inception_4a/5x5_reduce
I0714 21:19:38.748523 23888 net.cpp:91] Creating Layer inception_4a/5x5_reduce
I0714 21:19:38.748530 23888 net.cpp:425] inception_4a/5x5_reduce <- pool3/3x3_s2_pool3/3x3_s2_0_split_2
I0714 21:19:38.748544 23888 net.cpp:399] inception_4a/5x5_reduce -> inception_4a/5x5_reduce
I0714 21:19:38.752419 23892 net.cpp:141] Setting up inception_4a/5x5_reduce
I0714 21:19:38.752439 23892 net.cpp:148] Top shape: 10 16 14 14 (31360)
I0714 21:19:38.752444 23892 net.cpp:156] Memory required for data: 363901440
I0714 21:19:38.752454 23892 layer_factory.hpp:77] Creating layer inception_4a/relu_5x5_reduce
I0714 21:19:38.752467 23892 net.cpp:91] Creating Layer inception_4a/relu_5x5_reduce
I0714 21:19:38.752475 23892 net.cpp:425] inception_4a/relu_5x5_reduce <- inception_4a/5x5_reduce
I0714 21:19:38.752483 23892 net.cpp:386] inception_4a/relu_5x5_reduce -> inception_4a/5x5_reduce (in-place)
I0714 21:19:38.752852 23892 net.cpp:141] Setting up inception_4a/relu_5x5_reduce
I0714 21:19:38.752866 23892 net.cpp:148] Top shape: 10 16 14 14 (31360)
I0714 21:19:38.752871 23892 net.cpp:156] Memory required for data: 364026880
I0714 21:19:38.752876 23892 layer_factory.hpp:77] Creating layer inception_4a/5x5
I0714 21:19:38.752895 23892 net.cpp:91] Creating Layer inception_4a/5x5
I0714 21:19:38.752902 23892 net.cpp:425] inception_4a/5x5 <- inception_4a/5x5_reduce
I0714 21:19:38.752915 23892 net.cpp:399] inception_4a/5x5 -> inception_4a/5x5
I0714 21:19:38.754117 23888 net.cpp:141] Setting up inception_4a/5x5_reduce
I0714 21:19:38.754137 23888 net.cpp:148] Top shape: 10 16 14 14 (31360)
I0714 21:19:38.754142 23888 net.cpp:156] Memory required for data: 363901440
I0714 21:19:38.754153 23888 layer_factory.hpp:77] Creating layer inception_4a/relu_5x5_reduce
I0714 21:19:38.754166 23888 net.cpp:91] Creating Layer inception_4a/relu_5x5_reduce
I0714 21:19:38.754173 23888 net.cpp:425] inception_4a/relu_5x5_reduce <- inception_4a/5x5_reduce
I0714 21:19:38.754181 23888 net.cpp:386] inception_4a/relu_5x5_reduce -> inception_4a/5x5_reduce (in-place)
I0714 21:19:38.754577 23888 net.cpp:141] Setting up inception_4a/relu_5x5_reduce
I0714 21:19:38.754590 23888 net.cpp:148] Top shape: 10 16 14 14 (31360)
I0714 21:19:38.754595 23888 net.cpp:156] Memory required for data: 364026880
I0714 21:19:38.754601 23888 layer_factory.hpp:77] Creating layer inception_4a/5x5
I0714 21:19:38.754626 23888 net.cpp:91] Creating Layer inception_4a/5x5
I0714 21:19:38.754632 23888 net.cpp:425] inception_4a/5x5 <- inception_4a/5x5_reduce
I0714 21:19:38.754642 23888 net.cpp:399] inception_4a/5x5 -> inception_4a/5x5
I0714 21:19:38.758002 23892 net.cpp:141] Setting up inception_4a/5x5
I0714 21:19:38.758025 23892 net.cpp:148] Top shape: 10 48 14 14 (94080)
I0714 21:19:38.758031 23892 net.cpp:156] Memory required for data: 364403200
I0714 21:19:38.758043 23892 layer_factory.hpp:77] Creating layer inception_4a/relu_5x5
I0714 21:19:38.758051 23892 net.cpp:91] Creating Layer inception_4a/relu_5x5
I0714 21:19:38.758059 23892 net.cpp:425] inception_4a/relu_5x5 <- inception_4a/5x5
I0714 21:19:38.758072 23892 net.cpp:386] inception_4a/relu_5x5 -> inception_4a/5x5 (in-place)
I0714 21:19:38.758438 23892 net.cpp:141] Setting up inception_4a/relu_5x5
I0714 21:19:38.758451 23892 net.cpp:148] Top shape: 10 48 14 14 (94080)
I0714 21:19:38.758457 23892 net.cpp:156] Memory required for data: 364779520
I0714 21:19:38.758462 23892 layer_factory.hpp:77] Creating layer inception_4a/pool
I0714 21:19:38.758476 23892 net.cpp:91] Creating Layer inception_4a/pool
I0714 21:19:38.758483 23892 net.cpp:425] inception_4a/pool <- pool3/3x3_s2_pool3/3x3_s2_0_split_3
I0714 21:19:38.758492 23892 net.cpp:399] inception_4a/pool -> inception_4a/pool
I0714 21:19:38.759215 23892 net.cpp:141] Setting up inception_4a/pool
I0714 21:19:38.759230 23892 net.cpp:148] Top shape: 10 480 14 14 (940800)
I0714 21:19:38.759235 23892 net.cpp:156] Memory required for data: 368542720
I0714 21:19:38.759240 23892 layer_factory.hpp:77] Creating layer inception_4a/pool_proj
I0714 21:19:38.759266 23892 net.cpp:91] Creating Layer inception_4a/pool_proj
I0714 21:19:38.759274 23892 net.cpp:425] inception_4a/pool_proj <- inception_4a/pool
I0714 21:19:38.759287 23892 net.cpp:399] inception_4a/pool_proj -> inception_4a/pool_proj
I0714 21:19:38.759865 23888 net.cpp:141] Setting up inception_4a/5x5
I0714 21:19:38.759882 23888 net.cpp:148] Top shape: 10 48 14 14 (94080)
I0714 21:19:38.759888 23888 net.cpp:156] Memory required for data: 364403200
I0714 21:19:38.759901 23888 layer_factory.hpp:77] Creating layer inception_4a/relu_5x5
I0714 21:19:38.759912 23888 net.cpp:91] Creating Layer inception_4a/relu_5x5
I0714 21:19:38.759918 23888 net.cpp:425] inception_4a/relu_5x5 <- inception_4a/5x5
I0714 21:19:38.759927 23888 net.cpp:386] inception_4a/relu_5x5 -> inception_4a/5x5 (in-place)
I0714 21:19:38.760287 23888 net.cpp:141] Setting up inception_4a/relu_5x5
I0714 21:19:38.760303 23888 net.cpp:148] Top shape: 10 48 14 14 (94080)
I0714 21:19:38.760308 23888 net.cpp:156] Memory required for data: 364779520
I0714 21:19:38.760314 23888 layer_factory.hpp:77] Creating layer inception_4a/pool
I0714 21:19:38.760327 23888 net.cpp:91] Creating Layer inception_4a/pool
I0714 21:19:38.760334 23888 net.cpp:425] inception_4a/pool <- pool3/3x3_s2_pool3/3x3_s2_0_split_3
I0714 21:19:38.760342 23888 net.cpp:399] inception_4a/pool -> inception_4a/pool
I0714 21:19:38.760457 23888 net.cpp:141] Setting up inception_4a/pool
I0714 21:19:38.760468 23888 net.cpp:148] Top shape: 10 480 14 14 (940800)
I0714 21:19:38.760473 23888 net.cpp:156] Memory required for data: 368542720
I0714 21:19:38.760478 23888 layer_factory.hpp:77] Creating layer inception_4a/pool_proj
I0714 21:19:38.760498 23888 net.cpp:91] Creating Layer inception_4a/pool_proj
I0714 21:19:38.760504 23888 net.cpp:425] inception_4a/pool_proj <- inception_4a/pool
I0714 21:19:38.760525 23888 net.cpp:399] inception_4a/pool_proj -> inception_4a/pool_proj
I0714 21:19:38.764160 23892 net.cpp:141] Setting up inception_4a/pool_proj
I0714 21:19:38.764179 23892 net.cpp:148] Top shape: 10 64 14 14 (125440)
I0714 21:19:38.764185 23892 net.cpp:156] Memory required for data: 369044480
I0714 21:19:38.764195 23892 layer_factory.hpp:77] Creating layer inception_4a/relu_pool_proj
I0714 21:19:38.764209 23892 net.cpp:91] Creating Layer inception_4a/relu_pool_proj
I0714 21:19:38.764216 23892 net.cpp:425] inception_4a/relu_pool_proj <- inception_4a/pool_proj
I0714 21:19:38.764225 23892 net.cpp:386] inception_4a/relu_pool_proj -> inception_4a/pool_proj (in-place)
I0714 21:19:38.765668 23892 net.cpp:141] Setting up inception_4a/relu_pool_proj
I0714 21:19:38.765686 23892 net.cpp:148] Top shape: 10 64 14 14 (125440)
I0714 21:19:38.765691 23892 net.cpp:156] Memory required for data: 369546240
I0714 21:19:38.765697 23892 layer_factory.hpp:77] Creating layer inception_4a/output
I0714 21:19:38.765710 23892 net.cpp:91] Creating Layer inception_4a/output
I0714 21:19:38.765717 23892 net.cpp:425] inception_4a/output <- inception_4a/1x1
I0714 21:19:38.765724 23892 net.cpp:425] inception_4a/output <- inception_4a/3x3
I0714 21:19:38.765730 23892 net.cpp:425] inception_4a/output <- inception_4a/5x5
I0714 21:19:38.765736 23892 net.cpp:425] inception_4a/output <- inception_4a/pool_proj
I0714 21:19:38.765744 23892 net.cpp:399] inception_4a/output -> inception_4a/output
I0714 21:19:38.765792 23888 net.cpp:141] Setting up inception_4a/pool_proj
I0714 21:19:38.765810 23888 net.cpp:148] Top shape: 10 64 14 14 (125440)
I0714 21:19:38.765815 23888 net.cpp:156] Memory required for data: 369044480
I0714 21:19:38.765825 23888 layer_factory.hpp:77] Creating layer inception_4a/relu_pool_proj
I0714 21:19:38.765826 23892 net.cpp:141] Setting up inception_4a/output
I0714 21:19:38.765837 23888 net.cpp:91] Creating Layer inception_4a/relu_pool_proj
I0714 21:19:38.765837 23892 net.cpp:148] Top shape: 10 512 14 14 (1003520)
I0714 21:19:38.765844 23892 net.cpp:156] Memory required for data: 373560320
I0714 21:19:38.765846 23888 net.cpp:425] inception_4a/relu_pool_proj <- inception_4a/pool_proj
I0714 21:19:38.765856 23892 layer_factory.hpp:77] Creating layer inception_4a/output_inception_4a/output_0_split
I0714 21:19:38.765862 23888 net.cpp:386] inception_4a/relu_pool_proj -> inception_4a/pool_proj (in-place)
I0714 21:19:38.765871 23892 net.cpp:91] Creating Layer inception_4a/output_inception_4a/output_0_split
I0714 21:19:38.765877 23892 net.cpp:425] inception_4a/output_inception_4a/output_0_split <- inception_4a/output
I0714 21:19:38.765887 23892 net.cpp:399] inception_4a/output_inception_4a/output_0_split -> inception_4a/output_inception_4a/output_0_split_0
I0714 21:19:38.765897 23892 net.cpp:399] inception_4a/output_inception_4a/output_0_split -> inception_4a/output_inception_4a/output_0_split_1
I0714 21:19:38.765908 23892 net.cpp:399] inception_4a/output_inception_4a/output_0_split -> inception_4a/output_inception_4a/output_0_split_2
I0714 21:19:38.765916 23892 net.cpp:399] inception_4a/output_inception_4a/output_0_split -> inception_4a/output_inception_4a/output_0_split_3
I0714 21:19:38.766872 23892 net.cpp:141] Setting up inception_4a/output_inception_4a/output_0_split
I0714 21:19:38.766885 23892 net.cpp:148] Top shape: 10 512 14 14 (1003520)
I0714 21:19:38.766883 23888 net.cpp:141] Setting up inception_4a/relu_pool_proj
I0714 21:19:38.766891 23892 net.cpp:148] Top shape: 10 512 14 14 (1003520)
I0714 21:19:38.766898 23892 net.cpp:148] Top shape: 10 512 14 14 (1003520)
I0714 21:19:38.766899 23888 net.cpp:148] Top shape: 10 64 14 14 (125440)
I0714 21:19:38.766904 23892 net.cpp:148] Top shape: 10 512 14 14 (1003520)
I0714 21:19:38.766907 23888 net.cpp:156] Memory required for data: 369546240
I0714 21:19:38.766908 23892 net.cpp:156] Memory required for data: 389616640
I0714 21:19:38.766914 23892 layer_factory.hpp:77] Creating layer inception_4b/1x1
I0714 21:19:38.766916 23888 layer_factory.hpp:77] Creating layer inception_4a/output
I0714 21:19:38.766927 23888 net.cpp:91] Creating Layer inception_4a/output
I0714 21:19:38.766932 23892 net.cpp:91] Creating Layer inception_4b/1x1
I0714 21:19:38.766933 23888 net.cpp:425] inception_4a/output <- inception_4a/1x1
I0714 21:19:38.766939 23892 net.cpp:425] inception_4b/1x1 <- inception_4a/output_inception_4a/output_0_split_0
I0714 21:19:38.766942 23888 net.cpp:425] inception_4a/output <- inception_4a/3x3
I0714 21:19:38.766948 23888 net.cpp:425] inception_4a/output <- inception_4a/5x5
I0714 21:19:38.766952 23892 net.cpp:399] inception_4b/1x1 -> inception_4b/1x1
I0714 21:19:38.766954 23888 net.cpp:425] inception_4a/output <- inception_4a/pool_proj
I0714 21:19:38.766963 23888 net.cpp:399] inception_4a/output -> inception_4a/output
I0714 21:19:38.767109 23888 net.cpp:141] Setting up inception_4a/output
I0714 21:19:38.767122 23888 net.cpp:148] Top shape: 10 512 14 14 (1003520)
I0714 21:19:38.767127 23888 net.cpp:156] Memory required for data: 373560320
I0714 21:19:38.767132 23888 layer_factory.hpp:77] Creating layer inception_4a/output_inception_4a/output_0_split
I0714 21:19:38.767143 23888 net.cpp:91] Creating Layer inception_4a/output_inception_4a/output_0_split
I0714 21:19:38.767148 23888 net.cpp:425] inception_4a/output_inception_4a/output_0_split <- inception_4a/output
I0714 21:19:38.767156 23888 net.cpp:399] inception_4a/output_inception_4a/output_0_split -> inception_4a/output_inception_4a/output_0_split_0
I0714 21:19:38.767166 23888 net.cpp:399] inception_4a/output_inception_4a/output_0_split -> inception_4a/output_inception_4a/output_0_split_1
I0714 21:19:38.767180 23888 net.cpp:399] inception_4a/output_inception_4a/output_0_split -> inception_4a/output_inception_4a/output_0_split_2
I0714 21:19:38.767190 23888 net.cpp:399] inception_4a/output_inception_4a/output_0_split -> inception_4a/output_inception_4a/output_0_split_3
I0714 21:19:38.767623 23888 net.cpp:141] Setting up inception_4a/output_inception_4a/output_0_split
I0714 21:19:38.767637 23888 net.cpp:148] Top shape: 10 512 14 14 (1003520)
I0714 21:19:38.767644 23888 net.cpp:148] Top shape: 10 512 14 14 (1003520)
I0714 21:19:38.767649 23888 net.cpp:148] Top shape: 10 512 14 14 (1003520)
I0714 21:19:38.767655 23888 net.cpp:148] Top shape: 10 512 14 14 (1003520)
I0714 21:19:38.767659 23888 net.cpp:156] Memory required for data: 389616640
I0714 21:19:38.767665 23888 layer_factory.hpp:77] Creating layer inception_4b/1x1
I0714 21:19:38.767683 23888 net.cpp:91] Creating Layer inception_4b/1x1
I0714 21:19:38.767690 23888 net.cpp:425] inception_4b/1x1 <- inception_4a/output_inception_4a/output_0_split_0
I0714 21:19:38.767709 23888 net.cpp:399] inception_4b/1x1 -> inception_4b/1x1
I0714 21:19:38.772462 23892 net.cpp:141] Setting up inception_4b/1x1
I0714 21:19:38.772490 23892 net.cpp:148] Top shape: 10 160 14 14 (313600)
I0714 21:19:38.772496 23892 net.cpp:156] Memory required for data: 390871040
I0714 21:19:38.772507 23892 layer_factory.hpp:77] Creating layer inception_4b/relu_1x1
I0714 21:19:38.772517 23892 net.cpp:91] Creating Layer inception_4b/relu_1x1
I0714 21:19:38.772524 23892 net.cpp:425] inception_4b/relu_1x1 <- inception_4b/1x1
I0714 21:19:38.772533 23892 net.cpp:386] inception_4b/relu_1x1 -> inception_4b/1x1 (in-place)
I0714 21:19:38.772946 23892 net.cpp:141] Setting up inception_4b/relu_1x1
I0714 21:19:38.772963 23892 net.cpp:148] Top shape: 10 160 14 14 (313600)
I0714 21:19:38.772967 23892 net.cpp:156] Memory required for data: 392125440
I0714 21:19:38.772974 23892 layer_factory.hpp:77] Creating layer inception_4b/3x3_reduce
I0714 21:19:38.772992 23892 net.cpp:91] Creating Layer inception_4b/3x3_reduce
I0714 21:19:38.773000 23892 net.cpp:425] inception_4b/3x3_reduce <- inception_4a/output_inception_4a/output_0_split_1
I0714 21:19:38.773010 23892 net.cpp:399] inception_4b/3x3_reduce -> inception_4b/3x3_reduce
I0714 21:19:38.773056 23888 net.cpp:141] Setting up inception_4b/1x1
I0714 21:19:38.773072 23888 net.cpp:148] Top shape: 10 160 14 14 (313600)
I0714 21:19:38.773078 23888 net.cpp:156] Memory required for data: 390871040
I0714 21:19:38.773090 23888 layer_factory.hpp:77] Creating layer inception_4b/relu_1x1
I0714 21:19:38.773102 23888 net.cpp:91] Creating Layer inception_4b/relu_1x1
I0714 21:19:38.773108 23888 net.cpp:425] inception_4b/relu_1x1 <- inception_4b/1x1
I0714 21:19:38.773118 23888 net.cpp:386] inception_4b/relu_1x1 -> inception_4b/1x1 (in-place)
I0714 21:19:38.773529 23888 net.cpp:141] Setting up inception_4b/relu_1x1
I0714 21:19:38.773541 23888 net.cpp:148] Top shape: 10 160 14 14 (313600)
I0714 21:19:38.773546 23888 net.cpp:156] Memory required for data: 392125440
I0714 21:19:38.773552 23888 layer_factory.hpp:77] Creating layer inception_4b/3x3_reduce
I0714 21:19:38.773572 23888 net.cpp:91] Creating Layer inception_4b/3x3_reduce
I0714 21:19:38.773579 23888 net.cpp:425] inception_4b/3x3_reduce <- inception_4a/output_inception_4a/output_0_split_1
I0714 21:19:38.773589 23888 net.cpp:399] inception_4b/3x3_reduce -> inception_4b/3x3_reduce
I0714 21:19:38.777722 23892 net.cpp:141] Setting up inception_4b/3x3_reduce
I0714 21:19:38.777741 23892 net.cpp:148] Top shape: 10 112 14 14 (219520)
I0714 21:19:38.777747 23892 net.cpp:156] Memory required for data: 393003520
I0714 21:19:38.777760 23892 layer_factory.hpp:77] Creating layer inception_4b/relu_3x3_reduce
I0714 21:19:38.777768 23892 net.cpp:91] Creating Layer inception_4b/relu_3x3_reduce
I0714 21:19:38.777778 23892 net.cpp:425] inception_4b/relu_3x3_reduce <- inception_4b/3x3_reduce
I0714 21:19:38.777786 23892 net.cpp:386] inception_4b/relu_3x3_reduce -> inception_4b/3x3_reduce (in-place)
I0714 21:19:38.778148 23888 net.cpp:141] Setting up inception_4b/3x3_reduce
I0714 21:19:38.778164 23888 net.cpp:148] Top shape: 10 112 14 14 (219520)
I0714 21:19:38.778169 23888 net.cpp:156] Memory required for data: 393003520
I0714 21:19:38.778182 23892 net.cpp:141] Setting up inception_4b/relu_3x3_reduce
I0714 21:19:38.778183 23888 layer_factory.hpp:77] Creating layer inception_4b/relu_3x3_reduce
I0714 21:19:38.778199 23892 net.cpp:148] Top shape: 10 112 14 14 (219520)
I0714 21:19:38.778205 23892 net.cpp:156] Memory required for data: 393881600
I0714 21:19:38.778205 23888 net.cpp:91] Creating Layer inception_4b/relu_3x3_reduce
I0714 21:19:38.778210 23892 layer_factory.hpp:77] Creating layer inception_4b/3x3
I0714 21:19:38.778213 23888 net.cpp:425] inception_4b/relu_3x3_reduce <- inception_4b/3x3_reduce
I0714 21:19:38.778230 23888 net.cpp:386] inception_4b/relu_3x3_reduce -> inception_4b/3x3_reduce (in-place)
I0714 21:19:38.778239 23892 net.cpp:91] Creating Layer inception_4b/3x3
I0714 21:19:38.778247 23892 net.cpp:425] inception_4b/3x3 <- inception_4b/3x3_reduce
I0714 21:19:38.778257 23892 net.cpp:399] inception_4b/3x3 -> inception_4b/3x3
I0714 21:19:38.778652 23888 net.cpp:141] Setting up inception_4b/relu_3x3_reduce
I0714 21:19:38.778666 23888 net.cpp:148] Top shape: 10 112 14 14 (219520)
I0714 21:19:38.778673 23888 net.cpp:156] Memory required for data: 393881600
I0714 21:19:38.778679 23888 layer_factory.hpp:77] Creating layer inception_4b/3x3
I0714 21:19:38.778707 23888 net.cpp:91] Creating Layer inception_4b/3x3
I0714 21:19:38.778715 23888 net.cpp:425] inception_4b/3x3 <- inception_4b/3x3_reduce
I0714 21:19:38.781136 23888 net.cpp:399] inception_4b/3x3 -> inception_4b/3x3
I0714 21:19:38.790341 23892 net.cpp:141] Setting up inception_4b/3x3
I0714 21:19:38.790367 23892 net.cpp:148] Top shape: 10 224 14 14 (439040)
I0714 21:19:38.790374 23892 net.cpp:156] Memory required for data: 395637760
I0714 21:19:38.790390 23892 layer_factory.hpp:77] Creating layer inception_4b/relu_3x3
I0714 21:19:38.790403 23892 net.cpp:91] Creating Layer inception_4b/relu_3x3
I0714 21:19:38.790415 23892 net.cpp:425] inception_4b/relu_3x3 <- inception_4b/3x3
I0714 21:19:38.790426 23892 net.cpp:386] inception_4b/relu_3x3 -> inception_4b/3x3 (in-place)
I0714 21:19:38.791853 23892 net.cpp:141] Setting up inception_4b/relu_3x3
I0714 21:19:38.791872 23892 net.cpp:148] Top shape: 10 224 14 14 (439040)
I0714 21:19:38.791877 23892 net.cpp:156] Memory required for data: 397393920
I0714 21:19:38.791882 23892 layer_factory.hpp:77] Creating layer inception_4b/5x5_reduce
I0714 21:19:38.791929 23892 net.cpp:91] Creating Layer inception_4b/5x5_reduce
I0714 21:19:38.791937 23892 net.cpp:425] inception_4b/5x5_reduce <- inception_4a/output_inception_4a/output_0_split_2
I0714 21:19:38.791952 23892 net.cpp:399] inception_4b/5x5_reduce -> inception_4b/5x5_reduce
I0714 21:19:38.791992 23888 net.cpp:141] Setting up inception_4b/3x3
I0714 21:19:38.792009 23888 net.cpp:148] Top shape: 10 224 14 14 (439040)
I0714 21:19:38.792014 23888 net.cpp:156] Memory required for data: 395637760
I0714 21:19:38.792031 23888 layer_factory.hpp:77] Creating layer inception_4b/relu_3x3
I0714 21:19:38.792040 23888 net.cpp:91] Creating Layer inception_4b/relu_3x3
I0714 21:19:38.792047 23888 net.cpp:425] inception_4b/relu_3x3 <- inception_4b/3x3
I0714 21:19:38.792055 23888 net.cpp:386] inception_4b/relu_3x3 -> inception_4b/3x3 (in-place)
I0714 21:19:38.793138 23888 net.cpp:141] Setting up inception_4b/relu_3x3
I0714 21:19:38.793155 23888 net.cpp:148] Top shape: 10 224 14 14 (439040)
I0714 21:19:38.793160 23888 net.cpp:156] Memory required for data: 397393920
I0714 21:19:38.793166 23888 layer_factory.hpp:77] Creating layer inception_4b/5x5_reduce
I0714 21:19:38.793203 23888 net.cpp:91] Creating Layer inception_4b/5x5_reduce
I0714 21:19:38.793211 23888 net.cpp:425] inception_4b/5x5_reduce <- inception_4a/output_inception_4a/output_0_split_2
I0714 21:19:38.793222 23888 net.cpp:399] inception_4b/5x5_reduce -> inception_4b/5x5_reduce
I0714 21:19:38.797674 23892 net.cpp:141] Setting up inception_4b/5x5_reduce
I0714 21:19:38.797695 23892 net.cpp:148] Top shape: 10 24 14 14 (47040)
I0714 21:19:38.797701 23892 net.cpp:156] Memory required for data: 397582080
I0714 21:19:38.797713 23892 layer_factory.hpp:77] Creating layer inception_4b/relu_5x5_reduce
I0714 21:19:38.797725 23892 net.cpp:91] Creating Layer inception_4b/relu_5x5_reduce
I0714 21:19:38.797731 23892 net.cpp:425] inception_4b/relu_5x5_reduce <- inception_4b/5x5_reduce
I0714 21:19:38.797739 23892 net.cpp:386] inception_4b/relu_5x5_reduce -> inception_4b/5x5_reduce (in-place)
I0714 21:19:38.798226 23892 net.cpp:141] Setting up inception_4b/relu_5x5_reduce
I0714 21:19:38.798243 23892 net.cpp:148] Top shape: 10 24 14 14 (47040)
I0714 21:19:38.798248 23892 net.cpp:156] Memory required for data: 397770240
I0714 21:19:38.798255 23892 layer_factory.hpp:77] Creating layer inception_4b/5x5
I0714 21:19:38.798272 23892 net.cpp:91] Creating Layer inception_4b/5x5
I0714 21:19:38.798279 23892 net.cpp:425] inception_4b/5x5 <- inception_4b/5x5_reduce
I0714 21:19:38.798292 23892 net.cpp:399] inception_4b/5x5 -> inception_4b/5x5
I0714 21:19:38.798305 23888 net.cpp:141] Setting up inception_4b/5x5_reduce
I0714 21:19:38.798322 23888 net.cpp:148] Top shape: 10 24 14 14 (47040)
I0714 21:19:38.798327 23888 net.cpp:156] Memory required for data: 397582080
I0714 21:19:38.798339 23888 layer_factory.hpp:77] Creating layer inception_4b/relu_5x5_reduce
I0714 21:19:38.798353 23888 net.cpp:91] Creating Layer inception_4b/relu_5x5_reduce
I0714 21:19:38.798364 23888 net.cpp:425] inception_4b/relu_5x5_reduce <- inception_4b/5x5_reduce
I0714 21:19:38.798378 23888 net.cpp:386] inception_4b/relu_5x5_reduce -> inception_4b/5x5_reduce (in-place)
I0714 21:19:38.798894 23888 net.cpp:141] Setting up inception_4b/relu_5x5_reduce
I0714 21:19:38.798910 23888 net.cpp:148] Top shape: 10 24 14 14 (47040)
I0714 21:19:38.798915 23888 net.cpp:156] Memory required for data: 397770240
I0714 21:19:38.798920 23888 layer_factory.hpp:77] Creating layer inception_4b/5x5
I0714 21:19:38.798940 23888 net.cpp:91] Creating Layer inception_4b/5x5
I0714 21:19:38.798948 23888 net.cpp:425] inception_4b/5x5 <- inception_4b/5x5_reduce
I0714 21:19:38.798962 23888 net.cpp:399] inception_4b/5x5 -> inception_4b/5x5
I0714 21:19:38.807176 23892 net.cpp:141] Setting up inception_4b/5x5
I0714 21:19:38.807215 23892 net.cpp:148] Top shape: 10 64 14 14 (125440)
I0714 21:19:38.807221 23892 net.cpp:156] Memory required for data: 398272000
I0714 21:19:38.807235 23892 layer_factory.hpp:77] Creating layer inception_4b/relu_5x5
I0714 21:19:38.807258 23892 net.cpp:91] Creating Layer inception_4b/relu_5x5
I0714 21:19:38.807268 23892 net.cpp:425] inception_4b/relu_5x5 <- inception_4b/5x5
I0714 21:19:38.807282 23892 net.cpp:386] inception_4b/relu_5x5 -> inception_4b/5x5 (in-place)
I0714 21:19:38.807883 23892 net.cpp:141] Setting up inception_4b/relu_5x5
I0714 21:19:38.807899 23892 net.cpp:148] Top shape: 10 64 14 14 (125440)
I0714 21:19:38.807904 23892 net.cpp:156] Memory required for data: 398773760
I0714 21:19:38.807910 23892 layer_factory.hpp:77] Creating layer inception_4b/pool
I0714 21:19:38.807925 23892 net.cpp:91] Creating Layer inception_4b/pool
I0714 21:19:38.807932 23892 net.cpp:425] inception_4b/pool <- inception_4a/output_inception_4a/output_0_split_3
I0714 21:19:38.807941 23892 net.cpp:399] inception_4b/pool -> inception_4b/pool
I0714 21:19:38.808233 23892 net.cpp:141] Setting up inception_4b/pool
I0714 21:19:38.808246 23892 net.cpp:148] Top shape: 10 512 14 14 (1003520)
I0714 21:19:38.808251 23892 net.cpp:156] Memory required for data: 402787840
I0714 21:19:38.808256 23892 layer_factory.hpp:77] Creating layer inception_4b/pool_proj
I0714 21:19:38.808280 23892 net.cpp:91] Creating Layer inception_4b/pool_proj
I0714 21:19:38.808286 23892 net.cpp:425] inception_4b/pool_proj <- inception_4b/pool
I0714 21:19:38.808296 23892 net.cpp:399] inception_4b/pool_proj -> inception_4b/pool_proj
I0714 21:19:38.808328 23888 net.cpp:141] Setting up inception_4b/5x5
I0714 21:19:38.808383 23888 net.cpp:148] Top shape: 10 64 14 14 (125440)
I0714 21:19:38.808394 23888 net.cpp:156] Memory required for data: 398272000
I0714 21:19:38.808425 23888 layer_factory.hpp:77] Creating layer inception_4b/relu_5x5
I0714 21:19:38.808456 23888 net.cpp:91] Creating Layer inception_4b/relu_5x5
I0714 21:19:38.808471 23888 net.cpp:425] inception_4b/relu_5x5 <- inception_4b/5x5
I0714 21:19:38.808490 23888 net.cpp:386] inception_4b/relu_5x5 -> inception_4b/5x5 (in-place)
I0714 21:19:38.809273 23888 net.cpp:141] Setting up inception_4b/relu_5x5
I0714 21:19:38.809303 23888 net.cpp:148] Top shape: 10 64 14 14 (125440)
I0714 21:19:38.809312 23888 net.cpp:156] Memory required for data: 398773760
I0714 21:19:38.809321 23888 layer_factory.hpp:77] Creating layer inception_4b/pool
I0714 21:19:38.809348 23888 net.cpp:91] Creating Layer inception_4b/pool
I0714 21:19:38.809361 23888 net.cpp:425] inception_4b/pool <- inception_4a/output_inception_4a/output_0_split_3
I0714 21:19:38.809381 23888 net.cpp:399] inception_4b/pool -> inception_4b/pool
I0714 21:19:38.809643 23888 net.cpp:141] Setting up inception_4b/pool
I0714 21:19:38.809662 23888 net.cpp:148] Top shape: 10 512 14 14 (1003520)
I0714 21:19:38.809670 23888 net.cpp:156] Memory required for data: 402787840
I0714 21:19:38.809679 23888 layer_factory.hpp:77] Creating layer inception_4b/pool_proj
I0714 21:19:38.809725 23888 net.cpp:91] Creating Layer inception_4b/pool_proj
I0714 21:19:38.809736 23888 net.cpp:425] inception_4b/pool_proj <- inception_4b/pool
I0714 21:19:38.809753 23888 net.cpp:399] inception_4b/pool_proj -> inception_4b/pool_proj
I0714 21:19:38.813978 23892 net.cpp:141] Setting up inception_4b/pool_proj
I0714 21:19:38.814015 23892 net.cpp:148] Top shape: 10 64 14 14 (125440)
I0714 21:19:38.814023 23892 net.cpp:156] Memory required for data: 403289600
I0714 21:19:38.814038 23892 layer_factory.hpp:77] Creating layer inception_4b/relu_pool_proj
I0714 21:19:38.814051 23892 net.cpp:91] Creating Layer inception_4b/relu_pool_proj
I0714 21:19:38.814059 23892 net.cpp:425] inception_4b/relu_pool_proj <- inception_4b/pool_proj
I0714 21:19:38.814069 23892 net.cpp:386] inception_4b/relu_pool_proj -> inception_4b/pool_proj (in-place)
I0714 21:19:38.816717 23892 net.cpp:141] Setting up inception_4b/relu_pool_proj
I0714 21:19:38.816738 23892 net.cpp:148] Top shape: 10 64 14 14 (125440)
I0714 21:19:38.816745 23892 net.cpp:156] Memory required for data: 403791360
I0714 21:19:38.816750 23892 layer_factory.hpp:77] Creating layer inception_4b/output
I0714 21:19:38.816763 23892 net.cpp:91] Creating Layer inception_4b/output
I0714 21:19:38.816771 23892 net.cpp:425] inception_4b/output <- inception_4b/1x1
I0714 21:19:38.816778 23892 net.cpp:425] inception_4b/output <- inception_4b/3x3
I0714 21:19:38.816786 23892 net.cpp:425] inception_4b/output <- inception_4b/5x5
I0714 21:19:38.816792 23892 net.cpp:425] inception_4b/output <- inception_4b/pool_proj
I0714 21:19:38.816798 23892 net.cpp:399] inception_4b/output -> inception_4b/output
I0714 21:19:38.817711 23892 net.cpp:141] Setting up inception_4b/output
I0714 21:19:38.817728 23892 net.cpp:148] Top shape: 10 512 14 14 (1003520)
I0714 21:19:38.817733 23892 net.cpp:156] Memory required for data: 407805440
I0714 21:19:38.817737 23892 layer_factory.hpp:77] Creating layer inception_4b/output_inception_4b/output_0_split
I0714 21:19:38.817749 23892 net.cpp:91] Creating Layer inception_4b/output_inception_4b/output_0_split
I0714 21:19:38.817754 23892 net.cpp:425] inception_4b/output_inception_4b/output_0_split <- inception_4b/output
I0714 21:19:38.817766 23892 net.cpp:399] inception_4b/output_inception_4b/output_0_split -> inception_4b/output_inception_4b/output_0_split_0
I0714 21:19:38.817777 23892 net.cpp:399] inception_4b/output_inception_4b/output_0_split -> inception_4b/output_inception_4b/output_0_split_1
I0714 21:19:38.817787 23892 net.cpp:399] inception_4b/output_inception_4b/output_0_split -> inception_4b/output_inception_4b/output_0_split_2
I0714 21:19:38.817796 23892 net.cpp:399] inception_4b/output_inception_4b/output_0_split -> inception_4b/output_inception_4b/output_0_split_3
I0714 21:19:38.818471 23892 net.cpp:141] Setting up inception_4b/output_inception_4b/output_0_split
I0714 21:19:38.818486 23892 net.cpp:148] Top shape: 10 512 14 14 (1003520)
I0714 21:19:38.818493 23892 net.cpp:148] Top shape: 10 512 14 14 (1003520)
I0714 21:19:38.818500 23892 net.cpp:148] Top shape: 10 512 14 14 (1003520)
I0714 21:19:38.818505 23892 net.cpp:148] Top shape: 10 512 14 14 (1003520)
I0714 21:19:38.818509 23892 net.cpp:156] Memory required for data: 423861760
I0714 21:19:38.818514 23892 layer_factory.hpp:77] Creating layer inception_4c/1x1
I0714 21:19:38.818533 23892 net.cpp:91] Creating Layer inception_4c/1x1
I0714 21:19:38.818541 23892 net.cpp:425] inception_4c/1x1 <- inception_4b/output_inception_4b/output_0_split_0
I0714 21:19:38.818553 23892 net.cpp:399] inception_4c/1x1 -> inception_4c/1x1
I0714 21:19:38.819869 23888 net.cpp:141] Setting up inception_4b/pool_proj
I0714 21:19:38.819905 23888 net.cpp:148] Top shape: 10 64 14 14 (125440)
I0714 21:19:38.819913 23888 net.cpp:156] Memory required for data: 403289600
I0714 21:19:38.819928 23888 layer_factory.hpp:77] Creating layer inception_4b/relu_pool_proj
I0714 21:19:38.819949 23888 net.cpp:91] Creating Layer inception_4b/relu_pool_proj
I0714 21:19:38.819960 23888 net.cpp:425] inception_4b/relu_pool_proj <- inception_4b/pool_proj
I0714 21:19:38.819973 23888 net.cpp:386] inception_4b/relu_pool_proj -> inception_4b/pool_proj (in-place)
I0714 21:19:38.821363 23888 net.cpp:141] Setting up inception_4b/relu_pool_proj
I0714 21:19:38.821389 23888 net.cpp:148] Top shape: 10 64 14 14 (125440)
I0714 21:19:38.821398 23888 net.cpp:156] Memory required for data: 403791360
I0714 21:19:38.821419 23888 layer_factory.hpp:77] Creating layer inception_4b/output
…
I0714 21:19:38.968006 23892 net.cpp:141] Setting up inception_4e/5x5
I0714 21:19:38.968022 23892 net.cpp:148] Top shape: 10 128 14 14 (250880)
I0714 21:19:38.968029 23892 net.cpp:156] Memory required for data: 507153920
I0714 21:19:38.968039 23892 layer_factory.hpp:77] Creating layer inception_4e/relu_5x5
I0714 21:19:38.968050 23892 net.cpp:91] Creating Layer inception_4e/relu_5x5
I0714 21:19:38.968057 23892 net.cpp:425] inception_4e/relu_5x5 <- inception_4e/5x5
I0714 21:19:38.968065 23892 net.cpp:386] inception_4e/relu_5x5 -> inception_4e/5x5 (in-place)
I0714 21:19:38.968067 23888 net.cpp:141] Setting up inception_4e/relu_5x5_reduce
I0714 21:19:38.968080 23888 net.cpp:148] Top shape: 10 32 14 14 (62720)
I0714 21:19:38.968086 23888 net.cpp:156] Memory required for data: 506150400
I0714 21:19:38.968091 23888 layer_factory.hpp:77] Creating layer inception_4e/5x5
I0714 21:19:38.968113 23888 net.cpp:91] Creating Layer inception_4e/5x5
I0714 21:19:38.968122 23888 net.cpp:425] inception_4e/5x5 <- inception_4e/5x5_reduce
I0714 21:19:38.968133 23888 net.cpp:399] inception_4e/5x5 -> inception_4e/5x5
I0714 21:19:38.968513 23892 net.cpp:141] Setting up inception_4e/relu_5x5
I0714 21:19:38.968526 23892 net.cpp:148] Top shape: 10 128 14 14 (250880)
I0714 21:19:38.968531 23892 net.cpp:156] Memory required for data: 508157440
I0714 21:19:38.968536 23892 layer_factory.hpp:77] Creating layer inception_4e/pool
I0714 21:19:38.968556 23892 net.cpp:91] Creating Layer inception_4e/pool
I0714 21:19:38.968564 23892 net.cpp:425] inception_4e/pool <- inception_4d/output_inception_4d/output_0_split_3
I0714 21:19:38.968575 23892 net.cpp:399] inception_4e/pool -> inception_4e/pool
I0714 21:19:38.968879 23892 net.cpp:141] Setting up inception_4e/pool
I0714 21:19:38.968893 23892 net.cpp:148] Top shape: 10 528 14 14 (1034880)
I0714 21:19:38.968897 23892 net.cpp:156] Memory required for data: 512296960
I0714 21:19:38.968902 23892 layer_factory.hpp:77] Creating layer inception_4e/pool_proj
I0714 21:19:38.968922 23892 net.cpp:91] Creating Layer inception_4e/pool_proj
I0714 21:19:38.968930 23892 net.cpp:425] inception_4e/pool_proj <- inception_4e/pool
I0714 21:19:38.968940 23892 net.cpp:399] inception_4e/pool_proj -> inception_4e/pool_proj
I0714 21:19:38.974817 23888 net.cpp:141] Setting up inception_4e/5x5
I0714 21:19:38.974836 23888 net.cpp:148] Top shape: 10 128 14 14 (250880)
I0714 21:19:38.974843 23888 net.cpp:156] Memory required for data: 507153920
I0714 21:19:38.974853 23888 layer_factory.hpp:77] Creating layer inception_4e/relu_5x5
I0714 21:19:38.974864 23888 net.cpp:91] Creating Layer inception_4e/relu_5x5
I0714 21:19:38.974870 23888 net.cpp:425] inception_4e/relu_5x5 <- inception_4e/5x5
I0714 21:19:38.974884 23888 net.cpp:386] inception_4e/relu_5x5 -> inception_4e/5x5 (in-place)
I0714 21:19:38.975340 23888 net.cpp:141] Setting up inception_4e/relu_5x5
I0714 21:19:38.975358 23888 net.cpp:148] Top shape: 10 128 14 14 (250880)
I0714 21:19:38.975364 23888 net.cpp:156] Memory required for data: 508157440
I0714 21:19:38.975370 23888 layer_factory.hpp:77] Creating layer inception_4e/pool
I0714 21:19:38.975384 23888 net.cpp:91] Creating Layer inception_4e/pool
I0714 21:19:38.975391 23888 net.cpp:425] inception_4e/pool <- inception_4d/output_inception_4d/output_0_split_3
I0714 21:19:38.975399 23888 net.cpp:399] inception_4e/pool -> inception_4e/pool
I0714 21:19:38.975641 23888 net.cpp:141] Setting up inception_4e/pool
I0714 21:19:38.975647 23892 net.cpp:141] Setting up inception_4e/pool_proj
I0714 21:19:38.975656 23888 net.cpp:148] Top shape: 10 528 14 14 (1034880)
I0714 21:19:38.975661 23888 net.cpp:156] Memory required for data: 512296960
I0714 21:19:38.975664 23892 net.cpp:148] Top shape: 10 128 14 14 (250880)
I0714 21:19:38.975667 23888 layer_factory.hpp:77] Creating layer inception_4e/pool_proj
I0714 21:19:38.975670 23892 net.cpp:156] Memory required for data: 513300480
I0714 21:19:38.975682 23888 net.cpp:91] Creating Layer inception_4e/pool_proj
I0714 21:19:38.975684 23892 layer_factory.hpp:77] Creating layer inception_4e/relu_pool_proj
I0714 21:19:38.975689 23888 net.cpp:425] inception_4e/pool_proj <- inception_4e/pool
I0714 21:19:38.975694 23892 net.cpp:91] Creating Layer inception_4e/relu_pool_proj
I0714 21:19:38.975702 23892 net.cpp:425] inception_4e/relu_pool_proj <- inception_4e/pool_proj
I0714 21:19:38.975703 23888 net.cpp:399] inception_4e/pool_proj -> inception_4e/pool_proj
I0714 21:19:38.975713 23892 net.cpp:386] inception_4e/relu_pool_proj -> inception_4e/pool_proj (in-place)
I0714 21:19:38.976773 23892 net.cpp:141] Setting up inception_4e/relu_pool_proj
I0714 21:19:38.976788 23892 net.cpp:148] Top shape: 10 128 14 14 (250880)
I0714 21:19:38.976794 23892 net.cpp:156] Memory required for data: 514304000
I0714 21:19:38.976800 23892 layer_factory.hpp:77] Creating layer inception_4e/output
I0714 21:19:38.976815 23892 net.cpp:91] Creating Layer inception_4e/output
I0714 21:19:38.976822 23892 net.cpp:425] inception_4e/output <- inception_4e/1x1
I0714 21:19:38.976830 23892 net.cpp:425] inception_4e/output <- inception_4e/3x3
I0714 21:19:38.976836 23892 net.cpp:425] inception_4e/output <- inception_4e/5x5
I0714 21:19:38.976842 23892 net.cpp:425] inception_4e/output <- inception_4e/pool_proj
I0714 21:19:38.976850 23892 net.cpp:399] inception_4e/output -> inception_4e/output
I0714 21:19:38.976999 23892 net.cpp:141] Setting up inception_4e/output
I0714 21:19:38.977011 23892 net.cpp:148] Top shape: 10 832 14 14 (1630720)
I0714 21:19:38.977016 23892 net.cpp:156] Memory required for data: 520826880
I0714 21:19:38.977021 23892 layer_factory.hpp:77] Creating layer pool4/3x3_s2
I0714 21:19:38.977035 23892 net.cpp:91] Creating Layer pool4/3x3_s2
I0714 21:19:38.977042 23892 net.cpp:425] pool4/3x3_s2 <- inception_4e/output
I0714 21:19:38.977053 23892 net.cpp:399] pool4/3x3_s2 -> pool4/3x3_s2
I0714 21:19:38.977227 23892 net.cpp:141] Setting up pool4/3x3_s2
I0714 21:19:38.977239 23892 net.cpp:148] Top shape: 10 832 7 7 (407680)
I0714 21:19:38.977244 23892 net.cpp:156] Memory required for data: 522457600
I0714 21:19:38.977252 23892 layer_factory.hpp:77] Creating layer pool4/3x3_s2_pool4/3x3_s2_0_split
I0714 21:19:38.977267 23892 net.cpp:91] Creating Layer pool4/3x3_s2_pool4/3x3_s2_0_split
I0714 21:19:38.977272 23892 net.cpp:425] pool4/3x3_s2_pool4/3x3_s2_0_split <- pool4/3x3_s2
I0714 21:19:38.977282 23892 net.cpp:399] pool4/3x3_s2_pool4/3x3_s2_0_split -> pool4/3x3_s2_pool4/3x3_s2_0_split_0
I0714 21:19:38.977291 23892 net.cpp:399] pool4/3x3_s2_pool4/3x3_s2_0_split -> pool4/3x3_s2_pool4/3x3_s2_0_split_1
I0714 21:19:38.977303 23892 net.cpp:399] pool4/3x3_s2_pool4/3x3_s2_0_split -> pool4/3x3_s2_pool4/3x3_s2_0_split_2
I0714 21:19:38.977311 23892 net.cpp:399] pool4/3x3_s2_pool4/3x3_s2_0_split -> pool4/3x3_s2_pool4/3x3_s2_0_split_3
I0714 21:19:38.977536 23892 net.cpp:141] Setting up pool4/3x3_s2_pool4/3x3_s2_0_split
I0714 21:19:38.977547 23892 net.cpp:148] Top shape: 10 832 7 7 (407680)
I0714 21:19:38.977555 23892 net.cpp:148] Top shape: 10 832 7 7 (407680)
I0714 21:19:38.977560 23892 net.cpp:148] Top shape: 10 832 7 7 (407680)
I0714 21:19:38.977566 23892 net.cpp:148] Top shape: 10 832 7 7 (407680)
I0714 21:19:38.977569 23892 net.cpp:156] Memory required for data: 528980480
I0714 21:19:38.977574 23892 layer_factory.hpp:77] Creating layer inception_5a/1x1
I0714 21:19:38.977593 23892 net.cpp:91] Creating Layer inception_5a/1x1
I0714 21:19:38.977601 23892 net.cpp:425] inception_5a/1x1 <- pool4/3x3_s2_pool4/3x3_s2_0_split_0
I0714 21:19:38.977610 23892 net.cpp:399] inception_5a/1x1 -> inception_5a/1x1
I0714 21:19:38.981952 23888 net.cpp:141] Setting up inception_4e/pool_proj
I0714 21:19:38.981974 23888 net.cpp:148] Top shape: 10 128 14 14 (250880)
I0714 21:19:38.981981 23888 net.cpp:156] Memory required for data: 513300480
I0714 21:19:38.981991 23888 layer_factory.hpp:77] Creating layer inception_4e/relu_pool_proj
I0714 21:19:38.982004 23888 net.cpp:91] Creating Layer inception_4e/relu_pool_proj
I0714 21:19:38.982013 23888 net.cpp:425] inception_4e/relu_pool_proj <- inception_4e/pool_proj
I0714 21:19:38.982023 23888 net.cpp:386] inception_4e/relu_pool_proj -> inception_4e/pool_proj (in-place)
I0714 21:19:38.982900 23888 net.cpp:141] Setting up inception_4e/relu_pool_proj
I0714 21:19:38.982919 23888 net.cpp:148] Top shape: 10 128 14 14 (250880)
I0714 21:19:38.982924 23888 net.cpp:156] Memory required for data: 514304000
I0714 21:19:38.982930 23888 layer_factory.hpp:77] Creating layer inception_4e/output
I0714 21:19:38.982944 23888 net.cpp:91] Creating Layer inception_4e/output
I0714 21:19:38.982951 23888 net.cpp:425] inception_4e/output <- inception_4e/1x1
I0714 21:19:38.982959 23888 net.cpp:425] inception_4e/output <- inception_4e/3x3
I0714 21:19:38.982965 23888 net.cpp:425] inception_4e/output <- inception_4e/5x5
I0714 21:19:38.982971 23888 net.cpp:425] inception_4e/output <- inception_4e/pool_proj
I0714 21:19:38.982978 23888 net.cpp:399] inception_4e/output -> inception_4e/output
I0714 21:19:38.983067 23888 net.cpp:141] Setting up inception_4e/output
I0714 21:19:38.983078 23888 net.cpp:148] Top shape: 10 832 14 14 (1630720)
I0714 21:19:38.983084 23888 net.cpp:156] Memory required for data: 520826880
I0714 21:19:38.983090 23888 layer_factory.hpp:77] Creating layer pool4/3x3_s2
I0714 21:19:38.983099 23888 net.cpp:91] Creating Layer pool4/3x3_s2
I0714 21:19:38.983105 23888 net.cpp:425] pool4/3x3_s2 <- inception_4e/output
I0714 21:19:38.983114 23888 net.cpp:399] pool4/3x3_s2 -> pool4/3x3_s2
I0714 21:19:38.983248 23888 net.cpp:141] Setting up pool4/3x3_s2
I0714 21:19:38.983259 23888 net.cpp:148] Top shape: 10 832 7 7 (407680)
I0714 21:19:38.983264 23888 net.cpp:156] Memory required for data: 522457600
I0714 21:19:38.983269 23888 layer_factory.hpp:77] Creating layer pool4/3x3_s2_pool4/3x3_s2_0_split
I0714 21:19:38.983281 23888 net.cpp:91] Creating Layer pool4/3x3_s2_pool4/3x3_s2_0_split
I0714 21:19:38.983288 23888 net.cpp:425] pool4/3x3_s2_pool4/3x3_s2_0_split <- pool4/3x3_s2
I0714 21:19:38.983294 23888 net.cpp:399] pool4/3x3_s2_pool4/3x3_s2_0_split -> pool4/3x3_s2_pool4/3x3_s2_0_split_0
I0714 21:19:38.983304 23888 net.cpp:399] pool4/3x3_s2_pool4/3x3_s2_0_split -> pool4/3x3_s2_pool4/3x3_s2_0_split_1
I0714 21:19:38.983314 23888 net.cpp:399] pool4/3x3_s2_pool4/3x3_s2_0_split -> pool4/3x3_s2_pool4/3x3_s2_0_split_2
I0714 21:19:38.983324 23888 net.cpp:399] pool4/3x3_s2_pool4/3x3_s2_0_split -> pool4/3x3_s2_pool4/3x3_s2_0_split_3
I0714 21:19:38.983650 23888 net.cpp:141] Setting up pool4/3x3_s2_pool4/3x3_s2_0_split
I0714 21:19:38.983664 23888 net.cpp:148] Top shape: 10 832 7 7 (407680)
I0714 21:19:38.983669 23888 net.cpp:148] Top shape: 10 832 7 7 (407680)
I0714 21:19:38.983675 23888 net.cpp:148] Top shape: 10 832 7 7 (407680)
I0714 21:19:38.983680 23888 net.cpp:148] Top shape: 10 832 7 7 (407680)
I0714 21:19:38.983685 23888 net.cpp:156] Memory required for data: 528980480
I0714 21:19:38.983691 23888 layer_factory.hpp:77] Creating layer inception_5a/1x1
I0714 21:19:38.983714 23888 net.cpp:91] Creating Layer inception_5a/1x1
I0714 21:19:38.983721 23888 net.cpp:425] inception_5a/1x1 <- pool4/3x3_s2_pool4/3x3_s2_0_split_0
I0714 21:19:38.983732 23888 net.cpp:399] inception_5a/1x1 -> inception_5a/1x1
I0714 21:19:38.988127 23892 net.cpp:141] Setting up inception_5a/1x1
I0714 21:19:38.988149 23892 net.cpp:148] Top shape: 10 256 7 7 (125440)
I0714 21:19:38.988155 23892 net.cpp:156] Memory required for data: 529482240
I0714 21:19:38.988165 23892 layer_factory.hpp:77] Creating layer inception_5a/relu_1x1
I0714 21:19:38.988180 23892 net.cpp:91] Creating Layer inception_5a/relu_1x1
I0714 21:19:38.988188 23892 net.cpp:425] inception_5a/relu_1x1 <- inception_5a/1x1
I0714 21:19:38.988195 23892 net.cpp:386] inception_5a/relu_1x1 -> inception_5a/1x1 (in-place)
I0714 21:19:38.988502 23892 net.cpp:141] Setting up inception_5a/relu_1x1
I0714 21:19:38.988514 23892 net.cpp:148] Top shape: 10 256 7 7 (125440)
I0714 21:19:38.988519 23892 net.cpp:156] Memory required for data: 529984000
I0714 21:19:38.988524 23892 layer_factory.hpp:77] Creating layer inception_5a/3x3_reduce
I0714 21:19:38.988544 23892 net.cpp:91] Creating Layer inception_5a/3x3_reduce
I0714 21:19:38.988551 23892 net.cpp:425] inception_5a/3x3_reduce <- pool4/3x3_s2_pool4/3x3_s2_0_split_1
I0714 21:19:38.988561 23892 net.cpp:399] inception_5a/3x3_reduce -> inception_5a/3x3_reduce
I0714 21:19:38.994885 23888 net.cpp:141] Setting up inception_5a/1x1
I0714 21:19:38.994906 23888 net.cpp:148] Top shape: 10 256 7 7 (125440)
I0714 21:19:38.994912 23888 net.cpp:156] Memory required for data: 529482240
I0714 21:19:38.994925 23888 layer_factory.hpp:77] Creating layer inception_5a/relu_1x1
I0714 21:19:38.994938 23888 net.cpp:91] Creating Layer inception_5a/relu_1x1
I0714 21:19:38.994946 23888 net.cpp:425] inception_5a/relu_1x1 <- inception_5a/1x1
I0714 21:19:38.994962 23888 net.cpp:386] inception_5a/relu_1x1 -> inception_5a/1x1 (in-place)
I0714 21:19:38.995373 23892 net.cpp:141] Setting up inception_5a/3x3_reduce
I0714 21:19:38.995388 23892 net.cpp:148] Top shape: 10 160 7 7 (78400)
I0714 21:19:38.995394 23892 net.cpp:156] Memory required for data: 530297600
I0714 21:19:38.995407 23892 layer_factory.hpp:77] Creating layer inception_5a/relu_3x3_reduce
I0714 21:19:38.995409 23888 net.cpp:141] Setting up inception_5a/relu_1x1
I0714 21:19:38.995417 23892 net.cpp:91] Creating Layer inception_5a/relu_3x3_reduce
I0714 21:19:38.995422 23888 net.cpp:148] Top shape: 10 256 7 7 (125440)
I0714 21:19:38.995424 23892 net.cpp:425] inception_5a/relu_3x3_reduce <- inception_5a/3x3_reduce
I0714 21:19:38.995429 23888 net.cpp:156] Memory required for data: 529984000
I0714 21:19:38.995434 23888 layer_factory.hpp:77] Creating layer inception_5a/3x3_reduce
I0714 21:19:38.995437 23892 net.cpp:386] inception_5a/relu_3x3_reduce -> inception_5a/3x3_reduce (in-place)
I0714 21:19:38.995452 23888 net.cpp:91] Creating Layer inception_5a/3x3_reduce
I0714 21:19:38.995460 23888 net.cpp:425] inception_5a/3x3_reduce <- pool4/3x3_s2_pool4/3x3_s2_0_split_1
I0714 21:19:38.995474 23888 net.cpp:399] inception_5a/3x3_reduce -> inception_5a/3x3_reduce
I0714 21:19:38.995879 23892 net.cpp:141] Setting up inception_5a/relu_3x3_reduce
I0714 21:19:38.995895 23892 net.cpp:148] Top shape: 10 160 7 7 (78400)
I0714 21:19:38.995900 23892 net.cpp:156] Memory required for data: 530611200
I0714 21:19:38.995905 23892 layer_factory.hpp:77] Creating layer inception_5a/3x3
I0714 21:19:38.995925 23892 net.cpp:91] Creating Layer inception_5a/3x3
I0714 21:19:38.995932 23892 net.cpp:425] inception_5a/3x3 <- inception_5a/3x3_reduce
I0714 21:19:38.995942 23892 net.cpp:399] inception_5a/3x3 -> inception_5a/3x3
I0714 21:19:39.004084 23888 net.cpp:141] Setting up inception_5a/3x3_reduce
I0714 21:19:39.004117 23888 net.cpp:148] Top shape: 10 160 7 7 (78400)
I0714 21:19:39.004122 23888 net.cpp:156] Memory required for data: 530297600
I0714 21:19:39.004135 23888 layer_factory.hpp:77] Creating layer inception_5a/relu_3x3_reduce
I0714 21:19:39.004148 23888 net.cpp:91] Creating Layer inception_5a/relu_3x3_reduce
I0714 21:19:39.004155 23888 net.cpp:425] inception_5a/relu_3x3_reduce <- inception_5a/3x3_reduce
I0714 21:19:39.004168 23888 net.cpp:386] inception_5a/relu_3x3_reduce -> inception_5a/3x3_reduce (in-place)
I0714 21:19:39.004493 23888 net.cpp:141] Setting up inception_5a/relu_3x3_reduce
I0714 21:19:39.004506 23888 net.cpp:148] Top shape: 10 160 7 7 (78400)
I0714 21:19:39.004511 23888 net.cpp:156] Memory required for data: 530611200
I0714 21:19:39.004528 23888 layer_factory.hpp:77] Creating layer inception_5a/3x3
I0714 21:19:39.004554 23888 net.cpp:91] Creating Layer inception_5a/3x3
I0714 21:19:39.004562 23888 net.cpp:425] inception_5a/3x3 <- inception_5a/3x3_reduce
I0714 21:19:39.004572 23888 net.cpp:399] inception_5a/3x3 -> inception_5a/3x3
I0714 21:19:39.012915 23892 net.cpp:141] Setting up inception_5a/3x3
I0714 21:19:39.012959 23892 net.cpp:148] Top shape: 10 320 7 7 (156800)
I0714 21:19:39.012965 23892 net.cpp:156] Memory required for data: 531238400
I0714 21:19:39.012984 23892 layer_factory.hpp:77] Creating layer inception_5a/relu_3x3
I0714 21:19:39.013000 23892 net.cpp:91] Creating Layer inception_5a/relu_3x3
I0714 21:19:39.013010 23892 net.cpp:425] inception_5a/relu_3x3 <- inception_5a/3x3
I0714 21:19:39.013021 23892 net.cpp:386] inception_5a/relu_3x3 -> inception_5a/3x3 (in-place)
I0714 21:19:39.014081 23892 net.cpp:141] Setting up inception_5a/relu_3x3
I0714 21:19:39.014102 23892 net.cpp:148] Top shape: 10 320 7 7 (156800)
I0714 21:19:39.014107 23892 net.cpp:156] Memory required for data: 531865600
I0714 21:19:39.014114 23892 layer_factory.hpp:77] Creating layer inception_5a/5x5_reduce
I0714 21:19:39.014139 23892 net.cpp:91] Creating Layer inception_5a/5x5_reduce
I0714 21:19:39.014147 23892 net.cpp:425] inception_5a/5x5_reduce <- pool4/3x3_s2_pool4/3x3_s2_0_split_2
I0714 21:19:39.014159 23892 net.cpp:399] inception_5a/5x5_reduce -> inception_5a/5x5_reduce
I0714 21:19:39.019696 23892 net.cpp:141] Setting up inception_5a/5x5_reduce
I0714 21:19:39.019723 23892 net.cpp:148] Top shape: 10 32 7 7 (15680)
I0714 21:19:39.019729 23892 net.cpp:156] Memory required for data: 531928320
I0714 21:19:39.019744 23892 layer_factory.hpp:77] Creating layer inception_5a/relu_5x5_reduce
I0714 21:19:39.019762 23892 net.cpp:91] Creating Layer inception_5a/relu_5x5_reduce
I0714 21:19:39.019770 23892 net.cpp:425] inception_5a/relu_5x5_reduce <- inception_5a/5x5_reduce
I0714 21:19:39.019779 23892 net.cpp:386] inception_5a/relu_5x5_reduce -> inception_5a/5x5_reduce (in-place)
I0714 21:19:39.020269 23892 net.cpp:141] Setting up inception_5a/relu_5x5_reduce
I0714 21:19:39.020283 23892 net.cpp:148] Top shape: 10 32 7 7 (15680)
I0714 21:19:39.020288 23892 net.cpp:156] Memory required for data: 531991040
I0714 21:19:39.020294 23892 layer_factory.hpp:77] Creating layer inception_5a/5x5
I0714 21:19:39.020313 23892 net.cpp:91] Creating Layer inception_5a/5x5
I0714 21:19:39.020321 23892 net.cpp:425] inception_5a/5x5 <- inception_5a/5x5_reduce
I0714 21:19:39.020334 23892 net.cpp:399] inception_5a/5x5 -> inception_5a/5x5
I0714 21:19:39.021216 23888 net.cpp:141] Setting up inception_5a/3x3
I0714 21:19:39.021239 23888 net.cpp:148] Top shape: 10 320 7 7 (156800)
I0714 21:19:39.021245 23888 net.cpp:156] Memory required for data: 531238400
I0714 21:19:39.021258 23888 layer_factory.hpp:77] Creating layer inception_5a/relu_3x3
I0714 21:19:39.021270 23888 net.cpp:91] Creating Layer inception_5a/relu_3x3
I0714 21:19:39.021278 23888 net.cpp:425] inception_5a/relu_3x3 <- inception_5a/3x3
I0714 21:19:39.021287 23888 net.cpp:386] inception_5a/relu_3x3 -> inception_5a/3x3 (in-place)
I0714 21:19:39.022366 23888 net.cpp:141] Setting up inception_5a/relu_3x3
I0714 21:19:39.022382 23888 net.cpp:148] Top shape: 10 320 7 7 (156800)
I0714 21:19:39.022388 23888 net.cpp:156] Memory required for data: 531865600
I0714 21:19:39.022394 23888 layer_factory.hpp:77] Creating layer inception_5a/5x5_reduce
I0714 21:19:39.022413 23888 net.cpp:91] Creating Layer inception_5a/5x5_reduce
I0714 21:19:39.022421 23888 net.cpp:425] inception_5a/5x5_reduce <- pool4/3x3_s2_pool4/3x3_s2_0_split_2
I0714 21:19:39.022433 23888 net.cpp:399] inception_5a/5x5_reduce -> inception_5a/5x5_reduce
I0714 21:19:39.026707 23892 net.cpp:141] Setting up inception_5a/5x5
I0714 21:19:39.026749 23892 net.cpp:148] Top shape: 10 128 7 7 (62720)
I0714 21:19:39.026759 23892 net.cpp:156] Memory required for data: 532241920
I0714 21:19:39.026772 23892 layer_factory.hpp:77] Creating layer inception_5a/relu_5x5
I0714 21:19:39.026813 23892 net.cpp:91] Creating Layer inception_5a/relu_5x5
I0714 21:19:39.026820 23892 net.cpp:425] inception_5a/relu_5x5 <- inception_5a/5x5
I0714 21:19:39.026829 23892 net.cpp:386] inception_5a/relu_5x5 -> inception_5a/5x5 (in-place)
I0714 21:19:39.027233 23888 net.cpp:141] Setting up inception_5a/5x5_reduce
I0714 21:19:39.027251 23888 net.cpp:148] Top shape: 10 32 7 7 (15680)
I0714 21:19:39.027256 23888 net.cpp:156] Memory required for data: 531928320
I0714 21:19:39.027264 23892 net.cpp:141] Setting up inception_5a/relu_5x5
I0714 21:19:39.027267 23888 layer_factory.hpp:77] Creating layer inception_5a/relu_5x5_reduce
I0714 21:19:39.027277 23892 net.cpp:148] Top shape: 10 128 7 7 (62720)
I0714 21:19:39.027283 23892 net.cpp:156] Memory required for data: 532492800
I0714 21:19:39.027286 23888 net.cpp:91] Creating Layer inception_5a/relu_5x5_reduce
I0714 21:19:39.027289 23892 layer_factory.hpp:77] Creating layer inception_5a/pool
I0714 21:19:39.027293 23888 net.cpp:425] inception_5a/relu_5x5_reduce <- inception_5a/5x5_reduce
I0714 21:19:39.027302 23888 net.cpp:386] inception_5a/relu_5x5_reduce -> inception_5a/5x5_reduce (in-place)
I0714 21:19:39.027302 23892 net.cpp:91] Creating Layer inception_5a/pool
I0714 21:19:39.027310 23892 net.cpp:425] inception_5a/pool <- pool4/3x3_s2_pool4/3x3_s2_0_split_3
I0714 21:19:39.027328 23892 net.cpp:399] inception_5a/pool -> inception_5a/pool
I0714 21:19:39.027647 23892 net.cpp:141] Setting up inception_5a/pool
I0714 21:19:39.027660 23892 net.cpp:148] Top shape: 10 832 7 7 (407680)
I0714 21:19:39.027665 23892 net.cpp:156] Memory required for data: 534123520
I0714 21:19:39.027672 23892 layer_factory.hpp:77] Creating layer inception_5a/pool_proj
I0714 21:19:39.027693 23892 net.cpp:91] Creating Layer inception_5a/pool_proj
I0714 21:19:39.027699 23892 net.cpp:425] inception_5a/pool_proj <- inception_5a/pool
I0714 21:19:39.027714 23892 net.cpp:399] inception_5a/pool_proj -> inception_5a/pool_proj
I0714 21:19:39.027740 23888 net.cpp:141] Setting up inception_5a/relu_5x5_reduce
I0714 21:19:39.027753 23888 net.cpp:148] Top shape: 10 32 7 7 (15680)
I0714 21:19:39.027760 23888 net.cpp:156] Memory required for data: 531991040
I0714 21:19:39.027765 23888 layer_factory.hpp:77] Creating layer inception_5a/5x5
I0714 21:19:39.027783 23888 net.cpp:91] Creating Layer inception_5a/5x5
I0714 21:19:39.027791 23888 net.cpp:425] inception_5a/5x5 <- inception_5a/5x5_reduce
I0714 21:19:39.027799 23888 net.cpp:399] inception_5a/5x5 -> inception_5a/5x5
I0714 21:19:39.035320 23892 net.cpp:141] Setting up inception_5a/pool_proj
I0714 21:19:39.035357 23892 net.cpp:148] Top shape: 10 128 7 7 (62720)
I0714 21:19:39.035364 23892 net.cpp:156] Memory required for data: 534374400
I0714 21:19:39.035377 23892 layer_factory.hpp:77] Creating layer inception_5a/relu_pool_proj
I0714 21:19:39.035395 23892 net.cpp:91] Creating Layer inception_5a/relu_pool_proj
I0714 21:19:39.035403 23892 net.cpp:425] inception_5a/relu_pool_proj <- inception_5a/pool_proj
I0714 21:19:39.035413 23892 net.cpp:386] inception_5a/relu_pool_proj -> inception_5a/pool_proj (in-place)
I0714 21:19:39.036396 23888 net.cpp:141] Setting up inception_5a/5x5
I0714 21:19:39.036418 23888 net.cpp:148] Top shape: 10 128 7 7 (62720)
I0714 21:19:39.036424 23888 net.cpp:156] Memory required for data: 532241920
I0714 21:19:39.036437 23888 layer_factory.hpp:77] Creating layer inception_5a/relu_5x5
I0714 21:19:39.036489 23888 net.cpp:91] Creating Layer inception_5a/relu_5x5
I0714 21:19:39.036500 23888 net.cpp:425] inception_5a/relu_5x5 <- inception_5a/5x5
I0714 21:19:39.036510 23888 net.cpp:386] inception_5a/relu_5x5 -> inception_5a/5x5 (in-place)
I0714 21:19:39.036509 23892 net.cpp:141] Setting up inception_5a/relu_pool_proj
I0714 21:19:39.036525 23892 net.cpp:148] Top shape: 10 128 7 7 (62720)
I0714 21:19:39.036535 23892 net.cpp:156] Memory required for data: 534625280
I0714 21:19:39.036541 23892 layer_factory.hpp:77] Creating layer inception_5a/output
I0714 21:19:39.036555 23892 net.cpp:91] Creating Layer inception_5a/output
I0714 21:19:39.036561 23892 net.cpp:425] inception_5a/output <- inception_5a/1x1
I0714 21:19:39.036568 23892 net.cpp:425] inception_5a/output <- inception_5a/3x3
I0714 21:19:39.036576 23892 net.cpp:425] inception_5a/output <- inception_5a/5x5
I0714 21:19:39.036581 23892 net.cpp:425] inception_5a/output <- inception_5a/pool_proj
I0714 21:19:39.036588 23892 net.cpp:399] inception_5a/output -> inception_5a/output
I0714 21:19:39.036792 23892 net.cpp:141] Setting up inception_5a/output
I0714 21:19:39.036808 23892 net.cpp:148] Top shape: 10 832 7 7 (407680)
I0714 21:19:39.036813 23892 net.cpp:156] Memory required for data: 536256000
I0714 21:19:39.036818 23892 layer_factory.hpp:77] Creating layer inception_5a/output_inception_5a/output_0_split
I0714 21:19:39.036828 23892 net.cpp:91] Creating Layer inception_5a/output_inception_5a/output_0_split
I0714 21:19:39.036834 23892 net.cpp:425] inception_5a/output_inception_5a/output_0_split <- inception_5a/output
I0714 21:19:39.036842 23892 net.cpp:399] inception_5a/output_inception_5a/output_0_split -> inception_5a/output_inception_5a/output_0_split_0
I0714 21:19:39.036854 23892 net.cpp:399] inception_5a/output_inception_5a/output_0_split -> inception_5a/output_inception_5a/output_0_split_1
I0714 21:19:39.036866 23892 net.cpp:399] inception_5a/output_inception_5a/output_0_split -> inception_5a/output_inception_5a/output_0_split_2
I0714 21:19:39.036876 23892 net.cpp:399] inception_5a/output_inception_5a/output_0_split -> inception_5a/output_inception_5a/output_0_split_3
I0714 21:19:39.036908 23888 net.cpp:141] Setting up inception_5a/relu_5x5
I0714 21:19:39.036926 23888 net.cpp:148] Top shape: 10 128 7 7 (62720)
I0714 21:19:39.036931 23888 net.cpp:156] Memory required for data: 532492800
I0714 21:19:39.036936 23888 layer_factory.hpp:77] Creating layer inception_5a/pool
I0714 21:19:39.036952 23888 net.cpp:91] Creating Layer inception_5a/pool
I0714 21:19:39.036958 23888 net.cpp:425] inception_5a/pool <- pool4/3x3_s2_pool4/3x3_s2_0_split_3
I0714 21:19:39.036970 23888 net.cpp:399] inception_5a/pool -> inception_5a/pool
I0714 21:19:39.037222 23888 net.cpp:141] Setting up inception_5a/pool
I0714 21:19:39.037235 23888 net.cpp:148] Top shape: 10 832 7 7 (407680)
I0714 21:19:39.037240 23888 net.cpp:156] Memory required for data: 534123520
I0714 21:19:39.037247 23888 layer_factory.hpp:77] Creating layer inception_5a/pool_proj
I0714 21:19:39.037271 23888 net.cpp:91] Creating Layer inception_5a/pool_proj
I0714 21:19:39.037278 23888 net.cpp:425] inception_5a/pool_proj <- inception_5a/pool
I0714 21:19:39.037288 23888 net.cpp:399] inception_5a/pool_proj -> inception_5a/pool_proj
I0714 21:19:39.037286 23892 net.cpp:141] Setting up inception_5a/output_inception_5a/output_0_split
I0714 21:19:39.037307 23892 net.cpp:148] Top shape: 10 832 7 7 (407680)
I0714 21:19:39.037314 23892 net.cpp:148] Top shape: 10 832 7 7 (407680)
I0714 21:19:39.037320 23892 net.cpp:148] Top shape: 10 832 7 7 (407680)
I0714 21:19:39.037327 23892 net.cpp:148] Top shape: 10 832 7 7 (407680)
I0714 21:19:39.037331 23892 net.cpp:156] Memory required for data: 542778880
I0714 21:19:39.037336 23892 layer_factory.hpp:77] Creating layer inception_5b/1x1
I0714 21:19:39.037353 23892 net.cpp:91] Creating Layer inception_5b/1x1
I0714 21:19:39.037359 23892 net.cpp:425] inception_5b/1x1 <- inception_5a/output_inception_5a/output_0_split_0
I0714 21:19:39.037369 23892 net.cpp:399] inception_5b/1x1 -> inception_5b/1x1
I0714 21:19:39.044870 23888 net.cpp:141] Setting up inception_5a/pool_proj
I0714 21:19:39.044903 23888 net.cpp:148] Top shape: 10 128 7 7 (62720)
I0714 21:19:39.044909 23888 net.cpp:156] Memory required for data: 534374400
I0714 21:19:39.044921 23888 layer_factory.hpp:77] Creating layer inception_5a/relu_pool_proj
I0714 21:19:39.044934 23888 net.cpp:91] Creating Layer inception_5a/relu_pool_proj
I0714 21:19:39.044941 23888 net.cpp:425] inception_5a/relu_pool_proj <- inception_5a/pool_proj
I0714 21:19:39.044962 23888 net.cpp:386] inception_5a/relu_pool_proj -> inception_5a/pool_proj (in-place)
I0714 21:19:39.046035 23888 net.cpp:141] Setting up inception_5a/relu_pool_proj
I0714 21:19:39.046052 23888 net.cpp:148] Top shape: 10 128 7 7 (62720)
I0714 21:19:39.046058 23888 net.cpp:156] Memory required for data: 534625280
I0714 21:19:39.046063 23888 layer_factory.hpp:77] Creating layer inception_5a/output
I0714 21:19:39.046078 23888 net.cpp:91] Creating Layer inception_5a/output
I0714 21:19:39.046085 23888 net.cpp:425] inception_5a/output <- inception_5a/1x1
I0714 21:19:39.046104 23888 net.cpp:425] inception_5a/output <- inception_5a/3x3
I0714 21:19:39.046113 23888 net.cpp:425] inception_5a/output <- inception_5a/5x5
I0714 21:19:39.046119 23888 net.cpp:425] inception_5a/output <- inception_5a/pool_proj
I0714 21:19:39.046128 23888 net.cpp:399] inception_5a/output -> inception_5a/output
I0714 21:19:39.046246 23888 net.cpp:141] Setting up inception_5a/output
I0714 21:19:39.046258 23888 net.cpp:148] Top shape: 10 832 7 7 (407680)
I0714 21:19:39.046263 23888 net.cpp:156] Memory required for data: 536256000
I0714 21:19:39.046268 23888 layer_factory.hpp:77] Creating layer inception_5a/output_inception_5a/output_0_split
I0714 21:19:39.046286 23888 net.cpp:91] Creating Layer inception_5a/output_inception_5a/output_0_split
I0714 21:19:39.046293 23888 net.cpp:425] inception_5a/output_inception_5a/output_0_split <- inception_5a/output
I0714 21:19:39.046301 23888 net.cpp:399] inception_5a/output_inception_5a/output_0_split -> inception_5a/output_inception_5a/output_0_split_0
I0714 21:19:39.046313 23888 net.cpp:399] inception_5a/output_inception_5a/output_0_split -> inception_5a/output_inception_5a/output_0_split_1
I0714 21:19:39.046325 23888 net.cpp:399] inception_5a/output_inception_5a/output_0_split -> inception_5a/output_inception_5a/output_0_split_2
I0714 21:19:39.046334 23888 net.cpp:399] inception_5a/output_inception_5a/output_0_split -> inception_5a/output_inception_5a/output_0_split_3
I0714 21:19:39.047525 23888 net.cpp:141] Setting up inception_5a/output_inception_5a/output_0_split
I0714 21:19:39.047541 23888 net.cpp:148] Top shape: 10 832 7 7 (407680)
I0714 21:19:39.047549 23888 net.cpp:148] Top shape: 10 832 7 7 (407680)
I0714 21:19:39.047554 23888 net.cpp:148] Top shape: 10 832 7 7 (407680)
I0714 21:19:39.047559 23888 net.cpp:148] Top shape: 10 832 7 7 (407680)
I0714 21:19:39.047564 23888 net.cpp:156] Memory required for data: 542778880
I0714 21:19:39.047571 23888 layer_factory.hpp:77] Creating layer inception_5b/1x1
I0714 21:19:39.047593 23888 net.cpp:91] Creating Layer inception_5b/1x1
I0714 21:19:39.047600 23888 net.cpp:425] inception_5b/1x1 <- inception_5a/output_inception_5a/output_0_split_0
I0714 21:19:39.047610 23888 net.cpp:399] inception_5b/1x1 -> inception_5b/1x1
I0714 21:19:39.051301 23892 net.cpp:141] Setting up inception_5b/1x1
I0714 21:19:39.051327 23892 net.cpp:148] Top shape: 10 384 7 7 (188160)
I0714 21:19:39.051333 23892 net.cpp:156] Memory required for data: 543531520
I0714 21:19:39.051345 23892 layer_factory.hpp:77] Creating layer inception_5b/relu_1x1
I0714 21:19:39.051360 23892 net.cpp:91] Creating Layer inception_5b/relu_1x1
I0714 21:19:39.051368 23892 net.cpp:425] inception_5b/relu_1x1 <- inception_5b/1x1
I0714 21:19:39.051381 23892 net.cpp:386] inception_5b/relu_1x1 -> inception_5b/1x1 (in-place)
I0714 21:19:39.051708 23892 net.cpp:141] Setting up inception_5b/relu_1x1
I0714 21:19:39.051723 23892 net.cpp:148] Top shape: 10 384 7 7 (188160)
I0714 21:19:39.051728 23892 net.cpp:156] Memory required for data: 544284160
I0714 21:19:39.051733 23892 layer_factory.hpp:77] Creating layer inception_5b/3x3_reduce
I0714 21:19:39.051753 23892 net.cpp:91] Creating Layer inception_5b/3x3_reduce
I0714 21:19:39.051759 23892 net.cpp:425] inception_5b/3x3_reduce <- inception_5a/output_inception_5a/output_0_split_1
I0714 21:19:39.051769 23892 net.cpp:399] inception_5b/3x3_reduce -> inception_5b/3x3_reduce
I0714 21:19:39.057910 23888 net.cpp:141] Setting up inception_5b/1x1
I0714 21:19:39.057937 23888 net.cpp:148] Top shape: 10 384 7 7 (188160)
I0714 21:19:39.057943 23888 net.cpp:156] Memory required for data: 543531520
I0714 21:19:39.057955 23888 layer_factory.hpp:77] Creating layer inception_5b/relu_1x1
I0714 21:19:39.057966 23888 net.cpp:91] Creating Layer inception_5b/relu_1x1
I0714 21:19:39.057973 23888 net.cpp:425] inception_5b/relu_1x1 <- inception_5b/1x1
I0714 21:19:39.057991 23888 net.cpp:386] inception_5b/relu_1x1 -> inception_5b/1x1 (in-place)
I0714 21:19:39.058308 23888 net.cpp:141] Setting up inception_5b/relu_1x1
I0714 21:19:39.058320 23888 net.cpp:148] Top shape: 10 384 7 7 (188160)
I0714 21:19:39.058326 23888 net.cpp:156] Memory required for data: 544284160
I0714 21:19:39.058331 23888 layer_factory.hpp:77] Creating layer inception_5b/3x3_reduce
I0714 21:19:39.058356 23888 net.cpp:91] Creating Layer inception_5b/3x3_reduce
I0714 21:19:39.058363 23888 net.cpp:425] inception_5b/3x3_reduce <- inception_5a/output_inception_5a/output_0_split_1
I0714 21:19:39.058374 23888 net.cpp:399] inception_5b/3x3_reduce -> inception_5b/3x3_reduce
I0714 21:19:39.061602 23892 net.cpp:141] Setting up inception_5b/3x3_reduce
I0714 21:19:39.061627 23892 net.cpp:148] Top shape: 10 192 7 7 (94080)
I0714 21:19:39.061633 23892 net.cpp:156] Memory required for data: 544660480
I0714 21:19:39.061647 23892 layer_factory.hpp:77] Creating layer inception_5b/relu_3x3_reduce
I0714 21:19:39.061658 23892 net.cpp:91] Creating Layer inception_5b/relu_3x3_reduce
I0714 21:19:39.061666 23892 net.cpp:425] inception_5b/relu_3x3_reduce <- inception_5b/3x3_reduce
I0714 21:19:39.061674 23892 net.cpp:386] inception_5b/relu_3x3_reduce -> inception_5b/3x3_reduce (in-place)
I0714 21:19:39.062006 23892 net.cpp:141] Setting up inception_5b/relu_3x3_reduce
I0714 21:19:39.062019 23892 net.cpp:148] Top shape: 10 192 7 7 (94080)
I0714 21:19:39.062024 23892 net.cpp:156] Memory required for data: 545036800
I0714 21:19:39.062031 23892 layer_factory.hpp:77] Creating layer inception_5b/3x3
I0714 21:19:39.062049 23892 net.cpp:91] Creating Layer inception_5b/3x3
I0714 21:19:39.062057 23892 net.cpp:425] inception_5b/3x3 <- inception_5b/3x3_reduce
I0714 21:19:39.062070 23892 net.cpp:399] inception_5b/3x3 -> inception_5b/3x3
I0714 21:19:39.068083 23888 net.cpp:141] Setting up inception_5b/3x3_reduce
I0714 21:19:39.068110 23888 net.cpp:148] Top shape: 10 192 7 7 (94080)
I0714 21:19:39.068116 23888 net.cpp:156] Memory required for data: 544660480
I0714 21:19:39.068127 23888 layer_factory.hpp:77] Creating layer inception_5b/relu_3x3_reduce
I0714 21:19:39.068147 23888 net.cpp:91] Creating Layer inception_5b/relu_3x3_reduce
I0714 21:19:39.068156 23888 net.cpp:425] inception_5b/relu_3x3_reduce <- inception_5b/3x3_reduce
I0714 21:19:39.068164 23888 net.cpp:386] inception_5b/relu_3x3_reduce -> inception_5b/3x3_reduce (in-place)
I0714 21:19:39.068481 23888 net.cpp:141] Setting up inception_5b/relu_3x3_reduce
I0714 21:19:39.068493 23888 net.cpp:148] Top shape: 10 192 7 7 (94080)
I0714 21:19:39.068498 23888 net.cpp:156] Memory required for data: 545036800
I0714 21:19:39.068505 23888 layer_factory.hpp:77] Creating layer inception_5b/3x3
I0714 21:19:39.068537 23888 net.cpp:91] Creating Layer inception_5b/3x3
I0714 21:19:39.068544 23888 net.cpp:425] inception_5b/3x3 <- inception_5b/3x3_reduce
I0714 21:19:39.068557 23888 net.cpp:399] inception_5b/3x3 -> inception_5b/3x3
I0714 21:19:39.074753 23892 net.cpp:141] Setting up inception_5b/3x3
I0714 21:19:39.074787 23892 net.cpp:148] Top shape: 10 384 7 7 (188160)
I0714 21:19:39.074793 23892 net.cpp:156] Memory required for data: 545789440
I0714 21:19:39.074805 23892 layer_factory.hpp:77] Creating layer inception_5b/relu_3x3
I0714 21:19:39.074818 23892 net.cpp:91] Creating Layer inception_5b/relu_3x3
I0714 21:19:39.074826 23892 net.cpp:425] inception_5b/relu_3x3 <- inception_5b/3x3
I0714 21:19:39.074836 23892 net.cpp:386] inception_5b/relu_3x3 -> inception_5b/3x3 (in-place)
I0714 21:19:39.075736 23892 net.cpp:141] Setting up inception_5b/relu_3x3
I0714 21:19:39.075754 23892 net.cpp:148] Top shape: 10 384 7 7 (188160)
I0714 21:19:39.075759 23892 net.cpp:156] Memory required for data: 546542080
I0714 21:19:39.075765 23892 layer_factory.hpp:77] Creating layer inception_5b/5x5_reduce
I0714 21:19:39.075786 23892 net.cpp:91] Creating Layer inception_5b/5x5_reduce
I0714 21:19:39.075794 23892 net.cpp:425] inception_5b/5x5_reduce <- inception_5a/output_inception_5a/output_0_split_2
I0714 21:19:39.075804 23892 net.cpp:399] inception_5b/5x5_reduce -> inception_5b/5x5_reduce
I0714 21:19:39.080731 23892 net.cpp:141] Setting up inception_5b/5x5_reduce
I0714 21:19:39.080754 23892 net.cpp:148] Top shape: 10 48 7 7 (23520)
I0714 21:19:39.080760 23892 net.cpp:156] Memory required for data: 546636160
I0714 21:19:39.080771 23892 layer_factory.hpp:77] Creating layer inception_5b/relu_5x5_reduce
I0714 21:19:39.080785 23892 net.cpp:91] Creating Layer inception_5b/relu_5x5_reduce
I0714 21:19:39.080792 23892 net.cpp:425] inception_5b/relu_5x5_reduce <- inception_5b/5x5_reduce
I0714 21:19:39.080806 23892 net.cpp:386] inception_5b/relu_5x5_reduce -> inception_5b/5x5_reduce (in-place)
I0714 21:19:39.081301 23892 net.cpp:141] Setting up inception_5b/relu_5x5_reduce
I0714 21:19:39.081317 23892 net.cpp:148] Top shape: 10 48 7 7 (23520)
I0714 21:19:39.081322 23892 net.cpp:156] Memory required for data: 546730240
I0714 21:19:39.081328 23892 layer_factory.hpp:77] Creating layer inception_5b/5x5
I0714 21:19:39.081346 23892 net.cpp:91] Creating Layer inception_5b/5x5
I0714 21:19:39.081353 23892 net.cpp:425] inception_5b/5x5 <- inception_5b/5x5_reduce
I0714 21:19:39.081367 23892 net.cpp:399] inception_5b/5x5 -> inception_5b/5x5
I0714 21:19:39.081398 23888 net.cpp:141] Setting up inception_5b/3x3
I0714 21:19:39.081415 23888 net.cpp:148] Top shape: 10 384 7 7 (188160)
I0714 21:19:39.081421 23888 net.cpp:156] Memory required for data: 545789440
I0714 21:19:39.081432 23888 layer_factory.hpp:77] Creating layer inception_5b/relu_3x3
I0714 21:19:39.081444 23888 net.cpp:91] Creating Layer inception_5b/relu_3x3
I0714 21:19:39.081452 23888 net.cpp:425] inception_5b/relu_3x3 <- inception_5b/3x3
I0714 21:19:39.081460 23888 net.cpp:386] inception_5b/relu_3x3 -> inception_5b/3x3 (in-place)
I0714 21:19:39.082581 23888 net.cpp:141] Setting up inception_5b/relu_3x3
I0714 21:19:39.082597 23888 net.cpp:148] Top shape: 10 384 7 7 (188160)
I0714 21:19:39.082603 23888 net.cpp:156] Memory required for data: 546542080
I0714 21:19:39.082609 23888 layer_factory.hpp:77] Creating layer inception_5b/5x5_reduce
I0714 21:19:39.082628 23888 net.cpp:91] Creating Layer inception_5b/5x5_reduce
I0714 21:19:39.082635 23888 net.cpp:425] inception_5b/5x5_reduce <- inception_5a/output_inception_5a/output_0_split_2
I0714 21:19:39.082650 23888 net.cpp:399] inception_5b/5x5_reduce -> inception_5b/5x5_reduce
I0714 21:19:39.087744 23888 net.cpp:141] Setting up inception_5b/5x5_reduce
I0714 21:19:39.087764 23888 net.cpp:148] Top shape: 10 48 7 7 (23520)
I0714 21:19:39.087770 23888 net.cpp:156] Memory required for data: 546636160
I0714 21:19:39.087781 23888 layer_factory.hpp:77] Creating layer inception_5b/relu_5x5_reduce
I0714 21:19:39.087795 23888 net.cpp:91] Creating Layer inception_5b/relu_5x5_reduce
I0714 21:19:39.087802 23888 net.cpp:425] inception_5b/relu_5x5_reduce <- inception_5b/5x5_reduce
I0714 21:19:39.087815 23888 net.cpp:386] inception_5b/relu_5x5_reduce -> inception_5b/5x5_reduce (in-place)
I0714 21:19:39.088125 23888 net.cpp:141] Setting up inception_5b/relu_5x5_reduce
I0714 21:19:39.088138 23888 net.cpp:148] Top shape: 10 48 7 7 (23520)
I0714 21:19:39.088143 23888 net.cpp:156] Memory required for data: 546730240
I0714 21:19:39.088148 23888 layer_factory.hpp:77] Creating layer inception_5b/5x5
I0714 21:19:39.088168 23888 net.cpp:91] Creating Layer inception_5b/5x5
I0714 21:19:39.088176 23888 net.cpp:425] inception_5b/5x5 <- inception_5b/5x5_reduce
I0714 21:19:39.088188 23888 net.cpp:399] inception_5b/5x5 -> inception_5b/5x5
I0714 21:19:39.089433 23892 net.cpp:141] Setting up inception_5b/5x5
I0714 21:19:39.089454 23892 net.cpp:148] Top shape: 10 128 7 7 (62720)
I0714 21:19:39.089460 23892 net.cpp:156] Memory required for data: 546981120
I0714 21:19:39.089470 23892 layer_factory.hpp:77] Creating layer inception_5b/relu_5x5
I0714 21:19:39.089485 23892 net.cpp:91] Creating Layer inception_5b/relu_5x5
I0714 21:19:39.089493 23892 net.cpp:425] inception_5b/relu_5x5 <- inception_5b/5x5
I0714 21:19:39.089505 23892 net.cpp:386] inception_5b/relu_5x5 -> inception_5b/5x5 (in-place)
I0714 21:19:39.089819 23892 net.cpp:141] Setting up inception_5b/relu_5x5
I0714 21:19:39.089833 23892 net.cpp:148] Top shape: 10 128 7 7 (62720)
I0714 21:19:39.089838 23892 net.cpp:156] Memory required for data: 547232000
I0714 21:19:39.089843 23892 layer_factory.hpp:77] Creating layer inception_5b/pool
I0714 21:19:39.089857 23892 net.cpp:91] Creating Layer inception_5b/pool
I0714 21:19:39.089864 23892 net.cpp:425] inception_5b/pool <- inception_5a/output_inception_5a/output_0_split_3
I0714 21:19:39.089875 23892 net.cpp:399] inception_5b/pool -> inception_5b/pool
I0714 21:19:39.090035 23892 net.cpp:141] Setting up inception_5b/pool
I0714 21:19:39.090046 23892 net.cpp:148] Top shape: 10 832 7 7 (407680)
I0714 21:19:39.090051 23892 net.cpp:156] Memory required for data: 548862720
I0714 21:19:39.090056 23892 layer_factory.hpp:77] Creating layer inception_5b/pool_proj
I0714 21:19:39.090077 23892 net.cpp:91] Creating Layer inception_5b/pool_proj
I0714 21:19:39.090085 23892 net.cpp:425] inception_5b/pool_proj <- inception_5b/pool
I0714 21:19:39.090095 23892 net.cpp:399] inception_5b/pool_proj -> inception_5b/pool_proj
I0714 21:19:39.097403 23892 net.cpp:141] Setting up inception_5b/pool_proj
I0714 21:19:39.097426 23892 net.cpp:148] Top shape: 10 128 7 7 (62720)
I0714 21:19:39.097434 23892 net.cpp:156] Memory required for data: 549113600
I0714 21:19:39.097450 23892 layer_factory.hpp:77] Creating layer inception_5b/relu_pool_proj
I0714 21:19:39.097461 23892 net.cpp:91] Creating Layer inception_5b/relu_pool_proj
I0714 21:19:39.097468 23892 net.cpp:425] inception_5b/relu_pool_proj <- inception_5b/pool_proj
I0714 21:19:39.097477 23892 net.cpp:386] inception_5b/relu_pool_proj -> inception_5b/pool_proj (in-place)
I0714 21:19:39.098359 23888 net.cpp:141] Setting up inception_5b/5x5
I0714 21:19:39.098378 23888 net.cpp:148] Top shape: 10 128 7 7 (62720)
I0714 21:19:39.098383 23888 net.cpp:156] Memory required for data: 546981120
I0714 21:19:39.098398 23888 layer_factory.hpp:77] Creating layer inception_5b/relu_5x5
I0714 21:19:39.098409 23888 net.cpp:91] Creating Layer inception_5b/relu_5x5
I0714 21:19:39.098417 23888 net.cpp:425] inception_5b/relu_5x5 <- inception_5b/5x5
I0714 21:19:39.098428 23888 net.cpp:386] inception_5b/relu_5x5 -> inception_5b/5x5 (in-place)
I0714 21:19:39.098471 23892 net.cpp:141] Setting up inception_5b/relu_pool_proj
I0714 21:19:39.098489 23892 net.cpp:148] Top shape: 10 128 7 7 (62720)
I0714 21:19:39.098495 23892 net.cpp:156] Memory required for data: 549364480
I0714 21:19:39.098500 23892 layer_factory.hpp:77] Creating layer inception_5b/output
I0714 21:19:39.098510 23892 net.cpp:91] Creating Layer inception_5b/output
I0714 21:19:39.098517 23892 net.cpp:425] inception_5b/output <- inception_5b/1x1
I0714 21:19:39.098525 23892 net.cpp:425] inception_5b/output <- inception_5b/3x3
I0714 21:19:39.098531 23892 net.cpp:425] inception_5b/output <- inception_5b/5x5
I0714 21:19:39.098536 23892 net.cpp:425] inception_5b/output <- inception_5b/pool_proj
I0714 21:19:39.098546 23892 net.cpp:399] inception_5b/output -> inception_5b/output
I0714 21:19:39.098702 23892 net.cpp:141] Setting up inception_5b/output
I0714 21:19:39.098716 23892 net.cpp:148] Top shape: 10 1024 7 7 (501760)
I0714 21:19:39.098721 23892 net.cpp:156] Memory required for data: 551371520
I0714 21:19:39.098726 23892 layer_factory.hpp:77] Creating layer pool5/7x7_s1
I0714 21:19:39.098736 23892 net.cpp:91] Creating Layer pool5/7x7_s1
I0714 21:19:39.098742 23892 net.cpp:425] pool5/7x7_s1 <- inception_5b/output
I0714 21:19:39.098754 23892 net.cpp:399] pool5/7x7_s1 -> pool5/7x7_s1
I0714 21:19:39.098814 23888 net.cpp:141] Setting up inception_5b/relu_5x5
I0714 21:19:39.098829 23888 net.cpp:148] Top shape: 10 128 7 7 (62720)
I0714 21:19:39.098834 23888 net.cpp:156] Memory required for data: 547232000
I0714 21:19:39.098840 23888 layer_factory.hpp:77] Creating layer inception_5b/pool
I0714 21:19:39.098853 23888 net.cpp:91] Creating Layer inception_5b/pool
I0714 21:19:39.098860 23888 net.cpp:425] inception_5b/pool <- inception_5a/output_inception_5a/output_0_split_3
I0714 21:19:39.098875 23888 net.cpp:399] inception_5b/pool -> inception_5b/pool
I0714 21:19:39.099123 23888 net.cpp:141] Setting up inception_5b/pool
I0714 21:19:39.099135 23888 net.cpp:148] Top shape: 10 832 7 7 (407680)
I0714 21:19:39.099140 23888 net.cpp:156] Memory required for data: 548862720
I0714 21:19:39.099148 23888 layer_factory.hpp:77] Creating layer inception_5b/pool_proj
I0714 21:19:39.099165 23888 net.cpp:91] Creating Layer inception_5b/pool_proj
I0714 21:19:39.099172 23888 net.cpp:425] inception_5b/pool_proj <- inception_5b/pool
I0714 21:19:39.099195 23888 net.cpp:399] inception_5b/pool_proj -> inception_5b/pool_proj
I0714 21:19:39.099357 23892 net.cpp:141] Setting up pool5/7x7_s1
I0714 21:19:39.099371 23892 net.cpp:148] Top shape: 10 1024 1 1 (10240)
I0714 21:19:39.099376 23892 net.cpp:156] Memory required for data: 551412480
I0714 21:19:39.099382 23892 layer_factory.hpp:77] Creating layer pool5/drop_7x7_s1
I0714 21:19:39.099406 23892 net.cpp:91] Creating Layer pool5/drop_7x7_s1
I0714 21:19:39.099412 23892 net.cpp:425] pool5/drop_7x7_s1 <- pool5/7x7_s1
I0714 21:19:39.099419 23892 net.cpp:386] pool5/drop_7x7_s1 -> pool5/7x7_s1 (in-place)
I0714 21:19:39.099609 23892 net.cpp:141] Setting up pool5/drop_7x7_s1
I0714 21:19:39.099622 23892 net.cpp:148] Top shape: 10 1024 1 1 (10240)
I0714 21:19:39.099627 23892 net.cpp:156] Memory required for data: 551453440
I0714 21:19:39.099632 23892 layer_factory.hpp:77] Creating layer loss3/classifier
I0714 21:19:39.099658 23892 net.cpp:91] Creating Layer loss3/classifier
I0714 21:19:39.099664 23892 net.cpp:425] loss3/classifier <- pool5/7x7_s1
I0714 21:19:39.099673 23892 net.cpp:399] loss3/classifier -> loss3/classifier
I0714 21:19:39.109103 23888 net.cpp:141] Setting up inception_5b/pool_proj
I0714 21:19:39.109138 23888 net.cpp:148] Top shape: 10 128 7 7 (62720)
I0714 21:19:39.109153 23888 net.cpp:156] Memory required for data: 549113600
I0714 21:19:39.109164 23888 layer_factory.hpp:77] Creating layer inception_5b/relu_pool_proj
I0714 21:19:39.109185 23888 net.cpp:91] Creating Layer inception_5b/relu_pool_proj
I0714 21:19:39.109192 23888 net.cpp:425] inception_5b/relu_pool_proj <- inception_5b/pool_proj
I0714 21:19:39.109202 23888 net.cpp:386] inception_5b/relu_pool_proj -> inception_5b/pool_proj (in-place)
I0714 21:19:39.110108 23888 net.cpp:141] Setting up inception_5b/relu_pool_proj
I0714 21:19:39.110127 23888 net.cpp:148] Top shape: 10 128 7 7 (62720)
I0714 21:19:39.110132 23888 net.cpp:156] Memory required for data: 549364480
I0714 21:19:39.110138 23888 layer_factory.hpp:77] Creating layer inception_5b/output
I0714 21:19:39.110158 23888 net.cpp:91] Creating Layer inception_5b/output
I0714 21:19:39.110165 23888 net.cpp:425] inception_5b/output <- inception_5b/1x1
I0714 21:19:39.110173 23888 net.cpp:425] inception_5b/output <- inception_5b/3x3
I0714 21:19:39.110179 23888 net.cpp:425] inception_5b/output <- inception_5b/5x5
I0714 21:19:39.110185 23888 net.cpp:425] inception_5b/output <- inception_5b/pool_proj
I0714 21:19:39.110193 23888 net.cpp:399] inception_5b/output -> inception_5b/output
I0714 21:19:39.110299 23888 net.cpp:141] Setting up inception_5b/output
I0714 21:19:39.110311 23888 net.cpp:148] Top shape: 10 1024 7 7 (501760)
I0714 21:19:39.110316 23888 net.cpp:156] Memory required for data: 551371520
I0714 21:19:39.110321 23888 layer_factory.hpp:77] Creating layer pool5/7x7_s1
I0714 21:19:39.110335 23888 net.cpp:91] Creating Layer pool5/7x7_s1
I0714 21:19:39.110342 23888 net.cpp:425] pool5/7x7_s1 <- inception_5b/output
I0714 21:19:39.110353 23888 net.cpp:399] pool5/7x7_s1 -> pool5/7x7_s1
I0714 21:19:39.110769 23888 net.cpp:141] Setting up pool5/7x7_s1
I0714 21:19:39.110785 23888 net.cpp:148] Top shape: 10 1024 1 1 (10240)
I0714 21:19:39.110790 23888 net.cpp:156] Memory required for data: 551412480
I0714 21:19:39.110795 23888 layer_factory.hpp:77] Creating layer pool5/drop_7x7_s1
I0714 21:19:39.110805 23888 net.cpp:91] Creating Layer pool5/drop_7x7_s1
I0714 21:19:39.110811 23888 net.cpp:425] pool5/drop_7x7_s1 <- pool5/7x7_s1
I0714 21:19:39.110822 23888 net.cpp:386] pool5/drop_7x7_s1 -> pool5/7x7_s1 (in-place)
I0714 21:19:39.110908 23888 net.cpp:141] Setting up pool5/drop_7x7_s1
I0714 21:19:39.110919 23888 net.cpp:148] Top shape: 10 1024 1 1 (10240)
I0714 21:19:39.110924 23888 net.cpp:156] Memory required for data: 551453440
I0714 21:19:39.110929 23888 layer_factory.hpp:77] Creating layer loss3/classifier
I0714 21:19:39.110949 23888 net.cpp:91] Creating Layer loss3/classifier
I0714 21:19:39.110954 23888 net.cpp:425] loss3/classifier <- pool5/7x7_s1
I0714 21:19:39.110963 23888 net.cpp:399] loss3/classifier -> loss3/classifier
I0714 21:19:39.115222 23892 net.cpp:141] Setting up loss3/classifier
I0714 21:19:39.115252 23892 net.cpp:148] Top shape: 10 1000 (10000)
I0714 21:19:39.115257 23892 net.cpp:156] Memory required for data: 551493440
I0714 21:19:39.115268 23892 layer_factory.hpp:77] Creating layer prob
I0714 21:19:39.115283 23892 net.cpp:91] Creating Layer prob
I0714 21:19:39.115289 23892 net.cpp:425] prob <- loss3/classifier
I0714 21:19:39.115299 23892 net.cpp:399] prob -> prob
I0714 21:19:39.116706 23892 net.cpp:141] Setting up prob
I0714 21:19:39.116726 23892 net.cpp:148] Top shape: 10 1000 (10000)
I0714 21:19:39.116731 23892 net.cpp:156] Memory required for data: 551533440
I0714 21:19:39.116737 23892 net.cpp:219] prob does not need backward computation.
I0714 21:19:39.116744 23892 net.cpp:219] loss3/classifier does not need backward computation.
I0714 21:19:39.116750 23892 net.cpp:219] pool5/drop_7x7_s1 does not need backward computation.
I0714 21:19:39.116753 23892 net.cpp:219] pool5/7x7_s1 does not need backward computation.
…
