…
2016-07-14 21:19:38.613 n.t.s.b.CVParticleBolt [INFO] [Timing] RequestID: 0 StreamID: home/peifeng/work/data/frame.320x240.jpg SequenceNr: 92 Entering scale: 1468545578613
2016-07-14 21:19:38.613 n.t.s.s.CVParticleSpout [INFO] [Timing] RequestID: 0 StreamID: home/peifeng/work/data/frame.320x240.jpg SequenceNr: 92 Leaving fetcher: 1468545578613 Size: 8702
2016-07-14 21:19:38.615 n.t.s.b.CVParticleBolt [INFO] [Timing] RequestID: 0 StreamID: home/peifeng/work/data/frame.320x240.jpg SequenceNr: 90 Leaving scale: 1468545578615 Size: 3530
2016-07-14 21:19:38.616 STDERR [INFO] I0714 21:19:38.615991 23888 net.cpp:141] Setting up conv1/7x7_s2
2016-07-14 21:19:38.616 STDERR [INFO] I0714 21:19:38.616051 23888 net.cpp:148] Top shape: 10 64 112 112 (8028160)
2016-07-14 21:19:38.616 STDERR [INFO] I0714 21:19:38.616060 23888 net.cpp:156] Memory required for data: 38133760
2016-07-14 21:19:38.616 STDERR [INFO] I0714 21:19:38.616088 23888 layer_factory.hpp:77] Creating layer conv1/relu_7x7
2016-07-14 21:19:38.616 STDERR [INFO] I0714 21:19:38.616112 23888 net.cpp:91] Creating Layer conv1/relu_7x7
2016-07-14 21:19:38.616 STDERR [INFO] I0714 21:19:38.616120 23888 net.cpp:425] conv1/relu_7x7 <- conv1/7x7_s2
2016-07-14 21:19:38.616 STDERR [INFO] I0714 21:19:38.616132 23888 net.cpp:386] conv1/relu_7x7 -> conv1/7x7_s2 (in-place)
2016-07-14 21:19:38.617 STDERR [INFO] I0714 21:19:38.617159 23888 net.cpp:141] Setting up conv1/relu_7x7
2016-07-14 21:19:38.617 STDERR [INFO] I0714 21:19:38.617179 23888 net.cpp:148] Top shape: 10 64 112 112 (8028160)
2016-07-14 21:19:38.617 STDERR [INFO] I0714 21:19:38.617185 23888 net.cpp:156] Memory required for data: 70246400
2016-07-14 21:19:38.617 STDERR [INFO] I0714 21:19:38.617193 23888 layer_factory.hpp:77] Creating layer pool1/3x3_s2
2016-07-14 21:19:38.617 STDERR [INFO] I0714 21:19:38.617208 23888 net.cpp:91] Creating Layer pool1/3x3_s2
2016-07-14 21:19:38.617 STDERR [INFO] I0714 21:19:38.617214 23888 net.cpp:425] pool1/3x3_s2 <- conv1/7x7_s2
2016-07-14 21:19:38.617 STDERR [INFO] I0714 21:19:38.617223 23888 net.cpp:399] pool1/3x3_s2 -> pool1/3x3_s2
2016-07-14 21:19:38.617 STDERR [INFO] I0714 21:19:38.617615 23888 net.cpp:141] Setting up pool1/3x3_s2
2016-07-14 21:19:38.617 STDERR [INFO] I0714 21:19:38.617630 23888 net.cpp:148] Top shape: 10 64 56 56 (2007040)
2016-07-14 21:19:38.617 STDERR [INFO] I0714 21:19:38.617635 23888 net.cpp:156] Memory required for data: 78274560
2016-07-14 21:19:38.617 STDERR [INFO] I0714 21:19:38.617648 23888 layer_factory.hpp:77] Creating layer pool1/norm1
2016-07-14 21:19:38.617 STDERR [INFO] I0714 21:19:38.617663 23888 net.cpp:91] Creating Layer pool1/norm1
2016-07-14 21:19:38.617 STDERR [INFO] I0714 21:19:38.617669 23888 net.cpp:425] pool1/norm1 <- pool1/3x3_s2
2016-07-14 21:19:38.617 STDERR [INFO] I0714 21:19:38.617681 23888 net.cpp:399] pool1/norm1 -> pool1/norm1
2016-07-14 21:19:38.617 n.t.s.b.CVParticleBolt [INFO] [Timing] RequestID: 0 StreamID: home/peifeng/work/data/frame.320x240.jpg SequenceNr: 91 Leaving scale: 1468545578617 Size: 3530
2016-07-14 21:19:38.619 STDERR [INFO] I0714 21:19:38.618983 23888 net.cpp:141] Setting up pool1/norm1
2016-07-14 21:19:38.619 STDERR [INFO] I0714 21:19:38.619004 23888 net.cpp:148] Top shape: 10 64 56 56 (2007040)
2016-07-14 21:19:38.619 STDERR [INFO] I0714 21:19:38.619010 23888 net.cpp:156] Memory required for data: 86302720
2016-07-14 21:19:38.619 STDERR [INFO] I0714 21:19:38.619016 23888 layer_factory.hpp:77] Creating layer conv2/3x3_reduce
2016-07-14 21:19:38.619 STDERR [INFO] I0714 21:19:38.619043 23888 net.cpp:91] Creating Layer conv2/3x3_reduce
2016-07-14 21:19:38.619 STDERR [INFO] I0714 21:19:38.619050 23888 net.cpp:425] conv2/3x3_reduce <- pool1/norm1
2016-07-14 21:19:38.619 n.t.s.b.CVParticleBolt [INFO] [Timing] RequestID: 0 StreamID: home/peifeng/work/data/frame.320x240.jpg SequenceNr: 92 Leaving scale: 1468545578619 Size: 3530
2016-07-14 21:19:38.619 STDERR [INFO] I0714 21:19:38.619047 23892 net.cpp:141] Setting up conv2/3x3_reduce
2016-07-14 21:19:38.619 STDERR [INFO] I0714 21:19:38.619060 23888 net.cpp:399] conv2/3x3_reduce -> conv2/3x3_reduce
2016-07-14 21:19:38.619 STDERR [INFO] I0714 21:19:38.619071 23892 net.cpp:148] Top shape: 10 64 56 56 (2007040)
2016-07-14 21:19:38.619 STDERR [INFO] I0714 21:19:38.619076 23892 net.cpp:156] Memory required for data: 94330880
2016-07-14 21:19:38.619 STDERR [INFO] I0714 21:19:38.619093 23892 layer_factory.hpp:77] Creating layer conv2/relu_3x3_reduce
2016-07-14 21:19:38.619 STDERR [INFO] I0714 21:19:38.619104 23892 net.cpp:91] Creating Layer conv2/relu_3x3_reduce
2016-07-14 21:19:38.619 STDERR [INFO] I0714 21:19:38.619112 23892 net.cpp:425] conv2/relu_3x3_reduce <- conv2/3x3_reduce
2016-07-14 21:19:38.619 STDERR [INFO] I0714 21:19:38.619119 23892 net.cpp:386] conv2/relu_3x3_reduce -> conv2/3x3_reduce (in-place)
2016-07-14 21:19:38.620 STDERR [INFO] I0714 21:19:38.620178 23892 net.cpp:141] Setting up conv2/relu_3x3_reduce
2016-07-14 21:19:38.620 STDERR [INFO] I0714 21:19:38.620198 23892 net.cpp:148] Top shape: 10 64 56 56 (2007040)
2016-07-14 21:19:38.620 STDERR [INFO] I0714 21:19:38.620203 23892 net.cpp:156] Memory required for data: 102359040
2016-07-14 21:19:38.620 STDERR [INFO] I0714 21:19:38.620209 23892 layer_factory.hpp:77] Creating layer conv2/3x3
2016-07-14 21:19:38.620 STDERR [INFO] I0714 21:19:38.620226 23892 net.cpp:91] Creating Layer conv2/3x3
2016-07-14 21:19:38.620 STDERR [INFO] I0714 21:19:38.620232 23892 net.cpp:425] conv2/3x3 <- conv2/3x3_reduce
2016-07-14 21:19:38.620 STDERR [INFO] I0714 21:19:38.620244 23892 net.cpp:399] conv2/3x3 -> conv2/3x3
2016-07-14 21:19:38.624 STDERR [INFO] I0714 21:19:38.624899 23888 net.cpp:141] Setting up conv2/3x3_reduce
2016-07-14 21:19:38.625 STDERR [INFO] I0714 21:19:38.624923 23888 net.cpp:148] Top shape: 10 64 56 56 (2007040)
2016-07-14 21:19:38.625 STDERR [INFO] I0714 21:19:38.624930 23888 net.cpp:156] Memory required for data: 94330880
2016-07-14 21:19:38.625 STDERR [INFO] I0714 21:19:38.624945 23888 layer_factory.hpp:77] Creating layer conv2/relu_3x3_reduce
2016-07-14 21:19:38.625 STDERR [INFO] I0714 21:19:38.624958 23888 net.cpp:91] Creating Layer conv2/relu_3x3_reduce
2016-07-14 21:19:38.625 STDERR [INFO] I0714 21:19:38.624963 23888 net.cpp:425] conv2/relu_3x3_reduce <- conv2/3x3_reduce
2016-07-14 21:19:38.625 STDERR [INFO] I0714 21:19:38.624971 23888 net.cpp:386] conv2/relu_3x3_reduce -> conv2/3x3_reduce (in-place)
2016-07-14 21:19:38.625 STDERR [INFO] I0714 21:19:38.625864 23888 net.cpp:141] Setting up conv2/relu_3x3_reduce
2016-07-14 21:19:38.626 STDERR [INFO] I0714 21:19:38.625882 23888 net.cpp:148] Top shape: 10 64 56 56 (2007040)
2016-07-14 21:19:38.626 STDERR [INFO] I0714 21:19:38.625887 23888 net.cpp:156] Memory required for data: 102359040
2016-07-14 21:19:38.626 STDERR [INFO] I0714 21:19:38.625897 23888 layer_factory.hpp:77] Creating layer conv2/3x3
2016-07-14 21:19:38.626 STDERR [INFO] I0714 21:19:38.625916 23888 net.cpp:91] Creating Layer conv2/3x3
2016-07-14 21:19:38.626 STDERR [INFO] I0714 21:19:38.625923 23888 net.cpp:425] conv2/3x3 <- conv2/3x3_reduce
2016-07-14 21:19:38.626 STDERR [INFO] I0714 21:19:38.625933 23888 net.cpp:399] conv2/3x3 -> conv2/3x3
2016-07-14 21:19:38.630 STDERR [INFO] I0714 21:19:38.630018 23892 net.cpp:141] Setting up conv2/3x3
2016-07-14 21:19:38.630 STDERR [INFO] I0714 21:19:38.630044 23892 net.cpp:148] Top shape: 10 192 56 56 (6021120)
2016-07-14 21:19:38.630 STDERR [INFO] I0714 21:19:38.630050 23892 net.cpp:156] Memory required for data: 126443520
2016-07-14 21:19:38.630 STDERR [INFO] I0714 21:19:38.630066 23892 layer_factory.hpp:77] Creating layer conv2/relu_3x3
2016-07-14 21:19:38.630 STDERR [INFO] I0714 21:19:38.630079 23892 net.cpp:91] Creating Layer conv2/relu_3x3
2016-07-14 21:19:38.630 STDERR [INFO] I0714 21:19:38.630085 23892 net.cpp:425] conv2/relu_3x3 <- conv2/3x3
2016-07-14 21:19:38.630 STDERR [INFO] I0714 21:19:38.630095 23892 net.cpp:386] conv2/relu_3x3 -> conv2/3x3 (in-place)
2016-07-14 21:19:38.630 STDERR [INFO] I0714 21:19:38.630471 23892 net.cpp:141] Setting up conv2/relu_3x3
2016-07-14 21:19:38.630 STDERR [INFO] I0714 21:19:38.630486 23892 net.cpp:148] Top shape: 10 192 56 56 (6021120)
2016-07-14 21:19:38.630 STDERR [INFO] I0714 21:19:38.630491 23892 net.cpp:156] Memory required for data: 150528000
2016-07-14 21:19:38.630 STDERR [INFO] I0714 21:19:38.630497 23892 layer_factory.hpp:77] Creating layer conv2/norm2
2016-07-14 21:19:38.630 STDERR [INFO] I0714 21:19:38.630509 23892 net.cpp:91] Creating Layer conv2/norm2
2016-07-14 21:19:38.630 STDERR [INFO] I0714 21:19:38.630516 23892 net.cpp:425] conv2/norm2 <- conv2/3x3
2016-07-14 21:19:38.630 STDERR [INFO] I0714 21:19:38.630523 23892 net.cpp:399] conv2/norm2 -> conv2/norm2
2016-07-14 21:19:38.632 STDERR [INFO] I0714 21:19:38.632091 23892 net.cpp:141] Setting up conv2/norm2
2016-07-14 21:19:38.632 STDERR [INFO] I0714 21:19:38.632114 23892 net.cpp:148] Top shape: 10 192 56 56 (6021120)
2016-07-14 21:19:38.632 STDERR [INFO] I0714 21:19:38.632122 23892 net.cpp:156] Memory required for data: 174612480
2016-07-14 21:19:38.632 STDERR [INFO] I0714 21:19:38.632128 23892 layer_factory.hpp:77] Creating layer pool2/3x3_s2
2016-07-14 21:19:38.632 STDERR [INFO] I0714 21:19:38.632139 23892 net.cpp:91] Creating Layer pool2/3x3_s2
2016-07-14 21:19:38.632 STDERR [INFO] I0714 21:19:38.632145 23892 net.cpp:425] pool2/3x3_s2 <- conv2/norm2
2016-07-14 21:19:38.632 STDERR [INFO] I0714 21:19:38.632155 23892 net.cpp:399] pool2/3x3_s2 -> pool2/3x3_s2
2016-07-14 21:19:38.633 STDERR [INFO] I0714 21:19:38.632942 23892 net.cpp:141] Setting up pool2/3x3_s2
2016-07-14 21:19:38.633 STDERR [INFO] I0714 21:19:38.632957 23892 net.cpp:148] Top shape: 10 192 28 28 (1505280)
2016-07-14 21:19:38.633 STDERR [INFO] I0714 21:19:38.632962 23892 net.cpp:156] Memory required for data: 180633600
2016-07-14 21:19:38.633 STDERR [INFO] I0714 21:19:38.632968 23892 layer_factory.hpp:77] Creating layer pool2/3x3_s2_pool2/3x3_s2_0_split
2016-07-14 21:19:38.633 STDERR [INFO] I0714 21:19:38.632992 23892 net.cpp:91] Creating Layer pool2/3x3_s2_pool2/3x3_s2_0_split
2016-07-14 21:19:38.633 STDERR [INFO] I0714 21:19:38.632998 23892 net.cpp:425] pool2/3x3_s2_pool2/3x3_s2_0_split <- pool2/3x3_s2
2016-07-14 21:19:38.633 STDERR [INFO] I0714 21:19:38.633008 23892 net.cpp:399] pool2/3x3_s2_pool2/3x3_s2_0_split -> pool2/3x3_s2_pool2/3x3_s2_0_split_0
2016-07-14 21:19:38.633 STDERR [INFO] I0714 21:19:38.633020 23892 net.cpp:399] pool2/3x3_s2_pool2/3x3_s2_0_split -> pool2/3x3_s2_pool2/3x3_s2_0_split_1
2016-07-14 21:19:38.633 STDERR [INFO] I0714 21:19:38.633030 23892 net.cpp:399] pool2/3x3_s2_pool2/3x3_s2_0_split -> pool2/3x3_s2_pool2/3x3_s2_0_split_2
2016-07-14 21:19:38.633 STDERR [INFO] I0714 21:19:38.633039 23892 net.cpp:399] pool2/3x3_s2_pool2/3x3_s2_0_split -> pool2/3x3_s2_pool2/3x3_s2_0_split_3
2016-07-14 21:19:38.633 STDERR [INFO] I0714 21:19:38.633345 23892 net.cpp:141] Setting up pool2/3x3_s2_pool2/3x3_s2_0_split
2016-07-14 21:19:38.633 STDERR [INFO] I0714 21:19:38.633359 23892 net.cpp:148] Top shape: 10 192 28 28 (1505280)
2016-07-14 21:19:38.633 STDERR [INFO] I0714 21:19:38.633366 23892 net.cpp:148] Top shape: 10 192 28 28 (1505280)
2016-07-14 21:19:38.633 STDERR [INFO] I0714 21:19:38.633371 23892 net.cpp:148] Top shape: 10 192 28 28 (1505280)
2016-07-14 21:19:38.633 STDERR [INFO] I0714 21:19:38.633378 23892 net.cpp:148] Top shape: 10 192 28 28 (1505280)
2016-07-14 21:19:38.633 STDERR [INFO] I0714 21:19:38.633383 23892 net.cpp:156] Memory required for data: 204718080
2016-07-14 21:19:38.633 STDERR [INFO] I0714 21:19:38.633388 23892 layer_factory.hpp:77] Creating layer inception_3a/1x1
2016-07-14 21:19:38.633 STDERR [INFO] I0714 21:19:38.633404 23892 net.cpp:91] Creating Layer inception_3a/1x1
2016-07-14 21:19:38.633 STDERR [INFO] I0714 21:19:38.633409 23892 net.cpp:425] inception_3a/1x1 <- pool2/3x3_s2_pool2/3x3_s2_0_split_0
2016-07-14 21:19:38.633 STDERR [INFO] I0714 21:19:38.633442 23892 net.cpp:399] inception_3a/1x1 -> inception_3a/1x1
2016-07-14 21:19:38.634 STDERR [INFO] I0714 21:19:38.634119 23888 net.cpp:141] Setting up conv2/3x3
2016-07-14 21:19:38.634 STDERR [INFO] I0714 21:19:38.634141 23888 net.cpp:148] Top shape: 10 192 56 56 (6021120)
2016-07-14 21:19:38.634 STDERR [INFO] I0714 21:19:38.634147 23888 net.cpp:156] Memory required for data: 126443520
2016-07-14 21:19:38.634 STDERR [INFO] I0714 21:19:38.634165 23888 layer_factory.hpp:77] Creating layer conv2/relu_3x3
2016-07-14 21:19:38.634 STDERR [INFO] I0714 21:19:38.634177 23888 net.cpp:91] Creating Layer conv2/relu_3x3
2016-07-14 21:19:38.634 STDERR [INFO] I0714 21:19:38.634183 23888 net.cpp:425] conv2/relu_3x3 <- conv2/3x3
2016-07-14 21:19:38.634 STDERR [INFO] I0714 21:19:38.634197 23888 net.cpp:386] conv2/relu_3x3 -> conv2/3x3 (in-place)
2016-07-14 21:19:38.634 STDERR [INFO] I0714 21:19:38.634601 23888 net.cpp:141] Setting up conv2/relu_3x3
2016-07-14 21:19:38.634 STDERR [INFO] I0714 21:19:38.634618 23888 net.cpp:148] Top shape: 10 192 56 56 (6021120)
2016-07-14 21:19:38.634 STDERR [INFO] I0714 21:19:38.634624 23888 net.cpp:156] Memory required for data: 150528000
2016-07-14 21:19:38.635 STDERR [INFO] I0714 21:19:38.634630 23888 layer_factory.hpp:77] Creating layer conv2/norm2
2016-07-14 21:19:38.636 STDERR [INFO] I0714 21:19:38.634642 23888 net.cpp:91] Creating Layer conv2/norm2
2016-07-14 21:19:38.636 STDERR [INFO] I0714 21:19:38.634649 23888 net.cpp:425] conv2/norm2 <- conv2/3x3
2016-07-14 21:19:38.636 STDERR [INFO] I0714 21:19:38.634657 23888 net.cpp:399] conv2/norm2 -> conv2/norm2
2016-07-14 21:19:38.636 STDERR [INFO] I0714 21:19:38.635851 23888 net.cpp:141] Setting up conv2/norm2
2016-07-14 21:19:38.636 STDERR [INFO] I0714 21:19:38.635869 23888 net.cpp:148] Top shape: 10 192 56 56 (6021120)
2016-07-14 21:19:38.636 STDERR [INFO] I0714 21:19:38.635874 23888 net.cpp:156] Memory required for data: 174612480
2016-07-14 21:19:38.636 STDERR [INFO] I0714 21:19:38.635879 23888 layer_factory.hpp:77] Creating layer pool2/3x3_s2
2016-07-14 21:19:38.636 STDERR [INFO] I0714 21:19:38.635891 23888 net.cpp:91] Creating Layer pool2/3x3_s2
2016-07-14 21:19:38.636 STDERR [INFO] I0714 21:19:38.635897 23888 net.cpp:425] pool2/3x3_s2 <- conv2/norm2
2016-07-14 21:19:38.636 STDERR [INFO] I0714 21:19:38.635910 23888 net.cpp:399] pool2/3x3_s2 -> pool2/3x3_s2
2016-07-14 21:19:38.636 STDERR [INFO] I0714 21:19:38.636802 23888 net.cpp:141] Setting up pool2/3x3_s2
2016-07-14 21:19:38.636 STDERR [INFO] I0714 21:19:38.636818 23888 net.cpp:148] Top shape: 10 192 28 28 (1505280)
2016-07-14 21:19:38.636 STDERR [INFO] I0714 21:19:38.636824 23888 net.cpp:156] Memory required for data: 180633600
2016-07-14 21:19:38.637 STDERR [INFO] I0714 21:19:38.636832 23888 layer_factory.hpp:77] Creating layer pool2/3x3_s2_pool2/3x3_s2_0_split
2016-07-14 21:19:38.637 STDERR [INFO] I0714 21:19:38.636845 23888 net.cpp:91] Creating Layer pool2/3x3_s2_pool2/3x3_s2_0_split
2016-07-14 21:19:38.637 STDERR [INFO] I0714 21:19:38.636852 23888 net.cpp:425] pool2/3x3_s2_pool2/3x3_s2_0_split <- pool2/3x3_s2
2016-07-14 21:19:38.637 STDERR [INFO] I0714 21:19:38.636860 23888 net.cpp:399] pool2/3x3_s2_pool2/3x3_s2_0_split -> pool2/3x3_s2_pool2/3x3_s2_0_split_0
2016-07-14 21:19:38.637 STDERR [INFO] I0714 21:19:38.636873 23888 net.cpp:399] pool2/3x3_s2_pool2/3x3_s2_0_split -> pool2/3x3_s2_pool2/3x3_s2_0_split_1
2016-07-14 21:19:38.637 STDERR [INFO] I0714 21:19:38.636883 23888 net.cpp:399] pool2/3x3_s2_pool2/3x3_s2_0_split -> pool2/3x3_s2_pool2/3x3_s2_0_split_2
2016-07-14 21:19:38.637 STDERR [INFO] I0714 21:19:38.636891 23888 net.cpp:399] pool2/3x3_s2_pool2/3x3_s2_0_split -> pool2/3x3_s2_pool2/3x3_s2_0_split_3
2016-07-14 21:19:38.637 STDERR [INFO] I0714 21:19:38.637840 23888 net.cpp:141] Setting up pool2/3x3_s2_pool2/3x3_s2_0_split
2016-07-14 21:19:38.638 STDERR [INFO] I0714 21:19:38.637857 23888 net.cpp:148] Top shape: 10 192 28 28 (1505280)
2016-07-14 21:19:38.638 STDERR [INFO] I0714 21:19:38.637864 23888 net.cpp:148] Top shape: 10 192 28 28 (1505280)
2016-07-14 21:19:38.638 STDERR [INFO] I0714 21:19:38.637871 23888 net.cpp:148] Top shape: 10 192 28 28 (1505280)
2016-07-14 21:19:38.638 STDERR [INFO] I0714 21:19:38.637876 23888 net.cpp:148] Top shape: 10 192 28 28 (1505280)
2016-07-14 21:19:38.638 STDERR [INFO] I0714 21:19:38.637881 23888 net.cpp:156] Memory required for data: 204718080
2016-07-14 21:19:38.638 STDERR [INFO] I0714 21:19:38.637887 23888 layer_factory.hpp:77] Creating layer inception_3a/1x1
2016-07-14 21:19:38.638 STDERR [INFO] I0714 21:19:38.637907 23888 net.cpp:91] Creating Layer inception_3a/1x1
2016-07-14 21:19:38.638 STDERR [INFO] I0714 21:19:38.637913 23888 net.cpp:425] inception_3a/1x1 <- pool2/3x3_s2_pool2/3x3_s2_0_split_0
2016-07-14 21:19:38.638 STDERR [INFO] I0714 21:19:38.637924 23888 net.cpp:399] inception_3a/1x1 -> inception_3a/1x1
2016-07-14 21:19:38.640 STDERR [INFO] I0714 21:19:38.640837 23892 net.cpp:141] Setting up inception_3a/1x1
2016-07-14 21:19:38.641 STDERR [INFO] I0714 21:19:38.640858 23892 net.cpp:148] Top shape: 10 64 28 28 (501760)
2016-07-14 21:19:38.641 STDERR [INFO] I0714 21:19:38.640864 23892 net.cpp:156] Memory required for data: 206725120
2016-07-14 21:19:38.641 STDERR [INFO] I0714 21:19:38.640877 23892 layer_factory.hpp:77] Creating layer inception_3a/relu_1x1
2016-07-14 21:19:38.641 STDERR [INFO] I0714 21:19:38.640890 23892 net.cpp:91] Creating Layer inception_3a/relu_1x1
2016-07-14 21:19:38.641 STDERR [INFO] I0714 21:19:38.640897 23892 net.cpp:425] inception_3a/relu_1x1 <- inception_3a/1x1
2016-07-14 21:19:38.641 STDERR [INFO] I0714 21:19:38.640905 23892 net.cpp:386] inception_3a/relu_1x1 -> inception_3a/1x1 (in-place)
2016-07-14 21:19:38.641 STDERR [INFO] I0714 21:19:38.641247 23892 net.cpp:141] Setting up inception_3a/relu_1x1
2016-07-14 21:19:38.641 STDERR [INFO] I0714 21:19:38.641259 23892 net.cpp:148] Top shape: 10 64 28 28 (501760)
2016-07-14 21:19:38.641 STDERR [INFO] I0714 21:19:38.641264 23892 net.cpp:156] Memory required for data: 208732160
2016-07-14 21:19:38.641 STDERR [INFO] I0714 21:19:38.641270 23892 layer_factory.hpp:77] Creating layer inception_3a/3x3_reduce
2016-07-14 21:19:38.641 STDERR [INFO] I0714 21:19:38.641288 23892 net.cpp:91] Creating Layer inception_3a/3x3_reduce
2016-07-14 21:19:38.641 STDERR [INFO] I0714 21:19:38.641294 23892 net.cpp:425] inception_3a/3x3_reduce <- pool2/3x3_s2_pool2/3x3_s2_0_split_1
2016-07-14 21:19:38.641 STDERR [INFO] I0714 21:19:38.641306 23892 net.cpp:399] inception_3a/3x3_reduce -> inception_3a/3x3_reduce
2016-07-14 21:19:38.648 STDERR [INFO] I0714 21:19:38.648645 23888 net.cpp:141] Setting up inception_3a/1x1
2016-07-14 21:19:38.648 STDERR [INFO] I0714 21:19:38.648675 23888 net.cpp:148] Top shape: 10 64 28 28 (501760)
2016-07-14 21:19:38.648 STDERR [INFO] I0714 21:19:38.648682 23888 net.cpp:156] Memory required for data: 206725120
2016-07-14 21:19:38.649 STDERR [INFO] I0714 21:19:38.648694 23888 layer_factory.hpp:77] Creating layer inception_3a/relu_1x1
2016-07-14 21:19:38.649 STDERR [INFO] I0714 21:19:38.648706 23888 net.cpp:91] Creating Layer inception_3a/relu_1x1
2016-07-14 21:19:38.649 STDERR [INFO] I0714 21:19:38.648712 23888 net.cpp:425] inception_3a/relu_1x1 <- inception_3a/1x1
2016-07-14 21:19:38.649 STDERR [INFO] I0714 21:19:38.648721 23888 net.cpp:386] inception_3a/relu_1x1 -> inception_3a/1x1 (in-place)
2016-07-14 21:19:38.649 STDERR [INFO] I0714 21:19:38.649020 23888 net.cpp:141] Setting up inception_3a/relu_1x1
2016-07-14 21:19:38.649 STDERR [INFO] I0714 21:19:38.649034 23888 net.cpp:148] Top shape: 10 64 28 28 (501760)
2016-07-14 21:19:38.649 STDERR [INFO] I0714 21:19:38.649039 23888 net.cpp:156] Memory required for data: 208732160
2016-07-14 21:19:38.649 STDERR [INFO] I0714 21:19:38.649052 23888 layer_factory.hpp:77] Creating layer inception_3a/3x3_reduce
2016-07-14 21:19:38.650 STDERR [INFO] I0714 21:19:38.649075 23888 net.cpp:91] Creating Layer inception_3a/3x3_reduce
2016-07-14 21:19:38.650 STDERR [INFO] I0714 21:19:38.649081 23888 net.cpp:425] inception_3a/3x3_reduce <- pool2/3x3_s2_pool2/3x3_s2_0_split_1
2016-07-14 21:19:38.650 STDERR [INFO] I0714 21:19:38.649096 23888 net.cpp:399] inception_3a/3x3_reduce -> inception_3a/3x3_reduce
2016-07-14 21:19:38.651 STDERR [INFO] I0714 21:19:38.651864 23892 net.cpp:141] Setting up inception_3a/3x3_reduce
2016-07-14 21:19:38.652 STDERR [INFO] I0714 21:19:38.651899 23892 net.cpp:148] Top shape: 10 96 28 28 (752640)
2016-07-14 21:19:38.652 STDERR [INFO] I0714 21:19:38.651906 23892 net.cpp:156] Memory required for data: 211742720
2016-07-14 21:19:38.652 STDERR [INFO] I0714 21:19:38.651922 23892 layer_factory.hpp:77] Creating layer inception_3a/relu_3x3_reduce
2016-07-14 21:19:38.652 STDERR [INFO] I0714 21:19:38.651933 23892 net.cpp:91] Creating Layer inception_3a/relu_3x3_reduce
2016-07-14 21:19:38.652 STDERR [INFO] I0714 21:19:38.651940 23892 net.cpp:425] inception_3a/relu_3x3_reduce <- inception_3a/3x3_reduce
2016-07-14 21:19:38.652 STDERR [INFO] I0714 21:19:38.651953 23892 net.cpp:386] inception_3a/relu_3x3_reduce -> inception_3a/3x3_reduce (in-place)
2016-07-14 21:19:38.652 STDERR [INFO] I0714 21:19:38.652343 23892 net.cpp:141] Setting up inception_3a/relu_3x3_reduce
2016-07-14 21:19:38.652 STDERR [INFO] I0714 21:19:38.652357 23892 net.cpp:148] Top shape: 10 96 28 28 (752640)
2016-07-14 21:19:38.652 STDERR [INFO] I0714 21:19:38.652362 23892 net.cpp:156] Memory required for data: 214753280
2016-07-14 21:19:38.652 STDERR [INFO] I0714 21:19:38.652367 23892 layer_factory.hpp:77] Creating layer inception_3a/3x3
2016-07-14 21:19:38.652 STDERR [INFO] I0714 21:19:38.652395 23892 net.cpp:91] Creating Layer inception_3a/3x3
2016-07-14 21:19:38.652 STDERR [INFO] I0714 21:19:38.652401 23892 net.cpp:425] inception_3a/3x3 <- inception_3a/3x3_reduce
2016-07-14 21:19:38.652 STDERR [INFO] I0714 21:19:38.652415 23892 net.cpp:399] inception_3a/3x3 -> inception_3a/3x3
2016-07-14 21:19:38.655 STDERR [INFO] I0714 21:19:38.654960 23888 net.cpp:141] Setting up inception_3a/3x3_reduce
2016-07-14 21:19:38.655 STDERR [INFO] I0714 21:19:38.654983 23888 net.cpp:148] Top shape: 10 96 28 28 (752640)
2016-07-14 21:19:38.655 STDERR [INFO] I0714 21:19:38.654989 23888 net.cpp:156] Memory required for data: 211742720
2016-07-14 21:19:38.655 STDERR [INFO] I0714 21:19:38.655016 23888 layer_factory.hpp:77] Creating layer inception_3a/relu_3x3_reduce
2016-07-14 21:19:38.655 STDERR [INFO] I0714 21:19:38.655030 23888 net.cpp:91] Creating Layer inception_3a/relu_3x3_reduce
2016-07-14 21:19:38.655 STDERR [INFO] I0714 21:19:38.655037 23888 net.cpp:425] inception_3a/relu_3x3_reduce <- inception_3a/3x3_reduce
2016-07-14 21:19:38.655 STDERR [INFO] I0714 21:19:38.655045 23888 net.cpp:386] inception_3a/relu_3x3_reduce -> inception_3a/3x3_reduce (in-place)
2016-07-14 21:19:38.655 STDERR [INFO] I0714 21:19:38.655320 23888 net.cpp:141] Setting up inception_3a/relu_3x3_reduce
2016-07-14 21:19:38.655 STDERR [INFO] I0714 21:19:38.655333 23888 net.cpp:148] Top shape: 10 96 28 28 (752640)
2016-07-14 21:19:38.655 STDERR [INFO] I0714 21:19:38.655339 23888 net.cpp:156] Memory required for data: 214753280
2016-07-14 21:19:38.655 STDERR [INFO] I0714 21:19:38.655344 23888 layer_factory.hpp:77] Creating layer inception_3a/3x3
2016-07-14 21:19:38.655 STDERR [INFO] I0714 21:19:38.655370 23888 net.cpp:91] Creating Layer inception_3a/3x3
2016-07-14 21:19:38.655 STDERR [INFO] I0714 21:19:38.655377 23888 net.cpp:425] inception_3a/3x3 <- inception_3a/3x3_reduce
2016-07-14 21:19:38.655 STDERR [INFO] I0714 21:19:38.655390 23888 net.cpp:399] inception_3a/3x3 -> inception_3a/3x3
2016-07-14 21:19:38.657 STDERR [INFO] I0714 21:19:38.657481 23892 net.cpp:141] Setting up inception_3a/3x3
2016-07-14 21:19:38.657 STDERR [INFO] I0714 21:19:38.657507 23892 net.cpp:148] Top shape: 10 128 28 28 (1003520)
2016-07-14 21:19:38.657 STDERR [INFO] I0714 21:19:38.657515 23892 net.cpp:156] Memory required for data: 218767360
2016-07-14 21:19:38.657 STDERR [INFO] I0714 21:19:38.657524 23892 layer_factory.hpp:77] Creating layer inception_3a/relu_3x3
2016-07-14 21:19:38.657 STDERR [INFO] I0714 21:19:38.657534 23892 net.cpp:91] Creating Layer inception_3a/relu_3x3
2016-07-14 21:19:38.657 STDERR [INFO] I0714 21:19:38.657541 23892 net.cpp:425] inception_3a/relu_3x3 <- inception_3a/3x3
2016-07-14 21:19:38.657 STDERR [INFO] I0714 21:19:38.657549 23892 net.cpp:386] inception_3a/relu_3x3 -> inception_3a/3x3 (in-place)
2016-07-14 21:19:38.658 STDERR [INFO] I0714 21:19:38.658452 23892 net.cpp:141] Setting up inception_3a/relu_3x3
2016-07-14 21:19:38.658 STDERR [INFO] I0714 21:19:38.658470 23892 net.cpp:148] Top shape: 10 128 28 28 (1003520)
2016-07-14 21:19:38.658 STDERR [INFO] I0714 21:19:38.658476 23892 net.cpp:156] Memory required for data: 222781440
2016-07-14 21:19:38.658 STDERR [INFO] I0714 21:19:38.658483 23892 layer_factory.hpp:77] Creating layer inception_3a/5x5_reduce
2016-07-14 21:19:38.658 STDERR [INFO] I0714 21:19:38.658500 23892 net.cpp:91] Creating Layer inception_3a/5x5_reduce
2016-07-14 21:19:38.658 STDERR [INFO] I0714 21:19:38.658507 23892 net.cpp:425] inception_3a/5x5_reduce <- pool2/3x3_s2_pool2/3x3_s2_0_split_2
2016-07-14 21:19:38.658 STDERR [INFO] I0714 21:19:38.658519 23892 net.cpp:399] inception_3a/5x5_reduce -> inception_3a/5x5_reduce
2016-07-14 21:19:38.662 STDERR [INFO] I0714 21:19:38.662080 23888 net.cpp:141] Setting up inception_3a/3x3
2016-07-14 21:19:38.662 STDERR [INFO] I0714 21:19:38.662099 23888 net.cpp:148] Top shape: 10 128 28 28 (1003520)
2016-07-14 21:19:38.662 STDERR [INFO] I0714 21:19:38.662104 23888 net.cpp:156] Memory required for data: 218767360
2016-07-14 21:19:38.662 STDERR [INFO] I0714 21:19:38.662117 23888 layer_factory.hpp:77] Creating layer inception_3a/relu_3x3
2016-07-14 21:19:38.662 STDERR [INFO] I0714 21:19:38.662132 23888 net.cpp:91] Creating Layer inception_3a/relu_3x3
2016-07-14 21:19:38.662 STDERR [INFO] I0714 21:19:38.662139 23888 net.cpp:425] inception_3a/relu_3x3 <- inception_3a/3x3
2016-07-14 21:19:38.662 STDERR [INFO] I0714 21:19:38.662148 23888 net.cpp:386] inception_3a/relu_3x3 -> inception_3a/3x3 (in-place)
2016-07-14 21:19:38.663 STDERR [INFO] I0714 21:19:38.663130 23888 net.cpp:141] Setting up inception_3a/relu_3x3
2016-07-14 21:19:38.663 STDERR [INFO] I0714 21:19:38.663148 23888 net.cpp:148] Top shape: 10 128 28 28 (1003520)
2016-07-14 21:19:38.663 STDERR [INFO] I0714 21:19:38.663153 23888 net.cpp:156] Memory required for data: 222781440
2016-07-14 21:19:38.663 STDERR [INFO] I0714 21:19:38.663161 23888 layer_factory.hpp:77] Creating layer inception_3a/5x5_reduce
2016-07-14 21:19:38.663 STDERR [INFO] I0714 21:19:38.663182 23888 net.cpp:91] Creating Layer inception_3a/5x5_reduce
2016-07-14 21:19:38.663 STDERR [INFO] I0714 21:19:38.663189 23888 net.cpp:425] inception_3a/5x5_reduce <- pool2/3x3_s2_pool2/3x3_s2_0_split_2
2016-07-14 21:19:38.663 STDERR [INFO] I0714 21:19:38.663200 23888 net.cpp:399] inception_3a/5x5_reduce -> inception_3a/5x5_reduce
2016-07-14 21:19:38.664 STDERR [INFO] I0714 21:19:38.664189 23892 net.cpp:141] Setting up inception_3a/5x5_reduce
2016-07-14 21:19:38.664 STDERR [INFO] I0714 21:19:38.664209 23892 net.cpp:148] Top shape: 10 16 28 28 (125440)
2016-07-14 21:19:38.664 STDERR [INFO] I0714 21:19:38.664216 23892 net.cpp:156] Memory required for data: 223283200
2016-07-14 21:19:38.664 STDERR [INFO] I0714 21:19:38.664225 23892 layer_factory.hpp:77] Creating layer inception_3a/relu_5x5_reduce
2016-07-14 21:19:38.664 STDERR [INFO] I0714 21:19:38.664235 23892 net.cpp:91] Creating Layer inception_3a/relu_5x5_reduce
2016-07-14 21:19:38.664 STDERR [INFO] I0714 21:19:38.664242 23892 net.cpp:425] inception_3a/relu_5x5_reduce <- inception_3a/5x5_reduce
2016-07-14 21:19:38.664 STDERR [INFO] I0714 21:19:38.664252 23892 net.cpp:386] inception_3a/relu_5x5_reduce -> inception_3a/5x5_reduce (in-place)
2016-07-14 21:19:38.664 STDERR [INFO] I0714 21:19:38.664635 23892 net.cpp:141] Setting up inception_3a/relu_5x5_reduce
2016-07-14 21:19:38.664 STDERR [INFO] I0714 21:19:38.664649 23892 net.cpp:148] Top shape: 10 16 28 28 (125440)
2016-07-14 21:19:38.664 STDERR [INFO] I0714 21:19:38.664654 23892 net.cpp:156] Memory required for data: 223784960
2016-07-14 21:19:38.664 STDERR [INFO] I0714 21:19:38.664659 23892 layer_factory.hpp:77] Creating layer inception_3a/5x5
2016-07-14 21:19:38.664 STDERR [INFO] I0714 21:19:38.664677 23892 net.cpp:91] Creating Layer inception_3a/5x5
2016-07-14 21:19:38.664 STDERR [INFO] I0714 21:19:38.664685 23892 net.cpp:425] inception_3a/5x5 <- inception_3a/5x5_reduce
2016-07-14 21:19:38.664 STDERR [INFO] I0714 21:19:38.664698 23892 net.cpp:399] inception_3a/5x5 -> inception_3a/5x5
2016-07-14 21:19:38.667 STDERR [INFO] I0714 21:19:38.667693 23888 net.cpp:141] Setting up inception_3a/5x5_reduce
2016-07-14 21:19:38.667 STDERR [INFO] I0714 21:19:38.667718 23888 net.cpp:148] Top shape: 10 16 28 28 (125440)
2016-07-14 21:19:38.667 STDERR [INFO] I0714 21:19:38.667724 23888 net.cpp:156] Memory required for data: 223283200
2016-07-14 21:19:38.668 STDERR [INFO] I0714 21:19:38.667734 23888 layer_factory.hpp:77] Creating layer inception_3a/relu_5x5_reduce
2016-07-14 21:19:38.668 STDERR [INFO] I0714 21:19:38.667745 23888 net.cpp:91] Creating Layer inception_3a/relu_5x5_reduce
2016-07-14 21:19:38.668 STDERR [INFO] I0714 21:19:38.667752 23888 net.cpp:425] inception_3a/relu_5x5_reduce <- inception_3a/5x5_reduce
2016-07-14 21:19:38.668 STDERR [INFO] I0714 21:19:38.667762 23888 net.cpp:386] inception_3a/relu_5x5_reduce -> inception_3a/5x5_reduce (in-place)
2016-07-14 21:19:38.668 STDERR [INFO] I0714 21:19:38.668041 23888 net.cpp:141] Setting up inception_3a/relu_5x5_reduce
2016-07-14 21:19:38.668 STDERR [INFO] I0714 21:19:38.668054 23888 net.cpp:148] Top shape: 10 16 28 28 (125440)
2016-07-14 21:19:38.668 STDERR [INFO] I0714 21:19:38.668059 23888 net.cpp:156] Memory required for data: 223784960
2016-07-14 21:19:38.668 STDERR [INFO] I0714 21:19:38.668066 23888 layer_factory.hpp:77] Creating layer inception_3a/5x5
2016-07-14 21:19:38.668 STDERR [INFO] I0714 21:19:38.668087 23888 net.cpp:91] Creating Layer inception_3a/5x5
2016-07-14 21:19:38.668 STDERR [INFO] I0714 21:19:38.668094 23888 net.cpp:425] inception_3a/5x5 <- inception_3a/5x5_reduce
2016-07-14 21:19:38.668 STDERR [INFO] I0714 21:19:38.668104 23888 net.cpp:399] inception_3a/5x5 -> inception_3a/5x5
2016-07-14 21:19:38.672 STDERR [INFO] I0714 21:19:38.672467 23892 net.cpp:141] Setting up inception_3a/5x5
2016-07-14 21:19:38.672 STDERR [INFO] I0714 21:19:38.672488 23892 net.cpp:148] Top shape: 10 32 28 28 (250880)
2016-07-14 21:19:38.672 STDERR [INFO] I0714 21:19:38.672494 23892 net.cpp:156] Memory required for data: 224788480
2016-07-14 21:19:38.672 STDERR [INFO] I0714 21:19:38.672504 23892 layer_factory.hpp:77] Creating layer inception_3a/relu_5x5
2016-07-14 21:19:38.672 STDERR [INFO] I0714 21:19:38.672514 23892 net.cpp:91] Creating Layer inception_3a/relu_5x5
2016-07-14 21:19:38.672 STDERR [INFO] I0714 21:19:38.672520 23892 net.cpp:425] inception_3a/relu_5x5 <- inception_3a/5x5
2016-07-14 21:19:38.672 STDERR [INFO] I0714 21:19:38.672531 23892 net.cpp:386] inception_3a/relu_5x5 -> inception_3a/5x5 (in-place)
2016-07-14 21:19:38.673 STDERR [INFO] I0714 21:19:38.672812 23892 net.cpp:141] Setting up inception_3a/relu_5x5
2016-07-14 21:19:38.673 STDERR [INFO] I0714 21:19:38.672830 23892 net.cpp:148] Top shape: 10 32 28 28 (250880)
2016-07-14 21:19:38.673 STDERR [INFO] I0714 21:19:38.672835 23892 net.cpp:156] Memory required for data: 225792000
2016-07-14 21:19:38.673 STDERR [INFO] I0714 21:19:38.672840 23892 layer_factory.hpp:77] Creating layer inception_3a/pool
2016-07-14 21:19:38.673 STDERR [INFO] I0714 21:19:38.672855 23892 net.cpp:91] Creating Layer inception_3a/pool
2016-07-14 21:19:38.673 STDERR [INFO] I0714 21:19:38.672861 23892 net.cpp:425] inception_3a/pool <- pool2/3x3_s2_pool2/3x3_s2_0_split_3
2016-07-14 21:19:38.673 STDERR [INFO] I0714 21:19:38.672870 23892 net.cpp:399] inception_3a/pool -> inception_3a/pool
2016-07-14 21:19:38.673 STDERR [INFO] I0714 21:19:38.673108 23892 net.cpp:141] Setting up inception_3a/pool
2016-07-14 21:19:38.673 STDERR [INFO] I0714 21:19:38.673121 23892 net.cpp:148] Top shape: 10 192 28 28 (1505280)
2016-07-14 21:19:38.673 STDERR [INFO] I0714 21:19:38.673126 23892 net.cpp:156] Memory required for data: 231813120
2016-07-14 21:19:38.673 STDERR [INFO] I0714 21:19:38.673131 23892 layer_factory.hpp:77] Creating layer inception_3a/pool_proj
2016-07-14 21:19:38.673 STDERR [INFO] I0714 21:19:38.673159 23892 net.cpp:91] Creating Layer inception_3a/pool_proj
2016-07-14 21:19:38.673 STDERR [INFO] I0714 21:19:38.673166 23892 net.cpp:425] inception_3a/pool_proj <- inception_3a/pool
2016-07-14 21:19:38.673 STDERR [INFO] I0714 21:19:38.673177 23892 net.cpp:399] inception_3a/pool_proj -> inception_3a/pool_proj
2016-07-14 21:19:38.676 STDERR [INFO] I0714 21:19:38.675894 23888 net.cpp:141] Setting up inception_3a/5x5
2016-07-14 21:19:38.676 STDERR [INFO] I0714 21:19:38.675916 23888 net.cpp:148] Top shape: 10 32 28 28 (250880)
2016-07-14 21:19:38.676 STDERR [INFO] I0714 21:19:38.675922 23888 net.cpp:156] Memory required for data: 224788480
2016-07-14 21:19:38.676 STDERR [INFO] I0714 21:19:38.675933 23888 layer_factory.hpp:77] Creating layer inception_3a/relu_5x5
2016-07-14 21:19:38.676 STDERR [INFO] I0714 21:19:38.675943 23888 net.cpp:91] Creating Layer inception_3a/relu_5x5
2016-07-14 21:19:38.676 STDERR [INFO] I0714 21:19:38.675951 23888 net.cpp:425] inception_3a/relu_5x5 <- inception_3a/5x5
2016-07-14 21:19:38.676 STDERR [INFO] I0714 21:19:38.675963 23888 net.cpp:386] inception_3a/relu_5x5 -> inception_3a/5x5 (in-place)
2016-07-14 21:19:38.676 STDERR [INFO] I0714 21:19:38.676350 23888 net.cpp:141] Setting up inception_3a/relu_5x5
2016-07-14 21:19:38.676 STDERR [INFO] I0714 21:19:38.676367 23888 net.cpp:148] Top shape: 10 32 28 28 (250880)
2016-07-14 21:19:38.676 STDERR [INFO] I0714 21:19:38.676372 23888 net.cpp:156] Memory required for data: 225792000
2016-07-14 21:19:38.676 STDERR [INFO] I0714 21:19:38.676379 23888 layer_factory.hpp:77] Creating layer inception_3a/pool
2016-07-14 21:19:38.676 STDERR [INFO] I0714 21:19:38.676398 23888 net.cpp:91] Creating Layer inception_3a/pool
2016-07-14 21:19:38.676 STDERR [INFO] I0714 21:19:38.676404 23888 net.cpp:425] inception_3a/pool <- pool2/3x3_s2_pool2/3x3_s2_0_split_3
2016-07-14 21:19:38.676 STDERR [INFO] I0714 21:19:38.676412 23888 net.cpp:399] inception_3a/pool -> inception_3a/pool
2016-07-14 21:19:38.677 STDERR [INFO] I0714 21:19:38.676990 23888 net.cpp:141] Setting up inception_3a/pool
2016-07-14 21:19:38.677 STDERR [INFO] I0714 21:19:38.677003 23888 net.cpp:148] Top shape: 10 192 28 28 (1505280)
2016-07-14 21:19:38.677 STDERR [INFO] I0714 21:19:38.677008 23888 net.cpp:156] Memory required for data: 231813120
2016-07-14 21:19:38.677 STDERR [INFO] I0714 21:19:38.677014 23888 layer_factory.hpp:77] Creating layer inception_3a/pool_proj
2016-07-14 21:19:38.677 STDERR [INFO] I0714 21:19:38.677040 23888 net.cpp:91] Creating Layer inception_3a/pool_proj
2016-07-14 21:19:38.677 STDERR [INFO] I0714 21:19:38.677047 23888 net.cpp:425] inception_3a/pool_proj <- inception_3a/pool
2016-07-14 21:19:38.677 STDERR [INFO] I0714 21:19:38.677062 23888 net.cpp:399] inception_3a/pool_proj -> inception_3a/pool_proj
2016-07-14 21:19:38.678 STDERR [INFO] I0714 21:19:38.678040 23892 net.cpp:141] Setting up inception_3a/pool_proj
2016-07-14 21:19:38.678 STDERR [INFO] I0714 21:19:38.678058 23892 net.cpp:148] Top shape: 10 32 28 28 (250880)
2016-07-14 21:19:38.678 STDERR [INFO] I0714 21:19:38.678064 23892 net.cpp:156] Memory required for data: 232816640
2016-07-14 21:19:38.678 STDERR [INFO] I0714 21:19:38.678081 23892 layer_factory.hpp:77] Creating layer inception_3a/relu_pool_proj
2016-07-14 21:19:38.678 STDERR [INFO] I0714 21:19:38.678094 23892 net.cpp:91] Creating Layer inception_3a/relu_pool_proj
2016-07-14 21:19:38.678 STDERR [INFO] I0714 21:19:38.678102 23892 net.cpp:425] inception_3a/relu_pool_proj <- inception_3a/pool_proj
2016-07-14 21:19:38.678 STDERR [INFO] I0714 21:19:38.678110 23892 net.cpp:386] inception_3a/relu_pool_proj -> inception_3a/pool_proj (in-place)
2016-07-14 21:19:38.679 STDERR [INFO] I0714 21:19:38.679363 23892 net.cpp:141] Setting up inception_3a/relu_pool_proj
2016-07-14 21:19:38.679 STDERR [INFO] I0714 21:19:38.679380 23892 net.cpp:148] Top shape: 10 32 28 28 (250880)
2016-07-14 21:19:38.679 STDERR [INFO] I0714 21:19:38.679386 23892 net.cpp:156] Memory required for data: 233820160
2016-07-14 21:19:38.679 STDERR [INFO] I0714 21:19:38.679392 23892 layer_factory.hpp:77] Creating layer inception_3a/output
2016-07-14 21:19:38.679 STDERR [INFO] I0714 21:19:38.679419 23892 net.cpp:91] Creating Layer inception_3a/output
2016-07-14 21:19:38.679 STDERR [INFO] I0714 21:19:38.679425 23892 net.cpp:425] inception_3a/output <- inception_3a/1x1
2016-07-14 21:19:38.679 STDERR [INFO] I0714 21:19:38.679432 23892 net.cpp:425] inception_3a/output <- inception_3a/3x3
2016-07-14 21:19:38.679 STDERR [INFO] I0714 21:19:38.679438 23892 net.cpp:425] inception_3a/output <- inception_3a/5x5
2016-07-14 21:19:38.679 STDERR [INFO] I0714 21:19:38.679445 23892 net.cpp:425] inception_3a/output <- inception_3a/pool_proj
2016-07-14 21:19:38.679 STDERR [INFO] I0714 21:19:38.679451 23892 net.cpp:399] inception_3a/output -> inception_3a/output
2016-07-14 21:19:38.680 STDERR [INFO] I0714 21:19:38.679775 23892 net.cpp:141] Setting up inception_3a/output
2016-07-14 21:19:38.680 STDERR [INFO] I0714 21:19:38.679788 23892 net.cpp:148] Top shape: 10 256 28 28 (2007040)
2016-07-14 21:19:38.680 STDERR [INFO] I0714 21:19:38.679792 23892 net.cpp:156] Memory required for data: 241848320
2016-07-14 21:19:38.680 STDERR [INFO] I0714 21:19:38.679798 23892 layer_factory.hpp:77] Creating layer inception_3a/output_inception_3a/output_0_split
2016-07-14 21:19:38.680 STDERR [INFO] I0714 21:19:38.679807 23892 net.cpp:91] Creating Layer inception_3a/output_inception_3a/output_0_split
…
2016-07-14 21:19:38.680 STDERR [INFO] I0714 21:19:38.679833 23892 net.cpp:399] inception_3a/output_inception_3a/output_0_split -> inception_3a/output_inception_3a/output_0_split_1
2016-07-14 21:19:38.680 STDERR [INFO] I0714 21:19:38.679843 23892 net.cpp:399] inception_3a/output_inception_3a/output_0_split -> inception_3a/output_inception_3a/output_0_split_2
2016-07-14 21:19:38.680 STDERR [INFO] I0714 21:19:38.679852 23892 net.cpp:399] inception_3a/output_inception_3a/output_0_split -> inception_3a/output_inception_3a/output_0_split_3
2016-07-14 21:19:38.680 STDERR [INFO] I0714 21:19:38.680272 23892 net.cpp:141] Setting up inception_3a/output_inception_3a/output_0_split
2016-07-14 21:19:38.680 STDERR [INFO] I0714 21:19:38.680284 23892 net.cpp:148] Top shape: 10 256 28 28 (2007040)
2016-07-14 21:19:38.680 STDERR [INFO] I0714 21:19:38.680291 23892 net.cpp:148] Top shape: 10 256 28 28 (2007040)
2016-07-14 21:19:38.680 STDERR [INFO] I0714 21:19:38.680296 23892 net.cpp:148] Top shape: 10 256 28 28 (2007040)
2016-07-14 21:19:38.680 STDERR [INFO] I0714 21:19:38.680302 23892 net.cpp:148] Top shape: 10 256 28 28 (2007040)
2016-07-14 21:19:38.680 STDERR [INFO] I0714 21:19:38.680306 23892 net.cpp:156] Memory required for data: 273960960
2016-07-14 21:19:38.680 STDERR [INFO] I0714 21:19:38.680311 23892 layer_factory.hpp:77] Creating layer inception_3b/1x1
2016-07-14 21:19:38.680 STDERR [INFO] I0714 21:19:38.680330 23892 net.cpp:91] Creating Layer inception_3b/1x1
2016-07-14 21:19:38.680 STDERR [INFO] I0714 21:19:38.680335 23892 net.cpp:425] inception_3b/1x1 <- inception_3a/output_inception_3a/output_0_split_0
2016-07-14 21:19:38.680 STDERR [INFO] I0714 21:19:38.680347 23892 net.cpp:399] inception_3b/1x1 -> inception_3b/1x1
2016-07-14 21:19:38.680 STDERR [INFO] I0714 21:19:38.680912 23888 net.cpp:141] Setting up inception_3a/pool_proj
2016-07-14 21:19:38.681 STDERR [INFO] I0714 21:19:38.680929 23888 net.cpp:148] Top shape: 10 32 28 28 (250880)
2016-07-14 21:19:38.681 STDERR [INFO] I0714 21:19:38.680934 23888 net.cpp:156] Memory required for data: 232816640
2016-07-14 21:19:38.681 STDERR [INFO] I0714 21:19:38.680953 23888 layer_factory.hpp:77] Creating layer inception_3a/relu_pool_proj
2016-07-14 21:19:38.681 STDERR [INFO] I0714 21:19:38.680963 23888 net.cpp:91] Creating Layer inception_3a/relu_pool_proj
2016-07-14 21:19:38.681 STDERR [INFO] I0714 21:19:38.680969 23888 net.cpp:425] inception_3a/relu_pool_proj <- inception_3a/pool_proj
2016-07-14 21:19:38.681 STDERR [INFO] I0714 21:19:38.680977 23888 net.cpp:386] inception_3a/relu_pool_proj -> inception_3a/pool_proj (in-place)
2016-07-14 21:19:38.681 STDERR [INFO] I0714 21:19:38.681893 23888 net.cpp:141] Setting up inception_3a/relu_pool_proj
2016-07-14 21:19:38.682 STDERR [INFO] I0714 21:19:38.681913 23888 net.cpp:148] Top shape: 10 32 28 28 (250880)
2016-07-14 21:19:38.682 STDERR [INFO] I0714 21:19:38.681918 23888 net.cpp:156] Memory required for data: 233820160
2016-07-14 21:19:38.682 STDERR [INFO] I0714 21:19:38.681926 23888 layer_factory.hpp:77] Creating layer inception_3a/output
2016-07-14 21:19:38.682 STDERR [INFO] I0714 21:19:38.681936 23888 net.cpp:91] Creating Layer inception_3a/output
2016-07-14 21:19:38.682 STDERR [INFO] I0714 21:19:38.681941 23888 net.cpp:425] inception_3a/output <- inception_3a/1x1
2016-07-14 21:19:38.682 STDERR [INFO] I0714 21:19:38.681948 23888 net.cpp:425] inception_3a/output <- inception_3a/3x3
2016-07-14 21:19:38.682 STDERR [INFO] I0714 21:19:38.681954 23888 net.cpp:425] inception_3a/output <- inception_3a/5x5
2016-07-14 21:19:38.682 STDERR [INFO] I0714 21:19:38.681960 23888 net.cpp:425] inception_3a/output <- inception_3a/pool_proj
2016-07-14 21:19:38.682 STDERR [INFO] I0714 21:19:38.681968 23888 net.cpp:399] inception_3a/output -> inception_3a/output
2016-07-14 21:19:38.682 STDERR [INFO] I0714 21:19:38.682071 23888 net.cpp:141] Setting up inception_3a/output
2016-07-14 21:19:38.682 STDERR [INFO] I0714 21:19:38.682083 23888 net.cpp:148] Top shape: 10 256 28 28 (2007040)
2016-07-14 21:19:38.682 STDERR [INFO] I0714 21:19:38.682088 23888 net.cpp:156] Memory required for data: 241848320
2016-07-14 21:19:38.682 STDERR [INFO] I0714 21:19:38.682096 23888 layer_factory.hpp:77] Creating layer inception_3a/output_inception_3a/output_0_split
2016-07-14 21:19:38.682 STDERR [INFO] I0714 21:19:38.682106 23888 net.cpp:91] Creating Layer inception_3a/output_inception_3a/output_0_split
…
2016-07-14 21:19:38.682 STDERR [INFO] I0714 21:19:38.682134 23888 net.cpp:399] inception_3a/output_inception_3a/output_0_split -> inception_3a/output_inception_3a/output_0_split_1
2016-07-14 21:19:38.682 STDERR [INFO] I0714 21:19:38.682144 23888 net.cpp:399] inception_3a/output_inception_3a/output_0_split -> inception_3a/output_inception_3a/output_0_split_2
2016-07-14 21:19:38.682 STDERR [INFO] I0714 21:19:38.682152 23888 net.cpp:399] inception_3a/output_inception_3a/output_0_split -> inception_3a/output_inception_3a/output_0_split_3
2016-07-14 21:19:38.682 STDERR [INFO] I0714 21:19:38.682590 23888 net.cpp:141] Setting up inception_3a/output_inception_3a/output_0_split
2016-07-14 21:19:38.683 STDERR [INFO] I0714 21:19:38.682603 23888 net.cpp:148] Top shape: 10 256 28 28 (2007040)
2016-07-14 21:19:38.683 STDERR [INFO] I0714 21:19:38.682610 23888 net.cpp:148] Top shape: 10 256 28 28 (2007040)
2016-07-14 21:19:38.683 STDERR [INFO] I0714 21:19:38.682615 23888 net.cpp:148] Top shape: 10 256 28 28 (2007040)
2016-07-14 21:19:38.683 STDERR [INFO] I0714 21:19:38.682621 23888 net.cpp:148] Top shape: 10 256 28 28 (2007040)
2016-07-14 21:19:38.683 STDERR [INFO] I0714 21:19:38.682626 23888 net.cpp:156] Memory required for data: 273960960
2016-07-14 21:19:38.683 STDERR [INFO] I0714 21:19:38.682631 23888 layer_factory.hpp:77] Creating layer inception_3b/1x1
2016-07-14 21:19:38.683 STDERR [INFO] I0714 21:19:38.682649 23888 net.cpp:91] Creating Layer inception_3b/1x1
2016-07-14 21:19:38.683 STDERR [INFO] I0714 21:19:38.682657 23888 net.cpp:425] inception_3b/1x1 <- inception_3a/output_inception_3a/output_0_split_0
2016-07-14 21:19:38.683 STDERR [INFO] I0714 21:19:38.682669 23888 net.cpp:399] inception_3b/1x1 -> inception_3b/1x1
2016-07-14 21:19:38.684 STDERR [INFO] I0714 21:19:38.684859 23892 net.cpp:141] Setting up inception_3b/1x1
2016-07-14 21:19:38.685 STDERR [INFO] I0714 21:19:38.684881 23892 net.cpp:148] Top shape: 10 128 28 28 (1003520)
2016-07-14 21:19:38.685 STDERR [INFO] I0714 21:19:38.684886 23892 net.cpp:156] Memory required for data: 277975040
2016-07-14 21:19:38.685 STDERR [INFO] I0714 21:19:38.684897 23892 layer_factory.hpp:77] Creating layer inception_3b/relu_1x1
2016-07-14 21:19:38.685 STDERR [INFO] I0714 21:19:38.684906 23892 net.cpp:91] Creating Layer inception_3b/relu_1x1
2016-07-14 21:19:38.685 STDERR [INFO] I0714 21:19:38.684913 23892 net.cpp:425] inception_3b/relu_1x1 <- inception_3b/1x1
2016-07-14 21:19:38.685 STDERR [INFO] I0714 21:19:38.684921 23892 net.cpp:386] inception_3b/relu_1x1 -> inception_3b/1x1 (in-place)
2016-07-14 21:19:38.685 STDERR [INFO] I0714 21:19:38.685292 23892 net.cpp:141] Setting up inception_3b/relu_1x1
2016-07-14 21:19:38.685 STDERR [INFO] I0714 21:19:38.685307 23892 net.cpp:148] Top shape: 10 128 28 28 (1003520)
2016-07-14 21:19:38.686 STDERR [INFO] I0714 21:19:38.685312 23892 net.cpp:156] Memory required for data: 281989120
2016-07-14 21:19:38.686 STDERR [INFO] I0714 21:19:38.685317 23892 layer_factory.hpp:77] Creating layer inception_3b/3x3_reduce
2016-07-14 21:19:38.686 STDERR [INFO] I0714 21:19:38.685333 23892 net.cpp:91] Creating Layer inception_3b/3x3_reduce
2016-07-14 21:19:38.686 STDERR [INFO] I0714 21:19:38.685339 23892 net.cpp:425] inception_3b/3x3_reduce <- inception_3a/output_inception_3a/output_0_split_1
2016-07-14 21:19:38.686 STDERR [INFO] I0714 21:19:38.685353 23892 net.cpp:399] inception_3b/3x3_reduce -> inception_3b/3x3_reduce
2016-07-14 21:19:38.688 STDERR [INFO] I0714 21:19:38.688665 23888 net.cpp:141] Setting up inception_3b/1x1
2016-07-14 21:19:38.688 STDERR [INFO] I0714 21:19:38.688685 23888 net.cpp:148] Top shape: 10 128 28 28 (1003520)
2016-07-14 21:19:38.688 STDERR [INFO] I0714 21:19:38.688691 23888 net.cpp:156] Memory required for data: 277975040
2016-07-14 21:19:38.688 STDERR [INFO] I0714 21:19:38.688701 23888 layer_factory.hpp:77] Creating layer inception_3b/relu_1x1
2016-07-14 21:19:38.689 STDERR [INFO] I0714 21:19:38.688716 23888 net.cpp:91] Creating Layer inception_3b/relu_1x1
2016-07-14 21:19:38.689 STDERR [INFO] I0714 21:19:38.688724 23888 net.cpp:425] inception_3b/relu_1x1 <- inception_3b/1x1
2016-07-14 21:19:38.689 STDERR [INFO] I0714 21:19:38.688735 23888 net.cpp:386] inception_3b/relu_1x1 -> inception_3b/1x1 (in-place)
2016-07-14 21:19:38.689 STDERR [INFO] I0714 21:19:38.689083 23888 net.cpp:141] Setting up inception_3b/relu_1x1
2016-07-14 21:19:38.689 STDERR [INFO] I0714 21:19:38.689097 23888 net.cpp:148] Top shape: 10 128 28 28 (1003520)
2016-07-14 21:19:38.689 STDERR [INFO] I0714 21:19:38.689102 23888 net.cpp:156] Memory required for data: 281989120
2016-07-14 21:19:38.689 STDERR [INFO] I0714 21:19:38.689107 23888 layer_factory.hpp:77] Creating layer inception_3b/3x3_reduce
2016-07-14 21:19:38.689 STDERR [INFO] I0714 21:19:38.689128 23888 net.cpp:91] Creating Layer inception_3b/3x3_reduce
2016-07-14 21:19:38.689 STDERR [INFO] I0714 21:19:38.689136 23888 net.cpp:425] inception_3b/3x3_reduce <- inception_3a/output_inception_3a/output_0_split_1
2016-07-14 21:19:38.689 STDERR [INFO] I0714 21:19:38.689151 23888 net.cpp:399] inception_3b/3x3_reduce -> inception_3b/3x3_reduce
2016-07-14 21:19:38.690 STDERR [INFO] I0714 21:19:38.690410 23892 net.cpp:141] Setting up inception_3b/3x3_reduce
2016-07-14 21:19:38.690 STDERR [INFO] I0714 21:19:38.690429 23892 net.cpp:148] Top shape: 10 128 28 28 (1003520)
2016-07-14 21:19:38.690 STDERR [INFO] I0714 21:19:38.690434 23892 net.cpp:156] Memory required for data: 286003200
2016-07-14 21:19:38.690 STDERR [INFO] I0714 21:19:38.690444 23892 layer_factory.hpp:77] Creating layer inception_3b/relu_3x3_reduce
2016-07-14 21:19:38.690 STDERR [INFO] I0714 21:19:38.690459 23892 net.cpp:91] Creating Layer inception_3b/relu_3x3_reduce
2016-07-14 21:19:38.690 STDERR [INFO] I0714 21:19:38.690466 23892 net.cpp:425] inception_3b/relu_3x3_reduce <- inception_3b/3x3_reduce
2016-07-14 21:19:38.690 STDERR [INFO] I0714 21:19:38.690474 23892 net.cpp:386] inception_3b/relu_3x3_reduce -> inception_3b/3x3_reduce (in-place)
2016-07-14 21:19:38.690 STDERR [INFO] I0714 21:19:38.690850 23892 net.cpp:141] Setting up inception_3b/relu_3x3_reduce
2016-07-14 21:19:38.690 STDERR [INFO] I0714 21:19:38.690865 23892 net.cpp:148] Top shape: 10 128 28 28 (1003520)
2016-07-14 21:19:38.691 STDERR [INFO] I0714 21:19:38.690870 23892 net.cpp:156] Memory required for data: 290017280
2016-07-14 21:19:38.691 STDERR [INFO] I0714 21:19:38.690876 23892 layer_factory.hpp:77] Creating layer inception_3b/3x3
2016-07-14 21:19:38.691 STDERR [INFO] I0714 21:19:38.690896 23892 net.cpp:91] Creating Layer inception_3b/3x3
2016-07-14 21:19:38.691 STDERR [INFO] I0714 21:19:38.690903 23892 net.cpp:425] inception_3b/3x3 <- inception_3b/3x3_reduce
2016-07-14 21:19:38.691 STDERR [INFO] I0714 21:19:38.690915 23892 net.cpp:399] inception_3b/3x3 -> inception_3b/3x3
2016-07-14 21:19:38.695 STDERR [INFO] I0714 21:19:38.695348 23888 net.cpp:141] Setting up inception_3b/3x3_reduce
2016-07-14 21:19:38.695 STDERR [INFO] I0714 21:19:38.695374 23888 net.cpp:148] Top shape: 10 128 28 28 (1003520)
2016-07-14 21:19:38.695 STDERR [INFO] I0714 21:19:38.695379 23888 net.cpp:156] Memory required for data: 286003200
2016-07-14 21:19:38.695 STDERR [INFO] I0714 21:19:38.695390 23888 layer_factory.hpp:77] Creating layer inception_3b/relu_3x3_reduce
2016-07-14 21:19:38.695 STDERR [INFO] I0714 21:19:38.695407 23888 net.cpp:91] Creating Layer inception_3b/relu_3x3_reduce
2016-07-14 21:19:38.695 STDERR [INFO] I0714 21:19:38.695415 23888 net.cpp:425] inception_3b/relu_3x3_reduce <- inception_3b/3x3_reduce
2016-07-14 21:19:38.695 STDERR [INFO] I0714 21:19:38.695423 23888 net.cpp:386] inception_3b/relu_3x3_reduce -> inception_3b/3x3_reduce (in-place)
2016-07-14 21:19:38.695 STDERR [INFO] I0714 21:19:38.695709 23888 net.cpp:141] Setting up inception_3b/relu_3x3_reduce
2016-07-14 21:19:38.695 STDERR [INFO] I0714 21:19:38.695722 23888 net.cpp:148] Top shape: 10 128 28 28 (1003520)
2016-07-14 21:19:38.696 STDERR [INFO] I0714 21:19:38.695726 23888 net.cpp:156] Memory required for data: 290017280
2016-07-14 21:19:38.696 STDERR [INFO] I0714 21:19:38.695732 23888 layer_factory.hpp:77] Creating layer inception_3b/3x3
2016-07-14 21:19:38.696 STDERR [INFO] I0714 21:19:38.695754 23888 net.cpp:91] Creating Layer inception_3b/3x3
2016-07-14 21:19:38.696 STDERR [INFO] I0714 21:19:38.695760 23888 net.cpp:425] inception_3b/3x3 <- inception_3b/3x3_reduce
2016-07-14 21:19:38.696 STDERR [INFO] I0714 21:19:38.695773 23888 net.cpp:399] inception_3b/3x3 -> inception_3b/3x3
2016-07-14 21:19:38.702 STDERR [INFO] I0714 21:19:38.702002 23892 net.cpp:141] Setting up inception_3b/3x3
2016-07-14 21:19:38.702 STDERR [INFO] I0714 21:19:38.702025 23892 net.cpp:148] Top shape: 10 192 28 28 (1505280)
2016-07-14 21:19:38.702 STDERR [INFO] I0714 21:19:38.702031 23892 net.cpp:156] Memory required for data: 296038400
2016-07-14 21:19:38.702 STDERR [INFO] I0714 21:19:38.702042 23892 layer_factory.hpp:77] Creating layer inception_3b/relu_3x3
2016-07-14 21:19:38.702 STDERR [INFO] I0714 21:19:38.702057 23892 net.cpp:91] Creating Layer inception_3b/relu_3x3
2016-07-14 21:19:38.702 STDERR [INFO] I0714 21:19:38.702064 23892 net.cpp:425] inception_3b/relu_3x3 <- inception_3b/3x3
2016-07-14 21:19:38.702 STDERR [INFO] I0714 21:19:38.702076 23892 net.cpp:386] inception_3b/relu_3x3 -> inception_3b/3x3 (in-place)
2016-07-14 21:19:38.703 STDERR [INFO] I0714 21:19:38.703207 23892 net.cpp:141] Setting up inception_3b/relu_3x3
2016-07-14 21:19:38.703 STDERR [INFO] I0714 21:19:38.703228 23892 net.cpp:148] Top shape: 10 192 28 28 (1505280)
2016-07-14 21:19:38.703 STDERR [INFO] I0714 21:19:38.703233 23892 net.cpp:156] Memory required for data: 302059520
2016-07-14 21:19:38.703 STDERR [INFO] I0714 21:19:38.703239 23892 layer_factory.hpp:77] Creating layer inception_3b/5x5_reduce
2016-07-14 21:19:38.703 STDERR [INFO] I0714 21:19:38.703258 23892 net.cpp:91] Creating Layer inception_3b/5x5_reduce
2016-07-14 21:19:38.703 STDERR [INFO] I0714 21:19:38.703265 23892 net.cpp:425] inception_3b/5x5_reduce <- inception_3a/output_inception_3a/output_0_split_2
2016-07-14 21:19:38.703 STDERR [INFO] I0714 21:19:38.703287 23892 net.cpp:399] inception_3b/5x5_reduce -> inception_3b/5x5_reduce
2016-07-14 21:19:38.703 STDERR [INFO] I0714 21:19:38.703346 23888 net.cpp:141] Setting up inception_3b/3x3
2016-07-14 21:19:38.703 STDERR [INFO] I0714 21:19:38.703362 23888 net.cpp:148] Top shape: 10 192 28 28 (1505280)
2016-07-14 21:19:38.703 STDERR [INFO] I0714 21:19:38.703368 23888 net.cpp:156] Memory required for data: 296038400
2016-07-14 21:19:38.703 STDERR [INFO] I0714 21:19:38.703378 23888 layer_factory.hpp:77] Creating layer inception_3b/relu_3x3
2016-07-14 21:19:38.703 STDERR [INFO] I0714 21:19:38.703397 23888 net.cpp:91] Creating Layer inception_3b/relu_3x3
2016-07-14 21:19:38.703 STDERR [INFO] I0714 21:19:38.703407 23888 net.cpp:425] inception_3b/relu_3x3 <- inception_3b/3x3
2016-07-14 21:19:38.703 STDERR [INFO] I0714 21:19:38.703419 23888 net.cpp:386] inception_3b/relu_3x3 -> inception_3b/3x3 (in-place)
2016-07-14 21:19:38.704 STDERR [INFO] I0714 21:19:38.704483 23888 net.cpp:141] Setting up inception_3b/relu_3x3
2016-07-14 21:19:38.704 STDERR [INFO] I0714 21:19:38.704500 23888 net.cpp:148] Top shape: 10 192 28 28 (1505280)
2016-07-14 21:19:38.704 STDERR [INFO] I0714 21:19:38.704505 23888 net.cpp:156] Memory required for data: 302059520
2016-07-14 21:19:38.704 STDERR [INFO] I0714 21:19:38.704514 23888 layer_factory.hpp:77] Creating layer inception_3b/5x5_reduce
2016-07-14 21:19:38.704 STDERR [INFO] I0714 21:19:38.704533 23888 net.cpp:91] Creating Layer inception_3b/5x5_reduce
2016-07-14 21:19:38.704 STDERR [INFO] I0714 21:19:38.704541 23888 net.cpp:425] inception_3b/5x5_reduce <- inception_3a/output_inception_3a/output_0_split_2
2016-07-14 21:19:38.704 STDERR [INFO] I0714 21:19:38.704556 23888 net.cpp:399] inception_3b/5x5_reduce -> inception_3b/5x5_reduce
2016-07-14 21:19:38.709 STDERR [INFO] I0714 21:19:38.709213 23892 net.cpp:141] Setting up inception_3b/5x5_reduce
2016-07-14 21:19:38.709 STDERR [INFO] I0714 21:19:38.709233 23892 net.cpp:148] Top shape: 10 32 28 28 (250880)
2016-07-14 21:19:38.709 STDERR [INFO] I0714 21:19:38.709239 23892 net.cpp:156] Memory required for data: 303063040
2016-07-14 21:19:38.709 STDERR [INFO] I0714 21:19:38.709249 23892 layer_factory.hpp:77] Creating layer inception_3b/relu_5x5_reduce
2016-07-14 21:19:38.709 STDERR [INFO] I0714 21:19:38.709259 23892 net.cpp:91] Creating Layer inception_3b/relu_5x5_reduce
2016-07-14 21:19:38.709 STDERR [INFO] I0714 21:19:38.709265 23892 net.cpp:425] inception_3b/relu_5x5_reduce <- inception_3b/5x5_reduce
2016-07-14 21:19:38.709 STDERR [INFO] I0714 21:19:38.709278 23892 net.cpp:386] inception_3b/relu_5x5_reduce -> inception_3b/5x5_reduce (in-place)
2016-07-14 21:19:38.709 STDERR [INFO] I0714 21:19:38.709702 23892 net.cpp:141] Setting up inception_3b/relu_5x5_reduce
2016-07-14 21:19:38.709 STDERR [INFO] I0714 21:19:38.709720 23892 net.cpp:148] Top shape: 10 32 28 28 (250880)
2016-07-14 21:19:38.709 STDERR [INFO] I0714 21:19:38.709728 23892 net.cpp:156] Memory required for data: 304066560
2016-07-14 21:19:38.709 STDERR [INFO] I0714 21:19:38.709733 23892 layer_factory.hpp:77] Creating layer inception_3b/5x5
2016-07-14 21:19:38.709 STDERR [INFO] I0714 21:19:38.709748 23892 net.cpp:91] Creating Layer inception_3b/5x5
2016-07-14 21:19:38.709 STDERR [INFO] I0714 21:19:38.709754 23892 net.cpp:425] inception_3b/5x5 <- inception_3b/5x5_reduce
2016-07-14 21:19:38.710 STDERR [INFO] I0714 21:19:38.709769 23892 net.cpp:399] inception_3b/5x5 -> inception_3b/5x5
2016-07-14 21:19:38.710 STDERR [INFO] I0714 21:19:38.709822 23888 net.cpp:141] Setting up inception_3b/5x5_reduce
2016-07-14 21:19:38.710 STDERR [INFO] I0714 21:19:38.709839 23888 net.cpp:148] Top shape: 10 32 28 28 (250880)
2016-07-14 21:19:38.710 STDERR [INFO] I0714 21:19:38.709844 23888 net.cpp:156] Memory required for data: 303063040
2016-07-14 21:19:38.710 STDERR [INFO] I0714 21:19:38.709854 23888 layer_factory.hpp:77] Creating layer inception_3b/relu_5x5_reduce
2016-07-14 21:19:38.710 STDERR [INFO] I0714 21:19:38.709864 23888 net.cpp:91] Creating Layer inception_3b/relu_5x5_reduce
2016-07-14 21:19:38.710 STDERR [INFO] I0714 21:19:38.709870 23888 net.cpp:425] inception_3b/relu_5x5_reduce <- inception_3b/5x5_reduce
2016-07-14 21:19:38.710 STDERR [INFO] I0714 21:19:38.709884 23888 net.cpp:386] inception_3b/relu_5x5_reduce -> inception_3b/5x5_reduce (in-place)
2016-07-14 21:19:38.710 STDERR [INFO] I0714 21:19:38.710281 23888 net.cpp:141] Setting up inception_3b/relu_5x5_reduce
2016-07-14 21:19:38.710 STDERR [INFO] I0714 21:19:38.710301 23888 net.cpp:148] Top shape: 10 32 28 28 (250880)
2016-07-14 21:19:38.710 STDERR [INFO] I0714 21:19:38.710310 23888 net.cpp:156] Memory required for data: 304066560
2016-07-14 21:19:38.710 STDERR [INFO] I0714 21:19:38.710316 23888 layer_factory.hpp:77] Creating layer inception_3b/5x5
2016-07-14 21:19:38.710 STDERR [INFO] I0714 21:19:38.710340 23888 net.cpp:91] Creating Layer inception_3b/5x5
2016-07-14 21:19:38.710 STDERR [INFO] I0714 21:19:38.710347 23888 net.cpp:425] inception_3b/5x5 <- inception_3b/5x5_reduce
2016-07-14 21:19:38.710 STDERR [INFO] I0714 21:19:38.710357 23888 net.cpp:399] inception_3b/5x5 -> inception_3b/5x5
2016-07-14 21:19:38.718 STDERR [INFO] I0714 21:19:38.718426 23892 net.cpp:141] Setting up inception_3b/5x5
2016-07-14 21:19:38.718 STDERR [INFO] I0714 21:19:38.718452 23892 net.cpp:148] Top shape: 10 96 28 28 (752640)
2016-07-14 21:19:38.718 STDERR [INFO] I0714 21:19:38.718458 23892 net.cpp:156] Memory required for data: 307077120
2016-07-14 21:19:38.718 STDERR [INFO] I0714 21:19:38.718469 23892 layer_factory.hpp:77] Creating layer inception_3b/relu_5x5
2016-07-14 21:19:38.718 STDERR [INFO] I0714 21:19:38.718483 23892 net.cpp:91] Creating Layer inception_3b/relu_5x5
2016-07-14 21:19:38.718 STDERR [INFO] I0714 21:19:38.718490 23892 net.cpp:425] inception_3b/relu_5x5 <- inception_3b/5x5
2016-07-14 21:19:38.718 STDERR [INFO] I0714 21:19:38.718499 23892 net.cpp:386] inception_3b/relu_5x5 -> inception_3b/5x5 (in-place)
2016-07-14 21:19:38.718 STDERR [INFO] I0714 21:19:38.718850 23888 net.cpp:141] Setting up inception_3b/5x5
2016-07-14 21:19:38.719 STDERR [INFO] I0714 21:19:38.718868 23888 net.cpp:148] Top shape: 10 96 28 28 (752640)
2016-07-14 21:19:38.719 STDERR [INFO] I0714 21:19:38.718873 23888 net.cpp:156] Memory required for data: 307077120
2016-07-14 21:19:38.719 STDERR [INFO] I0714 21:19:38.718883 23888 layer_factory.hpp:77] Creating layer inception_3b/relu_5x5
2016-07-14 21:19:38.719 STDERR [INFO] I0714 21:19:38.718888 23892 net.cpp:141] Setting up inception_3b/relu_5x5
2016-07-14 21:19:38.719 STDERR [INFO] I0714 21:19:38.718895 23888 net.cpp:91] Creating Layer inception_3b/relu_5x5
2016-07-14 21:19:38.719 STDERR [INFO] I0714 21:19:38.718901 23892 net.cpp:148] Top shape: 10 96 28 28 (752640)
2016-07-14 21:19:38.719 STDERR [INFO] I0714 21:19:38.718902 23888 net.cpp:425] inception_3b/relu_5x5 <- inception_3b/5x5
2016-07-14 21:19:38.719 STDERR [INFO] I0714 21:19:38.718912 23892 net.cpp:156] Memory required for data: 310087680
2016-07-14 21:19:38.719 STDERR [INFO] I0714 21:19:38.718919 23892 layer_factory.hpp:77] Creating layer inception_3b/pool
2016-07-14 21:19:38.719 STDERR [INFO] I0714 21:19:38.718924 23888 net.cpp:386] inception_3b/relu_5x5 -> inception_3b/5x5 (in-place)
2016-07-14 21:19:38.719 STDERR [INFO] I0714 21:19:38.718933 23892 net.cpp:91] Creating Layer inception_3b/pool
2016-07-14 21:19:38.719 STDERR [INFO] I0714 21:19:38.718940 23892 net.cpp:425] inception_3b/pool <- inception_3a/output_inception_3a/output_0_split_3
2016-07-14 21:19:38.719 STDERR [INFO] I0714 21:19:38.718952 23892 net.cpp:399] inception_3b/pool -> inception_3b/pool
2016-07-14 21:19:38.719 STDERR [INFO] I0714 21:19:38.719229 23892 net.cpp:141] Setting up inception_3b/pool
2016-07-14 21:19:38.719 STDERR [INFO] I0714 21:19:38.719243 23892 net.cpp:148] Top shape: 10 256 28 28 (2007040)
2016-07-14 21:19:38.719 STDERR [INFO] I0714 21:19:38.719247 23892 net.cpp:156] Memory required for data: 318115840
2016-07-14 21:19:38.719 STDERR [INFO] I0714 21:19:38.719252 23892 layer_factory.hpp:77] Creating layer inception_3b/pool_proj
2016-07-14 21:19:38.719 STDERR [INFO] I0714 21:19:38.719272 23892 net.cpp:91] Creating Layer inception_3b/pool_proj
2016-07-14 21:19:38.719 STDERR [INFO] I0714 21:19:38.719280 23892 net.cpp:425] inception_3b/pool_proj <- inception_3b/pool
2016-07-14 21:19:38.719 STDERR [INFO] I0714 21:19:38.719288 23892 net.cpp:399] inception_3b/pool_proj -> inception_3b/pool_proj
2016-07-14 21:19:38.719 STDERR [INFO] I0714 21:19:38.719295 23888 net.cpp:141] Setting up inception_3b/relu_5x5
2016-07-14 21:19:38.719 STDERR [INFO] I0714 21:19:38.719311 23888 net.cpp:148] Top shape: 10 96 28 28 (752640)
2016-07-14 21:19:38.720 STDERR [INFO] I0714 21:19:38.719316 23888 net.cpp:156] Memory required for data: 310087680
2016-07-14 21:19:38.720 STDERR [INFO] I0714 21:19:38.719326 23888 layer_factory.hpp:77] Creating layer inception_3b/pool
2016-07-14 21:19:38.720 STDERR [INFO] I0714 21:19:38.719337 23888 net.cpp:91] Creating Layer inception_3b/pool
2016-07-14 21:19:38.720 STDERR [INFO] I0714 21:19:38.719344 23888 net.cpp:425] inception_3b/pool <- inception_3a/output_inception_3a/output_0_split_3
2016-07-14 21:19:38.720 STDERR [INFO] I0714 21:19:38.719353 23888 net.cpp:399] inception_3b/pool -> inception_3b/pool
2016-07-14 21:19:38.720 STDERR [INFO] I0714 21:19:38.719605 23888 net.cpp:141] Setting up inception_3b/pool
2016-07-14 21:19:38.720 STDERR [INFO] I0714 21:19:38.719620 23888 net.cpp:148] Top shape: 10 256 28 28 (2007040)
2016-07-14 21:19:38.720 STDERR [INFO] I0714 21:19:38.719625 23888 net.cpp:156] Memory required for data: 318115840
2016-07-14 21:19:38.720 STDERR [INFO] I0714 21:19:38.719631 23888 layer_factory.hpp:77] Creating layer inception_3b/pool_proj
2016-07-14 21:19:38.720 STDERR [INFO] I0714 21:19:38.719650 23888 net.cpp:91] Creating Layer inception_3b/pool_proj
2016-07-14 21:19:38.720 STDERR [INFO] I0714 21:19:38.719655 23888 net.cpp:425] inception_3b/pool_proj <- inception_3b/pool
2016-07-14 21:19:38.720 STDERR [INFO] I0714 21:19:38.719667 23888 net.cpp:399] inception_3b/pool_proj -> inception_3b/pool_proj
2016-07-14 21:19:38.723 STDERR [INFO] I0714 21:19:38.723543 23892 net.cpp:141] Setting up inception_3b/pool_proj
2016-07-14 21:19:38.723 STDERR [INFO] I0714 21:19:38.723567 23892 net.cpp:148] Top shape: 10 64 28 28 (501760)
2016-07-14 21:19:38.723 STDERR [INFO] I0714 21:19:38.723572 23892 net.cpp:156] Memory required for data: 320122880
2016-07-14 21:19:38.723 STDERR [INFO] I0714 21:19:38.723583 23892 layer_factory.hpp:77] Creating layer inception_3b/relu_pool_proj
2016-07-14 21:19:38.723 STDERR [INFO] I0714 21:19:38.723594 23892 net.cpp:91] Creating Layer inception_3b/relu_pool_proj
2016-07-14 21:19:38.724 STDERR [INFO] I0714 21:19:38.723600 23892 net.cpp:425] inception_3b/relu_pool_proj <- inception_3b/pool_proj
2016-07-14 21:19:38.724 STDERR [INFO] I0714 21:19:38.723621 23892 net.cpp:386] inception_3b/relu_pool_proj -> inception_3b/pool_proj (in-place)
2016-07-14 21:19:38.724 STDERR [INFO] I0714 21:19:38.724628 23892 net.cpp:141] Setting up inception_3b/relu_pool_proj
2016-07-14 21:19:38.724 STDERR [INFO] I0714 21:19:38.724645 23892 net.cpp:148] Top shape: 10 64 28 28 (501760)
2016-07-14 21:19:38.724 STDERR [INFO] I0714 21:19:38.724650 23892 net.cpp:156] Memory required for data: 322129920
2016-07-14 21:19:38.724 STDERR [INFO] I0714 21:19:38.724656 23892 layer_factory.hpp:77] Creating layer inception_3b/output
2016-07-14 21:19:38.724 STDERR [INFO] I0714 21:19:38.724666 23892 net.cpp:91] Creating Layer inception_3b/output
2016-07-14 21:19:38.724 STDERR [INFO] I0714 21:19:38.724673 23892 net.cpp:425] inception_3b/output <- inception_3b/1x1
2016-07-14 21:19:38.725 STDERR [INFO] I0714 21:19:38.724680 23892 net.cpp:425] inception_3b/output <- inception_3b/3x3
2016-07-14 21:19:38.725 STDERR [INFO] I0714 21:19:38.724681 23888 net.cpp:141] Setting up inception_3b/pool_proj
2016-07-14 21:19:38.725 STDERR [INFO] I0714 21:19:38.724686 23892 net.cpp:425] inception_3b/output <- inception_3b/5x5
2016-07-14 21:19:38.725 STDERR [INFO] I0714 21:19:38.724701 23888 net.cpp:148] Top shape: 10 64 28 28 (501760)
2016-07-14 21:19:38.725 STDERR [INFO] I0714 21:19:38.724704 23892 net.cpp:425] inception_3b/output <- inception_3b/pool_proj
2016-07-14 21:19:38.725 STDERR [INFO] I0714 21:19:38.724709 23888 net.cpp:156] Memory required for data: 320122880
2016-07-14 21:19:38.725 STDERR [INFO] I0714 21:19:38.724716 23892 net.cpp:399] inception_3b/output -> inception_3b/output
2016-07-14 21:19:38.725 STDERR [INFO] I0714 21:19:38.724720 23888 layer_factory.hpp:77] Creating layer inception_3b/relu_pool_proj
2016-07-14 21:19:38.725 STDERR [INFO] I0714 21:19:38.724730 23888 net.cpp:91] Creating Layer inception_3b/relu_pool_proj
2016-07-14 21:19:38.725 STDERR [INFO] I0714 21:19:38.724736 23888 net.cpp:425] inception_3b/relu_pool_proj <- inception_3b/pool_proj
2016-07-14 21:19:38.725 STDERR [INFO] I0714 21:19:38.724747 23888 net.cpp:386] inception_3b/relu_pool_proj -> inception_3b/pool_proj (in-place)
2016-07-14 21:19:38.725 STDERR [INFO] I0714 21:19:38.725466 23892 net.cpp:141] Setting up inception_3b/output
2016-07-14 21:19:38.725 STDERR [INFO] I0714 21:19:38.725478 23892 net.cpp:148] Top shape: 10 480 28 28 (3763200)
2016-07-14 21:19:38.725 STDERR [INFO] I0714 21:19:38.725483 23892 net.cpp:156] Memory required for data: 337182720
2016-07-14 21:19:38.725 STDERR [INFO] I0714 21:19:38.725488 23892 layer_factory.hpp:77] Creating layer pool3/3x3_s2
2016-07-14 21:19:38.725 STDERR [INFO] I0714 21:19:38.725505 23892 net.cpp:91] Creating Layer pool3/3x3_s2
2016-07-14 21:19:38.725 STDERR [INFO] I0714 21:19:38.725512 23892 net.cpp:425] pool3/3x3_s2 <- inception_3b/output
2016-07-14 21:19:38.725 STDERR [INFO] I0714 21:19:38.725520 23892 net.cpp:399] pool3/3x3_s2 -> pool3/3x3_s2
2016-07-14 21:19:38.725 STDERR [INFO] I0714 21:19:38.725683 23892 net.cpp:141] Setting up pool3/3x3_s2
2016-07-14 21:19:38.725 STDERR [INFO] I0714 21:19:38.725697 23892 net.cpp:148] Top shape: 10 480 14 14 (940800)
2016-07-14 21:19:38.725 STDERR [INFO] I0714 21:19:38.725702 23892 net.cpp:156] Memory required for data: 340945920
2016-07-14 21:19:38.726 STDERR [INFO] I0714 21:19:38.725706 23892 layer_factory.hpp:77] Creating layer pool3/3x3_s2_pool3/3x3_s2_0_split
2016-07-14 21:19:38.726 STDERR [INFO] I0714 21:19:38.725715 23888 net.cpp:141] Setting up inception_3b/relu_pool_proj
2016-07-14 21:19:38.726 STDERR [INFO] I0714 21:19:38.725720 23892 net.cpp:91] Creating Layer pool3/3x3_s2_pool3/3x3_s2_0_split
2016-07-14 21:19:38.726 STDERR [INFO] I0714 21:19:38.725734 23888 net.cpp:148] Top shape: 10 64 28 28 (501760)
2016-07-14 21:19:38.726 STDERR [INFO] I0714 21:19:38.725735 23892 net.cpp:425] pool3/3x3_s2_pool3/3x3_s2_0_split <- pool3/3x3_s2
2016-07-14 21:19:38.726 STDERR [INFO] I0714 21:19:38.725740 23888 net.cpp:156] Memory required for data: 322129920
2016-07-14 21:19:38.726 STDERR [INFO] I0714 21:19:38.725745 23888 layer_factory.hpp:77] Creating layer inception_3b/output
2016-07-14 21:19:38.726 STDERR [INFO] I0714 21:19:38.725749 23892 net.cpp:399] pool3/3x3_s2_pool3/3x3_s2_0_split -> pool3/3x3_s2_pool3/3x3_s2_0_split_0
…
2016-07-14 21:19:38.726 STDERR [INFO] I0714 21:19:38.725780 23888 net.cpp:425] inception_3b/output <- inception_3b/3x3
2016-07-14 21:19:38.726 STDERR [INFO] I0714 21:19:38.725788 23888 net.cpp:425] inception_3b/output <- inception_3b/5x5
2016-07-14 21:19:38.726 STDERR [INFO] I0714 21:19:38.725795 23888 net.cpp:425] inception_3b/output <- inception_3b/pool_proj
2016-07-14 21:19:38.726 STDERR [INFO] I0714 21:19:38.725801 23888 net.cpp:399] inception_3b/output -> inception_3b/output
2016-07-14 21:19:38.726 STDERR [INFO] I0714 21:19:38.725911 23888 net.cpp:141] Setting up inception_3b/output
2016-07-14 21:19:38.726 STDERR [INFO] I0714 21:19:38.725924 23888 net.cpp:148] Top shape: 10 480 28 28 (3763200)
2016-07-14 21:19:38.727 STDERR [INFO] I0714 21:19:38.725929 23888 net.cpp:156] Memory required for data: 337182720
2016-07-14 21:19:38.727 STDERR [INFO] I0714 21:19:38.725937 23888 layer_factory.hpp:77] Creating layer pool3/3x3_s2
2016-07-14 21:19:38.727 STDERR [INFO] I0714 21:19:38.725950 23888 net.cpp:91] Creating Layer pool3/3x3_s2
2016-07-14 21:19:38.727 STDERR [INFO] I0714 21:19:38.725956 23888 net.cpp:425] pool3/3x3_s2 <- inception_3b/output
2016-07-14 21:19:38.727 STDERR [INFO] I0714 21:19:38.725965 23888 net.cpp:399] pool3/3x3_s2 -> pool3/3x3_s2
2016-07-14 21:19:38.727 STDERR [INFO] I0714 21:19:38.726052 23892 net.cpp:141] Setting up pool3/3x3_s2_pool3/3x3_s2_0_split
2016-07-14 21:19:38.727 STDERR [INFO] I0714 21:19:38.726063 23892 net.cpp:148] Top shape: 10 480 14 14 (940800)
2016-07-14 21:19:38.727 STDERR [INFO] I0714 21:19:38.726069 23892 net.cpp:148] Top shape: 10 480 14 14 (940800)
2016-07-14 21:19:38.727 STDERR [INFO] I0714 21:19:38.726075 23892 net.cpp:148] Top shape: 10 480 14 14 (940800)
2016-07-14 21:19:38.727 STDERR [INFO] I0714 21:19:38.726081 23892 net.cpp:148] Top shape: 10 480 14 14 (940800)
2016-07-14 21:19:38.727 STDERR [INFO] I0714 21:19:38.726085 23892 net.cpp:156] Memory required for data: 355998720
2016-07-14 21:19:38.727 STDERR [INFO] I0714 21:19:38.726090 23892 layer_factory.hpp:77] Creating layer inception_4a/1x1
2016-07-14 21:19:38.727 STDERR [INFO] I0714 21:19:38.726109 23892 net.cpp:91] Creating Layer inception_4a/1x1
2016-07-14 21:19:38.727 STDERR [INFO] I0714 21:19:38.726116 23892 net.cpp:425] inception_4a/1x1 <- pool3/3x3_s2_pool3/3x3_s2_0_split_0
2016-07-14 21:19:38.727 STDERR [INFO] I0714 21:19:38.726119 23888 net.cpp:141] Setting up pool3/3x3_s2
2016-07-14 21:19:38.727 STDERR [INFO] I0714 21:19:38.726126 23892 net.cpp:399] inception_4a/1x1 -> inception_4a/1x1
2016-07-14 21:19:38.728 STDERR [INFO] I0714 21:19:38.726135 23888 net.cpp:148] Top shape: 10 480 14 14 (940800)
2016-07-14 21:19:38.728 STDERR [INFO] I0714 21:19:38.726140 23888 net.cpp:156] Memory required for data: 340945920
2016-07-14 21:19:38.728 STDERR [INFO] I0714 21:19:38.726145 23888 layer_factory.hpp:77] Creating layer pool3/3x3_s2_pool3/3x3_s2_0_split
2016-07-14 21:19:38.728 STDERR [INFO] I0714 21:19:38.726156 23888 net.cpp:91] Creating Layer pool3/3x3_s2_pool3/3x3_s2_0_split
2016-07-14 21:19:38.728 STDERR [INFO] I0714 21:19:38.726161 23888 net.cpp:425] pool3/3x3_s2_pool3/3x3_s2_0_split <- pool3/3x3_s2
2016-07-14 21:19:38.728 STDERR [INFO] I0714 21:19:38.726169 23888 net.cpp:399] pool3/3x3_s2_pool3/3x3_s2_0_split -> pool3/3x3_s2_pool3/3x3_s2_0_split_0
2016-07-14 21:19:38.728 STDERR [INFO] I0714 21:19:38.726178 23888 net.cpp:399] pool3/3x3_s2_pool3/3x3_s2_0_split -> pool3/3x3_s2_pool3/3x3_s2_0_split_1
2016-07-14 21:19:38.728 STDERR [INFO] I0714 21:19:38.726191 23888 net.cpp:399] pool3/3x3_s2_pool3/3x3_s2_0_split -> pool3/3x3_s2_pool3/3x3_s2_0_split_2
2016-07-14 21:19:38.728 STDERR [INFO] I0714 21:19:38.726202 23888 net.cpp:399] pool3/3x3_s2_pool3/3x3_s2_0_split -> pool3/3x3_s2_pool3/3x3_s2_0_split_3
2016-07-14 21:19:38.728 STDERR [INFO] I0714 21:19:38.726562 23888 net.cpp:141] Setting up pool3/3x3_s2_pool3/3x3_s2_0_split
2016-07-14 21:19:38.728 STDERR [INFO] I0714 21:19:38.726574 23888 net.cpp:148] Top shape: 10 480 14 14 (940800)
2016-07-14 21:19:38.728 STDERR [INFO] I0714 21:19:38.726582 23888 net.cpp:148] Top shape: 10 480 14 14 (940800)
2016-07-14 21:19:38.728 STDERR [INFO] I0714 21:19:38.726586 23888 net.cpp:148] Top shape: 10 480 14 14 (940800)
2016-07-14 21:19:38.728 STDERR [INFO] I0714 21:19:38.726593 23888 net.cpp:148] Top shape: 10 480 14 14 (940800)
2016-07-14 21:19:38.728 STDERR [INFO] I0714 21:19:38.726596 23888 net.cpp:156] Memory required for data: 355998720
2016-07-14 21:19:38.728 STDERR [INFO] I0714 21:19:38.726601 23888 layer_factory.hpp:77] Creating layer inception_4a/1x1
2016-07-14 21:19:38.729 STDERR [INFO] I0714 21:19:38.726618 23888 net.cpp:91] Creating Layer inception_4a/1x1
2016-07-14 21:19:38.729 STDERR [INFO] I0714 21:19:38.726624 23888 net.cpp:425] inception_4a/1x1 <- pool3/3x3_s2_pool3/3x3_s2_0_split_0
2016-07-14 21:19:38.729 STDERR [INFO] I0714 21:19:38.726634 23888 net.cpp:399] inception_4a/1x1 -> inception_4a/1x1
2016-07-14 21:19:38.732 STDERR [INFO] I0714 21:19:38.732182 23892 net.cpp:141] Setting up inception_4a/1x1
2016-07-14 21:19:38.732 STDERR [INFO] I0714 21:19:38.732203 23892 net.cpp:148] Top shape: 10 192 14 14 (376320)
2016-07-14 21:19:38.732 STDERR [INFO] I0714 21:19:38.732209 23892 net.cpp:156] Memory required for data: 357504000
2016-07-14 21:19:38.732 STDERR [INFO] I0714 21:19:38.732221 23892 layer_factory.hpp:77] Creating layer inception_4a/relu_1x1
2016-07-14 21:19:38.732 STDERR [INFO] I0714 21:19:38.732236 23892 net.cpp:91] Creating Layer inception_4a/relu_1x1
2016-07-14 21:19:38.732 STDERR [INFO] I0714 21:19:38.732244 23892 net.cpp:425] inception_4a/relu_1x1 <- inception_4a/1x1
2016-07-14 21:19:38.732 STDERR [INFO] I0714 21:19:38.732252 23892 net.cpp:386] inception_4a/relu_1x1 -> inception_4a/1x1 (in-place)
2016-07-14 21:19:38.732 STDERR [INFO] I0714 21:19:38.732317 23888 net.cpp:141] Setting up inception_4a/1x1
2016-07-14 21:19:38.732 STDERR [INFO] I0714 21:19:38.732337 23888 net.cpp:148] Top shape: 10 192 14 14 (376320)
2016-07-14 21:19:38.732 STDERR [INFO] I0714 21:19:38.732343 23888 net.cpp:156] Memory required for data: 357504000
2016-07-14 21:19:38.732 STDERR [INFO] I0714 21:19:38.732353 23888 layer_factory.hpp:77] Creating layer inception_4a/relu_1x1
2016-07-14 21:19:38.732 STDERR [INFO] I0714 21:19:38.732363 23888 net.cpp:91] Creating Layer inception_4a/relu_1x1
2016-07-14 21:19:38.732 STDERR [INFO] I0714 21:19:38.732369 23888 net.cpp:425] inception_4a/relu_1x1 <- inception_4a/1x1
2016-07-14 21:19:38.733 STDERR [INFO] I0714 21:19:38.732378 23888 net.cpp:386] inception_4a/relu_1x1 -> inception_4a/1x1 (in-place)
2016-07-14 21:19:38.733 STDERR [INFO] I0714 21:19:38.732642 23892 net.cpp:141] Setting up inception_4a/relu_1x1
2016-07-14 21:19:38.733 STDERR [INFO] I0714 21:19:38.732656 23892 net.cpp:148] Top shape: 10 192 14 14 (376320)
2016-07-14 21:19:38.733 STDERR [INFO] I0714 21:19:38.732661 23892 net.cpp:156] Memory required for data: 359009280
2016-07-14 21:19:38.733 STDERR [INFO] I0714 21:19:38.732667 23892 layer_factory.hpp:77] Creating layer inception_4a/3x3_reduce
2016-07-14 21:19:38.733 STDERR [INFO] I0714 21:19:38.732686 23892 net.cpp:91] Creating Layer inception_4a/3x3_reduce
2016-07-14 21:19:38.733 STDERR [INFO] I0714 21:19:38.732694 23892 net.cpp:425] inception_4a/3x3_reduce <- pool3/3x3_s2_pool3/3x3_s2_0_split_1
2016-07-14 21:19:38.733 STDERR [INFO] I0714 21:19:38.732707 23892 net.cpp:399] inception_4a/3x3_reduce -> inception_4a/3x3_reduce
2016-07-14 21:19:38.733 STDERR [INFO] I0714 21:19:38.732753 23888 net.cpp:141] Setting up inception_4a/relu_1x1
2016-07-14 21:19:38.733 STDERR [INFO] I0714 21:19:38.732767 23888 net.cpp:148] Top shape: 10 192 14 14 (376320)
2016-07-14 21:19:38.733 STDERR [INFO] I0714 21:19:38.732774 23888 net.cpp:156] Memory required for data: 359009280
2016-07-14 21:19:38.733 STDERR [INFO] I0714 21:19:38.732780 23888 layer_factory.hpp:77] Creating layer inception_4a/3x3_reduce
2016-07-14 21:19:38.733 STDERR [INFO] I0714 21:19:38.732800 23888 net.cpp:91] Creating Layer inception_4a/3x3_reduce
2016-07-14 21:19:38.733 STDERR [INFO] I0714 21:19:38.732807 23888 net.cpp:425] inception_4a/3x3_reduce <- pool3/3x3_s2_pool3/3x3_s2_0_split_1
2016-07-14 21:19:38.733 STDERR [INFO] I0714 21:19:38.732825 23888 net.cpp:399] inception_4a/3x3_reduce -> inception_4a/3x3_reduce
2016-07-14 21:19:38.737 STDERR [INFO] I0714 21:19:38.737370 23892 net.cpp:141] Setting up inception_4a/3x3_reduce
2016-07-14 21:19:38.737 STDERR [INFO] I0714 21:19:38.737390 23892 net.cpp:148] Top shape: 10 96 14 14 (188160)
2016-07-14 21:19:38.737 STDERR [INFO] I0714 21:19:38.737396 23892 net.cpp:156] Memory required for data: 359761920
2016-07-14 21:19:38.737 STDERR [INFO] I0714 21:19:38.737421 23892 layer_factory.hpp:77] Creating layer inception_4a/relu_3x3_reduce
2016-07-14 21:19:38.737 STDERR [INFO] I0714 21:19:38.737432 23892 net.cpp:91] Creating Layer inception_4a/relu_3x3_reduce
2016-07-14 21:19:38.737 STDERR [INFO] I0714 21:19:38.737438 23892 net.cpp:425] inception_4a/relu_3x3_reduce <- inception_4a/3x3_reduce
2016-07-14 21:19:38.737 STDERR [INFO] I0714 21:19:38.737447 23892 net.cpp:386] inception_4a/relu_3x3_reduce -> inception_4a/3x3_reduce (in-place)
2016-07-14 21:19:38.738 STDERR [INFO] I0714 21:19:38.737807 23888 net.cpp:141] Setting up inception_4a/3x3_reduce
2016-07-14 21:19:38.738 STDERR [INFO] I0714 21:19:38.737823 23888 net.cpp:148] Top shape: 10 96 14 14 (188160)
2016-07-14 21:19:38.738 STDERR [INFO] I0714 21:19:38.737829 23888 net.cpp:156] Memory required for data: 359761920
2016-07-14 21:19:38.738 STDERR [INFO] I0714 21:19:38.737831 23892 net.cpp:141] Setting up inception_4a/relu_3x3_reduce
2016-07-14 21:19:38.738 STDERR [INFO] I0714 21:19:38.737845 23892 net.cpp:148] Top shape: 10 96 14 14 (188160)
2016-07-14 21:19:38.738 STDERR [INFO] I0714 21:19:38.737850 23892 net.cpp:156] Memory required for data: 360514560
2016-07-14 21:19:38.738 STDERR [INFO] I0714 21:19:38.737854 23888 layer_factory.hpp:77] Creating layer inception_4a/relu_3x3_reduce
2016-07-14 21:19:38.738 STDERR [INFO] I0714 21:19:38.737855 23892 layer_factory.hpp:77] Creating layer inception_4a/3x3
2016-07-14 21:19:38.738 STDERR [INFO] I0714 21:19:38.737869 23888 net.cpp:91] Creating Layer inception_4a/relu_3x3_reduce
2016-07-14 21:19:38.738 STDERR [INFO] I0714 21:19:38.737876 23888 net.cpp:425] inception_4a/relu_3x3_reduce <- inception_4a/3x3_reduce
2016-07-14 21:19:38.738 STDERR [INFO] I0714 21:19:38.737884 23892 net.cpp:91] Creating Layer inception_4a/3x3
2016-07-14 21:19:38.738 STDERR [INFO] I0714 21:19:38.737885 23888 net.cpp:386] inception_4a/relu_3x3_reduce -> inception_4a/3x3_reduce (in-place)
2016-07-14 21:19:38.738 STDERR [INFO] I0714 21:19:38.737891 23892 net.cpp:425] inception_4a/3x3 <- inception_4a/3x3_reduce
2016-07-14 21:19:38.738 STDERR [INFO] I0714 21:19:38.737905 23892 net.cpp:399] inception_4a/3x3 -> inception_4a/3x3
2016-07-14 21:19:38.738 STDERR [INFO] I0714 21:19:38.738332 23888 net.cpp:141] Setting up inception_4a/relu_3x3_reduce
2016-07-14 21:19:38.738 STDERR [INFO] I0714 21:19:38.738346 23888 net.cpp:148] Top shape: 10 96 14 14 (188160)
2016-07-14 21:19:38.738 STDERR [INFO] I0714 21:19:38.738351 23888 net.cpp:156] Memory required for data: 360514560
2016-07-14 21:19:38.738 STDERR [INFO] I0714 21:19:38.738358 23888 layer_factory.hpp:77] Creating layer inception_4a/3x3
2016-07-14 21:19:38.738 STDERR [INFO] I0714 21:19:38.738374 23888 net.cpp:91] Creating Layer inception_4a/3x3
2016-07-14 21:19:38.738 STDERR [INFO] I0714 21:19:38.738381 23888 net.cpp:425] inception_4a/3x3 <- inception_4a/3x3_reduce
2016-07-14 21:19:38.739 STDERR [INFO] I0714 21:19:38.738395 23888 net.cpp:399] inception_4a/3x3 -> inception_4a/3x3
2016-07-14 21:19:38.746 STDERR [INFO] I0714 21:19:38.746171 23892 net.cpp:141] Setting up inception_4a/3x3
2016-07-14 21:19:38.746 STDERR [INFO] I0714 21:19:38.746194 23892 net.cpp:148] Top shape: 10 208 14 14 (407680)
2016-07-14 21:19:38.746 STDERR [INFO] I0714 21:19:38.746201 23892 net.cpp:156] Memory required for data: 362145280
2016-07-14 21:19:38.746 STDERR [INFO] I0714 21:19:38.746211 23892 layer_factory.hpp:77] Creating layer inception_4a/relu_3x3
2016-07-14 21:19:38.746 STDERR [INFO] I0714 21:19:38.746222 23892 net.cpp:91] Creating Layer inception_4a/relu_3x3
2016-07-14 21:19:38.746 STDERR [INFO] I0714 21:19:38.746228 23892 net.cpp:425] inception_4a/relu_3x3 <- inception_4a/3x3
2016-07-14 21:19:38.746 STDERR [INFO] I0714 21:19:38.746242 23892 net.cpp:386] inception_4a/relu_3x3 -> inception_4a/3x3 (in-place)
2016-07-14 21:19:38.747 STDERR [INFO] I0714 21:19:38.747270 23892 net.cpp:141] Setting up inception_4a/relu_3x3
2016-07-14 21:19:38.747 STDERR [INFO] I0714 21:19:38.747288 23892 net.cpp:148] Top shape: 10 208 14 14 (407680)
2016-07-14 21:19:38.747 STDERR [INFO] I0714 21:19:38.747293 23892 net.cpp:156] Memory required for data: 363776000
2016-07-14 21:19:38.747 STDERR [INFO] I0714 21:19:38.747299 23892 layer_factory.hpp:77] Creating layer inception_4a/5x5_reduce
2016-07-14 21:19:38.747 STDERR [INFO] I0714 21:19:38.747318 23892 net.cpp:91] Creating Layer inception_4a/5x5_reduce
2016-07-14 21:19:38.747 STDERR [INFO] I0714 21:19:38.747325 23892 net.cpp:425] inception_4a/5x5_reduce <- pool3/3x3_s2_pool3/3x3_s2_0_split_2
2016-07-14 21:19:38.747 STDERR [INFO] I0714 21:19:38.747342 23892 net.cpp:399] inception_4a/5x5_reduce -> inception_4a/5x5_reduce
2016-07-14 21:19:38.747 STDERR [INFO] I0714 21:19:38.747387 23888 net.cpp:141] Setting up inception_4a/3x3
2016-07-14 21:19:38.747 STDERR [INFO] I0714 21:19:38.747403 23888 net.cpp:148] Top shape: 10 208 14 14 (407680)
2016-07-14 21:19:38.747 STDERR [INFO] I0714 21:19:38.747409 23888 net.cpp:156] Memory required for data: 362145280
2016-07-14 21:19:38.747 STDERR [INFO] I0714 21:19:38.747422 23888 layer_factory.hpp:77] Creating layer inception_4a/relu_3x3
2016-07-14 21:19:38.747 STDERR [INFO] I0714 21:19:38.747434 23888 net.cpp:91] Creating Layer inception_4a/relu_3x3
2016-07-14 21:19:38.747 STDERR [INFO] I0714 21:19:38.747442 23888 net.cpp:425] inception_4a/relu_3x3 <- inception_4a/3x3
2016-07-14 21:19:38.748 STDERR [INFO] I0714 21:19:38.747452 23888 net.cpp:386] inception_4a/relu_3x3 -> inception_4a/3x3 (in-place)
2016-07-14 21:19:38.748 STDERR [INFO] I0714 21:19:38.748472 23888 net.cpp:141] Setting up inception_4a/relu_3x3
2016-07-14 21:19:38.748 STDERR [INFO] I0714 21:19:38.748492 23888 net.cpp:148] Top shape: 10 208 14 14 (407680)
2016-07-14 21:19:38.748 STDERR [INFO] I0714 21:19:38.748497 23888 net.cpp:156] Memory required for data: 363776000
2016-07-14 21:19:38.748 STDERR [INFO] I0714 21:19:38.748504 23888 layer_factory.hpp:77] Creating layer inception_4a/5x5_reduce
2016-07-14 21:19:38.748 STDERR [INFO] I0714 21:19:38.748523 23888 net.cpp:91] Creating Layer inception_4a/5x5_reduce
2016-07-14 21:19:38.748 STDERR [INFO] I0714 21:19:38.748530 23888 net.cpp:425] inception_4a/5x5_reduce <- pool3/3x3_s2_pool3/3x3_s2_0_split_2
2016-07-14 21:19:38.748 STDERR [INFO] I0714 21:19:38.748544 23888 net.cpp:399] inception_4a/5x5_reduce -> inception_4a/5x5_reduce
2016-07-14 21:19:38.752 STDERR [INFO] I0714 21:19:38.752419 23892 net.cpp:141] Setting up inception_4a/5x5_reduce
2016-07-14 21:19:38.752 STDERR [INFO] I0714 21:19:38.752439 23892 net.cpp:148] Top shape: 10 16 14 14 (31360)
2016-07-14 21:19:38.752 STDERR [INFO] I0714 21:19:38.752444 23892 net.cpp:156] Memory required for data: 363901440
2016-07-14 21:19:38.752 STDERR [INFO] I0714 21:19:38.752454 23892 layer_factory.hpp:77] Creating layer inception_4a/relu_5x5_reduce
2016-07-14 21:19:38.752 STDERR [INFO] I0714 21:19:38.752467 23892 net.cpp:91] Creating Layer inception_4a/relu_5x5_reduce
2016-07-14 21:19:38.752 STDERR [INFO] I0714 21:19:38.752475 23892 net.cpp:425] inception_4a/relu_5x5_reduce <- inception_4a/5x5_reduce
2016-07-14 21:19:38.752 STDERR [INFO] I0714 21:19:38.752483 23892 net.cpp:386] inception_4a/relu_5x5_reduce -> inception_4a/5x5_reduce (in-place)
2016-07-14 21:19:38.752 STDERR [INFO] I0714 21:19:38.752852 23892 net.cpp:141] Setting up inception_4a/relu_5x5_reduce
2016-07-14 21:19:38.752 STDERR [INFO] I0714 21:19:38.752866 23892 net.cpp:148] Top shape: 10 16 14 14 (31360)
2016-07-14 21:19:38.753 STDERR [INFO] I0714 21:19:38.752871 23892 net.cpp:156] Memory required for data: 364026880
2016-07-14 21:19:38.753 STDERR [INFO] I0714 21:19:38.752876 23892 layer_factory.hpp:77] Creating layer inception_4a/5x5
2016-07-14 21:19:38.753 STDERR [INFO] I0714 21:19:38.752895 23892 net.cpp:91] Creating Layer inception_4a/5x5
2016-07-14 21:19:38.753 STDERR [INFO] I0714 21:19:38.752902 23892 net.cpp:425] inception_4a/5x5 <- inception_4a/5x5_reduce
2016-07-14 21:19:38.753 STDERR [INFO] I0714 21:19:38.752915 23892 net.cpp:399] inception_4a/5x5 -> inception_4a/5x5
2016-07-14 21:19:38.754 STDERR [INFO] I0714 21:19:38.754117 23888 net.cpp:141] Setting up inception_4a/5x5_reduce
2016-07-14 21:19:38.754 STDERR [INFO] I0714 21:19:38.754137 23888 net.cpp:148] Top shape: 10 16 14 14 (31360)
2016-07-14 21:19:38.754 STDERR [INFO] I0714 21:19:38.754142 23888 net.cpp:156] Memory required for data: 363901440
2016-07-14 21:19:38.754 STDERR [INFO] I0714 21:19:38.754153 23888 layer_factory.hpp:77] Creating layer inception_4a/relu_5x5_reduce
2016-07-14 21:19:38.754 STDERR [INFO] I0714 21:19:38.754166 23888 net.cpp:91] Creating Layer inception_4a/relu_5x5_reduce
2016-07-14 21:19:38.754 STDERR [INFO] I0714 21:19:38.754173 23888 net.cpp:425] inception_4a/relu_5x5_reduce <- inception_4a/5x5_reduce
2016-07-14 21:19:38.754 STDERR [INFO] I0714 21:19:38.754181 23888 net.cpp:386] inception_4a/relu_5x5_reduce -> inception_4a/5x5_reduce (in-place)
2016-07-14 21:19:38.754 STDERR [INFO] I0714 21:19:38.754577 23888 net.cpp:141] Setting up inception_4a/relu_5x5_reduce
2016-07-14 21:19:38.754 STDERR [INFO] I0714 21:19:38.754590 23888 net.cpp:148] Top shape: 10 16 14 14 (31360)
2016-07-14 21:19:38.754 STDERR [INFO] I0714 21:19:38.754595 23888 net.cpp:156] Memory required for data: 364026880
2016-07-14 21:19:38.754 STDERR [INFO] I0714 21:19:38.754601 23888 layer_factory.hpp:77] Creating layer inception_4a/5x5
2016-07-14 21:19:38.754 STDERR [INFO] I0714 21:19:38.754626 23888 net.cpp:91] Creating Layer inception_4a/5x5
2016-07-14 21:19:38.754 STDERR [INFO] I0714 21:19:38.754632 23888 net.cpp:425] inception_4a/5x5 <- inception_4a/5x5_reduce
2016-07-14 21:19:38.754 STDERR [INFO] I0714 21:19:38.754642 23888 net.cpp:399] inception_4a/5x5 -> inception_4a/5x5
2016-07-14 21:19:38.758 STDERR [INFO] I0714 21:19:38.758002 23892 net.cpp:141] Setting up inception_4a/5x5
2016-07-14 21:19:38.758 STDERR [INFO] I0714 21:19:38.758025 23892 net.cpp:148] Top shape: 10 48 14 14 (94080)
2016-07-14 21:19:38.758 STDERR [INFO] I0714 21:19:38.758031 23892 net.cpp:156] Memory required for data: 364403200
2016-07-14 21:19:38.758 STDERR [INFO] I0714 21:19:38.758043 23892 layer_factory.hpp:77] Creating layer inception_4a/relu_5x5
2016-07-14 21:19:38.758 STDERR [INFO] I0714 21:19:38.758051 23892 net.cpp:91] Creating Layer inception_4a/relu_5x5
2016-07-14 21:19:38.758 STDERR [INFO] I0714 21:19:38.758059 23892 net.cpp:425] inception_4a/relu_5x5 <- inception_4a/5x5
2016-07-14 21:19:38.758 STDERR [INFO] I0714 21:19:38.758072 23892 net.cpp:386] inception_4a/relu_5x5 -> inception_4a/5x5 (in-place)
2016-07-14 21:19:38.758 STDERR [INFO] I0714 21:19:38.758438 23892 net.cpp:141] Setting up inception_4a/relu_5x5
2016-07-14 21:19:38.758 STDERR [INFO] I0714 21:19:38.758451 23892 net.cpp:148] Top shape: 10 48 14 14 (94080)
2016-07-14 21:19:38.758 STDERR [INFO] I0714 21:19:38.758457 23892 net.cpp:156] Memory required for data: 364779520
2016-07-14 21:19:38.758 STDERR [INFO] I0714 21:19:38.758462 23892 layer_factory.hpp:77] Creating layer inception_4a/pool
2016-07-14 21:19:38.758 STDERR [INFO] I0714 21:19:38.758476 23892 net.cpp:91] Creating Layer inception_4a/pool
2016-07-14 21:19:38.758 STDERR [INFO] I0714 21:19:38.758483 23892 net.cpp:425] inception_4a/pool <- pool3/3x3_s2_pool3/3x3_s2_0_split_3
2016-07-14 21:19:38.758 STDERR [INFO] I0714 21:19:38.758492 23892 net.cpp:399] inception_4a/pool -> inception_4a/pool
2016-07-14 21:19:38.759 STDERR [INFO] I0714 21:19:38.759215 23892 net.cpp:141] Setting up inception_4a/pool
2016-07-14 21:19:38.759 STDERR [INFO] I0714 21:19:38.759230 23892 net.cpp:148] Top shape: 10 480 14 14 (940800)
2016-07-14 21:19:38.759 STDERR [INFO] I0714 21:19:38.759235 23892 net.cpp:156] Memory required for data: 368542720
2016-07-14 21:19:38.759 STDERR [INFO] I0714 21:19:38.759240 23892 layer_factory.hpp:77] Creating layer inception_4a/pool_proj
2016-07-14 21:19:38.759 STDERR [INFO] I0714 21:19:38.759266 23892 net.cpp:91] Creating Layer inception_4a/pool_proj
2016-07-14 21:19:38.759 STDERR [INFO] I0714 21:19:38.759274 23892 net.cpp:425] inception_4a/pool_proj <- inception_4a/pool
2016-07-14 21:19:38.759 STDERR [INFO] I0714 21:19:38.759287 23892 net.cpp:399] inception_4a/pool_proj -> inception_4a/pool_proj
2016-07-14 21:19:38.759 STDERR [INFO] I0714 21:19:38.759865 23888 net.cpp:141] Setting up inception_4a/5x5
2016-07-14 21:19:38.759 STDERR [INFO] I0714 21:19:38.759882 23888 net.cpp:148] Top shape: 10 48 14 14 (94080)
2016-07-14 21:19:38.759 STDERR [INFO] I0714 21:19:38.759888 23888 net.cpp:156] Memory required for data: 364403200
2016-07-14 21:19:38.760 STDERR [INFO] I0714 21:19:38.759901 23888 layer_factory.hpp:77] Creating layer inception_4a/relu_5x5
2016-07-14 21:19:38.760 STDERR [INFO] I0714 21:19:38.759912 23888 net.cpp:91] Creating Layer inception_4a/relu_5x5
2016-07-14 21:19:38.760 STDERR [INFO] I0714 21:19:38.759918 23888 net.cpp:425] inception_4a/relu_5x5 <- inception_4a/5x5
2016-07-14 21:19:38.760 STDERR [INFO] I0714 21:19:38.759927 23888 net.cpp:386] inception_4a/relu_5x5 -> inception_4a/5x5 (in-place)
2016-07-14 21:19:38.760 STDERR [INFO] I0714 21:19:38.760287 23888 net.cpp:141] Setting up inception_4a/relu_5x5
2016-07-14 21:19:38.760 STDERR [INFO] I0714 21:19:38.760303 23888 net.cpp:148] Top shape: 10 48 14 14 (94080)
2016-07-14 21:19:38.760 STDERR [INFO] I0714 21:19:38.760308 23888 net.cpp:156] Memory required for data: 364779520
2016-07-14 21:19:38.760 STDERR [INFO] I0714 21:19:38.760314 23888 layer_factory.hpp:77] Creating layer inception_4a/pool
2016-07-14 21:19:38.760 STDERR [INFO] I0714 21:19:38.760327 23888 net.cpp:91] Creating Layer inception_4a/pool
2016-07-14 21:19:38.760 STDERR [INFO] I0714 21:19:38.760334 23888 net.cpp:425] inception_4a/pool <- pool3/3x3_s2_pool3/3x3_s2_0_split_3
2016-07-14 21:19:38.760 STDERR [INFO] I0714 21:19:38.760342 23888 net.cpp:399] inception_4a/pool -> inception_4a/pool
2016-07-14 21:19:38.760 STDERR [INFO] I0714 21:19:38.760457 23888 net.cpp:141] Setting up inception_4a/pool
2016-07-14 21:19:38.760 STDERR [INFO] I0714 21:19:38.760468 23888 net.cpp:148] Top shape: 10 480 14 14 (940800)
2016-07-14 21:19:38.760 STDERR [INFO] I0714 21:19:38.760473 23888 net.cpp:156] Memory required for data: 368542720
2016-07-14 21:19:38.760 STDERR [INFO] I0714 21:19:38.760478 23888 layer_factory.hpp:77] Creating layer inception_4a/pool_proj
2016-07-14 21:19:38.760 STDERR [INFO] I0714 21:19:38.760498 23888 net.cpp:91] Creating Layer inception_4a/pool_proj
2016-07-14 21:19:38.760 STDERR [INFO] I0714 21:19:38.760504 23888 net.cpp:425] inception_4a/pool_proj <- inception_4a/pool
2016-07-14 21:19:38.760 STDERR [INFO] I0714 21:19:38.760525 23888 net.cpp:399] inception_4a/pool_proj -> inception_4a/pool_proj
2016-07-14 21:19:38.764 STDERR [INFO] I0714 21:19:38.764160 23892 net.cpp:141] Setting up inception_4a/pool_proj
2016-07-14 21:19:38.764 STDERR [INFO] I0714 21:19:38.764179 23892 net.cpp:148] Top shape: 10 64 14 14 (125440)
2016-07-14 21:19:38.764 STDERR [INFO] I0714 21:19:38.764185 23892 net.cpp:156] Memory required for data: 369044480
2016-07-14 21:19:38.764 STDERR [INFO] I0714 21:19:38.764195 23892 layer_factory.hpp:77] Creating layer inception_4a/relu_pool_proj
2016-07-14 21:19:38.764 STDERR [INFO] I0714 21:19:38.764209 23892 net.cpp:91] Creating Layer inception_4a/relu_pool_proj
2016-07-14 21:19:38.764 STDERR [INFO] I0714 21:19:38.764216 23892 net.cpp:425] inception_4a/relu_pool_proj <- inception_4a/pool_proj
2016-07-14 21:19:38.764 STDERR [INFO] I0714 21:19:38.764225 23892 net.cpp:386] inception_4a/relu_pool_proj -> inception_4a/pool_proj (in-place)
2016-07-14 21:19:38.765 STDERR [INFO] I0714 21:19:38.765668 23892 net.cpp:141] Setting up inception_4a/relu_pool_proj
2016-07-14 21:19:38.765 STDERR [INFO] I0714 21:19:38.765686 23892 net.cpp:148] Top shape: 10 64 14 14 (125440)
2016-07-14 21:19:38.765 STDERR [INFO] I0714 21:19:38.765691 23892 net.cpp:156] Memory required for data: 369546240
2016-07-14 21:19:38.765 STDERR [INFO] I0714 21:19:38.765697 23892 layer_factory.hpp:77] Creating layer inception_4a/output
2016-07-14 21:19:38.766 STDERR [INFO] I0714 21:19:38.765710 23892 net.cpp:91] Creating Layer inception_4a/output
2016-07-14 21:19:38.766 STDERR [INFO] I0714 21:19:38.765717 23892 net.cpp:425] inception_4a/output <- inception_4a/1x1
2016-07-14 21:19:38.766 STDERR [INFO] I0714 21:19:38.765724 23892 net.cpp:425] inception_4a/output <- inception_4a/3x3
2016-07-14 21:19:38.766 STDERR [INFO] I0714 21:19:38.765730 23892 net.cpp:425] inception_4a/output <- inception_4a/5x5
2016-07-14 21:19:38.766 STDERR [INFO] I0714 21:19:38.765736 23892 net.cpp:425] inception_4a/output <- inception_4a/pool_proj
2016-07-14 21:19:38.766 STDERR [INFO] I0714 21:19:38.765744 23892 net.cpp:399] inception_4a/output -> inception_4a/output
2016-07-14 21:19:38.766 STDERR [INFO] I0714 21:19:38.765792 23888 net.cpp:141] Setting up inception_4a/pool_proj
2016-07-14 21:19:38.766 STDERR [INFO] I0714 21:19:38.765810 23888 net.cpp:148] Top shape: 10 64 14 14 (125440)
2016-07-14 21:19:38.766 STDERR [INFO] I0714 21:19:38.765815 23888 net.cpp:156] Memory required for data: 369044480
2016-07-14 21:19:38.766 STDERR [INFO] I0714 21:19:38.765825 23888 layer_factory.hpp:77] Creating layer inception_4a/relu_pool_proj
2016-07-14 21:19:38.766 STDERR [INFO] I0714 21:19:38.765826 23892 net.cpp:141] Setting up inception_4a/output
2016-07-14 21:19:38.766 STDERR [INFO] I0714 21:19:38.765837 23888 net.cpp:91] Creating Layer inception_4a/relu_pool_proj
2016-07-14 21:19:38.766 STDERR [INFO] I0714 21:19:38.765837 23892 net.cpp:148] Top shape: 10 512 14 14 (1003520)
2016-07-14 21:19:38.766 STDERR [INFO] I0714 21:19:38.765844 23892 net.cpp:156] Memory required for data: 373560320
2016-07-14 21:19:38.766 STDERR [INFO] I0714 21:19:38.765846 23888 net.cpp:425] inception_4a/relu_pool_proj <- inception_4a/pool_proj
2016-07-14 21:19:38.766 STDERR [INFO] I0714 21:19:38.765856 23892 layer_factory.hpp:77] Creating layer inception_4a/output_inception_4a/output_0_split
…
2016-07-14 21:19:38.766 STDERR [INFO] I0714 21:19:38.765897 23892 net.cpp:399] inception_4a/output_inception_4a/output_0_split -> inception_4a/output_inception_4a/output_0_split_1
2016-07-14 21:19:38.766 STDERR [INFO] I0714 21:19:38.765908 23892 net.cpp:399] inception_4a/output_inception_4a/output_0_split -> inception_4a/output_inception_4a/output_0_split_2
2016-07-14 21:19:38.767 STDERR [INFO] I0714 21:19:38.765916 23892 net.cpp:399] inception_4a/output_inception_4a/output_0_split -> inception_4a/output_inception_4a/output_0_split_3
2016-07-14 21:19:38.767 STDERR [INFO] I0714 21:19:38.766872 23892 net.cpp:141] Setting up inception_4a/output_inception_4a/output_0_split
2016-07-14 21:19:38.767 STDERR [INFO] I0714 21:19:38.766885 23892 net.cpp:148] Top shape: 10 512 14 14 (1003520)
2016-07-14 21:19:38.767 STDERR [INFO] I0714 21:19:38.766883 23888 net.cpp:141] Setting up inception_4a/relu_pool_proj
2016-07-14 21:19:38.767 STDERR [INFO] I0714 21:19:38.766891 23892 net.cpp:148] Top shape: 10 512 14 14 (1003520)
2016-07-14 21:19:38.767 STDERR [INFO] I0714 21:19:38.766898 23892 net.cpp:148] Top shape: 10 512 14 14 (1003520)
2016-07-14 21:19:38.767 STDERR [INFO] I0714 21:19:38.766899 23888 net.cpp:148] Top shape: 10 64 14 14 (125440)
2016-07-14 21:19:38.767 STDERR [INFO] I0714 21:19:38.766904 23892 net.cpp:148] Top shape: 10 512 14 14 (1003520)
2016-07-14 21:19:38.767 STDERR [INFO] I0714 21:19:38.766907 23888 net.cpp:156] Memory required for data: 369546240
2016-07-14 21:19:38.767 STDERR [INFO] I0714 21:19:38.766908 23892 net.cpp:156] Memory required for data: 389616640
2016-07-14 21:19:38.767 STDERR [INFO] I0714 21:19:38.766914 23892 layer_factory.hpp:77] Creating layer inception_4b/1x1
2016-07-14 21:19:38.768 STDERR [INFO] I0714 21:19:38.766916 23888 layer_factory.hpp:77] Creating layer inception_4a/output
…
2016-07-14 21:19:38.768 STDERR [INFO] I0714 21:19:38.767166 23888 net.cpp:399] inception_4a/output_inception_4a/output_0_split -> inception_4a/output_inception_4a/output_0_split_1
2016-07-14 21:19:38.769 STDERR [INFO] I0714 21:19:38.767180 23888 net.cpp:399] inception_4a/output_inception_4a/output_0_split -> inception_4a/output_inception_4a/output_0_split_2
2016-07-14 21:19:38.769 STDERR [INFO] I0714 21:19:38.767190 23888 net.cpp:399] inception_4a/output_inception_4a/output_0_split -> inception_4a/output_inception_4a/output_0_split_3
2016-07-14 21:19:38.769 STDERR [INFO] I0714 21:19:38.767623 23888 net.cpp:141] Setting up inception_4a/output_inception_4a/output_0_split
2016-07-14 21:19:38.769 STDERR [INFO] I0714 21:19:38.767637 23888 net.cpp:148] Top shape: 10 512 14 14 (1003520)
2016-07-14 21:19:38.769 STDERR [INFO] I0714 21:19:38.767644 23888 net.cpp:148] Top shape: 10 512 14 14 (1003520)
2016-07-14 21:19:38.769 STDERR [INFO] I0714 21:19:38.767649 23888 net.cpp:148] Top shape: 10 512 14 14 (1003520)
2016-07-14 21:19:38.769 STDERR [INFO] I0714 21:19:38.767655 23888 net.cpp:148] Top shape: 10 512 14 14 (1003520)
2016-07-14 21:19:38.769 STDERR [INFO] I0714 21:19:38.767659 23888 net.cpp:156] Memory required for data: 389616640
2016-07-14 21:19:38.769 STDERR [INFO] I0714 21:19:38.767665 23888 layer_factory.hpp:77] Creating layer inception_4b/1x1
2016-07-14 21:19:38.769 STDERR [INFO] I0714 21:19:38.767683 23888 net.cpp:91] Creating Layer inception_4b/1x1
2016-07-14 21:19:38.769 STDERR [INFO] I0714 21:19:38.767690 23888 net.cpp:425] inception_4b/1x1 <- inception_4a/output_inception_4a/output_0_split_0
2016-07-14 21:19:38.769 STDERR [INFO] I0714 21:19:38.767709 23888 net.cpp:399] inception_4b/1x1 -> inception_4b/1x1
2016-07-14 21:19:38.772 STDERR [INFO] I0714 21:19:38.772462 23892 net.cpp:141] Setting up inception_4b/1x1
2016-07-14 21:19:38.772 STDERR [INFO] I0714 21:19:38.772490 23892 net.cpp:148] Top shape: 10 160 14 14 (313600)
2016-07-14 21:19:38.772 STDERR [INFO] I0714 21:19:38.772496 23892 net.cpp:156] Memory required for data: 390871040
2016-07-14 21:19:38.772 STDERR [INFO] I0714 21:19:38.772507 23892 layer_factory.hpp:77] Creating layer inception_4b/relu_1x1
2016-07-14 21:19:38.772 STDERR [INFO] I0714 21:19:38.772517 23892 net.cpp:91] Creating Layer inception_4b/relu_1x1
2016-07-14 21:19:38.772 STDERR [INFO] I0714 21:19:38.772524 23892 net.cpp:425] inception_4b/relu_1x1 <- inception_4b/1x1
2016-07-14 21:19:38.772 STDERR [INFO] I0714 21:19:38.772533 23892 net.cpp:386] inception_4b/relu_1x1 -> inception_4b/1x1 (in-place)
2016-07-14 21:19:38.772 STDERR [INFO] I0714 21:19:38.772946 23892 net.cpp:141] Setting up inception_4b/relu_1x1
2016-07-14 21:19:38.773 STDERR [INFO] I0714 21:19:38.772963 23892 net.cpp:148] Top shape: 10 160 14 14 (313600)
2016-07-14 21:19:38.773 STDERR [INFO] I0714 21:19:38.772967 23892 net.cpp:156] Memory required for data: 392125440
2016-07-14 21:19:38.773 STDERR [INFO] I0714 21:19:38.772974 23892 layer_factory.hpp:77] Creating layer inception_4b/3x3_reduce
2016-07-14 21:19:38.773 STDERR [INFO] I0714 21:19:38.772992 23892 net.cpp:91] Creating Layer inception_4b/3x3_reduce
2016-07-14 21:19:38.773 STDERR [INFO] I0714 21:19:38.773000 23892 net.cpp:425] inception_4b/3x3_reduce <- inception_4a/output_inception_4a/output_0_split_1
2016-07-14 21:19:38.773 STDERR [INFO] I0714 21:19:38.773010 23892 net.cpp:399] inception_4b/3x3_reduce -> inception_4b/3x3_reduce
2016-07-14 21:19:38.773 STDERR [INFO] I0714 21:19:38.773056 23888 net.cpp:141] Setting up inception_4b/1x1
2016-07-14 21:19:38.773 STDERR [INFO] I0714 21:19:38.773072 23888 net.cpp:148] Top shape: 10 160 14 14 (313600)
2016-07-14 21:19:38.773 STDERR [INFO] I0714 21:19:38.773078 23888 net.cpp:156] Memory required for data: 390871040
2016-07-14 21:19:38.773 STDERR [INFO] I0714 21:19:38.773090 23888 layer_factory.hpp:77] Creating layer inception_4b/relu_1x1
2016-07-14 21:19:38.773 STDERR [INFO] I0714 21:19:38.773102 23888 net.cpp:91] Creating Layer inception_4b/relu_1x1
2016-07-14 21:19:38.773 STDERR [INFO] I0714 21:19:38.773108 23888 net.cpp:425] inception_4b/relu_1x1 <- inception_4b/1x1
2016-07-14 21:19:38.773 STDERR [INFO] I0714 21:19:38.773118 23888 net.cpp:386] inception_4b/relu_1x1 -> inception_4b/1x1 (in-place)
2016-07-14 21:19:38.773 STDERR [INFO] I0714 21:19:38.773529 23888 net.cpp:141] Setting up inception_4b/relu_1x1
2016-07-14 21:19:38.773 STDERR [INFO] I0714 21:19:38.773541 23888 net.cpp:148] Top shape: 10 160 14 14 (313600)
2016-07-14 21:19:38.773 STDERR [INFO] I0714 21:19:38.773546 23888 net.cpp:156] Memory required for data: 392125440
2016-07-14 21:19:38.773 STDERR [INFO] I0714 21:19:38.773552 23888 layer_factory.hpp:77] Creating layer inception_4b/3x3_reduce
2016-07-14 21:19:38.773 STDERR [INFO] I0714 21:19:38.773572 23888 net.cpp:91] Creating Layer inception_4b/3x3_reduce
2016-07-14 21:19:38.773 STDERR [INFO] I0714 21:19:38.773579 23888 net.cpp:425] inception_4b/3x3_reduce <- inception_4a/output_inception_4a/output_0_split_1
2016-07-14 21:19:38.773 STDERR [INFO] I0714 21:19:38.773589 23888 net.cpp:399] inception_4b/3x3_reduce -> inception_4b/3x3_reduce
2016-07-14 21:19:38.777 STDERR [INFO] I0714 21:19:38.777722 23892 net.cpp:141] Setting up inception_4b/3x3_reduce
2016-07-14 21:19:38.777 STDERR [INFO] I0714 21:19:38.777741 23892 net.cpp:148] Top shape: 10 112 14 14 (219520)
2016-07-14 21:19:38.777 STDERR [INFO] I0714 21:19:38.777747 23892 net.cpp:156] Memory required for data: 393003520
2016-07-14 21:19:38.778 STDERR [INFO] I0714 21:19:38.777760 23892 layer_factory.hpp:77] Creating layer inception_4b/relu_3x3_reduce
2016-07-14 21:19:38.778 STDERR [INFO] I0714 21:19:38.777768 23892 net.cpp:91] Creating Layer inception_4b/relu_3x3_reduce
2016-07-14 21:19:38.778 STDERR [INFO] I0714 21:19:38.777778 23892 net.cpp:425] inception_4b/relu_3x3_reduce <- inception_4b/3x3_reduce
2016-07-14 21:19:38.778 STDERR [INFO] I0714 21:19:38.777786 23892 net.cpp:386] inception_4b/relu_3x3_reduce -> inception_4b/3x3_reduce (in-place)
2016-07-14 21:19:38.778 STDERR [INFO] I0714 21:19:38.778148 23888 net.cpp:141] Setting up inception_4b/3x3_reduce
2016-07-14 21:19:38.778 STDERR [INFO] I0714 21:19:38.778164 23888 net.cpp:148] Top shape: 10 112 14 14 (219520)
2016-07-14 21:19:38.778 STDERR [INFO] I0714 21:19:38.778169 23888 net.cpp:156] Memory required for data: 393003520
2016-07-14 21:19:38.778 STDERR [INFO] I0714 21:19:38.778182 23892 net.cpp:141] Setting up inception_4b/relu_3x3_reduce
2016-07-14 21:19:38.778 STDERR [INFO] I0714 21:19:38.778183 23888 layer_factory.hpp:77] Creating layer inception_4b/relu_3x3_reduce
2016-07-14 21:19:38.778 STDERR [INFO] I0714 21:19:38.778199 23892 net.cpp:148] Top shape: 10 112 14 14 (219520)
2016-07-14 21:19:38.778 STDERR [INFO] I0714 21:19:38.778205 23892 net.cpp:156] Memory required for data: 393881600
2016-07-14 21:19:38.778 STDERR [INFO] I0714 21:19:38.778205 23888 net.cpp:91] Creating Layer inception_4b/relu_3x3_reduce
2016-07-14 21:19:38.778 STDERR [INFO] I0714 21:19:38.778210 23892 layer_factory.hpp:77] Creating layer inception_4b/3x3
2016-07-14 21:19:38.778 STDERR [INFO] I0714 21:19:38.778213 23888 net.cpp:425] inception_4b/relu_3x3_reduce <- inception_4b/3x3_reduce
2016-07-14 21:19:38.778 STDERR [INFO] I0714 21:19:38.778230 23888 net.cpp:386] inception_4b/relu_3x3_reduce -> inception_4b/3x3_reduce (in-place)
2016-07-14 21:19:38.778 STDERR [INFO] I0714 21:19:38.778239 23892 net.cpp:91] Creating Layer inception_4b/3x3
2016-07-14 21:19:38.778 STDERR [INFO] I0714 21:19:38.778247 23892 net.cpp:425] inception_4b/3x3 <- inception_4b/3x3_reduce
2016-07-14 21:19:38.779 STDERR [INFO] I0714 21:19:38.778257 23892 net.cpp:399] inception_4b/3x3 -> inception_4b/3x3
2016-07-14 21:19:38.779 STDERR [INFO] I0714 21:19:38.778652 23888 net.cpp:141] Setting up inception_4b/relu_3x3_reduce
2016-07-14 21:19:38.779 STDERR [INFO] I0714 21:19:38.778666 23888 net.cpp:148] Top shape: 10 112 14 14 (219520)
2016-07-14 21:19:38.779 STDERR [INFO] I0714 21:19:38.778673 23888 net.cpp:156] Memory required for data: 393881600
2016-07-14 21:19:38.779 STDERR [INFO] I0714 21:19:38.778679 23888 layer_factory.hpp:77] Creating layer inception_4b/3x3
2016-07-14 21:19:38.779 STDERR [INFO] I0714 21:19:38.778707 23888 net.cpp:91] Creating Layer inception_4b/3x3
2016-07-14 21:19:38.779 STDERR [INFO] I0714 21:19:38.778715 23888 net.cpp:425] inception_4b/3x3 <- inception_4b/3x3_reduce
2016-07-14 21:19:38.781 STDERR [INFO] I0714 21:19:38.781136 23888 net.cpp:399] inception_4b/3x3 -> inception_4b/3x3
2016-07-14 21:19:38.790 STDERR [INFO] I0714 21:19:38.790341 23892 net.cpp:141] Setting up inception_4b/3x3
2016-07-14 21:19:38.790 STDERR [INFO] I0714 21:19:38.790367 23892 net.cpp:148] Top shape: 10 224 14 14 (439040)
2016-07-14 21:19:38.790 STDERR [INFO] I0714 21:19:38.790374 23892 net.cpp:156] Memory required for data: 395637760
2016-07-14 21:19:38.790 STDERR [INFO] I0714 21:19:38.790390 23892 layer_factory.hpp:77] Creating layer inception_4b/relu_3x3
2016-07-14 21:19:38.790 STDERR [INFO] I0714 21:19:38.790403 23892 net.cpp:91] Creating Layer inception_4b/relu_3x3
2016-07-14 21:19:38.790 STDERR [INFO] I0714 21:19:38.790415 23892 net.cpp:425] inception_4b/relu_3x3 <- inception_4b/3x3
2016-07-14 21:19:38.790 STDERR [INFO] I0714 21:19:38.790426 23892 net.cpp:386] inception_4b/relu_3x3 -> inception_4b/3x3 (in-place)
2016-07-14 21:19:38.791 STDERR [INFO] I0714 21:19:38.791853 23892 net.cpp:141] Setting up inception_4b/relu_3x3
2016-07-14 21:19:38.792 STDERR [INFO] I0714 21:19:38.791872 23892 net.cpp:148] Top shape: 10 224 14 14 (439040)
2016-07-14 21:19:38.792 STDERR [INFO] I0714 21:19:38.791877 23892 net.cpp:156] Memory required for data: 397393920
2016-07-14 21:19:38.792 STDERR [INFO] I0714 21:19:38.791882 23892 layer_factory.hpp:77] Creating layer inception_4b/5x5_reduce
2016-07-14 21:19:38.792 STDERR [INFO] I0714 21:19:38.791929 23892 net.cpp:91] Creating Layer inception_4b/5x5_reduce
2016-07-14 21:19:38.792 STDERR [INFO] I0714 21:19:38.791937 23892 net.cpp:425] inception_4b/5x5_reduce <- inception_4a/output_inception_4a/output_0_split_2
2016-07-14 21:19:38.792 STDERR [INFO] I0714 21:19:38.791952 23892 net.cpp:399] inception_4b/5x5_reduce -> inception_4b/5x5_reduce
2016-07-14 21:19:38.792 STDERR [INFO] I0714 21:19:38.791992 23888 net.cpp:141] Setting up inception_4b/3x3
2016-07-14 21:19:38.792 STDERR [INFO] I0714 21:19:38.792009 23888 net.cpp:148] Top shape: 10 224 14 14 (439040)
2016-07-14 21:19:38.792 STDERR [INFO] I0714 21:19:38.792014 23888 net.cpp:156] Memory required for data: 395637760
2016-07-14 21:19:38.792 STDERR [INFO] I0714 21:19:38.792031 23888 layer_factory.hpp:77] Creating layer inception_4b/relu_3x3
2016-07-14 21:19:38.792 STDERR [INFO] I0714 21:19:38.792040 23888 net.cpp:91] Creating Layer inception_4b/relu_3x3
2016-07-14 21:19:38.792 STDERR [INFO] I0714 21:19:38.792047 23888 net.cpp:425] inception_4b/relu_3x3 <- inception_4b/3x3
2016-07-14 21:19:38.792 STDERR [INFO] I0714 21:19:38.792055 23888 net.cpp:386] inception_4b/relu_3x3 -> inception_4b/3x3 (in-place)
2016-07-14 21:19:38.793 STDERR [INFO] I0714 21:19:38.793138 23888 net.cpp:141] Setting up inception_4b/relu_3x3
2016-07-14 21:19:38.793 STDERR [INFO] I0714 21:19:38.793155 23888 net.cpp:148] Top shape: 10 224 14 14 (439040)
2016-07-14 21:19:38.793 STDERR [INFO] I0714 21:19:38.793160 23888 net.cpp:156] Memory required for data: 397393920
2016-07-14 21:19:38.793 STDERR [INFO] I0714 21:19:38.793166 23888 layer_factory.hpp:77] Creating layer inception_4b/5x5_reduce
2016-07-14 21:19:38.793 STDERR [INFO] I0714 21:19:38.793203 23888 net.cpp:91] Creating Layer inception_4b/5x5_reduce
2016-07-14 21:19:38.793 STDERR [INFO] I0714 21:19:38.793211 23888 net.cpp:425] inception_4b/5x5_reduce <- inception_4a/output_inception_4a/output_0_split_2
2016-07-14 21:19:38.793 STDERR [INFO] I0714 21:19:38.793222 23888 net.cpp:399] inception_4b/5x5_reduce -> inception_4b/5x5_reduce
2016-07-14 21:19:38.797 STDERR [INFO] I0714 21:19:38.797674 23892 net.cpp:141] Setting up inception_4b/5x5_reduce
2016-07-14 21:19:38.797 STDERR [INFO] I0714 21:19:38.797695 23892 net.cpp:148] Top shape: 10 24 14 14 (47040)
2016-07-14 21:19:38.797 STDERR [INFO] I0714 21:19:38.797701 23892 net.cpp:156] Memory required for data: 397582080
2016-07-14 21:19:38.797 STDERR [INFO] I0714 21:19:38.797713 23892 layer_factory.hpp:77] Creating layer inception_4b/relu_5x5_reduce
2016-07-14 21:19:38.797 STDERR [INFO] I0714 21:19:38.797725 23892 net.cpp:91] Creating Layer inception_4b/relu_5x5_reduce
2016-07-14 21:19:38.798 STDERR [INFO] I0714 21:19:38.797731 23892 net.cpp:425] inception_4b/relu_5x5_reduce <- inception_4b/5x5_reduce
2016-07-14 21:19:38.798 STDERR [INFO] I0714 21:19:38.797739 23892 net.cpp:386] inception_4b/relu_5x5_reduce -> inception_4b/5x5_reduce (in-place)
2016-07-14 21:19:38.798 STDERR [INFO] I0714 21:19:38.798226 23892 net.cpp:141] Setting up inception_4b/relu_5x5_reduce
2016-07-14 21:19:38.798 STDERR [INFO] I0714 21:19:38.798243 23892 net.cpp:148] Top shape: 10 24 14 14 (47040)
2016-07-14 21:19:38.798 STDERR [INFO] I0714 21:19:38.798248 23892 net.cpp:156] Memory required for data: 397770240
2016-07-14 21:19:38.798 STDERR [INFO] I0714 21:19:38.798255 23892 layer_factory.hpp:77] Creating layer inception_4b/5x5
2016-07-14 21:19:38.798 STDERR [INFO] I0714 21:19:38.798272 23892 net.cpp:91] Creating Layer inception_4b/5x5
2016-07-14 21:19:38.798 STDERR [INFO] I0714 21:19:38.798279 23892 net.cpp:425] inception_4b/5x5 <- inception_4b/5x5_reduce
2016-07-14 21:19:38.798 STDERR [INFO] I0714 21:19:38.798292 23892 net.cpp:399] inception_4b/5x5 -> inception_4b/5x5
2016-07-14 21:19:38.798 STDERR [INFO] I0714 21:19:38.798305 23888 net.cpp:141] Setting up inception_4b/5x5_reduce
2016-07-14 21:19:38.798 STDERR [INFO] I0714 21:19:38.798322 23888 net.cpp:148] Top shape: 10 24 14 14 (47040)
2016-07-14 21:19:38.798 STDERR [INFO] I0714 21:19:38.798327 23888 net.cpp:156] Memory required for data: 397582080
2016-07-14 21:19:38.798 STDERR [INFO] I0714 21:19:38.798339 23888 layer_factory.hpp:77] Creating layer inception_4b/relu_5x5_reduce
2016-07-14 21:19:38.798 STDERR [INFO] I0714 21:19:38.798353 23888 net.cpp:91] Creating Layer inception_4b/relu_5x5_reduce
2016-07-14 21:19:38.798 STDERR [INFO] I0714 21:19:38.798364 23888 net.cpp:425] inception_4b/relu_5x5_reduce <- inception_4b/5x5_reduce
2016-07-14 21:19:38.798 STDERR [INFO] I0714 21:19:38.798378 23888 net.cpp:386] inception_4b/relu_5x5_reduce -> inception_4b/5x5_reduce (in-place)
2016-07-14 21:19:38.798 STDERR [INFO] I0714 21:19:38.798894 23888 net.cpp:141] Setting up inception_4b/relu_5x5_reduce
2016-07-14 21:19:38.799 STDERR [INFO] I0714 21:19:38.798910 23888 net.cpp:148] Top shape: 10 24 14 14 (47040)
2016-07-14 21:19:38.799 STDERR [INFO] I0714 21:19:38.798915 23888 net.cpp:156] Memory required for data: 397770240
2016-07-14 21:19:38.799 STDERR [INFO] I0714 21:19:38.798920 23888 layer_factory.hpp:77] Creating layer inception_4b/5x5
2016-07-14 21:19:38.799 STDERR [INFO] I0714 21:19:38.798940 23888 net.cpp:91] Creating Layer inception_4b/5x5
2016-07-14 21:19:38.799 STDERR [INFO] I0714 21:19:38.798948 23888 net.cpp:425] inception_4b/5x5 <- inception_4b/5x5_reduce
…
2016-07-14 21:19:38.801 n.t.s.f.RefreshingImageFetcher$ImageReader [INFO] [Timing] RequestID: 0 StreamID: home/peifeng/work/data/frame.320x240.jpg SequenceNr: 95 Entering queue: 1468545578801
2016-07-14 21:19:38.805 n.t.s.s.CVParticleSpout [INFO] [Timing] RequestID: 0 StreamID: home/peifeng/work/data/frame.320x240.jpg SequenceNr: 93 Leaving fetcher: 1468545578805 Size: 8702
2016-07-14 21:19:38.805 n.t.s.b.CVParticleBolt [INFO] [Timing] RequestID: 0 StreamID: home/peifeng/work/data/frame.320x240.jpg SequenceNr: 93 Entering scale: 1468545578805
2016-07-14 21:19:38.807 STDERR [INFO] I0714 21:19:38.807176 23892 net.cpp:141] Setting up inception_4b/5x5
2016-07-14 21:19:38.807 STDERR [INFO] I0714 21:19:38.807215 23892 net.cpp:148] Top shape: 10 64 14 14 (125440)
2016-07-14 21:19:38.807 STDERR [INFO] I0714 21:19:38.807221 23892 net.cpp:156] Memory required for data: 398272000
2016-07-14 21:19:38.807 STDERR [INFO] I0714 21:19:38.807235 23892 layer_factory.hpp:77] Creating layer inception_4b/relu_5x5
2016-07-14 21:19:38.807 STDERR [INFO] I0714 21:19:38.807258 23892 net.cpp:91] Creating Layer inception_4b/relu_5x5
2016-07-14 21:19:38.807 STDERR [INFO] I0714 21:19:38.807268 23892 net.cpp:425] inception_4b/relu_5x5 <- inception_4b/5x5
2016-07-14 21:19:38.807 STDERR [INFO] I0714 21:19:38.807282 23892 net.cpp:386] inception_4b/relu_5x5 -> inception_4b/5x5 (in-place)
2016-07-14 21:19:38.807 STDERR [INFO] I0714 21:19:38.807883 23892 net.cpp:141] Setting up inception_4b/relu_5x5
2016-07-14 21:19:38.807 STDERR [INFO] I0714 21:19:38.807899 23892 net.cpp:148] Top shape: 10 64 14 14 (125440)
2016-07-14 21:19:38.808 STDERR [INFO] I0714 21:19:38.807904 23892 net.cpp:156] Memory required for data: 398773760
2016-07-14 21:19:38.808 STDERR [INFO] I0714 21:19:38.807910 23892 layer_factory.hpp:77] Creating layer inception_4b/pool
2016-07-14 21:19:38.808 STDERR [INFO] I0714 21:19:38.807925 23892 net.cpp:91] Creating Layer inception_4b/pool
2016-07-14 21:19:38.808 STDERR [INFO] I0714 21:19:38.807932 23892 net.cpp:425] inception_4b/pool <- inception_4a/output_inception_4a/output_0_split_3
2016-07-14 21:19:38.808 STDERR [INFO] I0714 21:19:38.807941 23892 net.cpp:399] inception_4b/pool -> inception_4b/pool
2016-07-14 21:19:38.808 STDERR [INFO] I0714 21:19:38.808233 23892 net.cpp:141] Setting up inception_4b/pool
2016-07-14 21:19:38.808 STDERR [INFO] I0714 21:19:38.808246 23892 net.cpp:148] Top shape: 10 512 14 14 (1003520)
2016-07-14 21:19:38.808 STDERR [INFO] I0714 21:19:38.808251 23892 net.cpp:156] Memory required for data: 402787840
2016-07-14 21:19:38.808 STDERR [INFO] I0714 21:19:38.808256 23892 layer_factory.hpp:77] Creating layer inception_4b/pool_proj
2016-07-14 21:19:38.808 STDERR [INFO] I0714 21:19:38.808280 23892 net.cpp:91] Creating Layer inception_4b/pool_proj
2016-07-14 21:19:38.808 STDERR [INFO] I0714 21:19:38.808286 23892 net.cpp:425] inception_4b/pool_proj <- inception_4b/pool
2016-07-14 21:19:38.808 STDERR [INFO] I0714 21:19:38.808296 23892 net.cpp:399] inception_4b/pool_proj -> inception_4b/pool_proj
2016-07-14 21:19:38.808 STDERR [INFO] I0714 21:19:38.808328 23888 net.cpp:141] Setting up inception_4b/5x5
2016-07-14 21:19:38.808 n.t.s.s.CVParticleSpout [INFO] [Timing] RequestID: 0 StreamID: home/peifeng/work/data/frame.320x240.jpg SequenceNr: 94 Leaving fetcher: 1468545578808 Size: 8702
2016-07-14 21:19:38.808 n.t.s.b.CVParticleBolt [INFO] [Timing] RequestID: 0 StreamID: home/peifeng/work/data/frame.320x240.jpg SequenceNr: 94 Entering scale: 1468545578808
2016-07-14 21:19:38.808 STDERR [INFO] I0714 21:19:38.808383 23888 net.cpp:148] Top shape: 10 64 14 14 (125440)
2016-07-14 21:19:38.808 STDERR [INFO] I0714 21:19:38.808394 23888 net.cpp:156] Memory required for data: 398272000
2016-07-14 21:19:38.808 STDERR [INFO] I0714 21:19:38.808425 23888 layer_factory.hpp:77] Creating layer inception_4b/relu_5x5
2016-07-14 21:19:38.808 STDERR [INFO] I0714 21:19:38.808456 23888 net.cpp:91] Creating Layer inception_4b/relu_5x5
2016-07-14 21:19:38.808 STDERR [INFO] I0714 21:19:38.808471 23888 net.cpp:425] inception_4b/relu_5x5 <- inception_4b/5x5
2016-07-14 21:19:38.808 STDERR [INFO] I0714 21:19:38.808490 23888 net.cpp:386] inception_4b/relu_5x5 -> inception_4b/5x5 (in-place)
2016-07-14 21:19:38.809 STDERR [INFO] I0714 21:19:38.809273 23888 net.cpp:141] Setting up inception_4b/relu_5x5
2016-07-14 21:19:38.809 STDERR [INFO] I0714 21:19:38.809303 23888 net.cpp:148] Top shape: 10 64 14 14 (125440)
2016-07-14 21:19:38.809 STDERR [INFO] I0714 21:19:38.809312 23888 net.cpp:156] Memory required for data: 398773760
2016-07-14 21:19:38.809 STDERR [INFO] I0714 21:19:38.809321 23888 layer_factory.hpp:77] Creating layer inception_4b/pool
2016-07-14 21:19:38.809 STDERR [INFO] I0714 21:19:38.809348 23888 net.cpp:91] Creating Layer inception_4b/pool
2016-07-14 21:19:38.809 STDERR [INFO] I0714 21:19:38.809361 23888 net.cpp:425] inception_4b/pool <- inception_4a/output_inception_4a/output_0_split_3
2016-07-14 21:19:38.810 STDERR [INFO] I0714 21:19:38.809381 23888 net.cpp:399] inception_4b/pool -> inception_4b/pool
2016-07-14 21:19:38.810 STDERR [INFO] I0714 21:19:38.809643 23888 net.cpp:141] Setting up inception_4b/pool
2016-07-14 21:19:38.810 STDERR [INFO] I0714 21:19:38.809662 23888 net.cpp:148] Top shape: 10 512 14 14 (1003520)
2016-07-14 21:19:38.810 STDERR [INFO] I0714 21:19:38.809670 23888 net.cpp:156] Memory required for data: 402787840
2016-07-14 21:19:38.810 STDERR [INFO] I0714 21:19:38.809679 23888 layer_factory.hpp:77] Creating layer inception_4b/pool_proj
2016-07-14 21:19:38.810 STDERR [INFO] I0714 21:19:38.809725 23888 net.cpp:91] Creating Layer inception_4b/pool_proj
2016-07-14 21:19:38.810 STDERR [INFO] I0714 21:19:38.809736 23888 net.cpp:425] inception_4b/pool_proj <- inception_4b/pool
2016-07-14 21:19:38.810 STDERR [INFO] I0714 21:19:38.809753 23888 net.cpp:399] inception_4b/pool_proj -> inception_4b/pool_proj
2016-07-14 21:19:38.812 n.t.s.s.CVParticleSpout [INFO] [Timing] RequestID: 0 StreamID: home/peifeng/work/data/frame.320x240.jpg SequenceNr: 95 Leaving fetcher: 1468545578812 Size: 8702
2016-07-14 21:19:38.812 n.t.s.b.CVParticleBolt [INFO] [Timing] RequestID: 0 StreamID: home/peifeng/work/data/frame.320x240.jpg SequenceNr: 95 Entering scale: 1468545578812
2016-07-14 21:19:38.813 n.t.s.b.CVParticleBolt [INFO] [Timing] RequestID: 0 StreamID: home/peifeng/work/data/frame.320x240.jpg SequenceNr: 93 Leaving scale: 1468545578813 Size: 3530
2016-07-14 21:19:38.814 STDERR [INFO] I0714 21:19:38.813978 23892 net.cpp:141] Setting up inception_4b/pool_proj
2016-07-14 21:19:38.814 STDERR [INFO] I0714 21:19:38.814015 23892 net.cpp:148] Top shape: 10 64 14 14 (125440)
2016-07-14 21:19:38.814 STDERR [INFO] I0714 21:19:38.814023 23892 net.cpp:156] Memory required for data: 403289600
2016-07-14 21:19:38.814 STDERR [INFO] I0714 21:19:38.814038 23892 layer_factory.hpp:77] Creating layer inception_4b/relu_pool_proj
2016-07-14 21:19:38.814 STDERR [INFO] I0714 21:19:38.814051 23892 net.cpp:91] Creating Layer inception_4b/relu_pool_proj
2016-07-14 21:19:38.814 STDERR [INFO] I0714 21:19:38.814059 23892 net.cpp:425] inception_4b/relu_pool_proj <- inception_4b/pool_proj
2016-07-14 21:19:38.814 STDERR [INFO] I0714 21:19:38.814069 23892 net.cpp:386] inception_4b/relu_pool_proj -> inception_4b/pool_proj (in-place)
2016-07-14 21:19:38.815 n.t.s.b.CVParticleBolt [INFO] [Timing] RequestID: 0 StreamID: home/peifeng/work/data/frame.320x240.jpg SequenceNr: 94 Leaving scale: 1468545578815 Size: 3530
2016-07-14 21:19:38.816 STDERR [INFO] I0714 21:19:38.816717 23892 net.cpp:141] Setting up inception_4b/relu_pool_proj
2016-07-14 21:19:38.816 STDERR [INFO] I0714 21:19:38.816738 23892 net.cpp:148] Top shape: 10 64 14 14 (125440)
2016-07-14 21:19:38.816 STDERR [INFO] I0714 21:19:38.816745 23892 net.cpp:156] Memory required for data: 403791360
2016-07-14 21:19:38.816 STDERR [INFO] I0714 21:19:38.816750 23892 layer_factory.hpp:77] Creating layer inception_4b/output
2016-07-14 21:19:38.817 STDERR [INFO] I0714 21:19:38.816763 23892 net.cpp:91] Creating Layer inception_4b/output
2016-07-14 21:19:38.817 STDERR [INFO] I0714 21:19:38.816771 23892 net.cpp:425] inception_4b/output <- inception_4b/1x1
2016-07-14 21:19:38.817 STDERR [INFO] I0714 21:19:38.816778 23892 net.cpp:425] inception_4b/output <- inception_4b/3x3
2016-07-14 21:19:38.817 STDERR [INFO] I0714 21:19:38.816786 23892 net.cpp:425] inception_4b/output <- inception_4b/5x5
2016-07-14 21:19:38.817 STDERR [INFO] I0714 21:19:38.816792 23892 net.cpp:425] inception_4b/output <- inception_4b/pool_proj
2016-07-14 21:19:38.817 STDERR [INFO] I0714 21:19:38.816798 23892 net.cpp:399] inception_4b/output -> inception_4b/output
2016-07-14 21:19:38.817 STDERR [INFO] I0714 21:19:38.817711 23892 net.cpp:141] Setting up inception_4b/output
2016-07-14 21:19:38.817 STDERR [INFO] I0714 21:19:38.817728 23892 net.cpp:148] Top shape: 10 512 14 14 (1003520)
2016-07-14 21:19:38.817 STDERR [INFO] I0714 21:19:38.817733 23892 net.cpp:156] Memory required for data: 407805440
2016-07-14 21:19:38.817 STDERR [INFO] I0714 21:19:38.817737 23892 layer_factory.hpp:77] Creating layer inception_4b/output_inception_4b/output_0_split
2016-07-14 21:19:38.817 STDERR [INFO] I0714 21:19:38.817749 23892 net.cpp:91] Creating Layer inception_4b/output_inception_4b/output_0_split
…
2016-07-14 21:19:38.818 STDERR [INFO] I0714 21:19:38.817777 23892 net.cpp:399] inception_4b/output_inception_4b/output_0_split -> inception_4b/output_inception_4b/output_0_split_1
2016-07-14 21:19:38.818 STDERR [INFO] I0714 21:19:38.817787 23892 net.cpp:399] inception_4b/output_inception_4b/output_0_split -> inception_4b/output_inception_4b/output_0_split_2
2016-07-14 21:19:38.818 STDERR [INFO] I0714 21:19:38.817796 23892 net.cpp:399] inception_4b/output_inception_4b/output_0_split -> inception_4b/output_inception_4b/output_0_split_3
2016-07-14 21:19:38.818 STDERR [INFO] I0714 21:19:38.818471 23892 net.cpp:141] Setting up inception_4b/output_inception_4b/output_0_split
2016-07-14 21:19:38.818 STDERR [INFO] I0714 21:19:38.818486 23892 net.cpp:148] Top shape: 10 512 14 14 (1003520)
2016-07-14 21:19:38.818 STDERR [INFO] I0714 21:19:38.818493 23892 net.cpp:148] Top shape: 10 512 14 14 (1003520)
2016-07-14 21:19:38.818 n.t.s.b.CVParticleBolt [INFO] [Timing] RequestID: 0 StreamID: home/peifeng/work/data/frame.320x240.jpg SequenceNr: 95 Leaving scale: 1468545578818 Size: 3530
2016-07-14 21:19:38.818 STDERR [INFO] I0714 21:19:38.818500 23892 net.cpp:148] Top shape: 10 512 14 14 (1003520)
2016-07-14 21:19:38.819 STDERR [INFO] I0714 21:19:38.818505 23892 net.cpp:148] Top shape: 10 512 14 14 (1003520)
2016-07-14 21:19:38.819 STDERR [INFO] I0714 21:19:38.818509 23892 net.cpp:156] Memory required for data: 423861760
2016-07-14 21:19:38.819 STDERR [INFO] I0714 21:19:38.818514 23892 layer_factory.hpp:77] Creating layer inception_4c/1x1
2016-07-14 21:19:38.819 STDERR [INFO] I0714 21:19:38.818533 23892 net.cpp:91] Creating Layer inception_4c/1x1
2016-07-14 21:19:38.819 STDERR [INFO] I0714 21:19:38.818541 23892 net.cpp:425] inception_4c/1x1 <- inception_4b/output_inception_4b/output_0_split_0
2016-07-14 21:19:38.819 STDERR [INFO] I0714 21:19:38.818553 23892 net.cpp:399] inception_4c/1x1 -> inception_4c/1x1
2016-07-14 21:19:38.819 STDERR [INFO] I0714 21:19:38.819869 23888 net.cpp:141] Setting up inception_4b/pool_proj
2016-07-14 21:19:38.820 STDERR [INFO] I0714 21:19:38.819905 23888 net.cpp:148] Top shape: 10 64 14 14 (125440)
2016-07-14 21:19:38.820 STDERR [INFO] I0714 21:19:38.819913 23888 net.cpp:156] Memory required for data: 403289600
2016-07-14 21:19:38.820 STDERR [INFO] I0714 21:19:38.819928 23888 layer_factory.hpp:77] Creating layer inception_4b/relu_pool_proj
2016-07-14 21:19:38.820 STDERR [INFO] I0714 21:19:38.819949 23888 net.cpp:91] Creating Layer inception_4b/relu_pool_proj
2016-07-14 21:19:38.820 STDERR [INFO] I0714 21:19:38.819960 23888 net.cpp:425] inception_4b/relu_pool_proj <- inception_4b/pool_proj
2016-07-14 21:19:38.820 STDERR [INFO] I0714 21:19:38.819973 23888 net.cpp:386] inception_4b/relu_pool_proj -> inception_4b/pool_proj (in-place)
2016-07-14 21:19:38.821 STDERR [INFO] I0714 21:19:38.821363 23888 net.cpp:141] Setting up inception_4b/relu_pool_proj
2016-07-14 21:19:38.821 STDERR [INFO] I0714 21:19:38.821389 23888 net.cpp:148] Top shape: 10 64 14 14 (125440)
2016-07-14 21:19:38.821 STDERR [INFO] I0714 21:19:38.821398 23888 net.cpp:156] Memory required for data: 403791360
2016-07-14 21:19:38.821 STDERR [INFO] I0714 21:19:38.821419 23888 layer_factory.hpp:77] Creating layer inception_4b/output
2016-07-14 21:19:38.821 STDERR [INFO] I0714 21:19:38.821444 23888 net.cpp:91] Creating Layer inception_4b/output
2016-07-14 21:19:38.821 STDERR [INFO] I0714 21:19:38.821454 23888 net.cpp:425] inception_4b/output <- inception_4b/1x1
2016-07-14 21:19:38.821 STDERR [INFO] I0714 21:19:38.821465 23888 net.cpp:425] inception_4b/output <- inception_4b/3x3
2016-07-14 21:19:38.822 STDERR [INFO] I0714 21:19:38.821475 23888 net.cpp:425] inception_4b/output <- inception_4b/5x5
2016-07-14 21:19:38.822 STDERR [INFO] I0714 21:19:38.821483 23888 net.cpp:425] inception_4b/output <- inception_4b/pool_proj
2016-07-14 21:19:38.822 STDERR [INFO] I0714 21:19:38.821496 23888 net.cpp:399] inception_4b/output -> inception_4b/output
2016-07-14 21:19:38.822 STDERR [INFO] I0714 21:19:38.821660 23888 net.cpp:141] Setting up inception_4b/output
2016-07-14 21:19:38.822 STDERR [INFO] I0714 21:19:38.821677 23888 net.cpp:148] Top shape: 10 512 14 14 (1003520)
2016-07-14 21:19:38.822 STDERR [INFO] I0714 21:19:38.821686 23888 net.cpp:156] Memory required for data: 407805440
2016-07-14 21:19:38.822 STDERR [INFO] I0714 21:19:38.821693 23888 layer_factory.hpp:77] Creating layer inception_4b/output_inception_4b/output_0_split
2016-07-14 21:19:38.822 STDERR [INFO] I0714 21:19:38.821707 23888 net.cpp:91] Creating Layer inception_4b/output_inception_4b/output_0_split
…
2016-07-14 21:19:38.822 STDERR [INFO] I0714 21:19:38.821748 23888 net.cpp:399] inception_4b/output_inception_4b/output_0_split -> inception_4b/output_inception_4b/output_0_split_1
2016-07-14 21:19:38.822 STDERR [INFO] I0714 21:19:38.821763 23888 net.cpp:399] inception_4b/output_inception_4b/output_0_split -> inception_4b/output_inception_4b/output_0_split_2
2016-07-14 21:19:38.822 STDERR [INFO] I0714 21:19:38.821776 23888 net.cpp:399] inception_4b/output_inception_4b/output_0_split -> inception_4b/output_inception_4b/output_0_split_3
2016-07-14 21:19:38.824 STDERR [INFO] I0714 21:19:38.823959 23888 net.cpp:141] Setting up inception_4b/output_inception_4b/output_0_split
2016-07-14 21:19:38.824 STDERR [INFO] I0714 21:19:38.823984 23888 net.cpp:148] Top shape: 10 512 14 14 (1003520)
2016-07-14 21:19:38.824 STDERR [INFO] I0714 21:19:38.823994 23888 net.cpp:148] Top shape: 10 512 14 14 (1003520)
2016-07-14 21:19:38.824 STDERR [INFO] I0714 21:19:38.824003 23888 net.cpp:148] Top shape: 10 512 14 14 (1003520)
2016-07-14 21:19:38.824 STDERR [INFO] I0714 21:19:38.824012 23888 net.cpp:148] Top shape: 10 512 14 14 (1003520)
2016-07-14 21:19:38.824 STDERR [INFO] I0714 21:19:38.824018 23888 net.cpp:156] Memory required for data: 423861760
2016-07-14 21:19:38.824 STDERR [INFO] I0714 21:19:38.824028 23888 layer_factory.hpp:77] Creating layer inception_4c/1x1
2016-07-14 21:19:38.824 STDERR [INFO] I0714 21:19:38.824056 23888 net.cpp:91] Creating Layer inception_4c/1x1
2016-07-14 21:19:38.824 STDERR [INFO] I0714 21:19:38.824066 23888 net.cpp:425] inception_4c/1x1 <- inception_4b/output_inception_4b/output_0_split_0
2016-07-14 21:19:38.824 STDERR [INFO] I0714 21:19:38.824085 23888 net.cpp:399] inception_4c/1x1 -> inception_4c/1x1
2016-07-14 21:19:38.824 STDERR [INFO] I0714 21:19:38.824837 23892 net.cpp:141] Setting up inception_4c/1x1
2016-07-14 21:19:38.825 STDERR [INFO] I0714 21:19:38.824862 23892 net.cpp:148] Top shape: 10 128 14 14 (250880)
2016-07-14 21:19:38.825 STDERR [INFO] I0714 21:19:38.824868 23892 net.cpp:156] Memory required for data: 424865280
2016-07-14 21:19:38.825 STDERR [INFO] I0714 21:19:38.824880 23892 layer_factory.hpp:77] Creating layer inception_4c/relu_1x1
2016-07-14 21:19:38.825 STDERR [INFO] I0714 21:19:38.824892 23892 net.cpp:91] Creating Layer inception_4c/relu_1x1
2016-07-14 21:19:38.825 STDERR [INFO] I0714 21:19:38.824898 23892 net.cpp:425] inception_4c/relu_1x1 <- inception_4c/1x1
2016-07-14 21:19:38.825 STDERR [INFO] I0714 21:19:38.824911 23892 net.cpp:386] inception_4c/relu_1x1 -> inception_4c/1x1 (in-place)
2016-07-14 21:19:38.825 STDERR [INFO] I0714 21:19:38.825423 23892 net.cpp:141] Setting up inception_4c/relu_1x1
2016-07-14 21:19:38.825 STDERR [INFO] I0714 21:19:38.825441 23892 net.cpp:148] Top shape: 10 128 14 14 (250880)
2016-07-14 21:19:38.825 STDERR [INFO] I0714 21:19:38.825446 23892 net.cpp:156] Memory required for data: 425868800
2016-07-14 21:19:38.825 STDERR [INFO] I0714 21:19:38.825453 23892 layer_factory.hpp:77] Creating layer inception_4c/3x3_reduce
2016-07-14 21:19:38.825 STDERR [INFO] I0714 21:19:38.825474 23892 net.cpp:91] Creating Layer inception_4c/3x3_reduce
2016-07-14 21:19:38.825 STDERR [INFO] I0714 21:19:38.825480 23892 net.cpp:425] inception_4c/3x3_reduce <- inception_4b/output_inception_4b/output_0_split_1
2016-07-14 21:19:38.825 STDERR [INFO] I0714 21:19:38.825490 23892 net.cpp:399] inception_4c/3x3_reduce -> inception_4c/3x3_reduce
2016-07-14 21:19:38.830 STDERR [INFO] I0714 21:19:38.830716 23892 net.cpp:141] Setting up inception_4c/3x3_reduce
2016-07-14 21:19:38.830 STDERR [INFO] I0714 21:19:38.830735 23892 net.cpp:148] Top shape: 10 128 14 14 (250880)
2016-07-14 21:19:38.830 STDERR [INFO] I0714 21:19:38.830741 23892 net.cpp:156] Memory required for data: 426872320
2016-07-14 21:19:38.830 STDERR [INFO] I0714 21:19:38.830754 23892 layer_factory.hpp:77] Creating layer inception_4c/relu_3x3_reduce
2016-07-14 21:19:38.831 STDERR [INFO] I0714 21:19:38.830763 23892 net.cpp:91] Creating Layer inception_4c/relu_3x3_reduce
2016-07-14 21:19:38.831 STDERR [INFO] I0714 21:19:38.830770 23892 net.cpp:425] inception_4c/relu_3x3_reduce <- inception_4c/3x3_reduce
2016-07-14 21:19:38.831 STDERR [INFO] I0714 21:19:38.830781 23892 net.cpp:386] inception_4c/relu_3x3_reduce -> inception_4c/3x3_reduce (in-place)
2016-07-14 21:19:38.831 STDERR [INFO] I0714 21:19:38.831295 23892 net.cpp:141] Setting up inception_4c/relu_3x3_reduce
2016-07-14 21:19:38.831 STDERR [INFO] I0714 21:19:38.831310 23892 net.cpp:148] Top shape: 10 128 14 14 (250880)
2016-07-14 21:19:38.831 STDERR [INFO] I0714 21:19:38.831315 23892 net.cpp:156] Memory required for data: 427875840
2016-07-14 21:19:38.831 STDERR [INFO] I0714 21:19:38.831322 23892 layer_factory.hpp:77] Creating layer inception_4c/3x3
2016-07-14 21:19:38.831 STDERR [INFO] I0714 21:19:38.831343 23892 net.cpp:91] Creating Layer inception_4c/3x3
2016-07-14 21:19:38.831 STDERR [INFO] I0714 21:19:38.831351 23892 net.cpp:425] inception_4c/3x3 <- inception_4c/3x3_reduce
2016-07-14 21:19:38.831 STDERR [INFO] I0714 21:19:38.831359 23892 net.cpp:399] inception_4c/3x3 -> inception_4c/3x3
2016-07-14 21:19:38.831 STDERR [INFO] I0714 21:19:38.831379 23888 net.cpp:141] Setting up inception_4c/1x1
2016-07-14 21:19:38.831 STDERR [INFO] I0714 21:19:38.831403 23888 net.cpp:148] Top shape: 10 128 14 14 (250880)
2016-07-14 21:19:38.831 STDERR [INFO] I0714 21:19:38.831411 23888 net.cpp:156] Memory required for data: 424865280
2016-07-14 21:19:38.831 STDERR [INFO] I0714 21:19:38.831425 23888 layer_factory.hpp:77] Creating layer inception_4c/relu_1x1
2016-07-14 21:19:38.831 STDERR [INFO] I0714 21:19:38.831441 23888 net.cpp:91] Creating Layer inception_4c/relu_1x1
2016-07-14 21:19:38.831 STDERR [INFO] I0714 21:19:38.831450 23888 net.cpp:425] inception_4c/relu_1x1 <- inception_4c/1x1
2016-07-14 21:19:38.831 STDERR [INFO] I0714 21:19:38.831465 23888 net.cpp:386] inception_4c/relu_1x1 -> inception_4c/1x1 (in-place)
2016-07-14 21:19:38.832 STDERR [INFO] I0714 21:19:38.832142 23888 net.cpp:141] Setting up inception_4c/relu_1x1
2016-07-14 21:19:38.832 STDERR [INFO] I0714 21:19:38.832166 23888 net.cpp:148] Top shape: 10 128 14 14 (250880)
2016-07-14 21:19:38.832 STDERR [INFO] I0714 21:19:38.832175 23888 net.cpp:156] Memory required for data: 425868800
2016-07-14 21:19:38.832 STDERR [INFO] I0714 21:19:38.832181 23888 layer_factory.hpp:77] Creating layer inception_4c/3x3_reduce
2016-07-14 21:19:38.832 STDERR [INFO] I0714 21:19:38.832209 23888 net.cpp:91] Creating Layer inception_4c/3x3_reduce
2016-07-14 21:19:38.832 STDERR [INFO] I0714 21:19:38.832219 23888 net.cpp:425] inception_4c/3x3_reduce <- inception_4b/output_inception_4b/output_0_split_1
2016-07-14 21:19:38.832 STDERR [INFO] I0714 21:19:38.832233 23888 net.cpp:399] inception_4c/3x3_reduce -> inception_4c/3x3_reduce
2016-07-14 21:19:38.839 STDERR [INFO] I0714 21:19:38.839879 23888 net.cpp:141] Setting up inception_4c/3x3_reduce
2016-07-14 21:19:38.840 STDERR [INFO] I0714 21:19:38.839905 23888 net.cpp:148] Top shape: 10 128 14 14 (250880)
2016-07-14 21:19:38.840 STDERR [INFO] I0714 21:19:38.839913 23888 net.cpp:156] Memory required for data: 426872320
2016-07-14 21:19:38.840 STDERR [INFO] I0714 21:19:38.839927 23888 layer_factory.hpp:77] Creating layer inception_4c/relu_3x3_reduce
2016-07-14 21:19:38.840 STDERR [INFO] I0714 21:19:38.839946 23888 net.cpp:91] Creating Layer inception_4c/relu_3x3_reduce
2016-07-14 21:19:38.840 STDERR [INFO] I0714 21:19:38.839956 23888 net.cpp:425] inception_4c/relu_3x3_reduce <- inception_4c/3x3_reduce
2016-07-14 21:19:38.840 STDERR [INFO] I0714 21:19:38.839973 23888 net.cpp:386] inception_4c/relu_3x3_reduce -> inception_4c/3x3_reduce (in-place)
2016-07-14 21:19:38.840 STDERR [INFO] I0714 21:19:38.840566 23892 net.cpp:141] Setting up inception_4c/3x3
2016-07-14 21:19:38.840 STDERR [INFO] I0714 21:19:38.840596 23892 net.cpp:148] Top shape: 10 256 14 14 (501760)
2016-07-14 21:19:38.840 STDERR [INFO] I0714 21:19:38.840598 23888 net.cpp:141] Setting up inception_4c/relu_3x3_reduce
2016-07-14 21:19:38.840 STDERR [INFO] I0714 21:19:38.840605 23892 net.cpp:156] Memory required for data: 429882880
2016-07-14 21:19:38.840 STDERR [INFO] I0714 21:19:38.840622 23888 net.cpp:148] Top shape: 10 128 14 14 (250880)
2016-07-14 21:19:38.840 STDERR [INFO] I0714 21:19:38.840631 23888 net.cpp:156] Memory required for data: 427875840
2016-07-14 21:19:38.840 STDERR [INFO] I0714 21:19:38.840632 23892 layer_factory.hpp:77] Creating layer inception_4c/relu_3x3
2016-07-14 21:19:38.841 STDERR [INFO] I0714 21:19:38.840639 23888 layer_factory.hpp:77] Creating layer inception_4c/3x3
2016-07-14 21:19:38.841 STDERR [INFO] I0714 21:19:38.840648 23892 net.cpp:91] Creating Layer inception_4c/relu_3x3
2016-07-14 21:19:38.841 STDERR [INFO] I0714 21:19:38.840656 23892 net.cpp:425] inception_4c/relu_3x3 <- inception_4c/3x3
2016-07-14 21:19:38.841 STDERR [INFO] I0714 21:19:38.840663 23892 net.cpp:386] inception_4c/relu_3x3 -> inception_4c/3x3 (in-place)
2016-07-14 21:19:38.841 STDERR [INFO] I0714 21:19:38.840663 23888 net.cpp:91] Creating Layer inception_4c/3x3
2016-07-14 21:19:38.841 STDERR [INFO] I0714 21:19:38.840687 23888 net.cpp:425] inception_4c/3x3 <- inception_4c/3x3_reduce
2016-07-14 21:19:38.841 STDERR [INFO] I0714 21:19:38.840709 23888 net.cpp:399] inception_4c/3x3 -> inception_4c/3x3
2016-07-14 21:19:38.841 STDERR [INFO] I0714 21:19:38.841691 23892 net.cpp:141] Setting up inception_4c/relu_3x3
2016-07-14 21:19:38.841 STDERR [INFO] I0714 21:19:38.841712 23892 net.cpp:148] Top shape: 10 256 14 14 (501760)
2016-07-14 21:19:38.841 STDERR [INFO] I0714 21:19:38.841718 23892 net.cpp:156] Memory required for data: 431889920
2016-07-14 21:19:38.841 STDERR [INFO] I0714 21:19:38.841724 23892 layer_factory.hpp:77] Creating layer inception_4c/5x5_reduce
2016-07-14 21:19:38.841 STDERR [INFO] I0714 21:19:38.841742 23892 net.cpp:91] Creating Layer inception_4c/5x5_reduce
2016-07-14 21:19:38.842 STDERR [INFO] I0714 21:19:38.841750 23892 net.cpp:425] inception_4c/5x5_reduce <- inception_4b/output_inception_4b/output_0_split_2
2016-07-14 21:19:38.842 STDERR [INFO] I0714 21:19:38.841760 23892 net.cpp:399] inception_4c/5x5_reduce -> inception_4c/5x5_reduce
2016-07-14 21:19:38.847 STDERR [INFO] I0714 21:19:38.847642 23892 net.cpp:141] Setting up inception_4c/5x5_reduce
2016-07-14 21:19:38.847 STDERR [INFO] I0714 21:19:38.847666 23892 net.cpp:148] Top shape: 10 24 14 14 (47040)
2016-07-14 21:19:38.847 STDERR [INFO] I0714 21:19:38.847671 23892 net.cpp:156] Memory required for data: 432078080
2016-07-14 21:19:38.847 STDERR [INFO] I0714 21:19:38.847682 23892 layer_factory.hpp:77] Creating layer inception_4c/relu_5x5_reduce
2016-07-14 21:19:38.847 STDERR [INFO] I0714 21:19:38.847694 23892 net.cpp:91] Creating Layer inception_4c/relu_5x5_reduce
2016-07-14 21:19:38.848 STDERR [INFO] I0714 21:19:38.847702 23892 net.cpp:425] inception_4c/relu_5x5_reduce <- inception_4c/5x5_reduce
2016-07-14 21:19:38.848 STDERR [INFO] I0714 21:19:38.847714 23892 net.cpp:386] inception_4c/relu_5x5_reduce -> inception_4c/5x5_reduce (in-place)
2016-07-14 21:19:38.848 STDERR [INFO] I0714 21:19:38.848002 23892 net.cpp:141] Setting up inception_4c/relu_5x5_reduce
2016-07-14 21:19:38.848 STDERR [INFO] I0714 21:19:38.848018 23892 net.cpp:148] Top shape: 10 24 14 14 (47040)
2016-07-14 21:19:38.848 STDERR [INFO] I0714 21:19:38.848023 23892 net.cpp:156] Memory required for data: 432266240
2016-07-14 21:19:38.848 STDERR [INFO] I0714 21:19:38.848031 23892 layer_factory.hpp:77] Creating layer inception_4c/5x5
2016-07-14 21:19:38.848 STDERR [INFO] I0714 21:19:38.848047 23892 net.cpp:91] Creating Layer inception_4c/5x5
2016-07-14 21:19:38.848 STDERR [INFO] I0714 21:19:38.848055 23892 net.cpp:425] inception_4c/5x5 <- inception_4c/5x5_reduce
2016-07-14 21:19:38.848 STDERR [INFO] I0714 21:19:38.848065 23892 net.cpp:399] inception_4c/5x5 -> inception_4c/5x5
2016-07-14 21:19:38.852 STDERR [INFO] I0714 21:19:38.852756 23888 net.cpp:141] Setting up inception_4c/3x3
2016-07-14 21:19:38.853 STDERR [INFO] I0714 21:19:38.852787 23888 net.cpp:148] Top shape: 10 256 14 14 (501760)
2016-07-14 21:19:38.853 STDERR [INFO] I0714 21:19:38.852794 23888 net.cpp:156] Memory required for data: 429882880
2016-07-14 21:19:38.853 STDERR [INFO] I0714 21:19:38.852820 23888 layer_factory.hpp:77] Creating layer inception_4c/relu_3x3
2016-07-14 21:19:38.853 STDERR [INFO] I0714 21:19:38.852834 23888 net.cpp:91] Creating Layer inception_4c/relu_3x3
2016-07-14 21:19:38.853 STDERR [INFO] I0714 21:19:38.852843 23888 net.cpp:425] inception_4c/relu_3x3 <- inception_4c/3x3
2016-07-14 21:19:38.853 STDERR [INFO] I0714 21:19:38.852860 23888 net.cpp:386] inception_4c/relu_3x3 -> inception_4c/3x3 (in-place)
2016-07-14 21:19:38.854 STDERR [INFO] I0714 21:19:38.854262 23888 net.cpp:141] Setting up inception_4c/relu_3x3
2016-07-14 21:19:38.854 STDERR [INFO] I0714 21:19:38.854285 23888 net.cpp:148] Top shape: 10 256 14 14 (501760)
2016-07-14 21:19:38.854 STDERR [INFO] I0714 21:19:38.854292 23888 net.cpp:156] Memory required for data: 431889920
2016-07-14 21:19:38.854 STDERR [INFO] I0714 21:19:38.854300 23888 layer_factory.hpp:77] Creating layer inception_4c/5x5_reduce
2016-07-14 21:19:38.854 STDERR [INFO] I0714 21:19:38.854327 23888 net.cpp:91] Creating Layer inception_4c/5x5_reduce
2016-07-14 21:19:38.854 STDERR [INFO] I0714 21:19:38.854336 23888 net.cpp:425] inception_4c/5x5_reduce <- inception_4b/output_inception_4b/output_0_split_2
2016-07-14 21:19:38.854 STDERR [INFO] I0714 21:19:38.854353 23888 net.cpp:399] inception_4c/5x5_reduce -> inception_4c/5x5_reduce
2016-07-14 21:19:38.855 STDERR [INFO] I0714 21:19:38.855808 23892 net.cpp:141] Setting up inception_4c/5x5
2016-07-14 21:19:38.856 STDERR [INFO] I0714 21:19:38.855829 23892 net.cpp:148] Top shape: 10 64 14 14 (125440)
2016-07-14 21:19:38.856 STDERR [INFO] I0714 21:19:38.855835 23892 net.cpp:156] Memory required for data: 432768000
2016-07-14 21:19:38.856 STDERR [INFO] I0714 21:19:38.855845 23892 layer_factory.hpp:77] Creating layer inception_4c/relu_5x5
2016-07-14 21:19:38.856 STDERR [INFO] I0714 21:19:38.855854 23892 net.cpp:91] Creating Layer inception_4c/relu_5x5
2016-07-14 21:19:38.856 STDERR [INFO] I0714 21:19:38.855861 23892 net.cpp:425] inception_4c/relu_5x5 <- inception_4c/5x5
2016-07-14 21:19:38.856 STDERR [INFO] I0714 21:19:38.855870 23892 net.cpp:386] inception_4c/relu_5x5 -> inception_4c/5x5 (in-place)
2016-07-14 21:19:38.856 STDERR [INFO] I0714 21:19:38.856348 23892 net.cpp:141] Setting up inception_4c/relu_5x5
2016-07-14 21:19:38.856 STDERR [INFO] I0714 21:19:38.856364 23892 net.cpp:148] Top shape: 10 64 14 14 (125440)
2016-07-14 21:19:38.856 STDERR [INFO] I0714 21:19:38.856369 23892 net.cpp:156] Memory required for data: 433269760
2016-07-14 21:19:38.856 STDERR [INFO] I0714 21:19:38.856375 23892 layer_factory.hpp:77] Creating layer inception_4c/pool
2016-07-14 21:19:38.856 STDERR [INFO] I0714 21:19:38.856389 23892 net.cpp:91] Creating Layer inception_4c/pool
2016-07-14 21:19:38.856 STDERR [INFO] I0714 21:19:38.856395 23892 net.cpp:425] inception_4c/pool <- inception_4b/output_inception_4b/output_0_split_3
2016-07-14 21:19:38.856 STDERR [INFO] I0714 21:19:38.856405 23892 net.cpp:399] inception_4c/pool -> inception_4c/pool
2016-07-14 21:19:38.856 STDERR [INFO] I0714 21:19:38.856724 23892 net.cpp:141] Setting up inception_4c/pool
2016-07-14 21:19:38.856 STDERR [INFO] I0714 21:19:38.856739 23892 net.cpp:148] Top shape: 10 512 14 14 (1003520)
2016-07-14 21:19:38.856 STDERR [INFO] I0714 21:19:38.856744 23892 net.cpp:156] Memory required for data: 437283840
2016-07-14 21:19:38.856 STDERR [INFO] I0714 21:19:38.856748 23892 layer_factory.hpp:77] Creating layer inception_4c/pool_proj
2016-07-14 21:19:38.856 STDERR [INFO] I0714 21:19:38.856770 23892 net.cpp:91] Creating Layer inception_4c/pool_proj
2016-07-14 21:19:38.856 STDERR [INFO] I0714 21:19:38.856775 23892 net.cpp:425] inception_4c/pool_proj <- inception_4c/pool
2016-07-14 21:19:38.857 STDERR [INFO] I0714 21:19:38.856789 23892 net.cpp:399] inception_4c/pool_proj -> inception_4c/pool_proj
2016-07-14 21:19:38.861 STDERR [INFO] I0714 21:19:38.861645 23888 net.cpp:141] Setting up inception_4c/5x5_reduce
2016-07-14 21:19:38.861 STDERR [INFO] I0714 21:19:38.861673 23888 net.cpp:148] Top shape: 10 24 14 14 (47040)
2016-07-14 21:19:38.861 STDERR [INFO] I0714 21:19:38.861680 23888 net.cpp:156] Memory required for data: 432078080
2016-07-14 21:19:38.862 STDERR [INFO] I0714 21:19:38.861693 23888 layer_factory.hpp:77] Creating layer inception_4c/relu_5x5_reduce
2016-07-14 21:19:38.862 STDERR [INFO] I0714 21:19:38.861711 23888 net.cpp:91] Creating Layer inception_4c/relu_5x5_reduce
2016-07-14 21:19:38.862 STDERR [INFO] I0714 21:19:38.861719 23888 net.cpp:425] inception_4c/relu_5x5_reduce <- inception_4c/5x5_reduce
2016-07-14 21:19:38.862 STDERR [INFO] I0714 21:19:38.861729 23888 net.cpp:386] inception_4c/relu_5x5_reduce -> inception_4c/5x5_reduce (in-place)
2016-07-14 21:19:38.862 STDERR [INFO] I0714 21:19:38.862152 23888 net.cpp:141] Setting up inception_4c/relu_5x5_reduce
2016-07-14 21:19:38.862 STDERR [INFO] I0714 21:19:38.862169 23888 net.cpp:148] Top shape: 10 24 14 14 (47040)
2016-07-14 21:19:38.862 STDERR [INFO] I0714 21:19:38.862174 23888 net.cpp:156] Memory required for data: 432266240
2016-07-14 21:19:38.862 STDERR [INFO] I0714 21:19:38.862181 23888 layer_factory.hpp:77] Creating layer inception_4c/5x5
2016-07-14 21:19:38.862 STDERR [INFO] I0714 21:19:38.862205 23888 net.cpp:91] Creating Layer inception_4c/5x5
2016-07-14 21:19:38.862 STDERR [INFO] I0714 21:19:38.862215 23888 net.cpp:425] inception_4c/5x5 <- inception_4c/5x5_reduce
2016-07-14 21:19:38.862 STDERR [INFO] I0714 21:19:38.862229 23888 net.cpp:399] inception_4c/5x5 -> inception_4c/5x5
2016-07-14 21:19:38.864 STDERR [INFO] I0714 21:19:38.864806 23892 net.cpp:141] Setting up inception_4c/pool_proj
2016-07-14 21:19:38.865 STDERR [INFO] I0714 21:19:38.864830 23892 net.cpp:148] Top shape: 10 64 14 14 (125440)
2016-07-14 21:19:38.865 STDERR [INFO] I0714 21:19:38.864835 23892 net.cpp:156] Memory required for data: 437785600
2016-07-14 21:19:38.865 STDERR [INFO] I0714 21:19:38.864871 23892 layer_factory.hpp:77] Creating layer inception_4c/relu_pool_proj
2016-07-14 21:19:38.865 STDERR [INFO] I0714 21:19:38.864882 23892 net.cpp:91] Creating Layer inception_4c/relu_pool_proj
2016-07-14 21:19:38.865 STDERR [INFO] I0714 21:19:38.864888 23892 net.cpp:425] inception_4c/relu_pool_proj <- inception_4c/pool_proj
2016-07-14 21:19:38.865 STDERR [INFO] I0714 21:19:38.864897 23892 net.cpp:386] inception_4c/relu_pool_proj -> inception_4c/pool_proj (in-place)
2016-07-14 21:19:38.865 STDERR [INFO] I0714 21:19:38.865918 23892 net.cpp:141] Setting up inception_4c/relu_pool_proj
2016-07-14 21:19:38.866 STDERR [INFO] I0714 21:19:38.865936 23892 net.cpp:148] Top shape: 10 64 14 14 (125440)
2016-07-14 21:19:38.866 STDERR [INFO] I0714 21:19:38.865942 23892 net.cpp:156] Memory required for data: 438287360
2016-07-14 21:19:38.866 STDERR [INFO] I0714 21:19:38.865947 23892 layer_factory.hpp:77] Creating layer inception_4c/output
2016-07-14 21:19:38.866 STDERR [INFO] I0714 21:19:38.865960 23892 net.cpp:91] Creating Layer inception_4c/output
2016-07-14 21:19:38.866 STDERR [INFO] I0714 21:19:38.865967 23892 net.cpp:425] inception_4c/output <- inception_4c/1x1
2016-07-14 21:19:38.866 STDERR [INFO] I0714 21:19:38.865974 23892 net.cpp:425] inception_4c/output <- inception_4c/3x3
2016-07-14 21:19:38.866 STDERR [INFO] I0714 21:19:38.865981 23892 net.cpp:425] inception_4c/output <- inception_4c/5x5
2016-07-14 21:19:38.866 STDERR [INFO] I0714 21:19:38.865988 23892 net.cpp:425] inception_4c/output <- inception_4c/pool_proj
2016-07-14 21:19:38.866 STDERR [INFO] I0714 21:19:38.865994 23892 net.cpp:399] inception_4c/output -> inception_4c/output
2016-07-14 21:19:38.866 STDERR [INFO] I0714 21:19:38.866909 23892 net.cpp:141] Setting up inception_4c/output
2016-07-14 21:19:38.867 STDERR [INFO] I0714 21:19:38.866925 23892 net.cpp:148] Top shape: 10 512 14 14 (1003520)
2016-07-14 21:19:38.867 STDERR [INFO] I0714 21:19:38.866928 23892 net.cpp:156] Memory required for data: 442301440
2016-07-14 21:19:38.867 STDERR [INFO] I0714 21:19:38.866935 23892 layer_factory.hpp:77] Creating layer inception_4c/output_inception_4c/output_0_split
2016-07-14 21:19:38.867 STDERR [INFO] I0714 21:19:38.866952 23892 net.cpp:91] Creating Layer inception_4c/output_inception_4c/output_0_split
…
2016-07-14 21:19:38.867 STDERR [INFO] I0714 21:19:38.866981 23892 net.cpp:399] inception_4c/output_inception_4c/output_0_split -> inception_4c/output_inception_4c/output_0_split_1
2016-07-14 21:19:38.867 STDERR [INFO] I0714 21:19:38.866991 23892 net.cpp:399] inception_4c/output_inception_4c/output_0_split -> inception_4c/output_inception_4c/output_0_split_2
2016-07-14 21:19:38.867 STDERR [INFO] I0714 21:19:38.867000 23892 net.cpp:399] inception_4c/output_inception_4c/output_0_split -> inception_4c/output_inception_4c/output_0_split_3
2016-07-14 21:19:38.868 STDERR [INFO] I0714 21:19:38.868414 23892 net.cpp:141] Setting up inception_4c/output_inception_4c/output_0_split
2016-07-14 21:19:38.868 STDERR [INFO] I0714 21:19:38.868430 23892 net.cpp:148] Top shape: 10 512 14 14 (1003520)
2016-07-14 21:19:38.868 STDERR [INFO] I0714 21:19:38.868438 23892 net.cpp:148] Top shape: 10 512 14 14 (1003520)
2016-07-14 21:19:38.868 STDERR [INFO] I0714 21:19:38.868443 23892 net.cpp:148] Top shape: 10 512 14 14 (1003520)
2016-07-14 21:19:38.868 STDERR [INFO] I0714 21:19:38.868449 23892 net.cpp:148] Top shape: 10 512 14 14 (1003520)
2016-07-14 21:19:38.868 STDERR [INFO] I0714 21:19:38.868453 23892 net.cpp:156] Memory required for data: 458357760
2016-07-14 21:19:38.868 STDERR [INFO] I0714 21:19:38.868459 23892 layer_factory.hpp:77] Creating layer inception_4d/1x1
2016-07-14 21:19:38.868 STDERR [INFO] I0714 21:19:38.868479 23892 net.cpp:91] Creating Layer inception_4d/1x1
2016-07-14 21:19:38.868 STDERR [INFO] I0714 21:19:38.868486 23892 net.cpp:425] inception_4d/1x1 <- inception_4c/output_inception_4c/output_0_split_0
2016-07-14 21:19:38.868 STDERR [INFO] I0714 21:19:38.868500 23892 net.cpp:399] inception_4d/1x1 -> inception_4d/1x1
2016-07-14 21:19:38.870 STDERR [INFO] I0714 21:19:38.870465 23888 net.cpp:141] Setting up inception_4c/5x5
2016-07-14 21:19:38.871 STDERR [INFO] I0714 21:19:38.870491 23888 net.cpp:148] Top shape: 10 64 14 14 (125440)
2016-07-14 21:19:38.871 STDERR [INFO] I0714 21:19:38.870497 23888 net.cpp:156] Memory required for data: 432768000
2016-07-14 21:19:38.871 STDERR [INFO] I0714 21:19:38.870512 23888 layer_factory.hpp:77] Creating layer inception_4c/relu_5x5
2016-07-14 21:19:38.871 STDERR [INFO] I0714 21:19:38.870525 23888 net.cpp:91] Creating Layer inception_4c/relu_5x5
2016-07-14 21:19:38.871 STDERR [INFO] I0714 21:19:38.870545 23888 net.cpp:425] inception_4c/relu_5x5 <- inception_4c/5x5
2016-07-14 21:19:38.871 STDERR [INFO] I0714 21:19:38.870559 23888 net.cpp:386] inception_4c/relu_5x5 -> inception_4c/5x5 (in-place)
2016-07-14 21:19:38.871 STDERR [INFO] I0714 21:19:38.870977 23888 net.cpp:141] Setting up inception_4c/relu_5x5
2016-07-14 21:19:38.871 STDERR [INFO] I0714 21:19:38.870995 23888 net.cpp:148] Top shape: 10 64 14 14 (125440)
2016-07-14 21:19:38.871 STDERR [INFO] I0714 21:19:38.871001 23888 net.cpp:156] Memory required for data: 433269760
2016-07-14 21:19:38.871 STDERR [INFO] I0714 21:19:38.871006 23888 layer_factory.hpp:77] Creating layer inception_4c/pool
2016-07-14 21:19:38.871 STDERR [INFO] I0714 21:19:38.871016 23888 net.cpp:91] Creating Layer inception_4c/pool
2016-07-14 21:19:38.871 STDERR [INFO] I0714 21:19:38.871022 23888 net.cpp:425] inception_4c/pool <- inception_4b/output_inception_4b/output_0_split_3
2016-07-14 21:19:38.871 STDERR [INFO] I0714 21:19:38.871031 23888 net.cpp:399] inception_4c/pool -> inception_4c/pool
2016-07-14 21:19:38.871 STDERR [INFO] I0714 21:19:38.871330 23888 net.cpp:141] Setting up inception_4c/pool
2016-07-14 21:19:38.871 STDERR [INFO] I0714 21:19:38.871345 23888 net.cpp:148] Top shape: 10 512 14 14 (1003520)
2016-07-14 21:19:38.871 STDERR [INFO] I0714 21:19:38.871351 23888 net.cpp:156] Memory required for data: 437283840
2016-07-14 21:19:38.871 STDERR [INFO] I0714 21:19:38.871356 23888 layer_factory.hpp:77] Creating layer inception_4c/pool_proj
2016-07-14 21:19:38.871 STDERR [INFO] I0714 21:19:38.871373 23888 net.cpp:91] Creating Layer inception_4c/pool_proj
2016-07-14 21:19:38.872 STDERR [INFO] I0714 21:19:38.871381 23888 net.cpp:425] inception_4c/pool_proj <- inception_4c/pool
2016-07-14 21:19:38.872 STDERR [INFO] I0714 21:19:38.871390 23888 net.cpp:399] inception_4c/pool_proj -> inception_4c/pool_proj
…
2016-07-14 21:19:39.013 STDERR [INFO] I0714 21:19:39.012915 23892 net.cpp:141] Setting up inception_5a/3x3
2016-07-14 21:19:39.013 STDERR [INFO] I0714 21:19:39.012959 23892 net.cpp:148] Top shape: 10 320 7 7 (156800)
2016-07-14 21:19:39.013 STDERR [INFO] I0714 21:19:39.012965 23892 net.cpp:156] Memory required for data: 531238400
2016-07-14 21:19:39.013 n.t.s.b.CVParticleBolt [INFO] [Timing] RequestID: 0 StreamID: home/peifeng/work/data/frame.320x240.jpg SequenceNr: 98 Entering scale: 1468545579013
2016-07-14 21:19:39.013 STDERR [INFO] I0714 21:19:39.012984 23892 layer_factory.hpp:77] Creating layer inception_5a/relu_3x3
2016-07-14 21:19:39.013 STDERR [INFO] I0714 21:19:39.013000 23892 net.cpp:91] Creating Layer inception_5a/relu_3x3
2016-07-14 21:19:39.013 STDERR [INFO] I0714 21:19:39.013010 23892 net.cpp:425] inception_5a/relu_3x3 <- inception_5a/3x3
2016-07-14 21:19:39.013 STDERR [INFO] I0714 21:19:39.013021 23892 net.cpp:386] inception_5a/relu_3x3 -> inception_5a/3x3 (in-place)
2016-07-14 21:19:39.014 STDERR [INFO] I0714 21:19:39.014081 23892 net.cpp:141] Setting up inception_5a/relu_3x3
2016-07-14 21:19:39.014 STDERR [INFO] I0714 21:19:39.014102 23892 net.cpp:148] Top shape: 10 320 7 7 (156800)
2016-07-14 21:19:39.014 STDERR [INFO] I0714 21:19:39.014107 23892 net.cpp:156] Memory required for data: 531865600
2016-07-14 21:19:39.014 STDERR [INFO] I0714 21:19:39.014114 23892 layer_factory.hpp:77] Creating layer inception_5a/5x5_reduce
2016-07-14 21:19:39.014 STDERR [INFO] I0714 21:19:39.014139 23892 net.cpp:91] Creating Layer inception_5a/5x5_reduce
2016-07-14 21:19:39.014 STDERR [INFO] I0714 21:19:39.014147 23892 net.cpp:425] inception_5a/5x5_reduce <- pool4/3x3_s2_pool4/3x3_s2_0_split_2
2016-07-14 21:19:39.014 STDERR [INFO] I0714 21:19:39.014159 23892 net.cpp:399] inception_5a/5x5_reduce -> inception_5a/5x5_reduce
2016-07-14 21:19:39.015 n.t.s.b.CVParticleBolt [INFO] [Timing] RequestID: 0 StreamID: home/peifeng/work/data/frame.320x240.jpg SequenceNr: 97 Leaving scale: 1468545579015 Size: 3530
2016-07-14 21:19:39.018 n.t.s.b.CVParticleBolt [INFO] [Timing] RequestID: 0 StreamID: home/peifeng/work/data/frame.320x240.jpg SequenceNr: 98 Leaving scale: 1468545579018 Size: 3530
2016-07-14 21:19:39.019 STDERR [INFO] I0714 21:19:39.019696 23892 net.cpp:141] Setting up inception_5a/5x5_reduce
2016-07-14 21:19:39.019 STDERR [INFO] I0714 21:19:39.019723 23892 net.cpp:148] Top shape: 10 32 7 7 (15680)
2016-07-14 21:19:39.019 STDERR [INFO] I0714 21:19:39.019729 23892 net.cpp:156] Memory required for data: 531928320
2016-07-14 21:19:39.020 STDERR [INFO] I0714 21:19:39.019744 23892 layer_factory.hpp:77] Creating layer inception_5a/relu_5x5_reduce
2016-07-14 21:19:39.020 STDERR [INFO] I0714 21:19:39.019762 23892 net.cpp:91] Creating Layer inception_5a/relu_5x5_reduce
2016-07-14 21:19:39.020 STDERR [INFO] I0714 21:19:39.019770 23892 net.cpp:425] inception_5a/relu_5x5_reduce <- inception_5a/5x5_reduce
2016-07-14 21:19:39.020 STDERR [INFO] I0714 21:19:39.019779 23892 net.cpp:386] inception_5a/relu_5x5_reduce -> inception_5a/5x5_reduce (in-place)
2016-07-14 21:19:39.020 STDERR [INFO] I0714 21:19:39.020269 23892 net.cpp:141] Setting up inception_5a/relu_5x5_reduce
2016-07-14 21:19:39.020 STDERR [INFO] I0714 21:19:39.020283 23892 net.cpp:148] Top shape: 10 32 7 7 (15680)
2016-07-14 21:19:39.020 STDERR [INFO] I0714 21:19:39.020288 23892 net.cpp:156] Memory required for data: 531991040
2016-07-14 21:19:39.020 STDERR [INFO] I0714 21:19:39.020294 23892 layer_factory.hpp:77] Creating layer inception_5a/5x5
2016-07-14 21:19:39.020 STDERR [INFO] I0714 21:19:39.020313 23892 net.cpp:91] Creating Layer inception_5a/5x5
2016-07-14 21:19:39.020 STDERR [INFO] I0714 21:19:39.020321 23892 net.cpp:425] inception_5a/5x5 <- inception_5a/5x5_reduce
2016-07-14 21:19:39.020 STDERR [INFO] I0714 21:19:39.020334 23892 net.cpp:399] inception_5a/5x5 -> inception_5a/5x5
2016-07-14 21:19:39.021 STDERR [INFO] I0714 21:19:39.021216 23888 net.cpp:141] Setting up inception_5a/3x3
2016-07-14 21:19:39.021 STDERR [INFO] I0714 21:19:39.021239 23888 net.cpp:148] Top shape: 10 320 7 7 (156800)
2016-07-14 21:19:39.021 STDERR [INFO] I0714 21:19:39.021245 23888 net.cpp:156] Memory required for data: 531238400
2016-07-14 21:19:39.021 STDERR [INFO] I0714 21:19:39.021258 23888 layer_factory.hpp:77] Creating layer inception_5a/relu_3x3
2016-07-14 21:19:39.021 STDERR [INFO] I0714 21:19:39.021270 23888 net.cpp:91] Creating Layer inception_5a/relu_3x3
2016-07-14 21:19:39.021 STDERR [INFO] I0714 21:19:39.021278 23888 net.cpp:425] inception_5a/relu_3x3 <- inception_5a/3x3
2016-07-14 21:19:39.021 STDERR [INFO] I0714 21:19:39.021287 23888 net.cpp:386] inception_5a/relu_3x3 -> inception_5a/3x3 (in-place)
2016-07-14 21:19:39.022 STDERR [INFO] I0714 21:19:39.022366 23888 net.cpp:141] Setting up inception_5a/relu_3x3
2016-07-14 21:19:39.022 STDERR [INFO] I0714 21:19:39.022382 23888 net.cpp:148] Top shape: 10 320 7 7 (156800)
2016-07-14 21:19:39.022 STDERR [INFO] I0714 21:19:39.022388 23888 net.cpp:156] Memory required for data: 531865600
2016-07-14 21:19:39.022 STDERR [INFO] I0714 21:19:39.022394 23888 layer_factory.hpp:77] Creating layer inception_5a/5x5_reduce
2016-07-14 21:19:39.022 STDERR [INFO] I0714 21:19:39.022413 23888 net.cpp:91] Creating Layer inception_5a/5x5_reduce
2016-07-14 21:19:39.022 STDERR [INFO] I0714 21:19:39.022421 23888 net.cpp:425] inception_5a/5x5_reduce <- pool4/3x3_s2_pool4/3x3_s2_0_split_2
2016-07-14 21:19:39.022 STDERR [INFO] I0714 21:19:39.022433 23888 net.cpp:399] inception_5a/5x5_reduce -> inception_5a/5x5_reduce
2016-07-14 21:19:39.026 STDERR [INFO] I0714 21:19:39.026707 23892 net.cpp:141] Setting up inception_5a/5x5
2016-07-14 21:19:39.026 STDERR [INFO] I0714 21:19:39.026749 23892 net.cpp:148] Top shape: 10 128 7 7 (62720)
2016-07-14 21:19:39.026 STDERR [INFO] I0714 21:19:39.026759 23892 net.cpp:156] Memory required for data: 532241920
2016-07-14 21:19:39.027 STDERR [INFO] I0714 21:19:39.026772 23892 layer_factory.hpp:77] Creating layer inception_5a/relu_5x5
2016-07-14 21:19:39.027 STDERR [INFO] I0714 21:19:39.026813 23892 net.cpp:91] Creating Layer inception_5a/relu_5x5
2016-07-14 21:19:39.027 STDERR [INFO] I0714 21:19:39.026820 23892 net.cpp:425] inception_5a/relu_5x5 <- inception_5a/5x5
2016-07-14 21:19:39.027 STDERR [INFO] I0714 21:19:39.026829 23892 net.cpp:386] inception_5a/relu_5x5 -> inception_5a/5x5 (in-place)
2016-07-14 21:19:39.027 STDERR [INFO] I0714 21:19:39.027233 23888 net.cpp:141] Setting up inception_5a/5x5_reduce
2016-07-14 21:19:39.027 STDERR [INFO] I0714 21:19:39.027251 23888 net.cpp:148] Top shape: 10 32 7 7 (15680)
2016-07-14 21:19:39.027 STDERR [INFO] I0714 21:19:39.027256 23888 net.cpp:156] Memory required for data: 531928320
2016-07-14 21:19:39.027 STDERR [INFO] I0714 21:19:39.027264 23892 net.cpp:141] Setting up inception_5a/relu_5x5
2016-07-14 21:19:39.027 STDERR [INFO] I0714 21:19:39.027267 23888 layer_factory.hpp:77] Creating layer inception_5a/relu_5x5_reduce
2016-07-14 21:19:39.027 STDERR [INFO] I0714 21:19:39.027277 23892 net.cpp:148] Top shape: 10 128 7 7 (62720)
2016-07-14 21:19:39.027 STDERR [INFO] I0714 21:19:39.027283 23892 net.cpp:156] Memory required for data: 532492800
2016-07-14 21:19:39.027 STDERR [INFO] I0714 21:19:39.027286 23888 net.cpp:91] Creating Layer inception_5a/relu_5x5_reduce
2016-07-14 21:19:39.027 STDERR [INFO] I0714 21:19:39.027289 23892 layer_factory.hpp:77] Creating layer inception_5a/pool
2016-07-14 21:19:39.027 STDERR [INFO] I0714 21:19:39.027293 23888 net.cpp:425] inception_5a/relu_5x5_reduce <- inception_5a/5x5_reduce
2016-07-14 21:19:39.027 STDERR [INFO] I0714 21:19:39.027302 23888 net.cpp:386] inception_5a/relu_5x5_reduce -> inception_5a/5x5_reduce (in-place)
2016-07-14 21:19:39.027 STDERR [INFO] I0714 21:19:39.027302 23892 net.cpp:91] Creating Layer inception_5a/pool
2016-07-14 21:19:39.027 STDERR [INFO] I0714 21:19:39.027310 23892 net.cpp:425] inception_5a/pool <- pool4/3x3_s2_pool4/3x3_s2_0_split_3
2016-07-14 21:19:39.027 STDERR [INFO] I0714 21:19:39.027328 23892 net.cpp:399] inception_5a/pool -> inception_5a/pool
2016-07-14 21:19:39.027 STDERR [INFO] I0714 21:19:39.027647 23892 net.cpp:141] Setting up inception_5a/pool
2016-07-14 21:19:39.027 STDERR [INFO] I0714 21:19:39.027660 23892 net.cpp:148] Top shape: 10 832 7 7 (407680)
2016-07-14 21:19:39.027 STDERR [INFO] I0714 21:19:39.027665 23892 net.cpp:156] Memory required for data: 534123520
2016-07-14 21:19:39.027 STDERR [INFO] I0714 21:19:39.027672 23892 layer_factory.hpp:77] Creating layer inception_5a/pool_proj
2016-07-14 21:19:39.028 STDERR [INFO] I0714 21:19:39.027693 23892 net.cpp:91] Creating Layer inception_5a/pool_proj
2016-07-14 21:19:39.028 STDERR [INFO] I0714 21:19:39.027699 23892 net.cpp:425] inception_5a/pool_proj <- inception_5a/pool
2016-07-14 21:19:39.028 STDERR [INFO] I0714 21:19:39.027714 23892 net.cpp:399] inception_5a/pool_proj -> inception_5a/pool_proj
2016-07-14 21:19:39.028 STDERR [INFO] I0714 21:19:39.027740 23888 net.cpp:141] Setting up inception_5a/relu_5x5_reduce
2016-07-14 21:19:39.028 STDERR [INFO] I0714 21:19:39.027753 23888 net.cpp:148] Top shape: 10 32 7 7 (15680)
2016-07-14 21:19:39.028 STDERR [INFO] I0714 21:19:39.027760 23888 net.cpp:156] Memory required for data: 531991040
2016-07-14 21:19:39.028 STDERR [INFO] I0714 21:19:39.027765 23888 layer_factory.hpp:77] Creating layer inception_5a/5x5
2016-07-14 21:19:39.028 STDERR [INFO] I0714 21:19:39.027783 23888 net.cpp:91] Creating Layer inception_5a/5x5
2016-07-14 21:19:39.028 STDERR [INFO] I0714 21:19:39.027791 23888 net.cpp:425] inception_5a/5x5 <- inception_5a/5x5_reduce
2016-07-14 21:19:39.028 STDERR [INFO] I0714 21:19:39.027799 23888 net.cpp:399] inception_5a/5x5 -> inception_5a/5x5
2016-07-14 21:19:39.035 STDERR [INFO] I0714 21:19:39.035320 23892 net.cpp:141] Setting up inception_5a/pool_proj
2016-07-14 21:19:39.035 STDERR [INFO] I0714 21:19:39.035357 23892 net.cpp:148] Top shape: 10 128 7 7 (62720)
2016-07-14 21:19:39.035 STDERR [INFO] I0714 21:19:39.035364 23892 net.cpp:156] Memory required for data: 534374400
2016-07-14 21:19:39.035 STDERR [INFO] I0714 21:19:39.035377 23892 layer_factory.hpp:77] Creating layer inception_5a/relu_pool_proj
2016-07-14 21:19:39.035 STDERR [INFO] I0714 21:19:39.035395 23892 net.cpp:91] Creating Layer inception_5a/relu_pool_proj
2016-07-14 21:19:39.035 STDERR [INFO] I0714 21:19:39.035403 23892 net.cpp:425] inception_5a/relu_pool_proj <- inception_5a/pool_proj
2016-07-14 21:19:39.035 STDERR [INFO] I0714 21:19:39.035413 23892 net.cpp:386] inception_5a/relu_pool_proj -> inception_5a/pool_proj (in-place)
2016-07-14 21:19:39.036 STDERR [INFO] I0714 21:19:39.036396 23888 net.cpp:141] Setting up inception_5a/5x5
2016-07-14 21:19:39.036 STDERR [INFO] I0714 21:19:39.036418 23888 net.cpp:148] Top shape: 10 128 7 7 (62720)
2016-07-14 21:19:39.036 STDERR [INFO] I0714 21:19:39.036424 23888 net.cpp:156] Memory required for data: 532241920
2016-07-14 21:19:39.036 STDERR [INFO] I0714 21:19:39.036437 23888 layer_factory.hpp:77] Creating layer inception_5a/relu_5x5
2016-07-14 21:19:39.036 STDERR [INFO] I0714 21:19:39.036489 23888 net.cpp:91] Creating Layer inception_5a/relu_5x5
2016-07-14 21:19:39.036 STDERR [INFO] I0714 21:19:39.036500 23888 net.cpp:425] inception_5a/relu_5x5 <- inception_5a/5x5
2016-07-14 21:19:39.036 STDERR [INFO] I0714 21:19:39.036510 23888 net.cpp:386] inception_5a/relu_5x5 -> inception_5a/5x5 (in-place)
2016-07-14 21:19:39.036 STDERR [INFO] I0714 21:19:39.036509 23892 net.cpp:141] Setting up inception_5a/relu_pool_proj
2016-07-14 21:19:39.036 STDERR [INFO] I0714 21:19:39.036525 23892 net.cpp:148] Top shape: 10 128 7 7 (62720)
2016-07-14 21:19:39.036 STDERR [INFO] I0714 21:19:39.036535 23892 net.cpp:156] Memory required for data: 534625280
2016-07-14 21:19:39.036 STDERR [INFO] I0714 21:19:39.036541 23892 layer_factory.hpp:77] Creating layer inception_5a/output
2016-07-14 21:19:39.036 STDERR [INFO] I0714 21:19:39.036555 23892 net.cpp:91] Creating Layer inception_5a/output
2016-07-14 21:19:39.036 STDERR [INFO] I0714 21:19:39.036561 23892 net.cpp:425] inception_5a/output <- inception_5a/1x1
2016-07-14 21:19:39.037 STDERR [INFO] I0714 21:19:39.036568 23892 net.cpp:425] inception_5a/output <- inception_5a/3x3
2016-07-14 21:19:39.037 STDERR [INFO] I0714 21:19:39.036576 23892 net.cpp:425] inception_5a/output <- inception_5a/5x5
2016-07-14 21:19:39.037 STDERR [INFO] I0714 21:19:39.036581 23892 net.cpp:425] inception_5a/output <- inception_5a/pool_proj
2016-07-14 21:19:39.037 STDERR [INFO] I0714 21:19:39.036588 23892 net.cpp:399] inception_5a/output -> inception_5a/output
2016-07-14 21:19:39.037 STDERR [INFO] I0714 21:19:39.036792 23892 net.cpp:141] Setting up inception_5a/output
2016-07-14 21:19:39.037 STDERR [INFO] I0714 21:19:39.036808 23892 net.cpp:148] Top shape: 10 832 7 7 (407680)
2016-07-14 21:19:39.037 STDERR [INFO] I0714 21:19:39.036813 23892 net.cpp:156] Memory required for data: 536256000
2016-07-14 21:19:39.037 STDERR [INFO] I0714 21:19:39.036818 23892 layer_factory.hpp:77] Creating layer inception_5a/output_inception_5a/output_0_split
2016-07-14 21:19:39.037 STDERR [INFO] I0714 21:19:39.036828 23892 net.cpp:91] Creating Layer inception_5a/output_inception_5a/output_0_split
2016-07-14 21:19:39.037 STDERR [INFO] I0714 21:19:39.036834 23892 net.cpp:425] inception_5a/output_inception_5a/output_0_split <- inception_5a/output
2016-07-14 21:19:39.037 STDERR [INFO] I0714 21:19:39.036842 23892 net.cpp:399] inception_5a/output_inception_5a/output_0_split -> inception_5a/output_inception_5a/output_0_split_0
2016-07-14 21:19:39.037 STDERR [INFO] I0714 21:19:39.036854 23892 net.cpp:399] inception_5a/output_inception_5a/output_0_split -> inception_5a/output_inception_5a/output_0_split_1
2016-07-14 21:19:39.037 STDERR [INFO] I0714 21:19:39.036866 23892 net.cpp:399] inception_5a/output_inception_5a/output_0_split -> inception_5a/output_inception_5a/output_0_split_2
2016-07-14 21:19:39.037 STDERR [INFO] I0714 21:19:39.036876 23892 net.cpp:399] inception_5a/output_inception_5a/output_0_split -> inception_5a/output_inception_5a/output_0_split_3
2016-07-14 21:19:39.037 STDERR [INFO] I0714 21:19:39.036908 23888 net.cpp:141] Setting up inception_5a/relu_5x5
2016-07-14 21:19:39.037 STDERR [INFO] I0714 21:19:39.036926 23888 net.cpp:148] Top shape: 10 128 7 7 (62720)
2016-07-14 21:19:39.037 STDERR [INFO] I0714 21:19:39.036931 23888 net.cpp:156] Memory required for data: 532492800
2016-07-14 21:19:39.037 STDERR [INFO] I0714 21:19:39.036936 23888 layer_factory.hpp:77] Creating layer inception_5a/pool
2016-07-14 21:19:39.037 STDERR [INFO] I0714 21:19:39.036952 23888 net.cpp:91] Creating Layer inception_5a/pool
2016-07-14 21:19:39.037 STDERR [INFO] I0714 21:19:39.036958 23888 net.cpp:425] inception_5a/pool <- pool4/3x3_s2_pool4/3x3_s2_0_split_3
2016-07-14 21:19:39.037 STDERR [INFO] I0714 21:19:39.036970 23888 net.cpp:399] inception_5a/pool -> inception_5a/pool
2016-07-14 21:19:39.037 STDERR [INFO] I0714 21:19:39.037222 23888 net.cpp:141] Setting up inception_5a/pool
2016-07-14 21:19:39.037 STDERR [INFO] I0714 21:19:39.037235 23888 net.cpp:148] Top shape: 10 832 7 7 (407680)
2016-07-14 21:19:39.037 STDERR [INFO] I0714 21:19:39.037240 23888 net.cpp:156] Memory required for data: 534123520
2016-07-14 21:19:39.038 STDERR [INFO] I0714 21:19:39.037247 23888 layer_factory.hpp:77] Creating layer inception_5a/pool_proj
2016-07-14 21:19:39.038 STDERR [INFO] I0714 21:19:39.037271 23888 net.cpp:91] Creating Layer inception_5a/pool_proj
2016-07-14 21:19:39.038 STDERR [INFO] I0714 21:19:39.037278 23888 net.cpp:425] inception_5a/pool_proj <- inception_5a/pool
2016-07-14 21:19:39.038 STDERR [INFO] I0714 21:19:39.037288 23888 net.cpp:399] inception_5a/pool_proj -> inception_5a/pool_proj
2016-07-14 21:19:39.038 STDERR [INFO] I0714 21:19:39.037286 23892 net.cpp:141] Setting up inception_5a/output_inception_5a/output_0_split
2016-07-14 21:19:39.038 STDERR [INFO] I0714 21:19:39.037307 23892 net.cpp:148] Top shape: 10 832 7 7 (407680)
2016-07-14 21:19:39.038 STDERR [INFO] I0714 21:19:39.037314 23892 net.cpp:148] Top shape: 10 832 7 7 (407680)
2016-07-14 21:19:39.038 STDERR [INFO] I0714 21:19:39.037320 23892 net.cpp:148] Top shape: 10 832 7 7 (407680)
2016-07-14 21:19:39.038 STDERR [INFO] I0714 21:19:39.037327 23892 net.cpp:148] Top shape: 10 832 7 7 (407680)
2016-07-14 21:19:39.038 STDERR [INFO] I0714 21:19:39.037331 23892 net.cpp:156] Memory required for data: 542778880
2016-07-14 21:19:39.038 STDERR [INFO] I0714 21:19:39.037336 23892 layer_factory.hpp:77] Creating layer inception_5b/1x1
2016-07-14 21:19:39.038 STDERR [INFO] I0714 21:19:39.037353 23892 net.cpp:91] Creating Layer inception_5b/1x1
2016-07-14 21:19:39.038 STDERR [INFO] I0714 21:19:39.037359 23892 net.cpp:425] inception_5b/1x1 <- inception_5a/output_inception_5a/output_0_split_0
2016-07-14 21:19:39.038 STDERR [INFO] I0714 21:19:39.037369 23892 net.cpp:399] inception_5b/1x1 -> inception_5b/1x1
2016-07-14 21:19:39.044 STDERR [INFO] I0714 21:19:39.044870 23888 net.cpp:141] Setting up inception_5a/pool_proj
2016-07-14 21:19:39.045 STDERR [INFO] I0714 21:19:39.044903 23888 net.cpp:148] Top shape: 10 128 7 7 (62720)
2016-07-14 21:19:39.045 STDERR [INFO] I0714 21:19:39.044909 23888 net.cpp:156] Memory required for data: 534374400
2016-07-14 21:19:39.045 STDERR [INFO] I0714 21:19:39.044921 23888 layer_factory.hpp:77] Creating layer inception_5a/relu_pool_proj
2016-07-14 21:19:39.045 STDERR [INFO] I0714 21:19:39.044934 23888 net.cpp:91] Creating Layer inception_5a/relu_pool_proj
2016-07-14 21:19:39.045 STDERR [INFO] I0714 21:19:39.044941 23888 net.cpp:425] inception_5a/relu_pool_proj <- inception_5a/pool_proj
2016-07-14 21:19:39.045 STDERR [INFO] I0714 21:19:39.044962 23888 net.cpp:386] inception_5a/relu_pool_proj -> inception_5a/pool_proj (in-place)
2016-07-14 21:19:39.046 STDERR [INFO] I0714 21:19:39.046035 23888 net.cpp:141] Setting up inception_5a/relu_pool_proj
2016-07-14 21:19:39.046 STDERR [INFO] I0714 21:19:39.046052 23888 net.cpp:148] Top shape: 10 128 7 7 (62720)
2016-07-14 21:19:39.046 STDERR [INFO] I0714 21:19:39.046058 23888 net.cpp:156] Memory required for data: 534625280
2016-07-14 21:19:39.046 STDERR [INFO] I0714 21:19:39.046063 23888 layer_factory.hpp:77] Creating layer inception_5a/output
2016-07-14 21:19:39.046 STDERR [INFO] I0714 21:19:39.046078 23888 net.cpp:91] Creating Layer inception_5a/output
2016-07-14 21:19:39.046 STDERR [INFO] I0714 21:19:39.046085 23888 net.cpp:425] inception_5a/output <- inception_5a/1x1
2016-07-14 21:19:39.046 STDERR [INFO] I0714 21:19:39.046104 23888 net.cpp:425] inception_5a/output <- inception_5a/3x3
2016-07-14 21:19:39.046 STDERR [INFO] I0714 21:19:39.046113 23888 net.cpp:425] inception_5a/output <- inception_5a/5x5
2016-07-14 21:19:39.046 STDERR [INFO] I0714 21:19:39.046119 23888 net.cpp:425] inception_5a/output <- inception_5a/pool_proj
2016-07-14 21:19:39.046 STDERR [INFO] I0714 21:19:39.046128 23888 net.cpp:399] inception_5a/output -> inception_5a/output
2016-07-14 21:19:39.046 STDERR [INFO] I0714 21:19:39.046246 23888 net.cpp:141] Setting up inception_5a/output
2016-07-14 21:19:39.046 STDERR [INFO] I0714 21:19:39.046258 23888 net.cpp:148] Top shape: 10 832 7 7 (407680)
2016-07-14 21:19:39.046 STDERR [INFO] I0714 21:19:39.046263 23888 net.cpp:156] Memory required for data: 536256000
2016-07-14 21:19:39.046 STDERR [INFO] I0714 21:19:39.046268 23888 layer_factory.hpp:77] Creating layer inception_5a/output_inception_5a/output_0_split
2016-07-14 21:19:39.046 STDERR [INFO] I0714 21:19:39.046286 23888 net.cpp:91] Creating Layer inception_5a/output_inception_5a/output_0_split
…
2016-07-14 21:19:39.046 STDERR [INFO] I0714 21:19:39.046313 23888 net.cpp:399] inception_5a/output_inception_5a/output_0_split -> inception_5a/output_inception_5a/output_0_split_1
2016-07-14 21:19:39.046 STDERR [INFO] I0714 21:19:39.046325 23888 net.cpp:399] inception_5a/output_inception_5a/output_0_split -> inception_5a/output_inception_5a/output_0_split_2
2016-07-14 21:19:39.046 STDERR [INFO] I0714 21:19:39.046334 23888 net.cpp:399] inception_5a/output_inception_5a/output_0_split -> inception_5a/output_inception_5a/output_0_split_3
2016-07-14 21:19:39.047 STDERR [INFO] I0714 21:19:39.047525 23888 net.cpp:141] Setting up inception_5a/output_inception_5a/output_0_split
2016-07-14 21:19:39.047 STDERR [INFO] I0714 21:19:39.047541 23888 net.cpp:148] Top shape: 10 832 7 7 (407680)
2016-07-14 21:19:39.047 STDERR [INFO] I0714 21:19:39.047549 23888 net.cpp:148] Top shape: 10 832 7 7 (407680)
2016-07-14 21:19:39.047 STDERR [INFO] I0714 21:19:39.047554 23888 net.cpp:148] Top shape: 10 832 7 7 (407680)
2016-07-14 21:19:39.047 STDERR [INFO] I0714 21:19:39.047559 23888 net.cpp:148] Top shape: 10 832 7 7 (407680)
2016-07-14 21:19:39.047 STDERR [INFO] I0714 21:19:39.047564 23888 net.cpp:156] Memory required for data: 542778880
2016-07-14 21:19:39.047 STDERR [INFO] I0714 21:19:39.047571 23888 layer_factory.hpp:77] Creating layer inception_5b/1x1
2016-07-14 21:19:39.047 STDERR [INFO] I0714 21:19:39.047593 23888 net.cpp:91] Creating Layer inception_5b/1x1
2016-07-14 21:19:39.047 STDERR [INFO] I0714 21:19:39.047600 23888 net.cpp:425] inception_5b/1x1 <- inception_5a/output_inception_5a/output_0_split_0
2016-07-14 21:19:39.048 STDERR [INFO] I0714 21:19:39.047610 23888 net.cpp:399] inception_5b/1x1 -> inception_5b/1x1
2016-07-14 21:19:39.051 STDERR [INFO] I0714 21:19:39.051301 23892 net.cpp:141] Setting up inception_5b/1x1
2016-07-14 21:19:39.051 STDERR [INFO] I0714 21:19:39.051327 23892 net.cpp:148] Top shape: 10 384 7 7 (188160)
2016-07-14 21:19:39.051 STDERR [INFO] I0714 21:19:39.051333 23892 net.cpp:156] Memory required for data: 543531520
2016-07-14 21:19:39.051 STDERR [INFO] I0714 21:19:39.051345 23892 layer_factory.hpp:77] Creating layer inception_5b/relu_1x1
2016-07-14 21:19:39.051 STDERR [INFO] I0714 21:19:39.051360 23892 net.cpp:91] Creating Layer inception_5b/relu_1x1
2016-07-14 21:19:39.051 STDERR [INFO] I0714 21:19:39.051368 23892 net.cpp:425] inception_5b/relu_1x1 <- inception_5b/1x1
2016-07-14 21:19:39.051 STDERR [INFO] I0714 21:19:39.051381 23892 net.cpp:386] inception_5b/relu_1x1 -> inception_5b/1x1 (in-place)
2016-07-14 21:19:39.051 STDERR [INFO] I0714 21:19:39.051708 23892 net.cpp:141] Setting up inception_5b/relu_1x1
2016-07-14 21:19:39.051 STDERR [INFO] I0714 21:19:39.051723 23892 net.cpp:148] Top shape: 10 384 7 7 (188160)
2016-07-14 21:19:39.051 STDERR [INFO] I0714 21:19:39.051728 23892 net.cpp:156] Memory required for data: 544284160
2016-07-14 21:19:39.051 STDERR [INFO] I0714 21:19:39.051733 23892 layer_factory.hpp:77] Creating layer inception_5b/3x3_reduce
2016-07-14 21:19:39.051 STDERR [INFO] I0714 21:19:39.051753 23892 net.cpp:91] Creating Layer inception_5b/3x3_reduce
2016-07-14 21:19:39.051 STDERR [INFO] I0714 21:19:39.051759 23892 net.cpp:425] inception_5b/3x3_reduce <- inception_5a/output_inception_5a/output_0_split_1
2016-07-14 21:19:39.051 STDERR [INFO] I0714 21:19:39.051769 23892 net.cpp:399] inception_5b/3x3_reduce -> inception_5b/3x3_reduce
2016-07-14 21:19:39.057 STDERR [INFO] I0714 21:19:39.057910 23888 net.cpp:141] Setting up inception_5b/1x1
2016-07-14 21:19:39.058 STDERR [INFO] I0714 21:19:39.057937 23888 net.cpp:148] Top shape: 10 384 7 7 (188160)
2016-07-14 21:19:39.058 STDERR [INFO] I0714 21:19:39.057943 23888 net.cpp:156] Memory required for data: 543531520
2016-07-14 21:19:39.058 STDERR [INFO] I0714 21:19:39.057955 23888 layer_factory.hpp:77] Creating layer inception_5b/relu_1x1
2016-07-14 21:19:39.058 STDERR [INFO] I0714 21:19:39.057966 23888 net.cpp:91] Creating Layer inception_5b/relu_1x1
2016-07-14 21:19:39.058 STDERR [INFO] I0714 21:19:39.057973 23888 net.cpp:425] inception_5b/relu_1x1 <- inception_5b/1x1
2016-07-14 21:19:39.058 STDERR [INFO] I0714 21:19:39.057991 23888 net.cpp:386] inception_5b/relu_1x1 -> inception_5b/1x1 (in-place)
2016-07-14 21:19:39.058 STDERR [INFO] I0714 21:19:39.058308 23888 net.cpp:141] Setting up inception_5b/relu_1x1
2016-07-14 21:19:39.058 STDERR [INFO] I0714 21:19:39.058320 23888 net.cpp:148] Top shape: 10 384 7 7 (188160)
2016-07-14 21:19:39.058 STDERR [INFO] I0714 21:19:39.058326 23888 net.cpp:156] Memory required for data: 544284160
2016-07-14 21:19:39.058 STDERR [INFO] I0714 21:19:39.058331 23888 layer_factory.hpp:77] Creating layer inception_5b/3x3_reduce
2016-07-14 21:19:39.058 STDERR [INFO] I0714 21:19:39.058356 23888 net.cpp:91] Creating Layer inception_5b/3x3_reduce
2016-07-14 21:19:39.058 STDERR [INFO] I0714 21:19:39.058363 23888 net.cpp:425] inception_5b/3x3_reduce <- inception_5a/output_inception_5a/output_0_split_1
2016-07-14 21:19:39.058 STDERR [INFO] I0714 21:19:39.058374 23888 net.cpp:399] inception_5b/3x3_reduce -> inception_5b/3x3_reduce
2016-07-14 21:19:39.061 STDERR [INFO] I0714 21:19:39.061602 23892 net.cpp:141] Setting up inception_5b/3x3_reduce
2016-07-14 21:19:39.061 STDERR [INFO] I0714 21:19:39.061627 23892 net.cpp:148] Top shape: 10 192 7 7 (94080)
2016-07-14 21:19:39.061 STDERR [INFO] I0714 21:19:39.061633 23892 net.cpp:156] Memory required for data: 544660480
2016-07-14 21:19:39.061 STDERR [INFO] I0714 21:19:39.061647 23892 layer_factory.hpp:77] Creating layer inception_5b/relu_3x3_reduce
2016-07-14 21:19:39.061 STDERR [INFO] I0714 21:19:39.061658 23892 net.cpp:91] Creating Layer inception_5b/relu_3x3_reduce
2016-07-14 21:19:39.061 STDERR [INFO] I0714 21:19:39.061666 23892 net.cpp:425] inception_5b/relu_3x3_reduce <- inception_5b/3x3_reduce
2016-07-14 21:19:39.062 STDERR [INFO] I0714 21:19:39.061674 23892 net.cpp:386] inception_5b/relu_3x3_reduce -> inception_5b/3x3_reduce (in-place)
2016-07-14 21:19:39.062 STDERR [INFO] I0714 21:19:39.062006 23892 net.cpp:141] Setting up inception_5b/relu_3x3_reduce
2016-07-14 21:19:39.062 STDERR [INFO] I0714 21:19:39.062019 23892 net.cpp:148] Top shape: 10 192 7 7 (94080)
2016-07-14 21:19:39.062 STDERR [INFO] I0714 21:19:39.062024 23892 net.cpp:156] Memory required for data: 545036800
2016-07-14 21:19:39.062 STDERR [INFO] I0714 21:19:39.062031 23892 layer_factory.hpp:77] Creating layer inception_5b/3x3
2016-07-14 21:19:39.062 STDERR [INFO] I0714 21:19:39.062049 23892 net.cpp:91] Creating Layer inception_5b/3x3
2016-07-14 21:19:39.062 STDERR [INFO] I0714 21:19:39.062057 23892 net.cpp:425] inception_5b/3x3 <- inception_5b/3x3_reduce
2016-07-14 21:19:39.062 STDERR [INFO] I0714 21:19:39.062070 23892 net.cpp:399] inception_5b/3x3 -> inception_5b/3x3
2016-07-14 21:19:39.068 STDERR [INFO] I0714 21:19:39.068083 23888 net.cpp:141] Setting up inception_5b/3x3_reduce
2016-07-14 21:19:39.068 STDERR [INFO] I0714 21:19:39.068110 23888 net.cpp:148] Top shape: 10 192 7 7 (94080)
2016-07-14 21:19:39.068 STDERR [INFO] I0714 21:19:39.068116 23888 net.cpp:156] Memory required for data: 544660480
2016-07-14 21:19:39.068 STDERR [INFO] I0714 21:19:39.068127 23888 layer_factory.hpp:77] Creating layer inception_5b/relu_3x3_reduce
2016-07-14 21:19:39.068 STDERR [INFO] I0714 21:19:39.068147 23888 net.cpp:91] Creating Layer inception_5b/relu_3x3_reduce
2016-07-14 21:19:39.068 STDERR [INFO] I0714 21:19:39.068156 23888 net.cpp:425] inception_5b/relu_3x3_reduce <- inception_5b/3x3_reduce
2016-07-14 21:19:39.068 STDERR [INFO] I0714 21:19:39.068164 23888 net.cpp:386] inception_5b/relu_3x3_reduce -> inception_5b/3x3_reduce (in-place)
2016-07-14 21:19:39.068 STDERR [INFO] I0714 21:19:39.068481 23888 net.cpp:141] Setting up inception_5b/relu_3x3_reduce
2016-07-14 21:19:39.068 STDERR [INFO] I0714 21:19:39.068493 23888 net.cpp:148] Top shape: 10 192 7 7 (94080)
2016-07-14 21:19:39.068 STDERR [INFO] I0714 21:19:39.068498 23888 net.cpp:156] Memory required for data: 545036800
2016-07-14 21:19:39.068 STDERR [INFO] I0714 21:19:39.068505 23888 layer_factory.hpp:77] Creating layer inception_5b/3x3
2016-07-14 21:19:39.068 STDERR [INFO] I0714 21:19:39.068537 23888 net.cpp:91] Creating Layer inception_5b/3x3
2016-07-14 21:19:39.068 STDERR [INFO] I0714 21:19:39.068544 23888 net.cpp:425] inception_5b/3x3 <- inception_5b/3x3_reduce
2016-07-14 21:19:39.068 STDERR [INFO] I0714 21:19:39.068557 23888 net.cpp:399] inception_5b/3x3 -> inception_5b/3x3
2016-07-14 21:19:39.074 STDERR [INFO] I0714 21:19:39.074753 23892 net.cpp:141] Setting up inception_5b/3x3
2016-07-14 21:19:39.074 STDERR [INFO] I0714 21:19:39.074787 23892 net.cpp:148] Top shape: 10 384 7 7 (188160)
2016-07-14 21:19:39.075 STDERR [INFO] I0714 21:19:39.074793 23892 net.cpp:156] Memory required for data: 545789440
2016-07-14 21:19:39.075 STDERR [INFO] I0714 21:19:39.074805 23892 layer_factory.hpp:77] Creating layer inception_5b/relu_3x3
2016-07-14 21:19:39.075 STDERR [INFO] I0714 21:19:39.074818 23892 net.cpp:91] Creating Layer inception_5b/relu_3x3
2016-07-14 21:19:39.075 STDERR [INFO] I0714 21:19:39.074826 23892 net.cpp:425] inception_5b/relu_3x3 <- inception_5b/3x3
2016-07-14 21:19:39.075 STDERR [INFO] I0714 21:19:39.074836 23892 net.cpp:386] inception_5b/relu_3x3 -> inception_5b/3x3 (in-place)
2016-07-14 21:19:39.075 STDERR [INFO] I0714 21:19:39.075736 23892 net.cpp:141] Setting up inception_5b/relu_3x3
2016-07-14 21:19:39.075 STDERR [INFO] I0714 21:19:39.075754 23892 net.cpp:148] Top shape: 10 384 7 7 (188160)
2016-07-14 21:19:39.075 STDERR [INFO] I0714 21:19:39.075759 23892 net.cpp:156] Memory required for data: 546542080
2016-07-14 21:19:39.075 STDERR [INFO] I0714 21:19:39.075765 23892 layer_factory.hpp:77] Creating layer inception_5b/5x5_reduce
2016-07-14 21:19:39.075 STDERR [INFO] I0714 21:19:39.075786 23892 net.cpp:91] Creating Layer inception_5b/5x5_reduce
2016-07-14 21:19:39.076 STDERR [INFO] I0714 21:19:39.075794 23892 net.cpp:425] inception_5b/5x5_reduce <- inception_5a/output_inception_5a/output_0_split_2
2016-07-14 21:19:39.076 STDERR [INFO] I0714 21:19:39.075804 23892 net.cpp:399] inception_5b/5x5_reduce -> inception_5b/5x5_reduce
2016-07-14 21:19:39.080 STDERR [INFO] I0714 21:19:39.080731 23892 net.cpp:141] Setting up inception_5b/5x5_reduce
2016-07-14 21:19:39.080 STDERR [INFO] I0714 21:19:39.080754 23892 net.cpp:148] Top shape: 10 48 7 7 (23520)
2016-07-14 21:19:39.080 STDERR [INFO] I0714 21:19:39.080760 23892 net.cpp:156] Memory required for data: 546636160
2016-07-14 21:19:39.081 STDERR [INFO] I0714 21:19:39.080771 23892 layer_factory.hpp:77] Creating layer inception_5b/relu_5x5_reduce
2016-07-14 21:19:39.081 STDERR [INFO] I0714 21:19:39.080785 23892 net.cpp:91] Creating Layer inception_5b/relu_5x5_reduce
2016-07-14 21:19:39.081 STDERR [INFO] I0714 21:19:39.080792 23892 net.cpp:425] inception_5b/relu_5x5_reduce <- inception_5b/5x5_reduce
2016-07-14 21:19:39.081 STDERR [INFO] I0714 21:19:39.080806 23892 net.cpp:386] inception_5b/relu_5x5_reduce -> inception_5b/5x5_reduce (in-place)
2016-07-14 21:19:39.081 STDERR [INFO] I0714 21:19:39.081301 23892 net.cpp:141] Setting up inception_5b/relu_5x5_reduce
2016-07-14 21:19:39.081 STDERR [INFO] I0714 21:19:39.081317 23892 net.cpp:148] Top shape: 10 48 7 7 (23520)
2016-07-14 21:19:39.081 STDERR [INFO] I0714 21:19:39.081322 23892 net.cpp:156] Memory required for data: 546730240
2016-07-14 21:19:39.081 STDERR [INFO] I0714 21:19:39.081328 23892 layer_factory.hpp:77] Creating layer inception_5b/5x5
2016-07-14 21:19:39.081 STDERR [INFO] I0714 21:19:39.081346 23892 net.cpp:91] Creating Layer inception_5b/5x5
2016-07-14 21:19:39.081 STDERR [INFO] I0714 21:19:39.081353 23892 net.cpp:425] inception_5b/5x5 <- inception_5b/5x5_reduce
2016-07-14 21:19:39.081 STDERR [INFO] I0714 21:19:39.081367 23892 net.cpp:399] inception_5b/5x5 -> inception_5b/5x5
2016-07-14 21:19:39.081 STDERR [INFO] I0714 21:19:39.081398 23888 net.cpp:141] Setting up inception_5b/3x3
2016-07-14 21:19:39.081 STDERR [INFO] I0714 21:19:39.081415 23888 net.cpp:148] Top shape: 10 384 7 7 (188160)
2016-07-14 21:19:39.081 STDERR [INFO] I0714 21:19:39.081421 23888 net.cpp:156] Memory required for data: 545789440
2016-07-14 21:19:39.081 STDERR [INFO] I0714 21:19:39.081432 23888 layer_factory.hpp:77] Creating layer inception_5b/relu_3x3
2016-07-14 21:19:39.081 STDERR [INFO] I0714 21:19:39.081444 23888 net.cpp:91] Creating Layer inception_5b/relu_3x3
2016-07-14 21:19:39.081 STDERR [INFO] I0714 21:19:39.081452 23888 net.cpp:425] inception_5b/relu_3x3 <- inception_5b/3x3
2016-07-14 21:19:39.081 STDERR [INFO] I0714 21:19:39.081460 23888 net.cpp:386] inception_5b/relu_3x3 -> inception_5b/3x3 (in-place)
2016-07-14 21:19:39.082 STDERR [INFO] I0714 21:19:39.082581 23888 net.cpp:141] Setting up inception_5b/relu_3x3
2016-07-14 21:19:39.082 STDERR [INFO] I0714 21:19:39.082597 23888 net.cpp:148] Top shape: 10 384 7 7 (188160)
2016-07-14 21:19:39.082 STDERR [INFO] I0714 21:19:39.082603 23888 net.cpp:156] Memory required for data: 546542080
2016-07-14 21:19:39.082 STDERR [INFO] I0714 21:19:39.082609 23888 layer_factory.hpp:77] Creating layer inception_5b/5x5_reduce
2016-07-14 21:19:39.082 STDERR [INFO] I0714 21:19:39.082628 23888 net.cpp:91] Creating Layer inception_5b/5x5_reduce
2016-07-14 21:19:39.082 STDERR [INFO] I0714 21:19:39.082635 23888 net.cpp:425] inception_5b/5x5_reduce <- inception_5a/output_inception_5a/output_0_split_2
2016-07-14 21:19:39.082 STDERR [INFO] I0714 21:19:39.082650 23888 net.cpp:399] inception_5b/5x5_reduce -> inception_5b/5x5_reduce
2016-07-14 21:19:39.087 STDERR [INFO] I0714 21:19:39.087744 23888 net.cpp:141] Setting up inception_5b/5x5_reduce
2016-07-14 21:19:39.087 STDERR [INFO] I0714 21:19:39.087764 23888 net.cpp:148] Top shape: 10 48 7 7 (23520)
2016-07-14 21:19:39.087 STDERR [INFO] I0714 21:19:39.087770 23888 net.cpp:156] Memory required for data: 546636160
2016-07-14 21:19:39.088 STDERR [INFO] I0714 21:19:39.087781 23888 layer_factory.hpp:77] Creating layer inception_5b/relu_5x5_reduce
2016-07-14 21:19:39.088 STDERR [INFO] I0714 21:19:39.087795 23888 net.cpp:91] Creating Layer inception_5b/relu_5x5_reduce
2016-07-14 21:19:39.088 STDERR [INFO] I0714 21:19:39.087802 23888 net.cpp:425] inception_5b/relu_5x5_reduce <- inception_5b/5x5_reduce
2016-07-14 21:19:39.088 STDERR [INFO] I0714 21:19:39.087815 23888 net.cpp:386] inception_5b/relu_5x5_reduce -> inception_5b/5x5_reduce (in-place)
2016-07-14 21:19:39.088 STDERR [INFO] I0714 21:19:39.088125 23888 net.cpp:141] Setting up inception_5b/relu_5x5_reduce
2016-07-14 21:19:39.088 STDERR [INFO] I0714 21:19:39.088138 23888 net.cpp:148] Top shape: 10 48 7 7 (23520)
2016-07-14 21:19:39.088 STDERR [INFO] I0714 21:19:39.088143 23888 net.cpp:156] Memory required for data: 546730240
2016-07-14 21:19:39.088 STDERR [INFO] I0714 21:19:39.088148 23888 layer_factory.hpp:77] Creating layer inception_5b/5x5
2016-07-14 21:19:39.088 STDERR [INFO] I0714 21:19:39.088168 23888 net.cpp:91] Creating Layer inception_5b/5x5
2016-07-14 21:19:39.088 STDERR [INFO] I0714 21:19:39.088176 23888 net.cpp:425] inception_5b/5x5 <- inception_5b/5x5_reduce
2016-07-14 21:19:39.089 STDERR [INFO] I0714 21:19:39.088188 23888 net.cpp:399] inception_5b/5x5 -> inception_5b/5x5
2016-07-14 21:19:39.089 STDERR [INFO] I0714 21:19:39.089433 23892 net.cpp:141] Setting up inception_5b/5x5
2016-07-14 21:19:39.089 STDERR [INFO] I0714 21:19:39.089454 23892 net.cpp:148] Top shape: 10 128 7 7 (62720)
2016-07-14 21:19:39.089 STDERR [INFO] I0714 21:19:39.089460 23892 net.cpp:156] Memory required for data: 546981120
2016-07-14 21:19:39.089 STDERR [INFO] I0714 21:19:39.089470 23892 layer_factory.hpp:77] Creating layer inception_5b/relu_5x5
2016-07-14 21:19:39.089 STDERR [INFO] I0714 21:19:39.089485 23892 net.cpp:91] Creating Layer inception_5b/relu_5x5
2016-07-14 21:19:39.089 STDERR [INFO] I0714 21:19:39.089493 23892 net.cpp:425] inception_5b/relu_5x5 <- inception_5b/5x5
2016-07-14 21:19:39.089 STDERR [INFO] I0714 21:19:39.089505 23892 net.cpp:386] inception_5b/relu_5x5 -> inception_5b/5x5 (in-place)
2016-07-14 21:19:39.089 STDERR [INFO] I0714 21:19:39.089819 23892 net.cpp:141] Setting up inception_5b/relu_5x5
2016-07-14 21:19:39.089 STDERR [INFO] I0714 21:19:39.089833 23892 net.cpp:148] Top shape: 10 128 7 7 (62720)
2016-07-14 21:19:39.089 STDERR [INFO] I0714 21:19:39.089838 23892 net.cpp:156] Memory required for data: 547232000
2016-07-14 21:19:39.089 STDERR [INFO] I0714 21:19:39.089843 23892 layer_factory.hpp:77] Creating layer inception_5b/pool
2016-07-14 21:19:39.089 STDERR [INFO] I0714 21:19:39.089857 23892 net.cpp:91] Creating Layer inception_5b/pool
2016-07-14 21:19:39.090 STDERR [INFO] I0714 21:19:39.089864 23892 net.cpp:425] inception_5b/pool <- inception_5a/output_inception_5a/output_0_split_3
2016-07-14 21:19:39.090 STDERR [INFO] I0714 21:19:39.089875 23892 net.cpp:399] inception_5b/pool -> inception_5b/pool
2016-07-14 21:19:39.090 STDERR [INFO] I0714 21:19:39.090035 23892 net.cpp:141] Setting up inception_5b/pool
2016-07-14 21:19:39.090 STDERR [INFO] I0714 21:19:39.090046 23892 net.cpp:148] Top shape: 10 832 7 7 (407680)
2016-07-14 21:19:39.090 STDERR [INFO] I0714 21:19:39.090051 23892 net.cpp:156] Memory required for data: 548862720
2016-07-14 21:19:39.090 STDERR [INFO] I0714 21:19:39.090056 23892 layer_factory.hpp:77] Creating layer inception_5b/pool_proj
2016-07-14 21:19:39.090 STDERR [INFO] I0714 21:19:39.090077 23892 net.cpp:91] Creating Layer inception_5b/pool_proj
2016-07-14 21:19:39.090 STDERR [INFO] I0714 21:19:39.090085 23892 net.cpp:425] inception_5b/pool_proj <- inception_5b/pool
2016-07-14 21:19:39.090 STDERR [INFO] I0714 21:19:39.090095 23892 net.cpp:399] inception_5b/pool_proj -> inception_5b/pool_proj
2016-07-14 21:19:39.097 STDERR [INFO] I0714 21:19:39.097403 23892 net.cpp:141] Setting up inception_5b/pool_proj
2016-07-14 21:19:39.097 STDERR [INFO] I0714 21:19:39.097426 23892 net.cpp:148] Top shape: 10 128 7 7 (62720)
2016-07-14 21:19:39.097 STDERR [INFO] I0714 21:19:39.097434 23892 net.cpp:156] Memory required for data: 549113600
2016-07-14 21:19:39.097 STDERR [INFO] I0714 21:19:39.097450 23892 layer_factory.hpp:77] Creating layer inception_5b/relu_pool_proj
2016-07-14 21:19:39.097 STDERR [INFO] I0714 21:19:39.097461 23892 net.cpp:91] Creating Layer inception_5b/relu_pool_proj
2016-07-14 21:19:39.097 STDERR [INFO] I0714 21:19:39.097468 23892 net.cpp:425] inception_5b/relu_pool_proj <- inception_5b/pool_proj
2016-07-14 21:19:39.097 STDERR [INFO] I0714 21:19:39.097477 23892 net.cpp:386] inception_5b/relu_pool_proj -> inception_5b/pool_proj (in-place)
2016-07-14 21:19:39.098 STDERR [INFO] I0714 21:19:39.098359 23888 net.cpp:141] Setting up inception_5b/5x5
2016-07-14 21:19:39.098 STDERR [INFO] I0714 21:19:39.098378 23888 net.cpp:148] Top shape: 10 128 7 7 (62720)
2016-07-14 21:19:39.098 STDERR [INFO] I0714 21:19:39.098383 23888 net.cpp:156] Memory required for data: 546981120
2016-07-14 21:19:39.098 STDERR [INFO] I0714 21:19:39.098398 23888 layer_factory.hpp:77] Creating layer inception_5b/relu_5x5
2016-07-14 21:19:39.098 STDERR [INFO] I0714 21:19:39.098409 23888 net.cpp:91] Creating Layer inception_5b/relu_5x5
2016-07-14 21:19:39.098 STDERR [INFO] I0714 21:19:39.098417 23888 net.cpp:425] inception_5b/relu_5x5 <- inception_5b/5x5
2016-07-14 21:19:39.098 STDERR [INFO] I0714 21:19:39.098428 23888 net.cpp:386] inception_5b/relu_5x5 -> inception_5b/5x5 (in-place)
2016-07-14 21:19:39.098 STDERR [INFO] I0714 21:19:39.098471 23892 net.cpp:141] Setting up inception_5b/relu_pool_proj
2016-07-14 21:19:39.098 STDERR [INFO] I0714 21:19:39.098489 23892 net.cpp:148] Top shape: 10 128 7 7 (62720)
2016-07-14 21:19:39.098 STDERR [INFO] I0714 21:19:39.098495 23892 net.cpp:156] Memory required for data: 549364480
2016-07-14 21:19:39.098 STDERR [INFO] I0714 21:19:39.098500 23892 layer_factory.hpp:77] Creating layer inception_5b/output
2016-07-14 21:19:39.098 STDERR [INFO] I0714 21:19:39.098510 23892 net.cpp:91] Creating Layer inception_5b/output
2016-07-14 21:19:39.098 STDERR [INFO] I0714 21:19:39.098517 23892 net.cpp:425] inception_5b/output <- inception_5b/1x1
2016-07-14 21:19:39.099 STDERR [INFO] I0714 21:19:39.098525 23892 net.cpp:425] inception_5b/output <- inception_5b/3x3
2016-07-14 21:19:39.099 STDERR [INFO] I0714 21:19:39.098531 23892 net.cpp:425] inception_5b/output <- inception_5b/5x5
2016-07-14 21:19:39.099 STDERR [INFO] I0714 21:19:39.098536 23892 net.cpp:425] inception_5b/output <- inception_5b/pool_proj
2016-07-14 21:19:39.099 STDERR [INFO] I0714 21:19:39.098546 23892 net.cpp:399] inception_5b/output -> inception_5b/output
2016-07-14 21:19:39.099 STDERR [INFO] I0714 21:19:39.098702 23892 net.cpp:141] Setting up inception_5b/output
2016-07-14 21:19:39.099 STDERR [INFO] I0714 21:19:39.098716 23892 net.cpp:148] Top shape: 10 1024 7 7 (501760)
2016-07-14 21:19:39.099 STDERR [INFO] I0714 21:19:39.098721 23892 net.cpp:156] Memory required for data: 551371520
2016-07-14 21:19:39.099 STDERR [INFO] I0714 21:19:39.098726 23892 layer_factory.hpp:77] Creating layer pool5/7x7_s1
2016-07-14 21:19:39.099 STDERR [INFO] I0714 21:19:39.098736 23892 net.cpp:91] Creating Layer pool5/7x7_s1
2016-07-14 21:19:39.099 STDERR [INFO] I0714 21:19:39.098742 23892 net.cpp:425] pool5/7x7_s1 <- inception_5b/output
2016-07-14 21:19:39.099 STDERR [INFO] I0714 21:19:39.098754 23892 net.cpp:399] pool5/7x7_s1 -> pool5/7x7_s1
2016-07-14 21:19:39.099 STDERR [INFO] I0714 21:19:39.098814 23888 net.cpp:141] Setting up inception_5b/relu_5x5
2016-07-14 21:19:39.099 STDERR [INFO] I0714 21:19:39.098829 23888 net.cpp:148] Top shape: 10 128 7 7 (62720)
2016-07-14 21:19:39.099 STDERR [INFO] I0714 21:19:39.098834 23888 net.cpp:156] Memory required for data: 547232000
2016-07-14 21:19:39.099 STDERR [INFO] I0714 21:19:39.098840 23888 layer_factory.hpp:77] Creating layer inception_5b/pool
2016-07-14 21:19:39.099 STDERR [INFO] I0714 21:19:39.098853 23888 net.cpp:91] Creating Layer inception_5b/pool
2016-07-14 21:19:39.099 STDERR [INFO] I0714 21:19:39.098860 23888 net.cpp:425] inception_5b/pool <- inception_5a/output_inception_5a/output_0_split_3
2016-07-14 21:19:39.099 STDERR [INFO] I0714 21:19:39.098875 23888 net.cpp:399] inception_5b/pool -> inception_5b/pool
2016-07-14 21:19:39.099 STDERR [INFO] I0714 21:19:39.099123 23888 net.cpp:141] Setting up inception_5b/pool
2016-07-14 21:19:39.099 STDERR [INFO] I0714 21:19:39.099135 23888 net.cpp:148] Top shape: 10 832 7 7 (407680)
2016-07-14 21:19:39.099 STDERR [INFO] I0714 21:19:39.099140 23888 net.cpp:156] Memory required for data: 548862720
2016-07-14 21:19:39.099 STDERR [INFO] I0714 21:19:39.099148 23888 layer_factory.hpp:77] Creating layer inception_5b/pool_proj
2016-07-14 21:19:39.099 STDERR [INFO] I0714 21:19:39.099165 23888 net.cpp:91] Creating Layer inception_5b/pool_proj
2016-07-14 21:19:39.099 STDERR [INFO] I0714 21:19:39.099172 23888 net.cpp:425] inception_5b/pool_proj <- inception_5b/pool
2016-07-14 21:19:39.099 STDERR [INFO] I0714 21:19:39.099195 23888 net.cpp:399] inception_5b/pool_proj -> inception_5b/pool_proj
2016-07-14 21:19:39.099 STDERR [INFO] I0714 21:19:39.099357 23892 net.cpp:141] Setting up pool5/7x7_s1
2016-07-14 21:19:39.100 STDERR [INFO] I0714 21:19:39.099371 23892 net.cpp:148] Top shape: 10 1024 1 1 (10240)
2016-07-14 21:19:39.100 STDERR [INFO] I0714 21:19:39.099376 23892 net.cpp:156] Memory required for data: 551412480
2016-07-14 21:19:39.100 STDERR [INFO] I0714 21:19:39.099382 23892 layer_factory.hpp:77] Creating layer pool5/drop_7x7_s1
2016-07-14 21:19:39.100 STDERR [INFO] I0714 21:19:39.099406 23892 net.cpp:91] Creating Layer pool5/drop_7x7_s1
2016-07-14 21:19:39.100 STDERR [INFO] I0714 21:19:39.099412 23892 net.cpp:425] pool5/drop_7x7_s1 <- pool5/7x7_s1
2016-07-14 21:19:39.100 STDERR [INFO] I0714 21:19:39.099419 23892 net.cpp:386] pool5/drop_7x7_s1 -> pool5/7x7_s1 (in-place)
2016-07-14 21:19:39.100 STDERR [INFO] I0714 21:19:39.099609 23892 net.cpp:141] Setting up pool5/drop_7x7_s1
2016-07-14 21:19:39.100 STDERR [INFO] I0714 21:19:39.099622 23892 net.cpp:148] Top shape: 10 1024 1 1 (10240)
2016-07-14 21:19:39.100 STDERR [INFO] I0714 21:19:39.099627 23892 net.cpp:156] Memory required for data: 551453440
2016-07-14 21:19:39.100 STDERR [INFO] I0714 21:19:39.099632 23892 layer_factory.hpp:77] Creating layer loss3/classifier
2016-07-14 21:19:39.100 STDERR [INFO] I0714 21:19:39.099658 23892 net.cpp:91] Creating Layer loss3/classifier
2016-07-14 21:19:39.100 STDERR [INFO] I0714 21:19:39.099664 23892 net.cpp:425] loss3/classifier <- pool5/7x7_s1
2016-07-14 21:19:39.100 STDERR [INFO] I0714 21:19:39.099673 23892 net.cpp:399] loss3/classifier -> loss3/classifier
2016-07-14 21:19:39.109 STDERR [INFO] I0714 21:19:39.109103 23888 net.cpp:141] Setting up inception_5b/pool_proj
2016-07-14 21:19:39.109 STDERR [INFO] I0714 21:19:39.109138 23888 net.cpp:148] Top shape: 10 128 7 7 (62720)
2016-07-14 21:19:39.109 STDERR [INFO] I0714 21:19:39.109153 23888 net.cpp:156] Memory required for data: 549113600
2016-07-14 21:19:39.109 STDERR [INFO] I0714 21:19:39.109164 23888 layer_factory.hpp:77] Creating layer inception_5b/relu_pool_proj
2016-07-14 21:19:39.109 STDERR [INFO] I0714 21:19:39.109185 23888 net.cpp:91] Creating Layer inception_5b/relu_pool_proj
2016-07-14 21:19:39.109 STDERR [INFO] I0714 21:19:39.109192 23888 net.cpp:425] inception_5b/relu_pool_proj <- inception_5b/pool_proj
2016-07-14 21:19:39.109 STDERR [INFO] I0714 21:19:39.109202 23888 net.cpp:386] inception_5b/relu_pool_proj -> inception_5b/pool_proj (in-place)
2016-07-14 21:19:39.110 STDERR [INFO] I0714 21:19:39.110108 23888 net.cpp:141] Setting up inception_5b/relu_pool_proj
2016-07-14 21:19:39.110 STDERR [INFO] I0714 21:19:39.110127 23888 net.cpp:148] Top shape: 10 128 7 7 (62720)
2016-07-14 21:19:39.110 STDERR [INFO] I0714 21:19:39.110132 23888 net.cpp:156] Memory required for data: 549364480
2016-07-14 21:19:39.110 STDERR [INFO] I0714 21:19:39.110138 23888 layer_factory.hpp:77] Creating layer inception_5b/output
2016-07-14 21:19:39.110 STDERR [INFO] I0714 21:19:39.110158 23888 net.cpp:91] Creating Layer inception_5b/output
2016-07-14 21:19:39.110 STDERR [INFO] I0714 21:19:39.110165 23888 net.cpp:425] inception_5b/output <- inception_5b/1x1
2016-07-14 21:19:39.110 STDERR [INFO] I0714 21:19:39.110173 23888 net.cpp:425] inception_5b/output <- inception_5b/3x3
2016-07-14 21:19:39.110 STDERR [INFO] I0714 21:19:39.110179 23888 net.cpp:425] inception_5b/output <- inception_5b/5x5
2016-07-14 21:19:39.110 STDERR [INFO] I0714 21:19:39.110185 23888 net.cpp:425] inception_5b/output <- inception_5b/pool_proj
2016-07-14 21:19:39.110 STDERR [INFO] I0714 21:19:39.110193 23888 net.cpp:399] inception_5b/output -> inception_5b/output
2016-07-14 21:19:39.110 STDERR [INFO] I0714 21:19:39.110299 23888 net.cpp:141] Setting up inception_5b/output
2016-07-14 21:19:39.110 STDERR [INFO] I0714 21:19:39.110311 23888 net.cpp:148] Top shape: 10 1024 7 7 (501760)
2016-07-14 21:19:39.110 STDERR [INFO] I0714 21:19:39.110316 23888 net.cpp:156] Memory required for data: 551371520
2016-07-14 21:19:39.110 STDERR [INFO] I0714 21:19:39.110321 23888 layer_factory.hpp:77] Creating layer pool5/7x7_s1
2016-07-14 21:19:39.110 STDERR [INFO] I0714 21:19:39.110335 23888 net.cpp:91] Creating Layer pool5/7x7_s1
2016-07-14 21:19:39.110 STDERR [INFO] I0714 21:19:39.110342 23888 net.cpp:425] pool5/7x7_s1 <- inception_5b/output
2016-07-14 21:19:39.110 STDERR [INFO] I0714 21:19:39.110353 23888 net.cpp:399] pool5/7x7_s1 -> pool5/7x7_s1
2016-07-14 21:19:39.110 STDERR [INFO] I0714 21:19:39.110769 23888 net.cpp:141] Setting up pool5/7x7_s1
2016-07-14 21:19:39.111 STDERR [INFO] I0714 21:19:39.110785 23888 net.cpp:148] Top shape: 10 1024 1 1 (10240)
2016-07-14 21:19:39.111 STDERR [INFO] I0714 21:19:39.110790 23888 net.cpp:156] Memory required for data: 551412480
2016-07-14 21:19:39.111 STDERR [INFO] I0714 21:19:39.110795 23888 layer_factory.hpp:77] Creating layer pool5/drop_7x7_s1
2016-07-14 21:19:39.111 STDERR [INFO] I0714 21:19:39.110805 23888 net.cpp:91] Creating Layer pool5/drop_7x7_s1
2016-07-14 21:19:39.111 STDERR [INFO] I0714 21:19:39.110811 23888 net.cpp:425] pool5/drop_7x7_s1 <- pool5/7x7_s1
2016-07-14 21:19:39.111 STDERR [INFO] I0714 21:19:39.110822 23888 net.cpp:386] pool5/drop_7x7_s1 -> pool5/7x7_s1 (in-place)
2016-07-14 21:19:39.111 STDERR [INFO] I0714 21:19:39.110908 23888 net.cpp:141] Setting up pool5/drop_7x7_s1
2016-07-14 21:19:39.111 STDERR [INFO] I0714 21:19:39.110919 23888 net.cpp:148] Top shape: 10 1024 1 1 (10240)
2016-07-14 21:19:39.111 STDERR [INFO] I0714 21:19:39.110924 23888 net.cpp:156] Memory required for data: 551453440
2016-07-14 21:19:39.111 STDERR [INFO] I0714 21:19:39.110929 23888 layer_factory.hpp:77] Creating layer loss3/classifier
2016-07-14 21:19:39.111 STDERR [INFO] I0714 21:19:39.110949 23888 net.cpp:91] Creating Layer loss3/classifier
2016-07-14 21:19:39.111 STDERR [INFO] I0714 21:19:39.110954 23888 net.cpp:425] loss3/classifier <- pool5/7x7_s1
2016-07-14 21:19:39.111 STDERR [INFO] I0714 21:19:39.110963 23888 net.cpp:399] loss3/classifier -> loss3/classifier
2016-07-14 21:19:39.115 STDERR [INFO] I0714 21:19:39.115222 23892 net.cpp:141] Setting up loss3/classifier
2016-07-14 21:19:39.115 STDERR [INFO] I0714 21:19:39.115252 23892 net.cpp:148] Top shape: 10 1000 (10000)
2016-07-14 21:19:39.115 STDERR [INFO] I0714 21:19:39.115257 23892 net.cpp:156] Memory required for data: 551493440
2016-07-14 21:19:39.115 STDERR [INFO] I0714 21:19:39.115268 23892 layer_factory.hpp:77] Creating layer prob
2016-07-14 21:19:39.115 STDERR [INFO] I0714 21:19:39.115283 23892 net.cpp:91] Creating Layer prob
2016-07-14 21:19:39.115 STDERR [INFO] I0714 21:19:39.115289 23892 net.cpp:425] prob <- loss3/classifier
2016-07-14 21:19:39.115 STDERR [INFO] I0714 21:19:39.115299 23892 net.cpp:399] prob -> prob
2016-07-14 21:19:39.116 STDERR [INFO] I0714 21:19:39.116706 23892 net.cpp:141] Setting up prob
2016-07-14 21:19:39.116 STDERR [INFO] I0714 21:19:39.116726 23892 net.cpp:148] Top shape: 10 1000 (10000)
2016-07-14 21:19:39.116 STDERR [INFO] I0714 21:19:39.116731 23892 net.cpp:156] Memory required for data: 551533440
2016-07-14 21:19:39.116 STDERR [INFO] I0714 21:19:39.116737 23892 net.cpp:219] prob does not need backward computation.
2016-07-14 21:19:39.117 STDERR [INFO] I0714 21:19:39.116744 23892 net.cpp:219] loss3/classifier does not need backward computation.
2016-07-14 21:19:39.117 STDERR [INFO] I0714 21:19:39.116750 23892 net.cpp:219] pool5/drop_7x7_s1 does not need backward computation.
…
