…
Java HotSpot(TM) 64-Bit Server VM warning: You have loaded library /home/peifeng/work/run/storm102/data/workers/2f449f0c-a69a-4fc3-b327-aefdc89ded34/tmp/cvld5492237291456595522/libopencv_java310.xine1.so which might have disabled stack guard. The VM will try to fix the stack guard now.
It's highly recommended that you fix the library with 'execstack -c <libfile>', or link it with '-z noexecstack'.
WARNING: Logging before InitGoogleLogging() is written to STDERR
I0913 20:24:47.551153  3939 net.cpp:49] Initializing net from parameters: 
name: "GoogleNet"
state {
  phase: TEST
}
layer {
  name: "data"
  type: "Input"
  top: "data"
  input_param {
    shape {
      dim: 10
      dim: 3
      dim: 224
      dim: 224
    }
  }
}
layer {
  name: "conv1/7x7_s2"
  type: "Convolution"
  bottom: "data"
  top: "conv1/7x7_s2"
  param {
    lr_mult: 1
    decay_mult: 1
  }
  param {
    lr_mult: 2
    decay_mult: 0
  }
  convolution_param {
    num_output: 64
    pad: 3
    kernel_size: 7
    stride: 2
    weight_filler {
      type: "xavier"
      std: 0.1
    }
    bias_filler {
      type: "constant"
      value: 0.2
    }
  }
}
layer {
  name: "conv1/relu_7x7"
  type: "ReLU"
  bottom: "conv1/7x7_s2"
  top: "conv1/7x7_s2"
}
layer {
  name: "pool1/3x3_s2"
  type: "Pooling"
  bottom: "conv1/7x7_s2"
  top: "pool1/3x3_s2"
  pooling_param {
    pool: MAX
    kernel_size: 3
    stride: 2
  }
}
layer {
  name: "pool1/norm1"
  type: "LRN"
  bottom: "pool1/3x3_s2"
  top: "pool1/norm1"
  lrn_param {
    local_size: 5
    alpha: 0.0001
    beta: 0.75
  }
}
layer {
  name: "conv2/3x3_reduce"
  type: "Convolution"
  bottom: "pool1/norm1"
  top: "conv2/3x3_reduce"
  param {
    lr_mult: 1
    decay_mult: 1
  }
  param {
    lr_mult: 2
    decay_mult: 0
  }
  convolution_param {
    num_output: 64
    kernel_size: 1
    weight_filler {
      type: "xavier"
      std: 0.1
    }
    bias_filler {
      type: "constant"
      value: 0.2
    }
  }
}
layer {
  name: "conv2/relu_3x3_reduce"
  type: "ReLU"
  bottom: "conv2/3x3_reduce"
  top: "conv2/3x3_reduce"
}
layer {
  name: "conv2/3x3"
  type: "Convolution"
  bottom: "conv2/3x3_reduce"
  top: "conv2/3x3"
  param {
    lr_mult: 1
    decay_mult: 1
  }
  param {
    lr_mult: 2
    decay_mult: 0
  }
  convolution_param {
    num_output: 192
    pad: 1
    kernel_size: 3
    weight_filler {
      type: "xavier"
      std: 0.03
    }
    bias_filler {
      type: "constant"
      value: 0.2
    }
  }
}
layer {
  name: "conv2/relu_3x3"
  type: "ReLU"
  bottom: "conv2/3x3"
  top: "conv2/3x3"
}
layer {
  name: "conv2/norm2"
  type: "LRN"
  bottom: "conv2/3x3"
  top: "conv2/norm2"
  lrn_param {
    local_size: 5
    alpha: 0.0001
    beta: 0.75
  }
}
layer {
  name: "pool2/3x3_s2"
  type: "Pooling"
  bottom: "conv2/norm2"
  top: "pool2/3x3_s2"
  pooling_param {
    pool: MAX
    kernel_size: 3
    stride: 2
  }
}
layer {
  name: "inception_3a/1x1"
  type: "Convolution"
  bottom: "pool2/3x3_s2"
  top: "inception_3a/1x1"
  param {
    lr_mult: 1
    decay_mult: 1
  }
  param {
    lr_mult: 2
    decay_mult: 0
  }
  convolution_param {
    num_output: 64
    kernel_size: 1
    weight_filler {
      type: "xavier"
      std: 0.03
    }
    bias_filler {
      type: "constant"
      value: 0.2
    }
  }
}
layer {
  name: "inception_3a/relu_1x1"
  type: "ReLU"
  bottom: "inception_3a/1x1"
  top: "inception_3a/1x1"
}
layer {
  name: "inception_3a/3x3_reduce"
  type: "Convolution"
  bottom: "pool2/3x3_s2"
  top: "inception_3a/3x3_reduce"
  param {
    lr_mult: 1
    decay_mult: 1
  }
  param {
    lr_mult: 2
    decay_mult: 0
  }
  convolution_param {
    num_output: 96
    kernel_size: 1
    weight_filler {
      type: "xavier"
      std: 0.09
    }
    bias_filler {
      type: "constant"
      value: 0.2
    }
  }
}
layer {
  name: "inception_3a/relu_3x3_reduce"
  type: "ReLU"
  bottom: "inception_3a/3x3_reduce"
  top: "inception_3a/3x3_reduce"
}
layer {
  name: "inception_3a/3x3"
  type: "Convolution"
  bottom: "inception_3a/3x3_reduce"
  top: "inception_3a/3x3"
  param {
    lr_mult: 1
    decay_mult: 1
  }
  param {
    lr_mult: 2
    decay_mult: 0
  }
  convolution_param {
    num_output: 128
    pad: 1
    kernel_size: 3
    weight_filler {
      type: "xavier"
      std: 0.03
    }
    bias_filler {
      type: "constant"
      value: 0.2
    }
  }
}
layer {
  name: "inception_3a/relu_3x3"
  type: "ReLU"
  bottom: "inception_3a/3x3"
  top: "inception_3a/3x3"
}
layer {
  name: "inception_3a/5x5_reduce"
  type: "Convolution"
  bottom: "pool2/3x3_s2"
  top: "inception_3a/5x5_reduce"
  param {
    lr_mult: 1
    decay_mult: 1
  }
  param {
    lr_mult: 2
    decay_mult: 0
  }
  convolution_param {
    num_output: 16
    kernel_size: 1
    weight_filler {
      type: "xavier"
      std: 0.2
    }
    bias_filler {
      type: "constant"
      value: 0.2
    }
  }
}
layer {
  name: "inception_3a/relu_5x5_reduce"
  type: "ReLU"
  bottom: "inception_3a/5x5_reduce"
  top: "inception_3a/5x5_reduce"
}
layer {
  name: "inception_3a/5x5"
  type: "Convolution"
  bottom: "inception_3a/5x5_reduce"
  top: "inception_3a/5x5"
  param {
    lr_mult: 1
    decay_mult: 1
  }
  param {
    lr_mult: 2
    decay_mult: 0
  }
  convolution_param {
    num_output: 32
    pad: 2
    kernel_size: 5
    weight_filler {
      type: "xavier"
      std: 0.03
    }
    bias_filler {
      type: "constant"
      value: 0.2
    }
  }
}
layer {
  name: "inception_3a/relu_5x5"
  type: "ReLU"
  bottom: "inception_3a/5x5"
  top: "inception_3a/5x5"
}
layer {
  name: "inception_3a/pool"
  type: "Pooling"
  bottom: "pool2/3x3_s2"
  top: "inception_3a/pool"
  pooling_param {
    pool: MAX
    kernel_size: 3
    stride: 1
    pad: 1
  }
}
layer {
  name: "inception_3a/pool_proj"
  type: "Convolution"
  bottom: "inception_3a/pool"
  top: "inception_3a/pool_proj"
  param {
    lr_mult: 1
    decay_mult: 1
  }
  param {
    lr_mult: 2
    decay_mult: 0
  }
  convolution_param {
    num_output: 32
    kernel_size: 1
    weight_filler {
      type: "xavier"
      std: 0.1
    }
    bias_filler {
      type: "constant"
      value: 0.2
    }
  }
}
layer {
  name: "inception_3a/relu_pool_proj"
  type: "ReLU"
  bottom: "inception_3a/pool_proj"
  top: "inception_3a/pool_proj"
}
layer {
  name: "inception_3a/output"
  type: "Concat"
  bottom: "inception_3a/1x1"
  bottom: "inception_3a/3x3"
  bottom: "inception_3a/5x5"
  bottom: "inception_3a/pool_proj"
  top: "inception_3a/output"
}
layer {
  name: "inception_3b/1x1"
  type: "Convolution"
  bottom: "inception_3a/output"
  top: "inception_3b/1x1"
  param {
    lr_mult: 1
    decay_mult: 1
  }
  param {
    lr_mult: 2
    decay_mult: 0
  }
  convolution_param {
    num_output: 128
    kernel_size: 1
    weight_filler {
      type: "xavier"
      std: 0.03
    }
    bias_filler {
      type: "constant"
      value: 0.2
    }
  }
}
layer {
  name: "inception_3b/relu_1x1"
  type: "ReLU"
  bottom: "inception_3b/1x1"
  top: "inception_3b/1x1"
}
layer {
  name: "inception_3b/3x3_reduce"
  type: "Convolution"
  bottom: "inception_3a/output"
  top: "inception_3b/3x3_reduce"
  param {
    lr_mult: 1
    decay_mult: 1
  }
  param {
    lr_mult: 2
    decay_mult: 0
  }
  convolution_param {
    num_output: 128
    kernel_size: 1
    weight_filler {
      type: "xavier"
      std: 0.09
    }
    bias_filler {
      type: "constant"
      value: 0.2
    }
  }
}
layer {
  name: "inception_3b/relu_3x3_reduce"
  type: "ReLU"
  bottom: "inception_3b/3x3_reduce"
  top: "inception_3b/3x3_reduce"
}
layer {
  name: "inception_3b/3x3"
  type: "Convolution"
  bottom: "inception_3b/3x3_reduce"
  top: "inception_3b/3x3"
  param {
    lr_mult: 1
    decay_mult: 1
  }
  param {
    lr_mult: 2
    decay_mult: 0
  }
  convolution_param {
    num_output: 192
    pad: 1
    kernel_size: 3
    weight_filler {
      type: "xavier"
      std: 0.03
    }
    bias_filler {
      type: "constant"
      value: 0.2
    }
  }
}
layer {
  name: "inception_3b/relu_3x3"
  type: "ReLU"
  bottom: "inception_3b/3x3"
  top: "inception_3b/3x3"
}
layer {
  name: "inception_3b/5x5_reduce"
  type: "Convolution"
  bottom: "inception_3a/output"
  top: "inception_3b/5x5_reduce"
  param {
    lr_mult: 1
    decay_mult: 1
  }
  param {
    lr_mult: 2
    decay_mult: 0
  }
  convolution_param {
    num_output: 32
    kernel_size: 1
    weight_filler {
      type: "xavier"
      std: 0.2
    }
    bias_filler {
      type: "constant"
      value: 0.2
    }
  }
}
layer {
  name: "inception_3b/relu_5x5_reduce"
  type: "ReLU"
  bottom: "inception_3b/5x5_reduce"
  top: "inception_3b/5x5_reduce"
}
layer {
  name: "inception_3b/5x5"
  type: "Convolution"
  bottom: "inception_3b/5x5_reduce"
  top: "inception_3b/5x5"
  param {
    lr_mult: 1
    decay_mult: 1
  }
  param {
    lr_mult: 2
    decay_mult: 0
  }
  convolution_param {
    num_output: 96
    pad: 2
    kernel_size: 5
    weight_filler {
      type: "xavier"
      std: 0.03
    }
    bias_filler {
      type: "constant"
      value: 0.2
    }
  }
}
layer {
  name: "inception_3b/relu_5x5"
  type: "ReLU"
  bottom: "inception_3b/5x5"
  top: "inception_3b/5x5"
}
layer {
  name: "inception_3b/pool"
  type: "Pooling"
  bottom: "inception_3a/output"
  top: "inception_3b/pool"
  pooling_param {
    pool: MAX
    kernel_size: 3
    stride: 1
    pad: 1
  }
}
layer {
  name: "inception_3b/pool_proj"
  type: "Convolution"
  bottom: "inception_3b/pool"
  top: "inception_3b/pool_proj"
  param {
    lr_mult: 1
    decay_mult: 1
  }
  param {
    lr_mult: 2
    decay_mult: 0
  }
  convolution_param {
    num_output: 64
    kernel_size: 1
    weight_filler {
      type: "xavier"
      std: 0.1
    }
    bias_filler {
      type: "constant"
      value: 0.2
    }
  }
}
layer {
  name: "inception_3b/relu_pool_proj"
  type: "ReLU"
  bottom: "inception_3b/pool_proj"
  top: "inception_3b/pool_proj"
}
layer {
  name: "inception_3b/output"
  type: "Concat"
  bottom: "inception_3b/1x1"
  bottom: "inception_3b/3x3"
  bottom: "inception_3b/5x5"
  bottom: "inception_3b/pool_proj"
  top: "inception_3b/output"
}
layer {
  name: "pool3/3x3_s2"
  type: "Pooling"
  bottom: "inception_3b/output"
  top: "pool3/3x3_s2"
  pooling_param {
    pool: MAX
    kernel_size: 3
    stride: 2
  }
}
layer {
  name: "inception_4a/1x1"
  type: "Convolution"
  bottom: "pool3/3x3_s2"
  top: "inception_4a/1x1"
  param {
    lr_mult: 1
    decay_mult: 1
  }
  param {
    lr_mult: 2
    decay_mult: 0
  }
  convolution_param {
    num_output: 192
    kernel_size: 1
    weight_filler {
      type: "xavier"
      std: 0.03
    }
    bias_filler {
      type: "constant"
      value: 0.2
    }
  }
}
layer {
  name: "inception_4a/relu_1x1"
  type: "ReLU"
  bottom: "inception_4a/1x1"
  top: "inception_4a/1x1"
}
layer {
  name: "inception_4a/3x3_reduce"
  type: "Convolution"
  bottom: "pool3/3x3_s2"
  top: "inception_4a/3x3_reduce"
  param {
    lr_mult: 1
    decay_mult: 1
  }
  param {
    lr_mult: 2
    decay_mult: 0
  }
  convolution_param {
    num_output: 96
    kernel_size: 1
    weight_filler {
      type: "xavier"
      std: 0.09
    }
    bias_filler {
      type: "constant"
      value: 0.2
    }
  }
}
layer {
  name: "inception_4a/relu_3x3_reduce"
  type: "ReLU"
  bottom: "inception_4a/3x3_reduce"
  top: "inception_4a/3x3_reduce"
}
layer {
  name: "inception_4a/3x3"
  type: "Convolution"
  bottom: "inception_4a/3x3_reduce"
  top: "inception_4a/3x3"
  param {
    lr_mult: 1
    decay_mult: 1
  }
  param {
    lr_mult: 2
    decay_mult: 0
  }
  convolution_param {
    num_output: 208
    pad: 1
    kernel_size: 3
    weight_filler {
      type: "xavier"
      std: 0.03
    }
    bias_filler {
      type: "constant"
      value: 0.2
    }
  }
}
layer {
  name: "inception_4a/relu_3x3"
  type: "ReLU"
  bottom: "inception_4a/3x3"
  top: "inception_4a/3x3"
}
layer {
  name: "inception_4a/5x5_reduce"
  type: "Convolution"
  bottom: "pool3/3x3_s2"
  top: "inception_4a/5x5_reduce"
  param {
    lr_mult: 1
    decay_mult: 1
  }
  param {
    lr_mult: 2
    decay_mult: 0
  }
  convolution_param {
    num_output: 16
    kernel_size: 1
    weight_filler {
      type: "xavier"
      std: 0.2
    }
    bias_filler {
      type: "constant"
      value: 0.2
    }
  }
}
layer {
  name: "inception_4a/relu_5x5_reduce"
  type: "ReLU"
  bottom: "inception_4a/5x5_reduce"
  top: "inception_4a/5x5_reduce"
}
layer {
  name: "inception_4a/5x5"
  type: "Convolution"
  bottom: "inception_4a/5x5_reduce"
  top: "inception_4a/5x5"
  param {
    lr_mult: 1
    decay_mult: 1
  }
  param {
    lr_mult: 2
    decay_mult: 0
  }
  convolution_param {
    num_output: 48
    pad: 2
    kernel_size: 5
    weight_filler {
      type: "xavier"
      std: 0.03
    }
    bias_filler {
      type: "constant"
      value: 0.2
    }
  }
}
layer {
  name: "inception_4a/relu_5x5"
  type: "ReLU"
  bottom: "inception_4a/5x5"
  top: "inception_4a/5x5"
}
layer {
  name: "inception_4a/pool"
  type: "Pooling"
  bottom: "pool3/3x3_s2"
  top: "inception_4a/pool"
  pooling_param {
    pool: MAX
    kernel_size: 3
    stride: 1
    pad: 1
  }
}
layer {
  name: "inception_4a/pool_proj"
  type: "Convolution"
  bottom: "inception_4a/pool"
  top: "inception_4a/pool_proj"
  param {
    lr_mult: 1
    decay_mult: 1
  }
  param {
    lr_mult: 2
    decay_mult: 0
  }
  convolution_param {
    num_output: 64
    kernel_size: 1
    weight_filler {
      type: "xavier"
      std: 0.1
    }
    bias_filler {
      type: "constant"
      value: 0.2
    }
  }
}
layer {
  name: "inception_4a/relu_pool_proj"
  type: "ReLU"
  bottom: "inception_4a/pool_proj"
  top: "inception_4a/pool_proj"
}
layer {
  name: "inception_4a/output"
  type: "Concat"
  bottom: "inception_4a/1x1"
  bottom: "inception_4a/3x3"
  bottom: "inception_4a/5x5"
  bottom: "inception_4a/pool_proj"
  top: "inception_4a/output"
}
layer {
  name: "inception_4b/1x1"
  type: "Convolution"
  bottom: "inception_4a/output"
  top: "inception_4b/1x1"
  param {
    lr_mult: 1
    decay_mult: 1
  }
  param {
    lr_mult: 2
    decay_mult: 0
  }
  convolution_param {
    num_output: 160
    kernel_size: 1
    weight_filler {
      type: "xavier"
      std: 0.03
    }
    bias_filler {
      type: "constant"
      value: 0.2
    }
  }
}
layer {
  name: "inception_4b/relu_1x1"
  type: "ReLU"
  bottom: "inception_4b/1x1"
  top: "inception_4b/1x1"
}
layer {
  name: "inception_4b/3x3_reduce"
  type: "Convolution"
  bottom: "inception_4a/output"
  top: "inception_4b/3x3_reduce"
  param {
    lr_mult: 1
    decay_mult: 1
  }
  param {
    lr_mult: 2
    decay_mult: 0
  }
  convolution_param {
    num_output: 112
    kernel_size: 1
    weight_filler {
      type: "xavier"
      std: 0.09
    }
    bias_filler {
      type: "constant"
      value: 0.2
    }
  }
}
layer {
  name: "inception_4b/relu_3x3_reduce"
  type: "ReLU"
  bottom: "inception_4b/3x3_reduce"
  top: "inception_4b/3x3_reduce"
}
layer {
  name: "inception_4b/3x3"
  type: "Convolution"
  bottom: "inception_4b/3x3_reduce"
  top: "inception_4b/3x3"
  param {
    lr_mult: 1
    decay_mult: 1
  }
  param {
    lr_mult: 2
    decay_mult: 0
  }
  convolution_param {
    num_output: 224
    pad: 1
    kernel_size: 3
    weight_filler {
      type: "xavier"
      std: 0.03
    }
    bias_filler {
      type: "constant"
      value: 0.2
    }
  }
}
layer {
  name: "inception_4b/relu_3x3"
  type: "ReLU"
  bottom: "inception_4b/3x3"
  top: "inception_4b/3x3"
}
layer {
  name: "inception_4b/5x5_reduce"
  type: "Convolution"
  bottom: "inception_4a/output"
  top: "inception_4b/5x5_reduce"
  param {
    lr_mult: 1
    decay_mult: 1
  }
  param {
    lr_mult: 2
    decay_mult: 0
  }
  convolution_param {
    num_output: 24
    kernel_size: 1
    weight_filler {
      type: "xavier"
      std: 0.2
    }
    bias_filler {
      type: "constant"
      value: 0.2
    }
  }
}
layer {
  name: "inception_4b/relu_5x5_reduce"
  type: "ReLU"
  bottom: "inception_4b/5x5_reduce"
  top: "inception_4b/5x5_reduce"
}
layer {
  name: "inception_4b/5x5"
  type: "Convolution"
  bottom: "inception_4b/5x5_reduce"
  top: "inception_4b/5x5"
  param {
    lr_mult: 1
    decay_mult: 1
  }
  param {
    lr_mult: 2
    decay_mult: 0
  }
  convolution_param {
    num_output: 64
    pad: 2
    kernel_size: 5
    weight_filler {
      type: "xavier"
      std: 0.03
    }
    bias_filler {
      type: "constant"
      value: 0.2
    }
  }
}
layer {
  name: "inception_4b/relu_5x5"
  type: "ReLU"
  bottom: "inception_4b/5x5"
  top: "inception_4b/5x5"
}
layer {
  name: "inception_4b/pool"
  type: "Pooling"
  bottom: "inception_4a/output"
  top: "inception_4b/pool"
  pooling_param {
    pool: MAX
    kernel_size: 3
    stride: 1
    pad: 1
  }
}
layer {
  name: "inception_4b/pool_proj"
  type: "Convolution"
  bottom: "inception_4b/pool"
  top: "inception_4b/pool_proj"
  param {
    lr_mult: 1
    decay_mult: 1
  }
  param {
    lr_mult: 2
    decay_mult: 0
  }
  convolution_param {
    num_output: 64
    kernel_size: 1
    weight_filler {
      type: "xavier"
      std: 0.1
    }
    bias_filler {
      type: "constant"
      value: 0.2
    }
  }
}
layer {
  name: "inception_4b/relu_pool_proj"
  type: "ReLU"
  bottom: "inception_4b/pool_proj"
  top: "inception_4b/pool_proj"
}
layer {
  name: "inception_4b/output"
  type: "Concat"
  bottom: "inception_4b/1x1"
  bottom: "inception_4b/3x3"
  bottom: "inception_4b/5x5"
  bottom: "inception_4b/pool_proj"
  top: "inception_4b/output"
}
layer {
  name: "inception_4c/1x1"
  type: "Convolution"
  bottom: "inception_4b/output"
  top: "inception_4c/1x1"
  param {
    lr_mult: 1
    decay_mult: 1
  }
  param {
    lr_mult: 2
    decay_mult: 0
  }
  convolution_param {
    num_output: 128
    kernel_size: 1
    weight_filler {
      type: "xavier"
      std: 0.03
    }
    bias_filler {
      type: "constant"
      value: 0.2
    }
  }
}
layer {
  name: "inception_4c/relu_1x1"
  type: "ReLU"
  bottom: "inception_4c/1x1"
  top: "inception_4c/1x1"
}
layer {
  name: "inception_4c/3x3_reduce"
  type: "Convolution"
  bottom: "inception_4b/output"
  top: "inception_4c/3x3_reduce"
  param {
    lr_mult: 1
    decay_mult: 1
  }
  param {
    lr_mult: 2
    decay_mult: 0
  }
  convolution_param {
    num_output: 128
    kernel_size: 1
    weight_filler {
      type: "xavier"
      std: 0.09
    }
    bias_filler {
      type: "constant"
      value: 0.2
    }
  }
}
layer {
  name: "inception_4c/relu_3x3_reduce"
  type: "ReLU"
  bottom: "inception_4c/3x3_reduce"
  top: "inception_4c/3x3_reduce"
}
layer {
  name: "inception_4c/3x3"
  type: "Convolution"
  bottom: "inception_4c/3x3_reduce"
  top: "inception_4c/3x3"
  param {
    lr_mult: 1
    decay_mult: 1
  }
  param {
    lr_mult: 2
    decay_mult: 0
  }
  convolution_param {
    num_output: 256
    pad: 1
    kernel_size: 3
    weight_filler {
      type: "xavier"
      std: 0.03
    }
    bias_filler {
      type: "constant"
      value: 0.2
    }
  }
}
layer {
  name: "inception_4c/relu_3x3"
  type: "ReLU"
  bottom: "inception_4c/3x3"
  top: "inception_4c/3x3"
}
layer {
  name: "inception_4c/5x5_reduce"
  type: "Convolution"
  bottom: "inception_4b/output"
  top: "inception_4c/5x5_reduce"
  param {
    lr_mult: 1
    decay_mult: 1
  }
  param {
    lr_mult: 2
    decay_mult: 0
  }
  convolution_param {
    num_output: 24
    kernel_size: 1
    weight_filler {
      type: "xavier"
      std: 0.2
    }
    bias_filler {
      type: "constant"
      value: 0.2
    }
  }
}
layer {
  name: "inception_4c/relu_5x5_reduce"
  type: "ReLU"
  bottom: "inception_4c/5x5_reduce"
  top: "inception_4c/5x5_reduce"
}
layer {
  name: "inception_4c/5x5"
  type: "Convolution"
  bottom: "inception_4c/5x5_reduce"
  top: "inception_4c/5x5"
  param {
    lr_mult: 1
    decay_mult: 1
  }
  param {
    lr_mult: 2
    decay_mult: 0
  }
  convolution_param {
    num_output: 64
    pad: 2
    kernel_size: 5
    weight_filler {
      type: "xavier"
      std: 0.03
    }
    bias_filler {
      type: "constant"
      value: 0.2
    }
  }
}
layer {
  name: "inception_4c/relu_5x5"
  type: "ReLU"
  bottom: "inception_4c/5x5"
  top: "inception_4c/5x5"
}
layer {
  name: "inception_4c/pool"
  type: "Pooling"
  bottom: "inception_4b/output"
  top: "inception_4c/pool"
  pooling_param {
    pool: MAX
    kernel_size: 3
    stride: 1
    pad: 1
  }
}
layer {
  name: "inception_4c/pool_proj"
  type: "Convolution"
  bottom: "inception_4c/pool"
  top: "inception_4c/pool_proj"
  param {
    lr_mult: 1
    decay_mult: 1
  }
  param {
    lr_mult: 2
    decay_mult: 0
  }
  convolution_param {
    num_output: 64
    kernel_size: 1
    weight_filler {
      type: "xavier"
      std: 0.1
    }
    bias_filler {
      type: "constant"
      value: 0.2
    }
  }
}
layer {
  name: "inception_4c/relu_pool_proj"
  type: "ReLU"
  bottom: "inception_4c/pool_proj"
  top: "inception_4c/pool_proj"
}
layer {
  name: "inception_4c/output"
  type: "Concat"
  bottom: "inception_4c/1x1"
  bottom: "inception_4c/3x3"
  bottom: "inception_4c/5x5"
  bottom: "inception_4c/pool_proj"
  top: "inception_4c/output"
}
layer {
  name: "inception_4d/1x1"
  type: "Convolution"
  bottom: "inception_4c/output"
  top: "inception_4d/1x1"
  param {
    lr_mult: 1
    decay_mult: 1
  }
  param {
    lr_mult: 2
    decay_mult: 0
  }
  convolution_param {
    num_output: 112
    kernel_size: 1
    weight_filler {
      type: "xavier"
      std: 0.03
    }
    bias_filler {
      type: "constant"
      value: 0.2
    }
  }
}
layer {
  name: "inception_4d/relu_1x1"
  type: "ReLU"
  bottom: "inception_4d/1x1"
  top: "inception_4d/1x1"
}
layer {
  name: "inception_4d/3x3_reduce"
  type: "Convolution"
  bottom: "inception_4c/output"
  top: "inception_4d/3x3_reduce"
  param {
    lr_mult: 1
    decay_mult: 1
  }
  param {
    lr_mult: 2
    decay_mult: 0
  }
  convolution_param {
    num_output: 144
    kernel_size: 1
    weight_filler {
      type: "xavier"
      std: 0.09
    }
    bias_filler {
      type: "constant"
      value: 0.2
    }
  }
}
layer {
  name: "inception_4d/relu_3x3_reduce"
  type: "ReLU"
  bottom: "inception_4d/3x3_reduce"
  top: "inception_4d/3x3_reduce"
}
layer {
  name: "inception_4d/3x3"
  type: "Convolution"
  bottom: "inception_4d/3x3_reduce"
  top: "inception_4d/3x3"
  param {
    lr_mult: 1
    decay_mult: 1
  }
  param {
    lr_mult: 2
    decay_mult: 0
  }
  convolution_param {
    num_output: 288
    pad: 1
    kernel_size: 3
    weight_filler {
      type: "xavier"
      std: 0.03
    }
    bias_filler {
      type: "constant"
      value: 0.2
    }
  }
}
layer {
  name: "inception_4d/relu_3x3"
  type: "ReLU"
  bottom: "inception_4d/3x3"
  top: "inception_4d/3x3"
}
layer {
  name: "inception_4d/5x5_reduce"
  type: "Convolution"
  bottom: "inception_4c/output"
  top: "inception_4d/5x5_reduce"
  param {
    lr_mult: 1
    decay_mult: 1
  }
  param {
    lr_mult: 2
    decay_mult: 0
  }
  convolution_param {
    num_output: 32
    kernel_size: 1
    weight_filler {
      type: "xavier"
      std: 0.2
    }
    bias_filler {
      type: "constant"
      value: 0.2
    }
  }
}
layer {
  name: "inception_4d/relu_5x5_reduce"
  type: "ReLU"
  bottom: "inception_4d/5x5_reduce"
  top: "inception_4d/5x5_reduce"
}
layer {
  name: "inception_4d/5x5"
  type: "Convolution"
  bottom: "inception_4d/5x5_reduce"
  top: "inception_4d/5x5"
  param {
    lr_mult: 1
    decay_mult: 1
  }
  param {
    lr_mult: 2
    decay_mult: 0
  }
  convolution_param {
    num_output: 64
    pad: 2
    kernel_size: 5
    weight_filler {
      type: "xavier"
      std: 0.03
    }
    bias_filler {
      type: "constant"
      value: 0.2
    }
  }
}
layer {
  name: "inception_4d/relu_5x5"
  type: "ReLU"
  bottom: "inception_4d/5x5"
  top: "inception_4d/5x5"
}
layer {
  name: "inception_4d/pool"
  type: "Pooling"
  bottom: "inception_4c/output"
  top: "inception_4d/pool"
  pooling_param {
    pool: MAX
    kernel_size: 3
    stride: 1
    pad: 1
  }
}
layer {
  name: "inception_4d/pool_proj"
  type: "Convolution"
  bottom: "inception_4d/pool"
  top: "inception_4d/pool_proj"
  param {
    lr_mult: 1
    decay_mult: 1
  }
  param {
    lr_mult: 2
    decay_mult: 0
  }
  convolution_param {
    num_output: 64
    kernel_size: 1
    weight_filler {
      type: "xavier"
      std: 0.1
    }
    bias_filler {
      type: "constant"
      value: 0.2
    }
  }
}
layer {
  name: "inception_4d/relu_pool_proj"
  type: "ReLU"
  bottom: "inception_4d/pool_proj"
  top: "inception_4d/pool_proj"
}
layer {
  name: "inception_4d/output"
  type: "Concat"
  bottom: "inception_4d/1x1"
  bottom: "inception_4d/3x3"
  bottom: "inception_4d/5x5"
  bottom: "inception_4d/pool_proj"
  top: "inception_4d/output"
}
layer {
  name: "inception_4e/1x1"
  type: "Convolution"
  bottom: "inception_4d/output"
  top: "inception_4e/1x1"
  param {
    lr_mult: 1
    decay_mult: 1
  }
  param {
    lr_mult: 2
    decay_mult: 0
  }
  convolution_param {
    num_output: 256
    kernel_size: 1
    weight_filler {
      type: "xavier"
      std: 0.03
    }
    bias_filler {
      type: "constant"
      value: 0.2
    }
  }
}
layer {
  name: "inception_4e/relu_1x1"
  type: "ReLU"
  bottom: "inception_4e/1x1"
  top: "inception_4e/1x1"
}
layer {
  name: "inception_4e/3x3_reduce"
  type: "Convolution"
  bottom: "inception_4d/output"
  top: "inception_4e/3x3_reduce"
  param {
    lr_mult: 1
    decay_mult: 1
  }
  param {
    lr_mult: 2
    decay_mult: 0
  }
  convolution_param {
    num_output: 160
    kernel_size: 1
    weight_filler {
      type: "xavier"
      std: 0.09
    }
    bias_filler {
      type: "constant"
      value: 0.2
    }
  }
}
layer {
  name: "inception_4e/relu_3x3_reduce"
  type: "ReLU"
  bottom: "inception_4e/3x3_reduce"
  top: "inception_4e/3x3_reduce"
}
layer {
  name: "inception_4e/3x3"
  type: "Convolution"
  bottom: "inception_4e/3x3_reduce"
  top: "inception_4e/3x3"
  param {
    lr_mult: 1
    decay_mult: 1
  }
  param {
    lr_mult: 2
    decay_mult: 0
  }
  convolution_param {
    num_output: 320
    pad: 1
    kernel_size: 3
    weight_filler {
      type: "xavier"
      std: 0.03
    }
    bias_filler {
      type: "constant"
      value: 0.2
    }
  }
}
layer {
  name: "inception_4e/relu_3x3"
  type: "ReLU"
  bottom: "inception_4e/3x3"
  top: "inception_4e/3x3"
}
layer {
  name: "inception_4e/5x5_reduce"
  type: "Convolution"
  bottom: "inception_4d/output"
  top: "inception_4e/5x5_reduce"
  param {
    lr_mult: 1
    decay_mult: 1
  }
  param {
    lr_mult: 2
    decay_mult: 0
  }
  convolution_param {
    num_output: 32
    kernel_size: 1
    weight_filler {
      type: "xavier"
      std: 0.2
    }
    bias_filler {
      type: "constant"
      value: 0.2
    }
  }
}
layer {
  name: "inception_4e/relu_5x5_reduce"
  type: "ReLU"
  bottom: "inception_4e/5x5_reduce"
  top: "inception_4e/5x5_reduce"
}
layer {
  name: "inception_4e/5x5"
  type: "Convolution"
  bottom: "inception_4e/5x5_reduce"
  top: "inception_4e/5x5"
  param {
    lr_mult: 1
    decay_mult: 1
  }
  param {
    lr_mult: 2
    decay_mult: 0
  }
  convolution_param {
    num_output: 128
    pad: 2
    kernel_size: 5
    weight_filler {
      type: "xavier"
      std: 0.03
    }
    bias_filler {
      type: "constant"
      value: 0.2
    }
  }
}
layer {
  name: "inception_4e/relu_5x5"
  type: "ReLU"
  bottom: "inception_4e/5x5"
  top: "inception_4e/5x5"
}
layer {
  name: "inception_4e/pool"
  type: "Pooling"
  bottom: "inception_4d/output"
  top: "inception_4e/pool"
  pooling_param {
    pool: MAX
    kernel_size: 3
    stride: 1
    pad: 1
  }
}
layer {
  name: "inception_4e/pool_proj"
  type: "Convolution"
  bottom: "inception_4e/pool"
  top: "inception_4e/pool_proj"
  param {
    lr_mult: 1
    decay_mult: 1
  }
  param {
    lr_mult: 2
    decay_mult: 0
  }
  convolution_param {
    num_output: 128
    kernel_size: 1
    weight_filler {
      type: "xavier"
      std: 0.1
    }
    bias_filler {
      type: "constant"
      value: 0.2
    }
  }
}
layer {
  name: "inception_4e/relu_pool_proj"
  type: "ReLU"
  bottom: "inception_4e/pool_proj"
  top: "inception_4e/pool_proj"
}
layer {
  name: "inception_4e/output"
  type: "Concat"
  bottom: "inception_4e/1x1"
  bottom: "inception_4e/3x3"
  bottom: "inception_4e/5x5"
  bottom: "inception_4e/pool_proj"
  top: "inception_4e/output"
}
layer {
  name: "pool4/3x3_s2"
  type: "Pooling"
  bottom: "inception_4e/output"
  top: "pool4/3x3_s2"
  pooling_param {
    pool: MAX
    kernel_size: 3
    stride: 2
  }
}
layer {
  name: "inception_5a/1x1"
  type: "Convolution"
  bottom: "pool4/3x3_s2"
  top: "inception_5a/1x1"
  param {
    lr_mult: 1
    decay_mult: 1
  }
  param {
    lr_mult: 2
    decay_mult: 0
  }
  convolution_param {
    num_output: 256
    kernel_size: 1
    weight_filler {
      type: "xavier"
      std: 0.03
    }
    bias_filler {
      type: "constant"
      value: 0.2
    }
  }
}
layer {
  name: "inception_5a/relu_1x1"
  type: "ReLU"
  bottom: "inception_5a/1x1"
  top: "inception_5a/1x1"
}
layer {
  name: "inception_5a/3x3_reduce"
  type: "Convolution"
  bottom: "pool4/3x3_s2"
  top: "inception_5a/3x3_reduce"
  param {
    lr_mult: 1
    decay_mult: 1
  }
  param {
    lr_mult: 2
    decay_mult: 0
  }
  convolution_param {
    num_output: 160
    kernel_size: 1
    weight_filler {
      type: "xavier"
      std: 0.09
    }
    bias_filler {
      type: "constant"
      value: 0.2
    }
  }
}
layer {
  name: "inception_5a/relu_3x3_reduce"
  type: "ReLU"
  bottom: "inception_5a/3x3_reduce"
  top: "inception_5a/3x3_reduce"
}
layer {
  name: "inception_5a/3x3"
  type: "Convolution"
  bottom: "inception_5a/3x3_reduce"
  top: "inception_5a/3x3"
  param {
    lr_mult: 1
    decay_mult: 1
  }
  param {
    lr_mult: 2
    decay_mult: 0
  }
  convolution_param {
    num_output: 320
    pad: 1
    kernel_size: 3
    weight_filler {
      type: "xavier"
      std: 0.03
    }
    bias_filler {
      type: "constant"
      value: 0.2
    }
  }
}
layer {
  name: "inception_5a/relu_3x3"
  type: "ReLU"
  bottom: "inception_5a/3x3"
  top: "inception_5a/3x3"
}
layer {
  name: "inception_5a/5x5_reduce"
  type: "Convolution"
  bottom: "pool4/3x3_s2"
  top: "inception_5a/5x5_reduce"
  param {
    lr_mult: 1
    decay_mult: 1
  }
  param {
    lr_mult: 2
    decay_mult: 0
  }
  convolution_param {
    num_output: 32
    kernel_size: 1
    weight_filler {
      type: "xavier"
      std: 0.2
    }
    bias_filler {
      type: "constant"
      value: 0.2
    }
I0913 20:24:47.552013  3939 layer_factory.hpp:77] Creating layer data
I0913 20:24:47.552040  3939 net.cpp:91] Creating Layer data
I0913 20:24:47.552050  3939 net.cpp:399] data -> data
I0913 20:24:48.072980  3939 net.cpp:141] Setting up data
I0913 20:24:48.073051  3939 net.cpp:148] Top shape: 10 3 224 224 (1505280)
I0913 20:24:48.073058  3939 net.cpp:156] Memory required for data: 6021120
I0913 20:24:48.073077  3939 layer_factory.hpp:77] Creating layer conv1/7x7_s2
I0913 20:24:48.073114  3939 net.cpp:91] Creating Layer conv1/7x7_s2
I0913 20:24:48.073123  3939 net.cpp:425] conv1/7x7_s2 <- data
I0913 20:24:48.073137  3939 net.cpp:399] conv1/7x7_s2 -> conv1/7x7_s2
I0913 20:24:48.249248  3939 net.cpp:141] Setting up conv1/7x7_s2
I0913 20:24:48.249294  3939 net.cpp:148] Top shape: 10 64 112 112 (8028160)
I0913 20:24:48.249301  3939 net.cpp:156] Memory required for data: 38133760
I0913 20:24:48.249325  3939 layer_factory.hpp:77] Creating layer conv1/relu_7x7
I0913 20:24:48.249344  3939 net.cpp:91] Creating Layer conv1/relu_7x7
I0913 20:24:48.249351  3939 net.cpp:425] conv1/relu_7x7 <- conv1/7x7_s2
I0913 20:24:48.249359  3939 net.cpp:386] conv1/relu_7x7 -> conv1/7x7_s2 (in-place)
I0913 20:24:48.249728  3939 net.cpp:141] Setting up conv1/relu_7x7
I0913 20:24:48.249742  3939 net.cpp:148] Top shape: 10 64 112 112 (8028160)
I0913 20:24:48.249747  3939 net.cpp:156] Memory required for data: 70246400
I0913 20:24:48.249752  3939 layer_factory.hpp:77] Creating layer pool1/3x3_s2
I0913 20:24:48.249763  3939 net.cpp:91] Creating Layer pool1/3x3_s2
I0913 20:24:48.249769  3939 net.cpp:425] pool1/3x3_s2 <- conv1/7x7_s2
I0913 20:24:48.249776  3939 net.cpp:399] pool1/3x3_s2 -> pool1/3x3_s2
I0913 20:24:48.249846  3939 net.cpp:141] Setting up pool1/3x3_s2
I0913 20:24:48.249856  3939 net.cpp:148] Top shape: 10 64 56 56 (2007040)
I0913 20:24:48.249861  3939 net.cpp:156] Memory required for data: 78274560
I0913 20:24:48.249866  3939 layer_factory.hpp:77] Creating layer pool1/norm1
I0913 20:24:48.249881  3939 net.cpp:91] Creating Layer pool1/norm1
I0913 20:24:48.249887  3939 net.cpp:425] pool1/norm1 <- pool1/3x3_s2
I0913 20:24:48.249894  3939 net.cpp:399] pool1/norm1 -> pool1/norm1
I0913 20:24:48.250133  3939 net.cpp:141] Setting up pool1/norm1
I0913 20:24:48.250146  3939 net.cpp:148] Top shape: 10 64 56 56 (2007040)
I0913 20:24:48.250150  3939 net.cpp:156] Memory required for data: 86302720
I0913 20:24:48.250155  3939 layer_factory.hpp:77] Creating layer conv2/3x3_reduce
I0913 20:24:48.250174  3939 net.cpp:91] Creating Layer conv2/3x3_reduce
I0913 20:24:48.250180  3939 net.cpp:425] conv2/3x3_reduce <- pool1/norm1
I0913 20:24:48.250187  3939 net.cpp:399] conv2/3x3_reduce -> conv2/3x3_reduce
I0913 20:24:48.252135  3939 net.cpp:141] Setting up conv2/3x3_reduce
I0913 20:24:48.252153  3939 net.cpp:148] Top shape: 10 64 56 56 (2007040)
I0913 20:24:48.252158  3939 net.cpp:156] Memory required for data: 94330880
I0913 20:24:48.252169  3939 layer_factory.hpp:77] Creating layer conv2/relu_3x3_reduce
I0913 20:24:48.252178  3939 net.cpp:91] Creating Layer conv2/relu_3x3_reduce
I0913 20:24:48.252184  3939 net.cpp:425] conv2/relu_3x3_reduce <- conv2/3x3_reduce
I0913 20:24:48.252190  3939 net.cpp:386] conv2/relu_3x3_reduce -> conv2/3x3_reduce (in-place)
I0913 20:24:48.252549  3939 net.cpp:141] Setting up conv2/relu_3x3_reduce
I0913 20:24:48.252562  3939 net.cpp:148] Top shape: 10 64 56 56 (2007040)
I0913 20:24:48.252568  3939 net.cpp:156] Memory required for data: 102359040
I0913 20:24:48.252573  3939 layer_factory.hpp:77] Creating layer conv2/3x3
I0913 20:24:48.252588  3939 net.cpp:91] Creating Layer conv2/3x3
I0913 20:24:48.252593  3939 net.cpp:425] conv2/3x3 <- conv2/3x3_reduce
I0913 20:24:48.252600  3939 net.cpp:399] conv2/3x3 -> conv2/3x3
I0913 20:24:48.255545  3939 net.cpp:141] Setting up conv2/3x3
I0913 20:24:48.255564  3939 net.cpp:148] Top shape: 10 192 56 56 (6021120)
I0913 20:24:48.255569  3939 net.cpp:156] Memory required for data: 126443520
I0913 20:24:48.255581  3939 layer_factory.hpp:77] Creating layer conv2/relu_3x3
I0913 20:24:48.255591  3939 net.cpp:91] Creating Layer conv2/relu_3x3
I0913 20:24:48.255597  3939 net.cpp:425] conv2/relu_3x3 <- conv2/3x3
I0913 20:24:48.255604  3939 net.cpp:386] conv2/relu_3x3 -> conv2/3x3 (in-place)
I0913 20:24:48.255815  3939 net.cpp:141] Setting up conv2/relu_3x3
I0913 20:24:48.255826  3939 net.cpp:148] Top shape: 10 192 56 56 (6021120)
I0913 20:24:48.255831  3939 net.cpp:156] Memory required for data: 150528000
I0913 20:24:48.255836  3939 layer_factory.hpp:77] Creating layer conv2/norm2
I0913 20:24:48.255846  3939 net.cpp:91] Creating Layer conv2/norm2
I0913 20:24:48.255851  3939 net.cpp:425] conv2/norm2 <- conv2/3x3
I0913 20:24:48.255857  3939 net.cpp:399] conv2/norm2 -> conv2/norm2
I0913 20:24:48.256271  3939 net.cpp:141] Setting up conv2/norm2
I0913 20:24:48.256285  3939 net.cpp:148] Top shape: 10 192 56 56 (6021120)
I0913 20:24:48.256290  3939 net.cpp:156] Memory required for data: 174612480
I0913 20:24:48.256295  3939 layer_factory.hpp:77] Creating layer pool2/3x3_s2
I0913 20:24:48.256304  3939 net.cpp:91] Creating Layer pool2/3x3_s2
I0913 20:24:48.256309  3939 net.cpp:425] pool2/3x3_s2 <- conv2/norm2
I0913 20:24:48.256316  3939 net.cpp:399] pool2/3x3_s2 -> pool2/3x3_s2
I0913 20:24:48.256361  3939 net.cpp:141] Setting up pool2/3x3_s2
I0913 20:24:48.256369  3939 net.cpp:148] Top shape: 10 192 28 28 (1505280)
I0913 20:24:48.256373  3939 net.cpp:156] Memory required for data: 180633600
I0913 20:24:48.256377  3939 layer_factory.hpp:77] Creating layer pool2/3x3_s2_pool2/3x3_s2_0_split
I0913 20:24:48.256394  3939 net.cpp:91] Creating Layer pool2/3x3_s2_pool2/3x3_s2_0_split
I0913 20:24:48.256399  3939 net.cpp:425] pool2/3x3_s2_pool2/3x3_s2_0_split <- pool2/3x3_s2
I0913 20:24:48.256407  3939 net.cpp:399] pool2/3x3_s2_pool2/3x3_s2_0_split -> pool2/3x3_s2_pool2/3x3_s2_0_split_0
I0913 20:24:48.256417  3939 net.cpp:399] pool2/3x3_s2_pool2/3x3_s2_0_split -> pool2/3x3_s2_pool2/3x3_s2_0_split_1
I0913 20:24:48.256425  3939 net.cpp:399] pool2/3x3_s2_pool2/3x3_s2_0_split -> pool2/3x3_s2_pool2/3x3_s2_0_split_2
I0913 20:24:48.256433  3939 net.cpp:399] pool2/3x3_s2_pool2/3x3_s2_0_split -> pool2/3x3_s2_pool2/3x3_s2_0_split_3
I0913 20:24:48.256496  3939 net.cpp:141] Setting up pool2/3x3_s2_pool2/3x3_s2_0_split
I0913 20:24:48.256505  3939 net.cpp:148] Top shape: 10 192 28 28 (1505280)
I0913 20:24:48.256510  3939 net.cpp:148] Top shape: 10 192 28 28 (1505280)
I0913 20:24:48.256516  3939 net.cpp:148] Top shape: 10 192 28 28 (1505280)
I0913 20:24:48.256521  3939 net.cpp:148] Top shape: 10 192 28 28 (1505280)
I0913 20:24:48.256525  3939 net.cpp:156] Memory required for data: 204718080
I0913 20:24:48.256530  3939 layer_factory.hpp:77] Creating layer inception_3a/1x1
I0913 20:24:48.256542  3939 net.cpp:91] Creating Layer inception_3a/1x1
I0913 20:24:48.256548  3939 net.cpp:425] inception_3a/1x1 <- pool2/3x3_s2_pool2/3x3_s2_0_split_0
I0913 20:24:48.256569  3939 net.cpp:399] inception_3a/1x1 -> inception_3a/1x1
I0913 20:24:48.258461  3939 net.cpp:141] Setting up inception_3a/1x1
I0913 20:24:48.258478  3939 net.cpp:148] Top shape: 10 64 28 28 (501760)
I0913 20:24:48.258483  3939 net.cpp:156] Memory required for data: 206725120
I0913 20:24:48.258492  3939 layer_factory.hpp:77] Creating layer inception_3a/relu_1x1
I0913 20:24:48.258502  3939 net.cpp:91] Creating Layer inception_3a/relu_1x1
I0913 20:24:48.258507  3939 net.cpp:425] inception_3a/relu_1x1 <- inception_3a/1x1
I0913 20:24:48.258517  3939 net.cpp:386] inception_3a/relu_1x1 -> inception_3a/1x1 (in-place)
I0913 20:24:48.258898  3939 net.cpp:141] Setting up inception_3a/relu_1x1
I0913 20:24:48.258909  3939 net.cpp:148] Top shape: 10 64 28 28 (501760)
I0913 20:24:48.258914  3939 net.cpp:156] Memory required for data: 208732160
I0913 20:24:48.258919  3939 layer_factory.hpp:77] Creating layer inception_3a/3x3_reduce
I0913 20:24:48.258934  3939 net.cpp:91] Creating Layer inception_3a/3x3_reduce
I0913 20:24:48.258940  3939 net.cpp:425] inception_3a/3x3_reduce <- pool2/3x3_s2_pool2/3x3_s2_0_split_1
I0913 20:24:48.258951  3939 net.cpp:399] inception_3a/3x3_reduce -> inception_3a/3x3_reduce
I0913 20:24:48.261351  3939 net.cpp:141] Setting up inception_3a/3x3_reduce
I0913 20:24:48.261369  3939 net.cpp:148] Top shape: 10 96 28 28 (752640)
I0913 20:24:48.261374  3939 net.cpp:156] Memory required for data: 211742720
I0913 20:24:48.261389  3939 layer_factory.hpp:77] Creating layer inception_3a/relu_3x3_reduce
I0913 20:24:48.261399  3939 net.cpp:91] Creating Layer inception_3a/relu_3x3_reduce
I0913 20:24:48.261404  3939 net.cpp:425] inception_3a/relu_3x3_reduce <- inception_3a/3x3_reduce
I0913 20:24:48.261412  3939 net.cpp:386] inception_3a/relu_3x3_reduce -> inception_3a/3x3_reduce (in-place)
I0913 20:24:48.261649  3939 net.cpp:141] Setting up inception_3a/relu_3x3_reduce
I0913 20:24:48.261660  3939 net.cpp:148] Top shape: 10 96 28 28 (752640)
I0913 20:24:48.261664  3939 net.cpp:156] Memory required for data: 214753280
I0913 20:24:48.261669  3939 layer_factory.hpp:77] Creating layer inception_3a/3x3
I0913 20:24:48.261689  3939 net.cpp:91] Creating Layer inception_3a/3x3
I0913 20:24:48.261694  3939 net.cpp:425] inception_3a/3x3 <- inception_3a/3x3_reduce
I0913 20:24:48.261703  3939 net.cpp:399] inception_3a/3x3 -> inception_3a/3x3
I0913 20:24:48.263835  3939 net.cpp:141] Setting up inception_3a/3x3
I0913 20:24:48.263852  3939 net.cpp:148] Top shape: 10 128 28 28 (1003520)
I0913 20:24:48.263857  3939 net.cpp:156] Memory required for data: 218767360
I0913 20:24:48.263865  3939 layer_factory.hpp:77] Creating layer inception_3a/relu_3x3
I0913 20:24:48.263876  3939 net.cpp:91] Creating Layer inception_3a/relu_3x3
I0913 20:24:48.263882  3939 net.cpp:425] inception_3a/relu_3x3 <- inception_3a/3x3
I0913 20:24:48.263888  3939 net.cpp:386] inception_3a/relu_3x3 -> inception_3a/3x3 (in-place)
I0913 20:24:48.264279  3939 net.cpp:141] Setting up inception_3a/relu_3x3
I0913 20:24:48.264292  3939 net.cpp:148] Top shape: 10 128 28 28 (1003520)
I0913 20:24:48.264297  3939 net.cpp:156] Memory required for data: 222781440
I0913 20:24:48.264302  3939 layer_factory.hpp:77] Creating layer inception_3a/5x5_reduce
I0913 20:24:48.264317  3939 net.cpp:91] Creating Layer inception_3a/5x5_reduce
I0913 20:24:48.264322  3939 net.cpp:425] inception_3a/5x5_reduce <- pool2/3x3_s2_pool2/3x3_s2_0_split_2
I0913 20:24:48.264333  3939 net.cpp:399] inception_3a/5x5_reduce -> inception_3a/5x5_reduce
I0913 20:24:48.265552  3939 net.cpp:141] Setting up inception_3a/5x5_reduce
I0913 20:24:48.265573  3939 net.cpp:148] Top shape: 10 16 28 28 (125440)
I0913 20:24:48.265593  3939 net.cpp:156] Memory required for data: 223283200
I0913 20:24:48.265601  3939 layer_factory.hpp:77] Creating layer inception_3a/relu_5x5_reduce
I0913 20:24:48.265609  3939 net.cpp:91] Creating Layer inception_3a/relu_5x5_reduce
I0913 20:24:48.265615  3939 net.cpp:425] inception_3a/relu_5x5_reduce <- inception_3a/5x5_reduce
I0913 20:24:48.265621  3939 net.cpp:386] inception_3a/relu_5x5_reduce -> inception_3a/5x5_reduce (in-place)
I0913 20:24:48.266003  3939 net.cpp:141] Setting up inception_3a/relu_5x5_reduce
I0913 20:24:48.266018  3939 net.cpp:148] Top shape: 10 16 28 28 (125440)
I0913 20:24:48.266022  3939 net.cpp:156] Memory required for data: 223784960
I0913 20:24:48.266027  3939 layer_factory.hpp:77] Creating layer inception_3a/5x5
I0913 20:24:48.266043  3939 net.cpp:91] Creating Layer inception_3a/5x5
I0913 20:24:48.266049  3939 net.cpp:425] inception_3a/5x5 <- inception_3a/5x5_reduce
I0913 20:24:48.266057  3939 net.cpp:399] inception_3a/5x5 -> inception_3a/5x5
I0913 20:24:48.267973  3939 net.cpp:141] Setting up inception_3a/5x5
I0913 20:24:48.267992  3939 net.cpp:148] Top shape: 10 32 28 28 (250880)
I0913 20:24:48.267995  3939 net.cpp:156] Memory required for data: 224788480
I0913 20:24:48.268004  3939 layer_factory.hpp:77] Creating layer inception_3a/relu_5x5
I0913 20:24:48.268013  3939 net.cpp:91] Creating Layer inception_3a/relu_5x5
I0913 20:24:48.268018  3939 net.cpp:425] inception_3a/relu_5x5 <- inception_3a/5x5
I0913 20:24:48.268034  3939 net.cpp:386] inception_3a/relu_5x5 -> inception_3a/5x5 (in-place)
I0913 20:24:48.268270  3939 net.cpp:141] Setting up inception_3a/relu_5x5
I0913 20:24:48.268285  3939 net.cpp:148] Top shape: 10 32 28 28 (250880)
I0913 20:24:48.268288  3939 net.cpp:156] Memory required for data: 225792000
I0913 20:24:48.268293  3939 layer_factory.hpp:77] Creating layer inception_3a/pool
I0913 20:24:48.268302  3939 net.cpp:91] Creating Layer inception_3a/pool
I0913 20:24:48.268307  3939 net.cpp:425] inception_3a/pool <- pool2/3x3_s2_pool2/3x3_s2_0_split_3
I0913 20:24:48.268314  3939 net.cpp:399] inception_3a/pool -> inception_3a/pool
I0913 20:24:48.268383  3939 net.cpp:141] Setting up inception_3a/pool
I0913 20:24:48.268391  3939 net.cpp:148] Top shape: 10 192 28 28 (1505280)
I0913 20:24:48.268396  3939 net.cpp:156] Memory required for data: 231813120
I0913 20:24:48.268400  3939 layer_factory.hpp:77] Creating layer inception_3a/pool_proj
I0913 20:24:48.268414  3939 net.cpp:91] Creating Layer inception_3a/pool_proj
I0913 20:24:48.268420  3939 net.cpp:425] inception_3a/pool_proj <- inception_3a/pool
I0913 20:24:48.268430  3939 net.cpp:399] inception_3a/pool_proj -> inception_3a/pool_proj
I0913 20:24:48.269783  3939 net.cpp:141] Setting up inception_3a/pool_proj
I0913 20:24:48.269799  3939 net.cpp:148] Top shape: 10 32 28 28 (250880)
I0913 20:24:48.269804  3939 net.cpp:156] Memory required for data: 232816640
I0913 20:24:48.269820  3939 layer_factory.hpp:77] Creating layer inception_3a/relu_pool_proj
I0913 20:24:48.269831  3939 net.cpp:91] Creating Layer inception_3a/relu_pool_proj
I0913 20:24:48.269836  3939 net.cpp:425] inception_3a/relu_pool_proj <- inception_3a/pool_proj
I0913 20:24:48.269843  3939 net.cpp:386] inception_3a/relu_pool_proj -> inception_3a/pool_proj (in-place)
I0913 20:24:48.270223  3939 net.cpp:141] Setting up inception_3a/relu_pool_proj
I0913 20:24:48.270236  3939 net.cpp:148] Top shape: 10 32 28 28 (250880)
I0913 20:24:48.270241  3939 net.cpp:156] Memory required for data: 233820160
I0913 20:24:48.270244  3939 layer_factory.hpp:77] Creating layer inception_3a/output
I0913 20:24:48.270262  3939 net.cpp:91] Creating Layer inception_3a/output
I0913 20:24:48.270267  3939 net.cpp:425] inception_3a/output <- inception_3a/1x1
I0913 20:24:48.270274  3939 net.cpp:425] inception_3a/output <- inception_3a/3x3
I0913 20:24:48.270279  3939 net.cpp:425] inception_3a/output <- inception_3a/5x5
I0913 20:24:48.270284  3939 net.cpp:425] inception_3a/output <- inception_3a/pool_proj
I0913 20:24:48.270290  3939 net.cpp:399] inception_3a/output -> inception_3a/output
I0913 20:24:48.270328  3939 net.cpp:141] Setting up inception_3a/output
I0913 20:24:48.270339  3939 net.cpp:148] Top shape: 10 256 28 28 (2007040)
I0913 20:24:48.270344  3939 net.cpp:156] Memory required for data: 241848320
I0913 20:24:48.270349  3939 layer_factory.hpp:77] Creating layer inception_3a/output_inception_3a/output_0_split
I0913 20:24:48.270356  3939 net.cpp:91] Creating Layer inception_3a/output_inception_3a/output_0_split
I0913 20:24:48.270361  3939 net.cpp:425] inception_3a/output_inception_3a/output_0_split <- inception_3a/output
I0913 20:24:48.270370  3939 net.cpp:399] inception_3a/output_inception_3a/output_0_split -> inception_3a/output_inception_3a/output_0_split_0
I0913 20:24:48.270377  3939 net.cpp:399] inception_3a/output_inception_3a/output_0_split -> inception_3a/output_inception_3a/output_0_split_1
I0913 20:24:48.270385  3939 net.cpp:399] inception_3a/output_inception_3a/output_0_split -> inception_3a/output_inception_3a/output_0_split_2
I0913 20:24:48.270393  3939 net.cpp:399] inception_3a/output_inception_3a/output_0_split -> inception_3a/output_inception_3a/output_0_split_3
I0913 20:24:48.270467  3939 net.cpp:141] Setting up inception_3a/output_inception_3a/output_0_split
I0913 20:24:48.270478  3939 net.cpp:148] Top shape: 10 256 28 28 (2007040)
I0913 20:24:48.270483  3939 net.cpp:148] Top shape: 10 256 28 28 (2007040)
I0913 20:24:48.270488  3939 net.cpp:148] Top shape: 10 256 28 28 (2007040)
I0913 20:24:48.270493  3939 net.cpp:148] Top shape: 10 256 28 28 (2007040)
I0913 20:24:48.270498  3939 net.cpp:156] Memory required for data: 273960960
I0913 20:24:48.270501  3939 layer_factory.hpp:77] Creating layer inception_3b/1x1
I0913 20:24:48.270515  3939 net.cpp:91] Creating Layer inception_3b/1x1
I0913 20:24:48.270520  3939 net.cpp:425] inception_3b/1x1 <- inception_3a/output_inception_3a/output_0_split_0
I0913 20:24:48.270529  3939 net.cpp:399] inception_3b/1x1 -> inception_3b/1x1
I0913 20:24:48.271917  3939 net.cpp:141] Setting up inception_3b/1x1
I0913 20:24:48.271934  3939 net.cpp:148] Top shape: 10 128 28 28 (1003520)
I0913 20:24:48.271937  3939 net.cpp:156] Memory required for data: 277975040
I0913 20:24:48.271946  3939 layer_factory.hpp:77] Creating layer inception_3b/relu_1x1
I0913 20:24:48.271955  3939 net.cpp:91] Creating Layer inception_3b/relu_1x1
I0913 20:24:48.271960  3939 net.cpp:425] inception_3b/relu_1x1 <- inception_3b/1x1
I0913 20:24:48.271966  3939 net.cpp:386] inception_3b/relu_1x1 -> inception_3b/1x1 (in-place)
I0913 20:24:48.272361  3939 net.cpp:141] Setting up inception_3b/relu_1x1
I0913 20:24:48.272375  3939 net.cpp:148] Top shape: 10 128 28 28 (1003520)
I0913 20:24:48.272380  3939 net.cpp:156] Memory required for data: 281989120
I0913 20:24:48.272385  3939 layer_factory.hpp:77] Creating layer inception_3b/3x3_reduce
I0913 20:24:48.272402  3939 net.cpp:91] Creating Layer inception_3b/3x3_reduce
I0913 20:24:48.272408  3939 net.cpp:425] inception_3b/3x3_reduce <- inception_3a/output_inception_3a/output_0_split_1
I0913 20:24:48.272415  3939 net.cpp:399] inception_3b/3x3_reduce -> inception_3b/3x3_reduce
I0913 20:24:48.274019  3939 net.cpp:141] Setting up inception_3b/3x3_reduce
I0913 20:24:48.274035  3939 net.cpp:148] Top shape: 10 128 28 28 (1003520)
I0913 20:24:48.274040  3939 net.cpp:156] Memory required for data: 286003200
I0913 20:24:48.274049  3939 layer_factory.hpp:77] Creating layer inception_3b/relu_3x3_reduce
I0913 20:24:48.274056  3939 net.cpp:91] Creating Layer inception_3b/relu_3x3_reduce
I0913 20:24:48.274062  3939 net.cpp:425] inception_3b/relu_3x3_reduce <- inception_3b/3x3_reduce
I0913 20:24:48.274073  3939 net.cpp:386] inception_3b/relu_3x3_reduce -> inception_3b/3x3_reduce (in-place)
I0913 20:24:48.274294  3939 net.cpp:141] Setting up inception_3b/relu_3x3_reduce
I0913 20:24:48.274307  3939 net.cpp:148] Top shape: 10 128 28 28 (1003520)
I0913 20:24:48.274312  3939 net.cpp:156] Memory required for data: 290017280
I0913 20:24:48.274317  3939 layer_factory.hpp:77] Creating layer inception_3b/3x3
I0913 20:24:48.274333  3939 net.cpp:91] Creating Layer inception_3b/3x3
I0913 20:24:48.274338  3939 net.cpp:425] inception_3b/3x3 <- inception_3b/3x3_reduce
I0913 20:24:48.274346  3939 net.cpp:399] inception_3b/3x3 -> inception_3b/3x3
I0913 20:24:48.278007  3939 net.cpp:141] Setting up inception_3b/3x3
I0913 20:24:48.278025  3939 net.cpp:148] Top shape: 10 192 28 28 (1505280)
I0913 20:24:48.278030  3939 net.cpp:156] Memory required for data: 296038400
I0913 20:24:48.278038  3939 layer_factory.hpp:77] Creating layer inception_3b/relu_3x3
I0913 20:24:48.278053  3939 net.cpp:91] Creating Layer inception_3b/relu_3x3
I0913 20:24:48.278059  3939 net.cpp:425] inception_3b/relu_3x3 <- inception_3b/3x3
I0913 20:24:48.278066  3939 net.cpp:386] inception_3b/relu_3x3 -> inception_3b/3x3 (in-place)
I0913 20:24:48.278453  3939 net.cpp:141] Setting up inception_3b/relu_3x3
I0913 20:24:48.278468  3939 net.cpp:148] Top shape: 10 192 28 28 (1505280)
I0913 20:24:48.278472  3939 net.cpp:156] Memory required for data: 302059520
I0913 20:24:48.278477  3939 layer_factory.hpp:77] Creating layer inception_3b/5x5_reduce
I0913 20:24:48.278493  3939 net.cpp:91] Creating Layer inception_3b/5x5_reduce
I0913 20:24:48.278499  3939 net.cpp:425] inception_3b/5x5_reduce <- inception_3a/output_inception_3a/output_0_split_2
I0913 20:24:48.278508  3939 net.cpp:399] inception_3b/5x5_reduce -> inception_3b/5x5_reduce
I0913 20:24:48.279737  3939 net.cpp:141] Setting up inception_3b/5x5_reduce
I0913 20:24:48.279757  3939 net.cpp:148] Top shape: 10 32 28 28 (250880)
I0913 20:24:48.279762  3939 net.cpp:156] Memory required for data: 303063040
I0913 20:24:48.279769  3939 layer_factory.hpp:77] Creating layer inception_3b/relu_5x5_reduce
I0913 20:24:48.279778  3939 net.cpp:91] Creating Layer inception_3b/relu_5x5_reduce
I0913 20:24:48.279783  3939 net.cpp:425] inception_3b/relu_5x5_reduce <- inception_3b/5x5_reduce
I0913 20:24:48.279790  3939 net.cpp:386] inception_3b/relu_5x5_reduce -> inception_3b/5x5_reduce (in-place)
I0913 20:24:48.280187  3939 net.cpp:141] Setting up inception_3b/relu_5x5_reduce
I0913 20:24:48.280200  3939 net.cpp:148] Top shape: 10 32 28 28 (250880)
I0913 20:24:48.280205  3939 net.cpp:156] Memory required for data: 304066560
I0913 20:24:48.280210  3939 layer_factory.hpp:77] Creating layer inception_3b/5x5
I0913 20:24:48.280225  3939 net.cpp:91] Creating Layer inception_3b/5x5
I0913 20:24:48.280231  3939 net.cpp:425] inception_3b/5x5 <- inception_3b/5x5_reduce
I0913 20:24:48.280241  3939 net.cpp:399] inception_3b/5x5 -> inception_3b/5x5
I0913 20:24:48.282831  3939 net.cpp:141] Setting up inception_3b/5x5
I0913 20:24:48.282851  3939 net.cpp:148] Top shape: 10 96 28 28 (752640)
I0913 20:24:48.282856  3939 net.cpp:156] Memory required for data: 307077120
I0913 20:24:48.282865  3939 layer_factory.hpp:77] Creating layer inception_3b/relu_5x5
I0913 20:24:48.282873  3939 net.cpp:91] Creating Layer inception_3b/relu_5x5
I0913 20:24:48.282878  3939 net.cpp:425] inception_3b/relu_5x5 <- inception_3b/5x5
I0913 20:24:48.282886  3939 net.cpp:386] inception_3b/relu_5x5 -> inception_3b/5x5 (in-place)
I0913 20:24:48.283118  3939 net.cpp:141] Setting up inception_3b/relu_5x5
I0913 20:24:48.283128  3939 net.cpp:148] Top shape: 10 96 28 28 (752640)
I0913 20:24:48.283133  3939 net.cpp:156] Memory required for data: 310087680
I0913 20:24:48.283138  3939 layer_factory.hpp:77] Creating layer inception_3b/pool
I0913 20:24:48.283148  3939 net.cpp:91] Creating Layer inception_3b/pool
I0913 20:24:48.283152  3939 net.cpp:425] inception_3b/pool <- inception_3a/output_inception_3a/output_0_split_3
I0913 20:24:48.283161  3939 net.cpp:399] inception_3b/pool -> inception_3b/pool
I0913 20:24:48.283221  3939 net.cpp:141] Setting up inception_3b/pool
I0913 20:24:48.283231  3939 net.cpp:148] Top shape: 10 256 28 28 (2007040)
I0913 20:24:48.283234  3939 net.cpp:156] Memory required for data: 318115840
I0913 20:24:48.283238  3939 layer_factory.hpp:77] Creating layer inception_3b/pool_proj
I0913 20:24:48.283253  3939 net.cpp:91] Creating Layer inception_3b/pool_proj
I0913 20:24:48.283258  3939 net.cpp:425] inception_3b/pool_proj <- inception_3b/pool
I0913 20:24:48.283267  3939 net.cpp:399] inception_3b/pool_proj -> inception_3b/pool_proj
I0913 20:24:48.284755  3939 net.cpp:141] Setting up inception_3b/pool_proj
I0913 20:24:48.284772  3939 net.cpp:148] Top shape: 10 64 28 28 (501760)
I0913 20:24:48.284777  3939 net.cpp:156] Memory required for data: 320122880
I0913 20:24:48.284786  3939 layer_factory.hpp:77] Creating layer inception_3b/relu_pool_proj
I0913 20:24:48.284795  3939 net.cpp:91] Creating Layer inception_3b/relu_pool_proj
I0913 20:24:48.284801  3939 net.cpp:425] inception_3b/relu_pool_proj <- inception_3b/pool_proj
I0913 20:24:48.284811  3939 net.cpp:386] inception_3b/relu_pool_proj -> inception_3b/pool_proj (in-place)
I0913 20:24:48.285199  3939 net.cpp:141] Setting up inception_3b/relu_pool_proj
I0913 20:24:48.285212  3939 net.cpp:148] Top shape: 10 64 28 28 (501760)
I0913 20:24:48.285215  3939 net.cpp:156] Memory required for data: 322129920
I0913 20:24:48.285220  3939 layer_factory.hpp:77] Creating layer inception_3b/output
I0913 20:24:48.285229  3939 net.cpp:91] Creating Layer inception_3b/output
I0913 20:24:48.285234  3939 net.cpp:425] inception_3b/output <- inception_3b/1x1
I0913 20:24:48.285240  3939 net.cpp:425] inception_3b/output <- inception_3b/3x3
I0913 20:24:48.285245  3939 net.cpp:425] inception_3b/output <- inception_3b/5x5
I0913 20:24:48.285250  3939 net.cpp:425] inception_3b/output <- inception_3b/pool_proj
I0913 20:24:48.285259  3939 net.cpp:399] inception_3b/output -> inception_3b/output
I0913 20:24:48.285300  3939 net.cpp:141] Setting up inception_3b/output
I0913 20:24:48.285308  3939 net.cpp:148] Top shape: 10 480 28 28 (3763200)
I0913 20:24:48.285312  3939 net.cpp:156] Memory required for data: 337182720
I0913 20:24:48.285317  3939 layer_factory.hpp:77] Creating layer pool3/3x3_s2
I0913 20:24:48.285326  3939 net.cpp:91] Creating Layer pool3/3x3_s2
I0913 20:24:48.285329  3939 net.cpp:425] pool3/3x3_s2 <- inception_3b/output
I0913 20:24:48.285336  3939 net.cpp:399] pool3/3x3_s2 -> pool3/3x3_s2
I0913 20:24:48.285395  3939 net.cpp:141] Setting up pool3/3x3_s2
I0913 20:24:48.285408  3939 net.cpp:148] Top shape: 10 480 14 14 (940800)
I0913 20:24:48.285413  3939 net.cpp:156] Memory required for data: 340945920
I0913 20:24:48.285416  3939 layer_factory.hpp:77] Creating layer pool3/3x3_s2_pool3/3x3_s2_0_split
I0913 20:24:48.285425  3939 net.cpp:91] Creating Layer pool3/3x3_s2_pool3/3x3_s2_0_split
I0913 20:24:48.285430  3939 net.cpp:425] pool3/3x3_s2_pool3/3x3_s2_0_split <- pool3/3x3_s2
I0913 20:24:48.285439  3939 net.cpp:399] pool3/3x3_s2_pool3/3x3_s2_0_split -> pool3/3x3_s2_pool3/3x3_s2_0_split_0
I0913 20:24:48.285446  3939 net.cpp:399] pool3/3x3_s2_pool3/3x3_s2_0_split -> pool3/3x3_s2_pool3/3x3_s2_0_split_1
I0913 20:24:48.285454  3939 net.cpp:399] pool3/3x3_s2_pool3/3x3_s2_0_split -> pool3/3x3_s2_pool3/3x3_s2_0_split_2
I0913 20:24:48.285462  3939 net.cpp:399] pool3/3x3_s2_pool3/3x3_s2_0_split -> pool3/3x3_s2_pool3/3x3_s2_0_split_3
I0913 20:24:48.285540  3939 net.cpp:141] Setting up pool3/3x3_s2_pool3/3x3_s2_0_split
I0913 20:24:48.285548  3939 net.cpp:148] Top shape: 10 480 14 14 (940800)
I0913 20:24:48.285557  3939 net.cpp:148] Top shape: 10 480 14 14 (940800)
I0913 20:24:48.285562  3939 net.cpp:148] Top shape: 10 480 14 14 (940800)
I0913 20:24:48.285567  3939 net.cpp:148] Top shape: 10 480 14 14 (940800)
I0913 20:24:48.285570  3939 net.cpp:156] Memory required for data: 355998720
I0913 20:24:48.285574  3939 layer_factory.hpp:77] Creating layer inception_4a/1x1
I0913 20:24:48.285585  3939 net.cpp:91] Creating Layer inception_4a/1x1
I0913 20:24:48.285591  3939 net.cpp:425] inception_4a/1x1 <- pool3/3x3_s2_pool3/3x3_s2_0_split_0
I0913 20:24:48.285603  3939 net.cpp:399] inception_4a/1x1 -> inception_4a/1x1
I0913 20:24:48.287700  3939 net.cpp:141] Setting up inception_4a/1x1
I0913 20:24:48.287716  3939 net.cpp:148] Top shape: 10 192 14 14 (376320)
I0913 20:24:48.287721  3939 net.cpp:156] Memory required for data: 357504000
I0913 20:24:48.287729  3939 layer_factory.hpp:77] Creating layer inception_4a/relu_1x1
I0913 20:24:48.287741  3939 net.cpp:91] Creating Layer inception_4a/relu_1x1
I0913 20:24:48.287747  3939 net.cpp:425] inception_4a/relu_1x1 <- inception_4a/1x1
I0913 20:24:48.287755  3939 net.cpp:386] inception_4a/relu_1x1 -> inception_4a/1x1 (in-place)
I0913 20:24:48.288152  3939 net.cpp:141] Setting up inception_4a/relu_1x1
I0913 20:24:48.288166  3939 net.cpp:148] Top shape: 10 192 14 14 (376320)
I0913 20:24:48.288170  3939 net.cpp:156] Memory required for data: 359009280
I0913 20:24:48.288174  3939 layer_factory.hpp:77] Creating layer inception_4a/3x3_reduce
I0913 20:24:48.288192  3939 net.cpp:91] Creating Layer inception_4a/3x3_reduce
I0913 20:24:48.288198  3939 net.cpp:425] inception_4a/3x3_reduce <- pool3/3x3_s2_pool3/3x3_s2_0_split_1
I0913 20:24:48.288208  3939 net.cpp:399] inception_4a/3x3_reduce -> inception_4a/3x3_reduce
I0913 20:24:48.289929  3939 net.cpp:141] Setting up inception_4a/3x3_reduce
I0913 20:24:48.289942  3939 net.cpp:148] Top shape: 10 96 14 14 (188160)
I0913 20:24:48.289947  3939 net.cpp:156] Memory required for data: 359761920
I0913 20:24:48.289964  3939 layer_factory.hpp:77] Creating layer inception_4a/relu_3x3_reduce
I0913 20:24:48.289973  3939 net.cpp:91] Creating Layer inception_4a/relu_3x3_reduce
I0913 20:24:48.289979  3939 net.cpp:425] inception_4a/relu_3x3_reduce <- inception_4a/3x3_reduce
I0913 20:24:48.289985  3939 net.cpp:386] inception_4a/relu_3x3_reduce -> inception_4a/3x3_reduce (in-place)
I0913 20:24:48.290208  3939 net.cpp:141] Setting up inception_4a/relu_3x3_reduce
I0913 20:24:48.290220  3939 net.cpp:148] Top shape: 10 96 14 14 (188160)
I0913 20:24:48.290225  3939 net.cpp:156] Memory required for data: 360514560
I0913 20:24:48.290230  3939 layer_factory.hpp:77] Creating layer inception_4a/3x3
I0913 20:24:48.290244  3939 net.cpp:91] Creating Layer inception_4a/3x3
I0913 20:24:48.290251  3939 net.cpp:425] inception_4a/3x3 <- inception_4a/3x3_reduce
I0913 20:24:48.290261  3939 net.cpp:399] inception_4a/3x3 -> inception_4a/3x3
I0913 20:24:48.293740  3939 net.cpp:141] Setting up inception_4a/3x3
I0913 20:24:48.293761  3939 net.cpp:148] Top shape: 10 208 14 14 (407680)
I0913 20:24:48.293766  3939 net.cpp:156] Memory required for data: 362145280
I0913 20:24:48.293776  3939 layer_factory.hpp:77] Creating layer inception_4a/relu_3x3
I0913 20:24:48.293787  3939 net.cpp:91] Creating Layer inception_4a/relu_3x3
I0913 20:24:48.293794  3939 net.cpp:425] inception_4a/relu_3x3 <- inception_4a/3x3
I0913 20:24:48.293802  3939 net.cpp:386] inception_4a/relu_3x3 -> inception_4a/3x3 (in-place)
I0913 20:24:48.294193  3939 net.cpp:141] Setting up inception_4a/relu_3x3
I0913 20:24:48.294204  3939 net.cpp:148] Top shape: 10 208 14 14 (407680)
I0913 20:24:48.294209  3939 net.cpp:156] Memory required for data: 363776000
I0913 20:24:48.294214  3939 layer_factory.hpp:77] Creating layer inception_4a/5x5_reduce
I0913 20:24:48.294231  3939 net.cpp:91] Creating Layer inception_4a/5x5_reduce
I0913 20:24:48.294239  3939 net.cpp:425] inception_4a/5x5_reduce <- pool3/3x3_s2_pool3/3x3_s2_0_split_2
I0913 20:24:48.294250  3939 net.cpp:399] inception_4a/5x5_reduce -> inception_4a/5x5_reduce
I0913 20:24:48.295547  3939 net.cpp:141] Setting up inception_4a/5x5_reduce
I0913 20:24:48.295562  3939 net.cpp:148] Top shape: 10 16 14 14 (31360)
I0913 20:24:48.295567  3939 net.cpp:156] Memory required for data: 363901440
I0913 20:24:48.295575  3939 layer_factory.hpp:77] Creating layer inception_4a/relu_5x5_reduce
I0913 20:24:48.295583  3939 net.cpp:91] Creating Layer inception_4a/relu_5x5_reduce
I0913 20:24:48.295589  3939 net.cpp:425] inception_4a/relu_5x5_reduce <- inception_4a/5x5_reduce
I0913 20:24:48.295596  3939 net.cpp:386] inception_4a/relu_5x5_reduce -> inception_4a/5x5_reduce (in-place)
I0913 20:24:48.295986  3939 net.cpp:141] Setting up inception_4a/relu_5x5_reduce
I0913 20:24:48.296000  3939 net.cpp:148] Top shape: 10 16 14 14 (31360)
I0913 20:24:48.296003  3939 net.cpp:156] Memory required for data: 364026880
I0913 20:24:48.296008  3939 layer_factory.hpp:77] Creating layer inception_4a/5x5
I0913 20:24:48.296025  3939 net.cpp:91] Creating Layer inception_4a/5x5
I0913 20:24:48.296031  3939 net.cpp:425] inception_4a/5x5 <- inception_4a/5x5_reduce
I0913 20:24:48.296042  3939 net.cpp:399] inception_4a/5x5 -> inception_4a/5x5
I0913 20:24:48.297544  3939 net.cpp:141] Setting up inception_4a/5x5
I0913 20:24:48.297561  3939 net.cpp:148] Top shape: 10 48 14 14 (94080)
I0913 20:24:48.297565  3939 net.cpp:156] Memory required for data: 364403200
I0913 20:24:48.297574  3939 layer_factory.hpp:77] Creating layer inception_4a/relu_5x5
I0913 20:24:48.297582  3939 net.cpp:91] Creating Layer inception_4a/relu_5x5
I0913 20:24:48.297587  3939 net.cpp:425] inception_4a/relu_5x5 <- inception_4a/5x5
I0913 20:24:48.297595  3939 net.cpp:386] inception_4a/relu_5x5 -> inception_4a/5x5 (in-place)
I0913 20:24:48.297821  3939 net.cpp:141] Setting up inception_4a/relu_5x5
I0913 20:24:48.297833  3939 net.cpp:148] Top shape: 10 48 14 14 (94080)
I0913 20:24:48.297837  3939 net.cpp:156] Memory required for data: 364779520
I0913 20:24:48.297842  3939 layer_factory.hpp:77] Creating layer inception_4a/pool
I0913 20:24:48.297854  3939 net.cpp:91] Creating Layer inception_4a/pool
I0913 20:24:48.297860  3939 net.cpp:425] inception_4a/pool <- pool3/3x3_s2_pool3/3x3_s2_0_split_3
I0913 20:24:48.297868  3939 net.cpp:399] inception_4a/pool -> inception_4a/pool
I0913 20:24:48.297929  3939 net.cpp:141] Setting up inception_4a/pool
I0913 20:24:48.297938  3939 net.cpp:148] Top shape: 10 480 14 14 (940800)
I0913 20:24:48.297941  3939 net.cpp:156] Memory required for data: 368542720
I0913 20:24:48.297946  3939 layer_factory.hpp:77] Creating layer inception_4a/pool_proj
I0913 20:24:48.297961  3939 net.cpp:91] Creating Layer inception_4a/pool_proj
I0913 20:24:48.297966  3939 net.cpp:425] inception_4a/pool_proj <- inception_4a/pool
I0913 20:24:48.297976  3939 net.cpp:399] inception_4a/pool_proj -> inception_4a/pool_proj
I0913 20:24:48.299602  3939 net.cpp:141] Setting up inception_4a/pool_proj
I0913 20:24:48.299630  3939 net.cpp:148] Top shape: 10 64 14 14 (125440)
I0913 20:24:48.299636  3939 net.cpp:156] Memory required for data: 369044480
I0913 20:24:48.299644  3939 layer_factory.hpp:77] Creating layer inception_4a/relu_pool_proj
I0913 20:24:48.299656  3939 net.cpp:91] Creating Layer inception_4a/relu_pool_proj
I0913 20:24:48.299662  3939 net.cpp:425] inception_4a/relu_pool_proj <- inception_4a/pool_proj
I0913 20:24:48.299671  3939 net.cpp:386] inception_4a/relu_pool_proj -> inception_4a/pool_proj (in-place)
I0913 20:24:48.300065  3939 net.cpp:141] Setting up inception_4a/relu_pool_proj
I0913 20:24:48.300083  3939 net.cpp:148] Top shape: 10 64 14 14 (125440)
I0913 20:24:48.300088  3939 net.cpp:156] Memory required for data: 369546240
I0913 20:24:48.300093  3939 layer_factory.hpp:77] Creating layer inception_4a/output
I0913 20:24:48.300102  3939 net.cpp:91] Creating Layer inception_4a/output
I0913 20:24:48.300107  3939 net.cpp:425] inception_4a/output <- inception_4a/1x1
I0913 20:24:48.300113  3939 net.cpp:425] inception_4a/output <- inception_4a/3x3
I0913 20:24:48.300119  3939 net.cpp:425] inception_4a/output <- inception_4a/5x5
I0913 20:24:48.300124  3939 net.cpp:425] inception_4a/output <- inception_4a/pool_proj
I0913 20:24:48.300133  3939 net.cpp:399] inception_4a/output -> inception_4a/output
I0913 20:24:48.300173  3939 net.cpp:141] Setting up inception_4a/output
I0913 20:24:48.300181  3939 net.cpp:148] Top shape: 10 512 14 14 (1003520)
I0913 20:24:48.300185  3939 net.cpp:156] Memory required for data: 373560320
I0913 20:24:48.300190  3939 layer_factory.hpp:77] Creating layer inception_4a/output_inception_4a/output_0_split
I0913 20:24:48.300204  3939 net.cpp:91] Creating Layer inception_4a/output_inception_4a/output_0_split
I0913 20:24:48.300209  3939 net.cpp:425] inception_4a/output_inception_4a/output_0_split <- inception_4a/output
I0913 20:24:48.300215  3939 net.cpp:399] inception_4a/output_inception_4a/output_0_split -> inception_4a/output_inception_4a/output_0_split_0
I0913 20:24:48.300226  3939 net.cpp:399] inception_4a/output_inception_4a/output_0_split -> inception_4a/output_inception_4a/output_0_split_1
I0913 20:24:48.300235  3939 net.cpp:399] inception_4a/output_inception_4a/output_0_split -> inception_4a/output_inception_4a/output_0_split_2
I0913 20:24:48.300243  3939 net.cpp:399] inception_4a/output_inception_4a/output_0_split -> inception_4a/output_inception_4a/output_0_split_3
I0913 20:24:48.300323  3939 net.cpp:141] Setting up inception_4a/output_inception_4a/output_0_split
I0913 20:24:48.300333  3939 net.cpp:148] Top shape: 10 512 14 14 (1003520)
I0913 20:24:48.300338  3939 net.cpp:148] Top shape: 10 512 14 14 (1003520)
I0913 20:24:48.300343  3939 net.cpp:148] Top shape: 10 512 14 14 (1003520)
I0913 20:24:48.300348  3939 net.cpp:148] Top shape: 10 512 14 14 (1003520)
I0913 20:24:48.300351  3939 net.cpp:156] Memory required for data: 389616640
I0913 20:24:48.300355  3939 layer_factory.hpp:77] Creating layer inception_4b/1x1
I0913 20:24:48.300369  3939 net.cpp:91] Creating Layer inception_4b/1x1
I0913 20:24:48.300374  3939 net.cpp:425] inception_4b/1x1 <- inception_4a/output_inception_4a/output_0_split_0
I0913 20:24:48.300385  3939 net.cpp:399] inception_4b/1x1 -> inception_4b/1x1
I0913 20:24:48.302201  3939 net.cpp:141] Setting up inception_4b/1x1
I0913 20:24:48.302232  3939 net.cpp:148] Top shape: 10 160 14 14 (313600)
I0913 20:24:48.302237  3939 net.cpp:156] Memory required for data: 390871040
I0913 20:24:48.302245  3939 layer_factory.hpp:77] Creating layer inception_4b/relu_1x1
I0913 20:24:48.302253  3939 net.cpp:91] Creating Layer inception_4b/relu_1x1
I0913 20:24:48.302259  3939 net.cpp:425] inception_4b/relu_1x1 <- inception_4b/1x1
I0913 20:24:48.302265  3939 net.cpp:386] inception_4b/relu_1x1 -> inception_4b/1x1 (in-place)
I0913 20:24:48.302651  3939 net.cpp:141] Setting up inception_4b/relu_1x1
I0913 20:24:48.302665  3939 net.cpp:148] Top shape: 10 160 14 14 (313600)
I0913 20:24:48.302670  3939 net.cpp:156] Memory required for data: 392125440
I0913 20:24:48.302675  3939 layer_factory.hpp:77] Creating layer inception_4b/3x3_reduce
I0913 20:24:48.302690  3939 net.cpp:91] Creating Layer inception_4b/3x3_reduce
I0913 20:24:48.302696  3939 net.cpp:425] inception_4b/3x3_reduce <- inception_4a/output_inception_4a/output_0_split_1
I0913 20:24:48.302705  3939 net.cpp:399] inception_4b/3x3_reduce -> inception_4b/3x3_reduce
I0913 20:24:48.308933  3939 net.cpp:141] Setting up inception_4b/3x3_reduce
I0913 20:24:48.308985  3939 net.cpp:148] Top shape: 10 112 14 14 (219520)
I0913 20:24:48.308992  3939 net.cpp:156] Memory required for data: 393003520
I0913 20:24:48.309007  3939 layer_factory.hpp:77] Creating layer inception_4b/relu_3x3_reduce
I0913 20:24:48.309026  3939 net.cpp:91] Creating Layer inception_4b/relu_3x3_reduce
I0913 20:24:48.309036  3939 net.cpp:425] inception_4b/relu_3x3_reduce <- inception_4b/3x3_reduce
I0913 20:24:48.309051  3939 net.cpp:386] inception_4b/relu_3x3_reduce -> inception_4b/3x3_reduce (in-place)
I0913 20:24:48.309799  3939 net.cpp:141] Setting up inception_4b/relu_3x3_reduce
I0913 20:24:48.309818  3939 net.cpp:148] Top shape: 10 112 14 14 (219520)
I0913 20:24:48.309825  3939 net.cpp:156] Memory required for data: 393881600
I0913 20:24:48.309830  3939 layer_factory.hpp:77] Creating layer inception_4b/3x3
I0913 20:24:48.309851  3939 net.cpp:91] Creating Layer inception_4b/3x3
I0913 20:24:48.309857  3939 net.cpp:425] inception_4b/3x3 <- inception_4b/3x3_reduce
I0913 20:24:48.310444  3939 net.cpp:399] inception_4b/3x3 -> inception_4b/3x3
I0913 20:24:48.314698  3939 net.cpp:141] Setting up inception_4b/3x3
I0913 20:24:48.314718  3939 net.cpp:148] Top shape: 10 224 14 14 (439040)
I0913 20:24:48.314723  3939 net.cpp:156] Memory required for data: 395637760
I0913 20:24:48.314733  3939 layer_factory.hpp:77] Creating layer inception_4b/relu_3x3
I0913 20:24:48.314741  3939 net.cpp:91] Creating Layer inception_4b/relu_3x3
I0913 20:24:48.314748  3939 net.cpp:425] inception_4b/relu_3x3 <- inception_4b/3x3
I0913 20:24:48.314754  3939 net.cpp:386] inception_4b/relu_3x3 -> inception_4b/3x3 (in-place)
I0913 20:24:48.315171  3939 net.cpp:141] Setting up inception_4b/relu_3x3
I0913 20:24:48.315184  3939 net.cpp:148] Top shape: 10 224 14 14 (439040)
I0913 20:24:48.315188  3939 net.cpp:156] Memory required for data: 397393920
I0913 20:24:48.315193  3939 layer_factory.hpp:77] Creating layer inception_4b/5x5_reduce
I0913 20:24:48.315222  3939 net.cpp:91] Creating Layer inception_4b/5x5_reduce
I0913 20:24:48.315228  3939 net.cpp:425] inception_4b/5x5_reduce <- inception_4a/output_inception_4a/output_0_split_2
I0913 20:24:48.315237  3939 net.cpp:399] inception_4b/5x5_reduce -> inception_4b/5x5_reduce
I0913 20:24:48.316653  3939 net.cpp:141] Setting up inception_4b/5x5_reduce
I0913 20:24:48.316684  3939 net.cpp:148] Top shape: 10 24 14 14 (47040)
I0913 20:24:48.316689  3939 net.cpp:156] Memory required for data: 397582080
I0913 20:24:48.316699  3939 layer_factory.hpp:77] Creating layer inception_4b/relu_5x5_reduce
I0913 20:24:48.316710  3939 net.cpp:91] Creating Layer inception_4b/relu_5x5_reduce
I0913 20:24:48.316717  3939 net.cpp:425] inception_4b/relu_5x5_reduce <- inception_4b/5x5_reduce
I0913 20:24:48.316723  3939 net.cpp:386] inception_4b/relu_5x5_reduce -> inception_4b/5x5_reduce (in-place)
I0913 20:24:48.317117  3939 net.cpp:141] Setting up inception_4b/relu_5x5_reduce
I0913 20:24:48.317129  3939 net.cpp:148] Top shape: 10 24 14 14 (47040)
I0913 20:24:48.317134  3939 net.cpp:156] Memory required for data: 397770240
I0913 20:24:48.317139  3939 layer_factory.hpp:77] Creating layer inception_4b/5x5
I0913 20:24:48.317157  3939 net.cpp:91] Creating Layer inception_4b/5x5
I0913 20:24:48.317163  3939 net.cpp:425] inception_4b/5x5 <- inception_4b/5x5_reduce
I0913 20:24:48.317173  3939 net.cpp:399] inception_4b/5x5 -> inception_4b/5x5
I0913 20:24:48.319504  3939 net.cpp:141] Setting up inception_4b/5x5
I0913 20:24:48.319533  3939 net.cpp:148] Top shape: 10 64 14 14 (125440)
I0913 20:24:48.319540  3939 net.cpp:156] Memory required for data: 398272000
I0913 20:24:48.319548  3939 layer_factory.hpp:77] Creating layer inception_4b/relu_5x5
I0913 20:24:48.319557  3939 net.cpp:91] Creating Layer inception_4b/relu_5x5
I0913 20:24:48.319562  3939 net.cpp:425] inception_4b/relu_5x5 <- inception_4b/5x5
I0913 20:24:48.319573  3939 net.cpp:386] inception_4b/relu_5x5 -> inception_4b/5x5 (in-place)
I0913 20:24:48.319803  3939 net.cpp:141] Setting up inception_4b/relu_5x5
I0913 20:24:48.319815  3939 net.cpp:148] Top shape: 10 64 14 14 (125440)
I0913 20:24:48.319819  3939 net.cpp:156] Memory required for data: 398773760
I0913 20:24:48.319824  3939 layer_factory.hpp:77] Creating layer inception_4b/pool
I0913 20:24:48.319836  3939 net.cpp:91] Creating Layer inception_4b/pool
I0913 20:24:48.319842  3939 net.cpp:425] inception_4b/pool <- inception_4a/output_inception_4a/output_0_split_3
I0913 20:24:48.319849  3939 net.cpp:399] inception_4b/pool -> inception_4b/pool
I0913 20:24:48.319916  3939 net.cpp:141] Setting up inception_4b/pool
I0913 20:24:48.319926  3939 net.cpp:148] Top shape: 10 512 14 14 (1003520)
I0913 20:24:48.319929  3939 net.cpp:156] Memory required for data: 402787840
I0913 20:24:48.319933  3939 layer_factory.hpp:77] Creating layer inception_4b/pool_proj
I0913 20:24:48.319948  3939 net.cpp:91] Creating Layer inception_4b/pool_proj
I0913 20:24:48.319954  3939 net.cpp:425] inception_4b/pool_proj <- inception_4b/pool
I0913 20:24:48.319964  3939 net.cpp:399] inception_4b/pool_proj -> inception_4b/pool_proj
I0913 20:24:48.321601  3939 net.cpp:141] Setting up inception_4b/pool_proj
I0913 20:24:48.321630  3939 net.cpp:148] Top shape: 10 64 14 14 (125440)
I0913 20:24:48.321636  3939 net.cpp:156] Memory required for data: 403289600
I0913 20:24:48.321645  3939 layer_factory.hpp:77] Creating layer inception_4b/relu_pool_proj
I0913 20:24:48.321657  3939 net.cpp:91] Creating Layer inception_4b/relu_pool_proj
I0913 20:24:48.321663  3939 net.cpp:425] inception_4b/relu_pool_proj <- inception_4b/pool_proj
I0913 20:24:48.321671  3939 net.cpp:386] inception_4b/relu_pool_proj -> inception_4b/pool_proj (in-place)
I0913 20:24:48.322075  3939 net.cpp:141] Setting up inception_4b/relu_pool_proj
I0913 20:24:48.322088  3939 net.cpp:148] Top shape: 10 64 14 14 (125440)
I0913 20:24:48.322093  3939 net.cpp:156] Memory required for data: 403791360
I0913 20:24:48.322098  3939 layer_factory.hpp:77] Creating layer inception_4b/output
I0913 20:24:48.322108  3939 net.cpp:91] Creating Layer inception_4b/output
I0913 20:24:48.322113  3939 net.cpp:425] inception_4b/output <- inception_4b/1x1
I0913 20:24:48.322118  3939 net.cpp:425] inception_4b/output <- inception_4b/3x3
I0913 20:24:48.322124  3939 net.cpp:425] inception_4b/output <- inception_4b/5x5
I0913 20:24:48.322129  3939 net.cpp:425] inception_4b/output <- inception_4b/pool_proj
I0913 20:24:48.322137  3939 net.cpp:399] inception_4b/output -> inception_4b/output
I0913 20:24:48.322177  3939 net.cpp:141] Setting up inception_4b/output
I0913 20:24:48.322186  3939 net.cpp:148] Top shape: 10 512 14 14 (1003520)
I0913 20:24:48.322190  3939 net.cpp:156] Memory required for data: 407805440
I0913 20:24:48.322196  3939 layer_factory.hpp:77] Creating layer inception_4b/output_inception_4b/output_0_split
I0913 20:24:48.322208  3939 net.cpp:91] Creating Layer inception_4b/output_inception_4b/output_0_split
I0913 20:24:48.322214  3939 net.cpp:425] inception_4b/output_inception_4b/output_0_split <- inception_4b/output
I0913 20:24:48.322221  3939 net.cpp:399] inception_4b/output_inception_4b/output_0_split -> inception_4b/output_inception_4b/output_0_split_0
I0913 20:24:48.322228  3939 net.cpp:399] inception_4b/output_inception_4b/output_0_split -> inception_4b/output_inception_4b/output_0_split_1
I0913 20:24:48.322239  3939 net.cpp:399] inception_4b/output_inception_4b/output_0_split -> inception_4b/output_inception_4b/output_0_split_2
I0913 20:24:48.322247  3939 net.cpp:399] inception_4b/output_inception_4b/output_0_split -> inception_4b/output_inception_4b/output_0_split_3
I0913 20:24:48.322331  3939 net.cpp:141] Setting up inception_4b/output_inception_4b/output_0_split
I0913 20:24:48.322340  3939 net.cpp:148] Top shape: 10 512 14 14 (1003520)
I0913 20:24:48.322346  3939 net.cpp:148] Top shape: 10 512 14 14 (1003520)
I0913 20:24:48.322351  3939 net.cpp:148] Top shape: 10 512 14 14 (1003520)
I0913 20:24:48.322356  3939 net.cpp:148] Top shape: 10 512 14 14 (1003520)
I0913 20:24:48.322360  3939 net.cpp:156] Memory required for data: 423861760
I0913 20:24:48.322365  3939 layer_factory.hpp:77] Creating layer inception_4c/1x1
I0913 20:24:48.322378  3939 net.cpp:91] Creating Layer inception_4c/1x1
I0913 20:24:48.322383  3939 net.cpp:425] inception_4c/1x1 <- inception_4b/output_inception_4b/output_0_split_0
I0913 20:24:48.322394  3939 net.cpp:399] inception_4c/1x1 -> inception_4c/1x1
I0913 20:24:48.324141  3939 net.cpp:141] Setting up inception_4c/1x1
I0913 20:24:48.324158  3939 net.cpp:148] Top shape: 10 128 14 14 (250880)
I0913 20:24:48.324163  3939 net.cpp:156] Memory required for data: 424865280
I0913 20:24:48.324172  3939 layer_factory.hpp:77] Creating layer inception_4c/relu_1x1
I0913 20:24:48.324184  3939 net.cpp:91] Creating Layer inception_4c/relu_1x1
I0913 20:24:48.324190  3939 net.cpp:425] inception_4c/relu_1x1 <- inception_4c/1x1
I0913 20:24:48.324198  3939 net.cpp:386] inception_4c/relu_1x1 -> inception_4c/1x1 (in-place)
I0913 20:24:48.324594  3939 net.cpp:141] Setting up inception_4c/relu_1x1
I0913 20:24:48.324605  3939 net.cpp:148] Top shape: 10 128 14 14 (250880)
I0913 20:24:48.324610  3939 net.cpp:156] Memory required for data: 425868800
I0913 20:24:48.324615  3939 layer_factory.hpp:77] Creating layer inception_4c/3x3_reduce
I0913 20:24:48.324633  3939 net.cpp:91] Creating Layer inception_4c/3x3_reduce
I0913 20:24:48.324640  3939 net.cpp:425] inception_4c/3x3_reduce <- inception_4b/output_inception_4b/output_0_split_1
I0913 20:24:48.324648  3939 net.cpp:399] inception_4c/3x3_reduce -> inception_4c/3x3_reduce
I0913 20:24:48.326510  3939 net.cpp:141] Setting up inception_4c/3x3_reduce
I0913 20:24:48.326539  3939 net.cpp:148] Top shape: 10 128 14 14 (250880)
I0913 20:24:48.326545  3939 net.cpp:156] Memory required for data: 426872320
I0913 20:24:48.326553  3939 layer_factory.hpp:77] Creating layer inception_4c/relu_3x3_reduce
I0913 20:24:48.326561  3939 net.cpp:91] Creating Layer inception_4c/relu_3x3_reduce
I0913 20:24:48.326570  3939 net.cpp:425] inception_4c/relu_3x3_reduce <- inception_4c/3x3_reduce
I0913 20:24:48.326576  3939 net.cpp:386] inception_4c/relu_3x3_reduce -> inception_4c/3x3_reduce (in-place)
I0913 20:24:48.326808  3939 net.cpp:141] Setting up inception_4c/relu_3x3_reduce
I0913 20:24:48.326819  3939 net.cpp:148] Top shape: 10 128 14 14 (250880)
I0913 20:24:48.326823  3939 net.cpp:156] Memory required for data: 427875840
I0913 20:24:48.326828  3939 layer_factory.hpp:77] Creating layer inception_4c/3x3
I0913 20:24:48.326846  3939 net.cpp:91] Creating Layer inception_4c/3x3
I0913 20:24:48.326853  3939 net.cpp:425] inception_4c/3x3 <- inception_4c/3x3_reduce
I0913 20:24:48.326860  3939 net.cpp:399] inception_4c/3x3 -> inception_4c/3x3
I0913 20:24:48.331148  3939 net.cpp:141] Setting up inception_4c/3x3
I0913 20:24:48.331178  3939 net.cpp:148] Top shape: 10 256 14 14 (501760)
I0913 20:24:48.331184  3939 net.cpp:156] Memory required for data: 429882880
I0913 20:24:48.331193  3939 layer_factory.hpp:77] Creating layer inception_4c/relu_3x3
I0913 20:24:48.331202  3939 net.cpp:91] Creating Layer inception_4c/relu_3x3
I0913 20:24:48.331207  3939 net.cpp:425] inception_4c/relu_3x3 <- inception_4c/3x3
I0913 20:24:48.331218  3939 net.cpp:386] inception_4c/relu_3x3 -> inception_4c/3x3 (in-place)
I0913 20:24:48.331619  3939 net.cpp:141] Setting up inception_4c/relu_3x3
I0913 20:24:48.331630  3939 net.cpp:148] Top shape: 10 256 14 14 (501760)
I0913 20:24:48.331635  3939 net.cpp:156] Memory required for data: 431889920
I0913 20:24:48.331640  3939 layer_factory.hpp:77] Creating layer inception_4c/5x5_reduce
I0913 20:24:48.331655  3939 net.cpp:91] Creating Layer inception_4c/5x5_reduce
I0913 20:24:48.331661  3939 net.cpp:425] inception_4c/5x5_reduce <- inception_4b/output_inception_4b/output_0_split_2
I0913 20:24:48.331672  3939 net.cpp:399] inception_4c/5x5_reduce -> inception_4c/5x5_reduce
I0913 20:24:48.333031  3939 net.cpp:141] Setting up inception_4c/5x5_reduce
I0913 20:24:48.333061  3939 net.cpp:148] Top shape: 10 24 14 14 (47040)
I0913 20:24:48.333066  3939 net.cpp:156] Memory required for data: 432078080
I0913 20:24:48.333076  3939 layer_factory.hpp:77] Creating layer inception_4c/relu_5x5_reduce
I0913 20:24:48.333087  3939 net.cpp:91] Creating Layer inception_4c/relu_5x5_reduce
I0913 20:24:48.333093  3939 net.cpp:425] inception_4c/relu_5x5_reduce <- inception_4c/5x5_reduce
I0913 20:24:48.333101  3939 net.cpp:386] inception_4c/relu_5x5_reduce -> inception_4c/5x5_reduce (in-place)
I0913 20:24:48.333500  3939 net.cpp:141] Setting up inception_4c/relu_5x5_reduce
I0913 20:24:48.333516  3939 net.cpp:148] Top shape: 10 24 14 14 (47040)
I0913 20:24:48.333521  3939 net.cpp:156] Memory required for data: 432266240
I0913 20:24:48.333526  3939 layer_factory.hpp:77] Creating layer inception_4c/5x5
I0913 20:24:48.333541  3939 net.cpp:91] Creating Layer inception_4c/5x5
I0913 20:24:48.333546  3939 net.cpp:425] inception_4c/5x5 <- inception_4c/5x5_reduce
I0913 20:24:48.333555  3939 net.cpp:399] inception_4c/5x5 -> inception_4c/5x5
I0913 20:24:48.335512  3939 net.cpp:141] Setting up inception_4c/5x5
I0913 20:24:48.335530  3939 net.cpp:148] Top shape: 10 64 14 14 (125440)
I0913 20:24:48.335535  3939 net.cpp:156] Memory required for data: 432768000
I0913 20:24:48.335542  3939 layer_factory.hpp:77] Creating layer inception_4c/relu_5x5
I0913 20:24:48.335551  3939 net.cpp:91] Creating Layer inception_4c/relu_5x5
I0913 20:24:48.335556  3939 net.cpp:425] inception_4c/relu_5x5 <- inception_4c/5x5
I0913 20:24:48.335563  3939 net.cpp:386] inception_4c/relu_5x5 -> inception_4c/5x5 (in-place)
I0913 20:24:48.335798  3939 net.cpp:141] Setting up inception_4c/relu_5x5
I0913 20:24:48.335808  3939 net.cpp:148] Top shape: 10 64 14 14 (125440)
I0913 20:24:48.335813  3939 net.cpp:156] Memory required for data: 433269760
I0913 20:24:48.335818  3939 layer_factory.hpp:77] Creating layer inception_4c/pool
I0913 20:24:48.335830  3939 net.cpp:91] Creating Layer inception_4c/pool
I0913 20:24:48.335835  3939 net.cpp:425] inception_4c/pool <- inception_4b/output_inception_4b/output_0_split_3
I0913 20:24:48.335842  3939 net.cpp:399] inception_4c/pool -> inception_4c/pool
I0913 20:24:48.335909  3939 net.cpp:141] Setting up inception_4c/pool
I0913 20:24:48.335918  3939 net.cpp:148] Top shape: 10 512 14 14 (1003520)
I0913 20:24:48.335922  3939 net.cpp:156] Memory required for data: 437283840
I0913 20:24:48.335927  3939 layer_factory.hpp:77] Creating layer inception_4c/pool_proj
I0913 20:24:48.335950  3939 net.cpp:91] Creating Layer inception_4c/pool_proj
I0913 20:24:48.335957  3939 net.cpp:425] inception_4c/pool_proj <- inception_4c/pool
I0913 20:24:48.335966  3939 net.cpp:399] inception_4c/pool_proj -> inception_4c/pool_proj
I0913 20:24:48.338357  3939 net.cpp:141] Setting up inception_4c/pool_proj
I0913 20:24:48.338378  3939 net.cpp:148] Top shape: 10 64 14 14 (125440)
I0913 20:24:48.338384  3939 net.cpp:156] Memory required for data: 437785600
I0913 20:24:48.338415  3939 layer_factory.hpp:77] Creating layer inception_4c/relu_pool_proj
I0913 20:24:48.338425  3939 net.cpp:91] Creating Layer inception_4c/relu_pool_proj
I0913 20:24:48.338430  3939 net.cpp:425] inception_4c/relu_pool_proj <- inception_4c/pool_proj
I0913 20:24:48.338439  3939 net.cpp:386] inception_4c/relu_pool_proj -> inception_4c/pool_proj (in-place)
I0913 20:24:48.338838  3939 net.cpp:141] Setting up inception_4c/relu_pool_proj
I0913 20:24:48.338851  3939 net.cpp:148] Top shape: 10 64 14 14 (125440)
I0913 20:24:48.338855  3939 net.cpp:156] Memory required for data: 438287360
I0913 20:24:48.338860  3939 layer_factory.hpp:77] Creating layer inception_4c/output
I0913 20:24:48.338872  3939 net.cpp:91] Creating Layer inception_4c/output
I0913 20:24:48.338877  3939 net.cpp:425] inception_4c/output <- inception_4c/1x1
I0913 20:24:48.338884  3939 net.cpp:425] inception_4c/output <- inception_4c/3x3
I0913 20:24:48.338889  3939 net.cpp:425] inception_4c/output <- inception_4c/5x5
I0913 20:24:48.338894  3939 net.cpp:425] inception_4c/output <- inception_4c/pool_proj
I0913 20:24:48.338903  3939 net.cpp:399] inception_4c/output -> inception_4c/output
I0913 20:24:48.338945  3939 net.cpp:141] Setting up inception_4c/output
I0913 20:24:48.338955  3939 net.cpp:148] Top shape: 10 512 14 14 (1003520)
I0913 20:24:48.338959  3939 net.cpp:156] Memory required for data: 442301440
I0913 20:24:48.338963  3939 layer_factory.hpp:77] Creating layer inception_4c/output_inception_4c/output_0_split
I0913 20:24:48.338976  3939 net.cpp:91] Creating Layer inception_4c/output_inception_4c/output_0_split
I0913 20:24:48.338982  3939 net.cpp:425] inception_4c/output_inception_4c/output_0_split <- inception_4c/output
I0913 20:24:48.338989  3939 net.cpp:399] inception_4c/output_inception_4c/output_0_split -> inception_4c/output_inception_4c/output_0_split_0
I0913 20:24:48.338996  3939 net.cpp:399] inception_4c/output_inception_4c/output_0_split -> inception_4c/output_inception_4c/output_0_split_1
I0913 20:24:48.339005  3939 net.cpp:399] inception_4c/output_inception_4c/output_0_split -> inception_4c/output_inception_4c/output_0_split_2
I0913 20:24:48.339015  3939 net.cpp:399] inception_4c/output_inception_4c/output_0_split -> inception_4c/output_inception_4c/output_0_split_3
I0913 20:24:48.339103  3939 net.cpp:141] Setting up inception_4c/output_inception_4c/output_0_split
I0913 20:24:48.339112  3939 net.cpp:148] Top shape: 10 512 14 14 (1003520)
I0913 20:24:48.339118  3939 net.cpp:148] Top shape: 10 512 14 14 (1003520)
I0913 20:24:48.339123  3939 net.cpp:148] Top shape: 10 512 14 14 (1003520)
I0913 20:24:48.339128  3939 net.cpp:148] Top shape: 10 512 14 14 (1003520)
I0913 20:24:48.339133  3939 net.cpp:156] Memory required for data: 458357760
I0913 20:24:48.339136  3939 layer_factory.hpp:77] Creating layer inception_4d/1x1
I0913 20:24:48.339150  3939 net.cpp:91] Creating Layer inception_4d/1x1
I0913 20:24:48.339156  3939 net.cpp:425] inception_4d/1x1 <- inception_4c/output_inception_4c/output_0_split_0
I0913 20:24:48.339167  3939 net.cpp:399] inception_4d/1x1 -> inception_4d/1x1
I0913 20:24:48.340863  3939 net.cpp:141] Setting up inception_4d/1x1
I0913 20:24:48.340880  3939 net.cpp:148] Top shape: 10 112 14 14 (219520)
I0913 20:24:48.340884  3939 net.cpp:156] Memory required for data: 459235840
I0913 20:24:48.340893  3939 layer_factory.hpp:77] Creating layer inception_4d/relu_1x1
I0913 20:24:48.340904  3939 net.cpp:91] Creating Layer inception_4d/relu_1x1
I0913 20:24:48.340910  3939 net.cpp:425] inception_4d/relu_1x1 <- inception_4d/1x1
I0913 20:24:48.340917  3939 net.cpp:386] inception_4d/relu_1x1 -> inception_4d/1x1 (in-place)
I0913 20:24:48.341316  3939 net.cpp:141] Setting up inception_4d/relu_1x1
I0913 20:24:48.341328  3939 net.cpp:148] Top shape: 10 112 14 14 (219520)
I0913 20:24:48.341333  3939 net.cpp:156] Memory required for data: 460113920
I0913 20:24:48.341338  3939 layer_factory.hpp:77] Creating layer inception_4d/3x3_reduce
I0913 20:24:48.341356  3939 net.cpp:91] Creating Layer inception_4d/3x3_reduce
I0913 20:24:48.341361  3939 net.cpp:425] inception_4d/3x3_reduce <- inception_4c/output_inception_4c/output_0_split_1
I0913 20:24:48.341373  3939 net.cpp:399] inception_4d/3x3_reduce -> inception_4d/3x3_reduce
I0913 20:24:48.343395  3939 net.cpp:141] Setting up inception_4d/3x3_reduce
I0913 20:24:48.343412  3939 net.cpp:148] Top shape: 10 144 14 14 (282240)
I0913 20:24:48.343416  3939 net.cpp:156] Memory required for data: 461242880
I0913 20:24:48.343425  3939 layer_factory.hpp:77] Creating layer inception_4d/relu_3x3_reduce
I0913 20:24:48.343433  3939 net.cpp:91] Creating Layer inception_4d/relu_3x3_reduce
I0913 20:24:48.343439  3939 net.cpp:425] inception_4d/relu_3x3_reduce <- inception_4d/3x3_reduce
I0913 20:24:48.343449  3939 net.cpp:386] inception_4d/relu_3x3_reduce -> inception_4d/3x3_reduce (in-place)
I0913 20:24:48.343685  3939 net.cpp:141] Setting up inception_4d/relu_3x3_reduce
I0913 20:24:48.343698  3939 net.cpp:148] Top shape: 10 144 14 14 (282240)
I0913 20:24:48.343703  3939 net.cpp:156] Memory required for data: 462371840
I0913 20:24:48.343708  3939 layer_factory.hpp:77] Creating layer inception_4d/3x3
I0913 20:24:48.343721  3939 net.cpp:91] Creating Layer inception_4d/3x3
I0913 20:24:48.343726  3939 net.cpp:425] inception_4d/3x3 <- inception_4d/3x3_reduce
I0913 20:24:48.343736  3939 net.cpp:399] inception_4d/3x3 -> inception_4d/3x3
I0913 20:24:48.348718  3939 net.cpp:141] Setting up inception_4d/3x3
I0913 20:24:48.348749  3939 net.cpp:148] Top shape: 10 288 14 14 (564480)
I0913 20:24:48.348755  3939 net.cpp:156] Memory required for data: 464629760
I0913 20:24:48.348763  3939 layer_factory.hpp:77] Creating layer inception_4d/relu_3x3
I0913 20:24:48.348775  3939 net.cpp:91] Creating Layer inception_4d/relu_3x3
I0913 20:24:48.348783  3939 net.cpp:425] inception_4d/relu_3x3 <- inception_4d/3x3
I0913 20:24:48.348790  3939 net.cpp:386] inception_4d/relu_3x3 -> inception_4d/3x3 (in-place)
I0913 20:24:48.349210  3939 net.cpp:141] Setting up inception_4d/relu_3x3
I0913 20:24:48.349223  3939 net.cpp:148] Top shape: 10 288 14 14 (564480)
I0913 20:24:48.349227  3939 net.cpp:156] Memory required for data: 466887680
I0913 20:24:48.349232  3939 layer_factory.hpp:77] Creating layer inception_4d/5x5_reduce
I0913 20:24:48.349247  3939 net.cpp:91] Creating Layer inception_4d/5x5_reduce
I0913 20:24:48.349253  3939 net.cpp:425] inception_4d/5x5_reduce <- inception_4c/output_inception_4c/output_0_split_2
I0913 20:24:48.349262  3939 net.cpp:399] inception_4d/5x5_reduce -> inception_4d/5x5_reduce
I0913 20:24:48.350693  3939 net.cpp:141] Setting up inception_4d/5x5_reduce
I0913 20:24:48.350710  3939 net.cpp:148] Top shape: 10 32 14 14 (62720)
I0913 20:24:48.350715  3939 net.cpp:156] Memory required for data: 467138560
I0913 20:24:48.350724  3939 layer_factory.hpp:77] Creating layer inception_4d/relu_5x5_reduce
I0913 20:24:48.350734  3939 net.cpp:91] Creating Layer inception_4d/relu_5x5_reduce
I0913 20:24:48.350741  3939 net.cpp:425] inception_4d/relu_5x5_reduce <- inception_4d/5x5_reduce
I0913 20:24:48.350747  3939 net.cpp:386] inception_4d/relu_5x5_reduce -> inception_4d/5x5_reduce (in-place)
I0913 20:24:48.351153  3939 net.cpp:141] Setting up inception_4d/relu_5x5_reduce
I0913 20:24:48.351166  3939 net.cpp:148] Top shape: 10 32 14 14 (62720)
I0913 20:24:48.351171  3939 net.cpp:156] Memory required for data: 467389440
I0913 20:24:48.351176  3939 layer_factory.hpp:77] Creating layer inception_4d/5x5
I0913 20:24:48.351191  3939 net.cpp:91] Creating Layer inception_4d/5x5
I0913 20:24:48.351197  3939 net.cpp:425] inception_4d/5x5 <- inception_4d/5x5_reduce
I0913 20:24:48.351208  3939 net.cpp:399] inception_4d/5x5 -> inception_4d/5x5
I0913 20:24:48.353138  3939 net.cpp:141] Setting up inception_4d/5x5
I0913 20:24:48.353157  3939 net.cpp:148] Top shape: 10 64 14 14 (125440)
I0913 20:24:48.353163  3939 net.cpp:156] Memory required for data: 467891200
I0913 20:24:48.353171  3939 layer_factory.hpp:77] Creating layer inception_4d/relu_5x5
I0913 20:24:48.353180  3939 net.cpp:91] Creating Layer inception_4d/relu_5x5
I0913 20:24:48.353185  3939 net.cpp:425] inception_4d/relu_5x5 <- inception_4d/5x5
I0913 20:24:48.353193  3939 net.cpp:386] inception_4d/relu_5x5 -> inception_4d/5x5 (in-place)
I0913 20:24:48.353433  3939 net.cpp:141] Setting up inception_4d/relu_5x5
I0913 20:24:48.353444  3939 net.cpp:148] Top shape: 10 64 14 14 (125440)
I0913 20:24:48.353448  3939 net.cpp:156] Memory required for data: 468392960
I0913 20:24:48.353453  3939 layer_factory.hpp:77] Creating layer inception_4d/pool
I0913 20:24:48.353466  3939 net.cpp:91] Creating Layer inception_4d/pool
I0913 20:24:48.353471  3939 net.cpp:425] inception_4d/pool <- inception_4c/output_inception_4c/output_0_split_3
I0913 20:24:48.353478  3939 net.cpp:399] inception_4d/pool -> inception_4d/pool
I0913 20:24:48.353548  3939 net.cpp:141] Setting up inception_4d/pool
I0913 20:24:48.353557  3939 net.cpp:148] Top shape: 10 512 14 14 (1003520)
I0913 20:24:48.353561  3939 net.cpp:156] Memory required for data: 472407040
I0913 20:24:48.353565  3939 layer_factory.hpp:77] Creating layer inception_4d/pool_proj
I0913 20:24:48.353581  3939 net.cpp:91] Creating Layer inception_4d/pool_proj
I0913 20:24:48.353586  3939 net.cpp:425] inception_4d/pool_proj <- inception_4d/pool
I0913 20:24:48.353597  3939 net.cpp:399] inception_4d/pool_proj -> inception_4d/pool_proj
I0913 20:24:48.355324  3939 net.cpp:141] Setting up inception_4d/pool_proj
I0913 20:24:48.355340  3939 net.cpp:148] Top shape: 10 64 14 14 (125440)
I0913 20:24:48.355345  3939 net.cpp:156] Memory required for data: 472908800
I0913 20:24:48.355353  3939 layer_factory.hpp:77] Creating layer inception_4d/relu_pool_proj
I0913 20:24:48.355361  3939 net.cpp:91] Creating Layer inception_4d/relu_pool_proj
I0913 20:24:48.355367  3939 net.cpp:425] inception_4d/relu_pool_proj <- inception_4d/pool_proj
I0913 20:24:48.355377  3939 net.cpp:386] inception_4d/relu_pool_proj -> inception_4d/pool_proj (in-place)
I0913 20:24:48.355775  3939 net.cpp:141] Setting up inception_4d/relu_pool_proj
I0913 20:24:48.355787  3939 net.cpp:148] Top shape: 10 64 14 14 (125440)
I0913 20:24:48.355804  3939 net.cpp:156] Memory required for data: 473410560
I0913 20:24:48.355810  3939 layer_factory.hpp:77] Creating layer inception_4d/output
I0913 20:24:48.355819  3939 net.cpp:91] Creating Layer inception_4d/output
I0913 20:24:48.355824  3939 net.cpp:425] inception_4d/output <- inception_4d/1x1
I0913 20:24:48.355830  3939 net.cpp:425] inception_4d/output <- inception_4d/3x3
I0913 20:24:48.355835  3939 net.cpp:425] inception_4d/output <- inception_4d/5x5
I0913 20:24:48.355841  3939 net.cpp:425] inception_4d/output <- inception_4d/pool_proj
I0913 20:24:48.355850  3939 net.cpp:399] inception_4d/output -> inception_4d/output
I0913 20:24:48.355897  3939 net.cpp:141] Setting up inception_4d/output
I0913 20:24:48.355906  3939 net.cpp:148] Top shape: 10 528 14 14 (1034880)
I0913 20:24:48.355911  3939 net.cpp:156] Memory required for data: 477550080
I0913 20:24:48.355914  3939 layer_factory.hpp:77] Creating layer inception_4d/output_inception_4d/output_0_split
I0913 20:24:48.355922  3939 net.cpp:91] Creating Layer inception_4d/output_inception_4d/output_0_split
I0913 20:24:48.355927  3939 net.cpp:425] inception_4d/output_inception_4d/output_0_split <- inception_4d/output
I0913 20:24:48.355934  3939 net.cpp:399] inception_4d/output_inception_4d/output_0_split -> inception_4d/output_inception_4d/output_0_split_0
I0913 20:24:48.355947  3939 net.cpp:399] inception_4d/output_inception_4d/output_0_split -> inception_4d/output_inception_4d/output_0_split_1
I0913 20:24:48.355957  3939 net.cpp:399] inception_4d/output_inception_4d/output_0_split -> inception_4d/output_inception_4d/output_0_split_2
I0913 20:24:48.355965  3939 net.cpp:399] inception_4d/output_inception_4d/output_0_split -> inception_4d/output_inception_4d/output_0_split_3
I0913 20:24:48.356060  3939 net.cpp:141] Setting up inception_4d/output_inception_4d/output_0_split
I0913 20:24:48.356068  3939 net.cpp:148] Top shape: 10 528 14 14 (1034880)
I0913 20:24:48.356086  3939 net.cpp:148] Top shape: 10 528 14 14 (1034880)
I0913 20:24:48.356091  3939 net.cpp:148] Top shape: 10 528 14 14 (1034880)
I0913 20:24:48.356096  3939 net.cpp:148] Top shape: 10 528 14 14 (1034880)
I0913 20:24:48.356099  3939 net.cpp:156] Memory required for data: 494108160
I0913 20:24:48.356104  3939 layer_factory.hpp:77] Creating layer inception_4e/1x1
I0913 20:24:48.356122  3939 net.cpp:91] Creating Layer inception_4e/1x1
I0913 20:24:48.356128  3939 net.cpp:425] inception_4e/1x1 <- inception_4d/output_inception_4d/output_0_split_0
I0913 20:24:48.356137  3939 net.cpp:399] inception_4e/1x1 -> inception_4e/1x1
I0913 20:24:48.359386  3939 net.cpp:141] Setting up inception_4e/1x1
I0913 20:24:48.359403  3939 net.cpp:148] Top shape: 10 256 14 14 (501760)
I0913 20:24:48.359408  3939 net.cpp:156] Memory required for data: 496115200
I0913 20:24:48.359416  3939 layer_factory.hpp:77] Creating layer inception_4e/relu_1x1
I0913 20:24:48.359424  3939 net.cpp:91] Creating Layer inception_4e/relu_1x1
I0913 20:24:48.359431  3939 net.cpp:425] inception_4e/relu_1x1 <- inception_4e/1x1
I0913 20:24:48.359436  3939 net.cpp:386] inception_4e/relu_1x1 -> inception_4e/1x1 (in-place)
I0913 20:24:48.359836  3939 net.cpp:141] Setting up inception_4e/relu_1x1
I0913 20:24:48.359848  3939 net.cpp:148] Top shape: 10 256 14 14 (501760)
I0913 20:24:48.359853  3939 net.cpp:156] Memory required for data: 498122240
I0913 20:24:48.359858  3939 layer_factory.hpp:77] Creating layer inception_4e/3x3_reduce
I0913 20:24:48.359872  3939 net.cpp:91] Creating Layer inception_4e/3x3_reduce
I0913 20:24:48.359879  3939 net.cpp:425] inception_4e/3x3_reduce <- inception_4d/output_inception_4d/output_0_split_1
I0913 20:24:48.359889  3939 net.cpp:399] inception_4e/3x3_reduce -> inception_4e/3x3_reduce
I0913 20:24:48.361949  3939 net.cpp:141] Setting up inception_4e/3x3_reduce
I0913 20:24:48.361965  3939 net.cpp:148] Top shape: 10 160 14 14 (313600)
I0913 20:24:48.361970  3939 net.cpp:156] Memory required for data: 499376640
I0913 20:24:48.361979  3939 layer_factory.hpp:77] Creating layer inception_4e/relu_3x3_reduce
I0913 20:24:48.361989  3939 net.cpp:91] Creating Layer inception_4e/relu_3x3_reduce
I0913 20:24:48.361995  3939 net.cpp:425] inception_4e/relu_3x3_reduce <- inception_4e/3x3_reduce
I0913 20:24:48.362002  3939 net.cpp:386] inception_4e/relu_3x3_reduce -> inception_4e/3x3_reduce (in-place)
I0913 20:24:48.362253  3939 net.cpp:141] Setting up inception_4e/relu_3x3_reduce
I0913 20:24:48.362264  3939 net.cpp:148] Top shape: 10 160 14 14 (313600)
I0913 20:24:48.362268  3939 net.cpp:156] Memory required for data: 500631040
I0913 20:24:48.362273  3939 layer_factory.hpp:77] Creating layer inception_4e/3x3
I0913 20:24:48.362288  3939 net.cpp:91] Creating Layer inception_4e/3x3
I0913 20:24:48.362294  3939 net.cpp:425] inception_4e/3x3 <- inception_4e/3x3_reduce
I0913 20:24:48.362305  3939 net.cpp:399] inception_4e/3x3 -> inception_4e/3x3
I0913 20:24:48.368067  3939 net.cpp:141] Setting up inception_4e/3x3
I0913 20:24:48.368108  3939 net.cpp:148] Top shape: 10 320 14 14 (627200)
I0913 20:24:48.368113  3939 net.cpp:156] Memory required for data: 503139840
I0913 20:24:48.368122  3939 layer_factory.hpp:77] Creating layer inception_4e/relu_3x3
I0913 20:24:48.368131  3939 net.cpp:91] Creating Layer inception_4e/relu_3x3
I0913 20:24:48.368137  3939 net.cpp:425] inception_4e/relu_3x3 <- inception_4e/3x3
I0913 20:24:48.368144  3939 net.cpp:386] inception_4e/relu_3x3 -> inception_4e/3x3 (in-place)
I0913 20:24:48.368567  3939 net.cpp:141] Setting up inception_4e/relu_3x3
I0913 20:24:48.368579  3939 net.cpp:148] Top shape: 10 320 14 14 (627200)
I0913 20:24:48.368584  3939 net.cpp:156] Memory required for data: 505648640
I0913 20:24:48.368589  3939 layer_factory.hpp:77] Creating layer inception_4e/5x5_reduce
I0913 20:24:48.368607  3939 net.cpp:91] Creating Layer inception_4e/5x5_reduce
I0913 20:24:48.368613  3939 net.cpp:425] inception_4e/5x5_reduce <- inception_4d/output_inception_4d/output_0_split_2
I0913 20:24:48.368638  3939 net.cpp:399] inception_4e/5x5_reduce -> inception_4e/5x5_reduce
I0913 20:24:48.370057  3939 net.cpp:141] Setting up inception_4e/5x5_reduce
I0913 20:24:48.370074  3939 net.cpp:148] Top shape: 10 32 14 14 (62720)
I0913 20:24:48.370092  3939 net.cpp:156] Memory required for data: 505899520
I0913 20:24:48.370101  3939 layer_factory.hpp:77] Creating layer inception_4e/relu_5x5_reduce
I0913 20:24:48.370110  3939 net.cpp:91] Creating Layer inception_4e/relu_5x5_reduce
I0913 20:24:48.370115  3939 net.cpp:425] inception_4e/relu_5x5_reduce <- inception_4e/5x5_reduce
I0913 20:24:48.370126  3939 net.cpp:386] inception_4e/relu_5x5_reduce -> inception_4e/5x5_reduce (in-place)
I0913 20:24:48.370533  3939 net.cpp:141] Setting up inception_4e/relu_5x5_reduce
I0913 20:24:48.370545  3939 net.cpp:148] Top shape: 10 32 14 14 (62720)
I0913 20:24:48.370549  3939 net.cpp:156] Memory required for data: 506150400
I0913 20:24:48.370554  3939 layer_factory.hpp:77] Creating layer inception_4e/5x5
I0913 20:24:48.370573  3939 net.cpp:91] Creating Layer inception_4e/5x5
I0913 20:24:48.370580  3939 net.cpp:425] inception_4e/5x5 <- inception_4e/5x5_reduce
I0913 20:24:48.370589  3939 net.cpp:399] inception_4e/5x5 -> inception_4e/5x5
I0913 20:24:48.373430  3939 net.cpp:141] Setting up inception_4e/5x5
I0913 20:24:48.373445  3939 net.cpp:148] Top shape: 10 128 14 14 (250880)
I0913 20:24:48.373450  3939 net.cpp:156] Memory required for data: 507153920
I0913 20:24:48.373458  3939 layer_factory.hpp:77] Creating layer inception_4e/relu_5x5
I0913 20:24:48.373466  3939 net.cpp:91] Creating Layer inception_4e/relu_5x5
I0913 20:24:48.373472  3939 net.cpp:425] inception_4e/relu_5x5 <- inception_4e/5x5
I0913 20:24:48.373481  3939 net.cpp:386] inception_4e/relu_5x5 -> inception_4e/5x5 (in-place)
I0913 20:24:48.373730  3939 net.cpp:141] Setting up inception_4e/relu_5x5
I0913 20:24:48.373742  3939 net.cpp:148] Top shape: 10 128 14 14 (250880)
I0913 20:24:48.373746  3939 net.cpp:156] Memory required for data: 508157440
I0913 20:24:48.373751  3939 layer_factory.hpp:77] Creating layer inception_4e/pool
I0913 20:24:48.373764  3939 net.cpp:91] Creating Layer inception_4e/pool
I0913 20:24:48.373769  3939 net.cpp:425] inception_4e/pool <- inception_4d/output_inception_4d/output_0_split_3
I0913 20:24:48.373776  3939 net.cpp:399] inception_4e/pool -> inception_4e/pool
I0913 20:24:48.373847  3939 net.cpp:141] Setting up inception_4e/pool
I0913 20:24:48.373857  3939 net.cpp:148] Top shape: 10 528 14 14 (1034880)
I0913 20:24:48.373860  3939 net.cpp:156] Memory required for data: 512296960
I0913 20:24:48.373864  3939 layer_factory.hpp:77] Creating layer inception_4e/pool_proj
I0913 20:24:48.373879  3939 net.cpp:91] Creating Layer inception_4e/pool_proj
I0913 20:24:48.373885  3939 net.cpp:425] inception_4e/pool_proj <- inception_4e/pool
I0913 20:24:48.373896  3939 net.cpp:399] inception_4e/pool_proj -> inception_4e/pool_proj
I0913 20:24:48.375867  3939 net.cpp:141] Setting up inception_4e/pool_proj
I0913 20:24:48.375883  3939 net.cpp:148] Top shape: 10 128 14 14 (250880)
I0913 20:24:48.375901  3939 net.cpp:156] Memory required for data: 513300480
I0913 20:24:48.375910  3939 layer_factory.hpp:77] Creating layer inception_4e/relu_pool_proj
I0913 20:24:48.375919  3939 net.cpp:91] Creating Layer inception_4e/relu_pool_proj
I0913 20:24:48.375924  3939 net.cpp:425] inception_4e/relu_pool_proj <- inception_4e/pool_proj
I0913 20:24:48.375931  3939 net.cpp:386] inception_4e/relu_pool_proj -> inception_4e/pool_proj (in-place)
I0913 20:24:48.376354  3939 net.cpp:141] Setting up inception_4e/relu_pool_proj
I0913 20:24:48.376368  3939 net.cpp:148] Top shape: 10 128 14 14 (250880)
I0913 20:24:48.376371  3939 net.cpp:156] Memory required for data: 514304000
I0913 20:24:48.376376  3939 layer_factory.hpp:77] Creating layer inception_4e/output
I0913 20:24:48.376384  3939 net.cpp:91] Creating Layer inception_4e/output
I0913 20:24:48.376389  3939 net.cpp:425] inception_4e/output <- inception_4e/1x1
I0913 20:24:48.376396  3939 net.cpp:425] inception_4e/output <- inception_4e/3x3
I0913 20:24:48.376401  3939 net.cpp:425] inception_4e/output <- inception_4e/5x5
I0913 20:24:48.376406  3939 net.cpp:425] inception_4e/output <- inception_4e/pool_proj
I0913 20:24:48.376416  3939 net.cpp:399] inception_4e/output -> inception_4e/output
I0913 20:24:48.376461  3939 net.cpp:141] Setting up inception_4e/output
I0913 20:24:48.376472  3939 net.cpp:148] Top shape: 10 832 14 14 (1630720)
I0913 20:24:48.376477  3939 net.cpp:156] Memory required for data: 520826880
I0913 20:24:48.376482  3939 layer_factory.hpp:77] Creating layer pool4/3x3_s2
I0913 20:24:48.376489  3939 net.cpp:91] Creating Layer pool4/3x3_s2
I0913 20:24:48.376494  3939 net.cpp:425] pool4/3x3_s2 <- inception_4e/output
I0913 20:24:48.376502  3939 net.cpp:399] pool4/3x3_s2 -> pool4/3x3_s2
I0913 20:24:48.376565  3939 net.cpp:141] Setting up pool4/3x3_s2
I0913 20:24:48.376575  3939 net.cpp:148] Top shape: 10 832 7 7 (407680)
I0913 20:24:48.376579  3939 net.cpp:156] Memory required for data: 522457600
I0913 20:24:48.376583  3939 layer_factory.hpp:77] Creating layer pool4/3x3_s2_pool4/3x3_s2_0_split
I0913 20:24:48.376591  3939 net.cpp:91] Creating Layer pool4/3x3_s2_pool4/3x3_s2_0_split
I0913 20:24:48.376596  3939 net.cpp:425] pool4/3x3_s2_pool4/3x3_s2_0_split <- pool4/3x3_s2
I0913 20:24:48.376605  3939 net.cpp:399] pool4/3x3_s2_pool4/3x3_s2_0_split -> pool4/3x3_s2_pool4/3x3_s2_0_split_0
I0913 20:24:48.376615  3939 net.cpp:399] pool4/3x3_s2_pool4/3x3_s2_0_split -> pool4/3x3_s2_pool4/3x3_s2_0_split_1
I0913 20:24:48.376622  3939 net.cpp:399] pool4/3x3_s2_pool4/3x3_s2_0_split -> pool4/3x3_s2_pool4/3x3_s2_0_split_2
I0913 20:24:48.376631  3939 net.cpp:399] pool4/3x3_s2_pool4/3x3_s2_0_split -> pool4/3x3_s2_pool4/3x3_s2_0_split_3
I0913 20:24:48.376726  3939 net.cpp:141] Setting up pool4/3x3_s2_pool4/3x3_s2_0_split
I0913 20:24:48.376739  3939 net.cpp:148] Top shape: 10 832 7 7 (407680)
I0913 20:24:48.376744  3939 net.cpp:148] Top shape: 10 832 7 7 (407680)
I0913 20:24:48.376749  3939 net.cpp:148] Top shape: 10 832 7 7 (407680)
I0913 20:24:48.376754  3939 net.cpp:148] Top shape: 10 832 7 7 (407680)
I0913 20:24:48.376759  3939 net.cpp:156] Memory required for data: 528980480
I0913 20:24:48.376763  3939 layer_factory.hpp:77] Creating layer inception_5a/1x1
I0913 20:24:48.376776  3939 net.cpp:91] Creating Layer inception_5a/1x1
I0913 20:24:48.376782  3939 net.cpp:425] inception_5a/1x1 <- pool4/3x3_s2_pool4/3x3_s2_0_split_0
I0913 20:24:48.376791  3939 net.cpp:399] inception_5a/1x1 -> inception_5a/1x1
I0913 20:24:48.380380  3939 net.cpp:141] Setting up inception_5a/1x1
I0913 20:24:48.380398  3939 net.cpp:148] Top shape: 10 256 7 7 (125440)
I0913 20:24:48.380403  3939 net.cpp:156] Memory required for data: 529482240
I0913 20:24:48.380412  3939 layer_factory.hpp:77] Creating layer inception_5a/relu_1x1
I0913 20:24:48.380421  3939 net.cpp:91] Creating Layer inception_5a/relu_1x1
I0913 20:24:48.380426  3939 net.cpp:425] inception_5a/relu_1x1 <- inception_5a/1x1
I0913 20:24:48.380434  3939 net.cpp:386] inception_5a/relu_1x1 -> inception_5a/1x1 (in-place)
I0913 20:24:48.380849  3939 net.cpp:141] Setting up inception_5a/relu_1x1
I0913 20:24:48.380867  3939 net.cpp:148] Top shape: 10 256 7 7 (125440)
I0913 20:24:48.380872  3939 net.cpp:156] Memory required for data: 529984000
I0913 20:24:48.380877  3939 layer_factory.hpp:77] Creating layer inception_5a/3x3_reduce
I0913 20:24:48.380892  3939 net.cpp:91] Creating Layer inception_5a/3x3_reduce
I0913 20:24:48.380898  3939 net.cpp:425] inception_5a/3x3_reduce <- pool4/3x3_s2_pool4/3x3_s2_0_split_1
I0913 20:24:48.380909  3939 net.cpp:399] inception_5a/3x3_reduce -> inception_5a/3x3_reduce
I0913 20:24:48.384126  3939 net.cpp:141] Setting up inception_5a/3x3_reduce
I0913 20:24:48.384145  3939 net.cpp:148] Top shape: 10 160 7 7 (78400)
I0913 20:24:48.384150  3939 net.cpp:156] Memory required for data: 530297600
I0913 20:24:48.384158  3939 layer_factory.hpp:77] Creating layer inception_5a/relu_3x3_reduce
I0913 20:24:48.384168  3939 net.cpp:91] Creating Layer inception_5a/relu_3x3_reduce
I0913 20:24:48.384176  3939 net.cpp:425] inception_5a/relu_3x3_reduce <- inception_5a/3x3_reduce
I0913 20:24:48.384181  3939 net.cpp:386] inception_5a/relu_3x3_reduce -> inception_5a/3x3_reduce (in-place)
I0913 20:24:48.384431  3939 net.cpp:141] Setting up inception_5a/relu_3x3_reduce
I0913 20:24:48.384443  3939 net.cpp:148] Top shape: 10 160 7 7 (78400)
I0913 20:24:48.384448  3939 net.cpp:156] Memory required for data: 530611200
I0913 20:24:48.384452  3939 layer_factory.hpp:77] Creating layer inception_5a/3x3
I0913 20:24:48.384467  3939 net.cpp:91] Creating Layer inception_5a/3x3
I0913 20:24:48.384474  3939 net.cpp:425] inception_5a/3x3 <- inception_5a/3x3_reduce
I0913 20:24:48.384481  3939 net.cpp:399] inception_5a/3x3 -> inception_5a/3x3
I0913 20:24:48.390907  3939 net.cpp:141] Setting up inception_5a/3x3
I0913 20:24:48.390925  3939 net.cpp:148] Top shape: 10 320 7 7 (156800)
I0913 20:24:48.390930  3939 net.cpp:156] Memory required for data: 531238400
I0913 20:24:48.390940  3939 layer_factory.hpp:77] Creating layer inception_5a/relu_3x3
I0913 20:24:48.390949  3939 net.cpp:91] Creating Layer inception_5a/relu_3x3
I0913 20:24:48.390955  3939 net.cpp:425] inception_5a/relu_3x3 <- inception_5a/3x3
I0913 20:24:48.390966  3939 net.cpp:386] inception_5a/relu_3x3 -> inception_5a/3x3 (in-place)
I0913 20:24:48.391392  3939 net.cpp:141] Setting up inception_5a/relu_3x3
I0913 20:24:48.391405  3939 net.cpp:148] Top shape: 10 320 7 7 (156800)
I0913 20:24:48.391410  3939 net.cpp:156] Memory required for data: 531865600
I0913 20:24:48.391415  3939 layer_factory.hpp:77] Creating layer inception_5a/5x5_reduce
I0913 20:24:48.391432  3939 net.cpp:91] Creating Layer inception_5a/5x5_reduce
I0913 20:24:48.391438  3939 net.cpp:425] inception_5a/5x5_reduce <- pool4/3x3_s2_pool4/3x3_s2_0_split_2
I0913 20:24:48.391449  3939 net.cpp:399] inception_5a/5x5_reduce -> inception_5a/5x5_reduce
I0913 20:24:48.393041  3939 net.cpp:141] Setting up inception_5a/5x5_reduce
I0913 20:24:48.393059  3939 net.cpp:148] Top shape: 10 32 7 7 (15680)
I0913 20:24:48.393064  3939 net.cpp:156] Memory required for data: 531928320
I0913 20:24:48.393071  3939 layer_factory.hpp:77] Creating layer inception_5a/relu_5x5_reduce
I0913 20:24:48.393081  3939 net.cpp:91] Creating Layer inception_5a/relu_5x5_reduce
I0913 20:24:48.393086  3939 net.cpp:425] inception_5a/relu_5x5_reduce <- inception_5a/5x5_reduce
I0913 20:24:48.393097  3939 net.cpp:386] inception_5a/relu_5x5_reduce -> inception_5a/5x5_reduce (in-place)
I0913 20:24:48.393517  3939 net.cpp:141] Setting up inception_5a/relu_5x5_reduce
I0913 20:24:48.393529  3939 net.cpp:148] Top shape: 10 32 7 7 (15680)
I0913 20:24:48.393534  3939 net.cpp:156] Memory required for data: 531991040
I0913 20:24:48.393539  3939 layer_factory.hpp:77] Creating layer inception_5a/5x5
I0913 20:24:48.393555  3939 net.cpp:91] Creating Layer inception_5a/5x5
I0913 20:24:48.393563  3939 net.cpp:425] inception_5a/5x5 <- inception_5a/5x5_reduce
I0913 20:24:48.393571  3939 net.cpp:399] inception_5a/5x5 -> inception_5a/5x5
I0913 20:24:48.395824  3939 net.cpp:141] Setting up inception_5a/5x5
I0913 20:24:48.395841  3939 net.cpp:148] Top shape: 10 128 7 7 (62720)
I0913 20:24:48.395845  3939 net.cpp:156] Memory required for data: 532241920
I0913 20:24:48.395854  3939 layer_factory.hpp:77] Creating layer inception_5a/relu_5x5
I0913 20:24:48.395889  3939 net.cpp:91] Creating Layer inception_5a/relu_5x5
I0913 20:24:48.395896  3939 net.cpp:425] inception_5a/relu_5x5 <- inception_5a/5x5
I0913 20:24:48.395906  3939 net.cpp:386] inception_5a/relu_5x5 -> inception_5a/5x5 (in-place)
I0913 20:24:48.396157  3939 net.cpp:141] Setting up inception_5a/relu_5x5
I0913 20:24:48.396168  3939 net.cpp:148] Top shape: 10 128 7 7 (62720)
I0913 20:24:48.396173  3939 net.cpp:156] Memory required for data: 532492800
I0913 20:24:48.396178  3939 layer_factory.hpp:77] Creating layer inception_5a/pool
I0913 20:24:48.396190  3939 net.cpp:91] Creating Layer inception_5a/pool
I0913 20:24:48.396196  3939 net.cpp:425] inception_5a/pool <- pool4/3x3_s2_pool4/3x3_s2_0_split_3
I0913 20:24:48.396204  3939 net.cpp:399] inception_5a/pool -> inception_5a/pool
I0913 20:24:48.396278  3939 net.cpp:141] Setting up inception_5a/pool
I0913 20:24:48.396288  3939 net.cpp:148] Top shape: 10 832 7 7 (407680)
I0913 20:24:48.396292  3939 net.cpp:156] Memory required for data: 534123520
I0913 20:24:48.396296  3939 layer_factory.hpp:77] Creating layer inception_5a/pool_proj
I0913 20:24:48.396311  3939 net.cpp:91] Creating Layer inception_5a/pool_proj
I0913 20:24:48.396317  3939 net.cpp:425] inception_5a/pool_proj <- inception_5a/pool
I0913 20:24:48.396327  3939 net.cpp:399] inception_5a/pool_proj -> inception_5a/pool_proj
I0913 20:24:48.399317  3939 net.cpp:141] Setting up inception_5a/pool_proj
I0913 20:24:48.399338  3939 net.cpp:148] Top shape: 10 128 7 7 (62720)
I0913 20:24:48.399343  3939 net.cpp:156] Memory required for data: 534374400
I0913 20:24:48.399351  3939 layer_factory.hpp:77] Creating layer inception_5a/relu_pool_proj
I0913 20:24:48.399359  3939 net.cpp:91] Creating Layer inception_5a/relu_pool_proj
I0913 20:24:48.399365  3939 net.cpp:425] inception_5a/relu_pool_proj <- inception_5a/pool_proj
I0913 20:24:48.399372  3939 net.cpp:386] inception_5a/relu_pool_proj -> inception_5a/pool_proj (in-place)
I0913 20:24:48.399791  3939 net.cpp:141] Setting up inception_5a/relu_pool_proj
I0913 20:24:48.399806  3939 net.cpp:148] Top shape: 10 128 7 7 (62720)
I0913 20:24:48.399811  3939 net.cpp:156] Memory required for data: 534625280
I0913 20:24:48.399816  3939 layer_factory.hpp:77] Creating layer inception_5a/output
I0913 20:24:48.399826  3939 net.cpp:91] Creating Layer inception_5a/output
I0913 20:24:48.399830  3939 net.cpp:425] inception_5a/output <- inception_5a/1x1
I0913 20:24:48.399837  3939 net.cpp:425] inception_5a/output <- inception_5a/3x3
I0913 20:24:48.399842  3939 net.cpp:425] inception_5a/output <- inception_5a/5x5
I0913 20:24:48.399847  3939 net.cpp:425] inception_5a/output <- inception_5a/pool_proj
I0913 20:24:48.399853  3939 net.cpp:399] inception_5a/output -> inception_5a/output
I0913 20:24:48.399905  3939 net.cpp:141] Setting up inception_5a/output
I0913 20:24:48.399915  3939 net.cpp:148] Top shape: 10 832 7 7 (407680)
I0913 20:24:48.399919  3939 net.cpp:156] Memory required for data: 536256000
I0913 20:24:48.399924  3939 layer_factory.hpp:77] Creating layer inception_5a/output_inception_5a/output_0_split
I0913 20:24:48.399935  3939 net.cpp:91] Creating Layer inception_5a/output_inception_5a/output_0_split
I0913 20:24:48.399940  3939 net.cpp:425] inception_5a/output_inception_5a/output_0_split <- inception_5a/output
I0913 20:24:48.399946  3939 net.cpp:399] inception_5a/output_inception_5a/output_0_split -> inception_5a/output_inception_5a/output_0_split_0
I0913 20:24:48.399955  3939 net.cpp:399] inception_5a/output_inception_5a/output_0_split -> inception_5a/output_inception_5a/output_0_split_1
I0913 20:24:48.399963  3939 net.cpp:399] inception_5a/output_inception_5a/output_0_split -> inception_5a/output_inception_5a/output_0_split_2
I0913 20:24:48.399972  3939 net.cpp:399] inception_5a/output_inception_5a/output_0_split -> inception_5a/output_inception_5a/output_0_split_3
I0913 20:24:48.400084  3939 net.cpp:141] Setting up inception_5a/output_inception_5a/output_0_split
I0913 20:24:48.400094  3939 net.cpp:148] Top shape: 10 832 7 7 (407680)
I0913 20:24:48.400100  3939 net.cpp:148] Top shape: 10 832 7 7 (407680)
I0913 20:24:48.400105  3939 net.cpp:148] Top shape: 10 832 7 7 (407680)
I0913 20:24:48.400110  3939 net.cpp:148] Top shape: 10 832 7 7 (407680)
I0913 20:24:48.400115  3939 net.cpp:156] Memory required for data: 542778880
I0913 20:24:48.400118  3939 layer_factory.hpp:77] Creating layer inception_5b/1x1
I0913 20:24:48.400133  3939 net.cpp:91] Creating Layer inception_5b/1x1
I0913 20:24:48.400140  3939 net.cpp:425] inception_5b/1x1 <- inception_5a/output_inception_5a/output_0_split_0
I0913 20:24:48.400149  3939 net.cpp:399] inception_5b/1x1 -> inception_5b/1x1
I0913 20:24:48.404773  3939 net.cpp:141] Setting up inception_5b/1x1
I0913 20:24:48.404804  3939 net.cpp:148] Top shape: 10 384 7 7 (188160)
I0913 20:24:48.404810  3939 net.cpp:156] Memory required for data: 543531520
I0913 20:24:48.404821  3939 layer_factory.hpp:77] Creating layer inception_5b/relu_1x1
I0913 20:24:48.404836  3939 net.cpp:91] Creating Layer inception_5b/relu_1x1
I0913 20:24:48.404844  3939 net.cpp:425] inception_5b/relu_1x1 <- inception_5b/1x1
I0913 20:24:48.404856  3939 net.cpp:386] inception_5b/relu_1x1 -> inception_5b/1x1 (in-place)
I0913 20:24:48.405272  3939 net.cpp:141] Setting up inception_5b/relu_1x1
I0913 20:24:48.405285  3939 net.cpp:148] Top shape: 10 384 7 7 (188160)
I0913 20:24:48.405289  3939 net.cpp:156] Memory required for data: 544284160
I0913 20:24:48.405294  3939 layer_factory.hpp:77] Creating layer inception_5b/3x3_reduce
I0913 20:24:48.405311  3939 net.cpp:91] Creating Layer inception_5b/3x3_reduce
I0913 20:24:48.405318  3939 net.cpp:425] inception_5b/3x3_reduce <- inception_5a/output_inception_5a/output_0_split_1
I0913 20:24:48.405326  3939 net.cpp:399] inception_5b/3x3_reduce -> inception_5b/3x3_reduce
I0913 20:24:48.409446  3939 net.cpp:141] Setting up inception_5b/3x3_reduce
I0913 20:24:48.409487  3939 net.cpp:148] Top shape: 10 192 7 7 (94080)
I0913 20:24:48.409493  3939 net.cpp:156] Memory required for data: 544660480
I0913 20:24:48.409509  3939 layer_factory.hpp:77] Creating layer inception_5b/relu_3x3_reduce
I0913 20:24:48.409528  3939 net.cpp:91] Creating Layer inception_5b/relu_3x3_reduce
I0913 20:24:48.409538  3939 net.cpp:425] inception_5b/relu_3x3_reduce <- inception_5b/3x3_reduce
I0913 20:24:48.409548  3939 net.cpp:386] inception_5b/relu_3x3_reduce -> inception_5b/3x3_reduce (in-place)
I0913 20:24:48.409816  3939 net.cpp:141] Setting up inception_5b/relu_3x3_reduce
I0913 20:24:48.409827  3939 net.cpp:148] Top shape: 10 192 7 7 (94080)
I0913 20:24:48.409832  3939 net.cpp:156] Memory required for data: 545036800
I0913 20:24:48.409837  3939 layer_factory.hpp:77] Creating layer inception_5b/3x3
I0913 20:24:48.409857  3939 net.cpp:91] Creating Layer inception_5b/3x3
I0913 20:24:48.409863  3939 net.cpp:425] inception_5b/3x3 <- inception_5b/3x3_reduce
I0913 20:24:48.409878  3939 net.cpp:399] inception_5b/3x3 -> inception_5b/3x3
I0913 20:24:48.417944  3939 net.cpp:141] Setting up inception_5b/3x3
I0913 20:24:48.417964  3939 net.cpp:148] Top shape: 10 384 7 7 (188160)
I0913 20:24:48.417969  3939 net.cpp:156] Memory required for data: 545789440
I0913 20:24:48.417979  3939 layer_factory.hpp:77] Creating layer inception_5b/relu_3x3
I0913 20:24:48.417987  3939 net.cpp:91] Creating Layer inception_5b/relu_3x3
I0913 20:24:48.417994  3939 net.cpp:425] inception_5b/relu_3x3 <- inception_5b/3x3
I0913 20:24:48.418000  3939 net.cpp:386] inception_5b/relu_3x3 -> inception_5b/3x3 (in-place)
I0913 20:24:48.418443  3939 net.cpp:141] Setting up inception_5b/relu_3x3
I0913 20:24:48.418459  3939 net.cpp:148] Top shape: 10 384 7 7 (188160)
I0913 20:24:48.418464  3939 net.cpp:156] Memory required for data: 546542080
I0913 20:24:48.418469  3939 layer_factory.hpp:77] Creating layer inception_5b/5x5_reduce
I0913 20:24:48.418485  3939 net.cpp:91] Creating Layer inception_5b/5x5_reduce
I0913 20:24:48.418493  3939 net.cpp:425] inception_5b/5x5_reduce <- inception_5a/output_inception_5a/output_0_split_2
I0913 20:24:48.418504  3939 net.cpp:399] inception_5b/5x5_reduce -> inception_5b/5x5_reduce
I0913 20:24:48.420267  3939 net.cpp:141] Setting up inception_5b/5x5_reduce
I0913 20:24:48.420285  3939 net.cpp:148] Top shape: 10 48 7 7 (23520)
I0913 20:24:48.420290  3939 net.cpp:156] Memory required for data: 546636160
I0913 20:24:48.420298  3939 layer_factory.hpp:77] Creating layer inception_5b/relu_5x5_reduce
I0913 20:24:48.420306  3939 net.cpp:91] Creating Layer inception_5b/relu_5x5_reduce
I0913 20:24:48.420312  3939 net.cpp:425] inception_5b/relu_5x5_reduce <- inception_5b/5x5_reduce
I0913 20:24:48.420320  3939 net.cpp:386] inception_5b/relu_5x5_reduce -> inception_5b/5x5_reduce (in-place)
I0913 20:24:48.420760  3939 net.cpp:141] Setting up inception_5b/relu_5x5_reduce
I0913 20:24:48.420776  3939 net.cpp:148] Top shape: 10 48 7 7 (23520)
I0913 20:24:48.420781  3939 net.cpp:156] Memory required for data: 546730240
I0913 20:24:48.420786  3939 layer_factory.hpp:77] Creating layer inception_5b/5x5
I0913 20:24:48.420802  3939 net.cpp:91] Creating Layer inception_5b/5x5
I0913 20:24:48.420809  3939 net.cpp:425] inception_5b/5x5 <- inception_5b/5x5_reduce
I0913 20:24:48.420816  3939 net.cpp:399] inception_5b/5x5 -> inception_5b/5x5
I0913 20:24:48.423888  3939 net.cpp:141] Setting up inception_5b/5x5
I0913 20:24:48.423907  3939 net.cpp:148] Top shape: 10 128 7 7 (62720)
I0913 20:24:48.423912  3939 net.cpp:156] Memory required for data: 546981120
I0913 20:24:48.423920  3939 layer_factory.hpp:77] Creating layer inception_5b/relu_5x5
I0913 20:24:48.423936  3939 net.cpp:91] Creating Layer inception_5b/relu_5x5
I0913 20:24:48.423943  3939 net.cpp:425] inception_5b/relu_5x5 <- inception_5b/5x5
I0913 20:24:48.423950  3939 net.cpp:386] inception_5b/relu_5x5 -> inception_5b/5x5 (in-place)
I0913 20:24:48.424213  3939 net.cpp:141] Setting up inception_5b/relu_5x5
I0913 20:24:48.424226  3939 net.cpp:148] Top shape: 10 128 7 7 (62720)
I0913 20:24:48.424229  3939 net.cpp:156] Memory required for data: 547232000
I0913 20:24:48.424234  3939 layer_factory.hpp:77] Creating layer inception_5b/pool
I0913 20:24:48.424244  3939 net.cpp:91] Creating Layer inception_5b/pool
I0913 20:24:48.424250  3939 net.cpp:425] inception_5b/pool <- inception_5a/output_inception_5a/output_0_split_3
I0913 20:24:48.424262  3939 net.cpp:399] inception_5b/pool -> inception_5b/pool
I0913 20:24:48.424338  3939 net.cpp:141] Setting up inception_5b/pool
I0913 20:24:48.424347  3939 net.cpp:148] Top shape: 10 832 7 7 (407680)
I0913 20:24:48.424351  3939 net.cpp:156] Memory required for data: 548862720
I0913 20:24:48.424363  3939 layer_factory.hpp:77] Creating layer inception_5b/pool_proj
I0913 20:24:48.424389  3939 net.cpp:91] Creating Layer inception_5b/pool_proj
I0913 20:24:48.424396  3939 net.cpp:425] inception_5b/pool_proj <- inception_5b/pool
I0913 20:24:48.424403  3939 net.cpp:399] inception_5b/pool_proj -> inception_5b/pool_proj
I0913 20:24:48.427532  3939 net.cpp:141] Setting up inception_5b/pool_proj
I0913 20:24:48.427551  3939 net.cpp:148] Top shape: 10 128 7 7 (62720)
I0913 20:24:48.427556  3939 net.cpp:156] Memory required for data: 549113600
I0913 20:24:48.427564  3939 layer_factory.hpp:77] Creating layer inception_5b/relu_pool_proj
I0913 20:24:48.427572  3939 net.cpp:91] Creating Layer inception_5b/relu_pool_proj
I0913 20:24:48.427578  3939 net.cpp:425] inception_5b/relu_pool_proj <- inception_5b/pool_proj
I0913 20:24:48.427589  3939 net.cpp:386] inception_5b/relu_pool_proj -> inception_5b/pool_proj (in-place)
I0913 20:24:48.428052  3939 net.cpp:141] Setting up inception_5b/relu_pool_proj
I0913 20:24:48.428068  3939 net.cpp:148] Top shape: 10 128 7 7 (62720)
I0913 20:24:48.428081  3939 net.cpp:156] Memory required for data: 549364480
I0913 20:24:48.428086  3939 layer_factory.hpp:77] Creating layer inception_5b/output
I0913 20:24:48.428095  3939 net.cpp:91] Creating Layer inception_5b/output
I0913 20:24:48.428102  3939 net.cpp:425] inception_5b/output <- inception_5b/1x1
I0913 20:24:48.428107  3939 net.cpp:425] inception_5b/output <- inception_5b/3x3
I0913 20:24:48.428112  3939 net.cpp:425] inception_5b/output <- inception_5b/5x5
I0913 20:24:48.428118  3939 net.cpp:425] inception_5b/output <- inception_5b/pool_proj
I0913 20:24:48.428128  3939 net.cpp:399] inception_5b/output -> inception_5b/output
I0913 20:24:48.428179  3939 net.cpp:141] Setting up inception_5b/output
I0913 20:24:48.428191  3939 net.cpp:148] Top shape: 10 1024 7 7 (501760)
I0913 20:24:48.428195  3939 net.cpp:156] Memory required for data: 551371520
I0913 20:24:48.428200  3939 layer_factory.hpp:77] Creating layer pool5/7x7_s1
I0913 20:24:48.428208  3939 net.cpp:91] Creating Layer pool5/7x7_s1
I0913 20:24:48.428213  3939 net.cpp:425] pool5/7x7_s1 <- inception_5b/output
I0913 20:24:48.428220  3939 net.cpp:399] pool5/7x7_s1 -> pool5/7x7_s1
I0913 20:24:48.428539  3939 net.cpp:141] Setting up pool5/7x7_s1
I0913 20:24:48.428551  3939 net.cpp:148] Top shape: 10 1024 1 1 (10240)
I0913 20:24:48.428555  3939 net.cpp:156] Memory required for data: 551412480
I0913 20:24:48.428560  3939 layer_factory.hpp:77] Creating layer pool5/drop_7x7_s1
I0913 20:24:48.428580  3939 net.cpp:91] Creating Layer pool5/drop_7x7_s1
I0913 20:24:48.428585  3939 net.cpp:425] pool5/drop_7x7_s1 <- pool5/7x7_s1
I0913 20:24:48.428591  3939 net.cpp:386] pool5/drop_7x7_s1 -> pool5/7x7_s1 (in-place)
I0913 20:24:48.428643  3939 net.cpp:141] Setting up pool5/drop_7x7_s1
I0913 20:24:48.428653  3939 net.cpp:148] Top shape: 10 1024 1 1 (10240)
I0913 20:24:48.428658  3939 net.cpp:156] Memory required for data: 551453440
I0913 20:24:48.428661  3939 layer_factory.hpp:77] Creating layer loss3/classifier
I0913 20:24:48.428673  3939 net.cpp:91] Creating Layer loss3/classifier
I0913 20:24:48.428678  3939 net.cpp:425] loss3/classifier <- pool5/7x7_s1
I0913 20:24:48.428689  3939 net.cpp:399] loss3/classifier -> loss3/classifier
I0913 20:24:48.438673  3939 net.cpp:141] Setting up loss3/classifier
I0913 20:24:48.438702  3939 net.cpp:148] Top shape: 10 1000 (10000)
I0913 20:24:48.438707  3939 net.cpp:156] Memory required for data: 551493440
I0913 20:24:48.438719  3939 layer_factory.hpp:77] Creating layer prob
I0913 20:24:48.438733  3939 net.cpp:91] Creating Layer prob
I0913 20:24:48.438740  3939 net.cpp:425] prob <- loss3/classifier
I0913 20:24:48.438748  3939 net.cpp:399] prob -> prob
I0913 20:24:48.439429  3939 net.cpp:141] Setting up prob
I0913 20:24:48.439446  3939 net.cpp:148] Top shape: 10 1000 (10000)
I0913 20:24:48.439450  3939 net.cpp:156] Memory required for data: 551533440
I0913 20:24:48.439456  3939 net.cpp:219] prob does not need backward computation.
I0913 20:24:48.439461  3939 net.cpp:219] loss3/classifier does not need backward computation.
I0913 20:24:48.439465  3939 net.cpp:219] pool5/drop_7x7_s1 does not need backward computation.
I0913 20:24:48.439469  3939 net.cpp:219] pool5/7x7_s1 does not need backward computation.
…
