…
I0925 21:12:36.998153 19755 upgrade_proto.cpp:69] Successfully upgraded file specified using deprecated input fields.
W0925 21:12:36.998172 19759 upgrade_proto.cpp:71] Note that future Caffe releases will only support input layers and not input fields.
W0925 21:12:36.998188 19755 upgrade_proto.cpp:71] Note that future Caffe releases will only support input layers and not input fields.
I0925 21:12:36.998448 19753 net.cpp:49] Initializing net from parameters: 
name: "CaffeNet"
state {
  phase: TEST
}
layer {
  name: "data"
  type: "Input"
  top: "data"
  input_param {
    shape {
      dim: 10
      dim: 3
      dim: 227
      dim: 227
    }
  }
}
layer {
  name: "conv1"
  type: "Convolution"
  bottom: "data"
  top: "conv1"
  convolution_param {
    num_output: 96
    kernel_size: 11
    stride: 4
  }
}
layer {
  name: "relu1"
  type: "ReLU"
  bottom: "conv1"
  top: "conv1"
}
layer {
  name: "pool1"
  type: "Pooling"
  bottom: "conv1"
  top: "pool1"
  pooling_param {
    pool: MAX
    kernel_size: 3
    stride: 2
  }
}
layer {
  name: "norm1"
  type: "LRN"
  bottom: "pool1"
  top: "norm1"
  lrn_param {
    local_size: 5
    alpha: 0.0001
    beta: 0.75
  }
}
layer {
  name: "conv2"
  type: "Convolution"
  bottom: "norm1"
  top: "conv2"
  convolution_param {
    num_output: 256
    pad: 2
    kernel_size: 5
    group: 2
  }
}
layer {
  name: "relu2"
  type: "ReLU"
  bottom: "conv2"
  top: "conv2"
}
layer {
  name: "pool2"
  type: "Pooling"
  bottom: "conv2"
  top: "pool2"
  pooling_param {
    pool: MAX
    kernel_size: 3
    stride: 2
  }
}
layer {
  name: "norm2"
  type: "LRN"
  bottom: "pool2"
  top: "norm2"
  lrn_param {
    local_size: 5
    alpha: 0.0001
    beta: 0.75
  }
}
layer {
  name: "conv3"
  type: "Convolution"
  bottom: "norm2"
  top: "conv3"
  convolution_param {
    num_output: 384
    pad: 1
    kernel_size: 3
  }
}
layer {
  name: "relu3"
  type: "ReLU"
  bottom: "conv3"
  top: "conv3"
}
layer {
  name: "conv4"
  type: "Convolution"
  bottom: "conv3"
  top: "conv4"
  convolution_param {
    num_output: 384
    pad: 1
    kernel_size: 3
    group: 2
  }
}
layer {
  name: "relu4"
  type: "ReLU"
  bottom: "conv4"
  top: "conv4"
}
layer {
  name: "conv5"
  type: "Convolution"
  bottom: "conv4"
  top: "conv5"
  convolution_param {
    num_output: 256
    pad: 1
    kernel_size: 3
    group: 2
  }
}
layer {
  name: "relu5"
  type: "ReLU"
  bottom: "conv5"
  top: "conv5"
}
layer {
  name: "pool5"
  type: "Pooling"
  bottom: "conv5"
  top: "pool5"
  pooling_param {
    pool: MAX
    kernel_size: 3
    stride: 2
  }
}
layer {
  name: "fc6"
  type: "InnerProduct"
  bottom: "pool5"
  top: "fc6"
  inner_product_param {
    num_output: 4096
  }
}
layer {
  name: "relu6"
  type: "ReLU"
  bottom: "fc6"
  top: "fc6"
}
layer {
  name: "drop6"
  type: "Dropout"
  bottom: "fc6"
  top: "fc6"
  dropout_param {
    dropout_ratio: 0.5
  }
}
layer {
  name: "fc7"
  type: "InnerProduct"
  bottom: "fc6"
  top: "fc7"
  inner_product_param {
    num_output: 4096
  }
}
layer {
  name: "relu7"
  type: "ReLU"
  bottom: "fc7"
  top: "fc7"
}
layer {
  name: "drop7"
  type: "Dropout"
  bottom: "fc7"
  top: "fc7"
  dropout_param {
    dropout_ratio: 0.5
  }
}
layer {
  name: "fc8"
  type: "InnerProduct"
  bottom: "fc7"
  top: "fc8"
  inner_product_param {
    num_output: 1000
  }
}
layer {
  name: "prob"
  type: "Softmax"
  bottom: "fc8"
  top: "prob"
}
I0925 21:12:36.998507 19759 net.cpp:49] Initializing net from parameters: 
name: "s2vt:features_to_lstm"
state {
  phase: TEST
}
layer {
  name: "input"
  type: "Input"
  top: "frames_fc7"
  top: "cont_sentence"
  top: "input_sentence"
  top: "stage_indicator"
  input_param {
    shape {
      dim: 1
      dim: 4096
    }
    shape {
      dim: 1
      dim: 1
    }
    shape {
      dim: 1
      dim: 1
    }
    shape {
      dim: 1
      dim: 1
    }
  }
}
layer {
  name: "embed_encoder"
  type: "InnerProduct"
  bottom: "frames_fc7"
  top: "embedded_in_frames"
  param {
    lr_mult: 1
    decay_mult: 1
  }
  param {
    lr_mult: 2
    decay_mult: 0
  }
  inner_product_param {
    num_output: 500
    weight_filler {
      type: "xavier"
    }
    bias_filler {
      type: "constant"
      value: 0.2
    }
  }
}
layer {
  name: "reshape_frames"
  type: "Reshape"
  bottom: "embedded_in_frames"
  top: "embedded_input_frames"
  reshape_param {
    shape {
      dim: 1
      dim: 1
      dim: 500
    }
  }
}
layer {
  name: "reshape_stage_indicator"
  type: "Reshape"
  bottom: "stage_indicator"
  top: "reshaped_stage_indicator"
  reshape_param {
    shape {
      dim: 1
      dim: 1
      dim: 1
    }
  }
}
layer {
  name: "embedding"
  type: "Embed"
  bottom: "input_sentence"
  top: "embedded_input_sentence"
  param {
    lr_mult: 1
  }
  embed_param {
    num_output: 500
    input_dim: 46168
    bias_term: false
    weight_filler {
      type: "uniform"
      min: -0.08
      max: 0.08
    }
  }
}
layer {
  name: "lstm1"
  type: "LSTM"
  bottom: "embedded_input_frames"
  bottom: "cont_sentence"
  top: "lstm1"
  recurrent_param {
    num_output: 1000
    weight_filler {
      type: "uniform"
      min: -0.08
      max: 0.08
    }
    bias_filler {
      type: "constant"
      value: 0
    }
  }
}
layer {
  name: "concat"
  type: "Concat"
  bottom: "lstm1"
  bottom: "embedded_input_sentence"
  bottom: "reshaped_stage_indicator"
  top: "lstm1_video_sequence"
  concat_param {
    concat_dim: 2
  }
}
layer {
  name: "lstm2"
  type: "LSTM"
  bottom: "lstm1_video_sequence"
  bottom: "cont_sentence"
  top: "lstm2"
  recurrent_param {
    num_output: 1000
    weight_filler {
      type: "uniform"
      min: -0.08
      max: 0.08
    }
    bias_filler {
      type: "constant"
      value: 0
    }
  }
}
layer {
  name: "predict"
  type: "InnerProduct"
  bottom: "lstm2"
  top: "predict"
  param {
    lr_mult: 1
    decay_mult: 1
  }
  param {
    lr_mult: 2
    decay_mult: 0
  }
  inner_product_param {
    num_output: 46168
    weight_filler {
      type: "uniform"
      min: -0.08
      max: 0.08
    }
    bias_filler {
      type: "constant"
      value: 0
    }
    axis: 2
  }
}
layer {
  name: "probs"
  type: "Softmax"
  bottom: "predict"
  top: "probs"
  softmax_param {
    axis: 2
  }
}
I0925 21:12:36.998533 19775 net.cpp:49] Initializing net from parameters: 
name: "s2vt:features_to_lstm"
state {
  phase: TEST
}
layer {
  name: "input"
  type: "Input"
  top: "frames_fc7"
  top: "cont_sentence"
  top: "input_sentence"
  top: "stage_indicator"
  input_param {
    shape {
      dim: 1
      dim: 4096
    }
    shape {
      dim: 1
      dim: 1
    }
    shape {
      dim: 1
      dim: 1
    }
    shape {
      dim: 1
      dim: 1
    }
  }
}
layer {
  name: "embed_encoder"
  type: "InnerProduct"
  bottom: "frames_fc7"
  top: "embedded_in_frames"
  param {
    lr_mult: 1
    decay_mult: 1
  }
  param {
    lr_mult: 2
    decay_mult: 0
  }
  inner_product_param {
    num_output: 500
    weight_filler {
      type: "xavier"
    }
    bias_filler {
      type: "constant"
      value: 0.2
    }
  }
}
layer {
  name: "reshape_frames"
  type: "Reshape"
  bottom: "embedded_in_frames"
  top: "embedded_input_frames"
  reshape_param {
    shape {
      dim: 1
      dim: 1
      dim: 500
    }
  }
}
layer {
  name: "reshape_stage_indicator"
  type: "Reshape"
  bottom: "stage_indicator"
  top: "reshaped_stage_indicator"
  reshape_param {
    shape {
      dim: 1
      dim: 1
      dim: 1
    }
  }
}
layer {
  name: "embedding"
  type: "Embed"
  bottom: "input_sentence"
  top: "embedded_input_sentence"
  param {
    lr_mult: 1
  }
  embed_param {
    num_output: 500
    input_dim: 46168
    bias_term: false
    weight_filler {
      type: "uniform"
      min: -0.08
      max: 0.08
    }
  }
}
layer {
  name: "lstm1"
  type: "LSTM"
  bottom: "embedded_input_frames"
  bottom: "cont_sentence"
  top: "lstm1"
  recurrent_param {
    num_output: 1000
    weight_filler {
      type: "uniform"
      min: -0.08
      max: 0.08
    }
    bias_filler {
      type: "constant"
      value: 0
    }
  }
}
layer {
  name: "concat"
  type: "Concat"
  bottom: "lstm1"
  bottom: "embedded_input_sentence"
  bottom: "reshaped_stage_indicator"
  top: "lstm1_video_sequence"
  concat_param {
    concat_dim: 2
  }
}
layer {
  name: "lstm2"
  type: "LSTM"
  bottom: "lstm1_video_sequence"
  bottom: "cont_sentence"
  top: "lstm2"
  recurrent_param {
    num_output: 1000
    weight_filler {
      type: "uniform"
      min: -0.08
      max: 0.08
    }
    bias_filler {
      type: "constant"
      value: 0
    }
  }
}
layer {
  name: "predict"
  type: "InnerProduct"
  bottom: "lstm2"
  top: "predict"
  param {
    lr_mult: 1
    decay_mult: 1
  }
  param {
    lr_mult: 2
    decay_mult: 0
  }
  inner_product_param {
    num_output: 46168
    weight_filler {
      type: "uniform"
      min: -0.08
      max: 0.08
    }
    bias_filler {
      type: "constant"
      value: 0
    }
    axis: 2
  }
}
layer {
  name: "probs"
  type: "Softmax"
  bottom: "predict"
  top: "probs"
  softmax_param {
    axis: 2
  }
}
I0925 21:12:36.998610 19755 net.cpp:49] Initializing net from parameters: 
name: "s2vt:features_to_lstm"
state {
  phase: TEST
}
layer {
  name: "input"
  type: "Input"
  top: "frames_fc7"
  top: "cont_sentence"
  top: "input_sentence"
  top: "stage_indicator"
  input_param {
    shape {
      dim: 1
      dim: 4096
    }
    shape {
      dim: 1
      dim: 1
    }
    shape {
      dim: 1
      dim: 1
    }
    shape {
      dim: 1
      dim: 1
    }
  }
}
layer {
  name: "embed_encoder"
  type: "InnerProduct"
  bottom: "frames_fc7"
  top: "embedded_in_frames"
  param {
    lr_mult: 1
    decay_mult: 1
  }
  param {
    lr_mult: 2
    decay_mult: 0
  }
  inner_product_param {
    num_output: 500
    weight_filler {
      type: "xavier"
    }
    bias_filler {
      type: "constant"
      value: 0.2
    }
  }
}
layer {
  name: "reshape_frames"
  type: "Reshape"
  bottom: "embedded_in_frames"
  top: "embedded_input_frames"
  reshape_param {
    shape {
      dim: 1
      dim: 1
      dim: 500
    }
  }
}
layer {
  name: "reshape_stage_indicator"
  type: "Reshape"
  bottom: "stage_indicator"
  top: "reshaped_stage_indicator"
  reshape_param {
    shape {
      dim: 1
      dim: 1
      dim: 1
    }
  }
}
layer {
  name: "embedding"
  type: "Embed"
  bottom: "input_sentence"
  top: "embedded_input_sentence"
  param {
    lr_mult: 1
  }
  embed_param {
    num_output: 500
    input_dim: 46168
    bias_term: false
    weight_filler {
      type: "uniform"
      min: -0.08
      max: 0.08
    }
  }
}
layer {
  name: "lstm1"
  type: "LSTM"
  bottom: "embedded_input_frames"
  bottom: "cont_sentence"
  top: "lstm1"
  recurrent_param {
    num_output: 1000
    weight_filler {
      type: "uniform"
      min: -0.08
      max: 0.08
    }
    bias_filler {
      type: "constant"
      value: 0
    }
  }
}
layer {
  name: "concat"
  type: "Concat"
  bottom: "lstm1"
  bottom: "embedded_input_sentence"
  bottom: "reshaped_stage_indicator"
  top: "lstm1_video_sequence"
  concat_param {
    concat_dim: 2
  }
}
layer {
  name: "lstm2"
  type: "LSTM"
  bottom: "lstm1_video_sequence"
  bottom: "cont_sentence"
  top: "lstm2"
  recurrent_param {
    num_output: 1000
    weight_filler {
      type: "uniform"
      min: -0.08
      max: 0.08
    }
    bias_filler {
      type: "constant"
      value: 0
    }
  }
}
layer {
  name: "predict"
  type: "InnerProduct"
  bottom: "lstm2"
  top: "predict"
  param {
    lr_mult: 1
    decay_mult: 1
  }
  param {
    lr_mult: 2
    decay_mult: 0
  }
  inner_product_param {
    num_output: 46168
    weight_filler {
      type: "uniform"
      min: -0.08
      max: 0.08
    }
    bias_filler {
      type: "constant"
      value: 0
    }
    axis: 2
  }
}
layer {
  name: "probs"
  type: "Softmax"
  bottom: "predict"
  top: "probs"
  softmax_param {
    axis: 2
  }
}
I0925 21:12:36.998622 19753 layer_factory.hpp:77] Creating layer data
I0925 21:12:36.998656 19759 layer_factory.hpp:77] Creating layer input
I0925 21:12:36.998662 19753 net.cpp:91] Creating Layer data
I0925 21:12:36.998670 19759 net.cpp:91] Creating Layer input
I0925 21:12:36.998674 19753 net.cpp:399] data -> data
I0925 21:12:36.998679 19759 net.cpp:399] input -> frames_fc7
…
I0925 21:12:36.998761 19755 layer_factory.hpp:77] Creating layer input
I0925 21:12:36.998769 19775 net.cpp:399] input -> stage_indicator
I0925 21:12:36.998788 19755 net.cpp:91] Creating Layer input
I0925 21:12:36.998803 19755 net.cpp:399] input -> frames_fc7
I0925 21:12:36.998831 19755 net.cpp:399] input -> cont_sentence
I0925 21:12:36.998848 19755 net.cpp:399] input -> input_sentence
I0925 21:12:36.998868 19755 net.cpp:399] input -> stage_indicator
I0925 21:12:37.709305 19753 net.cpp:141] Setting up data
I0925 21:12:37.709431 19759 net.cpp:141] Setting up input
I0925 21:12:37.709520 19753 net.cpp:148] Top shape: 10 3 227 227 (1545870)
I0925 21:12:37.709522 19759 net.cpp:148] Top shape: 1 4096 (4096)
I0925 21:12:37.709534 19753 net.cpp:156] Memory required for data: 6183480
I0925 21:12:37.709545 19759 net.cpp:148] Top shape: 1 1 (1)
I0925 21:12:37.709553 19759 net.cpp:148] Top shape: 1 1 (1)
I0925 21:12:37.709556 19753 layer_factory.hpp:77] Creating layer conv1
I0925 21:12:37.709568 19759 net.cpp:148] Top shape: 1 1 (1)
I0925 21:12:37.709575 19759 net.cpp:156] Memory required for data: 16396
I0925 21:12:37.709586 19759 layer_factory.hpp:77] Creating layer cont_sentence_input_1_split
I0925 21:12:37.709590 19753 net.cpp:91] Creating Layer conv1
I0925 21:12:37.709601 19753 net.cpp:425] conv1 <- data
I0925 21:12:37.709602 19775 net.cpp:141] Setting up input
I0925 21:12:37.709615 19753 net.cpp:399] conv1 -> conv1
I0925 21:12:37.709619 19759 net.cpp:91] Creating Layer cont_sentence_input_1_split
I0925 21:12:37.709625 19775 net.cpp:148] Top shape: 1 4096 (4096)
I0925 21:12:37.709632 19759 net.cpp:425] cont_sentence_input_1_split <- cont_sentence
I0925 21:12:37.709635 19775 net.cpp:148] Top shape: 1 1 (1)
I0925 21:12:37.709656 19775 net.cpp:148] Top shape: 1 1 (1)
I0925 21:12:37.709661 19775 net.cpp:148] Top shape: 1 1 (1)
I0925 21:12:37.709666 19775 net.cpp:156] Memory required for data: 16396
I0925 21:12:37.709673 19775 layer_factory.hpp:77] Creating layer cont_sentence_input_1_split
I0925 21:12:37.709688 19775 net.cpp:91] Creating Layer cont_sentence_input_1_split
I0925 21:12:37.709688 19759 net.cpp:399] cont_sentence_input_1_split -> cont_sentence_input_1_split_0
I0925 21:12:37.709697 19775 net.cpp:425] cont_sentence_input_1_split <- cont_sentence
I0925 21:12:37.709727 19759 net.cpp:399] cont_sentence_input_1_split -> cont_sentence_input_1_split_1
I0925 21:12:37.709727 19775 net.cpp:399] cont_sentence_input_1_split -> cont_sentence_input_1_split_0
I0925 21:12:37.709751 19775 net.cpp:399] cont_sentence_input_1_split -> cont_sentence_input_1_split_1
I0925 21:12:37.709754 19755 net.cpp:141] Setting up input
I0925 21:12:37.709782 19755 net.cpp:148] Top shape: 1 4096 (4096)
I0925 21:12:37.709796 19755 net.cpp:148] Top shape: 1 1 (1)
I0925 21:12:37.709808 19755 net.cpp:148] Top shape: 1 1 (1)
I0925 21:12:37.709820 19755 net.cpp:148] Top shape: 1 1 (1)
I0925 21:12:37.709830 19755 net.cpp:156] Memory required for data: 16396
I0925 21:12:37.709842 19755 layer_factory.hpp:77] Creating layer cont_sentence_input_1_split
I0925 21:12:37.709861 19755 net.cpp:91] Creating Layer cont_sentence_input_1_split
I0925 21:12:37.709869 19755 net.cpp:425] cont_sentence_input_1_split <- cont_sentence
I0925 21:12:37.709887 19755 net.cpp:399] cont_sentence_input_1_split -> cont_sentence_input_1_split_0
I0925 21:12:37.709908 19755 net.cpp:399] cont_sentence_input_1_split -> cont_sentence_input_1_split_1
I0925 21:12:37.710057 19775 net.cpp:141] Setting up cont_sentence_input_1_split
I0925 21:12:37.710068 19775 net.cpp:148] Top shape: 1 1 (1)
I0925 21:12:37.710075 19775 net.cpp:148] Top shape: 1 1 (1)
I0925 21:12:37.710080 19775 net.cpp:156] Memory required for data: 16404
I0925 21:12:37.710085 19775 layer_factory.hpp:77] Creating layer embed_encoder
I0925 21:12:37.710111 19775 net.cpp:91] Creating Layer embed_encoder
I0925 21:12:37.710117 19775 net.cpp:425] embed_encoder <- frames_fc7
I0925 21:12:37.710129 19775 net.cpp:399] embed_encoder -> embedded_in_frames
I0925 21:12:37.710180 19755 net.cpp:141] Setting up cont_sentence_input_1_split
I0925 21:12:37.710198 19755 net.cpp:148] Top shape: 1 1 (1)
I0925 21:12:37.710206 19755 net.cpp:148] Top shape: 1 1 (1)
I0925 21:12:37.710211 19755 net.cpp:156] Memory required for data: 16404
I0925 21:12:37.710217 19755 layer_factory.hpp:77] Creating layer embed_encoder
I0925 21:12:37.710237 19755 net.cpp:91] Creating Layer embed_encoder
I0925 21:12:37.710242 19755 net.cpp:425] embed_encoder <- frames_fc7
I0925 21:12:37.710253 19755 net.cpp:399] embed_encoder -> embedded_in_frames
I0925 21:12:37.710127 19759 net.cpp:141] Setting up cont_sentence_input_1_split
I0925 21:12:37.710283 19759 net.cpp:148] Top shape: 1 1 (1)
I0925 21:12:37.710290 19759 net.cpp:148] Top shape: 1 1 (1)
I0925 21:12:37.710295 19759 net.cpp:156] Memory required for data: 16404
I0925 21:12:37.710300 19759 layer_factory.hpp:77] Creating layer embed_encoder
I0925 21:12:37.710315 19759 net.cpp:91] Creating Layer embed_encoder
I0925 21:12:37.710321 19759 net.cpp:425] embed_encoder <- frames_fc7
I0925 21:12:37.710332 19759 net.cpp:399] embed_encoder -> embedded_in_frames
I0925 21:12:37.751160 19775 net.cpp:141] Setting up embed_encoder
I0925 21:12:37.751212 19775 net.cpp:148] Top shape: 1 500 (500)
I0925 21:12:37.751219 19775 net.cpp:156] Memory required for data: 18404
I0925 21:12:37.751247 19775 layer_factory.hpp:77] Creating layer reshape_frames
I0925 21:12:37.751276 19775 net.cpp:91] Creating Layer reshape_frames
I0925 21:12:37.751284 19775 net.cpp:425] reshape_frames <- embedded_in_frames
I0925 21:12:37.751296 19775 net.cpp:399] reshape_frames -> embedded_input_frames
I0925 21:12:37.751480 19755 net.cpp:141] Setting up embed_encoder
I0925 21:12:37.751500 19755 net.cpp:148] Top shape: 1 500 (500)
I0925 21:12:37.751507 19755 net.cpp:156] Memory required for data: 18404
I0925 21:12:37.751524 19755 layer_factory.hpp:77] Creating layer reshape_frames
I0925 21:12:37.751524 19775 net.cpp:141] Setting up reshape_frames
I0925 21:12:37.751538 19775 net.cpp:148] Top shape: 1 1 500 (500)
I0925 21:12:37.751539 19755 net.cpp:91] Creating Layer reshape_frames
I0925 21:12:37.751543 19775 net.cpp:156] Memory required for data: 20404
I0925 21:12:37.751549 19755 net.cpp:425] reshape_frames <- embedded_in_frames
I0925 21:12:37.751549 19775 layer_factory.hpp:77] Creating layer reshape_stage_indicator
I0925 21:12:37.751565 19755 net.cpp:399] reshape_frames -> embedded_input_frames
I0925 21:12:37.751570 19775 net.cpp:91] Creating Layer reshape_stage_indicator
I0925 21:12:37.751577 19775 net.cpp:425] reshape_stage_indicator <- stage_indicator
I0925 21:12:37.751588 19775 net.cpp:399] reshape_stage_indicator -> reshaped_stage_indicator
I0925 21:12:37.751648 19775 net.cpp:141] Setting up reshape_stage_indicator
I0925 21:12:37.751659 19775 net.cpp:148] Top shape: 1 1 1 (1)
I0925 21:12:37.751664 19775 net.cpp:156] Memory required for data: 20408
I0925 21:12:37.751669 19775 layer_factory.hpp:77] Creating layer embedding
I0925 21:12:37.751682 19775 net.cpp:91] Creating Layer embedding
I0925 21:12:37.751688 19775 net.cpp:425] embedding <- input_sentence
I0925 21:12:37.751700 19775 net.cpp:399] embedding -> embedded_input_sentence
I0925 21:12:37.751749 19755 net.cpp:141] Setting up reshape_frames
I0925 21:12:37.751765 19755 net.cpp:148] Top shape: 1 1 500 (500)
I0925 21:12:37.751775 19755 net.cpp:156] Memory required for data: 20404
I0925 21:12:37.751734 19759 net.cpp:141] Setting up embed_encoder
I0925 21:12:37.751785 19755 layer_factory.hpp:77] Creating layer reshape_stage_indicator
I0925 21:12:37.751817 19759 net.cpp:148] Top shape: 1 500 (500)
I0925 21:12:37.751827 19759 net.cpp:156] Memory required for data: 18404
I0925 21:12:37.751842 19755 net.cpp:91] Creating Layer reshape_stage_indicator
I0925 21:12:37.751849 19759 layer_factory.hpp:77] Creating layer reshape_frames
I0925 21:12:37.751852 19755 net.cpp:425] reshape_stage_indicator <- stage_indicator
I0925 21:12:37.751873 19755 net.cpp:399] reshape_stage_indicator -> reshaped_stage_indicator
I0925 21:12:37.751875 19759 net.cpp:91] Creating Layer reshape_frames
I0925 21:12:37.751885 19759 net.cpp:425] reshape_frames <- embedded_in_frames
I0925 21:12:37.751912 19759 net.cpp:399] reshape_frames -> embedded_input_frames
I0925 21:12:37.798705 19755 net.cpp:141] Setting up reshape_stage_indicator
I0925 21:12:37.798768 19755 net.cpp:148] Top shape: 1 1 1 (1)
I0925 21:12:37.798777 19755 net.cpp:156] Memory required for data: 20408
I0925 21:12:37.798786 19755 layer_factory.hpp:77] Creating layer embedding
I0925 21:12:37.798807 19755 net.cpp:91] Creating Layer embedding
I0925 21:12:37.798815 19755 net.cpp:425] embedding <- input_sentence
I0925 21:12:37.798831 19755 net.cpp:399] embedding -> embedded_input_sentence
I0925 21:12:37.798836 19759 net.cpp:141] Setting up reshape_frames
I0925 21:12:37.798877 19759 net.cpp:148] Top shape: 1 1 500 (500)
I0925 21:12:37.798885 19759 net.cpp:156] Memory required for data: 20404
I0925 21:12:37.798897 19759 layer_factory.hpp:77] Creating layer reshape_stage_indicator
I0925 21:12:37.798928 19759 net.cpp:91] Creating Layer reshape_stage_indicator
I0925 21:12:37.798938 19759 net.cpp:425] reshape_stage_indicator <- stage_indicator
I0925 21:12:37.798955 19759 net.cpp:399] reshape_stage_indicator -> reshaped_stage_indicator
I0925 21:12:37.845530 19759 net.cpp:141] Setting up reshape_stage_indicator
I0925 21:12:37.845561 19759 net.cpp:148] Top shape: 1 1 1 (1)
I0925 21:12:37.845571 19759 net.cpp:156] Memory required for data: 20408
I0925 21:12:37.845579 19759 layer_factory.hpp:77] Creating layer embedding
I0925 21:12:37.845604 19759 net.cpp:91] Creating Layer embedding
I0925 21:12:37.845614 19759 net.cpp:425] embedding <- input_sentence
I0925 21:12:37.845630 19759 net.cpp:399] embedding -> embedded_input_sentence
I0925 21:12:38.003784 19775 net.cpp:141] Setting up embedding
I0925 21:12:38.003835 19775 net.cpp:148] Top shape: 1 1 500 (500)
I0925 21:12:38.003842 19775 net.cpp:156] Memory required for data: 22408
I0925 21:12:38.003860 19775 layer_factory.hpp:77] Creating layer lstm1
I0925 21:12:38.003892 19775 net.cpp:91] Creating Layer lstm1
I0925 21:12:38.003901 19775 net.cpp:425] lstm1 <- embedded_input_frames
I0925 21:12:38.003911 19775 net.cpp:425] lstm1 <- cont_sentence_input_1_split_0
I0925 21:12:38.003921 19775 net.cpp:399] lstm1 -> lstm1
I0925 21:12:38.003947 19775 recurrent_layer.cpp:20] Initializing recurrent layer: assuming input batch contains 1 timesteps of 1 independent streams.
I0925 21:12:38.004364 19775 net.cpp:49] Initializing net from parameters: 
layer {
  name: "lstm1_"
  type: "Input"
  top: "x"
  top: "cont"
  input_param {
    shape {
      dim: 1
      dim: 1
      dim: 500
    }
    shape {
      dim: 1
      dim: 1
    }
  }
}
layer {
  name: "lstm1_"
  type: "Input"
  top: "c_0"
  top: "h_0"
  input_param {
    shape {
      dim: 1
      dim: 1
      dim: 1000
    }
    shape {
      dim: 1
      dim: 1
      dim: 1000
    }
  }
}
layer {
  name: "lstm1_cont_slice"
  type: "Slice"
  bottom: "cont"
  top: "cont_1"
  slice_param {
    axis: 0
  }
}
layer {
  name: "lstm1_x_transform"
  type: "InnerProduct"
  bottom: "x"
  top: "W_xc_x"
  param {
    name: "W_xc"
  }
  param {
    name: "b_c"
  }
  propagate_down: true
  inner_product_param {
    num_output: 4000
    bias_term: true
    weight_filler {
      type: "uniform"
      min: -0.08
      max: 0.08
    }
    bias_filler {
      type: "constant"
      value: 0
    }
    axis: 2
  }
}
layer {
  name: "lstm1_W_xc_x_slice"
  type: "Slice"
  bottom: "W_xc_x"
  top: "W_xc_x_1"
  slice_param {
    axis: 0
  }
}
layer {
  name: "lstm1_h_conted_0"
  type: "Scale"
  bottom: "h_0"
  bottom: "cont_1"
  top: "h_conted_0"
  scale_param {
    axis: 0
  }
}
layer {
  name: "lstm1_transform_1"
  type: "InnerProduct"
  bottom: "h_conted_0"
  top: "W_hc_h_0"
  param {
    name: "W_hc"
  }
  inner_product_param {
    num_output: 4000
    bias_term: false
    weight_filler {
      type: "uniform"
      min: -0.08
      max: 0.08
    }
    axis: 2
  }
}
layer {
  name: "lstm1_gate_input_1"
  type: "Eltwise"
  bottom: "W_hc_h_0"
  bottom: "W_xc_x_1"
  top: "gate_input_1"
  eltwise_param {
    operation: SUM
  }
}
layer {
  name: "lstm1_unit_1"
  type: "LSTMUnit"
  bottom: "c_0"
  bottom: "gate_input_1"
  bottom: "cont_1"
  top: "c_1"
  top: "h_1"
}
layer {
  name: "lstm1_"
  type: "Split"
  bottom: "c_1"
  top: "c_T"
}
layer {
  name: "lstm1_h_concat"
  type: "Concat"
  bottom: "h_1"
  top: "h"
  concat_param {
    axis: 0
  }
}
layer {
  name: "h_pseudoloss"
  type: "Reduction"
  bottom: "h"
  top: "h_pseudoloss"
  loss_weight: 1
}
I0925 21:12:38.004470 19775 layer_factory.hpp:77] Creating layer lstm1_
I0925 21:12:38.004484 19775 net.cpp:91] Creating Layer lstm1_
I0925 21:12:38.004492 19775 net.cpp:399] lstm1_ -> x
I0925 21:12:38.004504 19775 net.cpp:399] lstm1_ -> cont
I0925 21:12:38.009066 19775 net.cpp:141] Setting up lstm1_
I0925 21:12:38.009093 19775 net.cpp:148] Top shape: 1 1 500 (500)
I0925 21:12:38.009100 19775 net.cpp:148] Top shape: 1 1 (1)
I0925 21:12:38.009105 19775 net.cpp:156] Memory required for data: 2004
I0925 21:12:38.009111 19775 layer_factory.hpp:77] Creating layer lstm1_
I0925 21:12:38.009132 19775 net.cpp:91] Creating Layer lstm1_
I0925 21:12:38.009140 19775 net.cpp:399] lstm1_ -> c_0
I0925 21:12:38.009153 19775 net.cpp:399] lstm1_ -> h_0
I0925 21:12:38.019676 19775 net.cpp:141] Setting up lstm1_
I0925 21:12:38.019727 19775 net.cpp:148] Top shape: 1 1 1000 (1000)
I0925 21:12:38.019739 19775 net.cpp:148] Top shape: 1 1 1000 (1000)
I0925 21:12:38.019747 19775 net.cpp:156] Memory required for data: 10004
I0925 21:12:38.019759 19775 layer_factory.hpp:77] Creating layer lstm1_cont_slice
I0925 21:12:38.019783 19775 net.cpp:91] Creating Layer lstm1_cont_slice
I0925 21:12:38.019791 19775 net.cpp:425] lstm1_cont_slice <- cont
I0925 21:12:38.019809 19775 net.cpp:399] lstm1_cont_slice -> cont_1
I0925 21:12:38.022034 19775 net.cpp:141] Setting up lstm1_cont_slice
I0925 21:12:38.022049 19775 net.cpp:148] Top shape: 1 1 (1)
I0925 21:12:38.022058 19775 net.cpp:156] Memory required for data: 10008
I0925 21:12:38.022065 19775 layer_factory.hpp:77] Creating layer cont_1_lstm1_cont_slice_0_split
I0925 21:12:38.022083 19775 net.cpp:91] Creating Layer cont_1_lstm1_cont_slice_0_split
I0925 21:12:38.022090 19775 net.cpp:425] cont_1_lstm1_cont_slice_0_split <- cont_1
I0925 21:12:38.022101 19775 net.cpp:399] cont_1_lstm1_cont_slice_0_split -> cont_1_lstm1_cont_slice_0_split_0
I0925 21:12:38.022119 19775 net.cpp:399] cont_1_lstm1_cont_slice_0_split -> cont_1_lstm1_cont_slice_0_split_1
I0925 21:12:38.023533 19775 net.cpp:141] Setting up cont_1_lstm1_cont_slice_0_split
I0925 21:12:38.023550 19775 net.cpp:148] Top shape: 1 1 (1)
I0925 21:12:38.023558 19775 net.cpp:148] Top shape: 1 1 (1)
I0925 21:12:38.023566 19775 net.cpp:156] Memory required for data: 10016
I0925 21:12:38.023573 19775 layer_factory.hpp:77] Creating layer lstm1_x_transform
I0925 21:12:38.023594 19775 net.cpp:91] Creating Layer lstm1_x_transform
I0925 21:12:38.023602 19775 net.cpp:425] lstm1_x_transform <- x
I0925 21:12:38.023619 19775 net.cpp:399] lstm1_x_transform -> W_xc_x
I0925 21:12:38.055922 19775 net.cpp:141] Setting up lstm1_x_transform
I0925 21:12:38.055956 19755 net.cpp:141] Setting up embedding
I0925 21:12:38.055974 19775 net.cpp:148] Top shape: 1 1 4000 (4000)
I0925 21:12:38.055979 19755 net.cpp:148] Top shape: 1 1 500 (500)
I0925 21:12:38.055981 19775 net.cpp:156] Memory required for data: 26016
I0925 21:12:38.055985 19755 net.cpp:156] Memory required for data: 22408
I0925 21:12:38.056000 19755 layer_factory.hpp:77] Creating layer lstm1
I0925 21:12:38.056004 19775 layer_factory.hpp:77] Creating layer lstm1_W_xc_x_slice
I0925 21:12:38.056017 19775 net.cpp:91] Creating Layer lstm1_W_xc_x_slice
I0925 21:12:38.056020 19755 net.cpp:91] Creating Layer lstm1
I0925 21:12:38.056025 19775 net.cpp:425] lstm1_W_xc_x_slice <- W_xc_x
I0925 21:12:38.056028 19755 net.cpp:425] lstm1 <- embedded_input_frames
I0925 21:12:38.056036 19755 net.cpp:425] lstm1 <- cont_sentence_input_1_split_0
I0925 21:12:38.056037 19775 net.cpp:399] lstm1_W_xc_x_slice -> W_xc_x_1
I0925 21:12:38.056049 19755 net.cpp:399] lstm1 -> lstm1
I0925 21:12:38.056063 19755 recurrent_layer.cpp:20] Initializing recurrent layer: assuming input batch contains 1 timesteps of 1 independent streams.
I0925 21:12:38.056375 19755 net.cpp:49] Initializing net from parameters: 
layer {
  name: "lstm1_"
  type: "Input"
  top: "x"
  top: "cont"
  input_param {
    shape {
      dim: 1
      dim: 1
      dim: 500
    }
    shape {
      dim: 1
      dim: 1
    }
  }
}
layer {
  name: "lstm1_"
  type: "Input"
  top: "c_0"
  top: "h_0"
  input_param {
    shape {
      dim: 1
      dim: 1
      dim: 1000
    }
    shape {
      dim: 1
      dim: 1
      dim: 1000
    }
  }
}
layer {
  name: "lstm1_cont_slice"
  type: "Slice"
  bottom: "cont"
  top: "cont_1"
  slice_param {
    axis: 0
  }
}
layer {
  name: "lstm1_x_transform"
  type: "InnerProduct"
  bottom: "x"
  top: "W_xc_x"
  param {
    name: "W_xc"
  }
  param {
    name: "b_c"
  }
  propagate_down: true
  inner_product_param {
    num_output: 4000
    bias_term: true
    weight_filler {
      type: "uniform"
      min: -0.08
      max: 0.08
    }
    bias_filler {
      type: "constant"
      value: 0
    }
    axis: 2
  }
}
layer {
  name: "lstm1_W_xc_x_slice"
  type: "Slice"
  bottom: "W_xc_x"
  top: "W_xc_x_1"
  slice_param {
    axis: 0
  }
}
layer {
  name: "lstm1_h_conted_0"
  type: "Scale"
  bottom: "h_0"
  bottom: "cont_1"
  top: "h_conted_0"
  scale_param {
    axis: 0
  }
}
layer {
  name: "lstm1_transform_1"
  type: "InnerProduct"
  bottom: "h_conted_0"
  top: "W_hc_h_0"
  param {
    name: "W_hc"
  }
  inner_product_param {
    num_output: 4000
    bias_term: false
    weight_filler {
      type: "uniform"
      min: -0.08
      max: 0.08
    }
    axis: 2
  }
}
layer {
  name: "lstm1_gate_input_1"
  type: "Eltwise"
  bottom: "W_hc_h_0"
  bottom: "W_xc_x_1"
  top: "gate_input_1"
  eltwise_param {
    operation: SUM
  }
}
layer {
  name: "lstm1_unit_1"
  type: "LSTMUnit"
  bottom: "c_0"
  bottom: "gate_input_1"
  bottom: "cont_1"
  top: "c_1"
  top: "h_1"
}
layer {
  name: "lstm1_"
  type: "Split"
  bottom: "c_1"
  top: "c_T"
}
layer {
  name: "lstm1_h_concat"
  type: "Concat"
  bottom: "h_1"
  top: "h"
  concat_param {
    axis: 0
  }
}
layer {
  name: "h_pseudoloss"
  type: "Reduction"
  bottom: "h"
  top: "h_pseudoloss"
  loss_weight: 1
}
I0925 21:12:38.056474 19755 layer_factory.hpp:77] Creating layer lstm1_
I0925 21:12:38.056488 19755 net.cpp:91] Creating Layer lstm1_
I0925 21:12:38.056495 19755 net.cpp:399] lstm1_ -> x
I0925 21:12:38.056507 19755 net.cpp:399] lstm1_ -> cont
I0925 21:12:38.057119 19755 net.cpp:141] Setting up lstm1_
I0925 21:12:38.057138 19755 net.cpp:148] Top shape: 1 1 500 (500)
I0925 21:12:38.057147 19755 net.cpp:148] Top shape: 1 1 (1)
I0925 21:12:38.057152 19755 net.cpp:156] Memory required for data: 2004
I0925 21:12:38.057157 19755 layer_factory.hpp:77] Creating layer lstm1_
I0925 21:12:38.057163 19775 net.cpp:141] Setting up lstm1_W_xc_x_slice
I0925 21:12:38.057173 19755 net.cpp:91] Creating Layer lstm1_
I0925 21:12:38.057183 19775 net.cpp:148] Top shape: 1 1 4000 (4000)
I0925 21:12:38.057186 19755 net.cpp:399] lstm1_ -> c_0
I0925 21:12:38.057189 19775 net.cpp:156] Memory required for data: 42016
I0925 21:12:38.057195 19775 layer_factory.hpp:77] Creating layer lstm1_h_conted_0
I0925 21:12:38.057200 19755 net.cpp:399] lstm1_ -> h_0
I0925 21:12:38.057217 19775 net.cpp:91] Creating Layer lstm1_h_conted_0
I0925 21:12:38.057224 19775 net.cpp:425] lstm1_h_conted_0 <- h_0
I0925 21:12:38.057232 19775 net.cpp:425] lstm1_h_conted_0 <- cont_1_lstm1_cont_slice_0_split_0
I0925 21:12:38.057240 19775 net.cpp:399] lstm1_h_conted_0 -> h_conted_0
I0925 21:12:38.057266 19755 net.cpp:141] Setting up lstm1_
I0925 21:12:38.057277 19755 net.cpp:148] Top shape: 1 1 1000 (1000)
I0925 21:12:38.057284 19755 net.cpp:148] Top shape: 1 1 1000 (1000)
I0925 21:12:38.057288 19755 net.cpp:156] Memory required for data: 10004
I0925 21:12:38.057293 19755 layer_factory.hpp:77] Creating layer lstm1_cont_slice
I0925 21:12:38.057302 19755 net.cpp:91] Creating Layer lstm1_cont_slice
I0925 21:12:38.057308 19755 net.cpp:425] lstm1_cont_slice <- cont
I0925 21:12:38.057318 19755 net.cpp:399] lstm1_cont_slice -> cont_1
I0925 21:12:38.057363 19755 net.cpp:141] Setting up lstm1_cont_slice
I0925 21:12:38.057374 19755 net.cpp:148] Top shape: 1 1 (1)
I0925 21:12:38.057377 19755 net.cpp:156] Memory required for data: 10008
I0925 21:12:38.057382 19755 layer_factory.hpp:77] Creating layer cont_1_lstm1_cont_slice_0_split
I0925 21:12:38.057405 19755 net.cpp:91] Creating Layer cont_1_lstm1_cont_slice_0_split
I0925 21:12:38.057412 19755 net.cpp:425] cont_1_lstm1_cont_slice_0_split <- cont_1
I0925 21:12:38.057420 19755 net.cpp:399] cont_1_lstm1_cont_slice_0_split -> cont_1_lstm1_cont_slice_0_split_0
I0925 21:12:38.057432 19755 net.cpp:399] cont_1_lstm1_cont_slice_0_split -> cont_1_lstm1_cont_slice_0_split_1
I0925 21:12:38.057430 19775 net.cpp:141] Setting up lstm1_h_conted_0
I0925 21:12:38.057451 19775 net.cpp:148] Top shape: 1 1 1000 (1000)
I0925 21:12:38.057456 19775 net.cpp:156] Memory required for data: 46016
I0925 21:12:38.057461 19775 layer_factory.hpp:77] Creating layer lstm1_transform_1
I0925 21:12:38.057473 19775 net.cpp:91] Creating Layer lstm1_transform_1
I0925 21:12:38.057479 19775 net.cpp:425] lstm1_transform_1 <- h_conted_0
I0925 21:12:38.057492 19775 net.cpp:399] lstm1_transform_1 -> W_hc_h_0
I0925 21:12:38.067255 19755 net.cpp:141] Setting up cont_1_lstm1_cont_slice_0_split
I0925 21:12:38.067276 19755 net.cpp:148] Top shape: 1 1 (1)
I0925 21:12:38.067283 19755 net.cpp:148] Top shape: 1 1 (1)
I0925 21:12:38.067288 19755 net.cpp:156] Memory required for data: 10016
I0925 21:12:38.067293 19755 layer_factory.hpp:77] Creating layer lstm1_x_transform
I0925 21:12:38.067309 19755 net.cpp:91] Creating Layer lstm1_x_transform
I0925 21:12:38.067315 19755 net.cpp:425] lstm1_x_transform <- x
I0925 21:12:38.067325 19755 net.cpp:399] lstm1_x_transform -> W_xc_x
I0925 21:12:38.107225 19755 net.cpp:141] Setting up lstm1_x_transform
I0925 21:12:38.107285 19755 net.cpp:148] Top shape: 1 1 4000 (4000)
I0925 21:12:38.107292 19755 net.cpp:156] Memory required for data: 26016
I0925 21:12:38.107316 19755 layer_factory.hpp:77] Creating layer lstm1_W_xc_x_slice
I0925 21:12:38.107334 19755 net.cpp:91] Creating Layer lstm1_W_xc_x_slice
I0925 21:12:38.107342 19755 net.cpp:425] lstm1_W_xc_x_slice <- W_xc_x
I0925 21:12:38.107352 19755 net.cpp:399] lstm1_W_xc_x_slice -> W_xc_x_1
I0925 21:12:38.107410 19755 net.cpp:141] Setting up lstm1_W_xc_x_slice
I0925 21:12:38.107421 19755 net.cpp:148] Top shape: 1 1 4000 (4000)
I0925 21:12:38.107426 19755 net.cpp:156] Memory required for data: 42016
I0925 21:12:38.107432 19755 layer_factory.hpp:77] Creating layer lstm1_h_conted_0
I0925 21:12:38.107442 19755 net.cpp:91] Creating Layer lstm1_h_conted_0
I0925 21:12:38.107448 19755 net.cpp:425] lstm1_h_conted_0 <- h_0
I0925 21:12:38.107455 19755 net.cpp:425] lstm1_h_conted_0 <- cont_1_lstm1_cont_slice_0_split_0
I0925 21:12:38.107463 19755 net.cpp:399] lstm1_h_conted_0 -> h_conted_0
I0925 21:12:38.107725 19755 net.cpp:141] Setting up lstm1_h_conted_0
I0925 21:12:38.107738 19755 net.cpp:148] Top shape: 1 1 1000 (1000)
I0925 21:12:38.107743 19755 net.cpp:156] Memory required for data: 46016
I0925 21:12:38.107748 19755 layer_factory.hpp:77] Creating layer lstm1_transform_1
I0925 21:12:38.107763 19755 net.cpp:91] Creating Layer lstm1_transform_1
I0925 21:12:38.107767 19755 net.cpp:425] lstm1_transform_1 <- h_conted_0
I0925 21:12:38.107777 19755 net.cpp:399] lstm1_transform_1 -> W_hc_h_0
I0925 21:12:38.118147 19775 net.cpp:141] Setting up lstm1_transform_1
I0925 21:12:38.118204 19775 net.cpp:148] Top shape: 1 1 4000 (4000)
I0925 21:12:38.118211 19775 net.cpp:156] Memory required for data: 62016
I0925 21:12:38.118232 19775 layer_factory.hpp:77] Creating layer lstm1_gate_input_1
I0925 21:12:38.118257 19775 net.cpp:91] Creating Layer lstm1_gate_input_1
I0925 21:12:38.118264 19775 net.cpp:425] lstm1_gate_input_1 <- W_hc_h_0
I0925 21:12:38.118273 19775 net.cpp:425] lstm1_gate_input_1 <- W_xc_x_1
I0925 21:12:38.118281 19775 net.cpp:399] lstm1_gate_input_1 -> gate_input_1
I0925 21:12:38.124305 19775 net.cpp:141] Setting up lstm1_gate_input_1
I0925 21:12:38.124356 19775 net.cpp:148] Top shape: 1 1 4000 (4000)
I0925 21:12:38.124361 19775 net.cpp:156] Memory required for data: 78016
I0925 21:12:38.124371 19775 layer_factory.hpp:77] Creating layer lstm1_unit_1
I0925 21:12:38.124387 19775 net.cpp:91] Creating Layer lstm1_unit_1
I0925 21:12:38.124394 19775 net.cpp:425] lstm1_unit_1 <- c_0
I0925 21:12:38.124404 19775 net.cpp:425] lstm1_unit_1 <- gate_input_1
I0925 21:12:38.124410 19775 net.cpp:425] lstm1_unit_1 <- cont_1_lstm1_cont_slice_0_split_1
I0925 21:12:38.124423 19775 net.cpp:399] lstm1_unit_1 -> c_1
I0925 21:12:38.124436 19775 net.cpp:399] lstm1_unit_1 -> h_1
I0925 21:12:38.124704 19775 net.cpp:141] Setting up lstm1_unit_1
I0925 21:12:38.124717 19775 net.cpp:148] Top shape: 1 1 1000 (1000)
I0925 21:12:38.124724 19775 net.cpp:148] Top shape: 1 1 1000 (1000)
I0925 21:12:38.124728 19775 net.cpp:156] Memory required for data: 86016
I0925 21:12:38.124733 19775 layer_factory.hpp:77] Creating layer lstm1_
I0925 21:12:38.124742 19775 net.cpp:91] Creating Layer lstm1_
I0925 21:12:38.124747 19775 net.cpp:425] lstm1_ <- c_1
I0925 21:12:38.124755 19775 net.cpp:399] lstm1_ -> c_T
I0925 21:12:38.124990 19775 net.cpp:141] Setting up lstm1_
I0925 21:12:38.125001 19775 net.cpp:148] Top shape: 1 1 1000 (1000)
I0925 21:12:38.125006 19775 net.cpp:156] Memory required for data: 90016
I0925 21:12:38.125012 19775 layer_factory.hpp:77] Creating layer lstm1_h_concat
I0925 21:12:38.125025 19775 net.cpp:91] Creating Layer lstm1_h_concat
I0925 21:12:38.125031 19775 net.cpp:425] lstm1_h_concat <- h_1
I0925 21:12:38.125038 19775 net.cpp:399] lstm1_h_concat -> h
I0925 21:12:38.130364 19775 net.cpp:141] Setting up lstm1_h_concat
I0925 21:12:38.130388 19775 net.cpp:148] Top shape: 1 1 1000 (1000)
I0925 21:12:38.130394 19775 net.cpp:156] Memory required for data: 94016
I0925 21:12:38.130400 19775 layer_factory.hpp:77] Creating layer h_pseudoloss
I0925 21:12:38.130422 19775 net.cpp:91] Creating Layer h_pseudoloss
I0925 21:12:38.130429 19775 net.cpp:425] h_pseudoloss <- h
I0925 21:12:38.130437 19775 net.cpp:399] h_pseudoloss -> h_pseudoloss
I0925 21:12:38.130883 19775 net.cpp:141] Setting up h_pseudoloss
…
I0925 21:12:38.131037 19775 net.cpp:219] lstm1_ does not need backward computation.
I0925 21:12:38.131042 19775 net.cpp:261] This network produces output c_T
I0925 21:12:38.131047 19775 net.cpp:261] This network produces output h_pseudoloss
I0925 21:12:38.131072 19775 net.cpp:274] Network initialization done.
I0925 21:12:38.131136 19775 recurrent_layer.cpp:150] Adding parameter 0: W_xc
I0925 21:12:38.131145 19775 recurrent_layer.cpp:150] Adding parameter 1: b_c
I0925 21:12:38.131150 19775 recurrent_layer.cpp:150] Adding parameter 2: W_hc
I0925 21:12:38.134127 19775 net.cpp:141] Setting up lstm1
I0925 21:12:38.134150 19775 net.cpp:148] Top shape: 1 1 1000 (1000)
I0925 21:12:38.134156 19775 net.cpp:156] Memory required for data: 26408
I0925 21:12:38.134173 19775 layer_factory.hpp:77] Creating layer concat
I0925 21:12:38.134184 19775 net.cpp:91] Creating Layer concat
I0925 21:12:38.134191 19775 net.cpp:425] concat <- lstm1
I0925 21:12:38.134199 19775 net.cpp:425] concat <- embedded_input_sentence
I0925 21:12:38.134205 19775 net.cpp:425] concat <- reshaped_stage_indicator
I0925 21:12:38.134213 19775 net.cpp:399] concat -> lstm1_video_sequence
I0925 21:12:38.134405 19775 net.cpp:141] Setting up concat
I0925 21:12:38.134418 19775 net.cpp:148] Top shape: 1 1 1501 (1501)
I0925 21:12:38.134421 19775 net.cpp:156] Memory required for data: 32412
I0925 21:12:38.134428 19775 layer_factory.hpp:77] Creating layer lstm2
I0925 21:12:38.134440 19775 net.cpp:91] Creating Layer lstm2
I0925 21:12:38.134446 19775 net.cpp:425] lstm2 <- lstm1_video_sequence
I0925 21:12:38.134454 19775 net.cpp:425] lstm2 <- cont_sentence_input_1_split_1
I0925 21:12:38.134462 19775 net.cpp:399] lstm2 -> lstm2
I0925 21:12:38.134477 19775 recurrent_layer.cpp:20] Initializing recurrent layer: assuming input batch contains 1 timesteps of 1 independent streams.
I0925 21:12:38.134778 19775 net.cpp:49] Initializing net from parameters: 
layer {
  name: "lstm2_"
  type: "Input"
  top: "x"
  top: "cont"
  input_param {
    shape {
      dim: 1
      dim: 1
      dim: 1501
    }
    shape {
      dim: 1
      dim: 1
    }
  }
}
layer {
  name: "lstm2_"
  type: "Input"
  top: "c_0"
  top: "h_0"
  input_param {
    shape {
      dim: 1
      dim: 1
      dim: 1000
    }
    shape {
      dim: 1
      dim: 1
      dim: 1000
    }
  }
}
layer {
  name: "lstm2_cont_slice"
  type: "Slice"
  bottom: "cont"
  top: "cont_1"
  slice_param {
    axis: 0
  }
}
layer {
  name: "lstm2_x_transform"
  type: "InnerProduct"
  bottom: "x"
  top: "W_xc_x"
  param {
    name: "W_xc"
  }
  param {
    name: "b_c"
  }
  propagate_down: true
  inner_product_param {
    num_output: 4000
    bias_term: true
    weight_filler {
      type: "uniform"
      min: -0.08
      max: 0.08
    }
    bias_filler {
      type: "constant"
      value: 0
    }
    axis: 2
  }
}
layer {
  name: "lstm2_W_xc_x_slice"
  type: "Slice"
  bottom: "W_xc_x"
  top: "W_xc_x_1"
  slice_param {
    axis: 0
  }
}
layer {
  name: "lstm2_h_conted_0"
  type: "Scale"
  bottom: "h_0"
  bottom: "cont_1"
  top: "h_conted_0"
  scale_param {
    axis: 0
  }
}
layer {
  name: "lstm2_transform_1"
  type: "InnerProduct"
  bottom: "h_conted_0"
  top: "W_hc_h_0"
  param {
    name: "W_hc"
  }
  inner_product_param {
    num_output: 4000
    bias_term: false
    weight_filler {
      type: "uniform"
      min: -0.08
      max: 0.08
    }
    axis: 2
  }
}
layer {
  name: "lstm2_gate_input_1"
  type: "Eltwise"
  bottom: "W_hc_h_0"
  bottom: "W_xc_x_1"
  top: "gate_input_1"
  eltwise_param {
    operation: SUM
  }
}
layer {
  name: "lstm2_unit_1"
  type: "LSTMUnit"
  bottom: "c_0"
  bottom: "gate_input_1"
  bottom: "cont_1"
  top: "c_1"
  top: "h_1"
}
layer {
  name: "lstm2_"
  type: "Split"
  bottom: "c_1"
  top: "c_T"
}
layer {
  name: "lstm2_h_concat"
  type: "Concat"
  bottom: "h_1"
  top: "h"
  concat_param {
    axis: 0
  }
}
layer {
  name: "h_pseudoloss"
  type: "Reduction"
  bottom: "h"
  top: "h_pseudoloss"
  loss_weight: 1
}
I0925 21:12:38.134877 19775 layer_factory.hpp:77] Creating layer lstm2_
I0925 21:12:38.134891 19775 net.cpp:91] Creating Layer lstm2_
I0925 21:12:38.134897 19775 net.cpp:399] lstm2_ -> x
I0925 21:12:38.134909 19775 net.cpp:399] lstm2_ -> cont
I0925 21:12:38.135285 19775 net.cpp:141] Setting up lstm2_
I0925 21:12:38.135298 19775 net.cpp:148] Top shape: 1 1 1501 (1501)
I0925 21:12:38.135305 19775 net.cpp:148] Top shape: 1 1 (1)
I0925 21:12:38.135310 19775 net.cpp:156] Memory required for data: 6008
I0925 21:12:38.135315 19775 layer_factory.hpp:77] Creating layer lstm2_
I0925 21:12:38.135325 19775 net.cpp:91] Creating Layer lstm2_
I0925 21:12:38.135336 19775 net.cpp:399] lstm2_ -> c_0
I0925 21:12:38.135352 19775 net.cpp:399] lstm2_ -> h_0
I0925 21:12:38.135458 19775 net.cpp:141] Setting up lstm2_
I0925 21:12:38.135471 19775 net.cpp:148] Top shape: 1 1 1000 (1000)
I0925 21:12:38.135478 19775 net.cpp:148] Top shape: 1 1 1000 (1000)
I0925 21:12:38.135481 19775 net.cpp:156] Memory required for data: 14008
I0925 21:12:38.135488 19775 layer_factory.hpp:77] Creating layer lstm2_cont_slice
I0925 21:12:38.135501 19775 net.cpp:91] Creating Layer lstm2_cont_slice
I0925 21:12:38.135506 19775 net.cpp:425] lstm2_cont_slice <- cont
I0925 21:12:38.135515 19775 net.cpp:399] lstm2_cont_slice -> cont_1
I0925 21:12:38.135584 19775 net.cpp:141] Setting up lstm2_cont_slice
I0925 21:12:38.135596 19775 net.cpp:148] Top shape: 1 1 (1)
I0925 21:12:38.135601 19775 net.cpp:156] Memory required for data: 14012
I0925 21:12:38.135607 19775 layer_factory.hpp:77] Creating layer cont_1_lstm2_cont_slice_0_split
I0925 21:12:38.135622 19775 net.cpp:91] Creating Layer cont_1_lstm2_cont_slice_0_split
I0925 21:12:38.135627 19775 net.cpp:425] cont_1_lstm2_cont_slice_0_split <- cont_1
I0925 21:12:38.135634 19775 net.cpp:399] cont_1_lstm2_cont_slice_0_split -> cont_1_lstm2_cont_slice_0_split_0
I0925 21:12:38.135643 19775 net.cpp:399] cont_1_lstm2_cont_slice_0_split -> cont_1_lstm2_cont_slice_0_split_1
I0925 21:12:38.135906 19775 net.cpp:141] Setting up cont_1_lstm2_cont_slice_0_split
I0925 21:12:38.135918 19775 net.cpp:148] Top shape: 1 1 (1)
I0925 21:12:38.135924 19775 net.cpp:148] Top shape: 1 1 (1)
I0925 21:12:38.135929 19775 net.cpp:156] Memory required for data: 14020
I0925 21:12:38.135934 19775 layer_factory.hpp:77] Creating layer lstm2_x_transform
I0925 21:12:38.135948 19775 net.cpp:91] Creating Layer lstm2_x_transform
I0925 21:12:38.135954 19775 net.cpp:425] lstm2_x_transform <- x
I0925 21:12:38.135963 19775 net.cpp:399] lstm2_x_transform -> W_xc_x
I0925 21:12:38.149068 19753 net.cpp:141] Setting up conv1
I0925 21:12:38.149173 19753 net.cpp:148] Top shape: 10 96 55 55 (2904000)
I0925 21:12:38.149184 19753 net.cpp:156] Memory required for data: 17799480
I0925 21:12:38.149237 19753 layer_factory.hpp:77] Creating layer relu1
I0925 21:12:38.149292 19753 net.cpp:91] Creating Layer relu1
I0925 21:12:38.149304 19753 net.cpp:425] relu1 <- conv1
I0925 21:12:38.149322 19753 net.cpp:386] relu1 -> conv1 (in-place)
I0925 21:12:38.149410 19759 net.cpp:141] Setting up embedding
I0925 21:12:38.149431 19759 net.cpp:148] Top shape: 1 1 500 (500)
I0925 21:12:38.149437 19759 net.cpp:156] Memory required for data: 22408
I0925 21:12:38.149451 19759 layer_factory.hpp:77] Creating layer lstm1
I0925 21:12:38.149484 19759 net.cpp:91] Creating Layer lstm1
I0925 21:12:38.149492 19759 net.cpp:425] lstm1 <- embedded_input_frames
I0925 21:12:38.149502 19759 net.cpp:425] lstm1 <- cont_sentence_input_1_split_0
I0925 21:12:38.149511 19759 net.cpp:399] lstm1 -> lstm1
I0925 21:12:38.149528 19759 recurrent_layer.cpp:20] Initializing recurrent layer: assuming input batch contains 1 timesteps of 1 independent streams.
I0925 21:12:38.149919 19759 net.cpp:49] Initializing net from parameters: 
layer {
  name: "lstm1_"
  type: "Input"
  top: "x"
  top: "cont"
  input_param {
    shape {
      dim: 1
      dim: 1
      dim: 500
    }
    shape {
      dim: 1
      dim: 1
    }
  }
}
layer {
  name: "lstm1_"
  type: "Input"
  top: "c_0"
  top: "h_0"
  input_param {
    shape {
      dim: 1
      dim: 1
      dim: 1000
    }
    shape {
      dim: 1
      dim: 1
      dim: 1000
    }
  }
}
layer {
  name: "lstm1_cont_slice"
  type: "Slice"
  bottom: "cont"
  top: "cont_1"
  slice_param {
    axis: 0
  }
}
layer {
  name: "lstm1_x_transform"
  type: "InnerProduct"
  bottom: "x"
  top: "W_xc_x"
  param {
    name: "W_xc"
  }
  param {
    name: "b_c"
  }
  propagate_down: true
  inner_product_param {
    num_output: 4000
    bias_term: true
    weight_filler {
      type: "uniform"
      min: -0.08
      max: 0.08
    }
    bias_filler {
      type: "constant"
      value: 0
    }
    axis: 2
  }
}
layer {
  name: "lstm1_W_xc_x_slice"
  type: "Slice"
  bottom: "W_xc_x"
  top: "W_xc_x_1"
  slice_param {
    axis: 0
  }
}
layer {
  name: "lstm1_h_conted_0"
  type: "Scale"
  bottom: "h_0"
  bottom: "cont_1"
  top: "h_conted_0"
  scale_param {
    axis: 0
  }
}
layer {
  name: "lstm1_transform_1"
  type: "InnerProduct"
  bottom: "h_conted_0"
  top: "W_hc_h_0"
  param {
    name: "W_hc"
  }
  inner_product_param {
    num_output: 4000
    bias_term: false
    weight_filler {
      type: "uniform"
      min: -0.08
      max: 0.08
    }
    axis: 2
  }
}
layer {
  name: "lstm1_gate_input_1"
  type: "Eltwise"
  bottom: "W_hc_h_0"
  bottom: "W_xc_x_1"
  top: "gate_input_1"
  eltwise_param {
    operation: SUM
  }
}
layer {
  name: "lstm1_unit_1"
  type: "LSTMUnit"
  bottom: "c_0"
  bottom: "gate_input_1"
  bottom: "cont_1"
  top: "c_1"
  top: "h_1"
}
layer {
  name: "lstm1_"
  type: "Split"
  bottom: "c_1"
  top: "c_T"
}
layer {
  name: "lstm1_h_concat"
  type: "Concat"
  bottom: "h_1"
  top: "h"
  concat_param {
    axis: 0
  }
}
layer {
  name: "h_pseudoloss"
  type: "Reduction"
  bottom: "h"
  top: "h_pseudoloss"
  loss_weight: 1
}
I0925 21:12:38.150029 19759 layer_factory.hpp:77] Creating layer lstm1_
I0925 21:12:38.150044 19759 net.cpp:91] Creating Layer lstm1_
I0925 21:12:38.150051 19759 net.cpp:399] lstm1_ -> x
I0925 21:12:38.150065 19759 net.cpp:399] lstm1_ -> cont
I0925 21:12:38.150084 19753 net.cpp:141] Setting up relu1
I0925 21:12:38.150104 19753 net.cpp:148] Top shape: 10 96 55 55 (2904000)
I0925 21:12:38.150112 19753 net.cpp:156] Memory required for data: 29415480
I0925 21:12:38.150122 19753 layer_factory.hpp:77] Creating layer pool1
I0925 21:12:38.150141 19759 net.cpp:141] Setting up lstm1_
I0925 21:12:38.150146 19753 net.cpp:91] Creating Layer pool1
I0925 21:12:38.150156 19759 net.cpp:148] Top shape: 1 1 500 (500)
I0925 21:12:38.150157 19753 net.cpp:425] pool1 <- conv1
I0925 21:12:38.150162 19759 net.cpp:148] Top shape: 1 1 (1)
I0925 21:12:38.150167 19759 net.cpp:156] Memory required for data: 2004
I0925 21:12:38.150171 19753 net.cpp:399] pool1 -> pool1
I0925 21:12:38.150173 19759 layer_factory.hpp:77] Creating layer lstm1_
I0925 21:12:38.150209 19759 net.cpp:91] Creating Layer lstm1_
I0925 21:12:38.150216 19759 net.cpp:399] lstm1_ -> c_0
I0925 21:12:38.150231 19759 net.cpp:399] lstm1_ -> h_0
I0925 21:12:38.150396 19759 net.cpp:141] Setting up lstm1_
I0925 21:12:38.150408 19759 net.cpp:148] Top shape: 1 1 1000 (1000)
I0925 21:12:38.150415 19759 net.cpp:148] Top shape: 1 1 1000 (1000)
I0925 21:12:38.150419 19759 net.cpp:156] Memory required for data: 10004
I0925 21:12:38.150425 19759 layer_factory.hpp:77] Creating layer lstm1_cont_slice
I0925 21:12:38.150867 19753 net.cpp:141] Setting up pool1
I0925 21:12:38.150869 19759 net.cpp:91] Creating Layer lstm1_cont_slice
I0925 21:12:38.150892 19753 net.cpp:148] Top shape: 10 96 27 27 (699840)
I0925 21:12:38.150892 19759 net.cpp:425] lstm1_cont_slice <- cont
I0925 21:12:38.150904 19753 net.cpp:156] Memory required for data: 32214840
I0925 21:12:38.150914 19753 layer_factory.hpp:77] Creating layer norm1
I0925 21:12:38.150916 19759 net.cpp:399] lstm1_cont_slice -> cont_1
I0925 21:12:38.150948 19753 net.cpp:91] Creating Layer norm1
I0925 21:12:38.150956 19753 net.cpp:425] norm1 <- pool1
I0925 21:12:38.150975 19753 net.cpp:399] norm1 -> norm1
I0925 21:12:38.150982 19759 net.cpp:141] Setting up lstm1_cont_slice
I0925 21:12:38.150995 19759 net.cpp:148] Top shape: 1 1 (1)
I0925 21:12:38.151000 19759 net.cpp:156] Memory required for data: 10008
I0925 21:12:38.151006 19759 layer_factory.hpp:77] Creating layer cont_1_lstm1_cont_slice_0_split
I0925 21:12:38.151016 19759 net.cpp:91] Creating Layer cont_1_lstm1_cont_slice_0_split
I0925 21:12:38.151026 19759 net.cpp:425] cont_1_lstm1_cont_slice_0_split <- cont_1
I0925 21:12:38.151046 19759 net.cpp:399] cont_1_lstm1_cont_slice_0_split -> cont_1_lstm1_cont_slice_0_split_0
I0925 21:12:38.151057 19759 net.cpp:399] cont_1_lstm1_cont_slice_0_split -> cont_1_lstm1_cont_slice_0_split_1
I0925 21:12:38.151338 19759 net.cpp:141] Setting up cont_1_lstm1_cont_slice_0_split
I0925 21:12:38.151353 19759 net.cpp:148] Top shape: 1 1 (1)
I0925 21:12:38.151360 19759 net.cpp:148] Top shape: 1 1 (1)
I0925 21:12:38.151365 19759 net.cpp:156] Memory required for data: 10016
I0925 21:12:38.151371 19759 layer_factory.hpp:77] Creating layer lstm1_x_transform
I0925 21:12:38.151394 19759 net.cpp:91] Creating Layer lstm1_x_transform
I0925 21:12:38.151402 19759 net.cpp:425] lstm1_x_transform <- x
I0925 21:12:38.151412 19759 net.cpp:399] lstm1_x_transform -> W_xc_x
I0925 21:12:38.156844 19755 net.cpp:141] Setting up lstm1_transform_1
I0925 21:12:38.156894 19755 net.cpp:148] Top shape: 1 1 4000 (4000)
I0925 21:12:38.156900 19755 net.cpp:156] Memory required for data: 62016
I0925 21:12:38.156921 19755 layer_factory.hpp:77] Creating layer lstm1_gate_input_1
I0925 21:12:38.156941 19755 net.cpp:91] Creating Layer lstm1_gate_input_1
I0925 21:12:38.156949 19755 net.cpp:425] lstm1_gate_input_1 <- W_hc_h_0
I0925 21:12:38.156957 19755 net.cpp:425] lstm1_gate_input_1 <- W_xc_x_1
I0925 21:12:38.156966 19755 net.cpp:399] lstm1_gate_input_1 -> gate_input_1
I0925 21:12:38.156980 19753 net.cpp:141] Setting up norm1
I0925 21:12:38.157024 19753 net.cpp:148] Top shape: 10 96 27 27 (699840)
I0925 21:12:38.157034 19755 net.cpp:141] Setting up lstm1_gate_input_1
I0925 21:12:38.157038 19753 net.cpp:156] Memory required for data: 35014200
I0925 21:12:38.157045 19755 net.cpp:148] Top shape: 1 1 4000 (4000)
I0925 21:12:38.157052 19755 net.cpp:156] Memory required for data: 78016
I0925 21:12:38.157052 19753 layer_factory.hpp:77] Creating layer conv2
I0925 21:12:38.157058 19755 layer_factory.hpp:77] Creating layer lstm1_unit_1
I0925 21:12:38.157073 19755 net.cpp:91] Creating Layer lstm1_unit_1
I0925 21:12:38.157078 19755 net.cpp:425] lstm1_unit_1 <- c_0
I0925 21:12:38.157085 19755 net.cpp:425] lstm1_unit_1 <- gate_input_1
I0925 21:12:38.157084 19753 net.cpp:91] Creating Layer conv2
I0925 21:12:38.157094 19755 net.cpp:425] lstm1_unit_1 <- cont_1_lstm1_cont_slice_0_split_1
I0925 21:12:38.157097 19753 net.cpp:425] conv2 <- norm1
I0925 21:12:38.157101 19755 net.cpp:399] lstm1_unit_1 -> c_1
I0925 21:12:38.157112 19755 net.cpp:399] lstm1_unit_1 -> h_1
I0925 21:12:38.157119 19753 net.cpp:399] conv2 -> conv2
I0925 21:12:38.157207 19755 net.cpp:141] Setting up lstm1_unit_1
I0925 21:12:38.157217 19755 net.cpp:148] Top shape: 1 1 1000 (1000)
I0925 21:12:38.157224 19755 net.cpp:148] Top shape: 1 1 1000 (1000)
I0925 21:12:38.157229 19755 net.cpp:156] Memory required for data: 86016
I0925 21:12:38.157234 19755 layer_factory.hpp:77] Creating layer lstm1_
I0925 21:12:38.157243 19755 net.cpp:91] Creating Layer lstm1_
I0925 21:12:38.157248 19755 net.cpp:425] lstm1_ <- c_1
I0925 21:12:38.157256 19755 net.cpp:399] lstm1_ -> c_T
I0925 21:12:38.157466 19755 net.cpp:141] Setting up lstm1_
I0925 21:12:38.157481 19755 net.cpp:148] Top shape: 1 1 1000 (1000)
I0925 21:12:38.157486 19755 net.cpp:156] Memory required for data: 90016
I0925 21:12:38.157492 19755 layer_factory.hpp:77] Creating layer lstm1_h_concat
I0925 21:12:38.157510 19755 net.cpp:91] Creating Layer lstm1_h_concat
I0925 21:12:38.157516 19755 net.cpp:425] lstm1_h_concat <- h_1
I0925 21:12:38.157526 19755 net.cpp:399] lstm1_h_concat -> h
I0925 21:12:38.157634 19755 net.cpp:141] Setting up lstm1_h_concat
I0925 21:12:38.157645 19755 net.cpp:148] Top shape: 1 1 1000 (1000)
I0925 21:12:38.157650 19755 net.cpp:156] Memory required for data: 94016
I0925 21:12:38.157655 19755 layer_factory.hpp:77] Creating layer h_pseudoloss
I0925 21:12:38.157665 19755 net.cpp:91] Creating Layer h_pseudoloss
I0925 21:12:38.157670 19755 net.cpp:425] h_pseudoloss <- h
I0925 21:12:38.157683 19755 net.cpp:399] h_pseudoloss -> h_pseudoloss
I0925 21:12:38.159564 19755 net.cpp:141] Setting up h_pseudoloss
…
I0925 21:12:38.159759 19755 net.cpp:219] lstm1_ does not need backward computation.
I0925 21:12:38.159765 19755 net.cpp:261] This network produces output c_T
I0925 21:12:38.159775 19755 net.cpp:261] This network produces output h_pseudoloss
I0925 21:12:38.159807 19755 net.cpp:274] Network initialization done.
I0925 21:12:38.159880 19755 recurrent_layer.cpp:150] Adding parameter 0: W_xc
I0925 21:12:38.159893 19755 recurrent_layer.cpp:150] Adding parameter 1: b_c
I0925 21:12:38.159901 19755 recurrent_layer.cpp:150] Adding parameter 2: W_hc
I0925 21:12:38.160382 19755 net.cpp:141] Setting up lstm1
I0925 21:12:38.160403 19755 net.cpp:148] Top shape: 1 1 1000 (1000)
I0925 21:12:38.160413 19755 net.cpp:156] Memory required for data: 26408
I0925 21:12:38.160437 19755 layer_factory.hpp:77] Creating layer concat
I0925 21:12:38.160455 19755 net.cpp:91] Creating Layer concat
I0925 21:12:38.160466 19755 net.cpp:425] concat <- lstm1
I0925 21:12:38.160480 19755 net.cpp:425] concat <- embedded_input_sentence
I0925 21:12:38.160491 19755 net.cpp:425] concat <- reshaped_stage_indicator
I0925 21:12:38.160506 19755 net.cpp:399] concat -> lstm1_video_sequence
I0925 21:12:38.160595 19755 net.cpp:141] Setting up concat
I0925 21:12:38.160615 19755 net.cpp:148] Top shape: 1 1 1501 (1501)
I0925 21:12:38.160624 19755 net.cpp:156] Memory required for data: 32412
I0925 21:12:38.160634 19755 layer_factory.hpp:77] Creating layer lstm2
I0925 21:12:38.160655 19755 net.cpp:91] Creating Layer lstm2
I0925 21:12:38.160665 19755 net.cpp:425] lstm2 <- lstm1_video_sequence
I0925 21:12:38.160677 19755 net.cpp:425] lstm2 <- cont_sentence_input_1_split_1
I0925 21:12:38.160693 19755 net.cpp:399] lstm2 -> lstm2
I0925 21:12:38.160713 19755 recurrent_layer.cpp:20] Initializing recurrent layer: assuming input batch contains 1 timesteps of 1 independent streams.
I0925 21:12:38.161180 19755 net.cpp:49] Initializing net from parameters: 
layer {
  name: "lstm2_"
  type: "Input"
  top: "x"
  top: "cont"
  input_param {
    shape {
      dim: 1
      dim: 1
      dim: 1501
    }
    shape {
      dim: 1
      dim: 1
    }
  }
}
layer {
  name: "lstm2_"
  type: "Input"
  top: "c_0"
  top: "h_0"
  input_param {
    shape {
      dim: 1
      dim: 1
      dim: 1000
    }
    shape {
      dim: 1
      dim: 1
      dim: 1000
    }
  }
}
layer {
  name: "lstm2_cont_slice"
  type: "Slice"
  bottom: "cont"
  top: "cont_1"
  slice_param {
    axis: 0
  }
}
layer {
  name: "lstm2_x_transform"
  type: "InnerProduct"
  bottom: "x"
  top: "W_xc_x"
  param {
    name: "W_xc"
  }
  param {
    name: "b_c"
  }
  propagate_down: true
  inner_product_param {
    num_output: 4000
    bias_term: true
    weight_filler {
      type: "uniform"
      min: -0.08
      max: 0.08
    }
    bias_filler {
      type: "constant"
      value: 0
    }
    axis: 2
  }
}
layer {
  name: "lstm2_W_xc_x_slice"
  type: "Slice"
  bottom: "W_xc_x"
  top: "W_xc_x_1"
  slice_param {
    axis: 0
  }
}
layer {
  name: "lstm2_h_conted_0"
  type: "Scale"
  bottom: "h_0"
  bottom: "cont_1"
  top: "h_conted_0"
  scale_param {
    axis: 0
  }
}
layer {
  name: "lstm2_transform_1"
  type: "InnerProduct"
  bottom: "h_conted_0"
  top: "W_hc_h_0"
  param {
    name: "W_hc"
  }
  inner_product_param {
    num_output: 4000
    bias_term: false
    weight_filler {
      type: "uniform"
      min: -0.08
      max: 0.08
    }
    axis: 2
  }
}
layer {
  name: "lstm2_gate_input_1"
  type: "Eltwise"
  bottom: "W_hc_h_0"
  bottom: "W_xc_x_1"
  top: "gate_input_1"
  eltwise_param {
    operation: SUM
  }
}
layer {
  name: "lstm2_unit_1"
  type: "LSTMUnit"
  bottom: "c_0"
  bottom: "gate_input_1"
  bottom: "cont_1"
  top: "c_1"
  top: "h_1"
}
layer {
  name: "lstm2_"
  type: "Split"
  bottom: "c_1"
  top: "c_T"
}
layer {
  name: "lstm2_h_concat"
  type: "Concat"
  bottom: "h_1"
  top: "h"
  concat_param {
    axis: 0
  }
}
layer {
  name: "h_pseudoloss"
  type: "Reduction"
  bottom: "h"
  top: "h_pseudoloss"
  loss_weight: 1
}
I0925 21:12:38.161378 19755 layer_factory.hpp:77] Creating layer lstm2_
I0925 21:12:38.161403 19755 net.cpp:91] Creating Layer lstm2_
I0925 21:12:38.161417 19755 net.cpp:399] lstm2_ -> x
I0925 21:12:38.161438 19755 net.cpp:399] lstm2_ -> cont
I0925 21:12:38.166659 19755 net.cpp:141] Setting up lstm2_
I0925 21:12:38.166698 19755 net.cpp:148] Top shape: 1 1 1501 (1501)
I0925 21:12:38.166714 19755 net.cpp:148] Top shape: 1 1 (1)
I0925 21:12:38.166723 19755 net.cpp:156] Memory required for data: 6008
I0925 21:12:38.166733 19755 layer_factory.hpp:77] Creating layer lstm2_
I0925 21:12:38.166755 19755 net.cpp:91] Creating Layer lstm2_
I0925 21:12:38.166769 19755 net.cpp:399] lstm2_ -> c_0
I0925 21:12:38.166791 19755 net.cpp:399] lstm2_ -> h_0
I0925 21:12:38.167271 19755 net.cpp:141] Setting up lstm2_
I0925 21:12:38.167299 19755 net.cpp:148] Top shape: 1 1 1000 (1000)
I0925 21:12:38.167311 19755 net.cpp:148] Top shape: 1 1 1000 (1000)
I0925 21:12:38.167320 19755 net.cpp:156] Memory required for data: 14008
I0925 21:12:38.167330 19755 layer_factory.hpp:77] Creating layer lstm2_cont_slice
I0925 21:12:38.167348 19755 net.cpp:91] Creating Layer lstm2_cont_slice
I0925 21:12:38.167359 19755 net.cpp:425] lstm2_cont_slice <- cont
I0925 21:12:38.167376 19755 net.cpp:399] lstm2_cont_slice -> cont_1
I0925 21:12:38.167474 19755 net.cpp:141] Setting up lstm2_cont_slice
I0925 21:12:38.167493 19755 net.cpp:148] Top shape: 1 1 (1)
I0925 21:12:38.167502 19755 net.cpp:156] Memory required for data: 14012
I0925 21:12:38.167511 19755 layer_factory.hpp:77] Creating layer cont_1_lstm2_cont_slice_0_split
I0925 21:12:38.167527 19755 net.cpp:91] Creating Layer cont_1_lstm2_cont_slice_0_split
I0925 21:12:38.167538 19755 net.cpp:425] cont_1_lstm2_cont_slice_0_split <- cont_1
I0925 21:12:38.167552 19755 net.cpp:399] cont_1_lstm2_cont_slice_0_split -> cont_1_lstm2_cont_slice_0_split_0
I0925 21:12:38.167569 19755 net.cpp:399] cont_1_lstm2_cont_slice_0_split -> cont_1_lstm2_cont_slice_0_split_1
I0925 21:12:38.168241 19755 net.cpp:141] Setting up cont_1_lstm2_cont_slice_0_split
I0925 21:12:38.168262 19755 net.cpp:148] Top shape: 1 1 (1)
I0925 21:12:38.168274 19755 net.cpp:148] Top shape: 1 1 (1)
I0925 21:12:38.168283 19755 net.cpp:156] Memory required for data: 14020
I0925 21:12:38.168294 19755 layer_factory.hpp:77] Creating layer lstm2_x_transform
I0925 21:12:38.168323 19755 net.cpp:91] Creating Layer lstm2_x_transform
I0925 21:12:38.168335 19755 net.cpp:425] lstm2_x_transform <- x
I0925 21:12:38.168351 19755 net.cpp:399] lstm2_x_transform -> W_xc_x
I0925 21:12:38.185493 19759 net.cpp:141] Setting up lstm1_x_transform
I0925 21:12:38.185546 19759 net.cpp:148] Top shape: 1 1 4000 (4000)
I0925 21:12:38.185557 19759 net.cpp:156] Memory required for data: 26016
I0925 21:12:38.185585 19759 layer_factory.hpp:77] Creating layer lstm1_W_xc_x_slice
I0925 21:12:38.185613 19759 net.cpp:91] Creating Layer lstm1_W_xc_x_slice
I0925 21:12:38.185624 19759 net.cpp:425] lstm1_W_xc_x_slice <- W_xc_x
I0925 21:12:38.185636 19759 net.cpp:399] lstm1_W_xc_x_slice -> W_xc_x_1
I0925 21:12:38.185705 19753 net.cpp:141] Setting up conv2
I0925 21:12:38.185737 19759 net.cpp:141] Setting up lstm1_W_xc_x_slice
I0925 21:12:38.185752 19759 net.cpp:148] Top shape: 1 1 4000 (4000)
I0925 21:12:38.185757 19759 net.cpp:156] Memory required for data: 42016
I0925 21:12:38.185760 19753 net.cpp:148] Top shape: 10 256 27 27 (1866240)
I0925 21:12:38.185763 19759 layer_factory.hpp:77] Creating layer lstm1_h_conted_0
I0925 21:12:38.185777 19753 net.cpp:156] Memory required for data: 42479160
I0925 21:12:38.185798 19759 net.cpp:91] Creating Layer lstm1_h_conted_0
I0925 21:12:38.185807 19759 net.cpp:425] lstm1_h_conted_0 <- h_0
I0925 21:12:38.185816 19759 net.cpp:425] lstm1_h_conted_0 <- cont_1_lstm1_cont_slice_0_split_0
I0925 21:12:38.185819 19753 layer_factory.hpp:77] Creating layer relu2
I0925 21:12:38.185824 19759 net.cpp:399] lstm1_h_conted_0 -> h_conted_0
I0925 21:12:38.185853 19753 net.cpp:91] Creating Layer relu2
I0925 21:12:38.185866 19753 net.cpp:425] relu2 <- conv2
I0925 21:12:38.185889 19753 net.cpp:386] relu2 -> conv2 (in-place)
I0925 21:12:38.186688 19759 net.cpp:141] Setting up lstm1_h_conted_0
I0925 21:12:38.186704 19759 net.cpp:148] Top shape: 1 1 1000 (1000)
I0925 21:12:38.186709 19759 net.cpp:156] Memory required for data: 46016
I0925 21:12:38.186718 19759 layer_factory.hpp:77] Creating layer lstm1_transform_1
I0925 21:12:38.186743 19759 net.cpp:91] Creating Layer lstm1_transform_1
I0925 21:12:38.186750 19759 net.cpp:425] lstm1_transform_1 <- h_conted_0
I0925 21:12:38.186760 19759 net.cpp:399] lstm1_transform_1 -> W_hc_h_0
I0925 21:12:38.196146 19753 net.cpp:141] Setting up relu2
I0925 21:12:38.196199 19753 net.cpp:148] Top shape: 10 256 27 27 (1866240)
I0925 21:12:38.196210 19753 net.cpp:156] Memory required for data: 49944120
I0925 21:12:38.196223 19753 layer_factory.hpp:77] Creating layer pool2
I0925 21:12:38.196254 19753 net.cpp:91] Creating Layer pool2
I0925 21:12:38.196269 19753 net.cpp:425] pool2 <- conv2
I0925 21:12:38.196288 19753 net.cpp:399] pool2 -> pool2
I0925 21:12:38.196452 19753 net.cpp:141] Setting up pool2
I0925 21:12:38.196470 19753 net.cpp:148] Top shape: 10 256 13 13 (432640)
I0925 21:12:38.196478 19753 net.cpp:156] Memory required for data: 51674680
I0925 21:12:38.196487 19753 layer_factory.hpp:77] Creating layer norm2
I0925 21:12:38.196512 19753 net.cpp:91] Creating Layer norm2
I0925 21:12:38.196522 19753 net.cpp:425] norm2 <- pool2
I0925 21:12:38.196535 19753 net.cpp:399] norm2 -> norm2
I0925 21:12:38.197088 19753 net.cpp:141] Setting up norm2
I0925 21:12:38.197106 19753 net.cpp:148] Top shape: 10 256 13 13 (432640)
I0925 21:12:38.197114 19753 net.cpp:156] Memory required for data: 53405240
I0925 21:12:38.197124 19753 layer_factory.hpp:77] Creating layer conv3
I0925 21:12:38.197159 19753 net.cpp:91] Creating Layer conv3
I0925 21:12:38.197170 19753 net.cpp:425] conv3 <- norm2
I0925 21:12:38.197182 19753 net.cpp:399] conv3 -> conv3
I0925 21:12:38.204674 19775 net.cpp:141] Setting up lstm2_x_transform
I0925 21:12:38.204718 19775 net.cpp:148] Top shape: 1 1 4000 (4000)
I0925 21:12:38.204725 19775 net.cpp:156] Memory required for data: 30020
I0925 21:12:38.204747 19775 layer_factory.hpp:77] Creating layer lstm2_W_xc_x_slice
I0925 21:12:38.204763 19775 net.cpp:91] Creating Layer lstm2_W_xc_x_slice
I0925 21:12:38.204771 19775 net.cpp:425] lstm2_W_xc_x_slice <- W_xc_x
I0925 21:12:38.204780 19775 net.cpp:399] lstm2_W_xc_x_slice -> W_xc_x_1
I0925 21:12:38.204876 19775 net.cpp:141] Setting up lstm2_W_xc_x_slice
I0925 21:12:38.204890 19775 net.cpp:148] Top shape: 1 1 4000 (4000)
I0925 21:12:38.204895 19775 net.cpp:156] Memory required for data: 46020
I0925 21:12:38.204900 19775 layer_factory.hpp:77] Creating layer lstm2_h_conted_0
I0925 21:12:38.204915 19775 net.cpp:91] Creating Layer lstm2_h_conted_0
I0925 21:12:38.204921 19775 net.cpp:425] lstm2_h_conted_0 <- h_0
I0925 21:12:38.204927 19775 net.cpp:425] lstm2_h_conted_0 <- cont_1_lstm2_cont_slice_0_split_0
I0925 21:12:38.204936 19775 net.cpp:399] lstm2_h_conted_0 -> h_conted_0
I0925 21:12:38.205559 19775 net.cpp:141] Setting up lstm2_h_conted_0
I0925 21:12:38.205572 19775 net.cpp:148] Top shape: 1 1 1000 (1000)
I0925 21:12:38.205577 19775 net.cpp:156] Memory required for data: 50020
I0925 21:12:38.205582 19775 layer_factory.hpp:77] Creating layer lstm2_transform_1
I0925 21:12:38.205600 19775 net.cpp:91] Creating Layer lstm2_transform_1
I0925 21:12:38.205606 19775 net.cpp:425] lstm2_transform_1 <- h_conted_0
I0925 21:12:38.205615 19775 net.cpp:399] lstm2_transform_1 -> W_hc_h_0
I0925 21:12:38.215473 19753 net.cpp:141] Setting up conv3
I0925 21:12:38.215529 19753 net.cpp:148] Top shape: 10 384 13 13 (648960)
I0925 21:12:38.215538 19753 net.cpp:156] Memory required for data: 56001080
I0925 21:12:38.215564 19753 layer_factory.hpp:77] Creating layer relu3
I0925 21:12:38.215587 19753 net.cpp:91] Creating Layer relu3
I0925 21:12:38.215600 19753 net.cpp:425] relu3 <- conv3
I0925 21:12:38.215610 19753 net.cpp:386] relu3 -> conv3 (in-place)
I0925 21:12:38.215873 19753 net.cpp:141] Setting up relu3
I0925 21:12:38.215886 19753 net.cpp:148] Top shape: 10 384 13 13 (648960)
I0925 21:12:38.215891 19753 net.cpp:156] Memory required for data: 58596920
I0925 21:12:38.215929 19753 layer_factory.hpp:77] Creating layer conv4
I0925 21:12:38.215952 19753 net.cpp:91] Creating Layer conv4
I0925 21:12:38.215958 19753 net.cpp:425] conv4 <- conv3
I0925 21:12:38.215970 19753 net.cpp:399] conv4 -> conv4
I0925 21:12:38.221943 19753 net.cpp:141] Setting up conv4
I0925 21:12:38.221993 19753 net.cpp:148] Top shape: 10 384 13 13 (648960)
I0925 21:12:38.222003 19753 net.cpp:156] Memory required for data: 61192760
I0925 21:12:38.222025 19753 layer_factory.hpp:77] Creating layer relu4
I0925 21:12:38.222074 19753 net.cpp:91] Creating Layer relu4
I0925 21:12:38.222086 19753 net.cpp:425] relu4 <- conv4
I0925 21:12:38.222107 19753 net.cpp:386] relu4 -> conv4 (in-place)
I0925 21:12:38.222723 19753 net.cpp:141] Setting up relu4
I0925 21:12:38.222743 19753 net.cpp:148] Top shape: 10 384 13 13 (648960)
I0925 21:12:38.222751 19753 net.cpp:156] Memory required for data: 63788600
I0925 21:12:38.222760 19753 layer_factory.hpp:77] Creating layer conv5
I0925 21:12:38.222785 19753 net.cpp:91] Creating Layer conv5
I0925 21:12:38.222795 19753 net.cpp:425] conv5 <- conv4
I0925 21:12:38.222808 19753 net.cpp:399] conv5 -> conv5
I0925 21:12:38.229274 19753 net.cpp:141] Setting up conv5
I0925 21:12:38.229332 19753 net.cpp:148] Top shape: 10 256 13 13 (432640)
I0925 21:12:38.229344 19753 net.cpp:156] Memory required for data: 65519160
I0925 21:12:38.229380 19753 layer_factory.hpp:77] Creating layer relu5
I0925 21:12:38.229439 19753 net.cpp:91] Creating Layer relu5
I0925 21:12:38.229454 19753 net.cpp:425] relu5 <- conv5
I0925 21:12:38.229470 19753 net.cpp:386] relu5 -> conv5 (in-place)
I0925 21:12:38.230080 19753 net.cpp:141] Setting up relu5
I0925 21:12:38.230103 19753 net.cpp:148] Top shape: 10 256 13 13 (432640)
I0925 21:12:38.230113 19753 net.cpp:156] Memory required for data: 67249720
I0925 21:12:38.230164 19753 layer_factory.hpp:77] Creating layer pool5
I0925 21:12:38.230193 19753 net.cpp:91] Creating Layer pool5
I0925 21:12:38.230204 19753 net.cpp:425] pool5 <- conv5
I0925 21:12:38.230219 19753 net.cpp:399] pool5 -> pool5
I0925 21:12:38.230563 19753 net.cpp:141] Setting up pool5
I0925 21:12:38.230581 19753 net.cpp:148] Top shape: 10 256 6 6 (92160)
I0925 21:12:38.230589 19753 net.cpp:156] Memory required for data: 67618360
I0925 21:12:38.230628 19753 layer_factory.hpp:77] Creating layer fc6
I0925 21:12:38.230672 19753 net.cpp:91] Creating Layer fc6
I0925 21:12:38.230684 19753 net.cpp:425] fc6 <- pool5
I0925 21:12:38.230697 19753 net.cpp:399] fc6 -> fc6
I0925 21:12:38.310246 19759 net.cpp:141] Setting up lstm1_transform_1
I0925 21:12:38.310307 19759 net.cpp:148] Top shape: 1 1 4000 (4000)
I0925 21:12:38.310317 19759 net.cpp:156] Memory required for data: 62016
I0925 21:12:38.310349 19759 layer_factory.hpp:77] Creating layer lstm1_gate_input_1
I0925 21:12:38.310381 19759 net.cpp:91] Creating Layer lstm1_gate_input_1
I0925 21:12:38.310392 19759 net.cpp:425] lstm1_gate_input_1 <- W_hc_h_0
I0925 21:12:38.310405 19759 net.cpp:425] lstm1_gate_input_1 <- W_xc_x_1
I0925 21:12:38.310425 19759 net.cpp:399] lstm1_gate_input_1 -> gate_input_1
I0925 21:12:38.310431 19775 net.cpp:141] Setting up lstm2_transform_1
I0925 21:12:38.310470 19775 net.cpp:148] Top shape: 1 1 4000 (4000)
I0925 21:12:38.310477 19775 net.cpp:156] Memory required for data: 66020
I0925 21:12:38.310495 19775 layer_factory.hpp:77] Creating layer lstm2_gate_input_1
I0925 21:12:38.310518 19775 net.cpp:91] Creating Layer lstm2_gate_input_1
I0925 21:12:38.310525 19775 net.cpp:425] lstm2_gate_input_1 <- W_hc_h_0
I0925 21:12:38.310534 19775 net.cpp:425] lstm2_gate_input_1 <- W_xc_x_1
I0925 21:12:38.310545 19775 net.cpp:399] lstm2_gate_input_1 -> gate_input_1
I0925 21:12:38.310555 19759 net.cpp:141] Setting up lstm1_gate_input_1
I0925 21:12:38.310572 19759 net.cpp:148] Top shape: 1 1 4000 (4000)
I0925 21:12:38.310580 19759 net.cpp:156] Memory required for data: 78016
I0925 21:12:38.310588 19759 layer_factory.hpp:77] Creating layer lstm1_unit_1
I0925 21:12:38.310617 19759 net.cpp:91] Creating Layer lstm1_unit_1
I0925 21:12:38.310628 19759 net.cpp:425] lstm1_unit_1 <- c_0
I0925 21:12:38.310638 19759 net.cpp:425] lstm1_unit_1 <- gate_input_1
I0925 21:12:38.310647 19759 net.cpp:425] lstm1_unit_1 <- cont_1_lstm1_cont_slice_0_split_1
I0925 21:12:38.310659 19759 net.cpp:399] lstm1_unit_1 -> c_1
I0925 21:12:38.310673 19759 net.cpp:399] lstm1_unit_1 -> h_1
I0925 21:12:38.310709 19775 net.cpp:141] Setting up lstm2_gate_input_1
I0925 21:12:38.310722 19775 net.cpp:148] Top shape: 1 1 4000 (4000)
I0925 21:12:38.310727 19775 net.cpp:156] Memory required for data: 82020
I0925 21:12:38.310732 19775 layer_factory.hpp:77] Creating layer lstm2_unit_1
I0925 21:12:38.310746 19775 net.cpp:91] Creating Layer lstm2_unit_1
I0925 21:12:38.310752 19775 net.cpp:425] lstm2_unit_1 <- c_0
I0925 21:12:38.310758 19775 net.cpp:425] lstm2_unit_1 <- gate_input_1
I0925 21:12:38.310765 19775 net.cpp:425] lstm2_unit_1 <- cont_1_lstm2_cont_slice_0_split_1
I0925 21:12:38.310771 19775 net.cpp:399] lstm2_unit_1 -> c_1
I0925 21:12:38.310782 19775 net.cpp:399] lstm2_unit_1 -> h_1
I0925 21:12:38.310886 19755 net.cpp:141] Setting up lstm2_x_transform
I0925 21:12:38.310925 19755 net.cpp:148] Top shape: 1 1 4000 (4000)
I0925 21:12:38.310945 19755 net.cpp:156] Memory required for data: 30020
I0925 21:12:38.310981 19755 layer_factory.hpp:77] Creating layer lstm2_W_xc_x_slice
I0925 21:12:38.311009 19755 net.cpp:91] Creating Layer lstm2_W_xc_x_slice
I0925 21:12:38.311012 19775 net.cpp:141] Setting up lstm2_unit_1
I0925 21:12:38.311046 19775 net.cpp:148] Top shape: 1 1 1000 (1000)
I0925 21:12:38.311043 19755 net.cpp:425] lstm2_W_xc_x_slice <- W_xc_x
I0925 21:12:38.311055 19775 net.cpp:148] Top shape: 1 1 1000 (1000)
I0925 21:12:38.311076 19775 net.cpp:156] Memory required for data: 90020
I0925 21:12:38.311084 19775 layer_factory.hpp:77] Creating layer lstm2_
I0925 21:12:38.311094 19775 net.cpp:91] Creating Layer lstm2_
I0925 21:12:38.311099 19775 net.cpp:425] lstm2_ <- c_1
I0925 21:12:38.311100 19755 net.cpp:399] lstm2_W_xc_x_slice -> W_xc_x_1
I0925 21:12:38.311115 19759 net.cpp:141] Setting up lstm1_unit_1
I0925 21:12:38.311110 19775 net.cpp:399] lstm2_ -> c_T
I0925 21:12:38.311136 19759 net.cpp:148] Top shape: 1 1 1000 (1000)
I0925 21:12:38.311151 19759 net.cpp:148] Top shape: 1 1 1000 (1000)
I0925 21:12:38.311159 19759 net.cpp:156] Memory required for data: 86016
I0925 21:12:38.311167 19759 layer_factory.hpp:77] Creating layer lstm1_
I0925 21:12:38.311180 19759 net.cpp:91] Creating Layer lstm1_
I0925 21:12:38.311185 19775 net.cpp:141] Setting up lstm2_
I0925 21:12:38.311189 19759 net.cpp:425] lstm1_ <- c_1
I0925 21:12:38.311197 19775 net.cpp:148] Top shape: 1 1 1000 (1000)
I0925 21:12:38.311203 19775 net.cpp:156] Memory required for data: 94020
I0925 21:12:38.311209 19775 layer_factory.hpp:77] Creating layer lstm2_h_concat
I0925 21:12:38.311209 19759 net.cpp:399] lstm1_ -> c_T
I0925 21:12:38.311219 19775 net.cpp:91] Creating Layer lstm2_h_concat
I0925 21:12:38.311225 19775 net.cpp:425] lstm2_h_concat <- h_1
I0925 21:12:38.311233 19775 net.cpp:399] lstm2_h_concat -> h
I0925 21:12:38.311278 19755 net.cpp:141] Setting up lstm2_W_xc_x_slice
I0925 21:12:38.311314 19755 net.cpp:148] Top shape: 1 1 4000 (4000)
I0925 21:12:38.311331 19755 net.cpp:156] Memory required for data: 46020
I0925 21:12:38.311332 19759 net.cpp:141] Setting up lstm1_
I0925 21:12:38.311358 19755 layer_factory.hpp:77] Creating layer lstm2_h_conted_0
I0925 21:12:38.311372 19759 net.cpp:148] Top shape: 1 1 1000 (1000)
I0925 21:12:38.311383 19759 net.cpp:156] Memory required for data: 90016
I0925 21:12:38.311389 19755 net.cpp:91] Creating Layer lstm2_h_conted_0
I0925 21:12:38.311393 19759 layer_factory.hpp:77] Creating layer lstm1_h_concat
I0925 21:12:38.311411 19775 net.cpp:141] Setting up lstm2_h_concat
I0925 21:12:38.311430 19759 net.cpp:91] Creating Layer lstm1_h_concat
I0925 21:12:38.311416 19755 net.cpp:425] lstm2_h_conted_0 <- h_0
I0925 21:12:38.311444 19775 net.cpp:148] Top shape: 1 1 1000 (1000)
I0925 21:12:38.311444 19759 net.cpp:425] lstm1_h_concat <- h_1
I0925 21:12:38.311451 19775 net.cpp:156] Memory required for data: 98020
I0925 21:12:38.311458 19775 layer_factory.hpp:77] Creating layer h_pseudoloss
I0925 21:12:38.311461 19759 net.cpp:399] lstm1_h_concat -> h
I0925 21:12:38.311470 19775 net.cpp:91] Creating Layer h_pseudoloss
I0925 21:12:38.311475 19775 net.cpp:425] h_pseudoloss <- h
I0925 21:12:38.311486 19775 net.cpp:399] h_pseudoloss -> h_pseudoloss
I0925 21:12:38.311460 19755 net.cpp:425] lstm2_h_conted_0 <- cont_1_lstm2_cont_slice_0_split_0
I0925 21:12:38.311532 19755 net.cpp:399] lstm2_h_conted_0 -> h_conted_0
I0925 21:12:38.311559 19759 net.cpp:141] Setting up lstm1_h_concat
I0925 21:12:38.311578 19759 net.cpp:148] Top shape: 1 1 1000 (1000)
I0925 21:12:38.311586 19759 net.cpp:156] Memory required for data: 94016
I0925 21:12:38.311595 19759 layer_factory.hpp:77] Creating layer h_pseudoloss
I0925 21:12:38.311611 19759 net.cpp:91] Creating Layer h_pseudoloss
I0925 21:12:38.311621 19759 net.cpp:425] h_pseudoloss <- h
I0925 21:12:38.311635 19759 net.cpp:399] h_pseudoloss -> h_pseudoloss
I0925 21:12:38.311661 19775 net.cpp:141] Setting up h_pseudoloss
…
I0925 21:12:38.312072 19759 net.cpp:219] cont_1_lstm1_cont_slice_0_split does not need backward computation.
I0925 21:12:38.312080 19759 net.cpp:219] lstm1_cont_slice does not need backward computation.
I0925 21:12:38.312091 19759 net.cpp:219] lstm1_ does not need backward computation.
I0925 21:12:38.312098 19759 net.cpp:219] lstm1_ does not need backward computation.
I0925 21:12:38.312105 19759 net.cpp:261] This network produces output c_T
I0925 21:12:38.312114 19759 net.cpp:261] This network produces output h_pseudoloss
I0925 21:12:38.312137 19759 net.cpp:274] Network initialization done.
I0925 21:12:38.312197 19775 net.cpp:141] Setting up lstm2
I0925 21:12:38.312211 19775 net.cpp:148] Top shape: 1 1 1000 (1000)
I0925 21:12:38.312211 19759 recurrent_layer.cpp:150] Adding parameter 0: W_xc
I0925 21:12:38.312219 19775 net.cpp:156] Memory required for data: 36412
I0925 21:12:38.312240 19759 recurrent_layer.cpp:150] Adding parameter 1: b_c
I0925 21:12:38.312252 19759 recurrent_layer.cpp:150] Adding parameter 2: W_hc
I0925 21:12:38.312259 19775 layer_factory.hpp:77] Creating layer predict
I0925 21:12:38.312283 19755 net.cpp:141] Setting up lstm2_h_conted_0
I0925 21:12:38.312281 19775 net.cpp:91] Creating Layer predict
I0925 21:12:38.312321 19775 net.cpp:425] predict <- lstm2
I0925 21:12:38.312325 19755 net.cpp:148] Top shape: 1 1 1000 (1000)
I0925 21:12:38.312333 19775 net.cpp:399] predict -> predict
I0925 21:12:38.312352 19755 net.cpp:156] Memory required for data: 50020
I0925 21:12:38.312368 19755 layer_factory.hpp:77] Creating layer lstm2_transform_1
I0925 21:12:38.312397 19755 net.cpp:91] Creating Layer lstm2_transform_1
I0925 21:12:38.312418 19755 net.cpp:425] lstm2_transform_1 <- h_conted_0
I0925 21:12:38.312458 19755 net.cpp:399] lstm2_transform_1 -> W_hc_h_0
I0925 21:12:38.312469 19759 net.cpp:141] Setting up lstm1
I0925 21:12:38.312489 19759 net.cpp:148] Top shape: 1 1 1000 (1000)
I0925 21:12:38.312497 19759 net.cpp:156] Memory required for data: 26408
I0925 21:12:38.312522 19759 layer_factory.hpp:77] Creating layer concat
I0925 21:12:38.312541 19759 net.cpp:91] Creating Layer concat
I0925 21:12:38.312552 19759 net.cpp:425] concat <- lstm1
I0925 21:12:38.312566 19759 net.cpp:425] concat <- embedded_input_sentence
I0925 21:12:38.312577 19759 net.cpp:425] concat <- reshaped_stage_indicator
I0925 21:12:38.312592 19759 net.cpp:399] concat -> lstm1_video_sequence
I0925 21:12:38.412194 19759 net.cpp:141] Setting up concat
I0925 21:12:38.412257 19759 net.cpp:148] Top shape: 1 1 1501 (1501)
I0925 21:12:38.412266 19759 net.cpp:156] Memory required for data: 32412
I0925 21:12:38.412276 19759 layer_factory.hpp:77] Creating layer lstm2
I0925 21:12:38.412302 19759 net.cpp:91] Creating Layer lstm2
I0925 21:12:38.412312 19759 net.cpp:425] lstm2 <- lstm1_video_sequence
I0925 21:12:38.412322 19759 net.cpp:425] lstm2 <- cont_sentence_input_1_split_1
I0925 21:12:38.412334 19759 net.cpp:399] lstm2 -> lstm2
I0925 21:12:38.412354 19759 recurrent_layer.cpp:20] Initializing recurrent layer: assuming input batch contains 1 timesteps of 1 independent streams.
I0925 21:12:38.412533 19753 net.cpp:141] Setting up fc6
I0925 21:12:38.412569 19753 net.cpp:148] Top shape: 10 4096 (40960)
I0925 21:12:38.412586 19753 net.cpp:156] Memory required for data: 67782200
I0925 21:12:38.412618 19753 layer_factory.hpp:77] Creating layer relu6
I0925 21:12:38.412647 19753 net.cpp:91] Creating Layer relu6
I0925 21:12:38.412667 19753 net.cpp:425] relu6 <- fc6
I0925 21:12:38.412695 19753 net.cpp:386] relu6 -> fc6 (in-place)
I0925 21:12:38.412791 19759 net.cpp:49] Initializing net from parameters: 
layer {
  name: "lstm2_"
  type: "Input"
  top: "x"
  top: "cont"
  input_param {
    shape {
      dim: 1
      dim: 1
      dim: 1501
    }
    shape {
      dim: 1
      dim: 1
    }
  }
}
layer {
  name: "lstm2_"
  type: "Input"
  top: "c_0"
  top: "h_0"
  input_param {
    shape {
      dim: 1
      dim: 1
      dim: 1000
    }
    shape {
      dim: 1
      dim: 1
      dim: 1000
    }
  }
}
layer {
  name: "lstm2_cont_slice"
  type: "Slice"
  bottom: "cont"
  top: "cont_1"
  slice_param {
    axis: 0
  }
}
layer {
  name: "lstm2_x_transform"
  type: "InnerProduct"
  bottom: "x"
  top: "W_xc_x"
  param {
    name: "W_xc"
  }
  param {
    name: "b_c"
  }
  propagate_down: true
  inner_product_param {
    num_output: 4000
    bias_term: true
    weight_filler {
      type: "uniform"
      min: -0.08
      max: 0.08
    }
    bias_filler {
      type: "constant"
      value: 0
    }
    axis: 2
  }
}
layer {
  name: "lstm2_W_xc_x_slice"
  type: "Slice"
  bottom: "W_xc_x"
  top: "W_xc_x_1"
  slice_param {
    axis: 0
  }
}
layer {
  name: "lstm2_h_conted_0"
  type: "Scale"
  bottom: "h_0"
  bottom: "cont_1"
  top: "h_conted_0"
  scale_param {
    axis: 0
  }
}
layer {
  name: "lstm2_transform_1"
  type: "InnerProduct"
  bottom: "h_conted_0"
  top: "W_hc_h_0"
  param {
    name: "W_hc"
  }
  inner_product_param {
    num_output: 4000
    bias_term: false
    weight_filler {
      type: "uniform"
      min: -0.08
      max: 0.08
    }
    axis: 2
  }
}
layer {
  name: "lstm2_gate_input_1"
  type: "Eltwise"
  bottom: "W_hc_h_0"
  bottom: "W_xc_x_1"
  top: "gate_input_1"
  eltwise_param {
    operation: SUM
  }
}
layer {
  name: "lstm2_unit_1"
  type: "LSTMUnit"
  bottom: "c_0"
  bottom: "gate_input_1"
  bottom: "cont_1"
  top: "c_1"
  top: "h_1"
}
layer {
  name: "lstm2_"
  type: "Split"
  bottom: "c_1"
  top: "c_T"
}
layer {
  name: "lstm2_h_concat"
  type: "Concat"
  bottom: "h_1"
  top: "h"
  concat_param {
    axis: 0
  }
}
layer {
  name: "h_pseudoloss"
  type: "Reduction"
  bottom: "h"
  top: "h_pseudoloss"
  loss_weight: 1
}
I0925 21:12:38.412945 19759 layer_factory.hpp:77] Creating layer lstm2_
I0925 21:12:38.412967 19759 net.cpp:91] Creating Layer lstm2_
I0925 21:12:38.412978 19759 net.cpp:399] lstm2_ -> x
I0925 21:12:38.412998 19759 net.cpp:399] lstm2_ -> cont
I0925 21:12:38.413323 19759 net.cpp:141] Setting up lstm2_
I0925 21:12:38.413338 19759 net.cpp:148] Top shape: 1 1 1501 (1501)
I0925 21:12:38.413346 19759 net.cpp:148] Top shape: 1 1 (1)
I0925 21:12:38.413350 19759 net.cpp:156] Memory required for data: 6008
I0925 21:12:38.413357 19759 layer_factory.hpp:77] Creating layer lstm2_
I0925 21:12:38.413372 19759 net.cpp:91] Creating Layer lstm2_
I0925 21:12:38.413380 19759 net.cpp:399] lstm2_ -> c_0
I0925 21:12:38.413393 19759 net.cpp:399] lstm2_ -> h_0
I0925 21:12:38.413525 19759 net.cpp:141] Setting up lstm2_
I0925 21:12:38.413538 19759 net.cpp:148] Top shape: 1 1 1000 (1000)
I0925 21:12:38.413544 19759 net.cpp:148] Top shape: 1 1 1000 (1000)
I0925 21:12:38.413549 19759 net.cpp:156] Memory required for data: 14008
I0925 21:12:38.413554 19759 layer_factory.hpp:77] Creating layer lstm2_cont_slice
I0925 21:12:38.413565 19759 net.cpp:91] Creating Layer lstm2_cont_slice
I0925 21:12:38.413571 19759 net.cpp:425] lstm2_cont_slice <- cont
I0925 21:12:38.413580 19759 net.cpp:399] lstm2_cont_slice -> cont_1
I0925 21:12:38.413700 19759 net.cpp:141] Setting up lstm2_cont_slice
I0925 21:12:38.413712 19759 net.cpp:148] Top shape: 1 1 (1)
I0925 21:12:38.413717 19759 net.cpp:156] Memory required for data: 14012
I0925 21:12:38.413722 19759 layer_factory.hpp:77] Creating layer cont_1_lstm2_cont_slice_0_split
I0925 21:12:38.413733 19759 net.cpp:91] Creating Layer cont_1_lstm2_cont_slice_0_split
I0925 21:12:38.413738 19759 net.cpp:425] cont_1_lstm2_cont_slice_0_split <- cont_1
I0925 21:12:38.413748 19759 net.cpp:399] cont_1_lstm2_cont_slice_0_split -> cont_1_lstm2_cont_slice_0_split_0
I0925 21:12:38.413758 19759 net.cpp:399] cont_1_lstm2_cont_slice_0_split -> cont_1_lstm2_cont_slice_0_split_1
I0925 21:12:38.413846 19759 net.cpp:141] Setting up cont_1_lstm2_cont_slice_0_split
I0925 21:12:38.413861 19759 net.cpp:148] Top shape: 1 1 (1)
I0925 21:12:38.413866 19759 net.cpp:148] Top shape: 1 1 (1)
I0925 21:12:38.413872 19759 net.cpp:156] Memory required for data: 14020
I0925 21:12:38.413877 19759 layer_factory.hpp:77] Creating layer lstm2_x_transform
I0925 21:12:38.413877 19753 net.cpp:141] Setting up relu6
I0925 21:12:38.413890 19759 net.cpp:91] Creating Layer lstm2_x_transform
I0925 21:12:38.413908 19759 net.cpp:425] lstm2_x_transform <- x
I0925 21:12:38.413916 19753 net.cpp:148] Top shape: 10 4096 (40960)
I0925 21:12:38.413920 19759 net.cpp:399] lstm2_x_transform -> W_xc_x
I0925 21:12:38.413938 19753 net.cpp:156] Memory required for data: 67946040
I0925 21:12:38.413957 19753 layer_factory.hpp:77] Creating layer drop6
I0925 21:12:38.414005 19753 net.cpp:91] Creating Layer drop6
I0925 21:12:38.414026 19753 net.cpp:425] drop6 <- fc6
I0925 21:12:38.414077 19753 net.cpp:386] drop6 -> fc6 (in-place)
I0925 21:12:38.427719 19753 net.cpp:141] Setting up drop6
I0925 21:12:38.427767 19753 net.cpp:148] Top shape: 10 4096 (40960)
I0925 21:12:38.427778 19753 net.cpp:156] Memory required for data: 68109880
I0925 21:12:38.427789 19753 layer_factory.hpp:77] Creating layer fc7
I0925 21:12:38.427814 19753 net.cpp:91] Creating Layer fc7
I0925 21:12:38.427824 19753 net.cpp:425] fc7 <- fc6
I0925 21:12:38.427850 19753 net.cpp:399] fc7 -> fc7
I0925 21:12:38.469020 19755 net.cpp:141] Setting up lstm2_transform_1
I0925 21:12:38.469105 19755 net.cpp:148] Top shape: 1 1 4000 (4000)
I0925 21:12:38.469123 19755 net.cpp:156] Memory required for data: 66020
I0925 21:12:38.469163 19755 layer_factory.hpp:77] Creating layer lstm2_gate_input_1
I0925 21:12:38.469213 19755 net.cpp:91] Creating Layer lstm2_gate_input_1
I0925 21:12:38.469236 19755 net.cpp:425] lstm2_gate_input_1 <- W_hc_h_0
I0925 21:12:38.469257 19755 net.cpp:425] lstm2_gate_input_1 <- W_xc_x_1
I0925 21:12:38.469283 19755 net.cpp:399] lstm2_gate_input_1 -> gate_input_1
I0925 21:12:38.469422 19755 net.cpp:141] Setting up lstm2_gate_input_1
I0925 21:12:38.469451 19755 net.cpp:148] Top shape: 1 1 4000 (4000)
I0925 21:12:38.469465 19755 net.cpp:156] Memory required for data: 82020
I0925 21:12:38.469482 19755 layer_factory.hpp:77] Creating layer lstm2_unit_1
I0925 21:12:38.469506 19755 net.cpp:91] Creating Layer lstm2_unit_1
I0925 21:12:38.469524 19755 net.cpp:425] lstm2_unit_1 <- c_0
I0925 21:12:38.469542 19755 net.cpp:425] lstm2_unit_1 <- gate_input_1
I0925 21:12:38.469561 19755 net.cpp:425] lstm2_unit_1 <- cont_1_lstm2_cont_slice_0_split_1
I0925 21:12:38.469595 19755 net.cpp:399] lstm2_unit_1 -> c_1
I0925 21:12:38.469626 19755 net.cpp:399] lstm2_unit_1 -> h_1
I0925 21:12:38.469851 19755 net.cpp:141] Setting up lstm2_unit_1
I0925 21:12:38.469882 19755 net.cpp:148] Top shape: 1 1 1000 (1000)
I0925 21:12:38.469902 19755 net.cpp:148] Top shape: 1 1 1000 (1000)
I0925 21:12:38.469915 19755 net.cpp:156] Memory required for data: 90020
I0925 21:12:38.469933 19755 layer_factory.hpp:77] Creating layer lstm2_
I0925 21:12:38.469955 19755 net.cpp:91] Creating Layer lstm2_
I0925 21:12:38.469974 19755 net.cpp:425] lstm2_ <- c_1
I0925 21:12:38.469995 19755 net.cpp:399] lstm2_ -> c_T
I0925 21:12:38.470103 19755 net.cpp:141] Setting up lstm2_
I0925 21:12:38.470131 19755 net.cpp:148] Top shape: 1 1 1000 (1000)
I0925 21:12:38.470145 19755 net.cpp:156] Memory required for data: 94020
I0925 21:12:38.470160 19755 layer_factory.hpp:77] Creating layer lstm2_h_concat
I0925 21:12:38.470185 19755 net.cpp:91] Creating Layer lstm2_h_concat
I0925 21:12:38.470201 19755 net.cpp:425] lstm2_h_concat <- h_1
I0925 21:12:38.470223 19755 net.cpp:399] lstm2_h_concat -> h
I0925 21:12:38.470335 19755 net.cpp:141] Setting up lstm2_h_concat
I0925 21:12:38.470365 19755 net.cpp:148] Top shape: 1 1 1000 (1000)
I0925 21:12:38.470379 19755 net.cpp:156] Memory required for data: 98020
I0925 21:12:38.470396 19755 layer_factory.hpp:77] Creating layer h_pseudoloss
I0925 21:12:38.470419 19755 net.cpp:91] Creating Layer h_pseudoloss
I0925 21:12:38.470435 19755 net.cpp:425] h_pseudoloss <- h
I0925 21:12:38.470458 19755 net.cpp:399] h_pseudoloss -> h_pseudoloss
I0925 21:12:38.470746 19755 net.cpp:141] Setting up h_pseudoloss
…
I0925 21:12:38.471050 19755 net.cpp:219] lstm2_ does not need backward computation.
I0925 21:12:38.471061 19755 net.cpp:261] This network produces output c_T
I0925 21:12:38.471076 19755 net.cpp:261] This network produces output h_pseudoloss
I0925 21:12:38.471112 19755 net.cpp:274] Network initialization done.
I0925 21:12:38.471222 19755 recurrent_layer.cpp:150] Adding parameter 0: W_xc
I0925 21:12:38.471241 19755 recurrent_layer.cpp:150] Adding parameter 1: b_c
I0925 21:12:38.471256 19755 recurrent_layer.cpp:150] Adding parameter 2: W_hc
I0925 21:12:38.471535 19755 net.cpp:141] Setting up lstm2
I0925 21:12:38.471566 19755 net.cpp:148] Top shape: 1 1 1000 (1000)
I0925 21:12:38.471580 19755 net.cpp:156] Memory required for data: 36412
I0925 21:12:38.471622 19755 layer_factory.hpp:77] Creating layer predict
I0925 21:12:38.471657 19755 net.cpp:91] Creating Layer predict
I0925 21:12:38.471676 19755 net.cpp:425] predict <- lstm2
I0925 21:12:38.471701 19755 net.cpp:399] predict -> predict
I0925 21:12:38.570376 19759 net.cpp:141] Setting up lstm2_x_transform
I0925 21:12:38.570436 19759 net.cpp:148] Top shape: 1 1 4000 (4000)
I0925 21:12:38.570447 19759 net.cpp:156] Memory required for data: 30020
I0925 21:12:38.570478 19759 layer_factory.hpp:77] Creating layer lstm2_W_xc_x_slice
I0925 21:12:38.570503 19759 net.cpp:91] Creating Layer lstm2_W_xc_x_slice
I0925 21:12:38.570516 19759 net.cpp:425] lstm2_W_xc_x_slice <- W_xc_x
I0925 21:12:38.570534 19759 net.cpp:399] lstm2_W_xc_x_slice -> W_xc_x_1
I0925 21:12:38.570611 19753 net.cpp:141] Setting up fc7
I0925 21:12:38.570660 19753 net.cpp:148] Top shape: 10 4096 (40960)
I0925 21:12:38.570662 19759 net.cpp:141] Setting up lstm2_W_xc_x_slice
I0925 21:12:38.570686 19753 net.cpp:156] Memory required for data: 68273720
I0925 21:12:38.570696 19759 net.cpp:148] Top shape: 1 1 4000 (4000)
I0925 21:12:38.570706 19759 net.cpp:156] Memory required for data: 46020
I0925 21:12:38.570715 19759 layer_factory.hpp:77] Creating layer lstm2_h_conted_0
I0925 21:12:38.570724 19753 layer_factory.hpp:77] Creating layer relu7
I0925 21:12:38.570734 19759 net.cpp:91] Creating Layer lstm2_h_conted_0
I0925 21:12:38.570744 19759 net.cpp:425] lstm2_h_conted_0 <- h_0
I0925 21:12:38.570755 19759 net.cpp:425] lstm2_h_conted_0 <- cont_1_lstm2_cont_slice_0_split_0
I0925 21:12:38.570768 19759 net.cpp:399] lstm2_h_conted_0 -> h_conted_0
I0925 21:12:38.570777 19753 net.cpp:91] Creating Layer relu7
I0925 21:12:38.570809 19753 net.cpp:425] relu7 <- fc7
I0925 21:12:38.570833 19753 net.cpp:386] relu7 -> fc7 (in-place)
I0925 21:12:38.570966 19759 net.cpp:141] Setting up lstm2_h_conted_0
I0925 21:12:38.570986 19759 net.cpp:148] Top shape: 1 1 1000 (1000)
I0925 21:12:38.570997 19759 net.cpp:156] Memory required for data: 50020
I0925 21:12:38.571007 19759 layer_factory.hpp:77] Creating layer lstm2_transform_1
I0925 21:12:38.571028 19759 net.cpp:91] Creating Layer lstm2_transform_1
I0925 21:12:38.571040 19759 net.cpp:425] lstm2_transform_1 <- h_conted_0
I0925 21:12:38.571058 19759 net.cpp:399] lstm2_transform_1 -> W_hc_h_0
I0925 21:12:38.582361 19753 net.cpp:141] Setting up relu7
I0925 21:12:38.582448 19753 net.cpp:148] Top shape: 10 4096 (40960)
I0925 21:12:38.582466 19753 net.cpp:156] Memory required for data: 68437560
I0925 21:12:38.582489 19753 layer_factory.hpp:77] Creating layer drop7
I0925 21:12:38.582532 19753 net.cpp:91] Creating Layer drop7
I0925 21:12:38.582554 19753 net.cpp:425] drop7 <- fc7
I0925 21:12:38.582581 19753 net.cpp:386] drop7 -> fc7 (in-place)
I0925 21:12:38.582762 19753 net.cpp:141] Setting up drop7
I0925 21:12:38.582792 19753 net.cpp:148] Top shape: 10 4096 (40960)
I0925 21:12:38.582808 19753 net.cpp:156] Memory required for data: 68601400
I0925 21:12:38.582823 19753 layer_factory.hpp:77] Creating layer fc8
I0925 21:12:38.582851 19753 net.cpp:91] Creating Layer fc8
I0925 21:12:38.582867 19753 net.cpp:425] fc8 <- fc7
I0925 21:12:38.582897 19753 net.cpp:399] fc8 -> fc8
I0925 21:12:38.603288 19753 net.cpp:141] Setting up fc8
I0925 21:12:38.603348 19753 net.cpp:148] Top shape: 10 1000 (10000)
I0925 21:12:38.603358 19753 net.cpp:156] Memory required for data: 68641400
I0925 21:12:38.603379 19753 layer_factory.hpp:77] Creating layer prob
I0925 21:12:38.603410 19753 net.cpp:91] Creating Layer prob
I0925 21:12:38.603420 19753 net.cpp:425] prob <- fc8
I0925 21:12:38.603435 19753 net.cpp:399] prob -> prob
I0925 21:12:38.604074 19753 net.cpp:141] Setting up prob
I0925 21:12:38.604091 19753 net.cpp:148] Top shape: 10 1000 (10000)
I0925 21:12:38.604099 19753 net.cpp:156] Memory required for data: 68681400
I0925 21:12:38.604107 19753 net.cpp:219] prob does not need backward computation.
I0925 21:12:38.604116 19753 net.cpp:219] fc8 does not need backward computation.
I0925 21:12:38.604125 19753 net.cpp:219] drop7 does not need backward computation.
I0925 21:12:38.604132 19753 net.cpp:219] relu7 does not need backward computation.
…
I0925 21:12:38.604264 19753 net.cpp:219] norm1 does not need backward computation.
I0925 21:12:38.604271 19753 net.cpp:219] pool1 does not need backward computation.
I0925 21:12:38.604284 19753 net.cpp:219] relu1 does not need backward computation.
I0925 21:12:38.604291 19753 net.cpp:219] conv1 does not need backward computation.
I0925 21:12:38.604300 19753 net.cpp:219] data does not need backward computation.
I0925 21:12:38.604307 19753 net.cpp:261] This network produces output prob
I0925 21:12:38.604354 19753 net.cpp:274] Network initialization done.
I0925 21:12:38.624559 19759 net.cpp:141] Setting up lstm2_transform_1
I0925 21:12:38.624624 19759 net.cpp:148] Top shape: 1 1 4000 (4000)
I0925 21:12:38.624634 19759 net.cpp:156] Memory required for data: 66020
I0925 21:12:38.624660 19759 layer_factory.hpp:77] Creating layer lstm2_gate_input_1
I0925 21:12:38.624688 19759 net.cpp:91] Creating Layer lstm2_gate_input_1
I0925 21:12:38.624701 19759 net.cpp:425] lstm2_gate_input_1 <- W_hc_h_0
I0925 21:12:38.624714 19759 net.cpp:425] lstm2_gate_input_1 <- W_xc_x_1
I0925 21:12:38.624730 19759 net.cpp:399] lstm2_gate_input_1 -> gate_input_1
I0925 21:12:38.624812 19759 net.cpp:141] Setting up lstm2_gate_input_1
I0925 21:12:38.624830 19759 net.cpp:148] Top shape: 1 1 4000 (4000)
I0925 21:12:38.624840 19759 net.cpp:156] Memory required for data: 82020
I0925 21:12:38.624847 19759 layer_factory.hpp:77] Creating layer lstm2_unit_1
I0925 21:12:38.624871 19759 net.cpp:91] Creating Layer lstm2_unit_1
I0925 21:12:38.624881 19759 net.cpp:425] lstm2_unit_1 <- c_0
I0925 21:12:38.624892 19759 net.cpp:425] lstm2_unit_1 <- gate_input_1
I0925 21:12:38.624902 19759 net.cpp:425] lstm2_unit_1 <- cont_1_lstm2_cont_slice_0_split_1
I0925 21:12:38.624913 19759 net.cpp:399] lstm2_unit_1 -> c_1
I0925 21:12:38.624930 19759 net.cpp:399] lstm2_unit_1 -> h_1
I0925 21:12:38.625061 19759 net.cpp:141] Setting up lstm2_unit_1
I0925 21:12:38.625080 19759 net.cpp:148] Top shape: 1 1 1000 (1000)
I0925 21:12:38.625093 19759 net.cpp:148] Top shape: 1 1 1000 (1000)
I0925 21:12:38.625102 19759 net.cpp:156] Memory required for data: 90020
I0925 21:12:38.625113 19759 layer_factory.hpp:77] Creating layer lstm2_
I0925 21:12:38.625129 19759 net.cpp:91] Creating Layer lstm2_
I0925 21:12:38.625140 19759 net.cpp:425] lstm2_ <- c_1
I0925 21:12:38.625155 19759 net.cpp:399] lstm2_ -> c_T
I0925 21:12:38.625221 19759 net.cpp:141] Setting up lstm2_
I0925 21:12:38.625241 19759 net.cpp:148] Top shape: 1 1 1000 (1000)
I0925 21:12:38.625252 19759 net.cpp:156] Memory required for data: 94020
I0925 21:12:38.625262 19759 layer_factory.hpp:77] Creating layer lstm2_h_concat
I0925 21:12:38.625284 19759 net.cpp:91] Creating Layer lstm2_h_concat
I0925 21:12:38.625296 19759 net.cpp:425] lstm2_h_concat <- h_1
I0925 21:12:38.625313 19759 net.cpp:399] lstm2_h_concat -> h
I0925 21:12:38.625386 19759 net.cpp:141] Setting up lstm2_h_concat
I0925 21:12:38.625406 19759 net.cpp:148] Top shape: 1 1 1000 (1000)
I0925 21:12:38.625416 19759 net.cpp:156] Memory required for data: 98020
I0925 21:12:38.625427 19759 layer_factory.hpp:77] Creating layer h_pseudoloss
I0925 21:12:38.625443 19759 net.cpp:91] Creating Layer h_pseudoloss
I0925 21:12:38.625454 19759 net.cpp:425] h_pseudoloss <- h
I0925 21:12:38.625474 19759 net.cpp:399] h_pseudoloss -> h_pseudoloss
I0925 21:12:38.625653 19759 net.cpp:141] Setting up h_pseudoloss
…
