…
Java HotSpot(TM) 64-Bit Server VM warning: You have loaded library /tmp/cvld2274558867832838433/libopencv_java310.xine1.so which might have disabled stack guard. The VM will try to fix the stack guard now.
It's highly recommended that you fix the library with 'execstack -c <libfile>', or link it with '-z noexecstack'.
WARNING: Logging before InitGoogleLogging() is written to STDERR
I0727 20:30:31.223609  2848 net.cpp:49] Initializing net from parameters: 
name: "GoogleNet"
state {
  phase: TEST
}
layer {
  name: "data"
  type: "Input"
  top: "data"
  input_param {
    shape {
      dim: 10
      dim: 3
      dim: 224
      dim: 224
    }
  }
}
layer {
  name: "conv1/7x7_s2"
  type: "Convolution"
  bottom: "data"
  top: "conv1/7x7_s2"
  param {
    lr_mult: 1
    decay_mult: 1
  }
  param {
    lr_mult: 2
    decay_mult: 0
  }
  convolution_param {
    num_output: 64
    pad: 3
    kernel_size: 7
    stride: 2
    weight_filler {
      type: "xavier"
      std: 0.1
    }
    bias_filler {
      type: "constant"
      value: 0.2
    }
  }
}
layer {
  name: "conv1/relu_7x7"
  type: "ReLU"
  bottom: "conv1/7x7_s2"
  top: "conv1/7x7_s2"
}
layer {
  name: "pool1/3x3_s2"
  type: "Pooling"
  bottom: "conv1/7x7_s2"
  top: "pool1/3x3_s2"
  pooling_param {
    pool: MAX
    kernel_size: 3
    stride: 2
  }
}
layer {
  name: "pool1/norm1"
  type: "LRN"
  bottom: "pool1/3x3_s2"
  top: "pool1/norm1"
  lrn_param {
    local_size: 5
    alpha: 0.0001
    beta: 0.75
  }
}
layer {
  name: "conv2/3x3_reduce"
  type: "Convolution"
  bottom: "pool1/norm1"
  top: "conv2/3x3_reduce"
  param {
    lr_mult: 1
    decay_mult: 1
  }
  param {
    lr_mult: 2
    decay_mult: 0
  }
  convolution_param {
    num_output: 64
    kernel_size: 1
    weight_filler {
      type: "xavier"
      std: 0.1
    }
    bias_filler {
      type: "constant"
      value: 0.2
    }
  }
}
layer {
  name: "conv2/relu_3x3_reduce"
  type: "ReLU"
  bottom: "conv2/3x3_reduce"
  top: "conv2/3x3_reduce"
}
layer {
  name: "conv2/3x3"
  type: "Convolution"
  bottom: "conv2/3x3_reduce"
  top: "conv2/3x3"
  param {
    lr_mult: 1
    decay_mult: 1
  }
  param {
    lr_mult: 2
    decay_mult: 0
  }
  convolution_param {
    num_output: 192
    pad: 1
    kernel_size: 3
    weight_filler {
      type: "xavier"
      std: 0.03
    }
    bias_filler {
      type: "constant"
      value: 0.2
    }
  }
}
layer {
  name: "conv2/relu_3x3"
  type: "ReLU"
  bottom: "conv2/3x3"
  top: "conv2/3x3"
}
layer {
  name: "conv2/norm2"
  type: "LRN"
  bottom: "conv2/3x3"
  top: "conv2/norm2"
  lrn_param {
    local_size: 5
    alpha: 0.0001
    beta: 0.75
  }
}
layer {
  name: "pool2/3x3_s2"
  type: "Pooling"
  bottom: "conv2/norm2"
  top: "pool2/3x3_s2"
  pooling_param {
    pool: MAX
    kernel_size: 3
    stride: 2
  }
}
layer {
  name: "inception_3a/1x1"
  type: "Convolution"
  bottom: "pool2/3x3_s2"
  top: "inception_3a/1x1"
  param {
    lr_mult: 1
    decay_mult: 1
  }
  param {
    lr_mult: 2
    decay_mult: 0
  }
  convolution_param {
    num_output: 64
    kernel_size: 1
    weight_filler {
      type: "xavier"
      std: 0.03
    }
    bias_filler {
      type: "constant"
      value: 0.2
    }
  }
}
layer {
  name: "inception_3a/relu_1x1"
  type: "ReLU"
  bottom: "inception_3a/1x1"
  top: "inception_3a/1x1"
}
layer {
  name: "inception_3a/3x3_reduce"
  type: "Convolution"
  bottom: "pool2/3x3_s2"
  top: "inception_3a/3x3_reduce"
  param {
    lr_mult: 1
    decay_mult: 1
  }
  param {
    lr_mult: 2
    decay_mult: 0
  }
  convolution_param {
    num_output: 96
    kernel_size: 1
    weight_filler {
      type: "xavier"
      std: 0.09
    }
    bias_filler {
      type: "constant"
      value: 0.2
    }
  }
}
layer {
  name: "inception_3a/relu_3x3_reduce"
  type: "ReLU"
  bottom: "inception_3a/3x3_reduce"
  top: "inception_3a/3x3_reduce"
}
layer {
  name: "inception_3a/3x3"
  type: "Convolution"
  bottom: "inception_3a/3x3_reduce"
  top: "inception_3a/3x3"
  param {
    lr_mult: 1
    decay_mult: 1
  }
  param {
    lr_mult: 2
    decay_mult: 0
  }
  convolution_param {
    num_output: 128
    pad: 1
    kernel_size: 3
    weight_filler {
      type: "xavier"
      std: 0.03
    }
    bias_filler {
      type: "constant"
      value: 0.2
    }
  }
}
layer {
  name: "inception_3a/relu_3x3"
  type: "ReLU"
  bottom: "inception_3a/3x3"
  top: "inception_3a/3x3"
}
layer {
  name: "inception_3a/5x5_reduce"
  type: "Convolution"
  bottom: "pool2/3x3_s2"
  top: "inception_3a/5x5_reduce"
  param {
    lr_mult: 1
    decay_mult: 1
  }
  param {
    lr_mult: 2
    decay_mult: 0
  }
  convolution_param {
    num_output: 16
    kernel_size: 1
    weight_filler {
      type: "xavier"
      std: 0.2
    }
    bias_filler {
      type: "constant"
      value: 0.2
    }
  }
}
layer {
  name: "inception_3a/relu_5x5_reduce"
  type: "ReLU"
  bottom: "inception_3a/5x5_reduce"
  top: "inception_3a/5x5_reduce"
}
layer {
  name: "inception_3a/5x5"
  type: "Convolution"
  bottom: "inception_3a/5x5_reduce"
  top: "inception_3a/5x5"
  param {
    lr_mult: 1
    decay_mult: 1
  }
  param {
    lr_mult: 2
    decay_mult: 0
  }
  convolution_param {
    num_output: 32
    pad: 2
    kernel_size: 5
    weight_filler {
      type: "xavier"
      std: 0.03
    }
    bias_filler {
      type: "constant"
      value: 0.2
    }
  }
}
layer {
  name: "inception_3a/relu_5x5"
  type: "ReLU"
  bottom: "inception_3a/5x5"
  top: "inception_3a/5x5"
}
layer {
  name: "inception_3a/pool"
  type: "Pooling"
  bottom: "pool2/3x3_s2"
  top: "inception_3a/pool"
  pooling_param {
    pool: MAX
    kernel_size: 3
    stride: 1
    pad: 1
  }
}
layer {
  name: "inception_3a/pool_proj"
  type: "Convolution"
  bottom: "inception_3a/pool"
  top: "inception_3a/pool_proj"
  param {
    lr_mult: 1
    decay_mult: 1
  }
  param {
    lr_mult: 2
    decay_mult: 0
  }
  convolution_param {
    num_output: 32
    kernel_size: 1
    weight_filler {
      type: "xavier"
      std: 0.1
    }
    bias_filler {
      type: "constant"
      value: 0.2
    }
  }
}
layer {
  name: "inception_3a/relu_pool_proj"
  type: "ReLU"
  bottom: "inception_3a/pool_proj"
  top: "inception_3a/pool_proj"
}
layer {
  name: "inception_3a/output"
  type: "Concat"
  bottom: "inception_3a/1x1"
  bottom: "inception_3a/3x3"
  bottom: "inception_3a/5x5"
  bottom: "inception_3a/pool_proj"
  top: "inception_3a/output"
}
layer {
  name: "inception_3b/1x1"
  type: "Convolution"
  bottom: "inception_3a/output"
  top: "inception_3b/1x1"
  param {
    lr_mult: 1
    decay_mult: 1
  }
  param {
    lr_mult: 2
    decay_mult: 0
  }
  convolution_param {
    num_output: 128
    kernel_size: 1
    weight_filler {
      type: "xavier"
      std: 0.03
    }
    bias_filler {
      type: "constant"
      value: 0.2
    }
  }
}
layer {
  name: "inception_3b/relu_1x1"
  type: "ReLU"
  bottom: "inception_3b/1x1"
  top: "inception_3b/1x1"
}
layer {
  name: "inception_3b/3x3_reduce"
  type: "Convolution"
  bottom: "inception_3a/output"
  top: "inception_3b/3x3_reduce"
  param {
    lr_mult: 1
    decay_mult: 1
  }
  param {
    lr_mult: 2
    decay_mult: 0
  }
  convolution_param {
    num_output: 128
    kernel_size: 1
    weight_filler {
      type: "xavier"
      std: 0.09
    }
    bias_filler {
      type: "constant"
      value: 0.2
    }
  }
}
layer {
  name: "inception_3b/relu_3x3_reduce"
  type: "ReLU"
  bottom: "inception_3b/3x3_reduce"
  top: "inception_3b/3x3_reduce"
}
layer {
  name: "inception_3b/3x3"
  type: "Convolution"
  bottom: "inception_3b/3x3_reduce"
  top: "inception_3b/3x3"
  param {
    lr_mult: 1
    decay_mult: 1
  }
  param {
    lr_mult: 2
    decay_mult: 0
  }
  convolution_param {
    num_output: 192
    pad: 1
    kernel_size: 3
    weight_filler {
      type: "xavier"
      std: 0.03
    }
    bias_filler {
      type: "constant"
      value: 0.2
    }
  }
}
layer {
  name: "inception_3b/relu_3x3"
  type: "ReLU"
  bottom: "inception_3b/3x3"
  top: "inception_3b/3x3"
}
layer {
  name: "inception_3b/5x5_reduce"
  type: "Convolution"
  bottom: "inception_3a/output"
  top: "inception_3b/5x5_reduce"
  param {
    lr_mult: 1
    decay_mult: 1
  }
  param {
    lr_mult: 2
    decay_mult: 0
  }
  convolution_param {
    num_output: 32
    kernel_size: 1
    weight_filler {
      type: "xavier"
      std: 0.2
    }
    bias_filler {
      type: "constant"
      value: 0.2
    }
  }
}
layer {
  name: "inception_3b/relu_5x5_reduce"
  type: "ReLU"
  bottom: "inception_3b/5x5_reduce"
  top: "inception_3b/5x5_reduce"
}
layer {
  name: "inception_3b/5x5"
  type: "Convolution"
  bottom: "inception_3b/5x5_reduce"
  top: "inception_3b/5x5"
  param {
    lr_mult: 1
    decay_mult: 1
  }
  param {
    lr_mult: 2
    decay_mult: 0
  }
  convolution_param {
    num_output: 96
    pad: 2
    kernel_size: 5
    weight_filler {
      type: "xavier"
      std: 0.03
    }
    bias_filler {
      type: "constant"
      value: 0.2
    }
  }
}
layer {
  name: "inception_3b/relu_5x5"
  type: "ReLU"
  bottom: "inception_3b/5x5"
  top: "inception_3b/5x5"
}
layer {
  name: "inception_3b/pool"
  type: "Pooling"
  bottom: "inception_3a/output"
  top: "inception_3b/pool"
  pooling_param {
    pool: MAX
    kernel_size: 3
    stride: 1
    pad: 1
  }
}
layer {
  name: "inception_3b/pool_proj"
  type: "Convolution"
  bottom: "inception_3b/pool"
  top: "inception_3b/pool_proj"
  param {
    lr_mult: 1
    decay_mult: 1
  }
  param {
    lr_mult: 2
    decay_mult: 0
  }
  convolution_param {
    num_output: 64
    kernel_size: 1
    weight_filler {
      type: "xavier"
      std: 0.1
    }
    bias_filler {
      type: "constant"
      value: 0.2
    }
  }
}
layer {
  name: "inception_3b/relu_pool_proj"
  type: "ReLU"
  bottom: "inception_3b/pool_proj"
  top: "inception_3b/pool_proj"
}
layer {
  name: "inception_3b/output"
  type: "Concat"
  bottom: "inception_3b/1x1"
  bottom: "inception_3b/3x3"
  bottom: "inception_3b/5x5"
  bottom: "inception_3b/pool_proj"
  top: "inception_3b/output"
}
layer {
  name: "pool3/3x3_s2"
  type: "Pooling"
  bottom: "inception_3b/output"
  top: "pool3/3x3_s2"
  pooling_param {
    pool: MAX
    kernel_size: 3
    stride: 2
  }
}
layer {
  name: "inception_4a/1x1"
  type: "Convolution"
  bottom: "pool3/3x3_s2"
  top: "inception_4a/1x1"
  param {
    lr_mult: 1
    decay_mult: 1
  }
  param {
    lr_mult: 2
    decay_mult: 0
  }
  convolution_param {
    num_output: 192
    kernel_size: 1
    weight_filler {
      type: "xavier"
      std: 0.03
    }
    bias_filler {
      type: "constant"
      value: 0.2
    }
  }
}
layer {
  name: "inception_4a/relu_1x1"
  type: "ReLU"
  bottom: "inception_4a/1x1"
  top: "inception_4a/1x1"
}
layer {
  name: "inception_4a/3x3_reduce"
  type: "Convolution"
  bottom: "pool3/3x3_s2"
  top: "inception_4a/3x3_reduce"
  param {
    lr_mult: 1
    decay_mult: 1
  }
  param {
    lr_mult: 2
    decay_mult: 0
  }
  convolution_param {
    num_output: 96
    kernel_size: 1
    weight_filler {
      type: "xavier"
      std: 0.09
    }
    bias_filler {
      type: "constant"
      value: 0.2
    }
  }
}
layer {
  name: "inception_4a/relu_3x3_reduce"
  type: "ReLU"
  bottom: "inception_4a/3x3_reduce"
  top: "inception_4a/3x3_reduce"
}
layer {
  name: "inception_4a/3x3"
  type: "Convolution"
  bottom: "inception_4a/3x3_reduce"
  top: "inception_4a/3x3"
  param {
    lr_mult: 1
    decay_mult: 1
  }
  param {
    lr_mult: 2
    decay_mult: 0
  }
  convolution_param {
    num_output: 208
    pad: 1
    kernel_size: 3
    weight_filler {
      type: "xavier"
      std: 0.03
    }
    bias_filler {
      type: "constant"
      value: 0.2
    }
  }
}
layer {
  name: "inception_4a/relu_3x3"
  type: "ReLU"
  bottom: "inception_4a/3x3"
  top: "inception_4a/3x3"
}
layer {
  name: "inception_4a/5x5_reduce"
  type: "Convolution"
  bottom: "pool3/3x3_s2"
  top: "inception_4a/5x5_reduce"
  param {
    lr_mult: 1
    decay_mult: 1
  }
  param {
    lr_mult: 2
    decay_mult: 0
  }
  convolution_param {
    num_output: 16
    kernel_size: 1
    weight_filler {
      type: "xavier"
      std: 0.2
    }
    bias_filler {
      type: "constant"
      value: 0.2
    }
  }
}
layer {
  name: "inception_4a/relu_5x5_reduce"
  type: "ReLU"
  bottom: "inception_4a/5x5_reduce"
  top: "inception_4a/5x5_reduce"
}
layer {
  name: "inception_4a/5x5"
  type: "Convolution"
  bottom: "inception_4a/5x5_reduce"
  top: "inception_4a/5x5"
  param {
    lr_mult: 1
    decay_mult: 1
  }
  param {
    lr_mult: 2
    decay_mult: 0
  }
  convolution_param {
    num_output: 48
    pad: 2
    kernel_size: 5
    weight_filler {
      type: "xavier"
      std: 0.03
    }
    bias_filler {
      type: "constant"
      value: 0.2
    }
  }
}
layer {
  name: "inception_4a/relu_5x5"
  type: "ReLU"
  bottom: "inception_4a/5x5"
  top: "inception_4a/5x5"
}
layer {
  name: "inception_4a/pool"
  type: "Pooling"
  bottom: "pool3/3x3_s2"
  top: "inception_4a/pool"
  pooling_param {
    pool: MAX
    kernel_size: 3
    stride: 1
    pad: 1
  }
}
layer {
  name: "inception_4a/pool_proj"
  type: "Convolution"
  bottom: "inception_4a/pool"
  top: "inception_4a/pool_proj"
  param {
    lr_mult: 1
    decay_mult: 1
  }
  param {
    lr_mult: 2
    decay_mult: 0
  }
  convolution_param {
    num_output: 64
    kernel_size: 1
    weight_filler {
      type: "xavier"
      std: 0.1
    }
    bias_filler {
      type: "constant"
      value: 0.2
    }
  }
}
layer {
  name: "inception_4a/relu_pool_proj"
  type: "ReLU"
  bottom: "inception_4a/pool_proj"
  top: "inception_4a/pool_proj"
}
layer {
  name: "inception_4a/output"
  type: "Concat"
  bottom: "inception_4a/1x1"
  bottom: "inception_4a/3x3"
  bottom: "inception_4a/5x5"
  bottom: "inception_4a/pool_proj"
  top: "inception_4a/output"
}
layer {
  name: "inception_4b/1x1"
  type: "Convolution"
  bottom: "inception_4a/output"
  top: "inception_4b/1x1"
  param {
    lr_mult: 1
    decay_mult: 1
  }
  param {
    lr_mult: 2
    decay_mult: 0
  }
  convolution_param {
    num_output: 160
    kernel_size: 1
    weight_filler {
      type: "xavier"
      std: 0.03
    }
    bias_filler {
      type: "constant"
      value: 0.2
    }
  }
}
layer {
  name: "inception_4b/relu_1x1"
  type: "ReLU"
  bottom: "inception_4b/1x1"
  top: "inception_4b/1x1"
}
layer {
  name: "inception_4b/3x3_reduce"
  type: "Convolution"
  bottom: "inception_4a/output"
  top: "inception_4b/3x3_reduce"
  param {
    lr_mult: 1
    decay_mult: 1
  }
  param {
    lr_mult: 2
    decay_mult: 0
  }
  convolution_param {
    num_output: 112
    kernel_size: 1
    weight_filler {
      type: "xavier"
      std: 0.09
    }
    bias_filler {
      type: "constant"
      value: 0.2
    }
  }
}
layer {
  name: "inception_4b/relu_3x3_reduce"
  type: "ReLU"
  bottom: "inception_4b/3x3_reduce"
  top: "inception_4b/3x3_reduce"
}
layer {
  name: "inception_4b/3x3"
  type: "Convolution"
  bottom: "inception_4b/3x3_reduce"
  top: "inception_4b/3x3"
  param {
    lr_mult: 1
    decay_mult: 1
  }
  param {
    lr_mult: 2
    decay_mult: 0
  }
  convolution_param {
    num_output: 224
    pad: 1
    kernel_size: 3
    weight_filler {
      type: "xavier"
      std: 0.03
    }
    bias_filler {
      type: "constant"
      value: 0.2
    }
  }
}
layer {
  name: "inception_4b/relu_3x3"
  type: "ReLU"
  bottom: "inception_4b/3x3"
  top: "inception_4b/3x3"
}
layer {
  name: "inception_4b/5x5_reduce"
  type: "Convolution"
  bottom: "inception_4a/output"
  top: "inception_4b/5x5_reduce"
  param {
    lr_mult: 1
    decay_mult: 1
  }
  param {
    lr_mult: 2
    decay_mult: 0
  }
  convolution_param {
    num_output: 24
    kernel_size: 1
    weight_filler {
      type: "xavier"
      std: 0.2
    }
    bias_filler {
      type: "constant"
      value: 0.2
    }
  }
}
layer {
  name: "inception_4b/relu_5x5_reduce"
  type: "ReLU"
  bottom: "inception_4b/5x5_reduce"
  top: "inception_4b/5x5_reduce"
}
layer {
  name: "inception_4b/5x5"
  type: "Convolution"
  bottom: "inception_4b/5x5_reduce"
  top: "inception_4b/5x5"
  param {
    lr_mult: 1
    decay_mult: 1
  }
  param {
    lr_mult: 2
    decay_mult: 0
  }
  convolution_param {
    num_output: 64
    pad: 2
    kernel_size: 5
    weight_filler {
      type: "xavier"
      std: 0.03
    }
    bias_filler {
      type: "constant"
      value: 0.2
    }
  }
}
layer {
  name: "inception_4b/relu_5x5"
  type: "ReLU"
  bottom: "inception_4b/5x5"
  top: "inception_4b/5x5"
}
layer {
  name: "inception_4b/pool"
  type: "Pooling"
  bottom: "inception_4a/output"
  top: "inception_4b/pool"
  pooling_param {
    pool: MAX
    kernel_size: 3
    stride: 1
    pad: 1
  }
}
layer {
  name: "inception_4b/pool_proj"
  type: "Convolution"
  bottom: "inception_4b/pool"
  top: "inception_4b/pool_proj"
  param {
    lr_mult: 1
    decay_mult: 1
  }
  param {
    lr_mult: 2
    decay_mult: 0
  }
  convolution_param {
    num_output: 64
    kernel_size: 1
    weight_filler {
      type: "xavier"
      std: 0.1
    }
    bias_filler {
      type: "constant"
      value: 0.2
    }
  }
}
layer {
  name: "inception_4b/relu_pool_proj"
  type: "ReLU"
  bottom: "inception_4b/pool_proj"
  top: "inception_4b/pool_proj"
}
layer {
  name: "inception_4b/output"
  type: "Concat"
  bottom: "inception_4b/1x1"
  bottom: "inception_4b/3x3"
  bottom: "inception_4b/5x5"
  bottom: "inception_4b/pool_proj"
  top: "inception_4b/output"
}
layer {
  name: "inception_4c/1x1"
  type: "Convolution"
  bottom: "inception_4b/output"
  top: "inception_4c/1x1"
  param {
    lr_mult: 1
    decay_mult: 1
  }
  param {
    lr_mult: 2
    decay_mult: 0
  }
  convolution_param {
    num_output: 128
    kernel_size: 1
    weight_filler {
      type: "xavier"
      std: 0.03
    }
    bias_filler {
      type: "constant"
      value: 0.2
    }
  }
}
layer {
  name: "inception_4c/relu_1x1"
  type: "ReLU"
  bottom: "inception_4c/1x1"
  top: "inception_4c/1x1"
}
layer {
  name: "inception_4c/3x3_reduce"
  type: "Convolution"
  bottom: "inception_4b/output"
  top: "inception_4c/3x3_reduce"
  param {
    lr_mult: 1
    decay_mult: 1
  }
  param {
    lr_mult: 2
    decay_mult: 0
  }
  convolution_param {
    num_output: 128
    kernel_size: 1
    weight_filler {
      type: "xavier"
      std: 0.09
    }
    bias_filler {
      type: "constant"
      value: 0.2
    }
  }
}
layer {
  name: "inception_4c/relu_3x3_reduce"
  type: "ReLU"
  bottom: "inception_4c/3x3_reduce"
  top: "inception_4c/3x3_reduce"
}
layer {
  name: "inception_4c/3x3"
  type: "Convolution"
  bottom: "inception_4c/3x3_reduce"
  top: "inception_4c/3x3"
  param {
    lr_mult: 1
    decay_mult: 1
  }
  param {
    lr_mult: 2
    decay_mult: 0
  }
  convolution_param {
    num_output: 256
    pad: 1
    kernel_size: 3
    weight_filler {
      type: "xavier"
      std: 0.03
    }
    bias_filler {
      type: "constant"
      value: 0.2
    }
  }
}
layer {
  name: "inception_4c/relu_3x3"
  type: "ReLU"
  bottom: "inception_4c/3x3"
  top: "inception_4c/3x3"
}
layer {
  name: "inception_4c/5x5_reduce"
  type: "Convolution"
  bottom: "inception_4b/output"
  top: "inception_4c/5x5_reduce"
  param {
    lr_mult: 1
    decay_mult: 1
  }
  param {
    lr_mult: 2
    decay_mult: 0
  }
  convolution_param {
    num_output: 24
    kernel_size: 1
    weight_filler {
      type: "xavier"
      std: 0.2
    }
    bias_filler {
      type: "constant"
      value: 0.2
    }
  }
}
layer {
  name: "inception_4c/relu_5x5_reduce"
  type: "ReLU"
  bottom: "inception_4c/5x5_reduce"
  top: "inception_4c/5x5_reduce"
}
layer {
  name: "inception_4c/5x5"
  type: "Convolution"
  bottom: "inception_4c/5x5_reduce"
  top: "inception_4c/5x5"
  param {
    lr_mult: 1
    decay_mult: 1
  }
  param {
    lr_mult: 2
    decay_mult: 0
  }
  convolution_param {
    num_output: 64
    pad: 2
    kernel_size: 5
    weight_filler {
      type: "xavier"
      std: 0.03
    }
    bias_filler {
      type: "constant"
      value: 0.2
    }
  }
}
layer {
  name: "inception_4c/relu_5x5"
  type: "ReLU"
  bottom: "inception_4c/5x5"
  top: "inception_4c/5x5"
}
layer {
  name: "inception_4c/pool"
  type: "Pooling"
  bottom: "inception_4b/output"
  top: "inception_4c/pool"
  pooling_param {
    pool: MAX
    kernel_size: 3
    stride: 1
    pad: 1
  }
}
layer {
  name: "inception_4c/pool_proj"
  type: "Convolution"
  bottom: "inception_4c/pool"
  top: "inception_4c/pool_proj"
  param {
    lr_mult: 1
    decay_mult: 1
  }
  param {
    lr_mult: 2
    decay_mult: 0
  }
  convolution_param {
    num_output: 64
    kernel_size: 1
    weight_filler {
      type: "xavier"
      std: 0.1
    }
    bias_filler {
      type: "constant"
      value: 0.2
    }
  }
}
layer {
  name: "inception_4c/relu_pool_proj"
  type: "ReLU"
  bottom: "inception_4c/pool_proj"
  top: "inception_4c/pool_proj"
}
layer {
  name: "inception_4c/output"
  type: "Concat"
  bottom: "inception_4c/1x1"
  bottom: "inception_4c/3x3"
  bottom: "inception_4c/5x5"
  bottom: "inception_4c/pool_proj"
  top: "inception_4c/output"
}
layer {
  name: "inception_4d/1x1"
  type: "Convolution"
  bottom: "inception_4c/output"
  top: "inception_4d/1x1"
  param {
    lr_mult: 1
    decay_mult: 1
  }
  param {
    lr_mult: 2
    decay_mult: 0
  }
  convolution_param {
    num_output: 112
    kernel_size: 1
    weight_filler {
      type: "xavier"
      std: 0.03
    }
    bias_filler {
      type: "constant"
      value: 0.2
    }
  }
}
layer {
  name: "inception_4d/relu_1x1"
  type: "ReLU"
  bottom: "inception_4d/1x1"
  top: "inception_4d/1x1"
}
layer {
  name: "inception_4d/3x3_reduce"
  type: "Convolution"
  bottom: "inception_4c/output"
  top: "inception_4d/3x3_reduce"
  param {
    lr_mult: 1
    decay_mult: 1
  }
  param {
    lr_mult: 2
    decay_mult: 0
  }
  convolution_param {
    num_output: 144
    kernel_size: 1
    weight_filler {
      type: "xavier"
      std: 0.09
    }
    bias_filler {
      type: "constant"
      value: 0.2
    }
  }
}
layer {
  name: "inception_4d/relu_3x3_reduce"
  type: "ReLU"
  bottom: "inception_4d/3x3_reduce"
  top: "inception_4d/3x3_reduce"
}
layer {
  name: "inception_4d/3x3"
  type: "Convolution"
  bottom: "inception_4d/3x3_reduce"
  top: "inception_4d/3x3"
  param {
    lr_mult: 1
    decay_mult: 1
  }
  param {
    lr_mult: 2
    decay_mult: 0
  }
  convolution_param {
    num_output: 288
    pad: 1
    kernel_size: 3
    weight_filler {
      type: "xavier"
      std: 0.03
    }
    bias_filler {
      type: "constant"
      value: 0.2
    }
  }
}
layer {
  name: "inception_4d/relu_3x3"
  type: "ReLU"
  bottom: "inception_4d/3x3"
  top: "inception_4d/3x3"
}
layer {
  name: "inception_4d/5x5_reduce"
  type: "Convolution"
  bottom: "inception_4c/output"
  top: "inception_4d/5x5_reduce"
  param {
    lr_mult: 1
    decay_mult: 1
  }
  param {
    lr_mult: 2
    decay_mult: 0
  }
  convolution_param {
    num_output: 32
    kernel_size: 1
    weight_filler {
      type: "xavier"
      std: 0.2
    }
    bias_filler {
      type: "constant"
      value: 0.2
    }
  }
}
layer {
  name: "inception_4d/relu_5x5_reduce"
  type: "ReLU"
  bottom: "inception_4d/5x5_reduce"
  top: "inception_4d/5x5_reduce"
}
layer {
  name: "inception_4d/5x5"
  type: "Convolution"
  bottom: "inception_4d/5x5_reduce"
  top: "inception_4d/5x5"
  param {
    lr_mult: 1
    decay_mult: 1
  }
  param {
    lr_mult: 2
    decay_mult: 0
  }
  convolution_param {
    num_output: 64
    pad: 2
    kernel_size: 5
    weight_filler {
      type: "xavier"
      std: 0.03
    }
    bias_filler {
      type: "constant"
      value: 0.2
    }
  }
}
layer {
  name: "inception_4d/relu_5x5"
  type: "ReLU"
  bottom: "inception_4d/5x5"
  top: "inception_4d/5x5"
}
layer {
  name: "inception_4d/pool"
  type: "Pooling"
  bottom: "inception_4c/output"
  top: "inception_4d/pool"
  pooling_param {
    pool: MAX
    kernel_size: 3
    stride: 1
    pad: 1
  }
}
layer {
  name: "inception_4d/pool_proj"
  type: "Convolution"
  bottom: "inception_4d/pool"
  top: "inception_4d/pool_proj"
  param {
    lr_mult: 1
    decay_mult: 1
  }
  param {
    lr_mult: 2
    decay_mult: 0
  }
  convolution_param {
    num_output: 64
    kernel_size: 1
    weight_filler {
      type: "xavier"
      std: 0.1
    }
    bias_filler {
      type: "constant"
      value: 0.2
    }
  }
}
layer {
  name: "inception_4d/relu_pool_proj"
  type: "ReLU"
  bottom: "inception_4d/pool_proj"
  top: "inception_4d/pool_proj"
}
layer {
  name: "inception_4d/output"
  type: "Concat"
  bottom: "inception_4d/1x1"
  bottom: "inception_4d/3x3"
  bottom: "inception_4d/5x5"
  bottom: "inception_4d/pool_proj"
  top: "inception_4d/output"
}
layer {
  name: "inception_4e/1x1"
  type: "Convolution"
  bottom: "inception_4d/output"
  top: "inception_4e/1x1"
  param {
    lr_mult: 1
    decay_mult: 1
  }
  param {
    lr_mult: 2
    decay_mult: 0
  }
  convolution_param {
    num_output: 256
    kernel_size: 1
    weight_filler {
      type: "xavier"
      std: 0.03
    }
    bias_filler {
      type: "constant"
      value: 0.2
    }
  }
}
layer {
  name: "inception_4e/relu_1x1"
  type: "ReLU"
  bottom: "inception_4e/1x1"
  top: "inception_4e/1x1"
}
layer {
  name: "inception_4e/3x3_reduce"
  type: "Convolution"
  bottom: "inception_4d/output"
  top: "inception_4e/3x3_reduce"
  param {
    lr_mult: 1
    decay_mult: 1
  }
  param {
    lr_mult: 2
    decay_mult: 0
  }
  convolution_param {
    num_output: 160
    kernel_size: 1
    weight_filler {
      type: "xavier"
      std: 0.09
    }
    bias_filler {
      type: "constant"
      value: 0.2
    }
  }
}
layer {
  name: "inception_4e/relu_3x3_reduce"
  type: "ReLU"
  bottom: "inception_4e/3x3_reduce"
  top: "inception_4e/3x3_reduce"
}
layer {
  name: "inception_4e/3x3"
  type: "Convolution"
  bottom: "inception_4e/3x3_reduce"
  top: "inception_4e/3x3"
  param {
    lr_mult: 1
    decay_mult: 1
  }
  param {
    lr_mult: 2
    decay_mult: 0
  }
  convolution_param {
    num_output: 320
    pad: 1
    kernel_size: 3
    weight_filler {
      type: "xavier"
      std: 0.03
    }
    bias_filler {
      type: "constant"
      value: 0.2
    }
  }
}
layer {
  name: "inception_4e/relu_3x3"
  type: "ReLU"
  bottom: "inception_4e/3x3"
  top: "inception_4e/3x3"
}
layer {
  name: "inception_4e/5x5_reduce"
  type: "Convolution"
  bottom: "inception_4d/output"
  top: "inception_4e/5x5_reduce"
  param {
    lr_mult: 1
    decay_mult: 1
  }
  param {
    lr_mult: 2
    decay_mult: 0
  }
  convolution_param {
    num_output: 32
    kernel_size: 1
    weight_filler {
      type: "xavier"
      std: 0.2
    }
    bias_filler {
      type: "constant"
      value: 0.2
    }
  }
}
layer {
  name: "inception_4e/relu_5x5_reduce"
  type: "ReLU"
  bottom: "inception_4e/5x5_reduce"
  top: "inception_4e/5x5_reduce"
}
layer {
  name: "inception_4e/5x5"
  type: "Convolution"
  bottom: "inception_4e/5x5_reduce"
  top: "inception_4e/5x5"
  param {
    lr_mult: 1
    decay_mult: 1
  }
  param {
    lr_mult: 2
    decay_mult: 0
  }
  convolution_param {
    num_output: 128
    pad: 2
    kernel_size: 5
    weight_filler {
      type: "xavier"
      std: 0.03
    }
    bias_filler {
      type: "constant"
      value: 0.2
    }
  }
}
layer {
  name: "inception_4e/relu_5x5"
  type: "ReLU"
  bottom: "inception_4e/5x5"
  top: "inception_4e/5x5"
}
layer {
  name: "inception_4e/pool"
  type: "Pooling"
  bottom: "inception_4d/output"
  top: "inception_4e/pool"
  pooling_param {
    pool: MAX
    kernel_size: 3
    stride: 1
    pad: 1
  }
}
layer {
  name: "inception_4e/pool_proj"
  type: "Convolution"
  bottom: "inception_4e/pool"
  top: "inception_4e/pool_proj"
  param {
    lr_mult: 1
    decay_mult: 1
  }
  param {
    lr_mult: 2
    decay_mult: 0
  }
  convolution_param {
    num_output: 128
    kernel_size: 1
    weight_filler {
      type: "xavier"
      std: 0.1
    }
    bias_filler {
      type: "constant"
      value: 0.2
    }
  }
}
layer {
  name: "inception_4e/relu_pool_proj"
  type: "ReLU"
  bottom: "inception_4e/pool_proj"
  top: "inception_4e/pool_proj"
}
layer {
  name: "inception_4e/output"
  type: "Concat"
  bottom: "inception_4e/1x1"
  bottom: "inception_4e/3x3"
  bottom: "inception_4e/5x5"
  bottom: "inception_4e/pool_proj"
  top: "inception_4e/output"
}
layer {
  name: "pool4/3x3_s2"
  type: "Pooling"
  bottom: "inception_4e/output"
  top: "pool4/3x3_s2"
  pooling_param {
    pool: MAX
    kernel_size: 3
    stride: 2
  }
}
layer {
  name: "inception_5a/1x1"
  type: "Convolution"
  bottom: "pool4/3x3_s2"
  top: "inception_5a/1x1"
  param {
    lr_mult: 1
    decay_mult: 1
  }
  param {
    lr_mult: 2
    decay_mult: 0
  }
  convolution_param {
    num_output: 256
    kernel_size: 1
    weight_filler {
      type: "xavier"
      std: 0.03
    }
    bias_filler {
      type: "constant"
      value: 0.2
    }
  }
}
layer {
  name: "inception_5a/relu_1x1"
  type: "ReLU"
  bottom: "inception_5a/1x1"
  top: "inception_5a/1x1"
}
layer {
  name: "inception_5a/3x3_reduce"
  type: "Convolution"
  bottom: "pool4/3x3_s2"
  top: "inception_5a/3x3_reduce"
  param {
    lr_mult: 1
    decay_mult: 1
  }
  param {
    lr_mult: 2
    decay_mult: 0
  }
  convolution_param {
    num_output: 160
    kernel_size: 1
    weight_filler {
      type: "xavier"
      std: 0.09
    }
    bias_filler {
      type: "constant"
      value: 0.2
    }
  }
}
layer {
  name: "inception_5a/relu_3x3_reduce"
  type: "ReLU"
  bottom: "inception_5a/3x3_reduce"
  top: "inception_5a/3x3_reduce"
}
layer {
  name: "inception_5a/3x3"
  type: "Convolution"
  bottom: "inception_5a/3x3_reduce"
  top: "inception_5a/3x3"
  param {
    lr_mult: 1
    decay_mult: 1
  }
  param {
    lr_mult: 2
    decay_mult: 0
  }
  convolution_param {
    num_output: 320
    pad: 1
    kernel_size: 3
    weight_filler {
      type: "xavier"
      std: 0.03
    }
    bias_filler {
      type: "constant"
      value: 0.2
    }
  }
}
layer {
  name: "inception_5a/relu_3x3"
  type: "ReLU"
  bottom: "inception_5a/3x3"
  top: "inception_5a/3x3"
}
layer {
  name: "inception_5a/5x5_reduce"
  type: "Convolution"
  bottom: "pool4/3x3_s2"
  top: "inception_5a/5x5_reduce"
  param {
    lr_mult: 1
    decay_mult: 1
  }
  param {
    lr_mult: 2
    decay_mult: 0
  }
  convolution_param {
    num_output: 32
    kernel_size: 1
    weight_filler {
      type: "xavier"
      std: 0.2
    }
    bias_filler {
      type: "constant"
      value: 0.2
    }
I0727 20:30:31.224504  2848 layer_factory.hpp:77] Creating layer data
I0727 20:30:31.224529  2848 net.cpp:91] Creating Layer data
I0727 20:30:31.224539  2848 net.cpp:399] data -> data
I0727 20:30:31.231343  2843 net.cpp:49] Initializing net from parameters: 
name: "GoogleNet"
state {
  phase: TEST
}
layer {
  name: "data"
  type: "Input"
  top: "data"
  input_param {
    shape {
      dim: 10
      dim: 3
      dim: 224
      dim: 224
    }
  }
}
layer {
  name: "conv1/7x7_s2"
  type: "Convolution"
  bottom: "data"
  top: "conv1/7x7_s2"
  param {
    lr_mult: 1
    decay_mult: 1
  }
  param {
    lr_mult: 2
    decay_mult: 0
  }
  convolution_param {
    num_output: 64
    pad: 3
    kernel_size: 7
    stride: 2
    weight_filler {
      type: "xavier"
      std: 0.1
    }
    bias_filler {
      type: "constant"
      value: 0.2
    }
  }
}
layer {
  name: "conv1/relu_7x7"
  type: "ReLU"
  bottom: "conv1/7x7_s2"
  top: "conv1/7x7_s2"
}
layer {
  name: "pool1/3x3_s2"
  type: "Pooling"
  bottom: "conv1/7x7_s2"
  top: "pool1/3x3_s2"
  pooling_param {
    pool: MAX
    kernel_size: 3
    stride: 2
  }
}
layer {
  name: "pool1/norm1"
  type: "LRN"
  bottom: "pool1/3x3_s2"
  top: "pool1/norm1"
  lrn_param {
    local_size: 5
    alpha: 0.0001
    beta: 0.75
  }
}
layer {
  name: "conv2/3x3_reduce"
  type: "Convolution"
  bottom: "pool1/norm1"
  top: "conv2/3x3_reduce"
  param {
    lr_mult: 1
    decay_mult: 1
  }
  param {
    lr_mult: 2
    decay_mult: 0
  }
  convolution_param {
    num_output: 64
    kernel_size: 1
    weight_filler {
      type: "xavier"
      std: 0.1
    }
    bias_filler {
      type: "constant"
      value: 0.2
    }
  }
}
layer {
  name: "conv2/relu_3x3_reduce"
  type: "ReLU"
  bottom: "conv2/3x3_reduce"
  top: "conv2/3x3_reduce"
}
layer {
  name: "conv2/3x3"
  type: "Convolution"
  bottom: "conv2/3x3_reduce"
  top: "conv2/3x3"
  param {
    lr_mult: 1
    decay_mult: 1
  }
  param {
    lr_mult: 2
    decay_mult: 0
  }
  convolution_param {
    num_output: 192
    pad: 1
    kernel_size: 3
    weight_filler {
      type: "xavier"
      std: 0.03
    }
    bias_filler {
      type: "constant"
      value: 0.2
    }
  }
}
layer {
  name: "conv2/relu_3x3"
  type: "ReLU"
  bottom: "conv2/3x3"
  top: "conv2/3x3"
}
layer {
  name: "conv2/norm2"
  type: "LRN"
  bottom: "conv2/3x3"
  top: "conv2/norm2"
  lrn_param {
    local_size: 5
    alpha: 0.0001
    beta: 0.75
  }
}
layer {
  name: "pool2/3x3_s2"
  type: "Pooling"
  bottom: "conv2/norm2"
  top: "pool2/3x3_s2"
  pooling_param {
    pool: MAX
    kernel_size: 3
    stride: 2
  }
}
layer {
  name: "inception_3a/1x1"
  type: "Convolution"
  bottom: "pool2/3x3_s2"
  top: "inception_3a/1x1"
  param {
    lr_mult: 1
    decay_mult: 1
  }
  param {
    lr_mult: 2
    decay_mult: 0
  }
  convolution_param {
    num_output: 64
    kernel_size: 1
    weight_filler {
      type: "xavier"
      std: 0.03
    }
    bias_filler {
      type: "constant"
      value: 0.2
    }
  }
}
layer {
  name: "inception_3a/relu_1x1"
  type: "ReLU"
  bottom: "inception_3a/1x1"
  top: "inception_3a/1x1"
}
layer {
  name: "inception_3a/3x3_reduce"
  type: "Convolution"
  bottom: "pool2/3x3_s2"
  top: "inception_3a/3x3_reduce"
  param {
    lr_mult: 1
    decay_mult: 1
  }
  param {
    lr_mult: 2
    decay_mult: 0
  }
  convolution_param {
    num_output: 96
    kernel_size: 1
    weight_filler {
      type: "xavier"
      std: 0.09
    }
    bias_filler {
      type: "constant"
      value: 0.2
    }
  }
}
layer {
  name: "inception_3a/relu_3x3_reduce"
  type: "ReLU"
  bottom: "inception_3a/3x3_reduce"
  top: "inception_3a/3x3_reduce"
}
layer {
  name: "inception_3a/3x3"
  type: "Convolution"
  bottom: "inception_3a/3x3_reduce"
  top: "inception_3a/3x3"
  param {
    lr_mult: 1
    decay_mult: 1
  }
  param {
    lr_mult: 2
    decay_mult: 0
  }
  convolution_param {
    num_output: 128
    pad: 1
    kernel_size: 3
    weight_filler {
      type: "xavier"
      std: 0.03
    }
    bias_filler {
      type: "constant"
      value: 0.2
    }
  }
}
layer {
  name: "inception_3a/relu_3x3"
  type: "ReLU"
  bottom: "inception_3a/3x3"
  top: "inception_3a/3x3"
}
layer {
  name: "inception_3a/5x5_reduce"
  type: "Convolution"
  bottom: "pool2/3x3_s2"
  top: "inception_3a/5x5_reduce"
  param {
    lr_mult: 1
    decay_mult: 1
  }
  param {
    lr_mult: 2
    decay_mult: 0
  }
  convolution_param {
    num_output: 16
    kernel_size: 1
    weight_filler {
      type: "xavier"
      std: 0.2
    }
    bias_filler {
      type: "constant"
      value: 0.2
    }
  }
}
layer {
  name: "inception_3a/relu_5x5_reduce"
  type: "ReLU"
  bottom: "inception_3a/5x5_reduce"
  top: "inception_3a/5x5_reduce"
}
layer {
  name: "inception_3a/5x5"
  type: "Convolution"
  bottom: "inception_3a/5x5_reduce"
  top: "inception_3a/5x5"
  param {
    lr_mult: 1
    decay_mult: 1
  }
  param {
    lr_mult: 2
    decay_mult: 0
  }
  convolution_param {
    num_output: 32
    pad: 2
    kernel_size: 5
    weight_filler {
      type: "xavier"
      std: 0.03
    }
    bias_filler {
      type: "constant"
      value: 0.2
    }
  }
}
layer {
  name: "inception_3a/relu_5x5"
  type: "ReLU"
  bottom: "inception_3a/5x5"
  top: "inception_3a/5x5"
}
layer {
  name: "inception_3a/pool"
  type: "Pooling"
  bottom: "pool2/3x3_s2"
  top: "inception_3a/pool"
  pooling_param {
    pool: MAX
    kernel_size: 3
    stride: 1
    pad: 1
  }
}
layer {
  name: "inception_3a/pool_proj"
  type: "Convolution"
  bottom: "inception_3a/pool"
  top: "inception_3a/pool_proj"
  param {
    lr_mult: 1
    decay_mult: 1
  }
  param {
    lr_mult: 2
    decay_mult: 0
  }
  convolution_param {
    num_output: 32
    kernel_size: 1
    weight_filler {
      type: "xavier"
      std: 0.1
    }
    bias_filler {
      type: "constant"
      value: 0.2
    }
  }
}
layer {
  name: "inception_3a/relu_pool_proj"
  type: "ReLU"
  bottom: "inception_3a/pool_proj"
  top: "inception_3a/pool_proj"
}
layer {
  name: "inception_3a/output"
  type: "Concat"
  bottom: "inception_3a/1x1"
  bottom: "inception_3a/3x3"
  bottom: "inception_3a/5x5"
  bottom: "inception_3a/pool_proj"
  top: "inception_3a/output"
}
layer {
  name: "inception_3b/1x1"
  type: "Convolution"
  bottom: "inception_3a/output"
  top: "inception_3b/1x1"
  param {
    lr_mult: 1
    decay_mult: 1
  }
  param {
    lr_mult: 2
    decay_mult: 0
  }
  convolution_param {
    num_output: 128
    kernel_size: 1
    weight_filler {
      type: "xavier"
      std: 0.03
    }
    bias_filler {
      type: "constant"
      value: 0.2
    }
  }
}
layer {
  name: "inception_3b/relu_1x1"
  type: "ReLU"
  bottom: "inception_3b/1x1"
  top: "inception_3b/1x1"
}
layer {
  name: "inception_3b/3x3_reduce"
  type: "Convolution"
  bottom: "inception_3a/output"
  top: "inception_3b/3x3_reduce"
  param {
    lr_mult: 1
    decay_mult: 1
  }
  param {
    lr_mult: 2
    decay_mult: 0
  }
  convolution_param {
    num_output: 128
    kernel_size: 1
    weight_filler {
      type: "xavier"
      std: 0.09
    }
    bias_filler {
      type: "constant"
      value: 0.2
    }
  }
}
layer {
  name: "inception_3b/relu_3x3_reduce"
  type: "ReLU"
  bottom: "inception_3b/3x3_reduce"
  top: "inception_3b/3x3_reduce"
}
layer {
  name: "inception_3b/3x3"
  type: "Convolution"
  bottom: "inception_3b/3x3_reduce"
  top: "inception_3b/3x3"
  param {
    lr_mult: 1
    decay_mult: 1
  }
  param {
    lr_mult: 2
    decay_mult: 0
  }
  convolution_param {
    num_output: 192
    pad: 1
    kernel_size: 3
    weight_filler {
      type: "xavier"
      std: 0.03
    }
    bias_filler {
      type: "constant"
      value: 0.2
    }
  }
}
layer {
  name: "inception_3b/relu_3x3"
  type: "ReLU"
  bottom: "inception_3b/3x3"
  top: "inception_3b/3x3"
}
layer {
  name: "inception_3b/5x5_reduce"
  type: "Convolution"
  bottom: "inception_3a/output"
  top: "inception_3b/5x5_reduce"
  param {
    lr_mult: 1
    decay_mult: 1
  }
  param {
    lr_mult: 2
    decay_mult: 0
  }
  convolution_param {
    num_output: 32
    kernel_size: 1
    weight_filler {
      type: "xavier"
      std: 0.2
    }
    bias_filler {
      type: "constant"
      value: 0.2
    }
  }
}
layer {
  name: "inception_3b/relu_5x5_reduce"
  type: "ReLU"
  bottom: "inception_3b/5x5_reduce"
  top: "inception_3b/5x5_reduce"
}
layer {
  name: "inception_3b/5x5"
  type: "Convolution"
  bottom: "inception_3b/5x5_reduce"
  top: "inception_3b/5x5"
  param {
    lr_mult: 1
    decay_mult: 1
  }
  param {
    lr_mult: 2
    decay_mult: 0
  }
  convolution_param {
    num_output: 96
    pad: 2
    kernel_size: 5
    weight_filler {
      type: "xavier"
      std: 0.03
    }
    bias_filler {
      type: "constant"
      value: 0.2
    }
  }
}
layer {
  name: "inception_3b/relu_5x5"
  type: "ReLU"
  bottom: "inception_3b/5x5"
  top: "inception_3b/5x5"
}
layer {
  name: "inception_3b/pool"
  type: "Pooling"
  bottom: "inception_3a/output"
  top: "inception_3b/pool"
  pooling_param {
    pool: MAX
    kernel_size: 3
    stride: 1
    pad: 1
  }
}
layer {
  name: "inception_3b/pool_proj"
  type: "Convolution"
  bottom: "inception_3b/pool"
  top: "inception_3b/pool_proj"
  param {
    lr_mult: 1
    decay_mult: 1
  }
  param {
    lr_mult: 2
    decay_mult: 0
  }
  convolution_param {
    num_output: 64
    kernel_size: 1
    weight_filler {
      type: "xavier"
      std: 0.1
    }
    bias_filler {
      type: "constant"
      value: 0.2
    }
  }
}
layer {
  name: "inception_3b/relu_pool_proj"
  type: "ReLU"
  bottom: "inception_3b/pool_proj"
  top: "inception_3b/pool_proj"
}
layer {
  name: "inception_3b/output"
  type: "Concat"
  bottom: "inception_3b/1x1"
  bottom: "inception_3b/3x3"
  bottom: "inception_3b/5x5"
  bottom: "inception_3b/pool_proj"
  top: "inception_3b/output"
}
layer {
  name: "pool3/3x3_s2"
  type: "Pooling"
  bottom: "inception_3b/output"
  top: "pool3/3x3_s2"
  pooling_param {
    pool: MAX
    kernel_size: 3
    stride: 2
  }
}
layer {
  name: "inception_4a/1x1"
  type: "Convolution"
  bottom: "pool3/3x3_s2"
  top: "inception_4a/1x1"
  param {
    lr_mult: 1
    decay_mult: 1
  }
  param {
    lr_mult: 2
    decay_mult: 0
  }
  convolution_param {
    num_output: 192
    kernel_size: 1
    weight_filler {
      type: "xavier"
      std: 0.03
    }
    bias_filler {
      type: "constant"
      value: 0.2
    }
  }
}
layer {
  name: "inception_4a/relu_1x1"
  type: "ReLU"
  bottom: "inception_4a/1x1"
  top: "inception_4a/1x1"
}
layer {
  name: "inception_4a/3x3_reduce"
  type: "Convolution"
  bottom: "pool3/3x3_s2"
  top: "inception_4a/3x3_reduce"
  param {
    lr_mult: 1
    decay_mult: 1
  }
  param {
    lr_mult: 2
    decay_mult: 0
  }
  convolution_param {
    num_output: 96
    kernel_size: 1
    weight_filler {
      type: "xavier"
      std: 0.09
    }
    bias_filler {
      type: "constant"
      value: 0.2
    }
  }
}
layer {
  name: "inception_4a/relu_3x3_reduce"
  type: "ReLU"
  bottom: "inception_4a/3x3_reduce"
  top: "inception_4a/3x3_reduce"
}
layer {
  name: "inception_4a/3x3"
  type: "Convolution"
  bottom: "inception_4a/3x3_reduce"
  top: "inception_4a/3x3"
  param {
    lr_mult: 1
    decay_mult: 1
  }
  param {
    lr_mult: 2
    decay_mult: 0
  }
  convolution_param {
    num_output: 208
    pad: 1
    kernel_size: 3
    weight_filler {
      type: "xavier"
      std: 0.03
    }
    bias_filler {
      type: "constant"
      value: 0.2
    }
  }
}
layer {
  name: "inception_4a/relu_3x3"
  type: "ReLU"
  bottom: "inception_4a/3x3"
  top: "inception_4a/3x3"
}
layer {
  name: "inception_4a/5x5_reduce"
  type: "Convolution"
  bottom: "pool3/3x3_s2"
  top: "inception_4a/5x5_reduce"
  param {
    lr_mult: 1
    decay_mult: 1
  }
  param {
    lr_mult: 2
    decay_mult: 0
  }
  convolution_param {
    num_output: 16
    kernel_size: 1
    weight_filler {
      type: "xavier"
      std: 0.2
    }
    bias_filler {
      type: "constant"
      value: 0.2
    }
  }
}
layer {
  name: "inception_4a/relu_5x5_reduce"
  type: "ReLU"
  bottom: "inception_4a/5x5_reduce"
  top: "inception_4a/5x5_reduce"
}
layer {
  name: "inception_4a/5x5"
  type: "Convolution"
  bottom: "inception_4a/5x5_reduce"
  top: "inception_4a/5x5"
  param {
    lr_mult: 1
    decay_mult: 1
  }
  param {
    lr_mult: 2
    decay_mult: 0
  }
  convolution_param {
    num_output: 48
    pad: 2
    kernel_size: 5
    weight_filler {
      type: "xavier"
      std: 0.03
    }
    bias_filler {
      type: "constant"
      value: 0.2
    }
  }
}
layer {
  name: "inception_4a/relu_5x5"
  type: "ReLU"
  bottom: "inception_4a/5x5"
  top: "inception_4a/5x5"
}
layer {
  name: "inception_4a/pool"
  type: "Pooling"
  bottom: "pool3/3x3_s2"
  top: "inception_4a/pool"
  pooling_param {
    pool: MAX
    kernel_size: 3
    stride: 1
    pad: 1
  }
}
layer {
  name: "inception_4a/pool_proj"
  type: "Convolution"
  bottom: "inception_4a/pool"
  top: "inception_4a/pool_proj"
  param {
    lr_mult: 1
    decay_mult: 1
  }
  param {
    lr_mult: 2
    decay_mult: 0
  }
  convolution_param {
    num_output: 64
    kernel_size: 1
    weight_filler {
      type: "xavier"
      std: 0.1
    }
    bias_filler {
      type: "constant"
      value: 0.2
    }
  }
}
layer {
  name: "inception_4a/relu_pool_proj"
  type: "ReLU"
  bottom: "inception_4a/pool_proj"
  top: "inception_4a/pool_proj"
}
layer {
  name: "inception_4a/output"
  type: "Concat"
  bottom: "inception_4a/1x1"
  bottom: "inception_4a/3x3"
  bottom: "inception_4a/5x5"
  bottom: "inception_4a/pool_proj"
  top: "inception_4a/output"
}
layer {
  name: "inception_4b/1x1"
  type: "Convolution"
  bottom: "inception_4a/output"
  top: "inception_4b/1x1"
  param {
    lr_mult: 1
    decay_mult: 1
  }
  param {
    lr_mult: 2
    decay_mult: 0
  }
  convolution_param {
    num_output: 160
    kernel_size: 1
    weight_filler {
      type: "xavier"
      std: 0.03
    }
    bias_filler {
      type: "constant"
      value: 0.2
    }
  }
}
layer {
  name: "inception_4b/relu_1x1"
  type: "ReLU"
  bottom: "inception_4b/1x1"
  top: "inception_4b/1x1"
}
layer {
  name: "inception_4b/3x3_reduce"
  type: "Convolution"
  bottom: "inception_4a/output"
  top: "inception_4b/3x3_reduce"
  param {
    lr_mult: 1
    decay_mult: 1
  }
  param {
    lr_mult: 2
    decay_mult: 0
  }
  convolution_param {
    num_output: 112
    kernel_size: 1
    weight_filler {
      type: "xavier"
      std: 0.09
    }
    bias_filler {
      type: "constant"
      value: 0.2
    }
  }
}
layer {
  name: "inception_4b/relu_3x3_reduce"
  type: "ReLU"
  bottom: "inception_4b/3x3_reduce"
  top: "inception_4b/3x3_reduce"
}
layer {
  name: "inception_4b/3x3"
  type: "Convolution"
  bottom: "inception_4b/3x3_reduce"
  top: "inception_4b/3x3"
  param {
    lr_mult: 1
    decay_mult: 1
  }
  param {
    lr_mult: 2
    decay_mult: 0
  }
  convolution_param {
    num_output: 224
    pad: 1
    kernel_size: 3
    weight_filler {
      type: "xavier"
      std: 0.03
    }
    bias_filler {
      type: "constant"
      value: 0.2
    }
  }
}
layer {
  name: "inception_4b/relu_3x3"
  type: "ReLU"
  bottom: "inception_4b/3x3"
  top: "inception_4b/3x3"
}
layer {
  name: "inception_4b/5x5_reduce"
  type: "Convolution"
  bottom: "inception_4a/output"
  top: "inception_4b/5x5_reduce"
  param {
    lr_mult: 1
    decay_mult: 1
  }
  param {
    lr_mult: 2
    decay_mult: 0
  }
  convolution_param {
    num_output: 24
    kernel_size: 1
    weight_filler {
      type: "xavier"
      std: 0.2
    }
    bias_filler {
      type: "constant"
      value: 0.2
    }
  }
}
layer {
  name: "inception_4b/relu_5x5_reduce"
  type: "ReLU"
  bottom: "inception_4b/5x5_reduce"
  top: "inception_4b/5x5_reduce"
}
layer {
  name: "inception_4b/5x5"
  type: "Convolution"
  bottom: "inception_4b/5x5_reduce"
  top: "inception_4b/5x5"
  param {
    lr_mult: 1
    decay_mult: 1
  }
  param {
    lr_mult: 2
    decay_mult: 0
  }
  convolution_param {
    num_output: 64
    pad: 2
    kernel_size: 5
    weight_filler {
      type: "xavier"
      std: 0.03
    }
    bias_filler {
      type: "constant"
      value: 0.2
    }
  }
}
layer {
  name: "inception_4b/relu_5x5"
  type: "ReLU"
  bottom: "inception_4b/5x5"
  top: "inception_4b/5x5"
}
layer {
  name: "inception_4b/pool"
  type: "Pooling"
  bottom: "inception_4a/output"
  top: "inception_4b/pool"
  pooling_param {
    pool: MAX
    kernel_size: 3
    stride: 1
    pad: 1
  }
}
layer {
  name: "inception_4b/pool_proj"
  type: "Convolution"
  bottom: "inception_4b/pool"
  top: "inception_4b/pool_proj"
  param {
    lr_mult: 1
    decay_mult: 1
  }
  param {
    lr_mult: 2
    decay_mult: 0
  }
  convolution_param {
    num_output: 64
    kernel_size: 1
    weight_filler {
      type: "xavier"
      std: 0.1
    }
    bias_filler {
      type: "constant"
      value: 0.2
    }
  }
}
layer {
  name: "inception_4b/relu_pool_proj"
  type: "ReLU"
  bottom: "inception_4b/pool_proj"
  top: "inception_4b/pool_proj"
}
layer {
  name: "inception_4b/output"
  type: "Concat"
  bottom: "inception_4b/1x1"
  bottom: "inception_4b/3x3"
  bottom: "inception_4b/5x5"
  bottom: "inception_4b/pool_proj"
  top: "inception_4b/output"
}
layer {
  name: "inception_4c/1x1"
  type: "Convolution"
  bottom: "inception_4b/output"
  top: "inception_4c/1x1"
  param {
    lr_mult: 1
    decay_mult: 1
  }
  param {
    lr_mult: 2
    decay_mult: 0
  }
  convolution_param {
    num_output: 128
    kernel_size: 1
    weight_filler {
      type: "xavier"
      std: 0.03
    }
    bias_filler {
      type: "constant"
      value: 0.2
    }
  }
}
layer {
  name: "inception_4c/relu_1x1"
  type: "ReLU"
  bottom: "inception_4c/1x1"
  top: "inception_4c/1x1"
}
layer {
  name: "inception_4c/3x3_reduce"
  type: "Convolution"
  bottom: "inception_4b/output"
  top: "inception_4c/3x3_reduce"
  param {
    lr_mult: 1
    decay_mult: 1
  }
  param {
    lr_mult: 2
    decay_mult: 0
  }
  convolution_param {
    num_output: 128
    kernel_size: 1
    weight_filler {
      type: "xavier"
      std: 0.09
    }
    bias_filler {
      type: "constant"
      value: 0.2
    }
  }
}
layer {
  name: "inception_4c/relu_3x3_reduce"
  type: "ReLU"
  bottom: "inception_4c/3x3_reduce"
  top: "inception_4c/3x3_reduce"
}
layer {
  name: "inception_4c/3x3"
  type: "Convolution"
  bottom: "inception_4c/3x3_reduce"
  top: "inception_4c/3x3"
  param {
    lr_mult: 1
    decay_mult: 1
  }
  param {
    lr_mult: 2
    decay_mult: 0
  }
  convolution_param {
    num_output: 256
    pad: 1
    kernel_size: 3
    weight_filler {
      type: "xavier"
      std: 0.03
    }
    bias_filler {
      type: "constant"
      value: 0.2
    }
  }
}
layer {
  name: "inception_4c/relu_3x3"
  type: "ReLU"
  bottom: "inception_4c/3x3"
  top: "inception_4c/3x3"
}
layer {
  name: "inception_4c/5x5_reduce"
  type: "Convolution"
  bottom: "inception_4b/output"
  top: "inception_4c/5x5_reduce"
  param {
    lr_mult: 1
    decay_mult: 1
  }
  param {
    lr_mult: 2
    decay_mult: 0
  }
  convolution_param {
    num_output: 24
    kernel_size: 1
    weight_filler {
      type: "xavier"
      std: 0.2
    }
    bias_filler {
      type: "constant"
      value: 0.2
    }
  }
}
layer {
  name: "inception_4c/relu_5x5_reduce"
  type: "ReLU"
  bottom: "inception_4c/5x5_reduce"
  top: "inception_4c/5x5_reduce"
}
layer {
  name: "inception_4c/5x5"
  type: "Convolution"
  bottom: "inception_4c/5x5_reduce"
  top: "inception_4c/5x5"
  param {
    lr_mult: 1
    decay_mult: 1
  }
  param {
    lr_mult: 2
    decay_mult: 0
  }
  convolution_param {
    num_output: 64
    pad: 2
    kernel_size: 5
    weight_filler {
      type: "xavier"
      std: 0.03
    }
    bias_filler {
      type: "constant"
      value: 0.2
    }
  }
}
layer {
  name: "inception_4c/relu_5x5"
  type: "ReLU"
  bottom: "inception_4c/5x5"
  top: "inception_4c/5x5"
}
layer {
  name: "inception_4c/pool"
  type: "Pooling"
  bottom: "inception_4b/output"
  top: "inception_4c/pool"
  pooling_param {
    pool: MAX
    kernel_size: 3
    stride: 1
    pad: 1
  }
}
layer {
  name: "inception_4c/pool_proj"
  type: "Convolution"
  bottom: "inception_4c/pool"
  top: "inception_4c/pool_proj"
  param {
    lr_mult: 1
    decay_mult: 1
  }
  param {
    lr_mult: 2
    decay_mult: 0
  }
  convolution_param {
    num_output: 64
    kernel_size: 1
    weight_filler {
      type: "xavier"
      std: 0.1
    }
    bias_filler {
      type: "constant"
      value: 0.2
    }
  }
}
layer {
  name: "inception_4c/relu_pool_proj"
  type: "ReLU"
  bottom: "inception_4c/pool_proj"
  top: "inception_4c/pool_proj"
}
layer {
  name: "inception_4c/output"
  type: "Concat"
  bottom: "inception_4c/1x1"
  bottom: "inception_4c/3x3"
  bottom: "inception_4c/5x5"
  bottom: "inception_4c/pool_proj"
  top: "inception_4c/output"
}
layer {
  name: "inception_4d/1x1"
  type: "Convolution"
  bottom: "inception_4c/output"
  top: "inception_4d/1x1"
  param {
    lr_mult: 1
    decay_mult: 1
  }
  param {
    lr_mult: 2
    decay_mult: 0
  }
  convolution_param {
    num_output: 112
    kernel_size: 1
    weight_filler {
      type: "xavier"
      std: 0.03
    }
    bias_filler {
      type: "constant"
      value: 0.2
    }
  }
}
layer {
  name: "inception_4d/relu_1x1"
  type: "ReLU"
  bottom: "inception_4d/1x1"
  top: "inception_4d/1x1"
}
layer {
  name: "inception_4d/3x3_reduce"
  type: "Convolution"
  bottom: "inception_4c/output"
  top: "inception_4d/3x3_reduce"
  param {
    lr_mult: 1
    decay_mult: 1
  }
  param {
    lr_mult: 2
    decay_mult: 0
  }
  convolution_param {
    num_output: 144
    kernel_size: 1
    weight_filler {
      type: "xavier"
      std: 0.09
    }
    bias_filler {
      type: "constant"
      value: 0.2
    }
  }
}
layer {
  name: "inception_4d/relu_3x3_reduce"
  type: "ReLU"
  bottom: "inception_4d/3x3_reduce"
  top: "inception_4d/3x3_reduce"
}
layer {
  name: "inception_4d/3x3"
  type: "Convolution"
  bottom: "inception_4d/3x3_reduce"
  top: "inception_4d/3x3"
  param {
    lr_mult: 1
    decay_mult: 1
  }
  param {
    lr_mult: 2
    decay_mult: 0
  }
  convolution_param {
    num_output: 288
    pad: 1
    kernel_size: 3
    weight_filler {
      type: "xavier"
      std: 0.03
    }
    bias_filler {
      type: "constant"
      value: 0.2
    }
  }
}
layer {
  name: "inception_4d/relu_3x3"
  type: "ReLU"
  bottom: "inception_4d/3x3"
  top: "inception_4d/3x3"
}
layer {
  name: "inception_4d/5x5_reduce"
  type: "Convolution"
  bottom: "inception_4c/output"
  top: "inception_4d/5x5_reduce"
  param {
    lr_mult: 1
    decay_mult: 1
  }
  param {
    lr_mult: 2
    decay_mult: 0
  }
  convolution_param {
    num_output: 32
    kernel_size: 1
    weight_filler {
      type: "xavier"
      std: 0.2
    }
    bias_filler {
      type: "constant"
      value: 0.2
    }
  }
}
layer {
  name: "inception_4d/relu_5x5_reduce"
  type: "ReLU"
  bottom: "inception_4d/5x5_reduce"
  top: "inception_4d/5x5_reduce"
}
layer {
  name: "inception_4d/5x5"
  type: "Convolution"
  bottom: "inception_4d/5x5_reduce"
  top: "inception_4d/5x5"
  param {
    lr_mult: 1
    decay_mult: 1
  }
  param {
    lr_mult: 2
    decay_mult: 0
  }
  convolution_param {
    num_output: 64
    pad: 2
    kernel_size: 5
    weight_filler {
      type: "xavier"
      std: 0.03
    }
    bias_filler {
      type: "constant"
      value: 0.2
    }
  }
}
layer {
  name: "inception_4d/relu_5x5"
  type: "ReLU"
  bottom: "inception_4d/5x5"
  top: "inception_4d/5x5"
}
layer {
  name: "inception_4d/pool"
  type: "Pooling"
  bottom: "inception_4c/output"
  top: "inception_4d/pool"
  pooling_param {
    pool: MAX
    kernel_size: 3
    stride: 1
    pad: 1
  }
}
layer {
  name: "inception_4d/pool_proj"
  type: "Convolution"
  bottom: "inception_4d/pool"
  top: "inception_4d/pool_proj"
  param {
    lr_mult: 1
    decay_mult: 1
  }
  param {
    lr_mult: 2
    decay_mult: 0
  }
  convolution_param {
    num_output: 64
    kernel_size: 1
    weight_filler {
      type: "xavier"
      std: 0.1
    }
    bias_filler {
      type: "constant"
      value: 0.2
    }
  }
}
layer {
  name: "inception_4d/relu_pool_proj"
  type: "ReLU"
  bottom: "inception_4d/pool_proj"
  top: "inception_4d/pool_proj"
}
layer {
  name: "inception_4d/output"
  type: "Concat"
  bottom: "inception_4d/1x1"
  bottom: "inception_4d/3x3"
  bottom: "inception_4d/5x5"
  bottom: "inception_4d/pool_proj"
  top: "inception_4d/output"
}
layer {
  name: "inception_4e/1x1"
  type: "Convolution"
  bottom: "inception_4d/output"
  top: "inception_4e/1x1"
  param {
    lr_mult: 1
    decay_mult: 1
  }
  param {
    lr_mult: 2
    decay_mult: 0
  }
  convolution_param {
    num_output: 256
    kernel_size: 1
    weight_filler {
      type: "xavier"
      std: 0.03
    }
    bias_filler {
      type: "constant"
      value: 0.2
    }
  }
}
layer {
  name: "inception_4e/relu_1x1"
  type: "ReLU"
  bottom: "inception_4e/1x1"
  top: "inception_4e/1x1"
}
layer {
  name: "inception_4e/3x3_reduce"
  type: "Convolution"
  bottom: "inception_4d/output"
  top: "inception_4e/3x3_reduce"
  param {
    lr_mult: 1
    decay_mult: 1
  }
  param {
    lr_mult: 2
    decay_mult: 0
  }
  convolution_param {
    num_output: 160
    kernel_size: 1
    weight_filler {
      type: "xavier"
      std: 0.09
    }
    bias_filler {
      type: "constant"
      value: 0.2
    }
  }
}
layer {
  name: "inception_4e/relu_3x3_reduce"
  type: "ReLU"
  bottom: "inception_4e/3x3_reduce"
  top: "inception_4e/3x3_reduce"
}
layer {
  name: "inception_4e/3x3"
  type: "Convolution"
  bottom: "inception_4e/3x3_reduce"
  top: "inception_4e/3x3"
  param {
    lr_mult: 1
    decay_mult: 1
  }
  param {
    lr_mult: 2
    decay_mult: 0
  }
  convolution_param {
    num_output: 320
    pad: 1
    kernel_size: 3
    weight_filler {
      type: "xavier"
      std: 0.03
    }
    bias_filler {
      type: "constant"
      value: 0.2
    }
  }
}
layer {
  name: "inception_4e/relu_3x3"
  type: "ReLU"
  bottom: "inception_4e/3x3"
  top: "inception_4e/3x3"
}
layer {
  name: "inception_4e/5x5_reduce"
  type: "Convolution"
  bottom: "inception_4d/output"
  top: "inception_4e/5x5_reduce"
  param {
    lr_mult: 1
    decay_mult: 1
  }
  param {
    lr_mult: 2
    decay_mult: 0
  }
  convolution_param {
    num_output: 32
    kernel_size: 1
    weight_filler {
      type: "xavier"
      std: 0.2
    }
    bias_filler {
      type: "constant"
      value: 0.2
    }
  }
}
layer {
  name: "inception_4e/relu_5x5_reduce"
  type: "ReLU"
  bottom: "inception_4e/5x5_reduce"
  top: "inception_4e/5x5_reduce"
}
layer {
  name: "inception_4e/5x5"
  type: "Convolution"
  bottom: "inception_4e/5x5_reduce"
  top: "inception_4e/5x5"
  param {
    lr_mult: 1
    decay_mult: 1
  }
  param {
    lr_mult: 2
    decay_mult: 0
  }
  convolution_param {
    num_output: 128
    pad: 2
    kernel_size: 5
    weight_filler {
      type: "xavier"
      std: 0.03
    }
    bias_filler {
      type: "constant"
      value: 0.2
    }
  }
}
layer {
  name: "inception_4e/relu_5x5"
  type: "ReLU"
  bottom: "inception_4e/5x5"
  top: "inception_4e/5x5"
}
layer {
  name: "inception_4e/pool"
  type: "Pooling"
  bottom: "inception_4d/output"
  top: "inception_4e/pool"
  pooling_param {
    pool: MAX
    kernel_size: 3
    stride: 1
    pad: 1
  }
}
layer {
  name: "inception_4e/pool_proj"
  type: "Convolution"
  bottom: "inception_4e/pool"
  top: "inception_4e/pool_proj"
  param {
    lr_mult: 1
    decay_mult: 1
  }
  param {
    lr_mult: 2
    decay_mult: 0
  }
  convolution_param {
    num_output: 128
    kernel_size: 1
    weight_filler {
      type: "xavier"
      std: 0.1
    }
    bias_filler {
      type: "constant"
      value: 0.2
    }
  }
}
layer {
  name: "inception_4e/relu_pool_proj"
  type: "ReLU"
  bottom: "inception_4e/pool_proj"
  top: "inception_4e/pool_proj"
}
layer {
  name: "inception_4e/output"
  type: "Concat"
  bottom: "inception_4e/1x1"
  bottom: "inception_4e/3x3"
  bottom: "inception_4e/5x5"
  bottom: "inception_4e/pool_proj"
  top: "inception_4e/output"
}
layer {
  name: "pool4/3x3_s2"
  type: "Pooling"
  bottom: "inception_4e/output"
  top: "pool4/3x3_s2"
  pooling_param {
    pool: MAX
    kernel_size: 3
    stride: 2
  }
}
layer {
  name: "inception_5a/1x1"
  type: "Convolution"
  bottom: "pool4/3x3_s2"
  top: "inception_5a/1x1"
  param {
    lr_mult: 1
    decay_mult: 1
  }
  param {
    lr_mult: 2
    decay_mult: 0
  }
  convolution_param {
    num_output: 256
    kernel_size: 1
    weight_filler {
      type: "xavier"
      std: 0.03
    }
    bias_filler {
      type: "constant"
      value: 0.2
    }
  }
}
layer {
  name: "inception_5a/relu_1x1"
  type: "ReLU"
  bottom: "inception_5a/1x1"
  top: "inception_5a/1x1"
}
layer {
  name: "inception_5a/3x3_reduce"
  type: "Convolution"
  bottom: "pool4/3x3_s2"
  top: "inception_5a/3x3_reduce"
  param {
    lr_mult: 1
    decay_mult: 1
  }
  param {
    lr_mult: 2
    decay_mult: 0
  }
  convolution_param {
    num_output: 160
    kernel_size: 1
    weight_filler {
      type: "xavier"
      std: 0.09
    }
    bias_filler {
      type: "constant"
      value: 0.2
    }
  }
}
layer {
  name: "inception_5a/relu_3x3_reduce"
  type: "ReLU"
  bottom: "inception_5a/3x3_reduce"
  top: "inception_5a/3x3_reduce"
}
layer {
  name: "inception_5a/3x3"
  type: "Convolution"
  bottom: "inception_5a/3x3_reduce"
  top: "inception_5a/3x3"
  param {
    lr_mult: 1
    decay_mult: 1
  }
  param {
    lr_mult: 2
    decay_mult: 0
  }
  convolution_param {
    num_output: 320
    pad: 1
    kernel_size: 3
    weight_filler {
      type: "xavier"
      std: 0.03
    }
    bias_filler {
      type: "constant"
      value: 0.2
    }
  }
}
layer {
  name: "inception_5a/relu_3x3"
  type: "ReLU"
  bottom: "inception_5a/3x3"
  top: "inception_5a/3x3"
}
layer {
  name: "inception_5a/5x5_reduce"
  type: "Convolution"
  bottom: "pool4/3x3_s2"
  top: "inception_5a/5x5_reduce"
  param {
    lr_mult: 1
    decay_mult: 1
  }
  param {
    lr_mult: 2
    decay_mult: 0
  }
  convolution_param {
    num_output: 32
    kernel_size: 1
    weight_filler {
      type: "xavier"
      std: 0.2
    }
    bias_filler {
      type: "constant"
      value: 0.2
    }
I0727 20:30:31.232141  2843 layer_factory.hpp:77] Creating layer data
I0727 20:30:31.232157  2843 net.cpp:91] Creating Layer data
I0727 20:30:31.232166  2843 net.cpp:399] data -> data
I0727 20:30:32.246678  2848 net.cpp:141] Setting up data
I0727 20:30:32.246915  2848 net.cpp:148] Top shape: 10 3 224 224 (1505280)
I0727 20:30:32.246924  2848 net.cpp:156] Memory required for data: 6021120
I0727 20:30:32.246948  2848 layer_factory.hpp:77] Creating layer conv1/7x7_s2
I0727 20:30:32.246989  2848 net.cpp:91] Creating Layer conv1/7x7_s2
I0727 20:30:32.246997  2848 net.cpp:425] conv1/7x7_s2 <- data
I0727 20:30:32.247035  2848 net.cpp:399] conv1/7x7_s2 -> conv1/7x7_s2
I0727 20:30:32.294174  2843 net.cpp:141] Setting up data
I0727 20:30:32.294257  2843 net.cpp:148] Top shape: 10 3 224 224 (1505280)
I0727 20:30:32.294266  2843 net.cpp:156] Memory required for data: 6021120
I0727 20:30:32.294319  2843 layer_factory.hpp:77] Creating layer conv1/7x7_s2
I0727 20:30:32.294384  2843 net.cpp:91] Creating Layer conv1/7x7_s2
I0727 20:30:32.294394  2843 net.cpp:425] conv1/7x7_s2 <- data
I0727 20:30:32.294432  2843 net.cpp:399] conv1/7x7_s2 -> conv1/7x7_s2
I0727 20:30:32.707063  2848 net.cpp:141] Setting up conv1/7x7_s2
I0727 20:30:32.707118  2848 net.cpp:148] Top shape: 10 64 112 112 (8028160)
I0727 20:30:32.707126  2848 net.cpp:156] Memory required for data: 38133760
I0727 20:30:32.707172  2848 layer_factory.hpp:77] Creating layer conv1/relu_7x7
I0727 20:30:32.707206  2848 net.cpp:91] Creating Layer conv1/relu_7x7
I0727 20:30:32.707217  2848 net.cpp:425] conv1/relu_7x7 <- conv1/7x7_s2
I0727 20:30:32.707232  2848 net.cpp:386] conv1/relu_7x7 -> conv1/7x7_s2 (in-place)
I0727 20:30:32.708010  2848 net.cpp:141] Setting up conv1/relu_7x7
I0727 20:30:32.708027  2848 net.cpp:148] Top shape: 10 64 112 112 (8028160)
I0727 20:30:32.708032  2848 net.cpp:156] Memory required for data: 70246400
I0727 20:30:32.708039  2848 layer_factory.hpp:77] Creating layer pool1/3x3_s2
I0727 20:30:32.708055  2848 net.cpp:91] Creating Layer pool1/3x3_s2
I0727 20:30:32.708060  2848 net.cpp:425] pool1/3x3_s2 <- conv1/7x7_s2
I0727 20:30:32.708070  2848 net.cpp:399] pool1/3x3_s2 -> pool1/3x3_s2
I0727 20:30:32.708964  2848 net.cpp:141] Setting up pool1/3x3_s2
I0727 20:30:32.708976  2848 net.cpp:148] Top shape: 10 64 56 56 (2007040)
I0727 20:30:32.708981  2848 net.cpp:156] Memory required for data: 78274560
I0727 20:30:32.708986  2848 layer_factory.hpp:77] Creating layer pool1/norm1
I0727 20:30:32.709015  2848 net.cpp:91] Creating Layer pool1/norm1
I0727 20:30:32.709022  2848 net.cpp:425] pool1/norm1 <- pool1/3x3_s2
I0727 20:30:32.709030  2848 net.cpp:399] pool1/norm1 -> pool1/norm1
I0727 20:30:32.710614  2843 net.cpp:141] Setting up conv1/7x7_s2
I0727 20:30:32.710645  2848 net.cpp:141] Setting up pool1/norm1
I0727 20:30:32.710651  2843 net.cpp:148] Top shape: 10 64 112 112 (8028160)
I0727 20:30:32.710664  2848 net.cpp:148] Top shape: 10 64 56 56 (2007040)
I0727 20:30:32.710672  2843 net.cpp:156] Memory required for data: 38133760
I0727 20:30:32.710675  2848 net.cpp:156] Memory required for data: 86302720
I0727 20:30:32.710682  2848 layer_factory.hpp:77] Creating layer conv2/3x3_reduce
I0727 20:30:32.710739  2848 net.cpp:91] Creating Layer conv2/3x3_reduce
I0727 20:30:32.710742  2843 layer_factory.hpp:77] Creating layer conv1/relu_7x7
I0727 20:30:32.710747  2848 net.cpp:425] conv2/3x3_reduce <- pool1/norm1
I0727 20:30:32.710767  2843 net.cpp:91] Creating Layer conv1/relu_7x7
I0727 20:30:32.710767  2848 net.cpp:399] conv2/3x3_reduce -> conv2/3x3_reduce
I0727 20:30:32.710777  2843 net.cpp:425] conv1/relu_7x7 <- conv1/7x7_s2
I0727 20:30:32.710788  2843 net.cpp:386] conv1/relu_7x7 -> conv1/7x7_s2 (in-place)
I0727 20:30:32.711648  2843 net.cpp:141] Setting up conv1/relu_7x7
I0727 20:30:32.711663  2843 net.cpp:148] Top shape: 10 64 112 112 (8028160)
I0727 20:30:32.711668  2843 net.cpp:156] Memory required for data: 70246400
I0727 20:30:32.711673  2843 layer_factory.hpp:77] Creating layer pool1/3x3_s2
I0727 20:30:32.711683  2843 net.cpp:91] Creating Layer pool1/3x3_s2
I0727 20:30:32.711688  2843 net.cpp:425] pool1/3x3_s2 <- conv1/7x7_s2
I0727 20:30:32.711694  2843 net.cpp:399] pool1/3x3_s2 -> pool1/3x3_s2
I0727 20:30:32.711907  2843 net.cpp:141] Setting up pool1/3x3_s2
I0727 20:30:32.711920  2843 net.cpp:148] Top shape: 10 64 56 56 (2007040)
I0727 20:30:32.711923  2843 net.cpp:156] Memory required for data: 78274560
I0727 20:30:32.711956  2843 layer_factory.hpp:77] Creating layer pool1/norm1
I0727 20:30:32.711971  2843 net.cpp:91] Creating Layer pool1/norm1
I0727 20:30:32.711977  2843 net.cpp:425] pool1/norm1 <- pool1/3x3_s2
I0727 20:30:32.712375  2843 net.cpp:399] pool1/norm1 -> pool1/norm1
I0727 20:30:32.714615  2843 net.cpp:141] Setting up pool1/norm1
I0727 20:30:32.714629  2843 net.cpp:148] Top shape: 10 64 56 56 (2007040)
I0727 20:30:32.714634  2843 net.cpp:156] Memory required for data: 86302720
I0727 20:30:32.714639  2843 layer_factory.hpp:77] Creating layer conv2/3x3_reduce
I0727 20:30:32.714673  2843 net.cpp:91] Creating Layer conv2/3x3_reduce
I0727 20:30:32.714679  2843 net.cpp:425] conv2/3x3_reduce <- pool1/norm1
I0727 20:30:32.714699  2843 net.cpp:399] conv2/3x3_reduce -> conv2/3x3_reduce
I0727 20:30:32.719516  2848 net.cpp:141] Setting up conv2/3x3_reduce
I0727 20:30:32.719558  2848 net.cpp:148] Top shape: 10 64 56 56 (2007040)
I0727 20:30:32.719566  2848 net.cpp:156] Memory required for data: 94330880
I0727 20:30:32.719594  2848 layer_factory.hpp:77] Creating layer conv2/relu_3x3_reduce
I0727 20:30:32.719619  2848 net.cpp:91] Creating Layer conv2/relu_3x3_reduce
I0727 20:30:32.719631  2848 net.cpp:425] conv2/relu_3x3_reduce <- conv2/3x3_reduce
I0727 20:30:32.719648  2848 net.cpp:386] conv2/relu_3x3_reduce -> conv2/3x3_reduce (in-place)
I0727 20:30:32.721197  2848 net.cpp:141] Setting up conv2/relu_3x3_reduce
I0727 20:30:32.721216  2848 net.cpp:148] Top shape: 10 64 56 56 (2007040)
I0727 20:30:32.721226  2848 net.cpp:156] Memory required for data: 102359040
I0727 20:30:32.721230  2843 net.cpp:141] Setting up conv2/3x3_reduce
I0727 20:30:32.721235  2848 layer_factory.hpp:77] Creating layer conv2/3x3
I0727 20:30:32.721258  2843 net.cpp:148] Top shape: 10 64 56 56 (2007040)
I0727 20:30:32.721264  2843 net.cpp:156] Memory required for data: 94330880
I0727 20:30:32.721284  2848 net.cpp:91] Creating Layer conv2/3x3
I0727 20:30:32.721298  2848 net.cpp:425] conv2/3x3 <- conv2/3x3_reduce
I0727 20:30:32.721283  2843 layer_factory.hpp:77] Creating layer conv2/relu_3x3_reduce
I0727 20:30:32.721318  2843 net.cpp:91] Creating Layer conv2/relu_3x3_reduce
I0727 20:30:32.721321  2848 net.cpp:399] conv2/3x3 -> conv2/3x3
I0727 20:30:32.721323  2843 net.cpp:425] conv2/relu_3x3_reduce <- conv2/3x3_reduce
I0727 20:30:32.721343  2843 net.cpp:386] conv2/relu_3x3_reduce -> conv2/3x3_reduce (in-place)
I0727 20:30:32.722259  2843 net.cpp:141] Setting up conv2/relu_3x3_reduce
I0727 20:30:32.722276  2843 net.cpp:148] Top shape: 10 64 56 56 (2007040)
I0727 20:30:32.722281  2843 net.cpp:156] Memory required for data: 102359040
I0727 20:30:32.722298  2843 layer_factory.hpp:77] Creating layer conv2/3x3
I0727 20:30:32.722335  2843 net.cpp:91] Creating Layer conv2/3x3
I0727 20:30:32.722342  2843 net.cpp:425] conv2/3x3 <- conv2/3x3_reduce
I0727 20:30:32.722350  2843 net.cpp:399] conv2/3x3 -> conv2/3x3
I0727 20:30:32.730293  2848 net.cpp:141] Setting up conv2/3x3
I0727 20:30:32.730314  2848 net.cpp:148] Top shape: 10 192 56 56 (6021120)
I0727 20:30:32.730325  2848 net.cpp:156] Memory required for data: 126443520
I0727 20:30:32.730346  2848 layer_factory.hpp:77] Creating layer conv2/relu_3x3
I0727 20:30:32.730370  2848 net.cpp:91] Creating Layer conv2/relu_3x3
I0727 20:30:32.730382  2848 net.cpp:425] conv2/relu_3x3 <- conv2/3x3
I0727 20:30:32.730396  2848 net.cpp:386] conv2/relu_3x3 -> conv2/3x3 (in-place)
I0727 20:30:32.730911  2848 net.cpp:141] Setting up conv2/relu_3x3
I0727 20:30:32.730931  2848 net.cpp:148] Top shape: 10 192 56 56 (6021120)
I0727 20:30:32.730940  2848 net.cpp:156] Memory required for data: 150528000
I0727 20:30:32.730949  2848 layer_factory.hpp:77] Creating layer conv2/norm2
I0727 20:30:32.730972  2848 net.cpp:91] Creating Layer conv2/norm2
I0727 20:30:32.730983  2848 net.cpp:425] conv2/norm2 <- conv2/3x3
I0727 20:30:32.730995  2848 net.cpp:399] conv2/norm2 -> conv2/norm2
I0727 20:30:32.731487  2843 net.cpp:141] Setting up conv2/3x3
I0727 20:30:32.731509  2843 net.cpp:148] Top shape: 10 192 56 56 (6021120)
I0727 20:30:32.731514  2843 net.cpp:156] Memory required for data: 126443520
I0727 20:30:32.731529  2843 layer_factory.hpp:77] Creating layer conv2/relu_3x3
I0727 20:30:32.731564  2843 net.cpp:91] Creating Layer conv2/relu_3x3
I0727 20:30:32.731570  2843 net.cpp:425] conv2/relu_3x3 <- conv2/3x3
I0727 20:30:32.731585  2843 net.cpp:386] conv2/relu_3x3 -> conv2/3x3 (in-place)
I0727 20:30:32.731835  2843 net.cpp:141] Setting up conv2/relu_3x3
I0727 20:30:32.731847  2843 net.cpp:148] Top shape: 10 192 56 56 (6021120)
I0727 20:30:32.731851  2843 net.cpp:156] Memory required for data: 150528000
I0727 20:30:32.731856  2843 layer_factory.hpp:77] Creating layer conv2/norm2
I0727 20:30:32.731866  2843 net.cpp:91] Creating Layer conv2/norm2
I0727 20:30:32.731870  2843 net.cpp:425] conv2/norm2 <- conv2/3x3
I0727 20:30:32.731880  2843 net.cpp:399] conv2/norm2 -> conv2/norm2
I0727 20:30:32.732645  2848 net.cpp:141] Setting up conv2/norm2
I0727 20:30:32.732664  2848 net.cpp:148] Top shape: 10 192 56 56 (6021120)
I0727 20:30:32.732674  2848 net.cpp:156] Memory required for data: 174612480
I0727 20:30:32.732683  2848 layer_factory.hpp:77] Creating layer pool2/3x3_s2
I0727 20:30:32.732698  2848 net.cpp:91] Creating Layer pool2/3x3_s2
I0727 20:30:32.732707  2848 net.cpp:425] pool2/3x3_s2 <- conv2/norm2
I0727 20:30:32.732730  2848 net.cpp:399] pool2/3x3_s2 -> pool2/3x3_s2
I0727 20:30:32.732831  2843 net.cpp:141] Setting up conv2/norm2
I0727 20:30:32.732847  2843 net.cpp:148] Top shape: 10 192 56 56 (6021120)
I0727 20:30:32.732851  2843 net.cpp:156] Memory required for data: 174612480
I0727 20:30:32.732856  2843 layer_factory.hpp:77] Creating layer pool2/3x3_s2
I0727 20:30:32.732866  2843 net.cpp:91] Creating Layer pool2/3x3_s2
I0727 20:30:32.732870  2843 net.cpp:425] pool2/3x3_s2 <- conv2/norm2
I0727 20:30:32.732877  2843 net.cpp:399] pool2/3x3_s2 -> pool2/3x3_s2
I0727 20:30:32.732975  2848 net.cpp:141] Setting up pool2/3x3_s2
I0727 20:30:32.733003  2848 net.cpp:148] Top shape: 10 192 28 28 (1505280)
I0727 20:30:32.733012  2848 net.cpp:156] Memory required for data: 180633600
I0727 20:30:32.733021  2848 layer_factory.hpp:77] Creating layer pool2/3x3_s2_pool2/3x3_s2_0_split
I0727 20:30:32.733052  2848 net.cpp:91] Creating Layer pool2/3x3_s2_pool2/3x3_s2_0_split
I0727 20:30:32.733054  2843 net.cpp:141] Setting up pool2/3x3_s2
I0727 20:30:32.733065  2848 net.cpp:425] pool2/3x3_s2_pool2/3x3_s2_0_split <- pool2/3x3_s2
I0727 20:30:32.733068  2843 net.cpp:148] Top shape: 10 192 28 28 (1505280)
I0727 20:30:32.733080  2843 net.cpp:156] Memory required for data: 180633600
I0727 20:30:32.733083  2848 net.cpp:399] pool2/3x3_s2_pool2/3x3_s2_0_split -> pool2/3x3_s2_pool2/3x3_s2_0_split_0
I0727 20:30:32.733085  2843 layer_factory.hpp:77] Creating layer pool2/3x3_s2_pool2/3x3_s2_0_split
I0727 20:30:32.733127  2848 net.cpp:399] pool2/3x3_s2_pool2/3x3_s2_0_split -> pool2/3x3_s2_pool2/3x3_s2_0_split_1
I0727 20:30:32.733131  2843 net.cpp:91] Creating Layer pool2/3x3_s2_pool2/3x3_s2_0_split
I0727 20:30:32.733146  2843 net.cpp:425] pool2/3x3_s2_pool2/3x3_s2_0_split <- pool2/3x3_s2
I0727 20:30:32.733153  2843 net.cpp:399] pool2/3x3_s2_pool2/3x3_s2_0_split -> pool2/3x3_s2_pool2/3x3_s2_0_split_0
I0727 20:30:32.733153  2848 net.cpp:399] pool2/3x3_s2_pool2/3x3_s2_0_split -> pool2/3x3_s2_pool2/3x3_s2_0_split_2
I0727 20:30:32.733165  2843 net.cpp:399] pool2/3x3_s2_pool2/3x3_s2_0_split -> pool2/3x3_s2_pool2/3x3_s2_0_split_1
I0727 20:30:32.733172  2848 net.cpp:399] pool2/3x3_s2_pool2/3x3_s2_0_split -> pool2/3x3_s2_pool2/3x3_s2_0_split_3
I0727 20:30:32.733175  2843 net.cpp:399] pool2/3x3_s2_pool2/3x3_s2_0_split -> pool2/3x3_s2_pool2/3x3_s2_0_split_2
I0727 20:30:32.733198  2843 net.cpp:399] pool2/3x3_s2_pool2/3x3_s2_0_split -> pool2/3x3_s2_pool2/3x3_s2_0_split_3
I0727 20:30:32.733566  2843 net.cpp:141] Setting up pool2/3x3_s2_pool2/3x3_s2_0_split
I0727 20:30:32.733577  2843 net.cpp:148] Top shape: 10 192 28 28 (1505280)
I0727 20:30:32.733583  2843 net.cpp:148] Top shape: 10 192 28 28 (1505280)
I0727 20:30:32.733588  2843 net.cpp:148] Top shape: 10 192 28 28 (1505280)
I0727 20:30:32.733593  2843 net.cpp:148] Top shape: 10 192 28 28 (1505280)
I0727 20:30:32.733597  2843 net.cpp:156] Memory required for data: 204718080
I0727 20:30:32.733613  2843 layer_factory.hpp:77] Creating layer inception_3a/1x1
I0727 20:30:32.733641  2843 net.cpp:91] Creating Layer inception_3a/1x1
I0727 20:30:32.733647  2843 net.cpp:425] inception_3a/1x1 <- pool2/3x3_s2_pool2/3x3_s2_0_split_0
I0727 20:30:32.733675  2848 net.cpp:141] Setting up pool2/3x3_s2_pool2/3x3_s2_0_split
I0727 20:30:32.733697  2848 net.cpp:148] Top shape: 10 192 28 28 (1505280)
I0727 20:30:32.733702  2843 net.cpp:399] inception_3a/1x1 -> inception_3a/1x1
I0727 20:30:32.733726  2848 net.cpp:148] Top shape: 10 192 28 28 (1505280)
I0727 20:30:32.733739  2848 net.cpp:148] Top shape: 10 192 28 28 (1505280)
I0727 20:30:32.733750  2848 net.cpp:148] Top shape: 10 192 28 28 (1505280)
I0727 20:30:32.733758  2848 net.cpp:156] Memory required for data: 204718080
I0727 20:30:32.733767  2848 layer_factory.hpp:77] Creating layer inception_3a/1x1
I0727 20:30:32.733793  2848 net.cpp:91] Creating Layer inception_3a/1x1
I0727 20:30:32.733805  2848 net.cpp:425] inception_3a/1x1 <- pool2/3x3_s2_pool2/3x3_s2_0_split_0
I0727 20:30:32.733829  2848 net.cpp:399] inception_3a/1x1 -> inception_3a/1x1
I0727 20:30:32.741379  2843 net.cpp:141] Setting up inception_3a/1x1
I0727 20:30:32.741405  2843 net.cpp:148] Top shape: 10 64 28 28 (501760)
I0727 20:30:32.741410  2843 net.cpp:156] Memory required for data: 206725120
I0727 20:30:32.741422  2843 layer_factory.hpp:77] Creating layer inception_3a/relu_1x1
I0727 20:30:32.741448  2843 net.cpp:91] Creating Layer inception_3a/relu_1x1
I0727 20:30:32.741456  2843 net.cpp:425] inception_3a/relu_1x1 <- inception_3a/1x1
I0727 20:30:32.741463  2843 net.cpp:386] inception_3a/relu_1x1 -> inception_3a/1x1 (in-place)
I0727 20:30:32.742072  2843 net.cpp:141] Setting up inception_3a/relu_1x1
I0727 20:30:32.742094  2843 net.cpp:148] Top shape: 10 64 28 28 (501760)
I0727 20:30:32.742099  2843 net.cpp:156] Memory required for data: 208732160
I0727 20:30:32.742103  2843 layer_factory.hpp:77] Creating layer inception_3a/3x3_reduce
I0727 20:30:32.742121  2843 net.cpp:91] Creating Layer inception_3a/3x3_reduce
I0727 20:30:32.742128  2843 net.cpp:425] inception_3a/3x3_reduce <- pool2/3x3_s2_pool2/3x3_s2_0_split_1
I0727 20:30:32.742141  2843 net.cpp:399] inception_3a/3x3_reduce -> inception_3a/3x3_reduce
I0727 20:30:32.744061  2848 net.cpp:141] Setting up inception_3a/1x1
I0727 20:30:32.744083  2848 net.cpp:148] Top shape: 10 64 28 28 (501760)
I0727 20:30:32.744093  2848 net.cpp:156] Memory required for data: 206725120
I0727 20:30:32.744112  2848 layer_factory.hpp:77] Creating layer inception_3a/relu_1x1
I0727 20:30:32.744130  2848 net.cpp:91] Creating Layer inception_3a/relu_1x1
I0727 20:30:32.744143  2848 net.cpp:425] inception_3a/relu_1x1 <- inception_3a/1x1
I0727 20:30:32.744158  2848 net.cpp:386] inception_3a/relu_1x1 -> inception_3a/1x1 (in-place)
I0727 20:30:32.744873  2848 net.cpp:141] Setting up inception_3a/relu_1x1
I0727 20:30:32.744892  2848 net.cpp:148] Top shape: 10 64 28 28 (501760)
I0727 20:30:32.744901  2848 net.cpp:156] Memory required for data: 208732160
I0727 20:30:32.744911  2848 layer_factory.hpp:77] Creating layer inception_3a/3x3_reduce
I0727 20:30:32.744941  2848 net.cpp:91] Creating Layer inception_3a/3x3_reduce
I0727 20:30:32.744956  2848 net.cpp:425] inception_3a/3x3_reduce <- pool2/3x3_s2_pool2/3x3_s2_0_split_1
I0727 20:30:32.744976  2848 net.cpp:399] inception_3a/3x3_reduce -> inception_3a/3x3_reduce
I0727 20:30:32.750705  2843 net.cpp:141] Setting up inception_3a/3x3_reduce
I0727 20:30:32.750751  2843 net.cpp:148] Top shape: 10 96 28 28 (752640)
I0727 20:30:32.750756  2843 net.cpp:156] Memory required for data: 211742720
I0727 20:30:32.750777  2843 layer_factory.hpp:77] Creating layer inception_3a/relu_3x3_reduce
I0727 20:30:32.750815  2843 net.cpp:91] Creating Layer inception_3a/relu_3x3_reduce
I0727 20:30:32.750823  2843 net.cpp:425] inception_3a/relu_3x3_reduce <- inception_3a/3x3_reduce
I0727 20:30:32.750846  2843 net.cpp:386] inception_3a/relu_3x3_reduce -> inception_3a/3x3_reduce (in-place)
I0727 20:30:32.751137  2843 net.cpp:141] Setting up inception_3a/relu_3x3_reduce
I0727 20:30:32.751147  2843 net.cpp:148] Top shape: 10 96 28 28 (752640)
I0727 20:30:32.751152  2843 net.cpp:156] Memory required for data: 214753280
I0727 20:30:32.751157  2843 layer_factory.hpp:77] Creating layer inception_3a/3x3
I0727 20:30:32.751181  2843 net.cpp:91] Creating Layer inception_3a/3x3
I0727 20:30:32.751188  2843 net.cpp:425] inception_3a/3x3 <- inception_3a/3x3_reduce
I0727 20:30:32.751196  2843 net.cpp:399] inception_3a/3x3 -> inception_3a/3x3
I0727 20:30:32.752272  2848 net.cpp:141] Setting up inception_3a/3x3_reduce
I0727 20:30:32.752295  2848 net.cpp:148] Top shape: 10 96 28 28 (752640)
I0727 20:30:32.752300  2848 net.cpp:156] Memory required for data: 211742720
I0727 20:30:32.752320  2848 layer_factory.hpp:77] Creating layer inception_3a/relu_3x3_reduce
I0727 20:30:32.752329  2848 net.cpp:91] Creating Layer inception_3a/relu_3x3_reduce
I0727 20:30:32.752334  2848 net.cpp:425] inception_3a/relu_3x3_reduce <- inception_3a/3x3_reduce
I0727 20:30:32.752346  2848 net.cpp:386] inception_3a/relu_3x3_reduce -> inception_3a/3x3_reduce (in-place)
I0727 20:30:32.752599  2848 net.cpp:141] Setting up inception_3a/relu_3x3_reduce
I0727 20:30:32.752609  2848 net.cpp:148] Top shape: 10 96 28 28 (752640)
I0727 20:30:32.752614  2848 net.cpp:156] Memory required for data: 214753280
I0727 20:30:32.752619  2848 layer_factory.hpp:77] Creating layer inception_3a/3x3
I0727 20:30:32.752640  2848 net.cpp:91] Creating Layer inception_3a/3x3
I0727 20:30:32.752645  2848 net.cpp:425] inception_3a/3x3 <- inception_3a/3x3_reduce
I0727 20:30:32.752656  2848 net.cpp:399] inception_3a/3x3 -> inception_3a/3x3
I0727 20:30:32.756345  2843 net.cpp:141] Setting up inception_3a/3x3
I0727 20:30:32.756378  2843 net.cpp:148] Top shape: 10 128 28 28 (1003520)
I0727 20:30:32.756384  2843 net.cpp:156] Memory required for data: 218767360
I0727 20:30:32.756393  2843 layer_factory.hpp:77] Creating layer inception_3a/relu_3x3
I0727 20:30:32.756417  2843 net.cpp:91] Creating Layer inception_3a/relu_3x3
I0727 20:30:32.756423  2843 net.cpp:425] inception_3a/relu_3x3 <- inception_3a/3x3
I0727 20:30:32.756430  2843 net.cpp:386] inception_3a/relu_3x3 -> inception_3a/3x3 (in-place)
I0727 20:30:32.757346  2843 net.cpp:141] Setting up inception_3a/relu_3x3
I0727 20:30:32.757361  2843 net.cpp:148] Top shape: 10 128 28 28 (1003520)
I0727 20:30:32.757380  2843 net.cpp:156] Memory required for data: 222781440
I0727 20:30:32.757385  2843 layer_factory.hpp:77] Creating layer inception_3a/5x5_reduce
I0727 20:30:32.757400  2843 net.cpp:91] Creating Layer inception_3a/5x5_reduce
I0727 20:30:32.757405  2843 net.cpp:425] inception_3a/5x5_reduce <- pool2/3x3_s2_pool2/3x3_s2_0_split_2
I0727 20:30:32.757438  2843 net.cpp:399] inception_3a/5x5_reduce -> inception_3a/5x5_reduce
I0727 20:30:32.757436  2848 net.cpp:141] Setting up inception_3a/3x3
I0727 20:30:32.757465  2848 net.cpp:148] Top shape: 10 128 28 28 (1003520)
I0727 20:30:32.757472  2848 net.cpp:156] Memory required for data: 218767360
I0727 20:30:32.757480  2848 layer_factory.hpp:77] Creating layer inception_3a/relu_3x3
I0727 20:30:32.757489  2848 net.cpp:91] Creating Layer inception_3a/relu_3x3
I0727 20:30:32.757495  2848 net.cpp:425] inception_3a/relu_3x3 <- inception_3a/3x3
I0727 20:30:32.757503  2848 net.cpp:386] inception_3a/relu_3x3 -> inception_3a/3x3 (in-place)
I0727 20:30:32.758465  2848 net.cpp:141] Setting up inception_3a/relu_3x3
I0727 20:30:32.758481  2848 net.cpp:148] Top shape: 10 128 28 28 (1003520)
I0727 20:30:32.758486  2848 net.cpp:156] Memory required for data: 222781440
I0727 20:30:32.758491  2848 layer_factory.hpp:77] Creating layer inception_3a/5x5_reduce
I0727 20:30:32.758512  2848 net.cpp:91] Creating Layer inception_3a/5x5_reduce
I0727 20:30:32.758517  2848 net.cpp:425] inception_3a/5x5_reduce <- pool2/3x3_s2_pool2/3x3_s2_0_split_2
I0727 20:30:32.758527  2848 net.cpp:399] inception_3a/5x5_reduce -> inception_3a/5x5_reduce
I0727 20:30:32.763384  2843 net.cpp:141] Setting up inception_3a/5x5_reduce
I0727 20:30:32.763411  2843 net.cpp:148] Top shape: 10 16 28 28 (125440)
I0727 20:30:32.763417  2843 net.cpp:156] Memory required for data: 223283200
I0727 20:30:32.763442  2843 layer_factory.hpp:77] Creating layer inception_3a/relu_5x5_reduce
I0727 20:30:32.763454  2843 net.cpp:91] Creating Layer inception_3a/relu_5x5_reduce
I0727 20:30:32.763460  2843 net.cpp:425] inception_3a/relu_5x5_reduce <- inception_3a/5x5_reduce
I0727 20:30:32.763469  2843 net.cpp:386] inception_3a/relu_5x5_reduce -> inception_3a/5x5_reduce (in-place)
I0727 20:30:32.763900  2843 net.cpp:141] Setting up inception_3a/relu_5x5_reduce
I0727 20:30:32.763911  2843 net.cpp:148] Top shape: 10 16 28 28 (125440)
I0727 20:30:32.763916  2843 net.cpp:156] Memory required for data: 223784960
I0727 20:30:32.763921  2843 layer_factory.hpp:77] Creating layer inception_3a/5x5
I0727 20:30:32.763947  2843 net.cpp:91] Creating Layer inception_3a/5x5
I0727 20:30:32.763953  2843 net.cpp:425] inception_3a/5x5 <- inception_3a/5x5_reduce
I0727 20:30:32.763965  2843 net.cpp:399] inception_3a/5x5 -> inception_3a/5x5
I0727 20:30:32.763989  2848 net.cpp:141] Setting up inception_3a/5x5_reduce
I0727 20:30:32.764019  2848 net.cpp:148] Top shape: 10 16 28 28 (125440)
I0727 20:30:32.764024  2848 net.cpp:156] Memory required for data: 223283200
I0727 20:30:32.764035  2848 layer_factory.hpp:77] Creating layer inception_3a/relu_5x5_reduce
I0727 20:30:32.764050  2848 net.cpp:91] Creating Layer inception_3a/relu_5x5_reduce
I0727 20:30:32.764057  2848 net.cpp:425] inception_3a/relu_5x5_reduce <- inception_3a/5x5_reduce
I0727 20:30:32.764070  2848 net.cpp:386] inception_3a/relu_5x5_reduce -> inception_3a/5x5_reduce (in-place)
I0727 20:30:32.764480  2848 net.cpp:141] Setting up inception_3a/relu_5x5_reduce
I0727 20:30:32.764492  2848 net.cpp:148] Top shape: 10 16 28 28 (125440)
I0727 20:30:32.764497  2848 net.cpp:156] Memory required for data: 223784960
I0727 20:30:32.764502  2848 layer_factory.hpp:77] Creating layer inception_3a/5x5
I0727 20:30:32.764519  2848 net.cpp:91] Creating Layer inception_3a/5x5
I0727 20:30:32.764525  2848 net.cpp:425] inception_3a/5x5 <- inception_3a/5x5_reduce
I0727 20:30:32.764539  2848 net.cpp:399] inception_3a/5x5 -> inception_3a/5x5
I0727 20:30:32.770159  2843 net.cpp:141] Setting up inception_3a/5x5
I0727 20:30:32.770177  2843 net.cpp:148] Top shape: 10 32 28 28 (250880)
I0727 20:30:32.770184  2843 net.cpp:156] Memory required for data: 224788480
I0727 20:30:32.770192  2843 layer_factory.hpp:77] Creating layer inception_3a/relu_5x5
I0727 20:30:32.770205  2843 net.cpp:91] Creating Layer inception_3a/relu_5x5
I0727 20:30:32.770210  2843 net.cpp:425] inception_3a/relu_5x5 <- inception_3a/5x5
I0727 20:30:32.770217  2843 net.cpp:386] inception_3a/relu_5x5 -> inception_3a/5x5 (in-place)
I0727 20:30:32.770572  2843 net.cpp:141] Setting up inception_3a/relu_5x5
I0727 20:30:32.770584  2843 net.cpp:148] Top shape: 10 32 28 28 (250880)
I0727 20:30:32.770588  2843 net.cpp:156] Memory required for data: 225792000
I0727 20:30:32.770593  2843 layer_factory.hpp:77] Creating layer inception_3a/pool
I0727 20:30:32.770603  2843 net.cpp:91] Creating Layer inception_3a/pool
I0727 20:30:32.770608  2843 net.cpp:425] inception_3a/pool <- pool2/3x3_s2_pool2/3x3_s2_0_split_3
I0727 20:30:32.770619  2843 net.cpp:399] inception_3a/pool -> inception_3a/pool
I0727 20:30:32.771183  2848 net.cpp:141] Setting up inception_3a/5x5
I0727 20:30:32.771209  2848 net.cpp:148] Top shape: 10 32 28 28 (250880)
I0727 20:30:32.771211  2843 net.cpp:141] Setting up inception_3a/pool
I0727 20:30:32.771214  2848 net.cpp:156] Memory required for data: 224788480
I0727 20:30:32.771226  2843 net.cpp:148] Top shape: 10 192 28 28 (1505280)
I0727 20:30:32.771231  2843 net.cpp:156] Memory required for data: 231813120
I0727 20:30:32.771236  2848 layer_factory.hpp:77] Creating layer inception_3a/relu_5x5
I0727 20:30:32.771250  2848 net.cpp:91] Creating Layer inception_3a/relu_5x5
I0727 20:30:32.771250  2843 layer_factory.hpp:77] Creating layer inception_3a/pool_proj
I0727 20:30:32.771256  2848 net.cpp:425] inception_3a/relu_5x5 <- inception_3a/5x5
I0727 20:30:32.771270  2848 net.cpp:386] inception_3a/relu_5x5 -> inception_3a/5x5 (in-place)
I0727 20:30:32.771276  2843 net.cpp:91] Creating Layer inception_3a/pool_proj
I0727 20:30:32.771284  2843 net.cpp:425] inception_3a/pool_proj <- inception_3a/pool
I0727 20:30:32.771296  2843 net.cpp:399] inception_3a/pool_proj -> inception_3a/pool_proj
I0727 20:30:32.771711  2848 net.cpp:141] Setting up inception_3a/relu_5x5
I0727 20:30:32.771723  2848 net.cpp:148] Top shape: 10 32 28 28 (250880)
I0727 20:30:32.771728  2848 net.cpp:156] Memory required for data: 225792000
I0727 20:30:32.771733  2848 layer_factory.hpp:77] Creating layer inception_3a/pool
I0727 20:30:32.771749  2848 net.cpp:91] Creating Layer inception_3a/pool
I0727 20:30:32.771754  2848 net.cpp:425] inception_3a/pool <- pool2/3x3_s2_pool2/3x3_s2_0_split_3
I0727 20:30:32.771762  2848 net.cpp:399] inception_3a/pool -> inception_3a/pool
I0727 20:30:32.771989  2848 net.cpp:141] Setting up inception_3a/pool
I0727 20:30:32.772001  2848 net.cpp:148] Top shape: 10 192 28 28 (1505280)
I0727 20:30:32.772004  2848 net.cpp:156] Memory required for data: 231813120
I0727 20:30:32.772009  2848 layer_factory.hpp:77] Creating layer inception_3a/pool_proj
I0727 20:30:32.772028  2848 net.cpp:91] Creating Layer inception_3a/pool_proj
I0727 20:30:32.772034  2848 net.cpp:425] inception_3a/pool_proj <- inception_3a/pool
I0727 20:30:32.772043  2848 net.cpp:399] inception_3a/pool_proj -> inception_3a/pool_proj
I0727 20:30:32.776496  2843 net.cpp:141] Setting up inception_3a/pool_proj
I0727 20:30:32.776520  2843 net.cpp:148] Top shape: 10 32 28 28 (250880)
I0727 20:30:32.776525  2843 net.cpp:156] Memory required for data: 232816640
I0727 20:30:32.776538  2843 layer_factory.hpp:77] Creating layer inception_3a/relu_pool_proj
I0727 20:30:32.776561  2843 net.cpp:91] Creating Layer inception_3a/relu_pool_proj
I0727 20:30:32.776566  2843 net.cpp:425] inception_3a/relu_pool_proj <- inception_3a/pool_proj
I0727 20:30:32.776577  2843 net.cpp:386] inception_3a/relu_pool_proj -> inception_3a/pool_proj (in-place)
I0727 20:30:32.777537  2843 net.cpp:141] Setting up inception_3a/relu_pool_proj
I0727 20:30:32.777552  2843 net.cpp:148] Top shape: 10 32 28 28 (250880)
I0727 20:30:32.777557  2843 net.cpp:156] Memory required for data: 233820160
I0727 20:30:32.777562  2843 layer_factory.hpp:77] Creating layer inception_3a/output
I0727 20:30:32.777580  2843 net.cpp:91] Creating Layer inception_3a/output
I0727 20:30:32.777585  2843 net.cpp:425] inception_3a/output <- inception_3a/1x1
I0727 20:30:32.777591  2843 net.cpp:425] inception_3a/output <- inception_3a/3x3
I0727 20:30:32.777596  2843 net.cpp:425] inception_3a/output <- inception_3a/5x5
I0727 20:30:32.777601  2843 net.cpp:425] inception_3a/output <- inception_3a/pool_proj
I0727 20:30:32.777611  2843 net.cpp:399] inception_3a/output -> inception_3a/output
I0727 20:30:32.777725  2843 net.cpp:141] Setting up inception_3a/output
I0727 20:30:32.777736  2843 net.cpp:148] Top shape: 10 256 28 28 (2007040)
I0727 20:30:32.777741  2843 net.cpp:156] Memory required for data: 241848320
I0727 20:30:32.777745  2843 layer_factory.hpp:77] Creating layer inception_3a/output_inception_3a/output_0_split
I0727 20:30:32.777739  2848 net.cpp:141] Setting up inception_3a/pool_proj
I0727 20:30:32.777760  2843 net.cpp:91] Creating Layer inception_3a/output_inception_3a/output_0_split
I0727 20:30:32.777762  2848 net.cpp:148] Top shape: 10 32 28 28 (250880)
I0727 20:30:32.777766  2843 net.cpp:425] inception_3a/output_inception_3a/output_0_split <- inception_3a/output
I0727 20:30:32.777768  2848 net.cpp:156] Memory required for data: 232816640
I0727 20:30:32.777775  2843 net.cpp:399] inception_3a/output_inception_3a/output_0_split -> inception_3a/output_inception_3a/output_0_split_0
I0727 20:30:32.777784  2843 net.cpp:399] inception_3a/output_inception_3a/output_0_split -> inception_3a/output_inception_3a/output_0_split_1
I0727 20:30:32.777787  2848 layer_factory.hpp:77] Creating layer inception_3a/relu_pool_proj
I0727 20:30:32.777796  2843 net.cpp:399] inception_3a/output_inception_3a/output_0_split -> inception_3a/output_inception_3a/output_0_split_2
I0727 20:30:32.777802  2848 net.cpp:91] Creating Layer inception_3a/relu_pool_proj
I0727 20:30:32.777804  2843 net.cpp:399] inception_3a/output_inception_3a/output_0_split -> inception_3a/output_inception_3a/output_0_split_3
I0727 20:30:32.777811  2848 net.cpp:425] inception_3a/relu_pool_proj <- inception_3a/pool_proj
I0727 20:30:32.777818  2848 net.cpp:386] inception_3a/relu_pool_proj -> inception_3a/pool_proj (in-place)
I0727 20:30:32.778731  2843 net.cpp:141] Setting up inception_3a/output_inception_3a/output_0_split
I0727 20:30:32.778744  2843 net.cpp:148] Top shape: 10 256 28 28 (2007040)
I0727 20:30:32.778745  2848 net.cpp:141] Setting up inception_3a/relu_pool_proj
I0727 20:30:32.778750  2843 net.cpp:148] Top shape: 10 256 28 28 (2007040)
I0727 20:30:32.778762  2848 net.cpp:148] Top shape: 10 32 28 28 (250880)
I0727 20:30:32.778766  2843 net.cpp:148] Top shape: 10 256 28 28 (2007040)
I0727 20:30:32.778769  2848 net.cpp:156] Memory required for data: 233820160
I0727 20:30:32.778774  2843 net.cpp:148] Top shape: 10 256 28 28 (2007040)
I0727 20:30:32.778774  2848 layer_factory.hpp:77] Creating layer inception_3a/output
I0727 20:30:32.778779  2843 net.cpp:156] Memory required for data: 273960960
I0727 20:30:32.778797  2843 layer_factory.hpp:77] Creating layer inception_3b/1x1
I0727 20:30:32.778805  2848 net.cpp:91] Creating Layer inception_3a/output
I0727 20:30:32.778816  2848 net.cpp:425] inception_3a/output <- inception_3a/1x1
I0727 20:30:32.778822  2848 net.cpp:425] inception_3a/output <- inception_3a/3x3
I0727 20:30:32.778826  2843 net.cpp:91] Creating Layer inception_3b/1x1
I0727 20:30:32.778830  2848 net.cpp:425] inception_3a/output <- inception_3a/5x5
I0727 20:30:32.778834  2843 net.cpp:425] inception_3b/1x1 <- inception_3a/output_inception_3a/output_0_split_0
I0727 20:30:32.778836  2848 net.cpp:425] inception_3a/output <- inception_3a/pool_proj
I0727 20:30:32.778846  2843 net.cpp:399] inception_3b/1x1 -> inception_3b/1x1
I0727 20:30:32.778844  2848 net.cpp:399] inception_3a/output -> inception_3a/output
I0727 20:30:32.778990  2848 net.cpp:141] Setting up inception_3a/output
I0727 20:30:32.779001  2848 net.cpp:148] Top shape: 10 256 28 28 (2007040)
I0727 20:30:32.779006  2848 net.cpp:156] Memory required for data: 241848320
I0727 20:30:32.779012  2848 layer_factory.hpp:77] Creating layer inception_3a/output_inception_3a/output_0_split
I0727 20:30:32.779021  2848 net.cpp:91] Creating Layer inception_3a/output_inception_3a/output_0_split
I0727 20:30:32.779026  2848 net.cpp:425] inception_3a/output_inception_3a/output_0_split <- inception_3a/output
I0727 20:30:32.779036  2848 net.cpp:399] inception_3a/output_inception_3a/output_0_split -> inception_3a/output_inception_3a/output_0_split_0
I0727 20:30:32.779045  2848 net.cpp:399] inception_3a/output_inception_3a/output_0_split -> inception_3a/output_inception_3a/output_0_split_1
I0727 20:30:32.779053  2848 net.cpp:399] inception_3a/output_inception_3a/output_0_split -> inception_3a/output_inception_3a/output_0_split_2
I0727 20:30:32.779062  2848 net.cpp:399] inception_3a/output_inception_3a/output_0_split -> inception_3a/output_inception_3a/output_0_split_3
I0727 20:30:32.779489  2848 net.cpp:141] Setting up inception_3a/output_inception_3a/output_0_split
I0727 20:30:32.779500  2848 net.cpp:148] Top shape: 10 256 28 28 (2007040)
I0727 20:30:32.779506  2848 net.cpp:148] Top shape: 10 256 28 28 (2007040)
I0727 20:30:32.779511  2848 net.cpp:148] Top shape: 10 256 28 28 (2007040)
I0727 20:30:32.779516  2848 net.cpp:148] Top shape: 10 256 28 28 (2007040)
I0727 20:30:32.779520  2848 net.cpp:156] Memory required for data: 273960960
I0727 20:30:32.779525  2848 layer_factory.hpp:77] Creating layer inception_3b/1x1
I0727 20:30:32.779542  2848 net.cpp:91] Creating Layer inception_3b/1x1
I0727 20:30:32.779548  2848 net.cpp:425] inception_3b/1x1 <- inception_3a/output_inception_3a/output_0_split_0
I0727 20:30:32.779559  2848 net.cpp:399] inception_3b/1x1 -> inception_3b/1x1
I0727 20:30:32.785333  2843 net.cpp:141] Setting up inception_3b/1x1
I0727 20:30:32.785356  2843 net.cpp:148] Top shape: 10 128 28 28 (1003520)
I0727 20:30:32.785361  2843 net.cpp:156] Memory required for data: 277975040
I0727 20:30:32.785372  2843 layer_factory.hpp:77] Creating layer inception_3b/relu_1x1
I0727 20:30:32.785383  2843 net.cpp:91] Creating Layer inception_3b/relu_1x1
I0727 20:30:32.785389  2843 net.cpp:425] inception_3b/relu_1x1 <- inception_3b/1x1
I0727 20:30:32.785396  2843 net.cpp:386] inception_3b/relu_1x1 -> inception_3b/1x1 (in-place)
I0727 20:30:32.785859  2843 net.cpp:141] Setting up inception_3b/relu_1x1
I0727 20:30:32.785873  2843 net.cpp:148] Top shape: 10 128 28 28 (1003520)
I0727 20:30:32.785878  2843 net.cpp:156] Memory required for data: 281989120
I0727 20:30:32.785883  2843 layer_factory.hpp:77] Creating layer inception_3b/3x3_reduce
I0727 20:30:32.785900  2843 net.cpp:91] Creating Layer inception_3b/3x3_reduce
I0727 20:30:32.785907  2843 net.cpp:425] inception_3b/3x3_reduce <- inception_3a/output_inception_3a/output_0_split_1
I0727 20:30:32.785915  2843 net.cpp:399] inception_3b/3x3_reduce -> inception_3b/3x3_reduce
I0727 20:30:32.785933  2848 net.cpp:141] Setting up inception_3b/1x1
I0727 20:30:32.785953  2848 net.cpp:148] Top shape: 10 128 28 28 (1003520)
I0727 20:30:32.785959  2848 net.cpp:156] Memory required for data: 277975040
I0727 20:30:32.785969  2848 layer_factory.hpp:77] Creating layer inception_3b/relu_1x1
I0727 20:30:32.785977  2848 net.cpp:91] Creating Layer inception_3b/relu_1x1
I0727 20:30:32.785982  2848 net.cpp:425] inception_3b/relu_1x1 <- inception_3b/1x1
I0727 20:30:32.785990  2848 net.cpp:386] inception_3b/relu_1x1 -> inception_3b/1x1 (in-place)
I0727 20:30:32.786398  2848 net.cpp:141] Setting up inception_3b/relu_1x1
I0727 20:30:32.786411  2848 net.cpp:148] Top shape: 10 128 28 28 (1003520)
I0727 20:30:32.786415  2848 net.cpp:156] Memory required for data: 281989120
I0727 20:30:32.786419  2848 layer_factory.hpp:77] Creating layer inception_3b/3x3_reduce
I0727 20:30:32.786438  2848 net.cpp:91] Creating Layer inception_3b/3x3_reduce
I0727 20:30:32.786444  2848 net.cpp:425] inception_3b/3x3_reduce <- inception_3a/output_inception_3a/output_0_split_1
I0727 20:30:32.786456  2848 net.cpp:399] inception_3b/3x3_reduce -> inception_3b/3x3_reduce
I0727 20:30:32.790206  2843 net.cpp:141] Setting up inception_3b/3x3_reduce
I0727 20:30:32.790225  2843 net.cpp:148] Top shape: 10 128 28 28 (1003520)
I0727 20:30:32.790230  2843 net.cpp:156] Memory required for data: 286003200
I0727 20:30:32.790251  2843 layer_factory.hpp:77] Creating layer inception_3b/relu_3x3_reduce
I0727 20:30:32.790271  2843 net.cpp:91] Creating Layer inception_3b/relu_3x3_reduce
I0727 20:30:32.790277  2843 net.cpp:425] inception_3b/relu_3x3_reduce <- inception_3b/3x3_reduce
I0727 20:30:32.790288  2843 net.cpp:386] inception_3b/relu_3x3_reduce -> inception_3b/3x3_reduce (in-place)
I0727 20:30:32.790562  2848 net.cpp:141] Setting up inception_3b/3x3_reduce
I0727 20:30:32.790577  2848 net.cpp:148] Top shape: 10 128 28 28 (1003520)
I0727 20:30:32.790582  2848 net.cpp:156] Memory required for data: 286003200
I0727 20:30:32.790591  2848 layer_factory.hpp:77] Creating layer inception_3b/relu_3x3_reduce
I0727 20:30:32.790603  2848 net.cpp:91] Creating Layer inception_3b/relu_3x3_reduce
I0727 20:30:32.790609  2848 net.cpp:425] inception_3b/relu_3x3_reduce <- inception_3b/3x3_reduce
I0727 20:30:32.790616  2848 net.cpp:386] inception_3b/relu_3x3_reduce -> inception_3b/3x3_reduce (in-place)
I0727 20:30:32.790622  2843 net.cpp:141] Setting up inception_3b/relu_3x3_reduce
I0727 20:30:32.790635  2843 net.cpp:148] Top shape: 10 128 28 28 (1003520)
I0727 20:30:32.790639  2843 net.cpp:156] Memory required for data: 290017280
I0727 20:30:32.790644  2843 layer_factory.hpp:77] Creating layer inception_3b/3x3
I0727 20:30:32.790659  2843 net.cpp:91] Creating Layer inception_3b/3x3
I0727 20:30:32.790665  2843 net.cpp:425] inception_3b/3x3 <- inception_3b/3x3_reduce
I0727 20:30:32.790674  2843 net.cpp:399] inception_3b/3x3 -> inception_3b/3x3
I0727 20:30:32.791015  2848 net.cpp:141] Setting up inception_3b/relu_3x3_reduce
I0727 20:30:32.791028  2848 net.cpp:148] Top shape: 10 128 28 28 (1003520)
I0727 20:30:32.791033  2848 net.cpp:156] Memory required for data: 290017280
I0727 20:30:32.791038  2848 layer_factory.hpp:77] Creating layer inception_3b/3x3
I0727 20:30:32.791054  2848 net.cpp:91] Creating Layer inception_3b/3x3
I0727 20:30:32.791059  2848 net.cpp:425] inception_3b/3x3 <- inception_3b/3x3_reduce
I0727 20:30:32.791070  2848 net.cpp:399] inception_3b/3x3 -> inception_3b/3x3
I0727 20:30:32.798938  2843 net.cpp:141] Setting up inception_3b/3x3
I0727 20:30:32.798959  2843 net.cpp:148] Top shape: 10 192 28 28 (1505280)
I0727 20:30:32.798965  2843 net.cpp:156] Memory required for data: 296038400
I0727 20:30:32.798974  2843 layer_factory.hpp:77] Creating layer inception_3b/relu_3x3
I0727 20:30:32.798995  2843 net.cpp:91] Creating Layer inception_3b/relu_3x3
I0727 20:30:32.799000  2843 net.cpp:425] inception_3b/relu_3x3 <- inception_3b/3x3
I0727 20:30:32.799007  2843 net.cpp:386] inception_3b/relu_3x3 -> inception_3b/3x3 (in-place)
I0727 20:30:32.800016  2843 net.cpp:141] Setting up inception_3b/relu_3x3
I0727 20:30:32.800034  2843 net.cpp:148] Top shape: 10 192 28 28 (1505280)
I0727 20:30:32.800038  2843 net.cpp:156] Memory required for data: 302059520
I0727 20:30:32.800043  2843 layer_factory.hpp:77] Creating layer inception_3b/5x5_reduce
I0727 20:30:32.800073  2843 net.cpp:91] Creating Layer inception_3b/5x5_reduce
I0727 20:30:32.800081  2843 net.cpp:425] inception_3b/5x5_reduce <- inception_3a/output_inception_3a/output_0_split_2
I0727 20:30:32.800091  2843 net.cpp:399] inception_3b/5x5_reduce -> inception_3b/5x5_reduce
I0727 20:30:32.800145  2848 net.cpp:141] Setting up inception_3b/3x3
I0727 20:30:32.800180  2848 net.cpp:148] Top shape: 10 192 28 28 (1505280)
I0727 20:30:32.800185  2848 net.cpp:156] Memory required for data: 296038400
I0727 20:30:32.800196  2848 layer_factory.hpp:77] Creating layer inception_3b/relu_3x3
I0727 20:30:32.800217  2848 net.cpp:91] Creating Layer inception_3b/relu_3x3
I0727 20:30:32.800225  2848 net.cpp:425] inception_3b/relu_3x3 <- inception_3b/3x3
I0727 20:30:32.800238  2848 net.cpp:386] inception_3b/relu_3x3 -> inception_3b/3x3 (in-place)
I0727 20:30:32.801214  2848 net.cpp:141] Setting up inception_3b/relu_3x3
I0727 20:30:32.801230  2848 net.cpp:148] Top shape: 10 192 28 28 (1505280)
I0727 20:30:32.801235  2848 net.cpp:156] Memory required for data: 302059520
I0727 20:30:32.801240  2848 layer_factory.hpp:77] Creating layer inception_3b/5x5_reduce
I0727 20:30:32.801260  2848 net.cpp:91] Creating Layer inception_3b/5x5_reduce
I0727 20:30:32.801267  2848 net.cpp:425] inception_3b/5x5_reduce <- inception_3a/output_inception_3a/output_0_split_2
I0727 20:30:32.801280  2848 net.cpp:399] inception_3b/5x5_reduce -> inception_3b/5x5_reduce
I0727 20:30:32.806613  2843 net.cpp:141] Setting up inception_3b/5x5_reduce
I0727 20:30:32.806668  2843 net.cpp:148] Top shape: 10 32 28 28 (250880)
I0727 20:30:32.806680  2843 net.cpp:156] Memory required for data: 303063040
I0727 20:30:32.806783  2843 layer_factory.hpp:77] Creating layer inception_3b/relu_5x5_reduce
I0727 20:30:32.806809  2843 net.cpp:91] Creating Layer inception_3b/relu_5x5_reduce
I0727 20:30:32.806816  2843 net.cpp:425] inception_3b/relu_5x5_reduce <- inception_3b/5x5_reduce
I0727 20:30:32.806846  2843 net.cpp:386] inception_3b/relu_5x5_reduce -> inception_3b/5x5_reduce (in-place)
I0727 20:30:32.807351  2843 net.cpp:141] Setting up inception_3b/relu_5x5_reduce
I0727 20:30:32.807369  2843 net.cpp:148] Top shape: 10 32 28 28 (250880)
I0727 20:30:32.807366  2848 net.cpp:141] Setting up inception_3b/5x5_reduce
I0727 20:30:32.807375  2843 net.cpp:156] Memory required for data: 304066560
I0727 20:30:32.807382  2843 layer_factory.hpp:77] Creating layer inception_3b/5x5
I0727 20:30:32.807384  2848 net.cpp:148] Top shape: 10 32 28 28 (250880)
I0727 20:30:32.807390  2848 net.cpp:156] Memory required for data: 303063040
I0727 20:30:32.807400  2848 layer_factory.hpp:77] Creating layer inception_3b/relu_5x5_reduce
I0727 20:30:32.807400  2843 net.cpp:91] Creating Layer inception_3b/5x5
I0727 20:30:32.807416  2843 net.cpp:425] inception_3b/5x5 <- inception_3b/5x5_reduce
I0727 20:30:32.807417  2848 net.cpp:91] Creating Layer inception_3b/relu_5x5_reduce
I0727 20:30:32.807426  2848 net.cpp:425] inception_3b/relu_5x5_reduce <- inception_3b/5x5_reduce
I0727 20:30:32.807431  2843 net.cpp:399] inception_3b/5x5 -> inception_3b/5x5
I0727 20:30:32.807441  2848 net.cpp:386] inception_3b/relu_5x5_reduce -> inception_3b/5x5_reduce (in-place)
I0727 20:30:32.807893  2848 net.cpp:141] Setting up inception_3b/relu_5x5_reduce
I0727 20:30:32.807907  2848 net.cpp:148] Top shape: 10 32 28 28 (250880)
I0727 20:30:32.807912  2848 net.cpp:156] Memory required for data: 304066560
I0727 20:30:32.807917  2848 layer_factory.hpp:77] Creating layer inception_3b/5x5
I0727 20:30:32.807940  2848 net.cpp:91] Creating Layer inception_3b/5x5
I0727 20:30:32.807945  2848 net.cpp:425] inception_3b/5x5 <- inception_3b/5x5_reduce
I0727 20:30:32.807955  2848 net.cpp:399] inception_3b/5x5 -> inception_3b/5x5
I0727 20:30:32.815130  2843 net.cpp:141] Setting up inception_3b/5x5
I0727 20:30:32.815155  2843 net.cpp:148] Top shape: 10 96 28 28 (752640)
I0727 20:30:32.815160  2843 net.cpp:156] Memory required for data: 307077120
I0727 20:30:32.815172  2843 layer_factory.hpp:77] Creating layer inception_3b/relu_5x5
I0727 20:30:32.815204  2843 net.cpp:91] Creating Layer inception_3b/relu_5x5
I0727 20:30:32.815210  2843 net.cpp:425] inception_3b/relu_5x5 <- inception_3b/5x5
I0727 20:30:32.815224  2843 net.cpp:386] inception_3b/relu_5x5 -> inception_3b/5x5 (in-place)
I0727 20:30:32.815518  2848 net.cpp:141] Setting up inception_3b/5x5
I0727 20:30:32.815542  2848 net.cpp:148] Top shape: 10 96 28 28 (752640)
I0727 20:30:32.815547  2848 net.cpp:156] Memory required for data: 307077120
I0727 20:30:32.815558  2848 layer_factory.hpp:77] Creating layer inception_3b/relu_5x5
I0727 20:30:32.815562  2843 net.cpp:141] Setting up inception_3b/relu_5x5
I0727 20:30:32.815572  2848 net.cpp:91] Creating Layer inception_3b/relu_5x5
I0727 20:30:32.815575  2843 net.cpp:148] Top shape: 10 96 28 28 (752640)
I0727 20:30:32.815579  2848 net.cpp:425] inception_3b/relu_5x5 <- inception_3b/5x5
I0727 20:30:32.815580  2843 net.cpp:156] Memory required for data: 310087680
I0727 20:30:32.815587  2843 layer_factory.hpp:77] Creating layer inception_3b/pool
I0727 20:30:32.815589  2848 net.cpp:386] inception_3b/relu_5x5 -> inception_3b/5x5 (in-place)
I0727 20:30:32.815598  2843 net.cpp:91] Creating Layer inception_3b/pool
I0727 20:30:32.815604  2843 net.cpp:425] inception_3b/pool <- inception_3a/output_inception_3a/output_0_split_3
I0727 20:30:32.815616  2843 net.cpp:399] inception_3b/pool -> inception_3b/pool
I0727 20:30:32.815891  2843 net.cpp:141] Setting up inception_3b/pool
I0727 20:30:32.815902  2843 net.cpp:148] Top shape: 10 256 28 28 (2007040)
I0727 20:30:32.815907  2843 net.cpp:156] Memory required for data: 318115840
I0727 20:30:32.815922  2843 layer_factory.hpp:77] Creating layer inception_3b/pool_proj
I0727 20:30:32.815943  2843 net.cpp:91] Creating Layer inception_3b/pool_proj
I0727 20:30:32.815949  2843 net.cpp:425] inception_3b/pool_proj <- inception_3b/pool
I0727 20:30:32.815963  2843 net.cpp:399] inception_3b/pool_proj -> inception_3b/pool_proj
I0727 20:30:32.815968  2848 net.cpp:141] Setting up inception_3b/relu_5x5
I0727 20:30:32.815981  2848 net.cpp:148] Top shape: 10 96 28 28 (752640)
I0727 20:30:32.815985  2848 net.cpp:156] Memory required for data: 310087680
I0727 20:30:32.815994  2848 layer_factory.hpp:77] Creating layer inception_3b/pool
I0727 20:30:32.816007  2848 net.cpp:91] Creating Layer inception_3b/pool
I0727 20:30:32.816014  2848 net.cpp:425] inception_3b/pool <- inception_3a/output_inception_3a/output_0_split_3
I0727 20:30:32.816023  2848 net.cpp:399] inception_3b/pool -> inception_3b/pool
I0727 20:30:32.816296  2848 net.cpp:141] Setting up inception_3b/pool
I0727 20:30:32.816313  2848 net.cpp:148] Top shape: 10 256 28 28 (2007040)
I0727 20:30:32.816319  2848 net.cpp:156] Memory required for data: 318115840
I0727 20:30:32.816328  2848 layer_factory.hpp:77] Creating layer inception_3b/pool_proj
I0727 20:30:32.816356  2848 net.cpp:91] Creating Layer inception_3b/pool_proj
I0727 20:30:32.816366  2848 net.cpp:425] inception_3b/pool_proj <- inception_3b/pool
I0727 20:30:32.816380  2848 net.cpp:399] inception_3b/pool_proj -> inception_3b/pool_proj
I0727 20:30:32.820770  2843 net.cpp:141] Setting up inception_3b/pool_proj
I0727 20:30:32.820791  2843 net.cpp:148] Top shape: 10 64 28 28 (501760)
I0727 20:30:32.820796  2843 net.cpp:156] Memory required for data: 320122880
I0727 20:30:32.820806  2843 layer_factory.hpp:77] Creating layer inception_3b/relu_pool_proj
I0727 20:30:32.820827  2843 net.cpp:91] Creating Layer inception_3b/relu_pool_proj
I0727 20:30:32.820833  2843 net.cpp:425] inception_3b/relu_pool_proj <- inception_3b/pool_proj
I0727 20:30:32.820840  2843 net.cpp:386] inception_3b/relu_pool_proj -> inception_3b/pool_proj (in-place)
I0727 20:30:32.821822  2843 net.cpp:141] Setting up inception_3b/relu_pool_proj
I0727 20:30:32.821837  2843 net.cpp:148] Top shape: 10 64 28 28 (501760)
I0727 20:30:32.821842  2843 net.cpp:156] Memory required for data: 322129920
I0727 20:30:32.821847  2843 layer_factory.hpp:77] Creating layer inception_3b/output
I0727 20:30:32.821856  2843 net.cpp:91] Creating Layer inception_3b/output
I0727 20:30:32.821861  2843 net.cpp:425] inception_3b/output <- inception_3b/1x1
I0727 20:30:32.821867  2843 net.cpp:425] inception_3b/output <- inception_3b/3x3
I0727 20:30:32.821873  2843 net.cpp:425] inception_3b/output <- inception_3b/5x5
I0727 20:30:32.821878  2843 net.cpp:425] inception_3b/output <- inception_3b/pool_proj
I0727 20:30:32.821884  2843 net.cpp:399] inception_3b/output -> inception_3b/output
I0727 20:30:32.821929  2848 net.cpp:141] Setting up inception_3b/pool_proj
I0727 20:30:32.821949  2848 net.cpp:148] Top shape: 10 64 28 28 (501760)
I0727 20:30:32.821954  2848 net.cpp:156] Memory required for data: 320122880
I0727 20:30:32.821965  2848 layer_factory.hpp:77] Creating layer inception_3b/relu_pool_proj
I0727 20:30:32.821969  2843 net.cpp:141] Setting up inception_3b/output
I0727 20:30:32.821975  2848 net.cpp:91] Creating Layer inception_3b/relu_pool_proj
I0727 20:30:32.821980  2843 net.cpp:148] Top shape: 10 480 28 28 (3763200)
I0727 20:30:32.821982  2848 net.cpp:425] inception_3b/relu_pool_proj <- inception_3b/pool_proj
I0727 20:30:32.821985  2843 net.cpp:156] Memory required for data: 337182720
I0727 20:30:32.821990  2843 layer_factory.hpp:77] Creating layer pool3/3x3_s2
I0727 20:30:32.821995  2848 net.cpp:386] inception_3b/relu_pool_proj -> inception_3b/pool_proj (in-place)
I0727 20:30:32.821998  2843 net.cpp:91] Creating Layer pool3/3x3_s2
I0727 20:30:32.822003  2843 net.cpp:425] pool3/3x3_s2 <- inception_3b/output
I0727 20:30:32.822016  2843 net.cpp:399] pool3/3x3_s2 -> pool3/3x3_s2
I0727 20:30:32.822850  2843 net.cpp:141] Setting up pool3/3x3_s2
I0727 20:30:32.822862  2843 net.cpp:148] Top shape: 10 480 14 14 (940800)
I0727 20:30:32.822866  2843 net.cpp:156] Memory required for data: 340945920
I0727 20:30:32.822882  2843 layer_factory.hpp:77] Creating layer pool3/3x3_s2_pool3/3x3_s2_0_split
I0727 20:30:32.822893  2843 net.cpp:91] Creating Layer pool3/3x3_s2_pool3/3x3_s2_0_split
I0727 20:30:32.822898  2843 net.cpp:425] pool3/3x3_s2_pool3/3x3_s2_0_split <- pool3/3x3_s2
I0727 20:30:32.822911  2843 net.cpp:399] pool3/3x3_s2_pool3/3x3_s2_0_split -> pool3/3x3_s2_pool3/3x3_s2_0_split_0
I0727 20:30:32.822921  2843 net.cpp:399] pool3/3x3_s2_pool3/3x3_s2_0_split -> pool3/3x3_s2_pool3/3x3_s2_0_split_1
I0727 20:30:32.822929  2843 net.cpp:399] pool3/3x3_s2_pool3/3x3_s2_0_split -> pool3/3x3_s2_pool3/3x3_s2_0_split_2
I0727 20:30:32.822932  2848 net.cpp:141] Setting up inception_3b/relu_pool_proj
I0727 20:30:32.822939  2843 net.cpp:399] pool3/3x3_s2_pool3/3x3_s2_0_split -> pool3/3x3_s2_pool3/3x3_s2_0_split_3
I0727 20:30:32.822947  2848 net.cpp:148] Top shape: 10 64 28 28 (501760)
I0727 20:30:32.822952  2848 net.cpp:156] Memory required for data: 322129920
I0727 20:30:32.822957  2848 layer_factory.hpp:77] Creating layer inception_3b/output
I0727 20:30:32.822967  2848 net.cpp:91] Creating Layer inception_3b/output
I0727 20:30:32.822976  2848 net.cpp:425] inception_3b/output <- inception_3b/1x1
I0727 20:30:32.822988  2848 net.cpp:425] inception_3b/output <- inception_3b/3x3
I0727 20:30:32.822998  2848 net.cpp:425] inception_3b/output <- inception_3b/5x5
I0727 20:30:32.823007  2848 net.cpp:425] inception_3b/output <- inception_3b/pool_proj
I0727 20:30:32.823025  2848 net.cpp:399] inception_3b/output -> inception_3b/output
I0727 20:30:32.823148  2843 net.cpp:141] Setting up pool3/3x3_s2_pool3/3x3_s2_0_split
I0727 20:30:32.823158  2843 net.cpp:148] Top shape: 10 480 14 14 (940800)
I0727 20:30:32.823164  2843 net.cpp:148] Top shape: 10 480 14 14 (940800)
I0727 20:30:32.823169  2843 net.cpp:148] Top shape: 10 480 14 14 (940800)
I0727 20:30:32.823174  2843 net.cpp:148] Top shape: 10 480 14 14 (940800)
I0727 20:30:32.823179  2843 net.cpp:156] Memory required for data: 355998720
I0727 20:30:32.823182  2843 layer_factory.hpp:77] Creating layer inception_4a/1x1
I0727 20:30:32.823189  2848 net.cpp:141] Setting up inception_3b/output
I0727 20:30:32.823206  2843 net.cpp:91] Creating Layer inception_4a/1x1
I0727 20:30:32.823210  2848 net.cpp:148] Top shape: 10 480 28 28 (3763200)
I0727 20:30:32.823213  2843 net.cpp:425] inception_4a/1x1 <- pool3/3x3_s2_pool3/3x3_s2_0_split_0
I0727 20:30:32.823223  2848 net.cpp:156] Memory required for data: 337182720
I0727 20:30:32.823235  2843 net.cpp:399] inception_4a/1x1 -> inception_4a/1x1
I0727 20:30:32.823236  2848 layer_factory.hpp:77] Creating layer pool3/3x3_s2
I0727 20:30:32.823256  2848 net.cpp:91] Creating Layer pool3/3x3_s2
I0727 20:30:32.823264  2848 net.cpp:425] pool3/3x3_s2 <- inception_3b/output
I0727 20:30:32.823276  2848 net.cpp:399] pool3/3x3_s2 -> pool3/3x3_s2
I0727 20:30:32.823614  2848 net.cpp:141] Setting up pool3/3x3_s2
I0727 20:30:32.823633  2848 net.cpp:148] Top shape: 10 480 14 14 (940800)
I0727 20:30:32.823642  2848 net.cpp:156] Memory required for data: 340945920
I0727 20:30:32.823650  2848 layer_factory.hpp:77] Creating layer pool3/3x3_s2_pool3/3x3_s2_0_split
I0727 20:30:32.823669  2848 net.cpp:91] Creating Layer pool3/3x3_s2_pool3/3x3_s2_0_split
I0727 20:30:32.823680  2848 net.cpp:425] pool3/3x3_s2_pool3/3x3_s2_0_split <- pool3/3x3_s2
I0727 20:30:32.823694  2848 net.cpp:399] pool3/3x3_s2_pool3/3x3_s2_0_split -> pool3/3x3_s2_pool3/3x3_s2_0_split_0
I0727 20:30:32.823711  2848 net.cpp:399] pool3/3x3_s2_pool3/3x3_s2_0_split -> pool3/3x3_s2_pool3/3x3_s2_0_split_1
I0727 20:30:32.823722  2848 net.cpp:399] pool3/3x3_s2_pool3/3x3_s2_0_split -> pool3/3x3_s2_pool3/3x3_s2_0_split_2
I0727 20:30:32.823730  2848 net.cpp:399] pool3/3x3_s2_pool3/3x3_s2_0_split -> pool3/3x3_s2_pool3/3x3_s2_0_split_3
I0727 20:30:32.823946  2848 net.cpp:141] Setting up pool3/3x3_s2_pool3/3x3_s2_0_split
I0727 20:30:32.823958  2848 net.cpp:148] Top shape: 10 480 14 14 (940800)
I0727 20:30:32.823964  2848 net.cpp:148] Top shape: 10 480 14 14 (940800)
I0727 20:30:32.823969  2848 net.cpp:148] Top shape: 10 480 14 14 (940800)
I0727 20:30:32.823974  2848 net.cpp:148] Top shape: 10 480 14 14 (940800)
I0727 20:30:32.823978  2848 net.cpp:156] Memory required for data: 355998720
I0727 20:30:32.823983  2848 layer_factory.hpp:77] Creating layer inception_4a/1x1
I0727 20:30:32.824000  2848 net.cpp:91] Creating Layer inception_4a/1x1
I0727 20:30:32.824007  2848 net.cpp:425] inception_4a/1x1 <- pool3/3x3_s2_pool3/3x3_s2_0_split_0
I0727 20:30:32.824017  2848 net.cpp:399] inception_4a/1x1 -> inception_4a/1x1
I0727 20:30:32.829192  2843 net.cpp:141] Setting up inception_4a/1x1
I0727 20:30:32.829212  2843 net.cpp:148] Top shape: 10 192 14 14 (376320)
I0727 20:30:32.829217  2843 net.cpp:156] Memory required for data: 357504000
I0727 20:30:32.829227  2843 layer_factory.hpp:77] Creating layer inception_4a/relu_1x1
I0727 20:30:32.829238  2843 net.cpp:91] Creating Layer inception_4a/relu_1x1
I0727 20:30:32.829246  2843 net.cpp:425] inception_4a/relu_1x1 <- inception_4a/1x1
I0727 20:30:32.829252  2843 net.cpp:386] inception_4a/relu_1x1 -> inception_4a/1x1 (in-place)
I0727 20:30:32.829664  2843 net.cpp:141] Setting up inception_4a/relu_1x1
I0727 20:30:32.829679  2843 net.cpp:148] Top shape: 10 192 14 14 (376320)
I0727 20:30:32.829684  2843 net.cpp:156] Memory required for data: 359009280
I0727 20:30:32.829701  2843 layer_factory.hpp:77] Creating layer inception_4a/3x3_reduce
I0727 20:30:32.829691  2848 net.cpp:141] Setting up inception_4a/1x1
I0727 20:30:32.829720  2848 net.cpp:148] Top shape: 10 192 14 14 (376320)
I0727 20:30:32.829721  2843 net.cpp:91] Creating Layer inception_4a/3x3_reduce
I0727 20:30:32.829725  2848 net.cpp:156] Memory required for data: 357504000
I0727 20:30:32.829728  2843 net.cpp:425] inception_4a/3x3_reduce <- pool3/3x3_s2_pool3/3x3_s2_0_split_1
I0727 20:30:32.829737  2848 layer_factory.hpp:77] Creating layer inception_4a/relu_1x1
I0727 20:30:32.829741  2843 net.cpp:399] inception_4a/3x3_reduce -> inception_4a/3x3_reduce
I0727 20:30:32.829752  2848 net.cpp:91] Creating Layer inception_4a/relu_1x1
I0727 20:30:32.829761  2848 net.cpp:425] inception_4a/relu_1x1 <- inception_4a/1x1
I0727 20:30:32.829768  2848 net.cpp:386] inception_4a/relu_1x1 -> inception_4a/1x1 (in-place)
I0727 20:30:32.830237  2848 net.cpp:141] Setting up inception_4a/relu_1x1
I0727 20:30:32.830250  2848 net.cpp:148] Top shape: 10 192 14 14 (376320)
I0727 20:30:32.830255  2848 net.cpp:156] Memory required for data: 359009280
I0727 20:30:32.830261  2848 layer_factory.hpp:77] Creating layer inception_4a/3x3_reduce
I0727 20:30:32.830281  2848 net.cpp:91] Creating Layer inception_4a/3x3_reduce
I0727 20:30:32.830287  2848 net.cpp:425] inception_4a/3x3_reduce <- pool3/3x3_s2_pool3/3x3_s2_0_split_1
I0727 20:30:32.830298  2848 net.cpp:399] inception_4a/3x3_reduce -> inception_4a/3x3_reduce
I0727 20:30:32.834357  2843 net.cpp:141] Setting up inception_4a/3x3_reduce
I0727 20:30:32.834378  2843 net.cpp:148] Top shape: 10 96 14 14 (188160)
I0727 20:30:32.834383  2843 net.cpp:156] Memory required for data: 359761920
I0727 20:30:32.834398  2843 layer_factory.hpp:77] Creating layer inception_4a/relu_3x3_reduce
I0727 20:30:32.834425  2843 net.cpp:91] Creating Layer inception_4a/relu_3x3_reduce
I0727 20:30:32.834431  2843 net.cpp:425] inception_4a/relu_3x3_reduce <- inception_4a/3x3_reduce
I0727 20:30:32.834439  2843 net.cpp:386] inception_4a/relu_3x3_reduce -> inception_4a/3x3_reduce (in-place)
I0727 20:30:32.834717  2848 net.cpp:141] Setting up inception_4a/3x3_reduce
I0727 20:30:32.834735  2848 net.cpp:148] Top shape: 10 96 14 14 (188160)
I0727 20:30:32.834740  2848 net.cpp:156] Memory required for data: 359761920
I0727 20:30:32.834761  2848 layer_factory.hpp:77] Creating layer inception_4a/relu_3x3_reduce
I0727 20:30:32.834771  2848 net.cpp:91] Creating Layer inception_4a/relu_3x3_reduce
I0727 20:30:32.834777  2848 net.cpp:425] inception_4a/relu_3x3_reduce <- inception_4a/3x3_reduce
I0727 20:30:32.834780  2843 net.cpp:141] Setting up inception_4a/relu_3x3_reduce
I0727 20:30:32.834785  2848 net.cpp:386] inception_4a/relu_3x3_reduce -> inception_4a/3x3_reduce (in-place)
I0727 20:30:32.834794  2843 net.cpp:148] Top shape: 10 96 14 14 (188160)
I0727 20:30:32.834799  2843 net.cpp:156] Memory required for data: 360514560
I0727 20:30:32.834803  2843 layer_factory.hpp:77] Creating layer inception_4a/3x3
I0727 20:30:32.834818  2843 net.cpp:91] Creating Layer inception_4a/3x3
I0727 20:30:32.834825  2843 net.cpp:425] inception_4a/3x3 <- inception_4a/3x3_reduce
I0727 20:30:32.834836  2843 net.cpp:399] inception_4a/3x3 -> inception_4a/3x3
I0727 20:30:32.835227  2848 net.cpp:141] Setting up inception_4a/relu_3x3_reduce
I0727 20:30:32.835238  2848 net.cpp:148] Top shape: 10 96 14 14 (188160)
I0727 20:30:32.835243  2848 net.cpp:156] Memory required for data: 360514560
I0727 20:30:32.835248  2848 layer_factory.hpp:77] Creating layer inception_4a/3x3
I0727 20:30:32.835264  2848 net.cpp:91] Creating Layer inception_4a/3x3
I0727 20:30:32.835270  2848 net.cpp:425] inception_4a/3x3 <- inception_4a/3x3_reduce
I0727 20:30:32.835281  2848 net.cpp:399] inception_4a/3x3 -> inception_4a/3x3
I0727 20:30:32.842659  2843 net.cpp:141] Setting up inception_4a/3x3
I0727 20:30:32.842703  2843 net.cpp:148] Top shape: 10 208 14 14 (407680)
I0727 20:30:32.842710  2843 net.cpp:156] Memory required for data: 362145280
I0727 20:30:32.842720  2843 layer_factory.hpp:77] Creating layer inception_4a/relu_3x3
I0727 20:30:32.842727  2843 net.cpp:91] Creating Layer inception_4a/relu_3x3
I0727 20:30:32.842733  2843 net.cpp:425] inception_4a/relu_3x3 <- inception_4a/3x3
I0727 20:30:32.842741  2843 net.cpp:386] inception_4a/relu_3x3 -> inception_4a/3x3 (in-place)
I0727 20:30:32.843809  2843 net.cpp:141] Setting up inception_4a/relu_3x3
I0727 20:30:32.843837  2843 net.cpp:148] Top shape: 10 208 14 14 (407680)
I0727 20:30:32.843842  2843 net.cpp:156] Memory required for data: 363776000
I0727 20:30:32.843859  2843 layer_factory.hpp:77] Creating layer inception_4a/5x5_reduce
I0727 20:30:32.843889  2843 net.cpp:91] Creating Layer inception_4a/5x5_reduce
I0727 20:30:32.843895  2843 net.cpp:425] inception_4a/5x5_reduce <- pool3/3x3_s2_pool3/3x3_s2_0_split_2
I0727 20:30:32.843919  2843 net.cpp:399] inception_4a/5x5_reduce -> inception_4a/5x5_reduce
I0727 20:30:32.843916  2848 net.cpp:141] Setting up inception_4a/3x3
I0727 20:30:32.843942  2848 net.cpp:148] Top shape: 10 208 14 14 (407680)
I0727 20:30:32.843948  2848 net.cpp:156] Memory required for data: 362145280
I0727 20:30:32.843958  2848 layer_factory.hpp:77] Creating layer inception_4a/relu_3x3
I0727 20:30:32.843973  2848 net.cpp:91] Creating Layer inception_4a/relu_3x3
I0727 20:30:32.843981  2848 net.cpp:425] inception_4a/relu_3x3 <- inception_4a/3x3
I0727 20:30:32.843993  2848 net.cpp:386] inception_4a/relu_3x3 -> inception_4a/3x3 (in-place)
I0727 20:30:32.844940  2848 net.cpp:141] Setting up inception_4a/relu_3x3
I0727 20:30:32.844959  2848 net.cpp:148] Top shape: 10 208 14 14 (407680)
I0727 20:30:32.844964  2848 net.cpp:156] Memory required for data: 363776000
I0727 20:30:32.844969  2848 layer_factory.hpp:77] Creating layer inception_4a/5x5_reduce
I0727 20:30:32.844986  2848 net.cpp:91] Creating Layer inception_4a/5x5_reduce
I0727 20:30:32.844993  2848 net.cpp:425] inception_4a/5x5_reduce <- pool3/3x3_s2_pool3/3x3_s2_0_split_2
I0727 20:30:32.845005  2848 net.cpp:399] inception_4a/5x5_reduce -> inception_4a/5x5_reduce
I0727 20:30:32.851028  2843 net.cpp:141] Setting up inception_4a/5x5_reduce
I0727 20:30:32.851073  2843 net.cpp:148] Top shape: 10 16 14 14 (31360)
I0727 20:30:32.851083  2843 net.cpp:156] Memory required for data: 363901440
I0727 20:30:32.851104  2843 layer_factory.hpp:77] Creating layer inception_4a/relu_5x5_reduce
I0727 20:30:32.851122  2843 net.cpp:91] Creating Layer inception_4a/relu_5x5_reduce
I0727 20:30:32.851135  2843 net.cpp:425] inception_4a/relu_5x5_reduce <- inception_4a/5x5_reduce
I0727 20:30:32.851160  2843 net.cpp:386] inception_4a/relu_5x5_reduce -> inception_4a/5x5_reduce (in-place)
I0727 20:30:32.851488  2848 net.cpp:141] Setting up inception_4a/5x5_reduce
I0727 20:30:32.851508  2848 net.cpp:148] Top shape: 10 16 14 14 (31360)
I0727 20:30:32.851517  2848 net.cpp:156] Memory required for data: 363901440
I0727 20:30:32.851532  2848 layer_factory.hpp:77] Creating layer inception_4a/relu_5x5_reduce
I0727 20:30:32.851550  2848 net.cpp:91] Creating Layer inception_4a/relu_5x5_reduce
I0727 20:30:32.851562  2848 net.cpp:425] inception_4a/relu_5x5_reduce <- inception_4a/5x5_reduce
I0727 20:30:32.851595  2843 net.cpp:141] Setting up inception_4a/relu_5x5_reduce
I0727 20:30:32.851598  2848 net.cpp:386] inception_4a/relu_5x5_reduce -> inception_4a/5x5_reduce (in-place)
I0727 20:30:32.851619  2843 net.cpp:148] Top shape: 10 16 14 14 (31360)
I0727 20:30:32.851627  2843 net.cpp:156] Memory required for data: 364026880
I0727 20:30:32.851635  2843 layer_factory.hpp:77] Creating layer inception_4a/5x5
I0727 20:30:32.851663  2843 net.cpp:91] Creating Layer inception_4a/5x5
I0727 20:30:32.851675  2843 net.cpp:425] inception_4a/5x5 <- inception_4a/5x5_reduce
I0727 20:30:32.851689  2843 net.cpp:399] inception_4a/5x5 -> inception_4a/5x5
I0727 20:30:32.852090  2848 net.cpp:141] Setting up inception_4a/relu_5x5_reduce
I0727 20:30:32.852108  2848 net.cpp:148] Top shape: 10 16 14 14 (31360)
I0727 20:30:32.852115  2848 net.cpp:156] Memory required for data: 364026880
I0727 20:30:32.852123  2848 layer_factory.hpp:77] Creating layer inception_4a/5x5
I0727 20:30:32.852152  2848 net.cpp:91] Creating Layer inception_4a/5x5
I0727 20:30:32.852164  2848 net.cpp:425] inception_4a/5x5 <- inception_4a/5x5_reduce
I0727 20:30:32.852181  2848 net.cpp:399] inception_4a/5x5 -> inception_4a/5x5
I0727 20:30:32.856832  2843 net.cpp:141] Setting up inception_4a/5x5
I0727 20:30:32.856863  2843 net.cpp:148] Top shape: 10 48 14 14 (94080)
I0727 20:30:32.856871  2843 net.cpp:156] Memory required for data: 364403200
I0727 20:30:32.856889  2843 layer_factory.hpp:77] Creating layer inception_4a/relu_5x5
I0727 20:30:32.856947  2843 net.cpp:91] Creating Layer inception_4a/relu_5x5
I0727 20:30:32.856961  2843 net.cpp:425] inception_4a/relu_5x5 <- inception_4a/5x5
I0727 20:30:32.856969  2843 net.cpp:386] inception_4a/relu_5x5 -> inception_4a/5x5 (in-place)
I0727 20:30:32.857230  2848 net.cpp:141] Setting up inception_4a/5x5
I0727 20:30:32.857244  2848 net.cpp:148] Top shape: 10 48 14 14 (94080)
I0727 20:30:32.857249  2848 net.cpp:156] Memory required for data: 364403200
I0727 20:30:32.857259  2848 layer_factory.hpp:77] Creating layer inception_4a/relu_5x5
I0727 20:30:32.857270  2848 net.cpp:91] Creating Layer inception_4a/relu_5x5
I0727 20:30:32.857275  2848 net.cpp:425] inception_4a/relu_5x5 <- inception_4a/5x5
I0727 20:30:32.857285  2848 net.cpp:386] inception_4a/relu_5x5 -> inception_4a/5x5 (in-place)
I0727 20:30:32.857357  2843 net.cpp:141] Setting up inception_4a/relu_5x5
I0727 20:30:32.857368  2843 net.cpp:148] Top shape: 10 48 14 14 (94080)
I0727 20:30:32.857373  2843 net.cpp:156] Memory required for data: 364779520
I0727 20:30:32.857393  2843 layer_factory.hpp:77] Creating layer inception_4a/pool
I0727 20:30:32.857403  2843 net.cpp:91] Creating Layer inception_4a/pool
I0727 20:30:32.857409  2843 net.cpp:425] inception_4a/pool <- pool3/3x3_s2_pool3/3x3_s2_0_split_3
I0727 20:30:32.857424  2843 net.cpp:399] inception_4a/pool -> inception_4a/pool
I0727 20:30:32.857636  2843 net.cpp:141] Setting up inception_4a/pool
I0727 20:30:32.857648  2843 net.cpp:148] Top shape: 10 480 14 14 (940800)
I0727 20:30:32.857652  2843 net.cpp:156] Memory required for data: 368542720
I0727 20:30:32.857656  2843 layer_factory.hpp:77] Creating layer inception_4a/pool_proj
I0727 20:30:32.857669  2848 net.cpp:141] Setting up inception_4a/relu_5x5
I0727 20:30:32.857673  2843 net.cpp:91] Creating Layer inception_4a/pool_proj
I0727 20:30:32.857684  2848 net.cpp:148] Top shape: 10 48 14 14 (94080)
I0727 20:30:32.857688  2843 net.cpp:425] inception_4a/pool_proj <- inception_4a/pool
I0727 20:30:32.857691  2848 net.cpp:156] Memory required for data: 364779520
I0727 20:30:32.857695  2848 layer_factory.hpp:77] Creating layer inception_4a/pool
I0727 20:30:32.857700  2843 net.cpp:399] inception_4a/pool_proj -> inception_4a/pool_proj
I0727 20:30:32.857712  2848 net.cpp:91] Creating Layer inception_4a/pool
I0727 20:30:32.857719  2848 net.cpp:425] inception_4a/pool <- pool3/3x3_s2_pool3/3x3_s2_0_split_3
I0727 20:30:32.857728  2848 net.cpp:399] inception_4a/pool -> inception_4a/pool
I0727 20:30:32.858007  2848 net.cpp:141] Setting up inception_4a/pool
I0727 20:30:32.858022  2848 net.cpp:148] Top shape: 10 480 14 14 (940800)
I0727 20:30:32.858027  2848 net.cpp:156] Memory required for data: 368542720
I0727 20:30:32.858032  2848 layer_factory.hpp:77] Creating layer inception_4a/pool_proj
I0727 20:30:32.858050  2848 net.cpp:91] Creating Layer inception_4a/pool_proj
I0727 20:30:32.858057  2848 net.cpp:425] inception_4a/pool_proj <- inception_4a/pool
I0727 20:30:32.858065  2848 net.cpp:399] inception_4a/pool_proj -> inception_4a/pool_proj
I0727 20:30:32.884954  2843 net.cpp:141] Setting up inception_4a/pool_proj
I0727 20:30:32.885004  2843 net.cpp:148] Top shape: 10 64 14 14 (125440)
I0727 20:30:32.885011  2843 net.cpp:156] Memory required for data: 369044480
I0727 20:30:32.885028  2843 layer_factory.hpp:77] Creating layer inception_4a/relu_pool_proj
I0727 20:30:32.885064  2843 net.cpp:91] Creating Layer inception_4a/relu_pool_proj
I0727 20:30:32.885074  2843 net.cpp:425] inception_4a/relu_pool_proj <- inception_4a/pool_proj
I0727 20:30:32.885099  2843 net.cpp:386] inception_4a/relu_pool_proj -> inception_4a/pool_proj (in-place)
I0727 20:30:32.886081  2843 net.cpp:141] Setting up inception_4a/relu_pool_proj
I0727 20:30:32.886097  2843 net.cpp:148] Top shape: 10 64 14 14 (125440)
I0727 20:30:32.886102  2843 net.cpp:156] Memory required for data: 369546240
I0727 20:30:32.886107  2843 layer_factory.hpp:77] Creating layer inception_4a/output
I0727 20:30:32.886117  2843 net.cpp:91] Creating Layer inception_4a/output
I0727 20:30:32.886122  2843 net.cpp:425] inception_4a/output <- inception_4a/1x1
I0727 20:30:32.886129  2843 net.cpp:425] inception_4a/output <- inception_4a/3x3
I0727 20:30:32.886135  2843 net.cpp:425] inception_4a/output <- inception_4a/5x5
I0727 20:30:32.886140  2843 net.cpp:425] inception_4a/output <- inception_4a/pool_proj
I0727 20:30:32.886152  2843 net.cpp:399] inception_4a/output -> inception_4a/output
I0727 20:30:32.886281  2843 net.cpp:141] Setting up inception_4a/output
I0727 20:30:32.886292  2843 net.cpp:148] Top shape: 10 512 14 14 (1003520)
I0727 20:30:32.886296  2843 net.cpp:156] Memory required for data: 373560320
I0727 20:30:32.886314  2843 layer_factory.hpp:77] Creating layer inception_4a/output_inception_4a/output_0_split
I0727 20:30:32.886309  2848 net.cpp:141] Setting up inception_4a/pool_proj
I0727 20:30:32.886328  2843 net.cpp:91] Creating Layer inception_4a/output_inception_4a/output_0_split
I0727 20:30:32.886350  2843 net.cpp:425] inception_4a/output_inception_4a/output_0_split <- inception_4a/output
I0727 20:30:32.886354  2848 net.cpp:148] Top shape: 10 64 14 14 (125440)
I0727 20:30:32.886359  2843 net.cpp:399] inception_4a/output_inception_4a/output_0_split -> inception_4a/output_inception_4a/output_0_split_0
I0727 20:30:32.886364  2848 net.cpp:156] Memory required for data: 369044480
I0727 20:30:32.886369  2843 net.cpp:399] inception_4a/output_inception_4a/output_0_split -> inception_4a/output_inception_4a/output_0_split_1
I0727 20:30:32.886381  2843 net.cpp:399] inception_4a/output_inception_4a/output_0_split -> inception_4a/output_inception_4a/output_0_split_2
I0727 20:30:32.886386  2848 layer_factory.hpp:77] Creating layer inception_4a/relu_pool_proj
I0727 20:30:32.886390  2843 net.cpp:399] inception_4a/output_inception_4a/output_0_split -> inception_4a/output_inception_4a/output_0_split_3
I0727 20:30:32.886410  2848 net.cpp:91] Creating Layer inception_4a/relu_pool_proj
I0727 20:30:32.886425  2848 net.cpp:425] inception_4a/relu_pool_proj <- inception_4a/pool_proj
I0727 20:30:32.886437  2848 net.cpp:386] inception_4a/relu_pool_proj -> inception_4a/pool_proj (in-place)
I0727 20:30:32.887882  2843 net.cpp:141] Setting up inception_4a/output_inception_4a/output_0_split
I0727 20:30:32.887900  2843 net.cpp:148] Top shape: 10 512 14 14 (1003520)
I0727 20:30:32.887907  2843 net.cpp:148] Top shape: 10 512 14 14 (1003520)
I0727 20:30:32.887912  2843 net.cpp:148] Top shape: 10 512 14 14 (1003520)
I0727 20:30:32.887917  2843 net.cpp:148] Top shape: 10 512 14 14 (1003520)
I0727 20:30:32.887920  2843 net.cpp:156] Memory required for data: 389616640
I0727 20:30:32.887924  2843 layer_factory.hpp:77] Creating layer inception_4b/1x1
I0727 20:30:32.887933  2848 net.cpp:141] Setting up inception_4a/relu_pool_proj
I0727 20:30:32.887948  2843 net.cpp:91] Creating Layer inception_4b/1x1
I0727 20:30:32.887955  2843 net.cpp:425] inception_4b/1x1 <- inception_4a/output_inception_4a/output_0_split_0
I0727 20:30:32.887954  2848 net.cpp:148] Top shape: 10 64 14 14 (125440)
I0727 20:30:32.887970  2843 net.cpp:399] inception_4b/1x1 -> inception_4b/1x1
I0727 20:30:32.887975  2848 net.cpp:156] Memory required for data: 369546240
I0727 20:30:32.887987  2848 layer_factory.hpp:77] Creating layer inception_4a/output
I0727 20:30:32.888006  2848 net.cpp:91] Creating Layer inception_4a/output
I0727 20:30:32.888015  2848 net.cpp:425] inception_4a/output <- inception_4a/1x1
I0727 20:30:32.888026  2848 net.cpp:425] inception_4a/output <- inception_4a/3x3
I0727 20:30:32.888036  2848 net.cpp:425] inception_4a/output <- inception_4a/5x5
I0727 20:30:32.888043  2848 net.cpp:425] inception_4a/output <- inception_4a/pool_proj
I0727 20:30:32.888054  2848 net.cpp:399] inception_4a/output -> inception_4a/output
I0727 20:30:32.888245  2848 net.cpp:141] Setting up inception_4a/output
I0727 20:30:32.888262  2848 net.cpp:148] Top shape: 10 512 14 14 (1003520)
I0727 20:30:32.888269  2848 net.cpp:156] Memory required for data: 373560320
I0727 20:30:32.888276  2848 layer_factory.hpp:77] Creating layer inception_4a/output_inception_4a/output_0_split
I0727 20:30:32.888295  2848 net.cpp:91] Creating Layer inception_4a/output_inception_4a/output_0_split
I0727 20:30:32.888304  2848 net.cpp:425] inception_4a/output_inception_4a/output_0_split <- inception_4a/output
I0727 20:30:32.888316  2848 net.cpp:399] inception_4a/output_inception_4a/output_0_split -> inception_4a/output_inception_4a/output_0_split_0
I0727 20:30:32.888331  2848 net.cpp:399] inception_4a/output_inception_4a/output_0_split -> inception_4a/output_inception_4a/output_0_split_1
I0727 20:30:32.888346  2848 net.cpp:399] inception_4a/output_inception_4a/output_0_split -> inception_4a/output_inception_4a/output_0_split_2
I0727 20:30:32.888358  2848 net.cpp:399] inception_4a/output_inception_4a/output_0_split -> inception_4a/output_inception_4a/output_0_split_3
I0727 20:30:32.888778  2848 net.cpp:141] Setting up inception_4a/output_inception_4a/output_0_split
I0727 20:30:32.888793  2848 net.cpp:148] Top shape: 10 512 14 14 (1003520)
I0727 20:30:32.888803  2848 net.cpp:148] Top shape: 10 512 14 14 (1003520)
I0727 20:30:32.888811  2848 net.cpp:148] Top shape: 10 512 14 14 (1003520)
I0727 20:30:32.888821  2848 net.cpp:148] Top shape: 10 512 14 14 (1003520)
I0727 20:30:32.888828  2848 net.cpp:156] Memory required for data: 389616640
I0727 20:30:32.888835  2848 layer_factory.hpp:77] Creating layer inception_4b/1x1
I0727 20:30:32.888865  2848 net.cpp:91] Creating Layer inception_4b/1x1
I0727 20:30:32.888875  2848 net.cpp:425] inception_4b/1x1 <- inception_4a/output_inception_4a/output_0_split_0
I0727 20:30:32.888890  2848 net.cpp:399] inception_4b/1x1 -> inception_4b/1x1
I0727 20:30:32.894268  2843 net.cpp:141] Setting up inception_4b/1x1
I0727 20:30:32.894289  2843 net.cpp:148] Top shape: 10 160 14 14 (313600)
I0727 20:30:32.894294  2843 net.cpp:156] Memory required for data: 390871040
I0727 20:30:32.894302  2843 layer_factory.hpp:77] Creating layer inception_4b/relu_1x1
I0727 20:30:32.894325  2843 net.cpp:91] Creating Layer inception_4b/relu_1x1
I0727 20:30:32.894331  2843 net.cpp:425] inception_4b/relu_1x1 <- inception_4b/1x1
I0727 20:30:32.894340  2843 net.cpp:386] inception_4b/relu_1x1 -> inception_4b/1x1 (in-place)
I0727 20:30:32.894764  2843 net.cpp:141] Setting up inception_4b/relu_1x1
I0727 20:30:32.894778  2843 net.cpp:148] Top shape: 10 160 14 14 (313600)
I0727 20:30:32.894783  2843 net.cpp:156] Memory required for data: 392125440
I0727 20:30:32.894788  2843 layer_factory.hpp:77] Creating layer inception_4b/3x3_reduce
I0727 20:30:32.894814  2843 net.cpp:91] Creating Layer inception_4b/3x3_reduce
I0727 20:30:32.894820  2843 net.cpp:425] inception_4b/3x3_reduce <- inception_4a/output_inception_4a/output_0_split_1
I0727 20:30:32.894841  2843 net.cpp:399] inception_4b/3x3_reduce -> inception_4b/3x3_reduce
I0727 20:30:32.895227  2848 net.cpp:141] Setting up inception_4b/1x1
I0727 20:30:32.895256  2848 net.cpp:148] Top shape: 10 160 14 14 (313600)
I0727 20:30:32.895265  2848 net.cpp:156] Memory required for data: 390871040
I0727 20:30:32.895280  2848 layer_factory.hpp:77] Creating layer inception_4b/relu_1x1
I0727 20:30:32.895297  2848 net.cpp:91] Creating Layer inception_4b/relu_1x1
I0727 20:30:32.895306  2848 net.cpp:425] inception_4b/relu_1x1 <- inception_4b/1x1
I0727 20:30:32.895323  2848 net.cpp:386] inception_4b/relu_1x1 -> inception_4b/1x1 (in-place)
I0727 20:30:32.895833  2848 net.cpp:141] Setting up inception_4b/relu_1x1
I0727 20:30:32.895855  2848 net.cpp:148] Top shape: 10 160 14 14 (313600)
I0727 20:30:32.895862  2848 net.cpp:156] Memory required for data: 392125440
I0727 20:30:32.895870  2848 layer_factory.hpp:77] Creating layer inception_4b/3x3_reduce
I0727 20:30:32.895892  2848 net.cpp:91] Creating Layer inception_4b/3x3_reduce
I0727 20:30:32.895901  2848 net.cpp:425] inception_4b/3x3_reduce <- inception_4a/output_inception_4a/output_0_split_1
I0727 20:30:32.895916  2848 net.cpp:399] inception_4b/3x3_reduce -> inception_4b/3x3_reduce
I0727 20:30:32.900372  2843 net.cpp:141] Setting up inception_4b/3x3_reduce
I0727 20:30:32.900393  2843 net.cpp:148] Top shape: 10 112 14 14 (219520)
I0727 20:30:32.900398  2843 net.cpp:156] Memory required for data: 393003520
I0727 20:30:32.900408  2843 layer_factory.hpp:77] Creating layer inception_4b/relu_3x3_reduce
I0727 20:30:32.900418  2843 net.cpp:91] Creating Layer inception_4b/relu_3x3_reduce
I0727 20:30:32.900425  2843 net.cpp:425] inception_4b/relu_3x3_reduce <- inception_4b/3x3_reduce
I0727 20:30:32.900447  2843 net.cpp:386] inception_4b/relu_3x3_reduce -> inception_4b/3x3_reduce (in-place)
I0727 20:30:32.900776  2843 net.cpp:141] Setting up inception_4b/relu_3x3_reduce
I0727 20:30:32.900789  2843 net.cpp:148] Top shape: 10 112 14 14 (219520)
I0727 20:30:32.900794  2843 net.cpp:156] Memory required for data: 393881600
I0727 20:30:32.900799  2843 layer_factory.hpp:77] Creating layer inception_4b/3x3
I0727 20:30:32.900813  2843 net.cpp:91] Creating Layer inception_4b/3x3
I0727 20:30:32.900820  2843 net.cpp:425] inception_4b/3x3 <- inception_4b/3x3_reduce
I0727 20:30:32.900830  2843 net.cpp:399] inception_4b/3x3 -> inception_4b/3x3
I0727 20:30:32.904125  2848 net.cpp:141] Setting up inception_4b/3x3_reduce
I0727 20:30:32.904160  2848 net.cpp:148] Top shape: 10 112 14 14 (219520)
I0727 20:30:32.904168  2848 net.cpp:156] Memory required for data: 393003520
I0727 20:30:32.904184  2848 layer_factory.hpp:77] Creating layer inception_4b/relu_3x3_reduce
I0727 20:30:32.904202  2848 net.cpp:91] Creating Layer inception_4b/relu_3x3_reduce
I0727 20:30:32.904216  2848 net.cpp:425] inception_4b/relu_3x3_reduce <- inception_4b/3x3_reduce
I0727 20:30:32.904227  2848 net.cpp:386] inception_4b/relu_3x3_reduce -> inception_4b/3x3_reduce (in-place)
I0727 20:30:32.904590  2848 net.cpp:141] Setting up inception_4b/relu_3x3_reduce
I0727 20:30:32.904605  2848 net.cpp:148] Top shape: 10 112 14 14 (219520)
I0727 20:30:32.904613  2848 net.cpp:156] Memory required for data: 393881600
I0727 20:30:32.904620  2848 layer_factory.hpp:77] Creating layer inception_4b/3x3
I0727 20:30:32.904647  2848 net.cpp:91] Creating Layer inception_4b/3x3
I0727 20:30:32.904656  2848 net.cpp:425] inception_4b/3x3 <- inception_4b/3x3_reduce
I0727 20:30:32.904670  2848 net.cpp:399] inception_4b/3x3 -> inception_4b/3x3
I0727 20:30:32.910377  2843 net.cpp:141] Setting up inception_4b/3x3
I0727 20:30:32.910398  2843 net.cpp:148] Top shape: 10 224 14 14 (439040)
I0727 20:30:32.910404  2843 net.cpp:156] Memory required for data: 395637760
I0727 20:30:32.910413  2843 layer_factory.hpp:77] Creating layer inception_4b/relu_3x3
I0727 20:30:32.910425  2843 net.cpp:91] Creating Layer inception_4b/relu_3x3
I0727 20:30:32.910431  2843 net.cpp:425] inception_4b/relu_3x3 <- inception_4b/3x3
I0727 20:30:32.910439  2843 net.cpp:386] inception_4b/relu_3x3 -> inception_4b/3x3 (in-place)
I0727 20:30:32.911970  2843 net.cpp:141] Setting up inception_4b/relu_3x3
I0727 20:30:32.911986  2843 net.cpp:148] Top shape: 10 224 14 14 (439040)
I0727 20:30:32.911991  2843 net.cpp:156] Memory required for data: 397393920
I0727 20:30:32.912010  2843 layer_factory.hpp:77] Creating layer inception_4b/5x5_reduce
I0727 20:30:32.912050  2843 net.cpp:91] Creating Layer inception_4b/5x5_reduce
I0727 20:30:32.912057  2843 net.cpp:425] inception_4b/5x5_reduce <- inception_4a/output_inception_4a/output_0_split_2
I0727 20:30:32.912070  2843 net.cpp:399] inception_4b/5x5_reduce -> inception_4b/5x5_reduce
I0727 20:30:32.915995  2848 net.cpp:141] Setting up inception_4b/3x3
I0727 20:30:32.916074  2848 net.cpp:148] Top shape: 10 224 14 14 (439040)
I0727 20:30:32.916085  2848 net.cpp:156] Memory required for data: 395637760
I0727 20:30:32.916111  2848 layer_factory.hpp:77] Creating layer inception_4b/relu_3x3
I0727 20:30:32.916136  2848 net.cpp:91] Creating Layer inception_4b/relu_3x3
I0727 20:30:32.916148  2848 net.cpp:425] inception_4b/relu_3x3 <- inception_4b/3x3
I0727 20:30:32.916165  2848 net.cpp:386] inception_4b/relu_3x3 -> inception_4b/3x3 (in-place)
I0727 20:30:32.917635  2848 net.cpp:141] Setting up inception_4b/relu_3x3
I0727 20:30:32.917670  2848 net.cpp:148] Top shape: 10 224 14 14 (439040)
I0727 20:30:32.917678  2848 net.cpp:156] Memory required for data: 397393920
I0727 20:30:32.917686  2848 layer_factory.hpp:77] Creating layer inception_4b/5x5_reduce
I0727 20:30:32.917726  2848 net.cpp:91] Creating Layer inception_4b/5x5_reduce
I0727 20:30:32.917739  2848 net.cpp:425] inception_4b/5x5_reduce <- inception_4a/output_inception_4a/output_0_split_2
I0727 20:30:32.917757  2848 net.cpp:399] inception_4b/5x5_reduce -> inception_4b/5x5_reduce
I0727 20:30:32.918946  2843 net.cpp:141] Setting up inception_4b/5x5_reduce
I0727 20:30:32.918967  2843 net.cpp:148] Top shape: 10 24 14 14 (47040)
I0727 20:30:32.918974  2843 net.cpp:156] Memory required for data: 397582080
I0727 20:30:32.918993  2843 layer_factory.hpp:77] Creating layer inception_4b/relu_5x5_reduce
I0727 20:30:32.919011  2843 net.cpp:91] Creating Layer inception_4b/relu_5x5_reduce
I0727 20:30:32.919023  2843 net.cpp:425] inception_4b/relu_5x5_reduce <- inception_4b/5x5_reduce
I0727 20:30:32.919036  2843 net.cpp:386] inception_4b/relu_5x5_reduce -> inception_4b/5x5_reduce (in-place)
I0727 20:30:32.919430  2843 net.cpp:141] Setting up inception_4b/relu_5x5_reduce
I0727 20:30:32.919450  2843 net.cpp:148] Top shape: 10 24 14 14 (47040)
I0727 20:30:32.919461  2843 net.cpp:156] Memory required for data: 397770240
I0727 20:30:32.919468  2843 layer_factory.hpp:77] Creating layer inception_4b/5x5
I0727 20:30:32.919495  2843 net.cpp:91] Creating Layer inception_4b/5x5
I0727 20:30:32.919507  2843 net.cpp:425] inception_4b/5x5 <- inception_4b/5x5_reduce
I0727 20:30:32.919523  2843 net.cpp:399] inception_4b/5x5 -> inception_4b/5x5
I0727 20:30:32.923534  2848 net.cpp:141] Setting up inception_4b/5x5_reduce
I0727 20:30:32.923571  2848 net.cpp:148] Top shape: 10 24 14 14 (47040)
I0727 20:30:32.923579  2848 net.cpp:156] Memory required for data: 397582080
I0727 20:30:32.923596  2848 layer_factory.hpp:77] Creating layer inception_4b/relu_5x5_reduce
I0727 20:30:32.923612  2848 net.cpp:91] Creating Layer inception_4b/relu_5x5_reduce
I0727 20:30:32.923622  2848 net.cpp:425] inception_4b/relu_5x5_reduce <- inception_4b/5x5_reduce
I0727 20:30:32.923635  2848 net.cpp:386] inception_4b/relu_5x5_reduce -> inception_4b/5x5_reduce (in-place)
I0727 20:30:32.924062  2848 net.cpp:141] Setting up inception_4b/relu_5x5_reduce
I0727 20:30:32.924083  2848 net.cpp:148] Top shape: 10 24 14 14 (47040)
I0727 20:30:32.924091  2848 net.cpp:156] Memory required for data: 397770240
I0727 20:30:32.924099  2848 layer_factory.hpp:77] Creating layer inception_4b/5x5
I0727 20:30:32.924124  2848 net.cpp:91] Creating Layer inception_4b/5x5
I0727 20:30:32.924134  2848 net.cpp:425] inception_4b/5x5 <- inception_4b/5x5_reduce
I0727 20:30:32.924149  2848 net.cpp:399] inception_4b/5x5 -> inception_4b/5x5
I0727 20:30:32.927897  2843 net.cpp:141] Setting up inception_4b/5x5
I0727 20:30:32.927933  2843 net.cpp:148] Top shape: 10 64 14 14 (125440)
I0727 20:30:32.927940  2843 net.cpp:156] Memory required for data: 398272000
I0727 20:30:32.927954  2843 layer_factory.hpp:77] Creating layer inception_4b/relu_5x5
I0727 20:30:32.927980  2843 net.cpp:91] Creating Layer inception_4b/relu_5x5
I0727 20:30:32.927989  2843 net.cpp:425] inception_4b/relu_5x5 <- inception_4b/5x5
I0727 20:30:32.928005  2843 net.cpp:386] inception_4b/relu_5x5 -> inception_4b/5x5 (in-place)
I0727 20:30:32.928457  2843 net.cpp:141] Setting up inception_4b/relu_5x5
I0727 20:30:32.928474  2843 net.cpp:148] Top shape: 10 64 14 14 (125440)
I0727 20:30:32.928483  2843 net.cpp:156] Memory required for data: 398773760
I0727 20:30:32.928494  2843 layer_factory.hpp:77] Creating layer inception_4b/pool
I0727 20:30:32.928513  2843 net.cpp:91] Creating Layer inception_4b/pool
I0727 20:30:32.928522  2843 net.cpp:425] inception_4b/pool <- inception_4a/output_inception_4a/output_0_split_3
I0727 20:30:32.928536  2843 net.cpp:399] inception_4b/pool -> inception_4b/pool
I0727 20:30:32.929306  2843 net.cpp:141] Setting up inception_4b/pool
I0727 20:30:32.929327  2843 net.cpp:148] Top shape: 10 512 14 14 (1003520)
I0727 20:30:32.929335  2843 net.cpp:156] Memory required for data: 402787840
I0727 20:30:32.929343  2843 layer_factory.hpp:77] Creating layer inception_4b/pool_proj
I0727 20:30:32.929366  2843 net.cpp:91] Creating Layer inception_4b/pool_proj
I0727 20:30:32.929378  2843 net.cpp:425] inception_4b/pool_proj <- inception_4b/pool
I0727 20:30:32.929404  2843 net.cpp:399] inception_4b/pool_proj -> inception_4b/pool_proj
I0727 20:30:32.931450  2848 net.cpp:141] Setting up inception_4b/5x5
I0727 20:30:32.931475  2848 net.cpp:148] Top shape: 10 64 14 14 (125440)
I0727 20:30:32.931484  2848 net.cpp:156] Memory required for data: 398272000
I0727 20:30:32.931504  2848 layer_factory.hpp:77] Creating layer inception_4b/relu_5x5
I0727 20:30:32.931519  2848 net.cpp:91] Creating Layer inception_4b/relu_5x5
I0727 20:30:32.931529  2848 net.cpp:425] inception_4b/relu_5x5 <- inception_4b/5x5
I0727 20:30:32.931546  2848 net.cpp:386] inception_4b/relu_5x5 -> inception_4b/5x5 (in-place)
I0727 20:30:32.931924  2848 net.cpp:141] Setting up inception_4b/relu_5x5
I0727 20:30:32.931944  2848 net.cpp:148] Top shape: 10 64 14 14 (125440)
I0727 20:30:32.931951  2848 net.cpp:156] Memory required for data: 398773760
I0727 20:30:32.931959  2848 layer_factory.hpp:77] Creating layer inception_4b/pool
I0727 20:30:32.931974  2848 net.cpp:91] Creating Layer inception_4b/pool
I0727 20:30:32.931984  2848 net.cpp:425] inception_4b/pool <- inception_4a/output_inception_4a/output_0_split_3
I0727 20:30:32.931996  2848 net.cpp:399] inception_4b/pool -> inception_4b/pool
I0727 20:30:32.932626  2848 net.cpp:141] Setting up inception_4b/pool
I0727 20:30:32.932649  2848 net.cpp:148] Top shape: 10 512 14 14 (1003520)
I0727 20:30:32.932658  2848 net.cpp:156] Memory required for data: 402787840
I0727 20:30:32.932667  2848 layer_factory.hpp:77] Creating layer inception_4b/pool_proj
I0727 20:30:32.932687  2848 net.cpp:91] Creating Layer inception_4b/pool_proj
I0727 20:30:32.932698  2848 net.cpp:425] inception_4b/pool_proj <- inception_4b/pool
I0727 20:30:32.932725  2848 net.cpp:399] inception_4b/pool_proj -> inception_4b/pool_proj
I0727 20:30:32.934748  2843 net.cpp:141] Setting up inception_4b/pool_proj
I0727 20:30:32.934772  2843 net.cpp:148] Top shape: 10 64 14 14 (125440)
I0727 20:30:32.934779  2843 net.cpp:156] Memory required for data: 403289600
I0727 20:30:32.934794  2843 layer_factory.hpp:77] Creating layer inception_4b/relu_pool_proj
I0727 20:30:32.934823  2843 net.cpp:91] Creating Layer inception_4b/relu_pool_proj
I0727 20:30:32.934834  2843 net.cpp:425] inception_4b/relu_pool_proj <- inception_4b/pool_proj
I0727 20:30:32.934847  2843 net.cpp:386] inception_4b/relu_pool_proj -> inception_4b/pool_proj (in-place)
I0727 20:30:32.935937  2843 net.cpp:141] Setting up inception_4b/relu_pool_proj
I0727 20:30:32.935958  2843 net.cpp:148] Top shape: 10 64 14 14 (125440)
I0727 20:30:32.935966  2843 net.cpp:156] Memory required for data: 403791360
I0727 20:30:32.935977  2843 layer_factory.hpp:77] Creating layer inception_4b/output
I0727 20:30:32.935993  2843 net.cpp:91] Creating Layer inception_4b/output
I0727 20:30:32.936003  2843 net.cpp:425] inception_4b/output <- inception_4b/1x1
I0727 20:30:32.936013  2843 net.cpp:425] inception_4b/output <- inception_4b/3x3
I0727 20:30:32.936023  2843 net.cpp:425] inception_4b/output <- inception_4b/5x5
I0727 20:30:32.936033  2843 net.cpp:425] inception_4b/output <- inception_4b/pool_proj
I0727 20:30:32.936043  2843 net.cpp:399] inception_4b/output -> inception_4b/output
I0727 20:30:32.936655  2843 net.cpp:141] Setting up inception_4b/output
I0727 20:30:32.936679  2843 net.cpp:148] Top shape: 10 512 14 14 (1003520)
I0727 20:30:32.936687  2843 net.cpp:156] Memory required for data: 407805440
I0727 20:30:32.936697  2843 layer_factory.hpp:77] Creating layer inception_4b/output_inception_4b/output_0_split
I0727 20:30:32.936710  2843 net.cpp:91] Creating Layer inception_4b/output_inception_4b/output_0_split
I0727 20:30:32.936719  2843 net.cpp:425] inception_4b/output_inception_4b/output_0_split <- inception_4b/output
I0727 20:30:32.936731  2843 net.cpp:399] inception_4b/output_inception_4b/output_0_split -> inception_4b/output_inception_4b/output_0_split_0
I0727 20:30:32.936748  2843 net.cpp:399] inception_4b/output_inception_4b/output_0_split -> inception_4b/output_inception_4b/output_0_split_1
I0727 20:30:32.936767  2843 net.cpp:399] inception_4b/output_inception_4b/output_0_split -> inception_4b/output_inception_4b/output_0_split_2
I0727 20:30:32.936784  2843 net.cpp:399] inception_4b/output_inception_4b/output_0_split -> inception_4b/output_inception_4b/output_0_split_3
I0727 20:30:32.938112  2843 net.cpp:141] Setting up inception_4b/output_inception_4b/output_0_split
I0727 20:30:32.938141  2843 net.cpp:148] Top shape: 10 512 14 14 (1003520)
I0727 20:30:32.938154  2843 net.cpp:148] Top shape: 10 512 14 14 (1003520)
I0727 20:30:32.938164  2843 net.cpp:148] Top shape: 10 512 14 14 (1003520)
I0727 20:30:32.938175  2843 net.cpp:148] Top shape: 10 512 14 14 (1003520)
I0727 20:30:32.938184  2843 net.cpp:156] Memory required for data: 423861760
I0727 20:30:32.938192  2843 layer_factory.hpp:77] Creating layer inception_4c/1x1
I0727 20:30:32.938220  2843 net.cpp:91] Creating Layer inception_4c/1x1
I0727 20:30:32.938233  2843 net.cpp:425] inception_4c/1x1 <- inception_4b/output_inception_4b/output_0_split_0
I0727 20:30:32.938251  2843 net.cpp:399] inception_4c/1x1 -> inception_4c/1x1
I0727 20:30:32.939241  2848 net.cpp:141] Setting up inception_4b/pool_proj
I0727 20:30:32.939259  2848 net.cpp:148] Top shape: 10 64 14 14 (125440)
I0727 20:30:32.939263  2848 net.cpp:156] Memory required for data: 403289600
I0727 20:30:32.939273  2848 layer_factory.hpp:77] Creating layer inception_4b/relu_pool_proj
I0727 20:30:32.939283  2848 net.cpp:91] Creating Layer inception_4b/relu_pool_proj
I0727 20:30:32.939291  2848 net.cpp:425] inception_4b/relu_pool_proj <- inception_4b/pool_proj
I0727 20:30:32.939297  2848 net.cpp:386] inception_4b/relu_pool_proj -> inception_4b/pool_proj (in-place)
I0727 20:30:32.940361  2848 net.cpp:141] Setting up inception_4b/relu_pool_proj
I0727 20:30:32.940381  2848 net.cpp:148] Top shape: 10 64 14 14 (125440)
I0727 20:30:32.940385  2848 net.cpp:156] Memory required for data: 403791360
I0727 20:30:32.940392  2848 layer_factory.hpp:77] Creating layer inception_4b/output
…
I0727 20:30:33.062628  2843 net.cpp:141] Setting up inception_4e/5x5
I0727 20:30:33.062652  2843 net.cpp:148] Top shape: 10 128 14 14 (250880)
I0727 20:30:33.062657  2843 net.cpp:156] Memory required for data: 507153920
I0727 20:30:33.062669  2843 layer_factory.hpp:77] Creating layer inception_4e/relu_5x5
I0727 20:30:33.062696  2843 net.cpp:91] Creating Layer inception_4e/relu_5x5
I0727 20:30:33.062705  2843 net.cpp:425] inception_4e/relu_5x5 <- inception_4e/5x5
I0727 20:30:33.062710  2848 net.cpp:141] Setting up inception_4e/relu_5x5_reduce
I0727 20:30:33.062716  2843 net.cpp:386] inception_4e/relu_5x5 -> inception_4e/5x5 (in-place)
I0727 20:30:33.062731  2848 net.cpp:148] Top shape: 10 32 14 14 (62720)
I0727 20:30:33.062738  2848 net.cpp:156] Memory required for data: 506150400
I0727 20:30:33.062744  2848 layer_factory.hpp:77] Creating layer inception_4e/5x5
I0727 20:30:33.062774  2848 net.cpp:91] Creating Layer inception_4e/5x5
I0727 20:30:33.062783  2848 net.cpp:425] inception_4e/5x5 <- inception_4e/5x5_reduce
I0727 20:30:33.062791  2848 net.cpp:399] inception_4e/5x5 -> inception_4e/5x5
I0727 20:30:33.063158  2843 net.cpp:141] Setting up inception_4e/relu_5x5
I0727 20:30:33.063170  2843 net.cpp:148] Top shape: 10 128 14 14 (250880)
I0727 20:30:33.063174  2843 net.cpp:156] Memory required for data: 508157440
I0727 20:30:33.063180  2843 layer_factory.hpp:77] Creating layer inception_4e/pool
I0727 20:30:33.063194  2843 net.cpp:91] Creating Layer inception_4e/pool
I0727 20:30:33.063201  2843 net.cpp:425] inception_4e/pool <- inception_4d/output_inception_4d/output_0_split_3
I0727 20:30:33.063210  2843 net.cpp:399] inception_4e/pool -> inception_4e/pool
I0727 20:30:33.063530  2843 net.cpp:141] Setting up inception_4e/pool
I0727 20:30:33.063544  2843 net.cpp:148] Top shape: 10 528 14 14 (1034880)
I0727 20:30:33.063549  2843 net.cpp:156] Memory required for data: 512296960
I0727 20:30:33.063554  2843 layer_factory.hpp:77] Creating layer inception_4e/pool_proj
I0727 20:30:33.063573  2843 net.cpp:91] Creating Layer inception_4e/pool_proj
I0727 20:30:33.063580  2843 net.cpp:425] inception_4e/pool_proj <- inception_4e/pool
I0727 20:30:33.063591  2843 net.cpp:399] inception_4e/pool_proj -> inception_4e/pool_proj
I0727 20:30:33.069252  2843 net.cpp:141] Setting up inception_4e/pool_proj
I0727 20:30:33.069272  2843 net.cpp:148] Top shape: 10 128 14 14 (250880)
I0727 20:30:33.069278  2843 net.cpp:156] Memory required for data: 513300480
I0727 20:30:33.069288  2843 layer_factory.hpp:77] Creating layer inception_4e/relu_pool_proj
I0727 20:30:33.069296  2843 net.cpp:91] Creating Layer inception_4e/relu_pool_proj
I0727 20:30:33.069303  2843 net.cpp:425] inception_4e/relu_pool_proj <- inception_4e/pool_proj
I0727 20:30:33.069309  2843 net.cpp:386] inception_4e/relu_pool_proj -> inception_4e/pool_proj (in-place)
I0727 20:30:33.070274  2843 net.cpp:141] Setting up inception_4e/relu_pool_proj
I0727 20:30:33.070269  2848 net.cpp:141] Setting up inception_4e/5x5
I0727 20:30:33.070294  2843 net.cpp:148] Top shape: 10 128 14 14 (250880)
I0727 20:30:33.070313  2843 net.cpp:156] Memory required for data: 514304000
I0727 20:30:33.070317  2848 net.cpp:148] Top shape: 10 128 14 14 (250880)
I0727 20:30:33.070323  2848 net.cpp:156] Memory required for data: 507153920
I0727 20:30:33.070323  2843 layer_factory.hpp:77] Creating layer inception_4e/output
I0727 20:30:33.070339  2848 layer_factory.hpp:77] Creating layer inception_4e/relu_5x5
I0727 20:30:33.070341  2843 net.cpp:91] Creating Layer inception_4e/output
I0727 20:30:33.070354  2843 net.cpp:425] inception_4e/output <- inception_4e/1x1
I0727 20:30:33.070358  2848 net.cpp:91] Creating Layer inception_4e/relu_5x5
I0727 20:30:33.070361  2843 net.cpp:425] inception_4e/output <- inception_4e/3x3
I0727 20:30:33.070366  2848 net.cpp:425] inception_4e/relu_5x5 <- inception_4e/5x5
I0727 20:30:33.070368  2843 net.cpp:425] inception_4e/output <- inception_4e/5x5
I0727 20:30:33.070374  2843 net.cpp:425] inception_4e/output <- inception_4e/pool_proj
I0727 20:30:33.070379  2848 net.cpp:386] inception_4e/relu_5x5 -> inception_4e/5x5 (in-place)
I0727 20:30:33.070384  2843 net.cpp:399] inception_4e/output -> inception_4e/output
I0727 20:30:33.070683  2843 net.cpp:141] Setting up inception_4e/output
I0727 20:30:33.070714  2843 net.cpp:148] Top shape: 10 832 14 14 (1630720)
I0727 20:30:33.070720  2843 net.cpp:156] Memory required for data: 520826880
I0727 20:30:33.070727  2843 layer_factory.hpp:77] Creating layer pool4/3x3_s2
I0727 20:30:33.070740  2843 net.cpp:91] Creating Layer pool4/3x3_s2
I0727 20:30:33.070747  2843 net.cpp:425] pool4/3x3_s2 <- inception_4e/output
I0727 20:30:33.070786  2843 net.cpp:399] pool4/3x3_s2 -> pool4/3x3_s2
I0727 20:30:33.070880  2848 net.cpp:141] Setting up inception_4e/relu_5x5
I0727 20:30:33.070894  2848 net.cpp:148] Top shape: 10 128 14 14 (250880)
I0727 20:30:33.070899  2848 net.cpp:156] Memory required for data: 508157440
I0727 20:30:33.070904  2848 layer_factory.hpp:77] Creating layer inception_4e/pool
I0727 20:30:33.070924  2848 net.cpp:91] Creating Layer inception_4e/pool
I0727 20:30:33.070930  2848 net.cpp:425] inception_4e/pool <- inception_4d/output_inception_4d/output_0_split_3
I0727 20:30:33.070938  2848 net.cpp:399] inception_4e/pool -> inception_4e/pool
I0727 20:30:33.070966  2843 net.cpp:141] Setting up pool4/3x3_s2
I0727 20:30:33.070978  2843 net.cpp:148] Top shape: 10 832 7 7 (407680)
I0727 20:30:33.070983  2843 net.cpp:156] Memory required for data: 522457600
I0727 20:30:33.070987  2843 layer_factory.hpp:77] Creating layer pool4/3x3_s2_pool4/3x3_s2_0_split
I0727 20:30:33.070997  2843 net.cpp:91] Creating Layer pool4/3x3_s2_pool4/3x3_s2_0_split
I0727 20:30:33.071004  2843 net.cpp:425] pool4/3x3_s2_pool4/3x3_s2_0_split <- pool4/3x3_s2
I0727 20:30:33.071015  2843 net.cpp:399] pool4/3x3_s2_pool4/3x3_s2_0_split -> pool4/3x3_s2_pool4/3x3_s2_0_split_0
I0727 20:30:33.071025  2843 net.cpp:399] pool4/3x3_s2_pool4/3x3_s2_0_split -> pool4/3x3_s2_pool4/3x3_s2_0_split_1
I0727 20:30:33.071033  2843 net.cpp:399] pool4/3x3_s2_pool4/3x3_s2_0_split -> pool4/3x3_s2_pool4/3x3_s2_0_split_2
I0727 20:30:33.071040  2843 net.cpp:399] pool4/3x3_s2_pool4/3x3_s2_0_split -> pool4/3x3_s2_pool4/3x3_s2_0_split_3
I0727 20:30:33.071158  2848 net.cpp:141] Setting up inception_4e/pool
I0727 20:30:33.071171  2848 net.cpp:148] Top shape: 10 528 14 14 (1034880)
I0727 20:30:33.071176  2848 net.cpp:156] Memory required for data: 512296960
I0727 20:30:33.071180  2848 layer_factory.hpp:77] Creating layer inception_4e/pool_proj
I0727 20:30:33.071208  2848 net.cpp:91] Creating Layer inception_4e/pool_proj
I0727 20:30:33.071216  2848 net.cpp:425] inception_4e/pool_proj <- inception_4e/pool
I0727 20:30:33.071225  2848 net.cpp:399] inception_4e/pool_proj -> inception_4e/pool_proj
I0727 20:30:33.071465  2843 net.cpp:141] Setting up pool4/3x3_s2_pool4/3x3_s2_0_split
I0727 20:30:33.071477  2843 net.cpp:148] Top shape: 10 832 7 7 (407680)
I0727 20:30:33.071485  2843 net.cpp:148] Top shape: 10 832 7 7 (407680)
I0727 20:30:33.071490  2843 net.cpp:148] Top shape: 10 832 7 7 (407680)
I0727 20:30:33.071496  2843 net.cpp:148] Top shape: 10 832 7 7 (407680)
I0727 20:30:33.071499  2843 net.cpp:156] Memory required for data: 528980480
I0727 20:30:33.071504  2843 layer_factory.hpp:77] Creating layer inception_5a/1x1
I0727 20:30:33.071519  2843 net.cpp:91] Creating Layer inception_5a/1x1
I0727 20:30:33.071526  2843 net.cpp:425] inception_5a/1x1 <- pool4/3x3_s2_pool4/3x3_s2_0_split_0
I0727 20:30:33.071538  2843 net.cpp:399] inception_5a/1x1 -> inception_5a/1x1
I0727 20:30:33.079656  2848 net.cpp:141] Setting up inception_4e/pool_proj
I0727 20:30:33.079699  2848 net.cpp:148] Top shape: 10 128 14 14 (250880)
I0727 20:30:33.079711  2848 net.cpp:156] Memory required for data: 513300480
I0727 20:30:33.079732  2848 layer_factory.hpp:77] Creating layer inception_4e/relu_pool_proj
I0727 20:30:33.079756  2848 net.cpp:91] Creating Layer inception_4e/relu_pool_proj
I0727 20:30:33.079771  2848 net.cpp:425] inception_4e/relu_pool_proj <- inception_4e/pool_proj
I0727 20:30:33.079792  2848 net.cpp:386] inception_4e/relu_pool_proj -> inception_4e/pool_proj (in-place)
I0727 20:30:33.079902  2843 net.cpp:141] Setting up inception_5a/1x1
I0727 20:30:33.079924  2843 net.cpp:148] Top shape: 10 256 7 7 (125440)
I0727 20:30:33.079929  2843 net.cpp:156] Memory required for data: 529482240
I0727 20:30:33.079941  2843 layer_factory.hpp:77] Creating layer inception_5a/relu_1x1
I0727 20:30:33.079953  2843 net.cpp:91] Creating Layer inception_5a/relu_1x1
I0727 20:30:33.079960  2843 net.cpp:425] inception_5a/relu_1x1 <- inception_5a/1x1
I0727 20:30:33.079968  2843 net.cpp:386] inception_5a/relu_1x1 -> inception_5a/1x1 (in-place)
I0727 20:30:33.080272  2843 net.cpp:141] Setting up inception_5a/relu_1x1
I0727 20:30:33.080284  2843 net.cpp:148] Top shape: 10 256 7 7 (125440)
I0727 20:30:33.080288  2843 net.cpp:156] Memory required for data: 529984000
I0727 20:30:33.080293  2843 layer_factory.hpp:77] Creating layer inception_5a/3x3_reduce
I0727 20:30:33.080313  2843 net.cpp:91] Creating Layer inception_5a/3x3_reduce
I0727 20:30:33.080319  2843 net.cpp:425] inception_5a/3x3_reduce <- pool4/3x3_s2_pool4/3x3_s2_0_split_1
I0727 20:30:33.080332  2843 net.cpp:399] inception_5a/3x3_reduce -> inception_5a/3x3_reduce
I0727 20:30:33.081532  2848 net.cpp:141] Setting up inception_4e/relu_pool_proj
I0727 20:30:33.081557  2848 net.cpp:148] Top shape: 10 128 14 14 (250880)
I0727 20:30:33.081567  2848 net.cpp:156] Memory required for data: 514304000
I0727 20:30:33.081574  2848 layer_factory.hpp:77] Creating layer inception_4e/output
I0727 20:30:33.081591  2848 net.cpp:91] Creating Layer inception_4e/output
I0727 20:30:33.081601  2848 net.cpp:425] inception_4e/output <- inception_4e/1x1
I0727 20:30:33.081612  2848 net.cpp:425] inception_4e/output <- inception_4e/3x3
I0727 20:30:33.081622  2848 net.cpp:425] inception_4e/output <- inception_4e/5x5
I0727 20:30:33.081632  2848 net.cpp:425] inception_4e/output <- inception_4e/pool_proj
I0727 20:30:33.081650  2848 net.cpp:399] inception_4e/output -> inception_4e/output
I0727 20:30:33.082906  2848 net.cpp:141] Setting up inception_4e/output
I0727 20:30:33.082927  2848 net.cpp:148] Top shape: 10 832 14 14 (1630720)
I0727 20:30:33.082936  2848 net.cpp:156] Memory required for data: 520826880
I0727 20:30:33.082944  2848 layer_factory.hpp:77] Creating layer pool4/3x3_s2
I0727 20:30:33.082964  2848 net.cpp:91] Creating Layer pool4/3x3_s2
I0727 20:30:33.082974  2848 net.cpp:425] pool4/3x3_s2 <- inception_4e/output
I0727 20:30:33.082986  2848 net.cpp:399] pool4/3x3_s2 -> pool4/3x3_s2
I0727 20:30:33.083636  2848 net.cpp:141] Setting up pool4/3x3_s2
I0727 20:30:33.083657  2848 net.cpp:148] Top shape: 10 832 7 7 (407680)
I0727 20:30:33.083664  2848 net.cpp:156] Memory required for data: 522457600
I0727 20:30:33.083672  2848 layer_factory.hpp:77] Creating layer pool4/3x3_s2_pool4/3x3_s2_0_split
I0727 20:30:33.083684  2848 net.cpp:91] Creating Layer pool4/3x3_s2_pool4/3x3_s2_0_split
I0727 20:30:33.083693  2848 net.cpp:425] pool4/3x3_s2_pool4/3x3_s2_0_split <- pool4/3x3_s2
I0727 20:30:33.083709  2848 net.cpp:399] pool4/3x3_s2_pool4/3x3_s2_0_split -> pool4/3x3_s2_pool4/3x3_s2_0_split_0
I0727 20:30:33.083724  2848 net.cpp:399] pool4/3x3_s2_pool4/3x3_s2_0_split -> pool4/3x3_s2_pool4/3x3_s2_0_split_1
I0727 20:30:33.083737  2848 net.cpp:399] pool4/3x3_s2_pool4/3x3_s2_0_split -> pool4/3x3_s2_pool4/3x3_s2_0_split_2
I0727 20:30:33.083750  2848 net.cpp:399] pool4/3x3_s2_pool4/3x3_s2_0_split -> pool4/3x3_s2_pool4/3x3_s2_0_split_3
I0727 20:30:33.084065  2848 net.cpp:141] Setting up pool4/3x3_s2_pool4/3x3_s2_0_split
I0727 20:30:33.084084  2848 net.cpp:148] Top shape: 10 832 7 7 (407680)
I0727 20:30:33.084095  2848 net.cpp:148] Top shape: 10 832 7 7 (407680)
I0727 20:30:33.084105  2848 net.cpp:148] Top shape: 10 832 7 7 (407680)
I0727 20:30:33.084113  2848 net.cpp:148] Top shape: 10 832 7 7 (407680)
I0727 20:30:33.084120  2848 net.cpp:156] Memory required for data: 528980480
I0727 20:30:33.084131  2848 layer_factory.hpp:77] Creating layer inception_5a/1x1
I0727 20:30:33.084158  2848 net.cpp:91] Creating Layer inception_5a/1x1
I0727 20:30:33.084170  2848 net.cpp:425] inception_5a/1x1 <- pool4/3x3_s2_pool4/3x3_s2_0_split_0
I0727 20:30:33.084194  2848 net.cpp:399] inception_5a/1x1 -> inception_5a/1x1
I0727 20:30:33.089506  2843 net.cpp:141] Setting up inception_5a/3x3_reduce
I0727 20:30:33.089534  2843 net.cpp:148] Top shape: 10 160 7 7 (78400)
I0727 20:30:33.089540  2843 net.cpp:156] Memory required for data: 530297600
I0727 20:30:33.089550  2843 layer_factory.hpp:77] Creating layer inception_5a/relu_3x3_reduce
I0727 20:30:33.089560  2843 net.cpp:91] Creating Layer inception_5a/relu_3x3_reduce
I0727 20:30:33.089566  2843 net.cpp:425] inception_5a/relu_3x3_reduce <- inception_5a/3x3_reduce
I0727 20:30:33.089575  2843 net.cpp:386] inception_5a/relu_3x3_reduce -> inception_5a/3x3_reduce (in-place)
I0727 20:30:33.089843  2843 net.cpp:141] Setting up inception_5a/relu_3x3_reduce
I0727 20:30:33.089854  2843 net.cpp:148] Top shape: 10 160 7 7 (78400)
I0727 20:30:33.089859  2843 net.cpp:156] Memory required for data: 530611200
I0727 20:30:33.089864  2843 layer_factory.hpp:77] Creating layer inception_5a/3x3
I0727 20:30:33.089884  2843 net.cpp:91] Creating Layer inception_5a/3x3
I0727 20:30:33.089890  2843 net.cpp:425] inception_5a/3x3 <- inception_5a/3x3_reduce
I0727 20:30:33.089902  2843 net.cpp:399] inception_5a/3x3 -> inception_5a/3x3
I0727 20:30:33.094843  2848 net.cpp:141] Setting up inception_5a/1x1
I0727 20:30:33.094879  2848 net.cpp:148] Top shape: 10 256 7 7 (125440)
I0727 20:30:33.094885  2848 net.cpp:156] Memory required for data: 529482240
I0727 20:30:33.094897  2848 layer_factory.hpp:77] Creating layer inception_5a/relu_1x1
I0727 20:30:33.094921  2848 net.cpp:91] Creating Layer inception_5a/relu_1x1
I0727 20:30:33.094930  2848 net.cpp:425] inception_5a/relu_1x1 <- inception_5a/1x1
I0727 20:30:33.094941  2848 net.cpp:386] inception_5a/relu_1x1 -> inception_5a/1x1 (in-place)
I0727 20:30:33.095204  2848 net.cpp:141] Setting up inception_5a/relu_1x1
I0727 20:30:33.095216  2848 net.cpp:148] Top shape: 10 256 7 7 (125440)
I0727 20:30:33.095221  2848 net.cpp:156] Memory required for data: 529984000
I0727 20:30:33.095224  2848 layer_factory.hpp:77] Creating layer inception_5a/3x3_reduce
I0727 20:30:33.095242  2848 net.cpp:91] Creating Layer inception_5a/3x3_reduce
I0727 20:30:33.095252  2848 net.cpp:425] inception_5a/3x3_reduce <- pool4/3x3_s2_pool4/3x3_s2_0_split_1
I0727 20:30:33.095260  2848 net.cpp:399] inception_5a/3x3_reduce -> inception_5a/3x3_reduce
I0727 20:30:33.101891  2843 net.cpp:141] Setting up inception_5a/3x3
I0727 20:30:33.101922  2843 net.cpp:148] Top shape: 10 320 7 7 (156800)
I0727 20:30:33.101928  2843 net.cpp:156] Memory required for data: 531238400
I0727 20:30:33.101939  2843 layer_factory.hpp:77] Creating layer inception_5a/relu_3x3
I0727 20:30:33.101955  2843 net.cpp:91] Creating Layer inception_5a/relu_3x3
I0727 20:30:33.101963  2843 net.cpp:425] inception_5a/relu_3x3 <- inception_5a/3x3
I0727 20:30:33.101974  2843 net.cpp:386] inception_5a/relu_3x3 -> inception_5a/3x3 (in-place)
I0727 20:30:33.103042  2843 net.cpp:141] Setting up inception_5a/relu_3x3
I0727 20:30:33.103058  2843 net.cpp:148] Top shape: 10 320 7 7 (156800)
I0727 20:30:33.103063  2843 net.cpp:156] Memory required for data: 531865600
I0727 20:30:33.103068  2843 layer_factory.hpp:77] Creating layer inception_5a/5x5_reduce
I0727 20:30:33.103090  2843 net.cpp:91] Creating Layer inception_5a/5x5_reduce
I0727 20:30:33.103096  2843 net.cpp:425] inception_5a/5x5_reduce <- pool4/3x3_s2_pool4/3x3_s2_0_split_2
I0727 20:30:33.103106  2843 net.cpp:399] inception_5a/5x5_reduce -> inception_5a/5x5_reduce
I0727 20:30:33.103299  2848 net.cpp:141] Setting up inception_5a/3x3_reduce
I0727 20:30:33.103318  2848 net.cpp:148] Top shape: 10 160 7 7 (78400)
I0727 20:30:33.103323  2848 net.cpp:156] Memory required for data: 530297600
I0727 20:30:33.103332  2848 layer_factory.hpp:77] Creating layer inception_5a/relu_3x3_reduce
I0727 20:30:33.103341  2848 net.cpp:91] Creating Layer inception_5a/relu_3x3_reduce
I0727 20:30:33.103348  2848 net.cpp:425] inception_5a/relu_3x3_reduce <- inception_5a/3x3_reduce
I0727 20:30:33.103355  2848 net.cpp:386] inception_5a/relu_3x3_reduce -> inception_5a/3x3_reduce (in-place)
I0727 20:30:33.103863  2848 net.cpp:141] Setting up inception_5a/relu_3x3_reduce
I0727 20:30:33.103878  2848 net.cpp:148] Top shape: 10 160 7 7 (78400)
I0727 20:30:33.103883  2848 net.cpp:156] Memory required for data: 530611200
I0727 20:30:33.103890  2848 layer_factory.hpp:77] Creating layer inception_5a/3x3
I0727 20:30:33.103907  2848 net.cpp:91] Creating Layer inception_5a/3x3
I0727 20:30:33.103914  2848 net.cpp:425] inception_5a/3x3 <- inception_5a/3x3_reduce
I0727 20:30:33.103925  2848 net.cpp:399] inception_5a/3x3 -> inception_5a/3x3
I0727 20:30:33.109706  2843 net.cpp:141] Setting up inception_5a/5x5_reduce
I0727 20:30:33.109731  2843 net.cpp:148] Top shape: 10 32 7 7 (15680)
I0727 20:30:33.109736  2843 net.cpp:156] Memory required for data: 531928320
I0727 20:30:33.109746  2843 layer_factory.hpp:77] Creating layer inception_5a/relu_5x5_reduce
I0727 20:30:33.109756  2843 net.cpp:91] Creating Layer inception_5a/relu_5x5_reduce
I0727 20:30:33.109762  2843 net.cpp:425] inception_5a/relu_5x5_reduce <- inception_5a/5x5_reduce
I0727 20:30:33.109776  2843 net.cpp:386] inception_5a/relu_5x5_reduce -> inception_5a/5x5_reduce (in-place)
I0727 20:30:33.110049  2843 net.cpp:141] Setting up inception_5a/relu_5x5_reduce
I0727 20:30:33.110064  2843 net.cpp:148] Top shape: 10 32 7 7 (15680)
I0727 20:30:33.110067  2843 net.cpp:156] Memory required for data: 531991040
I0727 20:30:33.110074  2843 layer_factory.hpp:77] Creating layer inception_5a/5x5
I0727 20:30:33.110095  2843 net.cpp:91] Creating Layer inception_5a/5x5
I0727 20:30:33.110100  2843 net.cpp:425] inception_5a/5x5 <- inception_5a/5x5_reduce
I0727 20:30:33.110110  2843 net.cpp:399] inception_5a/5x5 -> inception_5a/5x5
I0727 20:30:33.130398  2843 net.cpp:141] Setting up inception_5a/5x5
I0727 20:30:33.130905  2843 net.cpp:148] Top shape: 10 128 7 7 (62720)
I0727 20:30:33.131024  2843 net.cpp:156] Memory required for data: 532241920
I0727 20:30:33.131171  2843 layer_factory.hpp:77] Creating layer inception_5a/relu_5x5
I0727 20:30:33.131311  2843 net.cpp:91] Creating Layer inception_5a/relu_5x5
I0727 20:30:33.131402  2843 net.cpp:425] inception_5a/relu_5x5 <- inception_5a/5x5
I0727 20:30:33.131492  2843 net.cpp:386] inception_5a/relu_5x5 -> inception_5a/5x5 (in-place)
I0727 20:30:33.131701  2848 net.cpp:141] Setting up inception_5a/3x3
I0727 20:30:33.131743  2848 net.cpp:148] Top shape: 10 320 7 7 (156800)
I0727 20:30:33.131749  2848 net.cpp:156] Memory required for data: 531238400
I0727 20:30:33.131762  2848 layer_factory.hpp:77] Creating layer inception_5a/relu_3x3
I0727 20:30:33.131779  2848 net.cpp:91] Creating Layer inception_5a/relu_3x3
I0727 20:30:33.131788  2848 net.cpp:425] inception_5a/relu_3x3 <- inception_5a/3x3
I0727 20:30:33.131798  2848 net.cpp:386] inception_5a/relu_3x3 -> inception_5a/3x3 (in-place)
I0727 20:30:33.131975  2843 net.cpp:141] Setting up inception_5a/relu_5x5
I0727 20:30:33.131994  2843 net.cpp:148] Top shape: 10 128 7 7 (62720)
I0727 20:30:33.132001  2843 net.cpp:156] Memory required for data: 532492800
I0727 20:30:33.132009  2843 layer_factory.hpp:77] Creating layer inception_5a/pool
I0727 20:30:33.132024  2843 net.cpp:91] Creating Layer inception_5a/pool
I0727 20:30:33.132032  2843 net.cpp:425] inception_5a/pool <- pool4/3x3_s2_pool4/3x3_s2_0_split_3
I0727 20:30:33.132043  2843 net.cpp:399] inception_5a/pool -> inception_5a/pool
I0727 20:30:33.132727  2843 net.cpp:141] Setting up inception_5a/pool
I0727 20:30:33.132848  2843 net.cpp:148] Top shape: 10 832 7 7 (407680)
I0727 20:30:33.132849  2848 net.cpp:141] Setting up inception_5a/relu_3x3
I0727 20:30:33.132863  2843 net.cpp:156] Memory required for data: 534123520
I0727 20:30:33.132874  2848 net.cpp:148] Top shape: 10 320 7 7 (156800)
I0727 20:30:33.132879  2848 net.cpp:156] Memory required for data: 531865600
I0727 20:30:33.132887  2848 layer_factory.hpp:77] Creating layer inception_5a/5x5_reduce
I0727 20:30:33.132910  2848 net.cpp:91] Creating Layer inception_5a/5x5_reduce
I0727 20:30:33.132918  2848 net.cpp:425] inception_5a/5x5_reduce <- pool4/3x3_s2_pool4/3x3_s2_0_split_2
I0727 20:30:33.132928  2848 net.cpp:399] inception_5a/5x5_reduce -> inception_5a/5x5_reduce
I0727 20:30:33.132872  2843 layer_factory.hpp:77] Creating layer inception_5a/pool_proj
I0727 20:30:33.133472  2843 net.cpp:91] Creating Layer inception_5a/pool_proj
I0727 20:30:33.133484  2843 net.cpp:425] inception_5a/pool_proj <- inception_5a/pool
I0727 20:30:33.133503  2843 net.cpp:399] inception_5a/pool_proj -> inception_5a/pool_proj
I0727 20:30:33.139032  2848 net.cpp:141] Setting up inception_5a/5x5_reduce
I0727 20:30:33.139053  2848 net.cpp:148] Top shape: 10 32 7 7 (15680)
I0727 20:30:33.139070  2848 net.cpp:156] Memory required for data: 531928320
I0727 20:30:33.139081  2848 layer_factory.hpp:77] Creating layer inception_5a/relu_5x5_reduce
I0727 20:30:33.139108  2848 net.cpp:91] Creating Layer inception_5a/relu_5x5_reduce
I0727 20:30:33.139117  2848 net.cpp:425] inception_5a/relu_5x5_reduce <- inception_5a/5x5_reduce
I0727 20:30:33.139123  2848 net.cpp:386] inception_5a/relu_5x5_reduce -> inception_5a/5x5_reduce (in-place)
I0727 20:30:33.139390  2848 net.cpp:141] Setting up inception_5a/relu_5x5_reduce
I0727 20:30:33.139401  2848 net.cpp:148] Top shape: 10 32 7 7 (15680)
I0727 20:30:33.139405  2848 net.cpp:156] Memory required for data: 531991040
I0727 20:30:33.139411  2848 layer_factory.hpp:77] Creating layer inception_5a/5x5
I0727 20:30:33.139430  2848 net.cpp:91] Creating Layer inception_5a/5x5
I0727 20:30:33.139436  2848 net.cpp:425] inception_5a/5x5 <- inception_5a/5x5_reduce
I0727 20:30:33.139447  2848 net.cpp:399] inception_5a/5x5 -> inception_5a/5x5
I0727 20:30:33.145012  2843 net.cpp:141] Setting up inception_5a/pool_proj
I0727 20:30:33.145063  2843 net.cpp:148] Top shape: 10 128 7 7 (62720)
I0727 20:30:33.145074  2843 net.cpp:156] Memory required for data: 534374400
I0727 20:30:33.145102  2843 layer_factory.hpp:77] Creating layer inception_5a/relu_pool_proj
I0727 20:30:33.145122  2843 net.cpp:91] Creating Layer inception_5a/relu_pool_proj
I0727 20:30:33.145133  2843 net.cpp:425] inception_5a/relu_pool_proj <- inception_5a/pool_proj
I0727 20:30:33.145150  2843 net.cpp:386] inception_5a/relu_pool_proj -> inception_5a/pool_proj (in-place)
I0727 20:30:33.147074  2848 net.cpp:141] Setting up inception_5a/5x5
I0727 20:30:33.147104  2848 net.cpp:148] Top shape: 10 128 7 7 (62720)
I0727 20:30:33.147109  2848 net.cpp:156] Memory required for data: 532241920
I0727 20:30:33.147120  2848 layer_factory.hpp:77] Creating layer inception_5a/relu_5x5
I0727 20:30:33.147162  2848 net.cpp:91] Creating Layer inception_5a/relu_5x5
I0727 20:30:33.147171  2848 net.cpp:425] inception_5a/relu_5x5 <- inception_5a/5x5
I0727 20:30:33.147179  2848 net.cpp:386] inception_5a/relu_5x5 -> inception_5a/5x5 (in-place)
I0727 20:30:33.147200  2843 net.cpp:141] Setting up inception_5a/relu_pool_proj
I0727 20:30:33.147243  2843 net.cpp:148] Top shape: 10 128 7 7 (62720)
I0727 20:30:33.147259  2843 net.cpp:156] Memory required for data: 534625280
I0727 20:30:33.147276  2843 layer_factory.hpp:77] Creating layer inception_5a/output
I0727 20:30:33.147301  2843 net.cpp:91] Creating Layer inception_5a/output
I0727 20:30:33.147322  2843 net.cpp:425] inception_5a/output <- inception_5a/1x1
I0727 20:30:33.147343  2843 net.cpp:425] inception_5a/output <- inception_5a/3x3
I0727 20:30:33.147362  2843 net.cpp:425] inception_5a/output <- inception_5a/5x5
I0727 20:30:33.147382  2843 net.cpp:425] inception_5a/output <- inception_5a/pool_proj
I0727 20:30:33.147410  2843 net.cpp:399] inception_5a/output -> inception_5a/output
I0727 20:30:33.147482  2848 net.cpp:141] Setting up inception_5a/relu_5x5
I0727 20:30:33.147495  2848 net.cpp:148] Top shape: 10 128 7 7 (62720)
I0727 20:30:33.147498  2848 net.cpp:156] Memory required for data: 532492800
I0727 20:30:33.147505  2848 layer_factory.hpp:77] Creating layer inception_5a/pool
I0727 20:30:33.147517  2848 net.cpp:91] Creating Layer inception_5a/pool
I0727 20:30:33.147523  2848 net.cpp:425] inception_5a/pool <- pool4/3x3_s2_pool4/3x3_s2_0_split_3
I0727 20:30:33.147531  2848 net.cpp:399] inception_5a/pool -> inception_5a/pool
I0727 20:30:33.147727  2843 net.cpp:141] Setting up inception_5a/output
I0727 20:30:33.147755  2843 net.cpp:148] Top shape: 10 832 7 7 (407680)
I0727 20:30:33.147769  2843 net.cpp:156] Memory required for data: 536256000
I0727 20:30:33.147783  2843 layer_factory.hpp:77] Creating layer inception_5a/output_inception_5a/output_0_split
I0727 20:30:33.147812  2843 net.cpp:91] Creating Layer inception_5a/output_inception_5a/output_0_split
I0727 20:30:33.147819  2848 net.cpp:141] Setting up inception_5a/pool
I0727 20:30:33.147825  2843 net.cpp:425] inception_5a/output_inception_5a/output_0_split <- inception_5a/output
I0727 20:30:33.147832  2848 net.cpp:148] Top shape: 10 832 7 7 (407680)
I0727 20:30:33.147837  2848 net.cpp:156] Memory required for data: 534123520
I0727 20:30:33.147840  2843 net.cpp:399] inception_5a/output_inception_5a/output_0_split -> inception_5a/output_inception_5a/output_0_split_0
I0727 20:30:33.147843  2848 layer_factory.hpp:77] Creating layer inception_5a/pool_proj
I0727 20:30:33.147864  2843 net.cpp:399] inception_5a/output_inception_5a/output_0_split -> inception_5a/output_inception_5a/output_0_split_1
I0727 20:30:33.147882  2843 net.cpp:399] inception_5a/output_inception_5a/output_0_split -> inception_5a/output_inception_5a/output_0_split_2
I0727 20:30:33.147884  2848 net.cpp:91] Creating Layer inception_5a/pool_proj
I0727 20:30:33.147893  2848 net.cpp:425] inception_5a/pool_proj <- inception_5a/pool
I0727 20:30:33.147897  2843 net.cpp:399] inception_5a/output_inception_5a/output_0_split -> inception_5a/output_inception_5a/output_0_split_3
I0727 20:30:33.147902  2848 net.cpp:399] inception_5a/pool_proj -> inception_5a/pool_proj
I0727 20:30:33.148669  2843 net.cpp:141] Setting up inception_5a/output_inception_5a/output_0_split
I0727 20:30:33.148689  2843 net.cpp:148] Top shape: 10 832 7 7 (407680)
I0727 20:30:33.148699  2843 net.cpp:148] Top shape: 10 832 7 7 (407680)
I0727 20:30:33.148707  2843 net.cpp:148] Top shape: 10 832 7 7 (407680)
I0727 20:30:33.148716  2843 net.cpp:148] Top shape: 10 832 7 7 (407680)
I0727 20:30:33.148722  2843 net.cpp:156] Memory required for data: 542778880
I0727 20:30:33.148732  2843 layer_factory.hpp:77] Creating layer inception_5b/1x1
I0727 20:30:33.148772  2843 net.cpp:91] Creating Layer inception_5b/1x1
I0727 20:30:33.148782  2843 net.cpp:425] inception_5b/1x1 <- inception_5a/output_inception_5a/output_0_split_0
I0727 20:30:33.148795  2843 net.cpp:399] inception_5b/1x1 -> inception_5b/1x1
I0727 20:30:33.156931  2848 net.cpp:141] Setting up inception_5a/pool_proj
I0727 20:30:33.156961  2848 net.cpp:148] Top shape: 10 128 7 7 (62720)
I0727 20:30:33.156966  2848 net.cpp:156] Memory required for data: 534374400
I0727 20:30:33.156976  2848 layer_factory.hpp:77] Creating layer inception_5a/relu_pool_proj
I0727 20:30:33.156987  2848 net.cpp:91] Creating Layer inception_5a/relu_pool_proj
I0727 20:30:33.156994  2848 net.cpp:425] inception_5a/relu_pool_proj <- inception_5a/pool_proj
I0727 20:30:33.157006  2848 net.cpp:386] inception_5a/relu_pool_proj -> inception_5a/pool_proj (in-place)
I0727 20:30:33.157768  2848 net.cpp:141] Setting up inception_5a/relu_pool_proj
I0727 20:30:33.157783  2848 net.cpp:148] Top shape: 10 128 7 7 (62720)
I0727 20:30:33.157788  2848 net.cpp:156] Memory required for data: 534625280
I0727 20:30:33.157793  2848 layer_factory.hpp:77] Creating layer inception_5a/output
I0727 20:30:33.157806  2848 net.cpp:91] Creating Layer inception_5a/output
I0727 20:30:33.157812  2848 net.cpp:425] inception_5a/output <- inception_5a/1x1
I0727 20:30:33.157819  2848 net.cpp:425] inception_5a/output <- inception_5a/3x3
I0727 20:30:33.157825  2848 net.cpp:425] inception_5a/output <- inception_5a/5x5
I0727 20:30:33.157831  2848 net.cpp:425] inception_5a/output <- inception_5a/pool_proj
I0727 20:30:33.157837  2848 net.cpp:399] inception_5a/output -> inception_5a/output
I0727 20:30:33.157927  2848 net.cpp:141] Setting up inception_5a/output
I0727 20:30:33.157938  2848 net.cpp:148] Top shape: 10 832 7 7 (407680)
I0727 20:30:33.157941  2848 net.cpp:156] Memory required for data: 536256000
I0727 20:30:33.157945  2848 layer_factory.hpp:77] Creating layer inception_5a/output_inception_5a/output_0_split
I0727 20:30:33.157956  2848 net.cpp:91] Creating Layer inception_5a/output_inception_5a/output_0_split
I0727 20:30:33.157961  2848 net.cpp:425] inception_5a/output_inception_5a/output_0_split <- inception_5a/output
I0727 20:30:33.157968  2848 net.cpp:399] inception_5a/output_inception_5a/output_0_split -> inception_5a/output_inception_5a/output_0_split_0
I0727 20:30:33.157977  2848 net.cpp:399] inception_5a/output_inception_5a/output_0_split -> inception_5a/output_inception_5a/output_0_split_1
I0727 20:30:33.157986  2848 net.cpp:399] inception_5a/output_inception_5a/output_0_split -> inception_5a/output_inception_5a/output_0_split_2
I0727 20:30:33.157994  2848 net.cpp:399] inception_5a/output_inception_5a/output_0_split -> inception_5a/output_inception_5a/output_0_split_3
I0727 20:30:33.158490  2848 net.cpp:141] Setting up inception_5a/output_inception_5a/output_0_split
I0727 20:30:33.158501  2848 net.cpp:148] Top shape: 10 832 7 7 (407680)
I0727 20:30:33.158507  2848 net.cpp:148] Top shape: 10 832 7 7 (407680)
I0727 20:30:33.158512  2848 net.cpp:148] Top shape: 10 832 7 7 (407680)
I0727 20:30:33.158517  2848 net.cpp:148] Top shape: 10 832 7 7 (407680)
I0727 20:30:33.158521  2848 net.cpp:156] Memory required for data: 542778880
I0727 20:30:33.158527  2848 layer_factory.hpp:77] Creating layer inception_5b/1x1
I0727 20:30:33.158547  2848 net.cpp:91] Creating Layer inception_5b/1x1
I0727 20:30:33.158555  2848 net.cpp:425] inception_5b/1x1 <- inception_5a/output_inception_5a/output_0_split_0
I0727 20:30:33.158563  2848 net.cpp:399] inception_5b/1x1 -> inception_5b/1x1
I0727 20:30:33.164604  2843 net.cpp:141] Setting up inception_5b/1x1
I0727 20:30:33.164640  2843 net.cpp:148] Top shape: 10 384 7 7 (188160)
I0727 20:30:33.164646  2843 net.cpp:156] Memory required for data: 543531520
I0727 20:30:33.164660  2843 layer_factory.hpp:77] Creating layer inception_5b/relu_1x1
I0727 20:30:33.164674  2843 net.cpp:91] Creating Layer inception_5b/relu_1x1
I0727 20:30:33.164681  2843 net.cpp:425] inception_5b/relu_1x1 <- inception_5b/1x1
I0727 20:30:33.164691  2843 net.cpp:386] inception_5b/relu_1x1 -> inception_5b/1x1 (in-place)
I0727 20:30:33.164974  2843 net.cpp:141] Setting up inception_5b/relu_1x1
I0727 20:30:33.164985  2843 net.cpp:148] Top shape: 10 384 7 7 (188160)
I0727 20:30:33.164990  2843 net.cpp:156] Memory required for data: 544284160
I0727 20:30:33.164994  2843 layer_factory.hpp:77] Creating layer inception_5b/3x3_reduce
I0727 20:30:33.165014  2843 net.cpp:91] Creating Layer inception_5b/3x3_reduce
I0727 20:30:33.165020  2843 net.cpp:425] inception_5b/3x3_reduce <- inception_5a/output_inception_5a/output_0_split_1
I0727 20:30:33.165032  2843 net.cpp:399] inception_5b/3x3_reduce -> inception_5b/3x3_reduce
I0727 20:30:33.171203  2848 net.cpp:141] Setting up inception_5b/1x1
I0727 20:30:33.171238  2848 net.cpp:148] Top shape: 10 384 7 7 (188160)
I0727 20:30:33.171244  2848 net.cpp:156] Memory required for data: 543531520
I0727 20:30:33.171255  2848 layer_factory.hpp:77] Creating layer inception_5b/relu_1x1
I0727 20:30:33.171268  2848 net.cpp:91] Creating Layer inception_5b/relu_1x1
I0727 20:30:33.171277  2848 net.cpp:425] inception_5b/relu_1x1 <- inception_5b/1x1
I0727 20:30:33.171289  2848 net.cpp:386] inception_5b/relu_1x1 -> inception_5b/1x1 (in-place)
I0727 20:30:33.171564  2848 net.cpp:141] Setting up inception_5b/relu_1x1
I0727 20:30:33.171576  2848 net.cpp:148] Top shape: 10 384 7 7 (188160)
I0727 20:30:33.171579  2848 net.cpp:156] Memory required for data: 544284160
I0727 20:30:33.171584  2848 layer_factory.hpp:77] Creating layer inception_5b/3x3_reduce
I0727 20:30:33.171694  2848 net.cpp:91] Creating Layer inception_5b/3x3_reduce
I0727 20:30:33.171715  2848 net.cpp:425] inception_5b/3x3_reduce <- inception_5a/output_inception_5a/output_0_split_1
I0727 20:30:33.171737  2848 net.cpp:399] inception_5b/3x3_reduce -> inception_5b/3x3_reduce
I0727 20:30:33.175179  2843 net.cpp:141] Setting up inception_5b/3x3_reduce
I0727 20:30:33.175197  2843 net.cpp:148] Top shape: 10 192 7 7 (94080)
I0727 20:30:33.175204  2843 net.cpp:156] Memory required for data: 544660480
I0727 20:30:33.175214  2843 layer_factory.hpp:77] Creating layer inception_5b/relu_3x3_reduce
I0727 20:30:33.175222  2843 net.cpp:91] Creating Layer inception_5b/relu_3x3_reduce
I0727 20:30:33.175233  2843 net.cpp:425] inception_5b/relu_3x3_reduce <- inception_5b/3x3_reduce
I0727 20:30:33.175240  2843 net.cpp:386] inception_5b/relu_3x3_reduce -> inception_5b/3x3_reduce (in-place)
I0727 20:30:33.175516  2843 net.cpp:141] Setting up inception_5b/relu_3x3_reduce
I0727 20:30:33.175528  2843 net.cpp:148] Top shape: 10 192 7 7 (94080)
I0727 20:30:33.175532  2843 net.cpp:156] Memory required for data: 545036800
I0727 20:30:33.175537  2843 layer_factory.hpp:77] Creating layer inception_5b/3x3
I0727 20:30:33.175570  2843 net.cpp:91] Creating Layer inception_5b/3x3
I0727 20:30:33.175575  2843 net.cpp:425] inception_5b/3x3 <- inception_5b/3x3_reduce
I0727 20:30:33.175585  2843 net.cpp:399] inception_5b/3x3 -> inception_5b/3x3
I0727 20:30:33.180847  2848 net.cpp:141] Setting up inception_5b/3x3_reduce
I0727 20:30:33.180872  2848 net.cpp:148] Top shape: 10 192 7 7 (94080)
I0727 20:30:33.180878  2848 net.cpp:156] Memory required for data: 544660480
I0727 20:30:33.180889  2848 layer_factory.hpp:77] Creating layer inception_5b/relu_3x3_reduce
I0727 20:30:33.180902  2848 net.cpp:91] Creating Layer inception_5b/relu_3x3_reduce
I0727 20:30:33.180909  2848 net.cpp:425] inception_5b/relu_3x3_reduce <- inception_5b/3x3_reduce
I0727 20:30:33.180917  2848 net.cpp:386] inception_5b/relu_3x3_reduce -> inception_5b/3x3_reduce (in-place)
I0727 20:30:33.181186  2848 net.cpp:141] Setting up inception_5b/relu_3x3_reduce
I0727 20:30:33.181197  2848 net.cpp:148] Top shape: 10 192 7 7 (94080)
I0727 20:30:33.181202  2848 net.cpp:156] Memory required for data: 545036800
I0727 20:30:33.181210  2848 layer_factory.hpp:77] Creating layer inception_5b/3x3
I0727 20:30:33.181231  2848 net.cpp:91] Creating Layer inception_5b/3x3
I0727 20:30:33.181236  2848 net.cpp:425] inception_5b/3x3 <- inception_5b/3x3_reduce
I0727 20:30:33.181246  2848 net.cpp:399] inception_5b/3x3 -> inception_5b/3x3
I0727 20:30:33.186656  2843 net.cpp:141] Setting up inception_5b/3x3
I0727 20:30:33.186702  2843 net.cpp:148] Top shape: 10 384 7 7 (188160)
I0727 20:30:33.186707  2843 net.cpp:156] Memory required for data: 545789440
I0727 20:30:33.186720  2843 layer_factory.hpp:77] Creating layer inception_5b/relu_3x3
I0727 20:30:33.186785  2843 net.cpp:91] Creating Layer inception_5b/relu_3x3
I0727 20:30:33.186803  2843 net.cpp:425] inception_5b/relu_3x3 <- inception_5b/3x3
I0727 20:30:33.186815  2843 net.cpp:386] inception_5b/relu_3x3 -> inception_5b/3x3 (in-place)
I0727 20:30:33.188103  2843 net.cpp:141] Setting up inception_5b/relu_3x3
I0727 20:30:33.188125  2843 net.cpp:148] Top shape: 10 384 7 7 (188160)
I0727 20:30:33.188130  2843 net.cpp:156] Memory required for data: 546542080
I0727 20:30:33.188138  2843 layer_factory.hpp:77] Creating layer inception_5b/5x5_reduce
I0727 20:30:33.188158  2843 net.cpp:91] Creating Layer inception_5b/5x5_reduce
I0727 20:30:33.188165  2843 net.cpp:425] inception_5b/5x5_reduce <- inception_5a/output_inception_5a/output_0_split_2
I0727 20:30:33.188177  2843 net.cpp:399] inception_5b/5x5_reduce -> inception_5b/5x5_reduce
I0727 20:30:33.192534  2848 net.cpp:141] Setting up inception_5b/3x3
I0727 20:30:33.192562  2848 net.cpp:148] Top shape: 10 384 7 7 (188160)
I0727 20:30:33.192569  2848 net.cpp:156] Memory required for data: 545789440
I0727 20:30:33.192579  2848 layer_factory.hpp:77] Creating layer inception_5b/relu_3x3
I0727 20:30:33.192591  2848 net.cpp:91] Creating Layer inception_5b/relu_3x3
I0727 20:30:33.192600  2848 net.cpp:425] inception_5b/relu_3x3 <- inception_5b/3x3
I0727 20:30:33.192612  2848 net.cpp:386] inception_5b/relu_3x3 -> inception_5b/3x3 (in-place)
I0727 20:30:33.192708  2843 net.cpp:141] Setting up inception_5b/5x5_reduce
I0727 20:30:33.192728  2843 net.cpp:148] Top shape: 10 48 7 7 (23520)
I0727 20:30:33.192733  2843 net.cpp:156] Memory required for data: 546636160
I0727 20:30:33.192744  2843 layer_factory.hpp:77] Creating layer inception_5b/relu_5x5_reduce
I0727 20:30:33.192756  2843 net.cpp:91] Creating Layer inception_5b/relu_5x5_reduce
I0727 20:30:33.192762  2843 net.cpp:425] inception_5b/relu_5x5_reduce <- inception_5b/5x5_reduce
I0727 20:30:33.192770  2843 net.cpp:386] inception_5b/relu_5x5_reduce -> inception_5b/5x5_reduce (in-place)
I0727 20:30:33.193050  2843 net.cpp:141] Setting up inception_5b/relu_5x5_reduce
I0727 20:30:33.193061  2843 net.cpp:148] Top shape: 10 48 7 7 (23520)
I0727 20:30:33.193066  2843 net.cpp:156] Memory required for data: 546730240
I0727 20:30:33.193071  2843 layer_factory.hpp:77] Creating layer inception_5b/5x5
I0727 20:30:33.193089  2843 net.cpp:91] Creating Layer inception_5b/5x5
I0727 20:30:33.193094  2843 net.cpp:425] inception_5b/5x5 <- inception_5b/5x5_reduce
I0727 20:30:33.193102  2843 net.cpp:399] inception_5b/5x5 -> inception_5b/5x5
I0727 20:30:33.193662  2848 net.cpp:141] Setting up inception_5b/relu_3x3
I0727 20:30:33.193680  2848 net.cpp:148] Top shape: 10 384 7 7 (188160)
I0727 20:30:33.193684  2848 net.cpp:156] Memory required for data: 546542080
I0727 20:30:33.193689  2848 layer_factory.hpp:77] Creating layer inception_5b/5x5_reduce
I0727 20:30:33.193708  2848 net.cpp:91] Creating Layer inception_5b/5x5_reduce
I0727 20:30:33.193716  2848 net.cpp:425] inception_5b/5x5_reduce <- inception_5a/output_inception_5a/output_0_split_2
I0727 20:30:33.193727  2848 net.cpp:399] inception_5b/5x5_reduce -> inception_5b/5x5_reduce
I0727 20:30:33.200532  2848 net.cpp:141] Setting up inception_5b/5x5_reduce
I0727 20:30:33.200572  2848 net.cpp:148] Top shape: 10 48 7 7 (23520)
I0727 20:30:33.200577  2848 net.cpp:156] Memory required for data: 546636160
I0727 20:30:33.200590  2848 layer_factory.hpp:77] Creating layer inception_5b/relu_5x5_reduce
I0727 20:30:33.200616  2848 net.cpp:91] Creating Layer inception_5b/relu_5x5_reduce
I0727 20:30:33.200625  2848 net.cpp:425] inception_5b/relu_5x5_reduce <- inception_5b/5x5_reduce
I0727 20:30:33.200634  2848 net.cpp:386] inception_5b/relu_5x5_reduce -> inception_5b/5x5_reduce (in-place)
I0727 20:30:33.201117  2848 net.cpp:141] Setting up inception_5b/relu_5x5_reduce
I0727 20:30:33.201130  2848 net.cpp:148] Top shape: 10 48 7 7 (23520)
I0727 20:30:33.201134  2848 net.cpp:156] Memory required for data: 546730240
I0727 20:30:33.201139  2848 layer_factory.hpp:77] Creating layer inception_5b/5x5
I0727 20:30:33.201159  2848 net.cpp:91] Creating Layer inception_5b/5x5
I0727 20:30:33.201165  2848 net.cpp:425] inception_5b/5x5 <- inception_5b/5x5_reduce
I0727 20:30:33.201177  2848 net.cpp:399] inception_5b/5x5 -> inception_5b/5x5
I0727 20:30:33.201232  2843 net.cpp:141] Setting up inception_5b/5x5
I0727 20:30:33.201266  2843 net.cpp:148] Top shape: 10 128 7 7 (62720)
I0727 20:30:33.201272  2843 net.cpp:156] Memory required for data: 546981120
I0727 20:30:33.201284  2843 layer_factory.hpp:77] Creating layer inception_5b/relu_5x5
I0727 20:30:33.201300  2843 net.cpp:91] Creating Layer inception_5b/relu_5x5
I0727 20:30:33.201309  2843 net.cpp:425] inception_5b/relu_5x5 <- inception_5b/5x5
I0727 20:30:33.201321  2843 net.cpp:386] inception_5b/relu_5x5 -> inception_5b/5x5 (in-place)
I0727 20:30:33.201807  2843 net.cpp:141] Setting up inception_5b/relu_5x5
I0727 20:30:33.201819  2843 net.cpp:148] Top shape: 10 128 7 7 (62720)
I0727 20:30:33.201824  2843 net.cpp:156] Memory required for data: 547232000
I0727 20:30:33.201833  2843 layer_factory.hpp:77] Creating layer inception_5b/pool
I0727 20:30:33.201845  2843 net.cpp:91] Creating Layer inception_5b/pool
I0727 20:30:33.201853  2843 net.cpp:425] inception_5b/pool <- inception_5a/output_inception_5a/output_0_split_3
I0727 20:30:33.201864  2843 net.cpp:399] inception_5b/pool -> inception_5b/pool
I0727 20:30:33.202148  2843 net.cpp:141] Setting up inception_5b/pool
I0727 20:30:33.202160  2843 net.cpp:148] Top shape: 10 832 7 7 (407680)
I0727 20:30:33.202164  2843 net.cpp:156] Memory required for data: 548862720
I0727 20:30:33.202170  2843 layer_factory.hpp:77] Creating layer inception_5b/pool_proj
I0727 20:30:33.202193  2843 net.cpp:91] Creating Layer inception_5b/pool_proj
I0727 20:30:33.202199  2843 net.cpp:425] inception_5b/pool_proj <- inception_5b/pool
I0727 20:30:33.202214  2843 net.cpp:399] inception_5b/pool_proj -> inception_5b/pool_proj
I0727 20:30:33.208889  2843 net.cpp:141] Setting up inception_5b/pool_proj
I0727 20:30:33.208927  2843 net.cpp:148] Top shape: 10 128 7 7 (62720)
I0727 20:30:33.208933  2843 net.cpp:156] Memory required for data: 549113600
I0727 20:30:33.208943  2843 layer_factory.hpp:77] Creating layer inception_5b/relu_pool_proj
I0727 20:30:33.208956  2843 net.cpp:91] Creating Layer inception_5b/relu_pool_proj
I0727 20:30:33.208966  2843 net.cpp:425] inception_5b/relu_pool_proj <- inception_5b/pool_proj
I0727 20:30:33.208974  2843 net.cpp:386] inception_5b/relu_pool_proj -> inception_5b/pool_proj (in-place)
I0727 20:30:33.209878  2848 net.cpp:141] Setting up inception_5b/5x5
I0727 20:30:33.209926  2848 net.cpp:148] Top shape: 10 128 7 7 (62720)
I0727 20:30:33.209933  2848 net.cpp:156] Memory required for data: 546981120
I0727 20:30:33.209944  2843 net.cpp:141] Setting up inception_5b/relu_pool_proj
I0727 20:30:33.209957  2843 net.cpp:148] Top shape: 10 128 7 7 (62720)
I0727 20:30:33.209959  2848 layer_factory.hpp:77] Creating layer inception_5b/relu_5x5
I0727 20:30:33.209962  2843 net.cpp:156] Memory required for data: 549364480
I0727 20:30:33.209969  2843 layer_factory.hpp:77] Creating layer inception_5b/output
I0727 20:30:33.209974  2848 net.cpp:91] Creating Layer inception_5b/relu_5x5
I0727 20:30:33.209983  2848 net.cpp:425] inception_5b/relu_5x5 <- inception_5b/5x5
I0727 20:30:33.209987  2843 net.cpp:91] Creating Layer inception_5b/output
I0727 20:30:33.209995  2843 net.cpp:425] inception_5b/output <- inception_5b/1x1
I0727 20:30:33.209995  2848 net.cpp:386] inception_5b/relu_5x5 -> inception_5b/5x5 (in-place)
I0727 20:30:33.210002  2843 net.cpp:425] inception_5b/output <- inception_5b/3x3
I0727 20:30:33.210008  2843 net.cpp:425] inception_5b/output <- inception_5b/5x5
I0727 20:30:33.210013  2843 net.cpp:425] inception_5b/output <- inception_5b/pool_proj
I0727 20:30:33.210021  2843 net.cpp:399] inception_5b/output -> inception_5b/output
I0727 20:30:33.210253  2843 net.cpp:141] Setting up inception_5b/output
I0727 20:30:33.210263  2843 net.cpp:148] Top shape: 10 1024 7 7 (501760)
I0727 20:30:33.210270  2843 net.cpp:156] Memory required for data: 551371520
I0727 20:30:33.210275  2843 layer_factory.hpp:77] Creating layer pool5/7x7_s1
I0727 20:30:33.210285  2843 net.cpp:91] Creating Layer pool5/7x7_s1
I0727 20:30:33.210290  2843 net.cpp:425] pool5/7x7_s1 <- inception_5b/output
I0727 20:30:33.210299  2843 net.cpp:399] pool5/7x7_s1 -> pool5/7x7_s1
I0727 20:30:33.210363  2848 net.cpp:141] Setting up inception_5b/relu_5x5
I0727 20:30:33.210376  2848 net.cpp:148] Top shape: 10 128 7 7 (62720)
I0727 20:30:33.210381  2848 net.cpp:156] Memory required for data: 547232000
I0727 20:30:33.210386  2848 layer_factory.hpp:77] Creating layer inception_5b/pool
I0727 20:30:33.210400  2848 net.cpp:91] Creating Layer inception_5b/pool
I0727 20:30:33.210407  2848 net.cpp:425] inception_5b/pool <- inception_5a/output_inception_5a/output_0_split_3
I0727 20:30:33.210415  2848 net.cpp:399] inception_5b/pool -> inception_5b/pool
I0727 20:30:33.210664  2848 net.cpp:141] Setting up inception_5b/pool
I0727 20:30:33.210675  2848 net.cpp:148] Top shape: 10 832 7 7 (407680)
I0727 20:30:33.210680  2848 net.cpp:156] Memory required for data: 548862720
I0727 20:30:33.210683  2848 layer_factory.hpp:77] Creating layer inception_5b/pool_proj
I0727 20:30:33.210716  2848 net.cpp:91] Creating Layer inception_5b/pool_proj
I0727 20:30:33.210721  2848 net.cpp:425] inception_5b/pool_proj <- inception_5b/pool
I0727 20:30:33.210732  2848 net.cpp:399] inception_5b/pool_proj -> inception_5b/pool_proj
I0727 20:30:33.210942  2843 net.cpp:141] Setting up pool5/7x7_s1
I0727 20:30:33.210954  2843 net.cpp:148] Top shape: 10 1024 1 1 (10240)
I0727 20:30:33.210958  2843 net.cpp:156] Memory required for data: 551412480
I0727 20:30:33.210963  2843 layer_factory.hpp:77] Creating layer pool5/drop_7x7_s1
I0727 20:30:33.210978  2843 net.cpp:91] Creating Layer pool5/drop_7x7_s1
I0727 20:30:33.210983  2843 net.cpp:425] pool5/drop_7x7_s1 <- pool5/7x7_s1
I0727 20:30:33.210991  2843 net.cpp:386] pool5/drop_7x7_s1 -> pool5/7x7_s1 (in-place)
I0727 20:30:33.211202  2843 net.cpp:141] Setting up pool5/drop_7x7_s1
I0727 20:30:33.211215  2843 net.cpp:148] Top shape: 10 1024 1 1 (10240)
I0727 20:30:33.211218  2843 net.cpp:156] Memory required for data: 551453440
I0727 20:30:33.211223  2843 layer_factory.hpp:77] Creating layer loss3/classifier
I0727 20:30:33.211246  2843 net.cpp:91] Creating Layer loss3/classifier
I0727 20:30:33.211251  2843 net.cpp:425] loss3/classifier <- pool5/7x7_s1
I0727 20:30:33.211258  2843 net.cpp:399] loss3/classifier -> loss3/classifier
I0727 20:30:33.219679  2848 net.cpp:141] Setting up inception_5b/pool_proj
I0727 20:30:33.219714  2848 net.cpp:148] Top shape: 10 128 7 7 (62720)
I0727 20:30:33.219719  2848 net.cpp:156] Memory required for data: 549113600
I0727 20:30:33.219729  2848 layer_factory.hpp:77] Creating layer inception_5b/relu_pool_proj
I0727 20:30:33.219740  2848 net.cpp:91] Creating Layer inception_5b/relu_pool_proj
I0727 20:30:33.219746  2848 net.cpp:425] inception_5b/relu_pool_proj <- inception_5b/pool_proj
I0727 20:30:33.219754  2848 net.cpp:386] inception_5b/relu_pool_proj -> inception_5b/pool_proj (in-place)
I0727 20:30:33.220527  2848 net.cpp:141] Setting up inception_5b/relu_pool_proj
I0727 20:30:33.220556  2848 net.cpp:148] Top shape: 10 128 7 7 (62720)
I0727 20:30:33.220561  2848 net.cpp:156] Memory required for data: 549364480
I0727 20:30:33.220577  2848 layer_factory.hpp:77] Creating layer inception_5b/output
I0727 20:30:33.220589  2848 net.cpp:91] Creating Layer inception_5b/output
I0727 20:30:33.220595  2848 net.cpp:425] inception_5b/output <- inception_5b/1x1
I0727 20:30:33.220602  2848 net.cpp:425] inception_5b/output <- inception_5b/3x3
I0727 20:30:33.220607  2848 net.cpp:425] inception_5b/output <- inception_5b/5x5
I0727 20:30:33.220613  2848 net.cpp:425] inception_5b/output <- inception_5b/pool_proj
I0727 20:30:33.220619  2848 net.cpp:399] inception_5b/output -> inception_5b/output
I0727 20:30:33.220708  2848 net.cpp:141] Setting up inception_5b/output
I0727 20:30:33.220721  2848 net.cpp:148] Top shape: 10 1024 7 7 (501760)
I0727 20:30:33.220726  2848 net.cpp:156] Memory required for data: 551371520
I0727 20:30:33.220731  2848 layer_factory.hpp:77] Creating layer pool5/7x7_s1
I0727 20:30:33.220738  2848 net.cpp:91] Creating Layer pool5/7x7_s1
I0727 20:30:33.220743  2848 net.cpp:425] pool5/7x7_s1 <- inception_5b/output
I0727 20:30:33.220751  2848 net.cpp:399] pool5/7x7_s1 -> pool5/7x7_s1
I0727 20:30:33.221084  2848 net.cpp:141] Setting up pool5/7x7_s1
I0727 20:30:33.221096  2848 net.cpp:148] Top shape: 10 1024 1 1 (10240)
I0727 20:30:33.221099  2848 net.cpp:156] Memory required for data: 551412480
I0727 20:30:33.221104  2848 layer_factory.hpp:77] Creating layer pool5/drop_7x7_s1
I0727 20:30:33.221113  2848 net.cpp:91] Creating Layer pool5/drop_7x7_s1
I0727 20:30:33.221118  2848 net.cpp:425] pool5/drop_7x7_s1 <- pool5/7x7_s1
I0727 20:30:33.221127  2848 net.cpp:386] pool5/drop_7x7_s1 -> pool5/7x7_s1 (in-place)
I0727 20:30:33.221204  2848 net.cpp:141] Setting up pool5/drop_7x7_s1
I0727 20:30:33.221213  2848 net.cpp:148] Top shape: 10 1024 1 1 (10240)
I0727 20:30:33.221217  2848 net.cpp:156] Memory required for data: 551453440
I0727 20:30:33.221222  2848 layer_factory.hpp:77] Creating layer loss3/classifier
I0727 20:30:33.221237  2848 net.cpp:91] Creating Layer loss3/classifier
I0727 20:30:33.221242  2848 net.cpp:425] loss3/classifier <- pool5/7x7_s1
I0727 20:30:33.221251  2848 net.cpp:399] loss3/classifier -> loss3/classifier
I0727 20:30:33.224629  2843 net.cpp:141] Setting up loss3/classifier
I0727 20:30:33.224668  2843 net.cpp:148] Top shape: 10 1000 (10000)
I0727 20:30:33.224673  2843 net.cpp:156] Memory required for data: 551493440
I0727 20:30:33.224686  2843 layer_factory.hpp:77] Creating layer prob
I0727 20:30:33.224704  2843 net.cpp:91] Creating Layer prob
I0727 20:30:33.224711  2843 net.cpp:425] prob <- loss3/classifier
I0727 20:30:33.224721  2843 net.cpp:399] prob -> prob
I0727 20:30:33.226295  2843 net.cpp:141] Setting up prob
I0727 20:30:33.226311  2843 net.cpp:148] Top shape: 10 1000 (10000)
I0727 20:30:33.226318  2843 net.cpp:156] Memory required for data: 551533440
I0727 20:30:33.226325  2843 net.cpp:219] prob does not need backward computation.
I0727 20:30:33.226330  2843 net.cpp:219] loss3/classifier does not need backward computation.
I0727 20:30:33.226333  2843 net.cpp:219] pool5/drop_7x7_s1 does not need backward computation.
I0727 20:30:33.226337  2843 net.cpp:219] pool5/7x7_s1 does not need backward computation.
…
