…
2016-07-15 00:38:36.813 n.t.s.b.CVParticleBolt [INFO] [Timing] RequestID: 0 StreamID: home/peifeng/work/data/frame.320x240.jpg SequenceNr: 71 Entering scale: 1468557516813
2016-07-15 00:38:36.814 n.t.s.b.CVParticleBolt [INFO] [Timing] RequestID: 0 StreamID: home/peifeng/work/data/frame.320x240.jpg SequenceNr: 70 Leaving scale: 1468557516814 Size: 3530
2016-07-15 00:38:36.818 n.t.s.b.CVParticleBolt [INFO] [Timing] RequestID: 0 StreamID: home/peifeng/work/data/frame.320x240.jpg SequenceNr: 71 Leaving scale: 1468557516818 Size: 3530
2016-07-15 00:38:36.897 STDERR [INFO] I0715 00:38:36.897243 26088 net.cpp:141] Setting up conv1/7x7_s2
2016-07-15 00:38:36.898 STDERR [INFO] I0715 00:38:36.897308 26088 net.cpp:148] Top shape: 10 64 112 112 (8028160)
2016-07-15 00:38:36.898 STDERR [INFO] I0715 00:38:36.897318 26088 net.cpp:156] Memory required for data: 38133760
2016-07-15 00:38:36.898 STDERR [INFO] I0715 00:38:36.897356 26088 layer_factory.hpp:77] Creating layer conv1/relu_7x7
2016-07-15 00:38:36.898 STDERR [INFO] I0715 00:38:36.897356 26092 net.cpp:141] Setting up conv1/7x7_s2
2016-07-15 00:38:36.898 STDERR [INFO] I0715 00:38:36.897379 26088 net.cpp:91] Creating Layer conv1/relu_7x7
2016-07-15 00:38:36.898 STDERR [INFO] I0715 00:38:36.897380 26092 net.cpp:148] Top shape: 10 64 112 112 (8028160)
2016-07-15 00:38:36.898 STDERR [INFO] I0715 00:38:36.897389 26092 net.cpp:156] Memory required for data: 38133760
2016-07-15 00:38:36.898 STDERR [INFO] I0715 00:38:36.897390 26088 net.cpp:425] conv1/relu_7x7 <- conv1/7x7_s2
2016-07-15 00:38:36.898 STDERR [INFO] I0715 00:38:36.897414 26088 net.cpp:386] conv1/relu_7x7 -> conv1/7x7_s2 (in-place)
2016-07-15 00:38:36.898 STDERR [INFO] I0715 00:38:36.897415 26092 layer_factory.hpp:77] Creating layer conv1/relu_7x7
2016-07-15 00:38:36.898 STDERR [INFO] I0715 00:38:36.897441 26092 net.cpp:91] Creating Layer conv1/relu_7x7
2016-07-15 00:38:36.898 STDERR [INFO] I0715 00:38:36.897449 26092 net.cpp:425] conv1/relu_7x7 <- conv1/7x7_s2
2016-07-15 00:38:36.898 STDERR [INFO] I0715 00:38:36.897461 26092 net.cpp:386] conv1/relu_7x7 -> conv1/7x7_s2 (in-place)
2016-07-15 00:38:36.898 STDERR [INFO] I0715 00:38:36.898640 26088 net.cpp:141] Setting up conv1/relu_7x7
2016-07-15 00:38:36.898 STDERR [INFO] I0715 00:38:36.898655 26092 net.cpp:141] Setting up conv1/relu_7x7
2016-07-15 00:38:36.898 STDERR [INFO] I0715 00:38:36.898658 26088 net.cpp:148] Top shape: 10 64 112 112 (8028160)
2016-07-15 00:38:36.898 STDERR [INFO] I0715 00:38:36.898674 26092 net.cpp:148] Top shape: 10 64 112 112 (8028160)
2016-07-15 00:38:36.898 STDERR [INFO] I0715 00:38:36.898679 26088 net.cpp:156] Memory required for data: 70246400
2016-07-15 00:38:36.899 STDERR [INFO] I0715 00:38:36.898680 26092 net.cpp:156] Memory required for data: 70246400
2016-07-15 00:38:36.899 STDERR [INFO] I0715 00:38:36.898696 26088 layer_factory.hpp:77] Creating layer pool1/3x3_s2
2016-07-15 00:38:36.899 STDERR [INFO] I0715 00:38:36.898699 26092 layer_factory.hpp:77] Creating layer pool1/3x3_s2
2016-07-15 00:38:36.899 STDERR [INFO] I0715 00:38:36.898715 26088 net.cpp:91] Creating Layer pool1/3x3_s2
2016-07-15 00:38:36.899 STDERR [INFO] I0715 00:38:36.898717 26092 net.cpp:91] Creating Layer pool1/3x3_s2
2016-07-15 00:38:36.899 STDERR [INFO] I0715 00:38:36.898721 26088 net.cpp:425] pool1/3x3_s2 <- conv1/7x7_s2
2016-07-15 00:38:36.899 STDERR [INFO] I0715 00:38:36.898725 26092 net.cpp:425] pool1/3x3_s2 <- conv1/7x7_s2
2016-07-15 00:38:36.899 STDERR [INFO] I0715 00:38:36.898741 26088 net.cpp:399] pool1/3x3_s2 -> pool1/3x3_s2
2016-07-15 00:38:36.899 STDERR [INFO] I0715 00:38:36.898748 26092 net.cpp:399] pool1/3x3_s2 -> pool1/3x3_s2
2016-07-15 00:38:36.899 STDERR [INFO] I0715 00:38:36.898901 26092 net.cpp:141] Setting up pool1/3x3_s2
2016-07-15 00:38:36.899 STDERR [INFO] I0715 00:38:36.898916 26092 net.cpp:148] Top shape: 10 64 56 56 (2007040)
2016-07-15 00:38:36.899 STDERR [INFO] I0715 00:38:36.898921 26092 net.cpp:156] Memory required for data: 78274560
2016-07-15 00:38:36.899 STDERR [INFO] I0715 00:38:36.898926 26092 layer_factory.hpp:77] Creating layer pool1/norm1
2016-07-15 00:38:36.899 STDERR [INFO] I0715 00:38:36.898927 26088 net.cpp:141] Setting up pool1/3x3_s2
2016-07-15 00:38:36.899 STDERR [INFO] I0715 00:38:36.898942 26088 net.cpp:148] Top shape: 10 64 56 56 (2007040)
2016-07-15 00:38:36.899 STDERR [INFO] I0715 00:38:36.898947 26088 net.cpp:156] Memory required for data: 78274560
2016-07-15 00:38:36.899 STDERR [INFO] I0715 00:38:36.898949 26092 net.cpp:91] Creating Layer pool1/norm1
2016-07-15 00:38:36.899 STDERR [INFO] I0715 00:38:36.898953 26088 layer_factory.hpp:77] Creating layer pool1/norm1
2016-07-15 00:38:36.899 STDERR [INFO] I0715 00:38:36.898957 26092 net.cpp:425] pool1/norm1 <- pool1/3x3_s2
2016-07-15 00:38:36.899 STDERR [INFO] I0715 00:38:36.898965 26092 net.cpp:399] pool1/norm1 -> pool1/norm1
2016-07-15 00:38:36.899 STDERR [INFO] I0715 00:38:36.898967 26088 net.cpp:91] Creating Layer pool1/norm1
2016-07-15 00:38:36.899 STDERR [INFO] I0715 00:38:36.898974 26088 net.cpp:425] pool1/norm1 <- pool1/3x3_s2
2016-07-15 00:38:36.900 STDERR [INFO] I0715 00:38:36.898983 26088 net.cpp:399] pool1/norm1 -> pool1/norm1
2016-07-15 00:38:36.900 STDERR [INFO] I0715 00:38:36.900374 26088 net.cpp:141] Setting up pool1/norm1
2016-07-15 00:38:36.900 STDERR [INFO] I0715 00:38:36.900393 26088 net.cpp:148] Top shape: 10 64 56 56 (2007040)
2016-07-15 00:38:36.900 STDERR [INFO] I0715 00:38:36.900399 26088 net.cpp:156] Memory required for data: 86302720
2016-07-15 00:38:36.900 STDERR [INFO] I0715 00:38:36.900401 26092 net.cpp:141] Setting up pool1/norm1
2016-07-15 00:38:36.900 STDERR [INFO] I0715 00:38:36.900406 26088 layer_factory.hpp:77] Creating layer conv2/3x3_reduce
2016-07-15 00:38:36.900 STDERR [INFO] I0715 00:38:36.900426 26092 net.cpp:148] Top shape: 10 64 56 56 (2007040)
2016-07-15 00:38:36.900 STDERR [INFO] I0715 00:38:36.900432 26092 net.cpp:156] Memory required for data: 86302720
2016-07-15 00:38:36.900 STDERR [INFO] I0715 00:38:36.900439 26092 layer_factory.hpp:77] Creating layer conv2/3x3_reduce
2016-07-15 00:38:36.900 STDERR [INFO] I0715 00:38:36.900444 26088 net.cpp:91] Creating Layer conv2/3x3_reduce
2016-07-15 00:38:36.900 STDERR [INFO] I0715 00:38:36.900451 26088 net.cpp:425] conv2/3x3_reduce <- pool1/norm1
2016-07-15 00:38:36.900 STDERR [INFO] I0715 00:38:36.900460 26092 net.cpp:91] Creating Layer conv2/3x3_reduce
2016-07-15 00:38:36.901 STDERR [INFO] I0715 00:38:36.900462 26088 net.cpp:399] conv2/3x3_reduce -> conv2/3x3_reduce
2016-07-15 00:38:36.901 STDERR [INFO] I0715 00:38:36.900466 26092 net.cpp:425] conv2/3x3_reduce <- pool1/norm1
2016-07-15 00:38:36.901 STDERR [INFO] I0715 00:38:36.900476 26092 net.cpp:399] conv2/3x3_reduce -> conv2/3x3_reduce
2016-07-15 00:38:36.907 STDERR [INFO] I0715 00:38:36.906980 26088 net.cpp:141] Setting up conv2/3x3_reduce
2016-07-15 00:38:36.907 STDERR [INFO] I0715 00:38:36.907023 26088 net.cpp:148] Top shape: 10 64 56 56 (2007040)
2016-07-15 00:38:36.907 STDERR [INFO] I0715 00:38:36.907030 26088 net.cpp:156] Memory required for data: 94330880
2016-07-15 00:38:36.907 STDERR [INFO] I0715 00:38:36.907049 26088 layer_factory.hpp:77] Creating layer conv2/relu_3x3_reduce
2016-07-15 00:38:36.907 STDERR [INFO] I0715 00:38:36.907073 26088 net.cpp:91] Creating Layer conv2/relu_3x3_reduce
2016-07-15 00:38:36.907 STDERR [INFO] I0715 00:38:36.907080 26088 net.cpp:425] conv2/relu_3x3_reduce <- conv2/3x3_reduce
2016-07-15 00:38:36.907 STDERR [INFO] I0715 00:38:36.907090 26088 net.cpp:386] conv2/relu_3x3_reduce -> conv2/3x3_reduce (in-place)
2016-07-15 00:38:36.908 STDERR [INFO] I0715 00:38:36.907944 26092 net.cpp:141] Setting up conv2/3x3_reduce
2016-07-15 00:38:36.908 STDERR [INFO] I0715 00:38:36.907964 26092 net.cpp:148] Top shape: 10 64 56 56 (2007040)
2016-07-15 00:38:36.908 STDERR [INFO] I0715 00:38:36.907970 26092 net.cpp:156] Memory required for data: 94330880
2016-07-15 00:38:36.908 STDERR [INFO] I0715 00:38:36.907984 26092 layer_factory.hpp:77] Creating layer conv2/relu_3x3_reduce
2016-07-15 00:38:36.908 STDERR [INFO] I0715 00:38:36.907996 26092 net.cpp:91] Creating Layer conv2/relu_3x3_reduce
2016-07-15 00:38:36.908 STDERR [INFO] I0715 00:38:36.908002 26092 net.cpp:425] conv2/relu_3x3_reduce <- conv2/3x3_reduce
2016-07-15 00:38:36.908 STDERR [INFO] I0715 00:38:36.908010 26092 net.cpp:386] conv2/relu_3x3_reduce -> conv2/3x3_reduce (in-place)
2016-07-15 00:38:36.908 STDERR [INFO] I0715 00:38:36.908015 26088 net.cpp:141] Setting up conv2/relu_3x3_reduce
2016-07-15 00:38:36.908 STDERR [INFO] I0715 00:38:36.908030 26088 net.cpp:148] Top shape: 10 64 56 56 (2007040)
2016-07-15 00:38:36.908 STDERR [INFO] I0715 00:38:36.908035 26088 net.cpp:156] Memory required for data: 102359040
2016-07-15 00:38:36.908 STDERR [INFO] I0715 00:38:36.908041 26088 layer_factory.hpp:77] Creating layer conv2/3x3
2016-07-15 00:38:36.908 STDERR [INFO] I0715 00:38:36.908058 26088 net.cpp:91] Creating Layer conv2/3x3
2016-07-15 00:38:36.908 STDERR [INFO] I0715 00:38:36.908064 26088 net.cpp:425] conv2/3x3 <- conv2/3x3_reduce
2016-07-15 00:38:36.908 STDERR [INFO] I0715 00:38:36.908074 26088 net.cpp:399] conv2/3x3 -> conv2/3x3
2016-07-15 00:38:36.910 STDERR [INFO] I0715 00:38:36.910173 26092 net.cpp:141] Setting up conv2/relu_3x3_reduce
2016-07-15 00:38:36.910 STDERR [INFO] I0715 00:38:36.910190 26092 net.cpp:148] Top shape: 10 64 56 56 (2007040)
2016-07-15 00:38:36.910 STDERR [INFO] I0715 00:38:36.910197 26092 net.cpp:156] Memory required for data: 102359040
2016-07-15 00:38:36.910 STDERR [INFO] I0715 00:38:36.910202 26092 layer_factory.hpp:77] Creating layer conv2/3x3
2016-07-15 00:38:36.910 STDERR [INFO] I0715 00:38:36.910219 26092 net.cpp:91] Creating Layer conv2/3x3
2016-07-15 00:38:36.910 STDERR [INFO] I0715 00:38:36.910226 26092 net.cpp:425] conv2/3x3 <- conv2/3x3_reduce
2016-07-15 00:38:36.910 STDERR [INFO] I0715 00:38:36.910238 26092 net.cpp:399] conv2/3x3 -> conv2/3x3
2016-07-15 00:38:36.915 STDERR [INFO] I0715 00:38:36.915865 26088 net.cpp:141] Setting up conv2/3x3
2016-07-15 00:38:36.916 STDERR [INFO] I0715 00:38:36.915886 26088 net.cpp:148] Top shape: 10 192 56 56 (6021120)
2016-07-15 00:38:36.916 STDERR [INFO] I0715 00:38:36.915892 26088 net.cpp:156] Memory required for data: 126443520
2016-07-15 00:38:36.916 STDERR [INFO] I0715 00:38:36.915909 26088 layer_factory.hpp:77] Creating layer conv2/relu_3x3
2016-07-15 00:38:36.916 STDERR [INFO] I0715 00:38:36.915921 26088 net.cpp:91] Creating Layer conv2/relu_3x3
2016-07-15 00:38:36.916 STDERR [INFO] I0715 00:38:36.915927 26088 net.cpp:425] conv2/relu_3x3 <- conv2/3x3
2016-07-15 00:38:36.916 STDERR [INFO] I0715 00:38:36.915936 26088 net.cpp:386] conv2/relu_3x3 -> conv2/3x3 (in-place)
2016-07-15 00:38:36.916 STDERR [INFO] I0715 00:38:36.916165 26092 net.cpp:141] Setting up conv2/3x3
2016-07-15 00:38:36.916 STDERR [INFO] I0715 00:38:36.916182 26092 net.cpp:148] Top shape: 10 192 56 56 (6021120)
2016-07-15 00:38:36.916 STDERR [INFO] I0715 00:38:36.916188 26092 net.cpp:156] Memory required for data: 126443520
2016-07-15 00:38:36.916 STDERR [INFO] I0715 00:38:36.916201 26092 layer_factory.hpp:77] Creating layer conv2/relu_3x3
2016-07-15 00:38:36.916 STDERR [INFO] I0715 00:38:36.916214 26092 net.cpp:91] Creating Layer conv2/relu_3x3
2016-07-15 00:38:36.916 STDERR [INFO] I0715 00:38:36.916220 26092 net.cpp:425] conv2/relu_3x3 <- conv2/3x3
2016-07-15 00:38:36.916 STDERR [INFO] I0715 00:38:36.916227 26092 net.cpp:386] conv2/relu_3x3 -> conv2/3x3 (in-place)
2016-07-15 00:38:36.916 STDERR [INFO] I0715 00:38:36.916911 26088 net.cpp:141] Setting up conv2/relu_3x3
2016-07-15 00:38:36.917 STDERR [INFO] I0715 00:38:36.916927 26088 net.cpp:148] Top shape: 10 192 56 56 (6021120)
2016-07-15 00:38:36.917 STDERR [INFO] I0715 00:38:36.916932 26088 net.cpp:156] Memory required for data: 150528000
2016-07-15 00:38:36.917 STDERR [INFO] I0715 00:38:36.916939 26088 layer_factory.hpp:77] Creating layer conv2/norm2
2016-07-15 00:38:36.917 STDERR [INFO] I0715 00:38:36.916951 26088 net.cpp:91] Creating Layer conv2/norm2
2016-07-15 00:38:36.917 STDERR [INFO] I0715 00:38:36.916956 26088 net.cpp:425] conv2/norm2 <- conv2/3x3
2016-07-15 00:38:36.917 STDERR [INFO] I0715 00:38:36.916965 26088 net.cpp:399] conv2/norm2 -> conv2/norm2
2016-07-15 00:38:36.917 STDERR [INFO] I0715 00:38:36.917251 26092 net.cpp:141] Setting up conv2/relu_3x3
2016-07-15 00:38:36.917 STDERR [INFO] I0715 00:38:36.917265 26092 net.cpp:148] Top shape: 10 192 56 56 (6021120)
2016-07-15 00:38:36.917 STDERR [INFO] I0715 00:38:36.917270 26092 net.cpp:156] Memory required for data: 150528000
2016-07-15 00:38:36.917 STDERR [INFO] I0715 00:38:36.917276 26092 layer_factory.hpp:77] Creating layer conv2/norm2
2016-07-15 00:38:36.917 STDERR [INFO] I0715 00:38:36.917289 26092 net.cpp:91] Creating Layer conv2/norm2
2016-07-15 00:38:36.917 STDERR [INFO] I0715 00:38:36.917297 26092 net.cpp:425] conv2/norm2 <- conv2/3x3
2016-07-15 00:38:36.917 STDERR [INFO] I0715 00:38:36.917305 26092 net.cpp:399] conv2/norm2 -> conv2/norm2
2016-07-15 00:38:36.918 STDERR [INFO] I0715 00:38:36.918136 26088 net.cpp:141] Setting up conv2/norm2
2016-07-15 00:38:36.918 STDERR [INFO] I0715 00:38:36.918153 26088 net.cpp:148] Top shape: 10 192 56 56 (6021120)
2016-07-15 00:38:36.918 STDERR [INFO] I0715 00:38:36.918159 26088 net.cpp:156] Memory required for data: 174612480
2016-07-15 00:38:36.918 STDERR [INFO] I0715 00:38:36.918164 26088 layer_factory.hpp:77] Creating layer pool2/3x3_s2
2016-07-15 00:38:36.918 STDERR [INFO] I0715 00:38:36.918174 26088 net.cpp:91] Creating Layer pool2/3x3_s2
2016-07-15 00:38:36.918 STDERR [INFO] I0715 00:38:36.918180 26088 net.cpp:425] pool2/3x3_s2 <- conv2/norm2
2016-07-15 00:38:36.918 STDERR [INFO] I0715 00:38:36.918190 26088 net.cpp:399] pool2/3x3_s2 -> pool2/3x3_s2
2016-07-15 00:38:36.918 STDERR [INFO] I0715 00:38:36.918251 26092 net.cpp:141] Setting up conv2/norm2
2016-07-15 00:38:36.918 STDERR [INFO] I0715 00:38:36.918265 26092 net.cpp:148] Top shape: 10 192 56 56 (6021120)
2016-07-15 00:38:36.918 STDERR [INFO] I0715 00:38:36.918270 26092 net.cpp:156] Memory required for data: 174612480
2016-07-15 00:38:36.918 STDERR [INFO] I0715 00:38:36.918277 26092 layer_factory.hpp:77] Creating layer pool2/3x3_s2
2016-07-15 00:38:36.918 STDERR [INFO] I0715 00:38:36.918288 26092 net.cpp:91] Creating Layer pool2/3x3_s2
2016-07-15 00:38:36.918 STDERR [INFO] I0715 00:38:36.918294 26092 net.cpp:425] pool2/3x3_s2 <- conv2/norm2
2016-07-15 00:38:36.918 STDERR [INFO] I0715 00:38:36.918293 26088 net.cpp:141] Setting up pool2/3x3_s2
2016-07-15 00:38:36.919 STDERR [INFO] I0715 00:38:36.918303 26092 net.cpp:399] pool2/3x3_s2 -> pool2/3x3_s2
2016-07-15 00:38:36.919 STDERR [INFO] I0715 00:38:36.918304 26088 net.cpp:148] Top shape: 10 192 28 28 (1505280)
2016-07-15 00:38:36.919 STDERR [INFO] I0715 00:38:36.918310 26088 net.cpp:156] Memory required for data: 180633600
2016-07-15 00:38:36.919 STDERR [INFO] I0715 00:38:36.918315 26088 layer_factory.hpp:77] Creating layer pool2/3x3_s2_pool2/3x3_s2_0_split
2016-07-15 00:38:36.919 STDERR [INFO] I0715 00:38:36.918334 26088 net.cpp:91] Creating Layer pool2/3x3_s2_pool2/3x3_s2_0_split
2016-07-15 00:38:36.919 STDERR [INFO] I0715 00:38:36.918340 26088 net.cpp:425] pool2/3x3_s2_pool2/3x3_s2_0_split <- pool2/3x3_s2
2016-07-15 00:38:36.919 STDERR [INFO] I0715 00:38:36.918349 26088 net.cpp:399] pool2/3x3_s2_pool2/3x3_s2_0_split -> pool2/3x3_s2_pool2/3x3_s2_0_split_0
2016-07-15 00:38:36.919 STDERR [INFO] I0715 00:38:36.918359 26088 net.cpp:399] pool2/3x3_s2_pool2/3x3_s2_0_split -> pool2/3x3_s2_pool2/3x3_s2_0_split_1
2016-07-15 00:38:36.919 STDERR [INFO] I0715 00:38:36.918365 26092 net.cpp:141] Setting up pool2/3x3_s2
2016-07-15 00:38:36.919 STDERR [INFO] I0715 00:38:36.918368 26088 net.cpp:399] pool2/3x3_s2_pool2/3x3_s2_0_split -> pool2/3x3_s2_pool2/3x3_s2_0_split_2
2016-07-15 00:38:36.919 STDERR [INFO] I0715 00:38:36.918375 26092 net.cpp:148] Top shape: 10 192 28 28 (1505280)
2016-07-15 00:38:36.919 STDERR [INFO] I0715 00:38:36.918377 26088 net.cpp:399] pool2/3x3_s2_pool2/3x3_s2_0_split -> pool2/3x3_s2_pool2/3x3_s2_0_split_3
2016-07-15 00:38:36.919 STDERR [INFO] I0715 00:38:36.918380 26092 net.cpp:156] Memory required for data: 180633600
2016-07-15 00:38:36.919 STDERR [INFO] I0715 00:38:36.918385 26092 layer_factory.hpp:77] Creating layer pool2/3x3_s2_pool2/3x3_s2_0_split
2016-07-15 00:38:36.919 STDERR [INFO] I0715 00:38:36.918392 26092 net.cpp:91] Creating Layer pool2/3x3_s2_pool2/3x3_s2_0_split
2016-07-15 00:38:36.919 STDERR [INFO] I0715 00:38:36.918397 26092 net.cpp:425] pool2/3x3_s2_pool2/3x3_s2_0_split <- pool2/3x3_s2
2016-07-15 00:38:36.919 STDERR [INFO] I0715 00:38:36.918407 26092 net.cpp:399] pool2/3x3_s2_pool2/3x3_s2_0_split -> pool2/3x3_s2_pool2/3x3_s2_0_split_0
2016-07-15 00:38:36.919 STDERR [INFO] I0715 00:38:36.918417 26092 net.cpp:399] pool2/3x3_s2_pool2/3x3_s2_0_split -> pool2/3x3_s2_pool2/3x3_s2_0_split_1
2016-07-15 00:38:36.919 STDERR [INFO] I0715 00:38:36.918426 26092 net.cpp:399] pool2/3x3_s2_pool2/3x3_s2_0_split -> pool2/3x3_s2_pool2/3x3_s2_0_split_2
2016-07-15 00:38:36.919 STDERR [INFO] I0715 00:38:36.918434 26092 net.cpp:399] pool2/3x3_s2_pool2/3x3_s2_0_split -> pool2/3x3_s2_pool2/3x3_s2_0_split_3
2016-07-15 00:38:36.919 STDERR [INFO] I0715 00:38:36.918460 26088 net.cpp:141] Setting up pool2/3x3_s2_pool2/3x3_s2_0_split
2016-07-15 00:38:36.920 STDERR [INFO] I0715 00:38:36.918470 26088 net.cpp:148] Top shape: 10 192 28 28 (1505280)
2016-07-15 00:38:36.920 STDERR [INFO] I0715 00:38:36.918478 26088 net.cpp:148] Top shape: 10 192 28 28 (1505280)
2016-07-15 00:38:36.920 STDERR [INFO] I0715 00:38:36.918483 26088 net.cpp:148] Top shape: 10 192 28 28 (1505280)
2016-07-15 00:38:36.920 STDERR [INFO] I0715 00:38:36.918489 26088 net.cpp:148] Top shape: 10 192 28 28 (1505280)
2016-07-15 00:38:36.920 STDERR [INFO] I0715 00:38:36.918493 26088 net.cpp:156] Memory required for data: 204718080
2016-07-15 00:38:36.920 STDERR [INFO] I0715 00:38:36.918498 26088 layer_factory.hpp:77] Creating layer inception_3a/1x1
2016-07-15 00:38:36.920 STDERR [INFO] I0715 00:38:36.918514 26088 net.cpp:91] Creating Layer inception_3a/1x1
2016-07-15 00:38:36.920 STDERR [INFO] I0715 00:38:36.918519 26088 net.cpp:425] inception_3a/1x1 <- pool2/3x3_s2_pool2/3x3_s2_0_split_0
2016-07-15 00:38:36.920 STDERR [INFO] I0715 00:38:36.918546 26088 net.cpp:399] inception_3a/1x1 -> inception_3a/1x1
2016-07-15 00:38:36.920 STDERR [INFO] I0715 00:38:36.918546 26092 net.cpp:141] Setting up pool2/3x3_s2_pool2/3x3_s2_0_split
2016-07-15 00:38:36.920 STDERR [INFO] I0715 00:38:36.918565 26092 net.cpp:148] Top shape: 10 192 28 28 (1505280)
2016-07-15 00:38:36.920 STDERR [INFO] I0715 00:38:36.918572 26092 net.cpp:148] Top shape: 10 192 28 28 (1505280)
2016-07-15 00:38:36.920 STDERR [INFO] I0715 00:38:36.918578 26092 net.cpp:148] Top shape: 10 192 28 28 (1505280)
2016-07-15 00:38:36.920 STDERR [INFO] I0715 00:38:36.918583 26092 net.cpp:148] Top shape: 10 192 28 28 (1505280)
2016-07-15 00:38:36.920 STDERR [INFO] I0715 00:38:36.918588 26092 net.cpp:156] Memory required for data: 204718080
2016-07-15 00:38:36.920 STDERR [INFO] I0715 00:38:36.918593 26092 layer_factory.hpp:77] Creating layer inception_3a/1x1
2016-07-15 00:38:36.920 STDERR [INFO] I0715 00:38:36.918612 26092 net.cpp:91] Creating Layer inception_3a/1x1
2016-07-15 00:38:36.920 STDERR [INFO] I0715 00:38:36.918617 26092 net.cpp:425] inception_3a/1x1 <- pool2/3x3_s2_pool2/3x3_s2_0_split_0
2016-07-15 00:38:36.920 STDERR [INFO] I0715 00:38:36.918627 26092 net.cpp:399] inception_3a/1x1 -> inception_3a/1x1
2016-07-15 00:38:36.925 STDERR [INFO] I0715 00:38:36.925312 26092 net.cpp:141] Setting up inception_3a/1x1
2016-07-15 00:38:36.925 STDERR [INFO] I0715 00:38:36.925336 26092 net.cpp:148] Top shape: 10 64 28 28 (501760)
2016-07-15 00:38:36.925 STDERR [INFO] I0715 00:38:36.925343 26092 net.cpp:156] Memory required for data: 206725120
2016-07-15 00:38:36.925 STDERR [INFO] I0715 00:38:36.925341 26088 net.cpp:141] Setting up inception_3a/1x1
2016-07-15 00:38:36.925 STDERR [INFO] I0715 00:38:36.925354 26092 layer_factory.hpp:77] Creating layer inception_3a/relu_1x1
2016-07-15 00:38:36.925 STDERR [INFO] I0715 00:38:36.925359 26088 net.cpp:148] Top shape: 10 64 28 28 (501760)
2016-07-15 00:38:36.925 STDERR [INFO] I0715 00:38:36.925364 26092 net.cpp:91] Creating Layer inception_3a/relu_1x1
2016-07-15 00:38:36.925 STDERR [INFO] I0715 00:38:36.925364 26088 net.cpp:156] Memory required for data: 206725120
2016-07-15 00:38:36.925 STDERR [INFO] I0715 00:38:36.925372 26092 net.cpp:425] inception_3a/relu_1x1 <- inception_3a/1x1
2016-07-15 00:38:36.925 STDERR [INFO] I0715 00:38:36.925381 26092 net.cpp:386] inception_3a/relu_1x1 -> inception_3a/1x1 (in-place)
2016-07-15 00:38:36.926 STDERR [INFO] I0715 00:38:36.925382 26088 layer_factory.hpp:77] Creating layer inception_3a/relu_1x1
2016-07-15 00:38:36.926 STDERR [INFO] I0715 00:38:36.925393 26088 net.cpp:91] Creating Layer inception_3a/relu_1x1
2016-07-15 00:38:36.926 STDERR [INFO] I0715 00:38:36.925400 26088 net.cpp:425] inception_3a/relu_1x1 <- inception_3a/1x1
2016-07-15 00:38:36.926 STDERR [INFO] I0715 00:38:36.925407 26088 net.cpp:386] inception_3a/relu_1x1 -> inception_3a/1x1 (in-place)
2016-07-15 00:38:36.926 STDERR [INFO] I0715 00:38:36.926520 26092 net.cpp:141] Setting up inception_3a/relu_1x1
2016-07-15 00:38:36.926 STDERR [INFO] I0715 00:38:36.926525 26088 net.cpp:141] Setting up inception_3a/relu_1x1
2016-07-15 00:38:36.926 STDERR [INFO] I0715 00:38:36.926542 26092 net.cpp:148] Top shape: 10 64 28 28 (501760)
2016-07-15 00:38:36.926 STDERR [INFO] I0715 00:38:36.926547 26088 net.cpp:148] Top shape: 10 64 28 28 (501760)
2016-07-15 00:38:36.926 STDERR [INFO] I0715 00:38:36.926548 26092 net.cpp:156] Memory required for data: 208732160
2016-07-15 00:38:36.926 STDERR [INFO] I0715 00:38:36.926555 26088 net.cpp:156] Memory required for data: 208732160
2016-07-15 00:38:36.926 STDERR [INFO] I0715 00:38:36.926563 26092 layer_factory.hpp:77] Creating layer inception_3a/3x3_reduce
2016-07-15 00:38:36.926 STDERR [INFO] I0715 00:38:36.926566 26088 layer_factory.hpp:77] Creating layer inception_3a/3x3_reduce
2016-07-15 00:38:36.927 STDERR [INFO] I0715 00:38:36.926581 26092 net.cpp:91] Creating Layer inception_3a/3x3_reduce
2016-07-15 00:38:36.927 STDERR [INFO] I0715 00:38:36.926586 26088 net.cpp:91] Creating Layer inception_3a/3x3_reduce
2016-07-15 00:38:36.927 STDERR [INFO] I0715 00:38:36.926589 26092 net.cpp:425] inception_3a/3x3_reduce <- pool2/3x3_s2_pool2/3x3_s2_0_split_1
2016-07-15 00:38:36.927 STDERR [INFO] I0715 00:38:36.926594 26088 net.cpp:425] inception_3a/3x3_reduce <- pool2/3x3_s2_pool2/3x3_s2_0_split_1
2016-07-15 00:38:36.927 STDERR [INFO] I0715 00:38:36.926599 26092 net.cpp:399] inception_3a/3x3_reduce -> inception_3a/3x3_reduce
2016-07-15 00:38:36.927 STDERR [INFO] I0715 00:38:36.926604 26088 net.cpp:399] inception_3a/3x3_reduce -> inception_3a/3x3_reduce
2016-07-15 00:38:36.933 STDERR [INFO] I0715 00:38:36.932907 26092 net.cpp:141] Setting up inception_3a/3x3_reduce
2016-07-15 00:38:36.933 STDERR [INFO] I0715 00:38:36.932929 26092 net.cpp:148] Top shape: 10 96 28 28 (752640)
2016-07-15 00:38:36.933 STDERR [INFO] I0715 00:38:36.932934 26092 net.cpp:156] Memory required for data: 211742720
2016-07-15 00:38:36.933 STDERR [INFO] I0715 00:38:36.932931 26088 net.cpp:141] Setting up inception_3a/3x3_reduce
2016-07-15 00:38:36.933 STDERR [INFO] I0715 00:38:36.932952 26092 layer_factory.hpp:77] Creating layer inception_3a/relu_3x3_reduce
2016-07-15 00:38:36.933 STDERR [INFO] I0715 00:38:36.932953 26088 net.cpp:148] Top shape: 10 96 28 28 (752640)
2016-07-15 00:38:36.933 STDERR [INFO] I0715 00:38:36.932960 26088 net.cpp:156] Memory required for data: 211742720
2016-07-15 00:38:36.933 STDERR [INFO] I0715 00:38:36.932965 26092 net.cpp:91] Creating Layer inception_3a/relu_3x3_reduce
2016-07-15 00:38:36.933 STDERR [INFO] I0715 00:38:36.932971 26092 net.cpp:425] inception_3a/relu_3x3_reduce <- inception_3a/3x3_reduce
2016-07-15 00:38:36.933 STDERR [INFO] I0715 00:38:36.932974 26088 layer_factory.hpp:77] Creating layer inception_3a/relu_3x3_reduce
2016-07-15 00:38:36.933 STDERR [INFO] I0715 00:38:36.932979 26092 net.cpp:386] inception_3a/relu_3x3_reduce -> inception_3a/3x3_reduce (in-place)
2016-07-15 00:38:36.933 STDERR [INFO] I0715 00:38:36.932986 26088 net.cpp:91] Creating Layer inception_3a/relu_3x3_reduce
2016-07-15 00:38:36.933 STDERR [INFO] I0715 00:38:36.932993 26088 net.cpp:425] inception_3a/relu_3x3_reduce <- inception_3a/3x3_reduce
2016-07-15 00:38:36.933 STDERR [INFO] I0715 00:38:36.933001 26088 net.cpp:386] inception_3a/relu_3x3_reduce -> inception_3a/3x3_reduce (in-place)
2016-07-15 00:38:36.934 STDERR [INFO] I0715 00:38:36.934094 26092 net.cpp:141] Setting up inception_3a/relu_3x3_reduce
2016-07-15 00:38:36.934 STDERR [INFO] I0715 00:38:36.934111 26092 net.cpp:148] Top shape: 10 96 28 28 (752640)
2016-07-15 00:38:36.934 STDERR [INFO] I0715 00:38:36.934116 26092 net.cpp:156] Memory required for data: 214753280
2016-07-15 00:38:36.934 STDERR [INFO] I0715 00:38:36.934118 26088 net.cpp:141] Setting up inception_3a/relu_3x3_reduce
2016-07-15 00:38:36.934 STDERR [INFO] I0715 00:38:36.934123 26092 layer_factory.hpp:77] Creating layer inception_3a/3x3
2016-07-15 00:38:36.934 STDERR [INFO] I0715 00:38:36.934134 26088 net.cpp:148] Top shape: 10 96 28 28 (752640)
2016-07-15 00:38:36.934 STDERR [INFO] I0715 00:38:36.934139 26088 net.cpp:156] Memory required for data: 214753280
2016-07-15 00:38:36.934 STDERR [INFO] I0715 00:38:36.934145 26088 layer_factory.hpp:77] Creating layer inception_3a/3x3
2016-07-15 00:38:36.934 STDERR [INFO] I0715 00:38:36.934150 26092 net.cpp:91] Creating Layer inception_3a/3x3
2016-07-15 00:38:36.934 STDERR [INFO] I0715 00:38:36.934157 26092 net.cpp:425] inception_3a/3x3 <- inception_3a/3x3_reduce
2016-07-15 00:38:36.934 STDERR [INFO] I0715 00:38:36.934167 26088 net.cpp:91] Creating Layer inception_3a/3x3
2016-07-15 00:38:36.934 STDERR [INFO] I0715 00:38:36.934170 26092 net.cpp:399] inception_3a/3x3 -> inception_3a/3x3
2016-07-15 00:38:36.934 STDERR [INFO] I0715 00:38:36.934175 26088 net.cpp:425] inception_3a/3x3 <- inception_3a/3x3_reduce
2016-07-15 00:38:36.934 STDERR [INFO] I0715 00:38:36.934188 26088 net.cpp:399] inception_3a/3x3 -> inception_3a/3x3
2016-07-15 00:38:36.941 STDERR [INFO] I0715 00:38:36.940919 26092 net.cpp:141] Setting up inception_3a/3x3
2016-07-15 00:38:36.941 STDERR [INFO] I0715 00:38:36.940940 26092 net.cpp:148] Top shape: 10 128 28 28 (1003520)
2016-07-15 00:38:36.941 STDERR [INFO] I0715 00:38:36.940945 26092 net.cpp:156] Memory required for data: 218767360
2016-07-15 00:38:36.941 STDERR [INFO] I0715 00:38:36.940955 26092 layer_factory.hpp:77] Creating layer inception_3a/relu_3x3
2016-07-15 00:38:36.941 STDERR [INFO] I0715 00:38:36.940965 26092 net.cpp:91] Creating Layer inception_3a/relu_3x3
2016-07-15 00:38:36.941 STDERR [INFO] I0715 00:38:36.940971 26092 net.cpp:425] inception_3a/relu_3x3 <- inception_3a/3x3
2016-07-15 00:38:36.941 STDERR [INFO] I0715 00:38:36.940981 26092 net.cpp:386] inception_3a/relu_3x3 -> inception_3a/3x3 (in-place)
2016-07-15 00:38:36.941 STDERR [INFO] I0715 00:38:36.941016 26088 net.cpp:141] Setting up inception_3a/3x3
2016-07-15 00:38:36.941 STDERR [INFO] I0715 00:38:36.941035 26088 net.cpp:148] Top shape: 10 128 28 28 (1003520)
2016-07-15 00:38:36.941 STDERR [INFO] I0715 00:38:36.941040 26088 net.cpp:156] Memory required for data: 218767360
2016-07-15 00:38:36.941 STDERR [INFO] I0715 00:38:36.941051 26088 layer_factory.hpp:77] Creating layer inception_3a/relu_3x3
2016-07-15 00:38:36.941 STDERR [INFO] I0715 00:38:36.941061 26088 net.cpp:91] Creating Layer inception_3a/relu_3x3
2016-07-15 00:38:36.941 STDERR [INFO] I0715 00:38:36.941066 26088 net.cpp:425] inception_3a/relu_3x3 <- inception_3a/3x3
2016-07-15 00:38:36.941 STDERR [INFO] I0715 00:38:36.941073 26088 net.cpp:386] inception_3a/relu_3x3 -> inception_3a/3x3 (in-place)
2016-07-15 00:38:36.942 STDERR [INFO] I0715 00:38:36.942116 26092 net.cpp:141] Setting up inception_3a/relu_3x3
2016-07-15 00:38:36.942 STDERR [INFO] I0715 00:38:36.942121 26088 net.cpp:141] Setting up inception_3a/relu_3x3
2016-07-15 00:38:36.942 STDERR [INFO] I0715 00:38:36.942134 26092 net.cpp:148] Top shape: 10 128 28 28 (1003520)
2016-07-15 00:38:36.942 STDERR [INFO] I0715 00:38:36.942137 26088 net.cpp:148] Top shape: 10 128 28 28 (1003520)
2016-07-15 00:38:36.942 STDERR [INFO] I0715 00:38:36.942139 26092 net.cpp:156] Memory required for data: 222781440
2016-07-15 00:38:36.942 STDERR [INFO] I0715 00:38:36.942142 26088 net.cpp:156] Memory required for data: 222781440
2016-07-15 00:38:36.942 STDERR [INFO] I0715 00:38:36.942145 26092 layer_factory.hpp:77] Creating layer inception_3a/5x5_reduce
2016-07-15 00:38:36.942 STDERR [INFO] I0715 00:38:36.942148 26088 layer_factory.hpp:77] Creating layer inception_3a/5x5_reduce
2016-07-15 00:38:36.942 STDERR [INFO] I0715 00:38:36.942162 26092 net.cpp:91] Creating Layer inception_3a/5x5_reduce
2016-07-15 00:38:36.942 STDERR [INFO] I0715 00:38:36.942167 26088 net.cpp:91] Creating Layer inception_3a/5x5_reduce
2016-07-15 00:38:36.942 STDERR [INFO] I0715 00:38:36.942168 26092 net.cpp:425] inception_3a/5x5_reduce <- pool2/3x3_s2_pool2/3x3_s2_0_split_2
2016-07-15 00:38:36.942 STDERR [INFO] I0715 00:38:36.942173 26088 net.cpp:425] inception_3a/5x5_reduce <- pool2/3x3_s2_pool2/3x3_s2_0_split_2
2016-07-15 00:38:36.942 STDERR [INFO] I0715 00:38:36.942179 26092 net.cpp:399] inception_3a/5x5_reduce -> inception_3a/5x5_reduce
2016-07-15 00:38:36.942 STDERR [INFO] I0715 00:38:36.942186 26088 net.cpp:399] inception_3a/5x5_reduce -> inception_3a/5x5_reduce
2016-07-15 00:38:36.946 STDERR [INFO] I0715 00:38:36.946468 26088 net.cpp:141] Setting up inception_3a/5x5_reduce
2016-07-15 00:38:36.946 STDERR [INFO] I0715 00:38:36.946486 26088 net.cpp:148] Top shape: 10 16 28 28 (125440)
2016-07-15 00:38:36.946 STDERR [INFO] I0715 00:38:36.946491 26088 net.cpp:156] Memory required for data: 223283200
2016-07-15 00:38:36.946 STDERR [INFO] I0715 00:38:36.946501 26088 layer_factory.hpp:77] Creating layer inception_3a/relu_5x5_reduce
2016-07-15 00:38:36.946 STDERR [INFO] I0715 00:38:36.946511 26088 net.cpp:91] Creating Layer inception_3a/relu_5x5_reduce
2016-07-15 00:38:36.946 STDERR [INFO] I0715 00:38:36.946516 26088 net.cpp:425] inception_3a/relu_5x5_reduce <- inception_3a/5x5_reduce
2016-07-15 00:38:36.946 STDERR [INFO] I0715 00:38:36.946527 26088 net.cpp:386] inception_3a/relu_5x5_reduce -> inception_3a/5x5_reduce (in-place)
2016-07-15 00:38:36.947 STDERR [INFO] I0715 00:38:36.947389 26092 net.cpp:141] Setting up inception_3a/5x5_reduce
2016-07-15 00:38:36.947 STDERR [INFO] I0715 00:38:36.947408 26092 net.cpp:148] Top shape: 10 16 28 28 (125440)
2016-07-15 00:38:36.947 STDERR [INFO] I0715 00:38:36.947413 26092 net.cpp:156] Memory required for data: 223283200
2016-07-15 00:38:36.947 STDERR [INFO] I0715 00:38:36.947424 26092 layer_factory.hpp:77] Creating layer inception_3a/relu_5x5_reduce
2016-07-15 00:38:36.947 STDERR [INFO] I0715 00:38:36.947434 26092 net.cpp:91] Creating Layer inception_3a/relu_5x5_reduce
2016-07-15 00:38:36.947 STDERR [INFO] I0715 00:38:36.947440 26092 net.cpp:425] inception_3a/relu_5x5_reduce <- inception_3a/5x5_reduce
2016-07-15 00:38:36.947 STDERR [INFO] I0715 00:38:36.947448 26092 net.cpp:386] inception_3a/relu_5x5_reduce -> inception_3a/5x5_reduce (in-place)
2016-07-15 00:38:36.947 STDERR [INFO] I0715 00:38:36.947667 26088 net.cpp:141] Setting up inception_3a/relu_5x5_reduce
2016-07-15 00:38:36.947 STDERR [INFO] I0715 00:38:36.947682 26088 net.cpp:148] Top shape: 10 16 28 28 (125440)
2016-07-15 00:38:36.947 STDERR [INFO] I0715 00:38:36.947687 26088 net.cpp:156] Memory required for data: 223784960
2016-07-15 00:38:36.948 STDERR [INFO] I0715 00:38:36.947692 26088 layer_factory.hpp:77] Creating layer inception_3a/5x5
2016-07-15 00:38:36.948 STDERR [INFO] I0715 00:38:36.947710 26088 net.cpp:91] Creating Layer inception_3a/5x5
2016-07-15 00:38:36.948 STDERR [INFO] I0715 00:38:36.947716 26088 net.cpp:425] inception_3a/5x5 <- inception_3a/5x5_reduce
2016-07-15 00:38:36.948 STDERR [INFO] I0715 00:38:36.947731 26088 net.cpp:399] inception_3a/5x5 -> inception_3a/5x5
2016-07-15 00:38:36.948 STDERR [INFO] I0715 00:38:36.947751 26092 net.cpp:141] Setting up inception_3a/relu_5x5_reduce
2016-07-15 00:38:36.948 STDERR [INFO] I0715 00:38:36.947765 26092 net.cpp:148] Top shape: 10 16 28 28 (125440)
2016-07-15 00:38:36.948 STDERR [INFO] I0715 00:38:36.947770 26092 net.cpp:156] Memory required for data: 223784960
2016-07-15 00:38:36.948 STDERR [INFO] I0715 00:38:36.947775 26092 layer_factory.hpp:77] Creating layer inception_3a/5x5
2016-07-15 00:38:36.948 STDERR [INFO] I0715 00:38:36.947791 26092 net.cpp:91] Creating Layer inception_3a/5x5
2016-07-15 00:38:36.948 STDERR [INFO] I0715 00:38:36.947798 26092 net.cpp:425] inception_3a/5x5 <- inception_3a/5x5_reduce
2016-07-15 00:38:36.948 STDERR [INFO] I0715 00:38:36.947809 26092 net.cpp:399] inception_3a/5x5 -> inception_3a/5x5
2016-07-15 00:38:36.953 STDERR [INFO] I0715 00:38:36.953738 26088 net.cpp:141] Setting up inception_3a/5x5
2016-07-15 00:38:36.953 STDERR [INFO] I0715 00:38:36.953758 26088 net.cpp:148] Top shape: 10 32 28 28 (250880)
2016-07-15 00:38:36.954 STDERR [INFO] I0715 00:38:36.953764 26088 net.cpp:156] Memory required for data: 224788480
2016-07-15 00:38:36.954 STDERR [INFO] I0715 00:38:36.953774 26088 layer_factory.hpp:77] Creating layer inception_3a/relu_5x5
2016-07-15 00:38:36.954 STDERR [INFO] I0715 00:38:36.953788 26088 net.cpp:91] Creating Layer inception_3a/relu_5x5
2016-07-15 00:38:36.954 STDERR [INFO] I0715 00:38:36.953794 26088 net.cpp:425] inception_3a/relu_5x5 <- inception_3a/5x5
2016-07-15 00:38:36.954 STDERR [INFO] I0715 00:38:36.953802 26088 net.cpp:386] inception_3a/relu_5x5 -> inception_3a/5x5 (in-place)
2016-07-15 00:38:36.955 STDERR [INFO] I0715 00:38:36.955363 26092 net.cpp:141] Setting up inception_3a/5x5
2016-07-15 00:38:36.955 STDERR [INFO] I0715 00:38:36.955382 26092 net.cpp:148] Top shape: 10 32 28 28 (250880)
2016-07-15 00:38:36.955 STDERR [INFO] I0715 00:38:36.955390 26092 net.cpp:156] Memory required for data: 224788480
2016-07-15 00:38:36.955 STDERR [INFO] I0715 00:38:36.955400 26092 layer_factory.hpp:77] Creating layer inception_3a/relu_5x5
2016-07-15 00:38:36.955 STDERR [INFO] I0715 00:38:36.955410 26092 net.cpp:91] Creating Layer inception_3a/relu_5x5
2016-07-15 00:38:36.955 STDERR [INFO] I0715 00:38:36.955416 26092 net.cpp:425] inception_3a/relu_5x5 <- inception_3a/5x5
2016-07-15 00:38:36.955 STDERR [INFO] I0715 00:38:36.955425 26092 net.cpp:386] inception_3a/relu_5x5 -> inception_3a/5x5 (in-place)
2016-07-15 00:38:36.955 STDERR [INFO] I0715 00:38:36.955425 26088 net.cpp:141] Setting up inception_3a/relu_5x5
2016-07-15 00:38:36.955 STDERR [INFO] I0715 00:38:36.955440 26088 net.cpp:148] Top shape: 10 32 28 28 (250880)
2016-07-15 00:38:36.955 STDERR [INFO] I0715 00:38:36.955446 26088 net.cpp:156] Memory required for data: 225792000
2016-07-15 00:38:36.955 STDERR [INFO] I0715 00:38:36.955451 26088 layer_factory.hpp:77] Creating layer inception_3a/pool
2016-07-15 00:38:36.956 STDERR [INFO] I0715 00:38:36.955466 26088 net.cpp:91] Creating Layer inception_3a/pool
2016-07-15 00:38:36.956 STDERR [INFO] I0715 00:38:36.955471 26088 net.cpp:425] inception_3a/pool <- pool2/3x3_s2_pool2/3x3_s2_0_split_3
2016-07-15 00:38:36.956 STDERR [INFO] I0715 00:38:36.955482 26088 net.cpp:399] inception_3a/pool -> inception_3a/pool
2016-07-15 00:38:36.956 STDERR [INFO] I0715 00:38:36.955732 26088 net.cpp:141] Setting up inception_3a/pool
2016-07-15 00:38:36.956 STDERR [INFO] I0715 00:38:36.955744 26088 net.cpp:148] Top shape: 10 192 28 28 (1505280)
2016-07-15 00:38:36.956 STDERR [INFO] I0715 00:38:36.955749 26088 net.cpp:156] Memory required for data: 231813120
2016-07-15 00:38:36.956 STDERR [INFO] I0715 00:38:36.955754 26088 layer_factory.hpp:77] Creating layer inception_3a/pool_proj
2016-07-15 00:38:36.956 STDERR [INFO] I0715 00:38:36.955771 26088 net.cpp:91] Creating Layer inception_3a/pool_proj
2016-07-15 00:38:36.956 STDERR [INFO] I0715 00:38:36.955777 26088 net.cpp:425] inception_3a/pool_proj <- inception_3a/pool
2016-07-15 00:38:36.956 STDERR [INFO] I0715 00:38:36.955802 26088 net.cpp:399] inception_3a/pool_proj -> inception_3a/pool_proj
2016-07-15 00:38:36.956 STDERR [INFO] I0715 00:38:36.955801 26092 net.cpp:141] Setting up inception_3a/relu_5x5
2016-07-15 00:38:36.956 STDERR [INFO] I0715 00:38:36.955821 26092 net.cpp:148] Top shape: 10 32 28 28 (250880)
2016-07-15 00:38:36.956 STDERR [INFO] I0715 00:38:36.955826 26092 net.cpp:156] Memory required for data: 225792000
2016-07-15 00:38:36.956 STDERR [INFO] I0715 00:38:36.955832 26092 layer_factory.hpp:77] Creating layer inception_3a/pool
2016-07-15 00:38:36.956 STDERR [INFO] I0715 00:38:36.955843 26092 net.cpp:91] Creating Layer inception_3a/pool
2016-07-15 00:38:36.956 STDERR [INFO] I0715 00:38:36.955848 26092 net.cpp:425] inception_3a/pool <- pool2/3x3_s2_pool2/3x3_s2_0_split_3
2016-07-15 00:38:36.956 STDERR [INFO] I0715 00:38:36.955859 26092 net.cpp:399] inception_3a/pool -> inception_3a/pool
2016-07-15 00:38:36.956 STDERR [INFO] I0715 00:38:36.956092 26092 net.cpp:141] Setting up inception_3a/pool
2016-07-15 00:38:36.956 STDERR [INFO] I0715 00:38:36.956106 26092 net.cpp:148] Top shape: 10 192 28 28 (1505280)
2016-07-15 00:38:36.956 STDERR [INFO] I0715 00:38:36.956111 26092 net.cpp:156] Memory required for data: 231813120
2016-07-15 00:38:36.956 STDERR [INFO] I0715 00:38:36.956117 26092 layer_factory.hpp:77] Creating layer inception_3a/pool_proj
2016-07-15 00:38:36.956 STDERR [INFO] I0715 00:38:36.956132 26092 net.cpp:91] Creating Layer inception_3a/pool_proj
2016-07-15 00:38:36.957 STDERR [INFO] I0715 00:38:36.956140 26092 net.cpp:425] inception_3a/pool_proj <- inception_3a/pool
2016-07-15 00:38:36.957 STDERR [INFO] I0715 00:38:36.956148 26092 net.cpp:399] inception_3a/pool_proj -> inception_3a/pool_proj
2016-07-15 00:38:36.960 STDERR [INFO] I0715 00:38:36.960736 26088 net.cpp:141] Setting up inception_3a/pool_proj
2016-07-15 00:38:36.960 STDERR [INFO] I0715 00:38:36.960754 26088 net.cpp:148] Top shape: 10 32 28 28 (250880)
2016-07-15 00:38:36.961 STDERR [INFO] I0715 00:38:36.960760 26088 net.cpp:156] Memory required for data: 232816640
2016-07-15 00:38:36.961 STDERR [INFO] I0715 00:38:36.960774 26088 layer_factory.hpp:77] Creating layer inception_3a/relu_pool_proj
2016-07-15 00:38:36.961 STDERR [INFO] I0715 00:38:36.960788 26088 net.cpp:91] Creating Layer inception_3a/relu_pool_proj
2016-07-15 00:38:36.961 STDERR [INFO] I0715 00:38:36.960794 26088 net.cpp:425] inception_3a/relu_pool_proj <- inception_3a/pool_proj
2016-07-15 00:38:36.961 STDERR [INFO] I0715 00:38:36.960803 26088 net.cpp:386] inception_3a/relu_pool_proj -> inception_3a/pool_proj (in-place)
2016-07-15 00:38:36.961 STDERR [INFO] I0715 00:38:36.961197 26092 net.cpp:141] Setting up inception_3a/pool_proj
2016-07-15 00:38:36.961 STDERR [INFO] I0715 00:38:36.961213 26092 net.cpp:148] Top shape: 10 32 28 28 (250880)
2016-07-15 00:38:36.961 STDERR [INFO] I0715 00:38:36.961218 26092 net.cpp:156] Memory required for data: 232816640
2016-07-15 00:38:36.961 STDERR [INFO] I0715 00:38:36.961236 26092 layer_factory.hpp:77] Creating layer inception_3a/relu_pool_proj
2016-07-15 00:38:36.961 STDERR [INFO] I0715 00:38:36.961247 26092 net.cpp:91] Creating Layer inception_3a/relu_pool_proj
2016-07-15 00:38:36.961 STDERR [INFO] I0715 00:38:36.961254 26092 net.cpp:425] inception_3a/relu_pool_proj <- inception_3a/pool_proj
2016-07-15 00:38:36.961 STDERR [INFO] I0715 00:38:36.961259 26088 net.cpp:141] Setting up inception_3a/relu_pool_proj
2016-07-15 00:38:36.961 STDERR [INFO] I0715 00:38:36.961262 26092 net.cpp:386] inception_3a/relu_pool_proj -> inception_3a/pool_proj (in-place)
2016-07-15 00:38:36.961 STDERR [INFO] I0715 00:38:36.961275 26088 net.cpp:148] Top shape: 10 32 28 28 (250880)
2016-07-15 00:38:36.961 STDERR [INFO] I0715 00:38:36.961280 26088 net.cpp:156] Memory required for data: 233820160
2016-07-15 00:38:36.961 STDERR [INFO] I0715 00:38:36.961287 26088 layer_factory.hpp:77] Creating layer inception_3a/output
2016-07-15 00:38:36.961 STDERR [INFO] I0715 00:38:36.961305 26088 net.cpp:91] Creating Layer inception_3a/output
2016-07-15 00:38:36.961 STDERR [INFO] I0715 00:38:36.961311 26088 net.cpp:425] inception_3a/output <- inception_3a/1x1
2016-07-15 00:38:36.961 STDERR [INFO] I0715 00:38:36.961318 26088 net.cpp:425] inception_3a/output <- inception_3a/3x3
2016-07-15 00:38:36.961 STDERR [INFO] I0715 00:38:36.961324 26088 net.cpp:425] inception_3a/output <- inception_3a/5x5
2016-07-15 00:38:36.961 STDERR [INFO] I0715 00:38:36.961330 26088 net.cpp:425] inception_3a/output <- inception_3a/pool_proj
2016-07-15 00:38:36.961 STDERR [INFO] I0715 00:38:36.961336 26088 net.cpp:399] inception_3a/output -> inception_3a/output
2016-07-15 00:38:36.962 STDERR [INFO] I0715 00:38:36.962039 26088 net.cpp:141] Setting up inception_3a/output
2016-07-15 00:38:36.962 STDERR [INFO] I0715 00:38:36.962052 26088 net.cpp:148] Top shape: 10 256 28 28 (2007040)
2016-07-15 00:38:36.962 STDERR [INFO] I0715 00:38:36.962057 26088 net.cpp:156] Memory required for data: 241848320
2016-07-15 00:38:36.962 STDERR [INFO] I0715 00:38:36.962064 26088 layer_factory.hpp:77] Creating layer inception_3a/output_inception_3a/output_0_split
2016-07-15 00:38:36.962 STDERR [INFO] I0715 00:38:36.962075 26088 net.cpp:91] Creating Layer inception_3a/output_inception_3a/output_0_split
2016-07-15 00:38:36.962 STDERR [INFO] I0715 00:38:36.962080 26088 net.cpp:425] inception_3a/output_inception_3a/output_0_split <- inception_3a/output
2016-07-15 00:38:36.962 STDERR [INFO] I0715 00:38:36.962088 26088 net.cpp:399] inception_3a/output_inception_3a/output_0_split -> inception_3a/output_inception_3a/output_0_split_0
2016-07-15 00:38:36.962 STDERR [INFO] I0715 00:38:36.962098 26088 net.cpp:399] inception_3a/output_inception_3a/output_0_split -> inception_3a/output_inception_3a/output_0_split_1
2016-07-15 00:38:36.962 STDERR [INFO] I0715 00:38:36.962107 26088 net.cpp:399] inception_3a/output_inception_3a/output_0_split -> inception_3a/output_inception_3a/output_0_split_2
2016-07-15 00:38:36.962 STDERR [INFO] I0715 00:38:36.962116 26088 net.cpp:399] inception_3a/output_inception_3a/output_0_split -> inception_3a/output_inception_3a/output_0_split_3
2016-07-15 00:38:36.962 STDERR [INFO] I0715 00:38:36.962129 26092 net.cpp:141] Setting up inception_3a/relu_pool_proj
2016-07-15 00:38:36.962 STDERR [INFO] I0715 00:38:36.962144 26092 net.cpp:148] Top shape: 10 32 28 28 (250880)
2016-07-15 00:38:36.962 STDERR [INFO] I0715 00:38:36.962149 26092 net.cpp:156] Memory required for data: 233820160
2016-07-15 00:38:36.962 STDERR [INFO] I0715 00:38:36.962157 26092 layer_factory.hpp:77] Creating layer inception_3a/output
2016-07-15 00:38:36.962 STDERR [INFO] I0715 00:38:36.962165 26092 net.cpp:91] Creating Layer inception_3a/output
2016-07-15 00:38:36.962 STDERR [INFO] I0715 00:38:36.962173 26092 net.cpp:425] inception_3a/output <- inception_3a/1x1
2016-07-15 00:38:36.962 STDERR [INFO] I0715 00:38:36.962180 26092 net.cpp:425] inception_3a/output <- inception_3a/3x3
2016-07-15 00:38:36.962 STDERR [INFO] I0715 00:38:36.962185 26092 net.cpp:425] inception_3a/output <- inception_3a/5x5
2016-07-15 00:38:36.963 STDERR [INFO] I0715 00:38:36.962191 26092 net.cpp:425] inception_3a/output <- inception_3a/pool_proj
2016-07-15 00:38:36.963 STDERR [INFO] I0715 00:38:36.962198 26092 net.cpp:399] inception_3a/output -> inception_3a/output
2016-07-15 00:38:36.963 STDERR [INFO] I0715 00:38:36.962214 26088 net.cpp:141] Setting up inception_3a/output_inception_3a/output_0_split
2016-07-15 00:38:36.963 STDERR [INFO] I0715 00:38:36.962225 26088 net.cpp:148] Top shape: 10 256 28 28 (2007040)
2016-07-15 00:38:36.963 STDERR [INFO] I0715 00:38:36.962231 26088 net.cpp:148] Top shape: 10 256 28 28 (2007040)
2016-07-15 00:38:36.963 STDERR [INFO] I0715 00:38:36.962237 26088 net.cpp:148] Top shape: 10 256 28 28 (2007040)
2016-07-15 00:38:36.963 STDERR [INFO] I0715 00:38:36.962244 26088 net.cpp:148] Top shape: 10 256 28 28 (2007040)
2016-07-15 00:38:36.963 STDERR [INFO] I0715 00:38:36.962245 26092 net.cpp:141] Setting up inception_3a/output
2016-07-15 00:38:36.963 STDERR [INFO] I0715 00:38:36.962247 26088 net.cpp:156] Memory required for data: 273960960
2016-07-15 00:38:36.963 STDERR [INFO] I0715 00:38:36.962260 26092 net.cpp:148] Top shape: 10 256 28 28 (2007040)
2016-07-15 00:38:36.963 STDERR [INFO] I0715 00:38:36.962260 26088 layer_factory.hpp:77] Creating layer inception_3b/1x1
2016-07-15 00:38:36.963 STDERR [INFO] I0715 00:38:36.962265 26092 net.cpp:156] Memory required for data: 241848320
2016-07-15 00:38:36.963 STDERR [INFO] I0715 00:38:36.962270 26092 layer_factory.hpp:77] Creating layer inception_3a/output_inception_3a/output_0_split
…
2016-07-15 00:38:36.963 STDERR [INFO] I0715 00:38:36.962306 26092 net.cpp:399] inception_3a/output_inception_3a/output_0_split -> inception_3a/output_inception_3a/output_0_split_1
2016-07-15 00:38:36.963 STDERR [INFO] I0715 00:38:36.962316 26092 net.cpp:399] inception_3a/output_inception_3a/output_0_split -> inception_3a/output_inception_3a/output_0_split_2
2016-07-15 00:38:36.963 STDERR [INFO] I0715 00:38:36.962323 26092 net.cpp:399] inception_3a/output_inception_3a/output_0_split -> inception_3a/output_inception_3a/output_0_split_3
2016-07-15 00:38:36.963 STDERR [INFO] I0715 00:38:36.962638 26092 net.cpp:141] Setting up inception_3a/output_inception_3a/output_0_split
2016-07-15 00:38:36.963 STDERR [INFO] I0715 00:38:36.962651 26092 net.cpp:148] Top shape: 10 256 28 28 (2007040)
2016-07-15 00:38:36.964 STDERR [INFO] I0715 00:38:36.962656 26092 net.cpp:148] Top shape: 10 256 28 28 (2007040)
2016-07-15 00:38:36.964 STDERR [INFO] I0715 00:38:36.962662 26092 net.cpp:148] Top shape: 10 256 28 28 (2007040)
2016-07-15 00:38:36.964 STDERR [INFO] I0715 00:38:36.962668 26092 net.cpp:148] Top shape: 10 256 28 28 (2007040)
2016-07-15 00:38:36.964 STDERR [INFO] I0715 00:38:36.962672 26092 net.cpp:156] Memory required for data: 273960960
2016-07-15 00:38:36.964 STDERR [INFO] I0715 00:38:36.962677 26092 layer_factory.hpp:77] Creating layer inception_3b/1x1
2016-07-15 00:38:36.964 STDERR [INFO] I0715 00:38:36.962702 26092 net.cpp:91] Creating Layer inception_3b/1x1
2016-07-15 00:38:36.964 STDERR [INFO] I0715 00:38:36.962709 26092 net.cpp:425] inception_3b/1x1 <- inception_3a/output_inception_3a/output_0_split_0
2016-07-15 00:38:36.964 STDERR [INFO] I0715 00:38:36.962721 26092 net.cpp:399] inception_3b/1x1 -> inception_3b/1x1
2016-07-15 00:38:36.966 STDERR [INFO] I0715 00:38:36.966399 26088 net.cpp:141] Setting up inception_3b/1x1
2016-07-15 00:38:36.966 STDERR [INFO] I0715 00:38:36.966418 26088 net.cpp:148] Top shape: 10 128 28 28 (1003520)
2016-07-15 00:38:36.966 STDERR [INFO] I0715 00:38:36.966423 26088 net.cpp:156] Memory required for data: 277975040
2016-07-15 00:38:36.966 STDERR [INFO] I0715 00:38:36.966433 26088 layer_factory.hpp:77] Creating layer inception_3b/relu_1x1
2016-07-15 00:38:36.966 STDERR [INFO] I0715 00:38:36.966441 26088 net.cpp:91] Creating Layer inception_3b/relu_1x1
2016-07-15 00:38:36.966 STDERR [INFO] I0715 00:38:36.966447 26088 net.cpp:425] inception_3b/relu_1x1 <- inception_3b/1x1
2016-07-15 00:38:36.966 STDERR [INFO] I0715 00:38:36.966466 26088 net.cpp:386] inception_3b/relu_1x1 -> inception_3b/1x1 (in-place)
2016-07-15 00:38:36.967 STDERR [INFO] I0715 00:38:36.967597 26088 net.cpp:141] Setting up inception_3b/relu_1x1
2016-07-15 00:38:36.967 STDERR [INFO] I0715 00:38:36.967612 26088 net.cpp:148] Top shape: 10 128 28 28 (1003520)
2016-07-15 00:38:36.968 STDERR [INFO] I0715 00:38:36.967618 26088 net.cpp:156] Memory required for data: 281989120
2016-07-15 00:38:36.968 STDERR [INFO] I0715 00:38:36.967623 26088 layer_factory.hpp:77] Creating layer inception_3b/3x3_reduce
2016-07-15 00:38:36.968 STDERR [INFO] I0715 00:38:36.967641 26088 net.cpp:91] Creating Layer inception_3b/3x3_reduce
2016-07-15 00:38:36.968 STDERR [INFO] I0715 00:38:36.967648 26088 net.cpp:425] inception_3b/3x3_reduce <- inception_3a/output_inception_3a/output_0_split_1
2016-07-15 00:38:36.968 STDERR [INFO] I0715 00:38:36.967664 26088 net.cpp:399] inception_3b/3x3_reduce -> inception_3b/3x3_reduce
2016-07-15 00:38:36.968 STDERR [INFO] I0715 00:38:36.967787 26092 net.cpp:141] Setting up inception_3b/1x1
2016-07-15 00:38:36.968 STDERR [INFO] I0715 00:38:36.967803 26092 net.cpp:148] Top shape: 10 128 28 28 (1003520)
2016-07-15 00:38:36.968 STDERR [INFO] I0715 00:38:36.967808 26092 net.cpp:156] Memory required for data: 277975040
2016-07-15 00:38:36.968 STDERR [INFO] I0715 00:38:36.967818 26092 layer_factory.hpp:77] Creating layer inception_3b/relu_1x1
2016-07-15 00:38:36.968 STDERR [INFO] I0715 00:38:36.967830 26092 net.cpp:91] Creating Layer inception_3b/relu_1x1
2016-07-15 00:38:36.968 STDERR [INFO] I0715 00:38:36.967836 26092 net.cpp:425] inception_3b/relu_1x1 <- inception_3b/1x1
2016-07-15 00:38:36.968 STDERR [INFO] I0715 00:38:36.967844 26092 net.cpp:386] inception_3b/relu_1x1 -> inception_3b/1x1 (in-place)
2016-07-15 00:38:36.968 STDERR [INFO] I0715 00:38:36.968256 26092 net.cpp:141] Setting up inception_3b/relu_1x1
2016-07-15 00:38:36.968 STDERR [INFO] I0715 00:38:36.968271 26092 net.cpp:148] Top shape: 10 128 28 28 (1003520)
2016-07-15 00:38:36.968 STDERR [INFO] I0715 00:38:36.968276 26092 net.cpp:156] Memory required for data: 281989120
2016-07-15 00:38:36.969 STDERR [INFO] I0715 00:38:36.968281 26092 layer_factory.hpp:77] Creating layer inception_3b/3x3_reduce
2016-07-15 00:38:36.969 STDERR [INFO] I0715 00:38:36.968297 26092 net.cpp:91] Creating Layer inception_3b/3x3_reduce
2016-07-15 00:38:36.969 STDERR [INFO] I0715 00:38:36.968302 26092 net.cpp:425] inception_3b/3x3_reduce <- inception_3a/output_inception_3a/output_0_split_1
2016-07-15 00:38:36.969 STDERR [INFO] I0715 00:38:36.968312 26092 net.cpp:399] inception_3b/3x3_reduce -> inception_3b/3x3_reduce
2016-07-15 00:38:36.972 STDERR [INFO] I0715 00:38:36.972764 26088 net.cpp:141] Setting up inception_3b/3x3_reduce
2016-07-15 00:38:36.973 STDERR [INFO] I0715 00:38:36.972782 26088 net.cpp:148] Top shape: 10 128 28 28 (1003520)
2016-07-15 00:38:36.973 STDERR [INFO] I0715 00:38:36.972789 26088 net.cpp:156] Memory required for data: 286003200
2016-07-15 00:38:36.973 STDERR [INFO] I0715 00:38:36.972797 26088 layer_factory.hpp:77] Creating layer inception_3b/relu_3x3_reduce
2016-07-15 00:38:36.973 STDERR [INFO] I0715 00:38:36.972810 26088 net.cpp:91] Creating Layer inception_3b/relu_3x3_reduce
2016-07-15 00:38:36.973 STDERR [INFO] I0715 00:38:36.972816 26088 net.cpp:425] inception_3b/relu_3x3_reduce <- inception_3b/3x3_reduce
2016-07-15 00:38:36.973 STDERR [INFO] I0715 00:38:36.972825 26088 net.cpp:386] inception_3b/relu_3x3_reduce -> inception_3b/3x3_reduce (in-place)
2016-07-15 00:38:36.973 STDERR [INFO] I0715 00:38:36.973880 26092 net.cpp:141] Setting up inception_3b/3x3_reduce
2016-07-15 00:38:36.974 STDERR [INFO] I0715 00:38:36.973887 26088 net.cpp:141] Setting up inception_3b/relu_3x3_reduce
2016-07-15 00:38:36.974 STDERR [INFO] I0715 00:38:36.973897 26092 net.cpp:148] Top shape: 10 128 28 28 (1003520)
2016-07-15 00:38:36.974 STDERR [INFO] I0715 00:38:36.973902 26088 net.cpp:148] Top shape: 10 128 28 28 (1003520)
2016-07-15 00:38:36.974 STDERR [INFO] I0715 00:38:36.973903 26092 net.cpp:156] Memory required for data: 286003200
2016-07-15 00:38:36.974 STDERR [INFO] I0715 00:38:36.973908 26088 net.cpp:156] Memory required for data: 290017280
2016-07-15 00:38:36.974 STDERR [INFO] I0715 00:38:36.973914 26088 layer_factory.hpp:77] Creating layer inception_3b/3x3
2016-07-15 00:38:36.974 STDERR [INFO] I0715 00:38:36.973914 26092 layer_factory.hpp:77] Creating layer inception_3b/relu_3x3_reduce
2016-07-15 00:38:36.974 STDERR [INFO] I0715 00:38:36.973933 26092 net.cpp:91] Creating Layer inception_3b/relu_3x3_reduce
2016-07-15 00:38:36.974 STDERR [INFO] I0715 00:38:36.973935 26088 net.cpp:91] Creating Layer inception_3b/3x3
2016-07-15 00:38:36.974 STDERR [INFO] I0715 00:38:36.973940 26092 net.cpp:425] inception_3b/relu_3x3_reduce <- inception_3b/3x3_reduce
2016-07-15 00:38:36.974 STDERR [INFO] I0715 00:38:36.973942 26088 net.cpp:425] inception_3b/3x3 <- inception_3b/3x3_reduce
2016-07-15 00:38:36.974 STDERR [INFO] I0715 00:38:36.973949 26092 net.cpp:386] inception_3b/relu_3x3_reduce -> inception_3b/3x3_reduce (in-place)
2016-07-15 00:38:36.974 STDERR [INFO] I0715 00:38:36.973958 26088 net.cpp:399] inception_3b/3x3 -> inception_3b/3x3
2016-07-15 00:38:36.975 STDERR [INFO] I0715 00:38:36.975618 26092 net.cpp:141] Setting up inception_3b/relu_3x3_reduce
2016-07-15 00:38:36.975 STDERR [INFO] I0715 00:38:36.975636 26092 net.cpp:148] Top shape: 10 128 28 28 (1003520)
2016-07-15 00:38:36.975 STDERR [INFO] I0715 00:38:36.975641 26092 net.cpp:156] Memory required for data: 290017280
2016-07-15 00:38:36.975 STDERR [INFO] I0715 00:38:36.975646 26092 layer_factory.hpp:77] Creating layer inception_3b/3x3
2016-07-15 00:38:36.975 STDERR [INFO] I0715 00:38:36.975662 26092 net.cpp:91] Creating Layer inception_3b/3x3
2016-07-15 00:38:36.976 STDERR [INFO] I0715 00:38:36.975669 26092 net.cpp:425] inception_3b/3x3 <- inception_3b/3x3_reduce
2016-07-15 00:38:36.976 STDERR [INFO] I0715 00:38:36.975682 26092 net.cpp:399] inception_3b/3x3 -> inception_3b/3x3
2016-07-15 00:38:36.981 STDERR [INFO] I0715 00:38:36.981231 26088 net.cpp:141] Setting up inception_3b/3x3
2016-07-15 00:38:36.981 STDERR [INFO] I0715 00:38:36.981251 26088 net.cpp:148] Top shape: 10 192 28 28 (1505280)
2016-07-15 00:38:36.981 STDERR [INFO] I0715 00:38:36.981261 26088 net.cpp:156] Memory required for data: 296038400
2016-07-15 00:38:36.981 STDERR [INFO] I0715 00:38:36.981271 26088 layer_factory.hpp:77] Creating layer inception_3b/relu_3x3
2016-07-15 00:38:36.981 STDERR [INFO] I0715 00:38:36.981284 26088 net.cpp:91] Creating Layer inception_3b/relu_3x3
2016-07-15 00:38:36.981 STDERR [INFO] I0715 00:38:36.981290 26088 net.cpp:425] inception_3b/relu_3x3 <- inception_3b/3x3
2016-07-15 00:38:36.981 STDERR [INFO] I0715 00:38:36.981302 26088 net.cpp:386] inception_3b/relu_3x3 -> inception_3b/3x3 (in-place)
2016-07-15 00:38:36.982 STDERR [INFO] I0715 00:38:36.982419 26088 net.cpp:141] Setting up inception_3b/relu_3x3
2016-07-15 00:38:36.982 STDERR [INFO] I0715 00:38:36.982435 26088 net.cpp:148] Top shape: 10 192 28 28 (1505280)
2016-07-15 00:38:36.982 STDERR [INFO] I0715 00:38:36.982441 26088 net.cpp:156] Memory required for data: 302059520
2016-07-15 00:38:36.982 STDERR [INFO] I0715 00:38:36.982447 26088 layer_factory.hpp:77] Creating layer inception_3b/5x5_reduce
2016-07-15 00:38:36.982 STDERR [INFO] I0715 00:38:36.982468 26088 net.cpp:91] Creating Layer inception_3b/5x5_reduce
2016-07-15 00:38:36.982 STDERR [INFO] I0715 00:38:36.982475 26088 net.cpp:425] inception_3b/5x5_reduce <- inception_3a/output_inception_3a/output_0_split_2
2016-07-15 00:38:36.982 STDERR [INFO] I0715 00:38:36.982487 26088 net.cpp:399] inception_3b/5x5_reduce -> inception_3b/5x5_reduce
2016-07-15 00:38:36.984 STDERR [INFO] I0715 00:38:36.984033 26092 net.cpp:141] Setting up inception_3b/3x3
2016-07-15 00:38:36.984 STDERR [INFO] I0715 00:38:36.984052 26092 net.cpp:148] Top shape: 10 192 28 28 (1505280)
2016-07-15 00:38:36.984 STDERR [INFO] I0715 00:38:36.984057 26092 net.cpp:156] Memory required for data: 296038400
2016-07-15 00:38:36.984 STDERR [INFO] I0715 00:38:36.984067 26092 layer_factory.hpp:77] Creating layer inception_3b/relu_3x3
2016-07-15 00:38:36.984 STDERR [INFO] I0715 00:38:36.984083 26092 net.cpp:91] Creating Layer inception_3b/relu_3x3
2016-07-15 00:38:36.984 STDERR [INFO] I0715 00:38:36.984089 26092 net.cpp:425] inception_3b/relu_3x3 <- inception_3b/3x3
2016-07-15 00:38:36.984 STDERR [INFO] I0715 00:38:36.984098 26092 net.cpp:386] inception_3b/relu_3x3 -> inception_3b/3x3 (in-place)
2016-07-15 00:38:36.986 STDERR [INFO] I0715 00:38:36.985970 26092 net.cpp:141] Setting up inception_3b/relu_3x3
2016-07-15 00:38:36.986 STDERR [INFO] I0715 00:38:36.985988 26092 net.cpp:148] Top shape: 10 192 28 28 (1505280)
2016-07-15 00:38:36.986 STDERR [INFO] I0715 00:38:36.985994 26092 net.cpp:156] Memory required for data: 302059520
2016-07-15 00:38:36.986 STDERR [INFO] I0715 00:38:36.985999 26092 layer_factory.hpp:77] Creating layer inception_3b/5x5_reduce
2016-07-15 00:38:36.986 STDERR [INFO] I0715 00:38:36.986017 26092 net.cpp:91] Creating Layer inception_3b/5x5_reduce
2016-07-15 00:38:36.986 STDERR [INFO] I0715 00:38:36.986024 26092 net.cpp:425] inception_3b/5x5_reduce <- inception_3a/output_inception_3a/output_0_split_2
2016-07-15 00:38:36.986 STDERR [INFO] I0715 00:38:36.986034 26092 net.cpp:399] inception_3b/5x5_reduce -> inception_3b/5x5_reduce
2016-07-15 00:38:36.986 STDERR [INFO] I0715 00:38:36.986603 26088 net.cpp:141] Setting up inception_3b/5x5_reduce
2016-07-15 00:38:36.986 STDERR [INFO] I0715 00:38:36.986620 26088 net.cpp:148] Top shape: 10 32 28 28 (250880)
2016-07-15 00:38:36.986 STDERR [INFO] I0715 00:38:36.986626 26088 net.cpp:156] Memory required for data: 303063040
2016-07-15 00:38:36.986 STDERR [INFO] I0715 00:38:36.986635 26088 layer_factory.hpp:77] Creating layer inception_3b/relu_5x5_reduce
2016-07-15 00:38:36.986 STDERR [INFO] I0715 00:38:36.986645 26088 net.cpp:91] Creating Layer inception_3b/relu_5x5_reduce
2016-07-15 00:38:36.986 STDERR [INFO] I0715 00:38:36.986651 26088 net.cpp:425] inception_3b/relu_5x5_reduce <- inception_3b/5x5_reduce
2016-07-15 00:38:36.986 STDERR [INFO] I0715 00:38:36.986663 26088 net.cpp:386] inception_3b/relu_5x5_reduce -> inception_3b/5x5_reduce (in-place)
2016-07-15 00:38:36.987 STDERR [INFO] I0715 00:38:36.987737 26088 net.cpp:141] Setting up inception_3b/relu_5x5_reduce
2016-07-15 00:38:36.987 STDERR [INFO] I0715 00:38:36.987753 26088 net.cpp:148] Top shape: 10 32 28 28 (250880)
2016-07-15 00:38:36.988 STDERR [INFO] I0715 00:38:36.987759 26088 net.cpp:156] Memory required for data: 304066560
2016-07-15 00:38:36.988 STDERR [INFO] I0715 00:38:36.987764 26088 layer_factory.hpp:77] Creating layer inception_3b/5x5
2016-07-15 00:38:36.988 STDERR [INFO] I0715 00:38:36.987785 26088 net.cpp:91] Creating Layer inception_3b/5x5
2016-07-15 00:38:36.988 STDERR [INFO] I0715 00:38:36.987792 26088 net.cpp:425] inception_3b/5x5 <- inception_3b/5x5_reduce
2016-07-15 00:38:36.988 STDERR [INFO] I0715 00:38:36.987802 26088 net.cpp:399] inception_3b/5x5 -> inception_3b/5x5
2016-07-15 00:38:36.991 STDERR [INFO] I0715 00:38:36.991601 26092 net.cpp:141] Setting up inception_3b/5x5_reduce
2016-07-15 00:38:36.991 STDERR [INFO] I0715 00:38:36.991622 26092 net.cpp:148] Top shape: 10 32 28 28 (250880)
2016-07-15 00:38:36.991 STDERR [INFO] I0715 00:38:36.991628 26092 net.cpp:156] Memory required for data: 303063040
2016-07-15 00:38:36.991 STDERR [INFO] I0715 00:38:36.991638 26092 layer_factory.hpp:77] Creating layer inception_3b/relu_5x5_reduce
2016-07-15 00:38:36.992 STDERR [INFO] I0715 00:38:36.991648 26092 net.cpp:91] Creating Layer inception_3b/relu_5x5_reduce
2016-07-15 00:38:36.992 STDERR [INFO] I0715 00:38:36.991654 26092 net.cpp:425] inception_3b/relu_5x5_reduce <- inception_3b/5x5_reduce
2016-07-15 00:38:36.992 STDERR [INFO] I0715 00:38:36.991662 26092 net.cpp:386] inception_3b/relu_5x5_reduce -> inception_3b/5x5_reduce (in-place)
2016-07-15 00:38:36.992 STDERR [INFO] I0715 00:38:36.992843 26092 net.cpp:141] Setting up inception_3b/relu_5x5_reduce
2016-07-15 00:38:36.993 STDERR [INFO] I0715 00:38:36.992861 26092 net.cpp:148] Top shape: 10 32 28 28 (250880)
2016-07-15 00:38:36.993 STDERR [INFO] I0715 00:38:36.992866 26092 net.cpp:156] Memory required for data: 304066560
2016-07-15 00:38:36.993 STDERR [INFO] I0715 00:38:36.992871 26092 layer_factory.hpp:77] Creating layer inception_3b/5x5
2016-07-15 00:38:36.993 STDERR [INFO] I0715 00:38:36.992889 26092 net.cpp:91] Creating Layer inception_3b/5x5
2016-07-15 00:38:36.993 STDERR [INFO] I0715 00:38:36.992897 26092 net.cpp:425] inception_3b/5x5 <- inception_3b/5x5_reduce
2016-07-15 00:38:36.993 STDERR [INFO] I0715 00:38:36.992908 26092 net.cpp:399] inception_3b/5x5 -> inception_3b/5x5
2016-07-15 00:38:36.993 STDERR [INFO] I0715 00:38:36.993064 26088 net.cpp:141] Setting up inception_3b/5x5
2016-07-15 00:38:36.993 STDERR [INFO] I0715 00:38:36.993082 26088 net.cpp:148] Top shape: 10 96 28 28 (752640)
2016-07-15 00:38:36.993 STDERR [INFO] I0715 00:38:36.993086 26088 net.cpp:156] Memory required for data: 307077120
2016-07-15 00:38:36.993 STDERR [INFO] I0715 00:38:36.993096 26088 layer_factory.hpp:77] Creating layer inception_3b/relu_5x5
2016-07-15 00:38:36.993 STDERR [INFO] I0715 00:38:36.993108 26088 net.cpp:91] Creating Layer inception_3b/relu_5x5
2016-07-15 00:38:36.993 STDERR [INFO] I0715 00:38:36.993115 26088 net.cpp:425] inception_3b/relu_5x5 <- inception_3b/5x5
2016-07-15 00:38:36.993 STDERR [INFO] I0715 00:38:36.993124 26088 net.cpp:386] inception_3b/relu_5x5 -> inception_3b/5x5 (in-place)
2016-07-15 00:38:36.994 STDERR [INFO] I0715 00:38:36.994078 26088 net.cpp:141] Setting up inception_3b/relu_5x5
2016-07-15 00:38:36.994 STDERR [INFO] I0715 00:38:36.994098 26088 net.cpp:148] Top shape: 10 96 28 28 (752640)
2016-07-15 00:38:36.994 STDERR [INFO] I0715 00:38:36.994103 26088 net.cpp:156] Memory required for data: 310087680
2016-07-15 00:38:36.994 STDERR [INFO] I0715 00:38:36.994109 26088 layer_factory.hpp:77] Creating layer inception_3b/pool
2016-07-15 00:38:36.994 STDERR [INFO] I0715 00:38:36.994120 26088 net.cpp:91] Creating Layer inception_3b/pool
2016-07-15 00:38:36.994 STDERR [INFO] I0715 00:38:36.994127 26088 net.cpp:425] inception_3b/pool <- inception_3a/output_inception_3a/output_0_split_3
2016-07-15 00:38:36.994 STDERR [INFO] I0715 00:38:36.994135 26088 net.cpp:399] inception_3b/pool -> inception_3b/pool
2016-07-15 00:38:36.994 STDERR [INFO] I0715 00:38:36.994211 26088 net.cpp:141] Setting up inception_3b/pool
2016-07-15 00:38:36.994 STDERR [INFO] I0715 00:38:36.994222 26088 net.cpp:148] Top shape: 10 256 28 28 (2007040)
2016-07-15 00:38:36.994 STDERR [INFO] I0715 00:38:36.994226 26088 net.cpp:156] Memory required for data: 318115840
2016-07-15 00:38:36.994 STDERR [INFO] I0715 00:38:36.994231 26088 layer_factory.hpp:77] Creating layer inception_3b/pool_proj
2016-07-15 00:38:36.994 STDERR [INFO] I0715 00:38:36.994249 26088 net.cpp:91] Creating Layer inception_3b/pool_proj
2016-07-15 00:38:36.994 STDERR [INFO] I0715 00:38:36.994256 26088 net.cpp:425] inception_3b/pool_proj <- inception_3b/pool
2016-07-15 00:38:36.994 STDERR [INFO] I0715 00:38:36.994267 26088 net.cpp:399] inception_3b/pool_proj -> inception_3b/pool_proj
2016-07-15 00:38:36.998 STDERR [INFO] I0715 00:38:36.998579 26088 net.cpp:141] Setting up inception_3b/pool_proj
2016-07-15 00:38:36.998 STDERR [INFO] I0715 00:38:36.998597 26088 net.cpp:148] Top shape: 10 64 28 28 (501760)
2016-07-15 00:38:36.998 STDERR [INFO] I0715 00:38:36.998603 26088 net.cpp:156] Memory required for data: 320122880
2016-07-15 00:38:36.998 STDERR [INFO] I0715 00:38:36.998613 26088 layer_factory.hpp:77] Creating layer inception_3b/relu_pool_proj
2016-07-15 00:38:36.998 STDERR [INFO] I0715 00:38:36.998623 26088 net.cpp:91] Creating Layer inception_3b/relu_pool_proj
2016-07-15 00:38:36.998 STDERR [INFO] I0715 00:38:36.998630 26088 net.cpp:425] inception_3b/relu_pool_proj <- inception_3b/pool_proj
2016-07-15 00:38:36.999 STDERR [INFO] I0715 00:38:36.998641 26088 net.cpp:386] inception_3b/relu_pool_proj -> inception_3b/pool_proj (in-place)
2016-07-15 00:38:36.999 STDERR [INFO] I0715 00:38:36.999440 26092 net.cpp:141] Setting up inception_3b/5x5
2016-07-15 00:38:36.999 STDERR [INFO] I0715 00:38:36.999459 26092 net.cpp:148] Top shape: 10 96 28 28 (752640)
2016-07-15 00:38:36.999 STDERR [INFO] I0715 00:38:36.999464 26092 net.cpp:156] Memory required for data: 307077120
2016-07-15 00:38:36.999 STDERR [INFO] I0715 00:38:36.999475 26092 layer_factory.hpp:77] Creating layer inception_3b/relu_5x5
2016-07-15 00:38:36.999 STDERR [INFO] I0715 00:38:36.999483 26092 net.cpp:91] Creating Layer inception_3b/relu_5x5
2016-07-15 00:38:36.999 STDERR [INFO] I0715 00:38:36.999490 26092 net.cpp:425] inception_3b/relu_5x5 <- inception_3b/5x5
2016-07-15 00:38:36.999 STDERR [INFO] I0715 00:38:36.999500 26092 net.cpp:386] inception_3b/relu_5x5 -> inception_3b/5x5 (in-place)
2016-07-15 00:38:37.000 STDERR [INFO] I0715 00:38:36.999968 26088 net.cpp:141] Setting up inception_3b/relu_pool_proj
2016-07-15 00:38:37.000 n.t.s.f.RefreshingImageFetcher$ImageReader [INFO] [Timing] RequestID: 0 StreamID: home/peifeng/work/data/frame.320x240.jpg SequenceNr: 72 Entering queue: 1468557517000
2016-07-15 00:38:37.000 STDERR [INFO] I0715 00:38:36.999984 26088 net.cpp:148] Top shape: 10 64 28 28 (501760)
2016-07-15 00:38:37.000 STDERR [INFO] I0715 00:38:36.999989 26088 net.cpp:156] Memory required for data: 322129920
2016-07-15 00:38:37.000 STDERR [INFO] I0715 00:38:36.999987 26092 net.cpp:141] Setting up inception_3b/relu_5x5
2016-07-15 00:38:37.000 STDERR [INFO] I0715 00:38:36.999994 26088 layer_factory.hpp:77] Creating layer inception_3b/output
2016-07-15 00:38:37.000 STDERR [INFO] I0715 00:38:37.000000 26092 net.cpp:148] Top shape: 10 96 28 28 (752640)
2016-07-15 00:38:37.000 n.t.s.f.RefreshingImageFetcher$ImageReader [INFO] [Timing] RequestID: 0 StreamID: home/peifeng/work/data/frame.320x240.jpg SequenceNr: 73 Entering queue: 1468557517000
2016-07-15 00:38:37.000 STDERR [INFO] I0715 00:38:37.000006 26092 net.cpp:156] Memory required for data: 310087680
2016-07-15 00:38:37.000 STDERR [INFO] I0715 00:38:37.000008 26088 net.cpp:91] Creating Layer inception_3b/output
…
2016-07-15 00:38:37.000 STDERR [INFO] I0715 00:38:37.000030 26092 net.cpp:425] inception_3b/pool <- inception_3a/output_inception_3a/output_0_split_3
2016-07-15 00:38:37.000 STDERR [INFO] I0715 00:38:37.000037 26088 net.cpp:425] inception_3b/output <- inception_3b/pool_proj
2016-07-15 00:38:37.000 STDERR [INFO] I0715 00:38:37.000041 26092 net.cpp:399] inception_3b/pool -> inception_3b/pool
2016-07-15 00:38:37.000 STDERR [INFO] I0715 00:38:37.000047 26088 net.cpp:399] inception_3b/output -> inception_3b/output
2016-07-15 00:38:37.000 STDERR [INFO] I0715 00:38:37.000136 26088 net.cpp:141] Setting up inception_3b/output
2016-07-15 00:38:37.000 STDERR [INFO] I0715 00:38:37.000147 26088 net.cpp:148] Top shape: 10 480 28 28 (3763200)
2016-07-15 00:38:37.000 STDERR [INFO] I0715 00:38:37.000152 26088 net.cpp:156] Memory required for data: 337182720
2016-07-15 00:38:37.001 STDERR [INFO] I0715 00:38:37.000159 26088 layer_factory.hpp:77] Creating layer pool3/3x3_s2
2016-07-15 00:38:37.001 STDERR [INFO] I0715 00:38:37.000176 26088 net.cpp:91] Creating Layer pool3/3x3_s2
2016-07-15 00:38:37.001 STDERR [INFO] I0715 00:38:37.000179 26092 net.cpp:141] Setting up inception_3b/pool
2016-07-15 00:38:37.001 STDERR [INFO] I0715 00:38:37.000183 26088 net.cpp:425] pool3/3x3_s2 <- inception_3b/output
2016-07-15 00:38:37.001 STDERR [INFO] I0715 00:38:37.000195 26092 net.cpp:148] Top shape: 10 256 28 28 (2007040)
2016-07-15 00:38:37.001 STDERR [INFO] I0715 00:38:37.000200 26088 net.cpp:399] pool3/3x3_s2 -> pool3/3x3_s2
2016-07-15 00:38:37.001 STDERR [INFO] I0715 00:38:37.000200 26092 net.cpp:156] Memory required for data: 318115840
2016-07-15 00:38:37.001 STDERR [INFO] I0715 00:38:37.000211 26092 layer_factory.hpp:77] Creating layer inception_3b/pool_proj
2016-07-15 00:38:37.001 STDERR [INFO] I0715 00:38:37.000228 26092 net.cpp:91] Creating Layer inception_3b/pool_proj
2016-07-15 00:38:37.001 STDERR [INFO] I0715 00:38:37.000234 26092 net.cpp:425] inception_3b/pool_proj <- inception_3b/pool
2016-07-15 00:38:37.001 STDERR [INFO] I0715 00:38:37.000246 26092 net.cpp:399] inception_3b/pool_proj -> inception_3b/pool_proj
2016-07-15 00:38:37.001 STDERR [INFO] I0715 00:38:37.000282 26088 net.cpp:141] Setting up pool3/3x3_s2
2016-07-15 00:38:37.001 STDERR [INFO] I0715 00:38:37.000295 26088 net.cpp:148] Top shape: 10 480 14 14 (940800)
2016-07-15 00:38:37.001 STDERR [INFO] I0715 00:38:37.000300 26088 net.cpp:156] Memory required for data: 340945920
2016-07-15 00:38:37.001 STDERR [INFO] I0715 00:38:37.000305 26088 layer_factory.hpp:77] Creating layer pool3/3x3_s2_pool3/3x3_s2_0_split
2016-07-15 00:38:37.001 STDERR [INFO] I0715 00:38:37.000314 26088 net.cpp:91] Creating Layer pool3/3x3_s2_pool3/3x3_s2_0_split
2016-07-15 00:38:37.001 STDERR [INFO] I0715 00:38:37.000319 26088 net.cpp:425] pool3/3x3_s2_pool3/3x3_s2_0_split <- pool3/3x3_s2
2016-07-15 00:38:37.001 STDERR [INFO] I0715 00:38:37.000327 26088 net.cpp:399] pool3/3x3_s2_pool3/3x3_s2_0_split -> pool3/3x3_s2_pool3/3x3_s2_0_split_0
2016-07-15 00:38:37.001 STDERR [INFO] I0715 00:38:37.000336 26088 net.cpp:399] pool3/3x3_s2_pool3/3x3_s2_0_split -> pool3/3x3_s2_pool3/3x3_s2_0_split_1
2016-07-15 00:38:37.001 STDERR [INFO] I0715 00:38:37.000344 26088 net.cpp:399] pool3/3x3_s2_pool3/3x3_s2_0_split -> pool3/3x3_s2_pool3/3x3_s2_0_split_2
2016-07-15 00:38:37.001 STDERR [INFO] I0715 00:38:37.000356 26088 net.cpp:399] pool3/3x3_s2_pool3/3x3_s2_0_split -> pool3/3x3_s2_pool3/3x3_s2_0_split_3
2016-07-15 00:38:37.001 STDERR [INFO] I0715 00:38:37.000643 26088 net.cpp:141] Setting up pool3/3x3_s2_pool3/3x3_s2_0_split
2016-07-15 00:38:37.001 STDERR [INFO] I0715 00:38:37.000654 26088 net.cpp:148] Top shape: 10 480 14 14 (940800)
2016-07-15 00:38:37.002 STDERR [INFO] I0715 00:38:37.000661 26088 net.cpp:148] Top shape: 10 480 14 14 (940800)
2016-07-15 00:38:37.002 STDERR [INFO] I0715 00:38:37.000666 26088 net.cpp:148] Top shape: 10 480 14 14 (940800)
2016-07-15 00:38:37.002 STDERR [INFO] I0715 00:38:37.000672 26088 net.cpp:148] Top shape: 10 480 14 14 (940800)
2016-07-15 00:38:37.002 STDERR [INFO] I0715 00:38:37.000676 26088 net.cpp:156] Memory required for data: 355998720
2016-07-15 00:38:37.002 STDERR [INFO] I0715 00:38:37.000682 26088 layer_factory.hpp:77] Creating layer inception_4a/1x1
2016-07-15 00:38:37.002 STDERR [INFO] I0715 00:38:37.000699 26088 net.cpp:91] Creating Layer inception_4a/1x1
2016-07-15 00:38:37.002 STDERR [INFO] I0715 00:38:37.000706 26088 net.cpp:425] inception_4a/1x1 <- pool3/3x3_s2_pool3/3x3_s2_0_split_0
2016-07-15 00:38:37.002 STDERR [INFO] I0715 00:38:37.000718 26088 net.cpp:399] inception_4a/1x1 -> inception_4a/1x1
2016-07-15 00:38:37.004 n.t.s.b.CVParticleBolt [INFO] [Timing] RequestID: 0 StreamID: home/peifeng/work/data/frame.320x240.jpg SequenceNr: 72 Entering scale: 1468557517004
2016-07-15 00:38:37.004 n.t.s.s.CVParticleSpout [INFO] [Timing] RequestID: 0 StreamID: home/peifeng/work/data/frame.320x240.jpg SequenceNr: 72 Leaving fetcher: 1468557517004 Size: 8702
2016-07-15 00:38:37.005 STDERR [INFO] I0715 00:38:37.005475 26092 net.cpp:141] Setting up inception_3b/pool_proj
2016-07-15 00:38:37.005 STDERR [INFO] I0715 00:38:37.005501 26092 net.cpp:148] Top shape: 10 64 28 28 (501760)
2016-07-15 00:38:37.005 STDERR [INFO] I0715 00:38:37.005507 26092 net.cpp:156] Memory required for data: 320122880
2016-07-15 00:38:37.005 STDERR [INFO] I0715 00:38:37.005518 26092 layer_factory.hpp:77] Creating layer inception_3b/relu_pool_proj
2016-07-15 00:38:37.005 STDERR [INFO] I0715 00:38:37.005528 26092 net.cpp:91] Creating Layer inception_3b/relu_pool_proj
2016-07-15 00:38:37.005 STDERR [INFO] I0715 00:38:37.005535 26092 net.cpp:425] inception_3b/relu_pool_proj <- inception_3b/pool_proj
2016-07-15 00:38:37.005 STDERR [INFO] I0715 00:38:37.005547 26092 net.cpp:386] inception_3b/relu_pool_proj -> inception_3b/pool_proj (in-place)
2016-07-15 00:38:37.006 STDERR [INFO] I0715 00:38:37.006459 26088 net.cpp:141] Setting up inception_4a/1x1
2016-07-15 00:38:37.006 STDERR [INFO] I0715 00:38:37.006479 26088 net.cpp:148] Top shape: 10 192 14 14 (376320)
2016-07-15 00:38:37.006 STDERR [INFO] I0715 00:38:37.006484 26088 net.cpp:156] Memory required for data: 357504000
2016-07-15 00:38:37.006 STDERR [INFO] I0715 00:38:37.006494 26088 layer_factory.hpp:77] Creating layer inception_4a/relu_1x1
2016-07-15 00:38:37.006 STDERR [INFO] I0715 00:38:37.006503 26088 net.cpp:91] Creating Layer inception_4a/relu_1x1
2016-07-15 00:38:37.006 STDERR [INFO] I0715 00:38:37.006510 26088 net.cpp:425] inception_4a/relu_1x1 <- inception_4a/1x1
2016-07-15 00:38:37.006 STDERR [INFO] I0715 00:38:37.006520 26088 net.cpp:386] inception_4a/relu_1x1 -> inception_4a/1x1 (in-place)
2016-07-15 00:38:37.007 STDERR [INFO] I0715 00:38:37.007407 26092 net.cpp:141] Setting up inception_3b/relu_pool_proj
2016-07-15 00:38:37.007 STDERR [INFO] I0715 00:38:37.007424 26092 net.cpp:148] Top shape: 10 64 28 28 (501760)
2016-07-15 00:38:37.007 n.t.s.s.CVParticleSpout [INFO] [Timing] RequestID: 0 StreamID: home/peifeng/work/data/frame.320x240.jpg SequenceNr: 73 Leaving fetcher: 1468557517007 Size: 8702
2016-07-15 00:38:37.007 STDERR [INFO] I0715 00:38:37.007431 26092 net.cpp:156] Memory required for data: 322129920
2016-07-15 00:38:37.007 n.t.s.b.CVParticleBolt [INFO] [Timing] RequestID: 0 StreamID: home/peifeng/work/data/frame.320x240.jpg SequenceNr: 73 Entering scale: 1468557517007
…
2016-07-15 00:38:37.007 STDERR [INFO] I0715 00:38:37.007459 26092 net.cpp:425] inception_3b/output <- inception_3b/3x3
2016-07-15 00:38:37.007 STDERR [INFO] I0715 00:38:37.007470 26092 net.cpp:425] inception_3b/output <- inception_3b/5x5
2016-07-15 00:38:37.007 STDERR [INFO] I0715 00:38:37.007477 26092 net.cpp:425] inception_3b/output <- inception_3b/pool_proj
2016-07-15 00:38:37.007 STDERR [INFO] I0715 00:38:37.007483 26092 net.cpp:399] inception_3b/output -> inception_3b/output
2016-07-15 00:38:37.008 STDERR [INFO] I0715 00:38:37.007501 26088 net.cpp:141] Setting up inception_4a/relu_1x1
2016-07-15 00:38:37.008 STDERR [INFO] I0715 00:38:37.007514 26088 net.cpp:148] Top shape: 10 192 14 14 (376320)
2016-07-15 00:38:37.008 STDERR [INFO] I0715 00:38:37.007519 26088 net.cpp:156] Memory required for data: 359009280
2016-07-15 00:38:37.008 STDERR [INFO] I0715 00:38:37.007524 26088 layer_factory.hpp:77] Creating layer inception_4a/3x3_reduce
2016-07-15 00:38:37.008 STDERR [INFO] I0715 00:38:37.007541 26092 net.cpp:141] Setting up inception_3b/output
2016-07-15 00:38:37.008 STDERR [INFO] I0715 00:38:37.007545 26088 net.cpp:91] Creating Layer inception_4a/3x3_reduce
2016-07-15 00:38:37.008 STDERR [INFO] I0715 00:38:37.007552 26092 net.cpp:148] Top shape: 10 480 28 28 (3763200)
2016-07-15 00:38:37.008 STDERR [INFO] I0715 00:38:37.007552 26088 net.cpp:425] inception_4a/3x3_reduce <- pool3/3x3_s2_pool3/3x3_s2_0_split_1
2016-07-15 00:38:37.008 STDERR [INFO] I0715 00:38:37.007563 26092 net.cpp:156] Memory required for data: 337182720
2016-07-15 00:38:37.008 STDERR [INFO] I0715 00:38:37.007570 26092 layer_factory.hpp:77] Creating layer pool3/3x3_s2
2016-07-15 00:38:37.008 STDERR [INFO] I0715 00:38:37.007572 26088 net.cpp:399] inception_4a/3x3_reduce -> inception_4a/3x3_reduce
2016-07-15 00:38:37.009 STDERR [INFO] I0715 00:38:37.007581 26092 net.cpp:91] Creating Layer pool3/3x3_s2
2016-07-15 00:38:37.009 STDERR [INFO] I0715 00:38:37.007587 26092 net.cpp:425] pool3/3x3_s2 <- inception_3b/output
2016-07-15 00:38:37.009 STDERR [INFO] I0715 00:38:37.007597 26092 net.cpp:399] pool3/3x3_s2 -> pool3/3x3_s2
2016-07-15 00:38:37.009 STDERR [INFO] I0715 00:38:37.007807 26092 net.cpp:141] Setting up pool3/3x3_s2
2016-07-15 00:38:37.009 STDERR [INFO] I0715 00:38:37.007822 26092 net.cpp:148] Top shape: 10 480 14 14 (940800)
2016-07-15 00:38:37.009 STDERR [INFO] I0715 00:38:37.007827 26092 net.cpp:156] Memory required for data: 340945920
2016-07-15 00:38:37.009 STDERR [INFO] I0715 00:38:37.007833 26092 layer_factory.hpp:77] Creating layer pool3/3x3_s2_pool3/3x3_s2_0_split
2016-07-15 00:38:37.009 STDERR [INFO] I0715 00:38:37.007843 26092 net.cpp:91] Creating Layer pool3/3x3_s2_pool3/3x3_s2_0_split
2016-07-15 00:38:37.009 STDERR [INFO] I0715 00:38:37.007848 26092 net.cpp:425] pool3/3x3_s2_pool3/3x3_s2_0_split <- pool3/3x3_s2
2016-07-15 00:38:37.009 STDERR [INFO] I0715 00:38:37.007855 26092 net.cpp:399] pool3/3x3_s2_pool3/3x3_s2_0_split -> pool3/3x3_s2_pool3/3x3_s2_0_split_0
2016-07-15 00:38:37.009 STDERR [INFO] I0715 00:38:37.007868 26092 net.cpp:399] pool3/3x3_s2_pool3/3x3_s2_0_split -> pool3/3x3_s2_pool3/3x3_s2_0_split_1
2016-07-15 00:38:37.009 STDERR [INFO] I0715 00:38:37.007877 26092 net.cpp:399] pool3/3x3_s2_pool3/3x3_s2_0_split -> pool3/3x3_s2_pool3/3x3_s2_0_split_2
2016-07-15 00:38:37.009 STDERR [INFO] I0715 00:38:37.007885 26092 net.cpp:399] pool3/3x3_s2_pool3/3x3_s2_0_split -> pool3/3x3_s2_pool3/3x3_s2_0_split_3
2016-07-15 00:38:37.009 STDERR [INFO] I0715 00:38:37.008116 26092 net.cpp:141] Setting up pool3/3x3_s2_pool3/3x3_s2_0_split
2016-07-15 00:38:37.009 STDERR [INFO] I0715 00:38:37.008128 26092 net.cpp:148] Top shape: 10 480 14 14 (940800)
2016-07-15 00:38:37.009 STDERR [INFO] I0715 00:38:37.008134 26092 net.cpp:148] Top shape: 10 480 14 14 (940800)
2016-07-15 00:38:37.009 STDERR [INFO] I0715 00:38:37.008141 26092 net.cpp:148] Top shape: 10 480 14 14 (940800)
2016-07-15 00:38:37.009 STDERR [INFO] I0715 00:38:37.008147 26092 net.cpp:148] Top shape: 10 480 14 14 (940800)
2016-07-15 00:38:37.009 STDERR [INFO] I0715 00:38:37.008150 26092 net.cpp:156] Memory required for data: 355998720
2016-07-15 00:38:37.009 STDERR [INFO] I0715 00:38:37.008155 26092 layer_factory.hpp:77] Creating layer inception_4a/1x1
2016-07-15 00:38:37.009 STDERR [INFO] I0715 00:38:37.008175 26092 net.cpp:91] Creating Layer inception_4a/1x1
2016-07-15 00:38:37.009 n.t.s.b.CVParticleBolt [INFO] [Timing] RequestID: 0 StreamID: home/peifeng/work/data/frame.320x240.jpg SequenceNr: 72 Leaving scale: 1468557517009 Size: 3530
…
2016-07-15 00:38:37.010 n.t.s.b.CVParticleBolt [INFO] [Timing] RequestID: 0 StreamID: home/peifeng/work/data/frame.320x240.jpg SequenceNr: 74 Entering scale: 1468557517010
2016-07-15 00:38:37.010 n.t.s.s.CVParticleSpout [INFO] [Timing] RequestID: 0 StreamID: home/peifeng/work/data/frame.320x240.jpg SequenceNr: 74 Leaving fetcher: 1468557517010 Size: 8702
2016-07-15 00:38:37.012 n.t.s.b.CVParticleBolt [INFO] [Timing] RequestID: 0 StreamID: home/peifeng/work/data/frame.320x240.jpg SequenceNr: 73 Leaving scale: 1468557517012 Size: 3530
2016-07-15 00:38:37.014 STDERR [INFO] I0715 00:38:37.014755 26092 net.cpp:141] Setting up inception_4a/1x1
2016-07-15 00:38:37.015 STDERR [INFO] I0715 00:38:37.014791 26092 net.cpp:148] Top shape: 10 192 14 14 (376320)
2016-07-15 00:38:37.015 STDERR [INFO] I0715 00:38:37.014798 26092 net.cpp:156] Memory required for data: 357504000
2016-07-15 00:38:37.015 STDERR [INFO] I0715 00:38:37.014811 26092 layer_factory.hpp:77] Creating layer inception_4a/relu_1x1
2016-07-15 00:38:37.015 STDERR [INFO] I0715 00:38:37.014823 26092 net.cpp:91] Creating Layer inception_4a/relu_1x1
2016-07-15 00:38:37.015 STDERR [INFO] I0715 00:38:37.014829 26092 net.cpp:425] inception_4a/relu_1x1 <- inception_4a/1x1
2016-07-15 00:38:37.015 STDERR [INFO] I0715 00:38:37.014839 26092 net.cpp:386] inception_4a/relu_1x1 -> inception_4a/1x1 (in-place)
2016-07-15 00:38:37.015 STDERR [INFO] I0715 00:38:37.015157 26088 net.cpp:141] Setting up inception_4a/3x3_reduce
2016-07-15 00:38:37.015 STDERR [INFO] I0715 00:38:37.015180 26088 net.cpp:148] Top shape: 10 96 14 14 (188160)
2016-07-15 00:38:37.015 STDERR [INFO] I0715 00:38:37.015187 26088 net.cpp:156] Memory required for data: 359761920
2016-07-15 00:38:37.015 STDERR [INFO] I0715 00:38:37.015207 26088 layer_factory.hpp:77] Creating layer inception_4a/relu_3x3_reduce
2016-07-15 00:38:37.015 STDERR [INFO] I0715 00:38:37.015220 26088 net.cpp:91] Creating Layer inception_4a/relu_3x3_reduce
2016-07-15 00:38:37.015 STDERR [INFO] I0715 00:38:37.015228 26088 net.cpp:425] inception_4a/relu_3x3_reduce <- inception_4a/3x3_reduce
2016-07-15 00:38:37.015 STDERR [INFO] I0715 00:38:37.015238 26088 net.cpp:386] inception_4a/relu_3x3_reduce -> inception_4a/3x3_reduce (in-place)
2016-07-15 00:38:37.015 STDERR [INFO] I0715 00:38:37.015245 26092 net.cpp:141] Setting up inception_4a/relu_1x1
2016-07-15 00:38:37.015 STDERR [INFO] I0715 00:38:37.015260 26092 net.cpp:148] Top shape: 10 192 14 14 (376320)
2016-07-15 00:38:37.015 STDERR [INFO] I0715 00:38:37.015265 26092 net.cpp:156] Memory required for data: 359009280
2016-07-15 00:38:37.015 STDERR [INFO] I0715 00:38:37.015271 26092 layer_factory.hpp:77] Creating layer inception_4a/3x3_reduce
2016-07-15 00:38:37.015 STDERR [INFO] I0715 00:38:37.015291 26092 net.cpp:91] Creating Layer inception_4a/3x3_reduce
2016-07-15 00:38:37.015 STDERR [INFO] I0715 00:38:37.015298 26092 net.cpp:425] inception_4a/3x3_reduce <- pool3/3x3_s2_pool3/3x3_s2_0_split_1
2016-07-15 00:38:37.015 STDERR [INFO] I0715 00:38:37.015311 26092 net.cpp:399] inception_4a/3x3_reduce -> inception_4a/3x3_reduce
2016-07-15 00:38:37.016 n.t.s.b.CVParticleBolt [INFO] [Timing] RequestID: 0 StreamID: home/peifeng/work/data/frame.320x240.jpg SequenceNr: 74 Leaving scale: 1468557517016 Size: 3530
2016-07-15 00:38:37.016 STDERR [INFO] I0715 00:38:37.016446 26088 net.cpp:141] Setting up inception_4a/relu_3x3_reduce
2016-07-15 00:38:37.016 STDERR [INFO] I0715 00:38:37.016465 26088 net.cpp:148] Top shape: 10 96 14 14 (188160)
2016-07-15 00:38:37.016 STDERR [INFO] I0715 00:38:37.016470 26088 net.cpp:156] Memory required for data: 360514560
2016-07-15 00:38:37.016 STDERR [INFO] I0715 00:38:37.016476 26088 layer_factory.hpp:77] Creating layer inception_4a/3x3
2016-07-15 00:38:37.016 STDERR [INFO] I0715 00:38:37.016507 26088 net.cpp:91] Creating Layer inception_4a/3x3
2016-07-15 00:38:37.016 STDERR [INFO] I0715 00:38:37.016517 26088 net.cpp:425] inception_4a/3x3 <- inception_4a/3x3_reduce
2016-07-15 00:38:37.016 STDERR [INFO] I0715 00:38:37.016528 26088 net.cpp:399] inception_4a/3x3 -> inception_4a/3x3
2016-07-15 00:38:37.020 STDERR [INFO] I0715 00:38:37.020793 26092 net.cpp:141] Setting up inception_4a/3x3_reduce
2016-07-15 00:38:37.021 STDERR [INFO] I0715 00:38:37.020815 26092 net.cpp:148] Top shape: 10 96 14 14 (188160)
2016-07-15 00:38:37.021 STDERR [INFO] I0715 00:38:37.020822 26092 net.cpp:156] Memory required for data: 359761920
2016-07-15 00:38:37.021 STDERR [INFO] I0715 00:38:37.020846 26092 layer_factory.hpp:77] Creating layer inception_4a/relu_3x3_reduce
2016-07-15 00:38:37.021 STDERR [INFO] I0715 00:38:37.020858 26092 net.cpp:91] Creating Layer inception_4a/relu_3x3_reduce
2016-07-15 00:38:37.021 STDERR [INFO] I0715 00:38:37.020864 26092 net.cpp:425] inception_4a/relu_3x3_reduce <- inception_4a/3x3_reduce
2016-07-15 00:38:37.021 STDERR [INFO] I0715 00:38:37.020874 26092 net.cpp:386] inception_4a/relu_3x3_reduce -> inception_4a/3x3_reduce (in-place)
2016-07-15 00:38:37.022 STDERR [INFO] I0715 00:38:37.021962 26092 net.cpp:141] Setting up inception_4a/relu_3x3_reduce
2016-07-15 00:38:37.022 STDERR [INFO] I0715 00:38:37.021978 26092 net.cpp:148] Top shape: 10 96 14 14 (188160)
2016-07-15 00:38:37.022 STDERR [INFO] I0715 00:38:37.021984 26092 net.cpp:156] Memory required for data: 360514560
2016-07-15 00:38:37.022 STDERR [INFO] I0715 00:38:37.021989 26092 layer_factory.hpp:77] Creating layer inception_4a/3x3
2016-07-15 00:38:37.022 STDERR [INFO] I0715 00:38:37.022008 26092 net.cpp:91] Creating Layer inception_4a/3x3
2016-07-15 00:38:37.022 STDERR [INFO] I0715 00:38:37.022016 26092 net.cpp:425] inception_4a/3x3 <- inception_4a/3x3_reduce
2016-07-15 00:38:37.022 STDERR [INFO] I0715 00:38:37.022025 26092 net.cpp:399] inception_4a/3x3 -> inception_4a/3x3
2016-07-15 00:38:37.024 STDERR [INFO] I0715 00:38:37.024508 26088 net.cpp:141] Setting up inception_4a/3x3
2016-07-15 00:38:37.024 STDERR [INFO] I0715 00:38:37.024530 26088 net.cpp:148] Top shape: 10 208 14 14 (407680)
2016-07-15 00:38:37.024 STDERR [INFO] I0715 00:38:37.024536 26088 net.cpp:156] Memory required for data: 362145280
2016-07-15 00:38:37.024 STDERR [INFO] I0715 00:38:37.024547 26088 layer_factory.hpp:77] Creating layer inception_4a/relu_3x3
2016-07-15 00:38:37.024 STDERR [INFO] I0715 00:38:37.024561 26088 net.cpp:91] Creating Layer inception_4a/relu_3x3
2016-07-15 00:38:37.024 STDERR [INFO] I0715 00:38:37.024569 26088 net.cpp:425] inception_4a/relu_3x3 <- inception_4a/3x3
2016-07-15 00:38:37.024 STDERR [INFO] I0715 00:38:37.024577 26088 net.cpp:386] inception_4a/relu_3x3 -> inception_4a/3x3 (in-place)
2016-07-15 00:38:37.024 STDERR [INFO] I0715 00:38:37.024854 26088 net.cpp:141] Setting up inception_4a/relu_3x3
2016-07-15 00:38:37.025 STDERR [INFO] I0715 00:38:37.024866 26088 net.cpp:148] Top shape: 10 208 14 14 (407680)
2016-07-15 00:38:37.025 STDERR [INFO] I0715 00:38:37.024871 26088 net.cpp:156] Memory required for data: 363776000
2016-07-15 00:38:37.025 STDERR [INFO] I0715 00:38:37.024878 26088 layer_factory.hpp:77] Creating layer inception_4a/5x5_reduce
2016-07-15 00:38:37.025 STDERR [INFO] I0715 00:38:37.024895 26088 net.cpp:91] Creating Layer inception_4a/5x5_reduce
2016-07-15 00:38:37.025 STDERR [INFO] I0715 00:38:37.024902 26088 net.cpp:425] inception_4a/5x5_reduce <- pool3/3x3_s2_pool3/3x3_s2_0_split_2
2016-07-15 00:38:37.025 STDERR [INFO] I0715 00:38:37.024915 26088 net.cpp:399] inception_4a/5x5_reduce -> inception_4a/5x5_reduce
2016-07-15 00:38:37.029 STDERR [INFO] I0715 00:38:37.029716 26088 net.cpp:141] Setting up inception_4a/5x5_reduce
2016-07-15 00:38:37.029 STDERR [INFO] I0715 00:38:37.029734 26088 net.cpp:148] Top shape: 10 16 14 14 (31360)
2016-07-15 00:38:37.030 STDERR [INFO] I0715 00:38:37.029741 26088 net.cpp:156] Memory required for data: 363901440
2016-07-15 00:38:37.030 STDERR [INFO] I0715 00:38:37.029750 26088 layer_factory.hpp:77] Creating layer inception_4a/relu_5x5_reduce
2016-07-15 00:38:37.030 STDERR [INFO] I0715 00:38:37.029764 26088 net.cpp:91] Creating Layer inception_4a/relu_5x5_reduce
2016-07-15 00:38:37.030 STDERR [INFO] I0715 00:38:37.029772 26088 net.cpp:425] inception_4a/relu_5x5_reduce <- inception_4a/5x5_reduce
2016-07-15 00:38:37.030 STDERR [INFO] I0715 00:38:37.029779 26088 net.cpp:386] inception_4a/relu_5x5_reduce -> inception_4a/5x5_reduce (in-place)
2016-07-15 00:38:37.030 STDERR [INFO] I0715 00:38:37.030791 26092 net.cpp:141] Setting up inception_4a/3x3
2016-07-15 00:38:37.030 STDERR [INFO] I0715 00:38:37.030812 26092 net.cpp:148] Top shape: 10 208 14 14 (407680)
2016-07-15 00:38:37.030 STDERR [INFO] I0715 00:38:37.030817 26092 net.cpp:156] Memory required for data: 362145280
2016-07-15 00:38:37.031 STDERR [INFO] I0715 00:38:37.030828 26092 layer_factory.hpp:77] Creating layer inception_4a/relu_3x3
2016-07-15 00:38:37.031 STDERR [INFO] I0715 00:38:37.030840 26092 net.cpp:91] Creating Layer inception_4a/relu_3x3
2016-07-15 00:38:37.031 STDERR [INFO] I0715 00:38:37.030846 26092 net.cpp:425] inception_4a/relu_3x3 <- inception_4a/3x3
2016-07-15 00:38:37.031 STDERR [INFO] I0715 00:38:37.030854 26092 net.cpp:386] inception_4a/relu_3x3 -> inception_4a/3x3 (in-place)
2016-07-15 00:38:37.031 STDERR [INFO] I0715 00:38:37.030860 26088 net.cpp:141] Setting up inception_4a/relu_5x5_reduce
2016-07-15 00:38:37.031 STDERR [INFO] I0715 00:38:37.030875 26088 net.cpp:148] Top shape: 10 16 14 14 (31360)
2016-07-15 00:38:37.031 STDERR [INFO] I0715 00:38:37.030880 26088 net.cpp:156] Memory required for data: 364026880
2016-07-15 00:38:37.031 STDERR [INFO] I0715 00:38:37.030886 26088 layer_factory.hpp:77] Creating layer inception_4a/5x5
2016-07-15 00:38:37.031 STDERR [INFO] I0715 00:38:37.030906 26088 net.cpp:91] Creating Layer inception_4a/5x5
2016-07-15 00:38:37.031 STDERR [INFO] I0715 00:38:37.030913 26088 net.cpp:425] inception_4a/5x5 <- inception_4a/5x5_reduce
2016-07-15 00:38:37.031 STDERR [INFO] I0715 00:38:37.030923 26088 net.cpp:399] inception_4a/5x5 -> inception_4a/5x5
2016-07-15 00:38:37.032 STDERR [INFO] I0715 00:38:37.032544 26092 net.cpp:141] Setting up inception_4a/relu_3x3
2016-07-15 00:38:37.032 STDERR [INFO] I0715 00:38:37.032562 26092 net.cpp:148] Top shape: 10 208 14 14 (407680)
2016-07-15 00:38:37.032 STDERR [INFO] I0715 00:38:37.032567 26092 net.cpp:156] Memory required for data: 363776000
2016-07-15 00:38:37.032 STDERR [INFO] I0715 00:38:37.032572 26092 layer_factory.hpp:77] Creating layer inception_4a/5x5_reduce
2016-07-15 00:38:37.032 STDERR [INFO] I0715 00:38:37.032589 26092 net.cpp:91] Creating Layer inception_4a/5x5_reduce
2016-07-15 00:38:37.032 STDERR [INFO] I0715 00:38:37.032596 26092 net.cpp:425] inception_4a/5x5_reduce <- pool3/3x3_s2_pool3/3x3_s2_0_split_2
2016-07-15 00:38:37.033 STDERR [INFO] I0715 00:38:37.032609 26092 net.cpp:399] inception_4a/5x5_reduce -> inception_4a/5x5_reduce
2016-07-15 00:38:37.037 STDERR [INFO] I0715 00:38:37.037371 26088 net.cpp:141] Setting up inception_4a/5x5
2016-07-15 00:38:37.037 STDERR [INFO] I0715 00:38:37.037391 26088 net.cpp:148] Top shape: 10 48 14 14 (94080)
2016-07-15 00:38:37.037 STDERR [INFO] I0715 00:38:37.037403 26088 net.cpp:156] Memory required for data: 364403200
2016-07-15 00:38:37.037 STDERR [INFO] I0715 00:38:37.037413 26088 layer_factory.hpp:77] Creating layer inception_4a/relu_5x5
2016-07-15 00:38:37.037 STDERR [INFO] I0715 00:38:37.037423 26088 net.cpp:91] Creating Layer inception_4a/relu_5x5
2016-07-15 00:38:37.037 STDERR [INFO] I0715 00:38:37.037431 26088 net.cpp:425] inception_4a/relu_5x5 <- inception_4a/5x5
2016-07-15 00:38:37.037 STDERR [INFO] I0715 00:38:37.037438 26088 net.cpp:386] inception_4a/relu_5x5 -> inception_4a/5x5 (in-place)
2016-07-15 00:38:37.038 STDERR [INFO] I0715 00:38:37.038549 26092 net.cpp:141] Setting up inception_4a/5x5_reduce
2016-07-15 00:38:37.038 STDERR [INFO] I0715 00:38:37.038563 26088 net.cpp:141] Setting up inception_4a/relu_5x5
2016-07-15 00:38:37.038 STDERR [INFO] I0715 00:38:37.038568 26092 net.cpp:148] Top shape: 10 16 14 14 (31360)
2016-07-15 00:38:37.038 STDERR [INFO] I0715 00:38:37.038580 26088 net.cpp:148] Top shape: 10 48 14 14 (94080)
2016-07-15 00:38:37.038 STDERR [INFO] I0715 00:38:37.038581 26092 net.cpp:156] Memory required for data: 363901440
2016-07-15 00:38:37.038 STDERR [INFO] I0715 00:38:37.038589 26088 net.cpp:156] Memory required for data: 364779520
2016-07-15 00:38:37.038 STDERR [INFO] I0715 00:38:37.038595 26088 layer_factory.hpp:77] Creating layer inception_4a/pool
2016-07-15 00:38:37.039 STDERR [INFO] I0715 00:38:37.038599 26092 layer_factory.hpp:77] Creating layer inception_4a/relu_5x5_reduce
2016-07-15 00:38:37.039 STDERR [INFO] I0715 00:38:37.038606 26088 net.cpp:91] Creating Layer inception_4a/pool
2016-07-15 00:38:37.039 STDERR [INFO] I0715 00:38:37.038614 26088 net.cpp:425] inception_4a/pool <- pool3/3x3_s2_pool3/3x3_s2_0_split_3
2016-07-15 00:38:37.039 STDERR [INFO] I0715 00:38:37.038616 26092 net.cpp:91] Creating Layer inception_4a/relu_5x5_reduce
2016-07-15 00:38:37.039 STDERR [INFO] I0715 00:38:37.038626 26088 net.cpp:399] inception_4a/pool -> inception_4a/pool
2016-07-15 00:38:37.039 STDERR [INFO] I0715 00:38:37.038630 26092 net.cpp:425] inception_4a/relu_5x5_reduce <- inception_4a/5x5_reduce
2016-07-15 00:38:37.039 STDERR [INFO] I0715 00:38:37.038643 26092 net.cpp:386] inception_4a/relu_5x5_reduce -> inception_4a/5x5_reduce (in-place)
2016-07-15 00:38:37.039 STDERR [INFO] I0715 00:38:37.039393 26088 net.cpp:141] Setting up inception_4a/pool
2016-07-15 00:38:37.039 STDERR [INFO] I0715 00:38:37.039407 26088 net.cpp:148] Top shape: 10 480 14 14 (940800)
2016-07-15 00:38:37.039 STDERR [INFO] I0715 00:38:37.039412 26088 net.cpp:156] Memory required for data: 368542720
2016-07-15 00:38:37.039 STDERR [INFO] I0715 00:38:37.039417 26088 layer_factory.hpp:77] Creating layer inception_4a/pool_proj
2016-07-15 00:38:37.039 STDERR [INFO] I0715 00:38:37.039438 26088 net.cpp:91] Creating Layer inception_4a/pool_proj
2016-07-15 00:38:37.039 STDERR [INFO] I0715 00:38:37.039444 26088 net.cpp:425] inception_4a/pool_proj <- inception_4a/pool
2016-07-15 00:38:37.039 STDERR [INFO] I0715 00:38:37.039454 26088 net.cpp:399] inception_4a/pool_proj -> inception_4a/pool_proj
2016-07-15 00:38:37.039 STDERR [INFO] I0715 00:38:37.039865 26092 net.cpp:141] Setting up inception_4a/relu_5x5_reduce
2016-07-15 00:38:37.039 STDERR [INFO] I0715 00:38:37.039881 26092 net.cpp:148] Top shape: 10 16 14 14 (31360)
2016-07-15 00:38:37.039 STDERR [INFO] I0715 00:38:37.039887 26092 net.cpp:156] Memory required for data: 364026880
2016-07-15 00:38:37.040 STDERR [INFO] I0715 00:38:37.039893 26092 layer_factory.hpp:77] Creating layer inception_4a/5x5
2016-07-15 00:38:37.040 STDERR [INFO] I0715 00:38:37.039911 26092 net.cpp:91] Creating Layer inception_4a/5x5
2016-07-15 00:38:37.040 STDERR [INFO] I0715 00:38:37.039918 26092 net.cpp:425] inception_4a/5x5 <- inception_4a/5x5_reduce
2016-07-15 00:38:37.040 STDERR [INFO] I0715 00:38:37.039929 26092 net.cpp:399] inception_4a/5x5 -> inception_4a/5x5
2016-07-15 00:38:37.043 STDERR [INFO] I0715 00:38:37.043854 26088 net.cpp:141] Setting up inception_4a/pool_proj
2016-07-15 00:38:37.044 STDERR [INFO] I0715 00:38:37.043874 26088 net.cpp:148] Top shape: 10 64 14 14 (125440)
2016-07-15 00:38:37.044 STDERR [INFO] I0715 00:38:37.043879 26088 net.cpp:156] Memory required for data: 369044480
2016-07-15 00:38:37.044 STDERR [INFO] I0715 00:38:37.043889 26088 layer_factory.hpp:77] Creating layer inception_4a/relu_pool_proj
2016-07-15 00:38:37.044 STDERR [INFO] I0715 00:38:37.043910 26088 net.cpp:91] Creating Layer inception_4a/relu_pool_proj
2016-07-15 00:38:37.044 STDERR [INFO] I0715 00:38:37.043918 26088 net.cpp:425] inception_4a/relu_pool_proj <- inception_4a/pool_proj
2016-07-15 00:38:37.044 STDERR [INFO] I0715 00:38:37.043928 26088 net.cpp:386] inception_4a/relu_pool_proj -> inception_4a/pool_proj (in-place)
2016-07-15 00:38:37.045 STDERR [INFO] I0715 00:38:37.045094 26088 net.cpp:141] Setting up inception_4a/relu_pool_proj
2016-07-15 00:38:37.045 STDERR [INFO] I0715 00:38:37.045109 26088 net.cpp:148] Top shape: 10 64 14 14 (125440)
2016-07-15 00:38:37.045 STDERR [INFO] I0715 00:38:37.045114 26088 net.cpp:156] Memory required for data: 369546240
2016-07-15 00:38:37.045 STDERR [INFO] I0715 00:38:37.045120 26088 layer_factory.hpp:77] Creating layer inception_4a/output
2016-07-15 00:38:37.045 STDERR [INFO] I0715 00:38:37.045128 26088 net.cpp:91] Creating Layer inception_4a/output
2016-07-15 00:38:37.045 STDERR [INFO] I0715 00:38:37.045135 26088 net.cpp:425] inception_4a/output <- inception_4a/1x1
2016-07-15 00:38:37.045 STDERR [INFO] I0715 00:38:37.045141 26088 net.cpp:425] inception_4a/output <- inception_4a/3x3
2016-07-15 00:38:37.045 STDERR [INFO] I0715 00:38:37.045147 26088 net.cpp:425] inception_4a/output <- inception_4a/5x5
2016-07-15 00:38:37.045 STDERR [INFO] I0715 00:38:37.045153 26088 net.cpp:425] inception_4a/output <- inception_4a/pool_proj
2016-07-15 00:38:37.045 STDERR [INFO] I0715 00:38:37.045166 26088 net.cpp:399] inception_4a/output -> inception_4a/output
2016-07-15 00:38:37.045 STDERR [INFO] I0715 00:38:37.045227 26088 net.cpp:141] Setting up inception_4a/output
2016-07-15 00:38:37.045 STDERR [INFO] I0715 00:38:37.045238 26088 net.cpp:148] Top shape: 10 512 14 14 (1003520)
2016-07-15 00:38:37.045 STDERR [INFO] I0715 00:38:37.045243 26088 net.cpp:156] Memory required for data: 373560320
2016-07-15 00:38:37.045 STDERR [INFO] I0715 00:38:37.045248 26088 layer_factory.hpp:77] Creating layer inception_4a/output_inception_4a/output_0_split
2016-07-15 00:38:37.045 STDERR [INFO] I0715 00:38:37.045258 26088 net.cpp:91] Creating Layer inception_4a/output_inception_4a/output_0_split
2016-07-15 00:38:37.045 STDERR [INFO] I0715 00:38:37.045264 26088 net.cpp:425] inception_4a/output_inception_4a/output_0_split <- inception_4a/output
2016-07-15 00:38:37.045 STDERR [INFO] I0715 00:38:37.045270 26088 net.cpp:399] inception_4a/output_inception_4a/output_0_split -> inception_4a/output_inception_4a/output_0_split_0
2016-07-15 00:38:37.045 STDERR [INFO] I0715 00:38:37.045284 26088 net.cpp:399] inception_4a/output_inception_4a/output_0_split -> inception_4a/output_inception_4a/output_0_split_1
2016-07-15 00:38:37.046 STDERR [INFO] I0715 00:38:37.045295 26088 net.cpp:399] inception_4a/output_inception_4a/output_0_split -> inception_4a/output_inception_4a/output_0_split_2
2016-07-15 00:38:37.046 STDERR [INFO] I0715 00:38:37.045303 26088 net.cpp:399] inception_4a/output_inception_4a/output_0_split -> inception_4a/output_inception_4a/output_0_split_3
2016-07-15 00:38:37.046 STDERR [INFO] I0715 00:38:37.045352 26092 net.cpp:141] Setting up inception_4a/5x5
2016-07-15 00:38:37.046 STDERR [INFO] I0715 00:38:37.045369 26092 net.cpp:148] Top shape: 10 48 14 14 (94080)
2016-07-15 00:38:37.046 STDERR [INFO] I0715 00:38:37.045374 26092 net.cpp:156] Memory required for data: 364403200
2016-07-15 00:38:37.046 STDERR [INFO] I0715 00:38:37.045383 26092 layer_factory.hpp:77] Creating layer inception_4a/relu_5x5
2016-07-15 00:38:37.046 STDERR [INFO] I0715 00:38:37.045393 26092 net.cpp:91] Creating Layer inception_4a/relu_5x5
2016-07-15 00:38:37.046 STDERR [INFO] I0715 00:38:37.045403 26092 net.cpp:425] inception_4a/relu_5x5 <- inception_4a/5x5
2016-07-15 00:38:37.046 STDERR [INFO] I0715 00:38:37.045410 26092 net.cpp:386] inception_4a/relu_5x5 -> inception_4a/5x5 (in-place)
2016-07-15 00:38:37.046 STDERR [INFO] I0715 00:38:37.045447 26088 net.cpp:141] Setting up inception_4a/output_inception_4a/output_0_split
2016-07-15 00:38:37.046 STDERR [INFO] I0715 00:38:37.045459 26088 net.cpp:148] Top shape: 10 512 14 14 (1003520)
2016-07-15 00:38:37.046 STDERR [INFO] I0715 00:38:37.045466 26088 net.cpp:148] Top shape: 10 512 14 14 (1003520)
2016-07-15 00:38:37.046 STDERR [INFO] I0715 00:38:37.045472 26088 net.cpp:148] Top shape: 10 512 14 14 (1003520)
2016-07-15 00:38:37.046 STDERR [INFO] I0715 00:38:37.045477 26088 net.cpp:148] Top shape: 10 512 14 14 (1003520)
2016-07-15 00:38:37.046 STDERR [INFO] I0715 00:38:37.045481 26088 net.cpp:156] Memory required for data: 389616640
2016-07-15 00:38:37.046 STDERR [INFO] I0715 00:38:37.045486 26088 layer_factory.hpp:77] Creating layer inception_4b/1x1
2016-07-15 00:38:37.046 STDERR [INFO] I0715 00:38:37.045511 26088 net.cpp:91] Creating Layer inception_4b/1x1
2016-07-15 00:38:37.046 STDERR [INFO] I0715 00:38:37.045518 26088 net.cpp:425] inception_4b/1x1 <- inception_4a/output_inception_4a/output_0_split_0
2016-07-15 00:38:37.046 STDERR [INFO] I0715 00:38:37.045527 26088 net.cpp:399] inception_4b/1x1 -> inception_4b/1x1
2016-07-15 00:38:37.046 STDERR [INFO] I0715 00:38:37.045974 26092 net.cpp:141] Setting up inception_4a/relu_5x5
2016-07-15 00:38:37.046 STDERR [INFO] I0715 00:38:37.045987 26092 net.cpp:148] Top shape: 10 48 14 14 (94080)
2016-07-15 00:38:37.046 STDERR [INFO] I0715 00:38:37.045992 26092 net.cpp:156] Memory required for data: 364779520
2016-07-15 00:38:37.046 STDERR [INFO] I0715 00:38:37.045999 26092 layer_factory.hpp:77] Creating layer inception_4a/pool
2016-07-15 00:38:37.047 STDERR [INFO] I0715 00:38:37.046010 26092 net.cpp:91] Creating Layer inception_4a/pool
2016-07-15 00:38:37.047 STDERR [INFO] I0715 00:38:37.046016 26092 net.cpp:425] inception_4a/pool <- pool3/3x3_s2_pool3/3x3_s2_0_split_3
2016-07-15 00:38:37.047 STDERR [INFO] I0715 00:38:37.046025 26092 net.cpp:399] inception_4a/pool -> inception_4a/pool
2016-07-15 00:38:37.047 STDERR [INFO] I0715 00:38:37.046103 26092 net.cpp:141] Setting up inception_4a/pool
2016-07-15 00:38:37.047 STDERR [INFO] I0715 00:38:37.046118 26092 net.cpp:148] Top shape: 10 480 14 14 (940800)
2016-07-15 00:38:37.047 STDERR [INFO] I0715 00:38:37.046128 26092 net.cpp:156] Memory required for data: 368542720
2016-07-15 00:38:37.047 STDERR [INFO] I0715 00:38:37.046138 26092 layer_factory.hpp:77] Creating layer inception_4a/pool_proj
2016-07-15 00:38:37.047 STDERR [INFO] I0715 00:38:37.046159 26092 net.cpp:91] Creating Layer inception_4a/pool_proj
2016-07-15 00:38:37.047 STDERR [INFO] I0715 00:38:37.046165 26092 net.cpp:425] inception_4a/pool_proj <- inception_4a/pool
2016-07-15 00:38:37.047 STDERR [INFO] I0715 00:38:37.046178 26092 net.cpp:399] inception_4a/pool_proj -> inception_4a/pool_proj
2016-07-15 00:38:37.050 STDERR [INFO] I0715 00:38:37.050292 26088 net.cpp:141] Setting up inception_4b/1x1
2016-07-15 00:38:37.050 STDERR [INFO] I0715 00:38:37.050312 26088 net.cpp:148] Top shape: 10 160 14 14 (313600)
2016-07-15 00:38:37.050 STDERR [INFO] I0715 00:38:37.050317 26088 net.cpp:156] Memory required for data: 390871040
2016-07-15 00:38:37.050 STDERR [INFO] I0715 00:38:37.050326 26088 layer_factory.hpp:77] Creating layer inception_4b/relu_1x1
2016-07-15 00:38:37.050 STDERR [INFO] I0715 00:38:37.050340 26088 net.cpp:91] Creating Layer inception_4b/relu_1x1
2016-07-15 00:38:37.050 STDERR [INFO] I0715 00:38:37.050346 26088 net.cpp:425] inception_4b/relu_1x1 <- inception_4b/1x1
2016-07-15 00:38:37.050 STDERR [INFO] I0715 00:38:37.050357 26088 net.cpp:386] inception_4b/relu_1x1 -> inception_4b/1x1 (in-place)
2016-07-15 00:38:37.052 STDERR [INFO] I0715 00:38:37.052038 26088 net.cpp:141] Setting up inception_4b/relu_1x1
2016-07-15 00:38:37.052 STDERR [INFO] I0715 00:38:37.052054 26088 net.cpp:148] Top shape: 10 160 14 14 (313600)
2016-07-15 00:38:37.052 STDERR [INFO] I0715 00:38:37.052059 26088 net.cpp:156] Memory required for data: 392125440
2016-07-15 00:38:37.052 STDERR [INFO] I0715 00:38:37.052065 26088 layer_factory.hpp:77] Creating layer inception_4b/3x3_reduce
2016-07-15 00:38:37.052 STDERR [INFO] I0715 00:38:37.052084 26088 net.cpp:91] Creating Layer inception_4b/3x3_reduce
2016-07-15 00:38:37.052 STDERR [INFO] I0715 00:38:37.052090 26088 net.cpp:425] inception_4b/3x3_reduce <- inception_4a/output_inception_4a/output_0_split_1
2016-07-15 00:38:37.052 STDERR [INFO] I0715 00:38:37.052104 26088 net.cpp:399] inception_4b/3x3_reduce -> inception_4b/3x3_reduce
2016-07-15 00:38:37.052 STDERR [INFO] I0715 00:38:37.052569 26092 net.cpp:141] Setting up inception_4a/pool_proj
2016-07-15 00:38:37.052 STDERR [INFO] I0715 00:38:37.052594 26092 net.cpp:148] Top shape: 10 64 14 14 (125440)
2016-07-15 00:38:37.052 STDERR [INFO] I0715 00:38:37.052600 26092 net.cpp:156] Memory required for data: 369044480
2016-07-15 00:38:37.052 STDERR [INFO] I0715 00:38:37.052611 26092 layer_factory.hpp:77] Creating layer inception_4a/relu_pool_proj
2016-07-15 00:38:37.052 STDERR [INFO] I0715 00:38:37.052623 26092 net.cpp:91] Creating Layer inception_4a/relu_pool_proj
2016-07-15 00:38:37.052 STDERR [INFO] I0715 00:38:37.052630 26092 net.cpp:425] inception_4a/relu_pool_proj <- inception_4a/pool_proj
2016-07-15 00:38:37.052 STDERR [INFO] I0715 00:38:37.052639 26092 net.cpp:386] inception_4a/relu_pool_proj -> inception_4a/pool_proj (in-place)
2016-07-15 00:38:37.052 STDERR [INFO] I0715 00:38:37.052917 26092 net.cpp:141] Setting up inception_4a/relu_pool_proj
2016-07-15 00:38:37.053 STDERR [INFO] I0715 00:38:37.052928 26092 net.cpp:148] Top shape: 10 64 14 14 (125440)
2016-07-15 00:38:37.053 STDERR [INFO] I0715 00:38:37.052933 26092 net.cpp:156] Memory required for data: 369546240
2016-07-15 00:38:37.053 STDERR [INFO] I0715 00:38:37.052939 26092 layer_factory.hpp:77] Creating layer inception_4a/output
2016-07-15 00:38:37.053 STDERR [INFO] I0715 00:38:37.052950 26092 net.cpp:91] Creating Layer inception_4a/output
2016-07-15 00:38:37.053 STDERR [INFO] I0715 00:38:37.052956 26092 net.cpp:425] inception_4a/output <- inception_4a/1x1
2016-07-15 00:38:37.053 STDERR [INFO] I0715 00:38:37.052964 26092 net.cpp:425] inception_4a/output <- inception_4a/3x3
2016-07-15 00:38:37.053 STDERR [INFO] I0715 00:38:37.052970 26092 net.cpp:425] inception_4a/output <- inception_4a/5x5
2016-07-15 00:38:37.053 STDERR [INFO] I0715 00:38:37.052976 26092 net.cpp:425] inception_4a/output <- inception_4a/pool_proj
2016-07-15 00:38:37.053 STDERR [INFO] I0715 00:38:37.052985 26092 net.cpp:399] inception_4a/output -> inception_4a/output
2016-07-15 00:38:37.053 STDERR [INFO] I0715 00:38:37.053069 26092 net.cpp:141] Setting up inception_4a/output
2016-07-15 00:38:37.053 STDERR [INFO] I0715 00:38:37.053081 26092 net.cpp:148] Top shape: 10 512 14 14 (1003520)
2016-07-15 00:38:37.053 STDERR [INFO] I0715 00:38:37.053086 26092 net.cpp:156] Memory required for data: 373560320
2016-07-15 00:38:37.053 STDERR [INFO] I0715 00:38:37.053092 26092 layer_factory.hpp:77] Creating layer inception_4a/output_inception_4a/output_0_split
2016-07-15 00:38:37.053 STDERR [INFO] I0715 00:38:37.053100 26092 net.cpp:91] Creating Layer inception_4a/output_inception_4a/output_0_split
…
2016-07-15 00:38:37.053 STDERR [INFO] I0715 00:38:37.053128 26092 net.cpp:399] inception_4a/output_inception_4a/output_0_split -> inception_4a/output_inception_4a/output_0_split_1
2016-07-15 00:38:37.053 STDERR [INFO] I0715 00:38:37.053136 26092 net.cpp:399] inception_4a/output_inception_4a/output_0_split -> inception_4a/output_inception_4a/output_0_split_2
2016-07-15 00:38:37.053 STDERR [INFO] I0715 00:38:37.053146 26092 net.cpp:399] inception_4a/output_inception_4a/output_0_split -> inception_4a/output_inception_4a/output_0_split_3
2016-07-15 00:38:37.054 STDERR [INFO] I0715 00:38:37.054170 26092 net.cpp:141] Setting up inception_4a/output_inception_4a/output_0_split
2016-07-15 00:38:37.054 STDERR [INFO] I0715 00:38:37.054193 26092 net.cpp:148] Top shape: 10 512 14 14 (1003520)
2016-07-15 00:38:37.054 STDERR [INFO] I0715 00:38:37.054203 26092 net.cpp:148] Top shape: 10 512 14 14 (1003520)
2016-07-15 00:38:37.054 STDERR [INFO] I0715 00:38:37.054214 26092 net.cpp:148] Top shape: 10 512 14 14 (1003520)
2016-07-15 00:38:37.054 STDERR [INFO] I0715 00:38:37.054222 26092 net.cpp:148] Top shape: 10 512 14 14 (1003520)
2016-07-15 00:38:37.054 STDERR [INFO] I0715 00:38:37.054230 26092 net.cpp:156] Memory required for data: 389616640
2016-07-15 00:38:37.054 STDERR [INFO] I0715 00:38:37.054239 26092 layer_factory.hpp:77] Creating layer inception_4b/1x1
2016-07-15 00:38:37.054 STDERR [INFO] I0715 00:38:37.054260 26092 net.cpp:91] Creating Layer inception_4b/1x1
2016-07-15 00:38:37.054 STDERR [INFO] I0715 00:38:37.054270 26092 net.cpp:425] inception_4b/1x1 <- inception_4a/output_inception_4a/output_0_split_0
2016-07-15 00:38:37.054 STDERR [INFO] I0715 00:38:37.054287 26092 net.cpp:399] inception_4b/1x1 -> inception_4b/1x1
2016-07-15 00:38:37.055 STDERR [INFO] I0715 00:38:37.055907 26088 net.cpp:141] Setting up inception_4b/3x3_reduce
2016-07-15 00:38:37.056 STDERR [INFO] I0715 00:38:37.055925 26088 net.cpp:148] Top shape: 10 112 14 14 (219520)
2016-07-15 00:38:37.056 STDERR [INFO] I0715 00:38:37.055932 26088 net.cpp:156] Memory required for data: 393003520
2016-07-15 00:38:37.056 STDERR [INFO] I0715 00:38:37.055941 26088 layer_factory.hpp:77] Creating layer inception_4b/relu_3x3_reduce
2016-07-15 00:38:37.056 STDERR [INFO] I0715 00:38:37.055955 26088 net.cpp:91] Creating Layer inception_4b/relu_3x3_reduce
2016-07-15 00:38:37.056 STDERR [INFO] I0715 00:38:37.055963 26088 net.cpp:425] inception_4b/relu_3x3_reduce <- inception_4b/3x3_reduce
2016-07-15 00:38:37.056 STDERR [INFO] I0715 00:38:37.055972 26088 net.cpp:386] inception_4b/relu_3x3_reduce -> inception_4b/3x3_reduce (in-place)
2016-07-15 00:38:37.057 STDERR [INFO] I0715 00:38:37.057368 26088 net.cpp:141] Setting up inception_4b/relu_3x3_reduce
2016-07-15 00:38:37.057 STDERR [INFO] I0715 00:38:37.057384 26088 net.cpp:148] Top shape: 10 112 14 14 (219520)
2016-07-15 00:38:37.057 STDERR [INFO] I0715 00:38:37.057389 26088 net.cpp:156] Memory required for data: 393881600
2016-07-15 00:38:37.057 STDERR [INFO] I0715 00:38:37.057394 26088 layer_factory.hpp:77] Creating layer inception_4b/3x3
2016-07-15 00:38:37.057 STDERR [INFO] I0715 00:38:37.057412 26088 net.cpp:91] Creating Layer inception_4b/3x3
2016-07-15 00:38:37.057 STDERR [INFO] I0715 00:38:37.057420 26088 net.cpp:425] inception_4b/3x3 <- inception_4b/3x3_reduce
2016-07-15 00:38:37.057 STDERR [INFO] I0715 00:38:37.057431 26088 net.cpp:399] inception_4b/3x3 -> inception_4b/3x3
2016-07-15 00:38:37.060 STDERR [INFO] I0715 00:38:37.060483 26092 net.cpp:141] Setting up inception_4b/1x1
2016-07-15 00:38:37.060 STDERR [INFO] I0715 00:38:37.060510 26092 net.cpp:148] Top shape: 10 160 14 14 (313600)
2016-07-15 00:38:37.060 STDERR [INFO] I0715 00:38:37.060518 26092 net.cpp:156] Memory required for data: 390871040
2016-07-15 00:38:37.060 STDERR [INFO] I0715 00:38:37.060534 26092 layer_factory.hpp:77] Creating layer inception_4b/relu_1x1
2016-07-15 00:38:37.060 STDERR [INFO] I0715 00:38:37.060547 26092 net.cpp:91] Creating Layer inception_4b/relu_1x1
2016-07-15 00:38:37.060 STDERR [INFO] I0715 00:38:37.060556 26092 net.cpp:425] inception_4b/relu_1x1 <- inception_4b/1x1
2016-07-15 00:38:37.060 STDERR [INFO] I0715 00:38:37.060569 26092 net.cpp:386] inception_4b/relu_1x1 -> inception_4b/1x1 (in-place)
2016-07-15 00:38:37.061 STDERR [INFO] I0715 00:38:37.061919 26092 net.cpp:141] Setting up inception_4b/relu_1x1
2016-07-15 00:38:37.062 STDERR [INFO] I0715 00:38:37.061941 26092 net.cpp:148] Top shape: 10 160 14 14 (313600)
2016-07-15 00:38:37.062 STDERR [INFO] I0715 00:38:37.061949 26092 net.cpp:156] Memory required for data: 392125440
2016-07-15 00:38:37.062 STDERR [INFO] I0715 00:38:37.061957 26092 layer_factory.hpp:77] Creating layer inception_4b/3x3_reduce
2016-07-15 00:38:37.062 STDERR [INFO] I0715 00:38:37.061980 26092 net.cpp:91] Creating Layer inception_4b/3x3_reduce
2016-07-15 00:38:37.062 STDERR [INFO] I0715 00:38:37.061990 26092 net.cpp:425] inception_4b/3x3_reduce <- inception_4a/output_inception_4a/output_0_split_1
2016-07-15 00:38:37.062 STDERR [INFO] I0715 00:38:37.062007 26092 net.cpp:399] inception_4b/3x3_reduce -> inception_4b/3x3_reduce
2016-07-15 00:38:37.064 STDERR [INFO] I0715 00:38:37.064843 26088 net.cpp:141] Setting up inception_4b/3x3
2016-07-15 00:38:37.065 STDERR [INFO] I0715 00:38:37.064862 26088 net.cpp:148] Top shape: 10 224 14 14 (439040)
2016-07-15 00:38:37.065 STDERR [INFO] I0715 00:38:37.064868 26088 net.cpp:156] Memory required for data: 395637760
2016-07-15 00:38:37.065 STDERR [INFO] I0715 00:38:37.064879 26088 layer_factory.hpp:77] Creating layer inception_4b/relu_3x3
2016-07-15 00:38:37.065 STDERR [INFO] I0715 00:38:37.064888 26088 net.cpp:91] Creating Layer inception_4b/relu_3x3
2016-07-15 00:38:37.065 STDERR [INFO] I0715 00:38:37.064895 26088 net.cpp:425] inception_4b/relu_3x3 <- inception_4b/3x3
2016-07-15 00:38:37.065 STDERR [INFO] I0715 00:38:37.064908 26088 net.cpp:386] inception_4b/relu_3x3 -> inception_4b/3x3 (in-place)
2016-07-15 00:38:37.066 STDERR [INFO] I0715 00:38:37.066216 26088 net.cpp:141] Setting up inception_4b/relu_3x3
2016-07-15 00:38:37.066 STDERR [INFO] I0715 00:38:37.066232 26088 net.cpp:148] Top shape: 10 224 14 14 (439040)
2016-07-15 00:38:37.066 STDERR [INFO] I0715 00:38:37.066237 26088 net.cpp:156] Memory required for data: 397393920
2016-07-15 00:38:37.066 STDERR [INFO] I0715 00:38:37.066242 26088 layer_factory.hpp:77] Creating layer inception_4b/5x5_reduce
2016-07-15 00:38:37.066 STDERR [INFO] I0715 00:38:37.066272 26088 net.cpp:91] Creating Layer inception_4b/5x5_reduce
2016-07-15 00:38:37.066 STDERR [INFO] I0715 00:38:37.066279 26088 net.cpp:425] inception_4b/5x5_reduce <- inception_4a/output_inception_4a/output_0_split_2
2016-07-15 00:38:37.066 STDERR [INFO] I0715 00:38:37.066293 26088 net.cpp:399] inception_4b/5x5_reduce -> inception_4b/5x5_reduce
2016-07-15 00:38:37.070 STDERR [INFO] I0715 00:38:37.069977 26092 net.cpp:141] Setting up inception_4b/3x3_reduce
2016-07-15 00:38:37.070 STDERR [INFO] I0715 00:38:37.070001 26092 net.cpp:148] Top shape: 10 112 14 14 (219520)
2016-07-15 00:38:37.070 STDERR [INFO] I0715 00:38:37.070010 26092 net.cpp:156] Memory required for data: 393003520
2016-07-15 00:38:37.070 STDERR [INFO] I0715 00:38:37.070024 26092 layer_factory.hpp:77] Creating layer inception_4b/relu_3x3_reduce
2016-07-15 00:38:37.070 STDERR [INFO] I0715 00:38:37.070037 26092 net.cpp:91] Creating Layer inception_4b/relu_3x3_reduce
2016-07-15 00:38:37.070 STDERR [INFO] I0715 00:38:37.070049 26092 net.cpp:425] inception_4b/relu_3x3_reduce <- inception_4b/3x3_reduce
2016-07-15 00:38:37.070 STDERR [INFO] I0715 00:38:37.070063 26092 net.cpp:386] inception_4b/relu_3x3_reduce -> inception_4b/3x3_reduce (in-place)
2016-07-15 00:38:37.071 STDERR [INFO] I0715 00:38:37.071573 26088 net.cpp:141] Setting up inception_4b/5x5_reduce
2016-07-15 00:38:37.071 STDERR [INFO] I0715 00:38:37.071591 26088 net.cpp:148] Top shape: 10 24 14 14 (47040)
2016-07-15 00:38:37.071 STDERR [INFO] I0715 00:38:37.071596 26088 net.cpp:156] Memory required for data: 397582080
2016-07-15 00:38:37.071 STDERR [INFO] I0715 00:38:37.071607 26088 layer_factory.hpp:77] Creating layer inception_4b/relu_5x5_reduce
2016-07-15 00:38:37.071 STDERR [INFO] I0715 00:38:37.071617 26088 net.cpp:91] Creating Layer inception_4b/relu_5x5_reduce
2016-07-15 00:38:37.071 STDERR [INFO] I0715 00:38:37.071624 26088 net.cpp:425] inception_4b/relu_5x5_reduce <- inception_4b/5x5_reduce
2016-07-15 00:38:37.072 STDERR [INFO] I0715 00:38:37.071636 26088 net.cpp:386] inception_4b/relu_5x5_reduce -> inception_4b/5x5_reduce (in-place)
2016-07-15 00:38:37.072 STDERR [INFO] I0715 00:38:37.071661 26092 net.cpp:141] Setting up inception_4b/relu_3x3_reduce
2016-07-15 00:38:37.072 STDERR [INFO] I0715 00:38:37.071681 26092 net.cpp:148] Top shape: 10 112 14 14 (219520)
2016-07-15 00:38:37.072 STDERR [INFO] I0715 00:38:37.071688 26092 net.cpp:156] Memory required for data: 393881600
2016-07-15 00:38:37.072 STDERR [INFO] I0715 00:38:37.071697 26092 layer_factory.hpp:77] Creating layer inception_4b/3x3
2016-07-15 00:38:37.072 STDERR [INFO] I0715 00:38:37.071719 26092 net.cpp:91] Creating Layer inception_4b/3x3
2016-07-15 00:38:37.072 STDERR [INFO] I0715 00:38:37.071728 26092 net.cpp:425] inception_4b/3x3 <- inception_4b/3x3_reduce
2016-07-15 00:38:37.072 STDERR [INFO] I0715 00:38:37.071745 26092 net.cpp:399] inception_4b/3x3 -> inception_4b/3x3
2016-07-15 00:38:37.072 STDERR [INFO] I0715 00:38:37.072808 26088 net.cpp:141] Setting up inception_4b/relu_5x5_reduce
2016-07-15 00:38:37.072 STDERR [INFO] I0715 00:38:37.072824 26088 net.cpp:148] Top shape: 10 24 14 14 (47040)
2016-07-15 00:38:37.072 STDERR [INFO] I0715 00:38:37.072829 26088 net.cpp:156] Memory required for data: 397770240
2016-07-15 00:38:37.073 STDERR [INFO] I0715 00:38:37.072834 26088 layer_factory.hpp:77] Creating layer inception_4b/5x5
2016-07-15 00:38:37.073 STDERR [INFO] I0715 00:38:37.072852 26088 net.cpp:91] Creating Layer inception_4b/5x5
2016-07-15 00:38:37.073 STDERR [INFO] I0715 00:38:37.072862 26088 net.cpp:425] inception_4b/5x5 <- inception_4b/5x5_reduce
2016-07-15 00:38:37.073 STDERR [INFO] I0715 00:38:37.072872 26088 net.cpp:399] inception_4b/5x5 -> inception_4b/5x5
2016-07-15 00:38:37.077 STDERR [INFO] I0715 00:38:37.077066 26088 net.cpp:141] Setting up inception_4b/5x5
2016-07-15 00:38:37.077 STDERR [INFO] I0715 00:38:37.077087 26088 net.cpp:148] Top shape: 10 64 14 14 (125440)
2016-07-15 00:38:37.077 STDERR [INFO] I0715 00:38:37.077092 26088 net.cpp:156] Memory required for data: 398272000
2016-07-15 00:38:37.077 STDERR [INFO] I0715 00:38:37.077102 26088 layer_factory.hpp:77] Creating layer inception_4b/relu_5x5
2016-07-15 00:38:37.077 STDERR [INFO] I0715 00:38:37.077112 26088 net.cpp:91] Creating Layer inception_4b/relu_5x5
2016-07-15 00:38:37.077 STDERR [INFO] I0715 00:38:37.077118 26088 net.cpp:425] inception_4b/relu_5x5 <- inception_4b/5x5
2016-07-15 00:38:37.077 STDERR [INFO] I0715 00:38:37.077132 26088 net.cpp:386] inception_4b/relu_5x5 -> inception_4b/5x5 (in-place)
2016-07-15 00:38:37.078 STDERR [INFO] I0715 00:38:37.078522 26088 net.cpp:141] Setting up inception_4b/relu_5x5
2016-07-15 00:38:37.078 STDERR [INFO] I0715 00:38:37.078543 26088 net.cpp:148] Top shape: 10 64 14 14 (125440)
2016-07-15 00:38:37.078 STDERR [INFO] I0715 00:38:37.078549 26088 net.cpp:156] Memory required for data: 398773760
2016-07-15 00:38:37.078 STDERR [INFO] I0715 00:38:37.078555 26088 layer_factory.hpp:77] Creating layer inception_4b/pool
2016-07-15 00:38:37.078 STDERR [INFO] I0715 00:38:37.078565 26088 net.cpp:91] Creating Layer inception_4b/pool
2016-07-15 00:38:37.078 STDERR [INFO] I0715 00:38:37.078572 26088 net.cpp:425] inception_4b/pool <- inception_4a/output_inception_4a/output_0_split_3
2016-07-15 00:38:37.078 STDERR [INFO] I0715 00:38:37.078580 26088 net.cpp:399] inception_4b/pool -> inception_4b/pool
2016-07-15 00:38:37.079 STDERR [INFO] I0715 00:38:37.078716 26088 net.cpp:141] Setting up inception_4b/pool
2016-07-15 00:38:37.079 STDERR [INFO] I0715 00:38:37.078728 26088 net.cpp:148] Top shape: 10 512 14 14 (1003520)
2016-07-15 00:38:37.079 STDERR [INFO] I0715 00:38:37.078733 26088 net.cpp:156] Memory required for data: 402787840
2016-07-15 00:38:37.079 STDERR [INFO] I0715 00:38:37.078738 26088 layer_factory.hpp:77] Creating layer inception_4b/pool_proj
2016-07-15 00:38:37.079 STDERR [INFO] I0715 00:38:37.078755 26088 net.cpp:91] Creating Layer inception_4b/pool_proj
2016-07-15 00:38:37.079 STDERR [INFO] I0715 00:38:37.078763 26088 net.cpp:425] inception_4b/pool_proj <- inception_4b/pool
2016-07-15 00:38:37.079 STDERR [INFO] I0715 00:38:37.078774 26088 net.cpp:399] inception_4b/pool_proj -> inception_4b/pool_proj
2016-07-15 00:38:37.084 STDERR [INFO] I0715 00:38:37.084049 26092 net.cpp:141] Setting up inception_4b/3x3
2016-07-15 00:38:37.084 STDERR [INFO] I0715 00:38:37.084074 26092 net.cpp:148] Top shape: 10 224 14 14 (439040)
2016-07-15 00:38:37.084 STDERR [INFO] I0715 00:38:37.084084 26092 net.cpp:156] Memory required for data: 395637760
2016-07-15 00:38:37.084 STDERR [INFO] I0715 00:38:37.084098 26092 layer_factory.hpp:77] Creating layer inception_4b/relu_3x3
2016-07-15 00:38:37.084 STDERR [INFO] I0715 00:38:37.084115 26092 net.cpp:91] Creating Layer inception_4b/relu_3x3
2016-07-15 00:38:37.084 STDERR [INFO] I0715 00:38:37.084125 26092 net.cpp:425] inception_4b/relu_3x3 <- inception_4b/3x3
2016-07-15 00:38:37.084 STDERR [INFO] I0715 00:38:37.084139 26092 net.cpp:386] inception_4b/relu_3x3 -> inception_4b/3x3 (in-place)
2016-07-15 00:38:37.084 STDERR [INFO] I0715 00:38:37.084686 26088 net.cpp:141] Setting up inception_4b/pool_proj
2016-07-15 00:38:37.084 STDERR [INFO] I0715 00:38:37.084704 26088 net.cpp:148] Top shape: 10 64 14 14 (125440)
2016-07-15 00:38:37.084 STDERR [INFO] I0715 00:38:37.084710 26088 net.cpp:156] Memory required for data: 403289600
2016-07-15 00:38:37.084 STDERR [INFO] I0715 00:38:37.084720 26088 layer_factory.hpp:77] Creating layer inception_4b/relu_pool_proj
2016-07-15 00:38:37.084 STDERR [INFO] I0715 00:38:37.084730 26088 net.cpp:91] Creating Layer inception_4b/relu_pool_proj
2016-07-15 00:38:37.084 STDERR [INFO] I0715 00:38:37.084738 26088 net.cpp:425] inception_4b/relu_pool_proj <- inception_4b/pool_proj
2016-07-15 00:38:37.084 STDERR [INFO] I0715 00:38:37.084753 26088 net.cpp:386] inception_4b/relu_pool_proj -> inception_4b/pool_proj (in-place)
2016-07-15 00:38:37.085 STDERR [INFO] I0715 00:38:37.084770 26092 net.cpp:141] Setting up inception_4b/relu_3x3
2016-07-15 00:38:37.085 STDERR [INFO] I0715 00:38:37.084789 26092 net.cpp:148] Top shape: 10 224 14 14 (439040)
2016-07-15 00:38:37.085 STDERR [INFO] I0715 00:38:37.084795 26092 net.cpp:156] Memory required for data: 397393920
2016-07-15 00:38:37.085 STDERR [INFO] I0715 00:38:37.084805 26092 layer_factory.hpp:77] Creating layer inception_4b/5x5_reduce
2016-07-15 00:38:37.085 STDERR [INFO] I0715 00:38:37.084839 26092 net.cpp:91] Creating Layer inception_4b/5x5_reduce
2016-07-15 00:38:37.085 STDERR [INFO] I0715 00:38:37.084849 26092 net.cpp:425] inception_4b/5x5_reduce <- inception_4a/output_inception_4a/output_0_split_2
2016-07-15 00:38:37.085 STDERR [INFO] I0715 00:38:37.084867 26092 net.cpp:399] inception_4b/5x5_reduce -> inception_4b/5x5_reduce
2016-07-15 00:38:37.086 STDERR [INFO] I0715 00:38:37.085969 26088 net.cpp:141] Setting up inception_4b/relu_pool_proj
2016-07-15 00:38:37.086 STDERR [INFO] I0715 00:38:37.085986 26088 net.cpp:148] Top shape: 10 64 14 14 (125440)
2016-07-15 00:38:37.086 STDERR [INFO] I0715 00:38:37.085991 26088 net.cpp:156] Memory required for data: 403791360
2016-07-15 00:38:37.086 STDERR [INFO] I0715 00:38:37.085997 26088 layer_factory.hpp:77] Creating layer inception_4b/output
2016-07-15 00:38:37.086 STDERR [INFO] I0715 00:38:37.086010 26088 net.cpp:91] Creating Layer inception_4b/output
2016-07-15 00:38:37.086 STDERR [INFO] I0715 00:38:37.086017 26088 net.cpp:425] inception_4b/output <- inception_4b/1x1
2016-07-15 00:38:37.086 STDERR [INFO] I0715 00:38:37.086024 26088 net.cpp:425] inception_4b/output <- inception_4b/3x3
2016-07-15 00:38:37.086 STDERR [INFO] I0715 00:38:37.086030 26088 net.cpp:425] inception_4b/output <- inception_4b/5x5
2016-07-15 00:38:37.086 STDERR [INFO] I0715 00:38:37.086036 26088 net.cpp:425] inception_4b/output <- inception_4b/pool_proj
2016-07-15 00:38:37.086 STDERR [INFO] I0715 00:38:37.086043 26088 net.cpp:399] inception_4b/output -> inception_4b/output
2016-07-15 00:38:37.086 STDERR [INFO] I0715 00:38:37.086103 26088 net.cpp:141] Setting up inception_4b/output
2016-07-15 00:38:37.086 STDERR [INFO] I0715 00:38:37.086114 26088 net.cpp:148] Top shape: 10 512 14 14 (1003520)
2016-07-15 00:38:37.086 STDERR [INFO] I0715 00:38:37.086119 26088 net.cpp:156] Memory required for data: 407805440
2016-07-15 00:38:37.086 STDERR [INFO] I0715 00:38:37.086124 26088 layer_factory.hpp:77] Creating layer inception_4b/output_inception_4b/output_0_split
2016-07-15 00:38:37.086 STDERR [INFO] I0715 00:38:37.086133 26088 net.cpp:91] Creating Layer inception_4b/output_inception_4b/output_0_split
…
2016-07-15 00:38:37.086 STDERR [INFO] I0715 00:38:37.086163 26088 net.cpp:399] inception_4b/output_inception_4b/output_0_split -> inception_4b/output_inception_4b/output_0_split_1
2016-07-15 00:38:37.086 STDERR [INFO] I0715 00:38:37.086174 26088 net.cpp:399] inception_4b/output_inception_4b/output_0_split -> inception_4b/output_inception_4b/output_0_split_2
2016-07-15 00:38:37.087 STDERR [INFO] I0715 00:38:37.086181 26088 net.cpp:399] inception_4b/output_inception_4b/output_0_split -> inception_4b/output_inception_4b/output_0_split_3
2016-07-15 00:38:37.087 STDERR [INFO] I0715 00:38:37.086714 26088 net.cpp:141] Setting up inception_4b/output_inception_4b/output_0_split
2016-07-15 00:38:37.087 STDERR [INFO] I0715 00:38:37.086727 26088 net.cpp:148] Top shape: 10 512 14 14 (1003520)
2016-07-15 00:38:37.087 STDERR [INFO] I0715 00:38:37.086733 26088 net.cpp:148] Top shape: 10 512 14 14 (1003520)
2016-07-15 00:38:37.087 STDERR [INFO] I0715 00:38:37.086740 26088 net.cpp:148] Top shape: 10 512 14 14 (1003520)
2016-07-15 00:38:37.087 STDERR [INFO] I0715 00:38:37.086745 26088 net.cpp:148] Top shape: 10 512 14 14 (1003520)
2016-07-15 00:38:37.087 STDERR [INFO] I0715 00:38:37.086750 26088 net.cpp:156] Memory required for data: 423861760
2016-07-15 00:38:37.087 STDERR [INFO] I0715 00:38:37.086755 26088 layer_factory.hpp:77] Creating layer inception_4c/1x1
2016-07-15 00:38:37.087 STDERR [INFO] I0715 00:38:37.086773 26088 net.cpp:91] Creating Layer inception_4c/1x1
2016-07-15 00:38:37.087 STDERR [INFO] I0715 00:38:37.086781 26088 net.cpp:425] inception_4c/1x1 <- inception_4b/output_inception_4b/output_0_split_0
2016-07-15 00:38:37.087 STDERR [INFO] I0715 00:38:37.086791 26088 net.cpp:399] inception_4c/1x1 -> inception_4c/1x1
2016-07-15 00:38:37.091 STDERR [INFO] I0715 00:38:37.091231 26088 net.cpp:141] Setting up inception_4c/1x1
2016-07-15 00:38:37.091 STDERR [INFO] I0715 00:38:37.091250 26088 net.cpp:148] Top shape: 10 128 14 14 (250880)
2016-07-15 00:38:37.091 STDERR [INFO] I0715 00:38:37.091255 26088 net.cpp:156] Memory required for data: 424865280
2016-07-15 00:38:37.091 STDERR [INFO] I0715 00:38:37.091265 26088 layer_factory.hpp:77] Creating layer inception_4c/relu_1x1
2016-07-15 00:38:37.091 STDERR [INFO] I0715 00:38:37.091279 26088 net.cpp:91] Creating Layer inception_4c/relu_1x1
2016-07-15 00:38:37.091 STDERR [INFO] I0715 00:38:37.091286 26088 net.cpp:425] inception_4c/relu_1x1 <- inception_4c/1x1
2016-07-15 00:38:37.091 STDERR [INFO] I0715 00:38:37.091295 26088 net.cpp:386] inception_4c/relu_1x1 -> inception_4c/1x1 (in-place)
2016-07-15 00:38:37.092 STDERR [INFO] I0715 00:38:37.092363 26092 net.cpp:141] Setting up inception_4b/5x5_reduce
2016-07-15 00:38:37.092 STDERR [INFO] I0715 00:38:37.092386 26092 net.cpp:148] Top shape: 10 24 14 14 (47040)
2016-07-15 00:38:37.092 STDERR [INFO] I0715 00:38:37.092391 26088 net.cpp:141] Setting up inception_4c/relu_1x1
2016-07-15 00:38:37.092 STDERR [INFO] I0715 00:38:37.092396 26092 net.cpp:156] Memory required for data: 397582080
2016-07-15 00:38:37.092 STDERR [INFO] I0715 00:38:37.092409 26088 net.cpp:148] Top shape: 10 128 14 14 (250880)
2016-07-15 00:38:37.092 STDERR [INFO] I0715 00:38:37.092416 26088 net.cpp:156] Memory required for data: 425868800
2016-07-15 00:38:37.092 STDERR [INFO] I0715 00:38:37.092422 26088 layer_factory.hpp:77] Creating layer inception_4c/3x3_reduce
2016-07-15 00:38:37.092 STDERR [INFO] I0715 00:38:37.092422 26092 layer_factory.hpp:77] Creating layer inception_4b/relu_5x5_reduce
2016-07-15 00:38:37.092 STDERR [INFO] I0715 00:38:37.092438 26092 net.cpp:91] Creating Layer inception_4b/relu_5x5_reduce
2016-07-15 00:38:37.092 STDERR [INFO] I0715 00:38:37.092442 26088 net.cpp:91] Creating Layer inception_4c/3x3_reduce
2016-07-15 00:38:37.092 STDERR [INFO] I0715 00:38:37.092453 26092 net.cpp:425] inception_4b/relu_5x5_reduce <- inception_4b/5x5_reduce
2016-07-15 00:38:37.092 STDERR [INFO] I0715 00:38:37.092456 26088 net.cpp:425] inception_4c/3x3_reduce <- inception_4b/output_inception_4b/output_0_split_1
2016-07-15 00:38:37.093 STDERR [INFO] I0715 00:38:37.092468 26092 net.cpp:386] inception_4b/relu_5x5_reduce -> inception_4b/5x5_reduce (in-place)
2016-07-15 00:38:37.093 STDERR [INFO] I0715 00:38:37.092473 26088 net.cpp:399] inception_4c/3x3_reduce -> inception_4c/3x3_reduce
2016-07-15 00:38:37.093 STDERR [INFO] I0715 00:38:37.093181 26092 net.cpp:141] Setting up inception_4b/relu_5x5_reduce
2016-07-15 00:38:37.093 STDERR [INFO] I0715 00:38:37.093201 26092 net.cpp:148] Top shape: 10 24 14 14 (47040)
2016-07-15 00:38:37.093 STDERR [INFO] I0715 00:38:37.093209 26092 net.cpp:156] Memory required for data: 397770240
2016-07-15 00:38:37.093 STDERR [INFO] I0715 00:38:37.093217 26092 layer_factory.hpp:77] Creating layer inception_4b/5x5
2016-07-15 00:38:37.093 STDERR [INFO] I0715 00:38:37.093243 26092 net.cpp:91] Creating Layer inception_4b/5x5
2016-07-15 00:38:37.093 STDERR [INFO] I0715 00:38:37.093253 26092 net.cpp:425] inception_4b/5x5 <- inception_4b/5x5_reduce
2016-07-15 00:38:37.094 STDERR [INFO] I0715 00:38:37.093267 26092 net.cpp:399] inception_4b/5x5 -> inception_4b/5x5
2016-07-15 00:38:37.097 STDERR [INFO] I0715 00:38:37.097843 26088 net.cpp:141] Setting up inception_4c/3x3_reduce
2016-07-15 00:38:37.098 STDERR [INFO] I0715 00:38:37.097863 26088 net.cpp:148] Top shape: 10 128 14 14 (250880)
2016-07-15 00:38:37.098 STDERR [INFO] I0715 00:38:37.097869 26088 net.cpp:156] Memory required for data: 426872320
2016-07-15 00:38:37.098 STDERR [INFO] I0715 00:38:37.097879 26088 layer_factory.hpp:77] Creating layer inception_4c/relu_3x3_reduce
2016-07-15 00:38:37.098 STDERR [INFO] I0715 00:38:37.097893 26088 net.cpp:91] Creating Layer inception_4c/relu_3x3_reduce
2016-07-15 00:38:37.098 STDERR [INFO] I0715 00:38:37.097900 26088 net.cpp:425] inception_4c/relu_3x3_reduce <- inception_4c/3x3_reduce
2016-07-15 00:38:37.098 STDERR [INFO] I0715 00:38:37.097910 26088 net.cpp:386] inception_4c/relu_3x3_reduce -> inception_4c/3x3_reduce (in-place)
2016-07-15 00:38:37.099 STDERR [INFO] I0715 00:38:37.099856 26088 net.cpp:141] Setting up inception_4c/relu_3x3_reduce
2016-07-15 00:38:37.100 STDERR [INFO] I0715 00:38:37.099872 26088 net.cpp:148] Top shape: 10 128 14 14 (250880)
2016-07-15 00:38:37.100 STDERR [INFO] I0715 00:38:37.099877 26088 net.cpp:156] Memory required for data: 427875840
2016-07-15 00:38:37.100 STDERR [INFO] I0715 00:38:37.099882 26088 layer_factory.hpp:77] Creating layer inception_4c/3x3
2016-07-15 00:38:37.100 STDERR [INFO] I0715 00:38:37.099901 26088 net.cpp:91] Creating Layer inception_4c/3x3
2016-07-15 00:38:37.100 STDERR [INFO] I0715 00:38:37.099908 26088 net.cpp:425] inception_4c/3x3 <- inception_4c/3x3_reduce
2016-07-15 00:38:37.100 STDERR [INFO] I0715 00:38:37.099920 26088 net.cpp:399] inception_4c/3x3 -> inception_4c/3x3
2016-07-15 00:38:37.102 STDERR [INFO] I0715 00:38:37.102468 26092 net.cpp:141] Setting up inception_4b/5x5
2016-07-15 00:38:37.102 STDERR [INFO] I0715 00:38:37.102491 26092 net.cpp:148] Top shape: 10 64 14 14 (125440)
2016-07-15 00:38:37.102 STDERR [INFO] I0715 00:38:37.102499 26092 net.cpp:156] Memory required for data: 398272000
2016-07-15 00:38:37.102 STDERR [INFO] I0715 00:38:37.102514 26092 layer_factory.hpp:77] Creating layer inception_4b/relu_5x5
2016-07-15 00:38:37.102 STDERR [INFO] I0715 00:38:37.102531 26092 net.cpp:91] Creating Layer inception_4b/relu_5x5
2016-07-15 00:38:37.102 STDERR [INFO] I0715 00:38:37.102541 26092 net.cpp:425] inception_4b/relu_5x5 <- inception_4b/5x5
2016-07-15 00:38:37.102 STDERR [INFO] I0715 00:38:37.102553 26092 net.cpp:386] inception_4b/relu_5x5 -> inception_4b/5x5 (in-place)
2016-07-15 00:38:37.103 STDERR [INFO] I0715 00:38:37.102952 26092 net.cpp:141] Setting up inception_4b/relu_5x5
2016-07-15 00:38:37.103 STDERR [INFO] I0715 00:38:37.102970 26092 net.cpp:148] Top shape: 10 64 14 14 (125440)
2016-07-15 00:38:37.103 STDERR [INFO] I0715 00:38:37.102977 26092 net.cpp:156] Memory required for data: 398773760
2016-07-15 00:38:37.103 STDERR [INFO] I0715 00:38:37.102985 26092 layer_factory.hpp:77] Creating layer inception_4b/pool
2016-07-15 00:38:37.103 STDERR [INFO] I0715 00:38:37.102998 26092 net.cpp:91] Creating Layer inception_4b/pool
2016-07-15 00:38:37.103 STDERR [INFO] I0715 00:38:37.103008 26092 net.cpp:425] inception_4b/pool <- inception_4a/output_inception_4a/output_0_split_3
2016-07-15 00:38:37.103 STDERR [INFO] I0715 00:38:37.103031 26092 net.cpp:399] inception_4b/pool -> inception_4b/pool
2016-07-15 00:38:37.103 STDERR [INFO] I0715 00:38:37.103138 26092 net.cpp:141] Setting up inception_4b/pool
2016-07-15 00:38:37.103 STDERR [INFO] I0715 00:38:37.103153 26092 net.cpp:148] Top shape: 10 512 14 14 (1003520)
2016-07-15 00:38:37.103 STDERR [INFO] I0715 00:38:37.103160 26092 net.cpp:156] Memory required for data: 402787840
2016-07-15 00:38:37.103 STDERR [INFO] I0715 00:38:37.103168 26092 layer_factory.hpp:77] Creating layer inception_4b/pool_proj
2016-07-15 00:38:37.103 STDERR [INFO] I0715 00:38:37.103191 26092 net.cpp:91] Creating Layer inception_4b/pool_proj
2016-07-15 00:38:37.103 STDERR [INFO] I0715 00:38:37.103200 26092 net.cpp:425] inception_4b/pool_proj <- inception_4b/pool
2016-07-15 00:38:37.103 STDERR [INFO] I0715 00:38:37.103214 26092 net.cpp:399] inception_4b/pool_proj -> inception_4b/pool_proj
2016-07-15 00:38:37.109 STDERR [INFO] I0715 00:38:37.109266 26088 net.cpp:141] Setting up inception_4c/3x3
2016-07-15 00:38:37.109 STDERR [INFO] I0715 00:38:37.109287 26088 net.cpp:148] Top shape: 10 256 14 14 (501760)
2016-07-15 00:38:37.109 STDERR [INFO] I0715 00:38:37.109292 26088 net.cpp:156] Memory required for data: 429882880
2016-07-15 00:38:37.109 STDERR [INFO] I0715 00:38:37.109302 26088 layer_factory.hpp:77] Creating layer inception_4c/relu_3x3
2016-07-15 00:38:37.109 STDERR [INFO] I0715 00:38:37.109315 26088 net.cpp:91] Creating Layer inception_4c/relu_3x3
2016-07-15 00:38:37.109 STDERR [INFO] I0715 00:38:37.109323 26088 net.cpp:425] inception_4c/relu_3x3 <- inception_4c/3x3
2016-07-15 00:38:37.109 STDERR [INFO] I0715 00:38:37.109331 26088 net.cpp:386] inception_4c/relu_3x3 -> inception_4c/3x3 (in-place)
2016-07-15 00:38:37.109 STDERR [INFO] I0715 00:38:37.109915 26088 net.cpp:141] Setting up inception_4c/relu_3x3
2016-07-15 00:38:37.109 STDERR [INFO] I0715 00:38:37.109930 26088 net.cpp:148] Top shape: 10 256 14 14 (501760)
2016-07-15 00:38:37.110 STDERR [INFO] I0715 00:38:37.109935 26088 net.cpp:156] Memory required for data: 431889920
2016-07-15 00:38:37.110 STDERR [INFO] I0715 00:38:37.109940 26088 layer_factory.hpp:77] Creating layer inception_4c/5x5_reduce
2016-07-15 00:38:37.110 STDERR [INFO] I0715 00:38:37.109957 26088 net.cpp:91] Creating Layer inception_4c/5x5_reduce
2016-07-15 00:38:37.110 STDERR [INFO] I0715 00:38:37.109964 26088 net.cpp:425] inception_4c/5x5_reduce <- inception_4b/output_inception_4b/output_0_split_2
2016-07-15 00:38:37.110 STDERR [INFO] I0715 00:38:37.109977 26088 net.cpp:399] inception_4c/5x5_reduce -> inception_4c/5x5_reduce
2016-07-15 00:38:37.110 STDERR [INFO] I0715 00:38:37.109994 26092 net.cpp:141] Setting up inception_4b/pool_proj
2016-07-15 00:38:37.110 STDERR [INFO] I0715 00:38:37.110015 26092 net.cpp:148] Top shape: 10 64 14 14 (125440)
2016-07-15 00:38:37.110 STDERR [INFO] I0715 00:38:37.110023 26092 net.cpp:156] Memory required for data: 403289600
2016-07-15 00:38:37.110 STDERR [INFO] I0715 00:38:37.110038 26092 layer_factory.hpp:77] Creating layer inception_4b/relu_pool_proj
2016-07-15 00:38:37.110 STDERR [INFO] I0715 00:38:37.110054 26092 net.cpp:91] Creating Layer inception_4b/relu_pool_proj
2016-07-15 00:38:37.110 STDERR [INFO] I0715 00:38:37.110064 26092 net.cpp:425] inception_4b/relu_pool_proj <- inception_4b/pool_proj
2016-07-15 00:38:37.110 STDERR [INFO] I0715 00:38:37.110074 26092 net.cpp:386] inception_4b/relu_pool_proj -> inception_4b/pool_proj (in-place)
2016-07-15 00:38:37.111 STDERR [INFO] I0715 00:38:37.111691 26092 net.cpp:141] Setting up inception_4b/relu_pool_proj
2016-07-15 00:38:37.111 STDERR [INFO] I0715 00:38:37.111716 26092 net.cpp:148] Top shape: 10 64 14 14 (125440)
2016-07-15 00:38:37.111 STDERR [INFO] I0715 00:38:37.111724 26092 net.cpp:156] Memory required for data: 403791360
2016-07-15 00:38:37.111 STDERR [INFO] I0715 00:38:37.111732 26092 layer_factory.hpp:77] Creating layer inception_4b/output
2016-07-15 00:38:37.112 STDERR [INFO] I0715 00:38:37.111747 26092 net.cpp:91] Creating Layer inception_4b/output
2016-07-15 00:38:37.112 STDERR [INFO] I0715 00:38:37.111754 26092 net.cpp:425] inception_4b/output <- inception_4b/1x1
2016-07-15 00:38:37.112 STDERR [INFO] I0715 00:38:37.111764 26092 net.cpp:425] inception_4b/output <- inception_4b/3x3
2016-07-15 00:38:37.112 STDERR [INFO] I0715 00:38:37.111773 26092 net.cpp:425] inception_4b/output <- inception_4b/5x5
2016-07-15 00:38:37.112 STDERR [INFO] I0715 00:38:37.111783 26092 net.cpp:425] inception_4b/output <- inception_4b/pool_proj
2016-07-15 00:38:37.112 STDERR [INFO] I0715 00:38:37.111793 26092 net.cpp:399] inception_4b/output -> inception_4b/output
2016-07-15 00:38:37.112 STDERR [INFO] I0715 00:38:37.111884 26092 net.cpp:141] Setting up inception_4b/output
2016-07-15 00:38:37.112 STDERR [INFO] I0715 00:38:37.111901 26092 net.cpp:148] Top shape: 10 512 14 14 (1003520)
2016-07-15 00:38:37.112 STDERR [INFO] I0715 00:38:37.111907 26092 net.cpp:156] Memory required for data: 407805440
2016-07-15 00:38:37.112 STDERR [INFO] I0715 00:38:37.111915 26092 layer_factory.hpp:77] Creating layer inception_4b/output_inception_4b/output_0_split
2016-07-15 00:38:37.112 STDERR [INFO] I0715 00:38:37.111927 26092 net.cpp:91] Creating Layer inception_4b/output_inception_4b/output_0_split
…
2016-07-15 00:38:37.112 STDERR [INFO] I0715 00:38:37.111965 26092 net.cpp:399] inception_4b/output_inception_4b/output_0_split -> inception_4b/output_inception_4b/output_0_split_1
2016-07-15 00:38:37.112 STDERR [INFO] I0715 00:38:37.111979 26092 net.cpp:399] inception_4b/output_inception_4b/output_0_split -> inception_4b/output_inception_4b/output_0_split_2
2016-07-15 00:38:37.112 STDERR [INFO] I0715 00:38:37.111991 26092 net.cpp:399] inception_4b/output_inception_4b/output_0_split -> inception_4b/output_inception_4b/output_0_split_3
2016-07-15 00:38:37.112 STDERR [INFO] I0715 00:38:37.112882 26092 net.cpp:141] Setting up inception_4b/output_inception_4b/output_0_split
2016-07-15 00:38:37.112 STDERR [INFO] I0715 00:38:37.112900 26092 net.cpp:148] Top shape: 10 512 14 14 (1003520)
2016-07-15 00:38:37.113 STDERR [INFO] I0715 00:38:37.112911 26092 net.cpp:148] Top shape: 10 512 14 14 (1003520)
2016-07-15 00:38:37.113 STDERR [INFO] I0715 00:38:37.112920 26092 net.cpp:148] Top shape: 10 512 14 14 (1003520)
2016-07-15 00:38:37.113 STDERR [INFO] I0715 00:38:37.112931 26092 net.cpp:148] Top shape: 10 512 14 14 (1003520)
2016-07-15 00:38:37.113 STDERR [INFO] I0715 00:38:37.112936 26092 net.cpp:156] Memory required for data: 423861760
2016-07-15 00:38:37.113 STDERR [INFO] I0715 00:38:37.112944 26092 layer_factory.hpp:77] Creating layer inception_4c/1x1
2016-07-15 00:38:37.113 STDERR [INFO] I0715 00:38:37.112967 26092 net.cpp:91] Creating Layer inception_4c/1x1
2016-07-15 00:38:37.113 STDERR [INFO] I0715 00:38:37.112977 26092 net.cpp:425] inception_4c/1x1 <- inception_4b/output_inception_4b/output_0_split_0
2016-07-15 00:38:37.113 STDERR [INFO] I0715 00:38:37.112993 26092 net.cpp:399] inception_4c/1x1 -> inception_4c/1x1
2016-07-15 00:38:37.115 STDERR [INFO] I0715 00:38:37.115844 26088 net.cpp:141] Setting up inception_4c/5x5_reduce
2016-07-15 00:38:37.116 STDERR [INFO] I0715 00:38:37.115866 26088 net.cpp:148] Top shape: 10 24 14 14 (47040)
2016-07-15 00:38:37.116 STDERR [INFO] I0715 00:38:37.115872 26088 net.cpp:156] Memory required for data: 432078080
2016-07-15 00:38:37.116 STDERR [INFO] I0715 00:38:37.115882 26088 layer_factory.hpp:77] Creating layer inception_4c/relu_5x5_reduce
2016-07-15 00:38:37.116 STDERR [INFO] I0715 00:38:37.115891 26088 net.cpp:91] Creating Layer inception_4c/relu_5x5_reduce
2016-07-15 00:38:37.116 STDERR [INFO] I0715 00:38:37.115898 26088 net.cpp:425] inception_4c/relu_5x5_reduce <- inception_4c/5x5_reduce
2016-07-15 00:38:37.116 STDERR [INFO] I0715 00:38:37.115906 26088 net.cpp:386] inception_4c/relu_5x5_reduce -> inception_4c/5x5_reduce (in-place)
2016-07-15 00:38:37.116 STDERR [INFO] I0715 00:38:37.116194 26088 net.cpp:141] Setting up inception_4c/relu_5x5_reduce
2016-07-15 00:38:37.116 STDERR [INFO] I0715 00:38:37.116205 26088 net.cpp:148] Top shape: 10 24 14 14 (47040)
2016-07-15 00:38:37.116 STDERR [INFO] I0715 00:38:37.116210 26088 net.cpp:156] Memory required for data: 432266240
2016-07-15 00:38:37.116 STDERR [INFO] I0715 00:38:37.116216 26088 layer_factory.hpp:77] Creating layer inception_4c/5x5
2016-07-15 00:38:37.116 STDERR [INFO] I0715 00:38:37.116233 26088 net.cpp:91] Creating Layer inception_4c/5x5
2016-07-15 00:38:37.116 STDERR [INFO] I0715 00:38:37.116240 26088 net.cpp:425] inception_4c/5x5 <- inception_4c/5x5_reduce
2016-07-15 00:38:37.116 STDERR [INFO] I0715 00:38:37.116252 26088 net.cpp:399] inception_4c/5x5 -> inception_4c/5x5
2016-07-15 00:38:37.121 STDERR [INFO] I0715 00:38:37.121745 26088 net.cpp:141] Setting up inception_4c/5x5
2016-07-15 00:38:37.121 STDERR [INFO] I0715 00:38:37.121763 26088 net.cpp:148] Top shape: 10 64 14 14 (125440)
2016-07-15 00:38:37.121 STDERR [INFO] I0715 00:38:37.121772 26088 net.cpp:156] Memory required for data: 432768000
2016-07-15 00:38:37.122 STDERR [INFO] I0715 00:38:37.121781 26088 layer_factory.hpp:77] Creating layer inception_4c/relu_5x5
2016-07-15 00:38:37.122 STDERR [INFO] I0715 00:38:37.121791 26088 net.cpp:91] Creating Layer inception_4c/relu_5x5
2016-07-15 00:38:37.122 STDERR [INFO] I0715 00:38:37.121798 26088 net.cpp:425] inception_4c/relu_5x5 <- inception_4c/5x5
2016-07-15 00:38:37.122 STDERR [INFO] I0715 00:38:37.121805 26088 net.cpp:386] inception_4c/relu_5x5 -> inception_4c/5x5 (in-place)
2016-07-15 00:38:37.122 STDERR [INFO] I0715 00:38:37.122335 26088 net.cpp:141] Setting up inception_4c/relu_5x5
2016-07-15 00:38:37.122 STDERR [INFO] I0715 00:38:37.122349 26088 net.cpp:148] Top shape: 10 64 14 14 (125440)
2016-07-15 00:38:37.122 STDERR [INFO] I0715 00:38:37.122354 26088 net.cpp:156] Memory required for data: 433269760
2016-07-15 00:38:37.122 STDERR [INFO] I0715 00:38:37.122360 26088 layer_factory.hpp:77] Creating layer inception_4c/pool
2016-07-15 00:38:37.122 STDERR [INFO] I0715 00:38:37.122372 26088 net.cpp:91] Creating Layer inception_4c/pool
2016-07-15 00:38:37.122 STDERR [INFO] I0715 00:38:37.122378 26088 net.cpp:425] inception_4c/pool <- inception_4b/output_inception_4b/output_0_split_3
2016-07-15 00:38:37.122 STDERR [INFO] I0715 00:38:37.122387 26088 net.cpp:399] inception_4c/pool -> inception_4c/pool
2016-07-15 00:38:37.122 STDERR [INFO] I0715 00:38:37.122571 26088 net.cpp:141] Setting up inception_4c/pool
2016-07-15 00:38:37.122 STDERR [INFO] I0715 00:38:37.122583 26088 net.cpp:148] Top shape: 10 512 14 14 (1003520)
2016-07-15 00:38:37.122 STDERR [INFO] I0715 00:38:37.122587 26088 net.cpp:156] Memory required for data: 437283840
2016-07-15 00:38:37.122 STDERR [INFO] I0715 00:38:37.122593 26088 layer_factory.hpp:77] Creating layer inception_4c/pool_proj
2016-07-15 00:38:37.122 STDERR [INFO] I0715 00:38:37.122611 26088 net.cpp:91] Creating Layer inception_4c/pool_proj
2016-07-15 00:38:37.122 STDERR [INFO] I0715 00:38:37.122617 26088 net.cpp:425] inception_4c/pool_proj <- inception_4c/pool
2016-07-15 00:38:37.122 STDERR [INFO] I0715 00:38:37.122628 26088 net.cpp:399] inception_4c/pool_proj -> inception_4c/pool_proj
2016-07-15 00:38:37.123 STDERR [INFO] I0715 00:38:37.123039 26092 net.cpp:141] Setting up inception_4c/1x1
2016-07-15 00:38:37.123 STDERR [INFO] I0715 00:38:37.123062 26092 net.cpp:148] Top shape: 10 128 14 14 (250880)
2016-07-15 00:38:37.123 STDERR [INFO] I0715 00:38:37.123070 26092 net.cpp:156] Memory required for data: 424865280
2016-07-15 00:38:37.123 STDERR [INFO] I0715 00:38:37.123085 26092 layer_factory.hpp:77] Creating layer inception_4c/relu_1x1
2016-07-15 00:38:37.123 STDERR [INFO] I0715 00:38:37.123103 26092 net.cpp:91] Creating Layer inception_4c/relu_1x1
2016-07-15 00:38:37.123 STDERR [INFO] I0715 00:38:37.123113 26092 net.cpp:425] inception_4c/relu_1x1 <- inception_4c/1x1
2016-07-15 00:38:37.123 STDERR [INFO] I0715 00:38:37.123124 26092 net.cpp:386] inception_4c/relu_1x1 -> inception_4c/1x1 (in-place)
2016-07-15 00:38:37.125 STDERR [INFO] I0715 00:38:37.125458 26092 net.cpp:141] Setting up inception_4c/relu_1x1
2016-07-15 00:38:37.125 STDERR [INFO] I0715 00:38:37.125478 26092 net.cpp:148] Top shape: 10 128 14 14 (250880)
2016-07-15 00:38:37.125 STDERR [INFO] I0715 00:38:37.125486 26092 net.cpp:156] Memory required for data: 425868800
2016-07-15 00:38:37.125 STDERR [INFO] I0715 00:38:37.125494 26092 layer_factory.hpp:77] Creating layer inception_4c/3x3_reduce
2016-07-15 00:38:37.125 STDERR [INFO] I0715 00:38:37.125525 26092 net.cpp:91] Creating Layer inception_4c/3x3_reduce
2016-07-15 00:38:37.125 STDERR [INFO] I0715 00:38:37.125535 26092 net.cpp:425] inception_4c/3x3_reduce <- inception_4b/output_inception_4b/output_0_split_1
2016-07-15 00:38:37.125 STDERR [INFO] I0715 00:38:37.125552 26092 net.cpp:399] inception_4c/3x3_reduce -> inception_4c/3x3_reduce
2016-07-15 00:38:37.127 STDERR [INFO] I0715 00:38:37.127126 26088 net.cpp:141] Setting up inception_4c/pool_proj
2016-07-15 00:38:37.127 STDERR [INFO] I0715 00:38:37.127146 26088 net.cpp:148] Top shape: 10 64 14 14 (125440)
2016-07-15 00:38:37.127 STDERR [INFO] I0715 00:38:37.127151 26088 net.cpp:156] Memory required for data: 437785600
2016-07-15 00:38:37.127 STDERR [INFO] I0715 00:38:37.127182 26088 layer_factory.hpp:77] Creating layer inception_4c/relu_pool_proj
2016-07-15 00:38:37.127 STDERR [INFO] I0715 00:38:37.127194 26088 net.cpp:91] Creating Layer inception_4c/relu_pool_proj
2016-07-15 00:38:37.127 STDERR [INFO] I0715 00:38:37.127202 26088 net.cpp:425] inception_4c/relu_pool_proj <- inception_4c/pool_proj
2016-07-15 00:38:37.127 STDERR [INFO] I0715 00:38:37.127209 26088 net.cpp:386] inception_4c/relu_pool_proj -> inception_4c/pool_proj (in-place)
2016-07-15 00:38:37.127 STDERR [INFO] I0715 00:38:37.127498 26088 net.cpp:141] Setting up inception_4c/relu_pool_proj
2016-07-15 00:38:37.127 STDERR [INFO] I0715 00:38:37.127511 26088 net.cpp:148] Top shape: 10 64 14 14 (125440)
2016-07-15 00:38:37.127 STDERR [INFO] I0715 00:38:37.127516 26088 net.cpp:156] Memory required for data: 438287360
2016-07-15 00:38:37.127 STDERR [INFO] I0715 00:38:37.127521 26088 layer_factory.hpp:77] Creating layer inception_4c/output
2016-07-15 00:38:37.127 STDERR [INFO] I0715 00:38:37.127529 26088 net.cpp:91] Creating Layer inception_4c/output
2016-07-15 00:38:37.127 STDERR [INFO] I0715 00:38:37.127535 26088 net.cpp:425] inception_4c/output <- inception_4c/1x1
2016-07-15 00:38:37.127 STDERR [INFO] I0715 00:38:37.127542 26088 net.cpp:425] inception_4c/output <- inception_4c/3x3
2016-07-15 00:38:37.127 STDERR [INFO] I0715 00:38:37.127547 26088 net.cpp:425] inception_4c/output <- inception_4c/5x5
2016-07-15 00:38:37.127 STDERR [INFO] I0715 00:38:37.127553 26088 net.cpp:425] inception_4c/output <- inception_4c/pool_proj
2016-07-15 00:38:37.127 STDERR [INFO] I0715 00:38:37.127563 26088 net.cpp:399] inception_4c/output -> inception_4c/output
2016-07-15 00:38:37.128 STDERR [INFO] I0715 00:38:37.127619 26088 net.cpp:141] Setting up inception_4c/output
2016-07-15 00:38:37.128 STDERR [INFO] I0715 00:38:37.127632 26088 net.cpp:148] Top shape: 10 512 14 14 (1003520)
2016-07-15 00:38:37.128 STDERR [INFO] I0715 00:38:37.127637 26088 net.cpp:156] Memory required for data: 442301440
2016-07-15 00:38:37.128 STDERR [INFO] I0715 00:38:37.127642 26088 layer_factory.hpp:77] Creating layer inception_4c/output_inception_4c/output_0_split
2016-07-15 00:38:37.128 STDERR [INFO] I0715 00:38:37.127651 26088 net.cpp:91] Creating Layer inception_4c/output_inception_4c/output_0_split
…
2016-07-15 00:38:37.128 STDERR [INFO] I0715 00:38:37.127673 26088 net.cpp:399] inception_4c/output_inception_4c/output_0_split -> inception_4c/output_inception_4c/output_0_split_1
2016-07-15 00:38:37.128 STDERR [INFO] I0715 00:38:37.127682 26088 net.cpp:399] inception_4c/output_inception_4c/output_0_split -> inception_4c/output_inception_4c/output_0_split_2
2016-07-15 00:38:37.128 STDERR [INFO] I0715 00:38:37.127694 26088 net.cpp:399] inception_4c/output_inception_4c/output_0_split -> inception_4c/output_inception_4c/output_0_split_3
2016-07-15 00:38:37.128 STDERR [INFO] I0715 00:38:37.127826 26088 net.cpp:141] Setting up inception_4c/output_inception_4c/output_0_split
2016-07-15 00:38:37.128 STDERR [INFO] I0715 00:38:37.127837 26088 net.cpp:148] Top shape: 10 512 14 14 (1003520)
2016-07-15 00:38:37.128 STDERR [INFO] I0715 00:38:37.127843 26088 net.cpp:148] Top shape: 10 512 14 14 (1003520)
2016-07-15 00:38:37.128 STDERR [INFO] I0715 00:38:37.127849 26088 net.cpp:148] Top shape: 10 512 14 14 (1003520)
2016-07-15 00:38:37.128 STDERR [INFO] I0715 00:38:37.127854 26088 net.cpp:148] Top shape: 10 512 14 14 (1003520)
2016-07-15 00:38:37.128 STDERR [INFO] I0715 00:38:37.127859 26088 net.cpp:156] Memory required for data: 458357760
2016-07-15 00:38:37.128 STDERR [INFO] I0715 00:38:37.127863 26088 layer_factory.hpp:77] Creating layer inception_4d/1x1
2016-07-15 00:38:37.128 STDERR [INFO] I0715 00:38:37.127882 26088 net.cpp:91] Creating Layer inception_4d/1x1
2016-07-15 00:38:37.128 STDERR [INFO] I0715 00:38:37.127887 26088 net.cpp:425] inception_4d/1x1 <- inception_4c/output_inception_4c/output_0_split_0
2016-07-15 00:38:37.128 STDERR [INFO] I0715 00:38:37.127899 26088 net.cpp:399] inception_4d/1x1 -> inception_4d/1x1
2016-07-15 00:38:37.133 STDERR [INFO] I0715 00:38:37.133553 26088 net.cpp:141] Setting up inception_4d/1x1
2016-07-15 00:38:37.133 STDERR [INFO] I0715 00:38:37.133571 26088 net.cpp:148] Top shape: 10 112 14 14 (219520)
2016-07-15 00:38:37.133 STDERR [INFO] I0715 00:38:37.133577 26088 net.cpp:156] Memory required for data: 459235840
2016-07-15 00:38:37.133 STDERR [INFO] I0715 00:38:37.133591 26088 layer_factory.hpp:77] Creating layer inception_4d/relu_1x1
2016-07-15 00:38:37.133 STDERR [INFO] I0715 00:38:37.133601 26088 net.cpp:91] Creating Layer inception_4d/relu_1x1
2016-07-15 00:38:37.133 STDERR [INFO] I0715 00:38:37.133607 26088 net.cpp:425] inception_4d/relu_1x1 <- inception_4d/1x1
2016-07-15 00:38:37.133 STDERR [INFO] I0715 00:38:37.133617 26088 net.cpp:386] inception_4d/relu_1x1 -> inception_4d/1x1 (in-place)
2016-07-15 00:38:37.134 STDERR [INFO] I0715 00:38:37.133641 26092 net.cpp:141] Setting up inception_4c/3x3_reduce
2016-07-15 00:38:37.134 STDERR [INFO] I0715 00:38:37.133661 26092 net.cpp:148] Top shape: 10 128 14 14 (250880)
2016-07-15 00:38:37.134 STDERR [INFO] I0715 00:38:37.133669 26092 net.cpp:156] Memory required for data: 426872320
2016-07-15 00:38:37.134 STDERR [INFO] I0715 00:38:37.133684 26092 layer_factory.hpp:77] Creating layer inception_4c/relu_3x3_reduce
2016-07-15 00:38:37.134 STDERR [INFO] I0715 00:38:37.133697 26092 net.cpp:91] Creating Layer inception_4c/relu_3x3_reduce
2016-07-15 00:38:37.134 STDERR [INFO] I0715 00:38:37.133707 26092 net.cpp:425] inception_4c/relu_3x3_reduce <- inception_4c/3x3_reduce
2016-07-15 00:38:37.134 STDERR [INFO] I0715 00:38:37.133723 26092 net.cpp:386] inception_4c/relu_3x3_reduce -> inception_4c/3x3_reduce (in-place)
2016-07-15 00:38:37.135 STDERR [INFO] I0715 00:38:37.135592 26088 net.cpp:141] Setting up inception_4d/relu_1x1
2016-07-15 00:38:37.135 STDERR [INFO] I0715 00:38:37.135608 26088 net.cpp:148] Top shape: 10 112 14 14 (219520)
2016-07-15 00:38:37.135 STDERR [INFO] I0715 00:38:37.135614 26088 net.cpp:156] Memory required for data: 460113920
2016-07-15 00:38:37.135 STDERR [INFO] I0715 00:38:37.135619 26088 layer_factory.hpp:77] Creating layer inception_4d/3x3_reduce
2016-07-15 00:38:37.135 STDERR [INFO] I0715 00:38:37.135637 26088 net.cpp:91] Creating Layer inception_4d/3x3_reduce
2016-07-15 00:38:37.135 STDERR [INFO] I0715 00:38:37.135643 26088 net.cpp:425] inception_4d/3x3_reduce <- inception_4c/output_inception_4c/output_0_split_1
2016-07-15 00:38:37.136 STDERR [INFO] I0715 00:38:37.135658 26088 net.cpp:399] inception_4d/3x3_reduce -> inception_4d/3x3_reduce
2016-07-15 00:38:37.136 STDERR [INFO] I0715 00:38:37.135674 26092 net.cpp:141] Setting up inception_4c/relu_3x3_reduce
2016-07-15 00:38:37.136 STDERR [INFO] I0715 00:38:37.135694 26092 net.cpp:148] Top shape: 10 128 14 14 (250880)
2016-07-15 00:38:37.136 STDERR [INFO] I0715 00:38:37.135701 26092 net.cpp:156] Memory required for data: 427875840
…
2016-07-15 00:38:37.279 STDERR [INFO] I0715 00:38:37.279497 26092 net.cpp:156] Memory required for data: 529482240
2016-07-15 00:38:37.279 STDERR [INFO] I0715 00:38:37.279508 26092 layer_factory.hpp:77] Creating layer inception_5a/relu_1x1
2016-07-15 00:38:37.279 STDERR [INFO] I0715 00:38:37.279520 26092 net.cpp:91] Creating Layer inception_5a/relu_1x1
2016-07-15 00:38:37.279 STDERR [INFO] I0715 00:38:37.279526 26092 net.cpp:425] inception_5a/relu_1x1 <- inception_5a/1x1
2016-07-15 00:38:37.279 STDERR [INFO] I0715 00:38:37.279534 26092 net.cpp:386] inception_5a/relu_1x1 -> inception_5a/1x1 (in-place)
2016-07-15 00:38:37.279 STDERR [INFO] I0715 00:38:37.279556 26088 net.cpp:141] Setting up inception_5a/relu_5x5
2016-07-15 00:38:37.279 STDERR [INFO] I0715 00:38:37.279572 26088 net.cpp:148] Top shape: 10 128 7 7 (62720)
2016-07-15 00:38:37.280 STDERR [INFO] I0715 00:38:37.279577 26088 net.cpp:156] Memory required for data: 532492800
2016-07-15 00:38:37.280 STDERR [INFO] I0715 00:38:37.279583 26088 layer_factory.hpp:77] Creating layer inception_5a/pool
2016-07-15 00:38:37.280 STDERR [INFO] I0715 00:38:37.279593 26088 net.cpp:91] Creating Layer inception_5a/pool
2016-07-15 00:38:37.280 STDERR [INFO] I0715 00:38:37.279599 26088 net.cpp:425] inception_5a/pool <- pool4/3x3_s2_pool4/3x3_s2_0_split_3
2016-07-15 00:38:37.280 STDERR [INFO] I0715 00:38:37.279608 26088 net.cpp:399] inception_5a/pool -> inception_5a/pool
2016-07-15 00:38:37.280 STDERR [INFO] I0715 00:38:37.280414 26088 net.cpp:141] Setting up inception_5a/pool
2016-07-15 00:38:37.280 STDERR [INFO] I0715 00:38:37.280428 26088 net.cpp:148] Top shape: 10 832 7 7 (407680)
2016-07-15 00:38:37.280 STDERR [INFO] I0715 00:38:37.280433 26088 net.cpp:156] Memory required for data: 534123520
2016-07-15 00:38:37.280 STDERR [INFO] I0715 00:38:37.280439 26088 layer_factory.hpp:77] Creating layer inception_5a/pool_proj
2016-07-15 00:38:37.280 STDERR [INFO] I0715 00:38:37.280457 26088 net.cpp:91] Creating Layer inception_5a/pool_proj
2016-07-15 00:38:37.280 STDERR [INFO] I0715 00:38:37.280464 26088 net.cpp:425] inception_5a/pool_proj <- inception_5a/pool
2016-07-15 00:38:37.280 STDERR [INFO] I0715 00:38:37.280477 26088 net.cpp:399] inception_5a/pool_proj -> inception_5a/pool_proj
2016-07-15 00:38:37.280 STDERR [INFO] I0715 00:38:37.280941 26092 net.cpp:141] Setting up inception_5a/relu_1x1
2016-07-15 00:38:37.281 STDERR [INFO] I0715 00:38:37.280959 26092 net.cpp:148] Top shape: 10 256 7 7 (125440)
2016-07-15 00:38:37.281 STDERR [INFO] I0715 00:38:37.280966 26092 net.cpp:156] Memory required for data: 529984000
2016-07-15 00:38:37.281 STDERR [INFO] I0715 00:38:37.280972 26092 layer_factory.hpp:77] Creating layer inception_5a/3x3_reduce
2016-07-15 00:38:37.281 STDERR [INFO] I0715 00:38:37.280988 26092 net.cpp:91] Creating Layer inception_5a/3x3_reduce
2016-07-15 00:38:37.281 STDERR [INFO] I0715 00:38:37.280995 26092 net.cpp:425] inception_5a/3x3_reduce <- pool4/3x3_s2_pool4/3x3_s2_0_split_1
2016-07-15 00:38:37.281 STDERR [INFO] I0715 00:38:37.281007 26092 net.cpp:399] inception_5a/3x3_reduce -> inception_5a/3x3_reduce
2016-07-15 00:38:37.286 STDERR [INFO] I0715 00:38:37.286540 26088 net.cpp:141] Setting up inception_5a/pool_proj
2016-07-15 00:38:37.286 STDERR [INFO] I0715 00:38:37.286558 26088 net.cpp:148] Top shape: 10 128 7 7 (62720)
2016-07-15 00:38:37.286 STDERR [INFO] I0715 00:38:37.286564 26088 net.cpp:156] Memory required for data: 534374400
2016-07-15 00:38:37.286 STDERR [INFO] I0715 00:38:37.286574 26088 layer_factory.hpp:77] Creating layer inception_5a/relu_pool_proj
2016-07-15 00:38:37.286 STDERR [INFO] I0715 00:38:37.286587 26088 net.cpp:91] Creating Layer inception_5a/relu_pool_proj
2016-07-15 00:38:37.286 STDERR [INFO] I0715 00:38:37.286595 26088 net.cpp:425] inception_5a/relu_pool_proj <- inception_5a/pool_proj
2016-07-15 00:38:37.286 STDERR [INFO] I0715 00:38:37.286603 26088 net.cpp:386] inception_5a/relu_pool_proj -> inception_5a/pool_proj (in-place)
2016-07-15 00:38:37.288 STDERR [INFO] I0715 00:38:37.288018 26088 net.cpp:141] Setting up inception_5a/relu_pool_proj
2016-07-15 00:38:37.288 STDERR [INFO] I0715 00:38:37.288034 26088 net.cpp:148] Top shape: 10 128 7 7 (62720)
2016-07-15 00:38:37.288 STDERR [INFO] I0715 00:38:37.288039 26088 net.cpp:156] Memory required for data: 534625280
2016-07-15 00:38:37.288 STDERR [INFO] I0715 00:38:37.288045 26088 layer_factory.hpp:77] Creating layer inception_5a/output
2016-07-15 00:38:37.288 STDERR [INFO] I0715 00:38:37.288059 26088 net.cpp:91] Creating Layer inception_5a/output
2016-07-15 00:38:37.288 STDERR [INFO] I0715 00:38:37.288066 26088 net.cpp:425] inception_5a/output <- inception_5a/1x1
2016-07-15 00:38:37.288 STDERR [INFO] I0715 00:38:37.288074 26088 net.cpp:425] inception_5a/output <- inception_5a/3x3
2016-07-15 00:38:37.288 STDERR [INFO] I0715 00:38:37.288079 26088 net.cpp:425] inception_5a/output <- inception_5a/5x5
2016-07-15 00:38:37.288 STDERR [INFO] I0715 00:38:37.288085 26088 net.cpp:425] inception_5a/output <- inception_5a/pool_proj
2016-07-15 00:38:37.288 STDERR [INFO] I0715 00:38:37.288092 26088 net.cpp:399] inception_5a/output -> inception_5a/output
2016-07-15 00:38:37.288 STDERR [INFO] I0715 00:38:37.288149 26092 net.cpp:141] Setting up inception_5a/3x3_reduce
2016-07-15 00:38:37.288 STDERR [INFO] I0715 00:38:37.288166 26092 net.cpp:148] Top shape: 10 160 7 7 (78400)
2016-07-15 00:38:37.288 STDERR [INFO] I0715 00:38:37.288172 26092 net.cpp:156] Memory required for data: 530297600
2016-07-15 00:38:37.288 STDERR [INFO] I0715 00:38:37.288182 26092 layer_factory.hpp:77] Creating layer inception_5a/relu_3x3_reduce
2016-07-15 00:38:37.288 STDERR [INFO] I0715 00:38:37.288194 26092 net.cpp:91] Creating Layer inception_5a/relu_3x3_reduce
2016-07-15 00:38:37.289 STDERR [INFO] I0715 00:38:37.288202 26092 net.cpp:425] inception_5a/relu_3x3_reduce <- inception_5a/3x3_reduce
2016-07-15 00:38:37.289 STDERR [INFO] I0715 00:38:37.288203 26088 net.cpp:141] Setting up inception_5a/output
2016-07-15 00:38:37.289 STDERR [INFO] I0715 00:38:37.288213 26092 net.cpp:386] inception_5a/relu_3x3_reduce -> inception_5a/3x3_reduce (in-place)
2016-07-15 00:38:37.289 STDERR [INFO] I0715 00:38:37.288216 26088 net.cpp:148] Top shape: 10 832 7 7 (407680)
2016-07-15 00:38:37.289 STDERR [INFO] I0715 00:38:37.288221 26088 net.cpp:156] Memory required for data: 536256000
2016-07-15 00:38:37.289 STDERR [INFO] I0715 00:38:37.288226 26088 layer_factory.hpp:77] Creating layer inception_5a/output_inception_5a/output_0_split
2016-07-15 00:38:37.289 STDERR [INFO] I0715 00:38:37.288235 26088 net.cpp:91] Creating Layer inception_5a/output_inception_5a/output_0_split
…
2016-07-15 00:38:37.289 STDERR [INFO] I0715 00:38:37.288264 26088 net.cpp:399] inception_5a/output_inception_5a/output_0_split -> inception_5a/output_inception_5a/output_0_split_1
2016-07-15 00:38:37.289 STDERR [INFO] I0715 00:38:37.288274 26088 net.cpp:399] inception_5a/output_inception_5a/output_0_split -> inception_5a/output_inception_5a/output_0_split_2
2016-07-15 00:38:37.289 STDERR [INFO] I0715 00:38:37.288282 26088 net.cpp:399] inception_5a/output_inception_5a/output_0_split -> inception_5a/output_inception_5a/output_0_split_3
2016-07-15 00:38:37.289 STDERR [INFO] I0715 00:38:37.288601 26088 net.cpp:141] Setting up inception_5a/output_inception_5a/output_0_split
2016-07-15 00:38:37.289 STDERR [INFO] I0715 00:38:37.288617 26088 net.cpp:148] Top shape: 10 832 7 7 (407680)
2016-07-15 00:38:37.289 STDERR [INFO] I0715 00:38:37.288625 26088 net.cpp:148] Top shape: 10 832 7 7 (407680)
2016-07-15 00:38:37.289 STDERR [INFO] I0715 00:38:37.288630 26088 net.cpp:148] Top shape: 10 832 7 7 (407680)
2016-07-15 00:38:37.289 STDERR [INFO] I0715 00:38:37.288636 26088 net.cpp:148] Top shape: 10 832 7 7 (407680)
2016-07-15 00:38:37.289 STDERR [INFO] I0715 00:38:37.288640 26088 net.cpp:156] Memory required for data: 542778880
2016-07-15 00:38:37.289 STDERR [INFO] I0715 00:38:37.288645 26088 layer_factory.hpp:77] Creating layer inception_5b/1x1
2016-07-15 00:38:37.289 STDERR [INFO] I0715 00:38:37.288664 26088 net.cpp:91] Creating Layer inception_5b/1x1
2016-07-15 00:38:37.290 STDERR [INFO] I0715 00:38:37.288671 26088 net.cpp:425] inception_5b/1x1 <- inception_5a/output_inception_5a/output_0_split_0
2016-07-15 00:38:37.290 STDERR [INFO] I0715 00:38:37.288681 26088 net.cpp:399] inception_5b/1x1 -> inception_5b/1x1
2016-07-15 00:38:37.290 STDERR [INFO] I0715 00:38:37.288943 26092 net.cpp:141] Setting up inception_5a/relu_3x3_reduce
2016-07-15 00:38:37.290 STDERR [INFO] I0715 00:38:37.288956 26092 net.cpp:148] Top shape: 10 160 7 7 (78400)
2016-07-15 00:38:37.290 STDERR [INFO] I0715 00:38:37.288960 26092 net.cpp:156] Memory required for data: 530611200
2016-07-15 00:38:37.290 STDERR [INFO] I0715 00:38:37.288966 26092 layer_factory.hpp:77] Creating layer inception_5a/3x3
2016-07-15 00:38:37.290 STDERR [INFO] I0715 00:38:37.288983 26092 net.cpp:91] Creating Layer inception_5a/3x3
2016-07-15 00:38:37.290 STDERR [INFO] I0715 00:38:37.288990 26092 net.cpp:425] inception_5a/3x3 <- inception_5a/3x3_reduce
2016-07-15 00:38:37.290 STDERR [INFO] I0715 00:38:37.289002 26092 net.cpp:399] inception_5a/3x3 -> inception_5a/3x3
2016-07-15 00:38:37.295 STDERR [INFO] I0715 00:38:37.295707 26088 net.cpp:141] Setting up inception_5b/1x1
2016-07-15 00:38:37.295 STDERR [INFO] I0715 00:38:37.295732 26088 net.cpp:148] Top shape: 10 384 7 7 (188160)
2016-07-15 00:38:37.295 STDERR [INFO] I0715 00:38:37.295737 26088 net.cpp:156] Memory required for data: 543531520
2016-07-15 00:38:37.295 STDERR [INFO] I0715 00:38:37.295748 26088 layer_factory.hpp:77] Creating layer inception_5b/relu_1x1
2016-07-15 00:38:37.296 STDERR [INFO] I0715 00:38:37.295763 26088 net.cpp:91] Creating Layer inception_5b/relu_1x1
2016-07-15 00:38:37.296 STDERR [INFO] I0715 00:38:37.295770 26088 net.cpp:425] inception_5b/relu_1x1 <- inception_5b/1x1
2016-07-15 00:38:37.296 STDERR [INFO] I0715 00:38:37.295778 26088 net.cpp:386] inception_5b/relu_1x1 -> inception_5b/1x1 (in-place)
2016-07-15 00:38:37.297 STDERR [INFO] I0715 00:38:37.297148 26088 net.cpp:141] Setting up inception_5b/relu_1x1
2016-07-15 00:38:37.297 STDERR [INFO] I0715 00:38:37.297165 26088 net.cpp:148] Top shape: 10 384 7 7 (188160)
2016-07-15 00:38:37.297 STDERR [INFO] I0715 00:38:37.297170 26088 net.cpp:156] Memory required for data: 544284160
2016-07-15 00:38:37.297 STDERR [INFO] I0715 00:38:37.297176 26088 layer_factory.hpp:77] Creating layer inception_5b/3x3_reduce
2016-07-15 00:38:37.297 STDERR [INFO] I0715 00:38:37.297197 26088 net.cpp:91] Creating Layer inception_5b/3x3_reduce
2016-07-15 00:38:37.297 STDERR [INFO] I0715 00:38:37.297204 26088 net.cpp:425] inception_5b/3x3_reduce <- inception_5a/output_inception_5a/output_0_split_1
2016-07-15 00:38:37.297 STDERR [INFO] I0715 00:38:37.297214 26088 net.cpp:399] inception_5b/3x3_reduce -> inception_5b/3x3_reduce
2016-07-15 00:38:37.301 STDERR [INFO] I0715 00:38:37.301517 26092 net.cpp:141] Setting up inception_5a/3x3
2016-07-15 00:38:37.301 STDERR [INFO] I0715 00:38:37.301537 26092 net.cpp:148] Top shape: 10 320 7 7 (156800)
2016-07-15 00:38:37.301 STDERR [INFO] I0715 00:38:37.301543 26092 net.cpp:156] Memory required for data: 531238400
2016-07-15 00:38:37.301 STDERR [INFO] I0715 00:38:37.301554 26092 layer_factory.hpp:77] Creating layer inception_5a/relu_3x3
2016-07-15 00:38:37.301 STDERR [INFO] I0715 00:38:37.301564 26092 net.cpp:91] Creating Layer inception_5a/relu_3x3
2016-07-15 00:38:37.301 STDERR [INFO] I0715 00:38:37.301571 26092 net.cpp:425] inception_5a/relu_3x3 <- inception_5a/3x3
2016-07-15 00:38:37.301 STDERR [INFO] I0715 00:38:37.301578 26092 net.cpp:386] inception_5a/relu_3x3 -> inception_5a/3x3 (in-place)
2016-07-15 00:38:37.303 STDERR [INFO] I0715 00:38:37.302966 26092 net.cpp:141] Setting up inception_5a/relu_3x3
2016-07-15 00:38:37.303 STDERR [INFO] I0715 00:38:37.302983 26092 net.cpp:148] Top shape: 10 320 7 7 (156800)
2016-07-15 00:38:37.303 STDERR [INFO] I0715 00:38:37.302988 26092 net.cpp:156] Memory required for data: 531865600
2016-07-15 00:38:37.303 STDERR [INFO] I0715 00:38:37.302994 26092 layer_factory.hpp:77] Creating layer inception_5a/5x5_reduce
2016-07-15 00:38:37.303 STDERR [INFO] I0715 00:38:37.303010 26092 net.cpp:91] Creating Layer inception_5a/5x5_reduce
2016-07-15 00:38:37.303 STDERR [INFO] I0715 00:38:37.303019 26092 net.cpp:425] inception_5a/5x5_reduce <- pool4/3x3_s2_pool4/3x3_s2_0_split_2
2016-07-15 00:38:37.303 STDERR [INFO] I0715 00:38:37.303040 26092 net.cpp:399] inception_5a/5x5_reduce -> inception_5a/5x5_reduce
2016-07-15 00:38:37.306 STDERR [INFO] I0715 00:38:37.306056 26088 net.cpp:141] Setting up inception_5b/3x3_reduce
2016-07-15 00:38:37.306 STDERR [INFO] I0715 00:38:37.306076 26088 net.cpp:148] Top shape: 10 192 7 7 (94080)
2016-07-15 00:38:37.306 STDERR [INFO] I0715 00:38:37.306082 26088 net.cpp:156] Memory required for data: 544660480
2016-07-15 00:38:37.306 STDERR [INFO] I0715 00:38:37.306092 26088 layer_factory.hpp:77] Creating layer inception_5b/relu_3x3_reduce
2016-07-15 00:38:37.306 STDERR [INFO] I0715 00:38:37.306115 26088 net.cpp:91] Creating Layer inception_5b/relu_3x3_reduce
2016-07-15 00:38:37.306 STDERR [INFO] I0715 00:38:37.306124 26088 net.cpp:425] inception_5b/relu_3x3_reduce <- inception_5b/3x3_reduce
2016-07-15 00:38:37.306 STDERR [INFO] I0715 00:38:37.306133 26088 net.cpp:386] inception_5b/relu_3x3_reduce -> inception_5b/3x3_reduce (in-place)
2016-07-15 00:38:37.307 STDERR [INFO] I0715 00:38:37.307613 26088 net.cpp:141] Setting up inception_5b/relu_3x3_reduce
2016-07-15 00:38:37.307 STDERR [INFO] I0715 00:38:37.307631 26088 net.cpp:148] Top shape: 10 192 7 7 (94080)
2016-07-15 00:38:37.307 STDERR [INFO] I0715 00:38:37.307636 26088 net.cpp:156] Memory required for data: 545036800
2016-07-15 00:38:37.307 STDERR [INFO] I0715 00:38:37.307641 26088 layer_factory.hpp:77] Creating layer inception_5b/3x3
2016-07-15 00:38:37.307 STDERR [INFO] I0715 00:38:37.307662 26088 net.cpp:91] Creating Layer inception_5b/3x3
2016-07-15 00:38:37.307 STDERR [INFO] I0715 00:38:37.307669 26088 net.cpp:425] inception_5b/3x3 <- inception_5b/3x3_reduce
2016-07-15 00:38:37.307 STDERR [INFO] I0715 00:38:37.307679 26088 net.cpp:399] inception_5b/3x3 -> inception_5b/3x3
2016-07-15 00:38:37.310 STDERR [INFO] I0715 00:38:37.310333 26092 net.cpp:141] Setting up inception_5a/5x5_reduce
2016-07-15 00:38:37.310 STDERR [INFO] I0715 00:38:37.310356 26092 net.cpp:148] Top shape: 10 32 7 7 (15680)
2016-07-15 00:38:37.310 STDERR [INFO] I0715 00:38:37.310362 26092 net.cpp:156] Memory required for data: 531928320
2016-07-15 00:38:37.310 STDERR [INFO] I0715 00:38:37.310372 26092 layer_factory.hpp:77] Creating layer inception_5a/relu_5x5_reduce
2016-07-15 00:38:37.310 STDERR [INFO] I0715 00:38:37.310381 26092 net.cpp:91] Creating Layer inception_5a/relu_5x5_reduce
2016-07-15 00:38:37.310 STDERR [INFO] I0715 00:38:37.310389 26092 net.cpp:425] inception_5a/relu_5x5_reduce <- inception_5a/5x5_reduce
2016-07-15 00:38:37.310 STDERR [INFO] I0715 00:38:37.310396 26092 net.cpp:386] inception_5a/relu_5x5_reduce -> inception_5a/5x5_reduce (in-place)
2016-07-15 00:38:37.311 STDERR [INFO] I0715 00:38:37.311300 26092 net.cpp:141] Setting up inception_5a/relu_5x5_reduce
2016-07-15 00:38:37.311 STDERR [INFO] I0715 00:38:37.311321 26092 net.cpp:148] Top shape: 10 32 7 7 (15680)
2016-07-15 00:38:37.311 STDERR [INFO] I0715 00:38:37.311327 26092 net.cpp:156] Memory required for data: 531991040
2016-07-15 00:38:37.311 STDERR [INFO] I0715 00:38:37.311332 26092 layer_factory.hpp:77] Creating layer inception_5a/5x5
2016-07-15 00:38:37.311 STDERR [INFO] I0715 00:38:37.311348 26092 net.cpp:91] Creating Layer inception_5a/5x5
2016-07-15 00:38:37.311 STDERR [INFO] I0715 00:38:37.311355 26092 net.cpp:425] inception_5a/5x5 <- inception_5a/5x5_reduce
2016-07-15 00:38:37.311 STDERR [INFO] I0715 00:38:37.311372 26092 net.cpp:399] inception_5a/5x5 -> inception_5a/5x5
2016-07-15 00:38:37.315 STDERR [INFO] I0715 00:38:37.315790 26092 net.cpp:141] Setting up inception_5a/5x5
2016-07-15 00:38:37.315 STDERR [INFO] I0715 00:38:37.315812 26092 net.cpp:148] Top shape: 10 128 7 7 (62720)
2016-07-15 00:38:37.316 STDERR [INFO] I0715 00:38:37.315819 26092 net.cpp:156] Memory required for data: 532241920
2016-07-15 00:38:37.316 STDERR [INFO] I0715 00:38:37.315829 26092 layer_factory.hpp:77] Creating layer inception_5a/relu_5x5
2016-07-15 00:38:37.316 STDERR [INFO] I0715 00:38:37.315870 26092 net.cpp:91] Creating Layer inception_5a/relu_5x5
2016-07-15 00:38:37.316 STDERR [INFO] I0715 00:38:37.315877 26092 net.cpp:425] inception_5a/relu_5x5 <- inception_5a/5x5
2016-07-15 00:38:37.316 STDERR [INFO] I0715 00:38:37.315886 26092 net.cpp:386] inception_5a/relu_5x5 -> inception_5a/5x5 (in-place)
2016-07-15 00:38:37.317 STDERR [INFO] I0715 00:38:37.317432 26092 net.cpp:141] Setting up inception_5a/relu_5x5
2016-07-15 00:38:37.317 STDERR [INFO] I0715 00:38:37.317450 26092 net.cpp:148] Top shape: 10 128 7 7 (62720)
2016-07-15 00:38:37.317 STDERR [INFO] I0715 00:38:37.317454 26092 net.cpp:156] Memory required for data: 532492800
2016-07-15 00:38:37.317 STDERR [INFO] I0715 00:38:37.317461 26092 layer_factory.hpp:77] Creating layer inception_5a/pool
2016-07-15 00:38:37.317 STDERR [INFO] I0715 00:38:37.317474 26092 net.cpp:91] Creating Layer inception_5a/pool
2016-07-15 00:38:37.317 STDERR [INFO] I0715 00:38:37.317481 26092 net.cpp:425] inception_5a/pool <- pool4/3x3_s2_pool4/3x3_s2_0_split_3
2016-07-15 00:38:37.317 STDERR [INFO] I0715 00:38:37.317489 26092 net.cpp:399] inception_5a/pool -> inception_5a/pool
2016-07-15 00:38:37.318 STDERR [INFO] I0715 00:38:37.318342 26092 net.cpp:141] Setting up inception_5a/pool
2016-07-15 00:38:37.318 STDERR [INFO] I0715 00:38:37.318357 26092 net.cpp:148] Top shape: 10 832 7 7 (407680)
2016-07-15 00:38:37.318 STDERR [INFO] I0715 00:38:37.318362 26092 net.cpp:156] Memory required for data: 534123520
2016-07-15 00:38:37.318 STDERR [INFO] I0715 00:38:37.318367 26092 layer_factory.hpp:77] Creating layer inception_5a/pool_proj
2016-07-15 00:38:37.318 STDERR [INFO] I0715 00:38:37.318384 26092 net.cpp:91] Creating Layer inception_5a/pool_proj
2016-07-15 00:38:37.318 STDERR [INFO] I0715 00:38:37.318392 26092 net.cpp:425] inception_5a/pool_proj <- inception_5a/pool
2016-07-15 00:38:37.318 STDERR [INFO] I0715 00:38:37.318404 26092 net.cpp:399] inception_5a/pool_proj -> inception_5a/pool_proj
2016-07-15 00:38:37.319 STDERR [INFO] I0715 00:38:37.319267 26088 net.cpp:141] Setting up inception_5b/3x3
2016-07-15 00:38:37.319 STDERR [INFO] I0715 00:38:37.319286 26088 net.cpp:148] Top shape: 10 384 7 7 (188160)
2016-07-15 00:38:37.319 STDERR [INFO] I0715 00:38:37.319293 26088 net.cpp:156] Memory required for data: 545789440
2016-07-15 00:38:37.319 STDERR [INFO] I0715 00:38:37.319303 26088 layer_factory.hpp:77] Creating layer inception_5b/relu_3x3
2016-07-15 00:38:37.319 STDERR [INFO] I0715 00:38:37.319311 26088 net.cpp:91] Creating Layer inception_5b/relu_3x3
2016-07-15 00:38:37.319 STDERR [INFO] I0715 00:38:37.319319 26088 net.cpp:425] inception_5b/relu_3x3 <- inception_5b/3x3
2016-07-15 00:38:37.319 STDERR [INFO] I0715 00:38:37.319331 26088 net.cpp:386] inception_5b/relu_3x3 -> inception_5b/3x3 (in-place)
2016-07-15 00:38:37.319 STDERR [INFO] I0715 00:38:37.319649 26088 net.cpp:141] Setting up inception_5b/relu_3x3
2016-07-15 00:38:37.319 STDERR [INFO] I0715 00:38:37.319661 26088 net.cpp:148] Top shape: 10 384 7 7 (188160)
2016-07-15 00:38:37.319 STDERR [INFO] I0715 00:38:37.319666 26088 net.cpp:156] Memory required for data: 546542080
2016-07-15 00:38:37.319 STDERR [INFO] I0715 00:38:37.319671 26088 layer_factory.hpp:77] Creating layer inception_5b/5x5_reduce
2016-07-15 00:38:37.319 STDERR [INFO] I0715 00:38:37.319689 26088 net.cpp:91] Creating Layer inception_5b/5x5_reduce
2016-07-15 00:38:37.319 STDERR [INFO] I0715 00:38:37.319695 26088 net.cpp:425] inception_5b/5x5_reduce <- inception_5a/output_inception_5a/output_0_split_2
2016-07-15 00:38:37.319 STDERR [INFO] I0715 00:38:37.319710 26088 net.cpp:399] inception_5b/5x5_reduce -> inception_5b/5x5_reduce
2016-07-15 00:38:37.325 STDERR [INFO] I0715 00:38:37.325320 26092 net.cpp:141] Setting up inception_5a/pool_proj
2016-07-15 00:38:37.325 STDERR [INFO] I0715 00:38:37.325340 26092 net.cpp:148] Top shape: 10 128 7 7 (62720)
2016-07-15 00:38:37.325 STDERR [INFO] I0715 00:38:37.325346 26092 net.cpp:156] Memory required for data: 534374400
2016-07-15 00:38:37.325 STDERR [INFO] I0715 00:38:37.325356 26092 layer_factory.hpp:77] Creating layer inception_5a/relu_pool_proj
2016-07-15 00:38:37.325 STDERR [INFO] I0715 00:38:37.325366 26092 net.cpp:91] Creating Layer inception_5a/relu_pool_proj
2016-07-15 00:38:37.325 STDERR [INFO] I0715 00:38:37.325373 26092 net.cpp:425] inception_5a/relu_pool_proj <- inception_5a/pool_proj
2016-07-15 00:38:37.325 STDERR [INFO] I0715 00:38:37.325381 26092 net.cpp:386] inception_5a/relu_pool_proj -> inception_5a/pool_proj (in-place)
2016-07-15 00:38:37.326 STDERR [INFO] I0715 00:38:37.326388 26088 net.cpp:141] Setting up inception_5b/5x5_reduce
2016-07-15 00:38:37.326 STDERR [INFO] I0715 00:38:37.326407 26088 net.cpp:148] Top shape: 10 48 7 7 (23520)
2016-07-15 00:38:37.326 STDERR [INFO] I0715 00:38:37.326412 26088 net.cpp:156] Memory required for data: 546636160
2016-07-15 00:38:37.326 STDERR [INFO] I0715 00:38:37.326422 26088 layer_factory.hpp:77] Creating layer inception_5b/relu_5x5_reduce
2016-07-15 00:38:37.326 STDERR [INFO] I0715 00:38:37.326436 26088 net.cpp:91] Creating Layer inception_5b/relu_5x5_reduce
2016-07-15 00:38:37.326 STDERR [INFO] I0715 00:38:37.326442 26088 net.cpp:425] inception_5b/relu_5x5_reduce <- inception_5b/5x5_reduce
2016-07-15 00:38:37.326 STDERR [INFO] I0715 00:38:37.326453 26088 net.cpp:386] inception_5b/relu_5x5_reduce -> inception_5b/5x5_reduce (in-place)
2016-07-15 00:38:37.326 STDERR [INFO] I0715 00:38:37.326483 26092 net.cpp:141] Setting up inception_5a/relu_pool_proj
2016-07-15 00:38:37.326 STDERR [INFO] I0715 00:38:37.326498 26092 net.cpp:148] Top shape: 10 128 7 7 (62720)
2016-07-15 00:38:37.326 STDERR [INFO] I0715 00:38:37.326503 26092 net.cpp:156] Memory required for data: 534625280
2016-07-15 00:38:37.326 STDERR [INFO] I0715 00:38:37.326508 26092 layer_factory.hpp:77] Creating layer inception_5a/output
2016-07-15 00:38:37.326 STDERR [INFO] I0715 00:38:37.326519 26092 net.cpp:91] Creating Layer inception_5a/output
2016-07-15 00:38:37.327 STDERR [INFO] I0715 00:38:37.326524 26092 net.cpp:425] inception_5a/output <- inception_5a/1x1
2016-07-15 00:38:37.327 STDERR [INFO] I0715 00:38:37.326531 26092 net.cpp:425] inception_5a/output <- inception_5a/3x3
2016-07-15 00:38:37.327 STDERR [INFO] I0715 00:38:37.326537 26092 net.cpp:425] inception_5a/output <- inception_5a/5x5
2016-07-15 00:38:37.327 STDERR [INFO] I0715 00:38:37.326544 26092 net.cpp:425] inception_5a/output <- inception_5a/pool_proj
2016-07-15 00:38:37.327 STDERR [INFO] I0715 00:38:37.326550 26092 net.cpp:399] inception_5a/output -> inception_5a/output
2016-07-15 00:38:37.327 STDERR [INFO] I0715 00:38:37.326730 26092 net.cpp:141] Setting up inception_5a/output
2016-07-15 00:38:37.327 STDERR [INFO] I0715 00:38:37.326741 26092 net.cpp:148] Top shape: 10 832 7 7 (407680)
2016-07-15 00:38:37.327 STDERR [INFO] I0715 00:38:37.326750 26092 net.cpp:156] Memory required for data: 536256000
2016-07-15 00:38:37.327 STDERR [INFO] I0715 00:38:37.326755 26092 layer_factory.hpp:77] Creating layer inception_5a/output_inception_5a/output_0_split
2016-07-15 00:38:37.327 STDERR [INFO] I0715 00:38:37.326763 26092 net.cpp:91] Creating Layer inception_5a/output_inception_5a/output_0_split
…
2016-07-15 00:38:37.327 STDERR [INFO] I0715 00:38:37.326787 26092 net.cpp:399] inception_5a/output_inception_5a/output_0_split -> inception_5a/output_inception_5a/output_0_split_1
2016-07-15 00:38:37.327 STDERR [INFO] I0715 00:38:37.326797 26092 net.cpp:399] inception_5a/output_inception_5a/output_0_split -> inception_5a/output_inception_5a/output_0_split_2
2016-07-15 00:38:37.327 STDERR [INFO] I0715 00:38:37.326807 26092 net.cpp:399] inception_5a/output_inception_5a/output_0_split -> inception_5a/output_inception_5a/output_0_split_3
2016-07-15 00:38:37.327 STDERR [INFO] I0715 00:38:37.327060 26092 net.cpp:141] Setting up inception_5a/output_inception_5a/output_0_split
2016-07-15 00:38:37.327 STDERR [INFO] I0715 00:38:37.327074 26092 net.cpp:148] Top shape: 10 832 7 7 (407680)
2016-07-15 00:38:37.327 STDERR [INFO] I0715 00:38:37.327072 26088 net.cpp:141] Setting up inception_5b/relu_5x5_reduce
2016-07-15 00:38:37.327 STDERR [INFO] I0715 00:38:37.327081 26092 net.cpp:148] Top shape: 10 832 7 7 (407680)
2016-07-15 00:38:37.327 STDERR [INFO] I0715 00:38:37.327086 26088 net.cpp:148] Top shape: 10 48 7 7 (23520)
2016-07-15 00:38:37.327 STDERR [INFO] I0715 00:38:37.327087 26092 net.cpp:148] Top shape: 10 832 7 7 (407680)
2016-07-15 00:38:37.327 STDERR [INFO] I0715 00:38:37.327095 26088 net.cpp:156] Memory required for data: 546730240
2016-07-15 00:38:37.327 STDERR [INFO] I0715 00:38:37.327100 26092 net.cpp:148] Top shape: 10 832 7 7 (407680)
2016-07-15 00:38:37.327 STDERR [INFO] I0715 00:38:37.327101 26088 layer_factory.hpp:77] Creating layer inception_5b/5x5
2016-07-15 00:38:37.327 STDERR [INFO] I0715 00:38:37.327108 26092 net.cpp:156] Memory required for data: 542778880
2016-07-15 00:38:37.327 STDERR [INFO] I0715 00:38:37.327114 26092 layer_factory.hpp:77] Creating layer inception_5b/1x1
2016-07-15 00:38:37.328 STDERR [INFO] I0715 00:38:37.327132 26088 net.cpp:91] Creating Layer inception_5b/5x5
2016-07-15 00:38:37.328 STDERR [INFO] I0715 00:38:37.327138 26092 net.cpp:91] Creating Layer inception_5b/1x1
2016-07-15 00:38:37.328 STDERR [INFO] I0715 00:38:37.327141 26088 net.cpp:425] inception_5b/5x5 <- inception_5b/5x5_reduce
2016-07-15 00:38:37.328 STDERR [INFO] I0715 00:38:37.327148 26092 net.cpp:425] inception_5b/1x1 <- inception_5a/output_inception_5a/output_0_split_0
2016-07-15 00:38:37.328 STDERR [INFO] I0715 00:38:37.327159 26088 net.cpp:399] inception_5b/5x5 -> inception_5b/5x5
2016-07-15 00:38:37.328 STDERR [INFO] I0715 00:38:37.327162 26092 net.cpp:399] inception_5b/1x1 -> inception_5b/1x1
2016-07-15 00:38:37.332 STDERR [INFO] I0715 00:38:37.332830 26088 net.cpp:141] Setting up inception_5b/5x5
2016-07-15 00:38:37.333 STDERR [INFO] I0715 00:38:37.332854 26088 net.cpp:148] Top shape: 10 128 7 7 (62720)
2016-07-15 00:38:37.333 STDERR [INFO] I0715 00:38:37.332859 26088 net.cpp:156] Memory required for data: 546981120
2016-07-15 00:38:37.333 STDERR [INFO] I0715 00:38:37.332870 26088 layer_factory.hpp:77] Creating layer inception_5b/relu_5x5
2016-07-15 00:38:37.333 STDERR [INFO] I0715 00:38:37.332883 26088 net.cpp:91] Creating Layer inception_5b/relu_5x5
2016-07-15 00:38:37.333 STDERR [INFO] I0715 00:38:37.332890 26088 net.cpp:425] inception_5b/relu_5x5 <- inception_5b/5x5
2016-07-15 00:38:37.333 STDERR [INFO] I0715 00:38:37.332898 26088 net.cpp:386] inception_5b/relu_5x5 -> inception_5b/5x5 (in-place)
2016-07-15 00:38:37.334 STDERR [INFO] I0715 00:38:37.334280 26088 net.cpp:141] Setting up inception_5b/relu_5x5
2016-07-15 00:38:37.334 STDERR [INFO] I0715 00:38:37.334295 26088 net.cpp:148] Top shape: 10 128 7 7 (62720)
2016-07-15 00:38:37.334 STDERR [INFO] I0715 00:38:37.334300 26088 net.cpp:156] Memory required for data: 547232000
2016-07-15 00:38:37.334 STDERR [INFO] I0715 00:38:37.334306 26088 layer_factory.hpp:77] Creating layer inception_5b/pool
2016-07-15 00:38:37.334 STDERR [INFO] I0715 00:38:37.334318 26088 net.cpp:91] Creating Layer inception_5b/pool
2016-07-15 00:38:37.334 STDERR [INFO] I0715 00:38:37.334326 26088 net.cpp:425] inception_5b/pool <- inception_5a/output_inception_5a/output_0_split_3
2016-07-15 00:38:37.334 STDERR [INFO] I0715 00:38:37.334337 26088 net.cpp:399] inception_5b/pool -> inception_5b/pool
2016-07-15 00:38:37.335 STDERR [INFO] I0715 00:38:37.335196 26088 net.cpp:141] Setting up inception_5b/pool
2016-07-15 00:38:37.335 STDERR [INFO] I0715 00:38:37.335212 26088 net.cpp:148] Top shape: 10 832 7 7 (407680)
2016-07-15 00:38:37.335 STDERR [INFO] I0715 00:38:37.335217 26088 net.cpp:156] Memory required for data: 548862720
2016-07-15 00:38:37.335 STDERR [INFO] I0715 00:38:37.335222 26088 layer_factory.hpp:77] Creating layer inception_5b/pool_proj
2016-07-15 00:38:37.335 STDERR [INFO] I0715 00:38:37.335239 26088 net.cpp:91] Creating Layer inception_5b/pool_proj
2016-07-15 00:38:37.335 STDERR [INFO] I0715 00:38:37.335245 26088 net.cpp:425] inception_5b/pool_proj <- inception_5b/pool
2016-07-15 00:38:37.335 STDERR [INFO] I0715 00:38:37.335258 26088 net.cpp:399] inception_5b/pool_proj -> inception_5b/pool_proj
2016-07-15 00:38:37.336 STDERR [INFO] I0715 00:38:37.336405 26092 net.cpp:141] Setting up inception_5b/1x1
2016-07-15 00:38:37.336 STDERR [INFO] I0715 00:38:37.336426 26092 net.cpp:148] Top shape: 10 384 7 7 (188160)
2016-07-15 00:38:37.336 STDERR [INFO] I0715 00:38:37.336431 26092 net.cpp:156] Memory required for data: 543531520
2016-07-15 00:38:37.336 STDERR [INFO] I0715 00:38:37.336441 26092 layer_factory.hpp:77] Creating layer inception_5b/relu_1x1
2016-07-15 00:38:37.336 STDERR [INFO] I0715 00:38:37.336453 26092 net.cpp:91] Creating Layer inception_5b/relu_1x1
2016-07-15 00:38:37.336 STDERR [INFO] I0715 00:38:37.336460 26092 net.cpp:425] inception_5b/relu_1x1 <- inception_5b/1x1
2016-07-15 00:38:37.336 STDERR [INFO] I0715 00:38:37.336468 26092 net.cpp:386] inception_5b/relu_1x1 -> inception_5b/1x1 (in-place)
2016-07-15 00:38:37.337 STDERR [INFO] I0715 00:38:37.337869 26092 net.cpp:141] Setting up inception_5b/relu_1x1
2016-07-15 00:38:37.338 STDERR [INFO] I0715 00:38:37.337885 26092 net.cpp:148] Top shape: 10 384 7 7 (188160)
2016-07-15 00:38:37.338 STDERR [INFO] I0715 00:38:37.337890 26092 net.cpp:156] Memory required for data: 544284160
2016-07-15 00:38:37.338 STDERR [INFO] I0715 00:38:37.337896 26092 layer_factory.hpp:77] Creating layer inception_5b/3x3_reduce
2016-07-15 00:38:37.338 STDERR [INFO] I0715 00:38:37.337913 26092 net.cpp:91] Creating Layer inception_5b/3x3_reduce
2016-07-15 00:38:37.338 STDERR [INFO] I0715 00:38:37.337920 26092 net.cpp:425] inception_5b/3x3_reduce <- inception_5a/output_inception_5a/output_0_split_1
2016-07-15 00:38:37.338 STDERR [INFO] I0715 00:38:37.337934 26092 net.cpp:399] inception_5b/3x3_reduce -> inception_5b/3x3_reduce
2016-07-15 00:38:37.342 STDERR [INFO] I0715 00:38:37.342548 26088 net.cpp:141] Setting up inception_5b/pool_proj
2016-07-15 00:38:37.342 STDERR [INFO] I0715 00:38:37.342569 26088 net.cpp:148] Top shape: 10 128 7 7 (62720)
2016-07-15 00:38:37.342 STDERR [INFO] I0715 00:38:37.342576 26088 net.cpp:156] Memory required for data: 549113600
2016-07-15 00:38:37.342 STDERR [INFO] I0715 00:38:37.342586 26088 layer_factory.hpp:77] Creating layer inception_5b/relu_pool_proj
2016-07-15 00:38:37.342 STDERR [INFO] I0715 00:38:37.342595 26088 net.cpp:91] Creating Layer inception_5b/relu_pool_proj
2016-07-15 00:38:37.342 STDERR [INFO] I0715 00:38:37.342602 26088 net.cpp:425] inception_5b/relu_pool_proj <- inception_5b/pool_proj
2016-07-15 00:38:37.342 STDERR [INFO] I0715 00:38:37.342614 26088 net.cpp:386] inception_5b/relu_pool_proj -> inception_5b/pool_proj (in-place)
2016-07-15 00:38:37.344 STDERR [INFO] I0715 00:38:37.343983 26088 net.cpp:141] Setting up inception_5b/relu_pool_proj
2016-07-15 00:38:37.344 STDERR [INFO] I0715 00:38:37.344002 26088 net.cpp:148] Top shape: 10 128 7 7 (62720)
2016-07-15 00:38:37.344 STDERR [INFO] I0715 00:38:37.344007 26088 net.cpp:156] Memory required for data: 549364480
2016-07-15 00:38:37.344 STDERR [INFO] I0715 00:38:37.344012 26088 layer_factory.hpp:77] Creating layer inception_5b/output
2016-07-15 00:38:37.344 STDERR [INFO] I0715 00:38:37.344022 26088 net.cpp:91] Creating Layer inception_5b/output
2016-07-15 00:38:37.344 STDERR [INFO] I0715 00:38:37.344028 26088 net.cpp:425] inception_5b/output <- inception_5b/1x1
2016-07-15 00:38:37.344 STDERR [INFO] I0715 00:38:37.344036 26088 net.cpp:425] inception_5b/output <- inception_5b/3x3
2016-07-15 00:38:37.344 STDERR [INFO] I0715 00:38:37.344043 26088 net.cpp:425] inception_5b/output <- inception_5b/5x5
2016-07-15 00:38:37.344 STDERR [INFO] I0715 00:38:37.344049 26088 net.cpp:425] inception_5b/output <- inception_5b/pool_proj
2016-07-15 00:38:37.344 STDERR [INFO] I0715 00:38:37.344056 26088 net.cpp:399] inception_5b/output -> inception_5b/output
2016-07-15 00:38:37.344 STDERR [INFO] I0715 00:38:37.344257 26088 net.cpp:141] Setting up inception_5b/output
2016-07-15 00:38:37.344 STDERR [INFO] I0715 00:38:37.344269 26088 net.cpp:148] Top shape: 10 1024 7 7 (501760)
2016-07-15 00:38:37.344 STDERR [INFO] I0715 00:38:37.344274 26088 net.cpp:156] Memory required for data: 551371520
2016-07-15 00:38:37.344 STDERR [INFO] I0715 00:38:37.344280 26088 layer_factory.hpp:77] Creating layer pool5/7x7_s1
2016-07-15 00:38:37.344 STDERR [INFO] I0715 00:38:37.344290 26088 net.cpp:91] Creating Layer pool5/7x7_s1
2016-07-15 00:38:37.344 STDERR [INFO] I0715 00:38:37.344296 26088 net.cpp:425] pool5/7x7_s1 <- inception_5b/output
2016-07-15 00:38:37.344 STDERR [INFO] I0715 00:38:37.344305 26088 net.cpp:399] pool5/7x7_s1 -> pool5/7x7_s1
2016-07-15 00:38:37.345 STDERR [INFO] I0715 00:38:37.345715 26088 net.cpp:141] Setting up pool5/7x7_s1
2016-07-15 00:38:37.345 STDERR [INFO] I0715 00:38:37.345731 26088 net.cpp:148] Top shape: 10 1024 1 1 (10240)
2016-07-15 00:38:37.345 STDERR [INFO] I0715 00:38:37.345736 26088 net.cpp:156] Memory required for data: 551412480
2016-07-15 00:38:37.345 STDERR [INFO] I0715 00:38:37.345742 26088 layer_factory.hpp:77] Creating layer pool5/drop_7x7_s1
2016-07-15 00:38:37.346 STDERR [INFO] I0715 00:38:37.345764 26088 net.cpp:91] Creating Layer pool5/drop_7x7_s1
2016-07-15 00:38:37.346 STDERR [INFO] I0715 00:38:37.345772 26088 net.cpp:425] pool5/drop_7x7_s1 <- pool5/7x7_s1
2016-07-15 00:38:37.346 STDERR [INFO] I0715 00:38:37.345778 26088 net.cpp:386] pool5/drop_7x7_s1 -> pool5/7x7_s1 (in-place)
2016-07-15 00:38:37.346 STDERR [INFO] I0715 00:38:37.345881 26088 net.cpp:141] Setting up pool5/drop_7x7_s1
2016-07-15 00:38:37.346 STDERR [INFO] I0715 00:38:37.345892 26088 net.cpp:148] Top shape: 10 1024 1 1 (10240)
2016-07-15 00:38:37.346 STDERR [INFO] I0715 00:38:37.345897 26088 net.cpp:156] Memory required for data: 551453440
2016-07-15 00:38:37.346 STDERR [INFO] I0715 00:38:37.345902 26088 layer_factory.hpp:77] Creating layer loss3/classifier
2016-07-15 00:38:37.346 STDERR [INFO] I0715 00:38:37.345927 26088 net.cpp:91] Creating Layer loss3/classifier
2016-07-15 00:38:37.346 STDERR [INFO] I0715 00:38:37.345932 26088 net.cpp:425] loss3/classifier <- pool5/7x7_s1
2016-07-15 00:38:37.346 STDERR [INFO] I0715 00:38:37.345935 26092 net.cpp:141] Setting up inception_5b/3x3_reduce
2016-07-15 00:38:37.346 STDERR [INFO] I0715 00:38:37.345942 26088 net.cpp:399] loss3/classifier -> loss3/classifier
2016-07-15 00:38:37.346 STDERR [INFO] I0715 00:38:37.345955 26092 net.cpp:148] Top shape: 10 192 7 7 (94080)
2016-07-15 00:38:37.346 STDERR [INFO] I0715 00:38:37.345962 26092 net.cpp:156] Memory required for data: 544660480
2016-07-15 00:38:37.346 STDERR [INFO] I0715 00:38:37.345973 26092 layer_factory.hpp:77] Creating layer inception_5b/relu_3x3_reduce
2016-07-15 00:38:37.346 STDERR [INFO] I0715 00:38:37.345985 26092 net.cpp:91] Creating Layer inception_5b/relu_3x3_reduce
2016-07-15 00:38:37.346 STDERR [INFO] I0715 00:38:37.345993 26092 net.cpp:425] inception_5b/relu_3x3_reduce <- inception_5b/3x3_reduce
2016-07-15 00:38:37.346 STDERR [INFO] I0715 00:38:37.346000 26092 net.cpp:386] inception_5b/relu_3x3_reduce -> inception_5b/3x3_reduce (in-place)
2016-07-15 00:38:37.350 STDERR [INFO] I0715 00:38:37.350375 26092 net.cpp:141] Setting up inception_5b/relu_3x3_reduce
2016-07-15 00:38:37.350 STDERR [INFO] I0715 00:38:37.350404 26092 net.cpp:148] Top shape: 10 192 7 7 (94080)
2016-07-15 00:38:37.350 STDERR [INFO] I0715 00:38:37.350409 26092 net.cpp:156] Memory required for data: 545036800
2016-07-15 00:38:37.350 STDERR [INFO] I0715 00:38:37.350415 26092 layer_factory.hpp:77] Creating layer inception_5b/3x3
2016-07-15 00:38:37.350 STDERR [INFO] I0715 00:38:37.350437 26092 net.cpp:91] Creating Layer inception_5b/3x3
2016-07-15 00:38:37.350 STDERR [INFO] I0715 00:38:37.350445 26092 net.cpp:425] inception_5b/3x3 <- inception_5b/3x3_reduce
2016-07-15 00:38:37.350 STDERR [INFO] I0715 00:38:37.350456 26092 net.cpp:399] inception_5b/3x3 -> inception_5b/3x3
2016-07-15 00:38:37.357 STDERR [INFO] I0715 00:38:37.357477 26088 net.cpp:141] Setting up loss3/classifier
2016-07-15 00:38:37.357 STDERR [INFO] I0715 00:38:37.357504 26088 net.cpp:148] Top shape: 10 1000 (10000)
2016-07-15 00:38:37.357 STDERR [INFO] I0715 00:38:37.357511 26088 net.cpp:156] Memory required for data: 551493440
2016-07-15 00:38:37.357 STDERR [INFO] I0715 00:38:37.357522 26088 layer_factory.hpp:77] Creating layer prob
2016-07-15 00:38:37.357 STDERR [INFO] I0715 00:38:37.357534 26088 net.cpp:91] Creating Layer prob
2016-07-15 00:38:37.357 STDERR [INFO] I0715 00:38:37.357542 26088 net.cpp:425] prob <- loss3/classifier
2016-07-15 00:38:37.357 STDERR [INFO] I0715 00:38:37.357550 26088 net.cpp:399] prob -> prob
2016-07-15 00:38:37.359 STDERR [INFO] I0715 00:38:37.359333 26088 net.cpp:141] Setting up prob
2016-07-15 00:38:37.359 STDERR [INFO] I0715 00:38:37.359350 26088 net.cpp:148] Top shape: 10 1000 (10000)
2016-07-15 00:38:37.359 STDERR [INFO] I0715 00:38:37.359356 26088 net.cpp:156] Memory required for data: 551533440
2016-07-15 00:38:37.359 STDERR [INFO] I0715 00:38:37.359362 26088 net.cpp:219] prob does not need backward computation.
2016-07-15 00:38:37.359 STDERR [INFO] I0715 00:38:37.359367 26088 net.cpp:219] loss3/classifier does not need backward computation.
2016-07-15 00:38:37.359 STDERR [INFO] I0715 00:38:37.359372 26088 net.cpp:219] pool5/drop_7x7_s1 does not need backward computation.
…
2016-07-15 00:38:37.365 STDERR [INFO] I0715 00:38:37.360158 26088 net.cpp:219] conv1/7x7_s2 does not need backward computation.
2016-07-15 00:38:37.365 STDERR [INFO] I0715 00:38:37.360163 26088 net.cpp:219] data does not need backward computation.
2016-07-15 00:38:37.365 STDERR [INFO] I0715 00:38:37.360167 26088 net.cpp:261] This network produces output prob
2016-07-15 00:38:37.365 STDERR [INFO] I0715 00:38:37.360314 26088 net.cpp:274] Network initialization done.
2016-07-15 00:38:37.365 STDERR [INFO] I0715 00:38:37.360775 26092 net.cpp:141] Setting up inception_5b/3x3
2016-07-15 00:38:37.365 STDERR [INFO] I0715 00:38:37.360791 26092 net.cpp:148] Top shape: 10 384 7 7 (188160)
2016-07-15 00:38:37.365 STDERR [INFO] I0715 00:38:37.360797 26092 net.cpp:156] Memory required for data: 545789440
2016-07-15 00:38:37.366 STDERR [INFO] I0715 00:38:37.360807 26092 layer_factory.hpp:77] Creating layer inception_5b/relu_3x3
2016-07-15 00:38:37.366 STDERR [INFO] I0715 00:38:37.360821 26092 net.cpp:91] Creating Layer inception_5b/relu_3x3
2016-07-15 00:38:37.366 STDERR [INFO] I0715 00:38:37.360828 26092 net.cpp:425] inception_5b/relu_3x3 <- inception_5b/3x3
2016-07-15 00:38:37.366 STDERR [INFO] I0715 00:38:37.360836 26092 net.cpp:386] inception_5b/relu_3x3 -> inception_5b/3x3 (in-place)
2016-07-15 00:38:37.366 STDERR [INFO] I0715 00:38:37.361765 26092 net.cpp:141] Setting up inception_5b/relu_3x3
2016-07-15 00:38:37.366 STDERR [INFO] I0715 00:38:37.361780 26092 net.cpp:148] Top shape: 10 384 7 7 (188160)
2016-07-15 00:38:37.366 STDERR [INFO] I0715 00:38:37.361785 26092 net.cpp:156] Memory required for data: 546542080
2016-07-15 00:38:37.366 STDERR [INFO] I0715 00:38:37.361790 26092 layer_factory.hpp:77] Creating layer inception_5b/5x5_reduce
2016-07-15 00:38:37.366 STDERR [INFO] I0715 00:38:37.361814 26092 net.cpp:91] Creating Layer inception_5b/5x5_reduce
2016-07-15 00:38:37.366 STDERR [INFO] I0715 00:38:37.361822 26092 net.cpp:425] inception_5b/5x5_reduce <- inception_5a/output_inception_5a/output_0_split_2
2016-07-15 00:38:37.366 STDERR [INFO] I0715 00:38:37.361832 26092 net.cpp:399] inception_5b/5x5_reduce -> inception_5b/5x5_reduce
2016-07-15 00:38:37.366 STDERR [INFO] I0715 00:38:37.365048 26092 net.cpp:141] Setting up inception_5b/5x5_reduce
2016-07-15 00:38:37.366 STDERR [INFO] I0715 00:38:37.365069 26092 net.cpp:148] Top shape: 10 48 7 7 (23520)
2016-07-15 00:38:37.366 STDERR [INFO] I0715 00:38:37.365075 26092 net.cpp:156] Memory required for data: 546636160
2016-07-15 00:38:37.366 STDERR [INFO] I0715 00:38:37.365087 26092 layer_factory.hpp:77] Creating layer inception_5b/relu_5x5_reduce
2016-07-15 00:38:37.366 STDERR [INFO] I0715 00:38:37.365100 26092 net.cpp:91] Creating Layer inception_5b/relu_5x5_reduce
2016-07-15 00:38:37.366 STDERR [INFO] I0715 00:38:37.365108 26092 net.cpp:425] inception_5b/relu_5x5_reduce <- inception_5b/5x5_reduce
2016-07-15 00:38:37.366 STDERR [INFO] I0715 00:38:37.365115 26092 net.cpp:386] inception_5b/relu_5x5_reduce -> inception_5b/5x5_reduce (in-place)
2016-07-15 00:38:37.366 STDERR [INFO] I0715 00:38:37.365448 26092 net.cpp:141] Setting up inception_5b/relu_5x5_reduce
2016-07-15 00:38:37.366 STDERR [INFO] I0715 00:38:37.365463 26092 net.cpp:148] Top shape: 10 48 7 7 (23520)
2016-07-15 00:38:37.366 STDERR [INFO] I0715 00:38:37.365468 26092 net.cpp:156] Memory required for data: 546730240
2016-07-15 00:38:37.366 STDERR [INFO] I0715 00:38:37.365474 26092 layer_factory.hpp:77] Creating layer inception_5b/5x5
2016-07-15 00:38:37.366 STDERR [INFO] I0715 00:38:37.365492 26092 net.cpp:91] Creating Layer inception_5b/5x5
2016-07-15 00:38:37.366 STDERR [INFO] I0715 00:38:37.365499 26092 net.cpp:425] inception_5b/5x5 <- inception_5b/5x5_reduce
2016-07-15 00:38:37.366 STDERR [INFO] I0715 00:38:37.365509 26092 net.cpp:399] inception_5b/5x5 -> inception_5b/5x5
2016-07-15 00:38:37.371 STDERR [INFO] I0715 00:38:37.371418 26092 net.cpp:141] Setting up inception_5b/5x5
2016-07-15 00:38:37.371 STDERR [INFO] I0715 00:38:37.371457 26092 net.cpp:148] Top shape: 10 128 7 7 (62720)
2016-07-15 00:38:37.371 STDERR [INFO] I0715 00:38:37.371464 26092 net.cpp:156] Memory required for data: 546981120
2016-07-15 00:38:37.371 STDERR [INFO] I0715 00:38:37.371476 26092 layer_factory.hpp:77] Creating layer inception_5b/relu_5x5
2016-07-15 00:38:37.371 STDERR [INFO] I0715 00:38:37.371497 26092 net.cpp:91] Creating Layer inception_5b/relu_5x5
2016-07-15 00:38:37.371 STDERR [INFO] I0715 00:38:37.371505 26092 net.cpp:425] inception_5b/relu_5x5 <- inception_5b/5x5
2016-07-15 00:38:37.371 STDERR [INFO] I0715 00:38:37.371515 26092 net.cpp:386] inception_5b/relu_5x5 -> inception_5b/5x5 (in-place)
2016-07-15 00:38:37.372 STDERR [INFO] I0715 00:38:37.372876 26092 net.cpp:141] Setting up inception_5b/relu_5x5
2016-07-15 00:38:37.373 STDERR [INFO] I0715 00:38:37.372906 26092 net.cpp:148] Top shape: 10 128 7 7 (62720)
2016-07-15 00:38:37.373 STDERR [INFO] I0715 00:38:37.372912 26092 net.cpp:156] Memory required for data: 547232000
2016-07-15 00:38:37.373 STDERR [INFO] I0715 00:38:37.372920 26092 layer_factory.hpp:77] Creating layer inception_5b/pool
2016-07-15 00:38:37.373 STDERR [INFO] I0715 00:38:37.372933 26092 net.cpp:91] Creating Layer inception_5b/pool
2016-07-15 00:38:37.373 STDERR [INFO] I0715 00:38:37.372941 26092 net.cpp:425] inception_5b/pool <- inception_5a/output_inception_5a/output_0_split_3
2016-07-15 00:38:37.373 STDERR [INFO] I0715 00:38:37.372952 26092 net.cpp:399] inception_5b/pool -> inception_5b/pool
2016-07-15 00:38:37.373 STDERR [INFO] I0715 00:38:37.373045 26092 net.cpp:141] Setting up inception_5b/pool
2016-07-15 00:38:37.373 STDERR [INFO] I0715 00:38:37.373056 26092 net.cpp:148] Top shape: 10 832 7 7 (407680)
2016-07-15 00:38:37.373 STDERR [INFO] I0715 00:38:37.373061 26092 net.cpp:156] Memory required for data: 548862720
2016-07-15 00:38:37.373 STDERR [INFO] I0715 00:38:37.373066 26092 layer_factory.hpp:77] Creating layer inception_5b/pool_proj
2016-07-15 00:38:37.373 STDERR [INFO] I0715 00:38:37.373087 26092 net.cpp:91] Creating Layer inception_5b/pool_proj
2016-07-15 00:38:37.373 STDERR [INFO] I0715 00:38:37.373095 26092 net.cpp:425] inception_5b/pool_proj <- inception_5b/pool
2016-07-15 00:38:37.373 STDERR [INFO] I0715 00:38:37.373106 26092 net.cpp:399] inception_5b/pool_proj -> inception_5b/pool_proj
2016-07-15 00:38:37.377 STDERR [INFO] I0715 00:38:37.377286 26092 net.cpp:141] Setting up inception_5b/pool_proj
2016-07-15 00:38:37.377 STDERR [INFO] I0715 00:38:37.377322 26092 net.cpp:148] Top shape: 10 128 7 7 (62720)
2016-07-15 00:38:37.377 STDERR [INFO] I0715 00:38:37.377328 26092 net.cpp:156] Memory required for data: 549113600
2016-07-15 00:38:37.377 STDERR [INFO] I0715 00:38:37.377341 26092 layer_factory.hpp:77] Creating layer inception_5b/relu_pool_proj
2016-07-15 00:38:37.377 STDERR [INFO] I0715 00:38:37.377352 26092 net.cpp:91] Creating Layer inception_5b/relu_pool_proj
2016-07-15 00:38:37.377 STDERR [INFO] I0715 00:38:37.377359 26092 net.cpp:425] inception_5b/relu_pool_proj <- inception_5b/pool_proj
2016-07-15 00:38:37.377 STDERR [INFO] I0715 00:38:37.377373 26092 net.cpp:386] inception_5b/relu_pool_proj -> inception_5b/pool_proj (in-place)
2016-07-15 00:38:37.378 STDERR [INFO] I0715 00:38:37.378574 26092 net.cpp:141] Setting up inception_5b/relu_pool_proj
2016-07-15 00:38:37.378 STDERR [INFO] I0715 00:38:37.378595 26092 net.cpp:148] Top shape: 10 128 7 7 (62720)
2016-07-15 00:38:37.378 STDERR [INFO] I0715 00:38:37.378600 26092 net.cpp:156] Memory required for data: 549364480
2016-07-15 00:38:37.378 STDERR [INFO] I0715 00:38:37.378607 26092 layer_factory.hpp:77] Creating layer inception_5b/output
2016-07-15 00:38:37.378 STDERR [INFO] I0715 00:38:37.378618 26092 net.cpp:91] Creating Layer inception_5b/output
2016-07-15 00:38:37.378 STDERR [INFO] I0715 00:38:37.378624 26092 net.cpp:425] inception_5b/output <- inception_5b/1x1
2016-07-15 00:38:37.378 STDERR [INFO] I0715 00:38:37.378646 26092 net.cpp:425] inception_5b/output <- inception_5b/3x3
2016-07-15 00:38:37.379 STDERR [INFO] I0715 00:38:37.378655 26092 net.cpp:425] inception_5b/output <- inception_5b/5x5
2016-07-15 00:38:37.379 STDERR [INFO] I0715 00:38:37.378661 26092 net.cpp:425] inception_5b/output <- inception_5b/pool_proj
2016-07-15 00:38:37.379 STDERR [INFO] I0715 00:38:37.378669 26092 net.cpp:399] inception_5b/output -> inception_5b/output
2016-07-15 00:38:37.379 STDERR [INFO] I0715 00:38:37.378736 26092 net.cpp:141] Setting up inception_5b/output
2016-07-15 00:38:37.379 STDERR [INFO] I0715 00:38:37.378748 26092 net.cpp:148] Top shape: 10 1024 7 7 (501760)
2016-07-15 00:38:37.379 STDERR [INFO] I0715 00:38:37.378753 26092 net.cpp:156] Memory required for data: 551371520
2016-07-15 00:38:37.379 STDERR [INFO] I0715 00:38:37.378758 26092 layer_factory.hpp:77] Creating layer pool5/7x7_s1
2016-07-15 00:38:37.379 STDERR [INFO] I0715 00:38:37.378768 26092 net.cpp:91] Creating Layer pool5/7x7_s1
2016-07-15 00:38:37.379 STDERR [INFO] I0715 00:38:37.378773 26092 net.cpp:425] pool5/7x7_s1 <- inception_5b/output
2016-07-15 00:38:37.379 STDERR [INFO] I0715 00:38:37.378787 26092 net.cpp:399] pool5/7x7_s1 -> pool5/7x7_s1
2016-07-15 00:38:37.379 STDERR [INFO] I0715 00:38:37.379163 26092 net.cpp:141] Setting up pool5/7x7_s1
2016-07-15 00:38:37.379 STDERR [INFO] I0715 00:38:37.379176 26092 net.cpp:148] Top shape: 10 1024 1 1 (10240)
2016-07-15 00:38:37.379 STDERR [INFO] I0715 00:38:37.379181 26092 net.cpp:156] Memory required for data: 551412480
2016-07-15 00:38:37.379 STDERR [INFO] I0715 00:38:37.379187 26092 layer_factory.hpp:77] Creating layer pool5/drop_7x7_s1
2016-07-15 00:38:37.379 STDERR [INFO] I0715 00:38:37.379209 26092 net.cpp:91] Creating Layer pool5/drop_7x7_s1
2016-07-15 00:38:37.379 STDERR [INFO] I0715 00:38:37.379215 26092 net.cpp:425] pool5/drop_7x7_s1 <- pool5/7x7_s1
2016-07-15 00:38:37.379 STDERR [INFO] I0715 00:38:37.379222 26092 net.cpp:386] pool5/drop_7x7_s1 -> pool5/7x7_s1 (in-place)
2016-07-15 00:38:37.379 STDERR [INFO] I0715 00:38:37.379264 26092 net.cpp:141] Setting up pool5/drop_7x7_s1
2016-07-15 00:38:37.379 STDERR [INFO] I0715 00:38:37.379273 26092 net.cpp:148] Top shape: 10 1024 1 1 (10240)
2016-07-15 00:38:37.379 STDERR [INFO] I0715 00:38:37.379278 26092 net.cpp:156] Memory required for data: 551453440
2016-07-15 00:38:37.379 STDERR [INFO] I0715 00:38:37.379283 26092 layer_factory.hpp:77] Creating layer loss3/classifier
2016-07-15 00:38:37.379 STDERR [INFO] I0715 00:38:37.379302 26092 net.cpp:91] Creating Layer loss3/classifier
2016-07-15 00:38:37.379 STDERR [INFO] I0715 00:38:37.379307 26092 net.cpp:425] loss3/classifier <- pool5/7x7_s1
2016-07-15 00:38:37.379 STDERR [INFO] I0715 00:38:37.379317 26092 net.cpp:399] loss3/classifier -> loss3/classifier
2016-07-15 00:38:37.391 STDERR [INFO] I0715 00:38:37.391487 26092 net.cpp:141] Setting up loss3/classifier
2016-07-15 00:38:37.391 STDERR [INFO] I0715 00:38:37.391536 26092 net.cpp:148] Top shape: 10 1000 (10000)
2016-07-15 00:38:37.391 STDERR [INFO] I0715 00:38:37.391542 26092 net.cpp:156] Memory required for data: 551493440
2016-07-15 00:38:37.391 STDERR [INFO] I0715 00:38:37.391556 26092 layer_factory.hpp:77] Creating layer prob
2016-07-15 00:38:37.392 STDERR [INFO] I0715 00:38:37.391572 26092 net.cpp:91] Creating Layer prob
2016-07-15 00:38:37.392 STDERR [INFO] I0715 00:38:37.391579 26092 net.cpp:425] prob <- loss3/classifier
2016-07-15 00:38:37.392 STDERR [INFO] I0715 00:38:37.391592 26092 net.cpp:399] prob -> prob
2016-07-15 00:38:37.393 STDERR [INFO] I0715 00:38:37.393743 26092 net.cpp:141] Setting up prob
2016-07-15 00:38:37.394 STDERR [INFO] I0715 00:38:37.393777 26092 net.cpp:148] Top shape: 10 1000 (10000)
2016-07-15 00:38:37.394 STDERR [INFO] I0715 00:38:37.393784 26092 net.cpp:156] Memory required for data: 551533440
2016-07-15 00:38:37.394 STDERR [INFO] I0715 00:38:37.393791 26092 net.cpp:219] prob does not need backward computation.
2016-07-15 00:38:37.394 STDERR [INFO] I0715 00:38:37.393798 26092 net.cpp:219] loss3/classifier does not need backward computation.
2016-07-15 00:38:37.394 STDERR [INFO] I0715 00:38:37.393805 26092 net.cpp:219] pool5/drop_7x7_s1 does not need backward computation.
…
