…
2016-07-30 11:07:11.481 STDERR [INFO] I0730 11:07:11.460016 32208 net.cpp:91] Creating Layer input
2016-07-30 11:07:11.481 STDERR [INFO] I0730 11:07:11.460023 32208 net.cpp:399] input -> frames_fc7
2016-07-30 11:07:11.481 STDERR [INFO] I0730 11:07:11.460039 32208 net.cpp:399] input -> cont_sentence
2016-07-30 11:07:11.481 STDERR [INFO] I0730 11:07:11.460052 32208 net.cpp:399] input -> input_sentence
2016-07-30 11:07:11.481 STDERR [INFO] I0730 11:07:11.460062 32208 net.cpp:399] input -> stage_indicator
2016-07-30 11:07:11.481 STDERR [INFO] I0730 11:07:11.461488 32208 net.cpp:141] Setting up input
2016-07-30 11:07:11.482 STDERR [INFO] I0730 11:07:11.461508 32208 net.cpp:148] Top shape: 1 4096 (4096)
2016-07-30 11:07:11.482 STDERR [INFO] I0730 11:07:11.461515 32208 net.cpp:148] Top shape: 1 1 (1)
2016-07-30 11:07:11.482 STDERR [INFO] I0730 11:07:11.461521 32208 net.cpp:148] Top shape: 1 1 (1)
2016-07-30 11:07:11.482 STDERR [INFO] I0730 11:07:11.461529 32208 net.cpp:148] Top shape: 1 1 (1)
2016-07-30 11:07:11.482 STDERR [INFO] I0730 11:07:11.461532 32208 net.cpp:156] Memory required for data: 16396
2016-07-30 11:07:11.482 STDERR [INFO] I0730 11:07:11.461539 32208 layer_factory.hpp:77] Creating layer cont_sentence_input_1_split
2016-07-30 11:07:11.482 STDERR [INFO] I0730 11:07:11.461555 32208 net.cpp:91] Creating Layer cont_sentence_input_1_split
2016-07-30 11:07:11.482 STDERR [INFO] I0730 11:07:11.461561 32208 net.cpp:425] cont_sentence_input_1_split <- cont_sentence
2016-07-30 11:07:11.482 STDERR [INFO] I0730 11:07:11.461585 32208 net.cpp:399] cont_sentence_input_1_split -> cont_sentence_input_1_split_0
2016-07-30 11:07:11.482 STDERR [INFO] I0730 11:07:11.461597 32208 net.cpp:399] cont_sentence_input_1_split -> cont_sentence_input_1_split_1
2016-07-30 11:07:11.482 STDERR [INFO] I0730 11:07:11.461650 32208 net.cpp:141] Setting up cont_sentence_input_1_split
2016-07-30 11:07:11.483 STDERR [INFO] I0730 11:07:11.461663 32208 net.cpp:148] Top shape: 1 1 (1)
2016-07-30 11:07:11.483 STDERR [INFO] I0730 11:07:11.461669 32208 net.cpp:148] Top shape: 1 1 (1)
2016-07-30 11:07:11.483 STDERR [INFO] I0730 11:07:11.461673 32208 net.cpp:156] Memory required for data: 16404
2016-07-30 11:07:11.483 STDERR [INFO] I0730 11:07:11.461678 32208 layer_factory.hpp:77] Creating layer embed_encoder
2016-07-30 11:07:11.483 STDERR [INFO] I0730 11:07:11.461710 32208 net.cpp:91] Creating Layer embed_encoder
2016-07-30 11:07:11.483 STDERR [INFO] I0730 11:07:11.461719 32208 net.cpp:425] embed_encoder <- frames_fc7
2016-07-30 11:07:11.483 STDERR [INFO] I0730 11:07:11.461729 32208 net.cpp:399] embed_encoder -> embedded_in_frames
2016-07-30 11:07:11.486 STDERR [INFO] I0730 11:07:11.486577 32208 net.cpp:141] Setting up embed_encoder
2016-07-30 11:07:11.487 STDERR [INFO] I0730 11:07:11.486632 32208 net.cpp:148] Top shape: 1 500 (500)
2016-07-30 11:07:11.487 STDERR [INFO] I0730 11:07:11.486639 32208 net.cpp:156] Memory required for data: 18404
2016-07-30 11:07:11.487 STDERR [INFO] I0730 11:07:11.486672 32208 layer_factory.hpp:77] Creating layer reshape_frames
2016-07-30 11:07:11.487 STDERR [INFO] I0730 11:07:11.486716 32208 net.cpp:91] Creating Layer reshape_frames
2016-07-30 11:07:11.487 STDERR [INFO] I0730 11:07:11.486726 32208 net.cpp:425] reshape_frames <- embedded_in_frames
2016-07-30 11:07:11.487 STDERR [INFO] I0730 11:07:11.486739 32208 net.cpp:399] reshape_frames -> embedded_input_frames
2016-07-30 11:07:11.487 STDERR [INFO] I0730 11:07:11.486940 32208 net.cpp:141] Setting up reshape_frames
2016-07-30 11:07:11.487 STDERR [INFO] I0730 11:07:11.486953 32208 net.cpp:148] Top shape: 1 1 500 (500)
2016-07-30 11:07:11.488 STDERR [INFO] I0730 11:07:11.486956 32208 net.cpp:156] Memory required for data: 20404
2016-07-30 11:07:11.488 STDERR [INFO] I0730 11:07:11.486961 32208 layer_factory.hpp:77] Creating layer reshape_stage_indicator
2016-07-30 11:07:11.488 STDERR [INFO] I0730 11:07:11.486974 32208 net.cpp:91] Creating Layer reshape_stage_indicator
2016-07-30 11:07:11.488 STDERR [INFO] I0730 11:07:11.486980 32208 net.cpp:425] reshape_stage_indicator <- stage_indicator
2016-07-30 11:07:11.488 STDERR [INFO] I0730 11:07:11.486994 32208 net.cpp:399] reshape_stage_indicator -> reshaped_stage_indicator
2016-07-30 11:07:11.488 STDERR [INFO] I0730 11:07:11.487694 32208 net.cpp:141] Setting up reshape_stage_indicator
2016-07-30 11:07:11.488 STDERR [INFO] I0730 11:07:11.487714 32208 net.cpp:148] Top shape: 1 1 1 (1)
2016-07-30 11:07:11.488 STDERR [INFO] I0730 11:07:11.487718 32208 net.cpp:156] Memory required for data: 20408
2016-07-30 11:07:11.489 STDERR [INFO] I0730 11:07:11.487725 32208 layer_factory.hpp:77] Creating layer embedding
2016-07-30 11:07:11.489 STDERR [INFO] I0730 11:07:11.487740 32208 net.cpp:91] Creating Layer embedding
2016-07-30 11:07:11.489 STDERR [INFO] I0730 11:07:11.487746 32208 net.cpp:425] embedding <- input_sentence
2016-07-30 11:07:11.489 STDERR [INFO] I0730 11:07:11.487756 32208 net.cpp:399] embedding -> embedded_input_sentence
2016-07-30 11:07:11.739 STDERR [INFO] I0730 11:07:11.739641 32208 net.cpp:141] Setting up embedding
2016-07-30 11:07:11.740 STDERR [INFO] I0730 11:07:11.739701 32208 net.cpp:148] Top shape: 1 1 500 (500)
2016-07-30 11:07:11.740 STDERR [INFO] I0730 11:07:11.739707 32208 net.cpp:156] Memory required for data: 22408
2016-07-30 11:07:11.740 STDERR [INFO] I0730 11:07:11.739729 32208 layer_factory.hpp:77] Creating layer lstm1
2016-07-30 11:07:11.741 STDERR [INFO] I0730 11:07:11.739756 32208 net.cpp:91] Creating Layer lstm1
2016-07-30 11:07:11.741 STDERR [INFO] I0730 11:07:11.739765 32208 net.cpp:425] lstm1 <- embedded_input_frames
…
2016-07-30 11:07:11.763 STDERR [INFO] }
2016-07-30 11:07:11.764 STDERR [INFO] I0730 11:07:11.740376 32208 layer_factory.hpp:77] Creating layer lstm1_
2016-07-30 11:07:11.764 STDERR [INFO] I0730 11:07:11.740391 32208 net.cpp:91] Creating Layer lstm1_
2016-07-30 11:07:11.764 STDERR [INFO] I0730 11:07:11.740398 32208 net.cpp:399] lstm1_ -> x
2016-07-30 11:07:11.764 STDERR [INFO] I0730 11:07:11.740412 32208 net.cpp:399] lstm1_ -> cont
2016-07-30 11:07:11.764 STDERR [INFO] I0730 11:07:11.750340 32208 net.cpp:141] Setting up lstm1_
2016-07-30 11:07:11.764 STDERR [INFO] I0730 11:07:11.750360 32208 net.cpp:148] Top shape: 1 1 500 (500)
2016-07-30 11:07:11.764 STDERR [INFO] I0730 11:07:11.750368 32208 net.cpp:148] Top shape: 1 1 (1)
2016-07-30 11:07:11.765 STDERR [INFO] I0730 11:07:11.750372 32208 net.cpp:156] Memory required for data: 2004
2016-07-30 11:07:11.765 STDERR [INFO] I0730 11:07:11.750378 32208 layer_factory.hpp:77] Creating layer lstm1_
2016-07-30 11:07:11.765 STDERR [INFO] I0730 11:07:11.750391 32208 net.cpp:91] Creating Layer lstm1_
2016-07-30 11:07:11.765 STDERR [INFO] I0730 11:07:11.750402 32208 net.cpp:399] lstm1_ -> c_0
2016-07-30 11:07:11.765 STDERR [INFO] I0730 11:07:11.750416 32208 net.cpp:399] lstm1_ -> h_0
2016-07-30 11:07:11.765 STDERR [INFO] I0730 11:07:11.750476 32208 net.cpp:141] Setting up lstm1_
2016-07-30 11:07:11.765 STDERR [INFO] I0730 11:07:11.750488 32208 net.cpp:148] Top shape: 1 1 1000 (1000)
2016-07-30 11:07:11.765 STDERR [INFO] I0730 11:07:11.750494 32208 net.cpp:148] Top shape: 1 1 1000 (1000)
2016-07-30 11:07:11.765 STDERR [INFO] I0730 11:07:11.750497 32208 net.cpp:156] Memory required for data: 10004
2016-07-30 11:07:11.766 STDERR [INFO] I0730 11:07:11.750502 32208 layer_factory.hpp:77] Creating layer lstm1_cont_slice
2016-07-30 11:07:11.766 STDERR [INFO] I0730 11:07:11.750515 32208 net.cpp:91] Creating Layer lstm1_cont_slice
2016-07-30 11:07:11.766 STDERR [INFO] I0730 11:07:11.750520 32208 net.cpp:425] lstm1_cont_slice <- cont
2016-07-30 11:07:11.766 STDERR [INFO] I0730 11:07:11.750531 32208 net.cpp:399] lstm1_cont_slice -> cont_1
2016-07-30 11:07:11.766 STDERR [INFO] I0730 11:07:11.750571 32208 net.cpp:141] Setting up lstm1_cont_slice
2016-07-30 11:07:11.766 STDERR [INFO] I0730 11:07:11.750581 32208 net.cpp:148] Top shape: 1 1 (1)
2016-07-30 11:07:11.766 STDERR [INFO] I0730 11:07:11.750586 32208 net.cpp:156] Memory required for data: 10008
2016-07-30 11:07:11.766 STDERR [INFO] I0730 11:07:11.750591 32208 layer_factory.hpp:77] Creating layer cont_1_lstm1_cont_slice_0_split
2016-07-30 11:07:11.766 STDERR [INFO] I0730 11:07:11.750599 32208 net.cpp:91] Creating Layer cont_1_lstm1_cont_slice_0_split
2016-07-30 11:07:11.767 STDERR [INFO] I0730 11:07:11.750604 32208 net.cpp:425] cont_1_lstm1_cont_slice_0_split <- cont_1
2016-07-30 11:07:11.767 STDERR [INFO] I0730 11:07:11.750614 32208 net.cpp:399] cont_1_lstm1_cont_slice_0_split -> cont_1_lstm1_cont_slice_0_split_0
2016-07-30 11:07:11.767 STDERR [INFO] I0730 11:07:11.750623 32208 net.cpp:399] cont_1_lstm1_cont_slice_0_split -> cont_1_lstm1_cont_slice_0_split_1
2016-07-30 11:07:11.767 STDERR [INFO] I0730 11:07:11.754366 32208 net.cpp:141] Setting up cont_1_lstm1_cont_slice_0_split
2016-07-30 11:07:11.767 STDERR [INFO] I0730 11:07:11.754386 32208 net.cpp:148] Top shape: 1 1 (1)
2016-07-30 11:07:11.767 STDERR [INFO] I0730 11:07:11.754393 32208 net.cpp:148] Top shape: 1 1 (1)
2016-07-30 11:07:11.767 STDERR [INFO] I0730 11:07:11.754397 32208 net.cpp:156] Memory required for data: 10016
2016-07-30 11:07:11.767 STDERR [INFO] I0730 11:07:11.754403 32208 layer_factory.hpp:77] Creating layer lstm1_x_transform
2016-07-30 11:07:11.767 STDERR [INFO] I0730 11:07:11.754416 32208 net.cpp:91] Creating Layer lstm1_x_transform
2016-07-30 11:07:11.768 STDERR [INFO] I0730 11:07:11.754422 32208 net.cpp:425] lstm1_x_transform <- x
2016-07-30 11:07:11.768 STDERR [INFO] I0730 11:07:11.754431 32208 net.cpp:399] lstm1_x_transform -> W_xc_x
2016-07-30 11:07:11.775 STDERR [INFO] I0730 11:07:11.775136 32218 net.cpp:141] Setting up conv1
2016-07-30 11:07:11.775 STDERR [INFO] I0730 11:07:11.775189 32218 net.cpp:148] Top shape: 10 96 55 55 (2904000)
2016-07-30 11:07:11.775 STDERR [INFO] I0730 11:07:11.775197 32218 net.cpp:156] Memory required for data: 17799480
2016-07-30 11:07:11.775 STDERR [INFO] I0730 11:07:11.775223 32218 layer_factory.hpp:77] Creating layer relu1
2016-07-30 11:07:11.776 STDERR [INFO] I0730 11:07:11.775241 32218 net.cpp:91] Creating Layer relu1
2016-07-30 11:07:11.776 STDERR [INFO] I0730 11:07:11.775249 32218 net.cpp:425] relu1 <- conv1
2016-07-30 11:07:11.776 STDERR [INFO] I0730 11:07:11.775256 32218 net.cpp:386] relu1 -> conv1 (in-place)
2016-07-30 11:07:11.776 STDERR [INFO] I0730 11:07:11.776011 32218 net.cpp:141] Setting up relu1
2016-07-30 11:07:11.776 STDERR [INFO] I0730 11:07:11.776026 32218 net.cpp:148] Top shape: 10 96 55 55 (2904000)
2016-07-30 11:07:11.776 STDERR [INFO] I0730 11:07:11.776032 32218 net.cpp:156] Memory required for data: 29415480
2016-07-30 11:07:11.776 STDERR [INFO] I0730 11:07:11.776038 32218 layer_factory.hpp:77] Creating layer pool1
2016-07-30 11:07:11.776 STDERR [INFO] I0730 11:07:11.776051 32218 net.cpp:91] Creating Layer pool1
2016-07-30 11:07:11.776 STDERR [INFO] I0730 11:07:11.776056 32218 net.cpp:425] pool1 <- conv1
2016-07-30 11:07:11.776 STDERR [INFO] I0730 11:07:11.776064 32218 net.cpp:399] pool1 -> pool1
2016-07-30 11:07:11.776 STDERR [INFO] I0730 11:07:11.776135 32218 net.cpp:141] Setting up pool1
2016-07-30 11:07:11.777 STDERR [INFO] I0730 11:07:11.776147 32218 net.cpp:148] Top shape: 10 96 27 27 (699840)
2016-07-30 11:07:11.777 STDERR [INFO] I0730 11:07:11.776152 32218 net.cpp:156] Memory required for data: 32214840
2016-07-30 11:07:11.777 STDERR [INFO] I0730 11:07:11.776157 32218 layer_factory.hpp:77] Creating layer norm1
2016-07-30 11:07:11.777 STDERR [INFO] I0730 11:07:11.776175 32218 net.cpp:91] Creating Layer norm1
2016-07-30 11:07:11.777 STDERR [INFO] I0730 11:07:11.776180 32218 net.cpp:425] norm1 <- pool1
2016-07-30 11:07:11.777 STDERR [INFO] I0730 11:07:11.776187 32218 net.cpp:399] norm1 -> norm1
2016-07-30 11:07:11.777 STDERR [INFO] I0730 11:07:11.777206 32208 net.cpp:141] Setting up lstm1_x_transform
2016-07-30 11:07:11.777 STDERR [INFO] I0730 11:07:11.777248 32208 net.cpp:148] Top shape: 1 1 4000 (4000)
2016-07-30 11:07:11.777 STDERR [INFO] I0730 11:07:11.777254 32208 net.cpp:156] Memory required for data: 26016
2016-07-30 11:07:11.777 STDERR [INFO] I0730 11:07:11.777276 32208 layer_factory.hpp:77] Creating layer lstm1_W_xc_x_slice
2016-07-30 11:07:11.777 STDERR [INFO] I0730 11:07:11.777283 32218 net.cpp:141] Setting up norm1
2016-07-30 11:07:11.778 STDERR [INFO] I0730 11:07:11.777294 32208 net.cpp:91] Creating Layer lstm1_W_xc_x_slice
2016-07-30 11:07:11.778 STDERR [INFO] I0730 11:07:11.777300 32218 net.cpp:148] Top shape: 10 96 27 27 (699840)
2016-07-30 11:07:11.778 STDERR [INFO] I0730 11:07:11.777302 32208 net.cpp:425] lstm1_W_xc_x_slice <- W_xc_x
2016-07-30 11:07:11.778 STDERR [INFO] I0730 11:07:11.777308 32218 net.cpp:156] Memory required for data: 35014200
2016-07-30 11:07:11.778 STDERR [INFO] I0730 11:07:11.777315 32208 net.cpp:399] lstm1_W_xc_x_slice -> W_xc_x_1
2016-07-30 11:07:11.778 STDERR [INFO] I0730 11:07:11.777315 32218 layer_factory.hpp:77] Creating layer conv2
2016-07-30 11:07:11.778 STDERR [INFO] I0730 11:07:11.777346 32218 net.cpp:91] Creating Layer conv2
2016-07-30 11:07:11.778 STDERR [INFO] I0730 11:07:11.777354 32218 net.cpp:425] conv2 <- norm1
2016-07-30 11:07:11.778 STDERR [INFO] I0730 11:07:11.777361 32218 net.cpp:399] conv2 -> conv2
2016-07-30 11:07:11.778 STDERR [INFO] I0730 11:07:11.777384 32208 net.cpp:141] Setting up lstm1_W_xc_x_slice
2016-07-30 11:07:11.778 STDERR [INFO] I0730 11:07:11.777396 32208 net.cpp:148] Top shape: 1 1 4000 (4000)
2016-07-30 11:07:11.778 STDERR [INFO] I0730 11:07:11.777401 32208 net.cpp:156] Memory required for data: 42016
2016-07-30 11:07:11.779 STDERR [INFO] I0730 11:07:11.777406 32208 layer_factory.hpp:77] Creating layer lstm1_h_conted_0
2016-07-30 11:07:11.779 STDERR [INFO] I0730 11:07:11.777417 32208 net.cpp:91] Creating Layer lstm1_h_conted_0
2016-07-30 11:07:11.779 STDERR [INFO] I0730 11:07:11.777423 32208 net.cpp:425] lstm1_h_conted_0 <- h_0
2016-07-30 11:07:11.779 STDERR [INFO] I0730 11:07:11.777431 32208 net.cpp:425] lstm1_h_conted_0 <- cont_1_lstm1_cont_slice_0_split_0
2016-07-30 11:07:11.779 STDERR [INFO] I0730 11:07:11.777437 32208 net.cpp:399] lstm1_h_conted_0 -> h_conted_0
2016-07-30 11:07:11.779 STDERR [INFO] I0730 11:07:11.777719 32208 net.cpp:141] Setting up lstm1_h_conted_0
2016-07-30 11:07:11.779 STDERR [INFO] I0730 11:07:11.777731 32208 net.cpp:148] Top shape: 1 1 1000 (1000)
2016-07-30 11:07:11.779 STDERR [INFO] I0730 11:07:11.777736 32208 net.cpp:156] Memory required for data: 46016
2016-07-30 11:07:11.779 STDERR [INFO] I0730 11:07:11.777742 32208 layer_factory.hpp:77] Creating layer lstm1_transform_1
2016-07-30 11:07:11.779 STDERR [INFO] I0730 11:07:11.777757 32208 net.cpp:91] Creating Layer lstm1_transform_1
2016-07-30 11:07:11.779 STDERR [INFO] I0730 11:07:11.777762 32208 net.cpp:425] lstm1_transform_1 <- h_conted_0
2016-07-30 11:07:11.779 STDERR [INFO] I0730 11:07:11.777771 32208 net.cpp:399] lstm1_transform_1 -> W_hc_h_0
2016-07-30 11:07:11.790 STDERR [INFO] I0730 11:07:11.790820 32218 net.cpp:141] Setting up conv2
2016-07-30 11:07:11.791 STDERR [INFO] I0730 11:07:11.790844 32218 net.cpp:148] Top shape: 10 256 27 27 (1866240)
2016-07-30 11:07:11.791 STDERR [INFO] I0730 11:07:11.790850 32218 net.cpp:156] Memory required for data: 42479160
2016-07-30 11:07:11.791 STDERR [INFO] I0730 11:07:11.790869 32218 layer_factory.hpp:77] Creating layer relu2
2016-07-30 11:07:11.791 STDERR [INFO] I0730 11:07:11.790880 32218 net.cpp:91] Creating Layer relu2
2016-07-30 11:07:11.791 STDERR [INFO] I0730 11:07:11.790886 32218 net.cpp:425] relu2 <- conv2
2016-07-30 11:07:11.791 STDERR [INFO] I0730 11:07:11.790896 32218 net.cpp:386] relu2 -> conv2 (in-place)
2016-07-30 11:07:11.791 STDERR [INFO] I0730 11:07:11.791682 32218 net.cpp:141] Setting up relu2
2016-07-30 11:07:11.791 STDERR [INFO] I0730 11:07:11.791697 32218 net.cpp:148] Top shape: 10 256 27 27 (1866240)
2016-07-30 11:07:11.791 STDERR [INFO] I0730 11:07:11.791702 32218 net.cpp:156] Memory required for data: 49944120
2016-07-30 11:07:11.792 STDERR [INFO] I0730 11:07:11.791710 32218 layer_factory.hpp:77] Creating layer pool2
2016-07-30 11:07:11.792 STDERR [INFO] I0730 11:07:11.791723 32218 net.cpp:91] Creating Layer pool2
2016-07-30 11:07:11.792 STDERR [INFO] I0730 11:07:11.791728 32218 net.cpp:425] pool2 <- conv2
2016-07-30 11:07:11.792 STDERR [INFO] I0730 11:07:11.791736 32218 net.cpp:399] pool2 -> pool2
2016-07-30 11:07:11.792 STDERR [INFO] I0730 11:07:11.791803 32218 net.cpp:141] Setting up pool2
2016-07-30 11:07:11.792 STDERR [INFO] I0730 11:07:11.791815 32218 net.cpp:148] Top shape: 10 256 13 13 (432640)
2016-07-30 11:07:11.792 STDERR [INFO] I0730 11:07:11.791818 32218 net.cpp:156] Memory required for data: 51674680
2016-07-30 11:07:11.793 STDERR [INFO] I0730 11:07:11.791823 32218 layer_factory.hpp:77] Creating layer norm2
2016-07-30 11:07:11.793 STDERR [INFO] I0730 11:07:11.791834 32218 net.cpp:91] Creating Layer norm2
2016-07-30 11:07:11.793 STDERR [INFO] I0730 11:07:11.791839 32218 net.cpp:425] norm2 <- pool2
2016-07-30 11:07:11.793 STDERR [INFO] I0730 11:07:11.791851 32218 net.cpp:399] norm2 -> norm2
2016-07-30 11:07:11.793 STDERR [INFO] I0730 11:07:11.792135 32218 net.cpp:141] Setting up norm2
2016-07-30 11:07:11.793 STDERR [INFO] I0730 11:07:11.792146 32218 net.cpp:148] Top shape: 10 256 13 13 (432640)
2016-07-30 11:07:11.793 STDERR [INFO] I0730 11:07:11.792151 32218 net.cpp:156] Memory required for data: 53405240
2016-07-30 11:07:11.793 STDERR [INFO] I0730 11:07:11.792157 32218 layer_factory.hpp:77] Creating layer conv3
2016-07-30 11:07:11.794 STDERR [INFO] I0730 11:07:11.792168 32218 net.cpp:91] Creating Layer conv3
2016-07-30 11:07:11.794 STDERR [INFO] I0730 11:07:11.792174 32218 net.cpp:425] conv3 <- norm2
2016-07-30 11:07:11.794 STDERR [INFO] I0730 11:07:11.792186 32218 net.cpp:399] conv3 -> conv3
2016-07-30 11:07:11.797 STDERR [INFO] I0730 11:07:11.797639 32218 net.cpp:141] Setting up conv3
2016-07-30 11:07:11.798 STDERR [INFO] I0730 11:07:11.797667 32218 net.cpp:148] Top shape: 10 384 13 13 (648960)
2016-07-30 11:07:11.798 STDERR [INFO] I0730 11:07:11.797673 32218 net.cpp:156] Memory required for data: 56001080
2016-07-30 11:07:11.798 STDERR [INFO] I0730 11:07:11.797693 32218 layer_factory.hpp:77] Creating layer relu3
2016-07-30 11:07:11.799 STDERR [INFO] I0730 11:07:11.797704 32218 net.cpp:91] Creating Layer relu3
2016-07-30 11:07:11.799 STDERR [INFO] I0730 11:07:11.797710 32218 net.cpp:425] relu3 <- conv3
2016-07-30 11:07:11.799 STDERR [INFO] I0730 11:07:11.797720 32218 net.cpp:386] relu3 -> conv3 (in-place)
2016-07-30 11:07:11.799 STDERR [INFO] I0730 11:07:11.798785 32218 net.cpp:141] Setting up relu3
2016-07-30 11:07:11.799 STDERR [INFO] I0730 11:07:11.798809 32218 net.cpp:148] Top shape: 10 384 13 13 (648960)
2016-07-30 11:07:11.800 STDERR [INFO] I0730 11:07:11.798817 32218 net.cpp:156] Memory required for data: 58596920
2016-07-30 11:07:11.800 STDERR [INFO] I0730 11:07:11.798826 32218 layer_factory.hpp:77] Creating layer conv4
2016-07-30 11:07:11.800 STDERR [INFO] I0730 11:07:11.798854 32218 net.cpp:91] Creating Layer conv4
2016-07-30 11:07:11.800 STDERR [INFO] I0730 11:07:11.798864 32218 net.cpp:425] conv4 <- conv3
2016-07-30 11:07:11.800 STDERR [INFO] I0730 11:07:11.798877 32218 net.cpp:399] conv4 -> conv4
2016-07-30 11:07:11.805 STDERR [INFO] I0730 11:07:11.804891 32218 net.cpp:141] Setting up conv4
2016-07-30 11:07:11.805 STDERR [INFO] I0730 11:07:11.804919 32218 net.cpp:148] Top shape: 10 384 13 13 (648960)
2016-07-30 11:07:11.805 STDERR [INFO] I0730 11:07:11.804924 32218 net.cpp:156] Memory required for data: 61192760
2016-07-30 11:07:11.805 STDERR [INFO] I0730 11:07:11.804936 32218 layer_factory.hpp:77] Creating layer relu4
2016-07-30 11:07:11.805 STDERR [INFO] I0730 11:07:11.804950 32218 net.cpp:91] Creating Layer relu4
2016-07-30 11:07:11.805 STDERR [INFO] I0730 11:07:11.804956 32218 net.cpp:425] relu4 <- conv4
2016-07-30 11:07:11.805 STDERR [INFO] I0730 11:07:11.804968 32218 net.cpp:386] relu4 -> conv4 (in-place)
2016-07-30 11:07:11.805 STDERR [INFO] I0730 11:07:11.805763 32218 net.cpp:141] Setting up relu4
2016-07-30 11:07:11.805 STDERR [INFO] I0730 11:07:11.805778 32218 net.cpp:148] Top shape: 10 384 13 13 (648960)
2016-07-30 11:07:11.805 STDERR [INFO] I0730 11:07:11.805783 32218 net.cpp:156] Memory required for data: 63788600
2016-07-30 11:07:11.806 STDERR [INFO] I0730 11:07:11.805788 32218 layer_factory.hpp:77] Creating layer conv5
2016-07-30 11:07:11.806 STDERR [INFO] I0730 11:07:11.805809 32218 net.cpp:91] Creating Layer conv5
2016-07-30 11:07:11.806 STDERR [INFO] I0730 11:07:11.805815 32218 net.cpp:425] conv5 <- conv4
2016-07-30 11:07:11.806 STDERR [INFO] I0730 11:07:11.805826 32218 net.cpp:399] conv5 -> conv5
2016-07-30 11:07:11.812 STDERR [INFO] I0730 11:07:11.812008 32218 net.cpp:141] Setting up conv5
2016-07-30 11:07:11.812 STDERR [INFO] I0730 11:07:11.812036 32218 net.cpp:148] Top shape: 10 256 13 13 (432640)
2016-07-30 11:07:11.812 STDERR [INFO] I0730 11:07:11.812042 32218 net.cpp:156] Memory required for data: 65519160
2016-07-30 11:07:11.812 STDERR [INFO] I0730 11:07:11.812059 32218 layer_factory.hpp:77] Creating layer relu5
2016-07-30 11:07:11.812 STDERR [INFO] I0730 11:07:11.812070 32218 net.cpp:91] Creating Layer relu5
2016-07-30 11:07:11.812 STDERR [INFO] I0730 11:07:11.812077 32218 net.cpp:425] relu5 <- conv5
2016-07-30 11:07:11.812 STDERR [INFO] I0730 11:07:11.812088 32218 net.cpp:386] relu5 -> conv5 (in-place)
2016-07-30 11:07:11.812 STDERR [INFO] I0730 11:07:11.812899 32218 net.cpp:141] Setting up relu5
2016-07-30 11:07:11.813 STDERR [INFO] I0730 11:07:11.812917 32218 net.cpp:148] Top shape: 10 256 13 13 (432640)
2016-07-30 11:07:11.813 STDERR [INFO] I0730 11:07:11.812922 32218 net.cpp:156] Memory required for data: 67249720
2016-07-30 11:07:11.813 STDERR [INFO] I0730 11:07:11.812928 32218 layer_factory.hpp:77] Creating layer pool5
2016-07-30 11:07:11.813 STDERR [INFO] I0730 11:07:11.812942 32218 net.cpp:91] Creating Layer pool5
2016-07-30 11:07:11.813 STDERR [INFO] I0730 11:07:11.812948 32218 net.cpp:425] pool5 <- conv5
2016-07-30 11:07:11.813 STDERR [INFO] I0730 11:07:11.812957 32218 net.cpp:399] pool5 -> pool5
2016-07-30 11:07:11.813 STDERR [INFO] I0730 11:07:11.813029 32218 net.cpp:141] Setting up pool5
2016-07-30 11:07:11.813 STDERR [INFO] I0730 11:07:11.813045 32218 net.cpp:148] Top shape: 10 256 6 6 (92160)
2016-07-30 11:07:11.813 STDERR [INFO] I0730 11:07:11.813055 32218 net.cpp:156] Memory required for data: 67618360
2016-07-30 11:07:11.813 STDERR [INFO] I0730 11:07:11.813065 32218 layer_factory.hpp:77] Creating layer fc6
2016-07-30 11:07:11.813 STDERR [INFO] I0730 11:07:11.813081 32218 net.cpp:91] Creating Layer fc6
2016-07-30 11:07:11.814 STDERR [INFO] I0730 11:07:11.813086 32218 net.cpp:425] fc6 <- pool5
2016-07-30 11:07:11.814 STDERR [INFO] I0730 11:07:11.813093 32218 net.cpp:399] fc6 -> fc6
2016-07-30 11:07:11.883 STDERR [INFO] I0730 11:07:11.882766 32208 net.cpp:141] Setting up lstm1_transform_1
2016-07-30 11:07:11.883 STDERR [INFO] I0730 11:07:11.882830 32208 net.cpp:148] Top shape: 1 1 4000 (4000)
2016-07-30 11:07:11.883 STDERR [INFO] I0730 11:07:11.882838 32208 net.cpp:156] Memory required for data: 62016
2016-07-30 11:07:11.883 STDERR [INFO] I0730 11:07:11.882866 32208 layer_factory.hpp:77] Creating layer lstm1_gate_input_1
2016-07-30 11:07:11.883 STDERR [INFO] I0730 11:07:11.882905 32208 net.cpp:91] Creating Layer lstm1_gate_input_1
2016-07-30 11:07:11.883 STDERR [INFO] I0730 11:07:11.882915 32208 net.cpp:425] lstm1_gate_input_1 <- W_hc_h_0
2016-07-30 11:07:11.883 STDERR [INFO] I0730 11:07:11.882925 32208 net.cpp:425] lstm1_gate_input_1 <- W_xc_x_1
2016-07-30 11:07:11.884 STDERR [INFO] I0730 11:07:11.882935 32208 net.cpp:399] lstm1_gate_input_1 -> gate_input_1
2016-07-30 11:07:11.884 STDERR [INFO] I0730 11:07:11.883015 32208 net.cpp:141] Setting up lstm1_gate_input_1
2016-07-30 11:07:11.884 STDERR [INFO] I0730 11:07:11.883026 32208 net.cpp:148] Top shape: 1 1 4000 (4000)
2016-07-30 11:07:11.884 STDERR [INFO] I0730 11:07:11.883031 32208 net.cpp:156] Memory required for data: 78016
2016-07-30 11:07:11.884 STDERR [INFO] I0730 11:07:11.883036 32208 layer_factory.hpp:77] Creating layer lstm1_unit_1
2016-07-30 11:07:11.884 STDERR [INFO] I0730 11:07:11.883046 32208 net.cpp:91] Creating Layer lstm1_unit_1
2016-07-30 11:07:11.884 STDERR [INFO] I0730 11:07:11.883051 32208 net.cpp:425] lstm1_unit_1 <- c_0
2016-07-30 11:07:11.884 STDERR [INFO] I0730 11:07:11.883059 32208 net.cpp:425] lstm1_unit_1 <- gate_input_1
2016-07-30 11:07:11.885 STDERR [INFO] I0730 11:07:11.883064 32208 net.cpp:425] lstm1_unit_1 <- cont_1_lstm1_cont_slice_0_split_1
2016-07-30 11:07:11.885 STDERR [INFO] I0730 11:07:11.883072 32208 net.cpp:399] lstm1_unit_1 -> c_1
2016-07-30 11:07:11.885 STDERR [INFO] I0730 11:07:11.883082 32208 net.cpp:399] lstm1_unit_1 -> h_1
2016-07-30 11:07:11.885 STDERR [INFO] I0730 11:07:11.883152 32208 net.cpp:141] Setting up lstm1_unit_1
2016-07-30 11:07:11.885 STDERR [INFO] I0730 11:07:11.883162 32208 net.cpp:148] Top shape: 1 1 1000 (1000)
2016-07-30 11:07:11.885 STDERR [INFO] I0730 11:07:11.883168 32208 net.cpp:148] Top shape: 1 1 1000 (1000)
2016-07-30 11:07:11.885 STDERR [INFO] I0730 11:07:11.883172 32208 net.cpp:156] Memory required for data: 86016
2016-07-30 11:07:11.885 STDERR [INFO] I0730 11:07:11.883177 32208 layer_factory.hpp:77] Creating layer lstm1_
2016-07-30 11:07:11.885 STDERR [INFO] I0730 11:07:11.883189 32208 net.cpp:91] Creating Layer lstm1_
2016-07-30 11:07:11.885 STDERR [INFO] I0730 11:07:11.883194 32208 net.cpp:425] lstm1_ <- c_1
2016-07-30 11:07:11.885 STDERR [INFO] I0730 11:07:11.883201 32208 net.cpp:399] lstm1_ -> c_T
2016-07-30 11:07:11.885 STDERR [INFO] I0730 11:07:11.883235 32208 net.cpp:141] Setting up lstm1_
2016-07-30 11:07:11.886 STDERR [INFO] I0730 11:07:11.883244 32208 net.cpp:148] Top shape: 1 1 1000 (1000)
2016-07-30 11:07:11.886 STDERR [INFO] I0730 11:07:11.883249 32208 net.cpp:156] Memory required for data: 90016
2016-07-30 11:07:11.886 STDERR [INFO] I0730 11:07:11.883255 32208 layer_factory.hpp:77] Creating layer lstm1_h_concat
2016-07-30 11:07:11.886 STDERR [INFO] I0730 11:07:11.883268 32208 net.cpp:91] Creating Layer lstm1_h_concat
2016-07-30 11:07:11.886 STDERR [INFO] I0730 11:07:11.883275 32208 net.cpp:425] lstm1_h_concat <- h_1
2016-07-30 11:07:11.886 STDERR [INFO] I0730 11:07:11.883281 32208 net.cpp:399] lstm1_h_concat -> h
2016-07-30 11:07:11.886 STDERR [INFO] I0730 11:07:11.883333 32208 net.cpp:141] Setting up lstm1_h_concat
2016-07-30 11:07:11.886 STDERR [INFO] I0730 11:07:11.883343 32208 net.cpp:148] Top shape: 1 1 1000 (1000)
2016-07-30 11:07:11.886 STDERR [INFO] I0730 11:07:11.883347 32208 net.cpp:156] Memory required for data: 94016
2016-07-30 11:07:11.886 STDERR [INFO] I0730 11:07:11.883352 32208 layer_factory.hpp:77] Creating layer h_pseudoloss
2016-07-30 11:07:11.886 STDERR [INFO] I0730 11:07:11.883368 32208 net.cpp:91] Creating Layer h_pseudoloss
2016-07-30 11:07:11.886 STDERR [INFO] I0730 11:07:11.883373 32208 net.cpp:425] h_pseudoloss <- h
…
2016-07-30 11:07:11.901 STDERR [INFO] }
2016-07-30 11:07:11.902 STDERR [INFO] I0730 11:07:11.884426 32208 layer_factory.hpp:77] Creating layer lstm2_
2016-07-30 11:07:11.902 STDERR [INFO] I0730 11:07:11.884440 32208 net.cpp:91] Creating Layer lstm2_
2016-07-30 11:07:11.902 STDERR [INFO] I0730 11:07:11.884448 32208 net.cpp:399] lstm2_ -> x
2016-07-30 11:07:11.902 STDERR [INFO] I0730 11:07:11.884459 32208 net.cpp:399] lstm2_ -> cont
2016-07-30 11:07:11.902 STDERR [INFO] I0730 11:07:11.884526 32208 net.cpp:141] Setting up lstm2_
2016-07-30 11:07:11.902 STDERR [INFO] I0730 11:07:11.884536 32208 net.cpp:148] Top shape: 1 1 1501 (1501)
2016-07-30 11:07:11.902 STDERR [INFO] I0730 11:07:11.884543 32208 net.cpp:148] Top shape: 1 1 (1)
2016-07-30 11:07:11.902 STDERR [INFO] I0730 11:07:11.884547 32208 net.cpp:156] Memory required for data: 6008
2016-07-30 11:07:11.902 STDERR [INFO] I0730 11:07:11.884553 32208 layer_factory.hpp:77] Creating layer lstm2_
2016-07-30 11:07:11.903 STDERR [INFO] I0730 11:07:11.884562 32208 net.cpp:91] Creating Layer lstm2_
2016-07-30 11:07:11.903 STDERR [INFO] I0730 11:07:11.884568 32208 net.cpp:399] lstm2_ -> c_0
2016-07-30 11:07:11.903 STDERR [INFO] I0730 11:07:11.884579 32208 net.cpp:399] lstm2_ -> h_0
2016-07-30 11:07:11.903 STDERR [INFO] I0730 11:07:11.884632 32208 net.cpp:141] Setting up lstm2_
2016-07-30 11:07:11.903 STDERR [INFO] I0730 11:07:11.884641 32208 net.cpp:148] Top shape: 1 1 1000 (1000)
2016-07-30 11:07:11.903 STDERR [INFO] I0730 11:07:11.884649 32208 net.cpp:148] Top shape: 1 1 1000 (1000)
2016-07-30 11:07:11.904 STDERR [INFO] I0730 11:07:11.884652 32208 net.cpp:156] Memory required for data: 14008
2016-07-30 11:07:11.904 STDERR [INFO] I0730 11:07:11.884656 32208 layer_factory.hpp:77] Creating layer lstm2_cont_slice
2016-07-30 11:07:11.904 STDERR [INFO] I0730 11:07:11.884665 32208 net.cpp:91] Creating Layer lstm2_cont_slice
2016-07-30 11:07:11.904 STDERR [INFO] I0730 11:07:11.884670 32208 net.cpp:425] lstm2_cont_slice <- cont
2016-07-30 11:07:11.904 STDERR [INFO] I0730 11:07:11.884678 32208 net.cpp:399] lstm2_cont_slice -> cont_1
2016-07-30 11:07:11.904 STDERR [INFO] I0730 11:07:11.884716 32208 net.cpp:141] Setting up lstm2_cont_slice
2016-07-30 11:07:11.904 STDERR [INFO] I0730 11:07:11.884727 32208 net.cpp:148] Top shape: 1 1 (1)
2016-07-30 11:07:11.904 STDERR [INFO] I0730 11:07:11.884732 32208 net.cpp:156] Memory required for data: 14012
2016-07-30 11:07:11.904 STDERR [INFO] I0730 11:07:11.884737 32208 layer_factory.hpp:77] Creating layer cont_1_lstm2_cont_slice_0_split
2016-07-30 11:07:11.904 STDERR [INFO] I0730 11:07:11.884747 32208 net.cpp:91] Creating Layer cont_1_lstm2_cont_slice_0_split
2016-07-30 11:07:11.904 STDERR [INFO] I0730 11:07:11.884752 32208 net.cpp:425] cont_1_lstm2_cont_slice_0_split <- cont_1
2016-07-30 11:07:11.904 STDERR [INFO] I0730 11:07:11.884758 32208 net.cpp:399] cont_1_lstm2_cont_slice_0_split -> cont_1_lstm2_cont_slice_0_split_0
2016-07-30 11:07:11.904 STDERR [INFO] I0730 11:07:11.884768 32208 net.cpp:399] cont_1_lstm2_cont_slice_0_split -> cont_1_lstm2_cont_slice_0_split_1
2016-07-30 11:07:11.905 STDERR [INFO] I0730 11:07:11.884820 32208 net.cpp:141] Setting up cont_1_lstm2_cont_slice_0_split
2016-07-30 11:07:11.905 STDERR [INFO] I0730 11:07:11.884829 32208 net.cpp:148] Top shape: 1 1 (1)
2016-07-30 11:07:11.905 STDERR [INFO] I0730 11:07:11.884835 32208 net.cpp:148] Top shape: 1 1 (1)
2016-07-30 11:07:11.905 STDERR [INFO] I0730 11:07:11.884840 32208 net.cpp:156] Memory required for data: 14020
2016-07-30 11:07:11.905 STDERR [INFO] I0730 11:07:11.884845 32208 layer_factory.hpp:77] Creating layer lstm2_x_transform
2016-07-30 11:07:11.905 STDERR [INFO] I0730 11:07:11.884855 32208 net.cpp:91] Creating Layer lstm2_x_transform
2016-07-30 11:07:11.905 STDERR [INFO] I0730 11:07:11.884860 32208 net.cpp:425] lstm2_x_transform <- x
2016-07-30 11:07:11.905 STDERR [INFO] I0730 11:07:11.884871 32208 net.cpp:399] lstm2_x_transform -> W_xc_x
2016-07-30 11:07:11.924 STDERR [INFO] I0730 11:07:11.924343 32218 net.cpp:141] Setting up fc6
2016-07-30 11:07:11.924 STDERR [INFO] I0730 11:07:11.924391 32218 net.cpp:148] Top shape: 10 4096 (40960)
2016-07-30 11:07:11.925 STDERR [INFO] I0730 11:07:11.924397 32218 net.cpp:156] Memory required for data: 67782200
2016-07-30 11:07:11.925 STDERR [INFO] I0730 11:07:11.924412 32218 layer_factory.hpp:77] Creating layer relu6
2016-07-30 11:07:11.925 STDERR [INFO] I0730 11:07:11.924437 32218 net.cpp:91] Creating Layer relu6
2016-07-30 11:07:11.925 STDERR [INFO] I0730 11:07:11.924445 32218 net.cpp:425] relu6 <- fc6
2016-07-30 11:07:11.925 STDERR [INFO] I0730 11:07:11.924455 32218 net.cpp:386] relu6 -> fc6 (in-place)
2016-07-30 11:07:11.925 STDERR [INFO] I0730 11:07:11.924805 32218 net.cpp:141] Setting up relu6
2016-07-30 11:07:11.925 STDERR [INFO] I0730 11:07:11.924818 32218 net.cpp:148] Top shape: 10 4096 (40960)
2016-07-30 11:07:11.925 STDERR [INFO] I0730 11:07:11.924823 32218 net.cpp:156] Memory required for data: 67946040
2016-07-30 11:07:11.925 STDERR [INFO] I0730 11:07:11.924829 32218 layer_factory.hpp:77] Creating layer drop6
2016-07-30 11:07:11.925 STDERR [INFO] I0730 11:07:11.924840 32218 net.cpp:91] Creating Layer drop6
2016-07-30 11:07:11.925 STDERR [INFO] I0730 11:07:11.924845 32218 net.cpp:425] drop6 <- fc6
2016-07-30 11:07:11.925 STDERR [INFO] I0730 11:07:11.924860 32218 net.cpp:386] drop6 -> fc6 (in-place)
2016-07-30 11:07:11.926 STDERR [INFO] I0730 11:07:11.924916 32218 net.cpp:141] Setting up drop6
2016-07-30 11:07:11.926 STDERR [INFO] I0730 11:07:11.924926 32218 net.cpp:148] Top shape: 10 4096 (40960)
2016-07-30 11:07:11.926 STDERR [INFO] I0730 11:07:11.924931 32218 net.cpp:156] Memory required for data: 68109880
2016-07-30 11:07:11.926 STDERR [INFO] I0730 11:07:11.924935 32218 layer_factory.hpp:77] Creating layer fc7
2016-07-30 11:07:11.926 STDERR [INFO] I0730 11:07:11.924947 32218 net.cpp:91] Creating Layer fc7
2016-07-30 11:07:11.926 STDERR [INFO] I0730 11:07:11.924952 32218 net.cpp:425] fc7 <- fc6
2016-07-30 11:07:11.926 STDERR [INFO] I0730 11:07:11.924958 32218 net.cpp:399] fc7 -> fc7
2016-07-30 11:07:11.957 STDERR [INFO] I0730 11:07:11.956710 32208 net.cpp:141] Setting up lstm2_x_transform
2016-07-30 11:07:11.957 STDERR [INFO] I0730 11:07:11.956774 32208 net.cpp:148] Top shape: 1 1 4000 (4000)
2016-07-30 11:07:11.957 STDERR [INFO] I0730 11:07:11.956781 32208 net.cpp:156] Memory required for data: 30020
2016-07-30 11:07:11.957 STDERR [INFO] I0730 11:07:11.956809 32208 layer_factory.hpp:77] Creating layer lstm2_W_xc_x_slice
2016-07-30 11:07:11.957 STDERR [INFO] I0730 11:07:11.956828 32208 net.cpp:91] Creating Layer lstm2_W_xc_x_slice
2016-07-30 11:07:11.957 STDERR [INFO] I0730 11:07:11.956836 32208 net.cpp:425] lstm2_W_xc_x_slice <- W_xc_x
2016-07-30 11:07:11.957 STDERR [INFO] I0730 11:07:11.956848 32208 net.cpp:399] lstm2_W_xc_x_slice -> W_xc_x_1
2016-07-30 11:07:11.957 STDERR [INFO] I0730 11:07:11.956903 32208 net.cpp:141] Setting up lstm2_W_xc_x_slice
2016-07-30 11:07:11.958 STDERR [INFO] I0730 11:07:11.956915 32208 net.cpp:148] Top shape: 1 1 4000 (4000)
2016-07-30 11:07:11.958 STDERR [INFO] I0730 11:07:11.956920 32208 net.cpp:156] Memory required for data: 46020
2016-07-30 11:07:11.958 STDERR [INFO] I0730 11:07:11.956925 32208 layer_factory.hpp:77] Creating layer lstm2_h_conted_0
2016-07-30 11:07:11.958 STDERR [INFO] I0730 11:07:11.956936 32208 net.cpp:91] Creating Layer lstm2_h_conted_0
2016-07-30 11:07:11.958 STDERR [INFO] I0730 11:07:11.956943 32208 net.cpp:425] lstm2_h_conted_0 <- h_0
2016-07-30 11:07:11.958 STDERR [INFO] I0730 11:07:11.956949 32208 net.cpp:425] lstm2_h_conted_0 <- cont_1_lstm2_cont_slice_0_split_0
2016-07-30 11:07:11.958 STDERR [INFO] I0730 11:07:11.956957 32208 net.cpp:399] lstm2_h_conted_0 -> h_conted_0
2016-07-30 11:07:11.958 STDERR [INFO] I0730 11:07:11.957062 32208 net.cpp:141] Setting up lstm2_h_conted_0
2016-07-30 11:07:11.958 STDERR [INFO] I0730 11:07:11.957072 32208 net.cpp:148] Top shape: 1 1 1000 (1000)
2016-07-30 11:07:11.958 STDERR [INFO] I0730 11:07:11.957077 32208 net.cpp:156] Memory required for data: 50020
2016-07-30 11:07:11.958 STDERR [INFO] I0730 11:07:11.957082 32208 layer_factory.hpp:77] Creating layer lstm2_transform_1
2016-07-30 11:07:11.958 STDERR [INFO] I0730 11:07:11.957096 32208 net.cpp:91] Creating Layer lstm2_transform_1
2016-07-30 11:07:11.959 STDERR [INFO] I0730 11:07:11.957103 32208 net.cpp:425] lstm2_transform_1 <- h_conted_0
2016-07-30 11:07:11.959 STDERR [INFO] I0730 11:07:11.957110 32208 net.cpp:399] lstm2_transform_1 -> W_hc_h_0
2016-07-30 11:07:11.976 STDERR [INFO] I0730 11:07:11.976307 32218 net.cpp:141] Setting up fc7
2016-07-30 11:07:11.976 STDERR [INFO] I0730 11:07:11.976358 32218 net.cpp:148] Top shape: 10 4096 (40960)
2016-07-30 11:07:11.977 STDERR [INFO] I0730 11:07:11.976366 32218 net.cpp:156] Memory required for data: 68273720
2016-07-30 11:07:11.977 STDERR [INFO] I0730 11:07:11.976382 32218 layer_factory.hpp:77] Creating layer relu7
2016-07-30 11:07:11.977 STDERR [INFO] I0730 11:07:11.976405 32218 net.cpp:91] Creating Layer relu7
2016-07-30 11:07:11.977 STDERR [INFO] I0730 11:07:11.976413 32218 net.cpp:425] relu7 <- fc7
2016-07-30 11:07:11.977 STDERR [INFO] I0730 11:07:11.976423 32218 net.cpp:386] relu7 -> fc7 (in-place)
2016-07-30 11:07:11.978 STDERR [INFO] I0730 11:07:11.977990 32218 net.cpp:141] Setting up relu7
2016-07-30 11:07:11.978 STDERR [INFO] I0730 11:07:11.978009 32218 net.cpp:148] Top shape: 10 4096 (40960)
2016-07-30 11:07:11.978 STDERR [INFO] I0730 11:07:11.978015 32218 net.cpp:156] Memory required for data: 68437560
2016-07-30 11:07:11.978 STDERR [INFO] I0730 11:07:11.978020 32218 layer_factory.hpp:77] Creating layer drop7
2016-07-30 11:07:11.978 STDERR [INFO] I0730 11:07:11.978037 32218 net.cpp:91] Creating Layer drop7
2016-07-30 11:07:11.978 STDERR [INFO] I0730 11:07:11.978044 32218 net.cpp:425] drop7 <- fc7
2016-07-30 11:07:11.978 STDERR [INFO] I0730 11:07:11.978051 32218 net.cpp:386] drop7 -> fc7 (in-place)
2016-07-30 11:07:11.978 STDERR [INFO] I0730 11:07:11.978101 32218 net.cpp:141] Setting up drop7
2016-07-30 11:07:11.978 STDERR [INFO] I0730 11:07:11.978111 32218 net.cpp:148] Top shape: 10 4096 (40960)
2016-07-30 11:07:11.979 STDERR [INFO] I0730 11:07:11.978116 32218 net.cpp:156] Memory required for data: 68601400
2016-07-30 11:07:11.979 STDERR [INFO] I0730 11:07:11.978119 32218 layer_factory.hpp:77] Creating layer fc8
2016-07-30 11:07:11.979 STDERR [INFO] I0730 11:07:11.978130 32218 net.cpp:91] Creating Layer fc8
2016-07-30 11:07:11.979 STDERR [INFO] I0730 11:07:11.978135 32218 net.cpp:425] fc8 <- fc7
2016-07-30 11:07:11.979 STDERR [INFO] I0730 11:07:11.978150 32218 net.cpp:399] fc8 -> fc8
2016-07-30 11:07:11.991 STDERR [INFO] I0730 11:07:11.991492 32218 net.cpp:141] Setting up fc8
2016-07-30 11:07:11.992 STDERR [INFO] I0730 11:07:11.991539 32218 net.cpp:148] Top shape: 10 1000 (10000)
2016-07-30 11:07:11.992 STDERR [INFO] I0730 11:07:11.991545 32218 net.cpp:156] Memory required for data: 68641400
2016-07-30 11:07:11.992 STDERR [INFO] I0730 11:07:11.991560 32218 layer_factory.hpp:77] Creating layer prob
2016-07-30 11:07:11.992 STDERR [INFO] I0730 11:07:11.991585 32218 net.cpp:91] Creating Layer prob
2016-07-30 11:07:11.992 STDERR [INFO] I0730 11:07:11.991592 32218 net.cpp:425] prob <- fc8
2016-07-30 11:07:11.992 STDERR [INFO] I0730 11:07:11.991603 32218 net.cpp:399] prob -> prob
2016-07-30 11:07:11.992 STDERR [INFO] I0730 11:07:11.992054 32218 net.cpp:141] Setting up prob
2016-07-30 11:07:11.992 STDERR [INFO] I0730 11:07:11.992068 32218 net.cpp:148] Top shape: 10 1000 (10000)
2016-07-30 11:07:11.992 STDERR [INFO] I0730 11:07:11.992072 32218 net.cpp:156] Memory required for data: 68681400
2016-07-30 11:07:11.992 STDERR [INFO] I0730 11:07:11.992079 32218 net.cpp:219] prob does not need backward computation.
2016-07-30 11:07:11.993 STDERR [INFO] I0730 11:07:11.992084 32218 net.cpp:219] fc8 does not need backward computation.
2016-07-30 11:07:11.993 STDERR [INFO] I0730 11:07:11.992089 32218 net.cpp:219] drop7 does not need backward computation.
…
2016-07-30 11:07:11.994 STDERR [INFO] I0730 11:07:11.992182 32218 net.cpp:219] conv1 does not need backward computation.
2016-07-30 11:07:11.994 STDERR [INFO] I0730 11:07:11.992187 32218 net.cpp:219] data does not need backward computation.
2016-07-30 11:07:11.994 STDERR [INFO] I0730 11:07:11.992192 32218 net.cpp:261] This network produces output prob
2016-07-30 11:07:11.994 STDERR [INFO] I0730 11:07:11.992211 32218 net.cpp:274] Network initialization done.
2016-07-30 11:07:12.000 STDERR [INFO] I0730 11:07:12.000516 32208 net.cpp:141] Setting up lstm2_transform_1
2016-07-30 11:07:12.001 STDERR [INFO] I0730 11:07:12.000579 32208 net.cpp:148] Top shape: 1 1 4000 (4000)
2016-07-30 11:07:12.001 STDERR [INFO] I0730 11:07:12.000586 32208 net.cpp:156] Memory required for data: 66020
2016-07-30 11:07:12.001 STDERR [INFO] I0730 11:07:12.000610 32208 layer_factory.hpp:77] Creating layer lstm2_gate_input_1
2016-07-30 11:07:12.001 STDERR [INFO] I0730 11:07:12.000633 32208 net.cpp:91] Creating Layer lstm2_gate_input_1
2016-07-30 11:07:12.001 STDERR [INFO] I0730 11:07:12.000641 32208 net.cpp:425] lstm2_gate_input_1 <- W_hc_h_0
2016-07-30 11:07:12.001 STDERR [INFO] I0730 11:07:12.000651 32208 net.cpp:425] lstm2_gate_input_1 <- W_xc_x_1
2016-07-30 11:07:12.001 STDERR [INFO] I0730 11:07:12.000660 32208 net.cpp:399] lstm2_gate_input_1 -> gate_input_1
2016-07-30 11:07:12.001 STDERR [INFO] I0730 11:07:12.000718 32208 net.cpp:141] Setting up lstm2_gate_input_1
2016-07-30 11:07:12.001 STDERR [INFO] I0730 11:07:12.000728 32208 net.cpp:148] Top shape: 1 1 4000 (4000)
2016-07-30 11:07:12.002 STDERR [INFO] I0730 11:07:12.000732 32208 net.cpp:156] Memory required for data: 82020
2016-07-30 11:07:12.002 STDERR [INFO] I0730 11:07:12.000737 32208 layer_factory.hpp:77] Creating layer lstm2_unit_1
2016-07-30 11:07:12.002 STDERR [INFO] I0730 11:07:12.000749 32208 net.cpp:91] Creating Layer lstm2_unit_1
2016-07-30 11:07:12.002 STDERR [INFO] I0730 11:07:12.000756 32208 net.cpp:425] lstm2_unit_1 <- c_0
2016-07-30 11:07:12.002 STDERR [INFO] I0730 11:07:12.000761 32208 net.cpp:425] lstm2_unit_1 <- gate_input_1
2016-07-30 11:07:12.002 STDERR [INFO] I0730 11:07:12.000767 32208 net.cpp:425] lstm2_unit_1 <- cont_1_lstm2_cont_slice_0_split_1
2016-07-30 11:07:12.002 STDERR [INFO] I0730 11:07:12.000776 32208 net.cpp:399] lstm2_unit_1 -> c_1
2016-07-30 11:07:12.002 STDERR [INFO] I0730 11:07:12.000784 32208 net.cpp:399] lstm2_unit_1 -> h_1
2016-07-30 11:07:12.002 STDERR [INFO] I0730 11:07:12.000854 32208 net.cpp:141] Setting up lstm2_unit_1
2016-07-30 11:07:12.002 STDERR [INFO] I0730 11:07:12.000865 32208 net.cpp:148] Top shape: 1 1 1000 (1000)
2016-07-30 11:07:12.002 STDERR [INFO] I0730 11:07:12.000871 32208 net.cpp:148] Top shape: 1 1 1000 (1000)
2016-07-30 11:07:12.002 STDERR [INFO] I0730 11:07:12.000876 32208 net.cpp:156] Memory required for data: 90020
2016-07-30 11:07:12.002 STDERR [INFO] I0730 11:07:12.000880 32208 layer_factory.hpp:77] Creating layer lstm2_
2016-07-30 11:07:12.003 STDERR [INFO] I0730 11:07:12.000890 32208 net.cpp:91] Creating Layer lstm2_
2016-07-30 11:07:12.003 STDERR [INFO] I0730 11:07:12.000895 32208 net.cpp:425] lstm2_ <- c_1
2016-07-30 11:07:12.003 STDERR [INFO] I0730 11:07:12.000903 32208 net.cpp:399] lstm2_ -> c_T
2016-07-30 11:07:12.003 STDERR [INFO] I0730 11:07:12.000936 32208 net.cpp:141] Setting up lstm2_
2016-07-30 11:07:12.003 STDERR [INFO] I0730 11:07:12.000944 32208 net.cpp:148] Top shape: 1 1 1000 (1000)
2016-07-30 11:07:12.003 STDERR [INFO] I0730 11:07:12.000949 32208 net.cpp:156] Memory required for data: 94020
2016-07-30 11:07:12.003 STDERR [INFO] I0730 11:07:12.000953 32208 layer_factory.hpp:77] Creating layer lstm2_h_concat
2016-07-30 11:07:12.003 STDERR [INFO] I0730 11:07:12.000967 32208 net.cpp:91] Creating Layer lstm2_h_concat
2016-07-30 11:07:12.003 STDERR [INFO] I0730 11:07:12.000973 32208 net.cpp:425] lstm2_h_concat <- h_1
2016-07-30 11:07:12.003 STDERR [INFO] I0730 11:07:12.000982 32208 net.cpp:399] lstm2_h_concat -> h
2016-07-30 11:07:12.003 STDERR [INFO] I0730 11:07:12.001021 32208 net.cpp:141] Setting up lstm2_h_concat
2016-07-30 11:07:12.003 STDERR [INFO] I0730 11:07:12.001030 32208 net.cpp:148] Top shape: 1 1 1000 (1000)
2016-07-30 11:07:12.003 STDERR [INFO] I0730 11:07:12.001035 32208 net.cpp:156] Memory required for data: 98020
2016-07-30 11:07:12.004 STDERR [INFO] I0730 11:07:12.001040 32208 layer_factory.hpp:77] Creating layer h_pseudoloss
2016-07-30 11:07:12.004 STDERR [INFO] I0730 11:07:12.001049 32208 net.cpp:91] Creating Layer h_pseudoloss
2016-07-30 11:07:12.004 STDERR [INFO] I0730 11:07:12.001055 32208 net.cpp:425] h_pseudoloss <- h
…
