…
Java HotSpot(TM) 64-Bit Server VM warning: You have loaded library /tmp/cvld4863397900951785356/libopencv_java310.xine1.so which might have disabled stack guard. The VM will try to fix the stack guard now.
It's highly recommended that you fix the library with 'execstack -c <libfile>', or link it with '-z noexecstack'.
WARNING: Logging before InitGoogleLogging() is written to STDERR
I0801 02:37:54.347404 32085 net.cpp:49] Initializing net from parameters: 
name: "CaffeNet"
state {
  phase: TEST
}
layer {
  name: "data"
  type: "Input"
  top: "data"
  input_param {
    shape {
      dim: 10
      dim: 3
      dim: 227
      dim: 227
    }
  }
}
layer {
  name: "conv1"
  type: "Convolution"
  bottom: "data"
  top: "conv1"
  convolution_param {
    num_output: 96
    kernel_size: 11
    stride: 4
  }
}
layer {
  name: "relu1"
  type: "ReLU"
  bottom: "conv1"
  top: "conv1"
}
layer {
  name: "pool1"
  type: "Pooling"
  bottom: "conv1"
  top: "pool1"
  pooling_param {
    pool: MAX
    kernel_size: 3
    stride: 2
  }
}
layer {
  name: "norm1"
  type: "LRN"
  bottom: "pool1"
  top: "norm1"
  lrn_param {
    local_size: 5
    alpha: 0.0001
    beta: 0.75
  }
}
layer {
  name: "conv2"
  type: "Convolution"
  bottom: "norm1"
  top: "conv2"
  convolution_param {
    num_output: 256
    pad: 2
    kernel_size: 5
    group: 2
  }
}
layer {
  name: "relu2"
  type: "ReLU"
  bottom: "conv2"
  top: "conv2"
}
layer {
  name: "pool2"
  type: "Pooling"
  bottom: "conv2"
  top: "pool2"
  pooling_param {
    pool: MAX
    kernel_size: 3
    stride: 2
  }
}
layer {
  name: "norm2"
  type: "LRN"
  bottom: "pool2"
  top: "norm2"
  lrn_param {
    local_size: 5
    alpha: 0.0001
    beta: 0.75
  }
}
layer {
  name: "conv3"
  type: "Convolution"
  bottom: "norm2"
  top: "conv3"
  convolution_param {
    num_output: 384
    pad: 1
    kernel_size: 3
  }
}
layer {
  name: "relu3"
  type: "ReLU"
  bottom: "conv3"
  top: "conv3"
}
layer {
  name: "conv4"
  type: "Convolution"
  bottom: "conv3"
  top: "conv4"
  convolution_param {
    num_output: 384
    pad: 1
    kernel_size: 3
    group: 2
  }
}
layer {
  name: "relu4"
  type: "ReLU"
  bottom: "conv4"
  top: "conv4"
}
layer {
  name: "conv5"
  type: "Convolution"
  bottom: "conv4"
  top: "conv5"
  convolution_param {
    num_output: 256
    pad: 1
    kernel_size: 3
    group: 2
  }
}
layer {
  name: "relu5"
  type: "ReLU"
  bottom: "conv5"
  top: "conv5"
}
layer {
  name: "pool5"
  type: "Pooling"
  bottom: "conv5"
  top: "pool5"
  pooling_param {
    pool: MAX
    kernel_size: 3
    stride: 2
  }
}
layer {
  name: "fc6"
  type: "InnerProduct"
  bottom: "pool5"
  top: "fc6"
  inner_product_param {
    num_output: 4096
  }
}
layer {
  name: "relu6"
  type: "ReLU"
  bottom: "fc6"
  top: "fc6"
}
layer {
  name: "drop6"
  type: "Dropout"
  bottom: "fc6"
  top: "fc6"
  dropout_param {
    dropout_ratio: 0.5
  }
}
layer {
  name: "fc7"
  type: "InnerProduct"
  bottom: "fc6"
  top: "fc7"
  inner_product_param {
    num_output: 4096
  }
}
layer {
  name: "relu7"
  type: "ReLU"
  bottom: "fc7"
  top: "fc7"
}
layer {
  name: "drop7"
  type: "Dropout"
  bottom: "fc7"
  top: "fc7"
  dropout_param {
    dropout_ratio: 0.5
  }
}
layer {
  name: "fc8"
  type: "InnerProduct"
  bottom: "fc7"
  top: "fc8"
  inner_product_param {
    num_output: 1000
  }
}
layer {
  name: "prob"
  type: "Softmax"
  bottom: "fc8"
  top: "prob"
}
I0801 02:37:54.347620 32085 layer_factory.hpp:77] Creating layer data
I0801 02:37:54.347646 32085 net.cpp:91] Creating Layer data
I0801 02:37:54.347656 32085 net.cpp:399] data -> data
I0801 02:37:54.819763 32085 net.cpp:141] Setting up data
I0801 02:37:54.819865 32085 net.cpp:148] Top shape: 10 3 227 227 (1545870)
I0801 02:37:54.819874 32085 net.cpp:156] Memory required for data: 6183480
I0801 02:37:54.819895 32085 layer_factory.hpp:77] Creating layer conv1
I0801 02:37:54.819927 32085 net.cpp:91] Creating Layer conv1
I0801 02:37:54.819937 32085 net.cpp:425] conv1 <- data
I0801 02:37:54.819952 32085 net.cpp:399] conv1 -> conv1
I0801 02:37:54.993446 32075 upgrade_proto.cpp:66] Attempting to upgrade input file specified using deprecated input fields: /tmp/cvld4863397900951785356/s2vt.words_to_preds.prototxt
I0801 02:37:54.993517 32075 upgrade_proto.cpp:69] Successfully upgraded file specified using deprecated input fields.
W0801 02:37:54.993526 32075 upgrade_proto.cpp:71] Note that future Caffe releases will only support input layers and not input fields.
I0801 02:37:54.993790 32075 net.cpp:49] Initializing net from parameters: 
name: "s2vt:features_to_lstm"
state {
  phase: TEST
}
layer {
  name: "input"
  type: "Input"
  top: "frames_fc7"
  top: "cont_sentence"
  top: "input_sentence"
  top: "stage_indicator"
  input_param {
    shape {
      dim: 1
      dim: 4096
    }
    shape {
      dim: 1
      dim: 1
    }
    shape {
      dim: 1
      dim: 1
    }
    shape {
      dim: 1
      dim: 1
    }
  }
}
layer {
  name: "embed_encoder"
  type: "InnerProduct"
  bottom: "frames_fc7"
  top: "embedded_in_frames"
  param {
    lr_mult: 1
    decay_mult: 1
  }
  param {
    lr_mult: 2
    decay_mult: 0
  }
  inner_product_param {
    num_output: 500
    weight_filler {
      type: "xavier"
    }
    bias_filler {
      type: "constant"
      value: 0.2
    }
  }
}
layer {
  name: "reshape_frames"
  type: "Reshape"
  bottom: "embedded_in_frames"
  top: "embedded_input_frames"
  reshape_param {
    shape {
      dim: 1
      dim: 1
      dim: 500
    }
  }
}
layer {
  name: "reshape_stage_indicator"
  type: "Reshape"
  bottom: "stage_indicator"
  top: "reshaped_stage_indicator"
  reshape_param {
    shape {
      dim: 1
      dim: 1
      dim: 1
    }
  }
}
layer {
  name: "embedding"
  type: "Embed"
  bottom: "input_sentence"
  top: "embedded_input_sentence"
  param {
    lr_mult: 1
  }
  embed_param {
    num_output: 500
    input_dim: 46168
    bias_term: false
    weight_filler {
      type: "uniform"
      min: -0.08
      max: 0.08
    }
  }
}
layer {
  name: "lstm1"
  type: "LSTM"
  bottom: "embedded_input_frames"
  bottom: "cont_sentence"
  top: "lstm1"
  recurrent_param {
    num_output: 1000
    weight_filler {
      type: "uniform"
      min: -0.08
      max: 0.08
    }
    bias_filler {
      type: "constant"
      value: 0
    }
  }
}
layer {
  name: "concat"
  type: "Concat"
  bottom: "lstm1"
  bottom: "embedded_input_sentence"
  bottom: "reshaped_stage_indicator"
  top: "lstm1_video_sequence"
  concat_param {
    concat_dim: 2
  }
}
layer {
  name: "lstm2"
  type: "LSTM"
  bottom: "lstm1_video_sequence"
  bottom: "cont_sentence"
  top: "lstm2"
  recurrent_param {
    num_output: 1000
    weight_filler {
      type: "uniform"
      min: -0.08
      max: 0.08
    }
    bias_filler {
      type: "constant"
      value: 0
    }
  }
}
layer {
  name: "predict"
  type: "InnerProduct"
  bottom: "lstm2"
  top: "predict"
  param {
    lr_mult: 1
    decay_mult: 1
  }
  param {
    lr_mult: 2
    decay_mult: 0
  }
  inner_product_param {
    num_output: 46168
    weight_filler {
      type: "uniform"
      min: -0.08
      max: 0.08
    }
    bias_filler {
      type: "constant"
      value: 0
    }
    axis: 2
  }
}
layer {
  name: "probs"
  type: "Softmax"
  bottom: "predict"
  top: "probs"
  softmax_param {
    axis: 2
  }
}
I0801 02:37:54.993891 32075 layer_factory.hpp:77] Creating layer input
I0801 02:37:54.993908 32075 net.cpp:91] Creating Layer input
I0801 02:37:54.993917 32075 net.cpp:399] input -> frames_fc7
I0801 02:37:54.993937 32075 net.cpp:399] input -> cont_sentence
I0801 02:37:54.993947 32075 net.cpp:399] input -> input_sentence
I0801 02:37:54.993957 32075 net.cpp:399] input -> stage_indicator
I0801 02:37:55.000936 32075 net.cpp:141] Setting up input
I0801 02:37:55.000952 32075 net.cpp:148] Top shape: 1 4096 (4096)
I0801 02:37:55.000958 32075 net.cpp:148] Top shape: 1 1 (1)
I0801 02:37:55.000964 32075 net.cpp:148] Top shape: 1 1 (1)
I0801 02:37:55.000970 32075 net.cpp:148] Top shape: 1 1 (1)
I0801 02:37:55.000975 32075 net.cpp:156] Memory required for data: 16396
I0801 02:37:55.000982 32075 layer_factory.hpp:77] Creating layer cont_sentence_input_1_split
I0801 02:37:55.000999 32075 net.cpp:91] Creating Layer cont_sentence_input_1_split
I0801 02:37:55.001005 32075 net.cpp:425] cont_sentence_input_1_split <- cont_sentence
I0801 02:37:55.001025 32075 net.cpp:399] cont_sentence_input_1_split -> cont_sentence_input_1_split_0
I0801 02:37:55.001035 32075 net.cpp:399] cont_sentence_input_1_split -> cont_sentence_input_1_split_1
I0801 02:37:55.001092 32075 net.cpp:141] Setting up cont_sentence_input_1_split
I0801 02:37:55.001102 32075 net.cpp:148] Top shape: 1 1 (1)
I0801 02:37:55.001108 32075 net.cpp:148] Top shape: 1 1 (1)
I0801 02:37:55.001112 32075 net.cpp:156] Memory required for data: 16404
I0801 02:37:55.001117 32075 layer_factory.hpp:77] Creating layer embed_encoder
I0801 02:37:55.001133 32075 net.cpp:91] Creating Layer embed_encoder
I0801 02:37:55.001139 32075 net.cpp:425] embed_encoder <- frames_fc7
I0801 02:37:55.001147 32075 net.cpp:399] embed_encoder -> embedded_in_frames
I0801 02:37:55.023268 32075 net.cpp:141] Setting up embed_encoder
I0801 02:37:55.023324 32075 net.cpp:148] Top shape: 1 500 (500)
I0801 02:37:55.023334 32075 net.cpp:156] Memory required for data: 18404
I0801 02:37:55.023375 32075 layer_factory.hpp:77] Creating layer reshape_frames
I0801 02:37:55.023416 32075 net.cpp:91] Creating Layer reshape_frames
I0801 02:37:55.023432 32075 net.cpp:425] reshape_frames <- embedded_in_frames
I0801 02:37:55.023453 32075 net.cpp:399] reshape_frames -> embedded_input_frames
I0801 02:37:55.024018 32075 net.cpp:141] Setting up reshape_frames
I0801 02:37:55.024051 32075 net.cpp:148] Top shape: 1 1 500 (500)
I0801 02:37:55.024062 32075 net.cpp:156] Memory required for data: 20404
I0801 02:37:55.024073 32075 layer_factory.hpp:77] Creating layer reshape_stage_indicator
I0801 02:37:55.024092 32075 net.cpp:91] Creating Layer reshape_stage_indicator
I0801 02:37:55.024103 32075 net.cpp:425] reshape_stage_indicator <- stage_indicator
I0801 02:37:55.024123 32075 net.cpp:399] reshape_stage_indicator -> reshaped_stage_indicator
I0801 02:37:55.024276 32075 net.cpp:141] Setting up reshape_stage_indicator
I0801 02:37:55.024294 32075 net.cpp:148] Top shape: 1 1 1 (1)
I0801 02:37:55.024304 32075 net.cpp:156] Memory required for data: 20408
I0801 02:37:55.024314 32075 layer_factory.hpp:77] Creating layer embedding
I0801 02:37:55.024335 32075 net.cpp:91] Creating Layer embedding
I0801 02:37:55.024346 32075 net.cpp:425] embedding <- input_sentence
I0801 02:37:55.024363 32075 net.cpp:399] embedding -> embedded_input_sentence
I0801 02:37:55.080988 32085 net.cpp:141] Setting up conv1
I0801 02:37:55.081040 32085 net.cpp:148] Top shape: 10 96 55 55 (2904000)
I0801 02:37:55.081048 32085 net.cpp:156] Memory required for data: 17799480
I0801 02:37:55.081071 32085 layer_factory.hpp:77] Creating layer relu1
I0801 02:37:55.081092 32085 net.cpp:91] Creating Layer relu1
I0801 02:37:55.081100 32085 net.cpp:425] relu1 <- conv1
I0801 02:37:55.081110 32085 net.cpp:386] relu1 -> conv1 (in-place)
I0801 02:37:55.081570 32085 net.cpp:141] Setting up relu1
I0801 02:37:55.081584 32085 net.cpp:148] Top shape: 10 96 55 55 (2904000)
I0801 02:37:55.081589 32085 net.cpp:156] Memory required for data: 29415480
I0801 02:37:55.081595 32085 layer_factory.hpp:77] Creating layer pool1
I0801 02:37:55.081609 32085 net.cpp:91] Creating Layer pool1
I0801 02:37:55.081614 32085 net.cpp:425] pool1 <- conv1
I0801 02:37:55.081624 32085 net.cpp:399] pool1 -> pool1
I0801 02:37:55.081692 32085 net.cpp:141] Setting up pool1
I0801 02:37:55.081703 32085 net.cpp:148] Top shape: 10 96 27 27 (699840)
I0801 02:37:55.081708 32085 net.cpp:156] Memory required for data: 32214840
I0801 02:37:55.081713 32085 layer_factory.hpp:77] Creating layer norm1
I0801 02:37:55.081730 32085 net.cpp:91] Creating Layer norm1
I0801 02:37:55.081735 32085 net.cpp:425] norm1 <- pool1
I0801 02:37:55.081743 32085 net.cpp:399] norm1 -> norm1
I0801 02:37:55.082234 32085 net.cpp:141] Setting up norm1
I0801 02:37:55.082248 32085 net.cpp:148] Top shape: 10 96 27 27 (699840)
I0801 02:37:55.082254 32085 net.cpp:156] Memory required for data: 35014200
I0801 02:37:55.082259 32085 layer_factory.hpp:77] Creating layer conv2
I0801 02:37:55.082278 32085 net.cpp:91] Creating Layer conv2
I0801 02:37:55.082283 32085 net.cpp:425] conv2 <- norm1
I0801 02:37:55.082291 32085 net.cpp:399] conv2 -> conv2
I0801 02:37:55.085489 32085 net.cpp:141] Setting up conv2
I0801 02:37:55.085510 32085 net.cpp:148] Top shape: 10 256 27 27 (1866240)
I0801 02:37:55.085516 32085 net.cpp:156] Memory required for data: 42479160
I0801 02:37:55.085530 32085 layer_factory.hpp:77] Creating layer relu2
I0801 02:37:55.085538 32085 net.cpp:91] Creating Layer relu2
I0801 02:37:55.085544 32085 net.cpp:425] relu2 <- conv2
I0801 02:37:55.085551 32085 net.cpp:386] relu2 -> conv2 (in-place)
I0801 02:37:55.086000 32085 net.cpp:141] Setting up relu2
I0801 02:37:55.086014 32085 net.cpp:148] Top shape: 10 256 27 27 (1866240)
I0801 02:37:55.086019 32085 net.cpp:156] Memory required for data: 49944120
I0801 02:37:55.086024 32085 layer_factory.hpp:77] Creating layer pool2
I0801 02:37:55.086035 32085 net.cpp:91] Creating Layer pool2
I0801 02:37:55.086040 32085 net.cpp:425] pool2 <- conv2
I0801 02:37:55.086047 32085 net.cpp:399] pool2 -> pool2
I0801 02:37:55.086099 32085 net.cpp:141] Setting up pool2
I0801 02:37:55.086109 32085 net.cpp:148] Top shape: 10 256 13 13 (432640)
I0801 02:37:55.086113 32085 net.cpp:156] Memory required for data: 51674680
I0801 02:37:55.086119 32085 layer_factory.hpp:77] Creating layer norm2
I0801 02:37:55.086129 32085 net.cpp:91] Creating Layer norm2
I0801 02:37:55.086134 32085 net.cpp:425] norm2 <- pool2
I0801 02:37:55.086141 32085 net.cpp:399] norm2 -> norm2
I0801 02:37:55.086377 32085 net.cpp:141] Setting up norm2
I0801 02:37:55.086390 32085 net.cpp:148] Top shape: 10 256 13 13 (432640)
I0801 02:37:55.086395 32085 net.cpp:156] Memory required for data: 53405240
I0801 02:37:55.086400 32085 layer_factory.hpp:77] Creating layer conv3
I0801 02:37:55.086411 32085 net.cpp:91] Creating Layer conv3
I0801 02:37:55.086417 32085 net.cpp:425] conv3 <- norm2
I0801 02:37:55.086424 32085 net.cpp:399] conv3 -> conv3
I0801 02:37:55.090106 32085 net.cpp:141] Setting up conv3
I0801 02:37:55.090124 32085 net.cpp:148] Top shape: 10 384 13 13 (648960)
I0801 02:37:55.090131 32085 net.cpp:156] Memory required for data: 56001080
I0801 02:37:55.090147 32085 layer_factory.hpp:77] Creating layer relu3
I0801 02:37:55.090155 32085 net.cpp:91] Creating Layer relu3
I0801 02:37:55.090160 32085 net.cpp:425] relu3 <- conv3
I0801 02:37:55.090167 32085 net.cpp:386] relu3 -> conv3 (in-place)
I0801 02:37:55.090611 32085 net.cpp:141] Setting up relu3
I0801 02:37:55.090626 32085 net.cpp:148] Top shape: 10 384 13 13 (648960)
I0801 02:37:55.090631 32085 net.cpp:156] Memory required for data: 58596920
I0801 02:37:55.090636 32085 layer_factory.hpp:77] Creating layer conv4
I0801 02:37:55.090646 32085 net.cpp:91] Creating Layer conv4
I0801 02:37:55.090652 32085 net.cpp:425] conv4 <- conv3
I0801 02:37:55.090662 32085 net.cpp:399] conv4 -> conv4
I0801 02:37:55.094761 32085 net.cpp:141] Setting up conv4
I0801 02:37:55.094782 32085 net.cpp:148] Top shape: 10 384 13 13 (648960)
I0801 02:37:55.094789 32085 net.cpp:156] Memory required for data: 61192760
I0801 02:37:55.094799 32085 layer_factory.hpp:77] Creating layer relu4
I0801 02:37:55.094810 32085 net.cpp:91] Creating Layer relu4
I0801 02:37:55.094816 32085 net.cpp:425] relu4 <- conv4
I0801 02:37:55.094823 32085 net.cpp:386] relu4 -> conv4 (in-place)
I0801 02:37:55.095273 32085 net.cpp:141] Setting up relu4
I0801 02:37:55.095285 32085 net.cpp:148] Top shape: 10 384 13 13 (648960)
I0801 02:37:55.095290 32085 net.cpp:156] Memory required for data: 63788600
I0801 02:37:55.095296 32085 layer_factory.hpp:77] Creating layer conv5
I0801 02:37:55.095311 32085 net.cpp:91] Creating Layer conv5
I0801 02:37:55.095317 32085 net.cpp:425] conv5 <- conv4
I0801 02:37:55.095324 32085 net.cpp:399] conv5 -> conv5
I0801 02:37:55.099306 32085 net.cpp:141] Setting up conv5
I0801 02:37:55.099325 32085 net.cpp:148] Top shape: 10 256 13 13 (432640)
I0801 02:37:55.099331 32085 net.cpp:156] Memory required for data: 65519160
I0801 02:37:55.099349 32085 layer_factory.hpp:77] Creating layer relu5
I0801 02:37:55.099357 32085 net.cpp:91] Creating Layer relu5
I0801 02:37:55.099364 32085 net.cpp:425] relu5 <- conv5
I0801 02:37:55.099371 32085 net.cpp:386] relu5 -> conv5 (in-place)
I0801 02:37:55.099839 32085 net.cpp:141] Setting up relu5
I0801 02:37:55.099853 32085 net.cpp:148] Top shape: 10 256 13 13 (432640)
I0801 02:37:55.099858 32085 net.cpp:156] Memory required for data: 67249720
I0801 02:37:55.099864 32085 layer_factory.hpp:77] Creating layer pool5
I0801 02:37:55.099874 32085 net.cpp:91] Creating Layer pool5
I0801 02:37:55.099879 32085 net.cpp:425] pool5 <- conv5
I0801 02:37:55.099889 32085 net.cpp:399] pool5 -> pool5
I0801 02:37:55.099947 32085 net.cpp:141] Setting up pool5
I0801 02:37:55.099959 32085 net.cpp:148] Top shape: 10 256 6 6 (92160)
I0801 02:37:55.099964 32085 net.cpp:156] Memory required for data: 67618360
I0801 02:37:55.099969 32085 layer_factory.hpp:77] Creating layer fc6
I0801 02:37:55.099982 32085 net.cpp:91] Creating Layer fc6
I0801 02:37:55.099987 32085 net.cpp:425] fc6 <- pool5
I0801 02:37:55.099993 32085 net.cpp:399] fc6 -> fc6
I0801 02:37:55.199476 32085 net.cpp:141] Setting up fc6
I0801 02:37:55.199532 32085 net.cpp:148] Top shape: 10 4096 (40960)
I0801 02:37:55.199538 32085 net.cpp:156] Memory required for data: 67782200
I0801 02:37:55.199553 32085 layer_factory.hpp:77] Creating layer relu6
I0801 02:37:55.199579 32085 net.cpp:91] Creating Layer relu6
I0801 02:37:55.199585 32085 net.cpp:425] relu6 <- fc6
I0801 02:37:55.199595 32085 net.cpp:386] relu6 -> fc6 (in-place)
I0801 02:37:55.199915 32085 net.cpp:141] Setting up relu6
I0801 02:37:55.199928 32085 net.cpp:148] Top shape: 10 4096 (40960)
I0801 02:37:55.199931 32085 net.cpp:156] Memory required for data: 67946040
I0801 02:37:55.199937 32085 layer_factory.hpp:77] Creating layer drop6
I0801 02:37:55.199950 32085 net.cpp:91] Creating Layer drop6
I0801 02:37:55.199955 32085 net.cpp:425] drop6 <- fc6
I0801 02:37:55.199965 32085 net.cpp:386] drop6 -> fc6 (in-place)
I0801 02:37:55.200024 32085 net.cpp:141] Setting up drop6
I0801 02:37:55.200033 32085 net.cpp:148] Top shape: 10 4096 (40960)
I0801 02:37:55.200037 32085 net.cpp:156] Memory required for data: 68109880
I0801 02:37:55.200042 32085 layer_factory.hpp:77] Creating layer fc7
I0801 02:37:55.200057 32085 net.cpp:91] Creating Layer fc7
I0801 02:37:55.200062 32085 net.cpp:425] fc7 <- fc6
I0801 02:37:55.200069 32085 net.cpp:399] fc7 -> fc7
I0801 02:37:55.243191 32075 net.cpp:141] Setting up embedding
I0801 02:37:55.243255 32075 net.cpp:148] Top shape: 1 1 500 (500)
I0801 02:37:55.243263 32075 net.cpp:156] Memory required for data: 22408
I0801 02:37:55.243288 32075 layer_factory.hpp:77] Creating layer lstm1
I0801 02:37:55.243315 32075 net.cpp:91] Creating Layer lstm1
I0801 02:37:55.243327 32075 net.cpp:425] lstm1 <- embedded_input_frames
I0801 02:37:55.243341 32075 net.cpp:425] lstm1 <- cont_sentence_input_1_split_0
I0801 02:37:55.243361 32075 net.cpp:399] lstm1 -> lstm1
I0801 02:37:55.243417 32075 recurrent_layer.cpp:20] Initializing recurrent layer: assuming input batch contains 1 timesteps of 1 independent streams.
I0801 02:37:55.243954 32075 net.cpp:49] Initializing net from parameters: 
layer {
  name: "lstm1_"
  type: "Input"
  top: "x"
  top: "cont"
  input_param {
    shape {
      dim: 1
      dim: 1
      dim: 500
    }
    shape {
      dim: 1
      dim: 1
    }
  }
}
layer {
  name: "lstm1_"
  type: "Input"
  top: "c_0"
  top: "h_0"
  input_param {
    shape {
      dim: 1
      dim: 1
      dim: 1000
    }
    shape {
      dim: 1
      dim: 1
      dim: 1000
    }
  }
}
layer {
  name: "lstm1_cont_slice"
  type: "Slice"
  bottom: "cont"
  top: "cont_1"
  slice_param {
    axis: 0
  }
}
layer {
  name: "lstm1_x_transform"
  type: "InnerProduct"
  bottom: "x"
  top: "W_xc_x"
  param {
    name: "W_xc"
  }
  param {
    name: "b_c"
  }
  propagate_down: true
  inner_product_param {
    num_output: 4000
    bias_term: true
    weight_filler {
      type: "uniform"
      min: -0.08
      max: 0.08
    }
    bias_filler {
      type: "constant"
      value: 0
    }
    axis: 2
  }
}
layer {
  name: "lstm1_W_xc_x_slice"
  type: "Slice"
  bottom: "W_xc_x"
  top: "W_xc_x_1"
  slice_param {
    axis: 0
  }
}
layer {
  name: "lstm1_h_conted_0"
  type: "Scale"
  bottom: "h_0"
  bottom: "cont_1"
  top: "h_conted_0"
  scale_param {
    axis: 0
  }
}
layer {
  name: "lstm1_transform_1"
  type: "InnerProduct"
  bottom: "h_conted_0"
  top: "W_hc_h_0"
  param {
    name: "W_hc"
  }
  inner_product_param {
    num_output: 4000
    bias_term: false
    weight_filler {
      type: "uniform"
      min: -0.08
      max: 0.08
    }
    axis: 2
  }
}
layer {
  name: "lstm1_gate_input_1"
  type: "Eltwise"
  bottom: "W_hc_h_0"
  bottom: "W_xc_x_1"
  top: "gate_input_1"
  eltwise_param {
    operation: SUM
  }
}
layer {
  name: "lstm1_unit_1"
  type: "LSTMUnit"
  bottom: "c_0"
  bottom: "gate_input_1"
  bottom: "cont_1"
  top: "c_1"
  top: "h_1"
}
layer {
  name: "lstm1_"
  type: "Split"
  bottom: "c_1"
  top: "c_T"
}
layer {
  name: "lstm1_h_concat"
  type: "Concat"
  bottom: "h_1"
  top: "h"
  concat_param {
    axis: 0
  }
}
layer {
  name: "h_pseudoloss"
  type: "Reduction"
  bottom: "h"
  top: "h_pseudoloss"
  loss_weight: 1
}
I0801 02:37:55.244141 32075 layer_factory.hpp:77] Creating layer lstm1_
I0801 02:37:55.244165 32075 net.cpp:91] Creating Layer lstm1_
I0801 02:37:55.244180 32075 net.cpp:399] lstm1_ -> x
I0801 02:37:55.244201 32075 net.cpp:399] lstm1_ -> cont
I0801 02:37:55.244305 32075 net.cpp:141] Setting up lstm1_
I0801 02:37:55.244335 32075 net.cpp:148] Top shape: 1 1 500 (500)
I0801 02:37:55.244349 32075 net.cpp:148] Top shape: 1 1 (1)
I0801 02:37:55.244356 32075 net.cpp:156] Memory required for data: 2004
I0801 02:37:55.244365 32075 layer_factory.hpp:77] Creating layer lstm1_
I0801 02:37:55.244380 32075 net.cpp:91] Creating Layer lstm1_
I0801 02:37:55.244397 32075 net.cpp:399] lstm1_ -> c_0
I0801 02:37:55.244417 32075 net.cpp:399] lstm1_ -> h_0
I0801 02:37:55.244506 32075 net.cpp:141] Setting up lstm1_
I0801 02:37:55.244524 32075 net.cpp:148] Top shape: 1 1 1000 (1000)
I0801 02:37:55.244537 32075 net.cpp:148] Top shape: 1 1 1000 (1000)
I0801 02:37:55.244545 32075 net.cpp:156] Memory required for data: 10004
I0801 02:37:55.244554 32075 layer_factory.hpp:77] Creating layer lstm1_cont_slice
I0801 02:37:55.244577 32075 net.cpp:91] Creating Layer lstm1_cont_slice
I0801 02:37:55.244588 32075 net.cpp:425] lstm1_cont_slice <- cont
I0801 02:37:55.244606 32075 net.cpp:399] lstm1_cont_slice -> cont_1
I0801 02:37:55.244663 32075 net.cpp:141] Setting up lstm1_cont_slice
I0801 02:37:55.244680 32075 net.cpp:148] Top shape: 1 1 (1)
I0801 02:37:55.244689 32075 net.cpp:156] Memory required for data: 10008
I0801 02:37:55.244699 32075 layer_factory.hpp:77] Creating layer cont_1_lstm1_cont_slice_0_split
I0801 02:37:55.244711 32075 net.cpp:91] Creating Layer cont_1_lstm1_cont_slice_0_split
I0801 02:37:55.244721 32075 net.cpp:425] cont_1_lstm1_cont_slice_0_split <- cont_1
I0801 02:37:55.244738 32075 net.cpp:399] cont_1_lstm1_cont_slice_0_split -> cont_1_lstm1_cont_slice_0_split_0
I0801 02:37:55.244755 32075 net.cpp:399] cont_1_lstm1_cont_slice_0_split -> cont_1_lstm1_cont_slice_0_split_1
I0801 02:37:55.244845 32075 net.cpp:141] Setting up cont_1_lstm1_cont_slice_0_split
I0801 02:37:55.244863 32075 net.cpp:148] Top shape: 1 1 (1)
I0801 02:37:55.244873 32075 net.cpp:148] Top shape: 1 1 (1)
I0801 02:37:55.244879 32075 net.cpp:156] Memory required for data: 10016
I0801 02:37:55.244886 32075 layer_factory.hpp:77] Creating layer lstm1_x_transform
I0801 02:37:55.244904 32075 net.cpp:91] Creating Layer lstm1_x_transform
I0801 02:37:55.244912 32075 net.cpp:425] lstm1_x_transform <- x
I0801 02:37:55.244925 32075 net.cpp:399] lstm1_x_transform -> W_xc_x
I0801 02:37:55.250834 32085 net.cpp:141] Setting up fc7
I0801 02:37:55.250880 32085 net.cpp:148] Top shape: 10 4096 (40960)
I0801 02:37:55.250886 32085 net.cpp:156] Memory required for data: 68273720
I0801 02:37:55.250901 32085 layer_factory.hpp:77] Creating layer relu7
I0801 02:37:55.250921 32085 net.cpp:91] Creating Layer relu7
I0801 02:37:55.250929 32085 net.cpp:425] relu7 <- fc7
I0801 02:37:55.250939 32085 net.cpp:386] relu7 -> fc7 (in-place)
I0801 02:37:55.251505 32085 net.cpp:141] Setting up relu7
I0801 02:37:55.251518 32085 net.cpp:148] Top shape: 10 4096 (40960)
I0801 02:37:55.251525 32085 net.cpp:156] Memory required for data: 68437560
I0801 02:37:55.251530 32085 layer_factory.hpp:77] Creating layer drop7
I0801 02:37:55.251541 32085 net.cpp:91] Creating Layer drop7
I0801 02:37:55.251546 32085 net.cpp:425] drop7 <- fc7
I0801 02:37:55.251554 32085 net.cpp:386] drop7 -> fc7 (in-place)
I0801 02:37:55.251595 32085 net.cpp:141] Setting up drop7
I0801 02:37:55.251605 32085 net.cpp:148] Top shape: 10 4096 (40960)
I0801 02:37:55.251608 32085 net.cpp:156] Memory required for data: 68601400
I0801 02:37:55.251613 32085 layer_factory.hpp:77] Creating layer fc8
I0801 02:37:55.251623 32085 net.cpp:91] Creating Layer fc8
I0801 02:37:55.251628 32085 net.cpp:425] fc8 <- fc7
I0801 02:37:55.251637 32085 net.cpp:399] fc8 -> fc8
I0801 02:37:55.263022 32085 net.cpp:141] Setting up fc8
I0801 02:37:55.263067 32085 net.cpp:148] Top shape: 10 1000 (10000)
I0801 02:37:55.263072 32085 net.cpp:156] Memory required for data: 68641400
I0801 02:37:55.263087 32085 layer_factory.hpp:77] Creating layer prob
I0801 02:37:55.263111 32085 net.cpp:91] Creating Layer prob
I0801 02:37:55.263118 32085 net.cpp:425] prob <- fc8
I0801 02:37:55.263130 32085 net.cpp:399] prob -> prob
I0801 02:37:55.263520 32085 net.cpp:141] Setting up prob
I0801 02:37:55.263530 32085 net.cpp:148] Top shape: 10 1000 (10000)
I0801 02:37:55.263537 32085 net.cpp:156] Memory required for data: 68681400
I0801 02:37:55.263543 32085 net.cpp:219] prob does not need backward computation.
I0801 02:37:55.263550 32085 net.cpp:219] fc8 does not need backward computation.
I0801 02:37:55.263555 32085 net.cpp:219] drop7 does not need backward computation.
I0801 02:37:55.263558 32085 net.cpp:219] relu7 does not need backward computation.
…
I0801 02:37:55.263633 32085 net.cpp:219] norm1 does not need backward computation.
I0801 02:37:55.263638 32085 net.cpp:219] pool1 does not need backward computation.
I0801 02:37:55.263643 32085 net.cpp:219] relu1 does not need backward computation.
I0801 02:37:55.263646 32085 net.cpp:219] conv1 does not need backward computation.
I0801 02:37:55.263651 32085 net.cpp:219] data does not need backward computation.
I0801 02:37:55.263655 32085 net.cpp:261] This network produces output prob
I0801 02:37:55.263677 32085 net.cpp:274] Network initialization done.
I0801 02:37:55.274351 32075 net.cpp:141] Setting up lstm1_x_transform
I0801 02:37:55.274399 32075 net.cpp:148] Top shape: 1 1 4000 (4000)
I0801 02:37:55.274410 32075 net.cpp:156] Memory required for data: 26016
I0801 02:37:55.274440 32075 layer_factory.hpp:77] Creating layer lstm1_W_xc_x_slice
I0801 02:37:55.274466 32075 net.cpp:91] Creating Layer lstm1_W_xc_x_slice
I0801 02:37:55.274477 32075 net.cpp:425] lstm1_W_xc_x_slice <- W_xc_x
I0801 02:37:55.274493 32075 net.cpp:399] lstm1_W_xc_x_slice -> W_xc_x_1
I0801 02:37:55.274560 32075 net.cpp:141] Setting up lstm1_W_xc_x_slice
I0801 02:37:55.274577 32075 net.cpp:148] Top shape: 1 1 4000 (4000)
I0801 02:37:55.274586 32075 net.cpp:156] Memory required for data: 42016
I0801 02:37:55.274595 32075 layer_factory.hpp:77] Creating layer lstm1_h_conted_0
I0801 02:37:55.274616 32075 net.cpp:91] Creating Layer lstm1_h_conted_0
I0801 02:37:55.274626 32075 net.cpp:425] lstm1_h_conted_0 <- h_0
I0801 02:37:55.274639 32075 net.cpp:425] lstm1_h_conted_0 <- cont_1_lstm1_cont_slice_0_split_0
I0801 02:37:55.274652 32075 net.cpp:399] lstm1_h_conted_0 -> h_conted_0
I0801 02:37:55.274824 32075 net.cpp:141] Setting up lstm1_h_conted_0
I0801 02:37:55.274842 32075 net.cpp:148] Top shape: 1 1 1000 (1000)
I0801 02:37:55.274852 32075 net.cpp:156] Memory required for data: 46016
I0801 02:37:55.274862 32075 layer_factory.hpp:77] Creating layer lstm1_transform_1
I0801 02:37:55.274888 32075 net.cpp:91] Creating Layer lstm1_transform_1
I0801 02:37:55.274899 32075 net.cpp:425] lstm1_transform_1 <- h_conted_0
I0801 02:37:55.274916 32075 net.cpp:399] lstm1_transform_1 -> W_hc_h_0
I0801 02:37:55.312328 32075 net.cpp:141] Setting up lstm1_transform_1
I0801 02:37:55.312387 32075 net.cpp:148] Top shape: 1 1 4000 (4000)
I0801 02:37:55.312397 32075 net.cpp:156] Memory required for data: 62016
I0801 02:37:55.312423 32075 layer_factory.hpp:77] Creating layer lstm1_gate_input_1
I0801 02:37:55.312456 32075 net.cpp:91] Creating Layer lstm1_gate_input_1
I0801 02:37:55.312469 32075 net.cpp:425] lstm1_gate_input_1 <- W_hc_h_0
I0801 02:37:55.312482 32075 net.cpp:425] lstm1_gate_input_1 <- W_xc_x_1
I0801 02:37:55.312500 32075 net.cpp:399] lstm1_gate_input_1 -> gate_input_1
I0801 02:37:55.312574 32075 net.cpp:141] Setting up lstm1_gate_input_1
I0801 02:37:55.312589 32075 net.cpp:148] Top shape: 1 1 4000 (4000)
I0801 02:37:55.312597 32075 net.cpp:156] Memory required for data: 78016
I0801 02:37:55.312604 32075 layer_factory.hpp:77] Creating layer lstm1_unit_1
I0801 02:37:55.312621 32075 net.cpp:91] Creating Layer lstm1_unit_1
I0801 02:37:55.312629 32075 net.cpp:425] lstm1_unit_1 <- c_0
I0801 02:37:55.312638 32075 net.cpp:425] lstm1_unit_1 <- gate_input_1
I0801 02:37:55.312647 32075 net.cpp:425] lstm1_unit_1 <- cont_1_lstm1_cont_slice_0_split_1
I0801 02:37:55.312659 32075 net.cpp:399] lstm1_unit_1 -> c_1
I0801 02:37:55.312672 32075 net.cpp:399] lstm1_unit_1 -> h_1
I0801 02:37:55.312767 32075 net.cpp:141] Setting up lstm1_unit_1
I0801 02:37:55.312783 32075 net.cpp:148] Top shape: 1 1 1000 (1000)
I0801 02:37:55.312793 32075 net.cpp:148] Top shape: 1 1 1000 (1000)
I0801 02:37:55.312798 32075 net.cpp:156] Memory required for data: 86016
I0801 02:37:55.312805 32075 layer_factory.hpp:77] Creating layer lstm1_
I0801 02:37:55.312819 32075 net.cpp:91] Creating Layer lstm1_
I0801 02:37:55.312827 32075 net.cpp:425] lstm1_ <- c_1
I0801 02:37:55.312842 32075 net.cpp:399] lstm1_ -> c_T
I0801 02:37:55.312891 32075 net.cpp:141] Setting up lstm1_
I0801 02:37:55.312906 32075 net.cpp:148] Top shape: 1 1 1000 (1000)
I0801 02:37:55.312912 32075 net.cpp:156] Memory required for data: 90016
I0801 02:37:55.312919 32075 layer_factory.hpp:77] Creating layer lstm1_h_concat
I0801 02:37:55.312933 32075 net.cpp:91] Creating Layer lstm1_h_concat
I0801 02:37:55.312942 32075 net.cpp:425] lstm1_h_concat <- h_1
I0801 02:37:55.312954 32075 net.cpp:399] lstm1_h_concat -> h
I0801 02:37:55.313025 32075 net.cpp:141] Setting up lstm1_h_concat
I0801 02:37:55.313040 32075 net.cpp:148] Top shape: 1 1 1000 (1000)
I0801 02:37:55.313050 32075 net.cpp:156] Memory required for data: 94016
I0801 02:37:55.313057 32075 layer_factory.hpp:77] Creating layer h_pseudoloss
I0801 02:37:55.313078 32075 net.cpp:91] Creating Layer h_pseudoloss
I0801 02:37:55.313087 32075 net.cpp:425] h_pseudoloss <- h
I0801 02:37:55.313099 32075 net.cpp:399] h_pseudoloss -> h_pseudoloss
I0801 02:37:55.313244 32075 net.cpp:141] Setting up h_pseudoloss
…
I0801 02:37:55.313472 32075 net.cpp:219] lstm1_ does not need backward computation.
I0801 02:37:55.313480 32075 net.cpp:261] This network produces output c_T
I0801 02:37:55.313489 32075 net.cpp:261] This network produces output h_pseudoloss
I0801 02:37:55.313514 32075 net.cpp:274] Network initialization done.
I0801 02:37:55.313598 32075 recurrent_layer.cpp:150] Adding parameter 0: W_xc
I0801 02:37:55.313614 32075 recurrent_layer.cpp:150] Adding parameter 1: b_c
I0801 02:37:55.313623 32075 recurrent_layer.cpp:150] Adding parameter 2: W_hc
I0801 02:37:55.313803 32075 net.cpp:141] Setting up lstm1
I0801 02:37:55.313822 32075 net.cpp:148] Top shape: 1 1 1000 (1000)
I0801 02:37:55.313832 32075 net.cpp:156] Memory required for data: 26408
I0801 02:37:55.313854 32075 layer_factory.hpp:77] Creating layer concat
I0801 02:37:55.313870 32075 net.cpp:91] Creating Layer concat
I0801 02:37:55.313881 32075 net.cpp:425] concat <- lstm1
I0801 02:37:55.313894 32075 net.cpp:425] concat <- embedded_input_sentence
I0801 02:37:55.313905 32075 net.cpp:425] concat <- reshaped_stage_indicator
I0801 02:37:55.313916 32075 net.cpp:399] concat -> lstm1_video_sequence
I0801 02:37:55.313971 32075 net.cpp:141] Setting up concat
I0801 02:37:55.313987 32075 net.cpp:148] Top shape: 1 1 1501 (1501)
I0801 02:37:55.313997 32075 net.cpp:156] Memory required for data: 32412
I0801 02:37:55.314005 32075 layer_factory.hpp:77] Creating layer lstm2
I0801 02:37:55.314023 32075 net.cpp:91] Creating Layer lstm2
I0801 02:37:55.314033 32075 net.cpp:425] lstm2 <- lstm1_video_sequence
I0801 02:37:55.314041 32075 net.cpp:425] lstm2 <- cont_sentence_input_1_split_1
I0801 02:37:55.314054 32075 net.cpp:399] lstm2 -> lstm2
I0801 02:37:55.314067 32075 recurrent_layer.cpp:20] Initializing recurrent layer: assuming input batch contains 1 timesteps of 1 independent streams.
I0801 02:37:55.314465 32075 net.cpp:49] Initializing net from parameters: 
layer {
  name: "lstm2_"
  type: "Input"
  top: "x"
  top: "cont"
  input_param {
    shape {
      dim: 1
      dim: 1
      dim: 1501
    }
    shape {
      dim: 1
      dim: 1
    }
  }
}
layer {
  name: "lstm2_"
  type: "Input"
  top: "c_0"
  top: "h_0"
  input_param {
    shape {
      dim: 1
      dim: 1
      dim: 1000
    }
    shape {
      dim: 1
      dim: 1
      dim: 1000
    }
  }
}
layer {
  name: "lstm2_cont_slice"
  type: "Slice"
  bottom: "cont"
  top: "cont_1"
  slice_param {
    axis: 0
  }
}
layer {
  name: "lstm2_x_transform"
  type: "InnerProduct"
  bottom: "x"
  top: "W_xc_x"
  param {
    name: "W_xc"
  }
  param {
    name: "b_c"
  }
  propagate_down: true
  inner_product_param {
    num_output: 4000
    bias_term: true
    weight_filler {
      type: "uniform"
      min: -0.08
      max: 0.08
    }
    bias_filler {
      type: "constant"
      value: 0
    }
    axis: 2
  }
}
layer {
  name: "lstm2_W_xc_x_slice"
  type: "Slice"
  bottom: "W_xc_x"
  top: "W_xc_x_1"
  slice_param {
    axis: 0
  }
}
layer {
  name: "lstm2_h_conted_0"
  type: "Scale"
  bottom: "h_0"
  bottom: "cont_1"
  top: "h_conted_0"
  scale_param {
    axis: 0
  }
}
layer {
  name: "lstm2_transform_1"
  type: "InnerProduct"
  bottom: "h_conted_0"
  top: "W_hc_h_0"
  param {
    name: "W_hc"
  }
  inner_product_param {
    num_output: 4000
    bias_term: false
    weight_filler {
      type: "uniform"
      min: -0.08
      max: 0.08
    }
    axis: 2
  }
}
layer {
  name: "lstm2_gate_input_1"
  type: "Eltwise"
  bottom: "W_hc_h_0"
  bottom: "W_xc_x_1"
  top: "gate_input_1"
  eltwise_param {
    operation: SUM
  }
}
layer {
  name: "lstm2_unit_1"
  type: "LSTMUnit"
  bottom: "c_0"
  bottom: "gate_input_1"
  bottom: "cont_1"
  top: "c_1"
  top: "h_1"
}
layer {
  name: "lstm2_"
  type: "Split"
  bottom: "c_1"
  top: "c_T"
}
layer {
  name: "lstm2_h_concat"
  type: "Concat"
  bottom: "h_1"
  top: "h"
  concat_param {
    axis: 0
  }
}
layer {
  name: "h_pseudoloss"
  type: "Reduction"
  bottom: "h"
  top: "h_pseudoloss"
  loss_weight: 1
}
I0801 02:37:55.314602 32075 layer_factory.hpp:77] Creating layer lstm2_
I0801 02:37:55.314623 32075 net.cpp:91] Creating Layer lstm2_
I0801 02:37:55.314637 32075 net.cpp:399] lstm2_ -> x
I0801 02:37:55.314656 32075 net.cpp:399] lstm2_ -> cont
I0801 02:37:55.314739 32075 net.cpp:141] Setting up lstm2_
I0801 02:37:55.314759 32075 net.cpp:148] Top shape: 1 1 1501 (1501)
I0801 02:37:55.314771 32075 net.cpp:148] Top shape: 1 1 (1)
I0801 02:37:55.314779 32075 net.cpp:156] Memory required for data: 6008
I0801 02:37:55.314788 32075 layer_factory.hpp:77] Creating layer lstm2_
I0801 02:37:55.314810 32075 net.cpp:91] Creating Layer lstm2_
I0801 02:37:55.314824 32075 net.cpp:399] lstm2_ -> c_0
I0801 02:37:55.314842 32075 net.cpp:399] lstm2_ -> h_0
I0801 02:37:55.314932 32075 net.cpp:141] Setting up lstm2_
I0801 02:37:55.314949 32075 net.cpp:148] Top shape: 1 1 1000 (1000)
I0801 02:37:55.314961 32075 net.cpp:148] Top shape: 1 1 1000 (1000)
I0801 02:37:55.314970 32075 net.cpp:156] Memory required for data: 14008
I0801 02:37:55.314977 32075 layer_factory.hpp:77] Creating layer lstm2_cont_slice
I0801 02:37:55.314991 32075 net.cpp:91] Creating Layer lstm2_cont_slice
I0801 02:37:55.315001 32075 net.cpp:425] lstm2_cont_slice <- cont
I0801 02:37:55.315014 32075 net.cpp:399] lstm2_cont_slice -> cont_1
I0801 02:37:55.315071 32075 net.cpp:141] Setting up lstm2_cont_slice
I0801 02:37:55.315088 32075 net.cpp:148] Top shape: 1 1 (1)
I0801 02:37:55.315099 32075 net.cpp:156] Memory required for data: 14012
I0801 02:37:55.315107 32075 layer_factory.hpp:77] Creating layer cont_1_lstm2_cont_slice_0_split
I0801 02:37:55.315119 32075 net.cpp:91] Creating Layer cont_1_lstm2_cont_slice_0_split
I0801 02:37:55.315129 32075 net.cpp:425] cont_1_lstm2_cont_slice_0_split <- cont_1
I0801 02:37:55.315145 32075 net.cpp:399] cont_1_lstm2_cont_slice_0_split -> cont_1_lstm2_cont_slice_0_split_0
I0801 02:37:55.315161 32075 net.cpp:399] cont_1_lstm2_cont_slice_0_split -> cont_1_lstm2_cont_slice_0_split_1
I0801 02:37:55.315246 32075 net.cpp:141] Setting up cont_1_lstm2_cont_slice_0_split
I0801 02:37:55.315263 32075 net.cpp:148] Top shape: 1 1 (1)
I0801 02:37:55.315275 32075 net.cpp:148] Top shape: 1 1 (1)
I0801 02:37:55.315284 32075 net.cpp:156] Memory required for data: 14020
I0801 02:37:55.315291 32075 layer_factory.hpp:77] Creating layer lstm2_x_transform
I0801 02:37:55.315313 32075 net.cpp:91] Creating Layer lstm2_x_transform
I0801 02:37:55.315325 32075 net.cpp:425] lstm2_x_transform <- x
I0801 02:37:55.315343 32075 net.cpp:399] lstm2_x_transform -> W_xc_x
I0801 02:37:55.379904 32075 net.cpp:141] Setting up lstm2_x_transform
I0801 02:37:55.379961 32075 net.cpp:148] Top shape: 1 1 4000 (4000)
I0801 02:37:55.379971 32075 net.cpp:156] Memory required for data: 30020
I0801 02:37:55.380003 32075 layer_factory.hpp:77] Creating layer lstm2_W_xc_x_slice
I0801 02:37:55.380038 32075 net.cpp:91] Creating Layer lstm2_W_xc_x_slice
I0801 02:37:55.380049 32075 net.cpp:425] lstm2_W_xc_x_slice <- W_xc_x
I0801 02:37:55.380066 32075 net.cpp:399] lstm2_W_xc_x_slice -> W_xc_x_1
I0801 02:37:55.380134 32075 net.cpp:141] Setting up lstm2_W_xc_x_slice
I0801 02:37:55.380151 32075 net.cpp:148] Top shape: 1 1 4000 (4000)
I0801 02:37:55.380157 32075 net.cpp:156] Memory required for data: 46020
I0801 02:37:55.380165 32075 layer_factory.hpp:77] Creating layer lstm2_h_conted_0
I0801 02:37:55.380180 32075 net.cpp:91] Creating Layer lstm2_h_conted_0
I0801 02:37:55.380188 32075 net.cpp:425] lstm2_h_conted_0 <- h_0
I0801 02:37:55.380198 32075 net.cpp:425] lstm2_h_conted_0 <- cont_1_lstm2_cont_slice_0_split_0
I0801 02:37:55.380208 32075 net.cpp:399] lstm2_h_conted_0 -> h_conted_0
I0801 02:37:55.380342 32075 net.cpp:141] Setting up lstm2_h_conted_0
I0801 02:37:55.380358 32075 net.cpp:148] Top shape: 1 1 1000 (1000)
I0801 02:37:55.380365 32075 net.cpp:156] Memory required for data: 50020
I0801 02:37:55.380373 32075 layer_factory.hpp:77] Creating layer lstm2_transform_1
I0801 02:37:55.380393 32075 net.cpp:91] Creating Layer lstm2_transform_1
I0801 02:37:55.380403 32075 net.cpp:425] lstm2_transform_1 <- h_conted_0
I0801 02:37:55.380414 32075 net.cpp:399] lstm2_transform_1 -> W_hc_h_0
I0801 02:37:55.418753 32075 net.cpp:141] Setting up lstm2_transform_1
I0801 02:37:55.418805 32075 net.cpp:148] Top shape: 1 1 4000 (4000)
I0801 02:37:55.418813 32075 net.cpp:156] Memory required for data: 66020
I0801 02:37:55.418841 32075 layer_factory.hpp:77] Creating layer lstm2_gate_input_1
I0801 02:37:55.418869 32075 net.cpp:91] Creating Layer lstm2_gate_input_1
I0801 02:37:55.418879 32075 net.cpp:425] lstm2_gate_input_1 <- W_hc_h_0
I0801 02:37:55.418894 32075 net.cpp:425] lstm2_gate_input_1 <- W_xc_x_1
I0801 02:37:55.418911 32075 net.cpp:399] lstm2_gate_input_1 -> gate_input_1
I0801 02:37:55.418974 32075 net.cpp:141] Setting up lstm2_gate_input_1
I0801 02:37:55.418997 32075 net.cpp:148] Top shape: 1 1 4000 (4000)
I0801 02:37:55.419004 32075 net.cpp:156] Memory required for data: 82020
I0801 02:37:55.419013 32075 layer_factory.hpp:77] Creating layer lstm2_unit_1
I0801 02:37:55.419024 32075 net.cpp:91] Creating Layer lstm2_unit_1
I0801 02:37:55.419033 32075 net.cpp:425] lstm2_unit_1 <- c_0
I0801 02:37:55.419042 32075 net.cpp:425] lstm2_unit_1 <- gate_input_1
I0801 02:37:55.419052 32075 net.cpp:425] lstm2_unit_1 <- cont_1_lstm2_cont_slice_0_split_1
I0801 02:37:55.419064 32075 net.cpp:399] lstm2_unit_1 -> c_1
I0801 02:37:55.419077 32075 net.cpp:399] lstm2_unit_1 -> h_1
I0801 02:37:55.419170 32075 net.cpp:141] Setting up lstm2_unit_1
I0801 02:37:55.419186 32075 net.cpp:148] Top shape: 1 1 1000 (1000)
I0801 02:37:55.419198 32075 net.cpp:148] Top shape: 1 1 1000 (1000)
I0801 02:37:55.419206 32075 net.cpp:156] Memory required for data: 90020
I0801 02:37:55.419214 32075 layer_factory.hpp:77] Creating layer lstm2_
I0801 02:37:55.419227 32075 net.cpp:91] Creating Layer lstm2_
I0801 02:37:55.419235 32075 net.cpp:425] lstm2_ <- c_1
I0801 02:37:55.419247 32075 net.cpp:399] lstm2_ -> c_T
I0801 02:37:55.419296 32075 net.cpp:141] Setting up lstm2_
I0801 02:37:55.419314 32075 net.cpp:148] Top shape: 1 1 1000 (1000)
I0801 02:37:55.419323 32075 net.cpp:156] Memory required for data: 94020
I0801 02:37:55.419332 32075 layer_factory.hpp:77] Creating layer lstm2_h_concat
I0801 02:37:55.419348 32075 net.cpp:91] Creating Layer lstm2_h_concat
I0801 02:37:55.419358 32075 net.cpp:425] lstm2_h_concat <- h_1
I0801 02:37:55.419374 32075 net.cpp:399] lstm2_h_concat -> h
I0801 02:37:55.419443 32075 net.cpp:141] Setting up lstm2_h_concat
I0801 02:37:55.419461 32075 net.cpp:148] Top shape: 1 1 1000 (1000)
I0801 02:37:55.419471 32075 net.cpp:156] Memory required for data: 98020
I0801 02:37:55.419479 32075 layer_factory.hpp:77] Creating layer h_pseudoloss
I0801 02:37:55.419499 32075 net.cpp:91] Creating Layer h_pseudoloss
I0801 02:37:55.419510 32075 net.cpp:425] h_pseudoloss <- h
I0801 02:37:55.419523 32075 net.cpp:399] h_pseudoloss -> h_pseudoloss
I0801 02:37:55.419673 32075 net.cpp:141] Setting up h_pseudoloss
…
