…
Java HotSpot(TM) 64-Bit Server VM warning: You have loaded library /tmp/cvld5127659982302814481/libopencv_java310.xine1.so which might have disabled stack guard. The VM will try to fix the stack guard now.
It's highly recommended that you fix the library with 'execstack -c <libfile>', or link it with '-z noexecstack'.
WARNING: Logging before InitGoogleLogging() is written to STDERR
I0727 20:26:55.875581   458 net.cpp:49] Initializing net from parameters: 
name: "GoogleNet"
state {
  phase: TEST
}
layer {
  name: "data"
  type: "Input"
  top: "data"
  input_param {
    shape {
      dim: 10
      dim: 3
      dim: 224
      dim: 224
    }
  }
}
layer {
  name: "conv1/7x7_s2"
  type: "Convolution"
  bottom: "data"
  top: "conv1/7x7_s2"
  param {
    lr_mult: 1
    decay_mult: 1
  }
  param {
    lr_mult: 2
    decay_mult: 0
  }
  convolution_param {
    num_output: 64
    pad: 3
    kernel_size: 7
    stride: 2
    weight_filler {
      type: "xavier"
      std: 0.1
    }
    bias_filler {
      type: "constant"
      value: 0.2
    }
  }
}
layer {
  name: "conv1/relu_7x7"
  type: "ReLU"
  bottom: "conv1/7x7_s2"
  top: "conv1/7x7_s2"
}
layer {
  name: "pool1/3x3_s2"
  type: "Pooling"
  bottom: "conv1/7x7_s2"
  top: "pool1/3x3_s2"
  pooling_param {
    pool: MAX
    kernel_size: 3
    stride: 2
  }
}
layer {
  name: "pool1/norm1"
  type: "LRN"
  bottom: "pool1/3x3_s2"
  top: "pool1/norm1"
  lrn_param {
    local_size: 5
    alpha: 0.0001
    beta: 0.75
  }
}
layer {
  name: "conv2/3x3_reduce"
  type: "Convolution"
  bottom: "pool1/norm1"
  top: "conv2/3x3_reduce"
  param {
    lr_mult: 1
    decay_mult: 1
  }
  param {
    lr_mult: 2
    decay_mult: 0
  }
  convolution_param {
    num_output: 64
    kernel_size: 1
    weight_filler {
      type: "xavier"
      std: 0.1
    }
    bias_filler {
      type: "constant"
      value: 0.2
    }
  }
}
layer {
  name: "conv2/relu_3x3_reduce"
  type: "ReLU"
  bottom: "conv2/3x3_reduce"
  top: "conv2/3x3_reduce"
}
layer {
  name: "conv2/3x3"
  type: "Convolution"
  bottom: "conv2/3x3_reduce"
  top: "conv2/3x3"
  param {
    lr_mult: 1
    decay_mult: 1
  }
  param {
    lr_mult: 2
    decay_mult: 0
  }
  convolution_param {
    num_output: 192
    pad: 1
    kernel_size: 3
    weight_filler {
      type: "xavier"
      std: 0.03
    }
    bias_filler {
      type: "constant"
      value: 0.2
    }
  }
}
layer {
  name: "conv2/relu_3x3"
  type: "ReLU"
  bottom: "conv2/3x3"
  top: "conv2/3x3"
}
layer {
  name: "conv2/norm2"
  type: "LRN"
  bottom: "conv2/3x3"
  top: "conv2/norm2"
  lrn_param {
    local_size: 5
    alpha: 0.0001
    beta: 0.75
  }
}
layer {
  name: "pool2/3x3_s2"
  type: "Pooling"
  bottom: "conv2/norm2"
  top: "pool2/3x3_s2"
  pooling_param {
    pool: MAX
    kernel_size: 3
    stride: 2
  }
}
layer {
  name: "inception_3a/1x1"
  type: "Convolution"
  bottom: "pool2/3x3_s2"
  top: "inception_3a/1x1"
  param {
    lr_mult: 1
    decay_mult: 1
  }
  param {
    lr_mult: 2
    decay_mult: 0
  }
  convolution_param {
    num_output: 64
    kernel_size: 1
    weight_filler {
      type: "xavier"
      std: 0.03
    }
    bias_filler {
      type: "constant"
      value: 0.2
    }
  }
}
layer {
  name: "inception_3a/relu_1x1"
  type: "ReLU"
  bottom: "inception_3a/1x1"
  top: "inception_3a/1x1"
}
layer {
  name: "inception_3a/3x3_reduce"
  type: "Convolution"
  bottom: "pool2/3x3_s2"
  top: "inception_3a/3x3_reduce"
  param {
    lr_mult: 1
    decay_mult: 1
  }
  param {
    lr_mult: 2
    decay_mult: 0
  }
  convolution_param {
    num_output: 96
    kernel_size: 1
    weight_filler {
      type: "xavier"
      std: 0.09
    }
    bias_filler {
      type: "constant"
      value: 0.2
    }
  }
}
layer {
  name: "inception_3a/relu_3x3_reduce"
  type: "ReLU"
  bottom: "inception_3a/3x3_reduce"
  top: "inception_3a/3x3_reduce"
}
layer {
  name: "inception_3a/3x3"
  type: "Convolution"
  bottom: "inception_3a/3x3_reduce"
  top: "inception_3a/3x3"
  param {
    lr_mult: 1
    decay_mult: 1
  }
  param {
    lr_mult: 2
    decay_mult: 0
  }
  convolution_param {
    num_output: 128
    pad: 1
    kernel_size: 3
    weight_filler {
      type: "xavier"
      std: 0.03
    }
    bias_filler {
      type: "constant"
      value: 0.2
    }
  }
}
layer {
  name: "inception_3a/relu_3x3"
  type: "ReLU"
  bottom: "inception_3a/3x3"
  top: "inception_3a/3x3"
}
layer {
  name: "inception_3a/5x5_reduce"
  type: "Convolution"
  bottom: "pool2/3x3_s2"
  top: "inception_3a/5x5_reduce"
  param {
    lr_mult: 1
    decay_mult: 1
  }
  param {
    lr_mult: 2
    decay_mult: 0
  }
  convolution_param {
    num_output: 16
    kernel_size: 1
    weight_filler {
      type: "xavier"
      std: 0.2
    }
    bias_filler {
      type: "constant"
      value: 0.2
    }
  }
}
layer {
  name: "inception_3a/relu_5x5_reduce"
  type: "ReLU"
  bottom: "inception_3a/5x5_reduce"
  top: "inception_3a/5x5_reduce"
}
layer {
  name: "inception_3a/5x5"
  type: "Convolution"
  bottom: "inception_3a/5x5_reduce"
  top: "inception_3a/5x5"
  param {
    lr_mult: 1
    decay_mult: 1
  }
  param {
    lr_mult: 2
    decay_mult: 0
  }
  convolution_param {
    num_output: 32
    pad: 2
    kernel_size: 5
    weight_filler {
      type: "xavier"
      std: 0.03
    }
    bias_filler {
      type: "constant"
      value: 0.2
    }
  }
}
layer {
  name: "inception_3a/relu_5x5"
  type: "ReLU"
  bottom: "inception_3a/5x5"
  top: "inception_3a/5x5"
}
layer {
  name: "inception_3a/pool"
  type: "Pooling"
  bottom: "pool2/3x3_s2"
  top: "inception_3a/pool"
  pooling_param {
    pool: MAX
    kernel_size: 3
    stride: 1
    pad: 1
  }
}
layer {
  name: "inception_3a/pool_proj"
  type: "Convolution"
  bottom: "inception_3a/pool"
  top: "inception_3a/pool_proj"
  param {
    lr_mult: 1
    decay_mult: 1
  }
  param {
    lr_mult: 2
    decay_mult: 0
  }
  convolution_param {
    num_output: 32
    kernel_size: 1
    weight_filler {
      type: "xavier"
      std: 0.1
    }
    bias_filler {
      type: "constant"
      value: 0.2
    }
  }
}
layer {
  name: "inception_3a/relu_pool_proj"
  type: "ReLU"
  bottom: "inception_3a/pool_proj"
  top: "inception_3a/pool_proj"
}
layer {
  name: "inception_3a/output"
  type: "Concat"
  bottom: "inception_3a/1x1"
  bottom: "inception_3a/3x3"
  bottom: "inception_3a/5x5"
  bottom: "inception_3a/pool_proj"
  top: "inception_3a/output"
}
layer {
  name: "inception_3b/1x1"
  type: "Convolution"
  bottom: "inception_3a/output"
  top: "inception_3b/1x1"
  param {
    lr_mult: 1
    decay_mult: 1
  }
  param {
    lr_mult: 2
    decay_mult: 0
  }
  convolution_param {
    num_output: 128
    kernel_size: 1
    weight_filler {
      type: "xavier"
      std: 0.03
    }
    bias_filler {
      type: "constant"
      value: 0.2
    }
  }
}
layer {
  name: "inception_3b/relu_1x1"
  type: "ReLU"
  bottom: "inception_3b/1x1"
  top: "inception_3b/1x1"
}
layer {
  name: "inception_3b/3x3_reduce"
  type: "Convolution"
  bottom: "inception_3a/output"
  top: "inception_3b/3x3_reduce"
  param {
    lr_mult: 1
    decay_mult: 1
  }
  param {
    lr_mult: 2
    decay_mult: 0
  }
  convolution_param {
    num_output: 128
    kernel_size: 1
    weight_filler {
      type: "xavier"
      std: 0.09
    }
    bias_filler {
      type: "constant"
      value: 0.2
    }
  }
}
layer {
  name: "inception_3b/relu_3x3_reduce"
  type: "ReLU"
  bottom: "inception_3b/3x3_reduce"
  top: "inception_3b/3x3_reduce"
}
layer {
  name: "inception_3b/3x3"
  type: "Convolution"
  bottom: "inception_3b/3x3_reduce"
  top: "inception_3b/3x3"
  param {
    lr_mult: 1
    decay_mult: 1
  }
  param {
    lr_mult: 2
    decay_mult: 0
  }
  convolution_param {
    num_output: 192
    pad: 1
    kernel_size: 3
    weight_filler {
      type: "xavier"
      std: 0.03
    }
    bias_filler {
      type: "constant"
      value: 0.2
    }
  }
}
layer {
  name: "inception_3b/relu_3x3"
  type: "ReLU"
  bottom: "inception_3b/3x3"
  top: "inception_3b/3x3"
}
layer {
  name: "inception_3b/5x5_reduce"
  type: "Convolution"
  bottom: "inception_3a/output"
  top: "inception_3b/5x5_reduce"
  param {
    lr_mult: 1
    decay_mult: 1
  }
  param {
    lr_mult: 2
    decay_mult: 0
  }
  convolution_param {
    num_output: 32
    kernel_size: 1
    weight_filler {
      type: "xavier"
      std: 0.2
    }
    bias_filler {
      type: "constant"
      value: 0.2
    }
  }
}
layer {
  name: "inception_3b/relu_5x5_reduce"
  type: "ReLU"
  bottom: "inception_3b/5x5_reduce"
  top: "inception_3b/5x5_reduce"
}
layer {
  name: "inception_3b/5x5"
  type: "Convolution"
  bottom: "inception_3b/5x5_reduce"
  top: "inception_3b/5x5"
  param {
    lr_mult: 1
    decay_mult: 1
  }
  param {
    lr_mult: 2
    decay_mult: 0
  }
  convolution_param {
    num_output: 96
    pad: 2
    kernel_size: 5
    weight_filler {
      type: "xavier"
      std: 0.03
    }
    bias_filler {
      type: "constant"
      value: 0.2
    }
  }
}
layer {
  name: "inception_3b/relu_5x5"
  type: "ReLU"
  bottom: "inception_3b/5x5"
  top: "inception_3b/5x5"
}
layer {
  name: "inception_3b/pool"
  type: "Pooling"
  bottom: "inception_3a/output"
  top: "inception_3b/pool"
  pooling_param {
    pool: MAX
    kernel_size: 3
    stride: 1
    pad: 1
  }
}
layer {
  name: "inception_3b/pool_proj"
  type: "Convolution"
  bottom: "inception_3b/pool"
  top: "inception_3b/pool_proj"
  param {
    lr_mult: 1
    decay_mult: 1
  }
  param {
    lr_mult: 2
    decay_mult: 0
  }
  convolution_param {
    num_output: 64
    kernel_size: 1
    weight_filler {
      type: "xavier"
      std: 0.1
    }
    bias_filler {
      type: "constant"
      value: 0.2
    }
  }
}
layer {
  name: "inception_3b/relu_pool_proj"
  type: "ReLU"
  bottom: "inception_3b/pool_proj"
  top: "inception_3b/pool_proj"
}
layer {
  name: "inception_3b/output"
  type: "Concat"
  bottom: "inception_3b/1x1"
  bottom: "inception_3b/3x3"
  bottom: "inception_3b/5x5"
  bottom: "inception_3b/pool_proj"
  top: "inception_3b/output"
}
layer {
  name: "pool3/3x3_s2"
  type: "Pooling"
  bottom: "inception_3b/output"
  top: "pool3/3x3_s2"
  pooling_param {
    pool: MAX
    kernel_size: 3
    stride: 2
  }
}
layer {
  name: "inception_4a/1x1"
  type: "Convolution"
  bottom: "pool3/3x3_s2"
  top: "inception_4a/1x1"
  param {
    lr_mult: 1
    decay_mult: 1
  }
  param {
    lr_mult: 2
    decay_mult: 0
  }
  convolution_param {
    num_output: 192
    kernel_size: 1
    weight_filler {
      type: "xavier"
      std: 0.03
    }
    bias_filler {
      type: "constant"
      value: 0.2
    }
  }
}
layer {
  name: "inception_4a/relu_1x1"
  type: "ReLU"
  bottom: "inception_4a/1x1"
  top: "inception_4a/1x1"
}
layer {
  name: "inception_4a/3x3_reduce"
  type: "Convolution"
  bottom: "pool3/3x3_s2"
  top: "inception_4a/3x3_reduce"
  param {
    lr_mult: 1
    decay_mult: 1
  }
  param {
    lr_mult: 2
    decay_mult: 0
  }
  convolution_param {
    num_output: 96
    kernel_size: 1
    weight_filler {
      type: "xavier"
      std: 0.09
    }
    bias_filler {
      type: "constant"
      value: 0.2
    }
  }
}
layer {
  name: "inception_4a/relu_3x3_reduce"
  type: "ReLU"
  bottom: "inception_4a/3x3_reduce"
  top: "inception_4a/3x3_reduce"
}
layer {
  name: "inception_4a/3x3"
  type: "Convolution"
  bottom: "inception_4a/3x3_reduce"
  top: "inception_4a/3x3"
  param {
    lr_mult: 1
    decay_mult: 1
  }
  param {
    lr_mult: 2
    decay_mult: 0
  }
  convolution_param {
    num_output: 208
    pad: 1
    kernel_size: 3
    weight_filler {
      type: "xavier"
      std: 0.03
    }
    bias_filler {
      type: "constant"
      value: 0.2
    }
  }
}
layer {
  name: "inception_4a/relu_3x3"
  type: "ReLU"
  bottom: "inception_4a/3x3"
  top: "inception_4a/3x3"
}
layer {
  name: "inception_4a/5x5_reduce"
  type: "Convolution"
  bottom: "pool3/3x3_s2"
  top: "inception_4a/5x5_reduce"
  param {
    lr_mult: 1
    decay_mult: 1
  }
  param {
    lr_mult: 2
    decay_mult: 0
  }
  convolution_param {
    num_output: 16
    kernel_size: 1
    weight_filler {
      type: "xavier"
      std: 0.2
    }
    bias_filler {
      type: "constant"
      value: 0.2
    }
  }
}
layer {
  name: "inception_4a/relu_5x5_reduce"
  type: "ReLU"
  bottom: "inception_4a/5x5_reduce"
  top: "inception_4a/5x5_reduce"
}
layer {
  name: "inception_4a/5x5"
  type: "Convolution"
  bottom: "inception_4a/5x5_reduce"
  top: "inception_4a/5x5"
  param {
    lr_mult: 1
    decay_mult: 1
  }
  param {
    lr_mult: 2
    decay_mult: 0
  }
  convolution_param {
    num_output: 48
    pad: 2
    kernel_size: 5
    weight_filler {
      type: "xavier"
      std: 0.03
    }
    bias_filler {
      type: "constant"
      value: 0.2
    }
  }
}
layer {
  name: "inception_4a/relu_5x5"
  type: "ReLU"
  bottom: "inception_4a/5x5"
  top: "inception_4a/5x5"
}
layer {
  name: "inception_4a/pool"
  type: "Pooling"
  bottom: "pool3/3x3_s2"
  top: "inception_4a/pool"
  pooling_param {
    pool: MAX
    kernel_size: 3
    stride: 1
    pad: 1
  }
}
layer {
  name: "inception_4a/pool_proj"
  type: "Convolution"
  bottom: "inception_4a/pool"
  top: "inception_4a/pool_proj"
  param {
    lr_mult: 1
    decay_mult: 1
  }
  param {
    lr_mult: 2
    decay_mult: 0
  }
  convolution_param {
    num_output: 64
    kernel_size: 1
    weight_filler {
      type: "xavier"
      std: 0.1
    }
    bias_filler {
      type: "constant"
      value: 0.2
    }
  }
}
layer {
  name: "inception_4a/relu_pool_proj"
  type: "ReLU"
  bottom: "inception_4a/pool_proj"
  top: "inception_4a/pool_proj"
}
layer {
  name: "inception_4a/output"
  type: "Concat"
  bottom: "inception_4a/1x1"
  bottom: "inception_4a/3x3"
  bottom: "inception_4a/5x5"
  bottom: "inception_4a/pool_proj"
  top: "inception_4a/output"
}
layer {
  name: "inception_4b/1x1"
  type: "Convolution"
  bottom: "inception_4a/output"
  top: "inception_4b/1x1"
  param {
    lr_mult: 1
    decay_mult: 1
  }
  param {
    lr_mult: 2
    decay_mult: 0
  }
  convolution_param {
    num_output: 160
    kernel_size: 1
    weight_filler {
      type: "xavier"
      std: 0.03
    }
    bias_filler {
      type: "constant"
      value: 0.2
    }
  }
}
layer {
  name: "inception_4b/relu_1x1"
  type: "ReLU"
  bottom: "inception_4b/1x1"
  top: "inception_4b/1x1"
}
layer {
  name: "inception_4b/3x3_reduce"
  type: "Convolution"
  bottom: "inception_4a/output"
  top: "inception_4b/3x3_reduce"
  param {
    lr_mult: 1
    decay_mult: 1
  }
  param {
    lr_mult: 2
    decay_mult: 0
  }
  convolution_param {
    num_output: 112
    kernel_size: 1
    weight_filler {
      type: "xavier"
      std: 0.09
    }
    bias_filler {
      type: "constant"
      value: 0.2
    }
  }
}
layer {
  name: "inception_4b/relu_3x3_reduce"
  type: "ReLU"
  bottom: "inception_4b/3x3_reduce"
  top: "inception_4b/3x3_reduce"
}
layer {
  name: "inception_4b/3x3"
  type: "Convolution"
  bottom: "inception_4b/3x3_reduce"
  top: "inception_4b/3x3"
  param {
    lr_mult: 1
    decay_mult: 1
  }
  param {
    lr_mult: 2
    decay_mult: 0
  }
  convolution_param {
    num_output: 224
    pad: 1
    kernel_size: 3
    weight_filler {
      type: "xavier"
      std: 0.03
    }
    bias_filler {
      type: "constant"
      value: 0.2
    }
  }
}
layer {
  name: "inception_4b/relu_3x3"
  type: "ReLU"
  bottom: "inception_4b/3x3"
  top: "inception_4b/3x3"
}
layer {
  name: "inception_4b/5x5_reduce"
  type: "Convolution"
  bottom: "inception_4a/output"
  top: "inception_4b/5x5_reduce"
  param {
    lr_mult: 1
    decay_mult: 1
  }
  param {
    lr_mult: 2
    decay_mult: 0
  }
  convolution_param {
    num_output: 24
    kernel_size: 1
    weight_filler {
      type: "xavier"
      std: 0.2
    }
    bias_filler {
      type: "constant"
      value: 0.2
    }
  }
}
layer {
  name: "inception_4b/relu_5x5_reduce"
  type: "ReLU"
  bottom: "inception_4b/5x5_reduce"
  top: "inception_4b/5x5_reduce"
}
layer {
  name: "inception_4b/5x5"
  type: "Convolution"
  bottom: "inception_4b/5x5_reduce"
  top: "inception_4b/5x5"
  param {
    lr_mult: 1
    decay_mult: 1
  }
  param {
    lr_mult: 2
    decay_mult: 0
  }
  convolution_param {
    num_output: 64
    pad: 2
    kernel_size: 5
    weight_filler {
      type: "xavier"
      std: 0.03
    }
    bias_filler {
      type: "constant"
      value: 0.2
    }
  }
}
layer {
  name: "inception_4b/relu_5x5"
  type: "ReLU"
  bottom: "inception_4b/5x5"
  top: "inception_4b/5x5"
}
layer {
  name: "inception_4b/pool"
  type: "Pooling"
  bottom: "inception_4a/output"
  top: "inception_4b/pool"
  pooling_param {
    pool: MAX
    kernel_size: 3
    stride: 1
    pad: 1
  }
}
layer {
  name: "inception_4b/pool_proj"
  type: "Convolution"
  bottom: "inception_4b/pool"
  top: "inception_4b/pool_proj"
  param {
    lr_mult: 1
    decay_mult: 1
  }
  param {
    lr_mult: 2
    decay_mult: 0
  }
  convolution_param {
    num_output: 64
    kernel_size: 1
    weight_filler {
      type: "xavier"
      std: 0.1
    }
    bias_filler {
      type: "constant"
      value: 0.2
    }
  }
}
layer {
  name: "inception_4b/relu_pool_proj"
  type: "ReLU"
  bottom: "inception_4b/pool_proj"
  top: "inception_4b/pool_proj"
}
layer {
  name: "inception_4b/output"
  type: "Concat"
  bottom: "inception_4b/1x1"
  bottom: "inception_4b/3x3"
  bottom: "inception_4b/5x5"
  bottom: "inception_4b/pool_proj"
  top: "inception_4b/output"
}
layer {
  name: "inception_4c/1x1"
  type: "Convolution"
  bottom: "inception_4b/output"
  top: "inception_4c/1x1"
  param {
    lr_mult: 1
    decay_mult: 1
  }
  param {
    lr_mult: 2
    decay_mult: 0
  }
  convolution_param {
    num_output: 128
    kernel_size: 1
    weight_filler {
      type: "xavier"
      std: 0.03
    }
    bias_filler {
      type: "constant"
      value: 0.2
    }
  }
}
layer {
  name: "inception_4c/relu_1x1"
  type: "ReLU"
  bottom: "inception_4c/1x1"
  top: "inception_4c/1x1"
}
layer {
  name: "inception_4c/3x3_reduce"
  type: "Convolution"
  bottom: "inception_4b/output"
  top: "inception_4c/3x3_reduce"
  param {
    lr_mult: 1
    decay_mult: 1
  }
  param {
    lr_mult: 2
    decay_mult: 0
  }
  convolution_param {
    num_output: 128
    kernel_size: 1
    weight_filler {
      type: "xavier"
      std: 0.09
    }
    bias_filler {
      type: "constant"
      value: 0.2
    }
  }
}
layer {
  name: "inception_4c/relu_3x3_reduce"
  type: "ReLU"
  bottom: "inception_4c/3x3_reduce"
  top: "inception_4c/3x3_reduce"
}
layer {
  name: "inception_4c/3x3"
  type: "Convolution"
  bottom: "inception_4c/3x3_reduce"
  top: "inception_4c/3x3"
  param {
    lr_mult: 1
    decay_mult: 1
  }
  param {
    lr_mult: 2
    decay_mult: 0
  }
  convolution_param {
    num_output: 256
    pad: 1
    kernel_size: 3
    weight_filler {
      type: "xavier"
      std: 0.03
    }
    bias_filler {
      type: "constant"
      value: 0.2
    }
  }
}
layer {
  name: "inception_4c/relu_3x3"
  type: "ReLU"
  bottom: "inception_4c/3x3"
  top: "inception_4c/3x3"
}
layer {
  name: "inception_4c/5x5_reduce"
  type: "Convolution"
  bottom: "inception_4b/output"
  top: "inception_4c/5x5_reduce"
  param {
    lr_mult: 1
    decay_mult: 1
  }
  param {
    lr_mult: 2
    decay_mult: 0
  }
  convolution_param {
    num_output: 24
    kernel_size: 1
    weight_filler {
      type: "xavier"
      std: 0.2
    }
    bias_filler {
      type: "constant"
      value: 0.2
    }
  }
}
layer {
  name: "inception_4c/relu_5x5_reduce"
  type: "ReLU"
  bottom: "inception_4c/5x5_reduce"
  top: "inception_4c/5x5_reduce"
}
layer {
  name: "inception_4c/5x5"
  type: "Convolution"
  bottom: "inception_4c/5x5_reduce"
  top: "inception_4c/5x5"
  param {
    lr_mult: 1
    decay_mult: 1
  }
  param {
    lr_mult: 2
    decay_mult: 0
  }
  convolution_param {
    num_output: 64
    pad: 2
    kernel_size: 5
    weight_filler {
      type: "xavier"
      std: 0.03
    }
    bias_filler {
      type: "constant"
      value: 0.2
    }
  }
}
layer {
  name: "inception_4c/relu_5x5"
  type: "ReLU"
  bottom: "inception_4c/5x5"
  top: "inception_4c/5x5"
}
layer {
  name: "inception_4c/pool"
  type: "Pooling"
  bottom: "inception_4b/output"
  top: "inception_4c/pool"
  pooling_param {
    pool: MAX
    kernel_size: 3
    stride: 1
    pad: 1
  }
}
layer {
  name: "inception_4c/pool_proj"
  type: "Convolution"
  bottom: "inception_4c/pool"
  top: "inception_4c/pool_proj"
  param {
    lr_mult: 1
    decay_mult: 1
  }
  param {
    lr_mult: 2
    decay_mult: 0
  }
  convolution_param {
    num_output: 64
    kernel_size: 1
    weight_filler {
      type: "xavier"
      std: 0.1
    }
    bias_filler {
      type: "constant"
      value: 0.2
    }
  }
}
layer {
  name: "inception_4c/relu_pool_proj"
  type: "ReLU"
  bottom: "inception_4c/pool_proj"
  top: "inception_4c/pool_proj"
}
layer {
  name: "inception_4c/output"
  type: "Concat"
  bottom: "inception_4c/1x1"
  bottom: "inception_4c/3x3"
  bottom: "inception_4c/5x5"
  bottom: "inception_4c/pool_proj"
  top: "inception_4c/output"
}
layer {
  name: "inception_4d/1x1"
  type: "Convolution"
  bottom: "inception_4c/output"
  top: "inception_4d/1x1"
  param {
    lr_mult: 1
    decay_mult: 1
  }
  param {
    lr_mult: 2
    decay_mult: 0
  }
  convolution_param {
    num_output: 112
    kernel_size: 1
    weight_filler {
      type: "xavier"
      std: 0.03
    }
    bias_filler {
      type: "constant"
      value: 0.2
    }
  }
}
layer {
  name: "inception_4d/relu_1x1"
  type: "ReLU"
  bottom: "inception_4d/1x1"
  top: "inception_4d/1x1"
}
layer {
  name: "inception_4d/3x3_reduce"
  type: "Convolution"
  bottom: "inception_4c/output"
  top: "inception_4d/3x3_reduce"
  param {
    lr_mult: 1
    decay_mult: 1
  }
  param {
    lr_mult: 2
    decay_mult: 0
  }
  convolution_param {
    num_output: 144
    kernel_size: 1
    weight_filler {
      type: "xavier"
      std: 0.09
    }
    bias_filler {
      type: "constant"
      value: 0.2
    }
  }
}
layer {
  name: "inception_4d/relu_3x3_reduce"
  type: "ReLU"
  bottom: "inception_4d/3x3_reduce"
  top: "inception_4d/3x3_reduce"
}
layer {
  name: "inception_4d/3x3"
  type: "Convolution"
  bottom: "inception_4d/3x3_reduce"
  top: "inception_4d/3x3"
  param {
    lr_mult: 1
    decay_mult: 1
  }
  param {
    lr_mult: 2
    decay_mult: 0
  }
  convolution_param {
    num_output: 288
    pad: 1
    kernel_size: 3
    weight_filler {
      type: "xavier"
      std: 0.03
    }
    bias_filler {
      type: "constant"
      value: 0.2
    }
  }
}
layer {
  name: "inception_4d/relu_3x3"
  type: "ReLU"
  bottom: "inception_4d/3x3"
  top: "inception_4d/3x3"
}
layer {
  name: "inception_4d/5x5_reduce"
  type: "Convolution"
  bottom: "inception_4c/output"
  top: "inception_4d/5x5_reduce"
  param {
    lr_mult: 1
    decay_mult: 1
  }
  param {
    lr_mult: 2
    decay_mult: 0
  }
  convolution_param {
    num_output: 32
    kernel_size: 1
    weight_filler {
      type: "xavier"
      std: 0.2
    }
    bias_filler {
      type: "constant"
      value: 0.2
    }
  }
}
layer {
  name: "inception_4d/relu_5x5_reduce"
  type: "ReLU"
  bottom: "inception_4d/5x5_reduce"
  top: "inception_4d/5x5_reduce"
}
layer {
  name: "inception_4d/5x5"
  type: "Convolution"
  bottom: "inception_4d/5x5_reduce"
  top: "inception_4d/5x5"
  param {
    lr_mult: 1
    decay_mult: 1
  }
  param {
    lr_mult: 2
    decay_mult: 0
  }
  convolution_param {
    num_output: 64
    pad: 2
    kernel_size: 5
    weight_filler {
      type: "xavier"
      std: 0.03
    }
    bias_filler {
      type: "constant"
      value: 0.2
    }
  }
}
layer {
  name: "inception_4d/relu_5x5"
  type: "ReLU"
  bottom: "inception_4d/5x5"
  top: "inception_4d/5x5"
}
layer {
  name: "inception_4d/pool"
  type: "Pooling"
  bottom: "inception_4c/output"
  top: "inception_4d/pool"
  pooling_param {
    pool: MAX
    kernel_size: 3
    stride: 1
    pad: 1
  }
}
layer {
  name: "inception_4d/pool_proj"
  type: "Convolution"
  bottom: "inception_4d/pool"
  top: "inception_4d/pool_proj"
  param {
    lr_mult: 1
    decay_mult: 1
  }
  param {
    lr_mult: 2
    decay_mult: 0
  }
  convolution_param {
    num_output: 64
    kernel_size: 1
    weight_filler {
      type: "xavier"
      std: 0.1
    }
    bias_filler {
      type: "constant"
      value: 0.2
    }
  }
}
layer {
  name: "inception_4d/relu_pool_proj"
  type: "ReLU"
  bottom: "inception_4d/pool_proj"
  top: "inception_4d/pool_proj"
}
layer {
  name: "inception_4d/output"
  type: "Concat"
  bottom: "inception_4d/1x1"
  bottom: "inception_4d/3x3"
  bottom: "inception_4d/5x5"
  bottom: "inception_4d/pool_proj"
  top: "inception_4d/output"
}
layer {
  name: "inception_4e/1x1"
  type: "Convolution"
  bottom: "inception_4d/output"
  top: "inception_4e/1x1"
  param {
    lr_mult: 1
    decay_mult: 1
  }
  param {
    lr_mult: 2
    decay_mult: 0
  }
  convolution_param {
    num_output: 256
    kernel_size: 1
    weight_filler {
      type: "xavier"
      std: 0.03
    }
    bias_filler {
      type: "constant"
      value: 0.2
    }
  }
}
layer {
  name: "inception_4e/relu_1x1"
  type: "ReLU"
  bottom: "inception_4e/1x1"
  top: "inception_4e/1x1"
}
layer {
  name: "inception_4e/3x3_reduce"
  type: "Convolution"
  bottom: "inception_4d/output"
  top: "inception_4e/3x3_reduce"
  param {
    lr_mult: 1
    decay_mult: 1
  }
  param {
    lr_mult: 2
    decay_mult: 0
  }
  convolution_param {
    num_output: 160
    kernel_size: 1
    weight_filler {
      type: "xavier"
      std: 0.09
    }
    bias_filler {
      type: "constant"
      value: 0.2
    }
  }
}
layer {
  name: "inception_4e/relu_3x3_reduce"
  type: "ReLU"
  bottom: "inception_4e/3x3_reduce"
  top: "inception_4e/3x3_reduce"
}
layer {
  name: "inception_4e/3x3"
  type: "Convolution"
  bottom: "inception_4e/3x3_reduce"
  top: "inception_4e/3x3"
  param {
    lr_mult: 1
    decay_mult: 1
  }
  param {
    lr_mult: 2
    decay_mult: 0
  }
  convolution_param {
    num_output: 320
    pad: 1
    kernel_size: 3
    weight_filler {
      type: "xavier"
      std: 0.03
    }
    bias_filler {
      type: "constant"
      value: 0.2
    }
  }
}
layer {
  name: "inception_4e/relu_3x3"
  type: "ReLU"
  bottom: "inception_4e/3x3"
  top: "inception_4e/3x3"
}
layer {
  name: "inception_4e/5x5_reduce"
  type: "Convolution"
  bottom: "inception_4d/output"
  top: "inception_4e/5x5_reduce"
  param {
    lr_mult: 1
    decay_mult: 1
  }
  param {
    lr_mult: 2
    decay_mult: 0
  }
  convolution_param {
    num_output: 32
    kernel_size: 1
    weight_filler {
      type: "xavier"
      std: 0.2
    }
    bias_filler {
      type: "constant"
      value: 0.2
    }
  }
}
layer {
  name: "inception_4e/relu_5x5_reduce"
  type: "ReLU"
  bottom: "inception_4e/5x5_reduce"
  top: "inception_4e/5x5_reduce"
}
layer {
  name: "inception_4e/5x5"
  type: "Convolution"
  bottom: "inception_4e/5x5_reduce"
  top: "inception_4e/5x5"
  param {
    lr_mult: 1
    decay_mult: 1
  }
  param {
    lr_mult: 2
    decay_mult: 0
  }
  convolution_param {
    num_output: 128
    pad: 2
    kernel_size: 5
    weight_filler {
      type: "xavier"
      std: 0.03
    }
    bias_filler {
      type: "constant"
      value: 0.2
    }
  }
}
layer {
  name: "inception_4e/relu_5x5"
  type: "ReLU"
  bottom: "inception_4e/5x5"
  top: "inception_4e/5x5"
}
layer {
  name: "inception_4e/pool"
  type: "Pooling"
  bottom: "inception_4d/output"
  top: "inception_4e/pool"
  pooling_param {
    pool: MAX
    kernel_size: 3
    stride: 1
    pad: 1
  }
}
layer {
  name: "inception_4e/pool_proj"
  type: "Convolution"
  bottom: "inception_4e/pool"
  top: "inception_4e/pool_proj"
  param {
    lr_mult: 1
    decay_mult: 1
  }
  param {
    lr_mult: 2
    decay_mult: 0
  }
  convolution_param {
    num_output: 128
    kernel_size: 1
    weight_filler {
      type: "xavier"
      std: 0.1
    }
    bias_filler {
      type: "constant"
      value: 0.2
    }
  }
}
layer {
  name: "inception_4e/relu_pool_proj"
  type: "ReLU"
  bottom: "inception_4e/pool_proj"
  top: "inception_4e/pool_proj"
}
layer {
  name: "inception_4e/output"
  type: "Concat"
  bottom: "inception_4e/1x1"
  bottom: "inception_4e/3x3"
  bottom: "inception_4e/5x5"
  bottom: "inception_4e/pool_proj"
  top: "inception_4e/output"
}
layer {
  name: "pool4/3x3_s2"
  type: "Pooling"
  bottom: "inception_4e/output"
  top: "pool4/3x3_s2"
  pooling_param {
    pool: MAX
    kernel_size: 3
    stride: 2
  }
}
layer {
  name: "inception_5a/1x1"
  type: "Convolution"
  bottom: "pool4/3x3_s2"
  top: "inception_5a/1x1"
  param {
    lr_mult: 1
    decay_mult: 1
  }
  param {
    lr_mult: 2
    decay_mult: 0
  }
  convolution_param {
    num_output: 256
    kernel_size: 1
    weight_filler {
      type: "xavier"
      std: 0.03
    }
    bias_filler {
      type: "constant"
      value: 0.2
    }
  }
}
layer {
  name: "inception_5a/relu_1x1"
  type: "ReLU"
  bottom: "inception_5a/1x1"
  top: "inception_5a/1x1"
}
layer {
  name: "inception_5a/3x3_reduce"
  type: "Convolution"
  bottom: "pool4/3x3_s2"
  top: "inception_5a/3x3_reduce"
  param {
    lr_mult: 1
    decay_mult: 1
  }
  param {
    lr_mult: 2
    decay_mult: 0
  }
  convolution_param {
    num_output: 160
    kernel_size: 1
    weight_filler {
      type: "xavier"
      std: 0.09
    }
    bias_filler {
      type: "constant"
      value: 0.2
    }
  }
}
layer {
  name: "inception_5a/relu_3x3_reduce"
  type: "ReLU"
  bottom: "inception_5a/3x3_reduce"
  top: "inception_5a/3x3_reduce"
}
layer {
  name: "inception_5a/3x3"
  type: "Convolution"
  bottom: "inception_5a/3x3_reduce"
  top: "inception_5a/3x3"
  param {
    lr_mult: 1
    decay_mult: 1
  }
  param {
    lr_mult: 2
    decay_mult: 0
  }
  convolution_param {
    num_output: 320
    pad: 1
    kernel_size: 3
    weight_filler {
      type: "xavier"
      std: 0.03
    }
    bias_filler {
      type: "constant"
      value: 0.2
    }
  }
}
layer {
  name: "inception_5a/relu_3x3"
  type: "ReLU"
  bottom: "inception_5a/3x3"
  top: "inception_5a/3x3"
}
layer {
  name: "inception_5a/5x5_reduce"
  type: "Convolution"
  bottom: "pool4/3x3_s2"
  top: "inception_5a/5x5_reduce"
  param {
    lr_mult: 1
    decay_mult: 1
  }
  param {
    lr_mult: 2
    decay_mult: 0
  }
  convolution_param {
    num_output: 32
    kernel_size: 1
    weight_filler {
      type: "xavier"
      std: 0.2
    }
    bias_filler {
      type: "constant"
      value: 0.2
    }
I0727 20:26:55.876972   458 layer_factory.hpp:77] Creating layer data
I0727 20:26:55.877010   458 net.cpp:91] Creating Layer data
I0727 20:26:55.877027   458 net.cpp:399] data -> data
I0727 20:26:55.886035   454 net.cpp:49] Initializing net from parameters: 
name: "GoogleNet"
state {
  phase: TEST
}
layer {
  name: "data"
  type: "Input"
  top: "data"
  input_param {
    shape {
      dim: 10
      dim: 3
      dim: 224
      dim: 224
    }
  }
}
layer {
  name: "conv1/7x7_s2"
  type: "Convolution"
  bottom: "data"
  top: "conv1/7x7_s2"
  param {
    lr_mult: 1
    decay_mult: 1
  }
  param {
    lr_mult: 2
    decay_mult: 0
  }
  convolution_param {
    num_output: 64
    pad: 3
    kernel_size: 7
    stride: 2
    weight_filler {
      type: "xavier"
      std: 0.1
    }
    bias_filler {
      type: "constant"
      value: 0.2
    }
  }
}
layer {
  name: "conv1/relu_7x7"
  type: "ReLU"
  bottom: "conv1/7x7_s2"
  top: "conv1/7x7_s2"
}
layer {
  name: "pool1/3x3_s2"
  type: "Pooling"
  bottom: "conv1/7x7_s2"
  top: "pool1/3x3_s2"
  pooling_param {
    pool: MAX
    kernel_size: 3
    stride: 2
  }
}
layer {
  name: "pool1/norm1"
  type: "LRN"
  bottom: "pool1/3x3_s2"
  top: "pool1/norm1"
  lrn_param {
    local_size: 5
    alpha: 0.0001
    beta: 0.75
  }
}
layer {
  name: "conv2/3x3_reduce"
  type: "Convolution"
  bottom: "pool1/norm1"
  top: "conv2/3x3_reduce"
  param {
    lr_mult: 1
    decay_mult: 1
  }
  param {
    lr_mult: 2
    decay_mult: 0
  }
  convolution_param {
    num_output: 64
    kernel_size: 1
    weight_filler {
      type: "xavier"
      std: 0.1
    }
    bias_filler {
      type: "constant"
      value: 0.2
    }
  }
}
layer {
  name: "conv2/relu_3x3_reduce"
  type: "ReLU"
  bottom: "conv2/3x3_reduce"
  top: "conv2/3x3_reduce"
}
layer {
  name: "conv2/3x3"
  type: "Convolution"
  bottom: "conv2/3x3_reduce"
  top: "conv2/3x3"
  param {
    lr_mult: 1
    decay_mult: 1
  }
  param {
    lr_mult: 2
    decay_mult: 0
  }
  convolution_param {
    num_output: 192
    pad: 1
    kernel_size: 3
    weight_filler {
      type: "xavier"
      std: 0.03
    }
    bias_filler {
      type: "constant"
      value: 0.2
    }
  }
}
layer {
  name: "conv2/relu_3x3"
  type: "ReLU"
  bottom: "conv2/3x3"
  top: "conv2/3x3"
}
layer {
  name: "conv2/norm2"
  type: "LRN"
  bottom: "conv2/3x3"
  top: "conv2/norm2"
  lrn_param {
    local_size: 5
    alpha: 0.0001
    beta: 0.75
  }
}
layer {
  name: "pool2/3x3_s2"
  type: "Pooling"
  bottom: "conv2/norm2"
  top: "pool2/3x3_s2"
  pooling_param {
    pool: MAX
    kernel_size: 3
    stride: 2
  }
}
layer {
  name: "inception_3a/1x1"
  type: "Convolution"
  bottom: "pool2/3x3_s2"
  top: "inception_3a/1x1"
  param {
    lr_mult: 1
    decay_mult: 1
  }
  param {
    lr_mult: 2
    decay_mult: 0
  }
  convolution_param {
    num_output: 64
    kernel_size: 1
    weight_filler {
      type: "xavier"
      std: 0.03
    }
    bias_filler {
      type: "constant"
      value: 0.2
    }
  }
}
layer {
  name: "inception_3a/relu_1x1"
  type: "ReLU"
  bottom: "inception_3a/1x1"
  top: "inception_3a/1x1"
}
layer {
  name: "inception_3a/3x3_reduce"
  type: "Convolution"
  bottom: "pool2/3x3_s2"
  top: "inception_3a/3x3_reduce"
  param {
    lr_mult: 1
    decay_mult: 1
  }
  param {
    lr_mult: 2
    decay_mult: 0
  }
  convolution_param {
    num_output: 96
    kernel_size: 1
    weight_filler {
      type: "xavier"
      std: 0.09
    }
    bias_filler {
      type: "constant"
      value: 0.2
    }
  }
}
layer {
  name: "inception_3a/relu_3x3_reduce"
  type: "ReLU"
  bottom: "inception_3a/3x3_reduce"
  top: "inception_3a/3x3_reduce"
}
layer {
  name: "inception_3a/3x3"
  type: "Convolution"
  bottom: "inception_3a/3x3_reduce"
  top: "inception_3a/3x3"
  param {
    lr_mult: 1
    decay_mult: 1
  }
  param {
    lr_mult: 2
    decay_mult: 0
  }
  convolution_param {
    num_output: 128
    pad: 1
    kernel_size: 3
    weight_filler {
      type: "xavier"
      std: 0.03
    }
    bias_filler {
      type: "constant"
      value: 0.2
    }
  }
}
layer {
  name: "inception_3a/relu_3x3"
  type: "ReLU"
  bottom: "inception_3a/3x3"
  top: "inception_3a/3x3"
}
layer {
  name: "inception_3a/5x5_reduce"
  type: "Convolution"
  bottom: "pool2/3x3_s2"
  top: "inception_3a/5x5_reduce"
  param {
    lr_mult: 1
    decay_mult: 1
  }
  param {
    lr_mult: 2
    decay_mult: 0
  }
  convolution_param {
    num_output: 16
    kernel_size: 1
    weight_filler {
      type: "xavier"
      std: 0.2
    }
    bias_filler {
      type: "constant"
      value: 0.2
    }
  }
}
layer {
  name: "inception_3a/relu_5x5_reduce"
  type: "ReLU"
  bottom: "inception_3a/5x5_reduce"
  top: "inception_3a/5x5_reduce"
}
layer {
  name: "inception_3a/5x5"
  type: "Convolution"
  bottom: "inception_3a/5x5_reduce"
  top: "inception_3a/5x5"
  param {
    lr_mult: 1
    decay_mult: 1
  }
  param {
    lr_mult: 2
    decay_mult: 0
  }
  convolution_param {
    num_output: 32
    pad: 2
    kernel_size: 5
    weight_filler {
      type: "xavier"
      std: 0.03
    }
    bias_filler {
      type: "constant"
      value: 0.2
    }
  }
}
layer {
  name: "inception_3a/relu_5x5"
  type: "ReLU"
  bottom: "inception_3a/5x5"
  top: "inception_3a/5x5"
}
layer {
  name: "inception_3a/pool"
  type: "Pooling"
  bottom: "pool2/3x3_s2"
  top: "inception_3a/pool"
  pooling_param {
    pool: MAX
    kernel_size: 3
    stride: 1
    pad: 1
  }
}
layer {
  name: "inception_3a/pool_proj"
  type: "Convolution"
  bottom: "inception_3a/pool"
  top: "inception_3a/pool_proj"
  param {
    lr_mult: 1
    decay_mult: 1
  }
  param {
    lr_mult: 2
    decay_mult: 0
  }
  convolution_param {
    num_output: 32
    kernel_size: 1
    weight_filler {
      type: "xavier"
      std: 0.1
    }
    bias_filler {
      type: "constant"
      value: 0.2
    }
  }
}
layer {
  name: "inception_3a/relu_pool_proj"
  type: "ReLU"
  bottom: "inception_3a/pool_proj"
  top: "inception_3a/pool_proj"
}
layer {
  name: "inception_3a/output"
  type: "Concat"
  bottom: "inception_3a/1x1"
  bottom: "inception_3a/3x3"
  bottom: "inception_3a/5x5"
  bottom: "inception_3a/pool_proj"
  top: "inception_3a/output"
}
layer {
  name: "inception_3b/1x1"
  type: "Convolution"
  bottom: "inception_3a/output"
  top: "inception_3b/1x1"
  param {
    lr_mult: 1
    decay_mult: 1
  }
  param {
    lr_mult: 2
    decay_mult: 0
  }
  convolution_param {
    num_output: 128
    kernel_size: 1
    weight_filler {
      type: "xavier"
      std: 0.03
    }
    bias_filler {
      type: "constant"
      value: 0.2
    }
  }
}
layer {
  name: "inception_3b/relu_1x1"
  type: "ReLU"
  bottom: "inception_3b/1x1"
  top: "inception_3b/1x1"
}
layer {
  name: "inception_3b/3x3_reduce"
  type: "Convolution"
  bottom: "inception_3a/output"
  top: "inception_3b/3x3_reduce"
  param {
    lr_mult: 1
    decay_mult: 1
  }
  param {
    lr_mult: 2
    decay_mult: 0
  }
  convolution_param {
    num_output: 128
    kernel_size: 1
    weight_filler {
      type: "xavier"
      std: 0.09
    }
    bias_filler {
      type: "constant"
      value: 0.2
    }
  }
}
layer {
  name: "inception_3b/relu_3x3_reduce"
  type: "ReLU"
  bottom: "inception_3b/3x3_reduce"
  top: "inception_3b/3x3_reduce"
}
layer {
  name: "inception_3b/3x3"
  type: "Convolution"
  bottom: "inception_3b/3x3_reduce"
  top: "inception_3b/3x3"
  param {
    lr_mult: 1
    decay_mult: 1
  }
  param {
    lr_mult: 2
    decay_mult: 0
  }
  convolution_param {
    num_output: 192
    pad: 1
    kernel_size: 3
    weight_filler {
      type: "xavier"
      std: 0.03
    }
    bias_filler {
      type: "constant"
      value: 0.2
    }
  }
}
layer {
  name: "inception_3b/relu_3x3"
  type: "ReLU"
  bottom: "inception_3b/3x3"
  top: "inception_3b/3x3"
}
layer {
  name: "inception_3b/5x5_reduce"
  type: "Convolution"
  bottom: "inception_3a/output"
  top: "inception_3b/5x5_reduce"
  param {
    lr_mult: 1
    decay_mult: 1
  }
  param {
    lr_mult: 2
    decay_mult: 0
  }
  convolution_param {
    num_output: 32
    kernel_size: 1
    weight_filler {
      type: "xavier"
      std: 0.2
    }
    bias_filler {
      type: "constant"
      value: 0.2
    }
  }
}
layer {
  name: "inception_3b/relu_5x5_reduce"
  type: "ReLU"
  bottom: "inception_3b/5x5_reduce"
  top: "inception_3b/5x5_reduce"
}
layer {
  name: "inception_3b/5x5"
  type: "Convolution"
  bottom: "inception_3b/5x5_reduce"
  top: "inception_3b/5x5"
  param {
    lr_mult: 1
    decay_mult: 1
  }
  param {
    lr_mult: 2
    decay_mult: 0
  }
  convolution_param {
    num_output: 96
    pad: 2
    kernel_size: 5
    weight_filler {
      type: "xavier"
      std: 0.03
    }
    bias_filler {
      type: "constant"
      value: 0.2
    }
  }
}
layer {
  name: "inception_3b/relu_5x5"
  type: "ReLU"
  bottom: "inception_3b/5x5"
  top: "inception_3b/5x5"
}
layer {
  name: "inception_3b/pool"
  type: "Pooling"
  bottom: "inception_3a/output"
  top: "inception_3b/pool"
  pooling_param {
    pool: MAX
    kernel_size: 3
    stride: 1
    pad: 1
  }
}
layer {
  name: "inception_3b/pool_proj"
  type: "Convolution"
  bottom: "inception_3b/pool"
  top: "inception_3b/pool_proj"
  param {
    lr_mult: 1
    decay_mult: 1
  }
  param {
    lr_mult: 2
    decay_mult: 0
  }
  convolution_param {
    num_output: 64
    kernel_size: 1
    weight_filler {
      type: "xavier"
      std: 0.1
    }
    bias_filler {
      type: "constant"
      value: 0.2
    }
  }
}
layer {
  name: "inception_3b/relu_pool_proj"
  type: "ReLU"
  bottom: "inception_3b/pool_proj"
  top: "inception_3b/pool_proj"
}
layer {
  name: "inception_3b/output"
  type: "Concat"
  bottom: "inception_3b/1x1"
  bottom: "inception_3b/3x3"
  bottom: "inception_3b/5x5"
  bottom: "inception_3b/pool_proj"
  top: "inception_3b/output"
}
layer {
  name: "pool3/3x3_s2"
  type: "Pooling"
  bottom: "inception_3b/output"
  top: "pool3/3x3_s2"
  pooling_param {
    pool: MAX
    kernel_size: 3
    stride: 2
  }
}
layer {
  name: "inception_4a/1x1"
  type: "Convolution"
  bottom: "pool3/3x3_s2"
  top: "inception_4a/1x1"
  param {
    lr_mult: 1
    decay_mult: 1
  }
  param {
    lr_mult: 2
    decay_mult: 0
  }
  convolution_param {
    num_output: 192
    kernel_size: 1
    weight_filler {
      type: "xavier"
      std: 0.03
    }
    bias_filler {
      type: "constant"
      value: 0.2
    }
  }
}
layer {
  name: "inception_4a/relu_1x1"
  type: "ReLU"
  bottom: "inception_4a/1x1"
  top: "inception_4a/1x1"
}
layer {
  name: "inception_4a/3x3_reduce"
  type: "Convolution"
  bottom: "pool3/3x3_s2"
  top: "inception_4a/3x3_reduce"
  param {
    lr_mult: 1
    decay_mult: 1
  }
  param {
    lr_mult: 2
    decay_mult: 0
  }
  convolution_param {
    num_output: 96
    kernel_size: 1
    weight_filler {
      type: "xavier"
      std: 0.09
    }
    bias_filler {
      type: "constant"
      value: 0.2
    }
  }
}
layer {
  name: "inception_4a/relu_3x3_reduce"
  type: "ReLU"
  bottom: "inception_4a/3x3_reduce"
  top: "inception_4a/3x3_reduce"
}
layer {
  name: "inception_4a/3x3"
  type: "Convolution"
  bottom: "inception_4a/3x3_reduce"
  top: "inception_4a/3x3"
  param {
    lr_mult: 1
    decay_mult: 1
  }
  param {
    lr_mult: 2
    decay_mult: 0
  }
  convolution_param {
    num_output: 208
    pad: 1
    kernel_size: 3
    weight_filler {
      type: "xavier"
      std: 0.03
    }
    bias_filler {
      type: "constant"
      value: 0.2
    }
  }
}
layer {
  name: "inception_4a/relu_3x3"
  type: "ReLU"
  bottom: "inception_4a/3x3"
  top: "inception_4a/3x3"
}
layer {
  name: "inception_4a/5x5_reduce"
  type: "Convolution"
  bottom: "pool3/3x3_s2"
  top: "inception_4a/5x5_reduce"
  param {
    lr_mult: 1
    decay_mult: 1
  }
  param {
    lr_mult: 2
    decay_mult: 0
  }
  convolution_param {
    num_output: 16
    kernel_size: 1
    weight_filler {
      type: "xavier"
      std: 0.2
    }
    bias_filler {
      type: "constant"
      value: 0.2
    }
  }
}
layer {
  name: "inception_4a/relu_5x5_reduce"
  type: "ReLU"
  bottom: "inception_4a/5x5_reduce"
  top: "inception_4a/5x5_reduce"
}
layer {
  name: "inception_4a/5x5"
  type: "Convolution"
  bottom: "inception_4a/5x5_reduce"
  top: "inception_4a/5x5"
  param {
    lr_mult: 1
    decay_mult: 1
  }
  param {
    lr_mult: 2
    decay_mult: 0
  }
  convolution_param {
    num_output: 48
    pad: 2
    kernel_size: 5
    weight_filler {
      type: "xavier"
      std: 0.03
    }
    bias_filler {
      type: "constant"
      value: 0.2
    }
  }
}
layer {
  name: "inception_4a/relu_5x5"
  type: "ReLU"
  bottom: "inception_4a/5x5"
  top: "inception_4a/5x5"
}
layer {
  name: "inception_4a/pool"
  type: "Pooling"
  bottom: "pool3/3x3_s2"
  top: "inception_4a/pool"
  pooling_param {
    pool: MAX
    kernel_size: 3
    stride: 1
    pad: 1
  }
}
layer {
  name: "inception_4a/pool_proj"
  type: "Convolution"
  bottom: "inception_4a/pool"
  top: "inception_4a/pool_proj"
  param {
    lr_mult: 1
    decay_mult: 1
  }
  param {
    lr_mult: 2
    decay_mult: 0
  }
  convolution_param {
    num_output: 64
    kernel_size: 1
    weight_filler {
      type: "xavier"
      std: 0.1
    }
    bias_filler {
      type: "constant"
      value: 0.2
    }
  }
}
layer {
  name: "inception_4a/relu_pool_proj"
  type: "ReLU"
  bottom: "inception_4a/pool_proj"
  top: "inception_4a/pool_proj"
}
layer {
  name: "inception_4a/output"
  type: "Concat"
  bottom: "inception_4a/1x1"
  bottom: "inception_4a/3x3"
  bottom: "inception_4a/5x5"
  bottom: "inception_4a/pool_proj"
  top: "inception_4a/output"
}
layer {
  name: "inception_4b/1x1"
  type: "Convolution"
  bottom: "inception_4a/output"
  top: "inception_4b/1x1"
  param {
    lr_mult: 1
    decay_mult: 1
  }
  param {
    lr_mult: 2
    decay_mult: 0
  }
  convolution_param {
    num_output: 160
    kernel_size: 1
    weight_filler {
      type: "xavier"
      std: 0.03
    }
    bias_filler {
      type: "constant"
      value: 0.2
    }
  }
}
layer {
  name: "inception_4b/relu_1x1"
  type: "ReLU"
  bottom: "inception_4b/1x1"
  top: "inception_4b/1x1"
}
layer {
  name: "inception_4b/3x3_reduce"
  type: "Convolution"
  bottom: "inception_4a/output"
  top: "inception_4b/3x3_reduce"
  param {
    lr_mult: 1
    decay_mult: 1
  }
  param {
    lr_mult: 2
    decay_mult: 0
  }
  convolution_param {
    num_output: 112
    kernel_size: 1
    weight_filler {
      type: "xavier"
      std: 0.09
    }
    bias_filler {
      type: "constant"
      value: 0.2
    }
  }
}
layer {
  name: "inception_4b/relu_3x3_reduce"
  type: "ReLU"
  bottom: "inception_4b/3x3_reduce"
  top: "inception_4b/3x3_reduce"
}
layer {
  name: "inception_4b/3x3"
  type: "Convolution"
  bottom: "inception_4b/3x3_reduce"
  top: "inception_4b/3x3"
  param {
    lr_mult: 1
    decay_mult: 1
  }
  param {
    lr_mult: 2
    decay_mult: 0
  }
  convolution_param {
    num_output: 224
    pad: 1
    kernel_size: 3
    weight_filler {
      type: "xavier"
      std: 0.03
    }
    bias_filler {
      type: "constant"
      value: 0.2
    }
  }
}
layer {
  name: "inception_4b/relu_3x3"
  type: "ReLU"
  bottom: "inception_4b/3x3"
  top: "inception_4b/3x3"
}
layer {
  name: "inception_4b/5x5_reduce"
  type: "Convolution"
  bottom: "inception_4a/output"
  top: "inception_4b/5x5_reduce"
  param {
    lr_mult: 1
    decay_mult: 1
  }
  param {
    lr_mult: 2
    decay_mult: 0
  }
  convolution_param {
    num_output: 24
    kernel_size: 1
    weight_filler {
      type: "xavier"
      std: 0.2
    }
    bias_filler {
      type: "constant"
      value: 0.2
    }
  }
}
layer {
  name: "inception_4b/relu_5x5_reduce"
  type: "ReLU"
  bottom: "inception_4b/5x5_reduce"
  top: "inception_4b/5x5_reduce"
}
layer {
  name: "inception_4b/5x5"
  type: "Convolution"
  bottom: "inception_4b/5x5_reduce"
  top: "inception_4b/5x5"
  param {
    lr_mult: 1
    decay_mult: 1
  }
  param {
    lr_mult: 2
    decay_mult: 0
  }
  convolution_param {
    num_output: 64
    pad: 2
    kernel_size: 5
    weight_filler {
      type: "xavier"
      std: 0.03
    }
    bias_filler {
      type: "constant"
      value: 0.2
    }
  }
}
layer {
  name: "inception_4b/relu_5x5"
  type: "ReLU"
  bottom: "inception_4b/5x5"
  top: "inception_4b/5x5"
}
layer {
  name: "inception_4b/pool"
  type: "Pooling"
  bottom: "inception_4a/output"
  top: "inception_4b/pool"
  pooling_param {
    pool: MAX
    kernel_size: 3
    stride: 1
    pad: 1
  }
}
layer {
  name: "inception_4b/pool_proj"
  type: "Convolution"
  bottom: "inception_4b/pool"
  top: "inception_4b/pool_proj"
  param {
    lr_mult: 1
    decay_mult: 1
  }
  param {
    lr_mult: 2
    decay_mult: 0
  }
  convolution_param {
    num_output: 64
    kernel_size: 1
    weight_filler {
      type: "xavier"
      std: 0.1
    }
    bias_filler {
      type: "constant"
      value: 0.2
    }
  }
}
layer {
  name: "inception_4b/relu_pool_proj"
  type: "ReLU"
  bottom: "inception_4b/pool_proj"
  top: "inception_4b/pool_proj"
}
layer {
  name: "inception_4b/output"
  type: "Concat"
  bottom: "inception_4b/1x1"
  bottom: "inception_4b/3x3"
  bottom: "inception_4b/5x5"
  bottom: "inception_4b/pool_proj"
  top: "inception_4b/output"
}
layer {
  name: "inception_4c/1x1"
  type: "Convolution"
  bottom: "inception_4b/output"
  top: "inception_4c/1x1"
  param {
    lr_mult: 1
    decay_mult: 1
  }
  param {
    lr_mult: 2
    decay_mult: 0
  }
  convolution_param {
    num_output: 128
    kernel_size: 1
    weight_filler {
      type: "xavier"
      std: 0.03
    }
    bias_filler {
      type: "constant"
      value: 0.2
    }
  }
}
layer {
  name: "inception_4c/relu_1x1"
  type: "ReLU"
  bottom: "inception_4c/1x1"
  top: "inception_4c/1x1"
}
layer {
  name: "inception_4c/3x3_reduce"
  type: "Convolution"
  bottom: "inception_4b/output"
  top: "inception_4c/3x3_reduce"
  param {
    lr_mult: 1
    decay_mult: 1
  }
  param {
    lr_mult: 2
    decay_mult: 0
  }
  convolution_param {
    num_output: 128
    kernel_size: 1
    weight_filler {
      type: "xavier"
      std: 0.09
    }
    bias_filler {
      type: "constant"
      value: 0.2
    }
  }
}
layer {
  name: "inception_4c/relu_3x3_reduce"
  type: "ReLU"
  bottom: "inception_4c/3x3_reduce"
  top: "inception_4c/3x3_reduce"
}
layer {
  name: "inception_4c/3x3"
  type: "Convolution"
  bottom: "inception_4c/3x3_reduce"
  top: "inception_4c/3x3"
  param {
    lr_mult: 1
    decay_mult: 1
  }
  param {
    lr_mult: 2
    decay_mult: 0
  }
  convolution_param {
    num_output: 256
    pad: 1
    kernel_size: 3
    weight_filler {
      type: "xavier"
      std: 0.03
    }
    bias_filler {
      type: "constant"
      value: 0.2
    }
  }
}
layer {
  name: "inception_4c/relu_3x3"
  type: "ReLU"
  bottom: "inception_4c/3x3"
  top: "inception_4c/3x3"
}
layer {
  name: "inception_4c/5x5_reduce"
  type: "Convolution"
  bottom: "inception_4b/output"
  top: "inception_4c/5x5_reduce"
  param {
    lr_mult: 1
    decay_mult: 1
  }
  param {
    lr_mult: 2
    decay_mult: 0
  }
  convolution_param {
    num_output: 24
    kernel_size: 1
    weight_filler {
      type: "xavier"
      std: 0.2
    }
    bias_filler {
      type: "constant"
      value: 0.2
    }
  }
}
layer {
  name: "inception_4c/relu_5x5_reduce"
  type: "ReLU"
  bottom: "inception_4c/5x5_reduce"
  top: "inception_4c/5x5_reduce"
}
layer {
  name: "inception_4c/5x5"
  type: "Convolution"
  bottom: "inception_4c/5x5_reduce"
  top: "inception_4c/5x5"
  param {
    lr_mult: 1
    decay_mult: 1
  }
  param {
    lr_mult: 2
    decay_mult: 0
  }
  convolution_param {
    num_output: 64
    pad: 2
    kernel_size: 5
    weight_filler {
      type: "xavier"
      std: 0.03
    }
    bias_filler {
      type: "constant"
      value: 0.2
    }
  }
}
layer {
  name: "inception_4c/relu_5x5"
  type: "ReLU"
  bottom: "inception_4c/5x5"
  top: "inception_4c/5x5"
}
layer {
  name: "inception_4c/pool"
  type: "Pooling"
  bottom: "inception_4b/output"
  top: "inception_4c/pool"
  pooling_param {
    pool: MAX
    kernel_size: 3
    stride: 1
    pad: 1
  }
}
layer {
  name: "inception_4c/pool_proj"
  type: "Convolution"
  bottom: "inception_4c/pool"
  top: "inception_4c/pool_proj"
  param {
    lr_mult: 1
    decay_mult: 1
  }
  param {
    lr_mult: 2
    decay_mult: 0
  }
  convolution_param {
    num_output: 64
    kernel_size: 1
    weight_filler {
      type: "xavier"
      std: 0.1
    }
    bias_filler {
      type: "constant"
      value: 0.2
    }
  }
}
layer {
  name: "inception_4c/relu_pool_proj"
  type: "ReLU"
  bottom: "inception_4c/pool_proj"
  top: "inception_4c/pool_proj"
}
layer {
  name: "inception_4c/output"
  type: "Concat"
  bottom: "inception_4c/1x1"
  bottom: "inception_4c/3x3"
  bottom: "inception_4c/5x5"
  bottom: "inception_4c/pool_proj"
  top: "inception_4c/output"
}
layer {
  name: "inception_4d/1x1"
  type: "Convolution"
  bottom: "inception_4c/output"
  top: "inception_4d/1x1"
  param {
    lr_mult: 1
    decay_mult: 1
  }
  param {
    lr_mult: 2
    decay_mult: 0
  }
  convolution_param {
    num_output: 112
    kernel_size: 1
    weight_filler {
      type: "xavier"
      std: 0.03
    }
    bias_filler {
      type: "constant"
      value: 0.2
    }
  }
}
layer {
  name: "inception_4d/relu_1x1"
  type: "ReLU"
  bottom: "inception_4d/1x1"
  top: "inception_4d/1x1"
}
layer {
  name: "inception_4d/3x3_reduce"
  type: "Convolution"
  bottom: "inception_4c/output"
  top: "inception_4d/3x3_reduce"
  param {
    lr_mult: 1
    decay_mult: 1
  }
  param {
    lr_mult: 2
    decay_mult: 0
  }
  convolution_param {
    num_output: 144
    kernel_size: 1
    weight_filler {
      type: "xavier"
      std: 0.09
    }
    bias_filler {
      type: "constant"
      value: 0.2
    }
  }
}
layer {
  name: "inception_4d/relu_3x3_reduce"
  type: "ReLU"
  bottom: "inception_4d/3x3_reduce"
  top: "inception_4d/3x3_reduce"
}
layer {
  name: "inception_4d/3x3"
  type: "Convolution"
  bottom: "inception_4d/3x3_reduce"
  top: "inception_4d/3x3"
  param {
    lr_mult: 1
    decay_mult: 1
  }
  param {
    lr_mult: 2
    decay_mult: 0
  }
  convolution_param {
    num_output: 288
    pad: 1
    kernel_size: 3
    weight_filler {
      type: "xavier"
      std: 0.03
    }
    bias_filler {
      type: "constant"
      value: 0.2
    }
  }
}
layer {
  name: "inception_4d/relu_3x3"
  type: "ReLU"
  bottom: "inception_4d/3x3"
  top: "inception_4d/3x3"
}
layer {
  name: "inception_4d/5x5_reduce"
  type: "Convolution"
  bottom: "inception_4c/output"
  top: "inception_4d/5x5_reduce"
  param {
    lr_mult: 1
    decay_mult: 1
  }
  param {
    lr_mult: 2
    decay_mult: 0
  }
  convolution_param {
    num_output: 32
    kernel_size: 1
    weight_filler {
      type: "xavier"
      std: 0.2
    }
    bias_filler {
      type: "constant"
      value: 0.2
    }
  }
}
layer {
  name: "inception_4d/relu_5x5_reduce"
  type: "ReLU"
  bottom: "inception_4d/5x5_reduce"
  top: "inception_4d/5x5_reduce"
}
layer {
  name: "inception_4d/5x5"
  type: "Convolution"
  bottom: "inception_4d/5x5_reduce"
  top: "inception_4d/5x5"
  param {
    lr_mult: 1
    decay_mult: 1
  }
  param {
    lr_mult: 2
    decay_mult: 0
  }
  convolution_param {
    num_output: 64
    pad: 2
    kernel_size: 5
    weight_filler {
      type: "xavier"
      std: 0.03
    }
    bias_filler {
      type: "constant"
      value: 0.2
    }
  }
}
layer {
  name: "inception_4d/relu_5x5"
  type: "ReLU"
  bottom: "inception_4d/5x5"
  top: "inception_4d/5x5"
}
layer {
  name: "inception_4d/pool"
  type: "Pooling"
  bottom: "inception_4c/output"
  top: "inception_4d/pool"
  pooling_param {
    pool: MAX
    kernel_size: 3
    stride: 1
    pad: 1
  }
}
layer {
  name: "inception_4d/pool_proj"
  type: "Convolution"
  bottom: "inception_4d/pool"
  top: "inception_4d/pool_proj"
  param {
    lr_mult: 1
    decay_mult: 1
  }
  param {
    lr_mult: 2
    decay_mult: 0
  }
  convolution_param {
    num_output: 64
    kernel_size: 1
    weight_filler {
      type: "xavier"
      std: 0.1
    }
    bias_filler {
      type: "constant"
      value: 0.2
    }
  }
}
layer {
  name: "inception_4d/relu_pool_proj"
  type: "ReLU"
  bottom: "inception_4d/pool_proj"
  top: "inception_4d/pool_proj"
}
layer {
  name: "inception_4d/output"
  type: "Concat"
  bottom: "inception_4d/1x1"
  bottom: "inception_4d/3x3"
  bottom: "inception_4d/5x5"
  bottom: "inception_4d/pool_proj"
  top: "inception_4d/output"
}
layer {
  name: "inception_4e/1x1"
  type: "Convolution"
  bottom: "inception_4d/output"
  top: "inception_4e/1x1"
  param {
    lr_mult: 1
    decay_mult: 1
  }
  param {
    lr_mult: 2
    decay_mult: 0
  }
  convolution_param {
    num_output: 256
    kernel_size: 1
    weight_filler {
      type: "xavier"
      std: 0.03
    }
    bias_filler {
      type: "constant"
      value: 0.2
    }
  }
}
layer {
  name: "inception_4e/relu_1x1"
  type: "ReLU"
  bottom: "inception_4e/1x1"
  top: "inception_4e/1x1"
}
layer {
  name: "inception_4e/3x3_reduce"
  type: "Convolution"
  bottom: "inception_4d/output"
  top: "inception_4e/3x3_reduce"
  param {
    lr_mult: 1
    decay_mult: 1
  }
  param {
    lr_mult: 2
    decay_mult: 0
  }
  convolution_param {
    num_output: 160
    kernel_size: 1
    weight_filler {
      type: "xavier"
      std: 0.09
    }
    bias_filler {
      type: "constant"
      value: 0.2
    }
  }
}
layer {
  name: "inception_4e/relu_3x3_reduce"
  type: "ReLU"
  bottom: "inception_4e/3x3_reduce"
  top: "inception_4e/3x3_reduce"
}
layer {
  name: "inception_4e/3x3"
  type: "Convolution"
  bottom: "inception_4e/3x3_reduce"
  top: "inception_4e/3x3"
  param {
    lr_mult: 1
    decay_mult: 1
  }
  param {
    lr_mult: 2
    decay_mult: 0
  }
  convolution_param {
    num_output: 320
    pad: 1
    kernel_size: 3
    weight_filler {
      type: "xavier"
      std: 0.03
    }
    bias_filler {
      type: "constant"
      value: 0.2
    }
  }
}
layer {
  name: "inception_4e/relu_3x3"
  type: "ReLU"
  bottom: "inception_4e/3x3"
  top: "inception_4e/3x3"
}
layer {
  name: "inception_4e/5x5_reduce"
  type: "Convolution"
  bottom: "inception_4d/output"
  top: "inception_4e/5x5_reduce"
  param {
    lr_mult: 1
    decay_mult: 1
  }
  param {
    lr_mult: 2
    decay_mult: 0
  }
  convolution_param {
    num_output: 32
    kernel_size: 1
    weight_filler {
      type: "xavier"
      std: 0.2
    }
    bias_filler {
      type: "constant"
      value: 0.2
    }
  }
}
layer {
  name: "inception_4e/relu_5x5_reduce"
  type: "ReLU"
  bottom: "inception_4e/5x5_reduce"
  top: "inception_4e/5x5_reduce"
}
layer {
  name: "inception_4e/5x5"
  type: "Convolution"
  bottom: "inception_4e/5x5_reduce"
  top: "inception_4e/5x5"
  param {
    lr_mult: 1
    decay_mult: 1
  }
  param {
    lr_mult: 2
    decay_mult: 0
  }
  convolution_param {
    num_output: 128
    pad: 2
    kernel_size: 5
    weight_filler {
      type: "xavier"
      std: 0.03
    }
    bias_filler {
      type: "constant"
      value: 0.2
    }
  }
}
layer {
  name: "inception_4e/relu_5x5"
  type: "ReLU"
  bottom: "inception_4e/5x5"
  top: "inception_4e/5x5"
}
layer {
  name: "inception_4e/pool"
  type: "Pooling"
  bottom: "inception_4d/output"
  top: "inception_4e/pool"
  pooling_param {
    pool: MAX
    kernel_size: 3
    stride: 1
    pad: 1
  }
}
layer {
  name: "inception_4e/pool_proj"
  type: "Convolution"
  bottom: "inception_4e/pool"
  top: "inception_4e/pool_proj"
  param {
    lr_mult: 1
    decay_mult: 1
  }
  param {
    lr_mult: 2
    decay_mult: 0
  }
  convolution_param {
    num_output: 128
    kernel_size: 1
    weight_filler {
      type: "xavier"
      std: 0.1
    }
    bias_filler {
      type: "constant"
      value: 0.2
    }
  }
}
layer {
  name: "inception_4e/relu_pool_proj"
  type: "ReLU"
  bottom: "inception_4e/pool_proj"
  top: "inception_4e/pool_proj"
}
layer {
  name: "inception_4e/output"
  type: "Concat"
  bottom: "inception_4e/1x1"
  bottom: "inception_4e/3x3"
  bottom: "inception_4e/5x5"
  bottom: "inception_4e/pool_proj"
  top: "inception_4e/output"
}
layer {
  name: "pool4/3x3_s2"
  type: "Pooling"
  bottom: "inception_4e/output"
  top: "pool4/3x3_s2"
  pooling_param {
    pool: MAX
    kernel_size: 3
    stride: 2
  }
}
layer {
  name: "inception_5a/1x1"
  type: "Convolution"
  bottom: "pool4/3x3_s2"
  top: "inception_5a/1x1"
  param {
    lr_mult: 1
    decay_mult: 1
  }
  param {
    lr_mult: 2
    decay_mult: 0
  }
  convolution_param {
    num_output: 256
    kernel_size: 1
    weight_filler {
      type: "xavier"
      std: 0.03
    }
    bias_filler {
      type: "constant"
      value: 0.2
    }
  }
}
layer {
  name: "inception_5a/relu_1x1"
  type: "ReLU"
  bottom: "inception_5a/1x1"
  top: "inception_5a/1x1"
}
layer {
  name: "inception_5a/3x3_reduce"
  type: "Convolution"
  bottom: "pool4/3x3_s2"
  top: "inception_5a/3x3_reduce"
  param {
    lr_mult: 1
    decay_mult: 1
  }
  param {
    lr_mult: 2
    decay_mult: 0
  }
  convolution_param {
    num_output: 160
    kernel_size: 1
    weight_filler {
      type: "xavier"
      std: 0.09
    }
    bias_filler {
      type: "constant"
      value: 0.2
    }
  }
}
layer {
  name: "inception_5a/relu_3x3_reduce"
  type: "ReLU"
  bottom: "inception_5a/3x3_reduce"
  top: "inception_5a/3x3_reduce"
}
layer {
  name: "inception_5a/3x3"
  type: "Convolution"
  bottom: "inception_5a/3x3_reduce"
  top: "inception_5a/3x3"
  param {
    lr_mult: 1
    decay_mult: 1
  }
  param {
    lr_mult: 2
    decay_mult: 0
  }
  convolution_param {
    num_output: 320
    pad: 1
    kernel_size: 3
    weight_filler {
      type: "xavier"
      std: 0.03
    }
    bias_filler {
      type: "constant"
      value: 0.2
    }
  }
}
layer {
  name: "inception_5a/relu_3x3"
  type: "ReLU"
  bottom: "inception_5a/3x3"
  top: "inception_5a/3x3"
}
layer {
  name: "inception_5a/5x5_reduce"
  type: "Convolution"
  bottom: "pool4/3x3_s2"
  top: "inception_5a/5x5_reduce"
  param {
    lr_mult: 1
    decay_mult: 1
  }
  param {
    lr_mult: 2
    decay_mult: 0
  }
  convolution_param {
    num_output: 32
    kernel_size: 1
    weight_filler {
      type: "xavier"
      std: 0.2
    }
    bias_filler {
      type: "constant"
      value: 0.2
    }
I0727 20:26:55.887246   454 layer_factory.hpp:77] Creating layer data
I0727 20:26:55.887272   454 net.cpp:91] Creating Layer data
I0727 20:26:55.887284   454 net.cpp:399] data -> data
I0727 20:26:56.845696   458 net.cpp:141] Setting up data
I0727 20:26:56.845793   458 net.cpp:148] Top shape: 10 3 224 224 (1505280)
I0727 20:26:56.845801   458 net.cpp:156] Memory required for data: 6021120
I0727 20:26:56.845829   458 layer_factory.hpp:77] Creating layer conv1/7x7_s2
I0727 20:26:56.845880   458 net.cpp:91] Creating Layer conv1/7x7_s2
I0727 20:26:56.845892   458 net.cpp:425] conv1/7x7_s2 <- data
I0727 20:26:56.845911   458 net.cpp:399] conv1/7x7_s2 -> conv1/7x7_s2
I0727 20:26:56.849833   454 net.cpp:141] Setting up data
I0727 20:26:56.849867   454 net.cpp:148] Top shape: 10 3 224 224 (1505280)
I0727 20:26:56.849874   454 net.cpp:156] Memory required for data: 6021120
I0727 20:26:56.849882   454 layer_factory.hpp:77] Creating layer conv1/7x7_s2
I0727 20:26:56.849907   454 net.cpp:91] Creating Layer conv1/7x7_s2
I0727 20:26:56.849913   454 net.cpp:425] conv1/7x7_s2 <- data
I0727 20:26:56.849922   454 net.cpp:399] conv1/7x7_s2 -> conv1/7x7_s2
I0727 20:26:57.241384   458 net.cpp:141] Setting up conv1/7x7_s2
I0727 20:26:57.241444   458 net.cpp:148] Top shape: 10 64 112 112 (8028160)
I0727 20:26:57.241451   458 net.cpp:156] Memory required for data: 38133760
I0727 20:26:57.241477   458 layer_factory.hpp:77] Creating layer conv1/relu_7x7
I0727 20:26:57.241493   458 net.cpp:91] Creating Layer conv1/relu_7x7
I0727 20:26:57.241500   458 net.cpp:425] conv1/relu_7x7 <- conv1/7x7_s2
I0727 20:26:57.241508   458 net.cpp:386] conv1/relu_7x7 -> conv1/7x7_s2 (in-place)
I0727 20:26:57.242240   458 net.cpp:141] Setting up conv1/relu_7x7
I0727 20:26:57.242257   458 net.cpp:148] Top shape: 10 64 112 112 (8028160)
I0727 20:26:57.242262   458 net.cpp:156] Memory required for data: 70246400
I0727 20:26:57.242267   458 layer_factory.hpp:77] Creating layer pool1/3x3_s2
I0727 20:26:57.242280   458 net.cpp:91] Creating Layer pool1/3x3_s2
I0727 20:26:57.242285   458 net.cpp:425] pool1/3x3_s2 <- conv1/7x7_s2
I0727 20:26:57.242295   458 net.cpp:399] pool1/3x3_s2 -> pool1/3x3_s2
I0727 20:26:57.242466   458 net.cpp:141] Setting up pool1/3x3_s2
I0727 20:26:57.242480   458 net.cpp:148] Top shape: 10 64 56 56 (2007040)
I0727 20:26:57.242485   458 net.cpp:156] Memory required for data: 78274560
I0727 20:26:57.242489   458 layer_factory.hpp:77] Creating layer pool1/norm1
I0727 20:26:57.242506   458 net.cpp:91] Creating Layer pool1/norm1
I0727 20:26:57.242512   458 net.cpp:425] pool1/norm1 <- pool1/3x3_s2
I0727 20:26:57.242522   458 net.cpp:399] pool1/norm1 -> pool1/norm1
I0727 20:26:57.243852   454 net.cpp:141] Setting up conv1/7x7_s2
I0727 20:26:57.243886   454 net.cpp:148] Top shape: 10 64 112 112 (8028160)
I0727 20:26:57.243892   454 net.cpp:156] Memory required for data: 38133760
I0727 20:26:57.243906   454 layer_factory.hpp:77] Creating layer conv1/relu_7x7
I0727 20:26:57.243907   458 net.cpp:141] Setting up pool1/norm1
I0727 20:26:57.243916   454 net.cpp:91] Creating Layer conv1/relu_7x7
I0727 20:26:57.243929   454 net.cpp:425] conv1/relu_7x7 <- conv1/7x7_s2
I0727 20:26:57.243930   458 net.cpp:148] Top shape: 10 64 56 56 (2007040)
I0727 20:26:57.243937   458 net.cpp:156] Memory required for data: 86302720
I0727 20:26:57.243937   454 net.cpp:386] conv1/relu_7x7 -> conv1/7x7_s2 (in-place)
I0727 20:26:57.243942   458 layer_factory.hpp:77] Creating layer conv2/3x3_reduce
I0727 20:26:57.243962   458 net.cpp:91] Creating Layer conv2/3x3_reduce
I0727 20:26:57.243968   458 net.cpp:425] conv2/3x3_reduce <- pool1/norm1
I0727 20:26:57.243978   458 net.cpp:399] conv2/3x3_reduce -> conv2/3x3_reduce
I0727 20:26:57.244750   454 net.cpp:141] Setting up conv1/relu_7x7
I0727 20:26:57.244765   454 net.cpp:148] Top shape: 10 64 112 112 (8028160)
I0727 20:26:57.244770   454 net.cpp:156] Memory required for data: 70246400
I0727 20:26:57.244776   454 layer_factory.hpp:77] Creating layer pool1/3x3_s2
I0727 20:26:57.244784   454 net.cpp:91] Creating Layer pool1/3x3_s2
I0727 20:26:57.244789   454 net.cpp:425] pool1/3x3_s2 <- conv1/7x7_s2
I0727 20:26:57.244796   454 net.cpp:399] pool1/3x3_s2 -> pool1/3x3_s2
I0727 20:26:57.244961   454 net.cpp:141] Setting up pool1/3x3_s2
I0727 20:26:57.244971   454 net.cpp:148] Top shape: 10 64 56 56 (2007040)
I0727 20:26:57.244976   454 net.cpp:156] Memory required for data: 78274560
I0727 20:26:57.244982   454 layer_factory.hpp:77] Creating layer pool1/norm1
I0727 20:26:57.244992   454 net.cpp:91] Creating Layer pool1/norm1
I0727 20:26:57.244997   454 net.cpp:425] pool1/norm1 <- pool1/3x3_s2
I0727 20:26:57.245003   454 net.cpp:399] pool1/norm1 -> pool1/norm1
I0727 20:26:57.246734   454 net.cpp:141] Setting up pool1/norm1
I0727 20:26:57.246762   454 net.cpp:148] Top shape: 10 64 56 56 (2007040)
I0727 20:26:57.246768   454 net.cpp:156] Memory required for data: 86302720
I0727 20:26:57.246773   454 layer_factory.hpp:77] Creating layer conv2/3x3_reduce
I0727 20:26:57.246788   454 net.cpp:91] Creating Layer conv2/3x3_reduce
I0727 20:26:57.246793   454 net.cpp:425] conv2/3x3_reduce <- pool1/norm1
I0727 20:26:57.246800   454 net.cpp:399] conv2/3x3_reduce -> conv2/3x3_reduce
I0727 20:26:57.249917   458 net.cpp:141] Setting up conv2/3x3_reduce
I0727 20:26:57.249948   458 net.cpp:148] Top shape: 10 64 56 56 (2007040)
I0727 20:26:57.249953   458 net.cpp:156] Memory required for data: 94330880
I0727 20:26:57.249968   458 layer_factory.hpp:77] Creating layer conv2/relu_3x3_reduce
I0727 20:26:57.249976   458 net.cpp:91] Creating Layer conv2/relu_3x3_reduce
I0727 20:26:57.249981   458 net.cpp:425] conv2/relu_3x3_reduce <- conv2/3x3_reduce
I0727 20:26:57.249989   458 net.cpp:386] conv2/relu_3x3_reduce -> conv2/3x3_reduce (in-place)
I0727 20:26:57.250803   458 net.cpp:141] Setting up conv2/relu_3x3_reduce
I0727 20:26:57.250831   458 net.cpp:148] Top shape: 10 64 56 56 (2007040)
I0727 20:26:57.250838   458 net.cpp:156] Memory required for data: 102359040
I0727 20:26:57.250843   458 layer_factory.hpp:77] Creating layer conv2/3x3
I0727 20:26:57.250859   458 net.cpp:91] Creating Layer conv2/3x3
I0727 20:26:57.250865   458 net.cpp:425] conv2/3x3 <- conv2/3x3_reduce
I0727 20:26:57.250877   458 net.cpp:399] conv2/3x3 -> conv2/3x3
I0727 20:26:57.253319   454 net.cpp:141] Setting up conv2/3x3_reduce
I0727 20:26:57.253348   454 net.cpp:148] Top shape: 10 64 56 56 (2007040)
I0727 20:26:57.253355   454 net.cpp:156] Memory required for data: 94330880
I0727 20:26:57.253366   454 layer_factory.hpp:77] Creating layer conv2/relu_3x3_reduce
I0727 20:26:57.253381   454 net.cpp:91] Creating Layer conv2/relu_3x3_reduce
I0727 20:26:57.253386   454 net.cpp:425] conv2/relu_3x3_reduce <- conv2/3x3_reduce
I0727 20:26:57.253393   454 net.cpp:386] conv2/relu_3x3_reduce -> conv2/3x3_reduce (in-place)
I0727 20:26:57.254215   454 net.cpp:141] Setting up conv2/relu_3x3_reduce
I0727 20:26:57.254242   454 net.cpp:148] Top shape: 10 64 56 56 (2007040)
I0727 20:26:57.254247   454 net.cpp:156] Memory required for data: 102359040
I0727 20:26:57.254252   454 layer_factory.hpp:77] Creating layer conv2/3x3
I0727 20:26:57.254271   454 net.cpp:91] Creating Layer conv2/3x3
I0727 20:26:57.254277   454 net.cpp:425] conv2/3x3 <- conv2/3x3_reduce
I0727 20:26:57.254287   454 net.cpp:399] conv2/3x3 -> conv2/3x3
I0727 20:26:57.258273   458 net.cpp:141] Setting up conv2/3x3
I0727 20:26:57.258306   458 net.cpp:148] Top shape: 10 192 56 56 (6021120)
I0727 20:26:57.258311   458 net.cpp:156] Memory required for data: 126443520
I0727 20:26:57.258323   458 layer_factory.hpp:77] Creating layer conv2/relu_3x3
I0727 20:26:57.258332   458 net.cpp:91] Creating Layer conv2/relu_3x3
I0727 20:26:57.258337   458 net.cpp:425] conv2/relu_3x3 <- conv2/3x3
I0727 20:26:57.258357   458 net.cpp:386] conv2/relu_3x3 -> conv2/3x3 (in-place)
I0727 20:26:57.258676   458 net.cpp:141] Setting up conv2/relu_3x3
I0727 20:26:57.258694   458 net.cpp:148] Top shape: 10 192 56 56 (6021120)
I0727 20:26:57.258700   458 net.cpp:156] Memory required for data: 150528000
I0727 20:26:57.258705   458 layer_factory.hpp:77] Creating layer conv2/norm2
I0727 20:26:57.258716   458 net.cpp:91] Creating Layer conv2/norm2
I0727 20:26:57.258721   458 net.cpp:425] conv2/norm2 <- conv2/3x3
I0727 20:26:57.258728   458 net.cpp:399] conv2/norm2 -> conv2/norm2
I0727 20:26:57.260154   458 net.cpp:141] Setting up conv2/norm2
I0727 20:26:57.260181   458 net.cpp:148] Top shape: 10 192 56 56 (6021120)
I0727 20:26:57.260186   458 net.cpp:156] Memory required for data: 174612480
I0727 20:26:57.260191   458 layer_factory.hpp:77] Creating layer pool2/3x3_s2
I0727 20:26:57.260202   458 net.cpp:91] Creating Layer pool2/3x3_s2
I0727 20:26:57.260210   458 net.cpp:425] pool2/3x3_s2 <- conv2/norm2
I0727 20:26:57.260216   458 net.cpp:399] pool2/3x3_s2 -> pool2/3x3_s2
I0727 20:26:57.260408   458 net.cpp:141] Setting up pool2/3x3_s2
I0727 20:26:57.260419   458 net.cpp:148] Top shape: 10 192 28 28 (1505280)
I0727 20:26:57.260423   458 net.cpp:156] Memory required for data: 180633600
I0727 20:26:57.260428   458 layer_factory.hpp:77] Creating layer pool2/3x3_s2_pool2/3x3_s2_0_split
I0727 20:26:57.260445   458 net.cpp:91] Creating Layer pool2/3x3_s2_pool2/3x3_s2_0_split
I0727 20:26:57.260452   458 net.cpp:425] pool2/3x3_s2_pool2/3x3_s2_0_split <- pool2/3x3_s2
I0727 20:26:57.260459   458 net.cpp:399] pool2/3x3_s2_pool2/3x3_s2_0_split -> pool2/3x3_s2_pool2/3x3_s2_0_split_0
I0727 20:26:57.260469   458 net.cpp:399] pool2/3x3_s2_pool2/3x3_s2_0_split -> pool2/3x3_s2_pool2/3x3_s2_0_split_1
I0727 20:26:57.260478   458 net.cpp:399] pool2/3x3_s2_pool2/3x3_s2_0_split -> pool2/3x3_s2_pool2/3x3_s2_0_split_2
I0727 20:26:57.260485   458 net.cpp:399] pool2/3x3_s2_pool2/3x3_s2_0_split -> pool2/3x3_s2_pool2/3x3_s2_0_split_3
I0727 20:26:57.261122   454 net.cpp:141] Setting up conv2/3x3
I0727 20:26:57.261139   454 net.cpp:148] Top shape: 10 192 56 56 (6021120)
I0727 20:26:57.261145   454 net.cpp:156] Memory required for data: 126443520
I0727 20:26:57.261157   454 layer_factory.hpp:77] Creating layer conv2/relu_3x3
I0727 20:26:57.261169   454 net.cpp:91] Creating Layer conv2/relu_3x3
I0727 20:26:57.261175   454 net.cpp:425] conv2/relu_3x3 <- conv2/3x3
I0727 20:26:57.261183   454 net.cpp:386] conv2/relu_3x3 -> conv2/3x3 (in-place)
I0727 20:26:57.261422   458 net.cpp:141] Setting up pool2/3x3_s2_pool2/3x3_s2_0_split
I0727 20:26:57.261440   458 net.cpp:148] Top shape: 10 192 28 28 (1505280)
I0727 20:26:57.261447   458 net.cpp:148] Top shape: 10 192 28 28 (1505280)
I0727 20:26:57.261452   458 net.cpp:148] Top shape: 10 192 28 28 (1505280)
I0727 20:26:57.261457   458 net.cpp:148] Top shape: 10 192 28 28 (1505280)
I0727 20:26:57.261461   458 net.cpp:156] Memory required for data: 204718080
I0727 20:26:57.261467   458 layer_factory.hpp:77] Creating layer inception_3a/1x1
I0727 20:26:57.261492   458 net.cpp:91] Creating Layer inception_3a/1x1
I0727 20:26:57.261502   458 net.cpp:425] inception_3a/1x1 <- pool2/3x3_s2_pool2/3x3_s2_0_split_0
I0727 20:26:57.261502   454 net.cpp:141] Setting up conv2/relu_3x3
I0727 20:26:57.261515   454 net.cpp:148] Top shape: 10 192 56 56 (6021120)
I0727 20:26:57.261520   454 net.cpp:156] Memory required for data: 150528000
I0727 20:26:57.261525   454 layer_factory.hpp:77] Creating layer conv2/norm2
I0727 20:26:57.261526   458 net.cpp:399] inception_3a/1x1 -> inception_3a/1x1
I0727 20:26:57.261538   454 net.cpp:91] Creating Layer conv2/norm2
I0727 20:26:57.261544   454 net.cpp:425] conv2/norm2 <- conv2/3x3
I0727 20:26:57.261551   454 net.cpp:399] conv2/norm2 -> conv2/norm2
I0727 20:26:57.262603   454 net.cpp:141] Setting up conv2/norm2
I0727 20:26:57.262615   454 net.cpp:148] Top shape: 10 192 56 56 (6021120)
I0727 20:26:57.262620   454 net.cpp:156] Memory required for data: 174612480
I0727 20:26:57.262625   454 layer_factory.hpp:77] Creating layer pool2/3x3_s2
I0727 20:26:57.262637   454 net.cpp:91] Creating Layer pool2/3x3_s2
I0727 20:26:57.262642   454 net.cpp:425] pool2/3x3_s2 <- conv2/norm2
I0727 20:26:57.262650   454 net.cpp:399] pool2/3x3_s2 -> pool2/3x3_s2
I0727 20:26:57.262765   454 net.cpp:141] Setting up pool2/3x3_s2
I0727 20:26:57.262778   454 net.cpp:148] Top shape: 10 192 28 28 (1505280)
I0727 20:26:57.262781   454 net.cpp:156] Memory required for data: 180633600
I0727 20:26:57.262786   454 layer_factory.hpp:77] Creating layer pool2/3x3_s2_pool2/3x3_s2_0_split
I0727 20:26:57.262804   454 net.cpp:91] Creating Layer pool2/3x3_s2_pool2/3x3_s2_0_split
I0727 20:26:57.262810   454 net.cpp:425] pool2/3x3_s2_pool2/3x3_s2_0_split <- pool2/3x3_s2
I0727 20:26:57.262817   454 net.cpp:399] pool2/3x3_s2_pool2/3x3_s2_0_split -> pool2/3x3_s2_pool2/3x3_s2_0_split_0
I0727 20:26:57.262830   454 net.cpp:399] pool2/3x3_s2_pool2/3x3_s2_0_split -> pool2/3x3_s2_pool2/3x3_s2_0_split_1
I0727 20:26:57.262838   454 net.cpp:399] pool2/3x3_s2_pool2/3x3_s2_0_split -> pool2/3x3_s2_pool2/3x3_s2_0_split_2
I0727 20:26:57.262845   454 net.cpp:399] pool2/3x3_s2_pool2/3x3_s2_0_split -> pool2/3x3_s2_pool2/3x3_s2_0_split_3
I0727 20:26:57.263195   454 net.cpp:141] Setting up pool2/3x3_s2_pool2/3x3_s2_0_split
I0727 20:26:57.263207   454 net.cpp:148] Top shape: 10 192 28 28 (1505280)
I0727 20:26:57.263213   454 net.cpp:148] Top shape: 10 192 28 28 (1505280)
I0727 20:26:57.263218   454 net.cpp:148] Top shape: 10 192 28 28 (1505280)
I0727 20:26:57.263223   454 net.cpp:148] Top shape: 10 192 28 28 (1505280)
I0727 20:26:57.263227   454 net.cpp:156] Memory required for data: 204718080
I0727 20:26:57.263232   454 layer_factory.hpp:77] Creating layer inception_3a/1x1
I0727 20:26:57.263248   454 net.cpp:91] Creating Layer inception_3a/1x1
I0727 20:26:57.263254   454 net.cpp:425] inception_3a/1x1 <- pool2/3x3_s2_pool2/3x3_s2_0_split_0
I0727 20:26:57.263267   454 net.cpp:399] inception_3a/1x1 -> inception_3a/1x1
I0727 20:26:57.267426   458 net.cpp:141] Setting up inception_3a/1x1
I0727 20:26:57.267443   458 net.cpp:148] Top shape: 10 64 28 28 (501760)
I0727 20:26:57.267448   458 net.cpp:156] Memory required for data: 206725120
I0727 20:26:57.267458   458 layer_factory.hpp:77] Creating layer inception_3a/relu_1x1
I0727 20:26:57.267467   458 net.cpp:91] Creating Layer inception_3a/relu_1x1
I0727 20:26:57.267472   458 net.cpp:425] inception_3a/relu_1x1 <- inception_3a/1x1
I0727 20:26:57.267483   458 net.cpp:386] inception_3a/relu_1x1 -> inception_3a/1x1 (in-place)
I0727 20:26:57.267729   458 net.cpp:141] Setting up inception_3a/relu_1x1
I0727 20:26:57.267740   458 net.cpp:148] Top shape: 10 64 28 28 (501760)
I0727 20:26:57.267745   458 net.cpp:156] Memory required for data: 208732160
I0727 20:26:57.267750   458 layer_factory.hpp:77] Creating layer inception_3a/3x3_reduce
I0727 20:26:57.267763   458 net.cpp:91] Creating Layer inception_3a/3x3_reduce
I0727 20:26:57.267770   458 net.cpp:425] inception_3a/3x3_reduce <- pool2/3x3_s2_pool2/3x3_s2_0_split_1
I0727 20:26:57.267783   458 net.cpp:399] inception_3a/3x3_reduce -> inception_3a/3x3_reduce
I0727 20:26:57.272866   454 net.cpp:141] Setting up inception_3a/1x1
I0727 20:26:57.272882   454 net.cpp:148] Top shape: 10 64 28 28 (501760)
I0727 20:26:57.272887   454 net.cpp:156] Memory required for data: 206725120
I0727 20:26:57.272899   454 layer_factory.hpp:77] Creating layer inception_3a/relu_1x1
I0727 20:26:57.272908   454 net.cpp:91] Creating Layer inception_3a/relu_1x1
I0727 20:26:57.272914   454 net.cpp:425] inception_3a/relu_1x1 <- inception_3a/1x1
I0727 20:26:57.272922   454 net.cpp:386] inception_3a/relu_1x1 -> inception_3a/1x1 (in-place)
I0727 20:26:57.273203   454 net.cpp:141] Setting up inception_3a/relu_1x1
I0727 20:26:57.273216   454 net.cpp:148] Top shape: 10 64 28 28 (501760)
I0727 20:26:57.273219   454 net.cpp:156] Memory required for data: 208732160
I0727 20:26:57.273224   454 layer_factory.hpp:77] Creating layer inception_3a/3x3_reduce
I0727 20:26:57.273239   454 net.cpp:91] Creating Layer inception_3a/3x3_reduce
I0727 20:26:57.273246   454 net.cpp:425] inception_3a/3x3_reduce <- pool2/3x3_s2_pool2/3x3_s2_0_split_1
I0727 20:26:57.273254   454 net.cpp:399] inception_3a/3x3_reduce -> inception_3a/3x3_reduce
I0727 20:26:57.277417   458 net.cpp:141] Setting up inception_3a/3x3_reduce
I0727 20:26:57.277438   458 net.cpp:148] Top shape: 10 96 28 28 (752640)
I0727 20:26:57.277444   458 net.cpp:156] Memory required for data: 211742720
I0727 20:26:57.277461   458 layer_factory.hpp:77] Creating layer inception_3a/relu_3x3_reduce
I0727 20:26:57.277470   458 net.cpp:91] Creating Layer inception_3a/relu_3x3_reduce
I0727 20:26:57.277475   458 net.cpp:425] inception_3a/relu_3x3_reduce <- inception_3a/3x3_reduce
I0727 20:26:57.277482   458 net.cpp:386] inception_3a/relu_3x3_reduce -> inception_3a/3x3_reduce (in-place)
I0727 20:26:57.277825   458 net.cpp:141] Setting up inception_3a/relu_3x3_reduce
I0727 20:26:57.277837   458 net.cpp:148] Top shape: 10 96 28 28 (752640)
I0727 20:26:57.277842   458 net.cpp:156] Memory required for data: 214753280
I0727 20:26:57.277848   458 layer_factory.hpp:77] Creating layer inception_3a/3x3
I0727 20:26:57.277864   458 net.cpp:91] Creating Layer inception_3a/3x3
I0727 20:26:57.277870   458 net.cpp:425] inception_3a/3x3 <- inception_3a/3x3_reduce
I0727 20:26:57.277882   458 net.cpp:399] inception_3a/3x3 -> inception_3a/3x3
I0727 20:26:57.279067   454 net.cpp:141] Setting up inception_3a/3x3_reduce
I0727 20:26:57.279084   454 net.cpp:148] Top shape: 10 96 28 28 (752640)
I0727 20:26:57.279089   454 net.cpp:156] Memory required for data: 211742720
I0727 20:26:57.279106   454 layer_factory.hpp:77] Creating layer inception_3a/relu_3x3_reduce
I0727 20:26:57.279115   454 net.cpp:91] Creating Layer inception_3a/relu_3x3_reduce
I0727 20:26:57.279120   454 net.cpp:425] inception_3a/relu_3x3_reduce <- inception_3a/3x3_reduce
I0727 20:26:57.279130   454 net.cpp:386] inception_3a/relu_3x3_reduce -> inception_3a/3x3_reduce (in-place)
I0727 20:26:57.279368   454 net.cpp:141] Setting up inception_3a/relu_3x3_reduce
I0727 20:26:57.279379   454 net.cpp:148] Top shape: 10 96 28 28 (752640)
I0727 20:26:57.279384   454 net.cpp:156] Memory required for data: 214753280
I0727 20:26:57.279388   454 layer_factory.hpp:77] Creating layer inception_3a/3x3
I0727 20:26:57.279408   454 net.cpp:91] Creating Layer inception_3a/3x3
I0727 20:26:57.279414   454 net.cpp:425] inception_3a/3x3 <- inception_3a/3x3_reduce
I0727 20:26:57.279423   454 net.cpp:399] inception_3a/3x3 -> inception_3a/3x3
I0727 20:26:57.282388   458 net.cpp:141] Setting up inception_3a/3x3
I0727 20:26:57.282405   458 net.cpp:148] Top shape: 10 128 28 28 (1003520)
I0727 20:26:57.282410   458 net.cpp:156] Memory required for data: 218767360
I0727 20:26:57.282419   458 layer_factory.hpp:77] Creating layer inception_3a/relu_3x3
I0727 20:26:57.282433   458 net.cpp:91] Creating Layer inception_3a/relu_3x3
I0727 20:26:57.282438   458 net.cpp:425] inception_3a/relu_3x3 <- inception_3a/3x3
I0727 20:26:57.282449   458 net.cpp:386] inception_3a/relu_3x3 -> inception_3a/3x3 (in-place)
I0727 20:26:57.283300   458 net.cpp:141] Setting up inception_3a/relu_3x3
I0727 20:26:57.283316   458 net.cpp:148] Top shape: 10 128 28 28 (1003520)
I0727 20:26:57.283320   458 net.cpp:156] Memory required for data: 222781440
I0727 20:26:57.283326   458 layer_factory.hpp:77] Creating layer inception_3a/5x5_reduce
I0727 20:26:57.283341   458 net.cpp:91] Creating Layer inception_3a/5x5_reduce
I0727 20:26:57.283347   458 net.cpp:425] inception_3a/5x5_reduce <- pool2/3x3_s2_pool2/3x3_s2_0_split_2
I0727 20:26:57.283365   458 net.cpp:399] inception_3a/5x5_reduce -> inception_3a/5x5_reduce
I0727 20:26:57.283390   454 net.cpp:141] Setting up inception_3a/3x3
I0727 20:26:57.283403   454 net.cpp:148] Top shape: 10 128 28 28 (1003520)
I0727 20:26:57.283408   454 net.cpp:156] Memory required for data: 218767360
I0727 20:26:57.283416   454 layer_factory.hpp:77] Creating layer inception_3a/relu_3x3
I0727 20:26:57.283427   454 net.cpp:91] Creating Layer inception_3a/relu_3x3
I0727 20:26:57.283432   454 net.cpp:425] inception_3a/relu_3x3 <- inception_3a/3x3
I0727 20:26:57.283442   454 net.cpp:386] inception_3a/relu_3x3 -> inception_3a/3x3 (in-place)
I0727 20:26:57.284329   454 net.cpp:141] Setting up inception_3a/relu_3x3
I0727 20:26:57.284344   454 net.cpp:148] Top shape: 10 128 28 28 (1003520)
I0727 20:26:57.284348   454 net.cpp:156] Memory required for data: 222781440
I0727 20:26:57.284353   454 layer_factory.hpp:77] Creating layer inception_3a/5x5_reduce
I0727 20:26:57.284370   454 net.cpp:91] Creating Layer inception_3a/5x5_reduce
I0727 20:26:57.284378   454 net.cpp:425] inception_3a/5x5_reduce <- pool2/3x3_s2_pool2/3x3_s2_0_split_2
I0727 20:26:57.284387   454 net.cpp:399] inception_3a/5x5_reduce -> inception_3a/5x5_reduce
I0727 20:26:57.288130   458 net.cpp:141] Setting up inception_3a/5x5_reduce
I0727 20:26:57.288147   458 net.cpp:148] Top shape: 10 16 28 28 (125440)
I0727 20:26:57.288152   458 net.cpp:156] Memory required for data: 223283200
I0727 20:26:57.288161   458 layer_factory.hpp:77] Creating layer inception_3a/relu_5x5_reduce
I0727 20:26:57.288169   458 net.cpp:91] Creating Layer inception_3a/relu_5x5_reduce
I0727 20:26:57.288175   458 net.cpp:425] inception_3a/relu_5x5_reduce <- inception_3a/5x5_reduce
I0727 20:26:57.288183   458 net.cpp:386] inception_3a/relu_5x5_reduce -> inception_3a/5x5_reduce (in-place)
I0727 20:26:57.288568   458 net.cpp:141] Setting up inception_3a/relu_5x5_reduce
I0727 20:26:57.288580   458 net.cpp:148] Top shape: 10 16 28 28 (125440)
I0727 20:26:57.288584   458 net.cpp:156] Memory required for data: 223784960
I0727 20:26:57.288589   458 layer_factory.hpp:77] Creating layer inception_3a/5x5
I0727 20:26:57.288607   458 net.cpp:91] Creating Layer inception_3a/5x5
I0727 20:26:57.288612   458 net.cpp:425] inception_3a/5x5 <- inception_3a/5x5_reduce
I0727 20:26:57.288621   458 net.cpp:399] inception_3a/5x5 -> inception_3a/5x5
I0727 20:26:57.288664   454 net.cpp:141] Setting up inception_3a/5x5_reduce
I0727 20:26:57.288683   454 net.cpp:148] Top shape: 10 16 28 28 (125440)
I0727 20:26:57.288691   454 net.cpp:156] Memory required for data: 223283200
I0727 20:26:57.288705   454 layer_factory.hpp:77] Creating layer inception_3a/relu_5x5_reduce
I0727 20:26:57.288723   454 net.cpp:91] Creating Layer inception_3a/relu_5x5_reduce
I0727 20:26:57.288733   454 net.cpp:425] inception_3a/relu_5x5_reduce <- inception_3a/5x5_reduce
I0727 20:26:57.288746   454 net.cpp:386] inception_3a/relu_5x5_reduce -> inception_3a/5x5_reduce (in-place)
I0727 20:26:57.289180   454 net.cpp:141] Setting up inception_3a/relu_5x5_reduce
I0727 20:26:57.289194   454 net.cpp:148] Top shape: 10 16 28 28 (125440)
I0727 20:26:57.289199   454 net.cpp:156] Memory required for data: 223784960
I0727 20:26:57.289203   454 layer_factory.hpp:77] Creating layer inception_3a/5x5
I0727 20:26:57.289219   454 net.cpp:91] Creating Layer inception_3a/5x5
I0727 20:26:57.289227   454 net.cpp:425] inception_3a/5x5 <- inception_3a/5x5_reduce
I0727 20:26:57.289237   454 net.cpp:399] inception_3a/5x5 -> inception_3a/5x5
I0727 20:26:57.294178   458 net.cpp:141] Setting up inception_3a/5x5
I0727 20:26:57.294196   458 net.cpp:148] Top shape: 10 32 28 28 (250880)
I0727 20:26:57.294201   458 net.cpp:156] Memory required for data: 224788480
I0727 20:26:57.294210   458 layer_factory.hpp:77] Creating layer inception_3a/relu_5x5
I0727 20:26:57.294220   458 net.cpp:91] Creating Layer inception_3a/relu_5x5
I0727 20:26:57.294225   458 net.cpp:425] inception_3a/relu_5x5 <- inception_3a/5x5
I0727 20:26:57.294235   458 net.cpp:386] inception_3a/relu_5x5 -> inception_3a/5x5 (in-place)
I0727 20:26:57.294574   458 net.cpp:141] Setting up inception_3a/relu_5x5
I0727 20:26:57.294587   458 net.cpp:148] Top shape: 10 32 28 28 (250880)
I0727 20:26:57.294591   458 net.cpp:156] Memory required for data: 225792000
I0727 20:26:57.294596   458 layer_factory.hpp:77] Creating layer inception_3a/pool
I0727 20:26:57.294605   458 net.cpp:91] Creating Layer inception_3a/pool
I0727 20:26:57.294610   458 net.cpp:425] inception_3a/pool <- pool2/3x3_s2_pool2/3x3_s2_0_split_3
I0727 20:26:57.294621   458 net.cpp:399] inception_3a/pool -> inception_3a/pool
I0727 20:26:57.295176   454 net.cpp:141] Setting up inception_3a/5x5
I0727 20:26:57.295195   454 net.cpp:148] Top shape: 10 32 28 28 (250880)
I0727 20:26:57.295200   454 net.cpp:156] Memory required for data: 224788480
I0727 20:26:57.295209   454 layer_factory.hpp:77] Creating layer inception_3a/relu_5x5
I0727 20:26:57.295208   458 net.cpp:141] Setting up inception_3a/pool
I0727 20:26:57.295219   454 net.cpp:91] Creating Layer inception_3a/relu_5x5
I0727 20:26:57.295222   458 net.cpp:148] Top shape: 10 192 28 28 (1505280)
I0727 20:26:57.295225   454 net.cpp:425] inception_3a/relu_5x5 <- inception_3a/5x5
I0727 20:26:57.295225   458 net.cpp:156] Memory required for data: 231813120
I0727 20:26:57.295236   454 net.cpp:386] inception_3a/relu_5x5 -> inception_3a/5x5 (in-place)
I0727 20:26:57.295238   458 layer_factory.hpp:77] Creating layer inception_3a/pool_proj
I0727 20:26:57.295254   458 net.cpp:91] Creating Layer inception_3a/pool_proj
I0727 20:26:57.295260   458 net.cpp:425] inception_3a/pool_proj <- inception_3a/pool
I0727 20:26:57.295269   458 net.cpp:399] inception_3a/pool_proj -> inception_3a/pool_proj
I0727 20:26:57.295598   454 net.cpp:141] Setting up inception_3a/relu_5x5
I0727 20:26:57.295609   454 net.cpp:148] Top shape: 10 32 28 28 (250880)
I0727 20:26:57.295614   454 net.cpp:156] Memory required for data: 225792000
I0727 20:26:57.295619   454 layer_factory.hpp:77] Creating layer inception_3a/pool
I0727 20:26:57.295629   454 net.cpp:91] Creating Layer inception_3a/pool
I0727 20:26:57.295635   454 net.cpp:425] inception_3a/pool <- pool2/3x3_s2_pool2/3x3_s2_0_split_3
I0727 20:26:57.295642   454 net.cpp:399] inception_3a/pool -> inception_3a/pool
I0727 20:26:57.295858   454 net.cpp:141] Setting up inception_3a/pool
I0727 20:26:57.295871   454 net.cpp:148] Top shape: 10 192 28 28 (1505280)
I0727 20:26:57.295874   454 net.cpp:156] Memory required for data: 231813120
I0727 20:26:57.295879   454 layer_factory.hpp:77] Creating layer inception_3a/pool_proj
I0727 20:26:57.295893   454 net.cpp:91] Creating Layer inception_3a/pool_proj
I0727 20:26:57.295899   454 net.cpp:425] inception_3a/pool_proj <- inception_3a/pool
I0727 20:26:57.295912   454 net.cpp:399] inception_3a/pool_proj -> inception_3a/pool_proj
I0727 20:26:57.299458   458 net.cpp:141] Setting up inception_3a/pool_proj
I0727 20:26:57.299475   458 net.cpp:148] Top shape: 10 32 28 28 (250880)
I0727 20:26:57.299480   458 net.cpp:156] Memory required for data: 232816640
I0727 20:26:57.299496   458 layer_factory.hpp:77] Creating layer inception_3a/relu_pool_proj
I0727 20:26:57.299505   458 net.cpp:91] Creating Layer inception_3a/relu_pool_proj
I0727 20:26:57.299510   458 net.cpp:425] inception_3a/relu_pool_proj <- inception_3a/pool_proj
I0727 20:26:57.299520   458 net.cpp:386] inception_3a/relu_pool_proj -> inception_3a/pool_proj (in-place)
I0727 20:26:57.300375   458 net.cpp:141] Setting up inception_3a/relu_pool_proj
I0727 20:26:57.300390   458 net.cpp:148] Top shape: 10 32 28 28 (250880)
I0727 20:26:57.300395   458 net.cpp:156] Memory required for data: 233820160
I0727 20:26:57.300400   458 layer_factory.hpp:77] Creating layer inception_3a/output
I0727 20:26:57.300420   458 net.cpp:91] Creating Layer inception_3a/output
I0727 20:26:57.300426   458 net.cpp:425] inception_3a/output <- inception_3a/1x1
I0727 20:26:57.300432   458 net.cpp:425] inception_3a/output <- inception_3a/3x3
I0727 20:26:57.300438   458 net.cpp:425] inception_3a/output <- inception_3a/5x5
I0727 20:26:57.300443   458 net.cpp:425] inception_3a/output <- inception_3a/pool_proj
I0727 20:26:57.300453   458 net.cpp:399] inception_3a/output -> inception_3a/output
I0727 20:26:57.300487   454 net.cpp:141] Setting up inception_3a/pool_proj
I0727 20:26:57.300500   454 net.cpp:148] Top shape: 10 32 28 28 (250880)
I0727 20:26:57.300505   454 net.cpp:156] Memory required for data: 232816640
I0727 20:26:57.300519   458 net.cpp:141] Setting up inception_3a/output
I0727 20:26:57.300521   454 layer_factory.hpp:77] Creating layer inception_3a/relu_pool_proj
I0727 20:26:57.300534   458 net.cpp:148] Top shape: 10 256 28 28 (2007040)
I0727 20:26:57.300539   458 net.cpp:156] Memory required for data: 241848320
I0727 20:26:57.300541   454 net.cpp:91] Creating Layer inception_3a/relu_pool_proj
I0727 20:26:57.300542   458 layer_factory.hpp:77] Creating layer inception_3a/output_inception_3a/output_0_split
I0727 20:26:57.300551   454 net.cpp:425] inception_3a/relu_pool_proj <- inception_3a/pool_proj
I0727 20:26:57.300559   458 net.cpp:91] Creating Layer inception_3a/output_inception_3a/output_0_split
I0727 20:26:57.300559   454 net.cpp:386] inception_3a/relu_pool_proj -> inception_3a/pool_proj (in-place)
I0727 20:26:57.300567   458 net.cpp:425] inception_3a/output_inception_3a/output_0_split <- inception_3a/output
I0727 20:26:57.300578   458 net.cpp:399] inception_3a/output_inception_3a/output_0_split -> inception_3a/output_inception_3a/output_0_split_0
I0727 20:26:57.300588   458 net.cpp:399] inception_3a/output_inception_3a/output_0_split -> inception_3a/output_inception_3a/output_0_split_1
I0727 20:26:57.300596   458 net.cpp:399] inception_3a/output_inception_3a/output_0_split -> inception_3a/output_inception_3a/output_0_split_2
I0727 20:26:57.300603   458 net.cpp:399] inception_3a/output_inception_3a/output_0_split -> inception_3a/output_inception_3a/output_0_split_3
I0727 20:26:57.301385   458 net.cpp:141] Setting up inception_3a/output_inception_3a/output_0_split
I0727 20:26:57.301396   458 net.cpp:148] Top shape: 10 256 28 28 (2007040)
I0727 20:26:57.301403   458 net.cpp:148] Top shape: 10 256 28 28 (2007040)
I0727 20:26:57.301408   458 net.cpp:148] Top shape: 10 256 28 28 (2007040)
I0727 20:26:57.301412   458 net.cpp:148] Top shape: 10 256 28 28 (2007040)
I0727 20:26:57.301416   458 net.cpp:156] Memory required for data: 273960960
I0727 20:26:57.301414   454 net.cpp:141] Setting up inception_3a/relu_pool_proj
I0727 20:26:57.301421   458 layer_factory.hpp:77] Creating layer inception_3b/1x1
I0727 20:26:57.301427   454 net.cpp:148] Top shape: 10 32 28 28 (250880)
I0727 20:26:57.301432   454 net.cpp:156] Memory required for data: 233820160
I0727 20:26:57.301435   458 net.cpp:91] Creating Layer inception_3b/1x1
I0727 20:26:57.301437   454 layer_factory.hpp:77] Creating layer inception_3a/output
I0727 20:26:57.301441   458 net.cpp:425] inception_3b/1x1 <- inception_3a/output_inception_3a/output_0_split_0
I0727 20:26:57.301448   454 net.cpp:91] Creating Layer inception_3a/output
I0727 20:26:57.301453   454 net.cpp:425] inception_3a/output <- inception_3a/1x1
I0727 20:26:57.301453   458 net.cpp:399] inception_3b/1x1 -> inception_3b/1x1
I0727 20:26:57.301461   454 net.cpp:425] inception_3a/output <- inception_3a/3x3
I0727 20:26:57.301466   454 net.cpp:425] inception_3a/output <- inception_3a/5x5
I0727 20:26:57.301471   454 net.cpp:425] inception_3a/output <- inception_3a/pool_proj
I0727 20:26:57.301477   454 net.cpp:399] inception_3a/output -> inception_3a/output
I0727 20:26:57.301597   454 net.cpp:141] Setting up inception_3a/output
I0727 20:26:57.301610   454 net.cpp:148] Top shape: 10 256 28 28 (2007040)
I0727 20:26:57.301614   454 net.cpp:156] Memory required for data: 241848320
I0727 20:26:57.301620   454 layer_factory.hpp:77] Creating layer inception_3a/output_inception_3a/output_0_split
I0727 20:26:57.301627   454 net.cpp:91] Creating Layer inception_3a/output_inception_3a/output_0_split
I0727 20:26:57.301632   454 net.cpp:425] inception_3a/output_inception_3a/output_0_split <- inception_3a/output
I0727 20:26:57.301638   454 net.cpp:399] inception_3a/output_inception_3a/output_0_split -> inception_3a/output_inception_3a/output_0_split_0
I0727 20:26:57.301647   454 net.cpp:399] inception_3a/output_inception_3a/output_0_split -> inception_3a/output_inception_3a/output_0_split_1
I0727 20:26:57.301658   454 net.cpp:399] inception_3a/output_inception_3a/output_0_split -> inception_3a/output_inception_3a/output_0_split_2
I0727 20:26:57.301666   454 net.cpp:399] inception_3a/output_inception_3a/output_0_split -> inception_3a/output_inception_3a/output_0_split_3
I0727 20:26:57.302031   454 net.cpp:141] Setting up inception_3a/output_inception_3a/output_0_split
I0727 20:26:57.302042   454 net.cpp:148] Top shape: 10 256 28 28 (2007040)
I0727 20:26:57.302047   454 net.cpp:148] Top shape: 10 256 28 28 (2007040)
I0727 20:26:57.302053   454 net.cpp:148] Top shape: 10 256 28 28 (2007040)
I0727 20:26:57.302058   454 net.cpp:148] Top shape: 10 256 28 28 (2007040)
I0727 20:26:57.302062   454 net.cpp:156] Memory required for data: 273960960
I0727 20:26:57.302067   454 layer_factory.hpp:77] Creating layer inception_3b/1x1
I0727 20:26:57.302080   454 net.cpp:91] Creating Layer inception_3b/1x1
I0727 20:26:57.302086   454 net.cpp:425] inception_3b/1x1 <- inception_3a/output_inception_3a/output_0_split_0
I0727 20:26:57.302095   454 net.cpp:399] inception_3b/1x1 -> inception_3b/1x1
I0727 20:26:57.305944   458 net.cpp:141] Setting up inception_3b/1x1
I0727 20:26:57.305961   458 net.cpp:148] Top shape: 10 128 28 28 (1003520)
I0727 20:26:57.305966   458 net.cpp:156] Memory required for data: 277975040
I0727 20:26:57.305975   458 layer_factory.hpp:77] Creating layer inception_3b/relu_1x1
I0727 20:26:57.305984   458 net.cpp:91] Creating Layer inception_3b/relu_1x1
I0727 20:26:57.305989   458 net.cpp:425] inception_3b/relu_1x1 <- inception_3b/1x1
I0727 20:26:57.305999   458 net.cpp:386] inception_3b/relu_1x1 -> inception_3b/1x1 (in-place)
I0727 20:26:57.306342   458 net.cpp:141] Setting up inception_3b/relu_1x1
I0727 20:26:57.306354   458 net.cpp:148] Top shape: 10 128 28 28 (1003520)
I0727 20:26:57.306359   458 net.cpp:156] Memory required for data: 281989120
I0727 20:26:57.306363   458 layer_factory.hpp:77] Creating layer inception_3b/3x3_reduce
I0727 20:26:57.306381   458 net.cpp:91] Creating Layer inception_3b/3x3_reduce
I0727 20:26:57.306387   458 net.cpp:425] inception_3b/3x3_reduce <- inception_3a/output_inception_3a/output_0_split_1
I0727 20:26:57.306396   458 net.cpp:399] inception_3b/3x3_reduce -> inception_3b/3x3_reduce
I0727 20:26:57.306452   454 net.cpp:141] Setting up inception_3b/1x1
I0727 20:26:57.306468   454 net.cpp:148] Top shape: 10 128 28 28 (1003520)
I0727 20:26:57.306473   454 net.cpp:156] Memory required for data: 277975040
I0727 20:26:57.306481   454 layer_factory.hpp:77] Creating layer inception_3b/relu_1x1
I0727 20:26:57.306493   454 net.cpp:91] Creating Layer inception_3b/relu_1x1
I0727 20:26:57.306499   454 net.cpp:425] inception_3b/relu_1x1 <- inception_3b/1x1
I0727 20:26:57.306507   454 net.cpp:386] inception_3b/relu_1x1 -> inception_3b/1x1 (in-place)
I0727 20:26:57.306862   454 net.cpp:141] Setting up inception_3b/relu_1x1
I0727 20:26:57.306874   454 net.cpp:148] Top shape: 10 128 28 28 (1003520)
I0727 20:26:57.306879   454 net.cpp:156] Memory required for data: 281989120
I0727 20:26:57.306885   454 layer_factory.hpp:77] Creating layer inception_3b/3x3_reduce
I0727 20:26:57.306900   454 net.cpp:91] Creating Layer inception_3b/3x3_reduce
I0727 20:26:57.306906   454 net.cpp:425] inception_3b/3x3_reduce <- inception_3a/output_inception_3a/output_0_split_1
I0727 20:26:57.306918   454 net.cpp:399] inception_3b/3x3_reduce -> inception_3b/3x3_reduce
I0727 20:26:57.310185   458 net.cpp:141] Setting up inception_3b/3x3_reduce
I0727 20:26:57.310204   458 net.cpp:148] Top shape: 10 128 28 28 (1003520)
I0727 20:26:57.310210   458 net.cpp:156] Memory required for data: 286003200
I0727 20:26:57.310220   458 layer_factory.hpp:77] Creating layer inception_3b/relu_3x3_reduce
I0727 20:26:57.310228   458 net.cpp:91] Creating Layer inception_3b/relu_3x3_reduce
I0727 20:26:57.310235   458 net.cpp:425] inception_3b/relu_3x3_reduce <- inception_3b/3x3_reduce
I0727 20:26:57.310251   458 net.cpp:386] inception_3b/relu_3x3_reduce -> inception_3b/3x3_reduce (in-place)
I0727 20:26:57.310541   454 net.cpp:141] Setting up inception_3b/3x3_reduce
I0727 20:26:57.310555   454 net.cpp:148] Top shape: 10 128 28 28 (1003520)
I0727 20:26:57.310560   454 net.cpp:156] Memory required for data: 286003200
I0727 20:26:57.310570   454 layer_factory.hpp:77] Creating layer inception_3b/relu_3x3_reduce
I0727 20:26:57.310580   454 net.cpp:91] Creating Layer inception_3b/relu_3x3_reduce
I0727 20:26:57.310578   458 net.cpp:141] Setting up inception_3b/relu_3x3_reduce
I0727 20:26:57.310590   454 net.cpp:425] inception_3b/relu_3x3_reduce <- inception_3b/3x3_reduce
I0727 20:26:57.310597   458 net.cpp:148] Top shape: 10 128 28 28 (1003520)
I0727 20:26:57.310598   454 net.cpp:386] inception_3b/relu_3x3_reduce -> inception_3b/3x3_reduce (in-place)
I0727 20:26:57.310601   458 net.cpp:156] Memory required for data: 290017280
I0727 20:26:57.310607   458 layer_factory.hpp:77] Creating layer inception_3b/3x3
I0727 20:26:57.310622   458 net.cpp:91] Creating Layer inception_3b/3x3
I0727 20:26:57.310628   458 net.cpp:425] inception_3b/3x3 <- inception_3b/3x3_reduce
I0727 20:26:57.310647   458 net.cpp:399] inception_3b/3x3 -> inception_3b/3x3
I0727 20:26:57.311003   454 net.cpp:141] Setting up inception_3b/relu_3x3_reduce
I0727 20:26:57.311018   454 net.cpp:148] Top shape: 10 128 28 28 (1003520)
I0727 20:26:57.311023   454 net.cpp:156] Memory required for data: 290017280
I0727 20:26:57.311028   454 layer_factory.hpp:77] Creating layer inception_3b/3x3
I0727 20:26:57.311043   454 net.cpp:91] Creating Layer inception_3b/3x3
I0727 20:26:57.311048   454 net.cpp:425] inception_3b/3x3 <- inception_3b/3x3_reduce
I0727 20:26:57.311058   454 net.cpp:399] inception_3b/3x3 -> inception_3b/3x3
I0727 20:26:57.317996   458 net.cpp:141] Setting up inception_3b/3x3
I0727 20:26:57.318018   458 net.cpp:148] Top shape: 10 192 28 28 (1505280)
I0727 20:26:57.318024   458 net.cpp:156] Memory required for data: 296038400
I0727 20:26:57.318033   458 layer_factory.hpp:77] Creating layer inception_3b/relu_3x3
I0727 20:26:57.318054   458 net.cpp:91] Creating Layer inception_3b/relu_3x3
I0727 20:26:57.318061   458 net.cpp:425] inception_3b/relu_3x3 <- inception_3b/3x3
I0727 20:26:57.318069   458 net.cpp:386] inception_3b/relu_3x3 -> inception_3b/3x3 (in-place)
I0727 20:26:57.318994   458 net.cpp:141] Setting up inception_3b/relu_3x3
I0727 20:26:57.319008   458 net.cpp:148] Top shape: 10 192 28 28 (1505280)
I0727 20:26:57.319013   458 net.cpp:156] Memory required for data: 302059520
I0727 20:26:57.319018   458 layer_factory.hpp:77] Creating layer inception_3b/5x5_reduce
I0727 20:26:57.319033   458 net.cpp:91] Creating Layer inception_3b/5x5_reduce
I0727 20:26:57.319041   458 net.cpp:425] inception_3b/5x5_reduce <- inception_3a/output_inception_3a/output_0_split_2
I0727 20:26:57.319052   458 net.cpp:399] inception_3b/5x5_reduce -> inception_3b/5x5_reduce
I0727 20:26:57.319051   454 net.cpp:141] Setting up inception_3b/3x3
I0727 20:26:57.319067   454 net.cpp:148] Top shape: 10 192 28 28 (1505280)
I0727 20:26:57.319072   454 net.cpp:156] Memory required for data: 296038400
I0727 20:26:57.319082   454 layer_factory.hpp:77] Creating layer inception_3b/relu_3x3
I0727 20:26:57.319097   454 net.cpp:91] Creating Layer inception_3b/relu_3x3
I0727 20:26:57.319103   454 net.cpp:425] inception_3b/relu_3x3 <- inception_3b/3x3
I0727 20:26:57.319111   454 net.cpp:386] inception_3b/relu_3x3 -> inception_3b/3x3 (in-place)
I0727 20:26:57.319983   454 net.cpp:141] Setting up inception_3b/relu_3x3
I0727 20:26:57.319998   454 net.cpp:148] Top shape: 10 192 28 28 (1505280)
I0727 20:26:57.320003   454 net.cpp:156] Memory required for data: 302059520
I0727 20:26:57.320008   454 layer_factory.hpp:77] Creating layer inception_3b/5x5_reduce
I0727 20:26:57.320025   454 net.cpp:91] Creating Layer inception_3b/5x5_reduce
I0727 20:26:57.320031   454 net.cpp:425] inception_3b/5x5_reduce <- inception_3a/output_inception_3a/output_0_split_2
I0727 20:26:57.320041   454 net.cpp:399] inception_3b/5x5_reduce -> inception_3b/5x5_reduce
I0727 20:26:57.323782   458 net.cpp:141] Setting up inception_3b/5x5_reduce
I0727 20:26:57.323801   458 net.cpp:148] Top shape: 10 32 28 28 (250880)
I0727 20:26:57.323806   458 net.cpp:156] Memory required for data: 303063040
I0727 20:26:57.323814   458 layer_factory.hpp:77] Creating layer inception_3b/relu_5x5_reduce
I0727 20:26:57.323825   458 net.cpp:91] Creating Layer inception_3b/relu_5x5_reduce
I0727 20:26:57.323832   458 net.cpp:425] inception_3b/relu_5x5_reduce <- inception_3b/5x5_reduce
I0727 20:26:57.323838   458 net.cpp:386] inception_3b/relu_5x5_reduce -> inception_3b/5x5_reduce (in-place)
I0727 20:26:57.324231   458 net.cpp:141] Setting up inception_3b/relu_5x5_reduce
I0727 20:26:57.324245   458 net.cpp:148] Top shape: 10 32 28 28 (250880)
I0727 20:26:57.324249   458 net.cpp:156] Memory required for data: 304066560
I0727 20:26:57.324255   458 layer_factory.hpp:77] Creating layer inception_3b/5x5
I0727 20:26:57.324275   458 net.cpp:91] Creating Layer inception_3b/5x5
I0727 20:26:57.324282   458 net.cpp:425] inception_3b/5x5 <- inception_3b/5x5_reduce
I0727 20:26:57.324291   458 net.cpp:399] inception_3b/5x5 -> inception_3b/5x5
I0727 20:26:57.324324   454 net.cpp:141] Setting up inception_3b/5x5_reduce
I0727 20:26:57.324339   454 net.cpp:148] Top shape: 10 32 28 28 (250880)
I0727 20:26:57.324344   454 net.cpp:156] Memory required for data: 303063040
I0727 20:26:57.324352   454 layer_factory.hpp:77] Creating layer inception_3b/relu_5x5_reduce
I0727 20:26:57.324364   454 net.cpp:91] Creating Layer inception_3b/relu_5x5_reduce
I0727 20:26:57.324370   454 net.cpp:425] inception_3b/relu_5x5_reduce <- inception_3b/5x5_reduce
I0727 20:26:57.324378   454 net.cpp:386] inception_3b/relu_5x5_reduce -> inception_3b/5x5_reduce (in-place)
I0727 20:26:57.324722   454 net.cpp:141] Setting up inception_3b/relu_5x5_reduce
I0727 20:26:57.324733   454 net.cpp:148] Top shape: 10 32 28 28 (250880)
I0727 20:26:57.324738   454 net.cpp:156] Memory required for data: 304066560
I0727 20:26:57.324743   454 layer_factory.hpp:77] Creating layer inception_3b/5x5
I0727 20:26:57.324759   454 net.cpp:91] Creating Layer inception_3b/5x5
I0727 20:26:57.324764   454 net.cpp:425] inception_3b/5x5 <- inception_3b/5x5_reduce
I0727 20:26:57.324775   454 net.cpp:399] inception_3b/5x5 -> inception_3b/5x5
I0727 20:26:57.331027   458 net.cpp:141] Setting up inception_3b/5x5
I0727 20:26:57.331045   458 net.cpp:148] Top shape: 10 96 28 28 (752640)
I0727 20:26:57.331051   458 net.cpp:156] Memory required for data: 307077120
I0727 20:26:57.331060   458 layer_factory.hpp:77] Creating layer inception_3b/relu_5x5
I0727 20:26:57.331071   458 net.cpp:91] Creating Layer inception_3b/relu_5x5
I0727 20:26:57.331079   458 net.cpp:425] inception_3b/relu_5x5 <- inception_3b/5x5
I0727 20:26:57.331085   458 net.cpp:386] inception_3b/relu_5x5 -> inception_3b/5x5 (in-place)
I0727 20:26:57.331342   454 net.cpp:141] Setting up inception_3b/5x5
I0727 20:26:57.331357   454 net.cpp:148] Top shape: 10 96 28 28 (752640)
I0727 20:26:57.331362   454 net.cpp:156] Memory required for data: 307077120
I0727 20:26:57.331370   454 layer_factory.hpp:77] Creating layer inception_3b/relu_5x5
I0727 20:26:57.331378   454 net.cpp:91] Creating Layer inception_3b/relu_5x5
I0727 20:26:57.331384   454 net.cpp:425] inception_3b/relu_5x5 <- inception_3b/5x5
I0727 20:26:57.331392   454 net.cpp:386] inception_3b/relu_5x5 -> inception_3b/5x5 (in-place)
I0727 20:26:57.331405   458 net.cpp:141] Setting up inception_3b/relu_5x5
I0727 20:26:57.331418   458 net.cpp:148] Top shape: 10 96 28 28 (752640)
I0727 20:26:57.331421   458 net.cpp:156] Memory required for data: 310087680
I0727 20:26:57.331426   458 layer_factory.hpp:77] Creating layer inception_3b/pool
I0727 20:26:57.331435   458 net.cpp:91] Creating Layer inception_3b/pool
I0727 20:26:57.331440   458 net.cpp:425] inception_3b/pool <- inception_3a/output_inception_3a/output_0_split_3
I0727 20:26:57.331451   458 net.cpp:399] inception_3b/pool -> inception_3b/pool
I0727 20:26:57.331655   458 net.cpp:141] Setting up inception_3b/pool
I0727 20:26:57.331665   458 net.cpp:148] Top shape: 10 256 28 28 (2007040)
I0727 20:26:57.331670   458 net.cpp:156] Memory required for data: 318115840
I0727 20:26:57.331675   458 layer_factory.hpp:77] Creating layer inception_3b/pool_proj
I0727 20:26:57.331691   458 net.cpp:91] Creating Layer inception_3b/pool_proj
I0727 20:26:57.331696   458 net.cpp:425] inception_3b/pool_proj <- inception_3b/pool
I0727 20:26:57.331707   458 net.cpp:399] inception_3b/pool_proj -> inception_3b/pool_proj
I0727 20:26:57.331713   454 net.cpp:141] Setting up inception_3b/relu_5x5
I0727 20:26:57.331725   454 net.cpp:148] Top shape: 10 96 28 28 (752640)
I0727 20:26:57.331729   454 net.cpp:156] Memory required for data: 310087680
I0727 20:26:57.331734   454 layer_factory.hpp:77] Creating layer inception_3b/pool
I0727 20:26:57.331745   454 net.cpp:91] Creating Layer inception_3b/pool
I0727 20:26:57.331751   454 net.cpp:425] inception_3b/pool <- inception_3a/output_inception_3a/output_0_split_3
I0727 20:26:57.331758   454 net.cpp:399] inception_3b/pool -> inception_3b/pool
I0727 20:26:57.331979   454 net.cpp:141] Setting up inception_3b/pool
I0727 20:26:57.331991   454 net.cpp:148] Top shape: 10 256 28 28 (2007040)
I0727 20:26:57.331995   454 net.cpp:156] Memory required for data: 318115840
I0727 20:26:57.332000   454 layer_factory.hpp:77] Creating layer inception_3b/pool_proj
I0727 20:26:57.332015   454 net.cpp:91] Creating Layer inception_3b/pool_proj
I0727 20:26:57.332020   454 net.cpp:425] inception_3b/pool_proj <- inception_3b/pool
I0727 20:26:57.332032   454 net.cpp:399] inception_3b/pool_proj -> inception_3b/pool_proj
I0727 20:26:57.335284   458 net.cpp:141] Setting up inception_3b/pool_proj
I0727 20:26:57.335300   458 net.cpp:148] Top shape: 10 64 28 28 (501760)
I0727 20:26:57.335305   458 net.cpp:156] Memory required for data: 320122880
I0727 20:26:57.335314   458 layer_factory.hpp:77] Creating layer inception_3b/relu_pool_proj
I0727 20:26:57.335325   458 net.cpp:91] Creating Layer inception_3b/relu_pool_proj
I0727 20:26:57.335331   458 net.cpp:425] inception_3b/relu_pool_proj <- inception_3b/pool_proj
I0727 20:26:57.335338   458 net.cpp:386] inception_3b/relu_pool_proj -> inception_3b/pool_proj (in-place)
I0727 20:26:57.336208   458 net.cpp:141] Setting up inception_3b/relu_pool_proj
I0727 20:26:57.336222   458 net.cpp:148] Top shape: 10 64 28 28 (501760)
I0727 20:26:57.336227   458 net.cpp:156] Memory required for data: 322129920
I0727 20:26:57.336232   458 layer_factory.hpp:77] Creating layer inception_3b/output
I0727 20:26:57.336243   458 net.cpp:91] Creating Layer inception_3b/output
I0727 20:26:57.336248   458 net.cpp:425] inception_3b/output <- inception_3b/1x1
I0727 20:26:57.336256   458 net.cpp:425] inception_3b/output <- inception_3b/3x3
I0727 20:26:57.336261   458 net.cpp:425] inception_3b/output <- inception_3b/5x5
I0727 20:26:57.336266   458 net.cpp:425] inception_3b/output <- inception_3b/pool_proj
I0727 20:26:57.336273   458 net.cpp:399] inception_3b/output -> inception_3b/output
I0727 20:26:57.336282   454 net.cpp:141] Setting up inception_3b/pool_proj
I0727 20:26:57.336297   454 net.cpp:148] Top shape: 10 64 28 28 (501760)
I0727 20:26:57.336302   454 net.cpp:156] Memory required for data: 320122880
I0727 20:26:57.336310   454 layer_factory.hpp:77] Creating layer inception_3b/relu_pool_proj
I0727 20:26:57.336323   454 net.cpp:91] Creating Layer inception_3b/relu_pool_proj
I0727 20:26:57.336328   454 net.cpp:425] inception_3b/relu_pool_proj <- inception_3b/pool_proj
I0727 20:26:57.336335   454 net.cpp:386] inception_3b/relu_pool_proj -> inception_3b/pool_proj (in-place)
I0727 20:26:57.336340   458 net.cpp:141] Setting up inception_3b/output
I0727 20:26:57.336352   458 net.cpp:148] Top shape: 10 480 28 28 (3763200)
I0727 20:26:57.336357   458 net.cpp:156] Memory required for data: 337182720
I0727 20:26:57.336361   458 layer_factory.hpp:77] Creating layer pool3/3x3_s2
I0727 20:26:57.336369   458 net.cpp:91] Creating Layer pool3/3x3_s2
I0727 20:26:57.336374   458 net.cpp:425] pool3/3x3_s2 <- inception_3b/output
I0727 20:26:57.336381   458 net.cpp:399] pool3/3x3_s2 -> pool3/3x3_s2
I0727 20:26:57.337050   458 net.cpp:141] Setting up pool3/3x3_s2
I0727 20:26:57.337062   458 net.cpp:148] Top shape: 10 480 14 14 (940800)
I0727 20:26:57.337066   458 net.cpp:156] Memory required for data: 340945920
I0727 20:26:57.337071   458 layer_factory.hpp:77] Creating layer pool3/3x3_s2_pool3/3x3_s2_0_split
I0727 20:26:57.337080   458 net.cpp:91] Creating Layer pool3/3x3_s2_pool3/3x3_s2_0_split
I0727 20:26:57.337085   458 net.cpp:425] pool3/3x3_s2_pool3/3x3_s2_0_split <- pool3/3x3_s2
I0727 20:26:57.337095   458 net.cpp:399] pool3/3x3_s2_pool3/3x3_s2_0_split -> pool3/3x3_s2_pool3/3x3_s2_0_split_0
I0727 20:26:57.337103   458 net.cpp:399] pool3/3x3_s2_pool3/3x3_s2_0_split -> pool3/3x3_s2_pool3/3x3_s2_0_split_1
I0727 20:26:57.337111   458 net.cpp:399] pool3/3x3_s2_pool3/3x3_s2_0_split -> pool3/3x3_s2_pool3/3x3_s2_0_split_2
I0727 20:26:57.337118   458 net.cpp:399] pool3/3x3_s2_pool3/3x3_s2_0_split -> pool3/3x3_s2_pool3/3x3_s2_0_split_3
I0727 20:26:57.337133   454 net.cpp:141] Setting up inception_3b/relu_pool_proj
I0727 20:26:57.337154   454 net.cpp:148] Top shape: 10 64 28 28 (501760)
I0727 20:26:57.337159   454 net.cpp:156] Memory required for data: 322129920
I0727 20:26:57.337164   454 layer_factory.hpp:77] Creating layer inception_3b/output
I0727 20:26:57.337174   454 net.cpp:91] Creating Layer inception_3b/output
I0727 20:26:57.337180   454 net.cpp:425] inception_3b/output <- inception_3b/1x1
I0727 20:26:57.337188   454 net.cpp:425] inception_3b/output <- inception_3b/3x3
I0727 20:26:57.337193   454 net.cpp:425] inception_3b/output <- inception_3b/5x5
I0727 20:26:57.337198   454 net.cpp:425] inception_3b/output <- inception_3b/pool_proj
I0727 20:26:57.337206   454 net.cpp:399] inception_3b/output -> inception_3b/output
I0727 20:26:57.337329   454 net.cpp:141] Setting up inception_3b/output
I0727 20:26:57.337340   454 net.cpp:148] Top shape: 10 480 28 28 (3763200)
I0727 20:26:57.337345   454 net.cpp:156] Memory required for data: 337182720
I0727 20:26:57.337347   458 net.cpp:141] Setting up pool3/3x3_s2_pool3/3x3_s2_0_split
I0727 20:26:57.337349   454 layer_factory.hpp:77] Creating layer pool3/3x3_s2
I0727 20:26:57.337360   458 net.cpp:148] Top shape: 10 480 14 14 (940800)
I0727 20:26:57.337368   458 net.cpp:148] Top shape: 10 480 14 14 (940800)
I0727 20:26:57.337366   454 net.cpp:91] Creating Layer pool3/3x3_s2
I0727 20:26:57.337373   458 net.cpp:148] Top shape: 10 480 14 14 (940800)
I0727 20:26:57.337374   454 net.cpp:425] pool3/3x3_s2 <- inception_3b/output
I0727 20:26:57.337378   458 net.cpp:148] Top shape: 10 480 14 14 (940800)
I0727 20:26:57.337383   458 net.cpp:156] Memory required for data: 355998720
I0727 20:26:57.337383   454 net.cpp:399] pool3/3x3_s2 -> pool3/3x3_s2
I0727 20:26:57.337388   458 layer_factory.hpp:77] Creating layer inception_4a/1x1
I0727 20:26:57.337399   458 net.cpp:91] Creating Layer inception_4a/1x1
I0727 20:26:57.337405   458 net.cpp:425] inception_4a/1x1 <- pool3/3x3_s2_pool3/3x3_s2_0_split_0
I0727 20:26:57.337417   458 net.cpp:399] inception_4a/1x1 -> inception_4a/1x1
I0727 20:26:57.337508   454 net.cpp:141] Setting up pool3/3x3_s2
I0727 20:26:57.337520   454 net.cpp:148] Top shape: 10 480 14 14 (940800)
I0727 20:26:57.337524   454 net.cpp:156] Memory required for data: 340945920
I0727 20:26:57.337529   454 layer_factory.hpp:77] Creating layer pool3/3x3_s2_pool3/3x3_s2_0_split
I0727 20:26:57.337540   454 net.cpp:91] Creating Layer pool3/3x3_s2_pool3/3x3_s2_0_split
I0727 20:26:57.337545   454 net.cpp:425] pool3/3x3_s2_pool3/3x3_s2_0_split <- pool3/3x3_s2
I0727 20:26:57.337553   454 net.cpp:399] pool3/3x3_s2_pool3/3x3_s2_0_split -> pool3/3x3_s2_pool3/3x3_s2_0_split_0
I0727 20:26:57.337560   454 net.cpp:399] pool3/3x3_s2_pool3/3x3_s2_0_split -> pool3/3x3_s2_pool3/3x3_s2_0_split_1
I0727 20:26:57.337568   454 net.cpp:399] pool3/3x3_s2_pool3/3x3_s2_0_split -> pool3/3x3_s2_pool3/3x3_s2_0_split_2
I0727 20:26:57.337574   454 net.cpp:399] pool3/3x3_s2_pool3/3x3_s2_0_split -> pool3/3x3_s2_pool3/3x3_s2_0_split_3
I0727 20:26:57.337867   454 net.cpp:141] Setting up pool3/3x3_s2_pool3/3x3_s2_0_split
I0727 20:26:57.337878   454 net.cpp:148] Top shape: 10 480 14 14 (940800)
I0727 20:26:57.337884   454 net.cpp:148] Top shape: 10 480 14 14 (940800)
I0727 20:26:57.337889   454 net.cpp:148] Top shape: 10 480 14 14 (940800)
I0727 20:26:57.337894   454 net.cpp:148] Top shape: 10 480 14 14 (940800)
I0727 20:26:57.337898   454 net.cpp:156] Memory required for data: 355998720
I0727 20:26:57.337903   454 layer_factory.hpp:77] Creating layer inception_4a/1x1
I0727 20:26:57.337918   454 net.cpp:91] Creating Layer inception_4a/1x1
I0727 20:26:57.337924   454 net.cpp:425] inception_4a/1x1 <- pool3/3x3_s2_pool3/3x3_s2_0_split_0
I0727 20:26:57.337932   454 net.cpp:399] inception_4a/1x1 -> inception_4a/1x1
I0727 20:26:57.342586   458 net.cpp:141] Setting up inception_4a/1x1
I0727 20:26:57.342604   458 net.cpp:148] Top shape: 10 192 14 14 (376320)
I0727 20:26:57.342609   458 net.cpp:156] Memory required for data: 357504000
I0727 20:26:57.342618   458 layer_factory.hpp:77] Creating layer inception_4a/relu_1x1
I0727 20:26:57.342627   458 net.cpp:91] Creating Layer inception_4a/relu_1x1
I0727 20:26:57.342633   458 net.cpp:425] inception_4a/relu_1x1 <- inception_4a/1x1
I0727 20:26:57.342644   458 net.cpp:386] inception_4a/relu_1x1 -> inception_4a/1x1 (in-place)
I0727 20:26:57.342908   454 net.cpp:141] Setting up inception_4a/1x1
I0727 20:26:57.342923   454 net.cpp:148] Top shape: 10 192 14 14 (376320)
I0727 20:26:57.342928   454 net.cpp:156] Memory required for data: 357504000
I0727 20:26:57.342937   454 layer_factory.hpp:77] Creating layer inception_4a/relu_1x1
I0727 20:26:57.342948   454 net.cpp:91] Creating Layer inception_4a/relu_1x1
I0727 20:26:57.342954   454 net.cpp:425] inception_4a/relu_1x1 <- inception_4a/1x1
I0727 20:26:57.342962   454 net.cpp:386] inception_4a/relu_1x1 -> inception_4a/1x1 (in-place)
I0727 20:26:57.342962   458 net.cpp:141] Setting up inception_4a/relu_1x1
I0727 20:26:57.342978   458 net.cpp:148] Top shape: 10 192 14 14 (376320)
I0727 20:26:57.342983   458 net.cpp:156] Memory required for data: 359009280
I0727 20:26:57.342988   458 layer_factory.hpp:77] Creating layer inception_4a/3x3_reduce
I0727 20:26:57.343003   458 net.cpp:91] Creating Layer inception_4a/3x3_reduce
I0727 20:26:57.343009   458 net.cpp:425] inception_4a/3x3_reduce <- pool3/3x3_s2_pool3/3x3_s2_0_split_1
I0727 20:26:57.343019   458 net.cpp:399] inception_4a/3x3_reduce -> inception_4a/3x3_reduce
I0727 20:26:57.343477   454 net.cpp:141] Setting up inception_4a/relu_1x1
I0727 20:26:57.343492   454 net.cpp:148] Top shape: 10 192 14 14 (376320)
I0727 20:26:57.343497   454 net.cpp:156] Memory required for data: 359009280
I0727 20:26:57.343502   454 layer_factory.hpp:77] Creating layer inception_4a/3x3_reduce
I0727 20:26:57.343521   454 net.cpp:91] Creating Layer inception_4a/3x3_reduce
I0727 20:26:57.343528   454 net.cpp:425] inception_4a/3x3_reduce <- pool3/3x3_s2_pool3/3x3_s2_0_split_1
I0727 20:26:57.343538   454 net.cpp:399] inception_4a/3x3_reduce -> inception_4a/3x3_reduce
I0727 20:26:57.347070   458 net.cpp:141] Setting up inception_4a/3x3_reduce
I0727 20:26:57.347087   458 net.cpp:148] Top shape: 10 96 14 14 (188160)
I0727 20:26:57.347092   458 net.cpp:156] Memory required for data: 359761920
I0727 20:26:57.347111   458 layer_factory.hpp:77] Creating layer inception_4a/relu_3x3_reduce
I0727 20:26:57.347121   458 net.cpp:91] Creating Layer inception_4a/relu_3x3_reduce
I0727 20:26:57.347126   458 net.cpp:425] inception_4a/relu_3x3_reduce <- inception_4a/3x3_reduce
I0727 20:26:57.347136   458 net.cpp:386] inception_4a/relu_3x3_reduce -> inception_4a/3x3_reduce (in-place)
I0727 20:26:57.347391   454 net.cpp:141] Setting up inception_4a/3x3_reduce
I0727 20:26:57.347405   454 net.cpp:148] Top shape: 10 96 14 14 (188160)
I0727 20:26:57.347410   454 net.cpp:156] Memory required for data: 359761920
I0727 20:26:57.347432   454 layer_factory.hpp:77] Creating layer inception_4a/relu_3x3_reduce
I0727 20:26:57.347441   454 net.cpp:91] Creating Layer inception_4a/relu_3x3_reduce
I0727 20:26:57.347447   454 net.cpp:425] inception_4a/relu_3x3_reduce <- inception_4a/3x3_reduce
I0727 20:26:57.347450   458 net.cpp:141] Setting up inception_4a/relu_3x3_reduce
I0727 20:26:57.347455   454 net.cpp:386] inception_4a/relu_3x3_reduce -> inception_4a/3x3_reduce (in-place)
I0727 20:26:57.347470   458 net.cpp:148] Top shape: 10 96 14 14 (188160)
I0727 20:26:57.347475   458 net.cpp:156] Memory required for data: 360514560
I0727 20:26:57.347479   458 layer_factory.hpp:77] Creating layer inception_4a/3x3
I0727 20:26:57.347494   458 net.cpp:91] Creating Layer inception_4a/3x3
I0727 20:26:57.347501   458 net.cpp:425] inception_4a/3x3 <- inception_4a/3x3_reduce
I0727 20:26:57.347509   458 net.cpp:399] inception_4a/3x3 -> inception_4a/3x3
I0727 20:26:57.347817   454 net.cpp:141] Setting up inception_4a/relu_3x3_reduce
I0727 20:26:57.347831   454 net.cpp:148] Top shape: 10 96 14 14 (188160)
I0727 20:26:57.347836   454 net.cpp:156] Memory required for data: 360514560
I0727 20:26:57.347841   454 layer_factory.hpp:77] Creating layer inception_4a/3x3
I0727 20:26:57.347856   454 net.cpp:91] Creating Layer inception_4a/3x3
I0727 20:26:57.347862   454 net.cpp:425] inception_4a/3x3 <- inception_4a/3x3_reduce
I0727 20:26:57.347870   454 net.cpp:399] inception_4a/3x3 -> inception_4a/3x3
I0727 20:26:57.354552   458 net.cpp:141] Setting up inception_4a/3x3
I0727 20:26:57.354569   458 net.cpp:148] Top shape: 10 208 14 14 (407680)
I0727 20:26:57.354574   458 net.cpp:156] Memory required for data: 362145280
I0727 20:26:57.354583   458 layer_factory.hpp:77] Creating layer inception_4a/relu_3x3
I0727 20:26:57.354593   458 net.cpp:91] Creating Layer inception_4a/relu_3x3
I0727 20:26:57.354599   458 net.cpp:425] inception_4a/relu_3x3 <- inception_4a/3x3
I0727 20:26:57.354607   458 net.cpp:386] inception_4a/relu_3x3 -> inception_4a/3x3 (in-place)
I0727 20:26:57.355494   458 net.cpp:141] Setting up inception_4a/relu_3x3
I0727 20:26:57.355511   458 net.cpp:148] Top shape: 10 208 14 14 (407680)
I0727 20:26:57.355516   458 net.cpp:156] Memory required for data: 363776000
I0727 20:26:57.355522   458 layer_factory.hpp:77] Creating layer inception_4a/5x5_reduce
I0727 20:26:57.355538   458 net.cpp:91] Creating Layer inception_4a/5x5_reduce
I0727 20:26:57.355545   458 net.cpp:425] inception_4a/5x5_reduce <- pool3/3x3_s2_pool3/3x3_s2_0_split_2
I0727 20:26:57.355554   458 net.cpp:399] inception_4a/5x5_reduce -> inception_4a/5x5_reduce
I0727 20:26:57.355609   454 net.cpp:141] Setting up inception_4a/3x3
I0727 20:26:57.355624   454 net.cpp:148] Top shape: 10 208 14 14 (407680)
I0727 20:26:57.355629   454 net.cpp:156] Memory required for data: 362145280
I0727 20:26:57.355638   454 layer_factory.hpp:77] Creating layer inception_4a/relu_3x3
I0727 20:26:57.355650   454 net.cpp:91] Creating Layer inception_4a/relu_3x3
I0727 20:26:57.355656   454 net.cpp:425] inception_4a/relu_3x3 <- inception_4a/3x3
I0727 20:26:57.355666   454 net.cpp:386] inception_4a/relu_3x3 -> inception_4a/3x3 (in-place)
I0727 20:26:57.356539   454 net.cpp:141] Setting up inception_4a/relu_3x3
I0727 20:26:57.356555   454 net.cpp:148] Top shape: 10 208 14 14 (407680)
I0727 20:26:57.356560   454 net.cpp:156] Memory required for data: 363776000
I0727 20:26:57.356564   454 layer_factory.hpp:77] Creating layer inception_4a/5x5_reduce
I0727 20:26:57.356580   454 net.cpp:91] Creating Layer inception_4a/5x5_reduce
I0727 20:26:57.356586   454 net.cpp:425] inception_4a/5x5_reduce <- pool3/3x3_s2_pool3/3x3_s2_0_split_2
I0727 20:26:57.356595   454 net.cpp:399] inception_4a/5x5_reduce -> inception_4a/5x5_reduce
I0727 20:26:57.360357   458 net.cpp:141] Setting up inception_4a/5x5_reduce
I0727 20:26:57.360373   458 net.cpp:148] Top shape: 10 16 14 14 (31360)
I0727 20:26:57.360378   458 net.cpp:156] Memory required for data: 363901440
I0727 20:26:57.360388   458 layer_factory.hpp:77] Creating layer inception_4a/relu_5x5_reduce
I0727 20:26:57.360395   458 net.cpp:91] Creating Layer inception_4a/relu_5x5_reduce
I0727 20:26:57.360401   458 net.cpp:425] inception_4a/relu_5x5_reduce <- inception_4a/5x5_reduce
I0727 20:26:57.360409   458 net.cpp:386] inception_4a/relu_5x5_reduce -> inception_4a/5x5_reduce (in-place)
I0727 20:26:57.360795   458 net.cpp:141] Setting up inception_4a/relu_5x5_reduce
I0727 20:26:57.360810   458 net.cpp:148] Top shape: 10 16 14 14 (31360)
I0727 20:26:57.360815   458 net.cpp:156] Memory required for data: 364026880
I0727 20:26:57.360819   458 layer_factory.hpp:77] Creating layer inception_4a/5x5
I0727 20:26:57.360833   458 net.cpp:91] Creating Layer inception_4a/5x5
I0727 20:26:57.360839   458 net.cpp:425] inception_4a/5x5 <- inception_4a/5x5_reduce
I0727 20:26:57.360852   458 net.cpp:399] inception_4a/5x5 -> inception_4a/5x5
I0727 20:26:57.360920   454 net.cpp:141] Setting up inception_4a/5x5_reduce
I0727 20:26:57.360935   454 net.cpp:148] Top shape: 10 16 14 14 (31360)
I0727 20:26:57.360939   454 net.cpp:156] Memory required for data: 363901440
I0727 20:26:57.360949   454 layer_factory.hpp:77] Creating layer inception_4a/relu_5x5_reduce
I0727 20:26:57.360957   454 net.cpp:91] Creating Layer inception_4a/relu_5x5_reduce
I0727 20:26:57.360962   454 net.cpp:425] inception_4a/relu_5x5_reduce <- inception_4a/5x5_reduce
I0727 20:26:57.360971   454 net.cpp:386] inception_4a/relu_5x5_reduce -> inception_4a/5x5_reduce (in-place)
I0727 20:26:57.361333   454 net.cpp:141] Setting up inception_4a/relu_5x5_reduce
I0727 20:26:57.361346   454 net.cpp:148] Top shape: 10 16 14 14 (31360)
I0727 20:26:57.361349   454 net.cpp:156] Memory required for data: 364026880
I0727 20:26:57.361354   454 layer_factory.hpp:77] Creating layer inception_4a/5x5
I0727 20:26:57.361372   454 net.cpp:91] Creating Layer inception_4a/5x5
I0727 20:26:57.361378   454 net.cpp:425] inception_4a/5x5 <- inception_4a/5x5_reduce
I0727 20:26:57.361387   454 net.cpp:399] inception_4a/5x5 -> inception_4a/5x5
I0727 20:26:57.364734   458 net.cpp:141] Setting up inception_4a/5x5
I0727 20:26:57.364763   458 net.cpp:148] Top shape: 10 48 14 14 (94080)
I0727 20:26:57.364769   458 net.cpp:156] Memory required for data: 364403200
I0727 20:26:57.364778   458 layer_factory.hpp:77] Creating layer inception_4a/relu_5x5
I0727 20:26:57.364786   458 net.cpp:91] Creating Layer inception_4a/relu_5x5
I0727 20:26:57.364792   458 net.cpp:425] inception_4a/relu_5x5 <- inception_4a/5x5
I0727 20:26:57.364804   458 net.cpp:386] inception_4a/relu_5x5 -> inception_4a/5x5 (in-place)
I0727 20:26:57.365105   454 net.cpp:141] Setting up inception_4a/5x5
I0727 20:26:57.365121   454 net.cpp:148] Top shape: 10 48 14 14 (94080)
I0727 20:26:57.365126   454 net.cpp:156] Memory required for data: 364403200
I0727 20:26:57.365135   454 layer_factory.hpp:77] Creating layer inception_4a/relu_5x5
I0727 20:26:57.365144   454 net.cpp:91] Creating Layer inception_4a/relu_5x5
I0727 20:26:57.365149   454 net.cpp:425] inception_4a/relu_5x5 <- inception_4a/5x5
I0727 20:26:57.365156   454 net.cpp:386] inception_4a/relu_5x5 -> inception_4a/5x5 (in-place)
I0727 20:26:57.365159   458 net.cpp:141] Setting up inception_4a/relu_5x5
I0727 20:26:57.365170   458 net.cpp:148] Top shape: 10 48 14 14 (94080)
I0727 20:26:57.365175   458 net.cpp:156] Memory required for data: 364779520
I0727 20:26:57.365180   458 layer_factory.hpp:77] Creating layer inception_4a/pool
I0727 20:26:57.365188   458 net.cpp:91] Creating Layer inception_4a/pool
I0727 20:26:57.365195   458 net.cpp:425] inception_4a/pool <- pool3/3x3_s2_pool3/3x3_s2_0_split_3
I0727 20:26:57.365201   458 net.cpp:399] inception_4a/pool -> inception_4a/pool
I0727 20:26:57.365429   458 net.cpp:141] Setting up inception_4a/pool
I0727 20:26:57.365442   458 net.cpp:148] Top shape: 10 480 14 14 (940800)
I0727 20:26:57.365447   458 net.cpp:156] Memory required for data: 368542720
I0727 20:26:57.365452   458 layer_factory.hpp:77] Creating layer inception_4a/pool_proj
I0727 20:26:57.365468   458 net.cpp:91] Creating Layer inception_4a/pool_proj
I0727 20:26:57.365473   458 net.cpp:425] inception_4a/pool_proj <- inception_4a/pool
I0727 20:26:57.365483   458 net.cpp:399] inception_4a/pool_proj -> inception_4a/pool_proj
I0727 20:26:57.365489   454 net.cpp:141] Setting up inception_4a/relu_5x5
I0727 20:26:57.365501   454 net.cpp:148] Top shape: 10 48 14 14 (94080)
I0727 20:26:57.365506   454 net.cpp:156] Memory required for data: 364779520
I0727 20:26:57.365511   454 layer_factory.hpp:77] Creating layer inception_4a/pool
I0727 20:26:57.365520   454 net.cpp:91] Creating Layer inception_4a/pool
I0727 20:26:57.365525   454 net.cpp:425] inception_4a/pool <- pool3/3x3_s2_pool3/3x3_s2_0_split_3
I0727 20:26:57.365535   454 net.cpp:399] inception_4a/pool -> inception_4a/pool
I0727 20:26:57.365772   454 net.cpp:141] Setting up inception_4a/pool
I0727 20:26:57.365782   454 net.cpp:148] Top shape: 10 480 14 14 (940800)
I0727 20:26:57.365787   454 net.cpp:156] Memory required for data: 368542720
I0727 20:26:57.365792   454 layer_factory.hpp:77] Creating layer inception_4a/pool_proj
I0727 20:26:57.365806   454 net.cpp:91] Creating Layer inception_4a/pool_proj
I0727 20:26:57.365813   454 net.cpp:425] inception_4a/pool_proj <- inception_4a/pool
I0727 20:26:57.365824   454 net.cpp:399] inception_4a/pool_proj -> inception_4a/pool_proj
I0727 20:26:57.369055   458 net.cpp:141] Setting up inception_4a/pool_proj
I0727 20:26:57.369083   458 net.cpp:148] Top shape: 10 64 14 14 (125440)
I0727 20:26:57.369089   458 net.cpp:156] Memory required for data: 369044480
I0727 20:26:57.369098   458 layer_factory.hpp:77] Creating layer inception_4a/relu_pool_proj
I0727 20:26:57.369107   458 net.cpp:91] Creating Layer inception_4a/relu_pool_proj
I0727 20:26:57.369112   458 net.cpp:425] inception_4a/relu_pool_proj <- inception_4a/pool_proj
I0727 20:26:57.369119   458 net.cpp:386] inception_4a/relu_pool_proj -> inception_4a/pool_proj (in-place)
I0727 20:26:57.370059   458 net.cpp:141] Setting up inception_4a/relu_pool_proj
I0727 20:26:57.370086   458 net.cpp:148] Top shape: 10 64 14 14 (125440)
I0727 20:26:57.370091   458 net.cpp:156] Memory required for data: 369546240
I0727 20:26:57.370096   458 layer_factory.hpp:77] Creating layer inception_4a/output
I0727 20:26:57.370095   454 net.cpp:141] Setting up inception_4a/pool_proj
I0727 20:26:57.370105   458 net.cpp:91] Creating Layer inception_4a/output
I0727 20:26:57.370110   454 net.cpp:148] Top shape: 10 64 14 14 (125440)
I0727 20:26:57.370111   458 net.cpp:425] inception_4a/output <- inception_4a/1x1
I0727 20:26:57.370115   454 net.cpp:156] Memory required for data: 369044480
I0727 20:26:57.370118   458 net.cpp:425] inception_4a/output <- inception_4a/3x3
I0727 20:26:57.370124   458 net.cpp:425] inception_4a/output <- inception_4a/5x5
I0727 20:26:57.370124   454 layer_factory.hpp:77] Creating layer inception_4a/relu_pool_proj
I0727 20:26:57.370129   458 net.cpp:425] inception_4a/output <- inception_4a/pool_proj
I0727 20:26:57.370133   454 net.cpp:91] Creating Layer inception_4a/relu_pool_proj
I0727 20:26:57.370139   454 net.cpp:425] inception_4a/relu_pool_proj <- inception_4a/pool_proj
I0727 20:26:57.370139   458 net.cpp:399] inception_4a/output -> inception_4a/output
I0727 20:26:57.370151   454 net.cpp:386] inception_4a/relu_pool_proj -> inception_4a/pool_proj (in-place)
I0727 20:26:57.370798   458 net.cpp:141] Setting up inception_4a/output
I0727 20:26:57.370810   458 net.cpp:148] Top shape: 10 512 14 14 (1003520)
I0727 20:26:57.370815   458 net.cpp:156] Memory required for data: 373560320
I0727 20:26:57.370820   458 layer_factory.hpp:77] Creating layer inception_4a/output_inception_4a/output_0_split
I0727 20:26:57.370827   458 net.cpp:91] Creating Layer inception_4a/output_inception_4a/output_0_split
I0727 20:26:57.370832   458 net.cpp:425] inception_4a/output_inception_4a/output_0_split <- inception_4a/output
I0727 20:26:57.370846   458 net.cpp:399] inception_4a/output_inception_4a/output_0_split -> inception_4a/output_inception_4a/output_0_split_0
I0727 20:26:57.370856   458 net.cpp:399] inception_4a/output_inception_4a/output_0_split -> inception_4a/output_inception_4a/output_0_split_1
I0727 20:26:57.370863   458 net.cpp:399] inception_4a/output_inception_4a/output_0_split -> inception_4a/output_inception_4a/output_0_split_2
I0727 20:26:57.370872   458 net.cpp:399] inception_4a/output_inception_4a/output_0_split -> inception_4a/output_inception_4a/output_0_split_3
I0727 20:26:57.370990   454 net.cpp:141] Setting up inception_4a/relu_pool_proj
I0727 20:26:57.371002   454 net.cpp:148] Top shape: 10 64 14 14 (125440)
I0727 20:26:57.371007   454 net.cpp:156] Memory required for data: 369546240
I0727 20:26:57.371012   454 layer_factory.hpp:77] Creating layer inception_4a/output
I0727 20:26:57.371022   454 net.cpp:91] Creating Layer inception_4a/output
I0727 20:26:57.371028   454 net.cpp:425] inception_4a/output <- inception_4a/1x1
I0727 20:26:57.371034   454 net.cpp:425] inception_4a/output <- inception_4a/3x3
I0727 20:26:57.371040   454 net.cpp:425] inception_4a/output <- inception_4a/5x5
I0727 20:26:57.371045   454 net.cpp:425] inception_4a/output <- inception_4a/pool_proj
I0727 20:26:57.371052   454 net.cpp:399] inception_4a/output -> inception_4a/output
I0727 20:26:57.371073   458 net.cpp:141] Setting up inception_4a/output_inception_4a/output_0_split
I0727 20:26:57.371083   458 net.cpp:148] Top shape: 10 512 14 14 (1003520)
I0727 20:26:57.371089   458 net.cpp:148] Top shape: 10 512 14 14 (1003520)
I0727 20:26:57.371094   458 net.cpp:148] Top shape: 10 512 14 14 (1003520)
I0727 20:26:57.371100   458 net.cpp:148] Top shape: 10 512 14 14 (1003520)
I0727 20:26:57.371104   458 net.cpp:156] Memory required for data: 389616640
I0727 20:26:57.371109   458 layer_factory.hpp:77] Creating layer inception_4b/1x1
I0727 20:26:57.371126   458 net.cpp:91] Creating Layer inception_4b/1x1
I0727 20:26:57.371129   454 net.cpp:141] Setting up inception_4a/output
I0727 20:26:57.371134   458 net.cpp:425] inception_4b/1x1 <- inception_4a/output_inception_4a/output_0_split_0
I0727 20:26:57.371145   454 net.cpp:148] Top shape: 10 512 14 14 (1003520)
I0727 20:26:57.371148   454 net.cpp:156] Memory required for data: 373560320
I0727 20:26:57.371152   458 net.cpp:399] inception_4b/1x1 -> inception_4b/1x1
I0727 20:26:57.371153   454 layer_factory.hpp:77] Creating layer inception_4a/output_inception_4a/output_0_split
I0727 20:26:57.371170   454 net.cpp:91] Creating Layer inception_4a/output_inception_4a/output_0_split
I0727 20:26:57.371176   454 net.cpp:425] inception_4a/output_inception_4a/output_0_split <- inception_4a/output
I0727 20:26:57.371182   454 net.cpp:399] inception_4a/output_inception_4a/output_0_split -> inception_4a/output_inception_4a/output_0_split_0
I0727 20:26:57.371191   454 net.cpp:399] inception_4a/output_inception_4a/output_0_split -> inception_4a/output_inception_4a/output_0_split_1
I0727 20:26:57.371199   454 net.cpp:399] inception_4a/output_inception_4a/output_0_split -> inception_4a/output_inception_4a/output_0_split_2
I0727 20:26:57.371207   454 net.cpp:399] inception_4a/output_inception_4a/output_0_split -> inception_4a/output_inception_4a/output_0_split_3
I0727 20:26:57.371647   454 net.cpp:141] Setting up inception_4a/output_inception_4a/output_0_split
I0727 20:26:57.371659   454 net.cpp:148] Top shape: 10 512 14 14 (1003520)
I0727 20:26:57.371665   454 net.cpp:148] Top shape: 10 512 14 14 (1003520)
I0727 20:26:57.371670   454 net.cpp:148] Top shape: 10 512 14 14 (1003520)
I0727 20:26:57.371675   454 net.cpp:148] Top shape: 10 512 14 14 (1003520)
I0727 20:26:57.371678   454 net.cpp:156] Memory required for data: 389616640
I0727 20:26:57.371683   454 layer_factory.hpp:77] Creating layer inception_4b/1x1
I0727 20:26:57.371701   454 net.cpp:91] Creating Layer inception_4b/1x1
I0727 20:26:57.371706   454 net.cpp:425] inception_4b/1x1 <- inception_4a/output_inception_4a/output_0_split_0
I0727 20:26:57.371716   454 net.cpp:399] inception_4b/1x1 -> inception_4b/1x1
I0727 20:26:57.375030   458 net.cpp:141] Setting up inception_4b/1x1
I0727 20:26:57.375059   458 net.cpp:148] Top shape: 10 160 14 14 (313600)
I0727 20:26:57.375067   458 net.cpp:156] Memory required for data: 390871040
I0727 20:26:57.375077   458 layer_factory.hpp:77] Creating layer inception_4b/relu_1x1
I0727 20:26:57.375085   458 net.cpp:91] Creating Layer inception_4b/relu_1x1
I0727 20:26:57.375092   458 net.cpp:425] inception_4b/relu_1x1 <- inception_4b/1x1
I0727 20:26:57.375099   458 net.cpp:386] inception_4b/relu_1x1 -> inception_4b/1x1 (in-place)
I0727 20:26:57.375406   454 net.cpp:141] Setting up inception_4b/1x1
I0727 20:26:57.375422   454 net.cpp:148] Top shape: 10 160 14 14 (313600)
I0727 20:26:57.375427   454 net.cpp:156] Memory required for data: 390871040
I0727 20:26:57.375435   454 layer_factory.hpp:77] Creating layer inception_4b/relu_1x1
I0727 20:26:57.375439   458 net.cpp:141] Setting up inception_4b/relu_1x1
I0727 20:26:57.375447   454 net.cpp:91] Creating Layer inception_4b/relu_1x1
I0727 20:26:57.375452   458 net.cpp:148] Top shape: 10 160 14 14 (313600)
I0727 20:26:57.375453   454 net.cpp:425] inception_4b/relu_1x1 <- inception_4b/1x1
I0727 20:26:57.375457   458 net.cpp:156] Memory required for data: 392125440
I0727 20:26:57.375461   458 layer_factory.hpp:77] Creating layer inception_4b/3x3_reduce
I0727 20:26:57.375463   454 net.cpp:386] inception_4b/relu_1x1 -> inception_4b/1x1 (in-place)
I0727 20:26:57.375478   458 net.cpp:91] Creating Layer inception_4b/3x3_reduce
I0727 20:26:57.375485   458 net.cpp:425] inception_4b/3x3_reduce <- inception_4a/output_inception_4a/output_0_split_1
I0727 20:26:57.375497   458 net.cpp:399] inception_4b/3x3_reduce -> inception_4b/3x3_reduce
I0727 20:26:57.375846   454 net.cpp:141] Setting up inception_4b/relu_1x1
I0727 20:26:57.375864   454 net.cpp:148] Top shape: 10 160 14 14 (313600)
I0727 20:26:57.375872   454 net.cpp:156] Memory required for data: 392125440
I0727 20:26:57.375877   454 layer_factory.hpp:77] Creating layer inception_4b/3x3_reduce
I0727 20:26:57.375893   454 net.cpp:91] Creating Layer inception_4b/3x3_reduce
I0727 20:26:57.375900   454 net.cpp:425] inception_4b/3x3_reduce <- inception_4a/output_inception_4a/output_0_split_1
I0727 20:26:57.375911   454 net.cpp:399] inception_4b/3x3_reduce -> inception_4b/3x3_reduce
I0727 20:26:57.379519   458 net.cpp:141] Setting up inception_4b/3x3_reduce
I0727 20:26:57.379549   458 net.cpp:148] Top shape: 10 112 14 14 (219520)
I0727 20:26:57.379554   458 net.cpp:156] Memory required for data: 393003520
I0727 20:26:57.379562   458 layer_factory.hpp:77] Creating layer inception_4b/relu_3x3_reduce
I0727 20:26:57.379578   458 net.cpp:91] Creating Layer inception_4b/relu_3x3_reduce
I0727 20:26:57.379585   458 net.cpp:425] inception_4b/relu_3x3_reduce <- inception_4b/3x3_reduce
I0727 20:26:57.379593   458 net.cpp:386] inception_4b/relu_3x3_reduce -> inception_4b/3x3_reduce (in-place)
I0727 20:26:57.379884   454 net.cpp:141] Setting up inception_4b/3x3_reduce
I0727 20:26:57.379899   454 net.cpp:148] Top shape: 10 112 14 14 (219520)
I0727 20:26:57.379904   454 net.cpp:156] Memory required for data: 393003520
I0727 20:26:57.379914   454 layer_factory.hpp:77] Creating layer inception_4b/relu_3x3_reduce
I0727 20:26:57.379919   458 net.cpp:141] Setting up inception_4b/relu_3x3_reduce
I0727 20:26:57.379921   454 net.cpp:91] Creating Layer inception_4b/relu_3x3_reduce
I0727 20:26:57.379933   458 net.cpp:148] Top shape: 10 112 14 14 (219520)
I0727 20:26:57.379936   454 net.cpp:425] inception_4b/relu_3x3_reduce <- inception_4b/3x3_reduce
I0727 20:26:57.379938   458 net.cpp:156] Memory required for data: 393881600
I0727 20:26:57.379943   458 layer_factory.hpp:77] Creating layer inception_4b/3x3
I0727 20:26:57.379945   454 net.cpp:386] inception_4b/relu_3x3_reduce -> inception_4b/3x3_reduce (in-place)
I0727 20:26:57.379959   458 net.cpp:91] Creating Layer inception_4b/3x3
I0727 20:26:57.379966   458 net.cpp:425] inception_4b/3x3 <- inception_4b/3x3_reduce
I0727 20:26:57.379976   458 net.cpp:399] inception_4b/3x3 -> inception_4b/3x3
I0727 20:26:57.380316   454 net.cpp:141] Setting up inception_4b/relu_3x3_reduce
I0727 20:26:57.380327   454 net.cpp:148] Top shape: 10 112 14 14 (219520)
I0727 20:26:57.380332   454 net.cpp:156] Memory required for data: 393881600
I0727 20:26:57.380337   454 layer_factory.hpp:77] Creating layer inception_4b/3x3
I0727 20:26:57.380352   454 net.cpp:91] Creating Layer inception_4b/3x3
I0727 20:26:57.380358   454 net.cpp:425] inception_4b/3x3 <- inception_4b/3x3_reduce
I0727 20:26:57.380370   454 net.cpp:399] inception_4b/3x3 -> inception_4b/3x3
I0727 20:26:57.387688   458 net.cpp:141] Setting up inception_4b/3x3
I0727 20:26:57.387718   458 net.cpp:148] Top shape: 10 224 14 14 (439040)
I0727 20:26:57.387724   458 net.cpp:156] Memory required for data: 395637760
I0727 20:26:57.387733   458 layer_factory.hpp:77] Creating layer inception_4b/relu_3x3
I0727 20:26:57.387748   458 net.cpp:91] Creating Layer inception_4b/relu_3x3
I0727 20:26:57.387754   458 net.cpp:425] inception_4b/relu_3x3 <- inception_4b/3x3
I0727 20:26:57.387763   458 net.cpp:386] inception_4b/relu_3x3 -> inception_4b/3x3 (in-place)
I0727 20:26:57.389061   458 net.cpp:141] Setting up inception_4b/relu_3x3
I0727 20:26:57.389088   458 net.cpp:148] Top shape: 10 224 14 14 (439040)
I0727 20:26:57.389094   458 net.cpp:156] Memory required for data: 397393920
I0727 20:26:57.389099   458 layer_factory.hpp:77] Creating layer inception_4b/5x5_reduce
I0727 20:26:57.389127   458 net.cpp:91] Creating Layer inception_4b/5x5_reduce
I0727 20:26:57.389134   458 net.cpp:425] inception_4b/5x5_reduce <- inception_4a/output_inception_4a/output_0_split_2
I0727 20:26:57.389147   458 net.cpp:399] inception_4b/5x5_reduce -> inception_4b/5x5_reduce
I0727 20:26:57.389165   454 net.cpp:141] Setting up inception_4b/3x3
I0727 20:26:57.389183   454 net.cpp:148] Top shape: 10 224 14 14 (439040)
I0727 20:26:57.389189   454 net.cpp:156] Memory required for data: 395637760
I0727 20:26:57.389197   454 layer_factory.hpp:77] Creating layer inception_4b/relu_3x3
I0727 20:26:57.389205   454 net.cpp:91] Creating Layer inception_4b/relu_3x3
I0727 20:26:57.389211   454 net.cpp:425] inception_4b/relu_3x3 <- inception_4b/3x3
I0727 20:26:57.389219   454 net.cpp:386] inception_4b/relu_3x3 -> inception_4b/3x3 (in-place)
I0727 20:26:57.390139   454 net.cpp:141] Setting up inception_4b/relu_3x3
I0727 20:26:57.390154   454 net.cpp:148] Top shape: 10 224 14 14 (439040)
I0727 20:26:57.390172   454 net.cpp:156] Memory required for data: 397393920
I0727 20:26:57.390177   454 layer_factory.hpp:77] Creating layer inception_4b/5x5_reduce
I0727 20:26:57.390205   454 net.cpp:91] Creating Layer inception_4b/5x5_reduce
I0727 20:26:57.390211   454 net.cpp:425] inception_4b/5x5_reduce <- inception_4a/output_inception_4a/output_0_split_2
I0727 20:26:57.390221   454 net.cpp:399] inception_4b/5x5_reduce -> inception_4b/5x5_reduce
I0727 20:26:57.393970   458 net.cpp:141] Setting up inception_4b/5x5_reduce
I0727 20:26:57.394001   458 net.cpp:148] Top shape: 10 24 14 14 (47040)
I0727 20:26:57.394007   458 net.cpp:156] Memory required for data: 397582080
I0727 20:26:57.394018   458 layer_factory.hpp:77] Creating layer inception_4b/relu_5x5_reduce
I0727 20:26:57.394026   458 net.cpp:91] Creating Layer inception_4b/relu_5x5_reduce
I0727 20:26:57.394032   458 net.cpp:425] inception_4b/relu_5x5_reduce <- inception_4b/5x5_reduce
I0727 20:26:57.394043   458 net.cpp:386] inception_4b/relu_5x5_reduce -> inception_4b/5x5_reduce (in-place)
I0727 20:26:57.394429   458 net.cpp:141] Setting up inception_4b/relu_5x5_reduce
I0727 20:26:57.394443   458 net.cpp:148] Top shape: 10 24 14 14 (47040)
I0727 20:26:57.394448   458 net.cpp:156] Memory required for data: 397770240
I0727 20:26:57.394454   458 layer_factory.hpp:77] Creating layer inception_4b/5x5
I0727 20:26:57.394470   458 net.cpp:91] Creating Layer inception_4b/5x5
I0727 20:26:57.394476   458 net.cpp:425] inception_4b/5x5 <- inception_4b/5x5_reduce
I0727 20:26:57.394485   458 net.cpp:399] inception_4b/5x5 -> inception_4b/5x5
I0727 20:26:57.394518   454 net.cpp:141] Setting up inception_4b/5x5_reduce
I0727 20:26:57.394532   454 net.cpp:148] Top shape: 10 24 14 14 (47040)
I0727 20:26:57.394537   454 net.cpp:156] Memory required for data: 397582080
I0727 20:26:57.394546   454 layer_factory.hpp:77] Creating layer inception_4b/relu_5x5_reduce
I0727 20:26:57.394554   454 net.cpp:91] Creating Layer inception_4b/relu_5x5_reduce
I0727 20:26:57.394561   454 net.cpp:425] inception_4b/relu_5x5_reduce <- inception_4b/5x5_reduce
I0727 20:26:57.394572   454 net.cpp:386] inception_4b/relu_5x5_reduce -> inception_4b/5x5_reduce (in-place)
I0727 20:26:57.394979   454 net.cpp:141] Setting up inception_4b/relu_5x5_reduce
I0727 20:26:57.394994   454 net.cpp:148] Top shape: 10 24 14 14 (47040)
I0727 20:26:57.394999   454 net.cpp:156] Memory required for data: 397770240
I0727 20:26:57.395004   454 layer_factory.hpp:77] Creating layer inception_4b/5x5
I0727 20:26:57.395020   454 net.cpp:91] Creating Layer inception_4b/5x5
I0727 20:26:57.395025   454 net.cpp:425] inception_4b/5x5 <- inception_4b/5x5_reduce
I0727 20:26:57.395035   454 net.cpp:399] inception_4b/5x5 -> inception_4b/5x5
I0727 20:26:57.401408   458 net.cpp:141] Setting up inception_4b/5x5
I0727 20:26:57.401432   458 net.cpp:148] Top shape: 10 64 14 14 (125440)
I0727 20:26:57.401437   458 net.cpp:156] Memory required for data: 398272000
I0727 20:26:57.401446   458 layer_factory.hpp:77] Creating layer inception_4b/relu_5x5
I0727 20:26:57.401455   458 net.cpp:91] Creating Layer inception_4b/relu_5x5
I0727 20:26:57.401463   458 net.cpp:425] inception_4b/relu_5x5 <- inception_4b/5x5
I0727 20:26:57.401469   458 net.cpp:386] inception_4b/relu_5x5 -> inception_4b/5x5 (in-place)
I0727 20:26:57.401782   454 net.cpp:141] Setting up inception_4b/5x5
I0727 20:26:57.401798   454 net.cpp:148] Top shape: 10 64 14 14 (125440)
I0727 20:26:57.401803   454 net.cpp:156] Memory required for data: 398272000
I0727 20:26:57.401811   454 layer_factory.hpp:77] Creating layer inception_4b/relu_5x5
I0727 20:26:57.401819   454 net.cpp:91] Creating Layer inception_4b/relu_5x5
I0727 20:26:57.401825   454 net.cpp:425] inception_4b/relu_5x5 <- inception_4b/5x5
I0727 20:26:57.401834   454 net.cpp:386] inception_4b/relu_5x5 -> inception_4b/5x5 (in-place)
I0727 20:26:57.401834   458 net.cpp:141] Setting up inception_4b/relu_5x5
I0727 20:26:57.401849   458 net.cpp:148] Top shape: 10 64 14 14 (125440)
I0727 20:26:57.401852   458 net.cpp:156] Memory required for data: 398773760
I0727 20:26:57.401857   458 layer_factory.hpp:77] Creating layer inception_4b/pool
I0727 20:26:57.401870   458 net.cpp:91] Creating Layer inception_4b/pool
I0727 20:26:57.401875   458 net.cpp:425] inception_4b/pool <- inception_4a/output_inception_4a/output_0_split_3
I0727 20:26:57.401883   458 net.cpp:399] inception_4b/pool -> inception_4b/pool
I0727 20:26:57.402115   458 net.cpp:141] Setting up inception_4b/pool
I0727 20:26:57.402127   458 net.cpp:148] Top shape: 10 512 14 14 (1003520)
I0727 20:26:57.402130   458 net.cpp:156] Memory required for data: 402787840
I0727 20:26:57.402135   458 layer_factory.hpp:77] Creating layer inception_4b/pool_proj
I0727 20:26:57.402153   458 net.cpp:91] Creating Layer inception_4b/pool_proj
I0727 20:26:57.402158   458 net.cpp:425] inception_4b/pool_proj <- inception_4b/pool
I0727 20:26:57.402169   458 net.cpp:399] inception_4b/pool_proj -> inception_4b/pool_proj
I0727 20:26:57.402179   454 net.cpp:141] Setting up inception_4b/relu_5x5
I0727 20:26:57.402191   454 net.cpp:148] Top shape: 10 64 14 14 (125440)
I0727 20:26:57.402195   454 net.cpp:156] Memory required for data: 398773760
I0727 20:26:57.402200   454 layer_factory.hpp:77] Creating layer inception_4b/pool
I0727 20:26:57.402212   454 net.cpp:91] Creating Layer inception_4b/pool
I0727 20:26:57.402218   454 net.cpp:425] inception_4b/pool <- inception_4a/output_inception_4a/output_0_split_3
I0727 20:26:57.402226   454 net.cpp:399] inception_4b/pool -> inception_4b/pool
I0727 20:26:57.402456   454 net.cpp:141] Setting up inception_4b/pool
I0727 20:26:57.402467   454 net.cpp:148] Top shape: 10 512 14 14 (1003520)
I0727 20:26:57.402472   454 net.cpp:156] Memory required for data: 402787840
I0727 20:26:57.402477   454 layer_factory.hpp:77] Creating layer inception_4b/pool_proj
I0727 20:26:57.402492   454 net.cpp:91] Creating Layer inception_4b/pool_proj
I0727 20:26:57.402498   454 net.cpp:425] inception_4b/pool_proj <- inception_4b/pool
I0727 20:26:57.402508   454 net.cpp:399] inception_4b/pool_proj -> inception_4b/pool_proj
I0727 20:26:57.405885   458 net.cpp:141] Setting up inception_4b/pool_proj
I0727 20:26:57.405916   458 net.cpp:148] Top shape: 10 64 14 14 (125440)
I0727 20:26:57.405921   458 net.cpp:156] Memory required for data: 403289600
I0727 20:26:57.405930   458 layer_factory.hpp:77] Creating layer inception_4b/relu_pool_proj
I0727 20:26:57.405939   458 net.cpp:91] Creating Layer inception_4b/relu_pool_proj
I0727 20:26:57.405944   458 net.cpp:425] inception_4b/relu_pool_proj <- inception_4b/pool_proj
I0727 20:26:57.405954   458 net.cpp:386] inception_4b/relu_pool_proj -> inception_4b/pool_proj (in-place)
I0727 20:26:57.406817   458 net.cpp:141] Setting up inception_4b/relu_pool_proj
I0727 20:26:57.406832   458 net.cpp:148] Top shape: 10 64 14 14 (125440)
I0727 20:26:57.406850   458 net.cpp:156] Memory required for data: 403791360
I0727 20:26:57.406857   458 layer_factory.hpp:77] Creating layer inception_4b/output
I0727 20:26:57.406865   458 net.cpp:91] Creating Layer inception_4b/output
I0727 20:26:57.406870   458 net.cpp:425] inception_4b/output <- inception_4b/1x1
I0727 20:26:57.406877   458 net.cpp:425] inception_4b/output <- inception_4b/3x3
I0727 20:26:57.406883   458 net.cpp:425] inception_4b/output <- inception_4b/5x5
I0727 20:26:57.406888   458 net.cpp:425] inception_4b/output <- inception_4b/pool_proj
I0727 20:26:57.406898   458 net.cpp:399] inception_4b/output -> inception_4b/output
I0727 20:26:57.406956   454 net.cpp:141] Setting up inception_4b/pool_proj
I0727 20:26:57.406970   454 net.cpp:148] Top shape: 10 64 14 14 (125440)
I0727 20:26:57.406975   454 net.cpp:156] Memory required for data: 403289600
I0727 20:26:57.406985   454 layer_factory.hpp:77] Creating layer inception_4b/relu_pool_proj
I0727 20:26:57.406987   458 net.cpp:141] Setting up inception_4b/output
I0727 20:26:57.406992   454 net.cpp:91] Creating Layer inception_4b/relu_pool_proj
I0727 20:26:57.406997   458 net.cpp:148] Top shape: 10 512 14 14 (1003520)
I0727 20:26:57.406998   454 net.cpp:425] inception_4b/relu_pool_proj <- inception_4b/pool_proj
I0727 20:26:57.407006   458 net.cpp:156] Memory required for data: 407805440
I0727 20:26:57.407011   458 layer_factory.hpp:77] Creating layer inception_4b/output_inception_4b/output_0_split
I0727 20:26:57.407018   454 net.cpp:386] inception_4b/relu_pool_proj -> inception_4b/pool_proj (in-place)
I0727 20:26:57.407022   458 net.cpp:91] Creating Layer inception_4b/output_inception_4b/output_0_split
I0727 20:26:57.407028   458 net.cpp:425] inception_4b/output_inception_4b/output_0_split <- inception_4b/output
I0727 20:26:57.407035   458 net.cpp:399] inception_4b/output_inception_4b/output_0_split -> inception_4b/output_inception_4b/output_0_split_0
I0727 20:26:57.407044   458 net.cpp:399] inception_4b/output_inception_4b/output_0_split -> inception_4b/output_inception_4b/output_0_split_1
I0727 20:26:57.407052   458 net.cpp:399] inception_4b/output_inception_4b/output_0_split -> inception_4b/output_inception_4b/output_0_split_2
I0727 20:26:57.407059   458 net.cpp:399] inception_4b/output_inception_4b/output_0_split -> inception_4b/output_inception_4b/output_0_split_3
I0727 20:26:57.407866   458 net.cpp:141] Setting up inception_4b/output_inception_4b/output_0_split
I0727 20:26:57.407877   458 net.cpp:148] Top shape: 10 512 14 14 (1003520)
I0727 20:26:57.407883   458 net.cpp:148] Top shape: 10 512 14 14 (1003520)
I0727 20:26:57.407888   458 net.cpp:148] Top shape: 10 512 14 14 (1003520)
I0727 20:26:57.407894   458 net.cpp:148] Top shape: 10 512 14 14 (1003520)
I0727 20:26:57.407898   458 net.cpp:156] Memory required for data: 423861760
I0727 20:26:57.407896   454 net.cpp:141] Setting up inception_4b/relu_pool_proj
I0727 20:26:57.407902   458 layer_factory.hpp:77] Creating layer inception_4c/1x1
I0727 20:26:57.407909   454 net.cpp:148] Top shape: 10 64 14 14 (125440)
I0727 20:26:57.407914   454 net.cpp:156] Memory required for data: 403791360
I0727 20:26:57.407919   454 layer_factory.hpp:77] Creating layer inception_4b/output
I0727 20:26:57.407920   458 net.cpp:91] Creating Layer inception_4c/1x1
I0727 20:26:57.407927   458 net.cpp:425] inception_4c/1x1 <- inception_4b/output_inception_4b/output_0_split_0
I0727 20:26:57.407930   454 net.cpp:91] Creating Layer inception_4b/output
…
I0727 20:26:57.516624   454 net.cpp:141] Setting up inception_4e/relu_5x5_reduce
I0727 20:26:57.516638   454 net.cpp:148] Top shape: 10 32 14 14 (62720)
I0727 20:26:57.516643   454 net.cpp:156] Memory required for data: 506150400
I0727 20:26:57.516647   454 layer_factory.hpp:77] Creating layer inception_4e/5x5
I0727 20:26:57.516664   454 net.cpp:91] Creating Layer inception_4e/5x5
I0727 20:26:57.516670   454 net.cpp:425] inception_4e/5x5 <- inception_4e/5x5_reduce
I0727 20:26:57.516680   454 net.cpp:399] inception_4e/5x5 -> inception_4e/5x5
I0727 20:26:57.520336   458 net.cpp:141] Setting up inception_4e/5x5
I0727 20:26:57.520366   458 net.cpp:148] Top shape: 10 128 14 14 (250880)
I0727 20:26:57.520372   458 net.cpp:156] Memory required for data: 507153920
I0727 20:26:57.520380   458 layer_factory.hpp:77] Creating layer inception_4e/relu_5x5
I0727 20:26:57.520395   458 net.cpp:91] Creating Layer inception_4e/relu_5x5
I0727 20:26:57.520402   458 net.cpp:425] inception_4e/relu_5x5 <- inception_4e/5x5
I0727 20:26:57.520409   458 net.cpp:386] inception_4e/relu_5x5 -> inception_4e/5x5 (in-place)
I0727 20:26:57.520668   458 net.cpp:141] Setting up inception_4e/relu_5x5
I0727 20:26:57.520678   458 net.cpp:148] Top shape: 10 128 14 14 (250880)
I0727 20:26:57.520684   458 net.cpp:156] Memory required for data: 508157440
I0727 20:26:57.520687   458 layer_factory.hpp:77] Creating layer inception_4e/pool
I0727 20:26:57.520696   458 net.cpp:91] Creating Layer inception_4e/pool
I0727 20:26:57.520702   458 net.cpp:425] inception_4e/pool <- inception_4d/output_inception_4d/output_0_split_3
I0727 20:26:57.520714   458 net.cpp:399] inception_4e/pool -> inception_4e/pool
I0727 20:26:57.520941   458 net.cpp:141] Setting up inception_4e/pool
I0727 20:26:57.520952   458 net.cpp:148] Top shape: 10 528 14 14 (1034880)
I0727 20:26:57.520956   458 net.cpp:156] Memory required for data: 512296960
I0727 20:26:57.520961   458 layer_factory.hpp:77] Creating layer inception_4e/pool_proj
I0727 20:26:57.520977   458 net.cpp:91] Creating Layer inception_4e/pool_proj
I0727 20:26:57.520983   458 net.cpp:425] inception_4e/pool_proj <- inception_4e/pool
I0727 20:26:57.520994   458 net.cpp:399] inception_4e/pool_proj -> inception_4e/pool_proj
I0727 20:26:57.523322   454 net.cpp:141] Setting up inception_4e/5x5
I0727 20:26:57.523339   454 net.cpp:148] Top shape: 10 128 14 14 (250880)
I0727 20:26:57.523357   454 net.cpp:156] Memory required for data: 507153920
I0727 20:26:57.523367   454 layer_factory.hpp:77] Creating layer inception_4e/relu_5x5
I0727 20:26:57.523375   454 net.cpp:91] Creating Layer inception_4e/relu_5x5
I0727 20:26:57.523381   454 net.cpp:425] inception_4e/relu_5x5 <- inception_4e/5x5
I0727 20:26:57.523389   454 net.cpp:386] inception_4e/relu_5x5 -> inception_4e/5x5 (in-place)
I0727 20:26:57.523723   454 net.cpp:141] Setting up inception_4e/relu_5x5
I0727 20:26:57.523739   454 net.cpp:148] Top shape: 10 128 14 14 (250880)
I0727 20:26:57.523743   454 net.cpp:156] Memory required for data: 508157440
I0727 20:26:57.523748   454 layer_factory.hpp:77] Creating layer inception_4e/pool
I0727 20:26:57.523759   454 net.cpp:91] Creating Layer inception_4e/pool
I0727 20:26:57.523766   454 net.cpp:425] inception_4e/pool <- inception_4d/output_inception_4d/output_0_split_3
I0727 20:26:57.523773   454 net.cpp:399] inception_4e/pool -> inception_4e/pool
I0727 20:26:57.524428   454 net.cpp:141] Setting up inception_4e/pool
I0727 20:26:57.524452   454 net.cpp:148] Top shape: 10 528 14 14 (1034880)
I0727 20:26:57.524457   454 net.cpp:156] Memory required for data: 512296960
I0727 20:26:57.524462   454 layer_factory.hpp:77] Creating layer inception_4e/pool_proj
I0727 20:26:57.524477   454 net.cpp:91] Creating Layer inception_4e/pool_proj
I0727 20:26:57.524483   454 net.cpp:425] inception_4e/pool_proj <- inception_4e/pool
I0727 20:26:57.524495   454 net.cpp:399] inception_4e/pool_proj -> inception_4e/pool_proj
I0727 20:26:57.526209   458 net.cpp:141] Setting up inception_4e/pool_proj
I0727 20:26:57.526238   458 net.cpp:148] Top shape: 10 128 14 14 (250880)
I0727 20:26:57.526247   458 net.cpp:156] Memory required for data: 513300480
I0727 20:26:57.526255   458 layer_factory.hpp:77] Creating layer inception_4e/relu_pool_proj
I0727 20:26:57.526264   458 net.cpp:91] Creating Layer inception_4e/relu_pool_proj
I0727 20:26:57.526270   458 net.cpp:425] inception_4e/relu_pool_proj <- inception_4e/pool_proj
I0727 20:26:57.526278   458 net.cpp:386] inception_4e/relu_pool_proj -> inception_4e/pool_proj (in-place)
I0727 20:26:57.527128   458 net.cpp:141] Setting up inception_4e/relu_pool_proj
I0727 20:26:57.527158   458 net.cpp:148] Top shape: 10 128 14 14 (250880)
I0727 20:26:57.527164   458 net.cpp:156] Memory required for data: 514304000
I0727 20:26:57.527169   458 layer_factory.hpp:77] Creating layer inception_4e/output
I0727 20:26:57.527178   458 net.cpp:91] Creating Layer inception_4e/output
I0727 20:26:57.527184   458 net.cpp:425] inception_4e/output <- inception_4e/1x1
I0727 20:26:57.527189   458 net.cpp:425] inception_4e/output <- inception_4e/3x3
I0727 20:26:57.527195   458 net.cpp:425] inception_4e/output <- inception_4e/5x5
I0727 20:26:57.527200   458 net.cpp:425] inception_4e/output <- inception_4e/pool_proj
I0727 20:26:57.527206   458 net.cpp:399] inception_4e/output -> inception_4e/output
I0727 20:26:57.527798   458 net.cpp:141] Setting up inception_4e/output
I0727 20:26:57.527811   458 net.cpp:148] Top shape: 10 832 14 14 (1630720)
I0727 20:26:57.527817   458 net.cpp:156] Memory required for data: 520826880
I0727 20:26:57.527820   458 layer_factory.hpp:77] Creating layer pool4/3x3_s2
I0727 20:26:57.527829   458 net.cpp:91] Creating Layer pool4/3x3_s2
I0727 20:26:57.527834   458 net.cpp:425] pool4/3x3_s2 <- inception_4e/output
I0727 20:26:57.527844   458 net.cpp:399] pool4/3x3_s2 -> pool4/3x3_s2
I0727 20:26:57.528620   458 net.cpp:141] Setting up pool4/3x3_s2
I0727 20:26:57.528632   458 net.cpp:148] Top shape: 10 832 7 7 (407680)
I0727 20:26:57.528650   458 net.cpp:156] Memory required for data: 522457600
I0727 20:26:57.528656   458 layer_factory.hpp:77] Creating layer pool4/3x3_s2_pool4/3x3_s2_0_split
I0727 20:26:57.528666   458 net.cpp:91] Creating Layer pool4/3x3_s2_pool4/3x3_s2_0_split
I0727 20:26:57.528671   458 net.cpp:425] pool4/3x3_s2_pool4/3x3_s2_0_split <- pool4/3x3_s2
I0727 20:26:57.528677   458 net.cpp:399] pool4/3x3_s2_pool4/3x3_s2_0_split -> pool4/3x3_s2_pool4/3x3_s2_0_split_0
I0727 20:26:57.528689   458 net.cpp:399] pool4/3x3_s2_pool4/3x3_s2_0_split -> pool4/3x3_s2_pool4/3x3_s2_0_split_1
I0727 20:26:57.528698   458 net.cpp:399] pool4/3x3_s2_pool4/3x3_s2_0_split -> pool4/3x3_s2_pool4/3x3_s2_0_split_2
I0727 20:26:57.528705   458 net.cpp:399] pool4/3x3_s2_pool4/3x3_s2_0_split -> pool4/3x3_s2_pool4/3x3_s2_0_split_3
I0727 20:26:57.529166   458 net.cpp:141] Setting up pool4/3x3_s2_pool4/3x3_s2_0_split
I0727 20:26:57.529180   458 net.cpp:148] Top shape: 10 832 7 7 (407680)
I0727 20:26:57.529186   458 net.cpp:148] Top shape: 10 832 7 7 (407680)
I0727 20:26:57.529191   458 net.cpp:148] Top shape: 10 832 7 7 (407680)
I0727 20:26:57.529196   458 net.cpp:148] Top shape: 10 832 7 7 (407680)
I0727 20:26:57.529199   458 net.cpp:156] Memory required for data: 528980480
I0727 20:26:57.529204   458 layer_factory.hpp:77] Creating layer inception_5a/1x1
I0727 20:26:57.529217   458 net.cpp:91] Creating Layer inception_5a/1x1
I0727 20:26:57.529222   458 net.cpp:425] inception_5a/1x1 <- pool4/3x3_s2_pool4/3x3_s2_0_split_0
I0727 20:26:57.529234   458 net.cpp:399] inception_5a/1x1 -> inception_5a/1x1
I0727 20:26:57.529731   454 net.cpp:141] Setting up inception_4e/pool_proj
I0727 20:26:57.529747   454 net.cpp:148] Top shape: 10 128 14 14 (250880)
I0727 20:26:57.529752   454 net.cpp:156] Memory required for data: 513300480
I0727 20:26:57.529762   454 layer_factory.hpp:77] Creating layer inception_4e/relu_pool_proj
I0727 20:26:57.529773   454 net.cpp:91] Creating Layer inception_4e/relu_pool_proj
I0727 20:26:57.529780   454 net.cpp:425] inception_4e/relu_pool_proj <- inception_4e/pool_proj
I0727 20:26:57.529789   454 net.cpp:386] inception_4e/relu_pool_proj -> inception_4e/pool_proj (in-place)
I0727 20:26:57.531055   454 net.cpp:141] Setting up inception_4e/relu_pool_proj
I0727 20:26:57.531082   454 net.cpp:148] Top shape: 10 128 14 14 (250880)
I0727 20:26:57.531088   454 net.cpp:156] Memory required for data: 514304000
I0727 20:26:57.531093   454 layer_factory.hpp:77] Creating layer inception_4e/output
I0727 20:26:57.531101   454 net.cpp:91] Creating Layer inception_4e/output
I0727 20:26:57.531107   454 net.cpp:425] inception_4e/output <- inception_4e/1x1
I0727 20:26:57.531113   454 net.cpp:425] inception_4e/output <- inception_4e/3x3
I0727 20:26:57.531119   454 net.cpp:425] inception_4e/output <- inception_4e/5x5
I0727 20:26:57.531124   454 net.cpp:425] inception_4e/output <- inception_4e/pool_proj
I0727 20:26:57.531133   454 net.cpp:399] inception_4e/output -> inception_4e/output
I0727 20:26:57.531584   454 net.cpp:141] Setting up inception_4e/output
I0727 20:26:57.531596   454 net.cpp:148] Top shape: 10 832 14 14 (1630720)
I0727 20:26:57.531600   454 net.cpp:156] Memory required for data: 520826880
I0727 20:26:57.531605   454 layer_factory.hpp:77] Creating layer pool4/3x3_s2
I0727 20:26:57.531616   454 net.cpp:91] Creating Layer pool4/3x3_s2
I0727 20:26:57.531621   454 net.cpp:425] pool4/3x3_s2 <- inception_4e/output
I0727 20:26:57.531630   454 net.cpp:399] pool4/3x3_s2 -> pool4/3x3_s2
I0727 20:26:57.532227   454 net.cpp:141] Setting up pool4/3x3_s2
I0727 20:26:57.532240   454 net.cpp:148] Top shape: 10 832 7 7 (407680)
I0727 20:26:57.532258   454 net.cpp:156] Memory required for data: 522457600
I0727 20:26:57.532263   454 layer_factory.hpp:77] Creating layer pool4/3x3_s2_pool4/3x3_s2_0_split
I0727 20:26:57.532270   454 net.cpp:91] Creating Layer pool4/3x3_s2_pool4/3x3_s2_0_split
I0727 20:26:57.532275   454 net.cpp:425] pool4/3x3_s2_pool4/3x3_s2_0_split <- pool4/3x3_s2
I0727 20:26:57.532284   454 net.cpp:399] pool4/3x3_s2_pool4/3x3_s2_0_split -> pool4/3x3_s2_pool4/3x3_s2_0_split_0
I0727 20:26:57.532294   454 net.cpp:399] pool4/3x3_s2_pool4/3x3_s2_0_split -> pool4/3x3_s2_pool4/3x3_s2_0_split_1
I0727 20:26:57.532301   454 net.cpp:399] pool4/3x3_s2_pool4/3x3_s2_0_split -> pool4/3x3_s2_pool4/3x3_s2_0_split_2
I0727 20:26:57.532308   454 net.cpp:399] pool4/3x3_s2_pool4/3x3_s2_0_split -> pool4/3x3_s2_pool4/3x3_s2_0_split_3
I0727 20:26:57.532496   454 net.cpp:141] Setting up pool4/3x3_s2_pool4/3x3_s2_0_split
I0727 20:26:57.532506   454 net.cpp:148] Top shape: 10 832 7 7 (407680)
I0727 20:26:57.532512   454 net.cpp:148] Top shape: 10 832 7 7 (407680)
I0727 20:26:57.532517   454 net.cpp:148] Top shape: 10 832 7 7 (407680)
I0727 20:26:57.532522   454 net.cpp:148] Top shape: 10 832 7 7 (407680)
I0727 20:26:57.532526   454 net.cpp:156] Memory required for data: 528980480
I0727 20:26:57.532531   454 layer_factory.hpp:77] Creating layer inception_5a/1x1
I0727 20:26:57.532546   454 net.cpp:91] Creating Layer inception_5a/1x1
I0727 20:26:57.532552   454 net.cpp:425] inception_5a/1x1 <- pool4/3x3_s2_pool4/3x3_s2_0_split_0
I0727 20:26:57.532562   454 net.cpp:399] inception_5a/1x1 -> inception_5a/1x1
I0727 20:26:57.537524   458 net.cpp:141] Setting up inception_5a/1x1
I0727 20:26:57.537554   458 net.cpp:148] Top shape: 10 256 7 7 (125440)
I0727 20:26:57.537560   458 net.cpp:156] Memory required for data: 529482240
I0727 20:26:57.537569   458 layer_factory.hpp:77] Creating layer inception_5a/relu_1x1
I0727 20:26:57.537580   458 net.cpp:91] Creating Layer inception_5a/relu_1x1
I0727 20:26:57.537587   458 net.cpp:425] inception_5a/relu_1x1 <- inception_5a/1x1
I0727 20:26:57.537595   458 net.cpp:386] inception_5a/relu_1x1 -> inception_5a/1x1 (in-place)
I0727 20:26:57.537922   458 net.cpp:141] Setting up inception_5a/relu_1x1
I0727 20:26:57.537935   458 net.cpp:148] Top shape: 10 256 7 7 (125440)
I0727 20:26:57.537938   458 net.cpp:156] Memory required for data: 529984000
I0727 20:26:57.537943   458 layer_factory.hpp:77] Creating layer inception_5a/3x3_reduce
I0727 20:26:57.537958   458 net.cpp:91] Creating Layer inception_5a/3x3_reduce
I0727 20:26:57.537966   458 net.cpp:425] inception_5a/3x3_reduce <- pool4/3x3_s2_pool4/3x3_s2_0_split_1
I0727 20:26:57.537976   458 net.cpp:399] inception_5a/3x3_reduce -> inception_5a/3x3_reduce
I0727 20:26:57.540555   454 net.cpp:141] Setting up inception_5a/1x1
I0727 20:26:57.540586   454 net.cpp:148] Top shape: 10 256 7 7 (125440)
I0727 20:26:57.540592   454 net.cpp:156] Memory required for data: 529482240
I0727 20:26:57.540601   454 layer_factory.hpp:77] Creating layer inception_5a/relu_1x1
I0727 20:26:57.540611   454 net.cpp:91] Creating Layer inception_5a/relu_1x1
I0727 20:26:57.540616   454 net.cpp:425] inception_5a/relu_1x1 <- inception_5a/1x1
I0727 20:26:57.540623   454 net.cpp:386] inception_5a/relu_1x1 -> inception_5a/1x1 (in-place)
I0727 20:26:57.540889   454 net.cpp:141] Setting up inception_5a/relu_1x1
I0727 20:26:57.540900   454 net.cpp:148] Top shape: 10 256 7 7 (125440)
I0727 20:26:57.540905   454 net.cpp:156] Memory required for data: 529984000
I0727 20:26:57.540910   454 layer_factory.hpp:77] Creating layer inception_5a/3x3_reduce
I0727 20:26:57.540925   454 net.cpp:91] Creating Layer inception_5a/3x3_reduce
I0727 20:26:57.540931   454 net.cpp:425] inception_5a/3x3_reduce <- pool4/3x3_s2_pool4/3x3_s2_0_split_1
I0727 20:26:57.540943   454 net.cpp:399] inception_5a/3x3_reduce -> inception_5a/3x3_reduce
I0727 20:26:57.546645   458 net.cpp:141] Setting up inception_5a/3x3_reduce
I0727 20:26:57.546675   458 net.cpp:148] Top shape: 10 160 7 7 (78400)
I0727 20:26:57.546681   458 net.cpp:156] Memory required for data: 530297600
I0727 20:26:57.546699   458 layer_factory.hpp:77] Creating layer inception_5a/relu_3x3_reduce
I0727 20:26:57.546711   458 net.cpp:91] Creating Layer inception_5a/relu_3x3_reduce
I0727 20:26:57.546717   458 net.cpp:425] inception_5a/relu_3x3_reduce <- inception_5a/3x3_reduce
I0727 20:26:57.546725   458 net.cpp:386] inception_5a/relu_3x3_reduce -> inception_5a/3x3_reduce (in-place)
I0727 20:26:57.547066   454 net.cpp:141] Setting up inception_5a/3x3_reduce
I0727 20:26:57.547081   454 net.cpp:148] Top shape: 10 160 7 7 (78400)
I0727 20:26:57.547086   454 net.cpp:156] Memory required for data: 530297600
I0727 20:26:57.547096   454 layer_factory.hpp:77] Creating layer inception_5a/relu_3x3_reduce
I0727 20:26:57.547097   458 net.cpp:141] Setting up inception_5a/relu_3x3_reduce
I0727 20:26:57.547107   454 net.cpp:91] Creating Layer inception_5a/relu_3x3_reduce
I0727 20:26:57.547111   458 net.cpp:148] Top shape: 10 160 7 7 (78400)
I0727 20:26:57.547114   454 net.cpp:425] inception_5a/relu_3x3_reduce <- inception_5a/3x3_reduce
I0727 20:26:57.547116   458 net.cpp:156] Memory required for data: 530611200
I0727 20:26:57.547121   458 layer_factory.hpp:77] Creating layer inception_5a/3x3
I0727 20:26:57.547122   454 net.cpp:386] inception_5a/relu_3x3_reduce -> inception_5a/3x3_reduce (in-place)
I0727 20:26:57.547139   458 net.cpp:91] Creating Layer inception_5a/3x3
I0727 20:26:57.547145   458 net.cpp:425] inception_5a/3x3 <- inception_5a/3x3_reduce
I0727 20:26:57.547154   458 net.cpp:399] inception_5a/3x3 -> inception_5a/3x3
I0727 20:26:57.547521   454 net.cpp:141] Setting up inception_5a/relu_3x3_reduce
I0727 20:26:57.547533   454 net.cpp:148] Top shape: 10 160 7 7 (78400)
I0727 20:26:57.547538   454 net.cpp:156] Memory required for data: 530611200
I0727 20:26:57.547543   454 layer_factory.hpp:77] Creating layer inception_5a/3x3
I0727 20:26:57.547559   454 net.cpp:91] Creating Layer inception_5a/3x3
I0727 20:26:57.547564   454 net.cpp:425] inception_5a/3x3 <- inception_5a/3x3_reduce
I0727 20:26:57.547576   454 net.cpp:399] inception_5a/3x3 -> inception_5a/3x3
I0727 20:26:57.558424   458 net.cpp:141] Setting up inception_5a/3x3
I0727 20:26:57.558445   458 net.cpp:148] Top shape: 10 320 7 7 (156800)
I0727 20:26:57.558450   458 net.cpp:156] Memory required for data: 531238400
I0727 20:26:57.558459   458 layer_factory.hpp:77] Creating layer inception_5a/relu_3x3
I0727 20:26:57.558468   458 net.cpp:91] Creating Layer inception_5a/relu_3x3
I0727 20:26:57.558475   458 net.cpp:425] inception_5a/relu_3x3 <- inception_5a/3x3
I0727 20:26:57.558487   458 net.cpp:386] inception_5a/relu_3x3 -> inception_5a/3x3 (in-place)
I0727 20:26:57.559422   458 net.cpp:141] Setting up inception_5a/relu_3x3
I0727 20:26:57.559437   458 net.cpp:148] Top shape: 10 320 7 7 (156800)
I0727 20:26:57.559455   458 net.cpp:156] Memory required for data: 531865600
I0727 20:26:57.559460   458 layer_factory.hpp:77] Creating layer inception_5a/5x5_reduce
I0727 20:26:57.559476   458 net.cpp:91] Creating Layer inception_5a/5x5_reduce
I0727 20:26:57.559484   458 net.cpp:425] inception_5a/5x5_reduce <- pool4/3x3_s2_pool4/3x3_s2_0_split_2
I0727 20:26:57.559495   458 net.cpp:399] inception_5a/5x5_reduce -> inception_5a/5x5_reduce
I0727 20:26:57.560027   454 net.cpp:141] Setting up inception_5a/3x3
I0727 20:26:57.560045   454 net.cpp:148] Top shape: 10 320 7 7 (156800)
I0727 20:26:57.560050   454 net.cpp:156] Memory required for data: 531238400
I0727 20:26:57.560062   454 layer_factory.hpp:77] Creating layer inception_5a/relu_3x3
I0727 20:26:57.560070   454 net.cpp:91] Creating Layer inception_5a/relu_3x3
I0727 20:26:57.560076   454 net.cpp:425] inception_5a/relu_3x3 <- inception_5a/3x3
I0727 20:26:57.560084   454 net.cpp:386] inception_5a/relu_3x3 -> inception_5a/3x3 (in-place)
I0727 20:26:57.560998   454 net.cpp:141] Setting up inception_5a/relu_3x3
I0727 20:26:57.561027   454 net.cpp:148] Top shape: 10 320 7 7 (156800)
I0727 20:26:57.561031   454 net.cpp:156] Memory required for data: 531865600
I0727 20:26:57.561036   454 layer_factory.hpp:77] Creating layer inception_5a/5x5_reduce
I0727 20:26:57.561051   454 net.cpp:91] Creating Layer inception_5a/5x5_reduce
I0727 20:26:57.561058   454 net.cpp:425] inception_5a/5x5_reduce <- pool4/3x3_s2_pool4/3x3_s2_0_split_2
I0727 20:26:57.561071   454 net.cpp:399] inception_5a/5x5_reduce -> inception_5a/5x5_reduce
I0727 20:26:57.565073   458 net.cpp:141] Setting up inception_5a/5x5_reduce
I0727 20:26:57.565102   458 net.cpp:148] Top shape: 10 32 7 7 (15680)
I0727 20:26:57.565107   458 net.cpp:156] Memory required for data: 531928320
I0727 20:26:57.565116   458 layer_factory.hpp:77] Creating layer inception_5a/relu_5x5_reduce
I0727 20:26:57.565124   458 net.cpp:91] Creating Layer inception_5a/relu_5x5_reduce
I0727 20:26:57.565130   458 net.cpp:425] inception_5a/relu_5x5_reduce <- inception_5a/5x5_reduce
I0727 20:26:57.565138   458 net.cpp:386] inception_5a/relu_5x5_reduce -> inception_5a/5x5_reduce (in-place)
I0727 20:26:57.565579   458 net.cpp:141] Setting up inception_5a/relu_5x5_reduce
I0727 20:26:57.565593   458 net.cpp:148] Top shape: 10 32 7 7 (15680)
I0727 20:26:57.565598   458 net.cpp:156] Memory required for data: 531991040
I0727 20:26:57.565603   458 layer_factory.hpp:77] Creating layer inception_5a/5x5
I0727 20:26:57.565618   458 net.cpp:91] Creating Layer inception_5a/5x5
I0727 20:26:57.565624   458 net.cpp:425] inception_5a/5x5 <- inception_5a/5x5_reduce
I0727 20:26:57.565636   458 net.cpp:399] inception_5a/5x5 -> inception_5a/5x5
I0727 20:26:57.565704   454 net.cpp:141] Setting up inception_5a/5x5_reduce
I0727 20:26:57.565718   454 net.cpp:148] Top shape: 10 32 7 7 (15680)
I0727 20:26:57.565723   454 net.cpp:156] Memory required for data: 531928320
I0727 20:26:57.565732   454 layer_factory.hpp:77] Creating layer inception_5a/relu_5x5_reduce
I0727 20:26:57.565742   454 net.cpp:91] Creating Layer inception_5a/relu_5x5_reduce
I0727 20:26:57.565749   454 net.cpp:425] inception_5a/relu_5x5_reduce <- inception_5a/5x5_reduce
I0727 20:26:57.565757   454 net.cpp:386] inception_5a/relu_5x5_reduce -> inception_5a/5x5_reduce (in-place)
I0727 20:26:57.566184   454 net.cpp:141] Setting up inception_5a/relu_5x5_reduce
I0727 20:26:57.566198   454 net.cpp:148] Top shape: 10 32 7 7 (15680)
I0727 20:26:57.566203   454 net.cpp:156] Memory required for data: 531991040
I0727 20:26:57.566208   454 layer_factory.hpp:77] Creating layer inception_5a/5x5
I0727 20:26:57.566226   454 net.cpp:91] Creating Layer inception_5a/5x5
I0727 20:26:57.566232   454 net.cpp:425] inception_5a/5x5 <- inception_5a/5x5_reduce
I0727 20:26:57.566241   454 net.cpp:399] inception_5a/5x5 -> inception_5a/5x5
I0727 20:26:57.570291   458 net.cpp:141] Setting up inception_5a/5x5
I0727 20:26:57.570319   458 net.cpp:148] Top shape: 10 128 7 7 (62720)
I0727 20:26:57.570324   458 net.cpp:156] Memory required for data: 532241920
I0727 20:26:57.570333   458 layer_factory.hpp:77] Creating layer inception_5a/relu_5x5
I0727 20:26:57.570369   458 net.cpp:91] Creating Layer inception_5a/relu_5x5
I0727 20:26:57.570375   458 net.cpp:425] inception_5a/relu_5x5 <- inception_5a/5x5
I0727 20:26:57.570384   458 net.cpp:386] inception_5a/relu_5x5 -> inception_5a/5x5 (in-place)
I0727 20:26:57.570680   454 net.cpp:141] Setting up inception_5a/5x5
I0727 20:26:57.570709   454 net.cpp:148] Top shape: 10 128 7 7 (62720)
I0727 20:26:57.570719   454 net.cpp:156] Memory required for data: 532241920
I0727 20:26:57.570734   454 layer_factory.hpp:77] Creating layer inception_5a/relu_5x5
I0727 20:26:57.570751   458 net.cpp:141] Setting up inception_5a/relu_5x5
I0727 20:26:57.570763   458 net.cpp:148] Top shape: 10 128 7 7 (62720)
I0727 20:26:57.570766   454 net.cpp:91] Creating Layer inception_5a/relu_5x5
I0727 20:26:57.570768   458 net.cpp:156] Memory required for data: 532492800
I0727 20:26:57.570773   454 net.cpp:425] inception_5a/relu_5x5 <- inception_5a/5x5
I0727 20:26:57.570775   458 layer_factory.hpp:77] Creating layer inception_5a/pool
I0727 20:26:57.570781   454 net.cpp:386] inception_5a/relu_5x5 -> inception_5a/5x5 (in-place)
I0727 20:26:57.570786   458 net.cpp:91] Creating Layer inception_5a/pool
I0727 20:26:57.570792   458 net.cpp:425] inception_5a/pool <- pool4/3x3_s2_pool4/3x3_s2_0_split_3
I0727 20:26:57.570801   458 net.cpp:399] inception_5a/pool -> inception_5a/pool
I0727 20:26:57.571074   458 net.cpp:141] Setting up inception_5a/pool
I0727 20:26:57.571086   458 net.cpp:148] Top shape: 10 832 7 7 (407680)
I0727 20:26:57.571090   458 net.cpp:156] Memory required for data: 534123520
I0727 20:26:57.571095   458 layer_factory.hpp:77] Creating layer inception_5a/pool_proj
I0727 20:26:57.571110   458 net.cpp:91] Creating Layer inception_5a/pool_proj
I0727 20:26:57.571115   458 net.cpp:425] inception_5a/pool_proj <- inception_5a/pool
I0727 20:26:57.571128   458 net.cpp:399] inception_5a/pool_proj -> inception_5a/pool_proj
I0727 20:26:57.571144   454 net.cpp:141] Setting up inception_5a/relu_5x5
I0727 20:26:57.571157   454 net.cpp:148] Top shape: 10 128 7 7 (62720)
I0727 20:26:57.571161   454 net.cpp:156] Memory required for data: 532492800
I0727 20:26:57.571167   454 layer_factory.hpp:77] Creating layer inception_5a/pool
I0727 20:26:57.571178   454 net.cpp:91] Creating Layer inception_5a/pool
I0727 20:26:57.571184   454 net.cpp:425] inception_5a/pool <- pool4/3x3_s2_pool4/3x3_s2_0_split_3
I0727 20:26:57.571192   454 net.cpp:399] inception_5a/pool -> inception_5a/pool
I0727 20:26:57.571420   454 net.cpp:141] Setting up inception_5a/pool
I0727 20:26:57.571431   454 net.cpp:148] Top shape: 10 832 7 7 (407680)
I0727 20:26:57.571435   454 net.cpp:156] Memory required for data: 534123520
I0727 20:26:57.571440   454 layer_factory.hpp:77] Creating layer inception_5a/pool_proj
I0727 20:26:57.571458   454 net.cpp:91] Creating Layer inception_5a/pool_proj
I0727 20:26:57.571465   454 net.cpp:425] inception_5a/pool_proj <- inception_5a/pool
I0727 20:26:57.571475   454 net.cpp:399] inception_5a/pool_proj -> inception_5a/pool_proj
I0727 20:26:57.578104   458 net.cpp:141] Setting up inception_5a/pool_proj
I0727 20:26:57.578135   458 net.cpp:148] Top shape: 10 128 7 7 (62720)
I0727 20:26:57.578140   458 net.cpp:156] Memory required for data: 534374400
I0727 20:26:57.578150   458 layer_factory.hpp:77] Creating layer inception_5a/relu_pool_proj
I0727 20:26:57.578161   458 net.cpp:91] Creating Layer inception_5a/relu_pool_proj
I0727 20:26:57.578168   458 net.cpp:425] inception_5a/relu_pool_proj <- inception_5a/pool_proj
I0727 20:26:57.578176   458 net.cpp:386] inception_5a/relu_pool_proj -> inception_5a/pool_proj (in-place)
I0727 20:26:57.579150   458 net.cpp:141] Setting up inception_5a/relu_pool_proj
I0727 20:26:57.579176   458 net.cpp:148] Top shape: 10 128 7 7 (62720)
I0727 20:26:57.579182   458 net.cpp:156] Memory required for data: 534625280
I0727 20:26:57.579188   458 layer_factory.hpp:77] Creating layer inception_5a/output
I0727 20:26:57.579200   458 net.cpp:91] Creating Layer inception_5a/output
I0727 20:26:57.579206   458 net.cpp:425] inception_5a/output <- inception_5a/1x1
I0727 20:26:57.579213   458 net.cpp:425] inception_5a/output <- inception_5a/3x3
I0727 20:26:57.579218   458 net.cpp:425] inception_5a/output <- inception_5a/5x5
I0727 20:26:57.579224   458 net.cpp:425] inception_5a/output <- inception_5a/pool_proj
I0727 20:26:57.579231   458 net.cpp:399] inception_5a/output -> inception_5a/output
I0727 20:26:57.579236   454 net.cpp:141] Setting up inception_5a/pool_proj
I0727 20:26:57.579251   454 net.cpp:148] Top shape: 10 128 7 7 (62720)
I0727 20:26:57.579255   454 net.cpp:156] Memory required for data: 534374400
I0727 20:26:57.579264   454 layer_factory.hpp:77] Creating layer inception_5a/relu_pool_proj
I0727 20:26:57.579272   454 net.cpp:91] Creating Layer inception_5a/relu_pool_proj
I0727 20:26:57.579278   454 net.cpp:425] inception_5a/relu_pool_proj <- inception_5a/pool_proj
I0727 20:26:57.579288   454 net.cpp:386] inception_5a/relu_pool_proj -> inception_5a/pool_proj (in-place)
I0727 20:26:57.579319   458 net.cpp:141] Setting up inception_5a/output
I0727 20:26:57.579329   458 net.cpp:148] Top shape: 10 832 7 7 (407680)
I0727 20:26:57.579334   458 net.cpp:156] Memory required for data: 536256000
I0727 20:26:57.579339   458 layer_factory.hpp:77] Creating layer inception_5a/output_inception_5a/output_0_split
I0727 20:26:57.579347   458 net.cpp:91] Creating Layer inception_5a/output_inception_5a/output_0_split
I0727 20:26:57.579352   458 net.cpp:425] inception_5a/output_inception_5a/output_0_split <- inception_5a/output
I0727 20:26:57.579361   458 net.cpp:399] inception_5a/output_inception_5a/output_0_split -> inception_5a/output_inception_5a/output_0_split_0
I0727 20:26:57.579371   458 net.cpp:399] inception_5a/output_inception_5a/output_0_split -> inception_5a/output_inception_5a/output_0_split_1
I0727 20:26:57.579380   458 net.cpp:399] inception_5a/output_inception_5a/output_0_split -> inception_5a/output_inception_5a/output_0_split_2
I0727 20:26:57.579386   458 net.cpp:399] inception_5a/output_inception_5a/output_0_split -> inception_5a/output_inception_5a/output_0_split_3
I0727 20:26:57.580185   454 net.cpp:141] Setting up inception_5a/relu_pool_proj
I0727 20:26:57.580199   454 net.cpp:148] Top shape: 10 128 7 7 (62720)
I0727 20:26:57.580202   454 net.cpp:156] Memory required for data: 534625280
I0727 20:26:57.580209   454 layer_factory.hpp:77] Creating layer inception_5a/output
I0727 20:26:57.580206   458 net.cpp:141] Setting up inception_5a/output_inception_5a/output_0_split
I0727 20:26:57.580220   454 net.cpp:91] Creating Layer inception_5a/output
I0727 20:26:57.580224   458 net.cpp:148] Top shape: 10 832 7 7 (407680)
I0727 20:26:57.580227   454 net.cpp:425] inception_5a/output <- inception_5a/1x1
I0727 20:26:57.580230   458 net.cpp:148] Top shape: 10 832 7 7 (407680)
I0727 20:26:57.580234   454 net.cpp:425] inception_5a/output <- inception_5a/3x3
I0727 20:26:57.580236   458 net.cpp:148] Top shape: 10 832 7 7 (407680)
I0727 20:26:57.580240   454 net.cpp:425] inception_5a/output <- inception_5a/5x5
I0727 20:26:57.580242   458 net.cpp:148] Top shape: 10 832 7 7 (407680)
I0727 20:26:57.580245   454 net.cpp:425] inception_5a/output <- inception_5a/pool_proj
I0727 20:26:57.580246   458 net.cpp:156] Memory required for data: 542778880
I0727 20:26:57.580251   458 layer_factory.hpp:77] Creating layer inception_5b/1x1
I0727 20:26:57.580255   454 net.cpp:399] inception_5a/output -> inception_5a/output
I0727 20:26:57.580268   458 net.cpp:91] Creating Layer inception_5b/1x1
I0727 20:26:57.580276   458 net.cpp:425] inception_5b/1x1 <- inception_5a/output_inception_5a/output_0_split_0
I0727 20:26:57.580286   458 net.cpp:399] inception_5b/1x1 -> inception_5b/1x1
I0727 20:26:57.580375   454 net.cpp:141] Setting up inception_5a/output
I0727 20:26:57.580386   454 net.cpp:148] Top shape: 10 832 7 7 (407680)
I0727 20:26:57.580391   454 net.cpp:156] Memory required for data: 536256000
I0727 20:26:57.580396   454 layer_factory.hpp:77] Creating layer inception_5a/output_inception_5a/output_0_split
I0727 20:26:57.580404   454 net.cpp:91] Creating Layer inception_5a/output_inception_5a/output_0_split
I0727 20:26:57.580410   454 net.cpp:425] inception_5a/output_inception_5a/output_0_split <- inception_5a/output
I0727 20:26:57.580420   454 net.cpp:399] inception_5a/output_inception_5a/output_0_split -> inception_5a/output_inception_5a/output_0_split_0
I0727 20:26:57.580430   454 net.cpp:399] inception_5a/output_inception_5a/output_0_split -> inception_5a/output_inception_5a/output_0_split_1
I0727 20:26:57.580438   454 net.cpp:399] inception_5a/output_inception_5a/output_0_split -> inception_5a/output_inception_5a/output_0_split_2
I0727 20:26:57.580446   454 net.cpp:399] inception_5a/output_inception_5a/output_0_split -> inception_5a/output_inception_5a/output_0_split_3
I0727 20:26:57.580914   454 net.cpp:141] Setting up inception_5a/output_inception_5a/output_0_split
I0727 20:26:57.580925   454 net.cpp:148] Top shape: 10 832 7 7 (407680)
I0727 20:26:57.580935   454 net.cpp:148] Top shape: 10 832 7 7 (407680)
I0727 20:26:57.580940   454 net.cpp:148] Top shape: 10 832 7 7 (407680)
I0727 20:26:57.580945   454 net.cpp:148] Top shape: 10 832 7 7 (407680)
I0727 20:26:57.580950   454 net.cpp:156] Memory required for data: 542778880
I0727 20:26:57.580953   454 layer_factory.hpp:77] Creating layer inception_5b/1x1
I0727 20:26:57.580965   454 net.cpp:91] Creating Layer inception_5b/1x1
I0727 20:26:57.580971   454 net.cpp:425] inception_5b/1x1 <- inception_5a/output_inception_5a/output_0_split_0
I0727 20:26:57.580984   454 net.cpp:399] inception_5b/1x1 -> inception_5b/1x1
I0727 20:26:57.587494   458 net.cpp:141] Setting up inception_5b/1x1
I0727 20:26:57.587527   458 net.cpp:148] Top shape: 10 384 7 7 (188160)
I0727 20:26:57.587532   458 net.cpp:156] Memory required for data: 543531520
I0727 20:26:57.587540   458 layer_factory.hpp:77] Creating layer inception_5b/relu_1x1
I0727 20:26:57.587551   458 net.cpp:91] Creating Layer inception_5b/relu_1x1
I0727 20:26:57.587558   458 net.cpp:425] inception_5b/relu_1x1 <- inception_5b/1x1
I0727 20:26:57.587565   458 net.cpp:386] inception_5b/relu_1x1 -> inception_5b/1x1 (in-place)
I0727 20:26:57.587863   458 net.cpp:141] Setting up inception_5b/relu_1x1
I0727 20:26:57.587875   458 net.cpp:148] Top shape: 10 384 7 7 (188160)
I0727 20:26:57.587879   458 net.cpp:156] Memory required for data: 544284160
I0727 20:26:57.587884   458 layer_factory.hpp:77] Creating layer inception_5b/3x3_reduce
I0727 20:26:57.587898   458 net.cpp:91] Creating Layer inception_5b/3x3_reduce
I0727 20:26:57.587905   458 net.cpp:425] inception_5b/3x3_reduce <- inception_5a/output_inception_5a/output_0_split_1
I0727 20:26:57.587914   458 net.cpp:399] inception_5b/3x3_reduce -> inception_5b/3x3_reduce
I0727 20:26:57.591289   454 net.cpp:141] Setting up inception_5b/1x1
I0727 20:26:57.591318   454 net.cpp:148] Top shape: 10 384 7 7 (188160)
I0727 20:26:57.591325   454 net.cpp:156] Memory required for data: 543531520
I0727 20:26:57.591333   454 layer_factory.hpp:77] Creating layer inception_5b/relu_1x1
I0727 20:26:57.591346   454 net.cpp:91] Creating Layer inception_5b/relu_1x1
I0727 20:26:57.591352   454 net.cpp:425] inception_5b/relu_1x1 <- inception_5b/1x1
I0727 20:26:57.591362   454 net.cpp:386] inception_5b/relu_1x1 -> inception_5b/1x1 (in-place)
I0727 20:26:57.591629   454 net.cpp:141] Setting up inception_5b/relu_1x1
I0727 20:26:57.591640   454 net.cpp:148] Top shape: 10 384 7 7 (188160)
I0727 20:26:57.591645   454 net.cpp:156] Memory required for data: 544284160
I0727 20:26:57.591650   454 layer_factory.hpp:77] Creating layer inception_5b/3x3_reduce
I0727 20:26:57.591665   454 net.cpp:91] Creating Layer inception_5b/3x3_reduce
I0727 20:26:57.591671   454 net.cpp:425] inception_5b/3x3_reduce <- inception_5a/output_inception_5a/output_0_split_1
I0727 20:26:57.591682   454 net.cpp:399] inception_5b/3x3_reduce -> inception_5b/3x3_reduce
I0727 20:26:57.596736   458 net.cpp:141] Setting up inception_5b/3x3_reduce
I0727 20:26:57.596765   458 net.cpp:148] Top shape: 10 192 7 7 (94080)
I0727 20:26:57.596771   458 net.cpp:156] Memory required for data: 544660480
I0727 20:26:57.596779   458 layer_factory.hpp:77] Creating layer inception_5b/relu_3x3_reduce
I0727 20:26:57.596791   458 net.cpp:91] Creating Layer inception_5b/relu_3x3_reduce
I0727 20:26:57.596798   458 net.cpp:425] inception_5b/relu_3x3_reduce <- inception_5b/3x3_reduce
I0727 20:26:57.596808   458 net.cpp:386] inception_5b/relu_3x3_reduce -> inception_5b/3x3_reduce (in-place)
I0727 20:26:57.597108   458 net.cpp:141] Setting up inception_5b/relu_3x3_reduce
I0727 20:26:57.597121   458 net.cpp:148] Top shape: 10 192 7 7 (94080)
I0727 20:26:57.597126   458 net.cpp:156] Memory required for data: 545036800
I0727 20:26:57.597129   458 layer_factory.hpp:77] Creating layer inception_5b/3x3
I0727 20:26:57.597146   458 net.cpp:91] Creating Layer inception_5b/3x3
I0727 20:26:57.597151   458 net.cpp:425] inception_5b/3x3 <- inception_5b/3x3_reduce
I0727 20:26:57.597162   458 net.cpp:399] inception_5b/3x3 -> inception_5b/3x3
I0727 20:26:57.600489   454 net.cpp:141] Setting up inception_5b/3x3_reduce
I0727 20:26:57.600520   454 net.cpp:148] Top shape: 10 192 7 7 (94080)
I0727 20:26:57.600527   454 net.cpp:156] Memory required for data: 544660480
I0727 20:26:57.600535   454 layer_factory.hpp:77] Creating layer inception_5b/relu_3x3_reduce
I0727 20:26:57.600544   454 net.cpp:91] Creating Layer inception_5b/relu_3x3_reduce
I0727 20:26:57.600549   454 net.cpp:425] inception_5b/relu_3x3_reduce <- inception_5b/3x3_reduce
I0727 20:26:57.600561   454 net.cpp:386] inception_5b/relu_3x3_reduce -> inception_5b/3x3_reduce (in-place)
I0727 20:26:57.600831   454 net.cpp:141] Setting up inception_5b/relu_3x3_reduce
I0727 20:26:57.600844   454 net.cpp:148] Top shape: 10 192 7 7 (94080)
I0727 20:26:57.600849   454 net.cpp:156] Memory required for data: 545036800
I0727 20:26:57.600854   454 layer_factory.hpp:77] Creating layer inception_5b/3x3
I0727 20:26:57.600869   454 net.cpp:91] Creating Layer inception_5b/3x3
I0727 20:26:57.600877   454 net.cpp:425] inception_5b/3x3 <- inception_5b/3x3_reduce
I0727 20:26:57.600885   454 net.cpp:399] inception_5b/3x3 -> inception_5b/3x3
I0727 20:26:57.607405   458 net.cpp:141] Setting up inception_5b/3x3
I0727 20:26:57.607437   458 net.cpp:148] Top shape: 10 384 7 7 (188160)
I0727 20:26:57.607445   458 net.cpp:156] Memory required for data: 545789440
I0727 20:26:57.607455   458 layer_factory.hpp:77] Creating layer inception_5b/relu_3x3
I0727 20:26:57.607463   458 net.cpp:91] Creating Layer inception_5b/relu_3x3
I0727 20:26:57.607470   458 net.cpp:425] inception_5b/relu_3x3 <- inception_5b/3x3
I0727 20:26:57.607477   458 net.cpp:386] inception_5b/relu_3x3 -> inception_5b/3x3 (in-place)
I0727 20:26:57.608242   458 net.cpp:141] Setting up inception_5b/relu_3x3
I0727 20:26:57.608273   458 net.cpp:148] Top shape: 10 384 7 7 (188160)
I0727 20:26:57.608278   458 net.cpp:156] Memory required for data: 546542080
I0727 20:26:57.608283   458 layer_factory.hpp:77] Creating layer inception_5b/5x5_reduce
I0727 20:26:57.608300   458 net.cpp:91] Creating Layer inception_5b/5x5_reduce
I0727 20:26:57.608307   458 net.cpp:425] inception_5b/5x5_reduce <- inception_5a/output_inception_5a/output_0_split_2
I0727 20:26:57.608316   458 net.cpp:399] inception_5b/5x5_reduce -> inception_5b/5x5_reduce
I0727 20:26:57.612540   454 net.cpp:141] Setting up inception_5b/3x3
I0727 20:26:57.612571   454 net.cpp:148] Top shape: 10 384 7 7 (188160)
I0727 20:26:57.612576   454 net.cpp:156] Memory required for data: 545789440
I0727 20:26:57.612588   454 layer_factory.hpp:77] Creating layer inception_5b/relu_3x3
I0727 20:26:57.612597   454 net.cpp:91] Creating Layer inception_5b/relu_3x3
I0727 20:26:57.612603   454 net.cpp:425] inception_5b/relu_3x3 <- inception_5b/3x3
I0727 20:26:57.612612   454 net.cpp:386] inception_5b/relu_3x3 -> inception_5b/3x3 (in-place)
I0727 20:26:57.613582   454 net.cpp:141] Setting up inception_5b/relu_3x3
I0727 20:26:57.613610   454 net.cpp:148] Top shape: 10 384 7 7 (188160)
I0727 20:26:57.613615   454 net.cpp:156] Memory required for data: 546542080
I0727 20:26:57.613620   454 layer_factory.hpp:77] Creating layer inception_5b/5x5_reduce
I0727 20:26:57.613634   454 net.cpp:91] Creating Layer inception_5b/5x5_reduce
I0727 20:26:57.613641   454 net.cpp:425] inception_5b/5x5_reduce <- inception_5a/output_inception_5a/output_0_split_2
I0727 20:26:57.613653   454 net.cpp:399] inception_5b/5x5_reduce -> inception_5b/5x5_reduce
I0727 20:26:57.613672   458 net.cpp:141] Setting up inception_5b/5x5_reduce
I0727 20:26:57.613687   458 net.cpp:148] Top shape: 10 48 7 7 (23520)
I0727 20:26:57.613692   458 net.cpp:156] Memory required for data: 546636160
I0727 20:26:57.613700   458 layer_factory.hpp:77] Creating layer inception_5b/relu_5x5_reduce
I0727 20:26:57.613711   458 net.cpp:91] Creating Layer inception_5b/relu_5x5_reduce
I0727 20:26:57.613718   458 net.cpp:425] inception_5b/relu_5x5_reduce <- inception_5b/5x5_reduce
I0727 20:26:57.613724   458 net.cpp:386] inception_5b/relu_5x5_reduce -> inception_5b/5x5_reduce (in-place)
I0727 20:26:57.614135   458 net.cpp:141] Setting up inception_5b/relu_5x5_reduce
I0727 20:26:57.614147   458 net.cpp:148] Top shape: 10 48 7 7 (23520)
I0727 20:26:57.614152   458 net.cpp:156] Memory required for data: 546730240
I0727 20:26:57.614156   458 layer_factory.hpp:77] Creating layer inception_5b/5x5
I0727 20:26:57.614174   458 net.cpp:91] Creating Layer inception_5b/5x5
I0727 20:26:57.614181   458 net.cpp:425] inception_5b/5x5 <- inception_5b/5x5_reduce
I0727 20:26:57.614189   458 net.cpp:399] inception_5b/5x5 -> inception_5b/5x5
I0727 20:26:57.618527   454 net.cpp:141] Setting up inception_5b/5x5_reduce
I0727 20:26:57.618556   454 net.cpp:148] Top shape: 10 48 7 7 (23520)
I0727 20:26:57.618561   454 net.cpp:156] Memory required for data: 546636160
I0727 20:26:57.618571   454 layer_factory.hpp:77] Creating layer inception_5b/relu_5x5_reduce
I0727 20:26:57.618582   454 net.cpp:91] Creating Layer inception_5b/relu_5x5_reduce
I0727 20:26:57.618589   454 net.cpp:425] inception_5b/relu_5x5_reduce <- inception_5b/5x5_reduce
I0727 20:26:57.618597   454 net.cpp:386] inception_5b/relu_5x5_reduce -> inception_5b/5x5_reduce (in-place)
I0727 20:26:57.618921   454 net.cpp:141] Setting up inception_5b/relu_5x5_reduce
I0727 20:26:57.618935   454 net.cpp:148] Top shape: 10 48 7 7 (23520)
I0727 20:26:57.618940   454 net.cpp:156] Memory required for data: 546730240
I0727 20:26:57.618945   454 layer_factory.hpp:77] Creating layer inception_5b/5x5
I0727 20:26:57.618962   454 net.cpp:91] Creating Layer inception_5b/5x5
I0727 20:26:57.618968   454 net.cpp:425] inception_5b/5x5 <- inception_5b/5x5_reduce
I0727 20:26:57.618979   454 net.cpp:399] inception_5b/5x5 -> inception_5b/5x5
I0727 20:26:57.620185   458 net.cpp:141] Setting up inception_5b/5x5
I0727 20:26:57.620213   458 net.cpp:148] Top shape: 10 128 7 7 (62720)
I0727 20:26:57.620219   458 net.cpp:156] Memory required for data: 546981120
I0727 20:26:57.620229   458 layer_factory.hpp:77] Creating layer inception_5b/relu_5x5
I0727 20:26:57.620241   458 net.cpp:91] Creating Layer inception_5b/relu_5x5
I0727 20:26:57.620249   458 net.cpp:425] inception_5b/relu_5x5 <- inception_5b/5x5
I0727 20:26:57.620255   458 net.cpp:386] inception_5b/relu_5x5 -> inception_5b/5x5 (in-place)
I0727 20:26:57.620525   458 net.cpp:141] Setting up inception_5b/relu_5x5
I0727 20:26:57.620537   458 net.cpp:148] Top shape: 10 128 7 7 (62720)
I0727 20:26:57.620542   458 net.cpp:156] Memory required for data: 547232000
I0727 20:26:57.620546   458 layer_factory.hpp:77] Creating layer inception_5b/pool
I0727 20:26:57.620556   458 net.cpp:91] Creating Layer inception_5b/pool
I0727 20:26:57.620561   458 net.cpp:425] inception_5b/pool <- inception_5a/output_inception_5a/output_0_split_3
I0727 20:26:57.620573   458 net.cpp:399] inception_5b/pool -> inception_5b/pool
I0727 20:26:57.620712   458 net.cpp:141] Setting up inception_5b/pool
I0727 20:26:57.620723   458 net.cpp:148] Top shape: 10 832 7 7 (407680)
I0727 20:26:57.620728   458 net.cpp:156] Memory required for data: 548862720
I0727 20:26:57.620733   458 layer_factory.hpp:77] Creating layer inception_5b/pool_proj
I0727 20:26:57.620748   458 net.cpp:91] Creating Layer inception_5b/pool_proj
I0727 20:26:57.620754   458 net.cpp:425] inception_5b/pool_proj <- inception_5b/pool
I0727 20:26:57.620764   458 net.cpp:399] inception_5b/pool_proj -> inception_5b/pool_proj
I0727 20:26:57.626381   454 net.cpp:141] Setting up inception_5b/5x5
I0727 20:26:57.626410   454 net.cpp:148] Top shape: 10 128 7 7 (62720)
I0727 20:26:57.626416   454 net.cpp:156] Memory required for data: 546981120
I0727 20:26:57.626425   454 layer_factory.hpp:77] Creating layer inception_5b/relu_5x5
I0727 20:26:57.626433   454 net.cpp:91] Creating Layer inception_5b/relu_5x5
I0727 20:26:57.626441   454 net.cpp:425] inception_5b/relu_5x5 <- inception_5b/5x5
I0727 20:26:57.626447   454 net.cpp:386] inception_5b/relu_5x5 -> inception_5b/5x5 (in-place)
I0727 20:26:57.626883   454 net.cpp:141] Setting up inception_5b/relu_5x5
I0727 20:26:57.626896   454 net.cpp:148] Top shape: 10 128 7 7 (62720)
I0727 20:26:57.626901   454 net.cpp:156] Memory required for data: 547232000
I0727 20:26:57.626906   454 layer_factory.hpp:77] Creating layer inception_5b/pool
I0727 20:26:57.626917   454 net.cpp:91] Creating Layer inception_5b/pool
I0727 20:26:57.626924   454 net.cpp:425] inception_5b/pool <- inception_5a/output_inception_5a/output_0_split_3
I0727 20:26:57.626932   454 net.cpp:399] inception_5b/pool -> inception_5b/pool
I0727 20:26:57.627204   454 net.cpp:141] Setting up inception_5b/pool
I0727 20:26:57.627209   458 net.cpp:141] Setting up inception_5b/pool_proj
I0727 20:26:57.627218   454 net.cpp:148] Top shape: 10 832 7 7 (407680)
I0727 20:26:57.627223   454 net.cpp:156] Memory required for data: 548862720
I0727 20:26:57.627224   458 net.cpp:148] Top shape: 10 128 7 7 (62720)
I0727 20:26:57.627228   454 layer_factory.hpp:77] Creating layer inception_5b/pool_proj
I0727 20:26:57.627229   458 net.cpp:156] Memory required for data: 549113600
I0727 20:26:57.627238   458 layer_factory.hpp:77] Creating layer inception_5b/relu_pool_proj
I0727 20:26:57.627243   454 net.cpp:91] Creating Layer inception_5b/pool_proj
I0727 20:26:57.627249   454 net.cpp:425] inception_5b/pool_proj <- inception_5b/pool
I0727 20:26:57.627254   458 net.cpp:91] Creating Layer inception_5b/relu_pool_proj
I0727 20:26:57.627259   458 net.cpp:425] inception_5b/relu_pool_proj <- inception_5b/pool_proj
I0727 20:26:57.627261   454 net.cpp:399] inception_5b/pool_proj -> inception_5b/pool_proj
I0727 20:26:57.627269   458 net.cpp:386] inception_5b/relu_pool_proj -> inception_5b/pool_proj (in-place)
I0727 20:26:57.628221   458 net.cpp:141] Setting up inception_5b/relu_pool_proj
I0727 20:26:57.628247   458 net.cpp:148] Top shape: 10 128 7 7 (62720)
I0727 20:26:57.628252   458 net.cpp:156] Memory required for data: 549364480
I0727 20:26:57.628258   458 layer_factory.hpp:77] Creating layer inception_5b/output
I0727 20:26:57.628269   458 net.cpp:91] Creating Layer inception_5b/output
I0727 20:26:57.628274   458 net.cpp:425] inception_5b/output <- inception_5b/1x1
I0727 20:26:57.628281   458 net.cpp:425] inception_5b/output <- inception_5b/3x3
I0727 20:26:57.628288   458 net.cpp:425] inception_5b/output <- inception_5b/5x5
I0727 20:26:57.628293   458 net.cpp:425] inception_5b/output <- inception_5b/pool_proj
I0727 20:26:57.628301   458 net.cpp:399] inception_5b/output -> inception_5b/output
I0727 20:26:57.628463   458 net.cpp:141] Setting up inception_5b/output
I0727 20:26:57.628474   458 net.cpp:148] Top shape: 10 1024 7 7 (501760)
I0727 20:26:57.628479   458 net.cpp:156] Memory required for data: 551371520
I0727 20:26:57.628484   458 layer_factory.hpp:77] Creating layer pool5/7x7_s1
I0727 20:26:57.628494   458 net.cpp:91] Creating Layer pool5/7x7_s1
I0727 20:26:57.628499   458 net.cpp:425] pool5/7x7_s1 <- inception_5b/output
I0727 20:26:57.628507   458 net.cpp:399] pool5/7x7_s1 -> pool5/7x7_s1
I0727 20:26:57.629590   458 net.cpp:141] Setting up pool5/7x7_s1
I0727 20:26:57.629617   458 net.cpp:148] Top shape: 10 1024 1 1 (10240)
I0727 20:26:57.629622   458 net.cpp:156] Memory required for data: 551412480
I0727 20:26:57.629626   458 layer_factory.hpp:77] Creating layer pool5/drop_7x7_s1
I0727 20:26:57.629645   458 net.cpp:91] Creating Layer pool5/drop_7x7_s1
I0727 20:26:57.629652   458 net.cpp:425] pool5/drop_7x7_s1 <- pool5/7x7_s1
I0727 20:26:57.629658   458 net.cpp:386] pool5/drop_7x7_s1 -> pool5/7x7_s1 (in-place)
I0727 20:26:57.630264   458 net.cpp:141] Setting up pool5/drop_7x7_s1
I0727 20:26:57.630276   458 net.cpp:148] Top shape: 10 1024 1 1 (10240)
I0727 20:26:57.630280   458 net.cpp:156] Memory required for data: 551453440
I0727 20:26:57.630285   458 layer_factory.hpp:77] Creating layer loss3/classifier
I0727 20:26:57.630319   458 net.cpp:91] Creating Layer loss3/classifier
I0727 20:26:57.630326   458 net.cpp:425] loss3/classifier <- pool5/7x7_s1
I0727 20:26:57.630336   458 net.cpp:399] loss3/classifier -> loss3/classifier
I0727 20:26:57.636698   454 net.cpp:141] Setting up inception_5b/pool_proj
I0727 20:26:57.636719   454 net.cpp:148] Top shape: 10 128 7 7 (62720)
I0727 20:26:57.636725   454 net.cpp:156] Memory required for data: 549113600
I0727 20:26:57.636734   454 layer_factory.hpp:77] Creating layer inception_5b/relu_pool_proj
I0727 20:26:57.636744   454 net.cpp:91] Creating Layer inception_5b/relu_pool_proj
I0727 20:26:57.636750   454 net.cpp:425] inception_5b/relu_pool_proj <- inception_5b/pool_proj
I0727 20:26:57.636762   454 net.cpp:386] inception_5b/relu_pool_proj -> inception_5b/pool_proj (in-place)
I0727 20:26:57.637511   454 net.cpp:141] Setting up inception_5b/relu_pool_proj
I0727 20:26:57.637526   454 net.cpp:148] Top shape: 10 128 7 7 (62720)
I0727 20:26:57.637531   454 net.cpp:156] Memory required for data: 549364480
I0727 20:26:57.637536   454 layer_factory.hpp:77] Creating layer inception_5b/output
I0727 20:26:57.637544   454 net.cpp:91] Creating Layer inception_5b/output
I0727 20:26:57.637550   454 net.cpp:425] inception_5b/output <- inception_5b/1x1
I0727 20:26:57.637557   454 net.cpp:425] inception_5b/output <- inception_5b/3x3
I0727 20:26:57.637562   454 net.cpp:425] inception_5b/output <- inception_5b/5x5
I0727 20:26:57.637567   454 net.cpp:425] inception_5b/output <- inception_5b/pool_proj
I0727 20:26:57.637578   454 net.cpp:399] inception_5b/output -> inception_5b/output
I0727 20:26:57.637660   454 net.cpp:141] Setting up inception_5b/output
I0727 20:26:57.637670   454 net.cpp:148] Top shape: 10 1024 7 7 (501760)
I0727 20:26:57.637675   454 net.cpp:156] Memory required for data: 551371520
I0727 20:26:57.637678   454 layer_factory.hpp:77] Creating layer pool5/7x7_s1
I0727 20:26:57.637691   454 net.cpp:91] Creating Layer pool5/7x7_s1
I0727 20:26:57.637697   454 net.cpp:425] pool5/7x7_s1 <- inception_5b/output
I0727 20:26:57.637704   454 net.cpp:399] pool5/7x7_s1 -> pool5/7x7_s1
I0727 20:26:57.638025   454 net.cpp:141] Setting up pool5/7x7_s1
I0727 20:26:57.638036   454 net.cpp:148] Top shape: 10 1024 1 1 (10240)
I0727 20:26:57.638041   454 net.cpp:156] Memory required for data: 551412480
I0727 20:26:57.638046   454 layer_factory.hpp:77] Creating layer pool5/drop_7x7_s1
I0727 20:26:57.638053   454 net.cpp:91] Creating Layer pool5/drop_7x7_s1
I0727 20:26:57.638058   454 net.cpp:425] pool5/drop_7x7_s1 <- pool5/7x7_s1
I0727 20:26:57.638065   454 net.cpp:386] pool5/drop_7x7_s1 -> pool5/7x7_s1 (in-place)
I0727 20:26:57.638141   454 net.cpp:141] Setting up pool5/drop_7x7_s1
I0727 20:26:57.638151   454 net.cpp:148] Top shape: 10 1024 1 1 (10240)
I0727 20:26:57.638156   454 net.cpp:156] Memory required for data: 551453440
I0727 20:26:57.638160   454 layer_factory.hpp:77] Creating layer loss3/classifier
I0727 20:26:57.638170   454 net.cpp:91] Creating Layer loss3/classifier
I0727 20:26:57.638175   454 net.cpp:425] loss3/classifier <- pool5/7x7_s1
I0727 20:26:57.638185   454 net.cpp:399] loss3/classifier -> loss3/classifier
I0727 20:26:57.642004   458 net.cpp:141] Setting up loss3/classifier
I0727 20:26:57.642030   458 net.cpp:148] Top shape: 10 1000 (10000)
I0727 20:26:57.642036   458 net.cpp:156] Memory required for data: 551493440
I0727 20:26:57.642046   458 layer_factory.hpp:77] Creating layer prob
I0727 20:26:57.642056   458 net.cpp:91] Creating Layer prob
I0727 20:26:57.642062   458 net.cpp:425] prob <- loss3/classifier
I0727 20:26:57.642071   458 net.cpp:399] prob -> prob
I0727 20:26:57.643179   458 net.cpp:141] Setting up prob
I0727 20:26:57.643196   458 net.cpp:148] Top shape: 10 1000 (10000)
I0727 20:26:57.643201   458 net.cpp:156] Memory required for data: 551533440
I0727 20:26:57.643206   458 net.cpp:219] prob does not need backward computation.
I0727 20:26:57.643211   458 net.cpp:219] loss3/classifier does not need backward computation.
I0727 20:26:57.643215   458 net.cpp:219] pool5/drop_7x7_s1 does not need backward computation.
I0727 20:26:57.643219   458 net.cpp:219] pool5/7x7_s1 does not need backward computation.
…
