…
Java HotSpot(TM) 64-Bit Server VM warning: You have loaded library /tmp/cvld6784155923124592657/libopencv_java310.xine1.so which might have disabled stack guard. The VM will try to fix the stack guard now.
It's highly recommended that you fix the library with 'execstack -c <libfile>', or link it with '-z noexecstack'.
WARNING: Logging before InitGoogleLogging() is written to STDERR
I0713 13:48:33.696156 31996 net.cpp:49] Initializing net from parameters: 
name: "GoogleNet"
state {
  phase: TEST
}
layer {
  name: "data"
  type: "Input"
  top: "data"
  input_param {
    shape {
      dim: 10
      dim: 3
      dim: 224
      dim: 224
    }
  }
}
layer {
  name: "conv1/7x7_s2"
  type: "Convolution"
  bottom: "data"
  top: "conv1/7x7_s2"
  param {
    lr_mult: 1
    decay_mult: 1
  }
  param {
    lr_mult: 2
    decay_mult: 0
  }
  convolution_param {
    num_output: 64
    pad: 3
    kernel_size: 7
    stride: 2
    weight_filler {
      type: "xavier"
      std: 0.1
    }
    bias_filler {
      type: "constant"
      value: 0.2
    }
  }
}
layer {
  name: "conv1/relu_7x7"
  type: "ReLU"
  bottom: "conv1/7x7_s2"
  top: "conv1/7x7_s2"
}
layer {
  name: "pool1/3x3_s2"
  type: "Pooling"
  bottom: "conv1/7x7_s2"
  top: "pool1/3x3_s2"
  pooling_param {
    pool: MAX
    kernel_size: 3
    stride: 2
  }
}
layer {
  name: "pool1/norm1"
  type: "LRN"
  bottom: "pool1/3x3_s2"
  top: "pool1/norm1"
  lrn_param {
    local_size: 5
    alpha: 0.0001
    beta: 0.75
  }
}
layer {
  name: "conv2/3x3_reduce"
  type: "Convolution"
  bottom: "pool1/norm1"
  top: "conv2/3x3_reduce"
  param {
    lr_mult: 1
    decay_mult: 1
  }
  param {
    lr_mult: 2
    decay_mult: 0
  }
  convolution_param {
    num_output: 64
    kernel_size: 1
    weight_filler {
      type: "xavier"
      std: 0.1
    }
    bias_filler {
      type: "constant"
      value: 0.2
    }
  }
}
layer {
  name: "conv2/relu_3x3_reduce"
  type: "ReLU"
  bottom: "conv2/3x3_reduce"
  top: "conv2/3x3_reduce"
}
layer {
  name: "conv2/3x3"
  type: "Convolution"
  bottom: "conv2/3x3_reduce"
  top: "conv2/3x3"
  param {
    lr_mult: 1
    decay_mult: 1
  }
  param {
    lr_mult: 2
    decay_mult: 0
  }
  convolution_param {
    num_output: 192
    pad: 1
    kernel_size: 3
    weight_filler {
      type: "xavier"
      std: 0.03
    }
    bias_filler {
      type: "constant"
      value: 0.2
    }
  }
}
layer {
  name: "conv2/relu_3x3"
  type: "ReLU"
  bottom: "conv2/3x3"
  top: "conv2/3x3"
}
layer {
  name: "conv2/norm2"
  type: "LRN"
  bottom: "conv2/3x3"
  top: "conv2/norm2"
  lrn_param {
    local_size: 5
    alpha: 0.0001
    beta: 0.75
  }
}
layer {
  name: "pool2/3x3_s2"
  type: "Pooling"
  bottom: "conv2/norm2"
  top: "pool2/3x3_s2"
  pooling_param {
    pool: MAX
    kernel_size: 3
    stride: 2
  }
}
layer {
  name: "inception_3a/1x1"
  type: "Convolution"
  bottom: "pool2/3x3_s2"
  top: "inception_3a/1x1"
  param {
    lr_mult: 1
    decay_mult: 1
  }
  param {
    lr_mult: 2
    decay_mult: 0
  }
  convolution_param {
    num_output: 64
    kernel_size: 1
    weight_filler {
      type: "xavier"
      std: 0.03
    }
    bias_filler {
      type: "constant"
      value: 0.2
    }
  }
}
layer {
  name: "inception_3a/relu_1x1"
  type: "ReLU"
  bottom: "inception_3a/1x1"
  top: "inception_3a/1x1"
}
layer {
  name: "inception_3a/3x3_reduce"
  type: "Convolution"
  bottom: "pool2/3x3_s2"
  top: "inception_3a/3x3_reduce"
  param {
    lr_mult: 1
    decay_mult: 1
  }
  param {
    lr_mult: 2
    decay_mult: 0
  }
  convolution_param {
    num_output: 96
    kernel_size: 1
    weight_filler {
      type: "xavier"
      std: 0.09
    }
    bias_filler {
      type: "constant"
      value: 0.2
    }
  }
}
layer {
  name: "inception_3a/relu_3x3_reduce"
  type: "ReLU"
  bottom: "inception_3a/3x3_reduce"
  top: "inception_3a/3x3_reduce"
}
layer {
  name: "inception_3a/3x3"
  type: "Convolution"
  bottom: "inception_3a/3x3_reduce"
  top: "inception_3a/3x3"
  param {
    lr_mult: 1
    decay_mult: 1
  }
  param {
    lr_mult: 2
    decay_mult: 0
  }
  convolution_param {
    num_output: 128
    pad: 1
    kernel_size: 3
    weight_filler {
      type: "xavier"
      std: 0.03
    }
    bias_filler {
      type: "constant"
      value: 0.2
    }
  }
}
layer {
  name: "inception_3a/relu_3x3"
  type: "ReLU"
  bottom: "inception_3a/3x3"
  top: "inception_3a/3x3"
}
layer {
  name: "inception_3a/5x5_reduce"
  type: "Convolution"
  bottom: "pool2/3x3_s2"
  top: "inception_3a/5x5_reduce"
  param {
    lr_mult: 1
    decay_mult: 1
  }
  param {
    lr_mult: 2
    decay_mult: 0
  }
  convolution_param {
    num_output: 16
    kernel_size: 1
    weight_filler {
      type: "xavier"
      std: 0.2
    }
    bias_filler {
      type: "constant"
      value: 0.2
    }
  }
}
layer {
  name: "inception_3a/relu_5x5_reduce"
  type: "ReLU"
  bottom: "inception_3a/5x5_reduce"
  top: "inception_3a/5x5_reduce"
}
layer {
  name: "inception_3a/5x5"
  type: "Convolution"
  bottom: "inception_3a/5x5_reduce"
  top: "inception_3a/5x5"
  param {
    lr_mult: 1
    decay_mult: 1
  }
  param {
    lr_mult: 2
    decay_mult: 0
  }
  convolution_param {
    num_output: 32
    pad: 2
    kernel_size: 5
    weight_filler {
      type: "xavier"
      std: 0.03
    }
    bias_filler {
      type: "constant"
      value: 0.2
    }
  }
}
layer {
  name: "inception_3a/relu_5x5"
  type: "ReLU"
  bottom: "inception_3a/5x5"
  top: "inception_3a/5x5"
}
layer {
  name: "inception_3a/pool"
  type: "Pooling"
  bottom: "pool2/3x3_s2"
  top: "inception_3a/pool"
  pooling_param {
    pool: MAX
    kernel_size: 3
    stride: 1
    pad: 1
  }
}
layer {
  name: "inception_3a/pool_proj"
  type: "Convolution"
  bottom: "inception_3a/pool"
  top: "inception_3a/pool_proj"
  param {
    lr_mult: 1
    decay_mult: 1
  }
  param {
    lr_mult: 2
    decay_mult: 0
  }
  convolution_param {
    num_output: 32
    kernel_size: 1
    weight_filler {
      type: "xavier"
      std: 0.1
    }
    bias_filler {
      type: "constant"
      value: 0.2
    }
  }
}
layer {
  name: "inception_3a/relu_pool_proj"
  type: "ReLU"
  bottom: "inception_3a/pool_proj"
  top: "inception_3a/pool_proj"
}
layer {
  name: "inception_3a/output"
  type: "Concat"
  bottom: "inception_3a/1x1"
  bottom: "inception_3a/3x3"
  bottom: "inception_3a/5x5"
  bottom: "inception_3a/pool_proj"
  top: "inception_3a/output"
}
layer {
  name: "inception_3b/1x1"
  type: "Convolution"
  bottom: "inception_3a/output"
  top: "inception_3b/1x1"
  param {
    lr_mult: 1
    decay_mult: 1
  }
  param {
    lr_mult: 2
    decay_mult: 0
  }
  convolution_param {
    num_output: 128
    kernel_size: 1
    weight_filler {
      type: "xavier"
      std: 0.03
    }
    bias_filler {
      type: "constant"
      value: 0.2
    }
  }
}
layer {
  name: "inception_3b/relu_1x1"
  type: "ReLU"
  bottom: "inception_3b/1x1"
  top: "inception_3b/1x1"
}
layer {
  name: "inception_3b/3x3_reduce"
  type: "Convolution"
  bottom: "inception_3a/output"
  top: "inception_3b/3x3_reduce"
  param {
    lr_mult: 1
    decay_mult: 1
  }
  param {
    lr_mult: 2
    decay_mult: 0
  }
  convolution_param {
    num_output: 128
    kernel_size: 1
    weight_filler {
      type: "xavier"
      std: 0.09
    }
    bias_filler {
      type: "constant"
      value: 0.2
    }
  }
}
layer {
  name: "inception_3b/relu_3x3_reduce"
  type: "ReLU"
  bottom: "inception_3b/3x3_reduce"
  top: "inception_3b/3x3_reduce"
}
layer {
  name: "inception_3b/3x3"
  type: "Convolution"
  bottom: "inception_3b/3x3_reduce"
  top: "inception_3b/3x3"
  param {
    lr_mult: 1
    decay_mult: 1
  }
  param {
    lr_mult: 2
    decay_mult: 0
  }
  convolution_param {
    num_output: 192
    pad: 1
    kernel_size: 3
    weight_filler {
      type: "xavier"
      std: 0.03
    }
    bias_filler {
      type: "constant"
      value: 0.2
    }
  }
}
layer {
  name: "inception_3b/relu_3x3"
  type: "ReLU"
  bottom: "inception_3b/3x3"
  top: "inception_3b/3x3"
}
layer {
  name: "inception_3b/5x5_reduce"
  type: "Convolution"
  bottom: "inception_3a/output"
  top: "inception_3b/5x5_reduce"
  param {
    lr_mult: 1
    decay_mult: 1
  }
  param {
    lr_mult: 2
    decay_mult: 0
  }
  convolution_param {
    num_output: 32
    kernel_size: 1
    weight_filler {
      type: "xavier"
      std: 0.2
    }
    bias_filler {
      type: "constant"
      value: 0.2
    }
  }
}
layer {
  name: "inception_3b/relu_5x5_reduce"
  type: "ReLU"
  bottom: "inception_3b/5x5_reduce"
  top: "inception_3b/5x5_reduce"
}
layer {
  name: "inception_3b/5x5"
  type: "Convolution"
  bottom: "inception_3b/5x5_reduce"
  top: "inception_3b/5x5"
  param {
    lr_mult: 1
    decay_mult: 1
  }
  param {
    lr_mult: 2
    decay_mult: 0
  }
  convolution_param {
    num_output: 96
    pad: 2
    kernel_size: 5
    weight_filler {
      type: "xavier"
      std: 0.03
    }
    bias_filler {
      type: "constant"
      value: 0.2
    }
  }
}
layer {
  name: "inception_3b/relu_5x5"
  type: "ReLU"
  bottom: "inception_3b/5x5"
  top: "inception_3b/5x5"
}
layer {
  name: "inception_3b/pool"
  type: "Pooling"
  bottom: "inception_3a/output"
  top: "inception_3b/pool"
  pooling_param {
    pool: MAX
    kernel_size: 3
    stride: 1
    pad: 1
  }
}
layer {
  name: "inception_3b/pool_proj"
  type: "Convolution"
  bottom: "inception_3b/pool"
  top: "inception_3b/pool_proj"
  param {
    lr_mult: 1
    decay_mult: 1
  }
  param {
    lr_mult: 2
    decay_mult: 0
  }
  convolution_param {
    num_output: 64
    kernel_size: 1
    weight_filler {
      type: "xavier"
      std: 0.1
    }
    bias_filler {
      type: "constant"
      value: 0.2
    }
  }
}
layer {
  name: "inception_3b/relu_pool_proj"
  type: "ReLU"
  bottom: "inception_3b/pool_proj"
  top: "inception_3b/pool_proj"
}
layer {
  name: "inception_3b/output"
  type: "Concat"
  bottom: "inception_3b/1x1"
  bottom: "inception_3b/3x3"
  bottom: "inception_3b/5x5"
  bottom: "inception_3b/pool_proj"
  top: "inception_3b/output"
}
layer {
  name: "pool3/3x3_s2"
  type: "Pooling"
  bottom: "inception_3b/output"
  top: "pool3/3x3_s2"
  pooling_param {
    pool: MAX
    kernel_size: 3
    stride: 2
  }
}
layer {
  name: "inception_4a/1x1"
  type: "Convolution"
  bottom: "pool3/3x3_s2"
  top: "inception_4a/1x1"
  param {
    lr_mult: 1
    decay_mult: 1
  }
  param {
    lr_mult: 2
    decay_mult: 0
  }
  convolution_param {
    num_output: 192
    kernel_size: 1
    weight_filler {
      type: "xavier"
      std: 0.03
    }
    bias_filler {
      type: "constant"
      value: 0.2
    }
  }
}
layer {
  name: "inception_4a/relu_1x1"
  type: "ReLU"
  bottom: "inception_4a/1x1"
  top: "inception_4a/1x1"
}
layer {
  name: "inception_4a/3x3_reduce"
  type: "Convolution"
  bottom: "pool3/3x3_s2"
  top: "inception_4a/3x3_reduce"
  param {
    lr_mult: 1
    decay_mult: 1
  }
  param {
    lr_mult: 2
    decay_mult: 0
  }
  convolution_param {
    num_output: 96
    kernel_size: 1
    weight_filler {
      type: "xavier"
      std: 0.09
    }
    bias_filler {
      type: "constant"
      value: 0.2
    }
  }
}
layer {
  name: "inception_4a/relu_3x3_reduce"
  type: "ReLU"
  bottom: "inception_4a/3x3_reduce"
  top: "inception_4a/3x3_reduce"
}
layer {
  name: "inception_4a/3x3"
  type: "Convolution"
  bottom: "inception_4a/3x3_reduce"
  top: "inception_4a/3x3"
  param {
    lr_mult: 1
    decay_mult: 1
  }
  param {
    lr_mult: 2
    decay_mult: 0
  }
  convolution_param {
    num_output: 208
    pad: 1
    kernel_size: 3
    weight_filler {
      type: "xavier"
      std: 0.03
    }
    bias_filler {
      type: "constant"
      value: 0.2
    }
  }
}
layer {
  name: "inception_4a/relu_3x3"
  type: "ReLU"
  bottom: "inception_4a/3x3"
  top: "inception_4a/3x3"
}
layer {
  name: "inception_4a/5x5_reduce"
  type: "Convolution"
  bottom: "pool3/3x3_s2"
  top: "inception_4a/5x5_reduce"
  param {
    lr_mult: 1
    decay_mult: 1
  }
  param {
    lr_mult: 2
    decay_mult: 0
  }
  convolution_param {
    num_output: 16
    kernel_size: 1
    weight_filler {
      type: "xavier"
      std: 0.2
    }
    bias_filler {
      type: "constant"
      value: 0.2
    }
  }
}
layer {
  name: "inception_4a/relu_5x5_reduce"
  type: "ReLU"
  bottom: "inception_4a/5x5_reduce"
  top: "inception_4a/5x5_reduce"
}
layer {
  name: "inception_4a/5x5"
  type: "Convolution"
  bottom: "inception_4a/5x5_reduce"
  top: "inception_4a/5x5"
  param {
    lr_mult: 1
    decay_mult: 1
  }
  param {
    lr_mult: 2
    decay_mult: 0
  }
  convolution_param {
    num_output: 48
    pad: 2
    kernel_size: 5
    weight_filler {
      type: "xavier"
      std: 0.03
    }
    bias_filler {
      type: "constant"
      value: 0.2
    }
  }
}
layer {
  name: "inception_4a/relu_5x5"
  type: "ReLU"
  bottom: "inception_4a/5x5"
  top: "inception_4a/5x5"
}
layer {
  name: "inception_4a/pool"
  type: "Pooling"
  bottom: "pool3/3x3_s2"
  top: "inception_4a/pool"
  pooling_param {
    pool: MAX
    kernel_size: 3
    stride: 1
    pad: 1
  }
}
layer {
  name: "inception_4a/pool_proj"
  type: "Convolution"
  bottom: "inception_4a/pool"
  top: "inception_4a/pool_proj"
  param {
    lr_mult: 1
    decay_mult: 1
  }
  param {
    lr_mult: 2
    decay_mult: 0
  }
  convolution_param {
    num_output: 64
    kernel_size: 1
    weight_filler {
      type: "xavier"
      std: 0.1
    }
    bias_filler {
      type: "constant"
      value: 0.2
    }
  }
}
layer {
  name: "inception_4a/relu_pool_proj"
  type: "ReLU"
  bottom: "inception_4a/pool_proj"
  top: "inception_4a/pool_proj"
}
layer {
  name: "inception_4a/output"
  type: "Concat"
  bottom: "inception_4a/1x1"
  bottom: "inception_4a/3x3"
  bottom: "inception_4a/5x5"
  bottom: "inception_4a/pool_proj"
  top: "inception_4a/output"
}
layer {
  name: "inception_4b/1x1"
  type: "Convolution"
  bottom: "inception_4a/output"
  top: "inception_4b/1x1"
  param {
    lr_mult: 1
    decay_mult: 1
  }
  param {
    lr_mult: 2
    decay_mult: 0
  }
  convolution_param {
    num_output: 160
    kernel_size: 1
    weight_filler {
      type: "xavier"
      std: 0.03
    }
    bias_filler {
      type: "constant"
      value: 0.2
    }
  }
}
layer {
  name: "inception_4b/relu_1x1"
  type: "ReLU"
  bottom: "inception_4b/1x1"
  top: "inception_4b/1x1"
}
layer {
  name: "inception_4b/3x3_reduce"
  type: "Convolution"
  bottom: "inception_4a/output"
  top: "inception_4b/3x3_reduce"
  param {
    lr_mult: 1
    decay_mult: 1
  }
  param {
    lr_mult: 2
    decay_mult: 0
  }
  convolution_param {
    num_output: 112
    kernel_size: 1
    weight_filler {
      type: "xavier"
      std: 0.09
    }
    bias_filler {
      type: "constant"
      value: 0.2
    }
  }
}
layer {
  name: "inception_4b/relu_3x3_reduce"
  type: "ReLU"
  bottom: "inception_4b/3x3_reduce"
  top: "inception_4b/3x3_reduce"
}
layer {
  name: "inception_4b/3x3"
  type: "Convolution"
  bottom: "inception_4b/3x3_reduce"
  top: "inception_4b/3x3"
  param {
    lr_mult: 1
    decay_mult: 1
  }
  param {
    lr_mult: 2
    decay_mult: 0
  }
  convolution_param {
    num_output: 224
    pad: 1
    kernel_size: 3
    weight_filler {
      type: "xavier"
      std: 0.03
    }
    bias_filler {
      type: "constant"
      value: 0.2
    }
  }
}
layer {
  name: "inception_4b/relu_3x3"
  type: "ReLU"
  bottom: "inception_4b/3x3"
  top: "inception_4b/3x3"
}
layer {
  name: "inception_4b/5x5_reduce"
  type: "Convolution"
  bottom: "inception_4a/output"
  top: "inception_4b/5x5_reduce"
  param {
    lr_mult: 1
    decay_mult: 1
  }
  param {
    lr_mult: 2
    decay_mult: 0
  }
  convolution_param {
    num_output: 24
    kernel_size: 1
    weight_filler {
      type: "xavier"
      std: 0.2
    }
    bias_filler {
      type: "constant"
      value: 0.2
    }
  }
}
layer {
  name: "inception_4b/relu_5x5_reduce"
  type: "ReLU"
  bottom: "inception_4b/5x5_reduce"
  top: "inception_4b/5x5_reduce"
}
layer {
  name: "inception_4b/5x5"
  type: "Convolution"
  bottom: "inception_4b/5x5_reduce"
  top: "inception_4b/5x5"
  param {
    lr_mult: 1
    decay_mult: 1
  }
  param {
    lr_mult: 2
    decay_mult: 0
  }
  convolution_param {
    num_output: 64
    pad: 2
    kernel_size: 5
    weight_filler {
      type: "xavier"
      std: 0.03
    }
    bias_filler {
      type: "constant"
      value: 0.2
    }
  }
}
layer {
  name: "inception_4b/relu_5x5"
  type: "ReLU"
  bottom: "inception_4b/5x5"
  top: "inception_4b/5x5"
}
layer {
  name: "inception_4b/pool"
  type: "Pooling"
  bottom: "inception_4a/output"
  top: "inception_4b/pool"
  pooling_param {
    pool: MAX
    kernel_size: 3
    stride: 1
    pad: 1
  }
}
layer {
  name: "inception_4b/pool_proj"
  type: "Convolution"
  bottom: "inception_4b/pool"
  top: "inception_4b/pool_proj"
  param {
    lr_mult: 1
    decay_mult: 1
  }
  param {
    lr_mult: 2
    decay_mult: 0
  }
  convolution_param {
    num_output: 64
    kernel_size: 1
    weight_filler {
      type: "xavier"
      std: 0.1
    }
    bias_filler {
      type: "constant"
      value: 0.2
    }
  }
}
layer {
  name: "inception_4b/relu_pool_proj"
  type: "ReLU"
  bottom: "inception_4b/pool_proj"
  top: "inception_4b/pool_proj"
}
layer {
  name: "inception_4b/output"
  type: "Concat"
  bottom: "inception_4b/1x1"
  bottom: "inception_4b/3x3"
  bottom: "inception_4b/5x5"
  bottom: "inception_4b/pool_proj"
  top: "inception_4b/output"
}
layer {
  name: "inception_4c/1x1"
  type: "Convolution"
  bottom: "inception_4b/output"
  top: "inception_4c/1x1"
  param {
    lr_mult: 1
    decay_mult: 1
  }
  param {
    lr_mult: 2
    decay_mult: 0
  }
  convolution_param {
    num_output: 128
    kernel_size: 1
    weight_filler {
      type: "xavier"
      std: 0.03
    }
    bias_filler {
      type: "constant"
      value: 0.2
    }
  }
}
layer {
  name: "inception_4c/relu_1x1"
  type: "ReLU"
  bottom: "inception_4c/1x1"
  top: "inception_4c/1x1"
}
layer {
  name: "inception_4c/3x3_reduce"
  type: "Convolution"
  bottom: "inception_4b/output"
  top: "inception_4c/3x3_reduce"
  param {
    lr_mult: 1
    decay_mult: 1
  }
  param {
    lr_mult: 2
    decay_mult: 0
  }
  convolution_param {
    num_output: 128
    kernel_size: 1
    weight_filler {
      type: "xavier"
      std: 0.09
    }
    bias_filler {
      type: "constant"
      value: 0.2
    }
  }
}
layer {
  name: "inception_4c/relu_3x3_reduce"
  type: "ReLU"
  bottom: "inception_4c/3x3_reduce"
  top: "inception_4c/3x3_reduce"
}
layer {
  name: "inception_4c/3x3"
  type: "Convolution"
  bottom: "inception_4c/3x3_reduce"
  top: "inception_4c/3x3"
  param {
    lr_mult: 1
    decay_mult: 1
  }
  param {
    lr_mult: 2
    decay_mult: 0
  }
  convolution_param {
    num_output: 256
    pad: 1
    kernel_size: 3
    weight_filler {
      type: "xavier"
      std: 0.03
    }
    bias_filler {
      type: "constant"
      value: 0.2
    }
  }
}
layer {
  name: "inception_4c/relu_3x3"
  type: "ReLU"
  bottom: "inception_4c/3x3"
  top: "inception_4c/3x3"
}
layer {
  name: "inception_4c/5x5_reduce"
  type: "Convolution"
  bottom: "inception_4b/output"
  top: "inception_4c/5x5_reduce"
  param {
    lr_mult: 1
    decay_mult: 1
  }
  param {
    lr_mult: 2
    decay_mult: 0
  }
  convolution_param {
    num_output: 24
    kernel_size: 1
    weight_filler {
      type: "xavier"
      std: 0.2
    }
    bias_filler {
      type: "constant"
      value: 0.2
    }
  }
}
layer {
  name: "inception_4c/relu_5x5_reduce"
  type: "ReLU"
  bottom: "inception_4c/5x5_reduce"
  top: "inception_4c/5x5_reduce"
}
layer {
  name: "inception_4c/5x5"
  type: "Convolution"
  bottom: "inception_4c/5x5_reduce"
  top: "inception_4c/5x5"
  param {
    lr_mult: 1
    decay_mult: 1
  }
  param {
    lr_mult: 2
    decay_mult: 0
  }
  convolution_param {
    num_output: 64
    pad: 2
    kernel_size: 5
    weight_filler {
      type: "xavier"
      std: 0.03
    }
    bias_filler {
      type: "constant"
      value: 0.2
    }
  }
}
layer {
  name: "inception_4c/relu_5x5"
  type: "ReLU"
  bottom: "inception_4c/5x5"
  top: "inception_4c/5x5"
}
layer {
  name: "inception_4c/pool"
  type: "Pooling"
  bottom: "inception_4b/output"
  top: "inception_4c/pool"
  pooling_param {
    pool: MAX
    kernel_size: 3
    stride: 1
    pad: 1
  }
}
layer {
  name: "inception_4c/pool_proj"
  type: "Convolution"
  bottom: "inception_4c/pool"
  top: "inception_4c/pool_proj"
  param {
    lr_mult: 1
    decay_mult: 1
  }
  param {
    lr_mult: 2
    decay_mult: 0
  }
  convolution_param {
    num_output: 64
    kernel_size: 1
    weight_filler {
      type: "xavier"
      std: 0.1
    }
    bias_filler {
      type: "constant"
      value: 0.2
    }
  }
}
layer {
  name: "inception_4c/relu_pool_proj"
  type: "ReLU"
  bottom: "inception_4c/pool_proj"
  top: "inception_4c/pool_proj"
}
layer {
  name: "inception_4c/output"
  type: "Concat"
  bottom: "inception_4c/1x1"
  bottom: "inception_4c/3x3"
  bottom: "inception_4c/5x5"
  bottom: "inception_4c/pool_proj"
  top: "inception_4c/output"
}
layer {
  name: "inception_4d/1x1"
  type: "Convolution"
  bottom: "inception_4c/output"
  top: "inception_4d/1x1"
  param {
    lr_mult: 1
    decay_mult: 1
  }
  param {
    lr_mult: 2
    decay_mult: 0
  }
  convolution_param {
    num_output: 112
    kernel_size: 1
    weight_filler {
      type: "xavier"
      std: 0.03
    }
    bias_filler {
      type: "constant"
      value: 0.2
    }
  }
}
layer {
  name: "inception_4d/relu_1x1"
  type: "ReLU"
  bottom: "inception_4d/1x1"
  top: "inception_4d/1x1"
}
layer {
  name: "inception_4d/3x3_reduce"
  type: "Convolution"
  bottom: "inception_4c/output"
  top: "inception_4d/3x3_reduce"
  param {
    lr_mult: 1
    decay_mult: 1
  }
  param {
    lr_mult: 2
    decay_mult: 0
  }
  convolution_param {
    num_output: 144
    kernel_size: 1
    weight_filler {
      type: "xavier"
      std: 0.09
    }
    bias_filler {
      type: "constant"
      value: 0.2
    }
  }
}
layer {
  name: "inception_4d/relu_3x3_reduce"
  type: "ReLU"
  bottom: "inception_4d/3x3_reduce"
  top: "inception_4d/3x3_reduce"
}
layer {
  name: "inception_4d/3x3"
  type: "Convolution"
  bottom: "inception_4d/3x3_reduce"
  top: "inception_4d/3x3"
  param {
    lr_mult: 1
    decay_mult: 1
  }
  param {
    lr_mult: 2
    decay_mult: 0
  }
  convolution_param {
    num_output: 288
    pad: 1
    kernel_size: 3
    weight_filler {
      type: "xavier"
      std: 0.03
    }
    bias_filler {
      type: "constant"
      value: 0.2
    }
  }
}
layer {
  name: "inception_4d/relu_3x3"
  type: "ReLU"
  bottom: "inception_4d/3x3"
  top: "inception_4d/3x3"
}
layer {
  name: "inception_4d/5x5_reduce"
  type: "Convolution"
  bottom: "inception_4c/output"
  top: "inception_4d/5x5_reduce"
  param {
    lr_mult: 1
    decay_mult: 1
  }
  param {
    lr_mult: 2
    decay_mult: 0
  }
  convolution_param {
    num_output: 32
    kernel_size: 1
    weight_filler {
      type: "xavier"
      std: 0.2
    }
    bias_filler {
      type: "constant"
      value: 0.2
    }
  }
}
layer {
  name: "inception_4d/relu_5x5_reduce"
  type: "ReLU"
  bottom: "inception_4d/5x5_reduce"
  top: "inception_4d/5x5_reduce"
}
layer {
  name: "inception_4d/5x5"
  type: "Convolution"
  bottom: "inception_4d/5x5_reduce"
  top: "inception_4d/5x5"
  param {
    lr_mult: 1
    decay_mult: 1
  }
  param {
    lr_mult: 2
    decay_mult: 0
  }
  convolution_param {
    num_output: 64
    pad: 2
    kernel_size: 5
    weight_filler {
      type: "xavier"
      std: 0.03
    }
    bias_filler {
      type: "constant"
      value: 0.2
    }
  }
}
layer {
  name: "inception_4d/relu_5x5"
  type: "ReLU"
  bottom: "inception_4d/5x5"
  top: "inception_4d/5x5"
}
layer {
  name: "inception_4d/pool"
  type: "Pooling"
  bottom: "inception_4c/output"
  top: "inception_4d/pool"
  pooling_param {
    pool: MAX
    kernel_size: 3
    stride: 1
    pad: 1
  }
}
layer {
  name: "inception_4d/pool_proj"
  type: "Convolution"
  bottom: "inception_4d/pool"
  top: "inception_4d/pool_proj"
  param {
    lr_mult: 1
    decay_mult: 1
  }
  param {
    lr_mult: 2
    decay_mult: 0
  }
  convolution_param {
    num_output: 64
    kernel_size: 1
    weight_filler {
      type: "xavier"
      std: 0.1
    }
    bias_filler {
      type: "constant"
      value: 0.2
    }
  }
}
layer {
  name: "inception_4d/relu_pool_proj"
  type: "ReLU"
  bottom: "inception_4d/pool_proj"
  top: "inception_4d/pool_proj"
}
layer {
  name: "inception_4d/output"
  type: "Concat"
  bottom: "inception_4d/1x1"
  bottom: "inception_4d/3x3"
  bottom: "inception_4d/5x5"
  bottom: "inception_4d/pool_proj"
  top: "inception_4d/output"
}
layer {
  name: "inception_4e/1x1"
  type: "Convolution"
  bottom: "inception_4d/output"
  top: "inception_4e/1x1"
  param {
    lr_mult: 1
    decay_mult: 1
  }
  param {
    lr_mult: 2
    decay_mult: 0
  }
  convolution_param {
    num_output: 256
    kernel_size: 1
    weight_filler {
      type: "xavier"
      std: 0.03
    }
    bias_filler {
      type: "constant"
      value: 0.2
    }
  }
}
layer {
  name: "inception_4e/relu_1x1"
  type: "ReLU"
  bottom: "inception_4e/1x1"
  top: "inception_4e/1x1"
}
layer {
  name: "inception_4e/3x3_reduce"
  type: "Convolution"
  bottom: "inception_4d/output"
  top: "inception_4e/3x3_reduce"
  param {
    lr_mult: 1
    decay_mult: 1
  }
  param {
    lr_mult: 2
    decay_mult: 0
  }
  convolution_param {
    num_output: 160
    kernel_size: 1
    weight_filler {
      type: "xavier"
      std: 0.09
    }
    bias_filler {
      type: "constant"
      value: 0.2
    }
  }
}
layer {
  name: "inception_4e/relu_3x3_reduce"
  type: "ReLU"
  bottom: "inception_4e/3x3_reduce"
  top: "inception_4e/3x3_reduce"
}
layer {
  name: "inception_4e/3x3"
  type: "Convolution"
  bottom: "inception_4e/3x3_reduce"
  top: "inception_4e/3x3"
  param {
    lr_mult: 1
    decay_mult: 1
  }
  param {
    lr_mult: 2
    decay_mult: 0
  }
  convolution_param {
    num_output: 320
    pad: 1
    kernel_size: 3
    weight_filler {
      type: "xavier"
      std: 0.03
    }
    bias_filler {
      type: "constant"
      value: 0.2
    }
  }
}
layer {
  name: "inception_4e/relu_3x3"
  type: "ReLU"
  bottom: "inception_4e/3x3"
  top: "inception_4e/3x3"
}
layer {
  name: "inception_4e/5x5_reduce"
  type: "Convolution"
  bottom: "inception_4d/output"
  top: "inception_4e/5x5_reduce"
  param {
    lr_mult: 1
    decay_mult: 1
  }
  param {
    lr_mult: 2
    decay_mult: 0
  }
  convolution_param {
    num_output: 32
    kernel_size: 1
    weight_filler {
      type: "xavier"
      std: 0.2
    }
    bias_filler {
      type: "constant"
      value: 0.2
    }
  }
}
layer {
  name: "inception_4e/relu_5x5_reduce"
  type: "ReLU"
  bottom: "inception_4e/5x5_reduce"
  top: "inception_4e/5x5_reduce"
}
layer {
  name: "inception_4e/5x5"
  type: "Convolution"
  bottom: "inception_4e/5x5_reduce"
  top: "inception_4e/5x5"
  param {
    lr_mult: 1
    decay_mult: 1
  }
  param {
    lr_mult: 2
    decay_mult: 0
  }
  convolution_param {
    num_output: 128
    pad: 2
    kernel_size: 5
    weight_filler {
      type: "xavier"
      std: 0.03
    }
    bias_filler {
      type: "constant"
      value: 0.2
    }
  }
}
layer {
  name: "inception_4e/relu_5x5"
  type: "ReLU"
  bottom: "inception_4e/5x5"
  top: "inception_4e/5x5"
}
layer {
  name: "inception_4e/pool"
  type: "Pooling"
  bottom: "inception_4d/output"
  top: "inception_4e/pool"
  pooling_param {
    pool: MAX
    kernel_size: 3
    stride: 1
    pad: 1
  }
}
layer {
  name: "inception_4e/pool_proj"
  type: "Convolution"
  bottom: "inception_4e/pool"
  top: "inception_4e/pool_proj"
  param {
    lr_mult: 1
    decay_mult: 1
  }
  param {
    lr_mult: 2
    decay_mult: 0
  }
  convolution_param {
    num_output: 128
    kernel_size: 1
    weight_filler {
      type: "xavier"
      std: 0.1
    }
    bias_filler {
      type: "constant"
      value: 0.2
    }
  }
}
layer {
  name: "inception_4e/relu_pool_proj"
  type: "ReLU"
  bottom: "inception_4e/pool_proj"
  top: "inception_4e/pool_proj"
}
layer {
  name: "inception_4e/output"
  type: "Concat"
  bottom: "inception_4e/1x1"
  bottom: "inception_4e/3x3"
  bottom: "inception_4e/5x5"
  bottom: "inception_4e/pool_proj"
  top: "inception_4e/output"
}
layer {
  name: "pool4/3x3_s2"
  type: "Pooling"
  bottom: "inception_4e/output"
  top: "pool4/3x3_s2"
  pooling_param {
    pool: MAX
    kernel_size: 3
    stride: 2
  }
}
layer {
  name: "inception_5a/1x1"
  type: "Convolution"
  bottom: "pool4/3x3_s2"
  top: "inception_5a/1x1"
  param {
    lr_mult: 1
    decay_mult: 1
  }
  param {
    lr_mult: 2
    decay_mult: 0
  }
  convolution_param {
    num_output: 256
    kernel_size: 1
    weight_filler {
      type: "xavier"
      std: 0.03
    }
    bias_filler {
      type: "constant"
      value: 0.2
    }
  }
}
layer {
  name: "inception_5a/relu_1x1"
  type: "ReLU"
  bottom: "inception_5a/1x1"
  top: "inception_5a/1x1"
}
layer {
  name: "inception_5a/3x3_reduce"
  type: "Convolution"
  bottom: "pool4/3x3_s2"
  top: "inception_5a/3x3_reduce"
  param {
    lr_mult: 1
    decay_mult: 1
  }
  param {
    lr_mult: 2
    decay_mult: 0
  }
  convolution_param {
    num_output: 160
    kernel_size: 1
    weight_filler {
      type: "xavier"
      std: 0.09
    }
    bias_filler {
      type: "constant"
      value: 0.2
    }
  }
}
layer {
  name: "inception_5a/relu_3x3_reduce"
  type: "ReLU"
  bottom: "inception_5a/3x3_reduce"
  top: "inception_5a/3x3_reduce"
}
layer {
  name: "inception_5a/3x3"
  type: "Convolution"
  bottom: "inception_5a/3x3_reduce"
  top: "inception_5a/3x3"
  param {
    lr_mult: 1
    decay_mult: 1
  }
  param {
    lr_mult: 2
    decay_mult: 0
  }
  convolution_param {
    num_output: 320
    pad: 1
    kernel_size: 3
    weight_filler {
      type: "xavier"
      std: 0.03
    }
    bias_filler {
      type: "constant"
      value: 0.2
    }
  }
}
layer {
  name: "inception_5a/relu_3x3"
  type: "ReLU"
  bottom: "inception_5a/3x3"
  top: "inception_5a/3x3"
}
layer {
  name: "inception_5a/5x5_reduce"
  type: "Convolution"
  bottom: "pool4/3x3_s2"
  top: "inception_5a/5x5_reduce"
  param {
    lr_mult: 1
    decay_mult: 1
  }
  param {
    lr_mult: 2
    decay_mult: 0
  }
  convolution_param {
    num_output: 32
    kernel_size: 1
    weight_filler {
      type: "xavier"
      std: 0.2
    }
    bias_filler {
      type: "constant"
      value: 0.2
    }
I0713 13:48:33.697139 31996 layer_factory.hpp:77] Creating layer data
I0713 13:48:33.697173 31996 net.cpp:91] Creating Layer data
I0713 13:48:33.697186 31996 net.cpp:399] data -> data
I0713 13:48:34.342999 31996 net.cpp:141] Setting up data
I0713 13:48:34.343086 31996 net.cpp:148] Top shape: 10 3 224 224 (1505280)
I0713 13:48:34.343094 31996 net.cpp:156] Memory required for data: 6021120
I0713 13:48:34.343122 31996 layer_factory.hpp:77] Creating layer conv1/7x7_s2
I0713 13:48:34.343166 31996 net.cpp:91] Creating Layer conv1/7x7_s2
I0713 13:48:34.343178 31996 net.cpp:425] conv1/7x7_s2 <- data
I0713 13:48:34.343194 31996 net.cpp:399] conv1/7x7_s2 -> conv1/7x7_s2
I0713 13:48:34.624770 31996 net.cpp:141] Setting up conv1/7x7_s2
I0713 13:48:34.624826 31996 net.cpp:148] Top shape: 10 64 112 112 (8028160)
I0713 13:48:34.624835 31996 net.cpp:156] Memory required for data: 38133760
I0713 13:48:34.624867 31996 layer_factory.hpp:77] Creating layer conv1/relu_7x7
I0713 13:48:34.624888 31996 net.cpp:91] Creating Layer conv1/relu_7x7
I0713 13:48:34.624907 31996 net.cpp:425] conv1/relu_7x7 <- conv1/7x7_s2
I0713 13:48:34.624917 31996 net.cpp:386] conv1/relu_7x7 -> conv1/7x7_s2 (in-place)
I0713 13:48:34.625704 31996 net.cpp:141] Setting up conv1/relu_7x7
I0713 13:48:34.625720 31996 net.cpp:148] Top shape: 10 64 112 112 (8028160)
I0713 13:48:34.625725 31996 net.cpp:156] Memory required for data: 70246400
I0713 13:48:34.625731 31996 layer_factory.hpp:77] Creating layer pool1/3x3_s2
I0713 13:48:34.625746 31996 net.cpp:91] Creating Layer pool1/3x3_s2
I0713 13:48:34.625751 31996 net.cpp:425] pool1/3x3_s2 <- conv1/7x7_s2
I0713 13:48:34.625761 31996 net.cpp:399] pool1/3x3_s2 -> pool1/3x3_s2
I0713 13:48:34.625849 31996 net.cpp:141] Setting up pool1/3x3_s2
I0713 13:48:34.625861 31996 net.cpp:148] Top shape: 10 64 56 56 (2007040)
I0713 13:48:34.625866 31996 net.cpp:156] Memory required for data: 78274560
I0713 13:48:34.625872 31996 layer_factory.hpp:77] Creating layer pool1/norm1
I0713 13:48:34.625891 31996 net.cpp:91] Creating Layer pool1/norm1
I0713 13:48:34.625898 31996 net.cpp:425] pool1/norm1 <- pool1/3x3_s2
I0713 13:48:34.625905 31996 net.cpp:399] pool1/norm1 -> pool1/norm1
I0713 13:48:34.626737 31996 net.cpp:141] Setting up pool1/norm1
I0713 13:48:34.626759 31996 net.cpp:148] Top shape: 10 64 56 56 (2007040)
I0713 13:48:34.626765 31996 net.cpp:156] Memory required for data: 86302720
I0713 13:48:34.626770 31996 layer_factory.hpp:77] Creating layer conv2/3x3_reduce
I0713 13:48:34.626792 31996 net.cpp:91] Creating Layer conv2/3x3_reduce
I0713 13:48:34.626799 31996 net.cpp:425] conv2/3x3_reduce <- pool1/norm1
I0713 13:48:34.626808 31996 net.cpp:399] conv2/3x3_reduce -> conv2/3x3_reduce
I0713 13:48:34.629631 31996 net.cpp:141] Setting up conv2/3x3_reduce
I0713 13:48:34.629653 31996 net.cpp:148] Top shape: 10 64 56 56 (2007040)
I0713 13:48:34.629659 31996 net.cpp:156] Memory required for data: 94330880
I0713 13:48:34.629673 31996 layer_factory.hpp:77] Creating layer conv2/relu_3x3_reduce
I0713 13:48:34.629683 31996 net.cpp:91] Creating Layer conv2/relu_3x3_reduce
I0713 13:48:34.629689 31996 net.cpp:425] conv2/relu_3x3_reduce <- conv2/3x3_reduce
I0713 13:48:34.629698 31996 net.cpp:386] conv2/relu_3x3_reduce -> conv2/3x3_reduce (in-place)
I0713 13:48:34.630456 31996 net.cpp:141] Setting up conv2/relu_3x3_reduce
I0713 13:48:34.630475 31996 net.cpp:148] Top shape: 10 64 56 56 (2007040)
I0713 13:48:34.630481 31996 net.cpp:156] Memory required for data: 102359040
I0713 13:48:34.630487 31996 layer_factory.hpp:77] Creating layer conv2/3x3
I0713 13:48:34.630502 31996 net.cpp:91] Creating Layer conv2/3x3
I0713 13:48:34.630509 31996 net.cpp:425] conv2/3x3 <- conv2/3x3_reduce
I0713 13:48:34.630518 31996 net.cpp:399] conv2/3x3 -> conv2/3x3
I0713 13:48:34.635392 31996 net.cpp:141] Setting up conv2/3x3
I0713 13:48:34.635413 31996 net.cpp:148] Top shape: 10 192 56 56 (6021120)
I0713 13:48:34.635419 31996 net.cpp:156] Memory required for data: 126443520
I0713 13:48:34.635438 31996 layer_factory.hpp:77] Creating layer conv2/relu_3x3
I0713 13:48:34.635452 31996 net.cpp:91] Creating Layer conv2/relu_3x3
I0713 13:48:34.635457 31996 net.cpp:425] conv2/relu_3x3 <- conv2/3x3
I0713 13:48:34.635468 31996 net.cpp:386] conv2/relu_3x3 -> conv2/3x3 (in-place)
I0713 13:48:34.635736 31996 net.cpp:141] Setting up conv2/relu_3x3
I0713 13:48:34.635749 31996 net.cpp:148] Top shape: 10 192 56 56 (6021120)
I0713 13:48:34.635754 31996 net.cpp:156] Memory required for data: 150528000
I0713 13:48:34.635761 31996 layer_factory.hpp:77] Creating layer conv2/norm2
I0713 13:48:34.635774 31996 net.cpp:91] Creating Layer conv2/norm2
I0713 13:48:34.635781 31996 net.cpp:425] conv2/norm2 <- conv2/3x3
I0713 13:48:34.635792 31996 net.cpp:399] conv2/norm2 -> conv2/norm2
I0713 13:48:34.636634 31996 net.cpp:141] Setting up conv2/norm2
I0713 13:48:34.636656 31996 net.cpp:148] Top shape: 10 192 56 56 (6021120)
I0713 13:48:34.636662 31996 net.cpp:156] Memory required for data: 174612480
I0713 13:48:34.636668 31996 layer_factory.hpp:77] Creating layer pool2/3x3_s2
I0713 13:48:34.636678 31996 net.cpp:91] Creating Layer pool2/3x3_s2
I0713 13:48:34.636684 31996 net.cpp:425] pool2/3x3_s2 <- conv2/norm2
I0713 13:48:34.636695 31996 net.cpp:399] pool2/3x3_s2 -> pool2/3x3_s2
I0713 13:48:34.636752 31996 net.cpp:141] Setting up pool2/3x3_s2
I0713 13:48:34.636765 31996 net.cpp:148] Top shape: 10 192 28 28 (1505280)
I0713 13:48:34.636770 31996 net.cpp:156] Memory required for data: 180633600
I0713 13:48:34.636776 31996 layer_factory.hpp:77] Creating layer pool2/3x3_s2_pool2/3x3_s2_0_split
I0713 13:48:34.636795 31996 net.cpp:91] Creating Layer pool2/3x3_s2_pool2/3x3_s2_0_split
I0713 13:48:34.636800 31996 net.cpp:425] pool2/3x3_s2_pool2/3x3_s2_0_split <- pool2/3x3_s2
I0713 13:48:34.636807 31996 net.cpp:399] pool2/3x3_s2_pool2/3x3_s2_0_split -> pool2/3x3_s2_pool2/3x3_s2_0_split_0
I0713 13:48:34.636817 31996 net.cpp:399] pool2/3x3_s2_pool2/3x3_s2_0_split -> pool2/3x3_s2_pool2/3x3_s2_0_split_1
I0713 13:48:34.636831 31996 net.cpp:399] pool2/3x3_s2_pool2/3x3_s2_0_split -> pool2/3x3_s2_pool2/3x3_s2_0_split_2
I0713 13:48:34.636840 31996 net.cpp:399] pool2/3x3_s2_pool2/3x3_s2_0_split -> pool2/3x3_s2_pool2/3x3_s2_0_split_3
I0713 13:48:34.636927 31996 net.cpp:141] Setting up pool2/3x3_s2_pool2/3x3_s2_0_split
I0713 13:48:34.636939 31996 net.cpp:148] Top shape: 10 192 28 28 (1505280)
I0713 13:48:34.636945 31996 net.cpp:148] Top shape: 10 192 28 28 (1505280)
I0713 13:48:34.636951 31996 net.cpp:148] Top shape: 10 192 28 28 (1505280)
I0713 13:48:34.636957 31996 net.cpp:148] Top shape: 10 192 28 28 (1505280)
I0713 13:48:34.636961 31996 net.cpp:156] Memory required for data: 204718080
I0713 13:48:34.636967 31996 layer_factory.hpp:77] Creating layer inception_3a/1x1
I0713 13:48:34.636984 31996 net.cpp:91] Creating Layer inception_3a/1x1
I0713 13:48:34.636991 31996 net.cpp:425] inception_3a/1x1 <- pool2/3x3_s2_pool2/3x3_s2_0_split_0
I0713 13:48:34.637020 31996 net.cpp:399] inception_3a/1x1 -> inception_3a/1x1
I0713 13:48:34.641155 31996 net.cpp:141] Setting up inception_3a/1x1
I0713 13:48:34.641176 31996 net.cpp:148] Top shape: 10 64 28 28 (501760)
I0713 13:48:34.641182 31996 net.cpp:156] Memory required for data: 206725120
I0713 13:48:34.641194 31996 layer_factory.hpp:77] Creating layer inception_3a/relu_1x1
I0713 13:48:34.641206 31996 net.cpp:91] Creating Layer inception_3a/relu_1x1
I0713 13:48:34.641211 31996 net.cpp:425] inception_3a/relu_1x1 <- inception_3a/1x1
I0713 13:48:34.641225 31996 net.cpp:386] inception_3a/relu_1x1 -> inception_3a/1x1 (in-place)
I0713 13:48:34.641500 31996 net.cpp:141] Setting up inception_3a/relu_1x1
I0713 13:48:34.641516 31996 net.cpp:148] Top shape: 10 64 28 28 (501760)
I0713 13:48:34.641522 31996 net.cpp:156] Memory required for data: 208732160
I0713 13:48:34.641528 31996 layer_factory.hpp:77] Creating layer inception_3a/3x3_reduce
I0713 13:48:34.641546 31996 net.cpp:91] Creating Layer inception_3a/3x3_reduce
I0713 13:48:34.641553 31996 net.cpp:425] inception_3a/3x3_reduce <- pool2/3x3_s2_pool2/3x3_s2_0_split_1
I0713 13:48:34.641563 31996 net.cpp:399] inception_3a/3x3_reduce -> inception_3a/3x3_reduce
I0713 13:48:34.645148 31996 net.cpp:141] Setting up inception_3a/3x3_reduce
I0713 13:48:34.645169 31996 net.cpp:148] Top shape: 10 96 28 28 (752640)
I0713 13:48:34.645179 31996 net.cpp:156] Memory required for data: 211742720
I0713 13:48:34.645192 31996 layer_factory.hpp:77] Creating layer inception_3a/relu_3x3_reduce
I0713 13:48:34.645202 31996 net.cpp:91] Creating Layer inception_3a/relu_3x3_reduce
I0713 13:48:34.645210 31996 net.cpp:425] inception_3a/relu_3x3_reduce <- inception_3a/3x3_reduce
I0713 13:48:34.645216 31996 net.cpp:386] inception_3a/relu_3x3_reduce -> inception_3a/3x3_reduce (in-place)
I0713 13:48:34.645483 31996 net.cpp:141] Setting up inception_3a/relu_3x3_reduce
I0713 13:48:34.645495 31996 net.cpp:148] Top shape: 10 96 28 28 (752640)
I0713 13:48:34.645500 31996 net.cpp:156] Memory required for data: 214753280
I0713 13:48:34.645506 31996 layer_factory.hpp:77] Creating layer inception_3a/3x3
I0713 13:48:34.645525 31996 net.cpp:91] Creating Layer inception_3a/3x3
I0713 13:48:34.645532 31996 net.cpp:425] inception_3a/3x3 <- inception_3a/3x3_reduce
I0713 13:48:34.645546 31996 net.cpp:399] inception_3a/3x3 -> inception_3a/3x3
I0713 13:48:34.648725 31996 net.cpp:141] Setting up inception_3a/3x3
I0713 13:48:34.648744 31996 net.cpp:148] Top shape: 10 128 28 28 (1003520)
I0713 13:48:34.648751 31996 net.cpp:156] Memory required for data: 218767360
I0713 13:48:34.648761 31996 layer_factory.hpp:77] Creating layer inception_3a/relu_3x3
I0713 13:48:34.648772 31996 net.cpp:91] Creating Layer inception_3a/relu_3x3
I0713 13:48:34.648777 31996 net.cpp:425] inception_3a/relu_3x3 <- inception_3a/3x3
I0713 13:48:34.648790 31996 net.cpp:386] inception_3a/relu_3x3 -> inception_3a/3x3 (in-place)
I0713 13:48:34.649587 31996 net.cpp:141] Setting up inception_3a/relu_3x3
I0713 13:48:34.649602 31996 net.cpp:148] Top shape: 10 128 28 28 (1003520)
I0713 13:48:34.649608 31996 net.cpp:156] Memory required for data: 222781440
I0713 13:48:34.649615 31996 layer_factory.hpp:77] Creating layer inception_3a/5x5_reduce
I0713 13:48:34.649633 31996 net.cpp:91] Creating Layer inception_3a/5x5_reduce
I0713 13:48:34.649641 31996 net.cpp:425] inception_3a/5x5_reduce <- pool2/3x3_s2_pool2/3x3_s2_0_split_2
I0713 13:48:34.649653 31996 net.cpp:399] inception_3a/5x5_reduce -> inception_3a/5x5_reduce
I0713 13:48:34.651999 31996 net.cpp:141] Setting up inception_3a/5x5_reduce
I0713 13:48:34.652020 31996 net.cpp:148] Top shape: 10 16 28 28 (125440)
I0713 13:48:34.652026 31996 net.cpp:156] Memory required for data: 223283200
I0713 13:48:34.652036 31996 layer_factory.hpp:77] Creating layer inception_3a/relu_5x5_reduce
I0713 13:48:34.652046 31996 net.cpp:91] Creating Layer inception_3a/relu_5x5_reduce
I0713 13:48:34.652052 31996 net.cpp:425] inception_3a/relu_5x5_reduce <- inception_3a/5x5_reduce
I0713 13:48:34.652063 31996 net.cpp:386] inception_3a/relu_5x5_reduce -> inception_3a/5x5_reduce (in-place)
I0713 13:48:34.652330 31996 net.cpp:141] Setting up inception_3a/relu_5x5_reduce
I0713 13:48:34.652343 31996 net.cpp:148] Top shape: 10 16 28 28 (125440)
I0713 13:48:34.652348 31996 net.cpp:156] Memory required for data: 223784960
I0713 13:48:34.652354 31996 layer_factory.hpp:77] Creating layer inception_3a/5x5
I0713 13:48:34.652374 31996 net.cpp:91] Creating Layer inception_3a/5x5
I0713 13:48:34.652381 31996 net.cpp:425] inception_3a/5x5 <- inception_3a/5x5_reduce
I0713 13:48:34.652391 31996 net.cpp:399] inception_3a/5x5 -> inception_3a/5x5
I0713 13:48:34.656018 31996 net.cpp:141] Setting up inception_3a/5x5
I0713 13:48:34.656039 31996 net.cpp:148] Top shape: 10 32 28 28 (250880)
I0713 13:48:34.656045 31996 net.cpp:156] Memory required for data: 224788480
I0713 13:48:34.656060 31996 layer_factory.hpp:77] Creating layer inception_3a/relu_5x5
I0713 13:48:34.656070 31996 net.cpp:91] Creating Layer inception_3a/relu_5x5
I0713 13:48:34.656077 31996 net.cpp:425] inception_3a/relu_5x5 <- inception_3a/5x5
I0713 13:48:34.656088 31996 net.cpp:386] inception_3a/relu_5x5 -> inception_3a/5x5 (in-place)
I0713 13:48:34.656358 31996 net.cpp:141] Setting up inception_3a/relu_5x5
I0713 13:48:34.656371 31996 net.cpp:148] Top shape: 10 32 28 28 (250880)
I0713 13:48:34.656378 31996 net.cpp:156] Memory required for data: 225792000
I0713 13:48:34.656383 31996 layer_factory.hpp:77] Creating layer inception_3a/pool
I0713 13:48:34.656396 31996 net.cpp:91] Creating Layer inception_3a/pool
I0713 13:48:34.656402 31996 net.cpp:425] inception_3a/pool <- pool2/3x3_s2_pool2/3x3_s2_0_split_3
I0713 13:48:34.656411 31996 net.cpp:399] inception_3a/pool -> inception_3a/pool
I0713 13:48:34.656479 31996 net.cpp:141] Setting up inception_3a/pool
I0713 13:48:34.656489 31996 net.cpp:148] Top shape: 10 192 28 28 (1505280)
I0713 13:48:34.656494 31996 net.cpp:156] Memory required for data: 231813120
I0713 13:48:34.656500 31996 layer_factory.hpp:77] Creating layer inception_3a/pool_proj
I0713 13:48:34.656517 31996 net.cpp:91] Creating Layer inception_3a/pool_proj
I0713 13:48:34.656522 31996 net.cpp:425] inception_3a/pool_proj <- inception_3a/pool
I0713 13:48:34.656533 31996 net.cpp:399] inception_3a/pool_proj -> inception_3a/pool_proj
I0713 13:48:34.658871 31996 net.cpp:141] Setting up inception_3a/pool_proj
I0713 13:48:34.658892 31996 net.cpp:148] Top shape: 10 32 28 28 (250880)
I0713 13:48:34.658900 31996 net.cpp:156] Memory required for data: 232816640
I0713 13:48:34.658917 31996 layer_factory.hpp:77] Creating layer inception_3a/relu_pool_proj
I0713 13:48:34.658928 31996 net.cpp:91] Creating Layer inception_3a/relu_pool_proj
I0713 13:48:34.658934 31996 net.cpp:425] inception_3a/relu_pool_proj <- inception_3a/pool_proj
I0713 13:48:34.658947 31996 net.cpp:386] inception_3a/relu_pool_proj -> inception_3a/pool_proj (in-place)
I0713 13:48:34.659766 31996 net.cpp:141] Setting up inception_3a/relu_pool_proj
I0713 13:48:34.659785 31996 net.cpp:148] Top shape: 10 32 28 28 (250880)
I0713 13:48:34.659790 31996 net.cpp:156] Memory required for data: 233820160
I0713 13:48:34.659796 31996 layer_factory.hpp:77] Creating layer inception_3a/output
I0713 13:48:34.659816 31996 net.cpp:91] Creating Layer inception_3a/output
I0713 13:48:34.659822 31996 net.cpp:425] inception_3a/output <- inception_3a/1x1
I0713 13:48:34.659829 31996 net.cpp:425] inception_3a/output <- inception_3a/3x3
I0713 13:48:34.659835 31996 net.cpp:425] inception_3a/output <- inception_3a/5x5
I0713 13:48:34.659842 31996 net.cpp:425] inception_3a/output <- inception_3a/pool_proj
I0713 13:48:34.659853 31996 net.cpp:399] inception_3a/output -> inception_3a/output
I0713 13:48:34.659898 31996 net.cpp:141] Setting up inception_3a/output
I0713 13:48:34.659912 31996 net.cpp:148] Top shape: 10 256 28 28 (2007040)
I0713 13:48:34.659917 31996 net.cpp:156] Memory required for data: 241848320
I0713 13:48:34.659924 31996 layer_factory.hpp:77] Creating layer inception_3a/output_inception_3a/output_0_split
I0713 13:48:34.659931 31996 net.cpp:91] Creating Layer inception_3a/output_inception_3a/output_0_split
I0713 13:48:34.659937 31996 net.cpp:425] inception_3a/output_inception_3a/output_0_split <- inception_3a/output
I0713 13:48:34.659945 31996 net.cpp:399] inception_3a/output_inception_3a/output_0_split -> inception_3a/output_inception_3a/output_0_split_0
I0713 13:48:34.659955 31996 net.cpp:399] inception_3a/output_inception_3a/output_0_split -> inception_3a/output_inception_3a/output_0_split_1
I0713 13:48:34.659963 31996 net.cpp:399] inception_3a/output_inception_3a/output_0_split -> inception_3a/output_inception_3a/output_0_split_2
I0713 13:48:34.659976 31996 net.cpp:399] inception_3a/output_inception_3a/output_0_split -> inception_3a/output_inception_3a/output_0_split_3
I0713 13:48:34.660068 31996 net.cpp:141] Setting up inception_3a/output_inception_3a/output_0_split
I0713 13:48:34.660079 31996 net.cpp:148] Top shape: 10 256 28 28 (2007040)
I0713 13:48:34.660084 31996 net.cpp:148] Top shape: 10 256 28 28 (2007040)
I0713 13:48:34.660090 31996 net.cpp:148] Top shape: 10 256 28 28 (2007040)
I0713 13:48:34.660096 31996 net.cpp:148] Top shape: 10 256 28 28 (2007040)
I0713 13:48:34.660100 31996 net.cpp:156] Memory required for data: 273960960
I0713 13:48:34.660106 31996 layer_factory.hpp:77] Creating layer inception_3b/1x1
I0713 13:48:34.660125 31996 net.cpp:91] Creating Layer inception_3b/1x1
I0713 13:48:34.660131 31996 net.cpp:425] inception_3b/1x1 <- inception_3a/output_inception_3a/output_0_split_0
I0713 13:48:34.660143 31996 net.cpp:399] inception_3b/1x1 -> inception_3b/1x1
I0713 13:48:34.662678 31996 net.cpp:141] Setting up inception_3b/1x1
I0713 13:48:34.662706 31996 net.cpp:148] Top shape: 10 128 28 28 (1003520)
I0713 13:48:34.662713 31996 net.cpp:156] Memory required for data: 277975040
I0713 13:48:34.662724 31996 layer_factory.hpp:77] Creating layer inception_3b/relu_1x1
I0713 13:48:34.662735 31996 net.cpp:91] Creating Layer inception_3b/relu_1x1
I0713 13:48:34.662742 31996 net.cpp:425] inception_3b/relu_1x1 <- inception_3b/1x1
I0713 13:48:34.662755 31996 net.cpp:386] inception_3b/relu_1x1 -> inception_3b/1x1 (in-place)
I0713 13:48:34.663019 31996 net.cpp:141] Setting up inception_3b/relu_1x1
I0713 13:48:34.663033 31996 net.cpp:148] Top shape: 10 128 28 28 (1003520)
I0713 13:48:34.663038 31996 net.cpp:156] Memory required for data: 281989120
I0713 13:48:34.663043 31996 layer_factory.hpp:77] Creating layer inception_3b/3x3_reduce
I0713 13:48:34.663064 31996 net.cpp:91] Creating Layer inception_3b/3x3_reduce
I0713 13:48:34.663071 31996 net.cpp:425] inception_3b/3x3_reduce <- inception_3a/output_inception_3a/output_0_split_1
I0713 13:48:34.663082 31996 net.cpp:399] inception_3b/3x3_reduce -> inception_3b/3x3_reduce
I0713 13:48:34.665659 31996 net.cpp:141] Setting up inception_3b/3x3_reduce
I0713 13:48:34.665678 31996 net.cpp:148] Top shape: 10 128 28 28 (1003520)
I0713 13:48:34.665684 31996 net.cpp:156] Memory required for data: 286003200
I0713 13:48:34.665695 31996 layer_factory.hpp:77] Creating layer inception_3b/relu_3x3_reduce
I0713 13:48:34.665709 31996 net.cpp:91] Creating Layer inception_3b/relu_3x3_reduce
I0713 13:48:34.665715 31996 net.cpp:425] inception_3b/relu_3x3_reduce <- inception_3b/3x3_reduce
I0713 13:48:34.665726 31996 net.cpp:386] inception_3b/relu_3x3_reduce -> inception_3b/3x3_reduce (in-place)
I0713 13:48:34.665992 31996 net.cpp:141] Setting up inception_3b/relu_3x3_reduce
I0713 13:48:34.666005 31996 net.cpp:148] Top shape: 10 128 28 28 (1003520)
I0713 13:48:34.666010 31996 net.cpp:156] Memory required for data: 290017280
I0713 13:48:34.666016 31996 layer_factory.hpp:77] Creating layer inception_3b/3x3
I0713 13:48:34.666034 31996 net.cpp:91] Creating Layer inception_3b/3x3
I0713 13:48:34.666041 31996 net.cpp:425] inception_3b/3x3 <- inception_3b/3x3_reduce
I0713 13:48:34.666054 31996 net.cpp:399] inception_3b/3x3 -> inception_3b/3x3
I0713 13:48:34.671458 31996 net.cpp:141] Setting up inception_3b/3x3
I0713 13:48:34.671484 31996 net.cpp:148] Top shape: 10 192 28 28 (1505280)
I0713 13:48:34.671490 31996 net.cpp:156] Memory required for data: 296038400
I0713 13:48:34.671501 31996 layer_factory.hpp:77] Creating layer inception_3b/relu_3x3
I0713 13:48:34.671517 31996 net.cpp:91] Creating Layer inception_3b/relu_3x3
I0713 13:48:34.671525 31996 net.cpp:425] inception_3b/relu_3x3 <- inception_3b/3x3
I0713 13:48:34.671537 31996 net.cpp:386] inception_3b/relu_3x3 -> inception_3b/3x3 (in-place)
I0713 13:48:34.672353 31996 net.cpp:141] Setting up inception_3b/relu_3x3
I0713 13:48:34.672370 31996 net.cpp:148] Top shape: 10 192 28 28 (1505280)
I0713 13:48:34.672376 31996 net.cpp:156] Memory required for data: 302059520
I0713 13:48:34.672382 31996 layer_factory.hpp:77] Creating layer inception_3b/5x5_reduce
I0713 13:48:34.672404 31996 net.cpp:91] Creating Layer inception_3b/5x5_reduce
I0713 13:48:34.672410 31996 net.cpp:425] inception_3b/5x5_reduce <- inception_3a/output_inception_3a/output_0_split_2
I0713 13:48:34.672425 31996 net.cpp:399] inception_3b/5x5_reduce -> inception_3b/5x5_reduce
I0713 13:48:34.674855 31996 net.cpp:141] Setting up inception_3b/5x5_reduce
I0713 13:48:34.674882 31996 net.cpp:148] Top shape: 10 32 28 28 (250880)
I0713 13:48:34.674888 31996 net.cpp:156] Memory required for data: 303063040
I0713 13:48:34.674899 31996 layer_factory.hpp:77] Creating layer inception_3b/relu_5x5_reduce
I0713 13:48:34.674909 31996 net.cpp:91] Creating Layer inception_3b/relu_5x5_reduce
I0713 13:48:34.674916 31996 net.cpp:425] inception_3b/relu_5x5_reduce <- inception_3b/5x5_reduce
I0713 13:48:34.674927 31996 net.cpp:386] inception_3b/relu_5x5_reduce -> inception_3b/5x5_reduce (in-place)
I0713 13:48:34.675191 31996 net.cpp:141] Setting up inception_3b/relu_5x5_reduce
I0713 13:48:34.675204 31996 net.cpp:148] Top shape: 10 32 28 28 (250880)
I0713 13:48:34.675209 31996 net.cpp:156] Memory required for data: 304066560
I0713 13:48:34.675215 31996 layer_factory.hpp:77] Creating layer inception_3b/5x5
I0713 13:48:34.675235 31996 net.cpp:91] Creating Layer inception_3b/5x5
I0713 13:48:34.675243 31996 net.cpp:425] inception_3b/5x5 <- inception_3b/5x5_reduce
I0713 13:48:34.675253 31996 net.cpp:399] inception_3b/5x5 -> inception_3b/5x5
I0713 13:48:34.679415 31996 net.cpp:141] Setting up inception_3b/5x5
I0713 13:48:34.679436 31996 net.cpp:148] Top shape: 10 96 28 28 (752640)
I0713 13:48:34.679442 31996 net.cpp:156] Memory required for data: 307077120
I0713 13:48:34.679453 31996 layer_factory.hpp:77] Creating layer inception_3b/relu_5x5
I0713 13:48:34.679463 31996 net.cpp:91] Creating Layer inception_3b/relu_5x5
I0713 13:48:34.679471 31996 net.cpp:425] inception_3b/relu_5x5 <- inception_3b/5x5
I0713 13:48:34.679486 31996 net.cpp:386] inception_3b/relu_5x5 -> inception_3b/5x5 (in-place)
I0713 13:48:34.679750 31996 net.cpp:141] Setting up inception_3b/relu_5x5
I0713 13:48:34.679766 31996 net.cpp:148] Top shape: 10 96 28 28 (752640)
I0713 13:48:34.679771 31996 net.cpp:156] Memory required for data: 310087680
I0713 13:48:34.679777 31996 layer_factory.hpp:77] Creating layer inception_3b/pool
I0713 13:48:34.679787 31996 net.cpp:91] Creating Layer inception_3b/pool
I0713 13:48:34.679793 31996 net.cpp:425] inception_3b/pool <- inception_3a/output_inception_3a/output_0_split_3
I0713 13:48:34.679802 31996 net.cpp:399] inception_3b/pool -> inception_3b/pool
I0713 13:48:34.679872 31996 net.cpp:141] Setting up inception_3b/pool
I0713 13:48:34.679883 31996 net.cpp:148] Top shape: 10 256 28 28 (2007040)
I0713 13:48:34.679888 31996 net.cpp:156] Memory required for data: 318115840
I0713 13:48:34.679893 31996 layer_factory.hpp:77] Creating layer inception_3b/pool_proj
I0713 13:48:34.679911 31996 net.cpp:91] Creating Layer inception_3b/pool_proj
I0713 13:48:34.679919 31996 net.cpp:425] inception_3b/pool_proj <- inception_3b/pool
I0713 13:48:34.679930 31996 net.cpp:399] inception_3b/pool_proj -> inception_3b/pool_proj
I0713 13:48:34.682363 31996 net.cpp:141] Setting up inception_3b/pool_proj
I0713 13:48:34.682384 31996 net.cpp:148] Top shape: 10 64 28 28 (501760)
I0713 13:48:34.682389 31996 net.cpp:156] Memory required for data: 320122880
I0713 13:48:34.682399 31996 layer_factory.hpp:77] Creating layer inception_3b/relu_pool_proj
I0713 13:48:34.682415 31996 net.cpp:91] Creating Layer inception_3b/relu_pool_proj
I0713 13:48:34.682421 31996 net.cpp:425] inception_3b/relu_pool_proj <- inception_3b/pool_proj
I0713 13:48:34.682430 31996 net.cpp:386] inception_3b/relu_pool_proj -> inception_3b/pool_proj (in-place)
I0713 13:48:34.683261 31996 net.cpp:141] Setting up inception_3b/relu_pool_proj
I0713 13:48:34.683279 31996 net.cpp:148] Top shape: 10 64 28 28 (501760)
I0713 13:48:34.683285 31996 net.cpp:156] Memory required for data: 322129920
I0713 13:48:34.683291 31996 layer_factory.hpp:77] Creating layer inception_3b/output
I0713 13:48:34.683306 31996 net.cpp:91] Creating Layer inception_3b/output
I0713 13:48:34.683312 31996 net.cpp:425] inception_3b/output <- inception_3b/1x1
I0713 13:48:34.683320 31996 net.cpp:425] inception_3b/output <- inception_3b/3x3
I0713 13:48:34.683326 31996 net.cpp:425] inception_3b/output <- inception_3b/5x5
I0713 13:48:34.683332 31996 net.cpp:425] inception_3b/output <- inception_3b/pool_proj
I0713 13:48:34.683339 31996 net.cpp:399] inception_3b/output -> inception_3b/output
I0713 13:48:34.683387 31996 net.cpp:141] Setting up inception_3b/output
I0713 13:48:34.683396 31996 net.cpp:148] Top shape: 10 480 28 28 (3763200)
I0713 13:48:34.683403 31996 net.cpp:156] Memory required for data: 337182720
I0713 13:48:34.683408 31996 layer_factory.hpp:77] Creating layer pool3/3x3_s2
I0713 13:48:34.683416 31996 net.cpp:91] Creating Layer pool3/3x3_s2
I0713 13:48:34.683421 31996 net.cpp:425] pool3/3x3_s2 <- inception_3b/output
I0713 13:48:34.683434 31996 net.cpp:399] pool3/3x3_s2 -> pool3/3x3_s2
I0713 13:48:34.683502 31996 net.cpp:141] Setting up pool3/3x3_s2
I0713 13:48:34.683513 31996 net.cpp:148] Top shape: 10 480 14 14 (940800)
I0713 13:48:34.683518 31996 net.cpp:156] Memory required for data: 340945920
I0713 13:48:34.683523 31996 layer_factory.hpp:77] Creating layer pool3/3x3_s2_pool3/3x3_s2_0_split
I0713 13:48:34.683536 31996 net.cpp:91] Creating Layer pool3/3x3_s2_pool3/3x3_s2_0_split
I0713 13:48:34.683542 31996 net.cpp:425] pool3/3x3_s2_pool3/3x3_s2_0_split <- pool3/3x3_s2
I0713 13:48:34.683549 31996 net.cpp:399] pool3/3x3_s2_pool3/3x3_s2_0_split -> pool3/3x3_s2_pool3/3x3_s2_0_split_0
I0713 13:48:34.683558 31996 net.cpp:399] pool3/3x3_s2_pool3/3x3_s2_0_split -> pool3/3x3_s2_pool3/3x3_s2_0_split_1
I0713 13:48:34.683568 31996 net.cpp:399] pool3/3x3_s2_pool3/3x3_s2_0_split -> pool3/3x3_s2_pool3/3x3_s2_0_split_2
I0713 13:48:34.683575 31996 net.cpp:399] pool3/3x3_s2_pool3/3x3_s2_0_split -> pool3/3x3_s2_pool3/3x3_s2_0_split_3
I0713 13:48:34.683668 31996 net.cpp:141] Setting up pool3/3x3_s2_pool3/3x3_s2_0_split
I0713 13:48:34.683678 31996 net.cpp:148] Top shape: 10 480 14 14 (940800)
I0713 13:48:34.683686 31996 net.cpp:148] Top shape: 10 480 14 14 (940800)
I0713 13:48:34.683691 31996 net.cpp:148] Top shape: 10 480 14 14 (940800)
I0713 13:48:34.683697 31996 net.cpp:148] Top shape: 10 480 14 14 (940800)
I0713 13:48:34.683701 31996 net.cpp:156] Memory required for data: 355998720
I0713 13:48:34.683707 31996 layer_factory.hpp:77] Creating layer inception_4a/1x1
I0713 13:48:34.683724 31996 net.cpp:91] Creating Layer inception_4a/1x1
I0713 13:48:34.683732 31996 net.cpp:425] inception_4a/1x1 <- pool3/3x3_s2_pool3/3x3_s2_0_split_0
I0713 13:48:34.683743 31996 net.cpp:399] inception_4a/1x1 -> inception_4a/1x1
I0713 13:48:34.687463 31996 net.cpp:141] Setting up inception_4a/1x1
I0713 13:48:34.687485 31996 net.cpp:148] Top shape: 10 192 14 14 (376320)
I0713 13:48:34.687492 31996 net.cpp:156] Memory required for data: 357504000
I0713 13:48:34.687502 31996 layer_factory.hpp:77] Creating layer inception_4a/relu_1x1
I0713 13:48:34.687512 31996 net.cpp:91] Creating Layer inception_4a/relu_1x1
I0713 13:48:34.687520 31996 net.cpp:425] inception_4a/relu_1x1 <- inception_4a/1x1
I0713 13:48:34.687527 31996 net.cpp:386] inception_4a/relu_1x1 -> inception_4a/1x1 (in-place)
I0713 13:48:34.687800 31996 net.cpp:141] Setting up inception_4a/relu_1x1
I0713 13:48:34.687813 31996 net.cpp:148] Top shape: 10 192 14 14 (376320)
I0713 13:48:34.687819 31996 net.cpp:156] Memory required for data: 359009280
I0713 13:48:34.687824 31996 layer_factory.hpp:77] Creating layer inception_4a/3x3_reduce
I0713 13:48:34.687841 31996 net.cpp:91] Creating Layer inception_4a/3x3_reduce
I0713 13:48:34.687849 31996 net.cpp:425] inception_4a/3x3_reduce <- pool3/3x3_s2_pool3/3x3_s2_0_split_1
I0713 13:48:34.687862 31996 net.cpp:399] inception_4a/3x3_reduce -> inception_4a/3x3_reduce
I0713 13:48:34.690623 31996 net.cpp:141] Setting up inception_4a/3x3_reduce
I0713 13:48:34.690644 31996 net.cpp:148] Top shape: 10 96 14 14 (188160)
I0713 13:48:34.690654 31996 net.cpp:156] Memory required for data: 359761920
I0713 13:48:34.690672 31996 layer_factory.hpp:77] Creating layer inception_4a/relu_3x3_reduce
I0713 13:48:34.690697 31996 net.cpp:91] Creating Layer inception_4a/relu_3x3_reduce
I0713 13:48:34.690706 31996 net.cpp:425] inception_4a/relu_3x3_reduce <- inception_4a/3x3_reduce
I0713 13:48:34.690716 31996 net.cpp:386] inception_4a/relu_3x3_reduce -> inception_4a/3x3_reduce (in-place)
I0713 13:48:34.690978 31996 net.cpp:141] Setting up inception_4a/relu_3x3_reduce
I0713 13:48:34.690990 31996 net.cpp:148] Top shape: 10 96 14 14 (188160)
I0713 13:48:34.690995 31996 net.cpp:156] Memory required for data: 360514560
I0713 13:48:34.691001 31996 layer_factory.hpp:77] Creating layer inception_4a/3x3
I0713 13:48:34.691020 31996 net.cpp:91] Creating Layer inception_4a/3x3
I0713 13:48:34.691026 31996 net.cpp:425] inception_4a/3x3 <- inception_4a/3x3_reduce
I0713 13:48:34.691040 31996 net.cpp:399] inception_4a/3x3 -> inception_4a/3x3
I0713 13:48:34.696013 31996 net.cpp:141] Setting up inception_4a/3x3
I0713 13:48:34.696034 31996 net.cpp:148] Top shape: 10 208 14 14 (407680)
I0713 13:48:34.696040 31996 net.cpp:156] Memory required for data: 362145280
I0713 13:48:34.696051 31996 layer_factory.hpp:77] Creating layer inception_4a/relu_3x3
I0713 13:48:34.696061 31996 net.cpp:91] Creating Layer inception_4a/relu_3x3
I0713 13:48:34.696069 31996 net.cpp:425] inception_4a/relu_3x3 <- inception_4a/3x3
I0713 13:48:34.696076 31996 net.cpp:386] inception_4a/relu_3x3 -> inception_4a/3x3 (in-place)
I0713 13:48:34.696878 31996 net.cpp:141] Setting up inception_4a/relu_3x3
I0713 13:48:34.696897 31996 net.cpp:148] Top shape: 10 208 14 14 (407680)
I0713 13:48:34.696902 31996 net.cpp:156] Memory required for data: 363776000
I0713 13:48:34.696907 31996 layer_factory.hpp:77] Creating layer inception_4a/5x5_reduce
I0713 13:48:34.696928 31996 net.cpp:91] Creating Layer inception_4a/5x5_reduce
I0713 13:48:34.696935 31996 net.cpp:425] inception_4a/5x5_reduce <- pool3/3x3_s2_pool3/3x3_s2_0_split_2
I0713 13:48:34.696949 31996 net.cpp:399] inception_4a/5x5_reduce -> inception_4a/5x5_reduce
I0713 13:48:34.699329 31996 net.cpp:141] Setting up inception_4a/5x5_reduce
I0713 13:48:34.699349 31996 net.cpp:148] Top shape: 10 16 14 14 (31360)
I0713 13:48:34.699354 31996 net.cpp:156] Memory required for data: 363901440
I0713 13:48:34.699365 31996 layer_factory.hpp:77] Creating layer inception_4a/relu_5x5_reduce
I0713 13:48:34.699380 31996 net.cpp:91] Creating Layer inception_4a/relu_5x5_reduce
I0713 13:48:34.699388 31996 net.cpp:425] inception_4a/relu_5x5_reduce <- inception_4a/5x5_reduce
I0713 13:48:34.699399 31996 net.cpp:386] inception_4a/relu_5x5_reduce -> inception_4a/5x5_reduce (in-place)
I0713 13:48:34.699666 31996 net.cpp:141] Setting up inception_4a/relu_5x5_reduce
I0713 13:48:34.699678 31996 net.cpp:148] Top shape: 10 16 14 14 (31360)
I0713 13:48:34.699684 31996 net.cpp:156] Memory required for data: 364026880
I0713 13:48:34.699689 31996 layer_factory.hpp:77] Creating layer inception_4a/5x5
I0713 13:48:34.699707 31996 net.cpp:91] Creating Layer inception_4a/5x5
I0713 13:48:34.699714 31996 net.cpp:425] inception_4a/5x5 <- inception_4a/5x5_reduce
I0713 13:48:34.699728 31996 net.cpp:399] inception_4a/5x5 -> inception_4a/5x5
I0713 13:48:34.702169 31996 net.cpp:141] Setting up inception_4a/5x5
I0713 13:48:34.702188 31996 net.cpp:148] Top shape: 10 48 14 14 (94080)
I0713 13:48:34.702194 31996 net.cpp:156] Memory required for data: 364403200
I0713 13:48:34.702206 31996 layer_factory.hpp:77] Creating layer inception_4a/relu_5x5
I0713 13:48:34.702216 31996 net.cpp:91] Creating Layer inception_4a/relu_5x5
I0713 13:48:34.702222 31996 net.cpp:425] inception_4a/relu_5x5 <- inception_4a/5x5
I0713 13:48:34.702235 31996 net.cpp:386] inception_4a/relu_5x5 -> inception_4a/5x5 (in-place)
I0713 13:48:34.702497 31996 net.cpp:141] Setting up inception_4a/relu_5x5
I0713 13:48:34.702512 31996 net.cpp:148] Top shape: 10 48 14 14 (94080)
I0713 13:48:34.702517 31996 net.cpp:156] Memory required for data: 364779520
I0713 13:48:34.702523 31996 layer_factory.hpp:77] Creating layer inception_4a/pool
I0713 13:48:34.702533 31996 net.cpp:91] Creating Layer inception_4a/pool
I0713 13:48:34.702539 31996 net.cpp:425] inception_4a/pool <- pool3/3x3_s2_pool3/3x3_s2_0_split_3
I0713 13:48:34.702548 31996 net.cpp:399] inception_4a/pool -> inception_4a/pool
I0713 13:48:34.702621 31996 net.cpp:141] Setting up inception_4a/pool
I0713 13:48:34.702632 31996 net.cpp:148] Top shape: 10 480 14 14 (940800)
I0713 13:48:34.702637 31996 net.cpp:156] Memory required for data: 368542720
I0713 13:48:34.702643 31996 layer_factory.hpp:77] Creating layer inception_4a/pool_proj
I0713 13:48:34.702661 31996 net.cpp:91] Creating Layer inception_4a/pool_proj
I0713 13:48:34.702668 31996 net.cpp:425] inception_4a/pool_proj <- inception_4a/pool
I0713 13:48:34.702682 31996 net.cpp:399] inception_4a/pool_proj -> inception_4a/pool_proj
I0713 13:48:34.705271 31996 net.cpp:141] Setting up inception_4a/pool_proj
I0713 13:48:34.705291 31996 net.cpp:148] Top shape: 10 64 14 14 (125440)
I0713 13:48:34.705297 31996 net.cpp:156] Memory required for data: 369044480
I0713 13:48:34.705307 31996 layer_factory.hpp:77] Creating layer inception_4a/relu_pool_proj
I0713 13:48:34.705320 31996 net.cpp:91] Creating Layer inception_4a/relu_pool_proj
I0713 13:48:34.705327 31996 net.cpp:425] inception_4a/relu_pool_proj <- inception_4a/pool_proj
I0713 13:48:34.705335 31996 net.cpp:386] inception_4a/relu_pool_proj -> inception_4a/pool_proj (in-place)
I0713 13:48:34.706149 31996 net.cpp:141] Setting up inception_4a/relu_pool_proj
I0713 13:48:34.706167 31996 net.cpp:148] Top shape: 10 64 14 14 (125440)
I0713 13:48:34.706173 31996 net.cpp:156] Memory required for data: 369546240
I0713 13:48:34.706181 31996 layer_factory.hpp:77] Creating layer inception_4a/output
I0713 13:48:34.706194 31996 net.cpp:91] Creating Layer inception_4a/output
I0713 13:48:34.706200 31996 net.cpp:425] inception_4a/output <- inception_4a/1x1
I0713 13:48:34.706207 31996 net.cpp:425] inception_4a/output <- inception_4a/3x3
I0713 13:48:34.706214 31996 net.cpp:425] inception_4a/output <- inception_4a/5x5
I0713 13:48:34.706220 31996 net.cpp:425] inception_4a/output <- inception_4a/pool_proj
I0713 13:48:34.706228 31996 net.cpp:399] inception_4a/output -> inception_4a/output
I0713 13:48:34.706279 31996 net.cpp:141] Setting up inception_4a/output
I0713 13:48:34.706290 31996 net.cpp:148] Top shape: 10 512 14 14 (1003520)
I0713 13:48:34.706295 31996 net.cpp:156] Memory required for data: 373560320
I0713 13:48:34.706300 31996 layer_factory.hpp:77] Creating layer inception_4a/output_inception_4a/output_0_split
I0713 13:48:34.706310 31996 net.cpp:91] Creating Layer inception_4a/output_inception_4a/output_0_split
I0713 13:48:34.706315 31996 net.cpp:425] inception_4a/output_inception_4a/output_0_split <- inception_4a/output
I0713 13:48:34.706326 31996 net.cpp:399] inception_4a/output_inception_4a/output_0_split -> inception_4a/output_inception_4a/output_0_split_0
I0713 13:48:34.706336 31996 net.cpp:399] inception_4a/output_inception_4a/output_0_split -> inception_4a/output_inception_4a/output_0_split_1
I0713 13:48:34.706346 31996 net.cpp:399] inception_4a/output_inception_4a/output_0_split -> inception_4a/output_inception_4a/output_0_split_2
I0713 13:48:34.706354 31996 net.cpp:399] inception_4a/output_inception_4a/output_0_split -> inception_4a/output_inception_4a/output_0_split_3
I0713 13:48:34.706447 31996 net.cpp:141] Setting up inception_4a/output_inception_4a/output_0_split
I0713 13:48:34.706460 31996 net.cpp:148] Top shape: 10 512 14 14 (1003520)
I0713 13:48:34.706467 31996 net.cpp:148] Top shape: 10 512 14 14 (1003520)
I0713 13:48:34.706473 31996 net.cpp:148] Top shape: 10 512 14 14 (1003520)
I0713 13:48:34.706480 31996 net.cpp:148] Top shape: 10 512 14 14 (1003520)
I0713 13:48:34.706485 31996 net.cpp:156] Memory required for data: 389616640
I0713 13:48:34.706490 31996 layer_factory.hpp:77] Creating layer inception_4b/1x1
I0713 13:48:34.706506 31996 net.cpp:91] Creating Layer inception_4b/1x1
I0713 13:48:34.706512 31996 net.cpp:425] inception_4b/1x1 <- inception_4a/output_inception_4a/output_0_split_0
I0713 13:48:34.706522 31996 net.cpp:399] inception_4b/1x1 -> inception_4b/1x1
I0713 13:48:34.709535 31996 net.cpp:141] Setting up inception_4b/1x1
I0713 13:48:34.709555 31996 net.cpp:148] Top shape: 10 160 14 14 (313600)
I0713 13:48:34.709561 31996 net.cpp:156] Memory required for data: 390871040
I0713 13:48:34.709571 31996 layer_factory.hpp:77] Creating layer inception_4b/relu_1x1
I0713 13:48:34.709585 31996 net.cpp:91] Creating Layer inception_4b/relu_1x1
I0713 13:48:34.709592 31996 net.cpp:425] inception_4b/relu_1x1 <- inception_4b/1x1
I0713 13:48:34.709601 31996 net.cpp:386] inception_4b/relu_1x1 -> inception_4b/1x1 (in-place)
I0713 13:48:34.709866 31996 net.cpp:141] Setting up inception_4b/relu_1x1
I0713 13:48:34.709878 31996 net.cpp:148] Top shape: 10 160 14 14 (313600)
I0713 13:48:34.709883 31996 net.cpp:156] Memory required for data: 392125440
I0713 13:48:34.709889 31996 layer_factory.hpp:77] Creating layer inception_4b/3x3_reduce
I0713 13:48:34.709908 31996 net.cpp:91] Creating Layer inception_4b/3x3_reduce
I0713 13:48:34.709913 31996 net.cpp:425] inception_4b/3x3_reduce <- inception_4a/output_inception_4a/output_0_split_1
I0713 13:48:34.709926 31996 net.cpp:399] inception_4b/3x3_reduce -> inception_4b/3x3_reduce
I0713 13:48:34.712774 31996 net.cpp:141] Setting up inception_4b/3x3_reduce
I0713 13:48:34.712795 31996 net.cpp:148] Top shape: 10 112 14 14 (219520)
I0713 13:48:34.712800 31996 net.cpp:156] Memory required for data: 393003520
I0713 13:48:34.712811 31996 layer_factory.hpp:77] Creating layer inception_4b/relu_3x3_reduce
I0713 13:48:34.712826 31996 net.cpp:91] Creating Layer inception_4b/relu_3x3_reduce
I0713 13:48:34.712833 31996 net.cpp:425] inception_4b/relu_3x3_reduce <- inception_4b/3x3_reduce
I0713 13:48:34.712842 31996 net.cpp:386] inception_4b/relu_3x3_reduce -> inception_4b/3x3_reduce (in-place)
I0713 13:48:34.713114 31996 net.cpp:141] Setting up inception_4b/relu_3x3_reduce
I0713 13:48:34.713129 31996 net.cpp:148] Top shape: 10 112 14 14 (219520)
I0713 13:48:34.713134 31996 net.cpp:156] Memory required for data: 393881600
I0713 13:48:34.713140 31996 layer_factory.hpp:77] Creating layer inception_4b/3x3
I0713 13:48:34.713157 31996 net.cpp:91] Creating Layer inception_4b/3x3
I0713 13:48:34.713165 31996 net.cpp:425] inception_4b/3x3 <- inception_4b/3x3_reduce
I0713 13:48:34.713177 31996 net.cpp:399] inception_4b/3x3 -> inception_4b/3x3
I0713 13:48:34.719247 31996 net.cpp:141] Setting up inception_4b/3x3
I0713 13:48:34.719269 31996 net.cpp:148] Top shape: 10 224 14 14 (439040)
I0713 13:48:34.719275 31996 net.cpp:156] Memory required for data: 395637760
I0713 13:48:34.719285 31996 layer_factory.hpp:77] Creating layer inception_4b/relu_3x3
I0713 13:48:34.719296 31996 net.cpp:91] Creating Layer inception_4b/relu_3x3
I0713 13:48:34.719303 31996 net.cpp:425] inception_4b/relu_3x3 <- inception_4b/3x3
I0713 13:48:34.719316 31996 net.cpp:386] inception_4b/relu_3x3 -> inception_4b/3x3 (in-place)
I0713 13:48:34.720149 31996 net.cpp:141] Setting up inception_4b/relu_3x3
I0713 13:48:34.720167 31996 net.cpp:148] Top shape: 10 224 14 14 (439040)
I0713 13:48:34.720173 31996 net.cpp:156] Memory required for data: 397393920
I0713 13:48:34.720180 31996 layer_factory.hpp:77] Creating layer inception_4b/5x5_reduce
I0713 13:48:34.720209 31996 net.cpp:91] Creating Layer inception_4b/5x5_reduce
I0713 13:48:34.720216 31996 net.cpp:425] inception_4b/5x5_reduce <- inception_4a/output_inception_4a/output_0_split_2
I0713 13:48:34.720227 31996 net.cpp:399] inception_4b/5x5_reduce -> inception_4b/5x5_reduce
I0713 13:48:34.722708 31996 net.cpp:141] Setting up inception_4b/5x5_reduce
I0713 13:48:34.722734 31996 net.cpp:148] Top shape: 10 24 14 14 (47040)
I0713 13:48:34.722741 31996 net.cpp:156] Memory required for data: 397582080
I0713 13:48:34.722753 31996 layer_factory.hpp:77] Creating layer inception_4b/relu_5x5_reduce
I0713 13:48:34.722762 31996 net.cpp:91] Creating Layer inception_4b/relu_5x5_reduce
I0713 13:48:34.722769 31996 net.cpp:425] inception_4b/relu_5x5_reduce <- inception_4b/5x5_reduce
I0713 13:48:34.722777 31996 net.cpp:386] inception_4b/relu_5x5_reduce -> inception_4b/5x5_reduce (in-place)
I0713 13:48:34.723047 31996 net.cpp:141] Setting up inception_4b/relu_5x5_reduce
I0713 13:48:34.723060 31996 net.cpp:148] Top shape: 10 24 14 14 (47040)
I0713 13:48:34.723065 31996 net.cpp:156] Memory required for data: 397770240
I0713 13:48:34.723070 31996 layer_factory.hpp:77] Creating layer inception_4b/5x5
I0713 13:48:34.723088 31996 net.cpp:91] Creating Layer inception_4b/5x5
I0713 13:48:34.723094 31996 net.cpp:425] inception_4b/5x5 <- inception_4b/5x5_reduce
I0713 13:48:34.723106 31996 net.cpp:399] inception_4b/5x5 -> inception_4b/5x5
I0713 13:48:34.726934 31996 net.cpp:141] Setting up inception_4b/5x5
I0713 13:48:34.726955 31996 net.cpp:148] Top shape: 10 64 14 14 (125440)
I0713 13:48:34.726961 31996 net.cpp:156] Memory required for data: 398272000
I0713 13:48:34.726974 31996 layer_factory.hpp:77] Creating layer inception_4b/relu_5x5
I0713 13:48:34.726984 31996 net.cpp:91] Creating Layer inception_4b/relu_5x5
I0713 13:48:34.726990 31996 net.cpp:425] inception_4b/relu_5x5 <- inception_4b/5x5
I0713 13:48:34.727002 31996 net.cpp:386] inception_4b/relu_5x5 -> inception_4b/5x5 (in-place)
I0713 13:48:34.727274 31996 net.cpp:141] Setting up inception_4b/relu_5x5
I0713 13:48:34.727291 31996 net.cpp:148] Top shape: 10 64 14 14 (125440)
I0713 13:48:34.727296 31996 net.cpp:156] Memory required for data: 398773760
I0713 13:48:34.727303 31996 layer_factory.hpp:77] Creating layer inception_4b/pool
I0713 13:48:34.727313 31996 net.cpp:91] Creating Layer inception_4b/pool
I0713 13:48:34.727319 31996 net.cpp:425] inception_4b/pool <- inception_4a/output_inception_4a/output_0_split_3
I0713 13:48:34.727327 31996 net.cpp:399] inception_4b/pool -> inception_4b/pool
I0713 13:48:34.727403 31996 net.cpp:141] Setting up inception_4b/pool
I0713 13:48:34.727414 31996 net.cpp:148] Top shape: 10 512 14 14 (1003520)
I0713 13:48:34.727419 31996 net.cpp:156] Memory required for data: 402787840
I0713 13:48:34.727424 31996 layer_factory.hpp:77] Creating layer inception_4b/pool_proj
I0713 13:48:34.727442 31996 net.cpp:91] Creating Layer inception_4b/pool_proj
I0713 13:48:34.727449 31996 net.cpp:425] inception_4b/pool_proj <- inception_4b/pool
I0713 13:48:34.727461 31996 net.cpp:399] inception_4b/pool_proj -> inception_4b/pool_proj
I0713 13:48:34.730085 31996 net.cpp:141] Setting up inception_4b/pool_proj
I0713 13:48:34.730104 31996 net.cpp:148] Top shape: 10 64 14 14 (125440)
I0713 13:48:34.730110 31996 net.cpp:156] Memory required for data: 403289600
I0713 13:48:34.730121 31996 layer_factory.hpp:77] Creating layer inception_4b/relu_pool_proj
I0713 13:48:34.730131 31996 net.cpp:91] Creating Layer inception_4b/relu_pool_proj
I0713 13:48:34.730137 31996 net.cpp:425] inception_4b/relu_pool_proj <- inception_4b/pool_proj
I0713 13:48:34.730149 31996 net.cpp:386] inception_4b/relu_pool_proj -> inception_4b/pool_proj (in-place)
I0713 13:48:34.730998 31996 net.cpp:141] Setting up inception_4b/relu_pool_proj
I0713 13:48:34.731017 31996 net.cpp:148] Top shape: 10 64 14 14 (125440)
I0713 13:48:34.731024 31996 net.cpp:156] Memory required for data: 403791360
I0713 13:48:34.731030 31996 layer_factory.hpp:77] Creating layer inception_4b/output
I0713 13:48:34.731040 31996 net.cpp:91] Creating Layer inception_4b/output
I0713 13:48:34.731050 31996 net.cpp:425] inception_4b/output <- inception_4b/1x1
I0713 13:48:34.731057 31996 net.cpp:425] inception_4b/output <- inception_4b/3x3
I0713 13:48:34.731063 31996 net.cpp:425] inception_4b/output <- inception_4b/5x5
I0713 13:48:34.731070 31996 net.cpp:425] inception_4b/output <- inception_4b/pool_proj
I0713 13:48:34.731077 31996 net.cpp:399] inception_4b/output -> inception_4b/output
I0713 13:48:34.731125 31996 net.cpp:141] Setting up inception_4b/output
I0713 13:48:34.731135 31996 net.cpp:148] Top shape: 10 512 14 14 (1003520)
I0713 13:48:34.731140 31996 net.cpp:156] Memory required for data: 407805440
I0713 13:48:34.731147 31996 layer_factory.hpp:77] Creating layer inception_4b/output_inception_4b/output_0_split
I0713 13:48:34.731159 31996 net.cpp:91] Creating Layer inception_4b/output_inception_4b/output_0_split
I0713 13:48:34.731166 31996 net.cpp:425] inception_4b/output_inception_4b/output_0_split <- inception_4b/output
I0713 13:48:34.731176 31996 net.cpp:399] inception_4b/output_inception_4b/output_0_split -> inception_4b/output_inception_4b/output_0_split_0
I0713 13:48:34.731187 31996 net.cpp:399] inception_4b/output_inception_4b/output_0_split -> inception_4b/output_inception_4b/output_0_split_1
I0713 13:48:34.731196 31996 net.cpp:399] inception_4b/output_inception_4b/output_0_split -> inception_4b/output_inception_4b/output_0_split_2
I0713 13:48:34.731205 31996 net.cpp:399] inception_4b/output_inception_4b/output_0_split -> inception_4b/output_inception_4b/output_0_split_3
I0713 13:48:34.731302 31996 net.cpp:141] Setting up inception_4b/output_inception_4b/output_0_split
I0713 13:48:34.731312 31996 net.cpp:148] Top shape: 10 512 14 14 (1003520)
I0713 13:48:34.731318 31996 net.cpp:148] Top shape: 10 512 14 14 (1003520)
I0713 13:48:34.731324 31996 net.cpp:148] Top shape: 10 512 14 14 (1003520)
I0713 13:48:34.731330 31996 net.cpp:148] Top shape: 10 512 14 14 (1003520)
I0713 13:48:34.731334 31996 net.cpp:156] Memory required for data: 423861760
I0713 13:48:34.731340 31996 layer_factory.hpp:77] Creating layer inception_4c/1x1
I0713 13:48:34.731356 31996 net.cpp:91] Creating Layer inception_4c/1x1
I0713 13:48:34.731362 31996 net.cpp:425] inception_4c/1x1 <- inception_4b/output_inception_4b/output_0_split_0
I0713 13:48:34.731376 31996 net.cpp:399] inception_4c/1x1 -> inception_4c/1x1
I0713 13:48:34.734361 31996 net.cpp:141] Setting up inception_4c/1x1
I0713 13:48:34.734383 31996 net.cpp:148] Top shape: 10 128 14 14 (250880)
I0713 13:48:34.734390 31996 net.cpp:156] Memory required for data: 424865280
I0713 13:48:34.734400 31996 layer_factory.hpp:77] Creating layer inception_4c/relu_1x1
I0713 13:48:34.734413 31996 net.cpp:91] Creating Layer inception_4c/relu_1x1
I0713 13:48:34.734421 31996 net.cpp:425] inception_4c/relu_1x1 <- inception_4c/1x1
I0713 13:48:34.734429 31996 net.cpp:386] inception_4c/relu_1x1 -> inception_4c/1x1 (in-place)
I0713 13:48:34.734712 31996 net.cpp:141] Setting up inception_4c/relu_1x1
I0713 13:48:34.734729 31996 net.cpp:148] Top shape: 10 128 14 14 (250880)
I0713 13:48:34.734735 31996 net.cpp:156] Memory required for data: 425868800
I0713 13:48:34.734740 31996 layer_factory.hpp:77] Creating layer inception_4c/3x3_reduce
I0713 13:48:34.734757 31996 net.cpp:91] Creating Layer inception_4c/3x3_reduce
I0713 13:48:34.734764 31996 net.cpp:425] inception_4c/3x3_reduce <- inception_4b/output_inception_4b/output_0_split_1
I0713 13:48:34.734774 31996 net.cpp:399] inception_4c/3x3_reduce -> inception_4c/3x3_reduce
I0713 13:48:34.737721 31996 net.cpp:141] Setting up inception_4c/3x3_reduce
I0713 13:48:34.737741 31996 net.cpp:148] Top shape: 10 128 14 14 (250880)
I0713 13:48:34.737747 31996 net.cpp:156] Memory required for data: 426872320
I0713 13:48:34.737757 31996 layer_factory.hpp:77] Creating layer inception_4c/relu_3x3_reduce
I0713 13:48:34.737772 31996 net.cpp:91] Creating Layer inception_4c/relu_3x3_reduce
I0713 13:48:34.737779 31996 net.cpp:425] inception_4c/relu_3x3_reduce <- inception_4c/3x3_reduce
I0713 13:48:34.737787 31996 net.cpp:386] inception_4c/relu_3x3_reduce -> inception_4c/3x3_reduce (in-place)
I0713 13:48:34.738051 31996 net.cpp:141] Setting up inception_4c/relu_3x3_reduce
I0713 13:48:34.738065 31996 net.cpp:148] Top shape: 10 128 14 14 (250880)
I0713 13:48:34.738070 31996 net.cpp:156] Memory required for data: 427875840
I0713 13:48:34.738075 31996 layer_factory.hpp:77] Creating layer inception_4c/3x3
I0713 13:48:34.738095 31996 net.cpp:91] Creating Layer inception_4c/3x3
I0713 13:48:34.738102 31996 net.cpp:425] inception_4c/3x3 <- inception_4c/3x3_reduce
I0713 13:48:34.738112 31996 net.cpp:399] inception_4c/3x3 -> inception_4c/3x3
I0713 13:48:34.744334 31996 net.cpp:141] Setting up inception_4c/3x3
I0713 13:48:34.744357 31996 net.cpp:148] Top shape: 10 256 14 14 (501760)
I0713 13:48:34.744364 31996 net.cpp:156] Memory required for data: 429882880
I0713 13:48:34.744374 31996 layer_factory.hpp:77] Creating layer inception_4c/relu_3x3
I0713 13:48:34.744385 31996 net.cpp:91] Creating Layer inception_4c/relu_3x3
I0713 13:48:34.744392 31996 net.cpp:425] inception_4c/relu_3x3 <- inception_4c/3x3
I0713 13:48:34.744405 31996 net.cpp:386] inception_4c/relu_3x3 -> inception_4c/3x3 (in-place)
I0713 13:48:34.745219 31996 net.cpp:141] Setting up inception_4c/relu_3x3
I0713 13:48:34.745237 31996 net.cpp:148] Top shape: 10 256 14 14 (501760)
I0713 13:48:34.745244 31996 net.cpp:156] Memory required for data: 431889920
I0713 13:48:34.745250 31996 layer_factory.hpp:77] Creating layer inception_4c/5x5_reduce
I0713 13:48:34.745270 31996 net.cpp:91] Creating Layer inception_4c/5x5_reduce
I0713 13:48:34.745277 31996 net.cpp:425] inception_4c/5x5_reduce <- inception_4b/output_inception_4b/output_0_split_2
I0713 13:48:34.745290 31996 net.cpp:399] inception_4c/5x5_reduce -> inception_4c/5x5_reduce
I0713 13:48:34.747772 31996 net.cpp:141] Setting up inception_4c/5x5_reduce
I0713 13:48:34.747797 31996 net.cpp:148] Top shape: 10 24 14 14 (47040)
I0713 13:48:34.747802 31996 net.cpp:156] Memory required for data: 432078080
I0713 13:48:34.747814 31996 layer_factory.hpp:77] Creating layer inception_4c/relu_5x5_reduce
I0713 13:48:34.747823 31996 net.cpp:91] Creating Layer inception_4c/relu_5x5_reduce
I0713 13:48:34.747830 31996 net.cpp:425] inception_4c/relu_5x5_reduce <- inception_4c/5x5_reduce
I0713 13:48:34.747838 31996 net.cpp:386] inception_4c/relu_5x5_reduce -> inception_4c/5x5_reduce (in-place)
I0713 13:48:34.748116 31996 net.cpp:141] Setting up inception_4c/relu_5x5_reduce
I0713 13:48:34.748128 31996 net.cpp:148] Top shape: 10 24 14 14 (47040)
I0713 13:48:34.748133 31996 net.cpp:156] Memory required for data: 432266240
I0713 13:48:34.748139 31996 layer_factory.hpp:77] Creating layer inception_4c/5x5
I0713 13:48:34.748157 31996 net.cpp:91] Creating Layer inception_4c/5x5
I0713 13:48:34.748163 31996 net.cpp:425] inception_4c/5x5 <- inception_4c/5x5_reduce
I0713 13:48:34.748177 31996 net.cpp:399] inception_4c/5x5 -> inception_4c/5x5
I0713 13:48:34.751500 31996 net.cpp:141] Setting up inception_4c/5x5
I0713 13:48:34.751523 31996 net.cpp:148] Top shape: 10 64 14 14 (125440)
I0713 13:48:34.751528 31996 net.cpp:156] Memory required for data: 432768000
I0713 13:48:34.751539 31996 layer_factory.hpp:77] Creating layer inception_4c/relu_5x5
I0713 13:48:34.751549 31996 net.cpp:91] Creating Layer inception_4c/relu_5x5
I0713 13:48:34.751556 31996 net.cpp:425] inception_4c/relu_5x5 <- inception_4c/5x5
I0713 13:48:34.751564 31996 net.cpp:386] inception_4c/relu_5x5 -> inception_4c/5x5 (in-place)
I0713 13:48:34.751837 31996 net.cpp:141] Setting up inception_4c/relu_5x5
I0713 13:48:34.751850 31996 net.cpp:148] Top shape: 10 64 14 14 (125440)
I0713 13:48:34.751855 31996 net.cpp:156] Memory required for data: 433269760
I0713 13:48:34.751862 31996 layer_factory.hpp:77] Creating layer inception_4c/pool
I0713 13:48:34.751874 31996 net.cpp:91] Creating Layer inception_4c/pool
I0713 13:48:34.751880 31996 net.cpp:425] inception_4c/pool <- inception_4b/output_inception_4b/output_0_split_3
I0713 13:48:34.751889 31996 net.cpp:399] inception_4c/pool -> inception_4c/pool
I0713 13:48:34.751970 31996 net.cpp:141] Setting up inception_4c/pool
I0713 13:48:34.751981 31996 net.cpp:148] Top shape: 10 512 14 14 (1003520)
I0713 13:48:34.751986 31996 net.cpp:156] Memory required for data: 437283840
I0713 13:48:34.751991 31996 layer_factory.hpp:77] Creating layer inception_4c/pool_proj
I0713 13:48:34.752008 31996 net.cpp:91] Creating Layer inception_4c/pool_proj
I0713 13:48:34.752015 31996 net.cpp:425] inception_4c/pool_proj <- inception_4c/pool
I0713 13:48:34.752028 31996 net.cpp:399] inception_4c/pool_proj -> inception_4c/pool_proj
I0713 13:48:34.755868 31996 net.cpp:141] Setting up inception_4c/pool_proj
I0713 13:48:34.755894 31996 net.cpp:148] Top shape: 10 64 14 14 (125440)
I0713 13:48:34.755902 31996 net.cpp:156] Memory required for data: 437785600
I0713 13:48:34.755934 31996 layer_factory.hpp:77] Creating layer inception_4c/relu_pool_proj
I0713 13:48:34.755945 31996 net.cpp:91] Creating Layer inception_4c/relu_pool_proj
I0713 13:48:34.755952 31996 net.cpp:425] inception_4c/relu_pool_proj <- inception_4c/pool_proj
I0713 13:48:34.755964 31996 net.cpp:386] inception_4c/relu_pool_proj -> inception_4c/pool_proj (in-place)
I0713 13:48:34.756783 31996 net.cpp:141] Setting up inception_4c/relu_pool_proj
I0713 13:48:34.756801 31996 net.cpp:148] Top shape: 10 64 14 14 (125440)
I0713 13:48:34.756808 31996 net.cpp:156] Memory required for data: 438287360
I0713 13:48:34.756814 31996 layer_factory.hpp:77] Creating layer inception_4c/output
I0713 13:48:34.756827 31996 net.cpp:91] Creating Layer inception_4c/output
I0713 13:48:34.756834 31996 net.cpp:425] inception_4c/output <- inception_4c/1x1
I0713 13:48:34.756842 31996 net.cpp:425] inception_4c/output <- inception_4c/3x3
I0713 13:48:34.756849 31996 net.cpp:425] inception_4c/output <- inception_4c/5x5
I0713 13:48:34.756855 31996 net.cpp:425] inception_4c/output <- inception_4c/pool_proj
I0713 13:48:34.756865 31996 net.cpp:399] inception_4c/output -> inception_4c/output
I0713 13:48:34.756917 31996 net.cpp:141] Setting up inception_4c/output
I0713 13:48:34.756928 31996 net.cpp:148] Top shape: 10 512 14 14 (1003520)
I0713 13:48:34.756933 31996 net.cpp:156] Memory required for data: 442301440
I0713 13:48:34.756938 31996 layer_factory.hpp:77] Creating layer inception_4c/output_inception_4c/output_0_split
I0713 13:48:34.756953 31996 net.cpp:91] Creating Layer inception_4c/output_inception_4c/output_0_split
I0713 13:48:34.756959 31996 net.cpp:425] inception_4c/output_inception_4c/output_0_split <- inception_4c/output
I0713 13:48:34.756968 31996 net.cpp:399] inception_4c/output_inception_4c/output_0_split -> inception_4c/output_inception_4c/output_0_split_0
I0713 13:48:34.756976 31996 net.cpp:399] inception_4c/output_inception_4c/output_0_split -> inception_4c/output_inception_4c/output_0_split_1
I0713 13:48:34.756986 31996 net.cpp:399] inception_4c/output_inception_4c/output_0_split -> inception_4c/output_inception_4c/output_0_split_2
I0713 13:48:34.756999 31996 net.cpp:399] inception_4c/output_inception_4c/output_0_split -> inception_4c/output_inception_4c/output_0_split_3
I0713 13:48:34.757100 31996 net.cpp:141] Setting up inception_4c/output_inception_4c/output_0_split
I0713 13:48:34.757112 31996 net.cpp:148] Top shape: 10 512 14 14 (1003520)
I0713 13:48:34.757117 31996 net.cpp:148] Top shape: 10 512 14 14 (1003520)
I0713 13:48:34.757123 31996 net.cpp:148] Top shape: 10 512 14 14 (1003520)
I0713 13:48:34.757129 31996 net.cpp:148] Top shape: 10 512 14 14 (1003520)
I0713 13:48:34.757134 31996 net.cpp:156] Memory required for data: 458357760
I0713 13:48:34.757139 31996 layer_factory.hpp:77] Creating layer inception_4d/1x1
I0713 13:48:34.757155 31996 net.cpp:91] Creating Layer inception_4d/1x1
I0713 13:48:34.757163 31996 net.cpp:425] inception_4d/1x1 <- inception_4c/output_inception_4c/output_0_split_0
I0713 13:48:34.757175 31996 net.cpp:399] inception_4d/1x1 -> inception_4d/1x1
I0713 13:48:34.760095 31996 net.cpp:141] Setting up inception_4d/1x1
I0713 13:48:34.760116 31996 net.cpp:148] Top shape: 10 112 14 14 (219520)
I0713 13:48:34.760123 31996 net.cpp:156] Memory required for data: 459235840
I0713 13:48:34.760133 31996 layer_factory.hpp:77] Creating layer inception_4d/relu_1x1
I0713 13:48:34.760143 31996 net.cpp:91] Creating Layer inception_4d/relu_1x1
I0713 13:48:34.760150 31996 net.cpp:425] inception_4d/relu_1x1 <- inception_4d/1x1
I0713 13:48:34.760159 31996 net.cpp:386] inception_4d/relu_1x1 -> inception_4d/1x1 (in-place)
I0713 13:48:34.760432 31996 net.cpp:141] Setting up inception_4d/relu_1x1
I0713 13:48:34.760445 31996 net.cpp:148] Top shape: 10 112 14 14 (219520)
I0713 13:48:34.760450 31996 net.cpp:156] Memory required for data: 460113920
I0713 13:48:34.760457 31996 layer_factory.hpp:77] Creating layer inception_4d/3x3_reduce
I0713 13:48:34.760474 31996 net.cpp:91] Creating Layer inception_4d/3x3_reduce
I0713 13:48:34.760480 31996 net.cpp:425] inception_4d/3x3_reduce <- inception_4c/output_inception_4c/output_0_split_1
I0713 13:48:34.760494 31996 net.cpp:399] inception_4d/3x3_reduce -> inception_4d/3x3_reduce
I0713 13:48:34.763540 31996 net.cpp:141] Setting up inception_4d/3x3_reduce
I0713 13:48:34.763561 31996 net.cpp:148] Top shape: 10 144 14 14 (282240)
I0713 13:48:34.763566 31996 net.cpp:156] Memory required for data: 461242880
I0713 13:48:34.763576 31996 layer_factory.hpp:77] Creating layer inception_4d/relu_3x3_reduce
I0713 13:48:34.763586 31996 net.cpp:91] Creating Layer inception_4d/relu_3x3_reduce
I0713 13:48:34.763593 31996 net.cpp:425] inception_4d/relu_3x3_reduce <- inception_4d/3x3_reduce
I0713 13:48:34.763607 31996 net.cpp:386] inception_4d/relu_3x3_reduce -> inception_4d/3x3_reduce (in-place)
I0713 13:48:34.763878 31996 net.cpp:141] Setting up inception_4d/relu_3x3_reduce
I0713 13:48:34.763891 31996 net.cpp:148] Top shape: 10 144 14 14 (282240)
I0713 13:48:34.763896 31996 net.cpp:156] Memory required for data: 462371840
I0713 13:48:34.763902 31996 layer_factory.hpp:77] Creating layer inception_4d/3x3
I0713 13:48:34.763919 31996 net.cpp:91] Creating Layer inception_4d/3x3
I0713 13:48:34.763926 31996 net.cpp:425] inception_4d/3x3 <- inception_4d/3x3_reduce
I0713 13:48:34.763939 31996 net.cpp:399] inception_4d/3x3 -> inception_4d/3x3
I0713 13:48:34.770897 31996 net.cpp:141] Setting up inception_4d/3x3
I0713 13:48:34.770917 31996 net.cpp:148] Top shape: 10 288 14 14 (564480)
I0713 13:48:34.770925 31996 net.cpp:156] Memory required for data: 464629760
I0713 13:48:34.770936 31996 layer_factory.hpp:77] Creating layer inception_4d/relu_3x3
I0713 13:48:34.770951 31996 net.cpp:91] Creating Layer inception_4d/relu_3x3
I0713 13:48:34.770957 31996 net.cpp:425] inception_4d/relu_3x3 <- inception_4d/3x3
I0713 13:48:34.770967 31996 net.cpp:386] inception_4d/relu_3x3 -> inception_4d/3x3 (in-place)
I0713 13:48:34.771787 31996 net.cpp:141] Setting up inception_4d/relu_3x3
I0713 13:48:34.771806 31996 net.cpp:148] Top shape: 10 288 14 14 (564480)
I0713 13:48:34.771811 31996 net.cpp:156] Memory required for data: 466887680
I0713 13:48:34.771817 31996 layer_factory.hpp:77] Creating layer inception_4d/5x5_reduce
I0713 13:48:34.771841 31996 net.cpp:91] Creating Layer inception_4d/5x5_reduce
I0713 13:48:34.771847 31996 net.cpp:425] inception_4d/5x5_reduce <- inception_4c/output_inception_4c/output_0_split_2
I0713 13:48:34.771858 31996 net.cpp:399] inception_4d/5x5_reduce -> inception_4d/5x5_reduce
I0713 13:48:34.774420 31996 net.cpp:141] Setting up inception_4d/5x5_reduce
I0713 13:48:34.774441 31996 net.cpp:148] Top shape: 10 32 14 14 (62720)
I0713 13:48:34.774446 31996 net.cpp:156] Memory required for data: 467138560
I0713 13:48:34.774457 31996 layer_factory.hpp:77] Creating layer inception_4d/relu_5x5_reduce
I0713 13:48:34.774467 31996 net.cpp:91] Creating Layer inception_4d/relu_5x5_reduce
I0713 13:48:34.774474 31996 net.cpp:425] inception_4d/relu_5x5_reduce <- inception_4d/5x5_reduce
I0713 13:48:34.774483 31996 net.cpp:386] inception_4d/relu_5x5_reduce -> inception_4d/5x5_reduce (in-place)
I0713 13:48:34.774776 31996 net.cpp:141] Setting up inception_4d/relu_5x5_reduce
I0713 13:48:34.774791 31996 net.cpp:148] Top shape: 10 32 14 14 (62720)
I0713 13:48:34.774796 31996 net.cpp:156] Memory required for data: 467389440
I0713 13:48:34.774801 31996 layer_factory.hpp:77] Creating layer inception_4d/5x5
I0713 13:48:34.774818 31996 net.cpp:91] Creating Layer inception_4d/5x5
I0713 13:48:34.774826 31996 net.cpp:425] inception_4d/5x5 <- inception_4d/5x5_reduce
I0713 13:48:34.774839 31996 net.cpp:399] inception_4d/5x5 -> inception_4d/5x5
I0713 13:48:34.777719 31996 net.cpp:141] Setting up inception_4d/5x5
I0713 13:48:34.777740 31996 net.cpp:148] Top shape: 10 64 14 14 (125440)
I0713 13:48:34.777746 31996 net.cpp:156] Memory required for data: 467891200
I0713 13:48:34.777757 31996 layer_factory.hpp:77] Creating layer inception_4d/relu_5x5
I0713 13:48:34.777767 31996 net.cpp:91] Creating Layer inception_4d/relu_5x5
I0713 13:48:34.777775 31996 net.cpp:425] inception_4d/relu_5x5 <- inception_4d/5x5
I0713 13:48:34.777782 31996 net.cpp:386] inception_4d/relu_5x5 -> inception_4d/5x5 (in-place)
I0713 13:48:34.778062 31996 net.cpp:141] Setting up inception_4d/relu_5x5
I0713 13:48:34.778075 31996 net.cpp:148] Top shape: 10 64 14 14 (125440)
I0713 13:48:34.778080 31996 net.cpp:156] Memory required for data: 468392960
I0713 13:48:34.778086 31996 layer_factory.hpp:77] Creating layer inception_4d/pool
I0713 13:48:34.778098 31996 net.cpp:91] Creating Layer inception_4d/pool
I0713 13:48:34.778105 31996 net.cpp:425] inception_4d/pool <- inception_4c/output_inception_4c/output_0_split_3
I0713 13:48:34.778116 31996 net.cpp:399] inception_4d/pool -> inception_4d/pool
I0713 13:48:34.778195 31996 net.cpp:141] Setting up inception_4d/pool
I0713 13:48:34.778209 31996 net.cpp:148] Top shape: 10 512 14 14 (1003520)
I0713 13:48:34.778214 31996 net.cpp:156] Memory required for data: 472407040
I0713 13:48:34.778220 31996 layer_factory.hpp:77] Creating layer inception_4d/pool_proj
I0713 13:48:34.778237 31996 net.cpp:91] Creating Layer inception_4d/pool_proj
I0713 13:48:34.778244 31996 net.cpp:425] inception_4d/pool_proj <- inception_4d/pool
I0713 13:48:34.778254 31996 net.cpp:399] inception_4d/pool_proj -> inception_4d/pool_proj
I0713 13:48:34.780972 31996 net.cpp:141] Setting up inception_4d/pool_proj
I0713 13:48:34.780993 31996 net.cpp:148] Top shape: 10 64 14 14 (125440)
I0713 13:48:34.780999 31996 net.cpp:156] Memory required for data: 472908800
I0713 13:48:34.781010 31996 layer_factory.hpp:77] Creating layer inception_4d/relu_pool_proj
I0713 13:48:34.781020 31996 net.cpp:91] Creating Layer inception_4d/relu_pool_proj
I0713 13:48:34.781028 31996 net.cpp:425] inception_4d/relu_pool_proj <- inception_4d/pool_proj
I0713 13:48:34.781039 31996 net.cpp:386] inception_4d/relu_pool_proj -> inception_4d/pool_proj (in-place)
I0713 13:48:34.781877 31996 net.cpp:141] Setting up inception_4d/relu_pool_proj
I0713 13:48:34.781893 31996 net.cpp:148] Top shape: 10 64 14 14 (125440)
I0713 13:48:34.781898 31996 net.cpp:156] Memory required for data: 473410560
I0713 13:48:34.781904 31996 layer_factory.hpp:77] Creating layer inception_4d/output
I0713 13:48:34.781914 31996 net.cpp:91] Creating Layer inception_4d/output
I0713 13:48:34.781921 31996 net.cpp:425] inception_4d/output <- inception_4d/1x1
I0713 13:48:34.781929 31996 net.cpp:425] inception_4d/output <- inception_4d/3x3
I0713 13:48:34.781934 31996 net.cpp:425] inception_4d/output <- inception_4d/5x5
I0713 13:48:34.781940 31996 net.cpp:425] inception_4d/output <- inception_4d/pool_proj
I0713 13:48:34.781952 31996 net.cpp:399] inception_4d/output -> inception_4d/output
I0713 13:48:34.782006 31996 net.cpp:141] Setting up inception_4d/output
I0713 13:48:34.782021 31996 net.cpp:148] Top shape: 10 528 14 14 (1034880)
I0713 13:48:34.782027 31996 net.cpp:156] Memory required for data: 477550080
I0713 13:48:34.782032 31996 layer_factory.hpp:77] Creating layer inception_4d/output_inception_4d/output_0_split
I0713 13:48:34.782042 31996 net.cpp:91] Creating Layer inception_4d/output_inception_4d/output_0_split
I0713 13:48:34.782047 31996 net.cpp:425] inception_4d/output_inception_4d/output_0_split <- inception_4d/output
I0713 13:48:34.782055 31996 net.cpp:399] inception_4d/output_inception_4d/output_0_split -> inception_4d/output_inception_4d/output_0_split_0
I0713 13:48:34.782065 31996 net.cpp:399] inception_4d/output_inception_4d/output_0_split -> inception_4d/output_inception_4d/output_0_split_1
I0713 13:48:34.782080 31996 net.cpp:399] inception_4d/output_inception_4d/output_0_split -> inception_4d/output_inception_4d/output_0_split_2
I0713 13:48:34.782090 31996 net.cpp:399] inception_4d/output_inception_4d/output_0_split -> inception_4d/output_inception_4d/output_0_split_3
I0713 13:48:34.782203 31996 net.cpp:141] Setting up inception_4d/output_inception_4d/output_0_split
I0713 13:48:34.782214 31996 net.cpp:148] Top shape: 10 528 14 14 (1034880)
I0713 13:48:34.782222 31996 net.cpp:148] Top shape: 10 528 14 14 (1034880)
I0713 13:48:34.782227 31996 net.cpp:148] Top shape: 10 528 14 14 (1034880)
I0713 13:48:34.782233 31996 net.cpp:148] Top shape: 10 528 14 14 (1034880)
I0713 13:48:34.782238 31996 net.cpp:156] Memory required for data: 494108160
I0713 13:48:34.782243 31996 layer_factory.hpp:77] Creating layer inception_4e/1x1
I0713 13:48:34.782260 31996 net.cpp:91] Creating Layer inception_4e/1x1
I0713 13:48:34.782269 31996 net.cpp:425] inception_4e/1x1 <- inception_4d/output_inception_4d/output_0_split_0
I0713 13:48:34.782279 31996 net.cpp:399] inception_4e/1x1 -> inception_4e/1x1
I0713 13:48:34.787806 31996 net.cpp:141] Setting up inception_4e/1x1
I0713 13:48:34.787827 31996 net.cpp:148] Top shape: 10 256 14 14 (501760)
I0713 13:48:34.787833 31996 net.cpp:156] Memory required for data: 496115200
I0713 13:48:34.787844 31996 layer_factory.hpp:77] Creating layer inception_4e/relu_1x1
I0713 13:48:34.787859 31996 net.cpp:91] Creating Layer inception_4e/relu_1x1
I0713 13:48:34.787868 31996 net.cpp:425] inception_4e/relu_1x1 <- inception_4e/1x1
I0713 13:48:34.787875 31996 net.cpp:386] inception_4e/relu_1x1 -> inception_4e/1x1 (in-place)
I0713 13:48:34.788156 31996 net.cpp:141] Setting up inception_4e/relu_1x1
I0713 13:48:34.788168 31996 net.cpp:148] Top shape: 10 256 14 14 (501760)
I0713 13:48:34.788174 31996 net.cpp:156] Memory required for data: 498122240
I0713 13:48:34.788179 31996 layer_factory.hpp:77] Creating layer inception_4e/3x3_reduce
I0713 13:48:34.788197 31996 net.cpp:91] Creating Layer inception_4e/3x3_reduce
I0713 13:48:34.788205 31996 net.cpp:425] inception_4e/3x3_reduce <- inception_4d/output_inception_4d/output_0_split_1
I0713 13:48:34.788223 31996 net.cpp:399] inception_4e/3x3_reduce -> inception_4e/3x3_reduce
I0713 13:48:34.791393 31996 net.cpp:141] Setting up inception_4e/3x3_reduce
I0713 13:48:34.791412 31996 net.cpp:148] Top shape: 10 160 14 14 (313600)
I0713 13:48:34.791419 31996 net.cpp:156] Memory required for data: 499376640
I0713 13:48:34.791429 31996 layer_factory.hpp:77] Creating layer inception_4e/relu_3x3_reduce
I0713 13:48:34.791440 31996 net.cpp:91] Creating Layer inception_4e/relu_3x3_reduce
I0713 13:48:34.791447 31996 net.cpp:425] inception_4e/relu_3x3_reduce <- inception_4e/3x3_reduce
I0713 13:48:34.791458 31996 net.cpp:386] inception_4e/relu_3x3_reduce -> inception_4e/3x3_reduce (in-place)
I0713 13:48:34.791733 31996 net.cpp:141] Setting up inception_4e/relu_3x3_reduce
I0713 13:48:34.791745 31996 net.cpp:148] Top shape: 10 160 14 14 (313600)
I0713 13:48:34.791750 31996 net.cpp:156] Memory required for data: 500631040
I0713 13:48:34.791756 31996 layer_factory.hpp:77] Creating layer inception_4e/3x3
I0713 13:48:34.791774 31996 net.cpp:91] Creating Layer inception_4e/3x3
I0713 13:48:34.791781 31996 net.cpp:425] inception_4e/3x3 <- inception_4e/3x3_reduce
I0713 13:48:34.791793 31996 net.cpp:399] inception_4e/3x3 -> inception_4e/3x3
I0713 13:48:34.799968 31996 net.cpp:141] Setting up inception_4e/3x3
I0713 13:48:34.800004 31996 net.cpp:148] Top shape: 10 320 14 14 (627200)
I0713 13:48:34.800010 31996 net.cpp:156] Memory required for data: 503139840
I0713 13:48:34.800021 31996 layer_factory.hpp:77] Creating layer inception_4e/relu_3x3
I0713 13:48:34.800035 31996 net.cpp:91] Creating Layer inception_4e/relu_3x3
I0713 13:48:34.800042 31996 net.cpp:425] inception_4e/relu_3x3 <- inception_4e/3x3
I0713 13:48:34.800052 31996 net.cpp:386] inception_4e/relu_3x3 -> inception_4e/3x3 (in-place)
I0713 13:48:34.800906 31996 net.cpp:141] Setting up inception_4e/relu_3x3
I0713 13:48:34.800925 31996 net.cpp:148] Top shape: 10 320 14 14 (627200)
I0713 13:48:34.800930 31996 net.cpp:156] Memory required for data: 505648640
I0713 13:48:34.800936 31996 layer_factory.hpp:77] Creating layer inception_4e/5x5_reduce
I0713 13:48:34.800956 31996 net.cpp:91] Creating Layer inception_4e/5x5_reduce
I0713 13:48:34.800963 31996 net.cpp:425] inception_4e/5x5_reduce <- inception_4d/output_inception_4d/output_0_split_2
I0713 13:48:34.800974 31996 net.cpp:399] inception_4e/5x5_reduce -> inception_4e/5x5_reduce
I0713 13:48:34.803726 31996 net.cpp:141] Setting up inception_4e/5x5_reduce
I0713 13:48:34.803750 31996 net.cpp:148] Top shape: 10 32 14 14 (62720)
I0713 13:48:34.803756 31996 net.cpp:156] Memory required for data: 505899520
I0713 13:48:34.803767 31996 layer_factory.hpp:77] Creating layer inception_4e/relu_5x5_reduce
I0713 13:48:34.803782 31996 net.cpp:91] Creating Layer inception_4e/relu_5x5_reduce
I0713 13:48:34.803791 31996 net.cpp:425] inception_4e/relu_5x5_reduce <- inception_4e/5x5_reduce
I0713 13:48:34.803799 31996 net.cpp:386] inception_4e/relu_5x5_reduce -> inception_4e/5x5_reduce (in-place)
I0713 13:48:34.804088 31996 net.cpp:141] Setting up inception_4e/relu_5x5_reduce
I0713 13:48:34.804101 31996 net.cpp:148] Top shape: 10 32 14 14 (62720)
I0713 13:48:34.804106 31996 net.cpp:156] Memory required for data: 506150400
I0713 13:48:34.804112 31996 layer_factory.hpp:77] Creating layer inception_4e/5x5
I0713 13:48:34.804131 31996 net.cpp:91] Creating Layer inception_4e/5x5
I0713 13:48:34.804138 31996 net.cpp:425] inception_4e/5x5 <- inception_4e/5x5_reduce
I0713 13:48:34.804150 31996 net.cpp:399] inception_4e/5x5 -> inception_4e/5x5
I0713 13:48:34.809026 31996 net.cpp:141] Setting up inception_4e/5x5
I0713 13:48:34.809052 31996 net.cpp:148] Top shape: 10 128 14 14 (250880)
I0713 13:48:34.809058 31996 net.cpp:156] Memory required for data: 507153920
I0713 13:48:34.809070 31996 layer_factory.hpp:77] Creating layer inception_4e/relu_5x5
I0713 13:48:34.809087 31996 net.cpp:91] Creating Layer inception_4e/relu_5x5
I0713 13:48:34.809094 31996 net.cpp:425] inception_4e/relu_5x5 <- inception_4e/5x5
I0713 13:48:34.809104 31996 net.cpp:386] inception_4e/relu_5x5 -> inception_4e/5x5 (in-place)
I0713 13:48:34.809383 31996 net.cpp:141] Setting up inception_4e/relu_5x5
I0713 13:48:34.809396 31996 net.cpp:148] Top shape: 10 128 14 14 (250880)
I0713 13:48:34.809401 31996 net.cpp:156] Memory required for data: 508157440
I0713 13:48:34.809407 31996 layer_factory.hpp:77] Creating layer inception_4e/pool
I0713 13:48:34.809418 31996 net.cpp:91] Creating Layer inception_4e/pool
I0713 13:48:34.809425 31996 net.cpp:425] inception_4e/pool <- inception_4d/output_inception_4d/output_0_split_3
I0713 13:48:34.809438 31996 net.cpp:399] inception_4e/pool -> inception_4e/pool
I0713 13:48:34.809525 31996 net.cpp:141] Setting up inception_4e/pool
I0713 13:48:34.809536 31996 net.cpp:148] Top shape: 10 528 14 14 (1034880)
I0713 13:48:34.809541 31996 net.cpp:156] Memory required for data: 512296960
I0713 13:48:34.809546 31996 layer_factory.hpp:77] Creating layer inception_4e/pool_proj
I0713 13:48:34.809568 31996 net.cpp:91] Creating Layer inception_4e/pool_proj
I0713 13:48:34.809576 31996 net.cpp:425] inception_4e/pool_proj <- inception_4e/pool
I0713 13:48:34.809586 31996 net.cpp:399] inception_4e/pool_proj -> inception_4e/pool_proj
I0713 13:48:34.813493 31996 net.cpp:141] Setting up inception_4e/pool_proj
I0713 13:48:34.813529 31996 net.cpp:148] Top shape: 10 128 14 14 (250880)
I0713 13:48:34.813535 31996 net.cpp:156] Memory required for data: 513300480
I0713 13:48:34.813549 31996 layer_factory.hpp:77] Creating layer inception_4e/relu_pool_proj
I0713 13:48:34.813565 31996 net.cpp:91] Creating Layer inception_4e/relu_pool_proj
I0713 13:48:34.813573 31996 net.cpp:425] inception_4e/relu_pool_proj <- inception_4e/pool_proj
I0713 13:48:34.813583 31996 net.cpp:386] inception_4e/relu_pool_proj -> inception_4e/pool_proj (in-place)
I0713 13:48:34.814630 31996 net.cpp:141] Setting up inception_4e/relu_pool_proj
I0713 13:48:34.814651 31996 net.cpp:148] Top shape: 10 128 14 14 (250880)
I0713 13:48:34.814658 31996 net.cpp:156] Memory required for data: 514304000
I0713 13:48:34.814664 31996 layer_factory.hpp:77] Creating layer inception_4e/output
I0713 13:48:34.814676 31996 net.cpp:91] Creating Layer inception_4e/output
I0713 13:48:34.814682 31996 net.cpp:425] inception_4e/output <- inception_4e/1x1
I0713 13:48:34.814699 31996 net.cpp:425] inception_4e/output <- inception_4e/3x3
I0713 13:48:34.814707 31996 net.cpp:425] inception_4e/output <- inception_4e/5x5
I0713 13:48:34.814713 31996 net.cpp:425] inception_4e/output <- inception_4e/pool_proj
I0713 13:48:34.814723 31996 net.cpp:399] inception_4e/output -> inception_4e/output
I0713 13:48:34.814787 31996 net.cpp:141] Setting up inception_4e/output
I0713 13:48:34.814800 31996 net.cpp:148] Top shape: 10 832 14 14 (1630720)
I0713 13:48:34.814805 31996 net.cpp:156] Memory required for data: 520826880
I0713 13:48:34.814810 31996 layer_factory.hpp:77] Creating layer pool4/3x3_s2
I0713 13:48:34.814823 31996 net.cpp:91] Creating Layer pool4/3x3_s2
I0713 13:48:34.814829 31996 net.cpp:425] pool4/3x3_s2 <- inception_4e/output
I0713 13:48:34.814837 31996 net.cpp:399] pool4/3x3_s2 -> pool4/3x3_s2
I0713 13:48:34.814913 31996 net.cpp:141] Setting up pool4/3x3_s2
I0713 13:48:34.814924 31996 net.cpp:148] Top shape: 10 832 7 7 (407680)
I0713 13:48:34.814929 31996 net.cpp:156] Memory required for data: 522457600
I0713 13:48:34.814934 31996 layer_factory.hpp:77] Creating layer pool4/3x3_s2_pool4/3x3_s2_0_split
I0713 13:48:34.814944 31996 net.cpp:91] Creating Layer pool4/3x3_s2_pool4/3x3_s2_0_split
I0713 13:48:34.814950 31996 net.cpp:425] pool4/3x3_s2_pool4/3x3_s2_0_split <- pool4/3x3_s2
I0713 13:48:34.814959 31996 net.cpp:399] pool4/3x3_s2_pool4/3x3_s2_0_split -> pool4/3x3_s2_pool4/3x3_s2_0_split_0
I0713 13:48:34.814971 31996 net.cpp:399] pool4/3x3_s2_pool4/3x3_s2_0_split -> pool4/3x3_s2_pool4/3x3_s2_0_split_1
I0713 13:48:34.814981 31996 net.cpp:399] pool4/3x3_s2_pool4/3x3_s2_0_split -> pool4/3x3_s2_pool4/3x3_s2_0_split_2
I0713 13:48:34.814990 31996 net.cpp:399] pool4/3x3_s2_pool4/3x3_s2_0_split -> pool4/3x3_s2_pool4/3x3_s2_0_split_3
I0713 13:48:34.815101 31996 net.cpp:141] Setting up pool4/3x3_s2_pool4/3x3_s2_0_split
I0713 13:48:34.815114 31996 net.cpp:148] Top shape: 10 832 7 7 (407680)
I0713 13:48:34.815119 31996 net.cpp:148] Top shape: 10 832 7 7 (407680)
I0713 13:48:34.815126 31996 net.cpp:148] Top shape: 10 832 7 7 (407680)
I0713 13:48:34.815132 31996 net.cpp:148] Top shape: 10 832 7 7 (407680)
I0713 13:48:34.815136 31996 net.cpp:156] Memory required for data: 528980480
I0713 13:48:34.815142 31996 layer_factory.hpp:77] Creating layer inception_5a/1x1
I0713 13:48:34.815165 31996 net.cpp:91] Creating Layer inception_5a/1x1
I0713 13:48:34.815171 31996 net.cpp:425] inception_5a/1x1 <- pool4/3x3_s2_pool4/3x3_s2_0_split_0
I0713 13:48:34.815182 31996 net.cpp:399] inception_5a/1x1 -> inception_5a/1x1
I0713 13:48:34.821643 31996 net.cpp:141] Setting up inception_5a/1x1
I0713 13:48:34.821677 31996 net.cpp:148] Top shape: 10 256 7 7 (125440)
I0713 13:48:34.821683 31996 net.cpp:156] Memory required for data: 529482240
I0713 13:48:34.821696 31996 layer_factory.hpp:77] Creating layer inception_5a/relu_1x1
I0713 13:48:34.821709 31996 net.cpp:91] Creating Layer inception_5a/relu_1x1
I0713 13:48:34.821717 31996 net.cpp:425] inception_5a/relu_1x1 <- inception_5a/1x1
I0713 13:48:34.821732 31996 net.cpp:386] inception_5a/relu_1x1 -> inception_5a/1x1 (in-place)
I0713 13:48:34.822016 31996 net.cpp:141] Setting up inception_5a/relu_1x1
I0713 13:48:34.822036 31996 net.cpp:148] Top shape: 10 256 7 7 (125440)
I0713 13:48:34.822041 31996 net.cpp:156] Memory required for data: 529984000
I0713 13:48:34.822047 31996 layer_factory.hpp:77] Creating layer inception_5a/3x3_reduce
I0713 13:48:34.822067 31996 net.cpp:91] Creating Layer inception_5a/3x3_reduce
I0713 13:48:34.822075 31996 net.cpp:425] inception_5a/3x3_reduce <- pool4/3x3_s2_pool4/3x3_s2_0_split_1
I0713 13:48:34.822087 31996 net.cpp:399] inception_5a/3x3_reduce -> inception_5a/3x3_reduce
I0713 13:48:34.827478 31996 net.cpp:141] Setting up inception_5a/3x3_reduce
I0713 13:48:34.827507 31996 net.cpp:148] Top shape: 10 160 7 7 (78400)
I0713 13:48:34.827514 31996 net.cpp:156] Memory required for data: 530297600
I0713 13:48:34.827525 31996 layer_factory.hpp:77] Creating layer inception_5a/relu_3x3_reduce
I0713 13:48:34.827538 31996 net.cpp:91] Creating Layer inception_5a/relu_3x3_reduce
I0713 13:48:34.827545 31996 net.cpp:425] inception_5a/relu_3x3_reduce <- inception_5a/3x3_reduce
I0713 13:48:34.827558 31996 net.cpp:386] inception_5a/relu_3x3_reduce -> inception_5a/3x3_reduce (in-place)
I0713 13:48:34.827846 31996 net.cpp:141] Setting up inception_5a/relu_3x3_reduce
I0713 13:48:34.827858 31996 net.cpp:148] Top shape: 10 160 7 7 (78400)
I0713 13:48:34.827863 31996 net.cpp:156] Memory required for data: 530611200
I0713 13:48:34.827869 31996 layer_factory.hpp:77] Creating layer inception_5a/3x3
I0713 13:48:34.827891 31996 net.cpp:91] Creating Layer inception_5a/3x3
I0713 13:48:34.827898 31996 net.cpp:425] inception_5a/3x3 <- inception_5a/3x3_reduce
I0713 13:48:34.827908 31996 net.cpp:399] inception_5a/3x3 -> inception_5a/3x3
I0713 13:48:34.837679 31996 net.cpp:141] Setting up inception_5a/3x3
I0713 13:48:34.837716 31996 net.cpp:148] Top shape: 10 320 7 7 (156800)
I0713 13:48:34.837724 31996 net.cpp:156] Memory required for data: 531238400
I0713 13:48:34.837738 31996 layer_factory.hpp:77] Creating layer inception_5a/relu_3x3
I0713 13:48:34.837750 31996 net.cpp:91] Creating Layer inception_5a/relu_3x3
I0713 13:48:34.837757 31996 net.cpp:425] inception_5a/relu_3x3 <- inception_5a/3x3
I0713 13:48:34.837766 31996 net.cpp:386] inception_5a/relu_3x3 -> inception_5a/3x3 (in-place)
I0713 13:48:34.838629 31996 net.cpp:141] Setting up inception_5a/relu_3x3
I0713 13:48:34.838649 31996 net.cpp:148] Top shape: 10 320 7 7 (156800)
I0713 13:48:34.838654 31996 net.cpp:156] Memory required for data: 531865600
I0713 13:48:34.838660 31996 layer_factory.hpp:77] Creating layer inception_5a/5x5_reduce
I0713 13:48:34.838681 31996 net.cpp:91] Creating Layer inception_5a/5x5_reduce
I0713 13:48:34.838699 31996 net.cpp:425] inception_5a/5x5_reduce <- pool4/3x3_s2_pool4/3x3_s2_0_split_2
I0713 13:48:34.838716 31996 net.cpp:399] inception_5a/5x5_reduce -> inception_5a/5x5_reduce
I0713 13:48:34.841680 31996 net.cpp:141] Setting up inception_5a/5x5_reduce
I0713 13:48:34.841704 31996 net.cpp:148] Top shape: 10 32 7 7 (15680)
I0713 13:48:34.841711 31996 net.cpp:156] Memory required for data: 531928320
I0713 13:48:34.841722 31996 layer_factory.hpp:77] Creating layer inception_5a/relu_5x5_reduce
I0713 13:48:34.841740 31996 net.cpp:91] Creating Layer inception_5a/relu_5x5_reduce
I0713 13:48:34.841748 31996 net.cpp:425] inception_5a/relu_5x5_reduce <- inception_5a/5x5_reduce
I0713 13:48:34.841758 31996 net.cpp:386] inception_5a/relu_5x5_reduce -> inception_5a/5x5_reduce (in-place)
I0713 13:48:34.842043 31996 net.cpp:141] Setting up inception_5a/relu_5x5_reduce
I0713 13:48:34.842056 31996 net.cpp:148] Top shape: 10 32 7 7 (15680)
I0713 13:48:34.842062 31996 net.cpp:156] Memory required for data: 531991040
I0713 13:48:34.842067 31996 layer_factory.hpp:77] Creating layer inception_5a/5x5
I0713 13:48:34.842087 31996 net.cpp:91] Creating Layer inception_5a/5x5
I0713 13:48:34.842093 31996 net.cpp:425] inception_5a/5x5 <- inception_5a/5x5_reduce
I0713 13:48:34.842106 31996 net.cpp:399] inception_5a/5x5 -> inception_5a/5x5
I0713 13:48:34.845824 31996 net.cpp:141] Setting up inception_5a/5x5
I0713 13:48:34.845849 31996 net.cpp:148] Top shape: 10 128 7 7 (62720)
I0713 13:48:34.845854 31996 net.cpp:156] Memory required for data: 532241920
I0713 13:48:34.845866 31996 layer_factory.hpp:77] Creating layer inception_5a/relu_5x5
I0713 13:48:34.845906 31996 net.cpp:91] Creating Layer inception_5a/relu_5x5
I0713 13:48:34.845914 31996 net.cpp:425] inception_5a/relu_5x5 <- inception_5a/5x5
I0713 13:48:34.845922 31996 net.cpp:386] inception_5a/relu_5x5 -> inception_5a/5x5 (in-place)
I0713 13:48:34.846205 31996 net.cpp:141] Setting up inception_5a/relu_5x5
I0713 13:48:34.846218 31996 net.cpp:148] Top shape: 10 128 7 7 (62720)
I0713 13:48:34.846223 31996 net.cpp:156] Memory required for data: 532492800
I0713 13:48:34.846230 31996 layer_factory.hpp:77] Creating layer inception_5a/pool
I0713 13:48:34.846246 31996 net.cpp:91] Creating Layer inception_5a/pool
I0713 13:48:34.846252 31996 net.cpp:425] inception_5a/pool <- pool4/3x3_s2_pool4/3x3_s2_0_split_3
I0713 13:48:34.846264 31996 net.cpp:399] inception_5a/pool -> inception_5a/pool
I0713 13:48:34.846349 31996 net.cpp:141] Setting up inception_5a/pool
I0713 13:48:34.846360 31996 net.cpp:148] Top shape: 10 832 7 7 (407680)
I0713 13:48:34.846365 31996 net.cpp:156] Memory required for data: 534123520
I0713 13:48:34.846370 31996 layer_factory.hpp:77] Creating layer inception_5a/pool_proj
I0713 13:48:34.846387 31996 net.cpp:91] Creating Layer inception_5a/pool_proj
I0713 13:48:34.846395 31996 net.cpp:425] inception_5a/pool_proj <- inception_5a/pool
I0713 13:48:34.846408 31996 net.cpp:399] inception_5a/pool_proj -> inception_5a/pool_proj
I0713 13:48:34.851727 31996 net.cpp:141] Setting up inception_5a/pool_proj
I0713 13:48:34.851759 31996 net.cpp:148] Top shape: 10 128 7 7 (62720)
I0713 13:48:34.851765 31996 net.cpp:156] Memory required for data: 534374400
I0713 13:48:34.851778 31996 layer_factory.hpp:77] Creating layer inception_5a/relu_pool_proj
I0713 13:48:34.851793 31996 net.cpp:91] Creating Layer inception_5a/relu_pool_proj
I0713 13:48:34.851800 31996 net.cpp:425] inception_5a/relu_pool_proj <- inception_5a/pool_proj
I0713 13:48:34.851814 31996 net.cpp:386] inception_5a/relu_pool_proj -> inception_5a/pool_proj (in-place)
I0713 13:48:34.852723 31996 net.cpp:141] Setting up inception_5a/relu_pool_proj
I0713 13:48:34.852742 31996 net.cpp:148] Top shape: 10 128 7 7 (62720)
I0713 13:48:34.852748 31996 net.cpp:156] Memory required for data: 534625280
I0713 13:48:34.852756 31996 layer_factory.hpp:77] Creating layer inception_5a/output
I0713 13:48:34.852769 31996 net.cpp:91] Creating Layer inception_5a/output
I0713 13:48:34.852777 31996 net.cpp:425] inception_5a/output <- inception_5a/1x1
I0713 13:48:34.852785 31996 net.cpp:425] inception_5a/output <- inception_5a/3x3
I0713 13:48:34.852792 31996 net.cpp:425] inception_5a/output <- inception_5a/5x5
I0713 13:48:34.852798 31996 net.cpp:425] inception_5a/output <- inception_5a/pool_proj
I0713 13:48:34.852807 31996 net.cpp:399] inception_5a/output -> inception_5a/output
I0713 13:48:34.852865 31996 net.cpp:141] Setting up inception_5a/output
I0713 13:48:34.852876 31996 net.cpp:148] Top shape: 10 832 7 7 (407680)
I0713 13:48:34.852881 31996 net.cpp:156] Memory required for data: 536256000
I0713 13:48:34.852887 31996 layer_factory.hpp:77] Creating layer inception_5a/output_inception_5a/output_0_split
I0713 13:48:34.852901 31996 net.cpp:91] Creating Layer inception_5a/output_inception_5a/output_0_split
I0713 13:48:34.852907 31996 net.cpp:425] inception_5a/output_inception_5a/output_0_split <- inception_5a/output
I0713 13:48:34.852918 31996 net.cpp:399] inception_5a/output_inception_5a/output_0_split -> inception_5a/output_inception_5a/output_0_split_0
I0713 13:48:34.852929 31996 net.cpp:399] inception_5a/output_inception_5a/output_0_split -> inception_5a/output_inception_5a/output_0_split_1
I0713 13:48:34.852938 31996 net.cpp:399] inception_5a/output_inception_5a/output_0_split -> inception_5a/output_inception_5a/output_0_split_2
I0713 13:48:34.852948 31996 net.cpp:399] inception_5a/output_inception_5a/output_0_split -> inception_5a/output_inception_5a/output_0_split_3
I0713 13:48:34.853067 31996 net.cpp:141] Setting up inception_5a/output_inception_5a/output_0_split
I0713 13:48:34.853078 31996 net.cpp:148] Top shape: 10 832 7 7 (407680)
I0713 13:48:34.853088 31996 net.cpp:148] Top shape: 10 832 7 7 (407680)
I0713 13:48:34.853094 31996 net.cpp:148] Top shape: 10 832 7 7 (407680)
I0713 13:48:34.853101 31996 net.cpp:148] Top shape: 10 832 7 7 (407680)
I0713 13:48:34.853106 31996 net.cpp:156] Memory required for data: 542778880
I0713 13:48:34.853111 31996 layer_factory.hpp:77] Creating layer inception_5b/1x1
I0713 13:48:34.853126 31996 net.cpp:91] Creating Layer inception_5b/1x1
I0713 13:48:34.853132 31996 net.cpp:425] inception_5b/1x1 <- inception_5a/output_inception_5a/output_0_split_0
I0713 13:48:34.853145 31996 net.cpp:399] inception_5b/1x1 -> inception_5b/1x1
I0713 13:48:34.860165 31996 net.cpp:141] Setting up inception_5b/1x1
I0713 13:48:34.860194 31996 net.cpp:148] Top shape: 10 384 7 7 (188160)
I0713 13:48:34.860201 31996 net.cpp:156] Memory required for data: 543531520
I0713 13:48:34.860218 31996 layer_factory.hpp:77] Creating layer inception_5b/relu_1x1
I0713 13:48:34.860229 31996 net.cpp:91] Creating Layer inception_5b/relu_1x1
I0713 13:48:34.860236 31996 net.cpp:425] inception_5b/relu_1x1 <- inception_5b/1x1
I0713 13:48:34.860249 31996 net.cpp:386] inception_5b/relu_1x1 -> inception_5b/1x1 (in-place)
I0713 13:48:34.860540 31996 net.cpp:141] Setting up inception_5b/relu_1x1
I0713 13:48:34.860553 31996 net.cpp:148] Top shape: 10 384 7 7 (188160)
I0713 13:48:34.860558 31996 net.cpp:156] Memory required for data: 544284160
I0713 13:48:34.860564 31996 layer_factory.hpp:77] Creating layer inception_5b/3x3_reduce
I0713 13:48:34.860584 31996 net.cpp:91] Creating Layer inception_5b/3x3_reduce
I0713 13:48:34.860590 31996 net.cpp:425] inception_5b/3x3_reduce <- inception_5a/output_inception_5a/output_0_split_1
I0713 13:48:34.860604 31996 net.cpp:399] inception_5b/3x3_reduce -> inception_5b/3x3_reduce
I0713 13:48:34.865952 31996 net.cpp:141] Setting up inception_5b/3x3_reduce
I0713 13:48:34.865978 31996 net.cpp:148] Top shape: 10 192 7 7 (94080)
I0713 13:48:34.865983 31996 net.cpp:156] Memory required for data: 544660480
I0713 13:48:34.865995 31996 layer_factory.hpp:77] Creating layer inception_5b/relu_3x3_reduce
I0713 13:48:34.866006 31996 net.cpp:91] Creating Layer inception_5b/relu_3x3_reduce
I0713 13:48:34.866014 31996 net.cpp:425] inception_5b/relu_3x3_reduce <- inception_5b/3x3_reduce
I0713 13:48:34.866027 31996 net.cpp:386] inception_5b/relu_3x3_reduce -> inception_5b/3x3_reduce (in-place)
I0713 13:48:34.866315 31996 net.cpp:141] Setting up inception_5b/relu_3x3_reduce
I0713 13:48:34.866330 31996 net.cpp:148] Top shape: 10 192 7 7 (94080)
I0713 13:48:34.866335 31996 net.cpp:156] Memory required for data: 545036800
I0713 13:48:34.866341 31996 layer_factory.hpp:77] Creating layer inception_5b/3x3
I0713 13:48:34.866360 31996 net.cpp:91] Creating Layer inception_5b/3x3
I0713 13:48:34.866367 31996 net.cpp:425] inception_5b/3x3 <- inception_5b/3x3_reduce
I0713 13:48:34.866377 31996 net.cpp:399] inception_5b/3x3 -> inception_5b/3x3
I0713 13:48:34.878015 31996 net.cpp:141] Setting up inception_5b/3x3
I0713 13:48:34.878062 31996 net.cpp:148] Top shape: 10 384 7 7 (188160)
I0713 13:48:34.878068 31996 net.cpp:156] Memory required for data: 545789440
I0713 13:48:34.878083 31996 layer_factory.hpp:77] Creating layer inception_5b/relu_3x3
I0713 13:48:34.878103 31996 net.cpp:91] Creating Layer inception_5b/relu_3x3
I0713 13:48:34.878113 31996 net.cpp:425] inception_5b/relu_3x3 <- inception_5b/3x3
I0713 13:48:34.878125 31996 net.cpp:386] inception_5b/relu_3x3 -> inception_5b/3x3 (in-place)
I0713 13:48:34.879180 31996 net.cpp:141] Setting up inception_5b/relu_3x3
I0713 13:48:34.879214 31996 net.cpp:148] Top shape: 10 384 7 7 (188160)
I0713 13:48:34.879225 31996 net.cpp:156] Memory required for data: 546542080
I0713 13:48:34.879235 31996 layer_factory.hpp:77] Creating layer inception_5b/5x5_reduce
I0713 13:48:34.879271 31996 net.cpp:91] Creating Layer inception_5b/5x5_reduce
I0713 13:48:34.879287 31996 net.cpp:425] inception_5b/5x5_reduce <- inception_5a/output_inception_5a/output_0_split_2
I0713 13:48:34.879312 31996 net.cpp:399] inception_5b/5x5_reduce -> inception_5b/5x5_reduce
I0713 13:48:34.884258 31996 net.cpp:141] Setting up inception_5b/5x5_reduce
I0713 13:48:34.884294 31996 net.cpp:148] Top shape: 10 48 7 7 (23520)
I0713 13:48:34.884305 31996 net.cpp:156] Memory required for data: 546636160
I0713 13:48:34.884323 31996 layer_factory.hpp:77] Creating layer inception_5b/relu_5x5_reduce
I0713 13:48:34.884340 31996 net.cpp:91] Creating Layer inception_5b/relu_5x5_reduce
I0713 13:48:34.884351 31996 net.cpp:425] inception_5b/relu_5x5_reduce <- inception_5b/5x5_reduce
I0713 13:48:34.884366 31996 net.cpp:386] inception_5b/relu_5x5_reduce -> inception_5b/5x5_reduce (in-place)
I0713 13:48:34.884742 31996 net.cpp:141] Setting up inception_5b/relu_5x5_reduce
I0713 13:48:34.884755 31996 net.cpp:148] Top shape: 10 48 7 7 (23520)
I0713 13:48:34.884762 31996 net.cpp:156] Memory required for data: 546730240
I0713 13:48:34.884766 31996 layer_factory.hpp:77] Creating layer inception_5b/5x5
I0713 13:48:34.884784 31996 net.cpp:91] Creating Layer inception_5b/5x5
I0713 13:48:34.884791 31996 net.cpp:425] inception_5b/5x5 <- inception_5b/5x5_reduce
I0713 13:48:34.884805 31996 net.cpp:399] inception_5b/5x5 -> inception_5b/5x5
I0713 13:48:34.891291 31996 net.cpp:141] Setting up inception_5b/5x5
I0713 13:48:34.891320 31996 net.cpp:148] Top shape: 10 128 7 7 (62720)
I0713 13:48:34.891330 31996 net.cpp:156] Memory required for data: 546981120
I0713 13:48:34.891345 31996 layer_factory.hpp:77] Creating layer inception_5b/relu_5x5
I0713 13:48:34.891358 31996 net.cpp:91] Creating Layer inception_5b/relu_5x5
I0713 13:48:34.891367 31996 net.cpp:425] inception_5b/relu_5x5 <- inception_5b/5x5
I0713 13:48:34.891384 31996 net.cpp:386] inception_5b/relu_5x5 -> inception_5b/5x5 (in-place)
I0713 13:48:34.891788 31996 net.cpp:141] Setting up inception_5b/relu_5x5
I0713 13:48:34.891806 31996 net.cpp:148] Top shape: 10 128 7 7 (62720)
I0713 13:48:34.891814 31996 net.cpp:156] Memory required for data: 547232000
I0713 13:48:34.891822 31996 layer_factory.hpp:77] Creating layer inception_5b/pool
I0713 13:48:34.891841 31996 net.cpp:91] Creating Layer inception_5b/pool
I0713 13:48:34.891851 31996 net.cpp:425] inception_5b/pool <- inception_5a/output_inception_5a/output_0_split_3
I0713 13:48:34.891863 31996 net.cpp:399] inception_5b/pool -> inception_5b/pool
I0713 13:48:34.891991 31996 net.cpp:141] Setting up inception_5b/pool
I0713 13:48:34.892007 31996 net.cpp:148] Top shape: 10 832 7 7 (407680)
I0713 13:48:34.892015 31996 net.cpp:156] Memory required for data: 548862720
I0713 13:48:34.892024 31996 layer_factory.hpp:77] Creating layer inception_5b/pool_proj
I0713 13:48:34.892047 31996 net.cpp:91] Creating Layer inception_5b/pool_proj
I0713 13:48:34.892057 31996 net.cpp:425] inception_5b/pool_proj <- inception_5b/pool
I0713 13:48:34.892076 31996 net.cpp:399] inception_5b/pool_proj -> inception_5b/pool_proj
I0713 13:48:34.898308 31996 net.cpp:141] Setting up inception_5b/pool_proj
I0713 13:48:34.898336 31996 net.cpp:148] Top shape: 10 128 7 7 (62720)
I0713 13:48:34.898346 31996 net.cpp:156] Memory required for data: 549113600
I0713 13:48:34.898361 31996 layer_factory.hpp:77] Creating layer inception_5b/relu_pool_proj
I0713 13:48:34.898380 31996 net.cpp:91] Creating Layer inception_5b/relu_pool_proj
I0713 13:48:34.898389 31996 net.cpp:425] inception_5b/relu_pool_proj <- inception_5b/pool_proj
I0713 13:48:34.898402 31996 net.cpp:386] inception_5b/relu_pool_proj -> inception_5b/pool_proj (in-place)
I0713 13:48:34.899497 31996 net.cpp:141] Setting up inception_5b/relu_pool_proj
I0713 13:48:34.899523 31996 net.cpp:148] Top shape: 10 128 7 7 (62720)
I0713 13:48:34.899533 31996 net.cpp:156] Memory required for data: 549364480
I0713 13:48:34.899540 31996 layer_factory.hpp:77] Creating layer inception_5b/output
I0713 13:48:34.899574 31996 net.cpp:91] Creating Layer inception_5b/output
I0713 13:48:34.899582 31996 net.cpp:425] inception_5b/output <- inception_5b/1x1
I0713 13:48:34.899591 31996 net.cpp:425] inception_5b/output <- inception_5b/3x3
I0713 13:48:34.899598 31996 net.cpp:425] inception_5b/output <- inception_5b/5x5
I0713 13:48:34.899605 31996 net.cpp:425] inception_5b/output <- inception_5b/pool_proj
I0713 13:48:34.899616 31996 net.cpp:399] inception_5b/output -> inception_5b/output
I0713 13:48:34.899689 31996 net.cpp:141] Setting up inception_5b/output
I0713 13:48:34.899703 31996 net.cpp:148] Top shape: 10 1024 7 7 (501760)
I0713 13:48:34.899709 31996 net.cpp:156] Memory required for data: 551371520
I0713 13:48:34.899715 31996 layer_factory.hpp:77] Creating layer pool5/7x7_s1
I0713 13:48:34.899727 31996 net.cpp:91] Creating Layer pool5/7x7_s1
I0713 13:48:34.899734 31996 net.cpp:425] pool5/7x7_s1 <- inception_5b/output
I0713 13:48:34.899747 31996 net.cpp:399] pool5/7x7_s1 -> pool5/7x7_s1
I0713 13:48:34.900158 31996 net.cpp:141] Setting up pool5/7x7_s1
I0713 13:48:34.900177 31996 net.cpp:148] Top shape: 10 1024 1 1 (10240)
I0713 13:48:34.900183 31996 net.cpp:156] Memory required for data: 551412480
I0713 13:48:34.900190 31996 layer_factory.hpp:77] Creating layer pool5/drop_7x7_s1
I0713 13:48:34.900223 31996 net.cpp:91] Creating Layer pool5/drop_7x7_s1
I0713 13:48:34.900230 31996 net.cpp:425] pool5/drop_7x7_s1 <- pool5/7x7_s1
I0713 13:48:34.900238 31996 net.cpp:386] pool5/drop_7x7_s1 -> pool5/7x7_s1 (in-place)
I0713 13:48:34.900301 31996 net.cpp:141] Setting up pool5/drop_7x7_s1
I0713 13:48:34.900312 31996 net.cpp:148] Top shape: 10 1024 1 1 (10240)
I0713 13:48:34.900317 31996 net.cpp:156] Memory required for data: 551453440
I0713 13:48:34.900323 31996 layer_factory.hpp:77] Creating layer loss3/classifier
I0713 13:48:34.900346 31996 net.cpp:91] Creating Layer loss3/classifier
I0713 13:48:34.900352 31996 net.cpp:425] loss3/classifier <- pool5/7x7_s1
I0713 13:48:34.900360 31996 net.cpp:399] loss3/classifier -> loss3/classifier
I0713 13:48:34.914553 31996 net.cpp:141] Setting up loss3/classifier
I0713 13:48:34.914583 31996 net.cpp:148] Top shape: 10 1000 (10000)
I0713 13:48:34.914590 31996 net.cpp:156] Memory required for data: 551493440
I0713 13:48:34.914604 31996 layer_factory.hpp:77] Creating layer prob
I0713 13:48:34.914639 31996 net.cpp:91] Creating Layer prob
I0713 13:48:34.914649 31996 net.cpp:425] prob <- loss3/classifier
I0713 13:48:34.914659 31996 net.cpp:399] prob -> prob
I0713 13:48:34.915912 31996 net.cpp:141] Setting up prob
I0713 13:48:34.915935 31996 net.cpp:148] Top shape: 10 1000 (10000)
I0713 13:48:34.915941 31996 net.cpp:156] Memory required for data: 551533440
I0713 13:48:34.915948 31996 net.cpp:219] prob does not need backward computation.
I0713 13:48:34.915956 31996 net.cpp:219] loss3/classifier does not need backward computation.
I0713 13:48:34.915961 31996 net.cpp:219] pool5/drop_7x7_s1 does not need backward computation.
I0713 13:48:34.915980 31996 net.cpp:219] pool5/7x7_s1 does not need backward computation.
…
