…
W0924 04:01:04.626332 15818 upgrade_proto.cpp:71] Note that future Caffe releases will only support input layers and not input fields.
I0924 04:01:04.626426 15839 net.cpp:49] Initializing net from parameters: 
name: "s2vt:features_to_lstm"
state {
  phase: TEST
}
layer {
  name: "input"
  type: "Input"
  top: "frames_fc7"
  top: "cont_sentence"
  top: "input_sentence"
  top: "stage_indicator"
  input_param {
    shape {
      dim: 1
      dim: 4096
    }
    shape {
      dim: 1
      dim: 1
    }
    shape {
      dim: 1
      dim: 1
    }
    shape {
      dim: 1
      dim: 1
    }
  }
}
layer {
  name: "embed_encoder"
  type: "InnerProduct"
  bottom: "frames_fc7"
  top: "embedded_in_frames"
  param {
    lr_mult: 1
    decay_mult: 1
  }
  param {
    lr_mult: 2
    decay_mult: 0
  }
  inner_product_param {
    num_output: 500
    weight_filler {
      type: "xavier"
    }
    bias_filler {
      type: "constant"
      value: 0.2
    }
  }
}
layer {
  name: "reshape_frames"
  type: "Reshape"
  bottom: "embedded_in_frames"
  top: "embedded_input_frames"
  reshape_param {
    shape {
      dim: 1
      dim: 1
      dim: 500
    }
  }
}
layer {
  name: "reshape_stage_indicator"
  type: "Reshape"
  bottom: "stage_indicator"
  top: "reshaped_stage_indicator"
  reshape_param {
    shape {
      dim: 1
      dim: 1
      dim: 1
    }
  }
}
layer {
  name: "embedding"
  type: "Embed"
  bottom: "input_sentence"
  top: "embedded_input_sentence"
  param {
    lr_mult: 1
  }
  embed_param {
    num_output: 500
    input_dim: 46168
    bias_term: false
    weight_filler {
      type: "uniform"
      min: -0.08
      max: 0.08
    }
  }
}
layer {
  name: "lstm1"
  type: "LSTM"
  bottom: "embedded_input_frames"
  bottom: "cont_sentence"
  top: "lstm1"
  recurrent_param {
    num_output: 1000
    weight_filler {
      type: "uniform"
      min: -0.08
      max: 0.08
    }
    bias_filler {
      type: "constant"
      value: 0
    }
  }
}
layer {
  name: "concat"
  type: "Concat"
  bottom: "lstm1"
  bottom: "embedded_input_sentence"
  bottom: "reshaped_stage_indicator"
  top: "lstm1_video_sequence"
  concat_param {
    concat_dim: 2
  }
}
layer {
  name: "lstm2"
  type: "LSTM"
  bottom: "lstm1_video_sequence"
  bottom: "cont_sentence"
  top: "lstm2"
  recurrent_param {
    num_output: 1000
    weight_filler {
      type: "uniform"
      min: -0.08
      max: 0.08
    }
    bias_filler {
      type: "constant"
      value: 0
    }
  }
}
layer {
  name: "predict"
  type: "InnerProduct"
  bottom: "lstm2"
  top: "predict"
  param {
    lr_mult: 1
    decay_mult: 1
  }
  param {
    lr_mult: 2
    decay_mult: 0
  }
  inner_product_param {
    num_output: 46168
    weight_filler {
      type: "uniform"
      min: -0.08
      max: 0.08
    }
    bias_filler {
      type: "constant"
      value: 0
    }
    axis: 2
  }
}
layer {
  name: "probs"
  type: "Softmax"
  bottom: "predict"
  top: "probs"
  softmax_param {
    axis: 2
  }
}
I0924 04:01:04.626415 15814 net.cpp:49] Initializing net from parameters: 
name: "s2vt:features_to_lstm"
state {
  phase: TEST
}
layer {
  name: "input"
  type: "Input"
  top: "frames_fc7"
  top: "cont_sentence"
  top: "input_sentence"
  top: "stage_indicator"
  input_param {
    shape {
      dim: 1
      dim: 4096
    }
    shape {
      dim: 1
      dim: 1
    }
    shape {
      dim: 1
      dim: 1
    }
    shape {
      dim: 1
      dim: 1
    }
  }
}
layer {
  name: "embed_encoder"
  type: "InnerProduct"
  bottom: "frames_fc7"
  top: "embedded_in_frames"
  param {
    lr_mult: 1
    decay_mult: 1
  }
  param {
    lr_mult: 2
    decay_mult: 0
  }
  inner_product_param {
    num_output: 500
    weight_filler {
      type: "xavier"
    }
    bias_filler {
      type: "constant"
      value: 0.2
    }
  }
}
layer {
  name: "reshape_frames"
  type: "Reshape"
  bottom: "embedded_in_frames"
  top: "embedded_input_frames"
  reshape_param {
    shape {
      dim: 1
      dim: 1
      dim: 500
    }
  }
}
layer {
  name: "reshape_stage_indicator"
  type: "Reshape"
  bottom: "stage_indicator"
  top: "reshaped_stage_indicator"
  reshape_param {
    shape {
      dim: 1
      dim: 1
      dim: 1
    }
  }
}
layer {
  name: "embedding"
  type: "Embed"
  bottom: "input_sentence"
  top: "embedded_input_sentence"
  param {
    lr_mult: 1
  }
  embed_param {
    num_output: 500
    input_dim: 46168
    bias_term: false
    weight_filler {
      type: "uniform"
      min: -0.08
      max: 0.08
    }
  }
}
layer {
  name: "lstm1"
  type: "LSTM"
  bottom: "embedded_input_frames"
  bottom: "cont_sentence"
  top: "lstm1"
  recurrent_param {
    num_output: 1000
    weight_filler {
      type: "uniform"
      min: -0.08
      max: 0.08
    }
    bias_filler {
      type: "constant"
      value: 0
    }
  }
}
layer {
  name: "concat"
  type: "Concat"
  bottom: "lstm1"
  bottom: "embedded_input_sentence"
  bottom: "reshaped_stage_indicator"
  top: "lstm1_video_sequence"
  concat_param {
    concat_dim: 2
  }
}
layer {
  name: "lstm2"
  type: "LSTM"
  bottom: "lstm1_video_sequence"
  bottom: "cont_sentence"
  top: "lstm2"
  recurrent_param {
    num_output: 1000
    weight_filler {
      type: "uniform"
      min: -0.08
      max: 0.08
    }
    bias_filler {
      type: "constant"
      value: 0
    }
  }
}
layer {
  name: "predict"
  type: "InnerProduct"
  bottom: "lstm2"
  top: "predict"
  param {
    lr_mult: 1
    decay_mult: 1
  }
  param {
    lr_mult: 2
    decay_mult: 0
  }
  inner_product_param {
    num_output: 46168
    weight_filler {
      type: "uniform"
      min: -0.08
      max: 0.08
    }
    bias_filler {
      type: "constant"
      value: 0
    }
    axis: 2
  }
}
layer {
  name: "probs"
  type: "Softmax"
  bottom: "predict"
  top: "probs"
  softmax_param {
    axis: 2
  }
}
I0924 04:01:04.626415 15857 net.cpp:49] Initializing net from parameters: 
name: "s2vt:features_to_lstm"
state {
  phase: TEST
}
layer {
  name: "input"
  type: "Input"
  top: "frames_fc7"
  top: "cont_sentence"
  top: "input_sentence"
  top: "stage_indicator"
  input_param {
    shape {
      dim: 1
      dim: 4096
    }
    shape {
      dim: 1
      dim: 1
    }
    shape {
      dim: 1
      dim: 1
    }
    shape {
      dim: 1
      dim: 1
    }
  }
}
layer {
  name: "embed_encoder"
  type: "InnerProduct"
  bottom: "frames_fc7"
  top: "embedded_in_frames"
  param {
    lr_mult: 1
    decay_mult: 1
  }
  param {
    lr_mult: 2
    decay_mult: 0
  }
  inner_product_param {
    num_output: 500
    weight_filler {
      type: "xavier"
    }
    bias_filler {
      type: "constant"
      value: 0.2
    }
  }
}
layer {
  name: "reshape_frames"
  type: "Reshape"
  bottom: "embedded_in_frames"
  top: "embedded_input_frames"
  reshape_param {
    shape {
      dim: 1
      dim: 1
      dim: 500
    }
  }
}
layer {
  name: "reshape_stage_indicator"
  type: "Reshape"
  bottom: "stage_indicator"
  top: "reshaped_stage_indicator"
  reshape_param {
    shape {
      dim: 1
      dim: 1
      dim: 1
    }
  }
}
layer {
  name: "embedding"
  type: "Embed"
  bottom: "input_sentence"
  top: "embedded_input_sentence"
  param {
    lr_mult: 1
  }
  embed_param {
    num_output: 500
    input_dim: 46168
    bias_term: false
    weight_filler {
      type: "uniform"
      min: -0.08
      max: 0.08
    }
  }
}
layer {
  name: "lstm1"
  type: "LSTM"
  bottom: "embedded_input_frames"
  bottom: "cont_sentence"
  top: "lstm1"
  recurrent_param {
    num_output: 1000
    weight_filler {
      type: "uniform"
      min: -0.08
      max: 0.08
    }
    bias_filler {
      type: "constant"
      value: 0
    }
  }
}
layer {
  name: "concat"
  type: "Concat"
  bottom: "lstm1"
  bottom: "embedded_input_sentence"
  bottom: "reshaped_stage_indicator"
  top: "lstm1_video_sequence"
  concat_param {
    concat_dim: 2
  }
}
layer {
  name: "lstm2"
  type: "LSTM"
  bottom: "lstm1_video_sequence"
  bottom: "cont_sentence"
  top: "lstm2"
  recurrent_param {
    num_output: 1000
    weight_filler {
      type: "uniform"
      min: -0.08
      max: 0.08
    }
    bias_filler {
      type: "constant"
      value: 0
    }
  }
}
layer {
  name: "predict"
  type: "InnerProduct"
  bottom: "lstm2"
  top: "predict"
  param {
    lr_mult: 1
    decay_mult: 1
  }
  param {
    lr_mult: 2
    decay_mult: 0
  }
  inner_product_param {
    num_output: 46168
    weight_filler {
      type: "uniform"
      min: -0.08
      max: 0.08
    }
    bias_filler {
      type: "constant"
      value: 0
    }
    axis: 2
  }
}
layer {
  name: "probs"
  type: "Softmax"
  bottom: "predict"
  top: "probs"
  softmax_param {
    axis: 2
  }
}
I0924 04:01:04.626423 15821 net.cpp:49] Initializing net from parameters: 
name: "s2vt:features_to_lstm"
state {
  phase: TEST
}
layer {
  name: "input"
  type: "Input"
  top: "frames_fc7"
  top: "cont_sentence"
  top: "input_sentence"
  top: "stage_indicator"
  input_param {
    shape {
      dim: 1
      dim: 4096
    }
    shape {
      dim: 1
      dim: 1
    }
    shape {
      dim: 1
      dim: 1
    }
    shape {
      dim: 1
      dim: 1
    }
  }
}
layer {
  name: "embed_encoder"
  type: "InnerProduct"
  bottom: "frames_fc7"
  top: "embedded_in_frames"
  param {
    lr_mult: 1
    decay_mult: 1
  }
  param {
    lr_mult: 2
    decay_mult: 0
  }
  inner_product_param {
    num_output: 500
    weight_filler {
      type: "xavier"
    }
    bias_filler {
      type: "constant"
      value: 0.2
    }
  }
}
layer {
  name: "reshape_frames"
  type: "Reshape"
  bottom: "embedded_in_frames"
  top: "embedded_input_frames"
  reshape_param {
    shape {
      dim: 1
      dim: 1
      dim: 500
    }
  }
}
layer {
  name: "reshape_stage_indicator"
  type: "Reshape"
  bottom: "stage_indicator"
  top: "reshaped_stage_indicator"
  reshape_param {
    shape {
      dim: 1
      dim: 1
      dim: 1
    }
  }
}
layer {
  name: "embedding"
  type: "Embed"
  bottom: "input_sentence"
  top: "embedded_input_sentence"
  param {
    lr_mult: 1
  }
  embed_param {
    num_output: 500
    input_dim: 46168
    bias_term: false
    weight_filler {
      type: "uniform"
      min: -0.08
      max: 0.08
    }
  }
}
layer {
  name: "lstm1"
  type: "LSTM"
  bottom: "embedded_input_frames"
  bottom: "cont_sentence"
  top: "lstm1"
  recurrent_param {
    num_output: 1000
    weight_filler {
      type: "uniform"
      min: -0.08
      max: 0.08
    }
    bias_filler {
      type: "constant"
      value: 0
    }
  }
}
layer {
  name: "concat"
  type: "Concat"
  bottom: "lstm1"
  bottom: "embedded_input_sentence"
  bottom: "reshaped_stage_indicator"
  top: "lstm1_video_sequence"
  concat_param {
    concat_dim: 2
  }
}
layer {
  name: "lstm2"
  type: "LSTM"
  bottom: "lstm1_video_sequence"
  bottom: "cont_sentence"
  top: "lstm2"
  recurrent_param {
    num_output: 1000
    weight_filler {
      type: "uniform"
      min: -0.08
      max: 0.08
    }
    bias_filler {
      type: "constant"
      value: 0
    }
  }
}
layer {
  name: "predict"
  type: "InnerProduct"
  bottom: "lstm2"
  top: "predict"
  param {
    lr_mult: 1
    decay_mult: 1
  }
  param {
    lr_mult: 2
    decay_mult: 0
  }
  inner_product_param {
    num_output: 46168
    weight_filler {
      type: "uniform"
      min: -0.08
      max: 0.08
    }
    bias_filler {
      type: "constant"
      value: 0
    }
    axis: 2
  }
}
layer {
  name: "probs"
  type: "Softmax"
  bottom: "predict"
  top: "probs"
  softmax_param {
    axis: 2
  }
}
I0924 04:01:04.626484 15869 net.cpp:49] Initializing net from parameters: 
name: "s2vt:features_to_lstm"
state {
  phase: TEST
}
layer {
  name: "input"
  type: "Input"
  top: "frames_fc7"
  top: "cont_sentence"
  top: "input_sentence"
  top: "stage_indicator"
  input_param {
    shape {
      dim: 1
      dim: 4096
    }
    shape {
      dim: 1
      dim: 1
    }
    shape {
      dim: 1
      dim: 1
    }
    shape {
      dim: 1
      dim: 1
    }
  }
}
layer {
  name: "embed_encoder"
  type: "InnerProduct"
  bottom: "frames_fc7"
  top: "embedded_in_frames"
  param {
    lr_mult: 1
    decay_mult: 1
  }
  param {
    lr_mult: 2
    decay_mult: 0
  }
  inner_product_param {
    num_output: 500
    weight_filler {
      type: "xavier"
    }
    bias_filler {
      type: "constant"
      value: 0.2
    }
  }
}
layer {
  name: "reshape_frames"
  type: "Reshape"
  bottom: "embedded_in_frames"
  top: "embedded_input_frames"
  reshape_param {
    shape {
      dim: 1
      dim: 1
      dim: 500
    }
  }
}
layer {
  name: "reshape_stage_indicator"
  type: "Reshape"
  bottom: "stage_indicator"
  top: "reshaped_stage_indicator"
  reshape_param {
    shape {
      dim: 1
      dim: 1
      dim: 1
    }
  }
}
layer {
  name: "embedding"
  type: "Embed"
  bottom: "input_sentence"
  top: "embedded_input_sentence"
  param {
    lr_mult: 1
  }
  embed_param {
    num_output: 500
    input_dim: 46168
    bias_term: false
    weight_filler {
      type: "uniform"
      min: -0.08
      max: 0.08
    }
  }
}
layer {
  name: "lstm1"
  type: "LSTM"
  bottom: "embedded_input_frames"
  bottom: "cont_sentence"
  top: "lstm1"
  recurrent_param {
    num_output: 1000
    weight_filler {
      type: "uniform"
      min: -0.08
      max: 0.08
    }
    bias_filler {
      type: "constant"
      value: 0
    }
  }
}
layer {
  name: "concat"
  type: "Concat"
  bottom: "lstm1"
  bottom: "embedded_input_sentence"
  bottom: "reshaped_stage_indicator"
  top: "lstm1_video_sequence"
  concat_param {
    concat_dim: 2
  }
}
layer {
  name: "lstm2"
  type: "LSTM"
  bottom: "lstm1_video_sequence"
  bottom: "cont_sentence"
  top: "lstm2"
  recurrent_param {
    num_output: 1000
    weight_filler {
      type: "uniform"
      min: -0.08
      max: 0.08
    }
    bias_filler {
      type: "constant"
      value: 0
    }
  }
}
layer {
  name: "predict"
  type: "InnerProduct"
  bottom: "lstm2"
  top: "predict"
  param {
    lr_mult: 1
    decay_mult: 1
  }
  param {
    lr_mult: 2
    decay_mult: 0
  }
  inner_product_param {
    num_output: 46168
    weight_filler {
      type: "uniform"
      min: -0.08
      max: 0.08
    }
    bias_filler {
      type: "constant"
      value: 0
    }
    axis: 2
  }
}
layer {
  name: "probs"
  type: "Softmax"
  bottom: "predict"
  top: "probs"
  softmax_param {
    axis: 2
  }
}
I0924 04:01:04.626564 15865 net.cpp:49] Initializing net from parameters: 
name: "s2vt:features_to_lstm"
state {
  phase: TEST
}
layer {
  name: "input"
  type: "Input"
  top: "frames_fc7"
  top: "cont_sentence"
  top: "input_sentence"
  top: "stage_indicator"
  input_param {
    shape {
      dim: 1
      dim: 4096
    }
    shape {
      dim: 1
      dim: 1
    }
    shape {
      dim: 1
      dim: 1
    }
    shape {
      dim: 1
      dim: 1
    }
  }
}
layer {
  name: "embed_encoder"
  type: "InnerProduct"
  bottom: "frames_fc7"
  top: "embedded_in_frames"
  param {
    lr_mult: 1
    decay_mult: 1
  }
  param {
    lr_mult: 2
    decay_mult: 0
  }
  inner_product_param {
    num_output: 500
    weight_filler {
      type: "xavier"
    }
    bias_filler {
      type: "constant"
      value: 0.2
    }
  }
}
layer {
  name: "reshape_frames"
  type: "Reshape"
  bottom: "embedded_in_frames"
  top: "embedded_input_frames"
  reshape_param {
    shape {
      dim: 1
      dim: 1
      dim: 500
    }
  }
}
layer {
  name: "reshape_stage_indicator"
  type: "Reshape"
  bottom: "stage_indicator"
  top: "reshaped_stage_indicator"
  reshape_param {
    shape {
      dim: 1
      dim: 1
      dim: 1
    }
  }
}
layer {
  name: "embedding"
  type: "Embed"
  bottom: "input_sentence"
  top: "embedded_input_sentence"
  param {
    lr_mult: 1
  }
  embed_param {
    num_output: 500
    input_dim: 46168
    bias_term: false
    weight_filler {
      type: "uniform"
      min: -0.08
      max: 0.08
    }
  }
}
layer {
  name: "lstm1"
  type: "LSTM"
  bottom: "embedded_input_frames"
  bottom: "cont_sentence"
  top: "lstm1"
  recurrent_param {
    num_output: 1000
    weight_filler {
      type: "uniform"
      min: -0.08
      max: 0.08
    }
    bias_filler {
      type: "constant"
      value: 0
    }
  }
}
layer {
  name: "concat"
  type: "Concat"
  bottom: "lstm1"
  bottom: "embedded_input_sentence"
  bottom: "reshaped_stage_indicator"
  top: "lstm1_video_sequence"
  concat_param {
    concat_dim: 2
  }
}
layer {
  name: "lstm2"
  type: "LSTM"
  bottom: "lstm1_video_sequence"
  bottom: "cont_sentence"
  top: "lstm2"
  recurrent_param {
    num_output: 1000
    weight_filler {
      type: "uniform"
      min: -0.08
      max: 0.08
    }
    bias_filler {
      type: "constant"
      value: 0
    }
  }
}
layer {
  name: "predict"
  type: "InnerProduct"
  bottom: "lstm2"
  top: "predict"
  param {
    lr_mult: 1
    decay_mult: 1
  }
  param {
    lr_mult: 2
    decay_mult: 0
  }
  inner_product_param {
    num_output: 46168
    weight_filler {
      type: "uniform"
      min: -0.08
      max: 0.08
    }
    bias_filler {
      type: "constant"
      value: 0
    }
    axis: 2
  }
}
layer {
  name: "probs"
  type: "Softmax"
  bottom: "predict"
  top: "probs"
  softmax_param {
    axis: 2
  }
}
I0924 04:01:04.626571 15833 net.cpp:49] Initializing net from parameters: 
name: "s2vt:features_to_lstm"
state {
  phase: TEST
}
layer {
  name: "input"
  type: "Input"
  top: "frames_fc7"
  top: "cont_sentence"
  top: "input_sentence"
  top: "stage_indicator"
  input_param {
    shape {
      dim: 1
      dim: 4096
    }
    shape {
      dim: 1
      dim: 1
    }
    shape {
      dim: 1
      dim: 1
    }
    shape {
      dim: 1
      dim: 1
    }
  }
}
layer {
  name: "embed_encoder"
  type: "InnerProduct"
  bottom: "frames_fc7"
  top: "embedded_in_frames"
  param {
    lr_mult: 1
    decay_mult: 1
  }
  param {
    lr_mult: 2
    decay_mult: 0
  }
  inner_product_param {
    num_output: 500
    weight_filler {
      type: "xavier"
    }
    bias_filler {
      type: "constant"
      value: 0.2
    }
  }
}
layer {
  name: "reshape_frames"
  type: "Reshape"
  bottom: "embedded_in_frames"
  top: "embedded_input_frames"
  reshape_param {
    shape {
      dim: 1
      dim: 1
      dim: 500
    }
  }
}
layer {
  name: "reshape_stage_indicator"
  type: "Reshape"
  bottom: "stage_indicator"
  top: "reshaped_stage_indicator"
  reshape_param {
    shape {
      dim: 1
      dim: 1
      dim: 1
    }
  }
}
layer {
  name: "embedding"
  type: "Embed"
  bottom: "input_sentence"
  top: "embedded_input_sentence"
  param {
    lr_mult: 1
  }
  embed_param {
    num_output: 500
    input_dim: 46168
    bias_term: false
    weight_filler {
      type: "uniform"
      min: -0.08
      max: 0.08
    }
  }
}
layer {
  name: "lstm1"
  type: "LSTM"
  bottom: "embedded_input_frames"
  bottom: "cont_sentence"
  top: "lstm1"
  recurrent_param {
    num_output: 1000
    weight_filler {
      type: "uniform"
      min: -0.08
      max: 0.08
    }
    bias_filler {
      type: "constant"
      value: 0
    }
  }
}
layer {
  name: "concat"
  type: "Concat"
  bottom: "lstm1"
  bottom: "embedded_input_sentence"
  bottom: "reshaped_stage_indicator"
  top: "lstm1_video_sequence"
  concat_param {
    concat_dim: 2
  }
}
layer {
  name: "lstm2"
  type: "LSTM"
  bottom: "lstm1_video_sequence"
  bottom: "cont_sentence"
  top: "lstm2"
  recurrent_param {
    num_output: 1000
    weight_filler {
      type: "uniform"
      min: -0.08
      max: 0.08
    }
    bias_filler {
      type: "constant"
      value: 0
    }
  }
}
layer {
  name: "predict"
  type: "InnerProduct"
  bottom: "lstm2"
  top: "predict"
  param {
    lr_mult: 1
    decay_mult: 1
  }
  param {
    lr_mult: 2
    decay_mult: 0
  }
  inner_product_param {
    num_output: 46168
    weight_filler {
      type: "uniform"
      min: -0.08
      max: 0.08
    }
    bias_filler {
      type: "constant"
      value: 0
    }
    axis: 2
  }
}
layer {
  name: "probs"
  type: "Softmax"
  bottom: "predict"
  top: "probs"
  softmax_param {
    axis: 2
  }
}
I0924 04:01:04.626629 15821 layer_factory.hpp:77] Creating layer input
I0924 04:01:04.626634 15857 layer_factory.hpp:77] Creating layer input
I0924 04:01:04.626633 15814 layer_factory.hpp:77] Creating layer input
I0924 04:01:04.626633 15839 layer_factory.hpp:77] Creating layer input
I0924 04:01:04.626662 15857 net.cpp:91] Creating Layer input
…
I0924 04:01:04.629079 15865 net.cpp:399] input -> input_sentence
I0924 04:01:04.629096 15865 net.cpp:399] input -> stage_indicator
I0924 04:01:04.629168 15825 net.cpp:49] Initializing net from parameters: 
name: "s2vt:features_to_lstm"
state {
  phase: TEST
}
layer {
  name: "input"
  type: "Input"
  top: "frames_fc7"
  top: "cont_sentence"
  top: "input_sentence"
  top: "stage_indicator"
  input_param {
    shape {
      dim: 1
      dim: 4096
    }
    shape {
      dim: 1
      dim: 1
    }
    shape {
      dim: 1
      dim: 1
    }
    shape {
      dim: 1
      dim: 1
    }
  }
}
layer {
  name: "embed_encoder"
  type: "InnerProduct"
  bottom: "frames_fc7"
  top: "embedded_in_frames"
  param {
    lr_mult: 1
    decay_mult: 1
  }
  param {
    lr_mult: 2
    decay_mult: 0
  }
  inner_product_param {
    num_output: 500
    weight_filler {
      type: "xavier"
    }
    bias_filler {
      type: "constant"
      value: 0.2
    }
  }
}
layer {
  name: "reshape_frames"
  type: "Reshape"
  bottom: "embedded_in_frames"
  top: "embedded_input_frames"
  reshape_param {
    shape {
      dim: 1
      dim: 1
      dim: 500
    }
  }
}
layer {
  name: "reshape_stage_indicator"
  type: "Reshape"
  bottom: "stage_indicator"
  top: "reshaped_stage_indicator"
  reshape_param {
    shape {
      dim: 1
      dim: 1
      dim: 1
    }
  }
}
layer {
  name: "embedding"
  type: "Embed"
  bottom: "input_sentence"
  top: "embedded_input_sentence"
  param {
    lr_mult: 1
  }
  embed_param {
    num_output: 500
    input_dim: 46168
    bias_term: false
    weight_filler {
      type: "uniform"
      min: -0.08
      max: 0.08
    }
  }
}
layer {
  name: "lstm1"
  type: "LSTM"
  bottom: "embedded_input_frames"
  bottom: "cont_sentence"
  top: "lstm1"
  recurrent_param {
    num_output: 1000
    weight_filler {
      type: "uniform"
      min: -0.08
      max: 0.08
    }
    bias_filler {
      type: "constant"
      value: 0
    }
  }
}
layer {
  name: "concat"
  type: "Concat"
  bottom: "lstm1"
  bottom: "embedded_input_sentence"
  bottom: "reshaped_stage_indicator"
  top: "lstm1_video_sequence"
  concat_param {
    concat_dim: 2
  }
}
layer {
  name: "lstm2"
  type: "LSTM"
  bottom: "lstm1_video_sequence"
  bottom: "cont_sentence"
  top: "lstm2"
  recurrent_param {
    num_output: 1000
    weight_filler {
      type: "uniform"
      min: -0.08
      max: 0.08
    }
    bias_filler {
      type: "constant"
      value: 0
    }
  }
}
layer {
  name: "predict"
  type: "InnerProduct"
  bottom: "lstm2"
  top: "predict"
  param {
    lr_mult: 1
    decay_mult: 1
  }
  param {
    lr_mult: 2
    decay_mult: 0
  }
  inner_product_param {
    num_output: 46168
    weight_filler {
      type: "uniform"
      min: -0.08
      max: 0.08
    }
    bias_filler {
      type: "constant"
      value: 0
    }
    axis: 2
  }
}
layer {
  name: "probs"
  type: "Softmax"
  bottom: "predict"
  top: "probs"
  softmax_param {
    axis: 2
  }
}
I0924 04:01:04.629182 15818 net.cpp:49] Initializing net from parameters: 
name: "s2vt:features_to_lstm"
state {
  phase: TEST
}
layer {
  name: "input"
  type: "Input"
  top: "frames_fc7"
  top: "cont_sentence"
  top: "input_sentence"
  top: "stage_indicator"
  input_param {
    shape {
      dim: 1
      dim: 4096
    }
    shape {
      dim: 1
      dim: 1
    }
    shape {
      dim: 1
      dim: 1
    }
    shape {
      dim: 1
      dim: 1
    }
  }
}
layer {
  name: "embed_encoder"
  type: "InnerProduct"
  bottom: "frames_fc7"
  top: "embedded_in_frames"
  param {
    lr_mult: 1
    decay_mult: 1
  }
  param {
    lr_mult: 2
    decay_mult: 0
  }
  inner_product_param {
    num_output: 500
    weight_filler {
      type: "xavier"
    }
    bias_filler {
      type: "constant"
      value: 0.2
    }
  }
}
layer {
  name: "reshape_frames"
  type: "Reshape"
  bottom: "embedded_in_frames"
  top: "embedded_input_frames"
  reshape_param {
    shape {
      dim: 1
      dim: 1
      dim: 500
    }
  }
}
layer {
  name: "reshape_stage_indicator"
  type: "Reshape"
  bottom: "stage_indicator"
  top: "reshaped_stage_indicator"
  reshape_param {
    shape {
      dim: 1
      dim: 1
      dim: 1
    }
  }
}
layer {
  name: "embedding"
  type: "Embed"
  bottom: "input_sentence"
  top: "embedded_input_sentence"
  param {
    lr_mult: 1
  }
  embed_param {
    num_output: 500
    input_dim: 46168
    bias_term: false
    weight_filler {
      type: "uniform"
      min: -0.08
      max: 0.08
    }
  }
}
layer {
  name: "lstm1"
  type: "LSTM"
  bottom: "embedded_input_frames"
  bottom: "cont_sentence"
  top: "lstm1"
  recurrent_param {
    num_output: 1000
    weight_filler {
      type: "uniform"
      min: -0.08
      max: 0.08
    }
    bias_filler {
      type: "constant"
      value: 0
    }
  }
}
layer {
  name: "concat"
  type: "Concat"
  bottom: "lstm1"
  bottom: "embedded_input_sentence"
  bottom: "reshaped_stage_indicator"
  top: "lstm1_video_sequence"
  concat_param {
    concat_dim: 2
  }
}
layer {
  name: "lstm2"
  type: "LSTM"
  bottom: "lstm1_video_sequence"
  bottom: "cont_sentence"
  top: "lstm2"
  recurrent_param {
    num_output: 1000
    weight_filler {
      type: "uniform"
      min: -0.08
      max: 0.08
    }
    bias_filler {
      type: "constant"
      value: 0
    }
  }
}
layer {
  name: "predict"
  type: "InnerProduct"
  bottom: "lstm2"
  top: "predict"
  param {
    lr_mult: 1
    decay_mult: 1
  }
  param {
    lr_mult: 2
    decay_mult: 0
  }
  inner_product_param {
    num_output: 46168
    weight_filler {
      type: "uniform"
      min: -0.08
      max: 0.08
    }
    bias_filler {
      type: "constant"
      value: 0
    }
    axis: 2
  }
}
layer {
  name: "probs"
  type: "Softmax"
  bottom: "predict"
  top: "probs"
  softmax_param {
    axis: 2
  }
}
I0924 04:01:04.629320 15818 layer_factory.hpp:77] Creating layer input
I0924 04:01:04.629334 15818 net.cpp:91] Creating Layer input
I0924 04:01:04.629335 15825 layer_factory.hpp:77] Creating layer input
I0924 04:01:04.629341 15818 net.cpp:399] input -> frames_fc7
I0924 04:01:04.629362 15825 net.cpp:91] Creating Layer input
I0924 04:01:04.629365 15818 net.cpp:399] input -> cont_sentence
I0924 04:01:04.629386 15825 net.cpp:399] input -> frames_fc7
I0924 04:01:04.629393 15818 net.cpp:399] input -> input_sentence
I0924 04:01:04.629415 15818 net.cpp:399] input -> stage_indicator
I0924 04:01:04.629418 15825 net.cpp:399] input -> cont_sentence
I0924 04:01:04.629439 15825 net.cpp:399] input -> input_sentence
I0924 04:01:04.629451 15841 net.cpp:49] Initializing net from parameters: 
name: "CaffeNet"
state {
  phase: TEST
}
layer {
  name: "data"
  type: "Input"
  top: "data"
  input_param {
    shape {
      dim: 10
      dim: 3
      dim: 227
      dim: 227
    }
  }
}
layer {
  name: "conv1"
  type: "Convolution"
  bottom: "data"
  top: "conv1"
  convolution_param {
    num_output: 96
    kernel_size: 11
    stride: 4
  }
}
layer {
  name: "relu1"
  type: "ReLU"
  bottom: "conv1"
  top: "conv1"
}
layer {
  name: "pool1"
  type: "Pooling"
  bottom: "conv1"
  top: "pool1"
  pooling_param {
    pool: MAX
    kernel_size: 3
    stride: 2
  }
}
layer {
  name: "norm1"
  type: "LRN"
  bottom: "pool1"
  top: "norm1"
  lrn_param {
    local_size: 5
    alpha: 0.0001
    beta: 0.75
  }
}
layer {
  name: "conv2"
  type: "Convolution"
  bottom: "norm1"
  top: "conv2"
  convolution_param {
    num_output: 256
    pad: 2
    kernel_size: 5
    group: 2
  }
}
layer {
  name: "relu2"
  type: "ReLU"
  bottom: "conv2"
  top: "conv2"
}
layer {
  name: "pool2"
  type: "Pooling"
  bottom: "conv2"
  top: "pool2"
  pooling_param {
    pool: MAX
    kernel_size: 3
    stride: 2
  }
}
layer {
  name: "norm2"
  type: "LRN"
  bottom: "pool2"
  top: "norm2"
  lrn_param {
    local_size: 5
    alpha: 0.0001
    beta: 0.75
  }
}
layer {
  name: "conv3"
  type: "Convolution"
  bottom: "norm2"
  top: "conv3"
  convolution_param {
    num_output: 384
    pad: 1
    kernel_size: 3
  }
}
layer {
  name: "relu3"
  type: "ReLU"
  bottom: "conv3"
  top: "conv3"
}
layer {
  name: "conv4"
  type: "Convolution"
  bottom: "conv3"
  top: "conv4"
  convolution_param {
    num_output: 384
    pad: 1
    kernel_size: 3
    group: 2
  }
}
layer {
  name: "relu4"
  type: "ReLU"
  bottom: "conv4"
  top: "conv4"
}
layer {
  name: "conv5"
  type: "Convolution"
  bottom: "conv4"
  top: "conv5"
  convolution_param {
    num_output: 256
    pad: 1
    kernel_size: 3
    group: 2
  }
}
layer {
  name: "relu5"
  type: "ReLU"
  bottom: "conv5"
  top: "conv5"
}
layer {
  name: "pool5"
  type: "Pooling"
  bottom: "conv5"
  top: "pool5"
  pooling_param {
    pool: MAX
    kernel_size: 3
    stride: 2
  }
}
layer {
  name: "fc6"
  type: "InnerProduct"
  bottom: "pool5"
  top: "fc6"
  inner_product_param {
    num_output: 4096
  }
}
layer {
  name: "relu6"
  type: "ReLU"
  bottom: "fc6"
  top: "fc6"
}
layer {
  name: "drop6"
  type: "Dropout"
  bottom: "fc6"
  top: "fc6"
  dropout_param {
    dropout_ratio: 0.5
  }
}
layer {
  name: "fc7"
  type: "InnerProduct"
  bottom: "fc6"
  top: "fc7"
  inner_product_param {
    num_output: 4096
  }
}
layer {
  name: "relu7"
  type: "ReLU"
  bottom: "fc7"
  top: "fc7"
}
layer {
  name: "drop7"
  type: "Dropout"
  bottom: "fc7"
  top: "fc7"
  dropout_param {
    dropout_ratio: 0.5
  }
}
layer {
  name: "fc8"
  type: "InnerProduct"
  bottom: "fc7"
  top: "fc8"
  inner_product_param {
    num_output: 1000
  }
}
layer {
  name: "prob"
  type: "Softmax"
  bottom: "fc8"
  top: "prob"
}
I0924 04:01:04.629459 15825 net.cpp:399] input -> stage_indicator
I0924 04:01:04.629567 15841 layer_factory.hpp:77] Creating layer data
I0924 04:01:04.629583 15841 net.cpp:91] Creating Layer data
I0924 04:01:04.629590 15841 net.cpp:399] data -> data
I0924 04:01:05.624680 15841 net.cpp:141] Setting up data
I0924 04:01:05.624685 15857 net.cpp:141] Setting up input
I0924 04:01:05.624821 15857 net.cpp:148] Top shape: 1 4096 (4096)
I0924 04:01:05.624821 15841 net.cpp:148] Top shape: 10 3 227 227 (1545870)
I0924 04:01:05.624840 15857 net.cpp:148] Top shape: 1 1 (1)
I0924 04:01:05.624846 15857 net.cpp:148] Top shape: 1 1 (1)
I0924 04:01:05.624841 15841 net.cpp:156] Memory required for data: 6183480
I0924 04:01:05.624852 15857 net.cpp:148] Top shape: 1 1 (1)
I0924 04:01:05.624857 15857 net.cpp:156] Memory required for data: 16396
I0924 04:01:05.624867 15841 layer_factory.hpp:77] Creating layer conv1
I0924 04:01:05.624913 15841 net.cpp:91] Creating Layer conv1
I0924 04:01:05.624923 15841 net.cpp:425] conv1 <- data
I0924 04:01:05.624938 15841 net.cpp:399] conv1 -> conv1
I0924 04:01:05.624964 15825 net.cpp:141] Setting up input
I0924 04:01:05.624975 15825 net.cpp:148] Top shape: 1 4096 (4096)
I0924 04:01:05.624982 15825 net.cpp:148] Top shape: 1 1 (1)
I0924 04:01:05.624989 15825 net.cpp:148] Top shape: 1 1 (1)
I0924 04:01:05.624994 15825 net.cpp:148] Top shape: 1 1 (1)
I0924 04:01:05.624999 15825 net.cpp:156] Memory required for data: 16396
I0924 04:01:05.625005 15825 layer_factory.hpp:77] Creating layer cont_sentence_input_1_split
I0924 04:01:05.625015 15814 net.cpp:141] Setting up input
I0924 04:01:05.624869 15857 layer_factory.hpp:77] Creating layer cont_sentence_input_1_split
I0924 04:01:05.625023 15825 net.cpp:91] Creating Layer cont_sentence_input_1_split
I0924 04:01:05.625036 15857 net.cpp:91] Creating Layer cont_sentence_input_1_split
I0924 04:01:05.625038 15814 net.cpp:148] Top shape: 1 4096 (4096)
I0924 04:01:05.625042 15857 net.cpp:425] cont_sentence_input_1_split <- cont_sentence
I0924 04:01:05.625042 15825 net.cpp:425] cont_sentence_input_1_split <- cont_sentence
I0924 04:01:05.625046 15814 net.cpp:148] Top shape: 1 1 (1)
I0924 04:01:05.625052 15814 net.cpp:148] Top shape: 1 1 (1)
I0924 04:01:05.625057 15814 net.cpp:148] Top shape: 1 1 (1)
I0924 04:01:05.625062 15814 net.cpp:156] Memory required for data: 16396
I0924 04:01:05.625064 15825 net.cpp:399] cont_sentence_input_1_split -> cont_sentence_input_1_split_0
I0924 04:01:05.625063 15857 net.cpp:399] cont_sentence_input_1_split -> cont_sentence_input_1_split_0
I0924 04:01:05.625079 15825 net.cpp:399] cont_sentence_input_1_split -> cont_sentence_input_1_split_1
I0924 04:01:05.625066 15833 net.cpp:141] Setting up input
I0924 04:01:05.625068 15814 layer_factory.hpp:77] Creating layer cont_sentence_input_1_split
I0924 04:01:05.625103 15865 net.cpp:141] Setting up input
I0924 04:01:05.625084 15857 net.cpp:399] cont_sentence_input_1_split -> cont_sentence_input_1_split_1
I0924 04:01:05.625124 15865 net.cpp:148] Top shape: 1 4096 (4096)
I0924 04:01:05.625113 15833 net.cpp:148] Top shape: 1 4096 (4096)
I0924 04:01:05.625123 15814 net.cpp:91] Creating Layer cont_sentence_input_1_split
I0924 04:01:05.625136 15865 net.cpp:148] Top shape: 1 1 (1)
I0924 04:01:05.625139 15814 net.cpp:425] cont_sentence_input_1_split <- cont_sentence
I0924 04:01:05.625144 15865 net.cpp:148] Top shape: 1 1 (1)
I0924 04:01:05.625140 15833 net.cpp:148] Top shape: 1 1 (1)
I0924 04:01:05.625150 15865 net.cpp:148] Top shape: 1 1 (1)
I0924 04:01:05.625154 15814 net.cpp:399] cont_sentence_input_1_split -> cont_sentence_input_1_split_0
I0924 04:01:05.625154 15825 net.cpp:141] Setting up cont_sentence_input_1_split
I0924 04:01:05.625169 15865 net.cpp:156] Memory required for data: 16396
I0924 04:01:05.625160 15833 net.cpp:148] Top shape: 1 1 (1)
I0924 04:01:05.625176 15825 net.cpp:148] Top shape: 1 1 (1)
I0924 04:01:05.625176 15814 net.cpp:399] cont_sentence_input_1_split -> cont_sentence_input_1_split_1
I0924 04:01:05.625186 15825 net.cpp:148] Top shape: 1 1 (1)
I0924 04:01:05.625182 15833 net.cpp:148] Top shape: 1 1 (1)
I0924 04:01:05.625183 15865 layer_factory.hpp:77] Creating layer cont_sentence_input_1_split
I0924 04:01:05.625200 15833 net.cpp:156] Memory required for data: 16396
I0924 04:01:05.625195 15825 net.cpp:156] Memory required for data: 16404
I0924 04:01:05.625211 15833 layer_factory.hpp:77] Creating layer cont_sentence_input_1_split
I0924 04:01:05.625216 15825 layer_factory.hpp:77] Creating layer embed_encoder
I0924 04:01:05.625222 15833 net.cpp:91] Creating Layer cont_sentence_input_1_split
I0924 04:01:05.625216 15865 net.cpp:91] Creating Layer cont_sentence_input_1_split
I0924 04:01:05.625231 15833 net.cpp:425] cont_sentence_input_1_split <- cont_sentence
I0924 04:01:05.625231 15865 net.cpp:425] cont_sentence_input_1_split <- cont_sentence
I0924 04:01:05.625241 15865 net.cpp:399] cont_sentence_input_1_split -> cont_sentence_input_1_split_0
I0924 04:01:05.625243 15833 net.cpp:399] cont_sentence_input_1_split -> cont_sentence_input_1_split_0
I0924 04:01:05.625243 15825 net.cpp:91] Creating Layer embed_encoder
I0924 04:01:05.625257 15865 net.cpp:399] cont_sentence_input_1_split -> cont_sentence_input_1_split_1
I0924 04:01:05.625258 15833 net.cpp:399] cont_sentence_input_1_split -> cont_sentence_input_1_split_1
I0924 04:01:05.625259 15825 net.cpp:425] embed_encoder <- frames_fc7
I0924 04:01:05.625277 15825 net.cpp:399] embed_encoder -> embedded_in_frames
I0924 04:01:05.625321 15818 net.cpp:141] Setting up input
I0924 04:01:05.625334 15818 net.cpp:148] Top shape: 1 4096 (4096)
I0924 04:01:05.625339 15818 net.cpp:148] Top shape: 1 1 (1)
I0924 04:01:05.625345 15818 net.cpp:148] Top shape: 1 1 (1)
I0924 04:01:05.625350 15818 net.cpp:148] Top shape: 1 1 (1)
I0924 04:01:05.625355 15818 net.cpp:156] Memory required for data: 16396
I0924 04:01:05.625360 15818 layer_factory.hpp:77] Creating layer cont_sentence_input_1_split
I0924 04:01:05.625355 15857 net.cpp:141] Setting up cont_sentence_input_1_split
I0924 04:01:05.625368 15818 net.cpp:91] Creating Layer cont_sentence_input_1_split
I0924 04:01:05.625373 15818 net.cpp:425] cont_sentence_input_1_split <- cont_sentence
I0924 04:01:05.625376 15857 net.cpp:148] Top shape: 1 1 (1)
I0924 04:01:05.625391 15818 net.cpp:399] cont_sentence_input_1_split -> cont_sentence_input_1_split_0
I0924 04:01:05.625391 15857 net.cpp:148] Top shape: 1 1 (1)
I0924 04:01:05.625399 15857 net.cpp:156] Memory required for data: 16404
I0924 04:01:05.625401 15818 net.cpp:399] cont_sentence_input_1_split -> cont_sentence_input_1_split_1
I0924 04:01:05.625412 15857 layer_factory.hpp:77] Creating layer embed_encoder
I0924 04:01:05.625416 15814 net.cpp:141] Setting up cont_sentence_input_1_split
I0924 04:01:05.625429 15814 net.cpp:148] Top shape: 1 1 (1)
I0924 04:01:05.625433 15857 net.cpp:91] Creating Layer embed_encoder
I0924 04:01:05.625440 15814 net.cpp:148] Top shape: 1 1 (1)
I0924 04:01:05.625442 15857 net.cpp:425] embed_encoder <- frames_fc7
I0924 04:01:05.625448 15814 net.cpp:156] Memory required for data: 16404
I0924 04:01:05.625457 15857 net.cpp:399] embed_encoder -> embedded_in_frames
I0924 04:01:05.625458 15814 layer_factory.hpp:77] Creating layer embed_encoder
I0924 04:01:05.625469 15818 net.cpp:141] Setting up cont_sentence_input_1_split
I0924 04:01:05.625479 15818 net.cpp:148] Top shape: 1 1 (1)
I0924 04:01:05.625485 15818 net.cpp:148] Top shape: 1 1 (1)
I0924 04:01:05.625484 15814 net.cpp:91] Creating Layer embed_encoder
I0924 04:01:05.625490 15818 net.cpp:156] Memory required for data: 16404
I0924 04:01:05.625495 15818 layer_factory.hpp:77] Creating layer embed_encoder
I0924 04:01:05.625496 15814 net.cpp:425] embed_encoder <- frames_fc7
I0924 04:01:05.625505 15818 net.cpp:91] Creating Layer embed_encoder
I0924 04:01:05.625511 15818 net.cpp:425] embed_encoder <- frames_fc7
I0924 04:01:05.625514 15814 net.cpp:399] embed_encoder -> embedded_in_frames
I0924 04:01:05.625521 15818 net.cpp:399] embed_encoder -> embedded_in_frames
I0924 04:01:05.630046 15833 net.cpp:141] Setting up cont_sentence_input_1_split
I0924 04:01:05.630110 15833 net.cpp:148] Top shape: 1 1 (1)
I0924 04:01:05.630127 15833 net.cpp:148] Top shape: 1 1 (1)
I0924 04:01:05.630136 15833 net.cpp:156] Memory required for data: 16404
I0924 04:01:05.630152 15833 layer_factory.hpp:77] Creating layer embed_encoder
I0924 04:01:05.630190 15833 net.cpp:91] Creating Layer embed_encoder
I0924 04:01:05.630205 15833 net.cpp:425] embed_encoder <- frames_fc7
I0924 04:01:05.630229 15833 net.cpp:399] embed_encoder -> embedded_in_frames
I0924 04:01:05.636031 15869 net.cpp:141] Setting up input
I0924 04:01:05.636077 15869 net.cpp:148] Top shape: 1 4096 (4096)
I0924 04:01:05.636086 15869 net.cpp:148] Top shape: 1 1 (1)
I0924 04:01:05.636095 15869 net.cpp:148] Top shape: 1 1 (1)
I0924 04:01:05.636099 15869 net.cpp:148] Top shape: 1 1 (1)
I0924 04:01:05.636106 15869 net.cpp:156] Memory required for data: 16396
I0924 04:01:05.636124 15869 layer_factory.hpp:77] Creating layer cont_sentence_input_1_split
I0924 04:01:05.636152 15869 net.cpp:91] Creating Layer cont_sentence_input_1_split
I0924 04:01:05.636160 15869 net.cpp:425] cont_sentence_input_1_split <- cont_sentence
I0924 04:01:05.636173 15869 net.cpp:399] cont_sentence_input_1_split -> cont_sentence_input_1_split_0
I0924 04:01:05.636188 15869 net.cpp:399] cont_sentence_input_1_split -> cont_sentence_input_1_split_1
I0924 04:01:05.641064 15839 net.cpp:141] Setting up input
I0924 04:01:05.641124 15839 net.cpp:148] Top shape: 1 4096 (4096)
I0924 04:01:05.641140 15839 net.cpp:148] Top shape: 1 1 (1)
I0924 04:01:05.641154 15839 net.cpp:148] Top shape: 1 1 (1)
I0924 04:01:05.641165 15839 net.cpp:148] Top shape: 1 1 (1)
I0924 04:01:05.641173 15839 net.cpp:156] Memory required for data: 16396
I0924 04:01:05.641190 15839 layer_factory.hpp:77] Creating layer cont_sentence_input_1_split
I0924 04:01:05.641216 15839 net.cpp:91] Creating Layer cont_sentence_input_1_split
I0924 04:01:05.641228 15839 net.cpp:425] cont_sentence_input_1_split <- cont_sentence
I0924 04:01:05.641247 15839 net.cpp:399] cont_sentence_input_1_split -> cont_sentence_input_1_split_0
I0924 04:01:05.641271 15839 net.cpp:399] cont_sentence_input_1_split -> cont_sentence_input_1_split_1
I0924 04:01:05.648138 15865 net.cpp:141] Setting up cont_sentence_input_1_split
I0924 04:01:05.648185 15865 net.cpp:148] Top shape: 1 1 (1)
I0924 04:01:05.648203 15865 net.cpp:148] Top shape: 1 1 (1)
I0924 04:01:05.648214 15865 net.cpp:156] Memory required for data: 16404
I0924 04:01:05.648231 15865 layer_factory.hpp:77] Creating layer embed_encoder
I0924 04:01:05.648273 15865 net.cpp:91] Creating Layer embed_encoder
I0924 04:01:05.648289 15865 net.cpp:425] embed_encoder <- frames_fc7
I0924 04:01:05.648314 15865 net.cpp:399] embed_encoder -> embedded_in_frames
I0924 04:01:05.653690 15821 net.cpp:141] Setting up input
I0924 04:01:05.653738 15821 net.cpp:148] Top shape: 1 4096 (4096)
I0924 04:01:05.653751 15821 net.cpp:148] Top shape: 1 1 (1)
I0924 04:01:05.653764 15821 net.cpp:148] Top shape: 1 1 (1)
I0924 04:01:05.653774 15821 net.cpp:148] Top shape: 1 1 (1)
I0924 04:01:05.653784 15821 net.cpp:156] Memory required for data: 16396
I0924 04:01:05.653798 15821 layer_factory.hpp:77] Creating layer cont_sentence_input_1_split
I0924 04:01:05.653826 15821 net.cpp:91] Creating Layer cont_sentence_input_1_split
I0924 04:01:05.653837 15821 net.cpp:425] cont_sentence_input_1_split <- cont_sentence
I0924 04:01:05.653854 15821 net.cpp:399] cont_sentence_input_1_split -> cont_sentence_input_1_split_0
I0924 04:01:05.653877 15821 net.cpp:399] cont_sentence_input_1_split -> cont_sentence_input_1_split_1
I0924 04:01:05.653966 15821 net.cpp:141] Setting up cont_sentence_input_1_split
I0924 04:01:05.653983 15821 net.cpp:148] Top shape: 1 1 (1)
I0924 04:01:05.653995 15821 net.cpp:148] Top shape: 1 1 (1)
I0924 04:01:05.654002 15821 net.cpp:156] Memory required for data: 16404
I0924 04:01:05.654011 15821 layer_factory.hpp:77] Creating layer embed_encoder
I0924 04:01:05.654036 15821 net.cpp:91] Creating Layer embed_encoder
I0924 04:01:05.654044 15821 net.cpp:425] embed_encoder <- frames_fc7
I0924 04:01:05.654059 15821 net.cpp:399] embed_encoder -> embedded_in_frames
I0924 04:01:05.668007 15869 net.cpp:141] Setting up cont_sentence_input_1_split
I0924 04:01:05.668092 15869 net.cpp:148] Top shape: 1 1 (1)
I0924 04:01:05.668118 15869 net.cpp:148] Top shape: 1 1 (1)
I0924 04:01:05.668134 15869 net.cpp:156] Memory required for data: 16404
I0924 04:01:05.668154 15869 layer_factory.hpp:77] Creating layer embed_encoder
I0924 04:01:05.668196 15869 net.cpp:91] Creating Layer embed_encoder
I0924 04:01:05.668222 15869 net.cpp:425] embed_encoder <- frames_fc7
I0924 04:01:05.668263 15869 net.cpp:399] embed_encoder -> embedded_in_frames
I0924 04:01:05.677150 15839 net.cpp:141] Setting up cont_sentence_input_1_split
I0924 04:01:05.677207 15839 net.cpp:148] Top shape: 1 1 (1)
I0924 04:01:05.677220 15839 net.cpp:148] Top shape: 1 1 (1)
I0924 04:01:05.677225 15839 net.cpp:156] Memory required for data: 16404
I0924 04:01:05.677239 15839 layer_factory.hpp:77] Creating layer embed_encoder
I0924 04:01:05.677393 15839 net.cpp:91] Creating Layer embed_encoder
I0924 04:01:05.677410 15839 net.cpp:425] embed_encoder <- frames_fc7
I0924 04:01:05.677433 15839 net.cpp:399] embed_encoder -> embedded_in_frames
I0924 04:01:05.678661 15833 net.cpp:141] Setting up embed_encoder
I0924 04:01:05.678696 15833 net.cpp:148] Top shape: 1 500 (500)
I0924 04:01:05.678704 15833 net.cpp:156] Memory required for data: 18404
I0924 04:01:05.678740 15833 layer_factory.hpp:77] Creating layer reshape_frames
I0924 04:01:05.678773 15833 net.cpp:91] Creating Layer reshape_frames
I0924 04:01:05.678784 15833 net.cpp:425] reshape_frames <- embedded_in_frames
I0924 04:01:05.678799 15833 net.cpp:399] reshape_frames -> embedded_input_frames
I0924 04:01:05.678869 15833 net.cpp:141] Setting up reshape_frames
I0924 04:01:05.678884 15833 net.cpp:148] Top shape: 1 1 500 (500)
I0924 04:01:05.678889 15833 net.cpp:156] Memory required for data: 20404
I0924 04:01:05.678897 15833 layer_factory.hpp:77] Creating layer reshape_stage_indicator
I0924 04:01:05.678915 15833 net.cpp:91] Creating Layer reshape_stage_indicator
I0924 04:01:05.678923 15833 net.cpp:425] reshape_stage_indicator <- stage_indicator
I0924 04:01:05.678937 15833 net.cpp:399] reshape_stage_indicator -> reshaped_stage_indicator
I0924 04:01:05.679010 15833 net.cpp:141] Setting up reshape_stage_indicator
I0924 04:01:05.679028 15833 net.cpp:148] Top shape: 1 1 1 (1)
I0924 04:01:05.679038 15833 net.cpp:156] Memory required for data: 20408
I0924 04:01:05.679047 15833 layer_factory.hpp:77] Creating layer embedding
I0924 04:01:05.679075 15833 net.cpp:91] Creating Layer embedding
I0924 04:01:05.679086 15833 net.cpp:425] embedding <- input_sentence
I0924 04:01:05.679105 15833 net.cpp:399] embedding -> embedded_input_sentence
I0924 04:01:05.730363 15814 net.cpp:141] Setting up embed_encoder
I0924 04:01:05.730424 15814 net.cpp:148] Top shape: 1 500 (500)
I0924 04:01:05.730434 15814 net.cpp:156] Memory required for data: 18404
I0924 04:01:05.730466 15814 layer_factory.hpp:77] Creating layer reshape_frames
I0924 04:01:05.730494 15814 net.cpp:91] Creating Layer reshape_frames
I0924 04:01:05.730505 15814 net.cpp:425] reshape_frames <- embedded_in_frames
I0924 04:01:05.730525 15814 net.cpp:399] reshape_frames -> embedded_input_frames
I0924 04:01:05.732102 15821 net.cpp:141] Setting up embed_encoder
I0924 04:01:05.732157 15821 net.cpp:148] Top shape: 1 500 (500)
I0924 04:01:05.732167 15821 net.cpp:156] Memory required for data: 18404
I0924 04:01:05.732197 15821 layer_factory.hpp:77] Creating layer reshape_frames
I0924 04:01:05.732230 15821 net.cpp:91] Creating Layer reshape_frames
I0924 04:01:05.732244 15821 net.cpp:425] reshape_frames <- embedded_in_frames
I0924 04:01:05.732260 15821 net.cpp:399] reshape_frames -> embedded_input_frames
I0924 04:01:05.732326 15821 net.cpp:141] Setting up reshape_frames
I0924 04:01:05.732342 15821 net.cpp:148] Top shape: 1 1 500 (500)
I0924 04:01:05.732348 15821 net.cpp:156] Memory required for data: 20404
I0924 04:01:05.732355 15821 layer_factory.hpp:77] Creating layer reshape_stage_indicator
I0924 04:01:05.732373 15821 net.cpp:91] Creating Layer reshape_stage_indicator
I0924 04:01:05.732383 15821 net.cpp:425] reshape_stage_indicator <- stage_indicator
I0924 04:01:05.732399 15821 net.cpp:399] reshape_stage_indicator -> reshaped_stage_indicator
I0924 04:01:05.732458 15821 net.cpp:141] Setting up reshape_stage_indicator
I0924 04:01:05.732475 15821 net.cpp:148] Top shape: 1 1 1 (1)
I0924 04:01:05.732481 15821 net.cpp:156] Memory required for data: 20408
I0924 04:01:05.732492 15821 layer_factory.hpp:77] Creating layer embedding
I0924 04:01:05.732511 15821 net.cpp:91] Creating Layer embedding
I0924 04:01:05.732519 15821 net.cpp:425] embedding <- input_sentence
I0924 04:01:05.732537 15821 net.cpp:399] embedding -> embedded_input_sentence
I0924 04:01:05.784981 15857 net.cpp:141] Setting up embed_encoder
I0924 04:01:05.785045 15857 net.cpp:148] Top shape: 1 500 (500)
I0924 04:01:05.785053 15857 net.cpp:156] Memory required for data: 18404
I0924 04:01:05.785079 15857 layer_factory.hpp:77] Creating layer reshape_frames
I0924 04:01:05.785109 15857 net.cpp:91] Creating Layer reshape_frames
I0924 04:01:05.785117 15857 net.cpp:425] reshape_frames <- embedded_in_frames
I0924 04:01:05.785128 15857 net.cpp:399] reshape_frames -> embedded_input_frames
I0924 04:01:05.789324 15825 net.cpp:141] Setting up embed_encoder
I0924 04:01:05.789361 15825 net.cpp:148] Top shape: 1 500 (500)
I0924 04:01:05.789367 15825 net.cpp:156] Memory required for data: 18404
I0924 04:01:05.789387 15825 layer_factory.hpp:77] Creating layer reshape_frames
I0924 04:01:05.789407 15825 net.cpp:91] Creating Layer reshape_frames
I0924 04:01:05.789413 15825 net.cpp:425] reshape_frames <- embedded_in_frames
I0924 04:01:05.789423 15825 net.cpp:399] reshape_frames -> embedded_input_frames
I0924 04:01:05.796164 15814 net.cpp:141] Setting up reshape_frames
I0924 04:01:05.796217 15814 net.cpp:148] Top shape: 1 1 500 (500)
I0924 04:01:05.796223 15814 net.cpp:156] Memory required for data: 20404
I0924 04:01:05.796232 15814 layer_factory.hpp:77] Creating layer reshape_stage_indicator
I0924 04:01:05.796257 15814 net.cpp:91] Creating Layer reshape_stage_indicator
I0924 04:01:05.796257 15857 net.cpp:141] Setting up reshape_frames
I0924 04:01:05.796263 15814 net.cpp:425] reshape_stage_indicator <- stage_indicator
I0924 04:01:05.796286 15857 net.cpp:148] Top shape: 1 1 500 (500)
I0924 04:01:05.796291 15857 net.cpp:156] Memory required for data: 20404
I0924 04:01:05.796299 15814 net.cpp:399] reshape_stage_indicator -> reshaped_stage_indicator
I0924 04:01:05.796301 15857 layer_factory.hpp:77] Creating layer reshape_stage_indicator
I0924 04:01:05.796329 15857 net.cpp:91] Creating Layer reshape_stage_indicator
I0924 04:01:05.796335 15857 net.cpp:425] reshape_stage_indicator <- stage_indicator
I0924 04:01:05.796345 15857 net.cpp:399] reshape_stage_indicator -> reshaped_stage_indicator
I0924 04:01:05.796419 15825 net.cpp:141] Setting up reshape_frames
I0924 04:01:05.796437 15825 net.cpp:148] Top shape: 1 1 500 (500)
I0924 04:01:05.796442 15825 net.cpp:156] Memory required for data: 20404
I0924 04:01:05.796448 15825 layer_factory.hpp:77] Creating layer reshape_stage_indicator
I0924 04:01:05.796460 15825 net.cpp:91] Creating Layer reshape_stage_indicator
I0924 04:01:05.796466 15825 net.cpp:425] reshape_stage_indicator <- stage_indicator
I0924 04:01:05.796468 15814 net.cpp:141] Setting up reshape_stage_indicator
I0924 04:01:05.796483 15814 net.cpp:148] Top shape: 1 1 1 (1)
I0924 04:01:05.796489 15814 net.cpp:156] Memory required for data: 20408
I0924 04:01:05.796495 15814 layer_factory.hpp:77] Creating layer embedding
I0924 04:01:05.796495 15825 net.cpp:399] reshape_stage_indicator -> reshaped_stage_indicator
I0924 04:01:05.796500 15857 net.cpp:141] Setting up reshape_stage_indicator
I0924 04:01:05.796509 15814 net.cpp:91] Creating Layer embedding
I0924 04:01:05.796512 15857 net.cpp:148] Top shape: 1 1 1 (1)
I0924 04:01:05.796514 15814 net.cpp:425] embedding <- input_sentence
I0924 04:01:05.796526 15857 net.cpp:156] Memory required for data: 20408
I0924 04:01:05.796535 15857 layer_factory.hpp:77] Creating layer embedding
I0924 04:01:05.796535 15814 net.cpp:399] embedding -> embedded_input_sentence
I0924 04:01:05.796550 15857 net.cpp:91] Creating Layer embedding
I0924 04:01:05.796560 15857 net.cpp:425] embedding <- input_sentence
I0924 04:01:05.796576 15857 net.cpp:399] embedding -> embedded_input_sentence
I0924 04:01:05.796679 15825 net.cpp:141] Setting up reshape_stage_indicator
I0924 04:01:05.796696 15825 net.cpp:148] Top shape: 1 1 1 (1)
I0924 04:01:05.796703 15825 net.cpp:156] Memory required for data: 20408
I0924 04:01:05.796711 15825 layer_factory.hpp:77] Creating layer embedding
I0924 04:01:05.796725 15825 net.cpp:91] Creating Layer embedding
I0924 04:01:05.796733 15825 net.cpp:425] embedding <- input_sentence
I0924 04:01:05.796754 15825 net.cpp:399] embedding -> embedded_input_sentence
I0924 04:01:05.796756 15818 net.cpp:141] Setting up embed_encoder
I0924 04:01:05.796775 15818 net.cpp:148] Top shape: 1 500 (500)
I0924 04:01:05.796784 15818 net.cpp:156] Memory required for data: 18404
I0924 04:01:05.796808 15818 layer_factory.hpp:77] Creating layer reshape_frames
I0924 04:01:05.796819 15818 net.cpp:91] Creating Layer reshape_frames
I0924 04:01:05.796825 15818 net.cpp:425] reshape_frames <- embedded_in_frames
I0924 04:01:05.796856 15818 net.cpp:399] reshape_frames -> embedded_input_frames
I0924 04:01:05.942343 15818 net.cpp:141] Setting up reshape_frames
I0924 04:01:05.942432 15818 net.cpp:148] Top shape: 1 1 500 (500)
I0924 04:01:05.942451 15818 net.cpp:156] Memory required for data: 20404
I0924 04:01:05.942471 15818 layer_factory.hpp:77] Creating layer reshape_stage_indicator
I0924 04:01:05.942524 15818 net.cpp:91] Creating Layer reshape_stage_indicator
I0924 04:01:05.942544 15818 net.cpp:425] reshape_stage_indicator <- stage_indicator
I0924 04:01:05.942574 15818 net.cpp:399] reshape_stage_indicator -> reshaped_stage_indicator
I0924 04:01:05.942899 15865 net.cpp:141] Setting up embed_encoder
I0924 04:01:05.942934 15865 net.cpp:148] Top shape: 1 500 (500)
I0924 04:01:05.942939 15865 net.cpp:156] Memory required for data: 18404
I0924 04:01:05.942960 15865 layer_factory.hpp:77] Creating layer reshape_frames
I0924 04:01:05.942982 15865 net.cpp:91] Creating Layer reshape_frames
I0924 04:01:05.942989 15865 net.cpp:425] reshape_frames <- embedded_in_frames
I0924 04:01:05.943003 15865 net.cpp:399] reshape_frames -> embedded_input_frames
I0924 04:01:05.943019 15818 net.cpp:141] Setting up reshape_stage_indicator
I0924 04:01:05.943048 15818 net.cpp:148] Top shape: 1 1 1 (1)
I0924 04:01:05.943063 15818 net.cpp:156] Memory required for data: 20408
I0924 04:01:05.943078 15818 layer_factory.hpp:77] Creating layer embedding
I0924 04:01:05.943110 15833 net.cpp:141] Setting up embedding
I0924 04:01:05.943116 15818 net.cpp:91] Creating Layer embedding
I0924 04:01:05.943157 15833 net.cpp:148] Top shape: 1 1 500 (500)
I0924 04:01:05.943167 15833 net.cpp:156] Memory required for data: 22408
I0924 04:01:05.943171 15818 net.cpp:425] embedding <- input_sentence
I0924 04:01:05.943186 15833 layer_factory.hpp:77] Creating layer lstm1
I0924 04:01:05.943198 15818 net.cpp:399] embedding -> embedded_input_sentence
I0924 04:01:05.943222 15833 net.cpp:91] Creating Layer lstm1
I0924 04:01:05.943234 15833 net.cpp:425] lstm1 <- embedded_input_frames
I0924 04:01:05.943244 15833 net.cpp:425] lstm1 <- cont_sentence_input_1_split_0
I0924 04:01:05.943259 15833 net.cpp:399] lstm1 -> lstm1
I0924 04:01:05.943260 15869 net.cpp:141] Setting up embed_encoder
I0924 04:01:05.943279 15869 net.cpp:148] Top shape: 1 500 (500)
I0924 04:01:05.943289 15869 net.cpp:156] Memory required for data: 18404
I0924 04:01:05.943297 15833 recurrent_layer.cpp:20] Initializing recurrent layer: assuming input batch contains 1 timesteps of 1 independent streams.
I0924 04:01:05.943300 15865 net.cpp:141] Setting up reshape_frames
I0924 04:01:05.943311 15869 layer_factory.hpp:77] Creating layer reshape_frames
I0924 04:01:05.943315 15865 net.cpp:148] Top shape: 1 1 500 (500)
I0924 04:01:05.943321 15865 net.cpp:156] Memory required for data: 20404
I0924 04:01:05.943330 15869 net.cpp:91] Creating Layer reshape_frames
I0924 04:01:05.943330 15865 layer_factory.hpp:77] Creating layer reshape_stage_indicator
I0924 04:01:05.943356 15869 net.cpp:425] reshape_frames <- embedded_in_frames
I0924 04:01:05.943367 15865 net.cpp:91] Creating Layer reshape_stage_indicator
I0924 04:01:05.943372 15869 net.cpp:399] reshape_frames -> embedded_input_frames
I0924 04:01:05.943375 15865 net.cpp:425] reshape_stage_indicator <- stage_indicator
I0924 04:01:05.943388 15865 net.cpp:399] reshape_stage_indicator -> reshaped_stage_indicator
I0924 04:01:05.943809 15833 net.cpp:49] Initializing net from parameters: 
layer {
  name: "lstm1_"
  type: "Input"
  top: "x"
  top: "cont"
  input_param {
    shape {
      dim: 1
      dim: 1
      dim: 500
    }
    shape {
      dim: 1
      dim: 1
    }
  }
}
layer {
  name: "lstm1_"
  type: "Input"
  top: "c_0"
  top: "h_0"
  input_param {
    shape {
      dim: 1
      dim: 1
      dim: 1000
    }
    shape {
      dim: 1
      dim: 1
      dim: 1000
    }
  }
}
layer {
  name: "lstm1_cont_slice"
  type: "Slice"
  bottom: "cont"
  top: "cont_1"
  slice_param {
    axis: 0
  }
}
layer {
  name: "lstm1_x_transform"
  type: "InnerProduct"
  bottom: "x"
  top: "W_xc_x"
  param {
    name: "W_xc"
  }
  param {
    name: "b_c"
  }
  propagate_down: true
  inner_product_param {
    num_output: 4000
    bias_term: true
    weight_filler {
      type: "uniform"
      min: -0.08
      max: 0.08
    }
    bias_filler {
      type: "constant"
      value: 0
    }
    axis: 2
  }
}
layer {
  name: "lstm1_W_xc_x_slice"
  type: "Slice"
  bottom: "W_xc_x"
  top: "W_xc_x_1"
  slice_param {
    axis: 0
  }
}
layer {
  name: "lstm1_h_conted_0"
  type: "Scale"
  bottom: "h_0"
  bottom: "cont_1"
  top: "h_conted_0"
  scale_param {
    axis: 0
  }
}
layer {
  name: "lstm1_transform_1"
  type: "InnerProduct"
  bottom: "h_conted_0"
  top: "W_hc_h_0"
  param {
    name: "W_hc"
  }
  inner_product_param {
    num_output: 4000
    bias_term: false
    weight_filler {
      type: "uniform"
      min: -0.08
      max: 0.08
    }
    axis: 2
  }
}
layer {
  name: "lstm1_gate_input_1"
  type: "Eltwise"
  bottom: "W_hc_h_0"
  bottom: "W_xc_x_1"
  top: "gate_input_1"
  eltwise_param {
    operation: SUM
  }
}
layer {
  name: "lstm1_unit_1"
  type: "LSTMUnit"
  bottom: "c_0"
  bottom: "gate_input_1"
  bottom: "cont_1"
  top: "c_1"
  top: "h_1"
}
layer {
  name: "lstm1_"
  type: "Split"
  bottom: "c_1"
  top: "c_T"
}
layer {
  name: "lstm1_h_concat"
  type: "Concat"
  bottom: "h_1"
  top: "h"
  concat_param {
    axis: 0
  }
}
layer {
  name: "h_pseudoloss"
  type: "Reduction"
  bottom: "h"
  top: "h_pseudoloss"
  loss_weight: 1
}
I0924 04:01:05.943939 15833 layer_factory.hpp:77] Creating layer lstm1_
I0924 04:01:05.943958 15833 net.cpp:91] Creating Layer lstm1_
I0924 04:01:05.943967 15833 net.cpp:399] lstm1_ -> x
I0924 04:01:05.943984 15833 net.cpp:399] lstm1_ -> cont
I0924 04:01:05.955359 15869 net.cpp:141] Setting up reshape_frames
I0924 04:01:05.955411 15869 net.cpp:148] Top shape: 1 1 500 (500)
I0924 04:01:05.955420 15869 net.cpp:156] Memory required for data: 20404
I0924 04:01:05.955431 15869 layer_factory.hpp:77] Creating layer reshape_stage_indicator
I0924 04:01:05.955456 15869 net.cpp:91] Creating Layer reshape_stage_indicator
I0924 04:01:05.955466 15869 net.cpp:425] reshape_stage_indicator <- stage_indicator
I0924 04:01:05.955482 15869 net.cpp:399] reshape_stage_indicator -> reshaped_stage_indicator
I0924 04:01:05.955548 15869 net.cpp:141] Setting up reshape_stage_indicator
I0924 04:01:05.955561 15869 net.cpp:148] Top shape: 1 1 1 (1)
I0924 04:01:05.955569 15869 net.cpp:156] Memory required for data: 20408
I0924 04:01:05.955575 15869 layer_factory.hpp:77] Creating layer embedding
I0924 04:01:05.955593 15869 net.cpp:91] Creating Layer embedding
I0924 04:01:05.955602 15869 net.cpp:425] embedding <- input_sentence
I0924 04:01:05.955615 15869 net.cpp:399] embedding -> embedded_input_sentence
I0924 04:01:06.002590 15865 net.cpp:141] Setting up reshape_stage_indicator
I0924 04:01:06.002671 15865 net.cpp:148] Top shape: 1 1 1 (1)
I0924 04:01:06.002686 15865 net.cpp:156] Memory required for data: 20408
I0924 04:01:06.002701 15865 layer_factory.hpp:77] Creating layer embedding
I0924 04:01:06.002730 15865 net.cpp:91] Creating Layer embedding
I0924 04:01:06.002743 15865 net.cpp:425] embedding <- input_sentence
I0924 04:01:06.002764 15865 net.cpp:399] embedding -> embedded_input_sentence
I0924 04:01:06.002822 15839 net.cpp:141] Setting up embed_encoder
I0924 04:01:06.002873 15839 net.cpp:148] Top shape: 1 500 (500)
I0924 04:01:06.002883 15839 net.cpp:156] Memory required for data: 18404
I0924 04:01:06.002918 15839 layer_factory.hpp:77] Creating layer reshape_frames
I0924 04:01:06.002950 15839 net.cpp:91] Creating Layer reshape_frames
I0924 04:01:06.002964 15839 net.cpp:425] reshape_frames <- embedded_in_frames
I0924 04:01:06.002985 15839 net.cpp:399] reshape_frames -> embedded_input_frames
I0924 04:01:06.010632 15821 net.cpp:141] Setting up embedding
I0924 04:01:06.010687 15821 net.cpp:148] Top shape: 1 1 500 (500)
I0924 04:01:06.010684 15833 net.cpp:141] Setting up lstm1_
I0924 04:01:06.010706 15821 net.cpp:156] Memory required for data: 22408
I0924 04:01:06.010720 15833 net.cpp:148] Top shape: 1 1 500 (500)
I0924 04:01:06.010735 15833 net.cpp:148] Top shape: 1 1 (1)
I0924 04:01:06.010737 15821 layer_factory.hpp:77] Creating layer lstm1
I0924 04:01:06.010742 15833 net.cpp:156] Memory required for data: 2004
I0924 04:01:06.010751 15833 layer_factory.hpp:77] Creating layer lstm1_
I0924 04:01:06.010906 15821 net.cpp:91] Creating Layer lstm1
I0924 04:01:06.010921 15821 net.cpp:425] lstm1 <- embedded_input_frames
I0924 04:01:06.010933 15821 net.cpp:425] lstm1 <- cont_sentence_input_1_split_0
I0924 04:01:06.010951 15821 net.cpp:399] lstm1 -> lstm1
I0924 04:01:06.010977 15821 recurrent_layer.cpp:20] Initializing recurrent layer: assuming input batch contains 1 timesteps of 1 independent streams.
I0924 04:01:06.011414 15821 net.cpp:49] Initializing net from parameters: 
layer {
  name: "lstm1_"
  type: "Input"
  top: "x"
  top: "cont"
  input_param {
    shape {
      dim: 1
      dim: 1
      dim: 500
    }
    shape {
      dim: 1
      dim: 1
    }
  }
}
layer {
  name: "lstm1_"
  type: "Input"
  top: "c_0"
  top: "h_0"
  input_param {
    shape {
      dim: 1
      dim: 1
      dim: 1000
    }
    shape {
      dim: 1
      dim: 1
      dim: 1000
    }
  }
}
layer {
  name: "lstm1_cont_slice"
  type: "Slice"
  bottom: "cont"
  top: "cont_1"
  slice_param {
    axis: 0
  }
}
layer {
  name: "lstm1_x_transform"
  type: "InnerProduct"
  bottom: "x"
  top: "W_xc_x"
  param {
    name: "W_xc"
  }
  param {
    name: "b_c"
  }
  propagate_down: true
  inner_product_param {
    num_output: 4000
    bias_term: true
    weight_filler {
      type: "uniform"
      min: -0.08
      max: 0.08
    }
    bias_filler {
      type: "constant"
      value: 0
    }
    axis: 2
  }
}
layer {
  name: "lstm1_W_xc_x_slice"
  type: "Slice"
  bottom: "W_xc_x"
  top: "W_xc_x_1"
  slice_param {
    axis: 0
  }
}
layer {
  name: "lstm1_h_conted_0"
  type: "Scale"
  bottom: "h_0"
  bottom: "cont_1"
  top: "h_conted_0"
  scale_param {
    axis: 0
  }
}
layer {
  name: "lstm1_transform_1"
  type: "InnerProduct"
  bottom: "h_conted_0"
  top: "W_hc_h_0"
  param {
    name: "W_hc"
  }
  inner_product_param {
    num_output: 4000
    bias_term: false
    weight_filler {
      type: "uniform"
      min: -0.08
      max: 0.08
    }
    axis: 2
  }
}
layer {
  name: "lstm1_gate_input_1"
  type: "Eltwise"
  bottom: "W_hc_h_0"
  bottom: "W_xc_x_1"
  top: "gate_input_1"
  eltwise_param {
    operation: SUM
  }
}
layer {
  name: "lstm1_unit_1"
  type: "LSTMUnit"
  bottom: "c_0"
  bottom: "gate_input_1"
  bottom: "cont_1"
  top: "c_1"
  top: "h_1"
}
layer {
  name: "lstm1_"
  type: "Split"
  bottom: "c_1"
  top: "c_T"
}
layer {
  name: "lstm1_h_concat"
  type: "Concat"
  bottom: "h_1"
  top: "h"
  concat_param {
    axis: 0
  }
}
layer {
  name: "h_pseudoloss"
  type: "Reduction"
  bottom: "h"
  top: "h_pseudoloss"
  loss_weight: 1
}
I0924 04:01:06.011555 15821 layer_factory.hpp:77] Creating layer lstm1_
I0924 04:01:06.011572 15821 net.cpp:91] Creating Layer lstm1_
I0924 04:01:06.011582 15821 net.cpp:399] lstm1_ -> x
I0924 04:01:06.011600 15821 net.cpp:399] lstm1_ -> cont
I0924 04:01:06.018664 15833 net.cpp:91] Creating Layer lstm1_
I0924 04:01:06.018733 15833 net.cpp:399] lstm1_ -> c_0
I0924 04:01:06.018764 15833 net.cpp:399] lstm1_ -> h_0
I0924 04:01:06.106714 15825 net.cpp:141] Setting up embedding
I0924 04:01:06.106868 15839 net.cpp:141] Setting up reshape_frames
I0924 04:01:06.106889 15839 net.cpp:148] Top shape: 1 1 500 (500)
I0924 04:01:06.106887 15833 net.cpp:141] Setting up lstm1_
I0924 04:01:06.106899 15839 net.cpp:156] Memory required for data: 20404
I0924 04:01:06.106909 15833 net.cpp:148] Top shape: 1 1 1000 (1000)
I0924 04:01:06.106912 15839 layer_factory.hpp:77] Creating layer reshape_stage_indicator
I0924 04:01:06.106920 15833 net.cpp:148] Top shape: 1 1 1000 (1000)
I0924 04:01:06.106920 15821 net.cpp:141] Setting up lstm1_
I0924 04:01:06.106927 15833 net.cpp:156] Memory required for data: 10004
I0924 04:01:06.106945 15821 net.cpp:148] Top shape: 1 1 500 (500)
I0924 04:01:06.106945 15833 layer_factory.hpp:77] Creating layer lstm1_cont_slice
I0924 04:01:06.106952 15821 net.cpp:148] Top shape: 1 1 (1)
I0924 04:01:06.106957 15821 net.cpp:156] Memory required for data: 2004
I0924 04:01:06.106945 15839 net.cpp:91] Creating Layer reshape_stage_indicator
I0924 04:01:06.106964 15821 layer_factory.hpp:77] Creating layer lstm1_
I0924 04:01:06.106971 15839 net.cpp:425] reshape_stage_indicator <- stage_indicator
I0924 04:01:06.106976 15833 net.cpp:91] Creating Layer lstm1_cont_slice
I0924 04:01:06.106981 15821 net.cpp:91] Creating Layer lstm1_
I0924 04:01:06.106986 15833 net.cpp:425] lstm1_cont_slice <- cont
I0924 04:01:06.106997 15833 net.cpp:399] lstm1_cont_slice -> cont_1
I0924 04:01:06.106995 15839 net.cpp:399] reshape_stage_indicator -> reshaped_stage_indicator
I0924 04:01:06.106997 15821 net.cpp:399] lstm1_ -> c_0
I0924 04:01:06.107033 15821 net.cpp:399] lstm1_ -> h_0
I0924 04:01:06.107077 15839 net.cpp:141] Setting up reshape_stage_indicator
I0924 04:01:06.107097 15839 net.cpp:148] Top shape: 1 1 1 (1)
I0924 04:01:06.107105 15839 net.cpp:156] Memory required for data: 20408
I0924 04:01:06.107115 15839 layer_factory.hpp:77] Creating layer embedding
I0924 04:01:06.107120 15833 net.cpp:141] Setting up lstm1_cont_slice
I0924 04:01:06.107138 15833 net.cpp:148] Top shape: 1 1 (1)
I0924 04:01:06.106958 15825 net.cpp:148] Top shape: 1 1 500 (500)
I0924 04:01:06.107146 15833 net.cpp:156] Memory required for data: 10008
I0924 04:01:06.107152 15825 net.cpp:156] Memory required for data: 22408
I0924 04:01:06.107156 15833 layer_factory.hpp:77] Creating layer cont_1_lstm1_cont_slice_0_split
I0924 04:01:06.107170 15833 net.cpp:91] Creating Layer cont_1_lstm1_cont_slice_0_split
I0924 04:01:06.107173 15825 layer_factory.hpp:77] Creating layer lstm1
I0924 04:01:06.107180 15833 net.cpp:425] cont_1_lstm1_cont_slice_0_split <- cont_1
I0924 04:01:06.107192 15825 net.cpp:91] Creating Layer lstm1
I0924 04:01:06.107197 15821 net.cpp:141] Setting up lstm1_
I0924 04:01:06.107203 15825 net.cpp:425] lstm1 <- embedded_input_frames
I0924 04:01:06.107210 15821 net.cpp:148] Top shape: 1 1 1000 (1000)
I0924 04:01:06.107216 15821 net.cpp:148] Top shape: 1 1 1000 (1000)
I0924 04:01:06.107235 15821 net.cpp:156] Memory required for data: 10004
I0924 04:01:06.107215 15825 net.cpp:425] lstm1 <- cont_sentence_input_1_split_0
I0924 04:01:06.107241 15821 layer_factory.hpp:77] Creating layer lstm1_cont_slice
I0924 04:01:06.107270 15839 net.cpp:91] Creating Layer embedding
I0924 04:01:06.107271 15825 net.cpp:399] lstm1 -> lstm1
I0924 04:01:06.107290 15839 net.cpp:425] embedding <- input_sentence
I0924 04:01:06.107273 15833 net.cpp:399] cont_1_lstm1_cont_slice_0_split -> cont_1_lstm1_cont_slice_0_split_0
I0924 04:01:06.107305 15839 net.cpp:399] embedding -> embedded_input_sentence
I0924 04:01:06.107311 15833 net.cpp:399] cont_1_lstm1_cont_slice_0_split -> cont_1_lstm1_cont_slice_0_split_1
I0924 04:01:06.107311 15825 recurrent_layer.cpp:20] Initializing recurrent layer: assuming input batch contains 1 timesteps of 1 independent streams.
I0924 04:01:06.107369 15821 net.cpp:91] Creating Layer lstm1_cont_slice
I0924 04:01:06.107383 15821 net.cpp:425] lstm1_cont_slice <- cont
I0924 04:01:06.107400 15821 net.cpp:399] lstm1_cont_slice -> cont_1
I0924 04:01:06.107451 15821 net.cpp:141] Setting up lstm1_cont_slice
I0924 04:01:06.107466 15821 net.cpp:148] Top shape: 1 1 (1)
I0924 04:01:06.107473 15821 net.cpp:156] Memory required for data: 10008
I0924 04:01:06.107481 15821 layer_factory.hpp:77] Creating layer cont_1_lstm1_cont_slice_0_split
I0924 04:01:06.107501 15821 net.cpp:91] Creating Layer cont_1_lstm1_cont_slice_0_split
I0924 04:01:06.107509 15821 net.cpp:425] cont_1_lstm1_cont_slice_0_split <- cont_1
I0924 04:01:06.107517 15821 net.cpp:399] cont_1_lstm1_cont_slice_0_split -> cont_1_lstm1_cont_slice_0_split_0
I0924 04:01:06.107525 15821 net.cpp:399] cont_1_lstm1_cont_slice_0_split -> cont_1_lstm1_cont_slice_0_split_1
I0924 04:01:06.107594 15833 net.cpp:141] Setting up cont_1_lstm1_cont_slice_0_split
I0924 04:01:06.107609 15833 net.cpp:148] Top shape: 1 1 (1)
I0924 04:01:06.107614 15833 net.cpp:148] Top shape: 1 1 (1)
I0924 04:01:06.107619 15833 net.cpp:156] Memory required for data: 10016
I0924 04:01:06.107623 15833 layer_factory.hpp:77] Creating layer lstm1_x_transform
I0924 04:01:06.107636 15833 net.cpp:91] Creating Layer lstm1_x_transform
I0924 04:01:06.107641 15833 net.cpp:425] lstm1_x_transform <- x
I0924 04:01:06.107656 15833 net.cpp:399] lstm1_x_transform -> W_xc_x
I0924 04:01:06.107782 15825 net.cpp:49] Initializing net from parameters: 
layer {
  name: "lstm1_"
  type: "Input"
  top: "x"
  top: "cont"
  input_param {
    shape {
      dim: 1
      dim: 1
      dim: 500
    }
    shape {
      dim: 1
      dim: 1
    }
  }
}
layer {
  name: "lstm1_"
  type: "Input"
  top: "c_0"
  top: "h_0"
  input_param {
    shape {
      dim: 1
      dim: 1
      dim: 1000
    }
    shape {
      dim: 1
      dim: 1
      dim: 1000
    }
  }
}
layer {
  name: "lstm1_cont_slice"
  type: "Slice"
  bottom: "cont"
  top: "cont_1"
  slice_param {
    axis: 0
  }
}
layer {
  name: "lstm1_x_transform"
  type: "InnerProduct"
  bottom: "x"
  top: "W_xc_x"
  param {
    name: "W_xc"
  }
  param {
    name: "b_c"
  }
  propagate_down: true
  inner_product_param {
    num_output: 4000
    bias_term: true
    weight_filler {
      type: "uniform"
      min: -0.08
      max: 0.08
    }
    bias_filler {
      type: "constant"
      value: 0
    }
    axis: 2
  }
}
layer {
  name: "lstm1_W_xc_x_slice"
  type: "Slice"
  bottom: "W_xc_x"
  top: "W_xc_x_1"
  slice_param {
    axis: 0
  }
}
layer {
  name: "lstm1_h_conted_0"
  type: "Scale"
  bottom: "h_0"
  bottom: "cont_1"
  top: "h_conted_0"
  scale_param {
    axis: 0
  }
}
layer {
  name: "lstm1_transform_1"
  type: "InnerProduct"
  bottom: "h_conted_0"
  top: "W_hc_h_0"
  param {
    name: "W_hc"
  }
  inner_product_param {
    num_output: 4000
    bias_term: false
    weight_filler {
      type: "uniform"
      min: -0.08
      max: 0.08
    }
    axis: 2
  }
}
layer {
  name: "lstm1_gate_input_1"
  type: "Eltwise"
  bottom: "W_hc_h_0"
  bottom: "W_xc_x_1"
  top: "gate_input_1"
  eltwise_param {
    operation: SUM
  }
}
layer {
  name: "lstm1_unit_1"
  type: "LSTMUnit"
  bottom: "c_0"
  bottom: "gate_input_1"
  bottom: "cont_1"
  top: "c_1"
  top: "h_1"
}
layer {
  name: "lstm1_"
  type: "Split"
  bottom: "c_1"
  top: "c_T"
}
layer {
  name: "lstm1_h_concat"
  type: "Concat"
  bottom: "h_1"
  top: "h"
  concat_param {
    axis: 0
  }
}
layer {
  name: "h_pseudoloss"
  type: "Reduction"
  bottom: "h"
  top: "h_pseudoloss"
  loss_weight: 1
}
I0924 04:01:06.107924 15821 net.cpp:141] Setting up cont_1_lstm1_cont_slice_0_split
I0924 04:01:06.107942 15821 net.cpp:148] Top shape: 1 1 (1)
I0924 04:01:06.107940 15825 layer_factory.hpp:77] Creating layer lstm1_
I0924 04:01:06.107965 15821 net.cpp:148] Top shape: 1 1 (1)
I0924 04:01:06.107983 15821 net.cpp:156] Memory required for data: 10016
I0924 04:01:06.107988 15821 layer_factory.hpp:77] Creating layer lstm1_x_transform
I0924 04:01:06.107990 15825 net.cpp:91] Creating Layer lstm1_
I0924 04:01:06.108001 15821 net.cpp:91] Creating Layer lstm1_x_transform
I0924 04:01:06.108006 15821 net.cpp:425] lstm1_x_transform <- x
I0924 04:01:06.108006 15825 net.cpp:399] lstm1_ -> x
I0924 04:01:06.108023 15821 net.cpp:399] lstm1_x_transform -> W_xc_x
I0924 04:01:06.108031 15825 net.cpp:399] lstm1_ -> cont
I0924 04:01:06.164217 15825 net.cpp:141] Setting up lstm1_
I0924 04:01:06.164286 15825 net.cpp:148] Top shape: 1 1 500 (500)
I0924 04:01:06.164302 15825 net.cpp:148] Top shape: 1 1 (1)
I0924 04:01:06.164309 15825 net.cpp:156] Memory required for data: 2004
I0924 04:01:06.164312 15814 net.cpp:141] Setting up embedding
I0924 04:01:06.164324 15825 layer_factory.hpp:77] Creating layer lstm1_
I0924 04:01:06.164364 15814 net.cpp:148] Top shape: 1 1 500 (500)
I0924 04:01:06.164384 15814 net.cpp:156] Memory required for data: 22408
I0924 04:01:06.164398 15825 net.cpp:91] Creating Layer lstm1_
I0924 04:01:06.164420 15825 net.cpp:399] lstm1_ -> c_0
I0924 04:01:06.164422 15814 layer_factory.hpp:77] Creating layer lstm1
I0924 04:01:06.164446 15825 net.cpp:399] lstm1_ -> h_0
I0924 04:01:06.164455 15814 net.cpp:91] Creating Layer lstm1
I0924 04:01:06.164476 15814 net.cpp:425] lstm1 <- embedded_input_frames
I0924 04:01:06.164497 15814 net.cpp:425] lstm1 <- cont_sentence_input_1_split_0
I0924 04:01:06.164533 15814 net.cpp:399] lstm1 -> lstm1
I0924 04:01:06.164567 15814 recurrent_layer.cpp:20] Initializing recurrent layer: assuming input batch contains 1 timesteps of 1 independent streams.
I0924 04:01:06.165199 15814 net.cpp:49] Initializing net from parameters: 
layer {
  name: "lstm1_"
  type: "Input"
  top: "x"
  top: "cont"
  input_param {
    shape {
      dim: 1
      dim: 1
      dim: 500
    }
    shape {
      dim: 1
      dim: 1
    }
  }
}
layer {
  name: "lstm1_"
  type: "Input"
  top: "c_0"
  top: "h_0"
  input_param {
    shape {
      dim: 1
      dim: 1
      dim: 1000
    }
    shape {
      dim: 1
      dim: 1
      dim: 1000
    }
  }
}
layer {
  name: "lstm1_cont_slice"
  type: "Slice"
  bottom: "cont"
  top: "cont_1"
  slice_param {
    axis: 0
  }
}
layer {
  name: "lstm1_x_transform"
  type: "InnerProduct"
  bottom: "x"
  top: "W_xc_x"
  param {
    name: "W_xc"
  }
  param {
    name: "b_c"
  }
  propagate_down: true
  inner_product_param {
    num_output: 4000
    bias_term: true
    weight_filler {
      type: "uniform"
      min: -0.08
      max: 0.08
    }
    bias_filler {
      type: "constant"
      value: 0
    }
    axis: 2
  }
}
layer {
  name: "lstm1_W_xc_x_slice"
  type: "Slice"
  bottom: "W_xc_x"
  top: "W_xc_x_1"
  slice_param {
    axis: 0
  }
}
layer {
  name: "lstm1_h_conted_0"
  type: "Scale"
  bottom: "h_0"
  bottom: "cont_1"
  top: "h_conted_0"
  scale_param {
    axis: 0
  }
}
layer {
  name: "lstm1_transform_1"
  type: "InnerProduct"
  bottom: "h_conted_0"
  top: "W_hc_h_0"
  param {
    name: "W_hc"
  }
  inner_product_param {
    num_output: 4000
    bias_term: false
    weight_filler {
      type: "uniform"
      min: -0.08
      max: 0.08
    }
    axis: 2
  }
}
layer {
  name: "lstm1_gate_input_1"
  type: "Eltwise"
  bottom: "W_hc_h_0"
  bottom: "W_xc_x_1"
  top: "gate_input_1"
  eltwise_param {
    operation: SUM
  }
}
layer {
  name: "lstm1_unit_1"
  type: "LSTMUnit"
  bottom: "c_0"
  bottom: "gate_input_1"
  bottom: "cont_1"
  top: "c_1"
  top: "h_1"
}
layer {
  name: "lstm1_"
  type: "Split"
  bottom: "c_1"
  top: "c_T"
}
layer {
  name: "lstm1_h_concat"
  type: "Concat"
  bottom: "h_1"
  top: "h"
  concat_param {
    axis: 0
  }
}
layer {
  name: "h_pseudoloss"
  type: "Reduction"
  bottom: "h"
  top: "h_pseudoloss"
  loss_weight: 1
}
I0924 04:01:06.165340 15814 layer_factory.hpp:77] Creating layer lstm1_
I0924 04:01:06.165359 15814 net.cpp:91] Creating Layer lstm1_
I0924 04:01:06.165369 15814 net.cpp:399] lstm1_ -> x
I0924 04:01:06.165385 15814 net.cpp:399] lstm1_ -> cont
I0924 04:01:06.164345 15857 net.cpp:141] Setting up embedding
I0924 04:01:06.166689 15857 net.cpp:148] Top shape: 1 1 500 (500)
I0924 04:01:06.166710 15857 net.cpp:156] Memory required for data: 22408
I0924 04:01:06.166740 15857 layer_factory.hpp:77] Creating layer lstm1
I0924 04:01:06.169982 15857 net.cpp:91] Creating Layer lstm1
I0924 04:01:06.170030 15857 net.cpp:425] lstm1 <- embedded_input_frames
I0924 04:01:06.170050 15857 net.cpp:425] lstm1 <- cont_sentence_input_1_split_0
I0924 04:01:06.170078 15857 net.cpp:399] lstm1 -> lstm1
I0924 04:01:06.170112 15857 recurrent_layer.cpp:20] Initializing recurrent layer: assuming input batch contains 1 timesteps of 1 independent streams.
I0924 04:01:06.170662 15857 net.cpp:49] Initializing net from parameters: 
layer {
  name: "lstm1_"
  type: "Input"
  top: "x"
  top: "cont"
  input_param {
    shape {
      dim: 1
      dim: 1
      dim: 500
    }
    shape {
      dim: 1
      dim: 1
    }
  }
}
layer {
  name: "lstm1_"
  type: "Input"
  top: "c_0"
  top: "h_0"
  input_param {
    shape {
      dim: 1
      dim: 1
      dim: 1000
    }
    shape {
      dim: 1
      dim: 1
      dim: 1000
    }
  }
}
layer {
  name: "lstm1_cont_slice"
  type: "Slice"
  bottom: "cont"
  top: "cont_1"
  slice_param {
    axis: 0
  }
}
layer {
  name: "lstm1_x_transform"
  type: "InnerProduct"
  bottom: "x"
  top: "W_xc_x"
  param {
    name: "W_xc"
  }
  param {
    name: "b_c"
  }
  propagate_down: true
  inner_product_param {
    num_output: 4000
    bias_term: true
    weight_filler {
      type: "uniform"
      min: -0.08
      max: 0.08
    }
    bias_filler {
      type: "constant"
      value: 0
    }
    axis: 2
  }
}
layer {
  name: "lstm1_W_xc_x_slice"
  type: "Slice"
  bottom: "W_xc_x"
  top: "W_xc_x_1"
  slice_param {
    axis: 0
  }
}
layer {
  name: "lstm1_h_conted_0"
  type: "Scale"
  bottom: "h_0"
  bottom: "cont_1"
  top: "h_conted_0"
  scale_param {
    axis: 0
  }
}
layer {
  name: "lstm1_transform_1"
  type: "InnerProduct"
  bottom: "h_conted_0"
  top: "W_hc_h_0"
  param {
    name: "W_hc"
  }
  inner_product_param {
    num_output: 4000
    bias_term: false
    weight_filler {
      type: "uniform"
      min: -0.08
      max: 0.08
    }
    axis: 2
  }
}
layer {
  name: "lstm1_gate_input_1"
  type: "Eltwise"
  bottom: "W_hc_h_0"
  bottom: "W_xc_x_1"
  top: "gate_input_1"
  eltwise_param {
    operation: SUM
  }
}
layer {
  name: "lstm1_unit_1"
  type: "LSTMUnit"
  bottom: "c_0"
  bottom: "gate_input_1"
  bottom: "cont_1"
  top: "c_1"
  top: "h_1"
}
layer {
  name: "lstm1_"
  type: "Split"
  bottom: "c_1"
  top: "c_T"
}
layer {
  name: "lstm1_h_concat"
  type: "Concat"
  bottom: "h_1"
  top: "h"
  concat_param {
    axis: 0
  }
}
layer {
  name: "h_pseudoloss"
  type: "Reduction"
  bottom: "h"
  top: "h_pseudoloss"
  loss_weight: 1
}
I0924 04:01:06.170877 15857 layer_factory.hpp:77] Creating layer lstm1_
I0924 04:01:06.170905 15857 net.cpp:91] Creating Layer lstm1_
I0924 04:01:06.170919 15857 net.cpp:399] lstm1_ -> x
I0924 04:01:06.170943 15857 net.cpp:399] lstm1_ -> cont
I0924 04:01:06.192643 15825 net.cpp:141] Setting up lstm1_
I0924 04:01:06.192672 15814 net.cpp:141] Setting up lstm1_
I0924 04:01:06.192725 15814 net.cpp:148] Top shape: 1 1 500 (500)
I0924 04:01:06.192725 15825 net.cpp:148] Top shape: 1 1 1000 (1000)
I0924 04:01:06.192737 15814 net.cpp:148] Top shape: 1 1 (1)
I0924 04:01:06.192741 15825 net.cpp:148] Top shape: 1 1 1000 (1000)
I0924 04:01:06.192745 15814 net.cpp:156] Memory required for data: 2004
I0924 04:01:06.192750 15825 net.cpp:156] Memory required for data: 10004
I0924 04:01:06.192760 15825 layer_factory.hpp:77] Creating layer lstm1_cont_slice
I0924 04:01:06.192760 15814 layer_factory.hpp:77] Creating layer lstm1_
I0924 04:01:06.192805 15814 net.cpp:91] Creating Layer lstm1_
I0924 04:01:06.192803 15825 net.cpp:91] Creating Layer lstm1_cont_slice
I0924 04:01:06.192832 15825 net.cpp:425] lstm1_cont_slice <- cont
I0924 04:01:06.192832 15814 net.cpp:399] lstm1_ -> c_0
I0924 04:01:06.192855 15825 net.cpp:399] lstm1_cont_slice -> cont_1
I0924 04:01:06.192859 15814 net.cpp:399] lstm1_ -> h_0
I0924 04:01:06.194113 15833 net.cpp:141] Setting up lstm1_x_transform
I0924 04:01:06.194159 15833 net.cpp:148] Top shape: 1 1 4000 (4000)
I0924 04:01:06.194169 15833 net.cpp:156] Memory required for data: 26016
I0924 04:01:06.194196 15833 layer_factory.hpp:77] Creating layer lstm1_W_xc_x_slice
I0924 04:01:06.194217 15833 net.cpp:91] Creating Layer lstm1_W_xc_x_slice
I0924 04:01:06.194227 15833 net.cpp:425] lstm1_W_xc_x_slice <- W_xc_x
I0924 04:01:06.194245 15833 net.cpp:399] lstm1_W_xc_x_slice -> W_xc_x_1
I0924 04:01:06.194303 15833 net.cpp:141] Setting up lstm1_W_xc_x_slice
I0924 04:01:06.194317 15833 net.cpp:148] Top shape: 1 1 4000 (4000)
I0924 04:01:06.194324 15833 net.cpp:156] Memory required for data: 42016
I0924 04:01:06.194334 15833 layer_factory.hpp:77] Creating layer lstm1_h_conted_0
I0924 04:01:06.194377 15833 net.cpp:91] Creating Layer lstm1_h_conted_0
I0924 04:01:06.194388 15833 net.cpp:425] lstm1_h_conted_0 <- h_0
I0924 04:01:06.194398 15833 net.cpp:425] lstm1_h_conted_0 <- cont_1_lstm1_cont_slice_0_split_0
I0924 04:01:06.194414 15833 net.cpp:399] lstm1_h_conted_0 -> h_conted_0
I0924 04:01:06.194563 15833 net.cpp:141] Setting up lstm1_h_conted_0
I0924 04:01:06.194577 15833 net.cpp:148] Top shape: 1 1 1000 (1000)
I0924 04:01:06.194586 15833 net.cpp:156] Memory required for data: 46016
I0924 04:01:06.194592 15833 layer_factory.hpp:77] Creating layer lstm1_transform_1
I0924 04:01:06.194629 15833 net.cpp:91] Creating Layer lstm1_transform_1
I0924 04:01:06.194638 15833 net.cpp:425] lstm1_transform_1 <- h_conted_0
I0924 04:01:06.194650 15833 net.cpp:399] lstm1_transform_1 -> W_hc_h_0
I0924 04:01:06.205127 15825 net.cpp:141] Setting up lstm1_cont_slice
I0924 04:01:06.205193 15825 net.cpp:148] Top shape: 1 1 (1)
I0924 04:01:06.205193 15857 net.cpp:141] Setting up lstm1_
I0924 04:01:06.205206 15825 net.cpp:156] Memory required for data: 10008
I0924 04:01:06.205219 15857 net.cpp:148] Top shape: 1 1 500 (500)
I0924 04:01:06.205221 15825 layer_factory.hpp:77] Creating layer cont_1_lstm1_cont_slice_0_split
I0924 04:01:06.205231 15857 net.cpp:148] Top shape: 1 1 (1)
I0924 04:01:06.205255 15825 net.cpp:91] Creating Layer cont_1_lstm1_cont_slice_0_split
I0924 04:01:06.205315 15814 net.cpp:141] Setting up lstm1_
I0924 04:01:06.205317 15857 net.cpp:156] Memory required for data: 2004
I0924 04:01:06.205317 15825 net.cpp:425] cont_1_lstm1_cont_slice_0_split <- cont_1
I0924 04:01:06.205337 15814 net.cpp:148] Top shape: 1 1 1000 (1000)
I0924 04:01:06.205339 15857 layer_factory.hpp:77] Creating layer lstm1_
I0924 04:01:06.205348 15814 net.cpp:148] Top shape: 1 1 1000 (1000)
I0924 04:01:06.205351 15825 net.cpp:399] cont_1_lstm1_cont_slice_0_split -> cont_1_lstm1_cont_slice_0_split_0
I0924 04:01:06.205354 15814 net.cpp:156] Memory required for data: 10004
I0924 04:01:06.205375 15814 layer_factory.hpp:77] Creating layer lstm1_cont_slice
I0924 04:01:06.205379 15857 net.cpp:91] Creating Layer lstm1_
I0924 04:01:06.205382 15825 net.cpp:399] cont_1_lstm1_cont_slice_0_split -> cont_1_lstm1_cont_slice_0_split_1
I0924 04:01:06.205397 15814 net.cpp:91] Creating Layer lstm1_cont_slice
I0924 04:01:06.205406 15814 net.cpp:425] lstm1_cont_slice <- cont
I0924 04:01:06.205406 15857 net.cpp:399] lstm1_ -> c_0
I0924 04:01:06.205426 15814 net.cpp:399] lstm1_cont_slice -> cont_1
I0924 04:01:06.205458 15857 net.cpp:399] lstm1_ -> h_0
I0924 04:01:06.233110 15814 net.cpp:141] Setting up lstm1_cont_slice
I0924 04:01:06.233180 15814 net.cpp:148] Top shape: 1 1 (1)
I0924 04:01:06.233191 15814 net.cpp:156] Memory required for data: 10008
I0924 04:01:06.233207 15814 layer_factory.hpp:77] Creating layer cont_1_lstm1_cont_slice_0_split
I0924 04:01:06.233232 15814 net.cpp:91] Creating Layer cont_1_lstm1_cont_slice_0_split
I0924 04:01:06.233243 15814 net.cpp:425] cont_1_lstm1_cont_slice_0_split <- cont_1
I0924 04:01:06.233271 15814 net.cpp:399] cont_1_lstm1_cont_slice_0_split -> cont_1_lstm1_cont_slice_0_split_0
I0924 04:01:06.233294 15814 net.cpp:399] cont_1_lstm1_cont_slice_0_split -> cont_1_lstm1_cont_slice_0_split_1
I0924 04:01:06.233387 15814 net.cpp:141] Setting up cont_1_lstm1_cont_slice_0_split
I0924 04:01:06.233403 15814 net.cpp:148] Top shape: 1 1 (1)
I0924 04:01:06.233415 15814 net.cpp:148] Top shape: 1 1 (1)
I0924 04:01:06.233424 15814 net.cpp:156] Memory required for data: 10016
I0924 04:01:06.233433 15814 layer_factory.hpp:77] Creating layer lstm1_x_transform
I0924 04:01:06.233458 15814 net.cpp:91] Creating Layer lstm1_x_transform
I0924 04:01:06.233466 15814 net.cpp:425] lstm1_x_transform <- x
I0924 04:01:06.233482 15814 net.cpp:399] lstm1_x_transform -> W_xc_x
I0924 04:01:06.239492 15821 net.cpp:141] Setting up lstm1_x_transform
I0924 04:01:06.239568 15821 net.cpp:148] Top shape: 1 1 4000 (4000)
I0924 04:01:06.239579 15821 net.cpp:156] Memory required for data: 26016
I0924 04:01:06.239615 15821 layer_factory.hpp:77] Creating layer lstm1_W_xc_x_slice
I0924 04:01:06.239644 15821 net.cpp:91] Creating Layer lstm1_W_xc_x_slice
I0924 04:01:06.239655 15821 net.cpp:425] lstm1_W_xc_x_slice <- W_xc_x
I0924 04:01:06.239670 15821 net.cpp:399] lstm1_W_xc_x_slice -> W_xc_x_1
I0924 04:01:06.239732 15821 net.cpp:141] Setting up lstm1_W_xc_x_slice
I0924 04:01:06.239748 15821 net.cpp:148] Top shape: 1 1 4000 (4000)
I0924 04:01:06.239754 15821 net.cpp:156] Memory required for data: 42016
I0924 04:01:06.239763 15821 layer_factory.hpp:77] Creating layer lstm1_h_conted_0
I0924 04:01:06.239784 15821 net.cpp:91] Creating Layer lstm1_h_conted_0
I0924 04:01:06.239794 15821 net.cpp:425] lstm1_h_conted_0 <- h_0
I0924 04:01:06.239802 15821 net.cpp:425] lstm1_h_conted_0 <- cont_1_lstm1_cont_slice_0_split_0
I0924 04:01:06.239814 15821 net.cpp:399] lstm1_h_conted_0 -> h_conted_0
I0924 04:01:06.240092 15821 net.cpp:141] Setting up lstm1_h_conted_0
I0924 04:01:06.240134 15821 net.cpp:148] Top shape: 1 1 1000 (1000)
I0924 04:01:06.240139 15821 net.cpp:156] Memory required for data: 46016
I0924 04:01:06.240149 15821 layer_factory.hpp:77] Creating layer lstm1_transform_1
I0924 04:01:06.240170 15821 net.cpp:91] Creating Layer lstm1_transform_1
I0924 04:01:06.240178 15821 net.cpp:425] lstm1_transform_1 <- h_conted_0
I0924 04:01:06.240191 15821 net.cpp:399] lstm1_transform_1 -> W_hc_h_0
I0924 04:01:06.249457 15825 net.cpp:141] Setting up cont_1_lstm1_cont_slice_0_split
I0924 04:01:06.249518 15825 net.cpp:148] Top shape: 1 1 (1)
I0924 04:01:06.249529 15825 net.cpp:148] Top shape: 1 1 (1)
I0924 04:01:06.249536 15825 net.cpp:156] Memory required for data: 10016
I0924 04:01:06.249547 15825 layer_factory.hpp:77] Creating layer lstm1_x_transform
I0924 04:01:06.249578 15825 net.cpp:91] Creating Layer lstm1_x_transform
I0924 04:01:06.249588 15825 net.cpp:425] lstm1_x_transform <- x
I0924 04:01:06.249605 15825 net.cpp:399] lstm1_x_transform -> W_xc_x
I0924 04:01:06.254866 15833 net.cpp:141] Setting up lstm1_transform_1
I0924 04:01:06.254910 15869 net.cpp:141] Setting up embedding
I0924 04:01:06.255234 15814 net.cpp:141] Setting up lstm1_x_transform
I0924 04:01:06.255532 15869 net.cpp:148] Top shape: 1 1 500 (500)
I0924 04:01:06.255568 15869 net.cpp:156] Memory required for data: 22408
I0924 04:01:06.255606 15869 layer_factory.hpp:77] Creating layer lstm1
I0924 04:01:06.255672 15869 net.cpp:91] Creating Layer lstm1
I0924 04:01:06.255688 15869 net.cpp:425] lstm1 <- embedded_input_frames
I0924 04:01:06.255703 15869 net.cpp:425] lstm1 <- cont_sentence_input_1_split_0
I0924 04:01:06.255733 15869 net.cpp:399] lstm1 -> lstm1
I0924 04:01:06.255759 15869 recurrent_layer.cpp:20] Initializing recurrent layer: assuming input batch contains 1 timesteps of 1 independent streams.
I0924 04:01:06.256301 15869 net.cpp:49] Initializing net from parameters: 
layer {
  name: "lstm1_"
  type: "Input"
  top: "x"
  top: "cont"
  input_param {
    shape {
      dim: 1
      dim: 1
      dim: 500
    }
    shape {
      dim: 1
      dim: 1
    }
  }
}
layer {
  name: "lstm1_"
  type: "Input"
  top: "c_0"
  top: "h_0"
  input_param {
    shape {
      dim: 1
      dim: 1
      dim: 1000
    }
    shape {
      dim: 1
      dim: 1
      dim: 1000
    }
  }
}
layer {
  name: "lstm1_cont_slice"
  type: "Slice"
  bottom: "cont"
  top: "cont_1"
  slice_param {
    axis: 0
  }
}
layer {
  name: "lstm1_x_transform"
  type: "InnerProduct"
  bottom: "x"
  top: "W_xc_x"
  param {
    name: "W_xc"
  }
  param {
    name: "b_c"
  }
  propagate_down: true
  inner_product_param {
    num_output: 4000
    bias_term: true
    weight_filler {
      type: "uniform"
      min: -0.08
      max: 0.08
    }
    bias_filler {
      type: "constant"
      value: 0
    }
    axis: 2
  }
}
layer {
  name: "lstm1_W_xc_x_slice"
  type: "Slice"
  bottom: "W_xc_x"
  top: "W_xc_x_1"
  slice_param {
    axis: 0
  }
}
layer {
  name: "lstm1_h_conted_0"
  type: "Scale"
  bottom: "h_0"
  bottom: "cont_1"
  top: "h_conted_0"
  scale_param {
    axis: 0
  }
}
layer {
  name: "lstm1_transform_1"
  type: "InnerProduct"
  bottom: "h_conted_0"
  top: "W_hc_h_0"
  param {
    name: "W_hc"
  }
  inner_product_param {
    num_output: 4000
    bias_term: false
    weight_filler {
      type: "uniform"
      min: -0.08
      max: 0.08
    }
    axis: 2
  }
}
layer {
  name: "lstm1_gate_input_1"
  type: "Eltwise"
  bottom: "W_hc_h_0"
  bottom: "W_xc_x_1"
  top: "gate_input_1"
  eltwise_param {
    operation: SUM
  }
}
layer {
  name: "lstm1_unit_1"
  type: "LSTMUnit"
  bottom: "c_0"
  bottom: "gate_input_1"
  bottom: "cont_1"
  top: "c_1"
  top: "h_1"
}
layer {
  name: "lstm1_"
  type: "Split"
  bottom: "c_1"
  top: "c_T"
}
layer {
  name: "lstm1_h_concat"
  type: "Concat"
  bottom: "h_1"
  top: "h"
  concat_param {
    axis: 0
  }
}
layer {
  name: "h_pseudoloss"
  type: "Reduction"
  bottom: "h"
  top: "h_pseudoloss"
  loss_weight: 1
}
I0924 04:01:06.256322 15833 net.cpp:148] Top shape: 1 1 4000 (4000)
I0924 04:01:06.256336 15833 net.cpp:156] Memory required for data: 62016
I0924 04:01:06.256361 15833 layer_factory.hpp:77] Creating layer lstm1_gate_input_1
I0924 04:01:06.256397 15833 net.cpp:91] Creating Layer lstm1_gate_input_1
I0924 04:01:06.256407 15833 net.cpp:425] lstm1_gate_input_1 <- W_hc_h_0
I0924 04:01:06.256417 15833 net.cpp:425] lstm1_gate_input_1 <- W_xc_x_1
I0924 04:01:06.256433 15833 net.cpp:399] lstm1_gate_input_1 -> gate_input_1
I0924 04:01:06.256481 15869 layer_factory.hpp:77] Creating layer lstm1_
I0924 04:01:06.256502 15869 net.cpp:91] Creating Layer lstm1_
I0924 04:01:06.256513 15869 net.cpp:399] lstm1_ -> x
I0924 04:01:06.256532 15869 net.cpp:399] lstm1_ -> cont
I0924 04:01:06.259248 15814 net.cpp:148] Top shape: 1 1 4000 (4000)
I0924 04:01:06.259261 15814 net.cpp:156] Memory required for data: 26016
I0924 04:01:06.259277 15814 layer_factory.hpp:77] Creating layer lstm1_W_xc_x_slice
I0924 04:01:06.259290 15814 net.cpp:91] Creating Layer lstm1_W_xc_x_slice
I0924 04:01:06.259297 15814 net.cpp:425] lstm1_W_xc_x_slice <- W_xc_x
I0924 04:01:06.259305 15814 net.cpp:399] lstm1_W_xc_x_slice -> W_xc_x_1
I0924 04:01:06.259413 15833 net.cpp:141] Setting up lstm1_gate_input_1
I0924 04:01:06.259429 15833 net.cpp:148] Top shape: 1 1 4000 (4000)
I0924 04:01:06.259434 15833 net.cpp:156] Memory required for data: 78016
I0924 04:01:06.259439 15833 layer_factory.hpp:77] Creating layer lstm1_unit_1
I0924 04:01:06.259459 15833 net.cpp:91] Creating Layer lstm1_unit_1
I0924 04:01:06.259469 15833 net.cpp:425] lstm1_unit_1 <- c_0
I0924 04:01:06.259479 15833 net.cpp:425] lstm1_unit_1 <- gate_input_1
I0924 04:01:06.259487 15833 net.cpp:425] lstm1_unit_1 <- cont_1_lstm1_cont_slice_0_split_1
I0924 04:01:06.259487 15857 net.cpp:141] Setting up lstm1_
I0924 04:01:06.259498 15833 net.cpp:399] lstm1_unit_1 -> c_1
I0924 04:01:06.259508 15857 net.cpp:148] Top shape: 1 1 1000 (1000)
I0924 04:01:06.259516 15857 net.cpp:148] Top shape: 1 1 1000 (1000)
I0924 04:01:06.259519 15857 net.cpp:156] Memory required for data: 10004
I0924 04:01:06.259526 15857 layer_factory.hpp:77] Creating layer lstm1_cont_slice
I0924 04:01:06.259541 15857 net.cpp:91] Creating Layer lstm1_cont_slice
I0924 04:01:06.259552 15857 net.cpp:425] lstm1_cont_slice <- cont
I0924 04:01:06.259569 15857 net.cpp:399] lstm1_cont_slice -> cont_1
I0924 04:01:06.259591 15833 net.cpp:399] lstm1_unit_1 -> h_1
I0924 04:01:06.259613 15857 net.cpp:141] Setting up lstm1_cont_slice
I0924 04:01:06.259623 15857 net.cpp:148] Top shape: 1 1 (1)
I0924 04:01:06.259627 15857 net.cpp:156] Memory required for data: 10008
I0924 04:01:06.259631 15857 layer_factory.hpp:77] Creating layer cont_1_lstm1_cont_slice_0_split
I0924 04:01:06.259645 15857 net.cpp:91] Creating Layer cont_1_lstm1_cont_slice_0_split
I0924 04:01:06.259654 15857 net.cpp:425] cont_1_lstm1_cont_slice_0_split <- cont_1
I0924 04:01:06.259665 15857 net.cpp:399] cont_1_lstm1_cont_slice_0_split -> cont_1_lstm1_cont_slice_0_split_0
I0924 04:01:06.259682 15857 net.cpp:399] cont_1_lstm1_cont_slice_0_split -> cont_1_lstm1_cont_slice_0_split_1
I0924 04:01:06.259724 15833 net.cpp:141] Setting up lstm1_unit_1
I0924 04:01:06.259739 15833 net.cpp:148] Top shape: 1 1 1000 (1000)
I0924 04:01:06.259749 15833 net.cpp:148] Top shape: 1 1 1000 (1000)
I0924 04:01:06.259757 15833 net.cpp:156] Memory required for data: 86016
I0924 04:01:06.259764 15833 layer_factory.hpp:77] Creating layer lstm1_
I0924 04:01:06.259775 15833 net.cpp:91] Creating Layer lstm1_
I0924 04:01:06.259783 15833 net.cpp:425] lstm1_ <- c_1
I0924 04:01:06.259794 15833 net.cpp:399] lstm1_ -> c_T
I0924 04:01:06.259840 15814 net.cpp:141] Setting up lstm1_W_xc_x_slice
I0924 04:01:06.259871 15814 net.cpp:148] Top shape: 1 1 4000 (4000)
I0924 04:01:06.259881 15814 net.cpp:156] Memory required for data: 42016
I0924 04:01:06.259892 15814 layer_factory.hpp:77] Creating layer lstm1_h_conted_0
I0924 04:01:06.259917 15814 net.cpp:91] Creating Layer lstm1_h_conted_0
I0924 04:01:06.259924 15814 net.cpp:425] lstm1_h_conted_0 <- h_0
I0924 04:01:06.259927 15857 net.cpp:141] Setting up cont_1_lstm1_cont_slice_0_split
I0924 04:01:06.259934 15814 net.cpp:425] lstm1_h_conted_0 <- cont_1_lstm1_cont_slice_0_split_0
I0924 04:01:06.259944 15857 net.cpp:148] Top shape: 1 1 (1)
I0924 04:01:06.259949 15814 net.cpp:399] lstm1_h_conted_0 -> h_conted_0
I0924 04:01:06.259955 15857 net.cpp:148] Top shape: 1 1 (1)
I0924 04:01:06.259963 15857 net.cpp:156] Memory required for data: 10016
I0924 04:01:06.259973 15857 layer_factory.hpp:77] Creating layer lstm1_x_transform
I0924 04:01:06.259999 15857 net.cpp:91] Creating Layer lstm1_x_transform
I0924 04:01:06.260007 15857 net.cpp:425] lstm1_x_transform <- x
I0924 04:01:06.260021 15857 net.cpp:399] lstm1_x_transform -> W_xc_x
I0924 04:01:06.260107 15814 net.cpp:141] Setting up lstm1_h_conted_0
I0924 04:01:06.260123 15814 net.cpp:148] Top shape: 1 1 1000 (1000)
I0924 04:01:06.260133 15814 net.cpp:156] Memory required for data: 46016
I0924 04:01:06.260138 15869 net.cpp:141] Setting up lstm1_
I0924 04:01:06.260140 15814 layer_factory.hpp:77] Creating layer lstm1_transform_1
I0924 04:01:06.260159 15869 net.cpp:148] Top shape: 1 1 500 (500)
I0924 04:01:06.260167 15814 net.cpp:91] Creating Layer lstm1_transform_1
I0924 04:01:06.260170 15869 net.cpp:148] Top shape: 1 1 (1)
I0924 04:01:06.260176 15814 net.cpp:425] lstm1_transform_1 <- h_conted_0
I0924 04:01:06.260177 15869 net.cpp:156] Memory required for data: 2004
I0924 04:01:06.260197 15869 layer_factory.hpp:77] Creating layer lstm1_
I0924 04:01:06.260197 15814 net.cpp:399] lstm1_transform_1 -> W_hc_h_0
I0924 04:01:06.260251 15869 net.cpp:91] Creating Layer lstm1_
I0924 04:01:06.260267 15869 net.cpp:399] lstm1_ -> c_0
I0924 04:01:06.260280 15869 net.cpp:399] lstm1_ -> h_0
I0924 04:01:06.267479 15869 net.cpp:141] Setting up lstm1_
I0924 04:01:06.267530 15869 net.cpp:148] Top shape: 1 1 1000 (1000)
I0924 04:01:06.267542 15869 net.cpp:148] Top shape: 1 1 1000 (1000)
I0924 04:01:06.267550 15869 net.cpp:156] Memory required for data: 10004
I0924 04:01:06.267565 15869 layer_factory.hpp:77] Creating layer lstm1_cont_slice
I0924 04:01:06.267591 15869 net.cpp:91] Creating Layer lstm1_cont_slice
I0924 04:01:06.267601 15869 net.cpp:425] lstm1_cont_slice <- cont
I0924 04:01:06.267621 15869 net.cpp:399] lstm1_cont_slice -> cont_1
I0924 04:01:06.267683 15869 net.cpp:141] Setting up lstm1_cont_slice
I0924 04:01:06.267698 15869 net.cpp:148] Top shape: 1 1 (1)
I0924 04:01:06.267705 15869 net.cpp:156] Memory required for data: 10008
I0924 04:01:06.267714 15869 layer_factory.hpp:77] Creating layer cont_1_lstm1_cont_slice_0_split
I0924 04:01:06.267729 15869 net.cpp:91] Creating Layer cont_1_lstm1_cont_slice_0_split
I0924 04:01:06.267737 15869 net.cpp:425] cont_1_lstm1_cont_slice_0_split <- cont_1
I0924 04:01:06.267750 15869 net.cpp:399] cont_1_lstm1_cont_slice_0_split -> cont_1_lstm1_cont_slice_0_split_0
I0924 04:01:06.267765 15869 net.cpp:399] cont_1_lstm1_cont_slice_0_split -> cont_1_lstm1_cont_slice_0_split_1
I0924 04:01:06.267837 15869 net.cpp:141] Setting up cont_1_lstm1_cont_slice_0_split
I0924 04:01:06.267850 15869 net.cpp:148] Top shape: 1 1 (1)
I0924 04:01:06.267859 15869 net.cpp:148] Top shape: 1 1 (1)
I0924 04:01:06.267866 15869 net.cpp:156] Memory required for data: 10016
I0924 04:01:06.267874 15869 layer_factory.hpp:77] Creating layer lstm1_x_transform
I0924 04:01:06.267899 15869 net.cpp:91] Creating Layer lstm1_x_transform
I0924 04:01:06.267906 15869 net.cpp:425] lstm1_x_transform <- x
I0924 04:01:06.267920 15869 net.cpp:399] lstm1_x_transform -> W_xc_x
I0924 04:01:06.282759 15833 net.cpp:141] Setting up lstm1_
I0924 04:01:06.282812 15833 net.cpp:148] Top shape: 1 1 1000 (1000)
I0924 04:01:06.282822 15833 net.cpp:156] Memory required for data: 90016
I0924 04:01:06.282835 15833 layer_factory.hpp:77] Creating layer lstm1_h_concat
I0924 04:01:06.282856 15833 net.cpp:91] Creating Layer lstm1_h_concat
I0924 04:01:06.282867 15818 net.cpp:141] Setting up embedding
I0924 04:01:06.282917 15818 net.cpp:148] Top shape: 1 1 500 (500)
I0924 04:01:06.282927 15818 net.cpp:156] Memory required for data: 22408
I0924 04:01:06.282950 15818 layer_factory.hpp:77] Creating layer lstm1
I0924 04:01:06.282980 15818 net.cpp:91] Creating Layer lstm1
I0924 04:01:06.282991 15818 net.cpp:425] lstm1 <- embedded_input_frames
I0924 04:01:06.283004 15818 net.cpp:425] lstm1 <- cont_sentence_input_1_split_0
I0924 04:01:06.283022 15818 net.cpp:399] lstm1 -> lstm1
I0924 04:01:06.283047 15818 recurrent_layer.cpp:20] Initializing recurrent layer: assuming input batch contains 1 timesteps of 1 independent streams.
I0924 04:01:06.283463 15818 net.cpp:49] Initializing net from parameters: 
layer {
  name: "lstm1_"
  type: "Input"
  top: "x"
  top: "cont"
  input_param {
    shape {
      dim: 1
      dim: 1
      dim: 500
    }
    shape {
      dim: 1
      dim: 1
    }
  }
}
layer {
  name: "lstm1_"
  type: "Input"
  top: "c_0"
  top: "h_0"
  input_param {
    shape {
      dim: 1
      dim: 1
      dim: 1000
    }
    shape {
      dim: 1
      dim: 1
      dim: 1000
    }
  }
}
layer {
  name: "lstm1_cont_slice"
  type: "Slice"
  bottom: "cont"
  top: "cont_1"
  slice_param {
    axis: 0
  }
}
layer {
  name: "lstm1_x_transform"
  type: "InnerProduct"
  bottom: "x"
  top: "W_xc_x"
  param {
    name: "W_xc"
  }
  param {
    name: "b_c"
  }
  propagate_down: true
  inner_product_param {
    num_output: 4000
    bias_term: true
    weight_filler {
      type: "uniform"
      min: -0.08
      max: 0.08
    }
    bias_filler {
      type: "constant"
      value: 0
    }
    axis: 2
  }
}
layer {
  name: "lstm1_W_xc_x_slice"
  type: "Slice"
  bottom: "W_xc_x"
  top: "W_xc_x_1"
  slice_param {
    axis: 0
  }
}
layer {
  name: "lstm1_h_conted_0"
  type: "Scale"
  bottom: "h_0"
  bottom: "cont_1"
  top: "h_conted_0"
  scale_param {
    axis: 0
  }
}
layer {
  name: "lstm1_transform_1"
  type: "InnerProduct"
  bottom: "h_conted_0"
  top: "W_hc_h_0"
  param {
    name: "W_hc"
  }
  inner_product_param {
    num_output: 4000
    bias_term: false
    weight_filler {
      type: "uniform"
      min: -0.08
      max: 0.08
    }
    axis: 2
  }
}
layer {
  name: "lstm1_gate_input_1"
  type: "Eltwise"
  bottom: "W_hc_h_0"
  bottom: "W_xc_x_1"
  top: "gate_input_1"
  eltwise_param {
    operation: SUM
  }
}
layer {
  name: "lstm1_unit_1"
  type: "LSTMUnit"
  bottom: "c_0"
  bottom: "gate_input_1"
  bottom: "cont_1"
  top: "c_1"
  top: "h_1"
}
layer {
  name: "lstm1_"
  type: "Split"
  bottom: "c_1"
  top: "c_T"
}
layer {
  name: "lstm1_h_concat"
  type: "Concat"
  bottom: "h_1"
  top: "h"
  concat_param {
    axis: 0
  }
}
layer {
  name: "h_pseudoloss"
  type: "Reduction"
  bottom: "h"
  top: "h_pseudoloss"
  loss_weight: 1
}
I0924 04:01:06.283607 15818 layer_factory.hpp:77] Creating layer lstm1_
I0924 04:01:06.283627 15818 net.cpp:91] Creating Layer lstm1_
I0924 04:01:06.283637 15818 net.cpp:399] lstm1_ -> x
I0924 04:01:06.283653 15818 net.cpp:399] lstm1_ -> cont
I0924 04:01:06.282868 15833 net.cpp:425] lstm1_h_concat <- h_1
I0924 04:01:06.287004 15833 net.cpp:399] lstm1_h_concat -> h
I0924 04:01:06.294534 15818 net.cpp:141] Setting up lstm1_
I0924 04:01:06.294592 15818 net.cpp:148] Top shape: 1 1 500 (500)
I0924 04:01:06.294617 15818 net.cpp:148] Top shape: 1 1 (1)
I0924 04:01:06.294625 15818 net.cpp:156] Memory required for data: 2004
I0924 04:01:06.294638 15818 layer_factory.hpp:77] Creating layer lstm1_
I0924 04:01:06.294669 15818 net.cpp:91] Creating Layer lstm1_
I0924 04:01:06.294684 15818 net.cpp:399] lstm1_ -> c_0
I0924 04:01:06.294709 15818 net.cpp:399] lstm1_ -> h_0
I0924 04:01:06.294889 15833 net.cpp:141] Setting up lstm1_h_concat
I0924 04:01:06.294947 15833 net.cpp:148] Top shape: 1 1 1000 (1000)
I0924 04:01:06.294957 15833 net.cpp:156] Memory required for data: 94016
I0924 04:01:06.294971 15833 layer_factory.hpp:77] Creating layer h_pseudoloss
I0924 04:01:06.295024 15833 net.cpp:91] Creating Layer h_pseudoloss
I0924 04:01:06.295053 15833 net.cpp:425] h_pseudoloss <- h
I0924 04:01:06.295073 15833 net.cpp:399] h_pseudoloss -> h_pseudoloss
I0924 04:01:06.295138 15818 net.cpp:141] Setting up lstm1_
I0924 04:01:06.295155 15818 net.cpp:148] Top shape: 1 1 1000 (1000)
I0924 04:01:06.295164 15818 net.cpp:148] Top shape: 1 1 1000 (1000)
I0924 04:01:06.295171 15818 net.cpp:156] Memory required for data: 10004
I0924 04:01:06.295178 15818 layer_factory.hpp:77] Creating layer lstm1_cont_slice
I0924 04:01:06.295197 15818 net.cpp:91] Creating Layer lstm1_cont_slice
I0924 04:01:06.295200 15825 net.cpp:141] Setting up lstm1_x_transform
I0924 04:01:06.295227 15825 net.cpp:148] Top shape: 1 1 4000 (4000)
I0924 04:01:06.295235 15825 net.cpp:156] Memory required for data: 26016
I0924 04:01:06.295258 15825 layer_factory.hpp:77] Creating layer lstm1_W_xc_x_slice
I0924 04:01:06.295274 15825 net.cpp:91] Creating Layer lstm1_W_xc_x_slice
I0924 04:01:06.295285 15825 net.cpp:425] lstm1_W_xc_x_slice <- W_xc_x
I0924 04:01:06.295298 15825 net.cpp:399] lstm1_W_xc_x_slice -> W_xc_x_1
I0924 04:01:06.295205 15818 net.cpp:425] lstm1_cont_slice <- cont
I0924 04:01:06.295899 15818 net.cpp:399] lstm1_cont_slice -> cont_1
I0924 04:01:06.308349 15825 net.cpp:141] Setting up lstm1_W_xc_x_slice
I0924 04:01:06.308406 15825 net.cpp:148] Top shape: 1 1 4000 (4000)
I0924 04:01:06.308416 15825 net.cpp:156] Memory required for data: 42016
I0924 04:01:06.308432 15825 layer_factory.hpp:77] Creating layer lstm1_h_conted_0
I0924 04:01:06.308457 15825 net.cpp:91] Creating Layer lstm1_h_conted_0
I0924 04:01:06.308450 15833 net.cpp:141] Setting up h_pseudoloss
I0924 04:01:06.308468 15825 net.cpp:425] lstm1_h_conted_0 <- h_0
I0924 04:01:06.308502 15833 net.cpp:148] Top shape: (1)
…
I0924 04:01:06.308672 15833 net.cpp:217] lstm1_transform_1 needs backward computation.
I0924 04:01:06.308688 15833 net.cpp:219] lstm1_h_conted_0 does not need backward computation.
I0924 04:01:06.308701 15833 net.cpp:217] lstm1_W_xc_x_slice needs backward computation.
I0924 04:01:06.308711 15833 net.cpp:217] lstm1_x_transform needs backward computation.
I0924 04:01:06.308715 15825 net.cpp:141] Setting up lstm1_h_conted_0
I0924 04:01:06.308722 15833 net.cpp:219] cont_1_lstm1_cont_slice_0_split does not need backward computation.
I0924 04:01:06.308732 15833 net.cpp:219] lstm1_cont_slice does not need backward computation.
I0924 04:01:06.308732 15825 net.cpp:148] Top shape: 1 1 1000 (1000)
I0924 04:01:06.308751 15833 net.cpp:219] lstm1_ does not need backward computation.
I0924 04:01:06.308756 15825 net.cpp:156] Memory required for data: 46016
I0924 04:01:06.308761 15833 net.cpp:219] lstm1_ does not need backward computation.
I0924 04:01:06.308766 15825 layer_factory.hpp:77] Creating layer lstm1_transform_1
I0924 04:01:06.308769 15833 net.cpp:261] This network produces output c_T
I0924 04:01:06.308782 15833 net.cpp:261] This network produces output h_pseudoloss
I0924 04:01:06.308790 15825 net.cpp:91] Creating Layer lstm1_transform_1
I0924 04:01:06.308800 15825 net.cpp:425] lstm1_transform_1 <- h_conted_0
I0924 04:01:06.308814 15825 net.cpp:399] lstm1_transform_1 -> W_hc_h_0
I0924 04:01:06.308816 15833 net.cpp:274] Network initialization done.
I0924 04:01:06.309061 15833 recurrent_layer.cpp:150] Adding parameter 0: W_xc
I0924 04:01:06.309077 15833 recurrent_layer.cpp:150] Adding parameter 1: b_c
I0924 04:01:06.309085 15833 recurrent_layer.cpp:150] Adding parameter 2: W_hc
I0924 04:01:06.317912 15818 net.cpp:141] Setting up lstm1_cont_slice
I0924 04:01:06.317972 15818 net.cpp:148] Top shape: 1 1 (1)
I0924 04:01:06.317982 15818 net.cpp:156] Memory required for data: 10008
I0924 04:01:06.317993 15818 layer_factory.hpp:77] Creating layer cont_1_lstm1_cont_slice_0_split
I0924 04:01:06.318017 15818 net.cpp:91] Creating Layer cont_1_lstm1_cont_slice_0_split
I0924 04:01:06.318027 15818 net.cpp:425] cont_1_lstm1_cont_slice_0_split <- cont_1
I0924 04:01:06.318016 15857 net.cpp:141] Setting up lstm1_x_transform
I0924 04:01:06.318048 15818 net.cpp:399] cont_1_lstm1_cont_slice_0_split -> cont_1_lstm1_cont_slice_0_split_0
I0924 04:01:06.318065 15857 net.cpp:148] Top shape: 1 1 4000 (4000)
I0924 04:01:06.318068 15818 net.cpp:399] cont_1_lstm1_cont_slice_0_split -> cont_1_lstm1_cont_slice_0_split_1
I0924 04:01:06.318079 15857 net.cpp:156] Memory required for data: 26016
I0924 04:01:06.318109 15857 layer_factory.hpp:77] Creating layer lstm1_W_xc_x_slice
I0924 04:01:06.318137 15857 net.cpp:91] Creating Layer lstm1_W_xc_x_slice
I0924 04:01:06.318151 15857 net.cpp:425] lstm1_W_xc_x_slice <- W_xc_x
I0924 04:01:06.318168 15857 net.cpp:399] lstm1_W_xc_x_slice -> W_xc_x_1
I0924 04:01:06.318217 15869 net.cpp:141] Setting up lstm1_x_transform
I0924 04:01:06.318234 15869 net.cpp:148] Top shape: 1 1 4000 (4000)
I0924 04:01:06.318240 15869 net.cpp:156] Memory required for data: 26016
I0924 04:01:06.318254 15869 layer_factory.hpp:77] Creating layer lstm1_W_xc_x_slice
I0924 04:01:06.318264 15869 net.cpp:91] Creating Layer lstm1_W_xc_x_slice
I0924 04:01:06.318271 15869 net.cpp:425] lstm1_W_xc_x_slice <- W_xc_x
I0924 04:01:06.318279 15869 net.cpp:399] lstm1_W_xc_x_slice -> W_xc_x_1
I0924 04:01:06.318341 15833 net.cpp:141] Setting up lstm1
I0924 04:01:06.318361 15833 net.cpp:148] Top shape: 1 1 1000 (1000)
I0924 04:01:06.318366 15833 net.cpp:156] Memory required for data: 26408
I0924 04:01:06.318382 15833 layer_factory.hpp:77] Creating layer concat
I0924 04:01:06.318393 15833 net.cpp:91] Creating Layer concat
I0924 04:01:06.318399 15833 net.cpp:425] concat <- lstm1
I0924 04:01:06.318406 15833 net.cpp:425] concat <- embedded_input_sentence
I0924 04:01:06.318408 15857 net.cpp:141] Setting up lstm1_W_xc_x_slice
I0924 04:01:06.318413 15833 net.cpp:425] concat <- reshaped_stage_indicator
I0924 04:01:06.318430 15857 net.cpp:148] Top shape: 1 1 4000 (4000)
I0924 04:01:06.318435 15833 net.cpp:399] concat -> lstm1_video_sequence
I0924 04:01:06.318436 15857 net.cpp:156] Memory required for data: 42016
I0924 04:01:06.318457 15857 layer_factory.hpp:77] Creating layer lstm1_h_conted_0
I0924 04:01:06.318470 15857 net.cpp:91] Creating Layer lstm1_h_conted_0
I0924 04:01:06.318475 15857 net.cpp:425] lstm1_h_conted_0 <- h_0
I0924 04:01:06.318482 15857 net.cpp:425] lstm1_h_conted_0 <- cont_1_lstm1_cont_slice_0_split_0
I0924 04:01:06.318483 15821 net.cpp:141] Setting up lstm1_transform_1
I0924 04:01:06.318501 15833 net.cpp:141] Setting up concat
I0924 04:01:06.318490 15857 net.cpp:399] lstm1_h_conted_0 -> h_conted_0
I0924 04:01:06.318511 15833 net.cpp:148] Top shape: 1 1 1501 (1501)
I0924 04:01:06.318517 15833 net.cpp:156] Memory required for data: 32412
I0924 04:01:06.318523 15833 layer_factory.hpp:77] Creating layer lstm2
I0924 04:01:06.318533 15821 net.cpp:148] Top shape: 1 1 4000 (4000)
I0924 04:01:06.318539 15833 net.cpp:91] Creating Layer lstm2
I0924 04:01:06.318544 15821 net.cpp:156] Memory required for data: 62016
I0924 04:01:06.318547 15833 net.cpp:425] lstm2 <- lstm1_video_sequence
I0924 04:01:06.318565 15833 net.cpp:425] lstm2 <- cont_sentence_input_1_split_1
I0924 04:01:06.318574 15833 net.cpp:399] lstm2 -> lstm2
I0924 04:01:06.318575 15821 layer_factory.hpp:77] Creating layer lstm1_gate_input_1
I0924 04:01:06.318586 15833 recurrent_layer.cpp:20] Initializing recurrent layer: assuming input batch contains 1 timesteps of 1 independent streams.
I0924 04:01:06.318616 15821 net.cpp:91] Creating Layer lstm1_gate_input_1
I0924 04:01:06.318624 15857 net.cpp:141] Setting up lstm1_h_conted_0
I0924 04:01:06.318629 15821 net.cpp:425] lstm1_gate_input_1 <- W_hc_h_0
I0924 04:01:06.318635 15857 net.cpp:148] Top shape: 1 1 1000 (1000)
I0924 04:01:06.318641 15857 net.cpp:156] Memory required for data: 46016
I0924 04:01:06.318642 15821 net.cpp:425] lstm1_gate_input_1 <- W_xc_x_1
I0924 04:01:06.318646 15857 layer_factory.hpp:77] Creating layer lstm1_transform_1
I0924 04:01:06.318656 15821 net.cpp:399] lstm1_gate_input_1 -> gate_input_1
I0924 04:01:06.318661 15857 net.cpp:91] Creating Layer lstm1_transform_1
I0924 04:01:06.318667 15857 net.cpp:425] lstm1_transform_1 <- h_conted_0
I0924 04:01:06.318675 15857 net.cpp:399] lstm1_transform_1 -> W_hc_h_0
I0924 04:01:06.318739 15821 net.cpp:141] Setting up lstm1_gate_input_1
I0924 04:01:06.318755 15821 net.cpp:148] Top shape: 1 1 4000 (4000)
I0924 04:01:06.318763 15821 net.cpp:156] Memory required for data: 78016
I0924 04:01:06.318770 15821 layer_factory.hpp:77] Creating layer lstm1_unit_1
I0924 04:01:06.318788 15821 net.cpp:91] Creating Layer lstm1_unit_1
I0924 04:01:06.318790 15818 net.cpp:141] Setting up cont_1_lstm1_cont_slice_0_split
I0924 04:01:06.318796 15821 net.cpp:425] lstm1_unit_1 <- c_0
I0924 04:01:06.318806 15821 net.cpp:425] lstm1_unit_1 <- gate_input_1
I0924 04:01:06.318811 15818 net.cpp:148] Top shape: 1 1 (1)
I0924 04:01:06.318815 15821 net.cpp:425] lstm1_unit_1 <- cont_1_lstm1_cont_slice_0_split_1
I0924 04:01:06.318823 15818 net.cpp:148] Top shape: 1 1 (1)
I0924 04:01:06.318827 15821 net.cpp:399] lstm1_unit_1 -> c_1
I0924 04:01:06.318830 15818 net.cpp:156] Memory required for data: 10016
I0924 04:01:06.318835 15869 net.cpp:141] Setting up lstm1_W_xc_x_slice
I0924 04:01:06.318840 15818 layer_factory.hpp:77] Creating layer lstm1_x_transform
I0924 04:01:06.318853 15869 net.cpp:148] Top shape: 1 1 4000 (4000)
I0924 04:01:06.318863 15869 net.cpp:156] Memory required for data: 42016
I0924 04:01:06.318842 15821 net.cpp:399] lstm1_unit_1 -> h_1
I0924 04:01:06.318884 15818 net.cpp:91] Creating Layer lstm1_x_transform
I0924 04:01:06.318861 15833 net.cpp:49] Initializing net from parameters: 
layer {
  name: "lstm2_"
  type: "Input"
  top: "x"
  top: "cont"
  input_param {
    shape {
      dim: 1
      dim: 1
      dim: 1501
    }
    shape {
      dim: 1
      dim: 1
    }
  }
}
layer {
  name: "lstm2_"
  type: "Input"
  top: "c_0"
  top: "h_0"
  input_param {
    shape {
      dim: 1
      dim: 1
      dim: 1000
    }
    shape {
      dim: 1
      dim: 1
      dim: 1000
    }
  }
}
layer {
  name: "lstm2_cont_slice"
  type: "Slice"
  bottom: "cont"
  top: "cont_1"
  slice_param {
    axis: 0
  }
}
layer {
  name: "lstm2_x_transform"
  type: "InnerProduct"
  bottom: "x"
  top: "W_xc_x"
  param {
    name: "W_xc"
  }
  param {
    name: "b_c"
  }
  propagate_down: true
  inner_product_param {
    num_output: 4000
    bias_term: true
    weight_filler {
      type: "uniform"
      min: -0.08
      max: 0.08
    }
    bias_filler {
      type: "constant"
      value: 0
    }
    axis: 2
  }
}
layer {
  name: "lstm2_W_xc_x_slice"
  type: "Slice"
  bottom: "W_xc_x"
  top: "W_xc_x_1"
  slice_param {
    axis: 0
  }
}
layer {
  name: "lstm2_h_conted_0"
  type: "Scale"
  bottom: "h_0"
  bottom: "cont_1"
  top: "h_conted_0"
  scale_param {
    axis: 0
  }
}
layer {
  name: "lstm2_transform_1"
  type: "InnerProduct"
  bottom: "h_conted_0"
  top: "W_hc_h_0"
  param {
    name: "W_hc"
  }
  inner_product_param {
    num_output: 4000
    bias_term: false
    weight_filler {
      type: "uniform"
      min: -0.08
      max: 0.08
    }
    axis: 2
  }
}
layer {
  name: "lstm2_gate_input_1"
  type: "Eltwise"
  bottom: "W_hc_h_0"
  bottom: "W_xc_x_1"
  top: "gate_input_1"
  eltwise_param {
    operation: SUM
  }
}
layer {
  name: "lstm2_unit_1"
  type: "LSTMUnit"
  bottom: "c_0"
  bottom: "gate_input_1"
  bottom: "cont_1"
  top: "c_1"
  top: "h_1"
}
layer {
  name: "lstm2_"
  type: "Split"
  bottom: "c_1"
  top: "c_T"
}
layer {
  name: "lstm2_h_concat"
  type: "Concat"
  bottom: "h_1"
  top: "h"
  concat_param {
    axis: 0
  }
}
layer {
  name: "h_pseudoloss"
  type: "Reduction"
  bottom: "h"
  top: "h_pseudoloss"
  loss_weight: 1
}
I0924 04:01:06.318881 15869 layer_factory.hpp:77] Creating layer lstm1_h_conted_0
I0924 04:01:06.318905 15818 net.cpp:425] lstm1_x_transform <- x
I0924 04:01:06.318927 15869 net.cpp:91] Creating Layer lstm1_h_conted_0
I0924 04:01:06.318938 15869 net.cpp:425] lstm1_h_conted_0 <- h_0
I0924 04:01:06.318940 15818 net.cpp:399] lstm1_x_transform -> W_xc_x
I0924 04:01:06.318948 15869 net.cpp:425] lstm1_h_conted_0 <- cont_1_lstm1_cont_slice_0_split_0
I0924 04:01:06.318963 15869 net.cpp:399] lstm1_h_conted_0 -> h_conted_0
I0924 04:01:06.319021 15833 layer_factory.hpp:77] Creating layer lstm2_
I0924 04:01:06.319036 15833 net.cpp:91] Creating Layer lstm2_
I0924 04:01:06.319041 15833 net.cpp:399] lstm2_ -> x
I0924 04:01:06.319052 15833 net.cpp:399] lstm2_ -> cont
I0924 04:01:06.334106 15814 net.cpp:141] Setting up lstm1_transform_1
I0924 04:01:06.334172 15814 net.cpp:148] Top shape: 1 1 4000 (4000)
I0924 04:01:06.334185 15814 net.cpp:156] Memory required for data: 62016
I0924 04:01:06.334229 15814 layer_factory.hpp:77] Creating layer lstm1_gate_input_1
I0924 04:01:06.334236 15833 net.cpp:141] Setting up lstm2_
I0924 04:01:06.334273 15814 net.cpp:91] Creating Layer lstm1_gate_input_1
I0924 04:01:06.334277 15833 net.cpp:148] Top shape: 1 1 1501 (1501)
I0924 04:01:06.334305 15814 net.cpp:425] lstm1_gate_input_1 <- W_hc_h_0
I0924 04:01:06.334306 15821 net.cpp:141] Setting up lstm1_unit_1
I0924 04:01:06.334318 15814 net.cpp:425] lstm1_gate_input_1 <- W_xc_x_1
I0924 04:01:06.334321 15833 net.cpp:148] Top shape: 1 1 (1)
I0924 04:01:06.334331 15821 net.cpp:148] Top shape: 1 1 1000 (1000)
I0924 04:01:06.334331 15833 net.cpp:156] Memory required for data: 6008
I0924 04:01:06.334333 15814 net.cpp:399] lstm1_gate_input_1 -> gate_input_1
I0924 04:01:06.334362 15833 layer_factory.hpp:77] Creating layer lstm2_
I0924 04:01:06.334394 15833 net.cpp:91] Creating Layer lstm2_
I0924 04:01:06.334409 15833 net.cpp:399] lstm2_ -> c_0
I0924 04:01:06.334430 15833 net.cpp:399] lstm2_ -> h_0
I0924 04:01:06.334462 15821 net.cpp:148] Top shape: 1 1 1000 (1000)
I0924 04:01:06.334471 15821 net.cpp:156] Memory required for data: 86016
I0924 04:01:06.334481 15821 layer_factory.hpp:77] Creating layer lstm1_
I0924 04:01:06.334503 15821 net.cpp:91] Creating Layer lstm1_
I0924 04:01:06.334514 15821 net.cpp:425] lstm1_ <- c_1
I0924 04:01:06.334527 15821 net.cpp:399] lstm1_ -> c_T
I0924 04:01:06.334633 15869 net.cpp:141] Setting up lstm1_h_conted_0
I0924 04:01:06.334658 15821 net.cpp:141] Setting up lstm1_
I0924 04:01:06.334668 15869 net.cpp:148] Top shape: 1 1 1000 (1000)
I0924 04:01:06.334676 15821 net.cpp:148] Top shape: 1 1 1000 (1000)
I0924 04:01:06.334681 15869 net.cpp:156] Memory required for data: 46016
I0924 04:01:06.334686 15821 net.cpp:156] Memory required for data: 90016
I0924 04:01:06.334697 15869 layer_factory.hpp:77] Creating layer lstm1_transform_1
I0924 04:01:06.334697 15821 layer_factory.hpp:77] Creating layer lstm1_h_concat
I0924 04:01:06.334738 15821 net.cpp:91] Creating Layer lstm1_h_concat
I0924 04:01:06.334766 15821 net.cpp:425] lstm1_h_concat <- h_1
I0924 04:01:06.334785 15821 net.cpp:399] lstm1_h_concat -> h
I0924 04:01:06.334636 15814 net.cpp:141] Setting up lstm1_gate_input_1
I0924 04:01:06.334815 15814 net.cpp:148] Top shape: 1 1 4000 (4000)
I0924 04:01:06.334825 15814 net.cpp:156] Memory required for data: 78016
I0924 04:01:06.334834 15814 layer_factory.hpp:77] Creating layer lstm1_unit_1
I0924 04:01:06.334851 15814 net.cpp:91] Creating Layer lstm1_unit_1
I0924 04:01:06.334862 15814 net.cpp:425] lstm1_unit_1 <- c_0
I0924 04:01:06.334874 15814 net.cpp:425] lstm1_unit_1 <- gate_input_1
I0924 04:01:06.334887 15814 net.cpp:425] lstm1_unit_1 <- cont_1_lstm1_cont_slice_0_split_1
I0924 04:01:06.334903 15814 net.cpp:399] lstm1_unit_1 -> c_1
I0924 04:01:06.334920 15814 net.cpp:399] lstm1_unit_1 -> h_1
I0924 04:01:06.334738 15869 net.cpp:91] Creating Layer lstm1_transform_1
I0924 04:01:06.337471 15869 net.cpp:425] lstm1_transform_1 <- h_conted_0
I0924 04:01:06.337501 15869 net.cpp:399] lstm1_transform_1 -> W_hc_h_0
I0924 04:01:06.345135 15833 net.cpp:141] Setting up lstm2_
I0924 04:01:06.345191 15833 net.cpp:148] Top shape: 1 1 1000 (1000)
I0924 04:01:06.345203 15833 net.cpp:148] Top shape: 1 1 1000 (1000)
I0924 04:01:06.345211 15833 net.cpp:156] Memory required for data: 14008
I0924 04:01:06.345223 15833 layer_factory.hpp:77] Creating layer lstm2_cont_slice
I0924 04:01:06.345250 15833 net.cpp:91] Creating Layer lstm2_cont_slice
I0924 04:01:06.345260 15833 net.cpp:425] lstm2_cont_slice <- cont
I0924 04:01:06.345278 15833 net.cpp:399] lstm2_cont_slice -> cont_1
I0924 04:01:06.345348 15833 net.cpp:141] Setting up lstm2_cont_slice
I0924 04:01:06.345362 15833 net.cpp:148] Top shape: 1 1 (1)
I0924 04:01:06.345369 15833 net.cpp:156] Memory required for data: 14012
I0924 04:01:06.345377 15833 layer_factory.hpp:77] Creating layer cont_1_lstm2_cont_slice_0_split
I0924 04:01:06.345396 15833 net.cpp:91] Creating Layer cont_1_lstm2_cont_slice_0_split
I0924 04:01:06.345403 15833 net.cpp:425] cont_1_lstm2_cont_slice_0_split <- cont_1
I0924 04:01:06.345415 15833 net.cpp:399] cont_1_lstm2_cont_slice_0_split -> cont_1_lstm2_cont_slice_0_split_0
I0924 04:01:06.345434 15833 net.cpp:399] cont_1_lstm2_cont_slice_0_split -> cont_1_lstm2_cont_slice_0_split_1
I0924 04:01:06.345515 15833 net.cpp:141] Setting up cont_1_lstm2_cont_slice_0_split
I0924 04:01:06.345530 15833 net.cpp:148] Top shape: 1 1 (1)
I0924 04:01:06.345540 15833 net.cpp:148] Top shape: 1 1 (1)
I0924 04:01:06.345546 15833 net.cpp:156] Memory required for data: 14020
I0924 04:01:06.345553 15833 layer_factory.hpp:77] Creating layer lstm2_x_transform
I0924 04:01:06.345578 15833 net.cpp:91] Creating Layer lstm2_x_transform
I0924 04:01:06.345587 15833 net.cpp:425] lstm2_x_transform <- x
I0924 04:01:06.345602 15833 net.cpp:399] lstm2_x_transform -> W_xc_x
I0924 04:01:06.361666 15814 net.cpp:141] Setting up lstm1_unit_1
I0924 04:01:06.361726 15814 net.cpp:148] Top shape: 1 1 1000 (1000)
I0924 04:01:06.361733 15821 net.cpp:141] Setting up lstm1_h_concat
I0924 04:01:06.361738 15814 net.cpp:148] Top shape: 1 1 1000 (1000)
I0924 04:01:06.361765 15821 net.cpp:148] Top shape: 1 1 1000 (1000)
I0924 04:01:06.361771 15821 net.cpp:156] Memory required for data: 94016
I0924 04:01:06.361768 15814 net.cpp:156] Memory required for data: 86016
I0924 04:01:06.361784 15821 layer_factory.hpp:77] Creating layer h_pseudoloss
I0924 04:01:06.361789 15814 layer_factory.hpp:77] Creating layer lstm1_
I0924 04:01:06.361805 15821 net.cpp:91] Creating Layer h_pseudoloss
I0924 04:01:06.361812 15821 net.cpp:425] h_pseudoloss <- h
I0924 04:01:06.361814 15814 net.cpp:91] Creating Layer lstm1_
I0924 04:01:06.361824 15814 net.cpp:425] lstm1_ <- c_1
I0924 04:01:06.361825 15821 net.cpp:399] h_pseudoloss -> h_pseudoloss
I0924 04:01:06.361845 15814 net.cpp:399] lstm1_ -> c_T
I0924 04:01:06.361920 15825 net.cpp:141] Setting up lstm1_transform_1
I0924 04:01:06.361937 15825 net.cpp:148] Top shape: 1 1 4000 (4000)
I0924 04:01:06.361944 15825 net.cpp:156] Memory required for data: 62016
I0924 04:01:06.361963 15825 layer_factory.hpp:77] Creating layer lstm1_gate_input_1
I0924 04:01:06.361985 15825 net.cpp:91] Creating Layer lstm1_gate_input_1
I0924 04:01:06.361995 15825 net.cpp:425] lstm1_gate_input_1 <- W_hc_h_0
I0924 04:01:06.362004 15825 net.cpp:425] lstm1_gate_input_1 <- W_xc_x_1
I0924 04:01:06.362015 15825 net.cpp:399] lstm1_gate_input_1 -> gate_input_1
I0924 04:01:06.362198 15865 net.cpp:141] Setting up embedding
I0924 04:01:06.362246 15865 net.cpp:148] Top shape: 1 1 500 (500)
I0924 04:01:06.362254 15865 net.cpp:156] Memory required for data: 22408
I0924 04:01:06.362257 15814 net.cpp:141] Setting up lstm1_
I0924 04:01:06.362278 15814 net.cpp:148] Top shape: 1 1 1000 (1000)
I0924 04:01:06.362282 15865 layer_factory.hpp:77] Creating layer lstm1
I0924 04:01:06.362288 15814 net.cpp:156] Memory required for data: 90016
I0924 04:01:06.362300 15814 layer_factory.hpp:77] Creating layer lstm1_h_concat
I0924 04:01:06.362304 15857 net.cpp:141] Setting up lstm1_transform_1
I0924 04:01:06.362313 15865 net.cpp:91] Creating Layer lstm1
I0924 04:01:06.362318 15814 net.cpp:91] Creating Layer lstm1_h_concat
I0924 04:01:06.362329 15865 net.cpp:425] lstm1 <- embedded_input_frames
I0924 04:01:06.362330 15857 net.cpp:148] Top shape: 1 1 4000 (4000)
I0924 04:01:06.362342 15857 net.cpp:156] Memory required for data: 62016
I0924 04:01:06.362330 15814 net.cpp:425] lstm1_h_concat <- h_1
I0924 04:01:06.362354 15865 net.cpp:425] lstm1 <- cont_sentence_input_1_split_0
I0924 04:01:06.362361 15857 layer_factory.hpp:77] Creating layer lstm1_gate_input_1
I0924 04:01:06.362381 15857 net.cpp:91] Creating Layer lstm1_gate_input_1
I0924 04:01:06.362385 15814 net.cpp:399] lstm1_h_concat -> h
I0924 04:01:06.362391 15857 net.cpp:425] lstm1_gate_input_1 <- W_hc_h_0
I0924 04:01:06.362396 15865 net.cpp:399] lstm1 -> lstm1
I0924 04:01:06.362403 15857 net.cpp:425] lstm1_gate_input_1 <- W_xc_x_1
I0924 04:01:06.362417 15857 net.cpp:399] lstm1_gate_input_1 -> gate_input_1
I0924 04:01:06.362421 15865 recurrent_layer.cpp:20] Initializing recurrent layer: assuming input batch contains 1 timesteps of 1 independent streams.
I0924 04:01:06.362432 15818 net.cpp:141] Setting up lstm1_x_transform
I0924 04:01:06.362449 15818 net.cpp:148] Top shape: 1 1 4000 (4000)
I0924 04:01:06.362458 15818 net.cpp:156] Memory required for data: 26016
I0924 04:01:06.362460 15814 net.cpp:141] Setting up lstm1_h_concat
I0924 04:01:06.362474 15818 layer_factory.hpp:77] Creating layer lstm1_W_xc_x_slice
I0924 04:01:06.362478 15814 net.cpp:148] Top shape: 1 1 1000 (1000)
I0924 04:01:06.362485 15818 net.cpp:91] Creating Layer lstm1_W_xc_x_slice
I0924 04:01:06.362488 15814 net.cpp:156] Memory required for data: 94016
I0924 04:01:06.362491 15818 net.cpp:425] lstm1_W_xc_x_slice <- W_xc_x
I0924 04:01:06.362500 15818 net.cpp:399] lstm1_W_xc_x_slice -> W_xc_x_1
I0924 04:01:06.362499 15814 layer_factory.hpp:77] Creating layer h_pseudoloss
I0924 04:01:06.362519 15814 net.cpp:91] Creating Layer h_pseudoloss
I0924 04:01:06.362530 15814 net.cpp:425] h_pseudoloss <- h
I0924 04:01:06.362541 15814 net.cpp:399] h_pseudoloss -> h_pseudoloss
I0924 04:01:06.362546 15818 net.cpp:141] Setting up lstm1_W_xc_x_slice
I0924 04:01:06.362556 15818 net.cpp:148] Top shape: 1 1 4000 (4000)
I0924 04:01:06.362561 15818 net.cpp:156] Memory required for data: 42016
I0924 04:01:06.362565 15818 layer_factory.hpp:77] Creating layer lstm1_h_conted_0
I0924 04:01:06.362577 15818 net.cpp:91] Creating Layer lstm1_h_conted_0
I0924 04:01:06.362582 15818 net.cpp:425] lstm1_h_conted_0 <- h_0
I0924 04:01:06.362588 15818 net.cpp:425] lstm1_h_conted_0 <- cont_1_lstm1_cont_slice_0_split_0
I0924 04:01:06.362606 15818 net.cpp:399] lstm1_h_conted_0 -> h_conted_0
I0924 04:01:06.371243 15865 net.cpp:49] Initializing net from parameters: 
layer {
  name: "lstm1_"
  type: "Input"
  top: "x"
  top: "cont"
  input_param {
    shape {
      dim: 1
      dim: 1
      dim: 500
    }
    shape {
      dim: 1
      dim: 1
    }
  }
}
layer {
  name: "lstm1_"
  type: "Input"
  top: "c_0"
  top: "h_0"
  input_param {
    shape {
      dim: 1
      dim: 1
      dim: 1000
    }
    shape {
      dim: 1
      dim: 1
      dim: 1000
    }
  }
}
layer {
  name: "lstm1_cont_slice"
  type: "Slice"
  bottom: "cont"
  top: "cont_1"
  slice_param {
    axis: 0
  }
}
layer {
  name: "lstm1_x_transform"
  type: "InnerProduct"
  bottom: "x"
  top: "W_xc_x"
  param {
    name: "W_xc"
  }
  param {
    name: "b_c"
  }
  propagate_down: true
  inner_product_param {
    num_output: 4000
    bias_term: true
    weight_filler {
      type: "uniform"
      min: -0.08
      max: 0.08
    }
    bias_filler {
      type: "constant"
      value: 0
    }
    axis: 2
  }
}
layer {
  name: "lstm1_W_xc_x_slice"
  type: "Slice"
  bottom: "W_xc_x"
  top: "W_xc_x_1"
  slice_param {
    axis: 0
  }
}
layer {
  name: "lstm1_h_conted_0"
  type: "Scale"
  bottom: "h_0"
  bottom: "cont_1"
  top: "h_conted_0"
  scale_param {
    axis: 0
  }
}
layer {
  name: "lstm1_transform_1"
  type: "InnerProduct"
  bottom: "h_conted_0"
  top: "W_hc_h_0"
  param {
    name: "W_hc"
  }
  inner_product_param {
    num_output: 4000
    bias_term: false
    weight_filler {
      type: "uniform"
      min: -0.08
      max: 0.08
    }
    axis: 2
  }
}
layer {
  name: "lstm1_gate_input_1"
  type: "Eltwise"
  bottom: "W_hc_h_0"
  bottom: "W_xc_x_1"
  top: "gate_input_1"
  eltwise_param {
    operation: SUM
  }
}
layer {
  name: "lstm1_unit_1"
  type: "LSTMUnit"
  bottom: "c_0"
  bottom: "gate_input_1"
  bottom: "cont_1"
  top: "c_1"
  top: "h_1"
}
layer {
  name: "lstm1_"
  type: "Split"
  bottom: "c_1"
  top: "c_T"
}
layer {
  name: "lstm1_h_concat"
  type: "Concat"
  bottom: "h_1"
  top: "h"
  concat_param {
    axis: 0
  }
}
layer {
  name: "h_pseudoloss"
  type: "Reduction"
  bottom: "h"
  top: "h_pseudoloss"
  loss_weight: 1
}
I0924 04:01:06.371471 15865 layer_factory.hpp:77] Creating layer lstm1_
I0924 04:01:06.371495 15865 net.cpp:91] Creating Layer lstm1_
I0924 04:01:06.371513 15865 net.cpp:399] lstm1_ -> x
I0924 04:01:06.371538 15865 net.cpp:399] lstm1_ -> cont
I0924 04:01:06.377542 15857 net.cpp:141] Setting up lstm1_gate_input_1
I0924 04:01:06.377581 15857 net.cpp:148] Top shape: 1 1 4000 (4000)
I0924 04:01:06.377588 15857 net.cpp:156] Memory required for data: 78016
I0924 04:01:06.377596 15857 layer_factory.hpp:77] Creating layer lstm1_unit_1
I0924 04:01:06.377617 15857 net.cpp:91] Creating Layer lstm1_unit_1
I0924 04:01:06.377624 15857 net.cpp:425] lstm1_unit_1 <- c_0
I0924 04:01:06.377635 15857 net.cpp:425] lstm1_unit_1 <- gate_input_1
I0924 04:01:06.377640 15857 net.cpp:425] lstm1_unit_1 <- cont_1_lstm1_cont_slice_0_split_1
…
I0924 04:01:06.378226 15814 net.cpp:261] This network produces output h_pseudoloss
I0924 04:01:06.378233 15825 net.cpp:399] lstm1_unit_1 -> c_1
I0924 04:01:06.378245 15825 net.cpp:399] lstm1_unit_1 -> h_1
I0924 04:01:06.378248 15814 net.cpp:274] Network initialization done.
I0924 04:01:06.378320 15814 recurrent_layer.cpp:150] Adding parameter 0: W_xc
I0924 04:01:06.378329 15814 recurrent_layer.cpp:150] Adding parameter 1: b_c
I0924 04:01:06.378334 15814 recurrent_layer.cpp:150] Adding parameter 2: W_hc
I0924 04:01:06.378350 15821 net.cpp:141] Setting up lstm1
I0924 04:01:06.378361 15821 net.cpp:148] Top shape: 1 1 1000 (1000)
I0924 04:01:06.378366 15821 net.cpp:156] Memory required for data: 26408
I0924 04:01:06.378384 15821 layer_factory.hpp:77] Creating layer concat
I0924 04:01:06.378396 15821 net.cpp:91] Creating Layer concat
I0924 04:01:06.378403 15821 net.cpp:425] concat <- lstm1
I0924 04:01:06.378409 15821 net.cpp:425] concat <- embedded_input_sentence
I0924 04:01:06.378415 15821 net.cpp:425] concat <- reshaped_stage_indicator
I0924 04:01:06.378422 15821 net.cpp:399] concat -> lstm1_video_sequence
I0924 04:01:06.378458 15857 net.cpp:141] Setting up lstm1_unit_1
I0924 04:01:06.378475 15857 net.cpp:148] Top shape: 1 1 1000 (1000)
I0924 04:01:06.378482 15857 net.cpp:148] Top shape: 1 1 1000 (1000)
I0924 04:01:06.378486 15857 net.cpp:156] Memory required for data: 86016
I0924 04:01:06.378492 15857 layer_factory.hpp:77] Creating layer lstm1_
I0924 04:01:06.378501 15857 net.cpp:91] Creating Layer lstm1_
I0924 04:01:06.378506 15857 net.cpp:425] lstm1_ <- c_1
I0924 04:01:06.378515 15857 net.cpp:399] lstm1_ -> c_T
I0924 04:01:06.378520 15825 net.cpp:141] Setting up lstm1_unit_1
I0924 04:01:06.378530 15825 net.cpp:148] Top shape: 1 1 1000 (1000)
I0924 04:01:06.378536 15825 net.cpp:148] Top shape: 1 1 1000 (1000)
I0924 04:01:06.378541 15825 net.cpp:156] Memory required for data: 86016
I0924 04:01:06.378546 15825 layer_factory.hpp:77] Creating layer lstm1_
I0924 04:01:06.378557 15825 net.cpp:91] Creating Layer lstm1_
I0924 04:01:06.378562 15825 net.cpp:425] lstm1_ <- c_1
I0924 04:01:06.378559 15865 net.cpp:141] Setting up lstm1_
I0924 04:01:06.378571 15825 net.cpp:399] lstm1_ -> c_T
I0924 04:01:06.378579 15865 net.cpp:148] Top shape: 1 1 500 (500)
I0924 04:01:06.378592 15865 net.cpp:148] Top shape: 1 1 (1)
I0924 04:01:06.378612 15865 net.cpp:156] Memory required for data: 2004
I0924 04:01:06.378619 15865 layer_factory.hpp:77] Creating layer lstm1_
I0924 04:01:06.378636 15865 net.cpp:91] Creating Layer lstm1_
I0924 04:01:06.378665 15865 net.cpp:399] lstm1_ -> c_0
I0924 04:01:06.378681 15865 net.cpp:399] lstm1_ -> h_0
I0924 04:01:06.387069 15821 net.cpp:141] Setting up concat
I0924 04:01:06.387127 15821 net.cpp:148] Top shape: 1 1 1501 (1501)
I0924 04:01:06.387138 15821 net.cpp:156] Memory required for data: 32412
I0924 04:01:06.387154 15821 layer_factory.hpp:77] Creating layer lstm2
I0924 04:01:06.387200 15821 net.cpp:91] Creating Layer lstm2
I0924 04:01:06.387217 15821 net.cpp:425] lstm2 <- lstm1_video_sequence
I0924 04:01:06.387235 15821 net.cpp:425] lstm2 <- cont_sentence_input_1_split_1
I0924 04:01:06.387238 15857 net.cpp:141] Setting up lstm1_
I0924 04:01:06.387257 15821 net.cpp:399] lstm2 -> lstm2
I0924 04:01:06.387295 15857 net.cpp:148] Top shape: 1 1 1000 (1000)
I0924 04:01:06.387310 15857 net.cpp:156] Memory required for data: 90016
I0924 04:01:06.387328 15857 layer_factory.hpp:77] Creating layer lstm1_h_concat
I0924 04:01:06.387333 15821 recurrent_layer.cpp:20] Initializing recurrent layer: assuming input batch contains 1 timesteps of 1 independent streams.
I0924 04:01:06.387365 15857 net.cpp:91] Creating Layer lstm1_h_concat
I0924 04:01:06.387382 15857 net.cpp:425] lstm1_h_concat <- h_1
I0924 04:01:06.387404 15857 net.cpp:399] lstm1_h_concat -> h
I0924 04:01:06.387501 15857 net.cpp:141] Setting up lstm1_h_concat
I0924 04:01:06.387522 15857 net.cpp:148] Top shape: 1 1 1000 (1000)
I0924 04:01:06.387534 15857 net.cpp:156] Memory required for data: 94016
I0924 04:01:06.387555 15857 layer_factory.hpp:77] Creating layer h_pseudoloss
I0924 04:01:06.387579 15857 net.cpp:91] Creating Layer h_pseudoloss
I0924 04:01:06.387591 15857 net.cpp:425] h_pseudoloss <- h
I0924 04:01:06.387627 15857 net.cpp:399] h_pseudoloss -> h_pseudoloss
I0924 04:01:06.387696 15821 net.cpp:49] Initializing net from parameters: 
layer {
  name: "lstm2_"
  type: "Input"
  top: "x"
  top: "cont"
  input_param {
    shape {
      dim: 1
      dim: 1
      dim: 1501
    }
    shape {
      dim: 1
      dim: 1
    }
  }
}
layer {
  name: "lstm2_"
  type: "Input"
  top: "c_0"
  top: "h_0"
  input_param {
    shape {
      dim: 1
      dim: 1
      dim: 1000
    }
    shape {
      dim: 1
      dim: 1
      dim: 1000
    }
  }
}
layer {
  name: "lstm2_cont_slice"
  type: "Slice"
  bottom: "cont"
  top: "cont_1"
  slice_param {
    axis: 0
  }
}
layer {
  name: "lstm2_x_transform"
  type: "InnerProduct"
  bottom: "x"
  top: "W_xc_x"
  param {
    name: "W_xc"
  }
  param {
    name: "b_c"
  }
  propagate_down: true
  inner_product_param {
    num_output: 4000
    bias_term: true
    weight_filler {
      type: "uniform"
      min: -0.08
      max: 0.08
    }
    bias_filler {
      type: "constant"
      value: 0
    }
    axis: 2
  }
}
layer {
  name: "lstm2_W_xc_x_slice"
  type: "Slice"
  bottom: "W_xc_x"
  top: "W_xc_x_1"
  slice_param {
    axis: 0
  }
}
layer {
  name: "lstm2_h_conted_0"
  type: "Scale"
  bottom: "h_0"
  bottom: "cont_1"
  top: "h_conted_0"
  scale_param {
    axis: 0
  }
}
layer {
  name: "lstm2_transform_1"
  type: "InnerProduct"
  bottom: "h_conted_0"
  top: "W_hc_h_0"
  param {
    name: "W_hc"
  }
  inner_product_param {
    num_output: 4000
    bias_term: false
    weight_filler {
      type: "uniform"
      min: -0.08
      max: 0.08
    }
    axis: 2
  }
}
layer {
  name: "lstm2_gate_input_1"
  type: "Eltwise"
  bottom: "W_hc_h_0"
  bottom: "W_xc_x_1"
  top: "gate_input_1"
  eltwise_param {
    operation: SUM
  }
}
layer {
  name: "lstm2_unit_1"
  type: "LSTMUnit"
  bottom: "c_0"
  bottom: "gate_input_1"
  bottom: "cont_1"
  top: "c_1"
  top: "h_1"
}
layer {
  name: "lstm2_"
  type: "Split"
  bottom: "c_1"
  top: "c_T"
}
layer {
  name: "lstm2_h_concat"
  type: "Concat"
  bottom: "h_1"
  top: "h"
  concat_param {
    axis: 0
  }
}
layer {
  name: "h_pseudoloss"
  type: "Reduction"
  bottom: "h"
  top: "h_pseudoloss"
  loss_weight: 1
}
I0924 04:01:06.387807 15821 layer_factory.hpp:77] Creating layer lstm2_
I0924 04:01:06.387823 15821 net.cpp:91] Creating Layer lstm2_
I0924 04:01:06.387822 15857 net.cpp:141] Setting up h_pseudoloss
I0924 04:01:06.387833 15821 net.cpp:399] lstm2_ -> x
I0924 04:01:06.387848 15821 net.cpp:399] lstm2_ -> cont
I0924 04:01:06.387850 15857 net.cpp:148] Top shape: (1)
I0924 04:01:06.387862 15857 net.cpp:151]     with loss weight 1
I0924 04:01:06.387886 15857 net.cpp:156] Memory required for data: 94020
I0924 04:01:06.387897 15857 net.cpp:217] h_pseudoloss needs backward computation.
I0924 04:01:06.387905 15857 net.cpp:217] lstm1_h_concat needs backward computation.
I0924 04:01:06.387917 15857 net.cpp:219] lstm1_ does not need backward computation.
I0924 04:01:06.387923 15821 net.cpp:141] Setting up lstm2_
I0924 04:01:06.387930 15857 net.cpp:217] lstm1_unit_1 needs backward computation.
I0924 04:01:06.387935 15821 net.cpp:148] Top shape: 1 1 1501 (1501)
I0924 04:01:06.387943 15821 net.cpp:148] Top shape: 1 1 (1)
I0924 04:01:06.387943 15857 net.cpp:217] lstm1_gate_input_1 needs backward computation.
I0924 04:01:06.387946 15821 net.cpp:156] Memory required for data: 6008
I0924 04:01:06.387965 15821 layer_factory.hpp:77] Creating layer lstm2_
I0924 04:01:06.387964 15857 net.cpp:217] lstm1_transform_1 needs backward computation.
I0924 04:01:06.387975 15821 net.cpp:91] Creating Layer lstm2_
I0924 04:01:06.387977 15857 net.cpp:219] lstm1_h_conted_0 does not need backward computation.
I0924 04:01:06.387984 15821 net.cpp:399] lstm2_ -> c_0
I0924 04:01:06.387989 15857 net.cpp:217] lstm1_W_xc_x_slice needs backward computation.
I0924 04:01:06.387998 15821 net.cpp:399] lstm2_ -> h_0
I0924 04:01:06.388005 15857 net.cpp:217] lstm1_x_transform needs backward computation.
I0924 04:01:06.388017 15857 net.cpp:219] cont_1_lstm1_cont_slice_0_split does not need backward computation.
I0924 04:01:06.388031 15857 net.cpp:219] lstm1_cont_slice does not need backward computation.
I0924 04:01:06.388043 15857 net.cpp:219] lstm1_ does not need backward computation.
I0924 04:01:06.388054 15857 net.cpp:219] lstm1_ does not need backward computation.
I0924 04:01:06.388067 15857 net.cpp:261] This network produces output c_T
I0924 04:01:06.388068 15821 net.cpp:141] Setting up lstm2_
I0924 04:01:06.388082 15821 net.cpp:148] Top shape: 1 1 1000 (1000)
I0924 04:01:06.388079 15857 net.cpp:261] This network produces output h_pseudoloss
I0924 04:01:06.388105 15821 net.cpp:148] Top shape: 1 1 1000 (1000)
I0924 04:01:06.388113 15821 net.cpp:156] Memory required for data: 14008
I0924 04:01:06.388120 15821 layer_factory.hpp:77] Creating layer lstm2_cont_slice
I0924 04:01:06.388134 15821 net.cpp:91] Creating Layer lstm2_cont_slice
I0924 04:01:06.388134 15857 net.cpp:274] Network initialization done.
I0924 04:01:06.388156 15821 net.cpp:425] lstm2_cont_slice <- cont
I0924 04:01:06.388172 15821 net.cpp:399] lstm2_cont_slice -> cont_1
I0924 04:01:06.388227 15857 recurrent_layer.cpp:150] Adding parameter 0: W_xc
I0924 04:01:06.388233 15821 net.cpp:141] Setting up lstm2_cont_slice
I0924 04:01:06.388249 15857 recurrent_layer.cpp:150] Adding parameter 1: b_c
I0924 04:01:06.388257 15821 net.cpp:148] Top shape: 1 1 (1)
I0924 04:01:06.388258 15857 recurrent_layer.cpp:150] Adding parameter 2: W_hc
I0924 04:01:06.388264 15821 net.cpp:156] Memory required for data: 14012
I0924 04:01:06.388273 15821 layer_factory.hpp:77] Creating layer cont_1_lstm2_cont_slice_0_split
I0924 04:01:06.388293 15821 net.cpp:91] Creating Layer cont_1_lstm2_cont_slice_0_split
I0924 04:01:06.388301 15821 net.cpp:425] cont_1_lstm2_cont_slice_0_split <- cont_1
I0924 04:01:06.388312 15821 net.cpp:399] cont_1_lstm2_cont_slice_0_split -> cont_1_lstm2_cont_slice_0_split_0
I0924 04:01:06.388329 15821 net.cpp:399] cont_1_lstm2_cont_slice_0_split -> cont_1_lstm2_cont_slice_0_split_1
I0924 04:01:06.388423 15821 net.cpp:141] Setting up cont_1_lstm2_cont_slice_0_split
I0924 04:01:06.388437 15821 net.cpp:148] Top shape: 1 1 (1)
I0924 04:01:06.388442 15821 net.cpp:148] Top shape: 1 1 (1)
I0924 04:01:06.388448 15821 net.cpp:156] Memory required for data: 14020
I0924 04:01:06.388454 15821 layer_factory.hpp:77] Creating layer lstm2_x_transform
I0924 04:01:06.388468 15821 net.cpp:91] Creating Layer lstm2_x_transform
I0924 04:01:06.388473 15821 net.cpp:425] lstm2_x_transform <- x
I0924 04:01:06.388481 15821 net.cpp:399] lstm2_x_transform -> W_xc_x
I0924 04:01:06.388552 15814 net.cpp:141] Setting up lstm1
I0924 04:01:06.388581 15814 net.cpp:148] Top shape: 1 1 1000 (1000)
I0924 04:01:06.388589 15814 net.cpp:156] Memory required for data: 26408
I0924 04:01:06.388625 15814 layer_factory.hpp:77] Creating layer concat
I0924 04:01:06.388644 15814 net.cpp:91] Creating Layer concat
I0924 04:01:06.388656 15814 net.cpp:425] concat <- lstm1
I0924 04:01:06.388669 15814 net.cpp:425] concat <- embedded_input_sentence
I0924 04:01:06.388679 15814 net.cpp:425] concat <- reshaped_stage_indicator
I0924 04:01:06.388692 15814 net.cpp:399] concat -> lstm1_video_sequence
I0924 04:01:06.390169 15839 net.cpp:141] Setting up embedding
I0924 04:01:06.390195 15839 net.cpp:148] Top shape: 1 1 500 (500)
I0924 04:01:06.390192 15814 net.cpp:141] Setting up concat
I0924 04:01:06.390200 15839 net.cpp:156] Memory required for data: 22408
I0924 04:01:06.390209 15814 net.cpp:148] Top shape: 1 1 1501 (1501)
I0924 04:01:06.390218 15814 net.cpp:156] Memory required for data: 32412
I0924 04:01:06.390226 15814 layer_factory.hpp:77] Creating layer lstm2
I0924 04:01:06.390244 15814 net.cpp:91] Creating Layer lstm2
I0924 04:01:06.390254 15814 net.cpp:425] lstm2 <- lstm1_video_sequence
I0924 04:01:06.390264 15814 net.cpp:425] lstm2 <- cont_sentence_input_1_split_1
I0924 04:01:06.390276 15814 net.cpp:399] lstm2 -> lstm2
I0924 04:01:06.390293 15814 recurrent_layer.cpp:20] Initializing recurrent layer: assuming input batch contains 1 timesteps of 1 independent streams.
I0924 04:01:06.390486 15839 layer_factory.hpp:77] Creating layer lstm1
I0924 04:01:06.390501 15839 net.cpp:91] Creating Layer lstm1
I0924 04:01:06.390507 15839 net.cpp:425] lstm1 <- embedded_input_frames
I0924 04:01:06.390516 15839 net.cpp:425] lstm1 <- cont_sentence_input_1_split_0
I0924 04:01:06.390525 15839 net.cpp:399] lstm1 -> lstm1
I0924 04:01:06.390537 15839 recurrent_layer.cpp:20] Initializing recurrent layer: assuming input batch contains 1 timesteps of 1 independent streams.
I0924 04:01:06.390674 15857 net.cpp:141] Setting up lstm1
I0924 04:01:06.390691 15857 net.cpp:148] Top shape: 1 1 1000 (1000)
I0924 04:01:06.390697 15857 net.cpp:156] Memory required for data: 26408
I0924 04:01:06.390699 15814 net.cpp:49] Initializing net from parameters: 
layer {
  name: "lstm2_"
  type: "Input"
  top: "x"
  top: "cont"
  input_param {
    shape {
      dim: 1
      dim: 1
      dim: 1501
    }
    shape {
      dim: 1
      dim: 1
    }
  }
}
layer {
  name: "lstm2_"
  type: "Input"
  top: "c_0"
  top: "h_0"
  input_param {
    shape {
      dim: 1
      dim: 1
      dim: 1000
    }
    shape {
      dim: 1
      dim: 1
      dim: 1000
    }
  }
}
layer {
  name: "lstm2_cont_slice"
  type: "Slice"
  bottom: "cont"
  top: "cont_1"
  slice_param {
    axis: 0
  }
}
layer {
  name: "lstm2_x_transform"
  type: "InnerProduct"
  bottom: "x"
  top: "W_xc_x"
  param {
    name: "W_xc"
  }
  param {
    name: "b_c"
  }
  propagate_down: true
  inner_product_param {
    num_output: 4000
    bias_term: true
    weight_filler {
      type: "uniform"
      min: -0.08
      max: 0.08
    }
    bias_filler {
      type: "constant"
      value: 0
    }
    axis: 2
  }
}
layer {
  name: "lstm2_W_xc_x_slice"
  type: "Slice"
  bottom: "W_xc_x"
  top: "W_xc_x_1"
  slice_param {
    axis: 0
  }
}
layer {
  name: "lstm2_h_conted_0"
  type: "Scale"
  bottom: "h_0"
  bottom: "cont_1"
  top: "h_conted_0"
  scale_param {
    axis: 0
  }
}
layer {
  name: "lstm2_transform_1"
  type: "InnerProduct"
  bottom: "h_conted_0"
  top: "W_hc_h_0"
  param {
    name: "W_hc"
  }
  inner_product_param {
    num_output: 4000
    bias_term: false
    weight_filler {
      type: "uniform"
      min: -0.08
      max: 0.08
    }
    axis: 2
  }
}
layer {
  name: "lstm2_gate_input_1"
  type: "Eltwise"
  bottom: "W_hc_h_0"
  bottom: "W_xc_x_1"
  top: "gate_input_1"
  eltwise_param {
    operation: SUM
  }
}
layer {
  name: "lstm2_unit_1"
  type: "LSTMUnit"
  bottom: "c_0"
  bottom: "gate_input_1"
  bottom: "cont_1"
  top: "c_1"
  top: "h_1"
}
layer {
  name: "lstm2_"
  type: "Split"
  bottom: "c_1"
  top: "c_T"
}
layer {
  name: "lstm2_h_concat"
  type: "Concat"
  bottom: "h_1"
  top: "h"
  concat_param {
    axis: 0
  }
}
layer {
  name: "h_pseudoloss"
  type: "Reduction"
  bottom: "h"
  top: "h_pseudoloss"
  loss_weight: 1
}
I0924 04:01:06.390771 15865 net.cpp:141] Setting up lstm1_
I0924 04:01:06.390789 15865 net.cpp:148] Top shape: 1 1 1000 (1000)
I0924 04:01:06.390795 15865 net.cpp:148] Top shape: 1 1 1000 (1000)
I0924 04:01:06.390799 15865 net.cpp:156] Memory required for data: 10004
I0924 04:01:06.390805 15865 layer_factory.hpp:77] Creating layer lstm1_cont_slice
I0924 04:01:06.395135 15814 layer_factory.hpp:77] Creating layer lstm2_
I0924 04:01:06.395149 15865 net.cpp:91] Creating Layer lstm1_cont_slice
I0924 04:01:06.395108 15857 layer_factory.hpp:77] Creating layer concat
I0924 04:01:06.395174 15814 net.cpp:91] Creating Layer lstm2_
I0924 04:01:06.395189 15857 net.cpp:91] Creating Layer concat
I0924 04:01:06.395197 15857 net.cpp:425] concat <- lstm1
I0924 04:01:06.395201 15814 net.cpp:399] lstm2_ -> x
I0924 04:01:06.395206 15857 net.cpp:425] concat <- embedded_input_sentence
I0924 04:01:06.395215 15857 net.cpp:425] concat <- reshaped_stage_indicator
I0924 04:01:06.395220 15814 net.cpp:399] lstm2_ -> cont
I0924 04:01:06.395176 15865 net.cpp:425] lstm1_cont_slice <- cont
I0924 04:01:06.395221 15857 net.cpp:399] concat -> lstm1_video_sequence
I0924 04:01:06.395246 15865 net.cpp:399] lstm1_cont_slice -> cont_1
I0924 04:01:06.395279 15825 net.cpp:141] Setting up lstm1_
I0924 04:01:06.395300 15825 net.cpp:148] Top shape: 1 1 1000 (1000)
I0924 04:01:06.395306 15865 net.cpp:141] Setting up lstm1_cont_slice
I0924 04:01:06.395310 15825 net.cpp:156] Memory required for data: 90016
I0924 04:01:06.395318 15865 net.cpp:148] Top shape: 1 1 (1)
I0924 04:01:06.395320 15825 layer_factory.hpp:77] Creating layer lstm1_h_concat
I0924 04:01:06.395323 15865 net.cpp:156] Memory required for data: 10008
I0924 04:01:06.395340 15865 layer_factory.hpp:77] Creating layer cont_1_lstm1_cont_slice_0_split
I0924 04:01:06.395344 15825 net.cpp:91] Creating Layer lstm1_h_concat
I0924 04:01:06.395349 15825 net.cpp:425] lstm1_h_concat <- h_1
I0924 04:01:06.395350 15865 net.cpp:91] Creating Layer cont_1_lstm1_cont_slice_0_split
I0924 04:01:06.395355 15865 net.cpp:425] cont_1_lstm1_cont_slice_0_split <- cont_1
I0924 04:01:06.395434 15825 net.cpp:399] lstm1_h_concat -> h
I0924 04:01:06.395494 15865 net.cpp:399] cont_1_lstm1_cont_slice_0_split -> cont_1_lstm1_cont_slice_0_split_0
I0924 04:01:06.395519 15865 net.cpp:399] cont_1_lstm1_cont_slice_0_split -> cont_1_lstm1_cont_slice_0_split_1
I0924 04:01:06.395544 15839 net.cpp:49] Initializing net from parameters: 
layer {
  name: "lstm1_"
  type: "Input"
  top: "x"
  top: "cont"
  input_param {
    shape {
      dim: 1
      dim: 1
      dim: 500
    }
    shape {
      dim: 1
      dim: 1
    }
  }
}
layer {
  name: "lstm1_"
  type: "Input"
  top: "c_0"
  top: "h_0"
  input_param {
    shape {
      dim: 1
      dim: 1
      dim: 1000
    }
    shape {
      dim: 1
      dim: 1
      dim: 1000
    }
  }
}
layer {
  name: "lstm1_cont_slice"
  type: "Slice"
  bottom: "cont"
  top: "cont_1"
  slice_param {
    axis: 0
  }
}
layer {
  name: "lstm1_x_transform"
  type: "InnerProduct"
  bottom: "x"
  top: "W_xc_x"
  param {
    name: "W_xc"
  }
  param {
    name: "b_c"
  }
  propagate_down: true
  inner_product_param {
    num_output: 4000
    bias_term: true
    weight_filler {
      type: "uniform"
      min: -0.08
      max: 0.08
    }
    bias_filler {
      type: "constant"
      value: 0
    }
    axis: 2
  }
}
layer {
  name: "lstm1_W_xc_x_slice"
  type: "Slice"
  bottom: "W_xc_x"
  top: "W_xc_x_1"
  slice_param {
    axis: 0
  }
}
layer {
  name: "lstm1_h_conted_0"
  type: "Scale"
  bottom: "h_0"
  bottom: "cont_1"
  top: "h_conted_0"
  scale_param {
    axis: 0
  }
}
layer {
  name: "lstm1_transform_1"
  type: "InnerProduct"
  bottom: "h_conted_0"
  top: "W_hc_h_0"
  param {
    name: "W_hc"
  }
  inner_product_param {
    num_output: 4000
    bias_term: false
    weight_filler {
      type: "uniform"
      min: -0.08
      max: 0.08
    }
    axis: 2
  }
}
layer {
  name: "lstm1_gate_input_1"
  type: "Eltwise"
  bottom: "W_hc_h_0"
  bottom: "W_xc_x_1"
  top: "gate_input_1"
  eltwise_param {
    operation: SUM
  }
}
layer {
  name: "lstm1_unit_1"
  type: "LSTMUnit"
  bottom: "c_0"
  bottom: "gate_input_1"
  bottom: "cont_1"
  top: "c_1"
  top: "h_1"
}
layer {
  name: "lstm1_"
  type: "Split"
  bottom: "c_1"
  top: "c_T"
}
layer {
  name: "lstm1_h_concat"
  type: "Concat"
  bottom: "h_1"
  top: "h"
  concat_param {
    axis: 0
  }
}
layer {
  name: "h_pseudoloss"
  type: "Reduction"
  bottom: "h"
  top: "h_pseudoloss"
  loss_weight: 1
}
I0924 04:01:06.409200 15839 layer_factory.hpp:77] Creating layer lstm1_
I0924 04:01:06.409271 15839 net.cpp:91] Creating Layer lstm1_
I0924 04:01:06.409284 15839 net.cpp:399] lstm1_ -> x
I0924 04:01:06.409315 15839 net.cpp:399] lstm1_ -> cont
I0924 04:01:06.451341 15857 net.cpp:141] Setting up concat
I0924 04:01:06.451375 15825 net.cpp:141] Setting up lstm1_h_concat
I0924 04:01:06.451409 15825 net.cpp:148] Top shape: 1 1 1000 (1000)
I0924 04:01:06.451411 15857 net.cpp:148] Top shape: 1 1 1501 (1501)
I0924 04:01:06.451416 15825 net.cpp:156] Memory required for data: 94016
I0924 04:01:06.451422 15857 net.cpp:156] Memory required for data: 32412
I0924 04:01:06.451426 15825 layer_factory.hpp:77] Creating layer h_pseudoloss
I0924 04:01:06.451433 15857 layer_factory.hpp:77] Creating layer lstm2
I0924 04:01:06.451453 15825 net.cpp:91] Creating Layer h_pseudoloss
I0924 04:01:06.451462 15825 net.cpp:425] h_pseudoloss <- h
I0924 04:01:06.451467 15857 net.cpp:91] Creating Layer lstm2
I0924 04:01:06.451475 15825 net.cpp:399] h_pseudoloss -> h_pseudoloss
I0924 04:01:06.451483 15857 net.cpp:425] lstm2 <- lstm1_video_sequence
I0924 04:01:06.451496 15857 net.cpp:425] lstm2 <- cont_sentence_input_1_split_1
I0924 04:01:06.451514 15857 net.cpp:399] lstm2 -> lstm2
I0924 04:01:06.451539 15857 recurrent_layer.cpp:20] Initializing recurrent layer: assuming input batch contains 1 timesteps of 1 independent streams.
I0924 04:01:06.451601 15869 net.cpp:141] Setting up lstm1_transform_1
I0924 04:01:06.451643 15869 net.cpp:148] Top shape: 1 1 4000 (4000)
I0924 04:01:06.451650 15869 net.cpp:156] Memory required for data: 62016
I0924 04:01:06.451673 15869 layer_factory.hpp:77] Creating layer lstm1_gate_input_1
I0924 04:01:06.451678 15818 net.cpp:141] Setting up lstm1_transform_1
I0924 04:01:06.451697 15869 net.cpp:91] Creating Layer lstm1_gate_input_1
I0924 04:01:06.451704 15869 net.cpp:425] lstm1_gate_input_1 <- W_hc_h_0
I0924 04:01:06.451704 15818 net.cpp:148] Top shape: 1 1 4000 (4000)
I0924 04:01:06.451717 15869 net.cpp:425] lstm1_gate_input_1 <- W_xc_x_1
I0924 04:01:06.451717 15818 net.cpp:156] Memory required for data: 62016
I0924 04:01:06.451728 15869 net.cpp:399] lstm1_gate_input_1 -> gate_input_1
I0924 04:01:06.451740 15818 layer_factory.hpp:77] Creating layer lstm1_gate_input_1
I0924 04:01:06.451761 15818 net.cpp:91] Creating Layer lstm1_gate_input_1
I0924 04:01:06.451774 15818 net.cpp:425] lstm1_gate_input_1 <- W_hc_h_0
I0924 04:01:06.451786 15818 net.cpp:425] lstm1_gate_input_1 <- W_xc_x_1
I0924 04:01:06.451804 15869 net.cpp:141] Setting up lstm1_gate_input_1
I0924 04:01:06.451805 15818 net.cpp:399] lstm1_gate_input_1 -> gate_input_1
I0924 04:01:06.451817 15869 net.cpp:148] Top shape: 1 1 4000 (4000)
I0924 04:01:06.451822 15869 net.cpp:156] Memory required for data: 78016
I0924 04:01:06.451828 15869 layer_factory.hpp:77] Creating layer lstm1_unit_1
I0924 04:01:06.451840 15869 net.cpp:91] Creating Layer lstm1_unit_1
I0924 04:01:06.451845 15869 net.cpp:425] lstm1_unit_1 <- c_0
I0924 04:01:06.451853 15869 net.cpp:425] lstm1_unit_1 <- gate_input_1
I0924 04:01:06.451861 15869 net.cpp:425] lstm1_unit_1 <- cont_1_lstm1_cont_slice_0_split_1
I0924 04:01:06.451869 15869 net.cpp:399] lstm1_unit_1 -> c_1
I0924 04:01:06.451881 15869 net.cpp:399] lstm1_unit_1 -> h_1
I0924 04:01:06.451899 15814 net.cpp:141] Setting up lstm2_
I0924 04:01:06.451925 15814 net.cpp:148] Top shape: 1 1 1501 (1501)
I0924 04:01:06.451925 15865 net.cpp:141] Setting up cont_1_lstm1_cont_slice_0_split
I0924 04:01:06.451951 15814 net.cpp:148] Top shape: 1 1 (1)
I0924 04:01:06.451964 15814 net.cpp:156] Memory required for data: 6008
I0924 04:01:06.451974 15814 layer_factory.hpp:77] Creating layer lstm2_
I0924 04:01:06.451994 15814 net.cpp:91] Creating Layer lstm2_
I0924 04:01:06.452003 15865 net.cpp:148] Top shape: 1 1 (1)
I0924 04:01:06.452008 15839 net.cpp:141] Setting up lstm1_
I0924 04:01:06.452013 15865 net.cpp:148] Top shape: 1 1 (1)
I0924 04:01:06.452030 15865 net.cpp:156] Memory required for data: 10016
I0924 04:01:06.452018 15857 net.cpp:49] Initializing net from parameters: 
layer {
  name: "lstm2_"
  type: "Input"
  top: "x"
  top: "cont"
  input_param {
    shape {
      dim: 1
      dim: 1
…
I0924 04:02:00.532507 16176 net.cpp:91] Creating Layer lstm2_gate_input_1
I0924 04:02:00.532516 16176 net.cpp:425] lstm2_gate_input_1 <- W_hc_h_0
I0924 04:02:00.532526 16176 net.cpp:425] lstm2_gate_input_1 <- W_xc_x_1
I0924 04:02:00.532541 16176 net.cpp:399] lstm2_gate_input_1 -> gate_input_1
I0924 04:02:00.532619 16176 net.cpp:141] Setting up lstm2_gate_input_1
I0924 04:02:00.532634 16176 net.cpp:148] Top shape: 1 1 4000 (4000)
I0924 04:02:00.532641 16176 net.cpp:156] Memory required for data: 82020
I0924 04:02:00.532649 16176 layer_factory.hpp:77] Creating layer lstm2_unit_1
I0924 04:02:00.532665 16176 net.cpp:91] Creating Layer lstm2_unit_1
I0924 04:02:00.532671 16176 net.cpp:425] lstm2_unit_1 <- c_0
I0924 04:02:00.532681 16176 net.cpp:425] lstm2_unit_1 <- gate_input_1
I0924 04:02:00.532691 16176 net.cpp:425] lstm2_unit_1 <- cont_1_lstm2_cont_slice_0_split_1
I0924 04:02:00.532694 16180 net.cpp:141] Setting up lstm2_
I0924 04:02:00.532701 16176 net.cpp:399] lstm2_unit_1 -> c_1
I0924 04:02:00.532707 16180 net.cpp:148] Top shape: 1 1 1000 (1000)
I0924 04:02:00.532711 16180 net.cpp:156] Memory required for data: 94020
I0924 04:02:00.532716 16180 layer_factory.hpp:77] Creating layer lstm2_h_concat
I0924 04:02:00.532716 16176 net.cpp:399] lstm2_unit_1 -> h_1
I0924 04:02:00.532727 16180 net.cpp:91] Creating Layer lstm2_h_concat
I0924 04:02:00.532732 16180 net.cpp:425] lstm2_h_concat <- h_1
I0924 04:02:00.532738 16180 net.cpp:399] lstm2_h_concat -> h
…
I0924 04:02:00.532840 16186 net.cpp:217] lstm1_unit_1 needs backward computation.
I0924 04:02:00.532850 16186 net.cpp:217] lstm1_gate_input_1 needs backward computation.
I0924 04:02:00.532855 16176 net.cpp:141] Setting up lstm2_unit_1
I0924 04:02:00.532858 16186 net.cpp:217] lstm1_transform_1 needs backward computation.
I0924 04:02:00.532884 16186 net.cpp:219] lstm1_h_conted_0 does not need backward computation.
I0924 04:02:00.532891 16226 net.cpp:141] Setting up lstm2_unit_1
I0924 04:02:00.532899 16186 net.cpp:217] lstm1_W_xc_x_slice needs backward computation.
I0924 04:02:00.532904 16226 net.cpp:148] Top shape: 1 1 1000 (1000)
I0924 04:02:00.532910 16226 net.cpp:148] Top shape: 1 1 1000 (1000)
I0924 04:02:00.532909 16186 net.cpp:217] lstm1_x_transform needs backward computation.
I0924 04:02:00.532915 16226 net.cpp:156] Memory required for data: 90020
I0924 04:02:00.532919 16186 net.cpp:219] cont_1_lstm1_cont_slice_0_split does not need backward computation.
I0924 04:02:00.532920 16226 layer_factory.hpp:77] Creating layer lstm2_
I0924 04:02:00.532932 16176 net.cpp:148] Top shape: 1 1 1000 (1000)
I0924 04:02:00.532944 16226 net.cpp:91] Creating Layer lstm2_
I0924 04:02:00.532934 16186 net.cpp:219] lstm1_cont_slice does not need backward computation.
I0924 04:02:00.532959 16226 net.cpp:425] lstm2_ <- c_1
I0924 04:02:00.532955 16176 net.cpp:148] Top shape: 1 1 1000 (1000)
I0924 04:02:00.532973 16226 net.cpp:399] lstm2_ -> c_T
I0924 04:02:00.532976 16186 net.cpp:219] lstm1_ does not need backward computation.
I0924 04:02:00.532979 16180 net.cpp:141] Setting up lstm2_h_concat
I0924 04:02:00.532977 16176 net.cpp:156] Memory required for data: 90020
I0924 04:02:00.532994 16186 net.cpp:219] lstm1_ does not need backward computation.
I0924 04:02:00.533000 16176 layer_factory.hpp:77] Creating layer lstm2_
I0924 04:02:00.532994 16180 net.cpp:148] Top shape: 1 1 1000 (1000)
I0924 04:02:00.533005 16186 net.cpp:261] This network produces output c_T
I0924 04:02:00.533011 16180 net.cpp:156] Memory required for data: 98020
I0924 04:02:00.533013 16176 net.cpp:91] Creating Layer lstm2_
I0924 04:02:00.533017 16180 layer_factory.hpp:77] Creating layer h_pseudoloss
I0924 04:02:00.533015 16186 net.cpp:261] This network produces output h_pseudoloss
I0924 04:02:00.533027 16176 net.cpp:425] lstm2_ <- c_1
I0924 04:02:00.533030 16180 net.cpp:91] Creating Layer h_pseudoloss
I0924 04:02:00.533041 16180 net.cpp:425] h_pseudoloss <- h
I0924 04:02:00.533049 16180 net.cpp:399] h_pseudoloss -> h_pseudoloss
I0924 04:02:00.533049 16186 net.cpp:274] Network initialization done.
I0924 04:02:00.533047 16176 net.cpp:399] lstm2_ -> c_T
I0924 04:02:00.533128 16186 recurrent_layer.cpp:150] Adding parameter 0: W_xc
I0924 04:02:00.533139 16186 recurrent_layer.cpp:150] Adding parameter 1: b_c
I0924 04:02:00.533133 16200 net.cpp:141] Setting up lstm2_x_transform
I0924 04:02:00.533148 16186 recurrent_layer.cpp:150] Adding parameter 2: W_hc
I0924 04:02:00.533177 16200 net.cpp:148] Top shape: 1 1 4000 (4000)
I0924 04:02:00.533190 16200 net.cpp:156] Memory required for data: 30020
I0924 04:02:00.533215 16200 layer_factory.hpp:77] Creating layer lstm2_W_xc_x_slice
I0924 04:02:00.533238 16200 net.cpp:91] Creating Layer lstm2_W_xc_x_slice
I0924 04:02:00.533249 16200 net.cpp:425] lstm2_W_xc_x_slice <- W_xc_x
I0924 04:02:00.533259 16176 net.cpp:141] Setting up lstm2_
I0924 04:02:00.533262 16200 net.cpp:399] lstm2_W_xc_x_slice -> W_xc_x_1
I0924 04:02:00.533282 16176 net.cpp:148] Top shape: 1 1 1000 (1000)
I0924 04:02:00.533290 16176 net.cpp:156] Memory required for data: 94020
I0924 04:02:00.533298 16176 layer_factory.hpp:77] Creating layer lstm2_h_concat
I0924 04:02:00.533298 16226 net.cpp:141] Setting up lstm2_
I0924 04:02:00.533311 16226 net.cpp:148] Top shape: 1 1 1000 (1000)
I0924 04:02:00.533310 16176 net.cpp:91] Creating Layer lstm2_h_concat
I0924 04:02:00.533316 16226 net.cpp:156] Memory required for data: 94020
I0924 04:02:00.533319 16176 net.cpp:425] lstm2_h_concat <- h_1
I0924 04:02:00.533321 16226 layer_factory.hpp:77] Creating layer lstm2_h_concat
I0924 04:02:00.533331 16226 net.cpp:91] Creating Layer lstm2_h_concat
I0924 04:02:00.533331 16176 net.cpp:399] lstm2_h_concat -> h
I0924 04:02:00.533336 16226 net.cpp:425] lstm2_h_concat <- h_1
I0924 04:02:00.533344 16226 net.cpp:399] lstm2_h_concat -> h
I0924 04:02:00.533362 16200 net.cpp:141] Setting up lstm2_W_xc_x_slice
I0924 04:02:00.533377 16200 net.cpp:148] Top shape: 1 1 4000 (4000)
I0924 04:02:00.533385 16200 net.cpp:156] Memory required for data: 46020
I0924 04:02:00.533392 16200 layer_factory.hpp:77] Creating layer lstm2_h_conted_0
I0924 04:02:00.533406 16200 net.cpp:91] Creating Layer lstm2_h_conted_0
I0924 04:02:00.533406 16226 net.cpp:141] Setting up lstm2_h_concat
I0924 04:02:00.533421 16200 net.cpp:425] lstm2_h_conted_0 <- h_0
I0924 04:02:00.533437 16226 net.cpp:148] Top shape: 1 1 1000 (1000)
I0924 04:02:00.533443 16200 net.cpp:425] lstm2_h_conted_0 <- cont_1_lstm2_cont_slice_0_split_0
I0924 04:02:00.533447 16226 net.cpp:156] Memory required for data: 98020
I0924 04:02:00.533457 16226 layer_factory.hpp:77] Creating layer h_pseudoloss
I0924 04:02:00.533462 16200 net.cpp:399] lstm2_h_conted_0 -> h_conted_0
I0924 04:02:00.533470 16226 net.cpp:91] Creating Layer h_pseudoloss
…
I0924 04:02:00.534270 16226 net.cpp:219] lstm2_ does not need backward computation.
I0924 04:02:00.534278 16226 net.cpp:219] lstm2_ does not need backward computation.
I0924 04:02:00.534286 16226 net.cpp:261] This network produces output c_T
I0924 04:02:00.534293 16226 net.cpp:261] This network produces output h_pseudoloss
I0924 04:02:00.534317 16226 net.cpp:274] Network initialization done.
I0924 04:02:00.534368 16186 net.cpp:141] Setting up lstm1
I0924 04:02:00.534373 16226 recurrent_layer.cpp:150] Adding parameter 0: W_xc
I0924 04:02:00.534389 16226 recurrent_layer.cpp:150] Adding parameter 1: b_c
I0924 04:02:00.534389 16186 net.cpp:148] Top shape: 1 1 1000 (1000)
I0924 04:02:00.534400 16226 recurrent_layer.cpp:150] Adding parameter 2: W_hc
I0924 04:02:00.534411 16186 net.cpp:156] Memory required for data: 26408
I0924 04:02:00.534435 16186 layer_factory.hpp:77] Creating layer concat
I0924 04:02:00.534451 16186 net.cpp:91] Creating Layer concat
I0924 04:02:00.534461 16186 net.cpp:425] concat <- lstm1
I0924 04:02:00.534471 16186 net.cpp:425] concat <- embedded_input_sentence
I0924 04:02:00.534482 16186 net.cpp:425] concat <- reshaped_stage_indicator
I0924 04:02:00.534492 16186 net.cpp:399] concat -> lstm1_video_sequence
I0924 04:02:00.650272 16186 net.cpp:141] Setting up concat
I0924 04:02:00.650357 16186 net.cpp:148] Top shape: 1 1 1501 (1501)
I0924 04:02:00.650368 16186 net.cpp:156] Memory required for data: 32412
I0924 04:02:00.650385 16186 layer_factory.hpp:77] Creating layer lstm2
I0924 04:02:00.650427 16186 net.cpp:91] Creating Layer lstm2
I0924 04:02:00.650444 16186 net.cpp:425] lstm2 <- lstm1_video_sequence
I0924 04:02:00.650462 16186 net.cpp:425] lstm2 <- cont_sentence_input_1_split_1
I0924 04:02:00.650483 16186 net.cpp:399] lstm2 -> lstm2
I0924 04:02:00.650517 16186 recurrent_layer.cpp:20] Initializing recurrent layer: assuming input batch contains 1 timesteps of 1 independent streams.
I0924 04:02:00.658340 16186 net.cpp:49] Initializing net from parameters: 
layer {
  name: "lstm2_"
  type: "Input"
  top: "x"
  top: "cont"
  input_param {
    shape {
      dim: 1
      dim: 1
      dim: 1501
    }
    shape {
      dim: 1
      dim: 1
    }
  }
}
layer {
  name: "lstm2_"
  type: "Input"
  top: "c_0"
  top: "h_0"
  input_param {
    shape {
      dim: 1
      dim: 1
      dim: 1000
    }
    shape {
      dim: 1
      dim: 1
      dim: 1000
    }
  }
}
layer {
  name: "lstm2_cont_slice"
  type: "Slice"
  bottom: "cont"
  top: "cont_1"
  slice_param {
    axis: 0
  }
}
layer {
  name: "lstm2_x_transform"
  type: "InnerProduct"
  bottom: "x"
  top: "W_xc_x"
  param {
    name: "W_xc"
  }
  param {
    name: "b_c"
  }
  propagate_down: true
  inner_product_param {
    num_output: 4000
    bias_term: true
    weight_filler {
      type: "uniform"
      min: -0.08
      max: 0.08
    }
    bias_filler {
      type: "constant"
      value: 0
    }
    axis: 2
  }
}
layer {
  name: "lstm2_W_xc_x_slice"
  type: "Slice"
  bottom: "W_xc_x"
  top: "W_xc_x_1"
  slice_param {
    axis: 0
  }
}
layer {
  name: "lstm2_h_conted_0"
  type: "Scale"
  bottom: "h_0"
  bottom: "cont_1"
  top: "h_conted_0"
  scale_param {
    axis: 0
  }
}
layer {
  name: "lstm2_transform_1"
  type: "InnerProduct"
  bottom: "h_conted_0"
  top: "W_hc_h_0"
  param {
    name: "W_hc"
  }
  inner_product_param {
    num_output: 4000
    bias_term: false
    weight_filler {
      type: "uniform"
      min: -0.08
      max: 0.08
    }
    axis: 2
  }
}
layer {
  name: "lstm2_gate_input_1"
  type: "Eltwise"
  bottom: "W_hc_h_0"
  bottom: "W_xc_x_1"
  top: "gate_input_1"
  eltwise_param {
    operation: SUM
  }
}
layer {
  name: "lstm2_unit_1"
  type: "LSTMUnit"
  bottom: "c_0"
  bottom: "gate_input_1"
  bottom: "cont_1"
  top: "c_1"
  top: "h_1"
}
layer {
  name: "lstm2_"
  type: "Split"
  bottom: "c_1"
  top: "c_T"
}
layer {
  name: "lstm2_h_concat"
  type: "Concat"
  bottom: "h_1"
  top: "h"
  concat_param {
    axis: 0
  }
}
layer {
  name: "h_pseudoloss"
  type: "Reduction"
  bottom: "h"
  top: "h_pseudoloss"
  loss_weight: 1
}
I0924 04:02:00.658485 16186 layer_factory.hpp:77] Creating layer lstm2_
I0924 04:02:00.658502 16186 net.cpp:91] Creating Layer lstm2_
I0924 04:02:00.658509 16186 net.cpp:399] lstm2_ -> x
I0924 04:02:00.658529 16186 net.cpp:399] lstm2_ -> cont
I0924 04:02:00.659590 16218 net.cpp:141] Setting up lstm2_transform_1
I0924 04:02:00.659637 16218 net.cpp:148] Top shape: 1 1 4000 (4000)
I0924 04:02:00.659654 16218 net.cpp:156] Memory required for data: 66020
I0924 04:02:00.659693 16218 layer_factory.hpp:77] Creating layer lstm2_gate_input_1
I0924 04:02:00.659816 16218 net.cpp:91] Creating Layer lstm2_gate_input_1
I0924 04:02:00.659838 16218 net.cpp:425] lstm2_gate_input_1 <- W_hc_h_0
I0924 04:02:00.659858 16218 net.cpp:425] lstm2_gate_input_1 <- W_xc_x_1
I0924 04:02:00.659889 16218 net.cpp:399] lstm2_gate_input_1 -> gate_input_1
I0924 04:02:00.660013 16218 net.cpp:141] Setting up lstm2_gate_input_1
I0924 04:02:00.660039 16218 net.cpp:148] Top shape: 1 1 4000 (4000)
I0924 04:02:00.660053 16218 net.cpp:156] Memory required for data: 82020
I0924 04:02:00.660068 16218 layer_factory.hpp:77] Creating layer lstm2_unit_1
I0924 04:02:00.660100 16218 net.cpp:91] Creating Layer lstm2_unit_1
I0924 04:02:00.660117 16218 net.cpp:425] lstm2_unit_1 <- c_0
I0924 04:02:00.660135 16218 net.cpp:425] lstm2_unit_1 <- gate_input_1
I0924 04:02:00.660152 16218 net.cpp:425] lstm2_unit_1 <- cont_1_lstm2_cont_slice_0_split_1
I0924 04:02:00.660173 16218 net.cpp:399] lstm2_unit_1 -> c_1
I0924 04:02:00.660199 16218 net.cpp:399] lstm2_unit_1 -> h_1
I0924 04:02:00.660416 16218 net.cpp:141] Setting up lstm2_unit_1
I0924 04:02:00.660444 16218 net.cpp:148] Top shape: 1 1 1000 (1000)
I0924 04:02:00.660461 16218 net.cpp:148] Top shape: 1 1 1000 (1000)
I0924 04:02:00.660475 16218 net.cpp:156] Memory required for data: 90020
I0924 04:02:00.660487 16218 layer_factory.hpp:77] Creating layer lstm2_
I0924 04:02:00.660516 16218 net.cpp:91] Creating Layer lstm2_
I0924 04:02:00.660531 16218 net.cpp:425] lstm2_ <- c_1
I0924 04:02:00.660630 16218 net.cpp:399] lstm2_ -> c_T
I0924 04:02:00.660749 16218 net.cpp:141] Setting up lstm2_
I0924 04:02:00.660775 16218 net.cpp:148] Top shape: 1 1 1000 (1000)
I0924 04:02:00.660790 16218 net.cpp:156] Memory required for data: 94020
I0924 04:02:00.660804 16218 layer_factory.hpp:77] Creating layer lstm2_h_concat
I0924 04:02:00.660826 16218 net.cpp:91] Creating Layer lstm2_h_concat
I0924 04:02:00.660841 16218 net.cpp:425] lstm2_h_concat <- h_1
I0924 04:02:00.660861 16218 net.cpp:399] lstm2_h_concat -> h
I0924 04:02:00.660974 16218 net.cpp:141] Setting up lstm2_h_concat
I0924 04:02:00.660998 16218 net.cpp:148] Top shape: 1 1 1000 (1000)
I0924 04:02:00.661011 16218 net.cpp:156] Memory required for data: 98020
I0924 04:02:00.661025 16218 layer_factory.hpp:77] Creating layer h_pseudoloss
I0924 04:02:00.661048 16218 net.cpp:91] Creating Layer h_pseudoloss
I0924 04:02:00.661063 16218 net.cpp:425] h_pseudoloss <- h
I0924 04:02:00.661082 16218 net.cpp:399] h_pseudoloss -> h_pseudoloss
I0924 04:02:00.661339 16218 net.cpp:141] Setting up h_pseudoloss
…
I0924 04:02:00.843567 16200 net.cpp:425] lstm2_unit_1 <- gate_input_1
I0924 04:02:00.843590 16200 net.cpp:425] lstm2_unit_1 <- cont_1_lstm2_cont_slice_0_split_1
I0924 04:02:00.843601 16200 net.cpp:399] lstm2_unit_1 -> c_1
I0924 04:02:00.843616 16200 net.cpp:399] lstm2_unit_1 -> h_1
I0924 04:02:00.843642 16176 recurrent_layer.cpp:150] Adding parameter 0: W_xc
I0924 04:02:00.843653 16176 recurrent_layer.cpp:150] Adding parameter 1: b_c
I0924 04:02:00.843657 16176 recurrent_layer.cpp:150] Adding parameter 2: W_hc
I0924 04:02:00.843969 16186 net.cpp:141] Setting up lstm2_
I0924 04:02:00.844007 16186 net.cpp:148] Top shape: 1 1 1501 (1501)
I0924 04:02:00.844027 16186 net.cpp:148] Top shape: 1 1 (1)
I0924 04:02:00.844041 16186 net.cpp:156] Memory required for data: 6008
I0924 04:02:00.844058 16186 layer_factory.hpp:77] Creating layer lstm2_
I0924 04:02:00.844084 16200 net.cpp:141] Setting up lstm2_unit_1
I0924 04:02:00.844096 16186 net.cpp:91] Creating Layer lstm2_
I0924 04:02:00.844102 16200 net.cpp:148] Top shape: 1 1 1000 (1000)
I0924 04:02:00.844133 16200 net.cpp:148] Top shape: 1 1 1000 (1000)
I0924 04:02:00.844141 16200 net.cpp:156] Memory required for data: 90020
I0924 04:02:00.844149 16200 layer_factory.hpp:77] Creating layer lstm2_
I0924 04:02:00.844147 16186 net.cpp:399] lstm2_ -> c_0
I0924 04:02:00.844164 16200 net.cpp:91] Creating Layer lstm2_
I0924 04:02:00.844174 16200 net.cpp:425] lstm2_ <- c_1
I0924 04:02:00.844189 16200 net.cpp:399] lstm2_ -> c_T
I0924 04:02:00.844187 16186 net.cpp:399] lstm2_ -> h_0
I0924 04:02:00.844316 16182 net.cpp:141] Setting up predict
I0924 04:02:00.844344 16182 net.cpp:148] Top shape: 1 1 46168 (46168)
I0924 04:02:00.844352 16200 net.cpp:141] Setting up lstm2_
I0924 04:02:00.844355 16182 net.cpp:156] Memory required for data: 221084
I0924 04:02:00.844374 16200 net.cpp:148] Top shape: 1 1 1000 (1000)
I0924 04:02:00.844383 16200 net.cpp:156] Memory required for data: 94020
I0924 04:02:00.844390 16200 layer_factory.hpp:77] Creating layer lstm2_h_concat
I0924 04:02:00.844391 16182 layer_factory.hpp:77] Creating layer probs
I0924 04:02:00.844403 16200 net.cpp:91] Creating Layer lstm2_h_concat
I0924 04:02:00.844413 16200 net.cpp:425] lstm2_h_concat <- h_1
I0924 04:02:00.844413 16182 net.cpp:91] Creating Layer probs
I0924 04:02:00.844424 16200 net.cpp:399] lstm2_h_concat -> h
I0924 04:02:00.844427 16182 net.cpp:425] probs <- predict
I0924 04:02:00.844445 16182 net.cpp:399] probs -> probs
I0924 04:02:00.844501 16176 net.cpp:141] Setting up lstm2
I0924 04:02:00.844516 16176 net.cpp:148] Top shape: 1 1 1000 (1000)
I0924 04:02:00.844524 16176 net.cpp:156] Memory required for data: 36412
I0924 04:02:00.844544 16176 layer_factory.hpp:77] Creating layer predict
I0924 04:02:00.844559 16176 net.cpp:91] Creating Layer predict
I0924 04:02:00.844566 16176 net.cpp:425] predict <- lstm2
I0924 04:02:00.844571 16200 net.cpp:141] Setting up lstm2_h_concat
I0924 04:02:00.844576 16176 net.cpp:399] predict -> predict
I0924 04:02:00.844588 16200 net.cpp:148] Top shape: 1 1 1000 (1000)
I0924 04:02:00.844596 16200 net.cpp:156] Memory required for data: 98020
I0924 04:02:00.844604 16200 layer_factory.hpp:77] Creating layer h_pseudoloss
I0924 04:02:00.844617 16200 net.cpp:91] Creating Layer h_pseudoloss
I0924 04:02:00.844625 16200 net.cpp:425] h_pseudoloss <- h
I0924 04:02:00.844636 16200 net.cpp:399] h_pseudoloss -> h_pseudoloss
I0924 04:02:00.844671 16186 net.cpp:141] Setting up lstm2_
I0924 04:02:00.844698 16186 net.cpp:148] Top shape: 1 1 1000 (1000)
I0924 04:02:00.844717 16186 net.cpp:148] Top shape: 1 1 1000 (1000)
I0924 04:02:00.844729 16186 net.cpp:156] Memory required for data: 14008
I0924 04:02:00.844743 16186 layer_factory.hpp:77] Creating layer lstm2_cont_slice
I0924 04:02:00.844769 16186 net.cpp:91] Creating Layer lstm2_cont_slice
I0924 04:02:00.844785 16186 net.cpp:425] lstm2_cont_slice <- cont
I0924 04:02:00.844806 16200 net.cpp:141] Setting up h_pseudoloss
I0924 04:02:00.844807 16186 net.cpp:399] lstm2_cont_slice -> cont_1
…
I0924 04:02:00.845182 16200 net.cpp:219] lstm2_ does not need backward computation.
I0924 04:02:00.845190 16200 net.cpp:261] This network produces output c_T
I0924 04:02:00.845197 16200 net.cpp:261] This network produces output h_pseudoloss
I0924 04:02:00.845221 16200 net.cpp:274] Network initialization done.
I0924 04:02:00.845285 16200 recurrent_layer.cpp:150] Adding parameter 0: W_xc
I0924 04:02:00.845295 16200 recurrent_layer.cpp:150] Adding parameter 1: b_c
I0924 04:02:00.845304 16200 recurrent_layer.cpp:150] Adding parameter 2: W_hc
I0924 04:02:00.940644 16186 net.cpp:141] Setting up lstm2_cont_slice
I0924 04:02:00.941694 16186 net.cpp:148] Top shape: 1 1 (1)
I0924 04:02:00.941634 16194 net.cpp:141] Setting up predict
I0924 04:02:00.941087 16200 net.cpp:141] Setting up lstm2
I0924 04:02:00.942023 16230 net.cpp:141] Setting up predict
I0924 04:02:00.942028 16200 net.cpp:148] Top shape: 1 1 1000 (1000)
I0924 04:02:00.942054 16230 net.cpp:148] Top shape: 1 1 46168 (46168)
I0924 04:02:00.942059 16200 net.cpp:156] Memory required for data: 36412
I0924 04:02:00.942064 16230 net.cpp:156] Memory required for data: 221084
I0924 04:02:00.942081 16230 layer_factory.hpp:77] Creating layer probs
I0924 04:02:00.942096 16200 layer_factory.hpp:77] Creating layer predict
I0924 04:02:00.942104 16230 net.cpp:91] Creating Layer probs
I0924 04:02:00.942116 16230 net.cpp:425] probs <- predict
I0924 04:02:00.942127 16200 net.cpp:91] Creating Layer predict
I0924 04:02:00.942129 16230 net.cpp:399] probs -> probs
I0924 04:02:00.942154 16200 net.cpp:425] predict <- lstm2
I0924 04:02:00.942178 16200 net.cpp:399] predict -> predict
I0924 04:02:00.941985 16194 net.cpp:148] Top shape: 1 1 46168 (46168)
I0924 04:02:00.945045 16194 net.cpp:156] Memory required for data: 221084
I0924 04:02:00.945083 16194 layer_factory.hpp:77] Creating layer probs
I0924 04:02:00.945106 16194 net.cpp:91] Creating Layer probs
I0924 04:02:00.945114 16194 net.cpp:425] probs <- predict
I0924 04:02:00.945127 16194 net.cpp:399] probs -> probs
I0924 04:02:00.945775 16186 net.cpp:156] Memory required for data: 14012
I0924 04:02:00.945916 16186 layer_factory.hpp:77] Creating layer cont_1_lstm2_cont_slice_0_split
I0924 04:02:00.946056 16186 net.cpp:91] Creating Layer cont_1_lstm2_cont_slice_0_split
I0924 04:02:00.946202 16186 net.cpp:425] cont_1_lstm2_cont_slice_0_split <- cont_1
I0924 04:02:00.946316 16186 net.cpp:399] cont_1_lstm2_cont_slice_0_split -> cont_1_lstm2_cont_slice_0_split_0
I0924 04:02:00.946456 16186 net.cpp:399] cont_1_lstm2_cont_slice_0_split -> cont_1_lstm2_cont_slice_0_split_1
I0924 04:02:01.028038 16186 net.cpp:141] Setting up cont_1_lstm2_cont_slice_0_split
I0924 04:02:01.028093 16186 net.cpp:148] Top shape: 1 1 (1)
I0924 04:02:01.028106 16186 net.cpp:148] Top shape: 1 1 (1)
I0924 04:02:01.028115 16186 net.cpp:156] Memory required for data: 14020
I0924 04:02:01.028126 16186 layer_factory.hpp:77] Creating layer lstm2_x_transform
I0924 04:02:01.028164 16186 net.cpp:91] Creating Layer lstm2_x_transform
I0924 04:02:01.028177 16186 net.cpp:425] lstm2_x_transform <- x
I0924 04:02:01.028194 16186 net.cpp:399] lstm2_x_transform -> W_xc_x
I0924 04:02:01.044085 16180 net.cpp:141] Setting up predict
I0924 04:02:01.044144 16180 net.cpp:148] Top shape: 1 1 46168 (46168)
I0924 04:02:01.044154 16180 net.cpp:156] Memory required for data: 221084
I0924 04:02:01.044174 16180 layer_factory.hpp:77] Creating layer probs
I0924 04:02:01.044198 16180 net.cpp:91] Creating Layer probs
I0924 04:02:01.044209 16180 net.cpp:425] probs <- predict
I0924 04:02:01.044225 16180 net.cpp:399] probs -> probs
I0924 04:02:01.107280 16186 net.cpp:141] Setting up lstm2_x_transform
I0924 04:02:01.107697 16186 net.cpp:148] Top shape: 1 1 4000 (4000)
I0924 04:02:01.107879 16186 net.cpp:156] Memory required for data: 30020
I0924 04:02:01.108090 16186 layer_factory.hpp:77] Creating layer lstm2_W_xc_x_slice
I0924 04:02:01.108304 16186 net.cpp:91] Creating Layer lstm2_W_xc_x_slice
I0924 04:02:01.108458 16186 net.cpp:425] lstm2_W_xc_x_slice <- W_xc_x
I0924 04:02:01.108628 16186 net.cpp:399] lstm2_W_xc_x_slice -> W_xc_x_1
I0924 04:02:01.120216 16186 net.cpp:141] Setting up lstm2_W_xc_x_slice
I0924 04:02:01.120641 16186 net.cpp:148] Top shape: 1 1 4000 (4000)
I0924 04:02:01.120779 16186 net.cpp:156] Memory required for data: 46020
I0924 04:02:01.120916 16186 layer_factory.hpp:77] Creating layer lstm2_h_conted_0
I0924 04:02:01.121064 16186 net.cpp:91] Creating Layer lstm2_h_conted_0
I0924 04:02:01.121233 16186 net.cpp:425] lstm2_h_conted_0 <- h_0
I0924 04:02:01.121371 16186 net.cpp:425] lstm2_h_conted_0 <- cont_1_lstm2_cont_slice_0_split_0
I0924 04:02:01.121510 16186 net.cpp:399] lstm2_h_conted_0 -> h_conted_0
I0924 04:02:01.122496 16186 net.cpp:141] Setting up lstm2_h_conted_0
I0924 04:02:01.122700 16186 net.cpp:148] Top shape: 1 1 1000 (1000)
I0924 04:02:01.122875 16186 net.cpp:156] Memory required for data: 50020
I0924 04:02:01.123030 16186 layer_factory.hpp:77] Creating layer lstm2_transform_1
I0924 04:02:01.123244 16186 net.cpp:91] Creating Layer lstm2_transform_1
I0924 04:02:01.123383 16186 net.cpp:425] lstm2_transform_1 <- h_conted_0
I0924 04:02:01.123522 16186 net.cpp:399] lstm2_transform_1 -> W_hc_h_0
I0924 04:02:01.140336 16218 net.cpp:141] Setting up predict
I0924 04:02:01.140414 16218 net.cpp:148] Top shape: 1 1 46168 (46168)
I0924 04:02:01.140431 16218 net.cpp:156] Memory required for data: 221084
I0924 04:02:01.140468 16218 layer_factory.hpp:77] Creating layer probs
I0924 04:02:01.140506 16218 net.cpp:91] Creating Layer probs
I0924 04:02:01.140527 16218 net.cpp:425] probs <- predict
I0924 04:02:01.140552 16218 net.cpp:399] probs -> probs
I0924 04:02:01.173950 16186 net.cpp:141] Setting up lstm2_transform_1
I0924 04:02:01.173995 16186 net.cpp:148] Top shape: 1 1 4000 (4000)
I0924 04:02:01.174002 16186 net.cpp:156] Memory required for data: 66020
I0924 04:02:01.174024 16186 layer_factory.hpp:77] Creating layer lstm2_gate_input_1
I0924 04:02:01.174048 16186 net.cpp:91] Creating Layer lstm2_gate_input_1
I0924 04:02:01.174057 16186 net.cpp:425] lstm2_gate_input_1 <- W_hc_h_0
I0924 04:02:01.174065 16186 net.cpp:425] lstm2_gate_input_1 <- W_xc_x_1
I0924 04:02:01.174073 16186 net.cpp:399] lstm2_gate_input_1 -> gate_input_1
I0924 04:02:01.174219 16186 net.cpp:141] Setting up lstm2_gate_input_1
I0924 04:02:01.174232 16186 net.cpp:148] Top shape: 1 1 4000 (4000)
I0924 04:02:01.174235 16186 net.cpp:156] Memory required for data: 82020
I0924 04:02:01.174240 16186 layer_factory.hpp:77] Creating layer lstm2_unit_1
I0924 04:02:01.174250 16186 net.cpp:91] Creating Layer lstm2_unit_1
I0924 04:02:01.174255 16186 net.cpp:425] lstm2_unit_1 <- c_0
I0924 04:02:01.174262 16186 net.cpp:425] lstm2_unit_1 <- gate_input_1
I0924 04:02:01.174266 16186 net.cpp:425] lstm2_unit_1 <- cont_1_lstm2_cont_slice_0_split_1
I0924 04:02:01.174276 16186 net.cpp:399] lstm2_unit_1 -> c_1
I0924 04:02:01.174285 16186 net.cpp:399] lstm2_unit_1 -> h_1
I0924 04:02:01.174625 16186 net.cpp:141] Setting up lstm2_unit_1
I0924 04:02:01.174638 16186 net.cpp:148] Top shape: 1 1 1000 (1000)
I0924 04:02:01.174643 16186 net.cpp:148] Top shape: 1 1 1000 (1000)
I0924 04:02:01.174649 16186 net.cpp:156] Memory required for data: 90020
I0924 04:02:01.174652 16186 layer_factory.hpp:77] Creating layer lstm2_
I0924 04:02:01.174661 16186 net.cpp:91] Creating Layer lstm2_
I0924 04:02:01.174666 16186 net.cpp:425] lstm2_ <- c_1
I0924 04:02:01.174674 16186 net.cpp:399] lstm2_ -> c_T
I0924 04:02:01.181627 16186 net.cpp:141] Setting up lstm2_
I0924 04:02:01.181674 16186 net.cpp:148] Top shape: 1 1 1000 (1000)
I0924 04:02:01.181681 16186 net.cpp:156] Memory required for data: 94020
I0924 04:02:01.181691 16186 layer_factory.hpp:77] Creating layer lstm2_h_concat
I0924 04:02:01.181711 16186 net.cpp:91] Creating Layer lstm2_h_concat
I0924 04:02:01.181720 16186 net.cpp:425] lstm2_h_concat <- h_1
I0924 04:02:01.181732 16186 net.cpp:399] lstm2_h_concat -> h
I0924 04:02:01.181809 16186 net.cpp:141] Setting up lstm2_h_concat
I0924 04:02:01.181820 16186 net.cpp:148] Top shape: 1 1 1000 (1000)
I0924 04:02:01.181825 16186 net.cpp:156] Memory required for data: 98020
I0924 04:02:01.181830 16186 layer_factory.hpp:77] Creating layer h_pseudoloss
I0924 04:02:01.181840 16186 net.cpp:91] Creating Layer h_pseudoloss
I0924 04:02:01.181845 16186 net.cpp:425] h_pseudoloss <- h
I0924 04:02:01.181852 16186 net.cpp:399] h_pseudoloss -> h_pseudoloss
I0924 04:02:01.182013 16186 net.cpp:141] Setting up h_pseudoloss
…
I0924 04:02:01.182119 16186 net.cpp:219] lstm2_ does not need backward computation.
I0924 04:02:01.182123 16186 net.cpp:261] This network produces output c_T
I0924 04:02:01.182128 16186 net.cpp:261] This network produces output h_pseudoloss
I0924 04:02:01.182144 16186 net.cpp:274] Network initialization done.
I0924 04:02:01.182224 16186 recurrent_layer.cpp:150] Adding parameter 0: W_xc
I0924 04:02:01.182237 16186 recurrent_layer.cpp:150] Adding parameter 1: b_c
I0924 04:02:01.182242 16186 recurrent_layer.cpp:150] Adding parameter 2: W_hc
I0924 04:02:01.182411 16186 net.cpp:141] Setting up lstm2
I0924 04:02:01.182423 16186 net.cpp:148] Top shape: 1 1 1000 (1000)
I0924 04:02:01.182428 16186 net.cpp:156] Memory required for data: 36412
I0924 04:02:01.182446 16186 layer_factory.hpp:77] Creating layer predict
I0924 04:02:01.182461 16186 net.cpp:91] Creating Layer predict
I0924 04:02:01.182467 16186 net.cpp:425] predict <- lstm2
I0924 04:02:01.182476 16186 net.cpp:399] predict -> predict
I0924 04:02:01.268268 16226 net.cpp:141] Setting up predict
I0924 04:02:01.268765 16226 net.cpp:148] Top shape: 1 1 46168 (46168)
I0924 04:02:01.268894 16226 net.cpp:156] Memory required for data: 221084
I0924 04:02:01.269033 16226 layer_factory.hpp:77] Creating layer probs
I0924 04:02:01.269210 16226 net.cpp:91] Creating Layer probs
I0924 04:02:01.269356 16226 net.cpp:425] probs <- predict
I0924 04:02:01.269495 16226 net.cpp:399] probs -> probs
I0924 04:02:01.335049 16176 net.cpp:141] Setting up predict
I0924 04:02:01.335098 16176 net.cpp:148] Top shape: 1 1 46168 (46168)
I0924 04:02:01.335108 16176 net.cpp:156] Memory required for data: 221084
I0924 04:02:01.335127 16176 layer_factory.hpp:77] Creating layer probs
I0924 04:02:01.335147 16176 net.cpp:91] Creating Layer probs
I0924 04:02:01.335155 16176 net.cpp:425] probs <- predict
I0924 04:02:01.335172 16176 net.cpp:399] probs -> probs
I0924 04:02:01.340359 16218 net.cpp:141] Setting up probs
I0924 04:02:01.340411 16218 net.cpp:148] Top shape: 1 1 46168 (46168)
I0924 04:02:01.340420 16218 net.cpp:156] Memory required for data: 405756
I0924 04:02:01.340432 16218 net.cpp:219] probs does not need backward computation.
I0924 04:02:01.340442 16218 net.cpp:219] predict does not need backward computation.
I0924 04:02:01.340451 16218 net.cpp:219] lstm2 does not need backward computation.
I0924 04:02:01.340459 16218 net.cpp:219] concat does not need backward computation.
I0924 04:02:01.340468 16218 net.cpp:219] lstm1 does not need backward computation.
I0924 04:02:01.340477 16218 net.cpp:219] embedding does not need backward computation.
I0924 04:02:01.340486 16218 net.cpp:219] reshape_stage_indicator does not need backward computation.
I0924 04:02:01.340493 16218 net.cpp:219] reshape_frames does not need backward computation.
I0924 04:02:01.340502 16218 net.cpp:219] embed_encoder does not need backward computation.
I0924 04:02:01.340517 16218 net.cpp:219] cont_sentence_input_1_split does not need backward computation.
I0924 04:02:01.340525 16218 net.cpp:219] input does not need backward computation.
I0924 04:02:01.340533 16218 net.cpp:261] This network produces output probs
I0924 04:02:01.340559 16218 net.cpp:274] Network initialization done.
I0924 04:02:01.344735 16180 net.cpp:141] Setting up probs
I0924 04:02:01.344777 16180 net.cpp:148] Top shape: 1 1 46168 (46168)
I0924 04:02:01.344784 16180 net.cpp:156] Memory required for data: 405756
I0924 04:02:01.344792 16180 net.cpp:219] probs does not need backward computation.
I0924 04:02:01.344800 16180 net.cpp:219] predict does not need backward computation.
I0924 04:02:01.344805 16180 net.cpp:219] lstm2 does not need backward computation.
I0924 04:02:01.344812 16180 net.cpp:219] concat does not need backward computation.
I0924 04:02:01.344817 16180 net.cpp:219] lstm1 does not need backward computation.
I0924 04:02:01.344823 16180 net.cpp:219] embedding does not need backward computation.
I0924 04:02:01.344828 16180 net.cpp:219] reshape_stage_indicator does not need backward computation.
I0924 04:02:01.344833 16180 net.cpp:219] reshape_frames does not need backward computation.
I0924 04:02:01.344838 16180 net.cpp:219] embed_encoder does not need backward computation.
I0924 04:02:01.344843 16180 net.cpp:219] cont_sentence_input_1_split does not need backward computation.
I0924 04:02:01.344848 16180 net.cpp:219] input does not need backward computation.
I0924 04:02:01.344853 16180 net.cpp:261] This network produces output probs
I0924 04:02:01.344871 16180 net.cpp:274] Network initialization done.
I0924 04:02:01.347074 16194 net.cpp:141] Setting up probs
I0924 04:02:01.347117 16194 net.cpp:148] Top shape: 1 1 46168 (46168)
I0924 04:02:01.347124 16194 net.cpp:156] Memory required for data: 405756
I0924 04:02:01.347133 16194 net.cpp:219] probs does not need backward computation.
I0924 04:02:01.347139 16194 net.cpp:219] predict does not need backward computation.
I0924 04:02:01.347146 16194 net.cpp:219] lstm2 does not need backward computation.
I0924 04:02:01.347151 16194 net.cpp:219] concat does not need backward computation.
I0924 04:02:01.347157 16194 net.cpp:219] lstm1 does not need backward computation.
I0924 04:02:01.347164 16194 net.cpp:219] embedding does not need backward computation.
I0924 04:02:01.347169 16194 net.cpp:219] reshape_stage_indicator does not need backward computation.
I0924 04:02:01.347175 16194 net.cpp:219] reshape_frames does not need backward computation.
I0924 04:02:01.347183 16194 net.cpp:219] embed_encoder does not need backward computation.
I0924 04:02:01.347193 16194 net.cpp:219] cont_sentence_input_1_split does not need backward computation.
I0924 04:02:01.347203 16194 net.cpp:219] input does not need backward computation.
I0924 04:02:01.347209 16194 net.cpp:261] This network produces output probs
I0924 04:02:01.347235 16194 net.cpp:274] Network initialization done.
I0924 04:02:01.347677 16230 net.cpp:141] Setting up probs
I0924 04:02:01.347700 16230 net.cpp:148] Top shape: 1 1 46168 (46168)
I0924 04:02:01.347707 16230 net.cpp:156] Memory required for data: 405756
I0924 04:02:01.347713 16230 net.cpp:219] probs does not need backward computation.
I0924 04:02:01.347723 16230 net.cpp:219] predict does not need backward computation.
I0924 04:02:01.347731 16230 net.cpp:219] lstm2 does not need backward computation.
I0924 04:02:01.347733 16226 net.cpp:141] Setting up probs
I0924 04:02:01.347743 16230 net.cpp:219] concat does not need backward computation.
I0924 04:02:01.347754 16230 net.cpp:219] lstm1 does not need backward computation.
I0924 04:02:01.347755 16226 net.cpp:148] Top shape: 1 1 46168 (46168)
I0924 04:02:01.347766 16226 net.cpp:156] Memory required for data: 405756
I0924 04:02:01.347767 16230 net.cpp:219] embedding does not need backward computation.
I0924 04:02:01.347784 16226 net.cpp:219] probs does not need backward computation.
I0924 04:02:01.347784 16176 net.cpp:141] Setting up probs
I0924 04:02:01.347789 16230 net.cpp:219] reshape_stage_indicator does not need backward computation.
I0924 04:02:01.347795 16226 net.cpp:219] predict does not need backward computation.
I0924 04:02:01.347810 16230 net.cpp:219] reshape_frames does not need backward computation.
I0924 04:02:01.347805 16176 net.cpp:148] Top shape: 1 1 46168 (46168)
I0924 04:02:01.347822 16230 net.cpp:219] embed_encoder does not need backward computation.
I0924 04:02:01.347823 16226 net.cpp:219] lstm2 does not need backward computation.
I0924 04:02:01.347837 16230 net.cpp:219] cont_sentence_input_1_split does not need backward computation.
I0924 04:02:01.347825 16176 net.cpp:156] Memory required for data: 405756
I0924 04:02:01.347846 16226 net.cpp:219] concat does not need backward computation.
…
I0924 04:02:01.347954 16226 net.cpp:261] This network produces output probs
I0924 04:02:01.347960 16176 net.cpp:219] embed_encoder does not need backward computation.
I0924 04:02:01.347970 16176 net.cpp:219] cont_sentence_input_1_split does not need backward computation.
I0924 04:02:01.347978 16176 net.cpp:219] input does not need backward computation.
I0924 04:02:01.347980 16226 net.cpp:274] Network initialization done.
I0924 04:02:01.347985 16176 net.cpp:261] This network produces output probs
I0924 04:02:01.348017 16176 net.cpp:274] Network initialization done.
I0924 04:02:01.350738 16182 net.cpp:141] Setting up probs
I0924 04:02:01.350790 16182 net.cpp:148] Top shape: 1 1 46168 (46168)
I0924 04:02:01.350800 16182 net.cpp:156] Memory required for data: 405756
I0924 04:02:01.350811 16182 net.cpp:219] probs does not need backward computation.
I0924 04:02:01.350819 16182 net.cpp:219] predict does not need backward computation.
I0924 04:02:01.350828 16182 net.cpp:219] lstm2 does not need backward computation.
I0924 04:02:01.350836 16182 net.cpp:219] concat does not need backward computation.
I0924 04:02:01.350846 16182 net.cpp:219] lstm1 does not need backward computation.
I0924 04:02:01.350853 16182 net.cpp:219] embedding does not need backward computation.
I0924 04:02:01.350860 16182 net.cpp:219] reshape_stage_indicator does not need backward computation.
I0924 04:02:01.350868 16182 net.cpp:219] reshape_frames does not need backward computation.
I0924 04:02:01.350875 16182 net.cpp:219] embed_encoder does not need backward computation.
I0924 04:02:01.350883 16182 net.cpp:219] cont_sentence_input_1_split does not need backward computation.
I0924 04:02:01.350891 16182 net.cpp:219] input does not need backward computation.
I0924 04:02:01.350898 16182 net.cpp:261] This network produces output probs
I0924 04:02:01.350926 16182 net.cpp:274] Network initialization done.
I0924 04:02:01.363258 16202 net.cpp:141] Setting up conv1
I0924 04:02:01.363687 16202 net.cpp:148] Top shape: 10 96 55 55 (2904000)
I0924 04:02:01.363850 16202 net.cpp:156] Memory required for data: 17799480
I0924 04:02:01.363899 16202 layer_factory.hpp:77] Creating layer relu1
I0924 04:02:01.363929 16202 net.cpp:91] Creating Layer relu1
I0924 04:02:01.363940 16202 net.cpp:425] relu1 <- conv1
I0924 04:02:01.363957 16202 net.cpp:386] relu1 -> conv1 (in-place)
I0924 04:02:01.364825 16202 net.cpp:141] Setting up relu1
I0924 04:02:01.364842 16202 net.cpp:148] Top shape: 10 96 55 55 (2904000)
I0924 04:02:01.364847 16202 net.cpp:156] Memory required for data: 29415480
I0924 04:02:01.364853 16202 layer_factory.hpp:77] Creating layer pool1
I0924 04:02:01.364866 16202 net.cpp:91] Creating Layer pool1
I0924 04:02:01.364872 16202 net.cpp:425] pool1 <- conv1
I0924 04:02:01.364881 16202 net.cpp:399] pool1 -> pool1
I0924 04:02:01.365092 16202 net.cpp:141] Setting up pool1
I0924 04:02:01.365113 16202 net.cpp:148] Top shape: 10 96 27 27 (699840)
I0924 04:02:01.365123 16202 net.cpp:156] Memory required for data: 32214840
I0924 04:02:01.365134 16202 layer_factory.hpp:77] Creating layer norm1
I0924 04:02:01.365166 16202 net.cpp:91] Creating Layer norm1
I0924 04:02:01.365177 16202 net.cpp:425] norm1 <- pool1
I0924 04:02:01.365192 16202 net.cpp:399] norm1 -> norm1
I0924 04:02:01.365708 16202 net.cpp:141] Setting up norm1
I0924 04:02:01.365731 16202 net.cpp:148] Top shape: 10 96 27 27 (699840)
I0924 04:02:01.365738 16202 net.cpp:156] Memory required for data: 35014200
I0924 04:02:01.365747 16202 layer_factory.hpp:77] Creating layer conv2
I0924 04:02:01.365769 16202 net.cpp:91] Creating Layer conv2
I0924 04:02:01.365778 16202 net.cpp:425] conv2 <- norm1
I0924 04:02:01.365790 16202 net.cpp:399] conv2 -> conv2
I0924 04:02:01.407122 16200 net.cpp:141] Setting up predict
I0924 04:02:01.407182 16200 net.cpp:148] Top shape: 1 1 46168 (46168)
I0924 04:02:01.407188 16200 net.cpp:156] Memory required for data: 221084
I0924 04:02:01.407202 16200 layer_factory.hpp:77] Creating layer probs
I0924 04:02:01.407220 16200 net.cpp:91] Creating Layer probs
I0924 04:02:01.407228 16200 net.cpp:425] probs <- predict
I0924 04:02:01.407238 16200 net.cpp:399] probs -> probs
I0924 04:02:01.408619 16200 net.cpp:141] Setting up probs
I0924 04:02:01.408639 16200 net.cpp:148] Top shape: 1 1 46168 (46168)
I0924 04:02:01.408644 16200 net.cpp:156] Memory required for data: 405756
I0924 04:02:01.408650 16200 net.cpp:219] probs does not need backward computation.
I0924 04:02:01.408655 16200 net.cpp:219] predict does not need backward computation.
I0924 04:02:01.408660 16200 net.cpp:219] lstm2 does not need backward computation.
I0924 04:02:01.408666 16200 net.cpp:219] concat does not need backward computation.
I0924 04:02:01.408673 16200 net.cpp:219] lstm1 does not need backward computation.
I0924 04:02:01.408679 16200 net.cpp:219] embedding does not need backward computation.
I0924 04:02:01.408684 16200 net.cpp:219] reshape_stage_indicator does not need backward computation.
I0924 04:02:01.408687 16200 net.cpp:219] reshape_frames does not need backward computation.
I0924 04:02:01.408692 16200 net.cpp:219] embed_encoder does not need backward computation.
I0924 04:02:01.408697 16200 net.cpp:219] cont_sentence_input_1_split does not need backward computation.
I0924 04:02:01.408702 16200 net.cpp:219] input does not need backward computation.
I0924 04:02:01.408706 16200 net.cpp:261] This network produces output probs
I0924 04:02:01.408721 16200 net.cpp:274] Network initialization done.
I0924 04:02:01.422255 16202 net.cpp:141] Setting up conv2
I0924 04:02:01.422340 16202 net.cpp:148] Top shape: 10 256 27 27 (1866240)
I0924 04:02:01.422353 16202 net.cpp:156] Memory required for data: 42479160
I0924 04:02:01.422394 16202 layer_factory.hpp:77] Creating layer relu2
I0924 04:02:01.422425 16202 net.cpp:91] Creating Layer relu2
I0924 04:02:01.422440 16202 net.cpp:425] relu2 <- conv2
I0924 04:02:01.422462 16202 net.cpp:386] relu2 -> conv2 (in-place)
I0924 04:02:01.424662 16202 net.cpp:141] Setting up relu2
I0924 04:02:01.424778 16202 net.cpp:148] Top shape: 10 256 27 27 (1866240)
I0924 04:02:01.424795 16202 net.cpp:156] Memory required for data: 49944120
I0924 04:02:01.424814 16202 layer_factory.hpp:77] Creating layer pool2
I0924 04:02:01.424863 16202 net.cpp:91] Creating Layer pool2
I0924 04:02:01.424881 16202 net.cpp:425] pool2 <- conv2
I0924 04:02:01.424906 16202 net.cpp:399] pool2 -> pool2
I0924 04:02:01.425691 16202 net.cpp:141] Setting up pool2
I0924 04:02:01.425773 16202 net.cpp:148] Top shape: 10 256 13 13 (432640)
I0924 04:02:01.425797 16202 net.cpp:156] Memory required for data: 51674680
I0924 04:02:01.425823 16202 layer_factory.hpp:77] Creating layer norm2
I0924 04:02:01.425896 16202 net.cpp:91] Creating Layer norm2
I0924 04:02:01.425930 16202 net.cpp:425] norm2 <- pool2
I0924 04:02:01.425966 16202 net.cpp:399] norm2 -> norm2
I0924 04:02:01.427886 16202 net.cpp:141] Setting up norm2
I0924 04:02:01.428028 16202 net.cpp:148] Top shape: 10 256 13 13 (432640)
I0924 04:02:01.428055 16202 net.cpp:156] Memory required for data: 53405240
I0924 04:02:01.428086 16202 layer_factory.hpp:77] Creating layer conv3
I0924 04:02:01.428158 16202 net.cpp:91] Creating Layer conv3
I0924 04:02:01.428194 16202 net.cpp:425] conv3 <- norm2
I0924 04:02:01.428434 16202 net.cpp:399] conv3 -> conv3
I0924 04:02:01.462944 16202 net.cpp:141] Setting up conv3
I0924 04:02:01.463019 16202 net.cpp:148] Top shape: 10 384 13 13 (648960)
I0924 04:02:01.463033 16202 net.cpp:156] Memory required for data: 56001080
I0924 04:02:01.463080 16202 layer_factory.hpp:77] Creating layer relu3
I0924 04:02:01.463114 16202 net.cpp:91] Creating Layer relu3
I0924 04:02:01.463129 16202 net.cpp:425] relu3 <- conv3
I0924 04:02:01.463150 16202 net.cpp:386] relu3 -> conv3 (in-place)
I0924 04:02:01.464268 16202 net.cpp:141] Setting up relu3
I0924 04:02:01.464329 16202 net.cpp:148] Top shape: 10 384 13 13 (648960)
I0924 04:02:01.464341 16202 net.cpp:156] Memory required for data: 58596920
I0924 04:02:01.464355 16202 layer_factory.hpp:77] Creating layer conv4
I0924 04:02:01.464401 16202 net.cpp:91] Creating Layer conv4
I0924 04:02:01.464416 16202 net.cpp:425] conv4 <- conv3
I0924 04:02:01.464439 16202 net.cpp:399] conv4 -> conv4
I0924 04:02:01.488514 16202 net.cpp:141] Setting up conv4
I0924 04:02:01.488590 16202 net.cpp:148] Top shape: 10 384 13 13 (648960)
I0924 04:02:01.488602 16202 net.cpp:156] Memory required for data: 61192760
I0924 04:02:01.488629 16202 layer_factory.hpp:77] Creating layer relu4
I0924 04:02:01.488665 16202 net.cpp:91] Creating Layer relu4
I0924 04:02:01.488680 16202 net.cpp:425] relu4 <- conv4
I0924 04:02:01.488699 16202 net.cpp:386] relu4 -> conv4 (in-place)
I0924 04:02:01.489826 16202 net.cpp:141] Setting up relu4
I0924 04:02:01.489884 16202 net.cpp:148] Top shape: 10 384 13 13 (648960)
I0924 04:02:01.489895 16202 net.cpp:156] Memory required for data: 63788600
I0924 04:02:01.489910 16202 layer_factory.hpp:77] Creating layer conv5
I0924 04:02:01.489951 16202 net.cpp:91] Creating Layer conv5
I0924 04:02:01.489967 16202 net.cpp:425] conv5 <- conv4
I0924 04:02:01.490437 16202 net.cpp:399] conv5 -> conv5
I0924 04:02:01.544916 16202 net.cpp:141] Setting up conv5
I0924 04:02:01.544975 16202 net.cpp:148] Top shape: 10 256 13 13 (432640)
I0924 04:02:01.544986 16202 net.cpp:156] Memory required for data: 65519160
I0924 04:02:01.545020 16202 layer_factory.hpp:77] Creating layer relu5
I0924 04:02:01.545053 16202 net.cpp:91] Creating Layer relu5
I0924 04:02:01.545063 16202 net.cpp:425] relu5 <- conv5
I0924 04:02:01.545076 16202 net.cpp:386] relu5 -> conv5 (in-place)
I0924 04:02:01.549010 16202 net.cpp:141] Setting up relu5
I0924 04:02:01.549077 16202 net.cpp:148] Top shape: 10 256 13 13 (432640)
I0924 04:02:01.549088 16202 net.cpp:156] Memory required for data: 67249720
I0924 04:02:01.549103 16202 layer_factory.hpp:77] Creating layer pool5
I0924 04:02:01.549135 16202 net.cpp:91] Creating Layer pool5
I0924 04:02:01.549146 16202 net.cpp:425] pool5 <- conv5
I0924 04:02:01.549165 16202 net.cpp:399] pool5 -> pool5
I0924 04:02:01.549731 16202 net.cpp:141] Setting up pool5
I0924 04:02:01.549760 16202 net.cpp:148] Top shape: 10 256 6 6 (92160)
I0924 04:02:01.549768 16202 net.cpp:156] Memory required for data: 67618360
I0924 04:02:01.549777 16202 layer_factory.hpp:77] Creating layer fc6
I0924 04:02:01.549801 16202 net.cpp:91] Creating Layer fc6
I0924 04:02:01.549809 16202 net.cpp:425] fc6 <- pool5
I0924 04:02:01.550986 16202 net.cpp:399] fc6 -> fc6
I0924 04:02:01.663076 16202 net.cpp:141] Setting up fc6
I0924 04:02:01.663135 16202 net.cpp:148] Top shape: 10 4096 (40960)
I0924 04:02:01.663146 16202 net.cpp:156] Memory required for data: 67782200
I0924 04:02:01.663164 16202 layer_factory.hpp:77] Creating layer relu6
I0924 04:02:01.663184 16202 net.cpp:91] Creating Layer relu6
I0924 04:02:01.663192 16202 net.cpp:425] relu6 <- fc6
I0924 04:02:01.663208 16202 net.cpp:386] relu6 -> fc6 (in-place)
I0924 04:02:01.665544 16202 net.cpp:141] Setting up relu6
I0924 04:02:01.665593 16202 net.cpp:148] Top shape: 10 4096 (40960)
I0924 04:02:01.665601 16202 net.cpp:156] Memory required for data: 67946040
I0924 04:02:01.665611 16202 layer_factory.hpp:77] Creating layer drop6
I0924 04:02:01.665630 16202 net.cpp:91] Creating Layer drop6
I0924 04:02:01.665640 16202 net.cpp:425] drop6 <- fc6
I0924 04:02:01.665654 16202 net.cpp:386] drop6 -> fc6 (in-place)
I0924 04:02:01.665813 16202 net.cpp:141] Setting up drop6
I0924 04:02:01.665827 16202 net.cpp:148] Top shape: 10 4096 (40960)
I0924 04:02:01.665833 16202 net.cpp:156] Memory required for data: 68109880
I0924 04:02:01.665838 16202 layer_factory.hpp:77] Creating layer fc7
I0924 04:02:01.665853 16202 net.cpp:91] Creating Layer fc7
I0924 04:02:01.665858 16202 net.cpp:425] fc7 <- fc6
I0924 04:02:01.665866 16202 net.cpp:399] fc7 -> fc7
I0924 04:02:01.703153 16186 net.cpp:141] Setting up predict
I0924 04:02:01.703212 16186 net.cpp:148] Top shape: 1 1 46168 (46168)
I0924 04:02:01.703222 16186 net.cpp:156] Memory required for data: 221084
I0924 04:02:01.703244 16186 layer_factory.hpp:77] Creating layer probs
I0924 04:02:01.703270 16186 net.cpp:91] Creating Layer probs
I0924 04:02:01.703281 16186 net.cpp:425] probs <- predict
I0924 04:02:01.703299 16186 net.cpp:399] probs -> probs
I0924 04:02:01.706445 16186 net.cpp:141] Setting up probs
I0924 04:02:01.706506 16186 net.cpp:148] Top shape: 1 1 46168 (46168)
I0924 04:02:01.706514 16186 net.cpp:156] Memory required for data: 405756
I0924 04:02:01.706528 16186 net.cpp:219] probs does not need backward computation.
I0924 04:02:01.706540 16186 net.cpp:219] predict does not need backward computation.
I0924 04:02:01.706550 16186 net.cpp:219] lstm2 does not need backward computation.
I0924 04:02:01.706560 16186 net.cpp:219] concat does not need backward computation.
I0924 04:02:01.706571 16186 net.cpp:219] lstm1 does not need backward computation.
I0924 04:02:01.706580 16186 net.cpp:219] embedding does not need backward computation.
I0924 04:02:01.706588 16186 net.cpp:219] reshape_stage_indicator does not need backward computation.
I0924 04:02:01.706616 16186 net.cpp:219] reshape_frames does not need backward computation.
I0924 04:02:01.706626 16186 net.cpp:219] embed_encoder does not need backward computation.
I0924 04:02:01.706635 16186 net.cpp:219] cont_sentence_input_1_split does not need backward computation.
I0924 04:02:01.706645 16186 net.cpp:219] input does not need backward computation.
I0924 04:02:01.706650 16186 net.cpp:261] This network produces output probs
I0924 04:02:01.706677 16186 net.cpp:274] Network initialization done.
I0924 04:02:01.725183 16202 net.cpp:141] Setting up fc7
I0924 04:02:01.725237 16202 net.cpp:148] Top shape: 10 4096 (40960)
I0924 04:02:01.725244 16202 net.cpp:156] Memory required for data: 68273720
I0924 04:02:01.725258 16202 layer_factory.hpp:77] Creating layer relu7
I0924 04:02:01.725277 16202 net.cpp:91] Creating Layer relu7
I0924 04:02:01.725284 16202 net.cpp:425] relu7 <- fc7
I0924 04:02:01.725762 16202 net.cpp:386] relu7 -> fc7 (in-place)
I0924 04:02:01.727772 16202 net.cpp:141] Setting up relu7
I0924 04:02:01.727844 16202 net.cpp:148] Top shape: 10 4096 (40960)
I0924 04:02:01.727857 16202 net.cpp:156] Memory required for data: 68437560
I0924 04:02:01.727876 16202 layer_factory.hpp:77] Creating layer drop7
I0924 04:02:01.727907 16202 net.cpp:91] Creating Layer drop7
I0924 04:02:01.727921 16202 net.cpp:425] drop7 <- fc7
I0924 04:02:01.729478 16202 net.cpp:386] drop7 -> fc7 (in-place)
I0924 04:02:01.729776 16202 net.cpp:141] Setting up drop7
I0924 04:02:01.729815 16202 net.cpp:148] Top shape: 10 4096 (40960)
I0924 04:02:01.729827 16202 net.cpp:156] Memory required for data: 68601400
I0924 04:02:01.729841 16202 layer_factory.hpp:77] Creating layer fc8
I0924 04:02:01.729874 16202 net.cpp:91] Creating Layer fc8
I0924 04:02:01.729887 16202 net.cpp:425] fc8 <- fc7
I0924 04:02:01.729907 16202 net.cpp:399] fc8 -> fc8
I0924 04:02:01.745163 16202 net.cpp:141] Setting up fc8
I0924 04:02:01.745223 16202 net.cpp:148] Top shape: 10 1000 (10000)
I0924 04:02:01.745235 16202 net.cpp:156] Memory required for data: 68641400
I0924 04:02:01.745260 16202 layer_factory.hpp:77] Creating layer prob
I0924 04:02:01.750704 16202 net.cpp:91] Creating Layer prob
I0924 04:02:01.750747 16202 net.cpp:425] prob <- fc8
I0924 04:02:01.750772 16202 net.cpp:399] prob -> prob
I0924 04:02:01.754317 16202 net.cpp:141] Setting up prob
I0924 04:02:01.754390 16202 net.cpp:148] Top shape: 10 1000 (10000)
I0924 04:02:01.754403 16202 net.cpp:156] Memory required for data: 68681400
I0924 04:02:01.754420 16202 net.cpp:219] prob does not need backward computation.
I0924 04:02:01.754433 16202 net.cpp:219] fc8 does not need backward computation.
I0924 04:02:01.754442 16202 net.cpp:219] drop7 does not need backward computation.
I0924 04:02:01.754451 16202 net.cpp:219] relu7 does not need backward computation.
…
