…
W0924 04:04:46.560699 18181 upgrade_proto.cpp:71] Note that future Caffe releases will only support input layers and not input fields.
I0924 04:04:46.560792 18157 net.cpp:49] Initializing net from parameters: 
name: "s2vt:features_to_lstm"
state {
  phase: TEST
}
layer {
  name: "input"
  type: "Input"
  top: "frames_fc7"
  top: "cont_sentence"
  top: "input_sentence"
  top: "stage_indicator"
  input_param {
    shape {
      dim: 1
      dim: 4096
    }
    shape {
      dim: 1
      dim: 1
    }
    shape {
      dim: 1
      dim: 1
    }
    shape {
      dim: 1
      dim: 1
    }
  }
}
layer {
  name: "embed_encoder"
  type: "InnerProduct"
  bottom: "frames_fc7"
  top: "embedded_in_frames"
  param {
    lr_mult: 1
    decay_mult: 1
  }
  param {
    lr_mult: 2
    decay_mult: 0
  }
  inner_product_param {
    num_output: 500
    weight_filler {
      type: "xavier"
    }
    bias_filler {
      type: "constant"
      value: 0.2
    }
  }
}
layer {
  name: "reshape_frames"
  type: "Reshape"
  bottom: "embedded_in_frames"
  top: "embedded_input_frames"
  reshape_param {
    shape {
      dim: 1
      dim: 1
      dim: 500
    }
  }
}
layer {
  name: "reshape_stage_indicator"
  type: "Reshape"
  bottom: "stage_indicator"
  top: "reshaped_stage_indicator"
  reshape_param {
    shape {
      dim: 1
      dim: 1
      dim: 1
    }
  }
}
layer {
  name: "embedding"
  type: "Embed"
  bottom: "input_sentence"
  top: "embedded_input_sentence"
  param {
    lr_mult: 1
  }
  embed_param {
    num_output: 500
    input_dim: 46168
    bias_term: false
    weight_filler {
      type: "uniform"
      min: -0.08
      max: 0.08
    }
  }
}
layer {
  name: "lstm1"
  type: "LSTM"
  bottom: "embedded_input_frames"
  bottom: "cont_sentence"
  top: "lstm1"
  recurrent_param {
    num_output: 1000
    weight_filler {
      type: "uniform"
      min: -0.08
      max: 0.08
    }
    bias_filler {
      type: "constant"
      value: 0
    }
  }
}
layer {
  name: "concat"
  type: "Concat"
  bottom: "lstm1"
  bottom: "embedded_input_sentence"
  bottom: "reshaped_stage_indicator"
  top: "lstm1_video_sequence"
  concat_param {
    concat_dim: 2
  }
}
layer {
  name: "lstm2"
  type: "LSTM"
  bottom: "lstm1_video_sequence"
  bottom: "cont_sentence"
  top: "lstm2"
  recurrent_param {
    num_output: 1000
    weight_filler {
      type: "uniform"
      min: -0.08
      max: 0.08
    }
    bias_filler {
      type: "constant"
      value: 0
    }
  }
}
layer {
  name: "predict"
  type: "InnerProduct"
  bottom: "lstm2"
  top: "predict"
  param {
    lr_mult: 1
    decay_mult: 1
  }
  param {
    lr_mult: 2
    decay_mult: 0
  }
  inner_product_param {
    num_output: 46168
    weight_filler {
      type: "uniform"
      min: -0.08
      max: 0.08
    }
    bias_filler {
      type: "constant"
      value: 0
    }
    axis: 2
  }
}
layer {
  name: "probs"
  type: "Softmax"
  bottom: "predict"
  top: "probs"
  softmax_param {
    axis: 2
  }
}
I0924 04:04:46.560797 18161 net.cpp:49] Initializing net from parameters: 
name: "s2vt:features_to_lstm"
state {
  phase: TEST
}
layer {
  name: "input"
  type: "Input"
  top: "frames_fc7"
  top: "cont_sentence"
  top: "input_sentence"
  top: "stage_indicator"
  input_param {
    shape {
      dim: 1
      dim: 4096
    }
    shape {
      dim: 1
      dim: 1
    }
    shape {
      dim: 1
      dim: 1
    }
    shape {
      dim: 1
      dim: 1
    }
  }
}
layer {
  name: "embed_encoder"
  type: "InnerProduct"
  bottom: "frames_fc7"
  top: "embedded_in_frames"
  param {
    lr_mult: 1
    decay_mult: 1
  }
  param {
    lr_mult: 2
    decay_mult: 0
  }
  inner_product_param {
    num_output: 500
    weight_filler {
      type: "xavier"
    }
    bias_filler {
      type: "constant"
      value: 0.2
    }
  }
}
layer {
  name: "reshape_frames"
  type: "Reshape"
  bottom: "embedded_in_frames"
  top: "embedded_input_frames"
  reshape_param {
    shape {
      dim: 1
      dim: 1
      dim: 500
    }
  }
}
layer {
  name: "reshape_stage_indicator"
  type: "Reshape"
  bottom: "stage_indicator"
  top: "reshaped_stage_indicator"
  reshape_param {
    shape {
      dim: 1
      dim: 1
      dim: 1
    }
  }
}
layer {
  name: "embedding"
  type: "Embed"
  bottom: "input_sentence"
  top: "embedded_input_sentence"
  param {
    lr_mult: 1
  }
  embed_param {
    num_output: 500
    input_dim: 46168
    bias_term: false
    weight_filler {
      type: "uniform"
      min: -0.08
      max: 0.08
    }
  }
}
layer {
  name: "lstm1"
  type: "LSTM"
  bottom: "embedded_input_frames"
  bottom: "cont_sentence"
  top: "lstm1"
  recurrent_param {
    num_output: 1000
    weight_filler {
      type: "uniform"
      min: -0.08
      max: 0.08
    }
    bias_filler {
      type: "constant"
      value: 0
    }
  }
}
layer {
  name: "concat"
  type: "Concat"
  bottom: "lstm1"
  bottom: "embedded_input_sentence"
  bottom: "reshaped_stage_indicator"
  top: "lstm1_video_sequence"
  concat_param {
    concat_dim: 2
  }
}
layer {
  name: "lstm2"
  type: "LSTM"
  bottom: "lstm1_video_sequence"
  bottom: "cont_sentence"
  top: "lstm2"
  recurrent_param {
    num_output: 1000
    weight_filler {
      type: "uniform"
      min: -0.08
      max: 0.08
    }
    bias_filler {
      type: "constant"
      value: 0
    }
  }
}
layer {
  name: "predict"
  type: "InnerProduct"
  bottom: "lstm2"
  top: "predict"
  param {
    lr_mult: 1
    decay_mult: 1
  }
  param {
    lr_mult: 2
    decay_mult: 0
  }
  inner_product_param {
    num_output: 46168
    weight_filler {
      type: "uniform"
      min: -0.08
      max: 0.08
    }
    bias_filler {
      type: "constant"
      value: 0
    }
    axis: 2
  }
}
layer {
  name: "probs"
  type: "Softmax"
  bottom: "predict"
  top: "probs"
  softmax_param {
    axis: 2
  }
}
I0924 04:04:46.560817 18211 net.cpp:49] Initializing net from parameters: 
name: "s2vt:features_to_lstm"
state {
  phase: TEST
}
layer {
  name: "input"
  type: "Input"
  top: "frames_fc7"
  top: "cont_sentence"
  top: "input_sentence"
  top: "stage_indicator"
  input_param {
    shape {
      dim: 1
      dim: 4096
    }
    shape {
      dim: 1
      dim: 1
    }
    shape {
      dim: 1
      dim: 1
    }
    shape {
      dim: 1
      dim: 1
    }
  }
}
layer {
  name: "embed_encoder"
  type: "InnerProduct"
  bottom: "frames_fc7"
  top: "embedded_in_frames"
  param {
    lr_mult: 1
    decay_mult: 1
  }
  param {
    lr_mult: 2
    decay_mult: 0
  }
  inner_product_param {
    num_output: 500
    weight_filler {
      type: "xavier"
    }
    bias_filler {
      type: "constant"
      value: 0.2
    }
  }
}
layer {
  name: "reshape_frames"
  type: "Reshape"
  bottom: "embedded_in_frames"
  top: "embedded_input_frames"
  reshape_param {
    shape {
      dim: 1
      dim: 1
      dim: 500
    }
  }
}
layer {
  name: "reshape_stage_indicator"
  type: "Reshape"
  bottom: "stage_indicator"
  top: "reshaped_stage_indicator"
  reshape_param {
    shape {
      dim: 1
      dim: 1
      dim: 1
    }
  }
}
layer {
  name: "embedding"
  type: "Embed"
  bottom: "input_sentence"
  top: "embedded_input_sentence"
  param {
    lr_mult: 1
  }
  embed_param {
    num_output: 500
    input_dim: 46168
    bias_term: false
    weight_filler {
      type: "uniform"
      min: -0.08
      max: 0.08
    }
  }
}
layer {
  name: "lstm1"
  type: "LSTM"
  bottom: "embedded_input_frames"
  bottom: "cont_sentence"
  top: "lstm1"
  recurrent_param {
    num_output: 1000
    weight_filler {
      type: "uniform"
      min: -0.08
      max: 0.08
    }
    bias_filler {
      type: "constant"
      value: 0
    }
  }
}
layer {
  name: "concat"
  type: "Concat"
  bottom: "lstm1"
  bottom: "embedded_input_sentence"
  bottom: "reshaped_stage_indicator"
  top: "lstm1_video_sequence"
  concat_param {
    concat_dim: 2
  }
}
layer {
  name: "lstm2"
  type: "LSTM"
  bottom: "lstm1_video_sequence"
  bottom: "cont_sentence"
  top: "lstm2"
  recurrent_param {
    num_output: 1000
    weight_filler {
      type: "uniform"
      min: -0.08
      max: 0.08
    }
    bias_filler {
      type: "constant"
      value: 0
    }
  }
}
layer {
  name: "predict"
  type: "InnerProduct"
  bottom: "lstm2"
  top: "predict"
  param {
    lr_mult: 1
    decay_mult: 1
  }
  param {
    lr_mult: 2
    decay_mult: 0
  }
  inner_product_param {
    num_output: 46168
    weight_filler {
      type: "uniform"
      min: -0.08
      max: 0.08
    }
    bias_filler {
      type: "constant"
      value: 0
    }
    axis: 2
  }
}
layer {
  name: "probs"
  type: "Softmax"
  bottom: "predict"
  top: "probs"
  softmax_param {
    axis: 2
  }
}
I0924 04:04:46.560868 18199 net.cpp:49] Initializing net from parameters: 
name: "s2vt:features_to_lstm"
state {
  phase: TEST
}
layer {
  name: "input"
  type: "Input"
  top: "frames_fc7"
  top: "cont_sentence"
  top: "input_sentence"
  top: "stage_indicator"
  input_param {
    shape {
      dim: 1
      dim: 4096
    }
    shape {
      dim: 1
      dim: 1
    }
    shape {
      dim: 1
      dim: 1
    }
    shape {
      dim: 1
      dim: 1
    }
  }
}
layer {
  name: "embed_encoder"
  type: "InnerProduct"
  bottom: "frames_fc7"
  top: "embedded_in_frames"
  param {
    lr_mult: 1
    decay_mult: 1
  }
  param {
    lr_mult: 2
    decay_mult: 0
  }
  inner_product_param {
    num_output: 500
    weight_filler {
      type: "xavier"
    }
    bias_filler {
      type: "constant"
      value: 0.2
    }
  }
}
layer {
  name: "reshape_frames"
  type: "Reshape"
  bottom: "embedded_in_frames"
  top: "embedded_input_frames"
  reshape_param {
    shape {
      dim: 1
      dim: 1
      dim: 500
    }
  }
}
layer {
  name: "reshape_stage_indicator"
  type: "Reshape"
  bottom: "stage_indicator"
  top: "reshaped_stage_indicator"
  reshape_param {
    shape {
      dim: 1
      dim: 1
      dim: 1
    }
  }
}
layer {
  name: "embedding"
  type: "Embed"
  bottom: "input_sentence"
  top: "embedded_input_sentence"
  param {
    lr_mult: 1
  }
  embed_param {
    num_output: 500
    input_dim: 46168
    bias_term: false
    weight_filler {
      type: "uniform"
      min: -0.08
      max: 0.08
    }
  }
}
layer {
  name: "lstm1"
  type: "LSTM"
  bottom: "embedded_input_frames"
  bottom: "cont_sentence"
  top: "lstm1"
  recurrent_param {
    num_output: 1000
    weight_filler {
      type: "uniform"
      min: -0.08
      max: 0.08
    }
    bias_filler {
      type: "constant"
      value: 0
    }
  }
}
layer {
  name: "concat"
  type: "Concat"
  bottom: "lstm1"
  bottom: "embedded_input_sentence"
  bottom: "reshaped_stage_indicator"
  top: "lstm1_video_sequence"
  concat_param {
    concat_dim: 2
  }
}
layer {
  name: "lstm2"
  type: "LSTM"
  bottom: "lstm1_video_sequence"
  bottom: "cont_sentence"
  top: "lstm2"
  recurrent_param {
    num_output: 1000
    weight_filler {
      type: "uniform"
      min: -0.08
      max: 0.08
    }
    bias_filler {
      type: "constant"
      value: 0
    }
  }
}
layer {
  name: "predict"
  type: "InnerProduct"
  bottom: "lstm2"
  top: "predict"
  param {
    lr_mult: 1
    decay_mult: 1
  }
  param {
    lr_mult: 2
    decay_mult: 0
  }
  inner_product_param {
    num_output: 46168
    weight_filler {
      type: "uniform"
      min: -0.08
      max: 0.08
    }
    bias_filler {
      type: "constant"
      value: 0
    }
    axis: 2
  }
}
layer {
  name: "probs"
  type: "Softmax"
  bottom: "predict"
  top: "probs"
  softmax_param {
    axis: 2
  }
}
I0924 04:04:46.560878 18207 net.cpp:49] Initializing net from parameters: 
name: "s2vt:features_to_lstm"
state {
  phase: TEST
}
layer {
  name: "input"
  type: "Input"
  top: "frames_fc7"
  top: "cont_sentence"
  top: "input_sentence"
  top: "stage_indicator"
  input_param {
    shape {
      dim: 1
      dim: 4096
    }
    shape {
      dim: 1
      dim: 1
    }
    shape {
      dim: 1
      dim: 1
    }
    shape {
      dim: 1
      dim: 1
    }
  }
}
layer {
  name: "embed_encoder"
  type: "InnerProduct"
  bottom: "frames_fc7"
  top: "embedded_in_frames"
  param {
    lr_mult: 1
    decay_mult: 1
  }
  param {
    lr_mult: 2
    decay_mult: 0
  }
  inner_product_param {
    num_output: 500
    weight_filler {
      type: "xavier"
    }
    bias_filler {
      type: "constant"
      value: 0.2
    }
  }
}
layer {
  name: "reshape_frames"
  type: "Reshape"
  bottom: "embedded_in_frames"
  top: "embedded_input_frames"
  reshape_param {
    shape {
      dim: 1
      dim: 1
      dim: 500
    }
  }
}
layer {
  name: "reshape_stage_indicator"
  type: "Reshape"
  bottom: "stage_indicator"
  top: "reshaped_stage_indicator"
  reshape_param {
    shape {
      dim: 1
      dim: 1
      dim: 1
    }
  }
}
layer {
  name: "embedding"
  type: "Embed"
  bottom: "input_sentence"
  top: "embedded_input_sentence"
  param {
    lr_mult: 1
  }
  embed_param {
    num_output: 500
    input_dim: 46168
    bias_term: false
    weight_filler {
      type: "uniform"
      min: -0.08
      max: 0.08
    }
  }
}
layer {
  name: "lstm1"
  type: "LSTM"
  bottom: "embedded_input_frames"
  bottom: "cont_sentence"
  top: "lstm1"
  recurrent_param {
    num_output: 1000
    weight_filler {
      type: "uniform"
      min: -0.08
      max: 0.08
    }
    bias_filler {
      type: "constant"
      value: 0
    }
  }
}
layer {
  name: "concat"
  type: "Concat"
  bottom: "lstm1"
  bottom: "embedded_input_sentence"
  bottom: "reshaped_stage_indicator"
  top: "lstm1_video_sequence"
  concat_param {
    concat_dim: 2
  }
}
layer {
  name: "lstm2"
  type: "LSTM"
  bottom: "lstm1_video_sequence"
  bottom: "cont_sentence"
  top: "lstm2"
  recurrent_param {
    num_output: 1000
    weight_filler {
      type: "uniform"
      min: -0.08
      max: 0.08
    }
    bias_filler {
      type: "constant"
      value: 0
    }
  }
}
layer {
  name: "predict"
  type: "InnerProduct"
  bottom: "lstm2"
  top: "predict"
  param {
    lr_mult: 1
    decay_mult: 1
  }
  param {
    lr_mult: 2
    decay_mult: 0
  }
  inner_product_param {
    num_output: 46168
    weight_filler {
      type: "uniform"
      min: -0.08
      max: 0.08
    }
    bias_filler {
      type: "constant"
      value: 0
    }
    axis: 2
  }
}
layer {
  name: "probs"
  type: "Softmax"
  bottom: "predict"
  top: "probs"
  softmax_param {
    axis: 2
  }
}
I0924 04:04:46.560904 18175 net.cpp:49] Initializing net from parameters: 
name: "s2vt:features_to_lstm"
state {
  phase: TEST
}
layer {
  name: "input"
  type: "Input"
  top: "frames_fc7"
  top: "cont_sentence"
  top: "input_sentence"
  top: "stage_indicator"
  input_param {
    shape {
      dim: 1
      dim: 4096
    }
    shape {
      dim: 1
      dim: 1
    }
    shape {
      dim: 1
      dim: 1
    }
    shape {
      dim: 1
      dim: 1
    }
  }
}
layer {
  name: "embed_encoder"
  type: "InnerProduct"
  bottom: "frames_fc7"
  top: "embedded_in_frames"
  param {
    lr_mult: 1
    decay_mult: 1
  }
  param {
    lr_mult: 2
    decay_mult: 0
  }
  inner_product_param {
    num_output: 500
    weight_filler {
      type: "xavier"
    }
    bias_filler {
      type: "constant"
      value: 0.2
    }
  }
}
layer {
  name: "reshape_frames"
  type: "Reshape"
  bottom: "embedded_in_frames"
  top: "embedded_input_frames"
  reshape_param {
    shape {
      dim: 1
      dim: 1
      dim: 500
    }
  }
}
layer {
  name: "reshape_stage_indicator"
  type: "Reshape"
  bottom: "stage_indicator"
  top: "reshaped_stage_indicator"
  reshape_param {
    shape {
      dim: 1
      dim: 1
      dim: 1
    }
  }
}
layer {
  name: "embedding"
  type: "Embed"
  bottom: "input_sentence"
  top: "embedded_input_sentence"
  param {
    lr_mult: 1
  }
  embed_param {
    num_output: 500
    input_dim: 46168
    bias_term: false
    weight_filler {
      type: "uniform"
      min: -0.08
      max: 0.08
    }
  }
}
layer {
  name: "lstm1"
  type: "LSTM"
  bottom: "embedded_input_frames"
  bottom: "cont_sentence"
  top: "lstm1"
  recurrent_param {
    num_output: 1000
    weight_filler {
      type: "uniform"
      min: -0.08
      max: 0.08
    }
    bias_filler {
      type: "constant"
      value: 0
    }
  }
}
layer {
  name: "concat"
  type: "Concat"
  bottom: "lstm1"
  bottom: "embedded_input_sentence"
  bottom: "reshaped_stage_indicator"
  top: "lstm1_video_sequence"
  concat_param {
    concat_dim: 2
  }
}
layer {
  name: "lstm2"
  type: "LSTM"
  bottom: "lstm1_video_sequence"
  bottom: "cont_sentence"
  top: "lstm2"
  recurrent_param {
    num_output: 1000
    weight_filler {
      type: "uniform"
      min: -0.08
      max: 0.08
    }
    bias_filler {
      type: "constant"
      value: 0
    }
  }
}
layer {
  name: "predict"
  type: "InnerProduct"
  bottom: "lstm2"
  top: "predict"
  param {
    lr_mult: 1
    decay_mult: 1
  }
  param {
    lr_mult: 2
    decay_mult: 0
  }
  inner_product_param {
    num_output: 46168
    weight_filler {
      type: "uniform"
      min: -0.08
      max: 0.08
    }
    bias_filler {
      type: "constant"
      value: 0
    }
    axis: 2
  }
}
layer {
  name: "probs"
  type: "Softmax"
  bottom: "predict"
  top: "probs"
  softmax_param {
    axis: 2
  }
}
I0924 04:04:46.560931 18167 net.cpp:49] Initializing net from parameters: 
name: "s2vt:features_to_lstm"
state {
  phase: TEST
}
layer {
  name: "input"
  type: "Input"
  top: "frames_fc7"
  top: "cont_sentence"
  top: "input_sentence"
  top: "stage_indicator"
  input_param {
    shape {
      dim: 1
      dim: 4096
    }
    shape {
      dim: 1
      dim: 1
    }
    shape {
      dim: 1
      dim: 1
    }
    shape {
      dim: 1
      dim: 1
    }
  }
}
layer {
  name: "embed_encoder"
  type: "InnerProduct"
  bottom: "frames_fc7"
  top: "embedded_in_frames"
  param {
    lr_mult: 1
    decay_mult: 1
  }
  param {
    lr_mult: 2
    decay_mult: 0
  }
  inner_product_param {
    num_output: 500
    weight_filler {
      type: "xavier"
    }
    bias_filler {
      type: "constant"
      value: 0.2
    }
  }
}
layer {
  name: "reshape_frames"
  type: "Reshape"
  bottom: "embedded_in_frames"
  top: "embedded_input_frames"
  reshape_param {
    shape {
      dim: 1
      dim: 1
      dim: 500
    }
  }
}
layer {
  name: "reshape_stage_indicator"
  type: "Reshape"
  bottom: "stage_indicator"
  top: "reshaped_stage_indicator"
  reshape_param {
    shape {
      dim: 1
      dim: 1
      dim: 1
    }
  }
}
layer {
  name: "embedding"
  type: "Embed"
  bottom: "input_sentence"
  top: "embedded_input_sentence"
  param {
    lr_mult: 1
  }
  embed_param {
    num_output: 500
    input_dim: 46168
    bias_term: false
    weight_filler {
      type: "uniform"
      min: -0.08
      max: 0.08
    }
  }
}
layer {
  name: "lstm1"
  type: "LSTM"
  bottom: "embedded_input_frames"
  bottom: "cont_sentence"
  top: "lstm1"
  recurrent_param {
    num_output: 1000
    weight_filler {
      type: "uniform"
      min: -0.08
      max: 0.08
    }
    bias_filler {
      type: "constant"
      value: 0
    }
  }
}
layer {
  name: "concat"
  type: "Concat"
  bottom: "lstm1"
  bottom: "embedded_input_sentence"
  bottom: "reshaped_stage_indicator"
  top: "lstm1_video_sequence"
  concat_param {
    concat_dim: 2
  }
}
layer {
  name: "lstm2"
  type: "LSTM"
  bottom: "lstm1_video_sequence"
  bottom: "cont_sentence"
  top: "lstm2"
  recurrent_param {
    num_output: 1000
    weight_filler {
      type: "uniform"
      min: -0.08
      max: 0.08
    }
    bias_filler {
      type: "constant"
      value: 0
    }
  }
}
layer {
  name: "predict"
  type: "InnerProduct"
  bottom: "lstm2"
  top: "predict"
  param {
    lr_mult: 1
    decay_mult: 1
  }
  param {
    lr_mult: 2
    decay_mult: 0
  }
  inner_product_param {
    num_output: 46168
    weight_filler {
      type: "uniform"
      min: -0.08
      max: 0.08
    }
    bias_filler {
      type: "constant"
      value: 0
    }
    axis: 2
  }
}
layer {
  name: "probs"
  type: "Softmax"
  bottom: "predict"
  top: "probs"
  softmax_param {
    axis: 2
  }
}
I0924 04:04:46.560940 18211 layer_factory.hpp:77] Creating layer input
I0924 04:04:46.560936 18157 layer_factory.hpp:77] Creating layer input
I0924 04:04:46.560904 18163 net.cpp:49] Initializing net from parameters: 
name: "s2vt:features_to_lstm"
state {
  phase: TEST
}
layer {
  name: "input"
  type: "Input"
  top: "frames_fc7"
  top: "cont_sentence"
  top: "input_sentence"
  top: "stage_indicator"
  input_param {
    shape {
      dim: 1
      dim: 4096
    }
    shape {
      dim: 1
      dim: 1
    }
    shape {
      dim: 1
      dim: 1
    }
    shape {
      dim: 1
      dim: 1
    }
  }
}
layer {
  name: "embed_encoder"
  type: "InnerProduct"
  bottom: "frames_fc7"
  top: "embedded_in_frames"
  param {
    lr_mult: 1
    decay_mult: 1
  }
  param {
    lr_mult: 2
    decay_mult: 0
  }
  inner_product_param {
    num_output: 500
    weight_filler {
      type: "xavier"
    }
    bias_filler {
      type: "constant"
      value: 0.2
    }
  }
}
layer {
  name: "reshape_frames"
  type: "Reshape"
  bottom: "embedded_in_frames"
  top: "embedded_input_frames"
  reshape_param {
    shape {
      dim: 1
      dim: 1
      dim: 500
    }
  }
}
layer {
  name: "reshape_stage_indicator"
  type: "Reshape"
  bottom: "stage_indicator"
  top: "reshaped_stage_indicator"
  reshape_param {
    shape {
      dim: 1
      dim: 1
      dim: 1
    }
  }
}
layer {
  name: "embedding"
  type: "Embed"
  bottom: "input_sentence"
  top: "embedded_input_sentence"
  param {
    lr_mult: 1
  }
  embed_param {
    num_output: 500
    input_dim: 46168
    bias_term: false
    weight_filler {
      type: "uniform"
      min: -0.08
      max: 0.08
    }
  }
}
layer {
  name: "lstm1"
  type: "LSTM"
  bottom: "embedded_input_frames"
  bottom: "cont_sentence"
  top: "lstm1"
  recurrent_param {
    num_output: 1000
    weight_filler {
      type: "uniform"
      min: -0.08
      max: 0.08
    }
    bias_filler {
      type: "constant"
      value: 0
    }
  }
}
layer {
  name: "concat"
  type: "Concat"
  bottom: "lstm1"
  bottom: "embedded_input_sentence"
  bottom: "reshaped_stage_indicator"
  top: "lstm1_video_sequence"
  concat_param {
    concat_dim: 2
  }
}
layer {
  name: "lstm2"
  type: "LSTM"
  bottom: "lstm1_video_sequence"
  bottom: "cont_sentence"
  top: "lstm2"
  recurrent_param {
    num_output: 1000
    weight_filler {
      type: "uniform"
      min: -0.08
      max: 0.08
    }
    bias_filler {
      type: "constant"
      value: 0
    }
  }
}
layer {
  name: "predict"
  type: "InnerProduct"
  bottom: "lstm2"
  top: "predict"
  param {
    lr_mult: 1
    decay_mult: 1
  }
  param {
    lr_mult: 2
    decay_mult: 0
  }
  inner_product_param {
    num_output: 46168
    weight_filler {
      type: "uniform"
      min: -0.08
      max: 0.08
    }
    bias_filler {
      type: "constant"
      value: 0
    }
    axis: 2
  }
}
layer {
  name: "probs"
  type: "Softmax"
  bottom: "predict"
  top: "probs"
  softmax_param {
    axis: 2
  }
}
I0924 04:04:46.560937 18161 layer_factory.hpp:77] Creating layer input
I0924 04:04:46.560974 18161 net.cpp:91] Creating Layer input
I0924 04:04:46.560974 18157 net.cpp:91] Creating Layer input
I0924 04:04:46.560976 18211 net.cpp:91] Creating Layer input
I0924 04:04:46.560986 18161 net.cpp:399] input -> frames_fc7
I0924 04:04:46.560989 18211 net.cpp:399] input -> frames_fc7
I0924 04:04:46.560986 18157 net.cpp:399] input -> frames_fc7
I0924 04:04:46.560998 18199 layer_factory.hpp:77] Creating layer input
I0924 04:04:46.561012 18207 layer_factory.hpp:77] Creating layer input
I0924 04:04:46.561022 18199 net.cpp:91] Creating Layer input
I0924 04:04:46.561025 18161 net.cpp:399] input -> cont_sentence
I0924 04:04:46.561028 18211 net.cpp:399] input -> cont_sentence
I0924 04:04:46.561031 18207 net.cpp:91] Creating Layer input
I0924 04:04:46.561035 18199 net.cpp:399] input -> frames_fc7
I0924 04:04:46.561035 18181 net.cpp:49] Initializing net from parameters: 
name: "s2vt:features_to_lstm"
state {
  phase: TEST
}
layer {
  name: "input"
  type: "Input"
  top: "frames_fc7"
  top: "cont_sentence"
  top: "input_sentence"
  top: "stage_indicator"
  input_param {
    shape {
      dim: 1
      dim: 4096
    }
    shape {
      dim: 1
      dim: 1
    }
    shape {
      dim: 1
      dim: 1
    }
    shape {
      dim: 1
      dim: 1
    }
  }
}
layer {
  name: "embed_encoder"
  type: "InnerProduct"
  bottom: "frames_fc7"
  top: "embedded_in_frames"
  param {
    lr_mult: 1
    decay_mult: 1
  }
  param {
    lr_mult: 2
    decay_mult: 0
  }
  inner_product_param {
    num_output: 500
    weight_filler {
      type: "xavier"
    }
    bias_filler {
      type: "constant"
      value: 0.2
    }
  }
}
layer {
  name: "reshape_frames"
  type: "Reshape"
  bottom: "embedded_in_frames"
  top: "embedded_input_frames"
  reshape_param {
    shape {
      dim: 1
      dim: 1
      dim: 500
    }
  }
}
layer {
  name: "reshape_stage_indicator"
  type: "Reshape"
  bottom: "stage_indicator"
  top: "reshaped_stage_indicator"
  reshape_param {
    shape {
      dim: 1
      dim: 1
      dim: 1
    }
  }
}
layer {
  name: "embedding"
  type: "Embed"
  bottom: "input_sentence"
  top: "embedded_input_sentence"
  param {
    lr_mult: 1
  }
  embed_param {
    num_output: 500
    input_dim: 46168
    bias_term: false
    weight_filler {
      type: "uniform"
      min: -0.08
      max: 0.08
    }
  }
}
layer {
  name: "lstm1"
  type: "LSTM"
  bottom: "embedded_input_frames"
  bottom: "cont_sentence"
  top: "lstm1"
  recurrent_param {
    num_output: 1000
    weight_filler {
      type: "uniform"
      min: -0.08
      max: 0.08
    }
    bias_filler {
      type: "constant"
      value: 0
    }
  }
}
layer {
  name: "concat"
  type: "Concat"
  bottom: "lstm1"
  bottom: "embedded_input_sentence"
  bottom: "reshaped_stage_indicator"
  top: "lstm1_video_sequence"
  concat_param {
    concat_dim: 2
  }
}
layer {
  name: "lstm2"
  type: "LSTM"
  bottom: "lstm1_video_sequence"
  bottom: "cont_sentence"
  top: "lstm2"
  recurrent_param {
    num_output: 1000
    weight_filler {
      type: "uniform"
      min: -0.08
      max: 0.08
    }
    bias_filler {
      type: "constant"
      value: 0
    }
  }
}
layer {
  name: "predict"
  type: "InnerProduct"
  bottom: "lstm2"
  top: "predict"
  param {
    lr_mult: 1
    decay_mult: 1
  }
  param {
    lr_mult: 2
    decay_mult: 0
  }
  inner_product_param {
    num_output: 46168
    weight_filler {
      type: "uniform"
      min: -0.08
      max: 0.08
    }
    bias_filler {
      type: "constant"
      value: 0
    }
    axis: 2
  }
}
layer {
  name: "probs"
  type: "Softmax"
  bottom: "predict"
  top: "probs"
  softmax_param {
    axis: 2
  }
}
I0924 04:04:46.561049 18211 net.cpp:399] input -> input_sentence
I0924 04:04:46.561041 18183 net.cpp:49] Initializing net from parameters: 
name: "CaffeNet"
state {
  phase: TEST
}
layer {
  name: "data"
  type: "Input"
  top: "data"
  input_param {
    shape {
      dim: 10
      dim: 3
      dim: 227
      dim: 227
    }
  }
}
layer {
  name: "conv1"
  type: "Convolution"
  bottom: "data"
  top: "conv1"
  convolution_param {
    num_output: 96
    kernel_size: 11
    stride: 4
  }
}
layer {
  name: "relu1"
  type: "ReLU"
  bottom: "conv1"
  top: "conv1"
}
layer {
  name: "pool1"
  type: "Pooling"
  bottom: "conv1"
  top: "pool1"
  pooling_param {
    pool: MAX
    kernel_size: 3
    stride: 2
  }
}
layer {
  name: "norm1"
  type: "LRN"
  bottom: "pool1"
  top: "norm1"
  lrn_param {
    local_size: 5
    alpha: 0.0001
    beta: 0.75
  }
}
layer {
  name: "conv2"
  type: "Convolution"
  bottom: "norm1"
  top: "conv2"
  convolution_param {
    num_output: 256
    pad: 2
    kernel_size: 5
    group: 2
  }
}
layer {
  name: "relu2"
  type: "ReLU"
  bottom: "conv2"
  top: "conv2"
}
layer {
  name: "pool2"
  type: "Pooling"
  bottom: "conv2"
  top: "pool2"
  pooling_param {
    pool: MAX
    kernel_size: 3
    stride: 2
  }
}
layer {
  name: "norm2"
  type: "LRN"
  bottom: "pool2"
  top: "norm2"
  lrn_param {
    local_size: 5
    alpha: 0.0001
    beta: 0.75
  }
}
layer {
  name: "conv3"
  type: "Convolution"
  bottom: "norm2"
  top: "conv3"
  convolution_param {
    num_output: 384
    pad: 1
    kernel_size: 3
  }
}
layer {
  name: "relu3"
  type: "ReLU"
  bottom: "conv3"
  top: "conv3"
}
layer {
  name: "conv4"
  type: "Convolution"
  bottom: "conv3"
  top: "conv4"
  convolution_param {
    num_output: 384
    pad: 1
    kernel_size: 3
    group: 2
  }
}
layer {
  name: "relu4"
  type: "ReLU"
  bottom: "conv4"
  top: "conv4"
}
layer {
  name: "conv5"
  type: "Convolution"
  bottom: "conv4"
  top: "conv5"
  convolution_param {
    num_output: 256
    pad: 1
    kernel_size: 3
    group: 2
  }
}
layer {
  name: "relu5"
  type: "ReLU"
  bottom: "conv5"
  top: "conv5"
}
layer {
  name: "pool5"
  type: "Pooling"
  bottom: "conv5"
  top: "pool5"
  pooling_param {
    pool: MAX
    kernel_size: 3
    stride: 2
  }
}
layer {
  name: "fc6"
  type: "InnerProduct"
  bottom: "pool5"
  top: "fc6"
  inner_product_param {
    num_output: 4096
  }
}
layer {
  name: "relu6"
  type: "ReLU"
  bottom: "fc6"
  top: "fc6"
}
layer {
  name: "drop6"
  type: "Dropout"
  bottom: "fc6"
  top: "fc6"
  dropout_param {
    dropout_ratio: 0.5
  }
}
layer {
  name: "fc7"
  type: "InnerProduct"
  bottom: "fc6"
  top: "fc7"
  inner_product_param {
    num_output: 4096
  }
}
layer {
  name: "relu7"
  type: "ReLU"
  bottom: "fc7"
  top: "fc7"
}
layer {
  name: "drop7"
  type: "Dropout"
  bottom: "fc7"
  top: "fc7"
  dropout_param {
    dropout_ratio: 0.5
  }
}
layer {
  name: "fc8"
  type: "InnerProduct"
  bottom: "fc7"
  top: "fc8"
  inner_product_param {
    num_output: 1000
  }
}
layer {
  name: "prob"
  type: "Softmax"
  bottom: "fc8"
  top: "prob"
}
I0924 04:04:46.561071 18211 net.cpp:399] input -> stage_indicator
I0924 04:04:46.561072 18163 layer_factory.hpp:77] Creating layer input
I0924 04:04:46.561051 18175 layer_factory.hpp:77] Creating layer input
I0924 04:04:46.561027 18157 net.cpp:399] input -> cont_sentence
I0924 04:04:46.561056 18199 net.cpp:399] input -> cont_sentence
I0924 04:04:46.561097 18163 net.cpp:91] Creating Layer input
…
I0924 04:04:46.561198 18181 layer_factory.hpp:77] Creating layer input
I0924 04:04:46.561249 18183 net.cpp:91] Creating Layer data
I0924 04:04:46.561283 18181 net.cpp:91] Creating Layer input
I0924 04:04:46.561287 18183 net.cpp:399] data -> data
I0924 04:04:46.561298 18181 net.cpp:399] input -> frames_fc7
I0924 04:04:46.561321 18181 net.cpp:399] input -> cont_sentence
I0924 04:04:46.561342 18181 net.cpp:399] input -> input_sentence
I0924 04:04:46.561360 18181 net.cpp:399] input -> stage_indicator
I0924 04:04:47.675122 18167 net.cpp:141] Setting up input
I0924 04:04:47.675245 18211 net.cpp:141] Setting up input
I0924 04:04:47.675320 18211 net.cpp:148] Top shape: 1 4096 (4096)
I0924 04:04:47.675321 18167 net.cpp:148] Top shape: 1 4096 (4096)
I0924 04:04:47.675331 18211 net.cpp:148] Top shape: 1 1 (1)
I0924 04:04:47.675335 18167 net.cpp:148] Top shape: 1 1 (1)
I0924 04:04:47.675339 18211 net.cpp:148] Top shape: 1 1 (1)
I0924 04:04:47.675343 18167 net.cpp:148] Top shape: 1 1 (1)
I0924 04:04:47.675349 18167 net.cpp:148] Top shape: 1 1 (1)
I0924 04:04:47.675354 18167 net.cpp:156] Memory required for data: 16396
I0924 04:04:47.675346 18163 net.cpp:141] Setting up input
I0924 04:04:47.675375 18167 layer_factory.hpp:77] Creating layer cont_sentence_input_1_split
I0924 04:04:47.675348 18211 net.cpp:148] Top shape: 1 1 (1)
I0924 04:04:47.675382 18163 net.cpp:148] Top shape: 1 4096 (4096)
I0924 04:04:47.675385 18211 net.cpp:156] Memory required for data: 16396
I0924 04:04:47.675390 18163 net.cpp:148] Top shape: 1 1 (1)
I0924 04:04:47.675397 18163 net.cpp:148] Top shape: 1 1 (1)
I0924 04:04:47.675400 18183 net.cpp:141] Setting up data
I0924 04:04:47.675426 18183 net.cpp:148] Top shape: 10 3 227 227 (1545870)
I0924 04:04:47.675396 18211 layer_factory.hpp:77] Creating layer cont_sentence_input_1_split
I0924 04:04:47.675405 18167 net.cpp:91] Creating Layer cont_sentence_input_1_split
I0924 04:04:47.675410 18163 net.cpp:148] Top shape: 1 1 (1)
I0924 04:04:47.675451 18163 net.cpp:156] Memory required for data: 16396
I0924 04:04:47.675457 18211 net.cpp:91] Creating Layer cont_sentence_input_1_split
I0924 04:04:47.675464 18211 net.cpp:425] cont_sentence_input_1_split <- cont_sentence
I0924 04:04:47.675467 18163 layer_factory.hpp:77] Creating layer cont_sentence_input_1_split
I0924 04:04:47.675467 18167 net.cpp:425] cont_sentence_input_1_split <- cont_sentence
I0924 04:04:47.675479 18163 net.cpp:91] Creating Layer cont_sentence_input_1_split
I0924 04:04:47.675436 18183 net.cpp:156] Memory required for data: 6183480
I0924 04:04:47.675487 18163 net.cpp:425] cont_sentence_input_1_split <- cont_sentence
I0924 04:04:47.675494 18183 layer_factory.hpp:77] Creating layer conv1
I0924 04:04:47.675501 18211 net.cpp:399] cont_sentence_input_1_split -> cont_sentence_input_1_split_0
I0924 04:04:47.675503 18167 net.cpp:399] cont_sentence_input_1_split -> cont_sentence_input_1_split_0
I0924 04:04:47.675508 18163 net.cpp:399] cont_sentence_input_1_split -> cont_sentence_input_1_split_0
I0924 04:04:47.675498 18181 net.cpp:141] Setting up input
I0924 04:04:47.675525 18163 net.cpp:399] cont_sentence_input_1_split -> cont_sentence_input_1_split_1
I0924 04:04:47.675529 18183 net.cpp:91] Creating Layer conv1
I0924 04:04:47.675526 18211 net.cpp:399] cont_sentence_input_1_split -> cont_sentence_input_1_split_1
I0924 04:04:47.675537 18181 net.cpp:148] Top shape: 1 4096 (4096)
I0924 04:04:47.675539 18183 net.cpp:425] conv1 <- data
I0924 04:04:47.675523 18167 net.cpp:399] cont_sentence_input_1_split -> cont_sentence_input_1_split_1
I0924 04:04:47.675545 18181 net.cpp:148] Top shape: 1 1 (1)
I0924 04:04:47.675550 18183 net.cpp:399] conv1 -> conv1
I0924 04:04:47.675551 18181 net.cpp:148] Top shape: 1 1 (1)
I0924 04:04:47.675570 18181 net.cpp:148] Top shape: 1 1 (1)
I0924 04:04:47.675565 18175 net.cpp:141] Setting up input
I0924 04:04:47.675575 18181 net.cpp:156] Memory required for data: 16396
I0924 04:04:47.675590 18175 net.cpp:148] Top shape: 1 4096 (4096)
I0924 04:04:47.675591 18181 layer_factory.hpp:77] Creating layer cont_sentence_input_1_split
I0924 04:04:47.675606 18175 net.cpp:148] Top shape: 1 1 (1)
I0924 04:04:47.675608 18211 net.cpp:141] Setting up cont_sentence_input_1_split
I0924 04:04:47.675612 18181 net.cpp:91] Creating Layer cont_sentence_input_1_split
I0924 04:04:47.675619 18181 net.cpp:425] cont_sentence_input_1_split <- cont_sentence
I0924 04:04:47.675612 18175 net.cpp:148] Top shape: 1 1 (1)
I0924 04:04:47.675626 18211 net.cpp:148] Top shape: 1 1 (1)
I0924 04:04:47.675628 18181 net.cpp:399] cont_sentence_input_1_split -> cont_sentence_input_1_split_0
I0924 04:04:47.675631 18175 net.cpp:148] Top shape: 1 1 (1)
I0924 04:04:47.675640 18181 net.cpp:399] cont_sentence_input_1_split -> cont_sentence_input_1_split_1
I0924 04:04:47.675633 18211 net.cpp:148] Top shape: 1 1 (1)
I0924 04:04:47.675643 18175 net.cpp:156] Memory required for data: 16396
I0924 04:04:47.675653 18161 net.cpp:141] Setting up input
I0924 04:04:47.675652 18211 net.cpp:156] Memory required for data: 16404
I0924 04:04:47.675662 18175 layer_factory.hpp:77] Creating layer cont_sentence_input_1_split
I0924 04:04:47.675668 18211 layer_factory.hpp:77] Creating layer embed_encoder
I0924 04:04:47.675674 18175 net.cpp:91] Creating Layer cont_sentence_input_1_split
I0924 04:04:47.675668 18161 net.cpp:148] Top shape: 1 4096 (4096)
I0924 04:04:47.675681 18175 net.cpp:425] cont_sentence_input_1_split <- cont_sentence
I0924 04:04:47.675684 18161 net.cpp:148] Top shape: 1 1 (1)
I0924 04:04:47.675688 18211 net.cpp:91] Creating Layer embed_encoder
I0924 04:04:47.675690 18161 net.cpp:148] Top shape: 1 1 (1)
I0924 04:04:47.675694 18211 net.cpp:425] embed_encoder <- frames_fc7
I0924 04:04:47.675690 18175 net.cpp:399] cont_sentence_input_1_split -> cont_sentence_input_1_split_0
I0924 04:04:47.675701 18161 net.cpp:148] Top shape: 1 1 (1)
I0924 04:04:47.675704 18211 net.cpp:399] embed_encoder -> embedded_in_frames
I0924 04:04:47.675706 18161 net.cpp:156] Memory required for data: 16396
I0924 04:04:47.675724 18161 layer_factory.hpp:77] Creating layer cont_sentence_input_1_split
I0924 04:04:47.675726 18163 net.cpp:141] Setting up cont_sentence_input_1_split
I0924 04:04:47.675734 18161 net.cpp:91] Creating Layer cont_sentence_input_1_split
I0924 04:04:47.675739 18161 net.cpp:425] cont_sentence_input_1_split <- cont_sentence
I0924 04:04:47.675741 18163 net.cpp:148] Top shape: 1 1 (1)
I0924 04:04:47.675748 18163 net.cpp:148] Top shape: 1 1 (1)
I0924 04:04:47.675750 18161 net.cpp:399] cont_sentence_input_1_split -> cont_sentence_input_1_split_0
I0924 04:04:47.675753 18163 net.cpp:156] Memory required for data: 16404
I0924 04:04:47.675712 18175 net.cpp:399] cont_sentence_input_1_split -> cont_sentence_input_1_split_1
I0924 04:04:47.675770 18163 layer_factory.hpp:77] Creating layer embed_encoder
I0924 04:04:47.675772 18161 net.cpp:399] cont_sentence_input_1_split -> cont_sentence_input_1_split_1
I0924 04:04:47.675786 18163 net.cpp:91] Creating Layer embed_encoder
I0924 04:04:47.675791 18163 net.cpp:425] embed_encoder <- frames_fc7
I0924 04:04:47.675801 18163 net.cpp:399] embed_encoder -> embedded_in_frames
I0924 04:04:47.675834 18175 net.cpp:141] Setting up cont_sentence_input_1_split
I0924 04:04:47.675845 18175 net.cpp:148] Top shape: 1 1 (1)
I0924 04:04:47.675851 18175 net.cpp:148] Top shape: 1 1 (1)
I0924 04:04:47.675855 18175 net.cpp:156] Memory required for data: 16404
I0924 04:04:47.675863 18175 layer_factory.hpp:77] Creating layer embed_encoder
I0924 04:04:47.675868 18207 net.cpp:141] Setting up input
I0924 04:04:47.675874 18175 net.cpp:91] Creating Layer embed_encoder
I0924 04:04:47.675880 18175 net.cpp:425] embed_encoder <- frames_fc7
I0924 04:04:47.675881 18207 net.cpp:148] Top shape: 1 4096 (4096)
I0924 04:04:47.675889 18207 net.cpp:148] Top shape: 1 1 (1)
I0924 04:04:47.675891 18175 net.cpp:399] embed_encoder -> embedded_in_frames
I0924 04:04:47.675894 18207 net.cpp:148] Top shape: 1 1 (1)
I0924 04:04:47.675899 18207 net.cpp:148] Top shape: 1 1 (1)
I0924 04:04:47.675904 18207 net.cpp:156] Memory required for data: 16396
I0924 04:04:47.675909 18207 layer_factory.hpp:77] Creating layer cont_sentence_input_1_split
I0924 04:04:47.675920 18207 net.cpp:91] Creating Layer cont_sentence_input_1_split
I0924 04:04:47.675925 18207 net.cpp:425] cont_sentence_input_1_split <- cont_sentence
I0924 04:04:47.675932 18207 net.cpp:399] cont_sentence_input_1_split -> cont_sentence_input_1_split_0
I0924 04:04:47.675941 18207 net.cpp:399] cont_sentence_input_1_split -> cont_sentence_input_1_split_1
I0924 04:04:47.685287 18167 net.cpp:141] Setting up cont_sentence_input_1_split
I0924 04:04:47.685341 18167 net.cpp:148] Top shape: 1 1 (1)
I0924 04:04:47.685353 18167 net.cpp:148] Top shape: 1 1 (1)
I0924 04:04:47.685361 18167 net.cpp:156] Memory required for data: 16404
I0924 04:04:47.685372 18167 layer_factory.hpp:77] Creating layer embed_encoder
I0924 04:04:47.685870 18167 net.cpp:91] Creating Layer embed_encoder
I0924 04:04:47.685885 18167 net.cpp:425] embed_encoder <- frames_fc7
I0924 04:04:47.685904 18167 net.cpp:399] embed_encoder -> embedded_in_frames
I0924 04:04:47.691856 18199 net.cpp:141] Setting up input
I0924 04:04:47.691900 18199 net.cpp:148] Top shape: 1 4096 (4096)
I0924 04:04:47.691911 18199 net.cpp:148] Top shape: 1 1 (1)
I0924 04:04:47.691920 18199 net.cpp:148] Top shape: 1 1 (1)
I0924 04:04:47.691929 18199 net.cpp:148] Top shape: 1 1 (1)
I0924 04:04:47.691936 18199 net.cpp:156] Memory required for data: 16396
I0924 04:04:47.691944 18199 layer_factory.hpp:77] Creating layer cont_sentence_input_1_split
I0924 04:04:47.691962 18199 net.cpp:91] Creating Layer cont_sentence_input_1_split
I0924 04:04:47.691956 18161 net.cpp:141] Setting up cont_sentence_input_1_split
I0924 04:04:47.691972 18199 net.cpp:425] cont_sentence_input_1_split <- cont_sentence
I0924 04:04:47.692001 18161 net.cpp:148] Top shape: 1 1 (1)
I0924 04:04:47.692009 18161 net.cpp:148] Top shape: 1 1 (1)
I0924 04:04:47.692014 18161 net.cpp:156] Memory required for data: 16404
I0924 04:04:47.692019 18199 net.cpp:399] cont_sentence_input_1_split -> cont_sentence_input_1_split_0
I0924 04:04:47.692023 18161 layer_factory.hpp:77] Creating layer embed_encoder
I0924 04:04:47.692042 18157 net.cpp:141] Setting up input
I0924 04:04:47.692049 18199 net.cpp:399] cont_sentence_input_1_split -> cont_sentence_input_1_split_1
I0924 04:04:47.692060 18161 net.cpp:91] Creating Layer embed_encoder
I0924 04:04:47.692062 18157 net.cpp:148] Top shape: 1 4096 (4096)
I0924 04:04:47.692070 18161 net.cpp:425] embed_encoder <- frames_fc7
I0924 04:04:47.692075 18157 net.cpp:148] Top shape: 1 1 (1)
I0924 04:04:47.692085 18161 net.cpp:399] embed_encoder -> embedded_in_frames
I0924 04:04:47.692086 18157 net.cpp:148] Top shape: 1 1 (1)
I0924 04:04:47.692097 18157 net.cpp:148] Top shape: 1 1 (1)
I0924 04:04:47.692104 18157 net.cpp:156] Memory required for data: 16396
I0924 04:04:47.692112 18157 layer_factory.hpp:77] Creating layer cont_sentence_input_1_split
I0924 04:04:47.692121 18207 net.cpp:141] Setting up cont_sentence_input_1_split
I0924 04:04:47.692126 18157 net.cpp:91] Creating Layer cont_sentence_input_1_split
I0924 04:04:47.692147 18157 net.cpp:425] cont_sentence_input_1_split <- cont_sentence
I0924 04:04:47.692149 18207 net.cpp:148] Top shape: 1 1 (1)
I0924 04:04:47.692159 18157 net.cpp:399] cont_sentence_input_1_split -> cont_sentence_input_1_split_0
I0924 04:04:47.692160 18207 net.cpp:148] Top shape: 1 1 (1)
I0924 04:04:47.692180 18207 net.cpp:156] Memory required for data: 16404
I0924 04:04:47.692183 18157 net.cpp:399] cont_sentence_input_1_split -> cont_sentence_input_1_split_1
I0924 04:04:47.692189 18207 layer_factory.hpp:77] Creating layer embed_encoder
I0924 04:04:47.692206 18207 net.cpp:91] Creating Layer embed_encoder
I0924 04:04:47.692215 18207 net.cpp:425] embed_encoder <- frames_fc7
I0924 04:04:47.692231 18207 net.cpp:399] embed_encoder -> embedded_in_frames
I0924 04:04:47.692227 18181 net.cpp:141] Setting up cont_sentence_input_1_split
I0924 04:04:47.692271 18181 net.cpp:148] Top shape: 1 1 (1)
I0924 04:04:47.692282 18181 net.cpp:148] Top shape: 1 1 (1)
I0924 04:04:47.692288 18181 net.cpp:156] Memory required for data: 16404
I0924 04:04:47.692297 18181 layer_factory.hpp:77] Creating layer embed_encoder
I0924 04:04:47.692360 18181 net.cpp:91] Creating Layer embed_encoder
I0924 04:04:47.692373 18181 net.cpp:425] embed_encoder <- frames_fc7
I0924 04:04:47.696475 18181 net.cpp:399] embed_encoder -> embedded_in_frames
I0924 04:04:47.701277 18199 net.cpp:141] Setting up cont_sentence_input_1_split
I0924 04:04:47.701318 18199 net.cpp:148] Top shape: 1 1 (1)
I0924 04:04:47.701325 18199 net.cpp:148] Top shape: 1 1 (1)
I0924 04:04:47.701329 18199 net.cpp:156] Memory required for data: 16404
I0924 04:04:47.701337 18199 layer_factory.hpp:77] Creating layer embed_encoder
I0924 04:04:47.701359 18199 net.cpp:91] Creating Layer embed_encoder
I0924 04:04:47.701366 18199 net.cpp:425] embed_encoder <- frames_fc7
I0924 04:04:47.701378 18199 net.cpp:399] embed_encoder -> embedded_in_frames
I0924 04:04:47.706240 18211 net.cpp:141] Setting up embed_encoder
I0924 04:04:47.706284 18211 net.cpp:148] Top shape: 1 500 (500)
I0924 04:04:47.706290 18211 net.cpp:156] Memory required for data: 18404
I0924 04:04:47.706321 18211 layer_factory.hpp:77] Creating layer reshape_frames
I0924 04:04:47.706352 18211 net.cpp:91] Creating Layer reshape_frames
I0924 04:04:47.706362 18211 net.cpp:425] reshape_frames <- embedded_in_frames
I0924 04:04:47.706372 18211 net.cpp:399] reshape_frames -> embedded_input_frames
I0924 04:04:47.706436 18211 net.cpp:141] Setting up reshape_frames
I0924 04:04:47.706446 18211 net.cpp:148] Top shape: 1 1 500 (500)
I0924 04:04:47.706454 18211 net.cpp:156] Memory required for data: 20404
I0924 04:04:47.706459 18211 layer_factory.hpp:77] Creating layer reshape_stage_indicator
I0924 04:04:47.706472 18211 net.cpp:91] Creating Layer reshape_stage_indicator
I0924 04:04:47.706477 18211 net.cpp:425] reshape_stage_indicator <- stage_indicator
I0924 04:04:47.706485 18211 net.cpp:399] reshape_stage_indicator -> reshaped_stage_indicator
I0924 04:04:47.706506 18157 net.cpp:141] Setting up cont_sentence_input_1_split
I0924 04:04:47.706527 18157 net.cpp:148] Top shape: 1 1 (1)
I0924 04:04:47.706527 18211 net.cpp:141] Setting up reshape_stage_indicator
I0924 04:04:47.706542 18157 net.cpp:148] Top shape: 1 1 (1)
I0924 04:04:47.706547 18157 net.cpp:156] Memory required for data: 16404
I0924 04:04:47.706548 18211 net.cpp:148] Top shape: 1 1 1 (1)
I0924 04:04:47.706553 18211 net.cpp:156] Memory required for data: 20408
I0924 04:04:47.706553 18157 layer_factory.hpp:77] Creating layer embed_encoder
I0924 04:04:47.706563 18211 layer_factory.hpp:77] Creating layer embedding
I0924 04:04:47.706584 18211 net.cpp:91] Creating Layer embedding
I0924 04:04:47.706584 18157 net.cpp:91] Creating Layer embed_encoder
I0924 04:04:47.706590 18211 net.cpp:425] embedding <- input_sentence
I0924 04:04:47.706593 18157 net.cpp:425] embed_encoder <- frames_fc7
I0924 04:04:47.706609 18211 net.cpp:399] embedding -> embedded_input_sentence
I0924 04:04:47.706616 18157 net.cpp:399] embed_encoder -> embedded_in_frames
I0924 04:04:47.757093 18175 net.cpp:141] Setting up embed_encoder
I0924 04:04:47.757141 18175 net.cpp:148] Top shape: 1 500 (500)
I0924 04:04:47.757148 18175 net.cpp:156] Memory required for data: 18404
I0924 04:04:47.757169 18175 layer_factory.hpp:77] Creating layer reshape_frames
I0924 04:04:47.757187 18175 net.cpp:91] Creating Layer reshape_frames
I0924 04:04:47.757195 18175 net.cpp:425] reshape_frames <- embedded_in_frames
I0924 04:04:47.757205 18175 net.cpp:399] reshape_frames -> embedded_input_frames
I0924 04:04:47.757529 18175 net.cpp:141] Setting up reshape_frames
I0924 04:04:47.757539 18175 net.cpp:148] Top shape: 1 1 500 (500)
I0924 04:04:47.757544 18175 net.cpp:156] Memory required for data: 20404
I0924 04:04:47.757549 18175 layer_factory.hpp:77] Creating layer reshape_stage_indicator
I0924 04:04:47.757568 18175 net.cpp:91] Creating Layer reshape_stage_indicator
I0924 04:04:47.757578 18175 net.cpp:425] reshape_stage_indicator <- stage_indicator
I0924 04:04:47.757593 18175 net.cpp:399] reshape_stage_indicator -> reshaped_stage_indicator
I0924 04:04:47.757624 18163 net.cpp:141] Setting up embed_encoder
I0924 04:04:47.757640 18163 net.cpp:148] Top shape: 1 500 (500)
I0924 04:04:47.757645 18163 net.cpp:156] Memory required for data: 18404
I0924 04:04:47.757660 18163 layer_factory.hpp:77] Creating layer reshape_frames
I0924 04:04:47.757671 18163 net.cpp:91] Creating Layer reshape_frames
I0924 04:04:47.757678 18163 net.cpp:425] reshape_frames <- embedded_in_frames
I0924 04:04:47.757686 18163 net.cpp:399] reshape_frames -> embedded_input_frames
I0924 04:04:47.757789 18207 net.cpp:141] Setting up embed_encoder
I0924 04:04:47.757800 18207 net.cpp:148] Top shape: 1 500 (500)
I0924 04:04:47.757805 18207 net.cpp:156] Memory required for data: 18404
I0924 04:04:47.757817 18207 layer_factory.hpp:77] Creating layer reshape_frames
I0924 04:04:47.757827 18207 net.cpp:91] Creating Layer reshape_frames
I0924 04:04:47.757833 18207 net.cpp:425] reshape_frames <- embedded_in_frames
I0924 04:04:47.757841 18207 net.cpp:399] reshape_frames -> embedded_input_frames
I0924 04:04:47.763325 18175 net.cpp:141] Setting up reshape_stage_indicator
I0924 04:04:47.763347 18175 net.cpp:148] Top shape: 1 1 1 (1)
I0924 04:04:47.763353 18175 net.cpp:156] Memory required for data: 20408
I0924 04:04:47.763360 18175 layer_factory.hpp:77] Creating layer embedding
I0924 04:04:47.763373 18175 net.cpp:91] Creating Layer embedding
I0924 04:04:47.763378 18175 net.cpp:425] embedding <- input_sentence
I0924 04:04:47.763388 18175 net.cpp:399] embedding -> embedded_input_sentence
I0924 04:04:47.763449 18163 net.cpp:141] Setting up reshape_frames
I0924 04:04:47.763466 18163 net.cpp:148] Top shape: 1 1 500 (500)
I0924 04:04:47.763471 18163 net.cpp:156] Memory required for data: 20404
I0924 04:04:47.763479 18163 layer_factory.hpp:77] Creating layer reshape_stage_indicator
I0924 04:04:47.763505 18163 net.cpp:91] Creating Layer reshape_stage_indicator
I0924 04:04:47.763520 18163 net.cpp:425] reshape_stage_indicator <- stage_indicator
I0924 04:04:47.763527 18167 net.cpp:141] Setting up embed_encoder
I0924 04:04:47.763533 18163 net.cpp:399] reshape_stage_indicator -> reshaped_stage_indicator
I0924 04:04:47.763540 18167 net.cpp:148] Top shape: 1 500 (500)
I0924 04:04:47.763545 18167 net.cpp:156] Memory required for data: 18404
I0924 04:04:47.763558 18167 layer_factory.hpp:77] Creating layer reshape_frames
I0924 04:04:47.763581 18167 net.cpp:91] Creating Layer reshape_frames
I0924 04:04:47.763587 18167 net.cpp:425] reshape_frames <- embedded_in_frames
I0924 04:04:47.763595 18167 net.cpp:399] reshape_frames -> embedded_input_frames
I0924 04:04:47.763607 18163 net.cpp:141] Setting up reshape_stage_indicator
I0924 04:04:47.763618 18163 net.cpp:148] Top shape: 1 1 1 (1)
I0924 04:04:47.763623 18163 net.cpp:156] Memory required for data: 20408
I0924 04:04:47.763628 18163 layer_factory.hpp:77] Creating layer embedding
I0924 04:04:47.763638 18163 net.cpp:91] Creating Layer embedding
I0924 04:04:47.763643 18163 net.cpp:425] embedding <- input_sentence
I0924 04:04:47.763655 18163 net.cpp:399] embedding -> embedded_input_sentence
I0924 04:04:47.763746 18161 net.cpp:141] Setting up embed_encoder
I0924 04:04:47.763803 18207 net.cpp:141] Setting up reshape_frames
I0924 04:04:47.763828 18207 net.cpp:148] Top shape: 1 1 500 (500)
I0924 04:04:47.763839 18207 net.cpp:156] Memory required for data: 20404
I0924 04:04:47.763849 18207 layer_factory.hpp:77] Creating layer reshape_stage_indicator
I0924 04:04:47.763917 18207 net.cpp:91] Creating Layer reshape_stage_indicator
I0924 04:04:47.763934 18207 net.cpp:425] reshape_stage_indicator <- stage_indicator
I0924 04:04:47.763952 18207 net.cpp:399] reshape_stage_indicator -> reshaped_stage_indicator
I0924 04:04:47.767026 18161 net.cpp:148] Top shape: 1 500 (500)
I0924 04:04:47.767062 18167 net.cpp:141] Setting up reshape_frames
I0924 04:04:47.767071 18161 net.cpp:156] Memory required for data: 18404
I0924 04:04:47.767087 18167 net.cpp:148] Top shape: 1 1 500 (500)
I0924 04:04:47.767096 18167 net.cpp:156] Memory required for data: 20404
I0924 04:04:47.767110 18161 layer_factory.hpp:77] Creating layer reshape_frames
I0924 04:04:47.767107 18167 layer_factory.hpp:77] Creating layer reshape_stage_indicator
I0924 04:04:47.767134 18161 net.cpp:91] Creating Layer reshape_frames
I0924 04:04:47.767137 18167 net.cpp:91] Creating Layer reshape_stage_indicator
I0924 04:04:47.767156 18167 net.cpp:425] reshape_stage_indicator <- stage_indicator
I0924 04:04:47.767171 18167 net.cpp:399] reshape_stage_indicator -> reshaped_stage_indicator
I0924 04:04:47.767171 18161 net.cpp:425] reshape_frames <- embedded_in_frames
I0924 04:04:47.767197 18161 net.cpp:399] reshape_frames -> embedded_input_frames
I0924 04:04:47.854115 18207 net.cpp:141] Setting up reshape_stage_indicator
I0924 04:04:47.854169 18207 net.cpp:148] Top shape: 1 1 1 (1)
I0924 04:04:47.854178 18207 net.cpp:156] Memory required for data: 20408
I0924 04:04:47.854189 18207 layer_factory.hpp:77] Creating layer embedding
I0924 04:04:47.854218 18207 net.cpp:91] Creating Layer embedding
I0924 04:04:47.854229 18207 net.cpp:425] embedding <- input_sentence
I0924 04:04:47.854245 18207 net.cpp:399] embedding -> embedded_input_sentence
I0924 04:04:47.908766 18167 net.cpp:141] Setting up reshape_stage_indicator
I0924 04:04:47.908854 18167 net.cpp:148] Top shape: 1 1 1 (1)
I0924 04:04:47.908867 18167 net.cpp:156] Memory required for data: 20408
I0924 04:04:47.908885 18167 layer_factory.hpp:77] Creating layer embedding
I0924 04:04:47.908922 18167 net.cpp:91] Creating Layer embedding
I0924 04:04:47.908937 18167 net.cpp:425] embedding <- input_sentence
I0924 04:04:47.908962 18167 net.cpp:399] embedding -> embedded_input_sentence
I0924 04:04:47.953384 18161 net.cpp:141] Setting up reshape_frames
I0924 04:04:47.953445 18161 net.cpp:148] Top shape: 1 1 500 (500)
I0924 04:04:47.953455 18161 net.cpp:156] Memory required for data: 20404
I0924 04:04:47.953467 18211 net.cpp:141] Setting up embedding
I0924 04:04:47.953517 18211 net.cpp:148] Top shape: 1 1 500 (500)
I0924 04:04:47.953527 18211 net.cpp:156] Memory required for data: 22408
I0924 04:04:47.953557 18211 layer_factory.hpp:77] Creating layer lstm1
I0924 04:04:47.953606 18211 net.cpp:91] Creating Layer lstm1
I0924 04:04:47.953624 18211 net.cpp:425] lstm1 <- embedded_input_frames
I0924 04:04:47.953639 18211 net.cpp:425] lstm1 <- cont_sentence_input_1_split_0
I0924 04:04:47.953656 18211 net.cpp:399] lstm1 -> lstm1
I0924 04:04:47.953691 18211 recurrent_layer.cpp:20] Initializing recurrent layer: assuming input batch contains 1 timesteps of 1 independent streams.
I0924 04:04:47.953727 18157 net.cpp:141] Setting up embed_encoder
I0924 04:04:47.953752 18157 net.cpp:148] Top shape: 1 500 (500)
I0924 04:04:47.953760 18157 net.cpp:156] Memory required for data: 18404
I0924 04:04:47.953788 18157 layer_factory.hpp:77] Creating layer reshape_frames
I0924 04:04:47.953817 18157 net.cpp:91] Creating Layer reshape_frames
I0924 04:04:47.953830 18157 net.cpp:425] reshape_frames <- embedded_in_frames
I0924 04:04:47.953845 18157 net.cpp:399] reshape_frames -> embedded_input_frames
I0924 04:04:47.953882 18181 net.cpp:141] Setting up embed_encoder
I0924 04:04:47.953905 18181 net.cpp:148] Top shape: 1 500 (500)
I0924 04:04:47.953915 18181 net.cpp:156] Memory required for data: 18404
I0924 04:04:47.953920 18199 net.cpp:141] Setting up embed_encoder
I0924 04:04:47.953944 18199 net.cpp:148] Top shape: 1 500 (500)
I0924 04:04:47.953953 18199 net.cpp:156] Memory required for data: 18404
I0924 04:04:47.953955 18157 net.cpp:141] Setting up reshape_frames
I0924 04:04:47.953943 18181 layer_factory.hpp:77] Creating layer reshape_frames
I0924 04:04:47.953976 18199 layer_factory.hpp:77] Creating layer reshape_frames
I0924 04:04:47.953994 18181 net.cpp:91] Creating Layer reshape_frames
I0924 04:04:47.954004 18199 net.cpp:91] Creating Layer reshape_frames
I0924 04:04:47.953979 18157 net.cpp:148] Top shape: 1 1 500 (500)
I0924 04:04:47.954016 18181 net.cpp:425] reshape_frames <- embedded_in_frames
I0924 04:04:47.954015 18199 net.cpp:425] reshape_frames <- embedded_in_frames
I0924 04:04:47.954028 18157 net.cpp:156] Memory required for data: 20404
I0924 04:04:47.954033 18181 net.cpp:399] reshape_frames -> embedded_input_frames
I0924 04:04:47.954038 18157 layer_factory.hpp:77] Creating layer reshape_stage_indicator
I0924 04:04:47.954043 18199 net.cpp:399] reshape_frames -> embedded_input_frames
I0924 04:04:47.954054 18157 net.cpp:91] Creating Layer reshape_stage_indicator
I0924 04:04:47.954063 18157 net.cpp:425] reshape_stage_indicator <- stage_indicator
I0924 04:04:47.954076 18157 net.cpp:399] reshape_stage_indicator -> reshaped_stage_indicator
I0924 04:04:47.954144 18181 net.cpp:141] Setting up reshape_frames
I0924 04:04:47.954164 18181 net.cpp:148] Top shape: 1 1 500 (500)
I0924 04:04:47.954172 18181 net.cpp:156] Memory required for data: 20404
I0924 04:04:47.954175 18199 net.cpp:141] Setting up reshape_frames
I0924 04:04:47.954182 18181 layer_factory.hpp:77] Creating layer reshape_stage_indicator
I0924 04:04:47.954191 18199 net.cpp:148] Top shape: 1 1 500 (500)
I0924 04:04:47.954200 18199 net.cpp:156] Memory required for data: 20404
I0924 04:04:47.954200 18181 net.cpp:91] Creating Layer reshape_stage_indicator
I0924 04:04:47.954206 18199 layer_factory.hpp:77] Creating layer reshape_stage_indicator
I0924 04:04:47.954211 18181 net.cpp:425] reshape_stage_indicator <- stage_indicator
I0924 04:04:47.954221 18199 net.cpp:91] Creating Layer reshape_stage_indicator
I0924 04:04:47.954231 18199 net.cpp:425] reshape_stage_indicator <- stage_indicator
I0924 04:04:47.954211 18157 net.cpp:141] Setting up reshape_stage_indicator
I0924 04:04:47.954247 18199 net.cpp:399] reshape_stage_indicator -> reshaped_stage_indicator
I0924 04:04:47.954259 18157 net.cpp:148] Top shape: 1 1 1 (1)
I0924 04:04:47.954267 18157 net.cpp:156] Memory required for data: 20408
I0924 04:04:47.954277 18157 layer_factory.hpp:77] Creating layer embedding
I0924 04:04:47.954293 18157 net.cpp:91] Creating Layer embedding
I0924 04:04:47.954300 18157 net.cpp:425] embedding <- input_sentence
I0924 04:04:47.954299 18199 net.cpp:141] Setting up reshape_stage_indicator
I0924 04:04:47.954321 18157 net.cpp:399] embedding -> embedded_input_sentence
I0924 04:04:47.954325 18199 net.cpp:148] Top shape: 1 1 1 (1)
I0924 04:04:47.954334 18199 net.cpp:156] Memory required for data: 20408
I0924 04:04:47.954341 18199 layer_factory.hpp:77] Creating layer embedding
I0924 04:04:47.954355 18199 net.cpp:91] Creating Layer embedding
I0924 04:04:47.954365 18199 net.cpp:425] embedding <- input_sentence
I0924 04:04:47.954376 18199 net.cpp:399] embedding -> embedded_input_sentence
I0924 04:04:47.954238 18181 net.cpp:399] reshape_stage_indicator -> reshaped_stage_indicator
I0924 04:04:47.954483 18211 net.cpp:49] Initializing net from parameters: 
layer {
  name: "lstm1_"
  type: "Input"
  top: "x"
  top: "cont"
  input_param {
    shape {
      dim: 1
      dim: 1
      dim: 500
    }
    shape {
      dim: 1
      dim: 1
    }
  }
}
layer {
  name: "lstm1_"
  type: "Input"
  top: "c_0"
  top: "h_0"
  input_param {
    shape {
      dim: 1
      dim: 1
      dim: 1000
    }
    shape {
      dim: 1
      dim: 1
      dim: 1000
    }
  }
}
layer {
  name: "lstm1_cont_slice"
  type: "Slice"
  bottom: "cont"
  top: "cont_1"
  slice_param {
    axis: 0
  }
}
layer {
  name: "lstm1_x_transform"
  type: "InnerProduct"
  bottom: "x"
  top: "W_xc_x"
  param {
    name: "W_xc"
  }
  param {
    name: "b_c"
  }
  propagate_down: true
  inner_product_param {
    num_output: 4000
    bias_term: true
    weight_filler {
      type: "uniform"
      min: -0.08
      max: 0.08
    }
    bias_filler {
      type: "constant"
      value: 0
    }
    axis: 2
  }
}
layer {
  name: "lstm1_W_xc_x_slice"
  type: "Slice"
  bottom: "W_xc_x"
  top: "W_xc_x_1"
  slice_param {
    axis: 0
  }
}
layer {
  name: "lstm1_h_conted_0"
  type: "Scale"
  bottom: "h_0"
  bottom: "cont_1"
  top: "h_conted_0"
  scale_param {
    axis: 0
  }
}
layer {
  name: "lstm1_transform_1"
  type: "InnerProduct"
  bottom: "h_conted_0"
  top: "W_hc_h_0"
  param {
    name: "W_hc"
  }
  inner_product_param {
    num_output: 4000
    bias_term: false
    weight_filler {
      type: "uniform"
      min: -0.08
      max: 0.08
    }
    axis: 2
  }
}
layer {
  name: "lstm1_gate_input_1"
  type: "Eltwise"
  bottom: "W_hc_h_0"
  bottom: "W_xc_x_1"
  top: "gate_input_1"
  eltwise_param {
    operation: SUM
  }
}
layer {
  name: "lstm1_unit_1"
  type: "LSTMUnit"
  bottom: "c_0"
  bottom: "gate_input_1"
  bottom: "cont_1"
  top: "c_1"
  top: "h_1"
}
layer {
  name: "lstm1_"
  type: "Split"
  bottom: "c_1"
  top: "c_T"
}
layer {
  name: "lstm1_h_concat"
  type: "Concat"
  bottom: "h_1"
  top: "h"
  concat_param {
    axis: 0
  }
}
layer {
  name: "h_pseudoloss"
  type: "Reduction"
  bottom: "h"
  top: "h_pseudoloss"
  loss_weight: 1
}
I0924 04:04:47.953469 18161 layer_factory.hpp:77] Creating layer reshape_stage_indicator
I0924 04:04:48.003902 18161 net.cpp:91] Creating Layer reshape_stage_indicator
I0924 04:04:48.003965 18161 net.cpp:425] reshape_stage_indicator <- stage_indicator
I0924 04:04:48.003976 18211 layer_factory.hpp:77] Creating layer lstm1_
I0924 04:04:48.003999 18161 net.cpp:399] reshape_stage_indicator -> reshaped_stage_indicator
I0924 04:04:48.004057 18211 net.cpp:91] Creating Layer lstm1_
I0924 04:04:48.004073 18211 net.cpp:399] lstm1_ -> x
I0924 04:04:48.004103 18211 net.cpp:399] lstm1_ -> cont
I0924 04:04:48.009623 18181 net.cpp:141] Setting up reshape_stage_indicator
I0924 04:04:48.009686 18181 net.cpp:148] Top shape: 1 1 1 (1)
I0924 04:04:48.009696 18181 net.cpp:156] Memory required for data: 20408
I0924 04:04:48.009688 18161 net.cpp:141] Setting up reshape_stage_indicator
I0924 04:04:48.009712 18181 layer_factory.hpp:77] Creating layer embedding
I0924 04:04:48.009727 18161 net.cpp:148] Top shape: 1 1 1 (1)
I0924 04:04:48.009733 18161 net.cpp:156] Memory required for data: 20408
I0924 04:04:48.009742 18161 layer_factory.hpp:77] Creating layer embedding
I0924 04:04:48.009745 18181 net.cpp:91] Creating Layer embedding
I0924 04:04:48.009759 18181 net.cpp:425] embedding <- input_sentence
I0924 04:04:48.009771 18161 net.cpp:91] Creating Layer embedding
I0924 04:04:48.009773 18181 net.cpp:399] embedding -> embedded_input_sentence
I0924 04:04:48.009779 18161 net.cpp:425] embedding <- input_sentence
I0924 04:04:48.009790 18161 net.cpp:399] embedding -> embedded_input_sentence
I0924 04:04:48.009788 18211 net.cpp:141] Setting up lstm1_
I0924 04:04:48.009809 18211 net.cpp:148] Top shape: 1 1 500 (500)
I0924 04:04:48.009815 18211 net.cpp:148] Top shape: 1 1 (1)
I0924 04:04:48.009820 18211 net.cpp:156] Memory required for data: 2004
I0924 04:04:48.009826 18211 layer_factory.hpp:77] Creating layer lstm1_
I0924 04:04:48.009853 18211 net.cpp:91] Creating Layer lstm1_
I0924 04:04:48.009861 18211 net.cpp:399] lstm1_ -> c_0
I0924 04:04:48.009876 18211 net.cpp:399] lstm1_ -> h_0
I0924 04:04:48.056521 18211 net.cpp:141] Setting up lstm1_
I0924 04:04:48.056576 18163 net.cpp:141] Setting up embedding
I0924 04:04:48.056589 18211 net.cpp:148] Top shape: 1 1 1000 (1000)
I0924 04:04:48.056623 18163 net.cpp:148] Top shape: 1 1 500 (500)
I0924 04:04:48.056632 18163 net.cpp:156] Memory required for data: 22408
I0924 04:04:48.056634 18211 net.cpp:148] Top shape: 1 1 1000 (1000)
I0924 04:04:48.056644 18211 net.cpp:156] Memory required for data: 10004
I0924 04:04:48.056649 18163 layer_factory.hpp:77] Creating layer lstm1
I0924 04:04:48.056658 18211 layer_factory.hpp:77] Creating layer lstm1_cont_slice
I0924 04:04:48.056674 18163 net.cpp:91] Creating Layer lstm1
I0924 04:04:48.056682 18163 net.cpp:425] lstm1 <- embedded_input_frames
I0924 04:04:48.056684 18211 net.cpp:91] Creating Layer lstm1_cont_slice
I0924 04:04:48.056692 18163 net.cpp:425] lstm1 <- cont_sentence_input_1_split_0
I0924 04:04:48.056696 18211 net.cpp:425] lstm1_cont_slice <- cont
I0924 04:04:48.056702 18163 net.cpp:399] lstm1 -> lstm1
I0924 04:04:48.056722 18163 recurrent_layer.cpp:20] Initializing recurrent layer: assuming input batch contains 1 timesteps of 1 independent streams.
I0924 04:04:48.056726 18211 net.cpp:399] lstm1_cont_slice -> cont_1
I0924 04:04:48.057013 18163 net.cpp:49] Initializing net from parameters: 
layer {
  name: "lstm1_"
  type: "Input"
  top: "x"
  top: "cont"
  input_param {
    shape {
      dim: 1
      dim: 1
      dim: 500
    }
    shape {
      dim: 1
      dim: 1
    }
  }
}
layer {
  name: "lstm1_"
  type: "Input"
  top: "c_0"
  top: "h_0"
  input_param {
    shape {
      dim: 1
      dim: 1
      dim: 1000
    }
    shape {
      dim: 1
      dim: 1
      dim: 1000
    }
  }
}
layer {
  name: "lstm1_cont_slice"
  type: "Slice"
  bottom: "cont"
  top: "cont_1"
  slice_param {
    axis: 0
  }
}
layer {
  name: "lstm1_x_transform"
  type: "InnerProduct"
  bottom: "x"
  top: "W_xc_x"
  param {
    name: "W_xc"
  }
  param {
    name: "b_c"
  }
  propagate_down: true
  inner_product_param {
    num_output: 4000
    bias_term: true
    weight_filler {
      type: "uniform"
      min: -0.08
      max: 0.08
    }
    bias_filler {
      type: "constant"
      value: 0
    }
    axis: 2
  }
}
layer {
  name: "lstm1_W_xc_x_slice"
  type: "Slice"
  bottom: "W_xc_x"
  top: "W_xc_x_1"
  slice_param {
    axis: 0
  }
}
layer {
  name: "lstm1_h_conted_0"
  type: "Scale"
  bottom: "h_0"
  bottom: "cont_1"
  top: "h_conted_0"
  scale_param {
    axis: 0
  }
}
layer {
  name: "lstm1_transform_1"
  type: "InnerProduct"
  bottom: "h_conted_0"
  top: "W_hc_h_0"
  param {
    name: "W_hc"
  }
  inner_product_param {
    num_output: 4000
    bias_term: false
    weight_filler {
      type: "uniform"
      min: -0.08
      max: 0.08
    }
    axis: 2
  }
}
layer {
  name: "lstm1_gate_input_1"
  type: "Eltwise"
  bottom: "W_hc_h_0"
  bottom: "W_xc_x_1"
  top: "gate_input_1"
  eltwise_param {
    operation: SUM
  }
}
layer {
  name: "lstm1_unit_1"
  type: "LSTMUnit"
  bottom: "c_0"
  bottom: "gate_input_1"
  bottom: "cont_1"
  top: "c_1"
  top: "h_1"
}
layer {
  name: "lstm1_"
  type: "Split"
  bottom: "c_1"
  top: "c_T"
}
layer {
  name: "lstm1_h_concat"
  type: "Concat"
  bottom: "h_1"
  top: "h"
  concat_param {
    axis: 0
  }
}
layer {
  name: "h_pseudoloss"
  type: "Reduction"
  bottom: "h"
  top: "h_pseudoloss"
  loss_weight: 1
}
I0924 04:04:48.057111 18163 layer_factory.hpp:77] Creating layer lstm1_
I0924 04:04:48.057124 18163 net.cpp:91] Creating Layer lstm1_
I0924 04:04:48.057131 18163 net.cpp:399] lstm1_ -> x
I0924 04:04:48.057142 18163 net.cpp:399] lstm1_ -> cont
I0924 04:04:48.058491 18211 net.cpp:141] Setting up lstm1_cont_slice
I0924 04:04:48.058509 18211 net.cpp:148] Top shape: 1 1 (1)
I0924 04:04:48.058514 18211 net.cpp:156] Memory required for data: 10008
I0924 04:04:48.058519 18211 layer_factory.hpp:77] Creating layer cont_1_lstm1_cont_slice_0_split
I0924 04:04:48.058529 18211 net.cpp:91] Creating Layer cont_1_lstm1_cont_slice_0_split
I0924 04:04:48.058534 18211 net.cpp:425] cont_1_lstm1_cont_slice_0_split <- cont_1
I0924 04:04:48.058542 18211 net.cpp:399] cont_1_lstm1_cont_slice_0_split -> cont_1_lstm1_cont_slice_0_split_0
I0924 04:04:48.058552 18211 net.cpp:399] cont_1_lstm1_cont_slice_0_split -> cont_1_lstm1_cont_slice_0_split_1
I0924 04:04:48.152861 18175 net.cpp:141] Setting up embedding
I0924 04:04:48.152910 18175 net.cpp:148] Top shape: 1 1 500 (500)
I0924 04:04:48.152917 18175 net.cpp:156] Memory required for data: 22408
I0924 04:04:48.152915 18163 net.cpp:141] Setting up lstm1_
I0924 04:04:48.152935 18163 net.cpp:148] Top shape: 1 1 500 (500)
I0924 04:04:48.152937 18175 layer_factory.hpp:77] Creating layer lstm1
I0924 04:04:48.152941 18163 net.cpp:148] Top shape: 1 1 (1)
I0924 04:04:48.152946 18163 net.cpp:156] Memory required for data: 2004
I0924 04:04:48.152952 18163 layer_factory.hpp:77] Creating layer lstm1_
I0924 04:04:48.152959 18175 net.cpp:91] Creating Layer lstm1
I0924 04:04:48.152967 18175 net.cpp:425] lstm1 <- embedded_input_frames
I0924 04:04:48.152976 18163 net.cpp:91] Creating Layer lstm1_
I0924 04:04:48.152976 18175 net.cpp:425] lstm1 <- cont_sentence_input_1_split_0
I0924 04:04:48.152993 18207 net.cpp:141] Setting up embedding
I0924 04:04:48.152998 18163 net.cpp:399] lstm1_ -> c_0
I0924 04:04:48.153015 18207 net.cpp:148] Top shape: 1 1 500 (500)
I0924 04:04:48.153013 18175 net.cpp:399] lstm1 -> lstm1
I0924 04:04:48.153030 18163 net.cpp:399] lstm1_ -> h_0
I0924 04:04:48.153024 18207 net.cpp:156] Memory required for data: 22408
I0924 04:04:48.153048 18207 layer_factory.hpp:77] Creating layer lstm1
I0924 04:04:48.153048 18175 recurrent_layer.cpp:20] Initializing recurrent layer: assuming input batch contains 1 timesteps of 1 independent streams.
I0924 04:04:48.153061 18207 net.cpp:91] Creating Layer lstm1
I0924 04:04:48.153049 18167 net.cpp:141] Setting up embedding
I0924 04:04:48.153072 18207 net.cpp:425] lstm1 <- embedded_input_frames
I0924 04:04:48.153089 18207 net.cpp:425] lstm1 <- cont_sentence_input_1_split_0
I0924 04:04:48.153089 18167 net.cpp:148] Top shape: 1 1 500 (500)
I0924 04:04:48.153100 18207 net.cpp:399] lstm1 -> lstm1
I0924 04:04:48.153100 18167 net.cpp:156] Memory required for data: 22408
I0924 04:04:48.153115 18207 recurrent_layer.cpp:20] Initializing recurrent layer: assuming input batch contains 1 timesteps of 1 independent streams.
I0924 04:04:48.153126 18167 layer_factory.hpp:77] Creating layer lstm1
I0924 04:04:48.153142 18167 net.cpp:91] Creating Layer lstm1
I0924 04:04:48.153153 18167 net.cpp:425] lstm1 <- embedded_input_frames
I0924 04:04:48.153189 18163 net.cpp:141] Setting up lstm1_
I0924 04:04:48.153190 18167 net.cpp:425] lstm1 <- cont_sentence_input_1_split_0
I0924 04:04:48.153206 18163 net.cpp:148] Top shape: 1 1 1000 (1000)
I0924 04:04:48.153213 18163 net.cpp:148] Top shape: 1 1 1000 (1000)
I0924 04:04:48.153216 18163 net.cpp:156] Memory required for data: 10004
I0924 04:04:48.153218 18167 net.cpp:399] lstm1 -> lstm1
I0924 04:04:48.153221 18163 layer_factory.hpp:77] Creating layer lstm1_cont_slice
I0924 04:04:48.153234 18163 net.cpp:91] Creating Layer lstm1_cont_slice
I0924 04:04:48.153235 18167 recurrent_layer.cpp:20] Initializing recurrent layer: assuming input batch contains 1 timesteps of 1 independent streams.
I0924 04:04:48.153239 18163 net.cpp:425] lstm1_cont_slice <- cont
I0924 04:04:48.153256 18163 net.cpp:399] lstm1_cont_slice -> cont_1
I0924 04:04:48.153287 18211 net.cpp:141] Setting up cont_1_lstm1_cont_slice_0_split
I0924 04:04:48.153331 18211 net.cpp:148] Top shape: 1 1 (1)
I0924 04:04:48.153344 18211 net.cpp:148] Top shape: 1 1 (1)
I0924 04:04:48.153353 18211 net.cpp:156] Memory required for data: 10016
I0924 04:04:48.153365 18211 layer_factory.hpp:77] Creating layer lstm1_x_transform
I0924 04:04:48.153380 18207 net.cpp:49] Initializing net from parameters: 
layer {
  name: "lstm1_"
  type: "Input"
  top: "x"
  top: "cont"
  input_param {
    shape {
      dim: 1
      dim: 1
      dim: 500
    }
    shape {
      dim: 1
      dim: 1
    }
  }
}
layer {
  name: "lstm1_"
  type: "Input"
  top: "c_0"
  top: "h_0"
  input_param {
    shape {
      dim: 1
      dim: 1
      dim: 1000
    }
    shape {
      dim: 1
      dim: 1
      dim: 1000
    }
  }
}
layer {
  name: "lstm1_cont_slice"
  type: "Slice"
  bottom: "cont"
  top: "cont_1"
  slice_param {
    axis: 0
  }
}
layer {
  name: "lstm1_x_transform"
  type: "InnerProduct"
  bottom: "x"
  top: "W_xc_x"
  param {
    name: "W_xc"
  }
  param {
    name: "b_c"
  }
  propagate_down: true
  inner_product_param {
    num_output: 4000
    bias_term: true
    weight_filler {
      type: "uniform"
      min: -0.08
      max: 0.08
    }
    bias_filler {
      type: "constant"
      value: 0
    }
    axis: 2
  }
}
layer {
  name: "lstm1_W_xc_x_slice"
  type: "Slice"
  bottom: "W_xc_x"
  top: "W_xc_x_1"
  slice_param {
    axis: 0
  }
}
layer {
  name: "lstm1_h_conted_0"
  type: "Scale"
  bottom: "h_0"
  bottom: "cont_1"
  top: "h_conted_0"
  scale_param {
    axis: 0
  }
}
layer {
  name: "lstm1_transform_1"
  type: "InnerProduct"
  bottom: "h_conted_0"
  top: "W_hc_h_0"
  param {
    name: "W_hc"
  }
  inner_product_param {
    num_output: 4000
    bias_term: false
    weight_filler {
      type: "uniform"
      min: -0.08
      max: 0.08
    }
    axis: 2
  }
}
layer {
  name: "lstm1_gate_input_1"
  type: "Eltwise"
  bottom: "W_hc_h_0"
  bottom: "W_xc_x_1"
  top: "gate_input_1"
  eltwise_param {
    operation: SUM
  }
}
layer {
  name: "lstm1_unit_1"
  type: "LSTMUnit"
  bottom: "c_0"
  bottom: "gate_input_1"
  bottom: "cont_1"
  top: "c_1"
  top: "h_1"
}
layer {
  name: "lstm1_"
  type: "Split"
  bottom: "c_1"
  top: "c_T"
}
layer {
  name: "lstm1_h_concat"
  type: "Concat"
  bottom: "h_1"
  top: "h"
  concat_param {
    axis: 0
  }
}
layer {
  name: "h_pseudoloss"
  type: "Reduction"
  bottom: "h"
  top: "h_pseudoloss"
  loss_weight: 1
}
I0924 04:04:48.153405 18211 net.cpp:91] Creating Layer lstm1_x_transform
I0924 04:04:48.153419 18211 net.cpp:425] lstm1_x_transform <- x
I0924 04:04:48.153439 18211 net.cpp:399] lstm1_x_transform -> W_xc_x
I0924 04:04:48.153456 18175 net.cpp:49] Initializing net from parameters: 
layer {
  name: "lstm1_"
  type: "Input"
  top: "x"
  top: "cont"
  input_param {
    shape {
      dim: 1
      dim: 1
      dim: 500
    }
    shape {
      dim: 1
      dim: 1
    }
  }
}
layer {
  name: "lstm1_"
  type: "Input"
  top: "c_0"
  top: "h_0"
  input_param {
    shape {
      dim: 1
      dim: 1
      dim: 1000
    }
    shape {
      dim: 1
      dim: 1
      dim: 1000
    }
  }
}
layer {
  name: "lstm1_cont_slice"
  type: "Slice"
  bottom: "cont"
  top: "cont_1"
  slice_param {
    axis: 0
  }
}
layer {
  name: "lstm1_x_transform"
  type: "InnerProduct"
  bottom: "x"
  top: "W_xc_x"
  param {
    name: "W_xc"
  }
  param {
    name: "b_c"
  }
  propagate_down: true
  inner_product_param {
    num_output: 4000
    bias_term: true
    weight_filler {
      type: "uniform"
      min: -0.08
      max: 0.08
    }
    bias_filler {
      type: "constant"
      value: 0
    }
    axis: 2
  }
}
layer {
  name: "lstm1_W_xc_x_slice"
  type: "Slice"
  bottom: "W_xc_x"
  top: "W_xc_x_1"
  slice_param {
    axis: 0
  }
}
layer {
  name: "lstm1_h_conted_0"
  type: "Scale"
  bottom: "h_0"
  bottom: "cont_1"
  top: "h_conted_0"
  scale_param {
    axis: 0
  }
}
layer {
  name: "lstm1_transform_1"
  type: "InnerProduct"
  bottom: "h_conted_0"
  top: "W_hc_h_0"
  param {
    name: "W_hc"
  }
  inner_product_param {
    num_output: 4000
    bias_term: false
    weight_filler {
      type: "uniform"
      min: -0.08
      max: 0.08
    }
    axis: 2
  }
}
layer {
  name: "lstm1_gate_input_1"
  type: "Eltwise"
  bottom: "W_hc_h_0"
  bottom: "W_xc_x_1"
  top: "gate_input_1"
  eltwise_param {
    operation: SUM
  }
}
layer {
  name: "lstm1_unit_1"
  type: "LSTMUnit"
  bottom: "c_0"
  bottom: "gate_input_1"
  bottom: "cont_1"
  top: "c_1"
  top: "h_1"
}
layer {
  name: "lstm1_"
  type: "Split"
  bottom: "c_1"
  top: "c_T"
}
layer {
  name: "lstm1_h_concat"
  type: "Concat"
  bottom: "h_1"
  top: "h"
  concat_param {
    axis: 0
  }
}
layer {
  name: "h_pseudoloss"
  type: "Reduction"
  bottom: "h"
  top: "h_pseudoloss"
  loss_weight: 1
}
I0924 04:04:48.153504 18207 layer_factory.hpp:77] Creating layer lstm1_
I0924 04:04:48.153517 18207 net.cpp:91] Creating Layer lstm1_
I0924 04:04:48.153524 18207 net.cpp:399] lstm1_ -> x
I0924 04:04:48.153535 18207 net.cpp:399] lstm1_ -> cont
I0924 04:04:48.153606 18175 layer_factory.hpp:77] Creating layer lstm1_
I0924 04:04:48.153626 18175 net.cpp:91] Creating Layer lstm1_
I0924 04:04:48.153632 18167 net.cpp:49] Initializing net from parameters: 
layer {
  name: "lstm1_"
  type: "Input"
  top: "x"
  top: "cont"
  input_param {
    shape {
      dim: 1
      dim: 1
      dim: 500
    }
    shape {
      dim: 1
      dim: 1
    }
  }
}
layer {
  name: "lstm1_"
  type: "Input"
  top: "c_0"
  top: "h_0"
  input_param {
    shape {
      dim: 1
      dim: 1
      dim: 1000
    }
    shape {
      dim: 1
      dim: 1
      dim: 1000
    }
  }
}
layer {
  name: "lstm1_cont_slice"
  type: "Slice"
  bottom: "cont"
  top: "cont_1"
  slice_param {
    axis: 0
  }
}
layer {
  name: "lstm1_x_transform"
  type: "InnerProduct"
  bottom: "x"
  top: "W_xc_x"
  param {
    name: "W_xc"
  }
  param {
    name: "b_c"
  }
  propagate_down: true
  inner_product_param {
    num_output: 4000
    bias_term: true
    weight_filler {
      type: "uniform"
      min: -0.08
      max: 0.08
    }
    bias_filler {
      type: "constant"
      value: 0
    }
    axis: 2
  }
}
layer {
  name: "lstm1_W_xc_x_slice"
  type: "Slice"
  bottom: "W_xc_x"
  top: "W_xc_x_1"
  slice_param {
    axis: 0
  }
}
layer {
  name: "lstm1_h_conted_0"
  type: "Scale"
  bottom: "h_0"
  bottom: "cont_1"
  top: "h_conted_0"
  scale_param {
    axis: 0
  }
}
layer {
  name: "lstm1_transform_1"
  type: "InnerProduct"
  bottom: "h_conted_0"
  top: "W_hc_h_0"
  param {
    name: "W_hc"
  }
  inner_product_param {
    num_output: 4000
    bias_term: false
    weight_filler {
      type: "uniform"
      min: -0.08
      max: 0.08
    }
    axis: 2
  }
}
layer {
  name: "lstm1_gate_input_1"
  type: "Eltwise"
  bottom: "W_hc_h_0"
  bottom: "W_xc_x_1"
  top: "gate_input_1"
  eltwise_param {
    operation: SUM
  }
}
layer {
  name: "lstm1_unit_1"
  type: "LSTMUnit"
  bottom: "c_0"
  bottom: "gate_input_1"
  bottom: "cont_1"
  top: "c_1"
  top: "h_1"
}
layer {
  name: "lstm1_"
  type: "Split"
  bottom: "c_1"
  top: "c_T"
}
layer {
  name: "lstm1_h_concat"
  type: "Concat"
  bottom: "h_1"
  top: "h"
  concat_param {
    axis: 0
  }
}
layer {
  name: "h_pseudoloss"
  type: "Reduction"
  bottom: "h"
  top: "h_pseudoloss"
  loss_weight: 1
}
I0924 04:04:48.153640 18175 net.cpp:399] lstm1_ -> x
I0924 04:04:48.153656 18175 net.cpp:399] lstm1_ -> cont
I0924 04:04:48.153734 18167 layer_factory.hpp:77] Creating layer lstm1_
I0924 04:04:48.153753 18167 net.cpp:91] Creating Layer lstm1_
I0924 04:04:48.153760 18167 net.cpp:399] lstm1_ -> x
I0924 04:04:48.153771 18167 net.cpp:399] lstm1_ -> cont
I0924 04:04:48.162931 18175 net.cpp:141] Setting up lstm1_
I0924 04:04:48.162986 18175 net.cpp:148] Top shape: 1 1 500 (500)
I0924 04:04:48.162997 18175 net.cpp:148] Top shape: 1 1 (1)
I0924 04:04:48.163003 18175 net.cpp:156] Memory required for data: 2004
I0924 04:04:48.163015 18175 layer_factory.hpp:77] Creating layer lstm1_
I0924 04:04:48.163054 18175 net.cpp:91] Creating Layer lstm1_
I0924 04:04:48.163067 18175 net.cpp:399] lstm1_ -> c_0
I0924 04:04:48.163072 18163 net.cpp:141] Setting up lstm1_cont_slice
I0924 04:04:48.163097 18175 net.cpp:399] lstm1_ -> h_0
I0924 04:04:48.163099 18163 net.cpp:148] Top shape: 1 1 (1)
I0924 04:04:48.163132 18163 net.cpp:156] Memory required for data: 10008
I0924 04:04:48.163143 18163 layer_factory.hpp:77] Creating layer cont_1_lstm1_cont_slice_0_split
I0924 04:04:48.163156 18163 net.cpp:91] Creating Layer cont_1_lstm1_cont_slice_0_split
I0924 04:04:48.163161 18163 net.cpp:425] cont_1_lstm1_cont_slice_0_split <- cont_1
I0924 04:04:48.163175 18163 net.cpp:399] cont_1_lstm1_cont_slice_0_split -> cont_1_lstm1_cont_slice_0_split_0
I0924 04:04:48.163187 18163 net.cpp:399] cont_1_lstm1_cont_slice_0_split -> cont_1_lstm1_cont_slice_0_split_1
I0924 04:04:48.163185 18175 net.cpp:141] Setting up lstm1_
I0924 04:04:48.163219 18175 net.cpp:148] Top shape: 1 1 1000 (1000)
I0924 04:04:48.163230 18175 net.cpp:148] Top shape: 1 1 1000 (1000)
I0924 04:04:48.163215 18167 net.cpp:141] Setting up lstm1_
I0924 04:04:48.163239 18175 net.cpp:156] Memory required for data: 10004
I0924 04:04:48.163247 18167 net.cpp:148] Top shape: 1 1 500 (500)
I0924 04:04:48.163247 18175 layer_factory.hpp:77] Creating layer lstm1_cont_slice
I0924 04:04:48.163264 18167 net.cpp:148] Top shape: 1 1 (1)
I0924 04:04:48.163271 18167 net.cpp:156] Memory required for data: 2004
I0924 04:04:48.163275 18175 net.cpp:91] Creating Layer lstm1_cont_slice
I0924 04:04:48.163278 18163 net.cpp:141] Setting up cont_1_lstm1_cont_slice_0_split
I0924 04:04:48.163285 18175 net.cpp:425] lstm1_cont_slice <- cont
I0924 04:04:48.163281 18167 layer_factory.hpp:77] Creating layer lstm1_
I0924 04:04:48.163298 18175 net.cpp:399] lstm1_cont_slice -> cont_1
I0924 04:04:48.163300 18163 net.cpp:148] Top shape: 1 1 (1)
I0924 04:04:48.163313 18167 net.cpp:91] Creating Layer lstm1_
I0924 04:04:48.163321 18163 net.cpp:148] Top shape: 1 1 (1)
I0924 04:04:48.163326 18167 net.cpp:399] lstm1_ -> c_0
I0924 04:04:48.163329 18163 net.cpp:156] Memory required for data: 10016
I0924 04:04:48.163337 18163 layer_factory.hpp:77] Creating layer lstm1_x_transform
I0924 04:04:48.163347 18167 net.cpp:399] lstm1_ -> h_0
I0924 04:04:48.163360 18163 net.cpp:91] Creating Layer lstm1_x_transform
I0924 04:04:48.163368 18163 net.cpp:425] lstm1_x_transform <- x
I0924 04:04:48.163383 18163 net.cpp:399] lstm1_x_transform -> W_xc_x
I0924 04:04:48.163465 18207 net.cpp:141] Setting up lstm1_
I0924 04:04:48.163502 18207 net.cpp:148] Top shape: 1 1 500 (500)
I0924 04:04:48.163521 18167 net.cpp:141] Setting up lstm1_
I0924 04:04:48.163527 18207 net.cpp:148] Top shape: 1 1 (1)
I0924 04:04:48.163532 18167 net.cpp:148] Top shape: 1 1 1000 (1000)
I0924 04:04:48.163550 18207 net.cpp:156] Memory required for data: 2004
I0924 04:04:48.163555 18167 net.cpp:148] Top shape: 1 1 1000 (1000)
I0924 04:04:48.163564 18167 net.cpp:156] Memory required for data: 10004
I0924 04:04:48.163569 18207 layer_factory.hpp:77] Creating layer lstm1_
I0924 04:04:48.163570 18167 layer_factory.hpp:77] Creating layer lstm1_cont_slice
I0924 04:04:48.163600 18167 net.cpp:91] Creating Layer lstm1_cont_slice
I0924 04:04:48.163606 18167 net.cpp:425] lstm1_cont_slice <- cont
I0924 04:04:48.163636 18207 net.cpp:91] Creating Layer lstm1_
I0924 04:04:48.163678 18167 net.cpp:399] lstm1_cont_slice -> cont_1
I0924 04:04:48.163698 18207 net.cpp:399] lstm1_ -> c_0
I0924 04:04:48.163738 18207 net.cpp:399] lstm1_ -> h_0
I0924 04:04:48.168119 18175 net.cpp:141] Setting up lstm1_cont_slice
I0924 04:04:48.168120 18167 net.cpp:141] Setting up lstm1_cont_slice
I0924 04:04:48.168179 18175 net.cpp:148] Top shape: 1 1 (1)
I0924 04:04:48.168179 18167 net.cpp:148] Top shape: 1 1 (1)
I0924 04:04:48.168191 18175 net.cpp:156] Memory required for data: 10008
I0924 04:04:48.168195 18167 net.cpp:156] Memory required for data: 10008
I0924 04:04:48.168205 18175 layer_factory.hpp:77] Creating layer cont_1_lstm1_cont_slice_0_split
I0924 04:04:48.168205 18167 layer_factory.hpp:77] Creating layer cont_1_lstm1_cont_slice_0_split
I0924 04:04:48.168210 18207 net.cpp:141] Setting up lstm1_
I0924 04:04:48.168236 18167 net.cpp:91] Creating Layer cont_1_lstm1_cont_slice_0_split
I0924 04:04:48.168232 18175 net.cpp:91] Creating Layer cont_1_lstm1_cont_slice_0_split
I0924 04:04:48.168249 18167 net.cpp:425] cont_1_lstm1_cont_slice_0_split <- cont_1
I0924 04:04:48.168252 18175 net.cpp:425] cont_1_lstm1_cont_slice_0_split <- cont_1
I0924 04:04:48.168256 18207 net.cpp:148] Top shape: 1 1 1000 (1000)
I0924 04:04:48.168265 18167 net.cpp:399] cont_1_lstm1_cont_slice_0_split -> cont_1_lstm1_cont_slice_0_split_0
I0924 04:04:48.168267 18207 net.cpp:148] Top shape: 1 1 1000 (1000)
I0924 04:04:48.168273 18175 net.cpp:399] cont_1_lstm1_cont_slice_0_split -> cont_1_lstm1_cont_slice_0_split_0
I0924 04:04:48.168285 18207 net.cpp:156] Memory required for data: 10004
I0924 04:04:48.168290 18167 net.cpp:399] cont_1_lstm1_cont_slice_0_split -> cont_1_lstm1_cont_slice_0_split_1
I0924 04:04:48.168297 18207 layer_factory.hpp:77] Creating layer lstm1_cont_slice
I0924 04:04:48.168298 18175 net.cpp:399] cont_1_lstm1_cont_slice_0_split -> cont_1_lstm1_cont_slice_0_split_1
I0924 04:04:48.168313 18207 net.cpp:91] Creating Layer lstm1_cont_slice
I0924 04:04:48.168321 18207 net.cpp:425] lstm1_cont_slice <- cont
I0924 04:04:48.168334 18207 net.cpp:399] lstm1_cont_slice -> cont_1
I0924 04:04:48.207931 18207 net.cpp:141] Setting up lstm1_cont_slice
I0924 04:04:48.207991 18207 net.cpp:148] Top shape: 1 1 (1)
I0924 04:04:48.208003 18207 net.cpp:156] Memory required for data: 10008
I0924 04:04:48.208014 18207 layer_factory.hpp:77] Creating layer cont_1_lstm1_cont_slice_0_split
I0924 04:04:48.208034 18207 net.cpp:91] Creating Layer cont_1_lstm1_cont_slice_0_split
I0924 04:04:48.208051 18207 net.cpp:425] cont_1_lstm1_cont_slice_0_split <- cont_1
I0924 04:04:48.208068 18207 net.cpp:399] cont_1_lstm1_cont_slice_0_split -> cont_1_lstm1_cont_slice_0_split_0
I0924 04:04:48.208087 18207 net.cpp:399] cont_1_lstm1_cont_slice_0_split -> cont_1_lstm1_cont_slice_0_split_1
I0924 04:04:48.210386 18167 net.cpp:141] Setting up cont_1_lstm1_cont_slice_0_split
I0924 04:04:48.210439 18167 net.cpp:148] Top shape: 1 1 (1)
I0924 04:04:48.210450 18167 net.cpp:148] Top shape: 1 1 (1)
I0924 04:04:48.210458 18167 net.cpp:156] Memory required for data: 10016
I0924 04:04:48.210469 18167 layer_factory.hpp:77] Creating layer lstm1_x_transform
I0924 04:04:48.210499 18167 net.cpp:91] Creating Layer lstm1_x_transform
I0924 04:04:48.210510 18167 net.cpp:425] lstm1_x_transform <- x
I0924 04:04:48.210526 18167 net.cpp:399] lstm1_x_transform -> W_xc_x
I0924 04:04:48.210664 18175 net.cpp:141] Setting up cont_1_lstm1_cont_slice_0_split
I0924 04:04:48.210685 18175 net.cpp:148] Top shape: 1 1 (1)
I0924 04:04:48.210690 18175 net.cpp:148] Top shape: 1 1 (1)
I0924 04:04:48.210695 18175 net.cpp:156] Memory required for data: 10016
I0924 04:04:48.210700 18175 layer_factory.hpp:77] Creating layer lstm1_x_transform
I0924 04:04:48.210716 18175 net.cpp:91] Creating Layer lstm1_x_transform
I0924 04:04:48.210722 18175 net.cpp:425] lstm1_x_transform <- x
I0924 04:04:48.210721 18207 net.cpp:141] Setting up cont_1_lstm1_cont_slice_0_split
I0924 04:04:48.210736 18175 net.cpp:399] lstm1_x_transform -> W_xc_x
I0924 04:04:48.210744 18207 net.cpp:148] Top shape: 1 1 (1)
I0924 04:04:48.210755 18207 net.cpp:148] Top shape: 1 1 (1)
I0924 04:04:48.210763 18207 net.cpp:156] Memory required for data: 10016
I0924 04:04:48.210773 18207 layer_factory.hpp:77] Creating layer lstm1_x_transform
I0924 04:04:48.210791 18207 net.cpp:91] Creating Layer lstm1_x_transform
I0924 04:04:48.210801 18207 net.cpp:425] lstm1_x_transform <- x
I0924 04:04:48.210839 18207 net.cpp:399] lstm1_x_transform -> W_xc_x
I0924 04:04:48.221264 18211 net.cpp:141] Setting up lstm1_x_transform
I0924 04:04:48.221323 18211 net.cpp:148] Top shape: 1 1 4000 (4000)
I0924 04:04:48.221331 18211 net.cpp:156] Memory required for data: 26016
I0924 04:04:48.221357 18211 layer_factory.hpp:77] Creating layer lstm1_W_xc_x_slice
I0924 04:04:48.221379 18211 net.cpp:91] Creating Layer lstm1_W_xc_x_slice
I0924 04:04:48.221390 18211 net.cpp:425] lstm1_W_xc_x_slice <- W_xc_x
I0924 04:04:48.221406 18211 net.cpp:399] lstm1_W_xc_x_slice -> W_xc_x_1
I0924 04:04:48.221468 18211 net.cpp:141] Setting up lstm1_W_xc_x_slice
I0924 04:04:48.221485 18211 net.cpp:148] Top shape: 1 1 4000 (4000)
I0924 04:04:48.221492 18211 net.cpp:156] Memory required for data: 42016
I0924 04:04:48.221499 18211 layer_factory.hpp:77] Creating layer lstm1_h_conted_0
I0924 04:04:48.221513 18211 net.cpp:91] Creating Layer lstm1_h_conted_0
I0924 04:04:48.221523 18211 net.cpp:425] lstm1_h_conted_0 <- h_0
I0924 04:04:48.221534 18211 net.cpp:425] lstm1_h_conted_0 <- cont_1_lstm1_cont_slice_0_split_0
I0924 04:04:48.221552 18211 net.cpp:399] lstm1_h_conted_0 -> h_conted_0
I0924 04:04:48.221711 18211 net.cpp:141] Setting up lstm1_h_conted_0
I0924 04:04:48.221729 18211 net.cpp:148] Top shape: 1 1 1000 (1000)
I0924 04:04:48.221736 18211 net.cpp:156] Memory required for data: 46016
I0924 04:04:48.221745 18211 layer_factory.hpp:77] Creating layer lstm1_transform_1
I0924 04:04:48.221767 18211 net.cpp:91] Creating Layer lstm1_transform_1
I0924 04:04:48.221776 18211 net.cpp:425] lstm1_transform_1 <- h_conted_0
I0924 04:04:48.221791 18211 net.cpp:399] lstm1_transform_1 -> W_hc_h_0
I0924 04:04:48.229774 18157 net.cpp:141] Setting up embedding
I0924 04:04:48.229831 18157 net.cpp:148] Top shape: 1 1 500 (500)
I0924 04:04:48.229837 18157 net.cpp:156] Memory required for data: 22408
I0924 04:04:48.229857 18157 layer_factory.hpp:77] Creating layer lstm1
I0924 04:04:48.229877 18157 net.cpp:91] Creating Layer lstm1
I0924 04:04:48.229885 18157 net.cpp:425] lstm1 <- embedded_input_frames
I0924 04:04:48.229894 18157 net.cpp:425] lstm1 <- cont_sentence_input_1_split_0
I0924 04:04:48.229904 18157 net.cpp:399] lstm1 -> lstm1
I0924 04:04:48.229921 18157 recurrent_layer.cpp:20] Initializing recurrent layer: assuming input batch contains 1 timesteps of 1 independent streams.
I0924 04:04:48.229938 18163 net.cpp:141] Setting up lstm1_x_transform
I0924 04:04:48.229979 18163 net.cpp:148] Top shape: 1 1 4000 (4000)
I0924 04:04:48.229984 18163 net.cpp:156] Memory required for data: 26016
I0924 04:04:48.230007 18163 layer_factory.hpp:77] Creating layer lstm1_W_xc_x_slice
I0924 04:04:48.230024 18163 net.cpp:91] Creating Layer lstm1_W_xc_x_slice
I0924 04:04:48.230032 18163 net.cpp:425] lstm1_W_xc_x_slice <- W_xc_x
I0924 04:04:48.230067 18163 net.cpp:399] lstm1_W_xc_x_slice -> W_xc_x_1
I0924 04:04:48.230209 18157 net.cpp:49] Initializing net from parameters: 
layer {
  name: "lstm1_"
  type: "Input"
  top: "x"
  top: "cont"
  input_param {
    shape {
      dim: 1
      dim: 1
      dim: 500
    }
    shape {
      dim: 1
      dim: 1
    }
  }
}
layer {
  name: "lstm1_"
  type: "Input"
  top: "c_0"
  top: "h_0"
  input_param {
    shape {
      dim: 1
      dim: 1
      dim: 1000
    }
    shape {
      dim: 1
      dim: 1
      dim: 1000
    }
  }
}
layer {
  name: "lstm1_cont_slice"
  type: "Slice"
  bottom: "cont"
  top: "cont_1"
  slice_param {
    axis: 0
  }
}
layer {
  name: "lstm1_x_transform"
  type: "InnerProduct"
  bottom: "x"
  top: "W_xc_x"
  param {
    name: "W_xc"
  }
  param {
    name: "b_c"
  }
  propagate_down: true
  inner_product_param {
    num_output: 4000
    bias_term: true
    weight_filler {
      type: "uniform"
      min: -0.08
      max: 0.08
    }
    bias_filler {
      type: "constant"
      value: 0
    }
    axis: 2
  }
}
layer {
  name: "lstm1_W_xc_x_slice"
  type: "Slice"
  bottom: "W_xc_x"
  top: "W_xc_x_1"
  slice_param {
    axis: 0
  }
}
layer {
  name: "lstm1_h_conted_0"
  type: "Scale"
  bottom: "h_0"
  bottom: "cont_1"
  top: "h_conted_0"
  scale_param {
    axis: 0
  }
}
layer {
  name: "lstm1_transform_1"
  type: "InnerProduct"
  bottom: "h_conted_0"
  top: "W_hc_h_0"
  param {
    name: "W_hc"
  }
  inner_product_param {
    num_output: 4000
    bias_term: false
    weight_filler {
      type: "uniform"
      min: -0.08
      max: 0.08
    }
    axis: 2
  }
}
layer {
  name: "lstm1_gate_input_1"
  type: "Eltwise"
  bottom: "W_hc_h_0"
  bottom: "W_xc_x_1"
  top: "gate_input_1"
  eltwise_param {
    operation: SUM
  }
}
layer {
  name: "lstm1_unit_1"
  type: "LSTMUnit"
  bottom: "c_0"
  bottom: "gate_input_1"
  bottom: "cont_1"
  top: "c_1"
  top: "h_1"
}
layer {
  name: "lstm1_"
  type: "Split"
  bottom: "c_1"
  top: "c_T"
}
layer {
  name: "lstm1_h_concat"
  type: "Concat"
  bottom: "h_1"
  top: "h"
  concat_param {
    axis: 0
  }
}
layer {
  name: "h_pseudoloss"
  type: "Reduction"
  bottom: "h"
  top: "h_pseudoloss"
  loss_weight: 1
}
I0924 04:04:48.230298 18157 layer_factory.hpp:77] Creating layer lstm1_
I0924 04:04:48.230310 18157 net.cpp:91] Creating Layer lstm1_
I0924 04:04:48.230316 18157 net.cpp:399] lstm1_ -> x
I0924 04:04:48.230329 18157 net.cpp:399] lstm1_ -> cont
I0924 04:04:48.239502 18163 net.cpp:141] Setting up lstm1_W_xc_x_slice
I0924 04:04:48.239557 18163 net.cpp:148] Top shape: 1 1 4000 (4000)
I0924 04:04:48.239567 18163 net.cpp:156] Memory required for data: 42016
I0924 04:04:48.239580 18163 layer_factory.hpp:77] Creating layer lstm1_h_conted_0
I0924 04:04:48.239608 18163 net.cpp:91] Creating Layer lstm1_h_conted_0
I0924 04:04:48.239626 18163 net.cpp:425] lstm1_h_conted_0 <- h_0
I0924 04:04:48.239630 18157 net.cpp:141] Setting up lstm1_
I0924 04:04:48.239641 18163 net.cpp:425] lstm1_h_conted_0 <- cont_1_lstm1_cont_slice_0_split_0
I0924 04:04:48.239653 18157 net.cpp:148] Top shape: 1 1 500 (500)
I0924 04:04:48.239661 18157 net.cpp:148] Top shape: 1 1 (1)
I0924 04:04:48.239665 18157 net.cpp:156] Memory required for data: 2004
I0924 04:04:48.239667 18163 net.cpp:399] lstm1_h_conted_0 -> h_conted_0
I0924 04:04:48.239671 18157 layer_factory.hpp:77] Creating layer lstm1_
I0924 04:04:48.239706 18157 net.cpp:91] Creating Layer lstm1_
I0924 04:04:48.239720 18157 net.cpp:399] lstm1_ -> c_0
I0924 04:04:48.239737 18157 net.cpp:399] lstm1_ -> h_0
I0924 04:04:48.239878 18157 net.cpp:141] Setting up lstm1_
I0924 04:04:48.239891 18157 net.cpp:148] Top shape: 1 1 1000 (1000)
I0924 04:04:48.239897 18157 net.cpp:148] Top shape: 1 1 1000 (1000)
I0924 04:04:48.239900 18157 net.cpp:156] Memory required for data: 10004
I0924 04:04:48.239905 18157 layer_factory.hpp:77] Creating layer lstm1_cont_slice
I0924 04:04:48.239917 18157 net.cpp:91] Creating Layer lstm1_cont_slice
I0924 04:04:48.239922 18157 net.cpp:425] lstm1_cont_slice <- cont
I0924 04:04:48.239938 18157 net.cpp:399] lstm1_cont_slice -> cont_1
I0924 04:04:48.239936 18163 net.cpp:141] Setting up lstm1_h_conted_0
I0924 04:04:48.239964 18163 net.cpp:148] Top shape: 1 1 1000 (1000)
I0924 04:04:48.239974 18163 net.cpp:156] Memory required for data: 46016
I0924 04:04:48.239981 18163 layer_factory.hpp:77] Creating layer lstm1_transform_1
I0924 04:04:48.240000 18163 net.cpp:91] Creating Layer lstm1_transform_1
I0924 04:04:48.240010 18163 net.cpp:425] lstm1_transform_1 <- h_conted_0
I0924 04:04:48.240027 18163 net.cpp:399] lstm1_transform_1 -> W_hc_h_0
I0924 04:04:48.240077 18167 net.cpp:141] Setting up lstm1_x_transform
I0924 04:04:48.240114 18167 net.cpp:148] Top shape: 1 1 4000 (4000)
I0924 04:04:48.240120 18167 net.cpp:156] Memory required for data: 26016
I0924 04:04:48.240139 18167 layer_factory.hpp:77] Creating layer lstm1_W_xc_x_slice
I0924 04:04:48.240154 18167 net.cpp:91] Creating Layer lstm1_W_xc_x_slice
I0924 04:04:48.240161 18167 net.cpp:425] lstm1_W_xc_x_slice <- W_xc_x
I0924 04:04:48.240166 18157 net.cpp:141] Setting up lstm1_cont_slice
I0924 04:04:48.240173 18167 net.cpp:399] lstm1_W_xc_x_slice -> W_xc_x_1
I0924 04:04:48.240195 18157 net.cpp:148] Top shape: 1 1 (1)
I0924 04:04:48.240201 18157 net.cpp:156] Memory required for data: 10008
I0924 04:04:48.240207 18157 layer_factory.hpp:77] Creating layer cont_1_lstm1_cont_slice_0_split
I0924 04:04:48.240221 18157 net.cpp:91] Creating Layer cont_1_lstm1_cont_slice_0_split
I0924 04:04:48.240226 18157 net.cpp:425] cont_1_lstm1_cont_slice_0_split <- cont_1
I0924 04:04:48.240232 18157 net.cpp:399] cont_1_lstm1_cont_slice_0_split -> cont_1_lstm1_cont_slice_0_split_0
I0924 04:04:48.240283 18157 net.cpp:399] cont_1_lstm1_cont_slice_0_split -> cont_1_lstm1_cont_slice_0_split_1
I0924 04:04:48.263388 18167 net.cpp:141] Setting up lstm1_W_xc_x_slice
I0924 04:04:48.263444 18167 net.cpp:148] Top shape: 1 1 4000 (4000)
I0924 04:04:48.263453 18167 net.cpp:156] Memory required for data: 42016
I0924 04:04:48.263468 18167 layer_factory.hpp:77] Creating layer lstm1_h_conted_0
I0924 04:04:48.263491 18167 net.cpp:91] Creating Layer lstm1_h_conted_0
I0924 04:04:48.263502 18167 net.cpp:425] lstm1_h_conted_0 <- h_0
I0924 04:04:48.263485 18157 net.cpp:141] Setting up cont_1_lstm1_cont_slice_0_split
I0924 04:04:48.263516 18167 net.cpp:425] lstm1_h_conted_0 <- cont_1_lstm1_cont_slice_0_split_0
I0924 04:04:48.263525 18157 net.cpp:148] Top shape: 1 1 (1)
I0924 04:04:48.263536 18157 net.cpp:148] Top shape: 1 1 (1)
I0924 04:04:48.263536 18167 net.cpp:399] lstm1_h_conted_0 -> h_conted_0
I0924 04:04:48.263579 18157 net.cpp:156] Memory required for data: 10016
I0924 04:04:48.263591 18157 layer_factory.hpp:77] Creating layer lstm1_x_transform
I0924 04:04:48.263612 18157 net.cpp:91] Creating Layer lstm1_x_transform
I0924 04:04:48.263625 18157 net.cpp:425] lstm1_x_transform <- x
I0924 04:04:48.263645 18157 net.cpp:399] lstm1_x_transform -> W_xc_x
I0924 04:04:48.263636 18199 net.cpp:141] Setting up embedding
I0924 04:04:48.263674 18199 net.cpp:148] Top shape: 1 1 500 (500)
I0924 04:04:48.263679 18199 net.cpp:156] Memory required for data: 22408
I0924 04:04:48.263695 18199 layer_factory.hpp:77] Creating layer lstm1
I0924 04:04:48.263712 18199 net.cpp:91] Creating Layer lstm1
I0924 04:04:48.263720 18199 net.cpp:425] lstm1 <- embedded_input_frames
I0924 04:04:48.263727 18199 net.cpp:425] lstm1 <- cont_sentence_input_1_split_0
I0924 04:04:48.263736 18199 net.cpp:399] lstm1 -> lstm1
I0924 04:04:48.263751 18199 recurrent_layer.cpp:20] Initializing recurrent layer: assuming input batch contains 1 timesteps of 1 independent streams.
I0924 04:04:48.264035 18199 net.cpp:49] Initializing net from parameters: 
layer {
  name: "lstm1_"
  type: "Input"
  top: "x"
  top: "cont"
  input_param {
    shape {
      dim: 1
      dim: 1
      dim: 500
    }
    shape {
      dim: 1
      dim: 1
    }
  }
}
layer {
  name: "lstm1_"
  type: "Input"
  top: "c_0"
  top: "h_0"
  input_param {
    shape {
      dim: 1
      dim: 1
      dim: 1000
    }
    shape {
      dim: 1
      dim: 1
      dim: 1000
    }
  }
}
layer {
  name: "lstm1_cont_slice"
  type: "Slice"
  bottom: "cont"
  top: "cont_1"
  slice_param {
    axis: 0
  }
}
layer {
  name: "lstm1_x_transform"
  type: "InnerProduct"
  bottom: "x"
  top: "W_xc_x"
  param {
    name: "W_xc"
  }
  param {
    name: "b_c"
  }
  propagate_down: true
  inner_product_param {
    num_output: 4000
    bias_term: true
    weight_filler {
      type: "uniform"
      min: -0.08
      max: 0.08
    }
    bias_filler {
      type: "constant"
      value: 0
    }
    axis: 2
  }
}
layer {
  name: "lstm1_W_xc_x_slice"
  type: "Slice"
  bottom: "W_xc_x"
  top: "W_xc_x_1"
  slice_param {
    axis: 0
  }
}
layer {
  name: "lstm1_h_conted_0"
  type: "Scale"
  bottom: "h_0"
  bottom: "cont_1"
  top: "h_conted_0"
  scale_param {
    axis: 0
  }
}
layer {
  name: "lstm1_transform_1"
  type: "InnerProduct"
  bottom: "h_conted_0"
  top: "W_hc_h_0"
  param {
    name: "W_hc"
  }
  inner_product_param {
    num_output: 4000
    bias_term: false
    weight_filler {
      type: "uniform"
      min: -0.08
      max: 0.08
    }
    axis: 2
  }
}
layer {
  name: "lstm1_gate_input_1"
  type: "Eltwise"
  bottom: "W_hc_h_0"
  bottom: "W_xc_x_1"
  top: "gate_input_1"
  eltwise_param {
    operation: SUM
  }
}
layer {
  name: "lstm1_unit_1"
  type: "LSTMUnit"
  bottom: "c_0"
  bottom: "gate_input_1"
  bottom: "cont_1"
  top: "c_1"
  top: "h_1"
}
layer {
  name: "lstm1_"
  type: "Split"
  bottom: "c_1"
  top: "c_T"
}
layer {
  name: "lstm1_h_concat"
  type: "Concat"
  bottom: "h_1"
  top: "h"
  concat_param {
    axis: 0
  }
}
layer {
  name: "h_pseudoloss"
  type: "Reduction"
  bottom: "h"
  top: "h_pseudoloss"
  loss_weight: 1
}
I0924 04:04:48.264128 18199 layer_factory.hpp:77] Creating layer lstm1_
I0924 04:04:48.264140 18199 net.cpp:91] Creating Layer lstm1_
I0924 04:04:48.264147 18199 net.cpp:399] lstm1_ -> x
I0924 04:04:48.264158 18199 net.cpp:399] lstm1_ -> cont
I0924 04:04:48.266374 18207 net.cpp:141] Setting up lstm1_x_transform
I0924 04:04:48.266392 18207 net.cpp:148] Top shape: 1 1 4000 (4000)
I0924 04:04:48.266402 18207 net.cpp:156] Memory required for data: 26016
I0924 04:04:48.266419 18207 layer_factory.hpp:77] Creating layer lstm1_W_xc_x_slice
I0924 04:04:48.266430 18207 net.cpp:91] Creating Layer lstm1_W_xc_x_slice
I0924 04:04:48.266436 18207 net.cpp:425] lstm1_W_xc_x_slice <- W_xc_x
I0924 04:04:48.266445 18207 net.cpp:399] lstm1_W_xc_x_slice -> W_xc_x_1
I0924 04:04:48.266520 18207 net.cpp:141] Setting up lstm1_W_xc_x_slice
I0924 04:04:48.266536 18207 net.cpp:148] Top shape: 1 1 4000 (4000)
I0924 04:04:48.266544 18207 net.cpp:156] Memory required for data: 42016
I0924 04:04:48.266552 18207 layer_factory.hpp:77] Creating layer lstm1_h_conted_0
I0924 04:04:48.266567 18207 net.cpp:91] Creating Layer lstm1_h_conted_0
I0924 04:04:48.266577 18207 net.cpp:425] lstm1_h_conted_0 <- h_0
I0924 04:04:48.266587 18207 net.cpp:425] lstm1_h_conted_0 <- cont_1_lstm1_cont_slice_0_split_0
I0924 04:04:48.266608 18207 net.cpp:399] lstm1_h_conted_0 -> h_conted_0
I0924 04:04:48.266629 18199 net.cpp:141] Setting up lstm1_
I0924 04:04:48.266649 18199 net.cpp:148] Top shape: 1 1 500 (500)
I0924 04:04:48.266655 18199 net.cpp:148] Top shape: 1 1 (1)
I0924 04:04:48.266659 18199 net.cpp:156] Memory required for data: 2004
I0924 04:04:48.266665 18199 layer_factory.hpp:77] Creating layer lstm1_
I0924 04:04:48.266676 18199 net.cpp:91] Creating Layer lstm1_
I0924 04:04:48.266682 18199 net.cpp:399] lstm1_ -> c_0
I0924 04:04:48.266697 18199 net.cpp:399] lstm1_ -> h_0
I0924 04:04:48.271244 18167 net.cpp:141] Setting up lstm1_h_conted_0
I0924 04:04:48.271282 18167 net.cpp:148] Top shape: 1 1 1000 (1000)
I0924 04:04:48.271291 18167 net.cpp:156] Memory required for data: 46016
I0924 04:04:48.271301 18167 layer_factory.hpp:77] Creating layer lstm1_transform_1
I0924 04:04:48.271324 18167 net.cpp:91] Creating Layer lstm1_transform_1
I0924 04:04:48.271335 18167 net.cpp:425] lstm1_transform_1 <- h_conted_0
I0924 04:04:48.271355 18167 net.cpp:399] lstm1_transform_1 -> W_hc_h_0
I0924 04:04:48.271381 18211 net.cpp:141] Setting up lstm1_transform_1
I0924 04:04:48.271406 18211 net.cpp:148] Top shape: 1 1 4000 (4000)
I0924 04:04:48.271417 18211 net.cpp:156] Memory required for data: 62016
I0924 04:04:48.271438 18211 layer_factory.hpp:77] Creating layer lstm1_gate_input_1
I0924 04:04:48.271468 18211 net.cpp:91] Creating Layer lstm1_gate_input_1
I0924 04:04:48.271483 18211 net.cpp:425] lstm1_gate_input_1 <- W_hc_h_0
I0924 04:04:48.271492 18199 net.cpp:141] Setting up lstm1_
I0924 04:04:48.271497 18211 net.cpp:425] lstm1_gate_input_1 <- W_xc_x_1
I0924 04:04:48.271515 18199 net.cpp:148] Top shape: 1 1 1000 (1000)
I0924 04:04:48.271522 18199 net.cpp:148] Top shape: 1 1 1000 (1000)
I0924 04:04:48.271527 18199 net.cpp:156] Memory required for data: 10004
I0924 04:04:48.271531 18199 layer_factory.hpp:77] Creating layer lstm1_cont_slice
I0924 04:04:48.271533 18211 net.cpp:399] lstm1_gate_input_1 -> gate_input_1
I0924 04:04:48.271545 18199 net.cpp:91] Creating Layer lstm1_cont_slice
I0924 04:04:48.271551 18199 net.cpp:425] lstm1_cont_slice <- cont
I0924 04:04:48.271559 18199 net.cpp:399] lstm1_cont_slice -> cont_1
I0924 04:04:48.271657 18175 net.cpp:141] Setting up lstm1_x_transform
I0924 04:04:48.271678 18175 net.cpp:148] Top shape: 1 1 4000 (4000)
I0924 04:04:48.271687 18175 net.cpp:156] Memory required for data: 26016
I0924 04:04:48.271705 18175 layer_factory.hpp:77] Creating layer lstm1_W_xc_x_slice
I0924 04:04:48.271718 18175 net.cpp:91] Creating Layer lstm1_W_xc_x_slice
I0924 04:04:48.271728 18175 net.cpp:425] lstm1_W_xc_x_slice <- W_xc_x
I0924 04:04:48.271739 18175 net.cpp:399] lstm1_W_xc_x_slice -> W_xc_x_1
I0924 04:04:48.271795 18211 net.cpp:141] Setting up lstm1_gate_input_1
I0924 04:04:48.271814 18211 net.cpp:148] Top shape: 1 1 4000 (4000)
I0924 04:04:48.271823 18211 net.cpp:156] Memory required for data: 78016
I0924 04:04:48.271828 18199 net.cpp:141] Setting up lstm1_cont_slice
I0924 04:04:48.271833 18211 layer_factory.hpp:77] Creating layer lstm1_unit_1
I0924 04:04:48.271839 18199 net.cpp:148] Top shape: 1 1 (1)
I0924 04:04:48.271844 18199 net.cpp:156] Memory required for data: 10008
I0924 04:04:48.271848 18199 layer_factory.hpp:77] Creating layer cont_1_lstm1_cont_slice_0_split
I0924 04:04:48.271857 18199 net.cpp:91] Creating Layer cont_1_lstm1_cont_slice_0_split
I0924 04:04:48.271862 18199 net.cpp:425] cont_1_lstm1_cont_slice_0_split <- cont_1
I0924 04:04:48.271872 18199 net.cpp:399] cont_1_lstm1_cont_slice_0_split -> cont_1_lstm1_cont_slice_0_split_0
I0924 04:04:48.271869 18211 net.cpp:91] Creating Layer lstm1_unit_1
I0924 04:04:48.271896 18199 net.cpp:399] cont_1_lstm1_cont_slice_0_split -> cont_1_lstm1_cont_slice_0_split_1
I0924 04:04:48.271904 18211 net.cpp:425] lstm1_unit_1 <- c_0
I0924 04:04:48.271919 18211 net.cpp:425] lstm1_unit_1 <- gate_input_1
I0924 04:04:48.271929 18211 net.cpp:425] lstm1_unit_1 <- cont_1_lstm1_cont_slice_0_split_1
I0924 04:04:48.271944 18211 net.cpp:399] lstm1_unit_1 -> c_1
I0924 04:04:48.271961 18211 net.cpp:399] lstm1_unit_1 -> h_1
I0924 04:04:48.281906 18175 net.cpp:141] Setting up lstm1_W_xc_x_slice
I0924 04:04:48.281961 18175 net.cpp:148] Top shape: 1 1 4000 (4000)
I0924 04:04:48.281971 18175 net.cpp:156] Memory required for data: 42016
I0924 04:04:48.281983 18175 layer_factory.hpp:77] Creating layer lstm1_h_conted_0
I0924 04:04:48.282013 18175 net.cpp:91] Creating Layer lstm1_h_conted_0
I0924 04:04:48.282026 18175 net.cpp:425] lstm1_h_conted_0 <- h_0
I0924 04:04:48.282038 18175 net.cpp:425] lstm1_h_conted_0 <- cont_1_lstm1_cont_slice_0_split_0
I0924 04:04:48.282052 18175 net.cpp:399] lstm1_h_conted_0 -> h_conted_0
I0924 04:04:48.282048 18207 net.cpp:141] Setting up lstm1_h_conted_0
I0924 04:04:48.282071 18207 net.cpp:148] Top shape: 1 1 1000 (1000)
I0924 04:04:48.282078 18207 net.cpp:156] Memory required for data: 46016
I0924 04:04:48.282088 18207 layer_factory.hpp:77] Creating layer lstm1_transform_1
I0924 04:04:48.282106 18207 net.cpp:91] Creating Layer lstm1_transform_1
I0924 04:04:48.282115 18207 net.cpp:425] lstm1_transform_1 <- h_conted_0
I0924 04:04:48.282133 18207 net.cpp:399] lstm1_transform_1 -> W_hc_h_0
I0924 04:04:48.282217 18175 net.cpp:141] Setting up lstm1_h_conted_0
I0924 04:04:48.282234 18175 net.cpp:148] Top shape: 1 1 1000 (1000)
I0924 04:04:48.282241 18175 net.cpp:156] Memory required for data: 46016
I0924 04:04:48.282249 18175 layer_factory.hpp:77] Creating layer lstm1_transform_1
I0924 04:04:48.282264 18175 net.cpp:91] Creating Layer lstm1_transform_1
I0924 04:04:48.282272 18175 net.cpp:425] lstm1_transform_1 <- h_conted_0
I0924 04:04:48.282285 18175 net.cpp:399] lstm1_transform_1 -> W_hc_h_0
I0924 04:04:48.282286 18199 net.cpp:141] Setting up cont_1_lstm1_cont_slice_0_split
I0924 04:04:48.282307 18199 net.cpp:148] Top shape: 1 1 (1)
I0924 04:04:48.282318 18199 net.cpp:148] Top shape: 1 1 (1)
I0924 04:04:48.282325 18199 net.cpp:156] Memory required for data: 10016
I0924 04:04:48.282335 18199 layer_factory.hpp:77] Creating layer lstm1_x_transform
I0924 04:04:48.282392 18199 net.cpp:91] Creating Layer lstm1_x_transform
I0924 04:04:48.282404 18199 net.cpp:425] lstm1_x_transform <- x
I0924 04:04:48.282420 18199 net.cpp:399] lstm1_x_transform -> W_xc_x
I0924 04:04:48.299252 18211 net.cpp:141] Setting up lstm1_unit_1
I0924 04:04:48.299305 18211 net.cpp:148] Top shape: 1 1 1000 (1000)
I0924 04:04:48.299312 18211 net.cpp:148] Top shape: 1 1 1000 (1000)
I0924 04:04:48.299317 18211 net.cpp:156] Memory required for data: 86016
I0924 04:04:48.299325 18211 layer_factory.hpp:77] Creating layer lstm1_
I0924 04:04:48.299340 18211 net.cpp:91] Creating Layer lstm1_
I0924 04:04:48.299347 18211 net.cpp:425] lstm1_ <- c_1
I0924 04:04:48.299365 18211 net.cpp:399] lstm1_ -> c_T
I0924 04:04:48.299392 18163 net.cpp:141] Setting up lstm1_transform_1
I0924 04:04:48.299435 18163 net.cpp:148] Top shape: 1 1 4000 (4000)
I0924 04:04:48.299443 18163 net.cpp:156] Memory required for data: 62016
I0924 04:04:48.299470 18163 layer_factory.hpp:77] Creating layer lstm1_gate_input_1
I0924 04:04:48.299499 18163 net.cpp:91] Creating Layer lstm1_gate_input_1
I0924 04:04:48.299510 18163 net.cpp:425] lstm1_gate_input_1 <- W_hc_h_0
I0924 04:04:48.299523 18163 net.cpp:425] lstm1_gate_input_1 <- W_xc_x_1
I0924 04:04:48.299535 18163 net.cpp:399] lstm1_gate_input_1 -> gate_input_1
I0924 04:04:48.309247 18211 net.cpp:141] Setting up lstm1_
I0924 04:04:48.309296 18211 net.cpp:148] Top shape: 1 1 1000 (1000)
I0924 04:04:48.309303 18211 net.cpp:156] Memory required for data: 90016
I0924 04:04:48.309311 18211 layer_factory.hpp:77] Creating layer lstm1_h_concat
I0924 04:04:48.309340 18211 net.cpp:91] Creating Layer lstm1_h_concat
I0924 04:04:48.309347 18211 net.cpp:425] lstm1_h_concat <- h_1
I0924 04:04:48.309360 18211 net.cpp:399] lstm1_h_concat -> h
I0924 04:04:48.309442 18163 net.cpp:141] Setting up lstm1_gate_input_1
I0924 04:04:48.309484 18163 net.cpp:148] Top shape: 1 1 4000 (4000)
I0924 04:04:48.309491 18163 net.cpp:156] Memory required for data: 78016
I0924 04:04:48.309501 18163 layer_factory.hpp:77] Creating layer lstm1_unit_1
I0924 04:04:48.309521 18163 net.cpp:91] Creating Layer lstm1_unit_1
I0924 04:04:48.309531 18163 net.cpp:425] lstm1_unit_1 <- c_0
I0924 04:04:48.309545 18163 net.cpp:425] lstm1_unit_1 <- gate_input_1
I0924 04:04:48.309553 18163 net.cpp:425] lstm1_unit_1 <- cont_1_lstm1_cont_slice_0_split_1
I0924 04:04:48.309569 18163 net.cpp:399] lstm1_unit_1 -> c_1
I0924 04:04:48.309567 18157 net.cpp:141] Setting up lstm1_x_transform
I0924 04:04:48.309587 18163 net.cpp:399] lstm1_unit_1 -> h_1
I0924 04:04:48.309592 18157 net.cpp:148] Top shape: 1 1 4000 (4000)
I0924 04:04:48.309600 18157 net.cpp:156] Memory required for data: 26016
I0924 04:04:48.309619 18211 net.cpp:141] Setting up lstm1_h_concat
I0924 04:04:48.309624 18157 layer_factory.hpp:77] Creating layer lstm1_W_xc_x_slice
I0924 04:04:48.309633 18211 net.cpp:148] Top shape: 1 1 1000 (1000)
I0924 04:04:48.309636 18211 net.cpp:156] Memory required for data: 94016
I0924 04:04:48.309641 18211 layer_factory.hpp:77] Creating layer h_pseudoloss
I0924 04:04:48.309644 18157 net.cpp:91] Creating Layer lstm1_W_xc_x_slice
I0924 04:04:48.309654 18157 net.cpp:425] lstm1_W_xc_x_slice <- W_xc_x
I0924 04:04:48.309661 18211 net.cpp:91] Creating Layer h_pseudoloss
I0924 04:04:48.309669 18211 net.cpp:425] h_pseudoloss <- h
I0924 04:04:48.309669 18157 net.cpp:399] lstm1_W_xc_x_slice -> W_xc_x_1
I0924 04:04:48.309676 18211 net.cpp:399] h_pseudoloss -> h_pseudoloss
I0924 04:04:48.309828 18163 net.cpp:141] Setting up lstm1_unit_1
I0924 04:04:48.309844 18163 net.cpp:148] Top shape: 1 1 1000 (1000)
I0924 04:04:48.309854 18163 net.cpp:148] Top shape: 1 1 1000 (1000)
I0924 04:04:48.309861 18163 net.cpp:156] Memory required for data: 86016
I0924 04:04:48.309869 18163 layer_factory.hpp:77] Creating layer lstm1_
I0924 04:04:48.309882 18163 net.cpp:91] Creating Layer lstm1_
I0924 04:04:48.309891 18163 net.cpp:425] lstm1_ <- c_1
I0924 04:04:48.309902 18163 net.cpp:399] lstm1_ -> c_T
I0924 04:04:48.310356 18211 net.cpp:141] Setting up h_pseudoloss
I0924 04:04:48.310379 18211 net.cpp:148] Top shape: (1)
I0924 04:04:48.310410 18157 net.cpp:141] Setting up lstm1_W_xc_x_slice
I0924 04:04:48.310387 18211 net.cpp:151]     with loss weight 1
I0924 04:04:48.310430 18157 net.cpp:148] Top shape: 1 1 4000 (4000)
I0924 04:04:48.310436 18211 net.cpp:156] Memory required for data: 94020
I0924 04:04:48.310438 18157 net.cpp:156] Memory required for data: 42016
I0924 04:04:48.310447 18211 net.cpp:217] h_pseudoloss needs backward computation.
I0924 04:04:48.310449 18163 net.cpp:141] Setting up lstm1_
I0924 04:04:48.310448 18157 layer_factory.hpp:77] Creating layer lstm1_h_conted_0
I0924 04:04:48.310463 18211 net.cpp:217] lstm1_h_concat needs backward computation.
I0924 04:04:48.310467 18163 net.cpp:148] Top shape: 1 1 1000 (1000)
I0924 04:04:48.310473 18211 net.cpp:219] lstm1_ does not need backward computation.
I0924 04:04:48.310478 18157 net.cpp:91] Creating Layer lstm1_h_conted_0
I0924 04:04:48.310488 18157 net.cpp:425] lstm1_h_conted_0 <- h_0
I0924 04:04:48.310475 18163 net.cpp:156] Memory required for data: 90016
I0924 04:04:48.310495 18211 net.cpp:217] lstm1_unit_1 needs backward computation.
I0924 04:04:48.310500 18157 net.cpp:425] lstm1_h_conted_0 <- cont_1_lstm1_cont_slice_0_split_0
…
I0924 04:04:48.324708 18163 net.cpp:219] lstm1_ does not need backward computation.
I0924 04:04:48.324712 18163 net.cpp:261] This network produces output c_T
I0924 04:04:48.324722 18163 net.cpp:261] This network produces output h_pseudoloss
I0924 04:04:48.324745 18163 net.cpp:274] Network initialization done.
I0924 04:04:48.324826 18163 recurrent_layer.cpp:150] Adding parameter 0: W_xc
I0924 04:04:48.324836 18163 recurrent_layer.cpp:150] Adding parameter 1: b_c
I0924 04:04:48.324844 18163 recurrent_layer.cpp:150] Adding parameter 2: W_hc
I0924 04:04:48.345605 18167 net.cpp:141] Setting up lstm1_transform_1
I0924 04:04:48.345669 18167 net.cpp:148] Top shape: 1 1 4000 (4000)
I0924 04:04:48.345679 18167 net.cpp:156] Memory required for data: 62016
I0924 04:04:48.345712 18167 layer_factory.hpp:77] Creating layer lstm1_gate_input_1
I0924 04:04:48.345749 18167 net.cpp:91] Creating Layer lstm1_gate_input_1
I0924 04:04:48.345762 18167 net.cpp:425] lstm1_gate_input_1 <- W_hc_h_0
I0924 04:04:48.345775 18167 net.cpp:425] lstm1_gate_input_1 <- W_xc_x_1
I0924 04:04:48.345790 18167 net.cpp:399] lstm1_gate_input_1 -> gate_input_1
I0924 04:04:48.345875 18167 net.cpp:141] Setting up lstm1_gate_input_1
I0924 04:04:48.345892 18167 net.cpp:148] Top shape: 1 1 4000 (4000)
I0924 04:04:48.345897 18167 net.cpp:156] Memory required for data: 78016
I0924 04:04:48.345902 18167 layer_factory.hpp:77] Creating layer lstm1_unit_1
I0924 04:04:48.345912 18167 net.cpp:91] Creating Layer lstm1_unit_1
I0924 04:04:48.345917 18167 net.cpp:425] lstm1_unit_1 <- c_0
I0924 04:04:48.345924 18167 net.cpp:425] lstm1_unit_1 <- gate_input_1
I0924 04:04:48.345929 18167 net.cpp:425] lstm1_unit_1 <- cont_1_lstm1_cont_slice_0_split_1
I0924 04:04:48.345939 18167 net.cpp:399] lstm1_unit_1 -> c_1
I0924 04:04:48.345949 18167 net.cpp:399] lstm1_unit_1 -> h_1
I0924 04:04:48.346019 18167 net.cpp:141] Setting up lstm1_unit_1
I0924 04:04:48.346029 18167 net.cpp:148] Top shape: 1 1 1000 (1000)
I0924 04:04:48.346035 18167 net.cpp:148] Top shape: 1 1 1000 (1000)
I0924 04:04:48.346038 18167 net.cpp:156] Memory required for data: 86016
I0924 04:04:48.346043 18167 layer_factory.hpp:77] Creating layer lstm1_
I0924 04:04:48.346053 18167 net.cpp:91] Creating Layer lstm1_
I0924 04:04:48.346057 18167 net.cpp:425] lstm1_ <- c_1
I0924 04:04:48.346065 18167 net.cpp:399] lstm1_ -> c_T
I0924 04:04:48.346098 18167 net.cpp:141] Setting up lstm1_
I0924 04:04:48.346107 18167 net.cpp:148] Top shape: 1 1 1000 (1000)
I0924 04:04:48.346112 18167 net.cpp:156] Memory required for data: 90016
I0924 04:04:48.346117 18167 layer_factory.hpp:77] Creating layer lstm1_h_concat
I0924 04:04:48.346127 18167 net.cpp:91] Creating Layer lstm1_h_concat
I0924 04:04:48.346132 18167 net.cpp:425] lstm1_h_concat <- h_1
I0924 04:04:48.346139 18167 net.cpp:399] lstm1_h_concat -> h
I0924 04:04:48.346189 18167 net.cpp:141] Setting up lstm1_h_concat
I0924 04:04:48.346204 18167 net.cpp:148] Top shape: 1 1 1000 (1000)
I0924 04:04:48.346211 18167 net.cpp:156] Memory required for data: 94016
I0924 04:04:48.346220 18167 layer_factory.hpp:77] Creating layer h_pseudoloss
I0924 04:04:48.346235 18167 net.cpp:91] Creating Layer h_pseudoloss
I0924 04:04:48.346241 18167 net.cpp:425] h_pseudoloss <- h
I0924 04:04:48.346248 18167 net.cpp:399] h_pseudoloss -> h_pseudoloss
I0924 04:04:48.346340 18167 net.cpp:141] Setting up h_pseudoloss
…
I0924 04:04:48.346444 18167 net.cpp:219] lstm1_ does not need backward computation.
I0924 04:04:48.346449 18167 net.cpp:261] This network produces output c_T
I0924 04:04:48.346454 18167 net.cpp:261] This network produces output h_pseudoloss
I0924 04:04:48.346470 18167 net.cpp:274] Network initialization done.
I0924 04:04:48.346524 18167 recurrent_layer.cpp:150] Adding parameter 0: W_xc
I0924 04:04:48.346530 18167 recurrent_layer.cpp:150] Adding parameter 1: b_c
I0924 04:04:48.346535 18167 recurrent_layer.cpp:150] Adding parameter 2: W_hc
I0924 04:04:48.346665 18167 net.cpp:141] Setting up lstm1
I0924 04:04:48.346678 18167 net.cpp:148] Top shape: 1 1 1000 (1000)
I0924 04:04:48.346683 18167 net.cpp:156] Memory required for data: 26408
I0924 04:04:48.346696 18167 layer_factory.hpp:77] Creating layer concat
I0924 04:04:48.346704 18167 net.cpp:91] Creating Layer concat
I0924 04:04:48.346711 18167 net.cpp:425] concat <- lstm1
I0924 04:04:48.346719 18167 net.cpp:425] concat <- embedded_input_sentence
I0924 04:04:48.346724 18167 net.cpp:425] concat <- reshaped_stage_indicator
I0924 04:04:48.346731 18167 net.cpp:399] concat -> lstm1_video_sequence
I0924 04:04:48.346779 18167 net.cpp:141] Setting up concat
I0924 04:04:48.346788 18167 net.cpp:148] Top shape: 1 1 1501 (1501)
I0924 04:04:48.346793 18167 net.cpp:156] Memory required for data: 32412
I0924 04:04:48.346798 18167 layer_factory.hpp:77] Creating layer lstm2
I0924 04:04:48.346812 18167 net.cpp:91] Creating Layer lstm2
I0924 04:04:48.346818 18167 net.cpp:425] lstm2 <- lstm1_video_sequence
I0924 04:04:48.346824 18167 net.cpp:425] lstm2 <- cont_sentence_input_1_split_1
I0924 04:04:48.346832 18167 net.cpp:399] lstm2 -> lstm2
I0924 04:04:48.346843 18167 recurrent_layer.cpp:20] Initializing recurrent layer: assuming input batch contains 1 timesteps of 1 independent streams.
I0924 04:04:48.346990 18207 net.cpp:141] Setting up lstm1_transform_1
I0924 04:04:48.347031 18207 net.cpp:148] Top shape: 1 1 4000 (4000)
I0924 04:04:48.347038 18207 net.cpp:156] Memory required for data: 62016
I0924 04:04:48.347049 18175 net.cpp:141] Setting up lstm1_transform_1
I0924 04:04:48.347055 18207 layer_factory.hpp:77] Creating layer lstm1_gate_input_1
I0924 04:04:48.347077 18175 net.cpp:148] Top shape: 1 1 4000 (4000)
I0924 04:04:48.347087 18175 net.cpp:156] Memory required for data: 62016
I0924 04:04:48.347087 18207 net.cpp:91] Creating Layer lstm1_gate_input_1
I0924 04:04:48.347102 18207 net.cpp:425] lstm1_gate_input_1 <- W_hc_h_0
I0924 04:04:48.347107 18175 layer_factory.hpp:77] Creating layer lstm1_gate_input_1
I0924 04:04:48.347110 18207 net.cpp:425] lstm1_gate_input_1 <- W_xc_x_1
I0924 04:04:48.347129 18175 net.cpp:91] Creating Layer lstm1_gate_input_1
I0924 04:04:48.347136 18207 net.cpp:399] lstm1_gate_input_1 -> gate_input_1
I0924 04:04:48.347141 18175 net.cpp:425] lstm1_gate_input_1 <- W_hc_h_0
I0924 04:04:48.347127 18181 net.cpp:141] Setting up embedding
I0924 04:04:48.347138 18167 net.cpp:49] Initializing net from parameters: 
layer {
  name: "lstm2_"
  type: "Input"
  top: "x"
  top: "cont"
  input_param {
    shape {
      dim: 1
      dim: 1
      dim: 1501
    }
    shape {
      dim: 1
      dim: 1
    }
  }
}
layer {
  name: "lstm2_"
  type: "Input"
  top: "c_0"
  top: "h_0"
  input_param {
    shape {
      dim: 1
      dim: 1
      dim: 1000
    }
    shape {
      dim: 1
      dim: 1
      dim: 1000
    }
  }
}
layer {
  name: "lstm2_cont_slice"
  type: "Slice"
  bottom: "cont"
  top: "cont_1"
  slice_param {
    axis: 0
  }
}
layer {
  name: "lstm2_x_transform"
  type: "InnerProduct"
  bottom: "x"
  top: "W_xc_x"
  param {
    name: "W_xc"
  }
  param {
    name: "b_c"
  }
  propagate_down: true
  inner_product_param {
    num_output: 4000
    bias_term: true
    weight_filler {
      type: "uniform"
      min: -0.08
      max: 0.08
    }
    bias_filler {
      type: "constant"
      value: 0
    }
    axis: 2
  }
}
layer {
  name: "lstm2_W_xc_x_slice"
  type: "Slice"
  bottom: "W_xc_x"
  top: "W_xc_x_1"
  slice_param {
    axis: 0
  }
}
layer {
  name: "lstm2_h_conted_0"
  type: "Scale"
  bottom: "h_0"
  bottom: "cont_1"
  top: "h_conted_0"
  scale_param {
    axis: 0
  }
}
layer {
  name: "lstm2_transform_1"
  type: "InnerProduct"
  bottom: "h_conted_0"
  top: "W_hc_h_0"
  param {
    name: "W_hc"
  }
  inner_product_param {
    num_output: 4000
    bias_term: false
    weight_filler {
      type: "uniform"
      min: -0.08
      max: 0.08
    }
    axis: 2
  }
}
layer {
  name: "lstm2_gate_input_1"
  type: "Eltwise"
  bottom: "W_hc_h_0"
  bottom: "W_xc_x_1"
  top: "gate_input_1"
  eltwise_param {
    operation: SUM
  }
}
layer {
  name: "lstm2_unit_1"
  type: "LSTMUnit"
  bottom: "c_0"
  bottom: "gate_input_1"
  bottom: "cont_1"
  top: "c_1"
  top: "h_1"
}
layer {
  name: "lstm2_"
  type: "Split"
  bottom: "c_1"
  top: "c_T"
}
layer {
  name: "lstm2_h_concat"
  type: "Concat"
  bottom: "h_1"
  top: "h"
  concat_param {
    axis: 0
  }
}
layer {
  name: "h_pseudoloss"
  type: "Reduction"
  bottom: "h"
  top: "h_pseudoloss"
  loss_weight: 1
}
I0924 04:04:48.347167 18175 net.cpp:425] lstm1_gate_input_1 <- W_xc_x_1
I0924 04:04:48.347164 18181 net.cpp:148] Top shape: 1 1 500 (500)
I0924 04:04:48.347183 18181 net.cpp:156] Memory required for data: 22408
I0924 04:04:48.347190 18175 net.cpp:399] lstm1_gate_input_1 -> gate_input_1
I0924 04:04:48.347206 18207 net.cpp:141] Setting up lstm1_gate_input_1
I0924 04:04:48.347218 18207 net.cpp:148] Top shape: 1 1 4000 (4000)
I0924 04:04:48.347223 18207 net.cpp:156] Memory required for data: 78016
I0924 04:04:48.347229 18207 layer_factory.hpp:77] Creating layer lstm1_unit_1
I0924 04:04:48.347239 18207 net.cpp:91] Creating Layer lstm1_unit_1
I0924 04:04:48.347244 18207 net.cpp:425] lstm1_unit_1 <- c_0
I0924 04:04:48.347241 18181 layer_factory.hpp:77] Creating layer lstm1
I0924 04:04:48.347255 18175 net.cpp:141] Setting up lstm1_gate_input_1
I0924 04:04:48.347265 18167 layer_factory.hpp:77] Creating layer lstm2_
I0924 04:04:48.347250 18207 net.cpp:425] lstm1_unit_1 <- gate_input_1
I0924 04:04:48.347280 18167 net.cpp:91] Creating Layer lstm2_
I0924 04:04:48.347281 18175 net.cpp:148] Top shape: 1 1 4000 (4000)
I0924 04:04:48.347285 18207 net.cpp:425] lstm1_unit_1 <- cont_1_lstm1_cont_slice_0_split_1
I0924 04:04:48.347295 18175 net.cpp:156] Memory required for data: 78016
I0924 04:04:48.347287 18167 net.cpp:399] lstm2_ -> x
I0924 04:04:48.347307 18207 net.cpp:399] lstm1_unit_1 -> c_1
I0924 04:04:48.347316 18167 net.cpp:399] lstm2_ -> cont
I0924 04:04:48.347326 18181 net.cpp:91] Creating Layer lstm1
I0924 04:04:48.347337 18207 net.cpp:399] lstm1_unit_1 -> h_1
I0924 04:04:48.347342 18181 net.cpp:425] lstm1 <- embedded_input_frames
I0924 04:04:48.347353 18181 net.cpp:425] lstm1 <- cont_sentence_input_1_split_0
I0924 04:04:48.347306 18175 layer_factory.hpp:77] Creating layer lstm1_unit_1
I0924 04:04:48.347368 18181 net.cpp:399] lstm1 -> lstm1
I0924 04:04:48.347398 18181 recurrent_layer.cpp:20] Initializing recurrent layer: assuming input batch contains 1 timesteps of 1 independent streams.
I0924 04:04:48.347385 18175 net.cpp:91] Creating Layer lstm1_unit_1
I0924 04:04:48.347415 18167 net.cpp:141] Setting up lstm2_
I0924 04:04:48.347419 18175 net.cpp:425] lstm1_unit_1 <- c_0
I0924 04:04:48.347429 18167 net.cpp:148] Top shape: 1 1 1501 (1501)
I0924 04:04:48.347435 18167 net.cpp:148] Top shape: 1 1 (1)
I0924 04:04:48.347434 18175 net.cpp:425] lstm1_unit_1 <- gate_input_1
I0924 04:04:48.347440 18167 net.cpp:156] Memory required for data: 6008
I0924 04:04:48.347446 18167 layer_factory.hpp:77] Creating layer lstm2_
I0924 04:04:48.347450 18175 net.cpp:425] lstm1_unit_1 <- cont_1_lstm1_cont_slice_0_split_1
I0924 04:04:48.347457 18167 net.cpp:91] Creating Layer lstm2_
I0924 04:04:48.347465 18175 net.cpp:399] lstm1_unit_1 -> c_1
I0924 04:04:48.347468 18167 net.cpp:399] lstm2_ -> c_0
I0924 04:04:48.347491 18175 net.cpp:399] lstm1_unit_1 -> h_1
I0924 04:04:48.347494 18167 net.cpp:399] lstm2_ -> h_0
I0924 04:04:48.347681 18167 net.cpp:141] Setting up lstm2_
I0924 04:04:48.347693 18167 net.cpp:148] Top shape: 1 1 1000 (1000)
I0924 04:04:48.347699 18167 net.cpp:148] Top shape: 1 1 1000 (1000)
I0924 04:04:48.347703 18167 net.cpp:156] Memory required for data: 14008
I0924 04:04:48.347707 18167 layer_factory.hpp:77] Creating layer lstm2_cont_slice
I0924 04:04:48.347717 18167 net.cpp:91] Creating Layer lstm2_cont_slice
I0924 04:04:48.347723 18167 net.cpp:425] lstm2_cont_slice <- cont
I0924 04:04:48.347735 18167 net.cpp:399] lstm2_cont_slice -> cont_1
I0924 04:04:48.347790 18181 net.cpp:49] Initializing net from parameters: 
layer {
  name: "lstm1_"
  type: "Input"
  top: "x"
  top: "cont"
  input_param {
    shape {
      dim: 1
      dim: 1
      dim: 500
    }
    shape {
      dim: 1
      dim: 1
    }
  }
}
layer {
  name: "lstm1_"
  type: "Input"
  top: "c_0"
  top: "h_0"
  input_param {
    shape {
      dim: 1
      dim: 1
      dim: 1000
    }
    shape {
      dim: 1
      dim: 1
      dim: 1000
    }
  }
}
layer {
  name: "lstm1_cont_slice"
  type: "Slice"
  bottom: "cont"
  top: "cont_1"
  slice_param {
    axis: 0
  }
}
layer {
  name: "lstm1_x_transform"
  type: "InnerProduct"
  bottom: "x"
  top: "W_xc_x"
  param {
    name: "W_xc"
  }
  param {
    name: "b_c"
  }
  propagate_down: true
  inner_product_param {
    num_output: 4000
    bias_term: true
    weight_filler {
      type: "uniform"
      min: -0.08
      max: 0.08
    }
    bias_filler {
      type: "constant"
      value: 0
    }
    axis: 2
  }
}
layer {
  name: "lstm1_W_xc_x_slice"
  type: "Slice"
  bottom: "W_xc_x"
  top: "W_xc_x_1"
  slice_param {
    axis: 0
  }
}
layer {
  name: "lstm1_h_conted_0"
  type: "Scale"
  bottom: "h_0"
  bottom: "cont_1"
  top: "h_conted_0"
  scale_param {
    axis: 0
  }
}
layer {
  name: "lstm1_transform_1"
  type: "InnerProduct"
  bottom: "h_conted_0"
  top: "W_hc_h_0"
  param {
    name: "W_hc"
  }
  inner_product_param {
    num_output: 4000
    bias_term: false
    weight_filler {
      type: "uniform"
      min: -0.08
      max: 0.08
    }
    axis: 2
  }
}
layer {
  name: "lstm1_gate_input_1"
  type: "Eltwise"
  bottom: "W_hc_h_0"
  bottom: "W_xc_x_1"
  top: "gate_input_1"
  eltwise_param {
    operation: SUM
  }
}
layer {
  name: "lstm1_unit_1"
  type: "LSTMUnit"
  bottom: "c_0"
  bottom: "gate_input_1"
  bottom: "cont_1"
  top: "c_1"
  top: "h_1"
}
layer {
  name: "lstm1_"
  type: "Split"
  bottom: "c_1"
  top: "c_T"
}
layer {
  name: "lstm1_h_concat"
  type: "Concat"
  bottom: "h_1"
  top: "h"
  concat_param {
    axis: 0
  }
}
layer {
  name: "h_pseudoloss"
  type: "Reduction"
  bottom: "h"
  top: "h_pseudoloss"
  loss_weight: 1
}
I0924 04:04:48.347800 18167 net.cpp:141] Setting up lstm2_cont_slice
I0924 04:04:48.347811 18167 net.cpp:148] Top shape: 1 1 (1)
I0924 04:04:48.347816 18167 net.cpp:156] Memory required for data: 14012
I0924 04:04:48.347821 18167 layer_factory.hpp:77] Creating layer cont_1_lstm2_cont_slice_0_split
I0924 04:04:48.347831 18167 net.cpp:91] Creating Layer cont_1_lstm2_cont_slice_0_split
I0924 04:04:48.347837 18167 net.cpp:425] cont_1_lstm2_cont_slice_0_split <- cont_1
I0924 04:04:48.347846 18167 net.cpp:399] cont_1_lstm2_cont_slice_0_split -> cont_1_lstm2_cont_slice_0_split_0
I0924 04:04:48.347861 18167 net.cpp:399] cont_1_lstm2_cont_slice_0_split -> cont_1_lstm2_cont_slice_0_split_1
I0924 04:04:48.347916 18181 layer_factory.hpp:77] Creating layer lstm1_
I0924 04:04:48.347934 18181 net.cpp:91] Creating Layer lstm1_
I0924 04:04:48.347932 18199 net.cpp:141] Setting up lstm1_x_transform
I0924 04:04:48.347951 18181 net.cpp:399] lstm1_ -> x
I0924 04:04:48.347970 18199 net.cpp:148] Top shape: 1 1 4000 (4000)
I0924 04:04:48.347975 18199 net.cpp:156] Memory required for data: 26016
I0924 04:04:48.347976 18163 net.cpp:141] Setting up lstm1
I0924 04:04:48.347985 18181 net.cpp:399] lstm1_ -> cont
I0924 04:04:48.347988 18199 layer_factory.hpp:77] Creating layer lstm1_W_xc_x_slice
I0924 04:04:48.347998 18163 net.cpp:148] Top shape: 1 1 1000 (1000)
I0924 04:04:48.348021 18163 net.cpp:156] Memory required for data: 26408
I0924 04:04:48.348021 18199 net.cpp:91] Creating Layer lstm1_W_xc_x_slice
I0924 04:04:48.348045 18199 net.cpp:425] lstm1_W_xc_x_slice <- W_xc_x
I0924 04:04:48.348054 18199 net.cpp:399] lstm1_W_xc_x_slice -> W_xc_x_1
I0924 04:04:48.348062 18163 layer_factory.hpp:77] Creating layer concat
I0924 04:04:48.348081 18163 net.cpp:91] Creating Layer concat
I0924 04:04:48.348093 18163 net.cpp:425] concat <- lstm1
I0924 04:04:48.348105 18163 net.cpp:425] concat <- embedded_input_sentence
I0924 04:04:48.348116 18163 net.cpp:425] concat <- reshaped_stage_indicator
I0924 04:04:48.348134 18163 net.cpp:399] concat -> lstm1_video_sequence
I0924 04:04:48.348328 18175 net.cpp:141] Setting up lstm1_unit_1
I0924 04:04:48.348350 18175 net.cpp:148] Top shape: 1 1 1000 (1000)
I0924 04:04:48.348361 18175 net.cpp:148] Top shape: 1 1 1000 (1000)
I0924 04:04:48.348371 18175 net.cpp:156] Memory required for data: 86016
I0924 04:04:48.348381 18175 layer_factory.hpp:77] Creating layer lstm1_
I0924 04:04:48.348395 18175 net.cpp:91] Creating Layer lstm1_
I0924 04:04:48.348407 18175 net.cpp:425] lstm1_ <- c_1
I0924 04:04:48.348420 18175 net.cpp:399] lstm1_ -> c_T
I0924 04:04:48.348426 18211 net.cpp:141] Setting up lstm1
I0924 04:04:48.348445 18211 net.cpp:148] Top shape: 1 1 1000 (1000)
I0924 04:04:48.348454 18211 net.cpp:156] Memory required for data: 26408
I0924 04:04:48.348476 18211 layer_factory.hpp:77] Creating layer concat
I0924 04:04:48.348486 18211 net.cpp:91] Creating Layer concat
I0924 04:04:48.348493 18211 net.cpp:425] concat <- lstm1
I0924 04:04:48.348501 18211 net.cpp:425] concat <- embedded_input_sentence
I0924 04:04:48.348507 18211 net.cpp:425] concat <- reshaped_stage_indicator
I0924 04:04:48.348516 18211 net.cpp:399] concat -> lstm1_video_sequence
I0924 04:04:48.348547 18181 net.cpp:141] Setting up lstm1_
I0924 04:04:48.348565 18181 net.cpp:148] Top shape: 1 1 500 (500)
I0924 04:04:48.348577 18181 net.cpp:148] Top shape: 1 1 (1)
I0924 04:04:48.348584 18181 net.cpp:156] Memory required for data: 2004
I0924 04:04:48.348592 18181 layer_factory.hpp:77] Creating layer lstm1_
I0924 04:04:48.348611 18163 net.cpp:141] Setting up concat
I0924 04:04:48.348616 18181 net.cpp:91] Creating Layer lstm1_
I0924 04:04:48.348636 18163 net.cpp:148] Top shape: 1 1 1501 (1501)
I0924 04:04:48.348644 18181 net.cpp:399] lstm1_ -> c_0
I0924 04:04:48.348649 18163 net.cpp:156] Memory required for data: 32412
I0924 04:04:48.348659 18163 layer_factory.hpp:77] Creating layer lstm2
I0924 04:04:48.348662 18181 net.cpp:399] lstm1_ -> h_0
I0924 04:04:48.348669 18167 net.cpp:141] Setting up cont_1_lstm2_cont_slice_0_split
I0924 04:04:48.348680 18163 net.cpp:91] Creating Layer lstm2
I0924 04:04:48.348683 18167 net.cpp:148] Top shape: 1 1 (1)
I0924 04:04:48.348698 18163 net.cpp:425] lstm2 <- lstm1_video_sequence
I0924 04:04:48.348703 18167 net.cpp:148] Top shape: 1 1 (1)
I0924 04:04:48.348711 18167 net.cpp:156] Memory required for data: 14020
I0924 04:04:48.348712 18163 net.cpp:425] lstm2 <- cont_sentence_input_1_split_1
I0924 04:04:48.348722 18167 layer_factory.hpp:77] Creating layer lstm2_x_transform
I0924 04:04:48.348712 18207 net.cpp:141] Setting up lstm1_unit_1
I0924 04:04:48.348740 18167 net.cpp:91] Creating Layer lstm2_x_transform
I0924 04:04:48.348743 18207 net.cpp:148] Top shape: 1 1 1000 (1000)
I0924 04:04:48.348747 18199 net.cpp:141] Setting up lstm1_W_xc_x_slice
I0924 04:04:48.348757 18207 net.cpp:148] Top shape: 1 1 1000 (1000)
I0924 04:04:48.348760 18167 net.cpp:425] lstm2_x_transform <- x
I0924 04:04:48.348738 18163 net.cpp:399] lstm2 -> lstm2
I0924 04:04:48.348765 18207 net.cpp:156] Memory required for data: 86016
I0924 04:04:48.348780 18207 layer_factory.hpp:77] Creating layer lstm1_
I0924 04:04:48.348784 18167 net.cpp:399] lstm2_x_transform -> W_xc_x
I0924 04:04:48.348795 18207 net.cpp:91] Creating Layer lstm1_
I0924 04:04:48.348808 18211 net.cpp:141] Setting up concat
I0924 04:04:48.348814 18207 net.cpp:425] lstm1_ <- c_1
I0924 04:04:48.348793 18163 recurrent_layer.cpp:20] Initializing recurrent layer: assuming input batch contains 1 timesteps of 1 independent streams.
I0924 04:04:48.348825 18211 net.cpp:148] Top shape: 1 1 1501 (1501)
I0924 04:04:48.348826 18207 net.cpp:399] lstm1_ -> c_T
I0924 04:04:48.348839 18211 net.cpp:156] Memory required for data: 32412
I0924 04:04:48.348848 18211 layer_factory.hpp:77] Creating layer lstm2
I0924 04:04:48.348760 18199 net.cpp:148] Top shape: 1 1 4000 (4000)
I0924 04:04:48.348866 18211 net.cpp:91] Creating Layer lstm2
I0924 04:04:48.348871 18199 net.cpp:156] Memory required for data: 42016
I0924 04:04:48.348875 18211 net.cpp:425] lstm2 <- lstm1_video_sequence
I0924 04:04:48.348889 18199 layer_factory.hpp:77] Creating layer lstm1_h_conted_0
I0924 04:04:48.348894 18211 net.cpp:425] lstm2 <- cont_sentence_input_1_split_1
I0924 04:04:48.348904 18211 net.cpp:399] lstm2 -> lstm2
I0924 04:04:48.348914 18211 recurrent_layer.cpp:20] Initializing recurrent layer: assuming input batch contains 1 timesteps of 1 independent streams.
I0924 04:04:48.348912 18199 net.cpp:91] Creating Layer lstm1_h_conted_0
I0924 04:04:48.348913 18175 net.cpp:141] Setting up lstm1_
I0924 04:04:48.348930 18199 net.cpp:425] lstm1_h_conted_0 <- h_0
I0924 04:04:48.348937 18175 net.cpp:148] Top shape: 1 1 1000 (1000)
I0924 04:04:48.348942 18199 net.cpp:425] lstm1_h_conted_0 <- cont_1_lstm1_cont_slice_0_split_0
I0924 04:04:48.348956 18199 net.cpp:399] lstm1_h_conted_0 -> h_conted_0
I0924 04:04:48.348956 18175 net.cpp:156] Memory required for data: 90016
I0924 04:04:48.348975 18175 layer_factory.hpp:77] Creating layer lstm1_h_concat
I0924 04:04:48.348990 18181 net.cpp:141] Setting up lstm1_
I0924 04:04:48.349007 18181 net.cpp:148] Top shape: 1 1 1000 (1000)
I0924 04:04:48.349017 18181 net.cpp:148] Top shape: 1 1 1000 (1000)
I0924 04:04:48.349025 18181 net.cpp:156] Memory required for data: 10004
I0924 04:04:48.349032 18181 layer_factory.hpp:77] Creating layer lstm1_cont_slice
I0924 04:04:48.349045 18181 net.cpp:91] Creating Layer lstm1_cont_slice
I0924 04:04:48.349052 18181 net.cpp:425] lstm1_cont_slice <- cont
I0924 04:04:48.349103 18175 net.cpp:91] Creating Layer lstm1_h_concat
I0924 04:04:48.349112 18181 net.cpp:399] lstm1_cont_slice -> cont_1
I0924 04:04:48.349118 18175 net.cpp:425] lstm1_h_concat <- h_1
I0924 04:04:48.349140 18175 net.cpp:399] lstm1_h_concat -> h
I0924 04:04:48.349169 18199 net.cpp:141] Setting up lstm1_h_conted_0
I0924 04:04:48.349187 18199 net.cpp:148] Top shape: 1 1 1000 (1000)
I0924 04:04:48.349192 18199 net.cpp:156] Memory required for data: 46016
I0924 04:04:48.349200 18199 layer_factory.hpp:77] Creating layer lstm1_transform_1
I0924 04:04:48.349200 18211 net.cpp:49] Initializing net from parameters: 
layer {
  name: "lstm2_"
  type: "Input"
  top: "x"
  top: "cont"
  input_param {
    shape {
      dim: 1
      dim: 1
      dim: 1501
    }
    shape {
      dim: 1
      dim: 1
    }
  }
}
layer {
  name: "lstm2_"
  type: "Input"
  top: "c_0"
  top: "h_0"
  input_param {
    shape {
      dim: 1
      dim: 1
      dim: 1000
    }
    shape {
      dim: 1
      dim: 1
      dim: 1000
    }
  }
}
layer {
  name: "lstm2_cont_slice"
  type: "Slice"
  bottom: "cont"
  top: "cont_1"
  slice_param {
    axis: 0
  }
}
layer {
  name: "lstm2_x_transform"
  type: "InnerProduct"
  bottom: "x"
  top: "W_xc_x"
  param {
    name: "W_xc"
  }
  param {
    name: "b_c"
  }
  propagate_down: true
  inner_product_param {
    num_output: 4000
    bias_term: true
    weight_filler {
      type: "uniform"
      min: -0.08
      max: 0.08
    }
    bias_filler {
      type: "constant"
      value: 0
    }
    axis: 2
  }
}
layer {
  name: "lstm2_W_xc_x_slice"
  type: "Slice"
  bottom: "W_xc_x"
  top: "W_xc_x_1"
  slice_param {
    axis: 0
  }
}
layer {
  name: "lstm2_h_conted_0"
  type: "Scale"
  bottom: "h_0"
  bottom: "cont_1"
  top: "h_conted_0"
  scale_param {
    axis: 0
  }
}
layer {
  name: "lstm2_transform_1"
  type: "InnerProduct"
  bottom: "h_conted_0"
  top: "W_hc_h_0"
  param {
    name: "W_hc"
  }
  inner_product_param {
    num_output: 4000
    bias_term: false
    weight_filler {
      type: "uniform"
      min: -0.08
      max: 0.08
    }
    axis: 2
  }
}
layer {
  name: "lstm2_gate_input_1"
  type: "Eltwise"
  bottom: "W_hc_h_0"
  bottom: "W_xc_x_1"
  top: "gate_input_1"
  eltwise_param {
    operation: SUM
  }
}
layer {
  name: "lstm2_unit_1"
  type: "LSTMUnit"
  bottom: "c_0"
  bottom: "gate_input_1"
  bottom: "cont_1"
  top: "c_1"
  top: "h_1"
}
layer {
  name: "lstm2_"
  type: "Split"
  bottom: "c_1"
  top: "c_T"
}
layer {
  name: "lstm2_h_concat"
  type: "Concat"
  bottom: "h_1"
  top: "h"
  concat_param {
    axis: 0
  }
}
layer {
  name: "h_pseudoloss"
  type: "Reduction"
  bottom: "h"
  top: "h_pseudoloss"
  loss_weight: 1
}
I0924 04:04:48.349243 18199 net.cpp:91] Creating Layer lstm1_transform_1
I0924 04:04:48.349252 18199 net.cpp:425] lstm1_transform_1 <- h_conted_0
I0924 04:04:48.349256 18163 net.cpp:49] Initializing net from parameters: 
layer {
  name: "lstm2_"
  type: "Input"
  top: "x"
  top: "cont"
  input_param {
    shape {
      dim: 1
      dim: 1
      dim: 1501
    }
    shape {
      dim: 1
      dim: 1
    }
  }
}
layer {
  name: "lstm2_"
  type: "Input"
  top: "c_0"
  top: "h_0"
  input_param {
    shape {
      dim: 1
      dim: 1
      dim: 1000
    }
    shape {
      dim: 1
      dim: 1
      dim: 1000
    }
  }
}
layer {
  name: "lstm2_cont_slice"
  type: "Slice"
  bottom: "cont"
  top: "cont_1"
  slice_param {
    axis: 0
  }
}
layer {
  name: "lstm2_x_transform"
  type: "InnerProduct"
  bottom: "x"
  top: "W_xc_x"
  param {
    name: "W_xc"
  }
  param {
    name: "b_c"
  }
  propagate_down: true
  inner_product_param {
    num_output: 4000
    bias_term: true
    weight_filler {
      type: "uniform"
      min: -0.08
      max: 0.08
    }
    bias_filler {
      type: "constant"
      value: 0
    }
    axis: 2
  }
}
layer {
  name: "lstm2_W_xc_x_slice"
  type: "Slice"
  bottom: "W_xc_x"
  top: "W_xc_x_1"
  slice_param {
    axis: 0
  }
}
layer {
  name: "lstm2_h_conted_0"
  type: "Scale"
  bottom: "h_0"
  bottom: "cont_1"
  top: "h_conted_0"
  scale_param {
    axis: 0
  }
}
layer {
  name: "lstm2_transform_1"
  type: "InnerProduct"
  bottom: "h_conted_0"
  top: "W_hc_h_0"
  param {
    name: "W_hc"
  }
  inner_product_param {
    num_output: 4000
    bias_term: false
    weight_filler {
      type: "uniform"
      min: -0.08
      max: 0.08
    }
    axis: 2
  }
}
layer {
  name: "lstm2_gate_input_1"
  type: "Eltwise"
  bottom: "W_hc_h_0"
  bottom: "W_xc_x_1"
  top: "gate_input_1"
  eltwise_param {
    operation: SUM
  }
}
layer {
  name: "lstm2_unit_1"
  type: "LSTMUnit"
  bottom: "c_0"
  bottom: "gate_input_1"
  bottom: "cont_1"
  top: "c_1"
  top: "h_1"
}
layer {
  name: "lstm2_"
  type: "Split"
  bottom: "c_1"
  top: "c_T"
}
layer {
  name: "lstm2_h_concat"
  type: "Concat"
  bottom: "h_1"
  top: "h"
  concat_param {
    axis: 0
  }
}
layer {
  name: "h_pseudoloss"
  type: "Reduction"
  bottom: "h"
  top: "h_pseudoloss"
  loss_weight: 1
}
I0924 04:04:48.349268 18199 net.cpp:399] lstm1_transform_1 -> W_hc_h_0
I0924 04:04:48.358582 18211 layer_factory.hpp:77] Creating layer lstm2_
I0924 04:04:48.358587 18163 layer_factory.hpp:77] Creating layer lstm2_
I0924 04:04:48.358618 18211 net.cpp:91] Creating Layer lstm2_
I0924 04:04:48.358625 18211 net.cpp:399] lstm2_ -> x
I0924 04:04:48.358625 18163 net.cpp:91] Creating Layer lstm2_
I0924 04:04:48.358639 18211 net.cpp:399] lstm2_ -> cont
I0924 04:04:48.358641 18163 net.cpp:399] lstm2_ -> x
I0924 04:04:48.358664 18163 net.cpp:399] lstm2_ -> cont
I0924 04:04:48.359832 18207 net.cpp:141] Setting up lstm1_
I0924 04:04:48.359848 18207 net.cpp:148] Top shape: 1 1 1000 (1000)
I0924 04:04:48.359854 18207 net.cpp:156] Memory required for data: 90016
I0924 04:04:48.359859 18207 layer_factory.hpp:77] Creating layer lstm1_h_concat
I0924 04:04:48.359869 18207 net.cpp:91] Creating Layer lstm1_h_concat
I0924 04:04:48.359874 18207 net.cpp:425] lstm1_h_concat <- h_1
I0924 04:04:48.359884 18207 net.cpp:399] lstm1_h_concat -> h
I0924 04:04:48.359975 18175 net.cpp:141] Setting up lstm1_h_concat
I0924 04:04:48.360030 18175 net.cpp:148] Top shape: 1 1 1000 (1000)
I0924 04:04:48.360067 18175 net.cpp:156] Memory required for data: 94016
I0924 04:04:48.360086 18175 layer_factory.hpp:77] Creating layer h_pseudoloss
I0924 04:04:48.360096 18211 net.cpp:141] Setting up lstm2_
I0924 04:04:48.360123 18211 net.cpp:148] Top shape: 1 1 1501 (1501)
I0924 04:04:48.360131 18211 net.cpp:148] Top shape: 1 1 (1)
I0924 04:04:48.360127 18175 net.cpp:91] Creating Layer h_pseudoloss
I0924 04:04:48.360134 18211 net.cpp:156] Memory required for data: 6008
I0924 04:04:48.360157 18175 net.cpp:425] h_pseudoloss <- h
I0924 04:04:48.360164 18211 layer_factory.hpp:77] Creating layer lstm2_
I0924 04:04:48.360190 18207 net.cpp:141] Setting up lstm1_h_concat
I0924 04:04:48.360205 18207 net.cpp:148] Top shape: 1 1 1000 (1000)
I0924 04:04:48.360213 18207 net.cpp:156] Memory required for data: 94016
I0924 04:04:48.360219 18211 net.cpp:91] Creating Layer lstm2_
I0924 04:04:48.360219 18175 net.cpp:399] h_pseudoloss -> h_pseudoloss
I0924 04:04:48.360231 18211 net.cpp:399] lstm2_ -> c_0
I0924 04:04:48.360224 18207 layer_factory.hpp:77] Creating layer h_pseudoloss
I0924 04:04:48.360251 18211 net.cpp:399] lstm2_ -> h_0
…
I0924 04:04:48.360489 18207 net.cpp:219] lstm1_ does not need backward computation.
I0924 04:04:48.360493 18207 net.cpp:261] This network produces output c_T
I0924 04:04:48.360497 18207 net.cpp:261] This network produces output h_pseudoloss
I0924 04:04:48.360515 18207 net.cpp:274] Network initialization done.
I0924 04:04:48.360556 18207 recurrent_layer.cpp:150] Adding parameter 0: W_xc
I0924 04:04:48.360563 18207 recurrent_layer.cpp:150] Adding parameter 1: b_c
I0924 04:04:48.360566 18207 recurrent_layer.cpp:150] Adding parameter 2: W_hc
I0924 04:04:48.360663 18207 net.cpp:141] Setting up lstm1
I0924 04:04:48.360674 18207 net.cpp:148] Top shape: 1 1 1000 (1000)
I0924 04:04:48.360678 18207 net.cpp:156] Memory required for data: 26408
I0924 04:04:48.360692 18207 layer_factory.hpp:77] Creating layer concat
I0924 04:04:48.360702 18207 net.cpp:91] Creating Layer concat
I0924 04:04:48.360707 18207 net.cpp:425] concat <- lstm1
I0924 04:04:48.360713 18207 net.cpp:425] concat <- embedded_input_sentence
I0924 04:04:48.360719 18207 net.cpp:425] concat <- reshaped_stage_indicator
I0924 04:04:48.360725 18207 net.cpp:399] concat -> lstm1_video_sequence
I0924 04:04:48.360759 18207 net.cpp:141] Setting up concat
I0924 04:04:48.360769 18207 net.cpp:148] Top shape: 1 1 1501 (1501)
I0924 04:04:48.360772 18207 net.cpp:156] Memory required for data: 32412
I0924 04:04:48.360777 18207 layer_factory.hpp:77] Creating layer lstm2
I0924 04:04:48.360788 18207 net.cpp:91] Creating Layer lstm2
I0924 04:04:48.360793 18207 net.cpp:425] lstm2 <- lstm1_video_sequence
I0924 04:04:48.360798 18207 net.cpp:425] lstm2 <- cont_sentence_input_1_split_1
I0924 04:04:48.360805 18207 net.cpp:399] lstm2 -> lstm2
I0924 04:04:48.360815 18207 recurrent_layer.cpp:20] Initializing recurrent layer: assuming input batch contains 1 timesteps of 1 independent streams.
I0924 04:04:48.361004 18207 net.cpp:49] Initializing net from parameters: 
layer {
  name: "lstm2_"
  type: "Input"
  top: "x"
  top: "cont"
  input_param {
    shape {
      dim: 1
      dim: 1
      dim: 1501
    }
    shape {
      dim: 1
      dim: 1
    }
  }
}
layer {
  name: "lstm2_"
  type: "Input"
  top: "c_0"
  top: "h_0"
  input_param {
    shape {
      dim: 1
      dim: 1
      dim: 1000
    }
    shape {
      dim: 1
      dim: 1
      dim: 1000
    }
  }
}
layer {
  name: "lstm2_cont_slice"
  type: "Slice"
  bottom: "cont"
  top: "cont_1"
  slice_param {
    axis: 0
  }
}
layer {
  name: "lstm2_x_transform"
  type: "InnerProduct"
  bottom: "x"
  top: "W_xc_x"
  param {
    name: "W_xc"
  }
  param {
    name: "b_c"
  }
  propagate_down: true
  inner_product_param {
    num_output: 4000
    bias_term: true
    weight_filler {
      type: "uniform"
      min: -0.08
      max: 0.08
    }
    bias_filler {
      type: "constant"
      value: 0
    }
    axis: 2
  }
}
layer {
  name: "lstm2_W_xc_x_slice"
  type: "Slice"
  bottom: "W_xc_x"
  top: "W_xc_x_1"
  slice_param {
    axis: 0
  }
}
layer {
  name: "lstm2_h_conted_0"
  type: "Scale"
  bottom: "h_0"
  bottom: "cont_1"
  top: "h_conted_0"
  scale_param {
    axis: 0
  }
}
layer {
  name: "lstm2_transform_1"
  type: "InnerProduct"
  bottom: "h_conted_0"
  top: "W_hc_h_0"
  param {
    name: "W_hc"
  }
  inner_product_param {
    num_output: 4000
    bias_term: false
    weight_filler {
      type: "uniform"
      min: -0.08
      max: 0.08
    }
    axis: 2
  }
}
layer {
  name: "lstm2_gate_input_1"
  type: "Eltwise"
  bottom: "W_hc_h_0"
  bottom: "W_xc_x_1"
  top: "gate_input_1"
  eltwise_param {
    operation: SUM
  }
}
layer {
  name: "lstm2_unit_1"
  type: "LSTMUnit"
  bottom: "c_0"
  bottom: "gate_input_1"
  bottom: "cont_1"
  top: "c_1"
  top: "h_1"
}
layer {
  name: "lstm2_"
  type: "Split"
  bottom: "c_1"
  top: "c_T"
}
layer {
  name: "lstm2_h_concat"
  type: "Concat"
  bottom: "h_1"
  top: "h"
  concat_param {
    axis: 0
  }
}
layer {
  name: "h_pseudoloss"
  type: "Reduction"
  bottom: "h"
  top: "h_pseudoloss"
  loss_weight: 1
}
I0924 04:04:48.361088 18207 layer_factory.hpp:77] Creating layer lstm2_
I0924 04:04:48.361099 18207 net.cpp:91] Creating Layer lstm2_
I0924 04:04:48.361105 18207 net.cpp:399] lstm2_ -> x
I0924 04:04:48.361116 18207 net.cpp:399] lstm2_ -> cont
I0924 04:04:48.361171 18207 net.cpp:141] Setting up lstm2_
I0924 04:04:48.361181 18207 net.cpp:148] Top shape: 1 1 1501 (1501)
I0924 04:04:48.361186 18207 net.cpp:148] Top shape: 1 1 (1)
I0924 04:04:48.361191 18207 net.cpp:156] Memory required for data: 6008
I0924 04:04:48.361196 18207 layer_factory.hpp:77] Creating layer lstm2_
I0924 04:04:48.361204 18207 net.cpp:91] Creating Layer lstm2_
I0924 04:04:48.361213 18207 net.cpp:399] lstm2_ -> c_0
I0924 04:04:48.361223 18207 net.cpp:399] lstm2_ -> h_0
I0924 04:04:48.361271 18207 net.cpp:141] Setting up lstm2_
I0924 04:04:48.361280 18207 net.cpp:148] Top shape: 1 1 1000 (1000)
I0924 04:04:48.361286 18207 net.cpp:148] Top shape: 1 1 1000 (1000)
I0924 04:04:48.361291 18207 net.cpp:156] Memory required for data: 14008
I0924 04:04:48.361295 18207 layer_factory.hpp:77] Creating layer lstm2_cont_slice
I0924 04:04:48.361307 18207 net.cpp:91] Creating Layer lstm2_cont_slice
I0924 04:04:48.361312 18207 net.cpp:425] lstm2_cont_slice <- cont
I0924 04:04:48.361320 18207 net.cpp:399] lstm2_cont_slice -> cont_1
I0924 04:04:48.361353 18207 net.cpp:141] Setting up lstm2_cont_slice
I0924 04:04:48.361362 18207 net.cpp:148] Top shape: 1 1 (1)
I0924 04:04:48.361367 18207 net.cpp:156] Memory required for data: 14012
I0924 04:04:48.361371 18207 layer_factory.hpp:77] Creating layer cont_1_lstm2_cont_slice_0_split
I0924 04:04:48.361379 18207 net.cpp:91] Creating Layer cont_1_lstm2_cont_slice_0_split
I0924 04:04:48.361384 18207 net.cpp:425] cont_1_lstm2_cont_slice_0_split <- cont_1
I0924 04:04:48.361395 18207 net.cpp:399] cont_1_lstm2_cont_slice_0_split -> cont_1_lstm2_cont_slice_0_split_0
I0924 04:04:48.361404 18207 net.cpp:399] cont_1_lstm2_cont_slice_0_split -> cont_1_lstm2_cont_slice_0_split_1
I0924 04:04:48.361452 18207 net.cpp:141] Setting up cont_1_lstm2_cont_slice_0_split
I0924 04:04:48.361460 18207 net.cpp:148] Top shape: 1 1 (1)
I0924 04:04:48.361466 18207 net.cpp:148] Top shape: 1 1 (1)
I0924 04:04:48.361470 18207 net.cpp:156] Memory required for data: 14020
I0924 04:04:48.361475 18207 layer_factory.hpp:77] Creating layer lstm2_x_transform
I0924 04:04:48.361487 18207 net.cpp:91] Creating Layer lstm2_x_transform
I0924 04:04:48.361493 18207 net.cpp:425] lstm2_x_transform <- x
I0924 04:04:48.361500 18207 net.cpp:399] lstm2_x_transform -> W_xc_x
I0924 04:04:48.374505 18175 net.cpp:141] Setting up h_pseudoloss
I0924 04:04:48.374541 18181 net.cpp:141] Setting up lstm1_cont_slice
I0924 04:04:48.374578 18181 net.cpp:148] Top shape: 1 1 (1)
I0924 04:04:48.374588 18181 net.cpp:156] Memory required for data: 10008
I0924 04:04:48.374627 18181 layer_factory.hpp:77] Creating layer cont_1_lstm1_cont_slice_0_split
I0924 04:04:48.374656 18181 net.cpp:91] Creating Layer cont_1_lstm1_cont_slice_0_split
I0924 04:04:48.374668 18181 net.cpp:425] cont_1_lstm1_cont_slice_0_split <- cont_1
I0924 04:04:48.374686 18181 net.cpp:399] cont_1_lstm1_cont_slice_0_split -> cont_1_lstm1_cont_slice_0_split_0
…
I0924 04:04:48.375494 18175 net.cpp:219] lstm1_ does not need backward computation.
I0924 04:04:48.375499 18175 net.cpp:261] This network produces output c_T
I0924 04:04:48.375507 18175 net.cpp:261] This network produces output h_pseudoloss
I0924 04:04:48.383113 18175 net.cpp:274] Network initialization done.
I0924 04:04:48.383327 18175 recurrent_layer.cpp:150] Adding parameter 0: W_xc
I0924 04:04:48.383364 18175 recurrent_layer.cpp:150] Adding parameter 1: b_c
I0924 04:04:48.383376 18175 recurrent_layer.cpp:150] Adding parameter 2: W_hc
I0924 04:04:48.384454 18157 net.cpp:141] Setting up lstm1_transform_1
I0924 04:04:48.384503 18157 net.cpp:148] Top shape: 1 1 4000 (4000)
I0924 04:04:48.384521 18157 net.cpp:156] Memory required for data: 62016
I0924 04:04:48.384555 18211 net.cpp:141] Setting up lstm2_
I0924 04:04:48.384558 18157 layer_factory.hpp:77] Creating layer lstm1_gate_input_1
I0924 04:04:48.384591 18211 net.cpp:148] Top shape: 1 1 1000 (1000)
I0924 04:04:48.384599 18211 net.cpp:148] Top shape: 1 1 1000 (1000)
I0924 04:04:48.384603 18211 net.cpp:156] Memory required for data: 14008
I0924 04:04:48.384613 18211 layer_factory.hpp:77] Creating layer lstm2_cont_slice
I0924 04:04:48.384630 18211 net.cpp:91] Creating Layer lstm2_cont_slice
I0924 04:04:48.384625 18157 net.cpp:91] Creating Layer lstm1_gate_input_1
I0924 04:04:48.384637 18211 net.cpp:425] lstm2_cont_slice <- cont
I0924 04:04:48.384649 18211 net.cpp:399] lstm2_cont_slice -> cont_1
I0924 04:04:48.384649 18157 net.cpp:425] lstm1_gate_input_1 <- W_hc_h_0
I0924 04:04:48.384671 18157 net.cpp:425] lstm1_gate_input_1 <- W_xc_x_1
I0924 04:04:48.384693 18157 net.cpp:399] lstm1_gate_input_1 -> gate_input_1
I0924 04:04:48.384721 18181 net.cpp:141] Setting up cont_1_lstm1_cont_slice_0_split
I0924 04:04:48.384743 18181 net.cpp:148] Top shape: 1 1 (1)
I0924 04:04:48.384757 18181 net.cpp:148] Top shape: 1 1 (1)
I0924 04:04:48.384764 18181 net.cpp:156] Memory required for data: 10016
I0924 04:04:48.384773 18181 layer_factory.hpp:77] Creating layer lstm1_x_transform
I0924 04:04:48.384800 18181 net.cpp:91] Creating Layer lstm1_x_transform
I0924 04:04:48.384809 18181 net.cpp:425] lstm1_x_transform <- x
I0924 04:04:48.384824 18181 net.cpp:399] lstm1_x_transform -> W_xc_x
I0924 04:04:48.384872 18211 net.cpp:141] Setting up lstm2_cont_slice
I0924 04:04:48.384884 18211 net.cpp:148] Top shape: 1 1 (1)
I0924 04:04:48.384889 18211 net.cpp:156] Memory required for data: 14012
I0924 04:04:48.384894 18211 layer_factory.hpp:77] Creating layer cont_1_lstm2_cont_slice_0_split
I0924 04:04:48.384908 18211 net.cpp:91] Creating Layer cont_1_lstm2_cont_slice_0_split
I0924 04:04:48.384914 18211 net.cpp:425] cont_1_lstm2_cont_slice_0_split <- cont_1
I0924 04:04:48.384922 18211 net.cpp:399] cont_1_lstm2_cont_slice_0_split -> cont_1_lstm2_cont_slice_0_split_0
I0924 04:04:48.384933 18211 net.cpp:399] cont_1_lstm2_cont_slice_0_split -> cont_1_lstm2_cont_slice_0_split_1
I0924 04:04:48.384974 18157 net.cpp:141] Setting up lstm1_gate_input_1
I0924 04:04:48.385001 18157 net.cpp:148] Top shape: 1 1 4000 (4000)
I0924 04:04:48.385015 18157 net.cpp:156] Memory required for data: 78016
I0924 04:04:48.385031 18157 layer_factory.hpp:77] Creating layer lstm1_unit_1
I0924 04:04:48.385061 18157 net.cpp:91] Creating Layer lstm1_unit_1
I0924 04:04:48.385079 18157 net.cpp:425] lstm1_unit_1 <- c_0
I0924 04:04:48.385097 18157 net.cpp:425] lstm1_unit_1 <- gate_input_1
I0924 04:04:48.385110 18163 net.cpp:141] Setting up lstm2_
I0924 04:04:48.385138 18163 net.cpp:148] Top shape: 1 1 1501 (1501)
I0924 04:04:48.385148 18163 net.cpp:148] Top shape: 1 1 (1)
I0924 04:04:48.385151 18163 net.cpp:156] Memory required for data: 6008
I0924 04:04:48.385159 18163 layer_factory.hpp:77] Creating layer lstm2_
I0924 04:04:48.385166 18175 net.cpp:141] Setting up lstm1
I0924 04:04:48.385174 18163 net.cpp:91] Creating Layer lstm2_
…
I0924 04:05:40.077389 18515 net.cpp:141] Setting up lstm2_
I0924 04:05:40.077460 18515 net.cpp:148] Top shape: 1 1 1000 (1000)
I0924 04:05:40.077476 18515 net.cpp:156] Memory required for data: 94020
I0924 04:05:40.077497 18515 layer_factory.hpp:77] Creating layer lstm2_h_concat
I0924 04:05:40.077533 18515 net.cpp:91] Creating Layer lstm2_h_concat
I0924 04:05:40.077551 18515 net.cpp:425] lstm2_h_concat <- h_1
I0924 04:05:40.077579 18515 net.cpp:399] lstm2_h_concat -> h
I0924 04:05:40.077690 18533 net.cpp:141] Setting up lstm2_x_transform
I0924 04:05:40.077715 18533 net.cpp:148] Top shape: 1 1 4000 (4000)
I0924 04:05:40.077724 18533 net.cpp:156] Memory required for data: 30020
I0924 04:05:40.077749 18533 layer_factory.hpp:77] Creating layer lstm2_W_xc_x_slice
I0924 04:05:40.077769 18533 net.cpp:91] Creating Layer lstm2_W_xc_x_slice
I0924 04:05:40.077780 18533 net.cpp:425] lstm2_W_xc_x_slice <- W_xc_x
I0924 04:05:40.077792 18533 net.cpp:399] lstm2_W_xc_x_slice -> W_xc_x_1
I0924 04:05:40.085120 18539 net.cpp:141] Setting up h_pseudoloss
…
I0924 04:05:40.093972 18515 net.cpp:261] This network produces output c_T
I0924 04:05:40.093994 18515 net.cpp:261] This network produces output h_pseudoloss
I0924 04:05:40.093997 18557 net.cpp:399] predict -> predict
I0924 04:05:40.094010 18515 net.cpp:274] Network initialization done.
I0924 04:05:40.094068 18515 recurrent_layer.cpp:150] Adding parameter 0: W_xc
I0924 04:05:40.094079 18515 recurrent_layer.cpp:150] Adding parameter 1: b_c
I0924 04:05:40.094086 18515 recurrent_layer.cpp:150] Adding parameter 2: W_hc
I0924 04:05:40.094089 18539 net.cpp:141] Setting up lstm2
I0924 04:05:40.094111 18539 net.cpp:148] Top shape: 1 1 1000 (1000)
I0924 04:05:40.094120 18539 net.cpp:156] Memory required for data: 36412
I0924 04:05:40.094138 18539 layer_factory.hpp:77] Creating layer predict
I0924 04:05:40.094149 18539 net.cpp:91] Creating Layer predict
I0924 04:05:40.094157 18539 net.cpp:425] predict <- lstm2
I0924 04:05:40.094166 18539 net.cpp:399] predict -> predict
I0924 04:05:40.094310 18533 net.cpp:141] Setting up lstm2_h_conted_0
I0924 04:05:40.094338 18533 net.cpp:148] Top shape: 1 1 1000 (1000)
I0924 04:05:40.094352 18533 net.cpp:156] Memory required for data: 50020
I0924 04:05:40.094359 18565 net.cpp:141] Setting up lstm1
I0924 04:05:40.094367 18533 layer_factory.hpp:77] Creating layer lstm2_transform_1
I0924 04:05:40.094375 18565 net.cpp:148] Top shape: 1 1 1000 (1000)
I0924 04:05:40.094380 18565 net.cpp:156] Memory required for data: 26408
I0924 04:05:40.094400 18565 layer_factory.hpp:77] Creating layer concat
I0924 04:05:40.094395 18533 net.cpp:91] Creating Layer lstm2_transform_1
I0924 04:05:40.094419 18565 net.cpp:91] Creating Layer concat
I0924 04:05:40.094440 18565 net.cpp:425] concat <- lstm1
I0924 04:05:40.094440 18533 net.cpp:425] lstm2_transform_1 <- h_conted_0
I0924 04:05:40.094450 18565 net.cpp:425] concat <- embedded_input_sentence
I0924 04:05:40.094457 18565 net.cpp:425] concat <- reshaped_stage_indicator
I0924 04:05:40.094465 18565 net.cpp:399] concat -> lstm1_video_sequence
I0924 04:05:40.094503 18533 net.cpp:399] lstm2_transform_1 -> W_hc_h_0
I0924 04:05:40.186074 18515 net.cpp:141] Setting up lstm2
I0924 04:05:40.186549 18515 net.cpp:148] Top shape: 1 1 1000 (1000)
I0924 04:05:40.186692 18515 net.cpp:156] Memory required for data: 36412
I0924 04:05:40.186846 18515 layer_factory.hpp:77] Creating layer predict
I0924 04:05:40.186990 18515 net.cpp:91] Creating Layer predict
I0924 04:05:40.187160 18515 net.cpp:425] predict <- lstm2
I0924 04:05:40.187292 18515 net.cpp:399] predict -> predict
I0924 04:05:40.273607 18565 net.cpp:141] Setting up concat
I0924 04:05:40.273706 18565 net.cpp:148] Top shape: 1 1 1501 (1501)
I0924 04:05:40.273718 18565 net.cpp:156] Memory required for data: 32412
I0924 04:05:40.273732 18565 layer_factory.hpp:77] Creating layer lstm2
I0924 04:05:40.278753 18565 net.cpp:91] Creating Layer lstm2
I0924 04:05:40.278813 18565 net.cpp:425] lstm2 <- lstm1_video_sequence
I0924 04:05:40.278832 18565 net.cpp:425] lstm2 <- cont_sentence_input_1_split_1
I0924 04:05:40.278861 18565 net.cpp:399] lstm2 -> lstm2
I0924 04:05:40.278894 18565 recurrent_layer.cpp:20] Initializing recurrent layer: assuming input batch contains 1 timesteps of 1 independent streams.
I0924 04:05:40.281834 18565 net.cpp:49] Initializing net from parameters: 
layer {
  name: "lstm2_"
  type: "Input"
  top: "x"
  top: "cont"
  input_param {
    shape {
      dim: 1
      dim: 1
      dim: 1501
    }
    shape {
      dim: 1
      dim: 1
    }
  }
}
layer {
  name: "lstm2_"
  type: "Input"
  top: "c_0"
  top: "h_0"
  input_param {
    shape {
      dim: 1
      dim: 1
      dim: 1000
    }
    shape {
      dim: 1
      dim: 1
      dim: 1000
    }
  }
}
layer {
  name: "lstm2_cont_slice"
  type: "Slice"
  bottom: "cont"
  top: "cont_1"
  slice_param {
    axis: 0
  }
}
layer {
  name: "lstm2_x_transform"
  type: "InnerProduct"
  bottom: "x"
  top: "W_xc_x"
  param {
    name: "W_xc"
  }
  param {
    name: "b_c"
  }
  propagate_down: true
  inner_product_param {
    num_output: 4000
    bias_term: true
    weight_filler {
      type: "uniform"
      min: -0.08
      max: 0.08
    }
    bias_filler {
      type: "constant"
      value: 0
    }
    axis: 2
  }
}
layer {
  name: "lstm2_W_xc_x_slice"
  type: "Slice"
  bottom: "W_xc_x"
  top: "W_xc_x_1"
  slice_param {
    axis: 0
  }
}
layer {
  name: "lstm2_h_conted_0"
  type: "Scale"
  bottom: "h_0"
  bottom: "cont_1"
  top: "h_conted_0"
  scale_param {
    axis: 0
  }
}
layer {
  name: "lstm2_transform_1"
  type: "InnerProduct"
  bottom: "h_conted_0"
  top: "W_hc_h_0"
  param {
    name: "W_hc"
  }
  inner_product_param {
    num_output: 4000
    bias_term: false
    weight_filler {
      type: "uniform"
      min: -0.08
      max: 0.08
    }
    axis: 2
  }
}
layer {
  name: "lstm2_gate_input_1"
  type: "Eltwise"
  bottom: "W_hc_h_0"
  bottom: "W_xc_x_1"
  top: "gate_input_1"
  eltwise_param {
    operation: SUM
  }
}
layer {
  name: "lstm2_unit_1"
  type: "LSTMUnit"
  bottom: "c_0"
  bottom: "gate_input_1"
  bottom: "cont_1"
  top: "c_1"
  top: "h_1"
}
layer {
  name: "lstm2_"
  type: "Split"
  bottom: "c_1"
  top: "c_T"
}
layer {
  name: "lstm2_h_concat"
  type: "Concat"
  bottom: "h_1"
  top: "h"
  concat_param {
    axis: 0
  }
}
layer {
  name: "h_pseudoloss"
  type: "Reduction"
  bottom: "h"
  top: "h_pseudoloss"
  loss_weight: 1
}
I0924 04:05:40.282027 18565 layer_factory.hpp:77] Creating layer lstm2_
I0924 04:05:40.282050 18565 net.cpp:91] Creating Layer lstm2_
I0924 04:05:40.282063 18565 net.cpp:399] lstm2_ -> x
I0924 04:05:40.282084 18565 net.cpp:399] lstm2_ -> cont
I0924 04:05:40.282737 18569 net.cpp:141] Setting up lstm2_transform_1
I0924 04:05:40.282785 18569 net.cpp:148] Top shape: 1 1 4000 (4000)
I0924 04:05:40.282798 18569 net.cpp:156] Memory required for data: 66020
I0924 04:05:40.282830 18569 layer_factory.hpp:77] Creating layer lstm2_gate_input_1
I0924 04:05:40.284693 18569 net.cpp:91] Creating Layer lstm2_gate_input_1
I0924 04:05:40.284747 18569 net.cpp:425] lstm2_gate_input_1 <- W_hc_h_0
I0924 04:05:40.284765 18569 net.cpp:425] lstm2_gate_input_1 <- W_xc_x_1
I0924 04:05:40.284783 18569 net.cpp:399] lstm2_gate_input_1 -> gate_input_1
I0924 04:05:40.378316 18519 net.cpp:141] Setting up lstm2_transform_1
I0924 04:05:40.378371 18519 net.cpp:148] Top shape: 1 1 4000 (4000)
I0924 04:05:40.378377 18519 net.cpp:156] Memory required for data: 66020
I0924 04:05:40.378398 18519 layer_factory.hpp:77] Creating layer lstm2_gate_input_1
I0924 04:05:40.378394 18565 net.cpp:141] Setting up lstm2_
I0924 04:05:40.378415 18565 net.cpp:148] Top shape: 1 1 1501 (1501)
I0924 04:05:40.378423 18519 net.cpp:91] Creating Layer lstm2_gate_input_1
I0924 04:05:40.378423 18565 net.cpp:148] Top shape: 1 1 (1)
I0924 04:05:40.378444 18519 net.cpp:425] lstm2_gate_input_1 <- W_hc_h_0
I0924 04:05:40.378448 18565 net.cpp:156] Memory required for data: 6008
I0924 04:05:40.378453 18519 net.cpp:425] lstm2_gate_input_1 <- W_xc_x_1
I0924 04:05:40.378454 18565 layer_factory.hpp:77] Creating layer lstm2_
I0924 04:05:40.378460 18519 net.cpp:399] lstm2_gate_input_1 -> gate_input_1
I0924 04:05:40.378473 18565 net.cpp:91] Creating Layer lstm2_
I0924 04:05:40.378480 18565 net.cpp:399] lstm2_ -> c_0
I0924 04:05:40.378494 18565 net.cpp:399] lstm2_ -> h_0
I0924 04:05:40.378522 18519 net.cpp:141] Setting up lstm2_gate_input_1
I0924 04:05:40.378532 18519 net.cpp:148] Top shape: 1 1 4000 (4000)
I0924 04:05:40.378536 18519 net.cpp:156] Memory required for data: 82020
I0924 04:05:40.378541 18519 layer_factory.hpp:77] Creating layer lstm2_unit_1
I0924 04:05:40.378549 18519 net.cpp:91] Creating Layer lstm2_unit_1
I0924 04:05:40.378554 18519 net.cpp:425] lstm2_unit_1 <- c_0
I0924 04:05:40.378561 18519 net.cpp:425] lstm2_unit_1 <- gate_input_1
I0924 04:05:40.378568 18519 net.cpp:425] lstm2_unit_1 <- cont_1_lstm2_cont_slice_0_split_1
I0924 04:05:40.378569 18569 net.cpp:141] Setting up lstm2_gate_input_1
I0924 04:05:40.378582 18569 net.cpp:148] Top shape: 1 1 4000 (4000)
I0924 04:05:40.378587 18569 net.cpp:156] Memory required for data: 82020
I0924 04:05:40.378587 18519 net.cpp:399] lstm2_unit_1 -> c_1
I0924 04:05:40.378593 18569 layer_factory.hpp:77] Creating layer lstm2_unit_1
I0924 04:05:40.378610 18569 net.cpp:91] Creating Layer lstm2_unit_1
I0924 04:05:40.378617 18569 net.cpp:425] lstm2_unit_1 <- c_0
I0924 04:05:40.378618 18519 net.cpp:399] lstm2_unit_1 -> h_1
I0924 04:05:40.378624 18569 net.cpp:425] lstm2_unit_1 <- gate_input_1
I0924 04:05:40.378630 18569 net.cpp:425] lstm2_unit_1 <- cont_1_lstm2_cont_slice_0_split_1
I0924 04:05:40.378660 18569 net.cpp:399] lstm2_unit_1 -> c_1
I0924 04:05:40.378662 18533 net.cpp:141] Setting up lstm2_transform_1
I0924 04:05:40.378675 18569 net.cpp:399] lstm2_unit_1 -> h_1
I0924 04:05:40.378682 18533 net.cpp:148] Top shape: 1 1 4000 (4000)
I0924 04:05:40.378691 18533 net.cpp:156] Memory required for data: 66020
I0924 04:05:40.378707 18533 layer_factory.hpp:77] Creating layer lstm2_gate_input_1
I0924 04:05:40.378734 18533 net.cpp:91] Creating Layer lstm2_gate_input_1
I0924 04:05:40.378743 18533 net.cpp:425] lstm2_gate_input_1 <- W_hc_h_0
I0924 04:05:40.378751 18533 net.cpp:425] lstm2_gate_input_1 <- W_xc_x_1
I0924 04:05:40.378758 18533 net.cpp:399] lstm2_gate_input_1 -> gate_input_1
I0924 04:05:40.378877 18569 net.cpp:141] Setting up lstm2_unit_1
I0924 04:05:40.378890 18569 net.cpp:148] Top shape: 1 1 1000 (1000)
I0924 04:05:40.378895 18569 net.cpp:148] Top shape: 1 1 1000 (1000)
I0924 04:05:40.378900 18569 net.cpp:156] Memory required for data: 90020
I0924 04:05:40.378904 18569 layer_factory.hpp:77] Creating layer lstm2_
I0924 04:05:40.378914 18569 net.cpp:91] Creating Layer lstm2_
I0924 04:05:40.378919 18569 net.cpp:425] lstm2_ <- c_1
I0924 04:05:40.378917 18533 net.cpp:141] Setting up lstm2_gate_input_1
I0924 04:05:40.378927 18569 net.cpp:399] lstm2_ -> c_T
I0924 04:05:40.378929 18533 net.cpp:148] Top shape: 1 1 4000 (4000)
I0924 04:05:40.378934 18533 net.cpp:156] Memory required for data: 82020
I0924 04:05:40.378939 18533 layer_factory.hpp:77] Creating layer lstm2_unit_1
I0924 04:05:40.378947 18533 net.cpp:91] Creating Layer lstm2_unit_1
I0924 04:05:40.378952 18533 net.cpp:425] lstm2_unit_1 <- c_0
I0924 04:05:40.378959 18533 net.cpp:425] lstm2_unit_1 <- gate_input_1
I0924 04:05:40.378965 18533 net.cpp:425] lstm2_unit_1 <- cont_1_lstm2_cont_slice_0_split_1
I0924 04:05:40.378968 18569 net.cpp:141] Setting up lstm2_
I0924 04:05:40.378973 18533 net.cpp:399] lstm2_unit_1 -> c_1
I0924 04:05:40.378976 18569 net.cpp:148] Top shape: 1 1 1000 (1000)
I0924 04:05:40.378981 18533 net.cpp:399] lstm2_unit_1 -> h_1
I0924 04:05:40.378981 18569 net.cpp:156] Memory required for data: 94020
I0924 04:05:40.379000 18569 layer_factory.hpp:77] Creating layer lstm2_h_concat
I0924 04:05:40.379011 18569 net.cpp:91] Creating Layer lstm2_h_concat
I0924 04:05:40.379016 18569 net.cpp:425] lstm2_h_concat <- h_1
I0924 04:05:40.379024 18569 net.cpp:399] lstm2_h_concat -> h
I0924 04:05:40.379075 18533 net.cpp:141] Setting up lstm2_unit_1
I0924 04:05:40.379091 18533 net.cpp:148] Top shape: 1 1 1000 (1000)
I0924 04:05:40.379101 18533 net.cpp:148] Top shape: 1 1 1000 (1000)
I0924 04:05:40.379108 18533 net.cpp:156] Memory required for data: 90020
I0924 04:05:40.379117 18533 layer_factory.hpp:77] Creating layer lstm2_
I0924 04:05:40.379115 18519 net.cpp:141] Setting up lstm2_unit_1
I0924 04:05:40.379145 18533 net.cpp:91] Creating Layer lstm2_
I0924 04:05:40.379148 18519 net.cpp:148] Top shape: 1 1 1000 (1000)
I0924 04:05:40.379158 18565 net.cpp:141] Setting up lstm2_
I0924 04:05:40.379170 18519 net.cpp:148] Top shape: 1 1 1000 (1000)
I0924 04:05:40.379164 18533 net.cpp:425] lstm2_ <- c_1
I0924 04:05:40.379179 18519 net.cpp:156] Memory required for data: 90020
I0924 04:05:40.379185 18565 net.cpp:148] Top shape: 1 1 1000 (1000)
I0924 04:05:40.379186 18569 net.cpp:141] Setting up lstm2_h_concat
I0924 04:05:40.379191 18533 net.cpp:399] lstm2_ -> c_T
I0924 04:05:40.379194 18565 net.cpp:148] Top shape: 1 1 1000 (1000)
I0924 04:05:40.379189 18519 layer_factory.hpp:77] Creating layer lstm2_
I0924 04:05:40.379205 18565 net.cpp:156] Memory required for data: 14008
I0924 04:05:40.379207 18569 net.cpp:148] Top shape: 1 1 1000 (1000)
I0924 04:05:40.379211 18565 layer_factory.hpp:77] Creating layer lstm2_cont_slice
I0924 04:05:40.379215 18519 net.cpp:91] Creating Layer lstm2_
I0924 04:05:40.379212 18569 net.cpp:156] Memory required for data: 98020
I0924 04:05:40.379227 18565 net.cpp:91] Creating Layer lstm2_cont_slice
I0924 04:05:40.379228 18519 net.cpp:425] lstm2_ <- c_1
I0924 04:05:40.379233 18565 net.cpp:425] lstm2_cont_slice <- cont
I0924 04:05:40.379232 18569 layer_factory.hpp:77] Creating layer h_pseudoloss
I0924 04:05:40.379241 18519 net.cpp:399] lstm2_ -> c_T
I0924 04:05:40.379246 18565 net.cpp:399] lstm2_cont_slice -> cont_1
I0924 04:05:40.379251 18569 net.cpp:91] Creating Layer h_pseudoloss
I0924 04:05:40.379257 18569 net.cpp:425] h_pseudoloss <- h
I0924 04:05:40.379254 18533 net.cpp:141] Setting up lstm2_
I0924 04:05:40.379266 18569 net.cpp:399] h_pseudoloss -> h_pseudoloss
I0924 04:05:40.379271 18533 net.cpp:148] Top shape: 1 1 1000 (1000)
I0924 04:05:40.379279 18533 net.cpp:156] Memory required for data: 94020
I0924 04:05:40.379287 18533 layer_factory.hpp:77] Creating layer lstm2_h_concat
I0924 04:05:40.379302 18533 net.cpp:91] Creating Layer lstm2_h_concat
I0924 04:05:40.379302 18519 net.cpp:141] Setting up lstm2_
I0924 04:05:40.379322 18533 net.cpp:425] lstm2_h_concat <- h_1
I0924 04:05:40.379329 18519 net.cpp:148] Top shape: 1 1 1000 (1000)
I0924 04:05:40.379338 18519 net.cpp:156] Memory required for data: 94020
I0924 04:05:40.379340 18533 net.cpp:399] lstm2_h_concat -> h
I0924 04:05:40.379348 18519 layer_factory.hpp:77] Creating layer lstm2_h_concat
I0924 04:05:40.379362 18519 net.cpp:91] Creating Layer lstm2_h_concat
I0924 04:05:40.379372 18519 net.cpp:425] lstm2_h_concat <- h_1
I0924 04:05:40.379384 18519 net.cpp:399] lstm2_h_concat -> h
I0924 04:05:40.379405 18533 net.cpp:141] Setting up lstm2_h_concat
I0924 04:05:40.379420 18533 net.cpp:148] Top shape: 1 1 1000 (1000)
I0924 04:05:40.379428 18533 net.cpp:156] Memory required for data: 98020
I0924 04:05:40.379436 18533 layer_factory.hpp:77] Creating layer h_pseudoloss
I0924 04:05:40.379446 18519 net.cpp:141] Setting up lstm2_h_concat
I0924 04:05:40.379449 18533 net.cpp:91] Creating Layer h_pseudoloss
I0924 04:05:40.379457 18533 net.cpp:425] h_pseudoloss <- h
I0924 04:05:40.379457 18519 net.cpp:148] Top shape: 1 1 1000 (1000)
I0924 04:05:40.379474 18519 net.cpp:156] Memory required for data: 98020
I0924 04:05:40.379474 18533 net.cpp:399] h_pseudoloss -> h_pseudoloss
I0924 04:05:40.379495 18519 layer_factory.hpp:77] Creating layer h_pseudoloss
I0924 04:05:40.379497 18565 net.cpp:141] Setting up lstm2_cont_slice
I0924 04:05:40.379508 18565 net.cpp:148] Top shape: 1 1 (1)
I0924 04:05:40.379516 18565 net.cpp:156] Memory required for data: 14012
I0924 04:05:40.379506 18519 net.cpp:91] Creating Layer h_pseudoloss
I0924 04:05:40.379524 18565 layer_factory.hpp:77] Creating layer cont_1_lstm2_cont_slice_0_split
I0924 04:05:40.379531 18519 net.cpp:425] h_pseudoloss <- h
I0924 04:05:40.379534 18565 net.cpp:91] Creating Layer cont_1_lstm2_cont_slice_0_split
I0924 04:05:40.379539 18565 net.cpp:425] cont_1_lstm2_cont_slice_0_split <- cont_1
I0924 04:05:40.379540 18519 net.cpp:399] h_pseudoloss -> h_pseudoloss
I0924 04:05:40.379545 18565 net.cpp:399] cont_1_lstm2_cont_slice_0_split -> cont_1_lstm2_cont_slice_0_split_0
I0924 04:05:40.379554 18565 net.cpp:399] cont_1_lstm2_cont_slice_0_split -> cont_1_lstm2_cont_slice_0_split_1
I0924 04:05:40.379624 18565 net.cpp:141] Setting up cont_1_lstm2_cont_slice_0_split
I0924 04:05:40.379634 18565 net.cpp:148] Top shape: 1 1 (1)
I0924 04:05:40.379640 18565 net.cpp:148] Top shape: 1 1 (1)
I0924 04:05:40.379644 18565 net.cpp:156] Memory required for data: 14020
I0924 04:05:40.379649 18565 layer_factory.hpp:77] Creating layer lstm2_x_transform
I0924 04:05:40.379665 18565 net.cpp:91] Creating Layer lstm2_x_transform
I0924 04:05:40.379672 18565 net.cpp:425] lstm2_x_transform <- x
I0924 04:05:40.379678 18565 net.cpp:399] lstm2_x_transform -> W_xc_x
I0924 04:05:40.379823 18533 net.cpp:141] Setting up h_pseudoloss
…
I0924 04:05:40.396930 18519 net.cpp:219] cont_1_lstm2_cont_slice_0_split does not need backward computation.
I0924 04:05:40.396939 18519 net.cpp:219] lstm2_cont_slice does not need backward computation.
I0924 04:05:40.396952 18519 net.cpp:219] lstm2_ does not need backward computation.
I0924 04:05:40.396960 18519 net.cpp:219] lstm2_ does not need backward computation.
I0924 04:05:40.396967 18519 net.cpp:261] This network produces output c_T
I0924 04:05:40.396981 18519 net.cpp:261] This network produces output h_pseudoloss
I0924 04:05:40.397006 18519 net.cpp:274] Network initialization done.
I0924 04:05:40.397043 18569 net.cpp:141] Setting up lstm2
I0924 04:05:40.397070 18569 net.cpp:148] Top shape: 1 1 1000 (1000)
I0924 04:05:40.397079 18569 net.cpp:156] Memory required for data: 36412
I0924 04:05:40.397081 18519 recurrent_layer.cpp:150] Adding parameter 0: W_xc
I0924 04:05:40.397094 18519 recurrent_layer.cpp:150] Adding parameter 1: b_c
I0924 04:05:40.397102 18519 recurrent_layer.cpp:150] Adding parameter 2: W_hc
I0924 04:05:40.397112 18569 layer_factory.hpp:77] Creating layer predict
I0924 04:05:40.397121 18533 net.cpp:141] Setting up lstm2
I0924 04:05:40.397140 18569 net.cpp:91] Creating Layer predict
I0924 04:05:40.397158 18569 net.cpp:425] predict <- lstm2
I0924 04:05:40.397172 18533 net.cpp:148] Top shape: 1 1 1000 (1000)
I0924 04:05:40.397177 18569 net.cpp:399] predict -> predict
I0924 04:05:40.397183 18533 net.cpp:156] Memory required for data: 36412
I0924 04:05:40.397212 18533 layer_factory.hpp:77] Creating layer predict
I0924 04:05:40.397233 18533 net.cpp:91] Creating Layer predict
I0924 04:05:40.397269 18533 net.cpp:425] predict <- lstm2
I0924 04:05:40.397286 18533 net.cpp:399] predict -> predict
I0924 04:05:40.397316 18519 net.cpp:141] Setting up lstm2
I0924 04:05:40.397338 18519 net.cpp:148] Top shape: 1 1 1000 (1000)
I0924 04:05:40.397346 18519 net.cpp:156] Memory required for data: 36412
I0924 04:05:40.397368 18519 layer_factory.hpp:77] Creating layer predict
I0924 04:05:40.397383 18519 net.cpp:91] Creating Layer predict
I0924 04:05:40.397394 18519 net.cpp:425] predict <- lstm2
I0924 04:05:40.397406 18519 net.cpp:399] predict -> predict
I0924 04:05:40.701143 18565 net.cpp:141] Setting up lstm2_x_transform
I0924 04:05:40.701197 18565 net.cpp:148] Top shape: 1 1 4000 (4000)
I0924 04:05:40.701207 18565 net.cpp:156] Memory required for data: 30020
I0924 04:05:40.701232 18565 layer_factory.hpp:77] Creating layer lstm2_W_xc_x_slice
I0924 04:05:40.701251 18565 net.cpp:91] Creating Layer lstm2_W_xc_x_slice
I0924 04:05:40.701262 18565 net.cpp:425] lstm2_W_xc_x_slice <- W_xc_x
I0924 04:05:40.701282 18565 net.cpp:399] lstm2_W_xc_x_slice -> W_xc_x_1
I0924 04:05:40.701302 18525 net.cpp:141] Setting up predict
I0924 04:05:40.701323 18525 net.cpp:148] Top shape: 1 1 46168 (46168)
I0924 04:05:40.701333 18525 net.cpp:156] Memory required for data: 221084
I0924 04:05:40.701354 18525 layer_factory.hpp:77] Creating layer probs
I0924 04:05:40.701355 18515 net.cpp:141] Setting up predict
I0924 04:05:40.701370 18525 net.cpp:91] Creating Layer probs
I0924 04:05:40.701380 18515 net.cpp:148] Top shape: 1 1 46168 (46168)
I0924 04:05:40.701386 18525 net.cpp:425] probs <- predict
I0924 04:05:40.701390 18515 net.cpp:156] Memory required for data: 221084
I0924 04:05:40.701406 18525 net.cpp:399] probs -> probs
I0924 04:05:40.701407 18515 layer_factory.hpp:77] Creating layer probs
I0924 04:05:40.701436 18515 net.cpp:91] Creating Layer probs
I0924 04:05:40.701447 18515 net.cpp:425] probs <- predict
I0924 04:05:40.701458 18515 net.cpp:399] probs -> probs
I0924 04:05:40.702710 18565 net.cpp:141] Setting up lstm2_W_xc_x_slice
I0924 04:05:40.702731 18565 net.cpp:148] Top shape: 1 1 4000 (4000)
I0924 04:05:40.702739 18565 net.cpp:156] Memory required for data: 46020
I0924 04:05:40.702747 18565 layer_factory.hpp:77] Creating layer lstm2_h_conted_0
I0924 04:05:40.702762 18565 net.cpp:91] Creating Layer lstm2_h_conted_0
I0924 04:05:40.702770 18565 net.cpp:425] lstm2_h_conted_0 <- h_0
I0924 04:05:40.702780 18565 net.cpp:425] lstm2_h_conted_0 <- cont_1_lstm2_cont_slice_0_split_0
I0924 04:05:40.702796 18565 net.cpp:399] lstm2_h_conted_0 -> h_conted_0
I0924 04:05:40.702955 18565 net.cpp:141] Setting up lstm2_h_conted_0
I0924 04:05:40.702970 18565 net.cpp:148] Top shape: 1 1 1000 (1000)
I0924 04:05:40.702976 18565 net.cpp:156] Memory required for data: 50020
I0924 04:05:40.702985 18565 layer_factory.hpp:77] Creating layer lstm2_transform_1
I0924 04:05:40.703003 18565 net.cpp:91] Creating Layer lstm2_transform_1
I0924 04:05:40.703011 18565 net.cpp:425] lstm2_transform_1 <- h_conted_0
I0924 04:05:40.703023 18565 net.cpp:399] lstm2_transform_1 -> W_hc_h_0
I0924 04:05:40.714467 18539 net.cpp:141] Setting up predict
I0924 04:05:40.714524 18539 net.cpp:148] Top shape: 1 1 46168 (46168)
I0924 04:05:40.714534 18539 net.cpp:156] Memory required for data: 221084
I0924 04:05:40.714553 18539 layer_factory.hpp:77] Creating layer probs
I0924 04:05:40.714576 18539 net.cpp:91] Creating Layer probs
I0924 04:05:40.714586 18539 net.cpp:425] probs <- predict
I0924 04:05:40.714613 18539 net.cpp:399] probs -> probs
I0924 04:05:40.759567 18557 net.cpp:141] Setting up predict
I0924 04:05:40.759618 18557 net.cpp:148] Top shape: 1 1 46168 (46168)
I0924 04:05:40.759624 18557 net.cpp:156] Memory required for data: 221084
I0924 04:05:40.759639 18557 layer_factory.hpp:77] Creating layer probs
I0924 04:05:40.759660 18557 net.cpp:91] Creating Layer probs
I0924 04:05:40.759667 18557 net.cpp:425] probs <- predict
I0924 04:05:40.759677 18557 net.cpp:399] probs -> probs
I0924 04:05:40.768584 18565 net.cpp:141] Setting up lstm2_transform_1
I0924 04:05:40.769059 18565 net.cpp:148] Top shape: 1 1 4000 (4000)
I0924 04:05:40.769250 18565 net.cpp:156] Memory required for data: 66020
I0924 04:05:40.769407 18565 layer_factory.hpp:77] Creating layer lstm2_gate_input_1
I0924 04:05:40.769577 18565 net.cpp:91] Creating Layer lstm2_gate_input_1
I0924 04:05:40.769726 18565 net.cpp:425] lstm2_gate_input_1 <- W_hc_h_0
I0924 04:05:40.769867 18565 net.cpp:425] lstm2_gate_input_1 <- W_xc_x_1
I0924 04:05:40.770009 18565 net.cpp:399] lstm2_gate_input_1 -> gate_input_1
I0924 04:05:40.771134 18565 net.cpp:141] Setting up lstm2_gate_input_1
I0924 04:05:40.771354 18565 net.cpp:148] Top shape: 1 1 4000 (4000)
I0924 04:05:40.771498 18565 net.cpp:156] Memory required for data: 82020
I0924 04:05:40.771626 18565 layer_factory.hpp:77] Creating layer lstm2_unit_1
I0924 04:05:40.771783 18565 net.cpp:91] Creating Layer lstm2_unit_1
I0924 04:05:40.771914 18565 net.cpp:425] lstm2_unit_1 <- c_0
I0924 04:05:40.772047 18565 net.cpp:425] lstm2_unit_1 <- gate_input_1
I0924 04:05:40.772212 18565 net.cpp:425] lstm2_unit_1 <- cont_1_lstm2_cont_slice_0_split_1
I0924 04:05:40.772346 18565 net.cpp:399] lstm2_unit_1 -> c_1
I0924 04:05:40.772483 18565 net.cpp:399] lstm2_unit_1 -> h_1
I0924 04:05:40.776917 18565 net.cpp:141] Setting up lstm2_unit_1
I0924 04:05:40.777356 18565 net.cpp:148] Top shape: 1 1 1000 (1000)
I0924 04:05:40.777503 18565 net.cpp:148] Top shape: 1 1 1000 (1000)
I0924 04:05:40.777638 18565 net.cpp:156] Memory required for data: 90020
I0924 04:05:40.777662 18565 layer_factory.hpp:77] Creating layer lstm2_
I0924 04:05:40.777688 18565 net.cpp:91] Creating Layer lstm2_
I0924 04:05:40.777700 18565 net.cpp:425] lstm2_ <- c_1
I0924 04:05:40.777719 18565 net.cpp:399] lstm2_ -> c_T
I0924 04:05:40.777915 18565 net.cpp:141] Setting up lstm2_
I0924 04:05:40.777935 18565 net.cpp:148] Top shape: 1 1 1000 (1000)
I0924 04:05:40.777943 18565 net.cpp:156] Memory required for data: 94020
I0924 04:05:40.777951 18565 layer_factory.hpp:77] Creating layer lstm2_h_concat
I0924 04:05:40.777968 18565 net.cpp:91] Creating Layer lstm2_h_concat
I0924 04:05:40.777978 18565 net.cpp:425] lstm2_h_concat <- h_1
I0924 04:05:40.777992 18565 net.cpp:399] lstm2_h_concat -> h
I0924 04:05:40.779518 18565 net.cpp:141] Setting up lstm2_h_concat
I0924 04:05:40.779541 18565 net.cpp:148] Top shape: 1 1 1000 (1000)
I0924 04:05:40.779548 18565 net.cpp:156] Memory required for data: 98020
I0924 04:05:40.779557 18565 layer_factory.hpp:77] Creating layer h_pseudoloss
I0924 04:05:40.779575 18565 net.cpp:91] Creating Layer h_pseudoloss
I0924 04:05:40.779584 18565 net.cpp:425] h_pseudoloss <- h
I0924 04:05:40.779597 18565 net.cpp:399] h_pseudoloss -> h_pseudoloss
I0924 04:05:40.779780 18565 net.cpp:141] Setting up h_pseudoloss
…
I0924 04:05:40.780068 18565 net.cpp:219] lstm2_ does not need backward computation.
I0924 04:05:40.780074 18565 net.cpp:261] This network produces output c_T
I0924 04:05:40.780083 18565 net.cpp:261] This network produces output h_pseudoloss
I0924 04:05:40.780112 18565 net.cpp:274] Network initialization done.
I0924 04:05:40.780184 18565 recurrent_layer.cpp:150] Adding parameter 0: W_xc
I0924 04:05:40.780195 18565 recurrent_layer.cpp:150] Adding parameter 1: b_c
I0924 04:05:40.780205 18565 recurrent_layer.cpp:150] Adding parameter 2: W_hc
I0924 04:05:40.784446 18565 net.cpp:141] Setting up lstm2
I0924 04:05:40.784786 18565 net.cpp:148] Top shape: 1 1 1000 (1000)
I0924 04:05:40.784914 18565 net.cpp:156] Memory required for data: 36412
I0924 04:05:40.785053 18565 layer_factory.hpp:77] Creating layer predict
I0924 04:05:40.785220 18565 net.cpp:91] Creating Layer predict
I0924 04:05:40.785342 18565 net.cpp:425] predict <- lstm2
I0924 04:05:40.785473 18565 net.cpp:399] predict -> predict
I0924 04:05:40.927228 18533 net.cpp:141] Setting up predict
I0924 04:05:40.927598 18533 net.cpp:148] Top shape: 1 1 46168 (46168)
I0924 04:05:40.927719 18533 net.cpp:156] Memory required for data: 221084
I0924 04:05:40.927848 18533 layer_factory.hpp:77] Creating layer probs
I0924 04:05:40.928019 18533 net.cpp:91] Creating Layer probs
I0924 04:05:40.928177 18533 net.cpp:425] probs <- predict
I0924 04:05:40.928299 18533 net.cpp:399] probs -> probs
I0924 04:05:41.023552 18569 net.cpp:141] Setting up predict
I0924 04:05:41.023605 18569 net.cpp:148] Top shape: 1 1 46168 (46168)
I0924 04:05:41.023614 18569 net.cpp:156] Memory required for data: 221084
I0924 04:05:41.023633 18569 layer_factory.hpp:77] Creating layer probs
I0924 04:05:41.023661 18569 net.cpp:91] Creating Layer probs
I0924 04:05:41.023672 18569 net.cpp:425] probs <- predict
I0924 04:05:41.023686 18569 net.cpp:399] probs -> probs
I0924 04:05:41.082533 18525 net.cpp:141] Setting up probs
I0924 04:05:41.082586 18525 net.cpp:148] Top shape: 1 1 46168 (46168)
I0924 04:05:41.082612 18525 net.cpp:156] Memory required for data: 405756
I0924 04:05:41.082625 18525 net.cpp:219] probs does not need backward computation.
I0924 04:05:41.082636 18525 net.cpp:219] predict does not need backward computation.
I0924 04:05:41.082648 18525 net.cpp:219] lstm2 does not need backward computation.
I0924 04:05:41.082658 18525 net.cpp:219] concat does not need backward computation.
I0924 04:05:41.082666 18525 net.cpp:219] lstm1 does not need backward computation.
I0924 04:05:41.082677 18525 net.cpp:219] embedding does not need backward computation.
I0924 04:05:41.082685 18525 net.cpp:219] reshape_stage_indicator does not need backward computation.
I0924 04:05:41.082693 18525 net.cpp:219] reshape_frames does not need backward computation.
I0924 04:05:41.082701 18525 net.cpp:219] embed_encoder does not need backward computation.
I0924 04:05:41.082710 18525 net.cpp:219] cont_sentence_input_1_split does not need backward computation.
I0924 04:05:41.082720 18525 net.cpp:219] input does not need backward computation.
I0924 04:05:41.082726 18525 net.cpp:261] This network produces output probs
I0924 04:05:41.082752 18525 net.cpp:274] Network initialization done.
I0924 04:05:41.095777 18515 net.cpp:141] Setting up probs
I0924 04:05:41.095829 18515 net.cpp:148] Top shape: 1 1 46168 (46168)
I0924 04:05:41.095837 18515 net.cpp:156] Memory required for data: 405756
I0924 04:05:41.095849 18515 net.cpp:219] probs does not need backward computation.
I0924 04:05:41.095860 18515 net.cpp:219] predict does not need backward computation.
I0924 04:05:41.095867 18515 net.cpp:219] lstm2 does not need backward computation.
I0924 04:05:41.095875 18515 net.cpp:219] concat does not need backward computation.
I0924 04:05:41.095885 18515 net.cpp:219] lstm1 does not need backward computation.
I0924 04:05:41.095893 18515 net.cpp:219] embedding does not need backward computation.
I0924 04:05:41.095902 18515 net.cpp:219] reshape_stage_indicator does not need backward computation.
I0924 04:05:41.095911 18515 net.cpp:219] reshape_frames does not need backward computation.
I0924 04:05:41.095918 18515 net.cpp:219] embed_encoder does not need backward computation.
I0924 04:05:41.095927 18515 net.cpp:219] cont_sentence_input_1_split does not need backward computation.
I0924 04:05:41.095934 18515 net.cpp:219] input does not need backward computation.
I0924 04:05:41.095942 18515 net.cpp:261] This network produces output probs
I0924 04:05:41.095965 18515 net.cpp:274] Network initialization done.
I0924 04:05:41.097571 18539 net.cpp:141] Setting up probs
I0924 04:05:41.097595 18539 net.cpp:148] Top shape: 1 1 46168 (46168)
I0924 04:05:41.097604 18539 net.cpp:156] Memory required for data: 405756
I0924 04:05:41.097614 18539 net.cpp:219] probs does not need backward computation.
I0924 04:05:41.097621 18539 net.cpp:219] predict does not need backward computation.
I0924 04:05:41.097630 18539 net.cpp:219] lstm2 does not need backward computation.
I0924 04:05:41.097638 18539 net.cpp:219] concat does not need backward computation.
I0924 04:05:41.097647 18539 net.cpp:219] lstm1 does not need backward computation.
I0924 04:05:41.097656 18539 net.cpp:219] embedding does not need backward computation.
I0924 04:05:41.097664 18539 net.cpp:219] reshape_stage_indicator does not need backward computation.
I0924 04:05:41.097672 18539 net.cpp:219] reshape_frames does not need backward computation.
I0924 04:05:41.097681 18539 net.cpp:219] embed_encoder does not need backward computation.
I0924 04:05:41.097688 18539 net.cpp:219] cont_sentence_input_1_split does not need backward computation.
I0924 04:05:41.097697 18539 net.cpp:219] input does not need backward computation.
I0924 04:05:41.097703 18539 net.cpp:261] This network produces output probs
I0924 04:05:41.097725 18539 net.cpp:274] Network initialization done.
I0924 04:05:41.098608 18521 net.cpp:141] Setting up probs
I0924 04:05:41.098629 18521 net.cpp:148] Top shape: 1 1 46168 (46168)
I0924 04:05:41.098636 18521 net.cpp:156] Memory required for data: 405756
I0924 04:05:41.098645 18521 net.cpp:219] probs does not need backward computation.
I0924 04:05:41.098654 18521 net.cpp:219] predict does not need backward computation.
I0924 04:05:41.098664 18521 net.cpp:219] lstm2 does not need backward computation.
I0924 04:05:41.098672 18521 net.cpp:219] concat does not need backward computation.
I0924 04:05:41.098681 18521 net.cpp:219] lstm1 does not need backward computation.
I0924 04:05:41.098690 18521 net.cpp:219] embedding does not need backward computation.
I0924 04:05:41.098697 18521 net.cpp:219] reshape_stage_indicator does not need backward computation.
I0924 04:05:41.098704 18521 net.cpp:219] reshape_frames does not need backward computation.
I0924 04:05:41.098712 18521 net.cpp:219] embed_encoder does not need backward computation.
I0924 04:05:41.098721 18521 net.cpp:219] cont_sentence_input_1_split does not need backward computation.
I0924 04:05:41.098731 18521 net.cpp:219] input does not need backward computation.
I0924 04:05:41.098737 18521 net.cpp:261] This network produces output probs
I0924 04:05:41.098762 18521 net.cpp:274] Network initialization done.
I0924 04:05:41.102684 18569 net.cpp:141] Setting up probs
I0924 04:05:41.102733 18569 net.cpp:148] Top shape: 1 1 46168 (46168)
I0924 04:05:41.102740 18569 net.cpp:156] Memory required for data: 405756
I0924 04:05:41.102748 18569 net.cpp:219] probs does not need backward computation.
I0924 04:05:41.102756 18569 net.cpp:219] predict does not need backward computation.
I0924 04:05:41.102761 18569 net.cpp:219] lstm2 does not need backward computation.
I0924 04:05:41.102767 18569 net.cpp:219] concat does not need backward computation.
I0924 04:05:41.102773 18569 net.cpp:219] lstm1 does not need backward computation.
I0924 04:05:41.102780 18569 net.cpp:219] embedding does not need backward computation.
I0924 04:05:41.102785 18569 net.cpp:219] reshape_stage_indicator does not need backward computation.
I0924 04:05:41.102792 18569 net.cpp:219] reshape_frames does not need backward computation.
I0924 04:05:41.102797 18569 net.cpp:219] embed_encoder does not need backward computation.
I0924 04:05:41.102807 18569 net.cpp:219] cont_sentence_input_1_split does not need backward computation.
I0924 04:05:41.102813 18569 net.cpp:219] input does not need backward computation.
I0924 04:05:41.102818 18569 net.cpp:261] This network produces output probs
I0924 04:05:41.102835 18569 net.cpp:274] Network initialization done.
I0924 04:05:41.110457 18557 net.cpp:141] Setting up probs
I0924 04:05:41.110517 18557 net.cpp:148] Top shape: 1 1 46168 (46168)
I0924 04:05:41.110525 18557 net.cpp:156] Memory required for data: 405756
I0924 04:05:41.110533 18557 net.cpp:219] probs does not need backward computation.
I0924 04:05:41.110541 18557 net.cpp:219] predict does not need backward computation.
I0924 04:05:41.110548 18557 net.cpp:219] lstm2 does not need backward computation.
I0924 04:05:41.110553 18557 net.cpp:219] concat does not need backward computation.
I0924 04:05:41.111155 18533 net.cpp:141] Setting up probs
I0924 04:05:41.111179 18533 net.cpp:148] Top shape: 1 1 46168 (46168)
I0924 04:05:41.111189 18533 net.cpp:156] Memory required for data: 405756
I0924 04:05:41.111199 18533 net.cpp:219] probs does not need backward computation.
I0924 04:05:41.111210 18533 net.cpp:219] predict does not need backward computation.
I0924 04:05:41.111220 18533 net.cpp:219] lstm2 does not need backward computation.
I0924 04:05:41.111232 18533 net.cpp:219] concat does not need backward computation.
…
I0924 04:05:41.112337 18533 net.cpp:219] reshape_stage_indicator does not need backward computation.
I0924 04:05:41.112342 18533 net.cpp:219] reshape_frames does not need backward computation.
I0924 04:05:41.112349 18533 net.cpp:219] embed_encoder does not need backward computation.
I0924 04:05:41.115151 18533 net.cpp:219] cont_sentence_input_1_split does not need backward computation.
I0924 04:05:41.115195 18533 net.cpp:219] input does not need backward computation.
I0924 04:05:41.115200 18533 net.cpp:261] This network produces output probs
I0924 04:05:41.115561 18519 net.cpp:141] Setting up predict
I0924 04:05:41.115581 18519 net.cpp:148] Top shape: 1 1 46168 (46168)
I0924 04:05:41.115586 18519 net.cpp:156] Memory required for data: 221084
I0924 04:05:41.115598 18519 layer_factory.hpp:77] Creating layer probs
I0924 04:05:41.117899 18533 net.cpp:274] Network initialization done.
I0924 04:05:41.117893 18519 net.cpp:91] Creating Layer probs
I0924 04:05:41.118448 18519 net.cpp:425] probs <- predict
I0924 04:05:41.118475 18519 net.cpp:399] probs -> probs
I0924 04:05:41.118724 18541 net.cpp:141] Setting up conv1
I0924 04:05:41.118751 18541 net.cpp:148] Top shape: 10 96 55 55 (2904000)
I0924 04:05:41.118757 18541 net.cpp:156] Memory required for data: 17799480
I0924 04:05:41.120379 18541 layer_factory.hpp:77] Creating layer relu1
I0924 04:05:41.121093 18519 net.cpp:141] Setting up probs
I0924 04:05:41.121126 18519 net.cpp:148] Top shape: 1 1 46168 (46168)
I0924 04:05:41.121134 18519 net.cpp:156] Memory required for data: 405756
I0924 04:05:41.121145 18519 net.cpp:219] probs does not need backward computation.
I0924 04:05:41.121145 18541 net.cpp:91] Creating Layer relu1
I0924 04:05:41.121155 18519 net.cpp:219] predict does not need backward computation.
I0924 04:05:41.121162 18541 net.cpp:425] relu1 <- conv1
I0924 04:05:41.121165 18519 net.cpp:219] lstm2 does not need backward computation.
I0924 04:05:41.121175 18519 net.cpp:219] concat does not need backward computation.
I0924 04:05:41.121176 18541 net.cpp:386] relu1 -> conv1 (in-place)
I0924 04:05:41.121183 18519 net.cpp:219] lstm1 does not need backward computation.
I0924 04:05:41.121198 18519 net.cpp:219] embedding does not need backward computation.
I0924 04:05:41.121207 18519 net.cpp:219] reshape_stage_indicator does not need backward computation.
I0924 04:05:41.121215 18519 net.cpp:219] reshape_frames does not need backward computation.
I0924 04:05:41.121222 18519 net.cpp:219] embed_encoder does not need backward computation.
I0924 04:05:41.121230 18519 net.cpp:219] cont_sentence_input_1_split does not need backward computation.
I0924 04:05:41.121240 18519 net.cpp:219] input does not need backward computation.
I0924 04:05:41.121248 18519 net.cpp:261] This network produces output probs
I0924 04:05:41.121659 18519 net.cpp:274] Network initialization done.
I0924 04:05:41.121711 18541 net.cpp:141] Setting up relu1
I0924 04:05:41.121728 18541 net.cpp:148] Top shape: 10 96 55 55 (2904000)
I0924 04:05:41.121737 18541 net.cpp:156] Memory required for data: 29415480
I0924 04:05:41.121744 18541 layer_factory.hpp:77] Creating layer pool1
I0924 04:05:41.121762 18541 net.cpp:91] Creating Layer pool1
I0924 04:05:41.121770 18541 net.cpp:425] pool1 <- conv1
I0924 04:05:41.121781 18541 net.cpp:399] pool1 -> pool1
I0924 04:05:41.121961 18541 net.cpp:141] Setting up pool1
I0924 04:05:41.121978 18541 net.cpp:148] Top shape: 10 96 27 27 (699840)
I0924 04:05:41.121984 18541 net.cpp:156] Memory required for data: 32214840
I0924 04:05:41.122828 18541 layer_factory.hpp:77] Creating layer norm1
I0924 04:05:41.122860 18541 net.cpp:91] Creating Layer norm1
I0924 04:05:41.122869 18541 net.cpp:425] norm1 <- pool1
I0924 04:05:41.122879 18541 net.cpp:399] norm1 -> norm1
I0924 04:05:41.123595 18541 net.cpp:141] Setting up norm1
I0924 04:05:41.123613 18541 net.cpp:148] Top shape: 10 96 27 27 (699840)
I0924 04:05:41.123621 18541 net.cpp:156] Memory required for data: 35014200
I0924 04:05:41.123628 18541 layer_factory.hpp:77] Creating layer conv2
I0924 04:05:41.123669 18541 net.cpp:91] Creating Layer conv2
I0924 04:05:41.123679 18541 net.cpp:425] conv2 <- norm1
I0924 04:05:41.123690 18541 net.cpp:399] conv2 -> conv2
I0924 04:05:41.128011 18541 net.cpp:141] Setting up conv2
I0924 04:05:41.128031 18541 net.cpp:148] Top shape: 10 256 27 27 (1866240)
I0924 04:05:41.128036 18541 net.cpp:156] Memory required for data: 42479160
I0924 04:05:41.128048 18541 layer_factory.hpp:77] Creating layer relu2
I0924 04:05:41.128062 18541 net.cpp:91] Creating Layer relu2
I0924 04:05:41.128067 18541 net.cpp:425] relu2 <- conv2
I0924 04:05:41.128074 18541 net.cpp:386] relu2 -> conv2 (in-place)
I0924 04:05:41.128473 18541 net.cpp:141] Setting up relu2
I0924 04:05:41.128485 18541 net.cpp:148] Top shape: 10 256 27 27 (1866240)
I0924 04:05:41.128490 18541 net.cpp:156] Memory required for data: 49944120
I0924 04:05:41.128495 18541 layer_factory.hpp:77] Creating layer pool2
I0924 04:05:41.128504 18541 net.cpp:91] Creating Layer pool2
I0924 04:05:41.128509 18541 net.cpp:425] pool2 <- conv2
I0924 04:05:41.128517 18541 net.cpp:399] pool2 -> pool2
I0924 04:05:41.128579 18541 net.cpp:141] Setting up pool2
I0924 04:05:41.128589 18541 net.cpp:148] Top shape: 10 256 13 13 (432640)
I0924 04:05:41.128593 18541 net.cpp:156] Memory required for data: 51674680
I0924 04:05:41.128598 18541 layer_factory.hpp:77] Creating layer norm2
I0924 04:05:41.128608 18541 net.cpp:91] Creating Layer norm2
I0924 04:05:41.128613 18541 net.cpp:425] norm2 <- pool2
I0924 04:05:41.128620 18541 net.cpp:399] norm2 -> norm2
I0924 04:05:41.128877 18541 net.cpp:141] Setting up norm2
I0924 04:05:41.128888 18541 net.cpp:148] Top shape: 10 256 13 13 (432640)
I0924 04:05:41.128893 18541 net.cpp:156] Memory required for data: 53405240
I0924 04:05:41.128901 18541 layer_factory.hpp:77] Creating layer conv3
I0924 04:05:41.128912 18541 net.cpp:91] Creating Layer conv3
I0924 04:05:41.128917 18541 net.cpp:425] conv3 <- norm2
I0924 04:05:41.128926 18541 net.cpp:399] conv3 -> conv3
I0924 04:05:41.133278 18541 net.cpp:141] Setting up conv3
I0924 04:05:41.133308 18541 net.cpp:148] Top shape: 10 384 13 13 (648960)
I0924 04:05:41.133317 18541 net.cpp:156] Memory required for data: 56001080
I0924 04:05:41.133339 18541 layer_factory.hpp:77] Creating layer relu3
I0924 04:05:41.133357 18541 net.cpp:91] Creating Layer relu3
I0924 04:05:41.133364 18541 net.cpp:425] relu3 <- conv3
I0924 04:05:41.133376 18541 net.cpp:386] relu3 -> conv3 (in-place)
I0924 04:05:41.133955 18541 net.cpp:141] Setting up relu3
I0924 04:05:41.133976 18541 net.cpp:148] Top shape: 10 384 13 13 (648960)
I0924 04:05:41.133986 18541 net.cpp:156] Memory required for data: 58596920
I0924 04:05:41.133996 18541 layer_factory.hpp:77] Creating layer conv4
I0924 04:05:41.135820 18541 net.cpp:91] Creating Layer conv4
I0924 04:05:41.135836 18541 net.cpp:425] conv4 <- conv3
I0924 04:05:41.135853 18541 net.cpp:399] conv4 -> conv4
I0924 04:05:41.205377 18541 net.cpp:141] Setting up conv4
I0924 04:05:41.205474 18541 net.cpp:148] Top shape: 10 384 13 13 (648960)
I0924 04:05:41.205487 18541 net.cpp:156] Memory required for data: 61192760
I0924 04:05:41.205518 18541 layer_factory.hpp:77] Creating layer relu4
I0924 04:05:41.205559 18541 net.cpp:91] Creating Layer relu4
I0924 04:05:41.205570 18541 net.cpp:425] relu4 <- conv4
I0924 04:05:41.205621 18541 net.cpp:386] relu4 -> conv4 (in-place)
I0924 04:05:41.207198 18541 net.cpp:141] Setting up relu4
I0924 04:05:41.207226 18541 net.cpp:148] Top shape: 10 384 13 13 (648960)
I0924 04:05:41.207237 18541 net.cpp:156] Memory required for data: 63788600
I0924 04:05:41.207252 18541 layer_factory.hpp:77] Creating layer conv5
I0924 04:05:41.207361 18541 net.cpp:91] Creating Layer conv5
I0924 04:05:41.207376 18541 net.cpp:425] conv5 <- conv4
I0924 04:05:41.207392 18541 net.cpp:399] conv5 -> conv5
I0924 04:05:41.258244 18541 net.cpp:141] Setting up conv5
I0924 04:05:41.258321 18541 net.cpp:148] Top shape: 10 256 13 13 (432640)
I0924 04:05:41.258328 18541 net.cpp:156] Memory required for data: 65519160
I0924 04:05:41.258361 18541 layer_factory.hpp:77] Creating layer relu5
I0924 04:05:41.258393 18541 net.cpp:91] Creating Layer relu5
I0924 04:05:41.258399 18541 net.cpp:425] relu5 <- conv5
I0924 04:05:41.258431 18541 net.cpp:386] relu5 -> conv5 (in-place)
I0924 04:05:41.258931 18541 net.cpp:141] Setting up relu5
I0924 04:05:41.258945 18541 net.cpp:148] Top shape: 10 256 13 13 (432640)
I0924 04:05:41.258950 18541 net.cpp:156] Memory required for data: 67249720
I0924 04:05:41.258955 18541 layer_factory.hpp:77] Creating layer pool5
I0924 04:05:41.258968 18541 net.cpp:91] Creating Layer pool5
I0924 04:05:41.258975 18541 net.cpp:425] pool5 <- conv5
I0924 04:05:41.258986 18541 net.cpp:399] pool5 -> pool5
I0924 04:05:41.259076 18541 net.cpp:141] Setting up pool5
I0924 04:05:41.259088 18541 net.cpp:148] Top shape: 10 256 6 6 (92160)
I0924 04:05:41.259091 18541 net.cpp:156] Memory required for data: 67618360
I0924 04:05:41.259096 18541 layer_factory.hpp:77] Creating layer fc6
I0924 04:05:41.259121 18541 net.cpp:91] Creating Layer fc6
I0924 04:05:41.259127 18541 net.cpp:425] fc6 <- pool5
I0924 04:05:41.259137 18541 net.cpp:399] fc6 -> fc6
I0924 04:05:41.332396 18565 net.cpp:141] Setting up predict
I0924 04:05:41.332459 18565 net.cpp:148] Top shape: 1 1 46168 (46168)
I0924 04:05:41.332471 18565 net.cpp:156] Memory required for data: 221084
I0924 04:05:41.332495 18565 layer_factory.hpp:77] Creating layer probs
I0924 04:05:41.332521 18565 net.cpp:91] Creating Layer probs
I0924 04:05:41.332535 18565 net.cpp:425] probs <- predict
I0924 04:05:41.332553 18565 net.cpp:399] probs -> probs
I0924 04:05:41.333595 18565 net.cpp:141] Setting up probs
I0924 04:05:41.333626 18565 net.cpp:148] Top shape: 1 1 46168 (46168)
I0924 04:05:41.333633 18565 net.cpp:156] Memory required for data: 405756
I0924 04:05:41.333643 18565 net.cpp:219] probs does not need backward computation.
I0924 04:05:41.333653 18565 net.cpp:219] predict does not need backward computation.
I0924 04:05:41.333662 18565 net.cpp:219] lstm2 does not need backward computation.
I0924 04:05:41.333672 18565 net.cpp:219] concat does not need backward computation.
I0924 04:05:41.333681 18565 net.cpp:219] lstm1 does not need backward computation.
I0924 04:05:41.333691 18565 net.cpp:219] embedding does not need backward computation.
I0924 04:05:41.333700 18565 net.cpp:219] reshape_stage_indicator does not need backward computation.
I0924 04:05:41.333710 18565 net.cpp:219] reshape_frames does not need backward computation.
I0924 04:05:41.333719 18565 net.cpp:219] embed_encoder does not need backward computation.
I0924 04:05:41.333727 18565 net.cpp:219] cont_sentence_input_1_split does not need backward computation.
I0924 04:05:41.333741 18565 net.cpp:219] input does not need backward computation.
I0924 04:05:41.333750 18565 net.cpp:261] This network produces output probs
I0924 04:05:41.333778 18565 net.cpp:274] Network initialization done.
I0924 04:05:41.374877 18541 net.cpp:141] Setting up fc6
I0924 04:05:41.374975 18541 net.cpp:148] Top shape: 10 4096 (40960)
I0924 04:05:41.374987 18541 net.cpp:156] Memory required for data: 67782200
I0924 04:05:41.375020 18541 layer_factory.hpp:77] Creating layer relu6
I0924 04:05:41.375754 18541 net.cpp:91] Creating Layer relu6
I0924 04:05:41.375797 18541 net.cpp:425] relu6 <- fc6
I0924 04:05:41.375829 18541 net.cpp:386] relu6 -> fc6 (in-place)
I0924 04:05:41.378412 18541 net.cpp:141] Setting up relu6
I0924 04:05:41.378485 18541 net.cpp:148] Top shape: 10 4096 (40960)
I0924 04:05:41.378495 18541 net.cpp:156] Memory required for data: 67946040
I0924 04:05:41.378511 18541 layer_factory.hpp:77] Creating layer drop6
I0924 04:05:41.378545 18541 net.cpp:91] Creating Layer drop6
I0924 04:05:41.378556 18541 net.cpp:425] drop6 <- fc6
I0924 04:05:41.378571 18541 net.cpp:386] drop6 -> fc6 (in-place)
I0924 04:05:41.379057 18541 net.cpp:141] Setting up drop6
I0924 04:05:41.379081 18541 net.cpp:148] Top shape: 10 4096 (40960)
I0924 04:05:41.379089 18541 net.cpp:156] Memory required for data: 68109880
I0924 04:05:41.379096 18541 layer_factory.hpp:77] Creating layer fc7
I0924 04:05:41.379118 18541 net.cpp:91] Creating Layer fc7
I0924 04:05:41.379127 18541 net.cpp:425] fc7 <- fc6
I0924 04:05:41.379137 18541 net.cpp:399] fc7 -> fc7
I0924 04:05:41.439874 18541 net.cpp:141] Setting up fc7
I0924 04:05:41.439934 18541 net.cpp:148] Top shape: 10 4096 (40960)
I0924 04:05:41.439941 18541 net.cpp:156] Memory required for data: 68273720
I0924 04:05:41.439963 18541 layer_factory.hpp:77] Creating layer relu7
I0924 04:05:41.439985 18541 net.cpp:91] Creating Layer relu7
I0924 04:05:41.439991 18541 net.cpp:425] relu7 <- fc7
I0924 04:05:41.440651 18541 net.cpp:386] relu7 -> fc7 (in-place)
I0924 04:05:41.444842 18541 net.cpp:141] Setting up relu7
I0924 04:05:41.444901 18541 net.cpp:148] Top shape: 10 4096 (40960)
I0924 04:05:41.444911 18541 net.cpp:156] Memory required for data: 68437560
I0924 04:05:41.444926 18541 layer_factory.hpp:77] Creating layer drop7
I0924 04:05:41.444950 18541 net.cpp:91] Creating Layer drop7
I0924 04:05:41.444960 18541 net.cpp:425] drop7 <- fc7
I0924 04:05:41.450554 18541 net.cpp:386] drop7 -> fc7 (in-place)
I0924 04:05:41.450909 18541 net.cpp:141] Setting up drop7
I0924 04:05:41.450953 18541 net.cpp:148] Top shape: 10 4096 (40960)
I0924 04:05:41.450963 18541 net.cpp:156] Memory required for data: 68601400
I0924 04:05:41.450975 18541 layer_factory.hpp:77] Creating layer fc8
I0924 04:05:41.451005 18541 net.cpp:91] Creating Layer fc8
I0924 04:05:41.451017 18541 net.cpp:425] fc8 <- fc7
I0924 04:05:41.451033 18541 net.cpp:399] fc8 -> fc8
I0924 04:05:41.468474 18541 net.cpp:141] Setting up fc8
I0924 04:05:41.468545 18541 net.cpp:148] Top shape: 10 1000 (10000)
I0924 04:05:41.468559 18541 net.cpp:156] Memory required for data: 68641400
I0924 04:05:41.468587 18541 layer_factory.hpp:77] Creating layer prob
I0924 04:05:41.474589 18541 net.cpp:91] Creating Layer prob
I0924 04:05:41.474673 18541 net.cpp:425] prob <- fc8
I0924 04:05:41.474705 18541 net.cpp:399] prob -> prob
I0924 04:05:41.478466 18541 net.cpp:141] Setting up prob
I0924 04:05:41.478541 18541 net.cpp:148] Top shape: 10 1000 (10000)
I0924 04:05:41.478554 18541 net.cpp:156] Memory required for data: 68681400
I0924 04:05:41.478570 18541 net.cpp:219] prob does not need backward computation.
I0924 04:05:41.478582 18541 net.cpp:219] fc8 does not need backward computation.
I0924 04:05:41.478592 18541 net.cpp:219] drop7 does not need backward computation.
I0924 04:05:41.478618 18541 net.cpp:219] relu7 does not need backward computation.
…
