…
I0925 21:49:32.949391  8473 upgrade_proto.cpp:69] Successfully upgraded file specified using deprecated input fields.
I0925 21:49:32.949374  8483 upgrade_proto.cpp:69] Successfully upgraded file specified using deprecated input fields.
W0925 21:49:32.949406  8473 upgrade_proto.cpp:71] Note that future Caffe releases will only support input layers and not input fields.
I0925 21:49:32.949393  8481 net.cpp:49] Initializing net from parameters: 
name: "CaffeNet"
state {
  phase: TEST
}
layer {
  name: "data"
  type: "Input"
  top: "data"
  input_param {
    shape {
      dim: 10
      dim: 3
      dim: 227
      dim: 227
    }
  }
}
layer {
  name: "conv1"
  type: "Convolution"
  bottom: "data"
  top: "conv1"
  convolution_param {
    num_output: 96
    kernel_size: 11
    stride: 4
  }
}
layer {
  name: "relu1"
  type: "ReLU"
  bottom: "conv1"
  top: "conv1"
}
layer {
  name: "pool1"
  type: "Pooling"
  bottom: "conv1"
  top: "pool1"
  pooling_param {
    pool: MAX
    kernel_size: 3
    stride: 2
  }
}
layer {
  name: "norm1"
  type: "LRN"
  bottom: "pool1"
  top: "norm1"
  lrn_param {
    local_size: 5
    alpha: 0.0001
    beta: 0.75
  }
}
layer {
  name: "conv2"
  type: "Convolution"
  bottom: "norm1"
  top: "conv2"
  convolution_param {
    num_output: 256
    pad: 2
    kernel_size: 5
    group: 2
  }
}
layer {
  name: "relu2"
  type: "ReLU"
  bottom: "conv2"
  top: "conv2"
}
layer {
  name: "pool2"
  type: "Pooling"
  bottom: "conv2"
  top: "pool2"
  pooling_param {
    pool: MAX
    kernel_size: 3
    stride: 2
  }
}
layer {
  name: "norm2"
  type: "LRN"
  bottom: "pool2"
  top: "norm2"
  lrn_param {
    local_size: 5
    alpha: 0.0001
    beta: 0.75
  }
}
layer {
  name: "conv3"
  type: "Convolution"
  bottom: "norm2"
  top: "conv3"
  convolution_param {
    num_output: 384
    pad: 1
    kernel_size: 3
  }
}
layer {
  name: "relu3"
  type: "ReLU"
  bottom: "conv3"
  top: "conv3"
}
layer {
  name: "conv4"
  type: "Convolution"
  bottom: "conv3"
  top: "conv4"
  convolution_param {
    num_output: 384
    pad: 1
    kernel_size: 3
    group: 2
  }
}
layer {
  name: "relu4"
  type: "ReLU"
  bottom: "conv4"
  top: "conv4"
}
layer {
  name: "conv5"
  type: "Convolution"
  bottom: "conv4"
  top: "conv5"
  convolution_param {
    num_output: 256
    pad: 1
    kernel_size: 3
    group: 2
  }
}
layer {
  name: "relu5"
  type: "ReLU"
  bottom: "conv5"
  top: "conv5"
}
layer {
  name: "pool5"
  type: "Pooling"
  bottom: "conv5"
  top: "pool5"
  pooling_param {
    pool: MAX
    kernel_size: 3
    stride: 2
  }
}
layer {
  name: "fc6"
  type: "InnerProduct"
  bottom: "pool5"
  top: "fc6"
  inner_product_param {
    num_output: 4096
  }
}
layer {
  name: "relu6"
  type: "ReLU"
  bottom: "fc6"
  top: "fc6"
}
layer {
  name: "drop6"
  type: "Dropout"
  bottom: "fc6"
  top: "fc6"
  dropout_param {
    dropout_ratio: 0.5
  }
}
layer {
  name: "fc7"
  type: "InnerProduct"
  bottom: "fc6"
  top: "fc7"
  inner_product_param {
    num_output: 4096
  }
}
layer {
  name: "relu7"
  type: "ReLU"
  bottom: "fc7"
  top: "fc7"
}
layer {
  name: "drop7"
  type: "Dropout"
  bottom: "fc7"
  top: "fc7"
  dropout_param {
    dropout_ratio: 0.5
  }
}
layer {
  name: "fc8"
  type: "InnerProduct"
  bottom: "fc7"
  top: "fc8"
  inner_product_param {
    num_output: 1000
  }
}
layer {
  name: "prob"
  type: "Softmax"
  bottom: "fc8"
  top: "prob"
}
W0925 21:49:32.949416  8483 upgrade_proto.cpp:71] Note that future Caffe releases will only support input layers and not input fields.
W0925 21:49:32.949393  8501 upgrade_proto.cpp:71] Note that future Caffe releases will only support input layers and not input fields.
W0925 21:49:32.949393  8495 upgrade_proto.cpp:71] Note that future Caffe releases will only support input layers and not input fields.
I0925 21:49:32.949403  8477 upgrade_proto.cpp:69] Successfully upgraded file specified using deprecated input fields.
W0925 21:49:32.949450  8477 upgrade_proto.cpp:71] Note that future Caffe releases will only support input layers and not input fields.
I0925 21:49:32.949548  8481 layer_factory.hpp:77] Creating layer data
I0925 21:49:32.949578  8481 net.cpp:91] Creating Layer data
I0925 21:49:32.949589  8481 net.cpp:399] data -> data
I0925 21:49:32.949811  8495 net.cpp:49] Initializing net from parameters: 
name: "s2vt:features_to_lstm"
state {
  phase: TEST
}
layer {
  name: "input"
  type: "Input"
  top: "frames_fc7"
  top: "cont_sentence"
  top: "input_sentence"
  top: "stage_indicator"
  input_param {
    shape {
      dim: 1
      dim: 4096
    }
    shape {
      dim: 1
      dim: 1
    }
    shape {
      dim: 1
      dim: 1
    }
    shape {
      dim: 1
      dim: 1
    }
  }
}
layer {
  name: "embed_encoder"
  type: "InnerProduct"
  bottom: "frames_fc7"
  top: "embedded_in_frames"
  param {
    lr_mult: 1
    decay_mult: 1
  }
  param {
    lr_mult: 2
    decay_mult: 0
  }
  inner_product_param {
    num_output: 500
    weight_filler {
      type: "xavier"
    }
    bias_filler {
      type: "constant"
      value: 0.2
    }
  }
}
layer {
  name: "reshape_frames"
  type: "Reshape"
  bottom: "embedded_in_frames"
  top: "embedded_input_frames"
  reshape_param {
    shape {
      dim: 1
      dim: 1
      dim: 500
    }
  }
}
layer {
  name: "reshape_stage_indicator"
  type: "Reshape"
  bottom: "stage_indicator"
  top: "reshaped_stage_indicator"
  reshape_param {
    shape {
      dim: 1
      dim: 1
      dim: 1
    }
  }
}
layer {
  name: "embedding"
  type: "Embed"
  bottom: "input_sentence"
  top: "embedded_input_sentence"
  param {
    lr_mult: 1
  }
  embed_param {
    num_output: 500
    input_dim: 46168
    bias_term: false
    weight_filler {
      type: "uniform"
      min: -0.08
      max: 0.08
    }
  }
}
layer {
  name: "lstm1"
  type: "LSTM"
  bottom: "embedded_input_frames"
  bottom: "cont_sentence"
  top: "lstm1"
  recurrent_param {
    num_output: 1000
    weight_filler {
      type: "uniform"
      min: -0.08
      max: 0.08
    }
    bias_filler {
      type: "constant"
      value: 0
    }
  }
}
layer {
  name: "concat"
  type: "Concat"
  bottom: "lstm1"
  bottom: "embedded_input_sentence"
  bottom: "reshaped_stage_indicator"
  top: "lstm1_video_sequence"
  concat_param {
    concat_dim: 2
  }
}
layer {
  name: "lstm2"
  type: "LSTM"
  bottom: "lstm1_video_sequence"
  bottom: "cont_sentence"
  top: "lstm2"
  recurrent_param {
    num_output: 1000
    weight_filler {
      type: "uniform"
      min: -0.08
      max: 0.08
    }
    bias_filler {
      type: "constant"
      value: 0
    }
  }
}
layer {
  name: "predict"
  type: "InnerProduct"
  bottom: "lstm2"
  top: "predict"
  param {
    lr_mult: 1
    decay_mult: 1
  }
  param {
    lr_mult: 2
    decay_mult: 0
  }
  inner_product_param {
    num_output: 46168
    weight_filler {
      type: "uniform"
      min: -0.08
      max: 0.08
    }
    bias_filler {
      type: "constant"
      value: 0
    }
    axis: 2
  }
}
layer {
  name: "probs"
  type: "Softmax"
  bottom: "predict"
  top: "probs"
  softmax_param {
    axis: 2
  }
}
I0925 21:49:32.949821  8477 net.cpp:49] Initializing net from parameters: 
name: "s2vt:features_to_lstm"
state {
  phase: TEST
}
layer {
  name: "input"
  type: "Input"
  top: "frames_fc7"
  top: "cont_sentence"
  top: "input_sentence"
  top: "stage_indicator"
  input_param {
    shape {
      dim: 1
      dim: 4096
    }
    shape {
      dim: 1
      dim: 1
    }
    shape {
      dim: 1
      dim: 1
    }
    shape {
      dim: 1
      dim: 1
    }
  }
}
layer {
  name: "embed_encoder"
  type: "InnerProduct"
  bottom: "frames_fc7"
  top: "embedded_in_frames"
  param {
    lr_mult: 1
    decay_mult: 1
  }
  param {
    lr_mult: 2
    decay_mult: 0
  }
  inner_product_param {
    num_output: 500
    weight_filler {
      type: "xavier"
    }
    bias_filler {
      type: "constant"
      value: 0.2
    }
  }
}
layer {
  name: "reshape_frames"
  type: "Reshape"
  bottom: "embedded_in_frames"
  top: "embedded_input_frames"
  reshape_param {
    shape {
      dim: 1
      dim: 1
      dim: 500
    }
  }
}
layer {
  name: "reshape_stage_indicator"
  type: "Reshape"
  bottom: "stage_indicator"
  top: "reshaped_stage_indicator"
  reshape_param {
    shape {
      dim: 1
      dim: 1
      dim: 1
    }
  }
}
layer {
  name: "embedding"
  type: "Embed"
  bottom: "input_sentence"
  top: "embedded_input_sentence"
  param {
    lr_mult: 1
  }
  embed_param {
    num_output: 500
    input_dim: 46168
    bias_term: false
    weight_filler {
      type: "uniform"
      min: -0.08
      max: 0.08
    }
  }
}
layer {
  name: "lstm1"
  type: "LSTM"
  bottom: "embedded_input_frames"
  bottom: "cont_sentence"
  top: "lstm1"
  recurrent_param {
    num_output: 1000
    weight_filler {
      type: "uniform"
      min: -0.08
      max: 0.08
    }
    bias_filler {
      type: "constant"
      value: 0
    }
  }
}
layer {
  name: "concat"
  type: "Concat"
  bottom: "lstm1"
  bottom: "embedded_input_sentence"
  bottom: "reshaped_stage_indicator"
  top: "lstm1_video_sequence"
  concat_param {
    concat_dim: 2
  }
}
layer {
  name: "lstm2"
  type: "LSTM"
  bottom: "lstm1_video_sequence"
  bottom: "cont_sentence"
  top: "lstm2"
  recurrent_param {
    num_output: 1000
    weight_filler {
      type: "uniform"
      min: -0.08
      max: 0.08
    }
    bias_filler {
      type: "constant"
      value: 0
    }
  }
}
layer {
  name: "predict"
  type: "InnerProduct"
  bottom: "lstm2"
  top: "predict"
  param {
    lr_mult: 1
    decay_mult: 1
  }
  param {
    lr_mult: 2
    decay_mult: 0
  }
  inner_product_param {
    num_output: 46168
    weight_filler {
      type: "uniform"
      min: -0.08
      max: 0.08
    }
    bias_filler {
      type: "constant"
      value: 0
    }
    axis: 2
  }
}
layer {
  name: "probs"
  type: "Softmax"
  bottom: "predict"
  top: "probs"
  softmax_param {
    axis: 2
  }
}
I0925 21:49:32.949812  8501 net.cpp:49] Initializing net from parameters: 
name: "s2vt:features_to_lstm"
state {
  phase: TEST
}
layer {
  name: "input"
  type: "Input"
  top: "frames_fc7"
  top: "cont_sentence"
  top: "input_sentence"
  top: "stage_indicator"
  input_param {
    shape {
      dim: 1
      dim: 4096
    }
    shape {
      dim: 1
      dim: 1
    }
    shape {
      dim: 1
      dim: 1
    }
    shape {
      dim: 1
      dim: 1
    }
  }
}
layer {
  name: "embed_encoder"
  type: "InnerProduct"
  bottom: "frames_fc7"
  top: "embedded_in_frames"
  param {
    lr_mult: 1
    decay_mult: 1
  }
  param {
    lr_mult: 2
    decay_mult: 0
  }
  inner_product_param {
    num_output: 500
    weight_filler {
      type: "xavier"
    }
    bias_filler {
      type: "constant"
      value: 0.2
    }
  }
}
layer {
  name: "reshape_frames"
  type: "Reshape"
  bottom: "embedded_in_frames"
  top: "embedded_input_frames"
  reshape_param {
    shape {
      dim: 1
      dim: 1
      dim: 500
    }
  }
}
layer {
  name: "reshape_stage_indicator"
  type: "Reshape"
  bottom: "stage_indicator"
  top: "reshaped_stage_indicator"
  reshape_param {
    shape {
      dim: 1
      dim: 1
      dim: 1
    }
  }
}
layer {
  name: "embedding"
  type: "Embed"
  bottom: "input_sentence"
  top: "embedded_input_sentence"
  param {
    lr_mult: 1
  }
  embed_param {
    num_output: 500
    input_dim: 46168
    bias_term: false
    weight_filler {
      type: "uniform"
      min: -0.08
      max: 0.08
    }
  }
}
layer {
  name: "lstm1"
  type: "LSTM"
  bottom: "embedded_input_frames"
  bottom: "cont_sentence"
  top: "lstm1"
  recurrent_param {
    num_output: 1000
    weight_filler {
      type: "uniform"
      min: -0.08
      max: 0.08
    }
    bias_filler {
      type: "constant"
      value: 0
    }
  }
}
layer {
  name: "concat"
  type: "Concat"
  bottom: "lstm1"
  bottom: "embedded_input_sentence"
  bottom: "reshaped_stage_indicator"
  top: "lstm1_video_sequence"
  concat_param {
    concat_dim: 2
  }
}
layer {
  name: "lstm2"
  type: "LSTM"
  bottom: "lstm1_video_sequence"
  bottom: "cont_sentence"
  top: "lstm2"
  recurrent_param {
    num_output: 1000
    weight_filler {
      type: "uniform"
      min: -0.08
      max: 0.08
    }
    bias_filler {
      type: "constant"
      value: 0
    }
  }
}
layer {
  name: "predict"
  type: "InnerProduct"
  bottom: "lstm2"
  top: "predict"
  param {
    lr_mult: 1
    decay_mult: 1
  }
  param {
    lr_mult: 2
    decay_mult: 0
  }
  inner_product_param {
    num_output: 46168
    weight_filler {
      type: "uniform"
      min: -0.08
      max: 0.08
    }
    bias_filler {
      type: "constant"
      value: 0
    }
    axis: 2
  }
}
layer {
  name: "probs"
  type: "Softmax"
  bottom: "predict"
  top: "probs"
  softmax_param {
    axis: 2
  }
}
I0925 21:49:32.949844  8473 net.cpp:49] Initializing net from parameters: 
name: "s2vt:features_to_lstm"
state {
  phase: TEST
}
layer {
  name: "input"
  type: "Input"
  top: "frames_fc7"
  top: "cont_sentence"
  top: "input_sentence"
  top: "stage_indicator"
  input_param {
    shape {
      dim: 1
      dim: 4096
    }
    shape {
      dim: 1
      dim: 1
    }
    shape {
      dim: 1
      dim: 1
    }
    shape {
      dim: 1
      dim: 1
    }
  }
}
layer {
  name: "embed_encoder"
  type: "InnerProduct"
  bottom: "frames_fc7"
  top: "embedded_in_frames"
  param {
    lr_mult: 1
    decay_mult: 1
  }
  param {
    lr_mult: 2
    decay_mult: 0
  }
  inner_product_param {
    num_output: 500
    weight_filler {
      type: "xavier"
    }
    bias_filler {
      type: "constant"
      value: 0.2
    }
  }
}
layer {
  name: "reshape_frames"
  type: "Reshape"
  bottom: "embedded_in_frames"
  top: "embedded_input_frames"
  reshape_param {
    shape {
      dim: 1
      dim: 1
      dim: 500
    }
  }
}
layer {
  name: "reshape_stage_indicator"
  type: "Reshape"
  bottom: "stage_indicator"
  top: "reshaped_stage_indicator"
  reshape_param {
    shape {
      dim: 1
      dim: 1
      dim: 1
    }
  }
}
layer {
  name: "embedding"
  type: "Embed"
  bottom: "input_sentence"
  top: "embedded_input_sentence"
  param {
    lr_mult: 1
  }
  embed_param {
    num_output: 500
    input_dim: 46168
    bias_term: false
    weight_filler {
      type: "uniform"
      min: -0.08
      max: 0.08
    }
  }
}
layer {
  name: "lstm1"
  type: "LSTM"
  bottom: "embedded_input_frames"
  bottom: "cont_sentence"
  top: "lstm1"
  recurrent_param {
    num_output: 1000
    weight_filler {
      type: "uniform"
      min: -0.08
      max: 0.08
    }
    bias_filler {
      type: "constant"
      value: 0
    }
  }
}
layer {
  name: "concat"
  type: "Concat"
  bottom: "lstm1"
  bottom: "embedded_input_sentence"
  bottom: "reshaped_stage_indicator"
  top: "lstm1_video_sequence"
  concat_param {
    concat_dim: 2
  }
}
layer {
  name: "lstm2"
  type: "LSTM"
  bottom: "lstm1_video_sequence"
  bottom: "cont_sentence"
  top: "lstm2"
  recurrent_param {
    num_output: 1000
    weight_filler {
      type: "uniform"
      min: -0.08
      max: 0.08
    }
    bias_filler {
      type: "constant"
      value: 0
    }
  }
}
layer {
  name: "predict"
  type: "InnerProduct"
  bottom: "lstm2"
  top: "predict"
  param {
    lr_mult: 1
    decay_mult: 1
  }
  param {
    lr_mult: 2
    decay_mult: 0
  }
  inner_product_param {
    num_output: 46168
    weight_filler {
      type: "uniform"
      min: -0.08
      max: 0.08
    }
    bias_filler {
      type: "constant"
      value: 0
    }
    axis: 2
  }
}
layer {
  name: "probs"
  type: "Softmax"
  bottom: "predict"
  top: "probs"
  softmax_param {
    axis: 2
  }
}
I0925 21:49:32.949872  8483 net.cpp:49] Initializing net from parameters: 
name: "s2vt:features_to_lstm"
state {
  phase: TEST
}
layer {
  name: "input"
  type: "Input"
  top: "frames_fc7"
  top: "cont_sentence"
  top: "input_sentence"
  top: "stage_indicator"
  input_param {
    shape {
      dim: 1
      dim: 4096
    }
    shape {
      dim: 1
      dim: 1
    }
    shape {
      dim: 1
      dim: 1
    }
    shape {
      dim: 1
      dim: 1
    }
  }
}
layer {
  name: "embed_encoder"
  type: "InnerProduct"
  bottom: "frames_fc7"
  top: "embedded_in_frames"
  param {
    lr_mult: 1
    decay_mult: 1
  }
  param {
    lr_mult: 2
    decay_mult: 0
  }
  inner_product_param {
    num_output: 500
    weight_filler {
      type: "xavier"
    }
    bias_filler {
      type: "constant"
      value: 0.2
    }
  }
}
layer {
  name: "reshape_frames"
  type: "Reshape"
  bottom: "embedded_in_frames"
  top: "embedded_input_frames"
  reshape_param {
    shape {
      dim: 1
      dim: 1
      dim: 500
    }
  }
}
layer {
  name: "reshape_stage_indicator"
  type: "Reshape"
  bottom: "stage_indicator"
  top: "reshaped_stage_indicator"
  reshape_param {
    shape {
      dim: 1
      dim: 1
      dim: 1
    }
  }
}
layer {
  name: "embedding"
  type: "Embed"
  bottom: "input_sentence"
  top: "embedded_input_sentence"
  param {
    lr_mult: 1
  }
  embed_param {
    num_output: 500
    input_dim: 46168
    bias_term: false
    weight_filler {
      type: "uniform"
      min: -0.08
      max: 0.08
    }
  }
}
layer {
  name: "lstm1"
  type: "LSTM"
  bottom: "embedded_input_frames"
  bottom: "cont_sentence"
  top: "lstm1"
  recurrent_param {
    num_output: 1000
    weight_filler {
      type: "uniform"
      min: -0.08
      max: 0.08
    }
    bias_filler {
      type: "constant"
      value: 0
    }
  }
}
layer {
  name: "concat"
  type: "Concat"
  bottom: "lstm1"
  bottom: "embedded_input_sentence"
  bottom: "reshaped_stage_indicator"
  top: "lstm1_video_sequence"
  concat_param {
    concat_dim: 2
  }
}
layer {
  name: "lstm2"
  type: "LSTM"
  bottom: "lstm1_video_sequence"
  bottom: "cont_sentence"
  top: "lstm2"
  recurrent_param {
    num_output: 1000
    weight_filler {
      type: "uniform"
      min: -0.08
      max: 0.08
    }
    bias_filler {
      type: "constant"
      value: 0
    }
  }
}
layer {
  name: "predict"
  type: "InnerProduct"
  bottom: "lstm2"
  top: "predict"
  param {
    lr_mult: 1
    decay_mult: 1
  }
  param {
    lr_mult: 2
    decay_mult: 0
  }
  inner_product_param {
    num_output: 46168
    weight_filler {
      type: "uniform"
      min: -0.08
      max: 0.08
    }
    bias_filler {
      type: "constant"
      value: 0
    }
    axis: 2
  }
}
layer {
  name: "probs"
  type: "Softmax"
  bottom: "predict"
  top: "probs"
  softmax_param {
    axis: 2
  }
}
I0925 21:49:32.950001  8501 layer_factory.hpp:77] Creating layer input
I0925 21:49:32.950012  8473 layer_factory.hpp:77] Creating layer input
I0925 21:49:32.949993  8495 layer_factory.hpp:77] Creating layer input
I0925 21:49:32.949993  8477 layer_factory.hpp:77] Creating layer input
I0925 21:49:32.950047  8473 net.cpp:91] Creating Layer input
…
I0925 21:49:32.950142  8501 net.cpp:399] input -> input_sentence
I0925 21:49:32.950146  8477 net.cpp:399] input -> input_sentence
I0925 21:49:32.950168  8473 net.cpp:399] input -> stage_indicator
I0925 21:49:32.950175  8483 net.cpp:399] input -> input_sentence
I0925 21:49:32.950179  8501 net.cpp:399] input -> stage_indicator
I0925 21:49:32.950186  8477 net.cpp:399] input -> stage_indicator
I0925 21:49:32.950173  8495 net.cpp:399] input -> stage_indicator
I0925 21:49:32.950201  8483 net.cpp:399] input -> stage_indicator
I0925 21:49:33.614650  8481 net.cpp:141] Setting up data
I0925 21:49:33.614730  8481 net.cpp:148] Top shape: 10 3 227 227 (1545870)
I0925 21:49:33.614739  8481 net.cpp:156] Memory required for data: 6183480
I0925 21:49:33.614764  8481 layer_factory.hpp:77] Creating layer conv1
I0925 21:49:33.614760  8473 net.cpp:141] Setting up input
I0925 21:49:33.614799  8473 net.cpp:148] Top shape: 1 4096 (4096)
I0925 21:49:33.614804  8481 net.cpp:91] Creating Layer conv1
I0925 21:49:33.614809  8473 net.cpp:148] Top shape: 1 1 (1)
I0925 21:49:33.614814  8481 net.cpp:425] conv1 <- data
I0925 21:49:33.614817  8473 net.cpp:148] Top shape: 1 1 (1)
I0925 21:49:33.614825  8473 net.cpp:148] Top shape: 1 1 (1)
I0925 21:49:33.614830  8473 net.cpp:156] Memory required for data: 16396
I0925 21:49:33.614830  8481 net.cpp:399] conv1 -> conv1
I0925 21:49:33.614842  8473 layer_factory.hpp:77] Creating layer cont_sentence_input_1_split
I0925 21:49:33.614881  8473 net.cpp:91] Creating Layer cont_sentence_input_1_split
I0925 21:49:33.614889  8473 net.cpp:425] cont_sentence_input_1_split <- cont_sentence
I0925 21:49:33.614909  8477 net.cpp:141] Setting up input
I0925 21:49:33.614933  8477 net.cpp:148] Top shape: 1 4096 (4096)
I0925 21:49:33.614936  8473 net.cpp:399] cont_sentence_input_1_split -> cont_sentence_input_1_split_0
I0925 21:49:33.614943  8477 net.cpp:148] Top shape: 1 1 (1)
I0925 21:49:33.614951  8477 net.cpp:148] Top shape: 1 1 (1)
I0925 21:49:33.614959  8477 net.cpp:148] Top shape: 1 1 (1)
I0925 21:49:33.614964  8477 net.cpp:156] Memory required for data: 16396
I0925 21:49:33.614965  8473 net.cpp:399] cont_sentence_input_1_split -> cont_sentence_input_1_split_1
I0925 21:49:33.614972  8477 layer_factory.hpp:77] Creating layer cont_sentence_input_1_split
I0925 21:49:33.614986  8477 net.cpp:91] Creating Layer cont_sentence_input_1_split
I0925 21:49:33.614995  8477 net.cpp:425] cont_sentence_input_1_split <- cont_sentence
I0925 21:49:33.615005  8477 net.cpp:399] cont_sentence_input_1_split -> cont_sentence_input_1_split_0
I0925 21:49:33.615016  8477 net.cpp:399] cont_sentence_input_1_split -> cont_sentence_input_1_split_1
I0925 21:49:33.615178  8473 net.cpp:141] Setting up cont_sentence_input_1_split
I0925 21:49:33.615193  8473 net.cpp:148] Top shape: 1 1 (1)
I0925 21:49:33.615201  8473 net.cpp:148] Top shape: 1 1 (1)
I0925 21:49:33.615206  8473 net.cpp:156] Memory required for data: 16404
I0925 21:49:33.615211  8473 layer_factory.hpp:77] Creating layer embed_encoder
I0925 21:49:33.615236  8473 net.cpp:91] Creating Layer embed_encoder
I0925 21:49:33.615242  8473 net.cpp:425] embed_encoder <- frames_fc7
I0925 21:49:33.615253  8473 net.cpp:399] embed_encoder -> embedded_in_frames
I0925 21:49:33.615425  8501 net.cpp:141] Setting up input
I0925 21:49:33.615447  8501 net.cpp:148] Top shape: 1 4096 (4096)
I0925 21:49:33.615455  8501 net.cpp:148] Top shape: 1 1 (1)
I0925 21:49:33.615463  8501 net.cpp:148] Top shape: 1 1 (1)
I0925 21:49:33.615469  8501 net.cpp:148] Top shape: 1 1 (1)
I0925 21:49:33.615474  8501 net.cpp:156] Memory required for data: 16396
I0925 21:49:33.615475  8495 net.cpp:141] Setting up input
I0925 21:49:33.615480  8501 layer_factory.hpp:77] Creating layer cont_sentence_input_1_split
I0925 21:49:33.615496  8495 net.cpp:148] Top shape: 1 4096 (4096)
I0925 21:49:33.615504  8495 net.cpp:148] Top shape: 1 1 (1)
I0925 21:49:33.615504  8501 net.cpp:91] Creating Layer cont_sentence_input_1_split
I0925 21:49:33.615515  8495 net.cpp:148] Top shape: 1 1 (1)
I0925 21:49:33.615520  8501 net.cpp:425] cont_sentence_input_1_split <- cont_sentence
I0925 21:49:33.615522  8495 net.cpp:148] Top shape: 1 1 (1)
I0925 21:49:33.615528  8495 net.cpp:156] Memory required for data: 16396
I0925 21:49:33.615530  8501 net.cpp:399] cont_sentence_input_1_split -> cont_sentence_input_1_split_0
I0925 21:49:33.615535  8495 layer_factory.hpp:77] Creating layer cont_sentence_input_1_split
I0925 21:49:33.615542  8501 net.cpp:399] cont_sentence_input_1_split -> cont_sentence_input_1_split_1
I0925 21:49:33.615545  8495 net.cpp:91] Creating Layer cont_sentence_input_1_split
I0925 21:49:33.615556  8495 net.cpp:425] cont_sentence_input_1_split <- cont_sentence
I0925 21:49:33.615571  8495 net.cpp:399] cont_sentence_input_1_split -> cont_sentence_input_1_split_0
I0925 21:49:33.615586  8495 net.cpp:399] cont_sentence_input_1_split -> cont_sentence_input_1_split_1
I0925 21:49:33.615617  8501 net.cpp:141] Setting up cont_sentence_input_1_split
I0925 21:49:33.615629  8501 net.cpp:148] Top shape: 1 1 (1)
I0925 21:49:33.615635  8501 net.cpp:148] Top shape: 1 1 (1)
I0925 21:49:33.615640  8501 net.cpp:156] Memory required for data: 16404
I0925 21:49:33.615646  8501 layer_factory.hpp:77] Creating layer embed_encoder
I0925 21:49:33.615664  8501 net.cpp:91] Creating Layer embed_encoder
I0925 21:49:33.615669  8501 net.cpp:425] embed_encoder <- frames_fc7
I0925 21:49:33.615679  8501 net.cpp:399] embed_encoder -> embedded_in_frames
I0925 21:49:33.616626  8483 net.cpp:141] Setting up input
I0925 21:49:33.616642  8483 net.cpp:148] Top shape: 1 4096 (4096)
I0925 21:49:33.616652  8483 net.cpp:148] Top shape: 1 1 (1)
I0925 21:49:33.616657  8483 net.cpp:148] Top shape: 1 1 (1)
I0925 21:49:33.616667  8483 net.cpp:148] Top shape: 1 1 (1)
I0925 21:49:33.616672  8477 net.cpp:141] Setting up cont_sentence_input_1_split
I0925 21:49:33.616675  8483 net.cpp:156] Memory required for data: 16396
I0925 21:49:33.616695  8477 net.cpp:148] Top shape: 1 1 (1)
I0925 21:49:33.616700  8483 layer_factory.hpp:77] Creating layer cont_sentence_input_1_split
I0925 21:49:33.616704  8477 net.cpp:148] Top shape: 1 1 (1)
I0925 21:49:33.616724  8477 net.cpp:156] Memory required for data: 16404
I0925 21:49:33.616744  8483 net.cpp:91] Creating Layer cont_sentence_input_1_split
I0925 21:49:33.616758  8483 net.cpp:425] cont_sentence_input_1_split <- cont_sentence
I0925 21:49:33.616772  8483 net.cpp:399] cont_sentence_input_1_split -> cont_sentence_input_1_split_0
I0925 21:49:33.616776  8477 layer_factory.hpp:77] Creating layer embed_encoder
I0925 21:49:33.616791  8483 net.cpp:399] cont_sentence_input_1_split -> cont_sentence_input_1_split_1
I0925 21:49:33.616796  8477 net.cpp:91] Creating Layer embed_encoder
I0925 21:49:33.616803  8477 net.cpp:425] embed_encoder <- frames_fc7
I0925 21:49:33.616813  8477 net.cpp:399] embed_encoder -> embedded_in_frames
I0925 21:49:33.621358  8495 net.cpp:141] Setting up cont_sentence_input_1_split
I0925 21:49:33.621381  8495 net.cpp:148] Top shape: 1 1 (1)
I0925 21:49:33.621388  8495 net.cpp:148] Top shape: 1 1 (1)
I0925 21:49:33.621394  8495 net.cpp:156] Memory required for data: 16404
I0925 21:49:33.621400  8495 layer_factory.hpp:77] Creating layer embed_encoder
I0925 21:49:33.621414  8495 net.cpp:91] Creating Layer embed_encoder
I0925 21:49:33.621422  8495 net.cpp:425] embed_encoder <- frames_fc7
I0925 21:49:33.621431  8495 net.cpp:399] embed_encoder -> embedded_in_frames
I0925 21:49:33.630174  8483 net.cpp:141] Setting up cont_sentence_input_1_split
I0925 21:49:33.630208  8483 net.cpp:148] Top shape: 1 1 (1)
I0925 21:49:33.630220  8483 net.cpp:148] Top shape: 1 1 (1)
I0925 21:49:33.630228  8483 net.cpp:156] Memory required for data: 16404
I0925 21:49:33.630237  8483 layer_factory.hpp:77] Creating layer embed_encoder
I0925 21:49:33.630272  8483 net.cpp:91] Creating Layer embed_encoder
I0925 21:49:33.630283  8483 net.cpp:425] embed_encoder <- frames_fc7
I0925 21:49:33.630300  8483 net.cpp:399] embed_encoder -> embedded_in_frames
I0925 21:49:33.647094  8473 net.cpp:141] Setting up embed_encoder
I0925 21:49:33.647135  8473 net.cpp:148] Top shape: 1 500 (500)
I0925 21:49:33.647145  8473 net.cpp:156] Memory required for data: 18404
I0925 21:49:33.647207  8473 layer_factory.hpp:77] Creating layer reshape_frames
I0925 21:49:33.647248  8473 net.cpp:91] Creating Layer reshape_frames
I0925 21:49:33.647259  8473 net.cpp:425] reshape_frames <- embedded_in_frames
I0925 21:49:33.647275  8473 net.cpp:399] reshape_frames -> embedded_input_frames
I0925 21:49:33.647271  8501 net.cpp:141] Setting up embed_encoder
I0925 21:49:33.647310  8501 net.cpp:148] Top shape: 1 500 (500)
I0925 21:49:33.647316  8501 net.cpp:156] Memory required for data: 18404
I0925 21:49:33.647338  8501 layer_factory.hpp:77] Creating layer reshape_frames
I0925 21:49:33.647359  8501 net.cpp:91] Creating Layer reshape_frames
I0925 21:49:33.647367  8501 net.cpp:425] reshape_frames <- embedded_in_frames
I0925 21:49:33.647378  8501 net.cpp:399] reshape_frames -> embedded_input_frames
I0925 21:49:33.647375  8473 net.cpp:141] Setting up reshape_frames
I0925 21:49:33.647409  8473 net.cpp:148] Top shape: 1 1 500 (500)
I0925 21:49:33.647418  8473 net.cpp:156] Memory required for data: 20404
I0925 21:49:33.647426  8473 layer_factory.hpp:77] Creating layer reshape_stage_indicator
I0925 21:49:33.647444  8473 net.cpp:91] Creating Layer reshape_stage_indicator
I0925 21:49:33.647452  8473 net.cpp:425] reshape_stage_indicator <- stage_indicator
I0925 21:49:33.647466  8473 net.cpp:399] reshape_stage_indicator -> reshaped_stage_indicator
I0925 21:49:33.655812  8473 net.cpp:141] Setting up reshape_stage_indicator
I0925 21:49:33.655833  8473 net.cpp:148] Top shape: 1 1 1 (1)
I0925 21:49:33.655840  8473 net.cpp:156] Memory required for data: 20408
I0925 21:49:33.655848  8473 layer_factory.hpp:77] Creating layer embedding
I0925 21:49:33.655867  8473 net.cpp:91] Creating Layer embedding
I0925 21:49:33.655875  8473 net.cpp:425] embedding <- input_sentence
I0925 21:49:33.655889  8473 net.cpp:399] embedding -> embedded_input_sentence
I0925 21:49:33.655912  8501 net.cpp:141] Setting up reshape_frames
I0925 21:49:33.655941  8501 net.cpp:148] Top shape: 1 1 500 (500)
I0925 21:49:33.655946  8501 net.cpp:156] Memory required for data: 20404
I0925 21:49:33.655953  8501 layer_factory.hpp:77] Creating layer reshape_stage_indicator
I0925 21:49:33.655969  8501 net.cpp:91] Creating Layer reshape_stage_indicator
I0925 21:49:33.655977  8501 net.cpp:425] reshape_stage_indicator <- stage_indicator
I0925 21:49:33.655992  8501 net.cpp:399] reshape_stage_indicator -> reshaped_stage_indicator
I0925 21:49:33.656167  8501 net.cpp:141] Setting up reshape_stage_indicator
I0925 21:49:33.656179  8501 net.cpp:148] Top shape: 1 1 1 (1)
I0925 21:49:33.656184  8501 net.cpp:156] Memory required for data: 20408
I0925 21:49:33.656190  8501 layer_factory.hpp:77] Creating layer embedding
I0925 21:49:33.656203  8501 net.cpp:91] Creating Layer embedding
I0925 21:49:33.656209  8501 net.cpp:425] embedding <- input_sentence
I0925 21:49:33.656221  8501 net.cpp:399] embedding -> embedded_input_sentence
I0925 21:49:33.656250  8477 net.cpp:141] Setting up embed_encoder
I0925 21:49:33.656273  8477 net.cpp:148] Top shape: 1 500 (500)
I0925 21:49:33.656282  8477 net.cpp:156] Memory required for data: 18404
I0925 21:49:33.656306  8477 layer_factory.hpp:77] Creating layer reshape_frames
I0925 21:49:33.656333  8477 net.cpp:91] Creating Layer reshape_frames
I0925 21:49:33.656344  8477 net.cpp:425] reshape_frames <- embedded_in_frames
I0925 21:49:33.656363  8477 net.cpp:399] reshape_frames -> embedded_input_frames
I0925 21:49:33.745033  8477 net.cpp:141] Setting up reshape_frames
I0925 21:49:33.745090  8477 net.cpp:148] Top shape: 1 1 500 (500)
I0925 21:49:33.745096  8477 net.cpp:156] Memory required for data: 20404
I0925 21:49:33.745105  8477 layer_factory.hpp:77] Creating layer reshape_stage_indicator
I0925 21:49:33.745136  8477 net.cpp:91] Creating Layer reshape_stage_indicator
I0925 21:49:33.745151  8477 net.cpp:425] reshape_stage_indicator <- stage_indicator
I0925 21:49:33.745187  8477 net.cpp:399] reshape_stage_indicator -> reshaped_stage_indicator
I0925 21:49:33.745332  8495 net.cpp:141] Setting up embed_encoder
I0925 21:49:33.745349  8495 net.cpp:148] Top shape: 1 500 (500)
I0925 21:49:33.745355  8495 net.cpp:156] Memory required for data: 18404
I0925 21:49:33.745374  8495 layer_factory.hpp:77] Creating layer reshape_frames
I0925 21:49:33.745385  8495 net.cpp:91] Creating Layer reshape_frames
I0925 21:49:33.745393  8495 net.cpp:425] reshape_frames <- embedded_in_frames
I0925 21:49:33.745403  8495 net.cpp:399] reshape_frames -> embedded_input_frames
I0925 21:49:33.745458  8495 net.cpp:141] Setting up reshape_frames
I0925 21:49:33.745476  8495 net.cpp:148] Top shape: 1 1 500 (500)
I0925 21:49:33.745484  8495 net.cpp:156] Memory required for data: 20404
I0925 21:49:33.745494  8495 layer_factory.hpp:77] Creating layer reshape_stage_indicator
I0925 21:49:33.745503  8477 net.cpp:141] Setting up reshape_stage_indicator
I0925 21:49:33.745512  8495 net.cpp:91] Creating Layer reshape_stage_indicator
I0925 21:49:33.745520  8477 net.cpp:148] Top shape: 1 1 1 (1)
I0925 21:49:33.745522  8495 net.cpp:425] reshape_stage_indicator <- stage_indicator
I0925 21:49:33.745530  8477 net.cpp:156] Memory required for data: 20408
I0925 21:49:33.745543  8495 net.cpp:399] reshape_stage_indicator -> reshaped_stage_indicator
I0925 21:49:33.745540  8477 layer_factory.hpp:77] Creating layer embedding
I0925 21:49:33.745571  8477 net.cpp:91] Creating Layer embedding
I0925 21:49:33.745584  8477 net.cpp:425] embedding <- input_sentence
I0925 21:49:33.745595  8477 net.cpp:399] embedding -> embedded_input_sentence
I0925 21:49:33.745743  8495 net.cpp:141] Setting up reshape_stage_indicator
I0925 21:49:33.745762  8495 net.cpp:148] Top shape: 1 1 1 (1)
I0925 21:49:33.745772  8495 net.cpp:156] Memory required for data: 20408
I0925 21:49:33.745781  8495 layer_factory.hpp:77] Creating layer embedding
I0925 21:49:33.745797  8495 net.cpp:91] Creating Layer embedding
I0925 21:49:33.745806  8495 net.cpp:425] embedding <- input_sentence
I0925 21:49:33.745821  8495 net.cpp:399] embedding -> embedded_input_sentence
I0925 21:49:33.789481  8483 net.cpp:141] Setting up embed_encoder
I0925 21:49:33.789544  8483 net.cpp:148] Top shape: 1 500 (500)
I0925 21:49:33.789553  8483 net.cpp:156] Memory required for data: 18404
I0925 21:49:33.789587  8483 layer_factory.hpp:77] Creating layer reshape_frames
I0925 21:49:33.789633  8483 net.cpp:91] Creating Layer reshape_frames
I0925 21:49:33.789649  8483 net.cpp:425] reshape_frames <- embedded_in_frames
I0925 21:49:33.789664  8483 net.cpp:399] reshape_frames -> embedded_input_frames
I0925 21:49:33.847115  8483 net.cpp:141] Setting up reshape_frames
I0925 21:49:33.847170  8483 net.cpp:148] Top shape: 1 1 500 (500)
I0925 21:49:33.847178  8483 net.cpp:156] Memory required for data: 20404
I0925 21:49:33.847193  8483 layer_factory.hpp:77] Creating layer reshape_stage_indicator
I0925 21:49:33.847225  8483 net.cpp:91] Creating Layer reshape_stage_indicator
I0925 21:49:33.847237  8483 net.cpp:425] reshape_stage_indicator <- stage_indicator
I0925 21:49:33.847290  8483 net.cpp:399] reshape_stage_indicator -> reshaped_stage_indicator
I0925 21:49:33.854727  8483 net.cpp:141] Setting up reshape_stage_indicator
I0925 21:49:33.854754  8483 net.cpp:148] Top shape: 1 1 1 (1)
I0925 21:49:33.854769  8483 net.cpp:156] Memory required for data: 20408
I0925 21:49:33.854784  8483 layer_factory.hpp:77] Creating layer embedding
I0925 21:49:33.854817  8483 net.cpp:91] Creating Layer embedding
I0925 21:49:33.854831  8483 net.cpp:425] embedding <- input_sentence
I0925 21:49:33.854868  8483 net.cpp:399] embedding -> embedded_input_sentence
I0925 21:49:33.913066  8501 net.cpp:141] Setting up embedding
I0925 21:49:33.913118  8501 net.cpp:148] Top shape: 1 1 500 (500)
I0925 21:49:33.913125  8501 net.cpp:156] Memory required for data: 22408
I0925 21:49:33.913143  8501 layer_factory.hpp:77] Creating layer lstm1
I0925 21:49:33.913177  8501 net.cpp:91] Creating Layer lstm1
I0925 21:49:33.913184  8501 net.cpp:425] lstm1 <- embedded_input_frames
I0925 21:49:33.913193  8501 net.cpp:425] lstm1 <- cont_sentence_input_1_split_0
I0925 21:49:33.913205  8501 net.cpp:399] lstm1 -> lstm1
I0925 21:49:33.913244  8501 recurrent_layer.cpp:20] Initializing recurrent layer: assuming input batch contains 1 timesteps of 1 independent streams.
I0925 21:49:33.913653  8501 net.cpp:49] Initializing net from parameters: 
layer {
  name: "lstm1_"
  type: "Input"
  top: "x"
  top: "cont"
  input_param {
    shape {
      dim: 1
      dim: 1
      dim: 500
    }
    shape {
      dim: 1
      dim: 1
    }
  }
}
layer {
  name: "lstm1_"
  type: "Input"
  top: "c_0"
  top: "h_0"
  input_param {
    shape {
      dim: 1
      dim: 1
      dim: 1000
    }
    shape {
      dim: 1
      dim: 1
      dim: 1000
    }
  }
}
layer {
  name: "lstm1_cont_slice"
  type: "Slice"
  bottom: "cont"
  top: "cont_1"
  slice_param {
    axis: 0
  }
}
layer {
  name: "lstm1_x_transform"
  type: "InnerProduct"
  bottom: "x"
  top: "W_xc_x"
  param {
    name: "W_xc"
  }
  param {
    name: "b_c"
  }
  propagate_down: true
  inner_product_param {
    num_output: 4000
    bias_term: true
    weight_filler {
      type: "uniform"
      min: -0.08
      max: 0.08
    }
    bias_filler {
      type: "constant"
      value: 0
    }
    axis: 2
  }
}
layer {
  name: "lstm1_W_xc_x_slice"
  type: "Slice"
  bottom: "W_xc_x"
  top: "W_xc_x_1"
  slice_param {
    axis: 0
  }
}
layer {
  name: "lstm1_h_conted_0"
  type: "Scale"
  bottom: "h_0"
  bottom: "cont_1"
  top: "h_conted_0"
  scale_param {
    axis: 0
  }
}
layer {
  name: "lstm1_transform_1"
  type: "InnerProduct"
  bottom: "h_conted_0"
  top: "W_hc_h_0"
  param {
    name: "W_hc"
  }
  inner_product_param {
    num_output: 4000
    bias_term: false
    weight_filler {
      type: "uniform"
      min: -0.08
      max: 0.08
    }
    axis: 2
  }
}
layer {
  name: "lstm1_gate_input_1"
  type: "Eltwise"
  bottom: "W_hc_h_0"
  bottom: "W_xc_x_1"
  top: "gate_input_1"
  eltwise_param {
    operation: SUM
  }
}
layer {
  name: "lstm1_unit_1"
  type: "LSTMUnit"
  bottom: "c_0"
  bottom: "gate_input_1"
  bottom: "cont_1"
  top: "c_1"
  top: "h_1"
}
layer {
  name: "lstm1_"
  type: "Split"
  bottom: "c_1"
  top: "c_T"
}
layer {
  name: "lstm1_h_concat"
  type: "Concat"
  bottom: "h_1"
  top: "h"
  concat_param {
    axis: 0
  }
}
layer {
  name: "h_pseudoloss"
  type: "Reduction"
  bottom: "h"
  top: "h_pseudoloss"
  loss_weight: 1
}
I0925 21:49:33.913758  8501 layer_factory.hpp:77] Creating layer lstm1_
I0925 21:49:33.913774  8501 net.cpp:91] Creating Layer lstm1_
I0925 21:49:33.913780  8501 net.cpp:399] lstm1_ -> x
I0925 21:49:33.913794  8501 net.cpp:399] lstm1_ -> cont
I0925 21:49:33.920390  8501 net.cpp:141] Setting up lstm1_
I0925 21:49:33.920419  8501 net.cpp:148] Top shape: 1 1 500 (500)
I0925 21:49:33.920428  8501 net.cpp:148] Top shape: 1 1 (1)
I0925 21:49:33.920433  8501 net.cpp:156] Memory required for data: 2004
I0925 21:49:33.920440  8501 layer_factory.hpp:77] Creating layer lstm1_
I0925 21:49:33.920454  8501 net.cpp:91] Creating Layer lstm1_
I0925 21:49:33.920469  8501 net.cpp:399] lstm1_ -> c_0
I0925 21:49:33.920485  8501 net.cpp:399] lstm1_ -> h_0
I0925 21:49:33.921576  8501 net.cpp:141] Setting up lstm1_
I0925 21:49:33.921589  8501 net.cpp:148] Top shape: 1 1 1000 (1000)
I0925 21:49:33.921597  8501 net.cpp:148] Top shape: 1 1 1000 (1000)
I0925 21:49:33.921600  8501 net.cpp:156] Memory required for data: 10004
I0925 21:49:33.921607  8501 layer_factory.hpp:77] Creating layer lstm1_cont_slice
I0925 21:49:33.921617  8501 net.cpp:91] Creating Layer lstm1_cont_slice
I0925 21:49:33.921623  8501 net.cpp:425] lstm1_cont_slice <- cont
I0925 21:49:33.921634  8501 net.cpp:399] lstm1_cont_slice -> cont_1
I0925 21:49:33.921775  8501 net.cpp:141] Setting up lstm1_cont_slice
I0925 21:49:33.921787  8501 net.cpp:148] Top shape: 1 1 (1)
I0925 21:49:33.921792  8501 net.cpp:156] Memory required for data: 10008
I0925 21:49:33.921797  8501 layer_factory.hpp:77] Creating layer cont_1_lstm1_cont_slice_0_split
I0925 21:49:33.921810  8501 net.cpp:91] Creating Layer cont_1_lstm1_cont_slice_0_split
I0925 21:49:33.921816  8501 net.cpp:425] cont_1_lstm1_cont_slice_0_split <- cont_1
I0925 21:49:33.921823  8501 net.cpp:399] cont_1_lstm1_cont_slice_0_split -> cont_1_lstm1_cont_slice_0_split_0
I0925 21:49:33.921833  8501 net.cpp:399] cont_1_lstm1_cont_slice_0_split -> cont_1_lstm1_cont_slice_0_split_1
I0925 21:49:33.924587  8501 net.cpp:141] Setting up cont_1_lstm1_cont_slice_0_split
I0925 21:49:33.924600  8501 net.cpp:148] Top shape: 1 1 (1)
I0925 21:49:33.924607  8501 net.cpp:148] Top shape: 1 1 (1)
I0925 21:49:33.924612  8501 net.cpp:156] Memory required for data: 10016
I0925 21:49:33.924618  8501 layer_factory.hpp:77] Creating layer lstm1_x_transform
I0925 21:49:33.924633  8501 net.cpp:91] Creating Layer lstm1_x_transform
I0925 21:49:33.924638  8501 net.cpp:425] lstm1_x_transform <- x
I0925 21:49:33.924648  8501 net.cpp:399] lstm1_x_transform -> W_xc_x
I0925 21:49:33.951359  8501 net.cpp:141] Setting up lstm1_x_transform
I0925 21:49:33.951403  8501 net.cpp:148] Top shape: 1 1 4000 (4000)
I0925 21:49:33.951409  8501 net.cpp:156] Memory required for data: 26016
I0925 21:49:33.951431  8501 layer_factory.hpp:77] Creating layer lstm1_W_xc_x_slice
I0925 21:49:33.951447  8501 net.cpp:91] Creating Layer lstm1_W_xc_x_slice
I0925 21:49:33.951454  8501 net.cpp:425] lstm1_W_xc_x_slice <- W_xc_x
I0925 21:49:33.951464  8501 net.cpp:399] lstm1_W_xc_x_slice -> W_xc_x_1
I0925 21:49:33.951719  8501 net.cpp:141] Setting up lstm1_W_xc_x_slice
I0925 21:49:33.951731  8501 net.cpp:148] Top shape: 1 1 4000 (4000)
I0925 21:49:33.951736  8501 net.cpp:156] Memory required for data: 42016
I0925 21:49:33.951742  8501 layer_factory.hpp:77] Creating layer lstm1_h_conted_0
I0925 21:49:33.951761  8501 net.cpp:91] Creating Layer lstm1_h_conted_0
I0925 21:49:33.951767  8501 net.cpp:425] lstm1_h_conted_0 <- h_0
I0925 21:49:33.951774  8501 net.cpp:425] lstm1_h_conted_0 <- cont_1_lstm1_cont_slice_0_split_0
I0925 21:49:33.951782  8501 net.cpp:399] lstm1_h_conted_0 -> h_conted_0
I0925 21:49:33.952268  8501 net.cpp:141] Setting up lstm1_h_conted_0
I0925 21:49:33.952280  8501 net.cpp:148] Top shape: 1 1 1000 (1000)
I0925 21:49:33.952286  8501 net.cpp:156] Memory required for data: 46016
I0925 21:49:33.952291  8501 layer_factory.hpp:77] Creating layer lstm1_transform_1
I0925 21:49:33.952304  8501 net.cpp:91] Creating Layer lstm1_transform_1
I0925 21:49:33.952311  8501 net.cpp:425] lstm1_transform_1 <- h_conted_0
I0925 21:49:33.952322  8501 net.cpp:399] lstm1_transform_1 -> W_hc_h_0
I0925 21:49:33.976505  8473 net.cpp:141] Setting up embedding
I0925 21:49:33.976562  8473 net.cpp:148] Top shape: 1 1 500 (500)
I0925 21:49:33.976569  8473 net.cpp:156] Memory required for data: 22408
I0925 21:49:33.976590  8473 layer_factory.hpp:77] Creating layer lstm1
I0925 21:49:33.976618  8473 net.cpp:91] Creating Layer lstm1
I0925 21:49:33.976626  8473 net.cpp:425] lstm1 <- embedded_input_frames
I0925 21:49:33.976636  8473 net.cpp:425] lstm1 <- cont_sentence_input_1_split_0
I0925 21:49:33.976647  8473 net.cpp:399] lstm1 -> lstm1
I0925 21:49:33.976670  8473 recurrent_layer.cpp:20] Initializing recurrent layer: assuming input batch contains 1 timesteps of 1 independent streams.
I0925 21:49:33.977021  8473 net.cpp:49] Initializing net from parameters: 
layer {
  name: "lstm1_"
  type: "Input"
  top: "x"
  top: "cont"
  input_param {
    shape {
      dim: 1
      dim: 1
      dim: 500
    }
    shape {
      dim: 1
      dim: 1
    }
  }
}
layer {
  name: "lstm1_"
  type: "Input"
  top: "c_0"
  top: "h_0"
  input_param {
    shape {
      dim: 1
      dim: 1
      dim: 1000
    }
    shape {
      dim: 1
      dim: 1
      dim: 1000
    }
  }
}
layer {
  name: "lstm1_cont_slice"
  type: "Slice"
  bottom: "cont"
  top: "cont_1"
  slice_param {
    axis: 0
  }
}
layer {
  name: "lstm1_x_transform"
  type: "InnerProduct"
  bottom: "x"
  top: "W_xc_x"
  param {
    name: "W_xc"
  }
  param {
    name: "b_c"
  }
  propagate_down: true
  inner_product_param {
    num_output: 4000
    bias_term: true
    weight_filler {
      type: "uniform"
      min: -0.08
      max: 0.08
    }
    bias_filler {
      type: "constant"
      value: 0
    }
    axis: 2
  }
}
layer {
  name: "lstm1_W_xc_x_slice"
  type: "Slice"
  bottom: "W_xc_x"
  top: "W_xc_x_1"
  slice_param {
    axis: 0
  }
}
layer {
  name: "lstm1_h_conted_0"
  type: "Scale"
  bottom: "h_0"
  bottom: "cont_1"
  top: "h_conted_0"
  scale_param {
    axis: 0
  }
}
layer {
  name: "lstm1_transform_1"
  type: "InnerProduct"
  bottom: "h_conted_0"
  top: "W_hc_h_0"
  param {
    name: "W_hc"
  }
  inner_product_param {
    num_output: 4000
    bias_term: false
    weight_filler {
      type: "uniform"
      min: -0.08
      max: 0.08
    }
    axis: 2
  }
}
layer {
  name: "lstm1_gate_input_1"
  type: "Eltwise"
  bottom: "W_hc_h_0"
  bottom: "W_xc_x_1"
  top: "gate_input_1"
  eltwise_param {
    operation: SUM
  }
}
layer {
  name: "lstm1_unit_1"
  type: "LSTMUnit"
  bottom: "c_0"
  bottom: "gate_input_1"
  bottom: "cont_1"
  top: "c_1"
  top: "h_1"
}
layer {
  name: "lstm1_"
  type: "Split"
  bottom: "c_1"
  top: "c_T"
}
layer {
  name: "lstm1_h_concat"
  type: "Concat"
  bottom: "h_1"
  top: "h"
  concat_param {
    axis: 0
  }
}
layer {
  name: "h_pseudoloss"
  type: "Reduction"
  bottom: "h"
  top: "h_pseudoloss"
  loss_weight: 1
}
I0925 21:49:33.977128  8473 layer_factory.hpp:77] Creating layer lstm1_
I0925 21:49:33.977144  8473 net.cpp:91] Creating Layer lstm1_
I0925 21:49:33.977150  8473 net.cpp:399] lstm1_ -> x
I0925 21:49:33.977164  8473 net.cpp:399] lstm1_ -> cont
I0925 21:49:33.977900  8473 net.cpp:141] Setting up lstm1_
I0925 21:49:33.977921  8473 net.cpp:148] Top shape: 1 1 500 (500)
I0925 21:49:33.977928  8473 net.cpp:148] Top shape: 1 1 (1)
I0925 21:49:33.977933  8473 net.cpp:156] Memory required for data: 2004
I0925 21:49:33.977939  8473 layer_factory.hpp:77] Creating layer lstm1_
I0925 21:49:33.977963  8473 net.cpp:91] Creating Layer lstm1_
I0925 21:49:33.977972  8473 net.cpp:399] lstm1_ -> c_0
I0925 21:49:33.977985  8473 net.cpp:399] lstm1_ -> h_0
I0925 21:49:33.981655  8473 net.cpp:141] Setting up lstm1_
I0925 21:49:33.981676  8473 net.cpp:148] Top shape: 1 1 1000 (1000)
I0925 21:49:33.981684  8473 net.cpp:148] Top shape: 1 1 1000 (1000)
I0925 21:49:33.981688  8473 net.cpp:156] Memory required for data: 10004
I0925 21:49:33.981694  8473 layer_factory.hpp:77] Creating layer lstm1_cont_slice
I0925 21:49:33.981708  8473 net.cpp:91] Creating Layer lstm1_cont_slice
I0925 21:49:33.981714  8473 net.cpp:425] lstm1_cont_slice <- cont
I0925 21:49:33.981737  8473 net.cpp:399] lstm1_cont_slice -> cont_1
I0925 21:49:33.985859  8473 net.cpp:141] Setting up lstm1_cont_slice
I0925 21:49:33.985879  8473 net.cpp:148] Top shape: 1 1 (1)
I0925 21:49:33.985885  8473 net.cpp:156] Memory required for data: 10008
I0925 21:49:33.985891  8473 layer_factory.hpp:77] Creating layer cont_1_lstm1_cont_slice_0_split
I0925 21:49:33.985903  8473 net.cpp:91] Creating Layer cont_1_lstm1_cont_slice_0_split
I0925 21:49:33.985908  8473 net.cpp:425] cont_1_lstm1_cont_slice_0_split <- cont_1
I0925 21:49:33.985916  8473 net.cpp:399] cont_1_lstm1_cont_slice_0_split -> cont_1_lstm1_cont_slice_0_split_0
I0925 21:49:33.985927  8473 net.cpp:399] cont_1_lstm1_cont_slice_0_split -> cont_1_lstm1_cont_slice_0_split_1
I0925 21:49:33.986116  8473 net.cpp:141] Setting up cont_1_lstm1_cont_slice_0_split
I0925 21:49:33.986129  8473 net.cpp:148] Top shape: 1 1 (1)
I0925 21:49:33.986135  8473 net.cpp:148] Top shape: 1 1 (1)
I0925 21:49:33.986140  8473 net.cpp:156] Memory required for data: 10016
I0925 21:49:33.986146  8473 layer_factory.hpp:77] Creating layer lstm1_x_transform
I0925 21:49:33.986162  8473 net.cpp:91] Creating Layer lstm1_x_transform
I0925 21:49:33.986168  8473 net.cpp:425] lstm1_x_transform <- x
I0925 21:49:33.986178  8473 net.cpp:399] lstm1_x_transform -> W_xc_x
I0925 21:49:33.998811  8501 net.cpp:141] Setting up lstm1_transform_1
I0925 21:49:33.998858  8501 net.cpp:148] Top shape: 1 1 4000 (4000)
I0925 21:49:33.998864  8501 net.cpp:156] Memory required for data: 62016
I0925 21:49:33.998886  8501 layer_factory.hpp:77] Creating layer lstm1_gate_input_1
I0925 21:49:33.998908  8501 net.cpp:91] Creating Layer lstm1_gate_input_1
I0925 21:49:33.998915  8501 net.cpp:425] lstm1_gate_input_1 <- W_hc_h_0
I0925 21:49:33.998924  8501 net.cpp:425] lstm1_gate_input_1 <- W_xc_x_1
I0925 21:49:33.998935  8501 net.cpp:399] lstm1_gate_input_1 -> gate_input_1
I0925 21:49:34.000744  8501 net.cpp:141] Setting up lstm1_gate_input_1
I0925 21:49:34.000764  8501 net.cpp:148] Top shape: 1 1 4000 (4000)
I0925 21:49:34.000771  8501 net.cpp:156] Memory required for data: 78016
I0925 21:49:34.000777  8501 layer_factory.hpp:77] Creating layer lstm1_unit_1
I0925 21:49:34.000795  8501 net.cpp:91] Creating Layer lstm1_unit_1
I0925 21:49:34.000802  8501 net.cpp:425] lstm1_unit_1 <- c_0
I0925 21:49:34.000810  8501 net.cpp:425] lstm1_unit_1 <- gate_input_1
I0925 21:49:34.000816  8501 net.cpp:425] lstm1_unit_1 <- cont_1_lstm1_cont_slice_0_split_1
I0925 21:49:34.000824  8501 net.cpp:399] lstm1_unit_1 -> c_1
I0925 21:49:34.000838  8501 net.cpp:399] lstm1_unit_1 -> h_1
I0925 21:49:34.003970  8501 net.cpp:141] Setting up lstm1_unit_1
I0925 21:49:34.003993  8501 net.cpp:148] Top shape: 1 1 1000 (1000)
I0925 21:49:34.004000  8501 net.cpp:148] Top shape: 1 1 1000 (1000)
I0925 21:49:34.004005  8501 net.cpp:156] Memory required for data: 86016
I0925 21:49:34.004011  8501 layer_factory.hpp:77] Creating layer lstm1_
I0925 21:49:34.004024  8501 net.cpp:91] Creating Layer lstm1_
I0925 21:49:34.004030  8501 net.cpp:425] lstm1_ <- c_1
I0925 21:49:34.004040  8501 net.cpp:399] lstm1_ -> c_T
I0925 21:49:34.005533  8501 net.cpp:141] Setting up lstm1_
I0925 21:49:34.005554  8501 net.cpp:148] Top shape: 1 1 1000 (1000)
I0925 21:49:34.005560  8501 net.cpp:156] Memory required for data: 90016
I0925 21:49:34.005566  8501 layer_factory.hpp:77] Creating layer lstm1_h_concat
I0925 21:49:34.005578  8501 net.cpp:91] Creating Layer lstm1_h_concat
I0925 21:49:34.005584  8501 net.cpp:425] lstm1_h_concat <- h_1
I0925 21:49:34.005596  8501 net.cpp:399] lstm1_h_concat -> h
I0925 21:49:34.005594  8477 net.cpp:141] Setting up embedding
I0925 21:49:34.005614  8477 net.cpp:148] Top shape: 1 1 500 (500)
I0925 21:49:34.005620  8477 net.cpp:156] Memory required for data: 22408
I0925 21:49:34.005635  8477 layer_factory.hpp:77] Creating layer lstm1
I0925 21:49:34.005648  8477 net.cpp:91] Creating Layer lstm1
I0925 21:49:34.005656  8477 net.cpp:425] lstm1 <- embedded_input_frames
I0925 21:49:34.005663  8477 net.cpp:425] lstm1 <- cont_sentence_input_1_split_0
I0925 21:49:34.005676  8477 net.cpp:399] lstm1 -> lstm1
I0925 21:49:34.005692  8477 recurrent_layer.cpp:20] Initializing recurrent layer: assuming input batch contains 1 timesteps of 1 independent streams.
I0925 21:49:34.005997  8477 net.cpp:49] Initializing net from parameters: 
layer {
  name: "lstm1_"
  type: "Input"
  top: "x"
  top: "cont"
  input_param {
    shape {
      dim: 1
      dim: 1
      dim: 500
    }
    shape {
      dim: 1
      dim: 1
    }
  }
}
layer {
  name: "lstm1_"
  type: "Input"
  top: "c_0"
  top: "h_0"
  input_param {
    shape {
      dim: 1
      dim: 1
      dim: 1000
    }
    shape {
      dim: 1
      dim: 1
      dim: 1000
    }
  }
}
layer {
  name: "lstm1_cont_slice"
  type: "Slice"
  bottom: "cont"
  top: "cont_1"
  slice_param {
    axis: 0
  }
}
layer {
  name: "lstm1_x_transform"
  type: "InnerProduct"
  bottom: "x"
  top: "W_xc_x"
  param {
    name: "W_xc"
  }
  param {
    name: "b_c"
  }
  propagate_down: true
  inner_product_param {
    num_output: 4000
    bias_term: true
    weight_filler {
      type: "uniform"
      min: -0.08
      max: 0.08
    }
    bias_filler {
      type: "constant"
      value: 0
    }
    axis: 2
  }
}
layer {
  name: "lstm1_W_xc_x_slice"
  type: "Slice"
  bottom: "W_xc_x"
  top: "W_xc_x_1"
  slice_param {
    axis: 0
  }
}
layer {
  name: "lstm1_h_conted_0"
  type: "Scale"
  bottom: "h_0"
  bottom: "cont_1"
  top: "h_conted_0"
  scale_param {
    axis: 0
  }
}
layer {
  name: "lstm1_transform_1"
  type: "InnerProduct"
  bottom: "h_conted_0"
  top: "W_hc_h_0"
  param {
    name: "W_hc"
  }
  inner_product_param {
    num_output: 4000
    bias_term: false
    weight_filler {
      type: "uniform"
      min: -0.08
      max: 0.08
    }
    axis: 2
  }
}
layer {
  name: "lstm1_gate_input_1"
  type: "Eltwise"
  bottom: "W_hc_h_0"
  bottom: "W_xc_x_1"
  top: "gate_input_1"
  eltwise_param {
    operation: SUM
  }
}
layer {
  name: "lstm1_unit_1"
  type: "LSTMUnit"
  bottom: "c_0"
  bottom: "gate_input_1"
  bottom: "cont_1"
  top: "c_1"
  top: "h_1"
}
layer {
  name: "lstm1_"
  type: "Split"
  bottom: "c_1"
  top: "c_T"
}
layer {
  name: "lstm1_h_concat"
  type: "Concat"
  bottom: "h_1"
  top: "h"
  concat_param {
    axis: 0
  }
}
layer {
  name: "h_pseudoloss"
  type: "Reduction"
  bottom: "h"
  top: "h_pseudoloss"
  loss_weight: 1
}
I0925 21:49:34.006103  8477 layer_factory.hpp:77] Creating layer lstm1_
I0925 21:49:34.006116  8477 net.cpp:91] Creating Layer lstm1_
I0925 21:49:34.006124  8477 net.cpp:399] lstm1_ -> x
I0925 21:49:34.006137  8477 net.cpp:399] lstm1_ -> cont
I0925 21:49:34.010856  8477 net.cpp:141] Setting up lstm1_
I0925 21:49:34.010877  8477 net.cpp:148] Top shape: 1 1 500 (500)
I0925 21:49:34.010885  8477 net.cpp:148] Top shape: 1 1 (1)
I0925 21:49:34.010890  8477 net.cpp:156] Memory required for data: 2004
I0925 21:49:34.010896  8477 layer_factory.hpp:77] Creating layer lstm1_
I0925 21:49:34.010910  8477 net.cpp:91] Creating Layer lstm1_
I0925 21:49:34.010926  8477 net.cpp:399] lstm1_ -> c_0
I0925 21:49:34.010939  8477 net.cpp:399] lstm1_ -> h_0
I0925 21:49:34.011009  8501 net.cpp:141] Setting up lstm1_h_concat
I0925 21:49:34.011029  8501 net.cpp:148] Top shape: 1 1 1000 (1000)
I0925 21:49:34.011035  8501 net.cpp:156] Memory required for data: 94016
I0925 21:49:34.011041  8501 layer_factory.hpp:77] Creating layer h_pseudoloss
I0925 21:49:34.011063  8501 net.cpp:91] Creating Layer h_pseudoloss
I0925 21:49:34.011070  8501 net.cpp:425] h_pseudoloss <- h
I0925 21:49:34.011080  8501 net.cpp:399] h_pseudoloss -> h_pseudoloss
I0925 21:49:34.011211  8477 net.cpp:141] Setting up lstm1_
I0925 21:49:34.011224  8477 net.cpp:148] Top shape: 1 1 1000 (1000)
I0925 21:49:34.011231  8477 net.cpp:148] Top shape: 1 1 1000 (1000)
I0925 21:49:34.011236  8477 net.cpp:156] Memory required for data: 10004
I0925 21:49:34.011241  8477 layer_factory.hpp:77] Creating layer lstm1_cont_slice
I0925 21:49:34.011265  8501 net.cpp:141] Setting up h_pseudoloss
I0925 21:49:34.011273  8477 net.cpp:91] Creating Layer lstm1_cont_slice
I0925 21:49:34.011278  8501 net.cpp:148] Top shape: (1)
I0925 21:49:34.011282  8477 net.cpp:425] lstm1_cont_slice <- cont
…
I0925 21:49:34.011505  8473 net.cpp:91] Creating Layer lstm1_W_xc_x_slice
I0925 21:49:34.011514  8473 net.cpp:425] lstm1_W_xc_x_slice <- W_xc_x
I0925 21:49:34.011528  8473 net.cpp:399] lstm1_W_xc_x_slice -> W_xc_x_1
I0925 21:49:34.011528  8501 net.cpp:274] Network initialization done.
I0925 21:49:34.011595  8501 recurrent_layer.cpp:150] Adding parameter 0: W_xc
I0925 21:49:34.011602  8501 recurrent_layer.cpp:150] Adding parameter 1: b_c
I0925 21:49:34.011607  8501 recurrent_layer.cpp:150] Adding parameter 2: W_hc
I0925 21:49:34.012073  8477 net.cpp:141] Setting up cont_1_lstm1_cont_slice_0_split
I0925 21:49:34.012084  8477 net.cpp:148] Top shape: 1 1 (1)
I0925 21:49:34.012091  8477 net.cpp:148] Top shape: 1 1 (1)
I0925 21:49:34.012096  8477 net.cpp:156] Memory required for data: 10016
I0925 21:49:34.012101  8477 layer_factory.hpp:77] Creating layer lstm1_x_transform
I0925 21:49:34.012114  8477 net.cpp:91] Creating Layer lstm1_x_transform
I0925 21:49:34.012120  8477 net.cpp:425] lstm1_x_transform <- x
I0925 21:49:34.012128  8477 net.cpp:399] lstm1_x_transform -> W_xc_x
I0925 21:49:34.012140  8473 net.cpp:141] Setting up lstm1_W_xc_x_slice
I0925 21:49:34.012161  8473 net.cpp:148] Top shape: 1 1 4000 (4000)
I0925 21:49:34.012166  8473 net.cpp:156] Memory required for data: 42016
I0925 21:49:34.012173  8473 layer_factory.hpp:77] Creating layer lstm1_h_conted_0
I0925 21:49:34.012187  8473 net.cpp:91] Creating Layer lstm1_h_conted_0
I0925 21:49:34.012192  8473 net.cpp:425] lstm1_h_conted_0 <- h_0
I0925 21:49:34.012200  8473 net.cpp:425] lstm1_h_conted_0 <- cont_1_lstm1_cont_slice_0_split_0
I0925 21:49:34.012250  8473 net.cpp:399] lstm1_h_conted_0 -> h_conted_0
I0925 21:49:34.016630  8473 net.cpp:141] Setting up lstm1_h_conted_0
I0925 21:49:34.016645  8473 net.cpp:148] Top shape: 1 1 1000 (1000)
I0925 21:49:34.016650  8473 net.cpp:156] Memory required for data: 46016
I0925 21:49:34.016656  8473 layer_factory.hpp:77] Creating layer lstm1_transform_1
I0925 21:49:34.016676  8473 net.cpp:91] Creating Layer lstm1_transform_1
I0925 21:49:34.016683  8473 net.cpp:425] lstm1_transform_1 <- h_conted_0
I0925 21:49:34.016692  8473 net.cpp:399] lstm1_transform_1 -> W_hc_h_0
I0925 21:49:34.016688  8501 net.cpp:141] Setting up lstm1
I0925 21:49:34.016719  8501 net.cpp:148] Top shape: 1 1 1000 (1000)
I0925 21:49:34.016726  8501 net.cpp:156] Memory required for data: 26408
I0925 21:49:34.016747  8501 layer_factory.hpp:77] Creating layer concat
I0925 21:49:34.016772  8501 net.cpp:91] Creating Layer concat
I0925 21:49:34.016779  8501 net.cpp:425] concat <- lstm1
I0925 21:49:34.016788  8501 net.cpp:425] concat <- embedded_input_sentence
I0925 21:49:34.016794  8501 net.cpp:425] concat <- reshaped_stage_indicator
I0925 21:49:34.016803  8501 net.cpp:399] concat -> lstm1_video_sequence
I0925 21:49:34.020622  8501 net.cpp:141] Setting up concat
I0925 21:49:34.020637  8501 net.cpp:148] Top shape: 1 1 1501 (1501)
I0925 21:49:34.020642  8501 net.cpp:156] Memory required for data: 32412
I0925 21:49:34.020648  8501 layer_factory.hpp:77] Creating layer lstm2
I0925 21:49:34.020668  8501 net.cpp:91] Creating Layer lstm2
I0925 21:49:34.020675  8501 net.cpp:425] lstm2 <- lstm1_video_sequence
I0925 21:49:34.020684  8501 net.cpp:425] lstm2 <- cont_sentence_input_1_split_1
I0925 21:49:34.020692  8501 net.cpp:399] lstm2 -> lstm2
I0925 21:49:34.020705  8501 recurrent_layer.cpp:20] Initializing recurrent layer: assuming input batch contains 1 timesteps of 1 independent streams.
I0925 21:49:34.020994  8501 net.cpp:49] Initializing net from parameters: 
layer {
  name: "lstm2_"
  type: "Input"
  top: "x"
  top: "cont"
  input_param {
    shape {
      dim: 1
      dim: 1
      dim: 1501
    }
    shape {
      dim: 1
      dim: 1
    }
  }
}
layer {
  name: "lstm2_"
  type: "Input"
  top: "c_0"
  top: "h_0"
  input_param {
    shape {
      dim: 1
      dim: 1
      dim: 1000
    }
    shape {
      dim: 1
      dim: 1
      dim: 1000
    }
  }
}
layer {
  name: "lstm2_cont_slice"
  type: "Slice"
  bottom: "cont"
  top: "cont_1"
  slice_param {
    axis: 0
  }
}
layer {
  name: "lstm2_x_transform"
  type: "InnerProduct"
  bottom: "x"
  top: "W_xc_x"
  param {
    name: "W_xc"
  }
  param {
    name: "b_c"
  }
  propagate_down: true
  inner_product_param {
    num_output: 4000
    bias_term: true
    weight_filler {
      type: "uniform"
      min: -0.08
      max: 0.08
    }
    bias_filler {
      type: "constant"
      value: 0
    }
    axis: 2
  }
}
layer {
  name: "lstm2_W_xc_x_slice"
  type: "Slice"
  bottom: "W_xc_x"
  top: "W_xc_x_1"
  slice_param {
    axis: 0
  }
}
layer {
  name: "lstm2_h_conted_0"
  type: "Scale"
  bottom: "h_0"
  bottom: "cont_1"
  top: "h_conted_0"
  scale_param {
    axis: 0
  }
}
layer {
  name: "lstm2_transform_1"
  type: "InnerProduct"
  bottom: "h_conted_0"
  top: "W_hc_h_0"
  param {
    name: "W_hc"
  }
  inner_product_param {
    num_output: 4000
    bias_term: false
    weight_filler {
      type: "uniform"
      min: -0.08
      max: 0.08
    }
    axis: 2
  }
}
layer {
  name: "lstm2_gate_input_1"
  type: "Eltwise"
  bottom: "W_hc_h_0"
  bottom: "W_xc_x_1"
  top: "gate_input_1"
  eltwise_param {
    operation: SUM
  }
}
layer {
  name: "lstm2_unit_1"
  type: "LSTMUnit"
  bottom: "c_0"
  bottom: "gate_input_1"
  bottom: "cont_1"
  top: "c_1"
  top: "h_1"
}
layer {
  name: "lstm2_"
  type: "Split"
  bottom: "c_1"
  top: "c_T"
}
layer {
  name: "lstm2_h_concat"
  type: "Concat"
  bottom: "h_1"
  top: "h"
  concat_param {
    axis: 0
  }
}
layer {
  name: "h_pseudoloss"
  type: "Reduction"
  bottom: "h"
  top: "h_pseudoloss"
  loss_weight: 1
}
I0925 21:49:34.021095  8501 layer_factory.hpp:77] Creating layer lstm2_
I0925 21:49:34.021108  8501 net.cpp:91] Creating Layer lstm2_
I0925 21:49:34.021116  8501 net.cpp:399] lstm2_ -> x
I0925 21:49:34.021128  8501 net.cpp:399] lstm2_ -> cont
I0925 21:49:34.029016  8501 net.cpp:141] Setting up lstm2_
I0925 21:49:34.029038  8501 net.cpp:148] Top shape: 1 1 1501 (1501)
I0925 21:49:34.029047  8501 net.cpp:148] Top shape: 1 1 (1)
I0925 21:49:34.029052  8501 net.cpp:156] Memory required for data: 6008
I0925 21:49:34.029057  8501 layer_factory.hpp:77] Creating layer lstm2_
I0925 21:49:34.029070  8501 net.cpp:91] Creating Layer lstm2_
I0925 21:49:34.029085  8501 net.cpp:399] lstm2_ -> c_0
I0925 21:49:34.029099  8501 net.cpp:399] lstm2_ -> h_0
I0925 21:49:34.033314  8477 net.cpp:141] Setting up lstm1_x_transform
I0925 21:49:34.033334  8477 net.cpp:148] Top shape: 1 1 4000 (4000)
I0925 21:49:34.033340  8477 net.cpp:156] Memory required for data: 26016
I0925 21:49:34.033354  8477 layer_factory.hpp:77] Creating layer lstm1_W_xc_x_slice
I0925 21:49:34.033359  8501 net.cpp:141] Setting up lstm2_
I0925 21:49:34.033366  8477 net.cpp:91] Creating Layer lstm1_W_xc_x_slice
I0925 21:49:34.033385  8501 net.cpp:148] Top shape: 1 1 1000 (1000)
I0925 21:49:34.033386  8477 net.cpp:425] lstm1_W_xc_x_slice <- W_xc_x
I0925 21:49:34.033393  8501 net.cpp:148] Top shape: 1 1 1000 (1000)
I0925 21:49:34.033396  8477 net.cpp:399] lstm1_W_xc_x_slice -> W_xc_x_1
I0925 21:49:34.033398  8501 net.cpp:156] Memory required for data: 14008
I0925 21:49:34.033406  8501 layer_factory.hpp:77] Creating layer lstm2_cont_slice
I0925 21:49:34.033423  8501 net.cpp:91] Creating Layer lstm2_cont_slice
I0925 21:49:34.033429  8501 net.cpp:425] lstm2_cont_slice <- cont
I0925 21:49:34.033439  8501 net.cpp:399] lstm2_cont_slice -> cont_1
I0925 21:49:34.033447  8477 net.cpp:141] Setting up lstm1_W_xc_x_slice
I0925 21:49:34.033458  8477 net.cpp:148] Top shape: 1 1 4000 (4000)
I0925 21:49:34.033464  8477 net.cpp:156] Memory required for data: 42016
I0925 21:49:34.033469  8477 layer_factory.hpp:77] Creating layer lstm1_h_conted_0
I0925 21:49:34.033485  8477 net.cpp:91] Creating Layer lstm1_h_conted_0
I0925 21:49:34.033491  8477 net.cpp:425] lstm1_h_conted_0 <- h_0
I0925 21:49:34.033493  8501 net.cpp:141] Setting up lstm2_cont_slice
I0925 21:49:34.033499  8477 net.cpp:425] lstm1_h_conted_0 <- cont_1_lstm1_cont_slice_0_split_0
I0925 21:49:34.033504  8501 net.cpp:148] Top shape: 1 1 (1)
I0925 21:49:34.033506  8477 net.cpp:399] lstm1_h_conted_0 -> h_conted_0
I0925 21:49:34.033509  8501 net.cpp:156] Memory required for data: 14012
I0925 21:49:34.033515  8501 layer_factory.hpp:77] Creating layer cont_1_lstm2_cont_slice_0_split
I0925 21:49:34.033525  8501 net.cpp:91] Creating Layer cont_1_lstm2_cont_slice_0_split
I0925 21:49:34.033530  8501 net.cpp:425] cont_1_lstm2_cont_slice_0_split <- cont_1
I0925 21:49:34.033542  8501 net.cpp:399] cont_1_lstm2_cont_slice_0_split -> cont_1_lstm2_cont_slice_0_split_0
I0925 21:49:34.033552  8501 net.cpp:399] cont_1_lstm2_cont_slice_0_split -> cont_1_lstm2_cont_slice_0_split_1
I0925 21:49:34.035001  8477 net.cpp:141] Setting up lstm1_h_conted_0
I0925 21:49:34.035014  8477 net.cpp:148] Top shape: 1 1 1000 (1000)
I0925 21:49:34.035019  8477 net.cpp:156] Memory required for data: 46016
I0925 21:49:34.035025  8477 layer_factory.hpp:77] Creating layer lstm1_transform_1
I0925 21:49:34.035037  8477 net.cpp:91] Creating Layer lstm1_transform_1
I0925 21:49:34.035043  8477 net.cpp:425] lstm1_transform_1 <- h_conted_0
I0925 21:49:34.035051  8477 net.cpp:399] lstm1_transform_1 -> W_hc_h_0
I0925 21:49:34.035059  8501 net.cpp:141] Setting up cont_1_lstm2_cont_slice_0_split
I0925 21:49:34.035073  8501 net.cpp:148] Top shape: 1 1 (1)
I0925 21:49:34.035079  8501 net.cpp:148] Top shape: 1 1 (1)
I0925 21:49:34.035084  8501 net.cpp:156] Memory required for data: 14020
I0925 21:49:34.035089  8501 layer_factory.hpp:77] Creating layer lstm2_x_transform
I0925 21:49:34.035105  8501 net.cpp:91] Creating Layer lstm2_x_transform
I0925 21:49:34.035111  8501 net.cpp:425] lstm2_x_transform <- x
I0925 21:49:34.035121  8501 net.cpp:399] lstm2_x_transform -> W_xc_x
I0925 21:49:34.055948  8495 net.cpp:141] Setting up embedding
I0925 21:49:34.056000  8495 net.cpp:148] Top shape: 1 1 500 (500)
I0925 21:49:34.056007  8495 net.cpp:156] Memory required for data: 22408
I0925 21:49:34.056026  8495 layer_factory.hpp:77] Creating layer lstm1
I0925 21:49:34.056048  8495 net.cpp:91] Creating Layer lstm1
I0925 21:49:34.056058  8495 net.cpp:425] lstm1 <- embedded_input_frames
I0925 21:49:34.056068  8495 net.cpp:425] lstm1 <- cont_sentence_input_1_split_0
I0925 21:49:34.056078  8495 net.cpp:399] lstm1 -> lstm1
I0925 21:49:34.056098  8495 recurrent_layer.cpp:20] Initializing recurrent layer: assuming input batch contains 1 timesteps of 1 independent streams.
I0925 21:49:34.056401  8495 net.cpp:49] Initializing net from parameters: 
layer {
  name: "lstm1_"
  type: "Input"
  top: "x"
  top: "cont"
  input_param {
    shape {
      dim: 1
      dim: 1
      dim: 500
    }
    shape {
      dim: 1
      dim: 1
    }
  }
}
layer {
  name: "lstm1_"
  type: "Input"
  top: "c_0"
  top: "h_0"
  input_param {
    shape {
      dim: 1
      dim: 1
      dim: 1000
    }
    shape {
      dim: 1
      dim: 1
      dim: 1000
    }
  }
}
layer {
  name: "lstm1_cont_slice"
  type: "Slice"
  bottom: "cont"
  top: "cont_1"
  slice_param {
    axis: 0
  }
}
layer {
  name: "lstm1_x_transform"
  type: "InnerProduct"
  bottom: "x"
  top: "W_xc_x"
  param {
    name: "W_xc"
  }
  param {
    name: "b_c"
  }
  propagate_down: true
  inner_product_param {
    num_output: 4000
    bias_term: true
    weight_filler {
      type: "uniform"
      min: -0.08
      max: 0.08
    }
    bias_filler {
      type: "constant"
      value: 0
    }
    axis: 2
  }
}
layer {
  name: "lstm1_W_xc_x_slice"
  type: "Slice"
  bottom: "W_xc_x"
  top: "W_xc_x_1"
  slice_param {
    axis: 0
  }
}
layer {
  name: "lstm1_h_conted_0"
  type: "Scale"
  bottom: "h_0"
  bottom: "cont_1"
  top: "h_conted_0"
  scale_param {
    axis: 0
  }
}
layer {
  name: "lstm1_transform_1"
  type: "InnerProduct"
  bottom: "h_conted_0"
  top: "W_hc_h_0"
  param {
    name: "W_hc"
  }
  inner_product_param {
    num_output: 4000
    bias_term: false
    weight_filler {
      type: "uniform"
      min: -0.08
      max: 0.08
    }
    axis: 2
  }
}
layer {
  name: "lstm1_gate_input_1"
  type: "Eltwise"
  bottom: "W_hc_h_0"
  bottom: "W_xc_x_1"
  top: "gate_input_1"
  eltwise_param {
    operation: SUM
  }
}
layer {
  name: "lstm1_unit_1"
  type: "LSTMUnit"
  bottom: "c_0"
  bottom: "gate_input_1"
  bottom: "cont_1"
  top: "c_1"
  top: "h_1"
}
layer {
  name: "lstm1_"
  type: "Split"
  bottom: "c_1"
  top: "c_T"
}
layer {
  name: "lstm1_h_concat"
  type: "Concat"
  bottom: "h_1"
  top: "h"
  concat_param {
    axis: 0
  }
}
layer {
  name: "h_pseudoloss"
  type: "Reduction"
  bottom: "h"
  top: "h_pseudoloss"
  loss_weight: 1
}
I0925 21:49:34.056499  8495 layer_factory.hpp:77] Creating layer lstm1_
I0925 21:49:34.056512  8495 net.cpp:91] Creating Layer lstm1_
I0925 21:49:34.056520  8495 net.cpp:399] lstm1_ -> x
I0925 21:49:34.056534  8495 net.cpp:399] lstm1_ -> cont
I0925 21:49:34.056903  8495 net.cpp:141] Setting up lstm1_
I0925 21:49:34.056916  8495 net.cpp:148] Top shape: 1 1 500 (500)
I0925 21:49:34.056923  8495 net.cpp:148] Top shape: 1 1 (1)
I0925 21:49:34.056928  8495 net.cpp:156] Memory required for data: 2004
I0925 21:49:34.056934  8495 layer_factory.hpp:77] Creating layer lstm1_
I0925 21:49:34.056946  8495 net.cpp:91] Creating Layer lstm1_
I0925 21:49:34.056957  8495 net.cpp:399] lstm1_ -> c_0
I0925 21:49:34.056969  8495 net.cpp:399] lstm1_ -> h_0
I0925 21:49:34.063271  8495 net.cpp:141] Setting up lstm1_
I0925 21:49:34.063319  8495 net.cpp:148] Top shape: 1 1 1000 (1000)
I0925 21:49:34.063328  8495 net.cpp:148] Top shape: 1 1 1000 (1000)
I0925 21:49:34.063333  8495 net.cpp:156] Memory required for data: 10004
I0925 21:49:34.063343  8495 layer_factory.hpp:77] Creating layer lstm1_cont_slice
I0925 21:49:34.063369  8495 net.cpp:91] Creating Layer lstm1_cont_slice
I0925 21:49:34.063377  8495 net.cpp:425] lstm1_cont_slice <- cont
I0925 21:49:34.063391  8495 net.cpp:399] lstm1_cont_slice -> cont_1
I0925 21:49:34.063585  8495 net.cpp:141] Setting up lstm1_cont_slice
I0925 21:49:34.063597  8495 net.cpp:148] Top shape: 1 1 (1)
I0925 21:49:34.063602  8495 net.cpp:156] Memory required for data: 10008
I0925 21:49:34.063608  8495 layer_factory.hpp:77] Creating layer cont_1_lstm1_cont_slice_0_split
I0925 21:49:34.063621  8495 net.cpp:91] Creating Layer cont_1_lstm1_cont_slice_0_split
I0925 21:49:34.063627  8495 net.cpp:425] cont_1_lstm1_cont_slice_0_split <- cont_1
I0925 21:49:34.063634  8495 net.cpp:399] cont_1_lstm1_cont_slice_0_split -> cont_1_lstm1_cont_slice_0_split_0
I0925 21:49:34.063645  8495 net.cpp:399] cont_1_lstm1_cont_slice_0_split -> cont_1_lstm1_cont_slice_0_split_1
I0925 21:49:34.064973  8495 net.cpp:141] Setting up cont_1_lstm1_cont_slice_0_split
I0925 21:49:34.064986  8495 net.cpp:148] Top shape: 1 1 (1)
I0925 21:49:34.064993  8495 net.cpp:148] Top shape: 1 1 (1)
I0925 21:49:34.064997  8495 net.cpp:156] Memory required for data: 10016
I0925 21:49:34.065003  8495 layer_factory.hpp:77] Creating layer lstm1_x_transform
I0925 21:49:34.065026  8495 net.cpp:91] Creating Layer lstm1_x_transform
I0925 21:49:34.065032  8495 net.cpp:425] lstm1_x_transform <- x
I0925 21:49:34.065042  8495 net.cpp:399] lstm1_x_transform -> W_xc_x
I0925 21:49:34.065088  8473 net.cpp:141] Setting up lstm1_transform_1
I0925 21:49:34.065138  8473 net.cpp:148] Top shape: 1 1 4000 (4000)
I0925 21:49:34.065145  8473 net.cpp:156] Memory required for data: 62016
I0925 21:49:34.065198  8473 layer_factory.hpp:77] Creating layer lstm1_gate_input_1
I0925 21:49:34.065232  8473 net.cpp:91] Creating Layer lstm1_gate_input_1
I0925 21:49:34.065239  8473 net.cpp:425] lstm1_gate_input_1 <- W_hc_h_0
I0925 21:49:34.065248  8473 net.cpp:425] lstm1_gate_input_1 <- W_xc_x_1
I0925 21:49:34.065260  8473 net.cpp:399] lstm1_gate_input_1 -> gate_input_1
I0925 21:49:34.073576  8473 net.cpp:141] Setting up lstm1_gate_input_1
I0925 21:49:34.073597  8473 net.cpp:148] Top shape: 1 1 4000 (4000)
I0925 21:49:34.073603  8473 net.cpp:156] Memory required for data: 78016
I0925 21:49:34.073609  8473 layer_factory.hpp:77] Creating layer lstm1_unit_1
I0925 21:49:34.073628  8473 net.cpp:91] Creating Layer lstm1_unit_1
I0925 21:49:34.073635  8473 net.cpp:425] lstm1_unit_1 <- c_0
I0925 21:49:34.073643  8473 net.cpp:425] lstm1_unit_1 <- gate_input_1
I0925 21:49:34.073649  8473 net.cpp:425] lstm1_unit_1 <- cont_1_lstm1_cont_slice_0_split_1
I0925 21:49:34.073657  8473 net.cpp:399] lstm1_unit_1 -> c_1
I0925 21:49:34.073668  8473 net.cpp:399] lstm1_unit_1 -> h_1
I0925 21:49:34.074579  8473 net.cpp:141] Setting up lstm1_unit_1
I0925 21:49:34.074612  8473 net.cpp:148] Top shape: 1 1 1000 (1000)
I0925 21:49:34.074620  8473 net.cpp:148] Top shape: 1 1 1000 (1000)
I0925 21:49:34.074626  8473 net.cpp:156] Memory required for data: 86016
I0925 21:49:34.074632  8473 layer_factory.hpp:77] Creating layer lstm1_
I0925 21:49:34.074645  8473 net.cpp:91] Creating Layer lstm1_
I0925 21:49:34.074651  8473 net.cpp:425] lstm1_ <- c_1
I0925 21:49:34.074662  8473 net.cpp:399] lstm1_ -> c_T
I0925 21:49:34.078426  8473 net.cpp:141] Setting up lstm1_
I0925 21:49:34.078452  8473 net.cpp:148] Top shape: 1 1 1000 (1000)
I0925 21:49:34.078459  8473 net.cpp:156] Memory required for data: 90016
I0925 21:49:34.078465  8473 layer_factory.hpp:77] Creating layer lstm1_h_concat
I0925 21:49:34.078479  8473 net.cpp:91] Creating Layer lstm1_h_concat
I0925 21:49:34.078485  8473 net.cpp:425] lstm1_h_concat <- h_1
I0925 21:49:34.078493  8473 net.cpp:399] lstm1_h_concat -> h
I0925 21:49:34.083133  8477 net.cpp:141] Setting up lstm1_transform_1
I0925 21:49:34.083178  8477 net.cpp:148] Top shape: 1 1 4000 (4000)
I0925 21:49:34.083185  8477 net.cpp:156] Memory required for data: 62016
I0925 21:49:34.083205  8477 layer_factory.hpp:77] Creating layer lstm1_gate_input_1
I0925 21:49:34.083207  8473 net.cpp:141] Setting up lstm1_h_concat
I0925 21:49:34.083230  8473 net.cpp:148] Top shape: 1 1 1000 (1000)
I0925 21:49:34.083230  8477 net.cpp:91] Creating Layer lstm1_gate_input_1
I0925 21:49:34.083235  8473 net.cpp:156] Memory required for data: 94016
I0925 21:49:34.083240  8477 net.cpp:425] lstm1_gate_input_1 <- W_hc_h_0
I0925 21:49:34.083242  8473 layer_factory.hpp:77] Creating layer h_pseudoloss
I0925 21:49:34.083250  8477 net.cpp:425] lstm1_gate_input_1 <- W_xc_x_1
I0925 21:49:34.083259  8473 net.cpp:91] Creating Layer h_pseudoloss
I0925 21:49:34.083261  8477 net.cpp:399] lstm1_gate_input_1 -> gate_input_1
I0925 21:49:34.083268  8473 net.cpp:425] h_pseudoloss <- h
I0925 21:49:34.083279  8473 net.cpp:399] h_pseudoloss -> h_pseudoloss
I0925 21:49:34.083436  8477 net.cpp:141] Setting up lstm1_gate_input_1
I0925 21:49:34.083449  8477 net.cpp:148] Top shape: 1 1 4000 (4000)
I0925 21:49:34.083454  8477 net.cpp:156] Memory required for data: 78016
I0925 21:49:34.083461  8477 layer_factory.hpp:77] Creating layer lstm1_unit_1
I0925 21:49:34.083470  8477 net.cpp:91] Creating Layer lstm1_unit_1
I0925 21:49:34.083477  8477 net.cpp:425] lstm1_unit_1 <- c_0
I0925 21:49:34.083483  8477 net.cpp:425] lstm1_unit_1 <- gate_input_1
I0925 21:49:34.083489  8477 net.cpp:425] lstm1_unit_1 <- cont_1_lstm1_cont_slice_0_split_1
…
I0925 21:49:34.083664  8473 net.cpp:217] lstm1_gate_input_1 needs backward computation.
I0925 21:49:34.083673  8473 net.cpp:217] lstm1_transform_1 needs backward computation.
I0925 21:49:34.083678  8473 net.cpp:219] lstm1_h_conted_0 does not need backward computation.
I0925 21:49:34.083685  8473 net.cpp:217] lstm1_W_xc_x_slice needs backward computation.
I0925 21:49:34.083691  8473 net.cpp:217] lstm1_x_transform needs backward computation.
I0925 21:49:34.083691  8477 net.cpp:141] Setting up lstm1_unit_1
I0925 21:49:34.083698  8473 net.cpp:219] cont_1_lstm1_cont_slice_0_split does not need backward computation.
I0925 21:49:34.083710  8477 net.cpp:148] Top shape: 1 1 1000 (1000)
I0925 21:49:34.083719  8473 net.cpp:219] lstm1_cont_slice does not need backward computation.
I0925 21:49:34.083719  8477 net.cpp:148] Top shape: 1 1 1000 (1000)
I0925 21:49:34.083730  8473 net.cpp:219] lstm1_ does not need backward computation.
I0925 21:49:34.083748  8473 net.cpp:219] lstm1_ does not need backward computation.
I0925 21:49:34.083755  8473 net.cpp:261] This network produces output c_T
I0925 21:49:34.083739  8477 net.cpp:156] Memory required for data: 86016
I0925 21:49:34.083762  8473 net.cpp:261] This network produces output h_pseudoloss
I0925 21:49:34.083765  8477 layer_factory.hpp:77] Creating layer lstm1_
I0925 21:49:34.083780  8477 net.cpp:91] Creating Layer lstm1_
I0925 21:49:34.083781  8473 net.cpp:274] Network initialization done.
I0925 21:49:34.083786  8477 net.cpp:425] lstm1_ <- c_1
I0925 21:49:34.083796  8477 net.cpp:399] lstm1_ -> c_T
I0925 21:49:34.083843  8473 recurrent_layer.cpp:150] Adding parameter 0: W_xc
I0925 21:49:34.083851  8473 recurrent_layer.cpp:150] Adding parameter 1: b_c
I0925 21:49:34.083858  8473 recurrent_layer.cpp:150] Adding parameter 2: W_hc
I0925 21:49:34.083963  8477 net.cpp:141] Setting up lstm1_
I0925 21:49:34.083976  8477 net.cpp:148] Top shape: 1 1 1000 (1000)
I0925 21:49:34.083981  8477 net.cpp:156] Memory required for data: 90016
I0925 21:49:34.083986  8477 layer_factory.hpp:77] Creating layer lstm1_h_concat
I0925 21:49:34.083998  8477 net.cpp:91] Creating Layer lstm1_h_concat
I0925 21:49:34.084003  8477 net.cpp:425] lstm1_h_concat <- h_1
I0925 21:49:34.084017  8477 net.cpp:399] lstm1_h_concat -> h
I0925 21:49:34.084069  8477 net.cpp:141] Setting up lstm1_h_concat
I0925 21:49:34.084079  8477 net.cpp:148] Top shape: 1 1 1000 (1000)
I0925 21:49:34.084084  8477 net.cpp:156] Memory required for data: 94016
I0925 21:49:34.084089  8477 layer_factory.hpp:77] Creating layer h_pseudoloss
I0925 21:49:34.084098  8477 net.cpp:91] Creating Layer h_pseudoloss
I0925 21:49:34.084103  8477 net.cpp:425] h_pseudoloss <- h
I0925 21:49:34.084111  8477 net.cpp:399] h_pseudoloss -> h_pseudoloss
I0925 21:49:34.084117  8473 net.cpp:141] Setting up lstm1
I0925 21:49:34.084132  8473 net.cpp:148] Top shape: 1 1 1000 (1000)
I0925 21:49:34.084137  8473 net.cpp:156] Memory required for data: 26408
I0925 21:49:34.084157  8473 layer_factory.hpp:77] Creating layer concat
I0925 21:49:34.084168  8473 net.cpp:91] Creating Layer concat
I0925 21:49:34.084177  8473 net.cpp:425] concat <- lstm1
I0925 21:49:34.084183  8473 net.cpp:425] concat <- embedded_input_sentence
I0925 21:49:34.084190  8473 net.cpp:425] concat <- reshaped_stage_indicator
I0925 21:49:34.084197  8473 net.cpp:399] concat -> lstm1_video_sequence
I0925 21:49:34.084251  8473 net.cpp:141] Setting up concat
I0925 21:49:34.084261  8473 net.cpp:148] Top shape: 1 1 1501 (1501)
I0925 21:49:34.084266  8473 net.cpp:156] Memory required for data: 32412
I0925 21:49:34.084272  8473 layer_factory.hpp:77] Creating layer lstm2
I0925 21:49:34.084288  8473 net.cpp:91] Creating Layer lstm2
I0925 21:49:34.084295  8473 net.cpp:425] lstm2 <- lstm1_video_sequence
I0925 21:49:34.084301  8473 net.cpp:425] lstm2 <- cont_sentence_input_1_split_1
I0925 21:49:34.084309  8473 net.cpp:399] lstm2 -> lstm2
…
I0925 21:49:34.084720  8477 recurrent_layer.cpp:150] Adding parameter 2: W_hc
I0925 21:49:34.084990  8473 net.cpp:49] Initializing net from parameters: 
layer {
  name: "lstm2_"
  type: "Input"
  top: "x"
  top: "cont"
  input_param {
    shape {
      dim: 1
      dim: 1
      dim: 1501
    }
    shape {
      dim: 1
      dim: 1
    }
  }
}
layer {
  name: "lstm2_"
  type: "Input"
  top: "c_0"
  top: "h_0"
  input_param {
    shape {
      dim: 1
      dim: 1
      dim: 1000
    }
    shape {
      dim: 1
      dim: 1
      dim: 1000
    }
  }
}
layer {
  name: "lstm2_cont_slice"
  type: "Slice"
  bottom: "cont"
  top: "cont_1"
  slice_param {
    axis: 0
  }
}
layer {
  name: "lstm2_x_transform"
  type: "InnerProduct"
  bottom: "x"
  top: "W_xc_x"
  param {
    name: "W_xc"
  }
  param {
    name: "b_c"
  }
  propagate_down: true
  inner_product_param {
    num_output: 4000
    bias_term: true
    weight_filler {
      type: "uniform"
      min: -0.08
      max: 0.08
    }
    bias_filler {
      type: "constant"
      value: 0
    }
    axis: 2
  }
}
layer {
  name: "lstm2_W_xc_x_slice"
  type: "Slice"
  bottom: "W_xc_x"
  top: "W_xc_x_1"
  slice_param {
    axis: 0
  }
}
layer {
  name: "lstm2_h_conted_0"
  type: "Scale"
  bottom: "h_0"
  bottom: "cont_1"
  top: "h_conted_0"
  scale_param {
    axis: 0
  }
}
layer {
  name: "lstm2_transform_1"
  type: "InnerProduct"
  bottom: "h_conted_0"
  top: "W_hc_h_0"
  param {
    name: "W_hc"
  }
  inner_product_param {
    num_output: 4000
    bias_term: false
    weight_filler {
      type: "uniform"
      min: -0.08
      max: 0.08
    }
    axis: 2
  }
}
layer {
  name: "lstm2_gate_input_1"
  type: "Eltwise"
  bottom: "W_hc_h_0"
  bottom: "W_xc_x_1"
  top: "gate_input_1"
  eltwise_param {
    operation: SUM
  }
}
layer {
  name: "lstm2_unit_1"
  type: "LSTMUnit"
  bottom: "c_0"
  bottom: "gate_input_1"
  bottom: "cont_1"
  top: "c_1"
  top: "h_1"
}
layer {
  name: "lstm2_"
  type: "Split"
  bottom: "c_1"
  top: "c_T"
}
layer {
  name: "lstm2_h_concat"
  type: "Concat"
  bottom: "h_1"
  top: "h"
  concat_param {
    axis: 0
  }
}
layer {
  name: "h_pseudoloss"
  type: "Reduction"
  bottom: "h"
  top: "h_pseudoloss"
  loss_weight: 1
}
I0925 21:49:34.087085  8495 net.cpp:141] Setting up lstm1_x_transform
I0925 21:49:34.284636  8495 net.cpp:148] Top shape: 1 1 4000 (4000)
I0925 21:49:34.284653  8495 net.cpp:156] Memory required for data: 26016
I0925 21:49:34.284684  8495 layer_factory.hpp:77] Creating layer lstm1_W_xc_x_slice
I0925 21:49:34.127318  8483 net.cpp:141] Setting up embedding
I0925 21:49:34.284703  8495 net.cpp:91] Creating Layer lstm1_W_xc_x_slice
I0925 21:49:34.284713  8495 net.cpp:425] lstm1_W_xc_x_slice <- W_xc_x
I0925 21:49:34.284716  8483 net.cpp:148] Top shape: 1 1 500 (500)
I0925 21:49:34.284724  8495 net.cpp:399] lstm1_W_xc_x_slice -> W_xc_x_1
I0925 21:49:34.284726  8483 net.cpp:156] Memory required for data: 22408
I0925 21:49:34.284735  8473 layer_factory.hpp:77] Creating layer lstm2_
I0925 21:49:34.284747  8483 layer_factory.hpp:77] Creating layer lstm1
I0925 21:49:34.284756  8473 net.cpp:91] Creating Layer lstm2_
I0925 21:49:34.284765  8473 net.cpp:399] lstm2_ -> x
I0925 21:49:34.284765  8483 net.cpp:91] Creating Layer lstm1
I0925 21:49:34.284773  8483 net.cpp:425] lstm1 <- embedded_input_frames
I0925 21:49:34.284780  8473 net.cpp:399] lstm2_ -> cont
I0925 21:49:34.284781  8483 net.cpp:425] lstm1 <- cont_sentence_input_1_split_0
I0925 21:49:34.284819  8483 net.cpp:399] lstm1 -> lstm1
I0925 21:49:34.284837  8483 recurrent_layer.cpp:20] Initializing recurrent layer: assuming input batch contains 1 timesteps of 1 independent streams.
I0925 21:49:34.284842  8495 net.cpp:141] Setting up lstm1_W_xc_x_slice
I0925 21:49:34.284855  8495 net.cpp:148] Top shape: 1 1 4000 (4000)
I0925 21:49:34.284862  8495 net.cpp:156] Memory required for data: 42016
I0925 21:49:34.284914  8473 net.cpp:141] Setting up lstm2_
I0925 21:49:34.284927  8473 net.cpp:148] Top shape: 1 1 1501 (1501)
I0925 21:49:34.284935  8473 net.cpp:148] Top shape: 1 1 (1)
I0925 21:49:34.284940  8473 net.cpp:156] Memory required for data: 6008
I0925 21:49:34.284947  8473 layer_factory.hpp:77] Creating layer lstm2_
I0925 21:49:34.284930  8495 layer_factory.hpp:77] Creating layer lstm1_h_conted_0
I0925 21:49:34.284987  8473 net.cpp:91] Creating Layer lstm2_
I0925 21:49:34.285001  8473 net.cpp:399] lstm2_ -> c_0
I0925 21:49:34.285006  8495 net.cpp:91] Creating Layer lstm1_h_conted_0
I0925 21:49:34.285019  8495 net.cpp:425] lstm1_h_conted_0 <- h_0
I0925 21:49:34.285022  8473 net.cpp:399] lstm2_ -> h_0
I0925 21:49:34.285051  8495 net.cpp:425] lstm1_h_conted_0 <- cont_1_lstm1_cont_slice_0_split_0
I0925 21:49:34.285068  8495 net.cpp:399] lstm1_h_conted_0 -> h_conted_0
I0925 21:49:34.285193  8483 net.cpp:49] Initializing net from parameters: 
layer {
  name: "lstm1_"
  type: "Input"
  top: "x"
  top: "cont"
  input_param {
    shape {
      dim: 1
      dim: 1
      dim: 500
    }
    shape {
      dim: 1
      dim: 1
    }
  }
}
layer {
  name: "lstm1_"
  type: "Input"
  top: "c_0"
  top: "h_0"
  input_param {
    shape {
      dim: 1
      dim: 1
      dim: 1000
    }
    shape {
      dim: 1
      dim: 1
      dim: 1000
    }
  }
}
layer {
  name: "lstm1_cont_slice"
  type: "Slice"
  bottom: "cont"
  top: "cont_1"
  slice_param {
    axis: 0
  }
}
layer {
  name: "lstm1_x_transform"
  type: "InnerProduct"
  bottom: "x"
  top: "W_xc_x"
  param {
    name: "W_xc"
  }
  param {
    name: "b_c"
  }
  propagate_down: true
  inner_product_param {
    num_output: 4000
    bias_term: true
    weight_filler {
      type: "uniform"
      min: -0.08
      max: 0.08
    }
    bias_filler {
      type: "constant"
      value: 0
    }
    axis: 2
  }
}
layer {
  name: "lstm1_W_xc_x_slice"
  type: "Slice"
  bottom: "W_xc_x"
  top: "W_xc_x_1"
  slice_param {
    axis: 0
  }
}
layer {
  name: "lstm1_h_conted_0"
  type: "Scale"
  bottom: "h_0"
  bottom: "cont_1"
  top: "h_conted_0"
  scale_param {
    axis: 0
  }
}
layer {
  name: "lstm1_transform_1"
  type: "InnerProduct"
  bottom: "h_conted_0"
  top: "W_hc_h_0"
  param {
    name: "W_hc"
  }
  inner_product_param {
    num_output: 4000
    bias_term: false
    weight_filler {
      type: "uniform"
      min: -0.08
      max: 0.08
    }
    axis: 2
  }
}
layer {
  name: "lstm1_gate_input_1"
  type: "Eltwise"
  bottom: "W_hc_h_0"
  bottom: "W_xc_x_1"
  top: "gate_input_1"
  eltwise_param {
    operation: SUM
  }
}
layer {
  name: "lstm1_unit_1"
  type: "LSTMUnit"
  bottom: "c_0"
  bottom: "gate_input_1"
  bottom: "cont_1"
  top: "c_1"
  top: "h_1"
}
layer {
  name: "lstm1_"
  type: "Split"
  bottom: "c_1"
  top: "c_T"
}
layer {
  name: "lstm1_h_concat"
  type: "Concat"
  bottom: "h_1"
  top: "h"
  concat_param {
    axis: 0
  }
}
layer {
  name: "h_pseudoloss"
  type: "Reduction"
  bottom: "h"
  top: "h_pseudoloss"
  loss_weight: 1
}
I0925 21:49:34.285200  8473 net.cpp:141] Setting up lstm2_
I0925 21:49:34.285223  8473 net.cpp:148] Top shape: 1 1 1000 (1000)
I0925 21:49:34.285236  8473 net.cpp:148] Top shape: 1 1 1000 (1000)
I0925 21:49:34.285245  8473 net.cpp:156] Memory required for data: 14008
I0925 21:49:34.285255  8473 layer_factory.hpp:77] Creating layer lstm2_cont_slice
I0925 21:49:34.285274  8473 net.cpp:91] Creating Layer lstm2_cont_slice
I0925 21:49:34.285284  8473 net.cpp:425] lstm2_cont_slice <- cont
I0925 21:49:34.285293  8483 layer_factory.hpp:77] Creating layer lstm1_
I0925 21:49:34.285297  8473 net.cpp:399] lstm2_cont_slice -> cont_1
I0925 21:49:34.285307  8483 net.cpp:91] Creating Layer lstm1_
I0925 21:49:34.285315  8483 net.cpp:399] lstm1_ -> x
I0925 21:49:34.285318  8495 net.cpp:141] Setting up lstm1_h_conted_0
I0925 21:49:34.285328  8483 net.cpp:399] lstm1_ -> cont
I0925 21:49:34.285337  8495 net.cpp:148] Top shape: 1 1 1000 (1000)
I0925 21:49:34.285347  8495 net.cpp:156] Memory required for data: 46016
I0925 21:49:34.285357  8495 layer_factory.hpp:77] Creating layer lstm1_transform_1
I0925 21:49:34.150581  8481 net.cpp:141] Setting up conv1
I0925 21:49:34.285377  8473 net.cpp:141] Setting up lstm2_cont_slice
I0925 21:49:34.112615  8501 net.cpp:141] Setting up lstm2_x_transform
I0925 21:49:34.285378  8495 net.cpp:91] Creating Layer lstm1_transform_1
I0925 21:49:34.285408  8473 net.cpp:148] Top shape: 1 1 (1)
I0925 21:49:34.285382  8481 net.cpp:148] Top shape: 10 96 55 55 (2904000)
I0925 21:49:34.299067  8473 net.cpp:156] Memory required for data: 14012
I0925 21:49:34.299098  8481 net.cpp:156] Memory required for data: 17799480
I0925 21:49:34.299110  8473 layer_factory.hpp:77] Creating layer cont_1_lstm2_cont_slice_0_split
I0925 21:49:34.285468  8483 net.cpp:141] Setting up lstm1_
I0925 21:49:34.285419  8501 net.cpp:148] Top shape: 1 1 4000 (4000)
I0925 21:49:34.299067  8495 net.cpp:425] lstm1_transform_1 <- h_conted_0
I0925 21:49:34.299146  8473 net.cpp:91] Creating Layer cont_1_lstm2_cont_slice_0_split
I0925 21:49:34.299150  8483 net.cpp:148] Top shape: 1 1 500 (500)
I0925 21:49:34.299160  8473 net.cpp:425] cont_1_lstm2_cont_slice_0_split <- cont_1
I0925 21:49:34.299165  8483 net.cpp:148] Top shape: 1 1 (1)
I0925 21:49:34.299155  8501 net.cpp:156] Memory required for data: 30020
I0925 21:49:34.299173  8495 net.cpp:399] lstm1_transform_1 -> W_hc_h_0
I0925 21:49:34.299170  8483 net.cpp:156] Memory required for data: 2004
I0925 21:49:34.299180  8473 net.cpp:399] cont_1_lstm2_cont_slice_0_split -> cont_1_lstm2_cont_slice_0_split_0
I0925 21:49:34.299192  8483 layer_factory.hpp:77] Creating layer lstm1_
I0925 21:49:34.299203  8501 layer_factory.hpp:77] Creating layer lstm2_W_xc_x_slice
I0925 21:49:34.299204  8473 net.cpp:399] cont_1_lstm2_cont_slice_0_split -> cont_1_lstm2_cont_slice_0_split_1
I0925 21:49:34.299223  8483 net.cpp:91] Creating Layer lstm1_
I0925 21:49:34.299229  8501 net.cpp:91] Creating Layer lstm2_W_xc_x_slice
I0925 21:49:34.299240  8501 net.cpp:425] lstm2_W_xc_x_slice <- W_xc_x
I0925 21:49:34.299228  8481 layer_factory.hpp:77] Creating layer relu1
I0925 21:49:34.299247  8483 net.cpp:399] lstm1_ -> c_0
I0925 21:49:34.299252  8501 net.cpp:399] lstm2_W_xc_x_slice -> W_xc_x_1
I0925 21:49:34.299288  8483 net.cpp:399] lstm1_ -> h_0
I0925 21:49:34.299288  8481 net.cpp:91] Creating Layer relu1
I0925 21:49:34.299304  8481 net.cpp:425] relu1 <- conv1
I0925 21:49:34.299319  8481 net.cpp:386] relu1 -> conv1 (in-place)
I0925 21:49:34.299404  8501 net.cpp:141] Setting up lstm2_W_xc_x_slice
I0925 21:49:34.299419  8501 net.cpp:148] Top shape: 1 1 4000 (4000)
I0925 21:49:34.299424  8501 net.cpp:156] Memory required for data: 46020
I0925 21:49:34.299430  8501 layer_factory.hpp:77] Creating layer lstm2_h_conted_0
I0925 21:49:34.299441  8473 net.cpp:141] Setting up cont_1_lstm2_cont_slice_0_split
I0925 21:49:34.299448  8501 net.cpp:91] Creating Layer lstm2_h_conted_0
I0925 21:49:34.299454  8501 net.cpp:425] lstm2_h_conted_0 <- h_0
I0925 21:49:34.299456  8473 net.cpp:148] Top shape: 1 1 (1)
I0925 21:49:34.299463  8501 net.cpp:425] lstm2_h_conted_0 <- cont_1_lstm2_cont_slice_0_split_0
I0925 21:49:34.299464  8473 net.cpp:148] Top shape: 1 1 (1)
I0925 21:49:34.299469  8473 net.cpp:156] Memory required for data: 14020
I0925 21:49:34.299470  8501 net.cpp:399] lstm2_h_conted_0 -> h_conted_0
I0925 21:49:34.299475  8473 layer_factory.hpp:77] Creating layer lstm2_x_transform
I0925 21:49:34.299494  8473 net.cpp:91] Creating Layer lstm2_x_transform
I0925 21:49:34.299499  8473 net.cpp:425] lstm2_x_transform <- x
I0925 21:49:34.299511  8473 net.cpp:399] lstm2_x_transform -> W_xc_x
I0925 21:49:34.299636  8483 net.cpp:141] Setting up lstm1_
I0925 21:49:34.299650  8483 net.cpp:148] Top shape: 1 1 1000 (1000)
I0925 21:49:34.299657  8483 net.cpp:148] Top shape: 1 1 1000 (1000)
I0925 21:49:34.299661  8483 net.cpp:156] Memory required for data: 10004
I0925 21:49:34.299667  8483 layer_factory.hpp:77] Creating layer lstm1_cont_slice
I0925 21:49:34.299677  8483 net.cpp:91] Creating Layer lstm1_cont_slice
I0925 21:49:34.299684  8483 net.cpp:425] lstm1_cont_slice <- cont
I0925 21:49:34.299695  8483 net.cpp:399] lstm1_cont_slice -> cont_1
I0925 21:49:34.299744  8483 net.cpp:141] Setting up lstm1_cont_slice
I0925 21:49:34.299756  8483 net.cpp:148] Top shape: 1 1 (1)
I0925 21:49:34.299760  8483 net.cpp:156] Memory required for data: 10008
I0925 21:49:34.299767  8483 layer_factory.hpp:77] Creating layer cont_1_lstm1_cont_slice_0_split
I0925 21:49:34.299779  8483 net.cpp:91] Creating Layer cont_1_lstm1_cont_slice_0_split
I0925 21:49:34.299785  8483 net.cpp:425] cont_1_lstm1_cont_slice_0_split <- cont_1
I0925 21:49:34.299793  8483 net.cpp:399] cont_1_lstm1_cont_slice_0_split -> cont_1_lstm1_cont_slice_0_split_0
I0925 21:49:34.299803  8483 net.cpp:399] cont_1_lstm1_cont_slice_0_split -> cont_1_lstm1_cont_slice_0_split_1
I0925 21:49:34.087116  8477 net.cpp:141] Setting up lstm1
I0925 21:49:34.299927  8477 net.cpp:148] Top shape: 1 1 1000 (1000)
I0925 21:49:34.299942  8477 net.cpp:156] Memory required for data: 26408
I0925 21:49:34.299973  8477 layer_factory.hpp:77] Creating layer concat
I0925 21:49:34.300437  8477 net.cpp:91] Creating Layer concat
I0925 21:49:34.300457  8477 net.cpp:425] concat <- lstm1
I0925 21:49:34.300472  8477 net.cpp:425] concat <- embedded_input_sentence
I0925 21:49:34.300484  8477 net.cpp:425] concat <- reshaped_stage_indicator
I0925 21:49:34.300499  8477 net.cpp:399] concat -> lstm1_video_sequence
I0925 21:49:34.330286  8477 net.cpp:141] Setting up concat
I0925 21:49:34.330343  8477 net.cpp:148] Top shape: 1 1 1501 (1501)
I0925 21:49:34.330353  8477 net.cpp:156] Memory required for data: 32412
I0925 21:49:34.330368  8477 layer_factory.hpp:77] Creating layer lstm2
I0925 21:49:34.330400  8477 net.cpp:91] Creating Layer lstm2
I0925 21:49:34.330416  8477 net.cpp:425] lstm2 <- lstm1_video_sequence
I0925 21:49:34.330432  8477 net.cpp:425] lstm2 <- cont_sentence_input_1_split_1
I0925 21:49:34.330451  8477 net.cpp:399] lstm2 -> lstm2
I0925 21:49:34.330481  8477 recurrent_layer.cpp:20] Initializing recurrent layer: assuming input batch contains 1 timesteps of 1 independent streams.
I0925 21:49:34.331006  8477 net.cpp:49] Initializing net from parameters: 
layer {
  name: "lstm2_"
  type: "Input"
  top: "x"
  top: "cont"
  input_param {
    shape {
      dim: 1
      dim: 1
      dim: 1501
    }
    shape {
      dim: 1
      dim: 1
    }
  }
}
layer {
  name: "lstm2_"
  type: "Input"
  top: "c_0"
  top: "h_0"
  input_param {
    shape {
      dim: 1
      dim: 1
      dim: 1000
    }
    shape {
      dim: 1
      dim: 1
      dim: 1000
    }
  }
}
layer {
  name: "lstm2_cont_slice"
  type: "Slice"
  bottom: "cont"
  top: "cont_1"
  slice_param {
    axis: 0
  }
}
layer {
  name: "lstm2_x_transform"
  type: "InnerProduct"
  bottom: "x"
  top: "W_xc_x"
  param {
    name: "W_xc"
  }
  param {
    name: "b_c"
  }
  propagate_down: true
  inner_product_param {
    num_output: 4000
    bias_term: true
    weight_filler {
      type: "uniform"
      min: -0.08
      max: 0.08
    }
    bias_filler {
      type: "constant"
      value: 0
    }
    axis: 2
  }
}
layer {
  name: "lstm2_W_xc_x_slice"
  type: "Slice"
  bottom: "W_xc_x"
  top: "W_xc_x_1"
  slice_param {
    axis: 0
  }
}
layer {
  name: "lstm2_h_conted_0"
  type: "Scale"
  bottom: "h_0"
  bottom: "cont_1"
  top: "h_conted_0"
  scale_param {
    axis: 0
  }
}
layer {
  name: "lstm2_transform_1"
  type: "InnerProduct"
  bottom: "h_conted_0"
  top: "W_hc_h_0"
  param {
    name: "W_hc"
  }
  inner_product_param {
    num_output: 4000
    bias_term: false
    weight_filler {
      type: "uniform"
      min: -0.08
      max: 0.08
    }
    axis: 2
  }
}
layer {
  name: "lstm2_gate_input_1"
  type: "Eltwise"
  bottom: "W_hc_h_0"
  bottom: "W_xc_x_1"
  top: "gate_input_1"
  eltwise_param {
    operation: SUM
  }
}
layer {
  name: "lstm2_unit_1"
  type: "LSTMUnit"
  bottom: "c_0"
  bottom: "gate_input_1"
  bottom: "cont_1"
  top: "c_1"
  top: "h_1"
}
layer {
  name: "lstm2_"
  type: "Split"
  bottom: "c_1"
  top: "c_T"
}
layer {
  name: "lstm2_h_concat"
  type: "Concat"
  bottom: "h_1"
  top: "h"
  concat_param {
    axis: 0
  }
}
layer {
  name: "h_pseudoloss"
  type: "Reduction"
  bottom: "h"
  top: "h_pseudoloss"
  loss_weight: 1
}
I0925 21:49:34.331171  8477 layer_factory.hpp:77] Creating layer lstm2_
I0925 21:49:34.331204  8477 net.cpp:91] Creating Layer lstm2_
I0925 21:49:34.331219  8477 net.cpp:399] lstm2_ -> x
I0925 21:49:34.331243  8477 net.cpp:399] lstm2_ -> cont
I0925 21:49:34.331385  8477 net.cpp:141] Setting up lstm2_
I0925 21:49:34.331406  8477 net.cpp:148] Top shape: 1 1 1501 (1501)
I0925 21:49:34.331419  8477 net.cpp:148] Top shape: 1 1 (1)
I0925 21:49:34.331429  8477 net.cpp:156] Memory required for data: 6008
I0925 21:49:34.331439  8477 layer_factory.hpp:77] Creating layer lstm2_
I0925 21:49:34.331457  8477 net.cpp:91] Creating Layer lstm2_
I0925 21:49:34.331473  8477 net.cpp:399] lstm2_ -> c_0
I0925 21:49:34.331493  8477 net.cpp:399] lstm2_ -> h_0
I0925 21:49:34.331594  8477 net.cpp:141] Setting up lstm2_
I0925 21:49:34.331614  8477 net.cpp:148] Top shape: 1 1 1000 (1000)
I0925 21:49:34.331626  8477 net.cpp:148] Top shape: 1 1 1000 (1000)
I0925 21:49:34.331635  8477 net.cpp:156] Memory required for data: 14008
I0925 21:49:34.331645  8477 layer_factory.hpp:77] Creating layer lstm2_cont_slice
I0925 21:49:34.331661  8477 net.cpp:91] Creating Layer lstm2_cont_slice
I0925 21:49:34.331672  8477 net.cpp:425] lstm2_cont_slice <- cont
I0925 21:49:34.331686  8477 net.cpp:399] lstm2_cont_slice -> cont_1
I0925 21:49:34.331770  8477 net.cpp:141] Setting up lstm2_cont_slice
I0925 21:49:34.331789  8477 net.cpp:148] Top shape: 1 1 (1)
I0925 21:49:34.331801  8477 net.cpp:156] Memory required for data: 14012
I0925 21:49:34.331811  8477 layer_factory.hpp:77] Creating layer cont_1_lstm2_cont_slice_0_split
I0925 21:49:34.331830  8477 net.cpp:91] Creating Layer cont_1_lstm2_cont_slice_0_split
I0925 21:49:34.331840  8477 net.cpp:425] cont_1_lstm2_cont_slice_0_split <- cont_1
I0925 21:49:34.331853  8477 net.cpp:399] cont_1_lstm2_cont_slice_0_split -> cont_1_lstm2_cont_slice_0_split_0
I0925 21:49:34.331869  8477 net.cpp:399] cont_1_lstm2_cont_slice_0_split -> cont_1_lstm2_cont_slice_0_split_1
I0925 21:49:34.332003  8477 net.cpp:141] Setting up cont_1_lstm2_cont_slice_0_split
I0925 21:49:34.332025  8477 net.cpp:148] Top shape: 1 1 (1)
I0925 21:49:34.332032  8477 net.cpp:148] Top shape: 1 1 (1)
I0925 21:49:34.332038  8477 net.cpp:156] Memory required for data: 14020
I0925 21:49:34.332044  8477 layer_factory.hpp:77] Creating layer lstm2_x_transform
I0925 21:49:34.332082  8477 net.cpp:91] Creating Layer lstm2_x_transform
I0925 21:49:34.332090  8477 net.cpp:425] lstm2_x_transform <- x
I0925 21:49:34.332101  8477 net.cpp:399] lstm2_x_transform -> W_xc_x
I0925 21:49:34.345877  8483 net.cpp:141] Setting up cont_1_lstm1_cont_slice_0_split
I0925 21:49:34.345938  8483 net.cpp:148] Top shape: 1 1 (1)
I0925 21:49:34.345953  8483 net.cpp:148] Top shape: 1 1 (1)
I0925 21:49:34.345963  8483 net.cpp:156] Memory required for data: 10016
I0925 21:49:34.345978  8483 layer_factory.hpp:77] Creating layer lstm1_x_transform
I0925 21:49:34.346017  8483 net.cpp:91] Creating Layer lstm1_x_transform
I0925 21:49:34.346030  8483 net.cpp:425] lstm1_x_transform <- x
I0925 21:49:34.346040  8501 net.cpp:141] Setting up lstm2_h_conted_0
I0925 21:49:34.346052  8483 net.cpp:399] lstm1_x_transform -> W_xc_x
I0925 21:49:34.346062  8501 net.cpp:148] Top shape: 1 1 1000 (1000)
I0925 21:49:34.346068  8501 net.cpp:156] Memory required for data: 50020
I0925 21:49:34.346076  8501 layer_factory.hpp:77] Creating layer lstm2_transform_1
I0925 21:49:34.346093  8501 net.cpp:91] Creating Layer lstm2_transform_1
I0925 21:49:34.346102  8501 net.cpp:425] lstm2_transform_1 <- h_conted_0
I0925 21:49:34.346113  8501 net.cpp:399] lstm2_transform_1 -> W_hc_h_0
I0925 21:49:34.352661  8481 net.cpp:141] Setting up relu1
I0925 21:49:34.352717  8481 net.cpp:148] Top shape: 10 96 55 55 (2904000)
I0925 21:49:34.352730  8481 net.cpp:156] Memory required for data: 29415480
I0925 21:49:34.352744  8481 layer_factory.hpp:77] Creating layer pool1
I0925 21:49:34.352782  8481 net.cpp:91] Creating Layer pool1
I0925 21:49:34.352795  8481 net.cpp:425] pool1 <- conv1
I0925 21:49:34.352814  8481 net.cpp:399] pool1 -> pool1
I0925 21:49:34.353036  8481 net.cpp:141] Setting up pool1
I0925 21:49:34.353060  8481 net.cpp:148] Top shape: 10 96 27 27 (699840)
I0925 21:49:34.353070  8481 net.cpp:156] Memory required for data: 32214840
I0925 21:49:34.353081  8481 layer_factory.hpp:77] Creating layer norm1
I0925 21:49:34.353112  8481 net.cpp:91] Creating Layer norm1
I0925 21:49:34.353127  8481 net.cpp:425] norm1 <- pool1
I0925 21:49:34.353142  8481 net.cpp:399] norm1 -> norm1
I0925 21:49:34.353857  8481 net.cpp:141] Setting up norm1
I0925 21:49:34.353878  8481 net.cpp:148] Top shape: 10 96 27 27 (699840)
I0925 21:49:34.353888  8481 net.cpp:156] Memory required for data: 35014200
I0925 21:49:34.353899  8481 layer_factory.hpp:77] Creating layer conv2
I0925 21:49:34.353931  8481 net.cpp:91] Creating Layer conv2
I0925 21:49:34.353945  8481 net.cpp:425] conv2 <- norm1
I0925 21:49:34.353960  8481 net.cpp:399] conv2 -> conv2
I0925 21:49:34.371598  8481 net.cpp:141] Setting up conv2
I0925 21:49:34.371649  8481 net.cpp:148] Top shape: 10 256 27 27 (1866240)
I0925 21:49:34.371659  8481 net.cpp:156] Memory required for data: 42479160
I0925 21:49:34.371688  8481 layer_factory.hpp:77] Creating layer relu2
I0925 21:49:34.371717  8481 net.cpp:91] Creating Layer relu2
I0925 21:49:34.371729  8481 net.cpp:425] relu2 <- conv2
I0925 21:49:34.371744  8481 net.cpp:386] relu2 -> conv2 (in-place)
I0925 21:49:34.372611  8473 net.cpp:141] Setting up lstm2_x_transform
I0925 21:49:34.372648  8473 net.cpp:148] Top shape: 1 1 4000 (4000)
I0925 21:49:34.372655  8473 net.cpp:156] Memory required for data: 30020
I0925 21:49:34.372678  8473 layer_factory.hpp:77] Creating layer lstm2_W_xc_x_slice
I0925 21:49:34.372695  8473 net.cpp:91] Creating Layer lstm2_W_xc_x_slice
I0925 21:49:34.372702  8473 net.cpp:425] lstm2_W_xc_x_slice <- W_xc_x
I0925 21:49:34.372712  8473 net.cpp:399] lstm2_W_xc_x_slice -> W_xc_x_1
I0925 21:49:34.372776  8473 net.cpp:141] Setting up lstm2_W_xc_x_slice
I0925 21:49:34.372788  8473 net.cpp:148] Top shape: 1 1 4000 (4000)
I0925 21:49:34.372793  8473 net.cpp:156] Memory required for data: 46020
I0925 21:49:34.372799  8473 layer_factory.hpp:77] Creating layer lstm2_h_conted_0
I0925 21:49:34.372812  8473 net.cpp:91] Creating Layer lstm2_h_conted_0
I0925 21:49:34.372817  8473 net.cpp:425] lstm2_h_conted_0 <- h_0
I0925 21:49:34.372824  8473 net.cpp:425] lstm2_h_conted_0 <- cont_1_lstm2_cont_slice_0_split_0
I0925 21:49:34.372833  8473 net.cpp:399] lstm2_h_conted_0 -> h_conted_0
I0925 21:49:34.372964  8481 net.cpp:141] Setting up relu2
I0925 21:49:34.373004  8481 net.cpp:148] Top shape: 10 256 27 27 (1866240)
I0925 21:49:34.373018  8481 net.cpp:156] Memory required for data: 49944120
I0925 21:49:34.373028  8481 layer_factory.hpp:77] Creating layer pool2
I0925 21:49:34.373071  8481 net.cpp:91] Creating Layer pool2
I0925 21:49:34.373085  8481 net.cpp:425] pool2 <- conv2
I0925 21:49:34.373087  8473 net.cpp:141] Setting up lstm2_h_conted_0
I0925 21:49:34.373102  8473 net.cpp:148] Top shape: 1 1 1000 (1000)
I0925 21:49:34.373107  8473 net.cpp:156] Memory required for data: 50020
I0925 21:49:34.373113  8473 layer_factory.hpp:77] Creating layer lstm2_transform_1
I0925 21:49:34.373102  8481 net.cpp:399] pool2 -> pool2
I0925 21:49:34.373128  8473 net.cpp:91] Creating Layer lstm2_transform_1
I0925 21:49:34.373134  8473 net.cpp:425] lstm2_transform_1 <- h_conted_0
I0925 21:49:34.373143  8473 net.cpp:399] lstm2_transform_1 -> W_hc_h_0
I0925 21:49:34.381788  8481 net.cpp:141] Setting up pool2
I0925 21:49:34.381819  8481 net.cpp:148] Top shape: 10 256 13 13 (432640)
I0925 21:49:34.381824  8481 net.cpp:156] Memory required for data: 51674680
I0925 21:49:34.381832  8481 layer_factory.hpp:77] Creating layer norm2
I0925 21:49:34.381855  8481 net.cpp:91] Creating Layer norm2
I0925 21:49:34.381862  8481 net.cpp:425] norm2 <- pool2
I0925 21:49:34.381871  8481 net.cpp:399] norm2 -> norm2
I0925 21:49:34.381983  8495 net.cpp:141] Setting up lstm1_transform_1
I0925 21:49:34.382031  8495 net.cpp:148] Top shape: 1 1 4000 (4000)
I0925 21:49:34.382042  8495 net.cpp:156] Memory required for data: 62016
I0925 21:49:34.382069  8495 layer_factory.hpp:77] Creating layer lstm1_gate_input_1
I0925 21:49:34.382102  8495 net.cpp:91] Creating Layer lstm1_gate_input_1
I0925 21:49:34.382114  8495 net.cpp:425] lstm1_gate_input_1 <- W_hc_h_0
I0925 21:49:34.382127  8495 net.cpp:425] lstm1_gate_input_1 <- W_xc_x_1
I0925 21:49:34.382139  8495 net.cpp:399] lstm1_gate_input_1 -> gate_input_1
I0925 21:49:34.382381  8495 net.cpp:141] Setting up lstm1_gate_input_1
I0925 21:49:34.382398  8495 net.cpp:148] Top shape: 1 1 4000 (4000)
I0925 21:49:34.382411  8495 net.cpp:156] Memory required for data: 78016
I0925 21:49:34.382426  8495 layer_factory.hpp:77] Creating layer lstm1_unit_1
I0925 21:49:34.382441  8495 net.cpp:91] Creating Layer lstm1_unit_1
I0925 21:49:34.382449  8495 net.cpp:425] lstm1_unit_1 <- c_0
I0925 21:49:34.382459  8495 net.cpp:425] lstm1_unit_1 <- gate_input_1
I0925 21:49:34.382468  8495 net.cpp:425] lstm1_unit_1 <- cont_1_lstm1_cont_slice_0_split_1
I0925 21:49:34.382480  8495 net.cpp:399] lstm1_unit_1 -> c_1
I0925 21:49:34.382495  8495 net.cpp:399] lstm1_unit_1 -> h_1
I0925 21:49:34.382820  8483 net.cpp:141] Setting up lstm1_x_transform
I0925 21:49:34.382850  8483 net.cpp:148] Top shape: 1 1 4000 (4000)
I0925 21:49:34.382863  8483 net.cpp:156] Memory required for data: 26016
I0925 21:49:34.382887  8483 layer_factory.hpp:77] Creating layer lstm1_W_xc_x_slice
I0925 21:49:34.382910  8483 net.cpp:91] Creating Layer lstm1_W_xc_x_slice
I0925 21:49:34.382921  8483 net.cpp:425] lstm1_W_xc_x_slice <- W_xc_x
I0925 21:49:34.382938  8483 net.cpp:399] lstm1_W_xc_x_slice -> W_xc_x_1
I0925 21:49:34.388466  8495 net.cpp:141] Setting up lstm1_unit_1
I0925 21:49:34.388523  8495 net.cpp:148] Top shape: 1 1 1000 (1000)
I0925 21:49:34.388536  8495 net.cpp:148] Top shape: 1 1 1000 (1000)
I0925 21:49:34.388545  8495 net.cpp:156] Memory required for data: 86016
I0925 21:49:34.388558  8495 layer_factory.hpp:77] Creating layer lstm1_
I0925 21:49:34.388586  8495 net.cpp:91] Creating Layer lstm1_
I0925 21:49:34.388598  8495 net.cpp:425] lstm1_ <- c_1
I0925 21:49:34.388617  8495 net.cpp:399] lstm1_ -> c_T
I0925 21:49:34.388689  8495 net.cpp:141] Setting up lstm1_
I0925 21:49:34.388705  8495 net.cpp:148] Top shape: 1 1 1000 (1000)
I0925 21:49:34.388711  8495 net.cpp:156] Memory required for data: 90016
I0925 21:49:34.388720  8495 layer_factory.hpp:77] Creating layer lstm1_h_concat
I0925 21:49:34.388736  8495 net.cpp:91] Creating Layer lstm1_h_concat
I0925 21:49:34.388744  8495 net.cpp:425] lstm1_h_concat <- h_1
I0925 21:49:34.388761  8495 net.cpp:399] lstm1_h_concat -> h
I0925 21:49:34.388819  8495 net.cpp:141] Setting up lstm1_h_concat
I0925 21:49:34.388833  8495 net.cpp:148] Top shape: 1 1 1000 (1000)
I0925 21:49:34.388840  8495 net.cpp:156] Memory required for data: 94016
I0925 21:49:34.388849  8495 layer_factory.hpp:77] Creating layer h_pseudoloss
I0925 21:49:34.388864  8495 net.cpp:91] Creating Layer h_pseudoloss
I0925 21:49:34.388871  8495 net.cpp:425] h_pseudoloss <- h
I0925 21:49:34.388882  8495 net.cpp:399] h_pseudoloss -> h_pseudoloss
I0925 21:49:34.389034  8495 net.cpp:141] Setting up h_pseudoloss
…
I0925 21:49:34.389317  8495 net.cpp:219] lstm1_ does not need backward computation.
I0925 21:49:34.389325  8495 net.cpp:261] This network produces output c_T
I0925 21:49:34.389338  8495 net.cpp:261] This network produces output h_pseudoloss
I0925 21:49:34.389364  8495 net.cpp:274] Network initialization done.
I0925 21:49:34.389422  8483 net.cpp:141] Setting up lstm1_W_xc_x_slice
I0925 21:49:34.389432  8495 recurrent_layer.cpp:150] Adding parameter 0: W_xc
I0925 21:49:34.389441  8495 recurrent_layer.cpp:150] Adding parameter 1: b_c
I0925 21:49:34.389446  8495 recurrent_layer.cpp:150] Adding parameter 2: W_hc
I0925 21:49:34.389447  8483 net.cpp:148] Top shape: 1 1 4000 (4000)
I0925 21:49:34.389454  8483 net.cpp:156] Memory required for data: 42016
I0925 21:49:34.389461  8483 layer_factory.hpp:77] Creating layer lstm1_h_conted_0
I0925 21:49:34.389477  8483 net.cpp:91] Creating Layer lstm1_h_conted_0
I0925 21:49:34.389485  8483 net.cpp:425] lstm1_h_conted_0 <- h_0
I0925 21:49:34.389494  8483 net.cpp:425] lstm1_h_conted_0 <- cont_1_lstm1_cont_slice_0_split_0
I0925 21:49:34.389504  8483 net.cpp:399] lstm1_h_conted_0 -> h_conted_0
I0925 21:49:34.389583  8481 net.cpp:141] Setting up norm2
I0925 21:49:34.389605  8481 net.cpp:148] Top shape: 10 256 13 13 (432640)
I0925 21:49:34.389616  8481 net.cpp:156] Memory required for data: 53405240
I0925 21:49:34.389622  8481 layer_factory.hpp:77] Creating layer conv3
I0925 21:49:34.389647  8481 net.cpp:91] Creating Layer conv3
I0925 21:49:34.389653  8481 net.cpp:425] conv3 <- norm2
I0925 21:49:34.389662  8481 net.cpp:399] conv3 -> conv3
I0925 21:49:34.389808  8495 net.cpp:141] Setting up lstm1
I0925 21:49:34.389823  8495 net.cpp:148] Top shape: 1 1 1000 (1000)
I0925 21:49:34.389829  8495 net.cpp:156] Memory required for data: 26408
I0925 21:49:34.389848  8495 layer_factory.hpp:77] Creating layer concat
I0925 21:49:34.389863  8495 net.cpp:91] Creating Layer concat
I0925 21:49:34.389870  8495 net.cpp:425] concat <- lstm1
I0925 21:49:34.389878  8483 net.cpp:141] Setting up lstm1_h_conted_0
I0925 21:49:34.389878  8495 net.cpp:425] concat <- embedded_input_sentence
I0925 21:49:34.389899  8483 net.cpp:148] Top shape: 1 1 1000 (1000)
I0925 21:49:34.389901  8495 net.cpp:425] concat <- reshaped_stage_indicator
I0925 21:49:34.389905  8483 net.cpp:156] Memory required for data: 46016
I0925 21:49:34.389910  8495 net.cpp:399] concat -> lstm1_video_sequence
I0925 21:49:34.389911  8483 layer_factory.hpp:77] Creating layer lstm1_transform_1
I0925 21:49:34.389927  8483 net.cpp:91] Creating Layer lstm1_transform_1
I0925 21:49:34.389933  8483 net.cpp:425] lstm1_transform_1 <- h_conted_0
I0925 21:49:34.389945  8483 net.cpp:399] lstm1_transform_1 -> W_hc_h_0
I0925 21:49:34.390080  8495 net.cpp:141] Setting up concat
I0925 21:49:34.390092  8495 net.cpp:148] Top shape: 1 1 1501 (1501)
I0925 21:49:34.390099  8495 net.cpp:156] Memory required for data: 32412
I0925 21:49:34.390103  8495 layer_factory.hpp:77] Creating layer lstm2
I0925 21:49:34.390120  8495 net.cpp:91] Creating Layer lstm2
I0925 21:49:34.390126  8495 net.cpp:425] lstm2 <- lstm1_video_sequence
I0925 21:49:34.390133  8495 net.cpp:425] lstm2 <- cont_sentence_input_1_split_1
I0925 21:49:34.390141  8495 net.cpp:399] lstm2 -> lstm2
I0925 21:49:34.390154  8495 recurrent_layer.cpp:20] Initializing recurrent layer: assuming input batch contains 1 timesteps of 1 independent streams.
I0925 21:49:34.390439  8495 net.cpp:49] Initializing net from parameters: 
layer {
  name: "lstm2_"
  type: "Input"
  top: "x"
  top: "cont"
  input_param {
    shape {
      dim: 1
      dim: 1
      dim: 1501
    }
    shape {
      dim: 1
      dim: 1
    }
  }
}
layer {
  name: "lstm2_"
  type: "Input"
  top: "c_0"
  top: "h_0"
  input_param {
    shape {
      dim: 1
      dim: 1
      dim: 1000
    }
    shape {
      dim: 1
      dim: 1
      dim: 1000
    }
  }
}
layer {
  name: "lstm2_cont_slice"
  type: "Slice"
  bottom: "cont"
  top: "cont_1"
  slice_param {
    axis: 0
  }
}
layer {
  name: "lstm2_x_transform"
  type: "InnerProduct"
  bottom: "x"
  top: "W_xc_x"
  param {
    name: "W_xc"
  }
  param {
    name: "b_c"
  }
  propagate_down: true
  inner_product_param {
    num_output: 4000
    bias_term: true
    weight_filler {
      type: "uniform"
      min: -0.08
      max: 0.08
    }
    bias_filler {
      type: "constant"
      value: 0
    }
    axis: 2
  }
}
layer {
  name: "lstm2_W_xc_x_slice"
  type: "Slice"
  bottom: "W_xc_x"
  top: "W_xc_x_1"
  slice_param {
    axis: 0
  }
}
layer {
  name: "lstm2_h_conted_0"
  type: "Scale"
  bottom: "h_0"
  bottom: "cont_1"
  top: "h_conted_0"
  scale_param {
    axis: 0
  }
}
layer {
  name: "lstm2_transform_1"
  type: "InnerProduct"
  bottom: "h_conted_0"
  top: "W_hc_h_0"
  param {
    name: "W_hc"
  }
  inner_product_param {
    num_output: 4000
    bias_term: false
    weight_filler {
      type: "uniform"
      min: -0.08
      max: 0.08
    }
    axis: 2
  }
}
layer {
  name: "lstm2_gate_input_1"
  type: "Eltwise"
  bottom: "W_hc_h_0"
  bottom: "W_xc_x_1"
  top: "gate_input_1"
  eltwise_param {
    operation: SUM
  }
}
layer {
  name: "lstm2_unit_1"
  type: "LSTMUnit"
  bottom: "c_0"
  bottom: "gate_input_1"
  bottom: "cont_1"
  top: "c_1"
  top: "h_1"
}
layer {
  name: "lstm2_"
  type: "Split"
  bottom: "c_1"
  top: "c_T"
}
layer {
  name: "lstm2_h_concat"
  type: "Concat"
  bottom: "h_1"
  top: "h"
  concat_param {
    axis: 0
  }
}
layer {
  name: "h_pseudoloss"
  type: "Reduction"
  bottom: "h"
  top: "h_pseudoloss"
  loss_weight: 1
}
I0925 21:49:34.390535  8495 layer_factory.hpp:77] Creating layer lstm2_
I0925 21:49:34.390548  8495 net.cpp:91] Creating Layer lstm2_
I0925 21:49:34.390557  8495 net.cpp:399] lstm2_ -> x
I0925 21:49:34.390568  8495 net.cpp:399] lstm2_ -> cont
I0925 21:49:34.402129  8495 net.cpp:141] Setting up lstm2_
I0925 21:49:34.402180  8495 net.cpp:148] Top shape: 1 1 1501 (1501)
I0925 21:49:34.402194  8495 net.cpp:148] Top shape: 1 1 (1)
I0925 21:49:34.402200  8495 net.cpp:156] Memory required for data: 6008
I0925 21:49:34.402214  8495 layer_factory.hpp:77] Creating layer lstm2_
I0925 21:49:34.402240  8495 net.cpp:91] Creating Layer lstm2_
I0925 21:49:34.402257  8495 net.cpp:399] lstm2_ -> c_0
I0925 21:49:34.402282  8495 net.cpp:399] lstm2_ -> h_0
I0925 21:49:34.402374  8495 net.cpp:141] Setting up lstm2_
I0925 21:49:34.402390  8495 net.cpp:148] Top shape: 1 1 1000 (1000)
I0925 21:49:34.402401  8495 net.cpp:148] Top shape: 1 1 1000 (1000)
I0925 21:49:34.402408  8495 net.cpp:156] Memory required for data: 14008
I0925 21:49:34.402416  8495 layer_factory.hpp:77] Creating layer lstm2_cont_slice
I0925 21:49:34.402433  8495 net.cpp:91] Creating Layer lstm2_cont_slice
I0925 21:49:34.402442  8495 net.cpp:425] lstm2_cont_slice <- cont
I0925 21:49:34.402456  8495 net.cpp:399] lstm2_cont_slice -> cont_1
I0925 21:49:34.402566  8495 net.cpp:141] Setting up lstm2_cont_slice
I0925 21:49:34.402586  8495 net.cpp:148] Top shape: 1 1 (1)
I0925 21:49:34.402608  8495 net.cpp:156] Memory required for data: 14012
I0925 21:49:34.402618  8495 layer_factory.hpp:77] Creating layer cont_1_lstm2_cont_slice_0_split
I0925 21:49:34.402632  8495 net.cpp:91] Creating Layer cont_1_lstm2_cont_slice_0_split
I0925 21:49:34.402640  8495 net.cpp:425] cont_1_lstm2_cont_slice_0_split <- cont_1
I0925 21:49:34.402652  8495 net.cpp:399] cont_1_lstm2_cont_slice_0_split -> cont_1_lstm2_cont_slice_0_split_0
I0925 21:49:34.402667  8495 net.cpp:399] cont_1_lstm2_cont_slice_0_split -> cont_1_lstm2_cont_slice_0_split_1
I0925 21:49:34.402751  8495 net.cpp:141] Setting up cont_1_lstm2_cont_slice_0_split
I0925 21:49:34.402765  8495 net.cpp:148] Top shape: 1 1 (1)
I0925 21:49:34.402776  8495 net.cpp:148] Top shape: 1 1 (1)
I0925 21:49:34.402783  8495 net.cpp:156] Memory required for data: 14020
I0925 21:49:34.402791  8495 layer_factory.hpp:77] Creating layer lstm2_x_transform
I0925 21:49:34.402814  8495 net.cpp:91] Creating Layer lstm2_x_transform
I0925 21:49:34.402823  8495 net.cpp:425] lstm2_x_transform <- x
I0925 21:49:34.402837  8495 net.cpp:399] lstm2_x_transform -> W_xc_x
I0925 21:49:34.418766  8501 net.cpp:141] Setting up lstm2_transform_1
I0925 21:49:34.418892  8501 net.cpp:148] Top shape: 1 1 4000 (4000)
I0925 21:49:34.418926  8501 net.cpp:156] Memory required for data: 66020
I0925 21:49:34.418967  8501 layer_factory.hpp:77] Creating layer lstm2_gate_input_1
I0925 21:49:34.419003  8501 net.cpp:91] Creating Layer lstm2_gate_input_1
I0925 21:49:34.419028  8501 net.cpp:425] lstm2_gate_input_1 <- W_hc_h_0
I0925 21:49:34.419041  8501 net.cpp:425] lstm2_gate_input_1 <- W_xc_x_1
I0925 21:49:34.419059  8501 net.cpp:399] lstm2_gate_input_1 -> gate_input_1
I0925 21:49:34.419693  8501 net.cpp:141] Setting up lstm2_gate_input_1
I0925 21:49:34.419725  8501 net.cpp:148] Top shape: 1 1 4000 (4000)
I0925 21:49:34.419734  8501 net.cpp:156] Memory required for data: 82020
I0925 21:49:34.419744  8501 layer_factory.hpp:77] Creating layer lstm2_unit_1
I0925 21:49:34.419786  8501 net.cpp:91] Creating Layer lstm2_unit_1
I0925 21:49:34.419800  8501 net.cpp:425] lstm2_unit_1 <- c_0
I0925 21:49:34.419814  8501 net.cpp:425] lstm2_unit_1 <- gate_input_1
I0925 21:49:34.419823  8501 net.cpp:425] lstm2_unit_1 <- cont_1_lstm2_cont_slice_0_split_1
I0925 21:49:34.419853  8501 net.cpp:399] lstm2_unit_1 -> c_1
I0925 21:49:34.419872  8501 net.cpp:399] lstm2_unit_1 -> h_1
I0925 21:49:34.421950  8501 net.cpp:141] Setting up lstm2_unit_1
I0925 21:49:34.422032  8501 net.cpp:148] Top shape: 1 1 1000 (1000)
I0925 21:49:34.422054  8501 net.cpp:148] Top shape: 1 1 1000 (1000)
I0925 21:49:34.422154  8501 net.cpp:156] Memory required for data: 90020
I0925 21:49:34.422116  8477 net.cpp:141] Setting up lstm2_x_transform
I0925 21:49:34.422205  8477 net.cpp:148] Top shape: 1 1 4000 (4000)
I0925 21:49:34.422217  8477 net.cpp:156] Memory required for data: 30020
I0925 21:49:34.422250  8477 layer_factory.hpp:77] Creating layer lstm2_W_xc_x_slice
I0925 21:49:34.422261  8501 layer_factory.hpp:77] Creating layer lstm2_
I0925 21:49:34.422276  8477 net.cpp:91] Creating Layer lstm2_W_xc_x_slice
I0925 21:49:34.422289  8477 net.cpp:425] lstm2_W_xc_x_slice <- W_xc_x
I0925 21:49:34.422313  8477 net.cpp:399] lstm2_W_xc_x_slice -> W_xc_x_1
I0925 21:49:34.422296  8501 net.cpp:91] Creating Layer lstm2_
I0925 21:49:34.422394  8477 net.cpp:141] Setting up lstm2_W_xc_x_slice
I0925 21:49:34.422418  8477 net.cpp:148] Top shape: 1 1 4000 (4000)
I0925 21:49:34.422428  8477 net.cpp:156] Memory required for data: 46020
I0925 21:49:34.422396  8501 net.cpp:425] lstm2_ <- c_1
I0925 21:49:34.422440  8477 layer_factory.hpp:77] Creating layer lstm2_h_conted_0
I0925 21:49:34.422456  8477 net.cpp:91] Creating Layer lstm2_h_conted_0
I0925 21:49:34.422467  8477 net.cpp:425] lstm2_h_conted_0 <- h_0
I0925 21:49:34.422467  8501 net.cpp:399] lstm2_ -> c_T
I0925 21:49:34.422478  8477 net.cpp:425] lstm2_h_conted_0 <- cont_1_lstm2_cont_slice_0_split_0
I0925 21:49:34.422502  8477 net.cpp:399] lstm2_h_conted_0 -> h_conted_0
I0925 21:49:34.422534  8481 net.cpp:141] Setting up conv3
I0925 21:49:34.422559  8481 net.cpp:148] Top shape: 10 384 13 13 (648960)
I0925 21:49:34.422569  8481 net.cpp:156] Memory required for data: 56001080
I0925 21:49:34.422622  8481 layer_factory.hpp:77] Creating layer relu3
I0925 21:49:34.422621  8501 net.cpp:141] Setting up lstm2_
I0925 21:49:34.422650  8481 net.cpp:91] Creating Layer relu3
I0925 21:49:34.422658  8501 net.cpp:148] Top shape: 1 1 1000 (1000)
I0925 21:49:34.422663  8481 net.cpp:425] relu3 <- conv3
I0925 21:49:34.422667  8501 net.cpp:156] Memory required for data: 94020
I0925 21:49:34.422675  8501 layer_factory.hpp:77] Creating layer lstm2_h_concat
I0925 21:49:34.422679  8481 net.cpp:386] relu3 -> conv3 (in-place)
I0925 21:49:34.422695  8501 net.cpp:91] Creating Layer lstm2_h_concat
I0925 21:49:34.422706  8501 net.cpp:425] lstm2_h_concat <- h_1
I0925 21:49:34.422716  8501 net.cpp:399] lstm2_h_concat -> h
I0925 21:49:34.423063  8501 net.cpp:141] Setting up lstm2_h_concat
I0925 21:49:34.423077  8501 net.cpp:148] Top shape: 1 1 1000 (1000)
I0925 21:49:34.423085  8501 net.cpp:156] Memory required for data: 98020
I0925 21:49:34.423096  8501 layer_factory.hpp:77] Creating layer h_pseudoloss
I0925 21:49:34.423111  8501 net.cpp:91] Creating Layer h_pseudoloss
I0925 21:49:34.423117  8501 net.cpp:425] h_pseudoloss <- h
I0925 21:49:34.423125  8501 net.cpp:399] h_pseudoloss -> h_pseudoloss
I0925 21:49:34.423302  8501 net.cpp:141] Setting up h_pseudoloss
…
I0925 21:49:34.423416  8501 net.cpp:217] lstm2_W_xc_x_slice needs backward computation.
I0925 21:49:34.423423  8501 net.cpp:217] lstm2_x_transform needs backward computation.
I0925 21:49:34.423429  8501 net.cpp:219] cont_1_lstm2_cont_slice_0_split does not need backward computation.
I0925 21:49:34.423436  8501 net.cpp:219] lstm2_cont_slice does not need backward computation.
I0925 21:49:34.423434  8481 net.cpp:141] Setting up relu3
I0925 21:49:34.423444  8501 net.cpp:219] lstm2_ does not need backward computation.
I0925 21:49:34.423455  8501 net.cpp:219] lstm2_ does not need backward computation.
I0925 21:49:34.423460  8481 net.cpp:148] Top shape: 10 384 13 13 (648960)
I0925 21:49:34.423465  8501 net.cpp:261] This network produces output c_T
I0925 21:49:34.423476  8481 net.cpp:156] Memory required for data: 58596920
I0925 21:49:34.423482  8501 net.cpp:261] This network produces output h_pseudoloss
I0925 21:49:34.423491  8481 layer_factory.hpp:77] Creating layer conv4
I0925 21:49:34.423504  8501 net.cpp:274] Network initialization done.
I0925 21:49:34.423518  8481 net.cpp:91] Creating Layer conv4
I0925 21:49:34.423535  8481 net.cpp:425] conv4 <- conv3
I0925 21:49:34.423553  8481 net.cpp:399] conv4 -> conv4
I0925 21:49:34.423583  8501 recurrent_layer.cpp:150] Adding parameter 0: W_xc
I0925 21:49:34.423593  8501 recurrent_layer.cpp:150] Adding parameter 1: b_c
I0925 21:49:34.423599  8501 recurrent_layer.cpp:150] Adding parameter 2: W_hc
I0925 21:49:34.423918  8477 net.cpp:141] Setting up lstm2_h_conted_0
I0925 21:49:34.423943  8477 net.cpp:148] Top shape: 1 1 1000 (1000)
I0925 21:49:34.423966  8477 net.cpp:156] Memory required for data: 50020
I0925 21:49:34.424058  8477 layer_factory.hpp:77] Creating layer lstm2_transform_1
I0925 21:49:34.424084  8477 net.cpp:91] Creating Layer lstm2_transform_1
I0925 21:49:34.424106  8501 net.cpp:141] Setting up lstm2
I0925 21:49:34.424859  8477 net.cpp:425] lstm2_transform_1 <- h_conted_0
I0925 21:49:34.424875  8501 net.cpp:148] Top shape: 1 1 1000 (1000)
I0925 21:49:34.424895  8501 net.cpp:156] Memory required for data: 36412
I0925 21:49:34.424919  8501 layer_factory.hpp:77] Creating layer predict
I0925 21:49:34.424937  8501 net.cpp:91] Creating Layer predict
I0925 21:49:34.424947  8501 net.cpp:425] predict <- lstm2
I0925 21:49:34.424965  8501 net.cpp:399] predict -> predict
I0925 21:49:34.425897  8477 net.cpp:399] lstm2_transform_1 -> W_hc_h_0
I0925 21:49:34.548322  8483 net.cpp:141] Setting up lstm1_transform_1
I0925 21:49:34.548393  8483 net.cpp:148] Top shape: 1 1 4000 (4000)
I0925 21:49:34.548405  8483 net.cpp:156] Memory required for data: 62016
I0925 21:49:34.548440  8483 layer_factory.hpp:77] Creating layer lstm1_gate_input_1
I0925 21:49:34.548480  8483 net.cpp:91] Creating Layer lstm1_gate_input_1
I0925 21:49:34.548494  8483 net.cpp:425] lstm1_gate_input_1 <- W_hc_h_0
I0925 21:49:34.548487  8473 net.cpp:141] Setting up lstm2_transform_1
I0925 21:49:34.548511  8483 net.cpp:425] lstm1_gate_input_1 <- W_xc_x_1
I0925 21:49:34.548550  8473 net.cpp:148] Top shape: 1 1 4000 (4000)
I0925 21:49:34.548557  8483 net.cpp:399] lstm1_gate_input_1 -> gate_input_1
I0925 21:49:34.548563  8473 net.cpp:156] Memory required for data: 66020
I0925 21:49:34.548593  8473 layer_factory.hpp:77] Creating layer lstm2_gate_input_1
I0925 21:49:34.548621  8473 net.cpp:91] Creating Layer lstm2_gate_input_1
I0925 21:49:34.548634  8473 net.cpp:425] lstm2_gate_input_1 <- W_hc_h_0
I0925 21:49:34.548646  8473 net.cpp:425] lstm2_gate_input_1 <- W_xc_x_1
I0925 21:49:34.548662  8473 net.cpp:399] lstm2_gate_input_1 -> gate_input_1
I0925 21:49:34.548959  8483 net.cpp:141] Setting up lstm1_gate_input_1
I0925 21:49:34.548982  8483 net.cpp:148] Top shape: 1 1 4000 (4000)
I0925 21:49:34.548992  8483 net.cpp:156] Memory required for data: 78016
I0925 21:49:34.549003  8483 layer_factory.hpp:77] Creating layer lstm1_unit_1
I0925 21:49:34.549023  8483 net.cpp:91] Creating Layer lstm1_unit_1
I0925 21:49:34.549036  8483 net.cpp:425] lstm1_unit_1 <- c_0
I0925 21:49:34.549051  8483 net.cpp:425] lstm1_unit_1 <- gate_input_1
I0925 21:49:34.549062  8483 net.cpp:425] lstm1_unit_1 <- cont_1_lstm1_cont_slice_0_split_1
I0925 21:49:34.549078  8483 net.cpp:399] lstm1_unit_1 -> c_1
I0925 21:49:34.549098  8483 net.cpp:399] lstm1_unit_1 -> h_1
I0925 21:49:34.549290  8473 net.cpp:141] Setting up lstm2_gate_input_1
I0925 21:49:34.549305  8473 net.cpp:148] Top shape: 1 1 4000 (4000)
I0925 21:49:34.549314  8473 net.cpp:156] Memory required for data: 82020
I0925 21:49:34.549324  8473 layer_factory.hpp:77] Creating layer lstm2_unit_1
I0925 21:49:34.549340  8473 net.cpp:91] Creating Layer lstm2_unit_1
I0925 21:49:34.549347  8473 net.cpp:425] lstm2_unit_1 <- c_0
I0925 21:49:34.549355  8473 net.cpp:425] lstm2_unit_1 <- gate_input_1
I0925 21:49:34.549360  8473 net.cpp:425] lstm2_unit_1 <- cont_1_lstm2_cont_slice_0_split_1
I0925 21:49:34.549371  8473 net.cpp:399] lstm2_unit_1 -> c_1
I0925 21:49:34.549389  8473 net.cpp:399] lstm2_unit_1 -> h_1
I0925 21:49:34.549684  8483 net.cpp:141] Setting up lstm1_unit_1
I0925 21:49:34.549703  8483 net.cpp:148] Top shape: 1 1 1000 (1000)
I0925 21:49:34.549716  8483 net.cpp:148] Top shape: 1 1 1000 (1000)
I0925 21:49:34.549726  8483 net.cpp:156] Memory required for data: 86016
I0925 21:49:34.549736  8483 layer_factory.hpp:77] Creating layer lstm1_
I0925 21:49:34.549757  8483 net.cpp:91] Creating Layer lstm1_
I0925 21:49:34.549767  8483 net.cpp:425] lstm1_ <- c_1
I0925 21:49:34.549782  8483 net.cpp:399] lstm1_ -> c_T
I0925 21:49:34.549801  8473 net.cpp:141] Setting up lstm2_unit_1
I0925 21:49:34.549821  8473 net.cpp:148] Top shape: 1 1 1000 (1000)
I0925 21:49:34.549834  8473 net.cpp:148] Top shape: 1 1 1000 (1000)
I0925 21:49:34.549841  8473 net.cpp:156] Memory required for data: 90020
I0925 21:49:34.549840  8483 net.cpp:141] Setting up lstm1_
I0925 21:49:34.549860  8473 layer_factory.hpp:77] Creating layer lstm2_
I0925 21:49:34.549867  8483 net.cpp:148] Top shape: 1 1 1000 (1000)
I0925 21:49:34.549875  8483 net.cpp:156] Memory required for data: 90016
I0925 21:49:34.549890  8483 layer_factory.hpp:77] Creating layer lstm1_h_concat
I0925 21:49:34.549875  8473 net.cpp:91] Creating Layer lstm2_
I0925 21:49:34.549912  8473 net.cpp:425] lstm2_ <- c_1
I0925 21:49:34.549913  8483 net.cpp:91] Creating Layer lstm1_h_concat
I0925 21:49:34.549931  8483 net.cpp:425] lstm1_h_concat <- h_1
I0925 21:49:34.549932  8473 net.cpp:399] lstm2_ -> c_T
I0925 21:49:34.549957  8483 net.cpp:399] lstm1_h_concat -> h
I0925 21:49:34.549995  8495 net.cpp:141] Setting up lstm2_x_transform
I0925 21:49:34.550034  8483 net.cpp:141] Setting up lstm1_h_concat
I0925 21:49:34.550034  8495 net.cpp:148] Top shape: 1 1 4000 (4000)
I0925 21:49:34.550062  8483 net.cpp:148] Top shape: 1 1 1000 (1000)
I0925 21:49:34.550072  8483 net.cpp:156] Memory required for data: 94016
I0925 21:49:34.550073  8495 net.cpp:156] Memory required for data: 30020
I0925 21:49:34.550082  8483 layer_factory.hpp:77] Creating layer h_pseudoloss
I0925 21:49:34.550098  8483 net.cpp:91] Creating Layer h_pseudoloss
I0925 21:49:34.550108  8483 net.cpp:425] h_pseudoloss <- h
I0925 21:49:34.550112  8495 layer_factory.hpp:77] Creating layer lstm2_W_xc_x_slice
…
I0925 21:49:34.550499  8483 net.cpp:219] lstm1_ does not need backward computation.
I0925 21:49:34.550508  8483 net.cpp:261] This network produces output c_T
I0925 21:49:34.550518  8483 net.cpp:261] This network produces output h_pseudoloss
I0925 21:49:34.550549  8483 net.cpp:274] Network initialization done.
I0925 21:49:34.550673  8483 recurrent_layer.cpp:150] Adding parameter 0: W_xc
I0925 21:49:34.550689  8483 recurrent_layer.cpp:150] Adding parameter 1: b_c
I0925 21:49:34.550710  8483 recurrent_layer.cpp:150] Adding parameter 2: W_hc
I0925 21:49:34.552495  8483 net.cpp:141] Setting up lstm1
I0925 21:49:34.552533  8483 net.cpp:148] Top shape: 1 1 1000 (1000)
I0925 21:49:34.552544  8483 net.cpp:156] Memory required for data: 26408
I0925 21:49:34.552572  8483 layer_factory.hpp:77] Creating layer concat
I0925 21:49:34.552593  8483 net.cpp:91] Creating Layer concat
I0925 21:49:34.552608  8483 net.cpp:425] concat <- lstm1
I0925 21:49:34.552621  8483 net.cpp:425] concat <- embedded_input_sentence
I0925 21:49:34.552634  8483 net.cpp:425] concat <- reshaped_stage_indicator
I0925 21:49:34.552647  8483 net.cpp:399] concat -> lstm1_video_sequence
I0925 21:49:34.552722  8483 net.cpp:141] Setting up concat
I0925 21:49:34.552742  8483 net.cpp:148] Top shape: 1 1 1501 (1501)
I0925 21:49:34.552752  8483 net.cpp:156] Memory required for data: 32412
I0925 21:49:34.552763  8483 layer_factory.hpp:77] Creating layer lstm2
I0925 21:49:34.552852  8483 net.cpp:91] Creating Layer lstm2
I0925 21:49:34.552891  8483 net.cpp:425] lstm2 <- lstm1_video_sequence
I0925 21:49:34.552903  8483 net.cpp:425] lstm2 <- cont_sentence_input_1_split_1
I0925 21:49:34.552923  8483 net.cpp:399] lstm2 -> lstm2
I0925 21:49:34.552948  8483 recurrent_layer.cpp:20] Initializing recurrent layer: assuming input batch contains 1 timesteps of 1 independent streams.
I0925 21:49:34.553297  8483 net.cpp:49] Initializing net from parameters: 
layer {
  name: "lstm2_"
  type: "Input"
  top: "x"
  top: "cont"
  input_param {
    shape {
      dim: 1
      dim: 1
      dim: 1501
    }
    shape {
      dim: 1
      dim: 1
    }
  }
}
layer {
  name: "lstm2_"
  type: "Input"
  top: "c_0"
  top: "h_0"
  input_param {
    shape {
      dim: 1
      dim: 1
      dim: 1000
    }
    shape {
      dim: 1
      dim: 1
      dim: 1000
    }
  }
}
layer {
  name: "lstm2_cont_slice"
  type: "Slice"
  bottom: "cont"
  top: "cont_1"
  slice_param {
    axis: 0
  }
}
layer {
  name: "lstm2_x_transform"
  type: "InnerProduct"
  bottom: "x"
  top: "W_xc_x"
  param {
    name: "W_xc"
  }
  param {
    name: "b_c"
  }
  propagate_down: true
  inner_product_param {
    num_output: 4000
    bias_term: true
    weight_filler {
      type: "uniform"
      min: -0.08
      max: 0.08
    }
    bias_filler {
      type: "constant"
      value: 0
    }
    axis: 2
  }
}
layer {
  name: "lstm2_W_xc_x_slice"
  type: "Slice"
  bottom: "W_xc_x"
  top: "W_xc_x_1"
  slice_param {
    axis: 0
  }
}
layer {
  name: "lstm2_h_conted_0"
  type: "Scale"
  bottom: "h_0"
  bottom: "cont_1"
  top: "h_conted_0"
  scale_param {
    axis: 0
  }
}
layer {
  name: "lstm2_transform_1"
  type: "InnerProduct"
  bottom: "h_conted_0"
  top: "W_hc_h_0"
  param {
    name: "W_hc"
  }
  inner_product_param {
    num_output: 4000
    bias_term: false
    weight_filler {
      type: "uniform"
      min: -0.08
      max: 0.08
    }
    axis: 2
  }
}
layer {
  name: "lstm2_gate_input_1"
  type: "Eltwise"
  bottom: "W_hc_h_0"
  bottom: "W_xc_x_1"
  top: "gate_input_1"
  eltwise_param {
    operation: SUM
  }
}
layer {
  name: "lstm2_unit_1"
  type: "LSTMUnit"
  bottom: "c_0"
  bottom: "gate_input_1"
  bottom: "cont_1"
  top: "c_1"
  top: "h_1"
}
layer {
  name: "lstm2_"
  type: "Split"
  bottom: "c_1"
  top: "c_T"
}
layer {
  name: "lstm2_h_concat"
  type: "Concat"
  bottom: "h_1"
  top: "h"
  concat_param {
    axis: 0
  }
}
layer {
  name: "h_pseudoloss"
  type: "Reduction"
  bottom: "h"
  top: "h_pseudoloss"
  loss_weight: 1
}
I0925 21:49:34.553405  8483 layer_factory.hpp:77] Creating layer lstm2_
I0925 21:49:34.553421  8483 net.cpp:91] Creating Layer lstm2_
I0925 21:49:34.553427  8483 net.cpp:399] lstm2_ -> x
I0925 21:49:34.553442  8483 net.cpp:399] lstm2_ -> cont
I0925 21:49:34.553588  8483 net.cpp:141] Setting up lstm2_
I0925 21:49:34.553602  8483 net.cpp:148] Top shape: 1 1 1501 (1501)
I0925 21:49:34.553609  8483 net.cpp:148] Top shape: 1 1 (1)
I0925 21:49:34.553614  8483 net.cpp:156] Memory required for data: 6008
I0925 21:49:34.553620  8483 layer_factory.hpp:77] Creating layer lstm2_
I0925 21:49:34.553630  8483 net.cpp:91] Creating Layer lstm2_
I0925 21:49:34.553640  8483 net.cpp:399] lstm2_ -> c_0
I0925 21:49:34.553653  8483 net.cpp:399] lstm2_ -> h_0
I0925 21:49:34.553725  8483 net.cpp:141] Setting up lstm2_
I0925 21:49:34.553735  8483 net.cpp:148] Top shape: 1 1 1000 (1000)
I0925 21:49:34.553742  8483 net.cpp:148] Top shape: 1 1 1000 (1000)
I0925 21:49:34.553747  8483 net.cpp:156] Memory required for data: 14008
I0925 21:49:34.553752  8483 layer_factory.hpp:77] Creating layer lstm2_cont_slice
I0925 21:49:34.553763  8483 net.cpp:91] Creating Layer lstm2_cont_slice
I0925 21:49:34.553768  8483 net.cpp:425] lstm2_cont_slice <- cont
I0925 21:49:34.553777  8483 net.cpp:399] lstm2_cont_slice -> cont_1
I0925 21:49:34.553824  8483 net.cpp:141] Setting up lstm2_cont_slice
I0925 21:49:34.553835  8483 net.cpp:148] Top shape: 1 1 (1)
I0925 21:49:34.553840  8483 net.cpp:156] Memory required for data: 14012
I0925 21:49:34.553845  8483 layer_factory.hpp:77] Creating layer cont_1_lstm2_cont_slice_0_split
I0925 21:49:34.553855  8483 net.cpp:91] Creating Layer cont_1_lstm2_cont_slice_0_split
I0925 21:49:34.553864  8483 net.cpp:425] cont_1_lstm2_cont_slice_0_split <- cont_1
I0925 21:49:34.553871  8483 net.cpp:399] cont_1_lstm2_cont_slice_0_split -> cont_1_lstm2_cont_slice_0_split_0
I0925 21:49:34.553881  8483 net.cpp:399] cont_1_lstm2_cont_slice_0_split -> cont_1_lstm2_cont_slice_0_split_1
I0925 21:49:34.553942  8483 net.cpp:141] Setting up cont_1_lstm2_cont_slice_0_split
I0925 21:49:34.553953  8483 net.cpp:148] Top shape: 1 1 (1)
I0925 21:49:34.553961  8483 net.cpp:148] Top shape: 1 1 (1)
I0925 21:49:34.553966  8483 net.cpp:156] Memory required for data: 14020
I0925 21:49:34.553971  8483 layer_factory.hpp:77] Creating layer lstm2_x_transform
I0925 21:49:34.553982  8483 net.cpp:91] Creating Layer lstm2_x_transform
I0925 21:49:34.553987  8483 net.cpp:425] lstm2_x_transform <- x
I0925 21:49:34.553999  8483 net.cpp:399] lstm2_x_transform -> W_xc_x
I0925 21:49:34.576501  8473 net.cpp:141] Setting up lstm2_
I0925 21:49:34.576565  8473 net.cpp:148] Top shape: 1 1 1000 (1000)
I0925 21:49:34.576576  8473 net.cpp:156] Memory required for data: 94020
I0925 21:49:34.576591  8473 layer_factory.hpp:77] Creating layer lstm2_h_concat
I0925 21:49:34.576624  8473 net.cpp:91] Creating Layer lstm2_h_concat
I0925 21:49:34.576637  8473 net.cpp:425] lstm2_h_concat <- h_1
I0925 21:49:34.576653  8473 net.cpp:399] lstm2_h_concat -> h
I0925 21:49:34.576745  8473 net.cpp:141] Setting up lstm2_h_concat
I0925 21:49:34.576761  8473 net.cpp:148] Top shape: 1 1 1000 (1000)
I0925 21:49:34.576768  8473 net.cpp:156] Memory required for data: 98020
I0925 21:49:34.576776  8473 layer_factory.hpp:77] Creating layer h_pseudoloss
I0925 21:49:34.576792  8473 net.cpp:91] Creating Layer h_pseudoloss
I0925 21:49:34.576800  8473 net.cpp:425] h_pseudoloss <- h
I0925 21:49:34.576815  8473 net.cpp:399] h_pseudoloss -> h_pseudoloss
I0925 21:49:34.576974  8473 net.cpp:141] Setting up h_pseudoloss
…
I0925 21:49:34.577145  8473 net.cpp:219] lstm2_ does not need backward computation.
I0925 21:49:34.577152  8473 net.cpp:261] This network produces output c_T
I0925 21:49:34.577162  8473 net.cpp:261] This network produces output h_pseudoloss
I0925 21:49:34.577195  8473 net.cpp:274] Network initialization done.
I0925 21:49:34.577277  8473 recurrent_layer.cpp:150] Adding parameter 0: W_xc
I0925 21:49:34.577288  8473 recurrent_layer.cpp:150] Adding parameter 1: b_c
I0925 21:49:34.577296  8473 recurrent_layer.cpp:150] Adding parameter 2: W_hc
I0925 21:49:34.577471  8473 net.cpp:141] Setting up lstm2
I0925 21:49:34.577488  8473 net.cpp:148] Top shape: 1 1 1000 (1000)
I0925 21:49:34.577497  8473 net.cpp:156] Memory required for data: 36412
I0925 21:49:34.577522  8473 layer_factory.hpp:77] Creating layer predict
I0925 21:49:34.577541  8473 net.cpp:91] Creating Layer predict
I0925 21:49:34.577553  8473 net.cpp:425] predict <- lstm2
I0925 21:49:34.577566  8473 net.cpp:399] predict -> predict
I0925 21:49:34.692829  8495 net.cpp:141] Setting up lstm2_W_xc_x_slice
I0925 21:49:34.692889  8477 net.cpp:141] Setting up lstm2_transform_1
I0925 21:49:34.693373  8483 net.cpp:141] Setting up lstm2_x_transform
I0925 21:49:34.693583  8495 net.cpp:148] Top shape: 1 1 4000 (4000)
I0925 21:49:34.693794  8477 net.cpp:148] Top shape: 1 1 4000 (4000)
I0925 21:49:34.694241  8495 net.cpp:156] Memory required for data: 46020
I0925 21:49:34.694262  8495 layer_factory.hpp:77] Creating layer lstm2_h_conted_0
I0925 21:49:34.694226  8483 net.cpp:148] Top shape: 1 1 4000 (4000)
I0925 21:49:34.694262  8477 net.cpp:156] Memory required for data: 66020
I0925 21:49:34.694285  8483 net.cpp:156] Memory required for data: 30020
I0925 21:49:34.694300  8495 net.cpp:91] Creating Layer lstm2_h_conted_0
I0925 21:49:34.694303  8477 layer_factory.hpp:77] Creating layer lstm2_gate_input_1
I0925 21:49:34.694320  8483 layer_factory.hpp:77] Creating layer lstm2_W_xc_x_slice
I0925 21:49:34.694344  8477 net.cpp:91] Creating Layer lstm2_gate_input_1
I0925 21:49:34.694322  8495 net.cpp:425] lstm2_h_conted_0 <- h_0
I0925 21:49:34.694370  8477 net.cpp:425] lstm2_gate_input_1 <- W_hc_h_0
I0925 21:49:34.694386  8477 net.cpp:425] lstm2_gate_input_1 <- W_xc_x_1
I0925 21:49:34.694399  8495 net.cpp:425] lstm2_h_conted_0 <- cont_1_lstm2_cont_slice_0_split_0
I0925 21:49:34.694401  8477 net.cpp:399] lstm2_gate_input_1 -> gate_input_1
I0925 21:49:34.694425  8495 net.cpp:399] lstm2_h_conted_0 -> h_conted_0
I0925 21:49:34.694667  8477 net.cpp:141] Setting up lstm2_gate_input_1
I0925 21:49:34.694686  8477 net.cpp:148] Top shape: 1 1 4000 (4000)
I0925 21:49:34.694695  8477 net.cpp:156] Memory required for data: 82020
I0925 21:49:34.694705  8477 layer_factory.hpp:77] Creating layer lstm2_unit_1
I0925 21:49:34.694720  8477 net.cpp:91] Creating Layer lstm2_unit_1
I0925 21:49:34.694730  8477 net.cpp:425] lstm2_unit_1 <- c_0
I0925 21:49:34.694741  8477 net.cpp:425] lstm2_unit_1 <- gate_input_1
I0925 21:49:34.694752  8477 net.cpp:425] lstm2_unit_1 <- cont_1_lstm2_cont_slice_0_split_1
I0925 21:49:34.694772  8477 net.cpp:399] lstm2_unit_1 -> c_1
I0925 21:49:34.694790  8477 net.cpp:399] lstm2_unit_1 -> h_1
I0925 21:49:34.694785  8481 net.cpp:141] Setting up conv4
I0925 21:49:34.694818  8481 net.cpp:148] Top shape: 10 384 13 13 (648960)
I0925 21:49:34.694828  8481 net.cpp:156] Memory required for data: 61192760
I0925 21:49:34.694847  8481 layer_factory.hpp:77] Creating layer relu4
I0925 21:49:34.694363  8483 net.cpp:91] Creating Layer lstm2_W_xc_x_slice
I0925 21:49:34.694890  8483 net.cpp:425] lstm2_W_xc_x_slice <- W_xc_x
I0925 21:49:34.694912  8483 net.cpp:399] lstm2_W_xc_x_slice -> W_xc_x_1
I0925 21:49:34.694922  8481 net.cpp:91] Creating Layer relu4
I0925 21:49:34.694950  8481 net.cpp:425] relu4 <- conv4
I0925 21:49:34.694969  8477 net.cpp:141] Setting up lstm2_unit_1
I0925 21:49:34.694970  8481 net.cpp:386] relu4 -> conv4 (in-place)
I0925 21:49:34.694994  8477 net.cpp:148] Top shape: 1 1 1000 (1000)
I0925 21:49:34.695008  8477 net.cpp:148] Top shape: 1 1 1000 (1000)
I0925 21:49:34.695015  8477 net.cpp:156] Memory required for data: 90020
I0925 21:49:34.695024  8477 layer_factory.hpp:77] Creating layer lstm2_
I0925 21:49:34.695039  8477 net.cpp:91] Creating Layer lstm2_
I0925 21:49:34.695047  8477 net.cpp:425] lstm2_ <- c_1
I0925 21:49:34.695060  8477 net.cpp:399] lstm2_ -> c_T
I0925 21:49:34.695832  8483 net.cpp:141] Setting up lstm2_W_xc_x_slice
I0925 21:49:34.695861  8483 net.cpp:148] Top shape: 1 1 4000 (4000)
I0925 21:49:34.695870  8483 net.cpp:156] Memory required for data: 46020
I0925 21:49:34.695881  8483 layer_factory.hpp:77] Creating layer lstm2_h_conted_0
I0925 21:49:34.695901  8483 net.cpp:91] Creating Layer lstm2_h_conted_0
I0925 21:49:34.695914  8483 net.cpp:425] lstm2_h_conted_0 <- h_0
I0925 21:49:34.695911  8495 net.cpp:141] Setting up lstm2_h_conted_0
I0925 21:49:34.695927  8483 net.cpp:425] lstm2_h_conted_0 <- cont_1_lstm2_cont_slice_0_split_0
I0925 21:49:34.695937  8495 net.cpp:148] Top shape: 1 1 1000 (1000)
I0925 21:49:34.695943  8483 net.cpp:399] lstm2_h_conted_0 -> h_conted_0
I0925 21:49:34.695950  8495 net.cpp:156] Memory required for data: 50020
I0925 21:49:34.695961  8495 layer_factory.hpp:77] Creating layer lstm2_transform_1
I0925 21:49:34.695963  8477 net.cpp:141] Setting up lstm2_
I0925 21:49:34.695981  8477 net.cpp:148] Top shape: 1 1 1000 (1000)
I0925 21:49:34.695984  8495 net.cpp:91] Creating Layer lstm2_transform_1
I0925 21:49:34.695991  8477 net.cpp:156] Memory required for data: 94020
I0925 21:49:34.695998  8495 net.cpp:425] lstm2_transform_1 <- h_conted_0
I0925 21:49:34.695999  8477 layer_factory.hpp:77] Creating layer lstm2_h_concat
I0925 21:49:34.696033  8477 net.cpp:91] Creating Layer lstm2_h_concat
I0925 21:49:34.696033  8495 net.cpp:399] lstm2_transform_1 -> W_hc_h_0
I0925 21:49:34.696041  8477 net.cpp:425] lstm2_h_concat <- h_1
I0925 21:49:34.696055  8477 net.cpp:399] lstm2_h_concat -> h
I0925 21:49:34.696213  8477 net.cpp:141] Setting up lstm2_h_concat
I0925 21:49:34.696230  8477 net.cpp:148] Top shape: 1 1 1000 (1000)
I0925 21:49:34.696239  8477 net.cpp:156] Memory required for data: 98020
I0925 21:49:34.696247  8477 layer_factory.hpp:77] Creating layer h_pseudoloss
I0925 21:49:34.696262  8477 net.cpp:91] Creating Layer h_pseudoloss
I0925 21:49:34.696271  8477 net.cpp:425] h_pseudoloss <- h
I0925 21:49:34.696285  8477 net.cpp:399] h_pseudoloss -> h_pseudoloss
I0925 21:49:34.697283  8477 net.cpp:141] Setting up h_pseudoloss
…
I0925 21:49:34.697417  8477 net.cpp:217] lstm2_x_transform needs backward computation.
I0925 21:49:34.697427  8477 net.cpp:219] cont_1_lstm2_cont_slice_0_split does not need backward computation.
I0925 21:49:34.697438  8477 net.cpp:219] lstm2_cont_slice does not need backward computation.
I0925 21:49:34.697453  8477 net.cpp:219] lstm2_ does not need backward computation.
I0925 21:49:34.697443  8483 net.cpp:141] Setting up lstm2_h_conted_0
I0925 21:49:34.697461  8477 net.cpp:219] lstm2_ does not need backward computation.
I0925 21:49:34.697494  8477 net.cpp:261] This network produces output c_T
I0925 21:49:34.697497  8483 net.cpp:148] Top shape: 1 1 1000 (1000)
I0925 21:49:34.697504  8477 net.cpp:261] This network produces output h_pseudoloss
I0925 21:49:34.697510  8483 net.cpp:156] Memory required for data: 50020
I0925 21:49:34.697522  8483 layer_factory.hpp:77] Creating layer lstm2_transform_1
I0925 21:49:34.697531  8477 net.cpp:274] Network initialization done.
I0925 21:49:34.697547  8483 net.cpp:91] Creating Layer lstm2_transform_1
I0925 21:49:34.697561  8483 net.cpp:425] lstm2_transform_1 <- h_conted_0
I0925 21:49:34.697587  8483 net.cpp:399] lstm2_transform_1 -> W_hc_h_0
I0925 21:49:34.697604  8477 recurrent_layer.cpp:150] Adding parameter 0: W_xc
I0925 21:49:34.697618  8477 recurrent_layer.cpp:150] Adding parameter 1: b_c
I0925 21:49:34.697625  8477 recurrent_layer.cpp:150] Adding parameter 2: W_hc
I0925 21:49:34.721802  8481 net.cpp:141] Setting up relu4
I0925 21:49:34.721863  8481 net.cpp:148] Top shape: 10 384 13 13 (648960)
I0925 21:49:34.721876  8481 net.cpp:156] Memory required for data: 63788600
I0925 21:49:34.721890  8481 layer_factory.hpp:77] Creating layer conv5
I0925 21:49:34.721925  8481 net.cpp:91] Creating Layer conv5
I0925 21:49:34.721937  8481 net.cpp:425] conv5 <- conv4
I0925 21:49:34.721956  8481 net.cpp:399] conv5 -> conv5
I0925 21:49:34.724117  8477 net.cpp:141] Setting up lstm2
I0925 21:49:34.724148  8477 net.cpp:148] Top shape: 1 1 1000 (1000)
I0925 21:49:34.724159  8477 net.cpp:156] Memory required for data: 36412
I0925 21:49:34.724187  8477 layer_factory.hpp:77] Creating layer predict
I0925 21:49:34.724207  8477 net.cpp:91] Creating Layer predict
I0925 21:49:34.724218  8477 net.cpp:425] predict <- lstm2
I0925 21:49:34.724233  8477 net.cpp:399] predict -> predict
I0925 21:49:34.820709  8483 net.cpp:141] Setting up lstm2_transform_1
I0925 21:49:34.820773  8483 net.cpp:148] Top shape: 1 1 4000 (4000)
I0925 21:49:34.820785  8483 net.cpp:156] Memory required for data: 66020
I0925 21:49:34.820816  8483 layer_factory.hpp:77] Creating layer lstm2_gate_input_1
I0925 21:49:34.820849  8483 net.cpp:91] Creating Layer lstm2_gate_input_1
I0925 21:49:34.820861  8483 net.cpp:425] lstm2_gate_input_1 <- W_hc_h_0
I0925 21:49:34.820873  8483 net.cpp:425] lstm2_gate_input_1 <- W_xc_x_1
I0925 21:49:34.820890  8483 net.cpp:399] lstm2_gate_input_1 -> gate_input_1
I0925 21:49:34.820976  8483 net.cpp:141] Setting up lstm2_gate_input_1
I0925 21:49:34.820998  8483 net.cpp:148] Top shape: 1 1 4000 (4000)
I0925 21:49:34.821005  8483 net.cpp:156] Memory required for data: 82020
I0925 21:49:34.821014  8483 layer_factory.hpp:77] Creating layer lstm2_unit_1
I0925 21:49:34.821029  8483 net.cpp:91] Creating Layer lstm2_unit_1
I0925 21:49:34.821038  8483 net.cpp:425] lstm2_unit_1 <- c_0
I0925 21:49:34.821048  8483 net.cpp:425] lstm2_unit_1 <- gate_input_1
I0925 21:49:34.821058  8483 net.cpp:425] lstm2_unit_1 <- cont_1_lstm2_cont_slice_0_split_1
I0925 21:49:34.821069  8483 net.cpp:399] lstm2_unit_1 -> c_1
I0925 21:49:34.821084  8483 net.cpp:399] lstm2_unit_1 -> h_1
I0925 21:49:34.821199  8483 net.cpp:141] Setting up lstm2_unit_1
I0925 21:49:34.821215  8483 net.cpp:148] Top shape: 1 1 1000 (1000)
I0925 21:49:34.821226  8483 net.cpp:148] Top shape: 1 1 1000 (1000)
I0925 21:49:34.821233  8483 net.cpp:156] Memory required for data: 90020
I0925 21:49:34.821241  8483 layer_factory.hpp:77] Creating layer lstm2_
I0925 21:49:34.821255  8483 net.cpp:91] Creating Layer lstm2_
I0925 21:49:34.821264  8483 net.cpp:425] lstm2_ <- c_1
I0925 21:49:34.821279  8483 net.cpp:399] lstm2_ -> c_T
I0925 21:49:34.821336  8483 net.cpp:141] Setting up lstm2_
I0925 21:49:34.821354  8483 net.cpp:148] Top shape: 1 1 1000 (1000)
I0925 21:49:34.821363  8483 net.cpp:156] Memory required for data: 94020
I0925 21:49:34.821372  8483 layer_factory.hpp:77] Creating layer lstm2_h_concat
I0925 21:49:34.821394  8483 net.cpp:91] Creating Layer lstm2_h_concat
I0925 21:49:34.821405  8483 net.cpp:425] lstm2_h_concat <- h_1
I0925 21:49:34.821424  8483 net.cpp:399] lstm2_h_concat -> h
I0925 21:49:34.821490  8483 net.cpp:141] Setting up lstm2_h_concat
I0925 21:49:34.821506  8483 net.cpp:148] Top shape: 1 1 1000 (1000)
I0925 21:49:34.821516  8483 net.cpp:156] Memory required for data: 98020
I0925 21:49:34.821523  8483 layer_factory.hpp:77] Creating layer h_pseudoloss
I0925 21:49:34.821540  8483 net.cpp:91] Creating Layer h_pseudoloss
I0925 21:49:34.821550  8483 net.cpp:425] h_pseudoloss <- h
I0925 21:49:34.821568  8483 net.cpp:399] h_pseudoloss -> h_pseudoloss
I0925 21:49:34.821743  8483 net.cpp:141] Setting up h_pseudoloss
…
I0925 21:49:34.821929  8483 net.cpp:219] lstm2_ does not need backward computation.
I0925 21:49:34.821936  8483 net.cpp:261] This network produces output c_T
I0925 21:49:34.821946  8483 net.cpp:261] This network produces output h_pseudoloss
I0925 21:49:34.821979  8483 net.cpp:274] Network initialization done.
I0925 21:49:34.822063  8483 recurrent_layer.cpp:150] Adding parameter 0: W_xc
I0925 21:49:34.822077  8483 recurrent_layer.cpp:150] Adding parameter 1: b_c
I0925 21:49:34.822088  8483 recurrent_layer.cpp:150] Adding parameter 2: W_hc
I0925 21:49:34.822273  8483 net.cpp:141] Setting up lstm2
I0925 21:49:34.822293  8483 net.cpp:148] Top shape: 1 1 1000 (1000)
I0925 21:49:34.822304  8483 net.cpp:156] Memory required for data: 36412
I0925 21:49:34.822329  8483 layer_factory.hpp:77] Creating layer predict
I0925 21:49:34.822352  8483 net.cpp:91] Creating Layer predict
I0925 21:49:34.822365  8483 net.cpp:425] predict <- lstm2
I0925 21:49:34.822381  8483 net.cpp:399] predict -> predict
I0925 21:49:34.911797  8495 net.cpp:141] Setting up lstm2_transform_1
I0925 21:49:34.911854  8495 net.cpp:148] Top shape: 1 1 4000 (4000)
I0925 21:49:34.911864  8495 net.cpp:156] Memory required for data: 66020
I0925 21:49:34.911892  8495 layer_factory.hpp:77] Creating layer lstm2_gate_input_1
I0925 21:49:34.911918  8495 net.cpp:91] Creating Layer lstm2_gate_input_1
I0925 21:49:34.911931  8495 net.cpp:425] lstm2_gate_input_1 <- W_hc_h_0
I0925 21:49:34.911947  8495 net.cpp:425] lstm2_gate_input_1 <- W_xc_x_1
I0925 21:49:34.911962  8495 net.cpp:399] lstm2_gate_input_1 -> gate_input_1
I0925 21:49:34.912266  8495 net.cpp:141] Setting up lstm2_gate_input_1
I0925 21:49:34.912286  8495 net.cpp:148] Top shape: 1 1 4000 (4000)
I0925 21:49:34.912292  8495 net.cpp:156] Memory required for data: 82020
I0925 21:49:34.912297  8495 layer_factory.hpp:77] Creating layer lstm2_unit_1
I0925 21:49:34.912309  8495 net.cpp:91] Creating Layer lstm2_unit_1
I0925 21:49:34.912315  8495 net.cpp:425] lstm2_unit_1 <- c_0
I0925 21:49:34.912323  8495 net.cpp:425] lstm2_unit_1 <- gate_input_1
I0925 21:49:34.912329  8495 net.cpp:425] lstm2_unit_1 <- cont_1_lstm2_cont_slice_0_split_1
I0925 21:49:34.912341  8495 net.cpp:399] lstm2_unit_1 -> c_1
I0925 21:49:34.912353  8495 net.cpp:399] lstm2_unit_1 -> h_1
I0925 21:49:34.912441  8495 net.cpp:141] Setting up lstm2_unit_1
I0925 21:49:34.912452  8495 net.cpp:148] Top shape: 1 1 1000 (1000)
I0925 21:49:34.912459  8495 net.cpp:148] Top shape: 1 1 1000 (1000)
I0925 21:49:34.912464  8495 net.cpp:156] Memory required for data: 90020
I0925 21:49:34.912469  8495 layer_factory.hpp:77] Creating layer lstm2_
I0925 21:49:34.912478  8495 net.cpp:91] Creating Layer lstm2_
I0925 21:49:34.912484  8495 net.cpp:425] lstm2_ <- c_1
I0925 21:49:34.912492  8495 net.cpp:399] lstm2_ -> c_T
I0925 21:49:34.912533  8495 net.cpp:141] Setting up lstm2_
I0925 21:49:34.912542  8495 net.cpp:148] Top shape: 1 1 1000 (1000)
I0925 21:49:34.912547  8495 net.cpp:156] Memory required for data: 94020
I0925 21:49:34.912552  8495 layer_factory.hpp:77] Creating layer lstm2_h_concat
I0925 21:49:34.912564  8495 net.cpp:91] Creating Layer lstm2_h_concat
I0925 21:49:34.912569  8495 net.cpp:425] lstm2_h_concat <- h_1
I0925 21:49:34.912578  8495 net.cpp:399] lstm2_h_concat -> h
I0925 21:49:34.912619  8495 net.cpp:141] Setting up lstm2_h_concat
I0925 21:49:34.912629  8495 net.cpp:148] Top shape: 1 1 1000 (1000)
I0925 21:49:34.912634  8495 net.cpp:156] Memory required for data: 98020
I0925 21:49:34.912639  8495 layer_factory.hpp:77] Creating layer h_pseudoloss
I0925 21:49:34.912652  8495 net.cpp:91] Creating Layer h_pseudoloss
I0925 21:49:34.912658  8495 net.cpp:425] h_pseudoloss <- h
I0925 21:49:34.912667  8495 net.cpp:399] h_pseudoloss -> h_pseudoloss
I0925 21:49:34.912778  8495 net.cpp:141] Setting up h_pseudoloss
…
I0925 21:49:34.912895  8495 net.cpp:219] lstm2_ does not need backward computation.
I0925 21:49:34.912900  8495 net.cpp:261] This network produces output c_T
I0925 21:49:34.912905  8495 net.cpp:261] This network produces output h_pseudoloss
I0925 21:49:34.912926  8495 net.cpp:274] Network initialization done.
I0925 21:49:34.912981  8495 recurrent_layer.cpp:150] Adding parameter 0: W_xc
I0925 21:49:34.912988  8495 recurrent_layer.cpp:150] Adding parameter 1: b_c
I0925 21:49:34.912993  8495 recurrent_layer.cpp:150] Adding parameter 2: W_hc
I0925 21:49:34.913122  8495 net.cpp:141] Setting up lstm2
I0925 21:49:34.913135  8495 net.cpp:148] Top shape: 1 1 1000 (1000)
I0925 21:49:34.913139  8495 net.cpp:156] Memory required for data: 36412
I0925 21:49:34.913156  8495 layer_factory.hpp:77] Creating layer predict
I0925 21:49:34.913169  8495 net.cpp:91] Creating Layer predict
I0925 21:49:34.913177  8495 net.cpp:425] predict <- lstm2
I0925 21:49:34.913185  8495 net.cpp:399] predict -> predict
I0925 21:49:35.003864  8501 net.cpp:141] Setting up predict
I0925 21:49:35.003916  8501 net.cpp:148] Top shape: 1 1 46168 (46168)
I0925 21:49:35.003924  8501 net.cpp:156] Memory required for data: 221084
I0925 21:49:35.003940  8501 layer_factory.hpp:77] Creating layer probs
I0925 21:49:35.003958  8501 net.cpp:91] Creating Layer probs
I0925 21:49:35.003967  8501 net.cpp:425] probs <- predict
I0925 21:49:35.003978  8501 net.cpp:399] probs -> probs
I0925 21:49:35.005892  8501 net.cpp:141] Setting up probs
I0925 21:49:35.005935  8501 net.cpp:148] Top shape: 1 1 46168 (46168)
I0925 21:49:35.005941  8501 net.cpp:156] Memory required for data: 405756
I0925 21:49:35.005950  8501 net.cpp:219] probs does not need backward computation.
I0925 21:49:35.005957  8501 net.cpp:219] predict does not need backward computation.
I0925 21:49:35.005964  8501 net.cpp:219] lstm2 does not need backward computation.
I0925 21:49:35.005970  8501 net.cpp:219] concat does not need backward computation.
I0925 21:49:35.005977  8501 net.cpp:219] lstm1 does not need backward computation.
I0925 21:49:35.005983  8501 net.cpp:219] embedding does not need backward computation.
I0925 21:49:35.005990  8501 net.cpp:219] reshape_stage_indicator does not need backward computation.
I0925 21:49:35.005995  8501 net.cpp:219] reshape_frames does not need backward computation.
I0925 21:49:35.006001  8501 net.cpp:219] embed_encoder does not need backward computation.
I0925 21:49:35.006006  8501 net.cpp:219] cont_sentence_input_1_split does not need backward computation.
I0925 21:49:35.006012  8501 net.cpp:219] input does not need backward computation.
I0925 21:49:35.006017  8501 net.cpp:261] This network produces output probs
I0925 21:49:35.006041  8501 net.cpp:274] Network initialization done.
I0925 21:49:35.008466  8481 net.cpp:141] Setting up conv5
I0925 21:49:35.008523  8481 net.cpp:148] Top shape: 10 256 13 13 (432640)
I0925 21:49:35.008535  8481 net.cpp:156] Memory required for data: 65519160
I0925 21:49:35.008574  8481 layer_factory.hpp:77] Creating layer relu5
I0925 21:49:35.008607  8481 net.cpp:91] Creating Layer relu5
I0925 21:49:35.008621  8481 net.cpp:425] relu5 <- conv5
I0925 21:49:35.008635  8481 net.cpp:386] relu5 -> conv5 (in-place)
I0925 21:49:35.009131  8481 net.cpp:141] Setting up relu5
I0925 21:49:35.009155  8481 net.cpp:148] Top shape: 10 256 13 13 (432640)
I0925 21:49:35.009166  8481 net.cpp:156] Memory required for data: 67249720
I0925 21:49:35.009176  8481 layer_factory.hpp:77] Creating layer pool5
I0925 21:49:35.009222  8481 net.cpp:91] Creating Layer pool5
I0925 21:49:35.009238  8481 net.cpp:425] pool5 <- conv5
I0925 21:49:35.009258  8481 net.cpp:399] pool5 -> pool5
I0925 21:49:35.009403  8481 net.cpp:141] Setting up pool5
I0925 21:49:35.009424  8481 net.cpp:148] Top shape: 10 256 6 6 (92160)
I0925 21:49:35.009434  8481 net.cpp:156] Memory required for data: 67618360
I0925 21:49:35.009444  8481 layer_factory.hpp:77] Creating layer fc6
I0925 21:49:35.009474  8481 net.cpp:91] Creating Layer fc6
I0925 21:49:35.009488  8481 net.cpp:425] fc6 <- pool5
I0925 21:49:35.009505  8481 net.cpp:399] fc6 -> fc6
I0925 21:49:35.104354  8473 net.cpp:141] Setting up predict
I0925 21:49:35.104408  8473 net.cpp:148] Top shape: 1 1 46168 (46168)
I0925 21:49:35.104418  8473 net.cpp:156] Memory required for data: 221084
I0925 21:49:35.104434  8473 layer_factory.hpp:77] Creating layer probs
I0925 21:49:35.104455  8473 net.cpp:91] Creating Layer probs
I0925 21:49:35.104463  8473 net.cpp:425] probs <- predict
I0925 21:49:35.104475  8473 net.cpp:399] probs -> probs
I0925 21:49:35.105345  8473 net.cpp:141] Setting up probs
I0925 21:49:35.105360  8473 net.cpp:148] Top shape: 1 1 46168 (46168)
I0925 21:49:35.105365  8473 net.cpp:156] Memory required for data: 405756
I0925 21:49:35.105370  8473 net.cpp:219] probs does not need backward computation.
I0925 21:49:35.105376  8473 net.cpp:219] predict does not need backward computation.
I0925 21:49:35.105381  8473 net.cpp:219] lstm2 does not need backward computation.
I0925 21:49:35.105386  8473 net.cpp:219] concat does not need backward computation.
I0925 21:49:35.105391  8473 net.cpp:219] lstm1 does not need backward computation.
I0925 21:49:35.105396  8473 net.cpp:219] embedding does not need backward computation.
I0925 21:49:35.105401  8473 net.cpp:219] reshape_stage_indicator does not need backward computation.
I0925 21:49:35.105406  8473 net.cpp:219] reshape_frames does not need backward computation.
I0925 21:49:35.105412  8473 net.cpp:219] embed_encoder does not need backward computation.
I0925 21:49:35.105415  8473 net.cpp:219] cont_sentence_input_1_split does not need backward computation.
I0925 21:49:35.105420  8473 net.cpp:219] input does not need backward computation.
I0925 21:49:35.105424  8473 net.cpp:261] This network produces output probs
I0925 21:49:35.105440  8473 net.cpp:274] Network initialization done.
I0925 21:49:35.141530  8481 net.cpp:141] Setting up fc6
I0925 21:49:35.141592  8481 net.cpp:148] Top shape: 10 4096 (40960)
I0925 21:49:35.141602  8481 net.cpp:156] Memory required for data: 67782200
I0925 21:49:35.141623  8481 layer_factory.hpp:77] Creating layer relu6
I0925 21:49:35.141646  8481 net.cpp:91] Creating Layer relu6
I0925 21:49:35.141657  8481 net.cpp:425] relu6 <- fc6
I0925 21:49:35.141677  8481 net.cpp:386] relu6 -> fc6 (in-place)
I0925 21:49:35.142293  8481 net.cpp:141] Setting up relu6
I0925 21:49:35.142318  8481 net.cpp:148] Top shape: 10 4096 (40960)
I0925 21:49:35.142330  8481 net.cpp:156] Memory required for data: 67946040
I0925 21:49:35.142343  8481 layer_factory.hpp:77] Creating layer drop6
I0925 21:49:35.142407  8481 net.cpp:91] Creating Layer drop6
I0925 21:49:35.142423  8481 net.cpp:425] drop6 <- fc6
I0925 21:49:35.142439  8481 net.cpp:386] drop6 -> fc6 (in-place)
I0925 21:49:35.142559  8481 net.cpp:141] Setting up drop6
I0925 21:49:35.142578  8481 net.cpp:148] Top shape: 10 4096 (40960)
I0925 21:49:35.142590  8481 net.cpp:156] Memory required for data: 68109880
I0925 21:49:35.142622  8481 layer_factory.hpp:77] Creating layer fc7
I0925 21:49:35.142644  8481 net.cpp:91] Creating Layer fc7
I0925 21:49:35.142657  8481 net.cpp:425] fc7 <- fc6
I0925 21:49:35.143185  8481 net.cpp:399] fc7 -> fc7
I0925 21:49:35.203416  8481 net.cpp:141] Setting up fc7
I0925 21:49:35.203471  8481 net.cpp:148] Top shape: 10 4096 (40960)
I0925 21:49:35.203481  8481 net.cpp:156] Memory required for data: 68273720
I0925 21:49:35.203502  8481 layer_factory.hpp:77] Creating layer relu7
I0925 21:49:35.203528  8481 net.cpp:91] Creating Layer relu7
I0925 21:49:35.203541  8481 net.cpp:425] relu7 <- fc7
I0925 21:49:35.203559  8481 net.cpp:386] relu7 -> fc7 (in-place)
I0925 21:49:35.204643  8481 net.cpp:141] Setting up relu7
I0925 21:49:35.204680  8481 net.cpp:148] Top shape: 10 4096 (40960)
I0925 21:49:35.204692  8481 net.cpp:156] Memory required for data: 68437560
I0925 21:49:35.204705  8481 layer_factory.hpp:77] Creating layer drop7
I0925 21:49:35.204727  8481 net.cpp:91] Creating Layer drop7
I0925 21:49:35.204741  8481 net.cpp:425] drop7 <- fc7
I0925 21:49:35.204766  8481 net.cpp:386] drop7 -> fc7 (in-place)
I0925 21:49:35.204865  8481 net.cpp:141] Setting up drop7
I0925 21:49:35.204886  8481 net.cpp:148] Top shape: 10 4096 (40960)
I0925 21:49:35.204896  8481 net.cpp:156] Memory required for data: 68601400
I0925 21:49:35.204906  8481 layer_factory.hpp:77] Creating layer fc8
I0925 21:49:35.205440  8481 net.cpp:91] Creating Layer fc8
I0925 21:49:35.205462  8481 net.cpp:425] fc8 <- fc7
I0925 21:49:35.205479  8481 net.cpp:399] fc8 -> fc8
I0925 21:49:35.219941  8481 net.cpp:141] Setting up fc8
I0925 21:49:35.219997  8481 net.cpp:148] Top shape: 10 1000 (10000)
I0925 21:49:35.220008  8481 net.cpp:156] Memory required for data: 68641400
I0925 21:49:35.220029  8481 layer_factory.hpp:77] Creating layer prob
I0925 21:49:35.220058  8481 net.cpp:91] Creating Layer prob
I0925 21:49:35.220072  8481 net.cpp:425] prob <- fc8
I0925 21:49:35.220088  8481 net.cpp:399] prob -> prob
I0925 21:49:35.224102  8481 net.cpp:141] Setting up prob
I0925 21:49:35.224145  8481 net.cpp:148] Top shape: 10 1000 (10000)
I0925 21:49:35.224155  8481 net.cpp:156] Memory required for data: 68681400
I0925 21:49:35.224170  8481 net.cpp:219] prob does not need backward computation.
I0925 21:49:35.224184  8481 net.cpp:219] fc8 does not need backward computation.
I0925 21:49:35.224195  8481 net.cpp:219] drop7 does not need backward computation.
I0925 21:49:35.224203  8481 net.cpp:219] relu7 does not need backward computation.
…
