…
2016-08-01 03:16:26.585 STDERR [INFO] I0801 03:16:26.566906  8887 net.cpp:91] Creating Layer input
2016-08-01 03:16:26.585 STDERR [INFO] I0801 03:16:26.566915  8887 net.cpp:399] input -> frames_fc7
2016-08-01 03:16:26.585 STDERR [INFO] I0801 03:16:26.566931  8887 net.cpp:399] input -> cont_sentence
2016-08-01 03:16:26.585 STDERR [INFO] I0801 03:16:26.566942  8887 net.cpp:399] input -> input_sentence
2016-08-01 03:16:26.585 STDERR [INFO] I0801 03:16:26.566958  8887 net.cpp:399] input -> stage_indicator
2016-08-01 03:16:26.585 STDERR [INFO] I0801 03:16:26.569005  8887 net.cpp:141] Setting up input
2016-08-01 03:16:26.585 STDERR [INFO] I0801 03:16:26.569025  8887 net.cpp:148] Top shape: 1 4096 (4096)
2016-08-01 03:16:26.585 STDERR [INFO] I0801 03:16:26.569032  8887 net.cpp:148] Top shape: 1 1 (1)
2016-08-01 03:16:26.585 STDERR [INFO] I0801 03:16:26.569037  8887 net.cpp:148] Top shape: 1 1 (1)
2016-08-01 03:16:26.585 STDERR [INFO] I0801 03:16:26.569043  8887 net.cpp:148] Top shape: 1 1 (1)
2016-08-01 03:16:26.586 STDERR [INFO] I0801 03:16:26.569046  8887 net.cpp:156] Memory required for data: 16396
2016-08-01 03:16:26.586 STDERR [INFO] I0801 03:16:26.569052  8887 layer_factory.hpp:77] Creating layer cont_sentence_input_1_split
2016-08-01 03:16:26.586 STDERR [INFO] I0801 03:16:26.569070  8887 net.cpp:91] Creating Layer cont_sentence_input_1_split
2016-08-01 03:16:26.586 STDERR [INFO] I0801 03:16:26.569077  8887 net.cpp:425] cont_sentence_input_1_split <- cont_sentence
2016-08-01 03:16:26.586 STDERR [INFO] I0801 03:16:26.569103  8887 net.cpp:399] cont_sentence_input_1_split -> cont_sentence_input_1_split_0
2016-08-01 03:16:26.586 STDERR [INFO] I0801 03:16:26.569114  8887 net.cpp:399] cont_sentence_input_1_split -> cont_sentence_input_1_split_1
2016-08-01 03:16:26.586 STDERR [INFO] I0801 03:16:26.572209  8887 net.cpp:141] Setting up cont_sentence_input_1_split
2016-08-01 03:16:26.586 STDERR [INFO] I0801 03:16:26.572227  8887 net.cpp:148] Top shape: 1 1 (1)
2016-08-01 03:16:26.586 STDERR [INFO] I0801 03:16:26.572234  8887 net.cpp:148] Top shape: 1 1 (1)
2016-08-01 03:16:26.586 STDERR [INFO] I0801 03:16:26.572238  8887 net.cpp:156] Memory required for data: 16404
2016-08-01 03:16:26.586 STDERR [INFO] I0801 03:16:26.572243  8887 layer_factory.hpp:77] Creating layer embed_encoder
2016-08-01 03:16:26.586 STDERR [INFO] I0801 03:16:26.572283  8887 net.cpp:91] Creating Layer embed_encoder
2016-08-01 03:16:26.587 STDERR [INFO] I0801 03:16:26.572289  8887 net.cpp:425] embed_encoder <- frames_fc7
2016-08-01 03:16:26.587 STDERR [INFO] I0801 03:16:26.572304  8887 net.cpp:399] embed_encoder -> embedded_in_frames
2016-08-01 03:16:26.596 STDERR [INFO] I0801 03:16:26.596632  8887 net.cpp:141] Setting up embed_encoder
2016-08-01 03:16:26.597 STDERR [INFO] I0801 03:16:26.596679  8887 net.cpp:148] Top shape: 1 500 (500)
2016-08-01 03:16:26.597 STDERR [INFO] I0801 03:16:26.596686  8887 net.cpp:156] Memory required for data: 18404
2016-08-01 03:16:26.597 STDERR [INFO] I0801 03:16:26.596709  8887 layer_factory.hpp:77] Creating layer reshape_frames
2016-08-01 03:16:26.597 STDERR [INFO] I0801 03:16:26.596742  8887 net.cpp:91] Creating Layer reshape_frames
2016-08-01 03:16:26.597 STDERR [INFO] I0801 03:16:26.596760  8887 net.cpp:425] reshape_frames <- embedded_in_frames
2016-08-01 03:16:26.597 STDERR [INFO] I0801 03:16:26.596771  8887 net.cpp:399] reshape_frames -> embedded_input_frames
2016-08-01 03:16:26.597 STDERR [INFO] I0801 03:16:26.597206  8887 net.cpp:141] Setting up reshape_frames
2016-08-01 03:16:26.597 STDERR [INFO] I0801 03:16:26.597218  8887 net.cpp:148] Top shape: 1 1 500 (500)
2016-08-01 03:16:26.597 STDERR [INFO] I0801 03:16:26.597223  8887 net.cpp:156] Memory required for data: 20404
2016-08-01 03:16:26.597 STDERR [INFO] I0801 03:16:26.597228  8887 layer_factory.hpp:77] Creating layer reshape_stage_indicator
2016-08-01 03:16:26.597 STDERR [INFO] I0801 03:16:26.597236  8887 net.cpp:91] Creating Layer reshape_stage_indicator
2016-08-01 03:16:26.597 STDERR [INFO] I0801 03:16:26.597241  8887 net.cpp:425] reshape_stage_indicator <- stage_indicator
2016-08-01 03:16:26.598 STDERR [INFO] I0801 03:16:26.597259  8887 net.cpp:399] reshape_stage_indicator -> reshaped_stage_indicator
2016-08-01 03:16:26.598 STDERR [INFO] I0801 03:16:26.597313  8887 net.cpp:141] Setting up reshape_stage_indicator
2016-08-01 03:16:26.598 STDERR [INFO] I0801 03:16:26.597322  8887 net.cpp:148] Top shape: 1 1 1 (1)
2016-08-01 03:16:26.598 STDERR [INFO] I0801 03:16:26.597326  8887 net.cpp:156] Memory required for data: 20408
2016-08-01 03:16:26.598 STDERR [INFO] I0801 03:16:26.597331  8887 layer_factory.hpp:77] Creating layer embedding
2016-08-01 03:16:26.599 STDERR [INFO] I0801 03:16:26.597352  8887 net.cpp:91] Creating Layer embedding
2016-08-01 03:16:26.599 STDERR [INFO] I0801 03:16:26.597355  8887 net.cpp:425] embedding <- input_sentence
…
2016-08-01 03:16:26.614 n.t.s.b.CVParticleBolt [INFO] [Timing] RequestID: 0 StreamID: home/peifeng/work/data/frame.320x240.jpg SequenceNr: 122 Leaving scale: 1470035786614 Size: 3530
2016-08-01 03:16:26.614 n.t.s.b.CVParticleBolt [INFO] [Timing] RequestID: 0 StreamID: home/peifeng/work/data/frame.320x240.jpg SequenceNr: 123 Entering scale: 1470035786614
2016-08-01 03:16:26.619 n.t.s.b.CVParticleBolt [INFO] [Timing] RequestID: 0 StreamID: home/peifeng/work/data/frame.320x240.jpg SequenceNr: 123 Leaving scale: 1470035786619 Size: 3530
2016-08-01 03:16:26.639 STDERR [INFO] I0801 03:16:26.639632  8897 net.cpp:141] Setting up conv1
2016-08-01 03:16:26.640 STDERR [INFO] I0801 03:16:26.639694  8897 net.cpp:148] Top shape: 10 96 55 55 (2904000)
2016-08-01 03:16:26.640 STDERR [INFO] I0801 03:16:26.639701  8897 net.cpp:156] Memory required for data: 17799480
2016-08-01 03:16:26.640 STDERR [INFO] I0801 03:16:26.639724  8897 layer_factory.hpp:77] Creating layer relu1
2016-08-01 03:16:26.640 STDERR [INFO] I0801 03:16:26.639744  8897 net.cpp:91] Creating Layer relu1
2016-08-01 03:16:26.640 STDERR [INFO] I0801 03:16:26.639750  8897 net.cpp:425] relu1 <- conv1
2016-08-01 03:16:26.640 STDERR [INFO] I0801 03:16:26.639758  8897 net.cpp:386] relu1 -> conv1 (in-place)
2016-08-01 03:16:26.640 STDERR [INFO] I0801 03:16:26.640261  8897 net.cpp:141] Setting up relu1
2016-08-01 03:16:26.641 STDERR [INFO] I0801 03:16:26.640275  8897 net.cpp:148] Top shape: 10 96 55 55 (2904000)
2016-08-01 03:16:26.641 STDERR [INFO] I0801 03:16:26.640280  8897 net.cpp:156] Memory required for data: 29415480
2016-08-01 03:16:26.641 STDERR [INFO] I0801 03:16:26.640286  8897 layer_factory.hpp:77] Creating layer pool1
2016-08-01 03:16:26.641 STDERR [INFO] I0801 03:16:26.640298  8897 net.cpp:91] Creating Layer pool1
2016-08-01 03:16:26.641 STDERR [INFO] I0801 03:16:26.640303  8897 net.cpp:425] pool1 <- conv1
2016-08-01 03:16:26.641 STDERR [INFO] I0801 03:16:26.640311  8897 net.cpp:399] pool1 -> pool1
2016-08-01 03:16:26.641 STDERR [INFO] I0801 03:16:26.640377  8897 net.cpp:141] Setting up pool1
2016-08-01 03:16:26.641 STDERR [INFO] I0801 03:16:26.640388  8897 net.cpp:148] Top shape: 10 96 27 27 (699840)
2016-08-01 03:16:26.641 STDERR [INFO] I0801 03:16:26.640391  8897 net.cpp:156] Memory required for data: 32214840
2016-08-01 03:16:26.642 STDERR [INFO] I0801 03:16:26.640396  8897 layer_factory.hpp:77] Creating layer norm1
2016-08-01 03:16:26.642 STDERR [INFO] I0801 03:16:26.640413  8897 net.cpp:91] Creating Layer norm1
2016-08-01 03:16:26.642 STDERR [INFO] I0801 03:16:26.640418  8897 net.cpp:425] norm1 <- pool1
2016-08-01 03:16:26.642 STDERR [INFO] I0801 03:16:26.640437  8897 net.cpp:399] norm1 -> norm1
2016-08-01 03:16:26.642 STDERR [INFO] I0801 03:16:26.641067  8897 net.cpp:141] Setting up norm1
2016-08-01 03:16:26.642 STDERR [INFO] I0801 03:16:26.641085  8897 net.cpp:148] Top shape: 10 96 27 27 (699840)
2016-08-01 03:16:26.642 STDERR [INFO] I0801 03:16:26.641093  8897 net.cpp:156] Memory required for data: 35014200
2016-08-01 03:16:26.642 STDERR [INFO] I0801 03:16:26.641100  8897 layer_factory.hpp:77] Creating layer conv2
2016-08-01 03:16:26.643 STDERR [INFO] I0801 03:16:26.641121  8897 net.cpp:91] Creating Layer conv2
2016-08-01 03:16:26.643 STDERR [INFO] I0801 03:16:26.641129  8897 net.cpp:425] conv2 <- norm1
2016-08-01 03:16:26.643 STDERR [INFO] I0801 03:16:26.641139  8897 net.cpp:399] conv2 -> conv2
2016-08-01 03:16:26.646 STDERR [INFO] I0801 03:16:26.646013  8897 net.cpp:141] Setting up conv2
2016-08-01 03:16:26.646 STDERR [INFO] I0801 03:16:26.646050  8897 net.cpp:148] Top shape: 10 256 27 27 (1866240)
2016-08-01 03:16:26.646 STDERR [INFO] I0801 03:16:26.646061  8897 net.cpp:156] Memory required for data: 42479160
2016-08-01 03:16:26.646 STDERR [INFO] I0801 03:16:26.646101  8897 layer_factory.hpp:77] Creating layer relu2
2016-08-01 03:16:26.646 STDERR [INFO] I0801 03:16:26.646114  8897 net.cpp:91] Creating Layer relu2
2016-08-01 03:16:26.646 STDERR [INFO] I0801 03:16:26.646121  8897 net.cpp:425] relu2 <- conv2
2016-08-01 03:16:26.646 STDERR [INFO] I0801 03:16:26.646131  8897 net.cpp:386] relu2 -> conv2 (in-place)
2016-08-01 03:16:26.647 STDERR [INFO] I0801 03:16:26.646733  8897 net.cpp:141] Setting up relu2
2016-08-01 03:16:26.647 STDERR [INFO] I0801 03:16:26.646750  8897 net.cpp:148] Top shape: 10 256 27 27 (1866240)
2016-08-01 03:16:26.647 STDERR [INFO] I0801 03:16:26.646756  8897 net.cpp:156] Memory required for data: 49944120
2016-08-01 03:16:26.647 STDERR [INFO] I0801 03:16:26.646764  8897 layer_factory.hpp:77] Creating layer pool2
2016-08-01 03:16:26.647 STDERR [INFO] I0801 03:16:26.646775  8897 net.cpp:91] Creating Layer pool2
2016-08-01 03:16:26.647 STDERR [INFO] I0801 03:16:26.646781  8897 net.cpp:425] pool2 <- conv2
2016-08-01 03:16:26.647 STDERR [INFO] I0801 03:16:26.646796  8897 net.cpp:399] pool2 -> pool2
2016-08-01 03:16:26.647 STDERR [INFO] I0801 03:16:26.646868  8897 net.cpp:141] Setting up pool2
2016-08-01 03:16:26.648 STDERR [INFO] I0801 03:16:26.646881  8897 net.cpp:148] Top shape: 10 256 13 13 (432640)
2016-08-01 03:16:26.648 STDERR [INFO] I0801 03:16:26.646888  8897 net.cpp:156] Memory required for data: 51674680
2016-08-01 03:16:26.648 STDERR [INFO] I0801 03:16:26.646893  8897 layer_factory.hpp:77] Creating layer norm2
2016-08-01 03:16:26.648 STDERR [INFO] I0801 03:16:26.646913  8897 net.cpp:91] Creating Layer norm2
2016-08-01 03:16:26.648 STDERR [INFO] I0801 03:16:26.646919  8897 net.cpp:425] norm2 <- pool2
2016-08-01 03:16:26.648 STDERR [INFO] I0801 03:16:26.646931  8897 net.cpp:399] norm2 -> norm2
2016-08-01 03:16:26.648 STDERR [INFO] I0801 03:16:26.647277  8897 net.cpp:141] Setting up norm2
2016-08-01 03:16:26.648 STDERR [INFO] I0801 03:16:26.647294  8897 net.cpp:148] Top shape: 10 256 13 13 (432640)
2016-08-01 03:16:26.648 STDERR [INFO] I0801 03:16:26.647300  8897 net.cpp:156] Memory required for data: 53405240
2016-08-01 03:16:26.649 STDERR [INFO] I0801 03:16:26.647306  8897 layer_factory.hpp:77] Creating layer conv3
2016-08-01 03:16:26.649 STDERR [INFO] I0801 03:16:26.647325  8897 net.cpp:91] Creating Layer conv3
2016-08-01 03:16:26.649 STDERR [INFO] I0801 03:16:26.647331  8897 net.cpp:425] conv3 <- norm2
2016-08-01 03:16:26.649 STDERR [INFO] I0801 03:16:26.647344  8897 net.cpp:399] conv3 -> conv3
2016-08-01 03:16:26.652 STDERR [INFO] I0801 03:16:26.652667  8897 net.cpp:141] Setting up conv3
2016-08-01 03:16:26.653 STDERR [INFO] I0801 03:16:26.652690  8897 net.cpp:148] Top shape: 10 384 13 13 (648960)
2016-08-01 03:16:26.653 STDERR [INFO] I0801 03:16:26.652698  8897 net.cpp:156] Memory required for data: 56001080
2016-08-01 03:16:26.653 STDERR [INFO] I0801 03:16:26.652717  8897 layer_factory.hpp:77] Creating layer relu3
2016-08-01 03:16:26.653 STDERR [INFO] I0801 03:16:26.652729  8897 net.cpp:91] Creating Layer relu3
2016-08-01 03:16:26.653 STDERR [INFO] I0801 03:16:26.652734  8897 net.cpp:425] relu3 <- conv3
2016-08-01 03:16:26.653 STDERR [INFO] I0801 03:16:26.652742  8897 net.cpp:386] relu3 -> conv3 (in-place)
2016-08-01 03:16:26.653 STDERR [INFO] I0801 03:16:26.653278  8897 net.cpp:141] Setting up relu3
2016-08-01 03:16:26.653 STDERR [INFO] I0801 03:16:26.653296  8897 net.cpp:148] Top shape: 10 384 13 13 (648960)
2016-08-01 03:16:26.654 STDERR [INFO] I0801 03:16:26.653302  8897 net.cpp:156] Memory required for data: 58596920
2016-08-01 03:16:26.654 STDERR [INFO] I0801 03:16:26.653308  8897 layer_factory.hpp:77] Creating layer conv4
2016-08-01 03:16:26.654 STDERR [INFO] I0801 03:16:26.653321  8897 net.cpp:91] Creating Layer conv4
2016-08-01 03:16:26.654 STDERR [INFO] I0801 03:16:26.653327  8897 net.cpp:425] conv4 <- conv3
2016-08-01 03:16:26.654 STDERR [INFO] I0801 03:16:26.653340  8897 net.cpp:399] conv4 -> conv4
2016-08-01 03:16:26.658 STDERR [INFO] I0801 03:16:26.658679  8897 net.cpp:141] Setting up conv4
2016-08-01 03:16:26.659 STDERR [INFO] I0801 03:16:26.658704  8897 net.cpp:148] Top shape: 10 384 13 13 (648960)
2016-08-01 03:16:26.659 STDERR [INFO] I0801 03:16:26.658711  8897 net.cpp:156] Memory required for data: 61192760
2016-08-01 03:16:26.659 STDERR [INFO] I0801 03:16:26.658722  8897 layer_factory.hpp:77] Creating layer relu4
2016-08-01 03:16:26.659 STDERR [INFO] I0801 03:16:26.658738  8897 net.cpp:91] Creating Layer relu4
2016-08-01 03:16:26.659 STDERR [INFO] I0801 03:16:26.658746  8897 net.cpp:425] relu4 <- conv4
2016-08-01 03:16:26.659 STDERR [INFO] I0801 03:16:26.658753  8897 net.cpp:386] relu4 -> conv4 (in-place)
2016-08-01 03:16:26.659 STDERR [INFO] I0801 03:16:26.659265  8897 net.cpp:141] Setting up relu4
2016-08-01 03:16:26.659 STDERR [INFO] I0801 03:16:26.659281  8897 net.cpp:148] Top shape: 10 384 13 13 (648960)
2016-08-01 03:16:26.659 STDERR [INFO] I0801 03:16:26.659560  8897 net.cpp:156] Memory required for data: 63788600
2016-08-01 03:16:26.659 STDERR [INFO] I0801 03:16:26.659567  8897 layer_factory.hpp:77] Creating layer conv5
2016-08-01 03:16:26.660 STDERR [INFO] I0801 03:16:26.659580  8897 net.cpp:91] Creating Layer conv5
2016-08-01 03:16:26.660 STDERR [INFO] I0801 03:16:26.659586  8897 net.cpp:425] conv5 <- conv4
2016-08-01 03:16:26.660 STDERR [INFO] I0801 03:16:26.659593  8897 net.cpp:399] conv5 -> conv5
2016-08-01 03:16:26.664 STDERR [INFO] I0801 03:16:26.664244  8897 net.cpp:141] Setting up conv5
2016-08-01 03:16:26.664 STDERR [INFO] I0801 03:16:26.664265  8897 net.cpp:148] Top shape: 10 256 13 13 (432640)
2016-08-01 03:16:26.664 STDERR [INFO] I0801 03:16:26.664273  8897 net.cpp:156] Memory required for data: 65519160
2016-08-01 03:16:26.664 STDERR [INFO] I0801 03:16:26.664291  8897 layer_factory.hpp:77] Creating layer relu5
2016-08-01 03:16:26.664 STDERR [INFO] I0801 03:16:26.664315  8897 net.cpp:91] Creating Layer relu5
2016-08-01 03:16:26.664 STDERR [INFO] I0801 03:16:26.664321  8897 net.cpp:425] relu5 <- conv5
2016-08-01 03:16:26.664 STDERR [INFO] I0801 03:16:26.664331  8897 net.cpp:386] relu5 -> conv5 (in-place)
2016-08-01 03:16:26.665 STDERR [INFO] I0801 03:16:26.664840  8897 net.cpp:141] Setting up relu5
2016-08-01 03:16:26.665 STDERR [INFO] I0801 03:16:26.664855  8897 net.cpp:148] Top shape: 10 256 13 13 (432640)
2016-08-01 03:16:26.665 STDERR [INFO] I0801 03:16:26.664860  8897 net.cpp:156] Memory required for data: 67249720
2016-08-01 03:16:26.665 STDERR [INFO] I0801 03:16:26.664865  8897 layer_factory.hpp:77] Creating layer pool5
2016-08-01 03:16:26.665 STDERR [INFO] I0801 03:16:26.664876  8897 net.cpp:91] Creating Layer pool5
2016-08-01 03:16:26.665 STDERR [INFO] I0801 03:16:26.664881  8897 net.cpp:425] pool5 <- conv5
2016-08-01 03:16:26.665 STDERR [INFO] I0801 03:16:26.664891  8897 net.cpp:399] pool5 -> pool5
2016-08-01 03:16:26.665 STDERR [INFO] I0801 03:16:26.664957  8897 net.cpp:141] Setting up pool5
2016-08-01 03:16:26.665 STDERR [INFO] I0801 03:16:26.664969  8897 net.cpp:148] Top shape: 10 256 6 6 (92160)
2016-08-01 03:16:26.665 STDERR [INFO] I0801 03:16:26.664974  8897 net.cpp:156] Memory required for data: 67618360
2016-08-01 03:16:26.666 STDERR [INFO] I0801 03:16:26.664979  8897 layer_factory.hpp:77] Creating layer fc6
2016-08-01 03:16:26.666 STDERR [INFO] I0801 03:16:26.664993  8897 net.cpp:91] Creating Layer fc6
2016-08-01 03:16:26.666 STDERR [INFO] I0801 03:16:26.664997  8897 net.cpp:425] fc6 <- pool5
2016-08-01 03:16:26.666 STDERR [INFO] I0801 03:16:26.665005  8897 net.cpp:399] fc6 -> fc6
2016-08-01 03:16:26.766 STDERR [INFO] I0801 03:16:26.766240  8897 net.cpp:141] Setting up fc6
2016-08-01 03:16:26.766 STDERR [INFO] I0801 03:16:26.766302  8897 net.cpp:148] Top shape: 10 4096 (40960)
2016-08-01 03:16:26.766 STDERR [INFO] I0801 03:16:26.766309  8897 net.cpp:156] Memory required for data: 67782200
2016-08-01 03:16:26.766 STDERR [INFO] I0801 03:16:26.766336  8897 layer_factory.hpp:77] Creating layer relu6
2016-08-01 03:16:26.767 STDERR [INFO] I0801 03:16:26.766358  8897 net.cpp:91] Creating Layer relu6
2016-08-01 03:16:26.767 STDERR [INFO] I0801 03:16:26.766366  8897 net.cpp:425] relu6 <- fc6
2016-08-01 03:16:26.767 STDERR [INFO] I0801 03:16:26.766376  8897 net.cpp:386] relu6 -> fc6 (in-place)
2016-08-01 03:16:26.767 STDERR [INFO] I0801 03:16:26.766685  8897 net.cpp:141] Setting up relu6
2016-08-01 03:16:26.767 STDERR [INFO] I0801 03:16:26.766696  8897 net.cpp:148] Top shape: 10 4096 (40960)
2016-08-01 03:16:26.767 STDERR [INFO] I0801 03:16:26.766700  8897 net.cpp:156] Memory required for data: 67946040
2016-08-01 03:16:26.767 STDERR [INFO] I0801 03:16:26.766705  8897 layer_factory.hpp:77] Creating layer drop6
2016-08-01 03:16:26.767 STDERR [INFO] I0801 03:16:26.766718  8897 net.cpp:91] Creating Layer drop6
2016-08-01 03:16:26.767 STDERR [INFO] I0801 03:16:26.766723  8897 net.cpp:425] drop6 <- fc6
2016-08-01 03:16:26.767 STDERR [INFO] I0801 03:16:26.766731  8897 net.cpp:386] drop6 -> fc6 (in-place)
2016-08-01 03:16:26.767 STDERR [INFO] I0801 03:16:26.766778  8897 net.cpp:141] Setting up drop6
2016-08-01 03:16:26.767 STDERR [INFO] I0801 03:16:26.766788  8897 net.cpp:148] Top shape: 10 4096 (40960)
2016-08-01 03:16:26.768 STDERR [INFO] I0801 03:16:26.766791  8897 net.cpp:156] Memory required for data: 68109880
2016-08-01 03:16:26.768 STDERR [INFO] I0801 03:16:26.766796  8897 layer_factory.hpp:77] Creating layer fc7
2016-08-01 03:16:26.768 STDERR [INFO] I0801 03:16:26.766824  8897 net.cpp:91] Creating Layer fc7
2016-08-01 03:16:26.768 STDERR [INFO] I0801 03:16:26.766830  8897 net.cpp:425] fc7 <- fc6
…
2016-08-01 03:16:26.830 STDERR [INFO] }
2016-08-01 03:16:26.830 STDERR [INFO] I0801 03:16:26.817992  8887 layer_factory.hpp:77] Creating layer lstm1_
2016-08-01 03:16:26.830 STDERR [INFO] I0801 03:16:26.818006  8887 net.cpp:91] Creating Layer lstm1_
2016-08-01 03:16:26.830 STDERR [INFO] I0801 03:16:26.818012  8887 net.cpp:399] lstm1_ -> x
2016-08-01 03:16:26.830 STDERR [INFO] I0801 03:16:26.818023  8887 net.cpp:399] lstm1_ -> cont
2016-08-01 03:16:26.830 STDERR [INFO] I0801 03:16:26.818797  8887 net.cpp:141] Setting up lstm1_
2016-08-01 03:16:26.830 STDERR [INFO] I0801 03:16:26.818809  8887 net.cpp:148] Top shape: 1 1 500 (500)
2016-08-01 03:16:26.830 STDERR [INFO] I0801 03:16:26.818816  8887 net.cpp:148] Top shape: 1 1 (1)
2016-08-01 03:16:26.830 STDERR [INFO] I0801 03:16:26.818820  8887 net.cpp:156] Memory required for data: 2004
2016-08-01 03:16:26.830 STDERR [INFO] I0801 03:16:26.818825  8887 layer_factory.hpp:77] Creating layer lstm1_
2016-08-01 03:16:26.831 STDERR [INFO] I0801 03:16:26.818837  8887 net.cpp:91] Creating Layer lstm1_
2016-08-01 03:16:26.831 STDERR [INFO] I0801 03:16:26.818843  8887 net.cpp:399] lstm1_ -> c_0
2016-08-01 03:16:26.831 STDERR [INFO] I0801 03:16:26.818856  8887 net.cpp:399] lstm1_ -> h_0
2016-08-01 03:16:26.831 STDERR [INFO] I0801 03:16:26.818903  8887 net.cpp:141] Setting up lstm1_
2016-08-01 03:16:26.831 STDERR [INFO] I0801 03:16:26.818912  8887 net.cpp:148] Top shape: 1 1 1000 (1000)
2016-08-01 03:16:26.831 STDERR [INFO] I0801 03:16:26.818918  8887 net.cpp:148] Top shape: 1 1 1000 (1000)
2016-08-01 03:16:26.831 STDERR [INFO] I0801 03:16:26.818922  8887 net.cpp:156] Memory required for data: 10004
2016-08-01 03:16:26.831 STDERR [INFO] I0801 03:16:26.818927  8887 layer_factory.hpp:77] Creating layer lstm1_cont_slice
2016-08-01 03:16:26.831 STDERR [INFO] I0801 03:16:26.818935  8887 net.cpp:91] Creating Layer lstm1_cont_slice
2016-08-01 03:16:26.831 STDERR [INFO] I0801 03:16:26.818943  8887 net.cpp:425] lstm1_cont_slice <- cont
2016-08-01 03:16:26.831 STDERR [INFO] I0801 03:16:26.818950  8887 net.cpp:399] lstm1_cont_slice -> cont_1
2016-08-01 03:16:26.831 STDERR [INFO] I0801 03:16:26.818986  8887 net.cpp:141] Setting up lstm1_cont_slice
2016-08-01 03:16:26.832 STDERR [INFO] I0801 03:16:26.818995  8887 net.cpp:148] Top shape: 1 1 (1)
2016-08-01 03:16:26.832 STDERR [INFO] I0801 03:16:26.819000  8887 net.cpp:156] Memory required for data: 10008
2016-08-01 03:16:26.832 STDERR [INFO] I0801 03:16:26.819005  8887 layer_factory.hpp:77] Creating layer cont_1_lstm1_cont_slice_0_split
2016-08-01 03:16:26.832 STDERR [INFO] I0801 03:16:26.819011  8887 net.cpp:91] Creating Layer cont_1_lstm1_cont_slice_0_split
2016-08-01 03:16:26.832 STDERR [INFO] I0801 03:16:26.819016  8887 net.cpp:425] cont_1_lstm1_cont_slice_0_split <- cont_1
2016-08-01 03:16:26.832 STDERR [INFO] I0801 03:16:26.819025  8887 net.cpp:399] cont_1_lstm1_cont_slice_0_split -> cont_1_lstm1_cont_slice_0_split_0
2016-08-01 03:16:26.832 STDERR [INFO] I0801 03:16:26.819033  8887 net.cpp:399] cont_1_lstm1_cont_slice_0_split -> cont_1_lstm1_cont_slice_0_split_1
2016-08-01 03:16:26.832 STDERR [INFO] I0801 03:16:26.819077  8887 net.cpp:141] Setting up cont_1_lstm1_cont_slice_0_split
2016-08-01 03:16:26.832 STDERR [INFO] I0801 03:16:26.819085  8887 net.cpp:148] Top shape: 1 1 (1)
2016-08-01 03:16:26.832 STDERR [INFO] I0801 03:16:26.819092  8887 net.cpp:148] Top shape: 1 1 (1)
2016-08-01 03:16:26.832 STDERR [INFO] I0801 03:16:26.819095  8887 net.cpp:156] Memory required for data: 10016
2016-08-01 03:16:26.832 STDERR [INFO] I0801 03:16:26.819099  8887 layer_factory.hpp:77] Creating layer lstm1_x_transform
2016-08-01 03:16:26.832 STDERR [INFO] I0801 03:16:26.819111  8887 net.cpp:91] Creating Layer lstm1_x_transform
2016-08-01 03:16:26.833 STDERR [INFO] I0801 03:16:26.819115  8887 net.cpp:425] lstm1_x_transform <- x
2016-08-01 03:16:26.833 STDERR [INFO] I0801 03:16:26.819126  8887 net.cpp:399] lstm1_x_transform -> W_xc_x
2016-08-01 03:16:26.833 STDERR [INFO] I0801 03:16:26.823331  8897 net.cpp:141] Setting up fc8
2016-08-01 03:16:26.833 STDERR [INFO] I0801 03:16:26.823370  8897 net.cpp:148] Top shape: 10 1000 (10000)
2016-08-01 03:16:26.833 STDERR [INFO] I0801 03:16:26.823375  8897 net.cpp:156] Memory required for data: 68641400
2016-08-01 03:16:26.833 STDERR [INFO] I0801 03:16:26.823390  8897 layer_factory.hpp:77] Creating layer prob
2016-08-01 03:16:26.833 STDERR [INFO] I0801 03:16:26.823405  8897 net.cpp:91] Creating Layer prob
2016-08-01 03:16:26.833 STDERR [INFO] I0801 03:16:26.823411  8897 net.cpp:425] prob <- fc8
2016-08-01 03:16:26.833 STDERR [INFO] I0801 03:16:26.823427  8897 net.cpp:399] prob -> prob
2016-08-01 03:16:26.833 STDERR [INFO] I0801 03:16:26.823827  8897 net.cpp:141] Setting up prob
2016-08-01 03:16:26.833 STDERR [INFO] I0801 03:16:26.823838  8897 net.cpp:148] Top shape: 10 1000 (10000)
2016-08-01 03:16:26.833 STDERR [INFO] I0801 03:16:26.823843  8897 net.cpp:156] Memory required for data: 68681400
2016-08-01 03:16:26.833 STDERR [INFO] I0801 03:16:26.823848  8897 net.cpp:219] prob does not need backward computation.
2016-08-01 03:16:26.834 STDERR [INFO] I0801 03:16:26.823855  8897 net.cpp:219] fc8 does not need backward computation.
2016-08-01 03:16:26.834 STDERR [INFO] I0801 03:16:26.823860  8897 net.cpp:219] drop7 does not need backward computation.
…
2016-08-01 03:16:26.835 STDERR [INFO] I0801 03:16:26.823951  8897 net.cpp:219] conv1 does not need backward computation.
2016-08-01 03:16:26.835 STDERR [INFO] I0801 03:16:26.823956  8897 net.cpp:219] data does not need backward computation.
2016-08-01 03:16:26.835 STDERR [INFO] I0801 03:16:26.823959  8897 net.cpp:261] This network produces output prob
2016-08-01 03:16:26.835 STDERR [INFO] I0801 03:16:26.823979  8897 net.cpp:274] Network initialization done.
2016-08-01 03:16:26.838 STDERR [INFO] I0801 03:16:26.838480  8887 net.cpp:141] Setting up lstm1_x_transform
2016-08-01 03:16:26.839 STDERR [INFO] I0801 03:16:26.838520  8887 net.cpp:148] Top shape: 1 1 4000 (4000)
2016-08-01 03:16:26.839 STDERR [INFO] I0801 03:16:26.838526  8887 net.cpp:156] Memory required for data: 26016
2016-08-01 03:16:26.839 STDERR [INFO] I0801 03:16:26.838543  8887 layer_factory.hpp:77] Creating layer lstm1_W_xc_x_slice
2016-08-01 03:16:26.839 STDERR [INFO] I0801 03:16:26.838558  8887 net.cpp:91] Creating Layer lstm1_W_xc_x_slice
2016-08-01 03:16:26.839 STDERR [INFO] I0801 03:16:26.838564  8887 net.cpp:425] lstm1_W_xc_x_slice <- W_xc_x
2016-08-01 03:16:26.839 STDERR [INFO] I0801 03:16:26.838573  8887 net.cpp:399] lstm1_W_xc_x_slice -> W_xc_x_1
2016-08-01 03:16:26.839 STDERR [INFO] I0801 03:16:26.838614  8887 net.cpp:141] Setting up lstm1_W_xc_x_slice
2016-08-01 03:16:26.839 STDERR [INFO] I0801 03:16:26.838624  8887 net.cpp:148] Top shape: 1 1 4000 (4000)
2016-08-01 03:16:26.839 STDERR [INFO] I0801 03:16:26.838627  8887 net.cpp:156] Memory required for data: 42016
2016-08-01 03:16:26.839 STDERR [INFO] I0801 03:16:26.838632  8887 layer_factory.hpp:77] Creating layer lstm1_h_conted_0
2016-08-01 03:16:26.839 STDERR [INFO] I0801 03:16:26.838644  8887 net.cpp:91] Creating Layer lstm1_h_conted_0
2016-08-01 03:16:26.839 STDERR [INFO] I0801 03:16:26.838649  8887 net.cpp:425] lstm1_h_conted_0 <- h_0
2016-08-01 03:16:26.840 STDERR [INFO] I0801 03:16:26.838655  8887 net.cpp:425] lstm1_h_conted_0 <- cont_1_lstm1_cont_slice_0_split_0
2016-08-01 03:16:26.840 STDERR [INFO] I0801 03:16:26.838662  8887 net.cpp:399] lstm1_h_conted_0 -> h_conted_0
2016-08-01 03:16:26.840 STDERR [INFO] I0801 03:16:26.838759  8887 net.cpp:141] Setting up lstm1_h_conted_0
2016-08-01 03:16:26.840 STDERR [INFO] I0801 03:16:26.838768  8887 net.cpp:148] Top shape: 1 1 1000 (1000)
2016-08-01 03:16:26.840 STDERR [INFO] I0801 03:16:26.838773  8887 net.cpp:156] Memory required for data: 46016
2016-08-01 03:16:26.840 STDERR [INFO] I0801 03:16:26.838778  8887 layer_factory.hpp:77] Creating layer lstm1_transform_1
2016-08-01 03:16:26.840 STDERR [INFO] I0801 03:16:26.838789  8887 net.cpp:91] Creating Layer lstm1_transform_1
2016-08-01 03:16:26.840 STDERR [INFO] I0801 03:16:26.838795  8887 net.cpp:425] lstm1_transform_1 <- h_conted_0
2016-08-01 03:16:26.840 STDERR [INFO] I0801 03:16:26.838802  8887 net.cpp:399] lstm1_transform_1 -> W_hc_h_0
2016-08-01 03:16:26.876 STDERR [INFO] I0801 03:16:26.876345  8887 net.cpp:141] Setting up lstm1_transform_1
2016-08-01 03:16:26.877 STDERR [INFO] I0801 03:16:26.876395  8887 net.cpp:148] Top shape: 1 1 4000 (4000)
2016-08-01 03:16:26.877 STDERR [INFO] I0801 03:16:26.876401  8887 net.cpp:156] Memory required for data: 62016
2016-08-01 03:16:26.877 STDERR [INFO] I0801 03:16:26.876421  8887 layer_factory.hpp:77] Creating layer lstm1_gate_input_1
2016-08-01 03:16:26.877 STDERR [INFO] I0801 03:16:26.876443  8887 net.cpp:91] Creating Layer lstm1_gate_input_1
2016-08-01 03:16:26.877 STDERR [INFO] I0801 03:16:26.876449  8887 net.cpp:425] lstm1_gate_input_1 <- W_hc_h_0
2016-08-01 03:16:26.877 STDERR [INFO] I0801 03:16:26.876457  8887 net.cpp:425] lstm1_gate_input_1 <- W_xc_x_1
2016-08-01 03:16:26.877 STDERR [INFO] I0801 03:16:26.876466  8887 net.cpp:399] lstm1_gate_input_1 -> gate_input_1
2016-08-01 03:16:26.878 STDERR [INFO] I0801 03:16:26.876523  8887 net.cpp:141] Setting up lstm1_gate_input_1
2016-08-01 03:16:26.878 STDERR [INFO] I0801 03:16:26.876531  8887 net.cpp:148] Top shape: 1 1 4000 (4000)
2016-08-01 03:16:26.878 STDERR [INFO] I0801 03:16:26.876535  8887 net.cpp:156] Memory required for data: 78016
2016-08-01 03:16:26.878 STDERR [INFO] I0801 03:16:26.876540  8887 layer_factory.hpp:77] Creating layer lstm1_unit_1
2016-08-01 03:16:26.878 STDERR [INFO] I0801 03:16:26.876549  8887 net.cpp:91] Creating Layer lstm1_unit_1
2016-08-01 03:16:26.878 STDERR [INFO] I0801 03:16:26.876554  8887 net.cpp:425] lstm1_unit_1 <- c_0
2016-08-01 03:16:26.878 STDERR [INFO] I0801 03:16:26.876559  8887 net.cpp:425] lstm1_unit_1 <- gate_input_1
2016-08-01 03:16:26.878 STDERR [INFO] I0801 03:16:26.876564  8887 net.cpp:425] lstm1_unit_1 <- cont_1_lstm1_cont_slice_0_split_1
2016-08-01 03:16:26.878 STDERR [INFO] I0801 03:16:26.876571  8887 net.cpp:399] lstm1_unit_1 -> c_1
2016-08-01 03:16:26.878 STDERR [INFO] I0801 03:16:26.876579  8887 net.cpp:399] lstm1_unit_1 -> h_1
2016-08-01 03:16:26.878 STDERR [INFO] I0801 03:16:26.876639  8887 net.cpp:141] Setting up lstm1_unit_1
2016-08-01 03:16:26.878 STDERR [INFO] I0801 03:16:26.876648  8887 net.cpp:148] Top shape: 1 1 1000 (1000)
2016-08-01 03:16:26.879 STDERR [INFO] I0801 03:16:26.876654  8887 net.cpp:148] Top shape: 1 1 1000 (1000)
2016-08-01 03:16:26.879 STDERR [INFO] I0801 03:16:26.876658  8887 net.cpp:156] Memory required for data: 86016
2016-08-01 03:16:26.879 STDERR [INFO] I0801 03:16:26.876662  8887 layer_factory.hpp:77] Creating layer lstm1_
2016-08-01 03:16:26.879 STDERR [INFO] I0801 03:16:26.876672  8887 net.cpp:91] Creating Layer lstm1_
2016-08-01 03:16:26.879 STDERR [INFO] I0801 03:16:26.876677  8887 net.cpp:425] lstm1_ <- c_1
2016-08-01 03:16:26.879 STDERR [INFO] I0801 03:16:26.876684  8887 net.cpp:399] lstm1_ -> c_T
2016-08-01 03:16:26.879 STDERR [INFO] I0801 03:16:26.876714  8887 net.cpp:141] Setting up lstm1_
2016-08-01 03:16:26.879 STDERR [INFO] I0801 03:16:26.876723  8887 net.cpp:148] Top shape: 1 1 1000 (1000)
2016-08-01 03:16:26.879 STDERR [INFO] I0801 03:16:26.876726  8887 net.cpp:156] Memory required for data: 90016
2016-08-01 03:16:26.879 STDERR [INFO] I0801 03:16:26.876731  8887 layer_factory.hpp:77] Creating layer lstm1_h_concat
2016-08-01 03:16:26.879 STDERR [INFO] I0801 03:16:26.876740  8887 net.cpp:91] Creating Layer lstm1_h_concat
2016-08-01 03:16:26.879 STDERR [INFO] I0801 03:16:26.876744  8887 net.cpp:425] lstm1_h_concat <- h_1
2016-08-01 03:16:26.879 STDERR [INFO] I0801 03:16:26.876754  8887 net.cpp:399] lstm1_h_concat -> h
2016-08-01 03:16:26.880 STDERR [INFO] I0801 03:16:26.876796  8887 net.cpp:141] Setting up lstm1_h_concat
2016-08-01 03:16:26.880 STDERR [INFO] I0801 03:16:26.876803  8887 net.cpp:148] Top shape: 1 1 1000 (1000)
2016-08-01 03:16:26.880 STDERR [INFO] I0801 03:16:26.876807  8887 net.cpp:156] Memory required for data: 94016
2016-08-01 03:16:26.880 STDERR [INFO] I0801 03:16:26.876812  8887 layer_factory.hpp:77] Creating layer h_pseudoloss
2016-08-01 03:16:26.880 STDERR [INFO] I0801 03:16:26.876826  8887 net.cpp:91] Creating Layer h_pseudoloss
2016-08-01 03:16:26.880 STDERR [INFO] I0801 03:16:26.876830  8887 net.cpp:425] h_pseudoloss <- h
…
2016-08-01 03:16:26.895 STDERR [INFO] }
2016-08-01 03:16:26.895 STDERR [INFO] I0801 03:16:26.877699  8887 layer_factory.hpp:77] Creating layer lstm2_
2016-08-01 03:16:26.895 STDERR [INFO] I0801 03:16:26.877712  8887 net.cpp:91] Creating Layer lstm2_
2016-08-01 03:16:26.895 STDERR [INFO] I0801 03:16:26.877717  8887 net.cpp:399] lstm2_ -> x
2016-08-01 03:16:26.895 STDERR [INFO] I0801 03:16:26.877727  8887 net.cpp:399] lstm2_ -> cont
2016-08-01 03:16:26.895 STDERR [INFO] I0801 03:16:26.877782  8887 net.cpp:141] Setting up lstm2_
2016-08-01 03:16:26.895 STDERR [INFO] I0801 03:16:26.877792  8887 net.cpp:148] Top shape: 1 1 1501 (1501)
2016-08-01 03:16:26.895 STDERR [INFO] I0801 03:16:26.877799  8887 net.cpp:148] Top shape: 1 1 (1)
2016-08-01 03:16:26.895 STDERR [INFO] I0801 03:16:26.877802  8887 net.cpp:156] Memory required for data: 6008
2016-08-01 03:16:26.895 STDERR [INFO] I0801 03:16:26.877807  8887 layer_factory.hpp:77] Creating layer lstm2_
2016-08-01 03:16:26.895 STDERR [INFO] I0801 03:16:26.877815  8887 net.cpp:91] Creating Layer lstm2_
2016-08-01 03:16:26.895 STDERR [INFO] I0801 03:16:26.877823  8887 net.cpp:399] lstm2_ -> c_0
2016-08-01 03:16:26.896 STDERR [INFO] I0801 03:16:26.877833  8887 net.cpp:399] lstm2_ -> h_0
2016-08-01 03:16:26.896 STDERR [INFO] I0801 03:16:26.877879  8887 net.cpp:141] Setting up lstm2_
2016-08-01 03:16:26.896 STDERR [INFO] I0801 03:16:26.877887  8887 net.cpp:148] Top shape: 1 1 1000 (1000)
2016-08-01 03:16:26.896 STDERR [INFO] I0801 03:16:26.877893  8887 net.cpp:148] Top shape: 1 1 1000 (1000)
2016-08-01 03:16:26.896 STDERR [INFO] I0801 03:16:26.877897  8887 net.cpp:156] Memory required for data: 14008
2016-08-01 03:16:26.896 STDERR [INFO] I0801 03:16:26.877902  8887 layer_factory.hpp:77] Creating layer lstm2_cont_slice
2016-08-01 03:16:26.896 STDERR [INFO] I0801 03:16:26.877909  8887 net.cpp:91] Creating Layer lstm2_cont_slice
2016-08-01 03:16:26.896 STDERR [INFO] I0801 03:16:26.877913  8887 net.cpp:425] lstm2_cont_slice <- cont
2016-08-01 03:16:26.897 STDERR [INFO] I0801 03:16:26.877924  8887 net.cpp:399] lstm2_cont_slice -> cont_1
2016-08-01 03:16:26.897 STDERR [INFO] I0801 03:16:26.877955  8887 net.cpp:141] Setting up lstm2_cont_slice
2016-08-01 03:16:26.897 STDERR [INFO] I0801 03:16:26.877967  8887 net.cpp:148] Top shape: 1 1 (1)
2016-08-01 03:16:26.897 STDERR [INFO] I0801 03:16:26.877971  8887 net.cpp:156] Memory required for data: 14012
2016-08-01 03:16:26.897 STDERR [INFO] I0801 03:16:26.877976  8887 layer_factory.hpp:77] Creating layer cont_1_lstm2_cont_slice_0_split
2016-08-01 03:16:26.897 STDERR [INFO] I0801 03:16:26.877982  8887 net.cpp:91] Creating Layer cont_1_lstm2_cont_slice_0_split
2016-08-01 03:16:26.897 STDERR [INFO] I0801 03:16:26.877986  8887 net.cpp:425] cont_1_lstm2_cont_slice_0_split <- cont_1
2016-08-01 03:16:26.897 STDERR [INFO] I0801 03:16:26.877993  8887 net.cpp:399] cont_1_lstm2_cont_slice_0_split -> cont_1_lstm2_cont_slice_0_split_0
2016-08-01 03:16:26.897 STDERR [INFO] I0801 03:16:26.878001  8887 net.cpp:399] cont_1_lstm2_cont_slice_0_split -> cont_1_lstm2_cont_slice_0_split_1
2016-08-01 03:16:26.897 STDERR [INFO] I0801 03:16:26.878047  8887 net.cpp:141] Setting up cont_1_lstm2_cont_slice_0_split
2016-08-01 03:16:26.897 STDERR [INFO] I0801 03:16:26.878056  8887 net.cpp:148] Top shape: 1 1 (1)
2016-08-01 03:16:26.897 STDERR [INFO] I0801 03:16:26.878060  8887 net.cpp:148] Top shape: 1 1 (1)
2016-08-01 03:16:26.898 STDERR [INFO] I0801 03:16:26.878064  8887 net.cpp:156] Memory required for data: 14020
2016-08-01 03:16:26.898 STDERR [INFO] I0801 03:16:26.878069  8887 layer_factory.hpp:77] Creating layer lstm2_x_transform
2016-08-01 03:16:26.898 STDERR [INFO] I0801 03:16:26.878080  8887 net.cpp:91] Creating Layer lstm2_x_transform
2016-08-01 03:16:26.898 STDERR [INFO] I0801 03:16:26.878085  8887 net.cpp:425] lstm2_x_transform <- x
2016-08-01 03:16:26.898 STDERR [INFO] I0801 03:16:26.878093  8887 net.cpp:399] lstm2_x_transform -> W_xc_x
2016-08-01 03:16:26.934 STDERR [INFO] I0801 03:16:26.934386  8887 net.cpp:141] Setting up lstm2_x_transform
2016-08-01 03:16:26.934 STDERR [INFO] I0801 03:16:26.934434  8887 net.cpp:148] Top shape: 1 1 4000 (4000)
2016-08-01 03:16:26.935 STDERR [INFO] I0801 03:16:26.934440  8887 net.cpp:156] Memory required for data: 30020
2016-08-01 03:16:26.935 STDERR [INFO] I0801 03:16:26.934463  8887 layer_factory.hpp:77] Creating layer lstm2_W_xc_x_slice
2016-08-01 03:16:26.935 STDERR [INFO] I0801 03:16:26.934478  8887 net.cpp:91] Creating Layer lstm2_W_xc_x_slice
2016-08-01 03:16:26.935 STDERR [INFO] I0801 03:16:26.934484  8887 net.cpp:425] lstm2_W_xc_x_slice <- W_xc_x
2016-08-01 03:16:26.935 STDERR [INFO] I0801 03:16:26.934497  8887 net.cpp:399] lstm2_W_xc_x_slice -> W_xc_x_1
2016-08-01 03:16:26.935 STDERR [INFO] I0801 03:16:26.934540  8887 net.cpp:141] Setting up lstm2_W_xc_x_slice
2016-08-01 03:16:26.935 STDERR [INFO] I0801 03:16:26.934551  8887 net.cpp:148] Top shape: 1 1 4000 (4000)
2016-08-01 03:16:26.935 STDERR [INFO] I0801 03:16:26.934556  8887 net.cpp:156] Memory required for data: 46020
2016-08-01 03:16:26.935 STDERR [INFO] I0801 03:16:26.934561  8887 layer_factory.hpp:77] Creating layer lstm2_h_conted_0
2016-08-01 03:16:26.936 STDERR [INFO] I0801 03:16:26.934569  8887 net.cpp:91] Creating Layer lstm2_h_conted_0
2016-08-01 03:16:26.936 STDERR [INFO] I0801 03:16:26.934574  8887 net.cpp:425] lstm2_h_conted_0 <- h_0
2016-08-01 03:16:26.936 STDERR [INFO] I0801 03:16:26.934581  8887 net.cpp:425] lstm2_h_conted_0 <- cont_1_lstm2_cont_slice_0_split_0
2016-08-01 03:16:26.936 STDERR [INFO] I0801 03:16:26.934590  8887 net.cpp:399] lstm2_h_conted_0 -> h_conted_0
2016-08-01 03:16:26.936 STDERR [INFO] I0801 03:16:26.934681  8887 net.cpp:141] Setting up lstm2_h_conted_0
2016-08-01 03:16:26.936 STDERR [INFO] I0801 03:16:26.934690  8887 net.cpp:148] Top shape: 1 1 1000 (1000)
2016-08-01 03:16:26.936 STDERR [INFO] I0801 03:16:26.934695  8887 net.cpp:156] Memory required for data: 50020
2016-08-01 03:16:26.936 STDERR [INFO] I0801 03:16:26.934698  8887 layer_factory.hpp:77] Creating layer lstm2_transform_1
2016-08-01 03:16:26.936 STDERR [INFO] I0801 03:16:26.934713  8887 net.cpp:91] Creating Layer lstm2_transform_1
2016-08-01 03:16:26.936 STDERR [INFO] I0801 03:16:26.934718  8887 net.cpp:425] lstm2_transform_1 <- h_conted_0
2016-08-01 03:16:26.937 STDERR [INFO] I0801 03:16:26.934726  8887 net.cpp:399] lstm2_transform_1 -> W_hc_h_0
2016-08-01 03:16:26.972 STDERR [INFO] I0801 03:16:26.971843  8887 net.cpp:141] Setting up lstm2_transform_1
2016-08-01 03:16:26.972 STDERR [INFO] I0801 03:16:26.971886  8887 net.cpp:148] Top shape: 1 1 4000 (4000)
2016-08-01 03:16:26.972 STDERR [INFO] I0801 03:16:26.971892  8887 net.cpp:156] Memory required for data: 66020
2016-08-01 03:16:26.972 STDERR [INFO] I0801 03:16:26.971909  8887 layer_factory.hpp:77] Creating layer lstm2_gate_input_1
2016-08-01 03:16:26.972 STDERR [INFO] I0801 03:16:26.971930  8887 net.cpp:91] Creating Layer lstm2_gate_input_1
2016-08-01 03:16:26.972 STDERR [INFO] I0801 03:16:26.971937  8887 net.cpp:425] lstm2_gate_input_1 <- W_hc_h_0
2016-08-01 03:16:26.972 STDERR [INFO] I0801 03:16:26.971946  8887 net.cpp:425] lstm2_gate_input_1 <- W_xc_x_1
2016-08-01 03:16:26.972 STDERR [INFO] I0801 03:16:26.971956  8887 net.cpp:399] lstm2_gate_input_1 -> gate_input_1
2016-08-01 03:16:26.972 STDERR [INFO] I0801 03:16:26.972002  8887 net.cpp:141] Setting up lstm2_gate_input_1
2016-08-01 03:16:26.973 STDERR [INFO] I0801 03:16:26.972017  8887 net.cpp:148] Top shape: 1 1 4000 (4000)
2016-08-01 03:16:26.973 STDERR [INFO] I0801 03:16:26.972020  8887 net.cpp:156] Memory required for data: 82020
2016-08-01 03:16:26.973 STDERR [INFO] I0801 03:16:26.972025  8887 layer_factory.hpp:77] Creating layer lstm2_unit_1
2016-08-01 03:16:26.973 STDERR [INFO] I0801 03:16:26.972036  8887 net.cpp:91] Creating Layer lstm2_unit_1
2016-08-01 03:16:26.973 STDERR [INFO] I0801 03:16:26.972041  8887 net.cpp:425] lstm2_unit_1 <- c_0
2016-08-01 03:16:26.973 STDERR [INFO] I0801 03:16:26.972048  8887 net.cpp:425] lstm2_unit_1 <- gate_input_1
2016-08-01 03:16:26.973 STDERR [INFO] I0801 03:16:26.972054  8887 net.cpp:425] lstm2_unit_1 <- cont_1_lstm2_cont_slice_0_split_1
2016-08-01 03:16:26.973 STDERR [INFO] I0801 03:16:26.972060  8887 net.cpp:399] lstm2_unit_1 -> c_1
2016-08-01 03:16:26.973 STDERR [INFO] I0801 03:16:26.972069  8887 net.cpp:399] lstm2_unit_1 -> h_1
2016-08-01 03:16:26.973 STDERR [INFO] I0801 03:16:26.972129  8887 net.cpp:141] Setting up lstm2_unit_1
2016-08-01 03:16:26.973 STDERR [INFO] I0801 03:16:26.972138  8887 net.cpp:148] Top shape: 1 1 1000 (1000)
2016-08-01 03:16:26.973 STDERR [INFO] I0801 03:16:26.972143  8887 net.cpp:148] Top shape: 1 1 1000 (1000)
2016-08-01 03:16:26.974 STDERR [INFO] I0801 03:16:26.972147  8887 net.cpp:156] Memory required for data: 90020
2016-08-01 03:16:26.974 STDERR [INFO] I0801 03:16:26.972151  8887 layer_factory.hpp:77] Creating layer lstm2_
2016-08-01 03:16:26.974 STDERR [INFO] I0801 03:16:26.972160  8887 net.cpp:91] Creating Layer lstm2_
2016-08-01 03:16:26.974 STDERR [INFO] I0801 03:16:26.972165  8887 net.cpp:425] lstm2_ <- c_1
2016-08-01 03:16:26.974 STDERR [INFO] I0801 03:16:26.972173  8887 net.cpp:399] lstm2_ -> c_T
2016-08-01 03:16:26.974 STDERR [INFO] I0801 03:16:26.972203  8887 net.cpp:141] Setting up lstm2_
2016-08-01 03:16:26.974 STDERR [INFO] I0801 03:16:26.972211  8887 net.cpp:148] Top shape: 1 1 1000 (1000)
2016-08-01 03:16:26.974 STDERR [INFO] I0801 03:16:26.972215  8887 net.cpp:156] Memory required for data: 94020
2016-08-01 03:16:26.974 STDERR [INFO] I0801 03:16:26.972220  8887 layer_factory.hpp:77] Creating layer lstm2_h_concat
2016-08-01 03:16:26.974 STDERR [INFO] I0801 03:16:26.972229  8887 net.cpp:91] Creating Layer lstm2_h_concat
2016-08-01 03:16:26.974 STDERR [INFO] I0801 03:16:26.972234  8887 net.cpp:425] lstm2_h_concat <- h_1
2016-08-01 03:16:26.974 STDERR [INFO] I0801 03:16:26.972240  8887 net.cpp:399] lstm2_h_concat -> h
2016-08-01 03:16:26.974 STDERR [INFO] I0801 03:16:26.972277  8887 net.cpp:141] Setting up lstm2_h_concat
2016-08-01 03:16:26.974 STDERR [INFO] I0801 03:16:26.972285  8887 net.cpp:148] Top shape: 1 1 1000 (1000)
2016-08-01 03:16:26.975 STDERR [INFO] I0801 03:16:26.972290  8887 net.cpp:156] Memory required for data: 98020
2016-08-01 03:16:26.975 STDERR [INFO] I0801 03:16:26.972293  8887 layer_factory.hpp:77] Creating layer h_pseudoloss
2016-08-01 03:16:26.975 STDERR [INFO] I0801 03:16:26.972303  8887 net.cpp:91] Creating Layer h_pseudoloss
2016-08-01 03:16:26.975 STDERR [INFO] I0801 03:16:26.972307  8887 net.cpp:425] h_pseudoloss <- h
…
