…
2016-07-14 23:35:22.211 n.t.s.b.CVParticleBolt [INFO] [Timing] RequestID: 0 StreamID: home/peifeng/work/data/frame.320x240.jpg SequenceNr: 67 Leaving scale: 1468553722211 Size: 3530
2016-07-14 23:35:22.213 n.t.s.b.CVParticleBolt [INFO] [Timing] RequestID: 0 StreamID: home/peifeng/work/data/frame.320x240.jpg SequenceNr: 68 Leaving scale: 1468553722213 Size: 3530
2016-07-14 23:35:22.213 STDERR [INFO] I0714 23:35:22.213662  5922 net.cpp:141] Setting up conv2/3x3_reduce
2016-07-14 23:35:22.214 STDERR [INFO] I0714 23:35:22.213671  5918 net.cpp:141] Setting up conv2/3x3_reduce
2016-07-14 23:35:22.214 STDERR [INFO] I0714 23:35:22.213687  5922 net.cpp:148] Top shape: 10 64 56 56 (2007040)
2016-07-14 23:35:22.214 STDERR [INFO] I0714 23:35:22.213692  5922 net.cpp:156] Memory required for data: 94330880
2016-07-14 23:35:22.214 STDERR [INFO] I0714 23:35:22.213693  5918 net.cpp:148] Top shape: 10 64 56 56 (2007040)
2016-07-14 23:35:22.214 STDERR [INFO] I0714 23:35:22.213699  5918 net.cpp:156] Memory required for data: 94330880
2016-07-14 23:35:22.214 STDERR [INFO] I0714 23:35:22.213709  5922 layer_factory.hpp:77] Creating layer conv2/relu_3x3_reduce
2016-07-14 23:35:22.214 STDERR [INFO] I0714 23:35:22.213712  5918 layer_factory.hpp:77] Creating layer conv2/relu_3x3_reduce
2016-07-14 23:35:22.214 STDERR [INFO] I0714 23:35:22.213719  5922 net.cpp:91] Creating Layer conv2/relu_3x3_reduce
2016-07-14 23:35:22.214 STDERR [INFO] I0714 23:35:22.213721  5918 net.cpp:91] Creating Layer conv2/relu_3x3_reduce
2016-07-14 23:35:22.214 STDERR [INFO] I0714 23:35:22.213724  5922 net.cpp:425] conv2/relu_3x3_reduce <- conv2/3x3_reduce
2016-07-14 23:35:22.214 STDERR [INFO] I0714 23:35:22.213726  5918 net.cpp:425] conv2/relu_3x3_reduce <- conv2/3x3_reduce
2016-07-14 23:35:22.214 STDERR [INFO] I0714 23:35:22.213732  5922 net.cpp:386] conv2/relu_3x3_reduce -> conv2/3x3_reduce (in-place)
2016-07-14 23:35:22.214 STDERR [INFO] I0714 23:35:22.213737  5918 net.cpp:386] conv2/relu_3x3_reduce -> conv2/3x3_reduce (in-place)
2016-07-14 23:35:22.214 STDERR [INFO] I0714 23:35:22.214762  5922 net.cpp:141] Setting up conv2/relu_3x3_reduce
2016-07-14 23:35:22.214 STDERR [INFO] I0714 23:35:22.214774  5918 net.cpp:141] Setting up conv2/relu_3x3_reduce
2016-07-14 23:35:22.214 STDERR [INFO] I0714 23:35:22.214778  5922 net.cpp:148] Top shape: 10 64 56 56 (2007040)
2016-07-14 23:35:22.214 STDERR [INFO] I0714 23:35:22.214788  5922 net.cpp:156] Memory required for data: 102359040
2016-07-14 23:35:22.214 STDERR [INFO] I0714 23:35:22.214789  5918 net.cpp:148] Top shape: 10 64 56 56 (2007040)
2016-07-14 23:35:22.215 STDERR [INFO] I0714 23:35:22.214797  5922 layer_factory.hpp:77] Creating layer conv2/3x3
2016-07-14 23:35:22.215 STDERR [INFO] I0714 23:35:22.214799  5918 net.cpp:156] Memory required for data: 102359040
2016-07-14 23:35:22.215 STDERR [INFO] I0714 23:35:22.214805  5918 layer_factory.hpp:77] Creating layer conv2/3x3
2016-07-14 23:35:22.215 STDERR [INFO] I0714 23:35:22.214813  5922 net.cpp:91] Creating Layer conv2/3x3
2016-07-14 23:35:22.215 STDERR [INFO] I0714 23:35:22.214819  5922 net.cpp:425] conv2/3x3 <- conv2/3x3_reduce
2016-07-14 23:35:22.215 STDERR [INFO] I0714 23:35:22.214824  5918 net.cpp:91] Creating Layer conv2/3x3
2016-07-14 23:35:22.215 STDERR [INFO] I0714 23:35:22.214829  5918 net.cpp:425] conv2/3x3 <- conv2/3x3_reduce
2016-07-14 23:35:22.215 STDERR [INFO] I0714 23:35:22.214831  5922 net.cpp:399] conv2/3x3 -> conv2/3x3
2016-07-14 23:35:22.215 STDERR [INFO] I0714 23:35:22.214838  5918 net.cpp:399] conv2/3x3 -> conv2/3x3
2016-07-14 23:35:22.221 STDERR [INFO] I0714 23:35:22.221487  5918 net.cpp:141] Setting up conv2/3x3
2016-07-14 23:35:22.221 STDERR [INFO] I0714 23:35:22.221500  5922 net.cpp:141] Setting up conv2/3x3
2016-07-14 23:35:22.221 STDERR [INFO] I0714 23:35:22.221519  5918 net.cpp:148] Top shape: 10 192 56 56 (6021120)
2016-07-14 23:35:22.221 STDERR [INFO] I0714 23:35:22.221525  5918 net.cpp:156] Memory required for data: 126443520
2016-07-14 23:35:22.221 STDERR [INFO] I0714 23:35:22.221527  5922 net.cpp:148] Top shape: 10 192 56 56 (6021120)
2016-07-14 23:35:22.221 STDERR [INFO] I0714 23:35:22.221532  5922 net.cpp:156] Memory required for data: 126443520
2016-07-14 23:35:22.221 STDERR [INFO] I0714 23:35:22.221539  5918 layer_factory.hpp:77] Creating layer conv2/relu_3x3
2016-07-14 23:35:22.222 STDERR [INFO] I0714 23:35:22.221545  5922 layer_factory.hpp:77] Creating layer conv2/relu_3x3
2016-07-14 23:35:22.222 STDERR [INFO] I0714 23:35:22.221549  5918 net.cpp:91] Creating Layer conv2/relu_3x3
2016-07-14 23:35:22.222 STDERR [INFO] I0714 23:35:22.221554  5918 net.cpp:425] conv2/relu_3x3 <- conv2/3x3
2016-07-14 23:35:22.222 STDERR [INFO] I0714 23:35:22.221555  5922 net.cpp:91] Creating Layer conv2/relu_3x3
2016-07-14 23:35:22.222 STDERR [INFO] I0714 23:35:22.221560  5922 net.cpp:425] conv2/relu_3x3 <- conv2/3x3
2016-07-14 23:35:22.222 STDERR [INFO] I0714 23:35:22.221561  5918 net.cpp:386] conv2/relu_3x3 -> conv2/3x3 (in-place)
2016-07-14 23:35:22.222 STDERR [INFO] I0714 23:35:22.221571  5922 net.cpp:386] conv2/relu_3x3 -> conv2/3x3 (in-place)
2016-07-14 23:35:22.222 STDERR [INFO] I0714 23:35:22.222573  5918 net.cpp:141] Setting up conv2/relu_3x3
2016-07-14 23:35:22.222 STDERR [INFO] I0714 23:35:22.222584  5922 net.cpp:141] Setting up conv2/relu_3x3
2016-07-14 23:35:22.222 STDERR [INFO] I0714 23:35:22.222586  5918 net.cpp:148] Top shape: 10 192 56 56 (6021120)
2016-07-14 23:35:22.222 STDERR [INFO] I0714 23:35:22.222599  5918 net.cpp:156] Memory required for data: 150528000
2016-07-14 23:35:22.222 STDERR [INFO] I0714 23:35:22.222599  5922 net.cpp:148] Top shape: 10 192 56 56 (6021120)
2016-07-14 23:35:22.222 STDERR [INFO] I0714 23:35:22.222605  5918 layer_factory.hpp:77] Creating layer conv2/norm2
2016-07-14 23:35:22.222 STDERR [INFO] I0714 23:35:22.222609  5922 net.cpp:156] Memory required for data: 150528000
2016-07-14 23:35:22.222 STDERR [INFO] I0714 23:35:22.222615  5922 layer_factory.hpp:77] Creating layer conv2/norm2
2016-07-14 23:35:22.222 STDERR [INFO] I0714 23:35:22.222618  5918 net.cpp:91] Creating Layer conv2/norm2
2016-07-14 23:35:22.223 STDERR [INFO] I0714 23:35:22.222623  5918 net.cpp:425] conv2/norm2 <- conv2/3x3
2016-07-14 23:35:22.223 STDERR [INFO] I0714 23:35:22.222626  5922 net.cpp:91] Creating Layer conv2/norm2
2016-07-14 23:35:22.223 STDERR [INFO] I0714 23:35:22.222630  5918 net.cpp:399] conv2/norm2 -> conv2/norm2
2016-07-14 23:35:22.223 STDERR [INFO] I0714 23:35:22.222631  5922 net.cpp:425] conv2/norm2 <- conv2/3x3
2016-07-14 23:35:22.223 STDERR [INFO] I0714 23:35:22.222640  5922 net.cpp:399] conv2/norm2 -> conv2/norm2
2016-07-14 23:35:22.223 STDERR [INFO] I0714 23:35:22.223681  5918 net.cpp:141] Setting up conv2/norm2
2016-07-14 23:35:22.223 STDERR [INFO] I0714 23:35:22.223695  5918 net.cpp:148] Top shape: 10 192 56 56 (6021120)
2016-07-14 23:35:22.223 STDERR [INFO] I0714 23:35:22.223712  5918 net.cpp:156] Memory required for data: 174612480
2016-07-14 23:35:22.223 STDERR [INFO] I0714 23:35:22.223717  5918 layer_factory.hpp:77] Creating layer pool2/3x3_s2
2016-07-14 23:35:22.223 STDERR [INFO] I0714 23:35:22.223728  5918 net.cpp:91] Creating Layer pool2/3x3_s2
2016-07-14 23:35:22.224 STDERR [INFO] I0714 23:35:22.223733  5918 net.cpp:425] pool2/3x3_s2 <- conv2/norm2
2016-07-14 23:35:22.224 STDERR [INFO] I0714 23:35:22.223740  5918 net.cpp:399] pool2/3x3_s2 -> pool2/3x3_s2
2016-07-14 23:35:22.224 STDERR [INFO] I0714 23:35:22.223742  5922 net.cpp:141] Setting up conv2/norm2
2016-07-14 23:35:22.224 STDERR [INFO] I0714 23:35:22.223754  5922 net.cpp:148] Top shape: 10 192 56 56 (6021120)
2016-07-14 23:35:22.224 STDERR [INFO] I0714 23:35:22.223759  5922 net.cpp:156] Memory required for data: 174612480
2016-07-14 23:35:22.224 STDERR [INFO] I0714 23:35:22.223764  5922 layer_factory.hpp:77] Creating layer pool2/3x3_s2
2016-07-14 23:35:22.224 STDERR [INFO] I0714 23:35:22.223775  5922 net.cpp:91] Creating Layer pool2/3x3_s2
2016-07-14 23:35:22.224 STDERR [INFO] I0714 23:35:22.223781  5922 net.cpp:425] pool2/3x3_s2 <- conv2/norm2
2016-07-14 23:35:22.224 STDERR [INFO] I0714 23:35:22.223791  5922 net.cpp:399] pool2/3x3_s2 -> pool2/3x3_s2
2016-07-14 23:35:22.224 STDERR [INFO] I0714 23:35:22.223811  5918 net.cpp:141] Setting up pool2/3x3_s2
2016-07-14 23:35:22.224 STDERR [INFO] I0714 23:35:22.223827  5918 net.cpp:148] Top shape: 10 192 28 28 (1505280)
2016-07-14 23:35:22.224 STDERR [INFO] I0714 23:35:22.223834  5918 net.cpp:156] Memory required for data: 180633600
2016-07-14 23:35:22.224 STDERR [INFO] I0714 23:35:22.223842  5918 layer_factory.hpp:77] Creating layer pool2/3x3_s2_pool2/3x3_s2_0_split
2016-07-14 23:35:22.224 STDERR [INFO] I0714 23:35:22.223845  5922 net.cpp:141] Setting up pool2/3x3_s2
2016-07-14 23:35:22.224 STDERR [INFO] I0714 23:35:22.223853  5922 net.cpp:148] Top shape: 10 192 28 28 (1505280)
2016-07-14 23:35:22.224 STDERR [INFO] I0714 23:35:22.223857  5922 net.cpp:156] Memory required for data: 180633600
2016-07-14 23:35:22.224 STDERR [INFO] I0714 23:35:22.223862  5922 layer_factory.hpp:77] Creating layer pool2/3x3_s2_pool2/3x3_s2_0_split
2016-07-14 23:35:22.224 STDERR [INFO] I0714 23:35:22.223865  5918 net.cpp:91] Creating Layer pool2/3x3_s2_pool2/3x3_s2_0_split
…
2016-07-14 23:35:22.226 STDERR [INFO] I0714 23:35:22.223932  5922 net.cpp:399] pool2/3x3_s2_pool2/3x3_s2_0_split -> pool2/3x3_s2_pool2/3x3_s2_0_split_3
2016-07-14 23:35:22.226 STDERR [INFO] I0714 23:35:22.223934  5918 net.cpp:399] pool2/3x3_s2_pool2/3x3_s2_0_split -> pool2/3x3_s2_pool2/3x3_s2_0_split_2
2016-07-14 23:35:22.226 STDERR [INFO] I0714 23:35:22.223948  5918 net.cpp:399] pool2/3x3_s2_pool2/3x3_s2_0_split -> pool2/3x3_s2_pool2/3x3_s2_0_split_3
2016-07-14 23:35:22.226 STDERR [INFO] I0714 23:35:22.224071  5922 net.cpp:141] Setting up pool2/3x3_s2_pool2/3x3_s2_0_split
2016-07-14 23:35:22.226 STDERR [INFO] I0714 23:35:22.224081  5922 net.cpp:148] Top shape: 10 192 28 28 (1505280)
2016-07-14 23:35:22.226 STDERR [INFO] I0714 23:35:22.224087  5922 net.cpp:148] Top shape: 10 192 28 28 (1505280)
2016-07-14 23:35:22.226 STDERR [INFO] I0714 23:35:22.224092  5922 net.cpp:148] Top shape: 10 192 28 28 (1505280)
2016-07-14 23:35:22.226 STDERR [INFO] I0714 23:35:22.224097  5922 net.cpp:148] Top shape: 10 192 28 28 (1505280)
2016-07-14 23:35:22.226 STDERR [INFO] I0714 23:35:22.224102  5922 net.cpp:156] Memory required for data: 204718080
2016-07-14 23:35:22.226 STDERR [INFO] I0714 23:35:22.224105  5922 layer_factory.hpp:77] Creating layer inception_3a/1x1
2016-07-14 23:35:22.226 STDERR [INFO] I0714 23:35:22.224125  5922 net.cpp:91] Creating Layer inception_3a/1x1
2016-07-14 23:35:22.226 STDERR [INFO] I0714 23:35:22.224130  5922 net.cpp:425] inception_3a/1x1 <- pool2/3x3_s2_pool2/3x3_s2_0_split_0
2016-07-14 23:35:22.226 STDERR [INFO] I0714 23:35:22.224158  5922 net.cpp:399] inception_3a/1x1 -> inception_3a/1x1
2016-07-14 23:35:22.226 STDERR [INFO] I0714 23:35:22.224159  5918 net.cpp:141] Setting up pool2/3x3_s2_pool2/3x3_s2_0_split
2016-07-14 23:35:22.226 STDERR [INFO] I0714 23:35:22.224180  5918 net.cpp:148] Top shape: 10 192 28 28 (1505280)
2016-07-14 23:35:22.226 STDERR [INFO] I0714 23:35:22.224191  5918 net.cpp:148] Top shape: 10 192 28 28 (1505280)
2016-07-14 23:35:22.226 STDERR [INFO] I0714 23:35:22.224202  5918 net.cpp:148] Top shape: 10 192 28 28 (1505280)
2016-07-14 23:35:22.226 STDERR [INFO] I0714 23:35:22.224212  5918 net.cpp:148] Top shape: 10 192 28 28 (1505280)
2016-07-14 23:35:22.226 STDERR [INFO] I0714 23:35:22.224220  5918 net.cpp:156] Memory required for data: 204718080
2016-07-14 23:35:22.226 STDERR [INFO] I0714 23:35:22.224228  5918 layer_factory.hpp:77] Creating layer inception_3a/1x1
2016-07-14 23:35:22.226 STDERR [INFO] I0714 23:35:22.224253  5918 net.cpp:91] Creating Layer inception_3a/1x1
2016-07-14 23:35:22.226 STDERR [INFO] I0714 23:35:22.224261  5918 net.cpp:425] inception_3a/1x1 <- pool2/3x3_s2_pool2/3x3_s2_0_split_0
2016-07-14 23:35:22.226 STDERR [INFO] I0714 23:35:22.224269  5918 net.cpp:399] inception_3a/1x1 -> inception_3a/1x1
2016-07-14 23:35:22.230 STDERR [INFO] I0714 23:35:22.230312  5918 net.cpp:141] Setting up inception_3a/1x1
2016-07-14 23:35:22.230 STDERR [INFO] I0714 23:35:22.230330  5922 net.cpp:141] Setting up inception_3a/1x1
2016-07-14 23:35:22.230 STDERR [INFO] I0714 23:35:22.230335  5918 net.cpp:148] Top shape: 10 64 28 28 (501760)
2016-07-14 23:35:22.230 STDERR [INFO] I0714 23:35:22.230347  5918 net.cpp:156] Memory required for data: 206725120
2016-07-14 23:35:22.230 STDERR [INFO] I0714 23:35:22.230347  5922 net.cpp:148] Top shape: 10 64 28 28 (501760)
2016-07-14 23:35:22.230 STDERR [INFO] I0714 23:35:22.230360  5922 net.cpp:156] Memory required for data: 206725120
2016-07-14 23:35:22.230 STDERR [INFO] I0714 23:35:22.230365  5918 layer_factory.hpp:77] Creating layer inception_3a/relu_1x1
2016-07-14 23:35:22.230 STDERR [INFO] I0714 23:35:22.230370  5922 layer_factory.hpp:77] Creating layer inception_3a/relu_1x1
2016-07-14 23:35:22.230 STDERR [INFO] I0714 23:35:22.230376  5918 net.cpp:91] Creating Layer inception_3a/relu_1x1
2016-07-14 23:35:22.230 STDERR [INFO] I0714 23:35:22.230379  5922 net.cpp:91] Creating Layer inception_3a/relu_1x1
2016-07-14 23:35:22.230 STDERR [INFO] I0714 23:35:22.230381  5918 net.cpp:425] inception_3a/relu_1x1 <- inception_3a/1x1
2016-07-14 23:35:22.230 STDERR [INFO] I0714 23:35:22.230384  5922 net.cpp:425] inception_3a/relu_1x1 <- inception_3a/1x1
2016-07-14 23:35:22.231 STDERR [INFO] I0714 23:35:22.230388  5918 net.cpp:386] inception_3a/relu_1x1 -> inception_3a/1x1 (in-place)
2016-07-14 23:35:22.231 STDERR [INFO] I0714 23:35:22.230396  5922 net.cpp:386] inception_3a/relu_1x1 -> inception_3a/1x1 (in-place)
2016-07-14 23:35:22.231 STDERR [INFO] I0714 23:35:22.231405  5918 net.cpp:141] Setting up inception_3a/relu_1x1
2016-07-14 23:35:22.231 STDERR [INFO] I0714 23:35:22.231405  5922 net.cpp:141] Setting up inception_3a/relu_1x1
2016-07-14 23:35:22.231 STDERR [INFO] I0714 23:35:22.231426  5918 net.cpp:148] Top shape: 10 64 28 28 (501760)
2016-07-14 23:35:22.231 STDERR [INFO] I0714 23:35:22.231427  5922 net.cpp:148] Top shape: 10 64 28 28 (501760)
2016-07-14 23:35:22.231 STDERR [INFO] I0714 23:35:22.231431  5918 net.cpp:156] Memory required for data: 208732160
2016-07-14 23:35:22.231 STDERR [INFO] I0714 23:35:22.231431  5922 net.cpp:156] Memory required for data: 208732160
2016-07-14 23:35:22.231 STDERR [INFO] I0714 23:35:22.231436  5918 layer_factory.hpp:77] Creating layer inception_3a/3x3_reduce
2016-07-14 23:35:22.231 STDERR [INFO] I0714 23:35:22.231436  5922 layer_factory.hpp:77] Creating layer inception_3a/3x3_reduce
2016-07-14 23:35:22.231 STDERR [INFO] I0714 23:35:22.231456  5918 net.cpp:91] Creating Layer inception_3a/3x3_reduce
2016-07-14 23:35:22.231 STDERR [INFO] I0714 23:35:22.231457  5922 net.cpp:91] Creating Layer inception_3a/3x3_reduce
2016-07-14 23:35:22.231 STDERR [INFO] I0714 23:35:22.231465  5918 net.cpp:425] inception_3a/3x3_reduce <- pool2/3x3_s2_pool2/3x3_s2_0_split_1
2016-07-14 23:35:22.231 STDERR [INFO] I0714 23:35:22.231468  5922 net.cpp:425] inception_3a/3x3_reduce <- pool2/3x3_s2_pool2/3x3_s2_0_split_1
2016-07-14 23:35:22.231 STDERR [INFO] I0714 23:35:22.231475  5918 net.cpp:399] inception_3a/3x3_reduce -> inception_3a/3x3_reduce
2016-07-14 23:35:22.232 STDERR [INFO] I0714 23:35:22.231482  5922 net.cpp:399] inception_3a/3x3_reduce -> inception_3a/3x3_reduce
2016-07-14 23:35:22.236 STDERR [INFO] I0714 23:35:22.236742  5918 net.cpp:141] Setting up inception_3a/3x3_reduce
2016-07-14 23:35:22.236 STDERR [INFO] I0714 23:35:22.236774  5918 net.cpp:148] Top shape: 10 96 28 28 (752640)
2016-07-14 23:35:22.237 STDERR [INFO] I0714 23:35:22.236780  5918 net.cpp:156] Memory required for data: 211742720
2016-07-14 23:35:22.237 STDERR [INFO] I0714 23:35:22.236794  5918 layer_factory.hpp:77] Creating layer inception_3a/relu_3x3_reduce
2016-07-14 23:35:22.237 STDERR [INFO] I0714 23:35:22.236810  5918 net.cpp:91] Creating Layer inception_3a/relu_3x3_reduce
2016-07-14 23:35:22.237 STDERR [INFO] I0714 23:35:22.236816  5918 net.cpp:425] inception_3a/relu_3x3_reduce <- inception_3a/3x3_reduce
2016-07-14 23:35:22.237 STDERR [INFO] I0714 23:35:22.236824  5918 net.cpp:386] inception_3a/relu_3x3_reduce -> inception_3a/3x3_reduce (in-place)
2016-07-14 23:35:22.237 STDERR [INFO] I0714 23:35:22.237473  5922 net.cpp:141] Setting up inception_3a/3x3_reduce
2016-07-14 23:35:22.237 STDERR [INFO] I0714 23:35:22.237489  5922 net.cpp:148] Top shape: 10 96 28 28 (752640)
2016-07-14 23:35:22.237 STDERR [INFO] I0714 23:35:22.237494  5922 net.cpp:156] Memory required for data: 211742720
2016-07-14 23:35:22.237 STDERR [INFO] I0714 23:35:22.237507  5922 layer_factory.hpp:77] Creating layer inception_3a/relu_3x3_reduce
2016-07-14 23:35:22.237 STDERR [INFO] I0714 23:35:22.237519  5922 net.cpp:91] Creating Layer inception_3a/relu_3x3_reduce
2016-07-14 23:35:22.237 STDERR [INFO] I0714 23:35:22.237524  5922 net.cpp:425] inception_3a/relu_3x3_reduce <- inception_3a/3x3_reduce
2016-07-14 23:35:22.237 STDERR [INFO] I0714 23:35:22.237530  5922 net.cpp:386] inception_3a/relu_3x3_reduce -> inception_3a/3x3_reduce (in-place)
2016-07-14 23:35:22.237 STDERR [INFO] I0714 23:35:22.237735  5918 net.cpp:141] Setting up inception_3a/relu_3x3_reduce
2016-07-14 23:35:22.237 STDERR [INFO] I0714 23:35:22.237748  5918 net.cpp:148] Top shape: 10 96 28 28 (752640)
2016-07-14 23:35:22.237 STDERR [INFO] I0714 23:35:22.237753  5918 net.cpp:156] Memory required for data: 214753280
2016-07-14 23:35:22.237 STDERR [INFO] I0714 23:35:22.237758  5918 layer_factory.hpp:77] Creating layer inception_3a/3x3
2016-07-14 23:35:22.237 STDERR [INFO] I0714 23:35:22.237779  5918 net.cpp:91] Creating Layer inception_3a/3x3
2016-07-14 23:35:22.237 STDERR [INFO] I0714 23:35:22.237785  5918 net.cpp:425] inception_3a/3x3 <- inception_3a/3x3_reduce
2016-07-14 23:35:22.238 STDERR [INFO] I0714 23:35:22.237794  5918 net.cpp:399] inception_3a/3x3 -> inception_3a/3x3
2016-07-14 23:35:22.238 STDERR [INFO] I0714 23:35:22.237808  5922 net.cpp:141] Setting up inception_3a/relu_3x3_reduce
2016-07-14 23:35:22.238 STDERR [INFO] I0714 23:35:22.237820  5922 net.cpp:148] Top shape: 10 96 28 28 (752640)
2016-07-14 23:35:22.238 STDERR [INFO] I0714 23:35:22.237825  5922 net.cpp:156] Memory required for data: 214753280
2016-07-14 23:35:22.238 STDERR [INFO] I0714 23:35:22.237830  5922 layer_factory.hpp:77] Creating layer inception_3a/3x3
2016-07-14 23:35:22.238 STDERR [INFO] I0714 23:35:22.237849  5922 net.cpp:91] Creating Layer inception_3a/3x3
2016-07-14 23:35:22.238 STDERR [INFO] I0714 23:35:22.237855  5922 net.cpp:425] inception_3a/3x3 <- inception_3a/3x3_reduce
2016-07-14 23:35:22.238 STDERR [INFO] I0714 23:35:22.237864  5922 net.cpp:399] inception_3a/3x3 -> inception_3a/3x3
2016-07-14 23:35:22.243 STDERR [INFO] I0714 23:35:22.243772  5918 net.cpp:141] Setting up inception_3a/3x3
2016-07-14 23:35:22.243 STDERR [INFO] I0714 23:35:22.243801  5918 net.cpp:148] Top shape: 10 128 28 28 (1003520)
2016-07-14 23:35:22.244 STDERR [INFO] I0714 23:35:22.243808  5918 net.cpp:156] Memory required for data: 218767360
2016-07-14 23:35:22.244 STDERR [INFO] I0714 23:35:22.243816  5918 layer_factory.hpp:77] Creating layer inception_3a/relu_3x3
2016-07-14 23:35:22.244 STDERR [INFO] I0714 23:35:22.243825  5918 net.cpp:91] Creating Layer inception_3a/relu_3x3
2016-07-14 23:35:22.244 STDERR [INFO] I0714 23:35:22.243830  5918 net.cpp:425] inception_3a/relu_3x3 <- inception_3a/3x3
2016-07-14 23:35:22.244 STDERR [INFO] I0714 23:35:22.243841  5918 net.cpp:386] inception_3a/relu_3x3 -> inception_3a/3x3 (in-place)
2016-07-14 23:35:22.244 STDERR [INFO] I0714 23:35:22.244093  5922 net.cpp:141] Setting up inception_3a/3x3
2016-07-14 23:35:22.244 STDERR [INFO] I0714 23:35:22.244109  5922 net.cpp:148] Top shape: 10 128 28 28 (1003520)
2016-07-14 23:35:22.244 STDERR [INFO] I0714 23:35:22.244114  5922 net.cpp:156] Memory required for data: 218767360
2016-07-14 23:35:22.244 STDERR [INFO] I0714 23:35:22.244123  5922 layer_factory.hpp:77] Creating layer inception_3a/relu_3x3
2016-07-14 23:35:22.244 STDERR [INFO] I0714 23:35:22.244132  5922 net.cpp:91] Creating Layer inception_3a/relu_3x3
2016-07-14 23:35:22.244 STDERR [INFO] I0714 23:35:22.244138  5922 net.cpp:425] inception_3a/relu_3x3 <- inception_3a/3x3
2016-07-14 23:35:22.244 STDERR [INFO] I0714 23:35:22.244144  5922 net.cpp:386] inception_3a/relu_3x3 -> inception_3a/3x3 (in-place)
2016-07-14 23:35:22.244 STDERR [INFO] I0714 23:35:22.244146  5918 net.cpp:141] Setting up inception_3a/relu_3x3
2016-07-14 23:35:22.244 STDERR [INFO] I0714 23:35:22.244160  5918 net.cpp:148] Top shape: 10 128 28 28 (1003520)
2016-07-14 23:35:22.244 STDERR [INFO] I0714 23:35:22.244165  5918 net.cpp:156] Memory required for data: 222781440
2016-07-14 23:35:22.244 STDERR [INFO] I0714 23:35:22.244170  5918 layer_factory.hpp:77] Creating layer inception_3a/5x5_reduce
2016-07-14 23:35:22.244 STDERR [INFO] I0714 23:35:22.244184  5918 net.cpp:91] Creating Layer inception_3a/5x5_reduce
2016-07-14 23:35:22.244 STDERR [INFO] I0714 23:35:22.244189  5918 net.cpp:425] inception_3a/5x5_reduce <- pool2/3x3_s2_pool2/3x3_s2_0_split_2
2016-07-14 23:35:22.244 STDERR [INFO] I0714 23:35:22.244200  5918 net.cpp:399] inception_3a/5x5_reduce -> inception_3a/5x5_reduce
2016-07-14 23:35:22.245 STDERR [INFO] I0714 23:35:22.245298  5922 net.cpp:141] Setting up inception_3a/relu_3x3
2016-07-14 23:35:22.245 STDERR [INFO] I0714 23:35:22.245314  5922 net.cpp:148] Top shape: 10 128 28 28 (1003520)
2016-07-14 23:35:22.245 STDERR [INFO] I0714 23:35:22.245332  5922 net.cpp:156] Memory required for data: 222781440
2016-07-14 23:35:22.245 STDERR [INFO] I0714 23:35:22.245337  5922 layer_factory.hpp:77] Creating layer inception_3a/5x5_reduce
2016-07-14 23:35:22.245 STDERR [INFO] I0714 23:35:22.245352  5922 net.cpp:91] Creating Layer inception_3a/5x5_reduce
2016-07-14 23:35:22.245 STDERR [INFO] I0714 23:35:22.245358  5922 net.cpp:425] inception_3a/5x5_reduce <- pool2/3x3_s2_pool2/3x3_s2_0_split_2
2016-07-14 23:35:22.245 STDERR [INFO] I0714 23:35:22.245368  5922 net.cpp:399] inception_3a/5x5_reduce -> inception_3a/5x5_reduce
2016-07-14 23:35:22.247 STDERR [INFO] I0714 23:35:22.247613  5918 net.cpp:141] Setting up inception_3a/5x5_reduce
2016-07-14 23:35:22.247 STDERR [INFO] I0714 23:35:22.247630  5918 net.cpp:148] Top shape: 10 16 28 28 (125440)
2016-07-14 23:35:22.247 STDERR [INFO] I0714 23:35:22.247635  5918 net.cpp:156] Memory required for data: 223283200
2016-07-14 23:35:22.247 STDERR [INFO] I0714 23:35:22.247644  5918 layer_factory.hpp:77] Creating layer inception_3a/relu_5x5_reduce
2016-07-14 23:35:22.247 STDERR [INFO] I0714 23:35:22.247656  5918 net.cpp:91] Creating Layer inception_3a/relu_5x5_reduce
2016-07-14 23:35:22.247 STDERR [INFO] I0714 23:35:22.247663  5918 net.cpp:425] inception_3a/relu_5x5_reduce <- inception_3a/5x5_reduce
2016-07-14 23:35:22.247 STDERR [INFO] I0714 23:35:22.247670  5918 net.cpp:386] inception_3a/relu_5x5_reduce -> inception_3a/5x5_reduce (in-place)
2016-07-14 23:35:22.248 STDERR [INFO] I0714 23:35:22.248605  5918 net.cpp:141] Setting up inception_3a/relu_5x5_reduce
2016-07-14 23:35:22.248 STDERR [INFO] I0714 23:35:22.248631  5918 net.cpp:148] Top shape: 10 16 28 28 (125440)
2016-07-14 23:35:22.248 STDERR [INFO] I0714 23:35:22.248636  5918 net.cpp:156] Memory required for data: 223784960
2016-07-14 23:35:22.248 STDERR [INFO] I0714 23:35:22.248641  5918 layer_factory.hpp:77] Creating layer inception_3a/5x5
2016-07-14 23:35:22.248 STDERR [INFO] I0714 23:35:22.248661  5918 net.cpp:91] Creating Layer inception_3a/5x5
2016-07-14 23:35:22.248 STDERR [INFO] I0714 23:35:22.248667  5918 net.cpp:425] inception_3a/5x5 <- inception_3a/5x5_reduce
2016-07-14 23:35:22.249 STDERR [INFO] I0714 23:35:22.248677  5918 net.cpp:399] inception_3a/5x5 -> inception_3a/5x5
2016-07-14 23:35:22.249 STDERR [INFO] I0714 23:35:22.249821  5922 net.cpp:141] Setting up inception_3a/5x5_reduce
2016-07-14 23:35:22.249 STDERR [INFO] I0714 23:35:22.249837  5922 net.cpp:148] Top shape: 10 16 28 28 (125440)
2016-07-14 23:35:22.250 STDERR [INFO] I0714 23:35:22.249842  5922 net.cpp:156] Memory required for data: 223283200
2016-07-14 23:35:22.250 STDERR [INFO] I0714 23:35:22.249851  5922 layer_factory.hpp:77] Creating layer inception_3a/relu_5x5_reduce
2016-07-14 23:35:22.250 STDERR [INFO] I0714 23:35:22.249864  5922 net.cpp:91] Creating Layer inception_3a/relu_5x5_reduce
2016-07-14 23:35:22.250 STDERR [INFO] I0714 23:35:22.249871  5922 net.cpp:425] inception_3a/relu_5x5_reduce <- inception_3a/5x5_reduce
2016-07-14 23:35:22.250 STDERR [INFO] I0714 23:35:22.249877  5922 net.cpp:386] inception_3a/relu_5x5_reduce -> inception_3a/5x5_reduce (in-place)
2016-07-14 23:35:22.251 STDERR [INFO] I0714 23:35:22.251433  5922 net.cpp:141] Setting up inception_3a/relu_5x5_reduce
2016-07-14 23:35:22.251 STDERR [INFO] I0714 23:35:22.251447  5922 net.cpp:148] Top shape: 10 16 28 28 (125440)
2016-07-14 23:35:22.251 STDERR [INFO] I0714 23:35:22.251464  5922 net.cpp:156] Memory required for data: 223784960
2016-07-14 23:35:22.251 STDERR [INFO] I0714 23:35:22.251469  5922 layer_factory.hpp:77] Creating layer inception_3a/5x5
2016-07-14 23:35:22.251 STDERR [INFO] I0714 23:35:22.251485  5922 net.cpp:91] Creating Layer inception_3a/5x5
2016-07-14 23:35:22.251 STDERR [INFO] I0714 23:35:22.251492  5922 net.cpp:425] inception_3a/5x5 <- inception_3a/5x5_reduce
2016-07-14 23:35:22.251 STDERR [INFO] I0714 23:35:22.251504  5922 net.cpp:399] inception_3a/5x5 -> inception_3a/5x5
2016-07-14 23:35:22.254 STDERR [INFO] I0714 23:35:22.254160  5918 net.cpp:141] Setting up inception_3a/5x5
2016-07-14 23:35:22.254 STDERR [INFO] I0714 23:35:22.254178  5918 net.cpp:148] Top shape: 10 32 28 28 (250880)
2016-07-14 23:35:22.254 STDERR [INFO] I0714 23:35:22.254182  5918 net.cpp:156] Memory required for data: 224788480
2016-07-14 23:35:22.254 STDERR [INFO] I0714 23:35:22.254191  5918 layer_factory.hpp:77] Creating layer inception_3a/relu_5x5
2016-07-14 23:35:22.254 STDERR [INFO] I0714 23:35:22.254201  5918 net.cpp:91] Creating Layer inception_3a/relu_5x5
2016-07-14 23:35:22.254 STDERR [INFO] I0714 23:35:22.254206  5918 net.cpp:425] inception_3a/relu_5x5 <- inception_3a/5x5
2016-07-14 23:35:22.254 STDERR [INFO] I0714 23:35:22.254216  5918 net.cpp:386] inception_3a/relu_5x5 -> inception_3a/5x5 (in-place)
2016-07-14 23:35:22.256 STDERR [INFO] I0714 23:35:22.256220  5918 net.cpp:141] Setting up inception_3a/relu_5x5
2016-07-14 23:35:22.256 STDERR [INFO] I0714 23:35:22.256238  5918 net.cpp:148] Top shape: 10 32 28 28 (250880)
2016-07-14 23:35:22.256 STDERR [INFO] I0714 23:35:22.256243  5918 net.cpp:156] Memory required for data: 225792000
2016-07-14 23:35:22.256 STDERR [INFO] I0714 23:35:22.256249  5918 layer_factory.hpp:77] Creating layer inception_3a/pool
2016-07-14 23:35:22.256 STDERR [INFO] I0714 23:35:22.256263  5918 net.cpp:91] Creating Layer inception_3a/pool
2016-07-14 23:35:22.256 STDERR [INFO] I0714 23:35:22.256269  5918 net.cpp:425] inception_3a/pool <- pool2/3x3_s2_pool2/3x3_s2_0_split_3
2016-07-14 23:35:22.256 STDERR [INFO] I0714 23:35:22.256278  5918 net.cpp:399] inception_3a/pool -> inception_3a/pool
2016-07-14 23:35:22.256 STDERR [INFO] I0714 23:35:22.256925  5922 net.cpp:141] Setting up inception_3a/5x5
2016-07-14 23:35:22.257 STDERR [INFO] I0714 23:35:22.256942  5922 net.cpp:148] Top shape: 10 32 28 28 (250880)
2016-07-14 23:35:22.257 STDERR [INFO] I0714 23:35:22.256947  5922 net.cpp:156] Memory required for data: 224788480
2016-07-14 23:35:22.257 STDERR [INFO] I0714 23:35:22.256947  5918 net.cpp:141] Setting up inception_3a/pool
2016-07-14 23:35:22.257 STDERR [INFO] I0714 23:35:22.256958  5922 layer_factory.hpp:77] Creating layer inception_3a/relu_5x5
2016-07-14 23:35:22.257 STDERR [INFO] I0714 23:35:22.256958  5918 net.cpp:148] Top shape: 10 192 28 28 (1505280)
2016-07-14 23:35:22.257 STDERR [INFO] I0714 23:35:22.256969  5918 net.cpp:156] Memory required for data: 231813120
2016-07-14 23:35:22.257 STDERR [INFO] I0714 23:35:22.256969  5922 net.cpp:91] Creating Layer inception_3a/relu_5x5
2016-07-14 23:35:22.257 STDERR [INFO] I0714 23:35:22.256978  5918 layer_factory.hpp:77] Creating layer inception_3a/pool_proj
2016-07-14 23:35:22.257 STDERR [INFO] I0714 23:35:22.256983  5922 net.cpp:425] inception_3a/relu_5x5 <- inception_3a/5x5
2016-07-14 23:35:22.257 STDERR [INFO] I0714 23:35:22.256990  5922 net.cpp:386] inception_3a/relu_5x5 -> inception_3a/5x5 (in-place)
2016-07-14 23:35:22.257 STDERR [INFO] I0714 23:35:22.256995  5918 net.cpp:91] Creating Layer inception_3a/pool_proj
2016-07-14 23:35:22.257 STDERR [INFO] I0714 23:35:22.257001  5918 net.cpp:425] inception_3a/pool_proj <- inception_3a/pool
2016-07-14 23:35:22.257 STDERR [INFO] I0714 23:35:22.257010  5918 net.cpp:399] inception_3a/pool_proj -> inception_3a/pool_proj
2016-07-14 23:35:22.258 STDERR [INFO] I0714 23:35:22.258162  5922 net.cpp:141] Setting up inception_3a/relu_5x5
2016-07-14 23:35:22.258 STDERR [INFO] I0714 23:35:22.258174  5922 net.cpp:148] Top shape: 10 32 28 28 (250880)
2016-07-14 23:35:22.258 STDERR [INFO] I0714 23:35:22.258193  5922 net.cpp:156] Memory required for data: 225792000
2016-07-14 23:35:22.258 STDERR [INFO] I0714 23:35:22.258198  5922 layer_factory.hpp:77] Creating layer inception_3a/pool
2016-07-14 23:35:22.258 STDERR [INFO] I0714 23:35:22.258208  5922 net.cpp:91] Creating Layer inception_3a/pool
2016-07-14 23:35:22.258 STDERR [INFO] I0714 23:35:22.258213  5922 net.cpp:425] inception_3a/pool <- pool2/3x3_s2_pool2/3x3_s2_0_split_3
2016-07-14 23:35:22.258 STDERR [INFO] I0714 23:35:22.258220  5922 net.cpp:399] inception_3a/pool -> inception_3a/pool
2016-07-14 23:35:22.258 STDERR [INFO] I0714 23:35:22.258364  5922 net.cpp:141] Setting up inception_3a/pool
2016-07-14 23:35:22.258 STDERR [INFO] I0714 23:35:22.258375  5922 net.cpp:148] Top shape: 10 192 28 28 (1505280)
2016-07-14 23:35:22.258 STDERR [INFO] I0714 23:35:22.258379  5922 net.cpp:156] Memory required for data: 231813120
2016-07-14 23:35:22.258 STDERR [INFO] I0714 23:35:22.258383  5922 layer_factory.hpp:77] Creating layer inception_3a/pool_proj
2016-07-14 23:35:22.258 STDERR [INFO] I0714 23:35:22.258399  5922 net.cpp:91] Creating Layer inception_3a/pool_proj
2016-07-14 23:35:22.258 STDERR [INFO] I0714 23:35:22.258404  5922 net.cpp:425] inception_3a/pool_proj <- inception_3a/pool
2016-07-14 23:35:22.258 STDERR [INFO] I0714 23:35:22.258415  5922 net.cpp:399] inception_3a/pool_proj -> inception_3a/pool_proj
2016-07-14 23:35:22.261 STDERR [INFO] I0714 23:35:22.260927  5918 net.cpp:141] Setting up inception_3a/pool_proj
2016-07-14 23:35:22.261 STDERR [INFO] I0714 23:35:22.260957  5918 net.cpp:148] Top shape: 10 32 28 28 (250880)
2016-07-14 23:35:22.261 STDERR [INFO] I0714 23:35:22.260962  5918 net.cpp:156] Memory required for data: 232816640
2016-07-14 23:35:22.261 STDERR [INFO] I0714 23:35:22.260977  5918 layer_factory.hpp:77] Creating layer inception_3a/relu_pool_proj
2016-07-14 23:35:22.261 STDERR [INFO] I0714 23:35:22.260987  5918 net.cpp:91] Creating Layer inception_3a/relu_pool_proj
2016-07-14 23:35:22.261 STDERR [INFO] I0714 23:35:22.260993  5918 net.cpp:425] inception_3a/relu_pool_proj <- inception_3a/pool_proj
2016-07-14 23:35:22.261 STDERR [INFO] I0714 23:35:22.261000  5918 net.cpp:386] inception_3a/relu_pool_proj -> inception_3a/pool_proj (in-place)
2016-07-14 23:35:22.262 STDERR [INFO] I0714 23:35:22.261982  5918 net.cpp:141] Setting up inception_3a/relu_pool_proj
2016-07-14 23:35:22.262 STDERR [INFO] I0714 23:35:22.261996  5918 net.cpp:148] Top shape: 10 32 28 28 (250880)
2016-07-14 23:35:22.262 STDERR [INFO] I0714 23:35:22.262013  5918 net.cpp:156] Memory required for data: 233820160
2016-07-14 23:35:22.262 STDERR [INFO] I0714 23:35:22.262018  5918 layer_factory.hpp:77] Creating layer inception_3a/output
2016-07-14 23:35:22.262 STDERR [INFO] I0714 23:35:22.262037  5918 net.cpp:91] Creating Layer inception_3a/output
2016-07-14 23:35:22.262 STDERR [INFO] I0714 23:35:22.262042  5918 net.cpp:425] inception_3a/output <- inception_3a/1x1
2016-07-14 23:35:22.262 STDERR [INFO] I0714 23:35:22.262048  5918 net.cpp:425] inception_3a/output <- inception_3a/3x3
2016-07-14 23:35:22.262 STDERR [INFO] I0714 23:35:22.262053  5918 net.cpp:425] inception_3a/output <- inception_3a/5x5
2016-07-14 23:35:22.262 STDERR [INFO] I0714 23:35:22.262058  5918 net.cpp:425] inception_3a/output <- inception_3a/pool_proj
2016-07-14 23:35:22.262 STDERR [INFO] I0714 23:35:22.262065  5918 net.cpp:399] inception_3a/output -> inception_3a/output
2016-07-14 23:35:22.262 STDERR [INFO] I0714 23:35:22.262173  5918 net.cpp:141] Setting up inception_3a/output
2016-07-14 23:35:22.262 STDERR [INFO] I0714 23:35:22.262184  5918 net.cpp:148] Top shape: 10 256 28 28 (2007040)
2016-07-14 23:35:22.262 STDERR [INFO] I0714 23:35:22.262188  5918 net.cpp:156] Memory required for data: 241848320
2016-07-14 23:35:22.262 STDERR [INFO] I0714 23:35:22.262193  5918 layer_factory.hpp:77] Creating layer inception_3a/output_inception_3a/output_0_split
2016-07-14 23:35:22.262 STDERR [INFO] I0714 23:35:22.262195  5922 net.cpp:141] Setting up inception_3a/pool_proj
2016-07-14 23:35:22.262 STDERR [INFO] I0714 23:35:22.262202  5918 net.cpp:91] Creating Layer inception_3a/output_inception_3a/output_0_split
2016-07-14 23:35:22.262 STDERR [INFO] I0714 23:35:22.262212  5918 net.cpp:425] inception_3a/output_inception_3a/output_0_split <- inception_3a/output
2016-07-14 23:35:22.262 STDERR [INFO] I0714 23:35:22.262217  5922 net.cpp:148] Top shape: 10 32 28 28 (250880)
2016-07-14 23:35:22.262 STDERR [INFO] I0714 23:35:22.262223  5922 net.cpp:156] Memory required for data: 232816640
2016-07-14 23:35:22.262 STDERR [INFO] I0714 23:35:22.262223  5918 net.cpp:399] inception_3a/output_inception_3a/output_0_split -> inception_3a/output_inception_3a/output_0_split_0
2016-07-14 23:35:22.262 STDERR [INFO] I0714 23:35:22.262233  5918 net.cpp:399] inception_3a/output_inception_3a/output_0_split -> inception_3a/output_inception_3a/output_0_split_1
…
2016-07-14 23:35:22.263 STDERR [INFO] I0714 23:35:22.262249  5918 net.cpp:399] inception_3a/output_inception_3a/output_0_split -> inception_3a/output_inception_3a/output_0_split_3
2016-07-14 23:35:22.263 STDERR [INFO] I0714 23:35:22.262253  5922 net.cpp:425] inception_3a/relu_pool_proj <- inception_3a/pool_proj
2016-07-14 23:35:22.263 STDERR [INFO] I0714 23:35:22.262259  5922 net.cpp:386] inception_3a/relu_pool_proj -> inception_3a/pool_proj (in-place)
2016-07-14 23:35:22.263 STDERR [INFO] I0714 23:35:22.262995  5918 net.cpp:141] Setting up inception_3a/output_inception_3a/output_0_split
2016-07-14 23:35:22.263 STDERR [INFO] I0714 23:35:22.263008  5918 net.cpp:148] Top shape: 10 256 28 28 (2007040)
2016-07-14 23:35:22.263 STDERR [INFO] I0714 23:35:22.263015  5918 net.cpp:148] Top shape: 10 256 28 28 (2007040)
2016-07-14 23:35:22.263 STDERR [INFO] I0714 23:35:22.263020  5918 net.cpp:148] Top shape: 10 256 28 28 (2007040)
2016-07-14 23:35:22.263 STDERR [INFO] I0714 23:35:22.263025  5918 net.cpp:148] Top shape: 10 256 28 28 (2007040)
2016-07-14 23:35:22.263 STDERR [INFO] I0714 23:35:22.263028  5918 net.cpp:156] Memory required for data: 273960960
2016-07-14 23:35:22.263 STDERR [INFO] I0714 23:35:22.263032  5918 layer_factory.hpp:77] Creating layer inception_3b/1x1
2016-07-14 23:35:22.263 STDERR [INFO] I0714 23:35:22.263056  5918 net.cpp:91] Creating Layer inception_3b/1x1
2016-07-14 23:35:22.263 STDERR [INFO] I0714 23:35:22.263062  5918 net.cpp:425] inception_3b/1x1 <- inception_3a/output_inception_3a/output_0_split_0
2016-07-14 23:35:22.263 STDERR [INFO] I0714 23:35:22.263069  5918 net.cpp:399] inception_3b/1x1 -> inception_3b/1x1
2016-07-14 23:35:22.263 STDERR [INFO] I0714 23:35:22.263084  5922 net.cpp:141] Setting up inception_3a/relu_pool_proj
2016-07-14 23:35:22.263 STDERR [INFO] I0714 23:35:22.263098  5922 net.cpp:148] Top shape: 10 32 28 28 (250880)
2016-07-14 23:35:22.263 STDERR [INFO] I0714 23:35:22.263104  5922 net.cpp:156] Memory required for data: 233820160
2016-07-14 23:35:22.263 STDERR [INFO] I0714 23:35:22.263109  5922 layer_factory.hpp:77] Creating layer inception_3a/output
2016-07-14 23:35:22.263 STDERR [INFO] I0714 23:35:22.263118  5922 net.cpp:91] Creating Layer inception_3a/output
2016-07-14 23:35:22.263 STDERR [INFO] I0714 23:35:22.263123  5922 net.cpp:425] inception_3a/output <- inception_3a/1x1
2016-07-14 23:35:22.263 STDERR [INFO] I0714 23:35:22.263128  5922 net.cpp:425] inception_3a/output <- inception_3a/3x3
2016-07-14 23:35:22.263 STDERR [INFO] I0714 23:35:22.263134  5922 net.cpp:425] inception_3a/output <- inception_3a/5x5
2016-07-14 23:35:22.263 STDERR [INFO] I0714 23:35:22.263139  5922 net.cpp:425] inception_3a/output <- inception_3a/pool_proj
2016-07-14 23:35:22.263 STDERR [INFO] I0714 23:35:22.263144  5922 net.cpp:399] inception_3a/output -> inception_3a/output
2016-07-14 23:35:22.263 STDERR [INFO] I0714 23:35:22.263264  5922 net.cpp:141] Setting up inception_3a/output
2016-07-14 23:35:22.264 STDERR [INFO] I0714 23:35:22.263276  5922 net.cpp:148] Top shape: 10 256 28 28 (2007040)
2016-07-14 23:35:22.264 STDERR [INFO] I0714 23:35:22.263280  5922 net.cpp:156] Memory required for data: 241848320
2016-07-14 23:35:22.264 STDERR [INFO] I0714 23:35:22.263284  5922 layer_factory.hpp:77] Creating layer inception_3a/output_inception_3a/output_0_split
2016-07-14 23:35:22.264 STDERR [INFO] I0714 23:35:22.263293  5922 net.cpp:91] Creating Layer inception_3a/output_inception_3a/output_0_split
…
2016-07-14 23:35:22.264 STDERR [INFO] I0714 23:35:22.263319  5922 net.cpp:399] inception_3a/output_inception_3a/output_0_split -> inception_3a/output_inception_3a/output_0_split_1
2016-07-14 23:35:22.264 STDERR [INFO] I0714 23:35:22.263327  5922 net.cpp:399] inception_3a/output_inception_3a/output_0_split -> inception_3a/output_inception_3a/output_0_split_2
2016-07-14 23:35:22.264 STDERR [INFO] I0714 23:35:22.263334  5922 net.cpp:399] inception_3a/output_inception_3a/output_0_split -> inception_3a/output_inception_3a/output_0_split_3
2016-07-14 23:35:22.264 STDERR [INFO] I0714 23:35:22.263423  5922 net.cpp:141] Setting up inception_3a/output_inception_3a/output_0_split
2016-07-14 23:35:22.264 STDERR [INFO] I0714 23:35:22.263432  5922 net.cpp:148] Top shape: 10 256 28 28 (2007040)
2016-07-14 23:35:22.264 STDERR [INFO] I0714 23:35:22.263438  5922 net.cpp:148] Top shape: 10 256 28 28 (2007040)
2016-07-14 23:35:22.264 STDERR [INFO] I0714 23:35:22.263443  5922 net.cpp:148] Top shape: 10 256 28 28 (2007040)
2016-07-14 23:35:22.264 STDERR [INFO] I0714 23:35:22.263448  5922 net.cpp:148] Top shape: 10 256 28 28 (2007040)
2016-07-14 23:35:22.264 STDERR [INFO] I0714 23:35:22.263453  5922 net.cpp:156] Memory required for data: 273960960
2016-07-14 23:35:22.264 STDERR [INFO] I0714 23:35:22.263456  5922 layer_factory.hpp:77] Creating layer inception_3b/1x1
2016-07-14 23:35:22.264 STDERR [INFO] I0714 23:35:22.263471  5922 net.cpp:91] Creating Layer inception_3b/1x1
2016-07-14 23:35:22.264 STDERR [INFO] I0714 23:35:22.263476  5922 net.cpp:425] inception_3b/1x1 <- inception_3a/output_inception_3a/output_0_split_0
2016-07-14 23:35:22.264 STDERR [INFO] I0714 23:35:22.263484  5922 net.cpp:399] inception_3b/1x1 -> inception_3b/1x1
2016-07-14 23:35:22.267 STDERR [INFO] I0714 23:35:22.267138  5918 net.cpp:141] Setting up inception_3b/1x1
2016-07-14 23:35:22.267 STDERR [INFO] I0714 23:35:22.267154  5918 net.cpp:148] Top shape: 10 128 28 28 (1003520)
2016-07-14 23:35:22.267 STDERR [INFO] I0714 23:35:22.267159  5918 net.cpp:156] Memory required for data: 277975040
2016-07-14 23:35:22.267 STDERR [INFO] I0714 23:35:22.267169  5918 layer_factory.hpp:77] Creating layer inception_3b/relu_1x1
2016-07-14 23:35:22.267 STDERR [INFO] I0714 23:35:22.267181  5918 net.cpp:91] Creating Layer inception_3b/relu_1x1
2016-07-14 23:35:22.267 STDERR [INFO] I0714 23:35:22.267187  5918 net.cpp:425] inception_3b/relu_1x1 <- inception_3b/1x1
2016-07-14 23:35:22.267 STDERR [INFO] I0714 23:35:22.267194  5918 net.cpp:386] inception_3b/relu_1x1 -> inception_3b/1x1 (in-place)
2016-07-14 23:35:22.267 STDERR [INFO] I0714 23:35:22.267803  5922 net.cpp:141] Setting up inception_3b/1x1
2016-07-14 23:35:22.267 STDERR [INFO] I0714 23:35:22.267832  5922 net.cpp:148] Top shape: 10 128 28 28 (1003520)
2016-07-14 23:35:22.268 STDERR [INFO] I0714 23:35:22.267837  5922 net.cpp:156] Memory required for data: 277975040
2016-07-14 23:35:22.268 STDERR [INFO] I0714 23:35:22.267848  5922 layer_factory.hpp:77] Creating layer inception_3b/relu_1x1
2016-07-14 23:35:22.268 STDERR [INFO] I0714 23:35:22.267856  5922 net.cpp:91] Creating Layer inception_3b/relu_1x1
2016-07-14 23:35:22.268 STDERR [INFO] I0714 23:35:22.267861  5922 net.cpp:425] inception_3b/relu_1x1 <- inception_3b/1x1
2016-07-14 23:35:22.268 STDERR [INFO] I0714 23:35:22.267870  5922 net.cpp:386] inception_3b/relu_1x1 -> inception_3b/1x1 (in-place)
2016-07-14 23:35:22.268 STDERR [INFO] I0714 23:35:22.268290  5922 net.cpp:141] Setting up inception_3b/relu_1x1
2016-07-14 23:35:22.268 STDERR [INFO] I0714 23:35:22.268304  5922 net.cpp:148] Top shape: 10 128 28 28 (1003520)
2016-07-14 23:35:22.268 STDERR [INFO] I0714 23:35:22.268308  5922 net.cpp:156] Memory required for data: 281989120
2016-07-14 23:35:22.268 STDERR [INFO] I0714 23:35:22.268313  5922 layer_factory.hpp:77] Creating layer inception_3b/3x3_reduce
2016-07-14 23:35:22.269 STDERR [INFO] I0714 23:35:22.268313  5918 net.cpp:141] Setting up inception_3b/relu_1x1
2016-07-14 23:35:22.269 STDERR [INFO] I0714 23:35:22.268327  5918 net.cpp:148] Top shape: 10 128 28 28 (1003520)
2016-07-14 23:35:22.269 STDERR [INFO] I0714 23:35:22.268329  5922 net.cpp:91] Creating Layer inception_3b/3x3_reduce
2016-07-14 23:35:22.269 STDERR [INFO] I0714 23:35:22.268332  5918 net.cpp:156] Memory required for data: 281989120
2016-07-14 23:35:22.269 STDERR [INFO] I0714 23:35:22.268339  5922 net.cpp:425] inception_3b/3x3_reduce <- inception_3a/output_inception_3a/output_0_split_1
2016-07-14 23:35:22.269 STDERR [INFO] I0714 23:35:22.268343  5918 layer_factory.hpp:77] Creating layer inception_3b/3x3_reduce
2016-07-14 23:35:22.269 STDERR [INFO] I0714 23:35:22.268349  5922 net.cpp:399] inception_3b/3x3_reduce -> inception_3b/3x3_reduce
2016-07-14 23:35:22.269 STDERR [INFO] I0714 23:35:22.268362  5918 net.cpp:91] Creating Layer inception_3b/3x3_reduce
2016-07-14 23:35:22.269 STDERR [INFO] I0714 23:35:22.268368  5918 net.cpp:425] inception_3b/3x3_reduce <- inception_3a/output_inception_3a/output_0_split_1
2016-07-14 23:35:22.269 STDERR [INFO] I0714 23:35:22.268376  5918 net.cpp:399] inception_3b/3x3_reduce -> inception_3b/3x3_reduce
2016-07-14 23:35:22.272 STDERR [INFO] I0714 23:35:22.272786  5918 net.cpp:141] Setting up inception_3b/3x3_reduce
2016-07-14 23:35:22.272 STDERR [INFO] I0714 23:35:22.272815  5918 net.cpp:148] Top shape: 10 128 28 28 (1003520)
2016-07-14 23:35:22.273 STDERR [INFO] I0714 23:35:22.272821  5918 net.cpp:156] Memory required for data: 286003200
2016-07-14 23:35:22.273 STDERR [INFO] I0714 23:35:22.272830  5918 layer_factory.hpp:77] Creating layer inception_3b/relu_3x3_reduce
2016-07-14 23:35:22.273 STDERR [INFO] I0714 23:35:22.272842  5918 net.cpp:91] Creating Layer inception_3b/relu_3x3_reduce
2016-07-14 23:35:22.273 STDERR [INFO] I0714 23:35:22.272848  5918 net.cpp:425] inception_3b/relu_3x3_reduce <- inception_3b/3x3_reduce
2016-07-14 23:35:22.273 STDERR [INFO] I0714 23:35:22.272856  5918 net.cpp:386] inception_3b/relu_3x3_reduce -> inception_3b/3x3_reduce (in-place)
2016-07-14 23:35:22.273 STDERR [INFO] I0714 23:35:22.273629  5922 net.cpp:141] Setting up inception_3b/3x3_reduce
2016-07-14 23:35:22.273 STDERR [INFO] I0714 23:35:22.273645  5922 net.cpp:148] Top shape: 10 128 28 28 (1003520)
2016-07-14 23:35:22.273 STDERR [INFO] I0714 23:35:22.273650  5922 net.cpp:156] Memory required for data: 286003200
2016-07-14 23:35:22.273 STDERR [INFO] I0714 23:35:22.273659  5922 layer_factory.hpp:77] Creating layer inception_3b/relu_3x3_reduce
2016-07-14 23:35:22.273 STDERR [INFO] I0714 23:35:22.273669  5922 net.cpp:91] Creating Layer inception_3b/relu_3x3_reduce
2016-07-14 23:35:22.273 STDERR [INFO] I0714 23:35:22.273675  5922 net.cpp:425] inception_3b/relu_3x3_reduce <- inception_3b/3x3_reduce
2016-07-14 23:35:22.273 STDERR [INFO] I0714 23:35:22.273682  5922 net.cpp:386] inception_3b/relu_3x3_reduce -> inception_3b/3x3_reduce (in-place)
2016-07-14 23:35:22.274 STDERR [INFO] I0714 23:35:22.273686  5918 net.cpp:141] Setting up inception_3b/relu_3x3_reduce
2016-07-14 23:35:22.274 STDERR [INFO] I0714 23:35:22.273699  5918 net.cpp:148] Top shape: 10 128 28 28 (1003520)
2016-07-14 23:35:22.274 STDERR [INFO] I0714 23:35:22.273705  5918 net.cpp:156] Memory required for data: 290017280
2016-07-14 23:35:22.274 STDERR [INFO] I0714 23:35:22.273710  5918 layer_factory.hpp:77] Creating layer inception_3b/3x3
2016-07-14 23:35:22.274 STDERR [INFO] I0714 23:35:22.273728  5918 net.cpp:91] Creating Layer inception_3b/3x3
2016-07-14 23:35:22.274 STDERR [INFO] I0714 23:35:22.273735  5918 net.cpp:425] inception_3b/3x3 <- inception_3b/3x3_reduce
2016-07-14 23:35:22.274 STDERR [INFO] I0714 23:35:22.273743  5918 net.cpp:399] inception_3b/3x3 -> inception_3b/3x3
2016-07-14 23:35:22.275 STDERR [INFO] I0714 23:35:22.275159  5922 net.cpp:141] Setting up inception_3b/relu_3x3_reduce
2016-07-14 23:35:22.275 STDERR [INFO] I0714 23:35:22.275187  5922 net.cpp:148] Top shape: 10 128 28 28 (1003520)
2016-07-14 23:35:22.275 STDERR [INFO] I0714 23:35:22.275192  5922 net.cpp:156] Memory required for data: 290017280
2016-07-14 23:35:22.275 STDERR [INFO] I0714 23:35:22.275197  5922 layer_factory.hpp:77] Creating layer inception_3b/3x3
2016-07-14 23:35:22.275 STDERR [INFO] I0714 23:35:22.275210  5922 net.cpp:91] Creating Layer inception_3b/3x3
2016-07-14 23:35:22.275 STDERR [INFO] I0714 23:35:22.275216  5922 net.cpp:425] inception_3b/3x3 <- inception_3b/3x3_reduce
2016-07-14 23:35:22.275 STDERR [INFO] I0714 23:35:22.275225  5922 net.cpp:399] inception_3b/3x3 -> inception_3b/3x3
2016-07-14 23:35:22.280 STDERR [INFO] I0714 23:35:22.280359  5918 net.cpp:141] Setting up inception_3b/3x3
2016-07-14 23:35:22.280 STDERR [INFO] I0714 23:35:22.280388  5918 net.cpp:148] Top shape: 10 192 28 28 (1505280)
2016-07-14 23:35:22.280 STDERR [INFO] I0714 23:35:22.280395  5918 net.cpp:156] Memory required for data: 296038400
2016-07-14 23:35:22.280 STDERR [INFO] I0714 23:35:22.280403  5918 layer_factory.hpp:77] Creating layer inception_3b/relu_3x3
2016-07-14 23:35:22.280 STDERR [INFO] I0714 23:35:22.280423  5918 net.cpp:91] Creating Layer inception_3b/relu_3x3
2016-07-14 23:35:22.280 STDERR [INFO] I0714 23:35:22.280431  5918 net.cpp:425] inception_3b/relu_3x3 <- inception_3b/3x3
2016-07-14 23:35:22.280 STDERR [INFO] I0714 23:35:22.280439  5918 net.cpp:386] inception_3b/relu_3x3 -> inception_3b/3x3 (in-place)
2016-07-14 23:35:22.281 STDERR [INFO] I0714 23:35:22.281488  5918 net.cpp:141] Setting up inception_3b/relu_3x3
2016-07-14 23:35:22.281 STDERR [INFO] I0714 23:35:22.281513  5918 net.cpp:148] Top shape: 10 192 28 28 (1505280)
2016-07-14 23:35:22.281 STDERR [INFO] I0714 23:35:22.281519  5918 net.cpp:156] Memory required for data: 302059520
2016-07-14 23:35:22.281 STDERR [INFO] I0714 23:35:22.281524  5918 layer_factory.hpp:77] Creating layer inception_3b/5x5_reduce
2016-07-14 23:35:22.281 STDERR [INFO] I0714 23:35:22.281543  5918 net.cpp:91] Creating Layer inception_3b/5x5_reduce
2016-07-14 23:35:22.281 STDERR [INFO] I0714 23:35:22.281548  5918 net.cpp:425] inception_3b/5x5_reduce <- inception_3a/output_inception_3a/output_0_split_2
2016-07-14 23:35:22.281 STDERR [INFO] I0714 23:35:22.281558  5918 net.cpp:399] inception_3b/5x5_reduce -> inception_3b/5x5_reduce
2016-07-14 23:35:22.281 STDERR [INFO] I0714 23:35:22.281747  5922 net.cpp:141] Setting up inception_3b/3x3
2016-07-14 23:35:22.281 STDERR [INFO] I0714 23:35:22.281762  5922 net.cpp:148] Top shape: 10 192 28 28 (1505280)
2016-07-14 23:35:22.281 STDERR [INFO] I0714 23:35:22.281766  5922 net.cpp:156] Memory required for data: 296038400
2016-07-14 23:35:22.282 STDERR [INFO] I0714 23:35:22.281775  5922 layer_factory.hpp:77] Creating layer inception_3b/relu_3x3
2016-07-14 23:35:22.282 STDERR [INFO] I0714 23:35:22.281791  5922 net.cpp:91] Creating Layer inception_3b/relu_3x3
2016-07-14 23:35:22.282 STDERR [INFO] I0714 23:35:22.281798  5922 net.cpp:425] inception_3b/relu_3x3 <- inception_3b/3x3
2016-07-14 23:35:22.282 STDERR [INFO] I0714 23:35:22.281807  5922 net.cpp:386] inception_3b/relu_3x3 -> inception_3b/3x3 (in-place)
2016-07-14 23:35:22.282 STDERR [INFO] I0714 23:35:22.282871  5922 net.cpp:141] Setting up inception_3b/relu_3x3
2016-07-14 23:35:22.283 STDERR [INFO] I0714 23:35:22.282886  5922 net.cpp:148] Top shape: 10 192 28 28 (1505280)
2016-07-14 23:35:22.283 STDERR [INFO] I0714 23:35:22.282891  5922 net.cpp:156] Memory required for data: 302059520
2016-07-14 23:35:22.283 STDERR [INFO] I0714 23:35:22.282896  5922 layer_factory.hpp:77] Creating layer inception_3b/5x5_reduce
2016-07-14 23:35:22.283 STDERR [INFO] I0714 23:35:22.282909  5922 net.cpp:91] Creating Layer inception_3b/5x5_reduce
2016-07-14 23:35:22.283 STDERR [INFO] I0714 23:35:22.282915  5922 net.cpp:425] inception_3b/5x5_reduce <- inception_3a/output_inception_3a/output_0_split_2
2016-07-14 23:35:22.283 STDERR [INFO] I0714 23:35:22.282927  5922 net.cpp:399] inception_3b/5x5_reduce -> inception_3b/5x5_reduce
2016-07-14 23:35:22.285 STDERR [INFO] I0714 23:35:22.285899  5918 net.cpp:141] Setting up inception_3b/5x5_reduce
2016-07-14 23:35:22.286 STDERR [INFO] I0714 23:35:22.285915  5918 net.cpp:148] Top shape: 10 32 28 28 (250880)
2016-07-14 23:35:22.286 STDERR [INFO] I0714 23:35:22.285933  5918 net.cpp:156] Memory required for data: 303063040
2016-07-14 23:35:22.286 STDERR [INFO] I0714 23:35:22.285943  5918 layer_factory.hpp:77] Creating layer inception_3b/relu_5x5_reduce
2016-07-14 23:35:22.286 STDERR [INFO] I0714 23:35:22.285960  5918 net.cpp:91] Creating Layer inception_3b/relu_5x5_reduce
2016-07-14 23:35:22.286 STDERR [INFO] I0714 23:35:22.285966  5918 net.cpp:425] inception_3b/relu_5x5_reduce <- inception_3b/5x5_reduce
2016-07-14 23:35:22.286 STDERR [INFO] I0714 23:35:22.285974  5918 net.cpp:386] inception_3b/relu_5x5_reduce -> inception_3b/5x5_reduce (in-place)
2016-07-14 23:35:22.287 STDERR [INFO] I0714 23:35:22.286943  5918 net.cpp:141] Setting up inception_3b/relu_5x5_reduce
2016-07-14 23:35:22.287 STDERR [INFO] I0714 23:35:22.286957  5918 net.cpp:148] Top shape: 10 32 28 28 (250880)
2016-07-14 23:35:22.287 STDERR [INFO] I0714 23:35:22.286962  5918 net.cpp:156] Memory required for data: 304066560
2016-07-14 23:35:22.287 STDERR [INFO] I0714 23:35:22.286967  5918 layer_factory.hpp:77] Creating layer inception_3b/5x5
2016-07-14 23:35:22.287 STDERR [INFO] I0714 23:35:22.286983  5918 net.cpp:91] Creating Layer inception_3b/5x5
2016-07-14 23:35:22.287 STDERR [INFO] I0714 23:35:22.286988  5918 net.cpp:425] inception_3b/5x5 <- inception_3b/5x5_reduce
2016-07-14 23:35:22.287 STDERR [INFO] I0714 23:35:22.286999  5918 net.cpp:399] inception_3b/5x5 -> inception_3b/5x5
2016-07-14 23:35:22.287 STDERR [INFO] I0714 23:35:22.287298  5922 net.cpp:141] Setting up inception_3b/5x5_reduce
2016-07-14 23:35:22.287 STDERR [INFO] I0714 23:35:22.287312  5922 net.cpp:148] Top shape: 10 32 28 28 (250880)
2016-07-14 23:35:22.287 STDERR [INFO] I0714 23:35:22.287317  5922 net.cpp:156] Memory required for data: 303063040
2016-07-14 23:35:22.287 STDERR [INFO] I0714 23:35:22.287327  5922 layer_factory.hpp:77] Creating layer inception_3b/relu_5x5_reduce
2016-07-14 23:35:22.287 STDERR [INFO] I0714 23:35:22.287334  5922 net.cpp:91] Creating Layer inception_3b/relu_5x5_reduce
2016-07-14 23:35:22.287 STDERR [INFO] I0714 23:35:22.287340  5922 net.cpp:425] inception_3b/relu_5x5_reduce <- inception_3b/5x5_reduce
2016-07-14 23:35:22.287 STDERR [INFO] I0714 23:35:22.287346  5922 net.cpp:386] inception_3b/relu_5x5_reduce -> inception_3b/5x5_reduce (in-place)
2016-07-14 23:35:22.288 STDERR [INFO] I0714 23:35:22.288661  5922 net.cpp:141] Setting up inception_3b/relu_5x5_reduce
2016-07-14 23:35:22.288 STDERR [INFO] I0714 23:35:22.288674  5922 net.cpp:148] Top shape: 10 32 28 28 (250880)
2016-07-14 23:35:22.288 STDERR [INFO] I0714 23:35:22.288679  5922 net.cpp:156] Memory required for data: 304066560
2016-07-14 23:35:22.288 STDERR [INFO] I0714 23:35:22.288683  5922 layer_factory.hpp:77] Creating layer inception_3b/5x5
2016-07-14 23:35:22.288 STDERR [INFO] I0714 23:35:22.288699  5922 net.cpp:91] Creating Layer inception_3b/5x5
2016-07-14 23:35:22.288 STDERR [INFO] I0714 23:35:22.288704  5922 net.cpp:425] inception_3b/5x5 <- inception_3b/5x5_reduce
2016-07-14 23:35:22.289 STDERR [INFO] I0714 23:35:22.288717  5922 net.cpp:399] inception_3b/5x5 -> inception_3b/5x5
2016-07-14 23:35:22.293 STDERR [INFO] I0714 23:35:22.293052  5918 net.cpp:141] Setting up inception_3b/5x5
2016-07-14 23:35:22.293 STDERR [INFO] I0714 23:35:22.293068  5918 net.cpp:148] Top shape: 10 96 28 28 (752640)
2016-07-14 23:35:22.293 STDERR [INFO] I0714 23:35:22.293073  5918 net.cpp:156] Memory required for data: 307077120
2016-07-14 23:35:22.293 STDERR [INFO] I0714 23:35:22.293082  5918 layer_factory.hpp:77] Creating layer inception_3b/relu_5x5
2016-07-14 23:35:22.293 STDERR [INFO] I0714 23:35:22.293094  5918 net.cpp:91] Creating Layer inception_3b/relu_5x5
2016-07-14 23:35:22.293 STDERR [INFO] I0714 23:35:22.293100  5918 net.cpp:425] inception_3b/relu_5x5 <- inception_3b/5x5
2016-07-14 23:35:22.293 STDERR [INFO] I0714 23:35:22.293107  5918 net.cpp:386] inception_3b/relu_5x5 -> inception_3b/5x5 (in-place)
2016-07-14 23:35:22.294 STDERR [INFO] I0714 23:35:22.293932  5922 net.cpp:141] Setting up inception_3b/5x5
2016-07-14 23:35:22.294 STDERR [INFO] I0714 23:35:22.293951  5922 net.cpp:148] Top shape: 10 96 28 28 (752640)
2016-07-14 23:35:22.294 STDERR [INFO] I0714 23:35:22.293956  5922 net.cpp:156] Memory required for data: 307077120
2016-07-14 23:35:22.294 STDERR [INFO] I0714 23:35:22.293964  5922 layer_factory.hpp:77] Creating layer inception_3b/relu_5x5
2016-07-14 23:35:22.294 STDERR [INFO] I0714 23:35:22.293973  5922 net.cpp:91] Creating Layer inception_3b/relu_5x5
2016-07-14 23:35:22.294 STDERR [INFO] I0714 23:35:22.293978  5922 net.cpp:425] inception_3b/relu_5x5 <- inception_3b/5x5
2016-07-14 23:35:22.294 STDERR [INFO] I0714 23:35:22.293987  5922 net.cpp:386] inception_3b/relu_5x5 -> inception_3b/5x5 (in-place)
2016-07-14 23:35:22.294 STDERR [INFO] I0714 23:35:22.293990  5918 net.cpp:141] Setting up inception_3b/relu_5x5
2016-07-14 23:35:22.294 STDERR [INFO] I0714 23:35:22.294004  5918 net.cpp:148] Top shape: 10 96 28 28 (752640)
2016-07-14 23:35:22.294 STDERR [INFO] I0714 23:35:22.294008  5918 net.cpp:156] Memory required for data: 310087680
2016-07-14 23:35:22.294 STDERR [INFO] I0714 23:35:22.294014  5918 layer_factory.hpp:77] Creating layer inception_3b/pool
2016-07-14 23:35:22.294 STDERR [INFO] I0714 23:35:22.294024  5918 net.cpp:91] Creating Layer inception_3b/pool
2016-07-14 23:35:22.294 STDERR [INFO] I0714 23:35:22.294030  5918 net.cpp:425] inception_3b/pool <- inception_3a/output_inception_3a/output_0_split_3
2016-07-14 23:35:22.294 STDERR [INFO] I0714 23:35:22.294040  5918 net.cpp:399] inception_3b/pool -> inception_3b/pool
2016-07-14 23:35:22.294 STDERR [INFO] I0714 23:35:22.294219  5918 net.cpp:141] Setting up inception_3b/pool
2016-07-14 23:35:22.294 STDERR [INFO] I0714 23:35:22.294230  5918 net.cpp:148] Top shape: 10 256 28 28 (2007040)
2016-07-14 23:35:22.294 STDERR [INFO] I0714 23:35:22.294234  5918 net.cpp:156] Memory required for data: 318115840
2016-07-14 23:35:22.294 STDERR [INFO] I0714 23:35:22.294239  5918 layer_factory.hpp:77] Creating layer inception_3b/pool_proj
2016-07-14 23:35:22.294 STDERR [INFO] I0714 23:35:22.294255  5918 net.cpp:91] Creating Layer inception_3b/pool_proj
2016-07-14 23:35:22.294 STDERR [INFO] I0714 23:35:22.294260  5918 net.cpp:425] inception_3b/pool_proj <- inception_3b/pool
2016-07-14 23:35:22.294 STDERR [INFO] I0714 23:35:22.294270  5918 net.cpp:399] inception_3b/pool_proj -> inception_3b/pool_proj
2016-07-14 23:35:22.294 STDERR [INFO] I0714 23:35:22.294345  5922 net.cpp:141] Setting up inception_3b/relu_5x5
2016-07-14 23:35:22.294 STDERR [INFO] I0714 23:35:22.294358  5922 net.cpp:148] Top shape: 10 96 28 28 (752640)
2016-07-14 23:35:22.294 STDERR [INFO] I0714 23:35:22.294361  5922 net.cpp:156] Memory required for data: 310087680
2016-07-14 23:35:22.294 STDERR [INFO] I0714 23:35:22.294366  5922 layer_factory.hpp:77] Creating layer inception_3b/pool
2016-07-14 23:35:22.295 STDERR [INFO] I0714 23:35:22.294378  5922 net.cpp:91] Creating Layer inception_3b/pool
2016-07-14 23:35:22.295 STDERR [INFO] I0714 23:35:22.294384  5922 net.cpp:425] inception_3b/pool <- inception_3a/output_inception_3a/output_0_split_3
2016-07-14 23:35:22.295 STDERR [INFO] I0714 23:35:22.294391  5922 net.cpp:399] inception_3b/pool -> inception_3b/pool
2016-07-14 23:35:22.295 STDERR [INFO] I0714 23:35:22.294564  5922 net.cpp:141] Setting up inception_3b/pool
2016-07-14 23:35:22.295 STDERR [INFO] I0714 23:35:22.294575  5922 net.cpp:148] Top shape: 10 256 28 28 (2007040)
2016-07-14 23:35:22.295 STDERR [INFO] I0714 23:35:22.294579  5922 net.cpp:156] Memory required for data: 318115840
2016-07-14 23:35:22.295 STDERR [INFO] I0714 23:35:22.294584  5922 layer_factory.hpp:77] Creating layer inception_3b/pool_proj
2016-07-14 23:35:22.295 STDERR [INFO] I0714 23:35:22.294597  5922 net.cpp:91] Creating Layer inception_3b/pool_proj
2016-07-14 23:35:22.295 STDERR [INFO] I0714 23:35:22.294603  5922 net.cpp:425] inception_3b/pool_proj <- inception_3b/pool
2016-07-14 23:35:22.295 STDERR [INFO] I0714 23:35:22.294615  5922 net.cpp:399] inception_3b/pool_proj -> inception_3b/pool_proj
2016-07-14 23:35:22.299 STDERR [INFO] I0714 23:35:22.299044  5922 net.cpp:141] Setting up inception_3b/pool_proj
2016-07-14 23:35:22.299 STDERR [INFO] I0714 23:35:22.299073  5922 net.cpp:148] Top shape: 10 64 28 28 (501760)
2016-07-14 23:35:22.299 STDERR [INFO] I0714 23:35:22.299078  5922 net.cpp:156] Memory required for data: 320122880
2016-07-14 23:35:22.299 STDERR [INFO] I0714 23:35:22.299088  5922 layer_factory.hpp:77] Creating layer inception_3b/relu_pool_proj
2016-07-14 23:35:22.299 STDERR [INFO] I0714 23:35:22.299095  5922 net.cpp:91] Creating Layer inception_3b/relu_pool_proj
2016-07-14 23:35:22.299 STDERR [INFO] I0714 23:35:22.299101  5922 net.cpp:425] inception_3b/relu_pool_proj <- inception_3b/pool_proj
2016-07-14 23:35:22.299 STDERR [INFO] I0714 23:35:22.299110  5922 net.cpp:386] inception_3b/relu_pool_proj -> inception_3b/pool_proj (in-place)
2016-07-14 23:35:22.299 STDERR [INFO] I0714 23:35:22.299124  5918 net.cpp:141] Setting up inception_3b/pool_proj
2016-07-14 23:35:22.299 STDERR [INFO] I0714 23:35:22.299139  5918 net.cpp:148] Top shape: 10 64 28 28 (501760)
2016-07-14 23:35:22.299 STDERR [INFO] I0714 23:35:22.299144  5918 net.cpp:156] Memory required for data: 320122880
2016-07-14 23:35:22.299 STDERR [INFO] I0714 23:35:22.299160  5918 layer_factory.hpp:77] Creating layer inception_3b/relu_pool_proj
2016-07-14 23:35:22.299 STDERR [INFO] I0714 23:35:22.299170  5918 net.cpp:91] Creating Layer inception_3b/relu_pool_proj
2016-07-14 23:35:22.299 STDERR [INFO] I0714 23:35:22.299175  5918 net.cpp:425] inception_3b/relu_pool_proj <- inception_3b/pool_proj
2016-07-14 23:35:22.299 STDERR [INFO] I0714 23:35:22.299183  5918 net.cpp:386] inception_3b/relu_pool_proj -> inception_3b/pool_proj (in-place)
2016-07-14 23:35:22.300 STDERR [INFO] I0714 23:35:22.300112  5922 net.cpp:141] Setting up inception_3b/relu_pool_proj
2016-07-14 23:35:22.300 STDERR [INFO] I0714 23:35:22.300125  5922 net.cpp:148] Top shape: 10 64 28 28 (501760)
2016-07-14 23:35:22.300 STDERR [INFO] I0714 23:35:22.300143  5922 net.cpp:156] Memory required for data: 322129920
2016-07-14 23:35:22.300 STDERR [INFO] I0714 23:35:22.300148  5922 layer_factory.hpp:77] Creating layer inception_3b/output
2016-07-14 23:35:22.300 STDERR [INFO] I0714 23:35:22.300151  5918 net.cpp:141] Setting up inception_3b/relu_pool_proj
2016-07-14 23:35:22.300 STDERR [INFO] I0714 23:35:22.300159  5922 net.cpp:91] Creating Layer inception_3b/output
2016-07-14 23:35:22.300 STDERR [INFO] I0714 23:35:22.300164  5918 net.cpp:148] Top shape: 10 64 28 28 (501760)
2016-07-14 23:35:22.300 STDERR [INFO] I0714 23:35:22.300164  5922 net.cpp:425] inception_3b/output <- inception_3b/1x1
2016-07-14 23:35:22.300 STDERR [INFO] I0714 23:35:22.300173  5918 net.cpp:156] Memory required for data: 322129920
2016-07-14 23:35:22.300 STDERR [INFO] I0714 23:35:22.300179  5918 layer_factory.hpp:77] Creating layer inception_3b/output
2016-07-14 23:35:22.300 STDERR [INFO] I0714 23:35:22.300179  5922 net.cpp:425] inception_3b/output <- inception_3b/3x3
…
2016-07-14 23:35:22.300 STDERR [INFO] I0714 23:35:22.300207  5922 net.cpp:399] inception_3b/output -> inception_3b/output
2016-07-14 23:35:22.300 STDERR [INFO] I0714 23:35:22.300209  5918 net.cpp:425] inception_3b/output <- inception_3b/5x5
2016-07-14 23:35:22.300 STDERR [INFO] I0714 23:35:22.300215  5918 net.cpp:425] inception_3b/output <- inception_3b/pool_proj
2016-07-14 23:35:22.300 STDERR [INFO] I0714 23:35:22.300225  5918 net.cpp:399] inception_3b/output -> inception_3b/output
2016-07-14 23:35:22.301 STDERR [INFO] I0714 23:35:22.300257  5922 net.cpp:141] Setting up inception_3b/output
2016-07-14 23:35:22.301 STDERR [INFO] I0714 23:35:22.300267  5922 net.cpp:148] Top shape: 10 480 28 28 (3763200)
2016-07-14 23:35:22.301 STDERR [INFO] I0714 23:35:22.300271  5922 net.cpp:156] Memory required for data: 337182720
2016-07-14 23:35:22.301 STDERR [INFO] I0714 23:35:22.300276  5922 layer_factory.hpp:77] Creating layer pool3/3x3_s2
2016-07-14 23:35:22.301 STDERR [INFO] I0714 23:35:22.300283  5922 net.cpp:91] Creating Layer pool3/3x3_s2
2016-07-14 23:35:22.301 STDERR [INFO] I0714 23:35:22.300288  5922 net.cpp:425] pool3/3x3_s2 <- inception_3b/output
2016-07-14 23:35:22.301 STDERR [INFO] I0714 23:35:22.300292  5918 net.cpp:141] Setting up inception_3b/output
2016-07-14 23:35:22.301 STDERR [INFO] I0714 23:35:22.300298  5922 net.cpp:399] pool3/3x3_s2 -> pool3/3x3_s2
2016-07-14 23:35:22.301 STDERR [INFO] I0714 23:35:22.300303  5918 net.cpp:148] Top shape: 10 480 28 28 (3763200)
2016-07-14 23:35:22.301 STDERR [INFO] I0714 23:35:22.300307  5918 net.cpp:156] Memory required for data: 337182720
2016-07-14 23:35:22.301 STDERR [INFO] I0714 23:35:22.300312  5918 layer_factory.hpp:77] Creating layer pool3/3x3_s2
2016-07-14 23:35:22.301 STDERR [INFO] I0714 23:35:22.300324  5918 net.cpp:91] Creating Layer pool3/3x3_s2
2016-07-14 23:35:22.301 STDERR [INFO] I0714 23:35:22.300329  5918 net.cpp:425] pool3/3x3_s2 <- inception_3b/output
2016-07-14 23:35:22.301 STDERR [INFO] I0714 23:35:22.300336  5918 net.cpp:399] pool3/3x3_s2 -> pool3/3x3_s2
2016-07-14 23:35:22.301 STDERR [INFO] I0714 23:35:22.300423  5922 net.cpp:141] Setting up pool3/3x3_s2
2016-07-14 23:35:22.301 STDERR [INFO] I0714 23:35:22.300436  5922 net.cpp:148] Top shape: 10 480 14 14 (940800)
2016-07-14 23:35:22.301 STDERR [INFO] I0714 23:35:22.300439  5922 net.cpp:156] Memory required for data: 340945920
2016-07-14 23:35:22.301 STDERR [INFO] I0714 23:35:22.300443  5922 layer_factory.hpp:77] Creating layer pool3/3x3_s2_pool3/3x3_s2_0_split
2016-07-14 23:35:22.301 STDERR [INFO] I0714 23:35:22.300451  5922 net.cpp:91] Creating Layer pool3/3x3_s2_pool3/3x3_s2_0_split
2016-07-14 23:35:22.301 STDERR [INFO] I0714 23:35:22.300458  5922 net.cpp:425] pool3/3x3_s2_pool3/3x3_s2_0_split <- pool3/3x3_s2
2016-07-14 23:35:22.301 STDERR [INFO] I0714 23:35:22.300465  5922 net.cpp:399] pool3/3x3_s2_pool3/3x3_s2_0_split -> pool3/3x3_s2_pool3/3x3_s2_0_split_0
2016-07-14 23:35:22.301 STDERR [INFO] I0714 23:35:22.300465  5918 net.cpp:141] Setting up pool3/3x3_s2
2016-07-14 23:35:22.301 STDERR [INFO] I0714 23:35:22.300473  5922 net.cpp:399] pool3/3x3_s2_pool3/3x3_s2_0_split -> pool3/3x3_s2_pool3/3x3_s2_0_split_1
2016-07-14 23:35:22.301 STDERR [INFO] I0714 23:35:22.300482  5922 net.cpp:399] pool3/3x3_s2_pool3/3x3_s2_0_split -> pool3/3x3_s2_pool3/3x3_s2_0_split_2
2016-07-14 23:35:22.301 STDERR [INFO] I0714 23:35:22.300489  5922 net.cpp:399] pool3/3x3_s2_pool3/3x3_s2_0_split -> pool3/3x3_s2_pool3/3x3_s2_0_split_3
2016-07-14 23:35:22.301 STDERR [INFO] I0714 23:35:22.300488  5918 net.cpp:148] Top shape: 10 480 14 14 (940800)
2016-07-14 23:35:22.302 STDERR [INFO] I0714 23:35:22.300498  5918 net.cpp:156] Memory required for data: 340945920
2016-07-14 23:35:22.302 STDERR [INFO] I0714 23:35:22.300508  5918 layer_factory.hpp:77] Creating layer pool3/3x3_s2_pool3/3x3_s2_0_split
2016-07-14 23:35:22.302 STDERR [INFO] I0714 23:35:22.300520  5918 net.cpp:91] Creating Layer pool3/3x3_s2_pool3/3x3_s2_0_split
2016-07-14 23:35:22.302 STDERR [INFO] I0714 23:35:22.300529  5918 net.cpp:425] pool3/3x3_s2_pool3/3x3_s2_0_split <- pool3/3x3_s2
2016-07-14 23:35:22.302 STDERR [INFO] I0714 23:35:22.300541  5918 net.cpp:399] pool3/3x3_s2_pool3/3x3_s2_0_split -> pool3/3x3_s2_pool3/3x3_s2_0_split_0
2016-07-14 23:35:22.302 STDERR [INFO] I0714 23:35:22.300555  5918 net.cpp:399] pool3/3x3_s2_pool3/3x3_s2_0_split -> pool3/3x3_s2_pool3/3x3_s2_0_split_1
2016-07-14 23:35:22.302 STDERR [INFO] I0714 23:35:22.300577  5918 net.cpp:399] pool3/3x3_s2_pool3/3x3_s2_0_split -> pool3/3x3_s2_pool3/3x3_s2_0_split_2
2016-07-14 23:35:22.302 STDERR [INFO] I0714 23:35:22.300582  5922 net.cpp:141] Setting up pool3/3x3_s2_pool3/3x3_s2_0_split
2016-07-14 23:35:22.302 STDERR [INFO] I0714 23:35:22.300591  5922 net.cpp:148] Top shape: 10 480 14 14 (940800)
2016-07-14 23:35:22.302 STDERR [INFO] I0714 23:35:22.300595  5918 net.cpp:399] pool3/3x3_s2_pool3/3x3_s2_0_split -> pool3/3x3_s2_pool3/3x3_s2_0_split_3
2016-07-14 23:35:22.302 STDERR [INFO] I0714 23:35:22.300597  5922 net.cpp:148] Top shape: 10 480 14 14 (940800)
2016-07-14 23:35:22.302 STDERR [INFO] I0714 23:35:22.300611  5922 net.cpp:148] Top shape: 10 480 14 14 (940800)
2016-07-14 23:35:22.302 STDERR [INFO] I0714 23:35:22.300616  5922 net.cpp:148] Top shape: 10 480 14 14 (940800)
2016-07-14 23:35:22.302 STDERR [INFO] I0714 23:35:22.300621  5922 net.cpp:156] Memory required for data: 355998720
2016-07-14 23:35:22.302 STDERR [INFO] I0714 23:35:22.300624  5922 layer_factory.hpp:77] Creating layer inception_4a/1x1
2016-07-14 23:35:22.302 STDERR [INFO] I0714 23:35:22.300640  5922 net.cpp:91] Creating Layer inception_4a/1x1
2016-07-14 23:35:22.302 STDERR [INFO] I0714 23:35:22.300647  5922 net.cpp:425] inception_4a/1x1 <- pool3/3x3_s2_pool3/3x3_s2_0_split_0
2016-07-14 23:35:22.302 STDERR [INFO] I0714 23:35:22.300657  5922 net.cpp:399] inception_4a/1x1 -> inception_4a/1x1
2016-07-14 23:35:22.302 STDERR [INFO] I0714 23:35:22.300724  5918 net.cpp:141] Setting up pool3/3x3_s2_pool3/3x3_s2_0_split
2016-07-14 23:35:22.302 STDERR [INFO] I0714 23:35:22.300736  5918 net.cpp:148] Top shape: 10 480 14 14 (940800)
2016-07-14 23:35:22.303 STDERR [INFO] I0714 23:35:22.300742  5918 net.cpp:148] Top shape: 10 480 14 14 (940800)
2016-07-14 23:35:22.303 STDERR [INFO] I0714 23:35:22.300747  5918 net.cpp:148] Top shape: 10 480 14 14 (940800)
2016-07-14 23:35:22.303 STDERR [INFO] I0714 23:35:22.300752  5918 net.cpp:148] Top shape: 10 480 14 14 (940800)
2016-07-14 23:35:22.303 STDERR [INFO] I0714 23:35:22.300756  5918 net.cpp:156] Memory required for data: 355998720
2016-07-14 23:35:22.303 STDERR [INFO] I0714 23:35:22.300761  5918 layer_factory.hpp:77] Creating layer inception_4a/1x1
2016-07-14 23:35:22.303 STDERR [INFO] I0714 23:35:22.300777  5918 net.cpp:91] Creating Layer inception_4a/1x1
2016-07-14 23:35:22.303 STDERR [INFO] I0714 23:35:22.300786  5918 net.cpp:425] inception_4a/1x1 <- pool3/3x3_s2_pool3/3x3_s2_0_split_0
2016-07-14 23:35:22.303 STDERR [INFO] I0714 23:35:22.300794  5918 net.cpp:399] inception_4a/1x1 -> inception_4a/1x1
2016-07-14 23:35:22.306 STDERR [INFO] I0714 23:35:22.306128  5922 net.cpp:141] Setting up inception_4a/1x1
2016-07-14 23:35:22.306 STDERR [INFO] I0714 23:35:22.306159  5922 net.cpp:148] Top shape: 10 192 14 14 (376320)
2016-07-14 23:35:22.306 STDERR [INFO] I0714 23:35:22.306164  5922 net.cpp:156] Memory required for data: 357504000
2016-07-14 23:35:22.306 STDERR [INFO] I0714 23:35:22.306174  5922 layer_factory.hpp:77] Creating layer inception_4a/relu_1x1
2016-07-14 23:35:22.306 STDERR [INFO] I0714 23:35:22.306185  5922 net.cpp:91] Creating Layer inception_4a/relu_1x1
2016-07-14 23:35:22.306 STDERR [INFO] I0714 23:35:22.306191  5922 net.cpp:425] inception_4a/relu_1x1 <- inception_4a/1x1
2016-07-14 23:35:22.306 STDERR [INFO] I0714 23:35:22.306198  5922 net.cpp:386] inception_4a/relu_1x1 -> inception_4a/1x1 (in-place)
2016-07-14 23:35:22.307 STDERR [INFO] I0714 23:35:22.307068  5918 net.cpp:141] Setting up inception_4a/1x1
2016-07-14 23:35:22.307 STDERR [INFO] I0714 23:35:22.307097  5918 net.cpp:148] Top shape: 10 192 14 14 (376320)
2016-07-14 23:35:22.307 STDERR [INFO] I0714 23:35:22.307102  5918 net.cpp:156] Memory required for data: 357504000
2016-07-14 23:35:22.307 STDERR [INFO] I0714 23:35:22.307111  5918 layer_factory.hpp:77] Creating layer inception_4a/relu_1x1
2016-07-14 23:35:22.307 STDERR [INFO] I0714 23:35:22.307121  5918 net.cpp:91] Creating Layer inception_4a/relu_1x1
2016-07-14 23:35:22.307 STDERR [INFO] I0714 23:35:22.307127  5918 net.cpp:425] inception_4a/relu_1x1 <- inception_4a/1x1
2016-07-14 23:35:22.307 STDERR [INFO] I0714 23:35:22.307134  5918 net.cpp:386] inception_4a/relu_1x1 -> inception_4a/1x1 (in-place)
2016-07-14 23:35:22.307 STDERR [INFO] I0714 23:35:22.307149  5922 net.cpp:141] Setting up inception_4a/relu_1x1
2016-07-14 23:35:22.307 STDERR [INFO] I0714 23:35:22.307166  5922 net.cpp:148] Top shape: 10 192 14 14 (376320)
2016-07-14 23:35:22.307 STDERR [INFO] I0714 23:35:22.307171  5922 net.cpp:156] Memory required for data: 359009280
2016-07-14 23:35:22.307 STDERR [INFO] I0714 23:35:22.307176  5922 layer_factory.hpp:77] Creating layer inception_4a/3x3_reduce
2016-07-14 23:35:22.307 STDERR [INFO] I0714 23:35:22.307193  5922 net.cpp:91] Creating Layer inception_4a/3x3_reduce
2016-07-14 23:35:22.307 STDERR [INFO] I0714 23:35:22.307199  5922 net.cpp:425] inception_4a/3x3_reduce <- pool3/3x3_s2_pool3/3x3_s2_0_split_1
2016-07-14 23:35:22.307 STDERR [INFO] I0714 23:35:22.307207  5922 net.cpp:399] inception_4a/3x3_reduce -> inception_4a/3x3_reduce
2016-07-14 23:35:22.307 STDERR [INFO] I0714 23:35:22.307636  5918 net.cpp:141] Setting up inception_4a/relu_1x1
2016-07-14 23:35:22.307 STDERR [INFO] I0714 23:35:22.307648  5918 net.cpp:148] Top shape: 10 192 14 14 (376320)
2016-07-14 23:35:22.307 STDERR [INFO] I0714 23:35:22.307652  5918 net.cpp:156] Memory required for data: 359009280
2016-07-14 23:35:22.307 STDERR [INFO] I0714 23:35:22.307657  5918 layer_factory.hpp:77] Creating layer inception_4a/3x3_reduce
2016-07-14 23:35:22.307 STDERR [INFO] I0714 23:35:22.307674  5918 net.cpp:91] Creating Layer inception_4a/3x3_reduce
2016-07-14 23:35:22.307 STDERR [INFO] I0714 23:35:22.307682  5918 net.cpp:425] inception_4a/3x3_reduce <- pool3/3x3_s2_pool3/3x3_s2_0_split_1
2016-07-14 23:35:22.308 STDERR [INFO] I0714 23:35:22.307690  5918 net.cpp:399] inception_4a/3x3_reduce -> inception_4a/3x3_reduce
2016-07-14 23:35:22.312 STDERR [INFO] I0714 23:35:22.311955  5922 net.cpp:141] Setting up inception_4a/3x3_reduce
2016-07-14 23:35:22.312 STDERR [INFO] I0714 23:35:22.311970  5922 net.cpp:148] Top shape: 10 96 14 14 (188160)
2016-07-14 23:35:22.312 STDERR [INFO] I0714 23:35:22.311988  5922 net.cpp:156] Memory required for data: 359761920
2016-07-14 23:35:22.312 STDERR [INFO] I0714 23:35:22.312006  5922 layer_factory.hpp:77] Creating layer inception_4a/relu_3x3_reduce
2016-07-14 23:35:22.312 STDERR [INFO] I0714 23:35:22.312019  5922 net.cpp:91] Creating Layer inception_4a/relu_3x3_reduce
2016-07-14 23:35:22.312 STDERR [INFO] I0714 23:35:22.312026  5922 net.cpp:425] inception_4a/relu_3x3_reduce <- inception_4a/3x3_reduce
2016-07-14 23:35:22.312 STDERR [INFO] I0714 23:35:22.312032  5922 net.cpp:386] inception_4a/relu_3x3_reduce -> inception_4a/3x3_reduce (in-place)
2016-07-14 23:35:22.312 STDERR [INFO] I0714 23:35:22.312829  5918 net.cpp:141] Setting up inception_4a/3x3_reduce
2016-07-14 23:35:22.313 STDERR [INFO] I0714 23:35:22.312857  5918 net.cpp:148] Top shape: 10 96 14 14 (188160)
2016-07-14 23:35:22.313 STDERR [INFO] I0714 23:35:22.312863  5918 net.cpp:156] Memory required for data: 359761920
2016-07-14 23:35:22.313 STDERR [INFO] I0714 23:35:22.312882  5918 layer_factory.hpp:77] Creating layer inception_4a/relu_3x3_reduce
2016-07-14 23:35:22.313 STDERR [INFO] I0714 23:35:22.312893  5918 net.cpp:91] Creating Layer inception_4a/relu_3x3_reduce
2016-07-14 23:35:22.313 STDERR [INFO] I0714 23:35:22.312899  5918 net.cpp:425] inception_4a/relu_3x3_reduce <- inception_4a/3x3_reduce
2016-07-14 23:35:22.313 STDERR [INFO] I0714 23:35:22.312902  5922 net.cpp:141] Setting up inception_4a/relu_3x3_reduce
2016-07-14 23:35:22.313 STDERR [INFO] I0714 23:35:22.312906  5918 net.cpp:386] inception_4a/relu_3x3_reduce -> inception_4a/3x3_reduce (in-place)
2016-07-14 23:35:22.313 STDERR [INFO] I0714 23:35:22.312918  5922 net.cpp:148] Top shape: 10 96 14 14 (188160)
2016-07-14 23:35:22.313 STDERR [INFO] I0714 23:35:22.312923  5922 net.cpp:156] Memory required for data: 360514560
2016-07-14 23:35:22.313 STDERR [INFO] I0714 23:35:22.312928  5922 layer_factory.hpp:77] Creating layer inception_4a/3x3
2016-07-14 23:35:22.313 STDERR [INFO] I0714 23:35:22.312949  5922 net.cpp:91] Creating Layer inception_4a/3x3
2016-07-14 23:35:22.313 STDERR [INFO] I0714 23:35:22.312955  5922 net.cpp:425] inception_4a/3x3 <- inception_4a/3x3_reduce
2016-07-14 23:35:22.313 STDERR [INFO] I0714 23:35:22.312964  5922 net.cpp:399] inception_4a/3x3 -> inception_4a/3x3
2016-07-14 23:35:22.314 STDERR [INFO] I0714 23:35:22.314522  5918 net.cpp:141] Setting up inception_4a/relu_3x3_reduce
2016-07-14 23:35:22.314 STDERR [INFO] I0714 23:35:22.314548  5918 net.cpp:148] Top shape: 10 96 14 14 (188160)
2016-07-14 23:35:22.314 STDERR [INFO] I0714 23:35:22.314555  5918 net.cpp:156] Memory required for data: 360514560
2016-07-14 23:35:22.314 STDERR [INFO] I0714 23:35:22.314565  5918 layer_factory.hpp:77] Creating layer inception_4a/3x3
2016-07-14 23:35:22.314 STDERR [INFO] I0714 23:35:22.314597  5918 net.cpp:91] Creating Layer inception_4a/3x3
2016-07-14 23:35:22.314 STDERR [INFO] I0714 23:35:22.314609  5918 net.cpp:425] inception_4a/3x3 <- inception_4a/3x3_reduce
2016-07-14 23:35:22.314 STDERR [INFO] I0714 23:35:22.314623  5918 net.cpp:399] inception_4a/3x3 -> inception_4a/3x3
2016-07-14 23:35:22.319 STDERR [INFO] I0714 23:35:22.319015  5922 net.cpp:141] Setting up inception_4a/3x3
2016-07-14 23:35:22.319 STDERR [INFO] I0714 23:35:22.319044  5922 net.cpp:148] Top shape: 10 208 14 14 (407680)
2016-07-14 23:35:22.319 STDERR [INFO] I0714 23:35:22.319049  5922 net.cpp:156] Memory required for data: 362145280
2016-07-14 23:35:22.319 STDERR [INFO] I0714 23:35:22.319058  5922 layer_factory.hpp:77] Creating layer inception_4a/relu_3x3
2016-07-14 23:35:22.319 STDERR [INFO] I0714 23:35:22.319072  5922 net.cpp:91] Creating Layer inception_4a/relu_3x3
2016-07-14 23:35:22.319 STDERR [INFO] I0714 23:35:22.319077  5922 net.cpp:425] inception_4a/relu_3x3 <- inception_4a/3x3
2016-07-14 23:35:22.319 STDERR [INFO] I0714 23:35:22.319084  5922 net.cpp:386] inception_4a/relu_3x3 -> inception_4a/3x3 (in-place)
2016-07-14 23:35:22.320 STDERR [INFO] I0714 23:35:22.320062  5922 net.cpp:141] Setting up inception_4a/relu_3x3
2016-07-14 23:35:22.320 STDERR [INFO] I0714 23:35:22.320089  5922 net.cpp:148] Top shape: 10 208 14 14 (407680)
2016-07-14 23:35:22.320 STDERR [INFO] I0714 23:35:22.320094  5922 net.cpp:156] Memory required for data: 363776000
2016-07-14 23:35:22.320 STDERR [INFO] I0714 23:35:22.320099  5922 layer_factory.hpp:77] Creating layer inception_4a/5x5_reduce
2016-07-14 23:35:22.320 STDERR [INFO] I0714 23:35:22.320117  5922 net.cpp:91] Creating Layer inception_4a/5x5_reduce
2016-07-14 23:35:22.320 STDERR [INFO] I0714 23:35:22.320123  5922 net.cpp:425] inception_4a/5x5_reduce <- pool3/3x3_s2_pool3/3x3_s2_0_split_2
2016-07-14 23:35:22.320 STDERR [INFO] I0714 23:35:22.320133  5922 net.cpp:399] inception_4a/5x5_reduce -> inception_4a/5x5_reduce
2016-07-14 23:35:22.321 STDERR [INFO] I0714 23:35:22.321583  5918 net.cpp:141] Setting up inception_4a/3x3
2016-07-14 23:35:22.321 STDERR [INFO] I0714 23:35:22.321612  5918 net.cpp:148] Top shape: 10 208 14 14 (407680)
2016-07-14 23:35:22.321 STDERR [INFO] I0714 23:35:22.321617  5918 net.cpp:156] Memory required for data: 362145280
2016-07-14 23:35:22.321 STDERR [INFO] I0714 23:35:22.321627  5918 layer_factory.hpp:77] Creating layer inception_4a/relu_3x3
2016-07-14 23:35:22.321 STDERR [INFO] I0714 23:35:22.321638  5918 net.cpp:91] Creating Layer inception_4a/relu_3x3
2016-07-14 23:35:22.321 STDERR [INFO] I0714 23:35:22.321645  5918 net.cpp:425] inception_4a/relu_3x3 <- inception_4a/3x3
2016-07-14 23:35:22.322 STDERR [INFO] I0714 23:35:22.321651  5918 net.cpp:386] inception_4a/relu_3x3 -> inception_4a/3x3 (in-place)
2016-07-14 23:35:22.323 STDERR [INFO] I0714 23:35:22.323375  5918 net.cpp:141] Setting up inception_4a/relu_3x3
2016-07-14 23:35:22.323 STDERR [INFO] I0714 23:35:22.323405  5918 net.cpp:148] Top shape: 10 208 14 14 (407680)
2016-07-14 23:35:22.323 STDERR [INFO] I0714 23:35:22.323410  5918 net.cpp:156] Memory required for data: 363776000
2016-07-14 23:35:22.323 STDERR [INFO] I0714 23:35:22.323415  5918 layer_factory.hpp:77] Creating layer inception_4a/5x5_reduce
2016-07-14 23:35:22.323 STDERR [INFO] I0714 23:35:22.323434  5918 net.cpp:91] Creating Layer inception_4a/5x5_reduce
2016-07-14 23:35:22.323 STDERR [INFO] I0714 23:35:22.323441  5918 net.cpp:425] inception_4a/5x5_reduce <- pool3/3x3_s2_pool3/3x3_s2_0_split_2
2016-07-14 23:35:22.323 STDERR [INFO] I0714 23:35:22.323451  5918 net.cpp:399] inception_4a/5x5_reduce -> inception_4a/5x5_reduce
2016-07-14 23:35:22.324 STDERR [INFO] I0714 23:35:22.324204  5922 net.cpp:141] Setting up inception_4a/5x5_reduce
2016-07-14 23:35:22.324 STDERR [INFO] I0714 23:35:22.324220  5922 net.cpp:148] Top shape: 10 16 14 14 (31360)
2016-07-14 23:35:22.324 STDERR [INFO] I0714 23:35:22.324225  5922 net.cpp:156] Memory required for data: 363901440
2016-07-14 23:35:22.324 STDERR [INFO] I0714 23:35:22.324234  5922 layer_factory.hpp:77] Creating layer inception_4a/relu_5x5_reduce
2016-07-14 23:35:22.324 STDERR [INFO] I0714 23:35:22.324244  5922 net.cpp:91] Creating Layer inception_4a/relu_5x5_reduce
2016-07-14 23:35:22.324 STDERR [INFO] I0714 23:35:22.324249  5922 net.cpp:425] inception_4a/relu_5x5_reduce <- inception_4a/5x5_reduce
2016-07-14 23:35:22.324 STDERR [INFO] I0714 23:35:22.324259  5922 net.cpp:386] inception_4a/relu_5x5_reduce -> inception_4a/5x5_reduce (in-place)
2016-07-14 23:35:22.325 STDERR [INFO] I0714 23:35:22.325392  5922 net.cpp:141] Setting up inception_4a/relu_5x5_reduce
2016-07-14 23:35:22.325 STDERR [INFO] I0714 23:35:22.325405  5922 net.cpp:148] Top shape: 10 16 14 14 (31360)
2016-07-14 23:35:22.325 STDERR [INFO] I0714 23:35:22.325410  5922 net.cpp:156] Memory required for data: 364026880
2016-07-14 23:35:22.325 STDERR [INFO] I0714 23:35:22.325414  5922 layer_factory.hpp:77] Creating layer inception_4a/5x5
2016-07-14 23:35:22.325 STDERR [INFO] I0714 23:35:22.325430  5922 net.cpp:91] Creating Layer inception_4a/5x5
2016-07-14 23:35:22.325 STDERR [INFO] I0714 23:35:22.325436  5922 net.cpp:425] inception_4a/5x5 <- inception_4a/5x5_reduce
2016-07-14 23:35:22.325 STDERR [INFO] I0714 23:35:22.325460  5922 net.cpp:399] inception_4a/5x5 -> inception_4a/5x5
2016-07-14 23:35:22.327 STDERR [INFO] I0714 23:35:22.327654  5918 net.cpp:141] Setting up inception_4a/5x5_reduce
2016-07-14 23:35:22.327 STDERR [INFO] I0714 23:35:22.327684  5918 net.cpp:148] Top shape: 10 16 14 14 (31360)
2016-07-14 23:35:22.327 STDERR [INFO] I0714 23:35:22.327689  5918 net.cpp:156] Memory required for data: 363901440
2016-07-14 23:35:22.327 STDERR [INFO] I0714 23:35:22.327699  5918 layer_factory.hpp:77] Creating layer inception_4a/relu_5x5_reduce
2016-07-14 23:35:22.327 STDERR [INFO] I0714 23:35:22.327708  5918 net.cpp:91] Creating Layer inception_4a/relu_5x5_reduce
2016-07-14 23:35:22.327 STDERR [INFO] I0714 23:35:22.327713  5918 net.cpp:425] inception_4a/relu_5x5_reduce <- inception_4a/5x5_reduce
2016-07-14 23:35:22.328 STDERR [INFO] I0714 23:35:22.327723  5918 net.cpp:386] inception_4a/relu_5x5_reduce -> inception_4a/5x5_reduce (in-place)
2016-07-14 23:35:22.329 STDERR [INFO] I0714 23:35:22.329370  5918 net.cpp:141] Setting up inception_4a/relu_5x5_reduce
2016-07-14 23:35:22.329 STDERR [INFO] I0714 23:35:22.329398  5918 net.cpp:148] Top shape: 10 16 14 14 (31360)
2016-07-14 23:35:22.329 STDERR [INFO] I0714 23:35:22.329403  5918 net.cpp:156] Memory required for data: 364026880
2016-07-14 23:35:22.329 STDERR [INFO] I0714 23:35:22.329408  5918 layer_factory.hpp:77] Creating layer inception_4a/5x5
2016-07-14 23:35:22.329 STDERR [INFO] I0714 23:35:22.329424  5918 net.cpp:91] Creating Layer inception_4a/5x5
2016-07-14 23:35:22.329 STDERR [INFO] I0714 23:35:22.329429  5918 net.cpp:425] inception_4a/5x5 <- inception_4a/5x5_reduce
2016-07-14 23:35:22.329 STDERR [INFO] I0714 23:35:22.329442  5918 net.cpp:399] inception_4a/5x5 -> inception_4a/5x5
2016-07-14 23:35:22.331 STDERR [INFO] I0714 23:35:22.331634  5922 net.cpp:141] Setting up inception_4a/5x5
2016-07-14 23:35:22.331 STDERR [INFO] I0714 23:35:22.331650  5922 net.cpp:148] Top shape: 10 48 14 14 (94080)
2016-07-14 23:35:22.331 STDERR [INFO] I0714 23:35:22.331655  5922 net.cpp:156] Memory required for data: 364403200
2016-07-14 23:35:22.331 STDERR [INFO] I0714 23:35:22.331665  5922 layer_factory.hpp:77] Creating layer inception_4a/relu_5x5
2016-07-14 23:35:22.331 STDERR [INFO] I0714 23:35:22.331673  5922 net.cpp:91] Creating Layer inception_4a/relu_5x5
2016-07-14 23:35:22.331 STDERR [INFO] I0714 23:35:22.331679  5922 net.cpp:425] inception_4a/relu_5x5 <- inception_4a/5x5
2016-07-14 23:35:22.331 STDERR [INFO] I0714 23:35:22.331689  5922 net.cpp:386] inception_4a/relu_5x5 -> inception_4a/5x5 (in-place)
2016-07-14 23:35:22.332 STDERR [INFO] I0714 23:35:22.332680  5922 net.cpp:141] Setting up inception_4a/relu_5x5
2016-07-14 23:35:22.332 STDERR [INFO] I0714 23:35:22.332695  5922 net.cpp:148] Top shape: 10 48 14 14 (94080)
2016-07-14 23:35:22.332 STDERR [INFO] I0714 23:35:22.332700  5922 net.cpp:156] Memory required for data: 364779520
2016-07-14 23:35:22.332 STDERR [INFO] I0714 23:35:22.332705  5922 layer_factory.hpp:77] Creating layer inception_4a/pool
2016-07-14 23:35:22.332 STDERR [INFO] I0714 23:35:22.332715  5922 net.cpp:91] Creating Layer inception_4a/pool
2016-07-14 23:35:22.333 STDERR [INFO] I0714 23:35:22.332722  5922 net.cpp:425] inception_4a/pool <- pool3/3x3_s2_pool3/3x3_s2_0_split_3
2016-07-14 23:35:22.333 STDERR [INFO] I0714 23:35:22.332731  5922 net.cpp:399] inception_4a/pool -> inception_4a/pool
2016-07-14 23:35:22.333 STDERR [INFO] I0714 23:35:22.333384  5922 net.cpp:141] Setting up inception_4a/pool
2016-07-14 23:35:22.333 STDERR [INFO] I0714 23:35:22.333408  5922 net.cpp:148] Top shape: 10 480 14 14 (940800)
2016-07-14 23:35:22.333 STDERR [INFO] I0714 23:35:22.333413  5922 net.cpp:156] Memory required for data: 368542720
2016-07-14 23:35:22.333 STDERR [INFO] I0714 23:35:22.333417  5922 layer_factory.hpp:77] Creating layer inception_4a/pool_proj
2016-07-14 23:35:22.333 STDERR [INFO] I0714 23:35:22.333432  5922 net.cpp:91] Creating Layer inception_4a/pool_proj
2016-07-14 23:35:22.333 STDERR [INFO] I0714 23:35:22.333438  5922 net.cpp:425] inception_4a/pool_proj <- inception_4a/pool
2016-07-14 23:35:22.333 STDERR [INFO] I0714 23:35:22.333446  5922 net.cpp:399] inception_4a/pool_proj -> inception_4a/pool_proj
2016-07-14 23:35:22.333 STDERR [INFO] I0714 23:35:22.333883  5918 net.cpp:141] Setting up inception_4a/5x5
2016-07-14 23:35:22.333 STDERR [INFO] I0714 23:35:22.333899  5918 net.cpp:148] Top shape: 10 48 14 14 (94080)
2016-07-14 23:35:22.334 STDERR [INFO] I0714 23:35:22.333906  5918 net.cpp:156] Memory required for data: 364403200
2016-07-14 23:35:22.334 STDERR [INFO] I0714 23:35:22.333915  5918 layer_factory.hpp:77] Creating layer inception_4a/relu_5x5
2016-07-14 23:35:22.334 STDERR [INFO] I0714 23:35:22.333923  5918 net.cpp:91] Creating Layer inception_4a/relu_5x5
2016-07-14 23:35:22.334 STDERR [INFO] I0714 23:35:22.333928  5918 net.cpp:425] inception_4a/relu_5x5 <- inception_4a/5x5
2016-07-14 23:35:22.334 STDERR [INFO] I0714 23:35:22.333936  5918 net.cpp:386] inception_4a/relu_5x5 -> inception_4a/5x5 (in-place)
2016-07-14 23:35:22.335 STDERR [INFO] I0714 23:35:22.334987  5918 net.cpp:141] Setting up inception_4a/relu_5x5
2016-07-14 23:35:22.335 STDERR [INFO] I0714 23:35:22.335001  5918 net.cpp:148] Top shape: 10 48 14 14 (94080)
2016-07-14 23:35:22.335 STDERR [INFO] I0714 23:35:22.335006  5918 net.cpp:156] Memory required for data: 364779520
2016-07-14 23:35:22.335 STDERR [INFO] I0714 23:35:22.335011  5918 layer_factory.hpp:77] Creating layer inception_4a/pool
2016-07-14 23:35:22.335 STDERR [INFO] I0714 23:35:22.335019  5918 net.cpp:91] Creating Layer inception_4a/pool
2016-07-14 23:35:22.335 STDERR [INFO] I0714 23:35:22.335026  5918 net.cpp:425] inception_4a/pool <- pool3/3x3_s2_pool3/3x3_s2_0_split_3
2016-07-14 23:35:22.335 STDERR [INFO] I0714 23:35:22.335036  5918 net.cpp:399] inception_4a/pool -> inception_4a/pool
2016-07-14 23:35:22.335 STDERR [INFO] I0714 23:35:22.335124  5918 net.cpp:141] Setting up inception_4a/pool
2016-07-14 23:35:22.335 STDERR [INFO] I0714 23:35:22.335136  5918 net.cpp:148] Top shape: 10 480 14 14 (940800)
2016-07-14 23:35:22.335 STDERR [INFO] I0714 23:35:22.335141  5918 net.cpp:156] Memory required for data: 368542720
2016-07-14 23:35:22.335 STDERR [INFO] I0714 23:35:22.335145  5918 layer_factory.hpp:77] Creating layer inception_4a/pool_proj
2016-07-14 23:35:22.335 STDERR [INFO] I0714 23:35:22.335161  5918 net.cpp:91] Creating Layer inception_4a/pool_proj
2016-07-14 23:35:22.335 STDERR [INFO] I0714 23:35:22.335167  5918 net.cpp:425] inception_4a/pool_proj <- inception_4a/pool
2016-07-14 23:35:22.335 STDERR [INFO] I0714 23:35:22.335176  5918 net.cpp:399] inception_4a/pool_proj -> inception_4a/pool_proj
2016-07-14 23:35:22.337 STDERR [INFO] I0714 23:35:22.337466  5922 net.cpp:141] Setting up inception_4a/pool_proj
2016-07-14 23:35:22.337 STDERR [INFO] I0714 23:35:22.337494  5922 net.cpp:148] Top shape: 10 64 14 14 (125440)
2016-07-14 23:35:22.337 STDERR [INFO] I0714 23:35:22.337499  5922 net.cpp:156] Memory required for data: 369044480
2016-07-14 23:35:22.337 STDERR [INFO] I0714 23:35:22.337508  5922 layer_factory.hpp:77] Creating layer inception_4a/relu_pool_proj
2016-07-14 23:35:22.337 STDERR [INFO] I0714 23:35:22.337517  5922 net.cpp:91] Creating Layer inception_4a/relu_pool_proj
2016-07-14 23:35:22.337 STDERR [INFO] I0714 23:35:22.337522  5922 net.cpp:425] inception_4a/relu_pool_proj <- inception_4a/pool_proj
2016-07-14 23:35:22.337 STDERR [INFO] I0714 23:35:22.337532  5922 net.cpp:386] inception_4a/relu_pool_proj -> inception_4a/pool_proj (in-place)
2016-07-14 23:35:22.338 STDERR [INFO] I0714 23:35:22.338526  5922 net.cpp:141] Setting up inception_4a/relu_pool_proj
2016-07-14 23:35:22.338 STDERR [INFO] I0714 23:35:22.338541  5922 net.cpp:148] Top shape: 10 64 14 14 (125440)
2016-07-14 23:35:22.338 STDERR [INFO] I0714 23:35:22.338546  5922 net.cpp:156] Memory required for data: 369546240
2016-07-14 23:35:22.338 STDERR [INFO] I0714 23:35:22.338551  5922 layer_factory.hpp:77] Creating layer inception_4a/output
2016-07-14 23:35:22.338 STDERR [INFO] I0714 23:35:22.338559  5922 net.cpp:91] Creating Layer inception_4a/output
2016-07-14 23:35:22.338 STDERR [INFO] I0714 23:35:22.338564  5922 net.cpp:425] inception_4a/output <- inception_4a/1x1
2016-07-14 23:35:22.338 STDERR [INFO] I0714 23:35:22.338573  5922 net.cpp:425] inception_4a/output <- inception_4a/3x3
2016-07-14 23:35:22.338 STDERR [INFO] I0714 23:35:22.338579  5922 net.cpp:425] inception_4a/output <- inception_4a/5x5
2016-07-14 23:35:22.338 STDERR [INFO] I0714 23:35:22.338585  5922 net.cpp:425] inception_4a/output <- inception_4a/pool_proj
2016-07-14 23:35:22.339 STDERR [INFO] I0714 23:35:22.338592  5922 net.cpp:399] inception_4a/output -> inception_4a/output
2016-07-14 23:35:22.339 STDERR [INFO] I0714 23:35:22.338752  5922 net.cpp:141] Setting up inception_4a/output
2016-07-14 23:35:22.339 STDERR [INFO] I0714 23:35:22.338768  5922 net.cpp:148] Top shape: 10 512 14 14 (1003520)
2016-07-14 23:35:22.339 STDERR [INFO] I0714 23:35:22.338771  5922 net.cpp:156] Memory required for data: 373560320
2016-07-14 23:35:22.339 STDERR [INFO] I0714 23:35:22.338776  5922 layer_factory.hpp:77] Creating layer inception_4a/output_inception_4a/output_0_split
2016-07-14 23:35:22.339 STDERR [INFO] I0714 23:35:22.338784  5922 net.cpp:91] Creating Layer inception_4a/output_inception_4a/output_0_split
…
2016-07-14 23:35:22.339 STDERR [INFO] I0714 23:35:22.338810  5922 net.cpp:399] inception_4a/output_inception_4a/output_0_split -> inception_4a/output_inception_4a/output_0_split_1
2016-07-14 23:35:22.339 STDERR [INFO] I0714 23:35:22.338819  5922 net.cpp:399] inception_4a/output_inception_4a/output_0_split -> inception_4a/output_inception_4a/output_0_split_2
2016-07-14 23:35:22.339 STDERR [INFO] I0714 23:35:22.338826  5922 net.cpp:399] inception_4a/output_inception_4a/output_0_split -> inception_4a/output_inception_4a/output_0_split_3
2016-07-14 23:35:22.339 STDERR [INFO] I0714 23:35:22.338943  5922 net.cpp:141] Setting up inception_4a/output_inception_4a/output_0_split
2016-07-14 23:35:22.339 STDERR [INFO] I0714 23:35:22.338953  5922 net.cpp:148] Top shape: 10 512 14 14 (1003520)
2016-07-14 23:35:22.339 STDERR [INFO] I0714 23:35:22.338958  5922 net.cpp:148] Top shape: 10 512 14 14 (1003520)
2016-07-14 23:35:22.339 STDERR [INFO] I0714 23:35:22.338963  5922 net.cpp:148] Top shape: 10 512 14 14 (1003520)
2016-07-14 23:35:22.339 STDERR [INFO] I0714 23:35:22.338968  5922 net.cpp:148] Top shape: 10 512 14 14 (1003520)
2016-07-14 23:35:22.339 STDERR [INFO] I0714 23:35:22.338971  5922 net.cpp:156] Memory required for data: 389616640
2016-07-14 23:35:22.339 STDERR [INFO] I0714 23:35:22.338976  5922 layer_factory.hpp:77] Creating layer inception_4b/1x1
2016-07-14 23:35:22.339 STDERR [INFO] I0714 23:35:22.338994  5922 net.cpp:91] Creating Layer inception_4b/1x1
2016-07-14 23:35:22.339 STDERR [INFO] I0714 23:35:22.338999  5922 net.cpp:425] inception_4b/1x1 <- inception_4a/output_inception_4a/output_0_split_0
2016-07-14 23:35:22.339 STDERR [INFO] I0714 23:35:22.339009  5922 net.cpp:399] inception_4b/1x1 -> inception_4b/1x1
2016-07-14 23:35:22.339 STDERR [INFO] I0714 23:35:22.339256  5918 net.cpp:141] Setting up inception_4a/pool_proj
2016-07-14 23:35:22.339 STDERR [INFO] I0714 23:35:22.339269  5918 net.cpp:148] Top shape: 10 64 14 14 (125440)
2016-07-14 23:35:22.339 STDERR [INFO] I0714 23:35:22.339274  5918 net.cpp:156] Memory required for data: 369044480
2016-07-14 23:35:22.339 STDERR [INFO] I0714 23:35:22.339283  5918 layer_factory.hpp:77] Creating layer inception_4a/relu_pool_proj
2016-07-14 23:35:22.339 STDERR [INFO] I0714 23:35:22.339293  5918 net.cpp:91] Creating Layer inception_4a/relu_pool_proj
2016-07-14 23:35:22.340 STDERR [INFO] I0714 23:35:22.339298  5918 net.cpp:425] inception_4a/relu_pool_proj <- inception_4a/pool_proj
2016-07-14 23:35:22.340 STDERR [INFO] I0714 23:35:22.339305  5918 net.cpp:386] inception_4a/relu_pool_proj -> inception_4a/pool_proj (in-place)
2016-07-14 23:35:22.340 STDERR [INFO] I0714 23:35:22.340158  5918 net.cpp:141] Setting up inception_4a/relu_pool_proj
2016-07-14 23:35:22.340 STDERR [INFO] I0714 23:35:22.340173  5918 net.cpp:148] Top shape: 10 64 14 14 (125440)
2016-07-14 23:35:22.340 STDERR [INFO] I0714 23:35:22.340178  5918 net.cpp:156] Memory required for data: 369546240
2016-07-14 23:35:22.340 STDERR [INFO] I0714 23:35:22.340183  5918 layer_factory.hpp:77] Creating layer inception_4a/output
2016-07-14 23:35:22.340 STDERR [INFO] I0714 23:35:22.340191  5918 net.cpp:91] Creating Layer inception_4a/output
2016-07-14 23:35:22.340 STDERR [INFO] I0714 23:35:22.340196  5918 net.cpp:425] inception_4a/output <- inception_4a/1x1
2016-07-14 23:35:22.340 STDERR [INFO] I0714 23:35:22.340203  5918 net.cpp:425] inception_4a/output <- inception_4a/3x3
2016-07-14 23:35:22.340 STDERR [INFO] I0714 23:35:22.340207  5918 net.cpp:425] inception_4a/output <- inception_4a/5x5
2016-07-14 23:35:22.340 STDERR [INFO] I0714 23:35:22.340212  5918 net.cpp:425] inception_4a/output <- inception_4a/pool_proj
2016-07-14 23:35:22.340 STDERR [INFO] I0714 23:35:22.340222  5918 net.cpp:399] inception_4a/output -> inception_4a/output
2016-07-14 23:35:22.340 STDERR [INFO] I0714 23:35:22.340268  5918 net.cpp:141] Setting up inception_4a/output
2016-07-14 23:35:22.341 STDERR [INFO] I0714 23:35:22.340281  5918 net.cpp:148] Top shape: 10 512 14 14 (1003520)
2016-07-14 23:35:22.341 STDERR [INFO] I0714 23:35:22.340286  5918 net.cpp:156] Memory required for data: 373560320
2016-07-14 23:35:22.341 STDERR [INFO] I0714 23:35:22.340291  5918 layer_factory.hpp:77] Creating layer inception_4a/output_inception_4a/output_0_split
2016-07-14 23:35:22.341 STDERR [INFO] I0714 23:35:22.340297  5918 net.cpp:91] Creating Layer inception_4a/output_inception_4a/output_0_split
…
2016-07-14 23:35:22.341 STDERR [INFO] I0714 23:35:22.340317  5918 net.cpp:399] inception_4a/output_inception_4a/output_0_split -> inception_4a/output_inception_4a/output_0_split_1
2016-07-14 23:35:22.341 STDERR [INFO] I0714 23:35:22.340329  5918 net.cpp:399] inception_4a/output_inception_4a/output_0_split -> inception_4a/output_inception_4a/output_0_split_2
2016-07-14 23:35:22.341 STDERR [INFO] I0714 23:35:22.340338  5918 net.cpp:399] inception_4a/output_inception_4a/output_0_split -> inception_4a/output_inception_4a/output_0_split_3
2016-07-14 23:35:22.341 STDERR [INFO] I0714 23:35:22.340435  5918 net.cpp:141] Setting up inception_4a/output_inception_4a/output_0_split
2016-07-14 23:35:22.341 STDERR [INFO] I0714 23:35:22.340445  5918 net.cpp:148] Top shape: 10 512 14 14 (1003520)
2016-07-14 23:35:22.341 STDERR [INFO] I0714 23:35:22.340450  5918 net.cpp:148] Top shape: 10 512 14 14 (1003520)
2016-07-14 23:35:22.341 STDERR [INFO] I0714 23:35:22.340454  5918 net.cpp:148] Top shape: 10 512 14 14 (1003520)
2016-07-14 23:35:22.341 STDERR [INFO] I0714 23:35:22.340459  5918 net.cpp:148] Top shape: 10 512 14 14 (1003520)
2016-07-14 23:35:22.341 STDERR [INFO] I0714 23:35:22.340463  5918 net.cpp:156] Memory required for data: 389616640
2016-07-14 23:35:22.341 STDERR [INFO] I0714 23:35:22.340468  5918 layer_factory.hpp:77] Creating layer inception_4b/1x1
2016-07-14 23:35:22.341 STDERR [INFO] I0714 23:35:22.340483  5918 net.cpp:91] Creating Layer inception_4b/1x1
2016-07-14 23:35:22.341 STDERR [INFO] I0714 23:35:22.340488  5918 net.cpp:425] inception_4b/1x1 <- inception_4a/output_inception_4a/output_0_split_0
2016-07-14 23:35:22.341 STDERR [INFO] I0714 23:35:22.340499  5918 net.cpp:399] inception_4b/1x1 -> inception_4b/1x1
2016-07-14 23:35:22.344 STDERR [INFO] I0714 23:35:22.344310  5922 net.cpp:141] Setting up inception_4b/1x1
2016-07-14 23:35:22.344 STDERR [INFO] I0714 23:35:22.344343  5922 net.cpp:148] Top shape: 10 160 14 14 (313600)
2016-07-14 23:35:22.344 STDERR [INFO] I0714 23:35:22.344348  5922 net.cpp:156] Memory required for data: 390871040
2016-07-14 23:35:22.344 STDERR [INFO] I0714 23:35:22.344358  5922 layer_factory.hpp:77] Creating layer inception_4b/relu_1x1
2016-07-14 23:35:22.344 STDERR [INFO] I0714 23:35:22.344367  5922 net.cpp:91] Creating Layer inception_4b/relu_1x1
2016-07-14 23:35:22.344 STDERR [INFO] I0714 23:35:22.344372  5922 net.cpp:425] inception_4b/relu_1x1 <- inception_4b/1x1
2016-07-14 23:35:22.344 STDERR [INFO] I0714 23:35:22.344382  5922 net.cpp:386] inception_4b/relu_1x1 -> inception_4b/1x1 (in-place)
2016-07-14 23:35:22.345 STDERR [INFO] I0714 23:35:22.345193  5918 net.cpp:141] Setting up inception_4b/1x1
2016-07-14 23:35:22.345 STDERR [INFO] I0714 23:35:22.345221  5918 net.cpp:148] Top shape: 10 160 14 14 (313600)
2016-07-14 23:35:22.345 STDERR [INFO] I0714 23:35:22.345227  5918 net.cpp:156] Memory required for data: 390871040
2016-07-14 23:35:22.345 STDERR [INFO] I0714 23:35:22.345235  5918 layer_factory.hpp:77] Creating layer inception_4b/relu_1x1
2016-07-14 23:35:22.345 STDERR [INFO] I0714 23:35:22.345247  5918 net.cpp:91] Creating Layer inception_4b/relu_1x1
2016-07-14 23:35:22.345 STDERR [INFO] I0714 23:35:22.345254  5918 net.cpp:425] inception_4b/relu_1x1 <- inception_4b/1x1
2016-07-14 23:35:22.345 STDERR [INFO] I0714 23:35:22.345262  5918 net.cpp:386] inception_4b/relu_1x1 -> inception_4b/1x1 (in-place)
2016-07-14 23:35:22.345 STDERR [INFO] I0714 23:35:22.345273  5922 net.cpp:141] Setting up inception_4b/relu_1x1
2016-07-14 23:35:22.345 STDERR [INFO] I0714 23:35:22.345286  5922 net.cpp:148] Top shape: 10 160 14 14 (313600)
2016-07-14 23:35:22.345 STDERR [INFO] I0714 23:35:22.345290  5922 net.cpp:156] Memory required for data: 392125440
2016-07-14 23:35:22.345 STDERR [INFO] I0714 23:35:22.345295  5922 layer_factory.hpp:77] Creating layer inception_4b/3x3_reduce
2016-07-14 23:35:22.345 STDERR [INFO] I0714 23:35:22.345310  5922 net.cpp:91] Creating Layer inception_4b/3x3_reduce
2016-07-14 23:35:22.345 STDERR [INFO] I0714 23:35:22.345316  5922 net.cpp:425] inception_4b/3x3_reduce <- inception_4a/output_inception_4a/output_0_split_1
2016-07-14 23:35:22.345 STDERR [INFO] I0714 23:35:22.345329  5922 net.cpp:399] inception_4b/3x3_reduce -> inception_4b/3x3_reduce
2016-07-14 23:35:22.345 STDERR [INFO] I0714 23:35:22.345759  5918 net.cpp:141] Setting up inception_4b/relu_1x1
2016-07-14 23:35:22.345 STDERR [INFO] I0714 23:35:22.345770  5918 net.cpp:148] Top shape: 10 160 14 14 (313600)
2016-07-14 23:35:22.345 STDERR [INFO] I0714 23:35:22.345775  5918 net.cpp:156] Memory required for data: 392125440
2016-07-14 23:35:22.346 STDERR [INFO] I0714 23:35:22.345780  5918 layer_factory.hpp:77] Creating layer inception_4b/3x3_reduce
2016-07-14 23:35:22.346 STDERR [INFO] I0714 23:35:22.345796  5918 net.cpp:91] Creating Layer inception_4b/3x3_reduce
2016-07-14 23:35:22.346 STDERR [INFO] I0714 23:35:22.345803  5918 net.cpp:425] inception_4b/3x3_reduce <- inception_4a/output_inception_4a/output_0_split_1
2016-07-14 23:35:22.346 STDERR [INFO] I0714 23:35:22.345813  5918 net.cpp:399] inception_4b/3x3_reduce -> inception_4b/3x3_reduce
2016-07-14 23:35:22.350 STDERR [INFO] I0714 23:35:22.350175  5922 net.cpp:141] Setting up inception_4b/3x3_reduce
2016-07-14 23:35:22.350 STDERR [INFO] I0714 23:35:22.350190  5922 net.cpp:148] Top shape: 10 112 14 14 (219520)
2016-07-14 23:35:22.350 STDERR [INFO] I0714 23:35:22.350195  5922 net.cpp:156] Memory required for data: 393003520
2016-07-14 23:35:22.350 STDERR [INFO] I0714 23:35:22.350216  5922 layer_factory.hpp:77] Creating layer inception_4b/relu_3x3_reduce
2016-07-14 23:35:22.350 STDERR [INFO] I0714 23:35:22.350225  5922 net.cpp:91] Creating Layer inception_4b/relu_3x3_reduce
2016-07-14 23:35:22.350 STDERR [INFO] I0714 23:35:22.350230  5922 net.cpp:425] inception_4b/relu_3x3_reduce <- inception_4b/3x3_reduce
2016-07-14 23:35:22.350 STDERR [INFO] I0714 23:35:22.350240  5922 net.cpp:386] inception_4b/relu_3x3_reduce -> inception_4b/3x3_reduce (in-place)
2016-07-14 23:35:22.351 STDERR [INFO] I0714 23:35:22.350980  5918 net.cpp:141] Setting up inception_4b/3x3_reduce
2016-07-14 23:35:22.351 STDERR [INFO] I0714 23:35:22.350996  5918 net.cpp:148] Top shape: 10 112 14 14 (219520)
2016-07-14 23:35:22.351 STDERR [INFO] I0714 23:35:22.351001  5918 net.cpp:156] Memory required for data: 393003520
2016-07-14 23:35:22.351 STDERR [INFO] I0714 23:35:22.351011  5918 layer_factory.hpp:77] Creating layer inception_4b/relu_3x3_reduce
2016-07-14 23:35:22.351 STDERR [INFO] I0714 23:35:22.351022  5918 net.cpp:91] Creating Layer inception_4b/relu_3x3_reduce
2016-07-14 23:35:22.351 STDERR [INFO] I0714 23:35:22.351028  5918 net.cpp:425] inception_4b/relu_3x3_reduce <- inception_4b/3x3_reduce
2016-07-14 23:35:22.351 STDERR [INFO] I0714 23:35:22.351035  5918 net.cpp:386] inception_4b/relu_3x3_reduce -> inception_4b/3x3_reduce (in-place)
2016-07-14 23:35:22.351 STDERR [INFO] I0714 23:35:22.351325  5922 net.cpp:141] Setting up inception_4b/relu_3x3_reduce
2016-07-14 23:35:22.351 STDERR [INFO] I0714 23:35:22.351337  5922 net.cpp:148] Top shape: 10 112 14 14 (219520)
2016-07-14 23:35:22.351 STDERR [INFO] I0714 23:35:22.351341  5922 net.cpp:156] Memory required for data: 393881600
2016-07-14 23:35:22.351 STDERR [INFO] I0714 23:35:22.351346  5922 layer_factory.hpp:77] Creating layer inception_4b/3x3
2016-07-14 23:35:22.351 STDERR [INFO] I0714 23:35:22.351346  5918 net.cpp:141] Setting up inception_4b/relu_3x3_reduce
2016-07-14 23:35:22.351 STDERR [INFO] I0714 23:35:22.351359  5918 net.cpp:148] Top shape: 10 112 14 14 (219520)
2016-07-14 23:35:22.351 STDERR [INFO] I0714 23:35:22.351361  5922 net.cpp:91] Creating Layer inception_4b/3x3
2016-07-14 23:35:22.351 STDERR [INFO] I0714 23:35:22.351363  5918 net.cpp:156] Memory required for data: 393881600
2016-07-14 23:35:22.351 STDERR [INFO] I0714 23:35:22.351367  5922 net.cpp:425] inception_4b/3x3 <- inception_4b/3x3_reduce
2016-07-14 23:35:22.351 STDERR [INFO] I0714 23:35:22.351368  5918 layer_factory.hpp:77] Creating layer inception_4b/3x3
2016-07-14 23:35:22.351 STDERR [INFO] I0714 23:35:22.351383  5922 net.cpp:399] inception_4b/3x3 -> inception_4b/3x3
2016-07-14 23:35:22.351 STDERR [INFO] I0714 23:35:22.351390  5918 net.cpp:91] Creating Layer inception_4b/3x3
2016-07-14 23:35:22.351 STDERR [INFO] I0714 23:35:22.351397  5918 net.cpp:425] inception_4b/3x3 <- inception_4b/3x3_reduce
2016-07-14 23:35:22.351 STDERR [INFO] I0714 23:35:22.351407  5918 net.cpp:399] inception_4b/3x3 -> inception_4b/3x3
2016-07-14 23:35:22.357 STDERR [INFO] I0714 23:35:22.357841  5922 net.cpp:141] Setting up inception_4b/3x3
2016-07-14 23:35:22.358 STDERR [INFO] I0714 23:35:22.357870  5922 net.cpp:148] Top shape: 10 224 14 14 (439040)
2016-07-14 23:35:22.358 STDERR [INFO] I0714 23:35:22.357877  5922 net.cpp:156] Memory required for data: 395637760
2016-07-14 23:35:22.358 STDERR [INFO] I0714 23:35:22.357885  5922 layer_factory.hpp:77] Creating layer inception_4b/relu_3x3
2016-07-14 23:35:22.358 STDERR [INFO] I0714 23:35:22.357894  5922 net.cpp:91] Creating Layer inception_4b/relu_3x3
2016-07-14 23:35:22.358 STDERR [INFO] I0714 23:35:22.357899  5922 net.cpp:425] inception_4b/relu_3x3 <- inception_4b/3x3
2016-07-14 23:35:22.358 STDERR [INFO] I0714 23:35:22.357909  5922 net.cpp:386] inception_4b/relu_3x3 -> inception_4b/3x3 (in-place)
2016-07-14 23:35:22.359 STDERR [INFO] I0714 23:35:22.359127  5922 net.cpp:141] Setting up inception_4b/relu_3x3
2016-07-14 23:35:22.359 STDERR [INFO] I0714 23:35:22.359153  5922 net.cpp:148] Top shape: 10 224 14 14 (439040)
2016-07-14 23:35:22.359 STDERR [INFO] I0714 23:35:22.359158  5922 net.cpp:156] Memory required for data: 397393920
2016-07-14 23:35:22.359 STDERR [INFO] I0714 23:35:22.359163  5922 layer_factory.hpp:77] Creating layer inception_4b/5x5_reduce
2016-07-14 23:35:22.359 STDERR [INFO] I0714 23:35:22.359191  5922 net.cpp:91] Creating Layer inception_4b/5x5_reduce
2016-07-14 23:35:22.359 STDERR [INFO] I0714 23:35:22.359199  5922 net.cpp:425] inception_4b/5x5_reduce <- inception_4a/output_inception_4a/output_0_split_2
2016-07-14 23:35:22.359 STDERR [INFO] I0714 23:35:22.359210  5922 net.cpp:399] inception_4b/5x5_reduce -> inception_4b/5x5_reduce
2016-07-14 23:35:22.359 STDERR [INFO] I0714 23:35:22.359657  5918 net.cpp:141] Setting up inception_4b/3x3
2016-07-14 23:35:22.359 STDERR [INFO] I0714 23:35:22.359673  5918 net.cpp:148] Top shape: 10 224 14 14 (439040)
2016-07-14 23:35:22.359 STDERR [INFO] I0714 23:35:22.359678  5918 net.cpp:156] Memory required for data: 395637760
2016-07-14 23:35:22.359 STDERR [INFO] I0714 23:35:22.359688  5918 layer_factory.hpp:77] Creating layer inception_4b/relu_3x3
2016-07-14 23:35:22.359 STDERR [INFO] I0714 23:35:22.359697  5918 net.cpp:91] Creating Layer inception_4b/relu_3x3
2016-07-14 23:35:22.359 STDERR [INFO] I0714 23:35:22.359702  5918 net.cpp:425] inception_4b/relu_3x3 <- inception_4b/3x3
2016-07-14 23:35:22.359 STDERR [INFO] I0714 23:35:22.359714  5918 net.cpp:386] inception_4b/relu_3x3 -> inception_4b/3x3 (in-place)
2016-07-14 23:35:22.360 STDERR [INFO] I0714 23:35:22.360810  5918 net.cpp:141] Setting up inception_4b/relu_3x3
2016-07-14 23:35:22.360 STDERR [INFO] I0714 23:35:22.360826  5918 net.cpp:148] Top shape: 10 224 14 14 (439040)
2016-07-14 23:35:22.361 STDERR [INFO] I0714 23:35:22.360829  5918 net.cpp:156] Memory required for data: 397393920
2016-07-14 23:35:22.361 STDERR [INFO] I0714 23:35:22.360834  5918 layer_factory.hpp:77] Creating layer inception_4b/5x5_reduce
2016-07-14 23:35:22.361 STDERR [INFO] I0714 23:35:22.360862  5918 net.cpp:91] Creating Layer inception_4b/5x5_reduce
2016-07-14 23:35:22.361 STDERR [INFO] I0714 23:35:22.360867  5918 net.cpp:425] inception_4b/5x5_reduce <- inception_4a/output_inception_4a/output_0_split_2
2016-07-14 23:35:22.361 STDERR [INFO] I0714 23:35:22.360884  5918 net.cpp:399] inception_4b/5x5_reduce -> inception_4b/5x5_reduce
2016-07-14 23:35:22.364 STDERR [INFO] I0714 23:35:22.363967  5922 net.cpp:141] Setting up inception_4b/5x5_reduce
2016-07-14 23:35:22.364 STDERR [INFO] I0714 23:35:22.363983  5922 net.cpp:148] Top shape: 10 24 14 14 (47040)
2016-07-14 23:35:22.364 STDERR [INFO] I0714 23:35:22.363988  5922 net.cpp:156] Memory required for data: 397582080
2016-07-14 23:35:22.364 STDERR [INFO] I0714 23:35:22.363997  5922 layer_factory.hpp:77] Creating layer inception_4b/relu_5x5_reduce
2016-07-14 23:35:22.364 STDERR [INFO] I0714 23:35:22.364009  5922 net.cpp:91] Creating Layer inception_4b/relu_5x5_reduce
2016-07-14 23:35:22.364 STDERR [INFO] I0714 23:35:22.364015  5922 net.cpp:425] inception_4b/relu_5x5_reduce <- inception_4b/5x5_reduce
2016-07-14 23:35:22.364 STDERR [INFO] I0714 23:35:22.364022  5922 net.cpp:386] inception_4b/relu_5x5_reduce -> inception_4b/5x5_reduce (in-place)
2016-07-14 23:35:22.365 STDERR [INFO] I0714 23:35:22.365084  5922 net.cpp:141] Setting up inception_4b/relu_5x5_reduce
2016-07-14 23:35:22.365 STDERR [INFO] I0714 23:35:22.365097  5922 net.cpp:148] Top shape: 10 24 14 14 (47040)
2016-07-14 23:35:22.365 STDERR [INFO] I0714 23:35:22.365102  5922 net.cpp:156] Memory required for data: 397770240
2016-07-14 23:35:22.365 STDERR [INFO] I0714 23:35:22.365106  5922 layer_factory.hpp:77] Creating layer inception_4b/5x5
2016-07-14 23:35:22.365 STDERR [INFO] I0714 23:35:22.365123  5922 net.cpp:91] Creating Layer inception_4b/5x5
2016-07-14 23:35:22.365 STDERR [INFO] I0714 23:35:22.365128  5922 net.cpp:425] inception_4b/5x5 <- inception_4b/5x5_reduce
2016-07-14 23:35:22.365 STDERR [INFO] I0714 23:35:22.365139  5922 net.cpp:399] inception_4b/5x5 -> inception_4b/5x5
2016-07-14 23:35:22.365 STDERR [INFO] I0714 23:35:22.365458  5918 net.cpp:141] Setting up inception_4b/5x5_reduce
2016-07-14 23:35:22.365 STDERR [INFO] I0714 23:35:22.365473  5918 net.cpp:148] Top shape: 10 24 14 14 (47040)
2016-07-14 23:35:22.365 STDERR [INFO] I0714 23:35:22.365478  5918 net.cpp:156] Memory required for data: 397582080
2016-07-14 23:35:22.365 STDERR [INFO] I0714 23:35:22.365486  5918 layer_factory.hpp:77] Creating layer inception_4b/relu_5x5_reduce
2016-07-14 23:35:22.365 STDERR [INFO] I0714 23:35:22.365495  5918 net.cpp:91] Creating Layer inception_4b/relu_5x5_reduce
2016-07-14 23:35:22.365 STDERR [INFO] I0714 23:35:22.365501  5918 net.cpp:425] inception_4b/relu_5x5_reduce <- inception_4b/5x5_reduce
2016-07-14 23:35:22.365 STDERR [INFO] I0714 23:35:22.365507  5918 net.cpp:386] inception_4b/relu_5x5_reduce -> inception_4b/5x5_reduce (in-place)
2016-07-14 23:35:22.365 STDERR [INFO] I0714 23:35:22.365864  5918 net.cpp:141] Setting up inception_4b/relu_5x5_reduce
2016-07-14 23:35:22.365 STDERR [INFO] I0714 23:35:22.365878  5918 net.cpp:148] Top shape: 10 24 14 14 (47040)
2016-07-14 23:35:22.365 STDERR [INFO] I0714 23:35:22.365883  5918 net.cpp:156] Memory required for data: 397770240
2016-07-14 23:35:22.366 STDERR [INFO] I0714 23:35:22.365888  5918 layer_factory.hpp:77] Creating layer inception_4b/5x5
2016-07-14 23:35:22.366 STDERR [INFO] I0714 23:35:22.365903  5918 net.cpp:91] Creating Layer inception_4b/5x5
2016-07-14 23:35:22.366 STDERR [INFO] I0714 23:35:22.365909  5918 net.cpp:425] inception_4b/5x5 <- inception_4b/5x5_reduce
2016-07-14 23:35:22.366 STDERR [INFO] I0714 23:35:22.365921  5918 net.cpp:399] inception_4b/5x5 -> inception_4b/5x5
2016-07-14 23:35:22.371 STDERR [INFO] I0714 23:35:22.371317  5922 net.cpp:141] Setting up inception_4b/5x5
2016-07-14 23:35:22.371 STDERR [INFO] I0714 23:35:22.371347  5922 net.cpp:148] Top shape: 10 64 14 14 (125440)
2016-07-14 23:35:22.371 STDERR [INFO] I0714 23:35:22.371352  5922 net.cpp:156] Memory required for data: 398272000
2016-07-14 23:35:22.371 STDERR [INFO] I0714 23:35:22.371361  5922 layer_factory.hpp:77] Creating layer inception_4b/relu_5x5
2016-07-14 23:35:22.371 STDERR [INFO] I0714 23:35:22.371371  5922 net.cpp:91] Creating Layer inception_4b/relu_5x5
2016-07-14 23:35:22.371 STDERR [INFO] I0714 23:35:22.371376  5922 net.cpp:425] inception_4b/relu_5x5 <- inception_4b/5x5
2016-07-14 23:35:22.371 STDERR [INFO] I0714 23:35:22.371386  5922 net.cpp:386] inception_4b/relu_5x5 -> inception_4b/5x5 (in-place)
2016-07-14 23:35:22.372 STDERR [INFO] I0714 23:35:22.372177  5918 net.cpp:141] Setting up inception_4b/5x5
2016-07-14 23:35:22.372 STDERR [INFO] I0714 23:35:22.372205  5918 net.cpp:148] Top shape: 10 64 14 14 (125440)
2016-07-14 23:35:22.372 STDERR [INFO] I0714 23:35:22.372211  5918 net.cpp:156] Memory required for data: 398272000
2016-07-14 23:35:22.372 STDERR [INFO] I0714 23:35:22.372220  5918 layer_factory.hpp:77] Creating layer inception_4b/relu_5x5
2016-07-14 23:35:22.372 STDERR [INFO] I0714 23:35:22.372229  5918 net.cpp:91] Creating Layer inception_4b/relu_5x5
2016-07-14 23:35:22.372 STDERR [INFO] I0714 23:35:22.372237  5918 net.cpp:425] inception_4b/relu_5x5 <- inception_4b/5x5
2016-07-14 23:35:22.372 STDERR [INFO] I0714 23:35:22.372244  5918 net.cpp:386] inception_4b/relu_5x5 -> inception_4b/5x5 (in-place)
2016-07-14 23:35:22.372 STDERR [INFO] I0714 23:35:22.372449  5922 net.cpp:141] Setting up inception_4b/relu_5x5
2016-07-14 23:35:22.372 STDERR [INFO] I0714 23:35:22.372462  5922 net.cpp:148] Top shape: 10 64 14 14 (125440)
2016-07-14 23:35:22.372 STDERR [INFO] I0714 23:35:22.372467  5922 net.cpp:156] Memory required for data: 398773760
2016-07-14 23:35:22.372 STDERR [INFO] I0714 23:35:22.372472  5922 layer_factory.hpp:77] Creating layer inception_4b/pool
2016-07-14 23:35:22.372 STDERR [INFO] I0714 23:35:22.372483  5922 net.cpp:91] Creating Layer inception_4b/pool
2016-07-14 23:35:22.372 STDERR [INFO] I0714 23:35:22.372488  5922 net.cpp:425] inception_4b/pool <- inception_4a/output_inception_4a/output_0_split_3
2016-07-14 23:35:22.372 STDERR [INFO] I0714 23:35:22.372496  5922 net.cpp:399] inception_4b/pool -> inception_4b/pool
2016-07-14 23:35:22.372 STDERR [INFO] I0714 23:35:22.372591  5922 net.cpp:141] Setting up inception_4b/pool
2016-07-14 23:35:22.372 STDERR [INFO] I0714 23:35:22.372601  5922 net.cpp:148] Top shape: 10 512 14 14 (1003520)
2016-07-14 23:35:22.372 STDERR [INFO] I0714 23:35:22.372606  5922 net.cpp:156] Memory required for data: 402787840
2016-07-14 23:35:22.372 STDERR [INFO] I0714 23:35:22.372609  5922 layer_factory.hpp:77] Creating layer inception_4b/pool_proj
2016-07-14 23:35:22.373 STDERR [INFO] I0714 23:35:22.372617  5918 net.cpp:141] Setting up inception_4b/relu_5x5
2016-07-14 23:35:22.373 STDERR [INFO] I0714 23:35:22.372627  5922 net.cpp:91] Creating Layer inception_4b/pool_proj
2016-07-14 23:35:22.373 STDERR [INFO] I0714 23:35:22.372629  5918 net.cpp:148] Top shape: 10 64 14 14 (125440)
2016-07-14 23:35:22.373 STDERR [INFO] I0714 23:35:22.372632  5922 net.cpp:425] inception_4b/pool_proj <- inception_4b/pool
2016-07-14 23:35:22.373 STDERR [INFO] I0714 23:35:22.372634  5918 net.cpp:156] Memory required for data: 398773760
2016-07-14 23:35:22.373 STDERR [INFO] I0714 23:35:22.372639  5918 layer_factory.hpp:77] Creating layer inception_4b/pool
2016-07-14 23:35:22.373 STDERR [INFO] I0714 23:35:22.372642  5922 net.cpp:399] inception_4b/pool_proj -> inception_4b/pool_proj
2016-07-14 23:35:22.373 STDERR [INFO] I0714 23:35:22.372650  5918 net.cpp:91] Creating Layer inception_4b/pool
2016-07-14 23:35:22.373 STDERR [INFO] I0714 23:35:22.372656  5918 net.cpp:425] inception_4b/pool <- inception_4a/output_inception_4a/output_0_split_3
2016-07-14 23:35:22.373 STDERR [INFO] I0714 23:35:22.372664  5918 net.cpp:399] inception_4b/pool -> inception_4b/pool
2016-07-14 23:35:22.373 STDERR [INFO] I0714 23:35:22.372964  5918 net.cpp:141] Setting up inception_4b/pool
2016-07-14 23:35:22.373 STDERR [INFO] I0714 23:35:22.372975  5918 net.cpp:148] Top shape: 10 512 14 14 (1003520)
2016-07-14 23:35:22.373 STDERR [INFO] I0714 23:35:22.372979  5918 net.cpp:156] Memory required for data: 402787840
2016-07-14 23:35:22.373 STDERR [INFO] I0714 23:35:22.372984  5918 layer_factory.hpp:77] Creating layer inception_4b/pool_proj
2016-07-14 23:35:22.373 STDERR [INFO] I0714 23:35:22.372999  5918 net.cpp:91] Creating Layer inception_4b/pool_proj
2016-07-14 23:35:22.373 STDERR [INFO] I0714 23:35:22.373004  5918 net.cpp:425] inception_4b/pool_proj <- inception_4b/pool
2016-07-14 23:35:22.373 STDERR [INFO] I0714 23:35:22.373016  5918 net.cpp:399] inception_4b/pool_proj -> inception_4b/pool_proj
2016-07-14 23:35:22.376 STDERR [INFO] I0714 23:35:22.376605  5922 net.cpp:141] Setting up inception_4b/pool_proj
2016-07-14 23:35:22.376 STDERR [INFO] I0714 23:35:22.376632  5922 net.cpp:148] Top shape: 10 64 14 14 (125440)
2016-07-14 23:35:22.376 STDERR [INFO] I0714 23:35:22.376638  5922 net.cpp:156] Memory required for data: 403289600
2016-07-14 23:35:22.376 STDERR [INFO] I0714 23:35:22.376649  5922 layer_factory.hpp:77] Creating layer inception_4b/relu_pool_proj
2016-07-14 23:35:22.376 STDERR [INFO] I0714 23:35:22.376673  5922 net.cpp:91] Creating Layer inception_4b/relu_pool_proj
2016-07-14 23:35:22.376 STDERR [INFO] I0714 23:35:22.376682  5922 net.cpp:425] inception_4b/relu_pool_proj <- inception_4b/pool_proj
2016-07-14 23:35:22.377 STDERR [INFO] I0714 23:35:22.376689  5922 net.cpp:386] inception_4b/relu_pool_proj -> inception_4b/pool_proj (in-place)
2016-07-14 23:35:22.378 STDERR [INFO] I0714 23:35:22.378072  5922 net.cpp:141] Setting up inception_4b/relu_pool_proj
2016-07-14 23:35:22.378 STDERR [INFO] I0714 23:35:22.378093  5922 net.cpp:148] Top shape: 10 64 14 14 (125440)
2016-07-14 23:35:22.378 STDERR [INFO] I0714 23:35:22.378099  5922 net.cpp:156] Memory required for data: 403791360
2016-07-14 23:35:22.378 STDERR [INFO] I0714 23:35:22.378105  5922 layer_factory.hpp:77] Creating layer inception_4b/output
2016-07-14 23:35:22.378 STDERR [INFO] I0714 23:35:22.378114  5922 net.cpp:91] Creating Layer inception_4b/output
2016-07-14 23:35:22.378 STDERR [INFO] I0714 23:35:22.378119  5922 net.cpp:425] inception_4b/output <- inception_4b/1x1
2016-07-14 23:35:22.378 STDERR [INFO] I0714 23:35:22.378125  5922 net.cpp:425] inception_4b/output <- inception_4b/3x3
2016-07-14 23:35:22.378 STDERR [INFO] I0714 23:35:22.378131  5922 net.cpp:425] inception_4b/output <- inception_4b/5x5
2016-07-14 23:35:22.378 STDERR [INFO] I0714 23:35:22.378139  5922 net.cpp:425] inception_4b/output <- inception_4b/pool_proj
2016-07-14 23:35:22.378 STDERR [INFO] I0714 23:35:22.378146  5922 net.cpp:399] inception_4b/output -> inception_4b/output
2016-07-14 23:35:22.378 STDERR [INFO] I0714 23:35:22.378262  5922 net.cpp:141] Setting up inception_4b/output
2016-07-14 23:35:22.378 STDERR [INFO] I0714 23:35:22.378274  5922 net.cpp:148] Top shape: 10 512 14 14 (1003520)
2016-07-14 23:35:22.378 STDERR [INFO] I0714 23:35:22.378280  5922 net.cpp:156] Memory required for data: 407805440
2016-07-14 23:35:22.378 STDERR [INFO] I0714 23:35:22.378286  5922 layer_factory.hpp:77] Creating layer inception_4b/output_inception_4b/output_0_split
2016-07-14 23:35:22.378 STDERR [INFO] I0714 23:35:22.378299  5922 net.cpp:91] Creating Layer inception_4b/output_inception_4b/output_0_split
2016-07-14 23:35:22.378 STDERR [INFO] I0714 23:35:22.378305  5922 net.cpp:425] inception_4b/output_inception_4b/output_0_split <- inception_4b/output
2016-07-14 23:35:22.378 STDERR [INFO] I0714 23:35:22.378312  5922 net.cpp:399] inception_4b/output_inception_4b/output_0_split -> inception_4b/output_inception_4b/output_0_split_0
2016-07-14 23:35:22.378 STDERR [INFO] I0714 23:35:22.378324  5922 net.cpp:399] inception_4b/output_inception_4b/output_0_split -> inception_4b/output_inception_4b/output_0_split_1
2016-07-14 23:35:22.378 STDERR [INFO] I0714 23:35:22.378334  5922 net.cpp:399] inception_4b/output_inception_4b/output_0_split -> inception_4b/output_inception_4b/output_0_split_2
2016-07-14 23:35:22.378 STDERR [INFO] I0714 23:35:22.378343  5922 net.cpp:399] inception_4b/output_inception_4b/output_0_split -> inception_4b/output_inception_4b/output_0_split_3
2016-07-14 23:35:22.379 STDERR [INFO] I0714 23:35:22.378474  5918 net.cpp:141] Setting up inception_4b/pool_proj
2016-07-14 23:35:22.379 STDERR [INFO] I0714 23:35:22.378490  5918 net.cpp:148] Top shape: 10 64 14 14 (125440)
2016-07-14 23:35:22.379 STDERR [INFO] I0714 23:35:22.378495  5918 net.cpp:156] Memory required for data: 403289600
2016-07-14 23:35:22.379 STDERR [INFO] I0714 23:35:22.378505  5918 layer_factory.hpp:77] Creating layer inception_4b/relu_pool_proj
2016-07-14 23:35:22.379 STDERR [INFO] I0714 23:35:22.378520  5918 net.cpp:91] Creating Layer inception_4b/relu_pool_proj
2016-07-14 23:35:22.379 STDERR [INFO] I0714 23:35:22.378527  5918 net.cpp:425] inception_4b/relu_pool_proj <- inception_4b/pool_proj
2016-07-14 23:35:22.379 STDERR [INFO] I0714 23:35:22.378535  5918 net.cpp:386] inception_4b/relu_pool_proj -> inception_4b/pool_proj (in-place)
2016-07-14 23:35:22.379 STDERR [INFO] I0714 23:35:22.378536  5922 net.cpp:141] Setting up inception_4b/output_inception_4b/output_0_split
2016-07-14 23:35:22.379 STDERR [INFO] I0714 23:35:22.378550  5922 net.cpp:148] Top shape: 10 512 14 14 (1003520)
2016-07-14 23:35:22.379 STDERR [INFO] I0714 23:35:22.378554  5922 net.cpp:148] Top shape: 10 512 14 14 (1003520)
2016-07-14 23:35:22.379 STDERR [INFO] I0714 23:35:22.378561  5922 net.cpp:148] Top shape: 10 512 14 14 (1003520)
2016-07-14 23:35:22.379 STDERR [INFO] I0714 23:35:22.378567  5922 net.cpp:148] Top shape: 10 512 14 14 (1003520)
2016-07-14 23:35:22.379 STDERR [INFO] I0714 23:35:22.378571  5922 net.cpp:156] Memory required for data: 423861760
2016-07-14 23:35:22.379 STDERR [INFO] I0714 23:35:22.378577  5922 layer_factory.hpp:77] Creating layer inception_4c/1x1
2016-07-14 23:35:22.379 STDERR [INFO] I0714 23:35:22.378598  5922 net.cpp:91] Creating Layer inception_4c/1x1
2016-07-14 23:35:22.380 STDERR [INFO] I0714 23:35:22.378604  5922 net.cpp:425] inception_4c/1x1 <- inception_4b/output_inception_4b/output_0_split_0
2016-07-14 23:35:22.380 STDERR [INFO] I0714 23:35:22.378623  5922 net.cpp:399] inception_4c/1x1 -> inception_4c/1x1
2016-07-14 23:35:22.380 STDERR [INFO] I0714 23:35:22.379837  5918 net.cpp:141] Setting up inception_4b/relu_pool_proj
2016-07-14 23:35:22.380 STDERR [INFO] I0714 23:35:22.379853  5918 net.cpp:148] Top shape: 10 64 14 14 (125440)
2016-07-14 23:35:22.380 STDERR [INFO] I0714 23:35:22.379858  5918 net.cpp:156] Memory required for data: 403791360
2016-07-14 23:35:22.380 STDERR [INFO] I0714 23:35:22.379864  5918 layer_factory.hpp:77] Creating layer inception_4b/output
2016-07-14 23:35:22.380 STDERR [INFO] I0714 23:35:22.379879  5918 net.cpp:91] Creating Layer inception_4b/output
2016-07-14 23:35:22.380 STDERR [INFO] I0714 23:35:22.379886  5918 net.cpp:425] inception_4b/output <- inception_4b/1x1
2016-07-14 23:35:22.380 STDERR [INFO] I0714 23:35:22.379894  5918 net.cpp:425] inception_4b/output <- inception_4b/3x3
2016-07-14 23:35:22.380 STDERR [INFO] I0714 23:35:22.379901  5918 net.cpp:425] inception_4b/output <- inception_4b/5x5
2016-07-14 23:35:22.380 STDERR [INFO] I0714 23:35:22.379907  5918 net.cpp:425] inception_4b/output <- inception_4b/pool_proj
2016-07-14 23:35:22.380 STDERR [INFO] I0714 23:35:22.379914  5918 net.cpp:399] inception_4b/output -> inception_4b/output
2016-07-14 23:35:22.380 STDERR [INFO] I0714 23:35:22.379981  5918 net.cpp:141] Setting up inception_4b/output
2016-07-14 23:35:22.380 STDERR [INFO] I0714 23:35:22.379992  5918 net.cpp:148] Top shape: 10 512 14 14 (1003520)
2016-07-14 23:35:22.380 STDERR [INFO] I0714 23:35:22.379997  5918 net.cpp:156] Memory required for data: 407805440
2016-07-14 23:35:22.380 STDERR [INFO] I0714 23:35:22.380002  5918 layer_factory.hpp:77] Creating layer inception_4b/output_inception_4b/output_0_split
2016-07-14 23:35:22.380 STDERR [INFO] I0714 23:35:22.380012  5918 net.cpp:91] Creating Layer inception_4b/output_inception_4b/output_0_split
…
2016-07-14 23:35:22.380 STDERR [INFO] I0714 23:35:22.380059  5918 net.cpp:399] inception_4b/output_inception_4b/output_0_split -> inception_4b/output_inception_4b/output_0_split_1
2016-07-14 23:35:22.380 STDERR [INFO] I0714 23:35:22.380069  5918 net.cpp:399] inception_4b/output_inception_4b/output_0_split -> inception_4b/output_inception_4b/output_0_split_2
2016-07-14 23:35:22.380 STDERR [INFO] I0714 23:35:22.380077  5918 net.cpp:399] inception_4b/output_inception_4b/output_0_split -> inception_4b/output_inception_4b/output_0_split_3
2016-07-14 23:35:22.380 STDERR [INFO] I0714 23:35:22.380228  5918 net.cpp:141] Setting up inception_4b/output_inception_4b/output_0_split
2016-07-14 23:35:22.380 STDERR [INFO] I0714 23:35:22.380244  5918 net.cpp:148] Top shape: 10 512 14 14 (1003520)
2016-07-14 23:35:22.380 STDERR [INFO] I0714 23:35:22.380249  5918 net.cpp:148] Top shape: 10 512 14 14 (1003520)
2016-07-14 23:35:22.380 STDERR [INFO] I0714 23:35:22.380255  5918 net.cpp:148] Top shape: 10 512 14 14 (1003520)
2016-07-14 23:35:22.380 STDERR [INFO] I0714 23:35:22.380261  5918 net.cpp:148] Top shape: 10 512 14 14 (1003520)
2016-07-14 23:35:22.381 STDERR [INFO] I0714 23:35:22.380265  5918 net.cpp:156] Memory required for data: 423861760
2016-07-14 23:35:22.381 STDERR [INFO] I0714 23:35:22.380270  5918 layer_factory.hpp:77] Creating layer inception_4c/1x1
2016-07-14 23:35:22.381 STDERR [INFO] I0714 23:35:22.380293  5918 net.cpp:91] Creating Layer inception_4c/1x1
2016-07-14 23:35:22.381 STDERR [INFO] I0714 23:35:22.380300  5918 net.cpp:425] inception_4c/1x1 <- inception_4b/output_inception_4b/output_0_split_0
2016-07-14 23:35:22.381 STDERR [INFO] I0714 23:35:22.380311  5918 net.cpp:399] inception_4c/1x1 -> inception_4c/1x1
2016-07-14 23:35:22.387 STDERR [INFO] I0714 23:35:22.387349  5918 net.cpp:141] Setting up inception_4c/1x1
2016-07-14 23:35:22.387 STDERR [INFO] I0714 23:35:22.387399  5918 net.cpp:148] Top shape: 10 128 14 14 (250880)
2016-07-14 23:35:22.387 STDERR [INFO] I0714 23:35:22.387406  5918 net.cpp:156] Memory required for data: 424865280
2016-07-14 23:35:22.387 STDERR [INFO] I0714 23:35:22.387421  5918 layer_factory.hpp:77] Creating layer inception_4c/relu_1x1
2016-07-14 23:35:22.387 STDERR [INFO] I0714 23:35:22.387437  5918 net.cpp:91] Creating Layer inception_4c/relu_1x1
2016-07-14 23:35:22.387 STDERR [INFO] I0714 23:35:22.387446  5918 net.cpp:425] inception_4c/relu_1x1 <- inception_4c/1x1
2016-07-14 23:35:22.387 STDERR [INFO] I0714 23:35:22.387465  5918 net.cpp:386] inception_4c/relu_1x1 -> inception_4c/1x1 (in-place)
2016-07-14 23:35:22.387 STDERR [INFO] I0714 23:35:22.387495  5922 net.cpp:141] Setting up inception_4c/1x1
2016-07-14 23:35:22.387 STDERR [INFO] I0714 23:35:22.387513  5922 net.cpp:148] Top shape: 10 128 14 14 (250880)
2016-07-14 23:35:22.388 STDERR [INFO] I0714 23:35:22.387519  5922 net.cpp:156] Memory required for data: 424865280
2016-07-14 23:35:22.388 STDERR [INFO] I0714 23:35:22.387529  5922 layer_factory.hpp:77] Creating layer inception_4c/relu_1x1
2016-07-14 23:35:22.388 STDERR [INFO] I0714 23:35:22.387539  5922 net.cpp:91] Creating Layer inception_4c/relu_1x1
2016-07-14 23:35:22.388 STDERR [INFO] I0714 23:35:22.387544  5922 net.cpp:425] inception_4c/relu_1x1 <- inception_4c/1x1
2016-07-14 23:35:22.388 STDERR [INFO] I0714 23:35:22.387554  5922 net.cpp:386] inception_4c/relu_1x1 -> inception_4c/1x1 (in-place)
2016-07-14 23:35:22.389 STDERR [INFO] I0714 23:35:22.389791  5918 net.cpp:141] Setting up inception_4c/relu_1x1
2016-07-14 23:35:22.389 STDERR [INFO] I0714 23:35:22.389807  5918 net.cpp:148] Top shape: 10 128 14 14 (250880)
2016-07-14 23:35:22.390 STDERR [INFO] I0714 23:35:22.389812  5918 net.cpp:156] Memory required for data: 425868800
2016-07-14 23:35:22.390 STDERR [INFO] I0714 23:35:22.389817  5918 layer_factory.hpp:77] Creating layer inception_4c/3x3_reduce
2016-07-14 23:35:22.390 STDERR [INFO] I0714 23:35:22.389981  5918 net.cpp:91] Creating Layer inception_4c/3x3_reduce
2016-07-14 23:35:22.390 STDERR [INFO] I0714 23:35:22.389988  5918 net.cpp:425] inception_4c/3x3_reduce <- inception_4b/output_inception_4b/output_0_split_1
2016-07-14 23:35:22.390 STDERR [INFO] I0714 23:35:22.390002  5918 net.cpp:399] inception_4c/3x3_reduce -> inception_4c/3x3_reduce
2016-07-14 23:35:22.390 STDERR [INFO] I0714 23:35:22.390002  5922 net.cpp:141] Setting up inception_4c/relu_1x1
2016-07-14 23:35:22.390 STDERR [INFO] I0714 23:35:22.390017  5922 net.cpp:148] Top shape: 10 128 14 14 (250880)
2016-07-14 23:35:22.390 STDERR [INFO] I0714 23:35:22.390022  5922 net.cpp:156] Memory required for data: 425868800
2016-07-14 23:35:22.390 STDERR [INFO] I0714 23:35:22.390028  5922 layer_factory.hpp:77] Creating layer inception_4c/3x3_reduce
2016-07-14 23:35:22.390 STDERR [INFO] I0714 23:35:22.390050  5922 net.cpp:91] Creating Layer inception_4c/3x3_reduce
2016-07-14 23:35:22.390 STDERR [INFO] I0714 23:35:22.390056  5922 net.cpp:425] inception_4c/3x3_reduce <- inception_4b/output_inception_4b/output_0_split_1
2016-07-14 23:35:22.390 STDERR [INFO] I0714 23:35:22.390065  5922 net.cpp:399] inception_4c/3x3_reduce -> inception_4c/3x3_reduce
2016-07-14 23:35:22.396 STDERR [INFO] I0714 23:35:22.396682  5922 net.cpp:141] Setting up inception_4c/3x3_reduce
2016-07-14 23:35:22.396 STDERR [INFO] I0714 23:35:22.396711  5922 net.cpp:148] Top shape: 10 128 14 14 (250880)
2016-07-14 23:35:22.396 STDERR [INFO] I0714 23:35:22.396718  5922 net.cpp:156] Memory required for data: 426872320
2016-07-14 23:35:22.396 STDERR [INFO] I0714 23:35:22.396726  5922 layer_factory.hpp:77] Creating layer inception_4c/relu_3x3_reduce
2016-07-14 23:35:22.397 STDERR [INFO] I0714 23:35:22.396735  5922 net.cpp:91] Creating Layer inception_4c/relu_3x3_reduce
2016-07-14 23:35:22.397 STDERR [INFO] I0714 23:35:22.396741  5922 net.cpp:425] inception_4c/relu_3x3_reduce <- inception_4c/3x3_reduce
2016-07-14 23:35:22.397 STDERR [INFO] I0714 23:35:22.396752  5922 net.cpp:386] inception_4c/relu_3x3_reduce -> inception_4c/3x3_reduce (in-place)
2016-07-14 23:35:22.397 STDERR [INFO] I0714 23:35:22.397640  5918 net.cpp:141] Setting up inception_4c/3x3_reduce
2016-07-14 23:35:22.397 STDERR [INFO] I0714 23:35:22.397660  5918 net.cpp:148] Top shape: 10 128 14 14 (250880)
2016-07-14 23:35:22.397 STDERR [INFO] I0714 23:35:22.397666  5918 net.cpp:156] Memory required for data: 426872320
2016-07-14 23:35:22.397 STDERR [INFO] I0714 23:35:22.397675  5918 layer_factory.hpp:77] Creating layer inception_4c/relu_3x3_reduce
2016-07-14 23:35:22.397 STDERR [INFO] I0714 23:35:22.397685  5918 net.cpp:91] Creating Layer inception_4c/relu_3x3_reduce
2016-07-14 23:35:22.397 STDERR [INFO] I0714 23:35:22.397691  5918 net.cpp:425] inception_4c/relu_3x3_reduce <- inception_4c/3x3_reduce
2016-07-14 23:35:22.397 STDERR [INFO] I0714 23:35:22.397697  5918 net.cpp:386] inception_4c/relu_3x3_reduce -> inception_4c/3x3_reduce (in-place)
2016-07-14 23:35:22.398 STDERR [INFO] I0714 23:35:22.397953  5922 net.cpp:141] Setting up inception_4c/relu_3x3_reduce
2016-07-14 23:35:22.398 STDERR [INFO] I0714 23:35:22.397967  5922 net.cpp:148] Top shape: 10 128 14 14 (250880)
2016-07-14 23:35:22.398 STDERR [INFO] I0714 23:35:22.397971  5922 net.cpp:156] Memory required for data: 427875840
2016-07-14 23:35:22.398 STDERR [INFO] I0714 23:35:22.397976  5922 layer_factory.hpp:77] Creating layer inception_4c/3x3
2016-07-14 23:35:22.398 STDERR [INFO] I0714 23:35:22.397994  5922 net.cpp:91] Creating Layer inception_4c/3x3
2016-07-14 23:35:22.398 STDERR [INFO] I0714 23:35:22.398000  5922 net.cpp:425] inception_4c/3x3 <- inception_4c/3x3_reduce
2016-07-14 23:35:22.398 STDERR [INFO] I0714 23:35:22.398010  5922 net.cpp:399] inception_4c/3x3 -> inception_4c/3x3
2016-07-14 23:35:22.398 STDERR [INFO] I0714 23:35:22.398347  5918 net.cpp:141] Setting up inception_4c/relu_3x3_reduce
2016-07-14 23:35:22.398 STDERR [INFO] I0714 23:35:22.398361  5918 net.cpp:148] Top shape: 10 128 14 14 (250880)
2016-07-14 23:35:22.398 STDERR [INFO] I0714 23:35:22.398366  5918 net.cpp:156] Memory required for data: 427875840
2016-07-14 23:35:22.398 STDERR [INFO] I0714 23:35:22.398371  5918 layer_factory.hpp:77] Creating layer inception_4c/3x3
2016-07-14 23:35:22.398 STDERR [INFO] I0714 23:35:22.398396  5918 net.cpp:91] Creating Layer inception_4c/3x3
2016-07-14 23:35:22.398 STDERR [INFO] I0714 23:35:22.398402  5918 net.cpp:425] inception_4c/3x3 <- inception_4c/3x3_reduce
…
2016-07-14 23:35:22.409 n.t.s.s.CVParticleSpout [INFO] [Timing] RequestID: 0 StreamID: home/peifeng/work/data/frame.320x240.jpg SequenceNr: 71 Leaving fetcher: 1468553722409 Size: 8702
2016-07-14 23:35:22.409 n.t.s.b.CVParticleBolt [INFO] [Timing] RequestID: 0 StreamID: home/peifeng/work/data/frame.320x240.jpg SequenceNr: 71 Entering scale: 1468553722409
2016-07-14 23:35:22.411 n.t.s.b.CVParticleBolt [INFO] [Timing] RequestID: 0 StreamID: home/peifeng/work/data/frame.320x240.jpg SequenceNr: 70 Leaving scale: 1468553722411 Size: 3530
2016-07-14 23:35:22.411 STDERR [INFO] I0714 23:35:22.411907  5922 net.cpp:141] Setting up inception_4c/5x5_reduce
2016-07-14 23:35:22.412 STDERR [INFO] I0714 23:35:22.411929  5922 net.cpp:148] Top shape: 10 24 14 14 (47040)
2016-07-14 23:35:22.412 STDERR [INFO] I0714 23:35:22.411934  5922 net.cpp:156] Memory required for data: 432078080
2016-07-14 23:35:22.412 STDERR [INFO] I0714 23:35:22.411949  5922 layer_factory.hpp:77] Creating layer inception_4c/relu_5x5_reduce
2016-07-14 23:35:22.412 STDERR [INFO] I0714 23:35:22.411958  5922 net.cpp:91] Creating Layer inception_4c/relu_5x5_reduce
2016-07-14 23:35:22.412 STDERR [INFO] I0714 23:35:22.411964  5922 net.cpp:425] inception_4c/relu_5x5_reduce <- inception_4c/5x5_reduce
2016-07-14 23:35:22.412 STDERR [INFO] I0714 23:35:22.411972  5922 net.cpp:386] inception_4c/relu_5x5_reduce -> inception_4c/5x5_reduce (in-place)
2016-07-14 23:35:22.413 STDERR [INFO] I0714 23:35:22.413154  5922 net.cpp:141] Setting up inception_4c/relu_5x5_reduce
2016-07-14 23:35:22.413 STDERR [INFO] I0714 23:35:22.413170  5922 net.cpp:148] Top shape: 10 24 14 14 (47040)
2016-07-14 23:35:22.413 STDERR [INFO] I0714 23:35:22.413175  5922 net.cpp:156] Memory required for data: 432266240
2016-07-14 23:35:22.413 STDERR [INFO] I0714 23:35:22.413180  5922 layer_factory.hpp:77] Creating layer inception_4c/5x5
2016-07-14 23:35:22.413 STDERR [INFO] I0714 23:35:22.413197  5922 net.cpp:91] Creating Layer inception_4c/5x5
2016-07-14 23:35:22.413 STDERR [INFO] I0714 23:35:22.413203  5922 net.cpp:425] inception_4c/5x5 <- inception_4c/5x5_reduce
2016-07-14 23:35:22.413 STDERR [INFO] I0714 23:35:22.413213  5922 net.cpp:399] inception_4c/5x5 -> inception_4c/5x5
2016-07-14 23:35:22.413 STDERR [INFO] I0714 23:35:22.413228  5918 net.cpp:141] Setting up inception_4c/5x5_reduce
2016-07-14 23:35:22.413 STDERR [INFO] I0714 23:35:22.413246  5918 net.cpp:148] Top shape: 10 24 14 14 (47040)
2016-07-14 23:35:22.413 STDERR [INFO] I0714 23:35:22.413251  5918 net.cpp:156] Memory required for data: 432078080
2016-07-14 23:35:22.413 STDERR [INFO] I0714 23:35:22.413260  5918 layer_factory.hpp:77] Creating layer inception_4c/relu_5x5_reduce
2016-07-14 23:35:22.413 STDERR [INFO] I0714 23:35:22.413269  5918 net.cpp:91] Creating Layer inception_4c/relu_5x5_reduce
2016-07-14 23:35:22.413 STDERR [INFO] I0714 23:35:22.413275  5918 net.cpp:425] inception_4c/relu_5x5_reduce <- inception_4c/5x5_reduce
2016-07-14 23:35:22.413 STDERR [INFO] I0714 23:35:22.413283  5918 net.cpp:386] inception_4c/relu_5x5_reduce -> inception_4c/5x5_reduce (in-place)
2016-07-14 23:35:22.413 STDERR [INFO] I0714 23:35:22.413761  5918 net.cpp:141] Setting up inception_4c/relu_5x5_reduce
2016-07-14 23:35:22.413 STDERR [INFO] I0714 23:35:22.413774  5918 net.cpp:148] Top shape: 10 24 14 14 (47040)
2016-07-14 23:35:22.413 STDERR [INFO] I0714 23:35:22.413779  5918 net.cpp:156] Memory required for data: 432266240
2016-07-14 23:35:22.413 STDERR [INFO] I0714 23:35:22.413784  5918 layer_factory.hpp:77] Creating layer inception_4c/5x5
2016-07-14 23:35:22.413 STDERR [INFO] I0714 23:35:22.413800  5918 net.cpp:91] Creating Layer inception_4c/5x5
2016-07-14 23:35:22.413 STDERR [INFO] I0714 23:35:22.413806  5918 net.cpp:425] inception_4c/5x5 <- inception_4c/5x5_reduce
2016-07-14 23:35:22.414 STDERR [INFO] I0714 23:35:22.413815  5918 net.cpp:399] inception_4c/5x5 -> inception_4c/5x5
2016-07-14 23:35:22.414 n.t.s.b.CVParticleBolt [INFO] [Timing] RequestID: 0 StreamID: home/peifeng/work/data/frame.320x240.jpg SequenceNr: 71 Leaving scale: 1468553722414 Size: 3530
2016-07-14 23:35:22.418 STDERR [INFO] I0714 23:35:22.418889  5922 net.cpp:141] Setting up inception_4c/5x5
2016-07-14 23:35:22.419 STDERR [INFO] I0714 23:35:22.418905  5922 net.cpp:148] Top shape: 10 64 14 14 (125440)
2016-07-14 23:35:22.419 STDERR [INFO] I0714 23:35:22.418911  5922 net.cpp:156] Memory required for data: 432768000
2016-07-14 23:35:22.419 STDERR [INFO] I0714 23:35:22.418920  5922 layer_factory.hpp:77] Creating layer inception_4c/relu_5x5
2016-07-14 23:35:22.419 STDERR [INFO] I0714 23:35:22.418928  5922 net.cpp:91] Creating Layer inception_4c/relu_5x5
2016-07-14 23:35:22.419 STDERR [INFO] I0714 23:35:22.418934  5922 net.cpp:425] inception_4c/relu_5x5 <- inception_4c/5x5
2016-07-14 23:35:22.419 STDERR [INFO] I0714 23:35:22.418943  5922 net.cpp:386] inception_4c/relu_5x5 -> inception_4c/5x5 (in-place)
2016-07-14 23:35:22.419 STDERR [INFO] I0714 23:35:22.419770  5918 net.cpp:141] Setting up inception_4c/5x5
2016-07-14 23:35:22.419 STDERR [INFO] I0714 23:35:22.419785  5918 net.cpp:148] Top shape: 10 64 14 14 (125440)
2016-07-14 23:35:22.419 STDERR [INFO] I0714 23:35:22.419790  5918 net.cpp:156] Memory required for data: 432768000
2016-07-14 23:35:22.419 STDERR [INFO] I0714 23:35:22.419800  5918 layer_factory.hpp:77] Creating layer inception_4c/relu_5x5
2016-07-14 23:35:22.419 STDERR [INFO] I0714 23:35:22.419811  5918 net.cpp:91] Creating Layer inception_4c/relu_5x5
2016-07-14 23:35:22.419 STDERR [INFO] I0714 23:35:22.419816  5918 net.cpp:425] inception_4c/relu_5x5 <- inception_4c/5x5
2016-07-14 23:35:22.420 STDERR [INFO] I0714 23:35:22.419823  5918 net.cpp:386] inception_4c/relu_5x5 -> inception_4c/5x5 (in-place)
2016-07-14 23:35:22.420 STDERR [INFO] I0714 23:35:22.420074  5922 net.cpp:141] Setting up inception_4c/relu_5x5
2016-07-14 23:35:22.420 STDERR [INFO] I0714 23:35:22.420088  5922 net.cpp:148] Top shape: 10 64 14 14 (125440)
2016-07-14 23:35:22.420 STDERR [INFO] I0714 23:35:22.420091  5922 net.cpp:156] Memory required for data: 433269760
2016-07-14 23:35:22.420 STDERR [INFO] I0714 23:35:22.420096  5922 layer_factory.hpp:77] Creating layer inception_4c/pool
2016-07-14 23:35:22.420 STDERR [INFO] I0714 23:35:22.420109  5922 net.cpp:91] Creating Layer inception_4c/pool
2016-07-14 23:35:22.420 STDERR [INFO] I0714 23:35:22.420115  5922 net.cpp:425] inception_4c/pool <- inception_4b/output_inception_4b/output_0_split_3
2016-07-14 23:35:22.420 STDERR [INFO] I0714 23:35:22.420123  5922 net.cpp:399] inception_4c/pool -> inception_4c/pool
2016-07-14 23:35:22.420 STDERR [INFO] I0714 23:35:22.420132  5918 net.cpp:141] Setting up inception_4c/relu_5x5
2016-07-14 23:35:22.420 STDERR [INFO] I0714 23:35:22.420143  5918 net.cpp:148] Top shape: 10 64 14 14 (125440)
2016-07-14 23:35:22.420 STDERR [INFO] I0714 23:35:22.420148  5918 net.cpp:156] Memory required for data: 433269760
2016-07-14 23:35:22.420 STDERR [INFO] I0714 23:35:22.420153  5918 layer_factory.hpp:77] Creating layer inception_4c/pool
2016-07-14 23:35:22.420 STDERR [INFO] I0714 23:35:22.420164  5918 net.cpp:91] Creating Layer inception_4c/pool
2016-07-14 23:35:22.420 STDERR [INFO] I0714 23:35:22.420171  5918 net.cpp:425] inception_4c/pool <- inception_4b/output_inception_4b/output_0_split_3
2016-07-14 23:35:22.420 STDERR [INFO] I0714 23:35:22.420178  5918 net.cpp:399] inception_4c/pool -> inception_4c/pool
2016-07-14 23:35:22.420 STDERR [INFO] I0714 23:35:22.420214  5922 net.cpp:141] Setting up inception_4c/pool
2016-07-14 23:35:22.420 STDERR [INFO] I0714 23:35:22.420225  5922 net.cpp:148] Top shape: 10 512 14 14 (1003520)
2016-07-14 23:35:22.420 STDERR [INFO] I0714 23:35:22.420229  5922 net.cpp:156] Memory required for data: 437283840
2016-07-14 23:35:22.420 STDERR [INFO] I0714 23:35:22.420234  5922 layer_factory.hpp:77] Creating layer inception_4c/pool_proj
2016-07-14 23:35:22.420 STDERR [INFO] I0714 23:35:22.420249  5922 net.cpp:91] Creating Layer inception_4c/pool_proj
2016-07-14 23:35:22.420 STDERR [INFO] I0714 23:35:22.420255  5922 net.cpp:425] inception_4c/pool_proj <- inception_4c/pool
2016-07-14 23:35:22.420 STDERR [INFO] I0714 23:35:22.420264  5922 net.cpp:399] inception_4c/pool_proj -> inception_4c/pool_proj
2016-07-14 23:35:22.420 STDERR [INFO] I0714 23:35:22.420280  5918 net.cpp:141] Setting up inception_4c/pool
2016-07-14 23:35:22.420 STDERR [INFO] I0714 23:35:22.420291  5918 net.cpp:148] Top shape: 10 512 14 14 (1003520)
2016-07-14 23:35:22.420 STDERR [INFO] I0714 23:35:22.420295  5918 net.cpp:156] Memory required for data: 437283840
2016-07-14 23:35:22.420 STDERR [INFO] I0714 23:35:22.420300  5918 layer_factory.hpp:77] Creating layer inception_4c/pool_proj
2016-07-14 23:35:22.421 STDERR [INFO] I0714 23:35:22.420315  5918 net.cpp:91] Creating Layer inception_4c/pool_proj
2016-07-14 23:35:22.421 STDERR [INFO] I0714 23:35:22.420320  5918 net.cpp:425] inception_4c/pool_proj <- inception_4c/pool
2016-07-14 23:35:22.421 STDERR [INFO] I0714 23:35:22.420331  5918 net.cpp:399] inception_4c/pool_proj -> inception_4c/pool_proj
2016-07-14 23:35:22.426 STDERR [INFO] I0714 23:35:22.426276  5922 net.cpp:141] Setting up inception_4c/pool_proj
2016-07-14 23:35:22.426 STDERR [INFO] I0714 23:35:22.426296  5922 net.cpp:148] Top shape: 10 64 14 14 (125440)
2016-07-14 23:35:22.426 STDERR [INFO] I0714 23:35:22.426301  5922 net.cpp:156] Memory required for data: 437785600
2016-07-14 23:35:22.426 STDERR [INFO] I0714 23:35:22.426332  5922 layer_factory.hpp:77] Creating layer inception_4c/relu_pool_proj
2016-07-14 23:35:22.426 STDERR [INFO] I0714 23:35:22.426342  5922 net.cpp:91] Creating Layer inception_4c/relu_pool_proj
2016-07-14 23:35:22.426 STDERR [INFO] I0714 23:35:22.426348  5922 net.cpp:425] inception_4c/relu_pool_proj <- inception_4c/pool_proj
2016-07-14 23:35:22.426 STDERR [INFO] I0714 23:35:22.426355  5922 net.cpp:386] inception_4c/relu_pool_proj -> inception_4c/pool_proj (in-place)
2016-07-14 23:35:22.426 STDERR [INFO] I0714 23:35:22.426367  5918 net.cpp:141] Setting up inception_4c/pool_proj
2016-07-14 23:35:22.426 STDERR [INFO] I0714 23:35:22.426383  5918 net.cpp:148] Top shape: 10 64 14 14 (125440)
2016-07-14 23:35:22.426 STDERR [INFO] I0714 23:35:22.426388  5918 net.cpp:156] Memory required for data: 437785600
2016-07-14 23:35:22.426 STDERR [INFO] I0714 23:35:22.426416  5918 layer_factory.hpp:77] Creating layer inception_4c/relu_pool_proj
2016-07-14 23:35:22.426 STDERR [INFO] I0714 23:35:22.426435  5918 net.cpp:91] Creating Layer inception_4c/relu_pool_proj
2016-07-14 23:35:22.426 STDERR [INFO] I0714 23:35:22.426441  5918 net.cpp:425] inception_4c/relu_pool_proj <- inception_4c/pool_proj
2016-07-14 23:35:22.426 STDERR [INFO] I0714 23:35:22.426450  5918 net.cpp:386] inception_4c/relu_pool_proj -> inception_4c/pool_proj (in-place)
2016-07-14 23:35:22.427 STDERR [INFO] I0714 23:35:22.427441  5918 net.cpp:141] Setting up inception_4c/relu_pool_proj
2016-07-14 23:35:22.427 STDERR [INFO] I0714 23:35:22.427445  5922 net.cpp:141] Setting up inception_4c/relu_pool_proj
2016-07-14 23:35:22.427 STDERR [INFO] I0714 23:35:22.427459  5918 net.cpp:148] Top shape: 10 64 14 14 (125440)
2016-07-14 23:35:22.427 STDERR [INFO] I0714 23:35:22.427462  5922 net.cpp:148] Top shape: 10 64 14 14 (125440)
2016-07-14 23:35:22.427 STDERR [INFO] I0714 23:35:22.427464  5918 net.cpp:156] Memory required for data: 438287360
2016-07-14 23:35:22.427 STDERR [INFO] I0714 23:35:22.427470  5922 net.cpp:156] Memory required for data: 438287360
2016-07-14 23:35:22.427 STDERR [INFO] I0714 23:35:22.427474  5918 layer_factory.hpp:77] Creating layer inception_4c/output
2016-07-14 23:35:22.427 STDERR [INFO] I0714 23:35:22.427476  5922 layer_factory.hpp:77] Creating layer inception_4c/output
…
2016-07-14 23:35:22.429 STDERR [INFO] I0714 23:35:22.427700  5922 net.cpp:399] inception_4c/output_inception_4c/output_0_split -> inception_4c/output_inception_4c/output_0_split_1
2016-07-14 23:35:22.429 STDERR [INFO] I0714 23:35:22.427708  5922 net.cpp:399] inception_4c/output_inception_4c/output_0_split -> inception_4c/output_inception_4c/output_0_split_2
2016-07-14 23:35:22.429 STDERR [INFO] I0714 23:35:22.427716  5922 net.cpp:399] inception_4c/output_inception_4c/output_0_split -> inception_4c/output_inception_4c/output_0_split_3
2016-07-14 23:35:22.429 STDERR [INFO] I0714 23:35:22.427796  5918 net.cpp:141] Setting up inception_4c/output_inception_4c/output_0_split
2016-07-14 23:35:22.429 STDERR [INFO] I0714 23:35:22.427806  5918 net.cpp:148] Top shape: 10 512 14 14 (1003520)
2016-07-14 23:35:22.429 STDERR [INFO] I0714 23:35:22.427811  5918 net.cpp:148] Top shape: 10 512 14 14 (1003520)
2016-07-14 23:35:22.429 STDERR [INFO] I0714 23:35:22.427817  5918 net.cpp:148] Top shape: 10 512 14 14 (1003520)
2016-07-14 23:35:22.429 STDERR [INFO] I0714 23:35:22.427822  5918 net.cpp:148] Top shape: 10 512 14 14 (1003520)
2016-07-14 23:35:22.429 STDERR [INFO] I0714 23:35:22.427825  5918 net.cpp:156] Memory required for data: 458357760
2016-07-14 23:35:22.429 STDERR [INFO] I0714 23:35:22.427830  5918 layer_factory.hpp:77] Creating layer inception_4d/1x1
2016-07-14 23:35:22.429 STDERR [INFO] I0714 23:35:22.427847  5918 net.cpp:91] Creating Layer inception_4d/1x1
2016-07-14 23:35:22.429 STDERR [INFO] I0714 23:35:22.427852  5918 net.cpp:425] inception_4d/1x1 <- inception_4c/output_inception_4c/output_0_split_0
2016-07-14 23:35:22.429 STDERR [INFO] I0714 23:35:22.427861  5918 net.cpp:399] inception_4d/1x1 -> inception_4d/1x1
2016-07-14 23:35:22.429 STDERR [INFO] I0714 23:35:22.427916  5922 net.cpp:141] Setting up inception_4c/output_inception_4c/output_0_split
2016-07-14 23:35:22.429 STDERR [INFO] I0714 23:35:22.427928  5922 net.cpp:148] Top shape: 10 512 14 14 (1003520)
2016-07-14 23:35:22.429 STDERR [INFO] I0714 23:35:22.427934  5922 net.cpp:148] Top shape: 10 512 14 14 (1003520)
2016-07-14 23:35:22.430 STDERR [INFO] I0714 23:35:22.427939  5922 net.cpp:148] Top shape: 10 512 14 14 (1003520)
2016-07-14 23:35:22.430 STDERR [INFO] I0714 23:35:22.427944  5922 net.cpp:148] Top shape: 10 512 14 14 (1003520)
2016-07-14 23:35:22.430 STDERR [INFO] I0714 23:35:22.427948  5922 net.cpp:156] Memory required for data: 458357760
2016-07-14 23:35:22.430 STDERR [INFO] I0714 23:35:22.427953  5922 layer_factory.hpp:77] Creating layer inception_4d/1x1
2016-07-14 23:35:22.430 STDERR [INFO] I0714 23:35:22.427968  5922 net.cpp:91] Creating Layer inception_4d/1x1
2016-07-14 23:35:22.430 STDERR [INFO] I0714 23:35:22.427974  5922 net.cpp:425] inception_4d/1x1 <- inception_4c/output_inception_4c/output_0_split_0
2016-07-14 23:35:22.430 STDERR [INFO] I0714 23:35:22.427983  5922 net.cpp:399] inception_4d/1x1 -> inception_4d/1x1
2016-07-14 23:35:22.432 STDERR [INFO] I0714 23:35:22.432852  5918 net.cpp:141] Setting up inception_4d/1x1
2016-07-14 23:35:22.433 STDERR [INFO] I0714 23:35:22.432870  5918 net.cpp:148] Top shape: 10 112 14 14 (219520)
2016-07-14 23:35:22.433 STDERR [INFO] I0714 23:35:22.432874  5918 net.cpp:156] Memory required for data: 459235840
2016-07-14 23:35:22.433 STDERR [INFO] I0714 23:35:22.432883  5918 layer_factory.hpp:77] Creating layer inception_4d/relu_1x1
2016-07-14 23:35:22.433 STDERR [INFO] I0714 23:35:22.432893  5918 net.cpp:91] Creating Layer inception_4d/relu_1x1
2016-07-14 23:35:22.433 STDERR [INFO] I0714 23:35:22.432898  5918 net.cpp:425] inception_4d/relu_1x1 <- inception_4d/1x1
2016-07-14 23:35:22.433 STDERR [INFO] I0714 23:35:22.432907  5918 net.cpp:386] inception_4d/relu_1x1 -> inception_4d/1x1 (in-place)
2016-07-14 23:35:22.433 STDERR [INFO] I0714 23:35:22.433629  5922 net.cpp:141] Setting up inception_4d/1x1
2016-07-14 23:35:22.433 STDERR [INFO] I0714 23:35:22.433646  5922 net.cpp:148] Top shape: 10 112 14 14 (219520)
2016-07-14 23:35:22.433 STDERR [INFO] I0714 23:35:22.433651  5922 net.cpp:156] Memory required for data: 459235840
2016-07-14 23:35:22.433 STDERR [INFO] I0714 23:35:22.433660  5922 layer_factory.hpp:77] Creating layer inception_4d/relu_1x1
2016-07-14 23:35:22.433 STDERR [INFO] I0714 23:35:22.433670  5922 net.cpp:91] Creating Layer inception_4d/relu_1x1
2016-07-14 23:35:22.433 STDERR [INFO] I0714 23:35:22.433675  5922 net.cpp:425] inception_4d/relu_1x1 <- inception_4d/1x1
2016-07-14 23:35:22.433 STDERR [INFO] I0714 23:35:22.433681  5922 net.cpp:386] inception_4d/relu_1x1 -> inception_4d/1x1 (in-place)
2016-07-14 23:35:22.434 STDERR [INFO] I0714 23:35:22.434001  5918 net.cpp:141] Setting up inception_4d/relu_1x1
2016-07-14 23:35:22.434 STDERR [INFO] I0714 23:35:22.434015  5918 net.cpp:148] Top shape: 10 112 14 14 (219520)
2016-07-14 23:35:22.434 STDERR [INFO] I0714 23:35:22.434020  5918 net.cpp:156] Memory required for data: 460113920
2016-07-14 23:35:22.434 STDERR [INFO] I0714 23:35:22.434022  5922 net.cpp:141] Setting up inception_4d/relu_1x1
2016-07-14 23:35:22.434 STDERR [INFO] I0714 23:35:22.434026  5918 layer_factory.hpp:77] Creating layer inception_4d/3x3_reduce
2016-07-14 23:35:22.434 STDERR [INFO] I0714 23:35:22.434036  5922 net.cpp:148] Top shape: 10 112 14 14 (219520)
2016-07-14 23:35:22.434 STDERR [INFO] I0714 23:35:22.434041  5922 net.cpp:156] Memory required for data: 460113920
2016-07-14 23:35:22.434 STDERR [INFO] I0714 23:35:22.434046  5922 layer_factory.hpp:77] Creating layer inception_4d/3x3_reduce
2016-07-14 23:35:22.434 STDERR [INFO] I0714 23:35:22.434048  5918 net.cpp:91] Creating Layer inception_4d/3x3_reduce
2016-07-14 23:35:22.434 STDERR [INFO] I0714 23:35:22.434054  5918 net.cpp:425] inception_4d/3x3_reduce <- inception_4c/output_inception_4c/output_0_split_1
2016-07-14 23:35:22.434 STDERR [INFO] I0714 23:35:22.434061  5922 net.cpp:91] Creating Layer inception_4d/3x3_reduce
2016-07-14 23:35:22.434 STDERR [INFO] I0714 23:35:22.434067  5922 net.cpp:425] inception_4d/3x3_reduce <- inception_4c/output_inception_4c/output_0_split_1
2016-07-14 23:35:22.434 STDERR [INFO] I0714 23:35:22.434067  5918 net.cpp:399] inception_4d/3x3_reduce -> inception_4d/3x3_reduce
2016-07-14 23:35:22.434 STDERR [INFO] I0714 23:35:22.434079  5922 net.cpp:399] inception_4d/3x3_reduce -> inception_4d/3x3_reduce
2016-07-14 23:35:22.439 STDERR [INFO] I0714 23:35:22.439618  5918 net.cpp:141] Setting up inception_4d/3x3_reduce
2016-07-14 23:35:22.439 STDERR [INFO] I0714 23:35:22.439635  5918 net.cpp:148] Top shape: 10 144 14 14 (282240)
2016-07-14 23:35:22.439 STDERR [INFO] I0714 23:35:22.439640  5918 net.cpp:156] Memory required for data: 461242880
2016-07-14 23:35:22.439 STDERR [INFO] I0714 23:35:22.439648  5918 layer_factory.hpp:77] Creating layer inception_4d/relu_3x3_reduce
2016-07-14 23:35:22.439 STDERR [INFO] I0714 23:35:22.439661  5918 net.cpp:91] Creating Layer inception_4d/relu_3x3_reduce
2016-07-14 23:35:22.439 STDERR [INFO] I0714 23:35:22.439666  5918 net.cpp:425] inception_4d/relu_3x3_reduce <- inception_4d/3x3_reduce
2016-07-14 23:35:22.439 STDERR [INFO] I0714 23:35:22.439673  5918 net.cpp:386] inception_4d/relu_3x3_reduce -> inception_4d/3x3_reduce (in-place)
2016-07-14 23:35:22.440 STDERR [INFO] I0714 23:35:22.440546  5922 net.cpp:141] Setting up inception_4d/3x3_reduce
2016-07-14 23:35:22.440 STDERR [INFO] I0714 23:35:22.440562  5922 net.cpp:148] Top shape: 10 144 14 14 (282240)
2016-07-14 23:35:22.440 STDERR [INFO] I0714 23:35:22.440567  5922 net.cpp:156] Memory required for data: 461242880
2016-07-14 23:35:22.440 STDERR [INFO] I0714 23:35:22.440577  5922 layer_factory.hpp:77] Creating layer inception_4d/relu_3x3_reduce
2016-07-14 23:35:22.440 STDERR [INFO] I0714 23:35:22.440593  5922 net.cpp:91] Creating Layer inception_4d/relu_3x3_reduce
2016-07-14 23:35:22.440 STDERR [INFO] I0714 23:35:22.440599  5922 net.cpp:425] inception_4d/relu_3x3_reduce <- inception_4d/3x3_reduce
2016-07-14 23:35:22.440 STDERR [INFO] I0714 23:35:22.440606  5922 net.cpp:386] inception_4d/relu_3x3_reduce -> inception_4d/3x3_reduce (in-place)
2016-07-14 23:35:22.440 STDERR [INFO] I0714 23:35:22.440621  5918 net.cpp:141] Setting up inception_4d/relu_3x3_reduce
2016-07-14 23:35:22.440 STDERR [INFO] I0714 23:35:22.440634  5918 net.cpp:148] Top shape: 10 144 14 14 (282240)
2016-07-14 23:35:22.441 STDERR [INFO] I0714 23:35:22.440639  5918 net.cpp:156] Memory required for data: 462371840
2016-07-14 23:35:22.441 STDERR [INFO] I0714 23:35:22.440644  5918 layer_factory.hpp:77] Creating layer inception_4d/3x3
2016-07-14 23:35:22.441 STDERR [INFO] I0714 23:35:22.440657  5918 net.cpp:91] Creating Layer inception_4d/3x3
…
2016-07-14 23:35:22.537 STDERR [INFO] I0714 23:35:22.537633  5922 net.cpp:148] Top shape: 10 160 7 7 (78400)
2016-07-14 23:35:22.537 STDERR [INFO] I0714 23:35:22.537638  5922 net.cpp:156] Memory required for data: 530611200
2016-07-14 23:35:22.537 STDERR [INFO] I0714 23:35:22.537643  5922 layer_factory.hpp:77] Creating layer inception_5a/3x3
2016-07-14 23:35:22.537 STDERR [INFO] I0714 23:35:22.537660  5922 net.cpp:91] Creating Layer inception_5a/3x3
2016-07-14 23:35:22.537 STDERR [INFO] I0714 23:35:22.537667  5922 net.cpp:425] inception_5a/3x3 <- inception_5a/3x3_reduce
2016-07-14 23:35:22.537 STDERR [INFO] I0714 23:35:22.537678  5922 net.cpp:399] inception_5a/3x3 -> inception_5a/3x3
2016-07-14 23:35:22.545 STDERR [INFO] I0714 23:35:22.545040  5918 net.cpp:141] Setting up inception_5a/3x3
2016-07-14 23:35:22.545 STDERR [INFO] I0714 23:35:22.545073  5918 net.cpp:148] Top shape: 10 320 7 7 (156800)
2016-07-14 23:35:22.545 STDERR [INFO] I0714 23:35:22.545078  5918 net.cpp:156] Memory required for data: 531238400
2016-07-14 23:35:22.545 STDERR [INFO] I0714 23:35:22.545088  5918 layer_factory.hpp:77] Creating layer inception_5a/relu_3x3
2016-07-14 23:35:22.545 STDERR [INFO] I0714 23:35:22.545096  5918 net.cpp:91] Creating Layer inception_5a/relu_3x3
2016-07-14 23:35:22.545 STDERR [INFO] I0714 23:35:22.545102  5918 net.cpp:425] inception_5a/relu_3x3 <- inception_5a/3x3
2016-07-14 23:35:22.545 STDERR [INFO] I0714 23:35:22.545111  5918 net.cpp:386] inception_5a/relu_3x3 -> inception_5a/3x3 (in-place)
2016-07-14 23:35:22.546 STDERR [INFO] I0714 23:35:22.546442  5918 net.cpp:141] Setting up inception_5a/relu_3x3
2016-07-14 23:35:22.546 STDERR [INFO] I0714 23:35:22.546469  5918 net.cpp:148] Top shape: 10 320 7 7 (156800)
2016-07-14 23:35:22.546 STDERR [INFO] I0714 23:35:22.546474  5918 net.cpp:156] Memory required for data: 531865600
2016-07-14 23:35:22.546 STDERR [INFO] I0714 23:35:22.546479  5918 layer_factory.hpp:77] Creating layer inception_5a/5x5_reduce
2016-07-14 23:35:22.546 STDERR [INFO] I0714 23:35:22.546494  5918 net.cpp:91] Creating Layer inception_5a/5x5_reduce
2016-07-14 23:35:22.546 STDERR [INFO] I0714 23:35:22.546501  5918 net.cpp:425] inception_5a/5x5_reduce <- pool4/3x3_s2_pool4/3x3_s2_0_split_2
2016-07-14 23:35:22.546 STDERR [INFO] I0714 23:35:22.546514  5918 net.cpp:399] inception_5a/5x5_reduce -> inception_5a/5x5_reduce
2016-07-14 23:35:22.547 STDERR [INFO] I0714 23:35:22.547696  5922 net.cpp:141] Setting up inception_5a/3x3
2016-07-14 23:35:22.547 STDERR [INFO] I0714 23:35:22.547714  5922 net.cpp:148] Top shape: 10 320 7 7 (156800)
2016-07-14 23:35:22.547 STDERR [INFO] I0714 23:35:22.547719  5922 net.cpp:156] Memory required for data: 531238400
2016-07-14 23:35:22.547 STDERR [INFO] I0714 23:35:22.547729  5922 layer_factory.hpp:77] Creating layer inception_5a/relu_3x3
2016-07-14 23:35:22.548 STDERR [INFO] I0714 23:35:22.547739  5922 net.cpp:91] Creating Layer inception_5a/relu_3x3
2016-07-14 23:35:22.548 STDERR [INFO] I0714 23:35:22.547744  5922 net.cpp:425] inception_5a/relu_3x3 <- inception_5a/3x3
2016-07-14 23:35:22.548 STDERR [INFO] I0714 23:35:22.547754  5922 net.cpp:386] inception_5a/relu_3x3 -> inception_5a/3x3 (in-place)
2016-07-14 23:35:22.548 STDERR [INFO] I0714 23:35:22.548635  5922 net.cpp:141] Setting up inception_5a/relu_3x3
2016-07-14 23:35:22.548 STDERR [INFO] I0714 23:35:22.548651  5922 net.cpp:148] Top shape: 10 320 7 7 (156800)
2016-07-14 23:35:22.548 STDERR [INFO] I0714 23:35:22.548656  5922 net.cpp:156] Memory required for data: 531865600
2016-07-14 23:35:22.548 STDERR [INFO] I0714 23:35:22.548661  5922 layer_factory.hpp:77] Creating layer inception_5a/5x5_reduce
2016-07-14 23:35:22.548 STDERR [INFO] I0714 23:35:22.548678  5922 net.cpp:91] Creating Layer inception_5a/5x5_reduce
2016-07-14 23:35:22.548 STDERR [INFO] I0714 23:35:22.548684  5922 net.cpp:425] inception_5a/5x5_reduce <- pool4/3x3_s2_pool4/3x3_s2_0_split_2
2016-07-14 23:35:22.548 STDERR [INFO] I0714 23:35:22.548697  5922 net.cpp:399] inception_5a/5x5_reduce -> inception_5a/5x5_reduce
2016-07-14 23:35:22.553 STDERR [INFO] I0714 23:35:22.553053  5918 net.cpp:141] Setting up inception_5a/5x5_reduce
2016-07-14 23:35:22.553 STDERR [INFO] I0714 23:35:22.553071  5918 net.cpp:148] Top shape: 10 32 7 7 (15680)
2016-07-14 23:35:22.553 STDERR [INFO] I0714 23:35:22.553076  5918 net.cpp:156] Memory required for data: 531928320
2016-07-14 23:35:22.553 STDERR [INFO] I0714 23:35:22.553086  5918 layer_factory.hpp:77] Creating layer inception_5a/relu_5x5_reduce
2016-07-14 23:35:22.553 STDERR [INFO] I0714 23:35:22.553097  5918 net.cpp:91] Creating Layer inception_5a/relu_5x5_reduce
2016-07-14 23:35:22.553 STDERR [INFO] I0714 23:35:22.553102  5918 net.cpp:425] inception_5a/relu_5x5_reduce <- inception_5a/5x5_reduce
2016-07-14 23:35:22.553 STDERR [INFO] I0714 23:35:22.553110  5918 net.cpp:386] inception_5a/relu_5x5_reduce -> inception_5a/5x5_reduce (in-place)
2016-07-14 23:35:22.554 STDERR [INFO] I0714 23:35:22.554136  5922 net.cpp:141] Setting up inception_5a/5x5_reduce
2016-07-14 23:35:22.554 STDERR [INFO] I0714 23:35:22.554155  5922 net.cpp:148] Top shape: 10 32 7 7 (15680)
2016-07-14 23:35:22.554 STDERR [INFO] I0714 23:35:22.554160  5922 net.cpp:156] Memory required for data: 531928320
2016-07-14 23:35:22.554 STDERR [INFO] I0714 23:35:22.554169  5922 layer_factory.hpp:77] Creating layer inception_5a/relu_5x5_reduce
2016-07-14 23:35:22.554 STDERR [INFO] I0714 23:35:22.554177  5922 net.cpp:91] Creating Layer inception_5a/relu_5x5_reduce
2016-07-14 23:35:22.554 STDERR [INFO] I0714 23:35:22.554183  5922 net.cpp:425] inception_5a/relu_5x5_reduce <- inception_5a/5x5_reduce
2016-07-14 23:35:22.554 STDERR [INFO] I0714 23:35:22.554190  5922 net.cpp:386] inception_5a/relu_5x5_reduce -> inception_5a/5x5_reduce (in-place)
2016-07-14 23:35:22.554 STDERR [INFO] I0714 23:35:22.554394  5918 net.cpp:141] Setting up inception_5a/relu_5x5_reduce
2016-07-14 23:35:22.554 STDERR [INFO] I0714 23:35:22.554407  5918 net.cpp:148] Top shape: 10 32 7 7 (15680)
2016-07-14 23:35:22.554 STDERR [INFO] I0714 23:35:22.554412  5918 net.cpp:156] Memory required for data: 531991040
2016-07-14 23:35:22.554 STDERR [INFO] I0714 23:35:22.554417  5918 layer_factory.hpp:77] Creating layer inception_5a/5x5
2016-07-14 23:35:22.554 STDERR [INFO] I0714 23:35:22.554432  5918 net.cpp:91] Creating Layer inception_5a/5x5
2016-07-14 23:35:22.554 STDERR [INFO] I0714 23:35:22.554438  5918 net.cpp:425] inception_5a/5x5 <- inception_5a/5x5_reduce
2016-07-14 23:35:22.554 STDERR [INFO] I0714 23:35:22.554447  5918 net.cpp:399] inception_5a/5x5 -> inception_5a/5x5
2016-07-14 23:35:22.554 STDERR [INFO] I0714 23:35:22.554860  5922 net.cpp:141] Setting up inception_5a/relu_5x5_reduce
2016-07-14 23:35:22.554 STDERR [INFO] I0714 23:35:22.554875  5922 net.cpp:148] Top shape: 10 32 7 7 (15680)
2016-07-14 23:35:22.554 STDERR [INFO] I0714 23:35:22.554879  5922 net.cpp:156] Memory required for data: 531991040
2016-07-14 23:35:22.555 STDERR [INFO] I0714 23:35:22.554884  5922 layer_factory.hpp:77] Creating layer inception_5a/5x5
2016-07-14 23:35:22.555 STDERR [INFO] I0714 23:35:22.554900  5922 net.cpp:91] Creating Layer inception_5a/5x5
2016-07-14 23:35:22.555 STDERR [INFO] I0714 23:35:22.554906  5922 net.cpp:425] inception_5a/5x5 <- inception_5a/5x5_reduce
2016-07-14 23:35:22.555 STDERR [INFO] I0714 23:35:22.554919  5922 net.cpp:399] inception_5a/5x5 -> inception_5a/5x5
2016-07-14 23:35:22.559 STDERR [INFO] I0714 23:35:22.559789  5918 net.cpp:141] Setting up inception_5a/5x5
2016-07-14 23:35:22.559 STDERR [INFO] I0714 23:35:22.559818  5918 net.cpp:148] Top shape: 10 128 7 7 (62720)
2016-07-14 23:35:22.559 STDERR [INFO] I0714 23:35:22.559823  5918 net.cpp:156] Memory required for data: 532241920
2016-07-14 23:35:22.560 STDERR [INFO] I0714 23:35:22.559833  5918 layer_factory.hpp:77] Creating layer inception_5a/relu_5x5
2016-07-14 23:35:22.560 STDERR [INFO] I0714 23:35:22.559867  5918 net.cpp:91] Creating Layer inception_5a/relu_5x5
2016-07-14 23:35:22.560 STDERR [INFO] I0714 23:35:22.559873  5918 net.cpp:425] inception_5a/relu_5x5 <- inception_5a/5x5
2016-07-14 23:35:22.560 STDERR [INFO] I0714 23:35:22.559880  5918 net.cpp:386] inception_5a/relu_5x5 -> inception_5a/5x5 (in-place)
2016-07-14 23:35:22.560 STDERR [INFO] I0714 23:35:22.560843  5922 net.cpp:141] Setting up inception_5a/5x5
2016-07-14 23:35:22.560 STDERR [INFO] I0714 23:35:22.560871  5922 net.cpp:148] Top shape: 10 128 7 7 (62720)
2016-07-14 23:35:22.561 STDERR [INFO] I0714 23:35:22.560878  5922 net.cpp:156] Memory required for data: 532241920
2016-07-14 23:35:22.561 STDERR [INFO] I0714 23:35:22.560886  5922 layer_factory.hpp:77] Creating layer inception_5a/relu_5x5
2016-07-14 23:35:22.561 STDERR [INFO] I0714 23:35:22.560921  5922 net.cpp:91] Creating Layer inception_5a/relu_5x5
2016-07-14 23:35:22.561 STDERR [INFO] I0714 23:35:22.560928  5922 net.cpp:425] inception_5a/relu_5x5 <- inception_5a/5x5
2016-07-14 23:35:22.561 STDERR [INFO] I0714 23:35:22.560935  5922 net.cpp:386] inception_5a/relu_5x5 -> inception_5a/5x5 (in-place)
2016-07-14 23:35:22.561 STDERR [INFO] I0714 23:35:22.561142  5918 net.cpp:141] Setting up inception_5a/relu_5x5
2016-07-14 23:35:22.561 STDERR [INFO] I0714 23:35:22.561156  5918 net.cpp:148] Top shape: 10 128 7 7 (62720)
2016-07-14 23:35:22.561 STDERR [INFO] I0714 23:35:22.561161  5918 net.cpp:156] Memory required for data: 532492800
2016-07-14 23:35:22.561 STDERR [INFO] I0714 23:35:22.561166  5918 layer_factory.hpp:77] Creating layer inception_5a/pool
2016-07-14 23:35:22.561 STDERR [INFO] I0714 23:35:22.561175  5918 net.cpp:91] Creating Layer inception_5a/pool
2016-07-14 23:35:22.561 STDERR [INFO] I0714 23:35:22.561180  5918 net.cpp:425] inception_5a/pool <- pool4/3x3_s2_pool4/3x3_s2_0_split_3
2016-07-14 23:35:22.561 STDERR [INFO] I0714 23:35:22.561192  5918 net.cpp:399] inception_5a/pool -> inception_5a/pool
2016-07-14 23:35:22.561 STDERR [INFO] I0714 23:35:22.561332  5918 net.cpp:141] Setting up inception_5a/pool
2016-07-14 23:35:22.561 STDERR [INFO] I0714 23:35:22.561343  5918 net.cpp:148] Top shape: 10 832 7 7 (407680)
2016-07-14 23:35:22.562 STDERR [INFO] I0714 23:35:22.561347  5918 net.cpp:156] Memory required for data: 534123520
2016-07-14 23:35:22.562 STDERR [INFO] I0714 23:35:22.561352  5918 layer_factory.hpp:77] Creating layer inception_5a/pool_proj
2016-07-14 23:35:22.562 STDERR [INFO] I0714 23:35:22.561359  5922 net.cpp:141] Setting up inception_5a/relu_5x5
2016-07-14 23:35:22.562 STDERR [INFO] I0714 23:35:22.561369  5918 net.cpp:91] Creating Layer inception_5a/pool_proj
2016-07-14 23:35:22.562 STDERR [INFO] I0714 23:35:22.561372  5922 net.cpp:148] Top shape: 10 128 7 7 (62720)
2016-07-14 23:35:22.562 STDERR [INFO] I0714 23:35:22.561377  5918 net.cpp:425] inception_5a/pool_proj <- inception_5a/pool
2016-07-14 23:35:22.562 STDERR [INFO] I0714 23:35:22.561377  5922 net.cpp:156] Memory required for data: 532492800
2016-07-14 23:35:22.562 STDERR [INFO] I0714 23:35:22.561388  5918 net.cpp:399] inception_5a/pool_proj -> inception_5a/pool_proj
2016-07-14 23:35:22.562 STDERR [INFO] I0714 23:35:22.561388  5922 layer_factory.hpp:77] Creating layer inception_5a/pool
2016-07-14 23:35:22.562 STDERR [INFO] I0714 23:35:22.561409  5922 net.cpp:91] Creating Layer inception_5a/pool
2016-07-14 23:35:22.562 STDERR [INFO] I0714 23:35:22.561416  5922 net.cpp:425] inception_5a/pool <- pool4/3x3_s2_pool4/3x3_s2_0_split_3
2016-07-14 23:35:22.562 STDERR [INFO] I0714 23:35:22.561426  5922 net.cpp:399] inception_5a/pool -> inception_5a/pool
2016-07-14 23:35:22.562 STDERR [INFO] I0714 23:35:22.561636  5922 net.cpp:141] Setting up inception_5a/pool
2016-07-14 23:35:22.562 STDERR [INFO] I0714 23:35:22.561647  5922 net.cpp:148] Top shape: 10 832 7 7 (407680)
2016-07-14 23:35:22.562 STDERR [INFO] I0714 23:35:22.561651  5922 net.cpp:156] Memory required for data: 534123520
2016-07-14 23:35:22.562 STDERR [INFO] I0714 23:35:22.561656  5922 layer_factory.hpp:77] Creating layer inception_5a/pool_proj
2016-07-14 23:35:22.562 STDERR [INFO] I0714 23:35:22.561671  5922 net.cpp:91] Creating Layer inception_5a/pool_proj
2016-07-14 23:35:22.562 STDERR [INFO] I0714 23:35:22.561676  5922 net.cpp:425] inception_5a/pool_proj <- inception_5a/pool
2016-07-14 23:35:22.562 STDERR [INFO] I0714 23:35:22.561688  5922 net.cpp:399] inception_5a/pool_proj -> inception_5a/pool_proj
2016-07-14 23:35:22.567 STDERR [INFO] I0714 23:35:22.567869  5918 net.cpp:141] Setting up inception_5a/pool_proj
2016-07-14 23:35:22.568 STDERR [INFO] I0714 23:35:22.567900  5918 net.cpp:148] Top shape: 10 128 7 7 (62720)
2016-07-14 23:35:22.568 STDERR [INFO] I0714 23:35:22.567905  5918 net.cpp:156] Memory required for data: 534374400
2016-07-14 23:35:22.568 STDERR [INFO] I0714 23:35:22.567915  5918 layer_factory.hpp:77] Creating layer inception_5a/relu_pool_proj
2016-07-14 23:35:22.568 STDERR [INFO] I0714 23:35:22.567925  5918 net.cpp:91] Creating Layer inception_5a/relu_pool_proj
2016-07-14 23:35:22.568 STDERR [INFO] I0714 23:35:22.567931  5918 net.cpp:425] inception_5a/relu_pool_proj <- inception_5a/pool_proj
2016-07-14 23:35:22.568 STDERR [INFO] I0714 23:35:22.567939  5918 net.cpp:386] inception_5a/relu_pool_proj -> inception_5a/pool_proj (in-place)
2016-07-14 23:35:22.568 STDERR [INFO] I0714 23:35:22.568181  5922 net.cpp:141] Setting up inception_5a/pool_proj
2016-07-14 23:35:22.568 STDERR [INFO] I0714 23:35:22.568195  5922 net.cpp:148] Top shape: 10 128 7 7 (62720)
2016-07-14 23:35:22.568 STDERR [INFO] I0714 23:35:22.568200  5922 net.cpp:156] Memory required for data: 534374400
2016-07-14 23:35:22.568 STDERR [INFO] I0714 23:35:22.568210  5922 layer_factory.hpp:77] Creating layer inception_5a/relu_pool_proj
2016-07-14 23:35:22.568 STDERR [INFO] I0714 23:35:22.568218  5922 net.cpp:91] Creating Layer inception_5a/relu_pool_proj
2016-07-14 23:35:22.568 STDERR [INFO] I0714 23:35:22.568224  5922 net.cpp:425] inception_5a/relu_pool_proj <- inception_5a/pool_proj
2016-07-14 23:35:22.568 STDERR [INFO] I0714 23:35:22.568233  5922 net.cpp:386] inception_5a/relu_pool_proj -> inception_5a/pool_proj (in-place)
2016-07-14 23:35:22.569 STDERR [INFO] I0714 23:35:22.568999  5918 net.cpp:141] Setting up inception_5a/relu_pool_proj
2016-07-14 23:35:22.569 STDERR [INFO] I0714 23:35:22.569011  5918 net.cpp:148] Top shape: 10 128 7 7 (62720)
2016-07-14 23:35:22.569 STDERR [INFO] I0714 23:35:22.569028  5918 net.cpp:156] Memory required for data: 534625280
2016-07-14 23:35:22.569 STDERR [INFO] I0714 23:35:22.569033  5918 layer_factory.hpp:77] Creating layer inception_5a/output
2016-07-14 23:35:22.569 STDERR [INFO] I0714 23:35:22.569042  5918 net.cpp:91] Creating Layer inception_5a/output
2016-07-14 23:35:22.569 STDERR [INFO] I0714 23:35:22.569048  5918 net.cpp:425] inception_5a/output <- inception_5a/1x1
2016-07-14 23:35:22.569 STDERR [INFO] I0714 23:35:22.569054  5918 net.cpp:425] inception_5a/output <- inception_5a/3x3
2016-07-14 23:35:22.569 STDERR [INFO] I0714 23:35:22.569061  5918 net.cpp:425] inception_5a/output <- inception_5a/5x5
2016-07-14 23:35:22.569 STDERR [INFO] I0714 23:35:22.569066  5918 net.cpp:425] inception_5a/output <- inception_5a/pool_proj
2016-07-14 23:35:22.569 STDERR [INFO] I0714 23:35:22.569075  5918 net.cpp:399] inception_5a/output -> inception_5a/output
2016-07-14 23:35:22.569 STDERR [INFO] I0714 23:35:22.569146  5918 net.cpp:141] Setting up inception_5a/output
2016-07-14 23:35:22.569 STDERR [INFO] I0714 23:35:22.569156  5918 net.cpp:148] Top shape: 10 832 7 7 (407680)
2016-07-14 23:35:22.569 STDERR [INFO] I0714 23:35:22.569160  5918 net.cpp:156] Memory required for data: 536256000
2016-07-14 23:35:22.569 STDERR [INFO] I0714 23:35:22.569165  5918 layer_factory.hpp:77] Creating layer inception_5a/output_inception_5a/output_0_split
2016-07-14 23:35:22.569 STDERR [INFO] I0714 23:35:22.569174  5922 net.cpp:141] Setting up inception_5a/relu_pool_proj
2016-07-14 23:35:22.569 STDERR [INFO] I0714 23:35:22.569178  5918 net.cpp:91] Creating Layer inception_5a/output_inception_5a/output_0_split
2016-07-14 23:35:22.569 STDERR [INFO] I0714 23:35:22.569190  5918 net.cpp:425] inception_5a/output_inception_5a/output_0_split <- inception_5a/output
2016-07-14 23:35:22.569 STDERR [INFO] I0714 23:35:22.569193  5922 net.cpp:148] Top shape: 10 128 7 7 (62720)
2016-07-14 23:35:22.569 STDERR [INFO] I0714 23:35:22.569197  5918 net.cpp:399] inception_5a/output_inception_5a/output_0_split -> inception_5a/output_inception_5a/output_0_split_0
2016-07-14 23:35:22.569 STDERR [INFO] I0714 23:35:22.569198  5922 net.cpp:156] Memory required for data: 534625280
2016-07-14 23:35:22.569 STDERR [INFO] I0714 23:35:22.569210  5922 layer_factory.hpp:77] Creating layer inception_5a/output
…
2016-07-14 23:35:22.570 STDERR [INFO] I0714 23:35:22.569437  5922 net.cpp:399] inception_5a/output_inception_5a/output_0_split -> inception_5a/output_inception_5a/output_0_split_1
2016-07-14 23:35:22.570 STDERR [INFO] I0714 23:35:22.569447  5922 net.cpp:399] inception_5a/output_inception_5a/output_0_split -> inception_5a/output_inception_5a/output_0_split_2
2016-07-14 23:35:22.570 STDERR [INFO] I0714 23:35:22.569455  5922 net.cpp:399] inception_5a/output_inception_5a/output_0_split -> inception_5a/output_inception_5a/output_0_split_3
2016-07-14 23:35:22.570 STDERR [INFO] I0714 23:35:22.569463  5918 net.cpp:141] Setting up inception_5a/output_inception_5a/output_0_split
2016-07-14 23:35:22.570 STDERR [INFO] I0714 23:35:22.569473  5918 net.cpp:148] Top shape: 10 832 7 7 (407680)
2016-07-14 23:35:22.570 STDERR [INFO] I0714 23:35:22.569479  5918 net.cpp:148] Top shape: 10 832 7 7 (407680)
2016-07-14 23:35:22.570 STDERR [INFO] I0714 23:35:22.569484  5918 net.cpp:148] Top shape: 10 832 7 7 (407680)
2016-07-14 23:35:22.570 STDERR [INFO] I0714 23:35:22.569489  5918 net.cpp:148] Top shape: 10 832 7 7 (407680)
2016-07-14 23:35:22.570 STDERR [INFO] I0714 23:35:22.569494  5918 net.cpp:156] Memory required for data: 542778880
2016-07-14 23:35:22.570 STDERR [INFO] I0714 23:35:22.569497  5918 layer_factory.hpp:77] Creating layer inception_5b/1x1
2016-07-14 23:35:22.570 STDERR [INFO] I0714 23:35:22.569511  5918 net.cpp:91] Creating Layer inception_5b/1x1
2016-07-14 23:35:22.570 STDERR [INFO] I0714 23:35:22.569517  5918 net.cpp:425] inception_5b/1x1 <- inception_5a/output_inception_5a/output_0_split_0
2016-07-14 23:35:22.570 STDERR [INFO] I0714 23:35:22.569528  5918 net.cpp:399] inception_5b/1x1 -> inception_5b/1x1
2016-07-14 23:35:22.570 STDERR [INFO] I0714 23:35:22.569771  5922 net.cpp:141] Setting up inception_5a/output_inception_5a/output_0_split
2016-07-14 23:35:22.570 STDERR [INFO] I0714 23:35:22.569782  5922 net.cpp:148] Top shape: 10 832 7 7 (407680)
2016-07-14 23:35:22.570 STDERR [INFO] I0714 23:35:22.569787  5922 net.cpp:148] Top shape: 10 832 7 7 (407680)
2016-07-14 23:35:22.570 STDERR [INFO] I0714 23:35:22.569792  5922 net.cpp:148] Top shape: 10 832 7 7 (407680)
2016-07-14 23:35:22.570 STDERR [INFO] I0714 23:35:22.569797  5922 net.cpp:148] Top shape: 10 832 7 7 (407680)
2016-07-14 23:35:22.570 STDERR [INFO] I0714 23:35:22.569800  5922 net.cpp:156] Memory required for data: 542778880
2016-07-14 23:35:22.571 STDERR [INFO] I0714 23:35:22.569804  5922 layer_factory.hpp:77] Creating layer inception_5b/1x1
2016-07-14 23:35:22.571 STDERR [INFO] I0714 23:35:22.569819  5922 net.cpp:91] Creating Layer inception_5b/1x1
2016-07-14 23:35:22.571 STDERR [INFO] I0714 23:35:22.569825  5922 net.cpp:425] inception_5b/1x1 <- inception_5a/output_inception_5a/output_0_split_0
2016-07-14 23:35:22.571 STDERR [INFO] I0714 23:35:22.569839  5922 net.cpp:399] inception_5b/1x1 -> inception_5b/1x1
2016-07-14 23:35:22.577 STDERR [INFO] I0714 23:35:22.577574  5918 net.cpp:141] Setting up inception_5b/1x1
2016-07-14 23:35:22.577 STDERR [INFO] I0714 23:35:22.577605  5918 net.cpp:148] Top shape: 10 384 7 7 (188160)
2016-07-14 23:35:22.577 STDERR [INFO] I0714 23:35:22.577611  5918 net.cpp:156] Memory required for data: 543531520
2016-07-14 23:35:22.577 STDERR [INFO] I0714 23:35:22.577620  5918 layer_factory.hpp:77] Creating layer inception_5b/relu_1x1
2016-07-14 23:35:22.577 STDERR [INFO] I0714 23:35:22.577633  5918 net.cpp:91] Creating Layer inception_5b/relu_1x1
2016-07-14 23:35:22.577 STDERR [INFO] I0714 23:35:22.577639  5918 net.cpp:425] inception_5b/relu_1x1 <- inception_5b/1x1
2016-07-14 23:35:22.577 STDERR [INFO] I0714 23:35:22.577654  5918 net.cpp:386] inception_5b/relu_1x1 -> inception_5b/1x1 (in-place)
2016-07-14 23:35:22.579 STDERR [INFO] I0714 23:35:22.578975  5922 net.cpp:141] Setting up inception_5b/1x1
2016-07-14 23:35:22.579 STDERR [INFO] I0714 23:35:22.578980  5918 net.cpp:141] Setting up inception_5b/relu_1x1
2016-07-14 23:35:22.579 STDERR [INFO] I0714 23:35:22.579005  5922 net.cpp:148] Top shape: 10 384 7 7 (188160)
2016-07-14 23:35:22.579 STDERR [INFO] I0714 23:35:22.579011  5918 net.cpp:148] Top shape: 10 384 7 7 (188160)
2016-07-14 23:35:22.579 STDERR [INFO] I0714 23:35:22.579011  5922 net.cpp:156] Memory required for data: 543531520
2016-07-14 23:35:22.579 STDERR [INFO] I0714 23:35:22.579020  5918 net.cpp:156] Memory required for data: 544284160
2016-07-14 23:35:22.579 STDERR [INFO] I0714 23:35:22.579025  5918 layer_factory.hpp:77] Creating layer inception_5b/3x3_reduce
2016-07-14 23:35:22.579 STDERR [INFO] I0714 23:35:22.579027  5922 layer_factory.hpp:77] Creating layer inception_5b/relu_1x1
2016-07-14 23:35:22.579 STDERR [INFO] I0714 23:35:22.579040  5918 net.cpp:91] Creating Layer inception_5b/3x3_reduce
2016-07-14 23:35:22.579 STDERR [INFO] I0714 23:35:22.579041  5922 net.cpp:91] Creating Layer inception_5b/relu_1x1
2016-07-14 23:35:22.579 STDERR [INFO] I0714 23:35:22.579048  5918 net.cpp:425] inception_5b/3x3_reduce <- inception_5a/output_inception_5a/output_0_split_1
2016-07-14 23:35:22.579 STDERR [INFO] I0714 23:35:22.579051  5922 net.cpp:425] inception_5b/relu_1x1 <- inception_5b/1x1
2016-07-14 23:35:22.579 STDERR [INFO] I0714 23:35:22.579057  5918 net.cpp:399] inception_5b/3x3_reduce -> inception_5b/3x3_reduce
2016-07-14 23:35:22.579 STDERR [INFO] I0714 23:35:22.579059  5922 net.cpp:386] inception_5b/relu_1x1 -> inception_5b/1x1 (in-place)
2016-07-14 23:35:22.580 STDERR [INFO] I0714 23:35:22.580767  5922 net.cpp:141] Setting up inception_5b/relu_1x1
2016-07-14 23:35:22.580 STDERR [INFO] I0714 23:35:22.580795  5922 net.cpp:148] Top shape: 10 384 7 7 (188160)
2016-07-14 23:35:22.580 STDERR [INFO] I0714 23:35:22.580801  5922 net.cpp:156] Memory required for data: 544284160
2016-07-14 23:35:22.580 STDERR [INFO] I0714 23:35:22.580806  5922 layer_factory.hpp:77] Creating layer inception_5b/3x3_reduce
2016-07-14 23:35:22.581 STDERR [INFO] I0714 23:35:22.580821  5922 net.cpp:91] Creating Layer inception_5b/3x3_reduce
2016-07-14 23:35:22.581 STDERR [INFO] I0714 23:35:22.580827  5922 net.cpp:425] inception_5b/3x3_reduce <- inception_5a/output_inception_5a/output_0_split_1
2016-07-14 23:35:22.581 STDERR [INFO] I0714 23:35:22.580838  5922 net.cpp:399] inception_5b/3x3_reduce -> inception_5b/3x3_reduce
2016-07-14 23:35:22.586 STDERR [INFO] I0714 23:35:22.586241  5918 net.cpp:141] Setting up inception_5b/3x3_reduce
2016-07-14 23:35:22.586 STDERR [INFO] I0714 23:35:22.586272  5918 net.cpp:148] Top shape: 10 192 7 7 (94080)
2016-07-14 23:35:22.586 STDERR [INFO] I0714 23:35:22.586277  5918 net.cpp:156] Memory required for data: 544660480
2016-07-14 23:35:22.586 STDERR [INFO] I0714 23:35:22.586285  5918 layer_factory.hpp:77] Creating layer inception_5b/relu_3x3_reduce
2016-07-14 23:35:22.586 STDERR [INFO] I0714 23:35:22.586297  5918 net.cpp:91] Creating Layer inception_5b/relu_3x3_reduce
2016-07-14 23:35:22.586 STDERR [INFO] I0714 23:35:22.586302  5918 net.cpp:425] inception_5b/relu_3x3_reduce <- inception_5b/3x3_reduce
2016-07-14 23:35:22.586 STDERR [INFO] I0714 23:35:22.586309  5918 net.cpp:386] inception_5b/relu_3x3_reduce -> inception_5b/3x3_reduce (in-place)
2016-07-14 23:35:22.587 STDERR [INFO] I0714 23:35:22.587499  5918 net.cpp:141] Setting up inception_5b/relu_3x3_reduce
2016-07-14 23:35:22.587 STDERR [INFO] I0714 23:35:22.587529  5918 net.cpp:148] Top shape: 10 192 7 7 (94080)
2016-07-14 23:35:22.587 STDERR [INFO] I0714 23:35:22.587535  5918 net.cpp:156] Memory required for data: 545036800
2016-07-14 23:35:22.587 STDERR [INFO] I0714 23:35:22.587540  5918 layer_factory.hpp:77] Creating layer inception_5b/3x3
2016-07-14 23:35:22.587 STDERR [INFO] I0714 23:35:22.587558  5918 net.cpp:91] Creating Layer inception_5b/3x3
2016-07-14 23:35:22.587 STDERR [INFO] I0714 23:35:22.587563  5918 net.cpp:425] inception_5b/3x3 <- inception_5b/3x3_reduce
2016-07-14 23:35:22.587 STDERR [INFO] I0714 23:35:22.587573  5918 net.cpp:399] inception_5b/3x3 -> inception_5b/3x3
2016-07-14 23:35:22.587 STDERR [INFO] I0714 23:35:22.587723  5922 net.cpp:141] Setting up inception_5b/3x3_reduce
2016-07-14 23:35:22.587 STDERR [INFO] I0714 23:35:22.587736  5922 net.cpp:148] Top shape: 10 192 7 7 (94080)
2016-07-14 23:35:22.587 STDERR [INFO] I0714 23:35:22.587741  5922 net.cpp:156] Memory required for data: 544660480
2016-07-14 23:35:22.587 STDERR [INFO] I0714 23:35:22.587750  5922 layer_factory.hpp:77] Creating layer inception_5b/relu_3x3_reduce
2016-07-14 23:35:22.588 STDERR [INFO] I0714 23:35:22.587759  5922 net.cpp:91] Creating Layer inception_5b/relu_3x3_reduce
2016-07-14 23:35:22.588 STDERR [INFO] I0714 23:35:22.587764  5922 net.cpp:425] inception_5b/relu_3x3_reduce <- inception_5b/3x3_reduce
2016-07-14 23:35:22.588 STDERR [INFO] I0714 23:35:22.587774  5922 net.cpp:386] inception_5b/relu_3x3_reduce -> inception_5b/3x3_reduce (in-place)
2016-07-14 23:35:22.590 STDERR [INFO] I0714 23:35:22.590004  5922 net.cpp:141] Setting up inception_5b/relu_3x3_reduce
2016-07-14 23:35:22.590 STDERR [INFO] I0714 23:35:22.590019  5922 net.cpp:148] Top shape: 10 192 7 7 (94080)
2016-07-14 23:35:22.590 STDERR [INFO] I0714 23:35:22.590037  5922 net.cpp:156] Memory required for data: 545036800
2016-07-14 23:35:22.590 STDERR [INFO] I0714 23:35:22.590042  5922 layer_factory.hpp:77] Creating layer inception_5b/3x3
2016-07-14 23:35:22.590 STDERR [INFO] I0714 23:35:22.590061  5922 net.cpp:91] Creating Layer inception_5b/3x3
2016-07-14 23:35:22.590 STDERR [INFO] I0714 23:35:22.590067  5922 net.cpp:425] inception_5b/3x3 <- inception_5b/3x3_reduce
2016-07-14 23:35:22.590 STDERR [INFO] I0714 23:35:22.590076  5922 net.cpp:399] inception_5b/3x3 -> inception_5b/3x3
2016-07-14 23:35:22.596 STDERR [INFO] I0714 23:35:22.596830  5918 net.cpp:141] Setting up inception_5b/3x3
2016-07-14 23:35:22.597 STDERR [INFO] I0714 23:35:22.596866  5918 net.cpp:148] Top shape: 10 384 7 7 (188160)
2016-07-14 23:35:22.597 STDERR [INFO] I0714 23:35:22.596873  5918 net.cpp:156] Memory required for data: 545789440
2016-07-14 23:35:22.597 STDERR [INFO] I0714 23:35:22.596882  5918 layer_factory.hpp:77] Creating layer inception_5b/relu_3x3
2016-07-14 23:35:22.597 STDERR [INFO] I0714 23:35:22.596894  5918 net.cpp:91] Creating Layer inception_5b/relu_3x3
2016-07-14 23:35:22.597 STDERR [INFO] I0714 23:35:22.596900  5918 net.cpp:425] inception_5b/relu_3x3 <- inception_5b/3x3
2016-07-14 23:35:22.597 STDERR [INFO] I0714 23:35:22.596909  5918 net.cpp:386] inception_5b/relu_3x3 -> inception_5b/3x3 (in-place)
2016-07-14 23:35:22.598 STDERR [INFO] I0714 23:35:22.598042  5918 net.cpp:141] Setting up inception_5b/relu_3x3
2016-07-14 23:35:22.598 STDERR [INFO] I0714 23:35:22.598055  5918 net.cpp:148] Top shape: 10 384 7 7 (188160)
2016-07-14 23:35:22.598 STDERR [INFO] I0714 23:35:22.598073  5918 net.cpp:156] Memory required for data: 546542080
2016-07-14 23:35:22.598 STDERR [INFO] I0714 23:35:22.598078  5918 layer_factory.hpp:77] Creating layer inception_5b/5x5_reduce
2016-07-14 23:35:22.598 STDERR [INFO] I0714 23:35:22.598096  5918 net.cpp:91] Creating Layer inception_5b/5x5_reduce
2016-07-14 23:35:22.598 STDERR [INFO] I0714 23:35:22.598103  5918 net.cpp:425] inception_5b/5x5_reduce <- inception_5a/output_inception_5a/output_0_split_2
2016-07-14 23:35:22.598 STDERR [INFO] I0714 23:35:22.598111  5918 net.cpp:399] inception_5b/5x5_reduce -> inception_5b/5x5_reduce
2016-07-14 23:35:22.600 n.t.s.f.RefreshingImageFetcher$ImageReader [INFO] [Timing] RequestID: 0 StreamID: home/peifeng/work/data/frame.320x240.jpg SequenceNr: 72 Entering queue: 1468553722600
2016-07-14 23:35:22.600 n.t.s.f.RefreshingImageFetcher$ImageReader [INFO] [Timing] RequestID: 0 StreamID: home/peifeng/work/data/frame.320x240.jpg SequenceNr: 73 Entering queue: 1468553722600
2016-07-14 23:35:22.600 n.t.s.f.RefreshingImageFetcher$ImageReader [INFO] [Timing] RequestID: 0 StreamID: home/peifeng/work/data/frame.320x240.jpg SequenceNr: 74 Entering queue: 1468553722600
2016-07-14 23:35:22.602 STDERR [INFO] I0714 23:35:22.602171  5922 net.cpp:141] Setting up inception_5b/3x3
2016-07-14 23:35:22.602 STDERR [INFO] I0714 23:35:22.602200  5922 net.cpp:148] Top shape: 10 384 7 7 (188160)
2016-07-14 23:35:22.602 STDERR [INFO] I0714 23:35:22.602206  5922 net.cpp:156] Memory required for data: 545789440
2016-07-14 23:35:22.602 STDERR [INFO] I0714 23:35:22.602216  5922 layer_factory.hpp:77] Creating layer inception_5b/relu_3x3
2016-07-14 23:35:22.602 STDERR [INFO] I0714 23:35:22.602224  5922 net.cpp:91] Creating Layer inception_5b/relu_3x3
2016-07-14 23:35:22.602 STDERR [INFO] I0714 23:35:22.602231  5922 net.cpp:425] inception_5b/relu_3x3 <- inception_5b/3x3
2016-07-14 23:35:22.602 STDERR [INFO] I0714 23:35:22.602241  5922 net.cpp:386] inception_5b/relu_3x3 -> inception_5b/3x3 (in-place)
2016-07-14 23:35:22.602 n.t.s.s.CVParticleSpout [INFO] [Timing] RequestID: 0 StreamID: home/peifeng/work/data/frame.320x240.jpg SequenceNr: 72 Leaving fetcher: 1468553722602 Size: 8702
2016-07-14 23:35:22.603 n.t.s.b.CVParticleBolt [INFO] [Timing] RequestID: 0 StreamID: home/peifeng/work/data/frame.320x240.jpg SequenceNr: 72 Entering scale: 1468553722603
2016-07-14 23:35:22.603 STDERR [INFO] I0714 23:35:22.603274  5918 net.cpp:141] Setting up inception_5b/5x5_reduce
2016-07-14 23:35:22.603 STDERR [INFO] I0714 23:35:22.603296  5918 net.cpp:148] Top shape: 10 48 7 7 (23520)
2016-07-14 23:35:22.603 STDERR [INFO] I0714 23:35:22.603301  5918 net.cpp:156] Memory required for data: 546636160
2016-07-14 23:35:22.603 STDERR [INFO] I0714 23:35:22.603310  5918 layer_factory.hpp:77] Creating layer inception_5b/relu_5x5_reduce
2016-07-14 23:35:22.603 STDERR [INFO] I0714 23:35:22.603318  5918 net.cpp:91] Creating Layer inception_5b/relu_5x5_reduce
2016-07-14 23:35:22.603 STDERR [INFO] I0714 23:35:22.603323  5918 net.cpp:425] inception_5b/relu_5x5_reduce <- inception_5b/5x5_reduce
2016-07-14 23:35:22.603 STDERR [INFO] I0714 23:35:22.603333  5918 net.cpp:386] inception_5b/relu_5x5_reduce -> inception_5b/5x5_reduce (in-place)
2016-07-14 23:35:22.603 STDERR [INFO] I0714 23:35:22.603350  5922 net.cpp:141] Setting up inception_5b/relu_3x3
2016-07-14 23:35:22.603 STDERR [INFO] I0714 23:35:22.603363  5922 net.cpp:148] Top shape: 10 384 7 7 (188160)
2016-07-14 23:35:22.603 STDERR [INFO] I0714 23:35:22.603368  5922 net.cpp:156] Memory required for data: 546542080
2016-07-14 23:35:22.603 STDERR [INFO] I0714 23:35:22.603373  5922 layer_factory.hpp:77] Creating layer inception_5b/5x5_reduce
2016-07-14 23:35:22.603 STDERR [INFO] I0714 23:35:22.603394  5922 net.cpp:91] Creating Layer inception_5b/5x5_reduce
2016-07-14 23:35:22.603 STDERR [INFO] I0714 23:35:22.603400  5922 net.cpp:425] inception_5b/5x5_reduce <- inception_5a/output_inception_5a/output_0_split_2
2016-07-14 23:35:22.603 STDERR [INFO] I0714 23:35:22.603411  5922 net.cpp:399] inception_5b/5x5_reduce -> inception_5b/5x5_reduce
2016-07-14 23:35:22.605 STDERR [INFO] I0714 23:35:22.605270  5918 net.cpp:141] Setting up inception_5b/relu_5x5_reduce
2016-07-14 23:35:22.605 STDERR [INFO] I0714 23:35:22.605283  5918 net.cpp:148] Top shape: 10 48 7 7 (23520)
2016-07-14 23:35:22.605 STDERR [INFO] I0714 23:35:22.605301  5918 net.cpp:156] Memory required for data: 546730240
2016-07-14 23:35:22.605 STDERR [INFO] I0714 23:35:22.605306  5918 layer_factory.hpp:77] Creating layer inception_5b/5x5
2016-07-14 23:35:22.605 STDERR [INFO] I0714 23:35:22.605324  5918 net.cpp:91] Creating Layer inception_5b/5x5
2016-07-14 23:35:22.605 STDERR [INFO] I0714 23:35:22.605329  5918 net.cpp:425] inception_5b/5x5 <- inception_5b/5x5_reduce
…
2016-07-14 23:35:22.608 n.t.s.b.CVParticleBolt [INFO] [Timing] RequestID: 0 StreamID: home/peifeng/work/data/frame.320x240.jpg SequenceNr: 72 Leaving scale: 1468553722608 Size: 3530
2016-07-14 23:35:22.608 n.t.s.s.CVParticleSpout [INFO] [Timing] RequestID: 0 StreamID: home/peifeng/work/data/frame.320x240.jpg SequenceNr: 74 Leaving fetcher: 1468553722608 Size: 8702
2016-07-14 23:35:22.608 n.t.s.b.CVParticleBolt [INFO] [Timing] RequestID: 0 StreamID: home/peifeng/work/data/frame.320x240.jpg SequenceNr: 74 Entering scale: 1468553722608
2016-07-14 23:35:22.609 STDERR [INFO] I0714 23:35:22.609489  5922 net.cpp:141] Setting up inception_5b/5x5_reduce
2016-07-14 23:35:22.609 STDERR [INFO] I0714 23:35:22.609519  5922 net.cpp:148] Top shape: 10 48 7 7 (23520)
2016-07-14 23:35:22.609 STDERR [INFO] I0714 23:35:22.609525  5922 net.cpp:156] Memory required for data: 546636160
2016-07-14 23:35:22.609 STDERR [INFO] I0714 23:35:22.609534  5922 layer_factory.hpp:77] Creating layer inception_5b/relu_5x5_reduce
2016-07-14 23:35:22.609 STDERR [INFO] I0714 23:35:22.609546  5922 net.cpp:91] Creating Layer inception_5b/relu_5x5_reduce
2016-07-14 23:35:22.609 STDERR [INFO] I0714 23:35:22.609554  5922 net.cpp:425] inception_5b/relu_5x5_reduce <- inception_5b/5x5_reduce
2016-07-14 23:35:22.609 STDERR [INFO] I0714 23:35:22.609562  5922 net.cpp:386] inception_5b/relu_5x5_reduce -> inception_5b/5x5_reduce (in-place)
2016-07-14 23:35:22.610 n.t.s.b.CVParticleBolt [INFO] [Timing] RequestID: 0 StreamID: home/peifeng/work/data/frame.320x240.jpg SequenceNr: 73 Leaving scale: 1468553722610 Size: 3530
2016-07-14 23:35:22.611 STDERR [INFO] I0714 23:35:22.610981  5922 net.cpp:141] Setting up inception_5b/relu_5x5_reduce
2016-07-14 23:35:22.611 STDERR [INFO] I0714 23:35:22.610996  5922 net.cpp:148] Top shape: 10 48 7 7 (23520)
2016-07-14 23:35:22.611 STDERR [INFO] I0714 23:35:22.611001  5922 net.cpp:156] Memory required for data: 546730240
2016-07-14 23:35:22.611 STDERR [INFO] I0714 23:35:22.611006  5922 layer_factory.hpp:77] Creating layer inception_5b/5x5
2016-07-14 23:35:22.611 STDERR [INFO] I0714 23:35:22.611027  5922 net.cpp:91] Creating Layer inception_5b/5x5
2016-07-14 23:35:22.611 STDERR [INFO] I0714 23:35:22.611034  5922 net.cpp:425] inception_5b/5x5 <- inception_5b/5x5_reduce
2016-07-14 23:35:22.611 STDERR [INFO] I0714 23:35:22.611045  5922 net.cpp:399] inception_5b/5x5 -> inception_5b/5x5
2016-07-14 23:35:22.611 STDERR [INFO] I0714 23:35:22.611302  5918 net.cpp:141] Setting up inception_5b/5x5
2016-07-14 23:35:22.611 STDERR [INFO] I0714 23:35:22.611320  5918 net.cpp:148] Top shape: 10 128 7 7 (62720)
2016-07-14 23:35:22.611 STDERR [INFO] I0714 23:35:22.611325  5918 net.cpp:156] Memory required for data: 546981120
2016-07-14 23:35:22.611 STDERR [INFO] I0714 23:35:22.611333  5918 layer_factory.hpp:77] Creating layer inception_5b/relu_5x5
2016-07-14 23:35:22.611 STDERR [INFO] I0714 23:35:22.611341  5918 net.cpp:91] Creating Layer inception_5b/relu_5x5
2016-07-14 23:35:22.611 STDERR [INFO] I0714 23:35:22.611347  5918 net.cpp:425] inception_5b/relu_5x5 <- inception_5b/5x5
2016-07-14 23:35:22.611 STDERR [INFO] I0714 23:35:22.611354  5918 net.cpp:386] inception_5b/relu_5x5 -> inception_5b/5x5 (in-place)
2016-07-14 23:35:22.613 n.t.s.b.CVParticleBolt [INFO] [Timing] RequestID: 0 StreamID: home/peifeng/work/data/frame.320x240.jpg SequenceNr: 74 Leaving scale: 1468553722613 Size: 3530
2016-07-14 23:35:22.613 STDERR [INFO] I0714 23:35:22.613139  5918 net.cpp:141] Setting up inception_5b/relu_5x5
2016-07-14 23:35:22.613 STDERR [INFO] I0714 23:35:22.613170  5918 net.cpp:148] Top shape: 10 128 7 7 (62720)
2016-07-14 23:35:22.613 STDERR [INFO] I0714 23:35:22.613175  5918 net.cpp:156] Memory required for data: 547232000
2016-07-14 23:35:22.613 STDERR [INFO] I0714 23:35:22.613180  5918 layer_factory.hpp:77] Creating layer inception_5b/pool
2016-07-14 23:35:22.613 STDERR [INFO] I0714 23:35:22.613191  5918 net.cpp:91] Creating Layer inception_5b/pool
2016-07-14 23:35:22.613 STDERR [INFO] I0714 23:35:22.613198  5918 net.cpp:425] inception_5b/pool <- inception_5a/output_inception_5a/output_0_split_3
2016-07-14 23:35:22.613 STDERR [INFO] I0714 23:35:22.613205  5918 net.cpp:399] inception_5b/pool -> inception_5b/pool
2016-07-14 23:35:22.614 STDERR [INFO] I0714 23:35:22.613271  5918 net.cpp:141] Setting up inception_5b/pool
2016-07-14 23:35:22.614 STDERR [INFO] I0714 23:35:22.613281  5918 net.cpp:148] Top shape: 10 832 7 7 (407680)
2016-07-14 23:35:22.614 STDERR [INFO] I0714 23:35:22.613284  5918 net.cpp:156] Memory required for data: 548862720
2016-07-14 23:35:22.614 STDERR [INFO] I0714 23:35:22.613289  5918 layer_factory.hpp:77] Creating layer inception_5b/pool_proj
2016-07-14 23:35:22.614 STDERR [INFO] I0714 23:35:22.613303  5918 net.cpp:91] Creating Layer inception_5b/pool_proj
2016-07-14 23:35:22.614 STDERR [INFO] I0714 23:35:22.613309  5918 net.cpp:425] inception_5b/pool_proj <- inception_5b/pool
2016-07-14 23:35:22.614 STDERR [INFO] I0714 23:35:22.613320  5918 net.cpp:399] inception_5b/pool_proj -> inception_5b/pool_proj
2016-07-14 23:35:22.617 STDERR [INFO] I0714 23:35:22.616938  5922 net.cpp:141] Setting up inception_5b/5x5
2016-07-14 23:35:22.617 STDERR [INFO] I0714 23:35:22.616968  5922 net.cpp:148] Top shape: 10 128 7 7 (62720)
2016-07-14 23:35:22.617 STDERR [INFO] I0714 23:35:22.616974  5922 net.cpp:156] Memory required for data: 546981120
2016-07-14 23:35:22.617 STDERR [INFO] I0714 23:35:22.616983  5922 layer_factory.hpp:77] Creating layer inception_5b/relu_5x5
2016-07-14 23:35:22.617 STDERR [INFO] I0714 23:35:22.616996  5922 net.cpp:91] Creating Layer inception_5b/relu_5x5
2016-07-14 23:35:22.617 STDERR [INFO] I0714 23:35:22.617002  5922 net.cpp:425] inception_5b/relu_5x5 <- inception_5b/5x5
2016-07-14 23:35:22.617 STDERR [INFO] I0714 23:35:22.617009  5922 net.cpp:386] inception_5b/relu_5x5 -> inception_5b/5x5 (in-place)
2016-07-14 23:35:22.618 STDERR [INFO] I0714 23:35:22.618129  5922 net.cpp:141] Setting up inception_5b/relu_5x5
2016-07-14 23:35:22.618 STDERR [INFO] I0714 23:35:22.618142  5922 net.cpp:148] Top shape: 10 128 7 7 (62720)
2016-07-14 23:35:22.618 STDERR [INFO] I0714 23:35:22.618160  5922 net.cpp:156] Memory required for data: 547232000
2016-07-14 23:35:22.618 STDERR [INFO] I0714 23:35:22.618165  5922 layer_factory.hpp:77] Creating layer inception_5b/pool
2016-07-14 23:35:22.618 STDERR [INFO] I0714 23:35:22.618178  5922 net.cpp:91] Creating Layer inception_5b/pool
2016-07-14 23:35:22.618 STDERR [INFO] I0714 23:35:22.618185  5922 net.cpp:425] inception_5b/pool <- inception_5a/output_inception_5a/output_0_split_3
2016-07-14 23:35:22.618 STDERR [INFO] I0714 23:35:22.618194  5922 net.cpp:399] inception_5b/pool -> inception_5b/pool
2016-07-14 23:35:22.618 STDERR [INFO] I0714 23:35:22.618366  5918 net.cpp:141] Setting up inception_5b/pool_proj
2016-07-14 23:35:22.618 STDERR [INFO] I0714 23:35:22.618377  5922 net.cpp:141] Setting up inception_5b/pool
2016-07-14 23:35:22.618 STDERR [INFO] I0714 23:35:22.618386  5918 net.cpp:148] Top shape: 10 128 7 7 (62720)
2016-07-14 23:35:22.618 STDERR [INFO] I0714 23:35:22.618387  5922 net.cpp:148] Top shape: 10 832 7 7 (407680)
2016-07-14 23:35:22.618 STDERR [INFO] I0714 23:35:22.618391  5918 net.cpp:156] Memory required for data: 549113600
2016-07-14 23:35:22.618 STDERR [INFO] I0714 23:35:22.618391  5922 net.cpp:156] Memory required for data: 548862720
2016-07-14 23:35:22.618 STDERR [INFO] I0714 23:35:22.618396  5922 layer_factory.hpp:77] Creating layer inception_5b/pool_proj
2016-07-14 23:35:22.618 STDERR [INFO] I0714 23:35:22.618401  5918 layer_factory.hpp:77] Creating layer inception_5b/relu_pool_proj
2016-07-14 23:35:22.618 STDERR [INFO] I0714 23:35:22.618408  5918 net.cpp:91] Creating Layer inception_5b/relu_pool_proj
2016-07-14 23:35:22.618 STDERR [INFO] I0714 23:35:22.618412  5922 net.cpp:91] Creating Layer inception_5b/pool_proj
2016-07-14 23:35:22.618 STDERR [INFO] I0714 23:35:22.618414  5918 net.cpp:425] inception_5b/relu_pool_proj <- inception_5b/pool_proj
2016-07-14 23:35:22.618 STDERR [INFO] I0714 23:35:22.618418  5922 net.cpp:425] inception_5b/pool_proj <- inception_5b/pool
2016-07-14 23:35:22.618 STDERR [INFO] I0714 23:35:22.618422  5918 net.cpp:386] inception_5b/relu_pool_proj -> inception_5b/pool_proj (in-place)
2016-07-14 23:35:22.618 STDERR [INFO] I0714 23:35:22.618429  5922 net.cpp:399] inception_5b/pool_proj -> inception_5b/pool_proj
2016-07-14 23:35:22.620 STDERR [INFO] I0714 23:35:22.619978  5918 net.cpp:141] Setting up inception_5b/relu_pool_proj
2016-07-14 23:35:22.620 STDERR [INFO] I0714 23:35:22.620007  5918 net.cpp:148] Top shape: 10 128 7 7 (62720)
2016-07-14 23:35:22.620 STDERR [INFO] I0714 23:35:22.620012  5918 net.cpp:156] Memory required for data: 549364480
2016-07-14 23:35:22.620 STDERR [INFO] I0714 23:35:22.620017  5918 layer_factory.hpp:77] Creating layer inception_5b/output
2016-07-14 23:35:22.620 STDERR [INFO] I0714 23:35:22.620025  5918 net.cpp:91] Creating Layer inception_5b/output
2016-07-14 23:35:22.620 STDERR [INFO] I0714 23:35:22.620030  5918 net.cpp:425] inception_5b/output <- inception_5b/1x1
2016-07-14 23:35:22.620 STDERR [INFO] I0714 23:35:22.620036  5918 net.cpp:425] inception_5b/output <- inception_5b/3x3
2016-07-14 23:35:22.620 STDERR [INFO] I0714 23:35:22.620043  5918 net.cpp:425] inception_5b/output <- inception_5b/5x5
2016-07-14 23:35:22.620 STDERR [INFO] I0714 23:35:22.620048  5918 net.cpp:425] inception_5b/output <- inception_5b/pool_proj
2016-07-14 23:35:22.620 STDERR [INFO] I0714 23:35:22.620055  5918 net.cpp:399] inception_5b/output -> inception_5b/output
2016-07-14 23:35:22.620 STDERR [INFO] I0714 23:35:22.620095  5918 net.cpp:141] Setting up inception_5b/output
2016-07-14 23:35:22.620 STDERR [INFO] I0714 23:35:22.620107  5918 net.cpp:148] Top shape: 10 1024 7 7 (501760)
2016-07-14 23:35:22.620 STDERR [INFO] I0714 23:35:22.620111  5918 net.cpp:156] Memory required for data: 551371520
2016-07-14 23:35:22.620 STDERR [INFO] I0714 23:35:22.620115  5918 layer_factory.hpp:77] Creating layer pool5/7x7_s1
2016-07-14 23:35:22.620 STDERR [INFO] I0714 23:35:22.620123  5918 net.cpp:91] Creating Layer pool5/7x7_s1
2016-07-14 23:35:22.620 STDERR [INFO] I0714 23:35:22.620128  5918 net.cpp:425] pool5/7x7_s1 <- inception_5b/output
2016-07-14 23:35:22.620 STDERR [INFO] I0714 23:35:22.620134  5918 net.cpp:399] pool5/7x7_s1 -> pool5/7x7_s1
2016-07-14 23:35:22.621 STDERR [INFO] I0714 23:35:22.621893  5918 net.cpp:141] Setting up pool5/7x7_s1
2016-07-14 23:35:22.622 STDERR [INFO] I0714 23:35:22.621920  5918 net.cpp:148] Top shape: 10 1024 1 1 (10240)
2016-07-14 23:35:22.622 STDERR [INFO] I0714 23:35:22.621925  5918 net.cpp:156] Memory required for data: 551412480
2016-07-14 23:35:22.622 STDERR [INFO] I0714 23:35:22.621930  5918 layer_factory.hpp:77] Creating layer pool5/drop_7x7_s1
2016-07-14 23:35:22.622 STDERR [INFO] I0714 23:35:22.621951  5918 net.cpp:91] Creating Layer pool5/drop_7x7_s1
2016-07-14 23:35:22.622 STDERR [INFO] I0714 23:35:22.621958  5918 net.cpp:425] pool5/drop_7x7_s1 <- pool5/7x7_s1
2016-07-14 23:35:22.622 STDERR [INFO] I0714 23:35:22.621963  5918 net.cpp:386] pool5/drop_7x7_s1 -> pool5/7x7_s1 (in-place)
2016-07-14 23:35:22.622 STDERR [INFO] I0714 23:35:22.622143  5918 net.cpp:141] Setting up pool5/drop_7x7_s1
2016-07-14 23:35:22.622 STDERR [INFO] I0714 23:35:22.622153  5918 net.cpp:148] Top shape: 10 1024 1 1 (10240)
2016-07-14 23:35:22.622 STDERR [INFO] I0714 23:35:22.622156  5918 net.cpp:156] Memory required for data: 551453440
2016-07-14 23:35:22.622 STDERR [INFO] I0714 23:35:22.622161  5918 layer_factory.hpp:77] Creating layer loss3/classifier
2016-07-14 23:35:22.622 STDERR [INFO] I0714 23:35:22.622181  5918 net.cpp:91] Creating Layer loss3/classifier
2016-07-14 23:35:22.622 STDERR [INFO] I0714 23:35:22.622187  5918 net.cpp:425] loss3/classifier <- pool5/7x7_s1
2016-07-14 23:35:22.622 STDERR [INFO] I0714 23:35:22.622195  5918 net.cpp:399] loss3/classifier -> loss3/classifier
2016-07-14 23:35:22.625 STDERR [INFO] I0714 23:35:22.625820  5922 net.cpp:141] Setting up inception_5b/pool_proj
2016-07-14 23:35:22.626 STDERR [INFO] I0714 23:35:22.625854  5922 net.cpp:148] Top shape: 10 128 7 7 (62720)
2016-07-14 23:35:22.626 STDERR [INFO] I0714 23:35:22.625859  5922 net.cpp:156] Memory required for data: 549113600
2016-07-14 23:35:22.626 STDERR [INFO] I0714 23:35:22.625869  5922 layer_factory.hpp:77] Creating layer inception_5b/relu_pool_proj
2016-07-14 23:35:22.626 STDERR [INFO] I0714 23:35:22.625890  5922 net.cpp:91] Creating Layer inception_5b/relu_pool_proj
2016-07-14 23:35:22.626 STDERR [INFO] I0714 23:35:22.625896  5922 net.cpp:425] inception_5b/relu_pool_proj <- inception_5b/pool_proj
2016-07-14 23:35:22.626 STDERR [INFO] I0714 23:35:22.625903  5922 net.cpp:386] inception_5b/relu_pool_proj -> inception_5b/pool_proj (in-place)
2016-07-14 23:35:22.626 STDERR [INFO] I0714 23:35:22.626193  5922 net.cpp:141] Setting up inception_5b/relu_pool_proj
2016-07-14 23:35:22.626 STDERR [INFO] I0714 23:35:22.626204  5922 net.cpp:148] Top shape: 10 128 7 7 (62720)
2016-07-14 23:35:22.626 STDERR [INFO] I0714 23:35:22.626209  5922 net.cpp:156] Memory required for data: 549364480
2016-07-14 23:35:22.626 STDERR [INFO] I0714 23:35:22.626214  5922 layer_factory.hpp:77] Creating layer inception_5b/output
2016-07-14 23:35:22.626 STDERR [INFO] I0714 23:35:22.626225  5922 net.cpp:91] Creating Layer inception_5b/output
2016-07-14 23:35:22.626 STDERR [INFO] I0714 23:35:22.626231  5922 net.cpp:425] inception_5b/output <- inception_5b/1x1
2016-07-14 23:35:22.626 STDERR [INFO] I0714 23:35:22.626237  5922 net.cpp:425] inception_5b/output <- inception_5b/3x3
2016-07-14 23:35:22.626 STDERR [INFO] I0714 23:35:22.626243  5922 net.cpp:425] inception_5b/output <- inception_5b/5x5
2016-07-14 23:35:22.626 STDERR [INFO] I0714 23:35:22.626248  5922 net.cpp:425] inception_5b/output <- inception_5b/pool_proj
2016-07-14 23:35:22.626 STDERR [INFO] I0714 23:35:22.626255  5922 net.cpp:399] inception_5b/output -> inception_5b/output
2016-07-14 23:35:22.626 STDERR [INFO] I0714 23:35:22.626293  5922 net.cpp:141] Setting up inception_5b/output
2016-07-14 23:35:22.626 STDERR [INFO] I0714 23:35:22.626302  5922 net.cpp:148] Top shape: 10 1024 7 7 (501760)
2016-07-14 23:35:22.626 STDERR [INFO] I0714 23:35:22.626307  5922 net.cpp:156] Memory required for data: 551371520
2016-07-14 23:35:22.626 STDERR [INFO] I0714 23:35:22.626312  5922 layer_factory.hpp:77] Creating layer pool5/7x7_s1
2016-07-14 23:35:22.626 STDERR [INFO] I0714 23:35:22.626323  5922 net.cpp:91] Creating Layer pool5/7x7_s1
2016-07-14 23:35:22.626 STDERR [INFO] I0714 23:35:22.626328  5922 net.cpp:425] pool5/7x7_s1 <- inception_5b/output
2016-07-14 23:35:22.626 STDERR [INFO] I0714 23:35:22.626335  5922 net.cpp:399] pool5/7x7_s1 -> pool5/7x7_s1
2016-07-14 23:35:22.627 STDERR [INFO] I0714 23:35:22.627200  5922 net.cpp:141] Setting up pool5/7x7_s1
2016-07-14 23:35:22.627 STDERR [INFO] I0714 23:35:22.627231  5922 net.cpp:148] Top shape: 10 1024 1 1 (10240)
2016-07-14 23:35:22.627 STDERR [INFO] I0714 23:35:22.627236  5922 net.cpp:156] Memory required for data: 551412480
2016-07-14 23:35:22.627 STDERR [INFO] I0714 23:35:22.627241  5922 layer_factory.hpp:77] Creating layer pool5/drop_7x7_s1
2016-07-14 23:35:22.627 STDERR [INFO] I0714 23:35:22.627250  5922 net.cpp:91] Creating Layer pool5/drop_7x7_s1
2016-07-14 23:35:22.627 STDERR [INFO] I0714 23:35:22.627255  5922 net.cpp:425] pool5/drop_7x7_s1 <- pool5/7x7_s1
2016-07-14 23:35:22.627 STDERR [INFO] I0714 23:35:22.627261  5922 net.cpp:386] pool5/drop_7x7_s1 -> pool5/7x7_s1 (in-place)
2016-07-14 23:35:22.627 STDERR [INFO] I0714 23:35:22.627298  5922 net.cpp:141] Setting up pool5/drop_7x7_s1
2016-07-14 23:35:22.627 STDERR [INFO] I0714 23:35:22.627307  5922 net.cpp:148] Top shape: 10 1024 1 1 (10240)
2016-07-14 23:35:22.627 STDERR [INFO] I0714 23:35:22.627311  5922 net.cpp:156] Memory required for data: 551453440
2016-07-14 23:35:22.627 STDERR [INFO] I0714 23:35:22.627315  5922 layer_factory.hpp:77] Creating layer loss3/classifier
2016-07-14 23:35:22.627 STDERR [INFO] I0714 23:35:22.627328  5922 net.cpp:91] Creating Layer loss3/classifier
2016-07-14 23:35:22.627 STDERR [INFO] I0714 23:35:22.627333  5922 net.cpp:425] loss3/classifier <- pool5/7x7_s1
2016-07-14 23:35:22.627 STDERR [INFO] I0714 23:35:22.627341  5922 net.cpp:399] loss3/classifier -> loss3/classifier
2016-07-14 23:35:22.632 STDERR [INFO] I0714 23:35:22.632421  5918 net.cpp:141] Setting up loss3/classifier
2016-07-14 23:35:22.632 STDERR [INFO] I0714 23:35:22.632457  5918 net.cpp:148] Top shape: 10 1000 (10000)
2016-07-14 23:35:22.632 STDERR [INFO] I0714 23:35:22.632462  5918 net.cpp:156] Memory required for data: 551493440
2016-07-14 23:35:22.632 STDERR [INFO] I0714 23:35:22.632472  5918 layer_factory.hpp:77] Creating layer prob
2016-07-14 23:35:22.632 STDERR [INFO] I0714 23:35:22.632482  5918 net.cpp:91] Creating Layer prob
2016-07-14 23:35:22.632 STDERR [INFO] I0714 23:35:22.632488  5918 net.cpp:425] prob <- loss3/classifier
2016-07-14 23:35:22.632 STDERR [INFO] I0714 23:35:22.632495  5918 net.cpp:399] prob -> prob
2016-07-14 23:35:22.632 STDERR [INFO] I0714 23:35:22.632920  5918 net.cpp:141] Setting up prob
2016-07-14 23:35:22.632 STDERR [INFO] I0714 23:35:22.632933  5918 net.cpp:148] Top shape: 10 1000 (10000)
2016-07-14 23:35:22.633 STDERR [INFO] I0714 23:35:22.632938  5918 net.cpp:156] Memory required for data: 551533440
2016-07-14 23:35:22.633 STDERR [INFO] I0714 23:35:22.632943  5918 net.cpp:219] prob does not need backward computation.
2016-07-14 23:35:22.633 STDERR [INFO] I0714 23:35:22.632948  5918 net.cpp:219] loss3/classifier does not need backward computation.
2016-07-14 23:35:22.633 STDERR [INFO] I0714 23:35:22.632956  5918 net.cpp:219] pool5/drop_7x7_s1 does not need backward computation.
…
