…
Java HotSpot(TM) 64-Bit Server VM warning: You have loaded library /tmp/cvld3497811192941153435/libopencv_java310.xine1.so which might have disabled stack guard. The VM will try to fix the stack guard now.
It's highly recommended that you fix the library with 'execstack -c <libfile>', or link it with '-z noexecstack'.
WARNING: Logging before InitGoogleLogging() is written to STDERR
I0714 23:35:21.416667  5918 net.cpp:49] Initializing net from parameters: 
name: "GoogleNet"
state {
  phase: TEST
}
layer {
  name: "data"
  type: "Input"
  top: "data"
  input_param {
    shape {
      dim: 10
      dim: 3
      dim: 224
      dim: 224
    }
  }
}
layer {
  name: "conv1/7x7_s2"
  type: "Convolution"
  bottom: "data"
  top: "conv1/7x7_s2"
  param {
    lr_mult: 1
    decay_mult: 1
  }
  param {
    lr_mult: 2
    decay_mult: 0
  }
  convolution_param {
    num_output: 64
    pad: 3
    kernel_size: 7
    stride: 2
    weight_filler {
      type: "xavier"
      std: 0.1
    }
    bias_filler {
      type: "constant"
      value: 0.2
    }
  }
}
layer {
  name: "conv1/relu_7x7"
  type: "ReLU"
  bottom: "conv1/7x7_s2"
  top: "conv1/7x7_s2"
}
layer {
  name: "pool1/3x3_s2"
  type: "Pooling"
  bottom: "conv1/7x7_s2"
  top: "pool1/3x3_s2"
  pooling_param {
    pool: MAX
    kernel_size: 3
    stride: 2
  }
}
layer {
  name: "pool1/norm1"
  type: "LRN"
  bottom: "pool1/3x3_s2"
  top: "pool1/norm1"
  lrn_param {
    local_size: 5
    alpha: 0.0001
    beta: 0.75
  }
}
layer {
  name: "conv2/3x3_reduce"
  type: "Convolution"
  bottom: "pool1/norm1"
  top: "conv2/3x3_reduce"
  param {
    lr_mult: 1
    decay_mult: 1
  }
  param {
    lr_mult: 2
    decay_mult: 0
  }
  convolution_param {
    num_output: 64
    kernel_size: 1
    weight_filler {
      type: "xavier"
      std: 0.1
    }
    bias_filler {
      type: "constant"
      value: 0.2
    }
  }
}
layer {
  name: "conv2/relu_3x3_reduce"
  type: "ReLU"
  bottom: "conv2/3x3_reduce"
  top: "conv2/3x3_reduce"
}
layer {
  name: "conv2/3x3"
  type: "Convolution"
  bottom: "conv2/3x3_reduce"
  top: "conv2/3x3"
  param {
    lr_mult: 1
    decay_mult: 1
  }
  param {
    lr_mult: 2
    decay_mult: 0
  }
  convolution_param {
    num_output: 192
    pad: 1
    kernel_size: 3
    weight_filler {
      type: "xavier"
      std: 0.03
    }
    bias_filler {
      type: "constant"
      value: 0.2
    }
  }
}
layer {
  name: "conv2/relu_3x3"
  type: "ReLU"
  bottom: "conv2/3x3"
  top: "conv2/3x3"
}
layer {
  name: "conv2/norm2"
  type: "LRN"
  bottom: "conv2/3x3"
  top: "conv2/norm2"
  lrn_param {
    local_size: 5
    alpha: 0.0001
    beta: 0.75
  }
}
layer {
  name: "pool2/3x3_s2"
  type: "Pooling"
  bottom: "conv2/norm2"
  top: "pool2/3x3_s2"
  pooling_param {
    pool: MAX
    kernel_size: 3
    stride: 2
  }
}
layer {
  name: "inception_3a/1x1"
  type: "Convolution"
  bottom: "pool2/3x3_s2"
  top: "inception_3a/1x1"
  param {
    lr_mult: 1
    decay_mult: 1
  }
  param {
    lr_mult: 2
    decay_mult: 0
  }
  convolution_param {
    num_output: 64
    kernel_size: 1
    weight_filler {
      type: "xavier"
      std: 0.03
    }
    bias_filler {
      type: "constant"
      value: 0.2
    }
  }
}
layer {
  name: "inception_3a/relu_1x1"
  type: "ReLU"
  bottom: "inception_3a/1x1"
  top: "inception_3a/1x1"
}
layer {
  name: "inception_3a/3x3_reduce"
  type: "Convolution"
  bottom: "pool2/3x3_s2"
  top: "inception_3a/3x3_reduce"
  param {
    lr_mult: 1
    decay_mult: 1
  }
  param {
    lr_mult: 2
    decay_mult: 0
  }
  convolution_param {
    num_output: 96
    kernel_size: 1
    weight_filler {
      type: "xavier"
      std: 0.09
    }
    bias_filler {
      type: "constant"
      value: 0.2
    }
  }
}
layer {
  name: "inception_3a/relu_3x3_reduce"
  type: "ReLU"
  bottom: "inception_3a/3x3_reduce"
  top: "inception_3a/3x3_reduce"
}
layer {
  name: "inception_3a/3x3"
  type: "Convolution"
  bottom: "inception_3a/3x3_reduce"
  top: "inception_3a/3x3"
  param {
    lr_mult: 1
    decay_mult: 1
  }
  param {
    lr_mult: 2
    decay_mult: 0
  }
  convolution_param {
    num_output: 128
    pad: 1
    kernel_size: 3
    weight_filler {
      type: "xavier"
      std: 0.03
    }
    bias_filler {
      type: "constant"
      value: 0.2
    }
  }
}
layer {
  name: "inception_3a/relu_3x3"
  type: "ReLU"
  bottom: "inception_3a/3x3"
  top: "inception_3a/3x3"
}
layer {
  name: "inception_3a/5x5_reduce"
  type: "Convolution"
  bottom: "pool2/3x3_s2"
  top: "inception_3a/5x5_reduce"
  param {
    lr_mult: 1
    decay_mult: 1
  }
  param {
    lr_mult: 2
    decay_mult: 0
  }
  convolution_param {
    num_output: 16
    kernel_size: 1
    weight_filler {
      type: "xavier"
      std: 0.2
    }
    bias_filler {
      type: "constant"
      value: 0.2
    }
  }
}
layer {
  name: "inception_3a/relu_5x5_reduce"
  type: "ReLU"
  bottom: "inception_3a/5x5_reduce"
  top: "inception_3a/5x5_reduce"
}
layer {
  name: "inception_3a/5x5"
  type: "Convolution"
  bottom: "inception_3a/5x5_reduce"
  top: "inception_3a/5x5"
  param {
    lr_mult: 1
    decay_mult: 1
  }
  param {
    lr_mult: 2
    decay_mult: 0
  }
  convolution_param {
    num_output: 32
    pad: 2
    kernel_size: 5
    weight_filler {
      type: "xavier"
      std: 0.03
    }
    bias_filler {
      type: "constant"
      value: 0.2
    }
  }
}
layer {
  name: "inception_3a/relu_5x5"
  type: "ReLU"
  bottom: "inception_3a/5x5"
  top: "inception_3a/5x5"
}
layer {
  name: "inception_3a/pool"
  type: "Pooling"
  bottom: "pool2/3x3_s2"
  top: "inception_3a/pool"
  pooling_param {
    pool: MAX
    kernel_size: 3
    stride: 1
    pad: 1
  }
}
layer {
  name: "inception_3a/pool_proj"
  type: "Convolution"
  bottom: "inception_3a/pool"
  top: "inception_3a/pool_proj"
  param {
    lr_mult: 1
    decay_mult: 1
  }
  param {
    lr_mult: 2
    decay_mult: 0
  }
  convolution_param {
    num_output: 32
    kernel_size: 1
    weight_filler {
      type: "xavier"
      std: 0.1
    }
    bias_filler {
      type: "constant"
      value: 0.2
    }
  }
}
layer {
  name: "inception_3a/relu_pool_proj"
  type: "ReLU"
  bottom: "inception_3a/pool_proj"
  top: "inception_3a/pool_proj"
}
layer {
  name: "inception_3a/output"
  type: "Concat"
  bottom: "inception_3a/1x1"
  bottom: "inception_3a/3x3"
  bottom: "inception_3a/5x5"
  bottom: "inception_3a/pool_proj"
  top: "inception_3a/output"
}
layer {
  name: "inception_3b/1x1"
  type: "Convolution"
  bottom: "inception_3a/output"
  top: "inception_3b/1x1"
  param {
    lr_mult: 1
    decay_mult: 1
  }
  param {
    lr_mult: 2
    decay_mult: 0
  }
  convolution_param {
    num_output: 128
    kernel_size: 1
    weight_filler {
      type: "xavier"
      std: 0.03
    }
    bias_filler {
      type: "constant"
      value: 0.2
    }
  }
}
layer {
  name: "inception_3b/relu_1x1"
  type: "ReLU"
  bottom: "inception_3b/1x1"
  top: "inception_3b/1x1"
}
layer {
  name: "inception_3b/3x3_reduce"
  type: "Convolution"
  bottom: "inception_3a/output"
  top: "inception_3b/3x3_reduce"
  param {
    lr_mult: 1
    decay_mult: 1
  }
  param {
    lr_mult: 2
    decay_mult: 0
  }
  convolution_param {
    num_output: 128
    kernel_size: 1
    weight_filler {
      type: "xavier"
      std: 0.09
    }
    bias_filler {
      type: "constant"
      value: 0.2
    }
  }
}
layer {
  name: "inception_3b/relu_3x3_reduce"
  type: "ReLU"
  bottom: "inception_3b/3x3_reduce"
  top: "inception_3b/3x3_reduce"
}
layer {
  name: "inception_3b/3x3"
  type: "Convolution"
  bottom: "inception_3b/3x3_reduce"
  top: "inception_3b/3x3"
  param {
    lr_mult: 1
    decay_mult: 1
  }
  param {
    lr_mult: 2
    decay_mult: 0
  }
  convolution_param {
    num_output: 192
    pad: 1
    kernel_size: 3
    weight_filler {
      type: "xavier"
      std: 0.03
    }
    bias_filler {
      type: "constant"
      value: 0.2
    }
  }
}
layer {
  name: "inception_3b/relu_3x3"
  type: "ReLU"
  bottom: "inception_3b/3x3"
  top: "inception_3b/3x3"
}
layer {
  name: "inception_3b/5x5_reduce"
  type: "Convolution"
  bottom: "inception_3a/output"
  top: "inception_3b/5x5_reduce"
  param {
    lr_mult: 1
    decay_mult: 1
  }
  param {
    lr_mult: 2
    decay_mult: 0
  }
  convolution_param {
    num_output: 32
    kernel_size: 1
    weight_filler {
      type: "xavier"
      std: 0.2
    }
    bias_filler {
      type: "constant"
      value: 0.2
    }
  }
}
layer {
  name: "inception_3b/relu_5x5_reduce"
  type: "ReLU"
  bottom: "inception_3b/5x5_reduce"
  top: "inception_3b/5x5_reduce"
}
layer {
  name: "inception_3b/5x5"
  type: "Convolution"
  bottom: "inception_3b/5x5_reduce"
  top: "inception_3b/5x5"
  param {
    lr_mult: 1
    decay_mult: 1
  }
  param {
    lr_mult: 2
    decay_mult: 0
  }
  convolution_param {
    num_output: 96
    pad: 2
    kernel_size: 5
    weight_filler {
      type: "xavier"
      std: 0.03
    }
    bias_filler {
      type: "constant"
      value: 0.2
    }
  }
}
layer {
  name: "inception_3b/relu_5x5"
  type: "ReLU"
  bottom: "inception_3b/5x5"
  top: "inception_3b/5x5"
}
layer {
  name: "inception_3b/pool"
  type: "Pooling"
  bottom: "inception_3a/output"
  top: "inception_3b/pool"
  pooling_param {
    pool: MAX
    kernel_size: 3
    stride: 1
    pad: 1
  }
}
layer {
  name: "inception_3b/pool_proj"
  type: "Convolution"
  bottom: "inception_3b/pool"
  top: "inception_3b/pool_proj"
  param {
    lr_mult: 1
    decay_mult: 1
  }
  param {
    lr_mult: 2
    decay_mult: 0
  }
  convolution_param {
    num_output: 64
    kernel_size: 1
    weight_filler {
      type: "xavier"
      std: 0.1
    }
    bias_filler {
      type: "constant"
      value: 0.2
    }
  }
}
layer {
  name: "inception_3b/relu_pool_proj"
  type: "ReLU"
  bottom: "inception_3b/pool_proj"
  top: "inception_3b/pool_proj"
}
layer {
  name: "inception_3b/output"
  type: "Concat"
  bottom: "inception_3b/1x1"
  bottom: "inception_3b/3x3"
  bottom: "inception_3b/5x5"
  bottom: "inception_3b/pool_proj"
  top: "inception_3b/output"
}
layer {
  name: "pool3/3x3_s2"
  type: "Pooling"
  bottom: "inception_3b/output"
  top: "pool3/3x3_s2"
  pooling_param {
    pool: MAX
    kernel_size: 3
    stride: 2
  }
}
layer {
  name: "inception_4a/1x1"
  type: "Convolution"
  bottom: "pool3/3x3_s2"
  top: "inception_4a/1x1"
  param {
    lr_mult: 1
    decay_mult: 1
  }
  param {
    lr_mult: 2
    decay_mult: 0
  }
  convolution_param {
    num_output: 192
    kernel_size: 1
    weight_filler {
      type: "xavier"
      std: 0.03
    }
    bias_filler {
      type: "constant"
      value: 0.2
    }
  }
}
layer {
  name: "inception_4a/relu_1x1"
  type: "ReLU"
  bottom: "inception_4a/1x1"
  top: "inception_4a/1x1"
}
layer {
  name: "inception_4a/3x3_reduce"
  type: "Convolution"
  bottom: "pool3/3x3_s2"
  top: "inception_4a/3x3_reduce"
  param {
    lr_mult: 1
    decay_mult: 1
  }
  param {
    lr_mult: 2
    decay_mult: 0
  }
  convolution_param {
    num_output: 96
    kernel_size: 1
    weight_filler {
      type: "xavier"
      std: 0.09
    }
    bias_filler {
      type: "constant"
      value: 0.2
    }
  }
}
layer {
  name: "inception_4a/relu_3x3_reduce"
  type: "ReLU"
  bottom: "inception_4a/3x3_reduce"
  top: "inception_4a/3x3_reduce"
}
layer {
  name: "inception_4a/3x3"
  type: "Convolution"
  bottom: "inception_4a/3x3_reduce"
  top: "inception_4a/3x3"
  param {
    lr_mult: 1
    decay_mult: 1
  }
  param {
    lr_mult: 2
    decay_mult: 0
  }
  convolution_param {
    num_output: 208
    pad: 1
    kernel_size: 3
    weight_filler {
      type: "xavier"
      std: 0.03
    }
    bias_filler {
      type: "constant"
      value: 0.2
    }
  }
}
layer {
  name: "inception_4a/relu_3x3"
  type: "ReLU"
  bottom: "inception_4a/3x3"
  top: "inception_4a/3x3"
}
layer {
  name: "inception_4a/5x5_reduce"
  type: "Convolution"
  bottom: "pool3/3x3_s2"
  top: "inception_4a/5x5_reduce"
  param {
    lr_mult: 1
    decay_mult: 1
  }
  param {
    lr_mult: 2
    decay_mult: 0
  }
  convolution_param {
    num_output: 16
    kernel_size: 1
    weight_filler {
      type: "xavier"
      std: 0.2
    }
    bias_filler {
      type: "constant"
      value: 0.2
    }
  }
}
layer {
  name: "inception_4a/relu_5x5_reduce"
  type: "ReLU"
  bottom: "inception_4a/5x5_reduce"
  top: "inception_4a/5x5_reduce"
}
layer {
  name: "inception_4a/5x5"
  type: "Convolution"
  bottom: "inception_4a/5x5_reduce"
  top: "inception_4a/5x5"
  param {
    lr_mult: 1
    decay_mult: 1
  }
  param {
    lr_mult: 2
    decay_mult: 0
  }
  convolution_param {
    num_output: 48
    pad: 2
    kernel_size: 5
    weight_filler {
      type: "xavier"
      std: 0.03
    }
    bias_filler {
      type: "constant"
      value: 0.2
    }
  }
}
layer {
  name: "inception_4a/relu_5x5"
  type: "ReLU"
  bottom: "inception_4a/5x5"
  top: "inception_4a/5x5"
}
layer {
  name: "inception_4a/pool"
  type: "Pooling"
  bottom: "pool3/3x3_s2"
  top: "inception_4a/pool"
  pooling_param {
    pool: MAX
    kernel_size: 3
    stride: 1
    pad: 1
  }
}
layer {
  name: "inception_4a/pool_proj"
  type: "Convolution"
  bottom: "inception_4a/pool"
  top: "inception_4a/pool_proj"
  param {
    lr_mult: 1
    decay_mult: 1
  }
  param {
    lr_mult: 2
    decay_mult: 0
  }
  convolution_param {
    num_output: 64
    kernel_size: 1
    weight_filler {
      type: "xavier"
      std: 0.1
    }
    bias_filler {
      type: "constant"
      value: 0.2
    }
  }
}
layer {
  name: "inception_4a/relu_pool_proj"
  type: "ReLU"
  bottom: "inception_4a/pool_proj"
  top: "inception_4a/pool_proj"
}
layer {
  name: "inception_4a/output"
  type: "Concat"
  bottom: "inception_4a/1x1"
  bottom: "inception_4a/3x3"
  bottom: "inception_4a/5x5"
  bottom: "inception_4a/pool_proj"
  top: "inception_4a/output"
}
layer {
  name: "inception_4b/1x1"
  type: "Convolution"
  bottom: "inception_4a/output"
  top: "inception_4b/1x1"
  param {
    lr_mult: 1
    decay_mult: 1
  }
  param {
    lr_mult: 2
    decay_mult: 0
  }
  convolution_param {
    num_output: 160
    kernel_size: 1
    weight_filler {
      type: "xavier"
      std: 0.03
    }
    bias_filler {
      type: "constant"
      value: 0.2
    }
  }
}
layer {
  name: "inception_4b/relu_1x1"
  type: "ReLU"
  bottom: "inception_4b/1x1"
  top: "inception_4b/1x1"
}
layer {
  name: "inception_4b/3x3_reduce"
  type: "Convolution"
  bottom: "inception_4a/output"
  top: "inception_4b/3x3_reduce"
  param {
    lr_mult: 1
    decay_mult: 1
  }
  param {
    lr_mult: 2
    decay_mult: 0
  }
  convolution_param {
    num_output: 112
    kernel_size: 1
    weight_filler {
      type: "xavier"
      std: 0.09
    }
    bias_filler {
      type: "constant"
      value: 0.2
    }
  }
}
layer {
  name: "inception_4b/relu_3x3_reduce"
  type: "ReLU"
  bottom: "inception_4b/3x3_reduce"
  top: "inception_4b/3x3_reduce"
}
layer {
  name: "inception_4b/3x3"
  type: "Convolution"
  bottom: "inception_4b/3x3_reduce"
  top: "inception_4b/3x3"
  param {
    lr_mult: 1
    decay_mult: 1
  }
  param {
    lr_mult: 2
    decay_mult: 0
  }
  convolution_param {
    num_output: 224
    pad: 1
    kernel_size: 3
    weight_filler {
      type: "xavier"
      std: 0.03
    }
    bias_filler {
      type: "constant"
      value: 0.2
    }
  }
}
layer {
  name: "inception_4b/relu_3x3"
  type: "ReLU"
  bottom: "inception_4b/3x3"
  top: "inception_4b/3x3"
}
layer {
  name: "inception_4b/5x5_reduce"
  type: "Convolution"
  bottom: "inception_4a/output"
  top: "inception_4b/5x5_reduce"
  param {
    lr_mult: 1
    decay_mult: 1
  }
  param {
    lr_mult: 2
    decay_mult: 0
  }
  convolution_param {
    num_output: 24
    kernel_size: 1
    weight_filler {
      type: "xavier"
      std: 0.2
    }
    bias_filler {
      type: "constant"
      value: 0.2
    }
  }
}
layer {
  name: "inception_4b/relu_5x5_reduce"
  type: "ReLU"
  bottom: "inception_4b/5x5_reduce"
  top: "inception_4b/5x5_reduce"
}
layer {
  name: "inception_4b/5x5"
  type: "Convolution"
  bottom: "inception_4b/5x5_reduce"
  top: "inception_4b/5x5"
  param {
    lr_mult: 1
    decay_mult: 1
  }
  param {
    lr_mult: 2
    decay_mult: 0
  }
  convolution_param {
    num_output: 64
    pad: 2
    kernel_size: 5
    weight_filler {
      type: "xavier"
      std: 0.03
    }
    bias_filler {
      type: "constant"
      value: 0.2
    }
  }
}
layer {
  name: "inception_4b/relu_5x5"
  type: "ReLU"
  bottom: "inception_4b/5x5"
  top: "inception_4b/5x5"
}
layer {
  name: "inception_4b/pool"
  type: "Pooling"
  bottom: "inception_4a/output"
  top: "inception_4b/pool"
  pooling_param {
    pool: MAX
    kernel_size: 3
    stride: 1
    pad: 1
  }
}
layer {
  name: "inception_4b/pool_proj"
  type: "Convolution"
  bottom: "inception_4b/pool"
  top: "inception_4b/pool_proj"
  param {
    lr_mult: 1
    decay_mult: 1
  }
  param {
    lr_mult: 2
    decay_mult: 0
  }
  convolution_param {
    num_output: 64
    kernel_size: 1
    weight_filler {
      type: "xavier"
      std: 0.1
    }
    bias_filler {
      type: "constant"
      value: 0.2
    }
  }
}
layer {
  name: "inception_4b/relu_pool_proj"
  type: "ReLU"
  bottom: "inception_4b/pool_proj"
  top: "inception_4b/pool_proj"
}
layer {
  name: "inception_4b/output"
  type: "Concat"
  bottom: "inception_4b/1x1"
  bottom: "inception_4b/3x3"
  bottom: "inception_4b/5x5"
  bottom: "inception_4b/pool_proj"
  top: "inception_4b/output"
}
layer {
  name: "inception_4c/1x1"
  type: "Convolution"
  bottom: "inception_4b/output"
  top: "inception_4c/1x1"
  param {
    lr_mult: 1
    decay_mult: 1
  }
  param {
    lr_mult: 2
    decay_mult: 0
  }
  convolution_param {
    num_output: 128
    kernel_size: 1
    weight_filler {
      type: "xavier"
      std: 0.03
    }
    bias_filler {
      type: "constant"
      value: 0.2
    }
  }
}
layer {
  name: "inception_4c/relu_1x1"
  type: "ReLU"
  bottom: "inception_4c/1x1"
  top: "inception_4c/1x1"
}
layer {
  name: "inception_4c/3x3_reduce"
  type: "Convolution"
  bottom: "inception_4b/output"
  top: "inception_4c/3x3_reduce"
  param {
    lr_mult: 1
    decay_mult: 1
  }
  param {
    lr_mult: 2
    decay_mult: 0
  }
  convolution_param {
    num_output: 128
    kernel_size: 1
    weight_filler {
      type: "xavier"
      std: 0.09
    }
    bias_filler {
      type: "constant"
      value: 0.2
    }
  }
}
layer {
  name: "inception_4c/relu_3x3_reduce"
  type: "ReLU"
  bottom: "inception_4c/3x3_reduce"
  top: "inception_4c/3x3_reduce"
}
layer {
  name: "inception_4c/3x3"
  type: "Convolution"
  bottom: "inception_4c/3x3_reduce"
  top: "inception_4c/3x3"
  param {
    lr_mult: 1
    decay_mult: 1
  }
  param {
    lr_mult: 2
    decay_mult: 0
  }
  convolution_param {
    num_output: 256
    pad: 1
    kernel_size: 3
    weight_filler {
      type: "xavier"
      std: 0.03
    }
    bias_filler {
      type: "constant"
      value: 0.2
    }
  }
}
layer {
  name: "inception_4c/relu_3x3"
  type: "ReLU"
  bottom: "inception_4c/3x3"
  top: "inception_4c/3x3"
}
layer {
  name: "inception_4c/5x5_reduce"
  type: "Convolution"
  bottom: "inception_4b/output"
  top: "inception_4c/5x5_reduce"
  param {
    lr_mult: 1
    decay_mult: 1
  }
  param {
    lr_mult: 2
    decay_mult: 0
  }
  convolution_param {
    num_output: 24
    kernel_size: 1
    weight_filler {
      type: "xavier"
      std: 0.2
    }
    bias_filler {
      type: "constant"
      value: 0.2
    }
  }
}
layer {
  name: "inception_4c/relu_5x5_reduce"
  type: "ReLU"
  bottom: "inception_4c/5x5_reduce"
  top: "inception_4c/5x5_reduce"
}
layer {
  name: "inception_4c/5x5"
  type: "Convolution"
  bottom: "inception_4c/5x5_reduce"
  top: "inception_4c/5x5"
  param {
    lr_mult: 1
    decay_mult: 1
  }
  param {
    lr_mult: 2
    decay_mult: 0
  }
  convolution_param {
    num_output: 64
    pad: 2
    kernel_size: 5
    weight_filler {
      type: "xavier"
      std: 0.03
    }
    bias_filler {
      type: "constant"
      value: 0.2
    }
  }
}
layer {
  name: "inception_4c/relu_5x5"
  type: "ReLU"
  bottom: "inception_4c/5x5"
  top: "inception_4c/5x5"
}
layer {
  name: "inception_4c/pool"
  type: "Pooling"
  bottom: "inception_4b/output"
  top: "inception_4c/pool"
  pooling_param {
    pool: MAX
    kernel_size: 3
    stride: 1
    pad: 1
  }
}
layer {
  name: "inception_4c/pool_proj"
  type: "Convolution"
  bottom: "inception_4c/pool"
  top: "inception_4c/pool_proj"
  param {
    lr_mult: 1
    decay_mult: 1
  }
  param {
    lr_mult: 2
    decay_mult: 0
  }
  convolution_param {
    num_output: 64
    kernel_size: 1
    weight_filler {
      type: "xavier"
      std: 0.1
    }
    bias_filler {
      type: "constant"
      value: 0.2
    }
  }
}
layer {
  name: "inception_4c/relu_pool_proj"
  type: "ReLU"
  bottom: "inception_4c/pool_proj"
  top: "inception_4c/pool_proj"
}
layer {
  name: "inception_4c/output"
  type: "Concat"
  bottom: "inception_4c/1x1"
  bottom: "inception_4c/3x3"
  bottom: "inception_4c/5x5"
  bottom: "inception_4c/pool_proj"
  top: "inception_4c/output"
}
layer {
  name: "inception_4d/1x1"
  type: "Convolution"
  bottom: "inception_4c/output"
  top: "inception_4d/1x1"
  param {
    lr_mult: 1
    decay_mult: 1
  }
  param {
    lr_mult: 2
    decay_mult: 0
  }
  convolution_param {
    num_output: 112
    kernel_size: 1
    weight_filler {
      type: "xavier"
      std: 0.03
    }
    bias_filler {
      type: "constant"
      value: 0.2
    }
  }
}
layer {
  name: "inception_4d/relu_1x1"
  type: "ReLU"
  bottom: "inception_4d/1x1"
  top: "inception_4d/1x1"
}
layer {
  name: "inception_4d/3x3_reduce"
  type: "Convolution"
  bottom: "inception_4c/output"
  top: "inception_4d/3x3_reduce"
  param {
    lr_mult: 1
    decay_mult: 1
  }
  param {
    lr_mult: 2
    decay_mult: 0
  }
  convolution_param {
    num_output: 144
    kernel_size: 1
    weight_filler {
      type: "xavier"
      std: 0.09
    }
    bias_filler {
      type: "constant"
      value: 0.2
    }
  }
}
layer {
  name: "inception_4d/relu_3x3_reduce"
  type: "ReLU"
  bottom: "inception_4d/3x3_reduce"
  top: "inception_4d/3x3_reduce"
}
layer {
  name: "inception_4d/3x3"
  type: "Convolution"
  bottom: "inception_4d/3x3_reduce"
  top: "inception_4d/3x3"
  param {
    lr_mult: 1
    decay_mult: 1
  }
  param {
    lr_mult: 2
    decay_mult: 0
  }
  convolution_param {
    num_output: 288
    pad: 1
    kernel_size: 3
    weight_filler {
      type: "xavier"
      std: 0.03
    }
    bias_filler {
      type: "constant"
      value: 0.2
    }
  }
}
layer {
  name: "inception_4d/relu_3x3"
  type: "ReLU"
  bottom: "inception_4d/3x3"
  top: "inception_4d/3x3"
}
layer {
  name: "inception_4d/5x5_reduce"
  type: "Convolution"
  bottom: "inception_4c/output"
  top: "inception_4d/5x5_reduce"
  param {
    lr_mult: 1
    decay_mult: 1
  }
  param {
    lr_mult: 2
    decay_mult: 0
  }
  convolution_param {
    num_output: 32
    kernel_size: 1
    weight_filler {
      type: "xavier"
      std: 0.2
    }
    bias_filler {
      type: "constant"
      value: 0.2
    }
  }
}
layer {
  name: "inception_4d/relu_5x5_reduce"
  type: "ReLU"
  bottom: "inception_4d/5x5_reduce"
  top: "inception_4d/5x5_reduce"
}
layer {
  name: "inception_4d/5x5"
  type: "Convolution"
  bottom: "inception_4d/5x5_reduce"
  top: "inception_4d/5x5"
  param {
    lr_mult: 1
    decay_mult: 1
  }
  param {
    lr_mult: 2
    decay_mult: 0
  }
  convolution_param {
    num_output: 64
    pad: 2
    kernel_size: 5
    weight_filler {
      type: "xavier"
      std: 0.03
    }
    bias_filler {
      type: "constant"
      value: 0.2
    }
  }
}
layer {
  name: "inception_4d/relu_5x5"
  type: "ReLU"
  bottom: "inception_4d/5x5"
  top: "inception_4d/5x5"
}
layer {
  name: "inception_4d/pool"
  type: "Pooling"
  bottom: "inception_4c/output"
  top: "inception_4d/pool"
  pooling_param {
    pool: MAX
    kernel_size: 3
    stride: 1
    pad: 1
  }
}
layer {
  name: "inception_4d/pool_proj"
  type: "Convolution"
  bottom: "inception_4d/pool"
  top: "inception_4d/pool_proj"
  param {
    lr_mult: 1
    decay_mult: 1
  }
  param {
    lr_mult: 2
    decay_mult: 0
  }
  convolution_param {
    num_output: 64
    kernel_size: 1
    weight_filler {
      type: "xavier"
      std: 0.1
    }
    bias_filler {
      type: "constant"
      value: 0.2
    }
  }
}
layer {
  name: "inception_4d/relu_pool_proj"
  type: "ReLU"
  bottom: "inception_4d/pool_proj"
  top: "inception_4d/pool_proj"
}
layer {
  name: "inception_4d/output"
  type: "Concat"
  bottom: "inception_4d/1x1"
  bottom: "inception_4d/3x3"
  bottom: "inception_4d/5x5"
  bottom: "inception_4d/pool_proj"
  top: "inception_4d/output"
}
layer {
  name: "inception_4e/1x1"
  type: "Convolution"
  bottom: "inception_4d/output"
  top: "inception_4e/1x1"
  param {
    lr_mult: 1
    decay_mult: 1
  }
  param {
    lr_mult: 2
    decay_mult: 0
  }
  convolution_param {
    num_output: 256
    kernel_size: 1
    weight_filler {
      type: "xavier"
      std: 0.03
    }
    bias_filler {
      type: "constant"
      value: 0.2
    }
  }
}
layer {
  name: "inception_4e/relu_1x1"
  type: "ReLU"
  bottom: "inception_4e/1x1"
  top: "inception_4e/1x1"
}
layer {
  name: "inception_4e/3x3_reduce"
  type: "Convolution"
  bottom: "inception_4d/output"
  top: "inception_4e/3x3_reduce"
  param {
    lr_mult: 1
    decay_mult: 1
  }
  param {
    lr_mult: 2
    decay_mult: 0
  }
  convolution_param {
    num_output: 160
    kernel_size: 1
    weight_filler {
      type: "xavier"
      std: 0.09
    }
    bias_filler {
      type: "constant"
      value: 0.2
    }
  }
}
layer {
  name: "inception_4e/relu_3x3_reduce"
  type: "ReLU"
  bottom: "inception_4e/3x3_reduce"
  top: "inception_4e/3x3_reduce"
}
layer {
  name: "inception_4e/3x3"
  type: "Convolution"
  bottom: "inception_4e/3x3_reduce"
  top: "inception_4e/3x3"
  param {
    lr_mult: 1
    decay_mult: 1
  }
  param {
    lr_mult: 2
    decay_mult: 0
  }
  convolution_param {
    num_output: 320
    pad: 1
    kernel_size: 3
    weight_filler {
      type: "xavier"
      std: 0.03
    }
    bias_filler {
      type: "constant"
      value: 0.2
    }
  }
}
layer {
  name: "inception_4e/relu_3x3"
  type: "ReLU"
  bottom: "inception_4e/3x3"
  top: "inception_4e/3x3"
}
layer {
  name: "inception_4e/5x5_reduce"
  type: "Convolution"
  bottom: "inception_4d/output"
  top: "inception_4e/5x5_reduce"
  param {
    lr_mult: 1
    decay_mult: 1
  }
  param {
    lr_mult: 2
    decay_mult: 0
  }
  convolution_param {
    num_output: 32
    kernel_size: 1
    weight_filler {
      type: "xavier"
      std: 0.2
    }
    bias_filler {
      type: "constant"
      value: 0.2
    }
  }
}
layer {
  name: "inception_4e/relu_5x5_reduce"
  type: "ReLU"
  bottom: "inception_4e/5x5_reduce"
  top: "inception_4e/5x5_reduce"
}
layer {
  name: "inception_4e/5x5"
  type: "Convolution"
  bottom: "inception_4e/5x5_reduce"
  top: "inception_4e/5x5"
  param {
    lr_mult: 1
    decay_mult: 1
  }
  param {
    lr_mult: 2
    decay_mult: 0
  }
  convolution_param {
    num_output: 128
    pad: 2
    kernel_size: 5
    weight_filler {
      type: "xavier"
      std: 0.03
    }
    bias_filler {
      type: "constant"
      value: 0.2
    }
  }
}
layer {
  name: "inception_4e/relu_5x5"
  type: "ReLU"
  bottom: "inception_4e/5x5"
  top: "inception_4e/5x5"
}
layer {
  name: "inception_4e/pool"
  type: "Pooling"
  bottom: "inception_4d/output"
  top: "inception_4e/pool"
  pooling_param {
    pool: MAX
    kernel_size: 3
    stride: 1
    pad: 1
  }
}
layer {
  name: "inception_4e/pool_proj"
  type: "Convolution"
  bottom: "inception_4e/pool"
  top: "inception_4e/pool_proj"
  param {
    lr_mult: 1
    decay_mult: 1
  }
  param {
    lr_mult: 2
    decay_mult: 0
  }
  convolution_param {
    num_output: 128
    kernel_size: 1
    weight_filler {
      type: "xavier"
      std: 0.1
    }
    bias_filler {
      type: "constant"
      value: 0.2
    }
  }
}
layer {
  name: "inception_4e/relu_pool_proj"
  type: "ReLU"
  bottom: "inception_4e/pool_proj"
  top: "inception_4e/pool_proj"
}
layer {
  name: "inception_4e/output"
  type: "Concat"
  bottom: "inception_4e/1x1"
  bottom: "inception_4e/3x3"
  bottom: "inception_4e/5x5"
  bottom: "inception_4e/pool_proj"
  top: "inception_4e/output"
}
layer {
  name: "pool4/3x3_s2"
  type: "Pooling"
  bottom: "inception_4e/output"
  top: "pool4/3x3_s2"
  pooling_param {
    pool: MAX
    kernel_size: 3
    stride: 2
  }
}
layer {
  name: "inception_5a/1x1"
  type: "Convolution"
  bottom: "pool4/3x3_s2"
  top: "inception_5a/1x1"
  param {
    lr_mult: 1
    decay_mult: 1
  }
  param {
    lr_mult: 2
    decay_mult: 0
  }
  convolution_param {
    num_output: 256
    kernel_size: 1
    weight_filler {
      type: "xavier"
      std: 0.03
    }
    bias_filler {
      type: "constant"
      value: 0.2
    }
  }
}
layer {
  name: "inception_5a/relu_1x1"
  type: "ReLU"
  bottom: "inception_5a/1x1"
  top: "inception_5a/1x1"
}
layer {
  name: "inception_5a/3x3_reduce"
  type: "Convolution"
  bottom: "pool4/3x3_s2"
  top: "inception_5a/3x3_reduce"
  param {
    lr_mult: 1
    decay_mult: 1
  }
  param {
    lr_mult: 2
    decay_mult: 0
  }
  convolution_param {
    num_output: 160
    kernel_size: 1
    weight_filler {
      type: "xavier"
      std: 0.09
    }
    bias_filler {
      type: "constant"
      value: 0.2
    }
  }
}
layer {
  name: "inception_5a/relu_3x3_reduce"
  type: "ReLU"
  bottom: "inception_5a/3x3_reduce"
  top: "inception_5a/3x3_reduce"
}
layer {
  name: "inception_5a/3x3"
  type: "Convolution"
  bottom: "inception_5a/3x3_reduce"
  top: "inception_5a/3x3"
  param {
    lr_mult: 1
    decay_mult: 1
  }
  param {
    lr_mult: 2
    decay_mult: 0
  }
  convolution_param {
    num_output: 320
    pad: 1
    kernel_size: 3
    weight_filler {
      type: "xavier"
      std: 0.03
    }
    bias_filler {
      type: "constant"
      value: 0.2
    }
  }
}
layer {
  name: "inception_5a/relu_3x3"
  type: "ReLU"
  bottom: "inception_5a/3x3"
  top: "inception_5a/3x3"
}
layer {
  name: "inception_5a/5x5_reduce"
  type: "Convolution"
  bottom: "pool4/3x3_s2"
  top: "inception_5a/5x5_reduce"
  param {
    lr_mult: 1
    decay_mult: 1
  }
  param {
    lr_mult: 2
    decay_mult: 0
  }
  convolution_param {
    num_output: 32
    kernel_size: 1
    weight_filler {
      type: "xavier"
      std: 0.2
    }
    bias_filler {
      type: "constant"
      value: 0.2
    }
I0714 23:35:21.416666  5922 net.cpp:49] Initializing net from parameters: 
name: "GoogleNet"
state {
  phase: TEST
}
layer {
  name: "data"
  type: "Input"
  top: "data"
  input_param {
    shape {
      dim: 10
      dim: 3
      dim: 224
      dim: 224
    }
  }
}
layer {
  name: "conv1/7x7_s2"
  type: "Convolution"
  bottom: "data"
  top: "conv1/7x7_s2"
  param {
    lr_mult: 1
    decay_mult: 1
  }
  param {
    lr_mult: 2
    decay_mult: 0
  }
  convolution_param {
    num_output: 64
    pad: 3
    kernel_size: 7
    stride: 2
    weight_filler {
      type: "xavier"
      std: 0.1
    }
    bias_filler {
      type: "constant"
      value: 0.2
    }
  }
}
layer {
  name: "conv1/relu_7x7"
  type: "ReLU"
  bottom: "conv1/7x7_s2"
  top: "conv1/7x7_s2"
}
layer {
  name: "pool1/3x3_s2"
  type: "Pooling"
  bottom: "conv1/7x7_s2"
  top: "pool1/3x3_s2"
  pooling_param {
    pool: MAX
    kernel_size: 3
    stride: 2
  }
}
layer {
  name: "pool1/norm1"
  type: "LRN"
  bottom: "pool1/3x3_s2"
  top: "pool1/norm1"
  lrn_param {
    local_size: 5
    alpha: 0.0001
    beta: 0.75
  }
}
layer {
  name: "conv2/3x3_reduce"
  type: "Convolution"
  bottom: "pool1/norm1"
  top: "conv2/3x3_reduce"
  param {
    lr_mult: 1
    decay_mult: 1
  }
  param {
    lr_mult: 2
    decay_mult: 0
  }
  convolution_param {
    num_output: 64
    kernel_size: 1
    weight_filler {
      type: "xavier"
      std: 0.1
    }
    bias_filler {
      type: "constant"
      value: 0.2
    }
  }
}
layer {
  name: "conv2/relu_3x3_reduce"
  type: "ReLU"
  bottom: "conv2/3x3_reduce"
  top: "conv2/3x3_reduce"
}
layer {
  name: "conv2/3x3"
  type: "Convolution"
  bottom: "conv2/3x3_reduce"
  top: "conv2/3x3"
  param {
    lr_mult: 1
    decay_mult: 1
  }
  param {
    lr_mult: 2
    decay_mult: 0
  }
  convolution_param {
    num_output: 192
    pad: 1
    kernel_size: 3
    weight_filler {
      type: "xavier"
      std: 0.03
    }
    bias_filler {
      type: "constant"
      value: 0.2
    }
  }
}
layer {
  name: "conv2/relu_3x3"
  type: "ReLU"
  bottom: "conv2/3x3"
  top: "conv2/3x3"
}
layer {
  name: "conv2/norm2"
  type: "LRN"
  bottom: "conv2/3x3"
  top: "conv2/norm2"
  lrn_param {
    local_size: 5
    alpha: 0.0001
    beta: 0.75
  }
}
layer {
  name: "pool2/3x3_s2"
  type: "Pooling"
  bottom: "conv2/norm2"
  top: "pool2/3x3_s2"
  pooling_param {
    pool: MAX
    kernel_size: 3
    stride: 2
  }
}
layer {
  name: "inception_3a/1x1"
  type: "Convolution"
  bottom: "pool2/3x3_s2"
  top: "inception_3a/1x1"
  param {
    lr_mult: 1
    decay_mult: 1
  }
  param {
    lr_mult: 2
    decay_mult: 0
  }
  convolution_param {
    num_output: 64
    kernel_size: 1
    weight_filler {
      type: "xavier"
      std: 0.03
    }
    bias_filler {
      type: "constant"
      value: 0.2
    }
  }
}
layer {
  name: "inception_3a/relu_1x1"
  type: "ReLU"
  bottom: "inception_3a/1x1"
  top: "inception_3a/1x1"
}
layer {
  name: "inception_3a/3x3_reduce"
  type: "Convolution"
  bottom: "pool2/3x3_s2"
  top: "inception_3a/3x3_reduce"
  param {
    lr_mult: 1
    decay_mult: 1
  }
  param {
    lr_mult: 2
    decay_mult: 0
  }
  convolution_param {
    num_output: 96
    kernel_size: 1
    weight_filler {
      type: "xavier"
      std: 0.09
    }
    bias_filler {
      type: "constant"
      value: 0.2
    }
  }
}
layer {
  name: "inception_3a/relu_3x3_reduce"
  type: "ReLU"
  bottom: "inception_3a/3x3_reduce"
  top: "inception_3a/3x3_reduce"
}
layer {
  name: "inception_3a/3x3"
  type: "Convolution"
  bottom: "inception_3a/3x3_reduce"
  top: "inception_3a/3x3"
  param {
    lr_mult: 1
    decay_mult: 1
  }
  param {
    lr_mult: 2
    decay_mult: 0
  }
  convolution_param {
    num_output: 128
    pad: 1
    kernel_size: 3
    weight_filler {
      type: "xavier"
      std: 0.03
    }
    bias_filler {
      type: "constant"
      value: 0.2
    }
  }
}
layer {
  name: "inception_3a/relu_3x3"
  type: "ReLU"
  bottom: "inception_3a/3x3"
  top: "inception_3a/3x3"
}
layer {
  name: "inception_3a/5x5_reduce"
  type: "Convolution"
  bottom: "pool2/3x3_s2"
  top: "inception_3a/5x5_reduce"
  param {
    lr_mult: 1
    decay_mult: 1
  }
  param {
    lr_mult: 2
    decay_mult: 0
  }
  convolution_param {
    num_output: 16
    kernel_size: 1
    weight_filler {
      type: "xavier"
      std: 0.2
    }
    bias_filler {
      type: "constant"
      value: 0.2
    }
  }
}
layer {
  name: "inception_3a/relu_5x5_reduce"
  type: "ReLU"
  bottom: "inception_3a/5x5_reduce"
  top: "inception_3a/5x5_reduce"
}
layer {
  name: "inception_3a/5x5"
  type: "Convolution"
  bottom: "inception_3a/5x5_reduce"
  top: "inception_3a/5x5"
  param {
    lr_mult: 1
    decay_mult: 1
  }
  param {
    lr_mult: 2
    decay_mult: 0
  }
  convolution_param {
    num_output: 32
    pad: 2
    kernel_size: 5
    weight_filler {
      type: "xavier"
      std: 0.03
    }
    bias_filler {
      type: "constant"
      value: 0.2
    }
  }
}
layer {
  name: "inception_3a/relu_5x5"
  type: "ReLU"
  bottom: "inception_3a/5x5"
  top: "inception_3a/5x5"
}
layer {
  name: "inception_3a/pool"
  type: "Pooling"
  bottom: "pool2/3x3_s2"
  top: "inception_3a/pool"
  pooling_param {
    pool: MAX
    kernel_size: 3
    stride: 1
    pad: 1
  }
}
layer {
  name: "inception_3a/pool_proj"
  type: "Convolution"
  bottom: "inception_3a/pool"
  top: "inception_3a/pool_proj"
  param {
    lr_mult: 1
    decay_mult: 1
  }
  param {
    lr_mult: 2
    decay_mult: 0
  }
  convolution_param {
    num_output: 32
    kernel_size: 1
    weight_filler {
      type: "xavier"
      std: 0.1
    }
    bias_filler {
      type: "constant"
      value: 0.2
    }
  }
}
layer {
  name: "inception_3a/relu_pool_proj"
  type: "ReLU"
  bottom: "inception_3a/pool_proj"
  top: "inception_3a/pool_proj"
}
layer {
  name: "inception_3a/output"
  type: "Concat"
  bottom: "inception_3a/1x1"
  bottom: "inception_3a/3x3"
  bottom: "inception_3a/5x5"
  bottom: "inception_3a/pool_proj"
  top: "inception_3a/output"
}
layer {
  name: "inception_3b/1x1"
  type: "Convolution"
  bottom: "inception_3a/output"
  top: "inception_3b/1x1"
  param {
    lr_mult: 1
    decay_mult: 1
  }
  param {
    lr_mult: 2
    decay_mult: 0
  }
  convolution_param {
    num_output: 128
    kernel_size: 1
    weight_filler {
      type: "xavier"
      std: 0.03
    }
    bias_filler {
      type: "constant"
      value: 0.2
    }
  }
}
layer {
  name: "inception_3b/relu_1x1"
  type: "ReLU"
  bottom: "inception_3b/1x1"
  top: "inception_3b/1x1"
}
layer {
  name: "inception_3b/3x3_reduce"
  type: "Convolution"
  bottom: "inception_3a/output"
  top: "inception_3b/3x3_reduce"
  param {
    lr_mult: 1
    decay_mult: 1
  }
  param {
    lr_mult: 2
    decay_mult: 0
  }
  convolution_param {
    num_output: 128
    kernel_size: 1
    weight_filler {
      type: "xavier"
      std: 0.09
    }
    bias_filler {
      type: "constant"
      value: 0.2
    }
  }
}
layer {
  name: "inception_3b/relu_3x3_reduce"
  type: "ReLU"
  bottom: "inception_3b/3x3_reduce"
  top: "inception_3b/3x3_reduce"
}
layer {
  name: "inception_3b/3x3"
  type: "Convolution"
  bottom: "inception_3b/3x3_reduce"
  top: "inception_3b/3x3"
  param {
    lr_mult: 1
    decay_mult: 1
  }
  param {
    lr_mult: 2
    decay_mult: 0
  }
  convolution_param {
    num_output: 192
    pad: 1
    kernel_size: 3
    weight_filler {
      type: "xavier"
      std: 0.03
    }
    bias_filler {
      type: "constant"
      value: 0.2
    }
  }
}
layer {
  name: "inception_3b/relu_3x3"
  type: "ReLU"
  bottom: "inception_3b/3x3"
  top: "inception_3b/3x3"
}
layer {
  name: "inception_3b/5x5_reduce"
  type: "Convolution"
  bottom: "inception_3a/output"
  top: "inception_3b/5x5_reduce"
  param {
    lr_mult: 1
    decay_mult: 1
  }
  param {
    lr_mult: 2
    decay_mult: 0
  }
  convolution_param {
    num_output: 32
    kernel_size: 1
    weight_filler {
      type: "xavier"
      std: 0.2
    }
    bias_filler {
      type: "constant"
      value: 0.2
    }
  }
}
layer {
  name: "inception_3b/relu_5x5_reduce"
  type: "ReLU"
  bottom: "inception_3b/5x5_reduce"
  top: "inception_3b/5x5_reduce"
}
layer {
  name: "inception_3b/5x5"
  type: "Convolution"
  bottom: "inception_3b/5x5_reduce"
  top: "inception_3b/5x5"
  param {
    lr_mult: 1
    decay_mult: 1
  }
  param {
    lr_mult: 2
    decay_mult: 0
  }
  convolution_param {
    num_output: 96
    pad: 2
    kernel_size: 5
    weight_filler {
      type: "xavier"
      std: 0.03
    }
    bias_filler {
      type: "constant"
      value: 0.2
    }
  }
}
layer {
  name: "inception_3b/relu_5x5"
  type: "ReLU"
  bottom: "inception_3b/5x5"
  top: "inception_3b/5x5"
}
layer {
  name: "inception_3b/pool"
  type: "Pooling"
  bottom: "inception_3a/output"
  top: "inception_3b/pool"
  pooling_param {
    pool: MAX
    kernel_size: 3
    stride: 1
    pad: 1
  }
}
layer {
  name: "inception_3b/pool_proj"
  type: "Convolution"
  bottom: "inception_3b/pool"
  top: "inception_3b/pool_proj"
  param {
    lr_mult: 1
    decay_mult: 1
  }
  param {
    lr_mult: 2
    decay_mult: 0
  }
  convolution_param {
    num_output: 64
    kernel_size: 1
    weight_filler {
      type: "xavier"
      std: 0.1
    }
    bias_filler {
      type: "constant"
      value: 0.2
    }
  }
}
layer {
  name: "inception_3b/relu_pool_proj"
  type: "ReLU"
  bottom: "inception_3b/pool_proj"
  top: "inception_3b/pool_proj"
}
layer {
  name: "inception_3b/output"
  type: "Concat"
  bottom: "inception_3b/1x1"
  bottom: "inception_3b/3x3"
  bottom: "inception_3b/5x5"
  bottom: "inception_3b/pool_proj"
  top: "inception_3b/output"
}
layer {
  name: "pool3/3x3_s2"
  type: "Pooling"
  bottom: "inception_3b/output"
  top: "pool3/3x3_s2"
  pooling_param {
    pool: MAX
    kernel_size: 3
    stride: 2
  }
}
layer {
  name: "inception_4a/1x1"
  type: "Convolution"
  bottom: "pool3/3x3_s2"
  top: "inception_4a/1x1"
  param {
    lr_mult: 1
    decay_mult: 1
  }
  param {
    lr_mult: 2
    decay_mult: 0
  }
  convolution_param {
    num_output: 192
    kernel_size: 1
    weight_filler {
      type: "xavier"
      std: 0.03
    }
    bias_filler {
      type: "constant"
      value: 0.2
    }
  }
}
layer {
  name: "inception_4a/relu_1x1"
  type: "ReLU"
  bottom: "inception_4a/1x1"
  top: "inception_4a/1x1"
}
layer {
  name: "inception_4a/3x3_reduce"
  type: "Convolution"
  bottom: "pool3/3x3_s2"
  top: "inception_4a/3x3_reduce"
  param {
    lr_mult: 1
    decay_mult: 1
  }
  param {
    lr_mult: 2
    decay_mult: 0
  }
  convolution_param {
    num_output: 96
    kernel_size: 1
    weight_filler {
      type: "xavier"
      std: 0.09
    }
    bias_filler {
      type: "constant"
      value: 0.2
    }
  }
}
layer {
  name: "inception_4a/relu_3x3_reduce"
  type: "ReLU"
  bottom: "inception_4a/3x3_reduce"
  top: "inception_4a/3x3_reduce"
}
layer {
  name: "inception_4a/3x3"
  type: "Convolution"
  bottom: "inception_4a/3x3_reduce"
  top: "inception_4a/3x3"
  param {
    lr_mult: 1
    decay_mult: 1
  }
  param {
    lr_mult: 2
    decay_mult: 0
  }
  convolution_param {
    num_output: 208
    pad: 1
    kernel_size: 3
    weight_filler {
      type: "xavier"
      std: 0.03
    }
    bias_filler {
      type: "constant"
      value: 0.2
    }
  }
}
layer {
  name: "inception_4a/relu_3x3"
  type: "ReLU"
  bottom: "inception_4a/3x3"
  top: "inception_4a/3x3"
}
layer {
  name: "inception_4a/5x5_reduce"
  type: "Convolution"
  bottom: "pool3/3x3_s2"
  top: "inception_4a/5x5_reduce"
  param {
    lr_mult: 1
    decay_mult: 1
  }
  param {
    lr_mult: 2
    decay_mult: 0
  }
  convolution_param {
    num_output: 16
    kernel_size: 1
    weight_filler {
      type: "xavier"
      std: 0.2
    }
    bias_filler {
      type: "constant"
      value: 0.2
    }
  }
}
layer {
  name: "inception_4a/relu_5x5_reduce"
  type: "ReLU"
  bottom: "inception_4a/5x5_reduce"
  top: "inception_4a/5x5_reduce"
}
layer {
  name: "inception_4a/5x5"
  type: "Convolution"
  bottom: "inception_4a/5x5_reduce"
  top: "inception_4a/5x5"
  param {
    lr_mult: 1
    decay_mult: 1
  }
  param {
    lr_mult: 2
    decay_mult: 0
  }
  convolution_param {
    num_output: 48
    pad: 2
    kernel_size: 5
    weight_filler {
      type: "xavier"
      std: 0.03
    }
    bias_filler {
      type: "constant"
      value: 0.2
    }
  }
}
layer {
  name: "inception_4a/relu_5x5"
  type: "ReLU"
  bottom: "inception_4a/5x5"
  top: "inception_4a/5x5"
}
layer {
  name: "inception_4a/pool"
  type: "Pooling"
  bottom: "pool3/3x3_s2"
  top: "inception_4a/pool"
  pooling_param {
    pool: MAX
    kernel_size: 3
    stride: 1
    pad: 1
  }
}
layer {
  name: "inception_4a/pool_proj"
  type: "Convolution"
  bottom: "inception_4a/pool"
  top: "inception_4a/pool_proj"
  param {
    lr_mult: 1
    decay_mult: 1
  }
  param {
    lr_mult: 2
    decay_mult: 0
  }
  convolution_param {
    num_output: 64
    kernel_size: 1
    weight_filler {
      type: "xavier"
      std: 0.1
    }
    bias_filler {
      type: "constant"
      value: 0.2
    }
  }
}
layer {
  name: "inception_4a/relu_pool_proj"
  type: "ReLU"
  bottom: "inception_4a/pool_proj"
  top: "inception_4a/pool_proj"
}
layer {
  name: "inception_4a/output"
  type: "Concat"
  bottom: "inception_4a/1x1"
  bottom: "inception_4a/3x3"
  bottom: "inception_4a/5x5"
  bottom: "inception_4a/pool_proj"
  top: "inception_4a/output"
}
layer {
  name: "inception_4b/1x1"
  type: "Convolution"
  bottom: "inception_4a/output"
  top: "inception_4b/1x1"
  param {
    lr_mult: 1
    decay_mult: 1
  }
  param {
    lr_mult: 2
    decay_mult: 0
  }
  convolution_param {
    num_output: 160
    kernel_size: 1
    weight_filler {
      type: "xavier"
      std: 0.03
    }
    bias_filler {
      type: "constant"
      value: 0.2
    }
  }
}
layer {
  name: "inception_4b/relu_1x1"
  type: "ReLU"
  bottom: "inception_4b/1x1"
  top: "inception_4b/1x1"
}
layer {
  name: "inception_4b/3x3_reduce"
  type: "Convolution"
  bottom: "inception_4a/output"
  top: "inception_4b/3x3_reduce"
  param {
    lr_mult: 1
    decay_mult: 1
  }
  param {
    lr_mult: 2
    decay_mult: 0
  }
  convolution_param {
    num_output: 112
    kernel_size: 1
    weight_filler {
      type: "xavier"
      std: 0.09
    }
    bias_filler {
      type: "constant"
      value: 0.2
    }
  }
}
layer {
  name: "inception_4b/relu_3x3_reduce"
  type: "ReLU"
  bottom: "inception_4b/3x3_reduce"
  top: "inception_4b/3x3_reduce"
}
layer {
  name: "inception_4b/3x3"
  type: "Convolution"
  bottom: "inception_4b/3x3_reduce"
  top: "inception_4b/3x3"
  param {
    lr_mult: 1
    decay_mult: 1
  }
  param {
    lr_mult: 2
    decay_mult: 0
  }
  convolution_param {
    num_output: 224
    pad: 1
    kernel_size: 3
    weight_filler {
      type: "xavier"
      std: 0.03
    }
    bias_filler {
      type: "constant"
      value: 0.2
    }
  }
}
layer {
  name: "inception_4b/relu_3x3"
  type: "ReLU"
  bottom: "inception_4b/3x3"
  top: "inception_4b/3x3"
}
layer {
  name: "inception_4b/5x5_reduce"
  type: "Convolution"
  bottom: "inception_4a/output"
  top: "inception_4b/5x5_reduce"
  param {
    lr_mult: 1
    decay_mult: 1
  }
  param {
    lr_mult: 2
    decay_mult: 0
  }
  convolution_param {
    num_output: 24
    kernel_size: 1
    weight_filler {
      type: "xavier"
      std: 0.2
    }
    bias_filler {
      type: "constant"
      value: 0.2
    }
  }
}
layer {
  name: "inception_4b/relu_5x5_reduce"
  type: "ReLU"
  bottom: "inception_4b/5x5_reduce"
  top: "inception_4b/5x5_reduce"
}
layer {
  name: "inception_4b/5x5"
  type: "Convolution"
  bottom: "inception_4b/5x5_reduce"
  top: "inception_4b/5x5"
  param {
    lr_mult: 1
    decay_mult: 1
  }
  param {
    lr_mult: 2
    decay_mult: 0
  }
  convolution_param {
    num_output: 64
    pad: 2
    kernel_size: 5
    weight_filler {
      type: "xavier"
      std: 0.03
    }
    bias_filler {
      type: "constant"
      value: 0.2
    }
  }
}
layer {
  name: "inception_4b/relu_5x5"
  type: "ReLU"
  bottom: "inception_4b/5x5"
  top: "inception_4b/5x5"
}
layer {
  name: "inception_4b/pool"
  type: "Pooling"
  bottom: "inception_4a/output"
  top: "inception_4b/pool"
  pooling_param {
    pool: MAX
    kernel_size: 3
    stride: 1
    pad: 1
  }
}
layer {
  name: "inception_4b/pool_proj"
  type: "Convolution"
  bottom: "inception_4b/pool"
  top: "inception_4b/pool_proj"
  param {
    lr_mult: 1
    decay_mult: 1
  }
  param {
    lr_mult: 2
    decay_mult: 0
  }
  convolution_param {
    num_output: 64
    kernel_size: 1
    weight_filler {
      type: "xavier"
      std: 0.1
    }
    bias_filler {
      type: "constant"
      value: 0.2
    }
  }
}
layer {
  name: "inception_4b/relu_pool_proj"
  type: "ReLU"
  bottom: "inception_4b/pool_proj"
  top: "inception_4b/pool_proj"
}
layer {
  name: "inception_4b/output"
  type: "Concat"
  bottom: "inception_4b/1x1"
  bottom: "inception_4b/3x3"
  bottom: "inception_4b/5x5"
  bottom: "inception_4b/pool_proj"
  top: "inception_4b/output"
}
layer {
  name: "inception_4c/1x1"
  type: "Convolution"
  bottom: "inception_4b/output"
  top: "inception_4c/1x1"
  param {
    lr_mult: 1
    decay_mult: 1
  }
  param {
    lr_mult: 2
    decay_mult: 0
  }
  convolution_param {
    num_output: 128
    kernel_size: 1
    weight_filler {
      type: "xavier"
      std: 0.03
    }
    bias_filler {
      type: "constant"
      value: 0.2
    }
  }
}
layer {
  name: "inception_4c/relu_1x1"
  type: "ReLU"
  bottom: "inception_4c/1x1"
  top: "inception_4c/1x1"
}
layer {
  name: "inception_4c/3x3_reduce"
  type: "Convolution"
  bottom: "inception_4b/output"
  top: "inception_4c/3x3_reduce"
  param {
    lr_mult: 1
    decay_mult: 1
  }
  param {
    lr_mult: 2
    decay_mult: 0
  }
  convolution_param {
    num_output: 128
    kernel_size: 1
    weight_filler {
      type: "xavier"
      std: 0.09
    }
    bias_filler {
      type: "constant"
      value: 0.2
    }
  }
}
layer {
  name: "inception_4c/relu_3x3_reduce"
  type: "ReLU"
  bottom: "inception_4c/3x3_reduce"
  top: "inception_4c/3x3_reduce"
}
layer {
  name: "inception_4c/3x3"
  type: "Convolution"
  bottom: "inception_4c/3x3_reduce"
  top: "inception_4c/3x3"
  param {
    lr_mult: 1
    decay_mult: 1
  }
  param {
    lr_mult: 2
    decay_mult: 0
  }
  convolution_param {
    num_output: 256
    pad: 1
    kernel_size: 3
    weight_filler {
      type: "xavier"
      std: 0.03
    }
    bias_filler {
      type: "constant"
      value: 0.2
    }
  }
}
layer {
  name: "inception_4c/relu_3x3"
  type: "ReLU"
  bottom: "inception_4c/3x3"
  top: "inception_4c/3x3"
}
layer {
  name: "inception_4c/5x5_reduce"
  type: "Convolution"
  bottom: "inception_4b/output"
  top: "inception_4c/5x5_reduce"
  param {
    lr_mult: 1
    decay_mult: 1
  }
  param {
    lr_mult: 2
    decay_mult: 0
  }
  convolution_param {
    num_output: 24
    kernel_size: 1
    weight_filler {
      type: "xavier"
      std: 0.2
    }
    bias_filler {
      type: "constant"
      value: 0.2
    }
  }
}
layer {
  name: "inception_4c/relu_5x5_reduce"
  type: "ReLU"
  bottom: "inception_4c/5x5_reduce"
  top: "inception_4c/5x5_reduce"
}
layer {
  name: "inception_4c/5x5"
  type: "Convolution"
  bottom: "inception_4c/5x5_reduce"
  top: "inception_4c/5x5"
  param {
    lr_mult: 1
    decay_mult: 1
  }
  param {
    lr_mult: 2
    decay_mult: 0
  }
  convolution_param {
    num_output: 64
    pad: 2
    kernel_size: 5
    weight_filler {
      type: "xavier"
      std: 0.03
    }
    bias_filler {
      type: "constant"
      value: 0.2
    }
  }
}
layer {
  name: "inception_4c/relu_5x5"
  type: "ReLU"
  bottom: "inception_4c/5x5"
  top: "inception_4c/5x5"
}
layer {
  name: "inception_4c/pool"
  type: "Pooling"
  bottom: "inception_4b/output"
  top: "inception_4c/pool"
  pooling_param {
    pool: MAX
    kernel_size: 3
    stride: 1
    pad: 1
  }
}
layer {
  name: "inception_4c/pool_proj"
  type: "Convolution"
  bottom: "inception_4c/pool"
  top: "inception_4c/pool_proj"
  param {
    lr_mult: 1
    decay_mult: 1
  }
  param {
    lr_mult: 2
    decay_mult: 0
  }
  convolution_param {
    num_output: 64
    kernel_size: 1
    weight_filler {
      type: "xavier"
      std: 0.1
    }
    bias_filler {
      type: "constant"
      value: 0.2
    }
  }
}
layer {
  name: "inception_4c/relu_pool_proj"
  type: "ReLU"
  bottom: "inception_4c/pool_proj"
  top: "inception_4c/pool_proj"
}
layer {
  name: "inception_4c/output"
  type: "Concat"
  bottom: "inception_4c/1x1"
  bottom: "inception_4c/3x3"
  bottom: "inception_4c/5x5"
  bottom: "inception_4c/pool_proj"
  top: "inception_4c/output"
}
layer {
  name: "inception_4d/1x1"
  type: "Convolution"
  bottom: "inception_4c/output"
  top: "inception_4d/1x1"
  param {
    lr_mult: 1
    decay_mult: 1
  }
  param {
    lr_mult: 2
    decay_mult: 0
  }
  convolution_param {
    num_output: 112
    kernel_size: 1
    weight_filler {
      type: "xavier"
      std: 0.03
    }
    bias_filler {
      type: "constant"
      value: 0.2
    }
  }
}
layer {
  name: "inception_4d/relu_1x1"
  type: "ReLU"
  bottom: "inception_4d/1x1"
  top: "inception_4d/1x1"
}
layer {
  name: "inception_4d/3x3_reduce"
  type: "Convolution"
  bottom: "inception_4c/output"
  top: "inception_4d/3x3_reduce"
  param {
    lr_mult: 1
    decay_mult: 1
  }
  param {
    lr_mult: 2
    decay_mult: 0
  }
  convolution_param {
    num_output: 144
    kernel_size: 1
    weight_filler {
      type: "xavier"
      std: 0.09
    }
    bias_filler {
      type: "constant"
      value: 0.2
    }
  }
}
layer {
  name: "inception_4d/relu_3x3_reduce"
  type: "ReLU"
  bottom: "inception_4d/3x3_reduce"
  top: "inception_4d/3x3_reduce"
}
layer {
  name: "inception_4d/3x3"
  type: "Convolution"
  bottom: "inception_4d/3x3_reduce"
  top: "inception_4d/3x3"
  param {
    lr_mult: 1
    decay_mult: 1
  }
  param {
    lr_mult: 2
    decay_mult: 0
  }
  convolution_param {
    num_output: 288
    pad: 1
    kernel_size: 3
    weight_filler {
      type: "xavier"
      std: 0.03
    }
    bias_filler {
      type: "constant"
      value: 0.2
    }
  }
}
layer {
  name: "inception_4d/relu_3x3"
  type: "ReLU"
  bottom: "inception_4d/3x3"
  top: "inception_4d/3x3"
}
layer {
  name: "inception_4d/5x5_reduce"
  type: "Convolution"
  bottom: "inception_4c/output"
  top: "inception_4d/5x5_reduce"
  param {
    lr_mult: 1
    decay_mult: 1
  }
  param {
    lr_mult: 2
    decay_mult: 0
  }
  convolution_param {
    num_output: 32
    kernel_size: 1
    weight_filler {
      type: "xavier"
      std: 0.2
    }
    bias_filler {
      type: "constant"
      value: 0.2
    }
  }
}
layer {
  name: "inception_4d/relu_5x5_reduce"
  type: "ReLU"
  bottom: "inception_4d/5x5_reduce"
  top: "inception_4d/5x5_reduce"
}
layer {
  name: "inception_4d/5x5"
  type: "Convolution"
  bottom: "inception_4d/5x5_reduce"
  top: "inception_4d/5x5"
  param {
    lr_mult: 1
    decay_mult: 1
  }
  param {
    lr_mult: 2
    decay_mult: 0
  }
  convolution_param {
    num_output: 64
    pad: 2
    kernel_size: 5
    weight_filler {
      type: "xavier"
      std: 0.03
    }
    bias_filler {
      type: "constant"
      value: 0.2
    }
  }
}
layer {
  name: "inception_4d/relu_5x5"
  type: "ReLU"
  bottom: "inception_4d/5x5"
  top: "inception_4d/5x5"
}
layer {
  name: "inception_4d/pool"
  type: "Pooling"
  bottom: "inception_4c/output"
  top: "inception_4d/pool"
  pooling_param {
    pool: MAX
    kernel_size: 3
    stride: 1
    pad: 1
  }
}
layer {
  name: "inception_4d/pool_proj"
  type: "Convolution"
  bottom: "inception_4d/pool"
  top: "inception_4d/pool_proj"
  param {
    lr_mult: 1
    decay_mult: 1
  }
  param {
    lr_mult: 2
    decay_mult: 0
  }
  convolution_param {
    num_output: 64
    kernel_size: 1
    weight_filler {
      type: "xavier"
      std: 0.1
    }
    bias_filler {
      type: "constant"
      value: 0.2
    }
  }
}
layer {
  name: "inception_4d/relu_pool_proj"
  type: "ReLU"
  bottom: "inception_4d/pool_proj"
  top: "inception_4d/pool_proj"
}
layer {
  name: "inception_4d/output"
  type: "Concat"
  bottom: "inception_4d/1x1"
  bottom: "inception_4d/3x3"
  bottom: "inception_4d/5x5"
  bottom: "inception_4d/pool_proj"
  top: "inception_4d/output"
}
layer {
  name: "inception_4e/1x1"
  type: "Convolution"
  bottom: "inception_4d/output"
  top: "inception_4e/1x1"
  param {
    lr_mult: 1
    decay_mult: 1
  }
  param {
    lr_mult: 2
    decay_mult: 0
  }
  convolution_param {
    num_output: 256
    kernel_size: 1
    weight_filler {
      type: "xavier"
      std: 0.03
    }
    bias_filler {
      type: "constant"
      value: 0.2
    }
  }
}
layer {
  name: "inception_4e/relu_1x1"
  type: "ReLU"
  bottom: "inception_4e/1x1"
  top: "inception_4e/1x1"
}
layer {
  name: "inception_4e/3x3_reduce"
  type: "Convolution"
  bottom: "inception_4d/output"
  top: "inception_4e/3x3_reduce"
  param {
    lr_mult: 1
    decay_mult: 1
  }
  param {
    lr_mult: 2
    decay_mult: 0
  }
  convolution_param {
    num_output: 160
    kernel_size: 1
    weight_filler {
      type: "xavier"
      std: 0.09
    }
    bias_filler {
      type: "constant"
      value: 0.2
    }
  }
}
layer {
  name: "inception_4e/relu_3x3_reduce"
  type: "ReLU"
  bottom: "inception_4e/3x3_reduce"
  top: "inception_4e/3x3_reduce"
}
layer {
  name: "inception_4e/3x3"
  type: "Convolution"
  bottom: "inception_4e/3x3_reduce"
  top: "inception_4e/3x3"
  param {
    lr_mult: 1
    decay_mult: 1
  }
  param {
    lr_mult: 2
    decay_mult: 0
  }
  convolution_param {
    num_output: 320
    pad: 1
    kernel_size: 3
    weight_filler {
      type: "xavier"
      std: 0.03
    }
    bias_filler {
      type: "constant"
      value: 0.2
    }
  }
}
layer {
  name: "inception_4e/relu_3x3"
  type: "ReLU"
  bottom: "inception_4e/3x3"
  top: "inception_4e/3x3"
}
layer {
  name: "inception_4e/5x5_reduce"
  type: "Convolution"
  bottom: "inception_4d/output"
  top: "inception_4e/5x5_reduce"
  param {
    lr_mult: 1
    decay_mult: 1
  }
  param {
    lr_mult: 2
    decay_mult: 0
  }
  convolution_param {
    num_output: 32
    kernel_size: 1
    weight_filler {
      type: "xavier"
      std: 0.2
    }
    bias_filler {
      type: "constant"
      value: 0.2
    }
  }
}
layer {
  name: "inception_4e/relu_5x5_reduce"
  type: "ReLU"
  bottom: "inception_4e/5x5_reduce"
  top: "inception_4e/5x5_reduce"
}
layer {
  name: "inception_4e/5x5"
  type: "Convolution"
  bottom: "inception_4e/5x5_reduce"
  top: "inception_4e/5x5"
  param {
    lr_mult: 1
    decay_mult: 1
  }
  param {
    lr_mult: 2
    decay_mult: 0
  }
  convolution_param {
    num_output: 128
    pad: 2
    kernel_size: 5
    weight_filler {
      type: "xavier"
      std: 0.03
    }
    bias_filler {
      type: "constant"
      value: 0.2
    }
  }
}
layer {
  name: "inception_4e/relu_5x5"
  type: "ReLU"
  bottom: "inception_4e/5x5"
  top: "inception_4e/5x5"
}
layer {
  name: "inception_4e/pool"
  type: "Pooling"
  bottom: "inception_4d/output"
  top: "inception_4e/pool"
  pooling_param {
    pool: MAX
    kernel_size: 3
    stride: 1
    pad: 1
  }
}
layer {
  name: "inception_4e/pool_proj"
  type: "Convolution"
  bottom: "inception_4e/pool"
  top: "inception_4e/pool_proj"
  param {
    lr_mult: 1
    decay_mult: 1
  }
  param {
    lr_mult: 2
    decay_mult: 0
  }
  convolution_param {
    num_output: 128
    kernel_size: 1
    weight_filler {
      type: "xavier"
      std: 0.1
    }
    bias_filler {
      type: "constant"
      value: 0.2
    }
  }
}
layer {
  name: "inception_4e/relu_pool_proj"
  type: "ReLU"
  bottom: "inception_4e/pool_proj"
  top: "inception_4e/pool_proj"
}
layer {
  name: "inception_4e/output"
  type: "Concat"
  bottom: "inception_4e/1x1"
  bottom: "inception_4e/3x3"
  bottom: "inception_4e/5x5"
  bottom: "inception_4e/pool_proj"
  top: "inception_4e/output"
}
layer {
  name: "pool4/3x3_s2"
  type: "Pooling"
  bottom: "inception_4e/output"
  top: "pool4/3x3_s2"
  pooling_param {
    pool: MAX
    kernel_size: 3
    stride: 2
  }
}
layer {
  name: "inception_5a/1x1"
  type: "Convolution"
  bottom: "pool4/3x3_s2"
  top: "inception_5a/1x1"
  param {
    lr_mult: 1
    decay_mult: 1
  }
  param {
    lr_mult: 2
    decay_mult: 0
  }
  convolution_param {
    num_output: 256
    kernel_size: 1
    weight_filler {
      type: "xavier"
      std: 0.03
    }
    bias_filler {
      type: "constant"
      value: 0.2
    }
  }
}
layer {
  name: "inception_5a/relu_1x1"
  type: "ReLU"
  bottom: "inception_5a/1x1"
  top: "inception_5a/1x1"
}
layer {
  name: "inception_5a/3x3_reduce"
  type: "Convolution"
  bottom: "pool4/3x3_s2"
  top: "inception_5a/3x3_reduce"
  param {
    lr_mult: 1
    decay_mult: 1
  }
  param {
    lr_mult: 2
    decay_mult: 0
  }
  convolution_param {
    num_output: 160
    kernel_size: 1
    weight_filler {
      type: "xavier"
      std: 0.09
    }
    bias_filler {
      type: "constant"
      value: 0.2
    }
  }
}
layer {
  name: "inception_5a/relu_3x3_reduce"
  type: "ReLU"
  bottom: "inception_5a/3x3_reduce"
  top: "inception_5a/3x3_reduce"
}
layer {
  name: "inception_5a/3x3"
  type: "Convolution"
  bottom: "inception_5a/3x3_reduce"
  top: "inception_5a/3x3"
  param {
    lr_mult: 1
    decay_mult: 1
  }
  param {
    lr_mult: 2
    decay_mult: 0
  }
  convolution_param {
    num_output: 320
    pad: 1
    kernel_size: 3
    weight_filler {
      type: "xavier"
      std: 0.03
    }
    bias_filler {
      type: "constant"
      value: 0.2
    }
  }
}
layer {
  name: "inception_5a/relu_3x3"
  type: "ReLU"
  bottom: "inception_5a/3x3"
  top: "inception_5a/3x3"
}
layer {
  name: "inception_5a/5x5_reduce"
  type: "Convolution"
  bottom: "pool4/3x3_s2"
  top: "inception_5a/5x5_reduce"
  param {
    lr_mult: 1
    decay_mult: 1
  }
  param {
    lr_mult: 2
    decay_mult: 0
  }
  convolution_param {
    num_output: 32
    kernel_size: 1
    weight_filler {
      type: "xavier"
      std: 0.2
    }
    bias_filler {
      type: "constant"
      value: 0.2
    }
I0714 23:35:21.417664  5918 layer_factory.hpp:77] Creating layer data
I0714 23:35:21.417666  5922 layer_factory.hpp:77] Creating layer data
I0714 23:35:21.417714  5922 net.cpp:91] Creating Layer data
I0714 23:35:21.417716  5918 net.cpp:91] Creating Layer data
I0714 23:35:21.417729  5922 net.cpp:399] data -> data
I0714 23:35:21.417735  5918 net.cpp:399] data -> data
I0714 23:35:21.976814  5918 net.cpp:141] Setting up data
I0714 23:35:21.976886  5922 net.cpp:141] Setting up data
I0714 23:35:21.976907  5918 net.cpp:148] Top shape: 10 3 224 224 (1505280)
I0714 23:35:21.976933  5922 net.cpp:148] Top shape: 10 3 224 224 (1505280)
I0714 23:35:21.976933  5918 net.cpp:156] Memory required for data: 6021120
I0714 23:35:21.976939  5922 net.cpp:156] Memory required for data: 6021120
I0714 23:35:21.976958  5918 layer_factory.hpp:77] Creating layer conv1/7x7_s2
I0714 23:35:21.976964  5922 layer_factory.hpp:77] Creating layer conv1/7x7_s2
I0714 23:35:21.977001  5918 net.cpp:91] Creating Layer conv1/7x7_s2
I0714 23:35:21.977001  5922 net.cpp:91] Creating Layer conv1/7x7_s2
I0714 23:35:21.977017  5918 net.cpp:425] conv1/7x7_s2 <- data
I0714 23:35:21.977030  5922 net.cpp:425] conv1/7x7_s2 <- data
I0714 23:35:21.977042  5918 net.cpp:399] conv1/7x7_s2 -> conv1/7x7_s2
I0714 23:35:21.977051  5922 net.cpp:399] conv1/7x7_s2 -> conv1/7x7_s2
I0714 23:35:22.205214  5918 net.cpp:141] Setting up conv1/7x7_s2
I0714 23:35:22.205214  5922 net.cpp:141] Setting up conv1/7x7_s2
I0714 23:35:22.205258  5918 net.cpp:148] Top shape: 10 64 112 112 (8028160)
I0714 23:35:22.205261  5922 net.cpp:148] Top shape: 10 64 112 112 (8028160)
I0714 23:35:22.205265  5918 net.cpp:156] Memory required for data: 38133760
I0714 23:35:22.205267  5922 net.cpp:156] Memory required for data: 38133760
I0714 23:35:22.205292  5918 layer_factory.hpp:77] Creating layer conv1/relu_7x7
I0714 23:35:22.205292  5922 layer_factory.hpp:77] Creating layer conv1/relu_7x7
I0714 23:35:22.205313  5918 net.cpp:91] Creating Layer conv1/relu_7x7
I0714 23:35:22.205313  5922 net.cpp:91] Creating Layer conv1/relu_7x7
I0714 23:35:22.205322  5918 net.cpp:425] conv1/relu_7x7 <- conv1/7x7_s2
I0714 23:35:22.205324  5922 net.cpp:425] conv1/relu_7x7 <- conv1/7x7_s2
I0714 23:35:22.205332  5918 net.cpp:386] conv1/relu_7x7 -> conv1/7x7_s2 (in-place)
I0714 23:35:22.205332  5922 net.cpp:386] conv1/relu_7x7 -> conv1/7x7_s2 (in-place)
I0714 23:35:22.206344  5922 net.cpp:141] Setting up conv1/relu_7x7
I0714 23:35:22.206353  5918 net.cpp:141] Setting up conv1/relu_7x7
I0714 23:35:22.206357  5922 net.cpp:148] Top shape: 10 64 112 112 (8028160)
I0714 23:35:22.206368  5918 net.cpp:148] Top shape: 10 64 112 112 (8028160)
I0714 23:35:22.206368  5922 net.cpp:156] Memory required for data: 70246400
I0714 23:35:22.206375  5918 net.cpp:156] Memory required for data: 70246400
I0714 23:35:22.206379  5922 layer_factory.hpp:77] Creating layer pool1/3x3_s2
I0714 23:35:22.206380  5918 layer_factory.hpp:77] Creating layer pool1/3x3_s2
I0714 23:35:22.206393  5922 net.cpp:91] Creating Layer pool1/3x3_s2
I0714 23:35:22.206393  5918 net.cpp:91] Creating Layer pool1/3x3_s2
I0714 23:35:22.206401  5922 net.cpp:425] pool1/3x3_s2 <- conv1/7x7_s2
I0714 23:35:22.206408  5918 net.cpp:425] pool1/3x3_s2 <- conv1/7x7_s2
I0714 23:35:22.206416  5918 net.cpp:399] pool1/3x3_s2 -> pool1/3x3_s2
I0714 23:35:22.206418  5922 net.cpp:399] pool1/3x3_s2 -> pool1/3x3_s2
I0714 23:35:22.206529  5918 net.cpp:141] Setting up pool1/3x3_s2
I0714 23:35:22.206540  5918 net.cpp:148] Top shape: 10 64 56 56 (2007040)
I0714 23:35:22.206544  5918 net.cpp:156] Memory required for data: 78274560
I0714 23:35:22.206549  5918 layer_factory.hpp:77] Creating layer pool1/norm1
I0714 23:35:22.206550  5922 net.cpp:141] Setting up pool1/3x3_s2
I0714 23:35:22.206562  5922 net.cpp:148] Top shape: 10 64 56 56 (2007040)
I0714 23:35:22.206565  5918 net.cpp:91] Creating Layer pool1/norm1
I0714 23:35:22.206567  5922 net.cpp:156] Memory required for data: 78274560
I0714 23:35:22.206573  5918 net.cpp:425] pool1/norm1 <- pool1/3x3_s2
I0714 23:35:22.206578  5922 layer_factory.hpp:77] Creating layer pool1/norm1
I0714 23:35:22.206580  5918 net.cpp:399] pool1/norm1 -> pool1/norm1
I0714 23:35:22.206593  5922 net.cpp:91] Creating Layer pool1/norm1
I0714 23:35:22.206599  5922 net.cpp:425] pool1/norm1 <- pool1/3x3_s2
I0714 23:35:22.206606  5922 net.cpp:399] pool1/norm1 -> pool1/norm1
I0714 23:35:22.207810  5922 net.cpp:141] Setting up pool1/norm1
I0714 23:35:22.207818  5918 net.cpp:141] Setting up pool1/norm1
I0714 23:35:22.207828  5922 net.cpp:148] Top shape: 10 64 56 56 (2007040)
I0714 23:35:22.207831  5918 net.cpp:148] Top shape: 10 64 56 56 (2007040)
I0714 23:35:22.207833  5922 net.cpp:156] Memory required for data: 86302720
I0714 23:35:22.207841  5918 net.cpp:156] Memory required for data: 86302720
I0714 23:35:22.207851  5922 layer_factory.hpp:77] Creating layer conv2/3x3_reduce
I0714 23:35:22.207854  5918 layer_factory.hpp:77] Creating layer conv2/3x3_reduce
I0714 23:35:22.207872  5918 net.cpp:91] Creating Layer conv2/3x3_reduce
I0714 23:35:22.207878  5918 net.cpp:425] conv2/3x3_reduce <- pool1/norm1
I0714 23:35:22.207887  5918 net.cpp:399] conv2/3x3_reduce -> conv2/3x3_reduce
I0714 23:35:22.208300  5922 net.cpp:91] Creating Layer conv2/3x3_reduce
I0714 23:35:22.208310  5922 net.cpp:425] conv2/3x3_reduce <- pool1/norm1
I0714 23:35:22.208319  5922 net.cpp:399] conv2/3x3_reduce -> conv2/3x3_reduce
I0714 23:35:22.213662  5922 net.cpp:141] Setting up conv2/3x3_reduce
I0714 23:35:22.213671  5918 net.cpp:141] Setting up conv2/3x3_reduce
I0714 23:35:22.213687  5922 net.cpp:148] Top shape: 10 64 56 56 (2007040)
I0714 23:35:22.213692  5922 net.cpp:156] Memory required for data: 94330880
I0714 23:35:22.213693  5918 net.cpp:148] Top shape: 10 64 56 56 (2007040)
I0714 23:35:22.213699  5918 net.cpp:156] Memory required for data: 94330880
I0714 23:35:22.213709  5922 layer_factory.hpp:77] Creating layer conv2/relu_3x3_reduce
I0714 23:35:22.213712  5918 layer_factory.hpp:77] Creating layer conv2/relu_3x3_reduce
I0714 23:35:22.213719  5922 net.cpp:91] Creating Layer conv2/relu_3x3_reduce
I0714 23:35:22.213721  5918 net.cpp:91] Creating Layer conv2/relu_3x3_reduce
I0714 23:35:22.213724  5922 net.cpp:425] conv2/relu_3x3_reduce <- conv2/3x3_reduce
I0714 23:35:22.213726  5918 net.cpp:425] conv2/relu_3x3_reduce <- conv2/3x3_reduce
I0714 23:35:22.213732  5922 net.cpp:386] conv2/relu_3x3_reduce -> conv2/3x3_reduce (in-place)
I0714 23:35:22.213737  5918 net.cpp:386] conv2/relu_3x3_reduce -> conv2/3x3_reduce (in-place)
I0714 23:35:22.214762  5922 net.cpp:141] Setting up conv2/relu_3x3_reduce
I0714 23:35:22.214774  5918 net.cpp:141] Setting up conv2/relu_3x3_reduce
I0714 23:35:22.214778  5922 net.cpp:148] Top shape: 10 64 56 56 (2007040)
I0714 23:35:22.214788  5922 net.cpp:156] Memory required for data: 102359040
I0714 23:35:22.214789  5918 net.cpp:148] Top shape: 10 64 56 56 (2007040)
I0714 23:35:22.214797  5922 layer_factory.hpp:77] Creating layer conv2/3x3
I0714 23:35:22.214799  5918 net.cpp:156] Memory required for data: 102359040
I0714 23:35:22.214805  5918 layer_factory.hpp:77] Creating layer conv2/3x3
I0714 23:35:22.214813  5922 net.cpp:91] Creating Layer conv2/3x3
I0714 23:35:22.214819  5922 net.cpp:425] conv2/3x3 <- conv2/3x3_reduce
I0714 23:35:22.214824  5918 net.cpp:91] Creating Layer conv2/3x3
I0714 23:35:22.214829  5918 net.cpp:425] conv2/3x3 <- conv2/3x3_reduce
I0714 23:35:22.214831  5922 net.cpp:399] conv2/3x3 -> conv2/3x3
I0714 23:35:22.214838  5918 net.cpp:399] conv2/3x3 -> conv2/3x3
I0714 23:35:22.221487  5918 net.cpp:141] Setting up conv2/3x3
I0714 23:35:22.221500  5922 net.cpp:141] Setting up conv2/3x3
I0714 23:35:22.221519  5918 net.cpp:148] Top shape: 10 192 56 56 (6021120)
I0714 23:35:22.221525  5918 net.cpp:156] Memory required for data: 126443520
I0714 23:35:22.221527  5922 net.cpp:148] Top shape: 10 192 56 56 (6021120)
I0714 23:35:22.221532  5922 net.cpp:156] Memory required for data: 126443520
I0714 23:35:22.221539  5918 layer_factory.hpp:77] Creating layer conv2/relu_3x3
I0714 23:35:22.221545  5922 layer_factory.hpp:77] Creating layer conv2/relu_3x3
I0714 23:35:22.221549  5918 net.cpp:91] Creating Layer conv2/relu_3x3
I0714 23:35:22.221554  5918 net.cpp:425] conv2/relu_3x3 <- conv2/3x3
I0714 23:35:22.221555  5922 net.cpp:91] Creating Layer conv2/relu_3x3
I0714 23:35:22.221560  5922 net.cpp:425] conv2/relu_3x3 <- conv2/3x3
I0714 23:35:22.221561  5918 net.cpp:386] conv2/relu_3x3 -> conv2/3x3 (in-place)
I0714 23:35:22.221571  5922 net.cpp:386] conv2/relu_3x3 -> conv2/3x3 (in-place)
I0714 23:35:22.222573  5918 net.cpp:141] Setting up conv2/relu_3x3
I0714 23:35:22.222584  5922 net.cpp:141] Setting up conv2/relu_3x3
I0714 23:35:22.222586  5918 net.cpp:148] Top shape: 10 192 56 56 (6021120)
I0714 23:35:22.222599  5918 net.cpp:156] Memory required for data: 150528000
I0714 23:35:22.222599  5922 net.cpp:148] Top shape: 10 192 56 56 (6021120)
I0714 23:35:22.222605  5918 layer_factory.hpp:77] Creating layer conv2/norm2
I0714 23:35:22.222609  5922 net.cpp:156] Memory required for data: 150528000
I0714 23:35:22.222615  5922 layer_factory.hpp:77] Creating layer conv2/norm2
I0714 23:35:22.222618  5918 net.cpp:91] Creating Layer conv2/norm2
I0714 23:35:22.222623  5918 net.cpp:425] conv2/norm2 <- conv2/3x3
I0714 23:35:22.222626  5922 net.cpp:91] Creating Layer conv2/norm2
I0714 23:35:22.222630  5918 net.cpp:399] conv2/norm2 -> conv2/norm2
I0714 23:35:22.222631  5922 net.cpp:425] conv2/norm2 <- conv2/3x3
I0714 23:35:22.222640  5922 net.cpp:399] conv2/norm2 -> conv2/norm2
I0714 23:35:22.223681  5918 net.cpp:141] Setting up conv2/norm2
I0714 23:35:22.223695  5918 net.cpp:148] Top shape: 10 192 56 56 (6021120)
I0714 23:35:22.223712  5918 net.cpp:156] Memory required for data: 174612480
I0714 23:35:22.223717  5918 layer_factory.hpp:77] Creating layer pool2/3x3_s2
I0714 23:35:22.223728  5918 net.cpp:91] Creating Layer pool2/3x3_s2
I0714 23:35:22.223733  5918 net.cpp:425] pool2/3x3_s2 <- conv2/norm2
I0714 23:35:22.223740  5918 net.cpp:399] pool2/3x3_s2 -> pool2/3x3_s2
I0714 23:35:22.223742  5922 net.cpp:141] Setting up conv2/norm2
I0714 23:35:22.223754  5922 net.cpp:148] Top shape: 10 192 56 56 (6021120)
I0714 23:35:22.223759  5922 net.cpp:156] Memory required for data: 174612480
I0714 23:35:22.223764  5922 layer_factory.hpp:77] Creating layer pool2/3x3_s2
I0714 23:35:22.223775  5922 net.cpp:91] Creating Layer pool2/3x3_s2
I0714 23:35:22.223781  5922 net.cpp:425] pool2/3x3_s2 <- conv2/norm2
I0714 23:35:22.223791  5922 net.cpp:399] pool2/3x3_s2 -> pool2/3x3_s2
I0714 23:35:22.223811  5918 net.cpp:141] Setting up pool2/3x3_s2
I0714 23:35:22.223827  5918 net.cpp:148] Top shape: 10 192 28 28 (1505280)
I0714 23:35:22.223834  5918 net.cpp:156] Memory required for data: 180633600
I0714 23:35:22.223842  5918 layer_factory.hpp:77] Creating layer pool2/3x3_s2_pool2/3x3_s2_0_split
I0714 23:35:22.223845  5922 net.cpp:141] Setting up pool2/3x3_s2
I0714 23:35:22.223853  5922 net.cpp:148] Top shape: 10 192 28 28 (1505280)
I0714 23:35:22.223857  5922 net.cpp:156] Memory required for data: 180633600
I0714 23:35:22.223862  5922 layer_factory.hpp:77] Creating layer pool2/3x3_s2_pool2/3x3_s2_0_split
I0714 23:35:22.223865  5918 net.cpp:91] Creating Layer pool2/3x3_s2_pool2/3x3_s2_0_split
I0714 23:35:22.223872  5922 net.cpp:91] Creating Layer pool2/3x3_s2_pool2/3x3_s2_0_split
I0714 23:35:22.223875  5918 net.cpp:425] pool2/3x3_s2_pool2/3x3_s2_0_split <- pool2/3x3_s2
…
I0714 23:35:22.223917  5918 net.cpp:399] pool2/3x3_s2_pool2/3x3_s2_0_split -> pool2/3x3_s2_pool2/3x3_s2_0_split_1
I0714 23:35:22.223923  5922 net.cpp:399] pool2/3x3_s2_pool2/3x3_s2_0_split -> pool2/3x3_s2_pool2/3x3_s2_0_split_2
I0714 23:35:22.223932  5922 net.cpp:399] pool2/3x3_s2_pool2/3x3_s2_0_split -> pool2/3x3_s2_pool2/3x3_s2_0_split_3
I0714 23:35:22.223934  5918 net.cpp:399] pool2/3x3_s2_pool2/3x3_s2_0_split -> pool2/3x3_s2_pool2/3x3_s2_0_split_2
I0714 23:35:22.223948  5918 net.cpp:399] pool2/3x3_s2_pool2/3x3_s2_0_split -> pool2/3x3_s2_pool2/3x3_s2_0_split_3
I0714 23:35:22.224071  5922 net.cpp:141] Setting up pool2/3x3_s2_pool2/3x3_s2_0_split
I0714 23:35:22.224081  5922 net.cpp:148] Top shape: 10 192 28 28 (1505280)
I0714 23:35:22.224087  5922 net.cpp:148] Top shape: 10 192 28 28 (1505280)
I0714 23:35:22.224092  5922 net.cpp:148] Top shape: 10 192 28 28 (1505280)
I0714 23:35:22.224097  5922 net.cpp:148] Top shape: 10 192 28 28 (1505280)
I0714 23:35:22.224102  5922 net.cpp:156] Memory required for data: 204718080
I0714 23:35:22.224105  5922 layer_factory.hpp:77] Creating layer inception_3a/1x1
I0714 23:35:22.224125  5922 net.cpp:91] Creating Layer inception_3a/1x1
I0714 23:35:22.224130  5922 net.cpp:425] inception_3a/1x1 <- pool2/3x3_s2_pool2/3x3_s2_0_split_0
I0714 23:35:22.224158  5922 net.cpp:399] inception_3a/1x1 -> inception_3a/1x1
I0714 23:35:22.224159  5918 net.cpp:141] Setting up pool2/3x3_s2_pool2/3x3_s2_0_split
I0714 23:35:22.224180  5918 net.cpp:148] Top shape: 10 192 28 28 (1505280)
I0714 23:35:22.224191  5918 net.cpp:148] Top shape: 10 192 28 28 (1505280)
I0714 23:35:22.224202  5918 net.cpp:148] Top shape: 10 192 28 28 (1505280)
I0714 23:35:22.224212  5918 net.cpp:148] Top shape: 10 192 28 28 (1505280)
I0714 23:35:22.224220  5918 net.cpp:156] Memory required for data: 204718080
I0714 23:35:22.224228  5918 layer_factory.hpp:77] Creating layer inception_3a/1x1
I0714 23:35:22.224253  5918 net.cpp:91] Creating Layer inception_3a/1x1
I0714 23:35:22.224261  5918 net.cpp:425] inception_3a/1x1 <- pool2/3x3_s2_pool2/3x3_s2_0_split_0
I0714 23:35:22.224269  5918 net.cpp:399] inception_3a/1x1 -> inception_3a/1x1
I0714 23:35:22.230312  5918 net.cpp:141] Setting up inception_3a/1x1
I0714 23:35:22.230330  5922 net.cpp:141] Setting up inception_3a/1x1
I0714 23:35:22.230335  5918 net.cpp:148] Top shape: 10 64 28 28 (501760)
I0714 23:35:22.230347  5918 net.cpp:156] Memory required for data: 206725120
I0714 23:35:22.230347  5922 net.cpp:148] Top shape: 10 64 28 28 (501760)
I0714 23:35:22.230360  5922 net.cpp:156] Memory required for data: 206725120
I0714 23:35:22.230365  5918 layer_factory.hpp:77] Creating layer inception_3a/relu_1x1
I0714 23:35:22.230370  5922 layer_factory.hpp:77] Creating layer inception_3a/relu_1x1
I0714 23:35:22.230376  5918 net.cpp:91] Creating Layer inception_3a/relu_1x1
I0714 23:35:22.230379  5922 net.cpp:91] Creating Layer inception_3a/relu_1x1
I0714 23:35:22.230381  5918 net.cpp:425] inception_3a/relu_1x1 <- inception_3a/1x1
I0714 23:35:22.230384  5922 net.cpp:425] inception_3a/relu_1x1 <- inception_3a/1x1
I0714 23:35:22.230388  5918 net.cpp:386] inception_3a/relu_1x1 -> inception_3a/1x1 (in-place)
I0714 23:35:22.230396  5922 net.cpp:386] inception_3a/relu_1x1 -> inception_3a/1x1 (in-place)
I0714 23:35:22.231405  5918 net.cpp:141] Setting up inception_3a/relu_1x1
I0714 23:35:22.231405  5922 net.cpp:141] Setting up inception_3a/relu_1x1
I0714 23:35:22.231426  5918 net.cpp:148] Top shape: 10 64 28 28 (501760)
I0714 23:35:22.231427  5922 net.cpp:148] Top shape: 10 64 28 28 (501760)
I0714 23:35:22.231431  5918 net.cpp:156] Memory required for data: 208732160
I0714 23:35:22.231431  5922 net.cpp:156] Memory required for data: 208732160
I0714 23:35:22.231436  5918 layer_factory.hpp:77] Creating layer inception_3a/3x3_reduce
I0714 23:35:22.231436  5922 layer_factory.hpp:77] Creating layer inception_3a/3x3_reduce
I0714 23:35:22.231456  5918 net.cpp:91] Creating Layer inception_3a/3x3_reduce
I0714 23:35:22.231457  5922 net.cpp:91] Creating Layer inception_3a/3x3_reduce
I0714 23:35:22.231465  5918 net.cpp:425] inception_3a/3x3_reduce <- pool2/3x3_s2_pool2/3x3_s2_0_split_1
I0714 23:35:22.231468  5922 net.cpp:425] inception_3a/3x3_reduce <- pool2/3x3_s2_pool2/3x3_s2_0_split_1
I0714 23:35:22.231475  5918 net.cpp:399] inception_3a/3x3_reduce -> inception_3a/3x3_reduce
I0714 23:35:22.231482  5922 net.cpp:399] inception_3a/3x3_reduce -> inception_3a/3x3_reduce
I0714 23:35:22.236742  5918 net.cpp:141] Setting up inception_3a/3x3_reduce
I0714 23:35:22.236774  5918 net.cpp:148] Top shape: 10 96 28 28 (752640)
I0714 23:35:22.236780  5918 net.cpp:156] Memory required for data: 211742720
I0714 23:35:22.236794  5918 layer_factory.hpp:77] Creating layer inception_3a/relu_3x3_reduce
I0714 23:35:22.236810  5918 net.cpp:91] Creating Layer inception_3a/relu_3x3_reduce
I0714 23:35:22.236816  5918 net.cpp:425] inception_3a/relu_3x3_reduce <- inception_3a/3x3_reduce
I0714 23:35:22.236824  5918 net.cpp:386] inception_3a/relu_3x3_reduce -> inception_3a/3x3_reduce (in-place)
I0714 23:35:22.237473  5922 net.cpp:141] Setting up inception_3a/3x3_reduce
I0714 23:35:22.237489  5922 net.cpp:148] Top shape: 10 96 28 28 (752640)
I0714 23:35:22.237494  5922 net.cpp:156] Memory required for data: 211742720
I0714 23:35:22.237507  5922 layer_factory.hpp:77] Creating layer inception_3a/relu_3x3_reduce
I0714 23:35:22.237519  5922 net.cpp:91] Creating Layer inception_3a/relu_3x3_reduce
I0714 23:35:22.237524  5922 net.cpp:425] inception_3a/relu_3x3_reduce <- inception_3a/3x3_reduce
I0714 23:35:22.237530  5922 net.cpp:386] inception_3a/relu_3x3_reduce -> inception_3a/3x3_reduce (in-place)
I0714 23:35:22.237735  5918 net.cpp:141] Setting up inception_3a/relu_3x3_reduce
I0714 23:35:22.237748  5918 net.cpp:148] Top shape: 10 96 28 28 (752640)
I0714 23:35:22.237753  5918 net.cpp:156] Memory required for data: 214753280
I0714 23:35:22.237758  5918 layer_factory.hpp:77] Creating layer inception_3a/3x3
I0714 23:35:22.237779  5918 net.cpp:91] Creating Layer inception_3a/3x3
I0714 23:35:22.237785  5918 net.cpp:425] inception_3a/3x3 <- inception_3a/3x3_reduce
I0714 23:35:22.237794  5918 net.cpp:399] inception_3a/3x3 -> inception_3a/3x3
I0714 23:35:22.237808  5922 net.cpp:141] Setting up inception_3a/relu_3x3_reduce
I0714 23:35:22.237820  5922 net.cpp:148] Top shape: 10 96 28 28 (752640)
I0714 23:35:22.237825  5922 net.cpp:156] Memory required for data: 214753280
I0714 23:35:22.237830  5922 layer_factory.hpp:77] Creating layer inception_3a/3x3
I0714 23:35:22.237849  5922 net.cpp:91] Creating Layer inception_3a/3x3
I0714 23:35:22.237855  5922 net.cpp:425] inception_3a/3x3 <- inception_3a/3x3_reduce
I0714 23:35:22.237864  5922 net.cpp:399] inception_3a/3x3 -> inception_3a/3x3
I0714 23:35:22.243772  5918 net.cpp:141] Setting up inception_3a/3x3
I0714 23:35:22.243801  5918 net.cpp:148] Top shape: 10 128 28 28 (1003520)
I0714 23:35:22.243808  5918 net.cpp:156] Memory required for data: 218767360
I0714 23:35:22.243816  5918 layer_factory.hpp:77] Creating layer inception_3a/relu_3x3
I0714 23:35:22.243825  5918 net.cpp:91] Creating Layer inception_3a/relu_3x3
I0714 23:35:22.243830  5918 net.cpp:425] inception_3a/relu_3x3 <- inception_3a/3x3
I0714 23:35:22.243841  5918 net.cpp:386] inception_3a/relu_3x3 -> inception_3a/3x3 (in-place)
I0714 23:35:22.244093  5922 net.cpp:141] Setting up inception_3a/3x3
I0714 23:35:22.244109  5922 net.cpp:148] Top shape: 10 128 28 28 (1003520)
I0714 23:35:22.244114  5922 net.cpp:156] Memory required for data: 218767360
I0714 23:35:22.244123  5922 layer_factory.hpp:77] Creating layer inception_3a/relu_3x3
I0714 23:35:22.244132  5922 net.cpp:91] Creating Layer inception_3a/relu_3x3
I0714 23:35:22.244138  5922 net.cpp:425] inception_3a/relu_3x3 <- inception_3a/3x3
I0714 23:35:22.244144  5922 net.cpp:386] inception_3a/relu_3x3 -> inception_3a/3x3 (in-place)
I0714 23:35:22.244146  5918 net.cpp:141] Setting up inception_3a/relu_3x3
I0714 23:35:22.244160  5918 net.cpp:148] Top shape: 10 128 28 28 (1003520)
I0714 23:35:22.244165  5918 net.cpp:156] Memory required for data: 222781440
I0714 23:35:22.244170  5918 layer_factory.hpp:77] Creating layer inception_3a/5x5_reduce
I0714 23:35:22.244184  5918 net.cpp:91] Creating Layer inception_3a/5x5_reduce
I0714 23:35:22.244189  5918 net.cpp:425] inception_3a/5x5_reduce <- pool2/3x3_s2_pool2/3x3_s2_0_split_2
I0714 23:35:22.244200  5918 net.cpp:399] inception_3a/5x5_reduce -> inception_3a/5x5_reduce
I0714 23:35:22.245298  5922 net.cpp:141] Setting up inception_3a/relu_3x3
I0714 23:35:22.245314  5922 net.cpp:148] Top shape: 10 128 28 28 (1003520)
I0714 23:35:22.245332  5922 net.cpp:156] Memory required for data: 222781440
I0714 23:35:22.245337  5922 layer_factory.hpp:77] Creating layer inception_3a/5x5_reduce
I0714 23:35:22.245352  5922 net.cpp:91] Creating Layer inception_3a/5x5_reduce
I0714 23:35:22.245358  5922 net.cpp:425] inception_3a/5x5_reduce <- pool2/3x3_s2_pool2/3x3_s2_0_split_2
I0714 23:35:22.245368  5922 net.cpp:399] inception_3a/5x5_reduce -> inception_3a/5x5_reduce
I0714 23:35:22.247613  5918 net.cpp:141] Setting up inception_3a/5x5_reduce
I0714 23:35:22.247630  5918 net.cpp:148] Top shape: 10 16 28 28 (125440)
I0714 23:35:22.247635  5918 net.cpp:156] Memory required for data: 223283200
I0714 23:35:22.247644  5918 layer_factory.hpp:77] Creating layer inception_3a/relu_5x5_reduce
I0714 23:35:22.247656  5918 net.cpp:91] Creating Layer inception_3a/relu_5x5_reduce
I0714 23:35:22.247663  5918 net.cpp:425] inception_3a/relu_5x5_reduce <- inception_3a/5x5_reduce
I0714 23:35:22.247670  5918 net.cpp:386] inception_3a/relu_5x5_reduce -> inception_3a/5x5_reduce (in-place)
I0714 23:35:22.248605  5918 net.cpp:141] Setting up inception_3a/relu_5x5_reduce
I0714 23:35:22.248631  5918 net.cpp:148] Top shape: 10 16 28 28 (125440)
I0714 23:35:22.248636  5918 net.cpp:156] Memory required for data: 223784960
I0714 23:35:22.248641  5918 layer_factory.hpp:77] Creating layer inception_3a/5x5
I0714 23:35:22.248661  5918 net.cpp:91] Creating Layer inception_3a/5x5
I0714 23:35:22.248667  5918 net.cpp:425] inception_3a/5x5 <- inception_3a/5x5_reduce
I0714 23:35:22.248677  5918 net.cpp:399] inception_3a/5x5 -> inception_3a/5x5
I0714 23:35:22.249821  5922 net.cpp:141] Setting up inception_3a/5x5_reduce
I0714 23:35:22.249837  5922 net.cpp:148] Top shape: 10 16 28 28 (125440)
I0714 23:35:22.249842  5922 net.cpp:156] Memory required for data: 223283200
I0714 23:35:22.249851  5922 layer_factory.hpp:77] Creating layer inception_3a/relu_5x5_reduce
I0714 23:35:22.249864  5922 net.cpp:91] Creating Layer inception_3a/relu_5x5_reduce
I0714 23:35:22.249871  5922 net.cpp:425] inception_3a/relu_5x5_reduce <- inception_3a/5x5_reduce
I0714 23:35:22.249877  5922 net.cpp:386] inception_3a/relu_5x5_reduce -> inception_3a/5x5_reduce (in-place)
I0714 23:35:22.251433  5922 net.cpp:141] Setting up inception_3a/relu_5x5_reduce
I0714 23:35:22.251447  5922 net.cpp:148] Top shape: 10 16 28 28 (125440)
I0714 23:35:22.251464  5922 net.cpp:156] Memory required for data: 223784960
I0714 23:35:22.251469  5922 layer_factory.hpp:77] Creating layer inception_3a/5x5
I0714 23:35:22.251485  5922 net.cpp:91] Creating Layer inception_3a/5x5
I0714 23:35:22.251492  5922 net.cpp:425] inception_3a/5x5 <- inception_3a/5x5_reduce
I0714 23:35:22.251504  5922 net.cpp:399] inception_3a/5x5 -> inception_3a/5x5
I0714 23:35:22.254160  5918 net.cpp:141] Setting up inception_3a/5x5
I0714 23:35:22.254178  5918 net.cpp:148] Top shape: 10 32 28 28 (250880)
I0714 23:35:22.254182  5918 net.cpp:156] Memory required for data: 224788480
I0714 23:35:22.254191  5918 layer_factory.hpp:77] Creating layer inception_3a/relu_5x5
I0714 23:35:22.254201  5918 net.cpp:91] Creating Layer inception_3a/relu_5x5
I0714 23:35:22.254206  5918 net.cpp:425] inception_3a/relu_5x5 <- inception_3a/5x5
I0714 23:35:22.254216  5918 net.cpp:386] inception_3a/relu_5x5 -> inception_3a/5x5 (in-place)
I0714 23:35:22.256220  5918 net.cpp:141] Setting up inception_3a/relu_5x5
I0714 23:35:22.256238  5918 net.cpp:148] Top shape: 10 32 28 28 (250880)
I0714 23:35:22.256243  5918 net.cpp:156] Memory required for data: 225792000
I0714 23:35:22.256249  5918 layer_factory.hpp:77] Creating layer inception_3a/pool
I0714 23:35:22.256263  5918 net.cpp:91] Creating Layer inception_3a/pool
I0714 23:35:22.256269  5918 net.cpp:425] inception_3a/pool <- pool2/3x3_s2_pool2/3x3_s2_0_split_3
I0714 23:35:22.256278  5918 net.cpp:399] inception_3a/pool -> inception_3a/pool
I0714 23:35:22.256925  5922 net.cpp:141] Setting up inception_3a/5x5
I0714 23:35:22.256942  5922 net.cpp:148] Top shape: 10 32 28 28 (250880)
I0714 23:35:22.256947  5922 net.cpp:156] Memory required for data: 224788480
I0714 23:35:22.256947  5918 net.cpp:141] Setting up inception_3a/pool
I0714 23:35:22.256958  5922 layer_factory.hpp:77] Creating layer inception_3a/relu_5x5
I0714 23:35:22.256958  5918 net.cpp:148] Top shape: 10 192 28 28 (1505280)
I0714 23:35:22.256969  5918 net.cpp:156] Memory required for data: 231813120
I0714 23:35:22.256969  5922 net.cpp:91] Creating Layer inception_3a/relu_5x5
I0714 23:35:22.256978  5918 layer_factory.hpp:77] Creating layer inception_3a/pool_proj
I0714 23:35:22.256983  5922 net.cpp:425] inception_3a/relu_5x5 <- inception_3a/5x5
I0714 23:35:22.256990  5922 net.cpp:386] inception_3a/relu_5x5 -> inception_3a/5x5 (in-place)
I0714 23:35:22.256995  5918 net.cpp:91] Creating Layer inception_3a/pool_proj
I0714 23:35:22.257001  5918 net.cpp:425] inception_3a/pool_proj <- inception_3a/pool
I0714 23:35:22.257010  5918 net.cpp:399] inception_3a/pool_proj -> inception_3a/pool_proj
I0714 23:35:22.258162  5922 net.cpp:141] Setting up inception_3a/relu_5x5
I0714 23:35:22.258174  5922 net.cpp:148] Top shape: 10 32 28 28 (250880)
I0714 23:35:22.258193  5922 net.cpp:156] Memory required for data: 225792000
I0714 23:35:22.258198  5922 layer_factory.hpp:77] Creating layer inception_3a/pool
I0714 23:35:22.258208  5922 net.cpp:91] Creating Layer inception_3a/pool
I0714 23:35:22.258213  5922 net.cpp:425] inception_3a/pool <- pool2/3x3_s2_pool2/3x3_s2_0_split_3
I0714 23:35:22.258220  5922 net.cpp:399] inception_3a/pool -> inception_3a/pool
I0714 23:35:22.258364  5922 net.cpp:141] Setting up inception_3a/pool
I0714 23:35:22.258375  5922 net.cpp:148] Top shape: 10 192 28 28 (1505280)
I0714 23:35:22.258379  5922 net.cpp:156] Memory required for data: 231813120
I0714 23:35:22.258383  5922 layer_factory.hpp:77] Creating layer inception_3a/pool_proj
I0714 23:35:22.258399  5922 net.cpp:91] Creating Layer inception_3a/pool_proj
I0714 23:35:22.258404  5922 net.cpp:425] inception_3a/pool_proj <- inception_3a/pool
I0714 23:35:22.258415  5922 net.cpp:399] inception_3a/pool_proj -> inception_3a/pool_proj
I0714 23:35:22.260927  5918 net.cpp:141] Setting up inception_3a/pool_proj
I0714 23:35:22.260957  5918 net.cpp:148] Top shape: 10 32 28 28 (250880)
I0714 23:35:22.260962  5918 net.cpp:156] Memory required for data: 232816640
I0714 23:35:22.260977  5918 layer_factory.hpp:77] Creating layer inception_3a/relu_pool_proj
I0714 23:35:22.260987  5918 net.cpp:91] Creating Layer inception_3a/relu_pool_proj
I0714 23:35:22.260993  5918 net.cpp:425] inception_3a/relu_pool_proj <- inception_3a/pool_proj
I0714 23:35:22.261000  5918 net.cpp:386] inception_3a/relu_pool_proj -> inception_3a/pool_proj (in-place)
I0714 23:35:22.261982  5918 net.cpp:141] Setting up inception_3a/relu_pool_proj
I0714 23:35:22.261996  5918 net.cpp:148] Top shape: 10 32 28 28 (250880)
I0714 23:35:22.262013  5918 net.cpp:156] Memory required for data: 233820160
I0714 23:35:22.262018  5918 layer_factory.hpp:77] Creating layer inception_3a/output
I0714 23:35:22.262037  5918 net.cpp:91] Creating Layer inception_3a/output
I0714 23:35:22.262042  5918 net.cpp:425] inception_3a/output <- inception_3a/1x1
I0714 23:35:22.262048  5918 net.cpp:425] inception_3a/output <- inception_3a/3x3
I0714 23:35:22.262053  5918 net.cpp:425] inception_3a/output <- inception_3a/5x5
I0714 23:35:22.262058  5918 net.cpp:425] inception_3a/output <- inception_3a/pool_proj
I0714 23:35:22.262065  5918 net.cpp:399] inception_3a/output -> inception_3a/output
I0714 23:35:22.262173  5918 net.cpp:141] Setting up inception_3a/output
I0714 23:35:22.262184  5918 net.cpp:148] Top shape: 10 256 28 28 (2007040)
I0714 23:35:22.262188  5918 net.cpp:156] Memory required for data: 241848320
I0714 23:35:22.262193  5918 layer_factory.hpp:77] Creating layer inception_3a/output_inception_3a/output_0_split
I0714 23:35:22.262195  5922 net.cpp:141] Setting up inception_3a/pool_proj
I0714 23:35:22.262202  5918 net.cpp:91] Creating Layer inception_3a/output_inception_3a/output_0_split
I0714 23:35:22.262212  5918 net.cpp:425] inception_3a/output_inception_3a/output_0_split <- inception_3a/output
I0714 23:35:22.262217  5922 net.cpp:148] Top shape: 10 32 28 28 (250880)
I0714 23:35:22.262223  5922 net.cpp:156] Memory required for data: 232816640
I0714 23:35:22.262223  5918 net.cpp:399] inception_3a/output_inception_3a/output_0_split -> inception_3a/output_inception_3a/output_0_split_0
I0714 23:35:22.262233  5918 net.cpp:399] inception_3a/output_inception_3a/output_0_split -> inception_3a/output_inception_3a/output_0_split_1
I0714 23:35:22.262236  5922 layer_factory.hpp:77] Creating layer inception_3a/relu_pool_proj
I0714 23:35:22.262241  5918 net.cpp:399] inception_3a/output_inception_3a/output_0_split -> inception_3a/output_inception_3a/output_0_split_2
I0714 23:35:22.262248  5922 net.cpp:91] Creating Layer inception_3a/relu_pool_proj
I0714 23:35:22.262249  5918 net.cpp:399] inception_3a/output_inception_3a/output_0_split -> inception_3a/output_inception_3a/output_0_split_3
I0714 23:35:22.262253  5922 net.cpp:425] inception_3a/relu_pool_proj <- inception_3a/pool_proj
I0714 23:35:22.262259  5922 net.cpp:386] inception_3a/relu_pool_proj -> inception_3a/pool_proj (in-place)
I0714 23:35:22.262995  5918 net.cpp:141] Setting up inception_3a/output_inception_3a/output_0_split
I0714 23:35:22.263008  5918 net.cpp:148] Top shape: 10 256 28 28 (2007040)
I0714 23:35:22.263015  5918 net.cpp:148] Top shape: 10 256 28 28 (2007040)
I0714 23:35:22.263020  5918 net.cpp:148] Top shape: 10 256 28 28 (2007040)
I0714 23:35:22.263025  5918 net.cpp:148] Top shape: 10 256 28 28 (2007040)
I0714 23:35:22.263028  5918 net.cpp:156] Memory required for data: 273960960
I0714 23:35:22.263032  5918 layer_factory.hpp:77] Creating layer inception_3b/1x1
I0714 23:35:22.263056  5918 net.cpp:91] Creating Layer inception_3b/1x1
I0714 23:35:22.263062  5918 net.cpp:425] inception_3b/1x1 <- inception_3a/output_inception_3a/output_0_split_0
I0714 23:35:22.263069  5918 net.cpp:399] inception_3b/1x1 -> inception_3b/1x1
I0714 23:35:22.263084  5922 net.cpp:141] Setting up inception_3a/relu_pool_proj
I0714 23:35:22.263098  5922 net.cpp:148] Top shape: 10 32 28 28 (250880)
I0714 23:35:22.263104  5922 net.cpp:156] Memory required for data: 233820160
I0714 23:35:22.263109  5922 layer_factory.hpp:77] Creating layer inception_3a/output
I0714 23:35:22.263118  5922 net.cpp:91] Creating Layer inception_3a/output
I0714 23:35:22.263123  5922 net.cpp:425] inception_3a/output <- inception_3a/1x1
I0714 23:35:22.263128  5922 net.cpp:425] inception_3a/output <- inception_3a/3x3
I0714 23:35:22.263134  5922 net.cpp:425] inception_3a/output <- inception_3a/5x5
I0714 23:35:22.263139  5922 net.cpp:425] inception_3a/output <- inception_3a/pool_proj
I0714 23:35:22.263144  5922 net.cpp:399] inception_3a/output -> inception_3a/output
I0714 23:35:22.263264  5922 net.cpp:141] Setting up inception_3a/output
I0714 23:35:22.263276  5922 net.cpp:148] Top shape: 10 256 28 28 (2007040)
I0714 23:35:22.263280  5922 net.cpp:156] Memory required for data: 241848320
I0714 23:35:22.263284  5922 layer_factory.hpp:77] Creating layer inception_3a/output_inception_3a/output_0_split
I0714 23:35:22.263293  5922 net.cpp:91] Creating Layer inception_3a/output_inception_3a/output_0_split
I0714 23:35:22.263298  5922 net.cpp:425] inception_3a/output_inception_3a/output_0_split <- inception_3a/output
I0714 23:35:22.263309  5922 net.cpp:399] inception_3a/output_inception_3a/output_0_split -> inception_3a/output_inception_3a/output_0_split_0
I0714 23:35:22.263319  5922 net.cpp:399] inception_3a/output_inception_3a/output_0_split -> inception_3a/output_inception_3a/output_0_split_1
I0714 23:35:22.263327  5922 net.cpp:399] inception_3a/output_inception_3a/output_0_split -> inception_3a/output_inception_3a/output_0_split_2
I0714 23:35:22.263334  5922 net.cpp:399] inception_3a/output_inception_3a/output_0_split -> inception_3a/output_inception_3a/output_0_split_3
I0714 23:35:22.263423  5922 net.cpp:141] Setting up inception_3a/output_inception_3a/output_0_split
I0714 23:35:22.263432  5922 net.cpp:148] Top shape: 10 256 28 28 (2007040)
I0714 23:35:22.263438  5922 net.cpp:148] Top shape: 10 256 28 28 (2007040)
I0714 23:35:22.263443  5922 net.cpp:148] Top shape: 10 256 28 28 (2007040)
I0714 23:35:22.263448  5922 net.cpp:148] Top shape: 10 256 28 28 (2007040)
I0714 23:35:22.263453  5922 net.cpp:156] Memory required for data: 273960960
I0714 23:35:22.263456  5922 layer_factory.hpp:77] Creating layer inception_3b/1x1
I0714 23:35:22.263471  5922 net.cpp:91] Creating Layer inception_3b/1x1
I0714 23:35:22.263476  5922 net.cpp:425] inception_3b/1x1 <- inception_3a/output_inception_3a/output_0_split_0
I0714 23:35:22.263484  5922 net.cpp:399] inception_3b/1x1 -> inception_3b/1x1
I0714 23:35:22.267138  5918 net.cpp:141] Setting up inception_3b/1x1
I0714 23:35:22.267154  5918 net.cpp:148] Top shape: 10 128 28 28 (1003520)
I0714 23:35:22.267159  5918 net.cpp:156] Memory required for data: 277975040
I0714 23:35:22.267169  5918 layer_factory.hpp:77] Creating layer inception_3b/relu_1x1
I0714 23:35:22.267181  5918 net.cpp:91] Creating Layer inception_3b/relu_1x1
I0714 23:35:22.267187  5918 net.cpp:425] inception_3b/relu_1x1 <- inception_3b/1x1
I0714 23:35:22.267194  5918 net.cpp:386] inception_3b/relu_1x1 -> inception_3b/1x1 (in-place)
I0714 23:35:22.267803  5922 net.cpp:141] Setting up inception_3b/1x1
I0714 23:35:22.267832  5922 net.cpp:148] Top shape: 10 128 28 28 (1003520)
I0714 23:35:22.267837  5922 net.cpp:156] Memory required for data: 277975040
I0714 23:35:22.267848  5922 layer_factory.hpp:77] Creating layer inception_3b/relu_1x1
I0714 23:35:22.267856  5922 net.cpp:91] Creating Layer inception_3b/relu_1x1
I0714 23:35:22.267861  5922 net.cpp:425] inception_3b/relu_1x1 <- inception_3b/1x1
I0714 23:35:22.267870  5922 net.cpp:386] inception_3b/relu_1x1 -> inception_3b/1x1 (in-place)
I0714 23:35:22.268290  5922 net.cpp:141] Setting up inception_3b/relu_1x1
I0714 23:35:22.268304  5922 net.cpp:148] Top shape: 10 128 28 28 (1003520)
I0714 23:35:22.268308  5922 net.cpp:156] Memory required for data: 281989120
I0714 23:35:22.268313  5922 layer_factory.hpp:77] Creating layer inception_3b/3x3_reduce
I0714 23:35:22.268313  5918 net.cpp:141] Setting up inception_3b/relu_1x1
I0714 23:35:22.268327  5918 net.cpp:148] Top shape: 10 128 28 28 (1003520)
I0714 23:35:22.268329  5922 net.cpp:91] Creating Layer inception_3b/3x3_reduce
I0714 23:35:22.268332  5918 net.cpp:156] Memory required for data: 281989120
I0714 23:35:22.268339  5922 net.cpp:425] inception_3b/3x3_reduce <- inception_3a/output_inception_3a/output_0_split_1
I0714 23:35:22.268343  5918 layer_factory.hpp:77] Creating layer inception_3b/3x3_reduce
I0714 23:35:22.268349  5922 net.cpp:399] inception_3b/3x3_reduce -> inception_3b/3x3_reduce
I0714 23:35:22.268362  5918 net.cpp:91] Creating Layer inception_3b/3x3_reduce
I0714 23:35:22.268368  5918 net.cpp:425] inception_3b/3x3_reduce <- inception_3a/output_inception_3a/output_0_split_1
I0714 23:35:22.268376  5918 net.cpp:399] inception_3b/3x3_reduce -> inception_3b/3x3_reduce
I0714 23:35:22.272786  5918 net.cpp:141] Setting up inception_3b/3x3_reduce
I0714 23:35:22.272815  5918 net.cpp:148] Top shape: 10 128 28 28 (1003520)
I0714 23:35:22.272821  5918 net.cpp:156] Memory required for data: 286003200
I0714 23:35:22.272830  5918 layer_factory.hpp:77] Creating layer inception_3b/relu_3x3_reduce
I0714 23:35:22.272842  5918 net.cpp:91] Creating Layer inception_3b/relu_3x3_reduce
I0714 23:35:22.272848  5918 net.cpp:425] inception_3b/relu_3x3_reduce <- inception_3b/3x3_reduce
I0714 23:35:22.272856  5918 net.cpp:386] inception_3b/relu_3x3_reduce -> inception_3b/3x3_reduce (in-place)
I0714 23:35:22.273629  5922 net.cpp:141] Setting up inception_3b/3x3_reduce
I0714 23:35:22.273645  5922 net.cpp:148] Top shape: 10 128 28 28 (1003520)
I0714 23:35:22.273650  5922 net.cpp:156] Memory required for data: 286003200
I0714 23:35:22.273659  5922 layer_factory.hpp:77] Creating layer inception_3b/relu_3x3_reduce
I0714 23:35:22.273669  5922 net.cpp:91] Creating Layer inception_3b/relu_3x3_reduce
I0714 23:35:22.273675  5922 net.cpp:425] inception_3b/relu_3x3_reduce <- inception_3b/3x3_reduce
I0714 23:35:22.273682  5922 net.cpp:386] inception_3b/relu_3x3_reduce -> inception_3b/3x3_reduce (in-place)
I0714 23:35:22.273686  5918 net.cpp:141] Setting up inception_3b/relu_3x3_reduce
I0714 23:35:22.273699  5918 net.cpp:148] Top shape: 10 128 28 28 (1003520)
I0714 23:35:22.273705  5918 net.cpp:156] Memory required for data: 290017280
I0714 23:35:22.273710  5918 layer_factory.hpp:77] Creating layer inception_3b/3x3
I0714 23:35:22.273728  5918 net.cpp:91] Creating Layer inception_3b/3x3
I0714 23:35:22.273735  5918 net.cpp:425] inception_3b/3x3 <- inception_3b/3x3_reduce
I0714 23:35:22.273743  5918 net.cpp:399] inception_3b/3x3 -> inception_3b/3x3
I0714 23:35:22.275159  5922 net.cpp:141] Setting up inception_3b/relu_3x3_reduce
I0714 23:35:22.275187  5922 net.cpp:148] Top shape: 10 128 28 28 (1003520)
I0714 23:35:22.275192  5922 net.cpp:156] Memory required for data: 290017280
I0714 23:35:22.275197  5922 layer_factory.hpp:77] Creating layer inception_3b/3x3
I0714 23:35:22.275210  5922 net.cpp:91] Creating Layer inception_3b/3x3
I0714 23:35:22.275216  5922 net.cpp:425] inception_3b/3x3 <- inception_3b/3x3_reduce
I0714 23:35:22.275225  5922 net.cpp:399] inception_3b/3x3 -> inception_3b/3x3
I0714 23:35:22.280359  5918 net.cpp:141] Setting up inception_3b/3x3
I0714 23:35:22.280388  5918 net.cpp:148] Top shape: 10 192 28 28 (1505280)
I0714 23:35:22.280395  5918 net.cpp:156] Memory required for data: 296038400
I0714 23:35:22.280403  5918 layer_factory.hpp:77] Creating layer inception_3b/relu_3x3
I0714 23:35:22.280423  5918 net.cpp:91] Creating Layer inception_3b/relu_3x3
I0714 23:35:22.280431  5918 net.cpp:425] inception_3b/relu_3x3 <- inception_3b/3x3
I0714 23:35:22.280439  5918 net.cpp:386] inception_3b/relu_3x3 -> inception_3b/3x3 (in-place)
I0714 23:35:22.281488  5918 net.cpp:141] Setting up inception_3b/relu_3x3
I0714 23:35:22.281513  5918 net.cpp:148] Top shape: 10 192 28 28 (1505280)
I0714 23:35:22.281519  5918 net.cpp:156] Memory required for data: 302059520
I0714 23:35:22.281524  5918 layer_factory.hpp:77] Creating layer inception_3b/5x5_reduce
I0714 23:35:22.281543  5918 net.cpp:91] Creating Layer inception_3b/5x5_reduce
I0714 23:35:22.281548  5918 net.cpp:425] inception_3b/5x5_reduce <- inception_3a/output_inception_3a/output_0_split_2
I0714 23:35:22.281558  5918 net.cpp:399] inception_3b/5x5_reduce -> inception_3b/5x5_reduce
I0714 23:35:22.281747  5922 net.cpp:141] Setting up inception_3b/3x3
I0714 23:35:22.281762  5922 net.cpp:148] Top shape: 10 192 28 28 (1505280)
I0714 23:35:22.281766  5922 net.cpp:156] Memory required for data: 296038400
I0714 23:35:22.281775  5922 layer_factory.hpp:77] Creating layer inception_3b/relu_3x3
I0714 23:35:22.281791  5922 net.cpp:91] Creating Layer inception_3b/relu_3x3
I0714 23:35:22.281798  5922 net.cpp:425] inception_3b/relu_3x3 <- inception_3b/3x3
I0714 23:35:22.281807  5922 net.cpp:386] inception_3b/relu_3x3 -> inception_3b/3x3 (in-place)
I0714 23:35:22.282871  5922 net.cpp:141] Setting up inception_3b/relu_3x3
I0714 23:35:22.282886  5922 net.cpp:148] Top shape: 10 192 28 28 (1505280)
I0714 23:35:22.282891  5922 net.cpp:156] Memory required for data: 302059520
I0714 23:35:22.282896  5922 layer_factory.hpp:77] Creating layer inception_3b/5x5_reduce
I0714 23:35:22.282909  5922 net.cpp:91] Creating Layer inception_3b/5x5_reduce
I0714 23:35:22.282915  5922 net.cpp:425] inception_3b/5x5_reduce <- inception_3a/output_inception_3a/output_0_split_2
I0714 23:35:22.282927  5922 net.cpp:399] inception_3b/5x5_reduce -> inception_3b/5x5_reduce
I0714 23:35:22.285899  5918 net.cpp:141] Setting up inception_3b/5x5_reduce
I0714 23:35:22.285915  5918 net.cpp:148] Top shape: 10 32 28 28 (250880)
I0714 23:35:22.285933  5918 net.cpp:156] Memory required for data: 303063040
I0714 23:35:22.285943  5918 layer_factory.hpp:77] Creating layer inception_3b/relu_5x5_reduce
I0714 23:35:22.285960  5918 net.cpp:91] Creating Layer inception_3b/relu_5x5_reduce
I0714 23:35:22.285966  5918 net.cpp:425] inception_3b/relu_5x5_reduce <- inception_3b/5x5_reduce
I0714 23:35:22.285974  5918 net.cpp:386] inception_3b/relu_5x5_reduce -> inception_3b/5x5_reduce (in-place)
I0714 23:35:22.286943  5918 net.cpp:141] Setting up inception_3b/relu_5x5_reduce
I0714 23:35:22.286957  5918 net.cpp:148] Top shape: 10 32 28 28 (250880)
I0714 23:35:22.286962  5918 net.cpp:156] Memory required for data: 304066560
I0714 23:35:22.286967  5918 layer_factory.hpp:77] Creating layer inception_3b/5x5
I0714 23:35:22.286983  5918 net.cpp:91] Creating Layer inception_3b/5x5
I0714 23:35:22.286988  5918 net.cpp:425] inception_3b/5x5 <- inception_3b/5x5_reduce
I0714 23:35:22.286999  5918 net.cpp:399] inception_3b/5x5 -> inception_3b/5x5
I0714 23:35:22.287298  5922 net.cpp:141] Setting up inception_3b/5x5_reduce
I0714 23:35:22.287312  5922 net.cpp:148] Top shape: 10 32 28 28 (250880)
I0714 23:35:22.287317  5922 net.cpp:156] Memory required for data: 303063040
I0714 23:35:22.287327  5922 layer_factory.hpp:77] Creating layer inception_3b/relu_5x5_reduce
I0714 23:35:22.287334  5922 net.cpp:91] Creating Layer inception_3b/relu_5x5_reduce
I0714 23:35:22.287340  5922 net.cpp:425] inception_3b/relu_5x5_reduce <- inception_3b/5x5_reduce
I0714 23:35:22.287346  5922 net.cpp:386] inception_3b/relu_5x5_reduce -> inception_3b/5x5_reduce (in-place)
I0714 23:35:22.288661  5922 net.cpp:141] Setting up inception_3b/relu_5x5_reduce
I0714 23:35:22.288674  5922 net.cpp:148] Top shape: 10 32 28 28 (250880)
I0714 23:35:22.288679  5922 net.cpp:156] Memory required for data: 304066560
I0714 23:35:22.288683  5922 layer_factory.hpp:77] Creating layer inception_3b/5x5
I0714 23:35:22.288699  5922 net.cpp:91] Creating Layer inception_3b/5x5
I0714 23:35:22.288704  5922 net.cpp:425] inception_3b/5x5 <- inception_3b/5x5_reduce
I0714 23:35:22.288717  5922 net.cpp:399] inception_3b/5x5 -> inception_3b/5x5
I0714 23:35:22.293052  5918 net.cpp:141] Setting up inception_3b/5x5
I0714 23:35:22.293068  5918 net.cpp:148] Top shape: 10 96 28 28 (752640)
I0714 23:35:22.293073  5918 net.cpp:156] Memory required for data: 307077120
I0714 23:35:22.293082  5918 layer_factory.hpp:77] Creating layer inception_3b/relu_5x5
I0714 23:35:22.293094  5918 net.cpp:91] Creating Layer inception_3b/relu_5x5
I0714 23:35:22.293100  5918 net.cpp:425] inception_3b/relu_5x5 <- inception_3b/5x5
I0714 23:35:22.293107  5918 net.cpp:386] inception_3b/relu_5x5 -> inception_3b/5x5 (in-place)
I0714 23:35:22.293932  5922 net.cpp:141] Setting up inception_3b/5x5
I0714 23:35:22.293951  5922 net.cpp:148] Top shape: 10 96 28 28 (752640)
I0714 23:35:22.293956  5922 net.cpp:156] Memory required for data: 307077120
I0714 23:35:22.293964  5922 layer_factory.hpp:77] Creating layer inception_3b/relu_5x5
I0714 23:35:22.293973  5922 net.cpp:91] Creating Layer inception_3b/relu_5x5
I0714 23:35:22.293978  5922 net.cpp:425] inception_3b/relu_5x5 <- inception_3b/5x5
I0714 23:35:22.293987  5922 net.cpp:386] inception_3b/relu_5x5 -> inception_3b/5x5 (in-place)
I0714 23:35:22.293990  5918 net.cpp:141] Setting up inception_3b/relu_5x5
I0714 23:35:22.294004  5918 net.cpp:148] Top shape: 10 96 28 28 (752640)
I0714 23:35:22.294008  5918 net.cpp:156] Memory required for data: 310087680
I0714 23:35:22.294014  5918 layer_factory.hpp:77] Creating layer inception_3b/pool
I0714 23:35:22.294024  5918 net.cpp:91] Creating Layer inception_3b/pool
I0714 23:35:22.294030  5918 net.cpp:425] inception_3b/pool <- inception_3a/output_inception_3a/output_0_split_3
I0714 23:35:22.294040  5918 net.cpp:399] inception_3b/pool -> inception_3b/pool
I0714 23:35:22.294219  5918 net.cpp:141] Setting up inception_3b/pool
I0714 23:35:22.294230  5918 net.cpp:148] Top shape: 10 256 28 28 (2007040)
I0714 23:35:22.294234  5918 net.cpp:156] Memory required for data: 318115840
I0714 23:35:22.294239  5918 layer_factory.hpp:77] Creating layer inception_3b/pool_proj
I0714 23:35:22.294255  5918 net.cpp:91] Creating Layer inception_3b/pool_proj
I0714 23:35:22.294260  5918 net.cpp:425] inception_3b/pool_proj <- inception_3b/pool
I0714 23:35:22.294270  5918 net.cpp:399] inception_3b/pool_proj -> inception_3b/pool_proj
I0714 23:35:22.294345  5922 net.cpp:141] Setting up inception_3b/relu_5x5
I0714 23:35:22.294358  5922 net.cpp:148] Top shape: 10 96 28 28 (752640)
I0714 23:35:22.294361  5922 net.cpp:156] Memory required for data: 310087680
I0714 23:35:22.294366  5922 layer_factory.hpp:77] Creating layer inception_3b/pool
I0714 23:35:22.294378  5922 net.cpp:91] Creating Layer inception_3b/pool
I0714 23:35:22.294384  5922 net.cpp:425] inception_3b/pool <- inception_3a/output_inception_3a/output_0_split_3
I0714 23:35:22.294391  5922 net.cpp:399] inception_3b/pool -> inception_3b/pool
I0714 23:35:22.294564  5922 net.cpp:141] Setting up inception_3b/pool
I0714 23:35:22.294575  5922 net.cpp:148] Top shape: 10 256 28 28 (2007040)
I0714 23:35:22.294579  5922 net.cpp:156] Memory required for data: 318115840
I0714 23:35:22.294584  5922 layer_factory.hpp:77] Creating layer inception_3b/pool_proj
I0714 23:35:22.294597  5922 net.cpp:91] Creating Layer inception_3b/pool_proj
I0714 23:35:22.294603  5922 net.cpp:425] inception_3b/pool_proj <- inception_3b/pool
I0714 23:35:22.294615  5922 net.cpp:399] inception_3b/pool_proj -> inception_3b/pool_proj
I0714 23:35:22.299044  5922 net.cpp:141] Setting up inception_3b/pool_proj
I0714 23:35:22.299073  5922 net.cpp:148] Top shape: 10 64 28 28 (501760)
I0714 23:35:22.299078  5922 net.cpp:156] Memory required for data: 320122880
I0714 23:35:22.299088  5922 layer_factory.hpp:77] Creating layer inception_3b/relu_pool_proj
I0714 23:35:22.299095  5922 net.cpp:91] Creating Layer inception_3b/relu_pool_proj
I0714 23:35:22.299101  5922 net.cpp:425] inception_3b/relu_pool_proj <- inception_3b/pool_proj
I0714 23:35:22.299110  5922 net.cpp:386] inception_3b/relu_pool_proj -> inception_3b/pool_proj (in-place)
I0714 23:35:22.299124  5918 net.cpp:141] Setting up inception_3b/pool_proj
I0714 23:35:22.299139  5918 net.cpp:148] Top shape: 10 64 28 28 (501760)
I0714 23:35:22.299144  5918 net.cpp:156] Memory required for data: 320122880
I0714 23:35:22.299160  5918 layer_factory.hpp:77] Creating layer inception_3b/relu_pool_proj
I0714 23:35:22.299170  5918 net.cpp:91] Creating Layer inception_3b/relu_pool_proj
I0714 23:35:22.299175  5918 net.cpp:425] inception_3b/relu_pool_proj <- inception_3b/pool_proj
I0714 23:35:22.299183  5918 net.cpp:386] inception_3b/relu_pool_proj -> inception_3b/pool_proj (in-place)
I0714 23:35:22.300112  5922 net.cpp:141] Setting up inception_3b/relu_pool_proj
I0714 23:35:22.300125  5922 net.cpp:148] Top shape: 10 64 28 28 (501760)
I0714 23:35:22.300143  5922 net.cpp:156] Memory required for data: 322129920
I0714 23:35:22.300148  5922 layer_factory.hpp:77] Creating layer inception_3b/output
I0714 23:35:22.300151  5918 net.cpp:141] Setting up inception_3b/relu_pool_proj
I0714 23:35:22.300159  5922 net.cpp:91] Creating Layer inception_3b/output
I0714 23:35:22.300164  5918 net.cpp:148] Top shape: 10 64 28 28 (501760)
I0714 23:35:22.300164  5922 net.cpp:425] inception_3b/output <- inception_3b/1x1
I0714 23:35:22.300173  5918 net.cpp:156] Memory required for data: 322129920
I0714 23:35:22.300179  5918 layer_factory.hpp:77] Creating layer inception_3b/output
I0714 23:35:22.300179  5922 net.cpp:425] inception_3b/output <- inception_3b/3x3
I0714 23:35:22.300189  5918 net.cpp:91] Creating Layer inception_3b/output
I0714 23:35:22.300190  5922 net.cpp:425] inception_3b/output <- inception_3b/5x5
I0714 23:35:22.300197  5918 net.cpp:425] inception_3b/output <- inception_3b/1x1
I0714 23:35:22.300200  5922 net.cpp:425] inception_3b/output <- inception_3b/pool_proj
I0714 23:35:22.300204  5918 net.cpp:425] inception_3b/output <- inception_3b/3x3
I0714 23:35:22.300207  5922 net.cpp:399] inception_3b/output -> inception_3b/output
I0714 23:35:22.300209  5918 net.cpp:425] inception_3b/output <- inception_3b/5x5
I0714 23:35:22.300215  5918 net.cpp:425] inception_3b/output <- inception_3b/pool_proj
I0714 23:35:22.300225  5918 net.cpp:399] inception_3b/output -> inception_3b/output
I0714 23:35:22.300257  5922 net.cpp:141] Setting up inception_3b/output
I0714 23:35:22.300267  5922 net.cpp:148] Top shape: 10 480 28 28 (3763200)
I0714 23:35:22.300271  5922 net.cpp:156] Memory required for data: 337182720
I0714 23:35:22.300276  5922 layer_factory.hpp:77] Creating layer pool3/3x3_s2
I0714 23:35:22.300283  5922 net.cpp:91] Creating Layer pool3/3x3_s2
I0714 23:35:22.300288  5922 net.cpp:425] pool3/3x3_s2 <- inception_3b/output
I0714 23:35:22.300292  5918 net.cpp:141] Setting up inception_3b/output
I0714 23:35:22.300298  5922 net.cpp:399] pool3/3x3_s2 -> pool3/3x3_s2
I0714 23:35:22.300303  5918 net.cpp:148] Top shape: 10 480 28 28 (3763200)
I0714 23:35:22.300307  5918 net.cpp:156] Memory required for data: 337182720
I0714 23:35:22.300312  5918 layer_factory.hpp:77] Creating layer pool3/3x3_s2
I0714 23:35:22.300324  5918 net.cpp:91] Creating Layer pool3/3x3_s2
I0714 23:35:22.300329  5918 net.cpp:425] pool3/3x3_s2 <- inception_3b/output
I0714 23:35:22.300336  5918 net.cpp:399] pool3/3x3_s2 -> pool3/3x3_s2
I0714 23:35:22.300423  5922 net.cpp:141] Setting up pool3/3x3_s2
I0714 23:35:22.300436  5922 net.cpp:148] Top shape: 10 480 14 14 (940800)
I0714 23:35:22.300439  5922 net.cpp:156] Memory required for data: 340945920
I0714 23:35:22.300443  5922 layer_factory.hpp:77] Creating layer pool3/3x3_s2_pool3/3x3_s2_0_split
I0714 23:35:22.300451  5922 net.cpp:91] Creating Layer pool3/3x3_s2_pool3/3x3_s2_0_split
I0714 23:35:22.300458  5922 net.cpp:425] pool3/3x3_s2_pool3/3x3_s2_0_split <- pool3/3x3_s2
I0714 23:35:22.300465  5922 net.cpp:399] pool3/3x3_s2_pool3/3x3_s2_0_split -> pool3/3x3_s2_pool3/3x3_s2_0_split_0
I0714 23:35:22.300465  5918 net.cpp:141] Setting up pool3/3x3_s2
I0714 23:35:22.300473  5922 net.cpp:399] pool3/3x3_s2_pool3/3x3_s2_0_split -> pool3/3x3_s2_pool3/3x3_s2_0_split_1
I0714 23:35:22.300482  5922 net.cpp:399] pool3/3x3_s2_pool3/3x3_s2_0_split -> pool3/3x3_s2_pool3/3x3_s2_0_split_2
I0714 23:35:22.300489  5922 net.cpp:399] pool3/3x3_s2_pool3/3x3_s2_0_split -> pool3/3x3_s2_pool3/3x3_s2_0_split_3
I0714 23:35:22.300488  5918 net.cpp:148] Top shape: 10 480 14 14 (940800)
I0714 23:35:22.300498  5918 net.cpp:156] Memory required for data: 340945920
I0714 23:35:22.300508  5918 layer_factory.hpp:77] Creating layer pool3/3x3_s2_pool3/3x3_s2_0_split
I0714 23:35:22.300520  5918 net.cpp:91] Creating Layer pool3/3x3_s2_pool3/3x3_s2_0_split
I0714 23:35:22.300529  5918 net.cpp:425] pool3/3x3_s2_pool3/3x3_s2_0_split <- pool3/3x3_s2
I0714 23:35:22.300541  5918 net.cpp:399] pool3/3x3_s2_pool3/3x3_s2_0_split -> pool3/3x3_s2_pool3/3x3_s2_0_split_0
I0714 23:35:22.300555  5918 net.cpp:399] pool3/3x3_s2_pool3/3x3_s2_0_split -> pool3/3x3_s2_pool3/3x3_s2_0_split_1
I0714 23:35:22.300577  5918 net.cpp:399] pool3/3x3_s2_pool3/3x3_s2_0_split -> pool3/3x3_s2_pool3/3x3_s2_0_split_2
I0714 23:35:22.300582  5922 net.cpp:141] Setting up pool3/3x3_s2_pool3/3x3_s2_0_split
I0714 23:35:22.300591  5922 net.cpp:148] Top shape: 10 480 14 14 (940800)
I0714 23:35:22.300595  5918 net.cpp:399] pool3/3x3_s2_pool3/3x3_s2_0_split -> pool3/3x3_s2_pool3/3x3_s2_0_split_3
I0714 23:35:22.300597  5922 net.cpp:148] Top shape: 10 480 14 14 (940800)
I0714 23:35:22.300611  5922 net.cpp:148] Top shape: 10 480 14 14 (940800)
I0714 23:35:22.300616  5922 net.cpp:148] Top shape: 10 480 14 14 (940800)
I0714 23:35:22.300621  5922 net.cpp:156] Memory required for data: 355998720
I0714 23:35:22.300624  5922 layer_factory.hpp:77] Creating layer inception_4a/1x1
I0714 23:35:22.300640  5922 net.cpp:91] Creating Layer inception_4a/1x1
I0714 23:35:22.300647  5922 net.cpp:425] inception_4a/1x1 <- pool3/3x3_s2_pool3/3x3_s2_0_split_0
I0714 23:35:22.300657  5922 net.cpp:399] inception_4a/1x1 -> inception_4a/1x1
I0714 23:35:22.300724  5918 net.cpp:141] Setting up pool3/3x3_s2_pool3/3x3_s2_0_split
I0714 23:35:22.300736  5918 net.cpp:148] Top shape: 10 480 14 14 (940800)
I0714 23:35:22.300742  5918 net.cpp:148] Top shape: 10 480 14 14 (940800)
I0714 23:35:22.300747  5918 net.cpp:148] Top shape: 10 480 14 14 (940800)
I0714 23:35:22.300752  5918 net.cpp:148] Top shape: 10 480 14 14 (940800)
I0714 23:35:22.300756  5918 net.cpp:156] Memory required for data: 355998720
I0714 23:35:22.300761  5918 layer_factory.hpp:77] Creating layer inception_4a/1x1
I0714 23:35:22.300777  5918 net.cpp:91] Creating Layer inception_4a/1x1
I0714 23:35:22.300786  5918 net.cpp:425] inception_4a/1x1 <- pool3/3x3_s2_pool3/3x3_s2_0_split_0
I0714 23:35:22.300794  5918 net.cpp:399] inception_4a/1x1 -> inception_4a/1x1
I0714 23:35:22.306128  5922 net.cpp:141] Setting up inception_4a/1x1
I0714 23:35:22.306159  5922 net.cpp:148] Top shape: 10 192 14 14 (376320)
I0714 23:35:22.306164  5922 net.cpp:156] Memory required for data: 357504000
I0714 23:35:22.306174  5922 layer_factory.hpp:77] Creating layer inception_4a/relu_1x1
I0714 23:35:22.306185  5922 net.cpp:91] Creating Layer inception_4a/relu_1x1
I0714 23:35:22.306191  5922 net.cpp:425] inception_4a/relu_1x1 <- inception_4a/1x1
I0714 23:35:22.306198  5922 net.cpp:386] inception_4a/relu_1x1 -> inception_4a/1x1 (in-place)
I0714 23:35:22.307068  5918 net.cpp:141] Setting up inception_4a/1x1
I0714 23:35:22.307097  5918 net.cpp:148] Top shape: 10 192 14 14 (376320)
I0714 23:35:22.307102  5918 net.cpp:156] Memory required for data: 357504000
I0714 23:35:22.307111  5918 layer_factory.hpp:77] Creating layer inception_4a/relu_1x1
I0714 23:35:22.307121  5918 net.cpp:91] Creating Layer inception_4a/relu_1x1
I0714 23:35:22.307127  5918 net.cpp:425] inception_4a/relu_1x1 <- inception_4a/1x1
I0714 23:35:22.307134  5918 net.cpp:386] inception_4a/relu_1x1 -> inception_4a/1x1 (in-place)
I0714 23:35:22.307149  5922 net.cpp:141] Setting up inception_4a/relu_1x1
I0714 23:35:22.307166  5922 net.cpp:148] Top shape: 10 192 14 14 (376320)
I0714 23:35:22.307171  5922 net.cpp:156] Memory required for data: 359009280
I0714 23:35:22.307176  5922 layer_factory.hpp:77] Creating layer inception_4a/3x3_reduce
I0714 23:35:22.307193  5922 net.cpp:91] Creating Layer inception_4a/3x3_reduce
I0714 23:35:22.307199  5922 net.cpp:425] inception_4a/3x3_reduce <- pool3/3x3_s2_pool3/3x3_s2_0_split_1
I0714 23:35:22.307207  5922 net.cpp:399] inception_4a/3x3_reduce -> inception_4a/3x3_reduce
I0714 23:35:22.307636  5918 net.cpp:141] Setting up inception_4a/relu_1x1
I0714 23:35:22.307648  5918 net.cpp:148] Top shape: 10 192 14 14 (376320)
I0714 23:35:22.307652  5918 net.cpp:156] Memory required for data: 359009280
I0714 23:35:22.307657  5918 layer_factory.hpp:77] Creating layer inception_4a/3x3_reduce
I0714 23:35:22.307674  5918 net.cpp:91] Creating Layer inception_4a/3x3_reduce
I0714 23:35:22.307682  5918 net.cpp:425] inception_4a/3x3_reduce <- pool3/3x3_s2_pool3/3x3_s2_0_split_1
I0714 23:35:22.307690  5918 net.cpp:399] inception_4a/3x3_reduce -> inception_4a/3x3_reduce
I0714 23:35:22.311955  5922 net.cpp:141] Setting up inception_4a/3x3_reduce
I0714 23:35:22.311970  5922 net.cpp:148] Top shape: 10 96 14 14 (188160)
I0714 23:35:22.311988  5922 net.cpp:156] Memory required for data: 359761920
I0714 23:35:22.312006  5922 layer_factory.hpp:77] Creating layer inception_4a/relu_3x3_reduce
I0714 23:35:22.312019  5922 net.cpp:91] Creating Layer inception_4a/relu_3x3_reduce
I0714 23:35:22.312026  5922 net.cpp:425] inception_4a/relu_3x3_reduce <- inception_4a/3x3_reduce
I0714 23:35:22.312032  5922 net.cpp:386] inception_4a/relu_3x3_reduce -> inception_4a/3x3_reduce (in-place)
I0714 23:35:22.312829  5918 net.cpp:141] Setting up inception_4a/3x3_reduce
I0714 23:35:22.312857  5918 net.cpp:148] Top shape: 10 96 14 14 (188160)
I0714 23:35:22.312863  5918 net.cpp:156] Memory required for data: 359761920
I0714 23:35:22.312882  5918 layer_factory.hpp:77] Creating layer inception_4a/relu_3x3_reduce
I0714 23:35:22.312893  5918 net.cpp:91] Creating Layer inception_4a/relu_3x3_reduce
I0714 23:35:22.312899  5918 net.cpp:425] inception_4a/relu_3x3_reduce <- inception_4a/3x3_reduce
I0714 23:35:22.312902  5922 net.cpp:141] Setting up inception_4a/relu_3x3_reduce
I0714 23:35:22.312906  5918 net.cpp:386] inception_4a/relu_3x3_reduce -> inception_4a/3x3_reduce (in-place)
I0714 23:35:22.312918  5922 net.cpp:148] Top shape: 10 96 14 14 (188160)
I0714 23:35:22.312923  5922 net.cpp:156] Memory required for data: 360514560
I0714 23:35:22.312928  5922 layer_factory.hpp:77] Creating layer inception_4a/3x3
I0714 23:35:22.312949  5922 net.cpp:91] Creating Layer inception_4a/3x3
I0714 23:35:22.312955  5922 net.cpp:425] inception_4a/3x3 <- inception_4a/3x3_reduce
I0714 23:35:22.312964  5922 net.cpp:399] inception_4a/3x3 -> inception_4a/3x3
I0714 23:35:22.314522  5918 net.cpp:141] Setting up inception_4a/relu_3x3_reduce
I0714 23:35:22.314548  5918 net.cpp:148] Top shape: 10 96 14 14 (188160)
I0714 23:35:22.314555  5918 net.cpp:156] Memory required for data: 360514560
I0714 23:35:22.314565  5918 layer_factory.hpp:77] Creating layer inception_4a/3x3
I0714 23:35:22.314597  5918 net.cpp:91] Creating Layer inception_4a/3x3
I0714 23:35:22.314609  5918 net.cpp:425] inception_4a/3x3 <- inception_4a/3x3_reduce
I0714 23:35:22.314623  5918 net.cpp:399] inception_4a/3x3 -> inception_4a/3x3
I0714 23:35:22.319015  5922 net.cpp:141] Setting up inception_4a/3x3
I0714 23:35:22.319044  5922 net.cpp:148] Top shape: 10 208 14 14 (407680)
I0714 23:35:22.319049  5922 net.cpp:156] Memory required for data: 362145280
I0714 23:35:22.319058  5922 layer_factory.hpp:77] Creating layer inception_4a/relu_3x3
I0714 23:35:22.319072  5922 net.cpp:91] Creating Layer inception_4a/relu_3x3
I0714 23:35:22.319077  5922 net.cpp:425] inception_4a/relu_3x3 <- inception_4a/3x3
I0714 23:35:22.319084  5922 net.cpp:386] inception_4a/relu_3x3 -> inception_4a/3x3 (in-place)
I0714 23:35:22.320062  5922 net.cpp:141] Setting up inception_4a/relu_3x3
I0714 23:35:22.320089  5922 net.cpp:148] Top shape: 10 208 14 14 (407680)
I0714 23:35:22.320094  5922 net.cpp:156] Memory required for data: 363776000
I0714 23:35:22.320099  5922 layer_factory.hpp:77] Creating layer inception_4a/5x5_reduce
I0714 23:35:22.320117  5922 net.cpp:91] Creating Layer inception_4a/5x5_reduce
I0714 23:35:22.320123  5922 net.cpp:425] inception_4a/5x5_reduce <- pool3/3x3_s2_pool3/3x3_s2_0_split_2
I0714 23:35:22.320133  5922 net.cpp:399] inception_4a/5x5_reduce -> inception_4a/5x5_reduce
I0714 23:35:22.321583  5918 net.cpp:141] Setting up inception_4a/3x3
I0714 23:35:22.321612  5918 net.cpp:148] Top shape: 10 208 14 14 (407680)
I0714 23:35:22.321617  5918 net.cpp:156] Memory required for data: 362145280
I0714 23:35:22.321627  5918 layer_factory.hpp:77] Creating layer inception_4a/relu_3x3
I0714 23:35:22.321638  5918 net.cpp:91] Creating Layer inception_4a/relu_3x3
I0714 23:35:22.321645  5918 net.cpp:425] inception_4a/relu_3x3 <- inception_4a/3x3
I0714 23:35:22.321651  5918 net.cpp:386] inception_4a/relu_3x3 -> inception_4a/3x3 (in-place)
I0714 23:35:22.323375  5918 net.cpp:141] Setting up inception_4a/relu_3x3
I0714 23:35:22.323405  5918 net.cpp:148] Top shape: 10 208 14 14 (407680)
I0714 23:35:22.323410  5918 net.cpp:156] Memory required for data: 363776000
I0714 23:35:22.323415  5918 layer_factory.hpp:77] Creating layer inception_4a/5x5_reduce
I0714 23:35:22.323434  5918 net.cpp:91] Creating Layer inception_4a/5x5_reduce
I0714 23:35:22.323441  5918 net.cpp:425] inception_4a/5x5_reduce <- pool3/3x3_s2_pool3/3x3_s2_0_split_2
I0714 23:35:22.323451  5918 net.cpp:399] inception_4a/5x5_reduce -> inception_4a/5x5_reduce
I0714 23:35:22.324204  5922 net.cpp:141] Setting up inception_4a/5x5_reduce
I0714 23:35:22.324220  5922 net.cpp:148] Top shape: 10 16 14 14 (31360)
I0714 23:35:22.324225  5922 net.cpp:156] Memory required for data: 363901440
I0714 23:35:22.324234  5922 layer_factory.hpp:77] Creating layer inception_4a/relu_5x5_reduce
I0714 23:35:22.324244  5922 net.cpp:91] Creating Layer inception_4a/relu_5x5_reduce
I0714 23:35:22.324249  5922 net.cpp:425] inception_4a/relu_5x5_reduce <- inception_4a/5x5_reduce
I0714 23:35:22.324259  5922 net.cpp:386] inception_4a/relu_5x5_reduce -> inception_4a/5x5_reduce (in-place)
I0714 23:35:22.325392  5922 net.cpp:141] Setting up inception_4a/relu_5x5_reduce
I0714 23:35:22.325405  5922 net.cpp:148] Top shape: 10 16 14 14 (31360)
I0714 23:35:22.325410  5922 net.cpp:156] Memory required for data: 364026880
I0714 23:35:22.325414  5922 layer_factory.hpp:77] Creating layer inception_4a/5x5
I0714 23:35:22.325430  5922 net.cpp:91] Creating Layer inception_4a/5x5
I0714 23:35:22.325436  5922 net.cpp:425] inception_4a/5x5 <- inception_4a/5x5_reduce
I0714 23:35:22.325460  5922 net.cpp:399] inception_4a/5x5 -> inception_4a/5x5
I0714 23:35:22.327654  5918 net.cpp:141] Setting up inception_4a/5x5_reduce
I0714 23:35:22.327684  5918 net.cpp:148] Top shape: 10 16 14 14 (31360)
I0714 23:35:22.327689  5918 net.cpp:156] Memory required for data: 363901440
I0714 23:35:22.327699  5918 layer_factory.hpp:77] Creating layer inception_4a/relu_5x5_reduce
I0714 23:35:22.327708  5918 net.cpp:91] Creating Layer inception_4a/relu_5x5_reduce
I0714 23:35:22.327713  5918 net.cpp:425] inception_4a/relu_5x5_reduce <- inception_4a/5x5_reduce
I0714 23:35:22.327723  5918 net.cpp:386] inception_4a/relu_5x5_reduce -> inception_4a/5x5_reduce (in-place)
I0714 23:35:22.329370  5918 net.cpp:141] Setting up inception_4a/relu_5x5_reduce
I0714 23:35:22.329398  5918 net.cpp:148] Top shape: 10 16 14 14 (31360)
I0714 23:35:22.329403  5918 net.cpp:156] Memory required for data: 364026880
I0714 23:35:22.329408  5918 layer_factory.hpp:77] Creating layer inception_4a/5x5
I0714 23:35:22.329424  5918 net.cpp:91] Creating Layer inception_4a/5x5
I0714 23:35:22.329429  5918 net.cpp:425] inception_4a/5x5 <- inception_4a/5x5_reduce
I0714 23:35:22.329442  5918 net.cpp:399] inception_4a/5x5 -> inception_4a/5x5
I0714 23:35:22.331634  5922 net.cpp:141] Setting up inception_4a/5x5
I0714 23:35:22.331650  5922 net.cpp:148] Top shape: 10 48 14 14 (94080)
I0714 23:35:22.331655  5922 net.cpp:156] Memory required for data: 364403200
I0714 23:35:22.331665  5922 layer_factory.hpp:77] Creating layer inception_4a/relu_5x5
I0714 23:35:22.331673  5922 net.cpp:91] Creating Layer inception_4a/relu_5x5
I0714 23:35:22.331679  5922 net.cpp:425] inception_4a/relu_5x5 <- inception_4a/5x5
I0714 23:35:22.331689  5922 net.cpp:386] inception_4a/relu_5x5 -> inception_4a/5x5 (in-place)
I0714 23:35:22.332680  5922 net.cpp:141] Setting up inception_4a/relu_5x5
I0714 23:35:22.332695  5922 net.cpp:148] Top shape: 10 48 14 14 (94080)
I0714 23:35:22.332700  5922 net.cpp:156] Memory required for data: 364779520
I0714 23:35:22.332705  5922 layer_factory.hpp:77] Creating layer inception_4a/pool
I0714 23:35:22.332715  5922 net.cpp:91] Creating Layer inception_4a/pool
I0714 23:35:22.332722  5922 net.cpp:425] inception_4a/pool <- pool3/3x3_s2_pool3/3x3_s2_0_split_3
I0714 23:35:22.332731  5922 net.cpp:399] inception_4a/pool -> inception_4a/pool
I0714 23:35:22.333384  5922 net.cpp:141] Setting up inception_4a/pool
I0714 23:35:22.333408  5922 net.cpp:148] Top shape: 10 480 14 14 (940800)
I0714 23:35:22.333413  5922 net.cpp:156] Memory required for data: 368542720
I0714 23:35:22.333417  5922 layer_factory.hpp:77] Creating layer inception_4a/pool_proj
I0714 23:35:22.333432  5922 net.cpp:91] Creating Layer inception_4a/pool_proj
I0714 23:35:22.333438  5922 net.cpp:425] inception_4a/pool_proj <- inception_4a/pool
I0714 23:35:22.333446  5922 net.cpp:399] inception_4a/pool_proj -> inception_4a/pool_proj
I0714 23:35:22.333883  5918 net.cpp:141] Setting up inception_4a/5x5
I0714 23:35:22.333899  5918 net.cpp:148] Top shape: 10 48 14 14 (94080)
I0714 23:35:22.333906  5918 net.cpp:156] Memory required for data: 364403200
I0714 23:35:22.333915  5918 layer_factory.hpp:77] Creating layer inception_4a/relu_5x5
I0714 23:35:22.333923  5918 net.cpp:91] Creating Layer inception_4a/relu_5x5
I0714 23:35:22.333928  5918 net.cpp:425] inception_4a/relu_5x5 <- inception_4a/5x5
I0714 23:35:22.333936  5918 net.cpp:386] inception_4a/relu_5x5 -> inception_4a/5x5 (in-place)
I0714 23:35:22.334987  5918 net.cpp:141] Setting up inception_4a/relu_5x5
I0714 23:35:22.335001  5918 net.cpp:148] Top shape: 10 48 14 14 (94080)
I0714 23:35:22.335006  5918 net.cpp:156] Memory required for data: 364779520
I0714 23:35:22.335011  5918 layer_factory.hpp:77] Creating layer inception_4a/pool
I0714 23:35:22.335019  5918 net.cpp:91] Creating Layer inception_4a/pool
I0714 23:35:22.335026  5918 net.cpp:425] inception_4a/pool <- pool3/3x3_s2_pool3/3x3_s2_0_split_3
I0714 23:35:22.335036  5918 net.cpp:399] inception_4a/pool -> inception_4a/pool
I0714 23:35:22.335124  5918 net.cpp:141] Setting up inception_4a/pool
I0714 23:35:22.335136  5918 net.cpp:148] Top shape: 10 480 14 14 (940800)
I0714 23:35:22.335141  5918 net.cpp:156] Memory required for data: 368542720
I0714 23:35:22.335145  5918 layer_factory.hpp:77] Creating layer inception_4a/pool_proj
I0714 23:35:22.335161  5918 net.cpp:91] Creating Layer inception_4a/pool_proj
I0714 23:35:22.335167  5918 net.cpp:425] inception_4a/pool_proj <- inception_4a/pool
I0714 23:35:22.335176  5918 net.cpp:399] inception_4a/pool_proj -> inception_4a/pool_proj
I0714 23:35:22.337466  5922 net.cpp:141] Setting up inception_4a/pool_proj
I0714 23:35:22.337494  5922 net.cpp:148] Top shape: 10 64 14 14 (125440)
I0714 23:35:22.337499  5922 net.cpp:156] Memory required for data: 369044480
I0714 23:35:22.337508  5922 layer_factory.hpp:77] Creating layer inception_4a/relu_pool_proj
I0714 23:35:22.337517  5922 net.cpp:91] Creating Layer inception_4a/relu_pool_proj
I0714 23:35:22.337522  5922 net.cpp:425] inception_4a/relu_pool_proj <- inception_4a/pool_proj
I0714 23:35:22.337532  5922 net.cpp:386] inception_4a/relu_pool_proj -> inception_4a/pool_proj (in-place)
I0714 23:35:22.338526  5922 net.cpp:141] Setting up inception_4a/relu_pool_proj
I0714 23:35:22.338541  5922 net.cpp:148] Top shape: 10 64 14 14 (125440)
I0714 23:35:22.338546  5922 net.cpp:156] Memory required for data: 369546240
I0714 23:35:22.338551  5922 layer_factory.hpp:77] Creating layer inception_4a/output
I0714 23:35:22.338559  5922 net.cpp:91] Creating Layer inception_4a/output
I0714 23:35:22.338564  5922 net.cpp:425] inception_4a/output <- inception_4a/1x1
I0714 23:35:22.338573  5922 net.cpp:425] inception_4a/output <- inception_4a/3x3
I0714 23:35:22.338579  5922 net.cpp:425] inception_4a/output <- inception_4a/5x5
I0714 23:35:22.338585  5922 net.cpp:425] inception_4a/output <- inception_4a/pool_proj
I0714 23:35:22.338592  5922 net.cpp:399] inception_4a/output -> inception_4a/output
I0714 23:35:22.338752  5922 net.cpp:141] Setting up inception_4a/output
I0714 23:35:22.338768  5922 net.cpp:148] Top shape: 10 512 14 14 (1003520)
I0714 23:35:22.338771  5922 net.cpp:156] Memory required for data: 373560320
I0714 23:35:22.338776  5922 layer_factory.hpp:77] Creating layer inception_4a/output_inception_4a/output_0_split
I0714 23:35:22.338784  5922 net.cpp:91] Creating Layer inception_4a/output_inception_4a/output_0_split
I0714 23:35:22.338789  5922 net.cpp:425] inception_4a/output_inception_4a/output_0_split <- inception_4a/output
I0714 23:35:22.338800  5922 net.cpp:399] inception_4a/output_inception_4a/output_0_split -> inception_4a/output_inception_4a/output_0_split_0
I0714 23:35:22.338810  5922 net.cpp:399] inception_4a/output_inception_4a/output_0_split -> inception_4a/output_inception_4a/output_0_split_1
I0714 23:35:22.338819  5922 net.cpp:399] inception_4a/output_inception_4a/output_0_split -> inception_4a/output_inception_4a/output_0_split_2
I0714 23:35:22.338826  5922 net.cpp:399] inception_4a/output_inception_4a/output_0_split -> inception_4a/output_inception_4a/output_0_split_3
I0714 23:35:22.338943  5922 net.cpp:141] Setting up inception_4a/output_inception_4a/output_0_split
I0714 23:35:22.338953  5922 net.cpp:148] Top shape: 10 512 14 14 (1003520)
I0714 23:35:22.338958  5922 net.cpp:148] Top shape: 10 512 14 14 (1003520)
I0714 23:35:22.338963  5922 net.cpp:148] Top shape: 10 512 14 14 (1003520)
I0714 23:35:22.338968  5922 net.cpp:148] Top shape: 10 512 14 14 (1003520)
I0714 23:35:22.338971  5922 net.cpp:156] Memory required for data: 389616640
I0714 23:35:22.338976  5922 layer_factory.hpp:77] Creating layer inception_4b/1x1
I0714 23:35:22.338994  5922 net.cpp:91] Creating Layer inception_4b/1x1
I0714 23:35:22.338999  5922 net.cpp:425] inception_4b/1x1 <- inception_4a/output_inception_4a/output_0_split_0
I0714 23:35:22.339009  5922 net.cpp:399] inception_4b/1x1 -> inception_4b/1x1
I0714 23:35:22.339256  5918 net.cpp:141] Setting up inception_4a/pool_proj
I0714 23:35:22.339269  5918 net.cpp:148] Top shape: 10 64 14 14 (125440)
I0714 23:35:22.339274  5918 net.cpp:156] Memory required for data: 369044480
I0714 23:35:22.339283  5918 layer_factory.hpp:77] Creating layer inception_4a/relu_pool_proj
I0714 23:35:22.339293  5918 net.cpp:91] Creating Layer inception_4a/relu_pool_proj
I0714 23:35:22.339298  5918 net.cpp:425] inception_4a/relu_pool_proj <- inception_4a/pool_proj
I0714 23:35:22.339305  5918 net.cpp:386] inception_4a/relu_pool_proj -> inception_4a/pool_proj (in-place)
I0714 23:35:22.340158  5918 net.cpp:141] Setting up inception_4a/relu_pool_proj
I0714 23:35:22.340173  5918 net.cpp:148] Top shape: 10 64 14 14 (125440)
I0714 23:35:22.340178  5918 net.cpp:156] Memory required for data: 369546240
I0714 23:35:22.340183  5918 layer_factory.hpp:77] Creating layer inception_4a/output
I0714 23:35:22.340191  5918 net.cpp:91] Creating Layer inception_4a/output
I0714 23:35:22.340196  5918 net.cpp:425] inception_4a/output <- inception_4a/1x1
I0714 23:35:22.340203  5918 net.cpp:425] inception_4a/output <- inception_4a/3x3
I0714 23:35:22.340207  5918 net.cpp:425] inception_4a/output <- inception_4a/5x5
I0714 23:35:22.340212  5918 net.cpp:425] inception_4a/output <- inception_4a/pool_proj
I0714 23:35:22.340222  5918 net.cpp:399] inception_4a/output -> inception_4a/output
I0714 23:35:22.340268  5918 net.cpp:141] Setting up inception_4a/output
I0714 23:35:22.340281  5918 net.cpp:148] Top shape: 10 512 14 14 (1003520)
I0714 23:35:22.340286  5918 net.cpp:156] Memory required for data: 373560320
I0714 23:35:22.340291  5918 layer_factory.hpp:77] Creating layer inception_4a/output_inception_4a/output_0_split
I0714 23:35:22.340297  5918 net.cpp:91] Creating Layer inception_4a/output_inception_4a/output_0_split
I0714 23:35:22.340302  5918 net.cpp:425] inception_4a/output_inception_4a/output_0_split <- inception_4a/output
I0714 23:35:22.340309  5918 net.cpp:399] inception_4a/output_inception_4a/output_0_split -> inception_4a/output_inception_4a/output_0_split_0
I0714 23:35:22.340317  5918 net.cpp:399] inception_4a/output_inception_4a/output_0_split -> inception_4a/output_inception_4a/output_0_split_1
I0714 23:35:22.340329  5918 net.cpp:399] inception_4a/output_inception_4a/output_0_split -> inception_4a/output_inception_4a/output_0_split_2
I0714 23:35:22.340338  5918 net.cpp:399] inception_4a/output_inception_4a/output_0_split -> inception_4a/output_inception_4a/output_0_split_3
I0714 23:35:22.340435  5918 net.cpp:141] Setting up inception_4a/output_inception_4a/output_0_split
I0714 23:35:22.340445  5918 net.cpp:148] Top shape: 10 512 14 14 (1003520)
I0714 23:35:22.340450  5918 net.cpp:148] Top shape: 10 512 14 14 (1003520)
I0714 23:35:22.340454  5918 net.cpp:148] Top shape: 10 512 14 14 (1003520)
I0714 23:35:22.340459  5918 net.cpp:148] Top shape: 10 512 14 14 (1003520)
I0714 23:35:22.340463  5918 net.cpp:156] Memory required for data: 389616640
I0714 23:35:22.340468  5918 layer_factory.hpp:77] Creating layer inception_4b/1x1
I0714 23:35:22.340483  5918 net.cpp:91] Creating Layer inception_4b/1x1
I0714 23:35:22.340488  5918 net.cpp:425] inception_4b/1x1 <- inception_4a/output_inception_4a/output_0_split_0
I0714 23:35:22.340499  5918 net.cpp:399] inception_4b/1x1 -> inception_4b/1x1
I0714 23:35:22.344310  5922 net.cpp:141] Setting up inception_4b/1x1
I0714 23:35:22.344343  5922 net.cpp:148] Top shape: 10 160 14 14 (313600)
I0714 23:35:22.344348  5922 net.cpp:156] Memory required for data: 390871040
I0714 23:35:22.344358  5922 layer_factory.hpp:77] Creating layer inception_4b/relu_1x1
I0714 23:35:22.344367  5922 net.cpp:91] Creating Layer inception_4b/relu_1x1
I0714 23:35:22.344372  5922 net.cpp:425] inception_4b/relu_1x1 <- inception_4b/1x1
I0714 23:35:22.344382  5922 net.cpp:386] inception_4b/relu_1x1 -> inception_4b/1x1 (in-place)
I0714 23:35:22.345193  5918 net.cpp:141] Setting up inception_4b/1x1
I0714 23:35:22.345221  5918 net.cpp:148] Top shape: 10 160 14 14 (313600)
I0714 23:35:22.345227  5918 net.cpp:156] Memory required for data: 390871040
I0714 23:35:22.345235  5918 layer_factory.hpp:77] Creating layer inception_4b/relu_1x1
I0714 23:35:22.345247  5918 net.cpp:91] Creating Layer inception_4b/relu_1x1
I0714 23:35:22.345254  5918 net.cpp:425] inception_4b/relu_1x1 <- inception_4b/1x1
I0714 23:35:22.345262  5918 net.cpp:386] inception_4b/relu_1x1 -> inception_4b/1x1 (in-place)
I0714 23:35:22.345273  5922 net.cpp:141] Setting up inception_4b/relu_1x1
I0714 23:35:22.345286  5922 net.cpp:148] Top shape: 10 160 14 14 (313600)
I0714 23:35:22.345290  5922 net.cpp:156] Memory required for data: 392125440
I0714 23:35:22.345295  5922 layer_factory.hpp:77] Creating layer inception_4b/3x3_reduce
I0714 23:35:22.345310  5922 net.cpp:91] Creating Layer inception_4b/3x3_reduce
I0714 23:35:22.345316  5922 net.cpp:425] inception_4b/3x3_reduce <- inception_4a/output_inception_4a/output_0_split_1
I0714 23:35:22.345329  5922 net.cpp:399] inception_4b/3x3_reduce -> inception_4b/3x3_reduce
I0714 23:35:22.345759  5918 net.cpp:141] Setting up inception_4b/relu_1x1
I0714 23:35:22.345770  5918 net.cpp:148] Top shape: 10 160 14 14 (313600)
I0714 23:35:22.345775  5918 net.cpp:156] Memory required for data: 392125440
I0714 23:35:22.345780  5918 layer_factory.hpp:77] Creating layer inception_4b/3x3_reduce
I0714 23:35:22.345796  5918 net.cpp:91] Creating Layer inception_4b/3x3_reduce
I0714 23:35:22.345803  5918 net.cpp:425] inception_4b/3x3_reduce <- inception_4a/output_inception_4a/output_0_split_1
I0714 23:35:22.345813  5918 net.cpp:399] inception_4b/3x3_reduce -> inception_4b/3x3_reduce
I0714 23:35:22.350175  5922 net.cpp:141] Setting up inception_4b/3x3_reduce
I0714 23:35:22.350190  5922 net.cpp:148] Top shape: 10 112 14 14 (219520)
I0714 23:35:22.350195  5922 net.cpp:156] Memory required for data: 393003520
I0714 23:35:22.350216  5922 layer_factory.hpp:77] Creating layer inception_4b/relu_3x3_reduce
I0714 23:35:22.350225  5922 net.cpp:91] Creating Layer inception_4b/relu_3x3_reduce
I0714 23:35:22.350230  5922 net.cpp:425] inception_4b/relu_3x3_reduce <- inception_4b/3x3_reduce
I0714 23:35:22.350240  5922 net.cpp:386] inception_4b/relu_3x3_reduce -> inception_4b/3x3_reduce (in-place)
I0714 23:35:22.350980  5918 net.cpp:141] Setting up inception_4b/3x3_reduce
I0714 23:35:22.350996  5918 net.cpp:148] Top shape: 10 112 14 14 (219520)
I0714 23:35:22.351001  5918 net.cpp:156] Memory required for data: 393003520
I0714 23:35:22.351011  5918 layer_factory.hpp:77] Creating layer inception_4b/relu_3x3_reduce
I0714 23:35:22.351022  5918 net.cpp:91] Creating Layer inception_4b/relu_3x3_reduce
I0714 23:35:22.351028  5918 net.cpp:425] inception_4b/relu_3x3_reduce <- inception_4b/3x3_reduce
I0714 23:35:22.351035  5918 net.cpp:386] inception_4b/relu_3x3_reduce -> inception_4b/3x3_reduce (in-place)
I0714 23:35:22.351325  5922 net.cpp:141] Setting up inception_4b/relu_3x3_reduce
I0714 23:35:22.351337  5922 net.cpp:148] Top shape: 10 112 14 14 (219520)
I0714 23:35:22.351341  5922 net.cpp:156] Memory required for data: 393881600
I0714 23:35:22.351346  5922 layer_factory.hpp:77] Creating layer inception_4b/3x3
I0714 23:35:22.351346  5918 net.cpp:141] Setting up inception_4b/relu_3x3_reduce
I0714 23:35:22.351359  5918 net.cpp:148] Top shape: 10 112 14 14 (219520)
I0714 23:35:22.351361  5922 net.cpp:91] Creating Layer inception_4b/3x3
I0714 23:35:22.351363  5918 net.cpp:156] Memory required for data: 393881600
I0714 23:35:22.351367  5922 net.cpp:425] inception_4b/3x3 <- inception_4b/3x3_reduce
I0714 23:35:22.351368  5918 layer_factory.hpp:77] Creating layer inception_4b/3x3
I0714 23:35:22.351383  5922 net.cpp:399] inception_4b/3x3 -> inception_4b/3x3
I0714 23:35:22.351390  5918 net.cpp:91] Creating Layer inception_4b/3x3
I0714 23:35:22.351397  5918 net.cpp:425] inception_4b/3x3 <- inception_4b/3x3_reduce
I0714 23:35:22.351407  5918 net.cpp:399] inception_4b/3x3 -> inception_4b/3x3
I0714 23:35:22.357841  5922 net.cpp:141] Setting up inception_4b/3x3
I0714 23:35:22.357870  5922 net.cpp:148] Top shape: 10 224 14 14 (439040)
I0714 23:35:22.357877  5922 net.cpp:156] Memory required for data: 395637760
I0714 23:35:22.357885  5922 layer_factory.hpp:77] Creating layer inception_4b/relu_3x3
I0714 23:35:22.357894  5922 net.cpp:91] Creating Layer inception_4b/relu_3x3
I0714 23:35:22.357899  5922 net.cpp:425] inception_4b/relu_3x3 <- inception_4b/3x3
I0714 23:35:22.357909  5922 net.cpp:386] inception_4b/relu_3x3 -> inception_4b/3x3 (in-place)
I0714 23:35:22.359127  5922 net.cpp:141] Setting up inception_4b/relu_3x3
I0714 23:35:22.359153  5922 net.cpp:148] Top shape: 10 224 14 14 (439040)
I0714 23:35:22.359158  5922 net.cpp:156] Memory required for data: 397393920
I0714 23:35:22.359163  5922 layer_factory.hpp:77] Creating layer inception_4b/5x5_reduce
I0714 23:35:22.359191  5922 net.cpp:91] Creating Layer inception_4b/5x5_reduce
I0714 23:35:22.359199  5922 net.cpp:425] inception_4b/5x5_reduce <- inception_4a/output_inception_4a/output_0_split_2
I0714 23:35:22.359210  5922 net.cpp:399] inception_4b/5x5_reduce -> inception_4b/5x5_reduce
I0714 23:35:22.359657  5918 net.cpp:141] Setting up inception_4b/3x3
I0714 23:35:22.359673  5918 net.cpp:148] Top shape: 10 224 14 14 (439040)
I0714 23:35:22.359678  5918 net.cpp:156] Memory required for data: 395637760
I0714 23:35:22.359688  5918 layer_factory.hpp:77] Creating layer inception_4b/relu_3x3
I0714 23:35:22.359697  5918 net.cpp:91] Creating Layer inception_4b/relu_3x3
I0714 23:35:22.359702  5918 net.cpp:425] inception_4b/relu_3x3 <- inception_4b/3x3
I0714 23:35:22.359714  5918 net.cpp:386] inception_4b/relu_3x3 -> inception_4b/3x3 (in-place)
I0714 23:35:22.360810  5918 net.cpp:141] Setting up inception_4b/relu_3x3
I0714 23:35:22.360826  5918 net.cpp:148] Top shape: 10 224 14 14 (439040)
I0714 23:35:22.360829  5918 net.cpp:156] Memory required for data: 397393920
I0714 23:35:22.360834  5918 layer_factory.hpp:77] Creating layer inception_4b/5x5_reduce
I0714 23:35:22.360862  5918 net.cpp:91] Creating Layer inception_4b/5x5_reduce
I0714 23:35:22.360867  5918 net.cpp:425] inception_4b/5x5_reduce <- inception_4a/output_inception_4a/output_0_split_2
I0714 23:35:22.360884  5918 net.cpp:399] inception_4b/5x5_reduce -> inception_4b/5x5_reduce
I0714 23:35:22.363967  5922 net.cpp:141] Setting up inception_4b/5x5_reduce
I0714 23:35:22.363983  5922 net.cpp:148] Top shape: 10 24 14 14 (47040)
I0714 23:35:22.363988  5922 net.cpp:156] Memory required for data: 397582080
I0714 23:35:22.363997  5922 layer_factory.hpp:77] Creating layer inception_4b/relu_5x5_reduce
I0714 23:35:22.364009  5922 net.cpp:91] Creating Layer inception_4b/relu_5x5_reduce
I0714 23:35:22.364015  5922 net.cpp:425] inception_4b/relu_5x5_reduce <- inception_4b/5x5_reduce
I0714 23:35:22.364022  5922 net.cpp:386] inception_4b/relu_5x5_reduce -> inception_4b/5x5_reduce (in-place)
I0714 23:35:22.365084  5922 net.cpp:141] Setting up inception_4b/relu_5x5_reduce
I0714 23:35:22.365097  5922 net.cpp:148] Top shape: 10 24 14 14 (47040)
I0714 23:35:22.365102  5922 net.cpp:156] Memory required for data: 397770240
I0714 23:35:22.365106  5922 layer_factory.hpp:77] Creating layer inception_4b/5x5
I0714 23:35:22.365123  5922 net.cpp:91] Creating Layer inception_4b/5x5
I0714 23:35:22.365128  5922 net.cpp:425] inception_4b/5x5 <- inception_4b/5x5_reduce
I0714 23:35:22.365139  5922 net.cpp:399] inception_4b/5x5 -> inception_4b/5x5
I0714 23:35:22.365458  5918 net.cpp:141] Setting up inception_4b/5x5_reduce
I0714 23:35:22.365473  5918 net.cpp:148] Top shape: 10 24 14 14 (47040)
I0714 23:35:22.365478  5918 net.cpp:156] Memory required for data: 397582080
I0714 23:35:22.365486  5918 layer_factory.hpp:77] Creating layer inception_4b/relu_5x5_reduce
I0714 23:35:22.365495  5918 net.cpp:91] Creating Layer inception_4b/relu_5x5_reduce
I0714 23:35:22.365501  5918 net.cpp:425] inception_4b/relu_5x5_reduce <- inception_4b/5x5_reduce
I0714 23:35:22.365507  5918 net.cpp:386] inception_4b/relu_5x5_reduce -> inception_4b/5x5_reduce (in-place)
I0714 23:35:22.365864  5918 net.cpp:141] Setting up inception_4b/relu_5x5_reduce
I0714 23:35:22.365878  5918 net.cpp:148] Top shape: 10 24 14 14 (47040)
I0714 23:35:22.365883  5918 net.cpp:156] Memory required for data: 397770240
I0714 23:35:22.365888  5918 layer_factory.hpp:77] Creating layer inception_4b/5x5
I0714 23:35:22.365903  5918 net.cpp:91] Creating Layer inception_4b/5x5
I0714 23:35:22.365909  5918 net.cpp:425] inception_4b/5x5 <- inception_4b/5x5_reduce
I0714 23:35:22.365921  5918 net.cpp:399] inception_4b/5x5 -> inception_4b/5x5
I0714 23:35:22.371317  5922 net.cpp:141] Setting up inception_4b/5x5
I0714 23:35:22.371347  5922 net.cpp:148] Top shape: 10 64 14 14 (125440)
I0714 23:35:22.371352  5922 net.cpp:156] Memory required for data: 398272000
I0714 23:35:22.371361  5922 layer_factory.hpp:77] Creating layer inception_4b/relu_5x5
I0714 23:35:22.371371  5922 net.cpp:91] Creating Layer inception_4b/relu_5x5
I0714 23:35:22.371376  5922 net.cpp:425] inception_4b/relu_5x5 <- inception_4b/5x5
I0714 23:35:22.371386  5922 net.cpp:386] inception_4b/relu_5x5 -> inception_4b/5x5 (in-place)
I0714 23:35:22.372177  5918 net.cpp:141] Setting up inception_4b/5x5
I0714 23:35:22.372205  5918 net.cpp:148] Top shape: 10 64 14 14 (125440)
I0714 23:35:22.372211  5918 net.cpp:156] Memory required for data: 398272000
I0714 23:35:22.372220  5918 layer_factory.hpp:77] Creating layer inception_4b/relu_5x5
I0714 23:35:22.372229  5918 net.cpp:91] Creating Layer inception_4b/relu_5x5
I0714 23:35:22.372237  5918 net.cpp:425] inception_4b/relu_5x5 <- inception_4b/5x5
I0714 23:35:22.372244  5918 net.cpp:386] inception_4b/relu_5x5 -> inception_4b/5x5 (in-place)
I0714 23:35:22.372449  5922 net.cpp:141] Setting up inception_4b/relu_5x5
I0714 23:35:22.372462  5922 net.cpp:148] Top shape: 10 64 14 14 (125440)
I0714 23:35:22.372467  5922 net.cpp:156] Memory required for data: 398773760
I0714 23:35:22.372472  5922 layer_factory.hpp:77] Creating layer inception_4b/pool
I0714 23:35:22.372483  5922 net.cpp:91] Creating Layer inception_4b/pool
I0714 23:35:22.372488  5922 net.cpp:425] inception_4b/pool <- inception_4a/output_inception_4a/output_0_split_3
I0714 23:35:22.372496  5922 net.cpp:399] inception_4b/pool -> inception_4b/pool
I0714 23:35:22.372591  5922 net.cpp:141] Setting up inception_4b/pool
I0714 23:35:22.372601  5922 net.cpp:148] Top shape: 10 512 14 14 (1003520)
I0714 23:35:22.372606  5922 net.cpp:156] Memory required for data: 402787840
I0714 23:35:22.372609  5922 layer_factory.hpp:77] Creating layer inception_4b/pool_proj
I0714 23:35:22.372617  5918 net.cpp:141] Setting up inception_4b/relu_5x5
I0714 23:35:22.372627  5922 net.cpp:91] Creating Layer inception_4b/pool_proj
I0714 23:35:22.372629  5918 net.cpp:148] Top shape: 10 64 14 14 (125440)
I0714 23:35:22.372632  5922 net.cpp:425] inception_4b/pool_proj <- inception_4b/pool
I0714 23:35:22.372634  5918 net.cpp:156] Memory required for data: 398773760
I0714 23:35:22.372639  5918 layer_factory.hpp:77] Creating layer inception_4b/pool
I0714 23:35:22.372642  5922 net.cpp:399] inception_4b/pool_proj -> inception_4b/pool_proj
I0714 23:35:22.372650  5918 net.cpp:91] Creating Layer inception_4b/pool
I0714 23:35:22.372656  5918 net.cpp:425] inception_4b/pool <- inception_4a/output_inception_4a/output_0_split_3
I0714 23:35:22.372664  5918 net.cpp:399] inception_4b/pool -> inception_4b/pool
I0714 23:35:22.372964  5918 net.cpp:141] Setting up inception_4b/pool
I0714 23:35:22.372975  5918 net.cpp:148] Top shape: 10 512 14 14 (1003520)
I0714 23:35:22.372979  5918 net.cpp:156] Memory required for data: 402787840
I0714 23:35:22.372984  5918 layer_factory.hpp:77] Creating layer inception_4b/pool_proj
I0714 23:35:22.372999  5918 net.cpp:91] Creating Layer inception_4b/pool_proj
I0714 23:35:22.373004  5918 net.cpp:425] inception_4b/pool_proj <- inception_4b/pool
I0714 23:35:22.373016  5918 net.cpp:399] inception_4b/pool_proj -> inception_4b/pool_proj
I0714 23:35:22.376605  5922 net.cpp:141] Setting up inception_4b/pool_proj
I0714 23:35:22.376632  5922 net.cpp:148] Top shape: 10 64 14 14 (125440)
I0714 23:35:22.376638  5922 net.cpp:156] Memory required for data: 403289600
I0714 23:35:22.376649  5922 layer_factory.hpp:77] Creating layer inception_4b/relu_pool_proj
I0714 23:35:22.376673  5922 net.cpp:91] Creating Layer inception_4b/relu_pool_proj
I0714 23:35:22.376682  5922 net.cpp:425] inception_4b/relu_pool_proj <- inception_4b/pool_proj
I0714 23:35:22.376689  5922 net.cpp:386] inception_4b/relu_pool_proj -> inception_4b/pool_proj (in-place)
I0714 23:35:22.378072  5922 net.cpp:141] Setting up inception_4b/relu_pool_proj
I0714 23:35:22.378093  5922 net.cpp:148] Top shape: 10 64 14 14 (125440)
I0714 23:35:22.378099  5922 net.cpp:156] Memory required for data: 403791360
I0714 23:35:22.378105  5922 layer_factory.hpp:77] Creating layer inception_4b/output
I0714 23:35:22.378114  5922 net.cpp:91] Creating Layer inception_4b/output
I0714 23:35:22.378119  5922 net.cpp:425] inception_4b/output <- inception_4b/1x1
I0714 23:35:22.378125  5922 net.cpp:425] inception_4b/output <- inception_4b/3x3
I0714 23:35:22.378131  5922 net.cpp:425] inception_4b/output <- inception_4b/5x5
I0714 23:35:22.378139  5922 net.cpp:425] inception_4b/output <- inception_4b/pool_proj
I0714 23:35:22.378146  5922 net.cpp:399] inception_4b/output -> inception_4b/output
I0714 23:35:22.378262  5922 net.cpp:141] Setting up inception_4b/output
I0714 23:35:22.378274  5922 net.cpp:148] Top shape: 10 512 14 14 (1003520)
I0714 23:35:22.378280  5922 net.cpp:156] Memory required for data: 407805440
I0714 23:35:22.378286  5922 layer_factory.hpp:77] Creating layer inception_4b/output_inception_4b/output_0_split
I0714 23:35:22.378299  5922 net.cpp:91] Creating Layer inception_4b/output_inception_4b/output_0_split
I0714 23:35:22.378305  5922 net.cpp:425] inception_4b/output_inception_4b/output_0_split <- inception_4b/output
I0714 23:35:22.378312  5922 net.cpp:399] inception_4b/output_inception_4b/output_0_split -> inception_4b/output_inception_4b/output_0_split_0
I0714 23:35:22.378324  5922 net.cpp:399] inception_4b/output_inception_4b/output_0_split -> inception_4b/output_inception_4b/output_0_split_1
I0714 23:35:22.378334  5922 net.cpp:399] inception_4b/output_inception_4b/output_0_split -> inception_4b/output_inception_4b/output_0_split_2
I0714 23:35:22.378343  5922 net.cpp:399] inception_4b/output_inception_4b/output_0_split -> inception_4b/output_inception_4b/output_0_split_3
I0714 23:35:22.378474  5918 net.cpp:141] Setting up inception_4b/pool_proj
I0714 23:35:22.378490  5918 net.cpp:148] Top shape: 10 64 14 14 (125440)
I0714 23:35:22.378495  5918 net.cpp:156] Memory required for data: 403289600
I0714 23:35:22.378505  5918 layer_factory.hpp:77] Creating layer inception_4b/relu_pool_proj
I0714 23:35:22.378520  5918 net.cpp:91] Creating Layer inception_4b/relu_pool_proj
I0714 23:35:22.378527  5918 net.cpp:425] inception_4b/relu_pool_proj <- inception_4b/pool_proj
I0714 23:35:22.378535  5918 net.cpp:386] inception_4b/relu_pool_proj -> inception_4b/pool_proj (in-place)
I0714 23:35:22.378536  5922 net.cpp:141] Setting up inception_4b/output_inception_4b/output_0_split
I0714 23:35:22.378550  5922 net.cpp:148] Top shape: 10 512 14 14 (1003520)
I0714 23:35:22.378554  5922 net.cpp:148] Top shape: 10 512 14 14 (1003520)
I0714 23:35:22.378561  5922 net.cpp:148] Top shape: 10 512 14 14 (1003520)
I0714 23:35:22.378567  5922 net.cpp:148] Top shape: 10 512 14 14 (1003520)
I0714 23:35:22.378571  5922 net.cpp:156] Memory required for data: 423861760
I0714 23:35:22.378577  5922 layer_factory.hpp:77] Creating layer inception_4c/1x1
I0714 23:35:22.378598  5922 net.cpp:91] Creating Layer inception_4c/1x1
I0714 23:35:22.378604  5922 net.cpp:425] inception_4c/1x1 <- inception_4b/output_inception_4b/output_0_split_0
I0714 23:35:22.378623  5922 net.cpp:399] inception_4c/1x1 -> inception_4c/1x1
I0714 23:35:22.379837  5918 net.cpp:141] Setting up inception_4b/relu_pool_proj
I0714 23:35:22.379853  5918 net.cpp:148] Top shape: 10 64 14 14 (125440)
I0714 23:35:22.379858  5918 net.cpp:156] Memory required for data: 403791360
I0714 23:35:22.379864  5918 layer_factory.hpp:77] Creating layer inception_4b/output
I0714 23:35:22.379879  5918 net.cpp:91] Creating Layer inception_4b/output
I0714 23:35:22.379886  5918 net.cpp:425] inception_4b/output <- inception_4b/1x1
I0714 23:35:22.379894  5918 net.cpp:425] inception_4b/output <- inception_4b/3x3
I0714 23:35:22.379901  5918 net.cpp:425] inception_4b/output <- inception_4b/5x5
I0714 23:35:22.379907  5918 net.cpp:425] inception_4b/output <- inception_4b/pool_proj
I0714 23:35:22.379914  5918 net.cpp:399] inception_4b/output -> inception_4b/output
…
I0714 23:35:22.504305  5922 net.cpp:141] Setting up inception_4e/relu_5x5_reduce
I0714 23:35:22.504333  5922 net.cpp:148] Top shape: 10 32 14 14 (62720)
I0714 23:35:22.504338  5922 net.cpp:156] Memory required for data: 506150400
I0714 23:35:22.504343  5922 layer_factory.hpp:77] Creating layer inception_4e/5x5
I0714 23:35:22.504359  5922 net.cpp:91] Creating Layer inception_4e/5x5
I0714 23:35:22.504364  5922 net.cpp:425] inception_4e/5x5 <- inception_4e/5x5_reduce
I0714 23:35:22.504374  5922 net.cpp:399] inception_4e/5x5 -> inception_4e/5x5
I0714 23:35:22.509799  5918 net.cpp:141] Setting up inception_4e/5x5
I0714 23:35:22.509827  5918 net.cpp:148] Top shape: 10 128 14 14 (250880)
I0714 23:35:22.509834  5918 net.cpp:156] Memory required for data: 507153920
I0714 23:35:22.509842  5918 layer_factory.hpp:77] Creating layer inception_4e/relu_5x5
I0714 23:35:22.509851  5918 net.cpp:91] Creating Layer inception_4e/relu_5x5
I0714 23:35:22.509856  5918 net.cpp:425] inception_4e/relu_5x5 <- inception_4e/5x5
I0714 23:35:22.509867  5918 net.cpp:386] inception_4e/relu_5x5 -> inception_4e/5x5 (in-place)
I0714 23:35:22.510748  5922 net.cpp:141] Setting up inception_4e/5x5
I0714 23:35:22.510776  5922 net.cpp:148] Top shape: 10 128 14 14 (250880)
I0714 23:35:22.510782  5922 net.cpp:156] Memory required for data: 507153920
I0714 23:35:22.510792  5922 layer_factory.hpp:77] Creating layer inception_4e/relu_5x5
I0714 23:35:22.510803  5922 net.cpp:91] Creating Layer inception_4e/relu_5x5
I0714 23:35:22.510809  5922 net.cpp:425] inception_4e/relu_5x5 <- inception_4e/5x5
I0714 23:35:22.510817  5922 net.cpp:386] inception_4e/relu_5x5 -> inception_4e/5x5 (in-place)
I0714 23:35:22.511049  5918 net.cpp:141] Setting up inception_4e/relu_5x5
I0714 23:35:22.511062  5918 net.cpp:148] Top shape: 10 128 14 14 (250880)
I0714 23:35:22.511067  5918 net.cpp:156] Memory required for data: 508157440
I0714 23:35:22.511072  5918 layer_factory.hpp:77] Creating layer inception_4e/pool
I0714 23:35:22.511085  5918 net.cpp:91] Creating Layer inception_4e/pool
I0714 23:35:22.511090  5918 net.cpp:425] inception_4e/pool <- inception_4d/output_inception_4d/output_0_split_3
I0714 23:35:22.511098  5918 net.cpp:399] inception_4e/pool -> inception_4e/pool
I0714 23:35:22.511229  5918 net.cpp:141] Setting up inception_4e/pool
I0714 23:35:22.511240  5918 net.cpp:148] Top shape: 10 528 14 14 (1034880)
I0714 23:35:22.511243  5918 net.cpp:156] Memory required for data: 512296960
I0714 23:35:22.511247  5918 layer_factory.hpp:77] Creating layer inception_4e/pool_proj
I0714 23:35:22.511250  5922 net.cpp:141] Setting up inception_4e/relu_5x5
I0714 23:35:22.511262  5922 net.cpp:148] Top shape: 10 128 14 14 (250880)
I0714 23:35:22.511262  5918 net.cpp:91] Creating Layer inception_4e/pool_proj
I0714 23:35:22.511266  5922 net.cpp:156] Memory required for data: 508157440
I0714 23:35:22.511270  5918 net.cpp:425] inception_4e/pool_proj <- inception_4e/pool
I0714 23:35:22.511271  5922 layer_factory.hpp:77] Creating layer inception_4e/pool
I0714 23:35:22.511281  5922 net.cpp:91] Creating Layer inception_4e/pool
I0714 23:35:22.511281  5918 net.cpp:399] inception_4e/pool_proj -> inception_4e/pool_proj
I0714 23:35:22.511286  5922 net.cpp:425] inception_4e/pool <- inception_4d/output_inception_4d/output_0_split_3
I0714 23:35:22.511296  5922 net.cpp:399] inception_4e/pool -> inception_4e/pool
I0714 23:35:22.511508  5922 net.cpp:141] Setting up inception_4e/pool
I0714 23:35:22.511519  5922 net.cpp:148] Top shape: 10 528 14 14 (1034880)
I0714 23:35:22.511523  5922 net.cpp:156] Memory required for data: 512296960
I0714 23:35:22.511528  5922 layer_factory.hpp:77] Creating layer inception_4e/pool_proj
I0714 23:35:22.511550  5922 net.cpp:91] Creating Layer inception_4e/pool_proj
I0714 23:35:22.511556  5922 net.cpp:425] inception_4e/pool_proj <- inception_4e/pool
I0714 23:35:22.511564  5922 net.cpp:399] inception_4e/pool_proj -> inception_4e/pool_proj
I0714 23:35:22.517526  5918 net.cpp:141] Setting up inception_4e/pool_proj
I0714 23:35:22.517556  5918 net.cpp:148] Top shape: 10 128 14 14 (250880)
I0714 23:35:22.517561  5918 net.cpp:156] Memory required for data: 513300480
I0714 23:35:22.517570  5918 layer_factory.hpp:77] Creating layer inception_4e/relu_pool_proj
I0714 23:35:22.517580  5918 net.cpp:91] Creating Layer inception_4e/relu_pool_proj
I0714 23:35:22.517585  5918 net.cpp:425] inception_4e/relu_pool_proj <- inception_4e/pool_proj
I0714 23:35:22.517596  5918 net.cpp:386] inception_4e/relu_pool_proj -> inception_4e/pool_proj (in-place)
I0714 23:35:22.518033  5922 net.cpp:141] Setting up inception_4e/pool_proj
I0714 23:35:22.518048  5922 net.cpp:148] Top shape: 10 128 14 14 (250880)
I0714 23:35:22.518051  5922 net.cpp:156] Memory required for data: 513300480
I0714 23:35:22.518060  5922 layer_factory.hpp:77] Creating layer inception_4e/relu_pool_proj
I0714 23:35:22.518072  5922 net.cpp:91] Creating Layer inception_4e/relu_pool_proj
I0714 23:35:22.518077  5922 net.cpp:425] inception_4e/relu_pool_proj <- inception_4e/pool_proj
I0714 23:35:22.518085  5922 net.cpp:386] inception_4e/relu_pool_proj -> inception_4e/pool_proj (in-place)
I0714 23:35:22.518098  5918 net.cpp:141] Setting up inception_4e/relu_pool_proj
I0714 23:35:22.518115  5918 net.cpp:148] Top shape: 10 128 14 14 (250880)
I0714 23:35:22.518118  5918 net.cpp:156] Memory required for data: 514304000
I0714 23:35:22.518123  5918 layer_factory.hpp:77] Creating layer inception_4e/output
I0714 23:35:22.518132  5918 net.cpp:91] Creating Layer inception_4e/output
I0714 23:35:22.518137  5918 net.cpp:425] inception_4e/output <- inception_4e/1x1
I0714 23:35:22.518143  5918 net.cpp:425] inception_4e/output <- inception_4e/3x3
I0714 23:35:22.518148  5918 net.cpp:425] inception_4e/output <- inception_4e/5x5
I0714 23:35:22.518153  5918 net.cpp:425] inception_4e/output <- inception_4e/pool_proj
I0714 23:35:22.518159  5918 net.cpp:399] inception_4e/output -> inception_4e/output
I0714 23:35:22.518851  5918 net.cpp:141] Setting up inception_4e/output
I0714 23:35:22.518862  5918 net.cpp:148] Top shape: 10 832 14 14 (1630720)
I0714 23:35:22.518865  5918 net.cpp:156] Memory required for data: 520826880
I0714 23:35:22.518870  5918 layer_factory.hpp:77] Creating layer pool4/3x3_s2
I0714 23:35:22.518884  5918 net.cpp:91] Creating Layer pool4/3x3_s2
I0714 23:35:22.518889  5918 net.cpp:425] pool4/3x3_s2 <- inception_4e/output
I0714 23:35:22.518896  5918 net.cpp:399] pool4/3x3_s2 -> pool4/3x3_s2
I0714 23:35:22.519037  5918 net.cpp:141] Setting up pool4/3x3_s2
I0714 23:35:22.519048  5918 net.cpp:148] Top shape: 10 832 7 7 (407680)
I0714 23:35:22.519052  5918 net.cpp:156] Memory required for data: 522457600
I0714 23:35:22.519057  5918 layer_factory.hpp:77] Creating layer pool4/3x3_s2_pool4/3x3_s2_0_split
I0714 23:35:22.519055  5922 net.cpp:141] Setting up inception_4e/relu_pool_proj
I0714 23:35:22.519065  5918 net.cpp:91] Creating Layer pool4/3x3_s2_pool4/3x3_s2_0_split
I0714 23:35:22.519068  5922 net.cpp:148] Top shape: 10 128 14 14 (250880)
I0714 23:35:22.519070  5918 net.cpp:425] pool4/3x3_s2_pool4/3x3_s2_0_split <- pool4/3x3_s2
I0714 23:35:22.519073  5922 net.cpp:156] Memory required for data: 514304000
I0714 23:35:22.519078  5918 net.cpp:399] pool4/3x3_s2_pool4/3x3_s2_0_split -> pool4/3x3_s2_pool4/3x3_s2_0_split_0
I0714 23:35:22.519078  5922 layer_factory.hpp:77] Creating layer inception_4e/output
I0714 23:35:22.519093  5922 net.cpp:91] Creating Layer inception_4e/output
I0714 23:35:22.519095  5918 net.cpp:399] pool4/3x3_s2_pool4/3x3_s2_0_split -> pool4/3x3_s2_pool4/3x3_s2_0_split_1
I0714 23:35:22.519098  5922 net.cpp:425] inception_4e/output <- inception_4e/1x1
I0714 23:35:22.519104  5922 net.cpp:425] inception_4e/output <- inception_4e/3x3
I0714 23:35:22.519106  5918 net.cpp:399] pool4/3x3_s2_pool4/3x3_s2_0_split -> pool4/3x3_s2_pool4/3x3_s2_0_split_2
I0714 23:35:22.519109  5922 net.cpp:425] inception_4e/output <- inception_4e/5x5
I0714 23:35:22.519114  5918 net.cpp:399] pool4/3x3_s2_pool4/3x3_s2_0_split -> pool4/3x3_s2_pool4/3x3_s2_0_split_3
I0714 23:35:22.519115  5922 net.cpp:425] inception_4e/output <- inception_4e/pool_proj
I0714 23:35:22.519122  5922 net.cpp:399] inception_4e/output -> inception_4e/output
I0714 23:35:22.519227  5922 net.cpp:141] Setting up inception_4e/output
I0714 23:35:22.519238  5922 net.cpp:148] Top shape: 10 832 14 14 (1630720)
I0714 23:35:22.519243  5922 net.cpp:156] Memory required for data: 520826880
I0714 23:35:22.519248  5922 layer_factory.hpp:77] Creating layer pool4/3x3_s2
I0714 23:35:22.519255  5922 net.cpp:91] Creating Layer pool4/3x3_s2
I0714 23:35:22.519261  5922 net.cpp:425] pool4/3x3_s2 <- inception_4e/output
I0714 23:35:22.519270  5922 net.cpp:399] pool4/3x3_s2 -> pool4/3x3_s2
I0714 23:35:22.519331  5918 net.cpp:141] Setting up pool4/3x3_s2_pool4/3x3_s2_0_split
I0714 23:35:22.519342  5918 net.cpp:148] Top shape: 10 832 7 7 (407680)
I0714 23:35:22.519347  5918 net.cpp:148] Top shape: 10 832 7 7 (407680)
I0714 23:35:22.519352  5918 net.cpp:148] Top shape: 10 832 7 7 (407680)
I0714 23:35:22.519357  5918 net.cpp:148] Top shape: 10 832 7 7 (407680)
I0714 23:35:22.519361  5918 net.cpp:156] Memory required for data: 528980480
I0714 23:35:22.519366  5918 layer_factory.hpp:77] Creating layer inception_5a/1x1
I0714 23:35:22.519382  5918 net.cpp:91] Creating Layer inception_5a/1x1
I0714 23:35:22.519387  5918 net.cpp:425] inception_5a/1x1 <- pool4/3x3_s2_pool4/3x3_s2_0_split_0
I0714 23:35:22.519397  5918 net.cpp:399] inception_5a/1x1 -> inception_5a/1x1
I0714 23:35:22.519410  5922 net.cpp:141] Setting up pool4/3x3_s2
I0714 23:35:22.519424  5922 net.cpp:148] Top shape: 10 832 7 7 (407680)
I0714 23:35:22.519429  5922 net.cpp:156] Memory required for data: 522457600
I0714 23:35:22.519435  5922 layer_factory.hpp:77] Creating layer pool4/3x3_s2_pool4/3x3_s2_0_split
I0714 23:35:22.519443  5922 net.cpp:91] Creating Layer pool4/3x3_s2_pool4/3x3_s2_0_split
I0714 23:35:22.519448  5922 net.cpp:425] pool4/3x3_s2_pool4/3x3_s2_0_split <- pool4/3x3_s2
I0714 23:35:22.519455  5922 net.cpp:399] pool4/3x3_s2_pool4/3x3_s2_0_split -> pool4/3x3_s2_pool4/3x3_s2_0_split_0
I0714 23:35:22.519464  5922 net.cpp:399] pool4/3x3_s2_pool4/3x3_s2_0_split -> pool4/3x3_s2_pool4/3x3_s2_0_split_1
I0714 23:35:22.519471  5922 net.cpp:399] pool4/3x3_s2_pool4/3x3_s2_0_split -> pool4/3x3_s2_pool4/3x3_s2_0_split_2
I0714 23:35:22.519490  5922 net.cpp:399] pool4/3x3_s2_pool4/3x3_s2_0_split -> pool4/3x3_s2_pool4/3x3_s2_0_split_3
I0714 23:35:22.520973  5922 net.cpp:141] Setting up pool4/3x3_s2_pool4/3x3_s2_0_split
I0714 23:35:22.520985  5922 net.cpp:148] Top shape: 10 832 7 7 (407680)
I0714 23:35:22.520992  5922 net.cpp:148] Top shape: 10 832 7 7 (407680)
I0714 23:35:22.520997  5922 net.cpp:148] Top shape: 10 832 7 7 (407680)
I0714 23:35:22.521001  5922 net.cpp:148] Top shape: 10 832 7 7 (407680)
I0714 23:35:22.521004  5922 net.cpp:156] Memory required for data: 528980480
I0714 23:35:22.521009  5922 layer_factory.hpp:77] Creating layer inception_5a/1x1
I0714 23:35:22.521025  5922 net.cpp:91] Creating Layer inception_5a/1x1
I0714 23:35:22.521031  5922 net.cpp:425] inception_5a/1x1 <- pool4/3x3_s2_pool4/3x3_s2_0_split_0
I0714 23:35:22.521042  5922 net.cpp:399] inception_5a/1x1 -> inception_5a/1x1
I0714 23:35:22.525667  5918 net.cpp:141] Setting up inception_5a/1x1
I0714 23:35:22.525698  5918 net.cpp:148] Top shape: 10 256 7 7 (125440)
I0714 23:35:22.525704  5918 net.cpp:156] Memory required for data: 529482240
I0714 23:35:22.525713  5918 layer_factory.hpp:77] Creating layer inception_5a/relu_1x1
I0714 23:35:22.525722  5918 net.cpp:91] Creating Layer inception_5a/relu_1x1
I0714 23:35:22.525728  5918 net.cpp:425] inception_5a/relu_1x1 <- inception_5a/1x1
I0714 23:35:22.525745  5918 net.cpp:386] inception_5a/relu_1x1 -> inception_5a/1x1 (in-place)
I0714 23:35:22.526881  5918 net.cpp:141] Setting up inception_5a/relu_1x1
I0714 23:35:22.526911  5918 net.cpp:148] Top shape: 10 256 7 7 (125440)
I0714 23:35:22.526917  5918 net.cpp:156] Memory required for data: 529984000
I0714 23:35:22.526922  5918 layer_factory.hpp:77] Creating layer inception_5a/3x3_reduce
I0714 23:35:22.526938  5918 net.cpp:91] Creating Layer inception_5a/3x3_reduce
I0714 23:35:22.526944  5918 net.cpp:425] inception_5a/3x3_reduce <- pool4/3x3_s2_pool4/3x3_s2_0_split_1
I0714 23:35:22.526953  5918 net.cpp:399] inception_5a/3x3_reduce -> inception_5a/3x3_reduce
I0714 23:35:22.528657  5922 net.cpp:141] Setting up inception_5a/1x1
I0714 23:35:22.528687  5922 net.cpp:148] Top shape: 10 256 7 7 (125440)
I0714 23:35:22.528692  5922 net.cpp:156] Memory required for data: 529482240
I0714 23:35:22.528702  5922 layer_factory.hpp:77] Creating layer inception_5a/relu_1x1
I0714 23:35:22.528712  5922 net.cpp:91] Creating Layer inception_5a/relu_1x1
I0714 23:35:22.528718  5922 net.cpp:425] inception_5a/relu_1x1 <- inception_5a/1x1
I0714 23:35:22.528726  5922 net.cpp:386] inception_5a/relu_1x1 -> inception_5a/1x1 (in-place)
I0714 23:35:22.529006  5922 net.cpp:141] Setting up inception_5a/relu_1x1
I0714 23:35:22.529016  5922 net.cpp:148] Top shape: 10 256 7 7 (125440)
I0714 23:35:22.529021  5922 net.cpp:156] Memory required for data: 529984000
I0714 23:35:22.529026  5922 layer_factory.hpp:77] Creating layer inception_5a/3x3_reduce
I0714 23:35:22.529041  5922 net.cpp:91] Creating Layer inception_5a/3x3_reduce
I0714 23:35:22.529047  5922 net.cpp:425] inception_5a/3x3_reduce <- pool4/3x3_s2_pool4/3x3_s2_0_split_1
I0714 23:35:22.529055  5922 net.cpp:399] inception_5a/3x3_reduce -> inception_5a/3x3_reduce
I0714 23:35:22.534488  5918 net.cpp:141] Setting up inception_5a/3x3_reduce
I0714 23:35:22.534518  5918 net.cpp:148] Top shape: 10 160 7 7 (78400)
I0714 23:35:22.534524  5918 net.cpp:156] Memory required for data: 530297600
I0714 23:35:22.534533  5918 layer_factory.hpp:77] Creating layer inception_5a/relu_3x3_reduce
I0714 23:35:22.534543  5918 net.cpp:91] Creating Layer inception_5a/relu_3x3_reduce
I0714 23:35:22.534548  5918 net.cpp:425] inception_5a/relu_3x3_reduce <- inception_5a/3x3_reduce
I0714 23:35:22.534559  5918 net.cpp:386] inception_5a/relu_3x3_reduce -> inception_5a/3x3_reduce (in-place)
I0714 23:35:22.535576  5922 net.cpp:141] Setting up inception_5a/3x3_reduce
I0714 23:35:22.535604  5922 net.cpp:148] Top shape: 10 160 7 7 (78400)
I0714 23:35:22.535610  5922 net.cpp:156] Memory required for data: 530297600
I0714 23:35:22.535619  5922 layer_factory.hpp:77] Creating layer inception_5a/relu_3x3_reduce
I0714 23:35:22.535629  5922 net.cpp:91] Creating Layer inception_5a/relu_3x3_reduce
I0714 23:35:22.535634  5922 net.cpp:425] inception_5a/relu_3x3_reduce <- inception_5a/3x3_reduce
I0714 23:35:22.535645  5922 net.cpp:386] inception_5a/relu_3x3_reduce -> inception_5a/3x3_reduce (in-place)
I0714 23:35:22.535663  5918 net.cpp:141] Setting up inception_5a/relu_3x3_reduce
I0714 23:35:22.535676  5918 net.cpp:148] Top shape: 10 160 7 7 (78400)
I0714 23:35:22.535681  5918 net.cpp:156] Memory required for data: 530611200
I0714 23:35:22.535686  5918 layer_factory.hpp:77] Creating layer inception_5a/3x3
I0714 23:35:22.535701  5918 net.cpp:91] Creating Layer inception_5a/3x3
I0714 23:35:22.535707  5918 net.cpp:425] inception_5a/3x3 <- inception_5a/3x3_reduce
I0714 23:35:22.535718  5918 net.cpp:399] inception_5a/3x3 -> inception_5a/3x3
I0714 23:35:22.537606  5922 net.cpp:141] Setting up inception_5a/relu_3x3_reduce
I0714 23:35:22.537633  5922 net.cpp:148] Top shape: 10 160 7 7 (78400)
I0714 23:35:22.537638  5922 net.cpp:156] Memory required for data: 530611200
I0714 23:35:22.537643  5922 layer_factory.hpp:77] Creating layer inception_5a/3x3
I0714 23:35:22.537660  5922 net.cpp:91] Creating Layer inception_5a/3x3
I0714 23:35:22.537667  5922 net.cpp:425] inception_5a/3x3 <- inception_5a/3x3_reduce
I0714 23:35:22.537678  5922 net.cpp:399] inception_5a/3x3 -> inception_5a/3x3
I0714 23:35:22.545040  5918 net.cpp:141] Setting up inception_5a/3x3
I0714 23:35:22.545073  5918 net.cpp:148] Top shape: 10 320 7 7 (156800)
I0714 23:35:22.545078  5918 net.cpp:156] Memory required for data: 531238400
I0714 23:35:22.545088  5918 layer_factory.hpp:77] Creating layer inception_5a/relu_3x3
I0714 23:35:22.545096  5918 net.cpp:91] Creating Layer inception_5a/relu_3x3
I0714 23:35:22.545102  5918 net.cpp:425] inception_5a/relu_3x3 <- inception_5a/3x3
I0714 23:35:22.545111  5918 net.cpp:386] inception_5a/relu_3x3 -> inception_5a/3x3 (in-place)
I0714 23:35:22.546442  5918 net.cpp:141] Setting up inception_5a/relu_3x3
I0714 23:35:22.546469  5918 net.cpp:148] Top shape: 10 320 7 7 (156800)
I0714 23:35:22.546474  5918 net.cpp:156] Memory required for data: 531865600
I0714 23:35:22.546479  5918 layer_factory.hpp:77] Creating layer inception_5a/5x5_reduce
I0714 23:35:22.546494  5918 net.cpp:91] Creating Layer inception_5a/5x5_reduce
I0714 23:35:22.546501  5918 net.cpp:425] inception_5a/5x5_reduce <- pool4/3x3_s2_pool4/3x3_s2_0_split_2
I0714 23:35:22.546514  5918 net.cpp:399] inception_5a/5x5_reduce -> inception_5a/5x5_reduce
I0714 23:35:22.547696  5922 net.cpp:141] Setting up inception_5a/3x3
I0714 23:35:22.547714  5922 net.cpp:148] Top shape: 10 320 7 7 (156800)
I0714 23:35:22.547719  5922 net.cpp:156] Memory required for data: 531238400
I0714 23:35:22.547729  5922 layer_factory.hpp:77] Creating layer inception_5a/relu_3x3
I0714 23:35:22.547739  5922 net.cpp:91] Creating Layer inception_5a/relu_3x3
I0714 23:35:22.547744  5922 net.cpp:425] inception_5a/relu_3x3 <- inception_5a/3x3
I0714 23:35:22.547754  5922 net.cpp:386] inception_5a/relu_3x3 -> inception_5a/3x3 (in-place)
I0714 23:35:22.548635  5922 net.cpp:141] Setting up inception_5a/relu_3x3
I0714 23:35:22.548651  5922 net.cpp:148] Top shape: 10 320 7 7 (156800)
I0714 23:35:22.548656  5922 net.cpp:156] Memory required for data: 531865600
I0714 23:35:22.548661  5922 layer_factory.hpp:77] Creating layer inception_5a/5x5_reduce
I0714 23:35:22.548678  5922 net.cpp:91] Creating Layer inception_5a/5x5_reduce
I0714 23:35:22.548684  5922 net.cpp:425] inception_5a/5x5_reduce <- pool4/3x3_s2_pool4/3x3_s2_0_split_2
I0714 23:35:22.548697  5922 net.cpp:399] inception_5a/5x5_reduce -> inception_5a/5x5_reduce
I0714 23:35:22.553053  5918 net.cpp:141] Setting up inception_5a/5x5_reduce
I0714 23:35:22.553071  5918 net.cpp:148] Top shape: 10 32 7 7 (15680)
I0714 23:35:22.553076  5918 net.cpp:156] Memory required for data: 531928320
I0714 23:35:22.553086  5918 layer_factory.hpp:77] Creating layer inception_5a/relu_5x5_reduce
I0714 23:35:22.553097  5918 net.cpp:91] Creating Layer inception_5a/relu_5x5_reduce
I0714 23:35:22.553102  5918 net.cpp:425] inception_5a/relu_5x5_reduce <- inception_5a/5x5_reduce
I0714 23:35:22.553110  5918 net.cpp:386] inception_5a/relu_5x5_reduce -> inception_5a/5x5_reduce (in-place)
I0714 23:35:22.554136  5922 net.cpp:141] Setting up inception_5a/5x5_reduce
I0714 23:35:22.554155  5922 net.cpp:148] Top shape: 10 32 7 7 (15680)
I0714 23:35:22.554160  5922 net.cpp:156] Memory required for data: 531928320
I0714 23:35:22.554169  5922 layer_factory.hpp:77] Creating layer inception_5a/relu_5x5_reduce
I0714 23:35:22.554177  5922 net.cpp:91] Creating Layer inception_5a/relu_5x5_reduce
I0714 23:35:22.554183  5922 net.cpp:425] inception_5a/relu_5x5_reduce <- inception_5a/5x5_reduce
I0714 23:35:22.554190  5922 net.cpp:386] inception_5a/relu_5x5_reduce -> inception_5a/5x5_reduce (in-place)
I0714 23:35:22.554394  5918 net.cpp:141] Setting up inception_5a/relu_5x5_reduce
I0714 23:35:22.554407  5918 net.cpp:148] Top shape: 10 32 7 7 (15680)
I0714 23:35:22.554412  5918 net.cpp:156] Memory required for data: 531991040
I0714 23:35:22.554417  5918 layer_factory.hpp:77] Creating layer inception_5a/5x5
I0714 23:35:22.554432  5918 net.cpp:91] Creating Layer inception_5a/5x5
I0714 23:35:22.554438  5918 net.cpp:425] inception_5a/5x5 <- inception_5a/5x5_reduce
I0714 23:35:22.554447  5918 net.cpp:399] inception_5a/5x5 -> inception_5a/5x5
I0714 23:35:22.554860  5922 net.cpp:141] Setting up inception_5a/relu_5x5_reduce
I0714 23:35:22.554875  5922 net.cpp:148] Top shape: 10 32 7 7 (15680)
I0714 23:35:22.554879  5922 net.cpp:156] Memory required for data: 531991040
I0714 23:35:22.554884  5922 layer_factory.hpp:77] Creating layer inception_5a/5x5
I0714 23:35:22.554900  5922 net.cpp:91] Creating Layer inception_5a/5x5
I0714 23:35:22.554906  5922 net.cpp:425] inception_5a/5x5 <- inception_5a/5x5_reduce
I0714 23:35:22.554919  5922 net.cpp:399] inception_5a/5x5 -> inception_5a/5x5
I0714 23:35:22.559789  5918 net.cpp:141] Setting up inception_5a/5x5
I0714 23:35:22.559818  5918 net.cpp:148] Top shape: 10 128 7 7 (62720)
I0714 23:35:22.559823  5918 net.cpp:156] Memory required for data: 532241920
I0714 23:35:22.559833  5918 layer_factory.hpp:77] Creating layer inception_5a/relu_5x5
I0714 23:35:22.559867  5918 net.cpp:91] Creating Layer inception_5a/relu_5x5
I0714 23:35:22.559873  5918 net.cpp:425] inception_5a/relu_5x5 <- inception_5a/5x5
I0714 23:35:22.559880  5918 net.cpp:386] inception_5a/relu_5x5 -> inception_5a/5x5 (in-place)
I0714 23:35:22.560843  5922 net.cpp:141] Setting up inception_5a/5x5
I0714 23:35:22.560871  5922 net.cpp:148] Top shape: 10 128 7 7 (62720)
I0714 23:35:22.560878  5922 net.cpp:156] Memory required for data: 532241920
I0714 23:35:22.560886  5922 layer_factory.hpp:77] Creating layer inception_5a/relu_5x5
I0714 23:35:22.560921  5922 net.cpp:91] Creating Layer inception_5a/relu_5x5
I0714 23:35:22.560928  5922 net.cpp:425] inception_5a/relu_5x5 <- inception_5a/5x5
I0714 23:35:22.560935  5922 net.cpp:386] inception_5a/relu_5x5 -> inception_5a/5x5 (in-place)
I0714 23:35:22.561142  5918 net.cpp:141] Setting up inception_5a/relu_5x5
I0714 23:35:22.561156  5918 net.cpp:148] Top shape: 10 128 7 7 (62720)
I0714 23:35:22.561161  5918 net.cpp:156] Memory required for data: 532492800
I0714 23:35:22.561166  5918 layer_factory.hpp:77] Creating layer inception_5a/pool
I0714 23:35:22.561175  5918 net.cpp:91] Creating Layer inception_5a/pool
I0714 23:35:22.561180  5918 net.cpp:425] inception_5a/pool <- pool4/3x3_s2_pool4/3x3_s2_0_split_3
I0714 23:35:22.561192  5918 net.cpp:399] inception_5a/pool -> inception_5a/pool
I0714 23:35:22.561332  5918 net.cpp:141] Setting up inception_5a/pool
I0714 23:35:22.561343  5918 net.cpp:148] Top shape: 10 832 7 7 (407680)
I0714 23:35:22.561347  5918 net.cpp:156] Memory required for data: 534123520
I0714 23:35:22.561352  5918 layer_factory.hpp:77] Creating layer inception_5a/pool_proj
I0714 23:35:22.561359  5922 net.cpp:141] Setting up inception_5a/relu_5x5
I0714 23:35:22.561369  5918 net.cpp:91] Creating Layer inception_5a/pool_proj
I0714 23:35:22.561372  5922 net.cpp:148] Top shape: 10 128 7 7 (62720)
I0714 23:35:22.561377  5918 net.cpp:425] inception_5a/pool_proj <- inception_5a/pool
I0714 23:35:22.561377  5922 net.cpp:156] Memory required for data: 532492800
I0714 23:35:22.561388  5918 net.cpp:399] inception_5a/pool_proj -> inception_5a/pool_proj
I0714 23:35:22.561388  5922 layer_factory.hpp:77] Creating layer inception_5a/pool
I0714 23:35:22.561409  5922 net.cpp:91] Creating Layer inception_5a/pool
I0714 23:35:22.561416  5922 net.cpp:425] inception_5a/pool <- pool4/3x3_s2_pool4/3x3_s2_0_split_3
I0714 23:35:22.561426  5922 net.cpp:399] inception_5a/pool -> inception_5a/pool
I0714 23:35:22.561636  5922 net.cpp:141] Setting up inception_5a/pool
I0714 23:35:22.561647  5922 net.cpp:148] Top shape: 10 832 7 7 (407680)
I0714 23:35:22.561651  5922 net.cpp:156] Memory required for data: 534123520
I0714 23:35:22.561656  5922 layer_factory.hpp:77] Creating layer inception_5a/pool_proj
I0714 23:35:22.561671  5922 net.cpp:91] Creating Layer inception_5a/pool_proj
I0714 23:35:22.561676  5922 net.cpp:425] inception_5a/pool_proj <- inception_5a/pool
I0714 23:35:22.561688  5922 net.cpp:399] inception_5a/pool_proj -> inception_5a/pool_proj
I0714 23:35:22.567869  5918 net.cpp:141] Setting up inception_5a/pool_proj
I0714 23:35:22.567900  5918 net.cpp:148] Top shape: 10 128 7 7 (62720)
I0714 23:35:22.567905  5918 net.cpp:156] Memory required for data: 534374400
I0714 23:35:22.567915  5918 layer_factory.hpp:77] Creating layer inception_5a/relu_pool_proj
I0714 23:35:22.567925  5918 net.cpp:91] Creating Layer inception_5a/relu_pool_proj
I0714 23:35:22.567931  5918 net.cpp:425] inception_5a/relu_pool_proj <- inception_5a/pool_proj
I0714 23:35:22.567939  5918 net.cpp:386] inception_5a/relu_pool_proj -> inception_5a/pool_proj (in-place)
I0714 23:35:22.568181  5922 net.cpp:141] Setting up inception_5a/pool_proj
I0714 23:35:22.568195  5922 net.cpp:148] Top shape: 10 128 7 7 (62720)
I0714 23:35:22.568200  5922 net.cpp:156] Memory required for data: 534374400
I0714 23:35:22.568210  5922 layer_factory.hpp:77] Creating layer inception_5a/relu_pool_proj
I0714 23:35:22.568218  5922 net.cpp:91] Creating Layer inception_5a/relu_pool_proj
I0714 23:35:22.568224  5922 net.cpp:425] inception_5a/relu_pool_proj <- inception_5a/pool_proj
I0714 23:35:22.568233  5922 net.cpp:386] inception_5a/relu_pool_proj -> inception_5a/pool_proj (in-place)
I0714 23:35:22.568999  5918 net.cpp:141] Setting up inception_5a/relu_pool_proj
I0714 23:35:22.569011  5918 net.cpp:148] Top shape: 10 128 7 7 (62720)
I0714 23:35:22.569028  5918 net.cpp:156] Memory required for data: 534625280
I0714 23:35:22.569033  5918 layer_factory.hpp:77] Creating layer inception_5a/output
I0714 23:35:22.569042  5918 net.cpp:91] Creating Layer inception_5a/output
I0714 23:35:22.569048  5918 net.cpp:425] inception_5a/output <- inception_5a/1x1
I0714 23:35:22.569054  5918 net.cpp:425] inception_5a/output <- inception_5a/3x3
I0714 23:35:22.569061  5918 net.cpp:425] inception_5a/output <- inception_5a/5x5
I0714 23:35:22.569066  5918 net.cpp:425] inception_5a/output <- inception_5a/pool_proj
I0714 23:35:22.569075  5918 net.cpp:399] inception_5a/output -> inception_5a/output
I0714 23:35:22.569146  5918 net.cpp:141] Setting up inception_5a/output
I0714 23:35:22.569156  5918 net.cpp:148] Top shape: 10 832 7 7 (407680)
I0714 23:35:22.569160  5918 net.cpp:156] Memory required for data: 536256000
I0714 23:35:22.569165  5918 layer_factory.hpp:77] Creating layer inception_5a/output_inception_5a/output_0_split
I0714 23:35:22.569174  5922 net.cpp:141] Setting up inception_5a/relu_pool_proj
I0714 23:35:22.569178  5918 net.cpp:91] Creating Layer inception_5a/output_inception_5a/output_0_split
I0714 23:35:22.569190  5918 net.cpp:425] inception_5a/output_inception_5a/output_0_split <- inception_5a/output
I0714 23:35:22.569193  5922 net.cpp:148] Top shape: 10 128 7 7 (62720)
I0714 23:35:22.569197  5918 net.cpp:399] inception_5a/output_inception_5a/output_0_split -> inception_5a/output_inception_5a/output_0_split_0
I0714 23:35:22.569198  5922 net.cpp:156] Memory required for data: 534625280
I0714 23:35:22.569210  5922 layer_factory.hpp:77] Creating layer inception_5a/output
I0714 23:35:22.569211  5918 net.cpp:399] inception_5a/output_inception_5a/output_0_split -> inception_5a/output_inception_5a/output_0_split_1
I0714 23:35:22.569218  5922 net.cpp:91] Creating Layer inception_5a/output
I0714 23:35:22.569221  5918 net.cpp:399] inception_5a/output_inception_5a/output_0_split -> inception_5a/output_inception_5a/output_0_split_2
I0714 23:35:22.569223  5922 net.cpp:425] inception_5a/output <- inception_5a/1x1
I0714 23:35:22.569231  5922 net.cpp:425] inception_5a/output <- inception_5a/3x3
I0714 23:35:22.569231  5918 net.cpp:399] inception_5a/output_inception_5a/output_0_split -> inception_5a/output_inception_5a/output_0_split_3
I0714 23:35:22.569236  5922 net.cpp:425] inception_5a/output <- inception_5a/5x5
I0714 23:35:22.569242  5922 net.cpp:425] inception_5a/output <- inception_5a/pool_proj
I0714 23:35:22.569250  5922 net.cpp:399] inception_5a/output -> inception_5a/output
I0714 23:35:22.569381  5922 net.cpp:141] Setting up inception_5a/output
I0714 23:35:22.569392  5922 net.cpp:148] Top shape: 10 832 7 7 (407680)
I0714 23:35:22.569396  5922 net.cpp:156] Memory required for data: 536256000
I0714 23:35:22.569401  5922 layer_factory.hpp:77] Creating layer inception_5a/output_inception_5a/output_0_split
I0714 23:35:22.569414  5922 net.cpp:91] Creating Layer inception_5a/output_inception_5a/output_0_split
I0714 23:35:22.569419  5922 net.cpp:425] inception_5a/output_inception_5a/output_0_split <- inception_5a/output
I0714 23:35:22.569427  5922 net.cpp:399] inception_5a/output_inception_5a/output_0_split -> inception_5a/output_inception_5a/output_0_split_0
I0714 23:35:22.569437  5922 net.cpp:399] inception_5a/output_inception_5a/output_0_split -> inception_5a/output_inception_5a/output_0_split_1
I0714 23:35:22.569447  5922 net.cpp:399] inception_5a/output_inception_5a/output_0_split -> inception_5a/output_inception_5a/output_0_split_2
I0714 23:35:22.569455  5922 net.cpp:399] inception_5a/output_inception_5a/output_0_split -> inception_5a/output_inception_5a/output_0_split_3
I0714 23:35:22.569463  5918 net.cpp:141] Setting up inception_5a/output_inception_5a/output_0_split
I0714 23:35:22.569473  5918 net.cpp:148] Top shape: 10 832 7 7 (407680)
I0714 23:35:22.569479  5918 net.cpp:148] Top shape: 10 832 7 7 (407680)
I0714 23:35:22.569484  5918 net.cpp:148] Top shape: 10 832 7 7 (407680)
I0714 23:35:22.569489  5918 net.cpp:148] Top shape: 10 832 7 7 (407680)
I0714 23:35:22.569494  5918 net.cpp:156] Memory required for data: 542778880
I0714 23:35:22.569497  5918 layer_factory.hpp:77] Creating layer inception_5b/1x1
I0714 23:35:22.569511  5918 net.cpp:91] Creating Layer inception_5b/1x1
I0714 23:35:22.569517  5918 net.cpp:425] inception_5b/1x1 <- inception_5a/output_inception_5a/output_0_split_0
I0714 23:35:22.569528  5918 net.cpp:399] inception_5b/1x1 -> inception_5b/1x1
I0714 23:35:22.569771  5922 net.cpp:141] Setting up inception_5a/output_inception_5a/output_0_split
I0714 23:35:22.569782  5922 net.cpp:148] Top shape: 10 832 7 7 (407680)
I0714 23:35:22.569787  5922 net.cpp:148] Top shape: 10 832 7 7 (407680)
I0714 23:35:22.569792  5922 net.cpp:148] Top shape: 10 832 7 7 (407680)
I0714 23:35:22.569797  5922 net.cpp:148] Top shape: 10 832 7 7 (407680)
I0714 23:35:22.569800  5922 net.cpp:156] Memory required for data: 542778880
I0714 23:35:22.569804  5922 layer_factory.hpp:77] Creating layer inception_5b/1x1
I0714 23:35:22.569819  5922 net.cpp:91] Creating Layer inception_5b/1x1
I0714 23:35:22.569825  5922 net.cpp:425] inception_5b/1x1 <- inception_5a/output_inception_5a/output_0_split_0
I0714 23:35:22.569839  5922 net.cpp:399] inception_5b/1x1 -> inception_5b/1x1
I0714 23:35:22.577574  5918 net.cpp:141] Setting up inception_5b/1x1
I0714 23:35:22.577605  5918 net.cpp:148] Top shape: 10 384 7 7 (188160)
I0714 23:35:22.577611  5918 net.cpp:156] Memory required for data: 543531520
I0714 23:35:22.577620  5918 layer_factory.hpp:77] Creating layer inception_5b/relu_1x1
I0714 23:35:22.577633  5918 net.cpp:91] Creating Layer inception_5b/relu_1x1
I0714 23:35:22.577639  5918 net.cpp:425] inception_5b/relu_1x1 <- inception_5b/1x1
I0714 23:35:22.577654  5918 net.cpp:386] inception_5b/relu_1x1 -> inception_5b/1x1 (in-place)
I0714 23:35:22.578975  5922 net.cpp:141] Setting up inception_5b/1x1
I0714 23:35:22.578980  5918 net.cpp:141] Setting up inception_5b/relu_1x1
I0714 23:35:22.579005  5922 net.cpp:148] Top shape: 10 384 7 7 (188160)
I0714 23:35:22.579011  5918 net.cpp:148] Top shape: 10 384 7 7 (188160)
I0714 23:35:22.579011  5922 net.cpp:156] Memory required for data: 543531520
I0714 23:35:22.579020  5918 net.cpp:156] Memory required for data: 544284160
I0714 23:35:22.579025  5918 layer_factory.hpp:77] Creating layer inception_5b/3x3_reduce
I0714 23:35:22.579027  5922 layer_factory.hpp:77] Creating layer inception_5b/relu_1x1
I0714 23:35:22.579040  5918 net.cpp:91] Creating Layer inception_5b/3x3_reduce
I0714 23:35:22.579041  5922 net.cpp:91] Creating Layer inception_5b/relu_1x1
I0714 23:35:22.579048  5918 net.cpp:425] inception_5b/3x3_reduce <- inception_5a/output_inception_5a/output_0_split_1
I0714 23:35:22.579051  5922 net.cpp:425] inception_5b/relu_1x1 <- inception_5b/1x1
I0714 23:35:22.579057  5918 net.cpp:399] inception_5b/3x3_reduce -> inception_5b/3x3_reduce
I0714 23:35:22.579059  5922 net.cpp:386] inception_5b/relu_1x1 -> inception_5b/1x1 (in-place)
I0714 23:35:22.580767  5922 net.cpp:141] Setting up inception_5b/relu_1x1
I0714 23:35:22.580795  5922 net.cpp:148] Top shape: 10 384 7 7 (188160)
I0714 23:35:22.580801  5922 net.cpp:156] Memory required for data: 544284160
I0714 23:35:22.580806  5922 layer_factory.hpp:77] Creating layer inception_5b/3x3_reduce
I0714 23:35:22.580821  5922 net.cpp:91] Creating Layer inception_5b/3x3_reduce
I0714 23:35:22.580827  5922 net.cpp:425] inception_5b/3x3_reduce <- inception_5a/output_inception_5a/output_0_split_1
I0714 23:35:22.580838  5922 net.cpp:399] inception_5b/3x3_reduce -> inception_5b/3x3_reduce
I0714 23:35:22.586241  5918 net.cpp:141] Setting up inception_5b/3x3_reduce
I0714 23:35:22.586272  5918 net.cpp:148] Top shape: 10 192 7 7 (94080)
I0714 23:35:22.586277  5918 net.cpp:156] Memory required for data: 544660480
I0714 23:35:22.586285  5918 layer_factory.hpp:77] Creating layer inception_5b/relu_3x3_reduce
I0714 23:35:22.586297  5918 net.cpp:91] Creating Layer inception_5b/relu_3x3_reduce
I0714 23:35:22.586302  5918 net.cpp:425] inception_5b/relu_3x3_reduce <- inception_5b/3x3_reduce
I0714 23:35:22.586309  5918 net.cpp:386] inception_5b/relu_3x3_reduce -> inception_5b/3x3_reduce (in-place)
I0714 23:35:22.587499  5918 net.cpp:141] Setting up inception_5b/relu_3x3_reduce
I0714 23:35:22.587529  5918 net.cpp:148] Top shape: 10 192 7 7 (94080)
I0714 23:35:22.587535  5918 net.cpp:156] Memory required for data: 545036800
I0714 23:35:22.587540  5918 layer_factory.hpp:77] Creating layer inception_5b/3x3
I0714 23:35:22.587558  5918 net.cpp:91] Creating Layer inception_5b/3x3
I0714 23:35:22.587563  5918 net.cpp:425] inception_5b/3x3 <- inception_5b/3x3_reduce
I0714 23:35:22.587573  5918 net.cpp:399] inception_5b/3x3 -> inception_5b/3x3
I0714 23:35:22.587723  5922 net.cpp:141] Setting up inception_5b/3x3_reduce
I0714 23:35:22.587736  5922 net.cpp:148] Top shape: 10 192 7 7 (94080)
I0714 23:35:22.587741  5922 net.cpp:156] Memory required for data: 544660480
I0714 23:35:22.587750  5922 layer_factory.hpp:77] Creating layer inception_5b/relu_3x3_reduce
I0714 23:35:22.587759  5922 net.cpp:91] Creating Layer inception_5b/relu_3x3_reduce
I0714 23:35:22.587764  5922 net.cpp:425] inception_5b/relu_3x3_reduce <- inception_5b/3x3_reduce
I0714 23:35:22.587774  5922 net.cpp:386] inception_5b/relu_3x3_reduce -> inception_5b/3x3_reduce (in-place)
I0714 23:35:22.590004  5922 net.cpp:141] Setting up inception_5b/relu_3x3_reduce
I0714 23:35:22.590019  5922 net.cpp:148] Top shape: 10 192 7 7 (94080)
I0714 23:35:22.590037  5922 net.cpp:156] Memory required for data: 545036800
I0714 23:35:22.590042  5922 layer_factory.hpp:77] Creating layer inception_5b/3x3
I0714 23:35:22.590061  5922 net.cpp:91] Creating Layer inception_5b/3x3
I0714 23:35:22.590067  5922 net.cpp:425] inception_5b/3x3 <- inception_5b/3x3_reduce
I0714 23:35:22.590076  5922 net.cpp:399] inception_5b/3x3 -> inception_5b/3x3
I0714 23:35:22.596830  5918 net.cpp:141] Setting up inception_5b/3x3
I0714 23:35:22.596866  5918 net.cpp:148] Top shape: 10 384 7 7 (188160)
I0714 23:35:22.596873  5918 net.cpp:156] Memory required for data: 545789440
I0714 23:35:22.596882  5918 layer_factory.hpp:77] Creating layer inception_5b/relu_3x3
I0714 23:35:22.596894  5918 net.cpp:91] Creating Layer inception_5b/relu_3x3
I0714 23:35:22.596900  5918 net.cpp:425] inception_5b/relu_3x3 <- inception_5b/3x3
I0714 23:35:22.596909  5918 net.cpp:386] inception_5b/relu_3x3 -> inception_5b/3x3 (in-place)
I0714 23:35:22.598042  5918 net.cpp:141] Setting up inception_5b/relu_3x3
I0714 23:35:22.598055  5918 net.cpp:148] Top shape: 10 384 7 7 (188160)
I0714 23:35:22.598073  5918 net.cpp:156] Memory required for data: 546542080
I0714 23:35:22.598078  5918 layer_factory.hpp:77] Creating layer inception_5b/5x5_reduce
I0714 23:35:22.598096  5918 net.cpp:91] Creating Layer inception_5b/5x5_reduce
I0714 23:35:22.598103  5918 net.cpp:425] inception_5b/5x5_reduce <- inception_5a/output_inception_5a/output_0_split_2
I0714 23:35:22.598111  5918 net.cpp:399] inception_5b/5x5_reduce -> inception_5b/5x5_reduce
I0714 23:35:22.602171  5922 net.cpp:141] Setting up inception_5b/3x3
I0714 23:35:22.602200  5922 net.cpp:148] Top shape: 10 384 7 7 (188160)
I0714 23:35:22.602206  5922 net.cpp:156] Memory required for data: 545789440
I0714 23:35:22.602216  5922 layer_factory.hpp:77] Creating layer inception_5b/relu_3x3
I0714 23:35:22.602224  5922 net.cpp:91] Creating Layer inception_5b/relu_3x3
I0714 23:35:22.602231  5922 net.cpp:425] inception_5b/relu_3x3 <- inception_5b/3x3
I0714 23:35:22.602241  5922 net.cpp:386] inception_5b/relu_3x3 -> inception_5b/3x3 (in-place)
I0714 23:35:22.603274  5918 net.cpp:141] Setting up inception_5b/5x5_reduce
I0714 23:35:22.603296  5918 net.cpp:148] Top shape: 10 48 7 7 (23520)
I0714 23:35:22.603301  5918 net.cpp:156] Memory required for data: 546636160
I0714 23:35:22.603310  5918 layer_factory.hpp:77] Creating layer inception_5b/relu_5x5_reduce
I0714 23:35:22.603318  5918 net.cpp:91] Creating Layer inception_5b/relu_5x5_reduce
I0714 23:35:22.603323  5918 net.cpp:425] inception_5b/relu_5x5_reduce <- inception_5b/5x5_reduce
I0714 23:35:22.603333  5918 net.cpp:386] inception_5b/relu_5x5_reduce -> inception_5b/5x5_reduce (in-place)
I0714 23:35:22.603350  5922 net.cpp:141] Setting up inception_5b/relu_3x3
I0714 23:35:22.603363  5922 net.cpp:148] Top shape: 10 384 7 7 (188160)
I0714 23:35:22.603368  5922 net.cpp:156] Memory required for data: 546542080
I0714 23:35:22.603373  5922 layer_factory.hpp:77] Creating layer inception_5b/5x5_reduce
I0714 23:35:22.603394  5922 net.cpp:91] Creating Layer inception_5b/5x5_reduce
I0714 23:35:22.603400  5922 net.cpp:425] inception_5b/5x5_reduce <- inception_5a/output_inception_5a/output_0_split_2
I0714 23:35:22.603411  5922 net.cpp:399] inception_5b/5x5_reduce -> inception_5b/5x5_reduce
I0714 23:35:22.605270  5918 net.cpp:141] Setting up inception_5b/relu_5x5_reduce
I0714 23:35:22.605283  5918 net.cpp:148] Top shape: 10 48 7 7 (23520)
I0714 23:35:22.605301  5918 net.cpp:156] Memory required for data: 546730240
I0714 23:35:22.605306  5918 layer_factory.hpp:77] Creating layer inception_5b/5x5
I0714 23:35:22.605324  5918 net.cpp:91] Creating Layer inception_5b/5x5
I0714 23:35:22.605329  5918 net.cpp:425] inception_5b/5x5 <- inception_5b/5x5_reduce
I0714 23:35:22.605339  5918 net.cpp:399] inception_5b/5x5 -> inception_5b/5x5
I0714 23:35:22.609489  5922 net.cpp:141] Setting up inception_5b/5x5_reduce
I0714 23:35:22.609519  5922 net.cpp:148] Top shape: 10 48 7 7 (23520)
I0714 23:35:22.609525  5922 net.cpp:156] Memory required for data: 546636160
I0714 23:35:22.609534  5922 layer_factory.hpp:77] Creating layer inception_5b/relu_5x5_reduce
I0714 23:35:22.609546  5922 net.cpp:91] Creating Layer inception_5b/relu_5x5_reduce
I0714 23:35:22.609554  5922 net.cpp:425] inception_5b/relu_5x5_reduce <- inception_5b/5x5_reduce
I0714 23:35:22.609562  5922 net.cpp:386] inception_5b/relu_5x5_reduce -> inception_5b/5x5_reduce (in-place)
I0714 23:35:22.610981  5922 net.cpp:141] Setting up inception_5b/relu_5x5_reduce
I0714 23:35:22.610996  5922 net.cpp:148] Top shape: 10 48 7 7 (23520)
I0714 23:35:22.611001  5922 net.cpp:156] Memory required for data: 546730240
I0714 23:35:22.611006  5922 layer_factory.hpp:77] Creating layer inception_5b/5x5
I0714 23:35:22.611027  5922 net.cpp:91] Creating Layer inception_5b/5x5
I0714 23:35:22.611034  5922 net.cpp:425] inception_5b/5x5 <- inception_5b/5x5_reduce
I0714 23:35:22.611045  5922 net.cpp:399] inception_5b/5x5 -> inception_5b/5x5
I0714 23:35:22.611302  5918 net.cpp:141] Setting up inception_5b/5x5
I0714 23:35:22.611320  5918 net.cpp:148] Top shape: 10 128 7 7 (62720)
I0714 23:35:22.611325  5918 net.cpp:156] Memory required for data: 546981120
I0714 23:35:22.611333  5918 layer_factory.hpp:77] Creating layer inception_5b/relu_5x5
I0714 23:35:22.611341  5918 net.cpp:91] Creating Layer inception_5b/relu_5x5
I0714 23:35:22.611347  5918 net.cpp:425] inception_5b/relu_5x5 <- inception_5b/5x5
I0714 23:35:22.611354  5918 net.cpp:386] inception_5b/relu_5x5 -> inception_5b/5x5 (in-place)
I0714 23:35:22.613139  5918 net.cpp:141] Setting up inception_5b/relu_5x5
I0714 23:35:22.613170  5918 net.cpp:148] Top shape: 10 128 7 7 (62720)
I0714 23:35:22.613175  5918 net.cpp:156] Memory required for data: 547232000
I0714 23:35:22.613180  5918 layer_factory.hpp:77] Creating layer inception_5b/pool
I0714 23:35:22.613191  5918 net.cpp:91] Creating Layer inception_5b/pool
I0714 23:35:22.613198  5918 net.cpp:425] inception_5b/pool <- inception_5a/output_inception_5a/output_0_split_3
I0714 23:35:22.613205  5918 net.cpp:399] inception_5b/pool -> inception_5b/pool
I0714 23:35:22.613271  5918 net.cpp:141] Setting up inception_5b/pool
I0714 23:35:22.613281  5918 net.cpp:148] Top shape: 10 832 7 7 (407680)
I0714 23:35:22.613284  5918 net.cpp:156] Memory required for data: 548862720
I0714 23:35:22.613289  5918 layer_factory.hpp:77] Creating layer inception_5b/pool_proj
I0714 23:35:22.613303  5918 net.cpp:91] Creating Layer inception_5b/pool_proj
I0714 23:35:22.613309  5918 net.cpp:425] inception_5b/pool_proj <- inception_5b/pool
I0714 23:35:22.613320  5918 net.cpp:399] inception_5b/pool_proj -> inception_5b/pool_proj
I0714 23:35:22.616938  5922 net.cpp:141] Setting up inception_5b/5x5
I0714 23:35:22.616968  5922 net.cpp:148] Top shape: 10 128 7 7 (62720)
I0714 23:35:22.616974  5922 net.cpp:156] Memory required for data: 546981120
I0714 23:35:22.616983  5922 layer_factory.hpp:77] Creating layer inception_5b/relu_5x5
I0714 23:35:22.616996  5922 net.cpp:91] Creating Layer inception_5b/relu_5x5
I0714 23:35:22.617002  5922 net.cpp:425] inception_5b/relu_5x5 <- inception_5b/5x5
I0714 23:35:22.617009  5922 net.cpp:386] inception_5b/relu_5x5 -> inception_5b/5x5 (in-place)
I0714 23:35:22.618129  5922 net.cpp:141] Setting up inception_5b/relu_5x5
I0714 23:35:22.618142  5922 net.cpp:148] Top shape: 10 128 7 7 (62720)
I0714 23:35:22.618160  5922 net.cpp:156] Memory required for data: 547232000
I0714 23:35:22.618165  5922 layer_factory.hpp:77] Creating layer inception_5b/pool
I0714 23:35:22.618178  5922 net.cpp:91] Creating Layer inception_5b/pool
I0714 23:35:22.618185  5922 net.cpp:425] inception_5b/pool <- inception_5a/output_inception_5a/output_0_split_3
I0714 23:35:22.618194  5922 net.cpp:399] inception_5b/pool -> inception_5b/pool
I0714 23:35:22.618366  5918 net.cpp:141] Setting up inception_5b/pool_proj
I0714 23:35:22.618377  5922 net.cpp:141] Setting up inception_5b/pool
I0714 23:35:22.618386  5918 net.cpp:148] Top shape: 10 128 7 7 (62720)
I0714 23:35:22.618387  5922 net.cpp:148] Top shape: 10 832 7 7 (407680)
I0714 23:35:22.618391  5918 net.cpp:156] Memory required for data: 549113600
I0714 23:35:22.618391  5922 net.cpp:156] Memory required for data: 548862720
I0714 23:35:22.618396  5922 layer_factory.hpp:77] Creating layer inception_5b/pool_proj
I0714 23:35:22.618401  5918 layer_factory.hpp:77] Creating layer inception_5b/relu_pool_proj
I0714 23:35:22.618408  5918 net.cpp:91] Creating Layer inception_5b/relu_pool_proj
I0714 23:35:22.618412  5922 net.cpp:91] Creating Layer inception_5b/pool_proj
I0714 23:35:22.618414  5918 net.cpp:425] inception_5b/relu_pool_proj <- inception_5b/pool_proj
I0714 23:35:22.618418  5922 net.cpp:425] inception_5b/pool_proj <- inception_5b/pool
I0714 23:35:22.618422  5918 net.cpp:386] inception_5b/relu_pool_proj -> inception_5b/pool_proj (in-place)
I0714 23:35:22.618429  5922 net.cpp:399] inception_5b/pool_proj -> inception_5b/pool_proj
I0714 23:35:22.619978  5918 net.cpp:141] Setting up inception_5b/relu_pool_proj
I0714 23:35:22.620007  5918 net.cpp:148] Top shape: 10 128 7 7 (62720)
I0714 23:35:22.620012  5918 net.cpp:156] Memory required for data: 549364480
I0714 23:35:22.620017  5918 layer_factory.hpp:77] Creating layer inception_5b/output
I0714 23:35:22.620025  5918 net.cpp:91] Creating Layer inception_5b/output
I0714 23:35:22.620030  5918 net.cpp:425] inception_5b/output <- inception_5b/1x1
I0714 23:35:22.620036  5918 net.cpp:425] inception_5b/output <- inception_5b/3x3
I0714 23:35:22.620043  5918 net.cpp:425] inception_5b/output <- inception_5b/5x5
I0714 23:35:22.620048  5918 net.cpp:425] inception_5b/output <- inception_5b/pool_proj
I0714 23:35:22.620055  5918 net.cpp:399] inception_5b/output -> inception_5b/output
I0714 23:35:22.620095  5918 net.cpp:141] Setting up inception_5b/output
I0714 23:35:22.620107  5918 net.cpp:148] Top shape: 10 1024 7 7 (501760)
I0714 23:35:22.620111  5918 net.cpp:156] Memory required for data: 551371520
I0714 23:35:22.620115  5918 layer_factory.hpp:77] Creating layer pool5/7x7_s1
I0714 23:35:22.620123  5918 net.cpp:91] Creating Layer pool5/7x7_s1
I0714 23:35:22.620128  5918 net.cpp:425] pool5/7x7_s1 <- inception_5b/output
I0714 23:35:22.620134  5918 net.cpp:399] pool5/7x7_s1 -> pool5/7x7_s1
I0714 23:35:22.621893  5918 net.cpp:141] Setting up pool5/7x7_s1
I0714 23:35:22.621920  5918 net.cpp:148] Top shape: 10 1024 1 1 (10240)
I0714 23:35:22.621925  5918 net.cpp:156] Memory required for data: 551412480
I0714 23:35:22.621930  5918 layer_factory.hpp:77] Creating layer pool5/drop_7x7_s1
I0714 23:35:22.621951  5918 net.cpp:91] Creating Layer pool5/drop_7x7_s1
I0714 23:35:22.621958  5918 net.cpp:425] pool5/drop_7x7_s1 <- pool5/7x7_s1
I0714 23:35:22.621963  5918 net.cpp:386] pool5/drop_7x7_s1 -> pool5/7x7_s1 (in-place)
I0714 23:35:22.622143  5918 net.cpp:141] Setting up pool5/drop_7x7_s1
I0714 23:35:22.622153  5918 net.cpp:148] Top shape: 10 1024 1 1 (10240)
I0714 23:35:22.622156  5918 net.cpp:156] Memory required for data: 551453440
I0714 23:35:22.622161  5918 layer_factory.hpp:77] Creating layer loss3/classifier
I0714 23:35:22.622181  5918 net.cpp:91] Creating Layer loss3/classifier
I0714 23:35:22.622187  5918 net.cpp:425] loss3/classifier <- pool5/7x7_s1
I0714 23:35:22.622195  5918 net.cpp:399] loss3/classifier -> loss3/classifier
I0714 23:35:22.625820  5922 net.cpp:141] Setting up inception_5b/pool_proj
I0714 23:35:22.625854  5922 net.cpp:148] Top shape: 10 128 7 7 (62720)
I0714 23:35:22.625859  5922 net.cpp:156] Memory required for data: 549113600
I0714 23:35:22.625869  5922 layer_factory.hpp:77] Creating layer inception_5b/relu_pool_proj
I0714 23:35:22.625890  5922 net.cpp:91] Creating Layer inception_5b/relu_pool_proj
I0714 23:35:22.625896  5922 net.cpp:425] inception_5b/relu_pool_proj <- inception_5b/pool_proj
I0714 23:35:22.625903  5922 net.cpp:386] inception_5b/relu_pool_proj -> inception_5b/pool_proj (in-place)
I0714 23:35:22.626193  5922 net.cpp:141] Setting up inception_5b/relu_pool_proj
I0714 23:35:22.626204  5922 net.cpp:148] Top shape: 10 128 7 7 (62720)
I0714 23:35:22.626209  5922 net.cpp:156] Memory required for data: 549364480
I0714 23:35:22.626214  5922 layer_factory.hpp:77] Creating layer inception_5b/output
I0714 23:35:22.626225  5922 net.cpp:91] Creating Layer inception_5b/output
I0714 23:35:22.626231  5922 net.cpp:425] inception_5b/output <- inception_5b/1x1
I0714 23:35:22.626237  5922 net.cpp:425] inception_5b/output <- inception_5b/3x3
I0714 23:35:22.626243  5922 net.cpp:425] inception_5b/output <- inception_5b/5x5
I0714 23:35:22.626248  5922 net.cpp:425] inception_5b/output <- inception_5b/pool_proj
I0714 23:35:22.626255  5922 net.cpp:399] inception_5b/output -> inception_5b/output
I0714 23:35:22.626293  5922 net.cpp:141] Setting up inception_5b/output
I0714 23:35:22.626302  5922 net.cpp:148] Top shape: 10 1024 7 7 (501760)
I0714 23:35:22.626307  5922 net.cpp:156] Memory required for data: 551371520
I0714 23:35:22.626312  5922 layer_factory.hpp:77] Creating layer pool5/7x7_s1
I0714 23:35:22.626323  5922 net.cpp:91] Creating Layer pool5/7x7_s1
I0714 23:35:22.626328  5922 net.cpp:425] pool5/7x7_s1 <- inception_5b/output
I0714 23:35:22.626335  5922 net.cpp:399] pool5/7x7_s1 -> pool5/7x7_s1
I0714 23:35:22.627200  5922 net.cpp:141] Setting up pool5/7x7_s1
I0714 23:35:22.627231  5922 net.cpp:148] Top shape: 10 1024 1 1 (10240)
I0714 23:35:22.627236  5922 net.cpp:156] Memory required for data: 551412480
I0714 23:35:22.627241  5922 layer_factory.hpp:77] Creating layer pool5/drop_7x7_s1
I0714 23:35:22.627250  5922 net.cpp:91] Creating Layer pool5/drop_7x7_s1
I0714 23:35:22.627255  5922 net.cpp:425] pool5/drop_7x7_s1 <- pool5/7x7_s1
I0714 23:35:22.627261  5922 net.cpp:386] pool5/drop_7x7_s1 -> pool5/7x7_s1 (in-place)
I0714 23:35:22.627298  5922 net.cpp:141] Setting up pool5/drop_7x7_s1
I0714 23:35:22.627307  5922 net.cpp:148] Top shape: 10 1024 1 1 (10240)
I0714 23:35:22.627311  5922 net.cpp:156] Memory required for data: 551453440
I0714 23:35:22.627315  5922 layer_factory.hpp:77] Creating layer loss3/classifier
I0714 23:35:22.627328  5922 net.cpp:91] Creating Layer loss3/classifier
I0714 23:35:22.627333  5922 net.cpp:425] loss3/classifier <- pool5/7x7_s1
I0714 23:35:22.627341  5922 net.cpp:399] loss3/classifier -> loss3/classifier
I0714 23:35:22.632421  5918 net.cpp:141] Setting up loss3/classifier
I0714 23:35:22.632457  5918 net.cpp:148] Top shape: 10 1000 (10000)
I0714 23:35:22.632462  5918 net.cpp:156] Memory required for data: 551493440
I0714 23:35:22.632472  5918 layer_factory.hpp:77] Creating layer prob
I0714 23:35:22.632482  5918 net.cpp:91] Creating Layer prob
I0714 23:35:22.632488  5918 net.cpp:425] prob <- loss3/classifier
I0714 23:35:22.632495  5918 net.cpp:399] prob -> prob
I0714 23:35:22.632920  5918 net.cpp:141] Setting up prob
I0714 23:35:22.632933  5918 net.cpp:148] Top shape: 10 1000 (10000)
I0714 23:35:22.632938  5918 net.cpp:156] Memory required for data: 551533440
I0714 23:35:22.632943  5918 net.cpp:219] prob does not need backward computation.
I0714 23:35:22.632948  5918 net.cpp:219] loss3/classifier does not need backward computation.
I0714 23:35:22.632956  5918 net.cpp:219] pool5/drop_7x7_s1 does not need backward computation.
I0714 23:35:22.632961  5918 net.cpp:219] pool5/7x7_s1 does not need backward computation.
…
