…
W0925 23:07:15.150146 22811 upgrade_proto.cpp:71] Note that future Caffe releases will only support input layers and not input fields.
I0925 23:07:15.150511 22829 net.cpp:49] Initializing net from parameters: 
name: "s2vt:features_to_lstm"
state {
  phase: TEST
}
layer {
  name: "input"
  type: "Input"
  top: "frames_fc7"
  top: "cont_sentence"
  top: "input_sentence"
  top: "stage_indicator"
  input_param {
    shape {
      dim: 1
      dim: 4096
    }
    shape {
      dim: 1
      dim: 1
    }
    shape {
      dim: 1
      dim: 1
    }
    shape {
      dim: 1
      dim: 1
    }
  }
}
layer {
  name: "embed_encoder"
  type: "InnerProduct"
  bottom: "frames_fc7"
  top: "embedded_in_frames"
  param {
    lr_mult: 1
    decay_mult: 1
  }
  param {
    lr_mult: 2
    decay_mult: 0
  }
  inner_product_param {
    num_output: 500
    weight_filler {
      type: "xavier"
    }
    bias_filler {
      type: "constant"
      value: 0.2
    }
  }
}
layer {
  name: "reshape_frames"
  type: "Reshape"
  bottom: "embedded_in_frames"
  top: "embedded_input_frames"
  reshape_param {
    shape {
      dim: 1
      dim: 1
      dim: 500
    }
  }
}
layer {
  name: "reshape_stage_indicator"
  type: "Reshape"
  bottom: "stage_indicator"
  top: "reshaped_stage_indicator"
  reshape_param {
    shape {
      dim: 1
      dim: 1
      dim: 1
    }
  }
}
layer {
  name: "embedding"
  type: "Embed"
  bottom: "input_sentence"
  top: "embedded_input_sentence"
  param {
    lr_mult: 1
  }
  embed_param {
    num_output: 500
    input_dim: 46168
    bias_term: false
    weight_filler {
      type: "uniform"
      min: -0.08
      max: 0.08
    }
  }
}
layer {
  name: "lstm1"
  type: "LSTM"
  bottom: "embedded_input_frames"
  bottom: "cont_sentence"
  top: "lstm1"
  recurrent_param {
    num_output: 1000
    weight_filler {
      type: "uniform"
      min: -0.08
      max: 0.08
    }
    bias_filler {
      type: "constant"
      value: 0
    }
  }
}
layer {
  name: "concat"
  type: "Concat"
  bottom: "lstm1"
  bottom: "embedded_input_sentence"
  bottom: "reshaped_stage_indicator"
  top: "lstm1_video_sequence"
  concat_param {
    concat_dim: 2
  }
}
layer {
  name: "lstm2"
  type: "LSTM"
  bottom: "lstm1_video_sequence"
  bottom: "cont_sentence"
  top: "lstm2"
  recurrent_param {
    num_output: 1000
    weight_filler {
      type: "uniform"
      min: -0.08
      max: 0.08
    }
    bias_filler {
      type: "constant"
      value: 0
    }
  }
}
layer {
  name: "predict"
  type: "InnerProduct"
  bottom: "lstm2"
  top: "predict"
  param {
    lr_mult: 1
    decay_mult: 1
  }
  param {
    lr_mult: 2
    decay_mult: 0
  }
  inner_product_param {
    num_output: 46168
    weight_filler {
      type: "uniform"
      min: -0.08
      max: 0.08
    }
    bias_filler {
      type: "constant"
      value: 0
    }
    axis: 2
  }
}
layer {
  name: "probs"
  type: "Softmax"
  bottom: "predict"
  top: "probs"
  softmax_param {
    axis: 2
  }
}
I0925 23:07:15.150562 22811 net.cpp:49] Initializing net from parameters: 
name: "s2vt:features_to_lstm"
state {
  phase: TEST
}
layer {
  name: "input"
  type: "Input"
  top: "frames_fc7"
  top: "cont_sentence"
  top: "input_sentence"
  top: "stage_indicator"
  input_param {
    shape {
      dim: 1
      dim: 4096
    }
    shape {
      dim: 1
      dim: 1
    }
    shape {
      dim: 1
      dim: 1
    }
    shape {
      dim: 1
      dim: 1
    }
  }
}
layer {
  name: "embed_encoder"
  type: "InnerProduct"
  bottom: "frames_fc7"
  top: "embedded_in_frames"
  param {
    lr_mult: 1
    decay_mult: 1
  }
  param {
    lr_mult: 2
    decay_mult: 0
  }
  inner_product_param {
    num_output: 500
    weight_filler {
      type: "xavier"
    }
    bias_filler {
      type: "constant"
      value: 0.2
    }
  }
}
layer {
  name: "reshape_frames"
  type: "Reshape"
  bottom: "embedded_in_frames"
  top: "embedded_input_frames"
  reshape_param {
    shape {
      dim: 1
      dim: 1
      dim: 500
    }
  }
}
layer {
  name: "reshape_stage_indicator"
  type: "Reshape"
  bottom: "stage_indicator"
  top: "reshaped_stage_indicator"
  reshape_param {
    shape {
      dim: 1
      dim: 1
      dim: 1
    }
  }
}
layer {
  name: "embedding"
  type: "Embed"
  bottom: "input_sentence"
  top: "embedded_input_sentence"
  param {
    lr_mult: 1
  }
  embed_param {
    num_output: 500
    input_dim: 46168
    bias_term: false
    weight_filler {
      type: "uniform"
      min: -0.08
      max: 0.08
    }
  }
}
layer {
  name: "lstm1"
  type: "LSTM"
  bottom: "embedded_input_frames"
  bottom: "cont_sentence"
  top: "lstm1"
  recurrent_param {
    num_output: 1000
    weight_filler {
      type: "uniform"
      min: -0.08
      max: 0.08
    }
    bias_filler {
      type: "constant"
      value: 0
    }
  }
}
layer {
  name: "concat"
  type: "Concat"
  bottom: "lstm1"
  bottom: "embedded_input_sentence"
  bottom: "reshaped_stage_indicator"
  top: "lstm1_video_sequence"
  concat_param {
    concat_dim: 2
  }
}
layer {
  name: "lstm2"
  type: "LSTM"
  bottom: "lstm1_video_sequence"
  bottom: "cont_sentence"
  top: "lstm2"
  recurrent_param {
    num_output: 1000
    weight_filler {
      type: "uniform"
      min: -0.08
      max: 0.08
    }
    bias_filler {
      type: "constant"
      value: 0
    }
  }
}
layer {
  name: "predict"
  type: "InnerProduct"
  bottom: "lstm2"
  top: "predict"
  param {
    lr_mult: 1
    decay_mult: 1
  }
  param {
    lr_mult: 2
    decay_mult: 0
  }
  inner_product_param {
    num_output: 46168
    weight_filler {
      type: "uniform"
      min: -0.08
      max: 0.08
    }
    bias_filler {
      type: "constant"
      value: 0
    }
    axis: 2
  }
}
layer {
  name: "probs"
  type: "Softmax"
  bottom: "predict"
  top: "probs"
  softmax_param {
    axis: 2
  }
}
I0925 23:07:15.150729 22829 layer_factory.hpp:77] Creating layer input
I0925 23:07:15.150743 22811 layer_factory.hpp:77] Creating layer input
I0925 23:07:15.150768 22811 net.cpp:91] Creating Layer input
I0925 23:07:15.150769 22829 net.cpp:91] Creating Layer input
I0925 23:07:15.150784 22811 net.cpp:399] input -> frames_fc7
I0925 23:07:15.150784 22829 net.cpp:399] input -> frames_fc7
…
W0925 23:07:15.155002 22855 upgrade_proto.cpp:71] Note that future Caffe releases will only support input layers and not input fields.
I0925 23:07:15.155093 22823 net.cpp:49] Initializing net from parameters: 
name: "s2vt:features_to_lstm"
state {
  phase: TEST
}
layer {
  name: "input"
  type: "Input"
  top: "frames_fc7"
  top: "cont_sentence"
  top: "input_sentence"
  top: "stage_indicator"
  input_param {
    shape {
      dim: 1
      dim: 4096
    }
    shape {
      dim: 1
      dim: 1
    }
    shape {
      dim: 1
      dim: 1
    }
    shape {
      dim: 1
      dim: 1
    }
  }
}
layer {
  name: "embed_encoder"
  type: "InnerProduct"
  bottom: "frames_fc7"
  top: "embedded_in_frames"
  param {
    lr_mult: 1
    decay_mult: 1
  }
  param {
    lr_mult: 2
    decay_mult: 0
  }
  inner_product_param {
    num_output: 500
    weight_filler {
      type: "xavier"
    }
    bias_filler {
      type: "constant"
      value: 0.2
    }
  }
}
layer {
  name: "reshape_frames"
  type: "Reshape"
  bottom: "embedded_in_frames"
  top: "embedded_input_frames"
  reshape_param {
    shape {
      dim: 1
      dim: 1
      dim: 500
    }
  }
}
layer {
  name: "reshape_stage_indicator"
  type: "Reshape"
  bottom: "stage_indicator"
  top: "reshaped_stage_indicator"
  reshape_param {
    shape {
      dim: 1
      dim: 1
      dim: 1
    }
  }
}
layer {
  name: "embedding"
  type: "Embed"
  bottom: "input_sentence"
  top: "embedded_input_sentence"
  param {
    lr_mult: 1
  }
  embed_param {
    num_output: 500
    input_dim: 46168
    bias_term: false
    weight_filler {
      type: "uniform"
      min: -0.08
      max: 0.08
    }
  }
}
layer {
  name: "lstm1"
  type: "LSTM"
  bottom: "embedded_input_frames"
  bottom: "cont_sentence"
  top: "lstm1"
  recurrent_param {
    num_output: 1000
    weight_filler {
      type: "uniform"
      min: -0.08
      max: 0.08
    }
    bias_filler {
      type: "constant"
      value: 0
    }
  }
}
layer {
  name: "concat"
  type: "Concat"
  bottom: "lstm1"
  bottom: "embedded_input_sentence"
  bottom: "reshaped_stage_indicator"
  top: "lstm1_video_sequence"
  concat_param {
    concat_dim: 2
  }
}
layer {
  name: "lstm2"
  type: "LSTM"
  bottom: "lstm1_video_sequence"
  bottom: "cont_sentence"
  top: "lstm2"
  recurrent_param {
    num_output: 1000
    weight_filler {
      type: "uniform"
      min: -0.08
      max: 0.08
    }
    bias_filler {
      type: "constant"
      value: 0
    }
  }
}
layer {
  name: "predict"
  type: "InnerProduct"
  bottom: "lstm2"
  top: "predict"
  param {
    lr_mult: 1
    decay_mult: 1
  }
  param {
    lr_mult: 2
    decay_mult: 0
  }
  inner_product_param {
    num_output: 46168
    weight_filler {
      type: "uniform"
      min: -0.08
      max: 0.08
    }
    bias_filler {
      type: "constant"
      value: 0
    }
    axis: 2
  }
}
layer {
  name: "probs"
  type: "Softmax"
  bottom: "predict"
  top: "probs"
  softmax_param {
    axis: 2
  }
}
I0925 23:07:15.155316 22823 layer_factory.hpp:77] Creating layer input
I0925 23:07:15.155329 22823 net.cpp:91] Creating Layer input
I0925 23:07:15.155338 22823 net.cpp:399] input -> frames_fc7
I0925 23:07:15.155349 22823 net.cpp:399] input -> cont_sentence
I0925 23:07:15.155360 22823 net.cpp:399] input -> input_sentence
I0925 23:07:15.155370 22823 net.cpp:399] input -> stage_indicator
I0925 23:07:15.155383 22815 net.cpp:49] Initializing net from parameters: 
name: "s2vt:features_to_lstm"
state {
  phase: TEST
}
layer {
  name: "input"
  type: "Input"
  top: "frames_fc7"
  top: "cont_sentence"
  top: "input_sentence"
  top: "stage_indicator"
  input_param {
    shape {
      dim: 1
      dim: 4096
    }
    shape {
      dim: 1
      dim: 1
    }
    shape {
      dim: 1
      dim: 1
    }
    shape {
      dim: 1
      dim: 1
    }
  }
}
layer {
  name: "embed_encoder"
  type: "InnerProduct"
  bottom: "frames_fc7"
  top: "embedded_in_frames"
  param {
    lr_mult: 1
    decay_mult: 1
  }
  param {
    lr_mult: 2
    decay_mult: 0
  }
  inner_product_param {
    num_output: 500
    weight_filler {
      type: "xavier"
    }
    bias_filler {
      type: "constant"
      value: 0.2
    }
  }
}
layer {
  name: "reshape_frames"
  type: "Reshape"
  bottom: "embedded_in_frames"
  top: "embedded_input_frames"
  reshape_param {
    shape {
      dim: 1
      dim: 1
      dim: 500
    }
  }
}
layer {
  name: "reshape_stage_indicator"
  type: "Reshape"
  bottom: "stage_indicator"
  top: "reshaped_stage_indicator"
  reshape_param {
    shape {
      dim: 1
      dim: 1
      dim: 1
    }
  }
}
layer {
  name: "embedding"
  type: "Embed"
  bottom: "input_sentence"
  top: "embedded_input_sentence"
  param {
    lr_mult: 1
  }
  embed_param {
    num_output: 500
    input_dim: 46168
    bias_term: false
    weight_filler {
      type: "uniform"
      min: -0.08
      max: 0.08
    }
  }
}
layer {
  name: "lstm1"
  type: "LSTM"
  bottom: "embedded_input_frames"
  bottom: "cont_sentence"
  top: "lstm1"
  recurrent_param {
    num_output: 1000
    weight_filler {
      type: "uniform"
      min: -0.08
      max: 0.08
    }
    bias_filler {
      type: "constant"
      value: 0
    }
  }
}
layer {
  name: "concat"
  type: "Concat"
  bottom: "lstm1"
  bottom: "embedded_input_sentence"
  bottom: "reshaped_stage_indicator"
  top: "lstm1_video_sequence"
  concat_param {
    concat_dim: 2
  }
}
layer {
  name: "lstm2"
  type: "LSTM"
  bottom: "lstm1_video_sequence"
  bottom: "cont_sentence"
  top: "lstm2"
  recurrent_param {
    num_output: 1000
    weight_filler {
      type: "uniform"
      min: -0.08
      max: 0.08
    }
    bias_filler {
      type: "constant"
      value: 0
    }
  }
}
layer {
  name: "predict"
  type: "InnerProduct"
  bottom: "lstm2"
  top: "predict"
  param {
    lr_mult: 1
    decay_mult: 1
  }
  param {
    lr_mult: 2
    decay_mult: 0
  }
  inner_product_param {
    num_output: 46168
    weight_filler {
      type: "uniform"
      min: -0.08
      max: 0.08
    }
    bias_filler {
      type: "constant"
      value: 0
    }
    axis: 2
  }
}
layer {
  name: "probs"
  type: "Softmax"
  bottom: "predict"
  top: "probs"
  softmax_param {
    axis: 2
  }
}
I0925 23:07:15.155388 22859 net.cpp:49] Initializing net from parameters: 
name: "s2vt:features_to_lstm"
state {
  phase: TEST
}
layer {
  name: "input"
  type: "Input"
  top: "frames_fc7"
  top: "cont_sentence"
  top: "input_sentence"
  top: "stage_indicator"
  input_param {
    shape {
      dim: 1
      dim: 4096
    }
    shape {
      dim: 1
      dim: 1
    }
    shape {
      dim: 1
      dim: 1
    }
    shape {
      dim: 1
      dim: 1
    }
  }
}
layer {
  name: "embed_encoder"
  type: "InnerProduct"
  bottom: "frames_fc7"
  top: "embedded_in_frames"
  param {
    lr_mult: 1
    decay_mult: 1
  }
  param {
    lr_mult: 2
    decay_mult: 0
  }
  inner_product_param {
    num_output: 500
    weight_filler {
      type: "xavier"
    }
    bias_filler {
      type: "constant"
      value: 0.2
    }
  }
}
layer {
  name: "reshape_frames"
  type: "Reshape"
  bottom: "embedded_in_frames"
  top: "embedded_input_frames"
  reshape_param {
    shape {
      dim: 1
      dim: 1
      dim: 500
    }
  }
}
layer {
  name: "reshape_stage_indicator"
  type: "Reshape"
  bottom: "stage_indicator"
  top: "reshaped_stage_indicator"
  reshape_param {
    shape {
      dim: 1
      dim: 1
      dim: 1
    }
  }
}
layer {
  name: "embedding"
  type: "Embed"
  bottom: "input_sentence"
  top: "embedded_input_sentence"
  param {
    lr_mult: 1
  }
  embed_param {
    num_output: 500
    input_dim: 46168
    bias_term: false
    weight_filler {
      type: "uniform"
      min: -0.08
      max: 0.08
    }
  }
}
layer {
  name: "lstm1"
  type: "LSTM"
  bottom: "embedded_input_frames"
  bottom: "cont_sentence"
  top: "lstm1"
  recurrent_param {
    num_output: 1000
    weight_filler {
      type: "uniform"
      min: -0.08
      max: 0.08
    }
    bias_filler {
      type: "constant"
      value: 0
    }
  }
}
layer {
  name: "concat"
  type: "Concat"
  bottom: "lstm1"
  bottom: "embedded_input_sentence"
  bottom: "reshaped_stage_indicator"
  top: "lstm1_video_sequence"
  concat_param {
    concat_dim: 2
  }
}
layer {
  name: "lstm2"
  type: "LSTM"
  bottom: "lstm1_video_sequence"
  bottom: "cont_sentence"
  top: "lstm2"
  recurrent_param {
    num_output: 1000
    weight_filler {
      type: "uniform"
      min: -0.08
      max: 0.08
    }
    bias_filler {
      type: "constant"
      value: 0
    }
  }
}
layer {
  name: "predict"
  type: "InnerProduct"
  bottom: "lstm2"
  top: "predict"
  param {
    lr_mult: 1
    decay_mult: 1
  }
  param {
    lr_mult: 2
    decay_mult: 0
  }
  inner_product_param {
    num_output: 46168
    weight_filler {
      type: "uniform"
      min: -0.08
      max: 0.08
    }
    bias_filler {
      type: "constant"
      value: 0
    }
    axis: 2
  }
}
layer {
  name: "probs"
  type: "Softmax"
  bottom: "predict"
  top: "probs"
  softmax_param {
    axis: 2
  }
}
I0925 23:07:15.155406 22809 net.cpp:49] Initializing net from parameters: 
name: "s2vt:features_to_lstm"
state {
  phase: TEST
}
layer {
  name: "input"
  type: "Input"
  top: "frames_fc7"
  top: "cont_sentence"
  top: "input_sentence"
  top: "stage_indicator"
  input_param {
    shape {
      dim: 1
      dim: 4096
    }
    shape {
      dim: 1
      dim: 1
    }
    shape {
      dim: 1
      dim: 1
    }
    shape {
      dim: 1
      dim: 1
    }
  }
}
layer {
  name: "embed_encoder"
  type: "InnerProduct"
  bottom: "frames_fc7"
  top: "embedded_in_frames"
  param {
    lr_mult: 1
    decay_mult: 1
  }
  param {
    lr_mult: 2
    decay_mult: 0
  }
  inner_product_param {
    num_output: 500
    weight_filler {
      type: "xavier"
    }
    bias_filler {
      type: "constant"
      value: 0.2
    }
  }
}
layer {
  name: "reshape_frames"
  type: "Reshape"
  bottom: "embedded_in_frames"
  top: "embedded_input_frames"
  reshape_param {
    shape {
      dim: 1
      dim: 1
      dim: 500
    }
  }
}
layer {
  name: "reshape_stage_indicator"
  type: "Reshape"
  bottom: "stage_indicator"
  top: "reshaped_stage_indicator"
  reshape_param {
    shape {
      dim: 1
      dim: 1
      dim: 1
    }
  }
}
layer {
  name: "embedding"
  type: "Embed"
  bottom: "input_sentence"
  top: "embedded_input_sentence"
  param {
    lr_mult: 1
  }
  embed_param {
    num_output: 500
    input_dim: 46168
    bias_term: false
    weight_filler {
      type: "uniform"
      min: -0.08
      max: 0.08
    }
  }
}
layer {
  name: "lstm1"
  type: "LSTM"
  bottom: "embedded_input_frames"
  bottom: "cont_sentence"
  top: "lstm1"
  recurrent_param {
    num_output: 1000
    weight_filler {
      type: "uniform"
      min: -0.08
      max: 0.08
    }
    bias_filler {
      type: "constant"
      value: 0
    }
  }
}
layer {
  name: "concat"
  type: "Concat"
  bottom: "lstm1"
  bottom: "embedded_input_sentence"
  bottom: "reshaped_stage_indicator"
  top: "lstm1_video_sequence"
  concat_param {
    concat_dim: 2
  }
}
layer {
  name: "lstm2"
  type: "LSTM"
  bottom: "lstm1_video_sequence"
  bottom: "cont_sentence"
  top: "lstm2"
  recurrent_param {
    num_output: 1000
    weight_filler {
      type: "uniform"
      min: -0.08
      max: 0.08
    }
    bias_filler {
      type: "constant"
      value: 0
    }
  }
}
layer {
  name: "predict"
  type: "InnerProduct"
  bottom: "lstm2"
  top: "predict"
  param {
    lr_mult: 1
    decay_mult: 1
  }
  param {
    lr_mult: 2
    decay_mult: 0
  }
  inner_product_param {
    num_output: 46168
    weight_filler {
      type: "uniform"
      min: -0.08
      max: 0.08
    }
    bias_filler {
      type: "constant"
      value: 0
    }
    axis: 2
  }
}
layer {
  name: "probs"
  type: "Softmax"
  bottom: "predict"
  top: "probs"
  softmax_param {
    axis: 2
  }
}
I0925 23:07:15.155571 22855 net.cpp:49] Initializing net from parameters: 
name: "s2vt:features_to_lstm"
state {
  phase: TEST
}
layer {
  name: "input"
  type: "Input"
  top: "frames_fc7"
  top: "cont_sentence"
  top: "input_sentence"
  top: "stage_indicator"
  input_param {
    shape {
      dim: 1
      dim: 4096
    }
    shape {
      dim: 1
      dim: 1
    }
    shape {
      dim: 1
      dim: 1
    }
    shape {
      dim: 1
      dim: 1
    }
  }
}
layer {
  name: "embed_encoder"
  type: "InnerProduct"
  bottom: "frames_fc7"
  top: "embedded_in_frames"
  param {
    lr_mult: 1
    decay_mult: 1
  }
  param {
    lr_mult: 2
    decay_mult: 0
  }
  inner_product_param {
    num_output: 500
    weight_filler {
      type: "xavier"
    }
    bias_filler {
      type: "constant"
      value: 0.2
    }
  }
}
layer {
  name: "reshape_frames"
  type: "Reshape"
  bottom: "embedded_in_frames"
  top: "embedded_input_frames"
  reshape_param {
    shape {
      dim: 1
      dim: 1
      dim: 500
    }
  }
}
layer {
  name: "reshape_stage_indicator"
  type: "Reshape"
  bottom: "stage_indicator"
  top: "reshaped_stage_indicator"
  reshape_param {
    shape {
      dim: 1
      dim: 1
      dim: 1
    }
  }
}
layer {
  name: "embedding"
  type: "Embed"
  bottom: "input_sentence"
  top: "embedded_input_sentence"
  param {
    lr_mult: 1
  }
  embed_param {
    num_output: 500
    input_dim: 46168
    bias_term: false
    weight_filler {
      type: "uniform"
      min: -0.08
      max: 0.08
    }
  }
}
layer {
  name: "lstm1"
  type: "LSTM"
  bottom: "embedded_input_frames"
  bottom: "cont_sentence"
  top: "lstm1"
  recurrent_param {
    num_output: 1000
    weight_filler {
      type: "uniform"
      min: -0.08
      max: 0.08
    }
    bias_filler {
      type: "constant"
      value: 0
    }
  }
}
layer {
  name: "concat"
  type: "Concat"
  bottom: "lstm1"
  bottom: "embedded_input_sentence"
  bottom: "reshaped_stage_indicator"
  top: "lstm1_video_sequence"
  concat_param {
    concat_dim: 2
  }
}
layer {
  name: "lstm2"
  type: "LSTM"
  bottom: "lstm1_video_sequence"
  bottom: "cont_sentence"
  top: "lstm2"
  recurrent_param {
    num_output: 1000
    weight_filler {
      type: "uniform"
      min: -0.08
      max: 0.08
    }
    bias_filler {
      type: "constant"
      value: 0
    }
  }
}
layer {
  name: "predict"
  type: "InnerProduct"
  bottom: "lstm2"
  top: "predict"
  param {
    lr_mult: 1
    decay_mult: 1
  }
  param {
    lr_mult: 2
    decay_mult: 0
  }
  inner_product_param {
    num_output: 46168
    weight_filler {
      type: "uniform"
      min: -0.08
      max: 0.08
    }
    bias_filler {
      type: "constant"
      value: 0
    }
    axis: 2
  }
}
layer {
  name: "probs"
  type: "Softmax"
  bottom: "predict"
  top: "probs"
  softmax_param {
    axis: 2
  }
}
I0925 23:07:15.155696 22809 layer_factory.hpp:77] Creating layer input
I0925 23:07:15.155714 22859 layer_factory.hpp:77] Creating layer input
I0925 23:07:15.155719 22809 net.cpp:91] Creating Layer input
I0925 23:07:15.155751 22809 net.cpp:399] input -> frames_fc7
I0925 23:07:15.155767 22855 layer_factory.hpp:77] Creating layer input
I0925 23:07:15.155769 22859 net.cpp:91] Creating Layer input
…
I0925 23:07:15.155935 22815 net.cpp:91] Creating Layer input
I0925 23:07:15.155946 22815 net.cpp:399] input -> frames_fc7
I0925 23:07:15.155962 22815 net.cpp:399] input -> cont_sentence
I0925 23:07:15.155979 22815 net.cpp:399] input -> input_sentence
I0925 23:07:15.155995 22815 net.cpp:399] input -> stage_indicator
I0925 23:07:15.156141 22831 net.cpp:49] Initializing net from parameters: 
name: "CaffeNet"
state {
  phase: TEST
}
layer {
  name: "data"
  type: "Input"
  top: "data"
  input_param {
    shape {
      dim: 10
      dim: 3
      dim: 227
      dim: 227
    }
  }
}
layer {
  name: "conv1"
  type: "Convolution"
  bottom: "data"
  top: "conv1"
  convolution_param {
    num_output: 96
    kernel_size: 11
    stride: 4
  }
}
layer {
  name: "relu1"
  type: "ReLU"
  bottom: "conv1"
  top: "conv1"
}
layer {
  name: "pool1"
  type: "Pooling"
  bottom: "conv1"
  top: "pool1"
  pooling_param {
    pool: MAX
    kernel_size: 3
    stride: 2
  }
}
layer {
  name: "norm1"
  type: "LRN"
  bottom: "pool1"
  top: "norm1"
  lrn_param {
    local_size: 5
    alpha: 0.0001
    beta: 0.75
  }
}
layer {
  name: "conv2"
  type: "Convolution"
  bottom: "norm1"
  top: "conv2"
  convolution_param {
    num_output: 256
    pad: 2
    kernel_size: 5
    group: 2
  }
}
layer {
  name: "relu2"
  type: "ReLU"
  bottom: "conv2"
  top: "conv2"
}
layer {
  name: "pool2"
  type: "Pooling"
  bottom: "conv2"
  top: "pool2"
  pooling_param {
    pool: MAX
    kernel_size: 3
    stride: 2
  }
}
layer {
  name: "norm2"
  type: "LRN"
  bottom: "pool2"
  top: "norm2"
  lrn_param {
    local_size: 5
    alpha: 0.0001
    beta: 0.75
  }
}
layer {
  name: "conv3"
  type: "Convolution"
  bottom: "norm2"
  top: "conv3"
  convolution_param {
    num_output: 384
    pad: 1
    kernel_size: 3
  }
}
layer {
  name: "relu3"
  type: "ReLU"
  bottom: "conv3"
  top: "conv3"
}
layer {
  name: "conv4"
  type: "Convolution"
  bottom: "conv3"
  top: "conv4"
  convolution_param {
    num_output: 384
    pad: 1
    kernel_size: 3
    group: 2
  }
}
layer {
  name: "relu4"
  type: "ReLU"
  bottom: "conv4"
  top: "conv4"
}
layer {
  name: "conv5"
  type: "Convolution"
  bottom: "conv4"
  top: "conv5"
  convolution_param {
    num_output: 256
    pad: 1
    kernel_size: 3
    group: 2
  }
}
layer {
  name: "relu5"
  type: "ReLU"
  bottom: "conv5"
  top: "conv5"
}
layer {
  name: "pool5"
  type: "Pooling"
  bottom: "conv5"
  top: "pool5"
  pooling_param {
    pool: MAX
    kernel_size: 3
    stride: 2
  }
}
layer {
  name: "fc6"
  type: "InnerProduct"
  bottom: "pool5"
  top: "fc6"
  inner_product_param {
    num_output: 4096
  }
}
layer {
  name: "relu6"
  type: "ReLU"
  bottom: "fc6"
  top: "fc6"
}
layer {
  name: "drop6"
  type: "Dropout"
  bottom: "fc6"
  top: "fc6"
  dropout_param {
    dropout_ratio: 0.5
  }
}
layer {
  name: "fc7"
  type: "InnerProduct"
  bottom: "fc6"
  top: "fc7"
  inner_product_param {
    num_output: 4096
  }
}
layer {
  name: "relu7"
  type: "ReLU"
  bottom: "fc7"
  top: "fc7"
}
layer {
  name: "drop7"
  type: "Dropout"
  bottom: "fc7"
  top: "fc7"
  dropout_param {
    dropout_ratio: 0.5
  }
}
layer {
  name: "fc8"
  type: "InnerProduct"
  bottom: "fc7"
  top: "fc8"
  inner_product_param {
    num_output: 1000
  }
}
layer {
  name: "prob"
  type: "Softmax"
  bottom: "fc8"
  top: "prob"
}
I0925 23:07:15.156292 22831 layer_factory.hpp:77] Creating layer data
I0925 23:07:15.156316 22831 net.cpp:91] Creating Layer data
I0925 23:07:15.156328 22831 net.cpp:399] data -> data
I0925 23:07:15.155794 22855 net.cpp:91] Creating Layer input
I0925 23:07:15.159225 22855 net.cpp:399] input -> frames_fc7
I0925 23:07:15.159252 22855 net.cpp:399] input -> cont_sentence
I0925 23:07:15.159271 22855 net.cpp:399] input -> input_sentence
I0925 23:07:15.159287 22855 net.cpp:399] input -> stage_indicator
I0925 23:07:15.859935 22811 net.cpp:141] Setting up input
I0925 23:07:15.860113 22811 net.cpp:148] Top shape: 1 4096 (4096)
I0925 23:07:15.860131 22811 net.cpp:148] Top shape: 1 1 (1)
I0925 23:07:15.860141 22811 net.cpp:148] Top shape: 1 1 (1)
I0925 23:07:15.860152 22811 net.cpp:148] Top shape: 1 1 (1)
I0925 23:07:15.860152 22823 net.cpp:141] Setting up input
I0925 23:07:15.860162 22811 net.cpp:156] Memory required for data: 16396
I0925 23:07:15.860194 22823 net.cpp:148] Top shape: 1 4096 (4096)
I0925 23:07:15.860203 22823 net.cpp:148] Top shape: 1 1 (1)
I0925 23:07:15.860209 22811 layer_factory.hpp:77] Creating layer cont_sentence_input_1_split
I0925 23:07:15.860209 22823 net.cpp:148] Top shape: 1 1 (1)
I0925 23:07:15.860231 22823 net.cpp:148] Top shape: 1 1 (1)
I0925 23:07:15.860236 22823 net.cpp:156] Memory required for data: 16396
I0925 23:07:15.860246 22823 layer_factory.hpp:77] Creating layer cont_sentence_input_1_split
I0925 23:07:15.860252 22811 net.cpp:91] Creating Layer cont_sentence_input_1_split
I0925 23:07:15.860244 22831 net.cpp:141] Setting up data
I0925 23:07:15.860270 22823 net.cpp:91] Creating Layer cont_sentence_input_1_split
I0925 23:07:15.860273 22831 net.cpp:148] Top shape: 10 3 227 227 (1545870)
I0925 23:07:15.860280 22823 net.cpp:425] cont_sentence_input_1_split <- cont_sentence
I0925 23:07:15.860270 22811 net.cpp:425] cont_sentence_input_1_split <- cont_sentence
I0925 23:07:15.860285 22831 net.cpp:156] Memory required for data: 6183480
I0925 23:07:15.860298 22831 layer_factory.hpp:77] Creating layer conv1
I0925 23:07:15.860312 22811 net.cpp:399] cont_sentence_input_1_split -> cont_sentence_input_1_split_0
I0925 23:07:15.860314 22823 net.cpp:399] cont_sentence_input_1_split -> cont_sentence_input_1_split_0
I0925 23:07:15.860326 22831 net.cpp:91] Creating Layer conv1
I0925 23:07:15.860332 22831 net.cpp:425] conv1 <- data
I0925 23:07:15.860332 22811 net.cpp:399] cont_sentence_input_1_split -> cont_sentence_input_1_split_1
I0925 23:07:15.860340 22823 net.cpp:399] cont_sentence_input_1_split -> cont_sentence_input_1_split_1
I0925 23:07:15.860347 22831 net.cpp:399] conv1 -> conv1
I0925 23:07:15.860409 22811 net.cpp:141] Setting up cont_sentence_input_1_split
I0925 23:07:15.860420 22811 net.cpp:148] Top shape: 1 1 (1)
I0925 23:07:15.860426 22811 net.cpp:148] Top shape: 1 1 (1)
I0925 23:07:15.860431 22811 net.cpp:156] Memory required for data: 16404
I0925 23:07:15.860436 22811 layer_factory.hpp:77] Creating layer embed_encoder
I0925 23:07:15.860458 22811 net.cpp:91] Creating Layer embed_encoder
I0925 23:07:15.860465 22811 net.cpp:425] embed_encoder <- frames_fc7
I0925 23:07:15.860472 22811 net.cpp:399] embed_encoder -> embedded_in_frames
I0925 23:07:15.860580 22809 net.cpp:141] Setting up input
I0925 23:07:15.860602 22809 net.cpp:148] Top shape: 1 4096 (4096)
I0925 23:07:15.860610 22809 net.cpp:148] Top shape: 1 1 (1)
I0925 23:07:15.860616 22809 net.cpp:148] Top shape: 1 1 (1)
I0925 23:07:15.860622 22809 net.cpp:148] Top shape: 1 1 (1)
I0925 23:07:15.860626 22809 net.cpp:156] Memory required for data: 16396
I0925 23:07:15.860632 22809 layer_factory.hpp:77] Creating layer cont_sentence_input_1_split
I0925 23:07:15.860644 22809 net.cpp:91] Creating Layer cont_sentence_input_1_split
I0925 23:07:15.860651 22809 net.cpp:425] cont_sentence_input_1_split <- cont_sentence
I0925 23:07:15.860661 22809 net.cpp:399] cont_sentence_input_1_split -> cont_sentence_input_1_split_0
I0925 23:07:15.860672 22809 net.cpp:399] cont_sentence_input_1_split -> cont_sentence_input_1_split_1
I0925 23:07:15.860694 22823 net.cpp:141] Setting up cont_sentence_input_1_split
I0925 23:07:15.860707 22823 net.cpp:148] Top shape: 1 1 (1)
I0925 23:07:15.860713 22823 net.cpp:148] Top shape: 1 1 (1)
I0925 23:07:15.860718 22823 net.cpp:156] Memory required for data: 16404
I0925 23:07:15.860723 22823 layer_factory.hpp:77] Creating layer embed_encoder
I0925 23:07:15.860733 22809 net.cpp:141] Setting up cont_sentence_input_1_split
I0925 23:07:15.860744 22809 net.cpp:148] Top shape: 1 1 (1)
I0925 23:07:15.860743 22823 net.cpp:91] Creating Layer embed_encoder
I0925 23:07:15.860751 22809 net.cpp:148] Top shape: 1 1 (1)
I0925 23:07:15.860754 22823 net.cpp:425] embed_encoder <- frames_fc7
I0925 23:07:15.860757 22809 net.cpp:156] Memory required for data: 16404
I0925 23:07:15.860764 22809 layer_factory.hpp:77] Creating layer embed_encoder
I0925 23:07:15.860770 22823 net.cpp:399] embed_encoder -> embedded_in_frames
I0925 23:07:15.860774 22809 net.cpp:91] Creating Layer embed_encoder
I0925 23:07:15.860780 22809 net.cpp:425] embed_encoder <- frames_fc7
I0925 23:07:15.860790 22809 net.cpp:399] embed_encoder -> embedded_in_frames
I0925 23:07:15.861268 22847 net.cpp:141] Setting up input
I0925 23:07:15.861287 22847 net.cpp:148] Top shape: 1 4096 (4096)
I0925 23:07:15.861299 22847 net.cpp:148] Top shape: 1 1 (1)
I0925 23:07:15.861310 22847 net.cpp:148] Top shape: 1 1 (1)
I0925 23:07:15.861315 22847 net.cpp:148] Top shape: 1 1 (1)
I0925 23:07:15.861320 22847 net.cpp:156] Memory required for data: 16396
I0925 23:07:15.861325 22847 layer_factory.hpp:77] Creating layer cont_sentence_input_1_split
I0925 23:07:15.861351 22847 net.cpp:91] Creating Layer cont_sentence_input_1_split
I0925 23:07:15.861358 22847 net.cpp:425] cont_sentence_input_1_split <- cont_sentence
I0925 23:07:15.861367 22847 net.cpp:399] cont_sentence_input_1_split -> cont_sentence_input_1_split_0
I0925 23:07:15.861378 22847 net.cpp:399] cont_sentence_input_1_split -> cont_sentence_input_1_split_1
I0925 23:07:15.866652 22805 net.cpp:141] Setting up input
I0925 23:07:15.866672 22805 net.cpp:148] Top shape: 1 4096 (4096)
I0925 23:07:15.866678 22805 net.cpp:148] Top shape: 1 1 (1)
I0925 23:07:15.866683 22805 net.cpp:148] Top shape: 1 1 (1)
I0925 23:07:15.866689 22805 net.cpp:148] Top shape: 1 1 (1)
I0925 23:07:15.866693 22805 net.cpp:156] Memory required for data: 16396
I0925 23:07:15.866698 22805 layer_factory.hpp:77] Creating layer cont_sentence_input_1_split
I0925 23:07:15.866719 22805 net.cpp:91] Creating Layer cont_sentence_input_1_split
I0925 23:07:15.866726 22805 net.cpp:425] cont_sentence_input_1_split <- cont_sentence
I0925 23:07:15.866734 22805 net.cpp:399] cont_sentence_input_1_split -> cont_sentence_input_1_split_0
I0925 23:07:15.866745 22805 net.cpp:399] cont_sentence_input_1_split -> cont_sentence_input_1_split_1
I0925 23:07:15.874234 22815 net.cpp:141] Setting up input
I0925 23:07:15.874272 22815 net.cpp:148] Top shape: 1 4096 (4096)
I0925 23:07:15.874279 22815 net.cpp:148] Top shape: 1 1 (1)
I0925 23:07:15.874285 22815 net.cpp:148] Top shape: 1 1 (1)
I0925 23:07:15.874291 22815 net.cpp:148] Top shape: 1 1 (1)
I0925 23:07:15.874295 22815 net.cpp:156] Memory required for data: 16396
I0925 23:07:15.874301 22815 layer_factory.hpp:77] Creating layer cont_sentence_input_1_split
I0925 23:07:15.874315 22815 net.cpp:91] Creating Layer cont_sentence_input_1_split
I0925 23:07:15.874320 22815 net.cpp:425] cont_sentence_input_1_split <- cont_sentence
I0925 23:07:15.874330 22815 net.cpp:399] cont_sentence_input_1_split -> cont_sentence_input_1_split_0
I0925 23:07:15.874343 22815 net.cpp:399] cont_sentence_input_1_split -> cont_sentence_input_1_split_1
I0925 23:07:15.874341 22859 net.cpp:141] Setting up input
I0925 23:07:15.874382 22859 net.cpp:148] Top shape: 1 4096 (4096)
I0925 23:07:15.874389 22859 net.cpp:148] Top shape: 1 1 (1)
I0925 23:07:15.874395 22859 net.cpp:148] Top shape: 1 1 (1)
I0925 23:07:15.874402 22859 net.cpp:148] Top shape: 1 1 (1)
I0925 23:07:15.874405 22859 net.cpp:156] Memory required for data: 16396
I0925 23:07:15.874414 22859 layer_factory.hpp:77] Creating layer cont_sentence_input_1_split
I0925 23:07:15.874411 22829 net.cpp:141] Setting up input
I0925 23:07:15.874430 22859 net.cpp:91] Creating Layer cont_sentence_input_1_split
I0925 23:07:15.874439 22859 net.cpp:425] cont_sentence_input_1_split <- cont_sentence
I0925 23:07:15.874440 22855 net.cpp:141] Setting up input
I0925 23:07:15.874449 22829 net.cpp:148] Top shape: 1 4096 (4096)
I0925 23:07:15.874467 22855 net.cpp:148] Top shape: 1 4096 (4096)
I0925 23:07:15.874449 22859 net.cpp:399] cont_sentence_input_1_split -> cont_sentence_input_1_split_0
I0925 23:07:15.874481 22855 net.cpp:148] Top shape: 1 1 (1)
I0925 23:07:15.874488 22829 net.cpp:148] Top shape: 1 1 (1)
I0925 23:07:15.874492 22859 net.cpp:399] cont_sentence_input_1_split -> cont_sentence_input_1_split_1
I0925 23:07:15.874495 22855 net.cpp:148] Top shape: 1 1 (1)
I0925 23:07:15.874521 22829 net.cpp:148] Top shape: 1 1 (1)
I0925 23:07:15.874523 22805 net.cpp:141] Setting up cont_sentence_input_1_split
I0925 23:07:15.874526 22855 net.cpp:148] Top shape: 1 1 (1)
I0925 23:07:15.874552 22829 net.cpp:148] Top shape: 1 1 (1)
I0925 23:07:15.874562 22847 net.cpp:141] Setting up cont_sentence_input_1_split
I0925 23:07:15.874559 22855 net.cpp:156] Memory required for data: 16396
I0925 23:07:15.874586 22847 net.cpp:148] Top shape: 1 1 (1)
I0925 23:07:15.874575 22829 net.cpp:156] Memory required for data: 16396
I0925 23:07:15.874608 22847 net.cpp:148] Top shape: 1 1 (1)
I0925 23:07:15.874558 22805 net.cpp:148] Top shape: 1 1 (1)
I0925 23:07:15.874605 22855 layer_factory.hpp:77] Creating layer cont_sentence_input_1_split
I0925 23:07:15.874621 22805 net.cpp:148] Top shape: 1 1 (1)
I0925 23:07:15.874617 22847 net.cpp:156] Memory required for data: 16404
I0925 23:07:15.874627 22805 net.cpp:156] Memory required for data: 16404
I0925 23:07:15.874634 22847 layer_factory.hpp:77] Creating layer embed_encoder
I0925 23:07:15.874635 22805 layer_factory.hpp:77] Creating layer embed_encoder
I0925 23:07:15.874642 22855 net.cpp:91] Creating Layer cont_sentence_input_1_split
I0925 23:07:15.874651 22855 net.cpp:425] cont_sentence_input_1_split <- cont_sentence
I0925 23:07:15.874652 22847 net.cpp:91] Creating Layer embed_encoder
I0925 23:07:15.874653 22805 net.cpp:91] Creating Layer embed_encoder
I0925 23:07:15.874667 22855 net.cpp:399] cont_sentence_input_1_split -> cont_sentence_input_1_split_0
I0925 23:07:15.874670 22847 net.cpp:425] embed_encoder <- frames_fc7
I0925 23:07:15.874666 22859 net.cpp:141] Setting up cont_sentence_input_1_split
I0925 23:07:15.874680 22805 net.cpp:425] embed_encoder <- frames_fc7
I0925 23:07:15.874683 22847 net.cpp:399] embed_encoder -> embedded_in_frames
I0925 23:07:15.874685 22859 net.cpp:148] Top shape: 1 1 (1)
I0925 23:07:15.874680 22829 layer_factory.hpp:77] Creating layer cont_sentence_input_1_split
I0925 23:07:15.874691 22805 net.cpp:399] embed_encoder -> embedded_in_frames
I0925 23:07:15.874686 22855 net.cpp:399] cont_sentence_input_1_split -> cont_sentence_input_1_split_1
I0925 23:07:15.874706 22815 net.cpp:141] Setting up cont_sentence_input_1_split
I0925 23:07:15.874691 22859 net.cpp:148] Top shape: 1 1 (1)
I0925 23:07:15.874723 22815 net.cpp:148] Top shape: 1 1 (1)
I0925 23:07:15.874722 22829 net.cpp:91] Creating Layer cont_sentence_input_1_split
I0925 23:07:15.874727 22859 net.cpp:156] Memory required for data: 16404
I0925 23:07:15.874732 22815 net.cpp:148] Top shape: 1 1 (1)
I0925 23:07:15.874753 22859 layer_factory.hpp:77] Creating layer embed_encoder
I0925 23:07:15.874758 22815 net.cpp:156] Memory required for data: 16404
I0925 23:07:15.874769 22859 net.cpp:91] Creating Layer embed_encoder
I0925 23:07:15.874774 22815 layer_factory.hpp:77] Creating layer embed_encoder
I0925 23:07:15.874753 22829 net.cpp:425] cont_sentence_input_1_split <- cont_sentence
I0925 23:07:15.874776 22859 net.cpp:425] embed_encoder <- frames_fc7
I0925 23:07:15.874794 22815 net.cpp:91] Creating Layer embed_encoder
I0925 23:07:15.874800 22815 net.cpp:425] embed_encoder <- frames_fc7
I0925 23:07:15.874805 22859 net.cpp:399] embed_encoder -> embedded_in_frames
I0925 23:07:15.874809 22815 net.cpp:399] embed_encoder -> embedded_in_frames
I0925 23:07:15.874835 22829 net.cpp:399] cont_sentence_input_1_split -> cont_sentence_input_1_split_0
I0925 23:07:15.874857 22829 net.cpp:399] cont_sentence_input_1_split -> cont_sentence_input_1_split_1
I0925 23:07:15.885740 22855 net.cpp:141] Setting up cont_sentence_input_1_split
I0925 23:07:15.885787 22855 net.cpp:148] Top shape: 1 1 (1)
I0925 23:07:15.885797 22855 net.cpp:148] Top shape: 1 1 (1)
I0925 23:07:15.885803 22855 net.cpp:156] Memory required for data: 16404
I0925 23:07:15.885814 22855 layer_factory.hpp:77] Creating layer embed_encoder
I0925 23:07:15.885866 22855 net.cpp:91] Creating Layer embed_encoder
I0925 23:07:15.885877 22855 net.cpp:425] embed_encoder <- frames_fc7
I0925 23:07:15.885895 22855 net.cpp:399] embed_encoder -> embedded_in_frames
I0925 23:07:15.890190 22829 net.cpp:141] Setting up cont_sentence_input_1_split
I0925 23:07:15.890252 22829 net.cpp:148] Top shape: 1 1 (1)
I0925 23:07:15.890267 22829 net.cpp:148] Top shape: 1 1 (1)
I0925 23:07:15.890276 22829 net.cpp:156] Memory required for data: 16404
I0925 23:07:15.890290 22829 layer_factory.hpp:77] Creating layer embed_encoder
I0925 23:07:15.890321 22829 net.cpp:91] Creating Layer embed_encoder
I0925 23:07:15.890336 22829 net.cpp:425] embed_encoder <- frames_fc7
I0925 23:07:15.890353 22829 net.cpp:399] embed_encoder -> embedded_in_frames
I0925 23:07:15.891222 22811 net.cpp:141] Setting up embed_encoder
I0925 23:07:15.891240 22811 net.cpp:148] Top shape: 1 500 (500)
I0925 23:07:15.891247 22811 net.cpp:156] Memory required for data: 18404
I0925 23:07:15.891270 22811 layer_factory.hpp:77] Creating layer reshape_frames
I0925 23:07:15.891293 22811 net.cpp:91] Creating Layer reshape_frames
I0925 23:07:15.891299 22811 net.cpp:425] reshape_frames <- embedded_in_frames
I0925 23:07:15.891309 22811 net.cpp:399] reshape_frames -> embedded_input_frames
I0925 23:07:15.907145 22811 net.cpp:141] Setting up reshape_frames
I0925 23:07:15.907167 22811 net.cpp:148] Top shape: 1 1 500 (500)
I0925 23:07:15.907173 22811 net.cpp:156] Memory required for data: 20404
I0925 23:07:15.907183 22811 layer_factory.hpp:77] Creating layer reshape_stage_indicator
I0925 23:07:15.907202 22811 net.cpp:91] Creating Layer reshape_stage_indicator
I0925 23:07:15.907210 22811 net.cpp:425] reshape_stage_indicator <- stage_indicator
I0925 23:07:15.907228 22811 net.cpp:399] reshape_stage_indicator -> reshaped_stage_indicator
I0925 23:07:15.907389 22809 net.cpp:141] Setting up embed_encoder
I0925 23:07:15.907430 22809 net.cpp:148] Top shape: 1 500 (500)
I0925 23:07:15.907438 22809 net.cpp:156] Memory required for data: 18404
I0925 23:07:15.907464 22809 layer_factory.hpp:77] Creating layer reshape_frames
I0925 23:07:15.907487 22809 net.cpp:91] Creating Layer reshape_frames
I0925 23:07:15.907497 22809 net.cpp:425] reshape_frames <- embedded_in_frames
I0925 23:07:15.907512 22809 net.cpp:399] reshape_frames -> embedded_input_frames
I0925 23:07:15.907579 22811 net.cpp:141] Setting up reshape_stage_indicator
I0925 23:07:15.907596 22811 net.cpp:148] Top shape: 1 1 1 (1)
I0925 23:07:15.907601 22811 net.cpp:156] Memory required for data: 20408
I0925 23:07:15.907606 22811 layer_factory.hpp:77] Creating layer embedding
I0925 23:07:15.907621 22811 net.cpp:91] Creating Layer embedding
I0925 23:07:15.907627 22811 net.cpp:425] embedding <- input_sentence
I0925 23:07:15.907639 22811 net.cpp:399] embedding -> embedded_input_sentence
I0925 23:07:15.912142 22823 net.cpp:141] Setting up embed_encoder
I0925 23:07:15.912165 22823 net.cpp:148] Top shape: 1 500 (500)
I0925 23:07:15.912173 22823 net.cpp:156] Memory required for data: 18404
I0925 23:07:15.912185 22809 net.cpp:141] Setting up reshape_frames
I0925 23:07:15.912194 22823 layer_factory.hpp:77] Creating layer reshape_frames
I0925 23:07:15.912200 22809 net.cpp:148] Top shape: 1 1 500 (500)
I0925 23:07:15.912209 22809 net.cpp:156] Memory required for data: 20404
I0925 23:07:15.912209 22823 net.cpp:91] Creating Layer reshape_frames
I0925 23:07:15.912220 22823 net.cpp:425] reshape_frames <- embedded_in_frames
I0925 23:07:15.912220 22809 layer_factory.hpp:77] Creating layer reshape_stage_indicator
I0925 23:07:15.912235 22823 net.cpp:399] reshape_frames -> embedded_input_frames
I0925 23:07:15.912237 22809 net.cpp:91] Creating Layer reshape_stage_indicator
I0925 23:07:15.912246 22809 net.cpp:425] reshape_stage_indicator <- stage_indicator
I0925 23:07:15.912258 22809 net.cpp:399] reshape_stage_indicator -> reshaped_stage_indicator
I0925 23:07:15.958164 22859 net.cpp:141] Setting up embed_encoder
I0925 23:07:15.958201 22859 net.cpp:148] Top shape: 1 500 (500)
I0925 23:07:15.958209 22859 net.cpp:156] Memory required for data: 18404
I0925 23:07:15.958226 22859 layer_factory.hpp:77] Creating layer reshape_frames
I0925 23:07:15.958238 22859 net.cpp:91] Creating Layer reshape_frames
I0925 23:07:15.958246 22859 net.cpp:425] reshape_frames <- embedded_in_frames
I0925 23:07:15.958256 22859 net.cpp:399] reshape_frames -> embedded_input_frames
I0925 23:07:15.958281 22823 net.cpp:141] Setting up reshape_frames
I0925 23:07:15.958299 22823 net.cpp:148] Top shape: 1 1 500 (500)
I0925 23:07:15.958302 22859 net.cpp:141] Setting up reshape_frames
I0925 23:07:15.958307 22823 net.cpp:156] Memory required for data: 20404
I0925 23:07:15.958312 22859 net.cpp:148] Top shape: 1 1 500 (500)
I0925 23:07:15.958317 22859 net.cpp:156] Memory required for data: 20404
I0925 23:07:15.958317 22823 layer_factory.hpp:77] Creating layer reshape_stage_indicator
I0925 23:07:15.958323 22859 layer_factory.hpp:77] Creating layer reshape_stage_indicator
I0925 23:07:15.958345 22859 net.cpp:91] Creating Layer reshape_stage_indicator
I0925 23:07:15.958346 22823 net.cpp:91] Creating Layer reshape_stage_indicator
I0925 23:07:15.958351 22859 net.cpp:425] reshape_stage_indicator <- stage_indicator
I0925 23:07:15.958358 22823 net.cpp:425] reshape_stage_indicator <- stage_indicator
I0925 23:07:15.958360 22859 net.cpp:399] reshape_stage_indicator -> reshaped_stage_indicator
I0925 23:07:15.958372 22823 net.cpp:399] reshape_stage_indicator -> reshaped_stage_indicator
I0925 23:07:15.958401 22859 net.cpp:141] Setting up reshape_stage_indicator
I0925 23:07:15.958411 22859 net.cpp:148] Top shape: 1 1 1 (1)
I0925 23:07:15.958415 22859 net.cpp:156] Memory required for data: 20408
I0925 23:07:15.958420 22859 layer_factory.hpp:77] Creating layer embedding
I0925 23:07:15.958434 22859 net.cpp:91] Creating Layer embedding
I0925 23:07:15.958439 22859 net.cpp:425] embedding <- input_sentence
I0925 23:07:15.958448 22859 net.cpp:399] embedding -> embedded_input_sentence
I0925 23:07:15.958523 22809 net.cpp:141] Setting up reshape_stage_indicator
I0925 23:07:15.958546 22809 net.cpp:148] Top shape: 1 1 1 (1)
I0925 23:07:15.958554 22809 net.cpp:156] Memory required for data: 20408
I0925 23:07:15.958564 22809 layer_factory.hpp:77] Creating layer embedding
I0925 23:07:15.958578 22809 net.cpp:91] Creating Layer embedding
I0925 23:07:15.958585 22809 net.cpp:425] embedding <- input_sentence
I0925 23:07:15.958611 22809 net.cpp:399] embedding -> embedded_input_sentence
I0925 23:07:15.958797 22823 net.cpp:141] Setting up reshape_stage_indicator
I0925 23:07:15.958816 22823 net.cpp:148] Top shape: 1 1 1 (1)
I0925 23:07:15.958820 22823 net.cpp:156] Memory required for data: 20408
I0925 23:07:15.958829 22823 layer_factory.hpp:77] Creating layer embedding
I0925 23:07:15.958840 22823 net.cpp:91] Creating Layer embedding
I0925 23:07:15.958847 22823 net.cpp:425] embedding <- input_sentence
I0925 23:07:15.958855 22823 net.cpp:399] embedding -> embedded_input_sentence
I0925 23:07:15.958921 22847 net.cpp:141] Setting up embed_encoder
I0925 23:07:15.958940 22847 net.cpp:148] Top shape: 1 500 (500)
I0925 23:07:15.958945 22847 net.cpp:156] Memory required for data: 18404
I0925 23:07:15.958962 22847 layer_factory.hpp:77] Creating layer reshape_frames
I0925 23:07:15.958976 22847 net.cpp:91] Creating Layer reshape_frames
I0925 23:07:15.958983 22847 net.cpp:425] reshape_frames <- embedded_in_frames
I0925 23:07:15.958992 22847 net.cpp:399] reshape_frames -> embedded_input_frames
I0925 23:07:15.959054 22855 net.cpp:141] Setting up embed_encoder
I0925 23:07:15.959069 22855 net.cpp:148] Top shape: 1 500 (500)
I0925 23:07:15.959074 22855 net.cpp:156] Memory required for data: 18404
I0925 23:07:15.959094 22855 layer_factory.hpp:77] Creating layer reshape_frames
I0925 23:07:15.959118 22855 net.cpp:91] Creating Layer reshape_frames
I0925 23:07:15.959130 22855 net.cpp:425] reshape_frames <- embedded_in_frames
I0925 23:07:15.959142 22855 net.cpp:399] reshape_frames -> embedded_input_frames
I0925 23:07:15.959164 22805 net.cpp:141] Setting up embed_encoder
I0925 23:07:15.959185 22805 net.cpp:148] Top shape: 1 500 (500)
I0925 23:07:15.959192 22805 net.cpp:156] Memory required for data: 18404
I0925 23:07:15.959205 22805 layer_factory.hpp:77] Creating layer reshape_frames
I0925 23:07:15.959218 22805 net.cpp:91] Creating Layer reshape_frames
I0925 23:07:15.959224 22805 net.cpp:425] reshape_frames <- embedded_in_frames
I0925 23:07:15.959233 22805 net.cpp:399] reshape_frames -> embedded_input_frames
I0925 23:07:16.000550 22815 net.cpp:141] Setting up embed_encoder
I0925 23:07:16.000599 22815 net.cpp:148] Top shape: 1 500 (500)
I0925 23:07:16.000604 22815 net.cpp:156] Memory required for data: 18404
I0925 23:07:16.000625 22815 layer_factory.hpp:77] Creating layer reshape_frames
I0925 23:07:16.000644 22815 net.cpp:91] Creating Layer reshape_frames
I0925 23:07:16.000653 22815 net.cpp:425] reshape_frames <- embedded_in_frames
I0925 23:07:16.000691 22815 net.cpp:399] reshape_frames -> embedded_input_frames
I0925 23:07:16.097029 22855 net.cpp:141] Setting up reshape_frames
I0925 23:07:16.097071 22805 net.cpp:141] Setting up reshape_frames
I0925 23:07:16.097096 22805 net.cpp:148] Top shape: 1 1 500 (500)
I0925 23:07:16.097098 22855 net.cpp:148] Top shape: 1 1 500 (500)
I0925 23:07:16.097106 22805 net.cpp:156] Memory required for data: 20404
I0925 23:07:16.097110 22847 net.cpp:141] Setting up reshape_frames
I0925 23:07:16.097115 22855 net.cpp:156] Memory required for data: 20404
I0925 23:07:16.097149 22805 layer_factory.hpp:77] Creating layer reshape_stage_indicator
I0925 23:07:16.097146 22847 net.cpp:148] Top shape: 1 1 500 (500)
I0925 23:07:16.097164 22847 net.cpp:156] Memory required for data: 20404
I0925 23:07:16.097198 22805 net.cpp:91] Creating Layer reshape_stage_indicator
I0925 23:07:16.097196 22847 layer_factory.hpp:77] Creating layer reshape_stage_indicator
I0925 23:07:16.097208 22805 net.cpp:425] reshape_stage_indicator <- stage_indicator
I0925 23:07:16.097199 22855 layer_factory.hpp:77] Creating layer reshape_stage_indicator
I0925 23:07:16.097214 22847 net.cpp:91] Creating Layer reshape_stage_indicator
I0925 23:07:16.097225 22805 net.cpp:399] reshape_stage_indicator -> reshaped_stage_indicator
I0925 23:07:16.097239 22847 net.cpp:425] reshape_stage_indicator <- stage_indicator
I0925 23:07:16.097251 22847 net.cpp:399] reshape_stage_indicator -> reshaped_stage_indicator
I0925 23:07:16.097246 22855 net.cpp:91] Creating Layer reshape_stage_indicator
I0925 23:07:16.097267 22855 net.cpp:425] reshape_stage_indicator <- stage_indicator
I0925 23:07:16.097282 22829 net.cpp:141] Setting up embed_encoder
I0925 23:07:16.097301 22829 net.cpp:148] Top shape: 1 500 (500)
I0925 23:07:16.097298 22855 net.cpp:399] reshape_stage_indicator -> reshaped_stage_indicator
I0925 23:07:16.097307 22829 net.cpp:156] Memory required for data: 18404
I0925 23:07:16.097354 22829 layer_factory.hpp:77] Creating layer reshape_frames
I0925 23:07:16.097370 22829 net.cpp:91] Creating Layer reshape_frames
I0925 23:07:16.097378 22829 net.cpp:425] reshape_frames <- embedded_in_frames
I0925 23:07:16.097389 22829 net.cpp:399] reshape_frames -> embedded_input_frames
I0925 23:07:16.097384 22815 net.cpp:141] Setting up reshape_frames
I0925 23:07:16.097417 22805 net.cpp:141] Setting up reshape_stage_indicator
I0925 23:07:16.097425 22815 net.cpp:148] Top shape: 1 1 500 (500)
I0925 23:07:16.097431 22815 net.cpp:156] Memory required for data: 20404
I0925 23:07:16.097439 22829 net.cpp:141] Setting up reshape_frames
I0925 23:07:16.097431 22805 net.cpp:148] Top shape: 1 1 1 (1)
I0925 23:07:16.097450 22829 net.cpp:148] Top shape: 1 1 500 (500)
I0925 23:07:16.097451 22805 net.cpp:156] Memory required for data: 20408
I0925 23:07:16.097445 22815 layer_factory.hpp:77] Creating layer reshape_stage_indicator
I0925 23:07:16.097461 22805 layer_factory.hpp:77] Creating layer embedding
I0925 23:07:16.097470 22829 net.cpp:156] Memory required for data: 20404
I0925 23:07:16.097478 22805 net.cpp:91] Creating Layer embedding
I0925 23:07:16.097481 22829 layer_factory.hpp:77] Creating layer reshape_stage_indicator
I0925 23:07:16.097483 22815 net.cpp:91] Creating Layer reshape_stage_indicator
I0925 23:07:16.097509 22815 net.cpp:425] reshape_stage_indicator <- stage_indicator
I0925 23:07:16.097484 22805 net.cpp:425] embedding <- input_sentence
I0925 23:07:16.097522 22829 net.cpp:91] Creating Layer reshape_stage_indicator
I0925 23:07:16.097530 22805 net.cpp:399] embedding -> embedded_input_sentence
I0925 23:07:16.097537 22829 net.cpp:425] reshape_stage_indicator <- stage_indicator
I0925 23:07:16.097522 22855 net.cpp:141] Setting up reshape_stage_indicator
I0925 23:07:16.097553 22829 net.cpp:399] reshape_stage_indicator -> reshaped_stage_indicator
I0925 23:07:16.097523 22815 net.cpp:399] reshape_stage_indicator -> reshaped_stage_indicator
I0925 23:07:16.097551 22847 net.cpp:141] Setting up reshape_stage_indicator
I0925 23:07:16.097570 22855 net.cpp:148] Top shape: 1 1 1 (1)
I0925 23:07:16.097574 22847 net.cpp:148] Top shape: 1 1 1 (1)
I0925 23:07:16.097592 22847 net.cpp:156] Memory required for data: 20408
I0925 23:07:16.097592 22855 net.cpp:156] Memory required for data: 20408
I0925 23:07:16.097599 22847 layer_factory.hpp:77] Creating layer embedding
I0925 23:07:16.097616 22855 layer_factory.hpp:77] Creating layer embedding
I0925 23:07:16.097621 22847 net.cpp:91] Creating Layer embedding
I0925 23:07:16.097638 22847 net.cpp:425] embedding <- input_sentence
I0925 23:07:16.097651 22847 net.cpp:399] embedding -> embedded_input_sentence
I0925 23:07:16.097648 22855 net.cpp:91] Creating Layer embedding
I0925 23:07:16.097666 22855 net.cpp:425] embedding <- input_sentence
I0925 23:07:16.097698 22855 net.cpp:399] embedding -> embedded_input_sentence
I0925 23:07:16.098104 22815 net.cpp:141] Setting up reshape_stage_indicator
I0925 23:07:16.098117 22815 net.cpp:148] Top shape: 1 1 1 (1)
I0925 23:07:16.098122 22815 net.cpp:156] Memory required for data: 20408
I0925 23:07:16.098129 22815 layer_factory.hpp:77] Creating layer embedding
I0925 23:07:16.098140 22815 net.cpp:91] Creating Layer embedding
I0925 23:07:16.098146 22815 net.cpp:425] embedding <- input_sentence
I0925 23:07:16.098155 22815 net.cpp:399] embedding -> embedded_input_sentence
I0925 23:07:16.139865 22829 net.cpp:141] Setting up reshape_stage_indicator
I0925 23:07:16.139930 22829 net.cpp:148] Top shape: 1 1 1 (1)
I0925 23:07:16.139940 22829 net.cpp:156] Memory required for data: 20408
I0925 23:07:16.139953 22829 layer_factory.hpp:77] Creating layer embedding
I0925 23:07:16.139997 22829 net.cpp:91] Creating Layer embedding
I0925 23:07:16.140010 22829 net.cpp:425] embedding <- input_sentence
I0925 23:07:16.140033 22829 net.cpp:399] embedding -> embedded_input_sentence
I0925 23:07:16.286468 22811 net.cpp:141] Setting up embedding
I0925 23:07:16.286532 22811 net.cpp:148] Top shape: 1 1 500 (500)
I0925 23:07:16.286528 22809 net.cpp:141] Setting up embedding
I0925 23:07:16.286552 22811 net.cpp:156] Memory required for data: 22408
I0925 23:07:16.286571 22859 net.cpp:141] Setting up embedding
I0925 23:07:16.286584 22809 net.cpp:148] Top shape: 1 1 500 (500)
I0925 23:07:16.286592 22859 net.cpp:148] Top shape: 1 1 500 (500)
I0925 23:07:16.286605 22859 net.cpp:156] Memory required for data: 22408
I0925 23:07:16.286604 22809 net.cpp:156] Memory required for data: 22408
I0925 23:07:16.286626 22859 layer_factory.hpp:77] Creating layer lstm1
I0925 23:07:16.286605 22811 layer_factory.hpp:77] Creating layer lstm1
I0925 23:07:16.286675 22809 layer_factory.hpp:77] Creating layer lstm1
I0925 23:07:16.286725 22859 net.cpp:91] Creating Layer lstm1
…
I0925 23:07:16.286810 22811 recurrent_layer.cpp:20] Initializing recurrent layer: assuming input batch contains 1 timesteps of 1 independent streams.
I0925 23:07:16.287276 22859 net.cpp:49] Initializing net from parameters: 
layer {
  name: "lstm1_"
  type: "Input"
  top: "x"
  top: "cont"
  input_param {
    shape {
      dim: 1
      dim: 1
      dim: 500
    }
    shape {
      dim: 1
      dim: 1
    }
  }
}
layer {
  name: "lstm1_"
  type: "Input"
  top: "c_0"
  top: "h_0"
  input_param {
    shape {
      dim: 1
      dim: 1
      dim: 1000
    }
    shape {
      dim: 1
      dim: 1
      dim: 1000
    }
  }
}
layer {
  name: "lstm1_cont_slice"
  type: "Slice"
  bottom: "cont"
  top: "cont_1"
  slice_param {
    axis: 0
  }
}
layer {
  name: "lstm1_x_transform"
  type: "InnerProduct"
  bottom: "x"
  top: "W_xc_x"
  param {
    name: "W_xc"
  }
  param {
    name: "b_c"
  }
  propagate_down: true
  inner_product_param {
    num_output: 4000
    bias_term: true
    weight_filler {
      type: "uniform"
      min: -0.08
      max: 0.08
    }
    bias_filler {
      type: "constant"
      value: 0
    }
    axis: 2
  }
}
layer {
  name: "lstm1_W_xc_x_slice"
  type: "Slice"
  bottom: "W_xc_x"
  top: "W_xc_x_1"
  slice_param {
    axis: 0
  }
}
layer {
  name: "lstm1_h_conted_0"
  type: "Scale"
  bottom: "h_0"
  bottom: "cont_1"
  top: "h_conted_0"
  scale_param {
    axis: 0
  }
}
layer {
  name: "lstm1_transform_1"
  type: "InnerProduct"
  bottom: "h_conted_0"
  top: "W_hc_h_0"
  param {
    name: "W_hc"
  }
  inner_product_param {
    num_output: 4000
    bias_term: false
    weight_filler {
      type: "uniform"
      min: -0.08
      max: 0.08
    }
    axis: 2
  }
}
layer {
  name: "lstm1_gate_input_1"
  type: "Eltwise"
  bottom: "W_hc_h_0"
  bottom: "W_xc_x_1"
  top: "gate_input_1"
  eltwise_param {
    operation: SUM
  }
}
layer {
  name: "lstm1_unit_1"
  type: "LSTMUnit"
  bottom: "c_0"
  bottom: "gate_input_1"
  bottom: "cont_1"
  top: "c_1"
  top: "h_1"
}
layer {
  name: "lstm1_"
  type: "Split"
  bottom: "c_1"
  top: "c_T"
}
layer {
  name: "lstm1_h_concat"
  type: "Concat"
  bottom: "h_1"
  top: "h"
  concat_param {
    axis: 0
  }
}
layer {
  name: "h_pseudoloss"
  type: "Reduction"
  bottom: "h"
  top: "h_pseudoloss"
  loss_weight: 1
}
I0925 23:07:16.323918 22809 net.cpp:49] Initializing net from parameters: 
layer {
  name: "lstm1_"
  type: "Input"
  top: "x"
  top: "cont"
  input_param {
    shape {
      dim: 1
      dim: 1
      dim: 500
    }
    shape {
      dim: 1
      dim: 1
    }
  }
}
layer {
  name: "lstm1_"
  type: "Input"
  top: "c_0"
  top: "h_0"
  input_param {
    shape {
      dim: 1
      dim: 1
      dim: 1000
    }
    shape {
      dim: 1
      dim: 1
      dim: 1000
    }
  }
}
layer {
  name: "lstm1_cont_slice"
  type: "Slice"
  bottom: "cont"
  top: "cont_1"
  slice_param {
    axis: 0
  }
}
layer {
  name: "lstm1_x_transform"
  type: "InnerProduct"
  bottom: "x"
  top: "W_xc_x"
  param {
    name: "W_xc"
  }
  param {
    name: "b_c"
  }
  propagate_down: true
  inner_product_param {
    num_output: 4000
    bias_term: true
    weight_filler {
      type: "uniform"
      min: -0.08
      max: 0.08
    }
    bias_filler {
      type: "constant"
      value: 0
    }
    axis: 2
  }
}
layer {
  name: "lstm1_W_xc_x_slice"
  type: "Slice"
  bottom: "W_xc_x"
  top: "W_xc_x_1"
  slice_param {
    axis: 0
  }
}
layer {
  name: "lstm1_h_conted_0"
  type: "Scale"
  bottom: "h_0"
  bottom: "cont_1"
  top: "h_conted_0"
  scale_param {
    axis: 0
  }
}
layer {
  name: "lstm1_transform_1"
  type: "InnerProduct"
  bottom: "h_conted_0"
  top: "W_hc_h_0"
  param {
    name: "W_hc"
  }
  inner_product_param {
    num_output: 4000
    bias_term: false
    weight_filler {
      type: "uniform"
      min: -0.08
      max: 0.08
    }
    axis: 2
  }
}
layer {
  name: "lstm1_gate_input_1"
  type: "Eltwise"
  bottom: "W_hc_h_0"
  bottom: "W_xc_x_1"
  top: "gate_input_1"
  eltwise_param {
    operation: SUM
  }
}
layer {
  name: "lstm1_unit_1"
  type: "LSTMUnit"
  bottom: "c_0"
  bottom: "gate_input_1"
  bottom: "cont_1"
  top: "c_1"
  top: "h_1"
}
layer {
  name: "lstm1_"
  type: "Split"
  bottom: "c_1"
  top: "c_T"
}
layer {
  name: "lstm1_h_concat"
  type: "Concat"
  bottom: "h_1"
  top: "h"
  concat_param {
    axis: 0
  }
}
layer {
  name: "h_pseudoloss"
  type: "Reduction"
  bottom: "h"
  top: "h_pseudoloss"
  loss_weight: 1
}
I0925 23:07:16.323920 22811 net.cpp:49] Initializing net from parameters: 
layer {
  name: "lstm1_"
  type: "Input"
  top: "x"
  top: "cont"
  input_param {
    shape {
      dim: 1
      dim: 1
      dim: 500
    }
    shape {
      dim: 1
      dim: 1
    }
  }
}
layer {
  name: "lstm1_"
  type: "Input"
  top: "c_0"
  top: "h_0"
  input_param {
    shape {
      dim: 1
      dim: 1
      dim: 1000
    }
    shape {
      dim: 1
      dim: 1
      dim: 1000
    }
  }
}
layer {
  name: "lstm1_cont_slice"
  type: "Slice"
  bottom: "cont"
  top: "cont_1"
  slice_param {
    axis: 0
  }
}
layer {
  name: "lstm1_x_transform"
  type: "InnerProduct"
  bottom: "x"
  top: "W_xc_x"
  param {
    name: "W_xc"
  }
  param {
    name: "b_c"
  }
  propagate_down: true
  inner_product_param {
    num_output: 4000
    bias_term: true
    weight_filler {
      type: "uniform"
      min: -0.08
      max: 0.08
    }
    bias_filler {
      type: "constant"
      value: 0
    }
    axis: 2
  }
}
layer {
  name: "lstm1_W_xc_x_slice"
  type: "Slice"
  bottom: "W_xc_x"
  top: "W_xc_x_1"
  slice_param {
    axis: 0
  }
}
layer {
  name: "lstm1_h_conted_0"
  type: "Scale"
  bottom: "h_0"
  bottom: "cont_1"
  top: "h_conted_0"
  scale_param {
    axis: 0
  }
}
layer {
  name: "lstm1_transform_1"
  type: "InnerProduct"
  bottom: "h_conted_0"
  top: "W_hc_h_0"
  param {
    name: "W_hc"
  }
  inner_product_param {
    num_output: 4000
    bias_term: false
    weight_filler {
      type: "uniform"
      min: -0.08
      max: 0.08
    }
    axis: 2
  }
}
layer {
  name: "lstm1_gate_input_1"
  type: "Eltwise"
  bottom: "W_hc_h_0"
  bottom: "W_xc_x_1"
  top: "gate_input_1"
  eltwise_param {
    operation: SUM
  }
}
layer {
  name: "lstm1_unit_1"
  type: "LSTMUnit"
  bottom: "c_0"
  bottom: "gate_input_1"
  bottom: "cont_1"
  top: "c_1"
  top: "h_1"
}
layer {
  name: "lstm1_"
  type: "Split"
  bottom: "c_1"
  top: "c_T"
}
layer {
  name: "lstm1_h_concat"
  type: "Concat"
  bottom: "h_1"
  top: "h"
  concat_param {
    axis: 0
  }
}
layer {
  name: "h_pseudoloss"
  type: "Reduction"
  bottom: "h"
  top: "h_pseudoloss"
  loss_weight: 1
}
I0925 23:07:16.324044 22859 layer_factory.hpp:77] Creating layer lstm1_
I0925 23:07:16.324069 22859 net.cpp:91] Creating Layer lstm1_
I0925 23:07:16.324079 22859 net.cpp:399] lstm1_ -> x
I0925 23:07:16.324091 22809 layer_factory.hpp:77] Creating layer lstm1_
I0925 23:07:16.324098 22859 net.cpp:399] lstm1_ -> cont
I0925 23:07:16.324120 22809 net.cpp:91] Creating Layer lstm1_
I0925 23:07:16.324132 22809 net.cpp:399] lstm1_ -> x
I0925 23:07:16.324151 22809 net.cpp:399] lstm1_ -> cont
I0925 23:07:16.324159 22811 layer_factory.hpp:77] Creating layer lstm1_
I0925 23:07:16.324180 22811 net.cpp:91] Creating Layer lstm1_
I0925 23:07:16.324187 22811 net.cpp:399] lstm1_ -> x
I0925 23:07:16.324204 22811 net.cpp:399] lstm1_ -> cont
I0925 23:07:16.327467 22823 net.cpp:141] Setting up embedding
I0925 23:07:16.327489 22823 net.cpp:148] Top shape: 1 1 500 (500)
I0925 23:07:16.327494 22823 net.cpp:156] Memory required for data: 22408
I0925 23:07:16.327510 22847 net.cpp:141] Setting up embedding
I0925 23:07:16.327531 22847 net.cpp:148] Top shape: 1 1 500 (500)
I0925 23:07:16.327533 22823 layer_factory.hpp:77] Creating layer lstm1
I0925 23:07:16.327536 22847 net.cpp:156] Memory required for data: 22408
I0925 23:07:16.327549 22823 net.cpp:91] Creating Layer lstm1
I0925 23:07:16.327549 22847 layer_factory.hpp:77] Creating layer lstm1
I0925 23:07:16.327561 22823 net.cpp:425] lstm1 <- embedded_input_frames
I0925 23:07:16.327569 22823 net.cpp:425] lstm1 <- cont_sentence_input_1_split_0
I0925 23:07:16.327572 22847 net.cpp:91] Creating Layer lstm1
I0925 23:07:16.327579 22823 net.cpp:399] lstm1 -> lstm1
I0925 23:07:16.327580 22847 net.cpp:425] lstm1 <- embedded_input_frames
I0925 23:07:16.327594 22847 net.cpp:425] lstm1 <- cont_sentence_input_1_split_0
I0925 23:07:16.327594 22809 net.cpp:141] Setting up lstm1_
I0925 23:07:16.327605 22847 net.cpp:399] lstm1 -> lstm1
I0925 23:07:16.327599 22823 recurrent_layer.cpp:20] Initializing recurrent layer: assuming input batch contains 1 timesteps of 1 independent streams.
I0925 23:07:16.327617 22847 recurrent_layer.cpp:20] Initializing recurrent layer: assuming input batch contains 1 timesteps of 1 independent streams.
I0925 23:07:16.327616 22809 net.cpp:148] Top shape: 1 1 500 (500)
I0925 23:07:16.327641 22809 net.cpp:148] Top shape: 1 1 (1)
I0925 23:07:16.327646 22859 net.cpp:141] Setting up lstm1_
I0925 23:07:16.327649 22809 net.cpp:156] Memory required for data: 2004
I0925 23:07:16.327666 22809 layer_factory.hpp:77] Creating layer lstm1_
I0925 23:07:16.327666 22859 net.cpp:148] Top shape: 1 1 500 (500)
I0925 23:07:16.327690 22859 net.cpp:148] Top shape: 1 1 (1)
I0925 23:07:16.327694 22809 net.cpp:91] Creating Layer lstm1_
I0925 23:07:16.327699 22859 net.cpp:156] Memory required for data: 2004
I0925 23:07:16.327707 22809 net.cpp:399] lstm1_ -> c_0
I0925 23:07:16.327708 22859 layer_factory.hpp:77] Creating layer lstm1_
I0925 23:07:16.327724 22859 net.cpp:91] Creating Layer lstm1_
I0925 23:07:16.327725 22809 net.cpp:399] lstm1_ -> h_0
I0925 23:07:16.327742 22859 net.cpp:399] lstm1_ -> c_0
I0925 23:07:16.327752 22811 net.cpp:141] Setting up lstm1_
I0925 23:07:16.327760 22859 net.cpp:399] lstm1_ -> h_0
I0925 23:07:16.327772 22811 net.cpp:148] Top shape: 1 1 500 (500)
I0925 23:07:16.327780 22811 net.cpp:148] Top shape: 1 1 (1)
I0925 23:07:16.327785 22811 net.cpp:156] Memory required for data: 2004
I0925 23:07:16.327791 22811 layer_factory.hpp:77] Creating layer lstm1_
I0925 23:07:16.327810 22811 net.cpp:91] Creating Layer lstm1_
I0925 23:07:16.327817 22811 net.cpp:399] lstm1_ -> c_0
I0925 23:07:16.327831 22811 net.cpp:399] lstm1_ -> h_0
I0925 23:07:16.327832 22809 net.cpp:141] Setting up lstm1_
I0925 23:07:16.327850 22809 net.cpp:148] Top shape: 1 1 1000 (1000)
I0925 23:07:16.327862 22809 net.cpp:148] Top shape: 1 1 1000 (1000)
I0925 23:07:16.327869 22809 net.cpp:156] Memory required for data: 10004
I0925 23:07:16.327877 22809 layer_factory.hpp:77] Creating layer lstm1_cont_slice
I0925 23:07:16.327894 22823 net.cpp:49] Initializing net from parameters: 
layer {
  name: "lstm1_"
  type: "Input"
  top: "x"
  top: "cont"
  input_param {
    shape {
      dim: 1
      dim: 1
      dim: 500
    }
    shape {
      dim: 1
      dim: 1
    }
  }
}
layer {
  name: "lstm1_"
  type: "Input"
  top: "c_0"
  top: "h_0"
  input_param {
    shape {
      dim: 1
      dim: 1
      dim: 1000
    }
    shape {
      dim: 1
      dim: 1
      dim: 1000
    }
  }
}
layer {
  name: "lstm1_cont_slice"
  type: "Slice"
  bottom: "cont"
  top: "cont_1"
  slice_param {
    axis: 0
  }
}
layer {
  name: "lstm1_x_transform"
  type: "InnerProduct"
  bottom: "x"
  top: "W_xc_x"
  param {
    name: "W_xc"
  }
  param {
    name: "b_c"
  }
  propagate_down: true
  inner_product_param {
    num_output: 4000
    bias_term: true
    weight_filler {
      type: "uniform"
      min: -0.08
      max: 0.08
    }
    bias_filler {
      type: "constant"
      value: 0
    }
    axis: 2
  }
}
layer {
  name: "lstm1_W_xc_x_slice"
  type: "Slice"
  bottom: "W_xc_x"
  top: "W_xc_x_1"
  slice_param {
    axis: 0
  }
}
layer {
  name: "lstm1_h_conted_0"
  type: "Scale"
  bottom: "h_0"
  bottom: "cont_1"
  top: "h_conted_0"
  scale_param {
    axis: 0
  }
}
layer {
  name: "lstm1_transform_1"
  type: "InnerProduct"
  bottom: "h_conted_0"
  top: "W_hc_h_0"
  param {
    name: "W_hc"
  }
  inner_product_param {
    num_output: 4000
    bias_term: false
    weight_filler {
      type: "uniform"
      min: -0.08
      max: 0.08
    }
    axis: 2
  }
}
layer {
  name: "lstm1_gate_input_1"
  type: "Eltwise"
  bottom: "W_hc_h_0"
  bottom: "W_xc_x_1"
  top: "gate_input_1"
  eltwise_param {
    operation: SUM
  }
}
layer {
  name: "lstm1_unit_1"
  type: "LSTMUnit"
  bottom: "c_0"
  bottom: "gate_input_1"
  bottom: "cont_1"
  top: "c_1"
  top: "h_1"
}
layer {
  name: "lstm1_"
  type: "Split"
  bottom: "c_1"
  top: "c_T"
}
layer {
  name: "lstm1_h_concat"
  type: "Concat"
  bottom: "h_1"
  top: "h"
  concat_param {
    axis: 0
  }
}
layer {
  name: "h_pseudoloss"
  type: "Reduction"
  bottom: "h"
  top: "h_pseudoloss"
  loss_weight: 1
}
I0925 23:07:16.327896 22809 net.cpp:91] Creating Layer lstm1_cont_slice
I0925 23:07:16.327898 22859 net.cpp:141] Setting up lstm1_
I0925 23:07:16.327921 22809 net.cpp:425] lstm1_cont_slice <- cont
I0925 23:07:16.327894 22847 net.cpp:49] Initializing net from parameters: 
layer {
  name: "lstm1_"
  type: "Input"
  top: "x"
  top: "cont"
  input_param {
    shape {
      dim: 1
      dim: 1
      dim: 500
    }
    shape {
      dim: 1
      dim: 1
    }
  }
}
layer {
  name: "lstm1_"
  type: "Input"
  top: "c_0"
  top: "h_0"
  input_param {
    shape {
      dim: 1
      dim: 1
      dim: 1000
    }
    shape {
      dim: 1
      dim: 1
      dim: 1000
    }
  }
}
layer {
  name: "lstm1_cont_slice"
  type: "Slice"
  bottom: "cont"
  top: "cont_1"
  slice_param {
    axis: 0
  }
}
layer {
  name: "lstm1_x_transform"
  type: "InnerProduct"
  bottom: "x"
  top: "W_xc_x"
  param {
    name: "W_xc"
  }
  param {
    name: "b_c"
  }
  propagate_down: true
  inner_product_param {
    num_output: 4000
    bias_term: true
    weight_filler {
      type: "uniform"
      min: -0.08
      max: 0.08
    }
    bias_filler {
      type: "constant"
      value: 0
    }
    axis: 2
  }
}
layer {
  name: "lstm1_W_xc_x_slice"
  type: "Slice"
  bottom: "W_xc_x"
  top: "W_xc_x_1"
  slice_param {
    axis: 0
  }
}
layer {
  name: "lstm1_h_conted_0"
  type: "Scale"
  bottom: "h_0"
  bottom: "cont_1"
  top: "h_conted_0"
  scale_param {
    axis: 0
  }
}
layer {
  name: "lstm1_transform_1"
  type: "InnerProduct"
  bottom: "h_conted_0"
  top: "W_hc_h_0"
  param {
    name: "W_hc"
  }
  inner_product_param {
    num_output: 4000
    bias_term: false
    weight_filler {
      type: "uniform"
      min: -0.08
      max: 0.08
    }
    axis: 2
  }
}
layer {
  name: "lstm1_gate_input_1"
  type: "Eltwise"
  bottom: "W_hc_h_0"
  bottom: "W_xc_x_1"
  top: "gate_input_1"
  eltwise_param {
    operation: SUM
  }
}
layer {
  name: "lstm1_unit_1"
  type: "LSTMUnit"
  bottom: "c_0"
  bottom: "gate_input_1"
  bottom: "cont_1"
  top: "c_1"
  top: "h_1"
}
layer {
  name: "lstm1_"
  type: "Split"
  bottom: "c_1"
  top: "c_T"
}
layer {
  name: "lstm1_h_concat"
  type: "Concat"
  bottom: "h_1"
  top: "h"
  concat_param {
    axis: 0
  }
}
layer {
  name: "h_pseudoloss"
  type: "Reduction"
  bottom: "h"
  top: "h_pseudoloss"
  loss_weight: 1
}
I0925 23:07:16.327934 22859 net.cpp:148] Top shape: 1 1 1000 (1000)
I0925 23:07:16.327935 22809 net.cpp:399] lstm1_cont_slice -> cont_1
I0925 23:07:16.327951 22859 net.cpp:148] Top shape: 1 1 1000 (1000)
I0925 23:07:16.327960 22859 net.cpp:156] Memory required for data: 10004
I0925 23:07:16.327970 22859 layer_factory.hpp:77] Creating layer lstm1_cont_slice
I0925 23:07:16.327976 22811 net.cpp:141] Setting up lstm1_
I0925 23:07:16.327983 22859 net.cpp:91] Creating Layer lstm1_cont_slice
I0925 23:07:16.327992 22811 net.cpp:148] Top shape: 1 1 1000 (1000)
I0925 23:07:16.327993 22859 net.cpp:425] lstm1_cont_slice <- cont
I0925 23:07:16.327999 22811 net.cpp:148] Top shape: 1 1 1000 (1000)
I0925 23:07:16.328001 22823 layer_factory.hpp:77] Creating layer lstm1_
I0925 23:07:16.328006 22811 net.cpp:156] Memory required for data: 10004
I0925 23:07:16.328011 22811 layer_factory.hpp:77] Creating layer lstm1_cont_slice
I0925 23:07:16.328011 22859 net.cpp:399] lstm1_cont_slice -> cont_1
I0925 23:07:16.328012 22823 net.cpp:91] Creating Layer lstm1_
I0925 23:07:16.328023 22809 net.cpp:141] Setting up lstm1_cont_slice
I0925 23:07:16.328013 22847 layer_factory.hpp:77] Creating layer lstm1_
I0925 23:07:16.328033 22823 net.cpp:399] lstm1_ -> x
I0925 23:07:16.328023 22811 net.cpp:91] Creating Layer lstm1_cont_slice
I0925 23:07:16.328047 22823 net.cpp:399] lstm1_ -> cont
I0925 23:07:16.328047 22811 net.cpp:425] lstm1_cont_slice <- cont
I0925 23:07:16.328044 22809 net.cpp:148] Top shape: 1 1 (1)
I0925 23:07:16.328058 22811 net.cpp:399] lstm1_cont_slice -> cont_1
I0925 23:07:16.328045 22847 net.cpp:91] Creating Layer lstm1_
I0925 23:07:16.328064 22809 net.cpp:156] Memory required for data: 10008
I0925 23:07:16.328069 22847 net.cpp:399] lstm1_ -> x
I0925 23:07:16.328074 22809 layer_factory.hpp:77] Creating layer cont_1_lstm1_cont_slice_0_split
I0925 23:07:16.328074 22859 net.cpp:141] Setting up lstm1_cont_slice
I0925 23:07:16.328081 22847 net.cpp:399] lstm1_ -> cont
I0925 23:07:16.328088 22809 net.cpp:91] Creating Layer cont_1_lstm1_cont_slice_0_split
I0925 23:07:16.328089 22859 net.cpp:148] Top shape: 1 1 (1)
I0925 23:07:16.328104 22809 net.cpp:425] cont_1_lstm1_cont_slice_0_split <- cont_1
I0925 23:07:16.328106 22859 net.cpp:156] Memory required for data: 10008
I0925 23:07:16.328114 22859 layer_factory.hpp:77] Creating layer cont_1_lstm1_cont_slice_0_split
I0925 23:07:16.328119 22809 net.cpp:399] cont_1_lstm1_cont_slice_0_split -> cont_1_lstm1_cont_slice_0_split_0
I0925 23:07:16.328126 22859 net.cpp:91] Creating Layer cont_1_lstm1_cont_slice_0_split
I0925 23:07:16.328135 22859 net.cpp:425] cont_1_lstm1_cont_slice_0_split <- cont_1
I0925 23:07:16.328135 22809 net.cpp:399] cont_1_lstm1_cont_slice_0_split -> cont_1_lstm1_cont_slice_0_split_1
I0925 23:07:16.328153 22859 net.cpp:399] cont_1_lstm1_cont_slice_0_split -> cont_1_lstm1_cont_slice_0_split_0
I0925 23:07:16.328168 22859 net.cpp:399] cont_1_lstm1_cont_slice_0_split -> cont_1_lstm1_cont_slice_0_split_1
I0925 23:07:16.331676 22811 net.cpp:141] Setting up lstm1_cont_slice
I0925 23:07:16.331692 22811 net.cpp:148] Top shape: 1 1 (1)
I0925 23:07:16.331697 22811 net.cpp:156] Memory required for data: 10008
I0925 23:07:16.331702 22811 layer_factory.hpp:77] Creating layer cont_1_lstm1_cont_slice_0_split
I0925 23:07:16.331710 22811 net.cpp:91] Creating Layer cont_1_lstm1_cont_slice_0_split
I0925 23:07:16.331718 22811 net.cpp:425] cont_1_lstm1_cont_slice_0_split <- cont_1
I0925 23:07:16.331725 22811 net.cpp:399] cont_1_lstm1_cont_slice_0_split -> cont_1_lstm1_cont_slice_0_split_0
I0925 23:07:16.331734 22811 net.cpp:399] cont_1_lstm1_cont_slice_0_split -> cont_1_lstm1_cont_slice_0_split_1
I0925 23:07:16.331727 22847 net.cpp:141] Setting up lstm1_
I0925 23:07:16.331764 22809 net.cpp:141] Setting up cont_1_lstm1_cont_slice_0_split
I0925 23:07:16.331773 22847 net.cpp:148] Top shape: 1 1 500 (500)
I0925 23:07:16.331789 22847 net.cpp:148] Top shape: 1 1 (1)
I0925 23:07:16.331789 22809 net.cpp:148] Top shape: 1 1 (1)
I0925 23:07:16.331794 22847 net.cpp:156] Memory required for data: 2004
I0925 23:07:16.331790 22859 net.cpp:141] Setting up cont_1_lstm1_cont_slice_0_split
I0925 23:07:16.331804 22847 layer_factory.hpp:77] Creating layer lstm1_
I0925 23:07:16.331799 22809 net.cpp:148] Top shape: 1 1 (1)
I0925 23:07:16.331811 22809 net.cpp:156] Memory required for data: 10016
I0925 23:07:16.331815 22859 net.cpp:148] Top shape: 1 1 (1)
I0925 23:07:16.331825 22847 net.cpp:91] Creating Layer lstm1_
I0925 23:07:16.331817 22809 layer_factory.hpp:77] Creating layer lstm1_x_transform
I0925 23:07:16.331836 22823 net.cpp:141] Setting up lstm1_
I0925 23:07:16.331843 22847 net.cpp:399] lstm1_ -> c_0
I0925 23:07:16.331831 22859 net.cpp:148] Top shape: 1 1 (1)
I0925 23:07:16.331856 22823 net.cpp:148] Top shape: 1 1 500 (500)
I0925 23:07:16.331856 22859 net.cpp:156] Memory required for data: 10016
I0925 23:07:16.331857 22809 net.cpp:91] Creating Layer lstm1_x_transform
I0925 23:07:16.331871 22823 net.cpp:148] Top shape: 1 1 (1)
I0925 23:07:16.331874 22859 layer_factory.hpp:77] Creating layer lstm1_x_transform
I0925 23:07:16.331863 22847 net.cpp:399] lstm1_ -> h_0
I0925 23:07:16.331881 22823 net.cpp:156] Memory required for data: 2004
I0925 23:07:16.331881 22809 net.cpp:425] lstm1_x_transform <- x
I0925 23:07:16.331893 22823 layer_factory.hpp:77] Creating layer lstm1_
I0925 23:07:16.331897 22859 net.cpp:91] Creating Layer lstm1_x_transform
I0925 23:07:16.331902 22811 net.cpp:141] Setting up cont_1_lstm1_cont_slice_0_split
I0925 23:07:16.331908 22809 net.cpp:399] lstm1_x_transform -> W_xc_x
I0925 23:07:16.331913 22859 net.cpp:425] lstm1_x_transform <- x
I0925 23:07:16.331915 22823 net.cpp:91] Creating Layer lstm1_
I0925 23:07:16.331918 22811 net.cpp:148] Top shape: 1 1 (1)
I0925 23:07:16.331925 22811 net.cpp:148] Top shape: 1 1 (1)
I0925 23:07:16.331930 22811 net.cpp:156] Memory required for data: 10016
I0925 23:07:16.331931 22859 net.cpp:399] lstm1_x_transform -> W_xc_x
I0925 23:07:16.331936 22811 layer_factory.hpp:77] Creating layer lstm1_x_transform
I0925 23:07:16.331933 22823 net.cpp:399] lstm1_ -> c_0
I0925 23:07:16.331950 22811 net.cpp:91] Creating Layer lstm1_x_transform
I0925 23:07:16.331955 22811 net.cpp:425] lstm1_x_transform <- x
I0925 23:07:16.331962 22823 net.cpp:399] lstm1_ -> h_0
I0925 23:07:16.331969 22811 net.cpp:399] lstm1_x_transform -> W_xc_x
I0925 23:07:16.331974 22847 net.cpp:141] Setting up lstm1_
I0925 23:07:16.331985 22847 net.cpp:148] Top shape: 1 1 1000 (1000)
I0925 23:07:16.331991 22847 net.cpp:148] Top shape: 1 1 1000 (1000)
I0925 23:07:16.331995 22847 net.cpp:156] Memory required for data: 10004
I0925 23:07:16.332000 22847 layer_factory.hpp:77] Creating layer lstm1_cont_slice
I0925 23:07:16.332010 22847 net.cpp:91] Creating Layer lstm1_cont_slice
I0925 23:07:16.332015 22847 net.cpp:425] lstm1_cont_slice <- cont
I0925 23:07:16.332026 22847 net.cpp:399] lstm1_cont_slice -> cont_1
I0925 23:07:16.340399 22847 net.cpp:141] Setting up lstm1_cont_slice
I0925 23:07:16.340452 22847 net.cpp:148] Top shape: 1 1 (1)
I0925 23:07:16.340447 22823 net.cpp:141] Setting up lstm1_
I0925 23:07:16.340457 22847 net.cpp:156] Memory required for data: 10008
I0925 23:07:16.340478 22847 layer_factory.hpp:77] Creating layer cont_1_lstm1_cont_slice_0_split
I0925 23:07:16.340478 22823 net.cpp:148] Top shape: 1 1 1000 (1000)
I0925 23:07:16.340492 22823 net.cpp:148] Top shape: 1 1 1000 (1000)
I0925 23:07:16.340499 22823 net.cpp:156] Memory required for data: 10004
I0925 23:07:16.340507 22823 layer_factory.hpp:77] Creating layer lstm1_cont_slice
I0925 23:07:16.340512 22847 net.cpp:91] Creating Layer cont_1_lstm1_cont_slice_0_split
I0925 23:07:16.340519 22847 net.cpp:425] cont_1_lstm1_cont_slice_0_split <- cont_1
I0925 23:07:16.340530 22847 net.cpp:399] cont_1_lstm1_cont_slice_0_split -> cont_1_lstm1_cont_slice_0_split_0
I0925 23:07:16.340534 22823 net.cpp:91] Creating Layer lstm1_cont_slice
I0925 23:07:16.340545 22823 net.cpp:425] lstm1_cont_slice <- cont
I0925 23:07:16.340543 22847 net.cpp:399] cont_1_lstm1_cont_slice_0_split -> cont_1_lstm1_cont_slice_0_split_1
I0925 23:07:16.340559 22823 net.cpp:399] lstm1_cont_slice -> cont_1
I0925 23:07:16.344739 22823 net.cpp:141] Setting up lstm1_cont_slice
I0925 23:07:16.344756 22847 net.cpp:141] Setting up cont_1_lstm1_cont_slice_0_split
I0925 23:07:16.344805 22847 net.cpp:148] Top shape: 1 1 (1)
I0925 23:07:16.344807 22823 net.cpp:148] Top shape: 1 1 (1)
I0925 23:07:16.344813 22847 net.cpp:148] Top shape: 1 1 (1)
I0925 23:07:16.344831 22847 net.cpp:156] Memory required for data: 10016
I0925 23:07:16.344832 22823 net.cpp:156] Memory required for data: 10008
I0925 23:07:16.344841 22847 layer_factory.hpp:77] Creating layer lstm1_x_transform
I0925 23:07:16.344851 22823 layer_factory.hpp:77] Creating layer cont_1_lstm1_cont_slice_0_split
I0925 23:07:16.344869 22847 net.cpp:91] Creating Layer lstm1_x_transform
I0925 23:07:16.344877 22847 net.cpp:425] lstm1_x_transform <- x
I0925 23:07:16.344874 22823 net.cpp:91] Creating Layer cont_1_lstm1_cont_slice_0_split
I0925 23:07:16.344889 22847 net.cpp:399] lstm1_x_transform -> W_xc_x
I0925 23:07:16.344892 22823 net.cpp:425] cont_1_lstm1_cont_slice_0_split <- cont_1
I0925 23:07:16.344925 22823 net.cpp:399] cont_1_lstm1_cont_slice_0_split -> cont_1_lstm1_cont_slice_0_split_0
I0925 23:07:16.344954 22823 net.cpp:399] cont_1_lstm1_cont_slice_0_split -> cont_1_lstm1_cont_slice_0_split_1
I0925 23:07:16.355927 22823 net.cpp:141] Setting up cont_1_lstm1_cont_slice_0_split
I0925 23:07:16.355983 22823 net.cpp:148] Top shape: 1 1 (1)
I0925 23:07:16.355994 22823 net.cpp:148] Top shape: 1 1 (1)
I0925 23:07:16.356001 22823 net.cpp:156] Memory required for data: 10016
I0925 23:07:16.356014 22823 layer_factory.hpp:77] Creating layer lstm1_x_transform
I0925 23:07:16.356043 22823 net.cpp:91] Creating Layer lstm1_x_transform
I0925 23:07:16.356053 22823 net.cpp:425] lstm1_x_transform <- x
I0925 23:07:16.356071 22823 net.cpp:399] lstm1_x_transform -> W_xc_x
I0925 23:07:16.356858 22809 net.cpp:141] Setting up lstm1_x_transform
I0925 23:07:16.356878 22809 net.cpp:148] Top shape: 1 1 4000 (4000)
I0925 23:07:16.356884 22809 net.cpp:156] Memory required for data: 26016
I0925 23:07:16.356899 22809 layer_factory.hpp:77] Creating layer lstm1_W_xc_x_slice
I0925 23:07:16.356914 22809 net.cpp:91] Creating Layer lstm1_W_xc_x_slice
I0925 23:07:16.356923 22809 net.cpp:425] lstm1_W_xc_x_slice <- W_xc_x
I0925 23:07:16.356942 22809 net.cpp:399] lstm1_W_xc_x_slice -> W_xc_x_1
I0925 23:07:16.362038 22809 net.cpp:141] Setting up lstm1_W_xc_x_slice
I0925 23:07:16.362089 22809 net.cpp:148] Top shape: 1 1 4000 (4000)
I0925 23:07:16.362099 22809 net.cpp:156] Memory required for data: 42016
I0925 23:07:16.362112 22809 layer_factory.hpp:77] Creating layer lstm1_h_conted_0
I0925 23:07:16.362154 22809 net.cpp:91] Creating Layer lstm1_h_conted_0
I0925 23:07:16.362164 22805 net.cpp:141] Setting up embedding
I0925 23:07:16.362167 22809 net.cpp:425] lstm1_h_conted_0 <- h_0
I0925 23:07:16.362190 22805 net.cpp:148] Top shape: 1 1 500 (500)
I0925 23:07:16.362190 22809 net.cpp:425] lstm1_h_conted_0 <- cont_1_lstm1_cont_slice_0_split_0
I0925 23:07:16.362212 22805 net.cpp:156] Memory required for data: 22408
I0925 23:07:16.362239 22809 net.cpp:399] lstm1_h_conted_0 -> h_conted_0
I0925 23:07:16.362244 22805 layer_factory.hpp:77] Creating layer lstm1
I0925 23:07:16.362268 22805 net.cpp:91] Creating Layer lstm1
I0925 23:07:16.362279 22805 net.cpp:425] lstm1 <- embedded_input_frames
I0925 23:07:16.362296 22805 net.cpp:425] lstm1 <- cont_sentence_input_1_split_0
I0925 23:07:16.362305 22805 net.cpp:399] lstm1 -> lstm1
I0925 23:07:16.362319 22805 recurrent_layer.cpp:20] Initializing recurrent layer: assuming input batch contains 1 timesteps of 1 independent streams.
I0925 23:07:16.362715 22809 net.cpp:141] Setting up lstm1_h_conted_0
I0925 23:07:16.362723 22805 net.cpp:49] Initializing net from parameters: 
layer {
  name: "lstm1_"
  type: "Input"
  top: "x"
  top: "cont"
  input_param {
    shape {
      dim: 1
      dim: 1
      dim: 500
    }
    shape {
      dim: 1
      dim: 1
    }
  }
}
layer {
  name: "lstm1_"
  type: "Input"
  top: "c_0"
  top: "h_0"
  input_param {
    shape {
      dim: 1
      dim: 1
      dim: 1000
    }
    shape {
      dim: 1
      dim: 1
      dim: 1000
    }
  }
}
layer {
  name: "lstm1_cont_slice"
  type: "Slice"
  bottom: "cont"
  top: "cont_1"
  slice_param {
    axis: 0
  }
}
layer {
  name: "lstm1_x_transform"
  type: "InnerProduct"
  bottom: "x"
  top: "W_xc_x"
  param {
    name: "W_xc"
  }
  param {
    name: "b_c"
  }
  propagate_down: true
  inner_product_param {
    num_output: 4000
    bias_term: true
    weight_filler {
      type: "uniform"
      min: -0.08
      max: 0.08
    }
    bias_filler {
      type: "constant"
      value: 0
    }
    axis: 2
  }
}
layer {
  name: "lstm1_W_xc_x_slice"
  type: "Slice"
  bottom: "W_xc_x"
  top: "W_xc_x_1"
  slice_param {
    axis: 0
  }
}
layer {
  name: "lstm1_h_conted_0"
  type: "Scale"
  bottom: "h_0"
  bottom: "cont_1"
  top: "h_conted_0"
  scale_param {
    axis: 0
  }
}
layer {
  name: "lstm1_transform_1"
  type: "InnerProduct"
  bottom: "h_conted_0"
  top: "W_hc_h_0"
  param {
    name: "W_hc"
  }
  inner_product_param {
    num_output: 4000
    bias_term: false
    weight_filler {
      type: "uniform"
      min: -0.08
      max: 0.08
    }
    axis: 2
  }
}
layer {
  name: "lstm1_gate_input_1"
  type: "Eltwise"
  bottom: "W_hc_h_0"
  bottom: "W_xc_x_1"
  top: "gate_input_1"
  eltwise_param {
    operation: SUM
  }
}
layer {
  name: "lstm1_unit_1"
  type: "LSTMUnit"
  bottom: "c_0"
  bottom: "gate_input_1"
  bottom: "cont_1"
  top: "c_1"
  top: "h_1"
}
layer {
  name: "lstm1_"
  type: "Split"
  bottom: "c_1"
  top: "c_T"
}
layer {
  name: "lstm1_h_concat"
  type: "Concat"
  bottom: "h_1"
  top: "h"
  concat_param {
    axis: 0
  }
}
layer {
  name: "h_pseudoloss"
  type: "Reduction"
  bottom: "h"
  top: "h_pseudoloss"
  loss_weight: 1
}
I0925 23:07:16.362735 22809 net.cpp:148] Top shape: 1 1 1000 (1000)
I0925 23:07:16.362742 22809 net.cpp:156] Memory required for data: 46016
I0925 23:07:16.362751 22809 layer_factory.hpp:77] Creating layer lstm1_transform_1
I0925 23:07:16.362841 22805 layer_factory.hpp:77] Creating layer lstm1_
I0925 23:07:16.362840 22859 net.cpp:141] Setting up lstm1_x_transform
I0925 23:07:16.863647 22809 net.cpp:91] Creating Layer lstm1_transform_1
I0925 23:07:16.863682 22859 net.cpp:148] Top shape: 1 1 4000 (4000)
I0925 23:07:16.371809 22847 net.cpp:141] Setting up lstm1_x_transform
I0925 23:07:16.863699 22859 net.cpp:156] Memory required for data: 26016
I0925 23:07:16.863697 22805 net.cpp:91] Creating Layer lstm1_
I0925 23:07:16.465418 22855 net.cpp:141] Setting up embedding
I0925 23:07:16.504704 22829 net.cpp:141] Setting up embedding
I0925 23:07:16.863731 22847 net.cpp:148] Top shape: 1 1 4000 (4000)
I0925 23:07:16.863737 22859 layer_factory.hpp:77] Creating layer lstm1_W_xc_x_slice
I0925 23:07:16.863739 22805 net.cpp:399] lstm1_ -> x
I0925 23:07:16.863697 22809 net.cpp:425] lstm1_transform_1 <- h_conted_0
I0925 23:07:16.407734 22815 net.cpp:141] Setting up embedding
I0925 23:07:16.863749 22847 net.cpp:156] Memory required for data: 26016
I0925 23:07:16.863760 22859 net.cpp:91] Creating Layer lstm1_W_xc_x_slice
I0925 23:07:16.863754 22829 net.cpp:148] Top shape: 1 1 500 (500)
I0925 23:07:16.863749 22855 net.cpp:148] Top shape: 1 1 500 (500)
I0925 23:07:16.863790 22859 net.cpp:425] lstm1_W_xc_x_slice <- W_xc_x
I0925 23:07:16.863782 22805 net.cpp:399] lstm1_ -> cont
I0925 23:07:16.863797 22855 net.cpp:156] Memory required for data: 22408
I0925 23:07:16.863798 22809 net.cpp:399] lstm1_transform_1 -> W_hc_h_0
I0925 23:07:16.863809 22829 net.cpp:156] Memory required for data: 22408
I0925 23:07:16.863804 22859 net.cpp:399] lstm1_W_xc_x_slice -> W_xc_x_1
I0925 23:07:16.863833 22855 layer_factory.hpp:77] Creating layer lstm1
I0925 23:07:16.362896 22811 net.cpp:141] Setting up lstm1_x_transform
I0925 23:07:16.863869 22855 net.cpp:91] Creating Layer lstm1
I0925 23:07:16.863803 22815 net.cpp:148] Top shape: 1 1 500 (500)
I0925 23:07:16.866883 22855 net.cpp:425] lstm1 <- embedded_input_frames
I0925 23:07:16.866894 22815 net.cpp:156] Memory required for data: 22408
I0925 23:07:16.866904 22855 net.cpp:425] lstm1 <- cont_sentence_input_1_split_0
I0925 23:07:16.863903 22829 layer_factory.hpp:77] Creating layer lstm1
I0925 23:07:16.866928 22815 layer_factory.hpp:77] Creating layer lstm1
I0925 23:07:16.866932 22855 net.cpp:399] lstm1 -> lstm1
I0925 23:07:16.866948 22815 net.cpp:91] Creating Layer lstm1
I0925 23:07:16.866956 22855 recurrent_layer.cpp:20] Initializing recurrent layer: assuming input batch contains 1 timesteps of 1 independent streams.
I0925 23:07:16.863796 22847 layer_factory.hpp:77] Creating layer lstm1_W_xc_x_slice
I0925 23:07:16.864867 22859 net.cpp:141] Setting up lstm1_W_xc_x_slice
I0925 23:07:16.866996 22847 net.cpp:91] Creating Layer lstm1_W_xc_x_slice
I0925 23:07:16.866996 22859 net.cpp:148] Top shape: 1 1 4000 (4000)
I0925 23:07:16.867017 22847 net.cpp:425] lstm1_W_xc_x_slice <- W_xc_x
I0925 23:07:16.867019 22859 net.cpp:156] Memory required for data: 42016
I0925 23:07:16.867032 22859 layer_factory.hpp:77] Creating layer lstm1_h_conted_0
I0925 23:07:16.867033 22847 net.cpp:399] lstm1_W_xc_x_slice -> W_xc_x_1
I0925 23:07:16.867051 22859 net.cpp:91] Creating Layer lstm1_h_conted_0
I0925 23:07:16.867064 22859 net.cpp:425] lstm1_h_conted_0 <- h_0
…
I0925 23:07:16.867216 22829 recurrent_layer.cpp:20] Initializing recurrent layer: assuming input batch contains 1 timesteps of 1 independent streams.
I0925 23:07:16.867583 22855 net.cpp:49] Initializing net from parameters: 
layer {
  name: "lstm1_"
  type: "Input"
  top: "x"
  top: "cont"
  input_param {
    shape {
      dim: 1
      dim: 1
      dim: 500
    }
    shape {
      dim: 1
      dim: 1
    }
  }
}
layer {
  name: "lstm1_"
  type: "Input"
  top: "c_0"
  top: "h_0"
  input_param {
    shape {
      dim: 1
      dim: 1
      dim: 1000
    }
    shape {
      dim: 1
      dim: 1
      dim: 1000
    }
  }
}
layer {
  name: "lstm1_cont_slice"
  type: "Slice"
  bottom: "cont"
  top: "cont_1"
  slice_param {
    axis: 0
  }
}
layer {
  name: "lstm1_x_transform"
  type: "InnerProduct"
  bottom: "x"
  top: "W_xc_x"
  param {
    name: "W_xc"
  }
  param {
    name: "b_c"
  }
  propagate_down: true
  inner_product_param {
    num_output: 4000
    bias_term: true
    weight_filler {
      type: "uniform"
      min: -0.08
      max: 0.08
    }
    bias_filler {
      type: "constant"
      value: 0
    }
    axis: 2
  }
}
layer {
  name: "lstm1_W_xc_x_slice"
  type: "Slice"
  bottom: "W_xc_x"
  top: "W_xc_x_1"
  slice_param {
    axis: 0
  }
}
layer {
  name: "lstm1_h_conted_0"
  type: "Scale"
  bottom: "h_0"
  bottom: "cont_1"
  top: "h_conted_0"
  scale_param {
    axis: 0
  }
}
layer {
  name: "lstm1_transform_1"
  type: "InnerProduct"
  bottom: "h_conted_0"
  top: "W_hc_h_0"
  param {
    name: "W_hc"
  }
  inner_product_param {
    num_output: 4000
    bias_term: false
    weight_filler {
      type: "uniform"
      min: -0.08
      max: 0.08
    }
    axis: 2
  }
}
layer {
  name: "lstm1_gate_input_1"
  type: "Eltwise"
  bottom: "W_hc_h_0"
  bottom: "W_xc_x_1"
  top: "gate_input_1"
  eltwise_param {
    operation: SUM
  }
}
layer {
  name: "lstm1_unit_1"
  type: "LSTMUnit"
  bottom: "c_0"
  bottom: "gate_input_1"
  bottom: "cont_1"
  top: "c_1"
  top: "h_1"
}
layer {
  name: "lstm1_"
  type: "Split"
  bottom: "c_1"
  top: "c_T"
}
layer {
  name: "lstm1_h_concat"
  type: "Concat"
  bottom: "h_1"
  top: "h"
  concat_param {
    axis: 0
  }
}
layer {
  name: "h_pseudoloss"
  type: "Reduction"
  bottom: "h"
  top: "h_pseudoloss"
  loss_weight: 1
}
I0925 23:07:16.867682 22829 net.cpp:49] Initializing net from parameters: 
layer {
  name: "lstm1_"
  type: "Input"
  top: "x"
  top: "cont"
  input_param {
    shape {
      dim: 1
      dim: 1
      dim: 500
    }
    shape {
      dim: 1
      dim: 1
    }
  }
}
layer {
  name: "lstm1_"
  type: "Input"
  top: "c_0"
  top: "h_0"
  input_param {
    shape {
      dim: 1
      dim: 1
      dim: 1000
    }
    shape {
      dim: 1
      dim: 1
      dim: 1000
    }
  }
}
layer {
  name: "lstm1_cont_slice"
  type: "Slice"
  bottom: "cont"
  top: "cont_1"
  slice_param {
    axis: 0
  }
}
layer {
  name: "lstm1_x_transform"
  type: "InnerProduct"
  bottom: "x"
  top: "W_xc_x"
  param {
    name: "W_xc"
  }
  param {
    name: "b_c"
  }
  propagate_down: true
  inner_product_param {
    num_output: 4000
    bias_term: true
    weight_filler {
      type: "uniform"
      min: -0.08
      max: 0.08
    }
    bias_filler {
      type: "constant"
      value: 0
    }
    axis: 2
  }
}
layer {
  name: "lstm1_W_xc_x_slice"
  type: "Slice"
  bottom: "W_xc_x"
  top: "W_xc_x_1"
  slice_param {
    axis: 0
  }
}
layer {
  name: "lstm1_h_conted_0"
  type: "Scale"
  bottom: "h_0"
  bottom: "cont_1"
  top: "h_conted_0"
  scale_param {
    axis: 0
  }
}
layer {
  name: "lstm1_transform_1"
  type: "InnerProduct"
  bottom: "h_conted_0"
  top: "W_hc_h_0"
  param {
    name: "W_hc"
  }
  inner_product_param {
    num_output: 4000
    bias_term: false
    weight_filler {
      type: "uniform"
      min: -0.08
      max: 0.08
    }
    axis: 2
  }
}
layer {
  name: "lstm1_gate_input_1"
  type: "Eltwise"
  bottom: "W_hc_h_0"
  bottom: "W_xc_x_1"
  top: "gate_input_1"
  eltwise_param {
    operation: SUM
  }
}
layer {
  name: "lstm1_unit_1"
  type: "LSTMUnit"
  bottom: "c_0"
  bottom: "gate_input_1"
  bottom: "cont_1"
  top: "c_1"
  top: "h_1"
}
layer {
  name: "lstm1_"
  type: "Split"
  bottom: "c_1"
  top: "c_T"
}
layer {
  name: "lstm1_h_concat"
  type: "Concat"
  bottom: "h_1"
  top: "h"
  concat_param {
    axis: 0
  }
}
layer {
  name: "h_pseudoloss"
  type: "Reduction"
  bottom: "h"
  top: "h_pseudoloss"
  loss_weight: 1
}
I0925 23:07:16.871047 22829 layer_factory.hpp:77] Creating layer lstm1_
I0925 23:07:16.871098 22829 net.cpp:91] Creating Layer lstm1_
I0925 23:07:16.871122 22829 net.cpp:399] lstm1_ -> x
I0925 23:07:16.871157 22829 net.cpp:399] lstm1_ -> cont
I0925 23:07:16.541249 22831 net.cpp:141] Setting up conv1
I0925 23:07:16.867128 22815 recurrent_layer.cpp:20] Initializing recurrent layer: assuming input batch contains 1 timesteps of 1 independent streams.
I0925 23:07:16.380805 22823 net.cpp:141] Setting up lstm1_x_transform
I0925 23:07:16.871281 22831 net.cpp:148] Top shape: 10 96 55 55 (2904000)
I0925 23:07:16.871291 22831 net.cpp:156] Memory required for data: 17799480
I0925 23:07:16.871297 22823 net.cpp:148] Top shape: 1 1 4000 (4000)
I0925 23:07:16.871315 22831 layer_factory.hpp:77] Creating layer relu1
I0925 23:07:16.871321 22823 net.cpp:156] Memory required for data: 26016
I0925 23:07:16.871332 22831 net.cpp:91] Creating Layer relu1
I0925 23:07:16.871340 22831 net.cpp:425] relu1 <- conv1
I0925 23:07:16.871348 22831 net.cpp:386] relu1 -> conv1 (in-place)
I0925 23:07:16.871356 22823 layer_factory.hpp:77] Creating layer lstm1_W_xc_x_slice
I0925 23:07:16.871374 22823 net.cpp:91] Creating Layer lstm1_W_xc_x_slice
I0925 23:07:16.871384 22823 net.cpp:425] lstm1_W_xc_x_slice <- W_xc_x
I0925 23:07:16.871398 22823 net.cpp:399] lstm1_W_xc_x_slice -> W_xc_x_1
I0925 23:07:16.871695 22815 net.cpp:49] Initializing net from parameters: 
layer {
  name: "lstm1_"
  type: "Input"
  top: "x"
  top: "cont"
  input_param {
    shape {
      dim: 1
      dim: 1
      dim: 500
    }
    shape {
      dim: 1
      dim: 1
    }
  }
}
layer {
  name: "lstm1_"
  type: "Input"
  top: "c_0"
  top: "h_0"
  input_param {
    shape {
      dim: 1
      dim: 1
      dim: 1000
    }
    shape {
      dim: 1
      dim: 1
      dim: 1000
    }
  }
}
layer {
  name: "lstm1_cont_slice"
  type: "Slice"
  bottom: "cont"
  top: "cont_1"
  slice_param {
    axis: 0
  }
}
layer {
  name: "lstm1_x_transform"
  type: "InnerProduct"
  bottom: "x"
  top: "W_xc_x"
  param {
    name: "W_xc"
  }
  param {
    name: "b_c"
  }
  propagate_down: true
  inner_product_param {
    num_output: 4000
    bias_term: true
    weight_filler {
      type: "uniform"
      min: -0.08
      max: 0.08
    }
    bias_filler {
      type: "constant"
      value: 0
    }
    axis: 2
  }
}
layer {
  name: "lstm1_W_xc_x_slice"
  type: "Slice"
  bottom: "W_xc_x"
  top: "W_xc_x_1"
  slice_param {
    axis: 0
  }
}
layer {
  name: "lstm1_h_conted_0"
  type: "Scale"
  bottom: "h_0"
  bottom: "cont_1"
  top: "h_conted_0"
  scale_param {
    axis: 0
  }
}
layer {
  name: "lstm1_transform_1"
  type: "InnerProduct"
  bottom: "h_conted_0"
  top: "W_hc_h_0"
  param {
    name: "W_hc"
  }
  inner_product_param {
    num_output: 4000
    bias_term: false
    weight_filler {
      type: "uniform"
      min: -0.08
      max: 0.08
    }
    axis: 2
  }
}
layer {
  name: "lstm1_gate_input_1"
  type: "Eltwise"
  bottom: "W_hc_h_0"
  bottom: "W_xc_x_1"
  top: "gate_input_1"
  eltwise_param {
    operation: SUM
  }
}
layer {
  name: "lstm1_unit_1"
  type: "LSTMUnit"
  bottom: "c_0"
  bottom: "gate_input_1"
  bottom: "cont_1"
  top: "c_1"
  top: "h_1"
}
layer {
  name: "lstm1_"
  type: "Split"
  bottom: "c_1"
  top: "c_T"
}
layer {
  name: "lstm1_h_concat"
  type: "Concat"
  bottom: "h_1"
  top: "h"
  concat_param {
    axis: 0
  }
}
layer {
  name: "h_pseudoloss"
  type: "Reduction"
  bottom: "h"
  top: "h_pseudoloss"
  loss_weight: 1
}
I0925 23:07:16.871811 22815 layer_factory.hpp:77] Creating layer lstm1_
I0925 23:07:16.871827 22815 net.cpp:91] Creating Layer lstm1_
I0925 23:07:16.871834 22815 net.cpp:399] lstm1_ -> x
I0925 23:07:16.871846 22815 net.cpp:399] lstm1_ -> cont
I0925 23:07:16.867723 22811 net.cpp:148] Top shape: 1 1 4000 (4000)
I0925 23:07:16.874796 22811 net.cpp:156] Memory required for data: 26016
I0925 23:07:16.874899 22811 layer_factory.hpp:77] Creating layer lstm1_W_xc_x_slice
I0925 23:07:16.874935 22811 net.cpp:91] Creating Layer lstm1_W_xc_x_slice
I0925 23:07:16.874944 22811 net.cpp:425] lstm1_W_xc_x_slice <- W_xc_x
I0925 23:07:16.874955 22811 net.cpp:399] lstm1_W_xc_x_slice -> W_xc_x_1
I0925 23:07:16.867785 22855 layer_factory.hpp:77] Creating layer lstm1_
I0925 23:07:16.876039 22855 net.cpp:91] Creating Layer lstm1_
I0925 23:07:16.876055 22855 net.cpp:399] lstm1_ -> x
I0925 23:07:16.876082 22855 net.cpp:399] lstm1_ -> cont
I0925 23:07:16.876828 22805 net.cpp:141] Setting up lstm1_
I0925 23:07:16.876857 22805 net.cpp:148] Top shape: 1 1 500 (500)
I0925 23:07:16.876864 22805 net.cpp:148] Top shape: 1 1 (1)
I0925 23:07:16.876868 22805 net.cpp:156] Memory required for data: 2004
I0925 23:07:16.876876 22805 layer_factory.hpp:77] Creating layer lstm1_
I0925 23:07:16.876896 22805 net.cpp:91] Creating Layer lstm1_
I0925 23:07:16.876904 22805 net.cpp:399] lstm1_ -> c_0
I0925 23:07:16.876916 22805 net.cpp:399] lstm1_ -> h_0
I0925 23:07:16.876989 22847 net.cpp:141] Setting up lstm1_W_xc_x_slice
I0925 23:07:16.877025 22847 net.cpp:148] Top shape: 1 1 4000 (4000)
I0925 23:07:16.877034 22847 net.cpp:156] Memory required for data: 42016
I0925 23:07:16.877044 22847 layer_factory.hpp:77] Creating layer lstm1_h_conted_0
I0925 23:07:16.877065 22847 net.cpp:91] Creating Layer lstm1_h_conted_0
I0925 23:07:16.877085 22847 net.cpp:425] lstm1_h_conted_0 <- h_0
I0925 23:07:16.877110 22847 net.cpp:425] lstm1_h_conted_0 <- cont_1_lstm1_cont_slice_0_split_0
I0925 23:07:16.877141 22847 net.cpp:399] lstm1_h_conted_0 -> h_conted_0
I0925 23:07:16.877387 22859 net.cpp:141] Setting up lstm1_h_conted_0
I0925 23:07:16.877431 22859 net.cpp:148] Top shape: 1 1 1000 (1000)
I0925 23:07:16.877454 22859 net.cpp:156] Memory required for data: 46016
I0925 23:07:16.877480 22859 layer_factory.hpp:77] Creating layer lstm1_transform_1
I0925 23:07:16.877521 22859 net.cpp:91] Creating Layer lstm1_transform_1
I0925 23:07:16.877550 22859 net.cpp:425] lstm1_transform_1 <- h_conted_0
I0925 23:07:16.877571 22847 net.cpp:141] Setting up lstm1_h_conted_0
I0925 23:07:16.877591 22847 net.cpp:148] Top shape: 1 1 1000 (1000)
I0925 23:07:16.877600 22847 net.cpp:156] Memory required for data: 46016
I0925 23:07:16.877609 22847 layer_factory.hpp:77] Creating layer lstm1_transform_1
I0925 23:07:16.877614 22859 net.cpp:399] lstm1_transform_1 -> W_hc_h_0
I0925 23:07:16.877630 22847 net.cpp:91] Creating Layer lstm1_transform_1
I0925 23:07:16.877640 22847 net.cpp:425] lstm1_transform_1 <- h_conted_0
I0925 23:07:16.877655 22847 net.cpp:399] lstm1_transform_1 -> W_hc_h_0
I0925 23:07:16.877885 22823 net.cpp:141] Setting up lstm1_W_xc_x_slice
I0925 23:07:16.877923 22823 net.cpp:148] Top shape: 1 1 4000 (4000)
I0925 23:07:16.877928 22823 net.cpp:156] Memory required for data: 42016
I0925 23:07:16.877935 22823 layer_factory.hpp:77] Creating layer lstm1_h_conted_0
I0925 23:07:16.877956 22823 net.cpp:91] Creating Layer lstm1_h_conted_0
I0925 23:07:16.877964 22823 net.cpp:425] lstm1_h_conted_0 <- h_0
I0925 23:07:16.877972 22823 net.cpp:425] lstm1_h_conted_0 <- cont_1_lstm1_cont_slice_0_split_0
I0925 23:07:16.877981 22823 net.cpp:399] lstm1_h_conted_0 -> h_conted_0
I0925 23:07:16.878072 22811 net.cpp:141] Setting up lstm1_W_xc_x_slice
I0925 23:07:16.878105 22811 net.cpp:148] Top shape: 1 1 4000 (4000)
I0925 23:07:16.878118 22811 net.cpp:156] Memory required for data: 42016
I0925 23:07:16.878130 22811 layer_factory.hpp:77] Creating layer lstm1_h_conted_0
I0925 23:07:16.878176 22805 net.cpp:141] Setting up lstm1_
I0925 23:07:16.878177 22811 net.cpp:91] Creating Layer lstm1_h_conted_0
I0925 23:07:16.878191 22805 net.cpp:148] Top shape: 1 1 1000 (1000)
I0925 23:07:16.878196 22811 net.cpp:425] lstm1_h_conted_0 <- h_0
I0925 23:07:16.878198 22805 net.cpp:148] Top shape: 1 1 1000 (1000)
I0925 23:07:16.878212 22805 net.cpp:156] Memory required for data: 10004
I0925 23:07:16.878216 22811 net.cpp:425] lstm1_h_conted_0 <- cont_1_lstm1_cont_slice_0_split_0
I0925 23:07:16.878219 22805 layer_factory.hpp:77] Creating layer lstm1_cont_slice
I0925 23:07:16.878242 22805 net.cpp:91] Creating Layer lstm1_cont_slice
I0925 23:07:16.878248 22805 net.cpp:425] lstm1_cont_slice <- cont
I0925 23:07:16.878259 22805 net.cpp:399] lstm1_cont_slice -> cont_1
I0925 23:07:16.878334 22811 net.cpp:399] lstm1_h_conted_0 -> h_conted_0
I0925 23:07:16.887583 22831 net.cpp:141] Setting up relu1
I0925 23:07:16.887624 22831 net.cpp:148] Top shape: 10 96 55 55 (2904000)
I0925 23:07:16.887631 22831 net.cpp:156] Memory required for data: 29415480
I0925 23:07:16.887639 22831 layer_factory.hpp:77] Creating layer pool1
I0925 23:07:16.887660 22831 net.cpp:91] Creating Layer pool1
I0925 23:07:16.887667 22831 net.cpp:425] pool1 <- conv1
I0925 23:07:16.887681 22831 net.cpp:399] pool1 -> pool1
I0925 23:07:16.887797 22831 net.cpp:141] Setting up pool1
I0925 23:07:16.887809 22831 net.cpp:148] Top shape: 10 96 27 27 (699840)
I0925 23:07:16.887814 22831 net.cpp:156] Memory required for data: 32214840
I0925 23:07:16.887820 22831 layer_factory.hpp:77] Creating layer norm1
I0925 23:07:16.887841 22831 net.cpp:91] Creating Layer norm1
I0925 23:07:16.887846 22831 net.cpp:425] norm1 <- pool1
I0925 23:07:16.887856 22831 net.cpp:399] norm1 -> norm1
I0925 23:07:16.888145 22831 net.cpp:141] Setting up norm1
I0925 23:07:16.888157 22831 net.cpp:148] Top shape: 10 96 27 27 (699840)
I0925 23:07:16.888162 22831 net.cpp:156] Memory required for data: 35014200
I0925 23:07:16.888167 22831 layer_factory.hpp:77] Creating layer conv2
I0925 23:07:16.888188 22831 net.cpp:91] Creating Layer conv2
I0925 23:07:16.888195 22831 net.cpp:425] conv2 <- norm1
I0925 23:07:16.888205 22831 net.cpp:399] conv2 -> conv2
I0925 23:07:16.889415 22829 net.cpp:141] Setting up lstm1_
I0925 23:07:16.889436 22829 net.cpp:148] Top shape: 1 1 500 (500)
I0925 23:07:16.889442 22829 net.cpp:148] Top shape: 1 1 (1)
I0925 23:07:16.889447 22829 net.cpp:156] Memory required for data: 2004
I0925 23:07:16.889453 22829 layer_factory.hpp:77] Creating layer lstm1_
I0925 23:07:16.889467 22829 net.cpp:91] Creating Layer lstm1_
I0925 23:07:16.889484 22829 net.cpp:399] lstm1_ -> c_0
I0925 23:07:16.889497 22829 net.cpp:399] lstm1_ -> h_0
I0925 23:07:16.889531 22805 net.cpp:141] Setting up lstm1_cont_slice
I0925 23:07:16.889585 22805 net.cpp:148] Top shape: 1 1 (1)
I0925 23:07:16.889590 22805 net.cpp:156] Memory required for data: 10008
I0925 23:07:16.889600 22805 layer_factory.hpp:77] Creating layer cont_1_lstm1_cont_slice_0_split
I0925 23:07:16.889617 22805 net.cpp:91] Creating Layer cont_1_lstm1_cont_slice_0_split
I0925 23:07:16.889624 22829 net.cpp:141] Setting up lstm1_
I0925 23:07:16.889631 22805 net.cpp:425] cont_1_lstm1_cont_slice_0_split <- cont_1
I0925 23:07:16.889637 22829 net.cpp:148] Top shape: 1 1 1000 (1000)
I0925 23:07:16.889642 22805 net.cpp:399] cont_1_lstm1_cont_slice_0_split -> cont_1_lstm1_cont_slice_0_split_0
I0925 23:07:16.889645 22829 net.cpp:148] Top shape: 1 1 1000 (1000)
I0925 23:07:16.889650 22829 net.cpp:156] Memory required for data: 10004
I0925 23:07:16.889655 22829 layer_factory.hpp:77] Creating layer lstm1_cont_slice
I0925 23:07:16.889657 22805 net.cpp:399] cont_1_lstm1_cont_slice_0_split -> cont_1_lstm1_cont_slice_0_split_1
I0925 23:07:16.889665 22829 net.cpp:91] Creating Layer lstm1_cont_slice
I0925 23:07:16.889672 22829 net.cpp:425] lstm1_cont_slice <- cont
I0925 23:07:16.889679 22829 net.cpp:399] lstm1_cont_slice -> cont_1
I0925 23:07:16.889706 22855 net.cpp:141] Setting up lstm1_
I0925 23:07:16.889727 22855 net.cpp:148] Top shape: 1 1 500 (500)
I0925 23:07:16.889734 22855 net.cpp:148] Top shape: 1 1 (1)
I0925 23:07:16.889739 22855 net.cpp:156] Memory required for data: 2004
I0925 23:07:16.889740 22829 net.cpp:141] Setting up lstm1_cont_slice
I0925 23:07:16.889745 22855 layer_factory.hpp:77] Creating layer lstm1_
I0925 23:07:16.889750 22829 net.cpp:148] Top shape: 1 1 (1)
I0925 23:07:16.889755 22829 net.cpp:156] Memory required for data: 10008
I0925 23:07:16.889760 22829 layer_factory.hpp:77] Creating layer cont_1_lstm1_cont_slice_0_split
I0925 23:07:16.889762 22855 net.cpp:91] Creating Layer lstm1_
I0925 23:07:16.889770 22829 net.cpp:91] Creating Layer cont_1_lstm1_cont_slice_0_split
I0925 23:07:16.889776 22829 net.cpp:425] cont_1_lstm1_cont_slice_0_split <- cont_1
I0925 23:07:16.889777 22855 net.cpp:399] lstm1_ -> c_0
I0925 23:07:16.889783 22829 net.cpp:399] cont_1_lstm1_cont_slice_0_split -> cont_1_lstm1_cont_slice_0_split_0
I0925 23:07:16.889792 22829 net.cpp:399] cont_1_lstm1_cont_slice_0_split -> cont_1_lstm1_cont_slice_0_split_1
I0925 23:07:16.889792 22855 net.cpp:399] lstm1_ -> h_0
I0925 23:07:16.889858 22829 net.cpp:141] Setting up cont_1_lstm1_cont_slice_0_split
I0925 23:07:16.889866 22829 net.cpp:148] Top shape: 1 1 (1)
I0925 23:07:16.889873 22829 net.cpp:148] Top shape: 1 1 (1)
I0925 23:07:16.889878 22829 net.cpp:156] Memory required for data: 10016
I0925 23:07:16.889881 22829 layer_factory.hpp:77] Creating layer lstm1_x_transform
I0925 23:07:16.889896 22829 net.cpp:91] Creating Layer lstm1_x_transform
I0925 23:07:16.889902 22829 net.cpp:425] lstm1_x_transform <- x
I0925 23:07:16.889910 22829 net.cpp:399] lstm1_x_transform -> W_xc_x
I0925 23:07:16.889989 22805 net.cpp:141] Setting up cont_1_lstm1_cont_slice_0_split
I0925 23:07:16.890002 22805 net.cpp:148] Top shape: 1 1 (1)
I0925 23:07:16.890007 22805 net.cpp:148] Top shape: 1 1 (1)
I0925 23:07:16.890012 22805 net.cpp:156] Memory required for data: 10016
I0925 23:07:16.890017 22805 layer_factory.hpp:77] Creating layer lstm1_x_transform
I0925 23:07:16.890033 22805 net.cpp:91] Creating Layer lstm1_x_transform
I0925 23:07:16.890039 22805 net.cpp:425] lstm1_x_transform <- x
I0925 23:07:16.890048 22805 net.cpp:399] lstm1_x_transform -> W_xc_x
I0925 23:07:16.890123 22855 net.cpp:141] Setting up lstm1_
I0925 23:07:16.890135 22855 net.cpp:148] Top shape: 1 1 1000 (1000)
I0925 23:07:16.890141 22855 net.cpp:148] Top shape: 1 1 1000 (1000)
I0925 23:07:16.890144 22855 net.cpp:156] Memory required for data: 10004
I0925 23:07:16.890151 22855 layer_factory.hpp:77] Creating layer lstm1_cont_slice
I0925 23:07:16.890161 22855 net.cpp:91] Creating Layer lstm1_cont_slice
I0925 23:07:16.890166 22855 net.cpp:425] lstm1_cont_slice <- cont
I0925 23:07:16.890175 22855 net.cpp:399] lstm1_cont_slice -> cont_1
I0925 23:07:16.890233 22815 net.cpp:141] Setting up lstm1_
I0925 23:07:16.890249 22815 net.cpp:148] Top shape: 1 1 500 (500)
I0925 23:07:16.890255 22815 net.cpp:148] Top shape: 1 1 (1)
I0925 23:07:16.890259 22815 net.cpp:156] Memory required for data: 2004
I0925 23:07:16.890265 22815 layer_factory.hpp:77] Creating layer lstm1_
I0925 23:07:16.890278 22815 net.cpp:91] Creating Layer lstm1_
I0925 23:07:16.890290 22815 net.cpp:399] lstm1_ -> c_0
I0925 23:07:16.890316 22815 net.cpp:399] lstm1_ -> h_0
I0925 23:07:16.890362 22823 net.cpp:141] Setting up lstm1_h_conted_0
I0925 23:07:16.890388 22823 net.cpp:148] Top shape: 1 1 1000 (1000)
I0925 23:07:16.890394 22823 net.cpp:156] Memory required for data: 46016
I0925 23:07:16.890403 22823 layer_factory.hpp:77] Creating layer lstm1_transform_1
I0925 23:07:16.890419 22823 net.cpp:91] Creating Layer lstm1_transform_1
I0925 23:07:16.890427 22823 net.cpp:425] lstm1_transform_1 <- h_conted_0
I0925 23:07:16.890440 22823 net.cpp:399] lstm1_transform_1 -> W_hc_h_0
I0925 23:07:16.912502 22855 net.cpp:141] Setting up lstm1_cont_slice
I0925 23:07:16.912555 22855 net.cpp:148] Top shape: 1 1 (1)
I0925 23:07:16.912564 22855 net.cpp:156] Memory required for data: 10008
I0925 23:07:16.912576 22855 layer_factory.hpp:77] Creating layer cont_1_lstm1_cont_slice_0_split
I0925 23:07:16.912613 22855 net.cpp:91] Creating Layer cont_1_lstm1_cont_slice_0_split
I0925 23:07:16.912624 22855 net.cpp:425] cont_1_lstm1_cont_slice_0_split <- cont_1
I0925 23:07:16.912642 22855 net.cpp:399] cont_1_lstm1_cont_slice_0_split -> cont_1_lstm1_cont_slice_0_split_0
I0925 23:07:16.912659 22855 net.cpp:399] cont_1_lstm1_cont_slice_0_split -> cont_1_lstm1_cont_slice_0_split_1
I0925 23:07:16.912770 22855 net.cpp:141] Setting up cont_1_lstm1_cont_slice_0_split
I0925 23:07:16.912786 22855 net.cpp:148] Top shape: 1 1 (1)
I0925 23:07:16.912796 22855 net.cpp:148] Top shape: 1 1 (1)
I0925 23:07:16.912802 22855 net.cpp:156] Memory required for data: 10016
I0925 23:07:16.912811 22855 layer_factory.hpp:77] Creating layer lstm1_x_transform
I0925 23:07:16.912834 22855 net.cpp:91] Creating Layer lstm1_x_transform
I0925 23:07:16.912842 22855 net.cpp:425] lstm1_x_transform <- x
I0925 23:07:16.912856 22855 net.cpp:399] lstm1_x_transform -> W_xc_x
I0925 23:07:16.918046 22815 net.cpp:141] Setting up lstm1_
I0925 23:07:16.918094 22815 net.cpp:148] Top shape: 1 1 1000 (1000)
I0925 23:07:16.918107 22815 net.cpp:148] Top shape: 1 1 1000 (1000)
I0925 23:07:16.918113 22815 net.cpp:156] Memory required for data: 10004
I0925 23:07:16.918125 22815 layer_factory.hpp:77] Creating layer lstm1_cont_slice
I0925 23:07:16.918149 22815 net.cpp:91] Creating Layer lstm1_cont_slice
I0925 23:07:16.918159 22815 net.cpp:425] lstm1_cont_slice <- cont
I0925 23:07:16.918180 22815 net.cpp:399] lstm1_cont_slice -> cont_1
I0925 23:07:16.928848 22809 net.cpp:141] Setting up lstm1_transform_1
I0925 23:07:16.928899 22809 net.cpp:148] Top shape: 1 1 4000 (4000)
I0925 23:07:16.928908 22809 net.cpp:156] Memory required for data: 62016
I0925 23:07:16.928936 22809 layer_factory.hpp:77] Creating layer lstm1_gate_input_1
I0925 23:07:16.928967 22809 net.cpp:91] Creating Layer lstm1_gate_input_1
I0925 23:07:16.928978 22809 net.cpp:425] lstm1_gate_input_1 <- W_hc_h_0
I0925 23:07:16.928990 22809 net.cpp:425] lstm1_gate_input_1 <- W_xc_x_1
I0925 23:07:16.929003 22809 net.cpp:399] lstm1_gate_input_1 -> gate_input_1
I0925 23:07:16.929088 22809 net.cpp:141] Setting up lstm1_gate_input_1
I0925 23:07:16.929105 22809 net.cpp:148] Top shape: 1 1 4000 (4000)
I0925 23:07:16.929112 22809 net.cpp:156] Memory required for data: 78016
I0925 23:07:16.929121 22809 layer_factory.hpp:77] Creating layer lstm1_unit_1
I0925 23:07:16.929136 22809 net.cpp:91] Creating Layer lstm1_unit_1
I0925 23:07:16.929143 22809 net.cpp:425] lstm1_unit_1 <- c_0
I0925 23:07:16.929152 22809 net.cpp:425] lstm1_unit_1 <- gate_input_1
I0925 23:07:16.929162 22809 net.cpp:425] lstm1_unit_1 <- cont_1_lstm1_cont_slice_0_split_1
I0925 23:07:16.929177 22809 net.cpp:399] lstm1_unit_1 -> c_1
I0925 23:07:16.929193 22809 net.cpp:399] lstm1_unit_1 -> h_1
I0925 23:07:16.929355 22809 net.cpp:141] Setting up lstm1_unit_1
I0925 23:07:16.929371 22809 net.cpp:148] Top shape: 1 1 1000 (1000)
I0925 23:07:16.929383 22809 net.cpp:148] Top shape: 1 1 1000 (1000)
I0925 23:07:16.929389 22809 net.cpp:156] Memory required for data: 86016
I0925 23:07:16.929399 22809 layer_factory.hpp:77] Creating layer lstm1_
I0925 23:07:16.929412 22809 net.cpp:91] Creating Layer lstm1_
I0925 23:07:16.929419 22809 net.cpp:425] lstm1_ <- c_1
I0925 23:07:16.929430 22809 net.cpp:399] lstm1_ -> c_T
I0925 23:07:16.929484 22809 net.cpp:141] Setting up lstm1_
I0925 23:07:16.929498 22809 net.cpp:148] Top shape: 1 1 1000 (1000)
I0925 23:07:16.929505 22809 net.cpp:156] Memory required for data: 90016
I0925 23:07:16.929513 22809 layer_factory.hpp:77] Creating layer lstm1_h_concat
I0925 23:07:16.929528 22809 net.cpp:91] Creating Layer lstm1_h_concat
I0925 23:07:16.929536 22809 net.cpp:425] lstm1_h_concat <- h_1
I0925 23:07:16.929548 22809 net.cpp:399] lstm1_h_concat -> h
I0925 23:07:16.929620 22809 net.cpp:141] Setting up lstm1_h_concat
I0925 23:07:16.929633 22809 net.cpp:148] Top shape: 1 1 1000 (1000)
I0925 23:07:16.929641 22809 net.cpp:156] Memory required for data: 94016
I0925 23:07:16.929648 22809 layer_factory.hpp:77] Creating layer h_pseudoloss
I0925 23:07:16.929669 22809 net.cpp:91] Creating Layer h_pseudoloss
I0925 23:07:16.929677 22809 net.cpp:425] h_pseudoloss <- h
I0925 23:07:16.929688 22809 net.cpp:399] h_pseudoloss -> h_pseudoloss
I0925 23:07:16.930001 22809 net.cpp:141] Setting up h_pseudoloss
…
I0925 23:07:16.930210 22809 net.cpp:219] lstm1_ does not need backward computation.
I0925 23:07:16.930217 22809 net.cpp:261] This network produces output c_T
I0925 23:07:16.930225 22809 net.cpp:261] This network produces output h_pseudoloss
I0925 23:07:16.930255 22809 net.cpp:274] Network initialization done.
I0925 23:07:16.930392 22809 recurrent_layer.cpp:150] Adding parameter 0: W_xc
I0925 23:07:16.930405 22809 recurrent_layer.cpp:150] Adding parameter 1: b_c
I0925 23:07:16.930413 22809 recurrent_layer.cpp:150] Adding parameter 2: W_hc
I0925 23:07:16.930574 22809 net.cpp:141] Setting up lstm1
I0925 23:07:16.930591 22809 net.cpp:148] Top shape: 1 1 1000 (1000)
I0925 23:07:16.930619 22809 net.cpp:156] Memory required for data: 26408
I0925 23:07:16.930641 22809 layer_factory.hpp:77] Creating layer concat
I0925 23:07:16.930655 22809 net.cpp:91] Creating Layer concat
I0925 23:07:16.930663 22809 net.cpp:425] concat <- lstm1
I0925 23:07:16.930673 22809 net.cpp:425] concat <- embedded_input_sentence
I0925 23:07:16.930682 22809 net.cpp:425] concat <- reshaped_stage_indicator
I0925 23:07:16.930694 22809 net.cpp:399] concat -> lstm1_video_sequence
I0925 23:07:16.930747 22809 net.cpp:141] Setting up concat
I0925 23:07:16.930761 22809 net.cpp:148] Top shape: 1 1 1501 (1501)
I0925 23:07:16.930769 22809 net.cpp:156] Memory required for data: 32412
I0925 23:07:16.930778 22809 layer_factory.hpp:77] Creating layer lstm2
I0925 23:07:16.930796 22809 net.cpp:91] Creating Layer lstm2
I0925 23:07:16.930805 22809 net.cpp:425] lstm2 <- lstm1_video_sequence
I0925 23:07:16.930814 22809 net.cpp:425] lstm2 <- cont_sentence_input_1_split_1
I0925 23:07:16.930843 22809 net.cpp:399] lstm2 -> lstm2
I0925 23:07:16.930865 22809 recurrent_layer.cpp:20] Initializing recurrent layer: assuming input batch contains 1 timesteps of 1 independent streams.
I0925 23:07:16.931115 22811 net.cpp:141] Setting up lstm1_h_conted_0
I0925 23:07:16.931159 22811 net.cpp:148] Top shape: 1 1 1000 (1000)
I0925 23:07:16.931166 22811 net.cpp:156] Memory required for data: 46016
I0925 23:07:16.931169 22815 net.cpp:141] Setting up lstm1_cont_slice
I0925 23:07:16.931179 22811 layer_factory.hpp:77] Creating layer lstm1_transform_1
I0925 23:07:16.931195 22815 net.cpp:148] Top shape: 1 1 (1)
I0925 23:07:16.931203 22815 net.cpp:156] Memory required for data: 10008
I0925 23:07:16.931206 22811 net.cpp:91] Creating Layer lstm1_transform_1
I0925 23:07:16.931212 22815 layer_factory.hpp:77] Creating layer cont_1_lstm1_cont_slice_0_split
I0925 23:07:16.931217 22811 net.cpp:425] lstm1_transform_1 <- h_conted_0
I0925 23:07:16.931228 22815 net.cpp:91] Creating Layer cont_1_lstm1_cont_slice_0_split
I0925 23:07:16.931238 22815 net.cpp:425] cont_1_lstm1_cont_slice_0_split <- cont_1
I0925 23:07:16.931272 22811 net.cpp:399] lstm1_transform_1 -> W_hc_h_0
I0925 23:07:16.931274 22815 net.cpp:399] cont_1_lstm1_cont_slice_0_split -> cont_1_lstm1_cont_slice_0_split_0
I0925 23:07:16.931282 22809 net.cpp:49] Initializing net from parameters: 
layer {
  name: "lstm2_"
  type: "Input"
  top: "x"
  top: "cont"
  input_param {
    shape {
      dim: 1
      dim: 1
      dim: 1501
    }
    shape {
      dim: 1
      dim: 1
    }
  }
}
layer {
  name: "lstm2_"
  type: "Input"
  top: "c_0"
  top: "h_0"
  input_param {
    shape {
      dim: 1
      dim: 1
      dim: 1000
    }
    shape {
      dim: 1
      dim: 1
      dim: 1000
    }
  }
}
layer {
  name: "lstm2_cont_slice"
  type: "Slice"
  bottom: "cont"
  top: "cont_1"
  slice_param {
    axis: 0
  }
}
layer {
  name: "lstm2_x_transform"
  type: "InnerProduct"
  bottom: "x"
  top: "W_xc_x"
  param {
    name: "W_xc"
  }
  param {
    name: "b_c"
  }
  propagate_down: true
  inner_product_param {
    num_output: 4000
    bias_term: true
    weight_filler {
      type: "uniform"
      min: -0.08
      max: 0.08
    }
    bias_filler {
      type: "constant"
      value: 0
    }
    axis: 2
  }
}
layer {
  name: "lstm2_W_xc_x_slice"
  type: "Slice"
  bottom: "W_xc_x"
  top: "W_xc_x_1"
  slice_param {
    axis: 0
  }
}
layer {
  name: "lstm2_h_conted_0"
  type: "Scale"
  bottom: "h_0"
  bottom: "cont_1"
  top: "h_conted_0"
  scale_param {
    axis: 0
  }
}
layer {
  name: "lstm2_transform_1"
  type: "InnerProduct"
  bottom: "h_conted_0"
  top: "W_hc_h_0"
  param {
    name: "W_hc"
  }
  inner_product_param {
    num_output: 4000
    bias_term: false
    weight_filler {
      type: "uniform"
      min: -0.08
      max: 0.08
    }
    axis: 2
  }
}
layer {
  name: "lstm2_gate_input_1"
  type: "Eltwise"
  bottom: "W_hc_h_0"
  bottom: "W_xc_x_1"
  top: "gate_input_1"
  eltwise_param {
    operation: SUM
  }
}
layer {
  name: "lstm2_unit_1"
  type: "LSTMUnit"
  bottom: "c_0"
  bottom: "gate_input_1"
  bottom: "cont_1"
  top: "c_1"
  top: "h_1"
}
layer {
  name: "lstm2_"
  type: "Split"
  bottom: "c_1"
  top: "c_T"
}
layer {
  name: "lstm2_h_concat"
  type: "Concat"
  bottom: "h_1"
  top: "h"
  concat_param {
    axis: 0
  }
}
layer {
  name: "h_pseudoloss"
  type: "Reduction"
  bottom: "h"
  top: "h_pseudoloss"
  loss_weight: 1
}
I0925 23:07:16.931294 22815 net.cpp:399] cont_1_lstm1_cont_slice_0_split -> cont_1_lstm1_cont_slice_0_split_1
I0925 23:07:16.931324 22859 net.cpp:141] Setting up lstm1_transform_1
I0925 23:07:16.931344 22859 net.cpp:148] Top shape: 1 1 4000 (4000)
I0925 23:07:16.931354 22859 net.cpp:156] Memory required for data: 62016
I0925 23:07:16.931370 22859 layer_factory.hpp:77] Creating layer lstm1_gate_input_1
I0925 23:07:16.931393 22859 net.cpp:91] Creating Layer lstm1_gate_input_1
I0925 23:07:16.931404 22859 net.cpp:425] lstm1_gate_input_1 <- W_hc_h_0
I0925 23:07:16.931416 22859 net.cpp:425] lstm1_gate_input_1 <- W_xc_x_1
I0925 23:07:16.931429 22859 net.cpp:399] lstm1_gate_input_1 -> gate_input_1
I0925 23:07:16.931483 22809 layer_factory.hpp:77] Creating layer lstm2_
I0925 23:07:16.931499 22809 net.cpp:91] Creating Layer lstm2_
I0925 23:07:16.931505 22809 net.cpp:399] lstm2_ -> x
I0925 23:07:16.931516 22809 net.cpp:399] lstm2_ -> cont
I0925 23:07:16.953791 22859 net.cpp:141] Setting up lstm1_gate_input_1
I0925 23:07:16.953845 22859 net.cpp:148] Top shape: 1 1 4000 (4000)
I0925 23:07:16.953853 22859 net.cpp:156] Memory required for data: 78016
I0925 23:07:16.953866 22859 layer_factory.hpp:77] Creating layer lstm1_unit_1
I0925 23:07:16.953891 22859 net.cpp:91] Creating Layer lstm1_unit_1
I0925 23:07:16.953902 22859 net.cpp:425] lstm1_unit_1 <- c_0
I0925 23:07:16.953917 22859 net.cpp:425] lstm1_unit_1 <- gate_input_1
I0925 23:07:16.953925 22859 net.cpp:425] lstm1_unit_1 <- cont_1_lstm1_cont_slice_0_split_1
I0925 23:07:16.953940 22859 net.cpp:399] lstm1_unit_1 -> c_1
I0925 23:07:16.953961 22859 net.cpp:399] lstm1_unit_1 -> h_1
I0925 23:07:16.954082 22859 net.cpp:141] Setting up lstm1_unit_1
I0925 23:07:16.954102 22859 net.cpp:148] Top shape: 1 1 1000 (1000)
I0925 23:07:16.954119 22859 net.cpp:148] Top shape: 1 1 1000 (1000)
I0925 23:07:16.954128 22859 net.cpp:156] Memory required for data: 86016
I0925 23:07:16.954135 22859 layer_factory.hpp:77] Creating layer lstm1_
I0925 23:07:16.954149 22859 net.cpp:91] Creating Layer lstm1_
I0925 23:07:16.954159 22859 net.cpp:425] lstm1_ <- c_1
I0925 23:07:16.954171 22859 net.cpp:399] lstm1_ -> c_T
I0925 23:07:16.954221 22859 net.cpp:141] Setting up lstm1_
I0925 23:07:16.954236 22859 net.cpp:148] Top shape: 1 1 1000 (1000)
I0925 23:07:16.954242 22859 net.cpp:156] Memory required for data: 90016
I0925 23:07:16.954251 22859 layer_factory.hpp:77] Creating layer lstm1_h_concat
I0925 23:07:16.954267 22859 net.cpp:91] Creating Layer lstm1_h_concat
I0925 23:07:16.954274 22859 net.cpp:425] lstm1_h_concat <- h_1
I0925 23:07:16.954285 22859 net.cpp:399] lstm1_h_concat -> h
I0925 23:07:16.954339 22859 net.cpp:141] Setting up lstm1_h_concat
I0925 23:07:16.954356 22859 net.cpp:148] Top shape: 1 1 1000 (1000)
I0925 23:07:16.954363 22859 net.cpp:156] Memory required for data: 94016
I0925 23:07:16.954370 22859 layer_factory.hpp:77] Creating layer h_pseudoloss
I0925 23:07:16.954385 22859 net.cpp:91] Creating Layer h_pseudoloss
I0925 23:07:16.954392 22859 net.cpp:425] h_pseudoloss <- h
I0925 23:07:16.954403 22859 net.cpp:399] h_pseudoloss -> h_pseudoloss
I0925 23:07:16.954536 22859 net.cpp:141] Setting up h_pseudoloss
…
I0925 23:07:16.954710 22859 net.cpp:219] lstm1_ does not need backward computation.
I0925 23:07:16.954715 22859 net.cpp:261] This network produces output c_T
I0925 23:07:16.954723 22859 net.cpp:261] This network produces output h_pseudoloss
I0925 23:07:16.954751 22859 net.cpp:274] Network initialization done.
I0925 23:07:16.954818 22859 recurrent_layer.cpp:150] Adding parameter 0: W_xc
I0925 23:07:16.954826 22859 recurrent_layer.cpp:150] Adding parameter 1: b_c
I0925 23:07:16.954833 22859 recurrent_layer.cpp:150] Adding parameter 2: W_hc
I0925 23:07:16.954993 22859 net.cpp:141] Setting up lstm1
I0925 23:07:16.955008 22859 net.cpp:148] Top shape: 1 1 1000 (1000)
I0925 23:07:16.955016 22859 net.cpp:156] Memory required for data: 26408
I0925 23:07:16.955045 22859 layer_factory.hpp:77] Creating layer concat
I0925 23:07:16.955059 22859 net.cpp:91] Creating Layer concat
I0925 23:07:16.955067 22859 net.cpp:425] concat <- lstm1
I0925 23:07:16.955077 22859 net.cpp:425] concat <- embedded_input_sentence
I0925 23:07:16.955087 22859 net.cpp:425] concat <- reshaped_stage_indicator
I0925 23:07:16.955099 22859 net.cpp:399] concat -> lstm1_video_sequence
I0925 23:07:16.955943 22809 net.cpp:141] Setting up lstm2_
I0925 23:07:16.955992 22809 net.cpp:148] Top shape: 1 1 1501 (1501)
I0925 23:07:16.956015 22809 net.cpp:148] Top shape: 1 1 (1)
I0925 23:07:16.956024 22809 net.cpp:156] Memory required for data: 6008
I0925 23:07:16.956037 22809 layer_factory.hpp:77] Creating layer lstm2_
I0925 23:07:16.956066 22809 net.cpp:91] Creating Layer lstm2_
I0925 23:07:16.956092 22809 net.cpp:399] lstm2_ -> c_0
I0925 23:07:16.956125 22809 net.cpp:399] lstm2_ -> h_0
I0925 23:07:16.956240 22809 net.cpp:141] Setting up lstm2_
I0925 23:07:16.956262 22809 net.cpp:148] Top shape: 1 1 1000 (1000)
I0925 23:07:16.956277 22809 net.cpp:148] Top shape: 1 1 1000 (1000)
I0925 23:07:16.956285 22809 net.cpp:156] Memory required for data: 14008
I0925 23:07:16.956295 22809 layer_factory.hpp:77] Creating layer lstm2_cont_slice
I0925 23:07:16.956315 22809 net.cpp:91] Creating Layer lstm2_cont_slice
I0925 23:07:16.956326 22809 net.cpp:425] lstm2_cont_slice <- cont
I0925 23:07:16.956341 22809 net.cpp:399] lstm2_cont_slice -> cont_1
I0925 23:07:16.956413 22809 net.cpp:141] Setting up lstm2_cont_slice
I0925 23:07:16.956434 22809 net.cpp:148] Top shape: 1 1 (1)
I0925 23:07:16.956445 22809 net.cpp:156] Memory required for data: 14012
I0925 23:07:16.956457 22809 layer_factory.hpp:77] Creating layer cont_1_lstm2_cont_slice_0_split
I0925 23:07:16.956481 22809 net.cpp:91] Creating Layer cont_1_lstm2_cont_slice_0_split
I0925 23:07:16.956496 22809 net.cpp:425] cont_1_lstm2_cont_slice_0_split <- cont_1
I0925 23:07:16.956513 22809 net.cpp:399] cont_1_lstm2_cont_slice_0_split -> cont_1_lstm2_cont_slice_0_split_0
I0925 23:07:16.956534 22809 net.cpp:399] cont_1_lstm2_cont_slice_0_split -> cont_1_lstm2_cont_slice_0_split_1
I0925 23:07:16.956645 22809 net.cpp:141] Setting up cont_1_lstm2_cont_slice_0_split
I0925 23:07:16.956663 22809 net.cpp:148] Top shape: 1 1 (1)
I0925 23:07:16.956678 22809 net.cpp:148] Top shape: 1 1 (1)
I0925 23:07:16.956688 22809 net.cpp:156] Memory required for data: 14020
I0925 23:07:16.956701 22809 layer_factory.hpp:77] Creating layer lstm2_x_transform
I0925 23:07:16.956732 22809 net.cpp:91] Creating Layer lstm2_x_transform
I0925 23:07:16.956744 22809 net.cpp:425] lstm2_x_transform <- x
I0925 23:07:16.956761 22809 net.cpp:399] lstm2_x_transform -> W_xc_x
I0925 23:07:16.973266 22859 net.cpp:141] Setting up concat
I0925 23:07:16.973320 22859 net.cpp:148] Top shape: 1 1 1501 (1501)
I0925 23:07:16.973326 22859 net.cpp:156] Memory required for data: 32412
I0925 23:07:16.973336 22859 layer_factory.hpp:77] Creating layer lstm2
I0925 23:07:16.973364 22859 net.cpp:91] Creating Layer lstm2
I0925 23:07:16.973373 22859 net.cpp:425] lstm2 <- lstm1_video_sequence
I0925 23:07:16.973384 22859 net.cpp:425] lstm2 <- cont_sentence_input_1_split_1
I0925 23:07:16.973397 22859 net.cpp:399] lstm2 -> lstm2
I0925 23:07:16.973418 22859 recurrent_layer.cpp:20] Initializing recurrent layer: assuming input batch contains 1 timesteps of 1 independent streams.
I0925 23:07:16.973475 22815 net.cpp:141] Setting up cont_1_lstm1_cont_slice_0_split
I0925 23:07:16.973512 22815 net.cpp:148] Top shape: 1 1 (1)
I0925 23:07:16.973520 22815 net.cpp:148] Top shape: 1 1 (1)
I0925 23:07:16.973525 22815 net.cpp:156] Memory required for data: 10016
I0925 23:07:16.973523 22847 net.cpp:141] Setting up lstm1_transform_1
I0925 23:07:16.973534 22815 layer_factory.hpp:77] Creating layer lstm1_x_transform
I0925 23:07:16.973544 22847 net.cpp:148] Top shape: 1 1 4000 (4000)
I0925 23:07:16.973551 22847 net.cpp:156] Memory required for data: 62016
I0925 23:07:16.973559 22815 net.cpp:91] Creating Layer lstm1_x_transform
I0925 23:07:16.973565 22847 layer_factory.hpp:77] Creating layer lstm1_gate_input_1
I0925 23:07:16.973568 22815 net.cpp:425] lstm1_x_transform <- x
I0925 23:07:16.973578 22847 net.cpp:91] Creating Layer lstm1_gate_input_1
I0925 23:07:16.973582 22815 net.cpp:399] lstm1_x_transform -> W_xc_x
I0925 23:07:16.973585 22847 net.cpp:425] lstm1_gate_input_1 <- W_hc_h_0
I0925 23:07:16.973593 22847 net.cpp:425] lstm1_gate_input_1 <- W_xc_x_1
I0925 23:07:16.973600 22847 net.cpp:399] lstm1_gate_input_1 -> gate_input_1
I0925 23:07:16.973702 22805 net.cpp:141] Setting up lstm1_x_transform
I0925 23:07:16.973714 22805 net.cpp:148] Top shape: 1 1 4000 (4000)
I0925 23:07:16.973718 22805 net.cpp:156] Memory required for data: 26016
I0925 23:07:16.973721 22859 net.cpp:49] Initializing net from parameters: 
layer {
  name: "lstm2_"
  type: "Input"
  top: "x"
  top: "cont"
  input_param {
    shape {
      dim: 1
      dim: 1
      dim: 1501
    }
    shape {
      dim: 1
      dim: 1
    }
  }
}
layer {
  name: "lstm2_"
  type: "Input"
  top: "c_0"
  top: "h_0"
  input_param {
    shape {
      dim: 1
      dim: 1
      dim: 1000
    }
    shape {
      dim: 1
      dim: 1
      dim: 1000
    }
  }
}
layer {
  name: "lstm2_cont_slice"
  type: "Slice"
  bottom: "cont"
  top: "cont_1"
  slice_param {
    axis: 0
  }
}
layer {
  name: "lstm2_x_transform"
  type: "InnerProduct"
  bottom: "x"
  top: "W_xc_x"
  param {
    name: "W_xc"
  }
  param {
    name: "b_c"
  }
  propagate_down: true
  inner_product_param {
    num_output: 4000
    bias_term: true
    weight_filler {
      type: "uniform"
      min: -0.08
      max: 0.08
    }
    bias_filler {
      type: "constant"
      value: 0
    }
    axis: 2
  }
}
layer {
  name: "lstm2_W_xc_x_slice"
  type: "Slice"
  bottom: "W_xc_x"
  top: "W_xc_x_1"
  slice_param {
    axis: 0
  }
}
layer {
  name: "lstm2_h_conted_0"
  type: "Scale"
  bottom: "h_0"
  bottom: "cont_1"
  top: "h_conted_0"
  scale_param {
    axis: 0
  }
}
layer {
  name: "lstm2_transform_1"
  type: "InnerProduct"
  bottom: "h_conted_0"
  top: "W_hc_h_0"
  param {
    name: "W_hc"
  }
  inner_product_param {
    num_output: 4000
    bias_term: false
    weight_filler {
      type: "uniform"
      min: -0.08
      max: 0.08
    }
    axis: 2
  }
}
layer {
  name: "lstm2_gate_input_1"
  type: "Eltwise"
  bottom: "W_hc_h_0"
  bottom: "W_xc_x_1"
  top: "gate_input_1"
  eltwise_param {
    operation: SUM
  }
}
layer {
  name: "lstm2_unit_1"
  type: "LSTMUnit"
  bottom: "c_0"
  bottom: "gate_input_1"
  bottom: "cont_1"
  top: "c_1"
  top: "h_1"
}
layer {
  name: "lstm2_"
  type: "Split"
  bottom: "c_1"
  top: "c_T"
}
layer {
  name: "lstm2_h_concat"
  type: "Concat"
  bottom: "h_1"
  top: "h"
  concat_param {
    axis: 0
  }
}
layer {
  name: "h_pseudoloss"
  type: "Reduction"
  bottom: "h"
  top: "h_pseudoloss"
  loss_weight: 1
}
I0925 23:07:16.973731 22805 layer_factory.hpp:77] Creating layer lstm1_W_xc_x_slice
I0925 23:07:16.973742 22805 net.cpp:91] Creating Layer lstm1_W_xc_x_slice
I0925 23:07:16.973747 22805 net.cpp:425] lstm1_W_xc_x_slice <- W_xc_x
I0925 23:07:16.973758 22805 net.cpp:399] lstm1_W_xc_x_slice -> W_xc_x_1
I0925 23:07:16.973816 22859 layer_factory.hpp:77] Creating layer lstm2_
I0925 23:07:16.973829 22859 net.cpp:91] Creating Layer lstm2_
I0925 23:07:16.973835 22859 net.cpp:399] lstm2_ -> x
I0925 23:07:16.973839 22823 net.cpp:141] Setting up lstm1_transform_1
I0925 23:07:16.973847 22859 net.cpp:399] lstm2_ -> cont
I0925 23:07:16.973868 22823 net.cpp:148] Top shape: 1 1 4000 (4000)
I0925 23:07:16.973878 22823 net.cpp:156] Memory required for data: 62016
I0925 23:07:16.973897 22823 layer_factory.hpp:77] Creating layer lstm1_gate_input_1
I0925 23:07:16.973919 22823 net.cpp:91] Creating Layer lstm1_gate_input_1
I0925 23:07:16.973932 22823 net.cpp:425] lstm1_gate_input_1 <- W_hc_h_0
I0925 23:07:16.973942 22823 net.cpp:425] lstm1_gate_input_1 <- W_xc_x_1
I0925 23:07:16.973956 22823 net.cpp:399] lstm1_gate_input_1 -> gate_input_1
I0925 23:07:16.974033 22823 net.cpp:141] Setting up lstm1_gate_input_1
I0925 23:07:16.974050 22823 net.cpp:148] Top shape: 1 1 4000 (4000)
I0925 23:07:16.974059 22823 net.cpp:156] Memory required for data: 78016
I0925 23:07:16.974068 22823 layer_factory.hpp:77] Creating layer lstm1_unit_1
I0925 23:07:16.974084 22823 net.cpp:91] Creating Layer lstm1_unit_1
I0925 23:07:16.974094 22823 net.cpp:425] lstm1_unit_1 <- c_0
I0925 23:07:16.974105 22823 net.cpp:425] lstm1_unit_1 <- gate_input_1
I0925 23:07:16.974117 22823 net.cpp:425] lstm1_unit_1 <- cont_1_lstm1_cont_slice_0_split_1
I0925 23:07:16.974130 22823 net.cpp:399] lstm1_unit_1 -> c_1
I0925 23:07:16.974131 22829 net.cpp:141] Setting up lstm1_x_transform
I0925 23:07:16.974148 22823 net.cpp:399] lstm1_unit_1 -> h_1
I0925 23:07:16.974153 22829 net.cpp:148] Top shape: 1 1 4000 (4000)
I0925 23:07:16.974162 22829 net.cpp:156] Memory required for data: 26016
I0925 23:07:16.974184 22829 layer_factory.hpp:77] Creating layer lstm1_W_xc_x_slice
I0925 23:07:16.974198 22829 net.cpp:91] Creating Layer lstm1_W_xc_x_slice
I0925 23:07:16.974208 22829 net.cpp:425] lstm1_W_xc_x_slice <- W_xc_x
I0925 23:07:16.974225 22829 net.cpp:399] lstm1_W_xc_x_slice -> W_xc_x_1
I0925 23:07:16.980576 22859 net.cpp:141] Setting up lstm2_
I0925 23:07:16.980639 22859 net.cpp:148] Top shape: 1 1 1501 (1501)
I0925 23:07:16.980654 22859 net.cpp:148] Top shape: 1 1 (1)
I0925 23:07:16.980661 22859 net.cpp:156] Memory required for data: 6008
I0925 23:07:16.980675 22859 layer_factory.hpp:77] Creating layer lstm2_
I0925 23:07:16.980711 22859 net.cpp:91] Creating Layer lstm2_
I0925 23:07:16.980725 22859 net.cpp:399] lstm2_ -> c_0
I0925 23:07:16.980751 22859 net.cpp:399] lstm2_ -> h_0
I0925 23:07:16.980857 22859 net.cpp:141] Setting up lstm2_
I0925 23:07:16.980871 22859 net.cpp:148] Top shape: 1 1 1000 (1000)
I0925 23:07:16.980881 22859 net.cpp:148] Top shape: 1 1 1000 (1000)
I0925 23:07:16.980888 22859 net.cpp:156] Memory required for data: 14008
I0925 23:07:16.980895 22859 layer_factory.hpp:77] Creating layer lstm2_cont_slice
I0925 23:07:16.980911 22859 net.cpp:91] Creating Layer lstm2_cont_slice
I0925 23:07:16.980919 22859 net.cpp:425] lstm2_cont_slice <- cont
I0925 23:07:16.980931 22859 net.cpp:399] lstm2_cont_slice -> cont_1
I0925 23:07:16.980984 22859 net.cpp:141] Setting up lstm2_cont_slice
I0925 23:07:16.980998 22859 net.cpp:148] Top shape: 1 1 (1)
I0925 23:07:16.981005 22859 net.cpp:156] Memory required for data: 14012
I0925 23:07:16.981014 22859 layer_factory.hpp:77] Creating layer cont_1_lstm2_cont_slice_0_split
I0925 23:07:16.981029 22859 net.cpp:91] Creating Layer cont_1_lstm2_cont_slice_0_split
I0925 23:07:16.981036 22859 net.cpp:425] cont_1_lstm2_cont_slice_0_split <- cont_1
I0925 23:07:16.981047 22859 net.cpp:399] cont_1_lstm2_cont_slice_0_split -> cont_1_lstm2_cont_slice_0_split_0
I0925 23:07:16.981060 22859 net.cpp:399] cont_1_lstm2_cont_slice_0_split -> cont_1_lstm2_cont_slice_0_split_1
I0925 23:07:16.981130 22859 net.cpp:141] Setting up cont_1_lstm2_cont_slice_0_split
I0925 23:07:16.981143 22859 net.cpp:148] Top shape: 1 1 (1)
I0925 23:07:16.981153 22859 net.cpp:148] Top shape: 1 1 (1)
I0925 23:07:16.981159 22859 net.cpp:156] Memory required for data: 14020
I0925 23:07:16.981166 22859 layer_factory.hpp:77] Creating layer lstm2_x_transform
I0925 23:07:16.981189 22859 net.cpp:91] Creating Layer lstm2_x_transform
I0925 23:07:16.981196 22859 net.cpp:425] lstm2_x_transform <- x
I0925 23:07:16.981209 22859 net.cpp:399] lstm2_x_transform -> W_xc_x
I0925 23:07:16.993410 22805 net.cpp:141] Setting up lstm1_W_xc_x_slice
I0925 23:07:16.993471 22805 net.cpp:148] Top shape: 1 1 4000 (4000)
I0925 23:07:16.993481 22805 net.cpp:156] Memory required for data: 42016
I0925 23:07:16.993494 22805 layer_factory.hpp:77] Creating layer lstm1_h_conted_0
I0925 23:07:16.993523 22805 net.cpp:91] Creating Layer lstm1_h_conted_0
I0925 23:07:16.993533 22805 net.cpp:425] lstm1_h_conted_0 <- h_0
I0925 23:07:16.993548 22805 net.cpp:425] lstm1_h_conted_0 <- cont_1_lstm1_cont_slice_0_split_0
I0925 23:07:16.993576 22805 net.cpp:399] lstm1_h_conted_0 -> h_conted_0
I0925 23:07:16.993783 22805 net.cpp:141] Setting up lstm1_h_conted_0
I0925 23:07:16.993799 22805 net.cpp:148] Top shape: 1 1 1000 (1000)
I0925 23:07:16.993808 22805 net.cpp:156] Memory required for data: 46016
I0925 23:07:16.993815 22805 layer_factory.hpp:77] Creating layer lstm1_transform_1
I0925 23:07:16.993840 22805 net.cpp:91] Creating Layer lstm1_transform_1
I0925 23:07:16.993849 22805 net.cpp:425] lstm1_transform_1 <- h_conted_0
I0925 23:07:16.993863 22805 net.cpp:399] lstm1_transform_1 -> W_hc_h_0
I0925 23:07:17.004452 22823 net.cpp:141] Setting up lstm1_unit_1
I0925 23:07:17.004503 22823 net.cpp:148] Top shape: 1 1 1000 (1000)
I0925 23:07:17.004515 22823 net.cpp:148] Top shape: 1 1 1000 (1000)
I0925 23:07:17.004523 22823 net.cpp:156] Memory required for data: 86016
I0925 23:07:17.004535 22823 layer_factory.hpp:77] Creating layer lstm1_
I0925 23:07:17.004562 22823 net.cpp:91] Creating Layer lstm1_
I0925 23:07:17.004572 22823 net.cpp:425] lstm1_ <- c_1
I0925 23:07:17.004590 22823 net.cpp:399] lstm1_ -> c_T
I0925 23:07:17.004684 22829 net.cpp:141] Setting up lstm1_W_xc_x_slice
I0925 23:07:17.004727 22829 net.cpp:148] Top shape: 1 1 4000 (4000)
I0925 23:07:17.004736 22829 net.cpp:156] Memory required for data: 42016
I0925 23:07:17.004748 22829 layer_factory.hpp:77] Creating layer lstm1_h_conted_0
I0925 23:07:17.004753 22855 net.cpp:141] Setting up lstm1_x_transform
I0925 23:07:17.004770 22829 net.cpp:91] Creating Layer lstm1_h_conted_0
I0925 23:07:17.004776 22855 net.cpp:148] Top shape: 1 1 4000 (4000)
I0925 23:07:17.004782 22829 net.cpp:425] lstm1_h_conted_0 <- h_0
I0925 23:07:17.004786 22855 net.cpp:156] Memory required for data: 26016
I0925 23:07:17.004796 22829 net.cpp:425] lstm1_h_conted_0 <- cont_1_lstm1_cont_slice_0_split_0
I0925 23:07:17.004811 22855 layer_factory.hpp:77] Creating layer lstm1_W_xc_x_slice
I0925 23:07:17.004819 22829 net.cpp:399] lstm1_h_conted_0 -> h_conted_0
I0925 23:07:17.004828 22855 net.cpp:91] Creating Layer lstm1_W_xc_x_slice
I0925 23:07:17.004837 22855 net.cpp:425] lstm1_W_xc_x_slice <- W_xc_x
I0925 23:07:17.004850 22855 net.cpp:399] lstm1_W_xc_x_slice -> W_xc_x_1
I0925 23:07:17.005019 22847 net.cpp:141] Setting up lstm1_gate_input_1
I0925 23:07:17.005041 22847 net.cpp:148] Top shape: 1 1 4000 (4000)
I0925 23:07:17.005053 22847 net.cpp:156] Memory required for data: 78016
I0925 23:07:17.005059 22823 net.cpp:141] Setting up lstm1_
I0925 23:07:17.005067 22847 layer_factory.hpp:77] Creating layer lstm1_unit_1
I0925 23:07:17.005074 22823 net.cpp:148] Top shape: 1 1 1000 (1000)
I0925 23:07:17.005082 22823 net.cpp:156] Memory required for data: 90016
I0925 23:07:17.005089 22847 net.cpp:91] Creating Layer lstm1_unit_1
I0925 23:07:17.005090 22823 layer_factory.hpp:77] Creating layer lstm1_h_concat
I0925 23:07:17.005100 22847 net.cpp:425] lstm1_unit_1 <- c_0
I0925 23:07:17.005108 22823 net.cpp:91] Creating Layer lstm1_h_concat
I0925 23:07:17.005115 22847 net.cpp:425] lstm1_unit_1 <- gate_input_1
I0925 23:07:17.005115 22855 net.cpp:141] Setting up lstm1_W_xc_x_slice
I0925 23:07:17.005125 22847 net.cpp:425] lstm1_unit_1 <- cont_1_lstm1_cont_slice_0_split_1
I0925 23:07:17.005117 22823 net.cpp:425] lstm1_h_concat <- h_1
I0925 23:07:17.005139 22847 net.cpp:399] lstm1_unit_1 -> c_1
I0925 23:07:17.005143 22855 net.cpp:148] Top shape: 1 1 4000 (4000)
I0925 23:07:17.005153 22855 net.cpp:156] Memory required for data: 42016
I0925 23:07:17.005154 22823 net.cpp:399] lstm1_h_concat -> h
I0925 23:07:17.005156 22847 net.cpp:399] lstm1_unit_1 -> h_1
I0925 23:07:17.005162 22855 layer_factory.hpp:77] Creating layer lstm1_h_conted_0
I0925 23:07:17.005177 22855 net.cpp:91] Creating Layer lstm1_h_conted_0
I0925 23:07:17.005185 22855 net.cpp:425] lstm1_h_conted_0 <- h_0
I0925 23:07:17.005195 22855 net.cpp:425] lstm1_h_conted_0 <- cont_1_lstm1_cont_slice_0_split_0
I0925 23:07:17.005206 22855 net.cpp:399] lstm1_h_conted_0 -> h_conted_0
I0925 23:07:17.005218 22823 net.cpp:141] Setting up lstm1_h_concat
I0925 23:07:17.005233 22823 net.cpp:148] Top shape: 1 1 1000 (1000)
I0925 23:07:17.005239 22823 net.cpp:156] Memory required for data: 94016
I0925 23:07:17.005246 22823 layer_factory.hpp:77] Creating layer h_pseudoloss
I0925 23:07:17.005261 22823 net.cpp:91] Creating Layer h_pseudoloss
I0925 23:07:17.005269 22823 net.cpp:425] h_pseudoloss <- h
I0925 23:07:17.005280 22823 net.cpp:399] h_pseudoloss -> h_pseudoloss
I0925 23:07:17.005487 22829 net.cpp:141] Setting up lstm1_h_conted_0
I0925 23:07:17.005508 22829 net.cpp:148] Top shape: 1 1 1000 (1000)
I0925 23:07:17.005517 22829 net.cpp:156] Memory required for data: 46016
I0925 23:07:17.005527 22829 layer_factory.hpp:77] Creating layer lstm1_transform_1
I0925 23:07:17.005545 22829 net.cpp:91] Creating Layer lstm1_transform_1
I0925 23:07:17.005554 22829 net.cpp:425] lstm1_transform_1 <- h_conted_0
I0925 23:07:17.005578 22829 net.cpp:399] lstm1_transform_1 -> W_hc_h_0
I0925 23:07:17.019678 22811 net.cpp:141] Setting up lstm1_transform_1
I0925 23:07:17.019723 22811 net.cpp:148] Top shape: 1 1 4000 (4000)
I0925 23:07:17.019729 22811 net.cpp:156] Memory required for data: 62016
I0925 23:07:17.019748 22811 layer_factory.hpp:77] Creating layer lstm1_gate_input_1
I0925 23:07:17.019768 22811 net.cpp:91] Creating Layer lstm1_gate_input_1
I0925 23:07:17.019776 22811 net.cpp:425] lstm1_gate_input_1 <- W_hc_h_0
I0925 23:07:17.019784 22811 net.cpp:425] lstm1_gate_input_1 <- W_xc_x_1
I0925 23:07:17.019796 22811 net.cpp:399] lstm1_gate_input_1 -> gate_input_1
I0925 23:07:17.019897 22811 net.cpp:141] Setting up lstm1_gate_input_1
I0925 23:07:17.019911 22811 net.cpp:148] Top shape: 1 1 4000 (4000)
I0925 23:07:17.019915 22811 net.cpp:156] Memory required for data: 78016
I0925 23:07:17.019920 22811 layer_factory.hpp:77] Creating layer lstm1_unit_1
I0925 23:07:17.019929 22811 net.cpp:91] Creating Layer lstm1_unit_1
I0925 23:07:17.019934 22811 net.cpp:425] lstm1_unit_1 <- c_0
I0925 23:07:17.019944 22811 net.cpp:425] lstm1_unit_1 <- gate_input_1
I0925 23:07:17.019953 22811 net.cpp:425] lstm1_unit_1 <- cont_1_lstm1_cont_slice_0_split_1
I0925 23:07:17.019971 22811 net.cpp:399] lstm1_unit_1 -> c_1
I0925 23:07:17.019989 22811 net.cpp:399] lstm1_unit_1 -> h_1
I0925 23:07:17.020229 22847 net.cpp:141] Setting up lstm1_unit_1
I0925 23:07:17.020270 22847 net.cpp:148] Top shape: 1 1 1000 (1000)
I0925 23:07:17.020282 22847 net.cpp:148] Top shape: 1 1 1000 (1000)
I0925 23:07:17.020292 22847 net.cpp:156] Memory required for data: 86016
I0925 23:07:17.020301 22847 layer_factory.hpp:77] Creating layer lstm1_
I0925 23:07:17.020323 22847 net.cpp:91] Creating Layer lstm1_
I0925 23:07:17.020335 22847 net.cpp:425] lstm1_ <- c_1
I0925 23:07:17.020354 22847 net.cpp:399] lstm1_ -> c_T
I0925 23:07:17.020412 22847 net.cpp:141] Setting up lstm1_
I0925 23:07:17.020427 22847 net.cpp:148] Top shape: 1 1 1000 (1000)
I0925 23:07:17.020437 22847 net.cpp:156] Memory required for data: 90016
I0925 23:07:17.020444 22847 layer_factory.hpp:77] Creating layer lstm1_h_concat
I0925 23:07:17.020463 22847 net.cpp:91] Creating Layer lstm1_h_concat
I0925 23:07:17.020473 22847 net.cpp:425] lstm1_h_concat <- h_1
I0925 23:07:17.020489 22847 net.cpp:399] lstm1_h_concat -> h
I0925 23:07:17.020550 22847 net.cpp:141] Setting up lstm1_h_concat
I0925 23:07:17.020562 22847 net.cpp:148] Top shape: 1 1 1000 (1000)
I0925 23:07:17.020573 22847 net.cpp:156] Memory required for data: 94016
I0925 23:07:17.020581 22847 layer_factory.hpp:77] Creating layer h_pseudoloss
I0925 23:07:17.020594 22847 net.cpp:91] Creating Layer h_pseudoloss
I0925 23:07:17.020601 22847 net.cpp:425] h_pseudoloss <- h
I0925 23:07:17.020620 22847 net.cpp:399] h_pseudoloss -> h_pseudoloss
I0925 23:07:17.020743 22847 net.cpp:141] Setting up h_pseudoloss
…
I0925 23:07:17.020941 22847 net.cpp:219] lstm1_ does not need backward computation.
I0925 23:07:17.020947 22847 net.cpp:261] This network produces output c_T
I0925 23:07:17.020954 22847 net.cpp:261] This network produces output h_pseudoloss
I0925 23:07:17.020982 22847 net.cpp:274] Network initialization done.
I0925 23:07:17.021049 22847 recurrent_layer.cpp:150] Adding parameter 0: W_xc
I0925 23:07:17.021060 22847 recurrent_layer.cpp:150] Adding parameter 1: b_c
I0925 23:07:17.021071 22847 recurrent_layer.cpp:150] Adding parameter 2: W_hc
I0925 23:07:17.021219 22847 net.cpp:141] Setting up lstm1
I0925 23:07:17.021239 22847 net.cpp:148] Top shape: 1 1 1000 (1000)
I0925 23:07:17.021247 22847 net.cpp:156] Memory required for data: 26408
I0925 23:07:17.021268 22847 layer_factory.hpp:77] Creating layer concat
I0925 23:07:17.021281 22847 net.cpp:91] Creating Layer concat
I0925 23:07:17.021291 22847 net.cpp:425] concat <- lstm1
I0925 23:07:17.021303 22847 net.cpp:425] concat <- embedded_input_sentence
I0925 23:07:17.021316 22847 net.cpp:425] concat <- reshaped_stage_indicator
I0925 23:07:17.021329 22847 net.cpp:399] concat -> lstm1_video_sequence
I0925 23:07:17.021384 22847 net.cpp:141] Setting up concat
I0925 23:07:17.021401 22847 net.cpp:148] Top shape: 1 1 1501 (1501)
I0925 23:07:17.021410 22847 net.cpp:156] Memory required for data: 32412
I0925 23:07:17.021419 22847 layer_factory.hpp:77] Creating layer lstm2
I0925 23:07:17.021443 22847 net.cpp:91] Creating Layer lstm2
I0925 23:07:17.021452 22847 net.cpp:425] lstm2 <- lstm1_video_sequence
I0925 23:07:17.021466 22847 net.cpp:425] lstm2 <- cont_sentence_input_1_split_1
I0925 23:07:17.021481 22847 net.cpp:399] lstm2 -> lstm2
I0925 23:07:17.021502 22847 recurrent_layer.cpp:20] Initializing recurrent layer: assuming input batch contains 1 timesteps of 1 independent streams.
I0925 23:07:17.021874 22847 net.cpp:49] Initializing net from parameters: 
layer {
  name: "lstm2_"
  type: "Input"
  top: "x"
  top: "cont"
  input_param {
    shape {
      dim: 1
      dim: 1
      dim: 1501
    }
    shape {
      dim: 1
      dim: 1
    }
  }
}
layer {
  name: "lstm2_"
  type: "Input"
  top: "c_0"
  top: "h_0"
  input_param {
    shape {
      dim: 1
      dim: 1
      dim: 1000
    }
    shape {
      dim: 1
      dim: 1
      dim: 1000
    }
  }
}
layer {
  name: "lstm2_cont_slice"
  type: "Slice"
  bottom: "cont"
  top: "cont_1"
  slice_param {
    axis: 0
  }
}
layer {
  name: "lstm2_x_transform"
  type: "InnerProduct"
  bottom: "x"
  top: "W_xc_x"
  param {
    name: "W_xc"
  }
  param {
    name: "b_c"
  }
  propagate_down: true
  inner_product_param {
    num_output: 4000
    bias_term: true
    weight_filler {
      type: "uniform"
      min: -0.08
      max: 0.08
    }
    bias_filler {
      type: "constant"
      value: 0
    }
    axis: 2
  }
}
layer {
  name: "lstm2_W_xc_x_slice"
  type: "Slice"
  bottom: "W_xc_x"
  top: "W_xc_x_1"
  slice_param {
    axis: 0
  }
}
layer {
  name: "lstm2_h_conted_0"
  type: "Scale"
  bottom: "h_0"
  bottom: "cont_1"
  top: "h_conted_0"
  scale_param {
    axis: 0
  }
}
layer {
  name: "lstm2_transform_1"
  type: "InnerProduct"
  bottom: "h_conted_0"
  top: "W_hc_h_0"
  param {
    name: "W_hc"
  }
  inner_product_param {
    num_output: 4000
    bias_term: false
    weight_filler {
      type: "uniform"
      min: -0.08
      max: 0.08
    }
    axis: 2
  }
}
layer {
  name: "lstm2_gate_input_1"
  type: "Eltwise"
  bottom: "W_hc_h_0"
  bottom: "W_xc_x_1"
  top: "gate_input_1"
  eltwise_param {
    operation: SUM
  }
}
layer {
  name: "lstm2_unit_1"
  type: "LSTMUnit"
  bottom: "c_0"
  bottom: "gate_input_1"
  bottom: "cont_1"
  top: "c_1"
  top: "h_1"
}
layer {
  name: "lstm2_"
  type: "Split"
  bottom: "c_1"
  top: "c_T"
}
layer {
  name: "lstm2_h_concat"
  type: "Concat"
  bottom: "h_1"
  top: "h"
  concat_param {
    axis: 0
  }
}
layer {
  name: "h_pseudoloss"
  type: "Reduction"
  bottom: "h"
  top: "h_pseudoloss"
  loss_weight: 1
}
I0925 23:07:17.022002 22847 layer_factory.hpp:77] Creating layer lstm2_
I0925 23:07:17.022022 22847 net.cpp:91] Creating Layer lstm2_
I0925 23:07:17.022035 22847 net.cpp:399] lstm2_ -> x
I0925 23:07:17.022054 22847 net.cpp:399] lstm2_ -> cont
I0925 23:07:17.022140 22847 net.cpp:141] Setting up lstm2_
I0925 23:07:17.022155 22847 net.cpp:148] Top shape: 1 1 1501 (1501)
I0925 23:07:17.022164 22847 net.cpp:148] Top shape: 1 1 (1)
I0925 23:07:17.022176 22847 net.cpp:156] Memory required for data: 6008
I0925 23:07:17.022183 22847 layer_factory.hpp:77] Creating layer lstm2_
I0925 23:07:17.022197 22847 net.cpp:91] Creating Layer lstm2_
I0925 23:07:17.022207 22847 net.cpp:399] lstm2_ -> c_0
I0925 23:07:17.022224 22847 net.cpp:399] lstm2_ -> h_0
I0925 23:07:17.022307 22847 net.cpp:141] Setting up lstm2_
I0925 23:07:17.022323 22847 net.cpp:148] Top shape: 1 1 1000 (1000)
I0925 23:07:17.022337 22847 net.cpp:148] Top shape: 1 1 1000 (1000)
I0925 23:07:17.022347 22847 net.cpp:156] Memory required for data: 14008
I0925 23:07:17.022356 22847 layer_factory.hpp:77] Creating layer lstm2_cont_slice
I0925 23:07:17.022369 22847 net.cpp:91] Creating Layer lstm2_cont_slice
I0925 23:07:17.022378 22847 net.cpp:425] lstm2_cont_slice <- cont
I0925 23:07:17.022394 22847 net.cpp:399] lstm2_cont_slice -> cont_1
I0925 23:07:17.022560 22809 net.cpp:141] Setting up lstm2_x_transform
I0925 23:07:17.022579 22809 net.cpp:148] Top shape: 1 1 4000 (4000)
I0925 23:07:17.022588 22809 net.cpp:156] Memory required for data: 30020
I0925 23:07:17.022615 22809 layer_factory.hpp:77] Creating layer lstm2_W_xc_x_slice
I0925 23:07:17.022630 22809 net.cpp:91] Creating Layer lstm2_W_xc_x_slice
I0925 23:07:17.022639 22809 net.cpp:425] lstm2_W_xc_x_slice <- W_xc_x
I0925 23:07:17.022652 22809 net.cpp:399] lstm2_W_xc_x_slice -> W_xc_x_1
I0925 23:07:17.022928 22811 net.cpp:141] Setting up lstm1_unit_1
I0925 23:07:17.022969 22811 net.cpp:148] Top shape: 1 1 1000 (1000)
I0925 23:07:17.022981 22811 net.cpp:148] Top shape: 1 1 1000 (1000)
I0925 23:07:17.022990 22811 net.cpp:156] Memory required for data: 86016
I0925 23:07:17.023001 22811 layer_factory.hpp:77] Creating layer lstm1_
I0925 23:07:17.023005 22855 net.cpp:141] Setting up lstm1_h_conted_0
I0925 23:07:17.023020 22811 net.cpp:91] Creating Layer lstm1_
I0925 23:07:17.023021 22855 net.cpp:148] Top shape: 1 1 1000 (1000)
I0925 23:07:17.023037 22811 net.cpp:425] lstm1_ <- c_1
I0925 23:07:17.023038 22855 net.cpp:156] Memory required for data: 46016
I0925 23:07:17.023054 22855 layer_factory.hpp:77] Creating layer lstm1_transform_1
I0925 23:07:17.023057 22811 net.cpp:399] lstm1_ -> c_T
I0925 23:07:17.023073 22855 net.cpp:91] Creating Layer lstm1_transform_1
I0925 23:07:17.023131 22855 net.cpp:425] lstm1_transform_1 <- h_conted_0
I0925 23:07:17.023151 22855 net.cpp:399] lstm1_transform_1 -> W_hc_h_0
I0925 23:07:17.023195 22809 net.cpp:141] Setting up lstm2_W_xc_x_slice
I0925 23:07:17.023212 22809 net.cpp:148] Top shape: 1 1 4000 (4000)
I0925 23:07:17.023219 22809 net.cpp:156] Memory required for data: 46020
I0925 23:07:17.023227 22809 layer_factory.hpp:77] Creating layer lstm2_h_conted_0
I0925 23:07:17.023242 22809 net.cpp:91] Creating Layer lstm2_h_conted_0
I0925 23:07:17.023250 22809 net.cpp:425] lstm2_h_conted_0 <- h_0
I0925 23:07:17.023255 22811 net.cpp:141] Setting up lstm1_
I0925 23:07:17.023260 22809 net.cpp:425] lstm2_h_conted_0 <- cont_1_lstm2_cont_slice_0_split_0
I0925 23:07:17.023285 22811 net.cpp:148] Top shape: 1 1 1000 (1000)
I0925 23:07:17.023294 22809 net.cpp:399] lstm2_h_conted_0 -> h_conted_0
I0925 23:07:17.023296 22811 net.cpp:156] Memory required for data: 90016
I0925 23:07:17.023320 22811 layer_factory.hpp:77] Creating layer lstm1_h_concat
I0925 23:07:17.023335 22811 net.cpp:91] Creating Layer lstm1_h_concat
I0925 23:07:17.023334 22815 net.cpp:141] Setting up lstm1_x_transform
I0925 23:07:17.023349 22811 net.cpp:425] lstm1_h_concat <- h_1
I0925 23:07:17.023357 22815 net.cpp:148] Top shape: 1 1 4000 (4000)
I0925 23:07:17.023365 22811 net.cpp:399] lstm1_h_concat -> h
I0925 23:07:17.023365 22815 net.cpp:156] Memory required for data: 26016
I0925 23:07:17.023401 22815 layer_factory.hpp:77] Creating layer lstm1_W_xc_x_slice
I0925 23:07:17.023418 22815 net.cpp:91] Creating Layer lstm1_W_xc_x_slice
I0925 23:07:17.023424 22815 net.cpp:425] lstm1_W_xc_x_slice <- W_xc_x
I0925 23:07:17.023432 22815 net.cpp:399] lstm1_W_xc_x_slice -> W_xc_x_1
I0925 23:07:17.023495 22809 net.cpp:141] Setting up lstm2_h_conted_0
I0925 23:07:17.023511 22809 net.cpp:148] Top shape: 1 1 1000 (1000)
I0925 23:07:17.023519 22809 net.cpp:156] Memory required for data: 50020
I0925 23:07:17.023525 22809 layer_factory.hpp:77] Creating layer lstm2_transform_1
I0925 23:07:17.023538 22811 net.cpp:141] Setting up lstm1_h_concat
I0925 23:07:17.023541 22809 net.cpp:91] Creating Layer lstm2_transform_1
I0925 23:07:17.023586 22809 net.cpp:425] lstm2_transform_1 <- h_conted_0
I0925 23:07:17.023602 22809 net.cpp:399] lstm2_transform_1 -> W_hc_h_0
I0925 23:07:17.023630 22815 net.cpp:141] Setting up lstm1_W_xc_x_slice
I0925 23:07:17.023643 22815 net.cpp:148] Top shape: 1 1 4000 (4000)
I0925 23:07:17.023648 22815 net.cpp:156] Memory required for data: 42016
I0925 23:07:17.023653 22815 layer_factory.hpp:77] Creating layer lstm1_h_conted_0
I0925 23:07:17.023666 22815 net.cpp:91] Creating Layer lstm1_h_conted_0
I0925 23:07:17.023672 22815 net.cpp:425] lstm1_h_conted_0 <- h_0
I0925 23:07:17.023679 22815 net.cpp:425] lstm1_h_conted_0 <- cont_1_lstm1_cont_slice_0_split_0
I0925 23:07:17.023686 22815 net.cpp:399] lstm1_h_conted_0 -> h_conted_0
I0925 23:07:17.023571 22811 net.cpp:148] Top shape: 1 1 1000 (1000)
I0925 23:07:17.023707 22811 net.cpp:156] Memory required for data: 94016
I0925 23:07:17.023713 22811 layer_factory.hpp:77] Creating layer h_pseudoloss
I0925 23:07:17.023730 22811 net.cpp:91] Creating Layer h_pseudoloss
I0925 23:07:17.023735 22811 net.cpp:425] h_pseudoloss <- h
I0925 23:07:17.023741 22811 net.cpp:399] h_pseudoloss -> h_pseudoloss
I0925 23:07:17.047379 22823 net.cpp:141] Setting up h_pseudoloss
I0925 23:07:17.047404 22847 net.cpp:141] Setting up lstm2_cont_slice
I0925 23:07:17.047435 22847 net.cpp:148] Top shape: 1 1 (1)
I0925 23:07:17.047436 22823 net.cpp:148] Top shape: (1)
I0925 23:07:17.047446 22847 net.cpp:156] Memory required for data: 14012
I0925 23:07:17.047457 22847 layer_factory.hpp:77] Creating layer cont_1_lstm2_cont_slice_0_split
I0925 23:07:17.047449 22823 net.cpp:151]     with loss weight 1
I0925 23:07:17.047466 22823 net.cpp:156] Memory required for data: 94020
I0925 23:07:17.047473 22823 net.cpp:217] h_pseudoloss needs backward computation.
…
I0925 23:07:17.048166 22811 net.cpp:219] lstm1_ does not need backward computation.
I0925 23:07:17.048171 22811 net.cpp:261] This network produces output c_T
I0925 23:07:17.048176 22811 net.cpp:261] This network produces output h_pseudoloss
I0925 23:07:17.048202 22811 net.cpp:274] Network initialization done.
…
I0925 23:07:17.306354 22847 net.cpp:148] Top shape: 1 1 1000 (1000)
I0925 23:07:17.306358 22847 net.cpp:156] Memory required for data: 90020
I0925 23:07:17.306363 22847 layer_factory.hpp:77] Creating layer lstm2_
I0925 23:07:17.306370 22847 net.cpp:91] Creating Layer lstm2_
I0925 23:07:17.306375 22847 net.cpp:425] lstm2_ <- c_1
I0925 23:07:17.306383 22847 net.cpp:399] lstm2_ -> c_T
I0925 23:07:17.306447 22847 net.cpp:141] Setting up lstm2_
I0925 23:07:17.306458 22847 net.cpp:148] Top shape: 1 1 1000 (1000)
I0925 23:07:17.306463 22847 net.cpp:156] Memory required for data: 94020
I0925 23:07:17.306468 22847 layer_factory.hpp:77] Creating layer lstm2_h_concat
I0925 23:07:17.306478 22847 net.cpp:91] Creating Layer lstm2_h_concat
I0925 23:07:17.306483 22847 net.cpp:425] lstm2_h_concat <- h_1
I0925 23:07:17.306489 22847 net.cpp:399] lstm2_h_concat -> h
I0925 23:07:17.306550 22859 net.cpp:141] Setting up h_pseudoloss
I0925 23:07:17.306561 22859 net.cpp:148] Top shape: (1)
I0925 23:07:17.306566 22859 net.cpp:151]     with loss weight 1
I0925 23:07:17.306581 22859 net.cpp:156] Memory required for data: 98024
I0925 23:07:17.306587 22859 net.cpp:217] h_pseudoloss needs backward computation.
I0925 23:07:17.306592 22859 net.cpp:217] lstm2_h_concat needs backward computation.
I0925 23:07:17.306609 22859 net.cpp:219] lstm2_ does not need backward computation.
I0925 23:07:17.306615 22859 net.cpp:217] lstm2_unit_1 needs backward computation.
I0925 23:07:17.306622 22859 net.cpp:217] lstm2_gate_input_1 needs backward computation.
I0925 23:07:17.306627 22859 net.cpp:217] lstm2_transform_1 needs backward computation.
I0925 23:07:17.306628 22823 net.cpp:141] Setting up lstm2_h_conted_0
I0925 23:07:17.306632 22859 net.cpp:219] lstm2_h_conted_0 does not need backward computation.
I0925 23:07:17.306643 22823 net.cpp:148] Top shape: 1 1 1000 (1000)
I0925 23:07:17.306646 22859 net.cpp:217] lstm2_W_xc_x_slice needs backward computation.
I0925 23:07:17.306648 22823 net.cpp:156] Memory required for data: 50020
I0925 23:07:17.306653 22859 net.cpp:217] lstm2_x_transform needs backward computation.
I0925 23:07:17.306654 22823 layer_factory.hpp:77] Creating layer lstm2_transform_1
I0925 23:07:17.306658 22859 net.cpp:219] cont_1_lstm2_cont_slice_0_split does not need backward computation.
I0925 23:07:17.306664 22859 net.cpp:219] lstm2_cont_slice does not need backward computation.
I0925 23:07:17.306669 22859 net.cpp:219] lstm2_ does not need backward computation.
I0925 23:07:17.306674 22859 net.cpp:219] lstm2_ does not need backward computation.
I0925 23:07:17.306674 22823 net.cpp:91] Creating Layer lstm2_transform_1
I0925 23:07:17.306679 22859 net.cpp:261] This network produces output c_T
I0925 23:07:17.306684 22859 net.cpp:261] This network produces output h_pseudoloss
I0925 23:07:17.306684 22823 net.cpp:425] lstm2_transform_1 <- h_conted_0
I0925 23:07:17.306702 22823 net.cpp:399] lstm2_transform_1 -> W_hc_h_0
I0925 23:07:17.306704 22859 net.cpp:274] Network initialization done.
I0925 23:07:17.306745 22829 net.cpp:141] Setting up lstm2_x_transform
I0925 23:07:17.306776 22847 net.cpp:141] Setting up lstm2_h_concat
I0925 23:07:17.306787 22847 net.cpp:148] Top shape: 1 1 1000 (1000)
I0925 23:07:17.306792 22847 net.cpp:156] Memory required for data: 98020
I0925 23:07:17.306797 22847 layer_factory.hpp:77] Creating layer h_pseudoloss
I0925 23:07:17.306807 22847 net.cpp:91] Creating Layer h_pseudoloss
I0925 23:07:17.306802 22829 net.cpp:148] Top shape: 1 1 4000 (4000)
I0925 23:07:17.306813 22847 net.cpp:425] h_pseudoloss <- h
I0925 23:07:17.306831 22829 net.cpp:156] Memory required for data: 30020
I0925 23:07:17.306836 22847 net.cpp:399] h_pseudoloss -> h_pseudoloss
I0925 23:07:17.306871 22829 layer_factory.hpp:77] Creating layer lstm2_W_xc_x_slice
I0925 23:07:17.306900 22829 net.cpp:91] Creating Layer lstm2_W_xc_x_slice
I0925 23:07:17.306918 22829 net.cpp:425] lstm2_W_xc_x_slice <- W_xc_x
…
I0925 23:07:17.307047 22847 net.cpp:219] lstm2_cont_slice does not need backward computation.
I0925 23:07:17.307054 22847 net.cpp:219] lstm2_ does not need backward computation.
I0925 23:07:17.307057 22847 net.cpp:219] lstm2_ does not need backward computation.
I0925 23:07:17.307061 22847 net.cpp:261] This network produces output c_T
I0925 23:07:17.307066 22847 net.cpp:261] This network produces output h_pseudoloss
I0925 23:07:17.307081 22847 net.cpp:274] Network initialization done.
I0925 23:07:17.307087 22829 net.cpp:141] Setting up lstm2_W_xc_x_slice
I0925 23:07:17.307116 22829 net.cpp:148] Top shape: 1 1 4000 (4000)
I0925 23:07:17.307122 22847 recurrent_layer.cpp:150] Adding parameter 0: W_xc
I0925 23:07:17.307131 22847 recurrent_layer.cpp:150] Adding parameter 1: b_c
I0925 23:07:17.307135 22847 recurrent_layer.cpp:150] Adding parameter 2: W_hc
I0925 23:07:17.307132 22829 net.cpp:156] Memory required for data: 46020
I0925 23:07:17.307150 22829 layer_factory.hpp:77] Creating layer lstm2_h_conted_0
I0925 23:07:17.307174 22829 net.cpp:91] Creating Layer lstm2_h_conted_0
I0925 23:07:17.307193 22829 net.cpp:425] lstm2_h_conted_0 <- h_0
I0925 23:07:17.307211 22829 net.cpp:425] lstm2_h_conted_0 <- cont_1_lstm2_cont_slice_0_split_0
I0925 23:07:17.307235 22829 net.cpp:399] lstm2_h_conted_0 -> h_conted_0
I0925 23:07:17.307265 22847 net.cpp:141] Setting up lstm2
I0925 23:07:17.307276 22847 net.cpp:148] Top shape: 1 1 1000 (1000)
I0925 23:07:17.307281 22847 net.cpp:156] Memory required for data: 36412
I0925 23:07:17.307294 22847 layer_factory.hpp:77] Creating layer predict
I0925 23:07:17.307306 22847 net.cpp:91] Creating Layer predict
I0925 23:07:17.307312 22847 net.cpp:425] predict <- lstm2
I0925 23:07:17.307320 22847 net.cpp:399] predict -> predict
I0925 23:07:17.306761 22859 recurrent_layer.cpp:150] Adding parameter 0: W_xc
I0925 23:07:17.307399 22859 recurrent_layer.cpp:150] Adding parameter 1: b_c
I0925 23:07:17.307417 22859 recurrent_layer.cpp:150] Adding parameter 2: W_hc
I0925 23:07:17.394382 22805 net.cpp:141] Setting up lstm2_W_xc_x_slice
I0925 23:07:17.394433 22805 net.cpp:148] Top shape: 1 1 4000 (4000)
I0925 23:07:17.394443 22805 net.cpp:156] Memory required for data: 46020
I0925 23:07:17.394455 22805 layer_factory.hpp:77] Creating layer lstm2_h_conted_0
I0925 23:07:17.394477 22805 net.cpp:91] Creating Layer lstm2_h_conted_0
I0925 23:07:17.394487 22805 net.cpp:425] lstm2_h_conted_0 <- h_0
I0925 23:07:17.394500 22805 net.cpp:425] lstm2_h_conted_0 <- cont_1_lstm2_cont_slice_0_split_0
I0925 23:07:17.394513 22805 net.cpp:399] lstm2_h_conted_0 -> h_conted_0
I0925 23:07:17.394750 22829 net.cpp:141] Setting up lstm2_h_conted_0
I0925 23:07:17.394767 22829 net.cpp:148] Top shape: 1 1 1000 (1000)
I0925 23:07:17.394775 22829 net.cpp:156] Memory required for data: 50020
I0925 23:07:17.394783 22829 layer_factory.hpp:77] Creating layer lstm2_transform_1
I0925 23:07:17.394801 22829 net.cpp:91] Creating Layer lstm2_transform_1
I0925 23:07:17.394811 22829 net.cpp:425] lstm2_transform_1 <- h_conted_0
I0925 23:07:17.394824 22829 net.cpp:399] lstm2_transform_1 -> W_hc_h_0
I0925 23:07:17.405196 22805 net.cpp:141] Setting up lstm2_h_conted_0
I0925 23:07:17.405247 22805 net.cpp:148] Top shape: 1 1 1000 (1000)
I0925 23:07:17.405257 22805 net.cpp:156] Memory required for data: 50020
I0925 23:07:17.405270 22805 layer_factory.hpp:77] Creating layer lstm2_transform_1
I0925 23:07:17.405293 22805 net.cpp:91] Creating Layer lstm2_transform_1
I0925 23:07:17.405306 22805 net.cpp:425] lstm2_transform_1 <- h_conted_0
I0925 23:07:17.405325 22805 net.cpp:399] lstm2_transform_1 -> W_hc_h_0
I0925 23:07:17.405735 22811 net.cpp:141] Setting up lstm2_x_transform
I0925 23:07:17.405755 22811 net.cpp:148] Top shape: 1 1 4000 (4000)
I0925 23:07:17.405764 22811 net.cpp:156] Memory required for data: 30020
I0925 23:07:17.405786 22811 layer_factory.hpp:77] Creating layer lstm2_W_xc_x_slice
I0925 23:07:17.405834 22811 net.cpp:91] Creating Layer lstm2_W_xc_x_slice
I0925 23:07:17.405853 22811 net.cpp:425] lstm2_W_xc_x_slice <- W_xc_x
I0925 23:07:17.405865 22811 net.cpp:399] lstm2_W_xc_x_slice -> W_xc_x_1
I0925 23:07:17.406194 22811 net.cpp:141] Setting up lstm2_W_xc_x_slice
I0925 23:07:17.406209 22811 net.cpp:148] Top shape: 1 1 4000 (4000)
I0925 23:07:17.406215 22811 net.cpp:156] Memory required for data: 46020
I0925 23:07:17.406221 22811 layer_factory.hpp:77] Creating layer lstm2_h_conted_0
I0925 23:07:17.406270 22811 net.cpp:91] Creating Layer lstm2_h_conted_0
I0925 23:07:17.406282 22811 net.cpp:425] lstm2_h_conted_0 <- h_0
I0925 23:07:17.406293 22811 net.cpp:425] lstm2_h_conted_0 <- cont_1_lstm2_cont_slice_0_split_0
I0925 23:07:17.406308 22811 net.cpp:399] lstm2_h_conted_0 -> h_conted_0
I0925 23:07:17.416021 22859 net.cpp:141] Setting up lstm2
I0925 23:07:17.416069 22859 net.cpp:148] Top shape: 1 1 1000 (1000)
I0925 23:07:17.416079 22859 net.cpp:156] Memory required for data: 36412
I0925 23:07:17.416110 22859 layer_factory.hpp:77] Creating layer predict
I0925 23:07:17.416134 22859 net.cpp:91] Creating Layer predict
I0925 23:07:17.416146 22859 net.cpp:425] predict <- lstm2
I0925 23:07:17.416162 22859 net.cpp:399] predict -> predict
I0925 23:07:17.417667 22831 net.cpp:141] Setting up conv3
I0925 23:07:17.417726 22831 net.cpp:148] Top shape: 10 384 13 13 (648960)
I0925 23:07:17.417737 22831 net.cpp:156] Memory required for data: 56001080
I0925 23:07:17.417773 22831 layer_factory.hpp:77] Creating layer relu3
I0925 23:07:17.417809 22831 net.cpp:91] Creating Layer relu3
I0925 23:07:17.417821 22831 net.cpp:425] relu3 <- conv3
I0925 23:07:17.417923 22831 net.cpp:386] relu3 -> conv3 (in-place)
I0925 23:07:17.417932 22823 net.cpp:141] Setting up lstm2_transform_1
I0925 23:07:17.417958 22823 net.cpp:148] Top shape: 1 1 4000 (4000)
I0925 23:07:17.417966 22823 net.cpp:156] Memory required for data: 66020
I0925 23:07:17.417987 22823 layer_factory.hpp:77] Creating layer lstm2_gate_input_1
I0925 23:07:17.418014 22823 net.cpp:91] Creating Layer lstm2_gate_input_1
I0925 23:07:17.418025 22823 net.cpp:425] lstm2_gate_input_1 <- W_hc_h_0
I0925 23:07:17.418036 22823 net.cpp:425] lstm2_gate_input_1 <- W_xc_x_1
I0925 23:07:17.418050 22823 net.cpp:399] lstm2_gate_input_1 -> gate_input_1
I0925 23:07:17.418201 22855 net.cpp:141] Setting up lstm2_x_transform
I0925 23:07:17.418226 22855 net.cpp:148] Top shape: 1 1 4000 (4000)
I0925 23:07:17.418234 22855 net.cpp:156] Memory required for data: 30020
I0925 23:07:17.418257 22855 layer_factory.hpp:77] Creating layer lstm2_W_xc_x_slice
I0925 23:07:17.418277 22855 net.cpp:91] Creating Layer lstm2_W_xc_x_slice
I0925 23:07:17.418288 22855 net.cpp:425] lstm2_W_xc_x_slice <- W_xc_x
I0925 23:07:17.418306 22855 net.cpp:399] lstm2_W_xc_x_slice -> W_xc_x_1
I0925 23:07:17.418390 22855 net.cpp:141] Setting up lstm2_W_xc_x_slice
I0925 23:07:17.418411 22855 net.cpp:148] Top shape: 1 1 4000 (4000)
I0925 23:07:17.418421 22855 net.cpp:156] Memory required for data: 46020
I0925 23:07:17.418431 22855 layer_factory.hpp:77] Creating layer lstm2_h_conted_0
I0925 23:07:17.418448 22855 net.cpp:91] Creating Layer lstm2_h_conted_0
I0925 23:07:17.418460 22855 net.cpp:425] lstm2_h_conted_0 <- h_0
I0925 23:07:17.418473 22855 net.cpp:425] lstm2_h_conted_0 <- cont_1_lstm2_cont_slice_0_split_0
I0925 23:07:17.418493 22855 net.cpp:399] lstm2_h_conted_0 -> h_conted_0
I0925 23:07:17.418740 22855 net.cpp:141] Setting up lstm2_h_conted_0
I0925 23:07:17.418762 22855 net.cpp:148] Top shape: 1 1 1000 (1000)
I0925 23:07:17.418772 22855 net.cpp:156] Memory required for data: 50020
I0925 23:07:17.418781 22855 layer_factory.hpp:77] Creating layer lstm2_transform_1
I0925 23:07:17.418805 22855 net.cpp:91] Creating Layer lstm2_transform_1
I0925 23:07:17.418815 22855 net.cpp:425] lstm2_transform_1 <- h_conted_0
I0925 23:07:17.418836 22855 net.cpp:399] lstm2_transform_1 -> W_hc_h_0
I0925 23:07:17.508821 22815 net.cpp:141] Setting up lstm2_x_transform
I0925 23:07:17.508904 22815 net.cpp:148] Top shape: 1 1 4000 (4000)
I0925 23:07:17.508915 22815 net.cpp:156] Memory required for data: 30020
I0925 23:07:17.508951 22815 layer_factory.hpp:77] Creating layer lstm2_W_xc_x_slice
I0925 23:07:17.508960 22823 net.cpp:141] Setting up lstm2_gate_input_1
I0925 23:07:17.508980 22815 net.cpp:91] Creating Layer lstm2_W_xc_x_slice
I0925 23:07:17.508985 22823 net.cpp:148] Top shape: 1 1 4000 (4000)
I0925 23:07:17.508992 22823 net.cpp:156] Memory required for data: 82020
I0925 23:07:17.508993 22815 net.cpp:425] lstm2_W_xc_x_slice <- W_xc_x
I0925 23:07:17.509002 22823 layer_factory.hpp:77] Creating layer lstm2_unit_1
I0925 23:07:17.509012 22815 net.cpp:399] lstm2_W_xc_x_slice -> W_xc_x_1
I0925 23:07:17.509018 22823 net.cpp:91] Creating Layer lstm2_unit_1
I0925 23:07:17.509028 22823 net.cpp:425] lstm2_unit_1 <- c_0
I0925 23:07:17.509039 22823 net.cpp:425] lstm2_unit_1 <- gate_input_1
I0925 23:07:17.509048 22823 net.cpp:425] lstm2_unit_1 <- cont_1_lstm2_cont_slice_0_split_1
I0925 23:07:17.509063 22823 net.cpp:399] lstm2_unit_1 -> c_1
I0925 23:07:17.509078 22823 net.cpp:399] lstm2_unit_1 -> h_1
I0925 23:07:17.509141 22815 net.cpp:141] Setting up lstm2_W_xc_x_slice
I0925 23:07:17.509160 22815 net.cpp:148] Top shape: 1 1 4000 (4000)
I0925 23:07:17.509169 22815 net.cpp:156] Memory required for data: 46020
I0925 23:07:17.509179 22815 layer_factory.hpp:77] Creating layer lstm2_h_conted_0
I0925 23:07:17.509197 22815 net.cpp:91] Creating Layer lstm2_h_conted_0
I0925 23:07:17.509208 22815 net.cpp:425] lstm2_h_conted_0 <- h_0
I0925 23:07:17.509220 22815 net.cpp:425] lstm2_h_conted_0 <- cont_1_lstm2_cont_slice_0_split_0
I0925 23:07:17.509234 22815 net.cpp:399] lstm2_h_conted_0 -> h_conted_0
I0925 23:07:17.509466 22815 net.cpp:141] Setting up lstm2_h_conted_0
I0925 23:07:17.509487 22815 net.cpp:148] Top shape: 1 1 1000 (1000)
I0925 23:07:17.509497 22815 net.cpp:156] Memory required for data: 50020
I0925 23:07:17.509508 22815 layer_factory.hpp:77] Creating layer lstm2_transform_1
I0925 23:07:17.509533 22815 net.cpp:91] Creating Layer lstm2_transform_1
I0925 23:07:17.509546 22815 net.cpp:425] lstm2_transform_1 <- h_conted_0
I0925 23:07:17.509562 22815 net.cpp:399] lstm2_transform_1 -> W_hc_h_0
I0925 23:07:17.518046 22805 net.cpp:141] Setting up lstm2_transform_1
I0925 23:07:17.518117 22805 net.cpp:148] Top shape: 1 1 4000 (4000)
I0925 23:07:17.518126 22805 net.cpp:156] Memory required for data: 66020
I0925 23:07:17.518158 22805 layer_factory.hpp:77] Creating layer lstm2_gate_input_1
I0925 23:07:17.518164 22855 net.cpp:141] Setting up lstm2_transform_1
I0925 23:07:17.518190 22805 net.cpp:91] Creating Layer lstm2_gate_input_1
I0925 23:07:17.518201 22855 net.cpp:148] Top shape: 1 1 4000 (4000)
I0925 23:07:17.518203 22805 net.cpp:425] lstm2_gate_input_1 <- W_hc_h_0
I0925 23:07:17.518232 22855 net.cpp:156] Memory required for data: 66020
I0925 23:07:17.518241 22805 net.cpp:425] lstm2_gate_input_1 <- W_xc_x_1
I0925 23:07:17.518259 22805 net.cpp:399] lstm2_gate_input_1 -> gate_input_1
I0925 23:07:17.518262 22855 layer_factory.hpp:77] Creating layer lstm2_gate_input_1
I0925 23:07:17.518298 22855 net.cpp:91] Creating Layer lstm2_gate_input_1
I0925 23:07:17.518317 22855 net.cpp:425] lstm2_gate_input_1 <- W_hc_h_0
I0925 23:07:17.518337 22855 net.cpp:425] lstm2_gate_input_1 <- W_xc_x_1
I0925 23:07:17.518365 22855 net.cpp:399] lstm2_gate_input_1 -> gate_input_1
I0925 23:07:17.518551 22855 net.cpp:141] Setting up lstm2_gate_input_1
I0925 23:07:17.518579 22855 net.cpp:148] Top shape: 1 1 4000 (4000)
I0925 23:07:17.518594 22855 net.cpp:156] Memory required for data: 82020
I0925 23:07:17.518626 22855 layer_factory.hpp:77] Creating layer lstm2_unit_1
I0925 23:07:17.518647 22855 net.cpp:91] Creating Layer lstm2_unit_1
I0925 23:07:17.518662 22855 net.cpp:425] lstm2_unit_1 <- c_0
I0925 23:07:17.518681 22855 net.cpp:425] lstm2_unit_1 <- gate_input_1
I0925 23:07:17.518697 22855 net.cpp:425] lstm2_unit_1 <- cont_1_lstm2_cont_slice_0_split_1
I0925 23:07:17.518728 22855 net.cpp:399] lstm2_unit_1 -> c_1
I0925 23:07:17.518759 22855 net.cpp:399] lstm2_unit_1 -> h_1
I0925 23:07:17.518857 22829 net.cpp:141] Setting up lstm2_transform_1
I0925 23:07:17.518880 22829 net.cpp:148] Top shape: 1 1 4000 (4000)
I0925 23:07:17.518889 22829 net.cpp:156] Memory required for data: 66020
I0925 23:07:17.518908 22829 layer_factory.hpp:77] Creating layer lstm2_gate_input_1
I0925 23:07:17.518931 22829 net.cpp:91] Creating Layer lstm2_gate_input_1
I0925 23:07:17.518941 22829 net.cpp:425] lstm2_gate_input_1 <- W_hc_h_0
I0925 23:07:17.518952 22829 net.cpp:425] lstm2_gate_input_1 <- W_xc_x_1
I0925 23:07:17.518965 22829 net.cpp:399] lstm2_gate_input_1 -> gate_input_1
I0925 23:07:17.519037 22829 net.cpp:141] Setting up lstm2_gate_input_1
I0925 23:07:17.519053 22829 net.cpp:148] Top shape: 1 1 4000 (4000)
I0925 23:07:17.519062 22829 net.cpp:156] Memory required for data: 82020
I0925 23:07:17.519070 22829 layer_factory.hpp:77] Creating layer lstm2_unit_1
I0925 23:07:17.519088 22829 net.cpp:91] Creating Layer lstm2_unit_1
I0925 23:07:17.519098 22829 net.cpp:425] lstm2_unit_1 <- c_0
I0925 23:07:17.519109 22829 net.cpp:425] lstm2_unit_1 <- gate_input_1
I0925 23:07:17.519117 22829 net.cpp:425] lstm2_unit_1 <- cont_1_lstm2_cont_slice_0_split_1
I0925 23:07:17.519127 22829 net.cpp:399] lstm2_unit_1 -> c_1
I0925 23:07:17.519141 22829 net.cpp:399] lstm2_unit_1 -> h_1
I0925 23:07:17.519286 22823 net.cpp:141] Setting up lstm2_unit_1
I0925 23:07:17.519306 22823 net.cpp:148] Top shape: 1 1 1000 (1000)
I0925 23:07:17.519316 22823 net.cpp:148] Top shape: 1 1 1000 (1000)
I0925 23:07:17.519323 22823 net.cpp:156] Memory required for data: 90020
I0925 23:07:17.519332 22823 layer_factory.hpp:77] Creating layer lstm2_
I0925 23:07:17.519346 22823 net.cpp:91] Creating Layer lstm2_
I0925 23:07:17.519354 22823 net.cpp:425] lstm2_ <- c_1
I0925 23:07:17.519366 22823 net.cpp:399] lstm2_ -> c_T
I0925 23:07:17.519438 22805 net.cpp:141] Setting up lstm2_gate_input_1
I0925 23:07:17.519460 22805 net.cpp:148] Top shape: 1 1 4000 (4000)
I0925 23:07:17.519469 22805 net.cpp:156] Memory required for data: 82020
I0925 23:07:17.519479 22805 layer_factory.hpp:77] Creating layer lstm2_unit_1
I0925 23:07:17.519501 22805 net.cpp:91] Creating Layer lstm2_unit_1
I0925 23:07:17.519513 22805 net.cpp:425] lstm2_unit_1 <- c_0
I0925 23:07:17.519527 22805 net.cpp:425] lstm2_unit_1 <- gate_input_1
I0925 23:07:17.519538 22805 net.cpp:425] lstm2_unit_1 <- cont_1_lstm2_cont_slice_0_split_1
I0925 23:07:17.519551 22805 net.cpp:399] lstm2_unit_1 -> c_1
I0925 23:07:17.519570 22805 net.cpp:399] lstm2_unit_1 -> h_1
I0925 23:07:17.519704 22805 net.cpp:141] Setting up lstm2_unit_1
I0925 23:07:17.519722 22805 net.cpp:148] Top shape: 1 1 1000 (1000)
I0925 23:07:17.519734 22805 net.cpp:148] Top shape: 1 1 1000 (1000)
I0925 23:07:17.519743 22805 net.cpp:156] Memory required for data: 90020
I0925 23:07:17.519752 22805 layer_factory.hpp:77] Creating layer lstm2_
I0925 23:07:17.519765 22805 net.cpp:91] Creating Layer lstm2_
I0925 23:07:17.519775 22805 net.cpp:425] lstm2_ <- c_1
I0925 23:07:17.519789 22805 net.cpp:399] lstm2_ -> c_T
I0925 23:07:17.519853 22805 net.cpp:141] Setting up lstm2_
I0925 23:07:17.519870 22805 net.cpp:148] Top shape: 1 1 1000 (1000)
I0925 23:07:17.519878 22805 net.cpp:156] Memory required for data: 94020
I0925 23:07:17.519888 22805 layer_factory.hpp:77] Creating layer lstm2_h_concat
I0925 23:07:17.519909 22805 net.cpp:91] Creating Layer lstm2_h_concat
I0925 23:07:17.519920 22805 net.cpp:425] lstm2_h_concat <- h_1
I0925 23:07:17.519935 22805 net.cpp:399] lstm2_h_concat -> h
I0925 23:07:17.520009 22805 net.cpp:141] Setting up lstm2_h_concat
I0925 23:07:17.520026 22805 net.cpp:148] Top shape: 1 1 1000 (1000)
I0925 23:07:17.520035 22805 net.cpp:156] Memory required for data: 98020
I0925 23:07:17.520045 22805 layer_factory.hpp:77] Creating layer h_pseudoloss
I0925 23:07:17.520061 22805 net.cpp:91] Creating Layer h_pseudoloss
I0925 23:07:17.520071 22805 net.cpp:425] h_pseudoloss <- h
I0925 23:07:17.520089 22805 net.cpp:399] h_pseudoloss -> h_pseudoloss
I0925 23:07:17.520278 22805 net.cpp:141] Setting up h_pseudoloss
…
I0925 23:07:17.520474 22805 net.cpp:219] lstm2_ does not need backward computation.
I0925 23:07:17.520483 22805 net.cpp:261] This network produces output c_T
I0925 23:07:17.520491 22805 net.cpp:261] This network produces output h_pseudoloss
I0925 23:07:17.520525 22805 net.cpp:274] Network initialization done.
I0925 23:07:17.520622 22805 recurrent_layer.cpp:150] Adding parameter 0: W_xc
I0925 23:07:17.520635 22805 recurrent_layer.cpp:150] Adding parameter 1: b_c
I0925 23:07:17.520645 22805 recurrent_layer.cpp:150] Adding parameter 2: W_hc
I0925 23:07:17.520848 22805 net.cpp:141] Setting up lstm2
I0925 23:07:17.520869 22805 net.cpp:148] Top shape: 1 1 1000 (1000)
I0925 23:07:17.520879 22805 net.cpp:156] Memory required for data: 36412
I0925 23:07:17.520907 22805 layer_factory.hpp:77] Creating layer predict
I0925 23:07:17.520931 22805 net.cpp:91] Creating Layer predict
I0925 23:07:17.520946 22805 net.cpp:425] predict <- lstm2
I0925 23:07:17.520961 22805 net.cpp:399] predict -> predict
I0925 23:07:17.607906 22831 net.cpp:141] Setting up relu3
I0925 23:07:17.607959 22823 net.cpp:141] Setting up lstm2_
I0925 23:07:17.607974 22831 net.cpp:148] Top shape: 10 384 13 13 (648960)
I0925 23:07:17.607980 22823 net.cpp:148] Top shape: 1 1 1000 (1000)
I0925 23:07:17.607985 22823 net.cpp:156] Memory required for data: 94020
I0925 23:07:17.607985 22831 net.cpp:156] Memory required for data: 58596920
I0925 23:07:17.608011 22823 layer_factory.hpp:77] Creating layer lstm2_h_concat
I0925 23:07:17.608016 22831 layer_factory.hpp:77] Creating layer conv4
I0925 23:07:17.608034 22823 net.cpp:91] Creating Layer lstm2_h_concat
I0925 23:07:17.608045 22831 net.cpp:91] Creating Layer conv4
I0925 23:07:17.608047 22823 net.cpp:425] lstm2_h_concat <- h_1
I0925 23:07:17.608067 22831 net.cpp:425] conv4 <- conv3
I0925 23:07:17.608088 22829 net.cpp:141] Setting up lstm2_unit_1
I0925 23:07:17.608094 22831 net.cpp:399] conv4 -> conv4
I0925 23:07:17.608108 22829 net.cpp:148] Top shape: 1 1 1000 (1000)
I0925 23:07:17.608094 22823 net.cpp:399] lstm2_h_concat -> h
I0925 23:07:17.608127 22829 net.cpp:148] Top shape: 1 1 1000 (1000)
I0925 23:07:17.608135 22829 net.cpp:156] Memory required for data: 90020
I0925 23:07:17.608145 22829 layer_factory.hpp:77] Creating layer lstm2_
I0925 23:07:17.608152 22815 net.cpp:141] Setting up lstm2_transform_1
I0925 23:07:17.608163 22829 net.cpp:91] Creating Layer lstm2_
I0925 23:07:17.608172 22829 net.cpp:425] lstm2_ <- c_1
I0925 23:07:17.608175 22815 net.cpp:148] Top shape: 1 1 4000 (4000)
I0925 23:07:17.608180 22829 net.cpp:399] lstm2_ -> c_T
I0925 23:07:17.608183 22815 net.cpp:156] Memory required for data: 66020
I0925 23:07:17.608196 22855 net.cpp:141] Setting up lstm2_unit_1
I0925 23:07:17.608201 22815 layer_factory.hpp:77] Creating layer lstm2_gate_input_1
I0925 23:07:17.608227 22855 net.cpp:148] Top shape: 1 1 1000 (1000)
I0925 23:07:17.608237 22815 net.cpp:91] Creating Layer lstm2_gate_input_1
I0925 23:07:17.608239 22855 net.cpp:148] Top shape: 1 1 1000 (1000)
I0925 23:07:17.608247 22815 net.cpp:425] lstm2_gate_input_1 <- W_hc_h_0
I0925 23:07:17.608247 22855 net.cpp:156] Memory required for data: 90020
I0925 23:07:17.608263 22815 net.cpp:425] lstm2_gate_input_1 <- W_xc_x_1
I0925 23:07:17.608268 22855 layer_factory.hpp:77] Creating layer lstm2_
I0925 23:07:17.608274 22811 net.cpp:141] Setting up lstm2_h_conted_0
I0925 23:07:17.608283 22855 net.cpp:91] Creating Layer lstm2_
I0925 23:07:17.608291 22855 net.cpp:425] lstm2_ <- c_1
I0925 23:07:17.608301 22811 net.cpp:148] Top shape: 1 1 1000 (1000)
I0925 23:07:17.608279 22815 net.cpp:399] lstm2_gate_input_1 -> gate_input_1
I0925 23:07:17.608309 22811 net.cpp:156] Memory required for data: 50020
I0925 23:07:17.608314 22855 net.cpp:399] lstm2_ -> c_T
I0925 23:07:17.608319 22811 layer_factory.hpp:77] Creating layer lstm2_transform_1
I0925 23:07:17.608430 22811 net.cpp:91] Creating Layer lstm2_transform_1
I0925 23:07:17.608440 22811 net.cpp:425] lstm2_transform_1 <- h_conted_0
I0925 23:07:17.608451 22811 net.cpp:399] lstm2_transform_1 -> W_hc_h_0
I0925 23:07:17.608592 22815 net.cpp:141] Setting up lstm2_gate_input_1
I0925 23:07:17.608608 22815 net.cpp:148] Top shape: 1 1 4000 (4000)
I0925 23:07:17.608613 22815 net.cpp:156] Memory required for data: 82020
I0925 23:07:17.608621 22815 layer_factory.hpp:77] Creating layer lstm2_unit_1
I0925 23:07:17.608633 22815 net.cpp:91] Creating Layer lstm2_unit_1
I0925 23:07:17.608640 22815 net.cpp:425] lstm2_unit_1 <- c_0
I0925 23:07:17.608640 22855 net.cpp:141] Setting up lstm2_
I0925 23:07:17.608650 22815 net.cpp:425] lstm2_unit_1 <- gate_input_1
I0925 23:07:17.608657 22855 net.cpp:148] Top shape: 1 1 1000 (1000)
I0925 23:07:17.608659 22815 net.cpp:425] lstm2_unit_1 <- cont_1_lstm2_cont_slice_0_split_1
I0925 23:07:17.608677 22855 net.cpp:156] Memory required for data: 94020
I0925 23:07:17.608685 22815 net.cpp:399] lstm2_unit_1 -> c_1
I0925 23:07:17.608710 22815 net.cpp:399] lstm2_unit_1 -> h_1
I0925 23:07:17.608736 22829 net.cpp:141] Setting up lstm2_
I0925 23:07:17.608750 22829 net.cpp:148] Top shape: 1 1 1000 (1000)
I0925 23:07:17.608757 22829 net.cpp:156] Memory required for data: 94020
I0925 23:07:17.608764 22829 layer_factory.hpp:77] Creating layer lstm2_h_concat
I0925 23:07:17.608777 22829 net.cpp:91] Creating Layer lstm2_h_concat
I0925 23:07:17.608785 22829 net.cpp:425] lstm2_h_concat <- h_1
I0925 23:07:17.608800 22829 net.cpp:399] lstm2_h_concat -> h
I0925 23:07:17.608685 22855 layer_factory.hpp:77] Creating layer lstm2_h_concat
I0925 23:07:17.608829 22855 net.cpp:91] Creating Layer lstm2_h_concat
I0925 23:07:17.608836 22855 net.cpp:425] lstm2_h_concat <- h_1
I0925 23:07:17.608847 22855 net.cpp:399] lstm2_h_concat -> h
I0925 23:07:17.608857 22823 net.cpp:141] Setting up lstm2_h_concat
I0925 23:07:17.608873 22823 net.cpp:148] Top shape: 1 1 1000 (1000)
I0925 23:07:17.608881 22823 net.cpp:156] Memory required for data: 98020
I0925 23:07:17.608888 22823 layer_factory.hpp:77] Creating layer h_pseudoloss
I0925 23:07:17.608904 22855 net.cpp:141] Setting up lstm2_h_concat
I0925 23:07:17.608923 22855 net.cpp:148] Top shape: 1 1 1000 (1000)
I0925 23:07:17.608930 22855 net.cpp:156] Memory required for data: 98020
I0925 23:07:17.608938 22855 layer_factory.hpp:77] Creating layer h_pseudoloss
I0925 23:07:17.608950 22855 net.cpp:91] Creating Layer h_pseudoloss
I0925 23:07:17.608958 22855 net.cpp:425] h_pseudoloss <- h
I0925 23:07:17.608970 22855 net.cpp:399] h_pseudoloss -> h_pseudoloss
I0925 23:07:17.608906 22823 net.cpp:91] Creating Layer h_pseudoloss
…
I0925 23:07:17.710021 22815 net.cpp:219] lstm2_ does not need backward computation.
I0925 23:07:17.710028 22815 net.cpp:261] This network produces output c_T
I0925 23:07:17.710037 22815 net.cpp:261] This network produces output h_pseudoloss
I0925 23:07:17.710072 22815 net.cpp:274] Network initialization done.
I0925 23:07:17.710146 22815 recurrent_layer.cpp:150] Adding parameter 0: W_xc
I0925 23:07:17.710160 22815 recurrent_layer.cpp:150] Adding parameter 1: b_c
I0925 23:07:17.710167 22815 recurrent_layer.cpp:150] Adding parameter 2: W_hc
I0925 23:07:17.710355 22815 net.cpp:141] Setting up lstm2
I0925 23:07:17.710372 22815 net.cpp:148] Top shape: 1 1 1000 (1000)
I0925 23:07:17.710381 22815 net.cpp:156] Memory required for data: 36412
I0925 23:07:17.710404 22815 layer_factory.hpp:77] Creating layer predict
I0925 23:07:17.710428 22815 net.cpp:91] Creating Layer predict
I0925 23:07:17.710438 22815 net.cpp:425] predict <- lstm2
I0925 23:07:17.710455 22815 net.cpp:399] predict -> predict
I0925 23:07:17.809442 22823 net.cpp:141] Setting up lstm2
I0925 23:07:17.809509 22823 net.cpp:148] Top shape: 1 1 1000 (1000)
I0925 23:07:17.809518 22823 net.cpp:156] Memory required for data: 36412
I0925 23:07:17.809551 22823 layer_factory.hpp:77] Creating layer predict
I0925 23:07:17.809550 22829 net.cpp:141] Setting up lstm2
I0925 23:07:17.809579 22823 net.cpp:91] Creating Layer predict
I0925 23:07:17.809587 22829 net.cpp:148] Top shape: 1 1 1000 (1000)
I0925 23:07:17.809590 22823 net.cpp:425] predict <- lstm2
I0925 23:07:17.809619 22829 net.cpp:156] Memory required for data: 36412
I0925 23:07:17.809630 22823 net.cpp:399] predict -> predict
I0925 23:07:17.809661 22829 layer_factory.hpp:77] Creating layer predict
I0925 23:07:17.809692 22829 net.cpp:91] Creating Layer predict
I0925 23:07:17.809712 22829 net.cpp:425] predict <- lstm2
I0925 23:07:17.809737 22829 net.cpp:399] predict -> predict
I0925 23:07:17.818593 22811 net.cpp:141] Setting up lstm2_transform_1
I0925 23:07:17.818703 22811 net.cpp:148] Top shape: 1 1 4000 (4000)
I0925 23:07:17.818712 22811 net.cpp:156] Memory required for data: 66020
I0925 23:07:17.818738 22811 layer_factory.hpp:77] Creating layer lstm2_gate_input_1
I0925 23:07:17.818766 22811 net.cpp:91] Creating Layer lstm2_gate_input_1
I0925 23:07:17.818776 22811 net.cpp:425] lstm2_gate_input_1 <- W_hc_h_0
I0925 23:07:17.818788 22811 net.cpp:425] lstm2_gate_input_1 <- W_xc_x_1
I0925 23:07:17.818799 22811 net.cpp:399] lstm2_gate_input_1 -> gate_input_1
I0925 23:07:17.818856 22809 net.cpp:141] Setting up predict
I0925 23:07:17.818902 22809 net.cpp:148] Top shape: 1 1 46168 (46168)
I0925 23:07:17.818909 22809 net.cpp:156] Memory required for data: 221084
I0925 23:07:17.818918 22847 net.cpp:141] Setting up predict
I0925 23:07:17.818928 22809 layer_factory.hpp:77] Creating layer probs
I0925 23:07:17.818949 22847 net.cpp:148] Top shape: 1 1 46168 (46168)
I0925 23:07:17.818958 22847 net.cpp:156] Memory required for data: 221084
I0925 23:07:17.818961 22809 net.cpp:91] Creating Layer probs
I0925 23:07:17.818971 22809 net.cpp:425] probs <- predict
I0925 23:07:17.818974 22847 layer_factory.hpp:77] Creating layer probs
I0925 23:07:17.818985 22809 net.cpp:399] probs -> probs
I0925 23:07:17.818987 22847 net.cpp:91] Creating Layer probs
I0925 23:07:17.818996 22847 net.cpp:425] probs <- predict
I0925 23:07:17.819007 22847 net.cpp:399] probs -> probs
I0925 23:07:17.930800 22811 net.cpp:141] Setting up lstm2_gate_input_1
I0925 23:07:17.930878 22811 net.cpp:148] Top shape: 1 1 4000 (4000)
I0925 23:07:17.930899 22811 net.cpp:156] Memory required for data: 82020
I0925 23:07:17.930918 22811 layer_factory.hpp:77] Creating layer lstm2_unit_1
I0925 23:07:17.930953 22811 net.cpp:91] Creating Layer lstm2_unit_1
I0925 23:07:17.930971 22811 net.cpp:425] lstm2_unit_1 <- c_0
I0925 23:07:17.930995 22811 net.cpp:425] lstm2_unit_1 <- gate_input_1
I0925 23:07:17.931017 22811 net.cpp:425] lstm2_unit_1 <- cont_1_lstm2_cont_slice_0_split_1
I0925 23:07:17.931035 22811 net.cpp:399] lstm2_unit_1 -> c_1
I0925 23:07:17.931058 22811 net.cpp:399] lstm2_unit_1 -> h_1
I0925 23:07:18.018203 22847 net.cpp:141] Setting up probs
I0925 23:07:18.018774 22847 net.cpp:148] Top shape: 1 1 46168 (46168)
I0925 23:07:18.018916 22847 net.cpp:156] Memory required for data: 405756
I0925 23:07:18.019047 22847 net.cpp:219] probs does not need backward computation.
I0925 23:07:18.019090 22805 net.cpp:141] Setting up predict
I0925 23:07:18.019253 22847 net.cpp:219] predict does not need backward computation.
I0925 23:07:18.019564 22847 net.cpp:219] lstm2 does not need backward computation.
I0925 23:07:18.019578 22847 net.cpp:219] concat does not need backward computation.
I0925 23:07:18.019588 22847 net.cpp:219] lstm1 does not need backward computation.
I0925 23:07:18.019598 22847 net.cpp:219] embedding does not need backward computation.
I0925 23:07:18.019606 22847 net.cpp:219] reshape_stage_indicator does not need backward computation.
I0925 23:07:18.019613 22847 net.cpp:219] reshape_frames does not need backward computation.
I0925 23:07:18.019621 22847 net.cpp:219] embed_encoder does not need backward computation.
I0925 23:07:18.019629 22847 net.cpp:219] cont_sentence_input_1_split does not need backward computation.
I0925 23:07:18.019639 22847 net.cpp:219] input does not need backward computation.
I0925 23:07:18.019644 22847 net.cpp:261] This network produces output probs
I0925 23:07:18.019681 22847 net.cpp:274] Network initialization done.
I0925 23:07:18.020591 22859 net.cpp:141] Setting up predict
I0925 23:07:18.020615 22859 net.cpp:148] Top shape: 1 1 46168 (46168)
I0925 23:07:18.020620 22859 net.cpp:156] Memory required for data: 221084
I0925 23:07:18.020635 22859 layer_factory.hpp:77] Creating layer probs
I0925 23:07:18.020656 22859 net.cpp:91] Creating Layer probs
I0925 23:07:18.020666 22859 net.cpp:425] probs <- predict
I0925 23:07:18.020678 22859 net.cpp:399] probs -> probs
I0925 23:07:18.021353 22811 net.cpp:141] Setting up lstm2_unit_1
I0925 23:07:18.021383 22811 net.cpp:148] Top shape: 1 1 1000 (1000)
I0925 23:07:18.021394 22811 net.cpp:148] Top shape: 1 1 1000 (1000)
I0925 23:07:18.021401 22811 net.cpp:156] Memory required for data: 90020
I0925 23:07:18.021410 22811 layer_factory.hpp:77] Creating layer lstm2_
I0925 23:07:18.021482 22805 net.cpp:148] Top shape: 1 1 46168 (46168)
I0925 23:07:18.021495 22805 net.cpp:156] Memory required for data: 221084
I0925 23:07:18.021514 22805 layer_factory.hpp:77] Creating layer probs
I0925 23:07:18.021528 22805 net.cpp:91] Creating Layer probs
I0925 23:07:18.021538 22805 net.cpp:425] probs <- predict
I0925 23:07:18.021550 22805 net.cpp:399] probs -> probs
I0925 23:07:18.022253 22811 net.cpp:91] Creating Layer lstm2_
I0925 23:07:18.022274 22811 net.cpp:425] lstm2_ <- c_1
I0925 23:07:18.022287 22811 net.cpp:399] lstm2_ -> c_T
I0925 23:07:18.022613 22811 net.cpp:141] Setting up lstm2_
I0925 23:07:18.022634 22811 net.cpp:148] Top shape: 1 1 1000 (1000)
I0925 23:07:18.022641 22811 net.cpp:156] Memory required for data: 94020
I0925 23:07:18.022650 22811 layer_factory.hpp:77] Creating layer lstm2_h_concat
I0925 23:07:18.022663 22811 net.cpp:91] Creating Layer lstm2_h_concat
I0925 23:07:18.022671 22811 net.cpp:425] lstm2_h_concat <- h_1
I0925 23:07:18.022703 22811 net.cpp:399] lstm2_h_concat -> h
I0925 23:07:18.022769 22811 net.cpp:141] Setting up lstm2_h_concat
I0925 23:07:18.022783 22811 net.cpp:148] Top shape: 1 1 1000 (1000)
I0925 23:07:18.022789 22811 net.cpp:156] Memory required for data: 98020
I0925 23:07:18.022796 22811 layer_factory.hpp:77] Creating layer h_pseudoloss
I0925 23:07:18.022810 22811 net.cpp:91] Creating Layer h_pseudoloss
I0925 23:07:18.022817 22811 net.cpp:425] h_pseudoloss <- h
I0925 23:07:18.022828 22811 net.cpp:399] h_pseudoloss -> h_pseudoloss
I0925 23:07:18.023907 22811 net.cpp:141] Setting up h_pseudoloss
I0925 23:07:18.023936 22811 net.cpp:148] Top shape: (1)
I0925 23:07:18.023934 22805 net.cpp:141] Setting up probs
I0925 23:07:18.023963 22805 net.cpp:148] Top shape: 1 1 46168 (46168)
I0925 23:07:18.023969 22805 net.cpp:156] Memory required for data: 405756
I0925 23:07:18.023952 22811 net.cpp:151]     with loss weight 1
I0925 23:07:18.023977 22805 net.cpp:219] probs does not need backward computation.
I0925 23:07:18.023979 22811 net.cpp:156] Memory required for data: 98024
I0925 23:07:18.023983 22805 net.cpp:219] predict does not need backward computation.
I0925 23:07:18.023989 22805 net.cpp:219] lstm2 does not need backward computation.
I0925 23:07:18.024009 22805 net.cpp:219] concat does not need backward computation.
I0925 23:07:18.024020 22805 net.cpp:219] lstm1 does not need backward computation.
I0925 23:07:18.024031 22805 net.cpp:219] embedding does not need backward computation.
I0925 23:07:18.024041 22805 net.cpp:219] reshape_stage_indicator does not need backward computation.
I0925 23:07:18.024051 22805 net.cpp:219] reshape_frames does not need backward computation.
I0925 23:07:18.024062 22805 net.cpp:219] embed_encoder does not need backward computation.
I0925 23:07:18.024071 22805 net.cpp:219] cont_sentence_input_1_split does not need backward computation.
I0925 23:07:18.024081 22805 net.cpp:219] input does not need backward computation.
I0925 23:07:18.024088 22805 net.cpp:261] This network produces output probs
I0925 23:07:18.024130 22805 net.cpp:274] Network initialization done.
I0925 23:07:18.024956 22809 net.cpp:141] Setting up probs
I0925 23:07:18.024973 22809 net.cpp:148] Top shape: 1 1 46168 (46168)
I0925 23:07:18.024978 22809 net.cpp:156] Memory required for data: 405756
I0925 23:07:18.024984 22809 net.cpp:219] probs does not need backward computation.
I0925 23:07:18.024991 22809 net.cpp:219] predict does not need backward computation.
I0925 23:07:18.024997 22809 net.cpp:219] lstm2 does not need backward computation.
I0925 23:07:18.025004 22809 net.cpp:219] concat does not need backward computation.
I0925 23:07:18.025010 22809 net.cpp:219] lstm1 does not need backward computation.
I0925 23:07:18.025017 22809 net.cpp:219] embedding does not need backward computation.
I0925 23:07:18.025022 22809 net.cpp:219] reshape_stage_indicator does not need backward computation.
I0925 23:07:18.025027 22809 net.cpp:219] reshape_frames does not need backward computation.
I0925 23:07:18.025032 22809 net.cpp:219] embed_encoder does not need backward computation.
I0925 23:07:18.025038 22809 net.cpp:219] cont_sentence_input_1_split does not need backward computation.
I0925 23:07:18.025044 22809 net.cpp:219] input does not need backward computation.
I0925 23:07:18.025048 22809 net.cpp:261] This network produces output probs
I0925 23:07:18.025063 22809 net.cpp:274] Network initialization done.
I0925 23:07:18.026161 22859 net.cpp:141] Setting up probs
I0925 23:07:18.026190 22859 net.cpp:148] Top shape: 1 1 46168 (46168)
I0925 23:07:18.026198 22859 net.cpp:156] Memory required for data: 405756
I0925 23:07:18.026209 22859 net.cpp:219] probs does not need backward computation.
I0925 23:07:18.026221 22859 net.cpp:219] predict does not need backward computation.
I0925 23:07:18.026231 22859 net.cpp:219] lstm2 does not need backward computation.
I0925 23:07:18.026242 22859 net.cpp:219] concat does not need backward computation.
…
I0925 23:07:18.027592 22811 net.cpp:219] lstm2_ does not need backward computation.
I0925 23:07:18.027598 22811 net.cpp:261] This network produces output c_T
I0925 23:07:18.027607 22811 net.cpp:261] This network produces output h_pseudoloss
I0925 23:07:18.027667 22811 net.cpp:274] Network initialization done.
I0925 23:07:18.027752 22811 recurrent_layer.cpp:150] Adding parameter 0: W_xc
I0925 23:07:18.027765 22811 recurrent_layer.cpp:150] Adding parameter 1: b_c
I0925 23:07:18.027773 22811 recurrent_layer.cpp:150] Adding parameter 2: W_hc
I0925 23:07:18.028085 22811 net.cpp:141] Setting up lstm2
I0925 23:07:18.028107 22811 net.cpp:148] Top shape: 1 1 1000 (1000)
I0925 23:07:18.028116 22811 net.cpp:156] Memory required for data: 36412
I0925 23:07:18.028142 22811 layer_factory.hpp:77] Creating layer predict
I0925 23:07:18.028165 22811 net.cpp:91] Creating Layer predict
I0925 23:07:18.028177 22811 net.cpp:425] predict <- lstm2
I0925 23:07:18.028192 22811 net.cpp:399] predict -> predict
I0925 23:07:18.028769 22831 net.cpp:141] Setting up conv4
I0925 23:07:18.028789 22831 net.cpp:148] Top shape: 10 384 13 13 (648960)
I0925 23:07:18.028796 22831 net.cpp:156] Memory required for data: 61192760
I0925 23:07:18.028808 22831 layer_factory.hpp:77] Creating layer relu4
I0925 23:07:18.028880 22831 net.cpp:91] Creating Layer relu4
I0925 23:07:18.028890 22831 net.cpp:425] relu4 <- conv4
I0925 23:07:18.028899 22831 net.cpp:386] relu4 -> conv4 (in-place)
I0925 23:07:18.125808 22831 net.cpp:141] Setting up relu4
I0925 23:07:18.125882 22831 net.cpp:148] Top shape: 10 384 13 13 (648960)
I0925 23:07:18.125897 22831 net.cpp:156] Memory required for data: 63788600
I0925 23:07:18.125918 22831 layer_factory.hpp:77] Creating layer conv5
I0925 23:07:18.126574 22831 net.cpp:91] Creating Layer conv5
I0925 23:07:18.126624 22831 net.cpp:425] conv5 <- conv4
I0925 23:07:18.127025 22831 net.cpp:399] conv5 -> conv5
I0925 23:07:18.178942 22831 net.cpp:141] Setting up conv5
I0925 23:07:18.179005 22831 net.cpp:148] Top shape: 10 256 13 13 (432640)
I0925 23:07:18.179016 22831 net.cpp:156] Memory required for data: 65519160
I0925 23:07:18.179045 22831 layer_factory.hpp:77] Creating layer relu5
I0925 23:07:18.179797 22831 net.cpp:91] Creating Layer relu5
I0925 23:07:18.180203 22815 net.cpp:141] Setting up predict
I0925 23:07:18.180729 22831 net.cpp:425] relu5 <- conv5
I0925 23:07:18.180750 22815 net.cpp:148] Top shape: 1 1 46168 (46168)
I0925 23:07:18.182847 22815 net.cpp:156] Memory required for data: 221084
I0925 23:07:18.183004 22815 layer_factory.hpp:77] Creating layer probs
I0925 23:07:18.183182 22815 net.cpp:91] Creating Layer probs
I0925 23:07:18.183312 22815 net.cpp:425] probs <- predict
I0925 23:07:18.183440 22815 net.cpp:399] probs -> probs
I0925 23:07:18.182621 22831 net.cpp:386] relu5 -> conv5 (in-place)
I0925 23:07:18.186573 22815 net.cpp:141] Setting up probs
I0925 23:07:18.187048 22815 net.cpp:148] Top shape: 1 1 46168 (46168)
I0925 23:07:18.187207 22815 net.cpp:156] Memory required for data: 405756
I0925 23:07:18.187357 22815 net.cpp:219] probs does not need backward computation.
I0925 23:07:18.187531 22815 net.cpp:219] predict does not need backward computation.
I0925 23:07:18.187659 22815 net.cpp:219] lstm2 does not need backward computation.
I0925 23:07:18.187785 22815 net.cpp:219] concat does not need backward computation.
I0925 23:07:18.187904 22815 net.cpp:219] lstm1 does not need backward computation.
I0925 23:07:18.188022 22815 net.cpp:219] embedding does not need backward computation.
I0925 23:07:18.188184 22815 net.cpp:219] reshape_stage_indicator does not need backward computation.
I0925 23:07:18.188303 22815 net.cpp:219] reshape_frames does not need backward computation.
I0925 23:07:18.188422 22815 net.cpp:219] embed_encoder does not need backward computation.
I0925 23:07:18.188539 22815 net.cpp:219] cont_sentence_input_1_split does not need backward computation.
I0925 23:07:18.188659 22815 net.cpp:219] input does not need backward computation.
I0925 23:07:18.188774 22815 net.cpp:261] This network produces output probs
I0925 23:07:18.188930 22815 net.cpp:274] Network initialization done.
I0925 23:07:18.187304 22831 net.cpp:141] Setting up relu5
I0925 23:07:18.192392 22831 net.cpp:148] Top shape: 10 256 13 13 (432640)
I0925 23:07:18.192416 22831 net.cpp:156] Memory required for data: 67249720
I0925 23:07:18.192431 22831 layer_factory.hpp:77] Creating layer pool5
I0925 23:07:18.192466 22831 net.cpp:91] Creating Layer pool5
I0925 23:07:18.192478 22831 net.cpp:425] pool5 <- conv5
I0925 23:07:18.192497 22831 net.cpp:399] pool5 -> pool5
I0925 23:07:18.192807 22831 net.cpp:141] Setting up pool5
I0925 23:07:18.192867 22831 net.cpp:148] Top shape: 10 256 6 6 (92160)
I0925 23:07:18.192884 22831 net.cpp:156] Memory required for data: 67618360
I0925 23:07:18.192900 22831 layer_factory.hpp:77] Creating layer fc6
I0925 23:07:18.192960 22831 net.cpp:91] Creating Layer fc6
I0925 23:07:18.192972 22831 net.cpp:425] fc6 <- pool5
I0925 23:07:18.192992 22831 net.cpp:399] fc6 -> fc6
I0925 23:07:18.273018 22855 net.cpp:141] Setting up predict
I0925 23:07:18.273694 22855 net.cpp:148] Top shape: 1 1 46168 (46168)
I0925 23:07:18.273850 22855 net.cpp:156] Memory required for data: 221084
I0925 23:07:18.274042 22855 layer_factory.hpp:77] Creating layer probs
I0925 23:07:18.274236 22855 net.cpp:91] Creating Layer probs
I0925 23:07:18.274262 22855 net.cpp:425] probs <- predict
I0925 23:07:18.274291 22855 net.cpp:399] probs -> probs
I0925 23:07:18.276203 22855 net.cpp:141] Setting up probs
I0925 23:07:18.277619 22855 net.cpp:148] Top shape: 1 1 46168 (46168)
I0925 23:07:18.277657 22855 net.cpp:156] Memory required for data: 405756
I0925 23:07:18.277678 22855 net.cpp:219] probs does not need backward computation.
I0925 23:07:18.277694 22855 net.cpp:219] predict does not need backward computation.
I0925 23:07:18.277740 22855 net.cpp:219] lstm2 does not need backward computation.
I0925 23:07:18.277757 22855 net.cpp:219] concat does not need backward computation.
I0925 23:07:18.277772 22855 net.cpp:219] lstm1 does not need backward computation.
I0925 23:07:18.277786 22855 net.cpp:219] embedding does not need backward computation.
I0925 23:07:18.277801 22855 net.cpp:219] reshape_stage_indicator does not need backward computation.
I0925 23:07:18.277812 22855 net.cpp:219] reshape_frames does not need backward computation.
I0925 23:07:18.277823 22855 net.cpp:219] embed_encoder does not need backward computation.
I0925 23:07:18.277838 22855 net.cpp:219] cont_sentence_input_1_split does not need backward computation.
I0925 23:07:18.277854 22855 net.cpp:219] input does not need backward computation.
I0925 23:07:18.277864 22855 net.cpp:261] This network produces output probs
I0925 23:07:18.277902 22855 net.cpp:274] Network initialization done.
I0925 23:07:18.307170 22829 net.cpp:141] Setting up predict
I0925 23:07:18.307248 22829 net.cpp:148] Top shape: 1 1 46168 (46168)
I0925 23:07:18.307260 22829 net.cpp:156] Memory required for data: 221084
I0925 23:07:18.307288 22829 layer_factory.hpp:77] Creating layer probs
I0925 23:07:18.307318 22829 net.cpp:91] Creating Layer probs
I0925 23:07:18.307338 22829 net.cpp:425] probs <- predict
I0925 23:07:18.307359 22829 net.cpp:399] probs -> probs
I0925 23:07:18.308418 22829 net.cpp:141] Setting up probs
I0925 23:07:18.308485 22829 net.cpp:148] Top shape: 1 1 46168 (46168)
I0925 23:07:18.308496 22829 net.cpp:156] Memory required for data: 405756
I0925 23:07:18.308509 22829 net.cpp:219] probs does not need backward computation.
I0925 23:07:18.308521 22829 net.cpp:219] predict does not need backward computation.
I0925 23:07:18.308531 22829 net.cpp:219] lstm2 does not need backward computation.
I0925 23:07:18.308543 22829 net.cpp:219] concat does not need backward computation.
I0925 23:07:18.308554 22829 net.cpp:219] lstm1 does not need backward computation.
I0925 23:07:18.308565 22829 net.cpp:219] embedding does not need backward computation.
I0925 23:07:18.308574 22829 net.cpp:219] reshape_stage_indicator does not need backward computation.
I0925 23:07:18.308583 22829 net.cpp:219] reshape_frames does not need backward computation.
I0925 23:07:18.308591 22829 net.cpp:219] embed_encoder does not need backward computation.
I0925 23:07:18.308600 22829 net.cpp:219] cont_sentence_input_1_split does not need backward computation.
I0925 23:07:18.308610 22829 net.cpp:219] input does not need backward computation.
I0925 23:07:18.308617 22829 net.cpp:261] This network produces output probs
I0925 23:07:18.308651 22829 net.cpp:274] Network initialization done.
I0925 23:07:18.311679 22831 net.cpp:141] Setting up fc6
I0925 23:07:18.311738 22831 net.cpp:148] Top shape: 10 4096 (40960)
I0925 23:07:18.311744 22831 net.cpp:156] Memory required for data: 67782200
I0925 23:07:18.311759 22831 layer_factory.hpp:77] Creating layer relu6
I0925 23:07:18.311775 22831 net.cpp:91] Creating Layer relu6
I0925 23:07:18.311784 22831 net.cpp:425] relu6 <- fc6
I0925 23:07:18.311815 22831 net.cpp:386] relu6 -> fc6 (in-place)
I0925 23:07:18.312605 22831 net.cpp:141] Setting up relu6
I0925 23:07:18.312623 22831 net.cpp:148] Top shape: 10 4096 (40960)
I0925 23:07:18.312628 22831 net.cpp:156] Memory required for data: 67946040
I0925 23:07:18.312638 22831 layer_factory.hpp:77] Creating layer drop6
I0925 23:07:18.312665 22831 net.cpp:91] Creating Layer drop6
I0925 23:07:18.312670 22831 net.cpp:425] drop6 <- fc6
I0925 23:07:18.312693 22831 net.cpp:386] drop6 -> fc6 (in-place)
I0925 23:07:18.312793 22831 net.cpp:141] Setting up drop6
I0925 23:07:18.312806 22831 net.cpp:148] Top shape: 10 4096 (40960)
I0925 23:07:18.312810 22831 net.cpp:156] Memory required for data: 68109880
I0925 23:07:18.312815 22831 layer_factory.hpp:77] Creating layer fc7
I0925 23:07:18.312825 22831 net.cpp:91] Creating Layer fc7
I0925 23:07:18.312830 22831 net.cpp:425] fc7 <- fc6
I0925 23:07:18.312837 22831 net.cpp:399] fc7 -> fc7
I0925 23:07:18.363793 22831 net.cpp:141] Setting up fc7
I0925 23:07:18.363850 22831 net.cpp:148] Top shape: 10 4096 (40960)
I0925 23:07:18.363857 22831 net.cpp:156] Memory required for data: 68273720
I0925 23:07:18.363873 22831 layer_factory.hpp:77] Creating layer relu7
I0925 23:07:18.364307 22831 net.cpp:91] Creating Layer relu7
I0925 23:07:18.364326 22831 net.cpp:425] relu7 <- fc7
I0925 23:07:18.364337 22831 net.cpp:386] relu7 -> fc7 (in-place)
I0925 23:07:18.365250 22831 net.cpp:141] Setting up relu7
I0925 23:07:18.365281 22831 net.cpp:148] Top shape: 10 4096 (40960)
I0925 23:07:18.365288 22831 net.cpp:156] Memory required for data: 68437560
I0925 23:07:18.365294 22831 layer_factory.hpp:77] Creating layer drop7
I0925 23:07:18.365792 22831 net.cpp:91] Creating Layer drop7
I0925 23:07:18.365813 22831 net.cpp:425] drop7 <- fc7
I0925 23:07:18.365826 22831 net.cpp:386] drop7 -> fc7 (in-place)
I0925 23:07:18.365937 22831 net.cpp:141] Setting up drop7
I0925 23:07:18.365948 22831 net.cpp:148] Top shape: 10 4096 (40960)
I0925 23:07:18.365953 22831 net.cpp:156] Memory required for data: 68601400
I0925 23:07:18.365958 22831 layer_factory.hpp:77] Creating layer fc8
I0925 23:07:18.365978 22831 net.cpp:91] Creating Layer fc8
I0925 23:07:18.365983 22831 net.cpp:425] fc8 <- fc7
I0925 23:07:18.366359 22831 net.cpp:399] fc8 -> fc8
I0925 23:07:18.379947 22831 net.cpp:141] Setting up fc8
I0925 23:07:18.380007 22831 net.cpp:148] Top shape: 10 1000 (10000)
I0925 23:07:18.380014 22831 net.cpp:156] Memory required for data: 68641400
I0925 23:07:18.380031 22831 layer_factory.hpp:77] Creating layer prob
I0925 23:07:18.380050 22831 net.cpp:91] Creating Layer prob
I0925 23:07:18.380058 22831 net.cpp:425] prob <- fc8
I0925 23:07:18.380066 22831 net.cpp:399] prob -> prob
I0925 23:07:18.380810 22831 net.cpp:141] Setting up prob
I0925 23:07:18.380826 22831 net.cpp:148] Top shape: 10 1000 (10000)
I0925 23:07:18.380832 22831 net.cpp:156] Memory required for data: 68681400
I0925 23:07:18.380837 22831 net.cpp:219] prob does not need backward computation.
I0925 23:07:18.380842 22831 net.cpp:219] fc8 does not need backward computation.
I0925 23:07:18.380847 22831 net.cpp:219] drop7 does not need backward computation.
I0925 23:07:18.380851 22831 net.cpp:219] relu7 does not need backward computation.
…
