…
Java HotSpot(TM) 64-Bit Server VM warning: You have loaded library /tmp/cvld1211691177035483790/libopencv_java310.xine1.so which might have disabled stack guard. The VM will try to fix the stack guard now.
It's highly recommended that you fix the library with 'execstack -c <libfile>', or link it with '-z noexecstack'.
WARNING: Logging before InitGoogleLogging() is written to STDERR
I0713 13:52:15.988368  1794 net.cpp:49] Initializing net from parameters: 
name: "GoogleNet"
state {
  phase: TEST
}
layer {
  name: "data"
  type: "Input"
  top: "data"
  input_param {
    shape {
      dim: 10
      dim: 3
      dim: 224
      dim: 224
    }
  }
}
layer {
  name: "conv1/7x7_s2"
  type: "Convolution"
  bottom: "data"
  top: "conv1/7x7_s2"
  param {
    lr_mult: 1
    decay_mult: 1
  }
  param {
    lr_mult: 2
    decay_mult: 0
  }
  convolution_param {
    num_output: 64
    pad: 3
    kernel_size: 7
    stride: 2
    weight_filler {
      type: "xavier"
      std: 0.1
    }
    bias_filler {
      type: "constant"
      value: 0.2
    }
  }
}
layer {
  name: "conv1/relu_7x7"
  type: "ReLU"
  bottom: "conv1/7x7_s2"
  top: "conv1/7x7_s2"
}
layer {
  name: "pool1/3x3_s2"
  type: "Pooling"
  bottom: "conv1/7x7_s2"
  top: "pool1/3x3_s2"
  pooling_param {
    pool: MAX
    kernel_size: 3
    stride: 2
  }
}
layer {
  name: "pool1/norm1"
  type: "LRN"
  bottom: "pool1/3x3_s2"
  top: "pool1/norm1"
  lrn_param {
    local_size: 5
    alpha: 0.0001
    beta: 0.75
  }
}
layer {
  name: "conv2/3x3_reduce"
  type: "Convolution"
  bottom: "pool1/norm1"
  top: "conv2/3x3_reduce"
  param {
    lr_mult: 1
    decay_mult: 1
  }
  param {
    lr_mult: 2
    decay_mult: 0
  }
  convolution_param {
    num_output: 64
    kernel_size: 1
    weight_filler {
      type: "xavier"
      std: 0.1
    }
    bias_filler {
      type: "constant"
      value: 0.2
    }
  }
}
layer {
  name: "conv2/relu_3x3_reduce"
  type: "ReLU"
  bottom: "conv2/3x3_reduce"
  top: "conv2/3x3_reduce"
}
layer {
  name: "conv2/3x3"
  type: "Convolution"
  bottom: "conv2/3x3_reduce"
  top: "conv2/3x3"
  param {
    lr_mult: 1
    decay_mult: 1
  }
  param {
    lr_mult: 2
    decay_mult: 0
  }
  convolution_param {
    num_output: 192
    pad: 1
    kernel_size: 3
    weight_filler {
      type: "xavier"
      std: 0.03
    }
    bias_filler {
      type: "constant"
      value: 0.2
    }
  }
}
layer {
  name: "conv2/relu_3x3"
  type: "ReLU"
  bottom: "conv2/3x3"
  top: "conv2/3x3"
}
layer {
  name: "conv2/norm2"
  type: "LRN"
  bottom: "conv2/3x3"
  top: "conv2/norm2"
  lrn_param {
    local_size: 5
    alpha: 0.0001
    beta: 0.75
  }
}
layer {
  name: "pool2/3x3_s2"
  type: "Pooling"
  bottom: "conv2/norm2"
  top: "pool2/3x3_s2"
  pooling_param {
    pool: MAX
    kernel_size: 3
    stride: 2
  }
}
layer {
  name: "inception_3a/1x1"
  type: "Convolution"
  bottom: "pool2/3x3_s2"
  top: "inception_3a/1x1"
  param {
    lr_mult: 1
    decay_mult: 1
  }
  param {
    lr_mult: 2
    decay_mult: 0
  }
  convolution_param {
    num_output: 64
    kernel_size: 1
    weight_filler {
      type: "xavier"
      std: 0.03
    }
    bias_filler {
      type: "constant"
      value: 0.2
    }
  }
}
layer {
  name: "inception_3a/relu_1x1"
  type: "ReLU"
  bottom: "inception_3a/1x1"
  top: "inception_3a/1x1"
}
layer {
  name: "inception_3a/3x3_reduce"
  type: "Convolution"
  bottom: "pool2/3x3_s2"
  top: "inception_3a/3x3_reduce"
  param {
    lr_mult: 1
    decay_mult: 1
  }
  param {
    lr_mult: 2
    decay_mult: 0
  }
  convolution_param {
    num_output: 96
    kernel_size: 1
    weight_filler {
      type: "xavier"
      std: 0.09
    }
    bias_filler {
      type: "constant"
      value: 0.2
    }
  }
}
layer {
  name: "inception_3a/relu_3x3_reduce"
  type: "ReLU"
  bottom: "inception_3a/3x3_reduce"
  top: "inception_3a/3x3_reduce"
}
layer {
  name: "inception_3a/3x3"
  type: "Convolution"
  bottom: "inception_3a/3x3_reduce"
  top: "inception_3a/3x3"
  param {
    lr_mult: 1
    decay_mult: 1
  }
  param {
    lr_mult: 2
    decay_mult: 0
  }
  convolution_param {
    num_output: 128
    pad: 1
    kernel_size: 3
    weight_filler {
      type: "xavier"
      std: 0.03
    }
    bias_filler {
      type: "constant"
      value: 0.2
    }
  }
}
layer {
  name: "inception_3a/relu_3x3"
  type: "ReLU"
  bottom: "inception_3a/3x3"
  top: "inception_3a/3x3"
}
layer {
  name: "inception_3a/5x5_reduce"
  type: "Convolution"
  bottom: "pool2/3x3_s2"
  top: "inception_3a/5x5_reduce"
  param {
    lr_mult: 1
    decay_mult: 1
  }
  param {
    lr_mult: 2
    decay_mult: 0
  }
  convolution_param {
    num_output: 16
    kernel_size: 1
    weight_filler {
      type: "xavier"
      std: 0.2
    }
    bias_filler {
      type: "constant"
      value: 0.2
    }
  }
}
layer {
  name: "inception_3a/relu_5x5_reduce"
  type: "ReLU"
  bottom: "inception_3a/5x5_reduce"
  top: "inception_3a/5x5_reduce"
}
layer {
  name: "inception_3a/5x5"
  type: "Convolution"
  bottom: "inception_3a/5x5_reduce"
  top: "inception_3a/5x5"
  param {
    lr_mult: 1
    decay_mult: 1
  }
  param {
    lr_mult: 2
    decay_mult: 0
  }
  convolution_param {
    num_output: 32
    pad: 2
    kernel_size: 5
    weight_filler {
      type: "xavier"
      std: 0.03
    }
    bias_filler {
      type: "constant"
      value: 0.2
    }
  }
}
layer {
  name: "inception_3a/relu_5x5"
  type: "ReLU"
  bottom: "inception_3a/5x5"
  top: "inception_3a/5x5"
}
layer {
  name: "inception_3a/pool"
  type: "Pooling"
  bottom: "pool2/3x3_s2"
  top: "inception_3a/pool"
  pooling_param {
    pool: MAX
    kernel_size: 3
    stride: 1
    pad: 1
  }
}
layer {
  name: "inception_3a/pool_proj"
  type: "Convolution"
  bottom: "inception_3a/pool"
  top: "inception_3a/pool_proj"
  param {
    lr_mult: 1
    decay_mult: 1
  }
  param {
    lr_mult: 2
    decay_mult: 0
  }
  convolution_param {
    num_output: 32
    kernel_size: 1
    weight_filler {
      type: "xavier"
      std: 0.1
    }
    bias_filler {
      type: "constant"
      value: 0.2
    }
  }
}
layer {
  name: "inception_3a/relu_pool_proj"
  type: "ReLU"
  bottom: "inception_3a/pool_proj"
  top: "inception_3a/pool_proj"
}
layer {
  name: "inception_3a/output"
  type: "Concat"
  bottom: "inception_3a/1x1"
  bottom: "inception_3a/3x3"
  bottom: "inception_3a/5x5"
  bottom: "inception_3a/pool_proj"
  top: "inception_3a/output"
}
layer {
  name: "inception_3b/1x1"
  type: "Convolution"
  bottom: "inception_3a/output"
  top: "inception_3b/1x1"
  param {
    lr_mult: 1
    decay_mult: 1
  }
  param {
    lr_mult: 2
    decay_mult: 0
  }
  convolution_param {
    num_output: 128
    kernel_size: 1
    weight_filler {
      type: "xavier"
      std: 0.03
    }
    bias_filler {
      type: "constant"
      value: 0.2
    }
  }
}
layer {
  name: "inception_3b/relu_1x1"
  type: "ReLU"
  bottom: "inception_3b/1x1"
  top: "inception_3b/1x1"
}
layer {
  name: "inception_3b/3x3_reduce"
  type: "Convolution"
  bottom: "inception_3a/output"
  top: "inception_3b/3x3_reduce"
  param {
    lr_mult: 1
    decay_mult: 1
  }
  param {
    lr_mult: 2
    decay_mult: 0
  }
  convolution_param {
    num_output: 128
    kernel_size: 1
    weight_filler {
      type: "xavier"
      std: 0.09
    }
    bias_filler {
      type: "constant"
      value: 0.2
    }
  }
}
layer {
  name: "inception_3b/relu_3x3_reduce"
  type: "ReLU"
  bottom: "inception_3b/3x3_reduce"
  top: "inception_3b/3x3_reduce"
}
layer {
  name: "inception_3b/3x3"
  type: "Convolution"
  bottom: "inception_3b/3x3_reduce"
  top: "inception_3b/3x3"
  param {
    lr_mult: 1
    decay_mult: 1
  }
  param {
    lr_mult: 2
    decay_mult: 0
  }
  convolution_param {
    num_output: 192
    pad: 1
    kernel_size: 3
    weight_filler {
      type: "xavier"
      std: 0.03
    }
    bias_filler {
      type: "constant"
      value: 0.2
    }
  }
}
layer {
  name: "inception_3b/relu_3x3"
  type: "ReLU"
  bottom: "inception_3b/3x3"
  top: "inception_3b/3x3"
}
layer {
  name: "inception_3b/5x5_reduce"
  type: "Convolution"
  bottom: "inception_3a/output"
  top: "inception_3b/5x5_reduce"
  param {
    lr_mult: 1
    decay_mult: 1
  }
  param {
    lr_mult: 2
    decay_mult: 0
  }
  convolution_param {
    num_output: 32
    kernel_size: 1
    weight_filler {
      type: "xavier"
      std: 0.2
    }
    bias_filler {
      type: "constant"
      value: 0.2
    }
  }
}
layer {
  name: "inception_3b/relu_5x5_reduce"
  type: "ReLU"
  bottom: "inception_3b/5x5_reduce"
  top: "inception_3b/5x5_reduce"
}
layer {
  name: "inception_3b/5x5"
  type: "Convolution"
  bottom: "inception_3b/5x5_reduce"
  top: "inception_3b/5x5"
  param {
    lr_mult: 1
    decay_mult: 1
  }
  param {
    lr_mult: 2
    decay_mult: 0
  }
  convolution_param {
    num_output: 96
    pad: 2
    kernel_size: 5
    weight_filler {
      type: "xavier"
      std: 0.03
    }
    bias_filler {
      type: "constant"
      value: 0.2
    }
  }
}
layer {
  name: "inception_3b/relu_5x5"
  type: "ReLU"
  bottom: "inception_3b/5x5"
  top: "inception_3b/5x5"
}
layer {
  name: "inception_3b/pool"
  type: "Pooling"
  bottom: "inception_3a/output"
  top: "inception_3b/pool"
  pooling_param {
    pool: MAX
    kernel_size: 3
    stride: 1
    pad: 1
  }
}
layer {
  name: "inception_3b/pool_proj"
  type: "Convolution"
  bottom: "inception_3b/pool"
  top: "inception_3b/pool_proj"
  param {
    lr_mult: 1
    decay_mult: 1
  }
  param {
    lr_mult: 2
    decay_mult: 0
  }
  convolution_param {
    num_output: 64
    kernel_size: 1
    weight_filler {
      type: "xavier"
      std: 0.1
    }
    bias_filler {
      type: "constant"
      value: 0.2
    }
  }
}
layer {
  name: "inception_3b/relu_pool_proj"
  type: "ReLU"
  bottom: "inception_3b/pool_proj"
  top: "inception_3b/pool_proj"
}
layer {
  name: "inception_3b/output"
  type: "Concat"
  bottom: "inception_3b/1x1"
  bottom: "inception_3b/3x3"
  bottom: "inception_3b/5x5"
  bottom: "inception_3b/pool_proj"
  top: "inception_3b/output"
}
layer {
  name: "pool3/3x3_s2"
  type: "Pooling"
  bottom: "inception_3b/output"
  top: "pool3/3x3_s2"
  pooling_param {
    pool: MAX
    kernel_size: 3
    stride: 2
  }
}
layer {
  name: "inception_4a/1x1"
  type: "Convolution"
  bottom: "pool3/3x3_s2"
  top: "inception_4a/1x1"
  param {
    lr_mult: 1
    decay_mult: 1
  }
  param {
    lr_mult: 2
    decay_mult: 0
  }
  convolution_param {
    num_output: 192
    kernel_size: 1
    weight_filler {
      type: "xavier"
      std: 0.03
    }
    bias_filler {
      type: "constant"
      value: 0.2
    }
  }
}
layer {
  name: "inception_4a/relu_1x1"
  type: "ReLU"
  bottom: "inception_4a/1x1"
  top: "inception_4a/1x1"
}
layer {
  name: "inception_4a/3x3_reduce"
  type: "Convolution"
  bottom: "pool3/3x3_s2"
  top: "inception_4a/3x3_reduce"
  param {
    lr_mult: 1
    decay_mult: 1
  }
  param {
    lr_mult: 2
    decay_mult: 0
  }
  convolution_param {
    num_output: 96
    kernel_size: 1
    weight_filler {
      type: "xavier"
      std: 0.09
    }
    bias_filler {
      type: "constant"
      value: 0.2
    }
  }
}
layer {
  name: "inception_4a/relu_3x3_reduce"
  type: "ReLU"
  bottom: "inception_4a/3x3_reduce"
  top: "inception_4a/3x3_reduce"
}
layer {
  name: "inception_4a/3x3"
  type: "Convolution"
  bottom: "inception_4a/3x3_reduce"
  top: "inception_4a/3x3"
  param {
    lr_mult: 1
    decay_mult: 1
  }
  param {
    lr_mult: 2
    decay_mult: 0
  }
  convolution_param {
    num_output: 208
    pad: 1
    kernel_size: 3
    weight_filler {
      type: "xavier"
      std: 0.03
    }
    bias_filler {
      type: "constant"
      value: 0.2
    }
  }
}
layer {
  name: "inception_4a/relu_3x3"
  type: "ReLU"
  bottom: "inception_4a/3x3"
  top: "inception_4a/3x3"
}
layer {
  name: "inception_4a/5x5_reduce"
  type: "Convolution"
  bottom: "pool3/3x3_s2"
  top: "inception_4a/5x5_reduce"
  param {
    lr_mult: 1
    decay_mult: 1
  }
  param {
    lr_mult: 2
    decay_mult: 0
  }
  convolution_param {
    num_output: 16
    kernel_size: 1
    weight_filler {
      type: "xavier"
      std: 0.2
    }
    bias_filler {
      type: "constant"
      value: 0.2
    }
  }
}
layer {
  name: "inception_4a/relu_5x5_reduce"
  type: "ReLU"
  bottom: "inception_4a/5x5_reduce"
  top: "inception_4a/5x5_reduce"
}
layer {
  name: "inception_4a/5x5"
  type: "Convolution"
  bottom: "inception_4a/5x5_reduce"
  top: "inception_4a/5x5"
  param {
    lr_mult: 1
    decay_mult: 1
  }
  param {
    lr_mult: 2
    decay_mult: 0
  }
  convolution_param {
    num_output: 48
    pad: 2
    kernel_size: 5
    weight_filler {
      type: "xavier"
      std: 0.03
    }
    bias_filler {
      type: "constant"
      value: 0.2
    }
  }
}
layer {
  name: "inception_4a/relu_5x5"
  type: "ReLU"
  bottom: "inception_4a/5x5"
  top: "inception_4a/5x5"
}
layer {
  name: "inception_4a/pool"
  type: "Pooling"
  bottom: "pool3/3x3_s2"
  top: "inception_4a/pool"
  pooling_param {
    pool: MAX
    kernel_size: 3
    stride: 1
    pad: 1
  }
}
layer {
  name: "inception_4a/pool_proj"
  type: "Convolution"
  bottom: "inception_4a/pool"
  top: "inception_4a/pool_proj"
  param {
    lr_mult: 1
    decay_mult: 1
  }
  param {
    lr_mult: 2
    decay_mult: 0
  }
  convolution_param {
    num_output: 64
    kernel_size: 1
    weight_filler {
      type: "xavier"
      std: 0.1
    }
    bias_filler {
      type: "constant"
      value: 0.2
    }
  }
}
layer {
  name: "inception_4a/relu_pool_proj"
  type: "ReLU"
  bottom: "inception_4a/pool_proj"
  top: "inception_4a/pool_proj"
}
layer {
  name: "inception_4a/output"
  type: "Concat"
  bottom: "inception_4a/1x1"
  bottom: "inception_4a/3x3"
  bottom: "inception_4a/5x5"
  bottom: "inception_4a/pool_proj"
  top: "inception_4a/output"
}
layer {
  name: "inception_4b/1x1"
  type: "Convolution"
  bottom: "inception_4a/output"
  top: "inception_4b/1x1"
  param {
    lr_mult: 1
    decay_mult: 1
  }
  param {
    lr_mult: 2
    decay_mult: 0
  }
  convolution_param {
    num_output: 160
    kernel_size: 1
    weight_filler {
      type: "xavier"
      std: 0.03
    }
    bias_filler {
      type: "constant"
      value: 0.2
    }
  }
}
layer {
  name: "inception_4b/relu_1x1"
  type: "ReLU"
  bottom: "inception_4b/1x1"
  top: "inception_4b/1x1"
}
layer {
  name: "inception_4b/3x3_reduce"
  type: "Convolution"
  bottom: "inception_4a/output"
  top: "inception_4b/3x3_reduce"
  param {
    lr_mult: 1
    decay_mult: 1
  }
  param {
    lr_mult: 2
    decay_mult: 0
  }
  convolution_param {
    num_output: 112
    kernel_size: 1
    weight_filler {
      type: "xavier"
      std: 0.09
    }
    bias_filler {
      type: "constant"
      value: 0.2
    }
  }
}
layer {
  name: "inception_4b/relu_3x3_reduce"
  type: "ReLU"
  bottom: "inception_4b/3x3_reduce"
  top: "inception_4b/3x3_reduce"
}
layer {
  name: "inception_4b/3x3"
  type: "Convolution"
  bottom: "inception_4b/3x3_reduce"
  top: "inception_4b/3x3"
  param {
    lr_mult: 1
    decay_mult: 1
  }
  param {
    lr_mult: 2
    decay_mult: 0
  }
  convolution_param {
    num_output: 224
    pad: 1
    kernel_size: 3
    weight_filler {
      type: "xavier"
      std: 0.03
    }
    bias_filler {
      type: "constant"
      value: 0.2
    }
  }
}
layer {
  name: "inception_4b/relu_3x3"
  type: "ReLU"
  bottom: "inception_4b/3x3"
  top: "inception_4b/3x3"
}
layer {
  name: "inception_4b/5x5_reduce"
  type: "Convolution"
  bottom: "inception_4a/output"
  top: "inception_4b/5x5_reduce"
  param {
    lr_mult: 1
    decay_mult: 1
  }
  param {
    lr_mult: 2
    decay_mult: 0
  }
  convolution_param {
    num_output: 24
    kernel_size: 1
    weight_filler {
      type: "xavier"
      std: 0.2
    }
    bias_filler {
      type: "constant"
      value: 0.2
    }
  }
}
layer {
  name: "inception_4b/relu_5x5_reduce"
  type: "ReLU"
  bottom: "inception_4b/5x5_reduce"
  top: "inception_4b/5x5_reduce"
}
layer {
  name: "inception_4b/5x5"
  type: "Convolution"
  bottom: "inception_4b/5x5_reduce"
  top: "inception_4b/5x5"
  param {
    lr_mult: 1
    decay_mult: 1
  }
  param {
    lr_mult: 2
    decay_mult: 0
  }
  convolution_param {
    num_output: 64
    pad: 2
    kernel_size: 5
    weight_filler {
      type: "xavier"
      std: 0.03
    }
    bias_filler {
      type: "constant"
      value: 0.2
    }
  }
}
layer {
  name: "inception_4b/relu_5x5"
  type: "ReLU"
  bottom: "inception_4b/5x5"
  top: "inception_4b/5x5"
}
layer {
  name: "inception_4b/pool"
  type: "Pooling"
  bottom: "inception_4a/output"
  top: "inception_4b/pool"
  pooling_param {
    pool: MAX
    kernel_size: 3
    stride: 1
    pad: 1
  }
}
layer {
  name: "inception_4b/pool_proj"
  type: "Convolution"
  bottom: "inception_4b/pool"
  top: "inception_4b/pool_proj"
  param {
    lr_mult: 1
    decay_mult: 1
  }
  param {
    lr_mult: 2
    decay_mult: 0
  }
  convolution_param {
    num_output: 64
    kernel_size: 1
    weight_filler {
      type: "xavier"
      std: 0.1
    }
    bias_filler {
      type: "constant"
      value: 0.2
    }
  }
}
layer {
  name: "inception_4b/relu_pool_proj"
  type: "ReLU"
  bottom: "inception_4b/pool_proj"
  top: "inception_4b/pool_proj"
}
layer {
  name: "inception_4b/output"
  type: "Concat"
  bottom: "inception_4b/1x1"
  bottom: "inception_4b/3x3"
  bottom: "inception_4b/5x5"
  bottom: "inception_4b/pool_proj"
  top: "inception_4b/output"
}
layer {
  name: "inception_4c/1x1"
  type: "Convolution"
  bottom: "inception_4b/output"
  top: "inception_4c/1x1"
  param {
    lr_mult: 1
    decay_mult: 1
  }
  param {
    lr_mult: 2
    decay_mult: 0
  }
  convolution_param {
    num_output: 128
    kernel_size: 1
    weight_filler {
      type: "xavier"
      std: 0.03
    }
    bias_filler {
      type: "constant"
      value: 0.2
    }
  }
}
layer {
  name: "inception_4c/relu_1x1"
  type: "ReLU"
  bottom: "inception_4c/1x1"
  top: "inception_4c/1x1"
}
layer {
  name: "inception_4c/3x3_reduce"
  type: "Convolution"
  bottom: "inception_4b/output"
  top: "inception_4c/3x3_reduce"
  param {
    lr_mult: 1
    decay_mult: 1
  }
  param {
    lr_mult: 2
    decay_mult: 0
  }
  convolution_param {
    num_output: 128
    kernel_size: 1
    weight_filler {
      type: "xavier"
      std: 0.09
    }
    bias_filler {
      type: "constant"
      value: 0.2
    }
  }
}
layer {
  name: "inception_4c/relu_3x3_reduce"
  type: "ReLU"
  bottom: "inception_4c/3x3_reduce"
  top: "inception_4c/3x3_reduce"
}
layer {
  name: "inception_4c/3x3"
  type: "Convolution"
  bottom: "inception_4c/3x3_reduce"
  top: "inception_4c/3x3"
  param {
    lr_mult: 1
    decay_mult: 1
  }
  param {
    lr_mult: 2
    decay_mult: 0
  }
  convolution_param {
    num_output: 256
    pad: 1
    kernel_size: 3
    weight_filler {
      type: "xavier"
      std: 0.03
    }
    bias_filler {
      type: "constant"
      value: 0.2
    }
  }
}
layer {
  name: "inception_4c/relu_3x3"
  type: "ReLU"
  bottom: "inception_4c/3x3"
  top: "inception_4c/3x3"
}
layer {
  name: "inception_4c/5x5_reduce"
  type: "Convolution"
  bottom: "inception_4b/output"
  top: "inception_4c/5x5_reduce"
  param {
    lr_mult: 1
    decay_mult: 1
  }
  param {
    lr_mult: 2
    decay_mult: 0
  }
  convolution_param {
    num_output: 24
    kernel_size: 1
    weight_filler {
      type: "xavier"
      std: 0.2
    }
    bias_filler {
      type: "constant"
      value: 0.2
    }
  }
}
layer {
  name: "inception_4c/relu_5x5_reduce"
  type: "ReLU"
  bottom: "inception_4c/5x5_reduce"
  top: "inception_4c/5x5_reduce"
}
layer {
  name: "inception_4c/5x5"
  type: "Convolution"
  bottom: "inception_4c/5x5_reduce"
  top: "inception_4c/5x5"
  param {
    lr_mult: 1
    decay_mult: 1
  }
  param {
    lr_mult: 2
    decay_mult: 0
  }
  convolution_param {
    num_output: 64
    pad: 2
    kernel_size: 5
    weight_filler {
      type: "xavier"
      std: 0.03
    }
    bias_filler {
      type: "constant"
      value: 0.2
    }
  }
}
layer {
  name: "inception_4c/relu_5x5"
  type: "ReLU"
  bottom: "inception_4c/5x5"
  top: "inception_4c/5x5"
}
layer {
  name: "inception_4c/pool"
  type: "Pooling"
  bottom: "inception_4b/output"
  top: "inception_4c/pool"
  pooling_param {
    pool: MAX
    kernel_size: 3
    stride: 1
    pad: 1
  }
}
layer {
  name: "inception_4c/pool_proj"
  type: "Convolution"
  bottom: "inception_4c/pool"
  top: "inception_4c/pool_proj"
  param {
    lr_mult: 1
    decay_mult: 1
  }
  param {
    lr_mult: 2
    decay_mult: 0
  }
  convolution_param {
    num_output: 64
    kernel_size: 1
    weight_filler {
      type: "xavier"
      std: 0.1
    }
    bias_filler {
      type: "constant"
      value: 0.2
    }
  }
}
layer {
  name: "inception_4c/relu_pool_proj"
  type: "ReLU"
  bottom: "inception_4c/pool_proj"
  top: "inception_4c/pool_proj"
}
layer {
  name: "inception_4c/output"
  type: "Concat"
  bottom: "inception_4c/1x1"
  bottom: "inception_4c/3x3"
  bottom: "inception_4c/5x5"
  bottom: "inception_4c/pool_proj"
  top: "inception_4c/output"
}
layer {
  name: "inception_4d/1x1"
  type: "Convolution"
  bottom: "inception_4c/output"
  top: "inception_4d/1x1"
  param {
    lr_mult: 1
    decay_mult: 1
  }
  param {
    lr_mult: 2
    decay_mult: 0
  }
  convolution_param {
    num_output: 112
    kernel_size: 1
    weight_filler {
      type: "xavier"
      std: 0.03
    }
    bias_filler {
      type: "constant"
      value: 0.2
    }
  }
}
layer {
  name: "inception_4d/relu_1x1"
  type: "ReLU"
  bottom: "inception_4d/1x1"
  top: "inception_4d/1x1"
}
layer {
  name: "inception_4d/3x3_reduce"
  type: "Convolution"
  bottom: "inception_4c/output"
  top: "inception_4d/3x3_reduce"
  param {
    lr_mult: 1
    decay_mult: 1
  }
  param {
    lr_mult: 2
    decay_mult: 0
  }
  convolution_param {
    num_output: 144
    kernel_size: 1
    weight_filler {
      type: "xavier"
      std: 0.09
    }
    bias_filler {
      type: "constant"
      value: 0.2
    }
  }
}
layer {
  name: "inception_4d/relu_3x3_reduce"
  type: "ReLU"
  bottom: "inception_4d/3x3_reduce"
  top: "inception_4d/3x3_reduce"
}
layer {
  name: "inception_4d/3x3"
  type: "Convolution"
  bottom: "inception_4d/3x3_reduce"
  top: "inception_4d/3x3"
  param {
    lr_mult: 1
    decay_mult: 1
  }
  param {
    lr_mult: 2
    decay_mult: 0
  }
  convolution_param {
    num_output: 288
    pad: 1
    kernel_size: 3
    weight_filler {
      type: "xavier"
      std: 0.03
    }
    bias_filler {
      type: "constant"
      value: 0.2
    }
  }
}
layer {
  name: "inception_4d/relu_3x3"
  type: "ReLU"
  bottom: "inception_4d/3x3"
  top: "inception_4d/3x3"
}
layer {
  name: "inception_4d/5x5_reduce"
  type: "Convolution"
  bottom: "inception_4c/output"
  top: "inception_4d/5x5_reduce"
  param {
    lr_mult: 1
    decay_mult: 1
  }
  param {
    lr_mult: 2
    decay_mult: 0
  }
  convolution_param {
    num_output: 32
    kernel_size: 1
    weight_filler {
      type: "xavier"
      std: 0.2
    }
    bias_filler {
      type: "constant"
      value: 0.2
    }
  }
}
layer {
  name: "inception_4d/relu_5x5_reduce"
  type: "ReLU"
  bottom: "inception_4d/5x5_reduce"
  top: "inception_4d/5x5_reduce"
}
layer {
  name: "inception_4d/5x5"
  type: "Convolution"
  bottom: "inception_4d/5x5_reduce"
  top: "inception_4d/5x5"
  param {
    lr_mult: 1
    decay_mult: 1
  }
  param {
    lr_mult: 2
    decay_mult: 0
  }
  convolution_param {
    num_output: 64
    pad: 2
    kernel_size: 5
    weight_filler {
      type: "xavier"
      std: 0.03
    }
    bias_filler {
      type: "constant"
      value: 0.2
    }
  }
}
layer {
  name: "inception_4d/relu_5x5"
  type: "ReLU"
  bottom: "inception_4d/5x5"
  top: "inception_4d/5x5"
}
layer {
  name: "inception_4d/pool"
  type: "Pooling"
  bottom: "inception_4c/output"
  top: "inception_4d/pool"
  pooling_param {
    pool: MAX
    kernel_size: 3
    stride: 1
    pad: 1
  }
}
layer {
  name: "inception_4d/pool_proj"
  type: "Convolution"
  bottom: "inception_4d/pool"
  top: "inception_4d/pool_proj"
  param {
    lr_mult: 1
    decay_mult: 1
  }
  param {
    lr_mult: 2
    decay_mult: 0
  }
  convolution_param {
    num_output: 64
    kernel_size: 1
    weight_filler {
      type: "xavier"
      std: 0.1
    }
    bias_filler {
      type: "constant"
      value: 0.2
    }
  }
}
layer {
  name: "inception_4d/relu_pool_proj"
  type: "ReLU"
  bottom: "inception_4d/pool_proj"
  top: "inception_4d/pool_proj"
}
layer {
  name: "inception_4d/output"
  type: "Concat"
  bottom: "inception_4d/1x1"
  bottom: "inception_4d/3x3"
  bottom: "inception_4d/5x5"
  bottom: "inception_4d/pool_proj"
  top: "inception_4d/output"
}
layer {
  name: "inception_4e/1x1"
  type: "Convolution"
  bottom: "inception_4d/output"
  top: "inception_4e/1x1"
  param {
    lr_mult: 1
    decay_mult: 1
  }
  param {
    lr_mult: 2
    decay_mult: 0
  }
  convolution_param {
    num_output: 256
    kernel_size: 1
    weight_filler {
      type: "xavier"
      std: 0.03
    }
    bias_filler {
      type: "constant"
      value: 0.2
    }
  }
}
layer {
  name: "inception_4e/relu_1x1"
  type: "ReLU"
  bottom: "inception_4e/1x1"
  top: "inception_4e/1x1"
}
layer {
  name: "inception_4e/3x3_reduce"
  type: "Convolution"
  bottom: "inception_4d/output"
  top: "inception_4e/3x3_reduce"
  param {
    lr_mult: 1
    decay_mult: 1
  }
  param {
    lr_mult: 2
    decay_mult: 0
  }
  convolution_param {
    num_output: 160
    kernel_size: 1
    weight_filler {
      type: "xavier"
      std: 0.09
    }
    bias_filler {
      type: "constant"
      value: 0.2
    }
  }
}
layer {
  name: "inception_4e/relu_3x3_reduce"
  type: "ReLU"
  bottom: "inception_4e/3x3_reduce"
  top: "inception_4e/3x3_reduce"
}
layer {
  name: "inception_4e/3x3"
  type: "Convolution"
  bottom: "inception_4e/3x3_reduce"
  top: "inception_4e/3x3"
  param {
    lr_mult: 1
    decay_mult: 1
  }
  param {
    lr_mult: 2
    decay_mult: 0
  }
  convolution_param {
    num_output: 320
    pad: 1
    kernel_size: 3
    weight_filler {
      type: "xavier"
      std: 0.03
    }
    bias_filler {
      type: "constant"
      value: 0.2
    }
  }
}
layer {
  name: "inception_4e/relu_3x3"
  type: "ReLU"
  bottom: "inception_4e/3x3"
  top: "inception_4e/3x3"
}
layer {
  name: "inception_4e/5x5_reduce"
  type: "Convolution"
  bottom: "inception_4d/output"
  top: "inception_4e/5x5_reduce"
  param {
    lr_mult: 1
    decay_mult: 1
  }
  param {
    lr_mult: 2
    decay_mult: 0
  }
  convolution_param {
    num_output: 32
    kernel_size: 1
    weight_filler {
      type: "xavier"
      std: 0.2
    }
    bias_filler {
      type: "constant"
      value: 0.2
    }
  }
}
layer {
  name: "inception_4e/relu_5x5_reduce"
  type: "ReLU"
  bottom: "inception_4e/5x5_reduce"
  top: "inception_4e/5x5_reduce"
}
layer {
  name: "inception_4e/5x5"
  type: "Convolution"
  bottom: "inception_4e/5x5_reduce"
  top: "inception_4e/5x5"
  param {
    lr_mult: 1
    decay_mult: 1
  }
  param {
    lr_mult: 2
    decay_mult: 0
  }
  convolution_param {
    num_output: 128
    pad: 2
    kernel_size: 5
    weight_filler {
      type: "xavier"
      std: 0.03
    }
    bias_filler {
      type: "constant"
      value: 0.2
    }
  }
}
layer {
  name: "inception_4e/relu_5x5"
  type: "ReLU"
  bottom: "inception_4e/5x5"
  top: "inception_4e/5x5"
}
layer {
  name: "inception_4e/pool"
  type: "Pooling"
  bottom: "inception_4d/output"
  top: "inception_4e/pool"
  pooling_param {
    pool: MAX
    kernel_size: 3
    stride: 1
    pad: 1
  }
}
layer {
  name: "inception_4e/pool_proj"
  type: "Convolution"
  bottom: "inception_4e/pool"
  top: "inception_4e/pool_proj"
  param {
    lr_mult: 1
    decay_mult: 1
  }
  param {
    lr_mult: 2
    decay_mult: 0
  }
  convolution_param {
    num_output: 128
    kernel_size: 1
    weight_filler {
      type: "xavier"
      std: 0.1
    }
    bias_filler {
      type: "constant"
      value: 0.2
    }
  }
}
layer {
  name: "inception_4e/relu_pool_proj"
  type: "ReLU"
  bottom: "inception_4e/pool_proj"
  top: "inception_4e/pool_proj"
}
layer {
  name: "inception_4e/output"
  type: "Concat"
  bottom: "inception_4e/1x1"
  bottom: "inception_4e/3x3"
  bottom: "inception_4e/5x5"
  bottom: "inception_4e/pool_proj"
  top: "inception_4e/output"
}
layer {
  name: "pool4/3x3_s2"
  type: "Pooling"
  bottom: "inception_4e/output"
  top: "pool4/3x3_s2"
  pooling_param {
    pool: MAX
    kernel_size: 3
    stride: 2
  }
}
layer {
  name: "inception_5a/1x1"
  type: "Convolution"
  bottom: "pool4/3x3_s2"
  top: "inception_5a/1x1"
  param {
    lr_mult: 1
    decay_mult: 1
  }
  param {
    lr_mult: 2
    decay_mult: 0
  }
  convolution_param {
    num_output: 256
    kernel_size: 1
    weight_filler {
      type: "xavier"
      std: 0.03
    }
    bias_filler {
      type: "constant"
      value: 0.2
    }
  }
}
layer {
  name: "inception_5a/relu_1x1"
  type: "ReLU"
  bottom: "inception_5a/1x1"
  top: "inception_5a/1x1"
}
layer {
  name: "inception_5a/3x3_reduce"
  type: "Convolution"
  bottom: "pool4/3x3_s2"
  top: "inception_5a/3x3_reduce"
  param {
    lr_mult: 1
    decay_mult: 1
  }
  param {
    lr_mult: 2
    decay_mult: 0
  }
  convolution_param {
    num_output: 160
    kernel_size: 1
    weight_filler {
      type: "xavier"
      std: 0.09
    }
    bias_filler {
      type: "constant"
      value: 0.2
    }
  }
}
layer {
  name: "inception_5a/relu_3x3_reduce"
  type: "ReLU"
  bottom: "inception_5a/3x3_reduce"
  top: "inception_5a/3x3_reduce"
}
layer {
  name: "inception_5a/3x3"
  type: "Convolution"
  bottom: "inception_5a/3x3_reduce"
  top: "inception_5a/3x3"
  param {
    lr_mult: 1
    decay_mult: 1
  }
  param {
    lr_mult: 2
    decay_mult: 0
  }
  convolution_param {
    num_output: 320
    pad: 1
    kernel_size: 3
    weight_filler {
      type: "xavier"
      std: 0.03
    }
    bias_filler {
      type: "constant"
      value: 0.2
    }
  }
}
layer {
  name: "inception_5a/relu_3x3"
  type: "ReLU"
  bottom: "inception_5a/3x3"
  top: "inception_5a/3x3"
}
layer {
  name: "inception_5a/5x5_reduce"
  type: "Convolution"
  bottom: "pool4/3x3_s2"
  top: "inception_5a/5x5_reduce"
  param {
    lr_mult: 1
    decay_mult: 1
  }
  param {
    lr_mult: 2
    decay_mult: 0
  }
  convolution_param {
    num_output: 32
    kernel_size: 1
    weight_filler {
      type: "xavier"
      std: 0.2
    }
    bias_filler {
      type: "constant"
      value: 0.2
    }
I0713 13:52:15.989321  1794 layer_factory.hpp:77] Creating layer data
I0713 13:52:15.989349  1794 net.cpp:91] Creating Layer data
I0713 13:52:15.989361  1794 net.cpp:399] data -> data
I0713 13:52:16.615696  1794 net.cpp:141] Setting up data
I0713 13:52:16.615797  1794 net.cpp:148] Top shape: 10 3 224 224 (1505280)
I0713 13:52:16.615804  1794 net.cpp:156] Memory required for data: 6021120
I0713 13:52:16.615828  1794 layer_factory.hpp:77] Creating layer conv1/7x7_s2
I0713 13:52:16.615869  1794 net.cpp:91] Creating Layer conv1/7x7_s2
I0713 13:52:16.615880  1794 net.cpp:425] conv1/7x7_s2 <- data
I0713 13:52:16.615895  1794 net.cpp:399] conv1/7x7_s2 -> conv1/7x7_s2
I0713 13:52:16.872947  1794 net.cpp:141] Setting up conv1/7x7_s2
I0713 13:52:16.872997  1794 net.cpp:148] Top shape: 10 64 112 112 (8028160)
I0713 13:52:16.873005  1794 net.cpp:156] Memory required for data: 38133760
I0713 13:52:16.873036  1794 layer_factory.hpp:77] Creating layer conv1/relu_7x7
I0713 13:52:16.873056  1794 net.cpp:91] Creating Layer conv1/relu_7x7
I0713 13:52:16.873064  1794 net.cpp:425] conv1/relu_7x7 <- conv1/7x7_s2
I0713 13:52:16.873073  1794 net.cpp:386] conv1/relu_7x7 -> conv1/7x7_s2 (in-place)
I0713 13:52:16.873881  1794 net.cpp:141] Setting up conv1/relu_7x7
I0713 13:52:16.873898  1794 net.cpp:148] Top shape: 10 64 112 112 (8028160)
I0713 13:52:16.873903  1794 net.cpp:156] Memory required for data: 70246400
I0713 13:52:16.873908  1794 layer_factory.hpp:77] Creating layer pool1/3x3_s2
I0713 13:52:16.873922  1794 net.cpp:91] Creating Layer pool1/3x3_s2
I0713 13:52:16.873929  1794 net.cpp:425] pool1/3x3_s2 <- conv1/7x7_s2
I0713 13:52:16.873942  1794 net.cpp:399] pool1/3x3_s2 -> pool1/3x3_s2
I0713 13:52:16.874023  1794 net.cpp:141] Setting up pool1/3x3_s2
I0713 13:52:16.874034  1794 net.cpp:148] Top shape: 10 64 56 56 (2007040)
I0713 13:52:16.874040  1794 net.cpp:156] Memory required for data: 78274560
I0713 13:52:16.874045  1794 layer_factory.hpp:77] Creating layer pool1/norm1
I0713 13:52:16.874069  1794 net.cpp:91] Creating Layer pool1/norm1
I0713 13:52:16.874075  1794 net.cpp:425] pool1/norm1 <- pool1/3x3_s2
I0713 13:52:16.874085  1794 net.cpp:399] pool1/norm1 -> pool1/norm1
I0713 13:52:16.874943  1794 net.cpp:141] Setting up pool1/norm1
I0713 13:52:16.874961  1794 net.cpp:148] Top shape: 10 64 56 56 (2007040)
I0713 13:52:16.874968  1794 net.cpp:156] Memory required for data: 86302720
I0713 13:52:16.874974  1794 layer_factory.hpp:77] Creating layer conv2/3x3_reduce
I0713 13:52:16.874999  1794 net.cpp:91] Creating Layer conv2/3x3_reduce
I0713 13:52:16.875005  1794 net.cpp:425] conv2/3x3_reduce <- pool1/norm1
I0713 13:52:16.875017  1794 net.cpp:399] conv2/3x3_reduce -> conv2/3x3_reduce
I0713 13:52:16.877902  1794 net.cpp:141] Setting up conv2/3x3_reduce
I0713 13:52:16.877923  1794 net.cpp:148] Top shape: 10 64 56 56 (2007040)
I0713 13:52:16.877928  1794 net.cpp:156] Memory required for data: 94330880
I0713 13:52:16.877941  1794 layer_factory.hpp:77] Creating layer conv2/relu_3x3_reduce
I0713 13:52:16.877955  1794 net.cpp:91] Creating Layer conv2/relu_3x3_reduce
I0713 13:52:16.877961  1794 net.cpp:425] conv2/relu_3x3_reduce <- conv2/3x3_reduce
I0713 13:52:16.877969  1794 net.cpp:386] conv2/relu_3x3_reduce -> conv2/3x3_reduce (in-place)
I0713 13:52:16.878752  1794 net.cpp:141] Setting up conv2/relu_3x3_reduce
I0713 13:52:16.878772  1794 net.cpp:148] Top shape: 10 64 56 56 (2007040)
I0713 13:52:16.878777  1794 net.cpp:156] Memory required for data: 102359040
I0713 13:52:16.878782  1794 layer_factory.hpp:77] Creating layer conv2/3x3
I0713 13:52:16.878803  1794 net.cpp:91] Creating Layer conv2/3x3
I0713 13:52:16.878809  1794 net.cpp:425] conv2/3x3 <- conv2/3x3_reduce
I0713 13:52:16.878818  1794 net.cpp:399] conv2/3x3 -> conv2/3x3
I0713 13:52:16.883702  1794 net.cpp:141] Setting up conv2/3x3
I0713 13:52:16.883723  1794 net.cpp:148] Top shape: 10 192 56 56 (6021120)
I0713 13:52:16.883728  1794 net.cpp:156] Memory required for data: 126443520
I0713 13:52:16.883743  1794 layer_factory.hpp:77] Creating layer conv2/relu_3x3
I0713 13:52:16.883755  1794 net.cpp:91] Creating Layer conv2/relu_3x3
I0713 13:52:16.883761  1794 net.cpp:425] conv2/relu_3x3 <- conv2/3x3
I0713 13:52:16.883769  1794 net.cpp:386] conv2/relu_3x3 -> conv2/3x3 (in-place)
I0713 13:52:16.884034  1794 net.cpp:141] Setting up conv2/relu_3x3
I0713 13:52:16.884047  1794 net.cpp:148] Top shape: 10 192 56 56 (6021120)
I0713 13:52:16.884052  1794 net.cpp:156] Memory required for data: 150528000
I0713 13:52:16.884057  1794 layer_factory.hpp:77] Creating layer conv2/norm2
I0713 13:52:16.884071  1794 net.cpp:91] Creating Layer conv2/norm2
I0713 13:52:16.884076  1794 net.cpp:425] conv2/norm2 <- conv2/3x3
I0713 13:52:16.884088  1794 net.cpp:399] conv2/norm2 -> conv2/norm2
I0713 13:52:16.884912  1794 net.cpp:141] Setting up conv2/norm2
I0713 13:52:16.884932  1794 net.cpp:148] Top shape: 10 192 56 56 (6021120)
I0713 13:52:16.884937  1794 net.cpp:156] Memory required for data: 174612480
I0713 13:52:16.884943  1794 layer_factory.hpp:77] Creating layer pool2/3x3_s2
I0713 13:52:16.884954  1794 net.cpp:91] Creating Layer pool2/3x3_s2
I0713 13:52:16.884960  1794 net.cpp:425] pool2/3x3_s2 <- conv2/norm2
I0713 13:52:16.884968  1794 net.cpp:399] pool2/3x3_s2 -> pool2/3x3_s2
I0713 13:52:16.885027  1794 net.cpp:141] Setting up pool2/3x3_s2
I0713 13:52:16.885037  1794 net.cpp:148] Top shape: 10 192 28 28 (1505280)
I0713 13:52:16.885041  1794 net.cpp:156] Memory required for data: 180633600
I0713 13:52:16.885046  1794 layer_factory.hpp:77] Creating layer pool2/3x3_s2_pool2/3x3_s2_0_split
I0713 13:52:16.885057  1794 net.cpp:91] Creating Layer pool2/3x3_s2_pool2/3x3_s2_0_split
I0713 13:52:16.885062  1794 net.cpp:425] pool2/3x3_s2_pool2/3x3_s2_0_split <- pool2/3x3_s2
I0713 13:52:16.885069  1794 net.cpp:399] pool2/3x3_s2_pool2/3x3_s2_0_split -> pool2/3x3_s2_pool2/3x3_s2_0_split_0
I0713 13:52:16.885083  1794 net.cpp:399] pool2/3x3_s2_pool2/3x3_s2_0_split -> pool2/3x3_s2_pool2/3x3_s2_0_split_1
I0713 13:52:16.885093  1794 net.cpp:399] pool2/3x3_s2_pool2/3x3_s2_0_split -> pool2/3x3_s2_pool2/3x3_s2_0_split_2
I0713 13:52:16.885102  1794 net.cpp:399] pool2/3x3_s2_pool2/3x3_s2_0_split -> pool2/3x3_s2_pool2/3x3_s2_0_split_3
I0713 13:52:16.885203  1794 net.cpp:141] Setting up pool2/3x3_s2_pool2/3x3_s2_0_split
I0713 13:52:16.885216  1794 net.cpp:148] Top shape: 10 192 28 28 (1505280)
I0713 13:52:16.885222  1794 net.cpp:148] Top shape: 10 192 28 28 (1505280)
I0713 13:52:16.885228  1794 net.cpp:148] Top shape: 10 192 28 28 (1505280)
I0713 13:52:16.885234  1794 net.cpp:148] Top shape: 10 192 28 28 (1505280)
I0713 13:52:16.885239  1794 net.cpp:156] Memory required for data: 204718080
I0713 13:52:16.885244  1794 layer_factory.hpp:77] Creating layer inception_3a/1x1
I0713 13:52:16.885264  1794 net.cpp:91] Creating Layer inception_3a/1x1
I0713 13:52:16.885270  1794 net.cpp:425] inception_3a/1x1 <- pool2/3x3_s2_pool2/3x3_s2_0_split_0
I0713 13:52:16.885295  1794 net.cpp:399] inception_3a/1x1 -> inception_3a/1x1
I0713 13:52:16.889493  1794 net.cpp:141] Setting up inception_3a/1x1
I0713 13:52:16.889514  1794 net.cpp:148] Top shape: 10 64 28 28 (501760)
I0713 13:52:16.889520  1794 net.cpp:156] Memory required for data: 206725120
I0713 13:52:16.889530  1794 layer_factory.hpp:77] Creating layer inception_3a/relu_1x1
I0713 13:52:16.889545  1794 net.cpp:91] Creating Layer inception_3a/relu_1x1
I0713 13:52:16.889551  1794 net.cpp:425] inception_3a/relu_1x1 <- inception_3a/1x1
I0713 13:52:16.889559  1794 net.cpp:386] inception_3a/relu_1x1 -> inception_3a/1x1 (in-place)
I0713 13:52:16.889835  1794 net.cpp:141] Setting up inception_3a/relu_1x1
I0713 13:52:16.889848  1794 net.cpp:148] Top shape: 10 64 28 28 (501760)
I0713 13:52:16.889853  1794 net.cpp:156] Memory required for data: 208732160
I0713 13:52:16.889858  1794 layer_factory.hpp:77] Creating layer inception_3a/3x3_reduce
I0713 13:52:16.889875  1794 net.cpp:91] Creating Layer inception_3a/3x3_reduce
I0713 13:52:16.889883  1794 net.cpp:425] inception_3a/3x3_reduce <- pool2/3x3_s2_pool2/3x3_s2_0_split_1
I0713 13:52:16.889894  1794 net.cpp:399] inception_3a/3x3_reduce -> inception_3a/3x3_reduce
I0713 13:52:16.893450  1794 net.cpp:141] Setting up inception_3a/3x3_reduce
I0713 13:52:16.893471  1794 net.cpp:148] Top shape: 10 96 28 28 (752640)
I0713 13:52:16.893476  1794 net.cpp:156] Memory required for data: 211742720
I0713 13:52:16.893491  1794 layer_factory.hpp:77] Creating layer inception_3a/relu_3x3_reduce
I0713 13:52:16.893501  1794 net.cpp:91] Creating Layer inception_3a/relu_3x3_reduce
I0713 13:52:16.893507  1794 net.cpp:425] inception_3a/relu_3x3_reduce <- inception_3a/3x3_reduce
I0713 13:52:16.893518  1794 net.cpp:386] inception_3a/relu_3x3_reduce -> inception_3a/3x3_reduce (in-place)
I0713 13:52:16.893776  1794 net.cpp:141] Setting up inception_3a/relu_3x3_reduce
I0713 13:52:16.893791  1794 net.cpp:148] Top shape: 10 96 28 28 (752640)
I0713 13:52:16.893796  1794 net.cpp:156] Memory required for data: 214753280
I0713 13:52:16.893801  1794 layer_factory.hpp:77] Creating layer inception_3a/3x3
I0713 13:52:16.893821  1794 net.cpp:91] Creating Layer inception_3a/3x3
I0713 13:52:16.893827  1794 net.cpp:425] inception_3a/3x3 <- inception_3a/3x3_reduce
I0713 13:52:16.893836  1794 net.cpp:399] inception_3a/3x3 -> inception_3a/3x3
I0713 13:52:16.896994  1794 net.cpp:141] Setting up inception_3a/3x3
I0713 13:52:16.897014  1794 net.cpp:148] Top shape: 10 128 28 28 (1003520)
I0713 13:52:16.897020  1794 net.cpp:156] Memory required for data: 218767360
I0713 13:52:16.897030  1794 layer_factory.hpp:77] Creating layer inception_3a/relu_3x3
I0713 13:52:16.897044  1794 net.cpp:91] Creating Layer inception_3a/relu_3x3
I0713 13:52:16.897050  1794 net.cpp:425] inception_3a/relu_3x3 <- inception_3a/3x3
I0713 13:52:16.897058  1794 net.cpp:386] inception_3a/relu_3x3 -> inception_3a/3x3 (in-place)
I0713 13:52:16.897842  1794 net.cpp:141] Setting up inception_3a/relu_3x3
I0713 13:52:16.897861  1794 net.cpp:148] Top shape: 10 128 28 28 (1003520)
I0713 13:52:16.897866  1794 net.cpp:156] Memory required for data: 222781440
I0713 13:52:16.897871  1794 layer_factory.hpp:77] Creating layer inception_3a/5x5_reduce
I0713 13:52:16.897898  1794 net.cpp:91] Creating Layer inception_3a/5x5_reduce
I0713 13:52:16.897905  1794 net.cpp:425] inception_3a/5x5_reduce <- pool2/3x3_s2_pool2/3x3_s2_0_split_2
I0713 13:52:16.897917  1794 net.cpp:399] inception_3a/5x5_reduce -> inception_3a/5x5_reduce
I0713 13:52:16.900177  1794 net.cpp:141] Setting up inception_3a/5x5_reduce
I0713 13:52:16.900197  1794 net.cpp:148] Top shape: 10 16 28 28 (125440)
I0713 13:52:16.900202  1794 net.cpp:156] Memory required for data: 223283200
I0713 13:52:16.900213  1794 layer_factory.hpp:77] Creating layer inception_3a/relu_5x5_reduce
I0713 13:52:16.900224  1794 net.cpp:91] Creating Layer inception_3a/relu_5x5_reduce
I0713 13:52:16.900230  1794 net.cpp:425] inception_3a/relu_5x5_reduce <- inception_3a/5x5_reduce
I0713 13:52:16.900238  1794 net.cpp:386] inception_3a/relu_5x5_reduce -> inception_3a/5x5_reduce (in-place)
I0713 13:52:16.900496  1794 net.cpp:141] Setting up inception_3a/relu_5x5_reduce
I0713 13:52:16.900508  1794 net.cpp:148] Top shape: 10 16 28 28 (125440)
I0713 13:52:16.900513  1794 net.cpp:156] Memory required for data: 223784960
I0713 13:52:16.900521  1794 layer_factory.hpp:77] Creating layer inception_3a/5x5
I0713 13:52:16.900540  1794 net.cpp:91] Creating Layer inception_3a/5x5
I0713 13:52:16.900547  1794 net.cpp:425] inception_3a/5x5 <- inception_3a/5x5_reduce
I0713 13:52:16.900557  1794 net.cpp:399] inception_3a/5x5 -> inception_3a/5x5
I0713 13:52:16.904095  1794 net.cpp:141] Setting up inception_3a/5x5
I0713 13:52:16.904115  1794 net.cpp:148] Top shape: 10 32 28 28 (250880)
I0713 13:52:16.904121  1794 net.cpp:156] Memory required for data: 224788480
I0713 13:52:16.904131  1794 layer_factory.hpp:77] Creating layer inception_3a/relu_5x5
I0713 13:52:16.904140  1794 net.cpp:91] Creating Layer inception_3a/relu_5x5
I0713 13:52:16.904150  1794 net.cpp:425] inception_3a/relu_5x5 <- inception_3a/5x5
I0713 13:52:16.904157  1794 net.cpp:386] inception_3a/relu_5x5 -> inception_3a/5x5 (in-place)
I0713 13:52:16.904425  1794 net.cpp:141] Setting up inception_3a/relu_5x5
I0713 13:52:16.904438  1794 net.cpp:148] Top shape: 10 32 28 28 (250880)
I0713 13:52:16.904443  1794 net.cpp:156] Memory required for data: 225792000
I0713 13:52:16.904448  1794 layer_factory.hpp:77] Creating layer inception_3a/pool
I0713 13:52:16.904465  1794 net.cpp:91] Creating Layer inception_3a/pool
I0713 13:52:16.904471  1794 net.cpp:425] inception_3a/pool <- pool2/3x3_s2_pool2/3x3_s2_0_split_3
I0713 13:52:16.904480  1794 net.cpp:399] inception_3a/pool -> inception_3a/pool
I0713 13:52:16.904546  1794 net.cpp:141] Setting up inception_3a/pool
I0713 13:52:16.904556  1794 net.cpp:148] Top shape: 10 192 28 28 (1505280)
I0713 13:52:16.904561  1794 net.cpp:156] Memory required for data: 231813120
I0713 13:52:16.904567  1794 layer_factory.hpp:77] Creating layer inception_3a/pool_proj
I0713 13:52:16.904582  1794 net.cpp:91] Creating Layer inception_3a/pool_proj
I0713 13:52:16.904588  1794 net.cpp:425] inception_3a/pool_proj <- inception_3a/pool
I0713 13:52:16.904600  1794 net.cpp:399] inception_3a/pool_proj -> inception_3a/pool_proj
I0713 13:52:16.906893  1794 net.cpp:141] Setting up inception_3a/pool_proj
I0713 13:52:16.906915  1794 net.cpp:148] Top shape: 10 32 28 28 (250880)
I0713 13:52:16.906921  1794 net.cpp:156] Memory required for data: 232816640
I0713 13:52:16.906935  1794 layer_factory.hpp:77] Creating layer inception_3a/relu_pool_proj
I0713 13:52:16.906945  1794 net.cpp:91] Creating Layer inception_3a/relu_pool_proj
I0713 13:52:16.906951  1794 net.cpp:425] inception_3a/relu_pool_proj <- inception_3a/pool_proj
I0713 13:52:16.906963  1794 net.cpp:386] inception_3a/relu_pool_proj -> inception_3a/pool_proj (in-place)
I0713 13:52:16.907747  1794 net.cpp:141] Setting up inception_3a/relu_pool_proj
I0713 13:52:16.907764  1794 net.cpp:148] Top shape: 10 32 28 28 (250880)
I0713 13:52:16.907769  1794 net.cpp:156] Memory required for data: 233820160
I0713 13:52:16.907775  1794 layer_factory.hpp:77] Creating layer inception_3a/output
I0713 13:52:16.907793  1794 net.cpp:91] Creating Layer inception_3a/output
I0713 13:52:16.907799  1794 net.cpp:425] inception_3a/output <- inception_3a/1x1
I0713 13:52:16.907811  1794 net.cpp:425] inception_3a/output <- inception_3a/3x3
I0713 13:52:16.907819  1794 net.cpp:425] inception_3a/output <- inception_3a/5x5
I0713 13:52:16.907824  1794 net.cpp:425] inception_3a/output <- inception_3a/pool_proj
I0713 13:52:16.907831  1794 net.cpp:399] inception_3a/output -> inception_3a/output
I0713 13:52:16.907877  1794 net.cpp:141] Setting up inception_3a/output
I0713 13:52:16.907887  1794 net.cpp:148] Top shape: 10 256 28 28 (2007040)
I0713 13:52:16.907892  1794 net.cpp:156] Memory required for data: 241848320
I0713 13:52:16.907897  1794 layer_factory.hpp:77] Creating layer inception_3a/output_inception_3a/output_0_split
I0713 13:52:16.907907  1794 net.cpp:91] Creating Layer inception_3a/output_inception_3a/output_0_split
I0713 13:52:16.907912  1794 net.cpp:425] inception_3a/output_inception_3a/output_0_split <- inception_3a/output
I0713 13:52:16.907922  1794 net.cpp:399] inception_3a/output_inception_3a/output_0_split -> inception_3a/output_inception_3a/output_0_split_0
I0713 13:52:16.907932  1794 net.cpp:399] inception_3a/output_inception_3a/output_0_split -> inception_3a/output_inception_3a/output_0_split_1
I0713 13:52:16.907941  1794 net.cpp:399] inception_3a/output_inception_3a/output_0_split -> inception_3a/output_inception_3a/output_0_split_2
I0713 13:52:16.907949  1794 net.cpp:399] inception_3a/output_inception_3a/output_0_split -> inception_3a/output_inception_3a/output_0_split_3
I0713 13:52:16.908038  1794 net.cpp:141] Setting up inception_3a/output_inception_3a/output_0_split
I0713 13:52:16.908047  1794 net.cpp:148] Top shape: 10 256 28 28 (2007040)
I0713 13:52:16.908054  1794 net.cpp:148] Top shape: 10 256 28 28 (2007040)
I0713 13:52:16.908059  1794 net.cpp:148] Top shape: 10 256 28 28 (2007040)
I0713 13:52:16.908066  1794 net.cpp:148] Top shape: 10 256 28 28 (2007040)
I0713 13:52:16.908071  1794 net.cpp:156] Memory required for data: 273960960
I0713 13:52:16.908076  1794 layer_factory.hpp:77] Creating layer inception_3b/1x1
I0713 13:52:16.908095  1794 net.cpp:91] Creating Layer inception_3b/1x1
I0713 13:52:16.908102  1794 net.cpp:425] inception_3b/1x1 <- inception_3a/output_inception_3a/output_0_split_0
I0713 13:52:16.908110  1794 net.cpp:399] inception_3b/1x1 -> inception_3b/1x1
I0713 13:52:16.910612  1794 net.cpp:141] Setting up inception_3b/1x1
I0713 13:52:16.910631  1794 net.cpp:148] Top shape: 10 128 28 28 (1003520)
I0713 13:52:16.910637  1794 net.cpp:156] Memory required for data: 277975040
I0713 13:52:16.910647  1794 layer_factory.hpp:77] Creating layer inception_3b/relu_1x1
I0713 13:52:16.910661  1794 net.cpp:91] Creating Layer inception_3b/relu_1x1
I0713 13:52:16.910668  1794 net.cpp:425] inception_3b/relu_1x1 <- inception_3b/1x1
I0713 13:52:16.910676  1794 net.cpp:386] inception_3b/relu_1x1 -> inception_3b/1x1 (in-place)
I0713 13:52:16.910951  1794 net.cpp:141] Setting up inception_3b/relu_1x1
I0713 13:52:16.910964  1794 net.cpp:148] Top shape: 10 128 28 28 (1003520)
I0713 13:52:16.910969  1794 net.cpp:156] Memory required for data: 281989120
I0713 13:52:16.910974  1794 layer_factory.hpp:77] Creating layer inception_3b/3x3_reduce
I0713 13:52:16.910995  1794 net.cpp:91] Creating Layer inception_3b/3x3_reduce
I0713 13:52:16.911001  1794 net.cpp:425] inception_3b/3x3_reduce <- inception_3a/output_inception_3a/output_0_split_1
I0713 13:52:16.911011  1794 net.cpp:399] inception_3b/3x3_reduce -> inception_3b/3x3_reduce
I0713 13:52:16.913559  1794 net.cpp:141] Setting up inception_3b/3x3_reduce
I0713 13:52:16.913578  1794 net.cpp:148] Top shape: 10 128 28 28 (1003520)
I0713 13:52:16.913584  1794 net.cpp:156] Memory required for data: 286003200
I0713 13:52:16.913594  1794 layer_factory.hpp:77] Creating layer inception_3b/relu_3x3_reduce
I0713 13:52:16.913605  1794 net.cpp:91] Creating Layer inception_3b/relu_3x3_reduce
I0713 13:52:16.913612  1794 net.cpp:425] inception_3b/relu_3x3_reduce <- inception_3b/3x3_reduce
I0713 13:52:16.913620  1794 net.cpp:386] inception_3b/relu_3x3_reduce -> inception_3b/3x3_reduce (in-place)
I0713 13:52:16.913897  1794 net.cpp:141] Setting up inception_3b/relu_3x3_reduce
I0713 13:52:16.913909  1794 net.cpp:148] Top shape: 10 128 28 28 (1003520)
I0713 13:52:16.913914  1794 net.cpp:156] Memory required for data: 290017280
I0713 13:52:16.913920  1794 layer_factory.hpp:77] Creating layer inception_3b/3x3
I0713 13:52:16.913940  1794 net.cpp:91] Creating Layer inception_3b/3x3
I0713 13:52:16.913946  1794 net.cpp:425] inception_3b/3x3 <- inception_3b/3x3_reduce
I0713 13:52:16.913956  1794 net.cpp:399] inception_3b/3x3 -> inception_3b/3x3
I0713 13:52:16.919250  1794 net.cpp:141] Setting up inception_3b/3x3
I0713 13:52:16.919272  1794 net.cpp:148] Top shape: 10 192 28 28 (1505280)
I0713 13:52:16.919278  1794 net.cpp:156] Memory required for data: 296038400
I0713 13:52:16.919288  1794 layer_factory.hpp:77] Creating layer inception_3b/relu_3x3
I0713 13:52:16.919306  1794 net.cpp:91] Creating Layer inception_3b/relu_3x3
I0713 13:52:16.919313  1794 net.cpp:425] inception_3b/relu_3x3 <- inception_3b/3x3
I0713 13:52:16.919322  1794 net.cpp:386] inception_3b/relu_3x3 -> inception_3b/3x3 (in-place)
I0713 13:52:16.920109  1794 net.cpp:141] Setting up inception_3b/relu_3x3
I0713 13:52:16.920127  1794 net.cpp:148] Top shape: 10 192 28 28 (1505280)
I0713 13:52:16.920132  1794 net.cpp:156] Memory required for data: 302059520
I0713 13:52:16.920137  1794 layer_factory.hpp:77] Creating layer inception_3b/5x5_reduce
I0713 13:52:16.920158  1794 net.cpp:91] Creating Layer inception_3b/5x5_reduce
I0713 13:52:16.920164  1794 net.cpp:425] inception_3b/5x5_reduce <- inception_3a/output_inception_3a/output_0_split_2
I0713 13:52:16.920176  1794 net.cpp:399] inception_3b/5x5_reduce -> inception_3b/5x5_reduce
I0713 13:52:16.922461  1794 net.cpp:141] Setting up inception_3b/5x5_reduce
I0713 13:52:16.922480  1794 net.cpp:148] Top shape: 10 32 28 28 (250880)
I0713 13:52:16.922485  1794 net.cpp:156] Memory required for data: 303063040
I0713 13:52:16.922495  1794 layer_factory.hpp:77] Creating layer inception_3b/relu_5x5_reduce
I0713 13:52:16.922508  1794 net.cpp:91] Creating Layer inception_3b/relu_5x5_reduce
I0713 13:52:16.922513  1794 net.cpp:425] inception_3b/relu_5x5_reduce <- inception_3b/5x5_reduce
I0713 13:52:16.922521  1794 net.cpp:386] inception_3b/relu_5x5_reduce -> inception_3b/5x5_reduce (in-place)
I0713 13:52:16.922796  1794 net.cpp:141] Setting up inception_3b/relu_5x5_reduce
I0713 13:52:16.922808  1794 net.cpp:148] Top shape: 10 32 28 28 (250880)
I0713 13:52:16.922813  1794 net.cpp:156] Memory required for data: 304066560
I0713 13:52:16.922818  1794 layer_factory.hpp:77] Creating layer inception_3b/5x5
I0713 13:52:16.922838  1794 net.cpp:91] Creating Layer inception_3b/5x5
I0713 13:52:16.922845  1794 net.cpp:425] inception_3b/5x5 <- inception_3b/5x5_reduce
I0713 13:52:16.922854  1794 net.cpp:399] inception_3b/5x5 -> inception_3b/5x5
I0713 13:52:16.926903  1794 net.cpp:141] Setting up inception_3b/5x5
I0713 13:52:16.926923  1794 net.cpp:148] Top shape: 10 96 28 28 (752640)
I0713 13:52:16.926928  1794 net.cpp:156] Memory required for data: 307077120
I0713 13:52:16.926937  1794 layer_factory.hpp:77] Creating layer inception_3b/relu_5x5
I0713 13:52:16.926951  1794 net.cpp:91] Creating Layer inception_3b/relu_5x5
I0713 13:52:16.926957  1794 net.cpp:425] inception_3b/relu_5x5 <- inception_3b/5x5
I0713 13:52:16.926965  1794 net.cpp:386] inception_3b/relu_5x5 -> inception_3b/5x5 (in-place)
I0713 13:52:16.927243  1794 net.cpp:141] Setting up inception_3b/relu_5x5
I0713 13:52:16.927256  1794 net.cpp:148] Top shape: 10 96 28 28 (752640)
I0713 13:52:16.927261  1794 net.cpp:156] Memory required for data: 310087680
I0713 13:52:16.927268  1794 layer_factory.hpp:77] Creating layer inception_3b/pool
I0713 13:52:16.927276  1794 net.cpp:91] Creating Layer inception_3b/pool
I0713 13:52:16.927283  1794 net.cpp:425] inception_3b/pool <- inception_3a/output_inception_3a/output_0_split_3
I0713 13:52:16.927294  1794 net.cpp:399] inception_3b/pool -> inception_3b/pool
I0713 13:52:16.927361  1794 net.cpp:141] Setting up inception_3b/pool
I0713 13:52:16.927371  1794 net.cpp:148] Top shape: 10 256 28 28 (2007040)
I0713 13:52:16.927376  1794 net.cpp:156] Memory required for data: 318115840
I0713 13:52:16.927381  1794 layer_factory.hpp:77] Creating layer inception_3b/pool_proj
I0713 13:52:16.927400  1794 net.cpp:91] Creating Layer inception_3b/pool_proj
I0713 13:52:16.927407  1794 net.cpp:425] inception_3b/pool_proj <- inception_3b/pool
I0713 13:52:16.927417  1794 net.cpp:399] inception_3b/pool_proj -> inception_3b/pool_proj
I0713 13:52:16.929819  1794 net.cpp:141] Setting up inception_3b/pool_proj
I0713 13:52:16.929838  1794 net.cpp:148] Top shape: 10 64 28 28 (501760)
I0713 13:52:16.929844  1794 net.cpp:156] Memory required for data: 320122880
I0713 13:52:16.929858  1794 layer_factory.hpp:77] Creating layer inception_3b/relu_pool_proj
I0713 13:52:16.929867  1794 net.cpp:91] Creating Layer inception_3b/relu_pool_proj
I0713 13:52:16.929873  1794 net.cpp:425] inception_3b/relu_pool_proj <- inception_3b/pool_proj
I0713 13:52:16.929884  1794 net.cpp:386] inception_3b/relu_pool_proj -> inception_3b/pool_proj (in-place)
I0713 13:52:16.930677  1794 net.cpp:141] Setting up inception_3b/relu_pool_proj
I0713 13:52:16.930702  1794 net.cpp:148] Top shape: 10 64 28 28 (501760)
I0713 13:52:16.930707  1794 net.cpp:156] Memory required for data: 322129920
I0713 13:52:16.930713  1794 layer_factory.hpp:77] Creating layer inception_3b/output
I0713 13:52:16.930723  1794 net.cpp:91] Creating Layer inception_3b/output
I0713 13:52:16.930729  1794 net.cpp:425] inception_3b/output <- inception_3b/1x1
I0713 13:52:16.930737  1794 net.cpp:425] inception_3b/output <- inception_3b/3x3
I0713 13:52:16.930742  1794 net.cpp:425] inception_3b/output <- inception_3b/5x5
I0713 13:52:16.930747  1794 net.cpp:425] inception_3b/output <- inception_3b/pool_proj
I0713 13:52:16.930757  1794 net.cpp:399] inception_3b/output -> inception_3b/output
I0713 13:52:16.930809  1794 net.cpp:141] Setting up inception_3b/output
I0713 13:52:16.930824  1794 net.cpp:148] Top shape: 10 480 28 28 (3763200)
I0713 13:52:16.930827  1794 net.cpp:156] Memory required for data: 337182720
I0713 13:52:16.930833  1794 layer_factory.hpp:77] Creating layer pool3/3x3_s2
I0713 13:52:16.930846  1794 net.cpp:91] Creating Layer pool3/3x3_s2
I0713 13:52:16.930853  1794 net.cpp:425] pool3/3x3_s2 <- inception_3b/output
I0713 13:52:16.930860  1794 net.cpp:399] pool3/3x3_s2 -> pool3/3x3_s2
I0713 13:52:16.930930  1794 net.cpp:141] Setting up pool3/3x3_s2
I0713 13:52:16.930943  1794 net.cpp:148] Top shape: 10 480 14 14 (940800)
I0713 13:52:16.930948  1794 net.cpp:156] Memory required for data: 340945920
I0713 13:52:16.930953  1794 layer_factory.hpp:77] Creating layer pool3/3x3_s2_pool3/3x3_s2_0_split
I0713 13:52:16.930963  1794 net.cpp:91] Creating Layer pool3/3x3_s2_pool3/3x3_s2_0_split
I0713 13:52:16.930968  1794 net.cpp:425] pool3/3x3_s2_pool3/3x3_s2_0_split <- pool3/3x3_s2
I0713 13:52:16.930975  1794 net.cpp:399] pool3/3x3_s2_pool3/3x3_s2_0_split -> pool3/3x3_s2_pool3/3x3_s2_0_split_0
I0713 13:52:16.930984  1794 net.cpp:399] pool3/3x3_s2_pool3/3x3_s2_0_split -> pool3/3x3_s2_pool3/3x3_s2_0_split_1
I0713 13:52:16.930996  1794 net.cpp:399] pool3/3x3_s2_pool3/3x3_s2_0_split -> pool3/3x3_s2_pool3/3x3_s2_0_split_2
I0713 13:52:16.931005  1794 net.cpp:399] pool3/3x3_s2_pool3/3x3_s2_0_split -> pool3/3x3_s2_pool3/3x3_s2_0_split_3
I0713 13:52:16.931109  1794 net.cpp:141] Setting up pool3/3x3_s2_pool3/3x3_s2_0_split
I0713 13:52:16.931121  1794 net.cpp:148] Top shape: 10 480 14 14 (940800)
I0713 13:52:16.931128  1794 net.cpp:148] Top shape: 10 480 14 14 (940800)
I0713 13:52:16.931133  1794 net.cpp:148] Top shape: 10 480 14 14 (940800)
I0713 13:52:16.931139  1794 net.cpp:148] Top shape: 10 480 14 14 (940800)
I0713 13:52:16.931143  1794 net.cpp:156] Memory required for data: 355998720
I0713 13:52:16.931149  1794 layer_factory.hpp:77] Creating layer inception_4a/1x1
I0713 13:52:16.931166  1794 net.cpp:91] Creating Layer inception_4a/1x1
I0713 13:52:16.931175  1794 net.cpp:425] inception_4a/1x1 <- pool3/3x3_s2_pool3/3x3_s2_0_split_0
I0713 13:52:16.931185  1794 net.cpp:399] inception_4a/1x1 -> inception_4a/1x1
I0713 13:52:16.934875  1794 net.cpp:141] Setting up inception_4a/1x1
I0713 13:52:16.934895  1794 net.cpp:148] Top shape: 10 192 14 14 (376320)
I0713 13:52:16.934901  1794 net.cpp:156] Memory required for data: 357504000
I0713 13:52:16.934911  1794 layer_factory.hpp:77] Creating layer inception_4a/relu_1x1
I0713 13:52:16.934921  1794 net.cpp:91] Creating Layer inception_4a/relu_1x1
I0713 13:52:16.934926  1794 net.cpp:425] inception_4a/relu_1x1 <- inception_4a/1x1
I0713 13:52:16.934934  1794 net.cpp:386] inception_4a/relu_1x1 -> inception_4a/1x1 (in-place)
I0713 13:52:16.935204  1794 net.cpp:141] Setting up inception_4a/relu_1x1
I0713 13:52:16.935216  1794 net.cpp:148] Top shape: 10 192 14 14 (376320)
I0713 13:52:16.935220  1794 net.cpp:156] Memory required for data: 359009280
I0713 13:52:16.935226  1794 layer_factory.hpp:77] Creating layer inception_4a/3x3_reduce
I0713 13:52:16.935242  1794 net.cpp:91] Creating Layer inception_4a/3x3_reduce
I0713 13:52:16.935248  1794 net.cpp:425] inception_4a/3x3_reduce <- pool3/3x3_s2_pool3/3x3_s2_0_split_1
I0713 13:52:16.935262  1794 net.cpp:399] inception_4a/3x3_reduce -> inception_4a/3x3_reduce
I0713 13:52:16.937935  1794 net.cpp:141] Setting up inception_4a/3x3_reduce
I0713 13:52:16.937955  1794 net.cpp:148] Top shape: 10 96 14 14 (188160)
I0713 13:52:16.937960  1794 net.cpp:156] Memory required for data: 359761920
I0713 13:52:16.937988  1794 layer_factory.hpp:77] Creating layer inception_4a/relu_3x3_reduce
I0713 13:52:16.937997  1794 net.cpp:91] Creating Layer inception_4a/relu_3x3_reduce
I0713 13:52:16.938004  1794 net.cpp:425] inception_4a/relu_3x3_reduce <- inception_4a/3x3_reduce
I0713 13:52:16.938014  1794 net.cpp:386] inception_4a/relu_3x3_reduce -> inception_4a/3x3_reduce (in-place)
I0713 13:52:16.938277  1794 net.cpp:141] Setting up inception_4a/relu_3x3_reduce
I0713 13:52:16.938289  1794 net.cpp:148] Top shape: 10 96 14 14 (188160)
I0713 13:52:16.938294  1794 net.cpp:156] Memory required for data: 360514560
I0713 13:52:16.938299  1794 layer_factory.hpp:77] Creating layer inception_4a/3x3
I0713 13:52:16.938318  1794 net.cpp:91] Creating Layer inception_4a/3x3
I0713 13:52:16.938324  1794 net.cpp:425] inception_4a/3x3 <- inception_4a/3x3_reduce
I0713 13:52:16.938335  1794 net.cpp:399] inception_4a/3x3 -> inception_4a/3x3
I0713 13:52:16.943277  1794 net.cpp:141] Setting up inception_4a/3x3
I0713 13:52:16.943297  1794 net.cpp:148] Top shape: 10 208 14 14 (407680)
I0713 13:52:16.943303  1794 net.cpp:156] Memory required for data: 362145280
I0713 13:52:16.943312  1794 layer_factory.hpp:77] Creating layer inception_4a/relu_3x3
I0713 13:52:16.943322  1794 net.cpp:91] Creating Layer inception_4a/relu_3x3
I0713 13:52:16.943328  1794 net.cpp:425] inception_4a/relu_3x3 <- inception_4a/3x3
I0713 13:52:16.943341  1794 net.cpp:386] inception_4a/relu_3x3 -> inception_4a/3x3 (in-place)
I0713 13:52:16.944135  1794 net.cpp:141] Setting up inception_4a/relu_3x3
I0713 13:52:16.944154  1794 net.cpp:148] Top shape: 10 208 14 14 (407680)
I0713 13:52:16.944159  1794 net.cpp:156] Memory required for data: 363776000
I0713 13:52:16.944164  1794 layer_factory.hpp:77] Creating layer inception_4a/5x5_reduce
I0713 13:52:16.944181  1794 net.cpp:91] Creating Layer inception_4a/5x5_reduce
I0713 13:52:16.944190  1794 net.cpp:425] inception_4a/5x5_reduce <- pool3/3x3_s2_pool3/3x3_s2_0_split_2
I0713 13:52:16.944202  1794 net.cpp:399] inception_4a/5x5_reduce -> inception_4a/5x5_reduce
I0713 13:52:16.946537  1794 net.cpp:141] Setting up inception_4a/5x5_reduce
I0713 13:52:16.946555  1794 net.cpp:148] Top shape: 10 16 14 14 (31360)
I0713 13:52:16.946560  1794 net.cpp:156] Memory required for data: 363901440
I0713 13:52:16.946570  1794 layer_factory.hpp:77] Creating layer inception_4a/relu_5x5_reduce
I0713 13:52:16.946583  1794 net.cpp:91] Creating Layer inception_4a/relu_5x5_reduce
I0713 13:52:16.946588  1794 net.cpp:425] inception_4a/relu_5x5_reduce <- inception_4a/5x5_reduce
I0713 13:52:16.946596  1794 net.cpp:386] inception_4a/relu_5x5_reduce -> inception_4a/5x5_reduce (in-place)
I0713 13:52:16.946872  1794 net.cpp:141] Setting up inception_4a/relu_5x5_reduce
I0713 13:52:16.946885  1794 net.cpp:148] Top shape: 10 16 14 14 (31360)
I0713 13:52:16.946890  1794 net.cpp:156] Memory required for data: 364026880
I0713 13:52:16.946895  1794 layer_factory.hpp:77] Creating layer inception_4a/5x5
I0713 13:52:16.946914  1794 net.cpp:91] Creating Layer inception_4a/5x5
I0713 13:52:16.946921  1794 net.cpp:425] inception_4a/5x5 <- inception_4a/5x5_reduce
I0713 13:52:16.946931  1794 net.cpp:399] inception_4a/5x5 -> inception_4a/5x5
I0713 13:52:16.949347  1794 net.cpp:141] Setting up inception_4a/5x5
I0713 13:52:16.949367  1794 net.cpp:148] Top shape: 10 48 14 14 (94080)
I0713 13:52:16.949371  1794 net.cpp:156] Memory required for data: 364403200
I0713 13:52:16.949381  1794 layer_factory.hpp:77] Creating layer inception_4a/relu_5x5
I0713 13:52:16.949395  1794 net.cpp:91] Creating Layer inception_4a/relu_5x5
I0713 13:52:16.949403  1794 net.cpp:425] inception_4a/relu_5x5 <- inception_4a/5x5
I0713 13:52:16.949410  1794 net.cpp:386] inception_4a/relu_5x5 -> inception_4a/5x5 (in-place)
I0713 13:52:16.949672  1794 net.cpp:141] Setting up inception_4a/relu_5x5
I0713 13:52:16.949684  1794 net.cpp:148] Top shape: 10 48 14 14 (94080)
I0713 13:52:16.949689  1794 net.cpp:156] Memory required for data: 364779520
I0713 13:52:16.949694  1794 layer_factory.hpp:77] Creating layer inception_4a/pool
I0713 13:52:16.949703  1794 net.cpp:91] Creating Layer inception_4a/pool
I0713 13:52:16.949709  1794 net.cpp:425] inception_4a/pool <- pool3/3x3_s2_pool3/3x3_s2_0_split_3
I0713 13:52:16.949722  1794 net.cpp:399] inception_4a/pool -> inception_4a/pool
I0713 13:52:16.949793  1794 net.cpp:141] Setting up inception_4a/pool
I0713 13:52:16.949805  1794 net.cpp:148] Top shape: 10 480 14 14 (940800)
I0713 13:52:16.949810  1794 net.cpp:156] Memory required for data: 368542720
I0713 13:52:16.949815  1794 layer_factory.hpp:77] Creating layer inception_4a/pool_proj
I0713 13:52:16.949833  1794 net.cpp:91] Creating Layer inception_4a/pool_proj
I0713 13:52:16.949841  1794 net.cpp:425] inception_4a/pool_proj <- inception_4a/pool
I0713 13:52:16.949849  1794 net.cpp:399] inception_4a/pool_proj -> inception_4a/pool_proj
I0713 13:52:16.952383  1794 net.cpp:141] Setting up inception_4a/pool_proj
I0713 13:52:16.952405  1794 net.cpp:148] Top shape: 10 64 14 14 (125440)
I0713 13:52:16.952411  1794 net.cpp:156] Memory required for data: 369044480
I0713 13:52:16.952421  1794 layer_factory.hpp:77] Creating layer inception_4a/relu_pool_proj
I0713 13:52:16.952430  1794 net.cpp:91] Creating Layer inception_4a/relu_pool_proj
I0713 13:52:16.952437  1794 net.cpp:425] inception_4a/relu_pool_proj <- inception_4a/pool_proj
I0713 13:52:16.952445  1794 net.cpp:386] inception_4a/relu_pool_proj -> inception_4a/pool_proj (in-place)
I0713 13:52:16.953239  1794 net.cpp:141] Setting up inception_4a/relu_pool_proj
I0713 13:52:16.953258  1794 net.cpp:148] Top shape: 10 64 14 14 (125440)
I0713 13:52:16.953264  1794 net.cpp:156] Memory required for data: 369546240
I0713 13:52:16.953269  1794 layer_factory.hpp:77] Creating layer inception_4a/output
I0713 13:52:16.953279  1794 net.cpp:91] Creating Layer inception_4a/output
I0713 13:52:16.953285  1794 net.cpp:425] inception_4a/output <- inception_4a/1x1
I0713 13:52:16.953292  1794 net.cpp:425] inception_4a/output <- inception_4a/3x3
I0713 13:52:16.953299  1794 net.cpp:425] inception_4a/output <- inception_4a/5x5
I0713 13:52:16.953305  1794 net.cpp:425] inception_4a/output <- inception_4a/pool_proj
I0713 13:52:16.953311  1794 net.cpp:399] inception_4a/output -> inception_4a/output
I0713 13:52:16.953363  1794 net.cpp:141] Setting up inception_4a/output
I0713 13:52:16.953373  1794 net.cpp:148] Top shape: 10 512 14 14 (1003520)
I0713 13:52:16.953378  1794 net.cpp:156] Memory required for data: 373560320
I0713 13:52:16.953383  1794 layer_factory.hpp:77] Creating layer inception_4a/output_inception_4a/output_0_split
I0713 13:52:16.953394  1794 net.cpp:91] Creating Layer inception_4a/output_inception_4a/output_0_split
I0713 13:52:16.953400  1794 net.cpp:425] inception_4a/output_inception_4a/output_0_split <- inception_4a/output
I0713 13:52:16.953408  1794 net.cpp:399] inception_4a/output_inception_4a/output_0_split -> inception_4a/output_inception_4a/output_0_split_0
I0713 13:52:16.953418  1794 net.cpp:399] inception_4a/output_inception_4a/output_0_split -> inception_4a/output_inception_4a/output_0_split_1
I0713 13:52:16.953426  1794 net.cpp:399] inception_4a/output_inception_4a/output_0_split -> inception_4a/output_inception_4a/output_0_split_2
I0713 13:52:16.953434  1794 net.cpp:399] inception_4a/output_inception_4a/output_0_split -> inception_4a/output_inception_4a/output_0_split_3
I0713 13:52:16.953532  1794 net.cpp:141] Setting up inception_4a/output_inception_4a/output_0_split
I0713 13:52:16.953542  1794 net.cpp:148] Top shape: 10 512 14 14 (1003520)
I0713 13:52:16.953548  1794 net.cpp:148] Top shape: 10 512 14 14 (1003520)
I0713 13:52:16.953554  1794 net.cpp:148] Top shape: 10 512 14 14 (1003520)
I0713 13:52:16.953560  1794 net.cpp:148] Top shape: 10 512 14 14 (1003520)
I0713 13:52:16.953564  1794 net.cpp:156] Memory required for data: 389616640
I0713 13:52:16.953569  1794 layer_factory.hpp:77] Creating layer inception_4b/1x1
I0713 13:52:16.953585  1794 net.cpp:91] Creating Layer inception_4b/1x1
I0713 13:52:16.953593  1794 net.cpp:425] inception_4b/1x1 <- inception_4a/output_inception_4a/output_0_split_0
I0713 13:52:16.953604  1794 net.cpp:399] inception_4b/1x1 -> inception_4b/1x1
I0713 13:52:16.956557  1794 net.cpp:141] Setting up inception_4b/1x1
I0713 13:52:16.956579  1794 net.cpp:148] Top shape: 10 160 14 14 (313600)
I0713 13:52:16.956585  1794 net.cpp:156] Memory required for data: 390871040
I0713 13:52:16.956595  1794 layer_factory.hpp:77] Creating layer inception_4b/relu_1x1
I0713 13:52:16.956604  1794 net.cpp:91] Creating Layer inception_4b/relu_1x1
I0713 13:52:16.956610  1794 net.cpp:425] inception_4b/relu_1x1 <- inception_4b/1x1
I0713 13:52:16.956621  1794 net.cpp:386] inception_4b/relu_1x1 -> inception_4b/1x1 (in-place)
I0713 13:52:16.956889  1794 net.cpp:141] Setting up inception_4b/relu_1x1
I0713 13:52:16.956902  1794 net.cpp:148] Top shape: 10 160 14 14 (313600)
I0713 13:52:16.956907  1794 net.cpp:156] Memory required for data: 392125440
I0713 13:52:16.956912  1794 layer_factory.hpp:77] Creating layer inception_4b/3x3_reduce
I0713 13:52:16.956929  1794 net.cpp:91] Creating Layer inception_4b/3x3_reduce
I0713 13:52:16.956938  1794 net.cpp:425] inception_4b/3x3_reduce <- inception_4a/output_inception_4a/output_0_split_1
I0713 13:52:16.956948  1794 net.cpp:399] inception_4b/3x3_reduce -> inception_4b/3x3_reduce
I0713 13:52:16.959767  1794 net.cpp:141] Setting up inception_4b/3x3_reduce
I0713 13:52:16.959787  1794 net.cpp:148] Top shape: 10 112 14 14 (219520)
I0713 13:52:16.959794  1794 net.cpp:156] Memory required for data: 393003520
I0713 13:52:16.959803  1794 layer_factory.hpp:77] Creating layer inception_4b/relu_3x3_reduce
I0713 13:52:16.959816  1794 net.cpp:91] Creating Layer inception_4b/relu_3x3_reduce
I0713 13:52:16.959825  1794 net.cpp:425] inception_4b/relu_3x3_reduce <- inception_4b/3x3_reduce
I0713 13:52:16.959832  1794 net.cpp:386] inception_4b/relu_3x3_reduce -> inception_4b/3x3_reduce (in-place)
I0713 13:52:16.960098  1794 net.cpp:141] Setting up inception_4b/relu_3x3_reduce
I0713 13:52:16.960111  1794 net.cpp:148] Top shape: 10 112 14 14 (219520)
I0713 13:52:16.960117  1794 net.cpp:156] Memory required for data: 393881600
I0713 13:52:16.960127  1794 layer_factory.hpp:77] Creating layer inception_4b/3x3
I0713 13:52:16.960152  1794 net.cpp:91] Creating Layer inception_4b/3x3
I0713 13:52:16.960160  1794 net.cpp:425] inception_4b/3x3 <- inception_4b/3x3_reduce
I0713 13:52:16.960173  1794 net.cpp:399] inception_4b/3x3 -> inception_4b/3x3
I0713 13:52:16.966155  1794 net.cpp:141] Setting up inception_4b/3x3
I0713 13:52:16.966176  1794 net.cpp:148] Top shape: 10 224 14 14 (439040)
I0713 13:52:16.966181  1794 net.cpp:156] Memory required for data: 395637760
I0713 13:52:16.966192  1794 layer_factory.hpp:77] Creating layer inception_4b/relu_3x3
I0713 13:52:16.966205  1794 net.cpp:91] Creating Layer inception_4b/relu_3x3
I0713 13:52:16.966212  1794 net.cpp:425] inception_4b/relu_3x3 <- inception_4b/3x3
I0713 13:52:16.966220  1794 net.cpp:386] inception_4b/relu_3x3 -> inception_4b/3x3 (in-place)
I0713 13:52:16.967061  1794 net.cpp:141] Setting up inception_4b/relu_3x3
I0713 13:52:16.967079  1794 net.cpp:148] Top shape: 10 224 14 14 (439040)
I0713 13:52:16.967084  1794 net.cpp:156] Memory required for data: 397393920
I0713 13:52:16.967090  1794 layer_factory.hpp:77] Creating layer inception_4b/5x5_reduce
I0713 13:52:16.967120  1794 net.cpp:91] Creating Layer inception_4b/5x5_reduce
I0713 13:52:16.967128  1794 net.cpp:425] inception_4b/5x5_reduce <- inception_4a/output_inception_4a/output_0_split_2
I0713 13:52:16.967141  1794 net.cpp:399] inception_4b/5x5_reduce -> inception_4b/5x5_reduce
I0713 13:52:16.969609  1794 net.cpp:141] Setting up inception_4b/5x5_reduce
I0713 13:52:16.969629  1794 net.cpp:148] Top shape: 10 24 14 14 (47040)
I0713 13:52:16.969635  1794 net.cpp:156] Memory required for data: 397582080
I0713 13:52:16.969645  1794 layer_factory.hpp:77] Creating layer inception_4b/relu_5x5_reduce
I0713 13:52:16.969655  1794 net.cpp:91] Creating Layer inception_4b/relu_5x5_reduce
I0713 13:52:16.969660  1794 net.cpp:425] inception_4b/relu_5x5_reduce <- inception_4b/5x5_reduce
I0713 13:52:16.969668  1794 net.cpp:386] inception_4b/relu_5x5_reduce -> inception_4b/5x5_reduce (in-place)
I0713 13:52:16.969954  1794 net.cpp:141] Setting up inception_4b/relu_5x5_reduce
I0713 13:52:16.969967  1794 net.cpp:148] Top shape: 10 24 14 14 (47040)
I0713 13:52:16.969972  1794 net.cpp:156] Memory required for data: 397770240
I0713 13:52:16.969979  1794 layer_factory.hpp:77] Creating layer inception_4b/5x5
I0713 13:52:16.969995  1794 net.cpp:91] Creating Layer inception_4b/5x5
I0713 13:52:16.970001  1794 net.cpp:425] inception_4b/5x5 <- inception_4b/5x5_reduce
I0713 13:52:16.970016  1794 net.cpp:399] inception_4b/5x5 -> inception_4b/5x5
I0713 13:52:16.973853  1794 net.cpp:141] Setting up inception_4b/5x5
I0713 13:52:16.973875  1794 net.cpp:148] Top shape: 10 64 14 14 (125440)
I0713 13:52:16.973881  1794 net.cpp:156] Memory required for data: 398272000
I0713 13:52:16.973891  1794 layer_factory.hpp:77] Creating layer inception_4b/relu_5x5
I0713 13:52:16.973906  1794 net.cpp:91] Creating Layer inception_4b/relu_5x5
I0713 13:52:16.973913  1794 net.cpp:425] inception_4b/relu_5x5 <- inception_4b/5x5
I0713 13:52:16.973922  1794 net.cpp:386] inception_4b/relu_5x5 -> inception_4b/5x5 (in-place)
I0713 13:52:16.974191  1794 net.cpp:141] Setting up inception_4b/relu_5x5
I0713 13:52:16.974203  1794 net.cpp:148] Top shape: 10 64 14 14 (125440)
I0713 13:52:16.974208  1794 net.cpp:156] Memory required for data: 398773760
I0713 13:52:16.974215  1794 layer_factory.hpp:77] Creating layer inception_4b/pool
I0713 13:52:16.974223  1794 net.cpp:91] Creating Layer inception_4b/pool
I0713 13:52:16.974230  1794 net.cpp:425] inception_4b/pool <- inception_4a/output_inception_4a/output_0_split_3
I0713 13:52:16.974241  1794 net.cpp:399] inception_4b/pool -> inception_4b/pool
I0713 13:52:16.974313  1794 net.cpp:141] Setting up inception_4b/pool
I0713 13:52:16.974324  1794 net.cpp:148] Top shape: 10 512 14 14 (1003520)
I0713 13:52:16.974328  1794 net.cpp:156] Memory required for data: 402787840
I0713 13:52:16.974334  1794 layer_factory.hpp:77] Creating layer inception_4b/pool_proj
I0713 13:52:16.974355  1794 net.cpp:91] Creating Layer inception_4b/pool_proj
I0713 13:52:16.974361  1794 net.cpp:425] inception_4b/pool_proj <- inception_4b/pool
I0713 13:52:16.974370  1794 net.cpp:399] inception_4b/pool_proj -> inception_4b/pool_proj
I0713 13:52:16.977005  1794 net.cpp:141] Setting up inception_4b/pool_proj
I0713 13:52:16.977026  1794 net.cpp:148] Top shape: 10 64 14 14 (125440)
I0713 13:52:16.977032  1794 net.cpp:156] Memory required for data: 403289600
I0713 13:52:16.977042  1794 layer_factory.hpp:77] Creating layer inception_4b/relu_pool_proj
I0713 13:52:16.977054  1794 net.cpp:91] Creating Layer inception_4b/relu_pool_proj
I0713 13:52:16.977061  1794 net.cpp:425] inception_4b/relu_pool_proj <- inception_4b/pool_proj
I0713 13:52:16.977069  1794 net.cpp:386] inception_4b/relu_pool_proj -> inception_4b/pool_proj (in-place)
I0713 13:52:16.977895  1794 net.cpp:141] Setting up inception_4b/relu_pool_proj
I0713 13:52:16.977913  1794 net.cpp:148] Top shape: 10 64 14 14 (125440)
I0713 13:52:16.977923  1794 net.cpp:156] Memory required for data: 403791360
I0713 13:52:16.977929  1794 layer_factory.hpp:77] Creating layer inception_4b/output
I0713 13:52:16.977939  1794 net.cpp:91] Creating Layer inception_4b/output
I0713 13:52:16.977946  1794 net.cpp:425] inception_4b/output <- inception_4b/1x1
I0713 13:52:16.977952  1794 net.cpp:425] inception_4b/output <- inception_4b/3x3
I0713 13:52:16.977958  1794 net.cpp:425] inception_4b/output <- inception_4b/5x5
I0713 13:52:16.977964  1794 net.cpp:425] inception_4b/output <- inception_4b/pool_proj
I0713 13:52:16.977972  1794 net.cpp:399] inception_4b/output -> inception_4b/output
I0713 13:52:16.978029  1794 net.cpp:141] Setting up inception_4b/output
I0713 13:52:16.978039  1794 net.cpp:148] Top shape: 10 512 14 14 (1003520)
I0713 13:52:16.978044  1794 net.cpp:156] Memory required for data: 407805440
I0713 13:52:16.978049  1794 layer_factory.hpp:77] Creating layer inception_4b/output_inception_4b/output_0_split
I0713 13:52:16.978057  1794 net.cpp:91] Creating Layer inception_4b/output_inception_4b/output_0_split
I0713 13:52:16.978062  1794 net.cpp:425] inception_4b/output_inception_4b/output_0_split <- inception_4b/output
I0713 13:52:16.978072  1794 net.cpp:399] inception_4b/output_inception_4b/output_0_split -> inception_4b/output_inception_4b/output_0_split_0
I0713 13:52:16.978082  1794 net.cpp:399] inception_4b/output_inception_4b/output_0_split -> inception_4b/output_inception_4b/output_0_split_1
I0713 13:52:16.978091  1794 net.cpp:399] inception_4b/output_inception_4b/output_0_split -> inception_4b/output_inception_4b/output_0_split_2
I0713 13:52:16.978099  1794 net.cpp:399] inception_4b/output_inception_4b/output_0_split -> inception_4b/output_inception_4b/output_0_split_3
I0713 13:52:16.978198  1794 net.cpp:141] Setting up inception_4b/output_inception_4b/output_0_split
I0713 13:52:16.978207  1794 net.cpp:148] Top shape: 10 512 14 14 (1003520)
I0713 13:52:16.978214  1794 net.cpp:148] Top shape: 10 512 14 14 (1003520)
I0713 13:52:16.978219  1794 net.cpp:148] Top shape: 10 512 14 14 (1003520)
I0713 13:52:16.978225  1794 net.cpp:148] Top shape: 10 512 14 14 (1003520)
I0713 13:52:16.978229  1794 net.cpp:156] Memory required for data: 423861760
I0713 13:52:16.978235  1794 layer_factory.hpp:77] Creating layer inception_4c/1x1
I0713 13:52:16.978251  1794 net.cpp:91] Creating Layer inception_4c/1x1
I0713 13:52:16.978257  1794 net.cpp:425] inception_4c/1x1 <- inception_4b/output_inception_4b/output_0_split_0
I0713 13:52:16.978267  1794 net.cpp:399] inception_4c/1x1 -> inception_4c/1x1
I0713 13:52:16.981272  1794 net.cpp:141] Setting up inception_4c/1x1
I0713 13:52:16.981295  1794 net.cpp:148] Top shape: 10 128 14 14 (250880)
I0713 13:52:16.981302  1794 net.cpp:156] Memory required for data: 424865280
I0713 13:52:16.981312  1794 layer_factory.hpp:77] Creating layer inception_4c/relu_1x1
I0713 13:52:16.981323  1794 net.cpp:91] Creating Layer inception_4c/relu_1x1
I0713 13:52:16.981329  1794 net.cpp:425] inception_4c/relu_1x1 <- inception_4c/1x1
I0713 13:52:16.981338  1794 net.cpp:386] inception_4c/relu_1x1 -> inception_4c/1x1 (in-place)
I0713 13:52:16.981606  1794 net.cpp:141] Setting up inception_4c/relu_1x1
I0713 13:52:16.981617  1794 net.cpp:148] Top shape: 10 128 14 14 (250880)
I0713 13:52:16.981622  1794 net.cpp:156] Memory required for data: 425868800
I0713 13:52:16.981628  1794 layer_factory.hpp:77] Creating layer inception_4c/3x3_reduce
I0713 13:52:16.981644  1794 net.cpp:91] Creating Layer inception_4c/3x3_reduce
I0713 13:52:16.981652  1794 net.cpp:425] inception_4c/3x3_reduce <- inception_4b/output_inception_4b/output_0_split_1
I0713 13:52:16.981664  1794 net.cpp:399] inception_4c/3x3_reduce -> inception_4c/3x3_reduce
I0713 13:52:16.984573  1794 net.cpp:141] Setting up inception_4c/3x3_reduce
I0713 13:52:16.984596  1794 net.cpp:148] Top shape: 10 128 14 14 (250880)
I0713 13:52:16.984601  1794 net.cpp:156] Memory required for data: 426872320
I0713 13:52:16.984611  1794 layer_factory.hpp:77] Creating layer inception_4c/relu_3x3_reduce
I0713 13:52:16.984622  1794 net.cpp:91] Creating Layer inception_4c/relu_3x3_reduce
I0713 13:52:16.984627  1794 net.cpp:425] inception_4c/relu_3x3_reduce <- inception_4c/3x3_reduce
I0713 13:52:16.984634  1794 net.cpp:386] inception_4c/relu_3x3_reduce -> inception_4c/3x3_reduce (in-place)
I0713 13:52:16.984906  1794 net.cpp:141] Setting up inception_4c/relu_3x3_reduce
I0713 13:52:16.984918  1794 net.cpp:148] Top shape: 10 128 14 14 (250880)
I0713 13:52:16.984923  1794 net.cpp:156] Memory required for data: 427875840
I0713 13:52:16.984930  1794 layer_factory.hpp:77] Creating layer inception_4c/3x3
I0713 13:52:16.984946  1794 net.cpp:91] Creating Layer inception_4c/3x3
I0713 13:52:16.984952  1794 net.cpp:425] inception_4c/3x3 <- inception_4c/3x3_reduce
I0713 13:52:16.984964  1794 net.cpp:399] inception_4c/3x3 -> inception_4c/3x3
I0713 13:52:16.990993  1794 net.cpp:141] Setting up inception_4c/3x3
I0713 13:52:16.991014  1794 net.cpp:148] Top shape: 10 256 14 14 (501760)
I0713 13:52:16.991019  1794 net.cpp:156] Memory required for data: 429882880
I0713 13:52:16.991029  1794 layer_factory.hpp:77] Creating layer inception_4c/relu_3x3
I0713 13:52:16.991044  1794 net.cpp:91] Creating Layer inception_4c/relu_3x3
I0713 13:52:16.991050  1794 net.cpp:425] inception_4c/relu_3x3 <- inception_4c/3x3
I0713 13:52:16.991058  1794 net.cpp:386] inception_4c/relu_3x3 -> inception_4c/3x3 (in-place)
I0713 13:52:16.991858  1794 net.cpp:141] Setting up inception_4c/relu_3x3
I0713 13:52:16.991874  1794 net.cpp:148] Top shape: 10 256 14 14 (501760)
I0713 13:52:16.991880  1794 net.cpp:156] Memory required for data: 431889920
I0713 13:52:16.991885  1794 layer_factory.hpp:77] Creating layer inception_4c/5x5_reduce
I0713 13:52:16.991906  1794 net.cpp:91] Creating Layer inception_4c/5x5_reduce
I0713 13:52:16.991914  1794 net.cpp:425] inception_4c/5x5_reduce <- inception_4b/output_inception_4b/output_0_split_2
I0713 13:52:16.991924  1794 net.cpp:399] inception_4c/5x5_reduce -> inception_4c/5x5_reduce
I0713 13:52:16.994379  1794 net.cpp:141] Setting up inception_4c/5x5_reduce
I0713 13:52:16.994401  1794 net.cpp:148] Top shape: 10 24 14 14 (47040)
I0713 13:52:16.994407  1794 net.cpp:156] Memory required for data: 432078080
I0713 13:52:16.994418  1794 layer_factory.hpp:77] Creating layer inception_4c/relu_5x5_reduce
I0713 13:52:16.994427  1794 net.cpp:91] Creating Layer inception_4c/relu_5x5_reduce
I0713 13:52:16.994433  1794 net.cpp:425] inception_4c/relu_5x5_reduce <- inception_4c/5x5_reduce
I0713 13:52:16.994441  1794 net.cpp:386] inception_4c/relu_5x5_reduce -> inception_4c/5x5_reduce (in-place)
I0713 13:52:16.994740  1794 net.cpp:141] Setting up inception_4c/relu_5x5_reduce
I0713 13:52:16.994752  1794 net.cpp:148] Top shape: 10 24 14 14 (47040)
I0713 13:52:16.994758  1794 net.cpp:156] Memory required for data: 432266240
I0713 13:52:16.994763  1794 layer_factory.hpp:77] Creating layer inception_4c/5x5
I0713 13:52:16.994781  1794 net.cpp:91] Creating Layer inception_4c/5x5
I0713 13:52:16.994787  1794 net.cpp:425] inception_4c/5x5 <- inception_4c/5x5_reduce
I0713 13:52:16.994801  1794 net.cpp:399] inception_4c/5x5 -> inception_4c/5x5
I0713 13:52:16.998072  1794 net.cpp:141] Setting up inception_4c/5x5
I0713 13:52:16.998093  1794 net.cpp:148] Top shape: 10 64 14 14 (125440)
I0713 13:52:16.998100  1794 net.cpp:156] Memory required for data: 432768000
I0713 13:52:16.998109  1794 layer_factory.hpp:77] Creating layer inception_4c/relu_5x5
I0713 13:52:16.998118  1794 net.cpp:91] Creating Layer inception_4c/relu_5x5
I0713 13:52:16.998124  1794 net.cpp:425] inception_4c/relu_5x5 <- inception_4c/5x5
I0713 13:52:16.998136  1794 net.cpp:386] inception_4c/relu_5x5 -> inception_4c/5x5 (in-place)
I0713 13:52:16.998402  1794 net.cpp:141] Setting up inception_4c/relu_5x5
I0713 13:52:16.998417  1794 net.cpp:148] Top shape: 10 64 14 14 (125440)
I0713 13:52:16.998422  1794 net.cpp:156] Memory required for data: 433269760
I0713 13:52:16.998427  1794 layer_factory.hpp:77] Creating layer inception_4c/pool
I0713 13:52:16.998437  1794 net.cpp:91] Creating Layer inception_4c/pool
I0713 13:52:16.998443  1794 net.cpp:425] inception_4c/pool <- inception_4b/output_inception_4b/output_0_split_3
I0713 13:52:16.998451  1794 net.cpp:399] inception_4c/pool -> inception_4c/pool
I0713 13:52:16.998534  1794 net.cpp:141] Setting up inception_4c/pool
I0713 13:52:16.998545  1794 net.cpp:148] Top shape: 10 512 14 14 (1003520)
I0713 13:52:16.998550  1794 net.cpp:156] Memory required for data: 437283840
I0713 13:52:16.998555  1794 layer_factory.hpp:77] Creating layer inception_4c/pool_proj
I0713 13:52:16.998572  1794 net.cpp:91] Creating Layer inception_4c/pool_proj
I0713 13:52:16.998579  1794 net.cpp:425] inception_4c/pool_proj <- inception_4c/pool
I0713 13:52:16.998590  1794 net.cpp:399] inception_4c/pool_proj -> inception_4c/pool_proj
I0713 13:52:17.002383  1794 net.cpp:141] Setting up inception_4c/pool_proj
I0713 13:52:17.002406  1794 net.cpp:148] Top shape: 10 64 14 14 (125440)
I0713 13:52:17.002413  1794 net.cpp:156] Memory required for data: 437785600
I0713 13:52:17.002442  1794 layer_factory.hpp:77] Creating layer inception_4c/relu_pool_proj
I0713 13:52:17.002456  1794 net.cpp:91] Creating Layer inception_4c/relu_pool_proj
I0713 13:52:17.002463  1794 net.cpp:425] inception_4c/relu_pool_proj <- inception_4c/pool_proj
I0713 13:52:17.002471  1794 net.cpp:386] inception_4c/relu_pool_proj -> inception_4c/pool_proj (in-place)
I0713 13:52:17.003438  1794 net.cpp:141] Setting up inception_4c/relu_pool_proj
I0713 13:52:17.003458  1794 net.cpp:148] Top shape: 10 64 14 14 (125440)
I0713 13:52:17.003463  1794 net.cpp:156] Memory required for data: 438287360
I0713 13:52:17.003468  1794 layer_factory.hpp:77] Creating layer inception_4c/output
I0713 13:52:17.003478  1794 net.cpp:91] Creating Layer inception_4c/output
I0713 13:52:17.003484  1794 net.cpp:425] inception_4c/output <- inception_4c/1x1
I0713 13:52:17.003491  1794 net.cpp:425] inception_4c/output <- inception_4c/3x3
I0713 13:52:17.003500  1794 net.cpp:425] inception_4c/output <- inception_4c/5x5
I0713 13:52:17.003506  1794 net.cpp:425] inception_4c/output <- inception_4c/pool_proj
I0713 13:52:17.003515  1794 net.cpp:399] inception_4c/output -> inception_4c/output
I0713 13:52:17.003564  1794 net.cpp:141] Setting up inception_4c/output
I0713 13:52:17.003574  1794 net.cpp:148] Top shape: 10 512 14 14 (1003520)
I0713 13:52:17.003579  1794 net.cpp:156] Memory required for data: 442301440
I0713 13:52:17.003584  1794 layer_factory.hpp:77] Creating layer inception_4c/output_inception_4c/output_0_split
I0713 13:52:17.003599  1794 net.cpp:91] Creating Layer inception_4c/output_inception_4c/output_0_split
I0713 13:52:17.003605  1794 net.cpp:425] inception_4c/output_inception_4c/output_0_split <- inception_4c/output
I0713 13:52:17.003612  1794 net.cpp:399] inception_4c/output_inception_4c/output_0_split -> inception_4c/output_inception_4c/output_0_split_0
I0713 13:52:17.003625  1794 net.cpp:399] inception_4c/output_inception_4c/output_0_split -> inception_4c/output_inception_4c/output_0_split_1
I0713 13:52:17.003634  1794 net.cpp:399] inception_4c/output_inception_4c/output_0_split -> inception_4c/output_inception_4c/output_0_split_2
I0713 13:52:17.003643  1794 net.cpp:399] inception_4c/output_inception_4c/output_0_split -> inception_4c/output_inception_4c/output_0_split_3
I0713 13:52:17.003760  1794 net.cpp:141] Setting up inception_4c/output_inception_4c/output_0_split
I0713 13:52:17.003772  1794 net.cpp:148] Top shape: 10 512 14 14 (1003520)
I0713 13:52:17.003779  1794 net.cpp:148] Top shape: 10 512 14 14 (1003520)
I0713 13:52:17.003785  1794 net.cpp:148] Top shape: 10 512 14 14 (1003520)
I0713 13:52:17.003790  1794 net.cpp:148] Top shape: 10 512 14 14 (1003520)
I0713 13:52:17.003795  1794 net.cpp:156] Memory required for data: 458357760
I0713 13:52:17.003800  1794 layer_factory.hpp:77] Creating layer inception_4d/1x1
I0713 13:52:17.003818  1794 net.cpp:91] Creating Layer inception_4d/1x1
I0713 13:52:17.003823  1794 net.cpp:425] inception_4d/1x1 <- inception_4c/output_inception_4c/output_0_split_0
I0713 13:52:17.003841  1794 net.cpp:399] inception_4d/1x1 -> inception_4d/1x1
I0713 13:52:17.006685  1794 net.cpp:141] Setting up inception_4d/1x1
I0713 13:52:17.006716  1794 net.cpp:148] Top shape: 10 112 14 14 (219520)
I0713 13:52:17.006721  1794 net.cpp:156] Memory required for data: 459235840
I0713 13:52:17.006732  1794 layer_factory.hpp:77] Creating layer inception_4d/relu_1x1
I0713 13:52:17.006742  1794 net.cpp:91] Creating Layer inception_4d/relu_1x1
I0713 13:52:17.006748  1794 net.cpp:425] inception_4d/relu_1x1 <- inception_4d/1x1
I0713 13:52:17.006762  1794 net.cpp:386] inception_4d/relu_1x1 -> inception_4d/1x1 (in-place)
I0713 13:52:17.007047  1794 net.cpp:141] Setting up inception_4d/relu_1x1
I0713 13:52:17.007063  1794 net.cpp:148] Top shape: 10 112 14 14 (219520)
I0713 13:52:17.007069  1794 net.cpp:156] Memory required for data: 460113920
I0713 13:52:17.007074  1794 layer_factory.hpp:77] Creating layer inception_4d/3x3_reduce
I0713 13:52:17.007092  1794 net.cpp:91] Creating Layer inception_4d/3x3_reduce
I0713 13:52:17.007098  1794 net.cpp:425] inception_4d/3x3_reduce <- inception_4c/output_inception_4c/output_0_split_1
I0713 13:52:17.007109  1794 net.cpp:399] inception_4d/3x3_reduce -> inception_4d/3x3_reduce
I0713 13:52:17.010133  1794 net.cpp:141] Setting up inception_4d/3x3_reduce
I0713 13:52:17.010155  1794 net.cpp:148] Top shape: 10 144 14 14 (282240)
I0713 13:52:17.010161  1794 net.cpp:156] Memory required for data: 461242880
I0713 13:52:17.010171  1794 layer_factory.hpp:77] Creating layer inception_4d/relu_3x3_reduce
I0713 13:52:17.010185  1794 net.cpp:91] Creating Layer inception_4d/relu_3x3_reduce
I0713 13:52:17.010192  1794 net.cpp:425] inception_4d/relu_3x3_reduce <- inception_4d/3x3_reduce
I0713 13:52:17.010200  1794 net.cpp:386] inception_4d/relu_3x3_reduce -> inception_4d/3x3_reduce (in-place)
I0713 13:52:17.010474  1794 net.cpp:141] Setting up inception_4d/relu_3x3_reduce
I0713 13:52:17.010486  1794 net.cpp:148] Top shape: 10 144 14 14 (282240)
I0713 13:52:17.010491  1794 net.cpp:156] Memory required for data: 462371840
I0713 13:52:17.010496  1794 layer_factory.hpp:77] Creating layer inception_4d/3x3
I0713 13:52:17.010514  1794 net.cpp:91] Creating Layer inception_4d/3x3
I0713 13:52:17.010520  1794 net.cpp:425] inception_4d/3x3 <- inception_4d/3x3_reduce
I0713 13:52:17.010532  1794 net.cpp:399] inception_4d/3x3 -> inception_4d/3x3
I0713 13:52:17.017510  1794 net.cpp:141] Setting up inception_4d/3x3
I0713 13:52:17.017534  1794 net.cpp:148] Top shape: 10 288 14 14 (564480)
I0713 13:52:17.017539  1794 net.cpp:156] Memory required for data: 464629760
I0713 13:52:17.017550  1794 layer_factory.hpp:77] Creating layer inception_4d/relu_3x3
I0713 13:52:17.017560  1794 net.cpp:91] Creating Layer inception_4d/relu_3x3
I0713 13:52:17.017567  1794 net.cpp:425] inception_4d/relu_3x3 <- inception_4d/3x3
I0713 13:52:17.017578  1794 net.cpp:386] inception_4d/relu_3x3 -> inception_4d/3x3 (in-place)
I0713 13:52:17.018389  1794 net.cpp:141] Setting up inception_4d/relu_3x3
I0713 13:52:17.018406  1794 net.cpp:148] Top shape: 10 288 14 14 (564480)
I0713 13:52:17.018411  1794 net.cpp:156] Memory required for data: 466887680
I0713 13:52:17.018417  1794 layer_factory.hpp:77] Creating layer inception_4d/5x5_reduce
I0713 13:52:17.018436  1794 net.cpp:91] Creating Layer inception_4d/5x5_reduce
I0713 13:52:17.018443  1794 net.cpp:425] inception_4d/5x5_reduce <- inception_4c/output_inception_4c/output_0_split_2
I0713 13:52:17.018457  1794 net.cpp:399] inception_4d/5x5_reduce -> inception_4d/5x5_reduce
I0713 13:52:17.020985  1794 net.cpp:141] Setting up inception_4d/5x5_reduce
I0713 13:52:17.021004  1794 net.cpp:148] Top shape: 10 32 14 14 (62720)
I0713 13:52:17.021010  1794 net.cpp:156] Memory required for data: 467138560
I0713 13:52:17.021021  1794 layer_factory.hpp:77] Creating layer inception_4d/relu_5x5_reduce
I0713 13:52:17.021030  1794 net.cpp:91] Creating Layer inception_4d/relu_5x5_reduce
I0713 13:52:17.021036  1794 net.cpp:425] inception_4d/relu_5x5_reduce <- inception_4d/5x5_reduce
I0713 13:52:17.021049  1794 net.cpp:386] inception_4d/relu_5x5_reduce -> inception_4d/5x5_reduce (in-place)
I0713 13:52:17.021338  1794 net.cpp:141] Setting up inception_4d/relu_5x5_reduce
I0713 13:52:17.021354  1794 net.cpp:148] Top shape: 10 32 14 14 (62720)
I0713 13:52:17.021359  1794 net.cpp:156] Memory required for data: 467389440
I0713 13:52:17.021365  1794 layer_factory.hpp:77] Creating layer inception_4d/5x5
I0713 13:52:17.021384  1794 net.cpp:91] Creating Layer inception_4d/5x5
I0713 13:52:17.021390  1794 net.cpp:425] inception_4d/5x5 <- inception_4d/5x5_reduce
I0713 13:52:17.021400  1794 net.cpp:399] inception_4d/5x5 -> inception_4d/5x5
I0713 13:52:17.027480  1794 net.cpp:141] Setting up inception_4d/5x5
I0713 13:52:17.027506  1794 net.cpp:148] Top shape: 10 64 14 14 (125440)
I0713 13:52:17.027513  1794 net.cpp:156] Memory required for data: 467891200
I0713 13:52:17.027526  1794 layer_factory.hpp:77] Creating layer inception_4d/relu_5x5
I0713 13:52:17.027536  1794 net.cpp:91] Creating Layer inception_4d/relu_5x5
I0713 13:52:17.027547  1794 net.cpp:425] inception_4d/relu_5x5 <- inception_4d/5x5
I0713 13:52:17.027556  1794 net.cpp:386] inception_4d/relu_5x5 -> inception_4d/5x5 (in-place)
I0713 13:52:17.027834  1794 net.cpp:141] Setting up inception_4d/relu_5x5
I0713 13:52:17.027847  1794 net.cpp:148] Top shape: 10 64 14 14 (125440)
I0713 13:52:17.027851  1794 net.cpp:156] Memory required for data: 468392960
I0713 13:52:17.027858  1794 layer_factory.hpp:77] Creating layer inception_4d/pool
I0713 13:52:17.027874  1794 net.cpp:91] Creating Layer inception_4d/pool
I0713 13:52:17.027881  1794 net.cpp:425] inception_4d/pool <- inception_4c/output_inception_4c/output_0_split_3
I0713 13:52:17.027891  1794 net.cpp:399] inception_4d/pool -> inception_4d/pool
I0713 13:52:17.027987  1794 net.cpp:141] Setting up inception_4d/pool
I0713 13:52:17.027998  1794 net.cpp:148] Top shape: 10 512 14 14 (1003520)
I0713 13:52:17.028003  1794 net.cpp:156] Memory required for data: 472407040
I0713 13:52:17.028008  1794 layer_factory.hpp:77] Creating layer inception_4d/pool_proj
I0713 13:52:17.028026  1794 net.cpp:91] Creating Layer inception_4d/pool_proj
I0713 13:52:17.028033  1794 net.cpp:425] inception_4d/pool_proj <- inception_4d/pool
I0713 13:52:17.028046  1794 net.cpp:399] inception_4d/pool_proj -> inception_4d/pool_proj
I0713 13:52:17.030802  1794 net.cpp:141] Setting up inception_4d/pool_proj
I0713 13:52:17.030822  1794 net.cpp:148] Top shape: 10 64 14 14 (125440)
I0713 13:52:17.030828  1794 net.cpp:156] Memory required for data: 472908800
I0713 13:52:17.030838  1794 layer_factory.hpp:77] Creating layer inception_4d/relu_pool_proj
I0713 13:52:17.030848  1794 net.cpp:91] Creating Layer inception_4d/relu_pool_proj
I0713 13:52:17.030854  1794 net.cpp:425] inception_4d/relu_pool_proj <- inception_4d/pool_proj
I0713 13:52:17.030866  1794 net.cpp:386] inception_4d/relu_pool_proj -> inception_4d/pool_proj (in-place)
I0713 13:52:17.031678  1794 net.cpp:141] Setting up inception_4d/relu_pool_proj
I0713 13:52:17.031693  1794 net.cpp:148] Top shape: 10 64 14 14 (125440)
I0713 13:52:17.031698  1794 net.cpp:156] Memory required for data: 473410560
I0713 13:52:17.031704  1794 layer_factory.hpp:77] Creating layer inception_4d/output
I0713 13:52:17.031718  1794 net.cpp:91] Creating Layer inception_4d/output
I0713 13:52:17.031724  1794 net.cpp:425] inception_4d/output <- inception_4d/1x1
I0713 13:52:17.031733  1794 net.cpp:425] inception_4d/output <- inception_4d/3x3
I0713 13:52:17.031738  1794 net.cpp:425] inception_4d/output <- inception_4d/5x5
I0713 13:52:17.031744  1794 net.cpp:425] inception_4d/output <- inception_4d/pool_proj
I0713 13:52:17.031751  1794 net.cpp:399] inception_4d/output -> inception_4d/output
I0713 13:52:17.031810  1794 net.cpp:141] Setting up inception_4d/output
I0713 13:52:17.031821  1794 net.cpp:148] Top shape: 10 528 14 14 (1034880)
I0713 13:52:17.031826  1794 net.cpp:156] Memory required for data: 477550080
I0713 13:52:17.031831  1794 layer_factory.hpp:77] Creating layer inception_4d/output_inception_4d/output_0_split
I0713 13:52:17.031841  1794 net.cpp:91] Creating Layer inception_4d/output_inception_4d/output_0_split
I0713 13:52:17.031846  1794 net.cpp:425] inception_4d/output_inception_4d/output_0_split <- inception_4d/output
I0713 13:52:17.031858  1794 net.cpp:399] inception_4d/output_inception_4d/output_0_split -> inception_4d/output_inception_4d/output_0_split_0
I0713 13:52:17.031869  1794 net.cpp:399] inception_4d/output_inception_4d/output_0_split -> inception_4d/output_inception_4d/output_0_split_1
I0713 13:52:17.031878  1794 net.cpp:399] inception_4d/output_inception_4d/output_0_split -> inception_4d/output_inception_4d/output_0_split_2
I0713 13:52:17.031886  1794 net.cpp:399] inception_4d/output_inception_4d/output_0_split -> inception_4d/output_inception_4d/output_0_split_3
I0713 13:52:17.031997  1794 net.cpp:141] Setting up inception_4d/output_inception_4d/output_0_split
I0713 13:52:17.032007  1794 net.cpp:148] Top shape: 10 528 14 14 (1034880)
I0713 13:52:17.032013  1794 net.cpp:148] Top shape: 10 528 14 14 (1034880)
I0713 13:52:17.032019  1794 net.cpp:148] Top shape: 10 528 14 14 (1034880)
I0713 13:52:17.032026  1794 net.cpp:148] Top shape: 10 528 14 14 (1034880)
I0713 13:52:17.032029  1794 net.cpp:156] Memory required for data: 494108160
I0713 13:52:17.032034  1794 layer_factory.hpp:77] Creating layer inception_4e/1x1
I0713 13:52:17.032053  1794 net.cpp:91] Creating Layer inception_4e/1x1
I0713 13:52:17.032060  1794 net.cpp:425] inception_4e/1x1 <- inception_4d/output_inception_4d/output_0_split_0
I0713 13:52:17.032069  1794 net.cpp:399] inception_4e/1x1 -> inception_4e/1x1
I0713 13:52:17.037618  1794 net.cpp:141] Setting up inception_4e/1x1
I0713 13:52:17.037639  1794 net.cpp:148] Top shape: 10 256 14 14 (501760)
I0713 13:52:17.037645  1794 net.cpp:156] Memory required for data: 496115200
I0713 13:52:17.037655  1794 layer_factory.hpp:77] Creating layer inception_4e/relu_1x1
I0713 13:52:17.037669  1794 net.cpp:91] Creating Layer inception_4e/relu_1x1
I0713 13:52:17.037678  1794 net.cpp:425] inception_4e/relu_1x1 <- inception_4e/1x1
I0713 13:52:17.037685  1794 net.cpp:386] inception_4e/relu_1x1 -> inception_4e/1x1 (in-place)
I0713 13:52:17.037966  1794 net.cpp:141] Setting up inception_4e/relu_1x1
I0713 13:52:17.037977  1794 net.cpp:148] Top shape: 10 256 14 14 (501760)
I0713 13:52:17.037982  1794 net.cpp:156] Memory required for data: 498122240
I0713 13:52:17.037988  1794 layer_factory.hpp:77] Creating layer inception_4e/3x3_reduce
I0713 13:52:17.038005  1794 net.cpp:91] Creating Layer inception_4e/3x3_reduce
I0713 13:52:17.038012  1794 net.cpp:425] inception_4e/3x3_reduce <- inception_4d/output_inception_4d/output_0_split_1
I0713 13:52:17.038024  1794 net.cpp:399] inception_4e/3x3_reduce -> inception_4e/3x3_reduce
I0713 13:52:17.041147  1794 net.cpp:141] Setting up inception_4e/3x3_reduce
I0713 13:52:17.041167  1794 net.cpp:148] Top shape: 10 160 14 14 (313600)
I0713 13:52:17.041172  1794 net.cpp:156] Memory required for data: 499376640
I0713 13:52:17.041182  1794 layer_factory.hpp:77] Creating layer inception_4e/relu_3x3_reduce
I0713 13:52:17.041196  1794 net.cpp:91] Creating Layer inception_4e/relu_3x3_reduce
I0713 13:52:17.041203  1794 net.cpp:425] inception_4e/relu_3x3_reduce <- inception_4e/3x3_reduce
I0713 13:52:17.041211  1794 net.cpp:386] inception_4e/relu_3x3_reduce -> inception_4e/3x3_reduce (in-place)
I0713 13:52:17.041486  1794 net.cpp:141] Setting up inception_4e/relu_3x3_reduce
I0713 13:52:17.041499  1794 net.cpp:148] Top shape: 10 160 14 14 (313600)
I0713 13:52:17.041504  1794 net.cpp:156] Memory required for data: 500631040
I0713 13:52:17.041509  1794 layer_factory.hpp:77] Creating layer inception_4e/3x3
I0713 13:52:17.041527  1794 net.cpp:91] Creating Layer inception_4e/3x3
I0713 13:52:17.041533  1794 net.cpp:425] inception_4e/3x3 <- inception_4e/3x3_reduce
I0713 13:52:17.041545  1794 net.cpp:399] inception_4e/3x3 -> inception_4e/3x3
I0713 13:52:17.049392  1794 net.cpp:141] Setting up inception_4e/3x3
I0713 13:52:17.049418  1794 net.cpp:148] Top shape: 10 320 14 14 (627200)
I0713 13:52:17.049424  1794 net.cpp:156] Memory required for data: 503139840
I0713 13:52:17.049435  1794 layer_factory.hpp:77] Creating layer inception_4e/relu_3x3
I0713 13:52:17.049444  1794 net.cpp:91] Creating Layer inception_4e/relu_3x3
I0713 13:52:17.049451  1794 net.cpp:425] inception_4e/relu_3x3 <- inception_4e/3x3
I0713 13:52:17.049460  1794 net.cpp:386] inception_4e/relu_3x3 -> inception_4e/3x3 (in-place)
I0713 13:52:17.050310  1794 net.cpp:141] Setting up inception_4e/relu_3x3
I0713 13:52:17.050328  1794 net.cpp:148] Top shape: 10 320 14 14 (627200)
I0713 13:52:17.050333  1794 net.cpp:156] Memory required for data: 505648640
I0713 13:52:17.050339  1794 layer_factory.hpp:77] Creating layer inception_4e/5x5_reduce
I0713 13:52:17.050359  1794 net.cpp:91] Creating Layer inception_4e/5x5_reduce
I0713 13:52:17.050366  1794 net.cpp:425] inception_4e/5x5_reduce <- inception_4d/output_inception_4d/output_0_split_2
I0713 13:52:17.050379  1794 net.cpp:399] inception_4e/5x5_reduce -> inception_4e/5x5_reduce
I0713 13:52:17.052976  1794 net.cpp:141] Setting up inception_4e/5x5_reduce
I0713 13:52:17.052999  1794 net.cpp:148] Top shape: 10 32 14 14 (62720)
I0713 13:52:17.053005  1794 net.cpp:156] Memory required for data: 505899520
I0713 13:52:17.053015  1794 layer_factory.hpp:77] Creating layer inception_4e/relu_5x5_reduce
I0713 13:52:17.053025  1794 net.cpp:91] Creating Layer inception_4e/relu_5x5_reduce
I0713 13:52:17.053030  1794 net.cpp:425] inception_4e/relu_5x5_reduce <- inception_4e/5x5_reduce
I0713 13:52:17.053041  1794 net.cpp:386] inception_4e/relu_5x5_reduce -> inception_4e/5x5_reduce (in-place)
I0713 13:52:17.053333  1794 net.cpp:141] Setting up inception_4e/relu_5x5_reduce
I0713 13:52:17.053346  1794 net.cpp:148] Top shape: 10 32 14 14 (62720)
I0713 13:52:17.053350  1794 net.cpp:156] Memory required for data: 506150400
I0713 13:52:17.053357  1794 layer_factory.hpp:77] Creating layer inception_4e/5x5
I0713 13:52:17.053377  1794 net.cpp:91] Creating Layer inception_4e/5x5
I0713 13:52:17.053385  1794 net.cpp:425] inception_4e/5x5 <- inception_4e/5x5_reduce
I0713 13:52:17.053395  1794 net.cpp:399] inception_4e/5x5 -> inception_4e/5x5
I0713 13:52:17.057852  1794 net.cpp:141] Setting up inception_4e/5x5
I0713 13:52:17.057873  1794 net.cpp:148] Top shape: 10 128 14 14 (250880)
I0713 13:52:17.057878  1794 net.cpp:156] Memory required for data: 507153920
I0713 13:52:17.057888  1794 layer_factory.hpp:77] Creating layer inception_4e/relu_5x5
I0713 13:52:17.057899  1794 net.cpp:91] Creating Layer inception_4e/relu_5x5
I0713 13:52:17.057905  1794 net.cpp:425] inception_4e/relu_5x5 <- inception_4e/5x5
I0713 13:52:17.057916  1794 net.cpp:386] inception_4e/relu_5x5 -> inception_4e/5x5 (in-place)
I0713 13:52:17.058197  1794 net.cpp:141] Setting up inception_4e/relu_5x5
I0713 13:52:17.058210  1794 net.cpp:148] Top shape: 10 128 14 14 (250880)
I0713 13:52:17.058215  1794 net.cpp:156] Memory required for data: 508157440
I0713 13:52:17.058220  1794 layer_factory.hpp:77] Creating layer inception_4e/pool
I0713 13:52:17.058234  1794 net.cpp:91] Creating Layer inception_4e/pool
I0713 13:52:17.058241  1794 net.cpp:425] inception_4e/pool <- inception_4d/output_inception_4d/output_0_split_3
I0713 13:52:17.058249  1794 net.cpp:399] inception_4e/pool -> inception_4e/pool
I0713 13:52:17.058333  1794 net.cpp:141] Setting up inception_4e/pool
I0713 13:52:17.058346  1794 net.cpp:148] Top shape: 10 528 14 14 (1034880)
I0713 13:52:17.058349  1794 net.cpp:156] Memory required for data: 512296960
I0713 13:52:17.058356  1794 layer_factory.hpp:77] Creating layer inception_4e/pool_proj
I0713 13:52:17.058370  1794 net.cpp:91] Creating Layer inception_4e/pool_proj
I0713 13:52:17.058377  1794 net.cpp:425] inception_4e/pool_proj <- inception_4e/pool
I0713 13:52:17.058390  1794 net.cpp:399] inception_4e/pool_proj -> inception_4e/pool_proj
I0713 13:52:17.061363  1794 net.cpp:141] Setting up inception_4e/pool_proj
I0713 13:52:17.061383  1794 net.cpp:148] Top shape: 10 128 14 14 (250880)
I0713 13:52:17.061389  1794 net.cpp:156] Memory required for data: 513300480
I0713 13:52:17.061398  1794 layer_factory.hpp:77] Creating layer inception_4e/relu_pool_proj
I0713 13:52:17.061408  1794 net.cpp:91] Creating Layer inception_4e/relu_pool_proj
I0713 13:52:17.061414  1794 net.cpp:425] inception_4e/relu_pool_proj <- inception_4e/pool_proj
I0713 13:52:17.061422  1794 net.cpp:386] inception_4e/relu_pool_proj -> inception_4e/pool_proj (in-place)
I0713 13:52:17.062453  1794 net.cpp:141] Setting up inception_4e/relu_pool_proj
I0713 13:52:17.062474  1794 net.cpp:148] Top shape: 10 128 14 14 (250880)
I0713 13:52:17.062479  1794 net.cpp:156] Memory required for data: 514304000
I0713 13:52:17.062484  1794 layer_factory.hpp:77] Creating layer inception_4e/output
I0713 13:52:17.062494  1794 net.cpp:91] Creating Layer inception_4e/output
I0713 13:52:17.062501  1794 net.cpp:425] inception_4e/output <- inception_4e/1x1
I0713 13:52:17.062508  1794 net.cpp:425] inception_4e/output <- inception_4e/3x3
I0713 13:52:17.062515  1794 net.cpp:425] inception_4e/output <- inception_4e/5x5
I0713 13:52:17.062521  1794 net.cpp:425] inception_4e/output <- inception_4e/pool_proj
I0713 13:52:17.062528  1794 net.cpp:399] inception_4e/output -> inception_4e/output
I0713 13:52:17.062587  1794 net.cpp:141] Setting up inception_4e/output
I0713 13:52:17.062597  1794 net.cpp:148] Top shape: 10 832 14 14 (1630720)
I0713 13:52:17.062605  1794 net.cpp:156] Memory required for data: 520826880
I0713 13:52:17.062610  1794 layer_factory.hpp:77] Creating layer pool4/3x3_s2
I0713 13:52:17.062619  1794 net.cpp:91] Creating Layer pool4/3x3_s2
I0713 13:52:17.062625  1794 net.cpp:425] pool4/3x3_s2 <- inception_4e/output
I0713 13:52:17.062638  1794 net.cpp:399] pool4/3x3_s2 -> pool4/3x3_s2
I0713 13:52:17.062724  1794 net.cpp:141] Setting up pool4/3x3_s2
I0713 13:52:17.062736  1794 net.cpp:148] Top shape: 10 832 7 7 (407680)
I0713 13:52:17.062741  1794 net.cpp:156] Memory required for data: 522457600
I0713 13:52:17.062746  1794 layer_factory.hpp:77] Creating layer pool4/3x3_s2_pool4/3x3_s2_0_split
I0713 13:52:17.062755  1794 net.cpp:91] Creating Layer pool4/3x3_s2_pool4/3x3_s2_0_split
I0713 13:52:17.062760  1794 net.cpp:425] pool4/3x3_s2_pool4/3x3_s2_0_split <- pool4/3x3_s2
I0713 13:52:17.062772  1794 net.cpp:399] pool4/3x3_s2_pool4/3x3_s2_0_split -> pool4/3x3_s2_pool4/3x3_s2_0_split_0
I0713 13:52:17.062782  1794 net.cpp:399] pool4/3x3_s2_pool4/3x3_s2_0_split -> pool4/3x3_s2_pool4/3x3_s2_0_split_1
I0713 13:52:17.062790  1794 net.cpp:399] pool4/3x3_s2_pool4/3x3_s2_0_split -> pool4/3x3_s2_pool4/3x3_s2_0_split_2
I0713 13:52:17.062799  1794 net.cpp:399] pool4/3x3_s2_pool4/3x3_s2_0_split -> pool4/3x3_s2_pool4/3x3_s2_0_split_3
I0713 13:52:17.062911  1794 net.cpp:141] Setting up pool4/3x3_s2_pool4/3x3_s2_0_split
I0713 13:52:17.062921  1794 net.cpp:148] Top shape: 10 832 7 7 (407680)
I0713 13:52:17.062927  1794 net.cpp:148] Top shape: 10 832 7 7 (407680)
I0713 13:52:17.062932  1794 net.cpp:148] Top shape: 10 832 7 7 (407680)
I0713 13:52:17.062938  1794 net.cpp:148] Top shape: 10 832 7 7 (407680)
I0713 13:52:17.062943  1794 net.cpp:156] Memory required for data: 528980480
I0713 13:52:17.062948  1794 layer_factory.hpp:77] Creating layer inception_5a/1x1
I0713 13:52:17.062968  1794 net.cpp:91] Creating Layer inception_5a/1x1
I0713 13:52:17.062974  1794 net.cpp:425] inception_5a/1x1 <- pool4/3x3_s2_pool4/3x3_s2_0_split_0
I0713 13:52:17.062983  1794 net.cpp:399] inception_5a/1x1 -> inception_5a/1x1
I0713 13:52:17.068476  1794 net.cpp:141] Setting up inception_5a/1x1
I0713 13:52:17.068500  1794 net.cpp:148] Top shape: 10 256 7 7 (125440)
I0713 13:52:17.068506  1794 net.cpp:156] Memory required for data: 529482240
I0713 13:52:17.068516  1794 layer_factory.hpp:77] Creating layer inception_5a/relu_1x1
I0713 13:52:17.068531  1794 net.cpp:91] Creating Layer inception_5a/relu_1x1
I0713 13:52:17.068537  1794 net.cpp:425] inception_5a/relu_1x1 <- inception_5a/1x1
I0713 13:52:17.068545  1794 net.cpp:386] inception_5a/relu_1x1 -> inception_5a/1x1 (in-place)
I0713 13:52:17.068826  1794 net.cpp:141] Setting up inception_5a/relu_1x1
I0713 13:52:17.068840  1794 net.cpp:148] Top shape: 10 256 7 7 (125440)
I0713 13:52:17.068845  1794 net.cpp:156] Memory required for data: 529984000
I0713 13:52:17.068850  1794 layer_factory.hpp:77] Creating layer inception_5a/3x3_reduce
I0713 13:52:17.068867  1794 net.cpp:91] Creating Layer inception_5a/3x3_reduce
I0713 13:52:17.068874  1794 net.cpp:425] inception_5a/3x3_reduce <- pool4/3x3_s2_pool4/3x3_s2_0_split_1
I0713 13:52:17.068886  1794 net.cpp:399] inception_5a/3x3_reduce -> inception_5a/3x3_reduce
I0713 13:52:17.073581  1794 net.cpp:141] Setting up inception_5a/3x3_reduce
I0713 13:52:17.073601  1794 net.cpp:148] Top shape: 10 160 7 7 (78400)
I0713 13:52:17.073607  1794 net.cpp:156] Memory required for data: 530297600
I0713 13:52:17.073617  1794 layer_factory.hpp:77] Creating layer inception_5a/relu_3x3_reduce
I0713 13:52:17.073629  1794 net.cpp:91] Creating Layer inception_5a/relu_3x3_reduce
I0713 13:52:17.073637  1794 net.cpp:425] inception_5a/relu_3x3_reduce <- inception_5a/3x3_reduce
I0713 13:52:17.073644  1794 net.cpp:386] inception_5a/relu_3x3_reduce -> inception_5a/3x3_reduce (in-place)
I0713 13:52:17.073938  1794 net.cpp:141] Setting up inception_5a/relu_3x3_reduce
I0713 13:52:17.073951  1794 net.cpp:148] Top shape: 10 160 7 7 (78400)
I0713 13:52:17.073956  1794 net.cpp:156] Memory required for data: 530611200
I0713 13:52:17.073961  1794 layer_factory.hpp:77] Creating layer inception_5a/3x3
I0713 13:52:17.073982  1794 net.cpp:91] Creating Layer inception_5a/3x3
I0713 13:52:17.073988  1794 net.cpp:425] inception_5a/3x3 <- inception_5a/3x3_reduce
I0713 13:52:17.073997  1794 net.cpp:399] inception_5a/3x3 -> inception_5a/3x3
I0713 13:52:17.083166  1794 net.cpp:141] Setting up inception_5a/3x3
I0713 13:52:17.083191  1794 net.cpp:148] Top shape: 10 320 7 7 (156800)
I0713 13:52:17.083199  1794 net.cpp:156] Memory required for data: 531238400
I0713 13:52:17.083209  1794 layer_factory.hpp:77] Creating layer inception_5a/relu_3x3
I0713 13:52:17.083220  1794 net.cpp:91] Creating Layer inception_5a/relu_3x3
I0713 13:52:17.083226  1794 net.cpp:425] inception_5a/relu_3x3 <- inception_5a/3x3
I0713 13:52:17.083240  1794 net.cpp:386] inception_5a/relu_3x3 -> inception_5a/3x3 (in-place)
I0713 13:52:17.084101  1794 net.cpp:141] Setting up inception_5a/relu_3x3
I0713 13:52:17.084120  1794 net.cpp:148] Top shape: 10 320 7 7 (156800)
I0713 13:52:17.084125  1794 net.cpp:156] Memory required for data: 531865600
I0713 13:52:17.084131  1794 layer_factory.hpp:77] Creating layer inception_5a/5x5_reduce
I0713 13:52:17.084151  1794 net.cpp:91] Creating Layer inception_5a/5x5_reduce
I0713 13:52:17.084157  1794 net.cpp:425] inception_5a/5x5_reduce <- pool4/3x3_s2_pool4/3x3_s2_0_split_2
I0713 13:52:17.084170  1794 net.cpp:399] inception_5a/5x5_reduce -> inception_5a/5x5_reduce
I0713 13:52:17.087535  1794 net.cpp:141] Setting up inception_5a/5x5_reduce
I0713 13:52:17.087558  1794 net.cpp:148] Top shape: 10 32 7 7 (15680)
I0713 13:52:17.087564  1794 net.cpp:156] Memory required for data: 531928320
I0713 13:52:17.087576  1794 layer_factory.hpp:77] Creating layer inception_5a/relu_5x5_reduce
I0713 13:52:17.087591  1794 net.cpp:91] Creating Layer inception_5a/relu_5x5_reduce
I0713 13:52:17.087599  1794 net.cpp:425] inception_5a/relu_5x5_reduce <- inception_5a/5x5_reduce
I0713 13:52:17.087606  1794 net.cpp:386] inception_5a/relu_5x5_reduce -> inception_5a/5x5_reduce (in-place)
I0713 13:52:17.087893  1794 net.cpp:141] Setting up inception_5a/relu_5x5_reduce
I0713 13:52:17.087906  1794 net.cpp:148] Top shape: 10 32 7 7 (15680)
I0713 13:52:17.087911  1794 net.cpp:156] Memory required for data: 531991040
I0713 13:52:17.087918  1794 layer_factory.hpp:77] Creating layer inception_5a/5x5
I0713 13:52:17.087935  1794 net.cpp:91] Creating Layer inception_5a/5x5
I0713 13:52:17.087942  1794 net.cpp:425] inception_5a/5x5 <- inception_5a/5x5_reduce
I0713 13:52:17.087954  1794 net.cpp:399] inception_5a/5x5 -> inception_5a/5x5
I0713 13:52:17.091331  1794 net.cpp:141] Setting up inception_5a/5x5
I0713 13:52:17.091353  1794 net.cpp:148] Top shape: 10 128 7 7 (62720)
I0713 13:52:17.091359  1794 net.cpp:156] Memory required for data: 532241920
I0713 13:52:17.091369  1794 layer_factory.hpp:77] Creating layer inception_5a/relu_5x5
I0713 13:52:17.091446  1794 net.cpp:91] Creating Layer inception_5a/relu_5x5
I0713 13:52:17.091454  1794 net.cpp:425] inception_5a/relu_5x5 <- inception_5a/5x5
I0713 13:52:17.091462  1794 net.cpp:386] inception_5a/relu_5x5 -> inception_5a/5x5 (in-place)
I0713 13:52:17.091750  1794 net.cpp:141] Setting up inception_5a/relu_5x5
I0713 13:52:17.091763  1794 net.cpp:148] Top shape: 10 128 7 7 (62720)
I0713 13:52:17.091768  1794 net.cpp:156] Memory required for data: 532492800
I0713 13:52:17.091774  1794 layer_factory.hpp:77] Creating layer inception_5a/pool
I0713 13:52:17.091787  1794 net.cpp:91] Creating Layer inception_5a/pool
I0713 13:52:17.091794  1794 net.cpp:425] inception_5a/pool <- pool4/3x3_s2_pool4/3x3_s2_0_split_3
I0713 13:52:17.091802  1794 net.cpp:399] inception_5a/pool -> inception_5a/pool
I0713 13:52:17.091887  1794 net.cpp:141] Setting up inception_5a/pool
I0713 13:52:17.091898  1794 net.cpp:148] Top shape: 10 832 7 7 (407680)
I0713 13:52:17.091903  1794 net.cpp:156] Memory required for data: 534123520
I0713 13:52:17.091908  1794 layer_factory.hpp:77] Creating layer inception_5a/pool_proj
I0713 13:52:17.091925  1794 net.cpp:91] Creating Layer inception_5a/pool_proj
I0713 13:52:17.091933  1794 net.cpp:425] inception_5a/pool_proj <- inception_5a/pool
I0713 13:52:17.091944  1794 net.cpp:399] inception_5a/pool_proj -> inception_5a/pool_proj
I0713 13:52:17.096647  1794 net.cpp:141] Setting up inception_5a/pool_proj
I0713 13:52:17.096671  1794 net.cpp:148] Top shape: 10 128 7 7 (62720)
I0713 13:52:17.096678  1794 net.cpp:156] Memory required for data: 534374400
I0713 13:52:17.096688  1794 layer_factory.hpp:77] Creating layer inception_5a/relu_pool_proj
I0713 13:52:17.096701  1794 net.cpp:91] Creating Layer inception_5a/relu_pool_proj
I0713 13:52:17.096709  1794 net.cpp:425] inception_5a/relu_pool_proj <- inception_5a/pool_proj
I0713 13:52:17.096716  1794 net.cpp:386] inception_5a/relu_pool_proj -> inception_5a/pool_proj (in-place)
I0713 13:52:17.097545  1794 net.cpp:141] Setting up inception_5a/relu_pool_proj
I0713 13:52:17.097566  1794 net.cpp:148] Top shape: 10 128 7 7 (62720)
I0713 13:52:17.097571  1794 net.cpp:156] Memory required for data: 534625280
I0713 13:52:17.097578  1794 layer_factory.hpp:77] Creating layer inception_5a/output
I0713 13:52:17.097587  1794 net.cpp:91] Creating Layer inception_5a/output
I0713 13:52:17.097594  1794 net.cpp:425] inception_5a/output <- inception_5a/1x1
I0713 13:52:17.097601  1794 net.cpp:425] inception_5a/output <- inception_5a/3x3
I0713 13:52:17.097607  1794 net.cpp:425] inception_5a/output <- inception_5a/5x5
I0713 13:52:17.097614  1794 net.cpp:425] inception_5a/output <- inception_5a/pool_proj
I0713 13:52:17.097620  1794 net.cpp:399] inception_5a/output -> inception_5a/output
I0713 13:52:17.097681  1794 net.cpp:141] Setting up inception_5a/output
I0713 13:52:17.097692  1794 net.cpp:148] Top shape: 10 832 7 7 (407680)
I0713 13:52:17.097697  1794 net.cpp:156] Memory required for data: 536256000
I0713 13:52:17.097702  1794 layer_factory.hpp:77] Creating layer inception_5a/output_inception_5a/output_0_split
I0713 13:52:17.097712  1794 net.cpp:91] Creating Layer inception_5a/output_inception_5a/output_0_split
I0713 13:52:17.097717  1794 net.cpp:425] inception_5a/output_inception_5a/output_0_split <- inception_5a/output
I0713 13:52:17.097731  1794 net.cpp:399] inception_5a/output_inception_5a/output_0_split -> inception_5a/output_inception_5a/output_0_split_0
I0713 13:52:17.097741  1794 net.cpp:399] inception_5a/output_inception_5a/output_0_split -> inception_5a/output_inception_5a/output_0_split_1
I0713 13:52:17.097750  1794 net.cpp:399] inception_5a/output_inception_5a/output_0_split -> inception_5a/output_inception_5a/output_0_split_2
I0713 13:52:17.097759  1794 net.cpp:399] inception_5a/output_inception_5a/output_0_split -> inception_5a/output_inception_5a/output_0_split_3
I0713 13:52:17.097896  1794 net.cpp:141] Setting up inception_5a/output_inception_5a/output_0_split
I0713 13:52:17.097908  1794 net.cpp:148] Top shape: 10 832 7 7 (407680)
I0713 13:52:17.097914  1794 net.cpp:148] Top shape: 10 832 7 7 (407680)
I0713 13:52:17.097920  1794 net.cpp:148] Top shape: 10 832 7 7 (407680)
I0713 13:52:17.097926  1794 net.cpp:148] Top shape: 10 832 7 7 (407680)
I0713 13:52:17.097931  1794 net.cpp:156] Memory required for data: 542778880
I0713 13:52:17.097936  1794 layer_factory.hpp:77] Creating layer inception_5b/1x1
I0713 13:52:17.097954  1794 net.cpp:91] Creating Layer inception_5b/1x1
I0713 13:52:17.097961  1794 net.cpp:425] inception_5b/1x1 <- inception_5a/output_inception_5a/output_0_split_0
I0713 13:52:17.097973  1794 net.cpp:399] inception_5b/1x1 -> inception_5b/1x1
I0713 13:52:17.104455  1794 net.cpp:141] Setting up inception_5b/1x1
I0713 13:52:17.104477  1794 net.cpp:148] Top shape: 10 384 7 7 (188160)
I0713 13:52:17.104483  1794 net.cpp:156] Memory required for data: 543531520
I0713 13:52:17.104493  1794 layer_factory.hpp:77] Creating layer inception_5b/relu_1x1
I0713 13:52:17.104506  1794 net.cpp:91] Creating Layer inception_5b/relu_1x1
I0713 13:52:17.104513  1794 net.cpp:425] inception_5b/relu_1x1 <- inception_5b/1x1
I0713 13:52:17.104521  1794 net.cpp:386] inception_5b/relu_1x1 -> inception_5b/1x1 (in-place)
I0713 13:52:17.104826  1794 net.cpp:141] Setting up inception_5b/relu_1x1
I0713 13:52:17.104840  1794 net.cpp:148] Top shape: 10 384 7 7 (188160)
I0713 13:52:17.104846  1794 net.cpp:156] Memory required for data: 544284160
I0713 13:52:17.104851  1794 layer_factory.hpp:77] Creating layer inception_5b/3x3_reduce
I0713 13:52:17.104871  1794 net.cpp:91] Creating Layer inception_5b/3x3_reduce
I0713 13:52:17.104878  1794 net.cpp:425] inception_5b/3x3_reduce <- inception_5a/output_inception_5a/output_0_split_1
I0713 13:52:17.104888  1794 net.cpp:399] inception_5b/3x3_reduce -> inception_5b/3x3_reduce
I0713 13:52:17.109901  1794 net.cpp:141] Setting up inception_5b/3x3_reduce
I0713 13:52:17.109922  1794 net.cpp:148] Top shape: 10 192 7 7 (94080)
I0713 13:52:17.109928  1794 net.cpp:156] Memory required for data: 544660480
I0713 13:52:17.109938  1794 layer_factory.hpp:77] Creating layer inception_5b/relu_3x3_reduce
I0713 13:52:17.109953  1794 net.cpp:91] Creating Layer inception_5b/relu_3x3_reduce
I0713 13:52:17.109961  1794 net.cpp:425] inception_5b/relu_3x3_reduce <- inception_5b/3x3_reduce
I0713 13:52:17.109968  1794 net.cpp:386] inception_5b/relu_3x3_reduce -> inception_5b/3x3_reduce (in-place)
I0713 13:52:17.110270  1794 net.cpp:141] Setting up inception_5b/relu_3x3_reduce
I0713 13:52:17.110285  1794 net.cpp:148] Top shape: 10 192 7 7 (94080)
I0713 13:52:17.110290  1794 net.cpp:156] Memory required for data: 545036800
I0713 13:52:17.110296  1794 layer_factory.hpp:77] Creating layer inception_5b/3x3
I0713 13:52:17.110314  1794 net.cpp:91] Creating Layer inception_5b/3x3
I0713 13:52:17.110327  1794 net.cpp:425] inception_5b/3x3 <- inception_5b/3x3_reduce
I0713 13:52:17.110344  1794 net.cpp:399] inception_5b/3x3 -> inception_5b/3x3
I0713 13:52:17.120620  1794 net.cpp:141] Setting up inception_5b/3x3
I0713 13:52:17.120651  1794 net.cpp:148] Top shape: 10 384 7 7 (188160)
I0713 13:52:17.120656  1794 net.cpp:156] Memory required for data: 545789440
I0713 13:52:17.120668  1794 layer_factory.hpp:77] Creating layer inception_5b/relu_3x3
I0713 13:52:17.120679  1794 net.cpp:91] Creating Layer inception_5b/relu_3x3
I0713 13:52:17.120687  1794 net.cpp:425] inception_5b/relu_3x3 <- inception_5b/3x3
I0713 13:52:17.120694  1794 net.cpp:386] inception_5b/relu_3x3 -> inception_5b/3x3 (in-place)
I0713 13:52:17.121526  1794 net.cpp:141] Setting up inception_5b/relu_3x3
I0713 13:52:17.121546  1794 net.cpp:148] Top shape: 10 384 7 7 (188160)
I0713 13:52:17.121551  1794 net.cpp:156] Memory required for data: 546542080
I0713 13:52:17.121557  1794 layer_factory.hpp:77] Creating layer inception_5b/5x5_reduce
I0713 13:52:17.121575  1794 net.cpp:91] Creating Layer inception_5b/5x5_reduce
I0713 13:52:17.121583  1794 net.cpp:425] inception_5b/5x5_reduce <- inception_5a/output_inception_5a/output_0_split_2
I0713 13:52:17.121594  1794 net.cpp:399] inception_5b/5x5_reduce -> inception_5b/5x5_reduce
I0713 13:52:17.124472  1794 net.cpp:141] Setting up inception_5b/5x5_reduce
I0713 13:52:17.124491  1794 net.cpp:148] Top shape: 10 48 7 7 (23520)
I0713 13:52:17.124497  1794 net.cpp:156] Memory required for data: 546636160
I0713 13:52:17.124507  1794 layer_factory.hpp:77] Creating layer inception_5b/relu_5x5_reduce
I0713 13:52:17.124516  1794 net.cpp:91] Creating Layer inception_5b/relu_5x5_reduce
I0713 13:52:17.124522  1794 net.cpp:425] inception_5b/relu_5x5_reduce <- inception_5b/5x5_reduce
I0713 13:52:17.124534  1794 net.cpp:386] inception_5b/relu_5x5_reduce -> inception_5b/5x5_reduce (in-place)
I0713 13:52:17.124819  1794 net.cpp:141] Setting up inception_5b/relu_5x5_reduce
I0713 13:52:17.124830  1794 net.cpp:148] Top shape: 10 48 7 7 (23520)
I0713 13:52:17.124835  1794 net.cpp:156] Memory required for data: 546730240
I0713 13:52:17.124841  1794 layer_factory.hpp:77] Creating layer inception_5b/5x5
I0713 13:52:17.124857  1794 net.cpp:91] Creating Layer inception_5b/5x5
I0713 13:52:17.124863  1794 net.cpp:425] inception_5b/5x5 <- inception_5b/5x5_reduce
I0713 13:52:17.124876  1794 net.cpp:399] inception_5b/5x5 -> inception_5b/5x5
I0713 13:52:17.129326  1794 net.cpp:141] Setting up inception_5b/5x5
I0713 13:52:17.129346  1794 net.cpp:148] Top shape: 10 128 7 7 (62720)
I0713 13:52:17.129353  1794 net.cpp:156] Memory required for data: 546981120
I0713 13:52:17.129362  1794 layer_factory.hpp:77] Creating layer inception_5b/relu_5x5
I0713 13:52:17.129374  1794 net.cpp:91] Creating Layer inception_5b/relu_5x5
I0713 13:52:17.129380  1794 net.cpp:425] inception_5b/relu_5x5 <- inception_5b/5x5
I0713 13:52:17.129393  1794 net.cpp:386] inception_5b/relu_5x5 -> inception_5b/5x5 (in-place)
I0713 13:52:17.129681  1794 net.cpp:141] Setting up inception_5b/relu_5x5
I0713 13:52:17.129694  1794 net.cpp:148] Top shape: 10 128 7 7 (62720)
I0713 13:52:17.129699  1794 net.cpp:156] Memory required for data: 547232000
I0713 13:52:17.129704  1794 layer_factory.hpp:77] Creating layer inception_5b/pool
I0713 13:52:17.129715  1794 net.cpp:91] Creating Layer inception_5b/pool
I0713 13:52:17.129722  1794 net.cpp:425] inception_5b/pool <- inception_5a/output_inception_5a/output_0_split_3
I0713 13:52:17.129730  1794 net.cpp:399] inception_5b/pool -> inception_5b/pool
I0713 13:52:17.129819  1794 net.cpp:141] Setting up inception_5b/pool
I0713 13:52:17.129830  1794 net.cpp:148] Top shape: 10 832 7 7 (407680)
I0713 13:52:17.129835  1794 net.cpp:156] Memory required for data: 548862720
I0713 13:52:17.129840  1794 layer_factory.hpp:77] Creating layer inception_5b/pool_proj
I0713 13:52:17.129858  1794 net.cpp:91] Creating Layer inception_5b/pool_proj
I0713 13:52:17.129866  1794 net.cpp:425] inception_5b/pool_proj <- inception_5b/pool
I0713 13:52:17.129875  1794 net.cpp:399] inception_5b/pool_proj -> inception_5b/pool_proj
I0713 13:52:17.134512  1794 net.cpp:141] Setting up inception_5b/pool_proj
I0713 13:52:17.134539  1794 net.cpp:148] Top shape: 10 128 7 7 (62720)
I0713 13:52:17.134546  1794 net.cpp:156] Memory required for data: 549113600
I0713 13:52:17.134557  1794 layer_factory.hpp:77] Creating layer inception_5b/relu_pool_proj
I0713 13:52:17.134567  1794 net.cpp:91] Creating Layer inception_5b/relu_pool_proj
I0713 13:52:17.134572  1794 net.cpp:425] inception_5b/relu_pool_proj <- inception_5b/pool_proj
I0713 13:52:17.134580  1794 net.cpp:386] inception_5b/relu_pool_proj -> inception_5b/pool_proj (in-place)
I0713 13:52:17.135434  1794 net.cpp:141] Setting up inception_5b/relu_pool_proj
I0713 13:52:17.135455  1794 net.cpp:148] Top shape: 10 128 7 7 (62720)
I0713 13:52:17.135462  1794 net.cpp:156] Memory required for data: 549364480
I0713 13:52:17.135468  1794 layer_factory.hpp:77] Creating layer inception_5b/output
I0713 13:52:17.135478  1794 net.cpp:91] Creating Layer inception_5b/output
I0713 13:52:17.135484  1794 net.cpp:425] inception_5b/output <- inception_5b/1x1
I0713 13:52:17.135493  1794 net.cpp:425] inception_5b/output <- inception_5b/3x3
I0713 13:52:17.135499  1794 net.cpp:425] inception_5b/output <- inception_5b/5x5
I0713 13:52:17.135504  1794 net.cpp:425] inception_5b/output <- inception_5b/pool_proj
I0713 13:52:17.135512  1794 net.cpp:399] inception_5b/output -> inception_5b/output
I0713 13:52:17.135574  1794 net.cpp:141] Setting up inception_5b/output
I0713 13:52:17.135586  1794 net.cpp:148] Top shape: 10 1024 7 7 (501760)
I0713 13:52:17.135591  1794 net.cpp:156] Memory required for data: 551371520
I0713 13:52:17.135596  1794 layer_factory.hpp:77] Creating layer pool5/7x7_s1
I0713 13:52:17.135607  1794 net.cpp:91] Creating Layer pool5/7x7_s1
I0713 13:52:17.135612  1794 net.cpp:425] pool5/7x7_s1 <- inception_5b/output
I0713 13:52:17.135620  1794 net.cpp:399] pool5/7x7_s1 -> pool5/7x7_s1
I0713 13:52:17.135982  1794 net.cpp:141] Setting up pool5/7x7_s1
I0713 13:52:17.135995  1794 net.cpp:148] Top shape: 10 1024 1 1 (10240)
I0713 13:52:17.136000  1794 net.cpp:156] Memory required for data: 551412480
I0713 13:52:17.136006  1794 layer_factory.hpp:77] Creating layer pool5/drop_7x7_s1
I0713 13:52:17.136016  1794 net.cpp:91] Creating Layer pool5/drop_7x7_s1
I0713 13:52:17.136023  1794 net.cpp:425] pool5/drop_7x7_s1 <- pool5/7x7_s1
I0713 13:52:17.136032  1794 net.cpp:386] pool5/drop_7x7_s1 -> pool5/7x7_s1 (in-place)
I0713 13:52:17.136099  1794 net.cpp:141] Setting up pool5/drop_7x7_s1
I0713 13:52:17.136114  1794 net.cpp:148] Top shape: 10 1024 1 1 (10240)
I0713 13:52:17.136119  1794 net.cpp:156] Memory required for data: 551453440
I0713 13:52:17.136126  1794 layer_factory.hpp:77] Creating layer loss3/classifier
I0713 13:52:17.136137  1794 net.cpp:91] Creating Layer loss3/classifier
I0713 13:52:17.136143  1794 net.cpp:425] loss3/classifier <- pool5/7x7_s1
I0713 13:52:17.136157  1794 net.cpp:399] loss3/classifier -> loss3/classifier
I0713 13:52:17.147872  1794 net.cpp:141] Setting up loss3/classifier
I0713 13:52:17.147899  1794 net.cpp:148] Top shape: 10 1000 (10000)
I0713 13:52:17.147905  1794 net.cpp:156] Memory required for data: 551493440
I0713 13:52:17.147917  1794 layer_factory.hpp:77] Creating layer prob
I0713 13:52:17.147929  1794 net.cpp:91] Creating Layer prob
I0713 13:52:17.147936  1794 net.cpp:425] prob <- loss3/classifier
I0713 13:52:17.147948  1794 net.cpp:399] prob -> prob
I0713 13:52:17.149230  1794 net.cpp:141] Setting up prob
I0713 13:52:17.149248  1794 net.cpp:148] Top shape: 10 1000 (10000)
I0713 13:52:17.149255  1794 net.cpp:156] Memory required for data: 551533440
I0713 13:52:17.149260  1794 net.cpp:219] prob does not need backward computation.
I0713 13:52:17.149266  1794 net.cpp:219] loss3/classifier does not need backward computation.
I0713 13:52:17.149271  1794 net.cpp:219] pool5/drop_7x7_s1 does not need backward computation.
I0713 13:52:17.149276  1794 net.cpp:219] pool5/7x7_s1 does not need backward computation.
…
