…
Java HotSpot(TM) 64-Bit Server VM warning: You have loaded library /tmp/cvld6604644460406329846/libopencv_java310.xine1.so which might have disabled stack guard. The VM will try to fix the stack guard now.
It's highly recommended that you fix the library with 'execstack -c <libfile>', or link it with '-z noexecstack'.
WARNING: Logging before InitGoogleLogging() is written to STDERR
I0720 14:03:40.215971  9064 net.cpp:49] Initializing net from parameters: 
name: "CaffeNet"
state {
  phase: TEST
}
layer {
  name: "data"
  type: "Input"
  top: "data"
  input_param {
    shape {
      dim: 10
      dim: 3
      dim: 227
      dim: 227
    }
  }
}
layer {
  name: "conv1"
  type: "Convolution"
  bottom: "data"
  top: "conv1"
  convolution_param {
    num_output: 96
    kernel_size: 11
    stride: 4
  }
}
layer {
  name: "relu1"
  type: "ReLU"
  bottom: "conv1"
  top: "conv1"
}
layer {
  name: "pool1"
  type: "Pooling"
  bottom: "conv1"
  top: "pool1"
  pooling_param {
    pool: MAX
    kernel_size: 3
    stride: 2
  }
}
layer {
  name: "norm1"
  type: "LRN"
  bottom: "pool1"
  top: "norm1"
  lrn_param {
    local_size: 5
    alpha: 0.0001
    beta: 0.75
  }
}
layer {
  name: "conv2"
  type: "Convolution"
  bottom: "norm1"
  top: "conv2"
  convolution_param {
    num_output: 256
    pad: 2
    kernel_size: 5
    group: 2
  }
}
layer {
  name: "relu2"
  type: "ReLU"
  bottom: "conv2"
  top: "conv2"
}
layer {
  name: "pool2"
  type: "Pooling"
  bottom: "conv2"
  top: "pool2"
  pooling_param {
    pool: MAX
    kernel_size: 3
    stride: 2
  }
}
layer {
  name: "norm2"
  type: "LRN"
  bottom: "pool2"
  top: "norm2"
  lrn_param {
    local_size: 5
    alpha: 0.0001
    beta: 0.75
  }
}
layer {
  name: "conv3"
  type: "Convolution"
  bottom: "norm2"
  top: "conv3"
  convolution_param {
    num_output: 384
    pad: 1
    kernel_size: 3
  }
}
layer {
  name: "relu3"
  type: "ReLU"
  bottom: "conv3"
  top: "conv3"
}
layer {
  name: "conv4"
  type: "Convolution"
  bottom: "conv3"
  top: "conv4"
  convolution_param {
    num_output: 384
    pad: 1
    kernel_size: 3
    group: 2
  }
}
layer {
  name: "relu4"
  type: "ReLU"
  bottom: "conv4"
  top: "conv4"
}
layer {
  name: "conv5"
  type: "Convolution"
  bottom: "conv4"
  top: "conv5"
  convolution_param {
    num_output: 256
    pad: 1
    kernel_size: 3
    group: 2
  }
}
layer {
  name: "relu5"
  type: "ReLU"
  bottom: "conv5"
  top: "conv5"
}
layer {
  name: "pool5"
  type: "Pooling"
  bottom: "conv5"
  top: "pool5"
  pooling_param {
    pool: MAX
    kernel_size: 3
    stride: 2
  }
}
layer {
  name: "fc6"
  type: "InnerProduct"
  bottom: "pool5"
  top: "fc6"
  inner_product_param {
    num_output: 4096
  }
}
layer {
  name: "relu6"
  type: "ReLU"
  bottom: "fc6"
  top: "fc6"
}
layer {
  name: "drop6"
  type: "Dropout"
  bottom: "fc6"
  top: "fc6"
  dropout_param {
    dropout_ratio: 0.5
  }
}
layer {
  name: "fc7"
  type: "InnerProduct"
  bottom: "fc6"
  top: "fc7"
  inner_product_param {
    num_output: 4096
  }
}
layer {
  name: "relu7"
  type: "ReLU"
  bottom: "fc7"
  top: "fc7"
}
layer {
  name: "drop7"
  type: "Dropout"
  bottom: "fc7"
  top: "fc7"
  dropout_param {
    dropout_ratio: 0.5
  }
}
layer {
  name: "fc8"
  type: "InnerProduct"
  bottom: "fc7"
  top: "fc8"
  inner_product_param {
    num_output: 1000
  }
}
layer {
  name: "prob"
  type: "Softmax"
  bottom: "fc8"
  top: "prob"
}
I0720 14:03:40.215971  9062 net.cpp:49] Initializing net from parameters: 
name: "CaffeNet"
state {
  phase: TEST
}
layer {
  name: "data"
  type: "Input"
  top: "data"
  input_param {
    shape {
      dim: 10
      dim: 3
      dim: 227
      dim: 227
    }
  }
}
layer {
  name: "conv1"
  type: "Convolution"
  bottom: "data"
  top: "conv1"
  convolution_param {
    num_output: 96
    kernel_size: 11
    stride: 4
  }
}
layer {
  name: "relu1"
  type: "ReLU"
  bottom: "conv1"
  top: "conv1"
}
layer {
  name: "pool1"
  type: "Pooling"
  bottom: "conv1"
  top: "pool1"
  pooling_param {
    pool: MAX
    kernel_size: 3
    stride: 2
  }
}
layer {
  name: "norm1"
  type: "LRN"
  bottom: "pool1"
  top: "norm1"
  lrn_param {
    local_size: 5
    alpha: 0.0001
    beta: 0.75
  }
}
layer {
  name: "conv2"
  type: "Convolution"
  bottom: "norm1"
  top: "conv2"
  convolution_param {
    num_output: 256
    pad: 2
    kernel_size: 5
    group: 2
  }
}
layer {
  name: "relu2"
  type: "ReLU"
  bottom: "conv2"
  top: "conv2"
}
layer {
  name: "pool2"
  type: "Pooling"
  bottom: "conv2"
  top: "pool2"
  pooling_param {
    pool: MAX
    kernel_size: 3
    stride: 2
  }
}
layer {
  name: "norm2"
  type: "LRN"
  bottom: "pool2"
  top: "norm2"
  lrn_param {
    local_size: 5
    alpha: 0.0001
    beta: 0.75
  }
}
layer {
  name: "conv3"
  type: "Convolution"
  bottom: "norm2"
  top: "conv3"
  convolution_param {
    num_output: 384
    pad: 1
    kernel_size: 3
  }
}
layer {
  name: "relu3"
  type: "ReLU"
  bottom: "conv3"
  top: "conv3"
}
layer {
  name: "conv4"
  type: "Convolution"
  bottom: "conv3"
  top: "conv4"
  convolution_param {
    num_output: 384
    pad: 1
    kernel_size: 3
    group: 2
  }
}
layer {
  name: "relu4"
  type: "ReLU"
  bottom: "conv4"
  top: "conv4"
}
layer {
  name: "conv5"
  type: "Convolution"
  bottom: "conv4"
  top: "conv5"
  convolution_param {
    num_output: 256
    pad: 1
    kernel_size: 3
    group: 2
  }
}
layer {
  name: "relu5"
  type: "ReLU"
  bottom: "conv5"
  top: "conv5"
}
layer {
  name: "pool5"
  type: "Pooling"
  bottom: "conv5"
  top: "pool5"
  pooling_param {
    pool: MAX
    kernel_size: 3
    stride: 2
  }
}
layer {
  name: "fc6"
  type: "InnerProduct"
  bottom: "pool5"
  top: "fc6"
  inner_product_param {
    num_output: 4096
  }
}
layer {
  name: "relu6"
  type: "ReLU"
  bottom: "fc6"
  top: "fc6"
}
layer {
  name: "drop6"
  type: "Dropout"
  bottom: "fc6"
  top: "fc6"
  dropout_param {
    dropout_ratio: 0.5
  }
}
layer {
  name: "fc7"
  type: "InnerProduct"
  bottom: "fc6"
  top: "fc7"
  inner_product_param {
    num_output: 4096
  }
}
layer {
  name: "relu7"
  type: "ReLU"
  bottom: "fc7"
  top: "fc7"
}
layer {
  name: "drop7"
  type: "Dropout"
  bottom: "fc7"
  top: "fc7"
  dropout_param {
    dropout_ratio: 0.5
  }
}
layer {
  name: "fc8"
  type: "InnerProduct"
  bottom: "fc7"
  top: "fc8"
  inner_product_param {
    num_output: 1000
  }
}
layer {
  name: "prob"
  type: "Softmax"
  bottom: "fc8"
  top: "prob"
}
I0720 14:03:40.215971  9074 net.cpp:49] Initializing net from parameters: 
name: "CaffeNet"
state {
  phase: TEST
}
layer {
  name: "data"
  type: "Input"
  top: "data"
  input_param {
    shape {
      dim: 10
      dim: 3
      dim: 227
      dim: 227
    }
  }
}
layer {
  name: "conv1"
  type: "Convolution"
  bottom: "data"
  top: "conv1"
  convolution_param {
    num_output: 96
    kernel_size: 11
    stride: 4
  }
}
layer {
  name: "relu1"
  type: "ReLU"
  bottom: "conv1"
  top: "conv1"
}
layer {
  name: "pool1"
  type: "Pooling"
  bottom: "conv1"
  top: "pool1"
  pooling_param {
    pool: MAX
    kernel_size: 3
    stride: 2
  }
}
layer {
  name: "norm1"
  type: "LRN"
  bottom: "pool1"
  top: "norm1"
  lrn_param {
    local_size: 5
    alpha: 0.0001
    beta: 0.75
  }
}
layer {
  name: "conv2"
  type: "Convolution"
  bottom: "norm1"
  top: "conv2"
  convolution_param {
    num_output: 256
    pad: 2
    kernel_size: 5
    group: 2
  }
}
layer {
  name: "relu2"
  type: "ReLU"
  bottom: "conv2"
  top: "conv2"
}
layer {
  name: "pool2"
  type: "Pooling"
  bottom: "conv2"
  top: "pool2"
  pooling_param {
    pool: MAX
    kernel_size: 3
    stride: 2
  }
}
layer {
  name: "norm2"
  type: "LRN"
  bottom: "pool2"
  top: "norm2"
  lrn_param {
    local_size: 5
    alpha: 0.0001
    beta: 0.75
  }
}
layer {
  name: "conv3"
  type: "Convolution"
  bottom: "norm2"
  top: "conv3"
  convolution_param {
    num_output: 384
    pad: 1
    kernel_size: 3
  }
}
layer {
  name: "relu3"
  type: "ReLU"
  bottom: "conv3"
  top: "conv3"
}
layer {
  name: "conv4"
  type: "Convolution"
  bottom: "conv3"
  top: "conv4"
  convolution_param {
    num_output: 384
    pad: 1
    kernel_size: 3
    group: 2
  }
}
layer {
  name: "relu4"
  type: "ReLU"
  bottom: "conv4"
  top: "conv4"
}
layer {
  name: "conv5"
  type: "Convolution"
  bottom: "conv4"
  top: "conv5"
  convolution_param {
    num_output: 256
    pad: 1
    kernel_size: 3
    group: 2
  }
}
layer {
  name: "relu5"
  type: "ReLU"
  bottom: "conv5"
  top: "conv5"
}
layer {
  name: "pool5"
  type: "Pooling"
  bottom: "conv5"
  top: "pool5"
  pooling_param {
    pool: MAX
    kernel_size: 3
    stride: 2
  }
}
layer {
  name: "fc6"
  type: "InnerProduct"
  bottom: "pool5"
  top: "fc6"
  inner_product_param {
    num_output: 4096
  }
}
layer {
  name: "relu6"
  type: "ReLU"
  bottom: "fc6"
  top: "fc6"
}
layer {
  name: "drop6"
  type: "Dropout"
  bottom: "fc6"
  top: "fc6"
  dropout_param {
    dropout_ratio: 0.5
  }
}
layer {
  name: "fc7"
  type: "InnerProduct"
  bottom: "fc6"
  top: "fc7"
  inner_product_param {
    num_output: 4096
  }
}
layer {
  name: "relu7"
  type: "ReLU"
  bottom: "fc7"
  top: "fc7"
}
layer {
  name: "drop7"
  type: "Dropout"
  bottom: "fc7"
  top: "fc7"
  dropout_param {
    dropout_ratio: 0.5
  }
}
layer {
  name: "fc8"
  type: "InnerProduct"
  bottom: "fc7"
  top: "fc8"
  inner_product_param {
    num_output: 1000
  }
}
layer {
  name: "prob"
  type: "Softmax"
  bottom: "fc8"
  top: "prob"
}
I0720 14:03:40.216161  9064 layer_factory.hpp:77] Creating layer data
I0720 14:03:40.216162  9062 layer_factory.hpp:77] Creating layer data
I0720 14:03:40.216188  9064 net.cpp:91] Creating Layer data
I0720 14:03:40.216189  9062 net.cpp:91] Creating Layer data
I0720 14:03:40.216202  9064 net.cpp:399] data -> data
I0720 14:03:40.216203  9074 layer_factory.hpp:77] Creating layer data
I0720 14:03:40.216203  9062 net.cpp:399] data -> data
I0720 14:03:40.216228  9074 net.cpp:91] Creating Layer data
I0720 14:03:40.216230  9060 net.cpp:49] Initializing net from parameters: 
name: "CaffeNet"
state {
  phase: TEST
}
layer {
  name: "data"
  type: "Input"
  top: "data"
  input_param {
    shape {
      dim: 10
      dim: 3
      dim: 227
      dim: 227
    }
  }
}
layer {
  name: "conv1"
  type: "Convolution"
  bottom: "data"
  top: "conv1"
  convolution_param {
    num_output: 96
    kernel_size: 11
    stride: 4
  }
}
layer {
  name: "relu1"
  type: "ReLU"
  bottom: "conv1"
  top: "conv1"
}
layer {
  name: "pool1"
  type: "Pooling"
  bottom: "conv1"
  top: "pool1"
  pooling_param {
    pool: MAX
    kernel_size: 3
    stride: 2
  }
}
layer {
  name: "norm1"
  type: "LRN"
  bottom: "pool1"
  top: "norm1"
  lrn_param {
    local_size: 5
    alpha: 0.0001
    beta: 0.75
  }
}
layer {
  name: "conv2"
  type: "Convolution"
  bottom: "norm1"
  top: "conv2"
  convolution_param {
    num_output: 256
    pad: 2
    kernel_size: 5
    group: 2
  }
}
layer {
  name: "relu2"
  type: "ReLU"
  bottom: "conv2"
  top: "conv2"
}
layer {
  name: "pool2"
  type: "Pooling"
  bottom: "conv2"
  top: "pool2"
  pooling_param {
    pool: MAX
    kernel_size: 3
    stride: 2
  }
}
layer {
  name: "norm2"
  type: "LRN"
  bottom: "pool2"
  top: "norm2"
  lrn_param {
    local_size: 5
    alpha: 0.0001
    beta: 0.75
  }
}
layer {
  name: "conv3"
  type: "Convolution"
  bottom: "norm2"
  top: "conv3"
  convolution_param {
    num_output: 384
    pad: 1
    kernel_size: 3
  }
}
layer {
  name: "relu3"
  type: "ReLU"
  bottom: "conv3"
  top: "conv3"
}
layer {
  name: "conv4"
  type: "Convolution"
  bottom: "conv3"
  top: "conv4"
  convolution_param {
    num_output: 384
    pad: 1
    kernel_size: 3
    group: 2
  }
}
layer {
  name: "relu4"
  type: "ReLU"
  bottom: "conv4"
  top: "conv4"
}
layer {
  name: "conv5"
  type: "Convolution"
  bottom: "conv4"
  top: "conv5"
  convolution_param {
    num_output: 256
    pad: 1
    kernel_size: 3
    group: 2
  }
}
layer {
  name: "relu5"
  type: "ReLU"
  bottom: "conv5"
  top: "conv5"
}
layer {
  name: "pool5"
  type: "Pooling"
  bottom: "conv5"
  top: "pool5"
  pooling_param {
    pool: MAX
    kernel_size: 3
    stride: 2
  }
}
layer {
  name: "fc6"
  type: "InnerProduct"
  bottom: "pool5"
  top: "fc6"
  inner_product_param {
    num_output: 4096
  }
}
layer {
  name: "relu6"
  type: "ReLU"
  bottom: "fc6"
  top: "fc6"
}
layer {
  name: "drop6"
  type: "Dropout"
  bottom: "fc6"
  top: "fc6"
  dropout_param {
    dropout_ratio: 0.5
  }
}
layer {
  name: "fc7"
  type: "InnerProduct"
  bottom: "fc6"
  top: "fc7"
  inner_product_param {
    num_output: 4096
  }
}
layer {
  name: "relu7"
  type: "ReLU"
  bottom: "fc7"
  top: "fc7"
}
layer {
  name: "drop7"
  type: "Dropout"
  bottom: "fc7"
  top: "fc7"
  dropout_param {
    dropout_ratio: 0.5
  }
}
layer {
  name: "fc8"
  type: "InnerProduct"
  bottom: "fc7"
  top: "fc8"
  inner_product_param {
    num_output: 1000
  }
}
layer {
  name: "prob"
  type: "Softmax"
  bottom: "fc8"
  top: "prob"
}
I0720 14:03:40.216239  9074 net.cpp:399] data -> data
I0720 14:03:40.216302  9074 net.cpp:141] Setting up data
I0720 14:03:40.216291  9040 net.cpp:49] Initializing net from parameters: 
name: "CaffeNet"
state {
  phase: TEST
}
layer {
  name: "data"
  type: "Input"
  top: "data"
  input_param {
    shape {
      dim: 10
      dim: 3
      dim: 227
      dim: 227
    }
  }
}
layer {
  name: "conv1"
  type: "Convolution"
  bottom: "data"
  top: "conv1"
  convolution_param {
    num_output: 96
    kernel_size: 11
    stride: 4
  }
}
layer {
  name: "relu1"
  type: "ReLU"
  bottom: "conv1"
  top: "conv1"
}
layer {
  name: "pool1"
  type: "Pooling"
  bottom: "conv1"
  top: "pool1"
  pooling_param {
    pool: MAX
    kernel_size: 3
    stride: 2
  }
}
layer {
  name: "norm1"
  type: "LRN"
  bottom: "pool1"
  top: "norm1"
  lrn_param {
    local_size: 5
    alpha: 0.0001
    beta: 0.75
  }
}
layer {
  name: "conv2"
  type: "Convolution"
  bottom: "norm1"
  top: "conv2"
  convolution_param {
    num_output: 256
    pad: 2
    kernel_size: 5
    group: 2
  }
}
layer {
  name: "relu2"
  type: "ReLU"
  bottom: "conv2"
  top: "conv2"
}
layer {
  name: "pool2"
  type: "Pooling"
  bottom: "conv2"
  top: "pool2"
  pooling_param {
    pool: MAX
    kernel_size: 3
    stride: 2
  }
}
layer {
  name: "norm2"
  type: "LRN"
  bottom: "pool2"
  top: "norm2"
  lrn_param {
    local_size: 5
    alpha: 0.0001
    beta: 0.75
  }
}
layer {
  name: "conv3"
  type: "Convolution"
  bottom: "norm2"
  top: "conv3"
  convolution_param {
    num_output: 384
    pad: 1
    kernel_size: 3
  }
}
layer {
  name: "relu3"
  type: "ReLU"
  bottom: "conv3"
  top: "conv3"
}
layer {
  name: "conv4"
  type: "Convolution"
  bottom: "conv3"
  top: "conv4"
  convolution_param {
    num_output: 384
    pad: 1
    kernel_size: 3
    group: 2
  }
}
layer {
  name: "relu4"
  type: "ReLU"
  bottom: "conv4"
  top: "conv4"
}
layer {
  name: "conv5"
  type: "Convolution"
  bottom: "conv4"
  top: "conv5"
  convolution_param {
    num_output: 256
    pad: 1
    kernel_size: 3
    group: 2
  }
}
layer {
  name: "relu5"
  type: "ReLU"
  bottom: "conv5"
  top: "conv5"
}
layer {
  name: "pool5"
  type: "Pooling"
  bottom: "conv5"
  top: "pool5"
  pooling_param {
    pool: MAX
    kernel_size: 3
    stride: 2
  }
}
layer {
  name: "fc6"
  type: "InnerProduct"
  bottom: "pool5"
  top: "fc6"
  inner_product_param {
    num_output: 4096
  }
}
layer {
  name: "relu6"
  type: "ReLU"
  bottom: "fc6"
  top: "fc6"
}
layer {
  name: "drop6"
  type: "Dropout"
  bottom: "fc6"
  top: "fc6"
  dropout_param {
    dropout_ratio: 0.5
  }
}
layer {
  name: "fc7"
  type: "InnerProduct"
  bottom: "fc6"
  top: "fc7"
  inner_product_param {
    num_output: 4096
  }
}
layer {
  name: "relu7"
  type: "ReLU"
  bottom: "fc7"
  top: "fc7"
}
layer {
  name: "drop7"
  type: "Dropout"
  bottom: "fc7"
  top: "fc7"
  dropout_param {
    dropout_ratio: 0.5
  }
}
layer {
  name: "fc8"
  type: "InnerProduct"
  bottom: "fc7"
  top: "fc8"
  inner_product_param {
    num_output: 1000
  }
}
layer {
  name: "prob"
  type: "Softmax"
  bottom: "fc8"
  top: "prob"
}
I0720 14:03:40.216302  9062 net.cpp:141] Setting up data
I0720 14:03:40.216297  9056 net.cpp:49] Initializing net from parameters: 
name: "CaffeNet"
state {
  phase: TEST
}
layer {
  name: "data"
  type: "Input"
  top: "data"
  input_param {
    shape {
      dim: 10
      dim: 3
      dim: 227
      dim: 227
    }
  }
}
layer {
  name: "conv1"
  type: "Convolution"
  bottom: "data"
  top: "conv1"
  convolution_param {
    num_output: 96
    kernel_size: 11
    stride: 4
  }
}
layer {
  name: "relu1"
  type: "ReLU"
  bottom: "conv1"
  top: "conv1"
}
layer {
  name: "pool1"
  type: "Pooling"
  bottom: "conv1"
  top: "pool1"
  pooling_param {
    pool: MAX
    kernel_size: 3
    stride: 2
  }
}
layer {
  name: "norm1"
  type: "LRN"
  bottom: "pool1"
  top: "norm1"
  lrn_param {
    local_size: 5
    alpha: 0.0001
    beta: 0.75
  }
}
layer {
  name: "conv2"
  type: "Convolution"
  bottom: "norm1"
  top: "conv2"
  convolution_param {
    num_output: 256
    pad: 2
    kernel_size: 5
    group: 2
  }
}
layer {
  name: "relu2"
  type: "ReLU"
  bottom: "conv2"
  top: "conv2"
}
layer {
  name: "pool2"
  type: "Pooling"
  bottom: "conv2"
  top: "pool2"
  pooling_param {
    pool: MAX
    kernel_size: 3
    stride: 2
  }
}
layer {
  name: "norm2"
  type: "LRN"
  bottom: "pool2"
  top: "norm2"
  lrn_param {
    local_size: 5
    alpha: 0.0001
    beta: 0.75
  }
}
layer {
  name: "conv3"
  type: "Convolution"
  bottom: "norm2"
  top: "conv3"
  convolution_param {
    num_output: 384
    pad: 1
    kernel_size: 3
  }
}
layer {
  name: "relu3"
  type: "ReLU"
  bottom: "conv3"
  top: "conv3"
}
layer {
  name: "conv4"
  type: "Convolution"
  bottom: "conv3"
  top: "conv4"
  convolution_param {
    num_output: 384
    pad: 1
    kernel_size: 3
    group: 2
  }
}
layer {
  name: "relu4"
  type: "ReLU"
  bottom: "conv4"
  top: "conv4"
}
layer {
  name: "conv5"
  type: "Convolution"
  bottom: "conv4"
  top: "conv5"
  convolution_param {
    num_output: 256
    pad: 1
    kernel_size: 3
    group: 2
  }
}
layer {
  name: "relu5"
  type: "ReLU"
  bottom: "conv5"
  top: "conv5"
}
layer {
  name: "pool5"
  type: "Pooling"
  bottom: "conv5"
  top: "pool5"
  pooling_param {
    pool: MAX
    kernel_size: 3
    stride: 2
  }
}
layer {
  name: "fc6"
  type: "InnerProduct"
  bottom: "pool5"
  top: "fc6"
  inner_product_param {
    num_output: 4096
  }
}
layer {
  name: "relu6"
  type: "ReLU"
  bottom: "fc6"
  top: "fc6"
}
layer {
  name: "drop6"
  type: "Dropout"
  bottom: "fc6"
  top: "fc6"
  dropout_param {
    dropout_ratio: 0.5
  }
}
layer {
  name: "fc7"
  type: "InnerProduct"
  bottom: "fc6"
  top: "fc7"
  inner_product_param {
    num_output: 4096
  }
}
layer {
  name: "relu7"
  type: "ReLU"
  bottom: "fc7"
  top: "fc7"
}
layer {
  name: "drop7"
  type: "Dropout"
  bottom: "fc7"
  top: "fc7"
  dropout_param {
    dropout_ratio: 0.5
  }
}
layer {
  name: "fc8"
  type: "InnerProduct"
  bottom: "fc7"
  top: "fc8"
  inner_product_param {
    num_output: 1000
  }
}
layer {
  name: "prob"
  type: "Softmax"
  bottom: "fc8"
  top: "prob"
}
I0720 14:03:40.216291  9070 net.cpp:49] Initializing net from parameters: 
name: "CaffeNet"
state {
  phase: TEST
}
layer {
  name: "data"
  type: "Input"
  top: "data"
  input_param {
    shape {
      dim: 10
      dim: 3
      dim: 227
      dim: 227
    }
  }
}
layer {
  name: "conv1"
  type: "Convolution"
  bottom: "data"
  top: "conv1"
  convolution_param {
    num_output: 96
    kernel_size: 11
    stride: 4
  }
}
layer {
  name: "relu1"
  type: "ReLU"
  bottom: "conv1"
  top: "conv1"
}
layer {
  name: "pool1"
  type: "Pooling"
  bottom: "conv1"
  top: "pool1"
  pooling_param {
    pool: MAX
    kernel_size: 3
    stride: 2
  }
}
layer {
  name: "norm1"
  type: "LRN"
  bottom: "pool1"
  top: "norm1"
  lrn_param {
    local_size: 5
    alpha: 0.0001
    beta: 0.75
  }
}
layer {
  name: "conv2"
  type: "Convolution"
  bottom: "norm1"
  top: "conv2"
  convolution_param {
    num_output: 256
    pad: 2
    kernel_size: 5
    group: 2
  }
}
layer {
  name: "relu2"
  type: "ReLU"
  bottom: "conv2"
  top: "conv2"
}
layer {
  name: "pool2"
  type: "Pooling"
  bottom: "conv2"
  top: "pool2"
  pooling_param {
    pool: MAX
    kernel_size: 3
    stride: 2
  }
}
layer {
  name: "norm2"
  type: "LRN"
  bottom: "pool2"
  top: "norm2"
  lrn_param {
    local_size: 5
    alpha: 0.0001
    beta: 0.75
  }
}
layer {
  name: "conv3"
  type: "Convolution"
  bottom: "norm2"
  top: "conv3"
  convolution_param {
    num_output: 384
    pad: 1
    kernel_size: 3
  }
}
layer {
  name: "relu3"
  type: "ReLU"
  bottom: "conv3"
  top: "conv3"
}
layer {
  name: "conv4"
  type: "Convolution"
  bottom: "conv3"
  top: "conv4"
  convolution_param {
    num_output: 384
    pad: 1
    kernel_size: 3
    group: 2
  }
}
layer {
  name: "relu4"
  type: "ReLU"
  bottom: "conv4"
  top: "conv4"
}
layer {
  name: "conv5"
  type: "Convolution"
  bottom: "conv4"
  top: "conv5"
  convolution_param {
    num_output: 256
    pad: 1
    kernel_size: 3
    group: 2
  }
}
layer {
  name: "relu5"
  type: "ReLU"
  bottom: "conv5"
  top: "conv5"
}
layer {
  name: "pool5"
  type: "Pooling"
  bottom: "conv5"
  top: "pool5"
  pooling_param {
    pool: MAX
    kernel_size: 3
    stride: 2
  }
}
layer {
  name: "fc6"
  type: "InnerProduct"
  bottom: "pool5"
  top: "fc6"
  inner_product_param {
    num_output: 4096
  }
}
layer {
  name: "relu6"
  type: "ReLU"
  bottom: "fc6"
  top: "fc6"
}
layer {
  name: "drop6"
  type: "Dropout"
  bottom: "fc6"
  top: "fc6"
  dropout_param {
    dropout_ratio: 0.5
  }
}
layer {
  name: "fc7"
  type: "InnerProduct"
  bottom: "fc6"
  top: "fc7"
  inner_product_param {
    num_output: 4096
  }
}
layer {
  name: "relu7"
  type: "ReLU"
  bottom: "fc7"
  top: "fc7"
}
layer {
  name: "drop7"
  type: "Dropout"
  bottom: "fc7"
  top: "fc7"
  dropout_param {
    dropout_ratio: 0.5
  }
}
layer {
  name: "fc8"
  type: "InnerProduct"
  bottom: "fc7"
  top: "fc8"
  inner_product_param {
    num_output: 1000
  }
}
layer {
  name: "prob"
  type: "Softmax"
  bottom: "fc8"
  top: "prob"
}
I0720 14:03:40.216357  9062 net.cpp:148] Top shape: 10 3 227 227 (1545870)
I0720 14:03:40.216302  9064 net.cpp:141] Setting up data
I0720 14:03:40.216291  9068 net.cpp:49] Initializing net from parameters: 
name: "CaffeNet"
state {
  phase: TEST
}
layer {
  name: "data"
  type: "Input"
  top: "data"
  input_param {
    shape {
      dim: 10
      dim: 3
      dim: 227
      dim: 227
    }
  }
}
layer {
  name: "conv1"
  type: "Convolution"
  bottom: "data"
  top: "conv1"
  convolution_param {
    num_output: 96
    kernel_size: 11
    stride: 4
  }
}
layer {
  name: "relu1"
  type: "ReLU"
  bottom: "conv1"
  top: "conv1"
}
layer {
  name: "pool1"
  type: "Pooling"
  bottom: "conv1"
  top: "pool1"
  pooling_param {
    pool: MAX
    kernel_size: 3
    stride: 2
  }
}
layer {
  name: "norm1"
  type: "LRN"
  bottom: "pool1"
  top: "norm1"
  lrn_param {
    local_size: 5
    alpha: 0.0001
    beta: 0.75
  }
}
layer {
  name: "conv2"
  type: "Convolution"
  bottom: "norm1"
  top: "conv2"
  convolution_param {
    num_output: 256
    pad: 2
    kernel_size: 5
    group: 2
  }
}
layer {
  name: "relu2"
  type: "ReLU"
  bottom: "conv2"
  top: "conv2"
}
layer {
  name: "pool2"
  type: "Pooling"
  bottom: "conv2"
  top: "pool2"
  pooling_param {
    pool: MAX
    kernel_size: 3
    stride: 2
  }
}
layer {
  name: "norm2"
  type: "LRN"
  bottom: "pool2"
  top: "norm2"
  lrn_param {
    local_size: 5
    alpha: 0.0001
    beta: 0.75
  }
}
layer {
  name: "conv3"
  type: "Convolution"
  bottom: "norm2"
  top: "conv3"
  convolution_param {
    num_output: 384
    pad: 1
    kernel_size: 3
  }
}
layer {
  name: "relu3"
  type: "ReLU"
  bottom: "conv3"
  top: "conv3"
}
layer {
  name: "conv4"
  type: "Convolution"
  bottom: "conv3"
  top: "conv4"
  convolution_param {
    num_output: 384
    pad: 1
    kernel_size: 3
    group: 2
  }
}
layer {
  name: "relu4"
  type: "ReLU"
  bottom: "conv4"
  top: "conv4"
}
layer {
  name: "conv5"
  type: "Convolution"
  bottom: "conv4"
  top: "conv5"
  convolution_param {
    num_output: 256
    pad: 1
    kernel_size: 3
    group: 2
  }
}
layer {
  name: "relu5"
  type: "ReLU"
  bottom: "conv5"
  top: "conv5"
}
layer {
  name: "pool5"
  type: "Pooling"
  bottom: "conv5"
  top: "pool5"
  pooling_param {
    pool: MAX
    kernel_size: 3
    stride: 2
  }
}
layer {
  name: "fc6"
  type: "InnerProduct"
  bottom: "pool5"
  top: "fc6"
  inner_product_param {
    num_output: 4096
  }
}
layer {
  name: "relu6"
  type: "ReLU"
  bottom: "fc6"
  top: "fc6"
}
layer {
  name: "drop6"
  type: "Dropout"
  bottom: "fc6"
  top: "fc6"
  dropout_param {
    dropout_ratio: 0.5
  }
}
layer {
  name: "fc7"
  type: "InnerProduct"
  bottom: "fc6"
  top: "fc7"
  inner_product_param {
    num_output: 4096
  }
}
layer {
  name: "relu7"
  type: "ReLU"
  bottom: "fc7"
  top: "fc7"
}
layer {
  name: "drop7"
  type: "Dropout"
  bottom: "fc7"
  top: "fc7"
  dropout_param {
    dropout_ratio: 0.5
  }
}
layer {
  name: "fc8"
  type: "InnerProduct"
  bottom: "fc7"
  top: "fc8"
  inner_product_param {
    num_output: 1000
  }
}
layer {
  name: "prob"
  type: "Softmax"
  bottom: "fc8"
  top: "prob"
}
I0720 14:03:40.216377  9050 net.cpp:49] Initializing net from parameters: 
name: "CaffeNet"
state {
  phase: TEST
}
layer {
  name: "data"
  type: "Input"
  top: "data"
  input_param {
    shape {
      dim: 10
      dim: 3
      dim: 227
      dim: 227
    }
  }
}
layer {
  name: "conv1"
  type: "Convolution"
  bottom: "data"
  top: "conv1"
  convolution_param {
    num_output: 96
    kernel_size: 11
    stride: 4
  }
}
layer {
  name: "relu1"
  type: "ReLU"
  bottom: "conv1"
  top: "conv1"
}
layer {
  name: "pool1"
  type: "Pooling"
  bottom: "conv1"
  top: "pool1"
  pooling_param {
    pool: MAX
    kernel_size: 3
    stride: 2
  }
}
layer {
  name: "norm1"
  type: "LRN"
  bottom: "pool1"
  top: "norm1"
  lrn_param {
    local_size: 5
    alpha: 0.0001
    beta: 0.75
  }
}
layer {
  name: "conv2"
  type: "Convolution"
  bottom: "norm1"
  top: "conv2"
  convolution_param {
    num_output: 256
    pad: 2
    kernel_size: 5
    group: 2
  }
}
layer {
  name: "relu2"
  type: "ReLU"
  bottom: "conv2"
  top: "conv2"
}
layer {
  name: "pool2"
  type: "Pooling"
  bottom: "conv2"
  top: "pool2"
  pooling_param {
    pool: MAX
    kernel_size: 3
    stride: 2
  }
}
layer {
  name: "norm2"
  type: "LRN"
  bottom: "pool2"
  top: "norm2"
  lrn_param {
    local_size: 5
    alpha: 0.0001
    beta: 0.75
  }
}
layer {
  name: "conv3"
  type: "Convolution"
  bottom: "norm2"
  top: "conv3"
  convolution_param {
    num_output: 384
    pad: 1
    kernel_size: 3
  }
}
layer {
  name: "relu3"
  type: "ReLU"
  bottom: "conv3"
  top: "conv3"
}
layer {
  name: "conv4"
  type: "Convolution"
  bottom: "conv3"
  top: "conv4"
  convolution_param {
    num_output: 384
    pad: 1
    kernel_size: 3
    group: 2
  }
}
layer {
  name: "relu4"
  type: "ReLU"
  bottom: "conv4"
  top: "conv4"
}
layer {
  name: "conv5"
  type: "Convolution"
  bottom: "conv4"
  top: "conv5"
  convolution_param {
    num_output: 256
    pad: 1
    kernel_size: 3
    group: 2
  }
}
layer {
  name: "relu5"
  type: "ReLU"
  bottom: "conv5"
  top: "conv5"
}
layer {
  name: "pool5"
  type: "Pooling"
  bottom: "conv5"
  top: "pool5"
  pooling_param {
    pool: MAX
    kernel_size: 3
    stride: 2
  }
}
layer {
  name: "fc6"
  type: "InnerProduct"
  bottom: "pool5"
  top: "fc6"
  inner_product_param {
    num_output: 4096
  }
}
layer {
  name: "relu6"
  type: "ReLU"
  bottom: "fc6"
  top: "fc6"
}
layer {
  name: "drop6"
  type: "Dropout"
  bottom: "fc6"
  top: "fc6"
  dropout_param {
    dropout_ratio: 0.5
  }
}
layer {
  name: "fc7"
  type: "InnerProduct"
  bottom: "fc6"
  top: "fc7"
  inner_product_param {
    num_output: 4096
  }
}
layer {
  name: "relu7"
  type: "ReLU"
  bottom: "fc7"
  top: "fc7"
}
layer {
  name: "drop7"
  type: "Dropout"
  bottom: "fc7"
  top: "fc7"
  dropout_param {
    dropout_ratio: 0.5
  }
}
layer {
  name: "fc8"
  type: "InnerProduct"
  bottom: "fc7"
  top: "fc8"
  inner_product_param {
    num_output: 1000
  }
}
layer {
  name: "prob"
  type: "Softmax"
  bottom: "fc8"
  top: "prob"
}
I0720 14:03:40.216384  9064 net.cpp:148] Top shape: 10 3 227 227 (1545870)
I0720 14:03:40.216356  9074 net.cpp:148] Top shape: 10 3 227 227 (1545870)
I0720 14:03:40.216406  9064 net.cpp:156] Memory required for data: 6183480
I0720 14:03:40.216375  9062 net.cpp:156] Memory required for data: 6183480
I0720 14:03:40.216419  9064 layer_factory.hpp:77] Creating layer conv1
I0720 14:03:40.216414  9074 net.cpp:156] Memory required for data: 6183480
I0720 14:03:40.216393  9060 layer_factory.hpp:77] Creating layer data
I0720 14:03:40.216435  9062 layer_factory.hpp:77] Creating layer conv1
…
I0720 14:03:40.216461  9062 net.cpp:91] Creating Layer conv1
I0720 14:03:40.216459  9040 layer_factory.hpp:77] Creating layer data
I0720 14:03:40.216488  9068 layer_factory.hpp:77] Creating layer data
I0720 14:03:40.216506  9050 layer_factory.hpp:77] Creating layer data
I0720 14:03:40.216509  9060 net.cpp:141] Setting up data
I0720 14:03:40.216482  9074 net.cpp:425] conv1 <- data
I0720 14:03:40.216503  9056 net.cpp:91] Creating Layer data
I0720 14:03:40.216488  9070 layer_factory.hpp:77] Creating layer data
I0720 14:03:40.216517  9040 net.cpp:91] Creating Layer data
I0720 14:03:40.216533  9060 net.cpp:148] Top shape: 10 3 227 227 (1545870)
I0720 14:03:40.216542  9070 net.cpp:91] Creating Layer data
I0720 14:03:40.216521  9068 net.cpp:91] Creating Layer data
I0720 14:03:40.216532  9050 net.cpp:91] Creating Layer data
I0720 14:03:40.216552  9060 net.cpp:156] Memory required for data: 6183480
I0720 14:03:40.216555  9040 net.cpp:399] data -> data
I0720 14:03:40.216560  9050 net.cpp:399] data -> data
I0720 14:03:40.216563  9068 net.cpp:399] data -> data
I0720 14:03:40.216550  9074 net.cpp:399] conv1 -> conv1
I0720 14:03:40.216572  9060 layer_factory.hpp:77] Creating layer conv1
I0720 14:03:40.216536  9056 net.cpp:399] data -> data
I0720 14:03:40.216555  9070 net.cpp:399] data -> data
I0720 14:03:40.216507  9062 net.cpp:425] conv1 <- data
I0720 14:03:40.216591  9060 net.cpp:91] Creating Layer conv1
I0720 14:03:40.216601  9070 net.cpp:141] Setting up data
I0720 14:03:40.216589  9068 net.cpp:141] Setting up data
I0720 14:03:40.216589  9050 net.cpp:141] Setting up data
I0720 14:03:40.216619  9062 net.cpp:399] conv1 -> conv1
I0720 14:03:40.216612  9060 net.cpp:425] conv1 <- data
I0720 14:03:40.216621  9070 net.cpp:148] Top shape: 10 3 227 227 (1545870)
I0720 14:03:40.216621  9068 net.cpp:148] Top shape: 10 3 227 227 (1545870)
I0720 14:03:40.216594  9056 net.cpp:141] Setting up data
I0720 14:03:40.216645  9060 net.cpp:399] conv1 -> conv1
I0720 14:03:40.216637  9050 net.cpp:148] Top shape: 10 3 227 227 (1545870)
I0720 14:03:40.216644  9070 net.cpp:156] Memory required for data: 6183480
I0720 14:03:40.216662  9056 net.cpp:148] Top shape: 10 3 227 227 (1545870)
I0720 14:03:40.216648  9068 net.cpp:156] Memory required for data: 6183480
I0720 14:03:40.216665  9050 net.cpp:156] Memory required for data: 6183480
I0720 14:03:40.216673  9070 layer_factory.hpp:77] Creating layer conv1
I0720 14:03:40.216680  9050 layer_factory.hpp:77] Creating layer conv1
I0720 14:03:40.216675  9056 net.cpp:156] Memory required for data: 6183480
I0720 14:03:40.216676  9068 layer_factory.hpp:77] Creating layer conv1
I0720 14:03:40.216692  9056 layer_factory.hpp:77] Creating layer conv1
I0720 14:03:40.216696  9070 net.cpp:91] Creating Layer conv1
I0720 14:03:40.216698  9050 net.cpp:91] Creating Layer conv1
I0720 14:03:40.216701  9068 net.cpp:91] Creating Layer conv1
I0720 14:03:40.216706  9070 net.cpp:425] conv1 <- data
I0720 14:03:40.216711  9068 net.cpp:425] conv1 <- data
I0720 14:03:40.216707  9050 net.cpp:425] conv1 <- data
I0720 14:03:40.216707  9056 net.cpp:91] Creating Layer conv1
I0720 14:03:40.216718  9070 net.cpp:399] conv1 -> conv1
I0720 14:03:40.216727  9050 net.cpp:399] conv1 -> conv1
I0720 14:03:40.216729  9056 net.cpp:425] conv1 <- data
I0720 14:03:40.216589  9040 net.cpp:141] Setting up data
I0720 14:03:40.216725  9068 net.cpp:399] conv1 -> conv1
I0720 14:03:40.216752  9040 net.cpp:148] Top shape: 10 3 227 227 (1545870)
I0720 14:03:40.216744  9056 net.cpp:399] conv1 -> conv1
I0720 14:03:40.216756  9040 net.cpp:156] Memory required for data: 6183480
I0720 14:03:40.216763  9040 layer_factory.hpp:77] Creating layer conv1
I0720 14:03:40.216771  9040 net.cpp:91] Creating Layer conv1
I0720 14:03:40.216776  9040 net.cpp:425] conv1 <- data
I0720 14:03:40.216789  9040 net.cpp:399] conv1 -> conv1
I0720 14:03:40.217609  9076 net.cpp:49] Initializing net from parameters: 
name: "CaffeNet"
state {
  phase: TEST
}
layer {
  name: "data"
  type: "Input"
  top: "data"
  input_param {
    shape {
      dim: 10
      dim: 3
      dim: 227
      dim: 227
    }
  }
}
layer {
  name: "conv1"
  type: "Convolution"
  bottom: "data"
  top: "conv1"
  convolution_param {
    num_output: 96
    kernel_size: 11
    stride: 4
  }
}
layer {
  name: "relu1"
  type: "ReLU"
  bottom: "conv1"
  top: "conv1"
}
layer {
  name: "pool1"
  type: "Pooling"
  bottom: "conv1"
  top: "pool1"
  pooling_param {
    pool: MAX
    kernel_size: 3
    stride: 2
  }
}
layer {
  name: "norm1"
  type: "LRN"
  bottom: "pool1"
  top: "norm1"
  lrn_param {
    local_size: 5
    alpha: 0.0001
    beta: 0.75
  }
}
layer {
  name: "conv2"
  type: "Convolution"
  bottom: "norm1"
  top: "conv2"
  convolution_param {
    num_output: 256
    pad: 2
    kernel_size: 5
    group: 2
  }
}
layer {
  name: "relu2"
  type: "ReLU"
  bottom: "conv2"
  top: "conv2"
}
layer {
  name: "pool2"
  type: "Pooling"
  bottom: "conv2"
  top: "pool2"
  pooling_param {
    pool: MAX
    kernel_size: 3
    stride: 2
  }
}
layer {
  name: "norm2"
  type: "LRN"
  bottom: "pool2"
  top: "norm2"
  lrn_param {
    local_size: 5
    alpha: 0.0001
    beta: 0.75
  }
}
layer {
  name: "conv3"
  type: "Convolution"
  bottom: "norm2"
  top: "conv3"
  convolution_param {
    num_output: 384
    pad: 1
    kernel_size: 3
  }
}
layer {
  name: "relu3"
  type: "ReLU"
  bottom: "conv3"
  top: "conv3"
}
layer {
  name: "conv4"
  type: "Convolution"
  bottom: "conv3"
  top: "conv4"
  convolution_param {
    num_output: 384
    pad: 1
    kernel_size: 3
    group: 2
  }
}
layer {
  name: "relu4"
  type: "ReLU"
  bottom: "conv4"
  top: "conv4"
}
layer {
  name: "conv5"
  type: "Convolution"
  bottom: "conv4"
  top: "conv5"
  convolution_param {
    num_output: 256
    pad: 1
    kernel_size: 3
    group: 2
  }
}
layer {
  name: "relu5"
  type: "ReLU"
  bottom: "conv5"
  top: "conv5"
}
layer {
  name: "pool5"
  type: "Pooling"
  bottom: "conv5"
  top: "pool5"
  pooling_param {
    pool: MAX
    kernel_size: 3
    stride: 2
  }
}
layer {
  name: "fc6"
  type: "InnerProduct"
  bottom: "pool5"
  top: "fc6"
  inner_product_param {
    num_output: 4096
  }
}
layer {
  name: "relu6"
  type: "ReLU"
  bottom: "fc6"
  top: "fc6"
}
layer {
  name: "drop6"
  type: "Dropout"
  bottom: "fc6"
  top: "fc6"
  dropout_param {
    dropout_ratio: 0.5
  }
}
layer {
  name: "fc7"
  type: "InnerProduct"
  bottom: "fc6"
  top: "fc7"
  inner_product_param {
    num_output: 4096
  }
}
layer {
  name: "relu7"
  type: "ReLU"
  bottom: "fc7"
  top: "fc7"
}
layer {
  name: "drop7"
  type: "Dropout"
  bottom: "fc7"
  top: "fc7"
  dropout_param {
    dropout_ratio: 0.5
  }
}
layer {
  name: "fc8"
  type: "InnerProduct"
  bottom: "fc7"
  top: "fc8"
  inner_product_param {
    num_output: 1000
  }
}
layer {
  name: "prob"
  type: "Softmax"
  bottom: "fc8"
  top: "prob"
}
I0720 14:03:40.217759  9076 layer_factory.hpp:77] Creating layer data
I0720 14:03:40.217777  9076 net.cpp:91] Creating Layer data
I0720 14:03:40.217789  9076 net.cpp:399] data -> data
I0720 14:03:40.217809  9076 net.cpp:141] Setting up data
I0720 14:03:40.217823  9076 net.cpp:148] Top shape: 10 3 227 227 (1545870)
I0720 14:03:40.217830  9076 net.cpp:156] Memory required for data: 6183480
I0720 14:03:40.217839  9076 layer_factory.hpp:77] Creating layer conv1
I0720 14:03:40.217856  9076 net.cpp:91] Creating Layer conv1
I0720 14:03:40.217866  9076 net.cpp:425] conv1 <- data
I0720 14:03:40.217878  9076 net.cpp:399] conv1 -> conv1
I0720 14:03:40.725041  9042 upgrade_proto.cpp:66] Attempting to upgrade input file specified using deprecated input fields: /tmp/cvld6604644460406329846/s2vt.words_to_preds.prototxt
I0720 14:03:40.725111  9042 upgrade_proto.cpp:69] Successfully upgraded file specified using deprecated input fields.
W0720 14:03:40.725124  9042 upgrade_proto.cpp:71] Note that future Caffe releases will only support input layers and not input fields.
I0720 14:03:40.725638  9042 net.cpp:49] Initializing net from parameters: 
name: "s2vt:features_to_lstm"
state {
  phase: TEST
}
layer {
  name: "input"
  type: "Input"
  top: "frames_fc7"
  top: "cont_sentence"
  top: "input_sentence"
  top: "stage_indicator"
  input_param {
    shape {
      dim: 1
      dim: 4096
    }
    shape {
      dim: 1
      dim: 1
    }
    shape {
      dim: 1
      dim: 1
    }
    shape {
      dim: 1
      dim: 1
    }
  }
}
layer {
  name: "embed_encoder"
  type: "InnerProduct"
  bottom: "frames_fc7"
  top: "embedded_in_frames"
  param {
    lr_mult: 1
    decay_mult: 1
  }
  param {
    lr_mult: 2
    decay_mult: 0
  }
  inner_product_param {
    num_output: 500
    weight_filler {
      type: "xavier"
    }
    bias_filler {
      type: "constant"
      value: 0.2
    }
  }
}
layer {
  name: "reshape_frames"
  type: "Reshape"
  bottom: "embedded_in_frames"
  top: "embedded_input_frames"
  reshape_param {
    shape {
      dim: 1
      dim: 1
      dim: 500
    }
  }
}
layer {
  name: "reshape_stage_indicator"
  type: "Reshape"
  bottom: "stage_indicator"
  top: "reshaped_stage_indicator"
  reshape_param {
    shape {
      dim: 1
      dim: 1
      dim: 1
    }
  }
}
layer {
  name: "embedding"
  type: "Embed"
  bottom: "input_sentence"
  top: "embedded_input_sentence"
  param {
    lr_mult: 1
  }
  embed_param {
    num_output: 500
    input_dim: 46168
    bias_term: false
    weight_filler {
      type: "uniform"
      min: -0.08
      max: 0.08
    }
  }
}
layer {
  name: "lstm1"
  type: "LSTM"
  bottom: "embedded_input_frames"
  bottom: "cont_sentence"
  top: "lstm1"
  recurrent_param {
    num_output: 1000
    weight_filler {
      type: "uniform"
      min: -0.08
      max: 0.08
    }
    bias_filler {
      type: "constant"
      value: 0
    }
  }
}
layer {
  name: "concat"
  type: "Concat"
  bottom: "lstm1"
  bottom: "embedded_input_sentence"
  bottom: "reshaped_stage_indicator"
  top: "lstm1_video_sequence"
  concat_param {
    concat_dim: 2
  }
}
layer {
  name: "lstm2"
  type: "LSTM"
  bottom: "lstm1_video_sequence"
  bottom: "cont_sentence"
  top: "lstm2"
  recurrent_param {
    num_output: 1000
    weight_filler {
      type: "uniform"
      min: -0.08
      max: 0.08
    }
    bias_filler {
      type: "constant"
      value: 0
    }
  }
}
layer {
  name: "predict"
  type: "InnerProduct"
  bottom: "lstm2"
  top: "predict"
  param {
    lr_mult: 1
    decay_mult: 1
  }
  param {
    lr_mult: 2
    decay_mult: 0
  }
  inner_product_param {
    num_output: 46168
    weight_filler {
      type: "uniform"
      min: -0.08
      max: 0.08
    }
    bias_filler {
      type: "constant"
      value: 0
    }
    axis: 2
  }
}
layer {
  name: "probs"
  type: "Softmax"
  bottom: "predict"
  top: "probs"
  softmax_param {
    axis: 2
  }
}
I0720 14:03:40.725790  9042 layer_factory.hpp:77] Creating layer input
I0720 14:03:40.725814  9042 net.cpp:91] Creating Layer input
I0720 14:03:40.725831  9042 net.cpp:399] input -> frames_fc7
I0720 14:03:40.725860  9042 net.cpp:399] input -> cont_sentence
I0720 14:03:40.725883  9042 net.cpp:399] input -> input_sentence
I0720 14:03:40.725903  9042 net.cpp:399] input -> stage_indicator
I0720 14:03:40.765184  9042 net.cpp:141] Setting up input
I0720 14:03:40.765246  9042 net.cpp:148] Top shape: 1 4096 (4096)
I0720 14:03:40.765260  9042 net.cpp:148] Top shape: 1 1 (1)
I0720 14:03:40.765270  9042 net.cpp:148] Top shape: 1 1 (1)
I0720 14:03:40.765280  9042 net.cpp:148] Top shape: 1 1 (1)
I0720 14:03:40.765288  9042 net.cpp:156] Memory required for data: 16396
I0720 14:03:40.765302  9042 layer_factory.hpp:77] Creating layer cont_sentence_input_1_split
I0720 14:03:40.765339  9042 net.cpp:91] Creating Layer cont_sentence_input_1_split
I0720 14:03:40.765348  9042 net.cpp:425] cont_sentence_input_1_split <- cont_sentence
I0720 14:03:40.765377  9042 net.cpp:399] cont_sentence_input_1_split -> cont_sentence_input_1_split_0
I0720 14:03:40.765393  9042 net.cpp:399] cont_sentence_input_1_split -> cont_sentence_input_1_split_1
I0720 14:03:40.765445  9042 net.cpp:141] Setting up cont_sentence_input_1_split
I0720 14:03:40.765460  9042 net.cpp:148] Top shape: 1 1 (1)
I0720 14:03:40.765470  9042 net.cpp:148] Top shape: 1 1 (1)
I0720 14:03:40.765477  9042 net.cpp:156] Memory required for data: 16404
I0720 14:03:40.765486  9042 layer_factory.hpp:77] Creating layer embed_encoder
I0720 14:03:40.765509  9042 net.cpp:91] Creating Layer embed_encoder
I0720 14:03:40.765518  9042 net.cpp:425] embed_encoder <- frames_fc7
I0720 14:03:40.765533  9042 net.cpp:399] embed_encoder -> embedded_in_frames
I0720 14:03:40.801760  9042 net.cpp:141] Setting up embed_encoder
I0720 14:03:40.801822  9042 net.cpp:148] Top shape: 1 500 (500)
I0720 14:03:40.801833  9042 net.cpp:156] Memory required for data: 18404
I0720 14:03:40.801957  9042 layer_factory.hpp:77] Creating layer reshape_frames
I0720 14:03:40.801996  9042 net.cpp:91] Creating Layer reshape_frames
I0720 14:03:40.802009  9042 net.cpp:425] reshape_frames <- embedded_in_frames
I0720 14:03:40.802031  9042 net.cpp:399] reshape_frames -> embedded_input_frames
I0720 14:03:40.803409  9042 net.cpp:141] Setting up reshape_frames
I0720 14:03:40.803432  9042 net.cpp:148] Top shape: 1 1 500 (500)
I0720 14:03:40.803439  9042 net.cpp:156] Memory required for data: 20404
I0720 14:03:40.803448  9042 layer_factory.hpp:77] Creating layer reshape_stage_indicator
I0720 14:03:40.803464  9042 net.cpp:91] Creating Layer reshape_stage_indicator
I0720 14:03:40.803473  9042 net.cpp:425] reshape_stage_indicator <- stage_indicator
I0720 14:03:40.803486  9042 net.cpp:399] reshape_stage_indicator -> reshaped_stage_indicator
I0720 14:03:40.805250  9042 net.cpp:141] Setting up reshape_stage_indicator
I0720 14:03:40.805299  9042 net.cpp:148] Top shape: 1 1 1 (1)
I0720 14:03:40.805306  9042 net.cpp:156] Memory required for data: 20408
I0720 14:03:40.805317  9042 layer_factory.hpp:77] Creating layer embedding
I0720 14:03:40.805349  9042 net.cpp:91] Creating Layer embedding
I0720 14:03:40.805359  9042 net.cpp:425] embedding <- input_sentence
I0720 14:03:40.805375  9042 net.cpp:399] embedding -> embedded_input_sentence
I0720 14:03:41.080391  9042 net.cpp:141] Setting up embedding
I0720 14:03:41.080442  9042 net.cpp:148] Top shape: 1 1 500 (500)
I0720 14:03:41.080448  9042 net.cpp:156] Memory required for data: 22408
I0720 14:03:41.080466  9042 layer_factory.hpp:77] Creating layer lstm1
I0720 14:03:41.080488  9042 net.cpp:91] Creating Layer lstm1
I0720 14:03:41.080497  9042 net.cpp:425] lstm1 <- embedded_input_frames
I0720 14:03:41.080507  9042 net.cpp:425] lstm1 <- cont_sentence_input_1_split_0
I0720 14:03:41.080514  9042 net.cpp:399] lstm1 -> lstm1
I0720 14:03:41.080551  9042 recurrent_layer.cpp:20] Initializing recurrent layer: assuming input batch contains 1 timesteps of 1 independent streams.
I0720 14:03:41.080919  9042 net.cpp:49] Initializing net from parameters: 
layer {
  name: "lstm1_"
  type: "Input"
  top: "x"
  top: "cont"
  input_param {
    shape {
      dim: 1
      dim: 1
      dim: 500
    }
    shape {
      dim: 1
      dim: 1
    }
  }
}
layer {
  name: "lstm1_"
  type: "Input"
  top: "c_0"
  top: "h_0"
  input_param {
    shape {
      dim: 1
      dim: 1
      dim: 1000
    }
    shape {
      dim: 1
      dim: 1
      dim: 1000
    }
  }
}
layer {
  name: "lstm1_cont_slice"
  type: "Slice"
  bottom: "cont"
  top: "cont_1"
  slice_param {
    axis: 0
  }
}
layer {
  name: "lstm1_x_transform"
  type: "InnerProduct"
  bottom: "x"
  top: "W_xc_x"
  param {
    name: "W_xc"
  }
  param {
    name: "b_c"
  }
  propagate_down: true
  inner_product_param {
    num_output: 4000
    bias_term: true
    weight_filler {
      type: "uniform"
      min: -0.08
      max: 0.08
    }
    bias_filler {
      type: "constant"
      value: 0
    }
    axis: 2
  }
}
layer {
  name: "lstm1_W_xc_x_slice"
  type: "Slice"
  bottom: "W_xc_x"
  top: "W_xc_x_1"
  slice_param {
    axis: 0
  }
}
layer {
  name: "lstm1_h_conted_0"
  type: "Scale"
  bottom: "h_0"
  bottom: "cont_1"
  top: "h_conted_0"
  scale_param {
    axis: 0
  }
}
layer {
  name: "lstm1_transform_1"
  type: "InnerProduct"
  bottom: "h_conted_0"
  top: "W_hc_h_0"
  param {
    name: "W_hc"
  }
  inner_product_param {
    num_output: 4000
    bias_term: false
    weight_filler {
      type: "uniform"
      min: -0.08
      max: 0.08
    }
    axis: 2
  }
}
layer {
  name: "lstm1_gate_input_1"
  type: "Eltwise"
  bottom: "W_hc_h_0"
  bottom: "W_xc_x_1"
  top: "gate_input_1"
  eltwise_param {
    operation: SUM
  }
}
layer {
  name: "lstm1_unit_1"
  type: "LSTMUnit"
  bottom: "c_0"
  bottom: "gate_input_1"
  bottom: "cont_1"
  top: "c_1"
  top: "h_1"
}
layer {
  name: "lstm1_"
  type: "Split"
  bottom: "c_1"
  top: "c_T"
}
layer {
  name: "lstm1_h_concat"
  type: "Concat"
  bottom: "h_1"
  top: "h"
  concat_param {
    axis: 0
  }
}
layer {
  name: "h_pseudoloss"
  type: "Reduction"
  bottom: "h"
  top: "h_pseudoloss"
  loss_weight: 1
}
I0720 14:03:41.081010  9042 layer_factory.hpp:77] Creating layer lstm1_
I0720 14:03:41.081023  9042 net.cpp:91] Creating Layer lstm1_
I0720 14:03:41.081029  9042 net.cpp:399] lstm1_ -> x
I0720 14:03:41.081042  9042 net.cpp:399] lstm1_ -> cont
I0720 14:03:41.086567  9042 net.cpp:141] Setting up lstm1_
I0720 14:03:41.086604  9042 net.cpp:148] Top shape: 1 1 500 (500)
I0720 14:03:41.086618  9042 net.cpp:148] Top shape: 1 1 (1)
I0720 14:03:41.086627  9042 net.cpp:156] Memory required for data: 2004
I0720 14:03:41.086638  9042 layer_factory.hpp:77] Creating layer lstm1_
I0720 14:03:41.086664  9042 net.cpp:91] Creating Layer lstm1_
I0720 14:03:41.086683  9042 net.cpp:399] lstm1_ -> c_0
I0720 14:03:41.086719  9042 net.cpp:399] lstm1_ -> h_0
I0720 14:03:41.089488  9042 net.cpp:141] Setting up lstm1_
I0720 14:03:41.089510  9042 net.cpp:148] Top shape: 1 1 1000 (1000)
I0720 14:03:41.089522  9042 net.cpp:148] Top shape: 1 1 1000 (1000)
I0720 14:03:41.089530  9042 net.cpp:156] Memory required for data: 10004
I0720 14:03:41.089539  9042 layer_factory.hpp:77] Creating layer lstm1_cont_slice
I0720 14:03:41.089555  9042 net.cpp:91] Creating Layer lstm1_cont_slice
I0720 14:03:41.089565  9042 net.cpp:425] lstm1_cont_slice <- cont
I0720 14:03:41.089576  9042 net.cpp:399] lstm1_cont_slice -> cont_1
I0720 14:03:41.094017  9042 net.cpp:141] Setting up lstm1_cont_slice
I0720 14:03:41.094048  9042 net.cpp:148] Top shape: 1 1 (1)
I0720 14:03:41.094058  9042 net.cpp:156] Memory required for data: 10008
I0720 14:03:41.094068  9042 layer_factory.hpp:77] Creating layer cont_1_lstm1_cont_slice_0_split
I0720 14:03:41.094082  9042 net.cpp:91] Creating Layer cont_1_lstm1_cont_slice_0_split
I0720 14:03:41.094092  9042 net.cpp:425] cont_1_lstm1_cont_slice_0_split <- cont_1
I0720 14:03:41.094116  9042 net.cpp:399] cont_1_lstm1_cont_slice_0_split -> cont_1_lstm1_cont_slice_0_split_0
I0720 14:03:41.094135  9042 net.cpp:399] cont_1_lstm1_cont_slice_0_split -> cont_1_lstm1_cont_slice_0_split_1
I0720 14:03:41.104836  9042 net.cpp:141] Setting up cont_1_lstm1_cont_slice_0_split
I0720 14:03:41.104882  9042 net.cpp:148] Top shape: 1 1 (1)
I0720 14:03:41.104894  9042 net.cpp:148] Top shape: 1 1 (1)
I0720 14:03:41.104902  9042 net.cpp:156] Memory required for data: 10016
I0720 14:03:41.104914  9042 layer_factory.hpp:77] Creating layer lstm1_x_transform
I0720 14:03:41.104945  9042 net.cpp:91] Creating Layer lstm1_x_transform
I0720 14:03:41.104956  9042 net.cpp:425] lstm1_x_transform <- x
I0720 14:03:41.104977  9042 net.cpp:399] lstm1_x_transform -> W_xc_x
I0720 14:03:41.161949  9042 net.cpp:141] Setting up lstm1_x_transform
I0720 14:03:41.161998  9042 net.cpp:148] Top shape: 1 1 4000 (4000)
I0720 14:03:41.162004  9042 net.cpp:156] Memory required for data: 26016
I0720 14:03:41.162029  9042 layer_factory.hpp:77] Creating layer lstm1_W_xc_x_slice
I0720 14:03:41.162045  9042 net.cpp:91] Creating Layer lstm1_W_xc_x_slice
I0720 14:03:41.162051  9042 net.cpp:425] lstm1_W_xc_x_slice <- W_xc_x
I0720 14:03:41.162065  9042 net.cpp:399] lstm1_W_xc_x_slice -> W_xc_x_1
I0720 14:03:41.162562  9042 net.cpp:141] Setting up lstm1_W_xc_x_slice
I0720 14:03:41.162580  9042 net.cpp:148] Top shape: 1 1 4000 (4000)
I0720 14:03:41.162585  9042 net.cpp:156] Memory required for data: 42016
I0720 14:03:41.162590  9042 layer_factory.hpp:77] Creating layer lstm1_h_conted_0
I0720 14:03:41.162606  9042 net.cpp:91] Creating Layer lstm1_h_conted_0
I0720 14:03:41.162611  9042 net.cpp:425] lstm1_h_conted_0 <- h_0
I0720 14:03:41.162617  9042 net.cpp:425] lstm1_h_conted_0 <- cont_1_lstm1_cont_slice_0_split_0
I0720 14:03:41.162624  9042 net.cpp:399] lstm1_h_conted_0 -> h_conted_0
I0720 14:03:41.168323  9042 net.cpp:141] Setting up lstm1_h_conted_0
I0720 14:03:41.168342  9042 net.cpp:148] Top shape: 1 1 1000 (1000)
I0720 14:03:41.168347  9042 net.cpp:156] Memory required for data: 46016
I0720 14:03:41.168354  9042 layer_factory.hpp:77] Creating layer lstm1_transform_1
I0720 14:03:41.168370  9042 net.cpp:91] Creating Layer lstm1_transform_1
I0720 14:03:41.168375  9042 net.cpp:425] lstm1_transform_1 <- h_conted_0
I0720 14:03:41.168383  9042 net.cpp:399] lstm1_transform_1 -> W_hc_h_0
I0720 14:03:41.169278  9070 net.cpp:141] Setting up conv1
I0720 14:03:41.169299  9070 net.cpp:148] Top shape: 10 96 55 55 (2904000)
I0720 14:03:41.169306  9070 net.cpp:156] Memory required for data: 17799480
I0720 14:03:41.169322  9070 layer_factory.hpp:77] Creating layer relu1
I0720 14:03:41.169347  9070 net.cpp:91] Creating Layer relu1
I0720 14:03:41.169353  9070 net.cpp:425] relu1 <- conv1
I0720 14:03:41.169360  9070 net.cpp:386] relu1 -> conv1 (in-place)
I0720 14:03:41.181509  9070 net.cpp:141] Setting up relu1
I0720 14:03:41.181561  9070 net.cpp:148] Top shape: 10 96 55 55 (2904000)
I0720 14:03:41.181567  9070 net.cpp:156] Memory required for data: 29415480
I0720 14:03:41.181576  9070 layer_factory.hpp:77] Creating layer pool1
I0720 14:03:41.181602  9070 net.cpp:91] Creating Layer pool1
I0720 14:03:41.181609  9070 net.cpp:425] pool1 <- conv1
I0720 14:03:41.181625  9070 net.cpp:399] pool1 -> pool1
I0720 14:03:41.181668  9070 net.cpp:141] Setting up pool1
I0720 14:03:41.181676  9070 net.cpp:148] Top shape: 10 96 27 27 (699840)
I0720 14:03:41.181680  9070 net.cpp:156] Memory required for data: 32214840
I0720 14:03:41.181684  9070 layer_factory.hpp:77] Creating layer norm1
I0720 14:03:41.181702  9070 net.cpp:91] Creating Layer norm1
I0720 14:03:41.181706  9070 net.cpp:425] norm1 <- pool1
I0720 14:03:41.181715  9070 net.cpp:399] norm1 -> norm1
I0720 14:03:41.181762  9050 net.cpp:141] Setting up conv1
I0720 14:03:41.181779  9050 net.cpp:148] Top shape: 10 96 55 55 (2904000)
I0720 14:03:41.181787  9050 net.cpp:156] Memory required for data: 17799480
I0720 14:03:41.181802  9050 layer_factory.hpp:77] Creating layer relu1
I0720 14:03:41.181813  9050 net.cpp:91] Creating Layer relu1
I0720 14:03:41.181820  9050 net.cpp:425] relu1 <- conv1
I0720 14:03:41.181838  9050 net.cpp:386] relu1 -> conv1 (in-place)
I0720 14:03:41.189484  9068 net.cpp:141] Setting up conv1
I0720 14:03:41.189530  9068 net.cpp:148] Top shape: 10 96 55 55 (2904000)
I0720 14:03:41.189538  9068 net.cpp:156] Memory required for data: 17799480
I0720 14:03:41.189550  9056 net.cpp:141] Setting up conv1
I0720 14:03:41.189558  9068 layer_factory.hpp:77] Creating layer relu1
I0720 14:03:41.189579  9056 net.cpp:148] Top shape: 10 96 55 55 (2904000)
I0720 14:03:41.189586  9068 net.cpp:91] Creating Layer relu1
I0720 14:03:41.189587  9056 net.cpp:156] Memory required for data: 17799480
I0720 14:03:41.189587  9070 net.cpp:141] Setting up norm1
I0720 14:03:41.189594  9068 net.cpp:425] relu1 <- conv1
I0720 14:03:41.189607  9070 net.cpp:148] Top shape: 10 96 27 27 (699840)
I0720 14:03:41.189610  9068 net.cpp:386] relu1 -> conv1 (in-place)
I0720 14:03:41.189613  9056 layer_factory.hpp:77] Creating layer relu1
I0720 14:03:41.189616  9070 net.cpp:156] Memory required for data: 35014200
I0720 14:03:41.189625  9070 layer_factory.hpp:77] Creating layer conv2
I0720 14:03:41.189628  9056 net.cpp:91] Creating Layer relu1
I0720 14:03:41.189637  9056 net.cpp:425] relu1 <- conv1
I0720 14:03:41.189646  9070 net.cpp:91] Creating Layer conv2
I0720 14:03:41.189651  9056 net.cpp:386] relu1 -> conv1 (in-place)
I0720 14:03:41.189656  9070 net.cpp:425] conv2 <- norm1
I0720 14:03:41.189668  9070 net.cpp:399] conv2 -> conv2
I0720 14:03:41.190013  9062 net.cpp:141] Setting up conv1
I0720 14:03:41.190052  9062 net.cpp:148] Top shape: 10 96 55 55 (2904000)
I0720 14:03:41.190057  9062 net.cpp:156] Memory required for data: 17799480
I0720 14:03:41.190076  9062 layer_factory.hpp:77] Creating layer relu1
I0720 14:03:41.190095  9062 net.cpp:91] Creating Layer relu1
I0720 14:03:41.190101  9062 net.cpp:425] relu1 <- conv1
I0720 14:03:41.190109  9062 net.cpp:386] relu1 -> conv1 (in-place)
I0720 14:03:41.190138  9068 net.cpp:141] Setting up relu1
I0720 14:03:41.190155  9068 net.cpp:148] Top shape: 10 96 55 55 (2904000)
I0720 14:03:41.190160  9068 net.cpp:156] Memory required for data: 29415480
I0720 14:03:41.190156  9050 net.cpp:141] Setting up relu1
I0720 14:03:41.190166  9068 layer_factory.hpp:77] Creating layer pool1
I0720 14:03:41.190176  9068 net.cpp:91] Creating Layer pool1
I0720 14:03:41.190176  9050 net.cpp:148] Top shape: 10 96 55 55 (2904000)
I0720 14:03:41.190181  9068 net.cpp:425] pool1 <- conv1
I0720 14:03:41.190186  9050 net.cpp:156] Memory required for data: 29415480
I0720 14:03:41.190188  9068 net.cpp:399] pool1 -> pool1
I0720 14:03:41.190198  9050 layer_factory.hpp:77] Creating layer pool1
I0720 14:03:41.190202  9064 net.cpp:141] Setting up conv1
I0720 14:03:41.190209  9068 net.cpp:141] Setting up pool1
I0720 14:03:41.190215  9050 net.cpp:91] Creating Layer pool1
I0720 14:03:41.190218  9064 net.cpp:148] Top shape: 10 96 55 55 (2904000)
I0720 14:03:41.190217  9068 net.cpp:148] Top shape: 10 96 27 27 (699840)
I0720 14:03:41.190227  9064 net.cpp:156] Memory required for data: 17799480
I0720 14:03:41.190229  9076 net.cpp:141] Setting up conv1
I0720 14:03:41.190229  9068 net.cpp:156] Memory required for data: 32214840
I0720 14:03:41.190227  9050 net.cpp:425] pool1 <- conv1
I0720 14:03:41.190255  9076 net.cpp:148] Top shape: 10 96 55 55 (2904000)
I0720 14:03:41.190256  9068 layer_factory.hpp:77] Creating layer norm1
I0720 14:03:41.190253  9064 layer_factory.hpp:77] Creating layer relu1
I0720 14:03:41.190266  9076 net.cpp:156] Memory required for data: 17799480
I0720 14:03:41.190274  9050 net.cpp:399] pool1 -> pool1
I0720 14:03:41.190286  9076 layer_factory.hpp:77] Creating layer relu1
I0720 14:03:41.190289  9068 net.cpp:91] Creating Layer norm1
I0720 14:03:41.190296  9050 net.cpp:141] Setting up pool1
I0720 14:03:41.190296  9064 net.cpp:91] Creating Layer relu1
I0720 14:03:41.190300  9076 net.cpp:91] Creating Layer relu1
I0720 14:03:41.190315  9064 net.cpp:425] relu1 <- conv1
I0720 14:03:41.190320  9076 net.cpp:425] relu1 <- conv1
I0720 14:03:41.190310  9050 net.cpp:148] Top shape: 10 96 27 27 (699840)
I0720 14:03:41.190300  9068 net.cpp:425] norm1 <- pool1
I0720 14:03:41.190330  9064 net.cpp:386] relu1 -> conv1 (in-place)
I0720 14:03:41.190333  9050 net.cpp:156] Memory required for data: 32214840
I0720 14:03:41.190340  9068 net.cpp:399] norm1 -> norm1
I0720 14:03:41.190336  9076 net.cpp:386] relu1 -> conv1 (in-place)
I0720 14:03:41.190348  9050 layer_factory.hpp:77] Creating layer norm1
I0720 14:03:41.190379  9050 net.cpp:91] Creating Layer norm1
I0720 14:03:41.190387  9050 net.cpp:425] norm1 <- pool1
I0720 14:03:41.190397  9050 net.cpp:399] norm1 -> norm1
I0720 14:03:41.194730  9074 net.cpp:141] Setting up conv1
I0720 14:03:41.194762  9074 net.cpp:148] Top shape: 10 96 55 55 (2904000)
I0720 14:03:41.194768  9074 net.cpp:156] Memory required for data: 17799480
I0720 14:03:41.194784  9074 layer_factory.hpp:77] Creating layer relu1
I0720 14:03:41.194800  9074 net.cpp:91] Creating Layer relu1
I0720 14:03:41.194807  9074 net.cpp:425] relu1 <- conv1
I0720 14:03:41.194813  9074 net.cpp:386] relu1 -> conv1 (in-place)
I0720 14:03:41.196460  9074 net.cpp:141] Setting up relu1
I0720 14:03:41.196476  9074 net.cpp:148] Top shape: 10 96 55 55 (2904000)
I0720 14:03:41.196475  9062 net.cpp:141] Setting up relu1
I0720 14:03:41.196481  9074 net.cpp:156] Memory required for data: 29415480
I0720 14:03:41.196494  9062 net.cpp:148] Top shape: 10 96 55 55 (2904000)
I0720 14:03:41.196496  9074 layer_factory.hpp:77] Creating layer pool1
I0720 14:03:41.196501  9062 net.cpp:156] Memory required for data: 29415480
I0720 14:03:41.196506  9062 layer_factory.hpp:77] Creating layer pool1
I0720 14:03:41.196511  9074 net.cpp:91] Creating Layer pool1
I0720 14:03:41.196516  9074 net.cpp:425] pool1 <- conv1
I0720 14:03:41.196519  9062 net.cpp:91] Creating Layer pool1
I0720 14:03:41.196524  9062 net.cpp:425] pool1 <- conv1
I0720 14:03:41.196526  9074 net.cpp:399] pool1 -> pool1
I0720 14:03:41.196533  9062 net.cpp:399] pool1 -> pool1
I0720 14:03:41.196542  9074 net.cpp:141] Setting up pool1
I0720 14:03:41.196547  9062 net.cpp:141] Setting up pool1
I0720 14:03:41.196549  9074 net.cpp:148] Top shape: 10 96 27 27 (699840)
I0720 14:03:41.196554  9074 net.cpp:156] Memory required for data: 32214840
I0720 14:03:41.196555  9062 net.cpp:148] Top shape: 10 96 27 27 (699840)
I0720 14:03:41.196559  9074 layer_factory.hpp:77] Creating layer norm1
I0720 14:03:41.196560  9062 net.cpp:156] Memory required for data: 32214840
I0720 14:03:41.196560  9068 net.cpp:141] Setting up norm1
I0720 14:03:41.196573  9062 layer_factory.hpp:77] Creating layer norm1
I0720 14:03:41.196574  9074 net.cpp:91] Creating Layer norm1
I0720 14:03:41.196596  9068 net.cpp:148] Top shape: 10 96 27 27 (699840)
I0720 14:03:41.196601  9074 net.cpp:425] norm1 <- pool1
I0720 14:03:41.196604  9068 net.cpp:156] Memory required for data: 35014200
I0720 14:03:41.196602  9062 net.cpp:91] Creating Layer norm1
I0720 14:03:41.196612  9068 layer_factory.hpp:77] Creating layer conv2
I0720 14:03:41.196615  9062 net.cpp:425] norm1 <- pool1
I0720 14:03:41.196616  9074 net.cpp:399] norm1 -> norm1
I0720 14:03:41.196629  9062 net.cpp:399] norm1 -> norm1
I0720 14:03:41.196633  9068 net.cpp:91] Creating Layer conv2
I0720 14:03:41.196640  9068 net.cpp:425] conv2 <- norm1
I0720 14:03:41.196650  9068 net.cpp:399] conv2 -> conv2
I0720 14:03:41.196921  9064 net.cpp:141] Setting up relu1
I0720 14:03:41.196936  9064 net.cpp:148] Top shape: 10 96 55 55 (2904000)
I0720 14:03:41.196940  9064 net.cpp:156] Memory required for data: 29415480
I0720 14:03:41.196946  9064 layer_factory.hpp:77] Creating layer pool1
I0720 14:03:41.196956  9064 net.cpp:91] Creating Layer pool1
I0720 14:03:41.196962  9064 net.cpp:425] pool1 <- conv1
I0720 14:03:41.196981  9064 net.cpp:399] pool1 -> pool1
I0720 14:03:41.196997  9064 net.cpp:141] Setting up pool1
I0720 14:03:41.197005  9064 net.cpp:148] Top shape: 10 96 27 27 (699840)
I0720 14:03:41.197008  9064 net.cpp:156] Memory required for data: 32214840
I0720 14:03:41.197012  9064 layer_factory.hpp:77] Creating layer norm1
I0720 14:03:41.197011  9050 net.cpp:141] Setting up norm1
I0720 14:03:41.197026  9064 net.cpp:91] Creating Layer norm1
I0720 14:03:41.197031  9064 net.cpp:425] norm1 <- pool1
I0720 14:03:41.197032  9050 net.cpp:148] Top shape: 10 96 27 27 (699840)
I0720 14:03:41.197036  9064 net.cpp:399] norm1 -> norm1
I0720 14:03:41.197041  9050 net.cpp:156] Memory required for data: 35014200
I0720 14:03:41.197052  9050 layer_factory.hpp:77] Creating layer conv2
I0720 14:03:41.197065  9050 net.cpp:91] Creating Layer conv2
I0720 14:03:41.197075  9050 net.cpp:425] conv2 <- norm1
I0720 14:03:41.197101  9050 net.cpp:399] conv2 -> conv2
I0720 14:03:41.199306  9040 net.cpp:141] Setting up conv1
I0720 14:03:41.199331  9040 net.cpp:148] Top shape: 10 96 55 55 (2904000)
I0720 14:03:41.199337  9040 net.cpp:156] Memory required for data: 17799480
I0720 14:03:41.199353  9040 layer_factory.hpp:77] Creating layer relu1
I0720 14:03:41.199364  9040 net.cpp:91] Creating Layer relu1
I0720 14:03:41.199370  9040 net.cpp:425] relu1 <- conv1
I0720 14:03:41.199378  9040 net.cpp:386] relu1 -> conv1 (in-place)
I0720 14:03:41.199416  9062 net.cpp:141] Setting up norm1
I0720 14:03:41.199434  9062 net.cpp:148] Top shape: 10 96 27 27 (699840)
I0720 14:03:41.199440  9062 net.cpp:156] Memory required for data: 35014200
I0720 14:03:41.199445  9062 layer_factory.hpp:77] Creating layer conv2
I0720 14:03:41.199462  9062 net.cpp:91] Creating Layer conv2
I0720 14:03:41.199468  9062 net.cpp:425] conv2 <- norm1
I0720 14:03:41.199476  9062 net.cpp:399] conv2 -> conv2
I0720 14:03:41.200604  9056 net.cpp:141] Setting up relu1
I0720 14:03:41.200628  9056 net.cpp:148] Top shape: 10 96 55 55 (2904000)
I0720 14:03:41.200639  9056 net.cpp:156] Memory required for data: 29415480
I0720 14:03:41.200649  9056 layer_factory.hpp:77] Creating layer pool1
I0720 14:03:41.200678  9056 net.cpp:91] Creating Layer pool1
I0720 14:03:41.200691  9056 net.cpp:425] pool1 <- conv1
I0720 14:03:41.200695  9060 net.cpp:141] Setting up conv1
I0720 14:03:41.200716  9060 net.cpp:148] Top shape: 10 96 55 55 (2904000)
I0720 14:03:41.200721  9056 net.cpp:399] pool1 -> pool1
I0720 14:03:41.200726  9060 net.cpp:156] Memory required for data: 17799480
I0720 14:03:41.200743  9056 net.cpp:141] Setting up pool1
I0720 14:03:41.200747  9060 layer_factory.hpp:77] Creating layer relu1
I0720 14:03:41.200760  9056 net.cpp:148] Top shape: 10 96 27 27 (699840)
I0720 14:03:41.200768  9056 net.cpp:156] Memory required for data: 32214840
I0720 14:03:41.200778  9056 layer_factory.hpp:77] Creating layer norm1
I0720 14:03:41.200778  9060 net.cpp:91] Creating Layer relu1
I0720 14:03:41.200790  9060 net.cpp:425] relu1 <- conv1
I0720 14:03:41.200800  9056 net.cpp:91] Creating Layer norm1
I0720 14:03:41.200801  9060 net.cpp:386] relu1 -> conv1 (in-place)
I0720 14:03:41.200814  9056 net.cpp:425] norm1 <- pool1
I0720 14:03:41.200829  9056 net.cpp:399] norm1 -> norm1
I0720 14:03:41.203161  9074 net.cpp:141] Setting up norm1
I0720 14:03:41.203192  9074 net.cpp:148] Top shape: 10 96 27 27 (699840)
I0720 14:03:41.203198  9074 net.cpp:156] Memory required for data: 35014200
I0720 14:03:41.203204  9074 layer_factory.hpp:77] Creating layer conv2
I0720 14:03:41.203222  9074 net.cpp:91] Creating Layer conv2
I0720 14:03:41.203228  9074 net.cpp:425] conv2 <- norm1
I0720 14:03:41.203236  9074 net.cpp:399] conv2 -> conv2
I0720 14:03:41.204854  9076 net.cpp:141] Setting up relu1
I0720 14:03:41.204884  9076 net.cpp:148] Top shape: 10 96 55 55 (2904000)
I0720 14:03:41.204891  9076 net.cpp:156] Memory required for data: 29415480
I0720 14:03:41.204900  9076 layer_factory.hpp:77] Creating layer pool1
I0720 14:03:41.204916  9076 net.cpp:91] Creating Layer pool1
I0720 14:03:41.204922  9076 net.cpp:425] pool1 <- conv1
I0720 14:03:41.204934  9076 net.cpp:399] pool1 -> pool1
I0720 14:03:41.204957  9076 net.cpp:141] Setting up pool1
I0720 14:03:41.204967  9076 net.cpp:148] Top shape: 10 96 27 27 (699840)
I0720 14:03:41.204974  9076 net.cpp:156] Memory required for data: 32214840
I0720 14:03:41.204980  9076 layer_factory.hpp:77] Creating layer norm1
I0720 14:03:41.204998  9076 net.cpp:91] Creating Layer norm1
I0720 14:03:41.205004  9076 net.cpp:425] norm1 <- pool1
I0720 14:03:41.205014  9076 net.cpp:399] norm1 -> norm1
I0720 14:03:41.207376  9056 net.cpp:141] Setting up norm1
I0720 14:03:41.207407  9056 net.cpp:148] Top shape: 10 96 27 27 (699840)
I0720 14:03:41.208232  9056 net.cpp:156] Memory required for data: 35014200
I0720 14:03:41.208250  9056 layer_factory.hpp:77] Creating layer conv2
I0720 14:03:41.208273  9056 net.cpp:91] Creating Layer conv2
I0720 14:03:41.208279  9056 net.cpp:425] conv2 <- norm1
I0720 14:03:41.208292  9056 net.cpp:399] conv2 -> conv2
I0720 14:03:41.209858  9076 net.cpp:141] Setting up norm1
I0720 14:03:41.209879  9076 net.cpp:148] Top shape: 10 96 27 27 (699840)
I0720 14:03:41.209887  9076 net.cpp:156] Memory required for data: 35014200
I0720 14:03:41.209895  9076 layer_factory.hpp:77] Creating layer conv2
I0720 14:03:41.209913  9076 net.cpp:91] Creating Layer conv2
I0720 14:03:41.209923  9076 net.cpp:425] conv2 <- norm1
I0720 14:03:41.209933  9076 net.cpp:399] conv2 -> conv2
I0720 14:03:41.213846  9064 net.cpp:141] Setting up norm1
I0720 14:03:41.213891  9064 net.cpp:148] Top shape: 10 96 27 27 (699840)
I0720 14:03:41.213903  9064 net.cpp:156] Memory required for data: 35014200
I0720 14:03:41.213914  9064 layer_factory.hpp:77] Creating layer conv2
I0720 14:03:41.213938  9064 net.cpp:91] Creating Layer conv2
I0720 14:03:41.213950  9064 net.cpp:425] conv2 <- norm1
I0720 14:03:41.213973  9064 net.cpp:399] conv2 -> conv2
I0720 14:03:41.221843  9042 net.cpp:141] Setting up lstm1_transform_1
I0720 14:03:41.221889  9042 net.cpp:148] Top shape: 1 1 4000 (4000)
I0720 14:03:41.221899  9042 net.cpp:156] Memory required for data: 62016
I0720 14:03:41.221927  9042 layer_factory.hpp:77] Creating layer lstm1_gate_input_1
I0720 14:03:41.221961  9042 net.cpp:91] Creating Layer lstm1_gate_input_1
I0720 14:03:41.221972  9042 net.cpp:425] lstm1_gate_input_1 <- W_hc_h_0
I0720 14:03:41.221983  9042 net.cpp:425] lstm1_gate_input_1 <- W_xc_x_1
I0720 14:03:41.221997  9042 net.cpp:399] lstm1_gate_input_1 -> gate_input_1
I0720 14:03:41.222497  9042 net.cpp:141] Setting up lstm1_gate_input_1
I0720 14:03:41.222517  9042 net.cpp:148] Top shape: 1 1 4000 (4000)
I0720 14:03:41.222527  9042 net.cpp:156] Memory required for data: 78016
I0720 14:03:41.222534  9042 layer_factory.hpp:77] Creating layer lstm1_unit_1
I0720 14:03:41.222555  9042 net.cpp:91] Creating Layer lstm1_unit_1
I0720 14:03:41.222568  9042 net.cpp:425] lstm1_unit_1 <- c_0
I0720 14:03:41.222579  9042 net.cpp:425] lstm1_unit_1 <- gate_input_1
I0720 14:03:41.222590  9042 net.cpp:425] lstm1_unit_1 <- cont_1_lstm1_cont_slice_0_split_1
I0720 14:03:41.222604  9042 net.cpp:399] lstm1_unit_1 -> c_1
I0720 14:03:41.222626  9042 net.cpp:399] lstm1_unit_1 -> h_1
I0720 14:03:41.225616  9040 net.cpp:141] Setting up relu1
I0720 14:03:41.225642  9040 net.cpp:148] Top shape: 10 96 55 55 (2904000)
I0720 14:03:41.225651  9040 net.cpp:156] Memory required for data: 29415480
I0720 14:03:41.225658  9040 layer_factory.hpp:77] Creating layer pool1
I0720 14:03:41.225672  9040 net.cpp:91] Creating Layer pool1
I0720 14:03:41.225677  9040 net.cpp:425] pool1 <- conv1
I0720 14:03:41.225687  9040 net.cpp:399] pool1 -> pool1
I0720 14:03:41.225705  9040 net.cpp:141] Setting up pool1
I0720 14:03:41.225713  9040 net.cpp:148] Top shape: 10 96 27 27 (699840)
I0720 14:03:41.225718  9040 net.cpp:156] Memory required for data: 32214840
I0720 14:03:41.225723  9040 layer_factory.hpp:77] Creating layer norm1
I0720 14:03:41.225734  9040 net.cpp:91] Creating Layer norm1
I0720 14:03:41.225739  9040 net.cpp:425] norm1 <- pool1
I0720 14:03:41.225746  9040 net.cpp:399] norm1 -> norm1
I0720 14:03:41.228245  9040 net.cpp:141] Setting up norm1
I0720 14:03:41.228263  9040 net.cpp:148] Top shape: 10 96 27 27 (699840)
I0720 14:03:41.228268  9040 net.cpp:156] Memory required for data: 35014200
I0720 14:03:41.228274  9040 layer_factory.hpp:77] Creating layer conv2
I0720 14:03:41.228291  9040 net.cpp:91] Creating Layer conv2
I0720 14:03:41.228301  9040 net.cpp:425] conv2 <- norm1
I0720 14:03:41.228309  9040 net.cpp:399] conv2 -> conv2
I0720 14:03:41.229472  9042 net.cpp:141] Setting up lstm1_unit_1
I0720 14:03:41.229496  9042 net.cpp:148] Top shape: 1 1 1000 (1000)
I0720 14:03:41.229509  9042 net.cpp:148] Top shape: 1 1 1000 (1000)
I0720 14:03:41.229517  9042 net.cpp:156] Memory required for data: 86016
I0720 14:03:41.229526  9042 layer_factory.hpp:77] Creating layer lstm1_
I0720 14:03:41.229542  9042 net.cpp:91] Creating Layer lstm1_
I0720 14:03:41.229552  9042 net.cpp:425] lstm1_ <- c_1
I0720 14:03:41.229569  9042 net.cpp:399] lstm1_ -> c_T
I0720 14:03:41.230998  9042 net.cpp:141] Setting up lstm1_
I0720 14:03:41.231021  9042 net.cpp:148] Top shape: 1 1 1000 (1000)
I0720 14:03:41.231031  9042 net.cpp:156] Memory required for data: 90016
I0720 14:03:41.231041  9042 layer_factory.hpp:77] Creating layer lstm1_h_concat
I0720 14:03:41.231076  9042 net.cpp:91] Creating Layer lstm1_h_concat
I0720 14:03:41.231087  9042 net.cpp:425] lstm1_h_concat <- h_1
I0720 14:03:41.231101  9042 net.cpp:399] lstm1_h_concat -> h
I0720 14:03:41.233499  9042 net.cpp:141] Setting up lstm1_h_concat
I0720 14:03:41.233521  9042 net.cpp:148] Top shape: 1 1 1000 (1000)
I0720 14:03:41.233530  9042 net.cpp:156] Memory required for data: 94016
I0720 14:03:41.233539  9042 layer_factory.hpp:77] Creating layer h_pseudoloss
I0720 14:03:41.233569  9042 net.cpp:91] Creating Layer h_pseudoloss
I0720 14:03:41.233579  9042 net.cpp:425] h_pseudoloss <- h
I0720 14:03:41.233592  9042 net.cpp:399] h_pseudoloss -> h_pseudoloss
I0720 14:03:41.234189  9060 net.cpp:141] Setting up relu1
I0720 14:03:41.234213  9060 net.cpp:148] Top shape: 10 96 55 55 (2904000)
I0720 14:03:41.234220  9060 net.cpp:156] Memory required for data: 29415480
I0720 14:03:41.234225  9060 layer_factory.hpp:77] Creating layer pool1
I0720 14:03:41.234236  9060 net.cpp:91] Creating Layer pool1
I0720 14:03:41.234241  9060 net.cpp:425] pool1 <- conv1
I0720 14:03:41.234249  9060 net.cpp:399] pool1 -> pool1
I0720 14:03:41.234262  9060 net.cpp:141] Setting up pool1
I0720 14:03:41.234269  9060 net.cpp:148] Top shape: 10 96 27 27 (699840)
I0720 14:03:41.234274  9060 net.cpp:156] Memory required for data: 32214840
I0720 14:03:41.234278  9060 layer_factory.hpp:77] Creating layer norm1
I0720 14:03:41.234300  9060 net.cpp:91] Creating Layer norm1
I0720 14:03:41.234308  9060 net.cpp:425] norm1 <- pool1
I0720 14:03:41.234315  9060 net.cpp:399] norm1 -> norm1
I0720 14:03:41.239429  9062 net.cpp:141] Setting up conv2
I0720 14:03:41.239480  9062 net.cpp:148] Top shape: 10 256 27 27 (1866240)
I0720 14:03:41.239491  9062 net.cpp:156] Memory required for data: 42479160
I0720 14:03:41.239518  9062 layer_factory.hpp:77] Creating layer relu2
I0720 14:03:41.239533  9062 net.cpp:91] Creating Layer relu2
I0720 14:03:41.239540  9062 net.cpp:425] relu2 <- conv2
I0720 14:03:41.239548  9062 net.cpp:386] relu2 -> conv2 (in-place)
I0720 14:03:41.239737  9042 net.cpp:141] Setting up h_pseudoloss
…
I0720 14:03:41.239863  9042 net.cpp:219] lstm1_ does not need backward computation.
I0720 14:03:41.239867  9042 net.cpp:261] This network produces output c_T
I0720 14:03:41.239871  9042 net.cpp:261] This network produces output h_pseudoloss
I0720 14:03:41.239891  9042 net.cpp:274] Network initialization done.
I0720 14:03:41.239951  9042 recurrent_layer.cpp:150] Adding parameter 0: W_xc
I0720 14:03:41.239959  9042 recurrent_layer.cpp:150] Adding parameter 1: b_c
I0720 14:03:41.239962  9042 recurrent_layer.cpp:150] Adding parameter 2: W_hc
I0720 14:03:41.241866  9060 net.cpp:141] Setting up norm1
I0720 14:03:41.241888  9060 net.cpp:148] Top shape: 10 96 27 27 (699840)
I0720 14:03:41.241894  9060 net.cpp:156] Memory required for data: 35014200
I0720 14:03:41.241900  9060 layer_factory.hpp:77] Creating layer conv2
I0720 14:03:41.241914  9060 net.cpp:91] Creating Layer conv2
I0720 14:03:41.241919  9060 net.cpp:425] conv2 <- norm1
I0720 14:03:41.241932  9060 net.cpp:399] conv2 -> conv2
I0720 14:03:41.244959  9042 net.cpp:141] Setting up lstm1
I0720 14:03:41.244982  9042 net.cpp:148] Top shape: 1 1 1000 (1000)
I0720 14:03:41.244987  9042 net.cpp:156] Memory required for data: 26408
I0720 14:03:41.245002  9042 layer_factory.hpp:77] Creating layer concat
I0720 14:03:41.245012  9042 net.cpp:91] Creating Layer concat
I0720 14:03:41.245018  9042 net.cpp:425] concat <- lstm1
I0720 14:03:41.245025  9042 net.cpp:425] concat <- embedded_input_sentence
I0720 14:03:41.245030  9042 net.cpp:425] concat <- reshaped_stage_indicator
I0720 14:03:41.245038  9042 net.cpp:399] concat -> lstm1_video_sequence
I0720 14:03:41.248214  9042 net.cpp:141] Setting up concat
I0720 14:03:41.248236  9042 net.cpp:148] Top shape: 1 1 1501 (1501)
I0720 14:03:41.248245  9042 net.cpp:156] Memory required for data: 32412
I0720 14:03:41.248253  9042 layer_factory.hpp:77] Creating layer lstm2
I0720 14:03:41.248272  9042 net.cpp:91] Creating Layer lstm2
I0720 14:03:41.248282  9042 net.cpp:425] lstm2 <- lstm1_video_sequence
I0720 14:03:41.248293  9042 net.cpp:425] lstm2 <- cont_sentence_input_1_split_1
I0720 14:03:41.248304  9042 net.cpp:399] lstm2 -> lstm2
I0720 14:03:41.248322  9042 recurrent_layer.cpp:20] Initializing recurrent layer: assuming input batch contains 1 timesteps of 1 independent streams.
I0720 14:03:41.248785  9042 net.cpp:49] Initializing net from parameters: 
layer {
  name: "lstm2_"
  type: "Input"
  top: "x"
  top: "cont"
  input_param {
    shape {
      dim: 1
      dim: 1
      dim: 1501
    }
    shape {
      dim: 1
      dim: 1
    }
  }
}
layer {
  name: "lstm2_"
  type: "Input"
  top: "c_0"
  top: "h_0"
  input_param {
    shape {
      dim: 1
      dim: 1
      dim: 1000
    }
    shape {
      dim: 1
      dim: 1
      dim: 1000
    }
  }
}
layer {
  name: "lstm2_cont_slice"
  type: "Slice"
  bottom: "cont"
  top: "cont_1"
  slice_param {
    axis: 0
  }
}
layer {
  name: "lstm2_x_transform"
  type: "InnerProduct"
  bottom: "x"
  top: "W_xc_x"
  param {
    name: "W_xc"
  }
  param {
    name: "b_c"
  }
  propagate_down: true
  inner_product_param {
    num_output: 4000
    bias_term: true
    weight_filler {
      type: "uniform"
      min: -0.08
      max: 0.08
    }
    bias_filler {
      type: "constant"
      value: 0
    }
    axis: 2
  }
}
layer {
  name: "lstm2_W_xc_x_slice"
  type: "Slice"
  bottom: "W_xc_x"
  top: "W_xc_x_1"
  slice_param {
    axis: 0
  }
}
layer {
  name: "lstm2_h_conted_0"
  type: "Scale"
  bottom: "h_0"
  bottom: "cont_1"
  top: "h_conted_0"
  scale_param {
    axis: 0
  }
}
layer {
  name: "lstm2_transform_1"
  type: "InnerProduct"
  bottom: "h_conted_0"
  top: "W_hc_h_0"
  param {
    name: "W_hc"
  }
  inner_product_param {
    num_output: 4000
    bias_term: false
    weight_filler {
      type: "uniform"
      min: -0.08
      max: 0.08
    }
    axis: 2
  }
}
layer {
  name: "lstm2_gate_input_1"
  type: "Eltwise"
  bottom: "W_hc_h_0"
  bottom: "W_xc_x_1"
  top: "gate_input_1"
  eltwise_param {
    operation: SUM
  }
}
layer {
  name: "lstm2_unit_1"
  type: "LSTMUnit"
  bottom: "c_0"
  bottom: "gate_input_1"
  bottom: "cont_1"
  top: "c_1"
  top: "h_1"
}
layer {
  name: "lstm2_"
  type: "Split"
  bottom: "c_1"
  top: "c_T"
}
layer {
  name: "lstm2_h_concat"
  type: "Concat"
  bottom: "h_1"
  top: "h"
  concat_param {
    axis: 0
  }
}
layer {
  name: "h_pseudoloss"
  type: "Reduction"
  bottom: "h"
  top: "h_pseudoloss"
  loss_weight: 1
}
I0720 14:03:41.248922  9042 layer_factory.hpp:77] Creating layer lstm2_
I0720 14:03:41.248942  9042 net.cpp:91] Creating Layer lstm2_
I0720 14:03:41.248955  9042 net.cpp:399] lstm2_ -> x
I0720 14:03:41.248972  9042 net.cpp:399] lstm2_ -> cont
I0720 14:03:41.249078  9062 net.cpp:141] Setting up relu2
I0720 14:03:41.249105  9062 net.cpp:148] Top shape: 10 256 27 27 (1866240)
I0720 14:03:41.249110  9062 net.cpp:156] Memory required for data: 49944120
I0720 14:03:41.249117  9062 layer_factory.hpp:77] Creating layer pool2
I0720 14:03:41.249130  9062 net.cpp:91] Creating Layer pool2
I0720 14:03:41.249136  9062 net.cpp:425] pool2 <- conv2
I0720 14:03:41.249157  9062 net.cpp:399] pool2 -> pool2
I0720 14:03:41.249178  9062 net.cpp:141] Setting up pool2
I0720 14:03:41.249189  9062 net.cpp:148] Top shape: 10 256 13 13 (432640)
I0720 14:03:41.249193  9062 net.cpp:156] Memory required for data: 51674680
I0720 14:03:41.249198  9062 layer_factory.hpp:77] Creating layer norm2
I0720 14:03:41.249214  9062 net.cpp:91] Creating Layer norm2
I0720 14:03:41.249219  9062 net.cpp:425] norm2 <- pool2
I0720 14:03:41.249225  9062 net.cpp:399] norm2 -> norm2
I0720 14:03:41.251444  9074 net.cpp:141] Setting up conv2
I0720 14:03:41.251469  9074 net.cpp:148] Top shape: 10 256 27 27 (1866240)
I0720 14:03:41.251476  9074 net.cpp:156] Memory required for data: 42479160
I0720 14:03:41.251490  9074 layer_factory.hpp:77] Creating layer relu2
I0720 14:03:41.251500  9074 net.cpp:91] Creating Layer relu2
I0720 14:03:41.251507  9074 net.cpp:425] relu2 <- conv2
I0720 14:03:41.251513  9074 net.cpp:386] relu2 -> conv2 (in-place)
I0720 14:03:41.252053  9042 net.cpp:141] Setting up lstm2_
I0720 14:03:41.252074  9042 net.cpp:148] Top shape: 1 1 1501 (1501)
I0720 14:03:41.252080  9042 net.cpp:148] Top shape: 1 1 (1)
I0720 14:03:41.252084  9042 net.cpp:156] Memory required for data: 6008
I0720 14:03:41.252089  9042 layer_factory.hpp:77] Creating layer lstm2_
I0720 14:03:41.252100  9042 net.cpp:91] Creating Layer lstm2_
I0720 14:03:41.252107  9042 net.cpp:399] lstm2_ -> c_0
I0720 14:03:41.252121  9042 net.cpp:399] lstm2_ -> h_0
I0720 14:03:41.254966  9042 net.cpp:141] Setting up lstm2_
I0720 14:03:41.254982  9042 net.cpp:148] Top shape: 1 1 1000 (1000)
I0720 14:03:41.254988  9042 net.cpp:148] Top shape: 1 1 1000 (1000)
I0720 14:03:41.254992  9042 net.cpp:156] Memory required for data: 14008
I0720 14:03:41.254989  9076 net.cpp:141] Setting up conv2
I0720 14:03:41.254998  9042 layer_factory.hpp:77] Creating layer lstm2_cont_slice
I0720 14:03:41.255008  9042 net.cpp:91] Creating Layer lstm2_cont_slice
I0720 14:03:41.255008  9076 net.cpp:148] Top shape: 10 256 27 27 (1866240)
I0720 14:03:41.255015  9042 net.cpp:425] lstm2_cont_slice <- cont
I0720 14:03:41.255018  9076 net.cpp:156] Memory required for data: 42479160
I0720 14:03:41.255023  9042 net.cpp:399] lstm2_cont_slice -> cont_1
I0720 14:03:41.255036  9076 layer_factory.hpp:77] Creating layer relu2
I0720 14:03:41.255046  9076 net.cpp:91] Creating Layer relu2
I0720 14:03:41.255051  9076 net.cpp:425] relu2 <- conv2
I0720 14:03:41.255061  9076 net.cpp:386] relu2 -> conv2 (in-place)
I0720 14:03:41.255699  9042 net.cpp:141] Setting up lstm2_cont_slice
I0720 14:03:41.255712  9042 net.cpp:148] Top shape: 1 1 (1)
I0720 14:03:41.255717  9042 net.cpp:156] Memory required for data: 14012
I0720 14:03:41.255722  9042 layer_factory.hpp:77] Creating layer cont_1_lstm2_cont_slice_0_split
I0720 14:03:41.255731  9042 net.cpp:91] Creating Layer cont_1_lstm2_cont_slice_0_split
I0720 14:03:41.255736  9042 net.cpp:425] cont_1_lstm2_cont_slice_0_split <- cont_1
I0720 14:03:41.255743  9042 net.cpp:399] cont_1_lstm2_cont_slice_0_split -> cont_1_lstm2_cont_slice_0_split_0
I0720 14:03:41.255753  9042 net.cpp:399] cont_1_lstm2_cont_slice_0_split -> cont_1_lstm2_cont_slice_0_split_1
I0720 14:03:41.255812  9062 net.cpp:141] Setting up norm2
I0720 14:03:41.255831  9062 net.cpp:148] Top shape: 10 256 13 13 (432640)
I0720 14:03:41.255836  9062 net.cpp:156] Memory required for data: 53405240
I0720 14:03:41.255841  9062 layer_factory.hpp:77] Creating layer conv3
I0720 14:03:41.255857  9062 net.cpp:91] Creating Layer conv3
I0720 14:03:41.255862  9062 net.cpp:425] conv3 <- norm2
I0720 14:03:41.255870  9062 net.cpp:399] conv3 -> conv3
I0720 14:03:41.256628  9050 net.cpp:141] Setting up conv2
I0720 14:03:41.256649  9050 net.cpp:148] Top shape: 10 256 27 27 (1866240)
I0720 14:03:41.256659  9050 net.cpp:156] Memory required for data: 42479160
I0720 14:03:41.256646  9074 net.cpp:141] Setting up relu2
I0720 14:03:41.256664  9064 net.cpp:141] Setting up conv2
I0720 14:03:41.256675  9050 layer_factory.hpp:77] Creating layer relu2
I0720 14:03:41.256681  9074 net.cpp:148] Top shape: 10 256 27 27 (1866240)
I0720 14:03:41.256687  9064 net.cpp:148] Top shape: 10 256 27 27 (1866240)
I0720 14:03:41.256691  9074 net.cpp:156] Memory required for data: 49944120
I0720 14:03:41.256692  9064 net.cpp:156] Memory required for data: 42479160
I0720 14:03:41.256705  9074 layer_factory.hpp:77] Creating layer pool2
I0720 14:03:41.256707  9050 net.cpp:91] Creating Layer relu2
I0720 14:03:41.256714  9064 layer_factory.hpp:77] Creating layer relu2
I0720 14:03:41.256717  9050 net.cpp:425] relu2 <- conv2
I0720 14:03:41.256721  9074 net.cpp:91] Creating Layer pool2
I0720 14:03:41.256726  9064 net.cpp:91] Creating Layer relu2
I0720 14:03:41.256728  9050 net.cpp:386] relu2 -> conv2 (in-place)
I0720 14:03:41.256732  9064 net.cpp:425] relu2 <- conv2
I0720 14:03:41.256731  9074 net.cpp:425] pool2 <- conv2
I0720 14:03:41.256741  9064 net.cpp:386] relu2 -> conv2 (in-place)
I0720 14:03:41.256759  9074 net.cpp:399] pool2 -> pool2
I0720 14:03:41.256781  9074 net.cpp:141] Setting up pool2
I0720 14:03:41.256793  9074 net.cpp:148] Top shape: 10 256 13 13 (432640)
I0720 14:03:41.256801  9074 net.cpp:156] Memory required for data: 51674680
I0720 14:03:41.256809  9074 layer_factory.hpp:77] Creating layer norm2
I0720 14:03:41.256830  9074 net.cpp:91] Creating Layer norm2
I0720 14:03:41.256839  9074 net.cpp:425] norm2 <- pool2
I0720 14:03:41.256850  9074 net.cpp:399] norm2 -> norm2
I0720 14:03:41.258466  9042 net.cpp:141] Setting up cont_1_lstm2_cont_slice_0_split
I0720 14:03:41.258483  9042 net.cpp:148] Top shape: 1 1 (1)
I0720 14:03:41.258489  9042 net.cpp:148] Top shape: 1 1 (1)
I0720 14:03:41.258494  9042 net.cpp:156] Memory required for data: 14020
I0720 14:03:41.258499  9042 layer_factory.hpp:77] Creating layer lstm2_x_transform
I0720 14:03:41.258512  9042 net.cpp:91] Creating Layer lstm2_x_transform
I0720 14:03:41.258517  9042 net.cpp:425] lstm2_x_transform <- x
I0720 14:03:41.258529  9042 net.cpp:399] lstm2_x_transform -> W_xc_x
I0720 14:03:41.259433  9070 net.cpp:141] Setting up conv2
I0720 14:03:41.259454  9070 net.cpp:148] Top shape: 10 256 27 27 (1866240)
I0720 14:03:41.259459  9070 net.cpp:156] Memory required for data: 42479160
I0720 14:03:41.259471  9070 layer_factory.hpp:77] Creating layer relu2
I0720 14:03:41.259484  9070 net.cpp:91] Creating Layer relu2
I0720 14:03:41.259490  9070 net.cpp:425] relu2 <- conv2
I0720 14:03:41.259496  9070 net.cpp:386] relu2 -> conv2 (in-place)
I0720 14:03:41.259691  9076 net.cpp:141] Setting up relu2
I0720 14:03:41.259709  9076 net.cpp:148] Top shape: 10 256 27 27 (1866240)
I0720 14:03:41.259714  9076 net.cpp:156] Memory required for data: 49944120
I0720 14:03:41.259721  9076 layer_factory.hpp:77] Creating layer pool2
I0720 14:03:41.259732  9076 net.cpp:91] Creating Layer pool2
I0720 14:03:41.259737  9076 net.cpp:425] pool2 <- conv2
I0720 14:03:41.259744  9076 net.cpp:399] pool2 -> pool2
I0720 14:03:41.259760  9076 net.cpp:141] Setting up pool2
I0720 14:03:41.259768  9076 net.cpp:148] Top shape: 10 256 13 13 (432640)
I0720 14:03:41.259771  9076 net.cpp:156] Memory required for data: 51674680
I0720 14:03:41.259775  9076 layer_factory.hpp:77] Creating layer norm2
I0720 14:03:41.259785  9076 net.cpp:91] Creating Layer norm2
I0720 14:03:41.259790  9076 net.cpp:425] norm2 <- pool2
I0720 14:03:41.259799  9076 net.cpp:399] norm2 -> norm2
I0720 14:03:41.263468  9070 net.cpp:141] Setting up relu2
I0720 14:03:41.263499  9070 net.cpp:148] Top shape: 10 256 27 27 (1866240)
I0720 14:03:41.263505  9070 net.cpp:156] Memory required for data: 49944120
I0720 14:03:41.263511  9070 layer_factory.hpp:77] Creating layer pool2
I0720 14:03:41.263520  9070 net.cpp:91] Creating Layer pool2
I0720 14:03:41.263525  9070 net.cpp:425] pool2 <- conv2
I0720 14:03:41.263528  9050 net.cpp:141] Setting up relu2
I0720 14:03:41.263535  9070 net.cpp:399] pool2 -> pool2
I0720 14:03:41.263545  9050 net.cpp:148] Top shape: 10 256 27 27 (1866240)
I0720 14:03:41.263550  9050 net.cpp:156] Memory required for data: 49944120
I0720 14:03:41.263551  9070 net.cpp:141] Setting up pool2
I0720 14:03:41.263555  9050 layer_factory.hpp:77] Creating layer pool2
I0720 14:03:41.263566  9070 net.cpp:148] Top shape: 10 256 13 13 (432640)
I0720 14:03:41.263571  9070 net.cpp:156] Memory required for data: 51674680
I0720 14:03:41.263576  9070 layer_factory.hpp:77] Creating layer norm2
I0720 14:03:41.263576  9050 net.cpp:91] Creating Layer pool2
I0720 14:03:41.263583  9050 net.cpp:425] pool2 <- conv2
I0720 14:03:41.263592  9070 net.cpp:91] Creating Layer norm2
I0720 14:03:41.263592  9050 net.cpp:399] pool2 -> pool2
I0720 14:03:41.263597  9070 net.cpp:425] norm2 <- pool2
I0720 14:03:41.263603  9070 net.cpp:399] norm2 -> norm2
I0720 14:03:41.263617  9050 net.cpp:141] Setting up pool2
I0720 14:03:41.263629  9050 net.cpp:148] Top shape: 10 256 13 13 (432640)
I0720 14:03:41.263638  9050 net.cpp:156] Memory required for data: 51674680
I0720 14:03:41.263648  9050 layer_factory.hpp:77] Creating layer norm2
I0720 14:03:41.263659  9050 net.cpp:91] Creating Layer norm2
I0720 14:03:41.263664  9050 net.cpp:425] norm2 <- pool2
I0720 14:03:41.263684  9050 net.cpp:399] norm2 -> norm2
I0720 14:03:41.264950  9074 net.cpp:141] Setting up norm2
I0720 14:03:41.264974  9074 net.cpp:148] Top shape: 10 256 13 13 (432640)
I0720 14:03:41.264981  9074 net.cpp:156] Memory required for data: 53405240
I0720 14:03:41.264986  9074 layer_factory.hpp:77] Creating layer conv3
I0720 14:03:41.265002  9074 net.cpp:91] Creating Layer conv3
I0720 14:03:41.265008  9074 net.cpp:425] conv3 <- norm2
I0720 14:03:41.265019  9074 net.cpp:399] conv3 -> conv3
I0720 14:03:41.281296  9076 net.cpp:141] Setting up norm2
I0720 14:03:41.281345  9076 net.cpp:148] Top shape: 10 256 13 13 (432640)
I0720 14:03:41.281352  9076 net.cpp:156] Memory required for data: 53405240
I0720 14:03:41.281363  9076 layer_factory.hpp:77] Creating layer conv3
I0720 14:03:41.281386  9076 net.cpp:91] Creating Layer conv3
I0720 14:03:41.281395  9076 net.cpp:425] conv3 <- norm2
I0720 14:03:41.281416  9076 net.cpp:399] conv3 -> conv3
I0720 14:03:41.281908  9046 upgrade_proto.cpp:66] Attempting to upgrade input file specified using deprecated input fields: /tmp/cvld6604644460406329846/s2vt.words_to_preds.prototxt
I0720 14:03:41.281936  9046 upgrade_proto.cpp:69] Successfully upgraded file specified using deprecated input fields.
W0720 14:03:41.281944  9046 upgrade_proto.cpp:71] Note that future Caffe releases will only support input layers and not input fields.
I0720 14:03:41.282327  9046 net.cpp:49] Initializing net from parameters: 
name: "s2vt:features_to_lstm"
state {
  phase: TEST
}
layer {
  name: "input"
  type: "Input"
  top: "frames_fc7"
  top: "cont_sentence"
  top: "input_sentence"
  top: "stage_indicator"
  input_param {
    shape {
      dim: 1
      dim: 4096
    }
    shape {
      dim: 1
      dim: 1
    }
    shape {
      dim: 1
      dim: 1
    }
    shape {
      dim: 1
      dim: 1
    }
  }
}
layer {
  name: "embed_encoder"
  type: "InnerProduct"
  bottom: "frames_fc7"
  top: "embedded_in_frames"
  param {
    lr_mult: 1
    decay_mult: 1
  }
  param {
    lr_mult: 2
    decay_mult: 0
  }
  inner_product_param {
    num_output: 500
    weight_filler {
      type: "xavier"
    }
    bias_filler {
      type: "constant"
      value: 0.2
    }
  }
}
layer {
  name: "reshape_frames"
  type: "Reshape"
  bottom: "embedded_in_frames"
  top: "embedded_input_frames"
  reshape_param {
    shape {
      dim: 1
      dim: 1
      dim: 500
    }
  }
}
layer {
  name: "reshape_stage_indicator"
  type: "Reshape"
  bottom: "stage_indicator"
  top: "reshaped_stage_indicator"
  reshape_param {
    shape {
      dim: 1
      dim: 1
      dim: 1
    }
  }
}
layer {
  name: "embedding"
  type: "Embed"
  bottom: "input_sentence"
  top: "embedded_input_sentence"
  param {
    lr_mult: 1
  }
  embed_param {
    num_output: 500
    input_dim: 46168
    bias_term: false
    weight_filler {
      type: "uniform"
      min: -0.08
      max: 0.08
    }
  }
}
layer {
  name: "lstm1"
  type: "LSTM"
  bottom: "embedded_input_frames"
  bottom: "cont_sentence"
  top: "lstm1"
  recurrent_param {
    num_output: 1000
    weight_filler {
      type: "uniform"
      min: -0.08
      max: 0.08
    }
    bias_filler {
      type: "constant"
      value: 0
    }
  }
}
layer {
  name: "concat"
  type: "Concat"
  bottom: "lstm1"
  bottom: "embedded_input_sentence"
  bottom: "reshaped_stage_indicator"
  top: "lstm1_video_sequence"
  concat_param {
    concat_dim: 2
  }
}
layer {
  name: "lstm2"
  type: "LSTM"
  bottom: "lstm1_video_sequence"
  bottom: "cont_sentence"
  top: "lstm2"
  recurrent_param {
    num_output: 1000
    weight_filler {
      type: "uniform"
      min: -0.08
      max: 0.08
    }
    bias_filler {
      type: "constant"
      value: 0
    }
  }
}
layer {
  name: "predict"
  type: "InnerProduct"
  bottom: "lstm2"
  top: "predict"
  param {
    lr_mult: 1
    decay_mult: 1
  }
  param {
    lr_mult: 2
    decay_mult: 0
  }
  inner_product_param {
    num_output: 46168
    weight_filler {
      type: "uniform"
      min: -0.08
      max: 0.08
    }
    bias_filler {
      type: "constant"
      value: 0
    }
    axis: 2
  }
}
layer {
  name: "probs"
  type: "Softmax"
  bottom: "predict"
  top: "probs"
  softmax_param {
    axis: 2
  }
}
I0720 14:03:41.282472  9046 layer_factory.hpp:77] Creating layer input
I0720 14:03:41.282493  9046 net.cpp:91] Creating Layer input
I0720 14:03:41.282505  9046 net.cpp:399] input -> frames_fc7
I0720 14:03:41.282526  9046 net.cpp:399] input -> cont_sentence
I0720 14:03:41.282542  9046 net.cpp:399] input -> input_sentence
I0720 14:03:41.282558  9046 net.cpp:399] input -> stage_indicator
I0720 14:03:41.282989  9068 net.cpp:141] Setting up conv2
I0720 14:03:41.283016  9068 net.cpp:148] Top shape: 10 256 27 27 (1866240)
I0720 14:03:41.283025  9068 net.cpp:156] Memory required for data: 42479160
I0720 14:03:41.283048  9068 layer_factory.hpp:77] Creating layer relu2
I0720 14:03:41.283066  9068 net.cpp:91] Creating Layer relu2
I0720 14:03:41.283076  9068 net.cpp:425] relu2 <- conv2
I0720 14:03:41.283093  9068 net.cpp:386] relu2 -> conv2 (in-place)
I0720 14:03:41.289072  9056 net.cpp:141] Setting up conv2
I0720 14:03:41.289131  9056 net.cpp:148] Top shape: 10 256 27 27 (1866240)
I0720 14:03:41.289144  9056 net.cpp:156] Memory required for data: 42479160
I0720 14:03:41.289186  9056 layer_factory.hpp:77] Creating layer relu2
I0720 14:03:41.289235  9056 net.cpp:91] Creating Layer relu2
I0720 14:03:41.289252  9056 net.cpp:425] relu2 <- conv2
I0720 14:03:41.289258  9050 net.cpp:141] Setting up norm2
I0720 14:03:41.289268  9056 net.cpp:386] relu2 -> conv2 (in-place)
I0720 14:03:41.289283  9050 net.cpp:148] Top shape: 10 256 13 13 (432640)
I0720 14:03:41.289293  9050 net.cpp:156] Memory required for data: 53405240
I0720 14:03:41.289302  9050 layer_factory.hpp:77] Creating layer conv3
I0720 14:03:41.289331  9050 net.cpp:91] Creating Layer conv3
I0720 14:03:41.289345  9050 net.cpp:425] conv3 <- norm2
I0720 14:03:41.289363  9050 net.cpp:399] conv3 -> conv3
I0720 14:03:41.291673  9056 net.cpp:141] Setting up relu2
I0720 14:03:41.291697  9056 net.cpp:148] Top shape: 10 256 27 27 (1866240)
I0720 14:03:41.291707  9056 net.cpp:156] Memory required for data: 49944120
I0720 14:03:41.291700  9064 net.cpp:141] Setting up relu2
I0720 14:03:41.291718  9056 layer_factory.hpp:77] Creating layer pool2
I0720 14:03:41.291739  9064 net.cpp:148] Top shape: 10 256 27 27 (1866240)
I0720 14:03:41.291745  9064 net.cpp:156] Memory required for data: 49944120
I0720 14:03:41.291749  9056 net.cpp:91] Creating Layer pool2
I0720 14:03:41.291755  9064 layer_factory.hpp:77] Creating layer pool2
I0720 14:03:41.291760  9056 net.cpp:425] pool2 <- conv2
I0720 14:03:41.291788  9064 net.cpp:91] Creating Layer pool2
I0720 14:03:41.291797  9064 net.cpp:425] pool2 <- conv2
I0720 14:03:41.291795  9056 net.cpp:399] pool2 -> pool2
I0720 14:03:41.291808  9064 net.cpp:399] pool2 -> pool2
I0720 14:03:41.291824  9056 net.cpp:141] Setting up pool2
I0720 14:03:41.291828  9064 net.cpp:141] Setting up pool2
I0720 14:03:41.291838  9068 net.cpp:141] Setting up relu2
I0720 14:03:41.291843  9056 net.cpp:148] Top shape: 10 256 13 13 (432640)
I0720 14:03:41.291822  9070 net.cpp:141] Setting up norm2
I0720 14:03:41.291867  9056 net.cpp:156] Memory required for data: 51674680
I0720 14:03:41.291848  9064 net.cpp:148] Top shape: 10 256 13 13 (432640)
I0720 14:03:41.291882  9056 layer_factory.hpp:77] Creating layer norm2
I0720 14:03:41.291887  9064 net.cpp:156] Memory required for data: 51674680
I0720 14:03:41.291863  9068 net.cpp:148] Top shape: 10 256 27 27 (1866240)
I0720 14:03:41.291894  9064 layer_factory.hpp:77] Creating layer norm2
I0720 14:03:41.291903  9068 net.cpp:156] Memory required for data: 49944120
I0720 14:03:41.291887  9070 net.cpp:148] Top shape: 10 256 13 13 (432640)
I0720 14:03:41.291916  9068 layer_factory.hpp:77] Creating layer pool2
I0720 14:03:41.291911  9056 net.cpp:91] Creating Layer norm2
I0720 14:03:41.291926  9064 net.cpp:91] Creating Layer norm2
I0720 14:03:41.291927  9070 net.cpp:156] Memory required for data: 53405240
I0720 14:03:41.291934  9064 net.cpp:425] norm2 <- pool2
I0720 14:03:41.291934  9056 net.cpp:425] norm2 <- pool2
I0720 14:03:41.291939  9070 layer_factory.hpp:77] Creating layer conv3
I0720 14:03:41.291944  9064 net.cpp:399] norm2 -> norm2
I0720 14:03:41.291945  9068 net.cpp:91] Creating Layer pool2
I0720 14:03:41.291950  9056 net.cpp:399] norm2 -> norm2
I0720 14:03:41.291959  9068 net.cpp:425] pool2 <- conv2
I0720 14:03:41.291972  9068 net.cpp:399] pool2 -> pool2
I0720 14:03:41.291971  9070 net.cpp:91] Creating Layer conv3
I0720 14:03:41.291988  9070 net.cpp:425] conv3 <- norm2
I0720 14:03:41.291995  9068 net.cpp:141] Setting up pool2
I0720 14:03:41.292007  9068 net.cpp:148] Top shape: 10 256 13 13 (432640)
I0720 14:03:41.292008  9070 net.cpp:399] conv3 -> conv3
I0720 14:03:41.292016  9068 net.cpp:156] Memory required for data: 51674680
I0720 14:03:41.292026  9068 layer_factory.hpp:77] Creating layer norm2
I0720 14:03:41.292070  9068 net.cpp:91] Creating Layer norm2
I0720 14:03:41.292083  9068 net.cpp:425] norm2 <- pool2
I0720 14:03:41.292094  9068 net.cpp:399] norm2 -> norm2
I0720 14:03:41.297350  9060 net.cpp:141] Setting up conv2
I0720 14:03:41.297399  9060 net.cpp:148] Top shape: 10 256 27 27 (1866240)
I0720 14:03:41.297410  9060 net.cpp:156] Memory required for data: 42479160
I0720 14:03:41.297435  9060 layer_factory.hpp:77] Creating layer relu2
I0720 14:03:41.297457  9060 net.cpp:91] Creating Layer relu2
I0720 14:03:41.297469  9060 net.cpp:425] relu2 <- conv2
I0720 14:03:41.297482  9060 net.cpp:386] relu2 -> conv2 (in-place)
I0720 14:03:41.300067  9060 net.cpp:141] Setting up relu2
I0720 14:03:41.300096  9060 net.cpp:148] Top shape: 10 256 27 27 (1866240)
I0720 14:03:41.300106  9060 net.cpp:156] Memory required for data: 49944120
I0720 14:03:41.300114  9060 layer_factory.hpp:77] Creating layer pool2
I0720 14:03:41.300132  9060 net.cpp:91] Creating Layer pool2
I0720 14:03:41.300142  9060 net.cpp:425] pool2 <- conv2
I0720 14:03:41.300180  9060 net.cpp:399] pool2 -> pool2
I0720 14:03:41.300209  9060 net.cpp:141] Setting up pool2
I0720 14:03:41.300222  9060 net.cpp:148] Top shape: 10 256 13 13 (432640)
I0720 14:03:41.300230  9060 net.cpp:156] Memory required for data: 51674680
I0720 14:03:41.300237  9060 layer_factory.hpp:77] Creating layer norm2
I0720 14:03:41.300278  9060 net.cpp:91] Creating Layer norm2
I0720 14:03:41.300292  9060 net.cpp:425] norm2 <- pool2
I0720 14:03:41.300303  9060 net.cpp:399] norm2 -> norm2
I0720 14:03:41.301605  9060 net.cpp:141] Setting up norm2
I0720 14:03:41.301628  9060 net.cpp:148] Top shape: 10 256 13 13 (432640)
I0720 14:03:41.301638  9060 net.cpp:156] Memory required for data: 53405240
I0720 14:03:41.301650  9060 layer_factory.hpp:77] Creating layer conv3
I0720 14:03:41.301677  9060 net.cpp:91] Creating Layer conv3
I0720 14:03:41.301689  9060 net.cpp:425] conv3 <- norm2
I0720 14:03:41.301705  9060 net.cpp:399] conv3 -> conv3
I0720 14:03:41.302171  9076 net.cpp:141] Setting up conv3
I0720 14:03:41.302196  9076 net.cpp:148] Top shape: 10 384 13 13 (648960)
I0720 14:03:41.302201  9076 net.cpp:156] Memory required for data: 56001080
I0720 14:03:41.302218  9076 layer_factory.hpp:77] Creating layer relu3
I0720 14:03:41.302230  9076 net.cpp:91] Creating Layer relu3
I0720 14:03:41.302237  9076 net.cpp:425] relu3 <- conv3
I0720 14:03:41.302245  9076 net.cpp:386] relu3 -> conv3 (in-place)
I0720 14:03:41.306102  9056 net.cpp:141] Setting up norm2
I0720 14:03:41.306130  9056 net.cpp:148] Top shape: 10 256 13 13 (432640)
I0720 14:03:41.306138  9056 net.cpp:156] Memory required for data: 53405240
I0720 14:03:41.306143  9056 layer_factory.hpp:77] Creating layer conv3
I0720 14:03:41.306169  9056 net.cpp:91] Creating Layer conv3
I0720 14:03:41.306175  9056 net.cpp:425] conv3 <- norm2
I0720 14:03:41.306185  9056 net.cpp:399] conv3 -> conv3
I0720 14:03:41.306288  9064 net.cpp:141] Setting up norm2
I0720 14:03:41.306304  9064 net.cpp:148] Top shape: 10 256 13 13 (432640)
I0720 14:03:41.306309  9064 net.cpp:156] Memory required for data: 53405240
I0720 14:03:41.306315  9064 layer_factory.hpp:77] Creating layer conv3
I0720 14:03:41.306340  9064 net.cpp:91] Creating Layer conv3
I0720 14:03:41.306347  9064 net.cpp:425] conv3 <- norm2
I0720 14:03:41.306375  9064 net.cpp:399] conv3 -> conv3
I0720 14:03:41.307544  9076 net.cpp:141] Setting up relu3
I0720 14:03:41.307565  9076 net.cpp:148] Top shape: 10 384 13 13 (648960)
I0720 14:03:41.307571  9076 net.cpp:156] Memory required for data: 58596920
I0720 14:03:41.307577  9076 layer_factory.hpp:77] Creating layer conv4
I0720 14:03:41.307592  9076 net.cpp:91] Creating Layer conv4
I0720 14:03:41.307600  9076 net.cpp:425] conv4 <- conv3
I0720 14:03:41.307606  9076 net.cpp:399] conv4 -> conv4
I0720 14:03:41.312479  9068 net.cpp:141] Setting up norm2
I0720 14:03:41.312532  9068 net.cpp:148] Top shape: 10 256 13 13 (432640)
I0720 14:03:41.312542  9068 net.cpp:156] Memory required for data: 53405240
I0720 14:03:41.312556  9068 layer_factory.hpp:77] Creating layer conv3
I0720 14:03:41.312592  9068 net.cpp:91] Creating Layer conv3
I0720 14:03:41.312605  9068 net.cpp:425] conv3 <- norm2
I0720 14:03:41.312625  9068 net.cpp:399] conv3 -> conv3
I0720 14:03:41.314533  9062 net.cpp:141] Setting up conv3
I0720 14:03:41.314574  9062 net.cpp:148] Top shape: 10 384 13 13 (648960)
I0720 14:03:41.314579  9062 net.cpp:156] Memory required for data: 56001080
I0720 14:03:41.314599  9062 layer_factory.hpp:77] Creating layer relu3
I0720 14:03:41.314616  9062 net.cpp:91] Creating Layer relu3
I0720 14:03:41.314623  9062 net.cpp:425] relu3 <- conv3
I0720 14:03:41.314632  9062 net.cpp:386] relu3 -> conv3 (in-place)
I0720 14:03:41.317561  9074 net.cpp:141] Setting up conv3
I0720 14:03:41.317592  9074 net.cpp:148] Top shape: 10 384 13 13 (648960)
I0720 14:03:41.317603  9074 net.cpp:156] Memory required for data: 56001080
I0720 14:03:41.317621  9074 layer_factory.hpp:77] Creating layer relu3
I0720 14:03:41.317636  9074 net.cpp:91] Creating Layer relu3
I0720 14:03:41.317643  9074 net.cpp:425] relu3 <- conv3
I0720 14:03:41.317651  9074 net.cpp:386] relu3 -> conv3 (in-place)
I0720 14:03:41.319489  9060 net.cpp:141] Setting up conv3
I0720 14:03:41.319538  9060 net.cpp:148] Top shape: 10 384 13 13 (648960)
I0720 14:03:41.319546  9060 net.cpp:156] Memory required for data: 56001080
I0720 14:03:41.319567  9060 layer_factory.hpp:77] Creating layer relu3
I0720 14:03:41.319587  9060 net.cpp:91] Creating Layer relu3
I0720 14:03:41.319594  9060 net.cpp:425] relu3 <- conv3
I0720 14:03:41.319603  9060 net.cpp:386] relu3 -> conv3 (in-place)
I0720 14:03:41.320993  9062 net.cpp:141] Setting up relu3
I0720 14:03:41.321017  9062 net.cpp:148] Top shape: 10 384 13 13 (648960)
I0720 14:03:41.321023  9062 net.cpp:156] Memory required for data: 58596920
I0720 14:03:41.321029  9062 layer_factory.hpp:77] Creating layer conv4
I0720 14:03:41.321048  9062 net.cpp:91] Creating Layer conv4
I0720 14:03:41.321053  9062 net.cpp:425] conv4 <- conv3
I0720 14:03:41.321064  9062 net.cpp:399] conv4 -> conv4
I0720 14:03:41.324738  9070 net.cpp:141] Setting up conv3
I0720 14:03:41.324749  9040 net.cpp:141] Setting up conv2
I0720 14:03:41.324782  9070 net.cpp:148] Top shape: 10 384 13 13 (648960)
I0720 14:03:41.324782  9040 net.cpp:148] Top shape: 10 256 27 27 (1866240)
I0720 14:03:41.324795  9070 net.cpp:156] Memory required for data: 56001080
I0720 14:03:41.324797  9040 net.cpp:156] Memory required for data: 42479160
I0720 14:03:41.324820  9070 layer_factory.hpp:77] Creating layer relu3
I0720 14:03:41.324820  9040 layer_factory.hpp:77] Creating layer relu2
I0720 14:03:41.324841  9070 net.cpp:91] Creating Layer relu3
I0720 14:03:41.324841  9040 net.cpp:91] Creating Layer relu2
I0720 14:03:41.324856  9070 net.cpp:425] relu3 <- conv3
I0720 14:03:41.324858  9040 net.cpp:425] relu2 <- conv2
I0720 14:03:41.324869  9040 net.cpp:386] relu2 -> conv2 (in-place)
I0720 14:03:41.324872  9070 net.cpp:386] relu3 -> conv3 (in-place)
I0720 14:03:41.328873  9074 net.cpp:141] Setting up relu3
I0720 14:03:41.328905  9074 net.cpp:148] Top shape: 10 384 13 13 (648960)
I0720 14:03:41.328912  9074 net.cpp:156] Memory required for data: 58596920
I0720 14:03:41.328917  9074 layer_factory.hpp:77] Creating layer conv4
I0720 14:03:41.328935  9074 net.cpp:91] Creating Layer conv4
I0720 14:03:41.328941  9074 net.cpp:425] conv4 <- conv3
I0720 14:03:41.328953  9074 net.cpp:399] conv4 -> conv4
I0720 14:03:41.329267  9050 net.cpp:141] Setting up conv3
I0720 14:03:41.329291  9050 net.cpp:148] Top shape: 10 384 13 13 (648960)
I0720 14:03:41.329298  9050 net.cpp:156] Memory required for data: 56001080
I0720 14:03:41.329313  9050 layer_factory.hpp:77] Creating layer relu3
I0720 14:03:41.329345  9050 net.cpp:91] Creating Layer relu3
I0720 14:03:41.329354  9050 net.cpp:425] relu3 <- conv3
I0720 14:03:41.329361  9050 net.cpp:386] relu3 -> conv3 (in-place)
I0720 14:03:41.331737  9060 net.cpp:141] Setting up relu3
I0720 14:03:41.331754  9060 net.cpp:148] Top shape: 10 384 13 13 (648960)
I0720 14:03:41.331759  9060 net.cpp:156] Memory required for data: 58596920
I0720 14:03:41.331765  9060 layer_factory.hpp:77] Creating layer conv4
I0720 14:03:41.331782  9060 net.cpp:91] Creating Layer conv4
I0720 14:03:41.331789  9060 net.cpp:425] conv4 <- conv3
I0720 14:03:41.331795  9060 net.cpp:399] conv4 -> conv4
I0720 14:03:41.335544  9042 net.cpp:141] Setting up lstm2_x_transform
I0720 14:03:41.335572  9042 net.cpp:148] Top shape: 1 1 4000 (4000)
I0720 14:03:41.335577  9042 net.cpp:156] Memory required for data: 30020
I0720 14:03:41.335598  9042 layer_factory.hpp:77] Creating layer lstm2_W_xc_x_slice
I0720 14:03:41.335613  9042 net.cpp:91] Creating Layer lstm2_W_xc_x_slice
I0720 14:03:41.335618  9042 net.cpp:425] lstm2_W_xc_x_slice <- W_xc_x
I0720 14:03:41.335626  9042 net.cpp:399] lstm2_W_xc_x_slice -> W_xc_x_1
I0720 14:03:41.336403  9040 net.cpp:141] Setting up relu2
I0720 14:03:41.336424  9040 net.cpp:148] Top shape: 10 256 27 27 (1866240)
I0720 14:03:41.336434  9040 net.cpp:156] Memory required for data: 49944120
I0720 14:03:41.336446  9040 layer_factory.hpp:77] Creating layer pool2
I0720 14:03:41.336463  9040 net.cpp:91] Creating Layer pool2
I0720 14:03:41.336474  9040 net.cpp:425] pool2 <- conv2
I0720 14:03:41.336490  9040 net.cpp:399] pool2 -> pool2
I0720 14:03:41.336516  9040 net.cpp:141] Setting up pool2
I0720 14:03:41.336532  9040 net.cpp:148] Top shape: 10 256 13 13 (432640)
I0720 14:03:41.336542  9040 net.cpp:156] Memory required for data: 51674680
I0720 14:03:41.336552  9040 layer_factory.hpp:77] Creating layer norm2
I0720 14:03:41.336575  9040 net.cpp:91] Creating Layer norm2
I0720 14:03:41.336586  9040 net.cpp:425] norm2 <- pool2
I0720 14:03:41.336601  9040 net.cpp:399] norm2 -> norm2
I0720 14:03:41.337659  9070 net.cpp:141] Setting up relu3
I0720 14:03:41.337677  9070 net.cpp:148] Top shape: 10 384 13 13 (648960)
I0720 14:03:41.337682  9070 net.cpp:156] Memory required for data: 58596920
I0720 14:03:41.337687  9070 layer_factory.hpp:77] Creating layer conv4
I0720 14:03:41.337699  9070 net.cpp:91] Creating Layer conv4
I0720 14:03:41.337705  9070 net.cpp:425] conv4 <- conv3
I0720 14:03:41.337714  9070 net.cpp:399] conv4 -> conv4
I0720 14:03:41.337896  9042 net.cpp:141] Setting up lstm2_W_xc_x_slice
I0720 14:03:41.337916  9042 net.cpp:148] Top shape: 1 1 4000 (4000)
I0720 14:03:41.337925  9042 net.cpp:156] Memory required for data: 46020
I0720 14:03:41.337934  9042 layer_factory.hpp:77] Creating layer lstm2_h_conted_0
I0720 14:03:41.337951  9042 net.cpp:91] Creating Layer lstm2_h_conted_0
I0720 14:03:41.337961  9042 net.cpp:425] lstm2_h_conted_0 <- h_0
I0720 14:03:41.337963  9068 net.cpp:141] Setting up conv3
I0720 14:03:41.337971  9042 net.cpp:425] lstm2_h_conted_0 <- cont_1_lstm2_cont_slice_0_split_0
I0720 14:03:41.337977  9068 net.cpp:148] Top shape: 10 384 13 13 (648960)
I0720 14:03:41.337983  9042 net.cpp:399] lstm2_h_conted_0 -> h_conted_0
I0720 14:03:41.337985  9068 net.cpp:156] Memory required for data: 56001080
I0720 14:03:41.338292  9068 layer_factory.hpp:77] Creating layer relu3
I0720 14:03:41.338310  9068 net.cpp:91] Creating Layer relu3
I0720 14:03:41.338320  9068 net.cpp:425] relu3 <- conv3
I0720 14:03:41.338316  9076 net.cpp:141] Setting up conv4
I0720 14:03:41.338336  9068 net.cpp:386] relu3 -> conv3 (in-place)
I0720 14:03:41.338351  9076 net.cpp:148] Top shape: 10 384 13 13 (648960)
I0720 14:03:41.338356  9076 net.cpp:156] Memory required for data: 61192760
I0720 14:03:41.338369  9076 layer_factory.hpp:77] Creating layer relu4
I0720 14:03:41.338393  9076 net.cpp:91] Creating Layer relu4
I0720 14:03:41.338402  9076 net.cpp:425] relu4 <- conv4
I0720 14:03:41.338413  9076 net.cpp:386] relu4 -> conv4 (in-place)
I0720 14:03:41.344621  9056 net.cpp:141] Setting up conv3
I0720 14:03:41.344647  9056 net.cpp:148] Top shape: 10 384 13 13 (648960)
I0720 14:03:41.344653  9056 net.cpp:156] Memory required for data: 56001080
I0720 14:03:41.344672  9056 layer_factory.hpp:77] Creating layer relu3
I0720 14:03:41.344682  9056 net.cpp:91] Creating Layer relu3
I0720 14:03:41.344688  9056 net.cpp:425] relu3 <- conv3
I0720 14:03:41.344696  9056 net.cpp:386] relu3 -> conv3 (in-place)
I0720 14:03:41.344833  9064 net.cpp:141] Setting up conv3
I0720 14:03:41.344848  9064 net.cpp:148] Top shape: 10 384 13 13 (648960)
I0720 14:03:41.344853  9064 net.cpp:156] Memory required for data: 56001080
I0720 14:03:41.344866  9064 layer_factory.hpp:77] Creating layer relu3
I0720 14:03:41.344878  9064 net.cpp:91] Creating Layer relu3
I0720 14:03:41.344885  9064 net.cpp:425] relu3 <- conv3
I0720 14:03:41.344892  9064 net.cpp:386] relu3 -> conv3 (in-place)
I0720 14:03:41.346462  9050 net.cpp:141] Setting up relu3
I0720 14:03:41.346483  9050 net.cpp:148] Top shape: 10 384 13 13 (648960)
I0720 14:03:41.346489  9050 net.cpp:156] Memory required for data: 58596920
I0720 14:03:41.346495  9050 layer_factory.hpp:77] Creating layer conv4
I0720 14:03:41.346524  9050 net.cpp:91] Creating Layer conv4
I0720 14:03:41.346532  9050 net.cpp:425] conv4 <- conv3
I0720 14:03:41.346544  9050 net.cpp:399] conv4 -> conv4
I0720 14:03:41.352850  9042 net.cpp:141] Setting up lstm2_h_conted_0
I0720 14:03:41.352892  9040 net.cpp:141] Setting up norm2
I0720 14:03:41.352900  9042 net.cpp:148] Top shape: 1 1 1000 (1000)
I0720 14:03:41.352916  9040 net.cpp:148] Top shape: 10 256 13 13 (432640)
I0720 14:03:41.352917  9042 net.cpp:156] Memory required for data: 50020
I0720 14:03:41.352922  9040 net.cpp:156] Memory required for data: 53405240
I0720 14:03:41.352931  9040 layer_factory.hpp:77] Creating layer conv3
I0720 14:03:41.352932  9042 layer_factory.hpp:77] Creating layer lstm2_transform_1
I0720 14:03:41.352953  9040 net.cpp:91] Creating Layer conv3
I0720 14:03:41.352957  9042 net.cpp:91] Creating Layer lstm2_transform_1
I0720 14:03:41.352962  9040 net.cpp:425] conv3 <- norm2
I0720 14:03:41.352967  9042 net.cpp:425] lstm2_transform_1 <- h_conted_0
I0720 14:03:41.352972  9040 net.cpp:399] conv3 -> conv3
I0720 14:03:41.352988  9042 net.cpp:399] lstm2_transform_1 -> W_hc_h_0
I0720 14:03:41.353025  9056 net.cpp:141] Setting up relu3
I0720 14:03:41.353054  9056 net.cpp:148] Top shape: 10 384 13 13 (648960)
I0720 14:03:41.353060  9056 net.cpp:156] Memory required for data: 58596920
I0720 14:03:41.353065  9056 layer_factory.hpp:77] Creating layer conv4
I0720 14:03:41.353094  9064 net.cpp:141] Setting up relu3
I0720 14:03:41.353106  9076 net.cpp:141] Setting up relu4
I0720 14:03:41.353101  9056 net.cpp:91] Creating Layer conv4
I0720 14:03:41.353121  9064 net.cpp:148] Top shape: 10 384 13 13 (648960)
I0720 14:03:41.353124  9076 net.cpp:148] Top shape: 10 384 13 13 (648960)
I0720 14:03:41.353128  9056 net.cpp:425] conv4 <- conv3
I0720 14:03:41.353129  9064 net.cpp:156] Memory required for data: 58596920
I0720 14:03:41.353132  9076 net.cpp:156] Memory required for data: 63788600
I0720 14:03:41.353140  9056 net.cpp:399] conv4 -> conv4
I0720 14:03:41.353143  9064 layer_factory.hpp:77] Creating layer conv4
I0720 14:03:41.353147  9076 layer_factory.hpp:77] Creating layer conv5
I0720 14:03:41.353183  9076 net.cpp:91] Creating Layer conv5
I0720 14:03:41.353195  9076 net.cpp:425] conv5 <- conv4
I0720 14:03:41.353198  9064 net.cpp:91] Creating Layer conv4
I0720 14:03:41.353206  9064 net.cpp:425] conv4 <- conv3
I0720 14:03:41.353209  9076 net.cpp:399] conv5 -> conv5
I0720 14:03:41.353224  9064 net.cpp:399] conv4 -> conv4
I0720 14:03:41.382479  9068 net.cpp:141] Setting up relu3
I0720 14:03:41.382542  9068 net.cpp:148] Top shape: 10 384 13 13 (648960)
I0720 14:03:41.382552  9068 net.cpp:156] Memory required for data: 58596920
I0720 14:03:41.382565  9068 layer_factory.hpp:77] Creating layer conv4
I0720 14:03:41.382601  9068 net.cpp:91] Creating Layer conv4
I0720 14:03:41.382611  9068 net.cpp:425] conv4 <- conv3
I0720 14:03:41.382627  9068 net.cpp:399] conv4 -> conv4
I0720 14:03:41.390184  9062 net.cpp:141] Setting up conv4
I0720 14:03:41.390240  9062 net.cpp:148] Top shape: 10 384 13 13 (648960)
I0720 14:03:41.390252  9062 net.cpp:156] Memory required for data: 61192760
I0720 14:03:41.390275  9062 layer_factory.hpp:77] Creating layer relu4
I0720 14:03:41.390305  9062 net.cpp:91] Creating Layer relu4
I0720 14:03:41.390318  9062 net.cpp:425] relu4 <- conv4
I0720 14:03:41.390333  9062 net.cpp:386] relu4 -> conv4 (in-place)
I0720 14:03:41.396188  9040 net.cpp:141] Setting up conv3
I0720 14:03:41.396239  9040 net.cpp:148] Top shape: 10 384 13 13 (648960)
I0720 14:03:41.396247  9040 net.cpp:156] Memory required for data: 56001080
I0720 14:03:41.396276  9040 layer_factory.hpp:77] Creating layer relu3
I0720 14:03:41.396299  9040 net.cpp:91] Creating Layer relu3
I0720 14:03:41.396311  9040 net.cpp:425] relu3 <- conv3
I0720 14:03:41.396323  9040 net.cpp:386] relu3 -> conv3 (in-place)
I0720 14:03:41.401535  9062 net.cpp:141] Setting up relu4
I0720 14:03:41.401564  9062 net.cpp:148] Top shape: 10 384 13 13 (648960)
I0720 14:03:41.401556  9040 net.cpp:141] Setting up relu3
I0720 14:03:41.401576  9062 net.cpp:156] Memory required for data: 63788600
I0720 14:03:41.401598  9062 layer_factory.hpp:77] Creating layer conv5
I0720 14:03:41.401602  9040 net.cpp:148] Top shape: 10 384 13 13 (648960)
I0720 14:03:41.401613  9040 net.cpp:156] Memory required for data: 58596920
I0720 14:03:41.401625  9062 net.cpp:91] Creating Layer conv5
I0720 14:03:41.401631  9062 net.cpp:425] conv5 <- conv4
I0720 14:03:41.401639  9062 net.cpp:399] conv5 -> conv5
I0720 14:03:41.401653  9040 layer_factory.hpp:77] Creating layer conv4
I0720 14:03:41.401687  9040 net.cpp:91] Creating Layer conv4
I0720 14:03:41.401700  9040 net.cpp:425] conv4 <- conv3
I0720 14:03:41.401713  9040 net.cpp:399] conv4 -> conv4
I0720 14:03:41.410253  9070 net.cpp:141] Setting up conv4
I0720 14:03:41.410295  9070 net.cpp:148] Top shape: 10 384 13 13 (648960)
I0720 14:03:41.410302  9070 net.cpp:156] Memory required for data: 61192760
I0720 14:03:41.410320  9070 layer_factory.hpp:77] Creating layer relu4
I0720 14:03:41.410343  9070 net.cpp:91] Creating Layer relu4
I0720 14:03:41.410351  9070 net.cpp:425] relu4 <- conv4
I0720 14:03:41.410361  9070 net.cpp:386] relu4 -> conv4 (in-place)
I0720 14:03:41.415282  9064 net.cpp:141] Setting up conv4
I0720 14:03:41.415375  9064 net.cpp:148] Top shape: 10 384 13 13 (648960)
I0720 14:03:41.415390  9064 net.cpp:156] Memory required for data: 61192760
I0720 14:03:41.415411  9064 layer_factory.hpp:77] Creating layer relu4
I0720 14:03:41.415431  9064 net.cpp:91] Creating Layer relu4
I0720 14:03:41.415442  9064 net.cpp:425] relu4 <- conv4
I0720 14:03:41.415468  9064 net.cpp:386] relu4 -> conv4 (in-place)
I0720 14:03:41.415849  9060 net.cpp:141] Setting up conv4
I0720 14:03:41.415866  9060 net.cpp:148] Top shape: 10 384 13 13 (648960)
I0720 14:03:41.415873  9060 net.cpp:156] Memory required for data: 61192760
I0720 14:03:41.415884  9060 layer_factory.hpp:77] Creating layer relu4
I0720 14:03:41.415904  9060 net.cpp:91] Creating Layer relu4
I0720 14:03:41.415915  9060 net.cpp:425] relu4 <- conv4
I0720 14:03:41.415926  9060 net.cpp:386] relu4 -> conv4 (in-place)
I0720 14:03:41.417395  9042 net.cpp:141] Setting up lstm2_transform_1
I0720 14:03:41.417418  9042 net.cpp:148] Top shape: 1 1 4000 (4000)
I0720 14:03:41.417423  9042 net.cpp:156] Memory required for data: 66020
I0720 14:03:41.417438  9042 layer_factory.hpp:77] Creating layer lstm2_gate_input_1
I0720 14:03:41.417451  9042 net.cpp:91] Creating Layer lstm2_gate_input_1
I0720 14:03:41.417457  9042 net.cpp:425] lstm2_gate_input_1 <- W_hc_h_0
I0720 14:03:41.417464  9042 net.cpp:425] lstm2_gate_input_1 <- W_xc_x_1
I0720 14:03:41.417472  9042 net.cpp:399] lstm2_gate_input_1 -> gate_input_1
I0720 14:03:41.420091  9042 net.cpp:141] Setting up lstm2_gate_input_1
I0720 14:03:41.420114  9042 net.cpp:148] Top shape: 1 1 4000 (4000)
I0720 14:03:41.420120  9042 net.cpp:156] Memory required for data: 82020
I0720 14:03:41.420125  9042 layer_factory.hpp:77] Creating layer lstm2_unit_1
I0720 14:03:41.420137  9042 net.cpp:91] Creating Layer lstm2_unit_1
I0720 14:03:41.420142  9042 net.cpp:425] lstm2_unit_1 <- c_0
I0720 14:03:41.420150  9042 net.cpp:425] lstm2_unit_1 <- gate_input_1
I0720 14:03:41.420155  9042 net.cpp:425] lstm2_unit_1 <- cont_1_lstm2_cont_slice_0_split_1
I0720 14:03:41.420161  9042 net.cpp:399] lstm2_unit_1 -> c_1
I0720 14:03:41.420171  9042 net.cpp:399] lstm2_unit_1 -> h_1
I0720 14:03:41.420688  9070 net.cpp:141] Setting up relu4
I0720 14:03:41.420713  9070 net.cpp:148] Top shape: 10 384 13 13 (648960)
I0720 14:03:41.420719  9070 net.cpp:156] Memory required for data: 63788600
I0720 14:03:41.420725  9070 layer_factory.hpp:77] Creating layer conv5
I0720 14:03:41.420742  9070 net.cpp:91] Creating Layer conv5
I0720 14:03:41.420750  9070 net.cpp:425] conv5 <- conv4
I0720 14:03:41.420763  9070 net.cpp:399] conv5 -> conv5
I0720 14:03:41.424959  9050 net.cpp:141] Setting up conv4
I0720 14:03:41.424999  9050 net.cpp:148] Top shape: 10 384 13 13 (648960)
I0720 14:03:41.425005  9050 net.cpp:156] Memory required for data: 61192760
I0720 14:03:41.425019  9050 layer_factory.hpp:77] Creating layer relu4
I0720 14:03:41.425050  9050 net.cpp:91] Creating Layer relu4
I0720 14:03:41.425057  9050 net.cpp:425] relu4 <- conv4
I0720 14:03:41.425067  9050 net.cpp:386] relu4 -> conv4 (in-place)
I0720 14:03:41.426184  9074 net.cpp:141] Setting up conv4
I0720 14:03:41.426216  9074 net.cpp:148] Top shape: 10 384 13 13 (648960)
I0720 14:03:41.426228  9074 net.cpp:156] Memory required for data: 61192760
I0720 14:03:41.426244  9074 layer_factory.hpp:77] Creating layer relu4
I0720 14:03:41.426259  9074 net.cpp:91] Creating Layer relu4
I0720 14:03:41.426271  9074 net.cpp:425] relu4 <- conv4
I0720 14:03:41.426285  9074 net.cpp:386] relu4 -> conv4 (in-place)
I0720 14:03:41.427471  9050 net.cpp:141] Setting up relu4
I0720 14:03:41.427495  9050 net.cpp:148] Top shape: 10 384 13 13 (648960)
I0720 14:03:41.427500  9050 net.cpp:156] Memory required for data: 63788600
I0720 14:03:41.427505  9050 layer_factory.hpp:77] Creating layer conv5
I0720 14:03:41.427526  9050 net.cpp:91] Creating Layer conv5
I0720 14:03:41.427533  9050 net.cpp:425] conv5 <- conv4
I0720 14:03:41.427556  9050 net.cpp:399] conv5 -> conv5
I0720 14:03:41.429400  9064 net.cpp:141] Setting up relu4
I0720 14:03:41.429425  9064 net.cpp:148] Top shape: 10 384 13 13 (648960)
I0720 14:03:41.429430  9064 net.cpp:156] Memory required for data: 63788600
I0720 14:03:41.429437  9064 layer_factory.hpp:77] Creating layer conv5
I0720 14:03:41.429455  9064 net.cpp:91] Creating Layer conv5
I0720 14:03:41.429461  9064 net.cpp:425] conv5 <- conv4
I0720 14:03:41.429472  9064 net.cpp:399] conv5 -> conv5
I0720 14:03:41.429759  9060 net.cpp:141] Setting up relu4
I0720 14:03:41.429777  9060 net.cpp:148] Top shape: 10 384 13 13 (648960)
I0720 14:03:41.429783  9060 net.cpp:156] Memory required for data: 63788600
I0720 14:03:41.429790  9060 layer_factory.hpp:77] Creating layer conv5
I0720 14:03:41.429801  9060 net.cpp:91] Creating Layer conv5
I0720 14:03:41.429808  9060 net.cpp:425] conv5 <- conv4
I0720 14:03:41.429817  9060 net.cpp:399] conv5 -> conv5
I0720 14:03:41.436658  9042 net.cpp:141] Setting up lstm2_unit_1
I0720 14:03:41.436686  9042 net.cpp:148] Top shape: 1 1 1000 (1000)
I0720 14:03:41.436693  9042 net.cpp:148] Top shape: 1 1 1000 (1000)
I0720 14:03:41.436698  9042 net.cpp:156] Memory required for data: 90020
I0720 14:03:41.436703  9042 layer_factory.hpp:77] Creating layer lstm2_
I0720 14:03:41.436717  9042 net.cpp:91] Creating Layer lstm2_
I0720 14:03:41.436715  9040 net.cpp:141] Setting up conv4
I0720 14:03:41.436723  9042 net.cpp:425] lstm2_ <- c_1
I0720 14:03:41.436739  9042 net.cpp:399] lstm2_ -> c_T
I0720 14:03:41.436740  9040 net.cpp:148] Top shape: 10 384 13 13 (648960)
I0720 14:03:41.436746  9040 net.cpp:156] Memory required for data: 61192760
I0720 14:03:41.436758  9040 layer_factory.hpp:77] Creating layer relu4
I0720 14:03:41.436766  9040 net.cpp:91] Creating Layer relu4
I0720 14:03:41.436771  9040 net.cpp:425] relu4 <- conv4
I0720 14:03:41.436781  9040 net.cpp:386] relu4 -> conv4 (in-place)
I0720 14:03:41.439438  9074 net.cpp:141] Setting up relu4
I0720 14:03:41.439473  9074 net.cpp:148] Top shape: 10 384 13 13 (648960)
I0720 14:03:41.439481  9074 net.cpp:156] Memory required for data: 63788600
I0720 14:03:41.439487  9074 layer_factory.hpp:77] Creating layer conv5
I0720 14:03:41.439505  9074 net.cpp:91] Creating Layer conv5
I0720 14:03:41.439512  9074 net.cpp:425] conv5 <- conv4
I0720 14:03:41.439525  9074 net.cpp:399] conv5 -> conv5
I0720 14:03:41.439625  9042 net.cpp:141] Setting up lstm2_
I0720 14:03:41.439643  9042 net.cpp:148] Top shape: 1 1 1000 (1000)
I0720 14:03:41.439649  9042 net.cpp:156] Memory required for data: 94020
I0720 14:03:41.439654  9042 layer_factory.hpp:77] Creating layer lstm2_h_concat
I0720 14:03:41.439664  9042 net.cpp:91] Creating Layer lstm2_h_concat
I0720 14:03:41.439669  9042 net.cpp:425] lstm2_h_concat <- h_1
I0720 14:03:41.439679  9042 net.cpp:399] lstm2_h_concat -> h
I0720 14:03:41.440716  9040 net.cpp:141] Setting up relu4
I0720 14:03:41.440738  9040 net.cpp:148] Top shape: 10 384 13 13 (648960)
I0720 14:03:41.440743  9040 net.cpp:156] Memory required for data: 63788600
I0720 14:03:41.440749  9040 layer_factory.hpp:77] Creating layer conv5
I0720 14:03:41.440763  9040 net.cpp:91] Creating Layer conv5
I0720 14:03:41.440769  9040 net.cpp:425] conv5 <- conv4
I0720 14:03:41.440776  9040 net.cpp:399] conv5 -> conv5
I0720 14:03:41.440803  9056 net.cpp:141] Setting up conv4
I0720 14:03:41.440829  9056 net.cpp:148] Top shape: 10 384 13 13 (648960)
I0720 14:03:41.440840  9056 net.cpp:156] Memory required for data: 61192760
I0720 14:03:41.440860  9056 layer_factory.hpp:77] Creating layer relu4
I0720 14:03:41.440896  9056 net.cpp:91] Creating Layer relu4
I0720 14:03:41.440908  9056 net.cpp:425] relu4 <- conv4
I0720 14:03:41.440922  9056 net.cpp:386] relu4 -> conv4 (in-place)
I0720 14:03:41.447520  9042 net.cpp:141] Setting up lstm2_h_concat
I0720 14:03:41.447545  9042 net.cpp:148] Top shape: 1 1 1000 (1000)
I0720 14:03:41.447549  9042 net.cpp:156] Memory required for data: 98020
I0720 14:03:41.447556  9042 layer_factory.hpp:77] Creating layer h_pseudoloss
I0720 14:03:41.447566  9042 net.cpp:91] Creating Layer h_pseudoloss
I0720 14:03:41.447571  9042 net.cpp:425] h_pseudoloss <- h
I0720 14:03:41.447578  9042 net.cpp:399] h_pseudoloss -> h_pseudoloss
I0720 14:03:41.448215  9068 net.cpp:141] Setting up conv4
I0720 14:03:41.448243  9068 net.cpp:148] Top shape: 10 384 13 13 (648960)
I0720 14:03:41.448254  9068 net.cpp:156] Memory required for data: 61192760
I0720 14:03:41.448273  9068 layer_factory.hpp:77] Creating layer relu4
I0720 14:03:41.448289  9068 net.cpp:91] Creating Layer relu4
I0720 14:03:41.448300  9068 net.cpp:425] relu4 <- conv4
I0720 14:03:41.448314  9068 net.cpp:386] relu4 -> conv4 (in-place)
I0720 14:03:41.452700  9062 net.cpp:141] Setting up conv5
I0720 14:03:41.452744  9062 net.cpp:148] Top shape: 10 256 13 13 (432640)
I0720 14:03:41.452750  9062 net.cpp:156] Memory required for data: 65519160
I0720 14:03:41.452770  9062 layer_factory.hpp:77] Creating layer relu5
I0720 14:03:41.452782  9062 net.cpp:91] Creating Layer relu5
I0720 14:03:41.452790  9062 net.cpp:425] relu5 <- conv5
I0720 14:03:41.452800  9062 net.cpp:386] relu5 -> conv5 (in-place)
I0720 14:03:41.457525  9042 net.cpp:141] Setting up h_pseudoloss
…
I0720 14:03:41.457639  9042 net.cpp:219] lstm2_ does not need backward computation.
I0720 14:03:41.457643  9042 net.cpp:261] This network produces output c_T
I0720 14:03:41.457648  9042 net.cpp:261] This network produces output h_pseudoloss
I0720 14:03:41.457664  9042 net.cpp:274] Network initialization done.
I0720 14:03:41.457711  9042 recurrent_layer.cpp:150] Adding parameter 0: W_xc
I0720 14:03:41.457718  9042 recurrent_layer.cpp:150] Adding parameter 1: b_c
I0720 14:03:41.457722  9042 recurrent_layer.cpp:150] Adding parameter 2: W_hc
I0720 14:03:41.457793  9076 net.cpp:141] Setting up conv5
I0720 14:03:41.457818  9076 net.cpp:148] Top shape: 10 256 13 13 (432640)
I0720 14:03:41.457823  9076 net.cpp:156] Memory required for data: 65519160
I0720 14:03:41.457839  9076 layer_factory.hpp:77] Creating layer relu5
I0720 14:03:41.457859  9076 net.cpp:91] Creating Layer relu5
I0720 14:03:41.457866  9076 net.cpp:425] relu5 <- conv5
I0720 14:03:41.457873  9076 net.cpp:386] relu5 -> conv5 (in-place)
I0720 14:03:41.459250  9056 net.cpp:141] Setting up relu4
I0720 14:03:41.459280  9056 net.cpp:148] Top shape: 10 384 13 13 (648960)
I0720 14:03:41.459290  9056 net.cpp:156] Memory required for data: 63788600
I0720 14:03:41.459300  9056 layer_factory.hpp:77] Creating layer conv5
I0720 14:03:41.459323  9056 net.cpp:91] Creating Layer conv5
I0720 14:03:41.459336  9056 net.cpp:425] conv5 <- conv4
I0720 14:03:41.459350  9056 net.cpp:399] conv5 -> conv5
I0720 14:03:41.469004  9050 net.cpp:141] Setting up conv5
I0720 14:03:41.469048  9050 net.cpp:148] Top shape: 10 256 13 13 (432640)
I0720 14:03:41.469056  9050 net.cpp:156] Memory required for data: 65519160
I0720 14:03:41.469077  9050 layer_factory.hpp:77] Creating layer relu5
I0720 14:03:41.469092  9050 net.cpp:91] Creating Layer relu5
I0720 14:03:41.469099  9050 net.cpp:425] relu5 <- conv5
I0720 14:03:41.469110  9070 net.cpp:141] Setting up conv5
I0720 14:03:41.469125  9050 net.cpp:386] relu5 -> conv5 (in-place)
I0720 14:03:41.469131  9070 net.cpp:148] Top shape: 10 256 13 13 (432640)
I0720 14:03:41.469137  9070 net.cpp:156] Memory required for data: 65519160
I0720 14:03:41.469151  9070 layer_factory.hpp:77] Creating layer relu5
I0720 14:03:41.469185  9070 net.cpp:91] Creating Layer relu5
I0720 14:03:41.469192  9070 net.cpp:425] relu5 <- conv5
I0720 14:03:41.469199  9070 net.cpp:386] relu5 -> conv5 (in-place)
I0720 14:03:41.470669  9068 net.cpp:141] Setting up relu4
I0720 14:03:41.470701  9068 net.cpp:148] Top shape: 10 384 13 13 (648960)
I0720 14:03:41.470710  9068 net.cpp:156] Memory required for data: 63788600
I0720 14:03:41.470720  9068 layer_factory.hpp:77] Creating layer conv5
I0720 14:03:41.470755  9068 net.cpp:91] Creating Layer conv5
I0720 14:03:41.470767  9068 net.cpp:425] conv5 <- conv4
I0720 14:03:41.470780  9068 net.cpp:399] conv5 -> conv5
I0720 14:03:41.473126  9042 net.cpp:141] Setting up lstm2
I0720 14:03:41.473147  9042 net.cpp:148] Top shape: 1 1 1000 (1000)
I0720 14:03:41.473152  9042 net.cpp:156] Memory required for data: 36412
I0720 14:03:41.473166  9042 layer_factory.hpp:77] Creating layer predict
I0720 14:03:41.473181  9042 net.cpp:91] Creating Layer predict
I0720 14:03:41.473186  9042 net.cpp:425] predict <- lstm2
I0720 14:03:41.473196  9042 net.cpp:399] predict -> predict
I0720 14:03:41.551564  9062 net.cpp:141] Setting up relu5
I0720 14:03:41.551610  9062 net.cpp:148] Top shape: 10 256 13 13 (432640)
I0720 14:03:41.551617  9062 net.cpp:156] Memory required for data: 67249720
I0720 14:03:41.551626  9062 layer_factory.hpp:77] Creating layer pool5
I0720 14:03:41.551645  9062 net.cpp:91] Creating Layer pool5
I0720 14:03:41.551651  9062 net.cpp:425] pool5 <- conv5
I0720 14:03:41.551676  9062 net.cpp:399] pool5 -> pool5
I0720 14:03:41.551697  9062 net.cpp:141] Setting up pool5
I0720 14:03:41.551704  9062 net.cpp:148] Top shape: 10 256 6 6 (92160)
I0720 14:03:41.551708  9062 net.cpp:156] Memory required for data: 67618360
I0720 14:03:41.551713  9062 layer_factory.hpp:77] Creating layer fc6
I0720 14:03:41.551728  9062 net.cpp:91] Creating Layer fc6
I0720 14:03:41.551743  9062 net.cpp:425] fc6 <- pool5
I0720 14:03:41.551748  9062 net.cpp:399] fc6 -> fc6
I0720 14:03:41.573127  9064 net.cpp:141] Setting up conv5
I0720 14:03:41.573179  9064 net.cpp:148] Top shape: 10 256 13 13 (432640)
I0720 14:03:41.573189  9064 net.cpp:156] Memory required for data: 65519160
I0720 14:03:41.573218  9064 layer_factory.hpp:77] Creating layer relu5
I0720 14:03:41.573240  9064 net.cpp:91] Creating Layer relu5
I0720 14:03:41.573251  9064 net.cpp:425] relu5 <- conv5
I0720 14:03:41.573721  9064 net.cpp:386] relu5 -> conv5 (in-place)
I0720 14:03:41.573729  9050 net.cpp:141] Setting up relu5
I0720 14:03:41.573776  9050 net.cpp:148] Top shape: 10 256 13 13 (432640)
I0720 14:03:41.573791  9050 net.cpp:156] Memory required for data: 67249720
I0720 14:03:41.573802  9050 layer_factory.hpp:77] Creating layer pool5
I0720 14:03:41.573822  9050 net.cpp:91] Creating Layer pool5
I0720 14:03:41.573835  9050 net.cpp:425] pool5 <- conv5
I0720 14:03:41.573851  9050 net.cpp:399] pool5 -> pool5
I0720 14:03:41.573875  9050 net.cpp:141] Setting up pool5
I0720 14:03:41.573889  9050 net.cpp:148] Top shape: 10 256 6 6 (92160)
I0720 14:03:41.573899  9050 net.cpp:156] Memory required for data: 67618360
I0720 14:03:41.573909  9050 layer_factory.hpp:77] Creating layer fc6
I0720 14:03:41.574337  9050 net.cpp:91] Creating Layer fc6
I0720 14:03:41.574374  9050 net.cpp:425] fc6 <- pool5
I0720 14:03:41.574913  9050 net.cpp:399] fc6 -> fc6
I0720 14:03:41.590162  9076 net.cpp:141] Setting up relu5
I0720 14:03:41.590224  9076 net.cpp:148] Top shape: 10 256 13 13 (432640)
I0720 14:03:41.590234  9076 net.cpp:156] Memory required for data: 67249720
I0720 14:03:41.590250  9076 layer_factory.hpp:77] Creating layer pool5
I0720 14:03:41.590278  9076 net.cpp:91] Creating Layer pool5
I0720 14:03:41.590294  9076 net.cpp:425] pool5 <- conv5
I0720 14:03:41.591199  9076 net.cpp:399] pool5 -> pool5
I0720 14:03:41.591253  9076 net.cpp:141] Setting up pool5
I0720 14:03:41.591269  9076 net.cpp:148] Top shape: 10 256 6 6 (92160)
I0720 14:03:41.591279  9076 net.cpp:156] Memory required for data: 67618360
I0720 14:03:41.591289  9076 layer_factory.hpp:77] Creating layer fc6
I0720 14:03:41.591315  9076 net.cpp:91] Creating Layer fc6
I0720 14:03:41.591326  9076 net.cpp:425] fc6 <- pool5
I0720 14:03:41.592260  9076 net.cpp:399] fc6 -> fc6
I0720 14:03:41.613076  9070 net.cpp:141] Setting up relu5
I0720 14:03:41.613147  9070 net.cpp:148] Top shape: 10 256 13 13 (432640)
I0720 14:03:41.613157  9070 net.cpp:156] Memory required for data: 67249720
I0720 14:03:41.613171  9070 layer_factory.hpp:77] Creating layer pool5
I0720 14:03:41.614167  9070 net.cpp:91] Creating Layer pool5
I0720 14:03:41.614192  9070 net.cpp:425] pool5 <- conv5
I0720 14:03:41.614758  9070 net.cpp:399] pool5 -> pool5
I0720 14:03:41.614802  9070 net.cpp:141] Setting up pool5
I0720 14:03:41.614820  9070 net.cpp:148] Top shape: 10 256 6 6 (92160)
I0720 14:03:41.614828  9070 net.cpp:156] Memory required for data: 67618360
I0720 14:03:41.614837  9070 layer_factory.hpp:77] Creating layer fc6
I0720 14:03:41.614861  9070 net.cpp:91] Creating Layer fc6
I0720 14:03:41.614871  9070 net.cpp:425] fc6 <- pool5
I0720 14:03:41.615851  9070 net.cpp:399] fc6 -> fc6
I0720 14:03:41.634621  9062 net.cpp:141] Setting up fc6
I0720 14:03:41.634675  9062 net.cpp:148] Top shape: 10 4096 (40960)
I0720 14:03:41.634681  9062 net.cpp:156] Memory required for data: 67782200
I0720 14:03:41.634711  9062 layer_factory.hpp:77] Creating layer relu6
I0720 14:03:41.634727  9062 net.cpp:91] Creating Layer relu6
I0720 14:03:41.634733  9062 net.cpp:425] relu6 <- fc6
I0720 14:03:41.635187  9062 net.cpp:386] relu6 -> fc6 (in-place)
I0720 14:03:41.673043  9060 net.cpp:141] Setting up conv5
I0720 14:03:41.673104  9060 net.cpp:148] Top shape: 10 256 13 13 (432640)
I0720 14:03:41.673111  9060 net.cpp:156] Memory required for data: 65519160
I0720 14:03:41.673136  9060 layer_factory.hpp:77] Creating layer relu5
I0720 14:03:41.673152  9060 net.cpp:91] Creating Layer relu5
I0720 14:03:41.673159  9060 net.cpp:425] relu5 <- conv5
I0720 14:03:41.673635  9060 net.cpp:386] relu5 -> conv5 (in-place)
I0720 14:03:41.680647  9060 net.cpp:141] Setting up relu5
I0720 14:03:41.680703  9060 net.cpp:148] Top shape: 10 256 13 13 (432640)
I0720 14:03:41.680712  9060 net.cpp:156] Memory required for data: 67249720
I0720 14:03:41.680726  9060 layer_factory.hpp:77] Creating layer pool5
I0720 14:03:41.680748  9060 net.cpp:91] Creating Layer pool5
I0720 14:03:41.680758  9060 net.cpp:425] pool5 <- conv5
I0720 14:03:41.681210  9060 net.cpp:399] pool5 -> pool5
I0720 14:03:41.681254  9060 net.cpp:141] Setting up pool5
I0720 14:03:41.681265  9060 net.cpp:148] Top shape: 10 256 6 6 (92160)
I0720 14:03:41.681269  9060 net.cpp:156] Memory required for data: 67618360
I0720 14:03:41.681274  9060 layer_factory.hpp:77] Creating layer fc6
I0720 14:03:41.681829  9060 net.cpp:91] Creating Layer fc6
I0720 14:03:41.681845  9060 net.cpp:425] fc6 <- pool5
I0720 14:03:41.681856  9060 net.cpp:399] fc6 -> fc6
I0720 14:03:41.683179  9056 net.cpp:141] Setting up conv5
I0720 14:03:41.683220  9056 net.cpp:148] Top shape: 10 256 13 13 (432640)
I0720 14:03:41.683226  9056 net.cpp:156] Memory required for data: 65519160
I0720 14:03:41.683249  9056 layer_factory.hpp:77] Creating layer relu5
I0720 14:03:41.683264  9056 net.cpp:91] Creating Layer relu5
I0720 14:03:41.683270  9056 net.cpp:425] relu5 <- conv5
I0720 14:03:41.683801  9056 net.cpp:386] relu5 -> conv5 (in-place)
I0720 14:03:41.688200  9062 net.cpp:141] Setting up relu6
I0720 14:03:41.688222  9062 net.cpp:148] Top shape: 10 4096 (40960)
I0720 14:03:41.688227  9062 net.cpp:156] Memory required for data: 67946040
I0720 14:03:41.688235  9062 layer_factory.hpp:77] Creating layer drop6
I0720 14:03:41.688871  9062 net.cpp:91] Creating Layer drop6
I0720 14:03:41.688894  9062 net.cpp:425] drop6 <- fc6
I0720 14:03:41.688905  9062 net.cpp:386] drop6 -> fc6 (in-place)
I0720 14:03:41.688935  9062 net.cpp:141] Setting up drop6
I0720 14:03:41.688946  9062 net.cpp:148] Top shape: 10 4096 (40960)
I0720 14:03:41.688951  9062 net.cpp:156] Memory required for data: 68109880
I0720 14:03:41.688956  9062 layer_factory.hpp:77] Creating layer fc7
I0720 14:03:41.688968  9062 net.cpp:91] Creating Layer fc7
I0720 14:03:41.688973  9062 net.cpp:425] fc7 <- fc6
I0720 14:03:41.689528  9062 net.cpp:399] fc7 -> fc7
I0720 14:03:41.690207  9064 net.cpp:141] Setting up relu5
I0720 14:03:41.690207  9040 net.cpp:141] Setting up conv5
I0720 14:03:41.690233  9064 net.cpp:148] Top shape: 10 256 13 13 (432640)
I0720 14:03:41.690240  9040 net.cpp:148] Top shape: 10 256 13 13 (432640)
I0720 14:03:41.690243  9064 net.cpp:156] Memory required for data: 67249720
I0720 14:03:41.690248  9040 net.cpp:156] Memory required for data: 65519160
I0720 14:03:41.690253  9064 layer_factory.hpp:77] Creating layer pool5
I0720 14:03:41.690270  9064 net.cpp:91] Creating Layer pool5
I0720 14:03:41.690281  9064 net.cpp:425] pool5 <- conv5
I0720 14:03:41.690810  9040 layer_factory.hpp:77] Creating layer relu5
I0720 14:03:41.690831  9040 net.cpp:91] Creating Layer relu5
I0720 14:03:41.690839  9040 net.cpp:425] relu5 <- conv5
I0720 14:03:41.690847  9040 net.cpp:386] relu5 -> conv5 (in-place)
I0720 14:03:41.690865  9064 net.cpp:399] pool5 -> pool5
I0720 14:03:41.690894  9064 net.cpp:141] Setting up pool5
I0720 14:03:41.690903  9064 net.cpp:148] Top shape: 10 256 6 6 (92160)
I0720 14:03:41.690909  9064 net.cpp:156] Memory required for data: 67618360
I0720 14:03:41.690918  9064 layer_factory.hpp:77] Creating layer fc6
I0720 14:03:41.691431  9064 net.cpp:91] Creating Layer fc6
I0720 14:03:41.691448  9064 net.cpp:425] fc6 <- pool5
I0720 14:03:41.691462  9064 net.cpp:399] fc6 -> fc6
I0720 14:03:41.709431  9074 net.cpp:141] Setting up conv5
I0720 14:03:41.709506  9074 net.cpp:148] Top shape: 10 256 13 13 (432640)
I0720 14:03:41.709513  9074 net.cpp:156] Memory required for data: 65519160
I0720 14:03:41.710574  9074 layer_factory.hpp:77] Creating layer relu5
I0720 14:03:41.710623  9074 net.cpp:91] Creating Layer relu5
I0720 14:03:41.710636  9074 net.cpp:425] relu5 <- conv5
I0720 14:03:41.710650  9074 net.cpp:386] relu5 -> conv5 (in-place)
I0720 14:03:41.711251  9050 net.cpp:141] Setting up fc6
I0720 14:03:41.711280  9050 net.cpp:148] Top shape: 10 4096 (40960)
I0720 14:03:41.711289  9050 net.cpp:156] Memory required for data: 67782200
I0720 14:03:41.711307  9050 layer_factory.hpp:77] Creating layer relu6
I0720 14:03:41.711906  9050 net.cpp:91] Creating Layer relu6
I0720 14:03:41.711920  9050 net.cpp:425] relu6 <- fc6
I0720 14:03:41.711932  9050 net.cpp:386] relu6 -> fc6 (in-place)
I0720 14:03:41.712965  9076 net.cpp:141] Setting up fc6
I0720 14:03:41.712996  9076 net.cpp:148] Top shape: 10 4096 (40960)
I0720 14:03:41.713006  9076 net.cpp:156] Memory required for data: 67782200
I0720 14:03:41.713024  9076 layer_factory.hpp:77] Creating layer relu6
I0720 14:03:41.713034  9076 net.cpp:91] Creating Layer relu6
I0720 14:03:41.713040  9076 net.cpp:425] relu6 <- fc6
I0720 14:03:41.713047  9076 net.cpp:386] relu6 -> fc6 (in-place)
I0720 14:03:41.740187  9074 net.cpp:141] Setting up relu5
I0720 14:03:41.740252  9074 net.cpp:148] Top shape: 10 256 13 13 (432640)
I0720 14:03:41.740258  9074 net.cpp:156] Memory required for data: 67249720
I0720 14:03:41.740269  9074 layer_factory.hpp:77] Creating layer pool5
I0720 14:03:41.740288  9074 net.cpp:91] Creating Layer pool5
I0720 14:03:41.740296  9074 net.cpp:425] pool5 <- conv5
I0720 14:03:41.741294  9076 net.cpp:141] Setting up relu6
I0720 14:03:41.741317  9076 net.cpp:148] Top shape: 10 4096 (40960)
I0720 14:03:41.741312  9074 net.cpp:399] pool5 -> pool5
I0720 14:03:41.741322  9076 net.cpp:156] Memory required for data: 67946040
I0720 14:03:41.741339  9076 layer_factory.hpp:77] Creating layer drop6
I0720 14:03:41.741358  9074 net.cpp:141] Setting up pool5
I0720 14:03:41.741374  9074 net.cpp:148] Top shape: 10 256 6 6 (92160)
I0720 14:03:41.741380  9074 net.cpp:156] Memory required for data: 67618360
I0720 14:03:41.741389  9074 layer_factory.hpp:77] Creating layer fc6
I0720 14:03:41.741876  9076 net.cpp:91] Creating Layer drop6
I0720 14:03:41.741895  9076 net.cpp:425] drop6 <- fc6
I0720 14:03:41.741905  9076 net.cpp:386] drop6 -> fc6 (in-place)
I0720 14:03:41.741919  9076 net.cpp:141] Setting up drop6
I0720 14:03:41.741925  9076 net.cpp:148] Top shape: 10 4096 (40960)
I0720 14:03:41.741930  9076 net.cpp:156] Memory required for data: 68109880
I0720 14:03:41.741935  9076 layer_factory.hpp:77] Creating layer fc7
I0720 14:03:41.741942  9076 net.cpp:91] Creating Layer fc7
I0720 14:03:41.741947  9076 net.cpp:425] fc7 <- fc6
I0720 14:03:41.743016  9074 net.cpp:91] Creating Layer fc6
I0720 14:03:41.743033  9074 net.cpp:425] fc6 <- pool5
I0720 14:03:41.743044  9074 net.cpp:399] fc6 -> fc6
I0720 14:03:41.743671  9076 net.cpp:399] fc7 -> fc7
I0720 14:03:41.744246  9068 net.cpp:141] Setting up conv5
I0720 14:03:41.744297  9068 net.cpp:148] Top shape: 10 256 13 13 (432640)
I0720 14:03:41.744303  9068 net.cpp:156] Memory required for data: 65519160
I0720 14:03:41.744328  9068 layer_factory.hpp:77] Creating layer relu5
I0720 14:03:41.744345  9068 net.cpp:91] Creating Layer relu5
I0720 14:03:41.744352  9068 net.cpp:425] relu5 <- conv5
I0720 14:03:41.744940  9050 net.cpp:141] Setting up relu6
I0720 14:03:41.744945  9068 net.cpp:386] relu5 -> conv5 (in-place)
I0720 14:03:41.744972  9050 net.cpp:148] Top shape: 10 4096 (40960)
I0720 14:03:41.744983  9050 net.cpp:156] Memory required for data: 67946040
I0720 14:03:41.744993  9050 layer_factory.hpp:77] Creating layer drop6
I0720 14:03:41.745785  9050 net.cpp:91] Creating Layer drop6
I0720 14:03:41.745786  9040 net.cpp:141] Setting up relu5
I0720 14:03:41.745813  9050 net.cpp:425] drop6 <- fc6
I0720 14:03:41.745787  9056 net.cpp:141] Setting up relu5
I0720 14:03:41.745831  9050 net.cpp:386] drop6 -> fc6 (in-place)
I0720 14:03:41.745846  9056 net.cpp:148] Top shape: 10 256 13 13 (432640)
I0720 14:03:41.745849  9050 net.cpp:141] Setting up drop6
I0720 14:03:41.745863  9056 net.cpp:156] Memory required for data: 67249720
I0720 14:03:41.745877  9056 layer_factory.hpp:77] Creating layer pool5
I0720 14:03:41.746317  9050 net.cpp:148] Top shape: 10 4096 (40960)
I0720 14:03:41.746328  9050 net.cpp:156] Memory required for data: 68109880
I0720 14:03:41.746337  9050 layer_factory.hpp:77] Creating layer fc7
I0720 14:03:41.746343  9040 net.cpp:148] Top shape: 10 256 13 13 (432640)
I0720 14:03:41.746351  9050 net.cpp:91] Creating Layer fc7
I0720 14:03:41.746364  9040 net.cpp:156] Memory required for data: 67249720
I0720 14:03:41.746378  9050 net.cpp:425] fc7 <- fc6
I0720 14:03:41.746393  9040 layer_factory.hpp:77] Creating layer pool5
I0720 14:03:41.746402  9050 net.cpp:399] fc7 -> fc7
I0720 14:03:41.746410  9040 net.cpp:91] Creating Layer pool5
I0720 14:03:41.746419  9040 net.cpp:425] pool5 <- conv5
I0720 14:03:41.746428  9040 net.cpp:399] pool5 -> pool5
I0720 14:03:41.746448  9040 net.cpp:141] Setting up pool5
I0720 14:03:41.746454  9040 net.cpp:148] Top shape: 10 256 6 6 (92160)
I0720 14:03:41.746459  9040 net.cpp:156] Memory required for data: 67618360
I0720 14:03:41.746464  9040 layer_factory.hpp:77] Creating layer fc6
I0720 14:03:41.748075  9056 net.cpp:91] Creating Layer pool5
I0720 14:03:41.748107  9056 net.cpp:425] pool5 <- conv5
I0720 14:03:41.748126  9056 net.cpp:399] pool5 -> pool5
I0720 14:03:41.748154  9056 net.cpp:141] Setting up pool5
I0720 14:03:41.748716  9040 net.cpp:91] Creating Layer fc6
I0720 14:03:41.748726  9056 net.cpp:148] Top shape: 10 256 6 6 (92160)
I0720 14:03:41.748738  9056 net.cpp:156] Memory required for data: 67618360
I0720 14:03:41.748739  9040 net.cpp:425] fc6 <- pool5
I0720 14:03:41.748745  9056 layer_factory.hpp:77] Creating layer fc6
I0720 14:03:41.748761  9056 net.cpp:91] Creating Layer fc6
I0720 14:03:41.748766  9056 net.cpp:425] fc6 <- pool5
I0720 14:03:41.748774  9056 net.cpp:399] fc6 -> fc6
I0720 14:03:41.749264  9040 net.cpp:399] fc6 -> fc6
I0720 14:03:41.755023  9068 net.cpp:141] Setting up relu5
I0720 14:03:41.755084  9068 net.cpp:148] Top shape: 10 256 13 13 (432640)
I0720 14:03:41.755090  9068 net.cpp:156] Memory required for data: 67249720
I0720 14:03:41.755101  9068 layer_factory.hpp:77] Creating layer pool5
I0720 14:03:41.755579  9068 net.cpp:91] Creating Layer pool5
I0720 14:03:41.755611  9068 net.cpp:425] pool5 <- conv5
I0720 14:03:41.755633  9068 net.cpp:399] pool5 -> pool5
I0720 14:03:41.755668  9068 net.cpp:141] Setting up pool5
I0720 14:03:41.755684  9068 net.cpp:148] Top shape: 10 256 6 6 (92160)
I0720 14:03:41.755693  9068 net.cpp:156] Memory required for data: 67618360
I0720 14:03:41.755703  9068 layer_factory.hpp:77] Creating layer fc6
I0720 14:03:41.757550  9068 net.cpp:91] Creating Layer fc6
I0720 14:03:41.757616  9068 net.cpp:425] fc6 <- pool5
I0720 14:03:41.757652  9068 net.cpp:399] fc6 -> fc6
I0720 14:03:41.765449  9070 net.cpp:141] Setting up fc6
I0720 14:03:41.765506  9070 net.cpp:148] Top shape: 10 4096 (40960)
I0720 14:03:41.765511  9070 net.cpp:156] Memory required for data: 67782200
I0720 14:03:41.765529  9070 layer_factory.hpp:77] Creating layer relu6
I0720 14:03:41.765547  9070 net.cpp:91] Creating Layer relu6
I0720 14:03:41.765553  9070 net.cpp:425] relu6 <- fc6
I0720 14:03:41.765563  9070 net.cpp:386] relu6 -> fc6 (in-place)
I0720 14:03:41.769747  9070 net.cpp:141] Setting up relu6
I0720 14:03:41.769814  9070 net.cpp:148] Top shape: 10 4096 (40960)
I0720 14:03:41.769824  9070 net.cpp:156] Memory required for data: 67946040
I0720 14:03:41.769839  9070 layer_factory.hpp:77] Creating layer drop6
I0720 14:03:41.769868  9070 net.cpp:91] Creating Layer drop6
I0720 14:03:41.769881  9070 net.cpp:425] drop6 <- fc6
I0720 14:03:41.769898  9070 net.cpp:386] drop6 -> fc6 (in-place)
I0720 14:03:41.769924  9070 net.cpp:141] Setting up drop6
I0720 14:03:41.769935  9070 net.cpp:148] Top shape: 10 4096 (40960)
I0720 14:03:41.769944  9070 net.cpp:156] Memory required for data: 68109880
I0720 14:03:41.769951  9070 layer_factory.hpp:77] Creating layer fc7
I0720 14:03:41.769968  9070 net.cpp:91] Creating Layer fc7
I0720 14:03:41.769976  9070 net.cpp:425] fc7 <- fc6
I0720 14:03:41.770606  9070 net.cpp:399] fc7 -> fc7
I0720 14:03:41.787309  9062 net.cpp:141] Setting up fc7
I0720 14:03:41.787377  9062 net.cpp:148] Top shape: 10 4096 (40960)
I0720 14:03:41.787389  9062 net.cpp:156] Memory required for data: 68273720
I0720 14:03:41.787411  9062 layer_factory.hpp:77] Creating layer relu7
I0720 14:03:41.787433  9062 net.cpp:91] Creating Layer relu7
I0720 14:03:41.787442  9062 net.cpp:425] relu7 <- fc7
I0720 14:03:41.787452  9062 net.cpp:386] relu7 -> fc7 (in-place)
I0720 14:03:41.796291  9062 net.cpp:141] Setting up relu7
I0720 14:03:41.796360  9062 net.cpp:148] Top shape: 10 4096 (40960)
I0720 14:03:41.796368  9062 net.cpp:156] Memory required for data: 68437560
I0720 14:03:41.796378  9062 layer_factory.hpp:77] Creating layer drop7
I0720 14:03:41.796397  9062 net.cpp:91] Creating Layer drop7
I0720 14:03:41.796406  9062 net.cpp:425] drop7 <- fc7
I0720 14:03:41.796416  9062 net.cpp:386] drop7 -> fc7 (in-place)
I0720 14:03:41.796437  9062 net.cpp:141] Setting up drop7
I0720 14:03:41.796443  9062 net.cpp:148] Top shape: 10 4096 (40960)
I0720 14:03:41.796447  9062 net.cpp:156] Memory required for data: 68601400
I0720 14:03:41.796452  9062 layer_factory.hpp:77] Creating layer fc8
I0720 14:03:41.798405  9062 net.cpp:91] Creating Layer fc8
I0720 14:03:41.798477  9062 net.cpp:425] fc8 <- fc7
I0720 14:03:41.798511  9062 net.cpp:399] fc8 -> fc8
I0720 14:03:41.798987  9076 net.cpp:141] Setting up fc7
I0720 14:03:41.799047  9076 net.cpp:148] Top shape: 10 4096 (40960)
I0720 14:03:41.799054  9076 net.cpp:156] Memory required for data: 68273720
I0720 14:03:41.799073  9076 layer_factory.hpp:77] Creating layer relu7
I0720 14:03:41.799088  9076 net.cpp:91] Creating Layer relu7
I0720 14:03:41.799095  9076 net.cpp:425] relu7 <- fc7
I0720 14:03:41.799105  9076 net.cpp:386] relu7 -> fc7 (in-place)
I0720 14:03:41.804677  9076 net.cpp:141] Setting up relu7
I0720 14:03:41.804745  9076 net.cpp:148] Top shape: 10 4096 (40960)
I0720 14:03:41.804751  9076 net.cpp:156] Memory required for data: 68437560
I0720 14:03:41.804762  9076 layer_factory.hpp:77] Creating layer drop7
I0720 14:03:41.805372  9076 net.cpp:91] Creating Layer drop7
I0720 14:03:41.805395  9076 net.cpp:425] drop7 <- fc7
I0720 14:03:41.805411  9076 net.cpp:386] drop7 -> fc7 (in-place)
I0720 14:03:41.805433  9076 net.cpp:141] Setting up drop7
I0720 14:03:41.805439  9076 net.cpp:148] Top shape: 10 4096 (40960)
I0720 14:03:41.805444  9076 net.cpp:156] Memory required for data: 68601400
I0720 14:03:41.805449  9076 layer_factory.hpp:77] Creating layer fc8
I0720 14:03:41.805461  9076 net.cpp:91] Creating Layer fc8
I0720 14:03:41.805465  9076 net.cpp:425] fc8 <- fc7
I0720 14:03:41.807746  9076 net.cpp:399] fc8 -> fc8
I0720 14:03:41.810889  9064 net.cpp:141] Setting up fc6
I0720 14:03:41.810943  9064 net.cpp:148] Top shape: 10 4096 (40960)
I0720 14:03:41.810950  9064 net.cpp:156] Memory required for data: 67782200
I0720 14:03:41.810967  9064 layer_factory.hpp:77] Creating layer relu6
I0720 14:03:41.810984  9064 net.cpp:91] Creating Layer relu6
I0720 14:03:41.810991  9064 net.cpp:425] relu6 <- fc6
I0720 14:03:41.811458  9064 net.cpp:386] relu6 -> fc6 (in-place)
I0720 14:03:41.813235  9060 net.cpp:141] Setting up fc6
I0720 14:03:41.813294  9060 net.cpp:148] Top shape: 10 4096 (40960)
I0720 14:03:41.813300  9060 net.cpp:156] Memory required for data: 67782200
I0720 14:03:41.813318  9060 layer_factory.hpp:77] Creating layer relu6
I0720 14:03:41.813334  9060 net.cpp:91] Creating Layer relu6
I0720 14:03:41.813340  9060 net.cpp:425] relu6 <- fc6
I0720 14:03:41.813813  9060 net.cpp:386] relu6 -> fc6 (in-place)
I0720 14:03:41.819865  9060 net.cpp:141] Setting up relu6
I0720 14:03:41.819865  9064 net.cpp:141] Setting up relu6
I0720 14:03:41.819896  9060 net.cpp:148] Top shape: 10 4096 (40960)
I0720 14:03:41.819903  9060 net.cpp:156] Memory required for data: 67946040
I0720 14:03:41.819903  9064 net.cpp:148] Top shape: 10 4096 (40960)
I0720 14:03:41.819911  9060 layer_factory.hpp:77] Creating layer drop6
I0720 14:03:41.819911  9064 net.cpp:156] Memory required for data: 67946040
I0720 14:03:41.819922  9064 layer_factory.hpp:77] Creating layer drop6
I0720 14:03:41.820936  9060 net.cpp:91] Creating Layer drop6
I0720 14:03:41.820956  9060 net.cpp:425] drop6 <- fc6
I0720 14:03:41.820960  9064 net.cpp:91] Creating Layer drop6
I0720 14:03:41.820971  9060 net.cpp:386] drop6 -> fc6 (in-place)
I0720 14:03:41.820978  9064 net.cpp:425] drop6 <- fc6
I0720 14:03:41.820988  9064 net.cpp:386] drop6 -> fc6 (in-place)
I0720 14:03:41.820989  9060 net.cpp:141] Setting up drop6
I0720 14:03:41.820997  9060 net.cpp:148] Top shape: 10 4096 (40960)
I0720 14:03:41.821000  9064 net.cpp:141] Setting up drop6
I0720 14:03:41.821002  9060 net.cpp:156] Memory required for data: 68109880
I0720 14:03:41.821007  9060 layer_factory.hpp:77] Creating layer fc7
I0720 14:03:41.821007  9064 net.cpp:148] Top shape: 10 4096 (40960)
I0720 14:03:41.821013  9064 net.cpp:156] Memory required for data: 68109880
I0720 14:03:41.821018  9064 layer_factory.hpp:77] Creating layer fc7
I0720 14:03:41.821028  9064 net.cpp:91] Creating Layer fc7
I0720 14:03:41.821033  9064 net.cpp:425] fc7 <- fc6
I0720 14:03:41.821743  9060 net.cpp:91] Creating Layer fc7
I0720 14:03:41.821758  9060 net.cpp:425] fc7 <- fc6
I0720 14:03:41.821766  9060 net.cpp:399] fc7 -> fc7
I0720 14:03:41.822603  9064 net.cpp:399] fc7 -> fc7
I0720 14:03:41.862489  9040 net.cpp:141] Setting up fc6
I0720 14:03:41.862859  9076 net.cpp:141] Setting up fc8
I0720 14:03:41.863158  9040 net.cpp:148] Top shape: 10 4096 (40960)
I0720 14:03:41.863168  9062 net.cpp:141] Setting up fc8
I0720 14:03:41.863328  9076 net.cpp:148] Top shape: 10 1000 (10000)
I0720 14:03:41.863394  9040 net.cpp:156] Memory required for data: 67782200
I0720 14:03:41.863435  9076 net.cpp:156] Memory required for data: 68641400
I0720 14:03:41.863436  9062 net.cpp:148] Top shape: 10 1000 (10000)
I0720 14:03:41.863466  9062 net.cpp:156] Memory required for data: 68641400
I0720 14:03:41.863466  9040 layer_factory.hpp:77] Creating layer relu6
I0720 14:03:41.863466  9076 layer_factory.hpp:77] Creating layer prob
I0720 14:03:41.863494  9062 layer_factory.hpp:77] Creating layer prob
I0720 14:03:41.863508  9076 net.cpp:91] Creating Layer prob
I0720 14:03:41.863518  9062 net.cpp:91] Creating Layer prob
I0720 14:03:41.863525  9076 net.cpp:425] prob <- fc8
I0720 14:03:41.863529  9062 net.cpp:425] prob <- fc8
I0720 14:03:41.863554  9076 net.cpp:399] prob -> prob
I0720 14:03:41.863541  9040 net.cpp:91] Creating Layer relu6
I0720 14:03:41.863577  9062 net.cpp:399] prob -> prob
I0720 14:03:41.863579  9040 net.cpp:425] relu6 <- fc6
I0720 14:03:41.863613  9040 net.cpp:386] relu6 -> fc6 (in-place)
I0720 14:03:41.872776  9076 net.cpp:141] Setting up prob
I0720 14:03:41.872869  9076 net.cpp:148] Top shape: 10 1000 (10000)
I0720 14:03:41.872879  9076 net.cpp:156] Memory required for data: 68681400
I0720 14:03:41.872900  9076 net.cpp:219] prob does not need backward computation.
I0720 14:03:41.872915  9076 net.cpp:219] fc8 does not need backward computation.
I0720 14:03:41.872927  9076 net.cpp:219] drop7 does not need backward computation.
I0720 14:03:41.872936  9076 net.cpp:219] relu7 does not need backward computation.
…
I0720 14:03:41.873438  9062 net.cpp:219] norm1 does not need backward computation.
I0720 14:03:41.873453  9062 net.cpp:219] pool1 does not need backward computation.
I0720 14:03:41.873469  9062 net.cpp:219] relu1 does not need backward computation.
I0720 14:03:41.873482  9062 net.cpp:219] conv1 does not need backward computation.
I0720 14:03:41.873498  9062 net.cpp:219] data does not need backward computation.
I0720 14:03:41.873512  9062 net.cpp:261] This network produces output prob
I0720 14:03:41.873600  9062 net.cpp:274] Network initialization done.
I0720 14:03:41.875816  9050 net.cpp:141] Setting up fc7
I0720 14:03:41.875881  9050 net.cpp:148] Top shape: 10 4096 (40960)
I0720 14:03:41.875887  9050 net.cpp:156] Memory required for data: 68273720
I0720 14:03:41.875908  9050 layer_factory.hpp:77] Creating layer relu7
I0720 14:03:41.875928  9050 net.cpp:91] Creating Layer relu7
I0720 14:03:41.875936  9050 net.cpp:425] relu7 <- fc7
I0720 14:03:41.875949  9050 net.cpp:386] relu7 -> fc7 (in-place)
I0720 14:03:41.879313  9064 net.cpp:141] Setting up fc7
I0720 14:03:41.879386  9064 net.cpp:148] Top shape: 10 4096 (40960)
I0720 14:03:41.879398  9064 net.cpp:156] Memory required for data: 68273720
I0720 14:03:41.879426  9064 layer_factory.hpp:77] Creating layer relu7
I0720 14:03:41.879452  9064 net.cpp:91] Creating Layer relu7
I0720 14:03:41.879467  9064 net.cpp:425] relu7 <- fc7
I0720 14:03:41.879483  9064 net.cpp:386] relu7 -> fc7 (in-place)
I0720 14:03:41.879624  9050 net.cpp:141] Setting up relu7
I0720 14:03:41.879640  9050 net.cpp:148] Top shape: 10 4096 (40960)
I0720 14:03:41.879645  9050 net.cpp:156] Memory required for data: 68437560
I0720 14:03:41.879650  9050 layer_factory.hpp:77] Creating layer drop7
I0720 14:03:41.879721  9050 net.cpp:91] Creating Layer drop7
I0720 14:03:41.879721  9040 net.cpp:141] Setting up relu6
I0720 14:03:41.879730  9050 net.cpp:425] drop7 <- fc7
I0720 14:03:41.879737  9040 net.cpp:148] Top shape: 10 4096 (40960)
I0720 14:03:41.879739  9050 net.cpp:386] drop7 -> fc7 (in-place)
I0720 14:03:41.879743  9040 net.cpp:156] Memory required for data: 67946040
I0720 14:03:41.879750  9040 layer_factory.hpp:77] Creating layer drop6
I0720 14:03:41.879752  9050 net.cpp:141] Setting up drop7
I0720 14:03:41.879758  9050 net.cpp:148] Top shape: 10 4096 (40960)
I0720 14:03:41.879770  9050 net.cpp:156] Memory required for data: 68601400
I0720 14:03:41.879775  9050 layer_factory.hpp:77] Creating layer fc8
I0720 14:03:41.879786  9050 net.cpp:91] Creating Layer fc8
I0720 14:03:41.879791  9050 net.cpp:425] fc8 <- fc7
I0720 14:03:41.879758  9040 net.cpp:91] Creating Layer drop6
I0720 14:03:41.879812  9040 net.cpp:425] drop6 <- fc6
I0720 14:03:41.879843  9050 net.cpp:399] fc8 -> fc8
I0720 14:03:41.879851  9040 net.cpp:386] drop6 -> fc6 (in-place)
I0720 14:03:41.879873  9040 net.cpp:141] Setting up drop6
I0720 14:03:41.879884  9040 net.cpp:148] Top shape: 10 4096 (40960)
I0720 14:03:41.879890  9040 net.cpp:156] Memory required for data: 68109880
I0720 14:03:41.879897  9040 layer_factory.hpp:77] Creating layer fc7
I0720 14:03:41.879909  9040 net.cpp:91] Creating Layer fc7
I0720 14:03:41.879916  9040 net.cpp:425] fc7 <- fc6
I0720 14:03:41.879951  9040 net.cpp:399] fc7 -> fc7
I0720 14:03:41.880875  9070 net.cpp:141] Setting up fc7
I0720 14:03:41.881448  9070 net.cpp:148] Top shape: 10 4096 (40960)
I0720 14:03:41.881469  9070 net.cpp:156] Memory required for data: 68273720
I0720 14:03:41.881505  9070 layer_factory.hpp:77] Creating layer relu7
I0720 14:03:41.881541  9070 net.cpp:91] Creating Layer relu7
I0720 14:03:41.881561  9070 net.cpp:425] relu7 <- fc7
I0720 14:03:41.881584  9070 net.cpp:386] relu7 -> fc7 (in-place)
I0720 14:03:41.883656  9060 net.cpp:141] Setting up fc7
I0720 14:03:41.883658  9056 net.cpp:141] Setting up fc6
I0720 14:03:41.883711  9060 net.cpp:148] Top shape: 10 4096 (40960)
I0720 14:03:41.883726  9060 net.cpp:156] Memory required for data: 68273720
I0720 14:03:41.883733  9056 net.cpp:148] Top shape: 10 4096 (40960)
I0720 14:03:41.883740  9056 net.cpp:156] Memory required for data: 67782200
I0720 14:03:41.883749  9060 layer_factory.hpp:77] Creating layer relu7
I0720 14:03:41.883756  9056 layer_factory.hpp:77] Creating layer relu6
I0720 14:03:41.884239  9056 net.cpp:91] Creating Layer relu6
I0720 14:03:41.884239  9060 net.cpp:91] Creating Layer relu7
I0720 14:03:41.884248  9056 net.cpp:425] relu6 <- fc6
I0720 14:03:41.884255  9060 net.cpp:425] relu7 <- fc7
I0720 14:03:41.884259  9056 net.cpp:386] relu6 -> fc6 (in-place)
I0720 14:03:41.884312  9060 net.cpp:386] relu7 -> fc7 (in-place)
I0720 14:03:41.887182  9068 net.cpp:141] Setting up fc6
I0720 14:03:41.887235  9068 net.cpp:148] Top shape: 10 4096 (40960)
I0720 14:03:41.887245  9068 net.cpp:156] Memory required for data: 67782200
I0720 14:03:41.887266  9068 layer_factory.hpp:77] Creating layer relu6
I0720 14:03:41.887289  9068 net.cpp:91] Creating Layer relu6
I0720 14:03:41.887300  9068 net.cpp:425] relu6 <- fc6
I0720 14:03:41.887656  9068 net.cpp:386] relu6 -> fc6 (in-place)
I0720 14:03:41.890774  9074 net.cpp:141] Setting up fc6
I0720 14:03:41.890821  9074 net.cpp:148] Top shape: 10 4096 (40960)
I0720 14:03:41.890827  9074 net.cpp:156] Memory required for data: 67782200
I0720 14:03:41.890843  9074 layer_factory.hpp:77] Creating layer relu6
I0720 14:03:41.890858  9074 net.cpp:91] Creating Layer relu6
I0720 14:03:41.890866  9074 net.cpp:425] relu6 <- fc6
I0720 14:03:41.890873  9074 net.cpp:386] relu6 -> fc6 (in-place)
I0720 14:03:41.897821  9056 net.cpp:141] Setting up relu6
I0720 14:03:41.897850  9056 net.cpp:148] Top shape: 10 4096 (40960)
I0720 14:03:41.897855  9056 net.cpp:156] Memory required for data: 67946040
I0720 14:03:41.897862  9056 layer_factory.hpp:77] Creating layer drop6
I0720 14:03:41.898377  9056 net.cpp:91] Creating Layer drop6
I0720 14:03:41.898383  9068 net.cpp:141] Setting up relu6
I0720 14:03:41.898391  9056 net.cpp:425] drop6 <- fc6
I0720 14:03:41.898387  9060 net.cpp:141] Setting up relu7
I0720 14:03:41.898413  9068 net.cpp:148] Top shape: 10 4096 (40960)
I0720 14:03:41.898445  9068 net.cpp:156] Memory required for data: 67946040
I0720 14:03:41.898452  9056 net.cpp:386] drop6 -> fc6 (in-place)
I0720 14:03:41.898458  9068 layer_factory.hpp:77] Creating layer drop6
I0720 14:03:41.898449  9060 net.cpp:148] Top shape: 10 4096 (40960)
I0720 14:03:41.898448  9064 net.cpp:141] Setting up relu7
I0720 14:03:41.898475  9056 net.cpp:141] Setting up drop6
I0720 14:03:41.898474  9060 net.cpp:156] Memory required for data: 68437560
I0720 14:03:41.898476  9068 net.cpp:91] Creating Layer drop6
I0720 14:03:41.898494  9056 net.cpp:148] Top shape: 10 4096 (40960)
I0720 14:03:41.898497  9068 net.cpp:425] drop6 <- fc6
I0720 14:03:41.898501  9056 net.cpp:156] Memory required for data: 68109880
I0720 14:03:41.898497  9060 layer_factory.hpp:77] Creating layer drop7
I0720 14:03:41.898511  9068 net.cpp:386] drop6 -> fc6 (in-place)
I0720 14:03:41.898499  9064 net.cpp:148] Top shape: 10 4096 (40960)
I0720 14:03:41.898514  9056 layer_factory.hpp:77] Creating layer fc7
I0720 14:03:41.898524  9068 net.cpp:141] Setting up drop6
I0720 14:03:41.898527  9064 net.cpp:156] Memory required for data: 68437560
I0720 14:03:41.898540  9056 net.cpp:91] Creating Layer fc7
I0720 14:03:41.898540  9068 net.cpp:148] Top shape: 10 4096 (40960)
I0720 14:03:41.898561  9056 net.cpp:425] fc7 <- fc6
I0720 14:03:41.898555  9064 layer_factory.hpp:77] Creating layer drop7
I0720 14:03:41.898566  9068 net.cpp:156] Memory required for data: 68109880
I0720 14:03:41.898571  9056 net.cpp:399] fc7 -> fc7
I0720 14:03:41.898587  9068 layer_factory.hpp:77] Creating layer fc7
I0720 14:03:41.899003  9060 net.cpp:91] Creating Layer drop7
I0720 14:03:41.899014  9060 net.cpp:425] drop7 <- fc7
I0720 14:03:41.899025  9060 net.cpp:386] drop7 -> fc7 (in-place)
I0720 14:03:41.899041  9060 net.cpp:141] Setting up drop7
I0720 14:03:41.899054  9060 net.cpp:148] Top shape: 10 4096 (40960)
I0720 14:03:41.899052  9068 net.cpp:91] Creating Layer fc7
I0720 14:03:41.899065  9060 net.cpp:156] Memory required for data: 68601400
I0720 14:03:41.899073  9068 net.cpp:425] fc7 <- fc6
I0720 14:03:41.899070  9064 net.cpp:91] Creating Layer drop7
I0720 14:03:41.899091  9068 net.cpp:399] fc7 -> fc7
I0720 14:03:41.899075  9060 layer_factory.hpp:77] Creating layer fc8
I0720 14:03:41.899102  9064 net.cpp:425] drop7 <- fc7
I0720 14:03:41.899121  9060 net.cpp:91] Creating Layer fc8
I0720 14:03:41.899128  9060 net.cpp:425] fc8 <- fc7
I0720 14:03:41.899129  9064 net.cpp:386] drop7 -> fc7 (in-place)
I0720 14:03:41.899149  9064 net.cpp:141] Setting up drop7
I0720 14:03:41.899163  9064 net.cpp:148] Top shape: 10 4096 (40960)
I0720 14:03:41.899173  9064 net.cpp:156] Memory required for data: 68601400
I0720 14:03:41.899183  9064 layer_factory.hpp:77] Creating layer fc8
I0720 14:03:41.899654  9060 net.cpp:399] fc8 -> fc8
I0720 14:03:41.899197  9064 net.cpp:91] Creating Layer fc8
I0720 14:03:41.899684  9064 net.cpp:425] fc8 <- fc7
I0720 14:03:41.899699  9074 net.cpp:141] Setting up relu6
I0720 14:03:41.899708  9064 net.cpp:399] fc8 -> fc8
I0720 14:03:41.899716  9074 net.cpp:148] Top shape: 10 4096 (40960)
I0720 14:03:41.899722  9074 net.cpp:156] Memory required for data: 67946040
I0720 14:03:41.899727  9074 layer_factory.hpp:77] Creating layer drop6
I0720 14:03:41.899736  9074 net.cpp:91] Creating Layer drop6
I0720 14:03:41.899746  9074 net.cpp:425] drop6 <- fc6
I0720 14:03:41.899747  9070 net.cpp:141] Setting up relu7
I0720 14:03:41.899768  9070 net.cpp:148] Top shape: 10 4096 (40960)
I0720 14:03:41.899773  9070 net.cpp:156] Memory required for data: 68437560
I0720 14:03:41.899780  9070 layer_factory.hpp:77] Creating layer drop7
I0720 14:03:41.900704  9070 net.cpp:91] Creating Layer drop7
I0720 14:03:41.900708  9074 net.cpp:386] drop6 -> fc6 (in-place)
I0720 14:03:41.900719  9070 net.cpp:425] drop7 <- fc7
I0720 14:03:41.900728  9074 net.cpp:141] Setting up drop6
I0720 14:03:41.900732  9070 net.cpp:386] drop7 -> fc7 (in-place)
I0720 14:03:41.900738  9074 net.cpp:148] Top shape: 10 4096 (40960)
I0720 14:03:41.900743  9074 net.cpp:156] Memory required for data: 68109880
I0720 14:03:41.900745  9070 net.cpp:141] Setting up drop7
I0720 14:03:41.900748  9074 layer_factory.hpp:77] Creating layer fc7
I0720 14:03:41.900754  9070 net.cpp:148] Top shape: 10 4096 (40960)
I0720 14:03:41.900759  9070 net.cpp:156] Memory required for data: 68601400
I0720 14:03:41.900764  9070 layer_factory.hpp:77] Creating layer fc8
I0720 14:03:41.900771  9070 net.cpp:91] Creating Layer fc8
I0720 14:03:41.900776  9070 net.cpp:425] fc8 <- fc7
I0720 14:03:41.901268  9074 net.cpp:91] Creating Layer fc7
I0720 14:03:41.901285  9070 net.cpp:399] fc8 -> fc8
I0720 14:03:41.901288  9074 net.cpp:425] fc7 <- fc6
I0720 14:03:41.901321  9074 net.cpp:399] fc7 -> fc7
I0720 14:03:41.955407  9064 net.cpp:141] Setting up fc8
I0720 14:03:41.955467  9064 net.cpp:148] Top shape: 10 1000 (10000)
I0720 14:03:41.955474  9064 net.cpp:156] Memory required for data: 68641400
I0720 14:03:41.955492  9064 layer_factory.hpp:77] Creating layer prob
I0720 14:03:41.955934  9064 net.cpp:91] Creating Layer prob
I0720 14:03:41.955948  9064 net.cpp:425] prob <- fc8
I0720 14:03:41.955970  9064 net.cpp:399] prob -> prob
I0720 14:03:41.958313  9050 net.cpp:141] Setting up fc8
I0720 14:03:41.958376  9050 net.cpp:148] Top shape: 10 1000 (10000)
I0720 14:03:41.958384  9050 net.cpp:156] Memory required for data: 68641400
I0720 14:03:41.958401  9050 layer_factory.hpp:77] Creating layer prob
I0720 14:03:41.958417  9050 net.cpp:91] Creating Layer prob
I0720 14:03:41.958425  9050 net.cpp:425] prob <- fc8
I0720 14:03:41.958436  9050 net.cpp:399] prob -> prob
I0720 14:03:41.962577  9070 net.cpp:141] Setting up fc8
I0720 14:03:41.962648  9070 net.cpp:148] Top shape: 10 1000 (10000)
I0720 14:03:41.962656  9070 net.cpp:156] Memory required for data: 68641400
I0720 14:03:41.962682  9070 layer_factory.hpp:77] Creating layer prob
I0720 14:03:41.962723  9070 net.cpp:91] Creating Layer prob
I0720 14:03:41.962735  9070 net.cpp:425] prob <- fc8
I0720 14:03:41.962752  9070 net.cpp:399] prob -> prob
I0720 14:03:41.963446  9060 net.cpp:141] Setting up fc8
I0720 14:03:41.963492  9060 net.cpp:148] Top shape: 10 1000 (10000)
I0720 14:03:41.963503  9060 net.cpp:156] Memory required for data: 68641400
I0720 14:03:41.963526  9060 layer_factory.hpp:77] Creating layer prob
I0720 14:03:41.963547  9060 net.cpp:91] Creating Layer prob
I0720 14:03:41.963562  9060 net.cpp:425] prob <- fc8
I0720 14:03:41.963578  9060 net.cpp:399] prob -> prob
I0720 14:03:41.966945  9040 net.cpp:141] Setting up fc7
I0720 14:03:41.967003  9040 net.cpp:148] Top shape: 10 4096 (40960)
I0720 14:03:41.967010  9040 net.cpp:156] Memory required for data: 68273720
I0720 14:03:41.967025  9040 layer_factory.hpp:77] Creating layer relu7
I0720 14:03:41.967064  9040 net.cpp:91] Creating Layer relu7
I0720 14:03:41.967074  9040 net.cpp:425] relu7 <- fc7
I0720 14:03:41.967087  9040 net.cpp:386] relu7 -> fc7 (in-place)
I0720 14:03:41.972055  9056 net.cpp:141] Setting up fc7
I0720 14:03:41.972127  9056 net.cpp:148] Top shape: 10 4096 (40960)
I0720 14:03:41.972136  9056 net.cpp:156] Memory required for data: 68273720
I0720 14:03:41.972157  9056 layer_factory.hpp:77] Creating layer relu7
I0720 14:03:41.972182  9056 net.cpp:91] Creating Layer relu7
I0720 14:03:41.972194  9056 net.cpp:425] relu7 <- fc7
I0720 14:03:41.972208  9056 net.cpp:386] relu7 -> fc7 (in-place)
I0720 14:03:41.974655  9068 net.cpp:141] Setting up fc7
I0720 14:03:41.974722  9068 net.cpp:148] Top shape: 10 4096 (40960)
I0720 14:03:41.974731  9068 net.cpp:156] Memory required for data: 68273720
I0720 14:03:41.974748  9068 layer_factory.hpp:77] Creating layer relu7
I0720 14:03:41.974764  9068 net.cpp:91] Creating Layer relu7
I0720 14:03:41.974771  9068 net.cpp:425] relu7 <- fc7
I0720 14:03:41.974786  9068 net.cpp:386] relu7 -> fc7 (in-place)
I0720 14:03:41.974861  9074 net.cpp:141] Setting up fc7
I0720 14:03:41.974879  9074 net.cpp:148] Top shape: 10 4096 (40960)
I0720 14:03:41.974884  9074 net.cpp:156] Memory required for data: 68273720
I0720 14:03:41.974895  9074 layer_factory.hpp:77] Creating layer relu7
I0720 14:03:41.974905  9074 net.cpp:91] Creating Layer relu7
I0720 14:03:41.974910  9074 net.cpp:425] relu7 <- fc7
I0720 14:03:41.974921  9074 net.cpp:386] relu7 -> fc7 (in-place)
I0720 14:03:41.978220  9042 net.cpp:141] Setting up predict
I0720 14:03:41.978271  9042 net.cpp:148] Top shape: 1 1 46168 (46168)
I0720 14:03:41.978276  9042 net.cpp:156] Memory required for data: 221084
I0720 14:03:41.978291  9042 layer_factory.hpp:77] Creating layer probs
I0720 14:03:41.978310  9042 net.cpp:91] Creating Layer probs
I0720 14:03:41.978322  9042 net.cpp:425] probs <- predict
I0720 14:03:41.978348  9042 net.cpp:399] probs -> probs
I0720 14:03:41.979218  9040 net.cpp:141] Setting up relu7
I0720 14:03:41.979218  9068 net.cpp:141] Setting up relu7
I0720 14:03:41.979240  9040 net.cpp:148] Top shape: 10 4096 (40960)
I0720 14:03:41.979248  9040 net.cpp:156] Memory required for data: 68437560
I0720 14:03:41.979251  9068 net.cpp:148] Top shape: 10 4096 (40960)
I0720 14:03:41.979254  9040 layer_factory.hpp:77] Creating layer drop7
I0720 14:03:41.979259  9068 net.cpp:156] Memory required for data: 68437560
I0720 14:03:41.979265  9040 net.cpp:91] Creating Layer drop7
I0720 14:03:41.979266  9068 layer_factory.hpp:77] Creating layer drop7
I0720 14:03:41.979275  9040 net.cpp:425] drop7 <- fc7
I0720 14:03:41.979284  9040 net.cpp:386] drop7 -> fc7 (in-place)
I0720 14:03:41.979287  9068 net.cpp:91] Creating Layer drop7
I0720 14:03:41.979295  9068 net.cpp:425] drop7 <- fc7
I0720 14:03:41.979295  9040 net.cpp:141] Setting up drop7
I0720 14:03:41.979303  9040 net.cpp:148] Top shape: 10 4096 (40960)
I0720 14:03:41.979300  9064 net.cpp:141] Setting up prob
I0720 14:03:41.979308  9040 net.cpp:156] Memory required for data: 68601400
I0720 14:03:41.979313  9040 layer_factory.hpp:77] Creating layer fc8
I0720 14:03:41.979318  9064 net.cpp:148] Top shape: 10 1000 (10000)
I0720 14:03:41.979306  9068 net.cpp:386] drop7 -> fc7 (in-place)
I0720 14:03:41.979324  9064 net.cpp:156] Memory required for data: 68681400
I0720 14:03:41.979329  9040 net.cpp:91] Creating Layer fc8
I0720 14:03:41.979331  9064 net.cpp:219] prob does not need backward computation.
I0720 14:03:41.979336  9040 net.cpp:425] fc8 <- fc7
I0720 14:03:41.979336  9068 net.cpp:141] Setting up drop7
I0720 14:03:41.979338  9064 net.cpp:219] fc8 does not need backward computation.
I0720 14:03:41.979343  9068 net.cpp:148] Top shape: 10 4096 (40960)
I0720 14:03:41.979342  9040 net.cpp:399] fc8 -> fc8
I0720 14:03:41.979344  9064 net.cpp:219] drop7 does not need backward computation.
I0720 14:03:41.979353  9068 net.cpp:156] Memory required for data: 68601400
I0720 14:03:41.979362  9064 net.cpp:219] relu7 does not need backward computation.
I0720 14:03:41.979367  9068 layer_factory.hpp:77] Creating layer fc8
I0720 14:03:41.979372  9064 net.cpp:219] fc7 does not need backward computation.
I0720 14:03:41.979377  9068 net.cpp:91] Creating Layer fc8
I0720 14:03:41.979383  9068 net.cpp:425] fc8 <- fc7
I0720 14:03:41.979382  9064 net.cpp:219] drop6 does not need backward computation.
I0720 14:03:41.979385  9074 net.cpp:141] Setting up relu7
I0720 14:03:41.979393  9064 net.cpp:219] relu6 does not need backward computation.
I0720 14:03:41.979403  9074 net.cpp:148] Top shape: 10 4096 (40960)
I0720 14:03:41.979404  9064 net.cpp:219] fc6 does not need backward computation.
I0720 14:03:41.979409  9068 net.cpp:399] fc8 -> fc8
I0720 14:03:41.979411  9074 net.cpp:156] Memory required for data: 68437560
I0720 14:03:41.979427  9074 layer_factory.hpp:77] Creating layer drop7
I0720 14:03:41.979429  9064 net.cpp:219] pool5 does not need backward computation.
I0720 14:03:41.979437  9074 net.cpp:91] Creating Layer drop7
…
I0720 14:03:41.980000  9050 net.cpp:219] relu3 does not need backward computation.
I0720 14:03:41.980011  9064 net.cpp:274] Network initialization done.
I0720 14:03:41.980007  9050 net.cpp:219] conv3 does not need backward computation.
I0720 14:03:41.980007  9074 net.cpp:386] drop7 -> fc7 (in-place)
I0720 14:03:41.980028  9050 net.cpp:219] norm2 does not need backward computation.
I0720 14:03:41.980046  9050 net.cpp:219] pool2 does not need backward computation.
I0720 14:03:41.980048  9074 net.cpp:141] Setting up drop7
I0720 14:03:41.980057  9050 net.cpp:219] relu2 does not need backward computation.
I0720 14:03:41.980058  9074 net.cpp:148] Top shape: 10 4096 (40960)
I0720 14:03:41.980068  9050 net.cpp:219] conv2 does not need backward computation.
I0720 14:03:41.980075  9074 net.cpp:156] Memory required for data: 68601400
I0720 14:03:41.980078  9050 net.cpp:219] norm1 does not need backward computation.
I0720 14:03:41.980082  9074 layer_factory.hpp:77] Creating layer fc8
I0720 14:03:41.980087  9050 net.cpp:219] pool1 does not need backward computation.
I0720 14:03:41.980092  9074 net.cpp:91] Creating Layer fc8
I0720 14:03:41.980095  9050 net.cpp:219] relu1 does not need backward computation.
I0720 14:03:41.980098  9074 net.cpp:425] fc8 <- fc7
I0720 14:03:41.980106  9050 net.cpp:219] conv1 does not need backward computation.
I0720 14:03:41.980115  9050 net.cpp:219] data does not need backward computation.
I0720 14:03:41.980121  9050 net.cpp:261] This network produces output prob
I0720 14:03:41.980571  9074 net.cpp:399] fc8 -> fc8
I0720 14:03:41.980659  9056 net.cpp:141] Setting up relu7
I0720 14:03:41.980677  9056 net.cpp:148] Top shape: 10 4096 (40960)
I0720 14:03:41.980684  9056 net.cpp:156] Memory required for data: 68437560
I0720 14:03:41.980690  9056 layer_factory.hpp:77] Creating layer drop7
I0720 14:03:41.981160  9050 net.cpp:274] Network initialization done.
I0720 14:03:41.981207  9056 net.cpp:91] Creating Layer drop7
I0720 14:03:41.981225  9056 net.cpp:425] drop7 <- fc7
I0720 14:03:41.981235  9056 net.cpp:386] drop7 -> fc7 (in-place)
I0720 14:03:41.981246  9056 net.cpp:141] Setting up drop7
I0720 14:03:41.981253  9056 net.cpp:148] Top shape: 10 4096 (40960)
I0720 14:03:41.981258  9056 net.cpp:156] Memory required for data: 68601400
I0720 14:03:41.981263  9056 layer_factory.hpp:77] Creating layer fc8
I0720 14:03:41.981272  9056 net.cpp:91] Creating Layer fc8
I0720 14:03:41.981276  9056 net.cpp:425] fc8 <- fc7
I0720 14:03:41.981770  9070 net.cpp:141] Setting up prob
I0720 14:03:41.981770  9060 net.cpp:141] Setting up prob
I0720 14:03:41.981775  9056 net.cpp:399] fc8 -> fc8
I0720 14:03:41.981803  9060 net.cpp:148] Top shape: 10 1000 (10000)
I0720 14:03:41.981811  9060 net.cpp:156] Memory required for data: 68681400
I0720 14:03:41.981799  9070 net.cpp:148] Top shape: 10 1000 (10000)
I0720 14:03:41.981817  9060 net.cpp:219] prob does not need backward computation.
I0720 14:03:41.981819  9070 net.cpp:156] Memory required for data: 68681400
I0720 14:03:41.981823  9060 net.cpp:219] fc8 does not need backward computation.
I0720 14:03:41.981833  9070 net.cpp:219] prob does not need backward computation.
I0720 14:03:41.981834  9060 net.cpp:219] drop7 does not need backward computation.
…
I0720 14:03:41.981940  9060 net.cpp:219] data does not need backward computation.
I0720 14:03:41.981943  9070 net.cpp:219] conv1 does not need backward computation.
I0720 14:03:41.981945  9060 net.cpp:261] This network produces output prob
I0720 14:03:41.981947  9070 net.cpp:219] data does not need backward computation.
I0720 14:03:41.981951  9070 net.cpp:261] This network produces output prob
I0720 14:03:41.982856  9060 net.cpp:274] Network initialization done.
I0720 14:03:41.982867  9070 net.cpp:274] Network initialization done.
I0720 14:03:42.001873  9068 net.cpp:141] Setting up fc8
I0720 14:03:42.001919  9068 net.cpp:148] Top shape: 10 1000 (10000)
I0720 14:03:42.001924  9068 net.cpp:156] Memory required for data: 68641400
I0720 14:03:42.001937  9068 layer_factory.hpp:77] Creating layer prob
I0720 14:03:42.002871  9068 net.cpp:91] Creating Layer prob
I0720 14:03:42.002892  9068 net.cpp:425] prob <- fc8
I0720 14:03:42.002905  9068 net.cpp:399] prob -> prob
I0720 14:03:42.003450  9040 net.cpp:141] Setting up fc8
I0720 14:03:42.003509  9040 net.cpp:148] Top shape: 10 1000 (10000)
I0720 14:03:42.003516  9040 net.cpp:156] Memory required for data: 68641400
I0720 14:03:42.003531  9040 layer_factory.hpp:77] Creating layer prob
I0720 14:03:42.003545  9040 net.cpp:91] Creating Layer prob
I0720 14:03:42.003551  9040 net.cpp:425] prob <- fc8
I0720 14:03:42.004487  9040 net.cpp:399] prob -> prob
I0720 14:03:42.008082  9056 net.cpp:141] Setting up fc8
I0720 14:03:42.008549  9056 net.cpp:148] Top shape: 10 1000 (10000)
I0720 14:03:42.008563  9056 net.cpp:156] Memory required for data: 68641400
I0720 14:03:42.008580  9056 layer_factory.hpp:77] Creating layer prob
I0720 14:03:42.008597  9056 net.cpp:91] Creating Layer prob
I0720 14:03:42.008605  9056 net.cpp:425] prob <- fc8
I0720 14:03:42.008615  9056 net.cpp:399] prob -> prob
I0720 14:03:42.045441  9074 net.cpp:141] Setting up fc8
I0720 14:03:42.045508  9074 net.cpp:148] Top shape: 10 1000 (10000)
I0720 14:03:42.045519  9074 net.cpp:156] Memory required for data: 68641400
I0720 14:03:42.045542  9068 net.cpp:141] Setting up prob
I0720 14:03:42.045545  9074 layer_factory.hpp:77] Creating layer prob
I0720 14:03:42.045565  9068 net.cpp:148] Top shape: 10 1000 (10000)
I0720 14:03:42.045572  9068 net.cpp:156] Memory required for data: 68681400
I0720 14:03:42.045579  9068 net.cpp:219] prob does not need backward computation.
I0720 14:03:42.045585  9068 net.cpp:219] fc8 does not need backward computation.
I0720 14:03:42.045590  9068 net.cpp:219] drop7 does not need backward computation.
I0720 14:03:42.045595  9068 net.cpp:219] relu7 does not need backward computation.
…
I0720 14:03:43.476799  9040 net.cpp:752] Ignoring source layer loss
I0720 14:03:43.517019  9068 net.cpp:752] Ignoring source layer loss
I0720 14:03:43.570931  9056 upgrade_proto.cpp:60] Successfully upgraded file specified using deprecated V1LayerParameter
I0720 14:03:43.584734  9074 upgrade_proto.cpp:60] Successfully upgraded file specified using deprecated V1LayerParameter
I0720 14:03:43.655141  9056 net.cpp:752] Ignoring source layer loss
I0720 14:03:43.669939  9074 net.cpp:752] Ignoring source layer loss
I0720 14:03:44.125916  9046 net.cpp:141] Setting up input
I0720 14:03:44.125964  9046 net.cpp:148] Top shape: 1 4096 (4096)
I0720 14:03:44.125972  9046 net.cpp:148] Top shape: 1 1 (1)
I0720 14:03:44.125977  9046 net.cpp:148] Top shape: 1 1 (1)
I0720 14:03:44.125982  9046 net.cpp:148] Top shape: 1 1 (1)
I0720 14:03:44.125988  9046 net.cpp:156] Memory required for data: 16396
I0720 14:03:44.125996  9046 layer_factory.hpp:77] Creating layer cont_sentence_input_1_split
I0720 14:03:44.126019  9046 net.cpp:91] Creating Layer cont_sentence_input_1_split
I0720 14:03:44.126025  9046 net.cpp:425] cont_sentence_input_1_split <- cont_sentence
I0720 14:03:44.126035  9046 net.cpp:399] cont_sentence_input_1_split -> cont_sentence_input_1_split_0
I0720 14:03:44.126050  9046 net.cpp:399] cont_sentence_input_1_split -> cont_sentence_input_1_split_1
I0720 14:03:44.126118  9046 net.cpp:141] Setting up cont_sentence_input_1_split
I0720 14:03:44.126128  9046 net.cpp:148] Top shape: 1 1 (1)
I0720 14:03:44.126133  9046 net.cpp:148] Top shape: 1 1 (1)
I0720 14:03:44.126137  9046 net.cpp:156] Memory required for data: 16404
I0720 14:03:44.126142  9046 layer_factory.hpp:77] Creating layer embed_encoder
I0720 14:03:44.126160  9046 net.cpp:91] Creating Layer embed_encoder
I0720 14:03:44.126166  9046 net.cpp:425] embed_encoder <- frames_fc7
I0720 14:03:44.126176  9046 net.cpp:399] embed_encoder -> embedded_in_frames
I0720 14:03:44.151165  9046 net.cpp:141] Setting up embed_encoder
I0720 14:03:44.151209  9046 net.cpp:148] Top shape: 1 500 (500)
I0720 14:03:44.151216  9046 net.cpp:156] Memory required for data: 18404
I0720 14:03:44.151235  9046 layer_factory.hpp:77] Creating layer reshape_frames
I0720 14:03:44.151255  9046 net.cpp:91] Creating Layer reshape_frames
I0720 14:03:44.151263  9046 net.cpp:425] reshape_frames <- embedded_in_frames
I0720 14:03:44.151278  9046 net.cpp:399] reshape_frames -> embedded_input_frames
I0720 14:03:44.151336  9046 net.cpp:141] Setting up reshape_frames
I0720 14:03:44.151345  9046 net.cpp:148] Top shape: 1 1 500 (500)
I0720 14:03:44.151350  9046 net.cpp:156] Memory required for data: 20404
I0720 14:03:44.151355  9046 layer_factory.hpp:77] Creating layer reshape_stage_indicator
I0720 14:03:44.151365  9046 net.cpp:91] Creating Layer reshape_stage_indicator
I0720 14:03:44.151371  9046 net.cpp:425] reshape_stage_indicator <- stage_indicator
I0720 14:03:44.151381  9046 net.cpp:399] reshape_stage_indicator -> reshaped_stage_indicator
I0720 14:03:44.151439  9046 net.cpp:141] Setting up reshape_stage_indicator
I0720 14:03:44.151449  9046 net.cpp:148] Top shape: 1 1 1 (1)
I0720 14:03:44.151453  9046 net.cpp:156] Memory required for data: 20408
I0720 14:03:44.151458  9046 layer_factory.hpp:77] Creating layer embedding
I0720 14:03:44.151475  9046 net.cpp:91] Creating Layer embedding
I0720 14:03:44.151481  9046 net.cpp:425] embedding <- input_sentence
I0720 14:03:44.151490  9046 net.cpp:399] embedding -> embedded_input_sentence
I0720 14:03:44.431846  9046 net.cpp:141] Setting up embedding
I0720 14:03:44.432312  9046 net.cpp:148] Top shape: 1 1 500 (500)
I0720 14:03:44.432453  9046 net.cpp:156] Memory required for data: 22408
I0720 14:03:44.432569  9046 layer_factory.hpp:77] Creating layer lstm1
I0720 14:03:44.432685  9046 net.cpp:91] Creating Layer lstm1
I0720 14:03:44.432780  9046 net.cpp:425] lstm1 <- embedded_input_frames
I0720 14:03:44.432890  9046 net.cpp:425] lstm1 <- cont_sentence_input_1_split_0
I0720 14:03:44.432991  9046 net.cpp:399] lstm1 -> lstm1
I0720 14:03:44.433145  9046 recurrent_layer.cpp:20] Initializing recurrent layer: assuming input batch contains 1 timesteps of 1 independent streams.
I0720 14:03:44.434772  9046 net.cpp:49] Initializing net from parameters: 
layer {
  name: "lstm1_"
  type: "Input"
  top: "x"
  top: "cont"
  input_param {
    shape {
      dim: 1
      dim: 1
      dim: 500
    }
    shape {
      dim: 1
      dim: 1
    }
  }
}
layer {
  name: "lstm1_"
  type: "Input"
  top: "c_0"
  top: "h_0"
  input_param {
    shape {
      dim: 1
      dim: 1
      dim: 1000
    }
    shape {
      dim: 1
      dim: 1
      dim: 1000
    }
  }
}
layer {
  name: "lstm1_cont_slice"
  type: "Slice"
  bottom: "cont"
  top: "cont_1"
  slice_param {
    axis: 0
  }
}
layer {
  name: "lstm1_x_transform"
  type: "InnerProduct"
  bottom: "x"
  top: "W_xc_x"
  param {
    name: "W_xc"
  }
  param {
    name: "b_c"
  }
  propagate_down: true
  inner_product_param {
    num_output: 4000
    bias_term: true
    weight_filler {
      type: "uniform"
      min: -0.08
      max: 0.08
    }
    bias_filler {
      type: "constant"
      value: 0
    }
    axis: 2
  }
}
layer {
  name: "lstm1_W_xc_x_slice"
  type: "Slice"
  bottom: "W_xc_x"
  top: "W_xc_x_1"
  slice_param {
    axis: 0
  }
}
layer {
  name: "lstm1_h_conted_0"
  type: "Scale"
  bottom: "h_0"
  bottom: "cont_1"
  top: "h_conted_0"
  scale_param {
    axis: 0
  }
}
layer {
  name: "lstm1_transform_1"
  type: "InnerProduct"
  bottom: "h_conted_0"
  top: "W_hc_h_0"
  param {
    name: "W_hc"
  }
  inner_product_param {
    num_output: 4000
    bias_term: false
    weight_filler {
      type: "uniform"
      min: -0.08
      max: 0.08
    }
    axis: 2
  }
}
layer {
  name: "lstm1_gate_input_1"
  type: "Eltwise"
  bottom: "W_hc_h_0"
  bottom: "W_xc_x_1"
  top: "gate_input_1"
  eltwise_param {
    operation: SUM
  }
}
layer {
  name: "lstm1_unit_1"
  type: "LSTMUnit"
  bottom: "c_0"
  bottom: "gate_input_1"
  bottom: "cont_1"
  top: "c_1"
  top: "h_1"
}
layer {
  name: "lstm1_"
  type: "Split"
  bottom: "c_1"
  top: "c_T"
}
layer {
  name: "lstm1_h_concat"
  type: "Concat"
  bottom: "h_1"
  top: "h"
  concat_param {
    axis: 0
  }
}
layer {
  name: "h_pseudoloss"
  type: "Reduction"
  bottom: "h"
  top: "h_pseudoloss"
  loss_weight: 1
}
I0720 14:03:44.437265  9046 layer_factory.hpp:77] Creating layer lstm1_
I0720 14:03:44.437321  9046 net.cpp:91] Creating Layer lstm1_
I0720 14:03:44.437335  9046 net.cpp:399] lstm1_ -> x
I0720 14:03:44.437364  9046 net.cpp:399] lstm1_ -> cont
I0720 14:03:44.437575  9046 net.cpp:141] Setting up lstm1_
I0720 14:03:44.437595  9046 net.cpp:148] Top shape: 1 1 500 (500)
I0720 14:03:44.437605  9046 net.cpp:148] Top shape: 1 1 (1)
I0720 14:03:44.437611  9046 net.cpp:156] Memory required for data: 2004
I0720 14:03:44.437621  9046 layer_factory.hpp:77] Creating layer lstm1_
I0720 14:03:44.437973  9046 net.cpp:91] Creating Layer lstm1_
I0720 14:03:44.437994  9046 net.cpp:399] lstm1_ -> c_0
I0720 14:03:44.438014  9046 net.cpp:399] lstm1_ -> h_0
I0720 14:03:44.438169  9046 net.cpp:141] Setting up lstm1_
I0720 14:03:44.438184  9046 net.cpp:148] Top shape: 1 1 1000 (1000)
I0720 14:03:44.438194  9046 net.cpp:148] Top shape: 1 1 1000 (1000)
I0720 14:03:44.438199  9046 net.cpp:156] Memory required for data: 10004
I0720 14:03:44.438207  9046 layer_factory.hpp:77] Creating layer lstm1_cont_slice
I0720 14:03:44.438261  9046 net.cpp:91] Creating Layer lstm1_cont_slice
I0720 14:03:44.438273  9046 net.cpp:425] lstm1_cont_slice <- cont
I0720 14:03:44.438287  9046 net.cpp:399] lstm1_cont_slice -> cont_1
I0720 14:03:44.438396  9046 net.cpp:141] Setting up lstm1_cont_slice
I0720 14:03:44.438416  9046 net.cpp:148] Top shape: 1 1 (1)
I0720 14:03:44.438421  9046 net.cpp:156] Memory required for data: 10008
I0720 14:03:44.438428  9046 layer_factory.hpp:77] Creating layer cont_1_lstm1_cont_slice_0_split
I0720 14:03:44.438441  9046 net.cpp:91] Creating Layer cont_1_lstm1_cont_slice_0_split
I0720 14:03:44.438447  9046 net.cpp:425] cont_1_lstm1_cont_slice_0_split <- cont_1
I0720 14:03:44.438457  9046 net.cpp:399] cont_1_lstm1_cont_slice_0_split -> cont_1_lstm1_cont_slice_0_split_0
I0720 14:03:44.438469  9046 net.cpp:399] cont_1_lstm1_cont_slice_0_split -> cont_1_lstm1_cont_slice_0_split_1
I0720 14:03:44.438608  9046 net.cpp:141] Setting up cont_1_lstm1_cont_slice_0_split
I0720 14:03:44.438626  9046 net.cpp:148] Top shape: 1 1 (1)
I0720 14:03:44.438633  9046 net.cpp:148] Top shape: 1 1 (1)
I0720 14:03:44.438642  9046 net.cpp:156] Memory required for data: 10016
I0720 14:03:44.438649  9046 layer_factory.hpp:77] Creating layer lstm1_x_transform
I0720 14:03:44.438707  9046 net.cpp:91] Creating Layer lstm1_x_transform
I0720 14:03:44.438719  9046 net.cpp:425] lstm1_x_transform <- x
I0720 14:03:44.438735  9046 net.cpp:399] lstm1_x_transform -> W_xc_x
I0720 14:03:44.478049  9046 net.cpp:141] Setting up lstm1_x_transform
I0720 14:03:44.478109  9046 net.cpp:148] Top shape: 1 1 4000 (4000)
I0720 14:03:44.478119  9046 net.cpp:156] Memory required for data: 26016
I0720 14:03:44.478149  9046 layer_factory.hpp:77] Creating layer lstm1_W_xc_x_slice
I0720 14:03:44.478171  9046 net.cpp:91] Creating Layer lstm1_W_xc_x_slice
I0720 14:03:44.478181  9046 net.cpp:425] lstm1_W_xc_x_slice <- W_xc_x
I0720 14:03:44.478196  9046 net.cpp:399] lstm1_W_xc_x_slice -> W_xc_x_1
I0720 14:03:44.478277  9046 net.cpp:141] Setting up lstm1_W_xc_x_slice
I0720 14:03:44.478296  9046 net.cpp:148] Top shape: 1 1 4000 (4000)
I0720 14:03:44.478303  9046 net.cpp:156] Memory required for data: 42016
I0720 14:03:44.478312  9046 layer_factory.hpp:77] Creating layer lstm1_h_conted_0
I0720 14:03:44.478325  9046 net.cpp:91] Creating Layer lstm1_h_conted_0
I0720 14:03:44.478333  9046 net.cpp:425] lstm1_h_conted_0 <- h_0
I0720 14:03:44.478343  9046 net.cpp:425] lstm1_h_conted_0 <- cont_1_lstm1_cont_slice_0_split_0
I0720 14:03:44.478355  9046 net.cpp:399] lstm1_h_conted_0 -> h_conted_0
I0720 14:03:44.478549  9046 net.cpp:141] Setting up lstm1_h_conted_0
I0720 14:03:44.478564  9046 net.cpp:148] Top shape: 1 1 1000 (1000)
I0720 14:03:44.478570  9046 net.cpp:156] Memory required for data: 46016
I0720 14:03:44.478579  9046 layer_factory.hpp:77] Creating layer lstm1_transform_1
I0720 14:03:44.478601  9046 net.cpp:91] Creating Layer lstm1_transform_1
I0720 14:03:44.478610  9046 net.cpp:425] lstm1_transform_1 <- h_conted_0
I0720 14:03:44.478622  9046 net.cpp:399] lstm1_transform_1 -> W_hc_h_0
I0720 14:03:44.536026  9046 net.cpp:141] Setting up lstm1_transform_1
I0720 14:03:44.536082  9046 net.cpp:148] Top shape: 1 1 4000 (4000)
I0720 14:03:44.536092  9046 net.cpp:156] Memory required for data: 62016
I0720 14:03:44.536118  9046 layer_factory.hpp:77] Creating layer lstm1_gate_input_1
I0720 14:03:44.536144  9046 net.cpp:91] Creating Layer lstm1_gate_input_1
I0720 14:03:44.536154  9046 net.cpp:425] lstm1_gate_input_1 <- W_hc_h_0
I0720 14:03:44.536165  9046 net.cpp:425] lstm1_gate_input_1 <- W_xc_x_1
I0720 14:03:44.536177  9046 net.cpp:399] lstm1_gate_input_1 -> gate_input_1
I0720 14:03:44.536262  9046 net.cpp:141] Setting up lstm1_gate_input_1
I0720 14:03:44.536288  9046 net.cpp:148] Top shape: 1 1 4000 (4000)
I0720 14:03:44.536294  9046 net.cpp:156] Memory required for data: 78016
I0720 14:03:44.536301  9046 layer_factory.hpp:77] Creating layer lstm1_unit_1
I0720 14:03:44.536314  9046 net.cpp:91] Creating Layer lstm1_unit_1
I0720 14:03:44.536321  9046 net.cpp:425] lstm1_unit_1 <- c_0
I0720 14:03:44.536329  9046 net.cpp:425] lstm1_unit_1 <- gate_input_1
I0720 14:03:44.536337  9046 net.cpp:425] lstm1_unit_1 <- cont_1_lstm1_cont_slice_0_split_1
I0720 14:03:44.536346  9046 net.cpp:399] lstm1_unit_1 -> c_1
I0720 14:03:44.536358  9046 net.cpp:399] lstm1_unit_1 -> h_1
I0720 14:03:44.536486  9046 net.cpp:141] Setting up lstm1_unit_1
I0720 14:03:44.536500  9046 net.cpp:148] Top shape: 1 1 1000 (1000)
I0720 14:03:44.536509  9046 net.cpp:148] Top shape: 1 1 1000 (1000)
I0720 14:03:44.536515  9046 net.cpp:156] Memory required for data: 86016
I0720 14:03:44.536522  9046 layer_factory.hpp:77] Creating layer lstm1_
I0720 14:03:44.536535  9046 net.cpp:91] Creating Layer lstm1_
I0720 14:03:44.536541  9046 net.cpp:425] lstm1_ <- c_1
I0720 14:03:44.536551  9046 net.cpp:399] lstm1_ -> c_T
I0720 14:03:44.536610  9046 net.cpp:141] Setting up lstm1_
I0720 14:03:44.536623  9046 net.cpp:148] Top shape: 1 1 1000 (1000)
I0720 14:03:44.536630  9046 net.cpp:156] Memory required for data: 90016
I0720 14:03:44.536638  9046 layer_factory.hpp:77] Creating layer lstm1_h_concat
I0720 14:03:44.536653  9046 net.cpp:91] Creating Layer lstm1_h_concat
I0720 14:03:44.536661  9046 net.cpp:425] lstm1_h_concat <- h_1
I0720 14:03:44.536670  9046 net.cpp:399] lstm1_h_concat -> h
I0720 14:03:44.536734  9046 net.cpp:141] Setting up lstm1_h_concat
I0720 14:03:44.536749  9046 net.cpp:148] Top shape: 1 1 1000 (1000)
I0720 14:03:44.536756  9046 net.cpp:156] Memory required for data: 94016
I0720 14:03:44.536763  9046 layer_factory.hpp:77] Creating layer h_pseudoloss
I0720 14:03:44.536775  9046 net.cpp:91] Creating Layer h_pseudoloss
I0720 14:03:44.536782  9046 net.cpp:425] h_pseudoloss <- h
I0720 14:03:44.536792  9046 net.cpp:399] h_pseudoloss -> h_pseudoloss
I0720 14:03:44.536983  9046 net.cpp:141] Setting up h_pseudoloss
…
I0720 14:03:44.537122  9046 net.cpp:219] lstm1_ does not need backward computation.
I0720 14:03:44.537127  9046 net.cpp:261] This network produces output c_T
I0720 14:03:44.537133  9046 net.cpp:261] This network produces output h_pseudoloss
I0720 14:03:44.537156  9046 net.cpp:274] Network initialization done.
I0720 14:03:44.537217  9046 recurrent_layer.cpp:150] Adding parameter 0: W_xc
I0720 14:03:44.537226  9046 recurrent_layer.cpp:150] Adding parameter 1: b_c
I0720 14:03:44.537233  9046 recurrent_layer.cpp:150] Adding parameter 2: W_hc
I0720 14:03:44.537405  9046 net.cpp:141] Setting up lstm1
I0720 14:03:44.537420  9046 net.cpp:148] Top shape: 1 1 1000 (1000)
I0720 14:03:44.537426  9046 net.cpp:156] Memory required for data: 26408
I0720 14:03:44.537444  9046 layer_factory.hpp:77] Creating layer concat
I0720 14:03:44.537457  9046 net.cpp:91] Creating Layer concat
I0720 14:03:44.537467  9046 net.cpp:425] concat <- lstm1
I0720 14:03:44.537477  9046 net.cpp:425] concat <- embedded_input_sentence
I0720 14:03:44.537484  9046 net.cpp:425] concat <- reshaped_stage_indicator
I0720 14:03:44.537493  9046 net.cpp:399] concat -> lstm1_video_sequence
I0720 14:03:44.537551  9046 net.cpp:141] Setting up concat
I0720 14:03:44.537564  9046 net.cpp:148] Top shape: 1 1 1501 (1501)
I0720 14:03:44.537570  9046 net.cpp:156] Memory required for data: 32412
I0720 14:03:44.537577  9046 layer_factory.hpp:77] Creating layer lstm2
I0720 14:03:44.537595  9046 net.cpp:91] Creating Layer lstm2
I0720 14:03:44.537602  9046 net.cpp:425] lstm2 <- lstm1_video_sequence
I0720 14:03:44.537611  9046 net.cpp:425] lstm2 <- cont_sentence_input_1_split_1
I0720 14:03:44.537622  9046 net.cpp:399] lstm2 -> lstm2
I0720 14:03:44.537636  9046 recurrent_layer.cpp:20] Initializing recurrent layer: assuming input batch contains 1 timesteps of 1 independent streams.
I0720 14:03:44.538003  9046 net.cpp:49] Initializing net from parameters: 
layer {
  name: "lstm2_"
  type: "Input"
  top: "x"
  top: "cont"
  input_param {
    shape {
      dim: 1
      dim: 1
      dim: 1501
    }
    shape {
      dim: 1
      dim: 1
    }
  }
}
layer {
  name: "lstm2_"
  type: "Input"
  top: "c_0"
  top: "h_0"
  input_param {
    shape {
      dim: 1
      dim: 1
      dim: 1000
    }
    shape {
      dim: 1
      dim: 1
      dim: 1000
    }
  }
}
layer {
  name: "lstm2_cont_slice"
  type: "Slice"
  bottom: "cont"
  top: "cont_1"
  slice_param {
    axis: 0
  }
}
layer {
  name: "lstm2_x_transform"
  type: "InnerProduct"
  bottom: "x"
  top: "W_xc_x"
  param {
    name: "W_xc"
  }
  param {
    name: "b_c"
  }
  propagate_down: true
  inner_product_param {
    num_output: 4000
    bias_term: true
    weight_filler {
      type: "uniform"
      min: -0.08
      max: 0.08
    }
    bias_filler {
      type: "constant"
      value: 0
    }
    axis: 2
  }
}
layer {
  name: "lstm2_W_xc_x_slice"
  type: "Slice"
  bottom: "W_xc_x"
  top: "W_xc_x_1"
  slice_param {
    axis: 0
  }
}
layer {
  name: "lstm2_h_conted_0"
  type: "Scale"
  bottom: "h_0"
  bottom: "cont_1"
  top: "h_conted_0"
  scale_param {
    axis: 0
  }
}
layer {
  name: "lstm2_transform_1"
  type: "InnerProduct"
  bottom: "h_conted_0"
  top: "W_hc_h_0"
  param {
    name: "W_hc"
  }
  inner_product_param {
    num_output: 4000
    bias_term: false
    weight_filler {
      type: "uniform"
      min: -0.08
      max: 0.08
    }
    axis: 2
  }
}
layer {
  name: "lstm2_gate_input_1"
  type: "Eltwise"
  bottom: "W_hc_h_0"
  bottom: "W_xc_x_1"
  top: "gate_input_1"
  eltwise_param {
    operation: SUM
  }
}
layer {
  name: "lstm2_unit_1"
  type: "LSTMUnit"
  bottom: "c_0"
  bottom: "gate_input_1"
  bottom: "cont_1"
  top: "c_1"
  top: "h_1"
}
layer {
  name: "lstm2_"
  type: "Split"
  bottom: "c_1"
  top: "c_T"
}
layer {
  name: "lstm2_h_concat"
  type: "Concat"
  bottom: "h_1"
  top: "h"
  concat_param {
    axis: 0
  }
}
layer {
  name: "h_pseudoloss"
  type: "Reduction"
  bottom: "h"
  top: "h_pseudoloss"
  loss_weight: 1
}
I0720 14:03:44.538130  9046 layer_factory.hpp:77] Creating layer lstm2_
I0720 14:03:44.538147  9046 net.cpp:91] Creating Layer lstm2_
I0720 14:03:44.538157  9046 net.cpp:399] lstm2_ -> x
I0720 14:03:44.538172  9046 net.cpp:399] lstm2_ -> cont
I0720 14:03:44.538271  9046 net.cpp:141] Setting up lstm2_
I0720 14:03:44.538285  9046 net.cpp:148] Top shape: 1 1 1501 (1501)
I0720 14:03:44.538295  9046 net.cpp:148] Top shape: 1 1 (1)
I0720 14:03:44.538300  9046 net.cpp:156] Memory required for data: 6008
I0720 14:03:44.538308  9046 layer_factory.hpp:77] Creating layer lstm2_
I0720 14:03:44.538328  9046 net.cpp:91] Creating Layer lstm2_
I0720 14:03:44.538339  9046 net.cpp:399] lstm2_ -> c_0
I0720 14:03:44.538357  9046 net.cpp:399] lstm2_ -> h_0
I0720 14:03:44.538460  9046 net.cpp:141] Setting up lstm2_
I0720 14:03:44.538475  9046 net.cpp:148] Top shape: 1 1 1000 (1000)
I0720 14:03:44.538482  9046 net.cpp:148] Top shape: 1 1 1000 (1000)
I0720 14:03:44.538488  9046 net.cpp:156] Memory required for data: 14008
I0720 14:03:44.538496  9046 layer_factory.hpp:77] Creating layer lstm2_cont_slice
I0720 14:03:44.538512  9046 net.cpp:91] Creating Layer lstm2_cont_slice
I0720 14:03:44.538521  9046 net.cpp:425] lstm2_cont_slice <- cont
I0720 14:03:44.538530  9046 net.cpp:399] lstm2_cont_slice -> cont_1
I0720 14:03:44.538595  9046 net.cpp:141] Setting up lstm2_cont_slice
I0720 14:03:44.538609  9046 net.cpp:148] Top shape: 1 1 (1)
I0720 14:03:44.538616  9046 net.cpp:156] Memory required for data: 14012
I0720 14:03:44.538624  9046 layer_factory.hpp:77] Creating layer cont_1_lstm2_cont_slice_0_split
I0720 14:03:44.538633  9046 net.cpp:91] Creating Layer cont_1_lstm2_cont_slice_0_split
I0720 14:03:44.538640  9046 net.cpp:425] cont_1_lstm2_cont_slice_0_split <- cont_1
I0720 14:03:44.538650  9046 net.cpp:399] cont_1_lstm2_cont_slice_0_split -> cont_1_lstm2_cont_slice_0_split_0
I0720 14:03:44.538661  9046 net.cpp:399] cont_1_lstm2_cont_slice_0_split -> cont_1_lstm2_cont_slice_0_split_1
I0720 14:03:44.538767  9046 net.cpp:141] Setting up cont_1_lstm2_cont_slice_0_split
I0720 14:03:44.538782  9046 net.cpp:148] Top shape: 1 1 (1)
I0720 14:03:44.538790  9046 net.cpp:148] Top shape: 1 1 (1)
I0720 14:03:44.538796  9046 net.cpp:156] Memory required for data: 14020
I0720 14:03:44.538805  9046 layer_factory.hpp:77] Creating layer lstm2_x_transform
I0720 14:03:44.538822  9046 net.cpp:91] Creating Layer lstm2_x_transform
I0720 14:03:44.538830  9046 net.cpp:425] lstm2_x_transform <- x
I0720 14:03:44.538844  9046 net.cpp:399] lstm2_x_transform -> W_xc_x
I0720 14:03:44.613005  9046 net.cpp:141] Setting up lstm2_x_transform
I0720 14:03:44.613050  9046 net.cpp:148] Top shape: 1 1 4000 (4000)
I0720 14:03:44.613056  9046 net.cpp:156] Memory required for data: 30020
I0720 14:03:44.613080  9046 layer_factory.hpp:77] Creating layer lstm2_W_xc_x_slice
I0720 14:03:44.613097  9046 net.cpp:91] Creating Layer lstm2_W_xc_x_slice
I0720 14:03:44.613103  9046 net.cpp:425] lstm2_W_xc_x_slice <- W_xc_x
I0720 14:03:44.613114  9046 net.cpp:399] lstm2_W_xc_x_slice -> W_xc_x_1
I0720 14:03:44.613174  9046 net.cpp:141] Setting up lstm2_W_xc_x_slice
I0720 14:03:44.613185  9046 net.cpp:148] Top shape: 1 1 4000 (4000)
I0720 14:03:44.613189  9046 net.cpp:156] Memory required for data: 46020
I0720 14:03:44.613194  9046 layer_factory.hpp:77] Creating layer lstm2_h_conted_0
I0720 14:03:44.613205  9046 net.cpp:91] Creating Layer lstm2_h_conted_0
I0720 14:03:44.613210  9046 net.cpp:425] lstm2_h_conted_0 <- h_0
I0720 14:03:44.613215  9046 net.cpp:425] lstm2_h_conted_0 <- cont_1_lstm2_cont_slice_0_split_0
I0720 14:03:44.613225  9046 net.cpp:399] lstm2_h_conted_0 -> h_conted_0
I0720 14:03:44.613370  9046 net.cpp:141] Setting up lstm2_h_conted_0
I0720 14:03:44.613379  9046 net.cpp:148] Top shape: 1 1 1000 (1000)
I0720 14:03:44.613384  9046 net.cpp:156] Memory required for data: 50020
I0720 14:03:44.613389  9046 layer_factory.hpp:77] Creating layer lstm2_transform_1
I0720 14:03:44.613404  9046 net.cpp:91] Creating Layer lstm2_transform_1
I0720 14:03:44.613409  9046 net.cpp:425] lstm2_transform_1 <- h_conted_0
I0720 14:03:44.613415  9046 net.cpp:399] lstm2_transform_1 -> W_hc_h_0
I0720 14:03:44.655743  9046 net.cpp:141] Setting up lstm2_transform_1
I0720 14:03:44.655798  9046 net.cpp:148] Top shape: 1 1 4000 (4000)
I0720 14:03:44.655805  9046 net.cpp:156] Memory required for data: 66020
I0720 14:03:44.655827  9046 layer_factory.hpp:77] Creating layer lstm2_gate_input_1
I0720 14:03:44.655848  9046 net.cpp:91] Creating Layer lstm2_gate_input_1
I0720 14:03:44.655854  9046 net.cpp:425] lstm2_gate_input_1 <- W_hc_h_0
I0720 14:03:44.655864  9046 net.cpp:425] lstm2_gate_input_1 <- W_xc_x_1
I0720 14:03:44.655876  9046 net.cpp:399] lstm2_gate_input_1 -> gate_input_1
I0720 14:03:44.655941  9046 net.cpp:141] Setting up lstm2_gate_input_1
I0720 14:03:44.655951  9046 net.cpp:148] Top shape: 1 1 4000 (4000)
I0720 14:03:44.655956  9046 net.cpp:156] Memory required for data: 82020
I0720 14:03:44.655961  9046 layer_factory.hpp:77] Creating layer lstm2_unit_1
I0720 14:03:44.655969  9046 net.cpp:91] Creating Layer lstm2_unit_1
I0720 14:03:44.655974  9046 net.cpp:425] lstm2_unit_1 <- c_0
I0720 14:03:44.655984  9046 net.cpp:425] lstm2_unit_1 <- gate_input_1
I0720 14:03:44.655990  9046 net.cpp:425] lstm2_unit_1 <- cont_1_lstm2_cont_slice_0_split_1
I0720 14:03:44.655997  9046 net.cpp:399] lstm2_unit_1 -> c_1
I0720 14:03:44.656005  9046 net.cpp:399] lstm2_unit_1 -> h_1
I0720 14:03:44.656100  9046 net.cpp:141] Setting up lstm2_unit_1
I0720 14:03:44.656110  9046 net.cpp:148] Top shape: 1 1 1000 (1000)
I0720 14:03:44.656114  9046 net.cpp:148] Top shape: 1 1 1000 (1000)
I0720 14:03:44.656118  9046 net.cpp:156] Memory required for data: 90020
I0720 14:03:44.656123  9046 layer_factory.hpp:77] Creating layer lstm2_
I0720 14:03:44.656131  9046 net.cpp:91] Creating Layer lstm2_
I0720 14:03:44.656136  9046 net.cpp:425] lstm2_ <- c_1
I0720 14:03:44.656143  9046 net.cpp:399] lstm2_ -> c_T
I0720 14:03:44.656189  9046 net.cpp:141] Setting up lstm2_
I0720 14:03:44.656198  9046 net.cpp:148] Top shape: 1 1 1000 (1000)
I0720 14:03:44.656203  9046 net.cpp:156] Memory required for data: 94020
I0720 14:03:44.656206  9046 layer_factory.hpp:77] Creating layer lstm2_h_concat
I0720 14:03:44.656216  9046 net.cpp:91] Creating Layer lstm2_h_concat
I0720 14:03:44.656220  9046 net.cpp:425] lstm2_h_concat <- h_1
I0720 14:03:44.656230  9046 net.cpp:399] lstm2_h_concat -> h
I0720 14:03:44.656278  9046 net.cpp:141] Setting up lstm2_h_concat
I0720 14:03:44.656287  9046 net.cpp:148] Top shape: 1 1 1000 (1000)
I0720 14:03:44.656291  9046 net.cpp:156] Memory required for data: 98020
I0720 14:03:44.656296  9046 layer_factory.hpp:77] Creating layer h_pseudoloss
I0720 14:03:44.656304  9046 net.cpp:91] Creating Layer h_pseudoloss
I0720 14:03:44.656309  9046 net.cpp:425] h_pseudoloss <- h
I0720 14:03:44.656383  9046 net.cpp:399] h_pseudoloss -> h_pseudoloss
I0720 14:03:44.656514  9046 net.cpp:141] Setting up h_pseudoloss
…
