…
Java HotSpot(TM) 64-Bit Server VM warning: You have loaded library /tmp/cvld1237162305225405367/libopencv_java310.xine1.so which might have disabled stack guard. The VM will try to fix the stack guard now.
It's highly recommended that you fix the library with 'execstack -c <libfile>', or link it with '-z noexecstack'.
WARNING: Logging before InitGoogleLogging() is written to STDERR
I0714 21:07:19.089273 15998 net.cpp:49] Initializing net from parameters: 
name: "GoogleNet"
state {
  phase: TEST
}
layer {
  name: "data"
  type: "Input"
  top: "data"
  input_param {
    shape {
      dim: 10
      dim: 3
      dim: 224
      dim: 224
    }
  }
}
layer {
  name: "conv1/7x7_s2"
  type: "Convolution"
  bottom: "data"
  top: "conv1/7x7_s2"
  param {
    lr_mult: 1
    decay_mult: 1
  }
  param {
    lr_mult: 2
    decay_mult: 0
  }
  convolution_param {
    num_output: 64
    pad: 3
    kernel_size: 7
    stride: 2
    weight_filler {
      type: "xavier"
      std: 0.1
    }
    bias_filler {
      type: "constant"
      value: 0.2
    }
  }
}
layer {
  name: "conv1/relu_7x7"
  type: "ReLU"
  bottom: "conv1/7x7_s2"
  top: "conv1/7x7_s2"
}
layer {
  name: "pool1/3x3_s2"
  type: "Pooling"
  bottom: "conv1/7x7_s2"
  top: "pool1/3x3_s2"
  pooling_param {
    pool: MAX
    kernel_size: 3
    stride: 2
  }
}
layer {
  name: "pool1/norm1"
  type: "LRN"
  bottom: "pool1/3x3_s2"
  top: "pool1/norm1"
  lrn_param {
    local_size: 5
    alpha: 0.0001
    beta: 0.75
  }
}
layer {
  name: "conv2/3x3_reduce"
  type: "Convolution"
  bottom: "pool1/norm1"
  top: "conv2/3x3_reduce"
  param {
    lr_mult: 1
    decay_mult: 1
  }
  param {
    lr_mult: 2
    decay_mult: 0
  }
  convolution_param {
    num_output: 64
    kernel_size: 1
    weight_filler {
      type: "xavier"
      std: 0.1
    }
    bias_filler {
      type: "constant"
      value: 0.2
    }
  }
}
layer {
  name: "conv2/relu_3x3_reduce"
  type: "ReLU"
  bottom: "conv2/3x3_reduce"
  top: "conv2/3x3_reduce"
}
layer {
  name: "conv2/3x3"
  type: "Convolution"
  bottom: "conv2/3x3_reduce"
  top: "conv2/3x3"
  param {
    lr_mult: 1
    decay_mult: 1
  }
  param {
    lr_mult: 2
    decay_mult: 0
  }
  convolution_param {
    num_output: 192
    pad: 1
    kernel_size: 3
    weight_filler {
      type: "xavier"
      std: 0.03
    }
    bias_filler {
      type: "constant"
      value: 0.2
    }
  }
}
layer {
  name: "conv2/relu_3x3"
  type: "ReLU"
  bottom: "conv2/3x3"
  top: "conv2/3x3"
}
layer {
  name: "conv2/norm2"
  type: "LRN"
  bottom: "conv2/3x3"
  top: "conv2/norm2"
  lrn_param {
    local_size: 5
    alpha: 0.0001
    beta: 0.75
  }
}
layer {
  name: "pool2/3x3_s2"
  type: "Pooling"
  bottom: "conv2/norm2"
  top: "pool2/3x3_s2"
  pooling_param {
    pool: MAX
    kernel_size: 3
    stride: 2
  }
}
layer {
  name: "inception_3a/1x1"
  type: "Convolution"
  bottom: "pool2/3x3_s2"
  top: "inception_3a/1x1"
  param {
    lr_mult: 1
    decay_mult: 1
  }
  param {
    lr_mult: 2
    decay_mult: 0
  }
  convolution_param {
    num_output: 64
    kernel_size: 1
    weight_filler {
      type: "xavier"
      std: 0.03
    }
    bias_filler {
      type: "constant"
      value: 0.2
    }
  }
}
layer {
  name: "inception_3a/relu_1x1"
  type: "ReLU"
  bottom: "inception_3a/1x1"
  top: "inception_3a/1x1"
}
layer {
  name: "inception_3a/3x3_reduce"
  type: "Convolution"
  bottom: "pool2/3x3_s2"
  top: "inception_3a/3x3_reduce"
  param {
    lr_mult: 1
    decay_mult: 1
  }
  param {
    lr_mult: 2
    decay_mult: 0
  }
  convolution_param {
    num_output: 96
    kernel_size: 1
    weight_filler {
      type: "xavier"
      std: 0.09
    }
    bias_filler {
      type: "constant"
      value: 0.2
    }
  }
}
layer {
  name: "inception_3a/relu_3x3_reduce"
  type: "ReLU"
  bottom: "inception_3a/3x3_reduce"
  top: "inception_3a/3x3_reduce"
}
layer {
  name: "inception_3a/3x3"
  type: "Convolution"
  bottom: "inception_3a/3x3_reduce"
  top: "inception_3a/3x3"
  param {
    lr_mult: 1
    decay_mult: 1
  }
  param {
    lr_mult: 2
    decay_mult: 0
  }
  convolution_param {
    num_output: 128
    pad: 1
    kernel_size: 3
    weight_filler {
      type: "xavier"
      std: 0.03
    }
    bias_filler {
      type: "constant"
      value: 0.2
    }
  }
}
layer {
  name: "inception_3a/relu_3x3"
  type: "ReLU"
  bottom: "inception_3a/3x3"
  top: "inception_3a/3x3"
}
layer {
  name: "inception_3a/5x5_reduce"
  type: "Convolution"
  bottom: "pool2/3x3_s2"
  top: "inception_3a/5x5_reduce"
  param {
    lr_mult: 1
    decay_mult: 1
  }
  param {
    lr_mult: 2
    decay_mult: 0
  }
  convolution_param {
    num_output: 16
    kernel_size: 1
    weight_filler {
      type: "xavier"
      std: 0.2
    }
    bias_filler {
      type: "constant"
      value: 0.2
    }
  }
}
layer {
  name: "inception_3a/relu_5x5_reduce"
  type: "ReLU"
  bottom: "inception_3a/5x5_reduce"
  top: "inception_3a/5x5_reduce"
}
layer {
  name: "inception_3a/5x5"
  type: "Convolution"
  bottom: "inception_3a/5x5_reduce"
  top: "inception_3a/5x5"
  param {
    lr_mult: 1
    decay_mult: 1
  }
  param {
    lr_mult: 2
    decay_mult: 0
  }
  convolution_param {
    num_output: 32
    pad: 2
    kernel_size: 5
    weight_filler {
      type: "xavier"
      std: 0.03
    }
    bias_filler {
      type: "constant"
      value: 0.2
    }
  }
}
layer {
  name: "inception_3a/relu_5x5"
  type: "ReLU"
  bottom: "inception_3a/5x5"
  top: "inception_3a/5x5"
}
layer {
  name: "inception_3a/pool"
  type: "Pooling"
  bottom: "pool2/3x3_s2"
  top: "inception_3a/pool"
  pooling_param {
    pool: MAX
    kernel_size: 3
    stride: 1
    pad: 1
  }
}
layer {
  name: "inception_3a/pool_proj"
  type: "Convolution"
  bottom: "inception_3a/pool"
  top: "inception_3a/pool_proj"
  param {
    lr_mult: 1
    decay_mult: 1
  }
  param {
    lr_mult: 2
    decay_mult: 0
  }
  convolution_param {
    num_output: 32
    kernel_size: 1
    weight_filler {
      type: "xavier"
      std: 0.1
    }
    bias_filler {
      type: "constant"
      value: 0.2
    }
  }
}
layer {
  name: "inception_3a/relu_pool_proj"
  type: "ReLU"
  bottom: "inception_3a/pool_proj"
  top: "inception_3a/pool_proj"
}
layer {
  name: "inception_3a/output"
  type: "Concat"
  bottom: "inception_3a/1x1"
  bottom: "inception_3a/3x3"
  bottom: "inception_3a/5x5"
  bottom: "inception_3a/pool_proj"
  top: "inception_3a/output"
}
layer {
  name: "inception_3b/1x1"
  type: "Convolution"
  bottom: "inception_3a/output"
  top: "inception_3b/1x1"
  param {
    lr_mult: 1
    decay_mult: 1
  }
  param {
    lr_mult: 2
    decay_mult: 0
  }
  convolution_param {
    num_output: 128
    kernel_size: 1
    weight_filler {
      type: "xavier"
      std: 0.03
    }
    bias_filler {
      type: "constant"
      value: 0.2
    }
  }
}
layer {
  name: "inception_3b/relu_1x1"
  type: "ReLU"
  bottom: "inception_3b/1x1"
  top: "inception_3b/1x1"
}
layer {
  name: "inception_3b/3x3_reduce"
  type: "Convolution"
  bottom: "inception_3a/output"
  top: "inception_3b/3x3_reduce"
  param {
    lr_mult: 1
    decay_mult: 1
  }
  param {
    lr_mult: 2
    decay_mult: 0
  }
  convolution_param {
    num_output: 128
    kernel_size: 1
    weight_filler {
      type: "xavier"
      std: 0.09
    }
    bias_filler {
      type: "constant"
      value: 0.2
    }
  }
}
layer {
  name: "inception_3b/relu_3x3_reduce"
  type: "ReLU"
  bottom: "inception_3b/3x3_reduce"
  top: "inception_3b/3x3_reduce"
}
layer {
  name: "inception_3b/3x3"
  type: "Convolution"
  bottom: "inception_3b/3x3_reduce"
  top: "inception_3b/3x3"
  param {
    lr_mult: 1
    decay_mult: 1
  }
  param {
    lr_mult: 2
    decay_mult: 0
  }
  convolution_param {
    num_output: 192
    pad: 1
    kernel_size: 3
    weight_filler {
      type: "xavier"
      std: 0.03
    }
    bias_filler {
      type: "constant"
      value: 0.2
    }
  }
}
layer {
  name: "inception_3b/relu_3x3"
  type: "ReLU"
  bottom: "inception_3b/3x3"
  top: "inception_3b/3x3"
}
layer {
  name: "inception_3b/5x5_reduce"
  type: "Convolution"
  bottom: "inception_3a/output"
  top: "inception_3b/5x5_reduce"
  param {
    lr_mult: 1
    decay_mult: 1
  }
  param {
    lr_mult: 2
    decay_mult: 0
  }
  convolution_param {
    num_output: 32
    kernel_size: 1
    weight_filler {
      type: "xavier"
      std: 0.2
    }
    bias_filler {
      type: "constant"
      value: 0.2
    }
  }
}
layer {
  name: "inception_3b/relu_5x5_reduce"
  type: "ReLU"
  bottom: "inception_3b/5x5_reduce"
  top: "inception_3b/5x5_reduce"
}
layer {
  name: "inception_3b/5x5"
  type: "Convolution"
  bottom: "inception_3b/5x5_reduce"
  top: "inception_3b/5x5"
  param {
    lr_mult: 1
    decay_mult: 1
  }
  param {
    lr_mult: 2
    decay_mult: 0
  }
  convolution_param {
    num_output: 96
    pad: 2
    kernel_size: 5
    weight_filler {
      type: "xavier"
      std: 0.03
    }
    bias_filler {
      type: "constant"
      value: 0.2
    }
  }
}
layer {
  name: "inception_3b/relu_5x5"
  type: "ReLU"
  bottom: "inception_3b/5x5"
  top: "inception_3b/5x5"
}
layer {
  name: "inception_3b/pool"
  type: "Pooling"
  bottom: "inception_3a/output"
  top: "inception_3b/pool"
  pooling_param {
    pool: MAX
    kernel_size: 3
    stride: 1
    pad: 1
  }
}
layer {
  name: "inception_3b/pool_proj"
  type: "Convolution"
  bottom: "inception_3b/pool"
  top: "inception_3b/pool_proj"
  param {
    lr_mult: 1
    decay_mult: 1
  }
  param {
    lr_mult: 2
    decay_mult: 0
  }
  convolution_param {
    num_output: 64
    kernel_size: 1
    weight_filler {
      type: "xavier"
      std: 0.1
    }
    bias_filler {
      type: "constant"
      value: 0.2
    }
  }
}
layer {
  name: "inception_3b/relu_pool_proj"
  type: "ReLU"
  bottom: "inception_3b/pool_proj"
  top: "inception_3b/pool_proj"
}
layer {
  name: "inception_3b/output"
  type: "Concat"
  bottom: "inception_3b/1x1"
  bottom: "inception_3b/3x3"
  bottom: "inception_3b/5x5"
  bottom: "inception_3b/pool_proj"
  top: "inception_3b/output"
}
layer {
  name: "pool3/3x3_s2"
  type: "Pooling"
  bottom: "inception_3b/output"
  top: "pool3/3x3_s2"
  pooling_param {
    pool: MAX
    kernel_size: 3
    stride: 2
  }
}
layer {
  name: "inception_4a/1x1"
  type: "Convolution"
  bottom: "pool3/3x3_s2"
  top: "inception_4a/1x1"
  param {
    lr_mult: 1
    decay_mult: 1
  }
  param {
    lr_mult: 2
    decay_mult: 0
  }
  convolution_param {
    num_output: 192
    kernel_size: 1
    weight_filler {
      type: "xavier"
      std: 0.03
    }
    bias_filler {
      type: "constant"
      value: 0.2
    }
  }
}
layer {
  name: "inception_4a/relu_1x1"
  type: "ReLU"
  bottom: "inception_4a/1x1"
  top: "inception_4a/1x1"
}
layer {
  name: "inception_4a/3x3_reduce"
  type: "Convolution"
  bottom: "pool3/3x3_s2"
  top: "inception_4a/3x3_reduce"
  param {
    lr_mult: 1
    decay_mult: 1
  }
  param {
    lr_mult: 2
    decay_mult: 0
  }
  convolution_param {
    num_output: 96
    kernel_size: 1
    weight_filler {
      type: "xavier"
      std: 0.09
    }
    bias_filler {
      type: "constant"
      value: 0.2
    }
  }
}
layer {
  name: "inception_4a/relu_3x3_reduce"
  type: "ReLU"
  bottom: "inception_4a/3x3_reduce"
  top: "inception_4a/3x3_reduce"
}
layer {
  name: "inception_4a/3x3"
  type: "Convolution"
  bottom: "inception_4a/3x3_reduce"
  top: "inception_4a/3x3"
  param {
    lr_mult: 1
    decay_mult: 1
  }
  param {
    lr_mult: 2
    decay_mult: 0
  }
  convolution_param {
    num_output: 208
    pad: 1
    kernel_size: 3
    weight_filler {
      type: "xavier"
      std: 0.03
    }
    bias_filler {
      type: "constant"
      value: 0.2
    }
  }
}
layer {
  name: "inception_4a/relu_3x3"
  type: "ReLU"
  bottom: "inception_4a/3x3"
  top: "inception_4a/3x3"
}
layer {
  name: "inception_4a/5x5_reduce"
  type: "Convolution"
  bottom: "pool3/3x3_s2"
  top: "inception_4a/5x5_reduce"
  param {
    lr_mult: 1
    decay_mult: 1
  }
  param {
    lr_mult: 2
    decay_mult: 0
  }
  convolution_param {
    num_output: 16
    kernel_size: 1
    weight_filler {
      type: "xavier"
      std: 0.2
    }
    bias_filler {
      type: "constant"
      value: 0.2
    }
  }
}
layer {
  name: "inception_4a/relu_5x5_reduce"
  type: "ReLU"
  bottom: "inception_4a/5x5_reduce"
  top: "inception_4a/5x5_reduce"
}
layer {
  name: "inception_4a/5x5"
  type: "Convolution"
  bottom: "inception_4a/5x5_reduce"
  top: "inception_4a/5x5"
  param {
    lr_mult: 1
    decay_mult: 1
  }
  param {
    lr_mult: 2
    decay_mult: 0
  }
  convolution_param {
    num_output: 48
    pad: 2
    kernel_size: 5
    weight_filler {
      type: "xavier"
      std: 0.03
    }
    bias_filler {
      type: "constant"
      value: 0.2
    }
  }
}
layer {
  name: "inception_4a/relu_5x5"
  type: "ReLU"
  bottom: "inception_4a/5x5"
  top: "inception_4a/5x5"
}
layer {
  name: "inception_4a/pool"
  type: "Pooling"
  bottom: "pool3/3x3_s2"
  top: "inception_4a/pool"
  pooling_param {
    pool: MAX
    kernel_size: 3
    stride: 1
    pad: 1
  }
}
layer {
  name: "inception_4a/pool_proj"
  type: "Convolution"
  bottom: "inception_4a/pool"
  top: "inception_4a/pool_proj"
  param {
    lr_mult: 1
    decay_mult: 1
  }
  param {
    lr_mult: 2
    decay_mult: 0
  }
  convolution_param {
    num_output: 64
    kernel_size: 1
    weight_filler {
      type: "xavier"
      std: 0.1
    }
    bias_filler {
      type: "constant"
      value: 0.2
    }
  }
}
layer {
  name: "inception_4a/relu_pool_proj"
  type: "ReLU"
  bottom: "inception_4a/pool_proj"
  top: "inception_4a/pool_proj"
}
layer {
  name: "inception_4a/output"
  type: "Concat"
  bottom: "inception_4a/1x1"
  bottom: "inception_4a/3x3"
  bottom: "inception_4a/5x5"
  bottom: "inception_4a/pool_proj"
  top: "inception_4a/output"
}
layer {
  name: "inception_4b/1x1"
  type: "Convolution"
  bottom: "inception_4a/output"
  top: "inception_4b/1x1"
  param {
    lr_mult: 1
    decay_mult: 1
  }
  param {
    lr_mult: 2
    decay_mult: 0
  }
  convolution_param {
    num_output: 160
    kernel_size: 1
    weight_filler {
      type: "xavier"
      std: 0.03
    }
    bias_filler {
      type: "constant"
      value: 0.2
    }
  }
}
layer {
  name: "inception_4b/relu_1x1"
  type: "ReLU"
  bottom: "inception_4b/1x1"
  top: "inception_4b/1x1"
}
layer {
  name: "inception_4b/3x3_reduce"
  type: "Convolution"
  bottom: "inception_4a/output"
  top: "inception_4b/3x3_reduce"
  param {
    lr_mult: 1
    decay_mult: 1
  }
  param {
    lr_mult: 2
    decay_mult: 0
  }
  convolution_param {
    num_output: 112
    kernel_size: 1
    weight_filler {
      type: "xavier"
      std: 0.09
    }
    bias_filler {
      type: "constant"
      value: 0.2
    }
  }
}
layer {
  name: "inception_4b/relu_3x3_reduce"
  type: "ReLU"
  bottom: "inception_4b/3x3_reduce"
  top: "inception_4b/3x3_reduce"
}
layer {
  name: "inception_4b/3x3"
  type: "Convolution"
  bottom: "inception_4b/3x3_reduce"
  top: "inception_4b/3x3"
  param {
    lr_mult: 1
    decay_mult: 1
  }
  param {
    lr_mult: 2
    decay_mult: 0
  }
  convolution_param {
    num_output: 224
    pad: 1
    kernel_size: 3
    weight_filler {
      type: "xavier"
      std: 0.03
    }
    bias_filler {
      type: "constant"
      value: 0.2
    }
  }
}
layer {
  name: "inception_4b/relu_3x3"
  type: "ReLU"
  bottom: "inception_4b/3x3"
  top: "inception_4b/3x3"
}
layer {
  name: "inception_4b/5x5_reduce"
  type: "Convolution"
  bottom: "inception_4a/output"
  top: "inception_4b/5x5_reduce"
  param {
    lr_mult: 1
    decay_mult: 1
  }
  param {
    lr_mult: 2
    decay_mult: 0
  }
  convolution_param {
    num_output: 24
    kernel_size: 1
    weight_filler {
      type: "xavier"
      std: 0.2
    }
    bias_filler {
      type: "constant"
      value: 0.2
    }
  }
}
layer {
  name: "inception_4b/relu_5x5_reduce"
  type: "ReLU"
  bottom: "inception_4b/5x5_reduce"
  top: "inception_4b/5x5_reduce"
}
layer {
  name: "inception_4b/5x5"
  type: "Convolution"
  bottom: "inception_4b/5x5_reduce"
  top: "inception_4b/5x5"
  param {
    lr_mult: 1
    decay_mult: 1
  }
  param {
    lr_mult: 2
    decay_mult: 0
  }
  convolution_param {
    num_output: 64
    pad: 2
    kernel_size: 5
    weight_filler {
      type: "xavier"
      std: 0.03
    }
    bias_filler {
      type: "constant"
      value: 0.2
    }
  }
}
layer {
  name: "inception_4b/relu_5x5"
  type: "ReLU"
  bottom: "inception_4b/5x5"
  top: "inception_4b/5x5"
}
layer {
  name: "inception_4b/pool"
  type: "Pooling"
  bottom: "inception_4a/output"
  top: "inception_4b/pool"
  pooling_param {
    pool: MAX
    kernel_size: 3
    stride: 1
    pad: 1
  }
}
layer {
  name: "inception_4b/pool_proj"
  type: "Convolution"
  bottom: "inception_4b/pool"
  top: "inception_4b/pool_proj"
  param {
    lr_mult: 1
    decay_mult: 1
  }
  param {
    lr_mult: 2
    decay_mult: 0
  }
  convolution_param {
    num_output: 64
    kernel_size: 1
    weight_filler {
      type: "xavier"
      std: 0.1
    }
    bias_filler {
      type: "constant"
      value: 0.2
    }
  }
}
layer {
  name: "inception_4b/relu_pool_proj"
  type: "ReLU"
  bottom: "inception_4b/pool_proj"
  top: "inception_4b/pool_proj"
}
layer {
  name: "inception_4b/output"
  type: "Concat"
  bottom: "inception_4b/1x1"
  bottom: "inception_4b/3x3"
  bottom: "inception_4b/5x5"
  bottom: "inception_4b/pool_proj"
  top: "inception_4b/output"
}
layer {
  name: "inception_4c/1x1"
  type: "Convolution"
  bottom: "inception_4b/output"
  top: "inception_4c/1x1"
  param {
    lr_mult: 1
    decay_mult: 1
  }
  param {
    lr_mult: 2
    decay_mult: 0
  }
  convolution_param {
    num_output: 128
    kernel_size: 1
    weight_filler {
      type: "xavier"
      std: 0.03
    }
    bias_filler {
      type: "constant"
      value: 0.2
    }
  }
}
layer {
  name: "inception_4c/relu_1x1"
  type: "ReLU"
  bottom: "inception_4c/1x1"
  top: "inception_4c/1x1"
}
layer {
  name: "inception_4c/3x3_reduce"
  type: "Convolution"
  bottom: "inception_4b/output"
  top: "inception_4c/3x3_reduce"
  param {
    lr_mult: 1
    decay_mult: 1
  }
  param {
    lr_mult: 2
    decay_mult: 0
  }
  convolution_param {
    num_output: 128
    kernel_size: 1
    weight_filler {
      type: "xavier"
      std: 0.09
    }
    bias_filler {
      type: "constant"
      value: 0.2
    }
  }
}
layer {
  name: "inception_4c/relu_3x3_reduce"
  type: "ReLU"
  bottom: "inception_4c/3x3_reduce"
  top: "inception_4c/3x3_reduce"
}
layer {
  name: "inception_4c/3x3"
  type: "Convolution"
  bottom: "inception_4c/3x3_reduce"
  top: "inception_4c/3x3"
  param {
    lr_mult: 1
    decay_mult: 1
  }
  param {
    lr_mult: 2
    decay_mult: 0
  }
  convolution_param {
    num_output: 256
    pad: 1
    kernel_size: 3
    weight_filler {
      type: "xavier"
      std: 0.03
    }
    bias_filler {
      type: "constant"
      value: 0.2
    }
  }
}
layer {
  name: "inception_4c/relu_3x3"
  type: "ReLU"
  bottom: "inception_4c/3x3"
  top: "inception_4c/3x3"
}
layer {
  name: "inception_4c/5x5_reduce"
  type: "Convolution"
  bottom: "inception_4b/output"
  top: "inception_4c/5x5_reduce"
  param {
    lr_mult: 1
    decay_mult: 1
  }
  param {
    lr_mult: 2
    decay_mult: 0
  }
  convolution_param {
    num_output: 24
    kernel_size: 1
    weight_filler {
      type: "xavier"
      std: 0.2
    }
    bias_filler {
      type: "constant"
      value: 0.2
    }
  }
}
layer {
  name: "inception_4c/relu_5x5_reduce"
  type: "ReLU"
  bottom: "inception_4c/5x5_reduce"
  top: "inception_4c/5x5_reduce"
}
layer {
  name: "inception_4c/5x5"
  type: "Convolution"
  bottom: "inception_4c/5x5_reduce"
  top: "inception_4c/5x5"
  param {
    lr_mult: 1
    decay_mult: 1
  }
  param {
    lr_mult: 2
    decay_mult: 0
  }
  convolution_param {
    num_output: 64
    pad: 2
    kernel_size: 5
    weight_filler {
      type: "xavier"
      std: 0.03
    }
    bias_filler {
      type: "constant"
      value: 0.2
    }
  }
}
layer {
  name: "inception_4c/relu_5x5"
  type: "ReLU"
  bottom: "inception_4c/5x5"
  top: "inception_4c/5x5"
}
layer {
  name: "inception_4c/pool"
  type: "Pooling"
  bottom: "inception_4b/output"
  top: "inception_4c/pool"
  pooling_param {
    pool: MAX
    kernel_size: 3
    stride: 1
    pad: 1
  }
}
layer {
  name: "inception_4c/pool_proj"
  type: "Convolution"
  bottom: "inception_4c/pool"
  top: "inception_4c/pool_proj"
  param {
    lr_mult: 1
    decay_mult: 1
  }
  param {
    lr_mult: 2
    decay_mult: 0
  }
  convolution_param {
    num_output: 64
    kernel_size: 1
    weight_filler {
      type: "xavier"
      std: 0.1
    }
    bias_filler {
      type: "constant"
      value: 0.2
    }
  }
}
layer {
  name: "inception_4c/relu_pool_proj"
  type: "ReLU"
  bottom: "inception_4c/pool_proj"
  top: "inception_4c/pool_proj"
}
layer {
  name: "inception_4c/output"
  type: "Concat"
  bottom: "inception_4c/1x1"
  bottom: "inception_4c/3x3"
  bottom: "inception_4c/5x5"
  bottom: "inception_4c/pool_proj"
  top: "inception_4c/output"
}
layer {
  name: "inception_4d/1x1"
  type: "Convolution"
  bottom: "inception_4c/output"
  top: "inception_4d/1x1"
  param {
    lr_mult: 1
    decay_mult: 1
  }
  param {
    lr_mult: 2
    decay_mult: 0
  }
  convolution_param {
    num_output: 112
    kernel_size: 1
    weight_filler {
      type: "xavier"
      std: 0.03
    }
    bias_filler {
      type: "constant"
      value: 0.2
    }
  }
}
layer {
  name: "inception_4d/relu_1x1"
  type: "ReLU"
  bottom: "inception_4d/1x1"
  top: "inception_4d/1x1"
}
layer {
  name: "inception_4d/3x3_reduce"
  type: "Convolution"
  bottom: "inception_4c/output"
  top: "inception_4d/3x3_reduce"
  param {
    lr_mult: 1
    decay_mult: 1
  }
  param {
    lr_mult: 2
    decay_mult: 0
  }
  convolution_param {
    num_output: 144
    kernel_size: 1
    weight_filler {
      type: "xavier"
      std: 0.09
    }
    bias_filler {
      type: "constant"
      value: 0.2
    }
  }
}
layer {
  name: "inception_4d/relu_3x3_reduce"
  type: "ReLU"
  bottom: "inception_4d/3x3_reduce"
  top: "inception_4d/3x3_reduce"
}
layer {
  name: "inception_4d/3x3"
  type: "Convolution"
  bottom: "inception_4d/3x3_reduce"
  top: "inception_4d/3x3"
  param {
    lr_mult: 1
    decay_mult: 1
  }
  param {
    lr_mult: 2
    decay_mult: 0
  }
  convolution_param {
    num_output: 288
    pad: 1
    kernel_size: 3
    weight_filler {
      type: "xavier"
      std: 0.03
    }
    bias_filler {
      type: "constant"
      value: 0.2
    }
  }
}
layer {
  name: "inception_4d/relu_3x3"
  type: "ReLU"
  bottom: "inception_4d/3x3"
  top: "inception_4d/3x3"
}
layer {
  name: "inception_4d/5x5_reduce"
  type: "Convolution"
  bottom: "inception_4c/output"
  top: "inception_4d/5x5_reduce"
  param {
    lr_mult: 1
    decay_mult: 1
  }
  param {
    lr_mult: 2
    decay_mult: 0
  }
  convolution_param {
    num_output: 32
    kernel_size: 1
    weight_filler {
      type: "xavier"
      std: 0.2
    }
    bias_filler {
      type: "constant"
      value: 0.2
    }
  }
}
layer {
  name: "inception_4d/relu_5x5_reduce"
  type: "ReLU"
  bottom: "inception_4d/5x5_reduce"
  top: "inception_4d/5x5_reduce"
}
layer {
  name: "inception_4d/5x5"
  type: "Convolution"
  bottom: "inception_4d/5x5_reduce"
  top: "inception_4d/5x5"
  param {
    lr_mult: 1
    decay_mult: 1
  }
  param {
    lr_mult: 2
    decay_mult: 0
  }
  convolution_param {
    num_output: 64
    pad: 2
    kernel_size: 5
    weight_filler {
      type: "xavier"
      std: 0.03
    }
    bias_filler {
      type: "constant"
      value: 0.2
    }
  }
}
layer {
  name: "inception_4d/relu_5x5"
  type: "ReLU"
  bottom: "inception_4d/5x5"
  top: "inception_4d/5x5"
}
layer {
  name: "inception_4d/pool"
  type: "Pooling"
  bottom: "inception_4c/output"
  top: "inception_4d/pool"
  pooling_param {
    pool: MAX
    kernel_size: 3
    stride: 1
    pad: 1
  }
}
layer {
  name: "inception_4d/pool_proj"
  type: "Convolution"
  bottom: "inception_4d/pool"
  top: "inception_4d/pool_proj"
  param {
    lr_mult: 1
    decay_mult: 1
  }
  param {
    lr_mult: 2
    decay_mult: 0
  }
  convolution_param {
    num_output: 64
    kernel_size: 1
    weight_filler {
      type: "xavier"
      std: 0.1
    }
    bias_filler {
      type: "constant"
      value: 0.2
    }
  }
}
layer {
  name: "inception_4d/relu_pool_proj"
  type: "ReLU"
  bottom: "inception_4d/pool_proj"
  top: "inception_4d/pool_proj"
}
layer {
  name: "inception_4d/output"
  type: "Concat"
  bottom: "inception_4d/1x1"
  bottom: "inception_4d/3x3"
  bottom: "inception_4d/5x5"
  bottom: "inception_4d/pool_proj"
  top: "inception_4d/output"
}
layer {
  name: "inception_4e/1x1"
  type: "Convolution"
  bottom: "inception_4d/output"
  top: "inception_4e/1x1"
  param {
    lr_mult: 1
    decay_mult: 1
  }
  param {
    lr_mult: 2
    decay_mult: 0
  }
  convolution_param {
    num_output: 256
    kernel_size: 1
    weight_filler {
      type: "xavier"
      std: 0.03
    }
    bias_filler {
      type: "constant"
      value: 0.2
    }
  }
}
layer {
  name: "inception_4e/relu_1x1"
  type: "ReLU"
  bottom: "inception_4e/1x1"
  top: "inception_4e/1x1"
}
layer {
  name: "inception_4e/3x3_reduce"
  type: "Convolution"
  bottom: "inception_4d/output"
  top: "inception_4e/3x3_reduce"
  param {
    lr_mult: 1
    decay_mult: 1
  }
  param {
    lr_mult: 2
    decay_mult: 0
  }
  convolution_param {
    num_output: 160
    kernel_size: 1
    weight_filler {
      type: "xavier"
      std: 0.09
    }
    bias_filler {
      type: "constant"
      value: 0.2
    }
  }
}
layer {
  name: "inception_4e/relu_3x3_reduce"
  type: "ReLU"
  bottom: "inception_4e/3x3_reduce"
  top: "inception_4e/3x3_reduce"
}
layer {
  name: "inception_4e/3x3"
  type: "Convolution"
  bottom: "inception_4e/3x3_reduce"
  top: "inception_4e/3x3"
  param {
    lr_mult: 1
    decay_mult: 1
  }
  param {
    lr_mult: 2
    decay_mult: 0
  }
  convolution_param {
    num_output: 320
    pad: 1
    kernel_size: 3
    weight_filler {
      type: "xavier"
      std: 0.03
    }
    bias_filler {
      type: "constant"
      value: 0.2
    }
  }
}
layer {
  name: "inception_4e/relu_3x3"
  type: "ReLU"
  bottom: "inception_4e/3x3"
  top: "inception_4e/3x3"
}
layer {
  name: "inception_4e/5x5_reduce"
  type: "Convolution"
  bottom: "inception_4d/output"
  top: "inception_4e/5x5_reduce"
  param {
    lr_mult: 1
    decay_mult: 1
  }
  param {
    lr_mult: 2
    decay_mult: 0
  }
  convolution_param {
    num_output: 32
    kernel_size: 1
    weight_filler {
      type: "xavier"
      std: 0.2
    }
    bias_filler {
      type: "constant"
      value: 0.2
    }
  }
}
layer {
  name: "inception_4e/relu_5x5_reduce"
  type: "ReLU"
  bottom: "inception_4e/5x5_reduce"
  top: "inception_4e/5x5_reduce"
}
layer {
  name: "inception_4e/5x5"
  type: "Convolution"
  bottom: "inception_4e/5x5_reduce"
  top: "inception_4e/5x5"
  param {
    lr_mult: 1
    decay_mult: 1
  }
  param {
    lr_mult: 2
    decay_mult: 0
  }
  convolution_param {
    num_output: 128
    pad: 2
    kernel_size: 5
    weight_filler {
      type: "xavier"
      std: 0.03
    }
    bias_filler {
      type: "constant"
      value: 0.2
    }
  }
}
layer {
  name: "inception_4e/relu_5x5"
  type: "ReLU"
  bottom: "inception_4e/5x5"
  top: "inception_4e/5x5"
}
layer {
  name: "inception_4e/pool"
  type: "Pooling"
  bottom: "inception_4d/output"
  top: "inception_4e/pool"
  pooling_param {
    pool: MAX
    kernel_size: 3
    stride: 1
    pad: 1
  }
}
layer {
  name: "inception_4e/pool_proj"
  type: "Convolution"
  bottom: "inception_4e/pool"
  top: "inception_4e/pool_proj"
  param {
    lr_mult: 1
    decay_mult: 1
  }
  param {
    lr_mult: 2
    decay_mult: 0
  }
  convolution_param {
    num_output: 128
    kernel_size: 1
    weight_filler {
      type: "xavier"
      std: 0.1
    }
    bias_filler {
      type: "constant"
      value: 0.2
    }
  }
}
layer {
  name: "inception_4e/relu_pool_proj"
  type: "ReLU"
  bottom: "inception_4e/pool_proj"
  top: "inception_4e/pool_proj"
}
layer {
  name: "inception_4e/output"
  type: "Concat"
  bottom: "inception_4e/1x1"
  bottom: "inception_4e/3x3"
  bottom: "inception_4e/5x5"
  bottom: "inception_4e/pool_proj"
  top: "inception_4e/output"
}
layer {
  name: "pool4/3x3_s2"
  type: "Pooling"
  bottom: "inception_4e/output"
  top: "pool4/3x3_s2"
  pooling_param {
    pool: MAX
    kernel_size: 3
    stride: 2
  }
}
layer {
  name: "inception_5a/1x1"
  type: "Convolution"
  bottom: "pool4/3x3_s2"
  top: "inception_5a/1x1"
  param {
    lr_mult: 1
    decay_mult: 1
  }
  param {
    lr_mult: 2
    decay_mult: 0
  }
  convolution_param {
    num_output: 256
    kernel_size: 1
    weight_filler {
      type: "xavier"
      std: 0.03
    }
    bias_filler {
      type: "constant"
      value: 0.2
    }
  }
}
layer {
  name: "inception_5a/relu_1x1"
  type: "ReLU"
  bottom: "inception_5a/1x1"
  top: "inception_5a/1x1"
}
layer {
  name: "inception_5a/3x3_reduce"
  type: "Convolution"
  bottom: "pool4/3x3_s2"
  top: "inception_5a/3x3_reduce"
  param {
    lr_mult: 1
    decay_mult: 1
  }
  param {
    lr_mult: 2
    decay_mult: 0
  }
  convolution_param {
    num_output: 160
    kernel_size: 1
    weight_filler {
      type: "xavier"
      std: 0.09
    }
    bias_filler {
      type: "constant"
      value: 0.2
    }
  }
}
layer {
  name: "inception_5a/relu_3x3_reduce"
  type: "ReLU"
  bottom: "inception_5a/3x3_reduce"
  top: "inception_5a/3x3_reduce"
}
layer {
  name: "inception_5a/3x3"
  type: "Convolution"
  bottom: "inception_5a/3x3_reduce"
  top: "inception_5a/3x3"
  param {
    lr_mult: 1
    decay_mult: 1
  }
  param {
    lr_mult: 2
    decay_mult: 0
  }
  convolution_param {
    num_output: 320
    pad: 1
    kernel_size: 3
    weight_filler {
      type: "xavier"
      std: 0.03
    }
    bias_filler {
      type: "constant"
      value: 0.2
    }
  }
}
layer {
  name: "inception_5a/relu_3x3"
  type: "ReLU"
  bottom: "inception_5a/3x3"
  top: "inception_5a/3x3"
}
layer {
  name: "inception_5a/5x5_reduce"
  type: "Convolution"
  bottom: "pool4/3x3_s2"
  top: "inception_5a/5x5_reduce"
  param {
    lr_mult: 1
    decay_mult: 1
  }
  param {
    lr_mult: 2
    decay_mult: 0
  }
  convolution_param {
    num_output: 32
    kernel_size: 1
    weight_filler {
      type: "xavier"
      std: 0.2
    }
    bias_filler {
      type: "constant"
      value: 0.2
    }
I0714 21:07:19.090325 15998 layer_factory.hpp:77] Creating layer data
I0714 21:07:19.090354 15998 net.cpp:91] Creating Layer data
I0714 21:07:19.090366 15998 net.cpp:399] data -> data
I0714 21:07:19.098122 16002 net.cpp:49] Initializing net from parameters: 
name: "GoogleNet"
state {
  phase: TEST
}
layer {
  name: "data"
  type: "Input"
  top: "data"
  input_param {
    shape {
      dim: 10
      dim: 3
      dim: 224
      dim: 224
    }
  }
}
layer {
  name: "conv1/7x7_s2"
  type: "Convolution"
  bottom: "data"
  top: "conv1/7x7_s2"
  param {
    lr_mult: 1
    decay_mult: 1
  }
  param {
    lr_mult: 2
    decay_mult: 0
  }
  convolution_param {
    num_output: 64
    pad: 3
    kernel_size: 7
    stride: 2
    weight_filler {
      type: "xavier"
      std: 0.1
    }
    bias_filler {
      type: "constant"
      value: 0.2
    }
  }
}
layer {
  name: "conv1/relu_7x7"
  type: "ReLU"
  bottom: "conv1/7x7_s2"
  top: "conv1/7x7_s2"
}
layer {
  name: "pool1/3x3_s2"
  type: "Pooling"
  bottom: "conv1/7x7_s2"
  top: "pool1/3x3_s2"
  pooling_param {
    pool: MAX
    kernel_size: 3
    stride: 2
  }
}
layer {
  name: "pool1/norm1"
  type: "LRN"
  bottom: "pool1/3x3_s2"
  top: "pool1/norm1"
  lrn_param {
    local_size: 5
    alpha: 0.0001
    beta: 0.75
  }
}
layer {
  name: "conv2/3x3_reduce"
  type: "Convolution"
  bottom: "pool1/norm1"
  top: "conv2/3x3_reduce"
  param {
    lr_mult: 1
    decay_mult: 1
  }
  param {
    lr_mult: 2
    decay_mult: 0
  }
  convolution_param {
    num_output: 64
    kernel_size: 1
    weight_filler {
      type: "xavier"
      std: 0.1
    }
    bias_filler {
      type: "constant"
      value: 0.2
    }
  }
}
layer {
  name: "conv2/relu_3x3_reduce"
  type: "ReLU"
  bottom: "conv2/3x3_reduce"
  top: "conv2/3x3_reduce"
}
layer {
  name: "conv2/3x3"
  type: "Convolution"
  bottom: "conv2/3x3_reduce"
  top: "conv2/3x3"
  param {
    lr_mult: 1
    decay_mult: 1
  }
  param {
    lr_mult: 2
    decay_mult: 0
  }
  convolution_param {
    num_output: 192
    pad: 1
    kernel_size: 3
    weight_filler {
      type: "xavier"
      std: 0.03
    }
    bias_filler {
      type: "constant"
      value: 0.2
    }
  }
}
layer {
  name: "conv2/relu_3x3"
  type: "ReLU"
  bottom: "conv2/3x3"
  top: "conv2/3x3"
}
layer {
  name: "conv2/norm2"
  type: "LRN"
  bottom: "conv2/3x3"
  top: "conv2/norm2"
  lrn_param {
    local_size: 5
    alpha: 0.0001
    beta: 0.75
  }
}
layer {
  name: "pool2/3x3_s2"
  type: "Pooling"
  bottom: "conv2/norm2"
  top: "pool2/3x3_s2"
  pooling_param {
    pool: MAX
    kernel_size: 3
    stride: 2
  }
}
layer {
  name: "inception_3a/1x1"
  type: "Convolution"
  bottom: "pool2/3x3_s2"
  top: "inception_3a/1x1"
  param {
    lr_mult: 1
    decay_mult: 1
  }
  param {
    lr_mult: 2
    decay_mult: 0
  }
  convolution_param {
    num_output: 64
    kernel_size: 1
    weight_filler {
      type: "xavier"
      std: 0.03
    }
    bias_filler {
      type: "constant"
      value: 0.2
    }
  }
}
layer {
  name: "inception_3a/relu_1x1"
  type: "ReLU"
  bottom: "inception_3a/1x1"
  top: "inception_3a/1x1"
}
layer {
  name: "inception_3a/3x3_reduce"
  type: "Convolution"
  bottom: "pool2/3x3_s2"
  top: "inception_3a/3x3_reduce"
  param {
    lr_mult: 1
    decay_mult: 1
  }
  param {
    lr_mult: 2
    decay_mult: 0
  }
  convolution_param {
    num_output: 96
    kernel_size: 1
    weight_filler {
      type: "xavier"
      std: 0.09
    }
    bias_filler {
      type: "constant"
      value: 0.2
    }
  }
}
layer {
  name: "inception_3a/relu_3x3_reduce"
  type: "ReLU"
  bottom: "inception_3a/3x3_reduce"
  top: "inception_3a/3x3_reduce"
}
layer {
  name: "inception_3a/3x3"
  type: "Convolution"
  bottom: "inception_3a/3x3_reduce"
  top: "inception_3a/3x3"
  param {
    lr_mult: 1
    decay_mult: 1
  }
  param {
    lr_mult: 2
    decay_mult: 0
  }
  convolution_param {
    num_output: 128
    pad: 1
    kernel_size: 3
    weight_filler {
      type: "xavier"
      std: 0.03
    }
    bias_filler {
      type: "constant"
      value: 0.2
    }
  }
}
layer {
  name: "inception_3a/relu_3x3"
  type: "ReLU"
  bottom: "inception_3a/3x3"
  top: "inception_3a/3x3"
}
layer {
  name: "inception_3a/5x5_reduce"
  type: "Convolution"
  bottom: "pool2/3x3_s2"
  top: "inception_3a/5x5_reduce"
  param {
    lr_mult: 1
    decay_mult: 1
  }
  param {
    lr_mult: 2
    decay_mult: 0
  }
  convolution_param {
    num_output: 16
    kernel_size: 1
    weight_filler {
      type: "xavier"
      std: 0.2
    }
    bias_filler {
      type: "constant"
      value: 0.2
    }
  }
}
layer {
  name: "inception_3a/relu_5x5_reduce"
  type: "ReLU"
  bottom: "inception_3a/5x5_reduce"
  top: "inception_3a/5x5_reduce"
}
layer {
  name: "inception_3a/5x5"
  type: "Convolution"
  bottom: "inception_3a/5x5_reduce"
  top: "inception_3a/5x5"
  param {
    lr_mult: 1
    decay_mult: 1
  }
  param {
    lr_mult: 2
    decay_mult: 0
  }
  convolution_param {
    num_output: 32
    pad: 2
    kernel_size: 5
    weight_filler {
      type: "xavier"
      std: 0.03
    }
    bias_filler {
      type: "constant"
      value: 0.2
    }
  }
}
layer {
  name: "inception_3a/relu_5x5"
  type: "ReLU"
  bottom: "inception_3a/5x5"
  top: "inception_3a/5x5"
}
layer {
  name: "inception_3a/pool"
  type: "Pooling"
  bottom: "pool2/3x3_s2"
  top: "inception_3a/pool"
  pooling_param {
    pool: MAX
    kernel_size: 3
    stride: 1
    pad: 1
  }
}
layer {
  name: "inception_3a/pool_proj"
  type: "Convolution"
  bottom: "inception_3a/pool"
  top: "inception_3a/pool_proj"
  param {
    lr_mult: 1
    decay_mult: 1
  }
  param {
    lr_mult: 2
    decay_mult: 0
  }
  convolution_param {
    num_output: 32
    kernel_size: 1
    weight_filler {
      type: "xavier"
      std: 0.1
    }
    bias_filler {
      type: "constant"
      value: 0.2
    }
  }
}
layer {
  name: "inception_3a/relu_pool_proj"
  type: "ReLU"
  bottom: "inception_3a/pool_proj"
  top: "inception_3a/pool_proj"
}
layer {
  name: "inception_3a/output"
  type: "Concat"
  bottom: "inception_3a/1x1"
  bottom: "inception_3a/3x3"
  bottom: "inception_3a/5x5"
  bottom: "inception_3a/pool_proj"
  top: "inception_3a/output"
}
layer {
  name: "inception_3b/1x1"
  type: "Convolution"
  bottom: "inception_3a/output"
  top: "inception_3b/1x1"
  param {
    lr_mult: 1
    decay_mult: 1
  }
  param {
    lr_mult: 2
    decay_mult: 0
  }
  convolution_param {
    num_output: 128
    kernel_size: 1
    weight_filler {
      type: "xavier"
      std: 0.03
    }
    bias_filler {
      type: "constant"
      value: 0.2
    }
  }
}
layer {
  name: "inception_3b/relu_1x1"
  type: "ReLU"
  bottom: "inception_3b/1x1"
  top: "inception_3b/1x1"
}
layer {
  name: "inception_3b/3x3_reduce"
  type: "Convolution"
  bottom: "inception_3a/output"
  top: "inception_3b/3x3_reduce"
  param {
    lr_mult: 1
    decay_mult: 1
  }
  param {
    lr_mult: 2
    decay_mult: 0
  }
  convolution_param {
    num_output: 128
    kernel_size: 1
    weight_filler {
      type: "xavier"
      std: 0.09
    }
    bias_filler {
      type: "constant"
      value: 0.2
    }
  }
}
layer {
  name: "inception_3b/relu_3x3_reduce"
  type: "ReLU"
  bottom: "inception_3b/3x3_reduce"
  top: "inception_3b/3x3_reduce"
}
layer {
  name: "inception_3b/3x3"
  type: "Convolution"
  bottom: "inception_3b/3x3_reduce"
  top: "inception_3b/3x3"
  param {
    lr_mult: 1
    decay_mult: 1
  }
  param {
    lr_mult: 2
    decay_mult: 0
  }
  convolution_param {
    num_output: 192
    pad: 1
    kernel_size: 3
    weight_filler {
      type: "xavier"
      std: 0.03
    }
    bias_filler {
      type: "constant"
      value: 0.2
    }
  }
}
layer {
  name: "inception_3b/relu_3x3"
  type: "ReLU"
  bottom: "inception_3b/3x3"
  top: "inception_3b/3x3"
}
layer {
  name: "inception_3b/5x5_reduce"
  type: "Convolution"
  bottom: "inception_3a/output"
  top: "inception_3b/5x5_reduce"
  param {
    lr_mult: 1
    decay_mult: 1
  }
  param {
    lr_mult: 2
    decay_mult: 0
  }
  convolution_param {
    num_output: 32
    kernel_size: 1
    weight_filler {
      type: "xavier"
      std: 0.2
    }
    bias_filler {
      type: "constant"
      value: 0.2
    }
  }
}
layer {
  name: "inception_3b/relu_5x5_reduce"
  type: "ReLU"
  bottom: "inception_3b/5x5_reduce"
  top: "inception_3b/5x5_reduce"
}
layer {
  name: "inception_3b/5x5"
  type: "Convolution"
  bottom: "inception_3b/5x5_reduce"
  top: "inception_3b/5x5"
  param {
    lr_mult: 1
    decay_mult: 1
  }
  param {
    lr_mult: 2
    decay_mult: 0
  }
  convolution_param {
    num_output: 96
    pad: 2
    kernel_size: 5
    weight_filler {
      type: "xavier"
      std: 0.03
    }
    bias_filler {
      type: "constant"
      value: 0.2
    }
  }
}
layer {
  name: "inception_3b/relu_5x5"
  type: "ReLU"
  bottom: "inception_3b/5x5"
  top: "inception_3b/5x5"
}
layer {
  name: "inception_3b/pool"
  type: "Pooling"
  bottom: "inception_3a/output"
  top: "inception_3b/pool"
  pooling_param {
    pool: MAX
    kernel_size: 3
    stride: 1
    pad: 1
  }
}
layer {
  name: "inception_3b/pool_proj"
  type: "Convolution"
  bottom: "inception_3b/pool"
  top: "inception_3b/pool_proj"
  param {
    lr_mult: 1
    decay_mult: 1
  }
  param {
    lr_mult: 2
    decay_mult: 0
  }
  convolution_param {
    num_output: 64
    kernel_size: 1
    weight_filler {
      type: "xavier"
      std: 0.1
    }
    bias_filler {
      type: "constant"
      value: 0.2
    }
  }
}
layer {
  name: "inception_3b/relu_pool_proj"
  type: "ReLU"
  bottom: "inception_3b/pool_proj"
  top: "inception_3b/pool_proj"
}
layer {
  name: "inception_3b/output"
  type: "Concat"
  bottom: "inception_3b/1x1"
  bottom: "inception_3b/3x3"
  bottom: "inception_3b/5x5"
  bottom: "inception_3b/pool_proj"
  top: "inception_3b/output"
}
layer {
  name: "pool3/3x3_s2"
  type: "Pooling"
  bottom: "inception_3b/output"
  top: "pool3/3x3_s2"
  pooling_param {
    pool: MAX
    kernel_size: 3
    stride: 2
  }
}
layer {
  name: "inception_4a/1x1"
  type: "Convolution"
  bottom: "pool3/3x3_s2"
  top: "inception_4a/1x1"
  param {
    lr_mult: 1
    decay_mult: 1
  }
  param {
    lr_mult: 2
    decay_mult: 0
  }
  convolution_param {
    num_output: 192
    kernel_size: 1
    weight_filler {
      type: "xavier"
      std: 0.03
    }
    bias_filler {
      type: "constant"
      value: 0.2
    }
  }
}
layer {
  name: "inception_4a/relu_1x1"
  type: "ReLU"
  bottom: "inception_4a/1x1"
  top: "inception_4a/1x1"
}
layer {
  name: "inception_4a/3x3_reduce"
  type: "Convolution"
  bottom: "pool3/3x3_s2"
  top: "inception_4a/3x3_reduce"
  param {
    lr_mult: 1
    decay_mult: 1
  }
  param {
    lr_mult: 2
    decay_mult: 0
  }
  convolution_param {
    num_output: 96
    kernel_size: 1
    weight_filler {
      type: "xavier"
      std: 0.09
    }
    bias_filler {
      type: "constant"
      value: 0.2
    }
  }
}
layer {
  name: "inception_4a/relu_3x3_reduce"
  type: "ReLU"
  bottom: "inception_4a/3x3_reduce"
  top: "inception_4a/3x3_reduce"
}
layer {
  name: "inception_4a/3x3"
  type: "Convolution"
  bottom: "inception_4a/3x3_reduce"
  top: "inception_4a/3x3"
  param {
    lr_mult: 1
    decay_mult: 1
  }
  param {
    lr_mult: 2
    decay_mult: 0
  }
  convolution_param {
    num_output: 208
    pad: 1
    kernel_size: 3
    weight_filler {
      type: "xavier"
      std: 0.03
    }
    bias_filler {
      type: "constant"
      value: 0.2
    }
  }
}
layer {
  name: "inception_4a/relu_3x3"
  type: "ReLU"
  bottom: "inception_4a/3x3"
  top: "inception_4a/3x3"
}
layer {
  name: "inception_4a/5x5_reduce"
  type: "Convolution"
  bottom: "pool3/3x3_s2"
  top: "inception_4a/5x5_reduce"
  param {
    lr_mult: 1
    decay_mult: 1
  }
  param {
    lr_mult: 2
    decay_mult: 0
  }
  convolution_param {
    num_output: 16
    kernel_size: 1
    weight_filler {
      type: "xavier"
      std: 0.2
    }
    bias_filler {
      type: "constant"
      value: 0.2
    }
  }
}
layer {
  name: "inception_4a/relu_5x5_reduce"
  type: "ReLU"
  bottom: "inception_4a/5x5_reduce"
  top: "inception_4a/5x5_reduce"
}
layer {
  name: "inception_4a/5x5"
  type: "Convolution"
  bottom: "inception_4a/5x5_reduce"
  top: "inception_4a/5x5"
  param {
    lr_mult: 1
    decay_mult: 1
  }
  param {
    lr_mult: 2
    decay_mult: 0
  }
  convolution_param {
    num_output: 48
    pad: 2
    kernel_size: 5
    weight_filler {
      type: "xavier"
      std: 0.03
    }
    bias_filler {
      type: "constant"
      value: 0.2
    }
  }
}
layer {
  name: "inception_4a/relu_5x5"
  type: "ReLU"
  bottom: "inception_4a/5x5"
  top: "inception_4a/5x5"
}
layer {
  name: "inception_4a/pool"
  type: "Pooling"
  bottom: "pool3/3x3_s2"
  top: "inception_4a/pool"
  pooling_param {
    pool: MAX
    kernel_size: 3
    stride: 1
    pad: 1
  }
}
layer {
  name: "inception_4a/pool_proj"
  type: "Convolution"
  bottom: "inception_4a/pool"
  top: "inception_4a/pool_proj"
  param {
    lr_mult: 1
    decay_mult: 1
  }
  param {
    lr_mult: 2
    decay_mult: 0
  }
  convolution_param {
    num_output: 64
    kernel_size: 1
    weight_filler {
      type: "xavier"
      std: 0.1
    }
    bias_filler {
      type: "constant"
      value: 0.2
    }
  }
}
layer {
  name: "inception_4a/relu_pool_proj"
  type: "ReLU"
  bottom: "inception_4a/pool_proj"
  top: "inception_4a/pool_proj"
}
layer {
  name: "inception_4a/output"
  type: "Concat"
  bottom: "inception_4a/1x1"
  bottom: "inception_4a/3x3"
  bottom: "inception_4a/5x5"
  bottom: "inception_4a/pool_proj"
  top: "inception_4a/output"
}
layer {
  name: "inception_4b/1x1"
  type: "Convolution"
  bottom: "inception_4a/output"
  top: "inception_4b/1x1"
  param {
    lr_mult: 1
    decay_mult: 1
  }
  param {
    lr_mult: 2
    decay_mult: 0
  }
  convolution_param {
    num_output: 160
    kernel_size: 1
    weight_filler {
      type: "xavier"
      std: 0.03
    }
    bias_filler {
      type: "constant"
      value: 0.2
    }
  }
}
layer {
  name: "inception_4b/relu_1x1"
  type: "ReLU"
  bottom: "inception_4b/1x1"
  top: "inception_4b/1x1"
}
layer {
  name: "inception_4b/3x3_reduce"
  type: "Convolution"
  bottom: "inception_4a/output"
  top: "inception_4b/3x3_reduce"
  param {
    lr_mult: 1
    decay_mult: 1
  }
  param {
    lr_mult: 2
    decay_mult: 0
  }
  convolution_param {
    num_output: 112
    kernel_size: 1
    weight_filler {
      type: "xavier"
      std: 0.09
    }
    bias_filler {
      type: "constant"
      value: 0.2
    }
  }
}
layer {
  name: "inception_4b/relu_3x3_reduce"
  type: "ReLU"
  bottom: "inception_4b/3x3_reduce"
  top: "inception_4b/3x3_reduce"
}
layer {
  name: "inception_4b/3x3"
  type: "Convolution"
  bottom: "inception_4b/3x3_reduce"
  top: "inception_4b/3x3"
  param {
    lr_mult: 1
    decay_mult: 1
  }
  param {
    lr_mult: 2
    decay_mult: 0
  }
  convolution_param {
    num_output: 224
    pad: 1
    kernel_size: 3
    weight_filler {
      type: "xavier"
      std: 0.03
    }
    bias_filler {
      type: "constant"
      value: 0.2
    }
  }
}
layer {
  name: "inception_4b/relu_3x3"
  type: "ReLU"
  bottom: "inception_4b/3x3"
  top: "inception_4b/3x3"
}
layer {
  name: "inception_4b/5x5_reduce"
  type: "Convolution"
  bottom: "inception_4a/output"
  top: "inception_4b/5x5_reduce"
  param {
    lr_mult: 1
    decay_mult: 1
  }
  param {
    lr_mult: 2
    decay_mult: 0
  }
  convolution_param {
    num_output: 24
    kernel_size: 1
    weight_filler {
      type: "xavier"
      std: 0.2
    }
    bias_filler {
      type: "constant"
      value: 0.2
    }
  }
}
layer {
  name: "inception_4b/relu_5x5_reduce"
  type: "ReLU"
  bottom: "inception_4b/5x5_reduce"
  top: "inception_4b/5x5_reduce"
}
layer {
  name: "inception_4b/5x5"
  type: "Convolution"
  bottom: "inception_4b/5x5_reduce"
  top: "inception_4b/5x5"
  param {
    lr_mult: 1
    decay_mult: 1
  }
  param {
    lr_mult: 2
    decay_mult: 0
  }
  convolution_param {
    num_output: 64
    pad: 2
    kernel_size: 5
    weight_filler {
      type: "xavier"
      std: 0.03
    }
    bias_filler {
      type: "constant"
      value: 0.2
    }
  }
}
layer {
  name: "inception_4b/relu_5x5"
  type: "ReLU"
  bottom: "inception_4b/5x5"
  top: "inception_4b/5x5"
}
layer {
  name: "inception_4b/pool"
  type: "Pooling"
  bottom: "inception_4a/output"
  top: "inception_4b/pool"
  pooling_param {
    pool: MAX
    kernel_size: 3
    stride: 1
    pad: 1
  }
}
layer {
  name: "inception_4b/pool_proj"
  type: "Convolution"
  bottom: "inception_4b/pool"
  top: "inception_4b/pool_proj"
  param {
    lr_mult: 1
    decay_mult: 1
  }
  param {
    lr_mult: 2
    decay_mult: 0
  }
  convolution_param {
    num_output: 64
    kernel_size: 1
    weight_filler {
      type: "xavier"
      std: 0.1
    }
    bias_filler {
      type: "constant"
      value: 0.2
    }
  }
}
layer {
  name: "inception_4b/relu_pool_proj"
  type: "ReLU"
  bottom: "inception_4b/pool_proj"
  top: "inception_4b/pool_proj"
}
layer {
  name: "inception_4b/output"
  type: "Concat"
  bottom: "inception_4b/1x1"
  bottom: "inception_4b/3x3"
  bottom: "inception_4b/5x5"
  bottom: "inception_4b/pool_proj"
  top: "inception_4b/output"
}
layer {
  name: "inception_4c/1x1"
  type: "Convolution"
  bottom: "inception_4b/output"
  top: "inception_4c/1x1"
  param {
    lr_mult: 1
    decay_mult: 1
  }
  param {
    lr_mult: 2
    decay_mult: 0
  }
  convolution_param {
    num_output: 128
    kernel_size: 1
    weight_filler {
      type: "xavier"
      std: 0.03
    }
    bias_filler {
      type: "constant"
      value: 0.2
    }
  }
}
layer {
  name: "inception_4c/relu_1x1"
  type: "ReLU"
  bottom: "inception_4c/1x1"
  top: "inception_4c/1x1"
}
layer {
  name: "inception_4c/3x3_reduce"
  type: "Convolution"
  bottom: "inception_4b/output"
  top: "inception_4c/3x3_reduce"
  param {
    lr_mult: 1
    decay_mult: 1
  }
  param {
    lr_mult: 2
    decay_mult: 0
  }
  convolution_param {
    num_output: 128
    kernel_size: 1
    weight_filler {
      type: "xavier"
      std: 0.09
    }
    bias_filler {
      type: "constant"
      value: 0.2
    }
  }
}
layer {
  name: "inception_4c/relu_3x3_reduce"
  type: "ReLU"
  bottom: "inception_4c/3x3_reduce"
  top: "inception_4c/3x3_reduce"
}
layer {
  name: "inception_4c/3x3"
  type: "Convolution"
  bottom: "inception_4c/3x3_reduce"
  top: "inception_4c/3x3"
  param {
    lr_mult: 1
    decay_mult: 1
  }
  param {
    lr_mult: 2
    decay_mult: 0
  }
  convolution_param {
    num_output: 256
    pad: 1
    kernel_size: 3
    weight_filler {
      type: "xavier"
      std: 0.03
    }
    bias_filler {
      type: "constant"
      value: 0.2
    }
  }
}
layer {
  name: "inception_4c/relu_3x3"
  type: "ReLU"
  bottom: "inception_4c/3x3"
  top: "inception_4c/3x3"
}
layer {
  name: "inception_4c/5x5_reduce"
  type: "Convolution"
  bottom: "inception_4b/output"
  top: "inception_4c/5x5_reduce"
  param {
    lr_mult: 1
    decay_mult: 1
  }
  param {
    lr_mult: 2
    decay_mult: 0
  }
  convolution_param {
    num_output: 24
    kernel_size: 1
    weight_filler {
      type: "xavier"
      std: 0.2
    }
    bias_filler {
      type: "constant"
      value: 0.2
    }
  }
}
layer {
  name: "inception_4c/relu_5x5_reduce"
  type: "ReLU"
  bottom: "inception_4c/5x5_reduce"
  top: "inception_4c/5x5_reduce"
}
layer {
  name: "inception_4c/5x5"
  type: "Convolution"
  bottom: "inception_4c/5x5_reduce"
  top: "inception_4c/5x5"
  param {
    lr_mult: 1
    decay_mult: 1
  }
  param {
    lr_mult: 2
    decay_mult: 0
  }
  convolution_param {
    num_output: 64
    pad: 2
    kernel_size: 5
    weight_filler {
      type: "xavier"
      std: 0.03
    }
    bias_filler {
      type: "constant"
      value: 0.2
    }
  }
}
layer {
  name: "inception_4c/relu_5x5"
  type: "ReLU"
  bottom: "inception_4c/5x5"
  top: "inception_4c/5x5"
}
layer {
  name: "inception_4c/pool"
  type: "Pooling"
  bottom: "inception_4b/output"
  top: "inception_4c/pool"
  pooling_param {
    pool: MAX
    kernel_size: 3
    stride: 1
    pad: 1
  }
}
layer {
  name: "inception_4c/pool_proj"
  type: "Convolution"
  bottom: "inception_4c/pool"
  top: "inception_4c/pool_proj"
  param {
    lr_mult: 1
    decay_mult: 1
  }
  param {
    lr_mult: 2
    decay_mult: 0
  }
  convolution_param {
    num_output: 64
    kernel_size: 1
    weight_filler {
      type: "xavier"
      std: 0.1
    }
    bias_filler {
      type: "constant"
      value: 0.2
    }
  }
}
layer {
  name: "inception_4c/relu_pool_proj"
  type: "ReLU"
  bottom: "inception_4c/pool_proj"
  top: "inception_4c/pool_proj"
}
layer {
  name: "inception_4c/output"
  type: "Concat"
  bottom: "inception_4c/1x1"
  bottom: "inception_4c/3x3"
  bottom: "inception_4c/5x5"
  bottom: "inception_4c/pool_proj"
  top: "inception_4c/output"
}
layer {
  name: "inception_4d/1x1"
  type: "Convolution"
  bottom: "inception_4c/output"
  top: "inception_4d/1x1"
  param {
    lr_mult: 1
    decay_mult: 1
  }
  param {
    lr_mult: 2
    decay_mult: 0
  }
  convolution_param {
    num_output: 112
    kernel_size: 1
    weight_filler {
      type: "xavier"
      std: 0.03
    }
    bias_filler {
      type: "constant"
      value: 0.2
    }
  }
}
layer {
  name: "inception_4d/relu_1x1"
  type: "ReLU"
  bottom: "inception_4d/1x1"
  top: "inception_4d/1x1"
}
layer {
  name: "inception_4d/3x3_reduce"
  type: "Convolution"
  bottom: "inception_4c/output"
  top: "inception_4d/3x3_reduce"
  param {
    lr_mult: 1
    decay_mult: 1
  }
  param {
    lr_mult: 2
    decay_mult: 0
  }
  convolution_param {
    num_output: 144
    kernel_size: 1
    weight_filler {
      type: "xavier"
      std: 0.09
    }
    bias_filler {
      type: "constant"
      value: 0.2
    }
  }
}
layer {
  name: "inception_4d/relu_3x3_reduce"
  type: "ReLU"
  bottom: "inception_4d/3x3_reduce"
  top: "inception_4d/3x3_reduce"
}
layer {
  name: "inception_4d/3x3"
  type: "Convolution"
  bottom: "inception_4d/3x3_reduce"
  top: "inception_4d/3x3"
  param {
    lr_mult: 1
    decay_mult: 1
  }
  param {
    lr_mult: 2
    decay_mult: 0
  }
  convolution_param {
    num_output: 288
    pad: 1
    kernel_size: 3
    weight_filler {
      type: "xavier"
      std: 0.03
    }
    bias_filler {
      type: "constant"
      value: 0.2
    }
  }
}
layer {
  name: "inception_4d/relu_3x3"
  type: "ReLU"
  bottom: "inception_4d/3x3"
  top: "inception_4d/3x3"
}
layer {
  name: "inception_4d/5x5_reduce"
  type: "Convolution"
  bottom: "inception_4c/output"
  top: "inception_4d/5x5_reduce"
  param {
    lr_mult: 1
    decay_mult: 1
  }
  param {
    lr_mult: 2
    decay_mult: 0
  }
  convolution_param {
    num_output: 32
    kernel_size: 1
    weight_filler {
      type: "xavier"
      std: 0.2
    }
    bias_filler {
      type: "constant"
      value: 0.2
    }
  }
}
layer {
  name: "inception_4d/relu_5x5_reduce"
  type: "ReLU"
  bottom: "inception_4d/5x5_reduce"
  top: "inception_4d/5x5_reduce"
}
layer {
  name: "inception_4d/5x5"
  type: "Convolution"
  bottom: "inception_4d/5x5_reduce"
  top: "inception_4d/5x5"
  param {
    lr_mult: 1
    decay_mult: 1
  }
  param {
    lr_mult: 2
    decay_mult: 0
  }
  convolution_param {
    num_output: 64
    pad: 2
    kernel_size: 5
    weight_filler {
      type: "xavier"
      std: 0.03
    }
    bias_filler {
      type: "constant"
      value: 0.2
    }
  }
}
layer {
  name: "inception_4d/relu_5x5"
  type: "ReLU"
  bottom: "inception_4d/5x5"
  top: "inception_4d/5x5"
}
layer {
  name: "inception_4d/pool"
  type: "Pooling"
  bottom: "inception_4c/output"
  top: "inception_4d/pool"
  pooling_param {
    pool: MAX
    kernel_size: 3
    stride: 1
    pad: 1
  }
}
layer {
  name: "inception_4d/pool_proj"
  type: "Convolution"
  bottom: "inception_4d/pool"
  top: "inception_4d/pool_proj"
  param {
    lr_mult: 1
    decay_mult: 1
  }
  param {
    lr_mult: 2
    decay_mult: 0
  }
  convolution_param {
    num_output: 64
    kernel_size: 1
    weight_filler {
      type: "xavier"
      std: 0.1
    }
    bias_filler {
      type: "constant"
      value: 0.2
    }
  }
}
layer {
  name: "inception_4d/relu_pool_proj"
  type: "ReLU"
  bottom: "inception_4d/pool_proj"
  top: "inception_4d/pool_proj"
}
layer {
  name: "inception_4d/output"
  type: "Concat"
  bottom: "inception_4d/1x1"
  bottom: "inception_4d/3x3"
  bottom: "inception_4d/5x5"
  bottom: "inception_4d/pool_proj"
  top: "inception_4d/output"
}
layer {
  name: "inception_4e/1x1"
  type: "Convolution"
  bottom: "inception_4d/output"
  top: "inception_4e/1x1"
  param {
    lr_mult: 1
    decay_mult: 1
  }
  param {
    lr_mult: 2
    decay_mult: 0
  }
  convolution_param {
    num_output: 256
    kernel_size: 1
    weight_filler {
      type: "xavier"
      std: 0.03
    }
    bias_filler {
      type: "constant"
      value: 0.2
    }
  }
}
layer {
  name: "inception_4e/relu_1x1"
  type: "ReLU"
  bottom: "inception_4e/1x1"
  top: "inception_4e/1x1"
}
layer {
  name: "inception_4e/3x3_reduce"
  type: "Convolution"
  bottom: "inception_4d/output"
  top: "inception_4e/3x3_reduce"
  param {
    lr_mult: 1
    decay_mult: 1
  }
  param {
    lr_mult: 2
    decay_mult: 0
  }
  convolution_param {
    num_output: 160
    kernel_size: 1
    weight_filler {
      type: "xavier"
      std: 0.09
    }
    bias_filler {
      type: "constant"
      value: 0.2
    }
  }
}
layer {
  name: "inception_4e/relu_3x3_reduce"
  type: "ReLU"
  bottom: "inception_4e/3x3_reduce"
  top: "inception_4e/3x3_reduce"
}
layer {
  name: "inception_4e/3x3"
  type: "Convolution"
  bottom: "inception_4e/3x3_reduce"
  top: "inception_4e/3x3"
  param {
    lr_mult: 1
    decay_mult: 1
  }
  param {
    lr_mult: 2
    decay_mult: 0
  }
  convolution_param {
    num_output: 320
    pad: 1
    kernel_size: 3
    weight_filler {
      type: "xavier"
      std: 0.03
    }
    bias_filler {
      type: "constant"
      value: 0.2
    }
  }
}
layer {
  name: "inception_4e/relu_3x3"
  type: "ReLU"
  bottom: "inception_4e/3x3"
  top: "inception_4e/3x3"
}
layer {
  name: "inception_4e/5x5_reduce"
  type: "Convolution"
  bottom: "inception_4d/output"
  top: "inception_4e/5x5_reduce"
  param {
    lr_mult: 1
    decay_mult: 1
  }
  param {
    lr_mult: 2
    decay_mult: 0
  }
  convolution_param {
    num_output: 32
    kernel_size: 1
    weight_filler {
      type: "xavier"
      std: 0.2
    }
    bias_filler {
      type: "constant"
      value: 0.2
    }
  }
}
layer {
  name: "inception_4e/relu_5x5_reduce"
  type: "ReLU"
  bottom: "inception_4e/5x5_reduce"
  top: "inception_4e/5x5_reduce"
}
layer {
  name: "inception_4e/5x5"
  type: "Convolution"
  bottom: "inception_4e/5x5_reduce"
  top: "inception_4e/5x5"
  param {
    lr_mult: 1
    decay_mult: 1
  }
  param {
    lr_mult: 2
    decay_mult: 0
  }
  convolution_param {
    num_output: 128
    pad: 2
    kernel_size: 5
    weight_filler {
      type: "xavier"
      std: 0.03
    }
    bias_filler {
      type: "constant"
      value: 0.2
    }
  }
}
layer {
  name: "inception_4e/relu_5x5"
  type: "ReLU"
  bottom: "inception_4e/5x5"
  top: "inception_4e/5x5"
}
layer {
  name: "inception_4e/pool"
  type: "Pooling"
  bottom: "inception_4d/output"
  top: "inception_4e/pool"
  pooling_param {
    pool: MAX
    kernel_size: 3
    stride: 1
    pad: 1
  }
}
layer {
  name: "inception_4e/pool_proj"
  type: "Convolution"
  bottom: "inception_4e/pool"
  top: "inception_4e/pool_proj"
  param {
    lr_mult: 1
    decay_mult: 1
  }
  param {
    lr_mult: 2
    decay_mult: 0
  }
  convolution_param {
    num_output: 128
    kernel_size: 1
    weight_filler {
      type: "xavier"
      std: 0.1
    }
    bias_filler {
      type: "constant"
      value: 0.2
    }
  }
}
layer {
  name: "inception_4e/relu_pool_proj"
  type: "ReLU"
  bottom: "inception_4e/pool_proj"
  top: "inception_4e/pool_proj"
}
layer {
  name: "inception_4e/output"
  type: "Concat"
  bottom: "inception_4e/1x1"
  bottom: "inception_4e/3x3"
  bottom: "inception_4e/5x5"
  bottom: "inception_4e/pool_proj"
  top: "inception_4e/output"
}
layer {
  name: "pool4/3x3_s2"
  type: "Pooling"
  bottom: "inception_4e/output"
  top: "pool4/3x3_s2"
  pooling_param {
    pool: MAX
    kernel_size: 3
    stride: 2
  }
}
layer {
  name: "inception_5a/1x1"
  type: "Convolution"
  bottom: "pool4/3x3_s2"
  top: "inception_5a/1x1"
  param {
    lr_mult: 1
    decay_mult: 1
  }
  param {
    lr_mult: 2
    decay_mult: 0
  }
  convolution_param {
    num_output: 256
    kernel_size: 1
    weight_filler {
      type: "xavier"
      std: 0.03
    }
    bias_filler {
      type: "constant"
      value: 0.2
    }
  }
}
layer {
  name: "inception_5a/relu_1x1"
  type: "ReLU"
  bottom: "inception_5a/1x1"
  top: "inception_5a/1x1"
}
layer {
  name: "inception_5a/3x3_reduce"
  type: "Convolution"
  bottom: "pool4/3x3_s2"
  top: "inception_5a/3x3_reduce"
  param {
    lr_mult: 1
    decay_mult: 1
  }
  param {
    lr_mult: 2
    decay_mult: 0
  }
  convolution_param {
    num_output: 160
    kernel_size: 1
    weight_filler {
      type: "xavier"
      std: 0.09
    }
    bias_filler {
      type: "constant"
      value: 0.2
    }
  }
}
layer {
  name: "inception_5a/relu_3x3_reduce"
  type: "ReLU"
  bottom: "inception_5a/3x3_reduce"
  top: "inception_5a/3x3_reduce"
}
layer {
  name: "inception_5a/3x3"
  type: "Convolution"
  bottom: "inception_5a/3x3_reduce"
  top: "inception_5a/3x3"
  param {
    lr_mult: 1
    decay_mult: 1
  }
  param {
    lr_mult: 2
    decay_mult: 0
  }
  convolution_param {
    num_output: 320
    pad: 1
    kernel_size: 3
    weight_filler {
      type: "xavier"
      std: 0.03
    }
    bias_filler {
      type: "constant"
      value: 0.2
    }
  }
}
layer {
  name: "inception_5a/relu_3x3"
  type: "ReLU"
  bottom: "inception_5a/3x3"
  top: "inception_5a/3x3"
}
layer {
  name: "inception_5a/5x5_reduce"
  type: "Convolution"
  bottom: "pool4/3x3_s2"
  top: "inception_5a/5x5_reduce"
  param {
    lr_mult: 1
    decay_mult: 1
  }
  param {
    lr_mult: 2
    decay_mult: 0
  }
  convolution_param {
    num_output: 32
    kernel_size: 1
    weight_filler {
      type: "xavier"
      std: 0.2
    }
    bias_filler {
      type: "constant"
      value: 0.2
    }
I0714 21:07:19.098965 16002 layer_factory.hpp:77] Creating layer data
I0714 21:07:19.098986 16002 net.cpp:91] Creating Layer data
I0714 21:07:19.098994 16002 net.cpp:399] data -> data
I0714 21:07:20.165143 15998 net.cpp:141] Setting up data
I0714 21:07:20.165222 15998 net.cpp:148] Top shape: 10 3 224 224 (1505280)
I0714 21:07:20.165230 15998 net.cpp:156] Memory required for data: 6021120
I0714 21:07:20.165253 15998 layer_factory.hpp:77] Creating layer conv1/7x7_s2
I0714 21:07:20.165297 15998 net.cpp:91] Creating Layer conv1/7x7_s2
I0714 21:07:20.165307 15998 net.cpp:425] conv1/7x7_s2 <- data
I0714 21:07:20.165323 15998 net.cpp:399] conv1/7x7_s2 -> conv1/7x7_s2
I0714 21:07:20.178786 16002 net.cpp:141] Setting up data
I0714 21:07:20.178822 16002 net.cpp:148] Top shape: 10 3 224 224 (1505280)
I0714 21:07:20.178829 16002 net.cpp:156] Memory required for data: 6021120
I0714 21:07:20.178838 16002 layer_factory.hpp:77] Creating layer conv1/7x7_s2
I0714 21:07:20.178859 16002 net.cpp:91] Creating Layer conv1/7x7_s2
I0714 21:07:20.178866 16002 net.cpp:425] conv1/7x7_s2 <- data
I0714 21:07:20.178876 16002 net.cpp:399] conv1/7x7_s2 -> conv1/7x7_s2
I0714 21:07:20.615206 15998 net.cpp:141] Setting up conv1/7x7_s2
I0714 21:07:20.615257 15998 net.cpp:148] Top shape: 10 64 112 112 (8028160)
I0714 21:07:20.615264 15998 net.cpp:156] Memory required for data: 38133760
I0714 21:07:20.615295 15998 layer_factory.hpp:77] Creating layer conv1/relu_7x7
I0714 21:07:20.615317 15998 net.cpp:91] Creating Layer conv1/relu_7x7
I0714 21:07:20.615325 15998 net.cpp:425] conv1/relu_7x7 <- conv1/7x7_s2
I0714 21:07:20.615335 15998 net.cpp:386] conv1/relu_7x7 -> conv1/7x7_s2 (in-place)
I0714 21:07:20.616492 15998 net.cpp:141] Setting up conv1/relu_7x7
I0714 21:07:20.616511 15998 net.cpp:148] Top shape: 10 64 112 112 (8028160)
I0714 21:07:20.616518 15998 net.cpp:156] Memory required for data: 70246400
I0714 21:07:20.616523 15998 layer_factory.hpp:77] Creating layer pool1/3x3_s2
I0714 21:07:20.616539 15998 net.cpp:91] Creating Layer pool1/3x3_s2
I0714 21:07:20.616544 15998 net.cpp:425] pool1/3x3_s2 <- conv1/7x7_s2
I0714 21:07:20.616554 15998 net.cpp:399] pool1/3x3_s2 -> pool1/3x3_s2
I0714 21:07:20.616955 15998 net.cpp:141] Setting up pool1/3x3_s2
I0714 21:07:20.616968 15998 net.cpp:148] Top shape: 10 64 56 56 (2007040)
I0714 21:07:20.616974 15998 net.cpp:156] Memory required for data: 78274560
I0714 21:07:20.616979 15998 layer_factory.hpp:77] Creating layer pool1/norm1
I0714 21:07:20.616999 15998 net.cpp:91] Creating Layer pool1/norm1
I0714 21:07:20.617005 15998 net.cpp:425] pool1/norm1 <- pool1/3x3_s2
I0714 21:07:20.617014 15998 net.cpp:399] pool1/norm1 -> pool1/norm1
I0714 21:07:20.618119 16002 net.cpp:141] Setting up conv1/7x7_s2
I0714 21:07:20.618144 16002 net.cpp:148] Top shape: 10 64 112 112 (8028160)
I0714 21:07:20.618151 16002 net.cpp:156] Memory required for data: 38133760
I0714 21:07:20.618163 15998 net.cpp:141] Setting up pool1/norm1
I0714 21:07:20.618167 16002 layer_factory.hpp:77] Creating layer conv1/relu_7x7
I0714 21:07:20.618183 15998 net.cpp:148] Top shape: 10 64 56 56 (2007040)
I0714 21:07:20.618188 16002 net.cpp:91] Creating Layer conv1/relu_7x7
I0714 21:07:20.618191 15998 net.cpp:156] Memory required for data: 86302720
I0714 21:07:20.618199 16002 net.cpp:425] conv1/relu_7x7 <- conv1/7x7_s2
I0714 21:07:20.618202 15998 layer_factory.hpp:77] Creating layer conv2/3x3_reduce
I0714 21:07:20.618208 16002 net.cpp:386] conv1/relu_7x7 -> conv1/7x7_s2 (in-place)
I0714 21:07:20.618226 15998 net.cpp:91] Creating Layer conv2/3x3_reduce
I0714 21:07:20.618232 15998 net.cpp:425] conv2/3x3_reduce <- pool1/norm1
I0714 21:07:20.618242 15998 net.cpp:399] conv2/3x3_reduce -> conv2/3x3_reduce
I0714 21:07:20.619143 16002 net.cpp:141] Setting up conv1/relu_7x7
I0714 21:07:20.619161 16002 net.cpp:148] Top shape: 10 64 112 112 (8028160)
I0714 21:07:20.619168 16002 net.cpp:156] Memory required for data: 70246400
I0714 21:07:20.619174 16002 layer_factory.hpp:77] Creating layer pool1/3x3_s2
I0714 21:07:20.619184 16002 net.cpp:91] Creating Layer pool1/3x3_s2
I0714 21:07:20.619190 16002 net.cpp:425] pool1/3x3_s2 <- conv1/7x7_s2
I0714 21:07:20.619199 16002 net.cpp:399] pool1/3x3_s2 -> pool1/3x3_s2
I0714 21:07:20.619372 16002 net.cpp:141] Setting up pool1/3x3_s2
I0714 21:07:20.619385 16002 net.cpp:148] Top shape: 10 64 56 56 (2007040)
I0714 21:07:20.619391 16002 net.cpp:156] Memory required for data: 78274560
I0714 21:07:20.619397 16002 layer_factory.hpp:77] Creating layer pool1/norm1
I0714 21:07:20.619408 16002 net.cpp:91] Creating Layer pool1/norm1
I0714 21:07:20.619415 16002 net.cpp:425] pool1/norm1 <- pool1/3x3_s2
I0714 21:07:20.619422 16002 net.cpp:399] pool1/norm1 -> pool1/norm1
I0714 21:07:20.621413 16002 net.cpp:141] Setting up pool1/norm1
I0714 21:07:20.621431 16002 net.cpp:148] Top shape: 10 64 56 56 (2007040)
I0714 21:07:20.621438 16002 net.cpp:156] Memory required for data: 86302720
I0714 21:07:20.621443 16002 layer_factory.hpp:77] Creating layer conv2/3x3_reduce
I0714 21:07:20.621460 16002 net.cpp:91] Creating Layer conv2/3x3_reduce
I0714 21:07:20.621466 16002 net.cpp:425] conv2/3x3_reduce <- pool1/norm1
I0714 21:07:20.621476 16002 net.cpp:399] conv2/3x3_reduce -> conv2/3x3_reduce
I0714 21:07:20.625345 15998 net.cpp:141] Setting up conv2/3x3_reduce
I0714 21:07:20.625368 15998 net.cpp:148] Top shape: 10 64 56 56 (2007040)
I0714 21:07:20.625375 15998 net.cpp:156] Memory required for data: 94330880
I0714 21:07:20.625391 15998 layer_factory.hpp:77] Creating layer conv2/relu_3x3_reduce
I0714 21:07:20.625401 15998 net.cpp:91] Creating Layer conv2/relu_3x3_reduce
I0714 21:07:20.625407 15998 net.cpp:425] conv2/relu_3x3_reduce <- conv2/3x3_reduce
I0714 21:07:20.625416 15998 net.cpp:386] conv2/relu_3x3_reduce -> conv2/3x3_reduce (in-place)
I0714 21:07:20.626344 15998 net.cpp:141] Setting up conv2/relu_3x3_reduce
I0714 21:07:20.626364 15998 net.cpp:148] Top shape: 10 64 56 56 (2007040)
I0714 21:07:20.626370 15998 net.cpp:156] Memory required for data: 102359040
I0714 21:07:20.626376 15998 layer_factory.hpp:77] Creating layer conv2/3x3
I0714 21:07:20.626394 15998 net.cpp:91] Creating Layer conv2/3x3
I0714 21:07:20.626400 15998 net.cpp:425] conv2/3x3 <- conv2/3x3_reduce
I0714 21:07:20.626412 15998 net.cpp:399] conv2/3x3 -> conv2/3x3
I0714 21:07:20.629236 16002 net.cpp:141] Setting up conv2/3x3_reduce
I0714 21:07:20.629259 16002 net.cpp:148] Top shape: 10 64 56 56 (2007040)
I0714 21:07:20.629266 16002 net.cpp:156] Memory required for data: 94330880
I0714 21:07:20.629282 16002 layer_factory.hpp:77] Creating layer conv2/relu_3x3_reduce
I0714 21:07:20.629292 16002 net.cpp:91] Creating Layer conv2/relu_3x3_reduce
I0714 21:07:20.629298 16002 net.cpp:425] conv2/relu_3x3_reduce <- conv2/3x3_reduce
I0714 21:07:20.629307 16002 net.cpp:386] conv2/relu_3x3_reduce -> conv2/3x3_reduce (in-place)
I0714 21:07:20.630180 16002 net.cpp:141] Setting up conv2/relu_3x3_reduce
I0714 21:07:20.630198 16002 net.cpp:148] Top shape: 10 64 56 56 (2007040)
I0714 21:07:20.630203 16002 net.cpp:156] Memory required for data: 102359040
I0714 21:07:20.630210 16002 layer_factory.hpp:77] Creating layer conv2/3x3
I0714 21:07:20.630228 16002 net.cpp:91] Creating Layer conv2/3x3
I0714 21:07:20.630234 16002 net.cpp:425] conv2/3x3 <- conv2/3x3_reduce
I0714 21:07:20.630244 16002 net.cpp:399] conv2/3x3 -> conv2/3x3
I0714 21:07:20.634204 15998 net.cpp:141] Setting up conv2/3x3
I0714 21:07:20.634225 15998 net.cpp:148] Top shape: 10 192 56 56 (6021120)
I0714 21:07:20.634232 15998 net.cpp:156] Memory required for data: 126443520
I0714 21:07:20.634249 15998 layer_factory.hpp:77] Creating layer conv2/relu_3x3
I0714 21:07:20.634261 15998 net.cpp:91] Creating Layer conv2/relu_3x3
I0714 21:07:20.634268 15998 net.cpp:425] conv2/relu_3x3 <- conv2/3x3
I0714 21:07:20.634276 15998 net.cpp:386] conv2/relu_3x3 -> conv2/3x3 (in-place)
I0714 21:07:20.634636 15998 net.cpp:141] Setting up conv2/relu_3x3
I0714 21:07:20.634650 15998 net.cpp:148] Top shape: 10 192 56 56 (6021120)
I0714 21:07:20.634656 15998 net.cpp:156] Memory required for data: 150528000
I0714 21:07:20.634662 15998 layer_factory.hpp:77] Creating layer conv2/norm2
I0714 21:07:20.634673 15998 net.cpp:91] Creating Layer conv2/norm2
I0714 21:07:20.634680 15998 net.cpp:425] conv2/norm2 <- conv2/3x3
I0714 21:07:20.634697 15998 net.cpp:399] conv2/norm2 -> conv2/norm2
I0714 21:07:20.636106 15998 net.cpp:141] Setting up conv2/norm2
I0714 21:07:20.636124 15998 net.cpp:148] Top shape: 10 192 56 56 (6021120)
I0714 21:07:20.636131 15998 net.cpp:156] Memory required for data: 174612480
I0714 21:07:20.636137 15998 layer_factory.hpp:77] Creating layer pool2/3x3_s2
I0714 21:07:20.636147 15998 net.cpp:91] Creating Layer pool2/3x3_s2
I0714 21:07:20.636153 15998 net.cpp:425] pool2/3x3_s2 <- conv2/norm2
I0714 21:07:20.636162 15998 net.cpp:399] pool2/3x3_s2 -> pool2/3x3_s2
I0714 21:07:20.636934 15998 net.cpp:141] Setting up pool2/3x3_s2
I0714 21:07:20.636950 15998 net.cpp:148] Top shape: 10 192 28 28 (1505280)
I0714 21:07:20.636955 15998 net.cpp:156] Memory required for data: 180633600
I0714 21:07:20.636960 15998 layer_factory.hpp:77] Creating layer pool2/3x3_s2_pool2/3x3_s2_0_split
I0714 21:07:20.636983 15998 net.cpp:91] Creating Layer pool2/3x3_s2_pool2/3x3_s2_0_split
I0714 21:07:20.636991 15998 net.cpp:425] pool2/3x3_s2_pool2/3x3_s2_0_split <- pool2/3x3_s2
I0714 21:07:20.636998 15998 net.cpp:399] pool2/3x3_s2_pool2/3x3_s2_0_split -> pool2/3x3_s2_pool2/3x3_s2_0_split_0
I0714 21:07:20.637011 15998 net.cpp:399] pool2/3x3_s2_pool2/3x3_s2_0_split -> pool2/3x3_s2_pool2/3x3_s2_0_split_1
I0714 21:07:20.637020 15998 net.cpp:399] pool2/3x3_s2_pool2/3x3_s2_0_split -> pool2/3x3_s2_pool2/3x3_s2_0_split_2
I0714 21:07:20.637029 15998 net.cpp:399] pool2/3x3_s2_pool2/3x3_s2_0_split -> pool2/3x3_s2_pool2/3x3_s2_0_split_3
I0714 21:07:20.637362 15998 net.cpp:141] Setting up pool2/3x3_s2_pool2/3x3_s2_0_split
I0714 21:07:20.637374 15998 net.cpp:148] Top shape: 10 192 28 28 (1505280)
I0714 21:07:20.637382 15998 net.cpp:148] Top shape: 10 192 28 28 (1505280)
I0714 21:07:20.637387 15998 net.cpp:148] Top shape: 10 192 28 28 (1505280)
I0714 21:07:20.637393 15998 net.cpp:148] Top shape: 10 192 28 28 (1505280)
I0714 21:07:20.637398 15998 net.cpp:156] Memory required for data: 204718080
I0714 21:07:20.637403 15998 layer_factory.hpp:77] Creating layer inception_3a/1x1
I0714 21:07:20.637418 15998 net.cpp:91] Creating Layer inception_3a/1x1
I0714 21:07:20.637424 15998 net.cpp:425] inception_3a/1x1 <- pool2/3x3_s2_pool2/3x3_s2_0_split_0
I0714 21:07:20.637454 15998 net.cpp:399] inception_3a/1x1 -> inception_3a/1x1
I0714 21:07:20.638828 16002 net.cpp:141] Setting up conv2/3x3
I0714 21:07:20.638888 16002 net.cpp:148] Top shape: 10 192 56 56 (6021120)
I0714 21:07:20.638895 16002 net.cpp:156] Memory required for data: 126443520
I0714 21:07:20.638921 16002 layer_factory.hpp:77] Creating layer conv2/relu_3x3
I0714 21:07:20.638942 16002 net.cpp:91] Creating Layer conv2/relu_3x3
I0714 21:07:20.638949 16002 net.cpp:425] conv2/relu_3x3 <- conv2/3x3
I0714 21:07:20.638960 16002 net.cpp:386] conv2/relu_3x3 -> conv2/3x3 (in-place)
I0714 21:07:20.639596 16002 net.cpp:141] Setting up conv2/relu_3x3
I0714 21:07:20.639621 16002 net.cpp:148] Top shape: 10 192 56 56 (6021120)
I0714 21:07:20.639629 16002 net.cpp:156] Memory required for data: 150528000
I0714 21:07:20.639641 16002 layer_factory.hpp:77] Creating layer conv2/norm2
I0714 21:07:20.639662 16002 net.cpp:91] Creating Layer conv2/norm2
I0714 21:07:20.639672 16002 net.cpp:425] conv2/norm2 <- conv2/3x3
I0714 21:07:20.639688 16002 net.cpp:399] conv2/norm2 -> conv2/norm2
I0714 21:07:20.642402 16002 net.cpp:141] Setting up conv2/norm2
I0714 21:07:20.642436 16002 net.cpp:148] Top shape: 10 192 56 56 (6021120)
I0714 21:07:20.642446 16002 net.cpp:156] Memory required for data: 174612480
I0714 21:07:20.642457 16002 layer_factory.hpp:77] Creating layer pool2/3x3_s2
I0714 21:07:20.642477 16002 net.cpp:91] Creating Layer pool2/3x3_s2
I0714 21:07:20.642488 16002 net.cpp:425] pool2/3x3_s2 <- conv2/norm2
I0714 21:07:20.642505 16002 net.cpp:399] pool2/3x3_s2 -> pool2/3x3_s2
I0714 21:07:20.643333 16002 net.cpp:141] Setting up pool2/3x3_s2
I0714 21:07:20.643357 16002 net.cpp:148] Top shape: 10 192 28 28 (1505280)
I0714 21:07:20.643363 16002 net.cpp:156] Memory required for data: 180633600
I0714 21:07:20.643370 16002 layer_factory.hpp:77] Creating layer pool2/3x3_s2_pool2/3x3_s2_0_split
I0714 21:07:20.643384 16002 net.cpp:91] Creating Layer pool2/3x3_s2_pool2/3x3_s2_0_split
I0714 21:07:20.643390 16002 net.cpp:425] pool2/3x3_s2_pool2/3x3_s2_0_split <- pool2/3x3_s2
I0714 21:07:20.643399 16002 net.cpp:399] pool2/3x3_s2_pool2/3x3_s2_0_split -> pool2/3x3_s2_pool2/3x3_s2_0_split_0
I0714 21:07:20.643414 16002 net.cpp:399] pool2/3x3_s2_pool2/3x3_s2_0_split -> pool2/3x3_s2_pool2/3x3_s2_0_split_1
I0714 21:07:20.643424 16002 net.cpp:399] pool2/3x3_s2_pool2/3x3_s2_0_split -> pool2/3x3_s2_pool2/3x3_s2_0_split_2
I0714 21:07:20.643435 16002 net.cpp:399] pool2/3x3_s2_pool2/3x3_s2_0_split -> pool2/3x3_s2_pool2/3x3_s2_0_split_3
I0714 21:07:20.645066 16002 net.cpp:141] Setting up pool2/3x3_s2_pool2/3x3_s2_0_split
I0714 21:07:20.645081 16002 net.cpp:148] Top shape: 10 192 28 28 (1505280)
I0714 21:07:20.645088 16002 net.cpp:148] Top shape: 10 192 28 28 (1505280)
I0714 21:07:20.645094 16002 net.cpp:148] Top shape: 10 192 28 28 (1505280)
I0714 21:07:20.645100 16002 net.cpp:148] Top shape: 10 192 28 28 (1505280)
I0714 21:07:20.645105 16002 net.cpp:156] Memory required for data: 204718080
I0714 21:07:20.645112 16002 layer_factory.hpp:77] Creating layer inception_3a/1x1
I0714 21:07:20.645133 16002 net.cpp:91] Creating Layer inception_3a/1x1
I0714 21:07:20.645140 16002 net.cpp:425] inception_3a/1x1 <- pool2/3x3_s2_pool2/3x3_s2_0_split_0
I0714 21:07:20.645153 16002 net.cpp:399] inception_3a/1x1 -> inception_3a/1x1
I0714 21:07:20.646328 15998 net.cpp:141] Setting up inception_3a/1x1
I0714 21:07:20.646349 15998 net.cpp:148] Top shape: 10 64 28 28 (501760)
I0714 21:07:20.646356 15998 net.cpp:156] Memory required for data: 206725120
I0714 21:07:20.646368 15998 layer_factory.hpp:77] Creating layer inception_3a/relu_1x1
I0714 21:07:20.646378 15998 net.cpp:91] Creating Layer inception_3a/relu_1x1
I0714 21:07:20.646385 15998 net.cpp:425] inception_3a/relu_1x1 <- inception_3a/1x1
I0714 21:07:20.646394 15998 net.cpp:386] inception_3a/relu_1x1 -> inception_3a/1x1 (in-place)
I0714 21:07:20.646939 15998 net.cpp:141] Setting up inception_3a/relu_1x1
I0714 21:07:20.646965 15998 net.cpp:148] Top shape: 10 64 28 28 (501760)
I0714 21:07:20.646972 15998 net.cpp:156] Memory required for data: 208732160
I0714 21:07:20.646980 15998 layer_factory.hpp:77] Creating layer inception_3a/3x3_reduce
I0714 21:07:20.646998 15998 net.cpp:91] Creating Layer inception_3a/3x3_reduce
I0714 21:07:20.647006 15998 net.cpp:425] inception_3a/3x3_reduce <- pool2/3x3_s2_pool2/3x3_s2_0_split_1
I0714 21:07:20.647020 15998 net.cpp:399] inception_3a/3x3_reduce -> inception_3a/3x3_reduce
I0714 21:07:20.653900 16002 net.cpp:141] Setting up inception_3a/1x1
I0714 21:07:20.653925 16002 net.cpp:148] Top shape: 10 64 28 28 (501760)
I0714 21:07:20.653933 16002 net.cpp:156] Memory required for data: 206725120
I0714 21:07:20.653945 16002 layer_factory.hpp:77] Creating layer inception_3a/relu_1x1
I0714 21:07:20.653959 16002 net.cpp:91] Creating Layer inception_3a/relu_1x1
I0714 21:07:20.653965 16002 net.cpp:425] inception_3a/relu_1x1 <- inception_3a/1x1
I0714 21:07:20.653975 16002 net.cpp:386] inception_3a/relu_1x1 -> inception_3a/1x1 (in-place)
I0714 21:07:20.654261 16002 net.cpp:141] Setting up inception_3a/relu_1x1
I0714 21:07:20.654275 16002 net.cpp:148] Top shape: 10 64 28 28 (501760)
I0714 21:07:20.654280 16002 net.cpp:156] Memory required for data: 208732160
I0714 21:07:20.654286 16002 layer_factory.hpp:77] Creating layer inception_3a/3x3_reduce
I0714 21:07:20.654304 16002 net.cpp:91] Creating Layer inception_3a/3x3_reduce
I0714 21:07:20.654310 16002 net.cpp:425] inception_3a/3x3_reduce <- pool2/3x3_s2_pool2/3x3_s2_0_split_1
I0714 21:07:20.654320 16002 net.cpp:399] inception_3a/3x3_reduce -> inception_3a/3x3_reduce
I0714 21:07:20.656941 15998 net.cpp:141] Setting up inception_3a/3x3_reduce
I0714 21:07:20.656966 15998 net.cpp:148] Top shape: 10 96 28 28 (752640)
I0714 21:07:20.656972 15998 net.cpp:156] Memory required for data: 211742720
I0714 21:07:20.656991 15998 layer_factory.hpp:77] Creating layer inception_3a/relu_3x3_reduce
I0714 21:07:20.657001 15998 net.cpp:91] Creating Layer inception_3a/relu_3x3_reduce
I0714 21:07:20.657009 15998 net.cpp:425] inception_3a/relu_3x3_reduce <- inception_3a/3x3_reduce
I0714 21:07:20.657017 15998 net.cpp:386] inception_3a/relu_3x3_reduce -> inception_3a/3x3_reduce (in-place)
I0714 21:07:20.657372 15998 net.cpp:141] Setting up inception_3a/relu_3x3_reduce
I0714 21:07:20.657387 15998 net.cpp:148] Top shape: 10 96 28 28 (752640)
I0714 21:07:20.657392 15998 net.cpp:156] Memory required for data: 214753280
I0714 21:07:20.657397 15998 layer_factory.hpp:77] Creating layer inception_3a/3x3
I0714 21:07:20.657425 15998 net.cpp:91] Creating Layer inception_3a/3x3
I0714 21:07:20.657433 15998 net.cpp:425] inception_3a/3x3 <- inception_3a/3x3_reduce
I0714 21:07:20.657444 15998 net.cpp:399] inception_3a/3x3 -> inception_3a/3x3
I0714 21:07:20.659839 16002 net.cpp:141] Setting up inception_3a/3x3_reduce
I0714 21:07:20.659860 16002 net.cpp:148] Top shape: 10 96 28 28 (752640)
I0714 21:07:20.659867 16002 net.cpp:156] Memory required for data: 211742720
I0714 21:07:20.659881 16002 layer_factory.hpp:77] Creating layer inception_3a/relu_3x3_reduce
I0714 21:07:20.659893 16002 net.cpp:91] Creating Layer inception_3a/relu_3x3_reduce
I0714 21:07:20.659898 16002 net.cpp:425] inception_3a/relu_3x3_reduce <- inception_3a/3x3_reduce
I0714 21:07:20.659910 16002 net.cpp:386] inception_3a/relu_3x3_reduce -> inception_3a/3x3_reduce (in-place)
I0714 21:07:20.660183 16002 net.cpp:141] Setting up inception_3a/relu_3x3_reduce
I0714 21:07:20.660198 16002 net.cpp:148] Top shape: 10 96 28 28 (752640)
I0714 21:07:20.660204 16002 net.cpp:156] Memory required for data: 214753280
I0714 21:07:20.660209 16002 layer_factory.hpp:77] Creating layer inception_3a/3x3
I0714 21:07:20.660231 16002 net.cpp:91] Creating Layer inception_3a/3x3
I0714 21:07:20.660238 16002 net.cpp:425] inception_3a/3x3 <- inception_3a/3x3_reduce
I0714 21:07:20.660250 16002 net.cpp:399] inception_3a/3x3 -> inception_3a/3x3
I0714 21:07:20.662365 15998 net.cpp:141] Setting up inception_3a/3x3
I0714 21:07:20.662384 15998 net.cpp:148] Top shape: 10 128 28 28 (1003520)
I0714 21:07:20.662390 15998 net.cpp:156] Memory required for data: 218767360
I0714 21:07:20.662402 15998 layer_factory.hpp:77] Creating layer inception_3a/relu_3x3
I0714 21:07:20.662415 15998 net.cpp:91] Creating Layer inception_3a/relu_3x3
I0714 21:07:20.662423 15998 net.cpp:425] inception_3a/relu_3x3 <- inception_3a/3x3
I0714 21:07:20.662431 15998 net.cpp:386] inception_3a/relu_3x3 -> inception_3a/3x3 (in-place)
I0714 21:07:20.663341 15998 net.cpp:141] Setting up inception_3a/relu_3x3
I0714 21:07:20.663358 15998 net.cpp:148] Top shape: 10 128 28 28 (1003520)
I0714 21:07:20.663363 15998 net.cpp:156] Memory required for data: 222781440
I0714 21:07:20.663369 15998 layer_factory.hpp:77] Creating layer inception_3a/5x5_reduce
I0714 21:07:20.663388 15998 net.cpp:91] Creating Layer inception_3a/5x5_reduce
I0714 21:07:20.663394 15998 net.cpp:425] inception_3a/5x5_reduce <- pool2/3x3_s2_pool2/3x3_s2_0_split_2
I0714 21:07:20.663409 15998 net.cpp:399] inception_3a/5x5_reduce -> inception_3a/5x5_reduce
I0714 21:07:20.666708 16002 net.cpp:141] Setting up inception_3a/3x3
I0714 21:07:20.666728 16002 net.cpp:148] Top shape: 10 128 28 28 (1003520)
I0714 21:07:20.666734 16002 net.cpp:156] Memory required for data: 218767360
I0714 21:07:20.666744 16002 layer_factory.hpp:77] Creating layer inception_3a/relu_3x3
I0714 21:07:20.666757 16002 net.cpp:91] Creating Layer inception_3a/relu_3x3
I0714 21:07:20.666764 16002 net.cpp:425] inception_3a/relu_3x3 <- inception_3a/3x3
I0714 21:07:20.666772 16002 net.cpp:386] inception_3a/relu_3x3 -> inception_3a/3x3 (in-place)
I0714 21:07:20.667644 16002 net.cpp:141] Setting up inception_3a/relu_3x3
I0714 21:07:20.667665 16002 net.cpp:148] Top shape: 10 128 28 28 (1003520)
I0714 21:07:20.667670 16002 net.cpp:156] Memory required for data: 222781440
I0714 21:07:20.667676 16002 layer_factory.hpp:77] Creating layer inception_3a/5x5_reduce
I0714 21:07:20.667695 16002 net.cpp:91] Creating Layer inception_3a/5x5_reduce
I0714 21:07:20.667702 16002 net.cpp:425] inception_3a/5x5_reduce <- pool2/3x3_s2_pool2/3x3_s2_0_split_2
I0714 21:07:20.667713 16002 net.cpp:399] inception_3a/5x5_reduce -> inception_3a/5x5_reduce
I0714 21:07:20.668757 15998 net.cpp:141] Setting up inception_3a/5x5_reduce
I0714 21:07:20.668776 15998 net.cpp:148] Top shape: 10 16 28 28 (125440)
I0714 21:07:20.668782 15998 net.cpp:156] Memory required for data: 223283200
I0714 21:07:20.668792 15998 layer_factory.hpp:77] Creating layer inception_3a/relu_5x5_reduce
I0714 21:07:20.668805 15998 net.cpp:91] Creating Layer inception_3a/relu_5x5_reduce
I0714 21:07:20.668812 15998 net.cpp:425] inception_3a/relu_5x5_reduce <- inception_3a/5x5_reduce
I0714 21:07:20.668822 15998 net.cpp:386] inception_3a/relu_5x5_reduce -> inception_3a/5x5_reduce (in-place)
I0714 21:07:20.669209 15998 net.cpp:141] Setting up inception_3a/relu_5x5_reduce
I0714 21:07:20.669224 15998 net.cpp:148] Top shape: 10 16 28 28 (125440)
I0714 21:07:20.669229 15998 net.cpp:156] Memory required for data: 223784960
I0714 21:07:20.669234 15998 layer_factory.hpp:77] Creating layer inception_3a/5x5
I0714 21:07:20.669252 15998 net.cpp:91] Creating Layer inception_3a/5x5
I0714 21:07:20.669260 15998 net.cpp:425] inception_3a/5x5 <- inception_3a/5x5_reduce
I0714 21:07:20.669273 15998 net.cpp:399] inception_3a/5x5 -> inception_3a/5x5
I0714 21:07:20.671664 16002 net.cpp:141] Setting up inception_3a/5x5_reduce
I0714 21:07:20.671684 16002 net.cpp:148] Top shape: 10 16 28 28 (125440)
I0714 21:07:20.671689 16002 net.cpp:156] Memory required for data: 223283200
I0714 21:07:20.671700 16002 layer_factory.hpp:77] Creating layer inception_3a/relu_5x5_reduce
I0714 21:07:20.671710 16002 net.cpp:91] Creating Layer inception_3a/relu_5x5_reduce
I0714 21:07:20.671716 16002 net.cpp:425] inception_3a/relu_5x5_reduce <- inception_3a/5x5_reduce
I0714 21:07:20.671725 16002 net.cpp:386] inception_3a/relu_5x5_reduce -> inception_3a/5x5_reduce (in-place)
I0714 21:07:20.672005 16002 net.cpp:141] Setting up inception_3a/relu_5x5_reduce
I0714 21:07:20.672019 16002 net.cpp:148] Top shape: 10 16 28 28 (125440)
I0714 21:07:20.672024 16002 net.cpp:156] Memory required for data: 223784960
I0714 21:07:20.672029 16002 layer_factory.hpp:77] Creating layer inception_3a/5x5
I0714 21:07:20.672046 16002 net.cpp:91] Creating Layer inception_3a/5x5
I0714 21:07:20.672054 16002 net.cpp:425] inception_3a/5x5 <- inception_3a/5x5_reduce
I0714 21:07:20.672066 16002 net.cpp:399] inception_3a/5x5 -> inception_3a/5x5
I0714 21:07:20.676890 15998 net.cpp:141] Setting up inception_3a/5x5
I0714 21:07:20.676911 15998 net.cpp:148] Top shape: 10 32 28 28 (250880)
I0714 21:07:20.676918 15998 net.cpp:156] Memory required for data: 224788480
I0714 21:07:20.676928 15998 layer_factory.hpp:77] Creating layer inception_3a/relu_5x5
I0714 21:07:20.676944 15998 net.cpp:91] Creating Layer inception_3a/relu_5x5
I0714 21:07:20.676949 15998 net.cpp:425] inception_3a/relu_5x5 <- inception_3a/5x5
I0714 21:07:20.676959 15998 net.cpp:386] inception_3a/relu_5x5 -> inception_3a/5x5 (in-place)
I0714 21:07:20.677300 15998 net.cpp:141] Setting up inception_3a/relu_5x5
I0714 21:07:20.677314 15998 net.cpp:148] Top shape: 10 32 28 28 (250880)
I0714 21:07:20.677320 15998 net.cpp:156] Memory required for data: 225792000
I0714 21:07:20.677325 15998 layer_factory.hpp:77] Creating layer inception_3a/pool
I0714 21:07:20.677336 15998 net.cpp:91] Creating Layer inception_3a/pool
I0714 21:07:20.677342 15998 net.cpp:425] inception_3a/pool <- pool2/3x3_s2_pool2/3x3_s2_0_split_3
I0714 21:07:20.677355 15998 net.cpp:399] inception_3a/pool -> inception_3a/pool
I0714 21:07:20.677865 15998 net.cpp:141] Setting up inception_3a/pool
I0714 21:07:20.677880 15998 net.cpp:148] Top shape: 10 192 28 28 (1505280)
I0714 21:07:20.677886 15998 net.cpp:156] Memory required for data: 231813120
I0714 21:07:20.677891 15998 layer_factory.hpp:77] Creating layer inception_3a/pool_proj
I0714 21:07:20.677912 15998 net.cpp:91] Creating Layer inception_3a/pool_proj
I0714 21:07:20.677919 15998 net.cpp:425] inception_3a/pool_proj <- inception_3a/pool
I0714 21:07:20.677934 15998 net.cpp:399] inception_3a/pool_proj -> inception_3a/pool_proj
I0714 21:07:20.679157 16002 net.cpp:141] Setting up inception_3a/5x5
I0714 21:07:20.679177 16002 net.cpp:148] Top shape: 10 32 28 28 (250880)
I0714 21:07:20.679183 16002 net.cpp:156] Memory required for data: 224788480
I0714 21:07:20.679198 16002 layer_factory.hpp:77] Creating layer inception_3a/relu_5x5
I0714 21:07:20.679209 16002 net.cpp:91] Creating Layer inception_3a/relu_5x5
I0714 21:07:20.679215 16002 net.cpp:425] inception_3a/relu_5x5 <- inception_3a/5x5
I0714 21:07:20.679226 16002 net.cpp:386] inception_3a/relu_5x5 -> inception_3a/5x5 (in-place)
I0714 21:07:20.679601 16002 net.cpp:141] Setting up inception_3a/relu_5x5
I0714 21:07:20.679615 16002 net.cpp:148] Top shape: 10 32 28 28 (250880)
I0714 21:07:20.679620 16002 net.cpp:156] Memory required for data: 225792000
I0714 21:07:20.679635 16002 layer_factory.hpp:77] Creating layer inception_3a/pool
I0714 21:07:20.679646 16002 net.cpp:91] Creating Layer inception_3a/pool
I0714 21:07:20.679653 16002 net.cpp:425] inception_3a/pool <- pool2/3x3_s2_pool2/3x3_s2_0_split_3
I0714 21:07:20.679664 16002 net.cpp:399] inception_3a/pool -> inception_3a/pool
I0714 21:07:20.680409 16002 net.cpp:141] Setting up inception_3a/pool
I0714 21:07:20.680424 16002 net.cpp:148] Top shape: 10 192 28 28 (1505280)
I0714 21:07:20.680429 16002 net.cpp:156] Memory required for data: 231813120
I0714 21:07:20.680434 16002 layer_factory.hpp:77] Creating layer inception_3a/pool_proj
I0714 21:07:20.680454 16002 net.cpp:91] Creating Layer inception_3a/pool_proj
I0714 21:07:20.680460 16002 net.cpp:425] inception_3a/pool_proj <- inception_3a/pool
I0714 21:07:20.680472 16002 net.cpp:399] inception_3a/pool_proj -> inception_3a/pool_proj
I0714 21:07:20.683085 15998 net.cpp:141] Setting up inception_3a/pool_proj
I0714 21:07:20.683107 15998 net.cpp:148] Top shape: 10 32 28 28 (250880)
I0714 21:07:20.683114 15998 net.cpp:156] Memory required for data: 232816640
I0714 21:07:20.683128 15998 layer_factory.hpp:77] Creating layer inception_3a/relu_pool_proj
I0714 21:07:20.683138 15998 net.cpp:91] Creating Layer inception_3a/relu_pool_proj
I0714 21:07:20.683145 15998 net.cpp:425] inception_3a/relu_pool_proj <- inception_3a/pool_proj
I0714 21:07:20.683158 15998 net.cpp:386] inception_3a/relu_pool_proj -> inception_3a/pool_proj (in-place)
I0714 21:07:20.684139 15998 net.cpp:141] Setting up inception_3a/relu_pool_proj
I0714 21:07:20.684155 15998 net.cpp:148] Top shape: 10 32 28 28 (250880)
I0714 21:07:20.684161 15998 net.cpp:156] Memory required for data: 233820160
I0714 21:07:20.684167 15998 layer_factory.hpp:77] Creating layer inception_3a/output
I0714 21:07:20.684190 15998 net.cpp:91] Creating Layer inception_3a/output
I0714 21:07:20.684196 15998 net.cpp:425] inception_3a/output <- inception_3a/1x1
I0714 21:07:20.684203 15998 net.cpp:425] inception_3a/output <- inception_3a/3x3
I0714 21:07:20.684209 15998 net.cpp:425] inception_3a/output <- inception_3a/5x5
I0714 21:07:20.684214 15998 net.cpp:425] inception_3a/output <- inception_3a/pool_proj
I0714 21:07:20.684227 15998 net.cpp:399] inception_3a/output -> inception_3a/output
I0714 21:07:20.684448 15998 net.cpp:141] Setting up inception_3a/output
I0714 21:07:20.684469 15998 net.cpp:148] Top shape: 10 256 28 28 (2007040)
I0714 21:07:20.684474 15998 net.cpp:156] Memory required for data: 241848320
I0714 21:07:20.684479 15998 layer_factory.hpp:77] Creating layer inception_3a/output_inception_3a/output_0_split
I0714 21:07:20.684490 15998 net.cpp:91] Creating Layer inception_3a/output_inception_3a/output_0_split
I0714 21:07:20.684495 15998 net.cpp:425] inception_3a/output_inception_3a/output_0_split <- inception_3a/output
I0714 21:07:20.684517 15998 net.cpp:399] inception_3a/output_inception_3a/output_0_split -> inception_3a/output_inception_3a/output_0_split_0
I0714 21:07:20.684530 15998 net.cpp:399] inception_3a/output_inception_3a/output_0_split -> inception_3a/output_inception_3a/output_0_split_1
I0714 21:07:20.684540 15998 net.cpp:399] inception_3a/output_inception_3a/output_0_split -> inception_3a/output_inception_3a/output_0_split_2
I0714 21:07:20.684551 15998 net.cpp:399] inception_3a/output_inception_3a/output_0_split -> inception_3a/output_inception_3a/output_0_split_3
I0714 21:07:20.684984 15998 net.cpp:141] Setting up inception_3a/output_inception_3a/output_0_split
I0714 21:07:20.685004 15998 net.cpp:148] Top shape: 10 256 28 28 (2007040)
I0714 21:07:20.685011 15998 net.cpp:148] Top shape: 10 256 28 28 (2007040)
I0714 21:07:20.685017 15998 net.cpp:148] Top shape: 10 256 28 28 (2007040)
I0714 21:07:20.685024 15998 net.cpp:148] Top shape: 10 256 28 28 (2007040)
I0714 21:07:20.685027 15998 net.cpp:156] Memory required for data: 273960960
I0714 21:07:20.685039 15998 layer_factory.hpp:77] Creating layer inception_3b/1x1
I0714 21:07:20.685057 15998 net.cpp:91] Creating Layer inception_3b/1x1
I0714 21:07:20.685063 15998 net.cpp:425] inception_3b/1x1 <- inception_3a/output_inception_3a/output_0_split_0
I0714 21:07:20.685073 15998 net.cpp:399] inception_3b/1x1 -> inception_3b/1x1
I0714 21:07:20.685672 16002 net.cpp:141] Setting up inception_3a/pool_proj
I0714 21:07:20.685689 16002 net.cpp:148] Top shape: 10 32 28 28 (250880)
I0714 21:07:20.685694 16002 net.cpp:156] Memory required for data: 232816640
I0714 21:07:20.685711 16002 layer_factory.hpp:77] Creating layer inception_3a/relu_pool_proj
I0714 21:07:20.685721 16002 net.cpp:91] Creating Layer inception_3a/relu_pool_proj
I0714 21:07:20.685729 16002 net.cpp:425] inception_3a/relu_pool_proj <- inception_3a/pool_proj
I0714 21:07:20.685742 16002 net.cpp:386] inception_3a/relu_pool_proj -> inception_3a/pool_proj (in-place)
I0714 21:07:20.686709 16002 net.cpp:141] Setting up inception_3a/relu_pool_proj
I0714 21:07:20.686728 16002 net.cpp:148] Top shape: 10 32 28 28 (250880)
I0714 21:07:20.686733 16002 net.cpp:156] Memory required for data: 233820160
I0714 21:07:20.686739 16002 layer_factory.hpp:77] Creating layer inception_3a/output
I0714 21:07:20.686753 16002 net.cpp:91] Creating Layer inception_3a/output
I0714 21:07:20.686759 16002 net.cpp:425] inception_3a/output <- inception_3a/1x1
I0714 21:07:20.686767 16002 net.cpp:425] inception_3a/output <- inception_3a/3x3
I0714 21:07:20.686774 16002 net.cpp:425] inception_3a/output <- inception_3a/5x5
I0714 21:07:20.686779 16002 net.cpp:425] inception_3a/output <- inception_3a/pool_proj
I0714 21:07:20.686786 16002 net.cpp:399] inception_3a/output -> inception_3a/output
I0714 21:07:20.686884 16002 net.cpp:141] Setting up inception_3a/output
I0714 21:07:20.686897 16002 net.cpp:148] Top shape: 10 256 28 28 (2007040)
I0714 21:07:20.686902 16002 net.cpp:156] Memory required for data: 241848320
I0714 21:07:20.686908 16002 layer_factory.hpp:77] Creating layer inception_3a/output_inception_3a/output_0_split
I0714 21:07:20.686923 16002 net.cpp:91] Creating Layer inception_3a/output_inception_3a/output_0_split
I0714 21:07:20.686930 16002 net.cpp:425] inception_3a/output_inception_3a/output_0_split <- inception_3a/output
I0714 21:07:20.686939 16002 net.cpp:399] inception_3a/output_inception_3a/output_0_split -> inception_3a/output_inception_3a/output_0_split_0
I0714 21:07:20.686951 16002 net.cpp:399] inception_3a/output_inception_3a/output_0_split -> inception_3a/output_inception_3a/output_0_split_1
I0714 21:07:20.686960 16002 net.cpp:399] inception_3a/output_inception_3a/output_0_split -> inception_3a/output_inception_3a/output_0_split_2
I0714 21:07:20.686969 16002 net.cpp:399] inception_3a/output_inception_3a/output_0_split -> inception_3a/output_inception_3a/output_0_split_3
I0714 21:07:20.687954 16002 net.cpp:141] Setting up inception_3a/output_inception_3a/output_0_split
I0714 21:07:20.687969 16002 net.cpp:148] Top shape: 10 256 28 28 (2007040)
I0714 21:07:20.687976 16002 net.cpp:148] Top shape: 10 256 28 28 (2007040)
I0714 21:07:20.687983 16002 net.cpp:148] Top shape: 10 256 28 28 (2007040)
I0714 21:07:20.687988 16002 net.cpp:148] Top shape: 10 256 28 28 (2007040)
I0714 21:07:20.687993 16002 net.cpp:156] Memory required for data: 273960960
I0714 21:07:20.687999 16002 layer_factory.hpp:77] Creating layer inception_3b/1x1
I0714 21:07:20.688017 16002 net.cpp:91] Creating Layer inception_3b/1x1
I0714 21:07:20.688024 16002 net.cpp:425] inception_3b/1x1 <- inception_3a/output_inception_3a/output_0_split_0
I0714 21:07:20.688037 16002 net.cpp:399] inception_3b/1x1 -> inception_3b/1x1
I0714 21:07:20.689573 15998 net.cpp:141] Setting up inception_3b/1x1
I0714 21:07:20.689592 15998 net.cpp:148] Top shape: 10 128 28 28 (1003520)
I0714 21:07:20.689599 15998 net.cpp:156] Memory required for data: 277975040
I0714 21:07:20.689609 15998 layer_factory.hpp:77] Creating layer inception_3b/relu_1x1
I0714 21:07:20.689622 15998 net.cpp:91] Creating Layer inception_3b/relu_1x1
I0714 21:07:20.689630 15998 net.cpp:425] inception_3b/relu_1x1 <- inception_3b/1x1
I0714 21:07:20.689637 15998 net.cpp:386] inception_3b/relu_1x1 -> inception_3b/1x1 (in-place)
I0714 21:07:20.689986 15998 net.cpp:141] Setting up inception_3b/relu_1x1
I0714 21:07:20.690001 15998 net.cpp:148] Top shape: 10 128 28 28 (1003520)
I0714 21:07:20.690006 15998 net.cpp:156] Memory required for data: 281989120
I0714 21:07:20.690011 15998 layer_factory.hpp:77] Creating layer inception_3b/3x3_reduce
I0714 21:07:20.690032 15998 net.cpp:91] Creating Layer inception_3b/3x3_reduce
I0714 21:07:20.690038 15998 net.cpp:425] inception_3b/3x3_reduce <- inception_3a/output_inception_3a/output_0_split_1
I0714 21:07:20.690048 15998 net.cpp:399] inception_3b/3x3_reduce -> inception_3b/3x3_reduce
I0714 21:07:20.694277 15998 net.cpp:141] Setting up inception_3b/3x3_reduce
I0714 21:07:20.694303 15998 net.cpp:148] Top shape: 10 128 28 28 (1003520)
I0714 21:07:20.694309 15998 net.cpp:156] Memory required for data: 286003200
I0714 21:07:20.694322 15998 layer_factory.hpp:77] Creating layer inception_3b/relu_3x3_reduce
I0714 21:07:20.694332 15998 net.cpp:91] Creating Layer inception_3b/relu_3x3_reduce
I0714 21:07:20.694341 15998 net.cpp:425] inception_3b/relu_3x3_reduce <- inception_3b/3x3_reduce
I0714 21:07:20.694355 15998 net.cpp:386] inception_3b/relu_3x3_reduce -> inception_3b/3x3_reduce (in-place)
I0714 21:07:20.694715 16002 net.cpp:141] Setting up inception_3b/1x1
I0714 21:07:20.694736 16002 net.cpp:148] Top shape: 10 128 28 28 (1003520)
I0714 21:07:20.694746 16002 net.cpp:156] Memory required for data: 277975040
I0714 21:07:20.694757 16002 layer_factory.hpp:77] Creating layer inception_3b/relu_1x1
I0714 21:07:20.694767 16002 net.cpp:91] Creating Layer inception_3b/relu_1x1
I0714 21:07:20.694774 16002 net.cpp:425] inception_3b/relu_1x1 <- inception_3b/1x1
I0714 21:07:20.694783 16002 net.cpp:386] inception_3b/relu_1x1 -> inception_3b/1x1 (in-place)
I0714 21:07:20.694785 15998 net.cpp:141] Setting up inception_3b/relu_3x3_reduce
I0714 21:07:20.694804 15998 net.cpp:148] Top shape: 10 128 28 28 (1003520)
I0714 21:07:20.694809 15998 net.cpp:156] Memory required for data: 290017280
I0714 21:07:20.694815 15998 layer_factory.hpp:77] Creating layer inception_3b/3x3
I0714 21:07:20.694835 15998 net.cpp:91] Creating Layer inception_3b/3x3
I0714 21:07:20.694842 15998 net.cpp:425] inception_3b/3x3 <- inception_3b/3x3_reduce
I0714 21:07:20.694852 15998 net.cpp:399] inception_3b/3x3 -> inception_3b/3x3
I0714 21:07:20.695224 16002 net.cpp:141] Setting up inception_3b/relu_1x1
I0714 21:07:20.695237 16002 net.cpp:148] Top shape: 10 128 28 28 (1003520)
I0714 21:07:20.695242 16002 net.cpp:156] Memory required for data: 281989120
I0714 21:07:20.695248 16002 layer_factory.hpp:77] Creating layer inception_3b/3x3_reduce
I0714 21:07:20.695266 16002 net.cpp:91] Creating Layer inception_3b/3x3_reduce
I0714 21:07:20.695278 16002 net.cpp:425] inception_3b/3x3_reduce <- inception_3a/output_inception_3a/output_0_split_1
I0714 21:07:20.695292 16002 net.cpp:399] inception_3b/3x3_reduce -> inception_3b/3x3_reduce
I0714 21:07:20.702344 16002 net.cpp:141] Setting up inception_3b/3x3_reduce
I0714 21:07:20.702376 16002 net.cpp:148] Top shape: 10 128 28 28 (1003520)
I0714 21:07:20.702383 16002 net.cpp:156] Memory required for data: 286003200
I0714 21:07:20.702396 16002 layer_factory.hpp:77] Creating layer inception_3b/relu_3x3_reduce
I0714 21:07:20.702438 16002 net.cpp:91] Creating Layer inception_3b/relu_3x3_reduce
I0714 21:07:20.702451 16002 net.cpp:425] inception_3b/relu_3x3_reduce <- inception_3b/3x3_reduce
I0714 21:07:20.702462 16002 net.cpp:386] inception_3b/relu_3x3_reduce -> inception_3b/3x3_reduce (in-place)
I0714 21:07:20.702946 16002 net.cpp:141] Setting up inception_3b/relu_3x3_reduce
I0714 21:07:20.702961 16002 net.cpp:148] Top shape: 10 128 28 28 (1003520)
I0714 21:07:20.702966 16002 net.cpp:156] Memory required for data: 290017280
I0714 21:07:20.702972 16002 layer_factory.hpp:77] Creating layer inception_3b/3x3
I0714 21:07:20.702994 16002 net.cpp:91] Creating Layer inception_3b/3x3
I0714 21:07:20.703002 16002 net.cpp:425] inception_3b/3x3 <- inception_3b/3x3_reduce
I0714 21:07:20.703014 16002 net.cpp:399] inception_3b/3x3 -> inception_3b/3x3
I0714 21:07:20.707445 15998 net.cpp:141] Setting up inception_3b/3x3
I0714 21:07:20.707487 15998 net.cpp:148] Top shape: 10 192 28 28 (1505280)
I0714 21:07:20.707499 15998 net.cpp:156] Memory required for data: 296038400
I0714 21:07:20.707517 15998 layer_factory.hpp:77] Creating layer inception_3b/relu_3x3
I0714 21:07:20.707550 15998 net.cpp:91] Creating Layer inception_3b/relu_3x3
I0714 21:07:20.707562 15998 net.cpp:425] inception_3b/relu_3x3 <- inception_3b/3x3
I0714 21:07:20.707577 15998 net.cpp:386] inception_3b/relu_3x3 -> inception_3b/3x3 (in-place)
I0714 21:07:20.708978 15998 net.cpp:141] Setting up inception_3b/relu_3x3
I0714 21:07:20.709014 15998 net.cpp:148] Top shape: 10 192 28 28 (1505280)
I0714 21:07:20.709025 15998 net.cpp:156] Memory required for data: 302059520
I0714 21:07:20.709035 15998 layer_factory.hpp:77] Creating layer inception_3b/5x5_reduce
I0714 21:07:20.709062 15998 net.cpp:91] Creating Layer inception_3b/5x5_reduce
I0714 21:07:20.709074 15998 net.cpp:425] inception_3b/5x5_reduce <- inception_3a/output_inception_3a/output_0_split_2
I0714 21:07:20.709097 15998 net.cpp:399] inception_3b/5x5_reduce -> inception_3b/5x5_reduce
I0714 21:07:20.716374 16002 net.cpp:141] Setting up inception_3b/3x3
I0714 21:07:20.716416 16002 net.cpp:148] Top shape: 10 192 28 28 (1505280)
I0714 21:07:20.716428 16002 net.cpp:156] Memory required for data: 296038400
I0714 21:07:20.716449 16002 layer_factory.hpp:77] Creating layer inception_3b/relu_3x3
I0714 21:07:20.716480 16002 net.cpp:91] Creating Layer inception_3b/relu_3x3
I0714 21:07:20.716493 16002 net.cpp:425] inception_3b/relu_3x3 <- inception_3b/3x3
I0714 21:07:20.716508 16002 net.cpp:386] inception_3b/relu_3x3 -> inception_3b/3x3 (in-place)
I0714 21:07:20.718016 15998 net.cpp:141] Setting up inception_3b/5x5_reduce
I0714 21:07:20.718040 15998 net.cpp:148] Top shape: 10 32 28 28 (250880)
I0714 21:07:20.718049 15998 net.cpp:156] Memory required for data: 303063040
I0714 21:07:20.718050 16002 net.cpp:141] Setting up inception_3b/relu_3x3
I0714 21:07:20.718060 15998 layer_factory.hpp:77] Creating layer inception_3b/relu_5x5_reduce
I0714 21:07:20.718080 16002 net.cpp:148] Top shape: 10 192 28 28 (1505280)
I0714 21:07:20.718086 15998 net.cpp:91] Creating Layer inception_3b/relu_5x5_reduce
I0714 21:07:20.718092 16002 net.cpp:156] Memory required for data: 302059520
I0714 21:07:20.718096 15998 net.cpp:425] inception_3b/relu_5x5_reduce <- inception_3b/5x5_reduce
I0714 21:07:20.718109 16002 layer_factory.hpp:77] Creating layer inception_3b/5x5_reduce
I0714 21:07:20.718116 15998 net.cpp:386] inception_3b/relu_5x5_reduce -> inception_3b/5x5_reduce (in-place)
I0714 21:07:20.718142 16002 net.cpp:91] Creating Layer inception_3b/5x5_reduce
I0714 21:07:20.718154 16002 net.cpp:425] inception_3b/5x5_reduce <- inception_3a/output_inception_3a/output_0_split_2
I0714 21:07:20.718176 16002 net.cpp:399] inception_3b/5x5_reduce -> inception_3b/5x5_reduce
I0714 21:07:20.718699 15998 net.cpp:141] Setting up inception_3b/relu_5x5_reduce
I0714 21:07:20.718716 15998 net.cpp:148] Top shape: 10 32 28 28 (250880)
I0714 21:07:20.718735 15998 net.cpp:156] Memory required for data: 304066560
I0714 21:07:20.718742 15998 layer_factory.hpp:77] Creating layer inception_3b/5x5
I0714 21:07:20.718760 15998 net.cpp:91] Creating Layer inception_3b/5x5
I0714 21:07:20.718770 15998 net.cpp:425] inception_3b/5x5 <- inception_3b/5x5_reduce
I0714 21:07:20.718791 15998 net.cpp:399] inception_3b/5x5 -> inception_3b/5x5
I0714 21:07:20.726307 16002 net.cpp:141] Setting up inception_3b/5x5_reduce
I0714 21:07:20.726333 16002 net.cpp:148] Top shape: 10 32 28 28 (250880)
I0714 21:07:20.726339 16002 net.cpp:156] Memory required for data: 303063040
I0714 21:07:20.726351 16002 layer_factory.hpp:77] Creating layer inception_3b/relu_5x5_reduce
I0714 21:07:20.726362 16002 net.cpp:91] Creating Layer inception_3b/relu_5x5_reduce
I0714 21:07:20.726371 16002 net.cpp:425] inception_3b/relu_5x5_reduce <- inception_3b/5x5_reduce
I0714 21:07:20.726380 16002 net.cpp:386] inception_3b/relu_5x5_reduce -> inception_3b/5x5_reduce (in-place)
I0714 21:07:20.726884 16002 net.cpp:141] Setting up inception_3b/relu_5x5_reduce
I0714 21:07:20.726903 16002 net.cpp:148] Top shape: 10 32 28 28 (250880)
I0714 21:07:20.726910 16002 net.cpp:156] Memory required for data: 304066560
I0714 21:07:20.726917 16002 layer_factory.hpp:77] Creating layer inception_3b/5x5
I0714 21:07:20.726941 16002 net.cpp:91] Creating Layer inception_3b/5x5
I0714 21:07:20.726949 16002 net.cpp:425] inception_3b/5x5 <- inception_3b/5x5_reduce
I0714 21:07:20.726963 16002 net.cpp:399] inception_3b/5x5 -> inception_3b/5x5
I0714 21:07:20.726974 15998 net.cpp:141] Setting up inception_3b/5x5
I0714 21:07:20.726995 15998 net.cpp:148] Top shape: 10 96 28 28 (752640)
I0714 21:07:20.727004 15998 net.cpp:156] Memory required for data: 307077120
I0714 21:07:20.727018 15998 layer_factory.hpp:77] Creating layer inception_3b/relu_5x5
I0714 21:07:20.727035 15998 net.cpp:91] Creating Layer inception_3b/relu_5x5
I0714 21:07:20.727044 15998 net.cpp:425] inception_3b/relu_5x5 <- inception_3b/5x5
I0714 21:07:20.727056 15998 net.cpp:386] inception_3b/relu_5x5 -> inception_3b/5x5 (in-place)
I0714 21:07:20.727588 15998 net.cpp:141] Setting up inception_3b/relu_5x5
I0714 21:07:20.727608 15998 net.cpp:148] Top shape: 10 96 28 28 (752640)
I0714 21:07:20.727614 15998 net.cpp:156] Memory required for data: 310087680
I0714 21:07:20.727620 15998 layer_factory.hpp:77] Creating layer inception_3b/pool
I0714 21:07:20.727632 15998 net.cpp:91] Creating Layer inception_3b/pool
I0714 21:07:20.727640 15998 net.cpp:425] inception_3b/pool <- inception_3a/output_inception_3a/output_0_split_3
I0714 21:07:20.727670 15998 net.cpp:399] inception_3b/pool -> inception_3b/pool
I0714 21:07:20.729833 15998 net.cpp:141] Setting up inception_3b/pool
I0714 21:07:20.729851 15998 net.cpp:148] Top shape: 10 256 28 28 (2007040)
I0714 21:07:20.729856 15998 net.cpp:156] Memory required for data: 318115840
I0714 21:07:20.729862 15998 layer_factory.hpp:77] Creating layer inception_3b/pool_proj
I0714 21:07:20.729882 15998 net.cpp:91] Creating Layer inception_3b/pool_proj
I0714 21:07:20.729903 15998 net.cpp:425] inception_3b/pool_proj <- inception_3b/pool
I0714 21:07:20.729918 15998 net.cpp:399] inception_3b/pool_proj -> inception_3b/pool_proj
I0714 21:07:20.733683 15998 net.cpp:141] Setting up inception_3b/pool_proj
I0714 21:07:20.733705 15998 net.cpp:148] Top shape: 10 64 28 28 (501760)
I0714 21:07:20.733711 15998 net.cpp:156] Memory required for data: 320122880
I0714 21:07:20.733721 15998 layer_factory.hpp:77] Creating layer inception_3b/relu_pool_proj
I0714 21:07:20.733748 15998 net.cpp:91] Creating Layer inception_3b/relu_pool_proj
I0714 21:07:20.733757 15998 net.cpp:425] inception_3b/relu_pool_proj <- inception_3b/pool_proj
I0714 21:07:20.733767 15998 net.cpp:386] inception_3b/relu_pool_proj -> inception_3b/pool_proj (in-place)
I0714 21:07:20.734683 16002 net.cpp:141] Setting up inception_3b/5x5
I0714 21:07:20.734722 16002 net.cpp:148] Top shape: 10 96 28 28 (752640)
I0714 21:07:20.734730 16002 net.cpp:156] Memory required for data: 307077120
I0714 21:07:20.734740 16002 layer_factory.hpp:77] Creating layer inception_3b/relu_5x5
I0714 21:07:20.734751 16002 net.cpp:91] Creating Layer inception_3b/relu_5x5
I0714 21:07:20.734758 16002 net.cpp:425] inception_3b/relu_5x5 <- inception_3b/5x5
I0714 21:07:20.734774 16002 net.cpp:386] inception_3b/relu_5x5 -> inception_3b/5x5 (in-place)
I0714 21:07:20.734784 15998 net.cpp:141] Setting up inception_3b/relu_pool_proj
I0714 21:07:20.734804 15998 net.cpp:148] Top shape: 10 64 28 28 (501760)
I0714 21:07:20.734810 15998 net.cpp:156] Memory required for data: 322129920
I0714 21:07:20.734817 15998 layer_factory.hpp:77] Creating layer inception_3b/output
I0714 21:07:20.734827 15998 net.cpp:91] Creating Layer inception_3b/output
I0714 21:07:20.734834 15998 net.cpp:425] inception_3b/output <- inception_3b/1x1
I0714 21:07:20.734843 15998 net.cpp:425] inception_3b/output <- inception_3b/3x3
I0714 21:07:20.734849 15998 net.cpp:425] inception_3b/output <- inception_3b/5x5
I0714 21:07:20.734856 15998 net.cpp:425] inception_3b/output <- inception_3b/pool_proj
I0714 21:07:20.734864 15998 net.cpp:399] inception_3b/output -> inception_3b/output
I0714 21:07:20.735044 15998 net.cpp:141] Setting up inception_3b/output
I0714 21:07:20.735057 15998 net.cpp:148] Top shape: 10 480 28 28 (3763200)
I0714 21:07:20.735064 15998 net.cpp:156] Memory required for data: 337182720
I0714 21:07:20.735069 15998 layer_factory.hpp:77] Creating layer pool3/3x3_s2
I0714 21:07:20.735080 15998 net.cpp:91] Creating Layer pool3/3x3_s2
I0714 21:07:20.735086 15998 net.cpp:425] pool3/3x3_s2 <- inception_3b/output
I0714 21:07:20.735100 15998 net.cpp:399] pool3/3x3_s2 -> pool3/3x3_s2
I0714 21:07:20.735146 16002 net.cpp:141] Setting up inception_3b/relu_5x5
I0714 21:07:20.735160 16002 net.cpp:148] Top shape: 10 96 28 28 (752640)
I0714 21:07:20.735165 16002 net.cpp:156] Memory required for data: 310087680
I0714 21:07:20.735172 16002 layer_factory.hpp:77] Creating layer inception_3b/pool
I0714 21:07:20.735188 16002 net.cpp:91] Creating Layer inception_3b/pool
I0714 21:07:20.735195 16002 net.cpp:425] inception_3b/pool <- inception_3a/output_inception_3a/output_0_split_3
I0714 21:07:20.735204 16002 net.cpp:399] inception_3b/pool -> inception_3b/pool
I0714 21:07:20.735237 15998 net.cpp:141] Setting up pool3/3x3_s2
I0714 21:07:20.735251 15998 net.cpp:148] Top shape: 10 480 14 14 (940800)
I0714 21:07:20.735257 15998 net.cpp:156] Memory required for data: 340945920
I0714 21:07:20.735262 15998 layer_factory.hpp:77] Creating layer pool3/3x3_s2_pool3/3x3_s2_0_split
I0714 21:07:20.735273 15998 net.cpp:91] Creating Layer pool3/3x3_s2_pool3/3x3_s2_0_split
I0714 21:07:20.735280 15998 net.cpp:425] pool3/3x3_s2_pool3/3x3_s2_0_split <- pool3/3x3_s2
I0714 21:07:20.735292 15998 net.cpp:399] pool3/3x3_s2_pool3/3x3_s2_0_split -> pool3/3x3_s2_pool3/3x3_s2_0_split_0
I0714 21:07:20.735303 15998 net.cpp:399] pool3/3x3_s2_pool3/3x3_s2_0_split -> pool3/3x3_s2_pool3/3x3_s2_0_split_1
I0714 21:07:20.735313 15998 net.cpp:399] pool3/3x3_s2_pool3/3x3_s2_0_split -> pool3/3x3_s2_pool3/3x3_s2_0_split_2
I0714 21:07:20.735323 15998 net.cpp:399] pool3/3x3_s2_pool3/3x3_s2_0_split -> pool3/3x3_s2_pool3/3x3_s2_0_split_3
I0714 21:07:20.735360 16002 net.cpp:141] Setting up inception_3b/pool
I0714 21:07:20.735373 16002 net.cpp:148] Top shape: 10 256 28 28 (2007040)
I0714 21:07:20.735378 16002 net.cpp:156] Memory required for data: 318115840
I0714 21:07:20.735384 16002 layer_factory.hpp:77] Creating layer inception_3b/pool_proj
I0714 21:07:20.735404 16002 net.cpp:91] Creating Layer inception_3b/pool_proj
I0714 21:07:20.735410 16002 net.cpp:425] inception_3b/pool_proj <- inception_3b/pool
I0714 21:07:20.735424 16002 net.cpp:399] inception_3b/pool_proj -> inception_3b/pool_proj
I0714 21:07:20.735821 15998 net.cpp:141] Setting up pool3/3x3_s2_pool3/3x3_s2_0_split
I0714 21:07:20.735836 15998 net.cpp:148] Top shape: 10 480 14 14 (940800)
I0714 21:07:20.735842 15998 net.cpp:148] Top shape: 10 480 14 14 (940800)
I0714 21:07:20.735849 15998 net.cpp:148] Top shape: 10 480 14 14 (940800)
I0714 21:07:20.735855 15998 net.cpp:148] Top shape: 10 480 14 14 (940800)
I0714 21:07:20.735860 15998 net.cpp:156] Memory required for data: 355998720
I0714 21:07:20.735867 15998 layer_factory.hpp:77] Creating layer inception_4a/1x1
I0714 21:07:20.735882 15998 net.cpp:91] Creating Layer inception_4a/1x1
I0714 21:07:20.735888 15998 net.cpp:425] inception_4a/1x1 <- pool3/3x3_s2_pool3/3x3_s2_0_split_0
I0714 21:07:20.735903 15998 net.cpp:399] inception_4a/1x1 -> inception_4a/1x1
I0714 21:07:20.741696 16002 net.cpp:141] Setting up inception_3b/pool_proj
I0714 21:07:20.741726 16002 net.cpp:148] Top shape: 10 64 28 28 (501760)
I0714 21:07:20.741734 16002 net.cpp:156] Memory required for data: 320122880
I0714 21:07:20.741746 16002 layer_factory.hpp:77] Creating layer inception_3b/relu_pool_proj
I0714 21:07:20.741760 16002 net.cpp:91] Creating Layer inception_3b/relu_pool_proj
I0714 21:07:20.741767 16002 net.cpp:425] inception_3b/relu_pool_proj <- inception_3b/pool_proj
I0714 21:07:20.741776 16002 net.cpp:386] inception_3b/relu_pool_proj -> inception_3b/pool_proj (in-place)
I0714 21:07:20.742934 16002 net.cpp:141] Setting up inception_3b/relu_pool_proj
I0714 21:07:20.742954 16002 net.cpp:148] Top shape: 10 64 28 28 (501760)
I0714 21:07:20.742959 16002 net.cpp:156] Memory required for data: 322129920
I0714 21:07:20.742964 16002 layer_factory.hpp:77] Creating layer inception_3b/output
I0714 21:07:20.742975 16002 net.cpp:91] Creating Layer inception_3b/output
I0714 21:07:20.742982 16002 net.cpp:425] inception_3b/output <- inception_3b/1x1
I0714 21:07:20.742990 16002 net.cpp:425] inception_3b/output <- inception_3b/3x3
I0714 21:07:20.742996 16002 net.cpp:425] inception_3b/output <- inception_3b/5x5
I0714 21:07:20.743003 16002 net.cpp:425] inception_3b/output <- inception_3b/pool_proj
I0714 21:07:20.743016 16002 net.cpp:399] inception_3b/output -> inception_3b/output
I0714 21:07:20.743026 15998 net.cpp:141] Setting up inception_4a/1x1
I0714 21:07:20.743042 15998 net.cpp:148] Top shape: 10 192 14 14 (376320)
I0714 21:07:20.743048 15998 net.cpp:156] Memory required for data: 357504000
I0714 21:07:20.743058 15998 layer_factory.hpp:77] Creating layer inception_4a/relu_1x1
I0714 21:07:20.743068 15998 net.cpp:91] Creating Layer inception_4a/relu_1x1
I0714 21:07:20.743075 15998 net.cpp:425] inception_4a/relu_1x1 <- inception_4a/1x1
I0714 21:07:20.743095 15998 net.cpp:386] inception_4a/relu_1x1 -> inception_4a/1x1 (in-place)
I0714 21:07:20.743119 16002 net.cpp:141] Setting up inception_3b/output
I0714 21:07:20.743130 16002 net.cpp:148] Top shape: 10 480 28 28 (3763200)
I0714 21:07:20.743135 16002 net.cpp:156] Memory required for data: 337182720
I0714 21:07:20.743141 16002 layer_factory.hpp:77] Creating layer pool3/3x3_s2
I0714 21:07:20.743150 16002 net.cpp:91] Creating Layer pool3/3x3_s2
I0714 21:07:20.743156 16002 net.cpp:425] pool3/3x3_s2 <- inception_3b/output
I0714 21:07:20.743170 16002 net.cpp:399] pool3/3x3_s2 -> pool3/3x3_s2
I0714 21:07:20.743463 16002 net.cpp:141] Setting up pool3/3x3_s2
I0714 21:07:20.743475 16002 net.cpp:148] Top shape: 10 480 14 14 (940800)
I0714 21:07:20.743481 16002 net.cpp:156] Memory required for data: 340945920
I0714 21:07:20.743486 16002 layer_factory.hpp:77] Creating layer pool3/3x3_s2_pool3/3x3_s2_0_split
I0714 21:07:20.743501 16002 net.cpp:91] Creating Layer pool3/3x3_s2_pool3/3x3_s2_0_split
I0714 21:07:20.743507 16002 net.cpp:425] pool3/3x3_s2_pool3/3x3_s2_0_split <- pool3/3x3_s2
I0714 21:07:20.743515 16002 net.cpp:399] pool3/3x3_s2_pool3/3x3_s2_0_split -> pool3/3x3_s2_pool3/3x3_s2_0_split_0
I0714 21:07:20.743525 16002 net.cpp:399] pool3/3x3_s2_pool3/3x3_s2_0_split -> pool3/3x3_s2_pool3/3x3_s2_0_split_1
I0714 21:07:20.743538 16002 net.cpp:399] pool3/3x3_s2_pool3/3x3_s2_0_split -> pool3/3x3_s2_pool3/3x3_s2_0_split_2
I0714 21:07:20.743540 15998 net.cpp:141] Setting up inception_4a/relu_1x1
I0714 21:07:20.743547 16002 net.cpp:399] pool3/3x3_s2_pool3/3x3_s2_0_split -> pool3/3x3_s2_pool3/3x3_s2_0_split_3
I0714 21:07:20.743557 15998 net.cpp:148] Top shape: 10 192 14 14 (376320)
I0714 21:07:20.743563 15998 net.cpp:156] Memory required for data: 359009280
I0714 21:07:20.743569 15998 layer_factory.hpp:77] Creating layer inception_4a/3x3_reduce
I0714 21:07:20.743588 15998 net.cpp:91] Creating Layer inception_4a/3x3_reduce
I0714 21:07:20.743595 15998 net.cpp:425] inception_4a/3x3_reduce <- pool3/3x3_s2_pool3/3x3_s2_0_split_1
I0714 21:07:20.743607 15998 net.cpp:399] inception_4a/3x3_reduce -> inception_4a/3x3_reduce
I0714 21:07:20.744011 16002 net.cpp:141] Setting up pool3/3x3_s2_pool3/3x3_s2_0_split
I0714 21:07:20.744024 16002 net.cpp:148] Top shape: 10 480 14 14 (940800)
I0714 21:07:20.744030 16002 net.cpp:148] Top shape: 10 480 14 14 (940800)
I0714 21:07:20.744036 16002 net.cpp:148] Top shape: 10 480 14 14 (940800)
I0714 21:07:20.744042 16002 net.cpp:148] Top shape: 10 480 14 14 (940800)
I0714 21:07:20.744046 16002 net.cpp:156] Memory required for data: 355998720
I0714 21:07:20.744052 16002 layer_factory.hpp:77] Creating layer inception_4a/1x1
I0714 21:07:20.744071 16002 net.cpp:91] Creating Layer inception_4a/1x1
I0714 21:07:20.744079 16002 net.cpp:425] inception_4a/1x1 <- pool3/3x3_s2_pool3/3x3_s2_0_split_0
I0714 21:07:20.744089 16002 net.cpp:399] inception_4a/1x1 -> inception_4a/1x1
I0714 21:07:20.749902 15998 net.cpp:141] Setting up inception_4a/3x3_reduce
I0714 21:07:20.749924 15998 net.cpp:148] Top shape: 10 96 14 14 (188160)
I0714 21:07:20.749930 15998 net.cpp:156] Memory required for data: 359761920
I0714 21:07:20.749953 15998 layer_factory.hpp:77] Creating layer inception_4a/relu_3x3_reduce
I0714 21:07:20.749963 15998 net.cpp:91] Creating Layer inception_4a/relu_3x3_reduce
I0714 21:07:20.749969 15998 net.cpp:425] inception_4a/relu_3x3_reduce <- inception_4a/3x3_reduce
I0714 21:07:20.749982 15998 net.cpp:386] inception_4a/relu_3x3_reduce -> inception_4a/3x3_reduce (in-place)
I0714 21:07:20.750438 15998 net.cpp:141] Setting up inception_4a/relu_3x3_reduce
I0714 21:07:20.750458 15998 net.cpp:148] Top shape: 10 96 14 14 (188160)
I0714 21:07:20.750463 16002 net.cpp:141] Setting up inception_4a/1x1
I0714 21:07:20.750464 15998 net.cpp:156] Memory required for data: 360514560
I0714 21:07:20.750491 16002 net.cpp:148] Top shape: 10 192 14 14 (376320)
I0714 21:07:20.750495 15998 layer_factory.hpp:77] Creating layer inception_4a/3x3
I0714 21:07:20.750499 16002 net.cpp:156] Memory required for data: 357504000
I0714 21:07:20.750520 16002 layer_factory.hpp:77] Creating layer inception_4a/relu_1x1
I0714 21:07:20.750530 15998 net.cpp:91] Creating Layer inception_4a/3x3
I0714 21:07:20.750535 16002 net.cpp:91] Creating Layer inception_4a/relu_1x1
I0714 21:07:20.750538 15998 net.cpp:425] inception_4a/3x3 <- inception_4a/3x3_reduce
I0714 21:07:20.750543 16002 net.cpp:425] inception_4a/relu_1x1 <- inception_4a/1x1
I0714 21:07:20.750550 15998 net.cpp:399] inception_4a/3x3 -> inception_4a/3x3
I0714 21:07:20.750552 16002 net.cpp:386] inception_4a/relu_1x1 -> inception_4a/1x1 (in-place)
I0714 21:07:20.751019 16002 net.cpp:141] Setting up inception_4a/relu_1x1
I0714 21:07:20.751034 16002 net.cpp:148] Top shape: 10 192 14 14 (376320)
I0714 21:07:20.751040 16002 net.cpp:156] Memory required for data: 359009280
I0714 21:07:20.751045 16002 layer_factory.hpp:77] Creating layer inception_4a/3x3_reduce
I0714 21:07:20.751065 16002 net.cpp:91] Creating Layer inception_4a/3x3_reduce
I0714 21:07:20.751071 16002 net.cpp:425] inception_4a/3x3_reduce <- pool3/3x3_s2_pool3/3x3_s2_0_split_1
I0714 21:07:20.751085 16002 net.cpp:399] inception_4a/3x3_reduce -> inception_4a/3x3_reduce
I0714 21:07:20.757926 16002 net.cpp:141] Setting up inception_4a/3x3_reduce
I0714 21:07:20.757951 16002 net.cpp:148] Top shape: 10 96 14 14 (188160)
I0714 21:07:20.757957 16002 net.cpp:156] Memory required for data: 359761920
I0714 21:07:20.757977 16002 layer_factory.hpp:77] Creating layer inception_4a/relu_3x3_reduce
I0714 21:07:20.757992 16002 net.cpp:91] Creating Layer inception_4a/relu_3x3_reduce
I0714 21:07:20.757998 16002 net.cpp:425] inception_4a/relu_3x3_reduce <- inception_4a/3x3_reduce
I0714 21:07:20.758008 16002 net.cpp:386] inception_4a/relu_3x3_reduce -> inception_4a/3x3_reduce (in-place)
I0714 21:07:20.758507 16002 net.cpp:141] Setting up inception_4a/relu_3x3_reduce
I0714 21:07:20.758523 16002 net.cpp:148] Top shape: 10 96 14 14 (188160)
I0714 21:07:20.758529 16002 net.cpp:156] Memory required for data: 360514560
I0714 21:07:20.758535 16002 layer_factory.hpp:77] Creating layer inception_4a/3x3
I0714 21:07:20.758554 16002 net.cpp:91] Creating Layer inception_4a/3x3
I0714 21:07:20.758561 16002 net.cpp:425] inception_4a/3x3 <- inception_4a/3x3_reduce
I0714 21:07:20.758574 16002 net.cpp:399] inception_4a/3x3 -> inception_4a/3x3
I0714 21:07:20.758620 15998 net.cpp:141] Setting up inception_4a/3x3
I0714 21:07:20.758642 15998 net.cpp:148] Top shape: 10 208 14 14 (407680)
I0714 21:07:20.758652 15998 net.cpp:156] Memory required for data: 362145280
I0714 21:07:20.758664 15998 layer_factory.hpp:77] Creating layer inception_4a/relu_3x3
I0714 21:07:20.758676 15998 net.cpp:91] Creating Layer inception_4a/relu_3x3
I0714 21:07:20.758682 15998 net.cpp:425] inception_4a/relu_3x3 <- inception_4a/3x3
I0714 21:07:20.758702 15998 net.cpp:386] inception_4a/relu_3x3 -> inception_4a/3x3 (in-place)
I0714 21:07:20.759804 15998 net.cpp:141] Setting up inception_4a/relu_3x3
I0714 21:07:20.759826 15998 net.cpp:148] Top shape: 10 208 14 14 (407680)
I0714 21:07:20.759834 15998 net.cpp:156] Memory required for data: 363776000
I0714 21:07:20.759840 15998 layer_factory.hpp:77] Creating layer inception_4a/5x5_reduce
I0714 21:07:20.759860 15998 net.cpp:91] Creating Layer inception_4a/5x5_reduce
I0714 21:07:20.759867 15998 net.cpp:425] inception_4a/5x5_reduce <- pool3/3x3_s2_pool3/3x3_s2_0_split_2
I0714 21:07:20.759878 15998 net.cpp:399] inception_4a/5x5_reduce -> inception_4a/5x5_reduce
I0714 21:07:20.765982 15998 net.cpp:141] Setting up inception_4a/5x5_reduce
I0714 21:07:20.766017 15998 net.cpp:148] Top shape: 10 16 14 14 (31360)
I0714 21:07:20.766023 15998 net.cpp:156] Memory required for data: 363901440
I0714 21:07:20.766034 15998 layer_factory.hpp:77] Creating layer inception_4a/relu_5x5_reduce
I0714 21:07:20.766046 15998 net.cpp:91] Creating Layer inception_4a/relu_5x5_reduce
I0714 21:07:20.766052 15998 net.cpp:425] inception_4a/relu_5x5_reduce <- inception_4a/5x5_reduce
I0714 21:07:20.766062 15998 net.cpp:386] inception_4a/relu_5x5_reduce -> inception_4a/5x5_reduce (in-place)
I0714 21:07:20.766635 15998 net.cpp:141] Setting up inception_4a/relu_5x5_reduce
I0714 21:07:20.766651 15998 net.cpp:148] Top shape: 10 16 14 14 (31360)
I0714 21:07:20.766656 15998 net.cpp:156] Memory required for data: 364026880
I0714 21:07:20.766664 15998 layer_factory.hpp:77] Creating layer inception_4a/5x5
I0714 21:07:20.766680 15998 net.cpp:91] Creating Layer inception_4a/5x5
I0714 21:07:20.766713 15998 net.cpp:425] inception_4a/5x5 <- inception_4a/5x5_reduce
I0714 21:07:20.766731 15998 net.cpp:399] inception_4a/5x5 -> inception_4a/5x5
I0714 21:07:20.766729 16002 net.cpp:141] Setting up inception_4a/3x3
I0714 21:07:20.766749 16002 net.cpp:148] Top shape: 10 208 14 14 (407680)
I0714 21:07:20.766764 16002 net.cpp:156] Memory required for data: 362145280
I0714 21:07:20.766775 16002 layer_factory.hpp:77] Creating layer inception_4a/relu_3x3
I0714 21:07:20.766785 16002 net.cpp:91] Creating Layer inception_4a/relu_3x3
I0714 21:07:20.766793 16002 net.cpp:425] inception_4a/relu_3x3 <- inception_4a/3x3
I0714 21:07:20.766800 16002 net.cpp:386] inception_4a/relu_3x3 -> inception_4a/3x3 (in-place)
I0714 21:07:20.767868 16002 net.cpp:141] Setting up inception_4a/relu_3x3
I0714 21:07:20.767887 16002 net.cpp:148] Top shape: 10 208 14 14 (407680)
I0714 21:07:20.767894 16002 net.cpp:156] Memory required for data: 363776000
I0714 21:07:20.767899 16002 layer_factory.hpp:77] Creating layer inception_4a/5x5_reduce
I0714 21:07:20.767920 16002 net.cpp:91] Creating Layer inception_4a/5x5_reduce
I0714 21:07:20.767927 16002 net.cpp:425] inception_4a/5x5_reduce <- pool3/3x3_s2_pool3/3x3_s2_0_split_2
I0714 21:07:20.767941 16002 net.cpp:399] inception_4a/5x5_reduce -> inception_4a/5x5_reduce
I0714 21:07:20.772264 15998 net.cpp:141] Setting up inception_4a/5x5
I0714 21:07:20.772285 15998 net.cpp:148] Top shape: 10 48 14 14 (94080)
I0714 21:07:20.772291 15998 net.cpp:156] Memory required for data: 364403200
I0714 21:07:20.772301 15998 layer_factory.hpp:77] Creating layer inception_4a/relu_5x5
I0714 21:07:20.772316 15998 net.cpp:91] Creating Layer inception_4a/relu_5x5
I0714 21:07:20.772323 15998 net.cpp:425] inception_4a/relu_5x5 <- inception_4a/5x5
I0714 21:07:20.772331 15998 net.cpp:386] inception_4a/relu_5x5 -> inception_4a/5x5 (in-place)
I0714 21:07:20.772786 15998 net.cpp:141] Setting up inception_4a/relu_5x5
I0714 21:07:20.772802 15998 net.cpp:148] Top shape: 10 48 14 14 (94080)
I0714 21:07:20.772799 16002 net.cpp:141] Setting up inception_4a/5x5_reduce
I0714 21:07:20.772809 15998 net.cpp:156] Memory required for data: 364779520
I0714 21:07:20.772822 16002 net.cpp:148] Top shape: 10 16 14 14 (31360)
I0714 21:07:20.772825 15998 layer_factory.hpp:77] Creating layer inception_4a/pool
I0714 21:07:20.772830 16002 net.cpp:156] Memory required for data: 363901440
I0714 21:07:20.772836 15998 net.cpp:91] Creating Layer inception_4a/pool
I0714 21:07:20.772842 16002 layer_factory.hpp:77] Creating layer inception_4a/relu_5x5_reduce
I0714 21:07:20.772845 15998 net.cpp:425] inception_4a/pool <- pool3/3x3_s2_pool3/3x3_s2_0_split_3
I0714 21:07:20.772855 16002 net.cpp:91] Creating Layer inception_4a/relu_5x5_reduce
I0714 21:07:20.772857 15998 net.cpp:399] inception_4a/pool -> inception_4a/pool
I0714 21:07:20.772862 16002 net.cpp:425] inception_4a/relu_5x5_reduce <- inception_4a/5x5_reduce
I0714 21:07:20.772876 16002 net.cpp:386] inception_4a/relu_5x5_reduce -> inception_4a/5x5_reduce (in-place)
I0714 21:07:20.773234 15998 net.cpp:141] Setting up inception_4a/pool
I0714 21:07:20.773247 15998 net.cpp:148] Top shape: 10 480 14 14 (940800)
I0714 21:07:20.773252 15998 net.cpp:156] Memory required for data: 368542720
I0714 21:07:20.773257 15998 layer_factory.hpp:77] Creating layer inception_4a/pool_proj
I0714 21:07:20.773277 15998 net.cpp:91] Creating Layer inception_4a/pool_proj
I0714 21:07:20.773283 15998 net.cpp:425] inception_4a/pool_proj <- inception_4a/pool
I0714 21:07:20.773293 15998 net.cpp:399] inception_4a/pool_proj -> inception_4a/pool_proj
I0714 21:07:20.773305 16002 net.cpp:141] Setting up inception_4a/relu_5x5_reduce
I0714 21:07:20.773321 16002 net.cpp:148] Top shape: 10 16 14 14 (31360)
I0714 21:07:20.773327 16002 net.cpp:156] Memory required for data: 364026880
I0714 21:07:20.773334 16002 layer_factory.hpp:77] Creating layer inception_4a/5x5
I0714 21:07:20.773353 16002 net.cpp:91] Creating Layer inception_4a/5x5
I0714 21:07:20.773360 16002 net.cpp:425] inception_4a/5x5 <- inception_4a/5x5_reduce
I0714 21:07:20.773370 16002 net.cpp:399] inception_4a/5x5 -> inception_4a/5x5
I0714 21:07:20.777997 16002 net.cpp:141] Setting up inception_4a/5x5
I0714 21:07:20.778018 16002 net.cpp:148] Top shape: 10 48 14 14 (94080)
I0714 21:07:20.778024 16002 net.cpp:156] Memory required for data: 364403200
I0714 21:07:20.778034 16002 layer_factory.hpp:77] Creating layer inception_4a/relu_5x5
I0714 21:07:20.778049 16002 net.cpp:91] Creating Layer inception_4a/relu_5x5
I0714 21:07:20.778058 16002 net.cpp:425] inception_4a/relu_5x5 <- inception_4a/5x5
I0714 21:07:20.778065 16002 net.cpp:386] inception_4a/relu_5x5 -> inception_4a/5x5 (in-place)
I0714 21:07:20.778527 16002 net.cpp:141] Setting up inception_4a/relu_5x5
I0714 21:07:20.778542 16002 net.cpp:148] Top shape: 10 48 14 14 (94080)
I0714 21:07:20.778548 16002 net.cpp:156] Memory required for data: 364779520
I0714 21:07:20.778553 16002 layer_factory.hpp:77] Creating layer inception_4a/pool
I0714 21:07:20.778564 16002 net.cpp:91] Creating Layer inception_4a/pool
I0714 21:07:20.778571 16002 net.cpp:425] inception_4a/pool <- pool3/3x3_s2_pool3/3x3_s2_0_split_3
I0714 21:07:20.778584 16002 net.cpp:399] inception_4a/pool -> inception_4a/pool
I0714 21:07:20.778774 15998 net.cpp:141] Setting up inception_4a/pool_proj
I0714 21:07:20.778792 15998 net.cpp:148] Top shape: 10 64 14 14 (125440)
I0714 21:07:20.778797 15998 net.cpp:156] Memory required for data: 369044480
I0714 21:07:20.778805 16002 net.cpp:141] Setting up inception_4a/pool
I0714 21:07:20.778810 15998 layer_factory.hpp:77] Creating layer inception_4a/relu_pool_proj
I0714 21:07:20.778821 16002 net.cpp:148] Top shape: 10 480 14 14 (940800)
I0714 21:07:20.778827 16002 net.cpp:156] Memory required for data: 368542720
I0714 21:07:20.778831 15998 net.cpp:91] Creating Layer inception_4a/relu_pool_proj
I0714 21:07:20.778833 16002 layer_factory.hpp:77] Creating layer inception_4a/pool_proj
I0714 21:07:20.778838 15998 net.cpp:425] inception_4a/relu_pool_proj <- inception_4a/pool_proj
I0714 21:07:20.778847 15998 net.cpp:386] inception_4a/relu_pool_proj -> inception_4a/pool_proj (in-place)
I0714 21:07:20.778853 16002 net.cpp:91] Creating Layer inception_4a/pool_proj
I0714 21:07:20.778861 16002 net.cpp:425] inception_4a/pool_proj <- inception_4a/pool
I0714 21:07:20.778873 16002 net.cpp:399] inception_4a/pool_proj -> inception_4a/pool_proj
I0714 21:07:20.779904 15998 net.cpp:141] Setting up inception_4a/relu_pool_proj
I0714 21:07:20.779923 15998 net.cpp:148] Top shape: 10 64 14 14 (125440)
I0714 21:07:20.779929 15998 net.cpp:156] Memory required for data: 369546240
I0714 21:07:20.779935 15998 layer_factory.hpp:77] Creating layer inception_4a/output
I0714 21:07:20.779944 15998 net.cpp:91] Creating Layer inception_4a/output
I0714 21:07:20.779950 15998 net.cpp:425] inception_4a/output <- inception_4a/1x1
I0714 21:07:20.779958 15998 net.cpp:425] inception_4a/output <- inception_4a/3x3
I0714 21:07:20.779964 15998 net.cpp:425] inception_4a/output <- inception_4a/5x5
I0714 21:07:20.779970 15998 net.cpp:425] inception_4a/output <- inception_4a/pool_proj
I0714 21:07:20.779981 15998 net.cpp:399] inception_4a/output -> inception_4a/output
I0714 21:07:20.780150 15998 net.cpp:141] Setting up inception_4a/output
I0714 21:07:20.780164 15998 net.cpp:148] Top shape: 10 512 14 14 (1003520)
I0714 21:07:20.780169 15998 net.cpp:156] Memory required for data: 373560320
I0714 21:07:20.780174 15998 layer_factory.hpp:77] Creating layer inception_4a/output_inception_4a/output_0_split
I0714 21:07:20.780182 15998 net.cpp:91] Creating Layer inception_4a/output_inception_4a/output_0_split
I0714 21:07:20.780189 15998 net.cpp:425] inception_4a/output_inception_4a/output_0_split <- inception_4a/output
I0714 21:07:20.780200 15998 net.cpp:399] inception_4a/output_inception_4a/output_0_split -> inception_4a/output_inception_4a/output_0_split_0
I0714 21:07:20.780212 15998 net.cpp:399] inception_4a/output_inception_4a/output_0_split -> inception_4a/output_inception_4a/output_0_split_1
I0714 21:07:20.780221 15998 net.cpp:399] inception_4a/output_inception_4a/output_0_split -> inception_4a/output_inception_4a/output_0_split_2
I0714 21:07:20.780231 15998 net.cpp:399] inception_4a/output_inception_4a/output_0_split -> inception_4a/output_inception_4a/output_0_split_3
I0714 21:07:20.780429 15998 net.cpp:141] Setting up inception_4a/output_inception_4a/output_0_split
I0714 21:07:20.780441 15998 net.cpp:148] Top shape: 10 512 14 14 (1003520)
I0714 21:07:20.780447 15998 net.cpp:148] Top shape: 10 512 14 14 (1003520)
I0714 21:07:20.780453 15998 net.cpp:148] Top shape: 10 512 14 14 (1003520)
I0714 21:07:20.780459 15998 net.cpp:148] Top shape: 10 512 14 14 (1003520)
I0714 21:07:20.780463 15998 net.cpp:156] Memory required for data: 389616640
I0714 21:07:20.780469 15998 layer_factory.hpp:77] Creating layer inception_4b/1x1
I0714 21:07:20.780485 15998 net.cpp:91] Creating Layer inception_4b/1x1
I0714 21:07:20.780491 15998 net.cpp:425] inception_4b/1x1 <- inception_4a/output_inception_4a/output_0_split_0
I0714 21:07:20.780505 15998 net.cpp:399] inception_4b/1x1 -> inception_4b/1x1
I0714 21:07:20.783493 16002 net.cpp:141] Setting up inception_4a/pool_proj
I0714 21:07:20.783514 16002 net.cpp:148] Top shape: 10 64 14 14 (125440)
I0714 21:07:20.783520 16002 net.cpp:156] Memory required for data: 369044480
I0714 21:07:20.783531 16002 layer_factory.hpp:77] Creating layer inception_4a/relu_pool_proj
I0714 21:07:20.783541 16002 net.cpp:91] Creating Layer inception_4a/relu_pool_proj
I0714 21:07:20.783548 16002 net.cpp:425] inception_4a/relu_pool_proj <- inception_4a/pool_proj
I0714 21:07:20.783560 16002 net.cpp:386] inception_4a/relu_pool_proj -> inception_4a/pool_proj (in-place)
I0714 21:07:20.784507 16002 net.cpp:141] Setting up inception_4a/relu_pool_proj
I0714 21:07:20.784523 16002 net.cpp:148] Top shape: 10 64 14 14 (125440)
I0714 21:07:20.784529 16002 net.cpp:156] Memory required for data: 369546240
I0714 21:07:20.784535 16002 layer_factory.hpp:77] Creating layer inception_4a/output
I0714 21:07:20.784545 16002 net.cpp:91] Creating Layer inception_4a/output
I0714 21:07:20.784551 16002 net.cpp:425] inception_4a/output <- inception_4a/1x1
I0714 21:07:20.784559 16002 net.cpp:425] inception_4a/output <- inception_4a/3x3
I0714 21:07:20.784566 16002 net.cpp:425] inception_4a/output <- inception_4a/5x5
I0714 21:07:20.784572 16002 net.cpp:425] inception_4a/output <- inception_4a/pool_proj
I0714 21:07:20.784584 16002 net.cpp:399] inception_4a/output -> inception_4a/output
I0714 21:07:20.784718 16002 net.cpp:141] Setting up inception_4a/output
I0714 21:07:20.784731 16002 net.cpp:148] Top shape: 10 512 14 14 (1003520)
I0714 21:07:20.784736 16002 net.cpp:156] Memory required for data: 373560320
I0714 21:07:20.784741 16002 layer_factory.hpp:77] Creating layer inception_4a/output_inception_4a/output_0_split
I0714 21:07:20.784756 16002 net.cpp:91] Creating Layer inception_4a/output_inception_4a/output_0_split
I0714 21:07:20.784764 16002 net.cpp:425] inception_4a/output_inception_4a/output_0_split <- inception_4a/output
I0714 21:07:20.784771 16002 net.cpp:399] inception_4a/output_inception_4a/output_0_split -> inception_4a/output_inception_4a/output_0_split_0
I0714 21:07:20.784782 16002 net.cpp:399] inception_4a/output_inception_4a/output_0_split -> inception_4a/output_inception_4a/output_0_split_1
I0714 21:07:20.784795 16002 net.cpp:399] inception_4a/output_inception_4a/output_0_split -> inception_4a/output_inception_4a/output_0_split_2
I0714 21:07:20.784804 16002 net.cpp:399] inception_4a/output_inception_4a/output_0_split -> inception_4a/output_inception_4a/output_0_split_3
I0714 21:07:20.785890 16002 net.cpp:141] Setting up inception_4a/output_inception_4a/output_0_split
I0714 21:07:20.785904 16002 net.cpp:148] Top shape: 10 512 14 14 (1003520)
I0714 21:07:20.785910 16002 net.cpp:148] Top shape: 10 512 14 14 (1003520)
I0714 21:07:20.785917 16002 net.cpp:148] Top shape: 10 512 14 14 (1003520)
I0714 21:07:20.785923 16002 net.cpp:148] Top shape: 10 512 14 14 (1003520)
I0714 21:07:20.785926 16002 net.cpp:156] Memory required for data: 389616640
I0714 21:07:20.785933 16002 layer_factory.hpp:77] Creating layer inception_4b/1x1
I0714 21:07:20.785951 16002 net.cpp:91] Creating Layer inception_4b/1x1
I0714 21:07:20.785959 16002 net.cpp:425] inception_4b/1x1 <- inception_4a/output_inception_4a/output_0_split_0
I0714 21:07:20.785969 16002 net.cpp:399] inception_4b/1x1 -> inception_4b/1x1
I0714 21:07:20.787729 15998 net.cpp:141] Setting up inception_4b/1x1
I0714 21:07:20.787751 15998 net.cpp:148] Top shape: 10 160 14 14 (313600)
I0714 21:07:20.787760 15998 net.cpp:156] Memory required for data: 390871040
I0714 21:07:20.787770 15998 layer_factory.hpp:77] Creating layer inception_4b/relu_1x1
I0714 21:07:20.787781 15998 net.cpp:91] Creating Layer inception_4b/relu_1x1
I0714 21:07:20.787787 15998 net.cpp:425] inception_4b/relu_1x1 <- inception_4b/1x1
I0714 21:07:20.787796 15998 net.cpp:386] inception_4b/relu_1x1 -> inception_4b/1x1 (in-place)
I0714 21:07:20.788105 15998 net.cpp:141] Setting up inception_4b/relu_1x1
I0714 21:07:20.788117 15998 net.cpp:148] Top shape: 10 160 14 14 (313600)
I0714 21:07:20.788122 15998 net.cpp:156] Memory required for data: 392125440
I0714 21:07:20.788128 15998 layer_factory.hpp:77] Creating layer inception_4b/3x3_reduce
I0714 21:07:20.788143 15998 net.cpp:91] Creating Layer inception_4b/3x3_reduce
I0714 21:07:20.788151 15998 net.cpp:425] inception_4b/3x3_reduce <- inception_4a/output_inception_4a/output_0_split_1
I0714 21:07:20.788164 15998 net.cpp:399] inception_4b/3x3_reduce -> inception_4b/3x3_reduce
I0714 21:07:20.793015 16002 net.cpp:141] Setting up inception_4b/1x1
I0714 21:07:20.793045 16002 net.cpp:148] Top shape: 10 160 14 14 (313600)
I0714 21:07:20.793051 16002 net.cpp:156] Memory required for data: 390871040
I0714 21:07:20.793063 16002 layer_factory.hpp:77] Creating layer inception_4b/relu_1x1
I0714 21:07:20.793074 16002 net.cpp:91] Creating Layer inception_4b/relu_1x1
I0714 21:07:20.793082 16002 net.cpp:425] inception_4b/relu_1x1 <- inception_4b/1x1
I0714 21:07:20.793092 16002 net.cpp:386] inception_4b/relu_1x1 -> inception_4b/1x1 (in-place)
I0714 21:07:20.793452 15998 net.cpp:141] Setting up inception_4b/3x3_reduce
I0714 21:07:20.793467 15998 net.cpp:148] Top shape: 10 112 14 14 (219520)
I0714 21:07:20.793473 15998 net.cpp:156] Memory required for data: 393003520
I0714 21:07:20.793483 15998 layer_factory.hpp:77] Creating layer inception_4b/relu_3x3_reduce
I0714 21:07:20.793507 15998 net.cpp:91] Creating Layer inception_4b/relu_3x3_reduce
I0714 21:07:20.793505 16002 net.cpp:141] Setting up inception_4b/relu_1x1
I0714 21:07:20.793519 15998 net.cpp:425] inception_4b/relu_3x3_reduce <- inception_4b/3x3_reduce
I0714 21:07:20.793532 16002 net.cpp:148] Top shape: 10 160 14 14 (313600)
I0714 21:07:20.793537 15998 net.cpp:386] inception_4b/relu_3x3_reduce -> inception_4b/3x3_reduce (in-place)
I0714 21:07:20.793539 16002 net.cpp:156] Memory required for data: 392125440
I0714 21:07:20.793555 16002 layer_factory.hpp:77] Creating layer inception_4b/3x3_reduce
I0714 21:07:20.793575 16002 net.cpp:91] Creating Layer inception_4b/3x3_reduce
I0714 21:07:20.793581 16002 net.cpp:425] inception_4b/3x3_reduce <- inception_4a/output_inception_4a/output_0_split_1
I0714 21:07:20.793596 16002 net.cpp:399] inception_4b/3x3_reduce -> inception_4b/3x3_reduce
I0714 21:07:20.794013 15998 net.cpp:141] Setting up inception_4b/relu_3x3_reduce
I0714 21:07:20.794028 15998 net.cpp:148] Top shape: 10 112 14 14 (219520)
I0714 21:07:20.794033 15998 net.cpp:156] Memory required for data: 393881600
I0714 21:07:20.794039 15998 layer_factory.hpp:77] Creating layer inception_4b/3x3
I0714 21:07:20.794057 15998 net.cpp:91] Creating Layer inception_4b/3x3
I0714 21:07:20.794064 15998 net.cpp:425] inception_4b/3x3 <- inception_4b/3x3_reduce
I0714 21:07:20.794076 15998 net.cpp:399] inception_4b/3x3 -> inception_4b/3x3
I0714 21:07:20.800719 16002 net.cpp:141] Setting up inception_4b/3x3_reduce
I0714 21:07:20.800742 16002 net.cpp:148] Top shape: 10 112 14 14 (219520)
I0714 21:07:20.800748 16002 net.cpp:156] Memory required for data: 393003520
I0714 21:07:20.800760 16002 layer_factory.hpp:77] Creating layer inception_4b/relu_3x3_reduce
I0714 21:07:20.800775 16002 net.cpp:91] Creating Layer inception_4b/relu_3x3_reduce
I0714 21:07:20.800782 16002 net.cpp:425] inception_4b/relu_3x3_reduce <- inception_4b/3x3_reduce
I0714 21:07:20.800797 16002 net.cpp:386] inception_4b/relu_3x3_reduce -> inception_4b/3x3_reduce (in-place)
I0714 21:07:20.801090 16002 net.cpp:141] Setting up inception_4b/relu_3x3_reduce
I0714 21:07:20.801102 16002 net.cpp:148] Top shape: 10 112 14 14 (219520)
I0714 21:07:20.801107 16002 net.cpp:156] Memory required for data: 393881600
I0714 21:07:20.801113 16002 layer_factory.hpp:77] Creating layer inception_4b/3x3
I0714 21:07:20.801132 16002 net.cpp:91] Creating Layer inception_4b/3x3
I0714 21:07:20.801141 16002 net.cpp:425] inception_4b/3x3 <- inception_4b/3x3_reduce
I0714 21:07:20.801152 16002 net.cpp:399] inception_4b/3x3 -> inception_4b/3x3
I0714 21:07:20.804630 15998 net.cpp:141] Setting up inception_4b/3x3
I0714 21:07:20.804654 15998 net.cpp:148] Top shape: 10 224 14 14 (439040)
I0714 21:07:20.804661 15998 net.cpp:156] Memory required for data: 395637760
I0714 21:07:20.804672 15998 layer_factory.hpp:77] Creating layer inception_4b/relu_3x3
I0714 21:07:20.804682 15998 net.cpp:91] Creating Layer inception_4b/relu_3x3
I0714 21:07:20.804689 15998 net.cpp:425] inception_4b/relu_3x3 <- inception_4b/3x3
I0714 21:07:20.804700 15998 net.cpp:386] inception_4b/relu_3x3 -> inception_4b/3x3 (in-place)
I0714 21:07:20.805618 15998 net.cpp:141] Setting up inception_4b/relu_3x3
I0714 21:07:20.805635 15998 net.cpp:148] Top shape: 10 224 14 14 (439040)
I0714 21:07:20.805641 15998 net.cpp:156] Memory required for data: 397393920
I0714 21:07:20.805647 15998 layer_factory.hpp:77] Creating layer inception_4b/5x5_reduce
I0714 21:07:20.805677 15998 net.cpp:91] Creating Layer inception_4b/5x5_reduce
I0714 21:07:20.805685 15998 net.cpp:425] inception_4b/5x5_reduce <- inception_4a/output_inception_4a/output_0_split_2
I0714 21:07:20.805697 15998 net.cpp:399] inception_4b/5x5_reduce -> inception_4b/5x5_reduce
I0714 21:07:20.810487 15998 net.cpp:141] Setting up inception_4b/5x5_reduce
I0714 21:07:20.810506 15998 net.cpp:148] Top shape: 10 24 14 14 (47040)
I0714 21:07:20.810513 15998 net.cpp:156] Memory required for data: 397582080
I0714 21:07:20.810523 15998 layer_factory.hpp:77] Creating layer inception_4b/relu_5x5_reduce
I0714 21:07:20.810540 15998 net.cpp:91] Creating Layer inception_4b/relu_5x5_reduce
I0714 21:07:20.810549 15998 net.cpp:425] inception_4b/relu_5x5_reduce <- inception_4b/5x5_reduce
I0714 21:07:20.810559 15998 net.cpp:386] inception_4b/relu_5x5_reduce -> inception_4b/5x5_reduce (in-place)
I0714 21:07:20.810964 16002 net.cpp:141] Setting up inception_4b/3x3
I0714 21:07:20.810994 16002 net.cpp:148] Top shape: 10 224 14 14 (439040)
I0714 21:07:20.810995 15998 net.cpp:141] Setting up inception_4b/relu_5x5_reduce
I0714 21:07:20.811000 16002 net.cpp:156] Memory required for data: 395637760
I0714 21:07:20.811013 15998 net.cpp:148] Top shape: 10 24 14 14 (47040)
I0714 21:07:20.811020 15998 net.cpp:156] Memory required for data: 397770240
I0714 21:07:20.811025 16002 layer_factory.hpp:77] Creating layer inception_4b/relu_3x3
I0714 21:07:20.811027 15998 layer_factory.hpp:77] Creating layer inception_4b/5x5
I0714 21:07:20.811048 16002 net.cpp:91] Creating Layer inception_4b/relu_3x3
I0714 21:07:20.811058 16002 net.cpp:425] inception_4b/relu_3x3 <- inception_4b/3x3
I0714 21:07:20.811069 16002 net.cpp:386] inception_4b/relu_3x3 -> inception_4b/3x3 (in-place)
I0714 21:07:20.811084 15998 net.cpp:91] Creating Layer inception_4b/5x5
I0714 21:07:20.811094 15998 net.cpp:425] inception_4b/5x5 <- inception_4b/5x5_reduce
I0714 21:07:20.811105 15998 net.cpp:399] inception_4b/5x5 -> inception_4b/5x5
I0714 21:07:20.812125 16002 net.cpp:141] Setting up inception_4b/relu_3x3
I0714 21:07:20.812145 16002 net.cpp:148] Top shape: 10 224 14 14 (439040)
I0714 21:07:20.812151 16002 net.cpp:156] Memory required for data: 397393920
I0714 21:07:20.812156 16002 layer_factory.hpp:77] Creating layer inception_4b/5x5_reduce
I0714 21:07:20.812191 16002 net.cpp:91] Creating Layer inception_4b/5x5_reduce
I0714 21:07:20.812198 16002 net.cpp:425] inception_4b/5x5_reduce <- inception_4a/output_inception_4a/output_0_split_2
I0714 21:07:20.812213 16002 net.cpp:399] inception_4b/5x5_reduce -> inception_4b/5x5_reduce
I0714 21:07:20.818424 15998 net.cpp:141] Setting up inception_4b/5x5
I0714 21:07:20.818450 15998 net.cpp:148] Top shape: 10 64 14 14 (125440)
I0714 21:07:20.818459 15998 net.cpp:156] Memory required for data: 398272000
I0714 21:07:20.818470 15998 layer_factory.hpp:77] Creating layer inception_4b/relu_5x5
I0714 21:07:20.818480 15998 net.cpp:91] Creating Layer inception_4b/relu_5x5
I0714 21:07:20.818487 15998 net.cpp:425] inception_4b/relu_5x5 <- inception_4b/5x5
I0714 21:07:20.818496 15998 net.cpp:386] inception_4b/relu_5x5 -> inception_4b/5x5 (in-place)
I0714 21:07:20.818910 16002 net.cpp:141] Setting up inception_4b/5x5_reduce
I0714 21:07:20.818933 16002 net.cpp:148] Top shape: 10 24 14 14 (47040)
I0714 21:07:20.818939 16002 net.cpp:156] Memory required for data: 397582080
I0714 21:07:20.818953 16002 layer_factory.hpp:77] Creating layer inception_4b/relu_5x5_reduce
I0714 21:07:20.818951 15998 net.cpp:141] Setting up inception_4b/relu_5x5
I0714 21:07:20.818969 16002 net.cpp:91] Creating Layer inception_4b/relu_5x5_reduce
I0714 21:07:20.818976 15998 net.cpp:148] Top shape: 10 64 14 14 (125440)
I0714 21:07:20.818982 16002 net.cpp:425] inception_4b/relu_5x5_reduce <- inception_4b/5x5_reduce
I0714 21:07:20.818982 15998 net.cpp:156] Memory required for data: 398773760
I0714 21:07:20.818995 16002 net.cpp:386] inception_4b/relu_5x5_reduce -> inception_4b/5x5_reduce (in-place)
I0714 21:07:20.818997 15998 layer_factory.hpp:77] Creating layer inception_4b/pool
I0714 21:07:20.819010 15998 net.cpp:91] Creating Layer inception_4b/pool
I0714 21:07:20.819015 15998 net.cpp:425] inception_4b/pool <- inception_4a/output_inception_4a/output_0_split_3
I0714 21:07:20.819027 15998 net.cpp:399] inception_4b/pool -> inception_4b/pool
I0714 21:07:20.819360 15998 net.cpp:141] Setting up inception_4b/pool
I0714 21:07:20.819372 15998 net.cpp:148] Top shape: 10 512 14 14 (1003520)
I0714 21:07:20.819377 15998 net.cpp:156] Memory required for data: 402787840
I0714 21:07:20.819382 15998 layer_factory.hpp:77] Creating layer inception_4b/pool_proj
I0714 21:07:20.819401 15998 net.cpp:91] Creating Layer inception_4b/pool_proj
I0714 21:07:20.819407 15998 net.cpp:425] inception_4b/pool_proj <- inception_4b/pool
I0714 21:07:20.819416 15998 net.cpp:399] inception_4b/pool_proj -> inception_4b/pool_proj
I0714 21:07:20.819432 16002 net.cpp:141] Setting up inception_4b/relu_5x5_reduce
I0714 21:07:20.819447 16002 net.cpp:148] Top shape: 10 24 14 14 (47040)
I0714 21:07:20.819452 16002 net.cpp:156] Memory required for data: 397770240
I0714 21:07:20.819458 16002 layer_factory.hpp:77] Creating layer inception_4b/5x5
I0714 21:07:20.819489 16002 net.cpp:91] Creating Layer inception_4b/5x5
I0714 21:07:20.819497 16002 net.cpp:425] inception_4b/5x5 <- inception_4b/5x5_reduce
I0714 21:07:20.819509 16002 net.cpp:399] inception_4b/5x5 -> inception_4b/5x5
I0714 21:07:20.826249 15998 net.cpp:141] Setting up inception_4b/pool_proj
I0714 21:07:20.826269 15998 net.cpp:148] Top shape: 10 64 14 14 (125440)
I0714 21:07:20.826275 15998 net.cpp:156] Memory required for data: 403289600
I0714 21:07:20.826285 15998 layer_factory.hpp:77] Creating layer inception_4b/relu_pool_proj
I0714 21:07:20.826299 15998 net.cpp:91] Creating Layer inception_4b/relu_pool_proj
I0714 21:07:20.826306 15998 net.cpp:425] inception_4b/relu_pool_proj <- inception_4b/pool_proj
I0714 21:07:20.826318 15998 net.cpp:386] inception_4b/relu_pool_proj -> inception_4b/pool_proj (in-place)
I0714 21:07:20.827216 16002 net.cpp:141] Setting up inception_4b/5x5
I0714 21:07:20.827241 16002 net.cpp:148] Top shape: 10 64 14 14 (125440)
I0714 21:07:20.827249 16002 net.cpp:156] Memory required for data: 398272000
I0714 21:07:20.827260 16002 layer_factory.hpp:77] Creating layer inception_4b/relu_5x5
I0714 21:07:20.827270 16002 net.cpp:91] Creating Layer inception_4b/relu_5x5
I0714 21:07:20.827277 16002 net.cpp:425] inception_4b/relu_5x5 <- inception_4b/5x5
I0714 21:07:20.827286 16002 net.cpp:386] inception_4b/relu_5x5 -> inception_4b/5x5 (in-place)
I0714 21:07:20.827288 15998 net.cpp:141] Setting up inception_4b/relu_pool_proj
I0714 21:07:20.827304 15998 net.cpp:148] Top shape: 10 64 14 14 (125440)
I0714 21:07:20.827311 15998 net.cpp:156] Memory required for data: 403791360
I0714 21:07:20.827316 15998 layer_factory.hpp:77] Creating layer inception_4b/output
I0714 21:07:20.827325 15998 net.cpp:91] Creating Layer inception_4b/output
I0714 21:07:20.827332 15998 net.cpp:425] inception_4b/output <- inception_4b/1x1
I0714 21:07:20.827339 15998 net.cpp:425] inception_4b/output <- inception_4b/3x3
I0714 21:07:20.827345 15998 net.cpp:425] inception_4b/output <- inception_4b/5x5
I0714 21:07:20.827352 15998 net.cpp:425] inception_4b/output <- inception_4b/pool_proj
I0714 21:07:20.827361 15998 net.cpp:399] inception_4b/output -> inception_4b/output
I0714 21:07:20.827559 15998 net.cpp:141] Setting up inception_4b/output
I0714 21:07:20.827571 15998 net.cpp:148] Top shape: 10 512 14 14 (1003520)
I0714 21:07:20.827576 15998 net.cpp:156] Memory required for data: 407805440
I0714 21:07:20.827582 15998 layer_factory.hpp:77] Creating layer inception_4b/output_inception_4b/output_0_split
I0714 21:07:20.827597 15998 net.cpp:91] Creating Layer inception_4b/output_inception_4b/output_0_split
I0714 21:07:20.827605 15998 net.cpp:425] inception_4b/output_inception_4b/output_0_split <- inception_4b/output
I0714 21:07:20.827612 15998 net.cpp:399] inception_4b/output_inception_4b/output_0_split -> inception_4b/output_inception_4b/output_0_split_0
I0714 21:07:20.827622 15998 net.cpp:399] inception_4b/output_inception_4b/output_0_split -> inception_4b/output_inception_4b/output_0_split_1
I0714 21:07:20.827632 15998 net.cpp:399] inception_4b/output_inception_4b/output_0_split -> inception_4b/output_inception_4b/output_0_split_2
I0714 21:07:20.827641 15998 net.cpp:399] inception_4b/output_inception_4b/output_0_split -> inception_4b/output_inception_4b/output_0_split_3
I0714 21:07:20.827679 16002 net.cpp:141] Setting up inception_4b/relu_5x5
I0714 21:07:20.827693 16002 net.cpp:148] Top shape: 10 64 14 14 (125440)
I0714 21:07:20.827699 16002 net.cpp:156] Memory required for data: 398773760
I0714 21:07:20.827704 16002 layer_factory.hpp:77] Creating layer inception_4b/pool
I0714 21:07:20.827719 16002 net.cpp:91] Creating Layer inception_4b/pool
I0714 21:07:20.827726 16002 net.cpp:425] inception_4b/pool <- inception_4a/output_inception_4a/output_0_split_3
I0714 21:07:20.827735 16002 net.cpp:399] inception_4b/pool -> inception_4b/pool
I0714 21:07:20.828002 15998 net.cpp:141] Setting up inception_4b/output_inception_4b/output_0_split
I0714 21:07:20.828016 15998 net.cpp:148] Top shape: 10 512 14 14 (1003520)
I0714 21:07:20.828023 15998 net.cpp:148] Top shape: 10 512 14 14 (1003520)
I0714 21:07:20.828029 15998 net.cpp:148] Top shape: 10 512 14 14 (1003520)
I0714 21:07:20.828030 16002 net.cpp:141] Setting up inception_4b/pool
I0714 21:07:20.828037 15998 net.cpp:148] Top shape: 10 512 14 14 (1003520)
I0714 21:07:20.828043 15998 net.cpp:156] Memory required for data: 423861760
I0714 21:07:20.828047 16002 net.cpp:148] Top shape: 10 512 14 14 (1003520)
I0714 21:07:20.828050 15998 layer_factory.hpp:77] Creating layer inception_4c/1x1
I0714 21:07:20.828052 16002 net.cpp:156] Memory required for data: 402787840
I0714 21:07:20.828058 16002 layer_factory.hpp:77] Creating layer inception_4b/pool_proj
I0714 21:07:20.828070 15998 net.cpp:91] Creating Layer inception_4c/1x1
I0714 21:07:20.828076 16002 net.cpp:91] Creating Layer inception_4b/pool_proj
I0714 21:07:20.828078 15998 net.cpp:425] inception_4c/1x1 <- inception_4b/output_inception_4b/output_0_split_0
I0714 21:07:20.828090 16002 net.cpp:425] inception_4b/pool_proj <- inception_4b/pool
I0714 21:07:20.828101 15998 net.cpp:399] inception_4c/1x1 -> inception_4c/1x1
I0714 21:07:20.828105 16002 net.cpp:399] inception_4b/pool_proj -> inception_4b/pool_proj
I0714 21:07:20.833811 16002 net.cpp:141] Setting up inception_4b/pool_proj
I0714 21:07:20.833835 16002 net.cpp:148] Top shape: 10 64 14 14 (125440)
I0714 21:07:20.833842 16002 net.cpp:156] Memory required for data: 403289600
I0714 21:07:20.833853 16002 layer_factory.hpp:77] Creating layer inception_4b/relu_pool_proj
I0714 21:07:20.833866 16002 net.cpp:91] Creating Layer inception_4b/relu_pool_proj
I0714 21:07:20.833873 16002 net.cpp:425] inception_4b/relu_pool_proj <- inception_4b/pool_proj
I0714 21:07:20.833883 16002 net.cpp:386] inception_4b/relu_pool_proj -> inception_4b/pool_proj (in-place)
I0714 21:07:20.834952 16002 net.cpp:141] Setting up inception_4b/relu_pool_proj
I0714 21:07:20.834969 16002 net.cpp:148] Top shape: 10 64 14 14 (125440)
I0714 21:07:20.834975 16002 net.cpp:156] Memory required for data: 403791360
I0714 21:07:20.834981 16002 layer_factory.hpp:77] Creating layer inception_4b/output
…
I0714 21:07:20.968154 16002 net.cpp:141] Setting up inception_4e/relu_5x5_reduce
I0714 21:07:20.968168 16002 net.cpp:148] Top shape: 10 32 14 14 (62720)
I0714 21:07:20.968173 16002 net.cpp:156] Memory required for data: 506150400
I0714 21:07:20.968178 16002 layer_factory.hpp:77] Creating layer inception_4e/5x5
I0714 21:07:20.968196 16002 net.cpp:91] Creating Layer inception_4e/5x5
I0714 21:07:20.968204 16002 net.cpp:425] inception_4e/5x5 <- inception_4e/5x5_reduce
I0714 21:07:20.968216 16002 net.cpp:399] inception_4e/5x5 -> inception_4e/5x5
I0714 21:07:20.970613 15998 net.cpp:141] Setting up inception_4e/5x5
I0714 21:07:20.970631 15998 net.cpp:148] Top shape: 10 128 14 14 (250880)
I0714 21:07:20.970638 15998 net.cpp:156] Memory required for data: 507153920
I0714 21:07:20.970649 15998 layer_factory.hpp:77] Creating layer inception_4e/relu_5x5
I0714 21:07:20.970664 15998 net.cpp:91] Creating Layer inception_4e/relu_5x5
I0714 21:07:20.970672 15998 net.cpp:425] inception_4e/relu_5x5 <- inception_4e/5x5
I0714 21:07:20.970680 15998 net.cpp:386] inception_4e/relu_5x5 -> inception_4e/5x5 (in-place)
I0714 21:07:20.971503 15998 net.cpp:141] Setting up inception_4e/relu_5x5
I0714 21:07:20.971520 15998 net.cpp:148] Top shape: 10 128 14 14 (250880)
I0714 21:07:20.971526 15998 net.cpp:156] Memory required for data: 508157440
I0714 21:07:20.971532 15998 layer_factory.hpp:77] Creating layer inception_4e/pool
I0714 21:07:20.971544 15998 net.cpp:91] Creating Layer inception_4e/pool
I0714 21:07:20.971549 15998 net.cpp:425] inception_4e/pool <- inception_4d/output_inception_4d/output_0_split_3
I0714 21:07:20.971562 15998 net.cpp:399] inception_4e/pool -> inception_4e/pool
I0714 21:07:20.971714 15998 net.cpp:141] Setting up inception_4e/pool
I0714 21:07:20.971726 15998 net.cpp:148] Top shape: 10 528 14 14 (1034880)
I0714 21:07:20.971730 15998 net.cpp:156] Memory required for data: 512296960
I0714 21:07:20.971736 15998 layer_factory.hpp:77] Creating layer inception_4e/pool_proj
I0714 21:07:20.971755 15998 net.cpp:91] Creating Layer inception_4e/pool_proj
I0714 21:07:20.971761 15998 net.cpp:425] inception_4e/pool_proj <- inception_4e/pool
I0714 21:07:20.971773 15998 net.cpp:399] inception_4e/pool_proj -> inception_4e/pool_proj
I0714 21:07:20.976389 16002 net.cpp:141] Setting up inception_4e/5x5
I0714 21:07:20.976408 16002 net.cpp:148] Top shape: 10 128 14 14 (250880)
I0714 21:07:20.976414 16002 net.cpp:156] Memory required for data: 507153920
I0714 21:07:20.976424 16002 layer_factory.hpp:77] Creating layer inception_4e/relu_5x5
I0714 21:07:20.976438 16002 net.cpp:91] Creating Layer inception_4e/relu_5x5
I0714 21:07:20.976446 16002 net.cpp:425] inception_4e/relu_5x5 <- inception_4e/5x5
I0714 21:07:20.976454 16002 net.cpp:386] inception_4e/relu_5x5 -> inception_4e/5x5 (in-place)
I0714 21:07:20.976864 16002 net.cpp:141] Setting up inception_4e/relu_5x5
I0714 21:07:20.976881 16002 net.cpp:148] Top shape: 10 128 14 14 (250880)
I0714 21:07:20.976886 16002 net.cpp:156] Memory required for data: 508157440
I0714 21:07:20.976891 16002 layer_factory.hpp:77] Creating layer inception_4e/pool
I0714 21:07:20.976900 16002 net.cpp:91] Creating Layer inception_4e/pool
I0714 21:07:20.976907 16002 net.cpp:425] inception_4e/pool <- inception_4d/output_inception_4d/output_0_split_3
I0714 21:07:20.976920 16002 net.cpp:399] inception_4e/pool -> inception_4e/pool
I0714 21:07:20.977136 16002 net.cpp:141] Setting up inception_4e/pool
I0714 21:07:20.977149 16002 net.cpp:148] Top shape: 10 528 14 14 (1034880)
I0714 21:07:20.977154 16002 net.cpp:156] Memory required for data: 512296960
I0714 21:07:20.977161 16002 layer_factory.hpp:77] Creating layer inception_4e/pool_proj
I0714 21:07:20.977181 16002 net.cpp:91] Creating Layer inception_4e/pool_proj
I0714 21:07:20.977190 16002 net.cpp:425] inception_4e/pool_proj <- inception_4e/pool
I0714 21:07:20.977201 16002 net.cpp:399] inception_4e/pool_proj -> inception_4e/pool_proj
I0714 21:07:20.977644 15998 net.cpp:141] Setting up inception_4e/pool_proj
I0714 21:07:20.977660 15998 net.cpp:148] Top shape: 10 128 14 14 (250880)
I0714 21:07:20.977666 15998 net.cpp:156] Memory required for data: 513300480
I0714 21:07:20.977676 15998 layer_factory.hpp:77] Creating layer inception_4e/relu_pool_proj
I0714 21:07:20.977689 15998 net.cpp:91] Creating Layer inception_4e/relu_pool_proj
I0714 21:07:20.977695 15998 net.cpp:425] inception_4e/relu_pool_proj <- inception_4e/pool_proj
I0714 21:07:20.977704 15998 net.cpp:386] inception_4e/relu_pool_proj -> inception_4e/pool_proj (in-place)
I0714 21:07:20.978759 15998 net.cpp:141] Setting up inception_4e/relu_pool_proj
I0714 21:07:20.978785 15998 net.cpp:148] Top shape: 10 128 14 14 (250880)
I0714 21:07:20.978791 15998 net.cpp:156] Memory required for data: 514304000
I0714 21:07:20.978797 15998 layer_factory.hpp:77] Creating layer inception_4e/output
I0714 21:07:20.978807 15998 net.cpp:91] Creating Layer inception_4e/output
I0714 21:07:20.978813 15998 net.cpp:425] inception_4e/output <- inception_4e/1x1
I0714 21:07:20.978821 15998 net.cpp:425] inception_4e/output <- inception_4e/3x3
I0714 21:07:20.978827 15998 net.cpp:425] inception_4e/output <- inception_4e/5x5
I0714 21:07:20.978833 15998 net.cpp:425] inception_4e/output <- inception_4e/pool_proj
I0714 21:07:20.978842 15998 net.cpp:399] inception_4e/output -> inception_4e/output
I0714 21:07:20.978935 15998 net.cpp:141] Setting up inception_4e/output
I0714 21:07:20.978946 15998 net.cpp:148] Top shape: 10 832 14 14 (1630720)
I0714 21:07:20.978951 15998 net.cpp:156] Memory required for data: 520826880
I0714 21:07:20.978956 15998 layer_factory.hpp:77] Creating layer pool4/3x3_s2
I0714 21:07:20.978965 15998 net.cpp:91] Creating Layer pool4/3x3_s2
I0714 21:07:20.978972 15998 net.cpp:425] pool4/3x3_s2 <- inception_4e/output
I0714 21:07:20.978981 15998 net.cpp:399] pool4/3x3_s2 -> pool4/3x3_s2
I0714 21:07:20.979120 15998 net.cpp:141] Setting up pool4/3x3_s2
I0714 21:07:20.979132 15998 net.cpp:148] Top shape: 10 832 7 7 (407680)
I0714 21:07:20.979137 15998 net.cpp:156] Memory required for data: 522457600
I0714 21:07:20.979142 15998 layer_factory.hpp:77] Creating layer pool4/3x3_s2_pool4/3x3_s2_0_split
I0714 21:07:20.979151 15998 net.cpp:91] Creating Layer pool4/3x3_s2_pool4/3x3_s2_0_split
I0714 21:07:20.979157 15998 net.cpp:425] pool4/3x3_s2_pool4/3x3_s2_0_split <- pool4/3x3_s2
I0714 21:07:20.979166 15998 net.cpp:399] pool4/3x3_s2_pool4/3x3_s2_0_split -> pool4/3x3_s2_pool4/3x3_s2_0_split_0
I0714 21:07:20.979176 15998 net.cpp:399] pool4/3x3_s2_pool4/3x3_s2_0_split -> pool4/3x3_s2_pool4/3x3_s2_0_split_1
I0714 21:07:20.979188 15998 net.cpp:399] pool4/3x3_s2_pool4/3x3_s2_0_split -> pool4/3x3_s2_pool4/3x3_s2_0_split_2
I0714 21:07:20.979197 15998 net.cpp:399] pool4/3x3_s2_pool4/3x3_s2_0_split -> pool4/3x3_s2_pool4/3x3_s2_0_split_3
I0714 21:07:20.979576 15998 net.cpp:141] Setting up pool4/3x3_s2_pool4/3x3_s2_0_split
I0714 21:07:20.979589 15998 net.cpp:148] Top shape: 10 832 7 7 (407680)
I0714 21:07:20.979595 15998 net.cpp:148] Top shape: 10 832 7 7 (407680)
I0714 21:07:20.979601 15998 net.cpp:148] Top shape: 10 832 7 7 (407680)
I0714 21:07:20.979607 15998 net.cpp:148] Top shape: 10 832 7 7 (407680)
I0714 21:07:20.979611 15998 net.cpp:156] Memory required for data: 528980480
I0714 21:07:20.979617 15998 layer_factory.hpp:77] Creating layer inception_5a/1x1
I0714 21:07:20.979630 15998 net.cpp:91] Creating Layer inception_5a/1x1
I0714 21:07:20.979636 15998 net.cpp:425] inception_5a/1x1 <- pool4/3x3_s2_pool4/3x3_s2_0_split_0
I0714 21:07:20.979646 15998 net.cpp:399] inception_5a/1x1 -> inception_5a/1x1
I0714 21:07:20.983969 16002 net.cpp:141] Setting up inception_4e/pool_proj
I0714 21:07:20.983992 16002 net.cpp:148] Top shape: 10 128 14 14 (250880)
I0714 21:07:20.983999 16002 net.cpp:156] Memory required for data: 513300480
I0714 21:07:20.984009 16002 layer_factory.hpp:77] Creating layer inception_4e/relu_pool_proj
I0714 21:07:20.984019 16002 net.cpp:91] Creating Layer inception_4e/relu_pool_proj
I0714 21:07:20.984026 16002 net.cpp:425] inception_4e/relu_pool_proj <- inception_4e/pool_proj
I0714 21:07:20.984035 16002 net.cpp:386] inception_4e/relu_pool_proj -> inception_4e/pool_proj (in-place)
I0714 21:07:20.984899 16002 net.cpp:141] Setting up inception_4e/relu_pool_proj
I0714 21:07:20.984916 16002 net.cpp:148] Top shape: 10 128 14 14 (250880)
I0714 21:07:20.984922 16002 net.cpp:156] Memory required for data: 514304000
I0714 21:07:20.984928 16002 layer_factory.hpp:77] Creating layer inception_4e/output
I0714 21:07:20.984937 16002 net.cpp:91] Creating Layer inception_4e/output
I0714 21:07:20.984944 16002 net.cpp:425] inception_4e/output <- inception_4e/1x1
I0714 21:07:20.984951 16002 net.cpp:425] inception_4e/output <- inception_4e/3x3
I0714 21:07:20.984957 16002 net.cpp:425] inception_4e/output <- inception_4e/5x5
I0714 21:07:20.984963 16002 net.cpp:425] inception_4e/output <- inception_4e/pool_proj
I0714 21:07:20.984971 16002 net.cpp:399] inception_4e/output -> inception_4e/output
I0714 21:07:20.985062 16002 net.cpp:141] Setting up inception_4e/output
I0714 21:07:20.985074 16002 net.cpp:148] Top shape: 10 832 14 14 (1630720)
I0714 21:07:20.985080 16002 net.cpp:156] Memory required for data: 520826880
I0714 21:07:20.985085 16002 layer_factory.hpp:77] Creating layer pool4/3x3_s2
I0714 21:07:20.985093 16002 net.cpp:91] Creating Layer pool4/3x3_s2
I0714 21:07:20.985100 16002 net.cpp:425] pool4/3x3_s2 <- inception_4e/output
I0714 21:07:20.985111 16002 net.cpp:399] pool4/3x3_s2 -> pool4/3x3_s2
I0714 21:07:20.985246 16002 net.cpp:141] Setting up pool4/3x3_s2
I0714 21:07:20.985258 16002 net.cpp:148] Top shape: 10 832 7 7 (407680)
I0714 21:07:20.985263 16002 net.cpp:156] Memory required for data: 522457600
I0714 21:07:20.985268 16002 layer_factory.hpp:77] Creating layer pool4/3x3_s2_pool4/3x3_s2_0_split
I0714 21:07:20.985285 16002 net.cpp:91] Creating Layer pool4/3x3_s2_pool4/3x3_s2_0_split
I0714 21:07:20.985291 16002 net.cpp:425] pool4/3x3_s2_pool4/3x3_s2_0_split <- pool4/3x3_s2
I0714 21:07:20.985303 16002 net.cpp:399] pool4/3x3_s2_pool4/3x3_s2_0_split -> pool4/3x3_s2_pool4/3x3_s2_0_split_0
I0714 21:07:20.985314 16002 net.cpp:399] pool4/3x3_s2_pool4/3x3_s2_0_split -> pool4/3x3_s2_pool4/3x3_s2_0_split_1
I0714 21:07:20.985323 16002 net.cpp:399] pool4/3x3_s2_pool4/3x3_s2_0_split -> pool4/3x3_s2_pool4/3x3_s2_0_split_2
I0714 21:07:20.985332 16002 net.cpp:399] pool4/3x3_s2_pool4/3x3_s2_0_split -> pool4/3x3_s2_pool4/3x3_s2_0_split_3
I0714 21:07:20.985736 16002 net.cpp:141] Setting up pool4/3x3_s2_pool4/3x3_s2_0_split
I0714 21:07:20.985749 16002 net.cpp:148] Top shape: 10 832 7 7 (407680)
I0714 21:07:20.985756 16002 net.cpp:148] Top shape: 10 832 7 7 (407680)
I0714 21:07:20.985762 16002 net.cpp:148] Top shape: 10 832 7 7 (407680)
I0714 21:07:20.985769 16002 net.cpp:148] Top shape: 10 832 7 7 (407680)
I0714 21:07:20.985772 16002 net.cpp:156] Memory required for data: 528980480
I0714 21:07:20.985777 16002 layer_factory.hpp:77] Creating layer inception_5a/1x1
I0714 21:07:20.985791 16002 net.cpp:91] Creating Layer inception_5a/1x1
I0714 21:07:20.985797 16002 net.cpp:425] inception_5a/1x1 <- pool4/3x3_s2_pool4/3x3_s2_0_split_0
I0714 21:07:20.985811 16002 net.cpp:399] inception_5a/1x1 -> inception_5a/1x1
I0714 21:07:20.990092 15998 net.cpp:141] Setting up inception_5a/1x1
I0714 21:07:20.990113 15998 net.cpp:148] Top shape: 10 256 7 7 (125440)
I0714 21:07:20.990118 15998 net.cpp:156] Memory required for data: 529482240
I0714 21:07:20.990129 15998 layer_factory.hpp:77] Creating layer inception_5a/relu_1x1
I0714 21:07:20.990144 15998 net.cpp:91] Creating Layer inception_5a/relu_1x1
I0714 21:07:20.990151 15998 net.cpp:425] inception_5a/relu_1x1 <- inception_5a/1x1
I0714 21:07:20.990160 15998 net.cpp:386] inception_5a/relu_1x1 -> inception_5a/1x1 (in-place)
I0714 21:07:20.990471 15998 net.cpp:141] Setting up inception_5a/relu_1x1
I0714 21:07:20.990484 15998 net.cpp:148] Top shape: 10 256 7 7 (125440)
I0714 21:07:20.990489 15998 net.cpp:156] Memory required for data: 529984000
I0714 21:07:20.990494 15998 layer_factory.hpp:77] Creating layer inception_5a/3x3_reduce
I0714 21:07:20.990512 15998 net.cpp:91] Creating Layer inception_5a/3x3_reduce
I0714 21:07:20.990520 15998 net.cpp:425] inception_5a/3x3_reduce <- pool4/3x3_s2_pool4/3x3_s2_0_split_1
I0714 21:07:20.990530 15998 net.cpp:399] inception_5a/3x3_reduce -> inception_5a/3x3_reduce
I0714 21:07:20.996907 16002 net.cpp:141] Setting up inception_5a/1x1
I0714 21:07:20.996930 16002 net.cpp:148] Top shape: 10 256 7 7 (125440)
I0714 21:07:20.996937 16002 net.cpp:156] Memory required for data: 529482240
I0714 21:07:20.996948 16002 layer_factory.hpp:77] Creating layer inception_5a/relu_1x1
I0714 21:07:20.996963 16002 net.cpp:91] Creating Layer inception_5a/relu_1x1
I0714 21:07:20.996971 16002 net.cpp:425] inception_5a/relu_1x1 <- inception_5a/1x1
I0714 21:07:20.996979 16002 net.cpp:386] inception_5a/relu_1x1 -> inception_5a/1x1 (in-place)
I0714 21:07:20.997316 15998 net.cpp:141] Setting up inception_5a/3x3_reduce
I0714 21:07:20.997334 15998 net.cpp:148] Top shape: 10 160 7 7 (78400)
I0714 21:07:20.997339 15998 net.cpp:156] Memory required for data: 530297600
I0714 21:07:20.997350 15998 layer_factory.hpp:77] Creating layer inception_5a/relu_3x3_reduce
I0714 21:07:20.997362 15998 net.cpp:91] Creating Layer inception_5a/relu_3x3_reduce
I0714 21:07:20.997370 15998 net.cpp:425] inception_5a/relu_3x3_reduce <- inception_5a/3x3_reduce
I0714 21:07:20.997377 15998 net.cpp:386] inception_5a/relu_3x3_reduce -> inception_5a/3x3_reduce (in-place)
I0714 21:07:20.997398 16002 net.cpp:141] Setting up inception_5a/relu_1x1
I0714 21:07:20.997413 16002 net.cpp:148] Top shape: 10 256 7 7 (125440)
I0714 21:07:20.997418 16002 net.cpp:156] Memory required for data: 529984000
I0714 21:07:20.997424 16002 layer_factory.hpp:77] Creating layer inception_5a/3x3_reduce
I0714 21:07:20.997442 16002 net.cpp:91] Creating Layer inception_5a/3x3_reduce
I0714 21:07:20.997450 16002 net.cpp:425] inception_5a/3x3_reduce <- pool4/3x3_s2_pool4/3x3_s2_0_split_1
I0714 21:07:20.997463 16002 net.cpp:399] inception_5a/3x3_reduce -> inception_5a/3x3_reduce
I0714 21:07:20.997828 15998 net.cpp:141] Setting up inception_5a/relu_3x3_reduce
I0714 21:07:20.997841 15998 net.cpp:148] Top shape: 10 160 7 7 (78400)
I0714 21:07:20.997846 15998 net.cpp:156] Memory required for data: 530611200
I0714 21:07:20.997853 15998 layer_factory.hpp:77] Creating layer inception_5a/3x3
I0714 21:07:20.997871 15998 net.cpp:91] Creating Layer inception_5a/3x3
I0714 21:07:20.997879 15998 net.cpp:425] inception_5a/3x3 <- inception_5a/3x3_reduce
I0714 21:07:20.997889 15998 net.cpp:399] inception_5a/3x3 -> inception_5a/3x3
I0714 21:07:21.005224 16002 net.cpp:141] Setting up inception_5a/3x3_reduce
I0714 21:07:21.005251 16002 net.cpp:148] Top shape: 10 160 7 7 (78400)
I0714 21:07:21.005259 16002 net.cpp:156] Memory required for data: 530297600
I0714 21:07:21.005270 16002 layer_factory.hpp:77] Creating layer inception_5a/relu_3x3_reduce
I0714 21:07:21.005283 16002 net.cpp:91] Creating Layer inception_5a/relu_3x3_reduce
I0714 21:07:21.005290 16002 net.cpp:425] inception_5a/relu_3x3_reduce <- inception_5a/3x3_reduce
I0714 21:07:21.005300 16002 net.cpp:386] inception_5a/relu_3x3_reduce -> inception_5a/3x3_reduce (in-place)
I0714 21:07:21.005610 16002 net.cpp:141] Setting up inception_5a/relu_3x3_reduce
I0714 21:07:21.005625 16002 net.cpp:148] Top shape: 10 160 7 7 (78400)
I0714 21:07:21.005630 16002 net.cpp:156] Memory required for data: 530611200
I0714 21:07:21.005635 16002 layer_factory.hpp:77] Creating layer inception_5a/3x3
I0714 21:07:21.005652 16002 net.cpp:91] Creating Layer inception_5a/3x3
I0714 21:07:21.005659 16002 net.cpp:425] inception_5a/3x3 <- inception_5a/3x3_reduce
I0714 21:07:21.005669 16002 net.cpp:399] inception_5a/3x3 -> inception_5a/3x3
I0714 21:07:21.012732 15998 net.cpp:141] Setting up inception_5a/3x3
I0714 21:07:21.012760 15998 net.cpp:148] Top shape: 10 320 7 7 (156800)
I0714 21:07:21.012768 15998 net.cpp:156] Memory required for data: 531238400
I0714 21:07:21.012780 15998 layer_factory.hpp:77] Creating layer inception_5a/relu_3x3
I0714 21:07:21.012791 15998 net.cpp:91] Creating Layer inception_5a/relu_3x3
I0714 21:07:21.012800 15998 net.cpp:425] inception_5a/relu_3x3 <- inception_5a/3x3
I0714 21:07:21.012809 15998 net.cpp:386] inception_5a/relu_3x3 -> inception_5a/3x3 (in-place)
I0714 21:07:21.014122 15998 net.cpp:141] Setting up inception_5a/relu_3x3
I0714 21:07:21.014139 15998 net.cpp:148] Top shape: 10 320 7 7 (156800)
I0714 21:07:21.014145 15998 net.cpp:156] Memory required for data: 531865600
I0714 21:07:21.014152 15998 layer_factory.hpp:77] Creating layer inception_5a/5x5_reduce
I0714 21:07:21.014171 15998 net.cpp:91] Creating Layer inception_5a/5x5_reduce
I0714 21:07:21.014179 15998 net.cpp:425] inception_5a/5x5_reduce <- pool4/3x3_s2_pool4/3x3_s2_0_split_2
I0714 21:07:21.014194 15998 net.cpp:399] inception_5a/5x5_reduce -> inception_5a/5x5_reduce
I0714 21:07:21.017582 16002 net.cpp:141] Setting up inception_5a/3x3
I0714 21:07:21.017613 16002 net.cpp:148] Top shape: 10 320 7 7 (156800)
I0714 21:07:21.017619 16002 net.cpp:156] Memory required for data: 531238400
I0714 21:07:21.017635 16002 layer_factory.hpp:77] Creating layer inception_5a/relu_3x3
I0714 21:07:21.017652 16002 net.cpp:91] Creating Layer inception_5a/relu_3x3
I0714 21:07:21.017663 16002 net.cpp:425] inception_5a/relu_3x3 <- inception_5a/3x3
I0714 21:07:21.017678 16002 net.cpp:386] inception_5a/relu_3x3 -> inception_5a/3x3 (in-place)
I0714 21:07:21.018717 16002 net.cpp:141] Setting up inception_5a/relu_3x3
I0714 21:07:21.018738 16002 net.cpp:148] Top shape: 10 320 7 7 (156800)
I0714 21:07:21.018744 16002 net.cpp:156] Memory required for data: 531865600
I0714 21:07:21.018750 16002 layer_factory.hpp:77] Creating layer inception_5a/5x5_reduce
I0714 21:07:21.018770 16002 net.cpp:91] Creating Layer inception_5a/5x5_reduce
I0714 21:07:21.018779 16002 net.cpp:425] inception_5a/5x5_reduce <- pool4/3x3_s2_pool4/3x3_s2_0_split_2
I0714 21:07:21.018792 16002 net.cpp:399] inception_5a/5x5_reduce -> inception_5a/5x5_reduce
I0714 21:07:21.020031 15998 net.cpp:141] Setting up inception_5a/5x5_reduce
I0714 21:07:21.020053 15998 net.cpp:148] Top shape: 10 32 7 7 (15680)
I0714 21:07:21.020061 15998 net.cpp:156] Memory required for data: 531928320
I0714 21:07:21.020071 15998 layer_factory.hpp:77] Creating layer inception_5a/relu_5x5_reduce
I0714 21:07:21.020081 15998 net.cpp:91] Creating Layer inception_5a/relu_5x5_reduce
I0714 21:07:21.020089 15998 net.cpp:425] inception_5a/relu_5x5_reduce <- inception_5a/5x5_reduce
I0714 21:07:21.020097 15998 net.cpp:386] inception_5a/relu_5x5_reduce -> inception_5a/5x5_reduce (in-place)
I0714 21:07:21.020522 15998 net.cpp:141] Setting up inception_5a/relu_5x5_reduce
I0714 21:07:21.020537 15998 net.cpp:148] Top shape: 10 32 7 7 (15680)
I0714 21:07:21.020544 15998 net.cpp:156] Memory required for data: 531991040
I0714 21:07:21.020550 15998 layer_factory.hpp:77] Creating layer inception_5a/5x5
I0714 21:07:21.020566 15998 net.cpp:91] Creating Layer inception_5a/5x5
I0714 21:07:21.020575 15998 net.cpp:425] inception_5a/5x5 <- inception_5a/5x5_reduce
I0714 21:07:21.020598 15998 net.cpp:399] inception_5a/5x5 -> inception_5a/5x5
I0714 21:07:21.023494 16002 net.cpp:141] Setting up inception_5a/5x5_reduce
I0714 21:07:21.023516 16002 net.cpp:148] Top shape: 10 32 7 7 (15680)
I0714 21:07:21.023522 16002 net.cpp:156] Memory required for data: 531928320
I0714 21:07:21.023533 16002 layer_factory.hpp:77] Creating layer inception_5a/relu_5x5_reduce
I0714 21:07:21.023543 16002 net.cpp:91] Creating Layer inception_5a/relu_5x5_reduce
I0714 21:07:21.023550 16002 net.cpp:425] inception_5a/relu_5x5_reduce <- inception_5a/5x5_reduce
I0714 21:07:21.023562 16002 net.cpp:386] inception_5a/relu_5x5_reduce -> inception_5a/5x5_reduce (in-place)
I0714 21:07:21.023870 16002 net.cpp:141] Setting up inception_5a/relu_5x5_reduce
I0714 21:07:21.023883 16002 net.cpp:148] Top shape: 10 32 7 7 (15680)
I0714 21:07:21.023890 16002 net.cpp:156] Memory required for data: 531991040
I0714 21:07:21.023895 16002 layer_factory.hpp:77] Creating layer inception_5a/5x5
I0714 21:07:21.023912 16002 net.cpp:91] Creating Layer inception_5a/5x5
I0714 21:07:21.023919 16002 net.cpp:425] inception_5a/5x5 <- inception_5a/5x5_reduce
I0714 21:07:21.023932 16002 net.cpp:399] inception_5a/5x5 -> inception_5a/5x5
I0714 21:07:21.027923 15998 net.cpp:141] Setting up inception_5a/5x5
I0714 21:07:21.027945 15998 net.cpp:148] Top shape: 10 128 7 7 (62720)
I0714 21:07:21.027951 15998 net.cpp:156] Memory required for data: 532241920
I0714 21:07:21.027961 15998 layer_factory.hpp:77] Creating layer inception_5a/relu_5x5
I0714 21:07:21.028000 15998 net.cpp:91] Creating Layer inception_5a/relu_5x5
I0714 21:07:21.028009 15998 net.cpp:425] inception_5a/relu_5x5 <- inception_5a/5x5
I0714 21:07:21.028018 15998 net.cpp:386] inception_5a/relu_5x5 -> inception_5a/5x5 (in-place)
I0714 21:07:21.028381 15998 net.cpp:141] Setting up inception_5a/relu_5x5
I0714 21:07:21.028395 15998 net.cpp:148] Top shape: 10 128 7 7 (62720)
I0714 21:07:21.028400 15998 net.cpp:156] Memory required for data: 532492800
I0714 21:07:21.028408 15998 layer_factory.hpp:77] Creating layer inception_5a/pool
I0714 21:07:21.028420 15998 net.cpp:91] Creating Layer inception_5a/pool
I0714 21:07:21.028427 15998 net.cpp:425] inception_5a/pool <- pool4/3x3_s2_pool4/3x3_s2_0_split_3
I0714 21:07:21.028436 15998 net.cpp:399] inception_5a/pool -> inception_5a/pool
I0714 21:07:21.029209 15998 net.cpp:141] Setting up inception_5a/pool
I0714 21:07:21.029225 15998 net.cpp:148] Top shape: 10 832 7 7 (407680)
I0714 21:07:21.029230 15998 net.cpp:156] Memory required for data: 534123520
I0714 21:07:21.029235 15998 layer_factory.hpp:77] Creating layer inception_5a/pool_proj
I0714 21:07:21.029253 15998 net.cpp:91] Creating Layer inception_5a/pool_proj
I0714 21:07:21.029259 15998 net.cpp:425] inception_5a/pool_proj <- inception_5a/pool
I0714 21:07:21.029274 15998 net.cpp:399] inception_5a/pool_proj -> inception_5a/pool_proj
I0714 21:07:21.030011 16002 net.cpp:141] Setting up inception_5a/5x5
I0714 21:07:21.030028 16002 net.cpp:148] Top shape: 10 128 7 7 (62720)
I0714 21:07:21.030035 16002 net.cpp:156] Memory required for data: 532241920
I0714 21:07:21.030045 16002 layer_factory.hpp:77] Creating layer inception_5a/relu_5x5
I0714 21:07:21.030086 16002 net.cpp:91] Creating Layer inception_5a/relu_5x5
I0714 21:07:21.030095 16002 net.cpp:425] inception_5a/relu_5x5 <- inception_5a/5x5
I0714 21:07:21.030107 16002 net.cpp:386] inception_5a/relu_5x5 -> inception_5a/5x5 (in-place)
I0714 21:07:21.030920 16002 net.cpp:141] Setting up inception_5a/relu_5x5
I0714 21:07:21.030938 16002 net.cpp:148] Top shape: 10 128 7 7 (62720)
I0714 21:07:21.030944 16002 net.cpp:156] Memory required for data: 532492800
I0714 21:07:21.030951 16002 layer_factory.hpp:77] Creating layer inception_5a/pool
I0714 21:07:21.030963 16002 net.cpp:91] Creating Layer inception_5a/pool
I0714 21:07:21.030971 16002 net.cpp:425] inception_5a/pool <- pool4/3x3_s2_pool4/3x3_s2_0_split_3
I0714 21:07:21.030980 16002 net.cpp:399] inception_5a/pool -> inception_5a/pool
I0714 21:07:21.032359 16002 net.cpp:141] Setting up inception_5a/pool
I0714 21:07:21.032377 16002 net.cpp:148] Top shape: 10 832 7 7 (407680)
I0714 21:07:21.032382 16002 net.cpp:156] Memory required for data: 534123520
I0714 21:07:21.032387 16002 layer_factory.hpp:77] Creating layer inception_5a/pool_proj
I0714 21:07:21.032404 16002 net.cpp:91] Creating Layer inception_5a/pool_proj
I0714 21:07:21.032412 16002 net.cpp:425] inception_5a/pool_proj <- inception_5a/pool
I0714 21:07:21.032426 16002 net.cpp:399] inception_5a/pool_proj -> inception_5a/pool_proj
I0714 21:07:21.038269 15998 net.cpp:141] Setting up inception_5a/pool_proj
I0714 21:07:21.038290 15998 net.cpp:148] Top shape: 10 128 7 7 (62720)
I0714 21:07:21.038295 15998 net.cpp:156] Memory required for data: 534374400
I0714 21:07:21.038306 15998 layer_factory.hpp:77] Creating layer inception_5a/relu_pool_proj
I0714 21:07:21.038327 15998 net.cpp:91] Creating Layer inception_5a/relu_pool_proj
I0714 21:07:21.038336 15998 net.cpp:425] inception_5a/relu_pool_proj <- inception_5a/pool_proj
I0714 21:07:21.038347 15998 net.cpp:386] inception_5a/relu_pool_proj -> inception_5a/pool_proj (in-place)
I0714 21:07:21.039388 15998 net.cpp:141] Setting up inception_5a/relu_pool_proj
I0714 21:07:21.039407 15998 net.cpp:148] Top shape: 10 128 7 7 (62720)
I0714 21:07:21.039412 15998 net.cpp:156] Memory required for data: 534625280
I0714 21:07:21.039417 15998 layer_factory.hpp:77] Creating layer inception_5a/output
I0714 21:07:21.039433 15998 net.cpp:91] Creating Layer inception_5a/output
I0714 21:07:21.039440 15998 net.cpp:425] inception_5a/output <- inception_5a/1x1
I0714 21:07:21.039448 15998 net.cpp:425] inception_5a/output <- inception_5a/3x3
I0714 21:07:21.039454 15998 net.cpp:425] inception_5a/output <- inception_5a/5x5
I0714 21:07:21.039460 15998 net.cpp:425] inception_5a/output <- inception_5a/pool_proj
I0714 21:07:21.039469 15998 net.cpp:399] inception_5a/output -> inception_5a/output
I0714 21:07:21.039530 16002 net.cpp:141] Setting up inception_5a/pool_proj
I0714 21:07:21.039547 16002 net.cpp:148] Top shape: 10 128 7 7 (62720)
I0714 21:07:21.039553 16002 net.cpp:156] Memory required for data: 534374400
I0714 21:07:21.039563 16002 layer_factory.hpp:77] Creating layer inception_5a/relu_pool_proj
I0714 21:07:21.039563 15998 net.cpp:141] Setting up inception_5a/output
I0714 21:07:21.039577 16002 net.cpp:91] Creating Layer inception_5a/relu_pool_proj
I0714 21:07:21.039582 15998 net.cpp:148] Top shape: 10 832 7 7 (407680)
I0714 21:07:21.039585 16002 net.cpp:425] inception_5a/relu_pool_proj <- inception_5a/pool_proj
I0714 21:07:21.039587 15998 net.cpp:156] Memory required for data: 536256000
I0714 21:07:21.039593 15998 layer_factory.hpp:77] Creating layer inception_5a/output_inception_5a/output_0_split
I0714 21:07:21.039594 16002 net.cpp:386] inception_5a/relu_pool_proj -> inception_5a/pool_proj (in-place)
I0714 21:07:21.039604 15998 net.cpp:91] Creating Layer inception_5a/output_inception_5a/output_0_split
I0714 21:07:21.039611 15998 net.cpp:425] inception_5a/output_inception_5a/output_0_split <- inception_5a/output
I0714 21:07:21.039621 15998 net.cpp:399] inception_5a/output_inception_5a/output_0_split -> inception_5a/output_inception_5a/output_0_split_0
I0714 21:07:21.039633 15998 net.cpp:399] inception_5a/output_inception_5a/output_0_split -> inception_5a/output_inception_5a/output_0_split_1
I0714 21:07:21.039643 15998 net.cpp:399] inception_5a/output_inception_5a/output_0_split -> inception_5a/output_inception_5a/output_0_split_2
I0714 21:07:21.039652 15998 net.cpp:399] inception_5a/output_inception_5a/output_0_split -> inception_5a/output_inception_5a/output_0_split_3
I0714 21:07:21.040650 15998 net.cpp:141] Setting up inception_5a/output_inception_5a/output_0_split
I0714 21:07:21.040665 15998 net.cpp:148] Top shape: 10 832 7 7 (407680)
I0714 21:07:21.040673 15998 net.cpp:148] Top shape: 10 832 7 7 (407680)
I0714 21:07:21.040678 15998 net.cpp:148] Top shape: 10 832 7 7 (407680)
I0714 21:07:21.040684 15998 net.cpp:148] Top shape: 10 832 7 7 (407680)
I0714 21:07:21.040684 16002 net.cpp:141] Setting up inception_5a/relu_pool_proj
I0714 21:07:21.040689 15998 net.cpp:156] Memory required for data: 542778880
I0714 21:07:21.040704 16002 net.cpp:148] Top shape: 10 128 7 7 (62720)
I0714 21:07:21.040704 15998 layer_factory.hpp:77] Creating layer inception_5b/1x1
I0714 21:07:21.040711 16002 net.cpp:156] Memory required for data: 534625280
I0714 21:07:21.040719 16002 layer_factory.hpp:77] Creating layer inception_5a/output
I0714 21:07:21.040732 15998 net.cpp:91] Creating Layer inception_5b/1x1
I0714 21:07:21.040738 16002 net.cpp:91] Creating Layer inception_5a/output
I0714 21:07:21.040741 15998 net.cpp:425] inception_5b/1x1 <- inception_5a/output_inception_5a/output_0_split_0
I0714 21:07:21.040746 16002 net.cpp:425] inception_5a/output <- inception_5a/1x1
I0714 21:07:21.040755 16002 net.cpp:425] inception_5a/output <- inception_5a/3x3
I0714 21:07:21.040753 15998 net.cpp:399] inception_5b/1x1 -> inception_5b/1x1
I0714 21:07:21.040765 16002 net.cpp:425] inception_5a/output <- inception_5a/5x5
I0714 21:07:21.040771 16002 net.cpp:425] inception_5a/output <- inception_5a/pool_proj
I0714 21:07:21.040782 16002 net.cpp:399] inception_5a/output -> inception_5a/output
I0714 21:07:21.040922 16002 net.cpp:141] Setting up inception_5a/output
I0714 21:07:21.040935 16002 net.cpp:148] Top shape: 10 832 7 7 (407680)
I0714 21:07:21.040940 16002 net.cpp:156] Memory required for data: 536256000
I0714 21:07:21.040946 16002 layer_factory.hpp:77] Creating layer inception_5a/output_inception_5a/output_0_split
I0714 21:07:21.040954 16002 net.cpp:91] Creating Layer inception_5a/output_inception_5a/output_0_split
I0714 21:07:21.040961 16002 net.cpp:425] inception_5a/output_inception_5a/output_0_split <- inception_5a/output
I0714 21:07:21.040971 16002 net.cpp:399] inception_5a/output_inception_5a/output_0_split -> inception_5a/output_inception_5a/output_0_split_0
I0714 21:07:21.040982 16002 net.cpp:399] inception_5a/output_inception_5a/output_0_split -> inception_5a/output_inception_5a/output_0_split_1
I0714 21:07:21.040992 16002 net.cpp:399] inception_5a/output_inception_5a/output_0_split -> inception_5a/output_inception_5a/output_0_split_2
I0714 21:07:21.041000 16002 net.cpp:399] inception_5a/output_inception_5a/output_0_split -> inception_5a/output_inception_5a/output_0_split_3
I0714 21:07:21.041506 16002 net.cpp:141] Setting up inception_5a/output_inception_5a/output_0_split
I0714 21:07:21.041519 16002 net.cpp:148] Top shape: 10 832 7 7 (407680)
I0714 21:07:21.041527 16002 net.cpp:148] Top shape: 10 832 7 7 (407680)
I0714 21:07:21.041532 16002 net.cpp:148] Top shape: 10 832 7 7 (407680)
I0714 21:07:21.041538 16002 net.cpp:148] Top shape: 10 832 7 7 (407680)
I0714 21:07:21.041543 16002 net.cpp:156] Memory required for data: 542778880
I0714 21:07:21.041548 16002 layer_factory.hpp:77] Creating layer inception_5b/1x1
I0714 21:07:21.041566 16002 net.cpp:91] Creating Layer inception_5b/1x1
I0714 21:07:21.041574 16002 net.cpp:425] inception_5b/1x1 <- inception_5a/output_inception_5a/output_0_split_0
I0714 21:07:21.041585 16002 net.cpp:399] inception_5b/1x1 -> inception_5b/1x1
I0714 21:07:21.049378 15998 net.cpp:141] Setting up inception_5b/1x1
I0714 21:07:21.049401 15998 net.cpp:148] Top shape: 10 384 7 7 (188160)
I0714 21:07:21.049407 15998 net.cpp:156] Memory required for data: 543531520
I0714 21:07:21.049418 15998 layer_factory.hpp:77] Creating layer inception_5b/relu_1x1
I0714 21:07:21.049430 15998 net.cpp:91] Creating Layer inception_5b/relu_1x1
I0714 21:07:21.049438 15998 net.cpp:425] inception_5b/relu_1x1 <- inception_5b/1x1
I0714 21:07:21.049448 15998 net.cpp:386] inception_5b/relu_1x1 -> inception_5b/1x1 (in-place)
I0714 21:07:21.049763 15998 net.cpp:141] Setting up inception_5b/relu_1x1
I0714 21:07:21.049779 15998 net.cpp:148] Top shape: 10 384 7 7 (188160)
I0714 21:07:21.049785 15998 net.cpp:156] Memory required for data: 544284160
I0714 21:07:21.049792 15998 layer_factory.hpp:77] Creating layer inception_5b/3x3_reduce
I0714 21:07:21.049808 15998 net.cpp:91] Creating Layer inception_5b/3x3_reduce
I0714 21:07:21.049814 15998 net.cpp:425] inception_5b/3x3_reduce <- inception_5a/output_inception_5a/output_0_split_1
I0714 21:07:21.049824 15998 net.cpp:399] inception_5b/3x3_reduce -> inception_5b/3x3_reduce
I0714 21:07:21.053839 16002 net.cpp:141] Setting up inception_5b/1x1
I0714 21:07:21.053863 16002 net.cpp:148] Top shape: 10 384 7 7 (188160)
I0714 21:07:21.053869 16002 net.cpp:156] Memory required for data: 543531520
I0714 21:07:21.053880 16002 layer_factory.hpp:77] Creating layer inception_5b/relu_1x1
I0714 21:07:21.053890 16002 net.cpp:91] Creating Layer inception_5b/relu_1x1
I0714 21:07:21.053901 16002 net.cpp:425] inception_5b/relu_1x1 <- inception_5b/1x1
I0714 21:07:21.053916 16002 net.cpp:386] inception_5b/relu_1x1 -> inception_5b/1x1 (in-place)
I0714 21:07:21.054242 16002 net.cpp:141] Setting up inception_5b/relu_1x1
I0714 21:07:21.054256 16002 net.cpp:148] Top shape: 10 384 7 7 (188160)
I0714 21:07:21.054261 16002 net.cpp:156] Memory required for data: 544284160
I0714 21:07:21.054267 16002 layer_factory.hpp:77] Creating layer inception_5b/3x3_reduce
I0714 21:07:21.054285 16002 net.cpp:91] Creating Layer inception_5b/3x3_reduce
I0714 21:07:21.054291 16002 net.cpp:425] inception_5b/3x3_reduce <- inception_5a/output_inception_5a/output_0_split_1
I0714 21:07:21.054306 16002 net.cpp:399] inception_5b/3x3_reduce -> inception_5b/3x3_reduce
I0714 21:07:21.060469 15998 net.cpp:141] Setting up inception_5b/3x3_reduce
I0714 21:07:21.060489 15998 net.cpp:148] Top shape: 10 192 7 7 (94080)
I0714 21:07:21.060495 15998 net.cpp:156] Memory required for data: 544660480
I0714 21:07:21.060506 15998 layer_factory.hpp:77] Creating layer inception_5b/relu_3x3_reduce
I0714 21:07:21.060520 15998 net.cpp:91] Creating Layer inception_5b/relu_3x3_reduce
I0714 21:07:21.060528 15998 net.cpp:425] inception_5b/relu_3x3_reduce <- inception_5b/3x3_reduce
I0714 21:07:21.060537 15998 net.cpp:386] inception_5b/relu_3x3_reduce -> inception_5b/3x3_reduce (in-place)
I0714 21:07:21.060864 15998 net.cpp:141] Setting up inception_5b/relu_3x3_reduce
I0714 21:07:21.060878 15998 net.cpp:148] Top shape: 10 192 7 7 (94080)
I0714 21:07:21.060883 15998 net.cpp:156] Memory required for data: 545036800
I0714 21:07:21.060889 15998 layer_factory.hpp:77] Creating layer inception_5b/3x3
I0714 21:07:21.060906 15998 net.cpp:91] Creating Layer inception_5b/3x3
I0714 21:07:21.060914 15998 net.cpp:425] inception_5b/3x3 <- inception_5b/3x3_reduce
I0714 21:07:21.060925 15998 net.cpp:399] inception_5b/3x3 -> inception_5b/3x3
I0714 21:07:21.065052 16002 net.cpp:141] Setting up inception_5b/3x3_reduce
I0714 21:07:21.065075 16002 net.cpp:148] Top shape: 10 192 7 7 (94080)
I0714 21:07:21.065081 16002 net.cpp:156] Memory required for data: 544660480
I0714 21:07:21.065093 16002 layer_factory.hpp:77] Creating layer inception_5b/relu_3x3_reduce
I0714 21:07:21.065104 16002 net.cpp:91] Creating Layer inception_5b/relu_3x3_reduce
I0714 21:07:21.065111 16002 net.cpp:425] inception_5b/relu_3x3_reduce <- inception_5b/3x3_reduce
I0714 21:07:21.065122 16002 net.cpp:386] inception_5b/relu_3x3_reduce -> inception_5b/3x3_reduce (in-place)
I0714 21:07:21.065464 16002 net.cpp:141] Setting up inception_5b/relu_3x3_reduce
I0714 21:07:21.065476 16002 net.cpp:148] Top shape: 10 192 7 7 (94080)
I0714 21:07:21.065481 16002 net.cpp:156] Memory required for data: 545036800
I0714 21:07:21.065487 16002 layer_factory.hpp:77] Creating layer inception_5b/3x3
I0714 21:07:21.065511 16002 net.cpp:91] Creating Layer inception_5b/3x3
I0714 21:07:21.065520 16002 net.cpp:425] inception_5b/3x3 <- inception_5b/3x3_reduce
I0714 21:07:21.065529 16002 net.cpp:399] inception_5b/3x3 -> inception_5b/3x3
I0714 21:07:21.073276 15998 net.cpp:141] Setting up inception_5b/3x3
I0714 21:07:21.073303 15998 net.cpp:148] Top shape: 10 384 7 7 (188160)
I0714 21:07:21.073309 15998 net.cpp:156] Memory required for data: 545789440
I0714 21:07:21.073321 15998 layer_factory.hpp:77] Creating layer inception_5b/relu_3x3
I0714 21:07:21.073335 15998 net.cpp:91] Creating Layer inception_5b/relu_3x3
I0714 21:07:21.073343 15998 net.cpp:425] inception_5b/relu_3x3 <- inception_5b/3x3
I0714 21:07:21.073353 15998 net.cpp:386] inception_5b/relu_3x3 -> inception_5b/3x3 (in-place)
I0714 21:07:21.074218 15998 net.cpp:141] Setting up inception_5b/relu_3x3
I0714 21:07:21.074242 15998 net.cpp:148] Top shape: 10 384 7 7 (188160)
I0714 21:07:21.074249 15998 net.cpp:156] Memory required for data: 546542080
I0714 21:07:21.074254 15998 layer_factory.hpp:77] Creating layer inception_5b/5x5_reduce
I0714 21:07:21.074273 15998 net.cpp:91] Creating Layer inception_5b/5x5_reduce
I0714 21:07:21.074281 15998 net.cpp:425] inception_5b/5x5_reduce <- inception_5a/output_inception_5a/output_0_split_2
I0714 21:07:21.074291 15998 net.cpp:399] inception_5b/5x5_reduce -> inception_5b/5x5_reduce
I0714 21:07:21.079437 16002 net.cpp:141] Setting up inception_5b/3x3
I0714 21:07:21.079462 16002 net.cpp:148] Top shape: 10 384 7 7 (188160)
I0714 21:07:21.079468 16002 net.cpp:156] Memory required for data: 545789440
I0714 21:07:21.079479 16002 layer_factory.hpp:77] Creating layer inception_5b/relu_3x3
I0714 21:07:21.079494 16002 net.cpp:91] Creating Layer inception_5b/relu_3x3
I0714 21:07:21.079507 16002 net.cpp:425] inception_5b/relu_3x3 <- inception_5b/3x3
I0714 21:07:21.079517 16002 net.cpp:386] inception_5b/relu_3x3 -> inception_5b/3x3 (in-place)
I0714 21:07:21.080646 16002 net.cpp:141] Setting up inception_5b/relu_3x3
I0714 21:07:21.080664 16002 net.cpp:148] Top shape: 10 384 7 7 (188160)
I0714 21:07:21.080670 16002 net.cpp:156] Memory required for data: 546542080
I0714 21:07:21.080677 16002 layer_factory.hpp:77] Creating layer inception_5b/5x5_reduce
I0714 21:07:21.080695 16002 net.cpp:91] Creating Layer inception_5b/5x5_reduce
I0714 21:07:21.080703 16002 net.cpp:425] inception_5b/5x5_reduce <- inception_5a/output_inception_5a/output_0_split_2
I0714 21:07:21.080713 16002 net.cpp:399] inception_5b/5x5_reduce -> inception_5b/5x5_reduce
I0714 21:07:21.080729 15998 net.cpp:141] Setting up inception_5b/5x5_reduce
I0714 21:07:21.080746 15998 net.cpp:148] Top shape: 10 48 7 7 (23520)
I0714 21:07:21.080752 15998 net.cpp:156] Memory required for data: 546636160
I0714 21:07:21.080762 15998 layer_factory.hpp:77] Creating layer inception_5b/relu_5x5_reduce
I0714 21:07:21.080775 15998 net.cpp:91] Creating Layer inception_5b/relu_5x5_reduce
I0714 21:07:21.080781 15998 net.cpp:425] inception_5b/relu_5x5_reduce <- inception_5b/5x5_reduce
I0714 21:07:21.080790 15998 net.cpp:386] inception_5b/relu_5x5_reduce -> inception_5b/5x5_reduce (in-place)
I0714 21:07:21.081265 15998 net.cpp:141] Setting up inception_5b/relu_5x5_reduce
I0714 21:07:21.081279 15998 net.cpp:148] Top shape: 10 48 7 7 (23520)
I0714 21:07:21.081284 15998 net.cpp:156] Memory required for data: 546730240
I0714 21:07:21.081290 15998 layer_factory.hpp:77] Creating layer inception_5b/5x5
I0714 21:07:21.081310 15998 net.cpp:91] Creating Layer inception_5b/5x5
I0714 21:07:21.081317 15998 net.cpp:425] inception_5b/5x5 <- inception_5b/5x5_reduce
I0714 21:07:21.081327 15998 net.cpp:399] inception_5b/5x5 -> inception_5b/5x5
I0714 21:07:21.086400 16002 net.cpp:141] Setting up inception_5b/5x5_reduce
I0714 21:07:21.086421 16002 net.cpp:148] Top shape: 10 48 7 7 (23520)
I0714 21:07:21.086426 16002 net.cpp:156] Memory required for data: 546636160
I0714 21:07:21.086439 16002 layer_factory.hpp:77] Creating layer inception_5b/relu_5x5_reduce
I0714 21:07:21.086452 16002 net.cpp:91] Creating Layer inception_5b/relu_5x5_reduce
I0714 21:07:21.086459 16002 net.cpp:425] inception_5b/relu_5x5_reduce <- inception_5b/5x5_reduce
I0714 21:07:21.086467 16002 net.cpp:386] inception_5b/relu_5x5_reduce -> inception_5b/5x5_reduce (in-place)
I0714 21:07:21.086828 16002 net.cpp:141] Setting up inception_5b/relu_5x5_reduce
I0714 21:07:21.086843 16002 net.cpp:148] Top shape: 10 48 7 7 (23520)
I0714 21:07:21.086848 16002 net.cpp:156] Memory required for data: 546730240
I0714 21:07:21.086853 16002 layer_factory.hpp:77] Creating layer inception_5b/5x5
I0714 21:07:21.086872 16002 net.cpp:91] Creating Layer inception_5b/5x5
I0714 21:07:21.086880 16002 net.cpp:425] inception_5b/5x5 <- inception_5b/5x5_reduce
I0714 21:07:21.086890 16002 net.cpp:399] inception_5b/5x5 -> inception_5b/5x5
I0714 21:07:21.088268 15998 net.cpp:141] Setting up inception_5b/5x5
I0714 21:07:21.088287 15998 net.cpp:148] Top shape: 10 128 7 7 (62720)
I0714 21:07:21.088294 15998 net.cpp:156] Memory required for data: 546981120
I0714 21:07:21.088304 15998 layer_factory.hpp:77] Creating layer inception_5b/relu_5x5
I0714 21:07:21.088317 15998 net.cpp:91] Creating Layer inception_5b/relu_5x5
I0714 21:07:21.088325 15998 net.cpp:425] inception_5b/relu_5x5 <- inception_5b/5x5
I0714 21:07:21.088333 15998 net.cpp:386] inception_5b/relu_5x5 -> inception_5b/5x5 (in-place)
I0714 21:07:21.088649 15998 net.cpp:141] Setting up inception_5b/relu_5x5
I0714 21:07:21.088662 15998 net.cpp:148] Top shape: 10 128 7 7 (62720)
I0714 21:07:21.088667 15998 net.cpp:156] Memory required for data: 547232000
I0714 21:07:21.088673 15998 layer_factory.hpp:77] Creating layer inception_5b/pool
I0714 21:07:21.088685 15998 net.cpp:91] Creating Layer inception_5b/pool
I0714 21:07:21.088691 15998 net.cpp:425] inception_5b/pool <- inception_5a/output_inception_5a/output_0_split_3
I0714 21:07:21.088703 15998 net.cpp:399] inception_5b/pool -> inception_5b/pool
I0714 21:07:21.088863 15998 net.cpp:141] Setting up inception_5b/pool
I0714 21:07:21.088876 15998 net.cpp:148] Top shape: 10 832 7 7 (407680)
I0714 21:07:21.088881 15998 net.cpp:156] Memory required for data: 548862720
I0714 21:07:21.088886 15998 layer_factory.hpp:77] Creating layer inception_5b/pool_proj
I0714 21:07:21.088903 15998 net.cpp:91] Creating Layer inception_5b/pool_proj
I0714 21:07:21.088910 15998 net.cpp:425] inception_5b/pool_proj <- inception_5b/pool
I0714 21:07:21.088920 15998 net.cpp:399] inception_5b/pool_proj -> inception_5b/pool_proj
I0714 21:07:21.096096 15998 net.cpp:141] Setting up inception_5b/pool_proj
I0714 21:07:21.096117 15998 net.cpp:148] Top shape: 10 128 7 7 (62720)
I0714 21:07:21.096123 15998 net.cpp:156] Memory required for data: 549113600
I0714 21:07:21.096134 15998 layer_factory.hpp:77] Creating layer inception_5b/relu_pool_proj
I0714 21:07:21.096149 15998 net.cpp:91] Creating Layer inception_5b/relu_pool_proj
I0714 21:07:21.096158 15998 net.cpp:425] inception_5b/relu_pool_proj <- inception_5b/pool_proj
I0714 21:07:21.096166 15998 net.cpp:386] inception_5b/relu_pool_proj -> inception_5b/pool_proj (in-place)
I0714 21:07:21.096227 16002 net.cpp:141] Setting up inception_5b/5x5
I0714 21:07:21.096245 16002 net.cpp:148] Top shape: 10 128 7 7 (62720)
I0714 21:07:21.096249 16002 net.cpp:156] Memory required for data: 546981120
I0714 21:07:21.096261 16002 layer_factory.hpp:77] Creating layer inception_5b/relu_5x5
I0714 21:07:21.096274 16002 net.cpp:91] Creating Layer inception_5b/relu_5x5
I0714 21:07:21.096282 16002 net.cpp:425] inception_5b/relu_5x5 <- inception_5b/5x5
I0714 21:07:21.096290 16002 net.cpp:386] inception_5b/relu_5x5 -> inception_5b/5x5 (in-place)
I0714 21:07:21.096632 16002 net.cpp:141] Setting up inception_5b/relu_5x5
I0714 21:07:21.096645 16002 net.cpp:148] Top shape: 10 128 7 7 (62720)
I0714 21:07:21.096650 16002 net.cpp:156] Memory required for data: 547232000
I0714 21:07:21.096657 16002 layer_factory.hpp:77] Creating layer inception_5b/pool
I0714 21:07:21.096667 16002 net.cpp:91] Creating Layer inception_5b/pool
I0714 21:07:21.096673 16002 net.cpp:425] inception_5b/pool <- inception_5a/output_inception_5a/output_0_split_3
I0714 21:07:21.096685 16002 net.cpp:399] inception_5b/pool -> inception_5b/pool
I0714 21:07:21.097091 16002 net.cpp:141] Setting up inception_5b/pool
I0714 21:07:21.097106 16002 net.cpp:148] Top shape: 10 832 7 7 (407680)
I0714 21:07:21.097112 16002 net.cpp:156] Memory required for data: 548862720
I0714 21:07:21.097118 16002 layer_factory.hpp:77] Creating layer inception_5b/pool_proj
I0714 21:07:21.097139 16002 net.cpp:91] Creating Layer inception_5b/pool_proj
I0714 21:07:21.097146 16002 net.cpp:425] inception_5b/pool_proj <- inception_5b/pool
I0714 21:07:21.097158 16002 net.cpp:399] inception_5b/pool_proj -> inception_5b/pool_proj
I0714 21:07:21.097178 15998 net.cpp:141] Setting up inception_5b/relu_pool_proj
I0714 21:07:21.097194 15998 net.cpp:148] Top shape: 10 128 7 7 (62720)
I0714 21:07:21.097200 15998 net.cpp:156] Memory required for data: 549364480
I0714 21:07:21.097206 15998 layer_factory.hpp:77] Creating layer inception_5b/output
I0714 21:07:21.097219 15998 net.cpp:91] Creating Layer inception_5b/output
I0714 21:07:21.097226 15998 net.cpp:425] inception_5b/output <- inception_5b/1x1
I0714 21:07:21.097234 15998 net.cpp:425] inception_5b/output <- inception_5b/3x3
I0714 21:07:21.097240 15998 net.cpp:425] inception_5b/output <- inception_5b/5x5
I0714 21:07:21.097246 15998 net.cpp:425] inception_5b/output <- inception_5b/pool_proj
I0714 21:07:21.097256 15998 net.cpp:399] inception_5b/output -> inception_5b/output
I0714 21:07:21.097403 15998 net.cpp:141] Setting up inception_5b/output
I0714 21:07:21.097415 15998 net.cpp:148] Top shape: 10 1024 7 7 (501760)
I0714 21:07:21.097420 15998 net.cpp:156] Memory required for data: 551371520
I0714 21:07:21.097426 15998 layer_factory.hpp:77] Creating layer pool5/7x7_s1
I0714 21:07:21.097436 15998 net.cpp:91] Creating Layer pool5/7x7_s1
I0714 21:07:21.097445 15998 net.cpp:425] pool5/7x7_s1 <- inception_5b/output
I0714 21:07:21.097453 15998 net.cpp:399] pool5/7x7_s1 -> pool5/7x7_s1
I0714 21:07:21.098093 15998 net.cpp:141] Setting up pool5/7x7_s1
I0714 21:07:21.098109 15998 net.cpp:148] Top shape: 10 1024 1 1 (10240)
I0714 21:07:21.098114 15998 net.cpp:156] Memory required for data: 551412480
I0714 21:07:21.098121 15998 layer_factory.hpp:77] Creating layer pool5/drop_7x7_s1
I0714 21:07:21.098139 15998 net.cpp:91] Creating Layer pool5/drop_7x7_s1
I0714 21:07:21.098145 15998 net.cpp:425] pool5/drop_7x7_s1 <- pool5/7x7_s1
I0714 21:07:21.098152 15998 net.cpp:386] pool5/drop_7x7_s1 -> pool5/7x7_s1 (in-place)
I0714 21:07:21.099405 15998 net.cpp:141] Setting up pool5/drop_7x7_s1
I0714 21:07:21.099419 15998 net.cpp:148] Top shape: 10 1024 1 1 (10240)
I0714 21:07:21.099424 15998 net.cpp:156] Memory required for data: 551453440
I0714 21:07:21.099429 15998 layer_factory.hpp:77] Creating layer loss3/classifier
I0714 21:07:21.099457 15998 net.cpp:91] Creating Layer loss3/classifier
I0714 21:07:21.099464 15998 net.cpp:425] loss3/classifier <- pool5/7x7_s1
I0714 21:07:21.099477 15998 net.cpp:399] loss3/classifier -> loss3/classifier
I0714 21:07:21.106356 16002 net.cpp:141] Setting up inception_5b/pool_proj
I0714 21:07:21.106385 16002 net.cpp:148] Top shape: 10 128 7 7 (62720)
I0714 21:07:21.106392 16002 net.cpp:156] Memory required for data: 549113600
I0714 21:07:21.106405 16002 layer_factory.hpp:77] Creating layer inception_5b/relu_pool_proj
I0714 21:07:21.106416 16002 net.cpp:91] Creating Layer inception_5b/relu_pool_proj
I0714 21:07:21.106423 16002 net.cpp:425] inception_5b/relu_pool_proj <- inception_5b/pool_proj
I0714 21:07:21.106436 16002 net.cpp:386] inception_5b/relu_pool_proj -> inception_5b/pool_proj (in-place)
I0714 21:07:21.107349 16002 net.cpp:141] Setting up inception_5b/relu_pool_proj
I0714 21:07:21.107367 16002 net.cpp:148] Top shape: 10 128 7 7 (62720)
I0714 21:07:21.107373 16002 net.cpp:156] Memory required for data: 549364480
I0714 21:07:21.107379 16002 layer_factory.hpp:77] Creating layer inception_5b/output
I0714 21:07:21.107389 16002 net.cpp:91] Creating Layer inception_5b/output
I0714 21:07:21.107396 16002 net.cpp:425] inception_5b/output <- inception_5b/1x1
I0714 21:07:21.107403 16002 net.cpp:425] inception_5b/output <- inception_5b/3x3
I0714 21:07:21.107410 16002 net.cpp:425] inception_5b/output <- inception_5b/5x5
I0714 21:07:21.107416 16002 net.cpp:425] inception_5b/output <- inception_5b/pool_proj
I0714 21:07:21.107426 16002 net.cpp:399] inception_5b/output -> inception_5b/output
I0714 21:07:21.107527 16002 net.cpp:141] Setting up inception_5b/output
I0714 21:07:21.107538 16002 net.cpp:148] Top shape: 10 1024 7 7 (501760)
I0714 21:07:21.107543 16002 net.cpp:156] Memory required for data: 551371520
I0714 21:07:21.107548 16002 layer_factory.hpp:77] Creating layer pool5/7x7_s1
I0714 21:07:21.107564 16002 net.cpp:91] Creating Layer pool5/7x7_s1
I0714 21:07:21.107570 16002 net.cpp:425] pool5/7x7_s1 <- inception_5b/output
I0714 21:07:21.107579 16002 net.cpp:399] pool5/7x7_s1 -> pool5/7x7_s1
I0714 21:07:21.107959 16002 net.cpp:141] Setting up pool5/7x7_s1
I0714 21:07:21.107971 16002 net.cpp:148] Top shape: 10 1024 1 1 (10240)
I0714 21:07:21.107976 16002 net.cpp:156] Memory required for data: 551412480
I0714 21:07:21.107982 16002 layer_factory.hpp:77] Creating layer pool5/drop_7x7_s1
I0714 21:07:21.107996 16002 net.cpp:91] Creating Layer pool5/drop_7x7_s1
I0714 21:07:21.108002 16002 net.cpp:425] pool5/drop_7x7_s1 <- pool5/7x7_s1
I0714 21:07:21.108011 16002 net.cpp:386] pool5/drop_7x7_s1 -> pool5/7x7_s1 (in-place)
I0714 21:07:21.108094 16002 net.cpp:141] Setting up pool5/drop_7x7_s1
I0714 21:07:21.108105 16002 net.cpp:148] Top shape: 10 1024 1 1 (10240)
I0714 21:07:21.108110 16002 net.cpp:156] Memory required for data: 551453440
I0714 21:07:21.108115 16002 layer_factory.hpp:77] Creating layer loss3/classifier
I0714 21:07:21.108132 16002 net.cpp:91] Creating Layer loss3/classifier
I0714 21:07:21.108139 16002 net.cpp:425] loss3/classifier <- pool5/7x7_s1
I0714 21:07:21.108150 16002 net.cpp:399] loss3/classifier -> loss3/classifier
I0714 21:07:21.112680 15998 net.cpp:141] Setting up loss3/classifier
I0714 21:07:21.112709 15998 net.cpp:148] Top shape: 10 1000 (10000)
I0714 21:07:21.112715 15998 net.cpp:156] Memory required for data: 551493440
I0714 21:07:21.112726 15998 layer_factory.hpp:77] Creating layer prob
I0714 21:07:21.112738 15998 net.cpp:91] Creating Layer prob
I0714 21:07:21.112746 15998 net.cpp:425] prob <- loss3/classifier
I0714 21:07:21.112756 15998 net.cpp:399] prob -> prob
I0714 21:07:21.114126 15998 net.cpp:141] Setting up prob
I0714 21:07:21.114145 15998 net.cpp:148] Top shape: 10 1000 (10000)
I0714 21:07:21.114151 15998 net.cpp:156] Memory required for data: 551533440
I0714 21:07:21.114156 15998 net.cpp:219] prob does not need backward computation.
I0714 21:07:21.114162 15998 net.cpp:219] loss3/classifier does not need backward computation.
I0714 21:07:21.114167 15998 net.cpp:219] pool5/drop_7x7_s1 does not need backward computation.
I0714 21:07:21.114171 15998 net.cpp:219] pool5/7x7_s1 does not need backward computation.
…
