…
W0730 11:12:46.122602  3538 upgrade_proto.cpp:71] Note that future Caffe releases will only support input layers and not input fields.
I0730 11:12:46.122851  3538 net.cpp:49] Initializing net from parameters: 
name: "s2vt:features_to_lstm"
state {
  phase: TEST
}
layer {
  name: "input"
  type: "Input"
  top: "frames_fc7"
  top: "cont_sentence"
  top: "input_sentence"
  top: "stage_indicator"
  input_param {
    shape {
      dim: 1
      dim: 4096
    }
    shape {
      dim: 1
      dim: 1
    }
    shape {
      dim: 1
      dim: 1
    }
    shape {
      dim: 1
      dim: 1
    }
  }
}
layer {
  name: "embed_encoder"
  type: "InnerProduct"
  bottom: "frames_fc7"
  top: "embedded_in_frames"
  param {
    lr_mult: 1
    decay_mult: 1
  }
  param {
    lr_mult: 2
    decay_mult: 0
  }
  inner_product_param {
    num_output: 500
    weight_filler {
      type: "xavier"
    }
    bias_filler {
      type: "constant"
      value: 0.2
    }
  }
}
layer {
  name: "reshape_frames"
  type: "Reshape"
  bottom: "embedded_in_frames"
  top: "embedded_input_frames"
  reshape_param {
    shape {
      dim: 1
      dim: 1
      dim: 500
    }
  }
}
layer {
  name: "reshape_stage_indicator"
  type: "Reshape"
  bottom: "stage_indicator"
  top: "reshaped_stage_indicator"
  reshape_param {
    shape {
      dim: 1
      dim: 1
      dim: 1
    }
  }
}
layer {
  name: "embedding"
  type: "Embed"
  bottom: "input_sentence"
  top: "embedded_input_sentence"
  param {
    lr_mult: 1
  }
  embed_param {
    num_output: 500
    input_dim: 46168
    bias_term: false
    weight_filler {
      type: "uniform"
      min: -0.08
      max: 0.08
    }
  }
}
layer {
  name: "lstm1"
  type: "LSTM"
  bottom: "embedded_input_frames"
  bottom: "cont_sentence"
  top: "lstm1"
  recurrent_param {
    num_output: 1000
    weight_filler {
      type: "uniform"
      min: -0.08
      max: 0.08
    }
    bias_filler {
      type: "constant"
      value: 0
    }
  }
}
layer {
  name: "concat"
  type: "Concat"
  bottom: "lstm1"
  bottom: "embedded_input_sentence"
  bottom: "reshaped_stage_indicator"
  top: "lstm1_video_sequence"
  concat_param {
    concat_dim: 2
  }
}
layer {
  name: "lstm2"
  type: "LSTM"
  bottom: "lstm1_video_sequence"
  bottom: "cont_sentence"
  top: "lstm2"
  recurrent_param {
    num_output: 1000
    weight_filler {
      type: "uniform"
      min: -0.08
      max: 0.08
    }
    bias_filler {
      type: "constant"
      value: 0
    }
  }
}
layer {
  name: "predict"
  type: "InnerProduct"
  bottom: "lstm2"
  top: "predict"
  param {
    lr_mult: 1
    decay_mult: 1
  }
  param {
    lr_mult: 2
    decay_mult: 0
  }
  inner_product_param {
    num_output: 46168
    weight_filler {
      type: "uniform"
      min: -0.08
      max: 0.08
    }
    bias_filler {
      type: "constant"
      value: 0
    }
    axis: 2
  }
}
layer {
  name: "probs"
  type: "Softmax"
  bottom: "predict"
  top: "probs"
  softmax_param {
    axis: 2
  }
}
I0730 11:12:46.122866  3549 net.cpp:49] Initializing net from parameters: 
name: "CaffeNet"
state {
  phase: TEST
}
layer {
  name: "data"
  type: "Input"
  top: "data"
  input_param {
    shape {
      dim: 10
      dim: 3
      dim: 227
      dim: 227
    }
  }
}
layer {
  name: "conv1"
  type: "Convolution"
  bottom: "data"
  top: "conv1"
  convolution_param {
    num_output: 96
    kernel_size: 11
    stride: 4
  }
}
layer {
  name: "relu1"
  type: "ReLU"
  bottom: "conv1"
  top: "conv1"
}
layer {
  name: "pool1"
  type: "Pooling"
  bottom: "conv1"
  top: "pool1"
  pooling_param {
    pool: MAX
    kernel_size: 3
    stride: 2
  }
}
layer {
  name: "norm1"
  type: "LRN"
  bottom: "pool1"
  top: "norm1"
  lrn_param {
    local_size: 5
    alpha: 0.0001
    beta: 0.75
  }
}
layer {
  name: "conv2"
  type: "Convolution"
  bottom: "norm1"
  top: "conv2"
  convolution_param {
    num_output: 256
    pad: 2
    kernel_size: 5
    group: 2
  }
}
layer {
  name: "relu2"
  type: "ReLU"
  bottom: "conv2"
  top: "conv2"
}
layer {
  name: "pool2"
  type: "Pooling"
  bottom: "conv2"
  top: "pool2"
  pooling_param {
    pool: MAX
    kernel_size: 3
    stride: 2
  }
}
layer {
  name: "norm2"
  type: "LRN"
  bottom: "pool2"
  top: "norm2"
  lrn_param {
    local_size: 5
    alpha: 0.0001
    beta: 0.75
  }
}
layer {
  name: "conv3"
  type: "Convolution"
  bottom: "norm2"
  top: "conv3"
  convolution_param {
    num_output: 384
    pad: 1
    kernel_size: 3
  }
}
layer {
  name: "relu3"
  type: "ReLU"
  bottom: "conv3"
  top: "conv3"
}
layer {
  name: "conv4"
  type: "Convolution"
  bottom: "conv3"
  top: "conv4"
  convolution_param {
    num_output: 384
    pad: 1
    kernel_size: 3
    group: 2
  }
}
layer {
  name: "relu4"
  type: "ReLU"
  bottom: "conv4"
  top: "conv4"
}
layer {
  name: "conv5"
  type: "Convolution"
  bottom: "conv4"
  top: "conv5"
  convolution_param {
    num_output: 256
    pad: 1
    kernel_size: 3
    group: 2
  }
}
layer {
  name: "relu5"
  type: "ReLU"
  bottom: "conv5"
  top: "conv5"
}
layer {
  name: "pool5"
  type: "Pooling"
  bottom: "conv5"
  top: "pool5"
  pooling_param {
    pool: MAX
    kernel_size: 3
    stride: 2
  }
}
layer {
  name: "fc6"
  type: "InnerProduct"
  bottom: "pool5"
  top: "fc6"
  inner_product_param {
    num_output: 4096
  }
}
layer {
  name: "relu6"
  type: "ReLU"
  bottom: "fc6"
  top: "fc6"
}
layer {
  name: "drop6"
  type: "Dropout"
  bottom: "fc6"
  top: "fc6"
  dropout_param {
    dropout_ratio: 0.5
  }
}
layer {
  name: "fc7"
  type: "InnerProduct"
  bottom: "fc6"
  top: "fc7"
  inner_product_param {
    num_output: 4096
  }
}
layer {
  name: "relu7"
  type: "ReLU"
  bottom: "fc7"
  top: "fc7"
}
layer {
  name: "drop7"
  type: "Dropout"
  bottom: "fc7"
  top: "fc7"
  dropout_param {
    dropout_ratio: 0.5
  }
}
layer {
  name: "fc8"
  type: "InnerProduct"
  bottom: "fc7"
  top: "fc8"
  inner_product_param {
    num_output: 1000
  }
}
layer {
  name: "prob"
  type: "Softmax"
  bottom: "fc8"
  top: "prob"
}
I0730 11:12:46.122987  3538 layer_factory.hpp:77] Creating layer input
I0730 11:12:46.122992  3549 layer_factory.hpp:77] Creating layer data
I0730 11:12:46.123010  3549 net.cpp:91] Creating Layer data
I0730 11:12:46.123010  3538 net.cpp:91] Creating Layer input
I0730 11:12:46.123028  3549 net.cpp:399] data -> data
I0730 11:12:46.123028  3538 net.cpp:399] input -> frames_fc7
I0730 11:12:46.123071  3538 net.cpp:399] input -> cont_sentence
I0730 11:12:46.123085  3538 net.cpp:399] input -> input_sentence
I0730 11:12:46.123095  3538 net.cpp:399] input -> stage_indicator
I0730 11:12:46.635432  3549 net.cpp:141] Setting up data
I0730 11:12:46.635514  3549 net.cpp:148] Top shape: 10 3 227 227 (1545870)
I0730 11:12:46.635514  3538 net.cpp:141] Setting up input
I0730 11:12:46.635520  3549 net.cpp:156] Memory required for data: 6183480
I0730 11:12:46.635535  3538 net.cpp:148] Top shape: 1 4096 (4096)
I0730 11:12:46.635541  3538 net.cpp:148] Top shape: 1 1 (1)
I0730 11:12:46.635545  3549 layer_factory.hpp:77] Creating layer conv1
I0730 11:12:46.635546  3538 net.cpp:148] Top shape: 1 1 (1)
I0730 11:12:46.635560  3538 net.cpp:148] Top shape: 1 1 (1)
I0730 11:12:46.635565  3538 net.cpp:156] Memory required for data: 16396
I0730 11:12:46.635571  3538 layer_factory.hpp:77] Creating layer cont_sentence_input_1_split
I0730 11:12:46.635586  3549 net.cpp:91] Creating Layer conv1
I0730 11:12:46.635593  3538 net.cpp:91] Creating Layer cont_sentence_input_1_split
I0730 11:12:46.635594  3549 net.cpp:425] conv1 <- data
I0730 11:12:46.635599  3538 net.cpp:425] cont_sentence_input_1_split <- cont_sentence
I0730 11:12:46.635609  3549 net.cpp:399] conv1 -> conv1
I0730 11:12:46.635625  3538 net.cpp:399] cont_sentence_input_1_split -> cont_sentence_input_1_split_0
I0730 11:12:46.635637  3538 net.cpp:399] cont_sentence_input_1_split -> cont_sentence_input_1_split_1
I0730 11:12:46.635746  3538 net.cpp:141] Setting up cont_sentence_input_1_split
I0730 11:12:46.635758  3538 net.cpp:148] Top shape: 1 1 (1)
I0730 11:12:46.635763  3538 net.cpp:148] Top shape: 1 1 (1)
I0730 11:12:46.635767  3538 net.cpp:156] Memory required for data: 16404
I0730 11:12:46.635772  3538 layer_factory.hpp:77] Creating layer embed_encoder
I0730 11:12:46.635787  3538 net.cpp:91] Creating Layer embed_encoder
I0730 11:12:46.635792  3538 net.cpp:425] embed_encoder <- frames_fc7
I0730 11:12:46.635802  3538 net.cpp:399] embed_encoder -> embedded_in_frames
I0730 11:12:46.667237  3538 net.cpp:141] Setting up embed_encoder
I0730 11:12:46.667304  3538 net.cpp:148] Top shape: 1 500 (500)
I0730 11:12:46.667310  3538 net.cpp:156] Memory required for data: 18404
I0730 11:12:46.667341  3538 layer_factory.hpp:77] Creating layer reshape_frames
I0730 11:12:46.667373  3538 net.cpp:91] Creating Layer reshape_frames
I0730 11:12:46.667382  3538 net.cpp:425] reshape_frames <- embedded_in_frames
I0730 11:12:46.667394  3538 net.cpp:399] reshape_frames -> embedded_input_frames
I0730 11:12:46.667466  3538 net.cpp:141] Setting up reshape_frames
I0730 11:12:46.667477  3538 net.cpp:148] Top shape: 1 1 500 (500)
I0730 11:12:46.667481  3538 net.cpp:156] Memory required for data: 20404
I0730 11:12:46.667486  3538 layer_factory.hpp:77] Creating layer reshape_stage_indicator
I0730 11:12:46.667498  3538 net.cpp:91] Creating Layer reshape_stage_indicator
I0730 11:12:46.667503  3538 net.cpp:425] reshape_stage_indicator <- stage_indicator
I0730 11:12:46.667513  3538 net.cpp:399] reshape_stage_indicator -> reshaped_stage_indicator
I0730 11:12:46.667747  3538 net.cpp:141] Setting up reshape_stage_indicator
I0730 11:12:46.667757  3538 net.cpp:148] Top shape: 1 1 1 (1)
I0730 11:12:46.667762  3538 net.cpp:156] Memory required for data: 20408
I0730 11:12:46.667768  3538 layer_factory.hpp:77] Creating layer embedding
I0730 11:12:46.667780  3538 net.cpp:91] Creating Layer embedding
I0730 11:12:46.667784  3538 net.cpp:425] embedding <- input_sentence
I0730 11:12:46.667793  3538 net.cpp:399] embedding -> embedded_input_sentence
I0730 11:12:46.886020  3538 net.cpp:141] Setting up embedding
I0730 11:12:46.886083  3538 net.cpp:148] Top shape: 1 1 500 (500)
I0730 11:12:46.886090  3538 net.cpp:156] Memory required for data: 22408
I0730 11:12:46.886111  3538 layer_factory.hpp:77] Creating layer lstm1
I0730 11:12:46.886133  3538 net.cpp:91] Creating Layer lstm1
I0730 11:12:46.886142  3538 net.cpp:425] lstm1 <- embedded_input_frames
I0730 11:12:46.886150  3538 net.cpp:425] lstm1 <- cont_sentence_input_1_split_0
I0730 11:12:46.886159  3538 net.cpp:399] lstm1 -> lstm1
I0730 11:12:46.886198  3538 recurrent_layer.cpp:20] Initializing recurrent layer: assuming input batch contains 1 timesteps of 1 independent streams.
I0730 11:12:46.886576  3538 net.cpp:49] Initializing net from parameters: 
layer {
  name: "lstm1_"
  type: "Input"
  top: "x"
  top: "cont"
  input_param {
    shape {
      dim: 1
      dim: 1
      dim: 500
    }
    shape {
      dim: 1
      dim: 1
    }
  }
}
layer {
  name: "lstm1_"
  type: "Input"
  top: "c_0"
  top: "h_0"
  input_param {
    shape {
      dim: 1
      dim: 1
      dim: 1000
    }
    shape {
      dim: 1
      dim: 1
      dim: 1000
    }
  }
}
layer {
  name: "lstm1_cont_slice"
  type: "Slice"
  bottom: "cont"
  top: "cont_1"
  slice_param {
    axis: 0
  }
}
layer {
  name: "lstm1_x_transform"
  type: "InnerProduct"
  bottom: "x"
  top: "W_xc_x"
  param {
    name: "W_xc"
  }
  param {
    name: "b_c"
  }
  propagate_down: true
  inner_product_param {
    num_output: 4000
    bias_term: true
    weight_filler {
      type: "uniform"
      min: -0.08
      max: 0.08
    }
    bias_filler {
      type: "constant"
      value: 0
    }
    axis: 2
  }
}
layer {
  name: "lstm1_W_xc_x_slice"
  type: "Slice"
  bottom: "W_xc_x"
  top: "W_xc_x_1"
  slice_param {
    axis: 0
  }
}
layer {
  name: "lstm1_h_conted_0"
  type: "Scale"
  bottom: "h_0"
  bottom: "cont_1"
  top: "h_conted_0"
  scale_param {
    axis: 0
  }
}
layer {
  name: "lstm1_transform_1"
  type: "InnerProduct"
  bottom: "h_conted_0"
  top: "W_hc_h_0"
  param {
    name: "W_hc"
  }
  inner_product_param {
    num_output: 4000
    bias_term: false
    weight_filler {
      type: "uniform"
      min: -0.08
      max: 0.08
    }
    axis: 2
  }
}
layer {
  name: "lstm1_gate_input_1"
  type: "Eltwise"
  bottom: "W_hc_h_0"
  bottom: "W_xc_x_1"
  top: "gate_input_1"
  eltwise_param {
    operation: SUM
  }
}
layer {
  name: "lstm1_unit_1"
  type: "LSTMUnit"
  bottom: "c_0"
  bottom: "gate_input_1"
  bottom: "cont_1"
  top: "c_1"
  top: "h_1"
}
layer {
  name: "lstm1_"
  type: "Split"
  bottom: "c_1"
  top: "c_T"
}
layer {
  name: "lstm1_h_concat"
  type: "Concat"
  bottom: "h_1"
  top: "h"
  concat_param {
    axis: 0
  }
}
layer {
  name: "h_pseudoloss"
  type: "Reduction"
  bottom: "h"
  top: "h_pseudoloss"
  loss_weight: 1
}
I0730 11:12:46.886664  3538 layer_factory.hpp:77] Creating layer lstm1_
I0730 11:12:46.886677  3538 net.cpp:91] Creating Layer lstm1_
I0730 11:12:46.886683  3538 net.cpp:399] lstm1_ -> x
I0730 11:12:46.886708  3538 net.cpp:399] lstm1_ -> cont
I0730 11:12:46.886770  3538 net.cpp:141] Setting up lstm1_
I0730 11:12:46.886780  3538 net.cpp:148] Top shape: 1 1 500 (500)
I0730 11:12:46.886786  3538 net.cpp:148] Top shape: 1 1 (1)
I0730 11:12:46.886790  3538 net.cpp:156] Memory required for data: 2004
I0730 11:12:46.886795  3538 layer_factory.hpp:77] Creating layer lstm1_
I0730 11:12:46.886806  3538 net.cpp:91] Creating Layer lstm1_
I0730 11:12:46.886812  3538 net.cpp:399] lstm1_ -> c_0
I0730 11:12:46.886821  3538 net.cpp:399] lstm1_ -> h_0
I0730 11:12:46.891074  3538 net.cpp:141] Setting up lstm1_
I0730 11:12:46.891093  3538 net.cpp:148] Top shape: 1 1 1000 (1000)
I0730 11:12:46.891099  3538 net.cpp:148] Top shape: 1 1 1000 (1000)
I0730 11:12:46.891103  3538 net.cpp:156] Memory required for data: 10004
I0730 11:12:46.891108  3538 layer_factory.hpp:77] Creating layer lstm1_cont_slice
I0730 11:12:46.891118  3538 net.cpp:91] Creating Layer lstm1_cont_slice
I0730 11:12:46.891122  3538 net.cpp:425] lstm1_cont_slice <- cont
I0730 11:12:46.891132  3538 net.cpp:399] lstm1_cont_slice -> cont_1
I0730 11:12:46.893374  3538 net.cpp:141] Setting up lstm1_cont_slice
I0730 11:12:46.893396  3538 net.cpp:148] Top shape: 1 1 (1)
I0730 11:12:46.893401  3538 net.cpp:156] Memory required for data: 10008
I0730 11:12:46.893406  3538 layer_factory.hpp:77] Creating layer cont_1_lstm1_cont_slice_0_split
I0730 11:12:46.893414  3538 net.cpp:91] Creating Layer cont_1_lstm1_cont_slice_0_split
I0730 11:12:46.893419  3538 net.cpp:425] cont_1_lstm1_cont_slice_0_split <- cont_1
I0730 11:12:46.893426  3538 net.cpp:399] cont_1_lstm1_cont_slice_0_split -> cont_1_lstm1_cont_slice_0_split_0
I0730 11:12:46.893435  3538 net.cpp:399] cont_1_lstm1_cont_slice_0_split -> cont_1_lstm1_cont_slice_0_split_1
I0730 11:12:46.898138  3538 net.cpp:141] Setting up cont_1_lstm1_cont_slice_0_split
I0730 11:12:46.898159  3538 net.cpp:148] Top shape: 1 1 (1)
I0730 11:12:46.898164  3538 net.cpp:148] Top shape: 1 1 (1)
I0730 11:12:46.898169  3538 net.cpp:156] Memory required for data: 10016
I0730 11:12:46.898174  3538 layer_factory.hpp:77] Creating layer lstm1_x_transform
I0730 11:12:46.898191  3538 net.cpp:91] Creating Layer lstm1_x_transform
I0730 11:12:46.898196  3538 net.cpp:425] lstm1_x_transform <- x
I0730 11:12:46.898206  3538 net.cpp:399] lstm1_x_transform -> W_xc_x
I0730 11:12:46.913660  3549 net.cpp:141] Setting up conv1
I0730 11:12:46.913715  3549 net.cpp:148] Top shape: 10 96 55 55 (2904000)
I0730 11:12:46.913722  3549 net.cpp:156] Memory required for data: 17799480
I0730 11:12:46.913746  3549 layer_factory.hpp:77] Creating layer relu1
I0730 11:12:46.913767  3549 net.cpp:91] Creating Layer relu1
I0730 11:12:46.913774  3549 net.cpp:425] relu1 <- conv1
I0730 11:12:46.913782  3549 net.cpp:386] relu1 -> conv1 (in-place)
I0730 11:12:46.914500  3549 net.cpp:141] Setting up relu1
I0730 11:12:46.914513  3549 net.cpp:148] Top shape: 10 96 55 55 (2904000)
I0730 11:12:46.914518  3549 net.cpp:156] Memory required for data: 29415480
I0730 11:12:46.914523  3549 layer_factory.hpp:77] Creating layer pool1
I0730 11:12:46.914538  3549 net.cpp:91] Creating Layer pool1
I0730 11:12:46.914543  3549 net.cpp:425] pool1 <- conv1
I0730 11:12:46.914553  3549 net.cpp:399] pool1 -> pool1
I0730 11:12:46.914623  3549 net.cpp:141] Setting up pool1
I0730 11:12:46.914631  3549 net.cpp:148] Top shape: 10 96 27 27 (699840)
I0730 11:12:46.914635  3549 net.cpp:156] Memory required for data: 32214840
I0730 11:12:46.914639  3549 layer_factory.hpp:77] Creating layer norm1
I0730 11:12:46.914659  3549 net.cpp:91] Creating Layer norm1
I0730 11:12:46.914664  3549 net.cpp:425] norm1 <- pool1
I0730 11:12:46.914669  3549 net.cpp:399] norm1 -> norm1
I0730 11:12:46.915459  3549 net.cpp:141] Setting up norm1
I0730 11:12:46.915473  3549 net.cpp:148] Top shape: 10 96 27 27 (699840)
I0730 11:12:46.915477  3549 net.cpp:156] Memory required for data: 35014200
I0730 11:12:46.915482  3549 layer_factory.hpp:77] Creating layer conv2
I0730 11:12:46.915501  3549 net.cpp:91] Creating Layer conv2
I0730 11:12:46.915506  3549 net.cpp:425] conv2 <- norm1
I0730 11:12:46.915513  3549 net.cpp:399] conv2 -> conv2
I0730 11:12:46.919069  3538 net.cpp:141] Setting up lstm1_x_transform
I0730 11:12:46.919092  3538 net.cpp:148] Top shape: 1 1 4000 (4000)
I0730 11:12:46.919097  3538 net.cpp:156] Memory required for data: 26016
I0730 11:12:46.919112  3538 layer_factory.hpp:77] Creating layer lstm1_W_xc_x_slice
I0730 11:12:46.919124  3538 net.cpp:91] Creating Layer lstm1_W_xc_x_slice
I0730 11:12:46.919129  3538 net.cpp:425] lstm1_W_xc_x_slice <- W_xc_x
I0730 11:12:46.919143  3538 net.cpp:399] lstm1_W_xc_x_slice -> W_xc_x_1
I0730 11:12:46.919751  3538 net.cpp:141] Setting up lstm1_W_xc_x_slice
I0730 11:12:46.919762  3538 net.cpp:148] Top shape: 1 1 4000 (4000)
I0730 11:12:46.919766  3538 net.cpp:156] Memory required for data: 42016
I0730 11:12:46.919770  3538 layer_factory.hpp:77] Creating layer lstm1_h_conted_0
I0730 11:12:46.919780  3538 net.cpp:91] Creating Layer lstm1_h_conted_0
I0730 11:12:46.919785  3538 net.cpp:425] lstm1_h_conted_0 <- h_0
I0730 11:12:46.919791  3538 net.cpp:425] lstm1_h_conted_0 <- cont_1_lstm1_cont_slice_0_split_0
I0730 11:12:46.919800  3538 net.cpp:399] lstm1_h_conted_0 -> h_conted_0
I0730 11:12:46.919914  3538 net.cpp:141] Setting up lstm1_h_conted_0
I0730 11:12:46.919924  3538 net.cpp:148] Top shape: 1 1 1000 (1000)
I0730 11:12:46.919927  3538 net.cpp:156] Memory required for data: 46016
I0730 11:12:46.919932  3538 layer_factory.hpp:77] Creating layer lstm1_transform_1
I0730 11:12:46.919944  3538 net.cpp:91] Creating Layer lstm1_transform_1
I0730 11:12:46.919948  3538 net.cpp:425] lstm1_transform_1 <- h_conted_0
I0730 11:12:46.919958  3538 net.cpp:399] lstm1_transform_1 -> W_hc_h_0
I0730 11:12:46.928391  3549 net.cpp:141] Setting up conv2
I0730 11:12:46.928458  3549 net.cpp:148] Top shape: 10 256 27 27 (1866240)
I0730 11:12:46.928465  3549 net.cpp:156] Memory required for data: 42479160
I0730 11:12:46.928488  3549 layer_factory.hpp:77] Creating layer relu2
I0730 11:12:46.928505  3549 net.cpp:91] Creating Layer relu2
I0730 11:12:46.928511  3549 net.cpp:425] relu2 <- conv2
I0730 11:12:46.928522  3549 net.cpp:386] relu2 -> conv2 (in-place)
I0730 11:12:46.930136  3549 net.cpp:141] Setting up relu2
I0730 11:12:46.930186  3549 net.cpp:148] Top shape: 10 256 27 27 (1866240)
I0730 11:12:46.930192  3549 net.cpp:156] Memory required for data: 49944120
I0730 11:12:46.930200  3549 layer_factory.hpp:77] Creating layer pool2
I0730 11:12:46.930219  3549 net.cpp:91] Creating Layer pool2
I0730 11:12:46.930224  3549 net.cpp:425] pool2 <- conv2
I0730 11:12:46.930234  3549 net.cpp:399] pool2 -> pool2
I0730 11:12:46.930315  3549 net.cpp:141] Setting up pool2
I0730 11:12:46.930325  3549 net.cpp:148] Top shape: 10 256 13 13 (432640)
I0730 11:12:46.930328  3549 net.cpp:156] Memory required for data: 51674680
I0730 11:12:46.930332  3549 layer_factory.hpp:77] Creating layer norm2
I0730 11:12:46.930348  3549 net.cpp:91] Creating Layer norm2
I0730 11:12:46.930352  3549 net.cpp:425] norm2 <- pool2
I0730 11:12:46.930359  3549 net.cpp:399] norm2 -> norm2
I0730 11:12:46.930614  3549 net.cpp:141] Setting up norm2
I0730 11:12:46.930624  3549 net.cpp:148] Top shape: 10 256 13 13 (432640)
I0730 11:12:46.930629  3549 net.cpp:156] Memory required for data: 53405240
I0730 11:12:46.930634  3549 layer_factory.hpp:77] Creating layer conv3
I0730 11:12:46.930650  3549 net.cpp:91] Creating Layer conv3
I0730 11:12:46.930655  3549 net.cpp:425] conv3 <- norm2
I0730 11:12:46.930661  3549 net.cpp:399] conv3 -> conv3
I0730 11:12:46.935811  3549 net.cpp:141] Setting up conv3
I0730 11:12:46.935849  3549 net.cpp:148] Top shape: 10 384 13 13 (648960)
I0730 11:12:46.935855  3549 net.cpp:156] Memory required for data: 56001080
I0730 11:12:46.935871  3549 layer_factory.hpp:77] Creating layer relu3
I0730 11:12:46.935881  3549 net.cpp:91] Creating Layer relu3
I0730 11:12:46.935885  3549 net.cpp:425] relu3 <- conv3
I0730 11:12:46.935894  3549 net.cpp:386] relu3 -> conv3 (in-place)
I0730 11:12:46.936578  3549 net.cpp:141] Setting up relu3
I0730 11:12:46.936590  3549 net.cpp:148] Top shape: 10 384 13 13 (648960)
I0730 11:12:46.936595  3549 net.cpp:156] Memory required for data: 58596920
I0730 11:12:46.936600  3549 layer_factory.hpp:77] Creating layer conv4
I0730 11:12:46.936614  3549 net.cpp:91] Creating Layer conv4
I0730 11:12:46.936619  3549 net.cpp:425] conv4 <- conv3
I0730 11:12:46.936626  3549 net.cpp:399] conv4 -> conv4
I0730 11:12:46.941709  3549 net.cpp:141] Setting up conv4
I0730 11:12:46.941746  3549 net.cpp:148] Top shape: 10 384 13 13 (648960)
I0730 11:12:46.941752  3549 net.cpp:156] Memory required for data: 61192760
I0730 11:12:46.941762  3549 layer_factory.hpp:77] Creating layer relu4
I0730 11:12:46.941773  3549 net.cpp:91] Creating Layer relu4
I0730 11:12:46.941778  3549 net.cpp:425] relu4 <- conv4
I0730 11:12:46.941787  3549 net.cpp:386] relu4 -> conv4 (in-place)
I0730 11:12:46.942483  3549 net.cpp:141] Setting up relu4
I0730 11:12:46.942495  3549 net.cpp:148] Top shape: 10 384 13 13 (648960)
I0730 11:12:46.942500  3549 net.cpp:156] Memory required for data: 63788600
I0730 11:12:46.942505  3549 layer_factory.hpp:77] Creating layer conv5
I0730 11:12:46.942519  3549 net.cpp:91] Creating Layer conv5
I0730 11:12:46.942524  3549 net.cpp:425] conv5 <- conv4
I0730 11:12:46.942533  3549 net.cpp:399] conv5 -> conv5
I0730 11:12:46.947732  3549 net.cpp:141] Setting up conv5
I0730 11:12:46.947767  3549 net.cpp:148] Top shape: 10 256 13 13 (432640)
I0730 11:12:46.947772  3549 net.cpp:156] Memory required for data: 65519160
I0730 11:12:46.947787  3549 layer_factory.hpp:77] Creating layer relu5
I0730 11:12:46.947799  3549 net.cpp:91] Creating Layer relu5
I0730 11:12:46.947804  3549 net.cpp:425] relu5 <- conv5
I0730 11:12:46.947810  3549 net.cpp:386] relu5 -> conv5 (in-place)
I0730 11:12:46.948520  3549 net.cpp:141] Setting up relu5
I0730 11:12:46.948534  3549 net.cpp:148] Top shape: 10 256 13 13 (432640)
I0730 11:12:46.948537  3549 net.cpp:156] Memory required for data: 67249720
I0730 11:12:46.948542  3549 layer_factory.hpp:77] Creating layer pool5
I0730 11:12:46.948555  3549 net.cpp:91] Creating Layer pool5
I0730 11:12:46.948560  3549 net.cpp:425] pool5 <- conv5
I0730 11:12:46.948567  3549 net.cpp:399] pool5 -> pool5
I0730 11:12:46.948629  3549 net.cpp:141] Setting up pool5
I0730 11:12:46.948638  3549 net.cpp:148] Top shape: 10 256 6 6 (92160)
I0730 11:12:46.948642  3549 net.cpp:156] Memory required for data: 67618360
I0730 11:12:46.948647  3549 layer_factory.hpp:77] Creating layer fc6
I0730 11:12:46.948662  3549 net.cpp:91] Creating Layer fc6
I0730 11:12:46.948665  3549 net.cpp:425] fc6 <- pool5
I0730 11:12:46.948673  3549 net.cpp:399] fc6 -> fc6
I0730 11:12:47.014405  3538 net.cpp:141] Setting up lstm1_transform_1
I0730 11:12:47.014461  3538 net.cpp:148] Top shape: 1 1 4000 (4000)
I0730 11:12:47.014467  3538 net.cpp:156] Memory required for data: 62016
I0730 11:12:47.014494  3538 layer_factory.hpp:77] Creating layer lstm1_gate_input_1
I0730 11:12:47.014518  3538 net.cpp:91] Creating Layer lstm1_gate_input_1
I0730 11:12:47.014525  3538 net.cpp:425] lstm1_gate_input_1 <- W_hc_h_0
I0730 11:12:47.014534  3538 net.cpp:425] lstm1_gate_input_1 <- W_xc_x_1
I0730 11:12:47.014542  3538 net.cpp:399] lstm1_gate_input_1 -> gate_input_1
I0730 11:12:47.014614  3538 net.cpp:141] Setting up lstm1_gate_input_1
I0730 11:12:47.014622  3538 net.cpp:148] Top shape: 1 1 4000 (4000)
I0730 11:12:47.014626  3538 net.cpp:156] Memory required for data: 78016
I0730 11:12:47.014631  3538 layer_factory.hpp:77] Creating layer lstm1_unit_1
I0730 11:12:47.014641  3538 net.cpp:91] Creating Layer lstm1_unit_1
I0730 11:12:47.014644  3538 net.cpp:425] lstm1_unit_1 <- c_0
I0730 11:12:47.014649  3538 net.cpp:425] lstm1_unit_1 <- gate_input_1
I0730 11:12:47.014654  3538 net.cpp:425] lstm1_unit_1 <- cont_1_lstm1_cont_slice_0_split_1
I0730 11:12:47.014663  3538 net.cpp:399] lstm1_unit_1 -> c_1
I0730 11:12:47.014672  3538 net.cpp:399] lstm1_unit_1 -> h_1
I0730 11:12:47.014762  3538 net.cpp:141] Setting up lstm1_unit_1
I0730 11:12:47.014772  3538 net.cpp:148] Top shape: 1 1 1000 (1000)
I0730 11:12:47.014778  3538 net.cpp:148] Top shape: 1 1 1000 (1000)
I0730 11:12:47.014781  3538 net.cpp:156] Memory required for data: 86016
I0730 11:12:47.014786  3538 layer_factory.hpp:77] Creating layer lstm1_
I0730 11:12:47.014793  3538 net.cpp:91] Creating Layer lstm1_
I0730 11:12:47.014797  3538 net.cpp:425] lstm1_ <- c_1
I0730 11:12:47.014803  3538 net.cpp:399] lstm1_ -> c_T
I0730 11:12:47.014837  3538 net.cpp:141] Setting up lstm1_
I0730 11:12:47.014843  3538 net.cpp:148] Top shape: 1 1 1000 (1000)
I0730 11:12:47.014847  3538 net.cpp:156] Memory required for data: 90016
I0730 11:12:47.014853  3538 layer_factory.hpp:77] Creating layer lstm1_h_concat
I0730 11:12:47.014871  3538 net.cpp:91] Creating Layer lstm1_h_concat
I0730 11:12:47.014875  3538 net.cpp:425] lstm1_h_concat <- h_1
I0730 11:12:47.014883  3538 net.cpp:399] lstm1_h_concat -> h
I0730 11:12:47.014919  3538 net.cpp:141] Setting up lstm1_h_concat
I0730 11:12:47.014926  3538 net.cpp:148] Top shape: 1 1 1000 (1000)
I0730 11:12:47.014930  3538 net.cpp:156] Memory required for data: 94016
I0730 11:12:47.014935  3538 layer_factory.hpp:77] Creating layer h_pseudoloss
I0730 11:12:47.014948  3538 net.cpp:91] Creating Layer h_pseudoloss
I0730 11:12:47.014952  3538 net.cpp:425] h_pseudoloss <- h
I0730 11:12:47.014960  3538 net.cpp:399] h_pseudoloss -> h_pseudoloss
I0730 11:12:47.015036  3538 net.cpp:141] Setting up h_pseudoloss
…
I0730 11:12:47.015149  3538 net.cpp:219] lstm1_ does not need backward computation.
I0730 11:12:47.015152  3538 net.cpp:261] This network produces output c_T
I0730 11:12:47.015156  3538 net.cpp:261] This network produces output h_pseudoloss
I0730 11:12:47.015174  3538 net.cpp:274] Network initialization done.
I0730 11:12:47.015239  3538 recurrent_layer.cpp:150] Adding parameter 0: W_xc
I0730 11:12:47.015244  3538 recurrent_layer.cpp:150] Adding parameter 1: b_c
I0730 11:12:47.015249  3538 recurrent_layer.cpp:150] Adding parameter 2: W_hc
I0730 11:12:47.015360  3538 net.cpp:141] Setting up lstm1
I0730 11:12:47.015372  3538 net.cpp:148] Top shape: 1 1 1000 (1000)
I0730 11:12:47.015375  3538 net.cpp:156] Memory required for data: 26408
I0730 11:12:47.015388  3538 layer_factory.hpp:77] Creating layer concat
I0730 11:12:47.015398  3538 net.cpp:91] Creating Layer concat
I0730 11:12:47.015404  3538 net.cpp:425] concat <- lstm1
I0730 11:12:47.015410  3538 net.cpp:425] concat <- embedded_input_sentence
I0730 11:12:47.015415  3538 net.cpp:425] concat <- reshaped_stage_indicator
I0730 11:12:47.015421  3538 net.cpp:399] concat -> lstm1_video_sequence
I0730 11:12:47.015453  3538 net.cpp:141] Setting up concat
I0730 11:12:47.015461  3538 net.cpp:148] Top shape: 1 1 1501 (1501)
I0730 11:12:47.015465  3538 net.cpp:156] Memory required for data: 32412
I0730 11:12:47.015470  3538 layer_factory.hpp:77] Creating layer lstm2
I0730 11:12:47.015483  3538 net.cpp:91] Creating Layer lstm2
I0730 11:12:47.015487  3538 net.cpp:425] lstm2 <- lstm1_video_sequence
I0730 11:12:47.015493  3538 net.cpp:425] lstm2 <- cont_sentence_input_1_split_1
I0730 11:12:47.015499  3538 net.cpp:399] lstm2 -> lstm2
I0730 11:12:47.015509  3538 recurrent_layer.cpp:20] Initializing recurrent layer: assuming input batch contains 1 timesteps of 1 independent streams.
I0730 11:12:47.015772  3538 net.cpp:49] Initializing net from parameters: 
layer {
  name: "lstm2_"
  type: "Input"
  top: "x"
  top: "cont"
  input_param {
    shape {
      dim: 1
      dim: 1
      dim: 1501
    }
    shape {
      dim: 1
      dim: 1
    }
  }
}
layer {
  name: "lstm2_"
  type: "Input"
  top: "c_0"
  top: "h_0"
  input_param {
    shape {
      dim: 1
      dim: 1
      dim: 1000
    }
    shape {
      dim: 1
      dim: 1
      dim: 1000
    }
  }
}
layer {
  name: "lstm2_cont_slice"
  type: "Slice"
  bottom: "cont"
  top: "cont_1"
  slice_param {
    axis: 0
  }
}
layer {
  name: "lstm2_x_transform"
  type: "InnerProduct"
  bottom: "x"
  top: "W_xc_x"
  param {
    name: "W_xc"
  }
  param {
    name: "b_c"
  }
  propagate_down: true
  inner_product_param {
    num_output: 4000
    bias_term: true
    weight_filler {
      type: "uniform"
      min: -0.08
      max: 0.08
    }
    bias_filler {
      type: "constant"
      value: 0
    }
    axis: 2
  }
}
layer {
  name: "lstm2_W_xc_x_slice"
  type: "Slice"
  bottom: "W_xc_x"
  top: "W_xc_x_1"
  slice_param {
    axis: 0
  }
}
layer {
  name: "lstm2_h_conted_0"
  type: "Scale"
  bottom: "h_0"
  bottom: "cont_1"
  top: "h_conted_0"
  scale_param {
    axis: 0
  }
}
layer {
  name: "lstm2_transform_1"
  type: "InnerProduct"
  bottom: "h_conted_0"
  top: "W_hc_h_0"
  param {
    name: "W_hc"
  }
  inner_product_param {
    num_output: 4000
    bias_term: false
    weight_filler {
      type: "uniform"
      min: -0.08
      max: 0.08
    }
    axis: 2
  }
}
layer {
  name: "lstm2_gate_input_1"
  type: "Eltwise"
  bottom: "W_hc_h_0"
  bottom: "W_xc_x_1"
  top: "gate_input_1"
  eltwise_param {
    operation: SUM
  }
}
layer {
  name: "lstm2_unit_1"
  type: "LSTMUnit"
  bottom: "c_0"
  bottom: "gate_input_1"
  bottom: "cont_1"
  top: "c_1"
  top: "h_1"
}
layer {
  name: "lstm2_"
  type: "Split"
  bottom: "c_1"
  top: "c_T"
}
layer {
  name: "lstm2_h_concat"
  type: "Concat"
  bottom: "h_1"
  top: "h"
  concat_param {
    axis: 0
  }
}
layer {
  name: "h_pseudoloss"
  type: "Reduction"
  bottom: "h"
  top: "h_pseudoloss"
  loss_weight: 1
}
I0730 11:12:47.015861  3538 layer_factory.hpp:77] Creating layer lstm2_
I0730 11:12:47.015872  3538 net.cpp:91] Creating Layer lstm2_
I0730 11:12:47.015877  3538 net.cpp:399] lstm2_ -> x
I0730 11:12:47.015887  3538 net.cpp:399] lstm2_ -> cont
I0730 11:12:47.015940  3538 net.cpp:141] Setting up lstm2_
I0730 11:12:47.015949  3538 net.cpp:148] Top shape: 1 1 1501 (1501)
I0730 11:12:47.015954  3538 net.cpp:148] Top shape: 1 1 (1)
I0730 11:12:47.015957  3538 net.cpp:156] Memory required for data: 6008
I0730 11:12:47.015962  3538 layer_factory.hpp:77] Creating layer lstm2_
I0730 11:12:47.015969  3538 net.cpp:91] Creating Layer lstm2_
I0730 11:12:47.015979  3538 net.cpp:399] lstm2_ -> c_0
I0730 11:12:47.015988  3538 net.cpp:399] lstm2_ -> h_0
I0730 11:12:47.016036  3538 net.cpp:141] Setting up lstm2_
I0730 11:12:47.016043  3538 net.cpp:148] Top shape: 1 1 1000 (1000)
I0730 11:12:47.016048  3538 net.cpp:148] Top shape: 1 1 1000 (1000)
I0730 11:12:47.016052  3538 net.cpp:156] Memory required for data: 14008
I0730 11:12:47.016057  3538 layer_factory.hpp:77] Creating layer lstm2_cont_slice
I0730 11:12:47.016068  3538 net.cpp:91] Creating Layer lstm2_cont_slice
I0730 11:12:47.016073  3538 net.cpp:425] lstm2_cont_slice <- cont
I0730 11:12:47.016080  3538 net.cpp:399] lstm2_cont_slice -> cont_1
I0730 11:12:47.016110  3538 net.cpp:141] Setting up lstm2_cont_slice
I0730 11:12:47.016119  3538 net.cpp:148] Top shape: 1 1 (1)
I0730 11:12:47.016122  3538 net.cpp:156] Memory required for data: 14012
I0730 11:12:47.016126  3538 layer_factory.hpp:77] Creating layer cont_1_lstm2_cont_slice_0_split
I0730 11:12:47.016132  3538 net.cpp:91] Creating Layer cont_1_lstm2_cont_slice_0_split
I0730 11:12:47.016136  3538 net.cpp:425] cont_1_lstm2_cont_slice_0_split <- cont_1
I0730 11:12:47.016145  3538 net.cpp:399] cont_1_lstm2_cont_slice_0_split -> cont_1_lstm2_cont_slice_0_split_0
I0730 11:12:47.016152  3538 net.cpp:399] cont_1_lstm2_cont_slice_0_split -> cont_1_lstm2_cont_slice_0_split_1
I0730 11:12:47.016197  3538 net.cpp:141] Setting up cont_1_lstm2_cont_slice_0_split
I0730 11:12:47.016206  3538 net.cpp:148] Top shape: 1 1 (1)
I0730 11:12:47.016211  3538 net.cpp:148] Top shape: 1 1 (1)
I0730 11:12:47.016214  3538 net.cpp:156] Memory required for data: 14020
I0730 11:12:47.016218  3538 layer_factory.hpp:77] Creating layer lstm2_x_transform
I0730 11:12:47.016227  3538 net.cpp:91] Creating Layer lstm2_x_transform
I0730 11:12:47.016232  3538 net.cpp:425] lstm2_x_transform <- x
I0730 11:12:47.016238  3538 net.cpp:399] lstm2_x_transform -> W_xc_x
I0730 11:12:47.053434  3549 net.cpp:141] Setting up fc6
I0730 11:12:47.053508  3549 net.cpp:148] Top shape: 10 4096 (40960)
I0730 11:12:47.053514  3549 net.cpp:156] Memory required for data: 67782200
I0730 11:12:47.053529  3549 layer_factory.hpp:77] Creating layer relu6
I0730 11:12:47.053545  3549 net.cpp:91] Creating Layer relu6
I0730 11:12:47.053551  3549 net.cpp:425] relu6 <- fc6
I0730 11:12:47.053563  3549 net.cpp:386] relu6 -> fc6 (in-place)
I0730 11:12:47.053886  3549 net.cpp:141] Setting up relu6
I0730 11:12:47.053896  3549 net.cpp:148] Top shape: 10 4096 (40960)
I0730 11:12:47.053901  3549 net.cpp:156] Memory required for data: 67946040
I0730 11:12:47.053908  3549 layer_factory.hpp:77] Creating layer drop6
I0730 11:12:47.053920  3549 net.cpp:91] Creating Layer drop6
I0730 11:12:47.053925  3549 net.cpp:425] drop6 <- fc6
I0730 11:12:47.053930  3549 net.cpp:386] drop6 -> fc6 (in-place)
I0730 11:12:47.053982  3549 net.cpp:141] Setting up drop6
I0730 11:12:47.053989  3549 net.cpp:148] Top shape: 10 4096 (40960)
I0730 11:12:47.053993  3549 net.cpp:156] Memory required for data: 68109880
I0730 11:12:47.053998  3549 layer_factory.hpp:77] Creating layer fc7
I0730 11:12:47.054008  3549 net.cpp:91] Creating Layer fc7
I0730 11:12:47.054013  3549 net.cpp:425] fc7 <- fc6
I0730 11:12:47.054024  3549 net.cpp:399] fc7 -> fc7
I0730 11:12:47.083181  3538 net.cpp:141] Setting up lstm2_x_transform
I0730 11:12:47.083232  3538 net.cpp:148] Top shape: 1 1 4000 (4000)
I0730 11:12:47.083238  3538 net.cpp:156] Memory required for data: 30020
I0730 11:12:47.083261  3538 layer_factory.hpp:77] Creating layer lstm2_W_xc_x_slice
I0730 11:12:47.083281  3538 net.cpp:91] Creating Layer lstm2_W_xc_x_slice
I0730 11:12:47.083288  3538 net.cpp:425] lstm2_W_xc_x_slice <- W_xc_x
I0730 11:12:47.083298  3538 net.cpp:399] lstm2_W_xc_x_slice -> W_xc_x_1
I0730 11:12:47.083343  3538 net.cpp:141] Setting up lstm2_W_xc_x_slice
I0730 11:12:47.083353  3538 net.cpp:148] Top shape: 1 1 4000 (4000)
I0730 11:12:47.083358  3538 net.cpp:156] Memory required for data: 46020
I0730 11:12:47.083361  3538 layer_factory.hpp:77] Creating layer lstm2_h_conted_0
I0730 11:12:47.083375  3538 net.cpp:91] Creating Layer lstm2_h_conted_0
I0730 11:12:47.083380  3538 net.cpp:425] lstm2_h_conted_0 <- h_0
I0730 11:12:47.083385  3538 net.cpp:425] lstm2_h_conted_0 <- cont_1_lstm2_cont_slice_0_split_0
I0730 11:12:47.083392  3538 net.cpp:399] lstm2_h_conted_0 -> h_conted_0
I0730 11:12:47.083482  3538 net.cpp:141] Setting up lstm2_h_conted_0
I0730 11:12:47.083490  3538 net.cpp:148] Top shape: 1 1 1000 (1000)
I0730 11:12:47.083494  3538 net.cpp:156] Memory required for data: 50020
I0730 11:12:47.083498  3538 layer_factory.hpp:77] Creating layer lstm2_transform_1
I0730 11:12:47.083513  3538 net.cpp:91] Creating Layer lstm2_transform_1
I0730 11:12:47.083518  3538 net.cpp:425] lstm2_transform_1 <- h_conted_0
I0730 11:12:47.083525  3538 net.cpp:399] lstm2_transform_1 -> W_hc_h_0
I0730 11:12:47.101377  3549 net.cpp:141] Setting up fc7
I0730 11:12:47.101444  3549 net.cpp:148] Top shape: 10 4096 (40960)
I0730 11:12:47.101450  3549 net.cpp:156] Memory required for data: 68273720
I0730 11:12:47.101469  3549 layer_factory.hpp:77] Creating layer relu7
I0730 11:12:47.101486  3549 net.cpp:91] Creating Layer relu7
I0730 11:12:47.101493  3549 net.cpp:425] relu7 <- fc7
I0730 11:12:47.101502  3549 net.cpp:386] relu7 -> fc7 (in-place)
I0730 11:12:47.103390  3549 net.cpp:141] Setting up relu7
I0730 11:12:47.103410  3549 net.cpp:148] Top shape: 10 4096 (40960)
I0730 11:12:47.103415  3549 net.cpp:156] Memory required for data: 68437560
I0730 11:12:47.103421  3549 layer_factory.hpp:77] Creating layer drop7
I0730 11:12:47.103430  3549 net.cpp:91] Creating Layer drop7
I0730 11:12:47.103435  3549 net.cpp:425] drop7 <- fc7
I0730 11:12:47.103441  3549 net.cpp:386] drop7 -> fc7 (in-place)
I0730 11:12:47.103488  3549 net.cpp:141] Setting up drop7
I0730 11:12:47.103497  3549 net.cpp:148] Top shape: 10 4096 (40960)
I0730 11:12:47.103500  3549 net.cpp:156] Memory required for data: 68601400
I0730 11:12:47.103505  3549 layer_factory.hpp:77] Creating layer fc8
I0730 11:12:47.103516  3549 net.cpp:91] Creating Layer fc8
I0730 11:12:47.103521  3549 net.cpp:425] fc8 <- fc7
I0730 11:12:47.103528  3549 net.cpp:399] fc8 -> fc8
I0730 11:12:47.116953  3549 net.cpp:141] Setting up fc8
I0730 11:12:47.117012  3549 net.cpp:148] Top shape: 10 1000 (10000)
I0730 11:12:47.117018  3549 net.cpp:156] Memory required for data: 68641400
I0730 11:12:47.117033  3549 layer_factory.hpp:77] Creating layer prob
I0730 11:12:47.117058  3549 net.cpp:91] Creating Layer prob
I0730 11:12:47.117064  3549 net.cpp:425] prob <- fc8
I0730 11:12:47.117077  3549 net.cpp:399] prob -> prob
I0730 11:12:47.117501  3549 net.cpp:141] Setting up prob
I0730 11:12:47.117511  3549 net.cpp:148] Top shape: 10 1000 (10000)
I0730 11:12:47.117516  3549 net.cpp:156] Memory required for data: 68681400
I0730 11:12:47.117521  3549 net.cpp:219] prob does not need backward computation.
I0730 11:12:47.117525  3549 net.cpp:219] fc8 does not need backward computation.
I0730 11:12:47.117529  3549 net.cpp:219] drop7 does not need backward computation.
I0730 11:12:47.117532  3549 net.cpp:219] relu7 does not need backward computation.
…
I0730 11:12:47.117594  3549 net.cpp:219] norm1 does not need backward computation.
I0730 11:12:47.117597  3549 net.cpp:219] pool1 does not need backward computation.
I0730 11:12:47.117601  3549 net.cpp:219] relu1 does not need backward computation.
I0730 11:12:47.117605  3549 net.cpp:219] conv1 does not need backward computation.
I0730 11:12:47.117609  3549 net.cpp:219] data does not need backward computation.
I0730 11:12:47.117612  3549 net.cpp:261] This network produces output prob
I0730 11:12:47.117630  3549 net.cpp:274] Network initialization done.
I0730 11:12:47.124094  3538 net.cpp:141] Setting up lstm2_transform_1
I0730 11:12:47.124145  3538 net.cpp:148] Top shape: 1 1 4000 (4000)
I0730 11:12:47.124151  3538 net.cpp:156] Memory required for data: 66020
I0730 11:12:47.124174  3538 layer_factory.hpp:77] Creating layer lstm2_gate_input_1
I0730 11:12:47.124197  3538 net.cpp:91] Creating Layer lstm2_gate_input_1
I0730 11:12:47.124203  3538 net.cpp:425] lstm2_gate_input_1 <- W_hc_h_0
I0730 11:12:47.124212  3538 net.cpp:425] lstm2_gate_input_1 <- W_xc_x_1
I0730 11:12:47.124222  3538 net.cpp:399] lstm2_gate_input_1 -> gate_input_1
I0730 11:12:47.124271  3538 net.cpp:141] Setting up lstm2_gate_input_1
I0730 11:12:47.124279  3538 net.cpp:148] Top shape: 1 1 4000 (4000)
I0730 11:12:47.124284  3538 net.cpp:156] Memory required for data: 82020
I0730 11:12:47.124287  3538 layer_factory.hpp:77] Creating layer lstm2_unit_1
I0730 11:12:47.124300  3538 net.cpp:91] Creating Layer lstm2_unit_1
I0730 11:12:47.124303  3538 net.cpp:425] lstm2_unit_1 <- c_0
I0730 11:12:47.124310  3538 net.cpp:425] lstm2_unit_1 <- gate_input_1
I0730 11:12:47.124313  3538 net.cpp:425] lstm2_unit_1 <- cont_1_lstm2_cont_slice_0_split_1
I0730 11:12:47.124320  3538 net.cpp:399] lstm2_unit_1 -> c_1
I0730 11:12:47.124327  3538 net.cpp:399] lstm2_unit_1 -> h_1
I0730 11:12:47.124388  3538 net.cpp:141] Setting up lstm2_unit_1
I0730 11:12:47.124397  3538 net.cpp:148] Top shape: 1 1 1000 (1000)
I0730 11:12:47.124402  3538 net.cpp:148] Top shape: 1 1 1000 (1000)
I0730 11:12:47.124406  3538 net.cpp:156] Memory required for data: 90020
I0730 11:12:47.124410  3538 layer_factory.hpp:77] Creating layer lstm2_
I0730 11:12:47.124418  3538 net.cpp:91] Creating Layer lstm2_
I0730 11:12:47.124421  3538 net.cpp:425] lstm2_ <- c_1
I0730 11:12:47.124433  3538 net.cpp:399] lstm2_ -> c_T
I0730 11:12:47.124461  3538 net.cpp:141] Setting up lstm2_
I0730 11:12:47.124469  3538 net.cpp:148] Top shape: 1 1 1000 (1000)
I0730 11:12:47.124474  3538 net.cpp:156] Memory required for data: 94020
I0730 11:12:47.124477  3538 layer_factory.hpp:77] Creating layer lstm2_h_concat
I0730 11:12:47.124486  3538 net.cpp:91] Creating Layer lstm2_h_concat
I0730 11:12:47.124490  3538 net.cpp:425] lstm2_h_concat <- h_1
I0730 11:12:47.124496  3538 net.cpp:399] lstm2_h_concat -> h
I0730 11:12:47.124532  3538 net.cpp:141] Setting up lstm2_h_concat
I0730 11:12:47.124541  3538 net.cpp:148] Top shape: 1 1 1000 (1000)
I0730 11:12:47.124543  3538 net.cpp:156] Memory required for data: 98020
I0730 11:12:47.124548  3538 layer_factory.hpp:77] Creating layer h_pseudoloss
I0730 11:12:47.124557  3538 net.cpp:91] Creating Layer h_pseudoloss
I0730 11:12:47.124560  3538 net.cpp:425] h_pseudoloss <- h
I0730 11:12:47.124567  3538 net.cpp:399] h_pseudoloss -> h_pseudoloss
I0730 11:12:47.124658  3538 net.cpp:141] Setting up h_pseudoloss
…
