…
Java HotSpot(TM) 64-Bit Server VM warning: You have loaded library /tmp/cvld2386846238691552221/libopencv_java310.xine1.so which might have disabled stack guard. The VM will try to fix the stack guard now.
It's highly recommended that you fix the library with 'execstack -c <libfile>', or link it with '-z noexecstack'.
WARNING: Logging before InitGoogleLogging() is written to STDERR
I0731 22:35:37.985069 12206 net.cpp:49] Initializing net from parameters: 
name: "CaffeNet"
state {
  phase: TEST
}
layer {
  name: "data"
  type: "Input"
  top: "data"
  input_param {
    shape {
      dim: 10
      dim: 3
      dim: 227
      dim: 227
    }
  }
}
layer {
  name: "conv1"
  type: "Convolution"
  bottom: "data"
  top: "conv1"
  convolution_param {
    num_output: 96
    kernel_size: 11
    stride: 4
  }
}
layer {
  name: "relu1"
  type: "ReLU"
  bottom: "conv1"
  top: "conv1"
}
layer {
  name: "pool1"
  type: "Pooling"
  bottom: "conv1"
  top: "pool1"
  pooling_param {
    pool: MAX
    kernel_size: 3
    stride: 2
  }
}
layer {
  name: "norm1"
  type: "LRN"
  bottom: "pool1"
  top: "norm1"
  lrn_param {
    local_size: 5
    alpha: 0.0001
    beta: 0.75
  }
}
layer {
  name: "conv2"
  type: "Convolution"
  bottom: "norm1"
  top: "conv2"
  convolution_param {
    num_output: 256
    pad: 2
    kernel_size: 5
    group: 2
  }
}
layer {
  name: "relu2"
  type: "ReLU"
  bottom: "conv2"
  top: "conv2"
}
layer {
  name: "pool2"
  type: "Pooling"
  bottom: "conv2"
  top: "pool2"
  pooling_param {
    pool: MAX
    kernel_size: 3
    stride: 2
  }
}
layer {
  name: "norm2"
  type: "LRN"
  bottom: "pool2"
  top: "norm2"
  lrn_param {
    local_size: 5
    alpha: 0.0001
    beta: 0.75
  }
}
layer {
  name: "conv3"
  type: "Convolution"
  bottom: "norm2"
  top: "conv3"
  convolution_param {
    num_output: 384
    pad: 1
    kernel_size: 3
  }
}
layer {
  name: "relu3"
  type: "ReLU"
  bottom: "conv3"
  top: "conv3"
}
layer {
  name: "conv4"
  type: "Convolution"
  bottom: "conv3"
  top: "conv4"
  convolution_param {
    num_output: 384
    pad: 1
    kernel_size: 3
    group: 2
  }
}
layer {
  name: "relu4"
  type: "ReLU"
  bottom: "conv4"
  top: "conv4"
}
layer {
  name: "conv5"
  type: "Convolution"
  bottom: "conv4"
  top: "conv5"
  convolution_param {
    num_output: 256
    pad: 1
    kernel_size: 3
    group: 2
  }
}
layer {
  name: "relu5"
  type: "ReLU"
  bottom: "conv5"
  top: "conv5"
}
layer {
  name: "pool5"
  type: "Pooling"
  bottom: "conv5"
  top: "pool5"
  pooling_param {
    pool: MAX
    kernel_size: 3
    stride: 2
  }
}
layer {
  name: "fc6"
  type: "InnerProduct"
  bottom: "pool5"
  top: "fc6"
  inner_product_param {
    num_output: 4096
  }
}
layer {
  name: "relu6"
  type: "ReLU"
  bottom: "fc6"
  top: "fc6"
}
layer {
  name: "drop6"
  type: "Dropout"
  bottom: "fc6"
  top: "fc6"
  dropout_param {
    dropout_ratio: 0.5
  }
}
layer {
  name: "fc7"
  type: "InnerProduct"
  bottom: "fc6"
  top: "fc7"
  inner_product_param {
    num_output: 4096
  }
}
layer {
  name: "relu7"
  type: "ReLU"
  bottom: "fc7"
  top: "fc7"
}
layer {
  name: "drop7"
  type: "Dropout"
  bottom: "fc7"
  top: "fc7"
  dropout_param {
    dropout_ratio: 0.5
  }
}
layer {
  name: "fc8"
  type: "InnerProduct"
  bottom: "fc7"
  top: "fc8"
  inner_product_param {
    num_output: 1000
  }
}
layer {
  name: "prob"
  type: "Softmax"
  bottom: "fc8"
  top: "prob"
}
I0731 22:35:37.985288 12206 layer_factory.hpp:77] Creating layer data
I0731 22:35:37.985317 12206 net.cpp:91] Creating Layer data
I0731 22:35:37.985329 12206 net.cpp:399] data -> data
I0731 22:35:38.513464 12206 net.cpp:141] Setting up data
I0731 22:35:38.513571 12206 net.cpp:148] Top shape: 10 3 227 227 (1545870)
I0731 22:35:38.513579 12206 net.cpp:156] Memory required for data: 6183480
I0731 22:35:38.513602 12206 layer_factory.hpp:77] Creating layer conv1
I0731 22:35:38.513638 12206 net.cpp:91] Creating Layer conv1
I0731 22:35:38.513648 12206 net.cpp:425] conv1 <- data
I0731 22:35:38.513664 12206 net.cpp:399] conv1 -> conv1
I0731 22:35:38.743314 12206 net.cpp:141] Setting up conv1
I0731 22:35:38.743368 12206 net.cpp:148] Top shape: 10 96 55 55 (2904000)
I0731 22:35:38.743376 12206 net.cpp:156] Memory required for data: 17799480
I0731 22:35:38.743407 12206 layer_factory.hpp:77] Creating layer relu1
I0731 22:35:38.743428 12206 net.cpp:91] Creating Layer relu1
I0731 22:35:38.743438 12206 net.cpp:425] relu1 <- conv1
I0731 22:35:38.743446 12206 net.cpp:386] relu1 -> conv1 (in-place)
I0731 22:35:38.743921 12206 net.cpp:141] Setting up relu1
I0731 22:35:38.743935 12206 net.cpp:148] Top shape: 10 96 55 55 (2904000)
I0731 22:35:38.743940 12206 net.cpp:156] Memory required for data: 29415480
I0731 22:35:38.743947 12206 layer_factory.hpp:77] Creating layer pool1
I0731 22:35:38.743960 12206 net.cpp:91] Creating Layer pool1
I0731 22:35:38.743966 12206 net.cpp:425] pool1 <- conv1
I0731 22:35:38.743975 12206 net.cpp:399] pool1 -> pool1
I0731 22:35:38.744076 12206 net.cpp:141] Setting up pool1
I0731 22:35:38.744089 12206 net.cpp:148] Top shape: 10 96 27 27 (699840)
I0731 22:35:38.744094 12206 net.cpp:156] Memory required for data: 32214840
I0731 22:35:38.744101 12206 layer_factory.hpp:77] Creating layer norm1
I0731 22:35:38.744119 12206 net.cpp:91] Creating Layer norm1
I0731 22:35:38.744125 12206 net.cpp:425] norm1 <- pool1
I0731 22:35:38.744132 12206 net.cpp:399] norm1 -> norm1
I0731 22:35:38.744654 12206 net.cpp:141] Setting up norm1
I0731 22:35:38.744669 12206 net.cpp:148] Top shape: 10 96 27 27 (699840)
I0731 22:35:38.744675 12206 net.cpp:156] Memory required for data: 35014200
I0731 22:35:38.744683 12206 layer_factory.hpp:77] Creating layer conv2
I0731 22:35:38.744701 12206 net.cpp:91] Creating Layer conv2
I0731 22:35:38.744707 12206 net.cpp:425] conv2 <- norm1
I0731 22:35:38.744715 12206 net.cpp:399] conv2 -> conv2
I0731 22:35:38.749029 12206 net.cpp:141] Setting up conv2
I0731 22:35:38.749047 12206 net.cpp:148] Top shape: 10 256 27 27 (1866240)
I0731 22:35:38.749053 12206 net.cpp:156] Memory required for data: 42479160
I0731 22:35:38.749068 12206 layer_factory.hpp:77] Creating layer relu2
I0731 22:35:38.749078 12206 net.cpp:91] Creating Layer relu2
I0731 22:35:38.749083 12206 net.cpp:425] relu2 <- conv2
I0731 22:35:38.749095 12206 net.cpp:386] relu2 -> conv2 (in-place)
I0731 22:35:38.749603 12206 net.cpp:141] Setting up relu2
I0731 22:35:38.749617 12206 net.cpp:148] Top shape: 10 256 27 27 (1866240)
I0731 22:35:38.749622 12206 net.cpp:156] Memory required for data: 49944120
I0731 22:35:38.749629 12206 layer_factory.hpp:77] Creating layer pool2
I0731 22:35:38.749642 12206 net.cpp:91] Creating Layer pool2
I0731 22:35:38.749649 12206 net.cpp:425] pool2 <- conv2
I0731 22:35:38.749657 12206 net.cpp:399] pool2 -> pool2
I0731 22:35:38.749719 12206 net.cpp:141] Setting up pool2
I0731 22:35:38.749730 12206 net.cpp:148] Top shape: 10 256 13 13 (432640)
I0731 22:35:38.749735 12206 net.cpp:156] Memory required for data: 51674680
I0731 22:35:38.749740 12206 layer_factory.hpp:77] Creating layer norm2
I0731 22:35:38.749753 12206 net.cpp:91] Creating Layer norm2
I0731 22:35:38.749759 12206 net.cpp:425] norm2 <- pool2
I0731 22:35:38.749768 12206 net.cpp:399] norm2 -> norm2
I0731 22:35:38.750047 12206 net.cpp:141] Setting up norm2
I0731 22:35:38.750061 12206 net.cpp:148] Top shape: 10 256 13 13 (432640)
I0731 22:35:38.750066 12206 net.cpp:156] Memory required for data: 53405240
I0731 22:35:38.750072 12206 layer_factory.hpp:77] Creating layer conv3
I0731 22:35:38.750084 12206 net.cpp:91] Creating Layer conv3
I0731 22:35:38.750090 12206 net.cpp:425] conv3 <- norm2
I0731 22:35:38.750098 12206 net.cpp:399] conv3 -> conv3
I0731 22:35:38.754161 12206 net.cpp:141] Setting up conv3
I0731 22:35:38.754179 12206 net.cpp:148] Top shape: 10 384 13 13 (648960)
I0731 22:35:38.754184 12206 net.cpp:156] Memory required for data: 56001080
I0731 22:35:38.754197 12206 layer_factory.hpp:77] Creating layer relu3
I0731 22:35:38.754207 12206 net.cpp:91] Creating Layer relu3
I0731 22:35:38.754214 12206 net.cpp:425] relu3 <- conv3
I0731 22:35:38.754225 12206 net.cpp:386] relu3 -> conv3 (in-place)
I0731 22:35:38.754711 12206 net.cpp:141] Setting up relu3
I0731 22:35:38.754725 12206 net.cpp:148] Top shape: 10 384 13 13 (648960)
I0731 22:35:38.754730 12206 net.cpp:156] Memory required for data: 58596920
I0731 22:35:38.754736 12206 layer_factory.hpp:77] Creating layer conv4
I0731 22:35:38.754753 12206 net.cpp:91] Creating Layer conv4
I0731 22:35:38.754760 12206 net.cpp:425] conv4 <- conv3
I0731 22:35:38.754770 12206 net.cpp:399] conv4 -> conv4
I0731 22:35:38.759276 12206 net.cpp:141] Setting up conv4
I0731 22:35:38.759294 12206 net.cpp:148] Top shape: 10 384 13 13 (648960)
I0731 22:35:38.759299 12206 net.cpp:156] Memory required for data: 61192760
I0731 22:35:38.759310 12206 layer_factory.hpp:77] Creating layer relu4
I0731 22:35:38.759321 12206 net.cpp:91] Creating Layer relu4
I0731 22:35:38.759327 12206 net.cpp:425] relu4 <- conv4
I0731 22:35:38.759335 12206 net.cpp:386] relu4 -> conv4 (in-place)
I0731 22:35:38.759825 12206 net.cpp:141] Setting up relu4
I0731 22:35:38.759840 12206 net.cpp:148] Top shape: 10 384 13 13 (648960)
I0731 22:35:38.759847 12206 net.cpp:156] Memory required for data: 63788600
I0731 22:35:38.759853 12206 layer_factory.hpp:77] Creating layer conv5
I0731 22:35:38.759865 12206 net.cpp:91] Creating Layer conv5
I0731 22:35:38.759871 12206 net.cpp:425] conv5 <- conv4
I0731 22:35:38.759883 12206 net.cpp:399] conv5 -> conv5
I0731 22:35:38.764200 12206 net.cpp:141] Setting up conv5
I0731 22:35:38.764215 12206 net.cpp:148] Top shape: 10 256 13 13 (432640)
I0731 22:35:38.764221 12206 net.cpp:156] Memory required for data: 65519160
I0731 22:35:38.764238 12206 layer_factory.hpp:77] Creating layer relu5
I0731 22:35:38.764248 12206 net.cpp:91] Creating Layer relu5
I0731 22:35:38.764253 12206 net.cpp:425] relu5 <- conv5
I0731 22:35:38.764261 12206 net.cpp:386] relu5 -> conv5 (in-place)
I0731 22:35:38.764760 12206 net.cpp:141] Setting up relu5
I0731 22:35:38.764780 12206 net.cpp:148] Top shape: 10 256 13 13 (432640)
I0731 22:35:38.764786 12206 net.cpp:156] Memory required for data: 67249720
I0731 22:35:38.764791 12206 layer_factory.hpp:77] Creating layer pool5
I0731 22:35:38.764801 12206 net.cpp:91] Creating Layer pool5
I0731 22:35:38.764807 12206 net.cpp:425] pool5 <- conv5
I0731 22:35:38.764816 12206 net.cpp:399] pool5 -> pool5
I0731 22:35:38.764883 12206 net.cpp:141] Setting up pool5
I0731 22:35:38.764894 12206 net.cpp:148] Top shape: 10 256 6 6 (92160)
I0731 22:35:38.764899 12206 net.cpp:156] Memory required for data: 67618360
I0731 22:35:38.764904 12206 layer_factory.hpp:77] Creating layer fc6
I0731 22:35:38.764926 12206 net.cpp:91] Creating Layer fc6
I0731 22:35:38.764932 12206 net.cpp:425] fc6 <- pool5
I0731 22:35:38.764940 12206 net.cpp:399] fc6 -> fc6
I0731 22:35:38.874577 12206 net.cpp:141] Setting up fc6
I0731 22:35:38.874624 12206 net.cpp:148] Top shape: 10 4096 (40960)
I0731 22:35:38.874630 12206 net.cpp:156] Memory required for data: 67782200
I0731 22:35:38.874646 12206 layer_factory.hpp:77] Creating layer relu6
I0731 22:35:38.874665 12206 net.cpp:91] Creating Layer relu6
I0731 22:35:38.874671 12206 net.cpp:425] relu6 <- fc6
I0731 22:35:38.874686 12206 net.cpp:386] relu6 -> fc6 (in-place)
I0731 22:35:38.875054 12206 net.cpp:141] Setting up relu6
I0731 22:35:38.875067 12206 net.cpp:148] Top shape: 10 4096 (40960)
I0731 22:35:38.875072 12206 net.cpp:156] Memory required for data: 67946040
I0731 22:35:38.875078 12206 layer_factory.hpp:77] Creating layer drop6
I0731 22:35:38.875092 12206 net.cpp:91] Creating Layer drop6
I0731 22:35:38.875098 12206 net.cpp:425] drop6 <- fc6
I0731 22:35:38.875105 12206 net.cpp:386] drop6 -> fc6 (in-place)
I0731 22:35:38.875164 12206 net.cpp:141] Setting up drop6
I0731 22:35:38.875174 12206 net.cpp:148] Top shape: 10 4096 (40960)
I0731 22:35:38.875179 12206 net.cpp:156] Memory required for data: 68109880
I0731 22:35:38.875185 12206 layer_factory.hpp:77] Creating layer fc7
I0731 22:35:38.875195 12206 net.cpp:91] Creating Layer fc7
I0731 22:35:38.875201 12206 net.cpp:425] fc7 <- fc6
I0731 22:35:38.875216 12206 net.cpp:399] fc7 -> fc7
I0731 22:35:38.925051 12206 net.cpp:141] Setting up fc7
I0731 22:35:38.925101 12206 net.cpp:148] Top shape: 10 4096 (40960)
I0731 22:35:38.925107 12206 net.cpp:156] Memory required for data: 68273720
I0731 22:35:38.925122 12206 layer_factory.hpp:77] Creating layer relu7
I0731 22:35:38.925140 12206 net.cpp:91] Creating Layer relu7
I0731 22:35:38.925148 12206 net.cpp:425] relu7 <- fc7
I0731 22:35:38.925163 12206 net.cpp:386] relu7 -> fc7 (in-place)
I0731 22:35:38.925976 12206 net.cpp:141] Setting up relu7
I0731 22:35:38.925992 12206 net.cpp:148] Top shape: 10 4096 (40960)
I0731 22:35:38.925997 12206 net.cpp:156] Memory required for data: 68437560
I0731 22:35:38.926003 12206 layer_factory.hpp:77] Creating layer drop7
I0731 22:35:38.926015 12206 net.cpp:91] Creating Layer drop7
I0731 22:35:38.926021 12206 net.cpp:425] drop7 <- fc7
I0731 22:35:38.926033 12206 net.cpp:386] drop7 -> fc7 (in-place)
I0731 22:35:38.926080 12206 net.cpp:141] Setting up drop7
I0731 22:35:38.926090 12206 net.cpp:148] Top shape: 10 4096 (40960)
I0731 22:35:38.926095 12206 net.cpp:156] Memory required for data: 68601400
I0731 22:35:38.926100 12206 layer_factory.hpp:77] Creating layer fc8
I0731 22:35:38.926111 12206 net.cpp:91] Creating Layer fc8
I0731 22:35:38.926116 12206 net.cpp:425] fc8 <- fc7
I0731 22:35:38.926125 12206 net.cpp:399] fc8 -> fc8
I0731 22:35:38.938408 12206 net.cpp:141] Setting up fc8
I0731 22:35:38.938457 12206 net.cpp:148] Top shape: 10 1000 (10000)
I0731 22:35:38.938462 12206 net.cpp:156] Memory required for data: 68641400
I0731 22:35:38.938477 12206 layer_factory.hpp:77] Creating layer prob
I0731 22:35:38.938498 12206 net.cpp:91] Creating Layer prob
I0731 22:35:38.938508 12206 net.cpp:425] prob <- fc8
I0731 22:35:38.938519 12206 net.cpp:399] prob -> prob
I0731 22:35:38.939008 12206 net.cpp:141] Setting up prob
I0731 22:35:38.939023 12206 net.cpp:148] Top shape: 10 1000 (10000)
I0731 22:35:38.939028 12206 net.cpp:156] Memory required for data: 68681400
I0731 22:35:38.939033 12206 net.cpp:219] prob does not need backward computation.
I0731 22:35:38.939038 12206 net.cpp:219] fc8 does not need backward computation.
I0731 22:35:38.939043 12206 net.cpp:219] drop7 does not need backward computation.
I0731 22:35:38.939049 12206 net.cpp:219] relu7 does not need backward computation.
…
W0731 22:35:40.414988 12196 upgrade_proto.cpp:71] Note that future Caffe releases will only support input layers and not input fields.
I0731 22:35:40.415277 12196 net.cpp:49] Initializing net from parameters: 
name: "s2vt:features_to_lstm"
state {
  phase: TEST
}
layer {
  name: "input"
  type: "Input"
  top: "frames_fc7"
  top: "cont_sentence"
  top: "input_sentence"
  top: "stage_indicator"
  input_param {
    shape {
      dim: 1
      dim: 4096
    }
    shape {
      dim: 1
      dim: 1
    }
    shape {
      dim: 1
      dim: 1
    }
    shape {
      dim: 1
      dim: 1
    }
  }
}
layer {
  name: "embed_encoder"
  type: "InnerProduct"
  bottom: "frames_fc7"
  top: "embedded_in_frames"
  param {
    lr_mult: 1
    decay_mult: 1
  }
  param {
    lr_mult: 2
    decay_mult: 0
  }
  inner_product_param {
    num_output: 500
    weight_filler {
      type: "xavier"
    }
    bias_filler {
      type: "constant"
      value: 0.2
    }
  }
}
layer {
  name: "reshape_frames"
  type: "Reshape"
  bottom: "embedded_in_frames"
  top: "embedded_input_frames"
  reshape_param {
    shape {
      dim: 1
      dim: 1
      dim: 500
    }
  }
}
layer {
  name: "reshape_stage_indicator"
  type: "Reshape"
  bottom: "stage_indicator"
  top: "reshaped_stage_indicator"
  reshape_param {
    shape {
      dim: 1
      dim: 1
      dim: 1
    }
  }
}
layer {
  name: "embedding"
  type: "Embed"
  bottom: "input_sentence"
  top: "embedded_input_sentence"
  param {
    lr_mult: 1
  }
  embed_param {
    num_output: 500
    input_dim: 46168
    bias_term: false
    weight_filler {
      type: "uniform"
      min: -0.08
      max: 0.08
    }
  }
}
layer {
  name: "lstm1"
  type: "LSTM"
  bottom: "embedded_input_frames"
  bottom: "cont_sentence"
  top: "lstm1"
  recurrent_param {
    num_output: 1000
    weight_filler {
      type: "uniform"
      min: -0.08
      max: 0.08
    }
    bias_filler {
      type: "constant"
      value: 0
    }
  }
}
layer {
  name: "concat"
  type: "Concat"
  bottom: "lstm1"
  bottom: "embedded_input_sentence"
  bottom: "reshaped_stage_indicator"
  top: "lstm1_video_sequence"
  concat_param {
    concat_dim: 2
  }
}
layer {
  name: "lstm2"
  type: "LSTM"
  bottom: "lstm1_video_sequence"
  bottom: "cont_sentence"
  top: "lstm2"
  recurrent_param {
    num_output: 1000
    weight_filler {
      type: "uniform"
      min: -0.08
      max: 0.08
    }
    bias_filler {
      type: "constant"
      value: 0
    }
  }
}
layer {
  name: "predict"
  type: "InnerProduct"
  bottom: "lstm2"
  top: "predict"
  param {
    lr_mult: 1
    decay_mult: 1
  }
  param {
    lr_mult: 2
    decay_mult: 0
  }
  inner_product_param {
    num_output: 46168
    weight_filler {
      type: "uniform"
      min: -0.08
      max: 0.08
    }
    bias_filler {
      type: "constant"
      value: 0
    }
    axis: 2
  }
}
layer {
  name: "probs"
  type: "Softmax"
  bottom: "predict"
  top: "probs"
  softmax_param {
    axis: 2
  }
}
I0731 22:35:40.415391 12196 layer_factory.hpp:77] Creating layer input
I0731 22:35:40.415408 12196 net.cpp:91] Creating Layer input
I0731 22:35:40.415417 12196 net.cpp:399] input -> frames_fc7
I0731 22:35:40.415438 12196 net.cpp:399] input -> cont_sentence
I0731 22:35:40.415451 12196 net.cpp:399] input -> input_sentence
I0731 22:35:40.415462 12196 net.cpp:399] input -> stage_indicator
I0731 22:35:40.415603 12196 net.cpp:141] Setting up input
I0731 22:35:40.415618 12196 net.cpp:148] Top shape: 1 4096 (4096)
I0731 22:35:40.415626 12196 net.cpp:148] Top shape: 1 1 (1)
I0731 22:35:40.415632 12196 net.cpp:148] Top shape: 1 1 (1)
I0731 22:35:40.415637 12196 net.cpp:148] Top shape: 1 1 (1)
I0731 22:35:40.415642 12196 net.cpp:156] Memory required for data: 16396
I0731 22:35:40.415648 12196 layer_factory.hpp:77] Creating layer cont_sentence_input_1_split
I0731 22:35:40.415668 12196 net.cpp:91] Creating Layer cont_sentence_input_1_split
I0731 22:35:40.415674 12196 net.cpp:425] cont_sentence_input_1_split <- cont_sentence
I0731 22:35:40.415693 12196 net.cpp:399] cont_sentence_input_1_split -> cont_sentence_input_1_split_0
I0731 22:35:40.415704 12196 net.cpp:399] cont_sentence_input_1_split -> cont_sentence_input_1_split_1
I0731 22:35:40.415762 12196 net.cpp:141] Setting up cont_sentence_input_1_split
I0731 22:35:40.415773 12196 net.cpp:148] Top shape: 1 1 (1)
I0731 22:35:40.415779 12196 net.cpp:148] Top shape: 1 1 (1)
I0731 22:35:40.415784 12196 net.cpp:156] Memory required for data: 16404
I0731 22:35:40.415789 12196 layer_factory.hpp:77] Creating layer embed_encoder
I0731 22:35:40.415802 12196 net.cpp:91] Creating Layer embed_encoder
I0731 22:35:40.415808 12196 net.cpp:425] embed_encoder <- frames_fc7
I0731 22:35:40.415817 12196 net.cpp:399] embed_encoder -> embedded_in_frames
I0731 22:35:40.438482 12196 net.cpp:141] Setting up embed_encoder
I0731 22:35:40.438521 12196 net.cpp:148] Top shape: 1 500 (500)
I0731 22:35:40.438529 12196 net.cpp:156] Memory required for data: 18404
I0731 22:35:40.438551 12196 layer_factory.hpp:77] Creating layer reshape_frames
I0731 22:35:40.438572 12196 net.cpp:91] Creating Layer reshape_frames
I0731 22:35:40.438580 12196 net.cpp:425] reshape_frames <- embedded_in_frames
I0731 22:35:40.438593 12196 net.cpp:399] reshape_frames -> embedded_input_frames
I0731 22:35:40.438662 12196 net.cpp:141] Setting up reshape_frames
I0731 22:35:40.438673 12196 net.cpp:148] Top shape: 1 1 500 (500)
I0731 22:35:40.438678 12196 net.cpp:156] Memory required for data: 20404
I0731 22:35:40.438683 12196 layer_factory.hpp:77] Creating layer reshape_stage_indicator
I0731 22:35:40.438695 12196 net.cpp:91] Creating Layer reshape_stage_indicator
I0731 22:35:40.438700 12196 net.cpp:425] reshape_stage_indicator <- stage_indicator
I0731 22:35:40.438710 12196 net.cpp:399] reshape_stage_indicator -> reshaped_stage_indicator
I0731 22:35:40.438760 12196 net.cpp:141] Setting up reshape_stage_indicator
I0731 22:35:40.438771 12196 net.cpp:148] Top shape: 1 1 1 (1)
I0731 22:35:40.438776 12196 net.cpp:156] Memory required for data: 20408
I0731 22:35:40.438781 12196 layer_factory.hpp:77] Creating layer embedding
I0731 22:35:40.438793 12196 net.cpp:91] Creating Layer embedding
I0731 22:35:40.438798 12196 net.cpp:425] embedding <- input_sentence
I0731 22:35:40.438807 12196 net.cpp:399] embedding -> embedded_input_sentence
I0731 22:35:40.730768 12196 net.cpp:141] Setting up embedding
I0731 22:35:40.730814 12196 net.cpp:148] Top shape: 1 1 500 (500)
I0731 22:35:40.730820 12196 net.cpp:156] Memory required for data: 22408
I0731 22:35:40.730840 12196 layer_factory.hpp:77] Creating layer lstm1
I0731 22:35:40.730864 12196 net.cpp:91] Creating Layer lstm1
I0731 22:35:40.730872 12196 net.cpp:425] lstm1 <- embedded_input_frames
I0731 22:35:40.730882 12196 net.cpp:425] lstm1 <- cont_sentence_input_1_split_0
I0731 22:35:40.730892 12196 net.cpp:399] lstm1 -> lstm1
I0731 22:35:40.730923 12196 recurrent_layer.cpp:20] Initializing recurrent layer: assuming input batch contains 1 timesteps of 1 independent streams.
I0731 22:35:40.731348 12196 net.cpp:49] Initializing net from parameters: 
layer {
  name: "lstm1_"
  type: "Input"
  top: "x"
  top: "cont"
  input_param {
    shape {
      dim: 1
      dim: 1
      dim: 500
    }
    shape {
      dim: 1
      dim: 1
    }
  }
}
layer {
  name: "lstm1_"
  type: "Input"
  top: "c_0"
  top: "h_0"
  input_param {
    shape {
      dim: 1
      dim: 1
      dim: 1000
    }
    shape {
      dim: 1
      dim: 1
      dim: 1000
    }
  }
}
layer {
  name: "lstm1_cont_slice"
  type: "Slice"
  bottom: "cont"
  top: "cont_1"
  slice_param {
    axis: 0
  }
}
layer {
  name: "lstm1_x_transform"
  type: "InnerProduct"
  bottom: "x"
  top: "W_xc_x"
  param {
    name: "W_xc"
  }
  param {
    name: "b_c"
  }
  propagate_down: true
  inner_product_param {
    num_output: 4000
    bias_term: true
    weight_filler {
      type: "uniform"
      min: -0.08
      max: 0.08
    }
    bias_filler {
      type: "constant"
      value: 0
    }
    axis: 2
  }
}
layer {
  name: "lstm1_W_xc_x_slice"
  type: "Slice"
  bottom: "W_xc_x"
  top: "W_xc_x_1"
  slice_param {
    axis: 0
  }
}
layer {
  name: "lstm1_h_conted_0"
  type: "Scale"
  bottom: "h_0"
  bottom: "cont_1"
  top: "h_conted_0"
  scale_param {
    axis: 0
  }
}
layer {
  name: "lstm1_transform_1"
  type: "InnerProduct"
  bottom: "h_conted_0"
  top: "W_hc_h_0"
  param {
    name: "W_hc"
  }
  inner_product_param {
    num_output: 4000
    bias_term: false
    weight_filler {
      type: "uniform"
      min: -0.08
      max: 0.08
    }
    axis: 2
  }
}
layer {
  name: "lstm1_gate_input_1"
  type: "Eltwise"
  bottom: "W_hc_h_0"
  bottom: "W_xc_x_1"
  top: "gate_input_1"
  eltwise_param {
    operation: SUM
  }
}
layer {
  name: "lstm1_unit_1"
  type: "LSTMUnit"
  bottom: "c_0"
  bottom: "gate_input_1"
  bottom: "cont_1"
  top: "c_1"
  top: "h_1"
}
layer {
  name: "lstm1_"
  type: "Split"
  bottom: "c_1"
  top: "c_T"
}
layer {
  name: "lstm1_h_concat"
  type: "Concat"
  bottom: "h_1"
  top: "h"
  concat_param {
    axis: 0
  }
}
layer {
  name: "h_pseudoloss"
  type: "Reduction"
  bottom: "h"
  top: "h_pseudoloss"
  loss_weight: 1
}
I0731 22:35:40.731451 12196 layer_factory.hpp:77] Creating layer lstm1_
I0731 22:35:40.731467 12196 net.cpp:91] Creating Layer lstm1_
I0731 22:35:40.731473 12196 net.cpp:399] lstm1_ -> x
I0731 22:35:40.731487 12196 net.cpp:399] lstm1_ -> cont
I0731 22:35:40.731572 12196 net.cpp:141] Setting up lstm1_
I0731 22:35:40.731583 12196 net.cpp:148] Top shape: 1 1 500 (500)
I0731 22:35:40.731590 12196 net.cpp:148] Top shape: 1 1 (1)
I0731 22:35:40.731595 12196 net.cpp:156] Memory required for data: 2004
I0731 22:35:40.731600 12196 layer_factory.hpp:77] Creating layer lstm1_
I0731 22:35:40.731614 12196 net.cpp:91] Creating Layer lstm1_
I0731 22:35:40.731621 12196 net.cpp:399] lstm1_ -> c_0
I0731 22:35:40.731632 12196 net.cpp:399] lstm1_ -> h_0
I0731 22:35:40.731693 12196 net.cpp:141] Setting up lstm1_
I0731 22:35:40.731704 12196 net.cpp:148] Top shape: 1 1 1000 (1000)
I0731 22:35:40.731710 12196 net.cpp:148] Top shape: 1 1 1000 (1000)
I0731 22:35:40.731714 12196 net.cpp:156] Memory required for data: 10004
I0731 22:35:40.731719 12196 layer_factory.hpp:77] Creating layer lstm1_cont_slice
I0731 22:35:40.731729 12196 net.cpp:91] Creating Layer lstm1_cont_slice
I0731 22:35:40.731734 12196 net.cpp:425] lstm1_cont_slice <- cont
I0731 22:35:40.731745 12196 net.cpp:399] lstm1_cont_slice -> cont_1
I0731 22:35:40.731789 12196 net.cpp:141] Setting up lstm1_cont_slice
I0731 22:35:40.731801 12196 net.cpp:148] Top shape: 1 1 (1)
I0731 22:35:40.731806 12196 net.cpp:156] Memory required for data: 10008
I0731 22:35:40.731811 12196 layer_factory.hpp:77] Creating layer cont_1_lstm1_cont_slice_0_split
I0731 22:35:40.731818 12196 net.cpp:91] Creating Layer cont_1_lstm1_cont_slice_0_split
I0731 22:35:40.731824 12196 net.cpp:425] cont_1_lstm1_cont_slice_0_split <- cont_1
I0731 22:35:40.731832 12196 net.cpp:399] cont_1_lstm1_cont_slice_0_split -> cont_1_lstm1_cont_slice_0_split_0
I0731 22:35:40.731840 12196 net.cpp:399] cont_1_lstm1_cont_slice_0_split -> cont_1_lstm1_cont_slice_0_split_1
I0731 22:35:40.731896 12196 net.cpp:141] Setting up cont_1_lstm1_cont_slice_0_split
I0731 22:35:40.731905 12196 net.cpp:148] Top shape: 1 1 (1)
I0731 22:35:40.731912 12196 net.cpp:148] Top shape: 1 1 (1)
I0731 22:35:40.731916 12196 net.cpp:156] Memory required for data: 10016
I0731 22:35:40.731921 12196 layer_factory.hpp:77] Creating layer lstm1_x_transform
I0731 22:35:40.731935 12196 net.cpp:91] Creating Layer lstm1_x_transform
I0731 22:35:40.731940 12196 net.cpp:425] lstm1_x_transform <- x
I0731 22:35:40.731948 12196 net.cpp:399] lstm1_x_transform -> W_xc_x
I0731 22:35:40.772523 12196 net.cpp:141] Setting up lstm1_x_transform
I0731 22:35:40.772583 12196 net.cpp:148] Top shape: 1 1 4000 (4000)
I0731 22:35:40.772593 12196 net.cpp:156] Memory required for data: 26016
I0731 22:35:40.772619 12196 layer_factory.hpp:77] Creating layer lstm1_W_xc_x_slice
I0731 22:35:40.772645 12196 net.cpp:91] Creating Layer lstm1_W_xc_x_slice
I0731 22:35:40.772653 12196 net.cpp:425] lstm1_W_xc_x_slice <- W_xc_x
I0731 22:35:40.772666 12196 net.cpp:399] lstm1_W_xc_x_slice -> W_xc_x_1
I0731 22:35:40.772721 12196 net.cpp:141] Setting up lstm1_W_xc_x_slice
I0731 22:35:40.772732 12196 net.cpp:148] Top shape: 1 1 4000 (4000)
I0731 22:35:40.772737 12196 net.cpp:156] Memory required for data: 42016
I0731 22:35:40.772742 12196 layer_factory.hpp:77] Creating layer lstm1_h_conted_0
I0731 22:35:40.772753 12196 net.cpp:91] Creating Layer lstm1_h_conted_0
I0731 22:35:40.772758 12196 net.cpp:425] lstm1_h_conted_0 <- h_0
I0731 22:35:40.772764 12196 net.cpp:425] lstm1_h_conted_0 <- cont_1_lstm1_cont_slice_0_split_0
I0731 22:35:40.772775 12196 net.cpp:399] lstm1_h_conted_0 -> h_conted_0
I0731 22:35:40.772917 12196 net.cpp:141] Setting up lstm1_h_conted_0
I0731 22:35:40.772928 12196 net.cpp:148] Top shape: 1 1 1000 (1000)
I0731 22:35:40.772933 12196 net.cpp:156] Memory required for data: 46016
I0731 22:35:40.772938 12196 layer_factory.hpp:77] Creating layer lstm1_transform_1
I0731 22:35:40.772956 12196 net.cpp:91] Creating Layer lstm1_transform_1
I0731 22:35:40.772963 12196 net.cpp:425] lstm1_transform_1 <- h_conted_0
I0731 22:35:40.772975 12196 net.cpp:399] lstm1_transform_1 -> W_hc_h_0
I0731 22:35:40.849946 12196 net.cpp:141] Setting up lstm1_transform_1
I0731 22:35:40.850003 12196 net.cpp:148] Top shape: 1 1 4000 (4000)
I0731 22:35:40.850009 12196 net.cpp:156] Memory required for data: 62016
I0731 22:35:40.850033 12196 layer_factory.hpp:77] Creating layer lstm1_gate_input_1
I0731 22:35:40.850061 12196 net.cpp:91] Creating Layer lstm1_gate_input_1
I0731 22:35:40.850070 12196 net.cpp:425] lstm1_gate_input_1 <- W_hc_h_0
I0731 22:35:40.850080 12196 net.cpp:425] lstm1_gate_input_1 <- W_xc_x_1
I0731 22:35:40.850096 12196 net.cpp:399] lstm1_gate_input_1 -> gate_input_1
I0731 22:35:40.850167 12196 net.cpp:141] Setting up lstm1_gate_input_1
I0731 22:35:40.850178 12196 net.cpp:148] Top shape: 1 1 4000 (4000)
I0731 22:35:40.850183 12196 net.cpp:156] Memory required for data: 78016
I0731 22:35:40.850188 12196 layer_factory.hpp:77] Creating layer lstm1_unit_1
I0731 22:35:40.850198 12196 net.cpp:91] Creating Layer lstm1_unit_1
I0731 22:35:40.850203 12196 net.cpp:425] lstm1_unit_1 <- c_0
I0731 22:35:40.850213 12196 net.cpp:425] lstm1_unit_1 <- gate_input_1
I0731 22:35:40.850219 12196 net.cpp:425] lstm1_unit_1 <- cont_1_lstm1_cont_slice_0_split_1
I0731 22:35:40.850225 12196 net.cpp:399] lstm1_unit_1 -> c_1
I0731 22:35:40.850235 12196 net.cpp:399] lstm1_unit_1 -> h_1
I0731 22:35:40.850307 12196 net.cpp:141] Setting up lstm1_unit_1
I0731 22:35:40.850317 12196 net.cpp:148] Top shape: 1 1 1000 (1000)
I0731 22:35:40.850324 12196 net.cpp:148] Top shape: 1 1 1000 (1000)
I0731 22:35:40.850328 12196 net.cpp:156] Memory required for data: 86016
I0731 22:35:40.850333 12196 layer_factory.hpp:77] Creating layer lstm1_
I0731 22:35:40.850343 12196 net.cpp:91] Creating Layer lstm1_
I0731 22:35:40.850348 12196 net.cpp:425] lstm1_ <- c_1
I0731 22:35:40.850356 12196 net.cpp:399] lstm1_ -> c_T
I0731 22:35:40.850392 12196 net.cpp:141] Setting up lstm1_
I0731 22:35:40.850402 12196 net.cpp:148] Top shape: 1 1 1000 (1000)
I0731 22:35:40.850407 12196 net.cpp:156] Memory required for data: 90016
I0731 22:35:40.850411 12196 layer_factory.hpp:77] Creating layer lstm1_h_concat
I0731 22:35:40.850425 12196 net.cpp:91] Creating Layer lstm1_h_concat
I0731 22:35:40.850430 12196 net.cpp:425] lstm1_h_concat <- h_1
I0731 22:35:40.850437 12196 net.cpp:399] lstm1_h_concat -> h
I0731 22:35:40.850489 12196 net.cpp:141] Setting up lstm1_h_concat
I0731 22:35:40.850498 12196 net.cpp:148] Top shape: 1 1 1000 (1000)
I0731 22:35:40.850503 12196 net.cpp:156] Memory required for data: 94016
I0731 22:35:40.850508 12196 layer_factory.hpp:77] Creating layer h_pseudoloss
I0731 22:35:40.850528 12196 net.cpp:91] Creating Layer h_pseudoloss
I0731 22:35:40.850534 12196 net.cpp:425] h_pseudoloss <- h
I0731 22:35:40.850543 12196 net.cpp:399] h_pseudoloss -> h_pseudoloss
I0731 22:35:40.850677 12196 net.cpp:141] Setting up h_pseudoloss
…
I0731 22:35:40.850853 12196 net.cpp:219] lstm1_ does not need backward computation.
I0731 22:35:40.850857 12196 net.cpp:261] This network produces output c_T
I0731 22:35:40.850862 12196 net.cpp:261] This network produces output h_pseudoloss
I0731 22:35:40.850879 12196 net.cpp:274] Network initialization done.
I0731 22:35:40.850946 12196 recurrent_layer.cpp:150] Adding parameter 0: W_xc
I0731 22:35:40.850953 12196 recurrent_layer.cpp:150] Adding parameter 1: b_c
I0731 22:35:40.850958 12196 recurrent_layer.cpp:150] Adding parameter 2: W_hc
I0731 22:35:40.851083 12196 net.cpp:141] Setting up lstm1
I0731 22:35:40.851100 12196 net.cpp:148] Top shape: 1 1 1000 (1000)
I0731 22:35:40.851105 12196 net.cpp:156] Memory required for data: 26408
I0731 22:35:40.851121 12196 layer_factory.hpp:77] Creating layer concat
I0731 22:35:40.851131 12196 net.cpp:91] Creating Layer concat
I0731 22:35:40.851138 12196 net.cpp:425] concat <- lstm1
I0731 22:35:40.851145 12196 net.cpp:425] concat <- embedded_input_sentence
I0731 22:35:40.851151 12196 net.cpp:425] concat <- reshaped_stage_indicator
I0731 22:35:40.851158 12196 net.cpp:399] concat -> lstm1_video_sequence
I0731 22:35:40.851197 12196 net.cpp:141] Setting up concat
I0731 22:35:40.851207 12196 net.cpp:148] Top shape: 1 1 1501 (1501)
I0731 22:35:40.851212 12196 net.cpp:156] Memory required for data: 32412
I0731 22:35:40.851217 12196 layer_factory.hpp:77] Creating layer lstm2
I0731 22:35:40.851233 12196 net.cpp:91] Creating Layer lstm2
I0731 22:35:40.851238 12196 net.cpp:425] lstm2 <- lstm1_video_sequence
I0731 22:35:40.851245 12196 net.cpp:425] lstm2 <- cont_sentence_input_1_split_1
I0731 22:35:40.851253 12196 net.cpp:399] lstm2 -> lstm2
I0731 22:35:40.851264 12196 recurrent_layer.cpp:20] Initializing recurrent layer: assuming input batch contains 1 timesteps of 1 independent streams.
I0731 22:35:40.851584 12196 net.cpp:49] Initializing net from parameters: 
layer {
  name: "lstm2_"
  type: "Input"
  top: "x"
  top: "cont"
  input_param {
    shape {
      dim: 1
      dim: 1
      dim: 1501
    }
    shape {
      dim: 1
      dim: 1
    }
  }
}
layer {
  name: "lstm2_"
  type: "Input"
  top: "c_0"
  top: "h_0"
  input_param {
    shape {
      dim: 1
      dim: 1
      dim: 1000
    }
    shape {
      dim: 1
      dim: 1
      dim: 1000
    }
  }
}
layer {
  name: "lstm2_cont_slice"
  type: "Slice"
  bottom: "cont"
  top: "cont_1"
  slice_param {
    axis: 0
  }
}
layer {
  name: "lstm2_x_transform"
  type: "InnerProduct"
  bottom: "x"
  top: "W_xc_x"
  param {
    name: "W_xc"
  }
  param {
    name: "b_c"
  }
  propagate_down: true
  inner_product_param {
    num_output: 4000
    bias_term: true
    weight_filler {
      type: "uniform"
      min: -0.08
      max: 0.08
    }
    bias_filler {
      type: "constant"
      value: 0
    }
    axis: 2
  }
}
layer {
  name: "lstm2_W_xc_x_slice"
  type: "Slice"
  bottom: "W_xc_x"
  top: "W_xc_x_1"
  slice_param {
    axis: 0
  }
}
layer {
  name: "lstm2_h_conted_0"
  type: "Scale"
  bottom: "h_0"
  bottom: "cont_1"
  top: "h_conted_0"
  scale_param {
    axis: 0
  }
}
layer {
  name: "lstm2_transform_1"
  type: "InnerProduct"
  bottom: "h_conted_0"
  top: "W_hc_h_0"
  param {
    name: "W_hc"
  }
  inner_product_param {
    num_output: 4000
    bias_term: false
    weight_filler {
      type: "uniform"
      min: -0.08
      max: 0.08
    }
    axis: 2
  }
}
layer {
  name: "lstm2_gate_input_1"
  type: "Eltwise"
  bottom: "W_hc_h_0"
  bottom: "W_xc_x_1"
  top: "gate_input_1"
  eltwise_param {
    operation: SUM
  }
}
layer {
  name: "lstm2_unit_1"
  type: "LSTMUnit"
  bottom: "c_0"
  bottom: "gate_input_1"
  bottom: "cont_1"
  top: "c_1"
  top: "h_1"
}
layer {
  name: "lstm2_"
  type: "Split"
  bottom: "c_1"
  top: "c_T"
}
layer {
  name: "lstm2_h_concat"
  type: "Concat"
  bottom: "h_1"
  top: "h"
  concat_param {
    axis: 0
  }
}
layer {
  name: "h_pseudoloss"
  type: "Reduction"
  bottom: "h"
  top: "h_pseudoloss"
  loss_weight: 1
}
I0731 22:35:40.851704 12196 layer_factory.hpp:77] Creating layer lstm2_
I0731 22:35:40.851721 12196 net.cpp:91] Creating Layer lstm2_
I0731 22:35:40.851727 12196 net.cpp:399] lstm2_ -> x
I0731 22:35:40.851739 12196 net.cpp:399] lstm2_ -> cont
I0731 22:35:40.851801 12196 net.cpp:141] Setting up lstm2_
I0731 22:35:40.851811 12196 net.cpp:148] Top shape: 1 1 1501 (1501)
I0731 22:35:40.851819 12196 net.cpp:148] Top shape: 1 1 (1)
I0731 22:35:40.851824 12196 net.cpp:156] Memory required for data: 6008
I0731 22:35:40.851829 12196 layer_factory.hpp:77] Creating layer lstm2_
I0731 22:35:40.851841 12196 net.cpp:91] Creating Layer lstm2_
I0731 22:35:40.851848 12196 net.cpp:399] lstm2_ -> c_0
I0731 22:35:40.851860 12196 net.cpp:399] lstm2_ -> h_0
I0731 22:35:40.851920 12196 net.cpp:141] Setting up lstm2_
I0731 22:35:40.851932 12196 net.cpp:148] Top shape: 1 1 1000 (1000)
I0731 22:35:40.851938 12196 net.cpp:148] Top shape: 1 1 1000 (1000)
I0731 22:35:40.851941 12196 net.cpp:156] Memory required for data: 14008
I0731 22:35:40.851946 12196 layer_factory.hpp:77] Creating layer lstm2_cont_slice
I0731 22:35:40.851955 12196 net.cpp:91] Creating Layer lstm2_cont_slice
I0731 22:35:40.851961 12196 net.cpp:425] lstm2_cont_slice <- cont
I0731 22:35:40.851969 12196 net.cpp:399] lstm2_cont_slice -> cont_1
I0731 22:35:40.852013 12196 net.cpp:141] Setting up lstm2_cont_slice
I0731 22:35:40.852025 12196 net.cpp:148] Top shape: 1 1 (1)
I0731 22:35:40.852030 12196 net.cpp:156] Memory required for data: 14012
I0731 22:35:40.852035 12196 layer_factory.hpp:77] Creating layer cont_1_lstm2_cont_slice_0_split
I0731 22:35:40.852046 12196 net.cpp:91] Creating Layer cont_1_lstm2_cont_slice_0_split
I0731 22:35:40.852051 12196 net.cpp:425] cont_1_lstm2_cont_slice_0_split <- cont_1
I0731 22:35:40.852059 12196 net.cpp:399] cont_1_lstm2_cont_slice_0_split -> cont_1_lstm2_cont_slice_0_split_0
I0731 22:35:40.852071 12196 net.cpp:399] cont_1_lstm2_cont_slice_0_split -> cont_1_lstm2_cont_slice_0_split_1
I0731 22:35:40.852124 12196 net.cpp:141] Setting up cont_1_lstm2_cont_slice_0_split
I0731 22:35:40.852134 12196 net.cpp:148] Top shape: 1 1 (1)
I0731 22:35:40.852140 12196 net.cpp:148] Top shape: 1 1 (1)
I0731 22:35:40.852144 12196 net.cpp:156] Memory required for data: 14020
I0731 22:35:40.852149 12196 layer_factory.hpp:77] Creating layer lstm2_x_transform
I0731 22:35:40.852162 12196 net.cpp:91] Creating Layer lstm2_x_transform
I0731 22:35:40.852169 12196 net.cpp:425] lstm2_x_transform <- x
I0731 22:35:40.852180 12196 net.cpp:399] lstm2_x_transform -> W_xc_x
I0731 22:35:40.924294 12196 net.cpp:141] Setting up lstm2_x_transform
I0731 22:35:40.924350 12196 net.cpp:148] Top shape: 1 1 4000 (4000)
I0731 22:35:40.924357 12196 net.cpp:156] Memory required for data: 30020
I0731 22:35:40.924383 12196 layer_factory.hpp:77] Creating layer lstm2_W_xc_x_slice
I0731 22:35:40.924407 12196 net.cpp:91] Creating Layer lstm2_W_xc_x_slice
I0731 22:35:40.924415 12196 net.cpp:425] lstm2_W_xc_x_slice <- W_xc_x
I0731 22:35:40.924427 12196 net.cpp:399] lstm2_W_xc_x_slice -> W_xc_x_1
I0731 22:35:40.924511 12196 net.cpp:141] Setting up lstm2_W_xc_x_slice
I0731 22:35:40.924525 12196 net.cpp:148] Top shape: 1 1 4000 (4000)
I0731 22:35:40.924528 12196 net.cpp:156] Memory required for data: 46020
I0731 22:35:40.924533 12196 layer_factory.hpp:77] Creating layer lstm2_h_conted_0
I0731 22:35:40.924548 12196 net.cpp:91] Creating Layer lstm2_h_conted_0
I0731 22:35:40.924554 12196 net.cpp:425] lstm2_h_conted_0 <- h_0
I0731 22:35:40.924561 12196 net.cpp:425] lstm2_h_conted_0 <- cont_1_lstm2_cont_slice_0_split_0
I0731 22:35:40.924569 12196 net.cpp:399] lstm2_h_conted_0 -> h_conted_0
I0731 22:35:40.924681 12196 net.cpp:141] Setting up lstm2_h_conted_0
I0731 22:35:40.924692 12196 net.cpp:148] Top shape: 1 1 1000 (1000)
I0731 22:35:40.924697 12196 net.cpp:156] Memory required for data: 50020
I0731 22:35:40.924702 12196 layer_factory.hpp:77] Creating layer lstm2_transform_1
I0731 22:35:40.924720 12196 net.cpp:91] Creating Layer lstm2_transform_1
I0731 22:35:40.924724 12196 net.cpp:425] lstm2_transform_1 <- h_conted_0
I0731 22:35:40.924733 12196 net.cpp:399] lstm2_transform_1 -> W_hc_h_0
I0731 22:35:40.976172 12196 net.cpp:141] Setting up lstm2_transform_1
I0731 22:35:40.976234 12196 net.cpp:148] Top shape: 1 1 4000 (4000)
I0731 22:35:40.976245 12196 net.cpp:156] Memory required for data: 66020
I0731 22:35:40.976269 12196 layer_factory.hpp:77] Creating layer lstm2_gate_input_1
I0731 22:35:40.976297 12196 net.cpp:91] Creating Layer lstm2_gate_input_1
I0731 22:35:40.976305 12196 net.cpp:425] lstm2_gate_input_1 <- W_hc_h_0
I0731 22:35:40.976315 12196 net.cpp:425] lstm2_gate_input_1 <- W_xc_x_1
I0731 22:35:40.976325 12196 net.cpp:399] lstm2_gate_input_1 -> gate_input_1
I0731 22:35:40.976388 12196 net.cpp:141] Setting up lstm2_gate_input_1
I0731 22:35:40.976399 12196 net.cpp:148] Top shape: 1 1 4000 (4000)
I0731 22:35:40.976404 12196 net.cpp:156] Memory required for data: 82020
I0731 22:35:40.976409 12196 layer_factory.hpp:77] Creating layer lstm2_unit_1
I0731 22:35:40.976419 12196 net.cpp:91] Creating Layer lstm2_unit_1
I0731 22:35:40.976425 12196 net.cpp:425] lstm2_unit_1 <- c_0
I0731 22:35:40.976431 12196 net.cpp:425] lstm2_unit_1 <- gate_input_1
I0731 22:35:40.976438 12196 net.cpp:425] lstm2_unit_1 <- cont_1_lstm2_cont_slice_0_split_1
I0731 22:35:40.976444 12196 net.cpp:399] lstm2_unit_1 -> c_1
I0731 22:35:40.976454 12196 net.cpp:399] lstm2_unit_1 -> h_1
I0731 22:35:40.976531 12196 net.cpp:141] Setting up lstm2_unit_1
I0731 22:35:40.976546 12196 net.cpp:148] Top shape: 1 1 1000 (1000)
I0731 22:35:40.976552 12196 net.cpp:148] Top shape: 1 1 1000 (1000)
I0731 22:35:40.976557 12196 net.cpp:156] Memory required for data: 90020
I0731 22:35:40.976562 12196 layer_factory.hpp:77] Creating layer lstm2_
I0731 22:35:40.976573 12196 net.cpp:91] Creating Layer lstm2_
I0731 22:35:40.976578 12196 net.cpp:425] lstm2_ <- c_1
I0731 22:35:40.976586 12196 net.cpp:399] lstm2_ -> c_T
I0731 22:35:40.976630 12196 net.cpp:141] Setting up lstm2_
I0731 22:35:40.976640 12196 net.cpp:148] Top shape: 1 1 1000 (1000)
I0731 22:35:40.976645 12196 net.cpp:156] Memory required for data: 94020
I0731 22:35:40.976650 12196 layer_factory.hpp:77] Creating layer lstm2_h_concat
I0731 22:35:40.976661 12196 net.cpp:91] Creating Layer lstm2_h_concat
I0731 22:35:40.976666 12196 net.cpp:425] lstm2_h_concat <- h_1
I0731 22:35:40.976677 12196 net.cpp:399] lstm2_h_concat -> h
I0731 22:35:40.976717 12196 net.cpp:141] Setting up lstm2_h_concat
I0731 22:35:40.976727 12196 net.cpp:148] Top shape: 1 1 1000 (1000)
I0731 22:35:40.976732 12196 net.cpp:156] Memory required for data: 98020
I0731 22:35:40.976737 12196 layer_factory.hpp:77] Creating layer h_pseudoloss
I0731 22:35:40.976747 12196 net.cpp:91] Creating Layer h_pseudoloss
I0731 22:35:40.976752 12196 net.cpp:425] h_pseudoloss <- h
I0731 22:35:40.976758 12196 net.cpp:399] h_pseudoloss -> h_pseudoloss
I0731 22:35:40.976861 12196 net.cpp:141] Setting up h_pseudoloss
…
