…
Java HotSpot(TM) 64-Bit Server VM warning: You have loaded library /tmp/cvld403805149463855754/libopencv_java310.xine1.so which might have disabled stack guard. The VM will try to fix the stack guard now.
It's highly recommended that you fix the library with 'execstack -c <libfile>', or link it with '-z noexecstack'.
WARNING: Logging before InitGoogleLogging() is written to STDERR
I0802 21:33:23.351835 15985 net.cpp:49] Initializing net from parameters: 
name: "CaffeNet"
state {
  phase: TEST
}
layer {
  name: "data"
  type: "Input"
  top: "data"
  input_param {
    shape {
      dim: 10
      dim: 3
      dim: 227
      dim: 227
    }
  }
}
layer {
  name: "conv1"
  type: "Convolution"
  bottom: "data"
  top: "conv1"
  convolution_param {
    num_output: 96
    kernel_size: 11
    stride: 4
  }
}
layer {
  name: "relu1"
  type: "ReLU"
  bottom: "conv1"
  top: "conv1"
}
layer {
  name: "pool1"
  type: "Pooling"
  bottom: "conv1"
  top: "pool1"
  pooling_param {
    pool: MAX
    kernel_size: 3
    stride: 2
  }
}
layer {
  name: "norm1"
  type: "LRN"
  bottom: "pool1"
  top: "norm1"
  lrn_param {
    local_size: 5
    alpha: 0.0001
    beta: 0.75
  }
}
layer {
  name: "conv2"
  type: "Convolution"
  bottom: "norm1"
  top: "conv2"
  convolution_param {
    num_output: 256
    pad: 2
    kernel_size: 5
    group: 2
  }
}
layer {
  name: "relu2"
  type: "ReLU"
  bottom: "conv2"
  top: "conv2"
}
layer {
  name: "pool2"
  type: "Pooling"
  bottom: "conv2"
  top: "pool2"
  pooling_param {
    pool: MAX
    kernel_size: 3
    stride: 2
  }
}
layer {
  name: "norm2"
  type: "LRN"
  bottom: "pool2"
  top: "norm2"
  lrn_param {
    local_size: 5
    alpha: 0.0001
    beta: 0.75
  }
}
layer {
  name: "conv3"
  type: "Convolution"
  bottom: "norm2"
  top: "conv3"
  convolution_param {
    num_output: 384
    pad: 1
    kernel_size: 3
  }
}
layer {
  name: "relu3"
  type: "ReLU"
  bottom: "conv3"
  top: "conv3"
}
layer {
  name: "conv4"
  type: "Convolution"
  bottom: "conv3"
  top: "conv4"
  convolution_param {
    num_output: 384
    pad: 1
    kernel_size: 3
    group: 2
  }
}
layer {
  name: "relu4"
  type: "ReLU"
  bottom: "conv4"
  top: "conv4"
}
layer {
  name: "conv5"
  type: "Convolution"
  bottom: "conv4"
  top: "conv5"
  convolution_param {
    num_output: 256
    pad: 1
    kernel_size: 3
    group: 2
  }
}
layer {
  name: "relu5"
  type: "ReLU"
  bottom: "conv5"
  top: "conv5"
}
layer {
  name: "pool5"
  type: "Pooling"
  bottom: "conv5"
  top: "pool5"
  pooling_param {
    pool: MAX
    kernel_size: 3
    stride: 2
  }
}
layer {
  name: "fc6"
  type: "InnerProduct"
  bottom: "pool5"
  top: "fc6"
  inner_product_param {
    num_output: 4096
  }
}
layer {
  name: "relu6"
  type: "ReLU"
  bottom: "fc6"
  top: "fc6"
}
layer {
  name: "drop6"
  type: "Dropout"
  bottom: "fc6"
  top: "fc6"
  dropout_param {
    dropout_ratio: 0.5
  }
}
layer {
  name: "fc7"
  type: "InnerProduct"
  bottom: "fc6"
  top: "fc7"
  inner_product_param {
    num_output: 4096
  }
}
layer {
  name: "relu7"
  type: "ReLU"
  bottom: "fc7"
  top: "fc7"
}
layer {
  name: "drop7"
  type: "Dropout"
  bottom: "fc7"
  top: "fc7"
  dropout_param {
    dropout_ratio: 0.5
  }
}
layer {
  name: "fc8"
  type: "InnerProduct"
  bottom: "fc7"
  top: "fc8"
  inner_product_param {
    num_output: 1000
  }
}
layer {
  name: "prob"
  type: "Softmax"
  bottom: "fc8"
  top: "prob"
}
I0802 21:33:23.352505 15985 layer_factory.hpp:77] Creating layer data
I0802 21:33:23.352574 15985 net.cpp:91] Creating Layer data
I0802 21:33:23.352596 15985 net.cpp:399] data -> data
I0802 21:33:23.353610 15975 upgrade_proto.cpp:66] Attempting to upgrade input file specified using deprecated input fields: /tmp/cvld403805149463855754/s2vt.words_to_preds.prototxt
I0802 21:33:23.353724 15975 upgrade_proto.cpp:69] Successfully upgraded file specified using deprecated input fields.
W0802 21:33:23.353740 15975 upgrade_proto.cpp:71] Note that future Caffe releases will only support input layers and not input fields.
I0802 21:33:23.354279 15975 net.cpp:49] Initializing net from parameters: 
name: "s2vt:features_to_lstm"
state {
  phase: TEST
}
layer {
  name: "input"
  type: "Input"
  top: "frames_fc7"
  top: "cont_sentence"
  top: "input_sentence"
  top: "stage_indicator"
  input_param {
    shape {
      dim: 1
      dim: 4096
    }
    shape {
      dim: 1
      dim: 1
    }
    shape {
      dim: 1
      dim: 1
    }
    shape {
      dim: 1
      dim: 1
    }
  }
}
layer {
  name: "embed_encoder"
  type: "InnerProduct"
  bottom: "frames_fc7"
  top: "embedded_in_frames"
  param {
    lr_mult: 1
    decay_mult: 1
  }
  param {
    lr_mult: 2
    decay_mult: 0
  }
  inner_product_param {
    num_output: 500
    weight_filler {
      type: "xavier"
    }
    bias_filler {
      type: "constant"
      value: 0.2
    }
  }
}
layer {
  name: "reshape_frames"
  type: "Reshape"
  bottom: "embedded_in_frames"
  top: "embedded_input_frames"
  reshape_param {
    shape {
      dim: 1
      dim: 1
      dim: 500
    }
  }
}
layer {
  name: "reshape_stage_indicator"
  type: "Reshape"
  bottom: "stage_indicator"
  top: "reshaped_stage_indicator"
  reshape_param {
    shape {
      dim: 1
      dim: 1
      dim: 1
    }
  }
}
layer {
  name: "embedding"
  type: "Embed"
  bottom: "input_sentence"
  top: "embedded_input_sentence"
  param {
    lr_mult: 1
  }
  embed_param {
    num_output: 500
    input_dim: 46168
    bias_term: false
    weight_filler {
      type: "uniform"
      min: -0.08
      max: 0.08
    }
  }
}
layer {
  name: "lstm1"
  type: "LSTM"
  bottom: "embedded_input_frames"
  bottom: "cont_sentence"
  top: "lstm1"
  recurrent_param {
    num_output: 1000
    weight_filler {
      type: "uniform"
      min: -0.08
      max: 0.08
    }
    bias_filler {
      type: "constant"
      value: 0
    }
  }
}
layer {
  name: "concat"
  type: "Concat"
  bottom: "lstm1"
  bottom: "embedded_input_sentence"
  bottom: "reshaped_stage_indicator"
  top: "lstm1_video_sequence"
  concat_param {
    concat_dim: 2
  }
}
layer {
  name: "lstm2"
  type: "LSTM"
  bottom: "lstm1_video_sequence"
  bottom: "cont_sentence"
  top: "lstm2"
  recurrent_param {
    num_output: 1000
    weight_filler {
      type: "uniform"
      min: -0.08
      max: 0.08
    }
    bias_filler {
      type: "constant"
      value: 0
    }
  }
}
layer {
  name: "predict"
  type: "InnerProduct"
  bottom: "lstm2"
  top: "predict"
  param {
    lr_mult: 1
    decay_mult: 1
  }
  param {
    lr_mult: 2
    decay_mult: 0
  }
  inner_product_param {
    num_output: 46168
    weight_filler {
      type: "uniform"
      min: -0.08
      max: 0.08
    }
    bias_filler {
      type: "constant"
      value: 0
    }
    axis: 2
  }
}
layer {
  name: "probs"
  type: "Softmax"
  bottom: "predict"
  top: "probs"
  softmax_param {
    axis: 2
  }
}
I0802 21:33:23.354488 15975 layer_factory.hpp:77] Creating layer input
I0802 21:33:23.354516 15975 net.cpp:91] Creating Layer input
I0802 21:33:23.354527 15975 net.cpp:399] input -> frames_fc7
I0802 21:33:23.354557 15975 net.cpp:399] input -> cont_sentence
I0802 21:33:23.354578 15975 net.cpp:399] input -> input_sentence
I0802 21:33:23.354596 15975 net.cpp:399] input -> stage_indicator
I0802 21:33:23.948318 15985 net.cpp:141] Setting up data
I0802 21:33:23.948403 15985 net.cpp:148] Top shape: 10 3 227 227 (1545870)
I0802 21:33:23.948410 15985 net.cpp:156] Memory required for data: 6183480
I0802 21:33:23.948433 15985 layer_factory.hpp:77] Creating layer conv1
I0802 21:33:23.948433 15975 net.cpp:141] Setting up input
I0802 21:33:23.948465 15985 net.cpp:91] Creating Layer conv1
I0802 21:33:23.948475 15975 net.cpp:148] Top shape: 1 4096 (4096)
I0802 21:33:23.948493 15975 net.cpp:148] Top shape: 1 1 (1)
I0802 21:33:23.948499 15975 net.cpp:148] Top shape: 1 1 (1)
I0802 21:33:23.948505 15975 net.cpp:148] Top shape: 1 1 (1)
I0802 21:33:23.948510 15975 net.cpp:156] Memory required for data: 16396
I0802 21:33:23.948477 15985 net.cpp:425] conv1 <- data
I0802 21:33:23.948519 15975 layer_factory.hpp:77] Creating layer cont_sentence_input_1_split
I0802 21:33:23.948565 15975 net.cpp:91] Creating Layer cont_sentence_input_1_split
I0802 21:33:23.948572 15975 net.cpp:425] cont_sentence_input_1_split <- cont_sentence
I0802 21:33:23.948570 15985 net.cpp:399] conv1 -> conv1
I0802 21:33:23.948599 15975 net.cpp:399] cont_sentence_input_1_split -> cont_sentence_input_1_split_0
I0802 21:33:23.948611 15975 net.cpp:399] cont_sentence_input_1_split -> cont_sentence_input_1_split_1
I0802 21:33:23.948863 15975 net.cpp:141] Setting up cont_sentence_input_1_split
I0802 21:33:23.948879 15975 net.cpp:148] Top shape: 1 1 (1)
I0802 21:33:23.948885 15975 net.cpp:148] Top shape: 1 1 (1)
I0802 21:33:23.948890 15975 net.cpp:156] Memory required for data: 16404
I0802 21:33:23.948895 15975 layer_factory.hpp:77] Creating layer embed_encoder
I0802 21:33:23.948910 15975 net.cpp:91] Creating Layer embed_encoder
I0802 21:33:23.948915 15975 net.cpp:425] embed_encoder <- frames_fc7
I0802 21:33:23.948926 15975 net.cpp:399] embed_encoder -> embedded_in_frames
I0802 21:33:23.976348 15975 net.cpp:141] Setting up embed_encoder
I0802 21:33:23.976402 15975 net.cpp:148] Top shape: 1 500 (500)
I0802 21:33:23.976408 15975 net.cpp:156] Memory required for data: 18404
I0802 21:33:23.976439 15975 layer_factory.hpp:77] Creating layer reshape_frames
I0802 21:33:23.976469 15975 net.cpp:91] Creating Layer reshape_frames
I0802 21:33:23.976477 15975 net.cpp:425] reshape_frames <- embedded_in_frames
I0802 21:33:23.976487 15975 net.cpp:399] reshape_frames -> embedded_input_frames
I0802 21:33:23.979356 15975 net.cpp:141] Setting up reshape_frames
I0802 21:33:23.979372 15975 net.cpp:148] Top shape: 1 1 500 (500)
I0802 21:33:23.979375 15975 net.cpp:156] Memory required for data: 20404
I0802 21:33:23.979382 15975 layer_factory.hpp:77] Creating layer reshape_stage_indicator
I0802 21:33:23.979393 15975 net.cpp:91] Creating Layer reshape_stage_indicator
I0802 21:33:23.979398 15975 net.cpp:425] reshape_stage_indicator <- stage_indicator
I0802 21:33:23.979408 15975 net.cpp:399] reshape_stage_indicator -> reshaped_stage_indicator
I0802 21:33:23.979548 15975 net.cpp:141] Setting up reshape_stage_indicator
I0802 21:33:23.979560 15975 net.cpp:148] Top shape: 1 1 1 (1)
I0802 21:33:23.979565 15975 net.cpp:156] Memory required for data: 20408
I0802 21:33:23.979570 15975 layer_factory.hpp:77] Creating layer embedding
I0802 21:33:23.979584 15975 net.cpp:91] Creating Layer embedding
I0802 21:33:23.979589 15975 net.cpp:425] embedding <- input_sentence
I0802 21:33:23.979598 15975 net.cpp:399] embedding -> embedded_input_sentence
I0802 21:33:24.226938 15975 net.cpp:141] Setting up embedding
I0802 21:33:24.226999 15975 net.cpp:148] Top shape: 1 1 500 (500)
I0802 21:33:24.227005 15975 net.cpp:156] Memory required for data: 22408
I0802 21:33:24.227027 15975 layer_factory.hpp:77] Creating layer lstm1
I0802 21:33:24.227066 15975 net.cpp:91] Creating Layer lstm1
I0802 21:33:24.227074 15975 net.cpp:425] lstm1 <- embedded_input_frames
I0802 21:33:24.227082 15975 net.cpp:425] lstm1 <- cont_sentence_input_1_split_0
I0802 21:33:24.227092 15975 net.cpp:399] lstm1 -> lstm1
I0802 21:33:24.227138 15975 recurrent_layer.cpp:20] Initializing recurrent layer: assuming input batch contains 1 timesteps of 1 independent streams.
I0802 21:33:24.227622 15975 net.cpp:49] Initializing net from parameters: 
layer {
  name: "lstm1_"
  type: "Input"
  top: "x"
  top: "cont"
  input_param {
    shape {
      dim: 1
      dim: 1
      dim: 500
    }
    shape {
      dim: 1
      dim: 1
    }
  }
}
layer {
  name: "lstm1_"
  type: "Input"
  top: "c_0"
  top: "h_0"
  input_param {
    shape {
      dim: 1
      dim: 1
      dim: 1000
    }
    shape {
      dim: 1
      dim: 1
      dim: 1000
    }
  }
}
layer {
  name: "lstm1_cont_slice"
  type: "Slice"
  bottom: "cont"
  top: "cont_1"
  slice_param {
    axis: 0
  }
}
layer {
  name: "lstm1_x_transform"
  type: "InnerProduct"
  bottom: "x"
  top: "W_xc_x"
  param {
    name: "W_xc"
  }
  param {
    name: "b_c"
  }
  propagate_down: true
  inner_product_param {
    num_output: 4000
    bias_term: true
    weight_filler {
      type: "uniform"
      min: -0.08
      max: 0.08
    }
    bias_filler {
      type: "constant"
      value: 0
    }
    axis: 2
  }
}
layer {
  name: "lstm1_W_xc_x_slice"
  type: "Slice"
  bottom: "W_xc_x"
  top: "W_xc_x_1"
  slice_param {
    axis: 0
  }
}
layer {
  name: "lstm1_h_conted_0"
  type: "Scale"
  bottom: "h_0"
  bottom: "cont_1"
  top: "h_conted_0"
  scale_param {
    axis: 0
  }
}
layer {
  name: "lstm1_transform_1"
  type: "InnerProduct"
  bottom: "h_conted_0"
  top: "W_hc_h_0"
  param {
    name: "W_hc"
  }
  inner_product_param {
    num_output: 4000
    bias_term: false
    weight_filler {
      type: "uniform"
      min: -0.08
      max: 0.08
    }
    axis: 2
  }
}
layer {
  name: "lstm1_gate_input_1"
  type: "Eltwise"
  bottom: "W_hc_h_0"
  bottom: "W_xc_x_1"
  top: "gate_input_1"
  eltwise_param {
    operation: SUM
  }
}
layer {
  name: "lstm1_unit_1"
  type: "LSTMUnit"
  bottom: "c_0"
  bottom: "gate_input_1"
  bottom: "cont_1"
  top: "c_1"
  top: "h_1"
}
layer {
  name: "lstm1_"
  type: "Split"
  bottom: "c_1"
  top: "c_T"
}
layer {
  name: "lstm1_h_concat"
  type: "Concat"
  bottom: "h_1"
  top: "h"
  concat_param {
    axis: 0
  }
}
layer {
  name: "h_pseudoloss"
  type: "Reduction"
  bottom: "h"
  top: "h_pseudoloss"
  loss_weight: 1
}
I0802 21:33:24.227727 15975 layer_factory.hpp:77] Creating layer lstm1_
I0802 21:33:24.227741 15975 net.cpp:91] Creating Layer lstm1_
I0802 21:33:24.227748 15975 net.cpp:399] lstm1_ -> x
I0802 21:33:24.227761 15975 net.cpp:399] lstm1_ -> cont
I0802 21:33:24.229651 15975 net.cpp:141] Setting up lstm1_
I0802 21:33:24.229671 15975 net.cpp:148] Top shape: 1 1 500 (500)
I0802 21:33:24.229678 15975 net.cpp:148] Top shape: 1 1 (1)
I0802 21:33:24.229683 15975 net.cpp:156] Memory required for data: 2004
I0802 21:33:24.229689 15975 layer_factory.hpp:77] Creating layer lstm1_
I0802 21:33:24.229706 15975 net.cpp:91] Creating Layer lstm1_
I0802 21:33:24.229712 15975 net.cpp:399] lstm1_ -> c_0
I0802 21:33:24.229725 15975 net.cpp:399] lstm1_ -> h_0
I0802 21:33:24.233937 15975 net.cpp:141] Setting up lstm1_
I0802 21:33:24.233965 15975 net.cpp:148] Top shape: 1 1 1000 (1000)
I0802 21:33:24.233978 15975 net.cpp:148] Top shape: 1 1 1000 (1000)
I0802 21:33:24.233988 15975 net.cpp:156] Memory required for data: 10004
I0802 21:33:24.233997 15975 layer_factory.hpp:77] Creating layer lstm1_cont_slice
I0802 21:33:24.234015 15975 net.cpp:91] Creating Layer lstm1_cont_slice
I0802 21:33:24.234025 15975 net.cpp:425] lstm1_cont_slice <- cont
I0802 21:33:24.234045 15975 net.cpp:399] lstm1_cont_slice -> cont_1
I0802 21:33:24.234640 15975 net.cpp:141] Setting up lstm1_cont_slice
I0802 21:33:24.234661 15975 net.cpp:148] Top shape: 1 1 (1)
I0802 21:33:24.234669 15975 net.cpp:156] Memory required for data: 10008
I0802 21:33:24.234678 15975 layer_factory.hpp:77] Creating layer cont_1_lstm1_cont_slice_0_split
I0802 21:33:24.234693 15975 net.cpp:91] Creating Layer cont_1_lstm1_cont_slice_0_split
I0802 21:33:24.234701 15975 net.cpp:425] cont_1_lstm1_cont_slice_0_split <- cont_1
I0802 21:33:24.234714 15975 net.cpp:399] cont_1_lstm1_cont_slice_0_split -> cont_1_lstm1_cont_slice_0_split_0
I0802 21:33:24.234735 15975 net.cpp:399] cont_1_lstm1_cont_slice_0_split -> cont_1_lstm1_cont_slice_0_split_1
I0802 21:33:24.234990 15975 net.cpp:141] Setting up cont_1_lstm1_cont_slice_0_split
I0802 21:33:24.235010 15975 net.cpp:148] Top shape: 1 1 (1)
I0802 21:33:24.235023 15975 net.cpp:148] Top shape: 1 1 (1)
I0802 21:33:24.235033 15975 net.cpp:156] Memory required for data: 10016
I0802 21:33:24.235041 15975 layer_factory.hpp:77] Creating layer lstm1_x_transform
I0802 21:33:24.235064 15975 net.cpp:91] Creating Layer lstm1_x_transform
I0802 21:33:24.235074 15975 net.cpp:425] lstm1_x_transform <- x
I0802 21:33:24.235090 15975 net.cpp:399] lstm1_x_transform -> W_xc_x
I0802 21:33:24.242023 15985 net.cpp:141] Setting up conv1
I0802 21:33:24.242066 15985 net.cpp:148] Top shape: 10 96 55 55 (2904000)
I0802 21:33:24.242072 15985 net.cpp:156] Memory required for data: 17799480
I0802 21:33:24.242094 15985 layer_factory.hpp:77] Creating layer relu1
I0802 21:33:24.242113 15985 net.cpp:91] Creating Layer relu1
I0802 21:33:24.242120 15985 net.cpp:425] relu1 <- conv1
I0802 21:33:24.242130 15985 net.cpp:386] relu1 -> conv1 (in-place)
I0802 21:33:24.242544 15985 net.cpp:141] Setting up relu1
I0802 21:33:24.242559 15985 net.cpp:148] Top shape: 10 96 55 55 (2904000)
I0802 21:33:24.242564 15985 net.cpp:156] Memory required for data: 29415480
I0802 21:33:24.242570 15985 layer_factory.hpp:77] Creating layer pool1
I0802 21:33:24.242586 15985 net.cpp:91] Creating Layer pool1
I0802 21:33:24.242591 15985 net.cpp:425] pool1 <- conv1
I0802 21:33:24.242600 15985 net.cpp:399] pool1 -> pool1
I0802 21:33:24.242684 15985 net.cpp:141] Setting up pool1
I0802 21:33:24.242697 15985 net.cpp:148] Top shape: 10 96 27 27 (699840)
I0802 21:33:24.242700 15985 net.cpp:156] Memory required for data: 32214840
I0802 21:33:24.242707 15985 layer_factory.hpp:77] Creating layer norm1
I0802 21:33:24.242725 15985 net.cpp:91] Creating Layer norm1
I0802 21:33:24.242732 15985 net.cpp:425] norm1 <- pool1
I0802 21:33:24.242739 15985 net.cpp:399] norm1 -> norm1
I0802 21:33:24.243206 15985 net.cpp:141] Setting up norm1
I0802 21:33:24.243221 15985 net.cpp:148] Top shape: 10 96 27 27 (699840)
I0802 21:33:24.243226 15985 net.cpp:156] Memory required for data: 35014200
I0802 21:33:24.243232 15985 layer_factory.hpp:77] Creating layer conv2
I0802 21:33:24.243249 15985 net.cpp:91] Creating Layer conv2
I0802 21:33:24.243255 15985 net.cpp:425] conv2 <- norm1
I0802 21:33:24.243263 15985 net.cpp:399] conv2 -> conv2
I0802 21:33:24.246526 15985 net.cpp:141] Setting up conv2
I0802 21:33:24.246543 15985 net.cpp:148] Top shape: 10 256 27 27 (1866240)
I0802 21:33:24.246548 15985 net.cpp:156] Memory required for data: 42479160
I0802 21:33:24.246564 15985 layer_factory.hpp:77] Creating layer relu2
I0802 21:33:24.246575 15985 net.cpp:91] Creating Layer relu2
I0802 21:33:24.246580 15985 net.cpp:425] relu2 <- conv2
I0802 21:33:24.246587 15985 net.cpp:386] relu2 -> conv2 (in-place)
I0802 21:33:24.247020 15985 net.cpp:141] Setting up relu2
I0802 21:33:24.247036 15985 net.cpp:148] Top shape: 10 256 27 27 (1866240)
I0802 21:33:24.247042 15985 net.cpp:156] Memory required for data: 49944120
I0802 21:33:24.247047 15985 layer_factory.hpp:77] Creating layer pool2
I0802 21:33:24.247057 15985 net.cpp:91] Creating Layer pool2
I0802 21:33:24.247062 15985 net.cpp:425] pool2 <- conv2
I0802 21:33:24.247069 15985 net.cpp:399] pool2 -> pool2
I0802 21:33:24.247133 15985 net.cpp:141] Setting up pool2
I0802 21:33:24.247143 15985 net.cpp:148] Top shape: 10 256 13 13 (432640)
I0802 21:33:24.247148 15985 net.cpp:156] Memory required for data: 51674680
I0802 21:33:24.247153 15985 layer_factory.hpp:77] Creating layer norm2
I0802 21:33:24.247167 15985 net.cpp:91] Creating Layer norm2
I0802 21:33:24.247172 15985 net.cpp:425] norm2 <- pool2
I0802 21:33:24.247181 15985 net.cpp:399] norm2 -> norm2
I0802 21:33:24.247467 15985 net.cpp:141] Setting up norm2
I0802 21:33:24.247480 15985 net.cpp:148] Top shape: 10 256 13 13 (432640)
I0802 21:33:24.247485 15985 net.cpp:156] Memory required for data: 53405240
I0802 21:33:24.247490 15985 layer_factory.hpp:77] Creating layer conv3
I0802 21:33:24.247509 15985 net.cpp:91] Creating Layer conv3
I0802 21:33:24.247514 15985 net.cpp:425] conv3 <- norm2
I0802 21:33:24.247522 15985 net.cpp:399] conv3 -> conv3
I0802 21:33:24.251477 15985 net.cpp:141] Setting up conv3
I0802 21:33:24.251500 15985 net.cpp:148] Top shape: 10 384 13 13 (648960)
I0802 21:33:24.251507 15985 net.cpp:156] Memory required for data: 56001080
I0802 21:33:24.251519 15985 layer_factory.hpp:77] Creating layer relu3
I0802 21:33:24.251536 15985 net.cpp:91] Creating Layer relu3
I0802 21:33:24.251541 15985 net.cpp:425] relu3 <- conv3
I0802 21:33:24.251549 15985 net.cpp:386] relu3 -> conv3 (in-place)
I0802 21:33:24.251976 15985 net.cpp:141] Setting up relu3
I0802 21:33:24.251989 15985 net.cpp:148] Top shape: 10 384 13 13 (648960)
I0802 21:33:24.251994 15985 net.cpp:156] Memory required for data: 58596920
I0802 21:33:24.252001 15985 layer_factory.hpp:77] Creating layer conv4
I0802 21:33:24.252017 15985 net.cpp:91] Creating Layer conv4
I0802 21:33:24.252022 15985 net.cpp:425] conv4 <- conv3
I0802 21:33:24.252032 15985 net.cpp:399] conv4 -> conv4
I0802 21:33:24.256294 15985 net.cpp:141] Setting up conv4
I0802 21:33:24.256319 15985 net.cpp:148] Top shape: 10 384 13 13 (648960)
I0802 21:33:24.256325 15985 net.cpp:156] Memory required for data: 61192760
I0802 21:33:24.256335 15985 layer_factory.hpp:77] Creating layer relu4
I0802 21:33:24.256350 15985 net.cpp:91] Creating Layer relu4
I0802 21:33:24.256356 15985 net.cpp:425] relu4 <- conv4
I0802 21:33:24.256363 15985 net.cpp:386] relu4 -> conv4 (in-place)
I0802 21:33:24.256794 15985 net.cpp:141] Setting up relu4
I0802 21:33:24.256808 15985 net.cpp:148] Top shape: 10 384 13 13 (648960)
I0802 21:33:24.256814 15985 net.cpp:156] Memory required for data: 63788600
I0802 21:33:24.256819 15985 layer_factory.hpp:77] Creating layer conv5
I0802 21:33:24.256835 15985 net.cpp:91] Creating Layer conv5
I0802 21:33:24.256841 15985 net.cpp:425] conv5 <- conv4
I0802 21:33:24.256851 15985 net.cpp:399] conv5 -> conv5
I0802 21:33:24.258230 15975 net.cpp:141] Setting up lstm1_x_transform
I0802 21:33:24.258249 15975 net.cpp:148] Top shape: 1 1 4000 (4000)
I0802 21:33:24.258255 15975 net.cpp:156] Memory required for data: 26016
I0802 21:33:24.258270 15975 layer_factory.hpp:77] Creating layer lstm1_W_xc_x_slice
I0802 21:33:24.258281 15975 net.cpp:91] Creating Layer lstm1_W_xc_x_slice
I0802 21:33:24.258287 15975 net.cpp:425] lstm1_W_xc_x_slice <- W_xc_x
I0802 21:33:24.258299 15975 net.cpp:399] lstm1_W_xc_x_slice -> W_xc_x_1
I0802 21:33:24.258347 15975 net.cpp:141] Setting up lstm1_W_xc_x_slice
I0802 21:33:24.258358 15975 net.cpp:148] Top shape: 1 1 4000 (4000)
I0802 21:33:24.258363 15975 net.cpp:156] Memory required for data: 42016
I0802 21:33:24.258368 15975 layer_factory.hpp:77] Creating layer lstm1_h_conted_0
I0802 21:33:24.258379 15975 net.cpp:91] Creating Layer lstm1_h_conted_0
I0802 21:33:24.258384 15975 net.cpp:425] lstm1_h_conted_0 <- h_0
I0802 21:33:24.258390 15975 net.cpp:425] lstm1_h_conted_0 <- cont_1_lstm1_cont_slice_0_split_0
I0802 21:33:24.258397 15975 net.cpp:399] lstm1_h_conted_0 -> h_conted_0
I0802 21:33:24.258759 15975 net.cpp:141] Setting up lstm1_h_conted_0
I0802 21:33:24.258772 15975 net.cpp:148] Top shape: 1 1 1000 (1000)
I0802 21:33:24.258777 15975 net.cpp:156] Memory required for data: 46016
I0802 21:33:24.258782 15975 layer_factory.hpp:77] Creating layer lstm1_transform_1
I0802 21:33:24.258796 15975 net.cpp:91] Creating Layer lstm1_transform_1
I0802 21:33:24.258802 15975 net.cpp:425] lstm1_transform_1 <- h_conted_0
I0802 21:33:24.258810 15975 net.cpp:399] lstm1_transform_1 -> W_hc_h_0
I0802 21:33:24.269150 15985 net.cpp:141] Setting up conv5
I0802 21:33:24.269210 15985 net.cpp:148] Top shape: 10 256 13 13 (432640)
I0802 21:33:24.269217 15985 net.cpp:156] Memory required for data: 65519160
I0802 21:33:24.269243 15985 layer_factory.hpp:77] Creating layer relu5
I0802 21:33:24.269264 15985 net.cpp:91] Creating Layer relu5
I0802 21:33:24.269273 15985 net.cpp:425] relu5 <- conv5
I0802 21:33:24.269284 15985 net.cpp:386] relu5 -> conv5 (in-place)
I0802 21:33:24.269739 15985 net.cpp:141] Setting up relu5
I0802 21:33:24.269753 15985 net.cpp:148] Top shape: 10 256 13 13 (432640)
I0802 21:33:24.269762 15985 net.cpp:156] Memory required for data: 67249720
I0802 21:33:24.269767 15985 layer_factory.hpp:77] Creating layer pool5
I0802 21:33:24.269779 15985 net.cpp:91] Creating Layer pool5
I0802 21:33:24.269784 15985 net.cpp:425] pool5 <- conv5
I0802 21:33:24.269793 15985 net.cpp:399] pool5 -> pool5
I0802 21:33:24.269871 15985 net.cpp:141] Setting up pool5
I0802 21:33:24.269882 15985 net.cpp:148] Top shape: 10 256 6 6 (92160)
I0802 21:33:24.269886 15985 net.cpp:156] Memory required for data: 67618360
I0802 21:33:24.269891 15985 layer_factory.hpp:77] Creating layer fc6
I0802 21:33:24.269911 15985 net.cpp:91] Creating Layer fc6
I0802 21:33:24.269915 15985 net.cpp:425] fc6 <- pool5
I0802 21:33:24.269923 15985 net.cpp:399] fc6 -> fc6
I0802 21:33:24.341086 15975 net.cpp:141] Setting up lstm1_transform_1
I0802 21:33:24.341146 15975 net.cpp:148] Top shape: 1 1 4000 (4000)
I0802 21:33:24.341153 15975 net.cpp:156] Memory required for data: 62016
I0802 21:33:24.341181 15975 layer_factory.hpp:77] Creating layer lstm1_gate_input_1
I0802 21:33:24.341204 15975 net.cpp:91] Creating Layer lstm1_gate_input_1
I0802 21:33:24.341212 15975 net.cpp:425] lstm1_gate_input_1 <- W_hc_h_0
I0802 21:33:24.341220 15975 net.cpp:425] lstm1_gate_input_1 <- W_xc_x_1
I0802 21:33:24.341228 15975 net.cpp:399] lstm1_gate_input_1 -> gate_input_1
I0802 21:33:24.341306 15975 net.cpp:141] Setting up lstm1_gate_input_1
I0802 21:33:24.341316 15975 net.cpp:148] Top shape: 1 1 4000 (4000)
I0802 21:33:24.341321 15975 net.cpp:156] Memory required for data: 78016
I0802 21:33:24.341326 15975 layer_factory.hpp:77] Creating layer lstm1_unit_1
I0802 21:33:24.341338 15975 net.cpp:91] Creating Layer lstm1_unit_1
I0802 21:33:24.341344 15975 net.cpp:425] lstm1_unit_1 <- c_0
I0802 21:33:24.341351 15975 net.cpp:425] lstm1_unit_1 <- gate_input_1
I0802 21:33:24.341356 15975 net.cpp:425] lstm1_unit_1 <- cont_1_lstm1_cont_slice_0_split_1
I0802 21:33:24.341362 15975 net.cpp:399] lstm1_unit_1 -> c_1
I0802 21:33:24.341372 15975 net.cpp:399] lstm1_unit_1 -> h_1
I0802 21:33:24.341444 15975 net.cpp:141] Setting up lstm1_unit_1
I0802 21:33:24.341452 15975 net.cpp:148] Top shape: 1 1 1000 (1000)
I0802 21:33:24.341459 15975 net.cpp:148] Top shape: 1 1 1000 (1000)
I0802 21:33:24.341464 15975 net.cpp:156] Memory required for data: 86016
I0802 21:33:24.341469 15975 layer_factory.hpp:77] Creating layer lstm1_
I0802 21:33:24.341477 15975 net.cpp:91] Creating Layer lstm1_
I0802 21:33:24.341482 15975 net.cpp:425] lstm1_ <- c_1
I0802 21:33:24.341490 15975 net.cpp:399] lstm1_ -> c_T
I0802 21:33:24.341521 15975 net.cpp:141] Setting up lstm1_
I0802 21:33:24.341531 15975 net.cpp:148] Top shape: 1 1 1000 (1000)
I0802 21:33:24.341536 15975 net.cpp:156] Memory required for data: 90016
I0802 21:33:24.341539 15975 layer_factory.hpp:77] Creating layer lstm1_h_concat
I0802 21:33:24.341567 15975 net.cpp:91] Creating Layer lstm1_h_concat
I0802 21:33:24.341572 15975 net.cpp:425] lstm1_h_concat <- h_1
I0802 21:33:24.341578 15975 net.cpp:399] lstm1_h_concat -> h
I0802 21:33:24.341619 15975 net.cpp:141] Setting up lstm1_h_concat
I0802 21:33:24.341629 15975 net.cpp:148] Top shape: 1 1 1000 (1000)
I0802 21:33:24.341632 15975 net.cpp:156] Memory required for data: 94016
I0802 21:33:24.341637 15975 layer_factory.hpp:77] Creating layer h_pseudoloss
I0802 21:33:24.341656 15975 net.cpp:91] Creating Layer h_pseudoloss
I0802 21:33:24.341661 15975 net.cpp:425] h_pseudoloss <- h
I0802 21:33:24.341671 15975 net.cpp:399] h_pseudoloss -> h_pseudoloss
I0802 21:33:24.341771 15975 net.cpp:141] Setting up h_pseudoloss
…
I0802 21:33:24.341902 15975 net.cpp:219] lstm1_ does not need backward computation.
I0802 21:33:24.341904 15975 net.cpp:261] This network produces output c_T
I0802 21:33:24.341909 15975 net.cpp:261] This network produces output h_pseudoloss
I0802 21:33:24.341931 15975 net.cpp:274] Network initialization done.
I0802 21:33:24.342000 15975 recurrent_layer.cpp:150] Adding parameter 0: W_xc
I0802 21:33:24.342007 15975 recurrent_layer.cpp:150] Adding parameter 1: b_c
I0802 21:33:24.342012 15975 recurrent_layer.cpp:150] Adding parameter 2: W_hc
I0802 21:33:24.342138 15975 net.cpp:141] Setting up lstm1
I0802 21:33:24.342150 15975 net.cpp:148] Top shape: 1 1 1000 (1000)
I0802 21:33:24.342155 15975 net.cpp:156] Memory required for data: 26408
I0802 21:33:24.342170 15975 layer_factory.hpp:77] Creating layer concat
I0802 21:33:24.342180 15975 net.cpp:91] Creating Layer concat
I0802 21:33:24.342186 15975 net.cpp:425] concat <- lstm1
I0802 21:33:24.342193 15975 net.cpp:425] concat <- embedded_input_sentence
I0802 21:33:24.342200 15975 net.cpp:425] concat <- reshaped_stage_indicator
I0802 21:33:24.342206 15975 net.cpp:399] concat -> lstm1_video_sequence
I0802 21:33:24.342242 15975 net.cpp:141] Setting up concat
I0802 21:33:24.342250 15975 net.cpp:148] Top shape: 1 1 1501 (1501)
I0802 21:33:24.342255 15975 net.cpp:156] Memory required for data: 32412
I0802 21:33:24.342260 15975 layer_factory.hpp:77] Creating layer lstm2
I0802 21:33:24.342273 15975 net.cpp:91] Creating Layer lstm2
I0802 21:33:24.342278 15975 net.cpp:425] lstm2 <- lstm1_video_sequence
I0802 21:33:24.342284 15975 net.cpp:425] lstm2 <- cont_sentence_input_1_split_1
I0802 21:33:24.342293 15975 net.cpp:399] lstm2 -> lstm2
I0802 21:33:24.342303 15975 recurrent_layer.cpp:20] Initializing recurrent layer: assuming input batch contains 1 timesteps of 1 independent streams.
I0802 21:33:24.342635 15975 net.cpp:49] Initializing net from parameters: 
layer {
  name: "lstm2_"
  type: "Input"
  top: "x"
  top: "cont"
  input_param {
    shape {
      dim: 1
      dim: 1
      dim: 1501
    }
    shape {
      dim: 1
      dim: 1
    }
  }
}
layer {
  name: "lstm2_"
  type: "Input"
  top: "c_0"
  top: "h_0"
  input_param {
    shape {
      dim: 1
      dim: 1
      dim: 1000
    }
    shape {
      dim: 1
      dim: 1
      dim: 1000
    }
  }
}
layer {
  name: "lstm2_cont_slice"
  type: "Slice"
  bottom: "cont"
  top: "cont_1"
  slice_param {
    axis: 0
  }
}
layer {
  name: "lstm2_x_transform"
  type: "InnerProduct"
  bottom: "x"
  top: "W_xc_x"
  param {
    name: "W_xc"
  }
  param {
    name: "b_c"
  }
  propagate_down: true
  inner_product_param {
    num_output: 4000
    bias_term: true
    weight_filler {
      type: "uniform"
      min: -0.08
      max: 0.08
    }
    bias_filler {
      type: "constant"
      value: 0
    }
    axis: 2
  }
}
layer {
  name: "lstm2_W_xc_x_slice"
  type: "Slice"
  bottom: "W_xc_x"
  top: "W_xc_x_1"
  slice_param {
    axis: 0
  }
}
layer {
  name: "lstm2_h_conted_0"
  type: "Scale"
  bottom: "h_0"
  bottom: "cont_1"
  top: "h_conted_0"
  scale_param {
    axis: 0
  }
}
layer {
  name: "lstm2_transform_1"
  type: "InnerProduct"
  bottom: "h_conted_0"
  top: "W_hc_h_0"
  param {
    name: "W_hc"
  }
  inner_product_param {
    num_output: 4000
    bias_term: false
    weight_filler {
      type: "uniform"
      min: -0.08
      max: 0.08
    }
    axis: 2
  }
}
layer {
  name: "lstm2_gate_input_1"
  type: "Eltwise"
  bottom: "W_hc_h_0"
  bottom: "W_xc_x_1"
  top: "gate_input_1"
  eltwise_param {
    operation: SUM
  }
}
layer {
  name: "lstm2_unit_1"
  type: "LSTMUnit"
  bottom: "c_0"
  bottom: "gate_input_1"
  bottom: "cont_1"
  top: "c_1"
  top: "h_1"
}
layer {
  name: "lstm2_"
  type: "Split"
  bottom: "c_1"
  top: "c_T"
}
layer {
  name: "lstm2_h_concat"
  type: "Concat"
  bottom: "h_1"
  top: "h"
  concat_param {
    axis: 0
  }
}
layer {
  name: "h_pseudoloss"
  type: "Reduction"
  bottom: "h"
  top: "h_pseudoloss"
  loss_weight: 1
}
I0802 21:33:24.342739 15975 layer_factory.hpp:77] Creating layer lstm2_
I0802 21:33:24.342759 15975 net.cpp:91] Creating Layer lstm2_
I0802 21:33:24.342767 15975 net.cpp:399] lstm2_ -> x
I0802 21:33:24.342779 15975 net.cpp:399] lstm2_ -> cont
I0802 21:33:24.342842 15975 net.cpp:141] Setting up lstm2_
I0802 21:33:24.342852 15975 net.cpp:148] Top shape: 1 1 1501 (1501)
I0802 21:33:24.342859 15975 net.cpp:148] Top shape: 1 1 (1)
I0802 21:33:24.342864 15975 net.cpp:156] Memory required for data: 6008
I0802 21:33:24.342869 15975 layer_factory.hpp:77] Creating layer lstm2_
I0802 21:33:24.342878 15975 net.cpp:91] Creating Layer lstm2_
I0802 21:33:24.342885 15975 net.cpp:399] lstm2_ -> c_0
I0802 21:33:24.342895 15975 net.cpp:399] lstm2_ -> h_0
I0802 21:33:24.342950 15975 net.cpp:141] Setting up lstm2_
I0802 21:33:24.342959 15975 net.cpp:148] Top shape: 1 1 1000 (1000)
I0802 21:33:24.342965 15975 net.cpp:148] Top shape: 1 1 1000 (1000)
I0802 21:33:24.342970 15975 net.cpp:156] Memory required for data: 14008
I0802 21:33:24.342974 15975 layer_factory.hpp:77] Creating layer lstm2_cont_slice
I0802 21:33:24.342983 15975 net.cpp:91] Creating Layer lstm2_cont_slice
I0802 21:33:24.342988 15975 net.cpp:425] lstm2_cont_slice <- cont
I0802 21:33:24.342998 15975 net.cpp:399] lstm2_cont_slice -> cont_1
I0802 21:33:24.343034 15975 net.cpp:141] Setting up lstm2_cont_slice
I0802 21:33:24.343042 15975 net.cpp:148] Top shape: 1 1 (1)
I0802 21:33:24.343047 15975 net.cpp:156] Memory required for data: 14012
I0802 21:33:24.343051 15975 layer_factory.hpp:77] Creating layer cont_1_lstm2_cont_slice_0_split
I0802 21:33:24.343060 15975 net.cpp:91] Creating Layer cont_1_lstm2_cont_slice_0_split
I0802 21:33:24.343063 15975 net.cpp:425] cont_1_lstm2_cont_slice_0_split <- cont_1
I0802 21:33:24.343070 15975 net.cpp:399] cont_1_lstm2_cont_slice_0_split -> cont_1_lstm2_cont_slice_0_split_0
I0802 21:33:24.343081 15975 net.cpp:399] cont_1_lstm2_cont_slice_0_split -> cont_1_lstm2_cont_slice_0_split_1
I0802 21:33:24.343133 15975 net.cpp:141] Setting up cont_1_lstm2_cont_slice_0_split
I0802 21:33:24.343142 15975 net.cpp:148] Top shape: 1 1 (1)
I0802 21:33:24.343148 15975 net.cpp:148] Top shape: 1 1 (1)
I0802 21:33:24.343152 15975 net.cpp:156] Memory required for data: 14020
I0802 21:33:24.343158 15975 layer_factory.hpp:77] Creating layer lstm2_x_transform
I0802 21:33:24.343170 15975 net.cpp:91] Creating Layer lstm2_x_transform
I0802 21:33:24.343175 15975 net.cpp:425] lstm2_x_transform <- x
I0802 21:33:24.343183 15975 net.cpp:399] lstm2_x_transform -> W_xc_x
I0802 21:33:24.393010 15985 net.cpp:141] Setting up fc6
I0802 21:33:24.393064 15985 net.cpp:148] Top shape: 10 4096 (40960)
I0802 21:33:24.393071 15985 net.cpp:156] Memory required for data: 67782200
I0802 21:33:24.393087 15985 layer_factory.hpp:77] Creating layer relu6
I0802 21:33:24.393102 15985 net.cpp:91] Creating Layer relu6
I0802 21:33:24.393110 15985 net.cpp:425] relu6 <- fc6
I0802 21:33:24.393118 15985 net.cpp:386] relu6 -> fc6 (in-place)
I0802 21:33:24.393501 15985 net.cpp:141] Setting up relu6
I0802 21:33:24.393513 15985 net.cpp:148] Top shape: 10 4096 (40960)
I0802 21:33:24.393518 15985 net.cpp:156] Memory required for data: 67946040
I0802 21:33:24.393523 15985 layer_factory.hpp:77] Creating layer drop6
I0802 21:33:24.393534 15985 net.cpp:91] Creating Layer drop6
I0802 21:33:24.393539 15985 net.cpp:425] drop6 <- fc6
I0802 21:33:24.393549 15985 net.cpp:386] drop6 -> fc6 (in-place)
I0802 21:33:24.393610 15985 net.cpp:141] Setting up drop6
I0802 21:33:24.393620 15985 net.cpp:148] Top shape: 10 4096 (40960)
I0802 21:33:24.393625 15985 net.cpp:156] Memory required for data: 68109880
I0802 21:33:24.393630 15985 layer_factory.hpp:77] Creating layer fc7
I0802 21:33:24.393646 15985 net.cpp:91] Creating Layer fc7
I0802 21:33:24.393651 15985 net.cpp:425] fc7 <- fc6
I0802 21:33:24.393658 15985 net.cpp:399] fc7 -> fc7
I0802 21:33:24.439126 15975 net.cpp:141] Setting up lstm2_x_transform
I0802 21:33:24.439182 15975 net.cpp:148] Top shape: 1 1 4000 (4000)
I0802 21:33:24.439188 15975 net.cpp:156] Memory required for data: 30020
I0802 21:33:24.439211 15975 layer_factory.hpp:77] Creating layer lstm2_W_xc_x_slice
I0802 21:33:24.439227 15975 net.cpp:91] Creating Layer lstm2_W_xc_x_slice
I0802 21:33:24.439235 15975 net.cpp:425] lstm2_W_xc_x_slice <- W_xc_x
I0802 21:33:24.439244 15975 net.cpp:399] lstm2_W_xc_x_slice -> W_xc_x_1
I0802 21:33:24.439299 15975 net.cpp:141] Setting up lstm2_W_xc_x_slice
I0802 21:33:24.439311 15975 net.cpp:148] Top shape: 1 1 4000 (4000)
I0802 21:33:24.439316 15975 net.cpp:156] Memory required for data: 46020
I0802 21:33:24.439321 15975 layer_factory.hpp:77] Creating layer lstm2_h_conted_0
I0802 21:33:24.439332 15975 net.cpp:91] Creating Layer lstm2_h_conted_0
I0802 21:33:24.439337 15975 net.cpp:425] lstm2_h_conted_0 <- h_0
I0802 21:33:24.439344 15975 net.cpp:425] lstm2_h_conted_0 <- cont_1_lstm2_cont_slice_0_split_0
I0802 21:33:24.439352 15975 net.cpp:399] lstm2_h_conted_0 -> h_conted_0
I0802 21:33:24.439461 15975 net.cpp:141] Setting up lstm2_h_conted_0
I0802 21:33:24.439471 15975 net.cpp:148] Top shape: 1 1 1000 (1000)
I0802 21:33:24.439476 15975 net.cpp:156] Memory required for data: 50020
I0802 21:33:24.439481 15975 layer_factory.hpp:77] Creating layer lstm2_transform_1
I0802 21:33:24.439494 15975 net.cpp:91] Creating Layer lstm2_transform_1
I0802 21:33:24.439501 15975 net.cpp:425] lstm2_transform_1 <- h_conted_0
I0802 21:33:24.439512 15975 net.cpp:399] lstm2_transform_1 -> W_hc_h_0
I0802 21:33:24.464747 15985 net.cpp:141] Setting up fc7
I0802 21:33:24.464800 15985 net.cpp:148] Top shape: 10 4096 (40960)
I0802 21:33:24.464807 15985 net.cpp:156] Memory required for data: 68273720
I0802 21:33:24.464823 15985 layer_factory.hpp:77] Creating layer relu7
I0802 21:33:24.464839 15985 net.cpp:91] Creating Layer relu7
I0802 21:33:24.464846 15985 net.cpp:425] relu7 <- fc7
I0802 21:33:24.464860 15985 net.cpp:386] relu7 -> fc7 (in-place)
I0802 21:33:24.465540 15985 net.cpp:141] Setting up relu7
I0802 21:33:24.465555 15985 net.cpp:148] Top shape: 10 4096 (40960)
I0802 21:33:24.465560 15985 net.cpp:156] Memory required for data: 68437560
I0802 21:33:24.465565 15985 layer_factory.hpp:77] Creating layer drop7
I0802 21:33:24.465576 15985 net.cpp:91] Creating Layer drop7
I0802 21:33:24.465581 15985 net.cpp:425] drop7 <- fc7
I0802 21:33:24.465593 15985 net.cpp:386] drop7 -> fc7 (in-place)
I0802 21:33:24.465638 15985 net.cpp:141] Setting up drop7
I0802 21:33:24.465651 15985 net.cpp:148] Top shape: 10 4096 (40960)
I0802 21:33:24.465656 15985 net.cpp:156] Memory required for data: 68601400
I0802 21:33:24.465662 15985 layer_factory.hpp:77] Creating layer fc8
I0802 21:33:24.465672 15985 net.cpp:91] Creating Layer fc8
I0802 21:33:24.465677 15985 net.cpp:425] fc8 <- fc7
I0802 21:33:24.465683 15985 net.cpp:399] fc8 -> fc8
I0802 21:33:24.483001 15985 net.cpp:141] Setting up fc8
I0802 21:33:24.483052 15985 net.cpp:148] Top shape: 10 1000 (10000)
I0802 21:33:24.483059 15985 net.cpp:156] Memory required for data: 68641400
I0802 21:33:24.483075 15985 layer_factory.hpp:77] Creating layer prob
I0802 21:33:24.483094 15985 net.cpp:91] Creating Layer prob
I0802 21:33:24.483103 15985 net.cpp:425] prob <- fc8
I0802 21:33:24.483113 15985 net.cpp:399] prob -> prob
I0802 21:33:24.483606 15985 net.cpp:141] Setting up prob
I0802 21:33:24.483620 15985 net.cpp:148] Top shape: 10 1000 (10000)
I0802 21:33:24.483625 15985 net.cpp:156] Memory required for data: 68681400
I0802 21:33:24.483630 15985 net.cpp:219] prob does not need backward computation.
I0802 21:33:24.483635 15985 net.cpp:219] fc8 does not need backward computation.
I0802 21:33:24.483640 15985 net.cpp:219] drop7 does not need backward computation.
I0802 21:33:24.483645 15985 net.cpp:219] relu7 does not need backward computation.
…
I0802 21:33:24.483724 15985 net.cpp:219] norm1 does not need backward computation.
I0802 21:33:24.483729 15985 net.cpp:219] pool1 does not need backward computation.
I0802 21:33:24.483736 15985 net.cpp:219] relu1 does not need backward computation.
I0802 21:33:24.483741 15985 net.cpp:219] conv1 does not need backward computation.
I0802 21:33:24.483744 15985 net.cpp:219] data does not need backward computation.
I0802 21:33:24.483748 15985 net.cpp:261] This network produces output prob
I0802 21:33:24.483773 15985 net.cpp:274] Network initialization done.
I0802 21:33:24.487048 15975 net.cpp:141] Setting up lstm2_transform_1
I0802 21:33:24.487082 15975 net.cpp:148] Top shape: 1 1 4000 (4000)
I0802 21:33:24.487088 15975 net.cpp:156] Memory required for data: 66020
I0802 21:33:24.487105 15975 layer_factory.hpp:77] Creating layer lstm2_gate_input_1
I0802 21:33:24.487123 15975 net.cpp:91] Creating Layer lstm2_gate_input_1
I0802 21:33:24.487129 15975 net.cpp:425] lstm2_gate_input_1 <- W_hc_h_0
I0802 21:33:24.487138 15975 net.cpp:425] lstm2_gate_input_1 <- W_xc_x_1
I0802 21:33:24.487149 15975 net.cpp:399] lstm2_gate_input_1 -> gate_input_1
I0802 21:33:24.487200 15975 net.cpp:141] Setting up lstm2_gate_input_1
I0802 21:33:24.487213 15975 net.cpp:148] Top shape: 1 1 4000 (4000)
I0802 21:33:24.487218 15975 net.cpp:156] Memory required for data: 82020
I0802 21:33:24.487223 15975 layer_factory.hpp:77] Creating layer lstm2_unit_1
I0802 21:33:24.487232 15975 net.cpp:91] Creating Layer lstm2_unit_1
I0802 21:33:24.487237 15975 net.cpp:425] lstm2_unit_1 <- c_0
I0802 21:33:24.487244 15975 net.cpp:425] lstm2_unit_1 <- gate_input_1
I0802 21:33:24.487249 15975 net.cpp:425] lstm2_unit_1 <- cont_1_lstm2_cont_slice_0_split_1
I0802 21:33:24.487256 15975 net.cpp:399] lstm2_unit_1 -> c_1
I0802 21:33:24.487264 15975 net.cpp:399] lstm2_unit_1 -> h_1
I0802 21:33:24.487335 15975 net.cpp:141] Setting up lstm2_unit_1
I0802 21:33:24.487345 15975 net.cpp:148] Top shape: 1 1 1000 (1000)
I0802 21:33:24.487351 15975 net.cpp:148] Top shape: 1 1 1000 (1000)
I0802 21:33:24.487355 15975 net.cpp:156] Memory required for data: 90020
I0802 21:33:24.487360 15975 layer_factory.hpp:77] Creating layer lstm2_
I0802 21:33:24.487370 15975 net.cpp:91] Creating Layer lstm2_
I0802 21:33:24.487375 15975 net.cpp:425] lstm2_ <- c_1
I0802 21:33:24.487382 15975 net.cpp:399] lstm2_ -> c_T
I0802 21:33:24.487416 15975 net.cpp:141] Setting up lstm2_
I0802 21:33:24.487423 15975 net.cpp:148] Top shape: 1 1 1000 (1000)
I0802 21:33:24.487428 15975 net.cpp:156] Memory required for data: 94020
I0802 21:33:24.487433 15975 layer_factory.hpp:77] Creating layer lstm2_h_concat
I0802 21:33:24.487447 15975 net.cpp:91] Creating Layer lstm2_h_concat
I0802 21:33:24.487452 15975 net.cpp:425] lstm2_h_concat <- h_1
I0802 21:33:24.487463 15975 net.cpp:399] lstm2_h_concat -> h
I0802 21:33:24.487498 15975 net.cpp:141] Setting up lstm2_h_concat
I0802 21:33:24.487507 15975 net.cpp:148] Top shape: 1 1 1000 (1000)
I0802 21:33:24.487511 15975 net.cpp:156] Memory required for data: 98020
I0802 21:33:24.487516 15975 layer_factory.hpp:77] Creating layer h_pseudoloss
I0802 21:33:24.487530 15975 net.cpp:91] Creating Layer h_pseudoloss
I0802 21:33:24.487535 15975 net.cpp:425] h_pseudoloss <- h
I0802 21:33:24.487542 15975 net.cpp:399] h_pseudoloss -> h_pseudoloss
I0802 21:33:24.487645 15975 net.cpp:141] Setting up h_pseudoloss
…
