…
Java HotSpot(TM) 64-Bit Server VM warning: You have loaded library /tmp/cvld2167132039715792899/libopencv_java310.xine1.so which might have disabled stack guard. The VM will try to fix the stack guard now.
It's highly recommended that you fix the library with 'execstack -c <libfile>', or link it with '-z noexecstack'.
WARNING: Logging before InitGoogleLogging() is written to STDERR
I0731 23:22:21.202679 22808 net.cpp:49] Initializing net from parameters: 
name: "CaffeNet"
state {
  phase: TEST
}
layer {
  name: "data"
  type: "Input"
  top: "data"
  input_param {
    shape {
      dim: 10
      dim: 3
      dim: 227
      dim: 227
    }
  }
}
layer {
  name: "conv1"
  type: "Convolution"
  bottom: "data"
  top: "conv1"
  convolution_param {
    num_output: 96
    kernel_size: 11
    stride: 4
  }
}
layer {
  name: "relu1"
  type: "ReLU"
  bottom: "conv1"
  top: "conv1"
}
layer {
  name: "pool1"
  type: "Pooling"
  bottom: "conv1"
  top: "pool1"
  pooling_param {
    pool: MAX
    kernel_size: 3
    stride: 2
  }
}
layer {
  name: "norm1"
  type: "LRN"
  bottom: "pool1"
  top: "norm1"
  lrn_param {
    local_size: 5
    alpha: 0.0001
    beta: 0.75
  }
}
layer {
  name: "conv2"
  type: "Convolution"
  bottom: "norm1"
  top: "conv2"
  convolution_param {
    num_output: 256
    pad: 2
    kernel_size: 5
    group: 2
  }
}
layer {
  name: "relu2"
  type: "ReLU"
  bottom: "conv2"
  top: "conv2"
}
layer {
  name: "pool2"
  type: "Pooling"
  bottom: "conv2"
  top: "pool2"
  pooling_param {
    pool: MAX
    kernel_size: 3
    stride: 2
  }
}
layer {
  name: "norm2"
  type: "LRN"
  bottom: "pool2"
  top: "norm2"
  lrn_param {
    local_size: 5
    alpha: 0.0001
    beta: 0.75
  }
}
layer {
  name: "conv3"
  type: "Convolution"
  bottom: "norm2"
  top: "conv3"
  convolution_param {
    num_output: 384
    pad: 1
    kernel_size: 3
  }
}
layer {
  name: "relu3"
  type: "ReLU"
  bottom: "conv3"
  top: "conv3"
}
layer {
  name: "conv4"
  type: "Convolution"
  bottom: "conv3"
  top: "conv4"
  convolution_param {
    num_output: 384
    pad: 1
    kernel_size: 3
    group: 2
  }
}
layer {
  name: "relu4"
  type: "ReLU"
  bottom: "conv4"
  top: "conv4"
}
layer {
  name: "conv5"
  type: "Convolution"
  bottom: "conv4"
  top: "conv5"
  convolution_param {
    num_output: 256
    pad: 1
    kernel_size: 3
    group: 2
  }
}
layer {
  name: "relu5"
  type: "ReLU"
  bottom: "conv5"
  top: "conv5"
}
layer {
  name: "pool5"
  type: "Pooling"
  bottom: "conv5"
  top: "pool5"
  pooling_param {
    pool: MAX
    kernel_size: 3
    stride: 2
  }
}
layer {
  name: "fc6"
  type: "InnerProduct"
  bottom: "pool5"
  top: "fc6"
  inner_product_param {
    num_output: 4096
  }
}
layer {
  name: "relu6"
  type: "ReLU"
  bottom: "fc6"
  top: "fc6"
}
layer {
  name: "drop6"
  type: "Dropout"
  bottom: "fc6"
  top: "fc6"
  dropout_param {
    dropout_ratio: 0.5
  }
}
layer {
  name: "fc7"
  type: "InnerProduct"
  bottom: "fc6"
  top: "fc7"
  inner_product_param {
    num_output: 4096
  }
}
layer {
  name: "relu7"
  type: "ReLU"
  bottom: "fc7"
  top: "fc7"
}
layer {
  name: "drop7"
  type: "Dropout"
  bottom: "fc7"
  top: "fc7"
  dropout_param {
    dropout_ratio: 0.5
  }
}
layer {
  name: "fc8"
  type: "InnerProduct"
  bottom: "fc7"
  top: "fc8"
  inner_product_param {
    num_output: 1000
  }
}
layer {
  name: "prob"
  type: "Softmax"
  bottom: "fc8"
  top: "prob"
}
I0731 23:22:21.202889 22808 layer_factory.hpp:77] Creating layer data
I0731 23:22:21.202919 22808 net.cpp:91] Creating Layer data
I0731 23:22:21.202929 22808 net.cpp:399] data -> data
I0731 23:22:21.726565 22808 net.cpp:141] Setting up data
I0731 23:22:21.726677 22808 net.cpp:148] Top shape: 10 3 227 227 (1545870)
I0731 23:22:21.726685 22808 net.cpp:156] Memory required for data: 6183480
I0731 23:22:21.726707 22808 layer_factory.hpp:77] Creating layer conv1
I0731 23:22:21.726745 22808 net.cpp:91] Creating Layer conv1
I0731 23:22:21.726754 22808 net.cpp:425] conv1 <- data
I0731 23:22:21.726770 22808 net.cpp:399] conv1 -> conv1
I0731 23:22:21.768550 22798 upgrade_proto.cpp:66] Attempting to upgrade input file specified using deprecated input fields: /tmp/cvld2167132039715792899/s2vt.words_to_preds.prototxt
I0731 23:22:21.768606 22798 upgrade_proto.cpp:69] Successfully upgraded file specified using deprecated input fields.
W0731 23:22:21.768615 22798 upgrade_proto.cpp:71] Note that future Caffe releases will only support input layers and not input fields.
I0731 23:22:21.768878 22798 net.cpp:49] Initializing net from parameters: 
name: "s2vt:features_to_lstm"
state {
  phase: TEST
}
layer {
  name: "input"
  type: "Input"
  top: "frames_fc7"
  top: "cont_sentence"
  top: "input_sentence"
  top: "stage_indicator"
  input_param {
    shape {
      dim: 1
      dim: 4096
    }
    shape {
      dim: 1
      dim: 1
    }
    shape {
      dim: 1
      dim: 1
    }
    shape {
      dim: 1
      dim: 1
    }
  }
}
layer {
  name: "embed_encoder"
  type: "InnerProduct"
  bottom: "frames_fc7"
  top: "embedded_in_frames"
  param {
    lr_mult: 1
    decay_mult: 1
  }
  param {
    lr_mult: 2
    decay_mult: 0
  }
  inner_product_param {
    num_output: 500
    weight_filler {
      type: "xavier"
    }
    bias_filler {
      type: "constant"
      value: 0.2
    }
  }
}
layer {
  name: "reshape_frames"
  type: "Reshape"
  bottom: "embedded_in_frames"
  top: "embedded_input_frames"
  reshape_param {
    shape {
      dim: 1
      dim: 1
      dim: 500
    }
  }
}
layer {
  name: "reshape_stage_indicator"
  type: "Reshape"
  bottom: "stage_indicator"
  top: "reshaped_stage_indicator"
  reshape_param {
    shape {
      dim: 1
      dim: 1
      dim: 1
    }
  }
}
layer {
  name: "embedding"
  type: "Embed"
  bottom: "input_sentence"
  top: "embedded_input_sentence"
  param {
    lr_mult: 1
  }
  embed_param {
    num_output: 500
    input_dim: 46168
    bias_term: false
    weight_filler {
      type: "uniform"
      min: -0.08
      max: 0.08
    }
  }
}
layer {
  name: "lstm1"
  type: "LSTM"
  bottom: "embedded_input_frames"
  bottom: "cont_sentence"
  top: "lstm1"
  recurrent_param {
    num_output: 1000
    weight_filler {
      type: "uniform"
      min: -0.08
      max: 0.08
    }
    bias_filler {
      type: "constant"
      value: 0
    }
  }
}
layer {
  name: "concat"
  type: "Concat"
  bottom: "lstm1"
  bottom: "embedded_input_sentence"
  bottom: "reshaped_stage_indicator"
  top: "lstm1_video_sequence"
  concat_param {
    concat_dim: 2
  }
}
layer {
  name: "lstm2"
  type: "LSTM"
  bottom: "lstm1_video_sequence"
  bottom: "cont_sentence"
  top: "lstm2"
  recurrent_param {
    num_output: 1000
    weight_filler {
      type: "uniform"
      min: -0.08
      max: 0.08
    }
    bias_filler {
      type: "constant"
      value: 0
    }
  }
}
layer {
  name: "predict"
  type: "InnerProduct"
  bottom: "lstm2"
  top: "predict"
  param {
    lr_mult: 1
    decay_mult: 1
  }
  param {
    lr_mult: 2
    decay_mult: 0
  }
  inner_product_param {
    num_output: 46168
    weight_filler {
      type: "uniform"
      min: -0.08
      max: 0.08
    }
    bias_filler {
      type: "constant"
      value: 0
    }
    axis: 2
  }
}
layer {
  name: "probs"
  type: "Softmax"
  bottom: "predict"
  top: "probs"
  softmax_param {
    axis: 2
  }
}
I0731 23:22:21.768980 22798 layer_factory.hpp:77] Creating layer input
I0731 23:22:21.768995 22798 net.cpp:91] Creating Layer input
I0731 23:22:21.769003 22798 net.cpp:399] input -> frames_fc7
I0731 23:22:21.769022 22798 net.cpp:399] input -> cont_sentence
I0731 23:22:21.769032 22798 net.cpp:399] input -> input_sentence
I0731 23:22:21.769042 22798 net.cpp:399] input -> stage_indicator
I0731 23:22:21.770246 22798 net.cpp:141] Setting up input
I0731 23:22:21.770264 22798 net.cpp:148] Top shape: 1 4096 (4096)
I0731 23:22:21.770272 22798 net.cpp:148] Top shape: 1 1 (1)
I0731 23:22:21.770277 22798 net.cpp:148] Top shape: 1 1 (1)
I0731 23:22:21.770282 22798 net.cpp:148] Top shape: 1 1 (1)
I0731 23:22:21.770287 22798 net.cpp:156] Memory required for data: 16396
I0731 23:22:21.770292 22798 layer_factory.hpp:77] Creating layer cont_sentence_input_1_split
I0731 23:22:21.770315 22798 net.cpp:91] Creating Layer cont_sentence_input_1_split
I0731 23:22:21.770321 22798 net.cpp:425] cont_sentence_input_1_split <- cont_sentence
I0731 23:22:21.770341 22798 net.cpp:399] cont_sentence_input_1_split -> cont_sentence_input_1_split_0
I0731 23:22:21.770354 22798 net.cpp:399] cont_sentence_input_1_split -> cont_sentence_input_1_split_1
I0731 23:22:21.774143 22798 net.cpp:141] Setting up cont_sentence_input_1_split
I0731 23:22:21.774164 22798 net.cpp:148] Top shape: 1 1 (1)
I0731 23:22:21.774171 22798 net.cpp:148] Top shape: 1 1 (1)
I0731 23:22:21.774175 22798 net.cpp:156] Memory required for data: 16404
I0731 23:22:21.774181 22798 layer_factory.hpp:77] Creating layer embed_encoder
I0731 23:22:21.774202 22798 net.cpp:91] Creating Layer embed_encoder
I0731 23:22:21.774209 22798 net.cpp:425] embed_encoder <- frames_fc7
I0731 23:22:21.774217 22798 net.cpp:399] embed_encoder -> embedded_in_frames
I0731 23:22:21.798408 22798 net.cpp:141] Setting up embed_encoder
I0731 23:22:21.798454 22798 net.cpp:148] Top shape: 1 500 (500)
I0731 23:22:21.798460 22798 net.cpp:156] Memory required for data: 18404
I0731 23:22:21.798490 22798 layer_factory.hpp:77] Creating layer reshape_frames
I0731 23:22:21.798521 22798 net.cpp:91] Creating Layer reshape_frames
I0731 23:22:21.798529 22798 net.cpp:425] reshape_frames <- embedded_in_frames
I0731 23:22:21.798540 22798 net.cpp:399] reshape_frames -> embedded_input_frames
I0731 23:22:21.798622 22798 net.cpp:141] Setting up reshape_frames
I0731 23:22:21.798632 22798 net.cpp:148] Top shape: 1 1 500 (500)
I0731 23:22:21.798636 22798 net.cpp:156] Memory required for data: 20404
I0731 23:22:21.798641 22798 layer_factory.hpp:77] Creating layer reshape_stage_indicator
I0731 23:22:21.798652 22798 net.cpp:91] Creating Layer reshape_stage_indicator
I0731 23:22:21.798657 22798 net.cpp:425] reshape_stage_indicator <- stage_indicator
I0731 23:22:21.798669 22798 net.cpp:399] reshape_stage_indicator -> reshaped_stage_indicator
I0731 23:22:21.800221 22798 net.cpp:141] Setting up reshape_stage_indicator
I0731 23:22:21.800241 22798 net.cpp:148] Top shape: 1 1 1 (1)
I0731 23:22:21.800247 22798 net.cpp:156] Memory required for data: 20408
I0731 23:22:21.800252 22798 layer_factory.hpp:77] Creating layer embedding
I0731 23:22:21.800266 22798 net.cpp:91] Creating Layer embedding
I0731 23:22:21.800271 22798 net.cpp:425] embedding <- input_sentence
I0731 23:22:21.800283 22798 net.cpp:399] embedding -> embedded_input_sentence
I0731 23:22:21.998420 22808 net.cpp:141] Setting up conv1
I0731 23:22:21.998476 22808 net.cpp:148] Top shape: 10 96 55 55 (2904000)
I0731 23:22:21.998483 22808 net.cpp:156] Memory required for data: 17799480
I0731 23:22:21.998507 22808 layer_factory.hpp:77] Creating layer relu1
I0731 23:22:21.998527 22808 net.cpp:91] Creating Layer relu1
I0731 23:22:21.998533 22808 net.cpp:425] relu1 <- conv1
I0731 23:22:21.998543 22808 net.cpp:386] relu1 -> conv1 (in-place)
I0731 23:22:21.999012 22808 net.cpp:141] Setting up relu1
I0731 23:22:21.999027 22808 net.cpp:148] Top shape: 10 96 55 55 (2904000)
I0731 23:22:21.999033 22808 net.cpp:156] Memory required for data: 29415480
I0731 23:22:21.999039 22808 layer_factory.hpp:77] Creating layer pool1
I0731 23:22:21.999053 22808 net.cpp:91] Creating Layer pool1
I0731 23:22:21.999058 22808 net.cpp:425] pool1 <- conv1
I0731 23:22:21.999066 22808 net.cpp:399] pool1 -> pool1
I0731 23:22:21.999138 22808 net.cpp:141] Setting up pool1
I0731 23:22:21.999150 22808 net.cpp:148] Top shape: 10 96 27 27 (699840)
I0731 23:22:21.999155 22808 net.cpp:156] Memory required for data: 32214840
I0731 23:22:21.999161 22808 layer_factory.hpp:77] Creating layer norm1
I0731 23:22:21.999177 22808 net.cpp:91] Creating Layer norm1
I0731 23:22:21.999183 22808 net.cpp:425] norm1 <- pool1
I0731 23:22:21.999191 22808 net.cpp:399] norm1 -> norm1
I0731 23:22:21.999709 22808 net.cpp:141] Setting up norm1
I0731 23:22:21.999724 22808 net.cpp:148] Top shape: 10 96 27 27 (699840)
I0731 23:22:21.999730 22808 net.cpp:156] Memory required for data: 35014200
I0731 23:22:21.999737 22808 layer_factory.hpp:77] Creating layer conv2
I0731 23:22:21.999753 22808 net.cpp:91] Creating Layer conv2
I0731 23:22:21.999759 22808 net.cpp:425] conv2 <- norm1
I0731 23:22:21.999768 22808 net.cpp:399] conv2 -> conv2
I0731 23:22:22.003187 22808 net.cpp:141] Setting up conv2
I0731 23:22:22.003212 22808 net.cpp:148] Top shape: 10 256 27 27 (1866240)
I0731 23:22:22.003219 22808 net.cpp:156] Memory required for data: 42479160
I0731 23:22:22.003233 22808 layer_factory.hpp:77] Creating layer relu2
I0731 23:22:22.003244 22808 net.cpp:91] Creating Layer relu2
I0731 23:22:22.003250 22808 net.cpp:425] relu2 <- conv2
I0731 23:22:22.003258 22808 net.cpp:386] relu2 -> conv2 (in-place)
I0731 23:22:22.003733 22808 net.cpp:141] Setting up relu2
I0731 23:22:22.003748 22808 net.cpp:148] Top shape: 10 256 27 27 (1866240)
I0731 23:22:22.003753 22808 net.cpp:156] Memory required for data: 49944120
I0731 23:22:22.003760 22808 layer_factory.hpp:77] Creating layer pool2
I0731 23:22:22.003770 22808 net.cpp:91] Creating Layer pool2
I0731 23:22:22.003775 22808 net.cpp:425] pool2 <- conv2
I0731 23:22:22.003784 22808 net.cpp:399] pool2 -> pool2
I0731 23:22:22.003840 22808 net.cpp:141] Setting up pool2
I0731 23:22:22.003850 22808 net.cpp:148] Top shape: 10 256 13 13 (432640)
I0731 23:22:22.003855 22808 net.cpp:156] Memory required for data: 51674680
I0731 23:22:22.003860 22808 layer_factory.hpp:77] Creating layer norm2
I0731 23:22:22.003872 22808 net.cpp:91] Creating Layer norm2
I0731 23:22:22.003877 22808 net.cpp:425] norm2 <- pool2
I0731 23:22:22.003885 22808 net.cpp:399] norm2 -> norm2
I0731 23:22:22.004163 22808 net.cpp:141] Setting up norm2
I0731 23:22:22.004178 22808 net.cpp:148] Top shape: 10 256 13 13 (432640)
I0731 23:22:22.004182 22808 net.cpp:156] Memory required for data: 53405240
I0731 23:22:22.004189 22808 layer_factory.hpp:77] Creating layer conv3
I0731 23:22:22.004200 22808 net.cpp:91] Creating Layer conv3
I0731 23:22:22.004206 22808 net.cpp:425] conv3 <- norm2
I0731 23:22:22.004215 22808 net.cpp:399] conv3 -> conv3
I0731 23:22:22.008555 22808 net.cpp:141] Setting up conv3
I0731 23:22:22.008591 22808 net.cpp:148] Top shape: 10 384 13 13 (648960)
I0731 23:22:22.008597 22808 net.cpp:156] Memory required for data: 56001080
I0731 23:22:22.008615 22808 layer_factory.hpp:77] Creating layer relu3
I0731 23:22:22.008627 22808 net.cpp:91] Creating Layer relu3
I0731 23:22:22.008633 22808 net.cpp:425] relu3 <- conv3
I0731 23:22:22.008644 22808 net.cpp:386] relu3 -> conv3 (in-place)
I0731 23:22:22.009135 22808 net.cpp:141] Setting up relu3
I0731 23:22:22.009148 22808 net.cpp:148] Top shape: 10 384 13 13 (648960)
I0731 23:22:22.009155 22808 net.cpp:156] Memory required for data: 58596920
I0731 23:22:22.009160 22808 layer_factory.hpp:77] Creating layer conv4
I0731 23:22:22.009176 22808 net.cpp:91] Creating Layer conv4
I0731 23:22:22.009181 22808 net.cpp:425] conv4 <- conv3
I0731 23:22:22.009191 22808 net.cpp:399] conv4 -> conv4
I0731 23:22:22.013759 22808 net.cpp:141] Setting up conv4
I0731 23:22:22.013782 22808 net.cpp:148] Top shape: 10 384 13 13 (648960)
I0731 23:22:22.013788 22808 net.cpp:156] Memory required for data: 61192760
I0731 23:22:22.013798 22808 layer_factory.hpp:77] Creating layer relu4
I0731 23:22:22.013813 22808 net.cpp:91] Creating Layer relu4
I0731 23:22:22.013819 22808 net.cpp:425] relu4 <- conv4
I0731 23:22:22.013828 22808 net.cpp:386] relu4 -> conv4 (in-place)
I0731 23:22:22.014339 22808 net.cpp:141] Setting up relu4
I0731 23:22:22.014353 22808 net.cpp:148] Top shape: 10 384 13 13 (648960)
I0731 23:22:22.014359 22808 net.cpp:156] Memory required for data: 63788600
I0731 23:22:22.014364 22808 layer_factory.hpp:77] Creating layer conv5
I0731 23:22:22.014381 22808 net.cpp:91] Creating Layer conv5
I0731 23:22:22.014387 22808 net.cpp:425] conv5 <- conv4
I0731 23:22:22.014399 22808 net.cpp:399] conv5 -> conv5
I0731 23:22:22.019122 22808 net.cpp:141] Setting up conv5
I0731 23:22:22.019167 22808 net.cpp:148] Top shape: 10 256 13 13 (432640)
I0731 23:22:22.019175 22808 net.cpp:156] Memory required for data: 65519160
I0731 23:22:22.019197 22808 layer_factory.hpp:77] Creating layer relu5
I0731 23:22:22.019218 22808 net.cpp:91] Creating Layer relu5
I0731 23:22:22.019225 22808 net.cpp:425] relu5 <- conv5
I0731 23:22:22.019234 22808 net.cpp:386] relu5 -> conv5 (in-place)
I0731 23:22:22.019716 22808 net.cpp:141] Setting up relu5
I0731 23:22:22.019728 22808 net.cpp:148] Top shape: 10 256 13 13 (432640)
I0731 23:22:22.019733 22808 net.cpp:156] Memory required for data: 67249720
I0731 23:22:22.019738 22808 layer_factory.hpp:77] Creating layer pool5
I0731 23:22:22.019753 22808 net.cpp:91] Creating Layer pool5
I0731 23:22:22.019758 22808 net.cpp:425] pool5 <- conv5
I0731 23:22:22.019765 22808 net.cpp:399] pool5 -> pool5
I0731 23:22:22.019834 22808 net.cpp:141] Setting up pool5
I0731 23:22:22.019843 22808 net.cpp:148] Top shape: 10 256 6 6 (92160)
I0731 23:22:22.019848 22808 net.cpp:156] Memory required for data: 67618360
I0731 23:22:22.019852 22808 layer_factory.hpp:77] Creating layer fc6
I0731 23:22:22.019870 22808 net.cpp:91] Creating Layer fc6
I0731 23:22:22.019875 22808 net.cpp:425] fc6 <- pool5
I0731 23:22:22.019882 22808 net.cpp:399] fc6 -> fc6
I0731 23:22:22.085783 22798 net.cpp:141] Setting up embedding
I0731 23:22:22.085836 22798 net.cpp:148] Top shape: 1 1 500 (500)
I0731 23:22:22.085842 22798 net.cpp:156] Memory required for data: 22408
I0731 23:22:22.085863 22798 layer_factory.hpp:77] Creating layer lstm1
I0731 23:22:22.085883 22798 net.cpp:91] Creating Layer lstm1
I0731 23:22:22.085891 22798 net.cpp:425] lstm1 <- embedded_input_frames
I0731 23:22:22.085906 22798 net.cpp:425] lstm1 <- cont_sentence_input_1_split_0
I0731 23:22:22.085914 22798 net.cpp:399] lstm1 -> lstm1
I0731 23:22:22.085943 22798 recurrent_layer.cpp:20] Initializing recurrent layer: assuming input batch contains 1 timesteps of 1 independent streams.
I0731 23:22:22.086489 22798 net.cpp:49] Initializing net from parameters: 
layer {
  name: "lstm1_"
  type: "Input"
  top: "x"
  top: "cont"
  input_param {
    shape {
      dim: 1
      dim: 1
      dim: 500
    }
    shape {
      dim: 1
      dim: 1
    }
  }
}
layer {
  name: "lstm1_"
  type: "Input"
  top: "c_0"
  top: "h_0"
  input_param {
    shape {
      dim: 1
      dim: 1
      dim: 1000
    }
    shape {
      dim: 1
      dim: 1
      dim: 1000
    }
  }
}
layer {
  name: "lstm1_cont_slice"
  type: "Slice"
  bottom: "cont"
  top: "cont_1"
  slice_param {
    axis: 0
  }
}
layer {
  name: "lstm1_x_transform"
  type: "InnerProduct"
  bottom: "x"
  top: "W_xc_x"
  param {
    name: "W_xc"
  }
  param {
    name: "b_c"
  }
  propagate_down: true
  inner_product_param {
    num_output: 4000
    bias_term: true
    weight_filler {
      type: "uniform"
      min: -0.08
      max: 0.08
    }
    bias_filler {
      type: "constant"
      value: 0
    }
    axis: 2
  }
}
layer {
  name: "lstm1_W_xc_x_slice"
  type: "Slice"
  bottom: "W_xc_x"
  top: "W_xc_x_1"
  slice_param {
    axis: 0
  }
}
layer {
  name: "lstm1_h_conted_0"
  type: "Scale"
  bottom: "h_0"
  bottom: "cont_1"
  top: "h_conted_0"
  scale_param {
    axis: 0
  }
}
layer {
  name: "lstm1_transform_1"
  type: "InnerProduct"
  bottom: "h_conted_0"
  top: "W_hc_h_0"
  param {
    name: "W_hc"
  }
  inner_product_param {
    num_output: 4000
    bias_term: false
    weight_filler {
      type: "uniform"
      min: -0.08
      max: 0.08
    }
    axis: 2
  }
}
layer {
  name: "lstm1_gate_input_1"
  type: "Eltwise"
  bottom: "W_hc_h_0"
  bottom: "W_xc_x_1"
  top: "gate_input_1"
  eltwise_param {
    operation: SUM
  }
}
layer {
  name: "lstm1_unit_1"
  type: "LSTMUnit"
  bottom: "c_0"
  bottom: "gate_input_1"
  bottom: "cont_1"
  top: "c_1"
  top: "h_1"
}
layer {
  name: "lstm1_"
  type: "Split"
  bottom: "c_1"
  top: "c_T"
}
layer {
  name: "lstm1_h_concat"
  type: "Concat"
  bottom: "h_1"
  top: "h"
  concat_param {
    axis: 0
  }
}
layer {
  name: "h_pseudoloss"
  type: "Reduction"
  bottom: "h"
  top: "h_pseudoloss"
  loss_weight: 1
}
I0731 23:22:22.086638 22798 layer_factory.hpp:77] Creating layer lstm1_
I0731 23:22:22.086661 22798 net.cpp:91] Creating Layer lstm1_
I0731 23:22:22.086674 22798 net.cpp:399] lstm1_ -> x
I0731 23:22:22.086694 22798 net.cpp:399] lstm1_ -> cont
I0731 23:22:22.086810 22798 net.cpp:141] Setting up lstm1_
I0731 23:22:22.086828 22798 net.cpp:148] Top shape: 1 1 500 (500)
I0731 23:22:22.086839 22798 net.cpp:148] Top shape: 1 1 (1)
I0731 23:22:22.086848 22798 net.cpp:156] Memory required for data: 2004
I0731 23:22:22.086856 22798 layer_factory.hpp:77] Creating layer lstm1_
I0731 23:22:22.086875 22798 net.cpp:91] Creating Layer lstm1_
I0731 23:22:22.086886 22798 net.cpp:399] lstm1_ -> c_0
I0731 23:22:22.086904 22798 net.cpp:399] lstm1_ -> h_0
I0731 23:22:22.086993 22798 net.cpp:141] Setting up lstm1_
I0731 23:22:22.087010 22798 net.cpp:148] Top shape: 1 1 1000 (1000)
I0731 23:22:22.087021 22798 net.cpp:148] Top shape: 1 1 1000 (1000)
I0731 23:22:22.087028 22798 net.cpp:156] Memory required for data: 10004
I0731 23:22:22.087038 22798 layer_factory.hpp:77] Creating layer lstm1_cont_slice
I0731 23:22:22.087051 22798 net.cpp:91] Creating Layer lstm1_cont_slice
I0731 23:22:22.087060 22798 net.cpp:425] lstm1_cont_slice <- cont
I0731 23:22:22.087076 22798 net.cpp:399] lstm1_cont_slice -> cont_1
I0731 23:22:22.087131 22798 net.cpp:141] Setting up lstm1_cont_slice
I0731 23:22:22.087143 22798 net.cpp:148] Top shape: 1 1 (1)
I0731 23:22:22.087147 22798 net.cpp:156] Memory required for data: 10008
I0731 23:22:22.087152 22798 layer_factory.hpp:77] Creating layer cont_1_lstm1_cont_slice_0_split
I0731 23:22:22.087163 22798 net.cpp:91] Creating Layer cont_1_lstm1_cont_slice_0_split
I0731 23:22:22.087168 22798 net.cpp:425] cont_1_lstm1_cont_slice_0_split <- cont_1
I0731 23:22:22.087175 22798 net.cpp:399] cont_1_lstm1_cont_slice_0_split -> cont_1_lstm1_cont_slice_0_split_0
I0731 23:22:22.087185 22798 net.cpp:399] cont_1_lstm1_cont_slice_0_split -> cont_1_lstm1_cont_slice_0_split_1
I0731 23:22:22.087244 22798 net.cpp:141] Setting up cont_1_lstm1_cont_slice_0_split
I0731 23:22:22.087258 22798 net.cpp:148] Top shape: 1 1 (1)
I0731 23:22:22.087267 22798 net.cpp:148] Top shape: 1 1 (1)
I0731 23:22:22.087271 22798 net.cpp:156] Memory required for data: 10016
I0731 23:22:22.087276 22798 layer_factory.hpp:77] Creating layer lstm1_x_transform
I0731 23:22:22.087286 22798 net.cpp:91] Creating Layer lstm1_x_transform
I0731 23:22:22.087291 22798 net.cpp:425] lstm1_x_transform <- x
I0731 23:22:22.087302 22798 net.cpp:399] lstm1_x_transform -> W_xc_x
I0731 23:22:22.108036 22798 net.cpp:141] Setting up lstm1_x_transform
I0731 23:22:22.108098 22798 net.cpp:148] Top shape: 1 1 4000 (4000)
I0731 23:22:22.108103 22798 net.cpp:156] Memory required for data: 26016
I0731 23:22:22.108132 22798 layer_factory.hpp:77] Creating layer lstm1_W_xc_x_slice
I0731 23:22:22.108150 22798 net.cpp:91] Creating Layer lstm1_W_xc_x_slice
I0731 23:22:22.108155 22798 net.cpp:425] lstm1_W_xc_x_slice <- W_xc_x
I0731 23:22:22.108165 22798 net.cpp:399] lstm1_W_xc_x_slice -> W_xc_x_1
I0731 23:22:22.108214 22798 net.cpp:141] Setting up lstm1_W_xc_x_slice
I0731 23:22:22.108224 22798 net.cpp:148] Top shape: 1 1 4000 (4000)
I0731 23:22:22.108228 22798 net.cpp:156] Memory required for data: 42016
I0731 23:22:22.108232 22798 layer_factory.hpp:77] Creating layer lstm1_h_conted_0
I0731 23:22:22.108243 22798 net.cpp:91] Creating Layer lstm1_h_conted_0
I0731 23:22:22.108248 22798 net.cpp:425] lstm1_h_conted_0 <- h_0
I0731 23:22:22.108254 22798 net.cpp:425] lstm1_h_conted_0 <- cont_1_lstm1_cont_slice_0_split_0
I0731 23:22:22.108261 22798 net.cpp:399] lstm1_h_conted_0 -> h_conted_0
I0731 23:22:22.108355 22798 net.cpp:141] Setting up lstm1_h_conted_0
I0731 23:22:22.108363 22798 net.cpp:148] Top shape: 1 1 1000 (1000)
I0731 23:22:22.108367 22798 net.cpp:156] Memory required for data: 46016
I0731 23:22:22.108372 22798 layer_factory.hpp:77] Creating layer lstm1_transform_1
I0731 23:22:22.108386 22798 net.cpp:91] Creating Layer lstm1_transform_1
I0731 23:22:22.108389 22798 net.cpp:425] lstm1_transform_1 <- h_conted_0
I0731 23:22:22.108397 22798 net.cpp:399] lstm1_transform_1 -> W_hc_h_0
I0731 23:22:22.125484 22808 net.cpp:141] Setting up fc6
I0731 23:22:22.125531 22808 net.cpp:148] Top shape: 10 4096 (40960)
I0731 23:22:22.125537 22808 net.cpp:156] Memory required for data: 67782200
I0731 23:22:22.125552 22808 layer_factory.hpp:77] Creating layer relu6
I0731 23:22:22.125568 22808 net.cpp:91] Creating Layer relu6
I0731 23:22:22.125574 22808 net.cpp:425] relu6 <- fc6
I0731 23:22:22.125586 22808 net.cpp:386] relu6 -> fc6 (in-place)
I0731 23:22:22.125918 22808 net.cpp:141] Setting up relu6
I0731 23:22:22.125929 22808 net.cpp:148] Top shape: 10 4096 (40960)
I0731 23:22:22.125934 22808 net.cpp:156] Memory required for data: 67946040
I0731 23:22:22.125942 22808 layer_factory.hpp:77] Creating layer drop6
I0731 23:22:22.125967 22808 net.cpp:91] Creating Layer drop6
I0731 23:22:22.125972 22808 net.cpp:425] drop6 <- fc6
I0731 23:22:22.125979 22808 net.cpp:386] drop6 -> fc6 (in-place)
I0731 23:22:22.126030 22808 net.cpp:141] Setting up drop6
I0731 23:22:22.126039 22808 net.cpp:148] Top shape: 10 4096 (40960)
I0731 23:22:22.126045 22808 net.cpp:156] Memory required for data: 68109880
I0731 23:22:22.126050 22808 layer_factory.hpp:77] Creating layer fc7
I0731 23:22:22.126061 22808 net.cpp:91] Creating Layer fc7
I0731 23:22:22.126066 22808 net.cpp:425] fc7 <- fc6
I0731 23:22:22.126078 22808 net.cpp:399] fc7 -> fc7
I0731 23:22:22.156285 22798 net.cpp:141] Setting up lstm1_transform_1
I0731 23:22:22.156337 22798 net.cpp:148] Top shape: 1 1 4000 (4000)
I0731 23:22:22.156343 22798 net.cpp:156] Memory required for data: 62016
I0731 23:22:22.156364 22798 layer_factory.hpp:77] Creating layer lstm1_gate_input_1
I0731 23:22:22.156388 22798 net.cpp:91] Creating Layer lstm1_gate_input_1
I0731 23:22:22.156394 22798 net.cpp:425] lstm1_gate_input_1 <- W_hc_h_0
I0731 23:22:22.156404 22798 net.cpp:425] lstm1_gate_input_1 <- W_xc_x_1
I0731 23:22:22.156410 22798 net.cpp:399] lstm1_gate_input_1 -> gate_input_1
I0731 23:22:22.156472 22798 net.cpp:141] Setting up lstm1_gate_input_1
I0731 23:22:22.156482 22798 net.cpp:148] Top shape: 1 1 4000 (4000)
I0731 23:22:22.156486 22798 net.cpp:156] Memory required for data: 78016
I0731 23:22:22.156491 22798 layer_factory.hpp:77] Creating layer lstm1_unit_1
I0731 23:22:22.156499 22798 net.cpp:91] Creating Layer lstm1_unit_1
I0731 23:22:22.156504 22798 net.cpp:425] lstm1_unit_1 <- c_0
I0731 23:22:22.156510 22798 net.cpp:425] lstm1_unit_1 <- gate_input_1
I0731 23:22:22.156515 22798 net.cpp:425] lstm1_unit_1 <- cont_1_lstm1_cont_slice_0_split_1
I0731 23:22:22.156524 22798 net.cpp:399] lstm1_unit_1 -> c_1
I0731 23:22:22.156533 22798 net.cpp:399] lstm1_unit_1 -> h_1
I0731 23:22:22.156594 22798 net.cpp:141] Setting up lstm1_unit_1
I0731 23:22:22.156604 22798 net.cpp:148] Top shape: 1 1 1000 (1000)
I0731 23:22:22.156608 22798 net.cpp:148] Top shape: 1 1 1000 (1000)
I0731 23:22:22.156612 22798 net.cpp:156] Memory required for data: 86016
I0731 23:22:22.156617 22798 layer_factory.hpp:77] Creating layer lstm1_
I0731 23:22:22.156627 22798 net.cpp:91] Creating Layer lstm1_
I0731 23:22:22.156632 22798 net.cpp:425] lstm1_ <- c_1
I0731 23:22:22.156639 22798 net.cpp:399] lstm1_ -> c_T
I0731 23:22:22.156668 22798 net.cpp:141] Setting up lstm1_
I0731 23:22:22.156677 22798 net.cpp:148] Top shape: 1 1 1000 (1000)
I0731 23:22:22.156682 22798 net.cpp:156] Memory required for data: 90016
I0731 23:22:22.156685 22798 layer_factory.hpp:77] Creating layer lstm1_h_concat
I0731 23:22:22.156695 22798 net.cpp:91] Creating Layer lstm1_h_concat
I0731 23:22:22.156699 22798 net.cpp:425] lstm1_h_concat <- h_1
I0731 23:22:22.156709 22798 net.cpp:399] lstm1_h_concat -> h
I0731 23:22:22.156744 22798 net.cpp:141] Setting up lstm1_h_concat
I0731 23:22:22.156754 22798 net.cpp:148] Top shape: 1 1 1000 (1000)
I0731 23:22:22.156757 22798 net.cpp:156] Memory required for data: 94016
I0731 23:22:22.156761 22798 layer_factory.hpp:77] Creating layer h_pseudoloss
I0731 23:22:22.156783 22798 net.cpp:91] Creating Layer h_pseudoloss
I0731 23:22:22.156788 22798 net.cpp:425] h_pseudoloss <- h
I0731 23:22:22.156795 22798 net.cpp:399] h_pseudoloss -> h_pseudoloss
I0731 23:22:22.156893 22798 net.cpp:141] Setting up h_pseudoloss
…
I0731 23:22:22.157018 22798 net.cpp:219] lstm1_ does not need backward computation.
I0731 23:22:22.157021 22798 net.cpp:261] This network produces output c_T
I0731 23:22:22.157027 22798 net.cpp:261] This network produces output h_pseudoloss
I0731 23:22:22.157043 22798 net.cpp:274] Network initialization done.
I0731 23:22:22.157106 22798 recurrent_layer.cpp:150] Adding parameter 0: W_xc
I0731 23:22:22.157114 22798 recurrent_layer.cpp:150] Adding parameter 1: b_c
I0731 23:22:22.157119 22798 recurrent_layer.cpp:150] Adding parameter 2: W_hc
I0731 23:22:22.157260 22798 net.cpp:141] Setting up lstm1
I0731 23:22:22.157274 22798 net.cpp:148] Top shape: 1 1 1000 (1000)
I0731 23:22:22.157279 22798 net.cpp:156] Memory required for data: 26408
I0731 23:22:22.157292 22798 layer_factory.hpp:77] Creating layer concat
I0731 23:22:22.157302 22798 net.cpp:91] Creating Layer concat
I0731 23:22:22.157308 22798 net.cpp:425] concat <- lstm1
I0731 23:22:22.157315 22798 net.cpp:425] concat <- embedded_input_sentence
I0731 23:22:22.157320 22798 net.cpp:425] concat <- reshaped_stage_indicator
I0731 23:22:22.157325 22798 net.cpp:399] concat -> lstm1_video_sequence
I0731 23:22:22.157358 22798 net.cpp:141] Setting up concat
I0731 23:22:22.157366 22798 net.cpp:148] Top shape: 1 1 1501 (1501)
I0731 23:22:22.157371 22798 net.cpp:156] Memory required for data: 32412
I0731 23:22:22.157376 22798 layer_factory.hpp:77] Creating layer lstm2
I0731 23:22:22.157388 22798 net.cpp:91] Creating Layer lstm2
I0731 23:22:22.157393 22798 net.cpp:425] lstm2 <- lstm1_video_sequence
I0731 23:22:22.157399 22798 net.cpp:425] lstm2 <- cont_sentence_input_1_split_1
I0731 23:22:22.157407 22798 net.cpp:399] lstm2 -> lstm2
I0731 23:22:22.157424 22798 recurrent_layer.cpp:20] Initializing recurrent layer: assuming input batch contains 1 timesteps of 1 independent streams.
I0731 23:22:22.157721 22798 net.cpp:49] Initializing net from parameters: 
layer {
  name: "lstm2_"
  type: "Input"
  top: "x"
  top: "cont"
  input_param {
    shape {
      dim: 1
      dim: 1
      dim: 1501
    }
    shape {
      dim: 1
      dim: 1
    }
  }
}
layer {
  name: "lstm2_"
  type: "Input"
  top: "c_0"
  top: "h_0"
  input_param {
    shape {
      dim: 1
      dim: 1
      dim: 1000
    }
    shape {
      dim: 1
      dim: 1
      dim: 1000
    }
  }
}
layer {
  name: "lstm2_cont_slice"
  type: "Slice"
  bottom: "cont"
  top: "cont_1"
  slice_param {
    axis: 0
  }
}
layer {
  name: "lstm2_x_transform"
  type: "InnerProduct"
  bottom: "x"
  top: "W_xc_x"
  param {
    name: "W_xc"
  }
  param {
    name: "b_c"
  }
  propagate_down: true
  inner_product_param {
    num_output: 4000
    bias_term: true
    weight_filler {
      type: "uniform"
      min: -0.08
      max: 0.08
    }
    bias_filler {
      type: "constant"
      value: 0
    }
    axis: 2
  }
}
layer {
  name: "lstm2_W_xc_x_slice"
  type: "Slice"
  bottom: "W_xc_x"
  top: "W_xc_x_1"
  slice_param {
    axis: 0
  }
}
layer {
  name: "lstm2_h_conted_0"
  type: "Scale"
  bottom: "h_0"
  bottom: "cont_1"
  top: "h_conted_0"
  scale_param {
    axis: 0
  }
}
layer {
  name: "lstm2_transform_1"
  type: "InnerProduct"
  bottom: "h_conted_0"
  top: "W_hc_h_0"
  param {
    name: "W_hc"
  }
  inner_product_param {
    num_output: 4000
    bias_term: false
    weight_filler {
      type: "uniform"
      min: -0.08
      max: 0.08
    }
    axis: 2
  }
}
layer {
  name: "lstm2_gate_input_1"
  type: "Eltwise"
  bottom: "W_hc_h_0"
  bottom: "W_xc_x_1"
  top: "gate_input_1"
  eltwise_param {
    operation: SUM
  }
}
layer {
  name: "lstm2_unit_1"
  type: "LSTMUnit"
  bottom: "c_0"
  bottom: "gate_input_1"
  bottom: "cont_1"
  top: "c_1"
  top: "h_1"
}
layer {
  name: "lstm2_"
  type: "Split"
  bottom: "c_1"
  top: "c_T"
}
layer {
  name: "lstm2_h_concat"
  type: "Concat"
  bottom: "h_1"
  top: "h"
  concat_param {
    axis: 0
  }
}
layer {
  name: "h_pseudoloss"
  type: "Reduction"
  bottom: "h"
  top: "h_pseudoloss"
  loss_weight: 1
}
I0731 23:22:22.157814 22798 layer_factory.hpp:77] Creating layer lstm2_
I0731 23:22:22.157825 22798 net.cpp:91] Creating Layer lstm2_
I0731 23:22:22.157831 22798 net.cpp:399] lstm2_ -> x
I0731 23:22:22.157842 22798 net.cpp:399] lstm2_ -> cont
I0731 23:22:22.157898 22798 net.cpp:141] Setting up lstm2_
I0731 23:22:22.157908 22798 net.cpp:148] Top shape: 1 1 1501 (1501)
I0731 23:22:22.157914 22798 net.cpp:148] Top shape: 1 1 (1)
I0731 23:22:22.157918 22798 net.cpp:156] Memory required for data: 6008
I0731 23:22:22.157923 22798 layer_factory.hpp:77] Creating layer lstm2_
I0731 23:22:22.157932 22798 net.cpp:91] Creating Layer lstm2_
I0731 23:22:22.157939 22798 net.cpp:399] lstm2_ -> c_0
I0731 23:22:22.157950 22798 net.cpp:399] lstm2_ -> h_0
I0731 23:22:22.158001 22798 net.cpp:141] Setting up lstm2_
I0731 23:22:22.158010 22798 net.cpp:148] Top shape: 1 1 1000 (1000)
I0731 23:22:22.158016 22798 net.cpp:148] Top shape: 1 1 1000 (1000)
I0731 23:22:22.158020 22798 net.cpp:156] Memory required for data: 14008
I0731 23:22:22.158025 22798 layer_factory.hpp:77] Creating layer lstm2_cont_slice
I0731 23:22:22.158033 22798 net.cpp:91] Creating Layer lstm2_cont_slice
I0731 23:22:22.158037 22798 net.cpp:425] lstm2_cont_slice <- cont
I0731 23:22:22.158044 22798 net.cpp:399] lstm2_cont_slice -> cont_1
I0731 23:22:22.158079 22798 net.cpp:141] Setting up lstm2_cont_slice
I0731 23:22:22.158088 22798 net.cpp:148] Top shape: 1 1 (1)
I0731 23:22:22.158095 22798 net.cpp:156] Memory required for data: 14012
I0731 23:22:22.158099 22798 layer_factory.hpp:77] Creating layer cont_1_lstm2_cont_slice_0_split
I0731 23:22:22.158107 22798 net.cpp:91] Creating Layer cont_1_lstm2_cont_slice_0_split
I0731 23:22:22.158110 22798 net.cpp:425] cont_1_lstm2_cont_slice_0_split <- cont_1
I0731 23:22:22.158118 22798 net.cpp:399] cont_1_lstm2_cont_slice_0_split -> cont_1_lstm2_cont_slice_0_split_0
I0731 23:22:22.158124 22798 net.cpp:399] cont_1_lstm2_cont_slice_0_split -> cont_1_lstm2_cont_slice_0_split_1
I0731 23:22:22.158171 22798 net.cpp:141] Setting up cont_1_lstm2_cont_slice_0_split
I0731 23:22:22.158179 22798 net.cpp:148] Top shape: 1 1 (1)
I0731 23:22:22.158185 22798 net.cpp:148] Top shape: 1 1 (1)
I0731 23:22:22.158190 22798 net.cpp:156] Memory required for data: 14020
I0731 23:22:22.158193 22798 layer_factory.hpp:77] Creating layer lstm2_x_transform
I0731 23:22:22.158205 22798 net.cpp:91] Creating Layer lstm2_x_transform
I0731 23:22:22.158210 22798 net.cpp:425] lstm2_x_transform <- x
I0731 23:22:22.158218 22798 net.cpp:399] lstm2_x_transform -> W_xc_x
I0731 23:22:22.174716 22808 net.cpp:141] Setting up fc7
I0731 23:22:22.174757 22808 net.cpp:148] Top shape: 10 4096 (40960)
I0731 23:22:22.174762 22808 net.cpp:156] Memory required for data: 68273720
I0731 23:22:22.174775 22808 layer_factory.hpp:77] Creating layer relu7
I0731 23:22:22.174793 22808 net.cpp:91] Creating Layer relu7
I0731 23:22:22.174800 22808 net.cpp:425] relu7 <- fc7
I0731 23:22:22.174809 22808 net.cpp:386] relu7 -> fc7 (in-place)
I0731 23:22:22.175580 22808 net.cpp:141] Setting up relu7
I0731 23:22:22.175592 22808 net.cpp:148] Top shape: 10 4096 (40960)
I0731 23:22:22.175596 22808 net.cpp:156] Memory required for data: 68437560
I0731 23:22:22.175602 22808 layer_factory.hpp:77] Creating layer drop7
I0731 23:22:22.175616 22808 net.cpp:91] Creating Layer drop7
I0731 23:22:22.175621 22808 net.cpp:425] drop7 <- fc7
I0731 23:22:22.175627 22808 net.cpp:386] drop7 -> fc7 (in-place)
I0731 23:22:22.175671 22808 net.cpp:141] Setting up drop7
I0731 23:22:22.175679 22808 net.cpp:148] Top shape: 10 4096 (40960)
I0731 23:22:22.175684 22808 net.cpp:156] Memory required for data: 68601400
I0731 23:22:22.175688 22808 layer_factory.hpp:77] Creating layer fc8
I0731 23:22:22.175700 22808 net.cpp:91] Creating Layer fc8
I0731 23:22:22.175705 22808 net.cpp:425] fc8 <- fc7
I0731 23:22:22.175714 22808 net.cpp:399] fc8 -> fc8
I0731 23:22:22.187786 22808 net.cpp:141] Setting up fc8
I0731 23:22:22.187832 22808 net.cpp:148] Top shape: 10 1000 (10000)
I0731 23:22:22.187837 22808 net.cpp:156] Memory required for data: 68641400
I0731 23:22:22.187851 22808 layer_factory.hpp:77] Creating layer prob
I0731 23:22:22.187873 22808 net.cpp:91] Creating Layer prob
I0731 23:22:22.187880 22808 net.cpp:425] prob <- fc8
I0731 23:22:22.187891 22808 net.cpp:399] prob -> prob
I0731 23:22:22.188443 22808 net.cpp:141] Setting up prob
I0731 23:22:22.188467 22808 net.cpp:148] Top shape: 10 1000 (10000)
I0731 23:22:22.188473 22808 net.cpp:156] Memory required for data: 68681400
I0731 23:22:22.188480 22808 net.cpp:219] prob does not need backward computation.
I0731 23:22:22.188488 22808 net.cpp:219] fc8 does not need backward computation.
I0731 23:22:22.188493 22808 net.cpp:219] drop7 does not need backward computation.
I0731 23:22:22.188498 22808 net.cpp:219] relu7 does not need backward computation.
…
I0731 23:22:22.188576 22808 net.cpp:219] norm1 does not need backward computation.
I0731 23:22:22.188581 22808 net.cpp:219] pool1 does not need backward computation.
I0731 23:22:22.188586 22808 net.cpp:219] relu1 does not need backward computation.
I0731 23:22:22.188591 22808 net.cpp:219] conv1 does not need backward computation.
I0731 23:22:22.188596 22808 net.cpp:219] data does not need backward computation.
I0731 23:22:22.188601 22808 net.cpp:261] This network produces output prob
I0731 23:22:22.188623 22808 net.cpp:274] Network initialization done.
I0731 23:22:22.218598 22798 net.cpp:141] Setting up lstm2_x_transform
I0731 23:22:22.218647 22798 net.cpp:148] Top shape: 1 1 4000 (4000)
I0731 23:22:22.218653 22798 net.cpp:156] Memory required for data: 30020
I0731 23:22:22.218677 22798 layer_factory.hpp:77] Creating layer lstm2_W_xc_x_slice
I0731 23:22:22.218694 22798 net.cpp:91] Creating Layer lstm2_W_xc_x_slice
I0731 23:22:22.218701 22798 net.cpp:425] lstm2_W_xc_x_slice <- W_xc_x
I0731 23:22:22.218711 22798 net.cpp:399] lstm2_W_xc_x_slice -> W_xc_x_1
I0731 23:22:22.218760 22798 net.cpp:141] Setting up lstm2_W_xc_x_slice
I0731 23:22:22.218770 22798 net.cpp:148] Top shape: 1 1 4000 (4000)
I0731 23:22:22.218775 22798 net.cpp:156] Memory required for data: 46020
I0731 23:22:22.218778 22798 layer_factory.hpp:77] Creating layer lstm2_h_conted_0
I0731 23:22:22.218788 22798 net.cpp:91] Creating Layer lstm2_h_conted_0
I0731 23:22:22.218793 22798 net.cpp:425] lstm2_h_conted_0 <- h_0
I0731 23:22:22.218799 22798 net.cpp:425] lstm2_h_conted_0 <- cont_1_lstm2_cont_slice_0_split_0
I0731 23:22:22.218806 22798 net.cpp:399] lstm2_h_conted_0 -> h_conted_0
I0731 23:22:22.218900 22798 net.cpp:141] Setting up lstm2_h_conted_0
I0731 23:22:22.218909 22798 net.cpp:148] Top shape: 1 1 1000 (1000)
I0731 23:22:22.218914 22798 net.cpp:156] Memory required for data: 50020
I0731 23:22:22.218919 22798 layer_factory.hpp:77] Creating layer lstm2_transform_1
I0731 23:22:22.218930 22798 net.cpp:91] Creating Layer lstm2_transform_1
I0731 23:22:22.218935 22798 net.cpp:425] lstm2_transform_1 <- h_conted_0
I0731 23:22:22.218946 22798 net.cpp:399] lstm2_transform_1 -> W_hc_h_0
I0731 23:22:22.257567 22798 net.cpp:141] Setting up lstm2_transform_1
I0731 23:22:22.257622 22798 net.cpp:148] Top shape: 1 1 4000 (4000)
I0731 23:22:22.257627 22798 net.cpp:156] Memory required for data: 66020
I0731 23:22:22.257650 22798 layer_factory.hpp:77] Creating layer lstm2_gate_input_1
I0731 23:22:22.257670 22798 net.cpp:91] Creating Layer lstm2_gate_input_1
I0731 23:22:22.257676 22798 net.cpp:425] lstm2_gate_input_1 <- W_hc_h_0
I0731 23:22:22.257685 22798 net.cpp:425] lstm2_gate_input_1 <- W_xc_x_1
I0731 23:22:22.257694 22798 net.cpp:399] lstm2_gate_input_1 -> gate_input_1
I0731 23:22:22.257745 22798 net.cpp:141] Setting up lstm2_gate_input_1
I0731 23:22:22.257753 22798 net.cpp:148] Top shape: 1 1 4000 (4000)
I0731 23:22:22.257757 22798 net.cpp:156] Memory required for data: 82020
I0731 23:22:22.257762 22798 layer_factory.hpp:77] Creating layer lstm2_unit_1
I0731 23:22:22.257772 22798 net.cpp:91] Creating Layer lstm2_unit_1
I0731 23:22:22.257777 22798 net.cpp:425] lstm2_unit_1 <- c_0
I0731 23:22:22.257783 22798 net.cpp:425] lstm2_unit_1 <- gate_input_1
I0731 23:22:22.257788 22798 net.cpp:425] lstm2_unit_1 <- cont_1_lstm2_cont_slice_0_split_1
I0731 23:22:22.257794 22798 net.cpp:399] lstm2_unit_1 -> c_1
I0731 23:22:22.257802 22798 net.cpp:399] lstm2_unit_1 -> h_1
I0731 23:22:22.257863 22798 net.cpp:141] Setting up lstm2_unit_1
I0731 23:22:22.257870 22798 net.cpp:148] Top shape: 1 1 1000 (1000)
I0731 23:22:22.257876 22798 net.cpp:148] Top shape: 1 1 1000 (1000)
I0731 23:22:22.257880 22798 net.cpp:156] Memory required for data: 90020
I0731 23:22:22.257884 22798 layer_factory.hpp:77] Creating layer lstm2_
I0731 23:22:22.257892 22798 net.cpp:91] Creating Layer lstm2_
I0731 23:22:22.257896 22798 net.cpp:425] lstm2_ <- c_1
I0731 23:22:22.257902 22798 net.cpp:399] lstm2_ -> c_T
I0731 23:22:22.257931 22798 net.cpp:141] Setting up lstm2_
I0731 23:22:22.257939 22798 net.cpp:148] Top shape: 1 1 1000 (1000)
I0731 23:22:22.257943 22798 net.cpp:156] Memory required for data: 94020
I0731 23:22:22.257947 22798 layer_factory.hpp:77] Creating layer lstm2_h_concat
I0731 23:22:22.257961 22798 net.cpp:91] Creating Layer lstm2_h_concat
I0731 23:22:22.257964 22798 net.cpp:425] lstm2_h_concat <- h_1
I0731 23:22:22.257972 22798 net.cpp:399] lstm2_h_concat -> h
I0731 23:22:22.258008 22798 net.cpp:141] Setting up lstm2_h_concat
I0731 23:22:22.258015 22798 net.cpp:148] Top shape: 1 1 1000 (1000)
I0731 23:22:22.258019 22798 net.cpp:156] Memory required for data: 98020
I0731 23:22:22.258024 22798 layer_factory.hpp:77] Creating layer h_pseudoloss
I0731 23:22:22.258033 22798 net.cpp:91] Creating Layer h_pseudoloss
I0731 23:22:22.258036 22798 net.cpp:425] h_pseudoloss <- h
I0731 23:22:22.258045 22798 net.cpp:399] h_pseudoloss -> h_pseudoloss
I0731 23:22:22.258136 22798 net.cpp:141] Setting up h_pseudoloss
…
