…
Java HotSpot(TM) 64-Bit Server VM warning: You have loaded library /tmp/cvld5777154531532852835/libopencv_java310.xine1.so which might have disabled stack guard. The VM will try to fix the stack guard now.
It's highly recommended that you fix the library with 'execstack -c <libfile>', or link it with '-z noexecstack'.
WARNING: Logging before InitGoogleLogging() is written to STDERR
I0720 14:25:49.072187 18932 net.cpp:49] Initializing net from parameters: 
name: "CaffeNet"
state {
  phase: TEST
}
layer {
  name: "data"
  type: "Input"
  top: "data"
  input_param {
    shape {
      dim: 10
      dim: 3
      dim: 227
      dim: 227
    }
  }
}
layer {
  name: "conv1"
  type: "Convolution"
  bottom: "data"
  top: "conv1"
  convolution_param {
    num_output: 96
    kernel_size: 11
    stride: 4
  }
}
layer {
  name: "relu1"
  type: "ReLU"
  bottom: "conv1"
  top: "conv1"
}
layer {
  name: "pool1"
  type: "Pooling"
  bottom: "conv1"
  top: "pool1"
  pooling_param {
    pool: MAX
    kernel_size: 3
    stride: 2
  }
}
layer {
  name: "norm1"
  type: "LRN"
  bottom: "pool1"
  top: "norm1"
  lrn_param {
    local_size: 5
    alpha: 0.0001
    beta: 0.75
  }
}
layer {
  name: "conv2"
  type: "Convolution"
  bottom: "norm1"
  top: "conv2"
  convolution_param {
    num_output: 256
    pad: 2
    kernel_size: 5
    group: 2
  }
}
layer {
  name: "relu2"
  type: "ReLU"
  bottom: "conv2"
  top: "conv2"
}
layer {
  name: "pool2"
  type: "Pooling"
  bottom: "conv2"
  top: "pool2"
  pooling_param {
    pool: MAX
    kernel_size: 3
    stride: 2
  }
}
layer {
  name: "norm2"
  type: "LRN"
  bottom: "pool2"
  top: "norm2"
  lrn_param {
    local_size: 5
    alpha: 0.0001
    beta: 0.75
  }
}
layer {
  name: "conv3"
  type: "Convolution"
  bottom: "norm2"
  top: "conv3"
  convolution_param {
    num_output: 384
    pad: 1
    kernel_size: 3
  }
}
layer {
  name: "relu3"
  type: "ReLU"
  bottom: "conv3"
  top: "conv3"
}
layer {
  name: "conv4"
  type: "Convolution"
  bottom: "conv3"
  top: "conv4"
  convolution_param {
    num_output: 384
    pad: 1
    kernel_size: 3
    group: 2
  }
}
layer {
  name: "relu4"
  type: "ReLU"
  bottom: "conv4"
  top: "conv4"
}
layer {
  name: "conv5"
  type: "Convolution"
  bottom: "conv4"
  top: "conv5"
  convolution_param {
    num_output: 256
    pad: 1
    kernel_size: 3
    group: 2
  }
}
layer {
  name: "relu5"
  type: "ReLU"
  bottom: "conv5"
  top: "conv5"
}
layer {
  name: "pool5"
  type: "Pooling"
  bottom: "conv5"
  top: "pool5"
  pooling_param {
    pool: MAX
    kernel_size: 3
    stride: 2
  }
}
layer {
  name: "fc6"
  type: "InnerProduct"
  bottom: "pool5"
  top: "fc6"
  inner_product_param {
    num_output: 4096
  }
}
layer {
  name: "relu6"
  type: "ReLU"
  bottom: "fc6"
  top: "fc6"
}
layer {
  name: "drop6"
  type: "Dropout"
  bottom: "fc6"
  top: "fc6"
  dropout_param {
    dropout_ratio: 0.5
  }
}
layer {
  name: "fc7"
  type: "InnerProduct"
  bottom: "fc6"
  top: "fc7"
  inner_product_param {
    num_output: 4096
  }
}
layer {
  name: "relu7"
  type: "ReLU"
  bottom: "fc7"
  top: "fc7"
}
layer {
  name: "drop7"
  type: "Dropout"
  bottom: "fc7"
  top: "fc7"
  dropout_param {
    dropout_ratio: 0.5
  }
}
layer {
  name: "fc8"
  type: "InnerProduct"
  bottom: "fc7"
  top: "fc8"
  inner_product_param {
    num_output: 1000
  }
}
layer {
  name: "prob"
  type: "Softmax"
  bottom: "fc8"
  top: "prob"
}
I0720 14:25:49.072407 18932 layer_factory.hpp:77] Creating layer data
I0720 14:25:49.072434 18932 net.cpp:91] Creating Layer data
I0720 14:25:49.072445 18932 net.cpp:399] data -> data
I0720 14:25:49.608623 18948 upgrade_proto.cpp:66] Attempting to upgrade input file specified using deprecated input fields: /tmp/cvld5777154531532852835/s2vt.words_to_preds.prototxt
I0720 14:25:49.608685 18948 upgrade_proto.cpp:69] Successfully upgraded file specified using deprecated input fields.
W0720 14:25:49.608695 18948 upgrade_proto.cpp:71] Note that future Caffe releases will only support input layers and not input fields.
I0720 14:25:49.608978 18948 net.cpp:49] Initializing net from parameters: 
name: "s2vt:features_to_lstm"
state {
  phase: TEST
}
layer {
  name: "input"
  type: "Input"
  top: "frames_fc7"
  top: "cont_sentence"
  top: "input_sentence"
  top: "stage_indicator"
  input_param {
    shape {
      dim: 1
      dim: 4096
    }
    shape {
      dim: 1
      dim: 1
    }
    shape {
      dim: 1
      dim: 1
    }
    shape {
      dim: 1
      dim: 1
    }
  }
}
layer {
  name: "embed_encoder"
  type: "InnerProduct"
  bottom: "frames_fc7"
  top: "embedded_in_frames"
  param {
    lr_mult: 1
    decay_mult: 1
  }
  param {
    lr_mult: 2
    decay_mult: 0
  }
  inner_product_param {
    num_output: 500
    weight_filler {
      type: "xavier"
    }
    bias_filler {
      type: "constant"
      value: 0.2
    }
  }
}
layer {
  name: "reshape_frames"
  type: "Reshape"
  bottom: "embedded_in_frames"
  top: "embedded_input_frames"
  reshape_param {
    shape {
      dim: 1
      dim: 1
      dim: 500
    }
  }
}
layer {
  name: "reshape_stage_indicator"
  type: "Reshape"
  bottom: "stage_indicator"
  top: "reshaped_stage_indicator"
  reshape_param {
    shape {
      dim: 1
      dim: 1
      dim: 1
    }
  }
}
layer {
  name: "embedding"
  type: "Embed"
  bottom: "input_sentence"
  top: "embedded_input_sentence"
  param {
    lr_mult: 1
  }
  embed_param {
    num_output: 500
    input_dim: 46168
    bias_term: false
    weight_filler {
      type: "uniform"
      min: -0.08
      max: 0.08
    }
  }
}
layer {
  name: "lstm1"
  type: "LSTM"
  bottom: "embedded_input_frames"
  bottom: "cont_sentence"
  top: "lstm1"
  recurrent_param {
    num_output: 1000
    weight_filler {
      type: "uniform"
      min: -0.08
      max: 0.08
    }
    bias_filler {
      type: "constant"
      value: 0
    }
  }
}
layer {
  name: "concat"
  type: "Concat"
  bottom: "lstm1"
  bottom: "embedded_input_sentence"
  bottom: "reshaped_stage_indicator"
  top: "lstm1_video_sequence"
  concat_param {
    concat_dim: 2
  }
}
layer {
  name: "lstm2"
  type: "LSTM"
  bottom: "lstm1_video_sequence"
  bottom: "cont_sentence"
  top: "lstm2"
  recurrent_param {
    num_output: 1000
    weight_filler {
      type: "uniform"
      min: -0.08
      max: 0.08
    }
    bias_filler {
      type: "constant"
      value: 0
    }
  }
}
layer {
  name: "predict"
  type: "InnerProduct"
  bottom: "lstm2"
  top: "predict"
  param {
    lr_mult: 1
    decay_mult: 1
  }
  param {
    lr_mult: 2
    decay_mult: 0
  }
  inner_product_param {
    num_output: 46168
    weight_filler {
      type: "uniform"
      min: -0.08
      max: 0.08
    }
    bias_filler {
      type: "constant"
      value: 0
    }
    axis: 2
  }
}
layer {
  name: "probs"
  type: "Softmax"
  bottom: "predict"
  top: "probs"
  softmax_param {
    axis: 2
  }
}
I0720 14:25:49.609140 18948 layer_factory.hpp:77] Creating layer input
I0720 14:25:49.609166 18948 net.cpp:91] Creating Layer input
I0720 14:25:49.609179 18948 net.cpp:399] input -> frames_fc7
I0720 14:25:49.609206 18948 net.cpp:399] input -> cont_sentence
I0720 14:25:49.609230 18948 net.cpp:399] input -> input_sentence
I0720 14:25:49.609248 18948 net.cpp:399] input -> stage_indicator
I0720 14:25:49.609277 18948 net.cpp:141] Setting up input
I0720 14:25:49.609308 18948 net.cpp:148] Top shape: 1 4096 (4096)
I0720 14:25:49.609319 18948 net.cpp:148] Top shape: 1 1 (1)
I0720 14:25:49.609328 18948 net.cpp:148] Top shape: 1 1 (1)
I0720 14:25:49.609338 18948 net.cpp:148] Top shape: 1 1 (1)
I0720 14:25:49.609345 18948 net.cpp:156] Memory required for data: 16396
I0720 14:25:49.609365 18948 layer_factory.hpp:77] Creating layer cont_sentence_input_1_split
I0720 14:25:49.609391 18948 net.cpp:91] Creating Layer cont_sentence_input_1_split
I0720 14:25:49.609405 18948 net.cpp:425] cont_sentence_input_1_split <- cont_sentence
I0720 14:25:49.609431 18948 net.cpp:399] cont_sentence_input_1_split -> cont_sentence_input_1_split_0
I0720 14:25:49.609447 18948 net.cpp:399] cont_sentence_input_1_split -> cont_sentence_input_1_split_1
I0720 14:25:49.609463 18948 net.cpp:141] Setting up cont_sentence_input_1_split
I0720 14:25:49.609482 18948 net.cpp:148] Top shape: 1 1 (1)
I0720 14:25:49.609491 18948 net.cpp:148] Top shape: 1 1 (1)
I0720 14:25:49.609498 18948 net.cpp:156] Memory required for data: 16404
I0720 14:25:49.609505 18948 layer_factory.hpp:77] Creating layer embed_encoder
I0720 14:25:49.609524 18948 net.cpp:91] Creating Layer embed_encoder
I0720 14:25:49.609531 18948 net.cpp:425] embed_encoder <- frames_fc7
I0720 14:25:49.609544 18948 net.cpp:399] embed_encoder -> embedded_in_frames
I0720 14:25:49.611011 18932 net.cpp:141] Setting up data
I0720 14:25:49.611050 18932 net.cpp:148] Top shape: 10 3 227 227 (1545870)
I0720 14:25:49.611069 18932 net.cpp:156] Memory required for data: 6183480
I0720 14:25:49.611119 18932 layer_factory.hpp:77] Creating layer conv1
I0720 14:25:49.611146 18932 net.cpp:91] Creating Layer conv1
I0720 14:25:49.611152 18932 net.cpp:425] conv1 <- data
I0720 14:25:49.611196 18932 net.cpp:399] conv1 -> conv1
I0720 14:25:49.611351 18920 upgrade_proto.cpp:66] Attempting to upgrade input file specified using deprecated input fields: /tmp/cvld5777154531532852835/s2vt.words_to_preds.prototxt
…
W0720 14:25:49.611982 18934 upgrade_proto.cpp:71] Note that future Caffe releases will only support input layers and not input fields.
I0720 14:25:49.612910 18934 net.cpp:49] Initializing net from parameters: 
name: "s2vt:features_to_lstm"
state {
  phase: TEST
}
layer {
  name: "input"
  type: "Input"
  top: "frames_fc7"
  top: "cont_sentence"
  top: "input_sentence"
  top: "stage_indicator"
  input_param {
    shape {
      dim: 1
      dim: 4096
    }
    shape {
      dim: 1
      dim: 1
    }
    shape {
      dim: 1
      dim: 1
    }
    shape {
      dim: 1
      dim: 1
    }
  }
}
layer {
  name: "embed_encoder"
  type: "InnerProduct"
  bottom: "frames_fc7"
  top: "embedded_in_frames"
  param {
    lr_mult: 1
    decay_mult: 1
  }
  param {
    lr_mult: 2
    decay_mult: 0
  }
  inner_product_param {
    num_output: 500
    weight_filler {
      type: "xavier"
    }
    bias_filler {
      type: "constant"
      value: 0.2
    }
  }
}
layer {
  name: "reshape_frames"
  type: "Reshape"
  bottom: "embedded_in_frames"
  top: "embedded_input_frames"
  reshape_param {
    shape {
      dim: 1
      dim: 1
      dim: 500
    }
  }
}
layer {
  name: "reshape_stage_indicator"
  type: "Reshape"
  bottom: "stage_indicator"
  top: "reshaped_stage_indicator"
  reshape_param {
    shape {
      dim: 1
      dim: 1
      dim: 1
    }
  }
}
layer {
  name: "embedding"
  type: "Embed"
  bottom: "input_sentence"
  top: "embedded_input_sentence"
  param {
    lr_mult: 1
  }
  embed_param {
    num_output: 500
    input_dim: 46168
    bias_term: false
    weight_filler {
      type: "uniform"
      min: -0.08
      max: 0.08
    }
  }
}
layer {
  name: "lstm1"
  type: "LSTM"
  bottom: "embedded_input_frames"
  bottom: "cont_sentence"
  top: "lstm1"
  recurrent_param {
    num_output: 1000
    weight_filler {
      type: "uniform"
      min: -0.08
      max: 0.08
    }
    bias_filler {
      type: "constant"
      value: 0
    }
  }
}
layer {
  name: "concat"
  type: "Concat"
  bottom: "lstm1"
  bottom: "embedded_input_sentence"
  bottom: "reshaped_stage_indicator"
  top: "lstm1_video_sequence"
  concat_param {
    concat_dim: 2
  }
}
layer {
  name: "lstm2"
  type: "LSTM"
  bottom: "lstm1_video_sequence"
  bottom: "cont_sentence"
  top: "lstm2"
  recurrent_param {
    num_output: 1000
    weight_filler {
      type: "uniform"
      min: -0.08
      max: 0.08
    }
    bias_filler {
      type: "constant"
      value: 0
    }
  }
}
layer {
  name: "predict"
  type: "InnerProduct"
  bottom: "lstm2"
  top: "predict"
  param {
    lr_mult: 1
    decay_mult: 1
  }
  param {
    lr_mult: 2
    decay_mult: 0
  }
  inner_product_param {
    num_output: 46168
    weight_filler {
      type: "uniform"
      min: -0.08
      max: 0.08
    }
    bias_filler {
      type: "constant"
      value: 0
    }
    axis: 2
  }
}
layer {
  name: "probs"
  type: "Softmax"
  bottom: "predict"
  top: "probs"
  softmax_param {
    axis: 2
  }
}
I0720 14:25:49.612925 18936 upgrade_proto.cpp:66] Attempting to upgrade input file specified using deprecated input fields: /tmp/cvld5777154531532852835/s2vt.words_to_preds.prototxt
I0720 14:25:49.612962 18936 upgrade_proto.cpp:69] Successfully upgraded file specified using deprecated input fields.
W0720 14:25:49.612970 18936 upgrade_proto.cpp:71] Note that future Caffe releases will only support input layers and not input fields.
I0720 14:25:49.613039 18934 layer_factory.hpp:77] Creating layer input
I0720 14:25:49.613054 18934 net.cpp:91] Creating Layer input
I0720 14:25:49.613061 18934 net.cpp:399] input -> frames_fc7
I0720 14:25:49.613075 18934 net.cpp:399] input -> cont_sentence
I0720 14:25:49.613104 18934 net.cpp:399] input -> input_sentence
I0720 14:25:49.613116 18934 net.cpp:399] input -> stage_indicator
I0720 14:25:49.613129 18934 net.cpp:141] Setting up input
I0720 14:25:49.613137 18934 net.cpp:148] Top shape: 1 4096 (4096)
I0720 14:25:49.613143 18934 net.cpp:148] Top shape: 1 1 (1)
I0720 14:25:49.613148 18934 net.cpp:148] Top shape: 1 1 (1)
I0720 14:25:49.613154 18934 net.cpp:148] Top shape: 1 1 (1)
I0720 14:25:49.613158 18934 net.cpp:156] Memory required for data: 16396
I0720 14:25:49.613162 18934 layer_factory.hpp:77] Creating layer cont_sentence_input_1_split
I0720 14:25:49.613173 18934 net.cpp:91] Creating Layer cont_sentence_input_1_split
I0720 14:25:49.613178 18934 net.cpp:425] cont_sentence_input_1_split <- cont_sentence
I0720 14:25:49.613186 18934 net.cpp:399] cont_sentence_input_1_split -> cont_sentence_input_1_split_0
I0720 14:25:49.613195 18934 net.cpp:399] cont_sentence_input_1_split -> cont_sentence_input_1_split_1
I0720 14:25:49.613205 18934 net.cpp:141] Setting up cont_sentence_input_1_split
I0720 14:25:49.613212 18934 net.cpp:148] Top shape: 1 1 (1)
I0720 14:25:49.613217 18934 net.cpp:148] Top shape: 1 1 (1)
I0720 14:25:49.613222 18934 net.cpp:156] Memory required for data: 16404
I0720 14:25:49.613226 18934 layer_factory.hpp:77] Creating layer embed_encoder
I0720 14:25:49.613224 18938 upgrade_proto.cpp:66] Attempting to upgrade input file specified using deprecated input fields: /tmp/cvld5777154531532852835/s2vt.words_to_preds.prototxt
I0720 14:25:49.613255 18934 net.cpp:91] Creating Layer embed_encoder
…
W0720 14:25:49.613350 18952 upgrade_proto.cpp:71] Note that future Caffe releases will only support input layers and not input fields.
I0720 14:25:49.613368 18936 net.cpp:49] Initializing net from parameters: 
name: "s2vt:features_to_lstm"
state {
  phase: TEST
}
layer {
  name: "input"
  type: "Input"
  top: "frames_fc7"
  top: "cont_sentence"
  top: "input_sentence"
  top: "stage_indicator"
  input_param {
    shape {
      dim: 1
      dim: 4096
    }
    shape {
      dim: 1
      dim: 1
    }
    shape {
      dim: 1
      dim: 1
    }
    shape {
      dim: 1
      dim: 1
    }
  }
}
layer {
  name: "embed_encoder"
  type: "InnerProduct"
  bottom: "frames_fc7"
  top: "embedded_in_frames"
  param {
    lr_mult: 1
    decay_mult: 1
  }
  param {
    lr_mult: 2
    decay_mult: 0
  }
  inner_product_param {
    num_output: 500
    weight_filler {
      type: "xavier"
    }
    bias_filler {
      type: "constant"
      value: 0.2
    }
  }
}
layer {
  name: "reshape_frames"
  type: "Reshape"
  bottom: "embedded_in_frames"
  top: "embedded_input_frames"
  reshape_param {
    shape {
      dim: 1
      dim: 1
      dim: 500
    }
  }
}
layer {
  name: "reshape_stage_indicator"
  type: "Reshape"
  bottom: "stage_indicator"
  top: "reshaped_stage_indicator"
  reshape_param {
    shape {
      dim: 1
      dim: 1
      dim: 1
    }
  }
}
layer {
  name: "embedding"
  type: "Embed"
  bottom: "input_sentence"
  top: "embedded_input_sentence"
  param {
    lr_mult: 1
  }
  embed_param {
    num_output: 500
    input_dim: 46168
    bias_term: false
    weight_filler {
      type: "uniform"
      min: -0.08
      max: 0.08
    }
  }
}
layer {
  name: "lstm1"
  type: "LSTM"
  bottom: "embedded_input_frames"
  bottom: "cont_sentence"
  top: "lstm1"
  recurrent_param {
    num_output: 1000
    weight_filler {
      type: "uniform"
      min: -0.08
      max: 0.08
    }
    bias_filler {
      type: "constant"
      value: 0
    }
  }
}
layer {
  name: "concat"
  type: "Concat"
  bottom: "lstm1"
  bottom: "embedded_input_sentence"
  bottom: "reshaped_stage_indicator"
  top: "lstm1_video_sequence"
  concat_param {
    concat_dim: 2
  }
}
layer {
  name: "lstm2"
  type: "LSTM"
  bottom: "lstm1_video_sequence"
  bottom: "cont_sentence"
  top: "lstm2"
  recurrent_param {
    num_output: 1000
    weight_filler {
      type: "uniform"
      min: -0.08
      max: 0.08
    }
    bias_filler {
      type: "constant"
      value: 0
    }
  }
}
layer {
  name: "predict"
  type: "InnerProduct"
  bottom: "lstm2"
  top: "predict"
  param {
    lr_mult: 1
    decay_mult: 1
  }
  param {
    lr_mult: 2
    decay_mult: 0
  }
  inner_product_param {
    num_output: 46168
    weight_filler {
      type: "uniform"
      min: -0.08
      max: 0.08
    }
    bias_filler {
      type: "constant"
      value: 0
    }
    axis: 2
  }
}
layer {
  name: "probs"
  type: "Softmax"
  bottom: "predict"
  top: "probs"
  softmax_param {
    axis: 2
  }
}
I0720 14:25:49.613401 18946 upgrade_proto.cpp:66] Attempting to upgrade input file specified using deprecated input fields: /tmp/cvld5777154531532852835/s2vt.words_to_preds.prototxt
I0720 14:25:49.613426 18946 upgrade_proto.cpp:69] Successfully upgraded file specified using deprecated input fields.
W0720 14:25:49.613437 18946 upgrade_proto.cpp:71] Note that future Caffe releases will only support input layers and not input fields.
…
I0720 14:25:49.614019 18928 net.cpp:141] Setting up input
I0720 14:25:49.614042 18946 net.cpp:399] input -> stage_indicator
I0720 14:25:49.613296 18920 net.cpp:49] Initializing net from parameters: 
name: "s2vt:features_to_lstm"
state {
  phase: TEST
}
layer {
  name: "input"
  type: "Input"
  top: "frames_fc7"
  top: "cont_sentence"
  top: "input_sentence"
  top: "stage_indicator"
  input_param {
    shape {
      dim: 1
      dim: 4096
    }
    shape {
      dim: 1
      dim: 1
    }
    shape {
      dim: 1
      dim: 1
    }
    shape {
      dim: 1
      dim: 1
    }
  }
}
layer {
  name: "embed_encoder"
  type: "InnerProduct"
  bottom: "frames_fc7"
  top: "embedded_in_frames"
  param {
    lr_mult: 1
    decay_mult: 1
  }
  param {
    lr_mult: 2
    decay_mult: 0
  }
  inner_product_param {
    num_output: 500
    weight_filler {
      type: "xavier"
    }
    bias_filler {
      type: "constant"
      value: 0.2
    }
  }
}
layer {
  name: "reshape_frames"
  type: "Reshape"
  bottom: "embedded_in_frames"
  top: "embedded_input_frames"
  reshape_param {
    shape {
      dim: 1
      dim: 1
      dim: 500
    }
  }
}
layer {
  name: "reshape_stage_indicator"
  type: "Reshape"
  bottom: "stage_indicator"
  top: "reshaped_stage_indicator"
  reshape_param {
    shape {
      dim: 1
      dim: 1
      dim: 1
    }
  }
}
layer {
  name: "embedding"
  type: "Embed"
  bottom: "input_sentence"
  top: "embedded_input_sentence"
  param {
    lr_mult: 1
  }
  embed_param {
    num_output: 500
    input_dim: 46168
    bias_term: false
    weight_filler {
      type: "uniform"
      min: -0.08
      max: 0.08
    }
  }
}
layer {
  name: "lstm1"
  type: "LSTM"
  bottom: "embedded_input_frames"
  bottom: "cont_sentence"
  top: "lstm1"
  recurrent_param {
    num_output: 1000
    weight_filler {
      type: "uniform"
      min: -0.08
      max: 0.08
    }
    bias_filler {
      type: "constant"
      value: 0
    }
  }
}
layer {
  name: "concat"
  type: "Concat"
  bottom: "lstm1"
  bottom: "embedded_input_sentence"
  bottom: "reshaped_stage_indicator"
  top: "lstm1_video_sequence"
  concat_param {
    concat_dim: 2
  }
}
layer {
  name: "lstm2"
  type: "LSTM"
  bottom: "lstm1_video_sequence"
  bottom: "cont_sentence"
  top: "lstm2"
  recurrent_param {
    num_output: 1000
    weight_filler {
      type: "uniform"
      min: -0.08
      max: 0.08
    }
    bias_filler {
      type: "constant"
      value: 0
    }
  }
}
layer {
  name: "predict"
  type: "InnerProduct"
  bottom: "lstm2"
  top: "predict"
  param {
    lr_mult: 1
    decay_mult: 1
  }
  param {
    lr_mult: 2
    decay_mult: 0
  }
  inner_product_param {
    num_output: 46168
    weight_filler {
      type: "uniform"
      min: -0.08
      max: 0.08
    }
    bias_filler {
      type: "constant"
      value: 0
    }
    axis: 2
  }
}
layer {
  name: "probs"
  type: "Softmax"
  bottom: "predict"
  top: "probs"
  softmax_param {
    axis: 2
  }
}
I0720 14:25:49.614045 18926 layer_factory.hpp:77] Creating layer input
I0720 14:25:49.614053 18952 net.cpp:399] input -> stage_indicator
I0720 14:25:49.614045 18928 net.cpp:148] Top shape: 1 4096 (4096)
I0720 14:25:49.614059 18936 net.cpp:399] embed_encoder -> embedded_in_frames
I0720 14:25:49.614074 18946 net.cpp:141] Setting up input
I0720 14:25:49.614090 18926 net.cpp:91] Creating Layer input
I0720 14:25:49.614096 18952 net.cpp:141] Setting up input
I0720 14:25:49.614089 18928 net.cpp:148] Top shape: 1 1 (1)
I0720 14:25:49.614106 18946 net.cpp:148] Top shape: 1 4096 (4096)
I0720 14:25:49.614111 18952 net.cpp:148] Top shape: 1 4096 (4096)
I0720 14:25:49.614114 18928 net.cpp:148] Top shape: 1 1 (1)
I0720 14:25:49.614114 18926 net.cpp:399] input -> frames_fc7
I0720 14:25:49.614121 18928 net.cpp:148] Top shape: 1 1 (1)
I0720 14:25:49.614123 18952 net.cpp:148] Top shape: 1 1 (1)
I0720 14:25:49.614127 18928 net.cpp:156] Memory required for data: 16396
I0720 14:25:49.614120 18946 net.cpp:148] Top shape: 1 1 (1)
I0720 14:25:49.614135 18928 layer_factory.hpp:77] Creating layer cont_sentence_input_1_split
I0720 14:25:49.614135 18952 net.cpp:148] Top shape: 1 1 (1)
I0720 14:25:49.614142 18946 net.cpp:148] Top shape: 1 1 (1)
I0720 14:25:49.614148 18952 net.cpp:148] Top shape: 1 1 (1)
I0720 14:25:49.614145 18928 net.cpp:91] Creating Layer cont_sentence_input_1_split
I0720 14:25:49.614152 18926 net.cpp:399] input -> cont_sentence
I0720 14:25:49.614161 18946 net.cpp:148] Top shape: 1 1 (1)
I0720 14:25:49.614161 18928 net.cpp:425] cont_sentence_input_1_split <- cont_sentence
I0720 14:25:49.614161 18952 net.cpp:156] Memory required for data: 16396
I0720 14:25:49.614182 18928 net.cpp:399] cont_sentence_input_1_split -> cont_sentence_input_1_split_0
I0720 14:25:49.614174 18946 net.cpp:156] Memory required for data: 16396
I0720 14:25:49.614192 18952 layer_factory.hpp:77] Creating layer cont_sentence_input_1_split
I0720 14:25:49.614193 18946 layer_factory.hpp:77] Creating layer cont_sentence_input_1_split
I0720 14:25:49.614193 18926 net.cpp:399] input -> input_sentence
I0720 14:25:49.614194 18928 net.cpp:399] cont_sentence_input_1_split -> cont_sentence_input_1_split_1
I0720 14:25:49.614212 18952 net.cpp:91] Creating Layer cont_sentence_input_1_split
I0720 14:25:49.614212 18946 net.cpp:91] Creating Layer cont_sentence_input_1_split
I0720 14:25:49.614224 18938 layer_factory.hpp:77] Creating layer input
I0720 14:25:49.614238 18946 net.cpp:425] cont_sentence_input_1_split <- cont_sentence
I0720 14:25:49.614233 18928 net.cpp:141] Setting up cont_sentence_input_1_split
I0720 14:25:49.614239 18926 net.cpp:399] input -> stage_indicator
I0720 14:25:49.614253 18928 net.cpp:148] Top shape: 1 1 (1)
I0720 14:25:49.614233 18952 net.cpp:425] cont_sentence_input_1_split <- cont_sentence
I0720 14:25:49.614259 18946 net.cpp:399] cont_sentence_input_1_split -> cont_sentence_input_1_split_0
I0720 14:25:49.614261 18920 layer_factory.hpp:77] Creating layer input
I0720 14:25:49.614276 18926 net.cpp:141] Setting up input
I0720 14:25:49.614279 18952 net.cpp:399] cont_sentence_input_1_split -> cont_sentence_input_1_split_0
I0720 14:25:49.614255 18938 net.cpp:91] Creating Layer input
I0720 14:25:49.614262 18928 net.cpp:148] Top shape: 1 1 (1)
I0720 14:25:49.614295 18920 net.cpp:91] Creating Layer input
I0720 14:25:49.614279 18946 net.cpp:399] cont_sentence_input_1_split -> cont_sentence_input_1_split_1
I0720 14:25:49.614306 18928 net.cpp:156] Memory required for data: 16404
I0720 14:25:49.614311 18952 net.cpp:399] cont_sentence_input_1_split -> cont_sentence_input_1_split_1
I0720 14:25:49.614313 18938 net.cpp:399] input -> frames_fc7
I0720 14:25:49.614300 18926 net.cpp:148] Top shape: 1 4096 (4096)
I0720 14:25:49.614327 18946 net.cpp:141] Setting up cont_sentence_input_1_split
I0720 14:25:49.614318 18920 net.cpp:399] input -> frames_fc7
I0720 14:25:49.614338 18938 net.cpp:399] input -> cont_sentence
I0720 14:25:49.614321 18928 layer_factory.hpp:77] Creating layer embed_encoder
I0720 14:25:49.614343 18926 net.cpp:148] Top shape: 1 1 (1)
I0720 14:25:49.614328 18952 net.cpp:141] Setting up cont_sentence_input_1_split
I0720 14:25:49.614348 18946 net.cpp:148] Top shape: 1 1 (1)
I0720 14:25:49.614358 18920 net.cpp:399] input -> cont_sentence
I0720 14:25:49.614365 18926 net.cpp:148] Top shape: 1 1 (1)
I0720 14:25:49.614372 18946 net.cpp:148] Top shape: 1 1 (1)
I0720 14:25:49.614357 18938 net.cpp:399] input -> input_sentence
I0720 14:25:49.614367 18952 net.cpp:148] Top shape: 1 1 (1)
I0720 14:25:49.614384 18946 net.cpp:156] Memory required for data: 16404
I0720 14:25:49.614380 18920 net.cpp:399] input -> input_sentence
I0720 14:25:49.614385 18926 net.cpp:148] Top shape: 1 1 (1)
I0720 14:25:49.614397 18952 net.cpp:148] Top shape: 1 1 (1)
I0720 14:25:49.614418 18920 net.cpp:399] input -> stage_indicator
I0720 14:25:49.614398 18946 layer_factory.hpp:77] Creating layer embed_encoder
I0720 14:25:49.614420 18926 net.cpp:156] Memory required for data: 16396
I0720 14:25:49.614428 18952 net.cpp:156] Memory required for data: 16404
I0720 14:25:49.614444 18926 layer_factory.hpp:77] Creating layer cont_sentence_input_1_split
I0720 14:25:49.614405 18938 net.cpp:399] input -> stage_indicator
I0720 14:25:49.614446 18920 net.cpp:141] Setting up input
I0720 14:25:49.614367 18928 net.cpp:91] Creating Layer embed_encoder
I0720 14:25:49.614446 18946 net.cpp:91] Creating Layer embed_encoder
I0720 14:25:49.614454 18952 layer_factory.hpp:77] Creating layer embed_encoder
I0720 14:25:49.614473 18920 net.cpp:148] Top shape: 1 4096 (4096)
I0720 14:25:49.614467 18926 net.cpp:91] Creating Layer cont_sentence_input_1_split
I0720 14:25:49.614481 18946 net.cpp:425] embed_encoder <- frames_fc7
I0720 14:25:49.614475 18928 net.cpp:425] embed_encoder <- frames_fc7
I0720 14:25:49.614475 18938 net.cpp:141] Setting up input
I0720 14:25:49.614048 18924 net.cpp:49] Initializing net from parameters: 
name: "s2vt:features_to_lstm"
state {
  phase: TEST
}
layer {
  name: "input"
  type: "Input"
  top: "frames_fc7"
  top: "cont_sentence"
  top: "input_sentence"
  top: "stage_indicator"
  input_param {
    shape {
      dim: 1
      dim: 4096
    }
    shape {
      dim: 1
      dim: 1
    }
    shape {
      dim: 1
      dim: 1
    }
    shape {
      dim: 1
      dim: 1
    }
  }
}
layer {
  name: "embed_encoder"
  type: "InnerProduct"
  bottom: "frames_fc7"
  top: "embedded_in_frames"
  param {
    lr_mult: 1
    decay_mult: 1
  }
  param {
    lr_mult: 2
    decay_mult: 0
  }
  inner_product_param {
    num_output: 500
    weight_filler {
      type: "xavier"
    }
    bias_filler {
      type: "constant"
      value: 0.2
    }
  }
}
layer {
  name: "reshape_frames"
  type: "Reshape"
  bottom: "embedded_in_frames"
  top: "embedded_input_frames"
  reshape_param {
    shape {
      dim: 1
      dim: 1
      dim: 500
    }
  }
}
layer {
  name: "reshape_stage_indicator"
  type: "Reshape"
  bottom: "stage_indicator"
  top: "reshaped_stage_indicator"
  reshape_param {
    shape {
      dim: 1
      dim: 1
      dim: 1
    }
  }
}
layer {
  name: "embedding"
  type: "Embed"
  bottom: "input_sentence"
  top: "embedded_input_sentence"
  param {
    lr_mult: 1
  }
  embed_param {
    num_output: 500
    input_dim: 46168
    bias_term: false
    weight_filler {
      type: "uniform"
      min: -0.08
      max: 0.08
    }
  }
}
layer {
  name: "lstm1"
  type: "LSTM"
  bottom: "embedded_input_frames"
  bottom: "cont_sentence"
  top: "lstm1"
  recurrent_param {
    num_output: 1000
    weight_filler {
      type: "uniform"
      min: -0.08
      max: 0.08
    }
    bias_filler {
      type: "constant"
      value: 0
    }
  }
}
layer {
  name: "concat"
  type: "Concat"
  bottom: "lstm1"
  bottom: "embedded_input_sentence"
  bottom: "reshaped_stage_indicator"
  top: "lstm1_video_sequence"
  concat_param {
    concat_dim: 2
  }
}
layer {
  name: "lstm2"
  type: "LSTM"
  bottom: "lstm1_video_sequence"
  bottom: "cont_sentence"
  top: "lstm2"
  recurrent_param {
    num_output: 1000
    weight_filler {
      type: "uniform"
      min: -0.08
      max: 0.08
    }
    bias_filler {
      type: "constant"
      value: 0
    }
  }
}
layer {
  name: "predict"
  type: "InnerProduct"
  bottom: "lstm2"
  top: "predict"
  param {
    lr_mult: 1
    decay_mult: 1
  }
  param {
    lr_mult: 2
    decay_mult: 0
  }
  inner_product_param {
    num_output: 46168
    weight_filler {
      type: "uniform"
      min: -0.08
      max: 0.08
    }
    bias_filler {
      type: "constant"
      value: 0
    }
    axis: 2
  }
}
layer {
  name: "probs"
  type: "Softmax"
  bottom: "predict"
  top: "probs"
  softmax_param {
    axis: 2
  }
}
I0720 14:25:49.614498 18920 net.cpp:148] Top shape: 1 1 (1)
I0720 14:25:49.614507 18952 net.cpp:91] Creating Layer embed_encoder
I0720 14:25:49.614500 18926 net.cpp:425] cont_sentence_input_1_split <- cont_sentence
I0720 14:25:49.614523 18920 net.cpp:148] Top shape: 1 1 (1)
I0720 14:25:49.614526 18952 net.cpp:425] embed_encoder <- frames_fc7
I0720 14:25:49.614514 18928 net.cpp:399] embed_encoder -> embedded_in_frames
I0720 14:25:49.614507 18946 net.cpp:399] embed_encoder -> embedded_in_frames
I0720 14:25:49.614538 18920 net.cpp:148] Top shape: 1 1 (1)
I0720 14:25:49.614517 18938 net.cpp:148] Top shape: 1 4096 (4096)
I0720 14:25:49.614543 18952 net.cpp:399] embed_encoder -> embedded_in_frames
I0720 14:25:49.614547 18920 net.cpp:156] Memory required for data: 16396
I0720 14:25:49.614542 18926 net.cpp:399] cont_sentence_input_1_split -> cont_sentence_input_1_split_0
I0720 14:25:49.614558 18920 layer_factory.hpp:77] Creating layer cont_sentence_input_1_split
I0720 14:25:49.614560 18938 net.cpp:148] Top shape: 1 1 (1)
I0720 14:25:49.614573 18938 net.cpp:148] Top shape: 1 1 (1)
I0720 14:25:49.614573 18926 net.cpp:399] cont_sentence_input_1_split -> cont_sentence_input_1_split_1
I0720 14:25:49.614584 18938 net.cpp:148] Top shape: 1 1 (1)
I0720 14:25:49.614591 18938 net.cpp:156] Memory required for data: 16396
I0720 14:25:49.614596 18926 net.cpp:141] Setting up cont_sentence_input_1_split
I0720 14:25:49.614600 18938 layer_factory.hpp:77] Creating layer cont_sentence_input_1_split
I0720 14:25:49.614611 18926 net.cpp:148] Top shape: 1 1 (1)
I0720 14:25:49.614617 18926 net.cpp:148] Top shape: 1 1 (1)
I0720 14:25:49.614622 18926 net.cpp:156] Memory required for data: 16404
I0720 14:25:49.614630 18926 layer_factory.hpp:77] Creating layer embed_encoder
I0720 14:25:49.614907 18938 net.cpp:91] Creating Layer cont_sentence_input_1_split
I0720 14:25:49.614917 18920 net.cpp:91] Creating Layer cont_sentence_input_1_split
I0720 14:25:49.614931 18938 net.cpp:425] cont_sentence_input_1_split <- cont_sentence
I0720 14:25:49.614912 18926 net.cpp:91] Creating Layer embed_encoder
I0720 14:25:49.614938 18920 net.cpp:425] cont_sentence_input_1_split <- cont_sentence
I0720 14:25:49.614946 18938 net.cpp:399] cont_sentence_input_1_split -> cont_sentence_input_1_split_0
I0720 14:25:49.614951 18920 net.cpp:399] cont_sentence_input_1_split -> cont_sentence_input_1_split_0
I0720 14:25:49.614950 18926 net.cpp:425] embed_encoder <- frames_fc7
I0720 14:25:49.614964 18938 net.cpp:399] cont_sentence_input_1_split -> cont_sentence_input_1_split_1
I0720 14:25:49.614966 18920 net.cpp:399] cont_sentence_input_1_split -> cont_sentence_input_1_split_1
I0720 14:25:49.614979 18926 net.cpp:399] embed_encoder -> embedded_in_frames
I0720 14:25:49.614985 18938 net.cpp:141] Setting up cont_sentence_input_1_split
I0720 14:25:49.614987 18920 net.cpp:141] Setting up cont_sentence_input_1_split
I0720 14:25:49.615000 18938 net.cpp:148] Top shape: 1 1 (1)
I0720 14:25:49.615005 18920 net.cpp:148] Top shape: 1 1 (1)
I0720 14:25:49.615012 18920 net.cpp:148] Top shape: 1 1 (1)
I0720 14:25:49.615023 18920 net.cpp:156] Memory required for data: 16404
I0720 14:25:49.615011 18938 net.cpp:148] Top shape: 1 1 (1)
I0720 14:25:49.615030 18920 layer_factory.hpp:77] Creating layer embed_encoder
I0720 14:25:49.615033 18938 net.cpp:156] Memory required for data: 16404
I0720 14:25:49.615041 18920 net.cpp:91] Creating Layer embed_encoder
I0720 14:25:49.615043 18938 layer_factory.hpp:77] Creating layer embed_encoder
I0720 14:25:49.615046 18920 net.cpp:425] embed_encoder <- frames_fc7
I0720 14:25:49.615064 18938 net.cpp:91] Creating Layer embed_encoder
I0720 14:25:49.615072 18938 net.cpp:425] embed_encoder <- frames_fc7
I0720 14:25:49.615514 18924 layer_factory.hpp:77] Creating layer input
I0720 14:25:49.615533 18924 net.cpp:91] Creating Layer input
I0720 14:25:49.615547 18924 net.cpp:399] input -> frames_fc7
I0720 14:25:49.615548 18938 net.cpp:399] embed_encoder -> embedded_in_frames
I0720 14:25:49.615561 18920 net.cpp:399] embed_encoder -> embedded_in_frames
I0720 14:25:49.615571 18924 net.cpp:399] input -> cont_sentence
I0720 14:25:49.615589 18924 net.cpp:399] input -> input_sentence
I0720 14:25:49.615664 18924 net.cpp:399] input -> stage_indicator
I0720 14:25:49.615694 18924 net.cpp:141] Setting up input
I0720 14:25:49.615706 18924 net.cpp:148] Top shape: 1 4096 (4096)
I0720 14:25:49.615720 18924 net.cpp:148] Top shape: 1 1 (1)
I0720 14:25:49.615733 18924 net.cpp:148] Top shape: 1 1 (1)
I0720 14:25:49.615743 18924 net.cpp:148] Top shape: 1 1 (1)
I0720 14:25:49.615752 18924 net.cpp:156] Memory required for data: 16396
I0720 14:25:49.615761 18924 layer_factory.hpp:77] Creating layer cont_sentence_input_1_split
I0720 14:25:49.615778 18924 net.cpp:91] Creating Layer cont_sentence_input_1_split
I0720 14:25:49.615788 18924 net.cpp:425] cont_sentence_input_1_split <- cont_sentence
I0720 14:25:49.615802 18924 net.cpp:399] cont_sentence_input_1_split -> cont_sentence_input_1_split_0
I0720 14:25:49.615819 18924 net.cpp:399] cont_sentence_input_1_split -> cont_sentence_input_1_split_1
I0720 14:25:49.615838 18924 net.cpp:141] Setting up cont_sentence_input_1_split
I0720 14:25:49.615852 18924 net.cpp:148] Top shape: 1 1 (1)
I0720 14:25:49.615864 18924 net.cpp:148] Top shape: 1 1 (1)
I0720 14:25:49.615872 18924 net.cpp:156] Memory required for data: 16404
I0720 14:25:49.615883 18924 layer_factory.hpp:77] Creating layer embed_encoder
I0720 14:25:49.615921 18924 net.cpp:91] Creating Layer embed_encoder
I0720 14:25:49.615934 18924 net.cpp:425] embed_encoder <- frames_fc7
I0720 14:25:49.615952 18924 net.cpp:399] embed_encoder -> embedded_in_frames
I0720 14:25:49.633749 18948 net.cpp:141] Setting up embed_encoder
I0720 14:25:49.633797 18948 net.cpp:148] Top shape: 1 500 (500)
I0720 14:25:49.633803 18948 net.cpp:156] Memory required for data: 18404
I0720 14:25:49.633832 18948 layer_factory.hpp:77] Creating layer reshape_frames
I0720 14:25:49.633868 18948 net.cpp:91] Creating Layer reshape_frames
I0720 14:25:49.633877 18948 net.cpp:425] reshape_frames <- embedded_in_frames
I0720 14:25:49.633888 18948 net.cpp:399] reshape_frames -> embedded_input_frames
I0720 14:25:49.633926 18948 net.cpp:141] Setting up reshape_frames
I0720 14:25:49.633934 18948 net.cpp:148] Top shape: 1 1 500 (500)
I0720 14:25:49.633939 18948 net.cpp:156] Memory required for data: 20404
I0720 14:25:49.633944 18948 layer_factory.hpp:77] Creating layer reshape_stage_indicator
I0720 14:25:49.633955 18948 net.cpp:91] Creating Layer reshape_stage_indicator
I0720 14:25:49.633961 18948 net.cpp:425] reshape_stage_indicator <- stage_indicator
I0720 14:25:49.633970 18948 net.cpp:399] reshape_stage_indicator -> reshaped_stage_indicator
I0720 14:25:49.633980 18948 net.cpp:141] Setting up reshape_stage_indicator
I0720 14:25:49.633987 18948 net.cpp:148] Top shape: 1 1 1 (1)
I0720 14:25:49.633992 18948 net.cpp:156] Memory required for data: 20408
I0720 14:25:49.633996 18948 layer_factory.hpp:77] Creating layer embedding
I0720 14:25:49.634013 18948 net.cpp:91] Creating Layer embedding
I0720 14:25:49.634019 18948 net.cpp:425] embedding <- input_sentence
I0720 14:25:49.634027 18948 net.cpp:399] embedding -> embedded_input_sentence
I0720 14:25:49.639287 18924 net.cpp:141] Setting up embed_encoder
I0720 14:25:49.639336 18924 net.cpp:148] Top shape: 1 500 (500)
I0720 14:25:49.639343 18924 net.cpp:156] Memory required for data: 18404
I0720 14:25:49.639364 18924 layer_factory.hpp:77] Creating layer reshape_frames
I0720 14:25:49.639847 18924 net.cpp:91] Creating Layer reshape_frames
I0720 14:25:49.639858 18924 net.cpp:425] reshape_frames <- embedded_in_frames
I0720 14:25:49.639853 18920 net.cpp:141] Setting up embed_encoder
I0720 14:25:49.639870 18924 net.cpp:399] reshape_frames -> embedded_input_frames
I0720 14:25:49.639871 18920 net.cpp:148] Top shape: 1 500 (500)
I0720 14:25:49.639878 18920 net.cpp:156] Memory required for data: 18404
I0720 14:25:49.639891 18920 layer_factory.hpp:77] Creating layer reshape_frames
I0720 14:25:49.639892 18924 net.cpp:141] Setting up reshape_frames
I0720 14:25:49.639901 18924 net.cpp:148] Top shape: 1 1 500 (500)
I0720 14:25:49.639902 18920 net.cpp:91] Creating Layer reshape_frames
I0720 14:25:49.639905 18924 net.cpp:156] Memory required for data: 20404
I0720 14:25:49.639909 18920 net.cpp:425] reshape_frames <- embedded_in_frames
I0720 14:25:49.639910 18924 layer_factory.hpp:77] Creating layer reshape_stage_indicator
I0720 14:25:49.639926 18924 net.cpp:91] Creating Layer reshape_stage_indicator
I0720 14:25:49.639927 18920 net.cpp:399] reshape_frames -> embedded_input_frames
I0720 14:25:49.639932 18924 net.cpp:425] reshape_stage_indicator <- stage_indicator
I0720 14:25:49.639940 18924 net.cpp:399] reshape_stage_indicator -> reshaped_stage_indicator
I0720 14:25:49.639942 18920 net.cpp:141] Setting up reshape_frames
I0720 14:25:49.639950 18920 net.cpp:148] Top shape: 1 1 500 (500)
I0720 14:25:49.639951 18924 net.cpp:141] Setting up reshape_stage_indicator
I0720 14:25:49.639955 18920 net.cpp:156] Memory required for data: 20404
I0720 14:25:49.639960 18920 layer_factory.hpp:77] Creating layer reshape_stage_indicator
I0720 14:25:49.639961 18924 net.cpp:148] Top shape: 1 1 1 (1)
I0720 14:25:49.639966 18924 net.cpp:156] Memory required for data: 20408
I0720 14:25:49.639969 18920 net.cpp:91] Creating Layer reshape_stage_indicator
I0720 14:25:49.639971 18924 layer_factory.hpp:77] Creating layer embedding
I0720 14:25:49.639979 18920 net.cpp:425] reshape_stage_indicator <- stage_indicator
I0720 14:25:49.639989 18920 net.cpp:399] reshape_stage_indicator -> reshaped_stage_indicator
I0720 14:25:49.640002 18920 net.cpp:141] Setting up reshape_stage_indicator
I0720 14:25:49.640009 18920 net.cpp:148] Top shape: 1 1 1 (1)
I0720 14:25:49.640013 18920 net.cpp:156] Memory required for data: 20408
I0720 14:25:49.640018 18920 layer_factory.hpp:77] Creating layer embedding
I0720 14:25:49.640027 18920 net.cpp:91] Creating Layer embedding
I0720 14:25:49.640033 18920 net.cpp:425] embedding <- input_sentence
I0720 14:25:49.640458 18924 net.cpp:91] Creating Layer embedding
I0720 14:25:49.640460 18920 net.cpp:399] embedding -> embedded_input_sentence
I0720 14:25:49.640470 18924 net.cpp:425] embedding <- input_sentence
I0720 14:25:49.640480 18924 net.cpp:399] embedding -> embedded_input_sentence
I0720 14:25:49.640480 18926 net.cpp:141] Setting up embed_encoder
I0720 14:25:49.640514 18926 net.cpp:148] Top shape: 1 500 (500)
I0720 14:25:49.640519 18926 net.cpp:156] Memory required for data: 18404
I0720 14:25:49.640538 18926 layer_factory.hpp:77] Creating layer reshape_frames
I0720 14:25:49.641033 18926 net.cpp:91] Creating Layer reshape_frames
I0720 14:25:49.641043 18926 net.cpp:425] reshape_frames <- embedded_in_frames
I0720 14:25:49.641054 18926 net.cpp:399] reshape_frames -> embedded_input_frames
I0720 14:25:49.641072 18926 net.cpp:141] Setting up reshape_frames
I0720 14:25:49.641080 18926 net.cpp:148] Top shape: 1 1 500 (500)
I0720 14:25:49.641085 18926 net.cpp:156] Memory required for data: 20404
I0720 14:25:49.641089 18926 layer_factory.hpp:77] Creating layer reshape_stage_indicator
I0720 14:25:49.641101 18926 net.cpp:91] Creating Layer reshape_stage_indicator
I0720 14:25:49.641106 18926 net.cpp:425] reshape_stage_indicator <- stage_indicator
I0720 14:25:49.641114 18926 net.cpp:399] reshape_stage_indicator -> reshaped_stage_indicator
I0720 14:25:49.641125 18926 net.cpp:141] Setting up reshape_stage_indicator
I0720 14:25:49.641132 18926 net.cpp:148] Top shape: 1 1 1 (1)
I0720 14:25:49.641136 18926 net.cpp:156] Memory required for data: 20408
I0720 14:25:49.641141 18926 layer_factory.hpp:77] Creating layer embedding
I0720 14:25:49.641656 18926 net.cpp:91] Creating Layer embedding
I0720 14:25:49.641664 18926 net.cpp:425] embedding <- input_sentence
I0720 14:25:49.641674 18926 net.cpp:399] embedding -> embedded_input_sentence
I0720 14:25:49.644201 18936 net.cpp:141] Setting up embed_encoder
I0720 14:25:49.644249 18936 net.cpp:148] Top shape: 1 500 (500)
I0720 14:25:49.644258 18936 net.cpp:156] Memory required for data: 18404
I0720 14:25:49.644754 18934 net.cpp:141] Setting up embed_encoder
I0720 14:25:49.644757 18936 layer_factory.hpp:77] Creating layer reshape_frames
I0720 14:25:49.644781 18934 net.cpp:148] Top shape: 1 500 (500)
I0720 14:25:49.644789 18934 net.cpp:156] Memory required for data: 18404
I0720 14:25:49.644796 18936 net.cpp:91] Creating Layer reshape_frames
I0720 14:25:49.644805 18936 net.cpp:425] reshape_frames <- embedded_in_frames
I0720 14:25:49.645787 18934 layer_factory.hpp:77] Creating layer reshape_frames
I0720 14:25:49.645812 18934 net.cpp:91] Creating Layer reshape_frames
I0720 14:25:49.645812 18936 net.cpp:399] reshape_frames -> embedded_input_frames
I0720 14:25:49.645822 18934 net.cpp:425] reshape_frames <- embedded_in_frames
I0720 14:25:49.645854 18936 net.cpp:141] Setting up reshape_frames
I0720 14:25:49.645865 18936 net.cpp:148] Top shape: 1 1 500 (500)
I0720 14:25:49.645869 18936 net.cpp:156] Memory required for data: 20404
I0720 14:25:49.645875 18936 layer_factory.hpp:77] Creating layer reshape_stage_indicator
I0720 14:25:49.645886 18936 net.cpp:91] Creating Layer reshape_stage_indicator
I0720 14:25:49.645892 18936 net.cpp:425] reshape_stage_indicator <- stage_indicator
I0720 14:25:49.645900 18936 net.cpp:399] reshape_stage_indicator -> reshaped_stage_indicator
I0720 14:25:49.645912 18936 net.cpp:141] Setting up reshape_stage_indicator
I0720 14:25:49.645920 18936 net.cpp:148] Top shape: 1 1 1 (1)
I0720 14:25:49.645925 18936 net.cpp:156] Memory required for data: 20408
I0720 14:25:49.645928 18936 layer_factory.hpp:77] Creating layer embedding
I0720 14:25:49.646319 18934 net.cpp:399] reshape_frames -> embedded_input_frames
I0720 14:25:49.646338 18934 net.cpp:141] Setting up reshape_frames
I0720 14:25:49.646347 18934 net.cpp:148] Top shape: 1 1 500 (500)
I0720 14:25:49.646352 18934 net.cpp:156] Memory required for data: 20404
I0720 14:25:49.646356 18934 layer_factory.hpp:77] Creating layer reshape_stage_indicator
I0720 14:25:49.646365 18934 net.cpp:91] Creating Layer reshape_stage_indicator
I0720 14:25:49.646371 18934 net.cpp:425] reshape_stage_indicator <- stage_indicator
I0720 14:25:49.646378 18934 net.cpp:399] reshape_stage_indicator -> reshaped_stage_indicator
I0720 14:25:49.646389 18934 net.cpp:141] Setting up reshape_stage_indicator
I0720 14:25:49.646396 18934 net.cpp:148] Top shape: 1 1 1 (1)
I0720 14:25:49.646401 18934 net.cpp:156] Memory required for data: 20408
I0720 14:25:49.646405 18934 layer_factory.hpp:77] Creating layer embedding
I0720 14:25:49.647330 18934 net.cpp:91] Creating Layer embedding
I0720 14:25:49.647330 18928 net.cpp:141] Setting up embed_encoder
I0720 14:25:49.647347 18934 net.cpp:425] embedding <- input_sentence
I0720 14:25:49.647344 18936 net.cpp:91] Creating Layer embedding
I0720 14:25:49.647356 18928 net.cpp:148] Top shape: 1 500 (500)
I0720 14:25:49.647372 18936 net.cpp:425] embedding <- input_sentence
I0720 14:25:49.647375 18928 net.cpp:156] Memory required for data: 18404
I0720 14:25:49.647392 18928 layer_factory.hpp:77] Creating layer reshape_frames
I0720 14:25:49.647858 18936 net.cpp:399] embedding -> embedded_input_sentence
I0720 14:25:49.647888 18928 net.cpp:91] Creating Layer reshape_frames
I0720 14:25:49.647888 18934 net.cpp:399] embedding -> embedded_input_sentence
I0720 14:25:49.647917 18928 net.cpp:425] reshape_frames <- embedded_in_frames
I0720 14:25:49.647933 18928 net.cpp:399] reshape_frames -> embedded_input_frames
I0720 14:25:49.647951 18928 net.cpp:141] Setting up reshape_frames
I0720 14:25:49.647961 18928 net.cpp:148] Top shape: 1 1 500 (500)
I0720 14:25:49.647965 18928 net.cpp:156] Memory required for data: 20404
I0720 14:25:49.647971 18928 layer_factory.hpp:77] Creating layer reshape_stage_indicator
I0720 14:25:49.649034 18928 net.cpp:91] Creating Layer reshape_stage_indicator
I0720 14:25:49.649060 18928 net.cpp:425] reshape_stage_indicator <- stage_indicator
I0720 14:25:49.649081 18928 net.cpp:399] reshape_stage_indicator -> reshaped_stage_indicator
I0720 14:25:49.649108 18928 net.cpp:141] Setting up reshape_stage_indicator
I0720 14:25:49.649127 18928 net.cpp:148] Top shape: 1 1 1 (1)
I0720 14:25:49.649137 18928 net.cpp:156] Memory required for data: 20408
I0720 14:25:49.649147 18928 layer_factory.hpp:77] Creating layer embedding
I0720 14:25:49.649616 18946 net.cpp:141] Setting up embed_encoder
I0720 14:25:49.649621 18938 net.cpp:141] Setting up embed_encoder
I0720 14:25:49.649641 18946 net.cpp:148] Top shape: 1 500 (500)
I0720 14:25:49.649616 18952 net.cpp:141] Setting up embed_encoder
I0720 14:25:49.649652 18946 net.cpp:156] Memory required for data: 18404
I0720 14:25:49.649653 18938 net.cpp:148] Top shape: 1 500 (500)
I0720 14:25:49.649619 18928 net.cpp:91] Creating Layer embedding
I0720 14:25:49.649670 18938 net.cpp:156] Memory required for data: 18404
I0720 14:25:49.649665 18952 net.cpp:148] Top shape: 1 500 (500)
I0720 14:25:49.649677 18946 layer_factory.hpp:77] Creating layer reshape_frames
I0720 14:25:49.649679 18928 net.cpp:425] embedding <- input_sentence
I0720 14:25:49.649684 18952 net.cpp:156] Memory required for data: 18404
I0720 14:25:49.649691 18928 net.cpp:399] embedding -> embedded_input_sentence
I0720 14:25:49.649698 18938 layer_factory.hpp:77] Creating layer reshape_frames
I0720 14:25:49.649704 18952 layer_factory.hpp:77] Creating layer reshape_frames
I0720 14:25:49.649716 18938 net.cpp:91] Creating Layer reshape_frames
I0720 14:25:49.649727 18938 net.cpp:425] reshape_frames <- embedded_in_frames
I0720 14:25:49.650707 18946 net.cpp:91] Creating Layer reshape_frames
I0720 14:25:49.650707 18952 net.cpp:91] Creating Layer reshape_frames
I0720 14:25:49.650727 18946 net.cpp:425] reshape_frames <- embedded_in_frames
I0720 14:25:49.650713 18938 net.cpp:399] reshape_frames -> embedded_input_frames
I0720 14:25:49.650727 18952 net.cpp:425] reshape_frames <- embedded_in_frames
I0720 14:25:49.650748 18946 net.cpp:399] reshape_frames -> embedded_input_frames
I0720 14:25:49.650763 18952 net.cpp:399] reshape_frames -> embedded_input_frames
I0720 14:25:49.650764 18938 net.cpp:141] Setting up reshape_frames
I0720 14:25:49.650768 18946 net.cpp:141] Setting up reshape_frames
I0720 14:25:49.650784 18938 net.cpp:148] Top shape: 1 1 500 (500)
I0720 14:25:49.650804 18946 net.cpp:148] Top shape: 1 1 500 (500)
I0720 14:25:49.650807 18938 net.cpp:156] Memory required for data: 20404
I0720 14:25:49.650815 18946 net.cpp:156] Memory required for data: 20404
I0720 14:25:49.650781 18952 net.cpp:141] Setting up reshape_frames
I0720 14:25:49.650826 18946 layer_factory.hpp:77] Creating layer reshape_stage_indicator
I0720 14:25:49.650822 18938 layer_factory.hpp:77] Creating layer reshape_stage_indicator
I0720 14:25:49.650837 18952 net.cpp:148] Top shape: 1 1 500 (500)
I0720 14:25:49.650843 18938 net.cpp:91] Creating Layer reshape_stage_indicator
I0720 14:25:49.650847 18952 net.cpp:156] Memory required for data: 20404
I0720 14:25:49.650851 18938 net.cpp:425] reshape_stage_indicator <- stage_indicator
I0720 14:25:49.650854 18952 layer_factory.hpp:77] Creating layer reshape_stage_indicator
I0720 14:25:49.651253 18946 net.cpp:91] Creating Layer reshape_stage_indicator
I0720 14:25:49.651253 18952 net.cpp:91] Creating Layer reshape_stage_indicator
I0720 14:25:49.651271 18946 net.cpp:425] reshape_stage_indicator <- stage_indicator
I0720 14:25:49.651273 18952 net.cpp:425] reshape_stage_indicator <- stage_indicator
I0720 14:25:49.651285 18938 net.cpp:399] reshape_stage_indicator -> reshaped_stage_indicator
I0720 14:25:49.651289 18946 net.cpp:399] reshape_stage_indicator -> reshaped_stage_indicator
I0720 14:25:49.651289 18952 net.cpp:399] reshape_stage_indicator -> reshaped_stage_indicator
I0720 14:25:49.651315 18938 net.cpp:141] Setting up reshape_stage_indicator
I0720 14:25:49.651319 18952 net.cpp:141] Setting up reshape_stage_indicator
I0720 14:25:49.651319 18946 net.cpp:141] Setting up reshape_stage_indicator
I0720 14:25:49.651326 18938 net.cpp:148] Top shape: 1 1 1 (1)
I0720 14:25:49.651340 18952 net.cpp:148] Top shape: 1 1 1 (1)
I0720 14:25:49.651343 18946 net.cpp:148] Top shape: 1 1 1 (1)
I0720 14:25:49.651348 18938 net.cpp:156] Memory required for data: 20408
I0720 14:25:49.651351 18952 net.cpp:156] Memory required for data: 20408
I0720 14:25:49.651352 18946 net.cpp:156] Memory required for data: 20408
I0720 14:25:49.651365 18952 layer_factory.hpp:77] Creating layer embedding
I0720 14:25:49.651355 18938 layer_factory.hpp:77] Creating layer embedding
I0720 14:25:49.651370 18946 layer_factory.hpp:77] Creating layer embedding
I0720 14:25:49.651382 18938 net.cpp:91] Creating Layer embedding
I0720 14:25:49.651384 18946 net.cpp:91] Creating Layer embedding
I0720 14:25:49.651389 18938 net.cpp:425] embedding <- input_sentence
I0720 14:25:49.651396 18946 net.cpp:425] embedding <- input_sentence
I0720 14:25:49.652375 18952 net.cpp:91] Creating Layer embedding
I0720 14:25:49.652375 18946 net.cpp:399] embedding -> embedded_input_sentence
I0720 14:25:49.652396 18952 net.cpp:425] embedding <- input_sentence
I0720 14:25:49.652379 18938 net.cpp:399] embedding -> embedded_input_sentence
I0720 14:25:49.652413 18952 net.cpp:399] embedding -> embedded_input_sentence
I0720 14:25:49.863998 18948 net.cpp:141] Setting up embedding
I0720 14:25:49.864056 18948 net.cpp:148] Top shape: 1 1 500 (500)
I0720 14:25:49.864068 18948 net.cpp:156] Memory required for data: 22408
I0720 14:25:49.864091 18948 layer_factory.hpp:77] Creating layer lstm1
I0720 14:25:49.864116 18948 net.cpp:91] Creating Layer lstm1
I0720 14:25:49.864128 18948 net.cpp:425] lstm1 <- embedded_input_frames
I0720 14:25:49.864142 18948 net.cpp:425] lstm1 <- cont_sentence_input_1_split_0
I0720 14:25:49.864166 18948 net.cpp:399] lstm1 -> lstm1
I0720 14:25:49.864209 18948 recurrent_layer.cpp:20] Initializing recurrent layer: assuming input batch contains 1 timesteps of 1 independent streams.
I0720 14:25:49.864781 18948 net.cpp:49] Initializing net from parameters: 
layer {
  name: "lstm1_"
  type: "Input"
  top: "x"
  top: "cont"
  input_param {
    shape {
      dim: 1
      dim: 1
      dim: 500
    }
    shape {
      dim: 1
      dim: 1
    }
  }
}
layer {
  name: "lstm1_"
  type: "Input"
  top: "c_0"
  top: "h_0"
  input_param {
    shape {
      dim: 1
      dim: 1
      dim: 1000
    }
    shape {
      dim: 1
      dim: 1
      dim: 1000
    }
  }
}
layer {
  name: "lstm1_cont_slice"
  type: "Slice"
  bottom: "cont"
  top: "cont_1"
  slice_param {
    axis: 0
  }
}
layer {
  name: "lstm1_x_transform"
  type: "InnerProduct"
  bottom: "x"
  top: "W_xc_x"
  param {
    name: "W_xc"
  }
  param {
    name: "b_c"
  }
  propagate_down: true
  inner_product_param {
    num_output: 4000
    bias_term: true
    weight_filler {
      type: "uniform"
      min: -0.08
      max: 0.08
    }
    bias_filler {
      type: "constant"
      value: 0
    }
    axis: 2
  }
}
layer {
  name: "lstm1_W_xc_x_slice"
  type: "Slice"
  bottom: "W_xc_x"
  top: "W_xc_x_1"
  slice_param {
    axis: 0
  }
}
layer {
  name: "lstm1_h_conted_0"
  type: "Scale"
  bottom: "h_0"
  bottom: "cont_1"
  top: "h_conted_0"
  scale_param {
    axis: 0
  }
}
layer {
  name: "lstm1_transform_1"
  type: "InnerProduct"
  bottom: "h_conted_0"
  top: "W_hc_h_0"
  param {
    name: "W_hc"
  }
  inner_product_param {
    num_output: 4000
    bias_term: false
    weight_filler {
      type: "uniform"
      min: -0.08
      max: 0.08
    }
    axis: 2
  }
}
layer {
  name: "lstm1_gate_input_1"
  type: "Eltwise"
  bottom: "W_hc_h_0"
  bottom: "W_xc_x_1"
  top: "gate_input_1"
  eltwise_param {
    operation: SUM
  }
}
layer {
  name: "lstm1_unit_1"
  type: "LSTMUnit"
  bottom: "c_0"
  bottom: "gate_input_1"
  bottom: "cont_1"
  top: "c_1"
  top: "h_1"
}
layer {
  name: "lstm1_"
  type: "Split"
  bottom: "c_1"
  top: "c_T"
}
layer {
  name: "lstm1_h_concat"
  type: "Concat"
  bottom: "h_1"
  top: "h"
  concat_param {
    axis: 0
  }
}
layer {
  name: "h_pseudoloss"
  type: "Reduction"
  bottom: "h"
  top: "h_pseudoloss"
  loss_weight: 1
}
I0720 14:25:49.864938 18948 layer_factory.hpp:77] Creating layer lstm1_
I0720 14:25:49.864958 18948 net.cpp:91] Creating Layer lstm1_
I0720 14:25:49.864970 18948 net.cpp:399] lstm1_ -> x
I0720 14:25:49.864990 18948 net.cpp:399] lstm1_ -> cont
I0720 14:25:49.865010 18948 net.cpp:141] Setting up lstm1_
I0720 14:25:49.865023 18948 net.cpp:148] Top shape: 1 1 500 (500)
I0720 14:25:49.865034 18948 net.cpp:148] Top shape: 1 1 (1)
I0720 14:25:49.865041 18948 net.cpp:156] Memory required for data: 2004
I0720 14:25:49.865051 18948 layer_factory.hpp:77] Creating layer lstm1_
I0720 14:25:49.865063 18948 net.cpp:91] Creating Layer lstm1_
I0720 14:25:49.865074 18948 net.cpp:399] lstm1_ -> c_0
I0720 14:25:49.865092 18948 net.cpp:399] lstm1_ -> h_0
I0720 14:25:49.865109 18948 net.cpp:141] Setting up lstm1_
I0720 14:25:49.865121 18948 net.cpp:148] Top shape: 1 1 1000 (1000)
I0720 14:25:49.865131 18948 net.cpp:148] Top shape: 1 1 1000 (1000)
I0720 14:25:49.865139 18948 net.cpp:156] Memory required for data: 10004
I0720 14:25:49.865146 18948 layer_factory.hpp:77] Creating layer lstm1_cont_slice
I0720 14:25:49.865159 18948 net.cpp:91] Creating Layer lstm1_cont_slice
I0720 14:25:49.865167 18948 net.cpp:425] lstm1_cont_slice <- cont
I0720 14:25:49.865180 18948 net.cpp:399] lstm1_cont_slice -> cont_1
I0720 14:25:49.865197 18948 net.cpp:141] Setting up lstm1_cont_slice
I0720 14:25:49.865209 18948 net.cpp:148] Top shape: 1 1 (1)
I0720 14:25:49.865217 18948 net.cpp:156] Memory required for data: 10008
I0720 14:25:49.865224 18948 layer_factory.hpp:77] Creating layer cont_1_lstm1_cont_slice_0_split
I0720 14:25:49.865242 18948 net.cpp:91] Creating Layer cont_1_lstm1_cont_slice_0_split
I0720 14:25:49.865252 18948 net.cpp:425] cont_1_lstm1_cont_slice_0_split <- cont_1
I0720 14:25:49.865263 18948 net.cpp:399] cont_1_lstm1_cont_slice_0_split -> cont_1_lstm1_cont_slice_0_split_0
I0720 14:25:49.865278 18948 net.cpp:399] cont_1_lstm1_cont_slice_0_split -> cont_1_lstm1_cont_slice_0_split_1
I0720 14:25:49.865294 18948 net.cpp:141] Setting up cont_1_lstm1_cont_slice_0_split
I0720 14:25:49.865309 18948 net.cpp:148] Top shape: 1 1 (1)
I0720 14:25:49.865319 18948 net.cpp:148] Top shape: 1 1 (1)
I0720 14:25:49.865325 18948 net.cpp:156] Memory required for data: 10016
I0720 14:25:49.865332 18948 layer_factory.hpp:77] Creating layer lstm1_x_transform
I0720 14:25:49.865348 18948 net.cpp:91] Creating Layer lstm1_x_transform
I0720 14:25:49.865356 18948 net.cpp:425] lstm1_x_transform <- x
I0720 14:25:49.865382 18948 net.cpp:399] lstm1_x_transform -> W_xc_x
I0720 14:25:49.882159 18924 net.cpp:141] Setting up embedding
I0720 14:25:49.882222 18924 net.cpp:148] Top shape: 1 1 500 (500)
I0720 14:25:49.882231 18924 net.cpp:156] Memory required for data: 22408
I0720 14:25:49.882256 18924 layer_factory.hpp:77] Creating layer lstm1
I0720 14:25:49.882283 18924 net.cpp:91] Creating Layer lstm1
I0720 14:25:49.882294 18924 net.cpp:425] lstm1 <- embedded_input_frames
I0720 14:25:49.882308 18924 net.cpp:425] lstm1 <- cont_sentence_input_1_split_0
I0720 14:25:49.882331 18924 net.cpp:399] lstm1 -> lstm1
I0720 14:25:49.882357 18924 recurrent_layer.cpp:20] Initializing recurrent layer: assuming input batch contains 1 timesteps of 1 independent streams.
I0720 14:25:49.882778 18924 net.cpp:49] Initializing net from parameters: 
layer {
  name: "lstm1_"
  type: "Input"
  top: "x"
  top: "cont"
  input_param {
    shape {
      dim: 1
      dim: 1
      dim: 500
    }
    shape {
      dim: 1
      dim: 1
    }
  }
}
layer {
  name: "lstm1_"
  type: "Input"
  top: "c_0"
  top: "h_0"
  input_param {
    shape {
      dim: 1
      dim: 1
      dim: 1000
    }
    shape {
      dim: 1
      dim: 1
      dim: 1000
    }
  }
}
layer {
  name: "lstm1_cont_slice"
  type: "Slice"
  bottom: "cont"
  top: "cont_1"
  slice_param {
    axis: 0
  }
}
layer {
  name: "lstm1_x_transform"
  type: "InnerProduct"
  bottom: "x"
  top: "W_xc_x"
  param {
    name: "W_xc"
  }
  param {
    name: "b_c"
  }
  propagate_down: true
  inner_product_param {
    num_output: 4000
    bias_term: true
    weight_filler {
      type: "uniform"
      min: -0.08
      max: 0.08
    }
    bias_filler {
      type: "constant"
      value: 0
    }
    axis: 2
  }
}
layer {
  name: "lstm1_W_xc_x_slice"
  type: "Slice"
  bottom: "W_xc_x"
  top: "W_xc_x_1"
  slice_param {
    axis: 0
  }
}
layer {
  name: "lstm1_h_conted_0"
  type: "Scale"
  bottom: "h_0"
  bottom: "cont_1"
  top: "h_conted_0"
  scale_param {
    axis: 0
  }
}
layer {
  name: "lstm1_transform_1"
  type: "InnerProduct"
  bottom: "h_conted_0"
  top: "W_hc_h_0"
  param {
    name: "W_hc"
  }
  inner_product_param {
    num_output: 4000
    bias_term: false
    weight_filler {
      type: "uniform"
      min: -0.08
      max: 0.08
    }
    axis: 2
  }
}
layer {
  name: "lstm1_gate_input_1"
  type: "Eltwise"
  bottom: "W_hc_h_0"
  bottom: "W_xc_x_1"
  top: "gate_input_1"
  eltwise_param {
    operation: SUM
  }
}
layer {
  name: "lstm1_unit_1"
  type: "LSTMUnit"
  bottom: "c_0"
  bottom: "gate_input_1"
  bottom: "cont_1"
  top: "c_1"
  top: "h_1"
}
layer {
  name: "lstm1_"
  type: "Split"
  bottom: "c_1"
  top: "c_T"
}
layer {
  name: "lstm1_h_concat"
  type: "Concat"
  bottom: "h_1"
  top: "h"
  concat_param {
    axis: 0
  }
}
layer {
  name: "h_pseudoloss"
  type: "Reduction"
  bottom: "h"
  top: "h_pseudoloss"
  loss_weight: 1
}
I0720 14:25:49.882925 18924 layer_factory.hpp:77] Creating layer lstm1_
I0720 14:25:49.882942 18924 net.cpp:91] Creating Layer lstm1_
I0720 14:25:49.882953 18924 net.cpp:399] lstm1_ -> x
I0720 14:25:49.882969 18924 net.cpp:399] lstm1_ -> cont
I0720 14:25:49.882989 18924 net.cpp:141] Setting up lstm1_
I0720 14:25:49.883002 18924 net.cpp:148] Top shape: 1 1 500 (500)
I0720 14:25:49.883011 18924 net.cpp:148] Top shape: 1 1 (1)
I0720 14:25:49.883018 18924 net.cpp:156] Memory required for data: 2004
I0720 14:25:49.883025 18924 layer_factory.hpp:77] Creating layer lstm1_
I0720 14:25:49.883036 18924 net.cpp:91] Creating Layer lstm1_
I0720 14:25:49.883046 18924 net.cpp:399] lstm1_ -> c_0
I0720 14:25:49.883061 18924 net.cpp:399] lstm1_ -> h_0
I0720 14:25:49.883076 18924 net.cpp:141] Setting up lstm1_
I0720 14:25:49.883086 18924 net.cpp:148] Top shape: 1 1 1000 (1000)
I0720 14:25:49.883095 18924 net.cpp:148] Top shape: 1 1 1000 (1000)
I0720 14:25:49.883102 18924 net.cpp:156] Memory required for data: 10004
I0720 14:25:49.883110 18924 layer_factory.hpp:77] Creating layer lstm1_cont_slice
I0720 14:25:49.883121 18924 net.cpp:91] Creating Layer lstm1_cont_slice
I0720 14:25:49.883129 18924 net.cpp:425] lstm1_cont_slice <- cont
I0720 14:25:49.883141 18924 net.cpp:399] lstm1_cont_slice -> cont_1
I0720 14:25:49.883158 18924 net.cpp:141] Setting up lstm1_cont_slice
I0720 14:25:49.883169 18924 net.cpp:148] Top shape: 1 1 (1)
I0720 14:25:49.883175 18924 net.cpp:156] Memory required for data: 10008
I0720 14:25:49.883183 18924 layer_factory.hpp:77] Creating layer cont_1_lstm1_cont_slice_0_split
I0720 14:25:49.883198 18924 net.cpp:91] Creating Layer cont_1_lstm1_cont_slice_0_split
I0720 14:25:49.883208 18924 net.cpp:425] cont_1_lstm1_cont_slice_0_split <- cont_1
I0720 14:25:49.883219 18924 net.cpp:399] cont_1_lstm1_cont_slice_0_split -> cont_1_lstm1_cont_slice_0_split_0
I0720 14:25:49.883230 18924 net.cpp:399] cont_1_lstm1_cont_slice_0_split -> cont_1_lstm1_cont_slice_0_split_1
I0720 14:25:49.883246 18924 net.cpp:141] Setting up cont_1_lstm1_cont_slice_0_split
I0720 14:25:49.883258 18924 net.cpp:148] Top shape: 1 1 (1)
I0720 14:25:49.883268 18924 net.cpp:148] Top shape: 1 1 (1)
I0720 14:25:49.883275 18924 net.cpp:156] Memory required for data: 10016
I0720 14:25:49.883281 18924 layer_factory.hpp:77] Creating layer lstm1_x_transform
I0720 14:25:49.883296 18924 net.cpp:91] Creating Layer lstm1_x_transform
I0720 14:25:49.883303 18924 net.cpp:425] lstm1_x_transform <- x
I0720 14:25:49.883327 18924 net.cpp:399] lstm1_x_transform -> W_xc_x
I0720 14:25:49.890447 18948 net.cpp:141] Setting up lstm1_x_transform
I0720 14:25:49.890492 18948 net.cpp:148] Top shape: 1 1 4000 (4000)
I0720 14:25:49.890502 18948 net.cpp:156] Memory required for data: 26016
I0720 14:25:49.890527 18948 layer_factory.hpp:77] Creating layer lstm1_W_xc_x_slice
I0720 14:25:49.890547 18948 net.cpp:91] Creating Layer lstm1_W_xc_x_slice
I0720 14:25:49.890558 18948 net.cpp:425] lstm1_W_xc_x_slice <- W_xc_x
I0720 14:25:49.890573 18948 net.cpp:399] lstm1_W_xc_x_slice -> W_xc_x_1
I0720 14:25:49.890605 18948 net.cpp:141] Setting up lstm1_W_xc_x_slice
I0720 14:25:49.890620 18948 net.cpp:148] Top shape: 1 1 4000 (4000)
I0720 14:25:49.890628 18948 net.cpp:156] Memory required for data: 42016
I0720 14:25:49.890637 18948 layer_factory.hpp:77] Creating layer lstm1_h_conted_0
I0720 14:25:49.890653 18948 net.cpp:91] Creating Layer lstm1_h_conted_0
I0720 14:25:49.890662 18948 net.cpp:425] lstm1_h_conted_0 <- h_0
I0720 14:25:49.890674 18948 net.cpp:425] lstm1_h_conted_0 <- cont_1_lstm1_cont_slice_0_split_0
I0720 14:25:49.890703 18948 net.cpp:399] lstm1_h_conted_0 -> h_conted_0
I0720 14:25:49.890748 18948 net.cpp:141] Setting up lstm1_h_conted_0
I0720 14:25:49.890763 18948 net.cpp:148] Top shape: 1 1 1000 (1000)
I0720 14:25:49.890770 18948 net.cpp:156] Memory required for data: 46016
I0720 14:25:49.890779 18948 layer_factory.hpp:77] Creating layer lstm1_transform_1
I0720 14:25:49.890797 18948 net.cpp:91] Creating Layer lstm1_transform_1
I0720 14:25:49.890806 18948 net.cpp:425] lstm1_transform_1 <- h_conted_0
I0720 14:25:49.890825 18948 net.cpp:399] lstm1_transform_1 -> W_hc_h_0
I0720 14:25:49.891759 18946 net.cpp:141] Setting up embedding
I0720 14:25:49.891800 18946 net.cpp:148] Top shape: 1 1 500 (500)
I0720 14:25:49.891806 18946 net.cpp:156] Memory required for data: 22408
I0720 14:25:49.891824 18946 layer_factory.hpp:77] Creating layer lstm1
I0720 14:25:49.891851 18946 net.cpp:91] Creating Layer lstm1
I0720 14:25:49.891860 18946 net.cpp:425] lstm1 <- embedded_input_frames
I0720 14:25:49.891867 18946 net.cpp:425] lstm1 <- cont_sentence_input_1_split_0
I0720 14:25:49.891876 18946 net.cpp:399] lstm1 -> lstm1
I0720 14:25:49.891893 18946 recurrent_layer.cpp:20] Initializing recurrent layer: assuming input batch contains 1 timesteps of 1 independent streams.
I0720 14:25:49.893545 18946 net.cpp:49] Initializing net from parameters: 
layer {
  name: "lstm1_"
  type: "Input"
  top: "x"
  top: "cont"
  input_param {
    shape {
      dim: 1
      dim: 1
      dim: 500
    }
    shape {
      dim: 1
      dim: 1
    }
  }
}
layer {
  name: "lstm1_"
  type: "Input"
  top: "c_0"
  top: "h_0"
  input_param {
    shape {
      dim: 1
      dim: 1
      dim: 1000
    }
    shape {
      dim: 1
      dim: 1
      dim: 1000
    }
  }
}
layer {
  name: "lstm1_cont_slice"
  type: "Slice"
  bottom: "cont"
  top: "cont_1"
  slice_param {
    axis: 0
  }
}
layer {
  name: "lstm1_x_transform"
  type: "InnerProduct"
  bottom: "x"
  top: "W_xc_x"
  param {
    name: "W_xc"
  }
  param {
    name: "b_c"
  }
  propagate_down: true
  inner_product_param {
    num_output: 4000
    bias_term: true
    weight_filler {
      type: "uniform"
      min: -0.08
      max: 0.08
    }
    bias_filler {
      type: "constant"
      value: 0
    }
    axis: 2
  }
}
layer {
  name: "lstm1_W_xc_x_slice"
  type: "Slice"
  bottom: "W_xc_x"
  top: "W_xc_x_1"
  slice_param {
    axis: 0
  }
}
layer {
  name: "lstm1_h_conted_0"
  type: "Scale"
  bottom: "h_0"
  bottom: "cont_1"
  top: "h_conted_0"
  scale_param {
    axis: 0
  }
}
layer {
  name: "lstm1_transform_1"
  type: "InnerProduct"
  bottom: "h_conted_0"
  top: "W_hc_h_0"
  param {
    name: "W_hc"
  }
  inner_product_param {
    num_output: 4000
    bias_term: false
    weight_filler {
      type: "uniform"
      min: -0.08
      max: 0.08
    }
    axis: 2
  }
}
layer {
  name: "lstm1_gate_input_1"
  type: "Eltwise"
  bottom: "W_hc_h_0"
  bottom: "W_xc_x_1"
  top: "gate_input_1"
  eltwise_param {
    operation: SUM
  }
}
layer {
  name: "lstm1_unit_1"
  type: "LSTMUnit"
  bottom: "c_0"
  bottom: "gate_input_1"
  bottom: "cont_1"
  top: "c_1"
  top: "h_1"
}
layer {
  name: "lstm1_"
  type: "Split"
  bottom: "c_1"
  top: "c_T"
}
layer {
  name: "lstm1_h_concat"
  type: "Concat"
  bottom: "h_1"
  top: "h"
  concat_param {
    axis: 0
  }
}
layer {
  name: "h_pseudoloss"
  type: "Reduction"
  bottom: "h"
  top: "h_pseudoloss"
  loss_weight: 1
}
I0720 14:25:49.894140 18946 layer_factory.hpp:77] Creating layer lstm1_
I0720 14:25:49.894160 18946 net.cpp:91] Creating Layer lstm1_
I0720 14:25:49.894168 18946 net.cpp:399] lstm1_ -> x
I0720 14:25:49.894183 18946 net.cpp:399] lstm1_ -> cont
I0720 14:25:49.894199 18946 net.cpp:141] Setting up lstm1_
I0720 14:25:49.894209 18946 net.cpp:148] Top shape: 1 1 500 (500)
I0720 14:25:49.894217 18946 net.cpp:148] Top shape: 1 1 (1)
I0720 14:25:49.894220 18946 net.cpp:156] Memory required for data: 2004
I0720 14:25:49.894225 18946 layer_factory.hpp:77] Creating layer lstm1_
I0720 14:25:49.894233 18946 net.cpp:91] Creating Layer lstm1_
I0720 14:25:49.894239 18946 net.cpp:399] lstm1_ -> c_0
I0720 14:25:49.894249 18946 net.cpp:399] lstm1_ -> h_0
I0720 14:25:49.894260 18946 net.cpp:141] Setting up lstm1_
I0720 14:25:49.894268 18946 net.cpp:148] Top shape: 1 1 1000 (1000)
I0720 14:25:49.894273 18946 net.cpp:148] Top shape: 1 1 1000 (1000)
I0720 14:25:49.894276 18946 net.cpp:156] Memory required for data: 10004
I0720 14:25:49.894281 18946 layer_factory.hpp:77] Creating layer lstm1_cont_slice
I0720 14:25:49.894814 18946 net.cpp:91] Creating Layer lstm1_cont_slice
I0720 14:25:49.894830 18946 net.cpp:425] lstm1_cont_slice <- cont
I0720 14:25:49.894840 18946 net.cpp:399] lstm1_cont_slice -> cont_1
I0720 14:25:49.894856 18946 net.cpp:141] Setting up lstm1_cont_slice
I0720 14:25:49.894865 18946 net.cpp:148] Top shape: 1 1 (1)
I0720 14:25:49.894870 18946 net.cpp:156] Memory required for data: 10008
I0720 14:25:49.894876 18946 layer_factory.hpp:77] Creating layer cont_1_lstm1_cont_slice_0_split
I0720 14:25:49.894883 18946 net.cpp:91] Creating Layer cont_1_lstm1_cont_slice_0_split
I0720 14:25:49.894888 18946 net.cpp:425] cont_1_lstm1_cont_slice_0_split <- cont_1
I0720 14:25:49.894901 18946 net.cpp:399] cont_1_lstm1_cont_slice_0_split -> cont_1_lstm1_cont_slice_0_split_0
I0720 14:25:49.894911 18946 net.cpp:399] cont_1_lstm1_cont_slice_0_split -> cont_1_lstm1_cont_slice_0_split_1
I0720 14:25:49.894922 18946 net.cpp:141] Setting up cont_1_lstm1_cont_slice_0_split
I0720 14:25:49.894929 18946 net.cpp:148] Top shape: 1 1 (1)
I0720 14:25:49.894934 18946 net.cpp:148] Top shape: 1 1 (1)
I0720 14:25:49.894939 18946 net.cpp:156] Memory required for data: 10016
I0720 14:25:49.894943 18946 layer_factory.hpp:77] Creating layer lstm1_x_transform
I0720 14:25:49.895444 18946 net.cpp:91] Creating Layer lstm1_x_transform
I0720 14:25:49.895458 18946 net.cpp:425] lstm1_x_transform <- x
I0720 14:25:49.895473 18946 net.cpp:399] lstm1_x_transform -> W_xc_x
I0720 14:25:49.900110 18952 net.cpp:141] Setting up embedding
I0720 14:25:49.900158 18952 net.cpp:148] Top shape: 1 1 500 (500)
I0720 14:25:49.900164 18952 net.cpp:156] Memory required for data: 22408
I0720 14:25:49.900183 18952 layer_factory.hpp:77] Creating layer lstm1
I0720 14:25:49.900207 18952 net.cpp:91] Creating Layer lstm1
I0720 14:25:49.900214 18952 net.cpp:425] lstm1 <- embedded_input_frames
I0720 14:25:49.900223 18952 net.cpp:425] lstm1 <- cont_sentence_input_1_split_0
I0720 14:25:49.900243 18952 net.cpp:399] lstm1 -> lstm1
I0720 14:25:49.900262 18952 recurrent_layer.cpp:20] Initializing recurrent layer: assuming input batch contains 1 timesteps of 1 independent streams.
I0720 14:25:49.900566 18952 net.cpp:49] Initializing net from parameters: 
layer {
  name: "lstm1_"
  type: "Input"
  top: "x"
  top: "cont"
  input_param {
    shape {
      dim: 1
      dim: 1
      dim: 500
    }
    shape {
      dim: 1
      dim: 1
    }
  }
}
layer {
  name: "lstm1_"
  type: "Input"
  top: "c_0"
  top: "h_0"
  input_param {
    shape {
      dim: 1
      dim: 1
      dim: 1000
    }
    shape {
      dim: 1
      dim: 1
      dim: 1000
    }
  }
}
layer {
  name: "lstm1_cont_slice"
  type: "Slice"
  bottom: "cont"
  top: "cont_1"
  slice_param {
    axis: 0
  }
}
layer {
  name: "lstm1_x_transform"
  type: "InnerProduct"
  bottom: "x"
  top: "W_xc_x"
  param {
    name: "W_xc"
  }
  param {
    name: "b_c"
  }
  propagate_down: true
  inner_product_param {
    num_output: 4000
    bias_term: true
    weight_filler {
      type: "uniform"
      min: -0.08
      max: 0.08
    }
    bias_filler {
      type: "constant"
      value: 0
    }
    axis: 2
  }
}
layer {
  name: "lstm1_W_xc_x_slice"
  type: "Slice"
  bottom: "W_xc_x"
  top: "W_xc_x_1"
  slice_param {
    axis: 0
  }
}
layer {
  name: "lstm1_h_conted_0"
  type: "Scale"
  bottom: "h_0"
  bottom: "cont_1"
  top: "h_conted_0"
  scale_param {
    axis: 0
  }
}
layer {
  name: "lstm1_transform_1"
  type: "InnerProduct"
  bottom: "h_conted_0"
  top: "W_hc_h_0"
  param {
    name: "W_hc"
  }
  inner_product_param {
    num_output: 4000
    bias_term: false
    weight_filler {
      type: "uniform"
      min: -0.08
      max: 0.08
    }
    axis: 2
  }
}
layer {
  name: "lstm1_gate_input_1"
  type: "Eltwise"
  bottom: "W_hc_h_0"
  bottom: "W_xc_x_1"
  top: "gate_input_1"
  eltwise_param {
    operation: SUM
  }
}
layer {
  name: "lstm1_unit_1"
  type: "LSTMUnit"
  bottom: "c_0"
  bottom: "gate_input_1"
  bottom: "cont_1"
  top: "c_1"
  top: "h_1"
}
layer {
  name: "lstm1_"
  type: "Split"
  bottom: "c_1"
  top: "c_T"
}
layer {
  name: "lstm1_h_concat"
  type: "Concat"
  bottom: "h_1"
  top: "h"
  concat_param {
    axis: 0
  }
}
layer {
  name: "h_pseudoloss"
  type: "Reduction"
  bottom: "h"
  top: "h_pseudoloss"
  loss_weight: 1
}
I0720 14:25:49.900667 18952 layer_factory.hpp:77] Creating layer lstm1_
I0720 14:25:49.900681 18952 net.cpp:91] Creating Layer lstm1_
I0720 14:25:49.900688 18952 net.cpp:399] lstm1_ -> x
I0720 14:25:49.900701 18952 net.cpp:399] lstm1_ -> cont
I0720 14:25:49.900714 18952 net.cpp:141] Setting up lstm1_
I0720 14:25:49.900722 18952 net.cpp:148] Top shape: 1 1 500 (500)
I0720 14:25:49.900729 18952 net.cpp:148] Top shape: 1 1 (1)
I0720 14:25:49.900733 18952 net.cpp:156] Memory required for data: 2004
I0720 14:25:49.900738 18952 layer_factory.hpp:77] Creating layer lstm1_
I0720 14:25:49.900745 18952 net.cpp:91] Creating Layer lstm1_
I0720 14:25:49.900751 18952 net.cpp:399] lstm1_ -> c_0
I0720 14:25:49.900761 18952 net.cpp:399] lstm1_ -> h_0
I0720 14:25:49.900771 18952 net.cpp:141] Setting up lstm1_
I0720 14:25:49.900779 18952 net.cpp:148] Top shape: 1 1 1000 (1000)
I0720 14:25:49.900784 18952 net.cpp:148] Top shape: 1 1 1000 (1000)
I0720 14:25:49.900789 18952 net.cpp:156] Memory required for data: 10004
I0720 14:25:49.900792 18952 layer_factory.hpp:77] Creating layer lstm1_cont_slice
I0720 14:25:49.900801 18952 net.cpp:91] Creating Layer lstm1_cont_slice
I0720 14:25:49.900806 18952 net.cpp:425] lstm1_cont_slice <- cont
I0720 14:25:49.900813 18952 net.cpp:399] lstm1_cont_slice -> cont_1
I0720 14:25:49.900827 18952 net.cpp:141] Setting up lstm1_cont_slice
I0720 14:25:49.900835 18952 net.cpp:148] Top shape: 1 1 (1)
I0720 14:25:49.900840 18952 net.cpp:156] Memory required for data: 10008
I0720 14:25:49.900843 18952 layer_factory.hpp:77] Creating layer cont_1_lstm1_cont_slice_0_split
I0720 14:25:49.900854 18952 net.cpp:91] Creating Layer cont_1_lstm1_cont_slice_0_split
I0720 14:25:49.900861 18952 net.cpp:425] cont_1_lstm1_cont_slice_0_split <- cont_1
I0720 14:25:49.900867 18952 net.cpp:399] cont_1_lstm1_cont_slice_0_split -> cont_1_lstm1_cont_slice_0_split_0
I0720 14:25:49.900876 18952 net.cpp:399] cont_1_lstm1_cont_slice_0_split -> cont_1_lstm1_cont_slice_0_split_1
I0720 14:25:49.900887 18952 net.cpp:141] Setting up cont_1_lstm1_cont_slice_0_split
I0720 14:25:49.900903 18952 net.cpp:148] Top shape: 1 1 (1)
I0720 14:25:49.900913 18952 net.cpp:148] Top shape: 1 1 (1)
I0720 14:25:49.900920 18952 net.cpp:156] Memory required for data: 10016
I0720 14:25:49.900925 18952 layer_factory.hpp:77] Creating layer lstm1_x_transform
I0720 14:25:49.900936 18952 net.cpp:91] Creating Layer lstm1_x_transform
I0720 14:25:49.900941 18952 net.cpp:425] lstm1_x_transform <- x
I0720 14:25:49.900959 18952 net.cpp:399] lstm1_x_transform -> W_xc_x
I0720 14:25:49.909049 18924 net.cpp:141] Setting up lstm1_x_transform
I0720 14:25:49.909112 18924 net.cpp:148] Top shape: 1 1 4000 (4000)
I0720 14:25:49.909121 18924 net.cpp:156] Memory required for data: 26016
I0720 14:25:49.909150 18924 layer_factory.hpp:77] Creating layer lstm1_W_xc_x_slice
I0720 14:25:49.909173 18924 net.cpp:91] Creating Layer lstm1_W_xc_x_slice
I0720 14:25:49.909183 18924 net.cpp:425] lstm1_W_xc_x_slice <- W_xc_x
I0720 14:25:49.909195 18924 net.cpp:399] lstm1_W_xc_x_slice -> W_xc_x_1
I0720 14:25:49.909241 18924 net.cpp:141] Setting up lstm1_W_xc_x_slice
I0720 14:25:49.909255 18924 net.cpp:148] Top shape: 1 1 4000 (4000)
I0720 14:25:49.909262 18924 net.cpp:156] Memory required for data: 42016
I0720 14:25:49.909271 18924 layer_factory.hpp:77] Creating layer lstm1_h_conted_0
I0720 14:25:49.909284 18924 net.cpp:91] Creating Layer lstm1_h_conted_0
I0720 14:25:49.909292 18924 net.cpp:425] lstm1_h_conted_0 <- h_0
I0720 14:25:49.909302 18924 net.cpp:425] lstm1_h_conted_0 <- cont_1_lstm1_cont_slice_0_split_0
I0720 14:25:49.909317 18924 net.cpp:399] lstm1_h_conted_0 -> h_conted_0
I0720 14:25:49.909350 18924 net.cpp:141] Setting up lstm1_h_conted_0
I0720 14:25:49.909361 18924 net.cpp:148] Top shape: 1 1 1000 (1000)
I0720 14:25:49.909368 18924 net.cpp:156] Memory required for data: 46016
I0720 14:25:49.909375 18924 layer_factory.hpp:77] Creating layer lstm1_transform_1
I0720 14:25:49.909391 18924 net.cpp:91] Creating Layer lstm1_transform_1
I0720 14:25:49.909399 18924 net.cpp:425] lstm1_transform_1 <- h_conted_0
I0720 14:25:49.909417 18924 net.cpp:399] lstm1_transform_1 -> W_hc_h_0
I0720 14:25:49.911276 18920 net.cpp:141] Setting up embedding
I0720 14:25:49.911300 18920 net.cpp:148] Top shape: 1 1 500 (500)
I0720 14:25:49.911305 18920 net.cpp:156] Memory required for data: 22408
I0720 14:25:49.911319 18920 layer_factory.hpp:77] Creating layer lstm1
I0720 14:25:49.911341 18920 net.cpp:91] Creating Layer lstm1
I0720 14:25:49.911348 18920 net.cpp:425] lstm1 <- embedded_input_frames
I0720 14:25:49.911356 18920 net.cpp:425] lstm1 <- cont_sentence_input_1_split_0
I0720 14:25:49.911365 18920 net.cpp:399] lstm1 -> lstm1
I0720 14:25:49.911378 18920 recurrent_layer.cpp:20] Initializing recurrent layer: assuming input batch contains 1 timesteps of 1 independent streams.
I0720 14:25:49.913204 18920 net.cpp:49] Initializing net from parameters: 
layer {
  name: "lstm1_"
  type: "Input"
  top: "x"
  top: "cont"
  input_param {
    shape {
      dim: 1
      dim: 1
      dim: 500
    }
    shape {
      dim: 1
      dim: 1
    }
  }
}
layer {
  name: "lstm1_"
  type: "Input"
  top: "c_0"
  top: "h_0"
  input_param {
    shape {
      dim: 1
      dim: 1
      dim: 1000
    }
    shape {
      dim: 1
      dim: 1
      dim: 1000
    }
  }
}
layer {
  name: "lstm1_cont_slice"
  type: "Slice"
  bottom: "cont"
  top: "cont_1"
  slice_param {
    axis: 0
  }
}
layer {
  name: "lstm1_x_transform"
  type: "InnerProduct"
  bottom: "x"
  top: "W_xc_x"
  param {
    name: "W_xc"
  }
  param {
    name: "b_c"
  }
  propagate_down: true
  inner_product_param {
    num_output: 4000
    bias_term: true
    weight_filler {
      type: "uniform"
      min: -0.08
      max: 0.08
    }
    bias_filler {
      type: "constant"
      value: 0
    }
    axis: 2
  }
}
layer {
  name: "lstm1_W_xc_x_slice"
  type: "Slice"
  bottom: "W_xc_x"
  top: "W_xc_x_1"
  slice_param {
    axis: 0
  }
}
layer {
  name: "lstm1_h_conted_0"
  type: "Scale"
  bottom: "h_0"
  bottom: "cont_1"
  top: "h_conted_0"
  scale_param {
    axis: 0
  }
}
layer {
  name: "lstm1_transform_1"
  type: "InnerProduct"
  bottom: "h_conted_0"
  top: "W_hc_h_0"
  param {
    name: "W_hc"
  }
  inner_product_param {
    num_output: 4000
    bias_term: false
    weight_filler {
      type: "uniform"
      min: -0.08
      max: 0.08
    }
    axis: 2
  }
}
layer {
  name: "lstm1_gate_input_1"
  type: "Eltwise"
  bottom: "W_hc_h_0"
  bottom: "W_xc_x_1"
  top: "gate_input_1"
  eltwise_param {
    operation: SUM
  }
}
layer {
  name: "lstm1_unit_1"
  type: "LSTMUnit"
  bottom: "c_0"
  bottom: "gate_input_1"
  bottom: "cont_1"
  top: "c_1"
  top: "h_1"
}
layer {
  name: "lstm1_"
  type: "Split"
  bottom: "c_1"
  top: "c_T"
}
layer {
  name: "lstm1_h_concat"
  type: "Concat"
  bottom: "h_1"
  top: "h"
  concat_param {
    axis: 0
  }
}
layer {
  name: "h_pseudoloss"
  type: "Reduction"
  bottom: "h"
  top: "h_pseudoloss"
  loss_weight: 1
}
I0720 14:25:49.913221 18926 net.cpp:141] Setting up embedding
I0720 14:25:49.913265 18926 net.cpp:148] Top shape: 1 1 500 (500)
I0720 14:25:49.913275 18926 net.cpp:156] Memory required for data: 22408
I0720 14:25:49.913300 18926 layer_factory.hpp:77] Creating layer lstm1
I0720 14:25:49.913326 18926 net.cpp:91] Creating Layer lstm1
I0720 14:25:49.913337 18926 net.cpp:425] lstm1 <- embedded_input_frames
I0720 14:25:49.913350 18926 net.cpp:425] lstm1 <- cont_sentence_input_1_split_0
I0720 14:25:49.913383 18934 net.cpp:141] Setting up embedding
I0720 14:25:49.913406 18934 net.cpp:148] Top shape: 1 1 500 (500)
I0720 14:25:49.913417 18934 net.cpp:156] Memory required for data: 22408
I0720 14:25:49.913439 18934 layer_factory.hpp:77] Creating layer lstm1
I0720 14:25:49.913460 18934 net.cpp:91] Creating Layer lstm1
I0720 14:25:49.913471 18934 net.cpp:425] lstm1 <- embedded_input_frames
I0720 14:25:49.913485 18934 net.cpp:425] lstm1 <- cont_sentence_input_1_split_0
I0720 14:25:49.914685 18920 layer_factory.hpp:77] Creating layer lstm1_
I0720 14:25:49.914700 18934 net.cpp:399] lstm1 -> lstm1
I0720 14:25:49.914721 18920 net.cpp:91] Creating Layer lstm1_
I0720 14:25:49.914703 18926 net.cpp:399] lstm1 -> lstm1
I0720 14:25:49.914732 18920 net.cpp:399] lstm1_ -> x
I0720 14:25:49.914742 18934 recurrent_layer.cpp:20] Initializing recurrent layer: assuming input batch contains 1 timesteps of 1 independent streams.
I0720 14:25:49.914753 18920 net.cpp:399] lstm1_ -> cont
I0720 14:25:49.914768 18920 net.cpp:141] Setting up lstm1_
I0720 14:25:49.914777 18920 net.cpp:148] Top shape: 1 1 500 (500)
I0720 14:25:49.914777 18926 recurrent_layer.cpp:20] Initializing recurrent layer: assuming input batch contains 1 timesteps of 1 independent streams.
I0720 14:25:49.914784 18920 net.cpp:148] Top shape: 1 1 (1)
I0720 14:25:49.914789 18920 net.cpp:156] Memory required for data: 2004
I0720 14:25:49.914794 18920 layer_factory.hpp:77] Creating layer lstm1_
I0720 14:25:49.914803 18920 net.cpp:91] Creating Layer lstm1_
I0720 14:25:49.914810 18920 net.cpp:399] lstm1_ -> c_0
I0720 14:25:49.914820 18920 net.cpp:399] lstm1_ -> h_0
I0720 14:25:49.914830 18920 net.cpp:141] Setting up lstm1_
I0720 14:25:49.914837 18920 net.cpp:148] Top shape: 1 1 1000 (1000)
I0720 14:25:49.914844 18920 net.cpp:148] Top shape: 1 1 1000 (1000)
I0720 14:25:49.914847 18920 net.cpp:156] Memory required for data: 10004
I0720 14:25:49.914851 18920 layer_factory.hpp:77] Creating layer lstm1_cont_slice
I0720 14:25:49.914860 18920 net.cpp:91] Creating Layer lstm1_cont_slice
I0720 14:25:49.915208 18920 net.cpp:425] lstm1_cont_slice <- cont
I0720 14:25:49.915220 18946 net.cpp:141] Setting up lstm1_x_transform
I0720 14:25:49.915226 18920 net.cpp:399] lstm1_cont_slice -> cont_1
I0720 14:25:49.915249 18946 net.cpp:148] Top shape: 1 1 4000 (4000)
I0720 14:25:49.915259 18946 net.cpp:156] Memory required for data: 26016
I0720 14:25:49.915268 18920 net.cpp:141] Setting up lstm1_cont_slice
I0720 14:25:49.915280 18946 layer_factory.hpp:77] Creating layer lstm1_W_xc_x_slice
I0720 14:25:49.915285 18920 net.cpp:148] Top shape: 1 1 (1)
I0720 14:25:49.915294 18920 net.cpp:156] Memory required for data: 10008
I0720 14:25:49.915302 18920 layer_factory.hpp:77] Creating layer cont_1_lstm1_cont_slice_0_split
I0720 14:25:49.915315 18920 net.cpp:91] Creating Layer cont_1_lstm1_cont_slice_0_split
I0720 14:25:49.915321 18946 net.cpp:91] Creating Layer lstm1_W_xc_x_slice
I0720 14:25:49.915325 18920 net.cpp:425] cont_1_lstm1_cont_slice_0_split <- cont_1
I0720 14:25:49.915335 18946 net.cpp:425] lstm1_W_xc_x_slice <- W_xc_x
I0720 14:25:49.915349 18946 net.cpp:399] lstm1_W_xc_x_slice -> W_xc_x_1
I0720 14:25:49.915374 18946 net.cpp:141] Setting up lstm1_W_xc_x_slice
I0720 14:25:49.915386 18946 net.cpp:148] Top shape: 1 1 4000 (4000)
I0720 14:25:49.915393 18946 net.cpp:156] Memory required for data: 42016
I0720 14:25:49.915400 18946 layer_factory.hpp:77] Creating layer lstm1_h_conted_0
I0720 14:25:49.915869 18946 net.cpp:91] Creating Layer lstm1_h_conted_0
I0720 14:25:49.915874 18920 net.cpp:399] cont_1_lstm1_cont_slice_0_split -> cont_1_lstm1_cont_slice_0_split_0
I0720 14:25:49.915882 18946 net.cpp:425] lstm1_h_conted_0 <- h_0
I0720 14:25:49.915905 18946 net.cpp:425] lstm1_h_conted_0 <- cont_1_lstm1_cont_slice_0_split_0
I0720 14:25:49.915910 18920 net.cpp:399] cont_1_lstm1_cont_slice_0_split -> cont_1_lstm1_cont_slice_0_split_1
I0720 14:25:49.915918 18946 net.cpp:399] lstm1_h_conted_0 -> h_conted_0
I0720 14:25:49.915933 18920 net.cpp:141] Setting up cont_1_lstm1_cont_slice_0_split
I0720 14:25:49.915948 18920 net.cpp:148] Top shape: 1 1 (1)
I0720 14:25:49.915959 18920 net.cpp:148] Top shape: 1 1 (1)
I0720 14:25:49.915967 18920 net.cpp:156] Memory required for data: 10016
I0720 14:25:49.915977 18920 layer_factory.hpp:77] Creating layer lstm1_x_transform
I0720 14:25:49.916519 18920 net.cpp:91] Creating Layer lstm1_x_transform
I0720 14:25:49.916534 18920 net.cpp:425] lstm1_x_transform <- x
I0720 14:25:49.916540 18946 net.cpp:141] Setting up lstm1_h_conted_0
I0720 14:25:49.916551 18920 net.cpp:399] lstm1_x_transform -> W_xc_x
I0720 14:25:49.916559 18946 net.cpp:148] Top shape: 1 1 1000 (1000)
I0720 14:25:49.916568 18946 net.cpp:156] Memory required for data: 46016
I0720 14:25:49.916575 18946 layer_factory.hpp:77] Creating layer lstm1_transform_1
I0720 14:25:49.916591 18946 net.cpp:91] Creating Layer lstm1_transform_1
I0720 14:25:49.916599 18946 net.cpp:425] lstm1_transform_1 <- h_conted_0
I0720 14:25:49.917136 18946 net.cpp:399] lstm1_transform_1 -> W_hc_h_0
I0720 14:25:49.917135 18926 net.cpp:49] Initializing net from parameters: 
layer {
  name: "lstm1_"
  type: "Input"
  top: "x"
  top: "cont"
  input_param {
    shape {
      dim: 1
      dim: 1
      dim: 500
    }
    shape {
      dim: 1
      dim: 1
    }
  }
}
layer {
  name: "lstm1_"
  type: "Input"
  top: "c_0"
  top: "h_0"
  input_param {
    shape {
      dim: 1
      dim: 1
      dim: 1000
    }
    shape {
      dim: 1
      dim: 1
      dim: 1000
    }
  }
}
layer {
  name: "lstm1_cont_slice"
  type: "Slice"
  bottom: "cont"
  top: "cont_1"
  slice_param {
    axis: 0
  }
}
layer {
  name: "lstm1_x_transform"
  type: "InnerProduct"
  bottom: "x"
  top: "W_xc_x"
  param {
    name: "W_xc"
  }
  param {
    name: "b_c"
  }
  propagate_down: true
  inner_product_param {
    num_output: 4000
    bias_term: true
    weight_filler {
      type: "uniform"
      min: -0.08
      max: 0.08
    }
    bias_filler {
      type: "constant"
      value: 0
    }
    axis: 2
  }
}
layer {
  name: "lstm1_W_xc_x_slice"
  type: "Slice"
  bottom: "W_xc_x"
  top: "W_xc_x_1"
  slice_param {
    axis: 0
  }
}
layer {
  name: "lstm1_h_conted_0"
  type: "Scale"
  bottom: "h_0"
  bottom: "cont_1"
  top: "h_conted_0"
  scale_param {
    axis: 0
  }
}
layer {
  name: "lstm1_transform_1"
  type: "InnerProduct"
  bottom: "h_conted_0"
  top: "W_hc_h_0"
  param {
    name: "W_hc"
  }
  inner_product_param {
    num_output: 4000
    bias_term: false
    weight_filler {
      type: "uniform"
      min: -0.08
      max: 0.08
    }
    axis: 2
  }
}
layer {
  name: "lstm1_gate_input_1"
  type: "Eltwise"
  bottom: "W_hc_h_0"
  bottom: "W_xc_x_1"
  top: "gate_input_1"
  eltwise_param {
    operation: SUM
  }
}
layer {
  name: "lstm1_unit_1"
  type: "LSTMUnit"
  bottom: "c_0"
  bottom: "gate_input_1"
  bottom: "cont_1"
  top: "c_1"
  top: "h_1"
}
layer {
  name: "lstm1_"
  type: "Split"
  bottom: "c_1"
  top: "c_T"
}
layer {
  name: "lstm1_h_concat"
  type: "Concat"
  bottom: "h_1"
  top: "h"
  concat_param {
    axis: 0
  }
}
layer {
  name: "h_pseudoloss"
  type: "Reduction"
  bottom: "h"
  top: "h_pseudoloss"
  loss_weight: 1
}
I0720 14:25:49.917142 18934 net.cpp:49] Initializing net from parameters: 
layer {
  name: "lstm1_"
  type: "Input"
  top: "x"
  top: "cont"
  input_param {
    shape {
      dim: 1
      dim: 1
      dim: 500
    }
    shape {
      dim: 1
      dim: 1
    }
  }
}
layer {
  name: "lstm1_"
  type: "Input"
  top: "c_0"
  top: "h_0"
  input_param {
    shape {
      dim: 1
      dim: 1
      dim: 1000
    }
    shape {
      dim: 1
      dim: 1
      dim: 1000
    }
  }
}
layer {
  name: "lstm1_cont_slice"
  type: "Slice"
  bottom: "cont"
  top: "cont_1"
  slice_param {
    axis: 0
  }
}
layer {
  name: "lstm1_x_transform"
  type: "InnerProduct"
  bottom: "x"
  top: "W_xc_x"
  param {
    name: "W_xc"
  }
  param {
    name: "b_c"
  }
  propagate_down: true
  inner_product_param {
    num_output: 4000
    bias_term: true
    weight_filler {
      type: "uniform"
      min: -0.08
      max: 0.08
    }
    bias_filler {
      type: "constant"
      value: 0
    }
    axis: 2
  }
}
layer {
  name: "lstm1_W_xc_x_slice"
  type: "Slice"
  bottom: "W_xc_x"
  top: "W_xc_x_1"
  slice_param {
    axis: 0
  }
}
layer {
  name: "lstm1_h_conted_0"
  type: "Scale"
  bottom: "h_0"
  bottom: "cont_1"
  top: "h_conted_0"
  scale_param {
    axis: 0
  }
}
layer {
  name: "lstm1_transform_1"
  type: "InnerProduct"
  bottom: "h_conted_0"
  top: "W_hc_h_0"
  param {
    name: "W_hc"
  }
  inner_product_param {
    num_output: 4000
    bias_term: false
    weight_filler {
      type: "uniform"
      min: -0.08
      max: 0.08
    }
    axis: 2
  }
}
layer {
  name: "lstm1_gate_input_1"
  type: "Eltwise"
  bottom: "W_hc_h_0"
  bottom: "W_xc_x_1"
  top: "gate_input_1"
  eltwise_param {
    operation: SUM
  }
}
layer {
  name: "lstm1_unit_1"
  type: "LSTMUnit"
  bottom: "c_0"
  bottom: "gate_input_1"
  bottom: "cont_1"
  top: "c_1"
  top: "h_1"
}
layer {
  name: "lstm1_"
  type: "Split"
  bottom: "c_1"
  top: "c_T"
}
layer {
  name: "lstm1_h_concat"
  type: "Concat"
  bottom: "h_1"
  top: "h"
  concat_param {
    axis: 0
  }
}
layer {
  name: "h_pseudoloss"
  type: "Reduction"
  bottom: "h"
  top: "h_pseudoloss"
  loss_weight: 1
}
I0720 14:25:49.918172 18938 net.cpp:141] Setting up embedding
I0720 14:25:49.918189 18938 net.cpp:148] Top shape: 1 1 500 (500)
I0720 14:25:49.918193 18938 net.cpp:156] Memory required for data: 22408
I0720 14:25:49.918205 18938 layer_factory.hpp:77] Creating layer lstm1
I0720 14:25:49.918258 18926 layer_factory.hpp:77] Creating layer lstm1_
I0720 14:25:49.918280 18926 net.cpp:91] Creating Layer lstm1_
I0720 14:25:49.918289 18926 net.cpp:399] lstm1_ -> x
I0720 14:25:49.918303 18926 net.cpp:399] lstm1_ -> cont
I0720 14:25:49.918316 18926 net.cpp:141] Setting up lstm1_
I0720 14:25:49.918324 18926 net.cpp:148] Top shape: 1 1 500 (500)
I0720 14:25:49.918330 18926 net.cpp:148] Top shape: 1 1 (1)
I0720 14:25:49.918334 18926 net.cpp:156] Memory required for data: 2004
I0720 14:25:49.918339 18926 layer_factory.hpp:77] Creating layer lstm1_
I0720 14:25:49.918347 18926 net.cpp:91] Creating Layer lstm1_
I0720 14:25:49.918354 18926 net.cpp:399] lstm1_ -> c_0
I0720 14:25:49.918365 18926 net.cpp:399] lstm1_ -> h_0
I0720 14:25:49.918373 18926 net.cpp:141] Setting up lstm1_
I0720 14:25:49.918380 18926 net.cpp:148] Top shape: 1 1 1000 (1000)
I0720 14:25:49.918386 18926 net.cpp:148] Top shape: 1 1 1000 (1000)
I0720 14:25:49.918390 18926 net.cpp:156] Memory required for data: 10004
I0720 14:25:49.918395 18926 layer_factory.hpp:77] Creating layer lstm1_cont_slice
I0720 14:25:49.918403 18926 net.cpp:91] Creating Layer lstm1_cont_slice
I0720 14:25:49.918407 18926 net.cpp:425] lstm1_cont_slice <- cont
I0720 14:25:49.918416 18926 net.cpp:399] lstm1_cont_slice -> cont_1
I0720 14:25:49.918426 18926 net.cpp:141] Setting up lstm1_cont_slice
I0720 14:25:49.918433 18926 net.cpp:148] Top shape: 1 1 (1)
I0720 14:25:49.918437 18926 net.cpp:156] Memory required for data: 10008
I0720 14:25:49.918442 18926 layer_factory.hpp:77] Creating layer cont_1_lstm1_cont_slice_0_split
I0720 14:25:49.918458 18938 net.cpp:91] Creating Layer lstm1
I0720 14:25:49.918464 18938 net.cpp:425] lstm1 <- embedded_input_frames
I0720 14:25:49.918473 18938 net.cpp:425] lstm1 <- cont_sentence_input_1_split_0
I0720 14:25:49.918480 18938 net.cpp:399] lstm1 -> lstm1
I0720 14:25:49.918491 18938 recurrent_layer.cpp:20] Initializing recurrent layer: assuming input batch contains 1 timesteps of 1 independent streams.
I0720 14:25:49.924433 18926 net.cpp:91] Creating Layer cont_1_lstm1_cont_slice_0_split
I0720 14:25:49.924437 18934 layer_factory.hpp:77] Creating layer lstm1_
I0720 14:25:49.924476 18926 net.cpp:425] cont_1_lstm1_cont_slice_0_split <- cont_1
I0720 14:25:49.924518 18934 net.cpp:91] Creating Layer lstm1_
I0720 14:25:49.924530 18926 net.cpp:399] cont_1_lstm1_cont_slice_0_split -> cont_1_lstm1_cont_slice_0_split_0
I0720 14:25:49.924537 18934 net.cpp:399] lstm1_ -> x
I0720 14:25:49.924552 18926 net.cpp:399] cont_1_lstm1_cont_slice_0_split -> cont_1_lstm1_cont_slice_0_split_1
I0720 14:25:49.924564 18934 net.cpp:399] lstm1_ -> cont
I0720 14:25:49.924572 18926 net.cpp:141] Setting up cont_1_lstm1_cont_slice_0_split
I0720 14:25:49.924592 18934 net.cpp:141] Setting up lstm1_
I0720 14:25:49.924608 18934 net.cpp:148] Top shape: 1 1 500 (500)
I0720 14:25:49.924623 18934 net.cpp:148] Top shape: 1 1 (1)
I0720 14:25:49.924631 18934 net.cpp:156] Memory required for data: 2004
I0720 14:25:49.924643 18934 layer_factory.hpp:77] Creating layer lstm1_
I0720 14:25:49.924661 18934 net.cpp:91] Creating Layer lstm1_
I0720 14:25:49.924675 18934 net.cpp:399] lstm1_ -> c_0
I0720 14:25:49.924696 18934 net.cpp:399] lstm1_ -> h_0
I0720 14:25:49.924720 18934 net.cpp:141] Setting up lstm1_
I0720 14:25:49.924736 18934 net.cpp:148] Top shape: 1 1 1000 (1000)
I0720 14:25:49.924748 18934 net.cpp:148] Top shape: 1 1 1000 (1000)
I0720 14:25:49.924757 18934 net.cpp:156] Memory required for data: 10004
I0720 14:25:49.924765 18934 layer_factory.hpp:77] Creating layer lstm1_cont_slice
I0720 14:25:49.924784 18934 net.cpp:91] Creating Layer lstm1_cont_slice
I0720 14:25:49.924795 18934 net.cpp:425] lstm1_cont_slice <- cont
I0720 14:25:49.924810 18934 net.cpp:399] lstm1_cont_slice -> cont_1
I0720 14:25:49.925084 18926 net.cpp:148] Top shape: 1 1 (1)
I0720 14:25:49.925107 18926 net.cpp:148] Top shape: 1 1 (1)
I0720 14:25:49.925115 18926 net.cpp:156] Memory required for data: 10016
I0720 14:25:49.925114 18934 net.cpp:141] Setting up lstm1_cont_slice
I0720 14:25:49.925127 18926 layer_factory.hpp:77] Creating layer lstm1_x_transform
I0720 14:25:49.925137 18934 net.cpp:148] Top shape: 1 1 (1)
I0720 14:25:49.925148 18934 net.cpp:156] Memory required for data: 10008
I0720 14:25:49.925150 18926 net.cpp:91] Creating Layer lstm1_x_transform
I0720 14:25:49.925158 18934 layer_factory.hpp:77] Creating layer cont_1_lstm1_cont_slice_0_split
I0720 14:25:49.925163 18926 net.cpp:425] lstm1_x_transform <- x
I0720 14:25:49.925173 18934 net.cpp:91] Creating Layer cont_1_lstm1_cont_slice_0_split
I0720 14:25:49.925184 18934 net.cpp:425] cont_1_lstm1_cont_slice_0_split <- cont_1
I0720 14:25:49.925199 18934 net.cpp:399] cont_1_lstm1_cont_slice_0_split -> cont_1_lstm1_cont_slice_0_split_0
I0720 14:25:49.925268 18934 net.cpp:399] cont_1_lstm1_cont_slice_0_split -> cont_1_lstm1_cont_slice_0_split_1
I0720 14:25:49.925292 18934 net.cpp:141] Setting up cont_1_lstm1_cont_slice_0_split
I0720 14:25:49.925307 18934 net.cpp:148] Top shape: 1 1 (1)
I0720 14:25:49.925318 18934 net.cpp:148] Top shape: 1 1 (1)
I0720 14:25:49.925326 18934 net.cpp:156] Memory required for data: 10016
I0720 14:25:49.925335 18934 layer_factory.hpp:77] Creating layer lstm1_x_transform
I0720 14:25:49.925355 18934 net.cpp:91] Creating Layer lstm1_x_transform
I0720 14:25:49.925366 18934 net.cpp:425] lstm1_x_transform <- x
I0720 14:25:49.925659 18926 net.cpp:399] lstm1_x_transform -> W_xc_x
I0720 14:25:49.926137 18934 net.cpp:399] lstm1_x_transform -> W_xc_x
I0720 14:25:49.926297 18952 net.cpp:141] Setting up lstm1_x_transform
I0720 14:25:49.926823 18952 net.cpp:148] Top shape: 1 1 4000 (4000)
I0720 14:25:49.926837 18952 net.cpp:156] Memory required for data: 26016
I0720 14:25:49.926854 18952 layer_factory.hpp:77] Creating layer lstm1_W_xc_x_slice
I0720 14:25:49.926864 18952 net.cpp:91] Creating Layer lstm1_W_xc_x_slice
I0720 14:25:49.926870 18952 net.cpp:425] lstm1_W_xc_x_slice <- W_xc_x
I0720 14:25:49.926878 18952 net.cpp:399] lstm1_W_xc_x_slice -> W_xc_x_1
I0720 14:25:49.927932 18952 net.cpp:141] Setting up lstm1_W_xc_x_slice
I0720 14:25:49.927959 18952 net.cpp:148] Top shape: 1 1 4000 (4000)
I0720 14:25:49.927965 18952 net.cpp:156] Memory required for data: 42016
I0720 14:25:49.927955 18938 net.cpp:49] Initializing net from parameters: 
layer {
  name: "lstm1_"
  type: "Input"
  top: "x"
  top: "cont"
  input_param {
    shape {
      dim: 1
      dim: 1
      dim: 500
    }
    shape {
      dim: 1
      dim: 1
    }
  }
}
layer {
  name: "lstm1_"
  type: "Input"
  top: "c_0"
  top: "h_0"
  input_param {
    shape {
      dim: 1
      dim: 1
      dim: 1000
    }
    shape {
      dim: 1
      dim: 1
      dim: 1000
    }
  }
}
layer {
  name: "lstm1_cont_slice"
  type: "Slice"
  bottom: "cont"
  top: "cont_1"
  slice_param {
    axis: 0
  }
}
layer {
  name: "lstm1_x_transform"
  type: "InnerProduct"
  bottom: "x"
  top: "W_xc_x"
  param {
    name: "W_xc"
  }
  param {
    name: "b_c"
  }
  propagate_down: true
  inner_product_param {
    num_output: 4000
    bias_term: true
    weight_filler {
      type: "uniform"
      min: -0.08
      max: 0.08
    }
    bias_filler {
      type: "constant"
      value: 0
    }
    axis: 2
  }
}
layer {
  name: "lstm1_W_xc_x_slice"
  type: "Slice"
  bottom: "W_xc_x"
  top: "W_xc_x_1"
  slice_param {
    axis: 0
  }
}
layer {
  name: "lstm1_h_conted_0"
  type: "Scale"
  bottom: "h_0"
  bottom: "cont_1"
  top: "h_conted_0"
  scale_param {
    axis: 0
  }
}
layer {
  name: "lstm1_transform_1"
  type: "InnerProduct"
  bottom: "h_conted_0"
  top: "W_hc_h_0"
  param {
    name: "W_hc"
  }
  inner_product_param {
    num_output: 4000
    bias_term: false
    weight_filler {
      type: "uniform"
      min: -0.08
      max: 0.08
    }
    axis: 2
  }
}
layer {
  name: "lstm1_gate_input_1"
  type: "Eltwise"
  bottom: "W_hc_h_0"
  bottom: "W_xc_x_1"
  top: "gate_input_1"
  eltwise_param {
    operation: SUM
  }
}
layer {
  name: "lstm1_unit_1"
  type: "LSTMUnit"
  bottom: "c_0"
  bottom: "gate_input_1"
  bottom: "cont_1"
  top: "c_1"
  top: "h_1"
}
layer {
  name: "lstm1_"
  type: "Split"
  bottom: "c_1"
  top: "c_T"
}
layer {
  name: "lstm1_h_concat"
  type: "Concat"
  bottom: "h_1"
  top: "h"
  concat_param {
    axis: 0
  }
}
layer {
  name: "h_pseudoloss"
  type: "Reduction"
  bottom: "h"
  top: "h_pseudoloss"
  loss_weight: 1
}
I0720 14:25:49.927971 18952 layer_factory.hpp:77] Creating layer lstm1_h_conted_0
I0720 14:25:49.928009 18952 net.cpp:91] Creating Layer lstm1_h_conted_0
I0720 14:25:49.928016 18952 net.cpp:425] lstm1_h_conted_0 <- h_0
I0720 14:25:49.928023 18952 net.cpp:425] lstm1_h_conted_0 <- cont_1_lstm1_cont_slice_0_split_0
I0720 14:25:49.928484 18952 net.cpp:399] lstm1_h_conted_0 -> h_conted_0
I0720 14:25:49.929070 18952 net.cpp:141] Setting up lstm1_h_conted_0
I0720 14:25:49.929093 18952 net.cpp:148] Top shape: 1 1 1000 (1000)
I0720 14:25:49.929101 18952 net.cpp:156] Memory required for data: 46016
I0720 14:25:49.929111 18952 layer_factory.hpp:77] Creating layer lstm1_transform_1
I0720 14:25:49.929128 18952 net.cpp:91] Creating Layer lstm1_transform_1
I0720 14:25:49.929137 18952 net.cpp:425] lstm1_transform_1 <- h_conted_0
I0720 14:25:49.929666 18938 layer_factory.hpp:77] Creating layer lstm1_
I0720 14:25:49.929669 18952 net.cpp:399] lstm1_transform_1 -> W_hc_h_0
I0720 14:25:49.929707 18938 net.cpp:91] Creating Layer lstm1_
I0720 14:25:49.929718 18938 net.cpp:399] lstm1_ -> x
I0720 14:25:49.929743 18938 net.cpp:399] lstm1_ -> cont
I0720 14:25:49.929761 18938 net.cpp:141] Setting up lstm1_
I0720 14:25:49.929776 18938 net.cpp:148] Top shape: 1 1 500 (500)
I0720 14:25:49.929788 18938 net.cpp:148] Top shape: 1 1 (1)
I0720 14:25:49.929796 18938 net.cpp:156] Memory required for data: 2004
I0720 14:25:49.929806 18938 layer_factory.hpp:77] Creating layer lstm1_
I0720 14:25:49.929822 18938 net.cpp:91] Creating Layer lstm1_
I0720 14:25:49.929833 18938 net.cpp:399] lstm1_ -> c_0
I0720 14:25:49.929847 18938 net.cpp:399] lstm1_ -> h_0
I0720 14:25:49.929865 18938 net.cpp:141] Setting up lstm1_
I0720 14:25:49.929875 18938 net.cpp:148] Top shape: 1 1 1000 (1000)
I0720 14:25:49.929886 18938 net.cpp:148] Top shape: 1 1 1000 (1000)
I0720 14:25:49.929893 18938 net.cpp:156] Memory required for data: 10004
I0720 14:25:49.929898 18938 layer_factory.hpp:77] Creating layer lstm1_cont_slice
I0720 14:25:49.929908 18938 net.cpp:91] Creating Layer lstm1_cont_slice
I0720 14:25:49.929956 18938 net.cpp:425] lstm1_cont_slice <- cont
I0720 14:25:49.929968 18938 net.cpp:399] lstm1_cont_slice -> cont_1
I0720 14:25:49.929989 18938 net.cpp:141] Setting up lstm1_cont_slice
I0720 14:25:49.930002 18938 net.cpp:148] Top shape: 1 1 (1)
I0720 14:25:49.930011 18938 net.cpp:156] Memory required for data: 10008
I0720 14:25:49.930019 18938 layer_factory.hpp:77] Creating layer cont_1_lstm1_cont_slice_0_split
I0720 14:25:49.930032 18938 net.cpp:91] Creating Layer cont_1_lstm1_cont_slice_0_split
I0720 14:25:49.930039 18938 net.cpp:425] cont_1_lstm1_cont_slice_0_split <- cont_1
I0720 14:25:49.930111 18938 net.cpp:399] cont_1_lstm1_cont_slice_0_split -> cont_1_lstm1_cont_slice_0_split_0
I0720 14:25:49.930130 18938 net.cpp:399] cont_1_lstm1_cont_slice_0_split -> cont_1_lstm1_cont_slice_0_split_1
I0720 14:25:49.930148 18938 net.cpp:141] Setting up cont_1_lstm1_cont_slice_0_split
I0720 14:25:49.930160 18938 net.cpp:148] Top shape: 1 1 (1)
I0720 14:25:49.930171 18938 net.cpp:148] Top shape: 1 1 (1)
I0720 14:25:49.930177 18938 net.cpp:156] Memory required for data: 10016
I0720 14:25:49.930186 18938 layer_factory.hpp:77] Creating layer lstm1_x_transform
I0720 14:25:49.930205 18938 net.cpp:91] Creating Layer lstm1_x_transform
I0720 14:25:49.930215 18938 net.cpp:425] lstm1_x_transform <- x
I0720 14:25:49.930228 18938 net.cpp:399] lstm1_x_transform -> W_xc_x
I0720 14:25:49.939355 18948 net.cpp:141] Setting up lstm1_transform_1
I0720 14:25:49.939399 18948 net.cpp:148] Top shape: 1 1 4000 (4000)
I0720 14:25:49.939409 18948 net.cpp:156] Memory required for data: 62016
I0720 14:25:49.939435 18948 layer_factory.hpp:77] Creating layer lstm1_gate_input_1
I0720 14:25:49.939471 18948 net.cpp:91] Creating Layer lstm1_gate_input_1
I0720 14:25:49.939486 18948 net.cpp:425] lstm1_gate_input_1 <- W_hc_h_0
I0720 14:25:49.939499 18948 net.cpp:425] lstm1_gate_input_1 <- W_xc_x_1
I0720 14:25:49.939515 18948 net.cpp:399] lstm1_gate_input_1 -> gate_input_1
I0720 14:25:49.939550 18948 net.cpp:141] Setting up lstm1_gate_input_1
I0720 14:25:49.939568 18948 net.cpp:148] Top shape: 1 1 4000 (4000)
I0720 14:25:49.939576 18948 net.cpp:156] Memory required for data: 78016
I0720 14:25:49.939585 18948 layer_factory.hpp:77] Creating layer lstm1_unit_1
I0720 14:25:49.943275 18948 net.cpp:91] Creating Layer lstm1_unit_1
I0720 14:25:49.943315 18948 net.cpp:425] lstm1_unit_1 <- c_0
I0720 14:25:49.947154 18948 net.cpp:425] lstm1_unit_1 <- gate_input_1
I0720 14:25:49.947201 18948 net.cpp:425] lstm1_unit_1 <- cont_1_lstm1_cont_slice_0_split_1
I0720 14:25:49.947221 18948 net.cpp:399] lstm1_unit_1 -> c_1
I0720 14:25:49.947242 18948 net.cpp:399] lstm1_unit_1 -> h_1
I0720 14:25:49.950976 18948 net.cpp:141] Setting up lstm1_unit_1
I0720 14:25:49.951136 18948 net.cpp:148] Top shape: 1 1 1000 (1000)
I0720 14:25:49.951153 18948 net.cpp:148] Top shape: 1 1 1000 (1000)
I0720 14:25:49.951160 18948 net.cpp:156] Memory required for data: 86016
I0720 14:25:49.951174 18948 layer_factory.hpp:77] Creating layer lstm1_
I0720 14:25:49.951191 18948 net.cpp:91] Creating Layer lstm1_
I0720 14:25:49.951207 18948 net.cpp:425] lstm1_ <- c_1
I0720 14:25:49.951220 18948 net.cpp:399] lstm1_ -> c_T
I0720 14:25:49.951239 18948 net.cpp:141] Setting up lstm1_
I0720 14:25:49.951249 18948 net.cpp:148] Top shape: 1 1 1000 (1000)
I0720 14:25:49.951256 18948 net.cpp:156] Memory required for data: 90016
I0720 14:25:49.951266 18948 layer_factory.hpp:77] Creating layer lstm1_h_concat
I0720 14:25:49.951645 18948 net.cpp:91] Creating Layer lstm1_h_concat
I0720 14:25:49.951661 18948 net.cpp:425] lstm1_h_concat <- h_1
I0720 14:25:49.951674 18948 net.cpp:399] lstm1_h_concat -> h
I0720 14:25:49.951694 18948 net.cpp:141] Setting up lstm1_h_concat
I0720 14:25:49.951709 18948 net.cpp:148] Top shape: 1 1 1000 (1000)
I0720 14:25:49.951716 18948 net.cpp:156] Memory required for data: 94016
I0720 14:25:49.951724 18948 layer_factory.hpp:77] Creating layer h_pseudoloss
I0720 14:25:49.951884 18928 net.cpp:141] Setting up embedding
I0720 14:25:49.951906 18928 net.cpp:148] Top shape: 1 1 500 (500)
I0720 14:25:49.951915 18928 net.cpp:156] Memory required for data: 22408
I0720 14:25:49.951934 18928 layer_factory.hpp:77] Creating layer lstm1
I0720 14:25:49.953444 18936 net.cpp:141] Setting up embedding
I0720 14:25:49.953479 18936 net.cpp:148] Top shape: 1 1 500 (500)
I0720 14:25:49.953483 18936 net.cpp:156] Memory required for data: 22408
I0720 14:25:49.953498 18936 layer_factory.hpp:77] Creating layer lstm1
I0720 14:25:49.953516 18936 net.cpp:91] Creating Layer lstm1
I0720 14:25:49.953523 18936 net.cpp:425] lstm1 <- embedded_input_frames
I0720 14:25:49.953531 18936 net.cpp:425] lstm1 <- cont_sentence_input_1_split_0
I0720 14:25:49.962868 18948 net.cpp:91] Creating Layer h_pseudoloss
I0720 14:25:49.962872 18936 net.cpp:399] lstm1 -> lstm1
I0720 14:25:49.962909 18948 net.cpp:425] h_pseudoloss <- h
I0720 14:25:49.962945 18948 net.cpp:399] h_pseudoloss -> h_pseudoloss
I0720 14:25:49.962961 18936 recurrent_layer.cpp:20] Initializing recurrent layer: assuming input batch contains 1 timesteps of 1 independent streams.
I0720 14:25:49.963210 18928 net.cpp:91] Creating Layer lstm1
I0720 14:25:49.963235 18928 net.cpp:425] lstm1 <- embedded_input_frames
I0720 14:25:49.963249 18928 net.cpp:425] lstm1 <- cont_sentence_input_1_split_0
I0720 14:25:49.964128 18928 net.cpp:399] lstm1 -> lstm1
I0720 14:25:49.964135 18948 net.cpp:141] Setting up h_pseudoloss
I0720 14:25:49.964138 18926 net.cpp:141] Setting up lstm1_x_transform
I0720 14:25:49.964159 18948 net.cpp:148] Top shape: (1)
I0720 14:25:49.964169 18926 net.cpp:148] Top shape: 1 1 4000 (4000)
I0720 14:25:49.964156 18928 recurrent_layer.cpp:20] Initializing recurrent layer: assuming input batch contains 1 timesteps of 1 independent streams.
I0720 14:25:49.964180 18948 net.cpp:151]     with loss weight 1
I0720 14:25:49.964231 18948 net.cpp:156] Memory required for data: 94020
I0720 14:25:49.964242 18948 net.cpp:217] h_pseudoloss needs backward computation.
I0720 14:25:49.964251 18948 net.cpp:217] lstm1_h_concat needs backward computation.
…
I0720 14:25:49.964493 18926 net.cpp:91] Creating Layer lstm1_W_xc_x_slice
I0720 14:25:49.964504 18926 net.cpp:425] lstm1_W_xc_x_slice <- W_xc_x
I0720 14:25:49.964516 18926 net.cpp:399] lstm1_W_xc_x_slice -> W_xc_x_1
I0720 14:25:49.964769 18948 net.cpp:217] lstm1_x_transform needs backward computation.
I0720 14:25:49.964781 18938 net.cpp:141] Setting up lstm1_x_transform
I0720 14:25:49.964787 18948 net.cpp:219] cont_1_lstm1_cont_slice_0_split does not need backward computation.
I0720 14:25:49.964810 18948 net.cpp:219] lstm1_cont_slice does not need backward computation.
I0720 14:25:49.964812 18938 net.cpp:148] Top shape: 1 1 4000 (4000)
I0720 14:25:49.964819 18948 net.cpp:219] lstm1_ does not need backward computation.
I0720 14:25:49.964823 18938 net.cpp:156] Memory required for data: 26016
I0720 14:25:49.964828 18948 net.cpp:219] lstm1_ does not need backward computation.
I0720 14:25:49.964833 18948 net.cpp:261] This network produces output c_T
I0720 14:25:49.964841 18948 net.cpp:261] This network produces output h_pseudoloss
I0720 14:25:49.964843 18938 layer_factory.hpp:77] Creating layer lstm1_W_xc_x_slice
I0720 14:25:49.964866 18948 net.cpp:274] Network initialization done.
I0720 14:25:49.964941 18948 recurrent_layer.cpp:150] Adding parameter 0: W_xc
I0720 14:25:49.964952 18948 recurrent_layer.cpp:150] Adding parameter 1: b_c
I0720 14:25:49.964962 18948 recurrent_layer.cpp:150] Adding parameter 2: W_hc
I0720 14:25:49.964985 18926 net.cpp:141] Setting up lstm1_W_xc_x_slice
I0720 14:25:49.965008 18926 net.cpp:148] Top shape: 1 1 4000 (4000)
I0720 14:25:49.965016 18926 net.cpp:156] Memory required for data: 42016
I0720 14:25:49.965018 18948 net.cpp:141] Setting up lstm1
I0720 14:25:49.965026 18926 layer_factory.hpp:77] Creating layer lstm1_h_conted_0
I0720 14:25:49.965032 18948 net.cpp:148] Top shape: 1 1 1000 (1000)
I0720 14:25:49.965039 18948 net.cpp:156] Memory required for data: 26408
I0720 14:25:49.965060 18938 net.cpp:91] Creating Layer lstm1_W_xc_x_slice
I0720 14:25:49.965075 18938 net.cpp:425] lstm1_W_xc_x_slice <- W_xc_x
I0720 14:25:49.965071 18948 layer_factory.hpp:77] Creating layer concat
I0720 14:25:49.965096 18938 net.cpp:399] lstm1_W_xc_x_slice -> W_xc_x_1
I0720 14:25:49.965101 18948 net.cpp:91] Creating Layer concat
I0720 14:25:49.965111 18948 net.cpp:425] concat <- lstm1
I0720 14:25:49.965122 18938 net.cpp:141] Setting up lstm1_W_xc_x_slice
I0720 14:25:49.965126 18948 net.cpp:425] concat <- embedded_input_sentence
I0720 14:25:49.965139 18938 net.cpp:148] Top shape: 1 1 4000 (4000)
I0720 14:25:49.965137 18948 net.cpp:425] concat <- reshaped_stage_indicator
I0720 14:25:49.965152 18938 net.cpp:156] Memory required for data: 42016
I0720 14:25:49.965164 18938 layer_factory.hpp:77] Creating layer lstm1_h_conted_0
I0720 14:25:49.965162 18948 net.cpp:399] concat -> lstm1_video_sequence
I0720 14:25:49.965189 18948 net.cpp:141] Setting up concat
I0720 14:25:49.965205 18948 net.cpp:148] Top shape: 1 1 1501 (1501)
I0720 14:25:49.965044 18926 net.cpp:91] Creating Layer lstm1_h_conted_0
I0720 14:25:49.965206 18928 net.cpp:49] Initializing net from parameters: 
layer {
  name: "lstm1_"
  type: "Input"
  top: "x"
  top: "cont"
  input_param {
    shape {
      dim: 1
      dim: 1
      dim: 500
    }
    shape {
      dim: 1
      dim: 1
    }
  }
}
layer {
  name: "lstm1_"
  type: "Input"
  top: "c_0"
  top: "h_0"
  input_param {
    shape {
      dim: 1
      dim: 1
      dim: 1000
    }
    shape {
      dim: 1
      dim: 1
      dim: 1000
    }
  }
}
layer {
  name: "lstm1_cont_slice"
  type: "Slice"
  bottom: "cont"
  top: "cont_1"
  slice_param {
    axis: 0
  }
}
layer {
  name: "lstm1_x_transform"
  type: "InnerProduct"
  bottom: "x"
  top: "W_xc_x"
  param {
    name: "W_xc"
  }
  param {
    name: "b_c"
  }
  propagate_down: true
  inner_product_param {
    num_output: 4000
    bias_term: true
    weight_filler {
      type: "uniform"
      min: -0.08
      max: 0.08
    }
    bias_filler {
      type: "constant"
      value: 0
    }
    axis: 2
  }
}
layer {
  name: "lstm1_W_xc_x_slice"
  type: "Slice"
  bottom: "W_xc_x"
  top: "W_xc_x_1"
  slice_param {
    axis: 0
  }
}
layer {
  name: "lstm1_h_conted_0"
  type: "Scale"
  bottom: "h_0"
  bottom: "cont_1"
  top: "h_conted_0"
  scale_param {
    axis: 0
  }
}
layer {
  name: "lstm1_transform_1"
  type: "InnerProduct"
  bottom: "h_conted_0"
  top: "W_hc_h_0"
  param {
    name: "W_hc"
  }
  inner_product_param {
    num_output: 4000
    bias_term: false
    weight_filler {
      type: "uniform"
      min: -0.08
      max: 0.08
    }
    axis: 2
  }
}
layer {
  name: "lstm1_gate_input_1"
  type: "Eltwise"
  bottom: "W_hc_h_0"
  bottom: "W_xc_x_1"
  top: "gate_input_1"
  eltwise_param {
    operation: SUM
  }
}
layer {
  name: "lstm1_unit_1"
  type: "LSTMUnit"
  bottom: "c_0"
  bottom: "gate_input_1"
  bottom: "cont_1"
  top: "c_1"
  top: "h_1"
}
layer {
  name: "lstm1_"
  type: "Split"
  bottom: "c_1"
  top: "c_T"
}
layer {
  name: "lstm1_h_concat"
  type: "Concat"
  bottom: "h_1"
  top: "h"
  concat_param {
    axis: 0
  }
}
layer {
  name: "h_pseudoloss"
  type: "Reduction"
  bottom: "h"
  top: "h_pseudoloss"
  loss_weight: 1
}
I0720 14:25:49.965239 18926 net.cpp:425] lstm1_h_conted_0 <- h_0
I0720 14:25:49.965214 18948 net.cpp:156] Memory required for data: 32412
I0720 14:25:49.965255 18926 net.cpp:425] lstm1_h_conted_0 <- cont_1_lstm1_cont_slice_0_split_0
I0720 14:25:49.965255 18948 layer_factory.hpp:77] Creating layer lstm2
I0720 14:25:49.965276 18948 net.cpp:91] Creating Layer lstm2
…
I0720 14:25:49.965328 18948 recurrent_layer.cpp:20] Initializing recurrent layer: assuming input batch contains 1 timesteps of 1 independent streams.
I0720 14:25:49.965209 18936 net.cpp:49] Initializing net from parameters: 
layer {
  name: "lstm1_"
  type: "Input"
  top: "x"
  top: "cont"
  input_param {
    shape {
      dim: 1
      dim: 1
      dim: 500
    }
    shape {
      dim: 1
      dim: 1
    }
  }
}
layer {
  name: "lstm1_"
  type: "Input"
  top: "c_0"
  top: "h_0"
  input_param {
    shape {
      dim: 1
      dim: 1
      dim: 1000
    }
    shape {
      dim: 1
      dim: 1
      dim: 1000
    }
  }
}
layer {
  name: "lstm1_cont_slice"
  type: "Slice"
  bottom: "cont"
  top: "cont_1"
  slice_param {
    axis: 0
  }
}
layer {
  name: "lstm1_x_transform"
  type: "InnerProduct"
  bottom: "x"
  top: "W_xc_x"
  param {
    name: "W_xc"
  }
  param {
    name: "b_c"
  }
  propagate_down: true
  inner_product_param {
    num_output: 4000
    bias_term: true
    weight_filler {
      type: "uniform"
      min: -0.08
      max: 0.08
    }
    bias_filler {
      type: "constant"
      value: 0
    }
    axis: 2
  }
}
layer {
  name: "lstm1_W_xc_x_slice"
  type: "Slice"
  bottom: "W_xc_x"
  top: "W_xc_x_1"
  slice_param {
    axis: 0
  }
}
layer {
  name: "lstm1_h_conted_0"
  type: "Scale"
  bottom: "h_0"
  bottom: "cont_1"
  top: "h_conted_0"
  scale_param {
    axis: 0
  }
}
layer {
  name: "lstm1_transform_1"
  type: "InnerProduct"
  bottom: "h_conted_0"
  top: "W_hc_h_0"
  param {
    name: "W_hc"
  }
  inner_product_param {
    num_output: 4000
    bias_term: false
    weight_filler {
      type: "uniform"
      min: -0.08
      max: 0.08
    }
    axis: 2
  }
}
layer {
  name: "lstm1_gate_input_1"
  type: "Eltwise"
  bottom: "W_hc_h_0"
  bottom: "W_xc_x_1"
  top: "gate_input_1"
  eltwise_param {
    operation: SUM
  }
}
layer {
  name: "lstm1_unit_1"
  type: "LSTMUnit"
  bottom: "c_0"
  bottom: "gate_input_1"
  bottom: "cont_1"
  top: "c_1"
  top: "h_1"
}
layer {
  name: "lstm1_"
  type: "Split"
  bottom: "c_1"
  top: "c_T"
}
layer {
  name: "lstm1_h_concat"
  type: "Concat"
  bottom: "h_1"
  top: "h"
  concat_param {
    axis: 0
  }
}
layer {
  name: "h_pseudoloss"
  type: "Reduction"
  bottom: "h"
  top: "h_pseudoloss"
  loss_weight: 1
}
I0720 14:25:49.965394 18926 net.cpp:399] lstm1_h_conted_0 -> h_conted_0
I0720 14:25:49.965457 18920 net.cpp:141] Setting up lstm1_x_transform
I0720 14:25:49.965472 18934 net.cpp:141] Setting up lstm1_x_transform
I0720 14:25:49.965479 18920 net.cpp:148] Top shape: 1 1 4000 (4000)
I0720 14:25:49.965497 18920 net.cpp:156] Memory required for data: 26016
I0720 14:25:49.965497 18934 net.cpp:148] Top shape: 1 1 4000 (4000)
I0720 14:25:49.965507 18934 net.cpp:156] Memory required for data: 26016
I0720 14:25:49.965513 18920 layer_factory.hpp:77] Creating layer lstm1_W_xc_x_slice
I0720 14:25:49.965526 18934 layer_factory.hpp:77] Creating layer lstm1_W_xc_x_slice
I0720 14:25:49.965541 18934 net.cpp:91] Creating Layer lstm1_W_xc_x_slice
I0720 14:25:49.965550 18934 net.cpp:425] lstm1_W_xc_x_slice <- W_xc_x
I0720 14:25:49.965570 18938 net.cpp:141] Setting up lstm1_h_conted_0
I0720 14:25:49.965641 18938 net.cpp:148] Top shape: 1 1 1000 (1000)
I0720 14:25:49.965651 18938 net.cpp:156] Memory required for data: 46016
I0720 14:25:49.965659 18920 net.cpp:91] Creating Layer lstm1_W_xc_x_slice
I0720 14:25:49.965662 18938 layer_factory.hpp:77] Creating layer lstm1_transform_1
I0720 14:25:49.965669 18920 net.cpp:425] lstm1_W_xc_x_slice <- W_xc_x
I0720 14:25:49.965679 18920 net.cpp:399] lstm1_W_xc_x_slice -> W_xc_x_1
I0720 14:25:49.965689 18926 net.cpp:141] Setting up lstm1_h_conted_0
I0720 14:25:49.965692 18948 net.cpp:49] Initializing net from parameters: 
layer {
  name: "lstm2_"
  type: "Input"
  top: "x"
  top: "cont"
  input_param {
    shape {
      dim: 1
      dim: 1
      dim: 1501
    }
    shape {
      dim: 1
      dim: 1
    }
  }
}
layer {
  name: "lstm2_"
  type: "Input"
  top: "c_0"
  top: "h_0"
  input_param {
    shape {
      dim: 1
      dim: 1
      dim: 1000
    }
    shape {
      dim: 1
      dim: 1
      dim: 1000
    }
  }
}
layer {
  name: "lstm2_cont_slice"
  type: "Slice"
  bottom: "cont"
  top: "cont_1"
  slice_param {
    axis: 0
  }
}
layer {
  name: "lstm2_x_transform"
  type: "InnerProduct"
  bottom: "x"
  top: "W_xc_x"
  param {
    name: "W_xc"
  }
  param {
    name: "b_c"
  }
  propagate_down: true
  inner_product_param {
    num_output: 4000
    bias_term: true
    weight_filler {
      type: "uniform"
      min: -0.08
      max: 0.08
    }
    bias_filler {
      type: "constant"
      value: 0
    }
    axis: 2
  }
}
layer {
  name: "lstm2_W_xc_x_slice"
  type: "Slice"
  bottom: "W_xc_x"
  top: "W_xc_x_1"
  slice_param {
    axis: 0
  }
}
layer {
  name: "lstm2_h_conted_0"
  type: "Scale"
  bottom: "h_0"
  bottom: "cont_1"
  top: "h_conted_0"
  scale_param {
    axis: 0
  }
}
layer {
  name: "lstm2_transform_1"
  type: "InnerProduct"
  bottom: "h_conted_0"
  top: "W_hc_h_0"
  param {
    name: "W_hc"
  }
  inner_product_param {
    num_output: 4000
    bias_term: false
    weight_filler {
      type: "uniform"
      min: -0.08
      max: 0.08
    }
    axis: 2
  }
}
layer {
  name: "lstm2_gate_input_1"
  type: "Eltwise"
  bottom: "W_hc_h_0"
  bottom: "W_xc_x_1"
  top: "gate_input_1"
  eltwise_param {
    operation: SUM
  }
}
layer {
  name: "lstm2_unit_1"
  type: "LSTMUnit"
  bottom: "c_0"
  bottom: "gate_input_1"
  bottom: "cont_1"
  top: "c_1"
  top: "h_1"
}
layer {
  name: "lstm2_"
  type: "Split"
  bottom: "c_1"
  top: "c_T"
}
layer {
  name: "lstm2_h_concat"
  type: "Concat"
  bottom: "h_1"
  top: "h"
  concat_param {
    axis: 0
  }
}
layer {
  name: "h_pseudoloss"
  type: "Reduction"
  bottom: "h"
  top: "h_pseudoloss"
  loss_weight: 1
}
I0720 14:25:49.965699 18936 layer_factory.hpp:77] Creating layer lstm1_
I0720 14:25:49.965714 18926 net.cpp:148] Top shape: 1 1 1000 (1000)
I0720 14:25:49.965701 18928 layer_factory.hpp:77] Creating layer lstm1_
I0720 14:25:49.965733 18936 net.cpp:91] Creating Layer lstm1_
I0720 14:25:49.965728 18926 net.cpp:156] Memory required for data: 46016
I0720 14:25:49.965750 18928 net.cpp:91] Creating Layer lstm1_
I0720 14:25:49.965697 18920 net.cpp:141] Setting up lstm1_W_xc_x_slice
I0720 14:25:49.965752 18936 net.cpp:399] lstm1_ -> x
I0720 14:25:49.965771 18920 net.cpp:148] Top shape: 1 1 4000 (4000)
I0720 14:25:49.965770 18928 net.cpp:399] lstm1_ -> x
I0720 14:25:49.965778 18920 net.cpp:156] Memory required for data: 42016
I0720 14:25:49.965762 18926 layer_factory.hpp:77] Creating layer lstm1_transform_1
I0720 14:25:49.965785 18920 layer_factory.hpp:77] Creating layer lstm1_h_conted_0
I0720 14:25:49.965790 18936 net.cpp:399] lstm1_ -> cont
I0720 14:25:49.965798 18928 net.cpp:399] lstm1_ -> cont
I0720 14:25:49.965804 18926 net.cpp:91] Creating Layer lstm1_transform_1
I0720 14:25:49.965816 18936 net.cpp:141] Setting up lstm1_
I0720 14:25:49.965824 18928 net.cpp:141] Setting up lstm1_
I0720 14:25:49.965816 18926 net.cpp:425] lstm1_transform_1 <- h_conted_0
I0720 14:25:49.965837 18936 net.cpp:148] Top shape: 1 1 500 (500)
I0720 14:25:49.965839 18938 net.cpp:91] Creating Layer lstm1_transform_1
I0720 14:25:49.965852 18936 net.cpp:148] Top shape: 1 1 (1)
I0720 14:25:49.965842 18928 net.cpp:148] Top shape: 1 1 500 (500)
I0720 14:25:49.965872 18920 net.cpp:91] Creating Layer lstm1_h_conted_0
I0720 14:25:49.965864 18936 net.cpp:156] Memory required for data: 2004
I0720 14:25:49.965874 18948 layer_factory.hpp:77] Creating layer lstm2_
I0720 14:25:49.965888 18928 net.cpp:148] Top shape: 1 1 (1)
I0720 14:25:49.965876 18926 net.cpp:399] lstm1_transform_1 -> W_hc_h_0
I0720 14:25:49.965880 18920 net.cpp:425] lstm1_h_conted_0 <- h_0
I0720 14:25:49.965903 18928 net.cpp:156] Memory required for data: 2004
I0720 14:25:49.965910 18920 net.cpp:425] lstm1_h_conted_0 <- cont_1_lstm1_cont_slice_0_split_0
I0720 14:25:49.965893 18936 layer_factory.hpp:77] Creating layer lstm1_
I0720 14:25:49.965916 18928 layer_factory.hpp:77] Creating layer lstm1_
I0720 14:25:49.965921 18920 net.cpp:399] lstm1_h_conted_0 -> h_conted_0
I0720 14:25:49.965904 18948 net.cpp:91] Creating Layer lstm2_
I0720 14:25:49.965932 18936 net.cpp:91] Creating Layer lstm1_
I0720 14:25:49.965937 18948 net.cpp:399] lstm2_ -> x
I0720 14:25:49.965936 18928 net.cpp:91] Creating Layer lstm1_
I0720 14:25:49.965952 18936 net.cpp:399] lstm1_ -> c_0
I0720 14:25:49.965956 18948 net.cpp:399] lstm2_ -> cont
I0720 14:25:49.965960 18928 net.cpp:399] lstm1_ -> c_0
I0720 14:25:49.965975 18936 net.cpp:399] lstm1_ -> h_0
I0720 14:25:49.965976 18948 net.cpp:141] Setting up lstm2_
I0720 14:25:49.965978 18928 net.cpp:399] lstm1_ -> h_0
I0720 14:25:49.966001 18936 net.cpp:141] Setting up lstm1_
I0720 14:25:49.966003 18948 net.cpp:148] Top shape: 1 1 1501 (1501)
I0720 14:25:49.966014 18936 net.cpp:148] Top shape: 1 1 1000 (1000)
I0720 14:25:49.966017 18948 net.cpp:148] Top shape: 1 1 (1)
I0720 14:25:49.966022 18936 net.cpp:148] Top shape: 1 1 1000 (1000)
I0720 14:25:49.966017 18928 net.cpp:141] Setting up lstm1_
I0720 14:25:49.966029 18936 net.cpp:156] Memory required for data: 10004
I0720 14:25:49.966034 18936 layer_factory.hpp:77] Creating layer lstm1_cont_slice
I0720 14:25:49.966030 18948 net.cpp:156] Memory required for data: 6008
I0720 14:25:49.966039 18928 net.cpp:148] Top shape: 1 1 1000 (1000)
I0720 14:25:49.966044 18936 net.cpp:91] Creating Layer lstm1_cont_slice
I0720 14:25:49.966050 18936 net.cpp:425] lstm1_cont_slice <- cont
I0720 14:25:49.966051 18928 net.cpp:148] Top shape: 1 1 1000 (1000)
I0720 14:25:49.966044 18948 layer_factory.hpp:77] Creating layer lstm2_
I0720 14:25:49.966060 18928 net.cpp:156] Memory required for data: 10004
I0720 14:25:49.966061 18936 net.cpp:399] lstm1_cont_slice -> cont_1
I0720 14:25:49.966073 18928 layer_factory.hpp:77] Creating layer lstm1_cont_slice
I0720 14:25:49.966071 18948 net.cpp:91] Creating Layer lstm2_
I0720 14:25:49.966091 18948 net.cpp:399] lstm2_ -> c_0
I0720 14:25:49.966105 18934 net.cpp:399] lstm1_W_xc_x_slice -> W_xc_x_1
I0720 14:25:49.966135 18934 net.cpp:141] Setting up lstm1_W_xc_x_slice
I0720 14:25:49.966147 18934 net.cpp:148] Top shape: 1 1 4000 (4000)
I0720 14:25:49.966150 18936 net.cpp:141] Setting up lstm1_cont_slice
I0720 14:25:49.966164 18938 net.cpp:425] lstm1_transform_1 <- h_conted_0
I0720 14:25:49.966156 18934 net.cpp:156] Memory required for data: 42016
I0720 14:25:49.966176 18948 net.cpp:399] lstm2_ -> h_0
I0720 14:25:49.966181 18938 net.cpp:399] lstm1_transform_1 -> W_hc_h_0
I0720 14:25:49.966182 18934 layer_factory.hpp:77] Creating layer lstm1_h_conted_0
I0720 14:25:49.966176 18936 net.cpp:148] Top shape: 1 1 (1)
I0720 14:25:49.966187 18920 net.cpp:141] Setting up lstm1_h_conted_0
I0720 14:25:49.966197 18934 net.cpp:91] Creating Layer lstm1_h_conted_0
I0720 14:25:49.966199 18948 net.cpp:141] Setting up lstm2_
I0720 14:25:49.966184 18928 net.cpp:91] Creating Layer lstm1_cont_slice
I0720 14:25:49.966207 18934 net.cpp:425] lstm1_h_conted_0 <- h_0
I0720 14:25:49.966199 18936 net.cpp:156] Memory required for data: 10008
I0720 14:25:49.966207 18920 net.cpp:148] Top shape: 1 1 1000 (1000)
I0720 14:25:49.966220 18934 net.cpp:425] lstm1_h_conted_0 <- cont_1_lstm1_cont_slice_0_split_0
I0720 14:25:49.966217 18928 net.cpp:425] lstm1_cont_slice <- cont
I0720 14:25:49.966217 18948 net.cpp:148] Top shape: 1 1 1000 (1000)
I0720 14:25:49.966226 18920 net.cpp:156] Memory required for data: 46016
I0720 14:25:49.966222 18936 layer_factory.hpp:77] Creating layer cont_1_lstm1_cont_slice_0_split
I0720 14:25:49.966238 18920 layer_factory.hpp:77] Creating layer lstm1_transform_1
I0720 14:25:49.966236 18948 net.cpp:148] Top shape: 1 1 1000 (1000)
I0720 14:25:49.966240 18928 net.cpp:399] lstm1_cont_slice -> cont_1
I0720 14:25:49.966260 18948 net.cpp:156] Memory required for data: 14008
I0720 14:25:49.966275 18948 layer_factory.hpp:77] Creating layer lstm2_cont_slice
I0720 14:25:49.966282 18928 net.cpp:141] Setting up lstm1_cont_slice
I0720 14:25:49.966289 18948 net.cpp:91] Creating Layer lstm2_cont_slice
I0720 14:25:49.966296 18948 net.cpp:425] lstm2_cont_slice <- cont
I0720 14:25:49.966298 18928 net.cpp:148] Top shape: 1 1 (1)
I0720 14:25:49.966307 18928 net.cpp:156] Memory required for data: 10008
I0720 14:25:49.966307 18948 net.cpp:399] lstm2_cont_slice -> cont_1
I0720 14:25:49.966317 18928 layer_factory.hpp:77] Creating layer cont_1_lstm1_cont_slice_0_split
I0720 14:25:49.966327 18948 net.cpp:141] Setting up lstm2_cont_slice
I0720 14:25:49.966341 18948 net.cpp:148] Top shape: 1 1 (1)
I0720 14:25:49.966347 18948 net.cpp:156] Memory required for data: 14012
I0720 14:25:49.966356 18948 layer_factory.hpp:77] Creating layer cont_1_lstm2_cont_slice_0_split
I0720 14:25:49.966367 18948 net.cpp:91] Creating Layer cont_1_lstm2_cont_slice_0_split
I0720 14:25:49.966373 18948 net.cpp:425] cont_1_lstm2_cont_slice_0_split <- cont_1
I0720 14:25:49.966383 18948 net.cpp:399] cont_1_lstm2_cont_slice_0_split -> cont_1_lstm2_cont_slice_0_split_0
I0720 14:25:49.966397 18948 net.cpp:399] cont_1_lstm2_cont_slice_0_split -> cont_1_lstm2_cont_slice_0_split_1
I0720 14:25:49.966410 18948 net.cpp:141] Setting up cont_1_lstm2_cont_slice_0_split
I0720 14:25:49.966423 18948 net.cpp:148] Top shape: 1 1 (1)
I0720 14:25:49.966435 18948 net.cpp:148] Top shape: 1 1 (1)
I0720 14:25:49.966446 18948 net.cpp:156] Memory required for data: 14020
I0720 14:25:49.966454 18948 layer_factory.hpp:77] Creating layer lstm2_x_transform
I0720 14:25:49.966723 18934 net.cpp:399] lstm1_h_conted_0 -> h_conted_0
I0720 14:25:49.966735 18920 net.cpp:91] Creating Layer lstm1_transform_1
I0720 14:25:49.966729 18928 net.cpp:91] Creating Layer cont_1_lstm1_cont_slice_0_split
I0720 14:25:49.966756 18920 net.cpp:425] lstm1_transform_1 <- h_conted_0
I0720 14:25:49.966765 18928 net.cpp:425] cont_1_lstm1_cont_slice_0_split <- cont_1
I0720 14:25:49.966774 18920 net.cpp:399] lstm1_transform_1 -> W_hc_h_0
I0720 14:25:49.966781 18928 net.cpp:399] cont_1_lstm1_cont_slice_0_split -> cont_1_lstm1_cont_slice_0_split_0
I0720 14:25:49.966781 18936 net.cpp:91] Creating Layer cont_1_lstm1_cont_slice_0_split
I0720 14:25:49.966804 18928 net.cpp:399] cont_1_lstm1_cont_slice_0_split -> cont_1_lstm1_cont_slice_0_split_1
I0720 14:25:49.966809 18936 net.cpp:425] cont_1_lstm1_cont_slice_0_split <- cont_1
I0720 14:25:49.966809 18948 net.cpp:91] Creating Layer lstm2_x_transform
I0720 14:25:49.966822 18928 net.cpp:141] Setting up cont_1_lstm1_cont_slice_0_split
I0720 14:25:49.966826 18936 net.cpp:399] cont_1_lstm1_cont_slice_0_split -> cont_1_lstm1_cont_slice_0_split_0
I0720 14:25:49.966825 18948 net.cpp:425] lstm2_x_transform <- x
I0720 14:25:49.966840 18928 net.cpp:148] Top shape: 1 1 (1)
I0720 14:25:49.966847 18948 net.cpp:399] lstm2_x_transform -> W_xc_x
I0720 14:25:49.966852 18928 net.cpp:148] Top shape: 1 1 (1)
I0720 14:25:49.966861 18928 net.cpp:156] Memory required for data: 10016
I0720 14:25:49.966871 18928 layer_factory.hpp:77] Creating layer lstm1_x_transform
I0720 14:25:49.967543 18924 net.cpp:141] Setting up lstm1_transform_1
I0720 14:25:49.967550 18936 net.cpp:399] cont_1_lstm1_cont_slice_0_split -> cont_1_lstm1_cont_slice_0_split_1
I0720 14:25:49.967568 18924 net.cpp:148] Top shape: 1 1 4000 (4000)
I0720 14:25:49.967576 18924 net.cpp:156] Memory required for data: 62016
I0720 14:25:49.967579 18936 net.cpp:141] Setting up cont_1_lstm1_cont_slice_0_split
I0720 14:25:49.967591 18924 layer_factory.hpp:77] Creating layer lstm1_gate_input_1
I0720 14:25:49.967589 18934 net.cpp:141] Setting up lstm1_h_conted_0
I0720 14:25:49.967593 18936 net.cpp:148] Top shape: 1 1 (1)
I0720 14:25:49.967608 18934 net.cpp:148] Top shape: 1 1 1000 (1000)
I0720 14:25:49.967609 18936 net.cpp:148] Top shape: 1 1 (1)
I0720 14:25:49.967619 18934 net.cpp:156] Memory required for data: 46016
I0720 14:25:49.967622 18936 net.cpp:156] Memory required for data: 10016
I0720 14:25:49.967629 18934 layer_factory.hpp:77] Creating layer lstm1_transform_1
I0720 14:25:49.967630 18936 layer_factory.hpp:77] Creating layer lstm1_x_transform
I0720 14:25:49.967648 18934 net.cpp:91] Creating Layer lstm1_transform_1
I0720 14:25:49.967649 18936 net.cpp:91] Creating Layer lstm1_x_transform
I0720 14:25:49.967659 18934 net.cpp:425] lstm1_transform_1 <- h_conted_0
I0720 14:25:49.967661 18936 net.cpp:425] lstm1_x_transform <- x
I0720 14:25:49.968144 18928 net.cpp:91] Creating Layer lstm1_x_transform
I0720 14:25:49.968161 18928 net.cpp:425] lstm1_x_transform <- x
I0720 14:25:49.968166 18924 net.cpp:91] Creating Layer lstm1_gate_input_1
I0720 14:25:49.968183 18928 net.cpp:399] lstm1_x_transform -> W_xc_x
I0720 14:25:49.968190 18924 net.cpp:425] lstm1_gate_input_1 <- W_hc_h_0
I0720 14:25:49.968191 18936 net.cpp:399] lstm1_x_transform -> W_xc_x
I0720 14:25:49.968202 18924 net.cpp:425] lstm1_gate_input_1 <- W_xc_x_1
I0720 14:25:49.968214 18924 net.cpp:399] lstm1_gate_input_1 -> gate_input_1
I0720 14:25:49.968228 18924 net.cpp:141] Setting up lstm1_gate_input_1
I0720 14:25:49.968236 18924 net.cpp:148] Top shape: 1 1 4000 (4000)
I0720 14:25:49.968241 18924 net.cpp:156] Memory required for data: 78016
I0720 14:25:49.968246 18924 layer_factory.hpp:77] Creating layer lstm1_unit_1
I0720 14:25:49.968281 18934 net.cpp:399] lstm1_transform_1 -> W_hc_h_0
I0720 14:25:49.968358 18946 net.cpp:141] Setting up lstm1_transform_1
I0720 14:25:49.968376 18946 net.cpp:148] Top shape: 1 1 4000 (4000)
I0720 14:25:49.968381 18946 net.cpp:156] Memory required for data: 62016
I0720 14:25:49.968394 18946 layer_factory.hpp:77] Creating layer lstm1_gate_input_1
I0720 14:25:49.968875 18924 net.cpp:91] Creating Layer lstm1_unit_1
I0720 14:25:49.968897 18924 net.cpp:425] lstm1_unit_1 <- c_0
I0720 14:25:49.969460 18946 net.cpp:91] Creating Layer lstm1_gate_input_1
I0720 14:25:49.969483 18946 net.cpp:425] lstm1_gate_input_1 <- W_hc_h_0
I0720 14:25:49.969496 18946 net.cpp:425] lstm1_gate_input_1 <- W_xc_x_1
I0720 14:25:49.969501 18924 net.cpp:425] lstm1_unit_1 <- gate_input_1
I0720 14:25:49.969512 18946 net.cpp:399] lstm1_gate_input_1 -> gate_input_1
I0720 14:25:49.969521 18924 net.cpp:425] lstm1_unit_1 <- cont_1_lstm1_cont_slice_0_split_1
I0720 14:25:49.969532 18924 net.cpp:399] lstm1_unit_1 -> c_1
I0720 14:25:49.969535 18946 net.cpp:141] Setting up lstm1_gate_input_1
I0720 14:25:49.969543 18924 net.cpp:399] lstm1_unit_1 -> h_1
I0720 14:25:49.969550 18946 net.cpp:148] Top shape: 1 1 4000 (4000)
I0720 14:25:49.969558 18924 net.cpp:141] Setting up lstm1_unit_1
I0720 14:25:49.969559 18946 net.cpp:156] Memory required for data: 78016
I0720 14:25:49.969569 18946 layer_factory.hpp:77] Creating layer lstm1_unit_1
I0720 14:25:49.969579 18946 net.cpp:91] Creating Layer lstm1_unit_1
I0720 14:25:49.969584 18946 net.cpp:425] lstm1_unit_1 <- c_0
I0720 14:25:49.969590 18946 net.cpp:425] lstm1_unit_1 <- gate_input_1
I0720 14:25:49.969596 18946 net.cpp:425] lstm1_unit_1 <- cont_1_lstm1_cont_slice_0_split_1
I0720 14:25:49.970059 18924 net.cpp:148] Top shape: 1 1 1000 (1000)
I0720 14:25:49.970077 18924 net.cpp:148] Top shape: 1 1 1000 (1000)
I0720 14:25:49.970082 18924 net.cpp:156] Memory required for data: 86016
I0720 14:25:49.970088 18924 layer_factory.hpp:77] Creating layer lstm1_
I0720 14:25:49.970098 18924 net.cpp:91] Creating Layer lstm1_
I0720 14:25:49.970103 18924 net.cpp:425] lstm1_ <- c_1
I0720 14:25:49.970110 18924 net.cpp:399] lstm1_ -> c_T
I0720 14:25:49.970123 18924 net.cpp:141] Setting up lstm1_
I0720 14:25:49.970129 18924 net.cpp:148] Top shape: 1 1 1000 (1000)
I0720 14:25:49.970134 18924 net.cpp:156] Memory required for data: 90016
I0720 14:25:49.970139 18924 layer_factory.hpp:77] Creating layer lstm1_h_concat
I0720 14:25:49.971146 18946 net.cpp:399] lstm1_unit_1 -> c_1
I0720 14:25:49.971194 18946 net.cpp:399] lstm1_unit_1 -> h_1
I0720 14:25:49.971218 18946 net.cpp:141] Setting up lstm1_unit_1
I0720 14:25:49.971235 18946 net.cpp:148] Top shape: 1 1 1000 (1000)
I0720 14:25:49.971246 18946 net.cpp:148] Top shape: 1 1 1000 (1000)
I0720 14:25:49.971256 18946 net.cpp:156] Memory required for data: 86016
I0720 14:25:49.971266 18946 layer_factory.hpp:77] Creating layer lstm1_
I0720 14:25:49.971665 18946 net.cpp:91] Creating Layer lstm1_
I0720 14:25:49.971681 18946 net.cpp:425] lstm1_ <- c_1
I0720 14:25:49.971680 18924 net.cpp:91] Creating Layer lstm1_h_concat
I0720 14:25:49.971725 18946 net.cpp:399] lstm1_ -> c_T
I0720 14:25:49.971746 18924 net.cpp:425] lstm1_h_concat <- h_1
I0720 14:25:49.971753 18946 net.cpp:141] Setting up lstm1_
I0720 14:25:49.971763 18946 net.cpp:148] Top shape: 1 1 1000 (1000)
I0720 14:25:49.971767 18946 net.cpp:156] Memory required for data: 90016
I0720 14:25:49.971772 18924 net.cpp:399] lstm1_h_concat -> h
I0720 14:25:49.971772 18946 layer_factory.hpp:77] Creating layer lstm1_h_concat
I0720 14:25:49.971801 18946 net.cpp:91] Creating Layer lstm1_h_concat
I0720 14:25:49.971807 18946 net.cpp:425] lstm1_h_concat <- h_1
I0720 14:25:49.971809 18924 net.cpp:141] Setting up lstm1_h_concat
I0720 14:25:49.971828 18924 net.cpp:148] Top shape: 1 1 1000 (1000)
I0720 14:25:49.971838 18924 net.cpp:156] Memory required for data: 94016
I0720 14:25:49.971848 18924 layer_factory.hpp:77] Creating layer h_pseudoloss
I0720 14:25:49.972748 18924 net.cpp:91] Creating Layer h_pseudoloss
I0720 14:25:49.972749 18946 net.cpp:399] lstm1_h_concat -> h
I0720 14:25:49.972764 18924 net.cpp:425] h_pseudoloss <- h
I0720 14:25:49.972779 18924 net.cpp:399] h_pseudoloss -> h_pseudoloss
I0720 14:25:49.972790 18946 net.cpp:141] Setting up lstm1_h_concat
I0720 14:25:49.972807 18946 net.cpp:148] Top shape: 1 1 1000 (1000)
I0720 14:25:49.972815 18946 net.cpp:156] Memory required for data: 94016
I0720 14:25:49.972825 18946 layer_factory.hpp:77] Creating layer h_pseudoloss
I0720 14:25:49.972841 18946 net.cpp:91] Creating Layer h_pseudoloss
I0720 14:25:49.972851 18946 net.cpp:425] h_pseudoloss <- h
I0720 14:25:49.972913 18946 net.cpp:399] h_pseudoloss -> h_pseudoloss
I0720 14:25:49.973475 18924 net.cpp:141] Setting up h_pseudoloss
…
I0720 14:25:49.974514 18924 net.cpp:261] This network produces output c_T
I0720 14:25:49.974524 18924 net.cpp:261] This network produces output h_pseudoloss
I0720 14:25:49.974550 18924 net.cpp:274] Network initialization done.
I0720 14:25:49.974639 18924 recurrent_layer.cpp:150] Adding parameter 0: W_xc
I0720 14:25:49.974654 18924 recurrent_layer.cpp:150] Adding parameter 1: b_c
I0720 14:25:49.974664 18924 recurrent_layer.cpp:150] Adding parameter 2: W_hc
I0720 14:25:49.974720 18946 net.cpp:274] Network initialization done.
I0720 14:25:49.974752 18924 net.cpp:141] Setting up lstm1
I0720 14:25:49.974771 18924 net.cpp:148] Top shape: 1 1 1000 (1000)
I0720 14:25:49.974779 18924 net.cpp:156] Memory required for data: 26408
I0720 14:25:49.974804 18924 layer_factory.hpp:77] Creating layer concat
I0720 14:25:49.974810 18946 recurrent_layer.cpp:150] Adding parameter 0: W_xc
I0720 14:25:49.974824 18946 recurrent_layer.cpp:150] Adding parameter 1: b_c
I0720 14:25:49.974824 18924 net.cpp:91] Creating Layer concat
I0720 14:25:49.974840 18946 recurrent_layer.cpp:150] Adding parameter 2: W_hc
I0720 14:25:49.974851 18924 net.cpp:425] concat <- lstm1
I0720 14:25:49.974865 18924 net.cpp:425] concat <- embedded_input_sentence
I0720 14:25:49.974876 18924 net.cpp:425] concat <- reshaped_stage_indicator
I0720 14:25:49.974891 18924 net.cpp:399] concat -> lstm1_video_sequence
I0720 14:25:49.974907 18946 net.cpp:141] Setting up lstm1
I0720 14:25:49.974912 18924 net.cpp:141] Setting up concat
I0720 14:25:49.974925 18946 net.cpp:148] Top shape: 1 1 1000 (1000)
I0720 14:25:49.974927 18924 net.cpp:148] Top shape: 1 1 1501 (1501)
I0720 14:25:49.974934 18946 net.cpp:156] Memory required for data: 26408
I0720 14:25:49.974937 18924 net.cpp:156] Memory required for data: 32412
I0720 14:25:49.974947 18924 layer_factory.hpp:77] Creating layer lstm2
I0720 14:25:49.974959 18946 layer_factory.hpp:77] Creating layer concat
I0720 14:25:49.974968 18924 net.cpp:91] Creating Layer lstm2
I0720 14:25:49.974977 18946 net.cpp:91] Creating Layer concat
I0720 14:25:49.974980 18924 net.cpp:425] lstm2 <- lstm1_video_sequence
I0720 14:25:49.974988 18946 net.cpp:425] concat <- lstm1
I0720 14:25:49.974992 18924 net.cpp:425] lstm2 <- cont_sentence_input_1_split_1
I0720 14:25:49.975002 18946 net.cpp:425] concat <- embedded_input_sentence
I0720 14:25:49.975009 18924 net.cpp:399] lstm2 -> lstm2
I0720 14:25:49.975013 18946 net.cpp:425] concat <- reshaped_stage_indicator
I0720 14:25:49.975026 18946 net.cpp:399] concat -> lstm1_video_sequence
I0720 14:25:49.975028 18924 recurrent_layer.cpp:20] Initializing recurrent layer: assuming input batch contains 1 timesteps of 1 independent streams.
I0720 14:25:49.975045 18946 net.cpp:141] Setting up concat
I0720 14:25:49.975059 18946 net.cpp:148] Top shape: 1 1 1501 (1501)
I0720 14:25:49.975066 18946 net.cpp:156] Memory required for data: 32412
I0720 14:25:49.975075 18946 layer_factory.hpp:77] Creating layer lstm2
I0720 14:25:49.975092 18946 net.cpp:91] Creating Layer lstm2
I0720 14:25:49.975103 18946 net.cpp:425] lstm2 <- lstm1_video_sequence
I0720 14:25:49.975114 18946 net.cpp:425] lstm2 <- cont_sentence_input_1_split_1
I0720 14:25:49.975129 18946 net.cpp:399] lstm2 -> lstm2
I0720 14:25:49.975149 18946 recurrent_layer.cpp:20] Initializing recurrent layer: assuming input batch contains 1 timesteps of 1 independent streams.
I0720 14:25:49.979102 18946 net.cpp:49] Initializing net from parameters: 
layer {
  name: "lstm2_"
  type: "Input"
  top: "x"
  top: "cont"
  input_param {
    shape {
      dim: 1
      dim: 1
      dim: 1501
    }
    shape {
      dim: 1
      dim: 1
    }
  }
}
layer {
  name: "lstm2_"
  type: "Input"
  top: "c_0"
  top: "h_0"
  input_param {
    shape {
      dim: 1
      dim: 1
      dim: 1000
    }
    shape {
      dim: 1
      dim: 1
      dim: 1000
    }
  }
}
layer {
  name: "lstm2_cont_slice"
  type: "Slice"
  bottom: "cont"
  top: "cont_1"
  slice_param {
    axis: 0
  }
}
layer {
  name: "lstm2_x_transform"
  type: "InnerProduct"
  bottom: "x"
  top: "W_xc_x"
  param {
    name: "W_xc"
  }
  param {
    name: "b_c"
  }
  propagate_down: true
  inner_product_param {
    num_output: 4000
    bias_term: true
    weight_filler {
      type: "uniform"
      min: -0.08
      max: 0.08
    }
    bias_filler {
      type: "constant"
      value: 0
    }
    axis: 2
  }
}
layer {
  name: "lstm2_W_xc_x_slice"
  type: "Slice"
  bottom: "W_xc_x"
  top: "W_xc_x_1"
  slice_param {
    axis: 0
  }
}
layer {
  name: "lstm2_h_conted_0"
  type: "Scale"
  bottom: "h_0"
  bottom: "cont_1"
  top: "h_conted_0"
  scale_param {
    axis: 0
  }
}
layer {
  name: "lstm2_transform_1"
  type: "InnerProduct"
  bottom: "h_conted_0"
  top: "W_hc_h_0"
  param {
    name: "W_hc"
  }
  inner_product_param {
    num_output: 4000
    bias_term: false
    weight_filler {
      type: "uniform"
      min: -0.08
      max: 0.08
    }
    axis: 2
  }
}
layer {
  name: "lstm2_gate_input_1"
  type: "Eltwise"
  bottom: "W_hc_h_0"
  bottom: "W_xc_x_1"
  top: "gate_input_1"
  eltwise_param {
    operation: SUM
  }
}
layer {
  name: "lstm2_unit_1"
  type: "LSTMUnit"
  bottom: "c_0"
  bottom: "gate_input_1"
  bottom: "cont_1"
  top: "c_1"
  top: "h_1"
}
layer {
  name: "lstm2_"
  type: "Split"
  bottom: "c_1"
  top: "c_T"
}
layer {
  name: "lstm2_h_concat"
  type: "Concat"
  bottom: "h_1"
  top: "h"
  concat_param {
    axis: 0
  }
}
layer {
  name: "h_pseudoloss"
  type: "Reduction"
  bottom: "h"
  top: "h_pseudoloss"
  loss_weight: 1
}
I0720 14:25:49.979104 18924 net.cpp:49] Initializing net from parameters: 
layer {
  name: "lstm2_"
  type: "Input"
  top: "x"
  top: "cont"
  input_param {
    shape {
      dim: 1
      dim: 1
      dim: 1501
    }
    shape {
      dim: 1
      dim: 1
    }
  }
}
layer {
  name: "lstm2_"
  type: "Input"
  top: "c_0"
  top: "h_0"
  input_param {
    shape {
      dim: 1
      dim: 1
      dim: 1000
    }
    shape {
      dim: 1
      dim: 1
      dim: 1000
    }
  }
}
layer {
  name: "lstm2_cont_slice"
  type: "Slice"
  bottom: "cont"
  top: "cont_1"
  slice_param {
    axis: 0
  }
}
layer {
  name: "lstm2_x_transform"
  type: "InnerProduct"
  bottom: "x"
  top: "W_xc_x"
  param {
    name: "W_xc"
  }
  param {
    name: "b_c"
  }
  propagate_down: true
  inner_product_param {
    num_output: 4000
    bias_term: true
    weight_filler {
      type: "uniform"
      min: -0.08
      max: 0.08
    }
    bias_filler {
      type: "constant"
      value: 0
    }
    axis: 2
  }
}
layer {
  name: "lstm2_W_xc_x_slice"
  type: "Slice"
  bottom: "W_xc_x"
  top: "W_xc_x_1"
  slice_param {
    axis: 0
  }
}
layer {
  name: "lstm2_h_conted_0"
  type: "Scale"
  bottom: "h_0"
  bottom: "cont_1"
  top: "h_conted_0"
  scale_param {
    axis: 0
  }
}
layer {
  name: "lstm2_transform_1"
  type: "InnerProduct"
  bottom: "h_conted_0"
  top: "W_hc_h_0"
  param {
    name: "W_hc"
  }
  inner_product_param {
    num_output: 4000
    bias_term: false
    weight_filler {
      type: "uniform"
      min: -0.08
      max: 0.08
    }
    axis: 2
  }
}
layer {
  name: "lstm2_gate_input_1"
  type: "Eltwise"
  bottom: "W_hc_h_0"
  bottom: "W_xc_x_1"
  top: "gate_input_1"
  eltwise_param {
    operation: SUM
  }
}
layer {
  name: "lstm2_unit_1"
  type: "LSTMUnit"
  bottom: "c_0"
  bottom: "gate_input_1"
  bottom: "cont_1"
  top: "c_1"
  top: "h_1"
}
layer {
  name: "lstm2_"
  type: "Split"
  bottom: "c_1"
  top: "c_T"
}
layer {
  name: "lstm2_h_concat"
  type: "Concat"
  bottom: "h_1"
  top: "h"
  concat_param {
    axis: 0
  }
}
layer {
  name: "h_pseudoloss"
  type: "Reduction"
  bottom: "h"
  top: "h_pseudoloss"
  loss_weight: 1
}
I0720 14:25:49.979332 18924 layer_factory.hpp:77] Creating layer lstm2_
I0720 14:25:49.979356 18924 net.cpp:91] Creating Layer lstm2_
I0720 14:25:49.979367 18924 net.cpp:399] lstm2_ -> x
I0720 14:25:49.979385 18924 net.cpp:399] lstm2_ -> cont
I0720 14:25:49.979405 18924 net.cpp:141] Setting up lstm2_
I0720 14:25:49.979418 18924 net.cpp:148] Top shape: 1 1 1501 (1501)
I0720 14:25:49.979429 18924 net.cpp:148] Top shape: 1 1 (1)
I0720 14:25:49.979436 18924 net.cpp:156] Memory required for data: 6008
I0720 14:25:49.979444 18924 layer_factory.hpp:77] Creating layer lstm2_
I0720 14:25:49.979459 18924 net.cpp:91] Creating Layer lstm2_
I0720 14:25:49.979470 18924 net.cpp:399] lstm2_ -> c_0
I0720 14:25:49.979499 18946 layer_factory.hpp:77] Creating layer lstm2_
I0720 14:25:49.979516 18946 net.cpp:91] Creating Layer lstm2_
I0720 14:25:49.979528 18946 net.cpp:399] lstm2_ -> x
I0720 14:25:49.979544 18946 net.cpp:399] lstm2_ -> cont
I0720 14:25:49.979562 18946 net.cpp:141] Setting up lstm2_
I0720 14:25:49.979574 18946 net.cpp:148] Top shape: 1 1 1501 (1501)
I0720 14:25:49.979584 18946 net.cpp:148] Top shape: 1 1 (1)
I0720 14:25:49.979591 18946 net.cpp:156] Memory required for data: 6008
I0720 14:25:49.979599 18946 layer_factory.hpp:77] Creating layer lstm2_
I0720 14:25:49.979612 18946 net.cpp:91] Creating Layer lstm2_
I0720 14:25:49.979624 18946 net.cpp:399] lstm2_ -> c_0
I0720 14:25:49.979641 18946 net.cpp:399] lstm2_ -> h_0
I0720 14:25:49.979660 18946 net.cpp:141] Setting up lstm2_
I0720 14:25:49.979671 18946 net.cpp:148] Top shape: 1 1 1000 (1000)
I0720 14:25:49.979681 18946 net.cpp:148] Top shape: 1 1 1000 (1000)
I0720 14:25:49.979687 18946 net.cpp:156] Memory required for data: 14008
I0720 14:25:49.979694 18946 layer_factory.hpp:77] Creating layer lstm2_cont_slice
I0720 14:25:49.980056 18946 net.cpp:91] Creating Layer lstm2_cont_slice
I0720 14:25:49.980069 18946 net.cpp:425] lstm2_cont_slice <- cont
I0720 14:25:49.980082 18946 net.cpp:399] lstm2_cont_slice -> cont_1
I0720 14:25:49.980103 18946 net.cpp:141] Setting up lstm2_cont_slice
I0720 14:25:49.980116 18946 net.cpp:148] Top shape: 1 1 (1)
I0720 14:25:49.980124 18946 net.cpp:156] Memory required for data: 14012
I0720 14:25:49.980131 18946 layer_factory.hpp:77] Creating layer cont_1_lstm2_cont_slice_0_split
I0720 14:25:49.980144 18946 net.cpp:91] Creating Layer cont_1_lstm2_cont_slice_0_split
I0720 14:25:49.980151 18946 net.cpp:425] cont_1_lstm2_cont_slice_0_split <- cont_1
I0720 14:25:49.980164 18946 net.cpp:399] cont_1_lstm2_cont_slice_0_split -> cont_1_lstm2_cont_slice_0_split_0
I0720 14:25:49.980178 18946 net.cpp:399] cont_1_lstm2_cont_slice_0_split -> cont_1_lstm2_cont_slice_0_split_1
I0720 14:25:49.980195 18946 net.cpp:141] Setting up cont_1_lstm2_cont_slice_0_split
I0720 14:25:49.980206 18946 net.cpp:148] Top shape: 1 1 (1)
I0720 14:25:49.980216 18946 net.cpp:148] Top shape: 1 1 (1)
I0720 14:25:49.980222 18946 net.cpp:156] Memory required for data: 14020
I0720 14:25:49.980231 18946 layer_factory.hpp:77] Creating layer lstm2_x_transform
I0720 14:25:49.980258 18924 net.cpp:399] lstm2_ -> h_0
I0720 14:25:49.980280 18924 net.cpp:141] Setting up lstm2_
I0720 14:25:49.980293 18924 net.cpp:148] Top shape: 1 1 1000 (1000)
I0720 14:25:49.980303 18924 net.cpp:148] Top shape: 1 1 1000 (1000)
I0720 14:25:49.980310 18924 net.cpp:156] Memory required for data: 14008
I0720 14:25:49.980319 18924 layer_factory.hpp:77] Creating layer lstm2_cont_slice
I0720 14:25:49.980331 18924 net.cpp:91] Creating Layer lstm2_cont_slice
I0720 14:25:49.980340 18924 net.cpp:425] lstm2_cont_slice <- cont
I0720 14:25:49.980351 18924 net.cpp:399] lstm2_cont_slice -> cont_1
I0720 14:25:49.980368 18924 net.cpp:141] Setting up lstm2_cont_slice
I0720 14:25:49.980381 18924 net.cpp:148] Top shape: 1 1 (1)
I0720 14:25:49.980388 18924 net.cpp:156] Memory required for data: 14012
I0720 14:25:49.980396 18924 layer_factory.hpp:77] Creating layer cont_1_lstm2_cont_slice_0_split
I0720 14:25:49.980407 18924 net.cpp:91] Creating Layer cont_1_lstm2_cont_slice_0_split
I0720 14:25:49.980415 18924 net.cpp:425] cont_1_lstm2_cont_slice_0_split <- cont_1
I0720 14:25:49.980427 18924 net.cpp:399] cont_1_lstm2_cont_slice_0_split -> cont_1_lstm2_cont_slice_0_split_0
I0720 14:25:49.980442 18924 net.cpp:399] cont_1_lstm2_cont_slice_0_split -> cont_1_lstm2_cont_slice_0_split_1
I0720 14:25:49.980458 18924 net.cpp:141] Setting up cont_1_lstm2_cont_slice_0_split
I0720 14:25:49.980468 18924 net.cpp:148] Top shape: 1 1 (1)
I0720 14:25:49.980479 18924 net.cpp:148] Top shape: 1 1 (1)
I0720 14:25:49.980485 18924 net.cpp:156] Memory required for data: 14020
I0720 14:25:49.980494 18924 layer_factory.hpp:77] Creating layer lstm2_x_transform
I0720 14:25:49.980823 18946 net.cpp:91] Creating Layer lstm2_x_transform
I0720 14:25:49.980834 18924 net.cpp:91] Creating Layer lstm2_x_transform
I0720 14:25:49.980840 18946 net.cpp:425] lstm2_x_transform <- x
I0720 14:25:49.980850 18924 net.cpp:425] lstm2_x_transform <- x
I0720 14:25:49.980861 18946 net.cpp:399] lstm2_x_transform -> W_xc_x
I0720 14:25:49.980868 18924 net.cpp:399] lstm2_x_transform -> W_xc_x
I0720 14:25:50.042078 18952 net.cpp:141] Setting up lstm1_transform_1
I0720 14:25:50.042100 18926 net.cpp:141] Setting up lstm1_transform_1
I0720 14:25:50.042142 18952 net.cpp:148] Top shape: 1 1 4000 (4000)
I0720 14:25:50.042167 18952 net.cpp:156] Memory required for data: 62016
I0720 14:25:50.042170 18926 net.cpp:148] Top shape: 1 1 4000 (4000)
I0720 14:25:50.042179 18926 net.cpp:156] Memory required for data: 62016
I0720 14:25:50.042196 18952 layer_factory.hpp:77] Creating layer lstm1_gate_input_1
I0720 14:25:50.042201 18926 layer_factory.hpp:77] Creating layer lstm1_gate_input_1
I0720 14:25:50.046696 18920 net.cpp:141] Setting up lstm1_transform_1
I0720 14:25:50.046742 18920 net.cpp:148] Top shape: 1 1 4000 (4000)
I0720 14:25:50.046751 18920 net.cpp:156] Memory required for data: 62016
I0720 14:25:50.051311 18926 net.cpp:91] Creating Layer lstm1_gate_input_1
I0720 14:25:50.051326 18938 net.cpp:141] Setting up lstm1_transform_1
I0720 14:25:50.051353 18926 net.cpp:425] lstm1_gate_input_1 <- W_hc_h_0
I0720 14:25:50.051357 18928 net.cpp:141] Setting up lstm1_x_transform
I0720 14:25:50.051368 18926 net.cpp:425] lstm1_gate_input_1 <- W_xc_x_1
I0720 14:25:50.051367 18920 layer_factory.hpp:77] Creating layer lstm1_gate_input_1
I0720 14:25:50.051383 18928 net.cpp:148] Top shape: 1 1 4000 (4000)
I0720 14:25:50.051332 18952 net.cpp:91] Creating Layer lstm1_gate_input_1
I0720 14:25:50.051409 18920 net.cpp:91] Creating Layer lstm1_gate_input_1
I0720 14:25:50.051414 18952 net.cpp:425] lstm1_gate_input_1 <- W_hc_h_0
I0720 14:25:50.051409 18928 net.cpp:156] Memory required for data: 26016
I0720 14:25:50.051436 18920 net.cpp:425] lstm1_gate_input_1 <- W_hc_h_0
I0720 14:25:50.051386 18926 net.cpp:399] lstm1_gate_input_1 -> gate_input_1
I0720 14:25:50.051453 18920 net.cpp:425] lstm1_gate_input_1 <- W_xc_x_1
I0720 14:25:50.051460 18928 layer_factory.hpp:77] Creating layer lstm1_W_xc_x_slice
I0720 14:25:50.051442 18952 net.cpp:425] lstm1_gate_input_1 <- W_xc_x_1
I0720 14:25:50.051483 18926 net.cpp:141] Setting up lstm1_gate_input_1
I0720 14:25:50.051376 18938 net.cpp:148] Top shape: 1 1 4000 (4000)
I0720 14:25:50.051497 18926 net.cpp:148] Top shape: 1 1 4000 (4000)
I0720 14:25:50.051506 18926 net.cpp:156] Memory required for data: 78016
I0720 14:25:50.051493 18952 net.cpp:399] lstm1_gate_input_1 -> gate_input_1
I0720 14:25:50.051513 18926 layer_factory.hpp:77] Creating layer lstm1_unit_1
I0720 14:25:50.051515 18938 net.cpp:156] Memory required for data: 62016
I0720 14:25:50.051533 18952 net.cpp:141] Setting up lstm1_gate_input_1
I0720 14:25:50.051548 18952 net.cpp:148] Top shape: 1 1 4000 (4000)
I0720 14:25:50.051555 18952 net.cpp:156] Memory required for data: 78016
I0720 14:25:50.051564 18952 layer_factory.hpp:77] Creating layer lstm1_unit_1
I0720 14:25:50.051914 18920 net.cpp:399] lstm1_gate_input_1 -> gate_input_1
I0720 14:25:50.051954 18920 net.cpp:141] Setting up lstm1_gate_input_1
I0720 14:25:50.051972 18920 net.cpp:148] Top shape: 1 1 4000 (4000)
I0720 14:25:50.051982 18920 net.cpp:156] Memory required for data: 78016
I0720 14:25:50.051980 18926 net.cpp:91] Creating Layer lstm1_unit_1
I0720 14:25:50.052006 18920 layer_factory.hpp:77] Creating layer lstm1_unit_1
I0720 14:25:50.052026 18926 net.cpp:425] lstm1_unit_1 <- c_0
I0720 14:25:50.052034 18920 net.cpp:91] Creating Layer lstm1_unit_1
I0720 14:25:50.052042 18920 net.cpp:425] lstm1_unit_1 <- c_0
…
I0720 14:25:50.054829 18928 net.cpp:425] lstm1_W_xc_x_slice <- W_xc_x
I0720 14:25:50.054824 18926 net.cpp:425] lstm1_unit_1 <- cont_1_lstm1_cont_slice_0_split_1
I0720 14:25:50.054839 18920 net.cpp:399] lstm1_unit_1 -> c_1
I0720 14:25:50.054872 18926 net.cpp:399] lstm1_unit_1 -> c_1
I0720 14:25:50.054890 18926 net.cpp:399] lstm1_unit_1 -> h_1
I0720 14:25:50.054910 18926 net.cpp:141] Setting up lstm1_unit_1
I0720 14:25:50.054786 18952 net.cpp:91] Creating Layer lstm1_unit_1
I0720 14:25:50.054978 18952 net.cpp:425] lstm1_unit_1 <- c_0
I0720 14:25:50.054854 18928 net.cpp:399] lstm1_W_xc_x_slice -> W_xc_x_1
I0720 14:25:50.055409 18926 net.cpp:148] Top shape: 1 1 1000 (1000)
I0720 14:25:50.055411 18938 net.cpp:399] lstm1_gate_input_1 -> gate_input_1
I0720 14:25:50.055423 18926 net.cpp:148] Top shape: 1 1 1000 (1000)
I0720 14:25:50.055431 18926 net.cpp:156] Memory required for data: 86016
I0720 14:25:50.055440 18926 layer_factory.hpp:77] Creating layer lstm1_
I0720 14:25:50.055444 18938 net.cpp:141] Setting up lstm1_gate_input_1
I0720 14:25:50.055426 18928 net.cpp:141] Setting up lstm1_W_xc_x_slice
…
I0720 14:25:50.191944 18924 net.cpp:274] Network initialization done.
I0720 14:25:50.192015 18924 recurrent_layer.cpp:150] Adding parameter 0: W_xc
I0720 14:25:50.192023 18924 recurrent_layer.cpp:150] Adding parameter 1: b_c
I0720 14:25:50.192028 18924 recurrent_layer.cpp:150] Adding parameter 2: W_hc
I0720 14:25:50.192076 18924 net.cpp:141] Setting up lstm2
I0720 14:25:50.192086 18924 net.cpp:148] Top shape: 1 1 1000 (1000)
I0720 14:25:50.192090 18924 net.cpp:156] Memory required for data: 36412
I0720 14:25:50.192106 18924 layer_factory.hpp:77] Creating layer predict
I0720 14:25:50.192126 18924 net.cpp:91] Creating Layer predict
I0720 14:25:50.192139 18924 net.cpp:425] predict <- lstm2
I0720 14:25:50.192152 18924 net.cpp:399] predict -> predict
I0720 14:25:50.218233 18926 net.cpp:141] Setting up lstm2_transform_1
I0720 14:25:50.218297 18926 net.cpp:148] Top shape: 1 1 4000 (4000)
I0720 14:25:50.218309 18926 net.cpp:156] Memory required for data: 66020
I0720 14:25:50.218339 18926 layer_factory.hpp:77] Creating layer lstm2_gate_input_1
I0720 14:25:50.219925 18926 net.cpp:91] Creating Layer lstm2_gate_input_1
I0720 14:25:50.219974 18926 net.cpp:425] lstm2_gate_input_1 <- W_hc_h_0
I0720 14:25:50.219996 18926 net.cpp:425] lstm2_gate_input_1 <- W_xc_x_1
I0720 14:25:50.220017 18926 net.cpp:399] lstm2_gate_input_1 -> gate_input_1
I0720 14:25:50.220049 18926 net.cpp:141] Setting up lstm2_gate_input_1
I0720 14:25:50.220541 18926 net.cpp:148] Top shape: 1 1 4000 (4000)
I0720 14:25:50.220567 18926 net.cpp:156] Memory required for data: 82020
I0720 14:25:50.220589 18926 layer_factory.hpp:77] Creating layer lstm2_unit_1
I0720 14:25:50.220616 18926 net.cpp:91] Creating Layer lstm2_unit_1
I0720 14:25:50.220626 18926 net.cpp:425] lstm2_unit_1 <- c_0
I0720 14:25:50.220633 18926 net.cpp:425] lstm2_unit_1 <- gate_input_1
I0720 14:25:50.220639 18926 net.cpp:425] lstm2_unit_1 <- cont_1_lstm2_cont_slice_0_split_1
I0720 14:25:50.220646 18926 net.cpp:399] lstm2_unit_1 -> c_1
I0720 14:25:50.220657 18926 net.cpp:399] lstm2_unit_1 -> h_1
I0720 14:25:50.220669 18926 net.cpp:141] Setting up lstm2_unit_1
I0720 14:25:50.220676 18926 net.cpp:148] Top shape: 1 1 1000 (1000)
I0720 14:25:50.220681 18926 net.cpp:148] Top shape: 1 1 1000 (1000)
I0720 14:25:50.220686 18926 net.cpp:156] Memory required for data: 90020
I0720 14:25:50.220690 18926 layer_factory.hpp:77] Creating layer lstm2_
I0720 14:25:50.221637 18926 net.cpp:91] Creating Layer lstm2_
I0720 14:25:50.221688 18926 net.cpp:425] lstm2_ <- c_1
I0720 14:25:50.221710 18926 net.cpp:399] lstm2_ -> c_T
I0720 14:25:50.221735 18926 net.cpp:141] Setting up lstm2_
I0720 14:25:50.221758 18926 net.cpp:148] Top shape: 1 1 1000 (1000)
I0720 14:25:50.221768 18926 net.cpp:156] Memory required for data: 94020
I0720 14:25:50.221781 18926 layer_factory.hpp:77] Creating layer lstm2_h_concat
I0720 14:25:50.221798 18926 net.cpp:91] Creating Layer lstm2_h_concat
I0720 14:25:50.221809 18926 net.cpp:425] lstm2_h_concat <- h_1
I0720 14:25:50.221824 18926 net.cpp:399] lstm2_h_concat -> h
I0720 14:25:50.221850 18926 net.cpp:141] Setting up lstm2_h_concat
I0720 14:25:50.221864 18926 net.cpp:148] Top shape: 1 1 1000 (1000)
I0720 14:25:50.221873 18926 net.cpp:156] Memory required for data: 98020
I0720 14:25:50.221882 18926 layer_factory.hpp:77] Creating layer h_pseudoloss
I0720 14:25:50.222389 18926 net.cpp:91] Creating Layer h_pseudoloss
I0720 14:25:50.222410 18926 net.cpp:425] h_pseudoloss <- h
I0720 14:25:50.222429 18926 net.cpp:399] h_pseudoloss -> h_pseudoloss
I0720 14:25:50.224007 18926 net.cpp:141] Setting up h_pseudoloss
…
I0720 14:25:50.224205 18926 net.cpp:219] lstm2_ does not need backward computation.
I0720 14:25:50.224211 18926 net.cpp:261] This network produces output c_T
I0720 14:25:50.224221 18926 net.cpp:261] This network produces output h_pseudoloss
I0720 14:25:50.225026 18926 net.cpp:274] Network initialization done.
I0720 14:25:50.225119 18926 recurrent_layer.cpp:150] Adding parameter 0: W_xc
I0720 14:25:50.225133 18926 recurrent_layer.cpp:150] Adding parameter 1: b_c
I0720 14:25:50.225142 18926 recurrent_layer.cpp:150] Adding parameter 2: W_hc
I0720 14:25:50.225224 18926 net.cpp:141] Setting up lstm2
I0720 14:25:50.225244 18926 net.cpp:148] Top shape: 1 1 1000 (1000)
I0720 14:25:50.225253 18926 net.cpp:156] Memory required for data: 36412
I0720 14:25:50.225281 18926 layer_factory.hpp:77] Creating layer predict
I0720 14:25:50.225309 18926 net.cpp:91] Creating Layer predict
I0720 14:25:50.225322 18926 net.cpp:425] predict <- lstm2
I0720 14:25:50.225340 18926 net.cpp:399] predict -> predict
I0720 14:25:50.225745 18938 net.cpp:141] Setting up lstm2_transform_1
I0720 14:25:50.225786 18938 net.cpp:148] Top shape: 1 1 4000 (4000)
I0720 14:25:50.225792 18938 net.cpp:156] Memory required for data: 66020
I0720 14:25:50.225811 18938 layer_factory.hpp:77] Creating layer lstm2_gate_input_1
I0720 14:25:50.225832 18938 net.cpp:91] Creating Layer lstm2_gate_input_1
I0720 14:25:50.225841 18938 net.cpp:425] lstm2_gate_input_1 <- W_hc_h_0
I0720 14:25:50.225847 18938 net.cpp:425] lstm2_gate_input_1 <- W_xc_x_1
I0720 14:25:50.226696 18938 net.cpp:399] lstm2_gate_input_1 -> gate_input_1
I0720 14:25:50.226758 18938 net.cpp:141] Setting up lstm2_gate_input_1
I0720 14:25:50.226781 18938 net.cpp:148] Top shape: 1 1 4000 (4000)
I0720 14:25:50.226788 18938 net.cpp:156] Memory required for data: 82020
I0720 14:25:50.226794 18938 layer_factory.hpp:77] Creating layer lstm2_unit_1
I0720 14:25:50.226806 18938 net.cpp:91] Creating Layer lstm2_unit_1
I0720 14:25:50.226811 18938 net.cpp:425] lstm2_unit_1 <- c_0
I0720 14:25:50.226819 18938 net.cpp:425] lstm2_unit_1 <- gate_input_1
I0720 14:25:50.226825 18938 net.cpp:425] lstm2_unit_1 <- cont_1_lstm2_cont_slice_0_split_1
I0720 14:25:50.227219 18938 net.cpp:399] lstm2_unit_1 -> c_1
I0720 14:25:50.227247 18938 net.cpp:399] lstm2_unit_1 -> h_1
I0720 14:25:50.227264 18938 net.cpp:141] Setting up lstm2_unit_1
I0720 14:25:50.227272 18938 net.cpp:148] Top shape: 1 1 1000 (1000)
I0720 14:25:50.227278 18938 net.cpp:148] Top shape: 1 1 1000 (1000)
I0720 14:25:50.227283 18938 net.cpp:156] Memory required for data: 90020
I0720 14:25:50.227288 18938 layer_factory.hpp:77] Creating layer lstm2_
I0720 14:25:50.227295 18938 net.cpp:91] Creating Layer lstm2_
I0720 14:25:50.227299 18938 net.cpp:425] lstm2_ <- c_1
I0720 14:25:50.228234 18938 net.cpp:399] lstm2_ -> c_T
I0720 14:25:50.228266 18938 net.cpp:141] Setting up lstm2_
I0720 14:25:50.228279 18938 net.cpp:148] Top shape: 1 1 1000 (1000)
I0720 14:25:50.228287 18938 net.cpp:156] Memory required for data: 94020
I0720 14:25:50.228292 18938 layer_factory.hpp:77] Creating layer lstm2_h_concat
I0720 14:25:50.228303 18938 net.cpp:91] Creating Layer lstm2_h_concat
I0720 14:25:50.228307 18938 net.cpp:425] lstm2_h_concat <- h_1
I0720 14:25:50.228772 18938 net.cpp:399] lstm2_h_concat -> h
I0720 14:25:50.228804 18938 net.cpp:141] Setting up lstm2_h_concat
I0720 14:25:50.228816 18938 net.cpp:148] Top shape: 1 1 1000 (1000)
I0720 14:25:50.228821 18938 net.cpp:156] Memory required for data: 98020
I0720 14:25:50.228826 18938 layer_factory.hpp:77] Creating layer h_pseudoloss
I0720 14:25:50.228837 18938 net.cpp:91] Creating Layer h_pseudoloss
I0720 14:25:50.228840 18938 net.cpp:425] h_pseudoloss <- h
I0720 14:25:50.228848 18938 net.cpp:399] h_pseudoloss -> h_pseudoloss
I0720 14:25:50.229840 18936 net.cpp:141] Setting up lstm2_transform_1
I0720 14:25:50.229874 18936 net.cpp:148] Top shape: 1 1 4000 (4000)
I0720 14:25:50.229883 18936 net.cpp:156] Memory required for data: 66020
I0720 14:25:50.229903 18936 layer_factory.hpp:77] Creating layer lstm2_gate_input_1
I0720 14:25:50.230453 18938 net.cpp:141] Setting up h_pseudoloss
I0720 14:25:50.230470 18938 net.cpp:148] Top shape: (1)
I0720 14:25:50.230475 18938 net.cpp:151]     with loss weight 1
I0720 14:25:50.230494 18938 net.cpp:156] Memory required for data: 98024
…
I0720 14:25:50.230579 18938 net.cpp:219] lstm2_ does not need backward computation.
I0720 14:25:50.230583 18938 net.cpp:261] This network produces output c_T
I0720 14:25:50.230588 18938 net.cpp:261] This network produces output h_pseudoloss
I0720 14:25:50.230605 18938 net.cpp:274] Network initialization done.
I0720 14:25:50.230660 18938 recurrent_layer.cpp:150] Adding parameter 0: W_xc
I0720 14:25:50.230667 18938 recurrent_layer.cpp:150] Adding parameter 1: b_c
I0720 14:25:50.230671 18938 recurrent_layer.cpp:150] Adding parameter 2: W_hc
I0720 14:25:50.230731 18938 net.cpp:141] Setting up lstm2
I0720 14:25:50.230742 18938 net.cpp:148] Top shape: 1 1 1000 (1000)
I0720 14:25:50.230746 18938 net.cpp:156] Memory required for data: 36412
I0720 14:25:50.230762 18938 layer_factory.hpp:77] Creating layer predict
I0720 14:25:50.230774 18938 net.cpp:91] Creating Layer predict
I0720 14:25:50.230780 18938 net.cpp:425] predict <- lstm2
I0720 14:25:50.230788 18938 net.cpp:399] predict -> predict
I0720 14:25:50.230975 18936 net.cpp:91] Creating Layer lstm2_gate_input_1
I0720 14:25:50.231005 18936 net.cpp:425] lstm2_gate_input_1 <- W_hc_h_0
I0720 14:25:50.231022 18936 net.cpp:425] lstm2_gate_input_1 <- W_xc_x_1
I0720 14:25:50.231041 18936 net.cpp:399] lstm2_gate_input_1 -> gate_input_1
I0720 14:25:50.231070 18936 net.cpp:141] Setting up lstm2_gate_input_1
I0720 14:25:50.231667 18936 net.cpp:148] Top shape: 1 1 4000 (4000)
I0720 14:25:50.231678 18936 net.cpp:156] Memory required for data: 82020
I0720 14:25:50.231691 18936 layer_factory.hpp:77] Creating layer lstm2_unit_1
I0720 14:25:50.231710 18936 net.cpp:91] Creating Layer lstm2_unit_1
I0720 14:25:50.231721 18936 net.cpp:425] lstm2_unit_1 <- c_0
I0720 14:25:50.231735 18936 net.cpp:425] lstm2_unit_1 <- gate_input_1
I0720 14:25:50.231748 18936 net.cpp:425] lstm2_unit_1 <- cont_1_lstm2_cont_slice_0_split_1
I0720 14:25:50.231762 18936 net.cpp:399] lstm2_unit_1 -> c_1
I0720 14:25:50.231781 18936 net.cpp:399] lstm2_unit_1 -> h_1
I0720 14:25:50.231803 18936 net.cpp:141] Setting up lstm2_unit_1
I0720 14:25:50.231817 18936 net.cpp:148] Top shape: 1 1 1000 (1000)
I0720 14:25:50.231829 18936 net.cpp:148] Top shape: 1 1 1000 (1000)
I0720 14:25:50.231837 18936 net.cpp:156] Memory required for data: 90020
I0720 14:25:50.231848 18936 layer_factory.hpp:77] Creating layer lstm2_
I0720 14:25:50.232946 18936 net.cpp:91] Creating Layer lstm2_
I0720 14:25:50.232986 18936 net.cpp:425] lstm2_ <- c_1
I0720 14:25:50.233016 18936 net.cpp:399] lstm2_ -> c_T
I0720 14:25:50.233042 18936 net.cpp:141] Setting up lstm2_
I0720 14:25:50.233059 18936 net.cpp:148] Top shape: 1 1 1000 (1000)
I0720 14:25:50.233069 18936 net.cpp:156] Memory required for data: 94020
I0720 14:25:50.233080 18936 layer_factory.hpp:77] Creating layer lstm2_h_concat
I0720 14:25:50.233100 18936 net.cpp:91] Creating Layer lstm2_h_concat
I0720 14:25:50.233110 18936 net.cpp:425] lstm2_h_concat <- h_1
I0720 14:25:50.233126 18936 net.cpp:399] lstm2_h_concat -> h
I0720 14:25:50.233150 18936 net.cpp:141] Setting up lstm2_h_concat
I0720 14:25:50.233163 18936 net.cpp:148] Top shape: 1 1 1000 (1000)
I0720 14:25:50.233173 18936 net.cpp:156] Memory required for data: 98020
I0720 14:25:50.233182 18936 layer_factory.hpp:77] Creating layer h_pseudoloss
I0720 14:25:50.234238 18936 net.cpp:91] Creating Layer h_pseudoloss
I0720 14:25:50.234275 18936 net.cpp:425] h_pseudoloss <- h
I0720 14:25:50.234313 18936 net.cpp:399] h_pseudoloss -> h_pseudoloss
I0720 14:25:50.234304 18920 net.cpp:141] Setting up lstm2_transform_1
I0720 14:25:50.234359 18920 net.cpp:148] Top shape: 1 1 4000 (4000)
I0720 14:25:50.234369 18920 net.cpp:156] Memory required for data: 66020
I0720 14:25:50.234395 18920 layer_factory.hpp:77] Creating layer lstm2_gate_input_1
I0720 14:25:50.234417 18920 net.cpp:91] Creating Layer lstm2_gate_input_1
I0720 14:25:50.234427 18920 net.cpp:425] lstm2_gate_input_1 <- W_hc_h_0
I0720 14:25:50.234441 18920 net.cpp:425] lstm2_gate_input_1 <- W_xc_x_1
I0720 14:25:50.235038 18936 net.cpp:141] Setting up h_pseudoloss
I0720 14:25:50.235064 18936 net.cpp:148] Top shape: (1)
I0720 14:25:50.235065 18920 net.cpp:399] lstm2_gate_input_1 -> gate_input_1
I0720 14:25:50.235075 18936 net.cpp:151]     with loss weight 1
I0720 14:25:50.235110 18920 net.cpp:141] Setting up lstm2_gate_input_1
I0720 14:25:50.235110 18936 net.cpp:156] Memory required for data: 98024
I0720 14:25:50.235132 18920 net.cpp:148] Top shape: 1 1 4000 (4000)
I0720 14:25:50.235138 18936 net.cpp:217] h_pseudoloss needs backward computation.
I0720 14:25:50.235142 18920 net.cpp:156] Memory required for data: 82020
I0720 14:25:50.235158 18936 net.cpp:217] lstm2_h_concat needs backward computation.
I0720 14:25:50.235165 18920 layer_factory.hpp:77] Creating layer lstm2_unit_1
I0720 14:25:50.235172 18936 net.cpp:219] lstm2_ does not need backward computation.
…
I0720 14:25:50.235282 18936 net.cpp:219] cont_1_lstm2_cont_slice_0_split does not need backward computation.
I0720 14:25:50.235308 18936 net.cpp:219] lstm2_cont_slice does not need backward computation.
I0720 14:25:50.235324 18936 net.cpp:219] lstm2_ does not need backward computation.
I0720 14:25:50.235337 18936 net.cpp:219] lstm2_ does not need backward computation.
I0720 14:25:50.235347 18936 net.cpp:261] This network produces output c_T
I0720 14:25:50.235359 18936 net.cpp:261] This network produces output h_pseudoloss
I0720 14:25:50.235414 18920 net.cpp:141] Setting up lstm2_unit_1
I0720 14:25:50.235445 18920 net.cpp:148] Top shape: 1 1 1000 (1000)
I0720 14:25:50.235452 18920 net.cpp:148] Top shape: 1 1 1000 (1000)
I0720 14:25:50.235456 18920 net.cpp:156] Memory required for data: 90020
I0720 14:25:50.235462 18920 layer_factory.hpp:77] Creating layer lstm2_
I0720 14:25:50.235473 18920 net.cpp:91] Creating Layer lstm2_
I0720 14:25:50.235479 18920 net.cpp:425] lstm2_ <- c_1
I0720 14:25:50.235951 18920 net.cpp:399] lstm2_ -> c_T
I0720 14:25:50.235980 18920 net.cpp:141] Setting up lstm2_
I0720 14:25:50.235997 18920 net.cpp:148] Top shape: 1 1 1000 (1000)
I0720 14:25:50.236006 18920 net.cpp:156] Memory required for data: 94020
I0720 14:25:50.236013 18920 layer_factory.hpp:77] Creating layer lstm2_h_concat
I0720 14:25:50.235931 18936 net.cpp:274] Network initialization done.
I0720 14:25:50.236026 18920 net.cpp:91] Creating Layer lstm2_h_concat
I0720 14:25:50.236048 18920 net.cpp:425] lstm2_h_concat <- h_1
I0720 14:25:50.236127 18936 recurrent_layer.cpp:150] Adding parameter 0: W_xc
I0720 14:25:50.236142 18936 recurrent_layer.cpp:150] Adding parameter 1: b_c
I0720 14:25:50.236151 18936 recurrent_layer.cpp:150] Adding parameter 2: W_hc
I0720 14:25:50.236238 18936 net.cpp:141] Setting up lstm2
I0720 14:25:50.236255 18936 net.cpp:148] Top shape: 1 1 1000 (1000)
I0720 14:25:50.236264 18936 net.cpp:156] Memory required for data: 36412
I0720 14:25:50.236294 18936 layer_factory.hpp:77] Creating layer predict
I0720 14:25:50.236320 18936 net.cpp:91] Creating Layer predict
I0720 14:25:50.236332 18936 net.cpp:425] predict <- lstm2
I0720 14:25:50.236351 18936 net.cpp:399] predict -> predict
I0720 14:25:50.236495 18920 net.cpp:399] lstm2_h_concat -> h
I0720 14:25:50.236520 18920 net.cpp:141] Setting up lstm2_h_concat
I0720 14:25:50.236527 18920 net.cpp:148] Top shape: 1 1 1000 (1000)
I0720 14:25:50.236531 18920 net.cpp:156] Memory required for data: 98020
I0720 14:25:50.236537 18920 layer_factory.hpp:77] Creating layer h_pseudoloss
I0720 14:25:50.236547 18920 net.cpp:91] Creating Layer h_pseudoloss
I0720 14:25:50.236552 18920 net.cpp:425] h_pseudoloss <- h
I0720 14:25:50.236559 18920 net.cpp:399] h_pseudoloss -> h_pseudoloss
I0720 14:25:50.237269 18920 net.cpp:141] Setting up h_pseudoloss
…
I0720 14:25:50.272600 18934 net.cpp:219] lstm2_ does not need backward computation.
I0720 14:25:50.272606 18934 net.cpp:261] This network produces output c_T
I0720 14:25:50.272615 18934 net.cpp:261] This network produces output h_pseudoloss
I0720 14:25:50.275766 18934 net.cpp:274] Network initialization done.
I0720 14:25:50.275892 18934 recurrent_layer.cpp:150] Adding parameter 0: W_xc
I0720 14:25:50.275904 18934 recurrent_layer.cpp:150] Adding parameter 1: b_c
I0720 14:25:50.275913 18934 recurrent_layer.cpp:150] Adding parameter 2: W_hc
I0720 14:25:50.275995 18934 net.cpp:141] Setting up lstm2
I0720 14:25:50.276013 18934 net.cpp:148] Top shape: 1 1 1000 (1000)
I0720 14:25:50.276021 18934 net.cpp:156] Memory required for data: 36412
I0720 14:25:50.276047 18934 layer_factory.hpp:77] Creating layer predict
I0720 14:25:50.276072 18934 net.cpp:91] Creating Layer predict
I0720 14:25:50.276082 18934 net.cpp:425] predict <- lstm2
I0720 14:25:50.276096 18934 net.cpp:399] predict -> predict
I0720 14:25:50.290725 18928 net.cpp:141] Setting up lstm2_x_transform
I0720 14:25:50.292423 18928 net.cpp:148] Top shape: 1 1 4000 (4000)
I0720 14:25:50.292439 18928 net.cpp:156] Memory required for data: 30020
I0720 14:25:50.292475 18928 layer_factory.hpp:77] Creating layer lstm2_W_xc_x_slice
I0720 14:25:50.292502 18928 net.cpp:91] Creating Layer lstm2_W_xc_x_slice
I0720 14:25:50.292516 18928 net.cpp:425] lstm2_W_xc_x_slice <- W_xc_x
I0720 14:25:50.292533 18928 net.cpp:399] lstm2_W_xc_x_slice -> W_xc_x_1
I0720 14:25:50.293644 18928 net.cpp:141] Setting up lstm2_W_xc_x_slice
I0720 14:25:50.293687 18928 net.cpp:148] Top shape: 1 1 4000 (4000)
I0720 14:25:50.293699 18928 net.cpp:156] Memory required for data: 46020
I0720 14:25:50.293711 18928 layer_factory.hpp:77] Creating layer lstm2_h_conted_0
I0720 14:25:50.293732 18928 net.cpp:91] Creating Layer lstm2_h_conted_0
I0720 14:25:50.293745 18928 net.cpp:425] lstm2_h_conted_0 <- h_0
I0720 14:25:50.293759 18928 net.cpp:425] lstm2_h_conted_0 <- cont_1_lstm2_cont_slice_0_split_0
I0720 14:25:50.293776 18928 net.cpp:399] lstm2_h_conted_0 -> h_conted_0
I0720 14:25:50.295737 18928 net.cpp:141] Setting up lstm2_h_conted_0
I0720 14:25:50.295783 18928 net.cpp:148] Top shape: 1 1 1000 (1000)
I0720 14:25:50.295794 18928 net.cpp:156] Memory required for data: 50020
I0720 14:25:50.295807 18928 layer_factory.hpp:77] Creating layer lstm2_transform_1
I0720 14:25:50.295833 18928 net.cpp:91] Creating Layer lstm2_transform_1
I0720 14:25:50.295845 18928 net.cpp:425] lstm2_transform_1 <- h_conted_0
I0720 14:25:50.297926 18928 net.cpp:399] lstm2_transform_1 -> W_hc_h_0
I0720 14:25:50.361121 18928 net.cpp:141] Setting up lstm2_transform_1
I0720 14:25:50.361171 18928 net.cpp:148] Top shape: 1 1 4000 (4000)
I0720 14:25:50.361176 18928 net.cpp:156] Memory required for data: 66020
I0720 14:25:50.361194 18928 layer_factory.hpp:77] Creating layer lstm2_gate_input_1
I0720 14:25:50.361213 18928 net.cpp:91] Creating Layer lstm2_gate_input_1
I0720 14:25:50.361220 18928 net.cpp:425] lstm2_gate_input_1 <- W_hc_h_0
I0720 14:25:50.361228 18928 net.cpp:425] lstm2_gate_input_1 <- W_xc_x_1
I0720 14:25:50.361238 18928 net.cpp:399] lstm2_gate_input_1 -> gate_input_1
I0720 14:25:50.361253 18928 net.cpp:141] Setting up lstm2_gate_input_1
I0720 14:25:50.361260 18928 net.cpp:148] Top shape: 1 1 4000 (4000)
I0720 14:25:50.361264 18928 net.cpp:156] Memory required for data: 82020
I0720 14:25:50.361268 18928 layer_factory.hpp:77] Creating layer lstm2_unit_1
I0720 14:25:50.361925 18928 net.cpp:91] Creating Layer lstm2_unit_1
I0720 14:25:50.361944 18928 net.cpp:425] lstm2_unit_1 <- c_0
I0720 14:25:50.361953 18928 net.cpp:425] lstm2_unit_1 <- gate_input_1
I0720 14:25:50.361958 18928 net.cpp:425] lstm2_unit_1 <- cont_1_lstm2_cont_slice_0_split_1
I0720 14:25:50.361968 18928 net.cpp:399] lstm2_unit_1 -> c_1
I0720 14:25:50.361979 18928 net.cpp:399] lstm2_unit_1 -> h_1
I0720 14:25:50.361990 18928 net.cpp:141] Setting up lstm2_unit_1
I0720 14:25:50.362004 18928 net.cpp:148] Top shape: 1 1 1000 (1000)
I0720 14:25:50.362010 18928 net.cpp:148] Top shape: 1 1 1000 (1000)
I0720 14:25:50.362015 18928 net.cpp:156] Memory required for data: 90020
I0720 14:25:50.362018 18928 layer_factory.hpp:77] Creating layer lstm2_
I0720 14:25:50.362026 18928 net.cpp:91] Creating Layer lstm2_
I0720 14:25:50.362031 18928 net.cpp:425] lstm2_ <- c_1
I0720 14:25:50.362037 18928 net.cpp:399] lstm2_ -> c_T
I0720 14:25:50.362046 18928 net.cpp:141] Setting up lstm2_
I0720 14:25:50.362053 18928 net.cpp:148] Top shape: 1 1 1000 (1000)
I0720 14:25:50.362057 18928 net.cpp:156] Memory required for data: 94020
I0720 14:25:50.362061 18928 layer_factory.hpp:77] Creating layer lstm2_h_concat
I0720 14:25:50.362954 18928 net.cpp:91] Creating Layer lstm2_h_concat
I0720 14:25:50.362972 18928 net.cpp:425] lstm2_h_concat <- h_1
I0720 14:25:50.362983 18928 net.cpp:399] lstm2_h_concat -> h
I0720 14:25:50.363000 18928 net.cpp:141] Setting up lstm2_h_concat
I0720 14:25:50.363009 18928 net.cpp:148] Top shape: 1 1 1000 (1000)
I0720 14:25:50.363013 18928 net.cpp:156] Memory required for data: 98020
I0720 14:25:50.363018 18928 layer_factory.hpp:77] Creating layer h_pseudoloss
I0720 14:25:50.363495 18928 net.cpp:91] Creating Layer h_pseudoloss
I0720 14:25:50.363512 18928 net.cpp:425] h_pseudoloss <- h
I0720 14:25:50.363526 18928 net.cpp:399] h_pseudoloss -> h_pseudoloss
I0720 14:25:50.365075 18928 net.cpp:141] Setting up h_pseudoloss
…
I0720 14:25:50.366461 18928 net.cpp:219] lstm2_ does not need backward computation.
I0720 14:25:50.366466 18928 net.cpp:261] This network produces output c_T
I0720 14:25:50.366471 18928 net.cpp:261] This network produces output h_pseudoloss
I0720 14:25:50.366489 18928 net.cpp:274] Network initialization done.
I0720 14:25:50.366551 18928 recurrent_layer.cpp:150] Adding parameter 0: W_xc
I0720 14:25:50.366559 18928 recurrent_layer.cpp:150] Adding parameter 1: b_c
I0720 14:25:50.366564 18928 recurrent_layer.cpp:150] Adding parameter 2: W_hc
I0720 14:25:50.366612 18928 net.cpp:141] Setting up lstm2
I0720 14:25:50.366622 18928 net.cpp:148] Top shape: 1 1 1000 (1000)
I0720 14:25:50.366627 18928 net.cpp:156] Memory required for data: 36412
I0720 14:25:50.366642 18928 layer_factory.hpp:77] Creating layer predict
I0720 14:25:50.366657 18928 net.cpp:91] Creating Layer predict
I0720 14:25:50.366664 18928 net.cpp:425] predict <- lstm2
I0720 14:25:50.366672 18928 net.cpp:399] predict -> predict
I0720 14:25:50.527362 18932 net.cpp:141] Setting up conv1
I0720 14:25:50.527411 18932 net.cpp:148] Top shape: 10 96 55 55 (2904000)
I0720 14:25:50.527421 18932 net.cpp:156] Memory required for data: 17799480
I0720 14:25:50.527451 18932 layer_factory.hpp:77] Creating layer relu1
I0720 14:25:50.527474 18932 net.cpp:91] Creating Layer relu1
I0720 14:25:50.527484 18932 net.cpp:425] relu1 <- conv1
I0720 14:25:50.527501 18932 net.cpp:386] relu1 -> conv1 (in-place)
I0720 14:25:50.528556 18932 net.cpp:141] Setting up relu1
I0720 14:25:50.528579 18932 net.cpp:148] Top shape: 10 96 55 55 (2904000)
I0720 14:25:50.528590 18932 net.cpp:156] Memory required for data: 29415480
I0720 14:25:50.528600 18932 layer_factory.hpp:77] Creating layer pool1
I0720 14:25:50.528620 18932 net.cpp:91] Creating Layer pool1
I0720 14:25:50.528631 18932 net.cpp:425] pool1 <- conv1
I0720 14:25:50.528651 18932 net.cpp:399] pool1 -> pool1
I0720 14:25:50.528776 18932 net.cpp:141] Setting up pool1
I0720 14:25:50.528796 18932 net.cpp:148] Top shape: 10 96 27 27 (699840)
I0720 14:25:50.528805 18932 net.cpp:156] Memory required for data: 32214840
I0720 14:25:50.528815 18932 layer_factory.hpp:77] Creating layer norm1
I0720 14:25:50.528848 18932 net.cpp:91] Creating Layer norm1
I0720 14:25:50.528861 18932 net.cpp:425] norm1 <- pool1
I0720 14:25:50.528874 18932 net.cpp:399] norm1 -> norm1
I0720 14:25:50.529932 18932 net.cpp:141] Setting up norm1
I0720 14:25:50.529953 18932 net.cpp:148] Top shape: 10 96 27 27 (699840)
I0720 14:25:50.529963 18932 net.cpp:156] Memory required for data: 35014200
I0720 14:25:50.529973 18932 layer_factory.hpp:77] Creating layer conv2
I0720 14:25:50.529999 18932 net.cpp:91] Creating Layer conv2
I0720 14:25:50.530010 18932 net.cpp:425] conv2 <- norm1
I0720 14:25:50.530031 18932 net.cpp:399] conv2 -> conv2
I0720 14:25:50.537607 18932 net.cpp:141] Setting up conv2
I0720 14:25:50.537660 18932 net.cpp:148] Top shape: 10 256 27 27 (1866240)
I0720 14:25:50.537672 18932 net.cpp:156] Memory required for data: 42479160
I0720 14:25:50.537708 18932 layer_factory.hpp:77] Creating layer relu2
I0720 14:25:50.537760 18932 net.cpp:91] Creating Layer relu2
I0720 14:25:50.537775 18932 net.cpp:425] relu2 <- conv2
I0720 14:25:50.537794 18932 net.cpp:386] relu2 -> conv2 (in-place)
I0720 14:25:50.539826 18932 net.cpp:141] Setting up relu2
I0720 14:25:50.539852 18932 net.cpp:148] Top shape: 10 256 27 27 (1866240)
I0720 14:25:50.539863 18932 net.cpp:156] Memory required for data: 49944120
I0720 14:25:50.539893 18932 layer_factory.hpp:77] Creating layer pool2
I0720 14:25:50.539918 18932 net.cpp:91] Creating Layer pool2
I0720 14:25:50.539930 18932 net.cpp:425] pool2 <- conv2
I0720 14:25:50.539945 18932 net.cpp:399] pool2 -> pool2
I0720 14:25:50.540055 18932 net.cpp:141] Setting up pool2
I0720 14:25:50.540071 18932 net.cpp:148] Top shape: 10 256 13 13 (432640)
I0720 14:25:50.540078 18932 net.cpp:156] Memory required for data: 51674680
I0720 14:25:50.540086 18932 layer_factory.hpp:77] Creating layer norm2
I0720 14:25:50.540104 18932 net.cpp:91] Creating Layer norm2
I0720 14:25:50.540114 18932 net.cpp:425] norm2 <- pool2
I0720 14:25:50.540132 18932 net.cpp:399] norm2 -> norm2
I0720 14:25:50.540555 18932 net.cpp:141] Setting up norm2
I0720 14:25:50.540575 18932 net.cpp:148] Top shape: 10 256 13 13 (432640)
I0720 14:25:50.540583 18932 net.cpp:156] Memory required for data: 53405240
I0720 14:25:50.540592 18932 layer_factory.hpp:77] Creating layer conv3
I0720 14:25:50.540612 18932 net.cpp:91] Creating Layer conv3
I0720 14:25:50.540622 18932 net.cpp:425] conv3 <- norm2
I0720 14:25:50.540643 18932 net.cpp:399] conv3 -> conv3
I0720 14:25:50.549758 18932 net.cpp:141] Setting up conv3
I0720 14:25:50.549804 18932 net.cpp:148] Top shape: 10 384 13 13 (648960)
I0720 14:25:50.549814 18932 net.cpp:156] Memory required for data: 56001080
I0720 14:25:50.549851 18932 layer_factory.hpp:77] Creating layer relu3
I0720 14:25:50.549875 18932 net.cpp:91] Creating Layer relu3
I0720 14:25:50.549886 18932 net.cpp:425] relu3 <- conv3
I0720 14:25:50.549903 18932 net.cpp:386] relu3 -> conv3 (in-place)
I0720 14:25:50.551084 18932 net.cpp:141] Setting up relu3
I0720 14:25:50.551105 18932 net.cpp:148] Top shape: 10 384 13 13 (648960)
I0720 14:25:50.551115 18932 net.cpp:156] Memory required for data: 58596920
I0720 14:25:50.551143 18932 layer_factory.hpp:77] Creating layer conv4
I0720 14:25:50.551173 18932 net.cpp:91] Creating Layer conv4
I0720 14:25:50.551183 18932 net.cpp:425] conv4 <- conv3
I0720 14:25:50.551198 18932 net.cpp:399] conv4 -> conv4
I0720 14:25:50.569906 18946 net.cpp:141] Setting up predict
I0720 14:25:50.569960 18946 net.cpp:148] Top shape: 1 1 46168 (46168)
I0720 14:25:50.569973 18946 net.cpp:156] Memory required for data: 221084
I0720 14:25:50.569994 18946 layer_factory.hpp:77] Creating layer probs
I0720 14:25:50.570019 18946 net.cpp:91] Creating Layer probs
I0720 14:25:50.570031 18946 net.cpp:425] probs <- predict
I0720 14:25:50.570049 18946 net.cpp:399] probs -> probs
I0720 14:25:50.574717 18932 net.cpp:141] Setting up conv4
I0720 14:25:50.574762 18932 net.cpp:148] Top shape: 10 384 13 13 (648960)
I0720 14:25:50.574774 18932 net.cpp:156] Memory required for data: 61192760
I0720 14:25:50.574792 18932 layer_factory.hpp:77] Creating layer relu4
I0720 14:25:50.574811 18932 net.cpp:91] Creating Layer relu4
I0720 14:25:50.574822 18932 net.cpp:425] relu4 <- conv4
I0720 14:25:50.574839 18932 net.cpp:386] relu4 -> conv4 (in-place)
I0720 14:25:50.576105 18932 net.cpp:141] Setting up relu4
I0720 14:25:50.576128 18932 net.cpp:148] Top shape: 10 384 13 13 (648960)
I0720 14:25:50.576136 18932 net.cpp:156] Memory required for data: 63788600
I0720 14:25:50.576145 18932 layer_factory.hpp:77] Creating layer conv5
I0720 14:25:50.576169 18932 net.cpp:91] Creating Layer conv5
I0720 14:25:50.576179 18932 net.cpp:425] conv5 <- conv4
I0720 14:25:50.576192 18932 net.cpp:399] conv5 -> conv5
I0720 14:25:50.585382 18946 net.cpp:141] Setting up probs
I0720 14:25:50.585438 18946 net.cpp:148] Top shape: 1 1 46168 (46168)
I0720 14:25:50.585451 18946 net.cpp:156] Memory required for data: 405756
I0720 14:25:50.585464 18946 net.cpp:219] probs does not need backward computation.
I0720 14:25:50.585475 18946 net.cpp:219] predict does not need backward computation.
I0720 14:25:50.585485 18946 net.cpp:219] lstm2 does not need backward computation.
I0720 14:25:50.585496 18946 net.cpp:219] concat does not need backward computation.
I0720 14:25:50.585505 18946 net.cpp:219] lstm1 does not need backward computation.
I0720 14:25:50.585516 18946 net.cpp:219] embedding does not need backward computation.
I0720 14:25:50.585526 18946 net.cpp:219] reshape_stage_indicator does not need backward computation.
I0720 14:25:50.585536 18946 net.cpp:219] reshape_frames does not need backward computation.
I0720 14:25:50.585546 18946 net.cpp:219] embed_encoder does not need backward computation.
I0720 14:25:50.585556 18946 net.cpp:219] cont_sentence_input_1_split does not need backward computation.
I0720 14:25:50.585566 18946 net.cpp:219] input does not need backward computation.
I0720 14:25:50.585573 18946 net.cpp:261] This network produces output probs
I0720 14:25:50.585605 18946 net.cpp:274] Network initialization done.
I0720 14:25:50.586977 18932 net.cpp:141] Setting up conv5
I0720 14:25:50.587002 18932 net.cpp:148] Top shape: 10 256 13 13 (432640)
I0720 14:25:50.587012 18932 net.cpp:156] Memory required for data: 65519160
I0720 14:25:50.587038 18932 layer_factory.hpp:77] Creating layer relu5
I0720 14:25:50.587056 18932 net.cpp:91] Creating Layer relu5
I0720 14:25:50.587065 18932 net.cpp:425] relu5 <- conv5
I0720 14:25:50.587087 18932 net.cpp:386] relu5 -> conv5 (in-place)
I0720 14:25:50.587442 18932 net.cpp:141] Setting up relu5
I0720 14:25:50.587461 18932 net.cpp:148] Top shape: 10 256 13 13 (432640)
I0720 14:25:50.587471 18932 net.cpp:156] Memory required for data: 67249720
I0720 14:25:50.587478 18932 layer_factory.hpp:77] Creating layer pool5
I0720 14:25:50.587519 18932 net.cpp:91] Creating Layer pool5
I0720 14:25:50.587528 18932 net.cpp:425] pool5 <- conv5
I0720 14:25:50.587540 18932 net.cpp:399] pool5 -> pool5
I0720 14:25:50.587648 18932 net.cpp:141] Setting up pool5
I0720 14:25:50.587664 18932 net.cpp:148] Top shape: 10 256 6 6 (92160)
I0720 14:25:50.587673 18932 net.cpp:156] Memory required for data: 67618360
I0720 14:25:50.587682 18932 layer_factory.hpp:77] Creating layer fc6
I0720 14:25:50.587713 18932 net.cpp:91] Creating Layer fc6
I0720 14:25:50.587724 18932 net.cpp:425] fc6 <- pool5
I0720 14:25:50.587736 18932 net.cpp:399] fc6 -> fc6
I0720 14:25:50.678742 18952 net.cpp:141] Setting up predict
I0720 14:25:50.678809 18952 net.cpp:148] Top shape: 1 1 46168 (46168)
I0720 14:25:50.678817 18952 net.cpp:156] Memory required for data: 221084
I0720 14:25:50.678834 18952 layer_factory.hpp:77] Creating layer probs
I0720 14:25:50.678855 18952 net.cpp:91] Creating Layer probs
I0720 14:25:50.678864 18952 net.cpp:425] probs <- predict
I0720 14:25:50.678875 18952 net.cpp:399] probs -> probs
I0720 14:25:50.680950 18952 net.cpp:141] Setting up probs
I0720 14:25:50.680977 18952 net.cpp:148] Top shape: 1 1 46168 (46168)
I0720 14:25:50.680985 18952 net.cpp:156] Memory required for data: 405756
I0720 14:25:50.680991 18952 net.cpp:219] probs does not need backward computation.
I0720 14:25:50.680999 18952 net.cpp:219] predict does not need backward computation.
I0720 14:25:50.681004 18952 net.cpp:219] lstm2 does not need backward computation.
I0720 14:25:50.681010 18952 net.cpp:219] concat does not need backward computation.
I0720 14:25:50.681015 18952 net.cpp:219] lstm1 does not need backward computation.
I0720 14:25:50.681021 18952 net.cpp:219] embedding does not need backward computation.
I0720 14:25:50.681026 18952 net.cpp:219] reshape_stage_indicator does not need backward computation.
I0720 14:25:50.681031 18952 net.cpp:219] reshape_frames does not need backward computation.
I0720 14:25:50.681036 18952 net.cpp:219] embed_encoder does not need backward computation.
I0720 14:25:50.681041 18952 net.cpp:219] cont_sentence_input_1_split does not need backward computation.
I0720 14:25:50.681046 18952 net.cpp:219] input does not need backward computation.
I0720 14:25:50.681051 18952 net.cpp:261] This network produces output probs
I0720 14:25:50.681607 18952 net.cpp:274] Network initialization done.
I0720 14:25:50.683683 18924 net.cpp:141] Setting up predict
I0720 14:25:50.683715 18924 net.cpp:148] Top shape: 1 1 46168 (46168)
I0720 14:25:50.683722 18924 net.cpp:156] Memory required for data: 221084
I0720 14:25:50.683735 18924 layer_factory.hpp:77] Creating layer probs
I0720 14:25:50.683753 18924 net.cpp:91] Creating Layer probs
I0720 14:25:50.683759 18924 net.cpp:425] probs <- predict
I0720 14:25:50.683770 18924 net.cpp:399] probs -> probs
I0720 14:25:50.684700 18924 net.cpp:141] Setting up probs
I0720 14:25:50.684721 18924 net.cpp:148] Top shape: 1 1 46168 (46168)
I0720 14:25:50.684726 18924 net.cpp:156] Memory required for data: 405756
I0720 14:25:50.684733 18924 net.cpp:219] probs does not need backward computation.
I0720 14:25:50.684738 18924 net.cpp:219] predict does not need backward computation.
I0720 14:25:50.684744 18924 net.cpp:219] lstm2 does not need backward computation.
I0720 14:25:50.684749 18924 net.cpp:219] concat does not need backward computation.
I0720 14:25:50.684756 18924 net.cpp:219] lstm1 does not need backward computation.
I0720 14:25:50.684762 18924 net.cpp:219] embedding does not need backward computation.
I0720 14:25:50.684767 18924 net.cpp:219] reshape_stage_indicator does not need backward computation.
I0720 14:25:50.684774 18924 net.cpp:219] reshape_frames does not need backward computation.
I0720 14:25:50.684779 18924 net.cpp:219] embed_encoder does not need backward computation.
I0720 14:25:50.684784 18924 net.cpp:219] cont_sentence_input_1_split does not need backward computation.
I0720 14:25:50.684790 18924 net.cpp:219] input does not need backward computation.
I0720 14:25:50.684794 18924 net.cpp:261] This network produces output probs
I0720 14:25:50.684809 18924 net.cpp:274] Network initialization done.
I0720 14:25:50.696051 18948 net.cpp:141] Setting up predict
I0720 14:25:50.696104 18948 net.cpp:148] Top shape: 1 1 46168 (46168)
I0720 14:25:50.696110 18948 net.cpp:156] Memory required for data: 221084
I0720 14:25:50.696125 18948 layer_factory.hpp:77] Creating layer probs
I0720 14:25:50.696143 18948 net.cpp:91] Creating Layer probs
I0720 14:25:50.696151 18948 net.cpp:425] probs <- predict
I0720 14:25:50.696162 18948 net.cpp:399] probs -> probs
I0720 14:25:50.699056 18948 net.cpp:141] Setting up probs
I0720 14:25:50.699106 18948 net.cpp:148] Top shape: 1 1 46168 (46168)
I0720 14:25:50.699113 18948 net.cpp:156] Memory required for data: 405756
I0720 14:25:50.699123 18948 net.cpp:219] probs does not need backward computation.
I0720 14:25:50.699131 18948 net.cpp:219] predict does not need backward computation.
I0720 14:25:50.699136 18948 net.cpp:219] lstm2 does not need backward computation.
I0720 14:25:50.699142 18948 net.cpp:219] concat does not need backward computation.
I0720 14:25:50.699149 18948 net.cpp:219] lstm1 does not need backward computation.
I0720 14:25:50.699156 18948 net.cpp:219] embedding does not need backward computation.
I0720 14:25:50.699162 18948 net.cpp:219] reshape_stage_indicator does not need backward computation.
I0720 14:25:50.699167 18948 net.cpp:219] reshape_frames does not need backward computation.
I0720 14:25:50.699172 18948 net.cpp:219] embed_encoder does not need backward computation.
I0720 14:25:50.699177 18948 net.cpp:219] cont_sentence_input_1_split does not need backward computation.
I0720 14:25:50.699182 18948 net.cpp:219] input does not need backward computation.
I0720 14:25:50.699187 18948 net.cpp:261] This network produces output probs
I0720 14:25:50.699611 18948 net.cpp:274] Network initialization done.
I0720 14:25:50.707396 18932 net.cpp:141] Setting up fc6
I0720 14:25:50.707448 18932 net.cpp:148] Top shape: 10 4096 (40960)
I0720 14:25:50.707458 18932 net.cpp:156] Memory required for data: 67782200
I0720 14:25:50.707478 18932 layer_factory.hpp:77] Creating layer relu6
I0720 14:25:50.707497 18932 net.cpp:91] Creating Layer relu6
I0720 14:25:50.707506 18932 net.cpp:425] relu6 <- fc6
I0720 14:25:50.707864 18932 net.cpp:386] relu6 -> fc6 (in-place)
I0720 14:25:50.708775 18932 net.cpp:141] Setting up relu6
I0720 14:25:50.708807 18932 net.cpp:148] Top shape: 10 4096 (40960)
I0720 14:25:50.708817 18932 net.cpp:156] Memory required for data: 67946040
I0720 14:25:50.708827 18932 layer_factory.hpp:77] Creating layer drop6
I0720 14:25:50.708845 18932 net.cpp:91] Creating Layer drop6
I0720 14:25:50.708853 18932 net.cpp:425] drop6 <- fc6
I0720 14:25:50.708865 18932 net.cpp:386] drop6 -> fc6 (in-place)
I0720 14:25:50.709249 18932 net.cpp:141] Setting up drop6
I0720 14:25:50.709265 18932 net.cpp:148] Top shape: 10 4096 (40960)
I0720 14:25:50.709272 18932 net.cpp:156] Memory required for data: 68109880
I0720 14:25:50.709280 18932 layer_factory.hpp:77] Creating layer fc7
I0720 14:25:50.709295 18932 net.cpp:91] Creating Layer fc7
I0720 14:25:50.709301 18932 net.cpp:425] fc7 <- fc6
I0720 14:25:50.709318 18932 net.cpp:399] fc7 -> fc7
I0720 14:25:50.745610 18936 net.cpp:141] Setting up predict
I0720 14:25:50.745674 18936 net.cpp:148] Top shape: 1 1 46168 (46168)
I0720 14:25:50.745681 18936 net.cpp:156] Memory required for data: 221084
I0720 14:25:50.745698 18936 layer_factory.hpp:77] Creating layer probs
I0720 14:25:50.745719 18936 net.cpp:91] Creating Layer probs
I0720 14:25:50.745728 18936 net.cpp:425] probs <- predict
I0720 14:25:50.745739 18936 net.cpp:399] probs -> probs
I0720 14:25:50.754619 18936 net.cpp:141] Setting up probs
I0720 14:25:50.754703 18936 net.cpp:148] Top shape: 1 1 46168 (46168)
I0720 14:25:50.754710 18936 net.cpp:156] Memory required for data: 405756
I0720 14:25:50.754722 18936 net.cpp:219] probs does not need backward computation.
I0720 14:25:50.754731 18936 net.cpp:219] predict does not need backward computation.
I0720 14:25:50.754737 18936 net.cpp:219] lstm2 does not need backward computation.
I0720 14:25:50.754743 18936 net.cpp:219] concat does not need backward computation.
I0720 14:25:50.754750 18936 net.cpp:219] lstm1 does not need backward computation.
I0720 14:25:50.754755 18936 net.cpp:219] embedding does not need backward computation.
I0720 14:25:50.754760 18936 net.cpp:219] reshape_stage_indicator does not need backward computation.
I0720 14:25:50.754765 18936 net.cpp:219] reshape_frames does not need backward computation.
I0720 14:25:50.754770 18936 net.cpp:219] embed_encoder does not need backward computation.
I0720 14:25:50.754776 18936 net.cpp:219] cont_sentence_input_1_split does not need backward computation.
I0720 14:25:50.754781 18936 net.cpp:219] input does not need backward computation.
I0720 14:25:50.754786 18936 net.cpp:261] This network produces output probs
I0720 14:25:50.755172 18936 net.cpp:274] Network initialization done.
I0720 14:25:50.755875 18938 net.cpp:141] Setting up predict
I0720 14:25:50.755924 18938 net.cpp:148] Top shape: 1 1 46168 (46168)
I0720 14:25:50.755930 18938 net.cpp:156] Memory required for data: 221084
I0720 14:25:50.755946 18938 layer_factory.hpp:77] Creating layer probs
I0720 14:25:50.755962 18938 net.cpp:91] Creating Layer probs
I0720 14:25:50.755970 18938 net.cpp:425] probs <- predict
I0720 14:25:50.755980 18938 net.cpp:399] probs -> probs
I0720 14:25:50.759230 18938 net.cpp:141] Setting up probs
I0720 14:25:50.759286 18938 net.cpp:148] Top shape: 1 1 46168 (46168)
I0720 14:25:50.759294 18938 net.cpp:156] Memory required for data: 405756
I0720 14:25:50.759304 18938 net.cpp:219] probs does not need backward computation.
I0720 14:25:50.759311 18938 net.cpp:219] predict does not need backward computation.
I0720 14:25:50.759317 18938 net.cpp:219] lstm2 does not need backward computation.
I0720 14:25:50.759323 18938 net.cpp:219] concat does not need backward computation.
I0720 14:25:50.759330 18938 net.cpp:219] lstm1 does not need backward computation.
I0720 14:25:50.759336 18938 net.cpp:219] embedding does not need backward computation.
I0720 14:25:50.759341 18938 net.cpp:219] reshape_stage_indicator does not need backward computation.
I0720 14:25:50.759347 18938 net.cpp:219] reshape_frames does not need backward computation.
I0720 14:25:50.759352 18938 net.cpp:219] embed_encoder does not need backward computation.
I0720 14:25:50.759357 18938 net.cpp:219] cont_sentence_input_1_split does not need backward computation.
I0720 14:25:50.759363 18938 net.cpp:219] input does not need backward computation.
I0720 14:25:50.759367 18938 net.cpp:261] This network produces output probs
I0720 14:25:50.759385 18938 net.cpp:274] Network initialization done.
I0720 14:25:50.771864 18932 net.cpp:141] Setting up fc7
I0720 14:25:50.771917 18932 net.cpp:148] Top shape: 10 4096 (40960)
I0720 14:25:50.771925 18932 net.cpp:156] Memory required for data: 68273720
I0720 14:25:50.771946 18932 layer_factory.hpp:77] Creating layer relu7
I0720 14:25:50.771998 18932 net.cpp:91] Creating Layer relu7
I0720 14:25:50.772009 18932 net.cpp:425] relu7 <- fc7
I0720 14:25:50.772032 18932 net.cpp:386] relu7 -> fc7 (in-place)
I0720 14:25:50.772733 18932 net.cpp:141] Setting up relu7
I0720 14:25:50.772769 18932 net.cpp:148] Top shape: 10 4096 (40960)
I0720 14:25:50.772778 18932 net.cpp:156] Memory required for data: 68437560
I0720 14:25:50.772788 18932 layer_factory.hpp:77] Creating layer drop7
I0720 14:25:50.772805 18932 net.cpp:91] Creating Layer drop7
I0720 14:25:50.772814 18932 net.cpp:425] drop7 <- fc7
I0720 14:25:50.772825 18932 net.cpp:386] drop7 -> fc7 (in-place)
I0720 14:25:50.772909 18932 net.cpp:141] Setting up drop7
I0720 14:25:50.772922 18932 net.cpp:148] Top shape: 10 4096 (40960)
I0720 14:25:50.772929 18932 net.cpp:156] Memory required for data: 68601400
I0720 14:25:50.772938 18932 layer_factory.hpp:77] Creating layer fc8
I0720 14:25:50.772953 18932 net.cpp:91] Creating Layer fc8
I0720 14:25:50.772964 18932 net.cpp:425] fc8 <- fc7
I0720 14:25:50.773002 18932 net.cpp:399] fc8 -> fc8
I0720 14:25:50.791474 18932 net.cpp:141] Setting up fc8
I0720 14:25:50.791522 18932 net.cpp:148] Top shape: 10 1000 (10000)
I0720 14:25:50.791530 18932 net.cpp:156] Memory required for data: 68641400
I0720 14:25:50.791550 18932 layer_factory.hpp:77] Creating layer prob
I0720 14:25:50.791570 18932 net.cpp:91] Creating Layer prob
I0720 14:25:50.791579 18932 net.cpp:425] prob <- fc8
I0720 14:25:50.791613 18932 net.cpp:399] prob -> prob
I0720 14:25:50.795953 18932 net.cpp:141] Setting up prob
I0720 14:25:50.796000 18932 net.cpp:148] Top shape: 10 1000 (10000)
I0720 14:25:50.796008 18932 net.cpp:156] Memory required for data: 68681400
I0720 14:25:50.796020 18932 net.cpp:219] prob does not need backward computation.
I0720 14:25:50.796030 18932 net.cpp:219] fc8 does not need backward computation.
I0720 14:25:50.796038 18932 net.cpp:219] drop7 does not need backward computation.
I0720 14:25:50.796046 18932 net.cpp:219] relu7 does not need backward computation.
…
I0720 14:25:50.796157 18932 net.cpp:219] norm1 does not need backward computation.
I0720 14:25:50.796164 18932 net.cpp:219] pool1 does not need backward computation.
I0720 14:25:50.796171 18932 net.cpp:219] relu1 does not need backward computation.
I0720 14:25:50.796178 18932 net.cpp:219] conv1 does not need backward computation.
I0720 14:25:50.796185 18932 net.cpp:219] data does not need backward computation.
I0720 14:25:50.796191 18932 net.cpp:261] This network produces output prob
I0720 14:25:50.796486 18932 net.cpp:274] Network initialization done.
I0720 14:25:50.840247 18934 net.cpp:141] Setting up predict
I0720 14:25:50.840309 18934 net.cpp:148] Top shape: 1 1 46168 (46168)
I0720 14:25:50.840322 18934 net.cpp:156] Memory required for data: 221084
I0720 14:25:50.840351 18934 layer_factory.hpp:77] Creating layer probs
I0720 14:25:50.840378 18934 net.cpp:91] Creating Layer probs
I0720 14:25:50.840394 18934 net.cpp:425] probs <- predict
I0720 14:25:50.840414 18934 net.cpp:399] probs -> probs
I0720 14:25:50.841847 18934 net.cpp:141] Setting up probs
I0720 14:25:50.841894 18934 net.cpp:148] Top shape: 1 1 46168 (46168)
I0720 14:25:50.841905 18934 net.cpp:156] Memory required for data: 405756
I0720 14:25:50.841917 18934 net.cpp:219] probs does not need backward computation.
I0720 14:25:50.841928 18934 net.cpp:219] predict does not need backward computation.
I0720 14:25:50.841936 18934 net.cpp:219] lstm2 does not need backward computation.
I0720 14:25:50.841946 18934 net.cpp:219] concat does not need backward computation.
I0720 14:25:50.841956 18934 net.cpp:219] lstm1 does not need backward computation.
I0720 14:25:50.841966 18934 net.cpp:219] embedding does not need backward computation.
I0720 14:25:50.841975 18934 net.cpp:219] reshape_stage_indicator does not need backward computation.
I0720 14:25:50.841984 18934 net.cpp:219] reshape_frames does not need backward computation.
I0720 14:25:50.841994 18934 net.cpp:219] embed_encoder does not need backward computation.
I0720 14:25:50.842001 18934 net.cpp:219] cont_sentence_input_1_split does not need backward computation.
I0720 14:25:50.842011 18934 net.cpp:219] input does not need backward computation.
I0720 14:25:50.842018 18934 net.cpp:261] This network produces output probs
I0720 14:25:50.842042 18934 net.cpp:274] Network initialization done.
I0720 14:25:50.853828 18926 net.cpp:141] Setting up predict
I0720 14:25:50.853879 18926 net.cpp:148] Top shape: 1 1 46168 (46168)
I0720 14:25:50.853885 18926 net.cpp:156] Memory required for data: 221084
I0720 14:25:50.853901 18926 layer_factory.hpp:77] Creating layer probs
I0720 14:25:50.853919 18926 net.cpp:91] Creating Layer probs
I0720 14:25:50.853927 18926 net.cpp:425] probs <- predict
I0720 14:25:50.853938 18926 net.cpp:399] probs -> probs
I0720 14:25:50.857422 18926 net.cpp:141] Setting up probs
I0720 14:25:50.857476 18926 net.cpp:148] Top shape: 1 1 46168 (46168)
I0720 14:25:50.857486 18926 net.cpp:156] Memory required for data: 405756
I0720 14:25:50.857499 18926 net.cpp:219] probs does not need backward computation.
I0720 14:25:50.857511 18926 net.cpp:219] predict does not need backward computation.
I0720 14:25:50.857518 18926 net.cpp:219] lstm2 does not need backward computation.
I0720 14:25:50.857527 18926 net.cpp:219] concat does not need backward computation.
I0720 14:25:50.857538 18926 net.cpp:219] lstm1 does not need backward computation.
I0720 14:25:50.857550 18926 net.cpp:219] embedding does not need backward computation.
I0720 14:25:50.857558 18926 net.cpp:219] reshape_stage_indicator does not need backward computation.
I0720 14:25:50.857566 18926 net.cpp:219] reshape_frames does not need backward computation.
I0720 14:25:50.857574 18926 net.cpp:219] embed_encoder does not need backward computation.
I0720 14:25:50.857583 18926 net.cpp:219] cont_sentence_input_1_split does not need backward computation.
I0720 14:25:50.857591 18926 net.cpp:219] input does not need backward computation.
I0720 14:25:50.857599 18926 net.cpp:261] This network produces output probs
I0720 14:25:50.858177 18926 net.cpp:274] Network initialization done.
I0720 14:25:50.859669 18920 net.cpp:141] Setting up predict
I0720 14:25:50.859722 18920 net.cpp:148] Top shape: 1 1 46168 (46168)
I0720 14:25:50.859729 18920 net.cpp:156] Memory required for data: 221084
I0720 14:25:50.859745 18920 layer_factory.hpp:77] Creating layer probs
I0720 14:25:50.859766 18920 net.cpp:91] Creating Layer probs
I0720 14:25:50.859773 18920 net.cpp:425] probs <- predict
I0720 14:25:50.859786 18920 net.cpp:399] probs -> probs
I0720 14:25:50.861492 18920 net.cpp:141] Setting up probs
I0720 14:25:50.861541 18920 net.cpp:148] Top shape: 1 1 46168 (46168)
I0720 14:25:50.861547 18920 net.cpp:156] Memory required for data: 405756
I0720 14:25:50.861557 18920 net.cpp:219] probs does not need backward computation.
I0720 14:25:50.861564 18920 net.cpp:219] predict does not need backward computation.
I0720 14:25:50.861570 18920 net.cpp:219] lstm2 does not need backward computation.
I0720 14:25:50.861577 18920 net.cpp:219] concat does not need backward computation.
I0720 14:25:50.861583 18920 net.cpp:219] lstm1 does not need backward computation.
I0720 14:25:50.861589 18920 net.cpp:219] embedding does not need backward computation.
I0720 14:25:50.861594 18920 net.cpp:219] reshape_stage_indicator does not need backward computation.
I0720 14:25:50.861600 18920 net.cpp:219] reshape_frames does not need backward computation.
I0720 14:25:50.861605 18920 net.cpp:219] embed_encoder does not need backward computation.
I0720 14:25:50.861610 18920 net.cpp:219] cont_sentence_input_1_split does not need backward computation.
I0720 14:25:50.861616 18920 net.cpp:219] input does not need backward computation.
I0720 14:25:50.861619 18920 net.cpp:261] This network produces output probs
I0720 14:25:50.861640 18920 net.cpp:274] Network initialization done.
I0720 14:25:50.871800 18928 net.cpp:141] Setting up predict
I0720 14:25:50.871865 18928 net.cpp:148] Top shape: 1 1 46168 (46168)
I0720 14:25:50.871878 18928 net.cpp:156] Memory required for data: 221084
I0720 14:25:50.871903 18928 layer_factory.hpp:77] Creating layer probs
I0720 14:25:50.871928 18928 net.cpp:91] Creating Layer probs
I0720 14:25:50.871943 18928 net.cpp:425] probs <- predict
I0720 14:25:50.871961 18928 net.cpp:399] probs -> probs
I0720 14:25:50.876132 18928 net.cpp:141] Setting up probs
I0720 14:25:50.876184 18928 net.cpp:148] Top shape: 1 1 46168 (46168)
I0720 14:25:50.876194 18928 net.cpp:156] Memory required for data: 405756
I0720 14:25:50.876206 18928 net.cpp:219] probs does not need backward computation.
I0720 14:25:50.876216 18928 net.cpp:219] predict does not need backward computation.
I0720 14:25:50.876226 18928 net.cpp:219] lstm2 does not need backward computation.
I0720 14:25:50.876235 18928 net.cpp:219] concat does not need backward computation.
…
