…
W0925 23:33:10.286679  6893 upgrade_proto.cpp:71] Note that future Caffe releases will only support input layers and not input fields.
I0925 23:33:10.286954  6889 net.cpp:49] Initializing net from parameters: 
name: "s2vt:features_to_lstm"
state {
  phase: TEST
}
layer {
  name: "input"
  type: "Input"
  top: "frames_fc7"
  top: "cont_sentence"
  top: "input_sentence"
  top: "stage_indicator"
  input_param {
    shape {
      dim: 1
      dim: 4096
    }
    shape {
      dim: 1
      dim: 1
    }
    shape {
      dim: 1
      dim: 1
    }
    shape {
      dim: 1
      dim: 1
    }
  }
}
layer {
  name: "embed_encoder"
  type: "InnerProduct"
  bottom: "frames_fc7"
  top: "embedded_in_frames"
  param {
    lr_mult: 1
    decay_mult: 1
  }
  param {
    lr_mult: 2
    decay_mult: 0
  }
  inner_product_param {
    num_output: 500
    weight_filler {
      type: "xavier"
    }
    bias_filler {
      type: "constant"
      value: 0.2
    }
  }
}
layer {
  name: "reshape_frames"
  type: "Reshape"
  bottom: "embedded_in_frames"
  top: "embedded_input_frames"
  reshape_param {
    shape {
      dim: 1
      dim: 1
      dim: 500
    }
  }
}
layer {
  name: "reshape_stage_indicator"
  type: "Reshape"
  bottom: "stage_indicator"
  top: "reshaped_stage_indicator"
  reshape_param {
    shape {
      dim: 1
      dim: 1
      dim: 1
    }
  }
}
layer {
  name: "embedding"
  type: "Embed"
  bottom: "input_sentence"
  top: "embedded_input_sentence"
  param {
    lr_mult: 1
  }
  embed_param {
    num_output: 500
    input_dim: 46168
    bias_term: false
    weight_filler {
      type: "uniform"
      min: -0.08
      max: 0.08
    }
  }
}
layer {
  name: "lstm1"
  type: "LSTM"
  bottom: "embedded_input_frames"
  bottom: "cont_sentence"
  top: "lstm1"
  recurrent_param {
    num_output: 1000
    weight_filler {
      type: "uniform"
      min: -0.08
      max: 0.08
    }
    bias_filler {
      type: "constant"
      value: 0
    }
  }
}
layer {
  name: "concat"
  type: "Concat"
  bottom: "lstm1"
  bottom: "embedded_input_sentence"
  bottom: "reshaped_stage_indicator"
  top: "lstm1_video_sequence"
  concat_param {
    concat_dim: 2
  }
}
layer {
  name: "lstm2"
  type: "LSTM"
  bottom: "lstm1_video_sequence"
  bottom: "cont_sentence"
  top: "lstm2"
  recurrent_param {
    num_output: 1000
    weight_filler {
      type: "uniform"
      min: -0.08
      max: 0.08
    }
    bias_filler {
      type: "constant"
      value: 0
    }
  }
}
layer {
  name: "predict"
  type: "InnerProduct"
  bottom: "lstm2"
  top: "predict"
  param {
    lr_mult: 1
    decay_mult: 1
  }
  param {
    lr_mult: 2
    decay_mult: 0
  }
  inner_product_param {
    num_output: 46168
    weight_filler {
      type: "uniform"
      min: -0.08
      max: 0.08
    }
    bias_filler {
      type: "constant"
      value: 0
    }
    axis: 2
  }
}
layer {
  name: "probs"
  type: "Softmax"
  bottom: "predict"
  top: "probs"
  softmax_param {
    axis: 2
  }
}
I0925 23:33:10.286968  6950 net.cpp:49] Initializing net from parameters: 
name: "s2vt:features_to_lstm"
state {
  phase: TEST
}
layer {
  name: "input"
  type: "Input"
  top: "frames_fc7"
  top: "cont_sentence"
  top: "input_sentence"
  top: "stage_indicator"
  input_param {
    shape {
      dim: 1
      dim: 4096
    }
    shape {
      dim: 1
      dim: 1
    }
    shape {
      dim: 1
      dim: 1
    }
    shape {
      dim: 1
      dim: 1
    }
  }
}
layer {
  name: "embed_encoder"
  type: "InnerProduct"
  bottom: "frames_fc7"
  top: "embedded_in_frames"
  param {
    lr_mult: 1
    decay_mult: 1
  }
  param {
    lr_mult: 2
    decay_mult: 0
  }
  inner_product_param {
    num_output: 500
    weight_filler {
      type: "xavier"
    }
    bias_filler {
      type: "constant"
      value: 0.2
    }
  }
}
layer {
  name: "reshape_frames"
  type: "Reshape"
  bottom: "embedded_in_frames"
  top: "embedded_input_frames"
  reshape_param {
    shape {
      dim: 1
      dim: 1
      dim: 500
    }
  }
}
layer {
  name: "reshape_stage_indicator"
  type: "Reshape"
  bottom: "stage_indicator"
  top: "reshaped_stage_indicator"
  reshape_param {
    shape {
      dim: 1
      dim: 1
      dim: 1
    }
  }
}
layer {
  name: "embedding"
  type: "Embed"
  bottom: "input_sentence"
  top: "embedded_input_sentence"
  param {
    lr_mult: 1
  }
  embed_param {
    num_output: 500
    input_dim: 46168
    bias_term: false
    weight_filler {
      type: "uniform"
      min: -0.08
      max: 0.08
    }
  }
}
layer {
  name: "lstm1"
  type: "LSTM"
  bottom: "embedded_input_frames"
  bottom: "cont_sentence"
  top: "lstm1"
  recurrent_param {
    num_output: 1000
    weight_filler {
      type: "uniform"
      min: -0.08
      max: 0.08
    }
    bias_filler {
      type: "constant"
      value: 0
    }
  }
}
layer {
  name: "concat"
  type: "Concat"
  bottom: "lstm1"
  bottom: "embedded_input_sentence"
  bottom: "reshaped_stage_indicator"
  top: "lstm1_video_sequence"
  concat_param {
    concat_dim: 2
  }
}
layer {
  name: "lstm2"
  type: "LSTM"
  bottom: "lstm1_video_sequence"
  bottom: "cont_sentence"
  top: "lstm2"
  recurrent_param {
    num_output: 1000
    weight_filler {
      type: "uniform"
      min: -0.08
      max: 0.08
    }
    bias_filler {
      type: "constant"
      value: 0
    }
  }
}
layer {
  name: "predict"
  type: "InnerProduct"
  bottom: "lstm2"
  top: "predict"
  param {
    lr_mult: 1
    decay_mult: 1
  }
  param {
    lr_mult: 2
    decay_mult: 0
  }
  inner_product_param {
    num_output: 46168
    weight_filler {
      type: "uniform"
      min: -0.08
      max: 0.08
    }
    bias_filler {
      type: "constant"
      value: 0
    }
    axis: 2
  }
}
layer {
  name: "probs"
  type: "Softmax"
  bottom: "predict"
  top: "probs"
  softmax_param {
    axis: 2
  }
}
I0925 23:33:10.286999  6917 net.cpp:49] Initializing net from parameters: 
name: "s2vt:features_to_lstm"
state {
  phase: TEST
}
layer {
  name: "input"
  type: "Input"
  top: "frames_fc7"
  top: "cont_sentence"
  top: "input_sentence"
  top: "stage_indicator"
  input_param {
    shape {
      dim: 1
      dim: 4096
    }
    shape {
      dim: 1
      dim: 1
    }
    shape {
      dim: 1
      dim: 1
    }
    shape {
      dim: 1
      dim: 1
    }
  }
}
layer {
  name: "embed_encoder"
  type: "InnerProduct"
  bottom: "frames_fc7"
  top: "embedded_in_frames"
  param {
    lr_mult: 1
    decay_mult: 1
  }
  param {
    lr_mult: 2
    decay_mult: 0
  }
  inner_product_param {
    num_output: 500
    weight_filler {
      type: "xavier"
    }
    bias_filler {
      type: "constant"
      value: 0.2
    }
  }
}
layer {
  name: "reshape_frames"
  type: "Reshape"
  bottom: "embedded_in_frames"
  top: "embedded_input_frames"
  reshape_param {
    shape {
      dim: 1
      dim: 1
      dim: 500
    }
  }
}
layer {
  name: "reshape_stage_indicator"
  type: "Reshape"
  bottom: "stage_indicator"
  top: "reshaped_stage_indicator"
  reshape_param {
    shape {
      dim: 1
      dim: 1
      dim: 1
    }
  }
}
layer {
  name: "embedding"
  type: "Embed"
  bottom: "input_sentence"
  top: "embedded_input_sentence"
  param {
    lr_mult: 1
  }
  embed_param {
    num_output: 500
    input_dim: 46168
    bias_term: false
    weight_filler {
      type: "uniform"
      min: -0.08
      max: 0.08
    }
  }
}
layer {
  name: "lstm1"
  type: "LSTM"
  bottom: "embedded_input_frames"
  bottom: "cont_sentence"
  top: "lstm1"
  recurrent_param {
    num_output: 1000
    weight_filler {
      type: "uniform"
      min: -0.08
      max: 0.08
    }
    bias_filler {
      type: "constant"
      value: 0
    }
  }
}
layer {
  name: "concat"
  type: "Concat"
  bottom: "lstm1"
  bottom: "embedded_input_sentence"
  bottom: "reshaped_stage_indicator"
  top: "lstm1_video_sequence"
  concat_param {
    concat_dim: 2
  }
}
layer {
  name: "lstm2"
  type: "LSTM"
  bottom: "lstm1_video_sequence"
  bottom: "cont_sentence"
  top: "lstm2"
  recurrent_param {
    num_output: 1000
    weight_filler {
      type: "uniform"
      min: -0.08
      max: 0.08
    }
    bias_filler {
      type: "constant"
      value: 0
    }
  }
}
layer {
  name: "predict"
  type: "InnerProduct"
  bottom: "lstm2"
  top: "predict"
  param {
    lr_mult: 1
    decay_mult: 1
  }
  param {
    lr_mult: 2
    decay_mult: 0
  }
  inner_product_param {
    num_output: 46168
    weight_filler {
      type: "uniform"
      min: -0.08
      max: 0.08
    }
    bias_filler {
      type: "constant"
      value: 0
    }
    axis: 2
  }
}
layer {
  name: "probs"
  type: "Softmax"
  bottom: "predict"
  top: "probs"
  softmax_param {
    axis: 2
  }
}
I0925 23:33:10.287037  6923 net.cpp:49] Initializing net from parameters: 
name: "s2vt:features_to_lstm"
state {
  phase: TEST
}
layer {
  name: "input"
  type: "Input"
  top: "frames_fc7"
  top: "cont_sentence"
  top: "input_sentence"
  top: "stage_indicator"
  input_param {
    shape {
      dim: 1
      dim: 4096
    }
    shape {
      dim: 1
      dim: 1
    }
    shape {
      dim: 1
      dim: 1
    }
    shape {
      dim: 1
      dim: 1
    }
  }
}
layer {
  name: "embed_encoder"
  type: "InnerProduct"
  bottom: "frames_fc7"
  top: "embedded_in_frames"
  param {
    lr_mult: 1
    decay_mult: 1
  }
  param {
    lr_mult: 2
    decay_mult: 0
  }
  inner_product_param {
    num_output: 500
    weight_filler {
      type: "xavier"
    }
    bias_filler {
      type: "constant"
      value: 0.2
    }
  }
}
layer {
  name: "reshape_frames"
  type: "Reshape"
  bottom: "embedded_in_frames"
  top: "embedded_input_frames"
  reshape_param {
    shape {
      dim: 1
      dim: 1
      dim: 500
    }
  }
}
layer {
  name: "reshape_stage_indicator"
  type: "Reshape"
  bottom: "stage_indicator"
  top: "reshaped_stage_indicator"
  reshape_param {
    shape {
      dim: 1
      dim: 1
      dim: 1
    }
  }
}
layer {
  name: "embedding"
  type: "Embed"
  bottom: "input_sentence"
  top: "embedded_input_sentence"
  param {
    lr_mult: 1
  }
  embed_param {
    num_output: 500
    input_dim: 46168
    bias_term: false
    weight_filler {
      type: "uniform"
      min: -0.08
      max: 0.08
    }
  }
}
layer {
  name: "lstm1"
  type: "LSTM"
  bottom: "embedded_input_frames"
  bottom: "cont_sentence"
  top: "lstm1"
  recurrent_param {
    num_output: 1000
    weight_filler {
      type: "uniform"
      min: -0.08
      max: 0.08
    }
    bias_filler {
      type: "constant"
      value: 0
    }
  }
}
layer {
  name: "concat"
  type: "Concat"
  bottom: "lstm1"
  bottom: "embedded_input_sentence"
  bottom: "reshaped_stage_indicator"
  top: "lstm1_video_sequence"
  concat_param {
    concat_dim: 2
  }
}
layer {
  name: "lstm2"
  type: "LSTM"
  bottom: "lstm1_video_sequence"
  bottom: "cont_sentence"
  top: "lstm2"
  recurrent_param {
    num_output: 1000
    weight_filler {
      type: "uniform"
      min: -0.08
      max: 0.08
    }
    bias_filler {
      type: "constant"
      value: 0
    }
  }
}
layer {
  name: "predict"
  type: "InnerProduct"
  bottom: "lstm2"
  top: "predict"
  param {
    lr_mult: 1
    decay_mult: 1
  }
  param {
    lr_mult: 2
    decay_mult: 0
  }
  inner_product_param {
    num_output: 46168
    weight_filler {
      type: "uniform"
      min: -0.08
      max: 0.08
    }
    bias_filler {
      type: "constant"
      value: 0
    }
    axis: 2
  }
}
layer {
  name: "probs"
  type: "Softmax"
  bottom: "predict"
  top: "probs"
  softmax_param {
    axis: 2
  }
}
I0925 23:33:10.287060  6893 net.cpp:49] Initializing net from parameters: 
name: "s2vt:features_to_lstm"
state {
  phase: TEST
}
layer {
  name: "input"
  type: "Input"
  top: "frames_fc7"
  top: "cont_sentence"
  top: "input_sentence"
  top: "stage_indicator"
  input_param {
    shape {
      dim: 1
      dim: 4096
    }
    shape {
      dim: 1
      dim: 1
    }
    shape {
      dim: 1
      dim: 1
    }
    shape {
      dim: 1
      dim: 1
    }
  }
}
layer {
  name: "embed_encoder"
  type: "InnerProduct"
  bottom: "frames_fc7"
  top: "embedded_in_frames"
  param {
    lr_mult: 1
    decay_mult: 1
  }
  param {
    lr_mult: 2
    decay_mult: 0
  }
  inner_product_param {
    num_output: 500
    weight_filler {
      type: "xavier"
    }
    bias_filler {
      type: "constant"
      value: 0.2
    }
  }
}
layer {
  name: "reshape_frames"
  type: "Reshape"
  bottom: "embedded_in_frames"
  top: "embedded_input_frames"
  reshape_param {
    shape {
      dim: 1
      dim: 1
      dim: 500
    }
  }
}
layer {
  name: "reshape_stage_indicator"
  type: "Reshape"
  bottom: "stage_indicator"
  top: "reshaped_stage_indicator"
  reshape_param {
    shape {
      dim: 1
      dim: 1
      dim: 1
    }
  }
}
layer {
  name: "embedding"
  type: "Embed"
  bottom: "input_sentence"
  top: "embedded_input_sentence"
  param {
    lr_mult: 1
  }
  embed_param {
    num_output: 500
    input_dim: 46168
    bias_term: false
    weight_filler {
      type: "uniform"
      min: -0.08
      max: 0.08
    }
  }
}
layer {
  name: "lstm1"
  type: "LSTM"
  bottom: "embedded_input_frames"
  bottom: "cont_sentence"
  top: "lstm1"
  recurrent_param {
    num_output: 1000
    weight_filler {
      type: "uniform"
      min: -0.08
      max: 0.08
    }
    bias_filler {
      type: "constant"
      value: 0
    }
  }
}
layer {
  name: "concat"
  type: "Concat"
  bottom: "lstm1"
  bottom: "embedded_input_sentence"
  bottom: "reshaped_stage_indicator"
  top: "lstm1_video_sequence"
  concat_param {
    concat_dim: 2
  }
}
layer {
  name: "lstm2"
  type: "LSTM"
  bottom: "lstm1_video_sequence"
  bottom: "cont_sentence"
  top: "lstm2"
  recurrent_param {
    num_output: 1000
    weight_filler {
      type: "uniform"
      min: -0.08
      max: 0.08
    }
    bias_filler {
      type: "constant"
      value: 0
    }
  }
}
layer {
  name: "predict"
  type: "InnerProduct"
  bottom: "lstm2"
  top: "predict"
  param {
    lr_mult: 1
    decay_mult: 1
  }
  param {
    lr_mult: 2
    decay_mult: 0
  }
  inner_product_param {
    num_output: 46168
    weight_filler {
      type: "uniform"
      min: -0.08
      max: 0.08
    }
    bias_filler {
      type: "constant"
      value: 0
    }
    axis: 2
  }
}
layer {
  name: "probs"
  type: "Softmax"
  bottom: "predict"
  top: "probs"
  softmax_param {
    axis: 2
  }
}
I0925 23:33:10.287065  6911 net.cpp:49] Initializing net from parameters: 
name: "s2vt:features_to_lstm"
state {
  phase: TEST
}
layer {
  name: "input"
  type: "Input"
  top: "frames_fc7"
  top: "cont_sentence"
  top: "input_sentence"
  top: "stage_indicator"
  input_param {
    shape {
      dim: 1
      dim: 4096
    }
    shape {
      dim: 1
      dim: 1
    }
    shape {
      dim: 1
      dim: 1
    }
    shape {
      dim: 1
      dim: 1
    }
  }
}
layer {
  name: "embed_encoder"
  type: "InnerProduct"
  bottom: "frames_fc7"
  top: "embedded_in_frames"
  param {
    lr_mult: 1
    decay_mult: 1
  }
  param {
    lr_mult: 2
    decay_mult: 0
  }
  inner_product_param {
    num_output: 500
    weight_filler {
      type: "xavier"
    }
    bias_filler {
      type: "constant"
      value: 0.2
    }
  }
}
layer {
  name: "reshape_frames"
  type: "Reshape"
  bottom: "embedded_in_frames"
  top: "embedded_input_frames"
  reshape_param {
    shape {
      dim: 1
      dim: 1
      dim: 500
    }
  }
}
layer {
  name: "reshape_stage_indicator"
  type: "Reshape"
  bottom: "stage_indicator"
  top: "reshaped_stage_indicator"
  reshape_param {
    shape {
      dim: 1
      dim: 1
      dim: 1
    }
  }
}
layer {
  name: "embedding"
  type: "Embed"
  bottom: "input_sentence"
  top: "embedded_input_sentence"
  param {
    lr_mult: 1
  }
  embed_param {
    num_output: 500
    input_dim: 46168
    bias_term: false
    weight_filler {
      type: "uniform"
      min: -0.08
      max: 0.08
    }
  }
}
layer {
  name: "lstm1"
  type: "LSTM"
  bottom: "embedded_input_frames"
  bottom: "cont_sentence"
  top: "lstm1"
  recurrent_param {
    num_output: 1000
    weight_filler {
      type: "uniform"
      min: -0.08
      max: 0.08
    }
    bias_filler {
      type: "constant"
      value: 0
    }
  }
}
layer {
  name: "concat"
  type: "Concat"
  bottom: "lstm1"
  bottom: "embedded_input_sentence"
  bottom: "reshaped_stage_indicator"
  top: "lstm1_video_sequence"
  concat_param {
    concat_dim: 2
  }
}
layer {
  name: "lstm2"
  type: "LSTM"
  bottom: "lstm1_video_sequence"
  bottom: "cont_sentence"
  top: "lstm2"
  recurrent_param {
    num_output: 1000
    weight_filler {
      type: "uniform"
      min: -0.08
      max: 0.08
    }
    bias_filler {
      type: "constant"
      value: 0
    }
  }
}
layer {
  name: "predict"
  type: "InnerProduct"
  bottom: "lstm2"
  top: "predict"
  param {
    lr_mult: 1
    decay_mult: 1
  }
  param {
    lr_mult: 2
    decay_mult: 0
  }
  inner_product_param {
    num_output: 46168
    weight_filler {
      type: "uniform"
      min: -0.08
      max: 0.08
    }
    bias_filler {
      type: "constant"
      value: 0
    }
    axis: 2
  }
}
layer {
  name: "probs"
  type: "Softmax"
  bottom: "predict"
  top: "probs"
  softmax_param {
    axis: 2
  }
}
I0925 23:33:10.287042  6901 net.cpp:49] Initializing net from parameters: 
name: "s2vt:features_to_lstm"
state {
  phase: TEST
}
layer {
  name: "input"
  type: "Input"
  top: "frames_fc7"
  top: "cont_sentence"
  top: "input_sentence"
  top: "stage_indicator"
  input_param {
    shape {
      dim: 1
      dim: 4096
    }
    shape {
      dim: 1
      dim: 1
    }
    shape {
      dim: 1
      dim: 1
    }
    shape {
      dim: 1
      dim: 1
    }
  }
}
layer {
  name: "embed_encoder"
  type: "InnerProduct"
  bottom: "frames_fc7"
  top: "embedded_in_frames"
  param {
    lr_mult: 1
    decay_mult: 1
  }
  param {
    lr_mult: 2
    decay_mult: 0
  }
  inner_product_param {
    num_output: 500
    weight_filler {
      type: "xavier"
    }
    bias_filler {
      type: "constant"
      value: 0.2
    }
  }
}
layer {
  name: "reshape_frames"
  type: "Reshape"
  bottom: "embedded_in_frames"
  top: "embedded_input_frames"
  reshape_param {
    shape {
      dim: 1
      dim: 1
      dim: 500
    }
  }
}
layer {
  name: "reshape_stage_indicator"
  type: "Reshape"
  bottom: "stage_indicator"
  top: "reshaped_stage_indicator"
  reshape_param {
    shape {
      dim: 1
      dim: 1
      dim: 1
    }
  }
}
layer {
  name: "embedding"
  type: "Embed"
  bottom: "input_sentence"
  top: "embedded_input_sentence"
  param {
    lr_mult: 1
  }
  embed_param {
    num_output: 500
    input_dim: 46168
    bias_term: false
    weight_filler {
      type: "uniform"
      min: -0.08
      max: 0.08
    }
  }
}
layer {
  name: "lstm1"
  type: "LSTM"
  bottom: "embedded_input_frames"
  bottom: "cont_sentence"
  top: "lstm1"
  recurrent_param {
    num_output: 1000
    weight_filler {
      type: "uniform"
      min: -0.08
      max: 0.08
    }
    bias_filler {
      type: "constant"
      value: 0
    }
  }
}
layer {
  name: "concat"
  type: "Concat"
  bottom: "lstm1"
  bottom: "embedded_input_sentence"
  bottom: "reshaped_stage_indicator"
  top: "lstm1_video_sequence"
  concat_param {
    concat_dim: 2
  }
}
layer {
  name: "lstm2"
  type: "LSTM"
  bottom: "lstm1_video_sequence"
  bottom: "cont_sentence"
  top: "lstm2"
  recurrent_param {
    num_output: 1000
    weight_filler {
      type: "uniform"
      min: -0.08
      max: 0.08
    }
    bias_filler {
      type: "constant"
      value: 0
    }
  }
}
layer {
  name: "predict"
  type: "InnerProduct"
  bottom: "lstm2"
  top: "predict"
  param {
    lr_mult: 1
    decay_mult: 1
  }
  param {
    lr_mult: 2
    decay_mult: 0
  }
  inner_product_param {
    num_output: 46168
    weight_filler {
      type: "uniform"
      min: -0.08
      max: 0.08
    }
    bias_filler {
      type: "constant"
      value: 0
    }
    axis: 2
  }
}
layer {
  name: "probs"
  type: "Softmax"
  bottom: "predict"
  top: "probs"
  softmax_param {
    axis: 2
  }
}
I0925 23:33:10.287104  6946 net.cpp:49] Initializing net from parameters: 
name: "s2vt:features_to_lstm"
state {
  phase: TEST
}
layer {
  name: "input"
  type: "Input"
  top: "frames_fc7"
  top: "cont_sentence"
  top: "input_sentence"
  top: "stage_indicator"
  input_param {
    shape {
      dim: 1
      dim: 4096
    }
    shape {
      dim: 1
      dim: 1
    }
    shape {
      dim: 1
      dim: 1
    }
    shape {
      dim: 1
      dim: 1
    }
  }
}
layer {
  name: "embed_encoder"
  type: "InnerProduct"
  bottom: "frames_fc7"
  top: "embedded_in_frames"
  param {
    lr_mult: 1
    decay_mult: 1
  }
  param {
    lr_mult: 2
    decay_mult: 0
  }
  inner_product_param {
    num_output: 500
    weight_filler {
      type: "xavier"
    }
    bias_filler {
      type: "constant"
      value: 0.2
    }
  }
}
layer {
  name: "reshape_frames"
  type: "Reshape"
  bottom: "embedded_in_frames"
  top: "embedded_input_frames"
  reshape_param {
    shape {
      dim: 1
      dim: 1
      dim: 500
    }
  }
}
layer {
  name: "reshape_stage_indicator"
  type: "Reshape"
  bottom: "stage_indicator"
  top: "reshaped_stage_indicator"
  reshape_param {
    shape {
      dim: 1
      dim: 1
      dim: 1
    }
  }
}
layer {
  name: "embedding"
  type: "Embed"
  bottom: "input_sentence"
  top: "embedded_input_sentence"
  param {
    lr_mult: 1
  }
  embed_param {
    num_output: 500
    input_dim: 46168
    bias_term: false
    weight_filler {
      type: "uniform"
      min: -0.08
      max: 0.08
    }
  }
}
layer {
  name: "lstm1"
  type: "LSTM"
  bottom: "embedded_input_frames"
  bottom: "cont_sentence"
  top: "lstm1"
  recurrent_param {
    num_output: 1000
    weight_filler {
      type: "uniform"
      min: -0.08
      max: 0.08
    }
    bias_filler {
      type: "constant"
      value: 0
    }
  }
}
layer {
  name: "concat"
  type: "Concat"
  bottom: "lstm1"
  bottom: "embedded_input_sentence"
  bottom: "reshaped_stage_indicator"
  top: "lstm1_video_sequence"
  concat_param {
    concat_dim: 2
  }
}
layer {
  name: "lstm2"
  type: "LSTM"
  bottom: "lstm1_video_sequence"
  bottom: "cont_sentence"
  top: "lstm2"
  recurrent_param {
    num_output: 1000
    weight_filler {
      type: "uniform"
      min: -0.08
      max: 0.08
    }
    bias_filler {
      type: "constant"
      value: 0
    }
  }
}
layer {
  name: "predict"
  type: "InnerProduct"
  bottom: "lstm2"
  top: "predict"
  param {
    lr_mult: 1
    decay_mult: 1
  }
  param {
    lr_mult: 2
    decay_mult: 0
  }
  inner_product_param {
    num_output: 46168
    weight_filler {
      type: "uniform"
      min: -0.08
      max: 0.08
    }
    bias_filler {
      type: "constant"
      value: 0
    }
    axis: 2
  }
}
layer {
  name: "probs"
  type: "Softmax"
  bottom: "predict"
  top: "probs"
  softmax_param {
    axis: 2
  }
}
I0925 23:33:10.287118  6889 layer_factory.hpp:77] Creating layer input
I0925 23:33:10.287142  6917 layer_factory.hpp:77] Creating layer input
I0925 23:33:10.287142  6950 layer_factory.hpp:77] Creating layer input
I0925 23:33:10.287160  6889 net.cpp:91] Creating Layer input
I0925 23:33:10.287165  6917 net.cpp:91] Creating Layer input
I0925 23:33:10.287173  6950 net.cpp:91] Creating Layer input
…
I0925 23:33:10.287442  6946 net.cpp:399] input -> input_sentence
I0925 23:33:10.287463  6946 net.cpp:399] input -> stage_indicator
I0925 23:33:10.287648  6897 net.cpp:49] Initializing net from parameters: 
name: "s2vt:features_to_lstm"
state {
  phase: TEST
}
layer {
  name: "input"
  type: "Input"
  top: "frames_fc7"
  top: "cont_sentence"
  top: "input_sentence"
  top: "stage_indicator"
  input_param {
    shape {
      dim: 1
      dim: 4096
    }
    shape {
      dim: 1
      dim: 1
    }
    shape {
      dim: 1
      dim: 1
    }
    shape {
      dim: 1
      dim: 1
    }
  }
}
layer {
  name: "embed_encoder"
  type: "InnerProduct"
  bottom: "frames_fc7"
  top: "embedded_in_frames"
  param {
    lr_mult: 1
    decay_mult: 1
  }
  param {
    lr_mult: 2
    decay_mult: 0
  }
  inner_product_param {
    num_output: 500
    weight_filler {
      type: "xavier"
    }
    bias_filler {
      type: "constant"
      value: 0.2
    }
  }
}
layer {
  name: "reshape_frames"
  type: "Reshape"
  bottom: "embedded_in_frames"
  top: "embedded_input_frames"
  reshape_param {
    shape {
      dim: 1
      dim: 1
      dim: 500
    }
  }
}
layer {
  name: "reshape_stage_indicator"
  type: "Reshape"
  bottom: "stage_indicator"
  top: "reshaped_stage_indicator"
  reshape_param {
    shape {
      dim: 1
      dim: 1
      dim: 1
    }
  }
}
layer {
  name: "embedding"
  type: "Embed"
  bottom: "input_sentence"
  top: "embedded_input_sentence"
  param {
    lr_mult: 1
  }
  embed_param {
    num_output: 500
    input_dim: 46168
    bias_term: false
    weight_filler {
      type: "uniform"
      min: -0.08
      max: 0.08
    }
  }
}
layer {
  name: "lstm1"
  type: "LSTM"
  bottom: "embedded_input_frames"
  bottom: "cont_sentence"
  top: "lstm1"
  recurrent_param {
    num_output: 1000
    weight_filler {
      type: "uniform"
      min: -0.08
      max: 0.08
    }
    bias_filler {
      type: "constant"
      value: 0
    }
  }
}
layer {
  name: "concat"
  type: "Concat"
  bottom: "lstm1"
  bottom: "embedded_input_sentence"
  bottom: "reshaped_stage_indicator"
  top: "lstm1_video_sequence"
  concat_param {
    concat_dim: 2
  }
}
layer {
  name: "lstm2"
  type: "LSTM"
  bottom: "lstm1_video_sequence"
  bottom: "cont_sentence"
  top: "lstm2"
  recurrent_param {
    num_output: 1000
    weight_filler {
      type: "uniform"
      min: -0.08
      max: 0.08
    }
    bias_filler {
      type: "constant"
      value: 0
    }
  }
}
layer {
  name: "predict"
  type: "InnerProduct"
  bottom: "lstm2"
  top: "predict"
  param {
    lr_mult: 1
    decay_mult: 1
  }
  param {
    lr_mult: 2
    decay_mult: 0
  }
  inner_product_param {
    num_output: 46168
    weight_filler {
      type: "uniform"
      min: -0.08
      max: 0.08
    }
    bias_filler {
      type: "constant"
      value: 0
    }
    axis: 2
  }
}
layer {
  name: "probs"
  type: "Softmax"
  bottom: "predict"
  top: "probs"
  softmax_param {
    axis: 2
  }
}
I0925 23:33:10.287684  6903 net.cpp:49] Initializing net from parameters: 
name: "CaffeNet"
state {
  phase: TEST
}
layer {
  name: "data"
  type: "Input"
  top: "data"
  input_param {
    shape {
      dim: 10
      dim: 3
      dim: 227
      dim: 227
    }
  }
}
layer {
  name: "conv1"
  type: "Convolution"
  bottom: "data"
  top: "conv1"
  convolution_param {
    num_output: 96
    kernel_size: 11
    stride: 4
  }
}
layer {
  name: "relu1"
  type: "ReLU"
  bottom: "conv1"
  top: "conv1"
}
layer {
  name: "pool1"
  type: "Pooling"
  bottom: "conv1"
  top: "pool1"
  pooling_param {
    pool: MAX
    kernel_size: 3
    stride: 2
  }
}
layer {
  name: "norm1"
  type: "LRN"
  bottom: "pool1"
  top: "norm1"
  lrn_param {
    local_size: 5
    alpha: 0.0001
    beta: 0.75
  }
}
layer {
  name: "conv2"
  type: "Convolution"
  bottom: "norm1"
  top: "conv2"
  convolution_param {
    num_output: 256
    pad: 2
    kernel_size: 5
    group: 2
  }
}
layer {
  name: "relu2"
  type: "ReLU"
  bottom: "conv2"
  top: "conv2"
}
layer {
  name: "pool2"
  type: "Pooling"
  bottom: "conv2"
  top: "pool2"
  pooling_param {
    pool: MAX
    kernel_size: 3
    stride: 2
  }
}
layer {
  name: "norm2"
  type: "LRN"
  bottom: "pool2"
  top: "norm2"
  lrn_param {
    local_size: 5
    alpha: 0.0001
    beta: 0.75
  }
}
layer {
  name: "conv3"
  type: "Convolution"
  bottom: "norm2"
  top: "conv3"
  convolution_param {
    num_output: 384
    pad: 1
    kernel_size: 3
  }
}
layer {
  name: "relu3"
  type: "ReLU"
  bottom: "conv3"
  top: "conv3"
}
layer {
  name: "conv4"
  type: "Convolution"
  bottom: "conv3"
  top: "conv4"
  convolution_param {
    num_output: 384
    pad: 1
    kernel_size: 3
    group: 2
  }
}
layer {
  name: "relu4"
  type: "ReLU"
  bottom: "conv4"
  top: "conv4"
}
layer {
  name: "conv5"
  type: "Convolution"
  bottom: "conv4"
  top: "conv5"
  convolution_param {
    num_output: 256
    pad: 1
    kernel_size: 3
    group: 2
  }
}
layer {
  name: "relu5"
  type: "ReLU"
  bottom: "conv5"
  top: "conv5"
}
layer {
  name: "pool5"
  type: "Pooling"
  bottom: "conv5"
  top: "pool5"
  pooling_param {
    pool: MAX
    kernel_size: 3
    stride: 2
  }
}
layer {
  name: "fc6"
  type: "InnerProduct"
  bottom: "pool5"
  top: "fc6"
  inner_product_param {
    num_output: 4096
  }
}
layer {
  name: "relu6"
  type: "ReLU"
  bottom: "fc6"
  top: "fc6"
}
layer {
  name: "drop6"
  type: "Dropout"
  bottom: "fc6"
  top: "fc6"
  dropout_param {
    dropout_ratio: 0.5
  }
}
layer {
  name: "fc7"
  type: "InnerProduct"
  bottom: "fc6"
  top: "fc7"
  inner_product_param {
    num_output: 4096
  }
}
layer {
  name: "relu7"
  type: "ReLU"
  bottom: "fc7"
  top: "fc7"
}
layer {
  name: "drop7"
  type: "Dropout"
  bottom: "fc7"
  top: "fc7"
  dropout_param {
    dropout_ratio: 0.5
  }
}
layer {
  name: "fc8"
  type: "InnerProduct"
  bottom: "fc7"
  top: "fc8"
  inner_product_param {
    num_output: 1000
  }
}
layer {
  name: "prob"
  type: "Softmax"
  bottom: "fc8"
  top: "prob"
}
I0925 23:33:10.287772  6897 layer_factory.hpp:77] Creating layer input
I0925 23:33:10.287781  6903 layer_factory.hpp:77] Creating layer data
I0925 23:33:10.287791  6897 net.cpp:91] Creating Layer input
I0925 23:33:10.286592  6937 upgrade_proto.cpp:69] Successfully upgraded file specified using deprecated input fields.
W0925 23:33:10.287806  6937 upgrade_proto.cpp:71] Note that future Caffe releases will only support input layers and not input fields.
I0925 23:33:10.287794  6903 net.cpp:91] Creating Layer data
I0925 23:33:10.287813  6897 net.cpp:399] input -> frames_fc7
I0925 23:33:10.287819  6903 net.cpp:399] data -> data
I0925 23:33:10.287835  6897 net.cpp:399] input -> cont_sentence
I0925 23:33:10.287853  6897 net.cpp:399] input -> input_sentence
I0925 23:33:10.287868  6897 net.cpp:399] input -> stage_indicator
I0925 23:33:10.287973  6937 net.cpp:49] Initializing net from parameters: 
name: "s2vt:features_to_lstm"
state {
  phase: TEST
}
layer {
  name: "input"
  type: "Input"
  top: "frames_fc7"
  top: "cont_sentence"
  top: "input_sentence"
  top: "stage_indicator"
  input_param {
    shape {
      dim: 1
      dim: 4096
    }
    shape {
      dim: 1
      dim: 1
    }
    shape {
      dim: 1
      dim: 1
    }
    shape {
      dim: 1
      dim: 1
    }
  }
}
layer {
  name: "embed_encoder"
  type: "InnerProduct"
  bottom: "frames_fc7"
  top: "embedded_in_frames"
  param {
    lr_mult: 1
    decay_mult: 1
  }
  param {
    lr_mult: 2
    decay_mult: 0
  }
  inner_product_param {
    num_output: 500
    weight_filler {
      type: "xavier"
    }
    bias_filler {
      type: "constant"
      value: 0.2
    }
  }
}
layer {
  name: "reshape_frames"
  type: "Reshape"
  bottom: "embedded_in_frames"
  top: "embedded_input_frames"
  reshape_param {
    shape {
      dim: 1
      dim: 1
      dim: 500
    }
  }
}
layer {
  name: "reshape_stage_indicator"
  type: "Reshape"
  bottom: "stage_indicator"
  top: "reshaped_stage_indicator"
  reshape_param {
    shape {
      dim: 1
      dim: 1
      dim: 1
    }
  }
}
layer {
  name: "embedding"
  type: "Embed"
  bottom: "input_sentence"
  top: "embedded_input_sentence"
  param {
    lr_mult: 1
  }
  embed_param {
    num_output: 500
    input_dim: 46168
    bias_term: false
    weight_filler {
      type: "uniform"
      min: -0.08
      max: 0.08
    }
  }
}
layer {
  name: "lstm1"
  type: "LSTM"
  bottom: "embedded_input_frames"
  bottom: "cont_sentence"
  top: "lstm1"
  recurrent_param {
    num_output: 1000
    weight_filler {
      type: "uniform"
      min: -0.08
      max: 0.08
    }
    bias_filler {
      type: "constant"
      value: 0
    }
  }
}
layer {
  name: "concat"
  type: "Concat"
  bottom: "lstm1"
  bottom: "embedded_input_sentence"
  bottom: "reshaped_stage_indicator"
  top: "lstm1_video_sequence"
  concat_param {
    concat_dim: 2
  }
}
layer {
  name: "lstm2"
  type: "LSTM"
  bottom: "lstm1_video_sequence"
  bottom: "cont_sentence"
  top: "lstm2"
  recurrent_param {
    num_output: 1000
    weight_filler {
      type: "uniform"
      min: -0.08
      max: 0.08
    }
    bias_filler {
      type: "constant"
      value: 0
    }
  }
}
layer {
  name: "predict"
  type: "InnerProduct"
  bottom: "lstm2"
  top: "predict"
  param {
    lr_mult: 1
    decay_mult: 1
  }
  param {
    lr_mult: 2
    decay_mult: 0
  }
  inner_product_param {
    num_output: 46168
    weight_filler {
      type: "uniform"
      min: -0.08
      max: 0.08
    }
    bias_filler {
      type: "constant"
      value: 0
    }
    axis: 2
  }
}
layer {
  name: "probs"
  type: "Softmax"
  bottom: "predict"
  top: "probs"
  softmax_param {
    axis: 2
  }
}
I0925 23:33:10.288060  6937 layer_factory.hpp:77] Creating layer input
I0925 23:33:10.288072  6937 net.cpp:91] Creating Layer input
I0925 23:33:10.288079  6937 net.cpp:399] input -> frames_fc7
I0925 23:33:10.288091  6937 net.cpp:399] input -> cont_sentence
I0925 23:33:10.288102  6937 net.cpp:399] input -> input_sentence
I0925 23:33:10.288112  6937 net.cpp:399] input -> stage_indicator
I0925 23:33:11.191550  6917 net.cpp:141] Setting up input
I0925 23:33:11.191646  6917 net.cpp:148] Top shape: 1 4096 (4096)
I0925 23:33:11.191655  6917 net.cpp:148] Top shape: 1 1 (1)
I0925 23:33:11.191661  6917 net.cpp:148] Top shape: 1 1 (1)
I0925 23:33:11.191668  6917 net.cpp:148] Top shape: 1 1 (1)
I0925 23:33:11.191671  6917 net.cpp:156] Memory required for data: 16396
I0925 23:33:11.191696  6917 layer_factory.hpp:77] Creating layer cont_sentence_input_1_split
I0925 23:33:11.191696  6923 net.cpp:141] Setting up input
I0925 23:33:11.191745  6923 net.cpp:148] Top shape: 1 4096 (4096)
I0925 23:33:11.191745  6917 net.cpp:91] Creating Layer cont_sentence_input_1_split
I0925 23:33:11.191766  6923 net.cpp:148] Top shape: 1 1 (1)
I0925 23:33:11.191771  6917 net.cpp:425] cont_sentence_input_1_split <- cont_sentence
I0925 23:33:11.191772  6903 net.cpp:141] Setting up data
I0925 23:33:11.191778  6923 net.cpp:148] Top shape: 1 1 (1)
I0925 23:33:11.191789  6923 net.cpp:148] Top shape: 1 1 (1)
I0925 23:33:11.191797  6917 net.cpp:399] cont_sentence_input_1_split -> cont_sentence_input_1_split_0
I0925 23:33:11.191789  6903 net.cpp:148] Top shape: 10 3 227 227 (1545870)
I0925 23:33:11.191803  6923 net.cpp:156] Memory required for data: 16396
I0925 23:33:11.191808  6903 net.cpp:156] Memory required for data: 6183480
I0925 23:33:11.191817  6923 layer_factory.hpp:77] Creating layer cont_sentence_input_1_split
I0925 23:33:11.191818  6917 net.cpp:399] cont_sentence_input_1_split -> cont_sentence_input_1_split_1
I0925 23:33:11.191817  6903 layer_factory.hpp:77] Creating layer conv1
I0925 23:33:11.191844  6923 net.cpp:91] Creating Layer cont_sentence_input_1_split
I0925 23:33:11.191855  6923 net.cpp:425] cont_sentence_input_1_split <- cont_sentence
I0925 23:33:11.191874  6923 net.cpp:399] cont_sentence_input_1_split -> cont_sentence_input_1_split_0
I0925 23:33:11.191879  6903 net.cpp:91] Creating Layer conv1
I0925 23:33:11.191887  6903 net.cpp:425] conv1 <- data
I0925 23:33:11.191895  6923 net.cpp:399] cont_sentence_input_1_split -> cont_sentence_input_1_split_1
I0925 23:33:11.191903  6903 net.cpp:399] conv1 -> conv1
I0925 23:33:11.191936  6950 net.cpp:141] Setting up input
I0925 23:33:11.191956  6950 net.cpp:148] Top shape: 1 4096 (4096)
I0925 23:33:11.191963  6950 net.cpp:148] Top shape: 1 1 (1)
I0925 23:33:11.191969  6950 net.cpp:148] Top shape: 1 1 (1)
I0925 23:33:11.191975  6950 net.cpp:148] Top shape: 1 1 (1)
I0925 23:33:11.191980  6950 net.cpp:156] Memory required for data: 16396
I0925 23:33:11.191987  6950 layer_factory.hpp:77] Creating layer cont_sentence_input_1_split
I0925 23:33:11.192008  6950 net.cpp:91] Creating Layer cont_sentence_input_1_split
I0925 23:33:11.192014  6950 net.cpp:425] cont_sentence_input_1_split <- cont_sentence
I0925 23:33:11.192023  6950 net.cpp:399] cont_sentence_input_1_split -> cont_sentence_input_1_split_0
I0925 23:33:11.192034  6950 net.cpp:399] cont_sentence_input_1_split -> cont_sentence_input_1_split_1
I0925 23:33:11.192101  6897 net.cpp:141] Setting up input
I0925 23:33:11.192119  6897 net.cpp:148] Top shape: 1 4096 (4096)
I0925 23:33:11.192126  6897 net.cpp:148] Top shape: 1 1 (1)
I0925 23:33:11.192132  6897 net.cpp:148] Top shape: 1 1 (1)
I0925 23:33:11.192138  6897 net.cpp:148] Top shape: 1 1 (1)
I0925 23:33:11.192142  6897 net.cpp:156] Memory required for data: 16396
I0925 23:33:11.192148  6897 layer_factory.hpp:77] Creating layer cont_sentence_input_1_split
I0925 23:33:11.192158  6897 net.cpp:91] Creating Layer cont_sentence_input_1_split
I0925 23:33:11.192164  6897 net.cpp:425] cont_sentence_input_1_split <- cont_sentence
I0925 23:33:11.192173  6897 net.cpp:399] cont_sentence_input_1_split -> cont_sentence_input_1_split_0
I0925 23:33:11.192184  6897 net.cpp:399] cont_sentence_input_1_split -> cont_sentence_input_1_split_1
I0925 23:33:11.192186  6923 net.cpp:141] Setting up cont_sentence_input_1_split
I0925 23:33:11.192200  6923 net.cpp:148] Top shape: 1 1 (1)
I0925 23:33:11.192215  6923 net.cpp:148] Top shape: 1 1 (1)
I0925 23:33:11.192220  6923 net.cpp:156] Memory required for data: 16404
I0925 23:33:11.192225  6923 layer_factory.hpp:77] Creating layer embed_encoder
I0925 23:33:11.192250  6923 net.cpp:91] Creating Layer embed_encoder
I0925 23:33:11.192261  6923 net.cpp:425] embed_encoder <- frames_fc7
I0925 23:33:11.192278  6923 net.cpp:399] embed_encoder -> embedded_in_frames
I0925 23:33:11.192387  6950 net.cpp:141] Setting up cont_sentence_input_1_split
I0925 23:33:11.192404  6950 net.cpp:148] Top shape: 1 1 (1)
I0925 23:33:11.192414  6950 net.cpp:148] Top shape: 1 1 (1)
I0925 23:33:11.192420  6950 net.cpp:156] Memory required for data: 16404
I0925 23:33:11.192426  6950 layer_factory.hpp:77] Creating layer embed_encoder
I0925 23:33:11.192437  6950 net.cpp:91] Creating Layer embed_encoder
I0925 23:33:11.192435  6937 net.cpp:141] Setting up input
I0925 23:33:11.192442  6950 net.cpp:425] embed_encoder <- frames_fc7
I0925 23:33:11.192456  6937 net.cpp:148] Top shape: 1 4096 (4096)
I0925 23:33:11.192466  6937 net.cpp:148] Top shape: 1 1 (1)
I0925 23:33:11.192469  6950 net.cpp:399] embed_encoder -> embedded_in_frames
I0925 23:33:11.192471  6937 net.cpp:148] Top shape: 1 1 (1)
I0925 23:33:11.192482  6897 net.cpp:141] Setting up cont_sentence_input_1_split
I0925 23:33:11.192487  6937 net.cpp:148] Top shape: 1 1 (1)
I0925 23:33:11.192492  6937 net.cpp:156] Memory required for data: 16396
I0925 23:33:11.192494  6897 net.cpp:148] Top shape: 1 1 (1)
I0925 23:33:11.192498  6937 layer_factory.hpp:77] Creating layer cont_sentence_input_1_split
I0925 23:33:11.192502  6897 net.cpp:148] Top shape: 1 1 (1)
I0925 23:33:11.192507  6897 net.cpp:156] Memory required for data: 16404
I0925 23:33:11.192509  6937 net.cpp:91] Creating Layer cont_sentence_input_1_split
I0925 23:33:11.192512  6897 layer_factory.hpp:77] Creating layer embed_encoder
I0925 23:33:11.192515  6937 net.cpp:425] cont_sentence_input_1_split <- cont_sentence
I0925 23:33:11.192524  6897 net.cpp:91] Creating Layer embed_encoder
I0925 23:33:11.192524  6937 net.cpp:399] cont_sentence_input_1_split -> cont_sentence_input_1_split_0
I0925 23:33:11.192533  6897 net.cpp:425] embed_encoder <- frames_fc7
I0925 23:33:11.192543  6897 net.cpp:399] embed_encoder -> embedded_in_frames
I0925 23:33:11.192544  6937 net.cpp:399] cont_sentence_input_1_split -> cont_sentence_input_1_split_1
I0925 23:33:11.192574  6911 net.cpp:141] Setting up input
I0925 23:33:11.192591  6911 net.cpp:148] Top shape: 1 4096 (4096)
I0925 23:33:11.192600  6911 net.cpp:148] Top shape: 1 1 (1)
I0925 23:33:11.192606  6911 net.cpp:148] Top shape: 1 1 (1)
I0925 23:33:11.192606  6946 net.cpp:141] Setting up input
I0925 23:33:11.192625  6911 net.cpp:148] Top shape: 1 1 (1)
I0925 23:33:11.192631  6911 net.cpp:156] Memory required for data: 16396
I0925 23:33:11.192636  6911 layer_factory.hpp:77] Creating layer cont_sentence_input_1_split
I0925 23:33:11.192634  6946 net.cpp:148] Top shape: 1 4096 (4096)
I0925 23:33:11.192647  6911 net.cpp:91] Creating Layer cont_sentence_input_1_split
I0925 23:33:11.192652  6946 net.cpp:148] Top shape: 1 1 (1)
I0925 23:33:11.192653  6911 net.cpp:425] cont_sentence_input_1_split <- cont_sentence
I0925 23:33:11.192661  6946 net.cpp:148] Top shape: 1 1 (1)
I0925 23:33:11.192662  6911 net.cpp:399] cont_sentence_input_1_split -> cont_sentence_input_1_split_0
I0925 23:33:11.192667  6946 net.cpp:148] Top shape: 1 1 (1)
I0925 23:33:11.192672  6946 net.cpp:156] Memory required for data: 16396
I0925 23:33:11.192678  6946 layer_factory.hpp:77] Creating layer cont_sentence_input_1_split
I0925 23:33:11.192682  6911 net.cpp:399] cont_sentence_input_1_split -> cont_sentence_input_1_split_1
I0925 23:33:11.192687  6946 net.cpp:91] Creating Layer cont_sentence_input_1_split
I0925 23:33:11.192693  6946 net.cpp:425] cont_sentence_input_1_split <- cont_sentence
I0925 23:33:11.192701  6946 net.cpp:399] cont_sentence_input_1_split -> cont_sentence_input_1_split_0
I0925 23:33:11.192711  6946 net.cpp:399] cont_sentence_input_1_split -> cont_sentence_input_1_split_1
I0925 23:33:11.192709  6889 net.cpp:141] Setting up input
I0925 23:33:11.192725  6889 net.cpp:148] Top shape: 1 4096 (4096)
I0925 23:33:11.192733  6889 net.cpp:148] Top shape: 1 1 (1)
I0925 23:33:11.192739  6889 net.cpp:148] Top shape: 1 1 (1)
I0925 23:33:11.192745  6911 net.cpp:141] Setting up cont_sentence_input_1_split
I0925 23:33:11.192746  6889 net.cpp:148] Top shape: 1 1 (1)
I0925 23:33:11.192760  6911 net.cpp:148] Top shape: 1 1 (1)
I0925 23:33:11.192765  6889 net.cpp:156] Memory required for data: 16396
I0925 23:33:11.192767  6911 net.cpp:148] Top shape: 1 1 (1)
I0925 23:33:11.192781  6889 layer_factory.hpp:77] Creating layer cont_sentence_input_1_split
I0925 23:33:11.192785  6911 net.cpp:156] Memory required for data: 16404
I0925 23:33:11.192798  6911 layer_factory.hpp:77] Creating layer embed_encoder
I0925 23:33:11.192801  6889 net.cpp:91] Creating Layer cont_sentence_input_1_split
I0925 23:33:11.192811  6889 net.cpp:425] cont_sentence_input_1_split <- cont_sentence
I0925 23:33:11.192818  6911 net.cpp:91] Creating Layer embed_encoder
I0925 23:33:11.192824  6911 net.cpp:425] embed_encoder <- frames_fc7
I0925 23:33:11.192826  6889 net.cpp:399] cont_sentence_input_1_split -> cont_sentence_input_1_split_0
I0925 23:33:11.192843  6911 net.cpp:399] embed_encoder -> embedded_in_frames
I0925 23:33:11.192844  6889 net.cpp:399] cont_sentence_input_1_split -> cont_sentence_input_1_split_1
I0925 23:33:11.200945  6917 net.cpp:141] Setting up cont_sentence_input_1_split
I0925 23:33:11.200973  6917 net.cpp:148] Top shape: 1 1 (1)
I0925 23:33:11.200985  6917 net.cpp:148] Top shape: 1 1 (1)
I0925 23:33:11.200994  6917 net.cpp:156] Memory required for data: 16404
I0925 23:33:11.201004  6917 layer_factory.hpp:77] Creating layer embed_encoder
I0925 23:33:11.201030  6917 net.cpp:91] Creating Layer embed_encoder
I0925 23:33:11.201040  6917 net.cpp:425] embed_encoder <- frames_fc7
I0925 23:33:11.201058  6917 net.cpp:399] embed_encoder -> embedded_in_frames
I0925 23:33:11.201171  6946 net.cpp:141] Setting up cont_sentence_input_1_split
I0925 23:33:11.201211  6946 net.cpp:148] Top shape: 1 1 (1)
I0925 23:33:11.201220  6946 net.cpp:148] Top shape: 1 1 (1)
I0925 23:33:11.201225  6946 net.cpp:156] Memory required for data: 16404
I0925 23:33:11.201232  6946 layer_factory.hpp:77] Creating layer embed_encoder
I0925 23:33:11.201252  6946 net.cpp:91] Creating Layer embed_encoder
I0925 23:33:11.201259  6946 net.cpp:425] embed_encoder <- frames_fc7
I0925 23:33:11.201279  6946 net.cpp:399] embed_encoder -> embedded_in_frames
I0925 23:33:11.201328  6937 net.cpp:141] Setting up cont_sentence_input_1_split
I0925 23:33:11.201344  6937 net.cpp:148] Top shape: 1 1 (1)
I0925 23:33:11.201349  6937 net.cpp:148] Top shape: 1 1 (1)
I0925 23:33:11.201354  6937 net.cpp:156] Memory required for data: 16404
I0925 23:33:11.201360  6937 layer_factory.hpp:77] Creating layer embed_encoder
I0925 23:33:11.201356  6893 net.cpp:141] Setting up input
I0925 23:33:11.201371  6937 net.cpp:91] Creating Layer embed_encoder
I0925 23:33:11.201375  6893 net.cpp:148] Top shape: 1 4096 (4096)
I0925 23:33:11.201378  6937 net.cpp:425] embed_encoder <- frames_fc7
I0925 23:33:11.201383  6893 net.cpp:148] Top shape: 1 1 (1)
I0925 23:33:11.201386  6937 net.cpp:399] embed_encoder -> embedded_in_frames
I0925 23:33:11.201390  6893 net.cpp:148] Top shape: 1 1 (1)
I0925 23:33:11.201395  6893 net.cpp:148] Top shape: 1 1 (1)
I0925 23:33:11.201400  6893 net.cpp:156] Memory required for data: 16396
I0925 23:33:11.201406  6893 layer_factory.hpp:77] Creating layer cont_sentence_input_1_split
I0925 23:33:11.201428  6893 net.cpp:91] Creating Layer cont_sentence_input_1_split
I0925 23:33:11.201436  6893 net.cpp:425] cont_sentence_input_1_split <- cont_sentence
I0925 23:33:11.201444  6893 net.cpp:399] cont_sentence_input_1_split -> cont_sentence_input_1_split_0
I0925 23:33:11.201455  6893 net.cpp:399] cont_sentence_input_1_split -> cont_sentence_input_1_split_1
I0925 23:33:11.209502  6889 net.cpp:141] Setting up cont_sentence_input_1_split
I0925 23:33:11.209559  6889 net.cpp:148] Top shape: 1 1 (1)
I0925 23:33:11.209570  6889 net.cpp:148] Top shape: 1 1 (1)
I0925 23:33:11.209578  6889 net.cpp:156] Memory required for data: 16404
I0925 23:33:11.209589  6889 layer_factory.hpp:77] Creating layer embed_encoder
I0925 23:33:11.209616  6889 net.cpp:91] Creating Layer embed_encoder
I0925 23:33:11.209627  6889 net.cpp:425] embed_encoder <- frames_fc7
I0925 23:33:11.209643  6889 net.cpp:399] embed_encoder -> embedded_in_frames
I0925 23:33:11.214642  6901 net.cpp:141] Setting up input
I0925 23:33:11.214761  6901 net.cpp:148] Top shape: 1 4096 (4096)
I0925 23:33:11.214784  6901 net.cpp:148] Top shape: 1 1 (1)
I0925 23:33:11.214805  6901 net.cpp:148] Top shape: 1 1 (1)
I0925 23:33:11.214824  6901 net.cpp:148] Top shape: 1 1 (1)
I0925 23:33:11.214838  6901 net.cpp:156] Memory required for data: 16396
I0925 23:33:11.214864  6901 layer_factory.hpp:77] Creating layer cont_sentence_input_1_split
I0925 23:33:11.214903  6901 net.cpp:91] Creating Layer cont_sentence_input_1_split
I0925 23:33:11.214920  6901 net.cpp:425] cont_sentence_input_1_split <- cont_sentence
I0925 23:33:11.214941  6901 net.cpp:399] cont_sentence_input_1_split -> cont_sentence_input_1_split_0
I0925 23:33:11.214965  6901 net.cpp:399] cont_sentence_input_1_split -> cont_sentence_input_1_split_1
I0925 23:33:11.215020  6893 net.cpp:141] Setting up cont_sentence_input_1_split
I0925 23:33:11.215042  6901 net.cpp:141] Setting up cont_sentence_input_1_split
I0925 23:33:11.215059  6901 net.cpp:148] Top shape: 1 1 (1)
I0925 23:33:11.215065  6893 net.cpp:148] Top shape: 1 1 (1)
I0925 23:33:11.215070  6901 net.cpp:148] Top shape: 1 1 (1)
I0925 23:33:11.215102  6901 net.cpp:156] Memory required for data: 16404
I0925 23:33:11.215111  6901 layer_factory.hpp:77] Creating layer embed_encoder
I0925 23:33:11.215111  6893 net.cpp:148] Top shape: 1 1 (1)
I0925 23:33:11.215129  6893 net.cpp:156] Memory required for data: 16404
I0925 23:33:11.215133  6901 net.cpp:91] Creating Layer embed_encoder
I0925 23:33:11.215158  6901 net.cpp:425] embed_encoder <- frames_fc7
I0925 23:33:11.215162  6893 layer_factory.hpp:77] Creating layer embed_encoder
I0925 23:33:11.215173  6901 net.cpp:399] embed_encoder -> embedded_in_frames
I0925 23:33:11.215204  6893 net.cpp:91] Creating Layer embed_encoder
I0925 23:33:11.215231  6893 net.cpp:425] embed_encoder <- frames_fc7
I0925 23:33:11.215263  6893 net.cpp:399] embed_encoder -> embedded_in_frames
I0925 23:33:11.242843  6950 net.cpp:141] Setting up embed_encoder
I0925 23:33:11.242898  6950 net.cpp:148] Top shape: 1 500 (500)
I0925 23:33:11.242908  6950 net.cpp:156] Memory required for data: 18404
I0925 23:33:11.244160  6897 net.cpp:141] Setting up embed_encoder
I0925 23:33:11.244211  6897 net.cpp:148] Top shape: 1 500 (500)
I0925 23:33:11.244220  6897 net.cpp:156] Memory required for data: 18404
I0925 23:33:11.244246  6897 layer_factory.hpp:77] Creating layer reshape_frames
I0925 23:33:11.244279  6897 net.cpp:91] Creating Layer reshape_frames
I0925 23:33:11.244292  6897 net.cpp:425] reshape_frames <- embedded_in_frames
I0925 23:33:11.244309  6897 net.cpp:399] reshape_frames -> embedded_input_frames
I0925 23:33:11.244384  6897 net.cpp:141] Setting up reshape_frames
I0925 23:33:11.244397  6897 net.cpp:148] Top shape: 1 1 500 (500)
I0925 23:33:11.244405  6897 net.cpp:156] Memory required for data: 20404
I0925 23:33:11.244412  6897 layer_factory.hpp:77] Creating layer reshape_stage_indicator
I0925 23:33:11.244428  6897 net.cpp:91] Creating Layer reshape_stage_indicator
I0925 23:33:11.244436  6897 net.cpp:425] reshape_stage_indicator <- stage_indicator
I0925 23:33:11.244449  6897 net.cpp:399] reshape_stage_indicator -> reshaped_stage_indicator
I0925 23:33:11.244503  6897 net.cpp:141] Setting up reshape_stage_indicator
I0925 23:33:11.244518  6897 net.cpp:148] Top shape: 1 1 1 (1)
I0925 23:33:11.244525  6897 net.cpp:156] Memory required for data: 20408
I0925 23:33:11.244534  6897 layer_factory.hpp:77] Creating layer embedding
I0925 23:33:11.244549  6897 net.cpp:91] Creating Layer embedding
I0925 23:33:11.244557  6897 net.cpp:425] embedding <- input_sentence
I0925 23:33:11.244570  6897 net.cpp:399] embedding -> embedded_input_sentence
I0925 23:33:11.242960  6950 layer_factory.hpp:77] Creating layer reshape_frames
I0925 23:33:11.247105  6950 net.cpp:91] Creating Layer reshape_frames
I0925 23:33:11.247126  6950 net.cpp:425] reshape_frames <- embedded_in_frames
I0925 23:33:11.247143  6950 net.cpp:399] reshape_frames -> embedded_input_frames
I0925 23:33:11.294487  6901 net.cpp:141] Setting up embed_encoder
I0925 23:33:11.294556  6901 net.cpp:148] Top shape: 1 500 (500)
I0925 23:33:11.294567  6901 net.cpp:156] Memory required for data: 18404
I0925 23:33:11.294612  6901 layer_factory.hpp:77] Creating layer reshape_frames
I0925 23:33:11.294636  6901 net.cpp:91] Creating Layer reshape_frames
I0925 23:33:11.294647  6901 net.cpp:425] reshape_frames <- embedded_in_frames
I0925 23:33:11.294663  6901 net.cpp:399] reshape_frames -> embedded_input_frames
I0925 23:33:11.294720  6901 net.cpp:141] Setting up reshape_frames
I0925 23:33:11.294734  6901 net.cpp:148] Top shape: 1 1 500 (500)
I0925 23:33:11.294740  6901 net.cpp:156] Memory required for data: 20404
I0925 23:33:11.294749  6901 layer_factory.hpp:77] Creating layer reshape_stage_indicator
I0925 23:33:11.294762  6901 net.cpp:91] Creating Layer reshape_stage_indicator
I0925 23:33:11.294772  6901 net.cpp:425] reshape_stage_indicator <- stage_indicator
I0925 23:33:11.294785  6901 net.cpp:399] reshape_stage_indicator -> reshaped_stage_indicator
I0925 23:33:11.294837  6901 net.cpp:141] Setting up reshape_stage_indicator
I0925 23:33:11.294852  6901 net.cpp:148] Top shape: 1 1 1 (1)
I0925 23:33:11.294860  6901 net.cpp:156] Memory required for data: 20408
I0925 23:33:11.294868  6901 layer_factory.hpp:77] Creating layer embedding
I0925 23:33:11.294884  6901 net.cpp:91] Creating Layer embedding
I0925 23:33:11.294893  6901 net.cpp:425] embedding <- input_sentence
I0925 23:33:11.294909  6901 net.cpp:399] embedding -> embedded_input_sentence
I0925 23:33:11.336094  6950 net.cpp:141] Setting up reshape_frames
I0925 23:33:11.336168  6950 net.cpp:148] Top shape: 1 1 500 (500)
I0925 23:33:11.336186  6950 net.cpp:156] Memory required for data: 20404
I0925 23:33:11.336207  6950 layer_factory.hpp:77] Creating layer reshape_stage_indicator
I0925 23:33:11.336246  6950 net.cpp:91] Creating Layer reshape_stage_indicator
I0925 23:33:11.336266  6950 net.cpp:425] reshape_stage_indicator <- stage_indicator
I0925 23:33:11.336293  6950 net.cpp:399] reshape_stage_indicator -> reshaped_stage_indicator
I0925 23:33:11.336874  6889 net.cpp:141] Setting up embed_encoder
I0925 23:33:11.336921  6889 net.cpp:148] Top shape: 1 500 (500)
I0925 23:33:11.336931  6889 net.cpp:156] Memory required for data: 18404
I0925 23:33:11.336953  6889 layer_factory.hpp:77] Creating layer reshape_frames
I0925 23:33:11.336972  6889 net.cpp:91] Creating Layer reshape_frames
I0925 23:33:11.336980  6889 net.cpp:425] reshape_frames <- embedded_in_frames
I0925 23:33:11.336987  6937 net.cpp:141] Setting up embed_encoder
I0925 23:33:11.336995  6889 net.cpp:399] reshape_frames -> embedded_input_frames
I0925 23:33:11.337014  6937 net.cpp:148] Top shape: 1 500 (500)
I0925 23:33:11.337025  6937 net.cpp:156] Memory required for data: 18404
I0925 23:33:11.337049  6937 layer_factory.hpp:77] Creating layer reshape_frames
I0925 23:33:11.337065  6937 net.cpp:91] Creating Layer reshape_frames
I0925 23:33:11.337069  6889 net.cpp:141] Setting up reshape_frames
I0925 23:33:11.337075  6937 net.cpp:425] reshape_frames <- embedded_in_frames
I0925 23:33:11.337082  6889 net.cpp:148] Top shape: 1 1 500 (500)
I0925 23:33:11.337088  6889 net.cpp:156] Memory required for data: 20404
I0925 23:33:11.337090  6937 net.cpp:399] reshape_frames -> embedded_input_frames
I0925 23:33:11.337093  6889 layer_factory.hpp:77] Creating layer reshape_stage_indicator
I0925 23:33:11.337106  6889 net.cpp:91] Creating Layer reshape_stage_indicator
I0925 23:33:11.337112  6889 net.cpp:425] reshape_stage_indicator <- stage_indicator
I0925 23:33:11.337119  6889 net.cpp:399] reshape_stage_indicator -> reshaped_stage_indicator
I0925 23:33:11.337160  6937 net.cpp:141] Setting up reshape_frames
I0925 23:33:11.337175  6937 net.cpp:148] Top shape: 1 1 500 (500)
I0925 23:33:11.337183  6937 net.cpp:156] Memory required for data: 20404
I0925 23:33:11.337191  6937 layer_factory.hpp:77] Creating layer reshape_stage_indicator
I0925 23:33:11.337206  6937 net.cpp:91] Creating Layer reshape_stage_indicator
I0925 23:33:11.337215  6937 net.cpp:425] reshape_stage_indicator <- stage_indicator
I0925 23:33:11.337227  6937 net.cpp:399] reshape_stage_indicator -> reshaped_stage_indicator
I0925 23:33:11.337316  6917 net.cpp:141] Setting up embed_encoder
I0925 23:33:11.337332  6917 net.cpp:148] Top shape: 1 500 (500)
I0925 23:33:11.337338  6917 net.cpp:156] Memory required for data: 18404
I0925 23:33:11.337353  6917 layer_factory.hpp:77] Creating layer reshape_frames
I0925 23:33:11.337369  6917 net.cpp:91] Creating Layer reshape_frames
I0925 23:33:11.337376  6917 net.cpp:425] reshape_frames <- embedded_in_frames
I0925 23:33:11.337385  6917 net.cpp:399] reshape_frames -> embedded_input_frames
I0925 23:33:11.337437  6911 net.cpp:141] Setting up embed_encoder
I0925 23:33:11.337461  6911 net.cpp:148] Top shape: 1 500 (500)
I0925 23:33:11.337471  6911 net.cpp:156] Memory required for data: 18404
I0925 23:33:11.337509  6911 layer_factory.hpp:77] Creating layer reshape_frames
I0925 23:33:11.337525  6911 net.cpp:91] Creating Layer reshape_frames
I0925 23:33:11.337527  6889 net.cpp:141] Setting up reshape_stage_indicator
I0925 23:33:11.337535  6911 net.cpp:425] reshape_frames <- embedded_in_frames
I0925 23:33:11.337543  6889 net.cpp:148] Top shape: 1 1 1 (1)
I0925 23:33:11.337548  6889 net.cpp:156] Memory required for data: 20408
I0925 23:33:11.337550  6911 net.cpp:399] reshape_frames -> embedded_input_frames
I0925 23:33:11.337553  6889 layer_factory.hpp:77] Creating layer embedding
I0925 23:33:11.337584  6889 net.cpp:91] Creating Layer embedding
I0925 23:33:11.337589  6889 net.cpp:425] embedding <- input_sentence
I0925 23:33:11.337597  6889 net.cpp:399] embedding -> embedded_input_sentence
I0925 23:33:11.337637  6911 net.cpp:141] Setting up reshape_frames
I0925 23:33:11.337653  6911 net.cpp:148] Top shape: 1 1 500 (500)
I0925 23:33:11.337661  6911 net.cpp:156] Memory required for data: 20404
I0925 23:33:11.337668  6911 layer_factory.hpp:77] Creating layer reshape_stage_indicator
I0925 23:33:11.337683  6911 net.cpp:91] Creating Layer reshape_stage_indicator
I0925 23:33:11.337692  6911 net.cpp:425] reshape_stage_indicator <- stage_indicator
I0925 23:33:11.337704  6911 net.cpp:399] reshape_stage_indicator -> reshaped_stage_indicator
I0925 23:33:11.384196  6917 net.cpp:141] Setting up reshape_frames
I0925 23:33:11.384263  6917 net.cpp:148] Top shape: 1 1 500 (500)
I0925 23:33:11.384270  6917 net.cpp:156] Memory required for data: 20404
I0925 23:33:11.384280  6917 layer_factory.hpp:77] Creating layer reshape_stage_indicator
I0925 23:33:11.384308  6917 net.cpp:91] Creating Layer reshape_stage_indicator
I0925 23:33:11.384317  6917 net.cpp:425] reshape_stage_indicator <- stage_indicator
I0925 23:33:11.384331  6917 net.cpp:399] reshape_stage_indicator -> reshaped_stage_indicator
I0925 23:33:11.384394  6917 net.cpp:141] Setting up reshape_stage_indicator
I0925 23:33:11.384403  6917 net.cpp:148] Top shape: 1 1 1 (1)
I0925 23:33:11.384408  6917 net.cpp:156] Memory required for data: 20408
I0925 23:33:11.384413  6917 layer_factory.hpp:77] Creating layer embedding
I0925 23:33:11.384433  6917 net.cpp:91] Creating Layer embedding
I0925 23:33:11.384438  6917 net.cpp:425] embedding <- input_sentence
I0925 23:33:11.384446  6917 net.cpp:399] embedding -> embedded_input_sentence
I0925 23:33:11.428561  6937 net.cpp:141] Setting up reshape_stage_indicator
I0925 23:33:11.428614  6937 net.cpp:148] Top shape: 1 1 1 (1)
I0925 23:33:11.428624  6937 net.cpp:156] Memory required for data: 20408
I0925 23:33:11.428637  6937 layer_factory.hpp:77] Creating layer embedding
I0925 23:33:11.428697  6937 net.cpp:91] Creating Layer embedding
I0925 23:33:11.428710  6937 net.cpp:425] embedding <- input_sentence
I0925 23:33:11.428736  6937 net.cpp:399] embedding -> embedded_input_sentence
I0925 23:33:11.428695  6893 net.cpp:141] Setting up embed_encoder
I0925 23:33:11.428793  6893 net.cpp:148] Top shape: 1 500 (500)
I0925 23:33:11.428802  6893 net.cpp:156] Memory required for data: 18404
I0925 23:33:11.428916  6893 layer_factory.hpp:77] Creating layer reshape_frames
I0925 23:33:11.477054  6893 net.cpp:91] Creating Layer reshape_frames
I0925 23:33:11.477118  6893 net.cpp:425] reshape_frames <- embedded_in_frames
I0925 23:33:11.477154  6893 net.cpp:399] reshape_frames -> embedded_input_frames
I0925 23:33:11.485885  6911 net.cpp:141] Setting up reshape_stage_indicator
I0925 23:33:11.485952  6911 net.cpp:148] Top shape: 1 1 1 (1)
I0925 23:33:11.485962  6911 net.cpp:156] Memory required for data: 20408
I0925 23:33:11.485973  6911 layer_factory.hpp:77] Creating layer embedding
I0925 23:33:11.485997  6911 net.cpp:91] Creating Layer embedding
I0925 23:33:11.486008  6911 net.cpp:425] embedding <- input_sentence
I0925 23:33:11.486027  6911 net.cpp:399] embedding -> embedded_input_sentence
I0925 23:33:11.486448  6950 net.cpp:141] Setting up reshape_stage_indicator
I0925 23:33:11.486497  6950 net.cpp:148] Top shape: 1 1 1 (1)
I0925 23:33:11.486505  6950 net.cpp:156] Memory required for data: 20408
I0925 23:33:11.486515  6950 layer_factory.hpp:77] Creating layer embedding
I0925 23:33:11.486512  6893 net.cpp:141] Setting up reshape_frames
I0925 23:33:11.486536  6950 net.cpp:91] Creating Layer embedding
I0925 23:33:11.486537  6893 net.cpp:148] Top shape: 1 1 500 (500)
I0925 23:33:11.486547  6950 net.cpp:425] embedding <- input_sentence
I0925 23:33:11.486549  6893 net.cpp:156] Memory required for data: 20404
I0925 23:33:11.486562  6893 layer_factory.hpp:77] Creating layer reshape_stage_indicator
I0925 23:33:11.485898  6897 net.cpp:141] Setting up embedding
I0925 23:33:11.486562  6950 net.cpp:399] embedding -> embedded_input_sentence
I0925 23:33:11.486582  6897 net.cpp:148] Top shape: 1 1 500 (500)
I0925 23:33:11.486608  6893 net.cpp:91] Creating Layer reshape_stage_indicator
I0925 23:33:11.486611  6897 net.cpp:156] Memory required for data: 22408
I0925 23:33:11.486630  6893 net.cpp:425] reshape_stage_indicator <- stage_indicator
I0925 23:33:11.486650  6897 layer_factory.hpp:77] Creating layer lstm1
I0925 23:33:11.486711  6893 net.cpp:399] reshape_stage_indicator -> reshaped_stage_indicator
I0925 23:33:11.486737  6897 net.cpp:91] Creating Layer lstm1
I0925 23:33:11.486754  6897 net.cpp:425] lstm1 <- embedded_input_frames
I0925 23:33:11.486766  6897 net.cpp:425] lstm1 <- cont_sentence_input_1_split_0
I0925 23:33:11.486783  6897 net.cpp:399] lstm1 -> lstm1
I0925 23:33:11.486804  6893 net.cpp:141] Setting up reshape_stage_indicator
I0925 23:33:11.486815  6897 recurrent_layer.cpp:20] Initializing recurrent layer: assuming input batch contains 1 timesteps of 1 independent streams.
I0925 23:33:11.486824  6893 net.cpp:148] Top shape: 1 1 1 (1)
I0925 23:33:11.486834  6893 net.cpp:156] Memory required for data: 20408
I0925 23:33:11.486843  6893 layer_factory.hpp:77] Creating layer embedding
I0925 23:33:11.486860  6893 net.cpp:91] Creating Layer embedding
I0925 23:33:11.486871  6893 net.cpp:425] embedding <- input_sentence
I0925 23:33:11.486930  6893 net.cpp:399] embedding -> embedded_input_sentence
I0925 23:33:11.524122  6897 net.cpp:49] Initializing net from parameters: 
layer {
  name: "lstm1_"
  type: "Input"
  top: "x"
  top: "cont"
  input_param {
    shape {
      dim: 1
      dim: 1
      dim: 500
    }
    shape {
      dim: 1
      dim: 1
    }
  }
}
layer {
  name: "lstm1_"
  type: "Input"
  top: "c_0"
  top: "h_0"
  input_param {
    shape {
      dim: 1
      dim: 1
      dim: 1000
    }
    shape {
      dim: 1
      dim: 1
      dim: 1000
    }
  }
}
layer {
  name: "lstm1_cont_slice"
  type: "Slice"
  bottom: "cont"
  top: "cont_1"
  slice_param {
    axis: 0
  }
}
layer {
  name: "lstm1_x_transform"
  type: "InnerProduct"
  bottom: "x"
  top: "W_xc_x"
  param {
    name: "W_xc"
  }
  param {
    name: "b_c"
  }
  propagate_down: true
  inner_product_param {
    num_output: 4000
    bias_term: true
    weight_filler {
      type: "uniform"
      min: -0.08
      max: 0.08
    }
    bias_filler {
      type: "constant"
      value: 0
    }
    axis: 2
  }
}
layer {
  name: "lstm1_W_xc_x_slice"
  type: "Slice"
  bottom: "W_xc_x"
  top: "W_xc_x_1"
  slice_param {
    axis: 0
  }
}
layer {
  name: "lstm1_h_conted_0"
  type: "Scale"
  bottom: "h_0"
  bottom: "cont_1"
  top: "h_conted_0"
  scale_param {
    axis: 0
  }
}
layer {
  name: "lstm1_transform_1"
  type: "InnerProduct"
  bottom: "h_conted_0"
  top: "W_hc_h_0"
  param {
    name: "W_hc"
  }
  inner_product_param {
    num_output: 4000
    bias_term: false
    weight_filler {
      type: "uniform"
      min: -0.08
      max: 0.08
    }
    axis: 2
  }
}
layer {
  name: "lstm1_gate_input_1"
  type: "Eltwise"
  bottom: "W_hc_h_0"
  bottom: "W_xc_x_1"
  top: "gate_input_1"
  eltwise_param {
    operation: SUM
  }
}
layer {
  name: "lstm1_unit_1"
  type: "LSTMUnit"
  bottom: "c_0"
  bottom: "gate_input_1"
  bottom: "cont_1"
  top: "c_1"
  top: "h_1"
}
layer {
  name: "lstm1_"
  type: "Split"
  bottom: "c_1"
  top: "c_T"
}
layer {
  name: "lstm1_h_concat"
  type: "Concat"
  bottom: "h_1"
  top: "h"
  concat_param {
    axis: 0
  }
}
layer {
  name: "h_pseudoloss"
  type: "Reduction"
  bottom: "h"
  top: "h_pseudoloss"
  loss_weight: 1
}
I0925 23:33:11.524267  6897 layer_factory.hpp:77] Creating layer lstm1_
I0925 23:33:11.524284  6897 net.cpp:91] Creating Layer lstm1_
I0925 23:33:11.524292  6897 net.cpp:399] lstm1_ -> x
I0925 23:33:11.524308  6897 net.cpp:399] lstm1_ -> cont
I0925 23:33:11.527559  6923 net.cpp:141] Setting up embed_encoder
I0925 23:33:11.527612  6923 net.cpp:148] Top shape: 1 500 (500)
I0925 23:33:11.527622  6923 net.cpp:156] Memory required for data: 18404
I0925 23:33:11.527653  6923 layer_factory.hpp:77] Creating layer reshape_frames
I0925 23:33:11.527678  6923 net.cpp:91] Creating Layer reshape_frames
I0925 23:33:11.527688  6923 net.cpp:425] reshape_frames <- embedded_in_frames
I0925 23:33:11.527750  6923 net.cpp:399] reshape_frames -> embedded_input_frames
I0925 23:33:11.572782  6901 net.cpp:141] Setting up embedding
I0925 23:33:11.572844  6901 net.cpp:148] Top shape: 1 1 500 (500)
I0925 23:33:11.572855  6901 net.cpp:156] Memory required for data: 22408
I0925 23:33:11.572883  6901 layer_factory.hpp:77] Creating layer lstm1
I0925 23:33:11.572919  6901 net.cpp:91] Creating Layer lstm1
I0925 23:33:11.572933  6901 net.cpp:425] lstm1 <- embedded_input_frames
I0925 23:33:11.572945  6901 net.cpp:425] lstm1 <- cont_sentence_input_1_split_0
I0925 23:33:11.572962  6901 net.cpp:399] lstm1 -> lstm1
I0925 23:33:11.572985  6901 recurrent_layer.cpp:20] Initializing recurrent layer: assuming input batch contains 1 timesteps of 1 independent streams.
I0925 23:33:11.573462  6901 net.cpp:49] Initializing net from parameters: 
layer {
  name: "lstm1_"
  type: "Input"
  top: "x"
  top: "cont"
  input_param {
    shape {
      dim: 1
      dim: 1
      dim: 500
    }
    shape {
      dim: 1
      dim: 1
    }
  }
}
layer {
  name: "lstm1_"
  type: "Input"
  top: "c_0"
  top: "h_0"
  input_param {
    shape {
      dim: 1
      dim: 1
      dim: 1000
    }
    shape {
      dim: 1
      dim: 1
      dim: 1000
    }
  }
}
layer {
  name: "lstm1_cont_slice"
  type: "Slice"
  bottom: "cont"
  top: "cont_1"
  slice_param {
    axis: 0
  }
}
layer {
  name: "lstm1_x_transform"
  type: "InnerProduct"
  bottom: "x"
  top: "W_xc_x"
  param {
    name: "W_xc"
  }
  param {
    name: "b_c"
  }
  propagate_down: true
  inner_product_param {
    num_output: 4000
    bias_term: true
    weight_filler {
      type: "uniform"
      min: -0.08
      max: 0.08
    }
    bias_filler {
      type: "constant"
      value: 0
    }
    axis: 2
  }
}
layer {
  name: "lstm1_W_xc_x_slice"
  type: "Slice"
  bottom: "W_xc_x"
  top: "W_xc_x_1"
  slice_param {
    axis: 0
  }
}
layer {
  name: "lstm1_h_conted_0"
  type: "Scale"
  bottom: "h_0"
  bottom: "cont_1"
  top: "h_conted_0"
  scale_param {
    axis: 0
  }
}
layer {
  name: "lstm1_transform_1"
  type: "InnerProduct"
  bottom: "h_conted_0"
  top: "W_hc_h_0"
  param {
    name: "W_hc"
  }
  inner_product_param {
    num_output: 4000
    bias_term: false
    weight_filler {
      type: "uniform"
      min: -0.08
      max: 0.08
    }
    axis: 2
  }
}
layer {
  name: "lstm1_gate_input_1"
  type: "Eltwise"
  bottom: "W_hc_h_0"
  bottom: "W_xc_x_1"
  top: "gate_input_1"
  eltwise_param {
    operation: SUM
  }
}
layer {
  name: "lstm1_unit_1"
  type: "LSTMUnit"
  bottom: "c_0"
  bottom: "gate_input_1"
  bottom: "cont_1"
  top: "c_1"
  top: "h_1"
}
layer {
  name: "lstm1_"
  type: "Split"
  bottom: "c_1"
  top: "c_T"
}
layer {
  name: "lstm1_h_concat"
  type: "Concat"
  bottom: "h_1"
  top: "h"
  concat_param {
    axis: 0
  }
}
layer {
  name: "h_pseudoloss"
  type: "Reduction"
  bottom: "h"
  top: "h_pseudoloss"
  loss_weight: 1
}
I0925 23:33:11.573598  6901 layer_factory.hpp:77] Creating layer lstm1_
I0925 23:33:11.573616  6901 net.cpp:91] Creating Layer lstm1_
I0925 23:33:11.573626  6901 net.cpp:399] lstm1_ -> x
I0925 23:33:11.573643  6901 net.cpp:399] lstm1_ -> cont
I0925 23:33:11.573767  6901 net.cpp:141] Setting up lstm1_
I0925 23:33:11.573782  6901 net.cpp:148] Top shape: 1 1 500 (500)
I0925 23:33:11.573793  6901 net.cpp:148] Top shape: 1 1 (1)
I0925 23:33:11.573801  6901 net.cpp:156] Memory required for data: 2004
I0925 23:33:11.573808  6901 layer_factory.hpp:77] Creating layer lstm1_
I0925 23:33:11.573822  6901 net.cpp:91] Creating Layer lstm1_
I0925 23:33:11.573833  6901 net.cpp:399] lstm1_ -> c_0
I0925 23:33:11.573855  6901 net.cpp:399] lstm1_ -> h_0
I0925 23:33:11.573935  6901 net.cpp:141] Setting up lstm1_
I0925 23:33:11.573950  6901 net.cpp:148] Top shape: 1 1 1000 (1000)
I0925 23:33:11.573961  6901 net.cpp:148] Top shape: 1 1 1000 (1000)
I0925 23:33:11.573967  6901 net.cpp:156] Memory required for data: 10004
I0925 23:33:11.573976  6901 layer_factory.hpp:77] Creating layer lstm1_cont_slice
I0925 23:33:11.573995  6901 net.cpp:91] Creating Layer lstm1_cont_slice
I0925 23:33:11.574004  6901 net.cpp:425] lstm1_cont_slice <- cont
I0925 23:33:11.574017  6901 net.cpp:399] lstm1_cont_slice -> cont_1
I0925 23:33:11.574070  6901 net.cpp:141] Setting up lstm1_cont_slice
I0925 23:33:11.574085  6901 net.cpp:148] Top shape: 1 1 (1)
I0925 23:33:11.574092  6901 net.cpp:156] Memory required for data: 10008
I0925 23:33:11.574100  6901 layer_factory.hpp:77] Creating layer cont_1_lstm1_cont_slice_0_split
I0925 23:33:11.574115  6901 net.cpp:91] Creating Layer cont_1_lstm1_cont_slice_0_split
I0925 23:33:11.574123  6901 net.cpp:425] cont_1_lstm1_cont_slice_0_split <- cont_1
I0925 23:33:11.574137  6901 net.cpp:399] cont_1_lstm1_cont_slice_0_split -> cont_1_lstm1_cont_slice_0_split_0
I0925 23:33:11.574151  6901 net.cpp:399] cont_1_lstm1_cont_slice_0_split -> cont_1_lstm1_cont_slice_0_split_1
I0925 23:33:11.574219  6901 net.cpp:141] Setting up cont_1_lstm1_cont_slice_0_split
I0925 23:33:11.574234  6901 net.cpp:148] Top shape: 1 1 (1)
I0925 23:33:11.574244  6901 net.cpp:148] Top shape: 1 1 (1)
I0925 23:33:11.574251  6901 net.cpp:156] Memory required for data: 10016
I0925 23:33:11.574259  6901 layer_factory.hpp:77] Creating layer lstm1_x_transform
I0925 23:33:11.574285  6901 net.cpp:91] Creating Layer lstm1_x_transform
I0925 23:33:11.574293  6901 net.cpp:425] lstm1_x_transform <- x
I0925 23:33:11.574311  6901 net.cpp:399] lstm1_x_transform -> W_xc_x
I0925 23:33:11.586871  6946 net.cpp:141] Setting up embed_encoder
I0925 23:33:11.586968  6946 net.cpp:148] Top shape: 1 500 (500)
I0925 23:33:11.586980  6946 net.cpp:156] Memory required for data: 18404
I0925 23:33:11.587021  6946 layer_factory.hpp:77] Creating layer reshape_frames
I0925 23:33:11.587066  6946 net.cpp:91] Creating Layer reshape_frames
I0925 23:33:11.587083  6946 net.cpp:425] reshape_frames <- embedded_in_frames
I0925 23:33:11.587100  6946 net.cpp:399] reshape_frames -> embedded_input_frames
I0925 23:33:11.634399  6923 net.cpp:141] Setting up reshape_frames
I0925 23:33:11.634487  6923 net.cpp:148] Top shape: 1 1 500 (500)
I0925 23:33:11.634498  6923 net.cpp:156] Memory required for data: 20404
I0925 23:33:11.634515  6923 layer_factory.hpp:77] Creating layer reshape_stage_indicator
I0925 23:33:11.634552  6923 net.cpp:91] Creating Layer reshape_stage_indicator
I0925 23:33:11.634565  6923 net.cpp:425] reshape_stage_indicator <- stage_indicator
I0925 23:33:11.634583  6923 net.cpp:399] reshape_stage_indicator -> reshaped_stage_indicator
I0925 23:33:11.636075  6897 net.cpp:141] Setting up lstm1_
I0925 23:33:11.636122  6946 net.cpp:141] Setting up reshape_frames
I0925 23:33:11.636132  6897 net.cpp:148] Top shape: 1 1 500 (500)
I0925 23:33:11.636142  6946 net.cpp:148] Top shape: 1 1 500 (500)
I0925 23:33:11.636145  6897 net.cpp:148] Top shape: 1 1 (1)
I0925 23:33:11.636148  6946 net.cpp:156] Memory required for data: 20404
I0925 23:33:11.636152  6897 net.cpp:156] Memory required for data: 2004
I0925 23:33:11.636157  6946 layer_factory.hpp:77] Creating layer reshape_stage_indicator
I0925 23:33:11.636162  6897 layer_factory.hpp:77] Creating layer lstm1_
I0925 23:33:11.636179  6946 net.cpp:91] Creating Layer reshape_stage_indicator
I0925 23:33:11.636175  6889 net.cpp:141] Setting up embedding
I0925 23:33:11.636188  6946 net.cpp:425] reshape_stage_indicator <- stage_indicator
I0925 23:33:11.636181  6897 net.cpp:91] Creating Layer lstm1_
I0925 23:33:11.636200  6946 net.cpp:399] reshape_stage_indicator -> reshaped_stage_indicator
I0925 23:33:11.636204  6889 net.cpp:148] Top shape: 1 1 500 (500)
I0925 23:33:11.636221  6889 net.cpp:156] Memory required for data: 22408
I0925 23:33:11.636222  6897 net.cpp:399] lstm1_ -> c_0
I0925 23:33:11.636242  6889 layer_factory.hpp:77] Creating layer lstm1
I0925 23:33:11.636245  6897 net.cpp:399] lstm1_ -> h_0
I0925 23:33:11.636260  6889 net.cpp:91] Creating Layer lstm1
I0925 23:33:11.636270  6889 net.cpp:425] lstm1 <- embedded_input_frames
I0925 23:33:11.636317  6889 net.cpp:425] lstm1 <- cont_sentence_input_1_split_0
I0925 23:33:11.636333  6889 net.cpp:399] lstm1 -> lstm1
I0925 23:33:11.636351  6889 recurrent_layer.cpp:20] Initializing recurrent layer: assuming input batch contains 1 timesteps of 1 independent streams.
I0925 23:33:11.637143  6889 net.cpp:49] Initializing net from parameters: 
layer {
  name: "lstm1_"
  type: "Input"
  top: "x"
  top: "cont"
  input_param {
    shape {
      dim: 1
      dim: 1
      dim: 500
    }
    shape {
      dim: 1
      dim: 1
    }
  }
}
layer {
  name: "lstm1_"
  type: "Input"
  top: "c_0"
  top: "h_0"
  input_param {
    shape {
      dim: 1
      dim: 1
      dim: 1000
    }
    shape {
      dim: 1
      dim: 1
      dim: 1000
    }
  }
}
layer {
  name: "lstm1_cont_slice"
  type: "Slice"
  bottom: "cont"
  top: "cont_1"
  slice_param {
    axis: 0
  }
}
layer {
  name: "lstm1_x_transform"
  type: "InnerProduct"
  bottom: "x"
  top: "W_xc_x"
  param {
    name: "W_xc"
  }
  param {
    name: "b_c"
  }
  propagate_down: true
  inner_product_param {
    num_output: 4000
    bias_term: true
    weight_filler {
      type: "uniform"
      min: -0.08
      max: 0.08
    }
    bias_filler {
      type: "constant"
      value: 0
    }
    axis: 2
  }
}
layer {
  name: "lstm1_W_xc_x_slice"
  type: "Slice"
  bottom: "W_xc_x"
  top: "W_xc_x_1"
  slice_param {
    axis: 0
  }
}
layer {
  name: "lstm1_h_conted_0"
  type: "Scale"
  bottom: "h_0"
  bottom: "cont_1"
  top: "h_conted_0"
  scale_param {
    axis: 0
  }
}
layer {
  name: "lstm1_transform_1"
  type: "InnerProduct"
  bottom: "h_conted_0"
  top: "W_hc_h_0"
  param {
    name: "W_hc"
  }
  inner_product_param {
    num_output: 4000
    bias_term: false
    weight_filler {
      type: "uniform"
      min: -0.08
      max: 0.08
    }
    axis: 2
  }
}
layer {
  name: "lstm1_gate_input_1"
  type: "Eltwise"
  bottom: "W_hc_h_0"
  bottom: "W_xc_x_1"
  top: "gate_input_1"
  eltwise_param {
    operation: SUM
  }
}
layer {
  name: "lstm1_unit_1"
  type: "LSTMUnit"
  bottom: "c_0"
  bottom: "gate_input_1"
  bottom: "cont_1"
  top: "c_1"
  top: "h_1"
}
layer {
  name: "lstm1_"
  type: "Split"
  bottom: "c_1"
  top: "c_T"
}
layer {
  name: "lstm1_h_concat"
  type: "Concat"
  bottom: "h_1"
  top: "h"
  concat_param {
    axis: 0
  }
}
layer {
  name: "h_pseudoloss"
  type: "Reduction"
  bottom: "h"
  top: "h_pseudoloss"
  loss_weight: 1
}
I0925 23:33:11.637418  6889 layer_factory.hpp:77] Creating layer lstm1_
I0925 23:33:11.637439  6889 net.cpp:91] Creating Layer lstm1_
I0925 23:33:11.637449  6889 net.cpp:399] lstm1_ -> x
I0925 23:33:11.637471  6889 net.cpp:399] lstm1_ -> cont
I0925 23:33:11.637648  6923 net.cpp:141] Setting up reshape_stage_indicator
I0925 23:33:11.637670  6923 net.cpp:148] Top shape: 1 1 1 (1)
I0925 23:33:11.637677  6923 net.cpp:156] Memory required for data: 20408
I0925 23:33:11.637686  6923 layer_factory.hpp:77] Creating layer embedding
I0925 23:33:11.637706  6923 net.cpp:91] Creating Layer embedding
I0925 23:33:11.637715  6923 net.cpp:425] embedding <- input_sentence
I0925 23:33:11.637723  6946 net.cpp:141] Setting up reshape_stage_indicator
I0925 23:33:11.637732  6923 net.cpp:399] embedding -> embedded_input_sentence
I0925 23:33:11.637745  6946 net.cpp:148] Top shape: 1 1 1 (1)
I0925 23:33:11.637753  6946 net.cpp:156] Memory required for data: 20408
I0925 23:33:11.637763  6946 layer_factory.hpp:77] Creating layer embedding
I0925 23:33:11.637811  6946 net.cpp:91] Creating Layer embedding
I0925 23:33:11.637823  6946 net.cpp:425] embedding <- input_sentence
I0925 23:33:11.637842  6946 net.cpp:399] embedding -> embedded_input_sentence
I0925 23:33:11.695842  6901 net.cpp:141] Setting up lstm1_x_transform
I0925 23:33:11.695906  6901 net.cpp:148] Top shape: 1 1 4000 (4000)
I0925 23:33:11.695914  6901 net.cpp:156] Memory required for data: 26016
I0925 23:33:11.695943  6901 layer_factory.hpp:77] Creating layer lstm1_W_xc_x_slice
I0925 23:33:11.695963  6901 net.cpp:91] Creating Layer lstm1_W_xc_x_slice
I0925 23:33:11.695972  6901 net.cpp:425] lstm1_W_xc_x_slice <- W_xc_x
I0925 23:33:11.695986  6901 net.cpp:399] lstm1_W_xc_x_slice -> W_xc_x_1
I0925 23:33:11.696045  6901 net.cpp:141] Setting up lstm1_W_xc_x_slice
I0925 23:33:11.696058  6901 net.cpp:148] Top shape: 1 1 4000 (4000)
I0925 23:33:11.696065  6901 net.cpp:156] Memory required for data: 42016
I0925 23:33:11.696072  6901 layer_factory.hpp:77] Creating layer lstm1_h_conted_0
I0925 23:33:11.696099  6901 net.cpp:91] Creating Layer lstm1_h_conted_0
I0925 23:33:11.696105  6901 net.cpp:425] lstm1_h_conted_0 <- h_0
I0925 23:33:11.696115  6901 net.cpp:425] lstm1_h_conted_0 <- cont_1_lstm1_cont_slice_0_split_0
I0925 23:33:11.696125  6901 net.cpp:399] lstm1_h_conted_0 -> h_conted_0
I0925 23:33:11.696267  6901 net.cpp:141] Setting up lstm1_h_conted_0
I0925 23:33:11.696281  6901 net.cpp:148] Top shape: 1 1 1000 (1000)
I0925 23:33:11.696288  6901 net.cpp:156] Memory required for data: 46016
I0925 23:33:11.696295  6901 layer_factory.hpp:77] Creating layer lstm1_transform_1
I0925 23:33:11.696311  6901 net.cpp:91] Creating Layer lstm1_transform_1
I0925 23:33:11.696319  6901 net.cpp:425] lstm1_transform_1 <- h_conted_0
I0925 23:33:11.696331  6901 net.cpp:399] lstm1_transform_1 -> W_hc_h_0
I0925 23:33:11.758345  6937 net.cpp:141] Setting up embedding
I0925 23:33:11.758430  6897 net.cpp:141] Setting up lstm1_
I0925 23:33:11.758468  6889 net.cpp:141] Setting up lstm1_
I0925 23:33:11.758482  6897 net.cpp:148] Top shape: 1 1 1000 (1000)
I0925 23:33:11.758488  6889 net.cpp:148] Top shape: 1 1 500 (500)
I0925 23:33:11.758517  6889 net.cpp:148] Top shape: 1 1 (1)
I0925 23:33:11.758522  6897 net.cpp:148] Top shape: 1 1 1000 (1000)
I0925 23:33:11.758533  6937 net.cpp:148] Top shape: 1 1 500 (500)
I0925 23:33:11.758527  6889 net.cpp:156] Memory required for data: 2004
I0925 23:33:11.758548  6897 net.cpp:156] Memory required for data: 10004
I0925 23:33:11.758554  6889 layer_factory.hpp:77] Creating layer lstm1_
I0925 23:33:11.758564  6937 net.cpp:156] Memory required for data: 22408
I0925 23:33:11.758615  6889 net.cpp:91] Creating Layer lstm1_
I0925 23:33:11.758577  6897 layer_factory.hpp:77] Creating layer lstm1_cont_slice
I0925 23:33:11.758661  6889 net.cpp:399] lstm1_ -> c_0
I0925 23:33:11.761559  6897 net.cpp:91] Creating Layer lstm1_cont_slice
I0925 23:33:11.761728  6897 net.cpp:425] lstm1_cont_slice <- cont
I0925 23:33:11.761762  6897 net.cpp:399] lstm1_cont_slice -> cont_1
I0925 23:33:11.761668  6889 net.cpp:399] lstm1_ -> h_0
I0925 23:33:11.761947  6897 net.cpp:141] Setting up lstm1_cont_slice
I0925 23:33:11.761972  6897 net.cpp:148] Top shape: 1 1 (1)
I0925 23:33:11.761982  6897 net.cpp:156] Memory required for data: 10008
I0925 23:33:11.761996  6897 layer_factory.hpp:77] Creating layer cont_1_lstm1_cont_slice_0_split
I0925 23:33:11.762014  6897 net.cpp:91] Creating Layer cont_1_lstm1_cont_slice_0_split
I0925 23:33:11.762027  6897 net.cpp:425] cont_1_lstm1_cont_slice_0_split <- cont_1
I0925 23:33:11.762048  6897 net.cpp:399] cont_1_lstm1_cont_slice_0_split -> cont_1_lstm1_cont_slice_0_split_0
I0925 23:33:11.762069  6897 net.cpp:399] cont_1_lstm1_cont_slice_0_split -> cont_1_lstm1_cont_slice_0_split_1
I0925 23:33:11.762368  6937 layer_factory.hpp:77] Creating layer lstm1
I0925 23:33:11.762403  6937 net.cpp:91] Creating Layer lstm1
I0925 23:33:11.762413  6937 net.cpp:425] lstm1 <- embedded_input_frames
I0925 23:33:11.762426  6937 net.cpp:425] lstm1 <- cont_sentence_input_1_split_0
I0925 23:33:11.762441  6937 net.cpp:399] lstm1 -> lstm1
I0925 23:33:11.762460  6937 recurrent_layer.cpp:20] Initializing recurrent layer: assuming input batch contains 1 timesteps of 1 independent streams.
I0925 23:33:11.761582  6901 net.cpp:141] Setting up lstm1_transform_1
I0925 23:33:11.761582  6950 net.cpp:141] Setting up embedding
I0925 23:33:11.761562  6917 net.cpp:141] Setting up embedding
I0925 23:33:11.765259  6901 net.cpp:148] Top shape: 1 1 4000 (4000)
I0925 23:33:11.765269  6901 net.cpp:156] Memory required for data: 62016
I0925 23:33:11.765275  6950 net.cpp:148] Top shape: 1 1 500 (500)
I0925 23:33:11.765275  6917 net.cpp:148] Top shape: 1 1 500 (500)
I0925 23:33:11.765283  6950 net.cpp:156] Memory required for data: 22408
I0925 23:33:11.765287  6917 net.cpp:156] Memory required for data: 22408
I0925 23:33:11.765296  6901 layer_factory.hpp:77] Creating layer lstm1_gate_input_1
I0925 23:33:11.765305  6950 layer_factory.hpp:77] Creating layer lstm1
I0925 23:33:11.765321  6901 net.cpp:91] Creating Layer lstm1_gate_input_1
I0925 23:33:11.765332  6901 net.cpp:425] lstm1_gate_input_1 <- W_hc_h_0
I0925 23:33:11.765334  6917 layer_factory.hpp:77] Creating layer lstm1
I0925 23:33:11.765341  6901 net.cpp:425] lstm1_gate_input_1 <- W_xc_x_1
I0925 23:33:11.765347  6950 net.cpp:91] Creating Layer lstm1
I0925 23:33:11.765350  6901 net.cpp:399] lstm1_gate_input_1 -> gate_input_1
I0925 23:33:11.765359  6950 net.cpp:425] lstm1 <- embedded_input_frames
I0925 23:33:11.765368  6950 net.cpp:425] lstm1 <- cont_sentence_input_1_split_0
I0925 23:33:11.765370  6937 net.cpp:49] Initializing net from parameters: 
layer {
  name: "lstm1_"
  type: "Input"
  top: "x"
  top: "cont"
  input_param {
    shape {
      dim: 1
      dim: 1
      dim: 500
    }
    shape {
      dim: 1
      dim: 1
    }
  }
}
layer {
  name: "lstm1_"
  type: "Input"
  top: "c_0"
  top: "h_0"
  input_param {
    shape {
      dim: 1
      dim: 1
      dim: 1000
    }
    shape {
      dim: 1
      dim: 1
      dim: 1000
    }
  }
}
layer {
  name: "lstm1_cont_slice"
  type: "Slice"
  bottom: "cont"
  top: "cont_1"
  slice_param {
    axis: 0
  }
}
layer {
  name: "lstm1_x_transform"
  type: "InnerProduct"
  bottom: "x"
  top: "W_xc_x"
  param {
    name: "W_xc"
  }
  param {
    name: "b_c"
  }
  propagate_down: true
  inner_product_param {
    num_output: 4000
    bias_term: true
    weight_filler {
      type: "uniform"
      min: -0.08
      max: 0.08
    }
    bias_filler {
      type: "constant"
      value: 0
    }
    axis: 2
  }
}
layer {
  name: "lstm1_W_xc_x_slice"
  type: "Slice"
  bottom: "W_xc_x"
  top: "W_xc_x_1"
  slice_param {
    axis: 0
  }
}
layer {
  name: "lstm1_h_conted_0"
  type: "Scale"
  bottom: "h_0"
  bottom: "cont_1"
  top: "h_conted_0"
  scale_param {
    axis: 0
  }
}
layer {
  name: "lstm1_transform_1"
  type: "InnerProduct"
  bottom: "h_conted_0"
  top: "W_hc_h_0"
  param {
    name: "W_hc"
  }
  inner_product_param {
    num_output: 4000
    bias_term: false
    weight_filler {
      type: "uniform"
      min: -0.08
      max: 0.08
    }
    axis: 2
  }
}
layer {
  name: "lstm1_gate_input_1"
  type: "Eltwise"
  bottom: "W_hc_h_0"
  bottom: "W_xc_x_1"
  top: "gate_input_1"
  eltwise_param {
    operation: SUM
  }
}
layer {
  name: "lstm1_unit_1"
  type: "LSTMUnit"
  bottom: "c_0"
  bottom: "gate_input_1"
  bottom: "cont_1"
  top: "c_1"
  top: "h_1"
}
layer {
  name: "lstm1_"
  type: "Split"
  bottom: "c_1"
  top: "c_T"
}
layer {
  name: "lstm1_h_concat"
  type: "Concat"
  bottom: "h_1"
  top: "h"
  concat_param {
    axis: 0
  }
}
layer {
  name: "h_pseudoloss"
  type: "Reduction"
  bottom: "h"
  top: "h_pseudoloss"
  loss_weight: 1
}
I0925 23:33:11.765384  6950 net.cpp:399] lstm1 -> lstm1
I0925 23:33:11.765368  6917 net.cpp:91] Creating Layer lstm1
I0925 23:33:11.765398  6917 net.cpp:425] lstm1 <- embedded_input_frames
I0925 23:33:11.765404  6950 recurrent_layer.cpp:20] Initializing recurrent layer: assuming input batch contains 1 timesteps of 1 independent streams.
I0925 23:33:11.765406  6917 net.cpp:425] lstm1 <- cont_sentence_input_1_split_0
I0925 23:33:11.765419  6917 net.cpp:399] lstm1 -> lstm1
I0925 23:33:11.765434  6917 recurrent_layer.cpp:20] Initializing recurrent layer: assuming input batch contains 1 timesteps of 1 independent streams.
I0925 23:33:11.765516  6937 layer_factory.hpp:77] Creating layer lstm1_
I0925 23:33:11.765538  6937 net.cpp:91] Creating Layer lstm1_
I0925 23:33:11.765547  6937 net.cpp:399] lstm1_ -> x
I0925 23:33:11.765559  6937 net.cpp:399] lstm1_ -> cont
I0925 23:33:11.765748  6950 net.cpp:49] Initializing net from parameters: 
layer {
  name: "lstm1_"
  type: "Input"
  top: "x"
  top: "cont"
  input_param {
    shape {
      dim: 1
      dim: 1
      dim: 500
    }
    shape {
      dim: 1
      dim: 1
    }
  }
}
layer {
  name: "lstm1_"
  type: "Input"
  top: "c_0"
  top: "h_0"
  input_param {
    shape {
      dim: 1
      dim: 1
      dim: 1000
    }
    shape {
      dim: 1
      dim: 1
      dim: 1000
    }
  }
}
layer {
  name: "lstm1_cont_slice"
  type: "Slice"
  bottom: "cont"
  top: "cont_1"
  slice_param {
    axis: 0
  }
}
layer {
  name: "lstm1_x_transform"
  type: "InnerProduct"
  bottom: "x"
  top: "W_xc_x"
  param {
    name: "W_xc"
  }
  param {
    name: "b_c"
  }
  propagate_down: true
  inner_product_param {
    num_output: 4000
    bias_term: true
    weight_filler {
      type: "uniform"
      min: -0.08
      max: 0.08
    }
    bias_filler {
      type: "constant"
      value: 0
    }
    axis: 2
  }
}
layer {
  name: "lstm1_W_xc_x_slice"
  type: "Slice"
  bottom: "W_xc_x"
  top: "W_xc_x_1"
  slice_param {
    axis: 0
  }
}
layer {
  name: "lstm1_h_conted_0"
  type: "Scale"
  bottom: "h_0"
  bottom: "cont_1"
  top: "h_conted_0"
  scale_param {
    axis: 0
  }
}
layer {
  name: "lstm1_transform_1"
  type: "InnerProduct"
  bottom: "h_conted_0"
  top: "W_hc_h_0"
  param {
    name: "W_hc"
  }
  inner_product_param {
    num_output: 4000
    bias_term: false
    weight_filler {
      type: "uniform"
      min: -0.08
      max: 0.08
    }
    axis: 2
  }
}
layer {
  name: "lstm1_gate_input_1"
  type: "Eltwise"
  bottom: "W_hc_h_0"
  bottom: "W_xc_x_1"
  top: "gate_input_1"
  eltwise_param {
    operation: SUM
  }
}
layer {
  name: "lstm1_unit_1"
  type: "LSTMUnit"
  bottom: "c_0"
  bottom: "gate_input_1"
  bottom: "cont_1"
  top: "c_1"
  top: "h_1"
}
layer {
  name: "lstm1_"
  type: "Split"
  bottom: "c_1"
  top: "c_T"
}
layer {
  name: "lstm1_h_concat"
  type: "Concat"
  bottom: "h_1"
  top: "h"
  concat_param {
    axis: 0
  }
}
layer {
  name: "h_pseudoloss"
  type: "Reduction"
  bottom: "h"
  top: "h_pseudoloss"
  loss_weight: 1
}
I0925 23:33:11.765753  6917 net.cpp:49] Initializing net from parameters: 
layer {
  name: "lstm1_"
  type: "Input"
  top: "x"
  top: "cont"
  input_param {
    shape {
      dim: 1
      dim: 1
      dim: 500
    }
    shape {
      dim: 1
      dim: 1
    }
  }
}
layer {
  name: "lstm1_"
  type: "Input"
  top: "c_0"
  top: "h_0"
  input_param {
    shape {
      dim: 1
      dim: 1
      dim: 1000
    }
    shape {
      dim: 1
      dim: 1
      dim: 1000
    }
  }
}
layer {
  name: "lstm1_cont_slice"
  type: "Slice"
  bottom: "cont"
  top: "cont_1"
  slice_param {
    axis: 0
  }
}
layer {
  name: "lstm1_x_transform"
  type: "InnerProduct"
  bottom: "x"
  top: "W_xc_x"
  param {
    name: "W_xc"
  }
  param {
    name: "b_c"
  }
  propagate_down: true
  inner_product_param {
    num_output: 4000
    bias_term: true
    weight_filler {
      type: "uniform"
      min: -0.08
      max: 0.08
    }
    bias_filler {
      type: "constant"
      value: 0
    }
    axis: 2
  }
}
layer {
  name: "lstm1_W_xc_x_slice"
  type: "Slice"
  bottom: "W_xc_x"
  top: "W_xc_x_1"
  slice_param {
    axis: 0
  }
}
layer {
  name: "lstm1_h_conted_0"
  type: "Scale"
  bottom: "h_0"
  bottom: "cont_1"
  top: "h_conted_0"
  scale_param {
    axis: 0
  }
}
layer {
  name: "lstm1_transform_1"
  type: "InnerProduct"
  bottom: "h_conted_0"
  top: "W_hc_h_0"
  param {
    name: "W_hc"
  }
  inner_product_param {
    num_output: 4000
    bias_term: false
    weight_filler {
      type: "uniform"
      min: -0.08
      max: 0.08
    }
    axis: 2
  }
}
layer {
  name: "lstm1_gate_input_1"
  type: "Eltwise"
  bottom: "W_hc_h_0"
  bottom: "W_xc_x_1"
  top: "gate_input_1"
  eltwise_param {
    operation: SUM
  }
}
layer {
  name: "lstm1_unit_1"
  type: "LSTMUnit"
  bottom: "c_0"
  bottom: "gate_input_1"
  bottom: "cont_1"
  top: "c_1"
  top: "h_1"
}
layer {
  name: "lstm1_"
  type: "Split"
  bottom: "c_1"
  top: "c_T"
}
layer {
  name: "lstm1_h_concat"
  type: "Concat"
  bottom: "h_1"
  top: "h"
  concat_param {
    axis: 0
  }
}
layer {
  name: "h_pseudoloss"
  type: "Reduction"
  bottom: "h"
  top: "h_pseudoloss"
  loss_weight: 1
}
I0925 23:33:11.765874  6950 layer_factory.hpp:77] Creating layer lstm1_
I0925 23:33:11.765877  6917 layer_factory.hpp:77] Creating layer lstm1_
I0925 23:33:11.765892  6950 net.cpp:91] Creating Layer lstm1_
I0925 23:33:11.765900  6950 net.cpp:399] lstm1_ -> x
I0925 23:33:11.765900  6917 net.cpp:91] Creating Layer lstm1_
I0925 23:33:11.765908  6917 net.cpp:399] lstm1_ -> x
I0925 23:33:11.765913  6950 net.cpp:399] lstm1_ -> cont
I0925 23:33:11.765920  6917 net.cpp:399] lstm1_ -> cont
I0925 23:33:11.800323  6901 net.cpp:141] Setting up lstm1_gate_input_1
I0925 23:33:11.800376  6901 net.cpp:148] Top shape: 1 1 4000 (4000)
I0925 23:33:11.800387  6901 net.cpp:156] Memory required for data: 78016
I0925 23:33:11.800400  6901 layer_factory.hpp:77] Creating layer lstm1_unit_1
I0925 23:33:11.800428  6901 net.cpp:91] Creating Layer lstm1_unit_1
I0925 23:33:11.800439  6901 net.cpp:425] lstm1_unit_1 <- c_0
I0925 23:33:11.800439  6950 net.cpp:141] Setting up lstm1_
I0925 23:33:11.800454  6901 net.cpp:425] lstm1_unit_1 <- gate_input_1
I0925 23:33:11.800457  6950 net.cpp:148] Top shape: 1 1 500 (500)
I0925 23:33:11.800464  6901 net.cpp:425] lstm1_unit_1 <- cont_1_lstm1_cont_slice_0_split_1
I0925 23:33:11.800468  6950 net.cpp:148] Top shape: 1 1 (1)
I0925 23:33:11.800477  6950 net.cpp:156] Memory required for data: 2004
I0925 23:33:11.800478  6901 net.cpp:399] lstm1_unit_1 -> c_1
I0925 23:33:11.800487  6950 layer_factory.hpp:77] Creating layer lstm1_
I0925 23:33:11.800498  6901 net.cpp:399] lstm1_unit_1 -> h_1
I0925 23:33:11.800535  6950 net.cpp:91] Creating Layer lstm1_
I0925 23:33:11.800551  6950 net.cpp:399] lstm1_ -> c_0
I0925 23:33:11.800575  6950 net.cpp:399] lstm1_ -> h_0
I0925 23:33:11.800626  6901 net.cpp:141] Setting up lstm1_unit_1
I0925 23:33:11.800643  6901 net.cpp:148] Top shape: 1 1 1000 (1000)
I0925 23:33:11.800652  6901 net.cpp:148] Top shape: 1 1 1000 (1000)
I0925 23:33:11.800657  6901 net.cpp:156] Memory required for data: 86016
I0925 23:33:11.800662  6889 net.cpp:141] Setting up lstm1_
I0925 23:33:11.800667  6901 layer_factory.hpp:77] Creating layer lstm1_
I0925 23:33:11.800705  6901 net.cpp:91] Creating Layer lstm1_
I0925 23:33:11.800703  6897 net.cpp:141] Setting up cont_1_lstm1_cont_slice_0_split
I0925 23:33:11.800700  6889 net.cpp:148] Top shape: 1 1 1000 (1000)
I0925 23:33:11.800724  6901 net.cpp:425] lstm1_ <- c_1
I0925 23:33:11.800731  6889 net.cpp:148] Top shape: 1 1 1000 (1000)
I0925 23:33:11.800732  6897 net.cpp:148] Top shape: 1 1 (1)
I0925 23:33:11.800737  6901 net.cpp:399] lstm1_ -> c_T
I0925 23:33:11.800750  6889 net.cpp:156] Memory required for data: 10004
I0925 23:33:11.800753  6897 net.cpp:148] Top shape: 1 1 (1)
I0925 23:33:11.800760  6889 layer_factory.hpp:77] Creating layer lstm1_cont_slice
I0925 23:33:11.800761  6897 net.cpp:156] Memory required for data: 10016
I0925 23:33:11.800771  6897 layer_factory.hpp:77] Creating layer lstm1_x_transform
I0925 23:33:11.801146  6897 net.cpp:91] Creating Layer lstm1_x_transform
I0925 23:33:11.801152  6937 net.cpp:141] Setting up lstm1_
I0925 23:33:11.801162  6897 net.cpp:425] lstm1_x_transform <- x
I0925 23:33:11.801183  6897 net.cpp:399] lstm1_x_transform -> W_xc_x
I0925 23:33:11.801187  6937 net.cpp:148] Top shape: 1 1 500 (500)
I0925 23:33:11.801201  6937 net.cpp:148] Top shape: 1 1 (1)
I0925 23:33:11.801208  6937 net.cpp:156] Memory required for data: 2004
I0925 23:33:11.801218  6937 layer_factory.hpp:77] Creating layer lstm1_
I0925 23:33:11.801237  6937 net.cpp:91] Creating Layer lstm1_
I0925 23:33:11.801255  6937 net.cpp:399] lstm1_ -> c_0
I0925 23:33:11.801277  6937 net.cpp:399] lstm1_ -> h_0
I0925 23:33:11.801359  6950 net.cpp:141] Setting up lstm1_
I0925 23:33:11.801376  6901 net.cpp:141] Setting up lstm1_
I0925 23:33:11.801381  6950 net.cpp:148] Top shape: 1 1 1000 (1000)
I0925 23:33:11.801394  6950 net.cpp:148] Top shape: 1 1 1000 (1000)
I0925 23:33:11.801393  6901 net.cpp:148] Top shape: 1 1 1000 (1000)
I0925 23:33:11.801409  6950 net.cpp:156] Memory required for data: 10004
I0925 23:33:11.801414  6901 net.cpp:156] Memory required for data: 90016
I0925 23:33:11.801421  6950 layer_factory.hpp:77] Creating layer lstm1_cont_slice
I0925 23:33:11.801424  6901 layer_factory.hpp:77] Creating layer lstm1_h_concat
I0925 23:33:11.801437  6950 net.cpp:91] Creating Layer lstm1_cont_slice
I0925 23:33:11.801442  6901 net.cpp:91] Creating Layer lstm1_h_concat
I0925 23:33:11.801457  6950 net.cpp:425] lstm1_cont_slice <- cont
I0925 23:33:11.801461  6901 net.cpp:425] lstm1_h_concat <- h_1
I0925 23:33:11.801476  6901 net.cpp:399] lstm1_h_concat -> h
I0925 23:33:11.801470  6917 net.cpp:141] Setting up lstm1_
I0925 23:33:11.801494  6950 net.cpp:399] lstm1_cont_slice -> cont_1
I0925 23:33:11.801524  6917 net.cpp:148] Top shape: 1 1 500 (500)
I0925 23:33:11.801543  6917 net.cpp:148] Top shape: 1 1 (1)
I0925 23:33:11.801553  6917 net.cpp:156] Memory required for data: 2004
I0925 23:33:11.801566  6917 layer_factory.hpp:77] Creating layer lstm1_
I0925 23:33:11.801565  6901 net.cpp:141] Setting up lstm1_h_concat
I0925 23:33:11.801602  6901 net.cpp:148] Top shape: 1 1 1000 (1000)
I0925 23:33:11.801606  6917 net.cpp:91] Creating Layer lstm1_
I0925 23:33:11.801614  6901 net.cpp:156] Memory required for data: 94016
I0925 23:33:11.801625  6901 layer_factory.hpp:77] Creating layer h_pseudoloss
I0925 23:33:11.801633  6917 net.cpp:399] lstm1_ -> c_0
I0925 23:33:11.801643  6901 net.cpp:91] Creating Layer h_pseudoloss
I0925 23:33:11.801652  6901 net.cpp:425] h_pseudoloss <- h
I0925 23:33:11.801663  6917 net.cpp:399] lstm1_ -> h_0
I0925 23:33:11.801672  6901 net.cpp:399] h_pseudoloss -> h_pseudoloss
I0925 23:33:11.801728  6950 net.cpp:141] Setting up lstm1_cont_slice
I0925 23:33:11.801749  6950 net.cpp:148] Top shape: 1 1 (1)
I0925 23:33:11.801759  6950 net.cpp:156] Memory required for data: 10008
I0925 23:33:11.801769  6950 layer_factory.hpp:77] Creating layer cont_1_lstm1_cont_slice_0_split
I0925 23:33:11.801782  6950 net.cpp:91] Creating Layer cont_1_lstm1_cont_slice_0_split
I0925 23:33:11.801794  6950 net.cpp:425] cont_1_lstm1_cont_slice_0_split <- cont_1
I0925 23:33:11.801807  6950 net.cpp:399] cont_1_lstm1_cont_slice_0_split -> cont_1_lstm1_cont_slice_0_split_0
I0925 23:33:11.801825  6950 net.cpp:399] cont_1_lstm1_cont_slice_0_split -> cont_1_lstm1_cont_slice_0_split_1
I0925 23:33:11.801837  6901 net.cpp:141] Setting up h_pseudoloss
I0925 23:33:11.801859  6901 net.cpp:148] Top shape: (1)
I0925 23:33:11.801869  6901 net.cpp:151]     with loss weight 1
I0925 23:33:11.801945  6950 net.cpp:141] Setting up cont_1_lstm1_cont_slice_0_split
I0925 23:33:11.801956  6901 net.cpp:156] Memory required for data: 94020
I0925 23:33:11.801962  6950 net.cpp:148] Top shape: 1 1 (1)
I0925 23:33:11.801969  6901 net.cpp:217] h_pseudoloss needs backward computation.
I0925 23:33:11.801975  6950 net.cpp:148] Top shape: 1 1 (1)
I0925 23:33:11.801978  6901 net.cpp:217] lstm1_h_concat needs backward computation.
I0925 23:33:11.801985  6950 net.cpp:156] Memory required for data: 10016
I0925 23:33:11.801986  6901 net.cpp:219] lstm1_ does not need backward computation.
I0925 23:33:11.802004  6950 layer_factory.hpp:77] Creating layer lstm1_x_transform
I0925 23:33:11.802007  6901 net.cpp:217] lstm1_unit_1 needs backward computation.
…
I0925 23:33:11.801157  6889 net.cpp:91] Creating Layer lstm1_cont_slice
I0925 23:33:11.802234  6889 net.cpp:425] lstm1_cont_slice <- cont
I0925 23:33:11.802253  6889 net.cpp:399] lstm1_cont_slice -> cont_1
I0925 23:33:11.802368  6901 net.cpp:274] Network initialization done.
I0925 23:33:11.802474  6901 recurrent_layer.cpp:150] Adding parameter 0: W_xc
I0925 23:33:11.802489  6901 recurrent_layer.cpp:150] Adding parameter 1: b_c
I0925 23:33:11.802498  6901 recurrent_layer.cpp:150] Adding parameter 2: W_hc
I0925 23:33:11.808403  6937 net.cpp:141] Setting up lstm1_
I0925 23:33:11.808452  6937 net.cpp:148] Top shape: 1 1 1000 (1000)
I0925 23:33:11.808465  6937 net.cpp:148] Top shape: 1 1 1000 (1000)
I0925 23:33:11.808473  6937 net.cpp:156] Memory required for data: 10004
I0925 23:33:11.808485  6937 layer_factory.hpp:77] Creating layer lstm1_cont_slice
I0925 23:33:11.808506  6937 net.cpp:91] Creating Layer lstm1_cont_slice
I0925 23:33:11.808517  6937 net.cpp:425] lstm1_cont_slice <- cont
I0925 23:33:11.808533  6937 net.cpp:399] lstm1_cont_slice -> cont_1
I0925 23:33:11.814424  6889 net.cpp:141] Setting up lstm1_cont_slice
I0925 23:33:11.814477  6889 net.cpp:148] Top shape: 1 1 (1)
I0925 23:33:11.814486  6889 net.cpp:156] Memory required for data: 10008
I0925 23:33:11.814502  6889 layer_factory.hpp:77] Creating layer cont_1_lstm1_cont_slice_0_split
I0925 23:33:11.814522  6889 net.cpp:91] Creating Layer cont_1_lstm1_cont_slice_0_split
I0925 23:33:11.814534  6889 net.cpp:425] cont_1_lstm1_cont_slice_0_split <- cont_1
I0925 23:33:11.814570  6889 net.cpp:399] cont_1_lstm1_cont_slice_0_split -> cont_1_lstm1_cont_slice_0_split_0
I0925 23:33:11.814592  6889 net.cpp:399] cont_1_lstm1_cont_slice_0_split -> cont_1_lstm1_cont_slice_0_split_1
I0925 23:33:11.814692  6889 net.cpp:141] Setting up cont_1_lstm1_cont_slice_0_split
I0925 23:33:11.814707  6889 net.cpp:148] Top shape: 1 1 (1)
I0925 23:33:11.814719  6889 net.cpp:148] Top shape: 1 1 (1)
I0925 23:33:11.814728  6889 net.cpp:156] Memory required for data: 10016
I0925 23:33:11.814738  6889 layer_factory.hpp:77] Creating layer lstm1_x_transform
I0925 23:33:11.814776  6889 net.cpp:91] Creating Layer lstm1_x_transform
I0925 23:33:11.814787  6889 net.cpp:425] lstm1_x_transform <- x
I0925 23:33:11.814801  6889 net.cpp:399] lstm1_x_transform -> W_xc_x
I0925 23:33:11.814808  6917 net.cpp:141] Setting up lstm1_
I0925 23:33:11.814847  6917 net.cpp:148] Top shape: 1 1 1000 (1000)
I0925 23:33:11.814856  6917 net.cpp:148] Top shape: 1 1 1000 (1000)
I0925 23:33:11.814860  6917 net.cpp:156] Memory required for data: 10004
I0925 23:33:11.814868  6917 layer_factory.hpp:77] Creating layer lstm1_cont_slice
I0925 23:33:11.814880  6937 net.cpp:141] Setting up lstm1_cont_slice
I0925 23:33:11.814888  6917 net.cpp:91] Creating Layer lstm1_cont_slice
I0925 23:33:11.814908  6917 net.cpp:425] lstm1_cont_slice <- cont
I0925 23:33:11.814908  6937 net.cpp:148] Top shape: 1 1 (1)
I0925 23:33:11.814918  6937 net.cpp:156] Memory required for data: 10008
I0925 23:33:11.814919  6917 net.cpp:399] lstm1_cont_slice -> cont_1
I0925 23:33:11.814931  6937 layer_factory.hpp:77] Creating layer cont_1_lstm1_cont_slice_0_split
I0925 23:33:11.814952  6937 net.cpp:91] Creating Layer cont_1_lstm1_cont_slice_0_split
I0925 23:33:11.814963  6937 net.cpp:425] cont_1_lstm1_cont_slice_0_split <- cont_1
I0925 23:33:11.814976  6937 net.cpp:399] cont_1_lstm1_cont_slice_0_split -> cont_1_lstm1_cont_slice_0_split_0
I0925 23:33:11.814992  6937 net.cpp:399] cont_1_lstm1_cont_slice_0_split -> cont_1_lstm1_cont_slice_0_split_1
I0925 23:33:11.815018  6901 net.cpp:141] Setting up lstm1
I0925 23:33:11.815055  6901 net.cpp:148] Top shape: 1 1 1000 (1000)
I0925 23:33:11.815073  6901 net.cpp:156] Memory required for data: 26408
I0925 23:33:11.815093  6917 net.cpp:141] Setting up lstm1_cont_slice
I0925 23:33:11.815107  6917 net.cpp:148] Top shape: 1 1 (1)
I0925 23:33:11.815112  6917 net.cpp:156] Memory required for data: 10008
I0925 23:33:11.815119  6917 layer_factory.hpp:77] Creating layer cont_1_lstm1_cont_slice_0_split
I0925 23:33:11.815130  6917 net.cpp:91] Creating Layer cont_1_lstm1_cont_slice_0_split
I0925 23:33:11.815125  6901 layer_factory.hpp:77] Creating layer concat
I0925 23:33:11.815137  6917 net.cpp:425] cont_1_lstm1_cont_slice_0_split <- cont_1
I0925 23:33:11.815158  6917 net.cpp:399] cont_1_lstm1_cont_slice_0_split -> cont_1_lstm1_cont_slice_0_split_0
I0925 23:33:11.815171  6917 net.cpp:399] cont_1_lstm1_cont_slice_0_split -> cont_1_lstm1_cont_slice_0_split_1
I0925 23:33:11.815167  6901 net.cpp:91] Creating Layer concat
I0925 23:33:11.815191  6901 net.cpp:425] concat <- lstm1
I0925 23:33:11.815210  6901 net.cpp:425] concat <- embedded_input_sentence
I0925 23:33:11.815229  6901 net.cpp:425] concat <- reshaped_stage_indicator
I0925 23:33:11.815253  6901 net.cpp:399] concat -> lstm1_video_sequence
I0925 23:33:11.821868  6937 net.cpp:141] Setting up cont_1_lstm1_cont_slice_0_split
I0925 23:33:11.821912  6937 net.cpp:148] Top shape: 1 1 (1)
I0925 23:33:11.821923  6937 net.cpp:148] Top shape: 1 1 (1)
I0925 23:33:11.821930  6937 net.cpp:156] Memory required for data: 10016
I0925 23:33:11.821940  6937 layer_factory.hpp:77] Creating layer lstm1_x_transform
I0925 23:33:11.821946  6917 net.cpp:141] Setting up cont_1_lstm1_cont_slice_0_split
I0925 23:33:11.821967  6937 net.cpp:91] Creating Layer lstm1_x_transform
I0925 23:33:11.821971  6917 net.cpp:148] Top shape: 1 1 (1)
I0925 23:33:11.821979  6937 net.cpp:425] lstm1_x_transform <- x
I0925 23:33:11.821985  6917 net.cpp:148] Top shape: 1 1 (1)
I0925 23:33:11.821995  6917 net.cpp:156] Memory required for data: 10016
I0925 23:33:11.822003  6917 layer_factory.hpp:77] Creating layer lstm1_x_transform
I0925 23:33:11.822005  6937 net.cpp:399] lstm1_x_transform -> W_xc_x
I0925 23:33:11.822027  6917 net.cpp:91] Creating Layer lstm1_x_transform
I0925 23:33:11.822038  6917 net.cpp:425] lstm1_x_transform <- x
I0925 23:33:11.822058  6917 net.cpp:399] lstm1_x_transform -> W_xc_x
I0925 23:33:11.822016  6911 net.cpp:141] Setting up embedding
I0925 23:33:11.822073  6901 net.cpp:141] Setting up concat
I0925 23:33:11.822108  6901 net.cpp:148] Top shape: 1 1 1501 (1501)
I0925 23:33:11.822106  6911 net.cpp:148] Top shape: 1 1 500 (500)
I0925 23:33:11.822127  6901 net.cpp:156] Memory required for data: 32412
I0925 23:33:11.822130  6911 net.cpp:156] Memory required for data: 22408
I0925 23:33:11.822136  6901 layer_factory.hpp:77] Creating layer lstm2
I0925 23:33:11.822149  6911 layer_factory.hpp:77] Creating layer lstm1
I0925 23:33:11.822160  6901 net.cpp:91] Creating Layer lstm2
I0925 23:33:11.822171  6901 net.cpp:425] lstm2 <- lstm1_video_sequence
…
I0925 23:33:11.822252  6901 recurrent_layer.cpp:20] Initializing recurrent layer: assuming input batch contains 1 timesteps of 1 independent streams.
I0925 23:33:11.822561  6911 net.cpp:49] Initializing net from parameters: 
layer {
  name: "lstm1_"
  type: "Input"
  top: "x"
  top: "cont"
  input_param {
    shape {
      dim: 1
      dim: 1
      dim: 500
    }
    shape {
      dim: 1
      dim: 1
    }
  }
}
layer {
  name: "lstm1_"
  type: "Input"
  top: "c_0"
  top: "h_0"
  input_param {
    shape {
      dim: 1
      dim: 1
      dim: 1000
    }
    shape {
      dim: 1
      dim: 1
      dim: 1000
    }
  }
}
layer {
  name: "lstm1_cont_slice"
  type: "Slice"
  bottom: "cont"
  top: "cont_1"
  slice_param {
    axis: 0
  }
}
layer {
  name: "lstm1_x_transform"
  type: "InnerProduct"
  bottom: "x"
  top: "W_xc_x"
  param {
    name: "W_xc"
  }
  param {
    name: "b_c"
  }
  propagate_down: true
  inner_product_param {
    num_output: 4000
    bias_term: true
    weight_filler {
      type: "uniform"
      min: -0.08
      max: 0.08
    }
    bias_filler {
      type: "constant"
      value: 0
    }
    axis: 2
  }
}
layer {
  name: "lstm1_W_xc_x_slice"
  type: "Slice"
  bottom: "W_xc_x"
  top: "W_xc_x_1"
  slice_param {
    axis: 0
  }
}
layer {
  name: "lstm1_h_conted_0"
  type: "Scale"
  bottom: "h_0"
  bottom: "cont_1"
  top: "h_conted_0"
  scale_param {
    axis: 0
  }
}
layer {
  name: "lstm1_transform_1"
  type: "InnerProduct"
  bottom: "h_conted_0"
  top: "W_hc_h_0"
  param {
    name: "W_hc"
  }
  inner_product_param {
    num_output: 4000
    bias_term: false
    weight_filler {
      type: "uniform"
      min: -0.08
      max: 0.08
    }
    axis: 2
  }
}
layer {
  name: "lstm1_gate_input_1"
  type: "Eltwise"
  bottom: "W_hc_h_0"
  bottom: "W_xc_x_1"
  top: "gate_input_1"
  eltwise_param {
    operation: SUM
  }
}
layer {
  name: "lstm1_unit_1"
  type: "LSTMUnit"
  bottom: "c_0"
  bottom: "gate_input_1"
  bottom: "cont_1"
  top: "c_1"
  top: "h_1"
}
layer {
  name: "lstm1_"
  type: "Split"
  bottom: "c_1"
  top: "c_T"
}
layer {
  name: "lstm1_h_concat"
  type: "Concat"
  bottom: "h_1"
  top: "h"
  concat_param {
    axis: 0
  }
}
layer {
  name: "h_pseudoloss"
  type: "Reduction"
  bottom: "h"
  top: "h_pseudoloss"
  loss_weight: 1
}
I0925 23:33:11.822672  6911 layer_factory.hpp:77] Creating layer lstm1_
I0925 23:33:11.822685  6911 net.cpp:91] Creating Layer lstm1_
I0925 23:33:11.822692  6911 net.cpp:399] lstm1_ -> x
I0925 23:33:11.822705  6911 net.cpp:399] lstm1_ -> cont
I0925 23:33:11.822722  6901 net.cpp:49] Initializing net from parameters: 
layer {
  name: "lstm2_"
  type: "Input"
  top: "x"
  top: "cont"
  input_param {
    shape {
      dim: 1
      dim: 1
      dim: 1501
    }
    shape {
      dim: 1
      dim: 1
    }
  }
}
layer {
  name: "lstm2_"
  type: "Input"
  top: "c_0"
  top: "h_0"
  input_param {
    shape {
      dim: 1
      dim: 1
      dim: 1000
    }
    shape {
      dim: 1
      dim: 1
      dim: 1000
    }
  }
}
layer {
  name: "lstm2_cont_slice"
  type: "Slice"
  bottom: "cont"
  top: "cont_1"
  slice_param {
    axis: 0
  }
}
layer {
  name: "lstm2_x_transform"
  type: "InnerProduct"
  bottom: "x"
  top: "W_xc_x"
  param {
    name: "W_xc"
  }
  param {
    name: "b_c"
  }
  propagate_down: true
  inner_product_param {
    num_output: 4000
    bias_term: true
    weight_filler {
      type: "uniform"
      min: -0.08
      max: 0.08
    }
    bias_filler {
      type: "constant"
      value: 0
    }
    axis: 2
  }
}
layer {
  name: "lstm2_W_xc_x_slice"
  type: "Slice"
  bottom: "W_xc_x"
  top: "W_xc_x_1"
  slice_param {
    axis: 0
  }
}
layer {
  name: "lstm2_h_conted_0"
  type: "Scale"
  bottom: "h_0"
  bottom: "cont_1"
  top: "h_conted_0"
  scale_param {
    axis: 0
  }
}
layer {
  name: "lstm2_transform_1"
  type: "InnerProduct"
  bottom: "h_conted_0"
  top: "W_hc_h_0"
  param {
    name: "W_hc"
  }
  inner_product_param {
    num_output: 4000
    bias_term: false
    weight_filler {
      type: "uniform"
      min: -0.08
      max: 0.08
    }
    axis: 2
  }
}
layer {
  name: "lstm2_gate_input_1"
  type: "Eltwise"
  bottom: "W_hc_h_0"
  bottom: "W_xc_x_1"
  top: "gate_input_1"
  eltwise_param {
    operation: SUM
  }
}
layer {
  name: "lstm2_unit_1"
  type: "LSTMUnit"
  bottom: "c_0"
  bottom: "gate_input_1"
  bottom: "cont_1"
  top: "c_1"
  top: "h_1"
}
layer {
  name: "lstm2_"
  type: "Split"
  bottom: "c_1"
  top: "c_T"
}
layer {
  name: "lstm2_h_concat"
  type: "Concat"
  bottom: "h_1"
  top: "h"
  concat_param {
    axis: 0
  }
}
layer {
  name: "h_pseudoloss"
  type: "Reduction"
  bottom: "h"
  top: "h_pseudoloss"
  loss_weight: 1
}
I0925 23:33:11.822893  6901 layer_factory.hpp:77] Creating layer lstm2_
I0925 23:33:11.822922  6901 net.cpp:91] Creating Layer lstm2_
I0925 23:33:11.822937  6901 net.cpp:399] lstm2_ -> x
I0925 23:33:11.822955  6901 net.cpp:399] lstm2_ -> cont
I0925 23:33:11.832047  6911 net.cpp:141] Setting up lstm1_
I0925 23:33:11.832101  6911 net.cpp:148] Top shape: 1 1 500 (500)
I0925 23:33:11.832113  6911 net.cpp:148] Top shape: 1 1 (1)
I0925 23:33:11.832119  6911 net.cpp:156] Memory required for data: 2004
I0925 23:33:11.832124  6901 net.cpp:141] Setting up lstm2_
I0925 23:33:11.832166  6901 net.cpp:148] Top shape: 1 1 1501 (1501)
I0925 23:33:11.832131  6911 layer_factory.hpp:77] Creating layer lstm1_
I0925 23:33:11.832180  6901 net.cpp:148] Top shape: 1 1 (1)
I0925 23:33:11.832208  6901 net.cpp:156] Memory required for data: 6008
I0925 23:33:11.832218  6901 layer_factory.hpp:77] Creating layer lstm2_
I0925 23:33:11.832231  6901 net.cpp:91] Creating Layer lstm2_
I0925 23:33:11.832233  6911 net.cpp:91] Creating Layer lstm1_
I0925 23:33:11.832240  6901 net.cpp:399] lstm2_ -> c_0
I0925 23:33:11.832247  6911 net.cpp:399] lstm1_ -> c_0
I0925 23:33:11.832259  6901 net.cpp:399] lstm2_ -> h_0
I0925 23:33:11.832265  6911 net.cpp:399] lstm1_ -> h_0
I0925 23:33:11.832608  6901 net.cpp:141] Setting up lstm2_
I0925 23:33:11.832623  6901 net.cpp:148] Top shape: 1 1 1000 (1000)
I0925 23:33:11.832628  6901 net.cpp:148] Top shape: 1 1 1000 (1000)
I0925 23:33:11.832633  6901 net.cpp:156] Memory required for data: 14008
I0925 23:33:11.832638  6901 layer_factory.hpp:77] Creating layer lstm2_cont_slice
I0925 23:33:11.832650  6911 net.cpp:141] Setting up lstm1_
I0925 23:33:11.832653  6901 net.cpp:91] Creating Layer lstm2_cont_slice
I0925 23:33:11.832670  6911 net.cpp:148] Top shape: 1 1 1000 (1000)
I0925 23:33:11.832674  6901 net.cpp:425] lstm2_cont_slice <- cont
I0925 23:33:11.832681  6911 net.cpp:148] Top shape: 1 1 1000 (1000)
I0925 23:33:11.832689  6911 net.cpp:156] Memory required for data: 10004
I0925 23:33:11.832692  6901 net.cpp:399] lstm2_cont_slice -> cont_1
I0925 23:33:11.832695  6911 layer_factory.hpp:77] Creating layer lstm1_cont_slice
I0925 23:33:11.832711  6911 net.cpp:91] Creating Layer lstm1_cont_slice
I0925 23:33:11.832710  6950 net.cpp:141] Setting up lstm1_x_transform
I0925 23:33:11.832723  6911 net.cpp:425] lstm1_cont_slice <- cont
I0925 23:33:11.832734  6950 net.cpp:148] Top shape: 1 1 4000 (4000)
I0925 23:33:11.832741  6950 net.cpp:156] Memory required for data: 26016
I0925 23:33:11.832746  6911 net.cpp:399] lstm1_cont_slice -> cont_1
I0925 23:33:11.832756  6950 layer_factory.hpp:77] Creating layer lstm1_W_xc_x_slice
I0925 23:33:11.832767  6950 net.cpp:91] Creating Layer lstm1_W_xc_x_slice
I0925 23:33:11.832772  6950 net.cpp:425] lstm1_W_xc_x_slice <- W_xc_x
I0925 23:33:11.832795  6950 net.cpp:399] lstm1_W_xc_x_slice -> W_xc_x_1
I0925 23:33:11.832805  6911 net.cpp:141] Setting up lstm1_cont_slice
I0925 23:33:11.832819  6911 net.cpp:148] Top shape: 1 1 (1)
I0925 23:33:11.832826  6911 net.cpp:156] Memory required for data: 10008
I0925 23:33:11.832834  6911 layer_factory.hpp:77] Creating layer cont_1_lstm1_cont_slice_0_split
I0925 23:33:11.832836  6901 net.cpp:141] Setting up lstm2_cont_slice
I0925 23:33:11.832847  6911 net.cpp:91] Creating Layer cont_1_lstm1_cont_slice_0_split
I0925 23:33:11.832854  6901 net.cpp:148] Top shape: 1 1 (1)
I0925 23:33:11.832855  6911 net.cpp:425] cont_1_lstm1_cont_slice_0_split <- cont_1
I0925 23:33:11.832866  6901 net.cpp:156] Memory required for data: 14012
I0925 23:33:11.832872  6901 layer_factory.hpp:77] Creating layer cont_1_lstm2_cont_slice_0_split
I0925 23:33:11.832876  6911 net.cpp:399] cont_1_lstm1_cont_slice_0_split -> cont_1_lstm1_cont_slice_0_split_0
I0925 23:33:11.832881  6901 net.cpp:91] Creating Layer cont_1_lstm2_cont_slice_0_split
I0925 23:33:11.832882  6950 net.cpp:141] Setting up lstm1_W_xc_x_slice
I0925 23:33:11.832890  6911 net.cpp:399] cont_1_lstm1_cont_slice_0_split -> cont_1_lstm1_cont_slice_0_split_1
I0925 23:33:11.832886  6901 net.cpp:425] cont_1_lstm2_cont_slice_0_split <- cont_1
I0925 23:33:11.832900  6950 net.cpp:148] Top shape: 1 1 4000 (4000)
I0925 23:33:11.832902  6901 net.cpp:399] cont_1_lstm2_cont_slice_0_split -> cont_1_lstm2_cont_slice_0_split_0
I0925 23:33:11.832904  6950 net.cpp:156] Memory required for data: 42016
I0925 23:33:11.832916  6950 layer_factory.hpp:77] Creating layer lstm1_h_conted_0
I0925 23:33:11.832917  6901 net.cpp:399] cont_1_lstm2_cont_slice_0_split -> cont_1_lstm2_cont_slice_0_split_1
I0925 23:33:11.832928  6950 net.cpp:91] Creating Layer lstm1_h_conted_0
I0925 23:33:11.832934  6950 net.cpp:425] lstm1_h_conted_0 <- h_0
I0925 23:33:11.832940  6950 net.cpp:425] lstm1_h_conted_0 <- cont_1_lstm1_cont_slice_0_split_0
I0925 23:33:11.832959  6950 net.cpp:399] lstm1_h_conted_0 -> h_conted_0
I0925 23:33:11.833096  6911 net.cpp:141] Setting up cont_1_lstm1_cont_slice_0_split
I0925 23:33:11.833111  6911 net.cpp:148] Top shape: 1 1 (1)
I0925 23:33:11.833120  6911 net.cpp:148] Top shape: 1 1 (1)
I0925 23:33:11.833127  6911 net.cpp:156] Memory required for data: 10016
I0925 23:33:11.833134  6911 layer_factory.hpp:77] Creating layer lstm1_x_transform
I0925 23:33:11.833137  6897 net.cpp:141] Setting up lstm1_x_transform
I0925 23:33:11.833155  6911 net.cpp:91] Creating Layer lstm1_x_transform
I0925 23:33:11.833156  6897 net.cpp:148] Top shape: 1 1 4000 (4000)
I0925 23:33:11.833166  6901 net.cpp:141] Setting up cont_1_lstm2_cont_slice_0_split
I0925 23:33:11.833174  6897 net.cpp:156] Memory required for data: 26016
I0925 23:33:11.833170  6911 net.cpp:425] lstm1_x_transform <- x
I0925 23:33:11.833186  6901 net.cpp:148] Top shape: 1 1 (1)
I0925 23:33:11.833194  6911 net.cpp:399] lstm1_x_transform -> W_xc_x
I0925 23:33:11.833196  6901 net.cpp:148] Top shape: 1 1 (1)
I0925 23:33:11.833197  6897 layer_factory.hpp:77] Creating layer lstm1_W_xc_x_slice
I0925 23:33:11.833209  6901 net.cpp:156] Memory required for data: 14020
I0925 23:33:11.833217  6901 layer_factory.hpp:77] Creating layer lstm2_x_transform
I0925 23:33:11.833220  6897 net.cpp:91] Creating Layer lstm1_W_xc_x_slice
I0925 23:33:11.833230  6897 net.cpp:425] lstm1_W_xc_x_slice <- W_xc_x
I0925 23:33:11.833235  6901 net.cpp:91] Creating Layer lstm2_x_transform
I0925 23:33:11.833241  6897 net.cpp:399] lstm1_W_xc_x_slice -> W_xc_x_1
I0925 23:33:11.833242  6901 net.cpp:425] lstm2_x_transform <- x
I0925 23:33:11.833256  6950 net.cpp:141] Setting up lstm1_h_conted_0
I0925 23:33:11.833268  6950 net.cpp:148] Top shape: 1 1 1000 (1000)
I0925 23:33:11.833267  6901 net.cpp:399] lstm2_x_transform -> W_xc_x
I0925 23:33:11.833277  6950 net.cpp:156] Memory required for data: 46016
I0925 23:33:11.833283  6950 layer_factory.hpp:77] Creating layer lstm1_transform_1
I0925 23:33:11.833303  6950 net.cpp:91] Creating Layer lstm1_transform_1
I0925 23:33:11.833309  6950 net.cpp:425] lstm1_transform_1 <- h_conted_0
I0925 23:33:11.833318  6950 net.cpp:399] lstm1_transform_1 -> W_hc_h_0
I0925 23:33:11.833370  6897 net.cpp:141] Setting up lstm1_W_xc_x_slice
I0925 23:33:11.833385  6897 net.cpp:148] Top shape: 1 1 4000 (4000)
I0925 23:33:11.833394  6897 net.cpp:156] Memory required for data: 42016
I0925 23:33:11.833400  6897 layer_factory.hpp:77] Creating layer lstm1_h_conted_0
I0925 23:33:11.833420  6897 net.cpp:91] Creating Layer lstm1_h_conted_0
I0925 23:33:11.833428  6897 net.cpp:425] lstm1_h_conted_0 <- h_0
I0925 23:33:11.833438  6897 net.cpp:425] lstm1_h_conted_0 <- cont_1_lstm1_cont_slice_0_split_0
I0925 23:33:11.833449  6897 net.cpp:399] lstm1_h_conted_0 -> h_conted_0
I0925 23:33:11.854756  6893 net.cpp:141] Setting up embedding
I0925 23:33:11.854812  6893 net.cpp:148] Top shape: 1 1 500 (500)
I0925 23:33:11.854822  6893 net.cpp:156] Memory required for data: 22408
I0925 23:33:11.854849  6893 layer_factory.hpp:77] Creating layer lstm1
I0925 23:33:11.854871  6893 net.cpp:91] Creating Layer lstm1
I0925 23:33:11.854885  6893 net.cpp:425] lstm1 <- embedded_input_frames
I0925 23:33:11.854899  6893 net.cpp:425] lstm1 <- cont_sentence_input_1_split_0
I0925 23:33:11.862061  6893 net.cpp:399] lstm1 -> lstm1
I0925 23:33:11.862141  6893 recurrent_layer.cpp:20] Initializing recurrent layer: assuming input batch contains 1 timesteps of 1 independent streams.
I0925 23:33:11.862679  6893 net.cpp:49] Initializing net from parameters: 
layer {
  name: "lstm1_"
  type: "Input"
  top: "x"
  top: "cont"
  input_param {
    shape {
      dim: 1
      dim: 1
      dim: 500
    }
    shape {
      dim: 1
      dim: 1
    }
  }
}
layer {
  name: "lstm1_"
  type: "Input"
  top: "c_0"
  top: "h_0"
  input_param {
    shape {
      dim: 1
      dim: 1
      dim: 1000
    }
    shape {
      dim: 1
      dim: 1
      dim: 1000
    }
  }
}
layer {
  name: "lstm1_cont_slice"
  type: "Slice"
  bottom: "cont"
  top: "cont_1"
  slice_param {
    axis: 0
  }
}
layer {
  name: "lstm1_x_transform"
  type: "InnerProduct"
  bottom: "x"
  top: "W_xc_x"
  param {
    name: "W_xc"
  }
  param {
    name: "b_c"
  }
  propagate_down: true
  inner_product_param {
    num_output: 4000
    bias_term: true
    weight_filler {
      type: "uniform"
      min: -0.08
      max: 0.08
    }
    bias_filler {
      type: "constant"
      value: 0
    }
    axis: 2
  }
}
layer {
  name: "lstm1_W_xc_x_slice"
  type: "Slice"
  bottom: "W_xc_x"
  top: "W_xc_x_1"
  slice_param {
    axis: 0
  }
}
layer {
  name: "lstm1_h_conted_0"
  type: "Scale"
  bottom: "h_0"
  bottom: "cont_1"
  top: "h_conted_0"
  scale_param {
    axis: 0
  }
}
layer {
  name: "lstm1_transform_1"
  type: "InnerProduct"
  bottom: "h_conted_0"
  top: "W_hc_h_0"
  param {
    name: "W_hc"
  }
  inner_product_param {
    num_output: 4000
    bias_term: false
    weight_filler {
      type: "uniform"
      min: -0.08
      max: 0.08
    }
    axis: 2
  }
}
layer {
  name: "lstm1_gate_input_1"
  type: "Eltwise"
  bottom: "W_hc_h_0"
  bottom: "W_xc_x_1"
  top: "gate_input_1"
  eltwise_param {
    operation: SUM
  }
}
layer {
  name: "lstm1_unit_1"
  type: "LSTMUnit"
  bottom: "c_0"
  bottom: "gate_input_1"
  bottom: "cont_1"
  top: "c_1"
  top: "h_1"
}
layer {
  name: "lstm1_"
  type: "Split"
  bottom: "c_1"
  top: "c_T"
}
layer {
  name: "lstm1_h_concat"
  type: "Concat"
  bottom: "h_1"
  top: "h"
  concat_param {
    axis: 0
  }
}
layer {
  name: "h_pseudoloss"
  type: "Reduction"
  bottom: "h"
  top: "h_pseudoloss"
  loss_weight: 1
}
I0925 23:33:11.863351  6893 layer_factory.hpp:77] Creating layer lstm1_
I0925 23:33:11.863379  6893 net.cpp:91] Creating Layer lstm1_
I0925 23:33:11.863394  6893 net.cpp:399] lstm1_ -> x
I0925 23:33:11.863418  6893 net.cpp:399] lstm1_ -> cont
I0925 23:33:11.881671  6897 net.cpp:141] Setting up lstm1_h_conted_0
I0925 23:33:11.881729  6897 net.cpp:148] Top shape: 1 1 1000 (1000)
I0925 23:33:11.881739  6897 net.cpp:156] Memory required for data: 46016
I0925 23:33:11.881754  6897 layer_factory.hpp:77] Creating layer lstm1_transform_1
I0925 23:33:11.881780  6897 net.cpp:91] Creating Layer lstm1_transform_1
I0925 23:33:11.881795  6897 net.cpp:425] lstm1_transform_1 <- h_conted_0
I0925 23:33:11.881814  6897 net.cpp:399] lstm1_transform_1 -> W_hc_h_0
I0925 23:33:11.892644  6893 net.cpp:141] Setting up lstm1_
I0925 23:33:11.892700  6893 net.cpp:148] Top shape: 1 1 500 (500)
I0925 23:33:11.892716  6893 net.cpp:148] Top shape: 1 1 (1)
I0925 23:33:11.892725  6893 net.cpp:156] Memory required for data: 2004
I0925 23:33:11.892740  6893 layer_factory.hpp:77] Creating layer lstm1_
I0925 23:33:11.892771  6893 net.cpp:91] Creating Layer lstm1_
I0925 23:33:11.892796  6893 net.cpp:399] lstm1_ -> c_0
I0925 23:33:11.892827  6893 net.cpp:399] lstm1_ -> h_0
I0925 23:33:11.892952  6917 net.cpp:141] Setting up lstm1_x_transform
I0925 23:33:11.892990  6917 net.cpp:148] Top shape: 1 1 4000 (4000)
I0925 23:33:11.892995  6917 net.cpp:156] Memory required for data: 26016
I0925 23:33:11.893018  6917 layer_factory.hpp:77] Creating layer lstm1_W_xc_x_slice
I0925 23:33:11.893035  6917 net.cpp:91] Creating Layer lstm1_W_xc_x_slice
I0925 23:33:11.893043  6917 net.cpp:425] lstm1_W_xc_x_slice <- W_xc_x
I0925 23:33:11.893055  6917 net.cpp:399] lstm1_W_xc_x_slice -> W_xc_x_1
I0925 23:33:11.893090  6937 net.cpp:141] Setting up lstm1_x_transform
I0925 23:33:11.893115  6937 net.cpp:148] Top shape: 1 1 4000 (4000)
I0925 23:33:11.893121  6917 net.cpp:141] Setting up lstm1_W_xc_x_slice
I0925 23:33:11.893124  6937 net.cpp:156] Memory required for data: 26016
I0925 23:33:11.893133  6917 net.cpp:148] Top shape: 1 1 4000 (4000)
I0925 23:33:11.893139  6917 net.cpp:156] Memory required for data: 42016
I0925 23:33:11.893144  6917 layer_factory.hpp:77] Creating layer lstm1_h_conted_0
I0925 23:33:11.893152  6937 layer_factory.hpp:77] Creating layer lstm1_W_xc_x_slice
I0925 23:33:11.893156  6917 net.cpp:91] Creating Layer lstm1_h_conted_0
I0925 23:33:11.893182  6917 net.cpp:425] lstm1_h_conted_0 <- h_0
I0925 23:33:11.893188  6917 net.cpp:425] lstm1_h_conted_0 <- cont_1_lstm1_cont_slice_0_split_0
I0925 23:33:11.893185  6937 net.cpp:91] Creating Layer lstm1_W_xc_x_slice
I0925 23:33:11.893198  6917 net.cpp:399] lstm1_h_conted_0 -> h_conted_0
I0925 23:33:11.893199  6937 net.cpp:425] lstm1_W_xc_x_slice <- W_xc_x
I0925 23:33:11.893235  6937 net.cpp:399] lstm1_W_xc_x_slice -> W_xc_x_1
I0925 23:33:11.893241  6893 net.cpp:141] Setting up lstm1_
I0925 23:33:11.893263  6893 net.cpp:148] Top shape: 1 1 1000 (1000)
I0925 23:33:11.893275  6893 net.cpp:148] Top shape: 1 1 1000 (1000)
I0925 23:33:11.893283  6893 net.cpp:156] Memory required for data: 10004
I0925 23:33:11.893292  6893 layer_factory.hpp:77] Creating layer lstm1_cont_slice
I0925 23:33:11.893308  6893 net.cpp:91] Creating Layer lstm1_cont_slice
I0925 23:33:11.893317  6893 net.cpp:425] lstm1_cont_slice <- cont
I0925 23:33:11.893335  6893 net.cpp:399] lstm1_cont_slice -> cont_1
I0925 23:33:11.893386  6889 net.cpp:141] Setting up lstm1_x_transform
I0925 23:33:11.893411  6889 net.cpp:148] Top shape: 1 1 4000 (4000)
I0925 23:33:11.893419  6889 net.cpp:156] Memory required for data: 26016
I0925 23:33:11.893435  6889 layer_factory.hpp:77] Creating layer lstm1_W_xc_x_slice
I0925 23:33:11.893450  6889 net.cpp:91] Creating Layer lstm1_W_xc_x_slice
I0925 23:33:11.893457  6889 net.cpp:425] lstm1_W_xc_x_slice <- W_xc_x
I0925 23:33:11.893465  6889 net.cpp:399] lstm1_W_xc_x_slice -> W_xc_x_1
I0925 23:33:11.893488  6911 net.cpp:141] Setting up lstm1_x_transform
I0925 23:33:11.893510  6911 net.cpp:148] Top shape: 1 1 4000 (4000)
I0925 23:33:11.893513  6889 net.cpp:141] Setting up lstm1_W_xc_x_slice
I0925 23:33:11.893519  6911 net.cpp:156] Memory required for data: 26016
I0925 23:33:11.893523  6889 net.cpp:148] Top shape: 1 1 4000 (4000)
I0925 23:33:11.893528  6889 net.cpp:156] Memory required for data: 42016
I0925 23:33:11.893532  6889 layer_factory.hpp:77] Creating layer lstm1_h_conted_0
I0925 23:33:11.893539  6911 layer_factory.hpp:77] Creating layer lstm1_W_xc_x_slice
I0925 23:33:11.893548  6889 net.cpp:91] Creating Layer lstm1_h_conted_0
I0925 23:33:11.893553  6889 net.cpp:425] lstm1_h_conted_0 <- h_0
I0925 23:33:11.893554  6911 net.cpp:91] Creating Layer lstm1_W_xc_x_slice
I0925 23:33:11.893560  6889 net.cpp:425] lstm1_h_conted_0 <- cont_1_lstm1_cont_slice_0_split_0
I0925 23:33:11.893564  6911 net.cpp:425] lstm1_W_xc_x_slice <- W_xc_x
I0925 23:33:11.893568  6889 net.cpp:399] lstm1_h_conted_0 -> h_conted_0
I0925 23:33:11.893581  6911 net.cpp:399] lstm1_W_xc_x_slice -> W_xc_x_1
I0925 23:33:11.893651  6911 net.cpp:141] Setting up lstm1_W_xc_x_slice
I0925 23:33:11.893666  6911 net.cpp:148] Top shape: 1 1 4000 (4000)
I0925 23:33:11.893674  6911 net.cpp:156] Memory required for data: 42016
I0925 23:33:11.893682  6911 layer_factory.hpp:77] Creating layer lstm1_h_conted_0
I0925 23:33:11.893697  6911 net.cpp:91] Creating Layer lstm1_h_conted_0
I0925 23:33:11.893707  6911 net.cpp:425] lstm1_h_conted_0 <- h_0
I0925 23:33:11.893718  6911 net.cpp:425] lstm1_h_conted_0 <- cont_1_lstm1_cont_slice_0_split_0
I0925 23:33:11.893733  6911 net.cpp:399] lstm1_h_conted_0 -> h_conted_0
I0925 23:33:11.893793  6917 net.cpp:141] Setting up lstm1_h_conted_0
I0925 23:33:11.893810  6917 net.cpp:148] Top shape: 1 1 1000 (1000)
I0925 23:33:11.893816  6917 net.cpp:156] Memory required for data: 46016
I0925 23:33:11.893821  6917 layer_factory.hpp:77] Creating layer lstm1_transform_1
I0925 23:33:11.893836  6917 net.cpp:91] Creating Layer lstm1_transform_1
I0925 23:33:11.893841  6917 net.cpp:425] lstm1_transform_1 <- h_conted_0
I0925 23:33:11.893852  6917 net.cpp:399] lstm1_transform_1 -> W_hc_h_0
I0925 23:33:11.893856  6893 net.cpp:141] Setting up lstm1_cont_slice
I0925 23:33:11.893874  6893 net.cpp:148] Top shape: 1 1 (1)
I0925 23:33:11.893883  6893 net.cpp:156] Memory required for data: 10008
I0925 23:33:11.893893  6893 layer_factory.hpp:77] Creating layer cont_1_lstm1_cont_slice_0_split
I0925 23:33:11.893899  6937 net.cpp:141] Setting up lstm1_W_xc_x_slice
I0925 23:33:11.893913  6893 net.cpp:91] Creating Layer cont_1_lstm1_cont_slice_0_split
I0925 23:33:11.893916  6937 net.cpp:148] Top shape: 1 1 4000 (4000)
I0925 23:33:11.893924  6893 net.cpp:425] cont_1_lstm1_cont_slice_0_split <- cont_1
I0925 23:33:11.893928  6937 net.cpp:156] Memory required for data: 42016
I0925 23:33:11.893939  6893 net.cpp:399] cont_1_lstm1_cont_slice_0_split -> cont_1_lstm1_cont_slice_0_split_0
I0925 23:33:11.893939  6937 layer_factory.hpp:77] Creating layer lstm1_h_conted_0
I0925 23:33:11.893962  6893 net.cpp:399] cont_1_lstm1_cont_slice_0_split -> cont_1_lstm1_cont_slice_0_split_1
I0925 23:33:11.893967  6937 net.cpp:91] Creating Layer lstm1_h_conted_0
I0925 23:33:11.893980  6937 net.cpp:425] lstm1_h_conted_0 <- h_0
I0925 23:33:11.893995  6937 net.cpp:425] lstm1_h_conted_0 <- cont_1_lstm1_cont_slice_0_split_0
I0925 23:33:11.894009  6937 net.cpp:399] lstm1_h_conted_0 -> h_conted_0
I0925 23:33:11.894186  6937 net.cpp:141] Setting up lstm1_h_conted_0
I0925 23:33:11.894201  6937 net.cpp:148] Top shape: 1 1 1000 (1000)
I0925 23:33:11.894215  6937 net.cpp:156] Memory required for data: 46016
I0925 23:33:11.894228  6937 layer_factory.hpp:77] Creating layer lstm1_transform_1
I0925 23:33:11.894245  6937 net.cpp:91] Creating Layer lstm1_transform_1
I0925 23:33:11.894255  6937 net.cpp:425] lstm1_transform_1 <- h_conted_0
I0925 23:33:11.894278  6937 net.cpp:399] lstm1_transform_1 -> W_hc_h_0
I0925 23:33:11.904386  6893 net.cpp:141] Setting up cont_1_lstm1_cont_slice_0_split
I0925 23:33:11.904450  6893 net.cpp:148] Top shape: 1 1 (1)
I0925 23:33:11.904461  6893 net.cpp:148] Top shape: 1 1 (1)
I0925 23:33:11.904469  6893 net.cpp:156] Memory required for data: 10016
I0925 23:33:11.904480  6893 layer_factory.hpp:77] Creating layer lstm1_x_transform
I0925 23:33:11.904510  6893 net.cpp:91] Creating Layer lstm1_x_transform
I0925 23:33:11.904520  6893 net.cpp:425] lstm1_x_transform <- x
I0925 23:33:11.904536  6893 net.cpp:399] lstm1_x_transform -> W_xc_x
I0925 23:33:11.904573  6923 net.cpp:141] Setting up embedding
I0925 23:33:11.904608  6923 net.cpp:148] Top shape: 1 1 500 (500)
I0925 23:33:11.904624  6923 net.cpp:156] Memory required for data: 22408
I0925 23:33:11.904682  6923 layer_factory.hpp:77] Creating layer lstm1
I0925 23:33:11.904719  6923 net.cpp:91] Creating Layer lstm1
I0925 23:33:11.904742  6923 net.cpp:425] lstm1 <- embedded_input_frames
I0925 23:33:11.904762  6923 net.cpp:425] lstm1 <- cont_sentence_input_1_split_0
I0925 23:33:11.904788  6923 net.cpp:399] lstm1 -> lstm1
I0925 23:33:11.904819  6923 recurrent_layer.cpp:20] Initializing recurrent layer: assuming input batch contains 1 timesteps of 1 independent streams.
I0925 23:33:11.905453  6923 net.cpp:49] Initializing net from parameters: 
layer {
  name: "lstm1_"
  type: "Input"
  top: "x"
  top: "cont"
  input_param {
    shape {
      dim: 1
      dim: 1
      dim: 500
    }
    shape {
      dim: 1
      dim: 1
    }
  }
}
layer {
  name: "lstm1_"
  type: "Input"
  top: "c_0"
  top: "h_0"
  input_param {
    shape {
      dim: 1
      dim: 1
      dim: 1000
    }
    shape {
      dim: 1
      dim: 1
      dim: 1000
    }
  }
}
layer {
  name: "lstm1_cont_slice"
  type: "Slice"
  bottom: "cont"
  top: "cont_1"
  slice_param {
    axis: 0
  }
}
layer {
  name: "lstm1_x_transform"
  type: "InnerProduct"
  bottom: "x"
  top: "W_xc_x"
  param {
    name: "W_xc"
  }
  param {
    name: "b_c"
  }
  propagate_down: true
  inner_product_param {
    num_output: 4000
    bias_term: true
    weight_filler {
      type: "uniform"
      min: -0.08
      max: 0.08
    }
    bias_filler {
      type: "constant"
      value: 0
    }
    axis: 2
  }
}
layer {
  name: "lstm1_W_xc_x_slice"
  type: "Slice"
  bottom: "W_xc_x"
  top: "W_xc_x_1"
  slice_param {
    axis: 0
  }
}
layer {
  name: "lstm1_h_conted_0"
  type: "Scale"
  bottom: "h_0"
  bottom: "cont_1"
  top: "h_conted_0"
  scale_param {
    axis: 0
  }
}
layer {
  name: "lstm1_transform_1"
  type: "InnerProduct"
  bottom: "h_conted_0"
  top: "W_hc_h_0"
  param {
    name: "W_hc"
  }
  inner_product_param {
    num_output: 4000
    bias_term: false
    weight_filler {
      type: "uniform"
      min: -0.08
      max: 0.08
    }
    axis: 2
  }
}
layer {
  name: "lstm1_gate_input_1"
  type: "Eltwise"
  bottom: "W_hc_h_0"
  bottom: "W_xc_x_1"
  top: "gate_input_1"
  eltwise_param {
    operation: SUM
  }
}
layer {
  name: "lstm1_unit_1"
  type: "LSTMUnit"
  bottom: "c_0"
  bottom: "gate_input_1"
  bottom: "cont_1"
  top: "c_1"
  top: "h_1"
}
layer {
  name: "lstm1_"
  type: "Split"
  bottom: "c_1"
  top: "c_T"
}
layer {
  name: "lstm1_h_concat"
  type: "Concat"
  bottom: "h_1"
  top: "h"
  concat_param {
    axis: 0
  }
}
layer {
  name: "h_pseudoloss"
  type: "Reduction"
  bottom: "h"
  top: "h_pseudoloss"
  loss_weight: 1
}
I0925 23:33:11.905660  6923 layer_factory.hpp:77] Creating layer lstm1_
I0925 23:33:11.905692  6923 net.cpp:91] Creating Layer lstm1_
I0925 23:33:11.905714  6923 net.cpp:399] lstm1_ -> x
I0925 23:33:11.905747  6923 net.cpp:399] lstm1_ -> cont
I0925 23:33:11.923311  6911 net.cpp:141] Setting up lstm1_h_conted_0
I0925 23:33:11.923311  6889 net.cpp:141] Setting up lstm1_h_conted_0
I0925 23:33:11.923393  6889 net.cpp:148] Top shape: 1 1 1000 (1000)
I0925 23:33:11.923393  6911 net.cpp:148] Top shape: 1 1 1000 (1000)
I0925 23:33:11.923409  6889 net.cpp:156] Memory required for data: 46016
I0925 23:33:11.923418  6911 net.cpp:156] Memory required for data: 46016
I0925 23:33:11.923429  6889 layer_factory.hpp:77] Creating layer lstm1_transform_1
I0925 23:33:11.923430  6911 layer_factory.hpp:77] Creating layer lstm1_transform_1
I0925 23:33:11.923440  6950 net.cpp:141] Setting up lstm1_transform_1
I0925 23:33:11.923485  6950 net.cpp:148] Top shape: 1 1 4000 (4000)
I0925 23:33:11.923494  6950 net.cpp:156] Memory required for data: 62016
I0925 23:33:11.923521  6950 layer_factory.hpp:77] Creating layer lstm1_gate_input_1
I0925 23:33:11.923566  6911 net.cpp:91] Creating Layer lstm1_transform_1
I0925 23:33:11.923576  6889 net.cpp:91] Creating Layer lstm1_transform_1
I0925 23:33:11.923596  6911 net.cpp:425] lstm1_transform_1 <- h_conted_0
I0925 23:33:11.923583  6950 net.cpp:91] Creating Layer lstm1_gate_input_1
I0925 23:33:11.923615  6950 net.cpp:425] lstm1_gate_input_1 <- W_hc_h_0
I0925 23:33:11.923614  6889 net.cpp:425] lstm1_transform_1 <- h_conted_0
I0925 23:33:11.923631  6950 net.cpp:425] lstm1_gate_input_1 <- W_xc_x_1
I0925 23:33:11.923620  6911 net.cpp:399] lstm1_transform_1 -> W_hc_h_0
I0925 23:33:11.923646  6950 net.cpp:399] lstm1_gate_input_1 -> gate_input_1
I0925 23:33:11.923657  6889 net.cpp:399] lstm1_transform_1 -> W_hc_h_0
I0925 23:33:11.936419  6950 net.cpp:141] Setting up lstm1_gate_input_1
I0925 23:33:11.936475  6950 net.cpp:148] Top shape: 1 1 4000 (4000)
I0925 23:33:11.936485  6950 net.cpp:156] Memory required for data: 78016
I0925 23:33:11.936497  6950 layer_factory.hpp:77] Creating layer lstm1_unit_1
I0925 23:33:11.936542  6950 net.cpp:91] Creating Layer lstm1_unit_1
I0925 23:33:11.936554  6950 net.cpp:425] lstm1_unit_1 <- c_0
I0925 23:33:11.936569  6950 net.cpp:425] lstm1_unit_1 <- gate_input_1
I0925 23:33:11.936579  6950 net.cpp:425] lstm1_unit_1 <- cont_1_lstm1_cont_slice_0_split_1
I0925 23:33:11.936592  6950 net.cpp:399] lstm1_unit_1 -> c_1
I0925 23:33:11.936610  6950 net.cpp:399] lstm1_unit_1 -> h_1
I0925 23:33:11.946974  6897 net.cpp:141] Setting up lstm1_transform_1
I0925 23:33:11.947029  6897 net.cpp:148] Top shape: 1 1 4000 (4000)
I0925 23:33:11.947039  6897 net.cpp:156] Memory required for data: 62016
I0925 23:33:11.947067  6897 layer_factory.hpp:77] Creating layer lstm1_gate_input_1
I0925 23:33:11.947098  6897 net.cpp:91] Creating Layer lstm1_gate_input_1
I0925 23:33:11.947110  6897 net.cpp:425] lstm1_gate_input_1 <- W_hc_h_0
I0925 23:33:11.947121  6897 net.cpp:425] lstm1_gate_input_1 <- W_xc_x_1
I0925 23:33:11.947134  6897 net.cpp:399] lstm1_gate_input_1 -> gate_input_1
I0925 23:33:11.947206  6897 net.cpp:141] Setting up lstm1_gate_input_1
I0925 23:33:11.947222  6897 net.cpp:148] Top shape: 1 1 4000 (4000)
I0925 23:33:11.947230  6897 net.cpp:156] Memory required for data: 78016
I0925 23:33:11.947238  6897 layer_factory.hpp:77] Creating layer lstm1_unit_1
I0925 23:33:11.947252  6897 net.cpp:91] Creating Layer lstm1_unit_1
I0925 23:33:11.947262  6897 net.cpp:425] lstm1_unit_1 <- c_0
I0925 23:33:11.947273  6897 net.cpp:425] lstm1_unit_1 <- gate_input_1
I0925 23:33:11.947268  6937 net.cpp:141] Setting up lstm1_transform_1
I0925 23:33:11.947296  6897 net.cpp:425] lstm1_unit_1 <- cont_1_lstm1_cont_slice_0_split_1
I0925 23:33:11.947305  6937 net.cpp:148] Top shape: 1 1 4000 (4000)
I0925 23:33:11.947310  6897 net.cpp:399] lstm1_unit_1 -> c_1
I0925 23:33:11.947314  6937 net.cpp:156] Memory required for data: 62016
I0925 23:33:11.947327  6897 net.cpp:399] lstm1_unit_1 -> h_1
I0925 23:33:11.947331  6937 layer_factory.hpp:77] Creating layer lstm1_gate_input_1
I0925 23:33:11.947438  6923 net.cpp:141] Setting up lstm1_
I0925 23:33:11.947455  6923 net.cpp:148] Top shape: 1 1 500 (500)
I0925 23:33:11.947468  6923 net.cpp:148] Top shape: 1 1 (1)
I0925 23:33:11.947475  6923 net.cpp:156] Memory required for data: 2004
I0925 23:33:11.947484  6923 layer_factory.hpp:77] Creating layer lstm1_
I0925 23:33:11.947522  6923 net.cpp:91] Creating Layer lstm1_
I0925 23:33:11.947536  6923 net.cpp:399] lstm1_ -> c_0
I0925 23:33:11.947557  6923 net.cpp:399] lstm1_ -> h_0
I0925 23:33:11.947609  6937 net.cpp:91] Creating Layer lstm1_gate_input_1
I0925 23:33:11.947623  6937 net.cpp:425] lstm1_gate_input_1 <- W_hc_h_0
I0925 23:33:11.947633  6937 net.cpp:425] lstm1_gate_input_1 <- W_xc_x_1
I0925 23:33:11.947646  6937 net.cpp:399] lstm1_gate_input_1 -> gate_input_1
I0925 23:33:11.952265  6937 net.cpp:141] Setting up lstm1_gate_input_1
I0925 23:33:11.952308  6937 net.cpp:148] Top shape: 1 1 4000 (4000)
I0925 23:33:11.952316  6937 net.cpp:156] Memory required for data: 78016
I0925 23:33:11.952317  6950 net.cpp:141] Setting up lstm1_unit_1
I0925 23:33:11.952322  6937 layer_factory.hpp:77] Creating layer lstm1_unit_1
I0925 23:33:11.952342  6950 net.cpp:148] Top shape: 1 1 1000 (1000)
I0925 23:33:11.952349  6950 net.cpp:148] Top shape: 1 1 1000 (1000)
I0925 23:33:11.952353  6937 net.cpp:91] Creating Layer lstm1_unit_1
I0925 23:33:11.952355  6950 net.cpp:156] Memory required for data: 86016
I0925 23:33:11.952366  6937 net.cpp:425] lstm1_unit_1 <- c_0
I0925 23:33:11.952369  6950 layer_factory.hpp:77] Creating layer lstm1_
I0925 23:33:11.952375  6937 net.cpp:425] lstm1_unit_1 <- gate_input_1
I0925 23:33:11.952383  6950 net.cpp:91] Creating Layer lstm1_
I0925 23:33:11.952383  6937 net.cpp:425] lstm1_unit_1 <- cont_1_lstm1_cont_slice_0_split_1
I0925 23:33:11.952394  6950 net.cpp:425] lstm1_ <- c_1
I0925 23:33:11.952402  6950 net.cpp:399] lstm1_ -> c_T
I0925 23:33:11.952428  6937 net.cpp:399] lstm1_unit_1 -> c_1
I0925 23:33:11.952443  6937 net.cpp:399] lstm1_unit_1 -> h_1
I0925 23:33:11.952595  6897 net.cpp:141] Setting up lstm1_unit_1
I0925 23:33:11.952613  6897 net.cpp:148] Top shape: 1 1 1000 (1000)
I0925 23:33:11.952620  6897 net.cpp:148] Top shape: 1 1 1000 (1000)
I0925 23:33:11.952625  6897 net.cpp:156] Memory required for data: 86016
I0925 23:33:11.952630  6897 layer_factory.hpp:77] Creating layer lstm1_
I0925 23:33:11.952632  6923 net.cpp:141] Setting up lstm1_
I0925 23:33:11.952641  6897 net.cpp:91] Creating Layer lstm1_
I0925 23:33:11.952648  6897 net.cpp:425] lstm1_ <- c_1
I0925 23:33:11.952648  6923 net.cpp:148] Top shape: 1 1 1000 (1000)
I0925 23:33:11.952656  6923 net.cpp:148] Top shape: 1 1 1000 (1000)
I0925 23:33:11.952656  6897 net.cpp:399] lstm1_ -> c_T
I0925 23:33:11.952661  6923 net.cpp:156] Memory required for data: 10004
I0925 23:33:11.952667  6923 layer_factory.hpp:77] Creating layer lstm1_cont_slice
I0925 23:33:11.952680  6923 net.cpp:91] Creating Layer lstm1_cont_slice
I0925 23:33:11.952687  6923 net.cpp:425] lstm1_cont_slice <- cont
I0925 23:33:11.952703  6923 net.cpp:399] lstm1_cont_slice -> cont_1
I0925 23:33:11.952749  6901 net.cpp:141] Setting up lstm2_x_transform
I0925 23:33:11.952772  6923 net.cpp:141] Setting up lstm1_cont_slice
I0925 23:33:11.952785  6923 net.cpp:148] Top shape: 1 1 (1)
I0925 23:33:11.952791  6923 net.cpp:156] Memory required for data: 10008
I0925 23:33:11.952793  6901 net.cpp:148] Top shape: 1 1 4000 (4000)
I0925 23:33:11.952797  6923 layer_factory.hpp:77] Creating layer cont_1_lstm1_cont_slice_0_split
I0925 23:33:11.952816  6901 net.cpp:156] Memory required for data: 30020
I0925 23:33:11.952826  6923 net.cpp:91] Creating Layer cont_1_lstm1_cont_slice_0_split
I0925 23:33:11.952833  6923 net.cpp:425] cont_1_lstm1_cont_slice_0_split <- cont_1
I0925 23:33:11.952841  6923 net.cpp:399] cont_1_lstm1_cont_slice_0_split -> cont_1_lstm1_cont_slice_0_split_0
I0925 23:33:11.952847  6901 layer_factory.hpp:77] Creating layer lstm2_W_xc_x_slice
I0925 23:33:11.952852  6923 net.cpp:399] cont_1_lstm1_cont_slice_0_split -> cont_1_lstm1_cont_slice_0_split_1
I0925 23:33:11.952869  6901 net.cpp:91] Creating Layer lstm2_W_xc_x_slice
I0925 23:33:11.952880  6901 net.cpp:425] lstm2_W_xc_x_slice <- W_xc_x
I0925 23:33:11.952898  6901 net.cpp:399] lstm2_W_xc_x_slice -> W_xc_x_1
I0925 23:33:11.955201  6950 net.cpp:141] Setting up lstm1_
I0925 23:33:11.955271  6950 net.cpp:148] Top shape: 1 1 1000 (1000)
I0925 23:33:11.955282  6950 net.cpp:156] Memory required for data: 90016
I0925 23:33:11.955294  6950 layer_factory.hpp:77] Creating layer lstm1_h_concat
I0925 23:33:11.955319  6950 net.cpp:91] Creating Layer lstm1_h_concat
I0925 23:33:11.955332  6950 net.cpp:425] lstm1_h_concat <- h_1
I0925 23:33:11.955345  6923 net.cpp:141] Setting up cont_1_lstm1_cont_slice_0_split
I0925 23:33:11.955350  6950 net.cpp:399] lstm1_h_concat -> h
I0925 23:33:11.955382  6923 net.cpp:148] Top shape: 1 1 (1)
I0925 23:33:11.955394  6923 net.cpp:148] Top shape: 1 1 (1)
I0925 23:33:11.955402  6923 net.cpp:156] Memory required for data: 10016
I0925 23:33:11.955412  6923 layer_factory.hpp:77] Creating layer lstm1_x_transform
I0925 23:33:11.955426  6897 net.cpp:141] Setting up lstm1_
I0925 23:33:11.955436  6923 net.cpp:91] Creating Layer lstm1_x_transform
I0925 23:33:11.955464  6923 net.cpp:425] lstm1_x_transform <- x
I0925 23:33:11.955468  6897 net.cpp:148] Top shape: 1 1 1000 (1000)
I0925 23:33:11.955478  6923 net.cpp:399] lstm1_x_transform -> W_xc_x
I0925 23:33:11.955482  6897 net.cpp:156] Memory required for data: 90016
I0925 23:33:11.955494  6897 layer_factory.hpp:77] Creating layer lstm1_h_concat
I0925 23:33:11.955514  6897 net.cpp:91] Creating Layer lstm1_h_concat
I0925 23:33:11.955526  6897 net.cpp:425] lstm1_h_concat <- h_1
I0925 23:33:11.955549  6897 net.cpp:399] lstm1_h_concat -> h
I0925 23:33:11.955610  6917 net.cpp:141] Setting up lstm1_transform_1
I0925 23:33:11.955649  6897 net.cpp:141] Setting up lstm1_h_concat
I0925 23:33:11.955665  6917 net.cpp:148] Top shape: 1 1 4000 (4000)
I0925 23:33:11.955672  6897 net.cpp:148] Top shape: 1 1 1000 (1000)
I0925 23:33:11.955677  6917 net.cpp:156] Memory required for data: 62016
I0925 23:33:11.955687  6897 net.cpp:156] Memory required for data: 94016
I0925 23:33:11.955700  6897 layer_factory.hpp:77] Creating layer h_pseudoloss
I0925 23:33:11.955713  6917 layer_factory.hpp:77] Creating layer lstm1_gate_input_1
I0925 23:33:11.955726  6897 net.cpp:91] Creating Layer h_pseudoloss
I0925 23:33:11.955741  6897 net.cpp:425] h_pseudoloss <- h
I0925 23:33:11.955750  6917 net.cpp:91] Creating Layer lstm1_gate_input_1
I0925 23:33:11.955759  6897 net.cpp:399] h_pseudoloss -> h_pseudoloss
I0925 23:33:11.955765  6917 net.cpp:425] lstm1_gate_input_1 <- W_hc_h_0
I0925 23:33:11.955782  6917 net.cpp:425] lstm1_gate_input_1 <- W_xc_x_1
I0925 23:33:11.955781  6937 net.cpp:141] Setting up lstm1_unit_1
I0925 23:33:11.955801  6950 net.cpp:141] Setting up lstm1_h_concat
I0925 23:33:11.955812  6937 net.cpp:148] Top shape: 1 1 1000 (1000)
I0925 23:33:11.955831  6937 net.cpp:148] Top shape: 1 1 1000 (1000)
I0925 23:33:11.955842  6937 net.cpp:156] Memory required for data: 86016
I0925 23:33:11.955858  6937 layer_factory.hpp:77] Creating layer lstm1_
I0925 23:33:11.955865  6950 net.cpp:148] Top shape: 1 1 1000 (1000)
I0925 23:33:11.955875  6950 net.cpp:156] Memory required for data: 94016
I0925 23:33:11.955879  6937 net.cpp:91] Creating Layer lstm1_
I0925 23:33:11.955884  6950 layer_factory.hpp:77] Creating layer h_pseudoloss
I0925 23:33:11.955899  6950 net.cpp:91] Creating Layer h_pseudoloss
I0925 23:33:11.955905  6937 net.cpp:425] lstm1_ <- c_1
I0925 23:33:11.955909  6950 net.cpp:425] h_pseudoloss <- h
I0925 23:33:11.955935  6937 net.cpp:399] lstm1_ -> c_T
I0925 23:33:11.955971  6950 net.cpp:399] h_pseudoloss -> h_pseudoloss
I0925 23:33:11.955804  6917 net.cpp:399] lstm1_gate_input_1 -> gate_input_1
I0925 23:33:11.962759  6901 net.cpp:141] Setting up lstm2_W_xc_x_slice
I0925 23:33:11.962800  6901 net.cpp:148] Top shape: 1 1 4000 (4000)
I0925 23:33:11.962806  6901 net.cpp:156] Memory required for data: 46020
I0925 23:33:11.962815  6901 layer_factory.hpp:77] Creating layer lstm2_h_conted_0
I0925 23:33:11.962833  6901 net.cpp:91] Creating Layer lstm2_h_conted_0
I0925 23:33:11.962841  6901 net.cpp:425] lstm2_h_conted_0 <- h_0
I0925 23:33:11.962849  6901 net.cpp:425] lstm2_h_conted_0 <- cont_1_lstm2_cont_slice_0_split_0
I0925 23:33:11.962865  6901 net.cpp:399] lstm2_h_conted_0 -> h_conted_0
I0925 23:33:11.962934  6937 net.cpp:141] Setting up lstm1_
I0925 23:33:11.962957  6937 net.cpp:148] Top shape: 1 1 1000 (1000)
I0925 23:33:11.962965  6937 net.cpp:156] Memory required for data: 90016
I0925 23:33:11.962975  6937 layer_factory.hpp:77] Creating layer lstm1_h_concat
I0925 23:33:11.962992  6937 net.cpp:91] Creating Layer lstm1_h_concat
I0925 23:33:11.963001  6937 net.cpp:425] lstm1_h_concat <- h_1
I0925 23:33:11.963012  6937 net.cpp:399] lstm1_h_concat -> h
I0925 23:33:11.964195  6950 net.cpp:141] Setting up h_pseudoloss
…
I0925 23:33:11.964356  6950 net.cpp:219] lstm1_ does not need backward computation.
I0925 23:33:11.964362  6950 net.cpp:261] This network produces output c_T
I0925 23:33:11.964370  6950 net.cpp:261] This network produces output h_pseudoloss
I0925 23:33:11.964396  6950 net.cpp:274] Network initialization done.
I0925 23:33:11.964462  6950 recurrent_layer.cpp:150] Adding parameter 0: W_xc
I0925 23:33:11.964471  6950 recurrent_layer.cpp:150] Adding parameter 1: b_c
I0925 23:33:11.964478  6950 recurrent_layer.cpp:150] Adding parameter 2: W_hc
I0925 23:33:11.964623  6950 net.cpp:141] Setting up lstm1
I0925 23:33:11.964638  6950 net.cpp:148] Top shape: 1 1 1000 (1000)
I0925 23:33:11.964646  6950 net.cpp:156] Memory required for data: 26408
I0925 23:33:11.964668  6950 layer_factory.hpp:77] Creating layer concat
I0925 23:33:11.964682  6950 net.cpp:91] Creating Layer concat
I0925 23:33:11.964691  6950 net.cpp:425] concat <- lstm1
I0925 23:33:11.964702  6950 net.cpp:425] concat <- embedded_input_sentence
I0925 23:33:11.964711  6950 net.cpp:425] concat <- reshaped_stage_indicator
I0925 23:33:11.964721  6950 net.cpp:399] concat -> lstm1_video_sequence
I0925 23:33:11.964771  6950 net.cpp:141] Setting up concat
I0925 23:33:11.964783  6950 net.cpp:148] Top shape: 1 1 1501 (1501)
I0925 23:33:11.964792  6950 net.cpp:156] Memory required for data: 32412
I0925 23:33:11.964798  6950 layer_factory.hpp:77] Creating layer lstm2
I0925 23:33:11.964819  6950 net.cpp:91] Creating Layer lstm2
I0925 23:33:11.964828  6950 net.cpp:425] lstm2 <- lstm1_video_sequence
I0925 23:33:11.964836  6950 net.cpp:425] lstm2 <- cont_sentence_input_1_split_1
I0925 23:33:11.964850  6950 net.cpp:399] lstm2 -> lstm2
I0925 23:33:11.964866  6950 recurrent_layer.cpp:20] Initializing recurrent layer: assuming input batch contains 1 timesteps of 1 independent streams.
I0925 23:33:11.965237  6950 net.cpp:49] Initializing net from parameters: 
layer {
  name: "lstm2_"
  type: "Input"
  top: "x"
  top: "cont"
  input_param {
    shape {
      dim: 1
      dim: 1
      dim: 1501
    }
    shape {
      dim: 1
      dim: 1
    }
  }
}
layer {
  name: "lstm2_"
  type: "Input"
  top: "c_0"
  top: "h_0"
  input_param {
    shape {
      dim: 1
      dim: 1
      dim: 1000
    }
    shape {
      dim: 1
      dim: 1
      dim: 1000
    }
  }
}
layer {
  name: "lstm2_cont_slice"
  type: "Slice"
  bottom: "cont"
  top: "cont_1"
  slice_param {
    axis: 0
  }
}
layer {
  name: "lstm2_x_transform"
  type: "InnerProduct"
  bottom: "x"
  top: "W_xc_x"
  param {
    name: "W_xc"
  }
  param {
    name: "b_c"
  }
  propagate_down: true
  inner_product_param {
    num_output: 4000
    bias_term: true
    weight_filler {
      type: "uniform"
      min: -0.08
      max: 0.08
    }
    bias_filler {
      type: "constant"
      value: 0
    }
    axis: 2
  }
}
layer {
  name: "lstm2_W_xc_x_slice"
  type: "Slice"
  bottom: "W_xc_x"
  top: "W_xc_x_1"
  slice_param {
    axis: 0
  }
}
layer {
  name: "lstm2_h_conted_0"
  type: "Scale"
  bottom: "h_0"
  bottom: "cont_1"
  top: "h_conted_0"
  scale_param {
    axis: 0
  }
}
layer {
  name: "lstm2_transform_1"
  type: "InnerProduct"
  bottom: "h_conted_0"
  top: "W_hc_h_0"
  param {
    name: "W_hc"
  }
  inner_product_param {
    num_output: 4000
    bias_term: false
    weight_filler {
      type: "uniform"
      min: -0.08
      max: 0.08
    }
    axis: 2
  }
}
layer {
  name: "lstm2_gate_input_1"
  type: "Eltwise"
  bottom: "W_hc_h_0"
  bottom: "W_xc_x_1"
  top: "gate_input_1"
  eltwise_param {
    operation: SUM
  }
}
layer {
  name: "lstm2_unit_1"
  type: "LSTMUnit"
  bottom: "c_0"
  bottom: "gate_input_1"
  bottom: "cont_1"
  top: "c_1"
  top: "h_1"
}
layer {
  name: "lstm2_"
  type: "Split"
  bottom: "c_1"
  top: "c_T"
}
layer {
  name: "lstm2_h_concat"
  type: "Concat"
  bottom: "h_1"
  top: "h"
  concat_param {
    axis: 0
  }
}
layer {
  name: "h_pseudoloss"
  type: "Reduction"
  bottom: "h"
  top: "h_pseudoloss"
  loss_weight: 1
}
I0925 23:33:11.965366  6950 layer_factory.hpp:77] Creating layer lstm2_
I0925 23:33:11.965384  6950 net.cpp:91] Creating Layer lstm2_
I0925 23:33:11.965394  6950 net.cpp:399] lstm2_ -> x
I0925 23:33:11.965409  6950 net.cpp:399] lstm2_ -> cont
I0925 23:33:11.965486  6950 net.cpp:141] Setting up lstm2_
I0925 23:33:11.965499  6950 net.cpp:148] Top shape: 1 1 1501 (1501)
I0925 23:33:11.965510  6950 net.cpp:148] Top shape: 1 1 (1)
I0925 23:33:11.965517  6950 net.cpp:156] Memory required for data: 6008
I0925 23:33:11.965525  6950 layer_factory.hpp:77] Creating layer lstm2_
I0925 23:33:11.965538  6950 net.cpp:91] Creating Layer lstm2_
I0925 23:33:11.965548  6950 net.cpp:399] lstm2_ -> c_0
I0925 23:33:11.965564  6950 net.cpp:399] lstm2_ -> h_0
I0925 23:33:11.965638  6950 net.cpp:141] Setting up lstm2_
I0925 23:33:11.965652  6950 net.cpp:148] Top shape: 1 1 1000 (1000)
I0925 23:33:11.965662  6950 net.cpp:148] Top shape: 1 1 1000 (1000)
I0925 23:33:11.965669  6950 net.cpp:156] Memory required for data: 14008
I0925 23:33:11.965677  6950 layer_factory.hpp:77] Creating layer lstm2_cont_slice
I0925 23:33:11.965689  6950 net.cpp:91] Creating Layer lstm2_cont_slice
I0925 23:33:11.965698  6950 net.cpp:425] lstm2_cont_slice <- cont
I0925 23:33:11.965708  6950 net.cpp:399] lstm2_cont_slice -> cont_1
I0925 23:33:11.965756  6950 net.cpp:141] Setting up lstm2_cont_slice
I0925 23:33:11.965770  6950 net.cpp:148] Top shape: 1 1 (1)
I0925 23:33:11.965777  6950 net.cpp:156] Memory required for data: 14012
I0925 23:33:11.965785  6950 layer_factory.hpp:77] Creating layer cont_1_lstm2_cont_slice_0_split
I0925 23:33:11.965796  6950 net.cpp:91] Creating Layer cont_1_lstm2_cont_slice_0_split
I0925 23:33:11.965806  6950 net.cpp:425] cont_1_lstm2_cont_slice_0_split <- cont_1
I0925 23:33:11.965817  6950 net.cpp:399] cont_1_lstm2_cont_slice_0_split -> cont_1_lstm2_cont_slice_0_split_0
I0925 23:33:11.965850  6950 net.cpp:399] cont_1_lstm2_cont_slice_0_split -> cont_1_lstm2_cont_slice_0_split_1
I0925 23:33:11.965917  6950 net.cpp:141] Setting up cont_1_lstm2_cont_slice_0_split
I0925 23:33:11.965931  6950 net.cpp:148] Top shape: 1 1 (1)
I0925 23:33:11.965941  6950 net.cpp:148] Top shape: 1 1 (1)
I0925 23:33:11.965948  6950 net.cpp:156] Memory required for data: 14020
I0925 23:33:11.965955  6950 layer_factory.hpp:77] Creating layer lstm2_x_transform
I0925 23:33:11.965970  6950 net.cpp:91] Creating Layer lstm2_x_transform
I0925 23:33:11.965979  6950 net.cpp:425] lstm2_x_transform <- x
I0925 23:33:11.965992  6950 net.cpp:399] lstm2_x_transform -> W_xc_x
I0925 23:33:11.980490  6897 net.cpp:141] Setting up h_pseudoloss
I0925 23:33:11.980526  6937 net.cpp:141] Setting up lstm1_h_concat
I0925 23:33:11.980536  6897 net.cpp:148] Top shape: (1)
I0925 23:33:11.980546  6937 net.cpp:148] Top shape: 1 1 1000 (1000)
I0925 23:33:11.980554  6937 net.cpp:156] Memory required for data: 94016
I0925 23:33:11.980564  6937 layer_factory.hpp:77] Creating layer h_pseudoloss
I0925 23:33:11.980545  6897 net.cpp:151]     with loss weight 1
I0925 23:33:11.980573  6897 net.cpp:156] Memory required for data: 94020
I0925 23:33:11.980583  6897 net.cpp:217] h_pseudoloss needs backward computation.
I0925 23:33:11.980592  6897 net.cpp:217] lstm1_h_concat needs backward computation.
I0925 23:33:11.980597  6937 net.cpp:91] Creating Layer h_pseudoloss
I0925 23:33:11.980598  6897 net.cpp:219] lstm1_ does not need backward computation.
I0925 23:33:11.980608  6937 net.cpp:425] h_pseudoloss <- h
I0925 23:33:11.980608  6897 net.cpp:217] lstm1_unit_1 needs backward computation.
I0925 23:33:11.980629  6897 net.cpp:217] lstm1_gate_input_1 needs backward computation.
I0925 23:33:11.980630  6937 net.cpp:399] h_pseudoloss -> h_pseudoloss
I0925 23:33:11.980646  6897 net.cpp:217] lstm1_transform_1 needs backward computation.
I0925 23:33:11.980655  6897 net.cpp:219] lstm1_h_conted_0 does not need backward computation.
I0925 23:33:11.980665  6897 net.cpp:217] lstm1_W_xc_x_slice needs backward computation.
I0925 23:33:11.980674  6897 net.cpp:217] lstm1_x_transform needs backward computation.
I0925 23:33:11.980664  6917 net.cpp:141] Setting up lstm1_gate_input_1
I0925 23:33:11.980681  6897 net.cpp:219] cont_1_lstm1_cont_slice_0_split does not need backward computation.
I0925 23:33:11.980706  6917 net.cpp:148] Top shape: 1 1 4000 (4000)
…
    axis: 0
  }
}
layer {
  name: "h_pseudoloss"
  type: "Reduction"
  bottom: "h"
  top: "h_pseudoloss"
  loss_weight: 1
}
I0925 23:33:12.754030  6893 net.cpp:141] Setting up lstm2_W_xc_x_slice
I0925 23:33:12.754046  6893 net.cpp:148] Top shape: 1 1 4000 (4000)
I0925 23:33:12.754053  6893 net.cpp:156] Memory required for data: 46020
I0925 23:33:12.754061  6893 layer_factory.hpp:77] Creating layer lstm2_h_conted_0
I0925 23:33:12.754076  6893 net.cpp:91] Creating Layer lstm2_h_conted_0
I0925 23:33:12.754083  6893 net.cpp:425] lstm2_h_conted_0 <- h_0
I0925 23:33:12.754092  6893 net.cpp:425] lstm2_h_conted_0 <- cont_1_lstm2_cont_slice_0_split_0
I0925 23:33:12.754114  6893 net.cpp:399] lstm2_h_conted_0 -> h_conted_0
I0925 23:33:12.754209  6946 layer_factory.hpp:77] Creating layer lstm2_
I0925 23:33:12.754246  6946 net.cpp:91] Creating Layer lstm2_
I0925 23:33:12.754269  6946 net.cpp:399] lstm2_ -> x
I0925 23:33:12.754302  6946 net.cpp:399] lstm2_ -> cont
I0925 23:33:12.754490  6946 net.cpp:141] Setting up lstm2_
I0925 23:33:12.754519  6946 net.cpp:148] Top shape: 1 1 1501 (1501)
I0925 23:33:12.754541  6946 net.cpp:148] Top shape: 1 1 (1)
I0925 23:33:12.754556  6946 net.cpp:156] Memory required for data: 6008
I0925 23:33:12.754573  6946 layer_factory.hpp:77] Creating layer lstm2_
I0925 23:33:12.754614  6946 net.cpp:91] Creating Layer lstm2_
I0925 23:33:12.758774  6917 net.cpp:141] Setting up lstm2_unit_1
I0925 23:33:12.758774  6946 net.cpp:399] lstm2_ -> c_0
I0925 23:33:12.758842  6917 net.cpp:148] Top shape: 1 1 1000 (1000)
I0925 23:33:12.758774  6893 net.cpp:141] Setting up lstm2_h_conted_0
I0925 23:33:12.758855  6917 net.cpp:148] Top shape: 1 1 1000 (1000)
I0925 23:33:12.758864  6917 net.cpp:156] Memory required for data: 90020
I0925 23:33:12.758868  6893 net.cpp:148] Top shape: 1 1 1000 (1000)
I0925 23:33:12.758875  6893 net.cpp:156] Memory required for data: 50020
I0925 23:33:12.758877  6917 layer_factory.hpp:77] Creating layer lstm2_
I0925 23:33:12.758883  6893 layer_factory.hpp:77] Creating layer lstm2_transform_1
I0925 23:33:12.758885  6923 net.cpp:141] Setting up lstm2_transform_1
I0925 23:33:12.758898  6889 net.cpp:141] Setting up h_pseudoloss
I0925 23:33:12.758905  6946 net.cpp:399] lstm2_ -> h_0
…
I0925 23:33:12.758993  6893 net.cpp:399] lstm2_transform_1 -> W_hc_h_0
I0925 23:33:12.758999  6889 net.cpp:217] lstm2_unit_1 needs backward computation.
I0925 23:33:12.759009  6889 net.cpp:217] lstm2_gate_input_1 needs backward computation.
I0925 23:33:12.759017  6889 net.cpp:217] lstm2_transform_1 needs backward computation.
I0925 23:33:12.759026  6889 net.cpp:219] lstm2_h_conted_0 does not need backward computation.
I0925 23:33:12.759035  6889 net.cpp:217] lstm2_W_xc_x_slice needs backward computation.
I0925 23:33:12.759043  6889 net.cpp:217] lstm2_x_transform needs backward computation.
I0925 23:33:12.758910  6923 net.cpp:148] Top shape: 1 1 4000 (4000)
I0925 23:33:12.759053  6889 net.cpp:219] cont_1_lstm2_cont_slice_0_split does not need backward computation.
I0925 23:33:12.759057  6923 net.cpp:156] Memory required for data: 66020
I0925 23:33:12.759063  6889 net.cpp:219] lstm2_cont_slice does not need backward computation.
I0925 23:33:12.759073  6889 net.cpp:219] lstm2_ does not need backward computation.
I0925 23:33:12.759078  6889 net.cpp:219] lstm2_ does not need backward computation.
I0925 23:33:12.759080  6923 layer_factory.hpp:77] Creating layer lstm2_gate_input_1
I0925 23:33:12.759085  6889 net.cpp:261] This network produces output c_T
I0925 23:33:12.759094  6889 net.cpp:261] This network produces output h_pseudoloss
I0925 23:33:12.759109  6923 net.cpp:91] Creating Layer lstm2_gate_input_1
I0925 23:33:12.759119  6923 net.cpp:425] lstm2_gate_input_1 <- W_hc_h_0
I0925 23:33:12.759130  6923 net.cpp:425] lstm2_gate_input_1 <- W_xc_x_1
I0925 23:33:12.759133  6889 net.cpp:274] Network initialization done.
I0925 23:33:12.759141  6923 net.cpp:399] lstm2_gate_input_1 -> gate_input_1
I0925 23:33:12.759158  6946 net.cpp:141] Setting up lstm2_
I0925 23:33:12.759193  6946 net.cpp:148] Top shape: 1 1 1000 (1000)
I0925 23:33:12.759214  6917 net.cpp:141] Setting up lstm2_
I0925 23:33:12.759217  6946 net.cpp:148] Top shape: 1 1 1000 (1000)
I0925 23:33:12.759229  6917 net.cpp:148] Top shape: 1 1 1000 (1000)
I0925 23:33:12.759233  6946 net.cpp:156] Memory required for data: 14008
I0925 23:33:12.759238  6917 net.cpp:156] Memory required for data: 94020
I0925 23:33:12.759263  6917 layer_factory.hpp:77] Creating layer lstm2_h_concat
I0925 23:33:12.759263  6946 layer_factory.hpp:77] Creating layer lstm2_cont_slice
I0925 23:33:12.759277  6917 net.cpp:91] Creating Layer lstm2_h_concat
I0925 23:33:12.759264  6889 recurrent_layer.cpp:150] Adding parameter 0: W_xc
I0925 23:33:12.759286  6917 net.cpp:425] lstm2_h_concat <- h_1
I0925 23:33:12.759294  6889 recurrent_layer.cpp:150] Adding parameter 1: b_c
I0925 23:33:12.759302  6917 net.cpp:399] lstm2_h_concat -> h
I0925 23:33:12.759304  6889 recurrent_layer.cpp:150] Adding parameter 2: W_hc
I0925 23:33:12.759312  6946 net.cpp:91] Creating Layer lstm2_cont_slice
I0925 23:33:12.759333  6946 net.cpp:425] lstm2_cont_slice <- cont
I0925 23:33:12.759361  6946 net.cpp:399] lstm2_cont_slice -> cont_1
I0925 23:33:12.770647  6923 net.cpp:141] Setting up lstm2_gate_input_1
I0925 23:33:12.770666  6923 net.cpp:148] Top shape: 1 1 4000 (4000)
I0925 23:33:12.770674  6923 net.cpp:156] Memory required for data: 82020
I0925 23:33:12.770684  6923 layer_factory.hpp:77] Creating layer lstm2_unit_1
I0925 23:33:12.770699  6923 net.cpp:91] Creating Layer lstm2_unit_1
I0925 23:33:12.770705  6917 net.cpp:141] Setting up lstm2_h_concat
I0925 23:33:12.770709  6923 net.cpp:425] lstm2_unit_1 <- c_0
I0925 23:33:12.770911  6917 net.cpp:148] Top shape: 1 1 1000 (1000)
I0925 23:33:12.770913  6923 net.cpp:425] lstm2_unit_1 <- gate_input_1
I0925 23:33:12.770927  6917 net.cpp:156] Memory required for data: 98020
I0925 23:33:12.770933  6923 net.cpp:425] lstm2_unit_1 <- cont_1_lstm2_cont_slice_0_split_1
I0925 23:33:12.770936  6917 layer_factory.hpp:77] Creating layer h_pseudoloss
I0925 23:33:12.770944  6923 net.cpp:399] lstm2_unit_1 -> c_1
I0925 23:33:12.770953  6917 net.cpp:91] Creating Layer h_pseudoloss
I0925 23:33:12.770961  6923 net.cpp:399] lstm2_unit_1 -> h_1
I0925 23:33:12.770964  6917 net.cpp:425] h_pseudoloss <- h
I0925 23:33:12.770978  6917 net.cpp:399] h_pseudoloss -> h_pseudoloss
I0925 23:33:12.771141  6889 net.cpp:141] Setting up lstm2
I0925 23:33:12.771227  6889 net.cpp:148] Top shape: 1 1 1000 (1000)
I0925 23:33:12.771237  6889 net.cpp:156] Memory required for data: 36412
I0925 23:33:12.771270  6923 net.cpp:141] Setting up lstm2_unit_1
I0925 23:33:12.771286  6889 layer_factory.hpp:77] Creating layer predict
I0925 23:33:12.771288  6923 net.cpp:148] Top shape: 1 1 1000 (1000)
I0925 23:33:12.771317  6923 net.cpp:148] Top shape: 1 1 1000 (1000)
I0925 23:33:12.771317  6889 net.cpp:91] Creating Layer predict
I0925 23:33:12.771327  6923 net.cpp:156] Memory required for data: 90020
I0925 23:33:12.771338  6923 layer_factory.hpp:77] Creating layer lstm2_
I0925 23:33:12.771345  6889 net.cpp:425] predict <- lstm2
I0925 23:33:12.771353  6923 net.cpp:91] Creating Layer lstm2_
I0925 23:33:12.771360  6923 net.cpp:425] lstm2_ <- c_1
I0925 23:33:12.771361  6889 net.cpp:399] predict -> predict
I0925 23:33:12.771368  6923 net.cpp:399] lstm2_ -> c_T
I0925 23:33:12.771456  6946 net.cpp:141] Setting up lstm2_cont_slice
I0925 23:33:12.771492  6946 net.cpp:148] Top shape: 1 1 (1)
I0925 23:33:12.771493  6917 net.cpp:141] Setting up h_pseudoloss
I0925 23:33:12.771517  6946 net.cpp:156] Memory required for data: 14012
I0925 23:33:12.771533  6917 net.cpp:148] Top shape: (1)
I0925 23:33:12.771538  6946 layer_factory.hpp:77] Creating layer cont_1_lstm2_cont_slice_0_split
I0925 23:33:12.771543  6923 net.cpp:141] Setting up lstm2_
I0925 23:33:12.771543  6917 net.cpp:151]     with loss weight 1
I0925 23:33:12.771564  6946 net.cpp:91] Creating Layer cont_1_lstm2_cont_slice_0_split
I0925 23:33:12.771574  6917 net.cpp:156] Memory required for data: 98024
I0925 23:33:12.771576  6923 net.cpp:148] Top shape: 1 1 1000 (1000)
I0925 23:33:12.771585  6946 net.cpp:425] cont_1_lstm2_cont_slice_0_split <- cont_1
I0925 23:33:12.771591  6923 net.cpp:156] Memory required for data: 94020
I0925 23:33:12.771602  6923 layer_factory.hpp:77] Creating layer lstm2_h_concat
I0925 23:33:12.771590  6917 net.cpp:217] h_pseudoloss needs backward computation.
I0925 23:33:12.771620  6917 net.cpp:217] lstm2_h_concat needs backward computation.
…
I0925 23:33:12.771770  6917 net.cpp:219] lstm2_ does not need backward computation.
I0925 23:33:12.771778  6917 net.cpp:261] This network produces output c_T
I0925 23:33:12.771786  6917 net.cpp:261] This network produces output h_pseudoloss
I0925 23:33:12.771809  6917 net.cpp:274] Network initialization done.
I0925 23:33:12.771868  6917 recurrent_layer.cpp:150] Adding parameter 0: W_xc
I0925 23:33:12.771878  6917 recurrent_layer.cpp:150] Adding parameter 1: b_c
I0925 23:33:12.771881  6917 recurrent_layer.cpp:150] Adding parameter 2: W_hc
I0925 23:33:12.863375  6923 net.cpp:141] Setting up lstm2_h_concat
I0925 23:33:12.863457  6923 net.cpp:148] Top shape: 1 1 1000 (1000)
I0925 23:33:12.863469  6923 net.cpp:156] Memory required for data: 98020
I0925 23:33:12.863484  6923 layer_factory.hpp:77] Creating layer h_pseudoloss
I0925 23:33:12.863518  6923 net.cpp:91] Creating Layer h_pseudoloss
I0925 23:33:12.863531  6923 net.cpp:425] h_pseudoloss <- h
I0925 23:33:12.863554  6923 net.cpp:399] h_pseudoloss -> h_pseudoloss
I0925 23:33:12.863839  6923 net.cpp:141] Setting up h_pseudoloss
I0925 23:33:12.863867  6923 net.cpp:148] Top shape: (1)
I0925 23:33:12.863878  6923 net.cpp:151]     with loss weight 1
I0925 23:33:12.863909  6923 net.cpp:156] Memory required for data: 98024
I0925 23:33:12.863921  6923 net.cpp:217] h_pseudoloss needs backward computation.
I0925 23:33:12.863930  6923 net.cpp:217] lstm2_h_concat needs backward computation.
I0925 23:33:12.863940  6923 net.cpp:219] lstm2_ does not need backward computation.
I0925 23:33:12.863950  6923 net.cpp:217] lstm2_unit_1 needs backward computation.
I0925 23:33:12.863962  6923 net.cpp:217] lstm2_gate_input_1 needs backward computation.
I0925 23:33:12.863948  6946 net.cpp:141] Setting up cont_1_lstm2_cont_slice_0_split
I0925 23:33:12.863973  6923 net.cpp:217] lstm2_transform_1 needs backward computation.
I0925 23:33:12.864001  6917 net.cpp:141] Setting up lstm2
I0925 23:33:12.864011  6923 net.cpp:219] lstm2_h_conted_0 does not need backward computation.
I0925 23:33:12.864012  6946 net.cpp:148] Top shape: 1 1 (1)
I0925 23:33:12.864020  6917 net.cpp:148] Top shape: 1 1 1000 (1000)
I0925 23:33:12.864025  6923 net.cpp:217] lstm2_W_xc_x_slice needs backward computation.
I0925 23:33:12.864029  6946 net.cpp:148] Top shape: 1 1 (1)
I0925 23:33:12.864035  6923 net.cpp:217] lstm2_x_transform needs backward computation.
I0925 23:33:12.864045  6946 net.cpp:156] Memory required for data: 14020
I0925 23:33:12.864047  6923 net.cpp:219] cont_1_lstm2_cont_slice_0_split does not need backward computation.
I0925 23:33:12.864065  6946 layer_factory.hpp:77] Creating layer lstm2_x_transform
I0925 23:33:12.864075  6923 net.cpp:219] lstm2_cont_slice does not need backward computation.
I0925 23:33:12.864094  6923 net.cpp:219] lstm2_ does not need backward computation.
I0925 23:33:12.864100  6946 net.cpp:91] Creating Layer lstm2_x_transform
I0925 23:33:12.864104  6923 net.cpp:219] lstm2_ does not need backward computation.
I0925 23:33:12.864111  6923 net.cpp:261] This network produces output c_T
I0925 23:33:12.864112  6946 net.cpp:425] lstm2_x_transform <- x
I0925 23:33:12.864120  6923 net.cpp:261] This network produces output h_pseudoloss
I0925 23:33:12.864140  6946 net.cpp:399] lstm2_x_transform -> W_xc_x
I0925 23:33:12.864157  6923 net.cpp:274] Network initialization done.
I0925 23:33:12.864178  6893 net.cpp:141] Setting up lstm2_transform_1
I0925 23:33:12.864202  6893 net.cpp:148] Top shape: 1 1 4000 (4000)
I0925 23:33:12.864207  6893 net.cpp:156] Memory required for data: 66020
I0925 23:33:12.864223  6893 layer_factory.hpp:77] Creating layer lstm2_gate_input_1
I0925 23:33:12.864243  6893 net.cpp:91] Creating Layer lstm2_gate_input_1
I0925 23:33:12.864250  6893 net.cpp:425] lstm2_gate_input_1 <- W_hc_h_0
I0925 23:33:12.864259  6893 net.cpp:425] lstm2_gate_input_1 <- W_xc_x_1
I0925 23:33:12.864261  6923 recurrent_layer.cpp:150] Adding parameter 0: W_xc
I0925 23:33:12.864267  6893 net.cpp:399] lstm2_gate_input_1 -> gate_input_1
I0925 23:33:12.864291  6923 recurrent_layer.cpp:150] Adding parameter 1: b_c
I0925 23:33:12.864303  6923 recurrent_layer.cpp:150] Adding parameter 2: W_hc
I0925 23:33:12.864029  6917 net.cpp:156] Memory required for data: 36412
I0925 23:33:12.868062  6917 layer_factory.hpp:77] Creating layer predict
I0925 23:33:12.868106  6917 net.cpp:91] Creating Layer predict
I0925 23:33:12.868118  6917 net.cpp:425] predict <- lstm2
I0925 23:33:12.868134  6917 net.cpp:399] predict -> predict
I0925 23:33:12.886239  6893 net.cpp:141] Setting up lstm2_gate_input_1
I0925 23:33:12.886740  6893 net.cpp:148] Top shape: 1 1 4000 (4000)
I0925 23:33:12.886864  6893 net.cpp:156] Memory required for data: 82020
I0925 23:33:12.887024  6893 layer_factory.hpp:77] Creating layer lstm2_unit_1
I0925 23:33:12.887204  6893 net.cpp:91] Creating Layer lstm2_unit_1
I0925 23:33:12.887317  6893 net.cpp:425] lstm2_unit_1 <- c_0
I0925 23:33:12.956985  6893 net.cpp:425] lstm2_unit_1 <- gate_input_1
I0925 23:33:12.957046  6893 net.cpp:425] lstm2_unit_1 <- cont_1_lstm2_cont_slice_0_split_1
I0925 23:33:12.957062  6893 net.cpp:399] lstm2_unit_1 -> c_1
I0925 23:33:12.957079  6893 net.cpp:399] lstm2_unit_1 -> h_1
I0925 23:33:12.963671  6923 net.cpp:141] Setting up lstm2
I0925 23:33:12.963754  6923 net.cpp:148] Top shape: 1 1 1000 (1000)
I0925 23:33:12.963759  6893 net.cpp:141] Setting up lstm2_unit_1
I0925 23:33:12.963773  6923 net.cpp:156] Memory required for data: 36412
I0925 23:33:12.963779  6893 net.cpp:148] Top shape: 1 1 1000 (1000)
I0925 23:33:12.963788  6893 net.cpp:148] Top shape: 1 1 1000 (1000)
I0925 23:33:12.963793  6893 net.cpp:156] Memory required for data: 90020
I0925 23:33:12.963794  6950 net.cpp:141] Setting up predict
I0925 23:33:12.963800  6893 layer_factory.hpp:77] Creating layer lstm2_
I0925 23:33:12.963820  6950 net.cpp:148] Top shape: 1 1 46168 (46168)
I0925 23:33:12.963829  6893 net.cpp:91] Creating Layer lstm2_
I0925 23:33:12.963829  6950 net.cpp:156] Memory required for data: 221084
I0925 23:33:12.963827  6923 layer_factory.hpp:77] Creating layer predict
I0925 23:33:12.963837  6893 net.cpp:425] lstm2_ <- c_1
I0925 23:33:12.963850  6950 layer_factory.hpp:77] Creating layer probs
I0925 23:33:12.963863  6893 net.cpp:399] lstm2_ -> c_T
I0925 23:33:12.963867  6950 net.cpp:91] Creating Layer probs
I0925 23:33:12.963877  6950 net.cpp:425] probs <- predict
I0925 23:33:12.963874  6923 net.cpp:91] Creating Layer predict
I0925 23:33:12.963889  6950 net.cpp:399] probs -> probs
I0925 23:33:12.963896  6923 net.cpp:425] predict <- lstm2
I0925 23:33:12.963922  6923 net.cpp:399] predict -> predict
I0925 23:33:12.963925  6893 net.cpp:141] Setting up lstm2_
I0925 23:33:12.963950  6893 net.cpp:148] Top shape: 1 1 1000 (1000)
I0925 23:33:12.963955  6893 net.cpp:156] Memory required for data: 94020
I0925 23:33:12.963960  6893 layer_factory.hpp:77] Creating layer lstm2_h_concat
I0925 23:33:12.963973  6893 net.cpp:91] Creating Layer lstm2_h_concat
I0925 23:33:12.963978  6893 net.cpp:425] lstm2_h_concat <- h_1
I0925 23:33:12.963985  6893 net.cpp:399] lstm2_h_concat -> h
I0925 23:33:12.970757  6893 net.cpp:141] Setting up lstm2_h_concat
I0925 23:33:12.970815  6893 net.cpp:148] Top shape: 1 1 1000 (1000)
I0925 23:33:12.970823  6893 net.cpp:156] Memory required for data: 98020
I0925 23:33:12.970832  6893 layer_factory.hpp:77] Creating layer h_pseudoloss
I0925 23:33:12.970850  6893 net.cpp:91] Creating Layer h_pseudoloss
I0925 23:33:12.970859  6893 net.cpp:425] h_pseudoloss <- h
I0925 23:33:12.970872  6893 net.cpp:399] h_pseudoloss -> h_pseudoloss
I0925 23:33:13.066241  6946 net.cpp:141] Setting up lstm2_x_transform
I0925 23:33:13.066288  6946 net.cpp:148] Top shape: 1 1 4000 (4000)
I0925 23:33:13.066295  6946 net.cpp:156] Memory required for data: 30020
I0925 23:33:13.066316  6946 layer_factory.hpp:77] Creating layer lstm2_W_xc_x_slice
I0925 23:33:13.066332  6946 net.cpp:91] Creating Layer lstm2_W_xc_x_slice
I0925 23:33:13.066339  6946 net.cpp:425] lstm2_W_xc_x_slice <- W_xc_x
I0925 23:33:13.066349  6946 net.cpp:399] lstm2_W_xc_x_slice -> W_xc_x_1
I0925 23:33:13.066344  6911 net.cpp:141] Setting up predict
I0925 23:33:13.066388  6911 net.cpp:148] Top shape: 1 1 46168 (46168)
I0925 23:33:13.066395  6911 net.cpp:156] Memory required for data: 221084
I0925 23:33:13.066409  6911 layer_factory.hpp:77] Creating layer probs
I0925 23:33:13.066426  6911 net.cpp:91] Creating Layer probs
I0925 23:33:13.066434  6911 net.cpp:425] probs <- predict
I0925 23:33:13.066444  6911 net.cpp:399] probs -> probs
I0925 23:33:13.066454  6946 net.cpp:141] Setting up lstm2_W_xc_x_slice
I0925 23:33:13.066468  6946 net.cpp:148] Top shape: 1 1 4000 (4000)
I0925 23:33:13.066473  6946 net.cpp:156] Memory required for data: 46020
I0925 23:33:13.066478  6946 layer_factory.hpp:77] Creating layer lstm2_h_conted_0
I0925 23:33:13.066488  6946 net.cpp:91] Creating Layer lstm2_h_conted_0
I0925 23:33:13.066493  6946 net.cpp:425] lstm2_h_conted_0 <- h_0
I0925 23:33:13.066500  6946 net.cpp:425] lstm2_h_conted_0 <- cont_1_lstm2_cont_slice_0_split_0
I0925 23:33:13.066507  6946 net.cpp:399] lstm2_h_conted_0 -> h_conted_0
I0925 23:33:13.066503  6897 net.cpp:141] Setting up predict
I0925 23:33:13.066526  6897 net.cpp:148] Top shape: 1 1 46168 (46168)
I0925 23:33:13.066534  6897 net.cpp:156] Memory required for data: 221084
I0925 23:33:13.066551  6897 layer_factory.hpp:77] Creating layer probs
I0925 23:33:13.066567  6897 net.cpp:91] Creating Layer probs
I0925 23:33:13.066576  6897 net.cpp:425] probs <- predict
I0925 23:33:13.066588  6897 net.cpp:399] probs -> probs
I0925 23:33:13.066651  6946 net.cpp:141] Setting up lstm2_h_conted_0
I0925 23:33:13.066655  6893 net.cpp:141] Setting up h_pseudoloss
I0925 23:33:13.066663  6946 net.cpp:148] Top shape: 1 1 1000 (1000)
I0925 23:33:13.066686  6946 net.cpp:156] Memory required for data: 50020
I0925 23:33:13.066689  6893 net.cpp:148] Top shape: (1)
I0925 23:33:13.066694  6946 layer_factory.hpp:77] Creating layer lstm2_transform_1
I0925 23:33:13.066720  6946 net.cpp:91] Creating Layer lstm2_transform_1
I0925 23:33:13.066706  6893 net.cpp:151]     with loss weight 1
I0925 23:33:13.066726  6946 net.cpp:425] lstm2_transform_1 <- h_conted_0
…
I0925 23:33:13.087342  6893 net.cpp:219] lstm2_ does not need backward computation.
I0925 23:33:13.087348  6893 net.cpp:261] This network produces output c_T
I0925 23:33:13.087360  6893 net.cpp:261] This network produces output h_pseudoloss
I0925 23:33:13.087393  6893 net.cpp:274] Network initialization done.
I0925 23:33:13.087493  6893 recurrent_layer.cpp:150] Adding parameter 0: W_xc
I0925 23:33:13.087509  6893 recurrent_layer.cpp:150] Adding parameter 1: b_c
I0925 23:33:13.087517  6893 recurrent_layer.cpp:150] Adding parameter 2: W_hc
I0925 23:33:13.104218  6893 net.cpp:141] Setting up lstm2
I0925 23:33:13.104279  6893 net.cpp:148] Top shape: 1 1 1000 (1000)
I0925 23:33:13.104287  6893 net.cpp:156] Memory required for data: 36412
I0925 23:33:13.104321  6893 layer_factory.hpp:77] Creating layer predict
I0925 23:33:13.104352  6893 net.cpp:91] Creating Layer predict
I0925 23:33:13.104367  6893 net.cpp:425] predict <- lstm2
I0925 23:33:13.104383  6893 net.cpp:399] predict -> predict
I0925 23:33:13.188505  6937 net.cpp:141] Setting up predict
I0925 23:33:13.188563  6937 net.cpp:148] Top shape: 1 1 46168 (46168)
I0925 23:33:13.188573  6937 net.cpp:156] Memory required for data: 221084
I0925 23:33:13.188592  6937 layer_factory.hpp:77] Creating layer probs
I0925 23:33:13.188613  6937 net.cpp:91] Creating Layer probs
I0925 23:33:13.188623  6937 net.cpp:425] probs <- predict
I0925 23:33:13.188637  6937 net.cpp:399] probs -> probs
I0925 23:33:13.195188  6946 net.cpp:141] Setting up lstm2_transform_1
I0925 23:33:13.195240  6946 net.cpp:148] Top shape: 1 1 4000 (4000)
I0925 23:33:13.195247  6946 net.cpp:156] Memory required for data: 66020
I0925 23:33:13.195267  6946 layer_factory.hpp:77] Creating layer lstm2_gate_input_1
I0925 23:33:13.195287  6946 net.cpp:91] Creating Layer lstm2_gate_input_1
I0925 23:33:13.195294  6946 net.cpp:425] lstm2_gate_input_1 <- W_hc_h_0
I0925 23:33:13.195302  6946 net.cpp:425] lstm2_gate_input_1 <- W_xc_x_1
I0925 23:33:13.195314  6946 net.cpp:399] lstm2_gate_input_1 -> gate_input_1
I0925 23:33:13.206133  6946 net.cpp:141] Setting up lstm2_gate_input_1
I0925 23:33:13.206573  6946 net.cpp:148] Top shape: 1 1 4000 (4000)
I0925 23:33:13.206724  6946 net.cpp:156] Memory required for data: 82020
I0925 23:33:13.206853  6946 layer_factory.hpp:77] Creating layer lstm2_unit_1
I0925 23:33:13.206989  6946 net.cpp:91] Creating Layer lstm2_unit_1
I0925 23:33:13.207145  6946 net.cpp:425] lstm2_unit_1 <- c_0
I0925 23:33:13.207267  6946 net.cpp:425] lstm2_unit_1 <- gate_input_1
I0925 23:33:13.207382  6946 net.cpp:425] lstm2_unit_1 <- cont_1_lstm2_cont_slice_0_split_1
I0925 23:33:13.207504  6946 net.cpp:399] lstm2_unit_1 -> c_1
I0925 23:33:13.207633  6946 net.cpp:399] lstm2_unit_1 -> h_1
I0925 23:33:13.233930  6946 net.cpp:141] Setting up lstm2_unit_1
I0925 23:33:13.233979  6946 net.cpp:148] Top shape: 1 1 1000 (1000)
I0925 23:33:13.233992  6946 net.cpp:148] Top shape: 1 1 1000 (1000)
I0925 23:33:13.233999  6946 net.cpp:156] Memory required for data: 90020
I0925 23:33:13.234011  6946 layer_factory.hpp:77] Creating layer lstm2_
I0925 23:33:13.234036  6946 net.cpp:91] Creating Layer lstm2_
I0925 23:33:13.234047  6946 net.cpp:425] lstm2_ <- c_1
I0925 23:33:13.234062  6946 net.cpp:399] lstm2_ -> c_T
I0925 23:33:13.234971  6946 net.cpp:141] Setting up lstm2_
I0925 23:33:13.234992  6946 net.cpp:148] Top shape: 1 1 1000 (1000)
I0925 23:33:13.234999  6946 net.cpp:156] Memory required for data: 94020
I0925 23:33:13.235008  6946 layer_factory.hpp:77] Creating layer lstm2_h_concat
I0925 23:33:13.235028  6946 net.cpp:91] Creating Layer lstm2_h_concat
I0925 23:33:13.235036  6946 net.cpp:425] lstm2_h_concat <- h_1
I0925 23:33:13.235050  6946 net.cpp:399] lstm2_h_concat -> h
I0925 23:33:13.235262  6946 net.cpp:141] Setting up lstm2_h_concat
I0925 23:33:13.235280  6946 net.cpp:148] Top shape: 1 1 1000 (1000)
I0925 23:33:13.235285  6946 net.cpp:156] Memory required for data: 98020
I0925 23:33:13.235291  6946 layer_factory.hpp:77] Creating layer h_pseudoloss
I0925 23:33:13.235307  6946 net.cpp:91] Creating Layer h_pseudoloss
I0925 23:33:13.235314  6946 net.cpp:425] h_pseudoloss <- h
I0925 23:33:13.235327  6946 net.cpp:399] h_pseudoloss -> h_pseudoloss
I0925 23:33:13.235633  6946 net.cpp:141] Setting up h_pseudoloss
…
I0925 23:33:13.235738  6946 net.cpp:219] lstm2_ does not need backward computation.
I0925 23:33:13.235740  6946 net.cpp:261] This network produces output c_T
I0925 23:33:13.235745  6946 net.cpp:261] This network produces output h_pseudoloss
I0925 23:33:13.235765  6946 net.cpp:274] Network initialization done.
I0925 23:33:13.235816  6946 recurrent_layer.cpp:150] Adding parameter 0: W_xc
I0925 23:33:13.235822  6946 recurrent_layer.cpp:150] Adding parameter 1: b_c
I0925 23:33:13.235826  6946 recurrent_layer.cpp:150] Adding parameter 2: W_hc
I0925 23:33:13.240773  6946 net.cpp:141] Setting up lstm2
I0925 23:33:13.240857  6946 net.cpp:148] Top shape: 1 1 1000 (1000)
I0925 23:33:13.240869  6946 net.cpp:156] Memory required for data: 36412
I0925 23:33:13.240907  6946 layer_factory.hpp:77] Creating layer predict
I0925 23:33:13.240937  6946 net.cpp:91] Creating Layer predict
I0925 23:33:13.240950  6946 net.cpp:425] predict <- lstm2
I0925 23:33:13.240968  6946 net.cpp:399] predict -> predict
I0925 23:33:13.348162  6917 net.cpp:141] Setting up predict
I0925 23:33:13.348215  6917 net.cpp:148] Top shape: 1 1 46168 (46168)
I0925 23:33:13.348222  6917 net.cpp:156] Memory required for data: 221084
I0925 23:33:13.348238  6917 layer_factory.hpp:77] Creating layer probs
I0925 23:33:13.348259  6917 net.cpp:91] Creating Layer probs
I0925 23:33:13.348268  6917 net.cpp:425] probs <- predict
I0925 23:33:13.348278  6917 net.cpp:399] probs -> probs
I0925 23:33:13.410822  6889 net.cpp:141] Setting up predict
I0925 23:33:13.410887  6889 net.cpp:148] Top shape: 1 1 46168 (46168)
I0925 23:33:13.410895  6889 net.cpp:156] Memory required for data: 221084
I0925 23:33:13.410919  6889 layer_factory.hpp:77] Creating layer probs
I0925 23:33:13.410949  6889 net.cpp:91] Creating Layer probs
I0925 23:33:13.410960  6889 net.cpp:425] probs <- predict
I0925 23:33:13.410974  6889 net.cpp:399] probs -> probs
I0925 23:33:13.499415  6923 net.cpp:141] Setting up predict
I0925 23:33:13.499459  6923 net.cpp:148] Top shape: 1 1 46168 (46168)
I0925 23:33:13.499464  6923 net.cpp:156] Memory required for data: 221084
I0925 23:33:13.499480  6923 layer_factory.hpp:77] Creating layer probs
I0925 23:33:13.499495  6923 net.cpp:91] Creating Layer probs
I0925 23:33:13.499503  6923 net.cpp:425] probs <- predict
I0925 23:33:13.499513  6923 net.cpp:399] probs -> probs
I0925 23:33:13.554514  6903 net.cpp:141] Setting up conv1
I0925 23:33:13.554563  6903 net.cpp:148] Top shape: 10 96 55 55 (2904000)
I0925 23:33:13.554569  6903 net.cpp:156] Memory required for data: 17799480
I0925 23:33:13.554607  6903 layer_factory.hpp:77] Creating layer relu1
I0925 23:33:13.554628  6903 net.cpp:91] Creating Layer relu1
I0925 23:33:13.554636  6903 net.cpp:425] relu1 <- conv1
I0925 23:33:13.554644  6903 net.cpp:386] relu1 -> conv1 (in-place)
I0925 23:33:13.556826  6889 net.cpp:141] Setting up probs
I0925 23:33:13.556864  6889 net.cpp:148] Top shape: 1 1 46168 (46168)
I0925 23:33:13.556871  6889 net.cpp:156] Memory required for data: 405756
I0925 23:33:13.556882  6889 net.cpp:219] probs does not need backward computation.
I0925 23:33:13.556891  6889 net.cpp:219] predict does not need backward computation.
I0925 23:33:13.556900  6889 net.cpp:219] lstm2 does not need backward computation.
I0925 23:33:13.556910  6889 net.cpp:219] concat does not need backward computation.
I0925 23:33:13.556920  6889 net.cpp:219] lstm1 does not need backward computation.
I0925 23:33:13.556928  6889 net.cpp:219] embedding does not need backward computation.
I0925 23:33:13.556936  6889 net.cpp:219] reshape_stage_indicator does not need backward computation.
I0925 23:33:13.556944  6889 net.cpp:219] reshape_frames does not need backward computation.
I0925 23:33:13.556952  6889 net.cpp:219] embed_encoder does not need backward computation.
I0925 23:33:13.556963  6889 net.cpp:219] cont_sentence_input_1_split does not need backward computation.
I0925 23:33:13.556972  6889 net.cpp:219] input does not need backward computation.
I0925 23:33:13.556978  6889 net.cpp:261] This network produces output probs
I0925 23:33:13.557004  6889 net.cpp:274] Network initialization done.
I0925 23:33:13.572376  6911 net.cpp:141] Setting up probs
I0925 23:33:13.572432  6911 net.cpp:148] Top shape: 1 1 46168 (46168)
I0925 23:33:13.572443  6911 net.cpp:156] Memory required for data: 405756
I0925 23:33:13.572458  6911 net.cpp:219] probs does not need backward computation.
I0925 23:33:13.572469  6911 net.cpp:219] predict does not need backward computation.
I0925 23:33:13.572479  6911 net.cpp:219] lstm2 does not need backward computation.
I0925 23:33:13.572487  6911 net.cpp:219] concat does not need backward computation.
I0925 23:33:13.572497  6911 net.cpp:219] lstm1 does not need backward computation.
I0925 23:33:13.572509  6911 net.cpp:219] embedding does not need backward computation.
I0925 23:33:13.572516  6911 net.cpp:219] reshape_stage_indicator does not need backward computation.
I0925 23:33:13.572526  6911 net.cpp:219] reshape_frames does not need backward computation.
I0925 23:33:13.572536  6911 net.cpp:219] embed_encoder does not need backward computation.
I0925 23:33:13.572546  6911 net.cpp:219] cont_sentence_input_1_split does not need backward computation.
I0925 23:33:13.572558  6911 net.cpp:219] input does not need backward computation.
I0925 23:33:13.572567  6911 net.cpp:261] This network produces output probs
I0925 23:33:13.572603  6911 net.cpp:274] Network initialization done.
I0925 23:33:13.572605  6897 net.cpp:141] Setting up probs
I0925 23:33:13.572623  6897 net.cpp:148] Top shape: 1 1 46168 (46168)
I0925 23:33:13.572628  6897 net.cpp:156] Memory required for data: 405756
I0925 23:33:13.572635  6897 net.cpp:219] probs does not need backward computation.
I0925 23:33:13.572641  6897 net.cpp:219] predict does not need backward computation.
I0925 23:33:13.572646  6897 net.cpp:219] lstm2 does not need backward computation.
I0925 23:33:13.572652  6897 net.cpp:219] concat does not need backward computation.
I0925 23:33:13.572659  6897 net.cpp:219] lstm1 does not need backward computation.
I0925 23:33:13.572665  6897 net.cpp:219] embedding does not need backward computation.
I0925 23:33:13.572670  6897 net.cpp:219] reshape_stage_indicator does not need backward computation.
I0925 23:33:13.572675  6897 net.cpp:219] reshape_frames does not need backward computation.
I0925 23:33:13.572680  6897 net.cpp:219] embed_encoder does not need backward computation.
I0925 23:33:13.572685  6897 net.cpp:219] cont_sentence_input_1_split does not need backward computation.
I0925 23:33:13.572691  6897 net.cpp:219] input does not need backward computation.
I0925 23:33:13.572695  6897 net.cpp:261] This network produces output probs
I0925 23:33:13.572713  6897 net.cpp:274] Network initialization done.
I0925 23:33:13.573405  6950 net.cpp:141] Setting up probs
I0925 23:33:13.573426  6950 net.cpp:148] Top shape: 1 1 46168 (46168)
I0925 23:33:13.573436  6950 net.cpp:156] Memory required for data: 405756
I0925 23:33:13.573446  6950 net.cpp:219] probs does not need backward computation.
I0925 23:33:13.573457  6950 net.cpp:219] predict does not need backward computation.
I0925 23:33:13.573467  6950 net.cpp:219] lstm2 does not need backward computation.
I0925 23:33:13.573479  6950 net.cpp:219] concat does not need backward computation.
I0925 23:33:13.573493  6950 net.cpp:219] lstm1 does not need backward computation.
I0925 23:33:13.573504  6950 net.cpp:219] embedding does not need backward computation.
I0925 23:33:13.573515  6950 net.cpp:219] reshape_stage_indicator does not need backward computation.
I0925 23:33:13.573526  6950 net.cpp:219] reshape_frames does not need backward computation.
I0925 23:33:13.573537  6950 net.cpp:219] embed_encoder does not need backward computation.
I0925 23:33:13.573549  6950 net.cpp:219] cont_sentence_input_1_split does not need backward computation.
I0925 23:33:13.573609  6950 net.cpp:219] input does not need backward computation.
I0925 23:33:13.573642  6950 net.cpp:261] This network produces output probs
I0925 23:33:13.573683  6950 net.cpp:274] Network initialization done.
I0925 23:33:13.574882  6901 net.cpp:141] Setting up probs
I0925 23:33:13.574905  6901 net.cpp:148] Top shape: 1 1 46168 (46168)
I0925 23:33:13.574913  6901 net.cpp:156] Memory required for data: 405756
I0925 23:33:13.574923  6901 net.cpp:219] probs does not need backward computation.
I0925 23:33:13.574935  6901 net.cpp:219] predict does not need backward computation.
I0925 23:33:13.574945  6901 net.cpp:219] lstm2 does not need backward computation.
I0925 23:33:13.574956  6901 net.cpp:219] concat does not need backward computation.
I0925 23:33:13.574967  6901 net.cpp:219] lstm1 does not need backward computation.
I0925 23:33:13.574978  6901 net.cpp:219] embedding does not need backward computation.
I0925 23:33:13.574987  6901 net.cpp:219] reshape_stage_indicator does not need backward computation.
I0925 23:33:13.574998  6901 net.cpp:219] reshape_frames does not need backward computation.
I0925 23:33:13.575007  6901 net.cpp:219] embed_encoder does not need backward computation.
I0925 23:33:13.575017  6901 net.cpp:219] cont_sentence_input_1_split does not need backward computation.
I0925 23:33:13.575027  6901 net.cpp:219] input does not need backward computation.
I0925 23:33:13.575036  6901 net.cpp:261] This network produces output probs
I0925 23:33:13.575068  6901 net.cpp:274] Network initialization done.
I0925 23:33:13.575470  6903 net.cpp:141] Setting up relu1
I0925 23:33:13.575498  6903 net.cpp:148] Top shape: 10 96 55 55 (2904000)
I0925 23:33:13.575507  6903 net.cpp:156] Memory required for data: 29415480
I0925 23:33:13.575516  6903 layer_factory.hpp:77] Creating layer pool1
I0925 23:33:13.575538  6903 net.cpp:91] Creating Layer pool1
I0925 23:33:13.575548  6903 net.cpp:425] pool1 <- conv1
I0925 23:33:13.575563  6903 net.cpp:399] pool1 -> pool1
I0925 23:33:13.575732  6903 net.cpp:141] Setting up pool1
I0925 23:33:13.575748  6903 net.cpp:148] Top shape: 10 96 27 27 (699840)
I0925 23:33:13.575757  6903 net.cpp:156] Memory required for data: 32214840
I0925 23:33:13.575764  6903 layer_factory.hpp:77] Creating layer norm1
I0925 23:33:13.575789  6903 net.cpp:91] Creating Layer norm1
I0925 23:33:13.575798  6903 net.cpp:425] norm1 <- pool1
I0925 23:33:13.575809  6903 net.cpp:399] norm1 -> norm1
I0925 23:33:13.576618  6903 net.cpp:141] Setting up norm1
I0925 23:33:13.576642  6903 net.cpp:148] Top shape: 10 96 27 27 (699840)
I0925 23:33:13.576652  6903 net.cpp:156] Memory required for data: 35014200
I0925 23:33:13.576664  6903 layer_factory.hpp:77] Creating layer conv2
I0925 23:33:13.576688  6903 net.cpp:91] Creating Layer conv2
I0925 23:33:13.576697  6903 net.cpp:425] conv2 <- norm1
I0925 23:33:13.576711  6903 net.cpp:399] conv2 -> conv2
I0925 23:33:13.598959  6917 net.cpp:141] Setting up probs
I0925 23:33:13.599014  6917 net.cpp:148] Top shape: 1 1 46168 (46168)
I0925 23:33:13.599025  6917 net.cpp:156] Memory required for data: 405756
I0925 23:33:13.599038  6917 net.cpp:219] probs does not need backward computation.
I0925 23:33:13.599050  6917 net.cpp:219] predict does not need backward computation.
I0925 23:33:13.599059  6917 net.cpp:219] lstm2 does not need backward computation.
I0925 23:33:13.599068  6917 net.cpp:219] concat does not need backward computation.
I0925 23:33:13.599078  6917 net.cpp:219] lstm1 does not need backward computation.
I0925 23:33:13.599089  6917 net.cpp:219] embedding does not need backward computation.
I0925 23:33:13.599098  6917 net.cpp:219] reshape_stage_indicator does not need backward computation.
I0925 23:33:13.599107  6917 net.cpp:219] reshape_frames does not need backward computation.
I0925 23:33:13.599115  6917 net.cpp:219] embed_encoder does not need backward computation.
I0925 23:33:13.599124  6917 net.cpp:219] cont_sentence_input_1_split does not need backward computation.
I0925 23:33:13.599138  6917 net.cpp:219] input does not need backward computation.
I0925 23:33:13.599144  6917 net.cpp:261] This network produces output probs
I0925 23:33:13.599175  6917 net.cpp:274] Network initialization done.
I0925 23:33:13.599200  6923 net.cpp:141] Setting up probs
I0925 23:33:13.599216  6923 net.cpp:148] Top shape: 1 1 46168 (46168)
I0925 23:33:13.599222  6923 net.cpp:156] Memory required for data: 405756
I0925 23:33:13.599228  6923 net.cpp:219] probs does not need backward computation.
I0925 23:33:13.599234  6923 net.cpp:219] predict does not need backward computation.
I0925 23:33:13.599241  6923 net.cpp:219] lstm2 does not need backward computation.
I0925 23:33:13.599246  6923 net.cpp:219] concat does not need backward computation.
I0925 23:33:13.599254  6923 net.cpp:219] lstm1 does not need backward computation.
I0925 23:33:13.599261  6923 net.cpp:219] embedding does not need backward computation.
I0925 23:33:13.599267  6923 net.cpp:219] reshape_stage_indicator does not need backward computation.
I0925 23:33:13.599272  6923 net.cpp:219] reshape_frames does not need backward computation.
I0925 23:33:13.599277  6923 net.cpp:219] embed_encoder does not need backward computation.
I0925 23:33:13.599282  6923 net.cpp:219] cont_sentence_input_1_split does not need backward computation.
I0925 23:33:13.599288  6923 net.cpp:219] input does not need backward computation.
I0925 23:33:13.599292  6923 net.cpp:261] This network produces output probs
I0925 23:33:13.599309  6923 net.cpp:274] Network initialization done.
I0925 23:33:13.600878  6937 net.cpp:141] Setting up probs
I0925 23:33:13.600925  6937 net.cpp:148] Top shape: 1 1 46168 (46168)
I0925 23:33:13.600934  6937 net.cpp:156] Memory required for data: 405756
I0925 23:33:13.600945  6937 net.cpp:219] probs does not need backward computation.
I0925 23:33:13.600955  6937 net.cpp:219] predict does not need backward computation.
I0925 23:33:13.600967  6937 net.cpp:219] lstm2 does not need backward computation.
I0925 23:33:13.600978  6937 net.cpp:219] concat does not need backward computation.
I0925 23:33:13.600989  6937 net.cpp:219] lstm1 does not need backward computation.
I0925 23:33:13.600998  6937 net.cpp:219] embedding does not need backward computation.
I0925 23:33:13.601006  6937 net.cpp:219] reshape_stage_indicator does not need backward computation.
I0925 23:33:13.601014  6937 net.cpp:219] reshape_frames does not need backward computation.
I0925 23:33:13.601022  6937 net.cpp:219] embed_encoder does not need backward computation.
I0925 23:33:13.601032  6937 net.cpp:219] cont_sentence_input_1_split does not need backward computation.
I0925 23:33:13.601044  6937 net.cpp:219] input does not need backward computation.
I0925 23:33:13.601052  6937 net.cpp:261] This network produces output probs
I0925 23:33:13.601444  6937 net.cpp:274] Network initialization done.
I0925 23:33:13.608047  6903 net.cpp:141] Setting up conv2
I0925 23:33:13.608103  6903 net.cpp:148] Top shape: 10 256 27 27 (1866240)
I0925 23:33:13.608111  6903 net.cpp:156] Memory required for data: 42479160
I0925 23:33:13.608139  6903 layer_factory.hpp:77] Creating layer relu2
I0925 23:33:13.608569  6903 net.cpp:91] Creating Layer relu2
I0925 23:33:13.608587  6903 net.cpp:425] relu2 <- conv2
I0925 23:33:13.608599  6903 net.cpp:386] relu2 -> conv2 (in-place)
I0925 23:33:13.610321  6903 net.cpp:141] Setting up relu2
I0925 23:33:13.610383  6903 net.cpp:148] Top shape: 10 256 27 27 (1866240)
I0925 23:33:13.610393  6903 net.cpp:156] Memory required for data: 49944120
I0925 23:33:13.610404  6903 layer_factory.hpp:77] Creating layer pool2
I0925 23:33:13.611529  6903 net.cpp:91] Creating Layer pool2
I0925 23:33:13.611588  6903 net.cpp:425] pool2 <- conv2
I0925 23:33:13.611620  6903 net.cpp:399] pool2 -> pool2
I0925 23:33:13.617655  6903 net.cpp:141] Setting up pool2
I0925 23:33:13.617709  6903 net.cpp:148] Top shape: 10 256 13 13 (432640)
I0925 23:33:13.617717  6903 net.cpp:156] Memory required for data: 51674680
I0925 23:33:13.617728  6903 layer_factory.hpp:77] Creating layer norm2
I0925 23:33:13.617759  6903 net.cpp:91] Creating Layer norm2
I0925 23:33:13.617769  6903 net.cpp:425] norm2 <- pool2
I0925 23:33:13.617782  6903 net.cpp:399] norm2 -> norm2
I0925 23:33:13.620620  6903 net.cpp:141] Setting up norm2
I0925 23:33:13.620687  6903 net.cpp:148] Top shape: 10 256 13 13 (432640)
I0925 23:33:13.620697  6903 net.cpp:156] Memory required for data: 53405240
I0925 23:33:13.620708  6903 layer_factory.hpp:77] Creating layer conv3
I0925 23:33:13.621181  6903 net.cpp:91] Creating Layer conv3
I0925 23:33:13.621203  6903 net.cpp:425] conv3 <- norm2
I0925 23:33:13.621224  6903 net.cpp:399] conv3 -> conv3
I0925 23:33:13.624712  6893 net.cpp:141] Setting up predict
I0925 23:33:13.624768  6893 net.cpp:148] Top shape: 1 1 46168 (46168)
I0925 23:33:13.624778  6893 net.cpp:156] Memory required for data: 221084
I0925 23:33:13.624800  6893 layer_factory.hpp:77] Creating layer probs
I0925 23:33:13.624825  6893 net.cpp:91] Creating Layer probs
I0925 23:33:13.624836  6893 net.cpp:425] probs <- predict
I0925 23:33:13.624852  6893 net.cpp:399] probs -> probs
I0925 23:33:13.649961  6893 net.cpp:141] Setting up probs
I0925 23:33:13.650326  6893 net.cpp:148] Top shape: 1 1 46168 (46168)
I0925 23:33:13.650447  6893 net.cpp:156] Memory required for data: 405756
I0925 23:33:13.650573  6893 net.cpp:219] probs does not need backward computation.
I0925 23:33:13.650717  6893 net.cpp:219] predict does not need backward computation.
I0925 23:33:13.650837  6893 net.cpp:219] lstm2 does not need backward computation.
I0925 23:33:13.650957  6893 net.cpp:219] concat does not need backward computation.
I0925 23:33:13.651079  6893 net.cpp:219] lstm1 does not need backward computation.
I0925 23:33:13.651254  6893 net.cpp:219] embedding does not need backward computation.
I0925 23:33:13.651371  6893 net.cpp:219] reshape_stage_indicator does not need backward computation.
I0925 23:33:13.651494  6893 net.cpp:219] reshape_frames does not need backward computation.
I0925 23:33:13.651615  6893 net.cpp:219] embed_encoder does not need backward computation.
I0925 23:33:13.651733  6893 net.cpp:219] cont_sentence_input_1_split does not need backward computation.
I0925 23:33:13.651850  6893 net.cpp:219] input does not need backward computation.
I0925 23:33:13.651974  6893 net.cpp:261] This network produces output probs
I0925 23:33:13.654750  6893 net.cpp:274] Network initialization done.
I0925 23:33:13.677141  6903 net.cpp:141] Setting up conv3
I0925 23:33:13.677250  6903 net.cpp:148] Top shape: 10 384 13 13 (648960)
I0925 23:33:13.677258  6903 net.cpp:156] Memory required for data: 56001080
I0925 23:33:13.677294  6903 layer_factory.hpp:77] Creating layer relu3
I0925 23:33:13.677827  6903 net.cpp:91] Creating Layer relu3
I0925 23:33:13.677862  6903 net.cpp:425] relu3 <- conv3
I0925 23:33:13.677877  6903 net.cpp:386] relu3 -> conv3 (in-place)
I0925 23:33:13.678786  6903 net.cpp:141] Setting up relu3
I0925 23:33:13.678833  6903 net.cpp:148] Top shape: 10 384 13 13 (648960)
I0925 23:33:13.678840  6903 net.cpp:156] Memory required for data: 58596920
I0925 23:33:13.678849  6903 layer_factory.hpp:77] Creating layer conv4
I0925 23:33:13.678879  6903 net.cpp:91] Creating Layer conv4
I0925 23:33:13.678886  6903 net.cpp:425] conv4 <- conv3
I0925 23:33:13.678930  6903 net.cpp:399] conv4 -> conv4
I0925 23:33:13.737464  6903 net.cpp:141] Setting up conv4
I0925 23:33:13.737728  6903 net.cpp:148] Top shape: 10 384 13 13 (648960)
I0925 23:33:13.737746  6903 net.cpp:156] Memory required for data: 61192760
I0925 23:33:13.737792  6903 layer_factory.hpp:77] Creating layer relu4
I0925 23:33:13.737823  6903 net.cpp:91] Creating Layer relu4
I0925 23:33:13.737851  6903 net.cpp:425] relu4 <- conv4
I0925 23:33:13.737875  6903 net.cpp:386] relu4 -> conv4 (in-place)
I0925 23:33:13.738939  6903 net.cpp:141] Setting up relu4
I0925 23:33:13.739032  6903 net.cpp:148] Top shape: 10 384 13 13 (648960)
I0925 23:33:13.739044  6903 net.cpp:156] Memory required for data: 63788600
I0925 23:33:13.739055  6903 layer_factory.hpp:77] Creating layer conv5
I0925 23:33:13.739733  6903 net.cpp:91] Creating Layer conv5
I0925 23:33:13.739791  6903 net.cpp:425] conv5 <- conv4
I0925 23:33:13.739830  6903 net.cpp:399] conv5 -> conv5
I0925 23:33:13.793320  6903 net.cpp:141] Setting up conv5
I0925 23:33:13.793378  6903 net.cpp:148] Top shape: 10 256 13 13 (432640)
I0925 23:33:13.793385  6903 net.cpp:156] Memory required for data: 65519160
I0925 23:33:13.793835  6903 layer_factory.hpp:77] Creating layer relu5
I0925 23:33:13.793869  6903 net.cpp:91] Creating Layer relu5
I0925 23:33:13.793879  6903 net.cpp:425] relu5 <- conv5
I0925 23:33:13.793891  6903 net.cpp:386] relu5 -> conv5 (in-place)
I0925 23:33:13.796006  6903 net.cpp:141] Setting up relu5
I0925 23:33:13.796027  6903 net.cpp:148] Top shape: 10 256 13 13 (432640)
I0925 23:33:13.796032  6903 net.cpp:156] Memory required for data: 67249720
I0925 23:33:13.796038  6903 layer_factory.hpp:77] Creating layer pool5
I0925 23:33:13.803760  6903 net.cpp:91] Creating Layer pool5
I0925 23:33:13.803838  6903 net.cpp:425] pool5 <- conv5
I0925 23:33:13.803889  6903 net.cpp:399] pool5 -> pool5
I0925 23:33:13.804743  6903 net.cpp:141] Setting up pool5
I0925 23:33:13.804811  6903 net.cpp:148] Top shape: 10 256 6 6 (92160)
I0925 23:33:13.804822  6903 net.cpp:156] Memory required for data: 67618360
I0925 23:33:13.804842  6903 layer_factory.hpp:77] Creating layer fc6
I0925 23:33:13.804903  6903 net.cpp:91] Creating Layer fc6
I0925 23:33:13.804922  6903 net.cpp:425] fc6 <- pool5
I0925 23:33:13.804946  6903 net.cpp:399] fc6 -> fc6
I0925 23:33:13.886916  6946 net.cpp:141] Setting up predict
I0925 23:33:13.886976  6946 net.cpp:148] Top shape: 1 1 46168 (46168)
I0925 23:33:13.886984  6946 net.cpp:156] Memory required for data: 221084
I0925 23:33:13.887009  6946 layer_factory.hpp:77] Creating layer probs
I0925 23:33:13.887032  6946 net.cpp:91] Creating Layer probs
I0925 23:33:13.887045  6946 net.cpp:425] probs <- predict
I0925 23:33:13.887063  6946 net.cpp:399] probs -> probs
I0925 23:33:13.889567  6946 net.cpp:141] Setting up probs
I0925 23:33:13.889631  6946 net.cpp:148] Top shape: 1 1 46168 (46168)
I0925 23:33:13.889637  6946 net.cpp:156] Memory required for data: 405756
I0925 23:33:13.889652  6946 net.cpp:219] probs does not need backward computation.
I0925 23:33:13.889662  6946 net.cpp:219] predict does not need backward computation.
I0925 23:33:13.889672  6946 net.cpp:219] lstm2 does not need backward computation.
I0925 23:33:13.889678  6946 net.cpp:219] concat does not need backward computation.
I0925 23:33:13.889688  6946 net.cpp:219] lstm1 does not need backward computation.
I0925 23:33:13.889698  6946 net.cpp:219] embedding does not need backward computation.
I0925 23:33:13.889704  6946 net.cpp:219] reshape_stage_indicator does not need backward computation.
I0925 23:33:13.889710  6946 net.cpp:219] reshape_frames does not need backward computation.
I0925 23:33:13.889716  6946 net.cpp:219] embed_encoder does not need backward computation.
I0925 23:33:13.889724  6946 net.cpp:219] cont_sentence_input_1_split does not need backward computation.
I0925 23:33:13.889732  6946 net.cpp:219] input does not need backward computation.
I0925 23:33:13.889736  6946 net.cpp:261] This network produces output probs
I0925 23:33:13.889765  6946 net.cpp:274] Network initialization done.
I0925 23:33:13.956450  6903 net.cpp:141] Setting up fc6
I0925 23:33:13.956537  6903 net.cpp:148] Top shape: 10 4096 (40960)
I0925 23:33:13.956549  6903 net.cpp:156] Memory required for data: 67782200
I0925 23:33:13.956583  6903 layer_factory.hpp:77] Creating layer relu6
I0925 23:33:13.956614  6903 net.cpp:91] Creating Layer relu6
I0925 23:33:13.956625  6903 net.cpp:425] relu6 <- fc6
I0925 23:33:13.956645  6903 net.cpp:386] relu6 -> fc6 (in-place)
I0925 23:33:13.959136  6903 net.cpp:141] Setting up relu6
I0925 23:33:13.959210  6903 net.cpp:148] Top shape: 10 4096 (40960)
I0925 23:33:13.959223  6903 net.cpp:156] Memory required for data: 67946040
I0925 23:33:13.959239  6903 layer_factory.hpp:77] Creating layer drop6
I0925 23:33:13.959280  6903 net.cpp:91] Creating Layer drop6
I0925 23:33:13.959292  6903 net.cpp:425] drop6 <- fc6
I0925 23:33:13.959314  6903 net.cpp:386] drop6 -> fc6 (in-place)
I0925 23:33:13.959511  6903 net.cpp:141] Setting up drop6
I0925 23:33:13.959522  6903 net.cpp:148] Top shape: 10 4096 (40960)
I0925 23:33:13.959527  6903 net.cpp:156] Memory required for data: 68109880
I0925 23:33:13.959532  6903 layer_factory.hpp:77] Creating layer fc7
I0925 23:33:13.960633  6903 net.cpp:91] Creating Layer fc7
I0925 23:33:13.960695  6903 net.cpp:425] fc7 <- fc6
I0925 23:33:13.960721  6903 net.cpp:399] fc7 -> fc7
I0925 23:33:14.023139  6903 net.cpp:141] Setting up fc7
I0925 23:33:14.023196  6903 net.cpp:148] Top shape: 10 4096 (40960)
I0925 23:33:14.023203  6903 net.cpp:156] Memory required for data: 68273720
I0925 23:33:14.023221  6903 layer_factory.hpp:77] Creating layer relu7
I0925 23:33:14.023241  6903 net.cpp:91] Creating Layer relu7
I0925 23:33:14.023248  6903 net.cpp:425] relu7 <- fc7
I0925 23:33:14.023258  6903 net.cpp:386] relu7 -> fc7 (in-place)
I0925 23:33:14.025166  6903 net.cpp:141] Setting up relu7
I0925 23:33:14.025187  6903 net.cpp:148] Top shape: 10 4096 (40960)
I0925 23:33:14.025192  6903 net.cpp:156] Memory required for data: 68437560
I0925 23:33:14.025197  6903 layer_factory.hpp:77] Creating layer drop7
I0925 23:33:14.025213  6903 net.cpp:91] Creating Layer drop7
I0925 23:33:14.025218  6903 net.cpp:425] drop7 <- fc7
I0925 23:33:14.025226  6903 net.cpp:386] drop7 -> fc7 (in-place)
I0925 23:33:14.025295  6903 net.cpp:141] Setting up drop7
I0925 23:33:14.025307  6903 net.cpp:148] Top shape: 10 4096 (40960)
I0925 23:33:14.025312  6903 net.cpp:156] Memory required for data: 68601400
I0925 23:33:14.025317  6903 layer_factory.hpp:77] Creating layer fc8
I0925 23:33:14.026044  6903 net.cpp:91] Creating Layer fc8
I0925 23:33:14.026063  6903 net.cpp:425] fc8 <- fc7
I0925 23:33:14.026077  6903 net.cpp:399] fc8 -> fc8
I0925 23:33:14.043509  6903 net.cpp:141] Setting up fc8
I0925 23:33:14.043628  6903 net.cpp:148] Top shape: 10 1000 (10000)
I0925 23:33:14.043645  6903 net.cpp:156] Memory required for data: 68641400
I0925 23:33:14.043689  6903 layer_factory.hpp:77] Creating layer prob
I0925 23:33:14.043733  6903 net.cpp:91] Creating Layer prob
I0925 23:33:14.043752  6903 net.cpp:425] prob <- fc8
I0925 23:33:14.043776  6903 net.cpp:399] prob -> prob
I0925 23:33:14.058764  6903 net.cpp:141] Setting up prob
I0925 23:33:14.058851  6903 net.cpp:148] Top shape: 10 1000 (10000)
I0925 23:33:14.058859  6903 net.cpp:156] Memory required for data: 68681400
I0925 23:33:14.058871  6903 net.cpp:219] prob does not need backward computation.
I0925 23:33:14.058881  6903 net.cpp:219] fc8 does not need backward computation.
I0925 23:33:14.058887  6903 net.cpp:219] drop7 does not need backward computation.
I0925 23:33:14.058892  6903 net.cpp:219] relu7 does not need backward computation.
…
