…
W0925 22:11:38.108680 21440 upgrade_proto.cpp:71] Note that future Caffe releases will only support input layers and not input fields.
I0925 22:11:38.108949 21466 net.cpp:49] Initializing net from parameters: 
name: "s2vt:features_to_lstm"
state {
  phase: TEST
}
layer {
  name: "input"
  type: "Input"
  top: "frames_fc7"
  top: "cont_sentence"
  top: "input_sentence"
  top: "stage_indicator"
  input_param {
    shape {
      dim: 1
      dim: 4096
    }
    shape {
      dim: 1
      dim: 1
    }
    shape {
      dim: 1
      dim: 1
    }
    shape {
      dim: 1
      dim: 1
    }
  }
}
layer {
  name: "embed_encoder"
  type: "InnerProduct"
  bottom: "frames_fc7"
  top: "embedded_in_frames"
  param {
    lr_mult: 1
    decay_mult: 1
  }
  param {
    lr_mult: 2
    decay_mult: 0
  }
  inner_product_param {
    num_output: 500
    weight_filler {
      type: "xavier"
    }
    bias_filler {
      type: "constant"
      value: 0.2
    }
  }
}
layer {
  name: "reshape_frames"
  type: "Reshape"
  bottom: "embedded_in_frames"
  top: "embedded_input_frames"
  reshape_param {
    shape {
      dim: 1
      dim: 1
      dim: 500
    }
  }
}
layer {
  name: "reshape_stage_indicator"
  type: "Reshape"
  bottom: "stage_indicator"
  top: "reshaped_stage_indicator"
  reshape_param {
    shape {
      dim: 1
      dim: 1
      dim: 1
    }
  }
}
layer {
  name: "embedding"
  type: "Embed"
  bottom: "input_sentence"
  top: "embedded_input_sentence"
  param {
    lr_mult: 1
  }
  embed_param {
    num_output: 500
    input_dim: 46168
    bias_term: false
    weight_filler {
      type: "uniform"
      min: -0.08
      max: 0.08
    }
  }
}
layer {
  name: "lstm1"
  type: "LSTM"
  bottom: "embedded_input_frames"
  bottom: "cont_sentence"
  top: "lstm1"
  recurrent_param {
    num_output: 1000
    weight_filler {
      type: "uniform"
      min: -0.08
      max: 0.08
    }
    bias_filler {
      type: "constant"
      value: 0
    }
  }
}
layer {
  name: "concat"
  type: "Concat"
  bottom: "lstm1"
  bottom: "embedded_input_sentence"
  bottom: "reshaped_stage_indicator"
  top: "lstm1_video_sequence"
  concat_param {
    concat_dim: 2
  }
}
layer {
  name: "lstm2"
  type: "LSTM"
  bottom: "lstm1_video_sequence"
  bottom: "cont_sentence"
  top: "lstm2"
  recurrent_param {
    num_output: 1000
    weight_filler {
      type: "uniform"
      min: -0.08
      max: 0.08
    }
    bias_filler {
      type: "constant"
      value: 0
    }
  }
}
layer {
  name: "predict"
  type: "InnerProduct"
  bottom: "lstm2"
  top: "predict"
  param {
    lr_mult: 1
    decay_mult: 1
  }
  param {
    lr_mult: 2
    decay_mult: 0
  }
  inner_product_param {
    num_output: 46168
    weight_filler {
      type: "uniform"
      min: -0.08
      max: 0.08
    }
    bias_filler {
      type: "constant"
      value: 0
    }
    axis: 2
  }
}
layer {
  name: "probs"
  type: "Softmax"
  bottom: "predict"
  top: "probs"
  softmax_param {
    axis: 2
  }
}
I0925 22:11:38.108983 21472 net.cpp:49] Initializing net from parameters: 
name: "s2vt:features_to_lstm"
state {
  phase: TEST
}
layer {
  name: "input"
  type: "Input"
  top: "frames_fc7"
  top: "cont_sentence"
  top: "input_sentence"
  top: "stage_indicator"
  input_param {
    shape {
      dim: 1
      dim: 4096
    }
    shape {
      dim: 1
      dim: 1
    }
    shape {
      dim: 1
      dim: 1
    }
    shape {
      dim: 1
      dim: 1
    }
  }
}
layer {
  name: "embed_encoder"
  type: "InnerProduct"
  bottom: "frames_fc7"
  top: "embedded_in_frames"
  param {
    lr_mult: 1
    decay_mult: 1
  }
  param {
    lr_mult: 2
    decay_mult: 0
  }
  inner_product_param {
    num_output: 500
    weight_filler {
      type: "xavier"
    }
    bias_filler {
      type: "constant"
      value: 0.2
    }
  }
}
layer {
  name: "reshape_frames"
  type: "Reshape"
  bottom: "embedded_in_frames"
  top: "embedded_input_frames"
  reshape_param {
    shape {
      dim: 1
      dim: 1
      dim: 500
    }
  }
}
layer {
  name: "reshape_stage_indicator"
  type: "Reshape"
  bottom: "stage_indicator"
  top: "reshaped_stage_indicator"
  reshape_param {
    shape {
      dim: 1
      dim: 1
      dim: 1
    }
  }
}
layer {
  name: "embedding"
  type: "Embed"
  bottom: "input_sentence"
  top: "embedded_input_sentence"
  param {
    lr_mult: 1
  }
  embed_param {
    num_output: 500
    input_dim: 46168
    bias_term: false
    weight_filler {
      type: "uniform"
      min: -0.08
      max: 0.08
    }
  }
}
layer {
  name: "lstm1"
  type: "LSTM"
  bottom: "embedded_input_frames"
  bottom: "cont_sentence"
  top: "lstm1"
  recurrent_param {
    num_output: 1000
    weight_filler {
      type: "uniform"
      min: -0.08
      max: 0.08
    }
    bias_filler {
      type: "constant"
      value: 0
    }
  }
}
layer {
  name: "concat"
  type: "Concat"
  bottom: "lstm1"
  bottom: "embedded_input_sentence"
  bottom: "reshaped_stage_indicator"
  top: "lstm1_video_sequence"
  concat_param {
    concat_dim: 2
  }
}
layer {
  name: "lstm2"
  type: "LSTM"
  bottom: "lstm1_video_sequence"
  bottom: "cont_sentence"
  top: "lstm2"
  recurrent_param {
    num_output: 1000
    weight_filler {
      type: "uniform"
      min: -0.08
      max: 0.08
    }
    bias_filler {
      type: "constant"
      value: 0
    }
  }
}
layer {
  name: "predict"
  type: "InnerProduct"
  bottom: "lstm2"
  top: "predict"
  param {
    lr_mult: 1
    decay_mult: 1
  }
  param {
    lr_mult: 2
    decay_mult: 0
  }
  inner_product_param {
    num_output: 46168
    weight_filler {
      type: "uniform"
      min: -0.08
      max: 0.08
    }
    bias_filler {
      type: "constant"
      value: 0
    }
    axis: 2
  }
}
layer {
  name: "probs"
  type: "Softmax"
  bottom: "predict"
  top: "probs"
  softmax_param {
    axis: 2
  }
}
I0925 22:11:38.108983 21438 net.cpp:49] Initializing net from parameters: 
name: "s2vt:features_to_lstm"
state {
  phase: TEST
}
layer {
  name: "input"
  type: "Input"
  top: "frames_fc7"
  top: "cont_sentence"
  top: "input_sentence"
  top: "stage_indicator"
  input_param {
    shape {
      dim: 1
      dim: 4096
    }
    shape {
      dim: 1
      dim: 1
    }
    shape {
      dim: 1
      dim: 1
    }
    shape {
      dim: 1
      dim: 1
    }
  }
}
layer {
  name: "embed_encoder"
  type: "InnerProduct"
  bottom: "frames_fc7"
  top: "embedded_in_frames"
  param {
    lr_mult: 1
    decay_mult: 1
  }
  param {
    lr_mult: 2
    decay_mult: 0
  }
  inner_product_param {
    num_output: 500
    weight_filler {
      type: "xavier"
    }
    bias_filler {
      type: "constant"
      value: 0.2
    }
  }
}
layer {
  name: "reshape_frames"
  type: "Reshape"
  bottom: "embedded_in_frames"
  top: "embedded_input_frames"
  reshape_param {
    shape {
      dim: 1
      dim: 1
      dim: 500
    }
  }
}
layer {
  name: "reshape_stage_indicator"
  type: "Reshape"
  bottom: "stage_indicator"
  top: "reshaped_stage_indicator"
  reshape_param {
    shape {
      dim: 1
      dim: 1
      dim: 1
    }
  }
}
layer {
  name: "embedding"
  type: "Embed"
  bottom: "input_sentence"
  top: "embedded_input_sentence"
  param {
    lr_mult: 1
  }
  embed_param {
    num_output: 500
    input_dim: 46168
    bias_term: false
    weight_filler {
      type: "uniform"
      min: -0.08
      max: 0.08
    }
  }
}
layer {
  name: "lstm1"
  type: "LSTM"
  bottom: "embedded_input_frames"
  bottom: "cont_sentence"
  top: "lstm1"
  recurrent_param {
    num_output: 1000
    weight_filler {
      type: "uniform"
      min: -0.08
      max: 0.08
    }
    bias_filler {
      type: "constant"
      value: 0
    }
  }
}
layer {
  name: "concat"
  type: "Concat"
  bottom: "lstm1"
  bottom: "embedded_input_sentence"
  bottom: "reshaped_stage_indicator"
  top: "lstm1_video_sequence"
  concat_param {
    concat_dim: 2
  }
}
layer {
  name: "lstm2"
  type: "LSTM"
  bottom: "lstm1_video_sequence"
  bottom: "cont_sentence"
  top: "lstm2"
  recurrent_param {
    num_output: 1000
    weight_filler {
      type: "uniform"
      min: -0.08
      max: 0.08
    }
    bias_filler {
      type: "constant"
      value: 0
    }
  }
}
layer {
  name: "predict"
  type: "InnerProduct"
  bottom: "lstm2"
  top: "predict"
  param {
    lr_mult: 1
    decay_mult: 1
  }
  param {
    lr_mult: 2
    decay_mult: 0
  }
  inner_product_param {
    num_output: 46168
    weight_filler {
      type: "uniform"
      min: -0.08
      max: 0.08
    }
    bias_filler {
      type: "constant"
      value: 0
    }
    axis: 2
  }
}
layer {
  name: "probs"
  type: "Softmax"
  bottom: "predict"
  top: "probs"
  softmax_param {
    axis: 2
  }
}
I0925 22:11:38.109026 21442 net.cpp:49] Initializing net from parameters: 
name: "s2vt:features_to_lstm"
state {
  phase: TEST
}
layer {
  name: "input"
  type: "Input"
  top: "frames_fc7"
  top: "cont_sentence"
  top: "input_sentence"
  top: "stage_indicator"
  input_param {
    shape {
      dim: 1
      dim: 4096
    }
    shape {
      dim: 1
      dim: 1
    }
    shape {
      dim: 1
      dim: 1
    }
    shape {
      dim: 1
      dim: 1
    }
  }
}
layer {
  name: "embed_encoder"
  type: "InnerProduct"
  bottom: "frames_fc7"
  top: "embedded_in_frames"
  param {
    lr_mult: 1
    decay_mult: 1
  }
  param {
    lr_mult: 2
    decay_mult: 0
  }
  inner_product_param {
    num_output: 500
    weight_filler {
      type: "xavier"
    }
    bias_filler {
      type: "constant"
      value: 0.2
    }
  }
}
layer {
  name: "reshape_frames"
  type: "Reshape"
  bottom: "embedded_in_frames"
  top: "embedded_input_frames"
  reshape_param {
    shape {
      dim: 1
      dim: 1
      dim: 500
    }
  }
}
layer {
  name: "reshape_stage_indicator"
  type: "Reshape"
  bottom: "stage_indicator"
  top: "reshaped_stage_indicator"
  reshape_param {
    shape {
      dim: 1
      dim: 1
      dim: 1
    }
  }
}
layer {
  name: "embedding"
  type: "Embed"
  bottom: "input_sentence"
  top: "embedded_input_sentence"
  param {
    lr_mult: 1
  }
  embed_param {
    num_output: 500
    input_dim: 46168
    bias_term: false
    weight_filler {
      type: "uniform"
      min: -0.08
      max: 0.08
    }
  }
}
layer {
  name: "lstm1"
  type: "LSTM"
  bottom: "embedded_input_frames"
  bottom: "cont_sentence"
  top: "lstm1"
  recurrent_param {
    num_output: 1000
    weight_filler {
      type: "uniform"
      min: -0.08
      max: 0.08
    }
    bias_filler {
      type: "constant"
      value: 0
    }
  }
}
layer {
  name: "concat"
  type: "Concat"
  bottom: "lstm1"
  bottom: "embedded_input_sentence"
  bottom: "reshaped_stage_indicator"
  top: "lstm1_video_sequence"
  concat_param {
    concat_dim: 2
  }
}
layer {
  name: "lstm2"
  type: "LSTM"
  bottom: "lstm1_video_sequence"
  bottom: "cont_sentence"
  top: "lstm2"
  recurrent_param {
    num_output: 1000
    weight_filler {
      type: "uniform"
      min: -0.08
      max: 0.08
    }
    bias_filler {
      type: "constant"
      value: 0
    }
  }
}
layer {
  name: "predict"
  type: "InnerProduct"
  bottom: "lstm2"
  top: "predict"
  param {
    lr_mult: 1
    decay_mult: 1
  }
  param {
    lr_mult: 2
    decay_mult: 0
  }
  inner_product_param {
    num_output: 46168
    weight_filler {
      type: "uniform"
      min: -0.08
      max: 0.08
    }
    bias_filler {
      type: "constant"
      value: 0
    }
    axis: 2
  }
}
layer {
  name: "probs"
  type: "Softmax"
  bottom: "predict"
  top: "probs"
  softmax_param {
    axis: 2
  }
}
I0925 22:11:38.109104 21466 layer_factory.hpp:77] Creating layer input
I0925 22:11:38.109107 21448 net.cpp:49] Initializing net from parameters: 
name: "s2vt:features_to_lstm"
state {
  phase: TEST
}
layer {
  name: "input"
  type: "Input"
  top: "frames_fc7"
  top: "cont_sentence"
  top: "input_sentence"
  top: "stage_indicator"
  input_param {
    shape {
      dim: 1
      dim: 4096
    }
    shape {
      dim: 1
      dim: 1
    }
    shape {
      dim: 1
      dim: 1
    }
    shape {
      dim: 1
      dim: 1
    }
  }
}
layer {
  name: "embed_encoder"
  type: "InnerProduct"
  bottom: "frames_fc7"
  top: "embedded_in_frames"
  param {
    lr_mult: 1
    decay_mult: 1
  }
  param {
    lr_mult: 2
    decay_mult: 0
  }
  inner_product_param {
    num_output: 500
    weight_filler {
      type: "xavier"
    }
    bias_filler {
      type: "constant"
      value: 0.2
    }
  }
}
layer {
  name: "reshape_frames"
  type: "Reshape"
  bottom: "embedded_in_frames"
  top: "embedded_input_frames"
  reshape_param {
    shape {
      dim: 1
      dim: 1
      dim: 500
    }
  }
}
layer {
  name: "reshape_stage_indicator"
  type: "Reshape"
  bottom: "stage_indicator"
  top: "reshaped_stage_indicator"
  reshape_param {
    shape {
      dim: 1
      dim: 1
      dim: 1
    }
  }
}
layer {
  name: "embedding"
  type: "Embed"
  bottom: "input_sentence"
  top: "embedded_input_sentence"
  param {
    lr_mult: 1
  }
  embed_param {
    num_output: 500
    input_dim: 46168
    bias_term: false
    weight_filler {
      type: "uniform"
      min: -0.08
      max: 0.08
    }
  }
}
layer {
  name: "lstm1"
  type: "LSTM"
  bottom: "embedded_input_frames"
  bottom: "cont_sentence"
  top: "lstm1"
  recurrent_param {
    num_output: 1000
    weight_filler {
      type: "uniform"
      min: -0.08
      max: 0.08
    }
    bias_filler {
      type: "constant"
      value: 0
    }
  }
}
layer {
  name: "concat"
  type: "Concat"
  bottom: "lstm1"
  bottom: "embedded_input_sentence"
  bottom: "reshaped_stage_indicator"
  top: "lstm1_video_sequence"
  concat_param {
    concat_dim: 2
  }
}
layer {
  name: "lstm2"
  type: "LSTM"
  bottom: "lstm1_video_sequence"
  bottom: "cont_sentence"
  top: "lstm2"
  recurrent_param {
    num_output: 1000
    weight_filler {
      type: "uniform"
      min: -0.08
      max: 0.08
    }
    bias_filler {
      type: "constant"
      value: 0
    }
  }
}
layer {
  name: "predict"
  type: "InnerProduct"
  bottom: "lstm2"
  top: "predict"
  param {
    lr_mult: 1
    decay_mult: 1
  }
  param {
    lr_mult: 2
    decay_mult: 0
  }
  inner_product_param {
    num_output: 46168
    weight_filler {
      type: "uniform"
      min: -0.08
      max: 0.08
    }
    bias_filler {
      type: "constant"
      value: 0
    }
    axis: 2
  }
}
layer {
  name: "probs"
  type: "Softmax"
  bottom: "predict"
  top: "probs"
  softmax_param {
    axis: 2
  }
}
I0925 22:11:38.109136 21466 net.cpp:91] Creating Layer input
I0925 22:11:38.109124 21472 layer_factory.hpp:77] Creating layer input
I0925 22:11:38.109148 21438 layer_factory.hpp:77] Creating layer input
I0925 22:11:38.109153 21466 net.cpp:399] input -> frames_fc7
I0925 22:11:38.109160 21472 net.cpp:91] Creating Layer input
I0925 22:11:38.109163 21438 net.cpp:91] Creating Layer input
I0925 22:11:38.109172 21472 net.cpp:399] input -> frames_fc7
I0925 22:11:38.109174 21438 net.cpp:399] input -> frames_fc7
I0925 22:11:38.109169 21464 net.cpp:49] Initializing net from parameters: 
name: "CaffeNet"
state {
  phase: TEST
}
layer {
  name: "data"
  type: "Input"
  top: "data"
  input_param {
    shape {
      dim: 10
      dim: 3
      dim: 227
      dim: 227
    }
  }
}
layer {
  name: "conv1"
  type: "Convolution"
  bottom: "data"
  top: "conv1"
  convolution_param {
    num_output: 96
    kernel_size: 11
    stride: 4
  }
}
layer {
  name: "relu1"
  type: "ReLU"
  bottom: "conv1"
  top: "conv1"
}
layer {
  name: "pool1"
  type: "Pooling"
  bottom: "conv1"
  top: "pool1"
  pooling_param {
    pool: MAX
    kernel_size: 3
    stride: 2
  }
}
layer {
  name: "norm1"
  type: "LRN"
  bottom: "pool1"
  top: "norm1"
  lrn_param {
    local_size: 5
    alpha: 0.0001
    beta: 0.75
  }
}
layer {
  name: "conv2"
  type: "Convolution"
  bottom: "norm1"
  top: "conv2"
  convolution_param {
    num_output: 256
    pad: 2
    kernel_size: 5
    group: 2
  }
}
layer {
  name: "relu2"
  type: "ReLU"
  bottom: "conv2"
  top: "conv2"
}
layer {
  name: "pool2"
  type: "Pooling"
  bottom: "conv2"
  top: "pool2"
  pooling_param {
    pool: MAX
    kernel_size: 3
    stride: 2
  }
}
layer {
  name: "norm2"
  type: "LRN"
  bottom: "pool2"
  top: "norm2"
  lrn_param {
    local_size: 5
    alpha: 0.0001
    beta: 0.75
  }
}
layer {
  name: "conv3"
  type: "Convolution"
  bottom: "norm2"
  top: "conv3"
  convolution_param {
    num_output: 384
    pad: 1
    kernel_size: 3
  }
}
layer {
  name: "relu3"
  type: "ReLU"
  bottom: "conv3"
  top: "conv3"
}
layer {
  name: "conv4"
  type: "Convolution"
  bottom: "conv3"
  top: "conv4"
  convolution_param {
    num_output: 384
    pad: 1
    kernel_size: 3
    group: 2
  }
}
layer {
  name: "relu4"
  type: "ReLU"
  bottom: "conv4"
  top: "conv4"
}
layer {
  name: "conv5"
  type: "Convolution"
  bottom: "conv4"
  top: "conv5"
  convolution_param {
    num_output: 256
    pad: 1
    kernel_size: 3
    group: 2
  }
}
layer {
  name: "relu5"
  type: "ReLU"
  bottom: "conv5"
  top: "conv5"
}
layer {
  name: "pool5"
  type: "Pooling"
  bottom: "conv5"
  top: "pool5"
  pooling_param {
    pool: MAX
    kernel_size: 3
    stride: 2
  }
}
layer {
  name: "fc6"
  type: "InnerProduct"
  bottom: "pool5"
  top: "fc6"
  inner_product_param {
    num_output: 4096
  }
}
layer {
  name: "relu6"
  type: "ReLU"
  bottom: "fc6"
  top: "fc6"
}
layer {
  name: "drop6"
  type: "Dropout"
  bottom: "fc6"
  top: "fc6"
  dropout_param {
    dropout_ratio: 0.5
  }
}
layer {
  name: "fc7"
  type: "InnerProduct"
  bottom: "fc6"
  top: "fc7"
  inner_product_param {
    num_output: 4096
  }
}
layer {
  name: "relu7"
  type: "ReLU"
  bottom: "fc7"
  top: "fc7"
}
layer {
  name: "drop7"
  type: "Dropout"
  bottom: "fc7"
  top: "fc7"
  dropout_param {
    dropout_ratio: 0.5
  }
}
layer {
  name: "fc8"
  type: "InnerProduct"
  bottom: "fc7"
  top: "fc8"
  inner_product_param {
    num_output: 1000
  }
}
layer {
  name: "prob"
  type: "Softmax"
  bottom: "fc8"
  top: "prob"
}
I0925 22:11:38.109174 21440 net.cpp:49] Initializing net from parameters: 
name: "s2vt:features_to_lstm"
state {
  phase: TEST
}
layer {
  name: "input"
  type: "Input"
  top: "frames_fc7"
  top: "cont_sentence"
  top: "input_sentence"
  top: "stage_indicator"
  input_param {
    shape {
      dim: 1
      dim: 4096
    }
    shape {
      dim: 1
      dim: 1
    }
    shape {
      dim: 1
      dim: 1
    }
    shape {
      dim: 1
      dim: 1
    }
  }
}
layer {
  name: "embed_encoder"
  type: "InnerProduct"
  bottom: "frames_fc7"
  top: "embedded_in_frames"
  param {
    lr_mult: 1
    decay_mult: 1
  }
  param {
    lr_mult: 2
    decay_mult: 0
  }
  inner_product_param {
    num_output: 500
    weight_filler {
      type: "xavier"
    }
    bias_filler {
      type: "constant"
      value: 0.2
    }
  }
}
layer {
  name: "reshape_frames"
  type: "Reshape"
  bottom: "embedded_in_frames"
  top: "embedded_input_frames"
  reshape_param {
    shape {
      dim: 1
      dim: 1
      dim: 500
    }
  }
}
layer {
  name: "reshape_stage_indicator"
  type: "Reshape"
  bottom: "stage_indicator"
  top: "reshaped_stage_indicator"
  reshape_param {
    shape {
      dim: 1
      dim: 1
      dim: 1
    }
  }
}
layer {
  name: "embedding"
  type: "Embed"
  bottom: "input_sentence"
  top: "embedded_input_sentence"
  param {
    lr_mult: 1
  }
  embed_param {
    num_output: 500
    input_dim: 46168
    bias_term: false
    weight_filler {
      type: "uniform"
      min: -0.08
      max: 0.08
    }
  }
}
layer {
  name: "lstm1"
  type: "LSTM"
  bottom: "embedded_input_frames"
  bottom: "cont_sentence"
  top: "lstm1"
  recurrent_param {
    num_output: 1000
    weight_filler {
      type: "uniform"
      min: -0.08
      max: 0.08
    }
    bias_filler {
      type: "constant"
      value: 0
    }
  }
}
layer {
  name: "concat"
  type: "Concat"
  bottom: "lstm1"
  bottom: "embedded_input_sentence"
  bottom: "reshaped_stage_indicator"
  top: "lstm1_video_sequence"
  concat_param {
    concat_dim: 2
  }
}
layer {
  name: "lstm2"
  type: "LSTM"
  bottom: "lstm1_video_sequence"
  bottom: "cont_sentence"
  top: "lstm2"
  recurrent_param {
    num_output: 1000
    weight_filler {
      type: "uniform"
      min: -0.08
      max: 0.08
    }
    bias_filler {
      type: "constant"
      value: 0
    }
  }
}
layer {
  name: "predict"
  type: "InnerProduct"
  bottom: "lstm2"
  top: "predict"
  param {
    lr_mult: 1
    decay_mult: 1
  }
  param {
    lr_mult: 2
    decay_mult: 0
  }
  inner_product_param {
    num_output: 46168
    weight_filler {
      type: "uniform"
      min: -0.08
      max: 0.08
    }
    bias_filler {
      type: "constant"
      value: 0
    }
    axis: 2
  }
}
layer {
  name: "probs"
  type: "Softmax"
  bottom: "predict"
  top: "probs"
  softmax_param {
    axis: 2
  }
}
I0925 22:11:38.109190 21466 net.cpp:399] input -> cont_sentence
I0925 22:11:38.109192 21472 net.cpp:399] input -> cont_sentence
I0925 22:11:38.109207 21442 layer_factory.hpp:77] Creating layer input
I0925 22:11:38.109194 21438 net.cpp:399] input -> cont_sentence
I0925 22:11:38.109221 21466 net.cpp:399] input -> input_sentence
I0925 22:11:38.109232 21442 net.cpp:91] Creating Layer input
…
I0925 22:11:38.109408 21440 net.cpp:91] Creating Layer input
I0925 22:11:38.109421 21464 net.cpp:399] data -> data
I0925 22:11:38.109423 21448 net.cpp:399] input -> input_sentence
I0925 22:11:38.109421 21440 net.cpp:399] input -> frames_fc7
I0925 22:11:38.109447 21448 net.cpp:399] input -> stage_indicator
I0925 22:11:38.109459 21440 net.cpp:399] input -> cont_sentence
I0925 22:11:38.109480 21440 net.cpp:399] input -> input_sentence
I0925 22:11:38.109501 21440 net.cpp:399] input -> stage_indicator
I0925 22:11:38.943465 21448 net.cpp:141] Setting up input
I0925 22:11:38.943584 21448 net.cpp:148] Top shape: 1 4096 (4096)
I0925 22:11:38.943599 21448 net.cpp:148] Top shape: 1 1 (1)
I0925 22:11:38.943609 21448 net.cpp:148] Top shape: 1 1 (1)
I0925 22:11:38.943619 21448 net.cpp:148] Top shape: 1 1 (1)
I0925 22:11:38.943626 21448 net.cpp:156] Memory required for data: 16396
I0925 22:11:38.943656 21448 layer_factory.hpp:77] Creating layer cont_sentence_input_1_split
I0925 22:11:38.943691 21448 net.cpp:91] Creating Layer cont_sentence_input_1_split
I0925 22:11:38.943704 21448 net.cpp:425] cont_sentence_input_1_split <- cont_sentence
I0925 22:11:38.943738 21448 net.cpp:399] cont_sentence_input_1_split -> cont_sentence_input_1_split_0
I0925 22:11:38.943761 21448 net.cpp:399] cont_sentence_input_1_split -> cont_sentence_input_1_split_1
I0925 22:11:38.943850 21448 net.cpp:141] Setting up cont_sentence_input_1_split
I0925 22:11:38.943864 21448 net.cpp:148] Top shape: 1 1 (1)
I0925 22:11:38.943874 21448 net.cpp:148] Top shape: 1 1 (1)
I0925 22:11:38.943881 21448 net.cpp:156] Memory required for data: 16404
I0925 22:11:38.943889 21448 layer_factory.hpp:77] Creating layer embed_encoder
I0925 22:11:38.943928 21448 net.cpp:91] Creating Layer embed_encoder
I0925 22:11:38.943938 21448 net.cpp:425] embed_encoder <- frames_fc7
I0925 22:11:38.943950 21448 net.cpp:399] embed_encoder -> embedded_in_frames
I0925 22:11:38.948963 21464 net.cpp:141] Setting up data
I0925 22:11:38.949018 21464 net.cpp:148] Top shape: 10 3 227 227 (1545870)
I0925 22:11:38.949028 21464 net.cpp:156] Memory required for data: 6183480
I0925 22:11:38.949044 21464 layer_factory.hpp:77] Creating layer conv1
I0925 22:11:38.949123 21466 net.cpp:141] Setting up input
I0925 22:11:38.949162 21464 net.cpp:91] Creating Layer conv1
I0925 22:11:38.949169 21466 net.cpp:148] Top shape: 1 4096 (4096)
I0925 22:11:38.949177 21464 net.cpp:425] conv1 <- data
I0925 22:11:38.949182 21466 net.cpp:148] Top shape: 1 1 (1)
I0925 22:11:38.949193 21466 net.cpp:148] Top shape: 1 1 (1)
I0925 22:11:38.949199 21464 net.cpp:399] conv1 -> conv1
I0925 22:11:38.949204 21466 net.cpp:148] Top shape: 1 1 (1)
I0925 22:11:38.949213 21466 net.cpp:156] Memory required for data: 16396
I0925 22:11:38.949225 21466 layer_factory.hpp:77] Creating layer cont_sentence_input_1_split
I0925 22:11:38.949245 21466 net.cpp:91] Creating Layer cont_sentence_input_1_split
I0925 22:11:38.949257 21466 net.cpp:425] cont_sentence_input_1_split <- cont_sentence
I0925 22:11:38.949276 21466 net.cpp:399] cont_sentence_input_1_split -> cont_sentence_input_1_split_0
I0925 22:11:38.949296 21466 net.cpp:399] cont_sentence_input_1_split -> cont_sentence_input_1_split_1
I0925 22:11:38.949563 21440 net.cpp:141] Setting up input
I0925 22:11:38.949579 21440 net.cpp:148] Top shape: 1 4096 (4096)
I0925 22:11:38.949586 21440 net.cpp:148] Top shape: 1 1 (1)
I0925 22:11:38.949592 21440 net.cpp:148] Top shape: 1 1 (1)
I0925 22:11:38.949599 21440 net.cpp:148] Top shape: 1 1 (1)
I0925 22:11:38.949604 21440 net.cpp:156] Memory required for data: 16396
I0925 22:11:38.949609 21440 layer_factory.hpp:77] Creating layer cont_sentence_input_1_split
I0925 22:11:38.949632 21440 net.cpp:91] Creating Layer cont_sentence_input_1_split
I0925 22:11:38.949640 21440 net.cpp:425] cont_sentence_input_1_split <- cont_sentence
I0925 22:11:38.949647 21440 net.cpp:399] cont_sentence_input_1_split -> cont_sentence_input_1_split_0
I0925 22:11:38.949658 21440 net.cpp:399] cont_sentence_input_1_split -> cont_sentence_input_1_split_1
I0925 22:11:38.949726 21440 net.cpp:141] Setting up cont_sentence_input_1_split
I0925 22:11:38.949738 21440 net.cpp:148] Top shape: 1 1 (1)
I0925 22:11:38.949744 21440 net.cpp:148] Top shape: 1 1 (1)
I0925 22:11:38.949749 21440 net.cpp:156] Memory required for data: 16404
I0925 22:11:38.949754 21440 layer_factory.hpp:77] Creating layer embed_encoder
I0925 22:11:38.949769 21440 net.cpp:91] Creating Layer embed_encoder
I0925 22:11:38.949774 21440 net.cpp:425] embed_encoder <- frames_fc7
I0925 22:11:38.949795 21440 net.cpp:399] embed_encoder -> embedded_in_frames
I0925 22:11:38.954661 21472 net.cpp:141] Setting up input
I0925 22:11:38.954736 21472 net.cpp:148] Top shape: 1 4096 (4096)
I0925 22:11:38.954763 21472 net.cpp:148] Top shape: 1 1 (1)
I0925 22:11:38.954783 21472 net.cpp:148] Top shape: 1 1 (1)
I0925 22:11:38.954804 21472 net.cpp:148] Top shape: 1 1 (1)
I0925 22:11:38.954819 21472 net.cpp:156] Memory required for data: 16396
I0925 22:11:38.954845 21472 layer_factory.hpp:77] Creating layer cont_sentence_input_1_split
I0925 22:11:38.954884 21472 net.cpp:91] Creating Layer cont_sentence_input_1_split
I0925 22:11:38.954907 21472 net.cpp:425] cont_sentence_input_1_split <- cont_sentence
I0925 22:11:38.954936 21472 net.cpp:399] cont_sentence_input_1_split -> cont_sentence_input_1_split_0
I0925 22:11:38.954968 21472 net.cpp:399] cont_sentence_input_1_split -> cont_sentence_input_1_split_1
I0925 22:11:38.955099 21472 net.cpp:141] Setting up cont_sentence_input_1_split
I0925 22:11:38.955127 21472 net.cpp:148] Top shape: 1 1 (1)
I0925 22:11:38.955147 21472 net.cpp:148] Top shape: 1 1 (1)
I0925 22:11:38.955160 21472 net.cpp:156] Memory required for data: 16404
I0925 22:11:38.955175 21472 layer_factory.hpp:77] Creating layer embed_encoder
I0925 22:11:38.955212 21472 net.cpp:91] Creating Layer embed_encoder
I0925 22:11:38.955231 21472 net.cpp:425] embed_encoder <- frames_fc7
I0925 22:11:38.955260 21472 net.cpp:399] embed_encoder -> embedded_in_frames
I0925 22:11:38.961892 21466 net.cpp:141] Setting up cont_sentence_input_1_split
I0925 22:11:38.961946 21466 net.cpp:148] Top shape: 1 1 (1)
I0925 22:11:38.961957 21466 net.cpp:148] Top shape: 1 1 (1)
I0925 22:11:38.961966 21466 net.cpp:156] Memory required for data: 16404
I0925 22:11:38.961969 21442 net.cpp:141] Setting up input
I0925 22:11:38.961985 21466 layer_factory.hpp:77] Creating layer embed_encoder
I0925 22:11:38.961994 21442 net.cpp:148] Top shape: 1 4096 (4096)
I0925 22:11:38.962009 21442 net.cpp:148] Top shape: 1 1 (1)
I0925 22:11:38.962021 21442 net.cpp:148] Top shape: 1 1 (1)
I0925 22:11:38.962020 21466 net.cpp:91] Creating Layer embed_encoder
I0925 22:11:38.962044 21442 net.cpp:148] Top shape: 1 1 (1)
I0925 22:11:38.962049 21466 net.cpp:425] embed_encoder <- frames_fc7
I0925 22:11:38.962054 21442 net.cpp:156] Memory required for data: 16396
I0925 22:11:38.962065 21442 layer_factory.hpp:77] Creating layer cont_sentence_input_1_split
I0925 22:11:38.962074 21466 net.cpp:399] embed_encoder -> embedded_in_frames
I0925 22:11:38.962085 21442 net.cpp:91] Creating Layer cont_sentence_input_1_split
I0925 22:11:38.962095 21442 net.cpp:425] cont_sentence_input_1_split <- cont_sentence
I0925 22:11:38.962115 21442 net.cpp:399] cont_sentence_input_1_split -> cont_sentence_input_1_split_0
I0925 22:11:38.962136 21442 net.cpp:399] cont_sentence_input_1_split -> cont_sentence_input_1_split_1
I0925 22:11:38.962443 21442 net.cpp:141] Setting up cont_sentence_input_1_split
I0925 22:11:38.962467 21442 net.cpp:148] Top shape: 1 1 (1)
I0925 22:11:38.962546 21442 net.cpp:148] Top shape: 1 1 (1)
I0925 22:11:38.962558 21442 net.cpp:156] Memory required for data: 16404
I0925 22:11:38.962566 21442 layer_factory.hpp:77] Creating layer embed_encoder
I0925 22:11:38.962584 21442 net.cpp:91] Creating Layer embed_encoder
I0925 22:11:38.962611 21442 net.cpp:425] embed_encoder <- frames_fc7
I0925 22:11:38.962622 21438 net.cpp:141] Setting up input
I0925 22:11:38.962632 21442 net.cpp:399] embed_encoder -> embedded_in_frames
I0925 22:11:38.962646 21438 net.cpp:148] Top shape: 1 4096 (4096)
I0925 22:11:38.962662 21438 net.cpp:148] Top shape: 1 1 (1)
I0925 22:11:38.962677 21438 net.cpp:148] Top shape: 1 1 (1)
I0925 22:11:38.962688 21438 net.cpp:148] Top shape: 1 1 (1)
I0925 22:11:38.962698 21438 net.cpp:156] Memory required for data: 16396
I0925 22:11:38.962710 21438 layer_factory.hpp:77] Creating layer cont_sentence_input_1_split
I0925 22:11:38.962728 21438 net.cpp:91] Creating Layer cont_sentence_input_1_split
I0925 22:11:38.962741 21438 net.cpp:425] cont_sentence_input_1_split <- cont_sentence
I0925 22:11:38.962757 21438 net.cpp:399] cont_sentence_input_1_split -> cont_sentence_input_1_split_0
I0925 22:11:38.962779 21438 net.cpp:399] cont_sentence_input_1_split -> cont_sentence_input_1_split_1
I0925 22:11:38.976716 21438 net.cpp:141] Setting up cont_sentence_input_1_split
I0925 22:11:38.976765 21438 net.cpp:148] Top shape: 1 1 (1)
I0925 22:11:38.976773 21438 net.cpp:148] Top shape: 1 1 (1)
I0925 22:11:38.976779 21438 net.cpp:156] Memory required for data: 16404
I0925 22:11:38.976788 21438 layer_factory.hpp:77] Creating layer embed_encoder
I0925 22:11:38.976810 21438 net.cpp:91] Creating Layer embed_encoder
I0925 22:11:38.976819 21438 net.cpp:425] embed_encoder <- frames_fc7
I0925 22:11:38.976831 21438 net.cpp:399] embed_encoder -> embedded_in_frames
I0925 22:11:38.978226 21448 net.cpp:141] Setting up embed_encoder
I0925 22:11:38.978267 21448 net.cpp:148] Top shape: 1 500 (500)
I0925 22:11:38.978277 21448 net.cpp:156] Memory required for data: 18404
I0925 22:11:38.978339 21448 layer_factory.hpp:77] Creating layer reshape_frames
I0925 22:11:38.978374 21448 net.cpp:91] Creating Layer reshape_frames
I0925 22:11:38.978385 21448 net.cpp:425] reshape_frames <- embedded_in_frames
I0925 22:11:38.978401 21448 net.cpp:399] reshape_frames -> embedded_input_frames
I0925 22:11:38.987733 21440 net.cpp:141] Setting up embed_encoder
I0925 22:11:38.987787 21440 net.cpp:148] Top shape: 1 500 (500)
I0925 22:11:38.987797 21440 net.cpp:156] Memory required for data: 18404
I0925 22:11:38.987824 21440 layer_factory.hpp:77] Creating layer reshape_frames
I0925 22:11:38.987864 21440 net.cpp:91] Creating Layer reshape_frames
I0925 22:11:38.987876 21440 net.cpp:425] reshape_frames <- embedded_in_frames
I0925 22:11:38.987891 21440 net.cpp:399] reshape_frames -> embedded_input_frames
I0925 22:11:38.994452 21448 net.cpp:141] Setting up reshape_frames
I0925 22:11:38.994508 21448 net.cpp:148] Top shape: 1 1 500 (500)
I0925 22:11:38.994519 21448 net.cpp:156] Memory required for data: 20404
I0925 22:11:38.994532 21448 layer_factory.hpp:77] Creating layer reshape_stage_indicator
I0925 22:11:38.994567 21448 net.cpp:91] Creating Layer reshape_stage_indicator
I0925 22:11:38.994581 21448 net.cpp:425] reshape_stage_indicator <- stage_indicator
I0925 22:11:38.994613 21448 net.cpp:399] reshape_stage_indicator -> reshaped_stage_indicator
I0925 22:11:38.994793 21448 net.cpp:141] Setting up reshape_stage_indicator
I0925 22:11:38.994791 21440 net.cpp:141] Setting up reshape_frames
I0925 22:11:38.994807 21448 net.cpp:148] Top shape: 1 1 1 (1)
I0925 22:11:38.994813 21448 net.cpp:156] Memory required for data: 20408
I0925 22:11:38.994818 21448 layer_factory.hpp:77] Creating layer embedding
I0925 22:11:38.994819 21440 net.cpp:148] Top shape: 1 1 500 (500)
I0925 22:11:38.994832 21440 net.cpp:156] Memory required for data: 20404
I0925 22:11:38.994833 21448 net.cpp:91] Creating Layer embedding
I0925 22:11:38.994844 21448 net.cpp:425] embedding <- input_sentence
I0925 22:11:38.994843 21440 layer_factory.hpp:77] Creating layer reshape_stage_indicator
I0925 22:11:38.994861 21472 net.cpp:141] Setting up embed_encoder
I0925 22:11:38.994873 21448 net.cpp:399] embedding -> embedded_input_sentence
I0925 22:11:38.994879 21440 net.cpp:91] Creating Layer reshape_stage_indicator
I0925 22:11:38.994885 21472 net.cpp:148] Top shape: 1 500 (500)
I0925 22:11:38.994894 21440 net.cpp:425] reshape_stage_indicator <- stage_indicator
I0925 22:11:38.994894 21472 net.cpp:156] Memory required for data: 18404
I0925 22:11:38.994918 21440 net.cpp:399] reshape_stage_indicator -> reshaped_stage_indicator
I0925 22:11:38.994933 21472 layer_factory.hpp:77] Creating layer reshape_frames
I0925 22:11:38.994935 21442 net.cpp:141] Setting up embed_encoder
I0925 22:11:38.994961 21472 net.cpp:91] Creating Layer reshape_frames
I0925 22:11:38.994969 21442 net.cpp:148] Top shape: 1 500 (500)
I0925 22:11:38.994972 21472 net.cpp:425] reshape_frames <- embedded_in_frames
I0925 22:11:38.994979 21442 net.cpp:156] Memory required for data: 18404
I0925 22:11:38.994992 21472 net.cpp:399] reshape_frames -> embedded_input_frames
I0925 22:11:38.995003 21442 layer_factory.hpp:77] Creating layer reshape_frames
I0925 22:11:38.995044 21442 net.cpp:91] Creating Layer reshape_frames
I0925 22:11:38.995059 21442 net.cpp:425] reshape_frames <- embedded_in_frames
I0925 22:11:38.995074 21442 net.cpp:399] reshape_frames -> embedded_input_frames
I0925 22:11:39.045867 21472 net.cpp:141] Setting up reshape_frames
I0925 22:11:39.045922 21472 net.cpp:148] Top shape: 1 1 500 (500)
I0925 22:11:39.045929 21472 net.cpp:156] Memory required for data: 20404
I0925 22:11:39.045943 21472 layer_factory.hpp:77] Creating layer reshape_stage_indicator
I0925 22:11:39.045946 21442 net.cpp:141] Setting up reshape_frames
I0925 22:11:39.045979 21472 net.cpp:91] Creating Layer reshape_stage_indicator
I0925 22:11:39.045984 21442 net.cpp:148] Top shape: 1 1 500 (500)
I0925 22:11:39.045992 21472 net.cpp:425] reshape_stage_indicator <- stage_indicator
I0925 22:11:39.046001 21442 net.cpp:156] Memory required for data: 20404
I0925 22:11:39.046013 21472 net.cpp:399] reshape_stage_indicator -> reshaped_stage_indicator
I0925 22:11:39.046020 21442 layer_factory.hpp:77] Creating layer reshape_stage_indicator
I0925 22:11:39.046061 21442 net.cpp:91] Creating Layer reshape_stage_indicator
I0925 22:11:39.046082 21442 net.cpp:425] reshape_stage_indicator <- stage_indicator
I0925 22:11:39.046103 21440 net.cpp:141] Setting up reshape_stage_indicator
I0925 22:11:39.046108 21442 net.cpp:399] reshape_stage_indicator -> reshaped_stage_indicator
I0925 22:11:39.046152 21440 net.cpp:148] Top shape: 1 1 1 (1)
I0925 22:11:39.046164 21440 net.cpp:156] Memory required for data: 20408
I0925 22:11:39.046174 21440 layer_factory.hpp:77] Creating layer embedding
I0925 22:11:39.046200 21472 net.cpp:141] Setting up reshape_stage_indicator
I0925 22:11:39.046227 21472 net.cpp:148] Top shape: 1 1 1 (1)
I0925 22:11:39.046228 21440 net.cpp:91] Creating Layer embedding
I0925 22:11:39.046237 21472 net.cpp:156] Memory required for data: 20408
I0925 22:11:39.046243 21440 net.cpp:425] embedding <- input_sentence
I0925 22:11:39.046248 21472 layer_factory.hpp:77] Creating layer embedding
I0925 22:11:39.046262 21440 net.cpp:399] embedding -> embedded_input_sentence
I0925 22:11:39.046267 21472 net.cpp:91] Creating Layer embedding
I0925 22:11:39.046279 21472 net.cpp:425] embedding <- input_sentence
I0925 22:11:39.046296 21472 net.cpp:399] embedding -> embedded_input_sentence
I0925 22:11:39.046349 21466 net.cpp:141] Setting up embed_encoder
I0925 22:11:39.046365 21466 net.cpp:148] Top shape: 1 500 (500)
I0925 22:11:39.046371 21466 net.cpp:156] Memory required for data: 18404
I0925 22:11:39.046389 21466 layer_factory.hpp:77] Creating layer reshape_frames
I0925 22:11:39.046401 21466 net.cpp:91] Creating Layer reshape_frames
I0925 22:11:39.046408 21466 net.cpp:425] reshape_frames <- embedded_in_frames
I0925 22:11:39.046421 21466 net.cpp:399] reshape_frames -> embedded_input_frames
I0925 22:11:39.046435 21438 net.cpp:141] Setting up embed_encoder
I0925 22:11:39.046452 21438 net.cpp:148] Top shape: 1 500 (500)
I0925 22:11:39.046458 21438 net.cpp:156] Memory required for data: 18404
I0925 22:11:39.046475 21438 layer_factory.hpp:77] Creating layer reshape_frames
I0925 22:11:39.046488 21438 net.cpp:91] Creating Layer reshape_frames
I0925 22:11:39.046494 21438 net.cpp:425] reshape_frames <- embedded_in_frames
I0925 22:11:39.046504 21438 net.cpp:399] reshape_frames -> embedded_input_frames
I0925 22:11:39.046555 21442 net.cpp:141] Setting up reshape_stage_indicator
I0925 22:11:39.046586 21442 net.cpp:148] Top shape: 1 1 1 (1)
I0925 22:11:39.046620 21442 net.cpp:156] Memory required for data: 20408
I0925 22:11:39.046639 21442 layer_factory.hpp:77] Creating layer embedding
I0925 22:11:39.046665 21442 net.cpp:91] Creating Layer embedding
I0925 22:11:39.046685 21442 net.cpp:425] embedding <- input_sentence
I0925 22:11:39.046718 21442 net.cpp:399] embedding -> embedded_input_sentence
I0925 22:11:39.161151 21438 net.cpp:141] Setting up reshape_frames
I0925 22:11:39.161226 21438 net.cpp:148] Top shape: 1 1 500 (500)
I0925 22:11:39.161238 21438 net.cpp:156] Memory required for data: 20404
I0925 22:11:39.161254 21438 layer_factory.hpp:77] Creating layer reshape_stage_indicator
I0925 22:11:39.161273 21466 net.cpp:141] Setting up reshape_frames
I0925 22:11:39.161290 21438 net.cpp:91] Creating Layer reshape_stage_indicator
I0925 22:11:39.161330 21438 net.cpp:425] reshape_stage_indicator <- stage_indicator
I0925 22:11:39.161353 21466 net.cpp:148] Top shape: 1 1 500 (500)
I0925 22:11:39.161353 21438 net.cpp:399] reshape_stage_indicator -> reshaped_stage_indicator
I0925 22:11:39.161396 21466 net.cpp:156] Memory required for data: 20404
I0925 22:11:39.161417 21466 layer_factory.hpp:77] Creating layer reshape_stage_indicator
I0925 22:11:39.161453 21466 net.cpp:91] Creating Layer reshape_stage_indicator
I0925 22:11:39.161474 21466 net.cpp:425] reshape_stage_indicator <- stage_indicator
I0925 22:11:39.161505 21466 net.cpp:399] reshape_stage_indicator -> reshaped_stage_indicator
I0925 22:11:39.219722 21438 net.cpp:141] Setting up reshape_stage_indicator
I0925 22:11:39.219802 21438 net.cpp:148] Top shape: 1 1 1 (1)
I0925 22:11:39.219823 21438 net.cpp:156] Memory required for data: 20408
I0925 22:11:39.219846 21438 layer_factory.hpp:77] Creating layer embedding
I0925 22:11:39.219887 21438 net.cpp:91] Creating Layer embedding
I0925 22:11:39.219908 21438 net.cpp:425] embedding <- input_sentence
I0925 22:11:39.219938 21438 net.cpp:399] embedding -> embedded_input_sentence
I0925 22:11:39.285917 21466 net.cpp:141] Setting up reshape_stage_indicator
I0925 22:11:39.285972 21466 net.cpp:148] Top shape: 1 1 1 (1)
I0925 22:11:39.285980 21466 net.cpp:156] Memory required for data: 20408
I0925 22:11:39.285991 21466 layer_factory.hpp:77] Creating layer embedding
I0925 22:11:39.286020 21466 net.cpp:91] Creating Layer embedding
I0925 22:11:39.286028 21466 net.cpp:425] embedding <- input_sentence
I0925 22:11:39.286043 21466 net.cpp:399] embedding -> embedded_input_sentence
I0925 22:11:39.352105 21448 net.cpp:141] Setting up embedding
I0925 22:11:39.352165 21448 net.cpp:148] Top shape: 1 1 500 (500)
I0925 22:11:39.352172 21448 net.cpp:156] Memory required for data: 22408
I0925 22:11:39.352180 21440 net.cpp:141] Setting up embedding
I0925 22:11:39.352195 21448 layer_factory.hpp:77] Creating layer lstm1
I0925 22:11:39.352205 21440 net.cpp:148] Top shape: 1 1 500 (500)
I0925 22:11:39.352216 21440 net.cpp:156] Memory required for data: 22408
I0925 22:11:39.352231 21448 net.cpp:91] Creating Layer lstm1
I0925 22:11:39.352236 21440 layer_factory.hpp:77] Creating layer lstm1
I0925 22:11:39.352241 21448 net.cpp:425] lstm1 <- embedded_input_frames
I0925 22:11:39.352250 21448 net.cpp:425] lstm1 <- cont_sentence_input_1_split_0
I0925 22:11:39.352262 21448 net.cpp:399] lstm1 -> lstm1
…
I0925 22:11:39.352350 21440 recurrent_layer.cpp:20] Initializing recurrent layer: assuming input batch contains 1 timesteps of 1 independent streams.
I0925 22:11:39.352771 21448 net.cpp:49] Initializing net from parameters: 
layer {
  name: "lstm1_"
  type: "Input"
  top: "x"
  top: "cont"
  input_param {
    shape {
      dim: 1
      dim: 1
      dim: 500
    }
    shape {
      dim: 1
      dim: 1
    }
  }
}
layer {
  name: "lstm1_"
  type: "Input"
  top: "c_0"
  top: "h_0"
  input_param {
    shape {
      dim: 1
      dim: 1
      dim: 1000
    }
    shape {
      dim: 1
      dim: 1
      dim: 1000
    }
  }
}
layer {
  name: "lstm1_cont_slice"
  type: "Slice"
  bottom: "cont"
  top: "cont_1"
  slice_param {
    axis: 0
  }
}
layer {
  name: "lstm1_x_transform"
  type: "InnerProduct"
  bottom: "x"
  top: "W_xc_x"
  param {
    name: "W_xc"
  }
  param {
    name: "b_c"
  }
  propagate_down: true
  inner_product_param {
    num_output: 4000
    bias_term: true
    weight_filler {
      type: "uniform"
      min: -0.08
      max: 0.08
    }
    bias_filler {
      type: "constant"
      value: 0
    }
    axis: 2
  }
}
layer {
  name: "lstm1_W_xc_x_slice"
  type: "Slice"
  bottom: "W_xc_x"
  top: "W_xc_x_1"
  slice_param {
    axis: 0
  }
}
layer {
  name: "lstm1_h_conted_0"
  type: "Scale"
  bottom: "h_0"
  bottom: "cont_1"
  top: "h_conted_0"
  scale_param {
    axis: 0
  }
}
layer {
  name: "lstm1_transform_1"
  type: "InnerProduct"
  bottom: "h_conted_0"
  top: "W_hc_h_0"
  param {
    name: "W_hc"
  }
  inner_product_param {
    num_output: 4000
    bias_term: false
    weight_filler {
      type: "uniform"
      min: -0.08
      max: 0.08
    }
    axis: 2
  }
}
layer {
  name: "lstm1_gate_input_1"
  type: "Eltwise"
  bottom: "W_hc_h_0"
  bottom: "W_xc_x_1"
  top: "gate_input_1"
  eltwise_param {
    operation: SUM
  }
}
layer {
  name: "lstm1_unit_1"
  type: "LSTMUnit"
  bottom: "c_0"
  bottom: "gate_input_1"
  bottom: "cont_1"
  top: "c_1"
  top: "h_1"
}
layer {
  name: "lstm1_"
  type: "Split"
  bottom: "c_1"
  top: "c_T"
}
layer {
  name: "lstm1_h_concat"
  type: "Concat"
  bottom: "h_1"
  top: "h"
  concat_param {
    axis: 0
  }
}
layer {
  name: "h_pseudoloss"
  type: "Reduction"
  bottom: "h"
  top: "h_pseudoloss"
  loss_weight: 1
}
I0925 22:11:39.352820 21440 net.cpp:49] Initializing net from parameters: 
layer {
  name: "lstm1_"
  type: "Input"
  top: "x"
  top: "cont"
  input_param {
    shape {
      dim: 1
      dim: 1
      dim: 500
    }
    shape {
      dim: 1
      dim: 1
    }
  }
}
layer {
  name: "lstm1_"
  type: "Input"
  top: "c_0"
  top: "h_0"
  input_param {
    shape {
      dim: 1
      dim: 1
      dim: 1000
    }
    shape {
      dim: 1
      dim: 1
      dim: 1000
    }
  }
}
layer {
  name: "lstm1_cont_slice"
  type: "Slice"
  bottom: "cont"
  top: "cont_1"
  slice_param {
    axis: 0
  }
}
layer {
  name: "lstm1_x_transform"
  type: "InnerProduct"
  bottom: "x"
  top: "W_xc_x"
  param {
    name: "W_xc"
  }
  param {
    name: "b_c"
  }
  propagate_down: true
  inner_product_param {
    num_output: 4000
    bias_term: true
    weight_filler {
      type: "uniform"
      min: -0.08
      max: 0.08
    }
    bias_filler {
      type: "constant"
      value: 0
    }
    axis: 2
  }
}
layer {
  name: "lstm1_W_xc_x_slice"
  type: "Slice"
  bottom: "W_xc_x"
  top: "W_xc_x_1"
  slice_param {
    axis: 0
  }
}
layer {
  name: "lstm1_h_conted_0"
  type: "Scale"
  bottom: "h_0"
  bottom: "cont_1"
  top: "h_conted_0"
  scale_param {
    axis: 0
  }
}
layer {
  name: "lstm1_transform_1"
  type: "InnerProduct"
  bottom: "h_conted_0"
  top: "W_hc_h_0"
  param {
    name: "W_hc"
  }
  inner_product_param {
    num_output: 4000
    bias_term: false
    weight_filler {
      type: "uniform"
      min: -0.08
      max: 0.08
    }
    axis: 2
  }
}
layer {
  name: "lstm1_gate_input_1"
  type: "Eltwise"
  bottom: "W_hc_h_0"
  bottom: "W_xc_x_1"
  top: "gate_input_1"
  eltwise_param {
    operation: SUM
  }
}
layer {
  name: "lstm1_unit_1"
  type: "LSTMUnit"
  bottom: "c_0"
  bottom: "gate_input_1"
  bottom: "cont_1"
  top: "c_1"
  top: "h_1"
}
layer {
  name: "lstm1_"
  type: "Split"
  bottom: "c_1"
  top: "c_T"
}
layer {
  name: "lstm1_h_concat"
  type: "Concat"
  bottom: "h_1"
  top: "h"
  concat_param {
    axis: 0
  }
}
layer {
  name: "h_pseudoloss"
  type: "Reduction"
  bottom: "h"
  top: "h_pseudoloss"
  loss_weight: 1
}
I0925 22:11:39.352876 21448 layer_factory.hpp:77] Creating layer lstm1_
I0925 22:11:39.352890 21448 net.cpp:91] Creating Layer lstm1_
I0925 22:11:39.352897 21448 net.cpp:399] lstm1_ -> x
I0925 22:11:39.352910 21448 net.cpp:399] lstm1_ -> cont
I0925 22:11:39.352983 21440 layer_factory.hpp:77] Creating layer lstm1_
I0925 22:11:39.353008 21440 net.cpp:91] Creating Layer lstm1_
I0925 22:11:39.353024 21440 net.cpp:399] lstm1_ -> x
I0925 22:11:39.353047 21440 net.cpp:399] lstm1_ -> cont
I0925 22:11:39.353770 21440 net.cpp:141] Setting up lstm1_
I0925 22:11:39.353799 21440 net.cpp:148] Top shape: 1 1 500 (500)
I0925 22:11:39.353809 21448 net.cpp:141] Setting up lstm1_
I0925 22:11:39.353817 21440 net.cpp:148] Top shape: 1 1 (1)
I0925 22:11:39.353848 21448 net.cpp:148] Top shape: 1 1 500 (500)
I0925 22:11:39.353857 21448 net.cpp:148] Top shape: 1 1 (1)
I0925 22:11:39.353857 21440 net.cpp:156] Memory required for data: 2004
I0925 22:11:39.353863 21448 net.cpp:156] Memory required for data: 2004
I0925 22:11:39.353871 21448 layer_factory.hpp:77] Creating layer lstm1_
I0925 22:11:39.353873 21440 layer_factory.hpp:77] Creating layer lstm1_
I0925 22:11:39.353895 21448 net.cpp:91] Creating Layer lstm1_
I0925 22:11:39.353894 21440 net.cpp:91] Creating Layer lstm1_
I0925 22:11:39.353904 21448 net.cpp:399] lstm1_ -> c_0
I0925 22:11:39.353920 21440 net.cpp:399] lstm1_ -> c_0
I0925 22:11:39.353931 21448 net.cpp:399] lstm1_ -> h_0
I0925 22:11:39.353946 21440 net.cpp:399] lstm1_ -> h_0
I0925 22:11:39.360656 21448 net.cpp:141] Setting up lstm1_
I0925 22:11:39.360708 21448 net.cpp:148] Top shape: 1 1 1000 (1000)
I0925 22:11:39.360716 21448 net.cpp:148] Top shape: 1 1 1000 (1000)
I0925 22:11:39.360721 21448 net.cpp:156] Memory required for data: 10004
I0925 22:11:39.360731 21448 layer_factory.hpp:77] Creating layer lstm1_cont_slice
I0925 22:11:39.360760 21448 net.cpp:91] Creating Layer lstm1_cont_slice
I0925 22:11:39.360769 21448 net.cpp:425] lstm1_cont_slice <- cont
I0925 22:11:39.360780 21448 net.cpp:399] lstm1_cont_slice -> cont_1
I0925 22:11:39.360832 21448 net.cpp:141] Setting up lstm1_cont_slice
I0925 22:11:39.360842 21448 net.cpp:148] Top shape: 1 1 (1)
I0925 22:11:39.360847 21448 net.cpp:156] Memory required for data: 10008
I0925 22:11:39.360853 21448 layer_factory.hpp:77] Creating layer cont_1_lstm1_cont_slice_0_split
I0925 22:11:39.360862 21448 net.cpp:91] Creating Layer cont_1_lstm1_cont_slice_0_split
I0925 22:11:39.360868 21448 net.cpp:425] cont_1_lstm1_cont_slice_0_split <- cont_1
I0925 22:11:39.360878 21448 net.cpp:399] cont_1_lstm1_cont_slice_0_split -> cont_1_lstm1_cont_slice_0_split_0
I0925 22:11:39.360888 21448 net.cpp:399] cont_1_lstm1_cont_slice_0_split -> cont_1_lstm1_cont_slice_0_split_1
I0925 22:11:39.360936 21448 net.cpp:141] Setting up cont_1_lstm1_cont_slice_0_split
I0925 22:11:39.360949 21448 net.cpp:148] Top shape: 1 1 (1)
I0925 22:11:39.360955 21448 net.cpp:148] Top shape: 1 1 (1)
I0925 22:11:39.360960 21448 net.cpp:156] Memory required for data: 10016
I0925 22:11:39.360965 21448 layer_factory.hpp:77] Creating layer lstm1_x_transform
I0925 22:11:39.360982 21448 net.cpp:91] Creating Layer lstm1_x_transform
I0925 22:11:39.360987 21448 net.cpp:425] lstm1_x_transform <- x
I0925 22:11:39.360999 21448 net.cpp:399] lstm1_x_transform -> W_xc_x
I0925 22:11:39.367997 21440 net.cpp:141] Setting up lstm1_
I0925 22:11:39.368058 21440 net.cpp:148] Top shape: 1 1 1000 (1000)
I0925 22:11:39.368067 21440 net.cpp:148] Top shape: 1 1 1000 (1000)
I0925 22:11:39.368072 21440 net.cpp:156] Memory required for data: 10004
I0925 22:11:39.368083 21440 layer_factory.hpp:77] Creating layer lstm1_cont_slice
I0925 22:11:39.368108 21440 net.cpp:91] Creating Layer lstm1_cont_slice
I0925 22:11:39.368116 21440 net.cpp:425] lstm1_cont_slice <- cont
I0925 22:11:39.368129 21440 net.cpp:399] lstm1_cont_slice -> cont_1
I0925 22:11:39.369915 21440 net.cpp:141] Setting up lstm1_cont_slice
I0925 22:11:39.369959 21440 net.cpp:148] Top shape: 1 1 (1)
I0925 22:11:39.369966 21440 net.cpp:156] Memory required for data: 10008
I0925 22:11:39.369973 21440 layer_factory.hpp:77] Creating layer cont_1_lstm1_cont_slice_0_split
I0925 22:11:39.369992 21440 net.cpp:91] Creating Layer cont_1_lstm1_cont_slice_0_split
I0925 22:11:39.370000 21440 net.cpp:425] cont_1_lstm1_cont_slice_0_split <- cont_1
I0925 22:11:39.370012 21440 net.cpp:399] cont_1_lstm1_cont_slice_0_split -> cont_1_lstm1_cont_slice_0_split_0
I0925 22:11:39.370026 21440 net.cpp:399] cont_1_lstm1_cont_slice_0_split -> cont_1_lstm1_cont_slice_0_split_1
I0925 22:11:39.371553 21440 net.cpp:141] Setting up cont_1_lstm1_cont_slice_0_split
I0925 22:11:39.371582 21440 net.cpp:148] Top shape: 1 1 (1)
I0925 22:11:39.371594 21440 net.cpp:148] Top shape: 1 1 (1)
I0925 22:11:39.371603 21440 net.cpp:156] Memory required for data: 10016
I0925 22:11:39.371611 21440 layer_factory.hpp:77] Creating layer lstm1_x_transform
I0925 22:11:39.371636 21440 net.cpp:91] Creating Layer lstm1_x_transform
I0925 22:11:39.371645 21440 net.cpp:425] lstm1_x_transform <- x
I0925 22:11:39.371665 21440 net.cpp:399] lstm1_x_transform -> W_xc_x
I0925 22:11:39.381383 21472 net.cpp:141] Setting up embedding
I0925 22:11:39.381430 21472 net.cpp:148] Top shape: 1 1 500 (500)
I0925 22:11:39.381441 21472 net.cpp:156] Memory required for data: 22408
I0925 22:11:39.381469 21472 layer_factory.hpp:77] Creating layer lstm1
I0925 22:11:39.381494 21472 net.cpp:91] Creating Layer lstm1
I0925 22:11:39.381505 21472 net.cpp:425] lstm1 <- embedded_input_frames
I0925 22:11:39.381513 21472 net.cpp:425] lstm1 <- cont_sentence_input_1_split_0
I0925 22:11:39.381525 21472 net.cpp:399] lstm1 -> lstm1
I0925 22:11:39.381541 21472 recurrent_layer.cpp:20] Initializing recurrent layer: assuming input batch contains 1 timesteps of 1 independent streams.
I0925 22:11:39.381850 21472 net.cpp:49] Initializing net from parameters: 
layer {
  name: "lstm1_"
  type: "Input"
  top: "x"
  top: "cont"
  input_param {
    shape {
      dim: 1
      dim: 1
      dim: 500
    }
    shape {
      dim: 1
      dim: 1
    }
  }
}
layer {
  name: "lstm1_"
  type: "Input"
  top: "c_0"
  top: "h_0"
  input_param {
    shape {
      dim: 1
      dim: 1
      dim: 1000
    }
    shape {
      dim: 1
      dim: 1
      dim: 1000
    }
  }
}
layer {
  name: "lstm1_cont_slice"
  type: "Slice"
  bottom: "cont"
  top: "cont_1"
  slice_param {
    axis: 0
  }
}
layer {
  name: "lstm1_x_transform"
  type: "InnerProduct"
  bottom: "x"
  top: "W_xc_x"
  param {
    name: "W_xc"
  }
  param {
    name: "b_c"
  }
  propagate_down: true
  inner_product_param {
    num_output: 4000
    bias_term: true
    weight_filler {
      type: "uniform"
      min: -0.08
      max: 0.08
    }
    bias_filler {
      type: "constant"
      value: 0
    }
    axis: 2
  }
}
layer {
  name: "lstm1_W_xc_x_slice"
  type: "Slice"
  bottom: "W_xc_x"
  top: "W_xc_x_1"
  slice_param {
    axis: 0
  }
}
layer {
  name: "lstm1_h_conted_0"
  type: "Scale"
  bottom: "h_0"
  bottom: "cont_1"
  top: "h_conted_0"
  scale_param {
    axis: 0
  }
}
layer {
  name: "lstm1_transform_1"
  type: "InnerProduct"
  bottom: "h_conted_0"
  top: "W_hc_h_0"
  param {
    name: "W_hc"
  }
  inner_product_param {
    num_output: 4000
    bias_term: false
    weight_filler {
      type: "uniform"
      min: -0.08
      max: 0.08
    }
    axis: 2
  }
}
layer {
  name: "lstm1_gate_input_1"
  type: "Eltwise"
  bottom: "W_hc_h_0"
  bottom: "W_xc_x_1"
  top: "gate_input_1"
  eltwise_param {
    operation: SUM
  }
}
layer {
  name: "lstm1_unit_1"
  type: "LSTMUnit"
  bottom: "c_0"
  bottom: "gate_input_1"
  bottom: "cont_1"
  top: "c_1"
  top: "h_1"
}
layer {
  name: "lstm1_"
  type: "Split"
  bottom: "c_1"
  top: "c_T"
}
layer {
  name: "lstm1_h_concat"
  type: "Concat"
  bottom: "h_1"
  top: "h"
  concat_param {
    axis: 0
  }
}
layer {
  name: "h_pseudoloss"
  type: "Reduction"
  bottom: "h"
  top: "h_pseudoloss"
  loss_weight: 1
}
I0925 22:11:39.381956 21472 layer_factory.hpp:77] Creating layer lstm1_
I0925 22:11:39.381969 21472 net.cpp:91] Creating Layer lstm1_
I0925 22:11:39.381976 21472 net.cpp:399] lstm1_ -> x
I0925 22:11:39.381989 21472 net.cpp:399] lstm1_ -> cont
I0925 22:11:39.390327 21472 net.cpp:141] Setting up lstm1_
I0925 22:11:39.390385 21472 net.cpp:148] Top shape: 1 1 500 (500)
I0925 22:11:39.390403 21472 net.cpp:148] Top shape: 1 1 (1)
I0925 22:11:39.390413 21472 net.cpp:156] Memory required for data: 2004
I0925 22:11:39.390427 21472 layer_factory.hpp:77] Creating layer lstm1_
I0925 22:11:39.390466 21472 net.cpp:91] Creating Layer lstm1_
I0925 22:11:39.390485 21472 net.cpp:399] lstm1_ -> c_0
I0925 22:11:39.390522 21472 net.cpp:399] lstm1_ -> h_0
I0925 22:11:39.391558 21472 net.cpp:141] Setting up lstm1_
I0925 22:11:39.391582 21472 net.cpp:148] Top shape: 1 1 1000 (1000)
I0925 22:11:39.391597 21472 net.cpp:148] Top shape: 1 1 1000 (1000)
I0925 22:11:39.391605 21472 net.cpp:156] Memory required for data: 10004
I0925 22:11:39.391615 21472 layer_factory.hpp:77] Creating layer lstm1_cont_slice
I0925 22:11:39.391634 21472 net.cpp:91] Creating Layer lstm1_cont_slice
I0925 22:11:39.391646 21472 net.cpp:425] lstm1_cont_slice <- cont
I0925 22:11:39.391664 21472 net.cpp:399] lstm1_cont_slice -> cont_1
I0925 22:11:39.391670 21448 net.cpp:141] Setting up lstm1_x_transform
I0925 22:11:39.391695 21448 net.cpp:148] Top shape: 1 1 4000 (4000)
I0925 22:11:39.391705 21448 net.cpp:156] Memory required for data: 26016
I0925 22:11:39.391721 21472 net.cpp:141] Setting up lstm1_cont_slice
I0925 22:11:39.391729 21448 layer_factory.hpp:77] Creating layer lstm1_W_xc_x_slice
I0925 22:11:39.391733 21472 net.cpp:148] Top shape: 1 1 (1)
I0925 22:11:39.391751 21472 net.cpp:156] Memory required for data: 10008
I0925 22:11:39.391752 21448 net.cpp:91] Creating Layer lstm1_W_xc_x_slice
I0925 22:11:39.391757 21472 layer_factory.hpp:77] Creating layer cont_1_lstm1_cont_slice_0_split
I0925 22:11:39.391769 21448 net.cpp:425] lstm1_W_xc_x_slice <- W_xc_x
I0925 22:11:39.391775 21472 net.cpp:91] Creating Layer cont_1_lstm1_cont_slice_0_split
I0925 22:11:39.391782 21472 net.cpp:425] cont_1_lstm1_cont_slice_0_split <- cont_1
I0925 22:11:39.391789 21472 net.cpp:399] cont_1_lstm1_cont_slice_0_split -> cont_1_lstm1_cont_slice_0_split_0
I0925 22:11:39.391791 21448 net.cpp:399] lstm1_W_xc_x_slice -> W_xc_x_1
I0925 22:11:39.391799 21472 net.cpp:399] cont_1_lstm1_cont_slice_0_split -> cont_1_lstm1_cont_slice_0_split_1
I0925 22:11:39.396975 21448 net.cpp:141] Setting up lstm1_W_xc_x_slice
I0925 22:11:39.397002 21448 net.cpp:148] Top shape: 1 1 4000 (4000)
I0925 22:11:39.397008 21448 net.cpp:156] Memory required for data: 42016
I0925 22:11:39.397016 21448 layer_factory.hpp:77] Creating layer lstm1_h_conted_0
I0925 22:11:39.397025 21472 net.cpp:141] Setting up cont_1_lstm1_cont_slice_0_split
I0925 22:11:39.397040 21448 net.cpp:91] Creating Layer lstm1_h_conted_0
I0925 22:11:39.397047 21472 net.cpp:148] Top shape: 1 1 (1)
I0925 22:11:39.397047 21448 net.cpp:425] lstm1_h_conted_0 <- h_0
I0925 22:11:39.397059 21472 net.cpp:148] Top shape: 1 1 (1)
I0925 22:11:39.397064 21448 net.cpp:425] lstm1_h_conted_0 <- cont_1_lstm1_cont_slice_0_split_0
I0925 22:11:39.397064 21472 net.cpp:156] Memory required for data: 10016
I0925 22:11:39.397083 21472 layer_factory.hpp:77] Creating layer lstm1_x_transform
I0925 22:11:39.397086 21448 net.cpp:399] lstm1_h_conted_0 -> h_conted_0
I0925 22:11:39.397105 21472 net.cpp:91] Creating Layer lstm1_x_transform
I0925 22:11:39.397112 21472 net.cpp:425] lstm1_x_transform <- x
I0925 22:11:39.397122 21472 net.cpp:399] lstm1_x_transform -> W_xc_x
I0925 22:11:39.414495 21448 net.cpp:141] Setting up lstm1_h_conted_0
I0925 22:11:39.414544 21440 net.cpp:141] Setting up lstm1_x_transform
I0925 22:11:39.415166 21448 net.cpp:148] Top shape: 1 1 1000 (1000)
I0925 22:11:39.415172 21440 net.cpp:148] Top shape: 1 1 4000 (4000)
I0925 22:11:39.415180 21448 net.cpp:156] Memory required for data: 46016
I0925 22:11:39.415186 21440 net.cpp:156] Memory required for data: 26016
I0925 22:11:39.415194 21448 layer_factory.hpp:77] Creating layer lstm1_transform_1
I0925 22:11:39.415217 21440 layer_factory.hpp:77] Creating layer lstm1_W_xc_x_slice
I0925 22:11:39.415227 21448 net.cpp:91] Creating Layer lstm1_transform_1
I0925 22:11:39.415240 21448 net.cpp:425] lstm1_transform_1 <- h_conted_0
I0925 22:11:39.415240 21440 net.cpp:91] Creating Layer lstm1_W_xc_x_slice
I0925 22:11:39.415266 21448 net.cpp:399] lstm1_transform_1 -> W_hc_h_0
I0925 22:11:39.415269 21440 net.cpp:425] lstm1_W_xc_x_slice <- W_xc_x
I0925 22:11:39.415297 21440 net.cpp:399] lstm1_W_xc_x_slice -> W_xc_x_1
I0925 22:11:39.415376 21440 net.cpp:141] Setting up lstm1_W_xc_x_slice
I0925 22:11:39.415397 21440 net.cpp:148] Top shape: 1 1 4000 (4000)
I0925 22:11:39.415406 21440 net.cpp:156] Memory required for data: 42016
I0925 22:11:39.415416 21440 layer_factory.hpp:77] Creating layer lstm1_h_conted_0
I0925 22:11:39.415434 21440 net.cpp:91] Creating Layer lstm1_h_conted_0
I0925 22:11:39.415447 21440 net.cpp:425] lstm1_h_conted_0 <- h_0
I0925 22:11:39.415460 21440 net.cpp:425] lstm1_h_conted_0 <- cont_1_lstm1_cont_slice_0_split_0
I0925 22:11:39.415477 21440 net.cpp:399] lstm1_h_conted_0 -> h_conted_0
I0925 22:11:39.426852 21440 net.cpp:141] Setting up lstm1_h_conted_0
I0925 22:11:39.426909 21440 net.cpp:148] Top shape: 1 1 1000 (1000)
I0925 22:11:39.426919 21440 net.cpp:156] Memory required for data: 46016
I0925 22:11:39.426934 21440 layer_factory.hpp:77] Creating layer lstm1_transform_1
I0925 22:11:39.426964 21440 net.cpp:91] Creating Layer lstm1_transform_1
I0925 22:11:39.426977 21440 net.cpp:425] lstm1_transform_1 <- h_conted_0
I0925 22:11:39.427004 21440 net.cpp:399] lstm1_transform_1 -> W_hc_h_0
I0925 22:11:39.465941 21472 net.cpp:141] Setting up lstm1_x_transform
I0925 22:11:39.465924 21442 net.cpp:141] Setting up embedding
I0925 22:11:39.465991 21472 net.cpp:148] Top shape: 1 1 4000 (4000)
I0925 22:11:39.465991 21442 net.cpp:148] Top shape: 1 1 500 (500)
I0925 22:11:39.466017 21472 net.cpp:156] Memory required for data: 26016
I0925 22:11:39.466018 21442 net.cpp:156] Memory required for data: 22408
I0925 22:11:39.466050 21442 layer_factory.hpp:77] Creating layer lstm1
I0925 22:11:39.466050 21472 layer_factory.hpp:77] Creating layer lstm1_W_xc_x_slice
I0925 22:11:39.466091 21472 net.cpp:91] Creating Layer lstm1_W_xc_x_slice
I0925 22:11:39.466096 21442 net.cpp:91] Creating Layer lstm1
I0925 22:11:39.466106 21472 net.cpp:425] lstm1_W_xc_x_slice <- W_xc_x
I0925 22:11:39.466110 21442 net.cpp:425] lstm1 <- embedded_input_frames
I0925 22:11:39.466120 21442 net.cpp:425] lstm1 <- cont_sentence_input_1_split_0
I0925 22:11:39.466126 21472 net.cpp:399] lstm1_W_xc_x_slice -> W_xc_x_1
I0925 22:11:39.466136 21442 net.cpp:399] lstm1 -> lstm1
I0925 22:11:39.466156 21442 recurrent_layer.cpp:20] Initializing recurrent layer: assuming input batch contains 1 timesteps of 1 independent streams.
I0925 22:11:39.466387 21472 net.cpp:141] Setting up lstm1_W_xc_x_slice
I0925 22:11:39.466406 21472 net.cpp:148] Top shape: 1 1 4000 (4000)
I0925 22:11:39.466415 21472 net.cpp:156] Memory required for data: 42016
I0925 22:11:39.466425 21472 layer_factory.hpp:77] Creating layer lstm1_h_conted_0
I0925 22:11:39.466445 21472 net.cpp:91] Creating Layer lstm1_h_conted_0
I0925 22:11:39.466457 21472 net.cpp:425] lstm1_h_conted_0 <- h_0
I0925 22:11:39.466470 21472 net.cpp:425] lstm1_h_conted_0 <- cont_1_lstm1_cont_slice_0_split_0
I0925 22:11:39.466490 21472 net.cpp:399] lstm1_h_conted_0 -> h_conted_0
I0925 22:11:39.466549 21442 net.cpp:49] Initializing net from parameters: 
layer {
  name: "lstm1_"
  type: "Input"
  top: "x"
  top: "cont"
  input_param {
    shape {
      dim: 1
      dim: 1
      dim: 500
    }
    shape {
      dim: 1
      dim: 1
    }
  }
}
layer {
  name: "lstm1_"
  type: "Input"
  top: "c_0"
  top: "h_0"
  input_param {
    shape {
      dim: 1
      dim: 1
      dim: 1000
    }
    shape {
      dim: 1
      dim: 1
      dim: 1000
    }
  }
}
layer {
  name: "lstm1_cont_slice"
  type: "Slice"
  bottom: "cont"
  top: "cont_1"
  slice_param {
    axis: 0
  }
}
layer {
  name: "lstm1_x_transform"
  type: "InnerProduct"
  bottom: "x"
  top: "W_xc_x"
  param {
    name: "W_xc"
  }
  param {
    name: "b_c"
  }
  propagate_down: true
  inner_product_param {
    num_output: 4000
    bias_term: true
    weight_filler {
      type: "uniform"
      min: -0.08
      max: 0.08
    }
    bias_filler {
      type: "constant"
      value: 0
    }
    axis: 2
  }
}
layer {
  name: "lstm1_W_xc_x_slice"
  type: "Slice"
  bottom: "W_xc_x"
  top: "W_xc_x_1"
  slice_param {
    axis: 0
  }
}
layer {
  name: "lstm1_h_conted_0"
  type: "Scale"
  bottom: "h_0"
  bottom: "cont_1"
  top: "h_conted_0"
  scale_param {
    axis: 0
  }
}
layer {
  name: "lstm1_transform_1"
  type: "InnerProduct"
  bottom: "h_conted_0"
  top: "W_hc_h_0"
  param {
    name: "W_hc"
  }
  inner_product_param {
    num_output: 4000
    bias_term: false
    weight_filler {
      type: "uniform"
      min: -0.08
      max: 0.08
    }
    axis: 2
  }
}
layer {
  name: "lstm1_gate_input_1"
  type: "Eltwise"
  bottom: "W_hc_h_0"
  bottom: "W_xc_x_1"
  top: "gate_input_1"
  eltwise_param {
    operation: SUM
  }
}
layer {
  name: "lstm1_unit_1"
  type: "LSTMUnit"
  bottom: "c_0"
  bottom: "gate_input_1"
  bottom: "cont_1"
  top: "c_1"
  top: "h_1"
}
layer {
  name: "lstm1_"
  type: "Split"
  bottom: "c_1"
  top: "c_T"
}
layer {
  name: "lstm1_h_concat"
  type: "Concat"
  bottom: "h_1"
  top: "h"
  concat_param {
    axis: 0
  }
}
layer {
  name: "h_pseudoloss"
  type: "Reduction"
  bottom: "h"
  top: "h_pseudoloss"
  loss_weight: 1
}
I0925 22:11:39.466668 21442 layer_factory.hpp:77] Creating layer lstm1_
I0925 22:11:39.466683 21442 net.cpp:91] Creating Layer lstm1_
I0925 22:11:39.466691 21442 net.cpp:399] lstm1_ -> x
I0925 22:11:39.466704 21442 net.cpp:399] lstm1_ -> cont
I0925 22:11:39.466908 21442 net.cpp:141] Setting up lstm1_
I0925 22:11:39.466928 21442 net.cpp:148] Top shape: 1 1 500 (500)
I0925 22:11:39.466940 21442 net.cpp:148] Top shape: 1 1 (1)
I0925 22:11:39.466948 21442 net.cpp:156] Memory required for data: 2004
I0925 22:11:39.466958 21442 layer_factory.hpp:77] Creating layer lstm1_
I0925 22:11:39.466979 21442 net.cpp:91] Creating Layer lstm1_
I0925 22:11:39.466995 21442 net.cpp:399] lstm1_ -> c_0
I0925 22:11:39.467018 21442 net.cpp:399] lstm1_ -> h_0
I0925 22:11:39.469580 21472 net.cpp:141] Setting up lstm1_h_conted_0
I0925 22:11:39.469602 21472 net.cpp:148] Top shape: 1 1 1000 (1000)
I0925 22:11:39.469611 21472 net.cpp:156] Memory required for data: 46016
I0925 22:11:39.469620 21472 layer_factory.hpp:77] Creating layer lstm1_transform_1
I0925 22:11:39.469645 21472 net.cpp:91] Creating Layer lstm1_transform_1
I0925 22:11:39.469650 21442 net.cpp:141] Setting up lstm1_
I0925 22:11:39.469658 21472 net.cpp:425] lstm1_transform_1 <- h_conted_0
I0925 22:11:39.469666 21442 net.cpp:148] Top shape: 1 1 1000 (1000)
I0925 22:11:39.469673 21472 net.cpp:399] lstm1_transform_1 -> W_hc_h_0
I0925 22:11:39.469676 21442 net.cpp:148] Top shape: 1 1 1000 (1000)
I0925 22:11:39.469684 21442 net.cpp:156] Memory required for data: 10004
I0925 22:11:39.469692 21442 layer_factory.hpp:77] Creating layer lstm1_cont_slice
I0925 22:11:39.469707 21442 net.cpp:91] Creating Layer lstm1_cont_slice
I0925 22:11:39.469720 21442 net.cpp:425] lstm1_cont_slice <- cont
I0925 22:11:39.469729 21442 net.cpp:399] lstm1_cont_slice -> cont_1
I0925 22:11:39.474350 21442 net.cpp:141] Setting up lstm1_cont_slice
I0925 22:11:39.474381 21442 net.cpp:148] Top shape: 1 1 (1)
I0925 22:11:39.474387 21442 net.cpp:156] Memory required for data: 10008
I0925 22:11:39.474393 21442 layer_factory.hpp:77] Creating layer cont_1_lstm1_cont_slice_0_split
I0925 22:11:39.474401 21448 net.cpp:141] Setting up lstm1_transform_1
I0925 22:11:39.474417 21442 net.cpp:91] Creating Layer cont_1_lstm1_cont_slice_0_split
I0925 22:11:39.474429 21442 net.cpp:425] cont_1_lstm1_cont_slice_0_split <- cont_1
I0925 22:11:39.474432 21448 net.cpp:148] Top shape: 1 1 4000 (4000)
I0925 22:11:39.474442 21448 net.cpp:156] Memory required for data: 62016
I0925 22:11:39.474449 21442 net.cpp:399] cont_1_lstm1_cont_slice_0_split -> cont_1_lstm1_cont_slice_0_split_0
I0925 22:11:39.474463 21448 layer_factory.hpp:77] Creating layer lstm1_gate_input_1
I0925 22:11:39.474469 21442 net.cpp:399] cont_1_lstm1_cont_slice_0_split -> cont_1_lstm1_cont_slice_0_split_1
I0925 22:11:39.474491 21448 net.cpp:91] Creating Layer lstm1_gate_input_1
I0925 22:11:39.474534 21448 net.cpp:425] lstm1_gate_input_1 <- W_hc_h_0
I0925 22:11:39.474544 21448 net.cpp:425] lstm1_gate_input_1 <- W_xc_x_1
I0925 22:11:39.474552 21448 net.cpp:399] lstm1_gate_input_1 -> gate_input_1
I0925 22:11:39.482982 21448 net.cpp:141] Setting up lstm1_gate_input_1
I0925 22:11:39.483037 21448 net.cpp:148] Top shape: 1 1 4000 (4000)
I0925 22:11:39.483044 21448 net.cpp:156] Memory required for data: 78016
I0925 22:11:39.483054 21448 layer_factory.hpp:77] Creating layer lstm1_unit_1
I0925 22:11:39.483098 21448 net.cpp:91] Creating Layer lstm1_unit_1
I0925 22:11:39.483091 21442 net.cpp:141] Setting up cont_1_lstm1_cont_slice_0_split
I0925 22:11:39.483135 21448 net.cpp:425] lstm1_unit_1 <- c_0
I0925 22:11:39.483176 21448 net.cpp:425] lstm1_unit_1 <- gate_input_1
I0925 22:11:39.483175 21442 net.cpp:148] Top shape: 1 1 (1)
I0925 22:11:39.483208 21448 net.cpp:425] lstm1_unit_1 <- cont_1_lstm1_cont_slice_0_split_1
I0925 22:11:39.483243 21442 net.cpp:148] Top shape: 1 1 (1)
I0925 22:11:39.483245 21448 net.cpp:399] lstm1_unit_1 -> c_1
I0925 22:11:39.483271 21442 net.cpp:156] Memory required for data: 10016
I0925 22:11:39.483289 21448 net.cpp:399] lstm1_unit_1 -> h_1
I0925 22:11:39.483290 21442 layer_factory.hpp:77] Creating layer lstm1_x_transform
I0925 22:11:39.483335 21442 net.cpp:91] Creating Layer lstm1_x_transform
I0925 22:11:39.483355 21442 net.cpp:425] lstm1_x_transform <- x
I0925 22:11:39.483386 21442 net.cpp:399] lstm1_x_transform -> W_xc_x
I0925 22:11:39.483688 21448 net.cpp:141] Setting up lstm1_unit_1
I0925 22:11:39.483705 21448 net.cpp:148] Top shape: 1 1 1000 (1000)
I0925 22:11:39.483713 21448 net.cpp:148] Top shape: 1 1 1000 (1000)
I0925 22:11:39.483718 21448 net.cpp:156] Memory required for data: 86016
I0925 22:11:39.483724 21448 layer_factory.hpp:77] Creating layer lstm1_
I0925 22:11:39.483734 21448 net.cpp:91] Creating Layer lstm1_
I0925 22:11:39.483739 21448 net.cpp:425] lstm1_ <- c_1
I0925 22:11:39.483749 21448 net.cpp:399] lstm1_ -> c_T
I0925 22:11:39.494436 21448 net.cpp:141] Setting up lstm1_
I0925 22:11:39.494490 21448 net.cpp:148] Top shape: 1 1 1000 (1000)
I0925 22:11:39.494499 21448 net.cpp:156] Memory required for data: 90016
I0925 22:11:39.494501 21440 net.cpp:141] Setting up lstm1_transform_1
I0925 22:11:39.494511 21448 layer_factory.hpp:77] Creating layer lstm1_h_concat
I0925 22:11:39.494540 21440 net.cpp:148] Top shape: 1 1 4000 (4000)
I0925 22:11:39.494555 21440 net.cpp:156] Memory required for data: 62016
I0925 22:11:39.494557 21448 net.cpp:91] Creating Layer lstm1_h_concat
I0925 22:11:39.494570 21448 net.cpp:425] lstm1_h_concat <- h_1
I0925 22:11:39.494585 21448 net.cpp:399] lstm1_h_concat -> h
I0925 22:11:39.494586 21440 layer_factory.hpp:77] Creating layer lstm1_gate_input_1
I0925 22:11:39.494629 21440 net.cpp:91] Creating Layer lstm1_gate_input_1
I0925 22:11:39.494644 21440 net.cpp:425] lstm1_gate_input_1 <- W_hc_h_0
I0925 22:11:39.494657 21440 net.cpp:425] lstm1_gate_input_1 <- W_xc_x_1
I0925 22:11:39.494673 21440 net.cpp:399] lstm1_gate_input_1 -> gate_input_1
I0925 22:11:39.497493 21440 net.cpp:141] Setting up lstm1_gate_input_1
I0925 22:11:39.497530 21440 net.cpp:148] Top shape: 1 1 4000 (4000)
I0925 22:11:39.497536 21440 net.cpp:156] Memory required for data: 78016
I0925 22:11:39.497544 21440 layer_factory.hpp:77] Creating layer lstm1_unit_1
I0925 22:11:39.497546 21448 net.cpp:141] Setting up lstm1_h_concat
I0925 22:11:39.497558 21440 net.cpp:91] Creating Layer lstm1_unit_1
I0925 22:11:39.497586 21440 net.cpp:425] lstm1_unit_1 <- c_0
I0925 22:11:39.497587 21448 net.cpp:148] Top shape: 1 1 1000 (1000)
I0925 22:11:39.497596 21440 net.cpp:425] lstm1_unit_1 <- gate_input_1
I0925 22:11:39.497601 21448 net.cpp:156] Memory required for data: 94016
I0925 22:11:39.497602 21440 net.cpp:425] lstm1_unit_1 <- cont_1_lstm1_cont_slice_0_split_1
I0925 22:11:39.497620 21448 layer_factory.hpp:77] Creating layer h_pseudoloss
I0925 22:11:39.497627 21440 net.cpp:399] lstm1_unit_1 -> c_1
I0925 22:11:39.497642 21440 net.cpp:399] lstm1_unit_1 -> h_1
I0925 22:11:39.497650 21448 net.cpp:91] Creating Layer h_pseudoloss
I0925 22:11:39.497665 21448 net.cpp:425] h_pseudoloss <- h
I0925 22:11:39.497689 21448 net.cpp:399] h_pseudoloss -> h_pseudoloss
I0925 22:11:39.503052 21440 net.cpp:141] Setting up lstm1_unit_1
I0925 22:11:39.503093 21448 net.cpp:141] Setting up h_pseudoloss
I0925 22:11:39.503096 21440 net.cpp:148] Top shape: 1 1 1000 (1000)
I0925 22:11:39.503123 21448 net.cpp:148] Top shape: (1)
I0925 22:11:39.503132 21440 net.cpp:148] Top shape: 1 1 1000 (1000)
I0925 22:11:39.503144 21440 net.cpp:156] Memory required for data: 86016
I0925 22:11:39.503155 21440 layer_factory.hpp:77] Creating layer lstm1_
I0925 22:11:39.503177 21440 net.cpp:91] Creating Layer lstm1_
I0925 22:11:39.503190 21440 net.cpp:425] lstm1_ <- c_1
I0925 22:11:39.503208 21440 net.cpp:399] lstm1_ -> c_T
I0925 22:11:39.503134 21448 net.cpp:151]     with loss weight 1
I0925 22:11:39.503240 21448 net.cpp:156] Memory required for data: 94020
I0925 22:11:39.503252 21448 net.cpp:217] h_pseudoloss needs backward computation.
I0925 22:11:39.503263 21448 net.cpp:217] lstm1_h_concat needs backward computation.
I0925 22:11:39.503271 21448 net.cpp:219] lstm1_ does not need backward computation.
I0925 22:11:39.503278 21448 net.cpp:217] lstm1_unit_1 needs backward computation.
I0925 22:11:39.503278 21440 net.cpp:141] Setting up lstm1_
I0925 22:11:39.503284 21448 net.cpp:217] lstm1_gate_input_1 needs backward computation.
I0925 22:11:39.503320 21440 net.cpp:148] Top shape: 1 1 1000 (1000)
I0925 22:11:39.503326 21448 net.cpp:217] lstm1_transform_1 needs backward computation.
I0925 22:11:39.503331 21440 net.cpp:156] Memory required for data: 90016
I0925 22:11:39.503340 21448 net.cpp:219] lstm1_h_conted_0 does not need backward computation.
I0925 22:11:39.503341 21440 layer_factory.hpp:77] Creating layer lstm1_h_concat
I0925 22:11:39.503371 21448 net.cpp:217] lstm1_W_xc_x_slice needs backward computation.
I0925 22:11:39.503378 21448 net.cpp:217] lstm1_x_transform needs backward computation.
I0925 22:11:39.503386 21448 net.cpp:219] cont_1_lstm1_cont_slice_0_split does not need backward computation.
I0925 22:11:39.503381 21440 net.cpp:91] Creating Layer lstm1_h_concat
I0925 22:11:39.503391 21448 net.cpp:219] lstm1_cont_slice does not need backward computation.
I0925 22:11:39.503407 21440 net.cpp:425] lstm1_h_concat <- h_1
I0925 22:11:39.503417 21448 net.cpp:219] lstm1_ does not need backward computation.
I0925 22:11:39.503425 21448 net.cpp:219] lstm1_ does not need backward computation.
I0925 22:11:39.503425 21440 net.cpp:399] lstm1_h_concat -> h
I0925 22:11:39.503430 21448 net.cpp:261] This network produces output c_T
I0925 22:11:39.503453 21448 net.cpp:261] This network produces output h_pseudoloss
I0925 22:11:39.503485 21448 net.cpp:274] Network initialization done.
I0925 22:11:39.503509 21440 net.cpp:141] Setting up lstm1_h_concat
I0925 22:11:39.503530 21440 net.cpp:148] Top shape: 1 1 1000 (1000)
I0925 22:11:39.503540 21440 net.cpp:156] Memory required for data: 94016
I0925 22:11:39.503551 21440 layer_factory.hpp:77] Creating layer h_pseudoloss
I0925 22:11:39.503546 21438 net.cpp:141] Setting up embedding
I0925 22:11:39.503571 21448 recurrent_layer.cpp:150] Adding parameter 0: W_xc
I0925 22:11:39.503587 21440 net.cpp:91] Creating Layer h_pseudoloss
I0925 22:11:39.503585 21438 net.cpp:148] Top shape: 1 1 500 (500)
I0925 22:11:39.503585 21448 recurrent_layer.cpp:150] Adding parameter 1: b_c
I0925 22:11:39.503602 21440 net.cpp:425] h_pseudoloss <- h
I0925 22:11:39.503608 21448 recurrent_layer.cpp:150] Adding parameter 2: W_hc
I0925 22:11:39.503603 21438 net.cpp:156] Memory required for data: 22408
I0925 22:11:39.503628 21440 net.cpp:399] h_pseudoloss -> h_pseudoloss
I0925 22:11:39.503638 21438 layer_factory.hpp:77] Creating layer lstm1
I0925 22:11:39.503655 21438 net.cpp:91] Creating Layer lstm1
I0925 22:11:39.503664 21438 net.cpp:425] lstm1 <- embedded_input_frames
I0925 22:11:39.503672 21438 net.cpp:425] lstm1 <- cont_sentence_input_1_split_0
I0925 22:11:39.503681 21438 net.cpp:399] lstm1 -> lstm1
I0925 22:11:39.503696 21438 recurrent_layer.cpp:20] Initializing recurrent layer: assuming input batch contains 1 timesteps of 1 independent streams.
I0925 22:11:39.503818 21448 net.cpp:141] Setting up lstm1
I0925 22:11:39.503839 21448 net.cpp:148] Top shape: 1 1 1000 (1000)
I0925 22:11:39.503845 21448 net.cpp:156] Memory required for data: 26408
I0925 22:11:39.503862 21448 layer_factory.hpp:77] Creating layer concat
I0925 22:11:39.503864 21440 net.cpp:141] Setting up h_pseudoloss
I0925 22:11:39.503877 21448 net.cpp:91] Creating Layer concat
I0925 22:11:39.503886 21440 net.cpp:148] Top shape: (1)
I0925 22:11:39.503890 21448 net.cpp:425] concat <- lstm1
I0925 22:11:39.503901 21448 net.cpp:425] concat <- embedded_input_sentence
I0925 22:11:39.503907 21448 net.cpp:425] concat <- reshaped_stage_indicator
I0925 22:11:39.503897 21440 net.cpp:151]     with loss weight 1
I0925 22:11:39.503916 21448 net.cpp:399] concat -> lstm1_video_sequence
I0925 22:11:39.503919 21440 net.cpp:156] Memory required for data: 94020
I0925 22:11:39.503931 21440 net.cpp:217] h_pseudoloss needs backward computation.
I0925 22:11:39.503943 21440 net.cpp:217] lstm1_h_concat needs backward computation.
I0925 22:11:39.503953 21440 net.cpp:219] lstm1_ does not need backward computation.
I0925 22:11:39.503963 21440 net.cpp:217] lstm1_unit_1 needs backward computation.
I0925 22:11:39.503964 21448 net.cpp:141] Setting up concat
I0925 22:11:39.503978 21448 net.cpp:148] Top shape: 1 1 1501 (1501)
I0925 22:11:39.503976 21440 net.cpp:217] lstm1_gate_input_1 needs backward computation.
I0925 22:11:39.503994 21448 net.cpp:156] Memory required for data: 32412
I0925 22:11:39.504003 21440 net.cpp:217] lstm1_transform_1 needs backward computation.
I0925 22:11:39.504005 21448 layer_factory.hpp:77] Creating layer lstm2
I0925 22:11:39.504014 21440 net.cpp:219] lstm1_h_conted_0 does not need backward computation.
I0925 22:11:39.504017 21438 net.cpp:49] Initializing net from parameters: 
layer {
  name: "lstm1_"
  type: "Input"
  top: "x"
  top: "cont"
  input_param {
    shape {
      dim: 1
      dim: 1
      dim: 500
    }
    shape {
      dim: 1
      dim: 1
    }
  }
}
layer {
  name: "lstm1_"
  type: "Input"
  top: "c_0"
  top: "h_0"
  input_param {
    shape {
      dim: 1
      dim: 1
      dim: 1000
    }
    shape {
      dim: 1
      dim: 1
      dim: 1000
    }
  }
}
layer {
  name: "lstm1_cont_slice"
  type: "Slice"
  bottom: "cont"
  top: "cont_1"
  slice_param {
    axis: 0
  }
}
layer {
  name: "lstm1_x_transform"
  type: "InnerProduct"
  bottom: "x"
  top: "W_xc_x"
  param {
    name: "W_xc"
  }
  param {
    name: "b_c"
  }
  propagate_down: true
  inner_product_param {
    num_output: 4000
    bias_term: true
    weight_filler {
      type: "uniform"
      min: -0.08
      max: 0.08
    }
    bias_filler {
      type: "constant"
      value: 0
    }
    axis: 2
  }
}
layer {
  name: "lstm1_W_xc_x_slice"
  type: "Slice"
  bottom: "W_xc_x"
  top: "W_xc_x_1"
  slice_param {
    axis: 0
  }
}
layer {
  name: "lstm1_h_conted_0"
  type: "Scale"
  bottom: "h_0"
  bottom: "cont_1"
  top: "h_conted_0"
  scale_param {
    axis: 0
  }
}
layer {
  name: "lstm1_transform_1"
  type: "InnerProduct"
  bottom: "h_conted_0"
  top: "W_hc_h_0"
  param {
    name: "W_hc"
  }
  inner_product_param {
    num_output: 4000
    bias_term: false
    weight_filler {
      type: "uniform"
      min: -0.08
      max: 0.08
    }
    axis: 2
  }
}
layer {
  name: "lstm1_gate_input_1"
  type: "Eltwise"
  bottom: "W_hc_h_0"
  bottom: "W_xc_x_1"
  top: "gate_input_1"
  eltwise_param {
    operation: SUM
  }
}
layer {
  name: "lstm1_unit_1"
  type: "LSTMUnit"
  bottom: "c_0"
  bottom: "gate_input_1"
  bottom: "cont_1"
  top: "c_1"
  top: "h_1"
}
layer {
  name: "lstm1_"
  type: "Split"
  bottom: "c_1"
  top: "c_T"
}
layer {
  name: "lstm1_h_concat"
  type: "Concat"
  bottom: "h_1"
  top: "h"
  concat_param {
    axis: 0
  }
}
layer {
  name: "h_pseudoloss"
  type: "Reduction"
  bottom: "h"
  top: "h_pseudoloss"
  loss_weight: 1
}
I0925 22:11:39.504024 21448 net.cpp:91] Creating Layer lstm2
I0925 22:11:39.504025 21440 net.cpp:217] lstm1_W_xc_x_slice needs backward computation.
I0925 22:11:39.504048 21448 net.cpp:425] lstm2 <- lstm1_video_sequence
I0925 22:11:39.504057 21440 net.cpp:217] lstm1_x_transform needs backward computation.
I0925 22:11:39.504060 21448 net.cpp:425] lstm2 <- cont_sentence_input_1_split_1
…
I0925 22:11:39.504138 21438 layer_factory.hpp:77] Creating layer lstm1_
I0925 22:11:39.504150 21440 net.cpp:274] Network initialization done.
I0925 22:11:39.504153 21438 net.cpp:91] Creating Layer lstm1_
I0925 22:11:39.504180 21438 net.cpp:399] lstm1_ -> x
I0925 22:11:39.504194 21438 net.cpp:399] lstm1_ -> cont
I0925 22:11:39.504238 21440 recurrent_layer.cpp:150] Adding parameter 0: W_xc
I0925 22:11:39.504253 21440 recurrent_layer.cpp:150] Adding parameter 1: b_c
I0925 22:11:39.504256 21438 net.cpp:141] Setting up lstm1_
I0925 22:11:39.504264 21440 recurrent_layer.cpp:150] Adding parameter 2: W_hc
I0925 22:11:39.504267 21438 net.cpp:148] Top shape: 1 1 500 (500)
I0925 22:11:39.504276 21438 net.cpp:148] Top shape: 1 1 (1)
I0925 22:11:39.504281 21438 net.cpp:156] Memory required for data: 2004
I0925 22:11:39.504287 21438 layer_factory.hpp:77] Creating layer lstm1_
I0925 22:11:39.504295 21438 net.cpp:91] Creating Layer lstm1_
I0925 22:11:39.504312 21438 net.cpp:399] lstm1_ -> c_0
I0925 22:11:39.504324 21438 net.cpp:399] lstm1_ -> h_0
I0925 22:11:39.504356 21448 net.cpp:49] Initializing net from parameters: 
layer {
  name: "lstm2_"
  type: "Input"
  top: "x"
  top: "cont"
  input_param {
    shape {
      dim: 1
      dim: 1
      dim: 1501
    }
    shape {
      dim: 1
      dim: 1
    }
  }
}
layer {
  name: "lstm2_"
  type: "Input"
  top: "c_0"
  top: "h_0"
  input_param {
    shape {
      dim: 1
      dim: 1
      dim: 1000
    }
    shape {
      dim: 1
      dim: 1
      dim: 1000
    }
  }
}
layer {
  name: "lstm2_cont_slice"
  type: "Slice"
  bottom: "cont"
  top: "cont_1"
  slice_param {
    axis: 0
  }
}
layer {
  name: "lstm2_x_transform"
  type: "InnerProduct"
  bottom: "x"
  top: "W_xc_x"
  param {
    name: "W_xc"
  }
  param {
    name: "b_c"
  }
  propagate_down: true
  inner_product_param {
    num_output: 4000
    bias_term: true
    weight_filler {
      type: "uniform"
      min: -0.08
      max: 0.08
    }
    bias_filler {
      type: "constant"
      value: 0
    }
    axis: 2
  }
}
layer {
  name: "lstm2_W_xc_x_slice"
  type: "Slice"
  bottom: "W_xc_x"
  top: "W_xc_x_1"
  slice_param {
    axis: 0
  }
}
layer {
  name: "lstm2_h_conted_0"
  type: "Scale"
  bottom: "h_0"
  bottom: "cont_1"
  top: "h_conted_0"
  scale_param {
    axis: 0
  }
}
layer {
  name: "lstm2_transform_1"
  type: "InnerProduct"
  bottom: "h_conted_0"
  top: "W_hc_h_0"
  param {
    name: "W_hc"
  }
  inner_product_param {
    num_output: 4000
    bias_term: false
    weight_filler {
      type: "uniform"
      min: -0.08
      max: 0.08
    }
    axis: 2
  }
}
layer {
  name: "lstm2_gate_input_1"
  type: "Eltwise"
  bottom: "W_hc_h_0"
  bottom: "W_xc_x_1"
  top: "gate_input_1"
  eltwise_param {
    operation: SUM
  }
}
layer {
  name: "lstm2_unit_1"
  type: "LSTMUnit"
  bottom: "c_0"
  bottom: "gate_input_1"
  bottom: "cont_1"
  top: "c_1"
  top: "h_1"
}
layer {
  name: "lstm2_"
  type: "Split"
  bottom: "c_1"
  top: "c_T"
}
layer {
  name: "lstm2_h_concat"
  type: "Concat"
  bottom: "h_1"
  top: "h"
  concat_param {
    axis: 0
  }
}
layer {
  name: "h_pseudoloss"
  type: "Reduction"
  bottom: "h"
  top: "h_pseudoloss"
  loss_weight: 1
}
I0925 22:11:39.504429 21438 net.cpp:141] Setting up lstm1_
I0925 22:11:39.504442 21438 net.cpp:148] Top shape: 1 1 1000 (1000)
I0925 22:11:39.504449 21438 net.cpp:148] Top shape: 1 1 1000 (1000)
I0925 22:11:39.504454 21438 net.cpp:156] Memory required for data: 10004
I0925 22:11:39.504459 21438 layer_factory.hpp:77] Creating layer lstm1_cont_slice
I0925 22:11:39.504469 21438 net.cpp:91] Creating Layer lstm1_cont_slice
I0925 22:11:39.504475 21438 net.cpp:425] lstm1_cont_slice <- cont
I0925 22:11:39.504472 21440 net.cpp:141] Setting up lstm1
I0925 22:11:39.504487 21438 net.cpp:399] lstm1_cont_slice -> cont_1
I0925 22:11:39.504494 21448 layer_factory.hpp:77] Creating layer lstm2_
I0925 22:11:39.504503 21440 net.cpp:148] Top shape: 1 1 1000 (1000)
I0925 22:11:39.504514 21440 net.cpp:156] Memory required for data: 26408
I0925 22:11:39.504525 21438 net.cpp:141] Setting up lstm1_cont_slice
I0925 22:11:39.504515 21448 net.cpp:91] Creating Layer lstm2_
I0925 22:11:39.504536 21438 net.cpp:148] Top shape: 1 1 (1)
I0925 22:11:39.504541 21438 net.cpp:156] Memory required for data: 10008
I0925 22:11:39.504546 21438 layer_factory.hpp:77] Creating layer cont_1_lstm1_cont_slice_0_split
I0925 22:11:39.504552 21448 net.cpp:399] lstm2_ -> x
I0925 22:11:39.504556 21440 layer_factory.hpp:77] Creating layer concat
I0925 22:11:39.504576 21448 net.cpp:399] lstm2_ -> cont
I0925 22:11:39.504577 21440 net.cpp:91] Creating Layer concat
I0925 22:11:39.504575 21438 net.cpp:91] Creating Layer cont_1_lstm1_cont_slice_0_split
I0925 22:11:39.504597 21438 net.cpp:425] cont_1_lstm1_cont_slice_0_split <- cont_1
I0925 22:11:39.504612 21438 net.cpp:399] cont_1_lstm1_cont_slice_0_split -> cont_1_lstm1_cont_slice_0_split_0
I0925 22:11:39.504623 21438 net.cpp:399] cont_1_lstm1_cont_slice_0_split -> cont_1_lstm1_cont_slice_0_split_1
I0925 22:11:39.504621 21440 net.cpp:425] concat <- lstm1
I0925 22:11:39.504638 21440 net.cpp:425] concat <- embedded_input_sentence
I0925 22:11:39.504652 21440 net.cpp:425] concat <- reshaped_stage_indicator
I0925 22:11:39.504669 21440 net.cpp:399] concat -> lstm1_video_sequence
I0925 22:11:39.504701 21438 net.cpp:141] Setting up cont_1_lstm1_cont_slice_0_split
I0925 22:11:39.504714 21438 net.cpp:148] Top shape: 1 1 (1)
I0925 22:11:39.504719 21438 net.cpp:148] Top shape: 1 1 (1)
I0925 22:11:39.504724 21438 net.cpp:156] Memory required for data: 10016
I0925 22:11:39.504722 21448 net.cpp:141] Setting up lstm2_
I0925 22:11:39.504730 21438 layer_factory.hpp:77] Creating layer lstm1_x_transform
I0925 22:11:39.504748 21448 net.cpp:148] Top shape: 1 1 1501 (1501)
I0925 22:11:39.504750 21438 net.cpp:91] Creating Layer lstm1_x_transform
I0925 22:11:39.504761 21448 net.cpp:148] Top shape: 1 1 (1)
I0925 22:11:39.504763 21438 net.cpp:425] lstm1_x_transform <- x
I0925 22:11:39.504767 21448 net.cpp:156] Memory required for data: 6008
I0925 22:11:39.504768 21440 net.cpp:141] Setting up concat
I0925 22:11:39.504773 21438 net.cpp:399] lstm1_x_transform -> W_xc_x
I0925 22:11:39.504773 21448 layer_factory.hpp:77] Creating layer lstm2_
I0925 22:11:39.504796 21440 net.cpp:148] Top shape: 1 1 1501 (1501)
I0925 22:11:39.504808 21440 net.cpp:156] Memory required for data: 32412
I0925 22:11:39.504811 21448 net.cpp:91] Creating Layer lstm2_
I0925 22:11:39.504820 21440 layer_factory.hpp:77] Creating layer lstm2
I0925 22:11:39.504825 21448 net.cpp:399] lstm2_ -> c_0
I0925 22:11:39.504838 21448 net.cpp:399] lstm2_ -> h_0
I0925 22:11:39.504844 21440 net.cpp:91] Creating Layer lstm2
I0925 22:11:39.504858 21440 net.cpp:425] lstm2 <- lstm1_video_sequence
I0925 22:11:39.504871 21440 net.cpp:425] lstm2 <- cont_sentence_input_1_split_1
I0925 22:11:39.504889 21440 net.cpp:399] lstm2 -> lstm2
I0925 22:11:39.504910 21440 recurrent_layer.cpp:20] Initializing recurrent layer: assuming input batch contains 1 timesteps of 1 independent streams.
I0925 22:11:39.505293 21440 net.cpp:49] Initializing net from parameters: 
layer {
  name: "lstm2_"
  type: "Input"
  top: "x"
  top: "cont"
  input_param {
    shape {
      dim: 1
      dim: 1
      dim: 1501
    }
    shape {
      dim: 1
      dim: 1
    }
  }
}
layer {
  name: "lstm2_"
  type: "Input"
  top: "c_0"
  top: "h_0"
  input_param {
    shape {
      dim: 1
      dim: 1
      dim: 1000
    }
    shape {
      dim: 1
      dim: 1
      dim: 1000
    }
  }
}
layer {
  name: "lstm2_cont_slice"
  type: "Slice"
  bottom: "cont"
  top: "cont_1"
  slice_param {
    axis: 0
  }
}
layer {
  name: "lstm2_x_transform"
  type: "InnerProduct"
  bottom: "x"
  top: "W_xc_x"
  param {
    name: "W_xc"
  }
  param {
    name: "b_c"
  }
  propagate_down: true
  inner_product_param {
    num_output: 4000
    bias_term: true
    weight_filler {
      type: "uniform"
      min: -0.08
      max: 0.08
    }
    bias_filler {
      type: "constant"
      value: 0
    }
    axis: 2
  }
}
layer {
  name: "lstm2_W_xc_x_slice"
  type: "Slice"
  bottom: "W_xc_x"
  top: "W_xc_x_1"
  slice_param {
    axis: 0
  }
}
layer {
  name: "lstm2_h_conted_0"
  type: "Scale"
  bottom: "h_0"
  bottom: "cont_1"
  top: "h_conted_0"
  scale_param {
    axis: 0
  }
}
layer {
  name: "lstm2_transform_1"
  type: "InnerProduct"
  bottom: "h_conted_0"
  top: "W_hc_h_0"
  param {
    name: "W_hc"
  }
  inner_product_param {
    num_output: 4000
    bias_term: false
    weight_filler {
      type: "uniform"
      min: -0.08
      max: 0.08
    }
    axis: 2
  }
}
layer {
  name: "lstm2_gate_input_1"
  type: "Eltwise"
  bottom: "W_hc_h_0"
  bottom: "W_xc_x_1"
  top: "gate_input_1"
  eltwise_param {
    operation: SUM
  }
}
layer {
  name: "lstm2_unit_1"
  type: "LSTMUnit"
  bottom: "c_0"
  bottom: "gate_input_1"
  bottom: "cont_1"
  top: "c_1"
  top: "h_1"
}
layer {
  name: "lstm2_"
  type: "Split"
  bottom: "c_1"
  top: "c_T"
}
layer {
  name: "lstm2_h_concat"
  type: "Concat"
  bottom: "h_1"
  top: "h"
  concat_param {
    axis: 0
  }
}
layer {
  name: "h_pseudoloss"
  type: "Reduction"
  bottom: "h"
  top: "h_pseudoloss"
  loss_weight: 1
}
I0925 22:11:39.505445 21440 layer_factory.hpp:77] Creating layer lstm2_
I0925 22:11:39.505470 21440 net.cpp:91] Creating Layer lstm2_
I0925 22:11:39.505486 21440 net.cpp:399] lstm2_ -> x
I0925 22:11:39.505509 21440 net.cpp:399] lstm2_ -> cont
I0925 22:11:39.509340 21448 net.cpp:141] Setting up lstm2_
I0925 22:11:39.509373 21448 net.cpp:148] Top shape: 1 1 1000 (1000)
I0925 22:11:39.509378 21440 net.cpp:141] Setting up lstm2_
I0925 22:11:39.509387 21448 net.cpp:148] Top shape: 1 1 1000 (1000)
I0925 22:11:39.509407 21448 net.cpp:156] Memory required for data: 14008
I0925 22:11:39.509409 21440 net.cpp:148] Top shape: 1 1 1501 (1501)
I0925 22:11:39.509418 21448 layer_factory.hpp:77] Creating layer lstm2_cont_slice
I0925 22:11:39.509426 21440 net.cpp:148] Top shape: 1 1 (1)
I0925 22:11:39.509436 21440 net.cpp:156] Memory required for data: 6008
I0925 22:11:39.509440 21448 net.cpp:91] Creating Layer lstm2_cont_slice
I0925 22:11:39.509449 21440 layer_factory.hpp:77] Creating layer lstm2_
I0925 22:11:39.509451 21448 net.cpp:425] lstm2_cont_slice <- cont
I0925 22:11:39.509470 21448 net.cpp:399] lstm2_cont_slice -> cont_1
I0925 22:11:39.509472 21440 net.cpp:91] Creating Layer lstm2_
I0925 22:11:39.509496 21440 net.cpp:399] lstm2_ -> c_0
I0925 22:11:39.509523 21440 net.cpp:399] lstm2_ -> h_0
I0925 22:11:39.509538 21448 net.cpp:141] Setting up lstm2_cont_slice
I0925 22:11:39.509557 21448 net.cpp:148] Top shape: 1 1 (1)
I0925 22:11:39.509563 21448 net.cpp:156] Memory required for data: 14012
I0925 22:11:39.509572 21448 layer_factory.hpp:77] Creating layer cont_1_lstm2_cont_slice_0_split
I0925 22:11:39.509593 21448 net.cpp:91] Creating Layer cont_1_lstm2_cont_slice_0_split
I0925 22:11:39.509601 21448 net.cpp:425] cont_1_lstm2_cont_slice_0_split <- cont_1
I0925 22:11:39.509613 21448 net.cpp:399] cont_1_lstm2_cont_slice_0_split -> cont_1_lstm2_cont_slice_0_split_0
I0925 22:11:39.509630 21448 net.cpp:399] cont_1_lstm2_cont_slice_0_split -> cont_1_lstm2_cont_slice_0_split_1
I0925 22:11:39.509632 21440 net.cpp:141] Setting up lstm2_
I0925 22:11:39.509680 21440 net.cpp:148] Top shape: 1 1 1000 (1000)
I0925 22:11:39.509698 21440 net.cpp:148] Top shape: 1 1 1000 (1000)
I0925 22:11:39.509711 21440 net.cpp:156] Memory required for data: 14008
I0925 22:11:39.509721 21440 layer_factory.hpp:77] Creating layer lstm2_cont_slice
I0925 22:11:39.509744 21440 net.cpp:91] Creating Layer lstm2_cont_slice
I0925 22:11:39.509757 21440 net.cpp:425] lstm2_cont_slice <- cont
I0925 22:11:39.509774 21440 net.cpp:399] lstm2_cont_slice -> cont_1
I0925 22:11:39.510176 21448 net.cpp:141] Setting up cont_1_lstm2_cont_slice_0_split
I0925 22:11:39.510195 21448 net.cpp:148] Top shape: 1 1 (1)
I0925 22:11:39.510203 21448 net.cpp:148] Top shape: 1 1 (1)
I0925 22:11:39.510208 21448 net.cpp:156] Memory required for data: 14020
I0925 22:11:39.510213 21448 layer_factory.hpp:77] Creating layer lstm2_x_transform
I0925 22:11:39.510232 21440 net.cpp:141] Setting up lstm2_cont_slice
I0925 22:11:39.510236 21448 net.cpp:91] Creating Layer lstm2_x_transform
I0925 22:11:39.510262 21440 net.cpp:148] Top shape: 1 1 (1)
I0925 22:11:39.510263 21448 net.cpp:425] lstm2_x_transform <- x
I0925 22:11:39.510282 21440 net.cpp:156] Memory required for data: 14012
I0925 22:11:39.510293 21440 layer_factory.hpp:77] Creating layer cont_1_lstm2_cont_slice_0_split
I0925 22:11:39.510294 21448 net.cpp:399] lstm2_x_transform -> W_xc_x
I0925 22:11:39.510311 21440 net.cpp:91] Creating Layer cont_1_lstm2_cont_slice_0_split
I0925 22:11:39.510324 21440 net.cpp:425] cont_1_lstm2_cont_slice_0_split <- cont_1
I0925 22:11:39.510344 21440 net.cpp:399] cont_1_lstm2_cont_slice_0_split -> cont_1_lstm2_cont_slice_0_split_0
I0925 22:11:39.510365 21440 net.cpp:399] cont_1_lstm2_cont_slice_0_split -> cont_1_lstm2_cont_slice_0_split_1
I0925 22:11:39.526811 21440 net.cpp:141] Setting up cont_1_lstm2_cont_slice_0_split
I0925 22:11:39.526873 21440 net.cpp:148] Top shape: 1 1 (1)
I0925 22:11:39.526922 21440 net.cpp:148] Top shape: 1 1 (1)
I0925 22:11:39.526938 21440 net.cpp:156] Memory required for data: 14020
I0925 22:11:39.526953 21440 layer_factory.hpp:77] Creating layer lstm2_x_transform
I0925 22:11:39.526995 21440 net.cpp:91] Creating Layer lstm2_x_transform
I0925 22:11:39.527011 21440 net.cpp:425] lstm2_x_transform <- x
I0925 22:11:39.527035 21440 net.cpp:399] lstm2_x_transform -> W_xc_x
I0925 22:11:39.527128 21442 net.cpp:141] Setting up lstm1_x_transform
I0925 22:11:39.527151 21442 net.cpp:148] Top shape: 1 1 4000 (4000)
I0925 22:11:39.527160 21442 net.cpp:156] Memory required for data: 26016
I0925 22:11:39.527182 21442 layer_factory.hpp:77] Creating layer lstm1_W_xc_x_slice
I0925 22:11:39.527199 21442 net.cpp:91] Creating Layer lstm1_W_xc_x_slice
I0925 22:11:39.527209 21442 net.cpp:425] lstm1_W_xc_x_slice <- W_xc_x
I0925 22:11:39.527222 21442 net.cpp:399] lstm1_W_xc_x_slice -> W_xc_x_1
I0925 22:11:39.550817 21442 net.cpp:141] Setting up lstm1_W_xc_x_slice
I0925 22:11:39.550869 21442 net.cpp:148] Top shape: 1 1 4000 (4000)
I0925 22:11:39.550879 21442 net.cpp:156] Memory required for data: 42016
I0925 22:11:39.550891 21442 layer_factory.hpp:77] Creating layer lstm1_h_conted_0
I0925 22:11:39.550914 21442 net.cpp:91] Creating Layer lstm1_h_conted_0
I0925 22:11:39.551059 21472 net.cpp:141] Setting up lstm1_transform_1
I0925 22:11:39.551074 21472 net.cpp:148] Top shape: 1 1 4000 (4000)
I0925 22:11:39.551079 21472 net.cpp:156] Memory required for data: 62016
I0925 22:11:39.551096 21472 layer_factory.hpp:77] Creating layer lstm1_gate_input_1
I0925 22:11:39.551120 21472 net.cpp:91] Creating Layer lstm1_gate_input_1
I0925 22:11:39.551131 21472 net.cpp:425] lstm1_gate_input_1 <- W_hc_h_0
I0925 22:11:39.551141 21472 net.cpp:425] lstm1_gate_input_1 <- W_xc_x_1
I0925 22:11:39.551151 21472 net.cpp:399] lstm1_gate_input_1 -> gate_input_1
I0925 22:11:39.551182 21442 net.cpp:425] lstm1_h_conted_0 <- h_0
I0925 22:11:39.551192 21442 net.cpp:425] lstm1_h_conted_0 <- cont_1_lstm1_cont_slice_0_split_0
I0925 22:11:39.551199 21442 net.cpp:399] lstm1_h_conted_0 -> h_conted_0
I0925 22:11:39.551291 21472 net.cpp:141] Setting up lstm1_gate_input_1
I0925 22:11:39.551311 21472 net.cpp:148] Top shape: 1 1 4000 (4000)
I0925 22:11:39.551321 21472 net.cpp:156] Memory required for data: 78016
I0925 22:11:39.551327 21472 layer_factory.hpp:77] Creating layer lstm1_unit_1
I0925 22:11:39.551342 21472 net.cpp:91] Creating Layer lstm1_unit_1
I0925 22:11:39.551348 21472 net.cpp:425] lstm1_unit_1 <- c_0
I0925 22:11:39.551355 21472 net.cpp:425] lstm1_unit_1 <- gate_input_1
I0925 22:11:39.551362 21472 net.cpp:425] lstm1_unit_1 <- cont_1_lstm1_cont_slice_0_split_1
I0925 22:11:39.551368 21472 net.cpp:399] lstm1_unit_1 -> c_1
I0925 22:11:39.551365 21438 net.cpp:141] Setting up lstm1_x_transform
I0925 22:11:39.551379 21472 net.cpp:399] lstm1_unit_1 -> h_1
I0925 22:11:39.551393 21438 net.cpp:148] Top shape: 1 1 4000 (4000)
I0925 22:11:39.551404 21438 net.cpp:156] Memory required for data: 26016
I0925 22:11:39.551426 21438 layer_factory.hpp:77] Creating layer lstm1_W_xc_x_slice
I0925 22:11:39.551445 21438 net.cpp:91] Creating Layer lstm1_W_xc_x_slice
I0925 22:11:39.551455 21438 net.cpp:425] lstm1_W_xc_x_slice <- W_xc_x
I0925 22:11:39.551470 21438 net.cpp:399] lstm1_W_xc_x_slice -> W_xc_x_1
I0925 22:11:39.551511 21472 net.cpp:141] Setting up lstm1_unit_1
I0925 22:11:39.551524 21472 net.cpp:148] Top shape: 1 1 1000 (1000)
I0925 22:11:39.551532 21472 net.cpp:148] Top shape: 1 1 1000 (1000)
I0925 22:11:39.551537 21472 net.cpp:156] Memory required for data: 86016
I0925 22:11:39.551542 21472 layer_factory.hpp:77] Creating layer lstm1_
I0925 22:11:39.551551 21472 net.cpp:91] Creating Layer lstm1_
I0925 22:11:39.551558 21472 net.cpp:425] lstm1_ <- c_1
I0925 22:11:39.551565 21472 net.cpp:399] lstm1_ -> c_T
I0925 22:11:39.551594 21438 net.cpp:141] Setting up lstm1_W_xc_x_slice
I0925 22:11:39.551609 21438 net.cpp:148] Top shape: 1 1 4000 (4000)
I0925 22:11:39.551610 21472 net.cpp:141] Setting up lstm1_
I0925 22:11:39.551618 21438 net.cpp:156] Memory required for data: 42016
I0925 22:11:39.551622 21472 net.cpp:148] Top shape: 1 1 1000 (1000)
I0925 22:11:39.551628 21472 net.cpp:156] Memory required for data: 90016
I0925 22:11:39.551630 21438 layer_factory.hpp:77] Creating layer lstm1_h_conted_0
I0925 22:11:39.551633 21472 layer_factory.hpp:77] Creating layer lstm1_h_concat
I0925 22:11:39.551645 21472 net.cpp:91] Creating Layer lstm1_h_concat
I0925 22:11:39.551645 21438 net.cpp:91] Creating Layer lstm1_h_conted_0
I0925 22:11:39.551650 21472 net.cpp:425] lstm1_h_concat <- h_1
I0925 22:11:39.551658 21472 net.cpp:399] lstm1_h_concat -> h
I0925 22:11:39.551656 21438 net.cpp:425] lstm1_h_conted_0 <- h_0
I0925 22:11:39.551667 21442 net.cpp:141] Setting up lstm1_h_conted_0
I0925 22:11:39.551686 21438 net.cpp:425] lstm1_h_conted_0 <- cont_1_lstm1_cont_slice_0_split_0
I0925 22:11:39.551692 21442 net.cpp:148] Top shape: 1 1 1000 (1000)
I0925 22:11:39.551702 21442 net.cpp:156] Memory required for data: 46016
I0925 22:11:39.551702 21438 net.cpp:399] lstm1_h_conted_0 -> h_conted_0
I0925 22:11:39.551717 21442 layer_factory.hpp:77] Creating layer lstm1_transform_1
I0925 22:11:39.551736 21442 net.cpp:91] Creating Layer lstm1_transform_1
I0925 22:11:39.551746 21442 net.cpp:425] lstm1_transform_1 <- h_conted_0
I0925 22:11:39.551759 21442 net.cpp:399] lstm1_transform_1 -> W_hc_h_0
I0925 22:11:39.552044 21472 net.cpp:141] Setting up lstm1_h_concat
I0925 22:11:39.552057 21472 net.cpp:148] Top shape: 1 1 1000 (1000)
I0925 22:11:39.552062 21472 net.cpp:156] Memory required for data: 94016
I0925 22:11:39.552067 21472 layer_factory.hpp:77] Creating layer h_pseudoloss
I0925 22:11:39.552078 21472 net.cpp:91] Creating Layer h_pseudoloss
I0925 22:11:39.552083 21472 net.cpp:425] h_pseudoloss <- h
I0925 22:11:39.552090 21472 net.cpp:399] h_pseudoloss -> h_pseudoloss
I0925 22:11:39.570098 21466 net.cpp:141] Setting up embedding
I0925 22:11:39.570171 21466 net.cpp:148] Top shape: 1 1 500 (500)
I0925 22:11:39.570188 21466 net.cpp:156] Memory required for data: 22408
I0925 22:11:39.570219 21466 layer_factory.hpp:77] Creating layer lstm1
I0925 22:11:39.570250 21466 net.cpp:91] Creating Layer lstm1
I0925 22:11:39.570267 21466 net.cpp:425] lstm1 <- embedded_input_frames
I0925 22:11:39.570284 21466 net.cpp:425] lstm1 <- cont_sentence_input_1_split_0
I0925 22:11:39.570303 21466 net.cpp:399] lstm1 -> lstm1
I0925 22:11:39.570333 21466 recurrent_layer.cpp:20] Initializing recurrent layer: assuming input batch contains 1 timesteps of 1 independent streams.
I0925 22:11:39.570757 21438 net.cpp:141] Setting up lstm1_h_conted_0
I0925 22:11:39.570778 21438 net.cpp:148] Top shape: 1 1 1000 (1000)
I0925 22:11:39.570790 21438 net.cpp:156] Memory required for data: 46016
I0925 22:11:39.570799 21438 layer_factory.hpp:77] Creating layer lstm1_transform_1
I0925 22:11:39.570806 21472 net.cpp:141] Setting up h_pseudoloss
I0925 22:11:39.570821 21438 net.cpp:91] Creating Layer lstm1_transform_1
I0925 22:11:39.570819 21466 net.cpp:49] Initializing net from parameters: 
layer {
  name: "lstm1_"
  type: "Input"
  top: "x"
  top: "cont"
  input_param {
    shape {
      dim: 1
      dim: 1
      dim: 500
    }
    shape {
      dim: 1
      dim: 1
    }
  }
}
layer {
  name: "lstm1_"
  type: "Input"
  top: "c_0"
  top: "h_0"
  input_param {
    shape {
      dim: 1
      dim: 1
      dim: 1000
    }
    shape {
      dim: 1
      dim: 1
      dim: 1000
    }
  }
}
layer {
  name: "lstm1_cont_slice"
  type: "Slice"
  bottom: "cont"
  top: "cont_1"
  slice_param {
    axis: 0
  }
}
layer {
  name: "lstm1_x_transform"
  type: "InnerProduct"
  bottom: "x"
  top: "W_xc_x"
  param {
    name: "W_xc"
  }
  param {
    name: "b_c"
  }
  propagate_down: true
  inner_product_param {
    num_output: 4000
    bias_term: true
    weight_filler {
      type: "uniform"
      min: -0.08
      max: 0.08
    }
    bias_filler {
      type: "constant"
      value: 0
    }
    axis: 2
  }
}
layer {
  name: "lstm1_W_xc_x_slice"
  type: "Slice"
  bottom: "W_xc_x"
  top: "W_xc_x_1"
  slice_param {
    axis: 0
  }
}
layer {
  name: "lstm1_h_conted_0"
  type: "Scale"
  bottom: "h_0"
  bottom: "cont_1"
  top: "h_conted_0"
  scale_param {
    axis: 0
  }
}
layer {
  name: "lstm1_transform_1"
  type: "InnerProduct"
  bottom: "h_conted_0"
  top: "W_hc_h_0"
  param {
    name: "W_hc"
  }
  inner_product_param {
    num_output: 4000
    bias_term: false
    weight_filler {
      type: "uniform"
      min: -0.08
      max: 0.08
    }
    axis: 2
  }
}
layer {
  name: "lstm1_gate_input_1"
  type: "Eltwise"
  bottom: "W_hc_h_0"
  bottom: "W_xc_x_1"
  top: "gate_input_1"
  eltwise_param {
    operation: SUM
  }
}
layer {
  name: "lstm1_unit_1"
  type: "LSTMUnit"
  bottom: "c_0"
  bottom: "gate_input_1"
  bottom: "cont_1"
  top: "c_1"
  top: "h_1"
}
layer {
  name: "lstm1_"
  type: "Split"
  bottom: "c_1"
  top: "c_T"
}
layer {
  name: "lstm1_h_concat"
  type: "Concat"
  bottom: "h_1"
  top: "h"
  concat_param {
    axis: 0
  }
}
layer {
  name: "h_pseudoloss"
  type: "Reduction"
  bottom: "h"
  top: "h_pseudoloss"
  loss_weight: 1
}
I0925 22:11:39.570833 21438 net.cpp:425] lstm1_transform_1 <- h_conted_0
I0925 22:11:39.570830 21472 net.cpp:148] Top shape: (1)
I0925 22:11:39.570852 21438 net.cpp:399] lstm1_transform_1 -> W_hc_h_0
I0925 22:11:39.570861 21472 net.cpp:151]     with loss weight 1
I0925 22:11:39.570884 21472 net.cpp:156] Memory required for data: 94020
I0925 22:11:39.570894 21472 net.cpp:217] h_pseudoloss needs backward computation.
…
I0925 22:11:39.571123 21472 net.cpp:219] lstm1_ does not need backward computation.
I0925 22:11:39.571131 21472 net.cpp:261] This network produces output c_T
I0925 22:11:39.571141 21472 net.cpp:261] This network produces output h_pseudoloss
I0925 22:11:39.571169 21472 net.cpp:274] Network initialization done.
I0925 22:11:39.571244 21472 recurrent_layer.cpp:150] Adding parameter 0: W_xc
I0925 22:11:39.571255 21472 recurrent_layer.cpp:150] Adding parameter 1: b_c
I0925 22:11:39.571264 21472 recurrent_layer.cpp:150] Adding parameter 2: W_hc
I0925 22:11:39.597352 21466 net.cpp:141] Setting up lstm1_
I0925 22:11:39.597406 21466 net.cpp:148] Top shape: 1 1 500 (500)
I0925 22:11:39.597422 21466 net.cpp:148] Top shape: 1 1 (1)
I0925 22:11:39.597431 21466 net.cpp:156] Memory required for data: 2004
I0925 22:11:39.597445 21466 layer_factory.hpp:77] Creating layer lstm1_
I0925 22:11:39.597462 21472 net.cpp:141] Setting up lstm1
I0925 22:11:39.597470 21466 net.cpp:91] Creating Layer lstm1_
I0925 22:11:39.597496 21472 net.cpp:148] Top shape: 1 1 1000 (1000)
I0925 22:11:39.597503 21466 net.cpp:399] lstm1_ -> c_0
I0925 22:11:39.597506 21472 net.cpp:156] Memory required for data: 26408
I0925 22:11:39.597530 21466 net.cpp:399] lstm1_ -> h_0
I0925 22:11:39.597537 21472 layer_factory.hpp:77] Creating layer concat
I0925 22:11:39.597555 21448 net.cpp:141] Setting up lstm2_x_transform
I0925 22:11:39.597573 21472 net.cpp:91] Creating Layer concat
I0925 22:11:39.597581 21448 net.cpp:148] Top shape: 1 1 4000 (4000)
I0925 22:11:39.597586 21472 net.cpp:425] concat <- lstm1
I0925 22:11:39.597591 21448 net.cpp:156] Memory required for data: 30020
I0925 22:11:39.597599 21472 net.cpp:425] concat <- embedded_input_sentence
I0925 22:11:39.597610 21472 net.cpp:425] concat <- reshaped_stage_indicator
I0925 22:11:39.597614 21448 layer_factory.hpp:77] Creating layer lstm2_W_xc_x_slice
I0925 22:11:39.597623 21472 net.cpp:399] concat -> lstm1_video_sequence
I0925 22:11:39.597632 21448 net.cpp:91] Creating Layer lstm2_W_xc_x_slice
I0925 22:11:39.597643 21448 net.cpp:425] lstm2_W_xc_x_slice <- W_xc_x
I0925 22:11:39.597656 21448 net.cpp:399] lstm2_W_xc_x_slice -> W_xc_x_1
I0925 22:11:39.597688 21472 net.cpp:141] Setting up concat
I0925 22:11:39.597707 21472 net.cpp:148] Top shape: 1 1 1501 (1501)
I0925 22:11:39.597714 21472 net.cpp:156] Memory required for data: 32412
I0925 22:11:39.597724 21472 layer_factory.hpp:77] Creating layer lstm2
I0925 22:11:39.597733 21448 net.cpp:141] Setting up lstm2_W_xc_x_slice
I0925 22:11:39.597748 21472 net.cpp:91] Creating Layer lstm2
I0925 22:11:39.597751 21448 net.cpp:148] Top shape: 1 1 4000 (4000)
I0925 22:11:39.597759 21472 net.cpp:425] lstm2 <- lstm1_video_sequence
I0925 22:11:39.597760 21448 net.cpp:156] Memory required for data: 46020
I0925 22:11:39.597785 21472 net.cpp:425] lstm2 <- cont_sentence_input_1_split_1
I0925 22:11:39.597789 21448 layer_factory.hpp:77] Creating layer lstm2_h_conted_0
I0925 22:11:39.597796 21466 net.cpp:141] Setting up lstm1_
I0925 22:11:39.597805 21448 net.cpp:91] Creating Layer lstm2_h_conted_0
I0925 22:11:39.597816 21448 net.cpp:425] lstm2_h_conted_0 <- h_0
I0925 22:11:39.597802 21472 net.cpp:399] lstm2 -> lstm2
I0925 22:11:39.597828 21448 net.cpp:425] lstm2_h_conted_0 <- cont_1_lstm2_cont_slice_0_split_0
I0925 22:11:39.597831 21466 net.cpp:148] Top shape: 1 1 1000 (1000)
I0925 22:11:39.597839 21472 recurrent_layer.cpp:20] Initializing recurrent layer: assuming input batch contains 1 timesteps of 1 independent streams.
I0925 22:11:39.597844 21466 net.cpp:148] Top shape: 1 1 1000 (1000)
I0925 22:11:39.597854 21466 net.cpp:156] Memory required for data: 10004
I0925 22:11:39.597842 21448 net.cpp:399] lstm2_h_conted_0 -> h_conted_0
I0925 22:11:39.597864 21466 layer_factory.hpp:77] Creating layer lstm1_cont_slice
I0925 22:11:39.597901 21466 net.cpp:91] Creating Layer lstm1_cont_slice
I0925 22:11:39.597914 21466 net.cpp:425] lstm1_cont_slice <- cont
I0925 22:11:39.597929 21466 net.cpp:399] lstm1_cont_slice -> cont_1
I0925 22:11:39.598006 21466 net.cpp:141] Setting up lstm1_cont_slice
I0925 22:11:39.598026 21466 net.cpp:148] Top shape: 1 1 (1)
I0925 22:11:39.598034 21466 net.cpp:156] Memory required for data: 10008
I0925 22:11:39.598045 21466 layer_factory.hpp:77] Creating layer cont_1_lstm1_cont_slice_0_split
I0925 22:11:39.598059 21466 net.cpp:91] Creating Layer cont_1_lstm1_cont_slice_0_split
I0925 22:11:39.598070 21466 net.cpp:425] cont_1_lstm1_cont_slice_0_split <- cont_1
I0925 22:11:39.598098 21466 net.cpp:399] cont_1_lstm1_cont_slice_0_split -> cont_1_lstm1_cont_slice_0_split_0
I0925 22:11:39.598104 21448 net.cpp:141] Setting up lstm2_h_conted_0
I0925 22:11:39.598119 21466 net.cpp:399] cont_1_lstm1_cont_slice_0_split -> cont_1_lstm1_cont_slice_0_split_1
I0925 22:11:39.598124 21448 net.cpp:148] Top shape: 1 1 1000 (1000)
I0925 22:11:39.598134 21448 net.cpp:156] Memory required for data: 50020
I0925 22:11:39.598141 21448 layer_factory.hpp:77] Creating layer lstm2_transform_1
I0925 22:11:39.598160 21448 net.cpp:91] Creating Layer lstm2_transform_1
I0925 22:11:39.598170 21448 net.cpp:425] lstm2_transform_1 <- h_conted_0
I0925 22:11:39.598183 21448 net.cpp:399] lstm2_transform_1 -> W_hc_h_0
I0925 22:11:39.598271 21472 net.cpp:49] Initializing net from parameters: 
layer {
  name: "lstm2_"
  type: "Input"
  top: "x"
  top: "cont"
  input_param {
    shape {
      dim: 1
      dim: 1
      dim: 1501
    }
    shape {
      dim: 1
      dim: 1
    }
  }
}
layer {
  name: "lstm2_"
  type: "Input"
  top: "c_0"
  top: "h_0"
  input_param {
    shape {
      dim: 1
      dim: 1
      dim: 1000
    }
    shape {
      dim: 1
      dim: 1
      dim: 1000
    }
  }
}
layer {
  name: "lstm2_cont_slice"
  type: "Slice"
  bottom: "cont"
  top: "cont_1"
  slice_param {
    axis: 0
  }
}
layer {
  name: "lstm2_x_transform"
  type: "InnerProduct"
  bottom: "x"
  top: "W_xc_x"
  param {
    name: "W_xc"
  }
  param {
    name: "b_c"
  }
  propagate_down: true
  inner_product_param {
    num_output: 4000
    bias_term: true
    weight_filler {
      type: "uniform"
      min: -0.08
      max: 0.08
    }
    bias_filler {
      type: "constant"
      value: 0
    }
    axis: 2
  }
}
layer {
  name: "lstm2_W_xc_x_slice"
  type: "Slice"
  bottom: "W_xc_x"
  top: "W_xc_x_1"
  slice_param {
    axis: 0
  }
}
layer {
  name: "lstm2_h_conted_0"
  type: "Scale"
  bottom: "h_0"
  bottom: "cont_1"
  top: "h_conted_0"
  scale_param {
    axis: 0
  }
}
layer {
  name: "lstm2_transform_1"
  type: "InnerProduct"
  bottom: "h_conted_0"
  top: "W_hc_h_0"
  param {
    name: "W_hc"
  }
  inner_product_param {
    num_output: 4000
    bias_term: false
    weight_filler {
      type: "uniform"
      min: -0.08
      max: 0.08
    }
    axis: 2
  }
}
layer {
  name: "lstm2_gate_input_1"
  type: "Eltwise"
  bottom: "W_hc_h_0"
  bottom: "W_xc_x_1"
  top: "gate_input_1"
  eltwise_param {
    operation: SUM
  }
}
layer {
  name: "lstm2_unit_1"
  type: "LSTMUnit"
  bottom: "c_0"
  bottom: "gate_input_1"
  bottom: "cont_1"
  top: "c_1"
  top: "h_1"
}
layer {
  name: "lstm2_"
  type: "Split"
  bottom: "c_1"
  top: "c_T"
}
layer {
  name: "lstm2_h_concat"
  type: "Concat"
  bottom: "h_1"
  top: "h"
  concat_param {
    axis: 0
  }
}
layer {
  name: "h_pseudoloss"
  type: "Reduction"
  bottom: "h"
  top: "h_pseudoloss"
  loss_weight: 1
}
I0925 22:11:39.598423 21472 layer_factory.hpp:77] Creating layer lstm2_
I0925 22:11:39.598443 21472 net.cpp:91] Creating Layer lstm2_
I0925 22:11:39.598454 21472 net.cpp:399] lstm2_ -> x
I0925 22:11:39.598472 21472 net.cpp:399] lstm2_ -> cont
I0925 22:11:39.618652 21466 net.cpp:141] Setting up cont_1_lstm1_cont_slice_0_split
I0925 22:11:39.618705 21466 net.cpp:148] Top shape: 1 1 (1)
I0925 22:11:39.618717 21466 net.cpp:148] Top shape: 1 1 (1)
I0925 22:11:39.618726 21466 net.cpp:156] Memory required for data: 10016
I0925 22:11:39.618737 21466 layer_factory.hpp:77] Creating layer lstm1_x_transform
I0925 22:11:39.618788 21466 net.cpp:91] Creating Layer lstm1_x_transform
I0925 22:11:39.618800 21466 net.cpp:425] lstm1_x_transform <- x
I0925 22:11:39.618826 21466 net.cpp:399] lstm1_x_transform -> W_xc_x
I0925 22:11:39.626889 21442 net.cpp:141] Setting up lstm1_transform_1
I0925 22:11:39.626962 21442 net.cpp:148] Top shape: 1 1 4000 (4000)
I0925 22:11:39.626976 21442 net.cpp:156] Memory required for data: 62016
I0925 22:11:39.627007 21442 layer_factory.hpp:77] Creating layer lstm1_gate_input_1
I0925 22:11:39.627035 21442 net.cpp:91] Creating Layer lstm1_gate_input_1
I0925 22:11:39.627048 21442 net.cpp:425] lstm1_gate_input_1 <- W_hc_h_0
I0925 22:11:39.627063 21442 net.cpp:425] lstm1_gate_input_1 <- W_xc_x_1
I0925 22:11:39.627079 21442 net.cpp:399] lstm1_gate_input_1 -> gate_input_1
I0925 22:11:39.627156 21442 net.cpp:141] Setting up lstm1_gate_input_1
I0925 22:11:39.627176 21442 net.cpp:148] Top shape: 1 1 4000 (4000)
I0925 22:11:39.627184 21442 net.cpp:156] Memory required for data: 78016
I0925 22:11:39.627194 21442 layer_factory.hpp:77] Creating layer lstm1_unit_1
I0925 22:11:39.627215 21442 net.cpp:91] Creating Layer lstm1_unit_1
I0925 22:11:39.627226 21442 net.cpp:425] lstm1_unit_1 <- c_0
I0925 22:11:39.627238 21442 net.cpp:425] lstm1_unit_1 <- gate_input_1
I0925 22:11:39.627250 21442 net.cpp:425] lstm1_unit_1 <- cont_1_lstm1_cont_slice_0_split_1
I0925 22:11:39.627264 21442 net.cpp:399] lstm1_unit_1 -> c_1
I0925 22:11:39.627282 21442 net.cpp:399] lstm1_unit_1 -> h_1
I0925 22:11:39.627415 21442 net.cpp:141] Setting up lstm1_unit_1
I0925 22:11:39.627435 21442 net.cpp:148] Top shape: 1 1 1000 (1000)
I0925 22:11:39.627449 21442 net.cpp:148] Top shape: 1 1 1000 (1000)
I0925 22:11:39.627457 21442 net.cpp:156] Memory required for data: 86016
I0925 22:11:39.627467 21442 layer_factory.hpp:77] Creating layer lstm1_
I0925 22:11:39.627483 21442 net.cpp:91] Creating Layer lstm1_
I0925 22:11:39.627493 21442 net.cpp:425] lstm1_ <- c_1
I0925 22:11:39.627506 21442 net.cpp:399] lstm1_ -> c_T
I0925 22:11:39.627681 21472 net.cpp:141] Setting up lstm2_
I0925 22:11:39.627712 21472 net.cpp:148] Top shape: 1 1 1501 (1501)
I0925 22:11:39.627727 21472 net.cpp:148] Top shape: 1 1 (1)
I0925 22:11:39.627727 21442 net.cpp:141] Setting up lstm1_
I0925 22:11:39.627735 21472 net.cpp:156] Memory required for data: 6008
I0925 22:11:39.627749 21472 layer_factory.hpp:77] Creating layer lstm2_
I0925 22:11:39.627749 21442 net.cpp:148] Top shape: 1 1 1000 (1000)
I0925 22:11:39.627776 21442 net.cpp:156] Memory required for data: 90016
I0925 22:11:39.627789 21442 layer_factory.hpp:77] Creating layer lstm1_h_concat
I0925 22:11:39.627787 21472 net.cpp:91] Creating Layer lstm2_
I0925 22:11:39.627826 21442 net.cpp:91] Creating Layer lstm1_h_concat
I0925 22:11:39.627832 21472 net.cpp:399] lstm2_ -> c_0
I0925 22:11:39.627840 21442 net.cpp:425] lstm1_h_concat <- h_1
I0925 22:11:39.627854 21442 net.cpp:399] lstm1_h_concat -> h
I0925 22:11:39.627861 21472 net.cpp:399] lstm2_ -> h_0
I0925 22:11:39.634176 21442 net.cpp:141] Setting up lstm1_h_concat
I0925 22:11:39.634249 21442 net.cpp:148] Top shape: 1 1 1000 (1000)
I0925 22:11:39.634260 21442 net.cpp:156] Memory required for data: 94016
I0925 22:11:39.634276 21442 layer_factory.hpp:77] Creating layer h_pseudoloss
I0925 22:11:39.634279 21472 net.cpp:141] Setting up lstm2_
I0925 22:11:39.634305 21442 net.cpp:91] Creating Layer h_pseudoloss
I0925 22:11:39.634306 21472 net.cpp:148] Top shape: 1 1 1000 (1000)
I0925 22:11:39.634317 21442 net.cpp:425] h_pseudoloss <- h
I0925 22:11:39.634320 21472 net.cpp:148] Top shape: 1 1 1000 (1000)
I0925 22:11:39.634328 21472 net.cpp:156] Memory required for data: 14008
I0925 22:11:39.634338 21472 layer_factory.hpp:77] Creating layer lstm2_cont_slice
I0925 22:11:39.634341 21442 net.cpp:399] h_pseudoloss -> h_pseudoloss
I0925 22:11:39.634361 21472 net.cpp:91] Creating Layer lstm2_cont_slice
I0925 22:11:39.634371 21472 net.cpp:425] lstm2_cont_slice <- cont
I0925 22:11:39.634387 21472 net.cpp:399] lstm2_cont_slice -> cont_1
I0925 22:11:39.634579 21438 net.cpp:141] Setting up lstm1_transform_1
I0925 22:11:39.634619 21438 net.cpp:148] Top shape: 1 1 4000 (4000)
I0925 22:11:39.634629 21472 net.cpp:141] Setting up lstm2_cont_slice
I0925 22:11:39.634632 21438 net.cpp:156] Memory required for data: 62016
I0925 22:11:39.634654 21472 net.cpp:148] Top shape: 1 1 (1)
I0925 22:11:39.634662 21472 net.cpp:156] Memory required for data: 14012
I0925 22:11:39.634668 21438 layer_factory.hpp:77] Creating layer lstm1_gate_input_1
I0925 22:11:39.634671 21472 layer_factory.hpp:77] Creating layer cont_1_lstm2_cont_slice_0_split
I0925 22:11:39.634696 21472 net.cpp:91] Creating Layer cont_1_lstm2_cont_slice_0_split
I0925 22:11:39.634697 21438 net.cpp:91] Creating Layer lstm1_gate_input_1
I0925 22:11:39.634706 21472 net.cpp:425] cont_1_lstm2_cont_slice_0_split <- cont_1
I0925 22:11:39.634709 21438 net.cpp:425] lstm1_gate_input_1 <- W_hc_h_0
I0925 22:11:39.634721 21472 net.cpp:399] cont_1_lstm2_cont_slice_0_split -> cont_1_lstm2_cont_slice_0_split_0
I0925 22:11:39.634722 21438 net.cpp:425] lstm1_gate_input_1 <- W_xc_x_1
I0925 22:11:39.634737 21438 net.cpp:399] lstm1_gate_input_1 -> gate_input_1
I0925 22:11:39.634740 21472 net.cpp:399] cont_1_lstm2_cont_slice_0_split -> cont_1_lstm2_cont_slice_0_split_1
I0925 22:11:39.634847 21472 net.cpp:141] Setting up cont_1_lstm2_cont_slice_0_split
I0925 22:11:39.634865 21472 net.cpp:148] Top shape: 1 1 (1)
I0925 22:11:39.634876 21472 net.cpp:148] Top shape: 1 1 (1)
I0925 22:11:39.634884 21472 net.cpp:156] Memory required for data: 14020
I0925 22:11:39.634892 21472 layer_factory.hpp:77] Creating layer lstm2_x_transform
I0925 22:11:39.634922 21472 net.cpp:91] Creating Layer lstm2_x_transform
I0925 22:11:39.634932 21472 net.cpp:425] lstm2_x_transform <- x
I0925 22:11:39.634948 21472 net.cpp:399] lstm2_x_transform -> W_xc_x
I0925 22:11:39.635121 21438 net.cpp:141] Setting up lstm1_gate_input_1
I0925 22:11:39.635123 21442 net.cpp:141] Setting up h_pseudoloss
I0925 22:11:39.635140 21438 net.cpp:148] Top shape: 1 1 4000 (4000)
I0925 22:11:39.635160 21438 net.cpp:156] Memory required for data: 78016
I0925 22:11:39.635161 21442 net.cpp:148] Top shape: (1)
I0925 22:11:39.635169 21438 layer_factory.hpp:77] Creating layer lstm1_unit_1
I0925 22:11:39.635174 21442 net.cpp:151]     with loss weight 1
I0925 22:11:39.635196 21442 net.cpp:156] Memory required for data: 94020
I0925 22:11:39.635206 21442 net.cpp:217] h_pseudoloss needs backward computation.
…
I0925 22:11:39.635478 21438 net.cpp:425] lstm1_unit_1 <- gate_input_1
I0925 22:11:39.635488 21438 net.cpp:425] lstm1_unit_1 <- cont_1_lstm1_cont_slice_0_split_1
I0925 22:11:39.635504 21438 net.cpp:399] lstm1_unit_1 -> c_1
I0925 22:11:39.635522 21438 net.cpp:399] lstm1_unit_1 -> h_1
I0925 22:11:39.635529 21442 recurrent_layer.cpp:150] Adding parameter 0: W_xc
I0925 22:11:39.635541 21442 recurrent_layer.cpp:150] Adding parameter 1: b_c
I0925 22:11:39.635550 21442 recurrent_layer.cpp:150] Adding parameter 2: W_hc
I0925 22:11:39.635581 21440 net.cpp:141] Setting up lstm2_x_transform
I0925 22:11:39.635597 21440 net.cpp:148] Top shape: 1 1 4000 (4000)
I0925 22:11:39.635606 21440 net.cpp:156] Memory required for data: 30020
I0925 22:11:39.635640 21440 layer_factory.hpp:77] Creating layer lstm2_W_xc_x_slice
I0925 22:11:39.635658 21440 net.cpp:91] Creating Layer lstm2_W_xc_x_slice
I0925 22:11:39.635669 21440 net.cpp:425] lstm2_W_xc_x_slice <- W_xc_x
I0925 22:11:39.635696 21440 net.cpp:399] lstm2_W_xc_x_slice -> W_xc_x_1
I0925 22:11:39.651948 21440 net.cpp:141] Setting up lstm2_W_xc_x_slice
I0925 22:11:39.652007 21440 net.cpp:148] Top shape: 1 1 4000 (4000)
I0925 22:11:39.652016 21440 net.cpp:156] Memory required for data: 46020
I0925 22:11:39.652027 21440 layer_factory.hpp:77] Creating layer lstm2_h_conted_0
I0925 22:11:39.652061 21440 net.cpp:91] Creating Layer lstm2_h_conted_0
I0925 22:11:39.652076 21440 net.cpp:425] lstm2_h_conted_0 <- h_0
I0925 22:11:39.652092 21440 net.cpp:425] lstm2_h_conted_0 <- cont_1_lstm2_cont_slice_0_split_0
I0925 22:11:39.652109 21440 net.cpp:399] lstm2_h_conted_0 -> h_conted_0
I0925 22:11:39.652109 21438 net.cpp:141] Setting up lstm1_unit_1
I0925 22:11:39.652146 21438 net.cpp:148] Top shape: 1 1 1000 (1000)
I0925 22:11:39.652146 21442 net.cpp:141] Setting up lstm1
I0925 22:11:39.652160 21438 net.cpp:148] Top shape: 1 1 1000 (1000)
I0925 22:11:39.652170 21442 net.cpp:148] Top shape: 1 1 1000 (1000)
I0925 22:11:39.652170 21438 net.cpp:156] Memory required for data: 86016
I0925 22:11:39.652194 21442 net.cpp:156] Memory required for data: 26408
I0925 22:11:39.652200 21438 layer_factory.hpp:77] Creating layer lstm1_
I0925 22:11:39.652221 21442 layer_factory.hpp:77] Creating layer concat
I0925 22:11:39.652225 21438 net.cpp:91] Creating Layer lstm1_
I0925 22:11:39.652238 21438 net.cpp:425] lstm1_ <- c_1
I0925 22:11:39.652240 21442 net.cpp:91] Creating Layer concat
I0925 22:11:39.652261 21438 net.cpp:399] lstm1_ -> c_T
I0925 22:11:39.652264 21442 net.cpp:425] concat <- lstm1
I0925 22:11:39.652278 21442 net.cpp:425] concat <- embedded_input_sentence
I0925 22:11:39.652288 21442 net.cpp:425] concat <- reshaped_stage_indicator
I0925 22:11:39.652302 21442 net.cpp:399] concat -> lstm1_video_sequence
I0925 22:11:39.652317 21438 net.cpp:141] Setting up lstm1_
I0925 22:11:39.652333 21438 net.cpp:148] Top shape: 1 1 1000 (1000)
I0925 22:11:39.652339 21438 net.cpp:156] Memory required for data: 90016
I0925 22:11:39.652345 21438 layer_factory.hpp:77] Creating layer lstm1_h_concat
I0925 22:11:39.652360 21438 net.cpp:91] Creating Layer lstm1_h_concat
I0925 22:11:39.652369 21438 net.cpp:425] lstm1_h_concat <- h_1
I0925 22:11:39.652369 21442 net.cpp:141] Setting up concat
I0925 22:11:39.652390 21438 net.cpp:399] lstm1_h_concat -> h
I0925 22:11:39.652396 21442 net.cpp:148] Top shape: 1 1 1501 (1501)
I0925 22:11:39.652405 21442 net.cpp:156] Memory required for data: 32412
I0925 22:11:39.652415 21442 layer_factory.hpp:77] Creating layer lstm2
I0925 22:11:39.652423 21440 net.cpp:141] Setting up lstm2_h_conted_0
I0925 22:11:39.652439 21442 net.cpp:91] Creating Layer lstm2
I0925 22:11:39.652443 21440 net.cpp:148] Top shape: 1 1 1000 (1000)
I0925 22:11:39.652451 21442 net.cpp:425] lstm2 <- lstm1_video_sequence
I0925 22:11:39.652453 21440 net.cpp:156] Memory required for data: 50020
I0925 22:11:39.652459 21438 net.cpp:141] Setting up lstm1_h_concat
I0925 22:11:39.652464 21440 layer_factory.hpp:77] Creating layer lstm2_transform_1
I0925 22:11:39.652462 21442 net.cpp:425] lstm2 <- cont_sentence_input_1_split_1
I0925 22:11:39.652479 21438 net.cpp:148] Top shape: 1 1 1000 (1000)
I0925 22:11:39.652483 21440 net.cpp:91] Creating Layer lstm2_transform_1
I0925 22:11:39.652489 21438 net.cpp:156] Memory required for data: 94016
I0925 22:11:39.652493 21440 net.cpp:425] lstm2_transform_1 <- h_conted_0
I0925 22:11:39.652487 21442 net.cpp:399] lstm2 -> lstm2
I0925 22:11:39.652501 21438 layer_factory.hpp:77] Creating layer h_pseudoloss
I0925 22:11:39.652509 21440 net.cpp:399] lstm2_transform_1 -> W_hc_h_0
I0925 22:11:39.652518 21438 net.cpp:91] Creating Layer h_pseudoloss
I0925 22:11:39.652516 21442 recurrent_layer.cpp:20] Initializing recurrent layer: assuming input batch contains 1 timesteps of 1 independent streams.
I0925 22:11:39.652532 21438 net.cpp:425] h_pseudoloss <- h
I0925 22:11:39.652555 21438 net.cpp:399] h_pseudoloss -> h_pseudoloss
I0925 22:11:39.652956 21442 net.cpp:49] Initializing net from parameters: 
layer {
  name: "lstm2_"
  type: "Input"
  top: "x"
  top: "cont"
  input_param {
    shape {
      dim: 1
      dim: 1
      dim: 1501
    }
    shape {
      dim: 1
      dim: 1
    }
  }
}
layer {
  name: "lstm2_"
  type: "Input"
  top: "c_0"
  top: "h_0"
  input_param {
    shape {
      dim: 1
      dim: 1
      dim: 1000
    }
    shape {
      dim: 1
      dim: 1
      dim: 1000
    }
  }
}
layer {
  name: "lstm2_cont_slice"
  type: "Slice"
  bottom: "cont"
  top: "cont_1"
  slice_param {
    axis: 0
  }
}
layer {
  name: "lstm2_x_transform"
  type: "InnerProduct"
  bottom: "x"
  top: "W_xc_x"
  param {
    name: "W_xc"
  }
  param {
    name: "b_c"
  }
  propagate_down: true
  inner_product_param {
    num_output: 4000
    bias_term: true
    weight_filler {
      type: "uniform"
      min: -0.08
      max: 0.08
    }
    bias_filler {
      type: "constant"
      value: 0
    }
    axis: 2
  }
}
layer {
  name: "lstm2_W_xc_x_slice"
  type: "Slice"
  bottom: "W_xc_x"
  top: "W_xc_x_1"
  slice_param {
    axis: 0
  }
}
layer {
  name: "lstm2_h_conted_0"
  type: "Scale"
  bottom: "h_0"
  bottom: "cont_1"
  top: "h_conted_0"
  scale_param {
    axis: 0
  }
}
layer {
  name: "lstm2_transform_1"
  type: "InnerProduct"
  bottom: "h_conted_0"
  top: "W_hc_h_0"
  param {
    name: "W_hc"
  }
  inner_product_param {
    num_output: 4000
    bias_term: false
    weight_filler {
      type: "uniform"
      min: -0.08
      max: 0.08
    }
    axis: 2
  }
}
layer {
  name: "lstm2_gate_input_1"
  type: "Eltwise"
  bottom: "W_hc_h_0"
  bottom: "W_xc_x_1"
  top: "gate_input_1"
  eltwise_param {
    operation: SUM
  }
}
layer {
  name: "lstm2_unit_1"
  type: "LSTMUnit"
  bottom: "c_0"
  bottom: "gate_input_1"
  bottom: "cont_1"
  top: "c_1"
  top: "h_1"
}
layer {
  name: "lstm2_"
  type: "Split"
  bottom: "c_1"
  top: "c_T"
}
layer {
  name: "lstm2_h_concat"
  type: "Concat"
  bottom: "h_1"
  top: "h"
  concat_param {
    axis: 0
  }
}
layer {
  name: "h_pseudoloss"
  type: "Reduction"
  bottom: "h"
  top: "h_pseudoloss"
  loss_weight: 1
}
I0925 22:11:39.653105 21442 layer_factory.hpp:77] Creating layer lstm2_
I0925 22:11:39.653126 21442 net.cpp:91] Creating Layer lstm2_
I0925 22:11:39.653136 21442 net.cpp:399] lstm2_ -> x
I0925 22:11:39.653164 21442 net.cpp:399] lstm2_ -> cont
I0925 22:11:39.661384 21442 net.cpp:141] Setting up lstm2_
I0925 22:11:39.661372 21438 net.cpp:141] Setting up h_pseudoloss
I0925 22:11:39.661433 21442 net.cpp:148] Top shape: 1 1 1501 (1501)
I0925 22:11:39.661443 21442 net.cpp:148] Top shape: 1 1 (1)
I0925 22:11:39.661449 21442 net.cpp:156] Memory required for data: 6008
I0925 22:11:39.661458 21442 layer_factory.hpp:77] Creating layer lstm2_
I0925 22:11:39.661453 21438 net.cpp:148] Top shape: (1)
I0925 22:11:39.661484 21442 net.cpp:91] Creating Layer lstm2_
I0925 22:11:39.661497 21442 net.cpp:399] lstm2_ -> c_0
I0925 22:11:39.661479 21438 net.cpp:151]     with loss weight 1
I0925 22:11:39.661517 21442 net.cpp:399] lstm2_ -> h_0
I0925 22:11:39.661520 21438 net.cpp:156] Memory required for data: 94020
I0925 22:11:39.661538 21438 net.cpp:217] h_pseudoloss needs backward computation.
I0925 22:11:39.661556 21438 net.cpp:217] lstm1_h_concat needs backward computation.
I0925 22:11:39.661572 21438 net.cpp:219] lstm1_ does not need backward computation.
I0925 22:11:39.661589 21438 net.cpp:217] lstm1_unit_1 needs backward computation.
I0925 22:11:39.661593 21466 net.cpp:141] Setting up lstm1_x_transform
I0925 22:11:39.661608 21438 net.cpp:217] lstm1_gate_input_1 needs backward computation.
I0925 22:11:39.661617 21466 net.cpp:148] Top shape: 1 1 4000 (4000)
I0925 22:11:39.661628 21438 net.cpp:217] lstm1_transform_1 needs backward computation.
I0925 22:11:39.661628 21466 net.cpp:156] Memory required for data: 26016
I0925 22:11:39.661667 21438 net.cpp:219] lstm1_h_conted_0 does not need backward computation.
I0925 22:11:39.661672 21442 net.cpp:141] Setting up lstm2_
I0925 22:11:39.661682 21466 layer_factory.hpp:77] Creating layer lstm1_W_xc_x_slice
I0925 22:11:39.661701 21442 net.cpp:148] Top shape: 1 1 1000 (1000)
I0925 22:11:39.661715 21442 net.cpp:148] Top shape: 1 1 1000 (1000)
I0925 22:11:39.661720 21466 net.cpp:91] Creating Layer lstm1_W_xc_x_slice
I0925 22:11:39.661723 21442 net.cpp:156] Memory required for data: 14008
I0925 22:11:39.661734 21442 layer_factory.hpp:77] Creating layer lstm2_cont_slice
I0925 22:11:39.661731 21466 net.cpp:425] lstm1_W_xc_x_slice <- W_xc_x
I0925 22:11:39.661731 21438 net.cpp:217] lstm1_W_xc_x_slice needs backward computation.
I0925 22:11:39.661767 21466 net.cpp:399] lstm1_W_xc_x_slice -> W_xc_x_1
I0925 22:11:39.661746 21442 net.cpp:91] Creating Layer lstm2_cont_slice
I0925 22:11:39.661787 21438 net.cpp:217] lstm1_x_transform needs backward computation.
I0925 22:11:39.661808 21442 net.cpp:425] lstm2_cont_slice <- cont
I0925 22:11:39.661824 21438 net.cpp:219] cont_1_lstm1_cont_slice_0_split does not need backward computation.
I0925 22:11:39.661828 21442 net.cpp:399] lstm2_cont_slice -> cont_1
I0925 22:11:39.661842 21466 net.cpp:141] Setting up lstm1_W_xc_x_slice
I0925 22:11:39.661852 21438 net.cpp:219] lstm1_cont_slice does not need backward computation.
I0925 22:11:39.661861 21466 net.cpp:148] Top shape: 1 1 4000 (4000)
I0925 22:11:39.661870 21466 net.cpp:156] Memory required for data: 42016
I0925 22:11:39.661875 21438 net.cpp:219] lstm1_ does not need backward computation.
I0925 22:11:39.661880 21466 layer_factory.hpp:77] Creating layer lstm1_h_conted_0
I0925 22:11:39.661901 21438 net.cpp:219] lstm1_ does not need backward computation.
I0925 22:11:39.661905 21442 net.cpp:141] Setting up lstm2_cont_slice
I0925 22:11:39.661924 21438 net.cpp:261] This network produces output c_T
I0925 22:11:39.661936 21442 net.cpp:148] Top shape: 1 1 (1)
I0925 22:11:39.661916 21466 net.cpp:91] Creating Layer lstm1_h_conted_0
I0925 22:11:39.661942 21442 net.cpp:156] Memory required for data: 14012
I0925 22:11:39.661947 21438 net.cpp:261] This network produces output h_pseudoloss
I0925 22:11:39.661957 21442 layer_factory.hpp:77] Creating layer cont_1_lstm2_cont_slice_0_split
I0925 22:11:39.661957 21466 net.cpp:425] lstm1_h_conted_0 <- h_0
I0925 22:11:39.661975 21442 net.cpp:91] Creating Layer cont_1_lstm2_cont_slice_0_split
I0925 22:11:39.661978 21466 net.cpp:425] lstm1_h_conted_0 <- cont_1_lstm1_cont_slice_0_split_0
I0925 22:11:39.661988 21442 net.cpp:425] cont_1_lstm2_cont_slice_0_split <- cont_1
I0925 22:11:39.661994 21466 net.cpp:399] lstm1_h_conted_0 -> h_conted_0
I0925 22:11:39.661998 21442 net.cpp:399] cont_1_lstm2_cont_slice_0_split -> cont_1_lstm2_cont_slice_0_split_0
I0925 22:11:39.662001 21438 net.cpp:274] Network initialization done.
I0925 22:11:39.662014 21442 net.cpp:399] cont_1_lstm2_cont_slice_0_split -> cont_1_lstm2_cont_slice_0_split_1
I0925 22:11:39.662117 21438 recurrent_layer.cpp:150] Adding parameter 0: W_xc
I0925 22:11:39.662138 21438 recurrent_layer.cpp:150] Adding parameter 1: b_c
I0925 22:11:39.662140 21442 net.cpp:141] Setting up cont_1_lstm2_cont_slice_0_split
I0925 22:11:39.662161 21438 recurrent_layer.cpp:150] Adding parameter 2: W_hc
I0925 22:11:39.662170 21442 net.cpp:148] Top shape: 1 1 (1)
I0925 22:11:39.662178 21442 net.cpp:148] Top shape: 1 1 (1)
I0925 22:11:39.662184 21442 net.cpp:156] Memory required for data: 14020
I0925 22:11:39.662189 21442 layer_factory.hpp:77] Creating layer lstm2_x_transform
I0925 22:11:39.662209 21442 net.cpp:91] Creating Layer lstm2_x_transform
I0925 22:11:39.662219 21442 net.cpp:425] lstm2_x_transform <- x
I0925 22:11:39.662233 21442 net.cpp:399] lstm2_x_transform -> W_xc_x
I0925 22:11:39.662299 21466 net.cpp:141] Setting up lstm1_h_conted_0
I0925 22:11:39.662318 21466 net.cpp:148] Top shape: 1 1 1000 (1000)
I0925 22:11:39.662325 21466 net.cpp:156] Memory required for data: 46016
I0925 22:11:39.662334 21466 layer_factory.hpp:77] Creating layer lstm1_transform_1
I0925 22:11:39.662358 21466 net.cpp:91] Creating Layer lstm1_transform_1
I0925 22:11:39.662369 21466 net.cpp:425] lstm1_transform_1 <- h_conted_0
I0925 22:11:39.662386 21466 net.cpp:399] lstm1_transform_1 -> W_hc_h_0
I0925 22:11:39.676712 21448 net.cpp:141] Setting up lstm2_transform_1
I0925 22:11:39.676820 21448 net.cpp:148] Top shape: 1 1 4000 (4000)
I0925 22:11:39.676832 21448 net.cpp:156] Memory required for data: 66020
I0925 22:11:39.676947 21448 layer_factory.hpp:77] Creating layer lstm2_gate_input_1
I0925 22:11:39.676975 21448 net.cpp:91] Creating Layer lstm2_gate_input_1
I0925 22:11:39.676987 21448 net.cpp:425] lstm2_gate_input_1 <- W_hc_h_0
I0925 22:11:39.677000 21448 net.cpp:425] lstm2_gate_input_1 <- W_xc_x_1
I0925 22:11:39.677012 21448 net.cpp:399] lstm2_gate_input_1 -> gate_input_1
I0925 22:11:39.688149 21438 net.cpp:141] Setting up lstm1
I0925 22:11:39.688210 21438 net.cpp:148] Top shape: 1 1 1000 (1000)
I0925 22:11:39.688210 21448 net.cpp:141] Setting up lstm2_gate_input_1
I0925 22:11:39.688218 21438 net.cpp:156] Memory required for data: 26408
I0925 22:11:39.688247 21448 net.cpp:148] Top shape: 1 1 4000 (4000)
I0925 22:11:39.688253 21448 net.cpp:156] Memory required for data: 82020
I0925 22:11:39.688261 21448 layer_factory.hpp:77] Creating layer lstm2_unit_1
I0925 22:11:39.688282 21448 net.cpp:91] Creating Layer lstm2_unit_1
I0925 22:11:39.688285 21438 layer_factory.hpp:77] Creating layer concat
I0925 22:11:39.688290 21448 net.cpp:425] lstm2_unit_1 <- c_0
I0925 22:11:39.688300 21448 net.cpp:425] lstm2_unit_1 <- gate_input_1
I0925 22:11:39.688307 21448 net.cpp:425] lstm2_unit_1 <- cont_1_lstm2_cont_slice_0_split_1
I0925 22:11:39.688315 21448 net.cpp:399] lstm2_unit_1 -> c_1
I0925 22:11:39.688318 21438 net.cpp:91] Creating Layer concat
I0925 22:11:39.688328 21448 net.cpp:399] lstm2_unit_1 -> h_1
I0925 22:11:39.688329 21438 net.cpp:425] concat <- lstm1
I0925 22:11:39.688340 21438 net.cpp:425] concat <- embedded_input_sentence
I0925 22:11:39.688350 21438 net.cpp:425] concat <- reshaped_stage_indicator
I0925 22:11:39.688364 21438 net.cpp:399] concat -> lstm1_video_sequence
I0925 22:11:39.688429 21448 net.cpp:141] Setting up lstm2_unit_1
I0925 22:11:39.688441 21448 net.cpp:148] Top shape: 1 1 1000 (1000)
I0925 22:11:39.688447 21448 net.cpp:148] Top shape: 1 1 1000 (1000)
I0925 22:11:39.688452 21448 net.cpp:156] Memory required for data: 90020
I0925 22:11:39.688457 21448 layer_factory.hpp:77] Creating layer lstm2_
I0925 22:11:39.688467 21448 net.cpp:91] Creating Layer lstm2_
I0925 22:11:39.688472 21448 net.cpp:425] lstm2_ <- c_1
I0925 22:11:39.688480 21448 net.cpp:399] lstm2_ -> c_T
I0925 22:11:39.688490 21438 net.cpp:141] Setting up concat
I0925 22:11:39.688508 21438 net.cpp:148] Top shape: 1 1 1501 (1501)
I0925 22:11:39.688515 21438 net.cpp:156] Memory required for data: 32412
I0925 22:11:39.688524 21448 net.cpp:141] Setting up lstm2_
I0925 22:11:39.688524 21438 layer_factory.hpp:77] Creating layer lstm2
I0925 22:11:39.688545 21448 net.cpp:148] Top shape: 1 1 1000 (1000)
I0925 22:11:39.688550 21448 net.cpp:156] Memory required for data: 94020
I0925 22:11:39.688555 21448 layer_factory.hpp:77] Creating layer lstm2_h_concat
I0925 22:11:39.688565 21438 net.cpp:91] Creating Layer lstm2
I0925 22:11:39.688568 21448 net.cpp:91] Creating Layer lstm2_h_concat
I0925 22:11:39.688575 21448 net.cpp:425] lstm2_h_concat <- h_1
I0925 22:11:39.688575 21438 net.cpp:425] lstm2 <- lstm1_video_sequence
I0925 22:11:39.688582 21448 net.cpp:399] lstm2_h_concat -> h
I0925 22:11:39.688586 21438 net.cpp:425] lstm2 <- cont_sentence_input_1_split_1
I0925 22:11:39.688601 21438 net.cpp:399] lstm2 -> lstm2
I0925 22:11:39.688621 21438 recurrent_layer.cpp:20] Initializing recurrent layer: assuming input batch contains 1 timesteps of 1 independent streams.
I0925 22:11:39.688630 21448 net.cpp:141] Setting up lstm2_h_concat
I0925 22:11:39.688642 21448 net.cpp:148] Top shape: 1 1 1000 (1000)
I0925 22:11:39.688647 21448 net.cpp:156] Memory required for data: 98020
I0925 22:11:39.688652 21448 layer_factory.hpp:77] Creating layer h_pseudoloss
I0925 22:11:39.688663 21448 net.cpp:91] Creating Layer h_pseudoloss
I0925 22:11:39.688668 21448 net.cpp:425] h_pseudoloss <- h
I0925 22:11:39.688678 21448 net.cpp:399] h_pseudoloss -> h_pseudoloss
I0925 22:11:39.688860 21448 net.cpp:141] Setting up h_pseudoloss
…
I0925 22:11:39.689061 21448 net.cpp:261] This network produces output h_pseudoloss
I0925 22:11:39.689079 21438 net.cpp:49] Initializing net from parameters: 
layer {
  name: "lstm2_"
  type: "Input"
  top: "x"
  top: "cont"
  input_param {
    shape {
      dim: 1
      dim: 1
      dim: 1501
    }
    shape {
      dim: 1
      dim: 1
    }
  }
}
layer {
  name: "lstm2_"
  type: "Input"
  top: "c_0"
  top: "h_0"
  input_param {
    shape {
      dim: 1
      dim: 1
      dim: 1000
    }
    shape {
      dim: 1
      dim: 1
      dim: 1000
    }
  }
}
layer {
  name: "lstm2_cont_slice"
  type: "Slice"
  bottom: "cont"
  top: "cont_1"
  slice_param {
    axis: 0
  }
}
layer {
  name: "lstm2_x_transform"
  type: "InnerProduct"
  bottom: "x"
  top: "W_xc_x"
  param {
    name: "W_xc"
  }
  param {
    name: "b_c"
  }
  propagate_down: true
  inner_product_param {
    num_output: 4000
    bias_term: true
    weight_filler {
      type: "uniform"
      min: -0.08
      max: 0.08
    }
    bias_filler {
      type: "constant"
      value: 0
    }
    axis: 2
  }
}
layer {
  name: "lstm2_W_xc_x_slice"
  type: "Slice"
  bottom: "W_xc_x"
  top: "W_xc_x_1"
  slice_param {
    axis: 0
  }
}
layer {
  name: "lstm2_h_conted_0"
  type: "Scale"
  bottom: "h_0"
  bottom: "cont_1"
  top: "h_conted_0"
  scale_param {
    axis: 0
  }
}
layer {
  name: "lstm2_transform_1"
  type: "InnerProduct"
  bottom: "h_conted_0"
  top: "W_hc_h_0"
  param {
    name: "W_hc"
  }
  inner_product_param {
    num_output: 4000
    bias_term: false
    weight_filler {
      type: "uniform"
      min: -0.08
      max: 0.08
    }
    axis: 2
  }
}
layer {
  name: "lstm2_gate_input_1"
  type: "Eltwise"
  bottom: "W_hc_h_0"
  bottom: "W_xc_x_1"
  top: "gate_input_1"
  eltwise_param {
    operation: SUM
  }
}
layer {
  name: "lstm2_unit_1"
  type: "LSTMUnit"
  bottom: "c_0"
  bottom: "gate_input_1"
  bottom: "cont_1"
  top: "c_1"
  top: "h_1"
}
layer {
  name: "lstm2_"
  type: "Split"
  bottom: "c_1"
  top: "c_T"
}
layer {
  name: "lstm2_h_concat"
  type: "Concat"
  bottom: "h_1"
  top: "h"
  concat_param {
    axis: 0
  }
}
layer {
  name: "h_pseudoloss"
  type: "Reduction"
  bottom: "h"
  top: "h_pseudoloss"
  loss_weight: 1
}
I0925 22:11:39.689095 21448 net.cpp:274] Network initialization done.
I0925 22:11:39.689177 21448 recurrent_layer.cpp:150] Adding parameter 0: W_xc
I0925 22:11:39.689190 21448 recurrent_layer.cpp:150] Adding parameter 1: b_c
I0925 22:11:39.689198 21448 recurrent_layer.cpp:150] Adding parameter 2: W_hc
I0925 22:11:39.689299 21438 layer_factory.hpp:77] Creating layer lstm2_
I0925 22:11:39.689327 21438 net.cpp:91] Creating Layer lstm2_
I0925 22:11:39.689342 21438 net.cpp:399] lstm2_ -> x
I0925 22:11:39.689363 21438 net.cpp:399] lstm2_ -> cont
I0925 22:11:39.689447 21448 net.cpp:141] Setting up lstm2
I0925 22:11:39.689482 21448 net.cpp:148] Top shape: 1 1 1000 (1000)
I0925 22:11:39.689499 21448 net.cpp:156] Memory required for data: 36412
I0925 22:11:39.689523 21438 net.cpp:141] Setting up lstm2_
I0925 22:11:39.689543 21438 net.cpp:148] Top shape: 1 1 1501 (1501)
I0925 22:11:39.689543 21448 layer_factory.hpp:77] Creating layer predict
I0925 22:11:39.689556 21438 net.cpp:148] Top shape: 1 1 (1)
I0925 22:11:39.689564 21438 net.cpp:156] Memory required for data: 6008
I0925 22:11:39.689574 21438 layer_factory.hpp:77] Creating layer lstm2_
I0925 22:11:39.689579 21448 net.cpp:91] Creating Layer predict
I0925 22:11:39.689590 21438 net.cpp:91] Creating Layer lstm2_
I0925 22:11:39.689599 21448 net.cpp:425] predict <- lstm2
I0925 22:11:39.689604 21438 net.cpp:399] lstm2_ -> c_0
I0925 22:11:39.689636 21448 net.cpp:399] predict -> predict
I0925 22:11:39.689641 21438 net.cpp:399] lstm2_ -> h_0
I0925 22:11:39.783468 21438 net.cpp:141] Setting up lstm2_
I0925 22:11:39.783535 21440 net.cpp:141] Setting up lstm2_transform_1
I0925 22:11:39.783547 21438 net.cpp:148] Top shape: 1 1 1000 (1000)
I0925 22:11:39.783561 21440 net.cpp:148] Top shape: 1 1 4000 (4000)
I0925 22:11:39.783565 21438 net.cpp:148] Top shape: 1 1 1000 (1000)
I0925 22:11:39.783571 21440 net.cpp:156] Memory required for data: 66020
I0925 22:11:39.783576 21438 net.cpp:156] Memory required for data: 14008
I0925 22:11:39.783591 21438 layer_factory.hpp:77] Creating layer lstm2_cont_slice
I0925 22:11:39.783601 21440 layer_factory.hpp:77] Creating layer lstm2_gate_input_1
I0925 22:11:39.783622 21438 net.cpp:91] Creating Layer lstm2_cont_slice
I0925 22:11:39.783632 21440 net.cpp:91] Creating Layer lstm2_gate_input_1
I0925 22:11:39.783635 21438 net.cpp:425] lstm2_cont_slice <- cont
I0925 22:11:39.783644 21440 net.cpp:425] lstm2_gate_input_1 <- W_hc_h_0
I0925 22:11:39.783659 21440 net.cpp:425] lstm2_gate_input_1 <- W_xc_x_1
I0925 22:11:39.783663 21438 net.cpp:399] lstm2_cont_slice -> cont_1
I0925 22:11:39.783674 21440 net.cpp:399] lstm2_gate_input_1 -> gate_input_1
I0925 22:11:39.783758 21440 net.cpp:141] Setting up lstm2_gate_input_1
I0925 22:11:39.783776 21440 net.cpp:148] Top shape: 1 1 4000 (4000)
I0925 22:11:39.783784 21440 net.cpp:156] Memory required for data: 82020
I0925 22:11:39.783793 21440 layer_factory.hpp:77] Creating layer lstm2_unit_1
I0925 22:11:39.783808 21440 net.cpp:91] Creating Layer lstm2_unit_1
I0925 22:11:39.783818 21440 net.cpp:425] lstm2_unit_1 <- c_0
I0925 22:11:39.783828 21440 net.cpp:425] lstm2_unit_1 <- gate_input_1
I0925 22:11:39.783839 21440 net.cpp:425] lstm2_unit_1 <- cont_1_lstm2_cont_slice_0_split_1
I0925 22:11:39.783852 21440 net.cpp:399] lstm2_unit_1 -> c_1
I0925 22:11:39.783869 21440 net.cpp:399] lstm2_unit_1 -> h_1
I0925 22:11:39.783993 21440 net.cpp:141] Setting up lstm2_unit_1
I0925 22:11:39.784013 21440 net.cpp:148] Top shape: 1 1 1000 (1000)
I0925 22:11:39.784024 21440 net.cpp:148] Top shape: 1 1 1000 (1000)
I0925 22:11:39.784032 21440 net.cpp:156] Memory required for data: 90020
I0925 22:11:39.784042 21440 layer_factory.hpp:77] Creating layer lstm2_
I0925 22:11:39.784062 21440 net.cpp:91] Creating Layer lstm2_
I0925 22:11:39.784073 21440 net.cpp:425] lstm2_ <- c_1
I0925 22:11:39.784088 21440 net.cpp:399] lstm2_ -> c_T
I0925 22:11:39.784149 21440 net.cpp:141] Setting up lstm2_
I0925 22:11:39.784170 21440 net.cpp:148] Top shape: 1 1 1000 (1000)
I0925 22:11:39.784181 21440 net.cpp:156] Memory required for data: 94020
I0925 22:11:39.784193 21440 layer_factory.hpp:77] Creating layer lstm2_h_concat
I0925 22:11:39.784209 21440 net.cpp:91] Creating Layer lstm2_h_concat
I0925 22:11:39.784221 21440 net.cpp:425] lstm2_h_concat <- h_1
I0925 22:11:39.784241 21440 net.cpp:399] lstm2_h_concat -> h
I0925 22:11:39.784312 21440 net.cpp:141] Setting up lstm2_h_concat
I0925 22:11:39.784332 21440 net.cpp:148] Top shape: 1 1 1000 (1000)
I0925 22:11:39.784342 21440 net.cpp:156] Memory required for data: 98020
I0925 22:11:39.784353 21440 layer_factory.hpp:77] Creating layer h_pseudoloss
I0925 22:11:39.784369 21440 net.cpp:91] Creating Layer h_pseudoloss
I0925 22:11:39.784380 21440 net.cpp:425] h_pseudoloss <- h
I0925 22:11:39.784395 21440 net.cpp:399] h_pseudoloss -> h_pseudoloss
I0925 22:11:39.784569 21440 net.cpp:141] Setting up h_pseudoloss
…
I0925 22:11:39.784790 21440 net.cpp:219] lstm2_ does not need backward computation.
I0925 22:11:39.784798 21440 net.cpp:261] This network produces output c_T
I0925 22:11:39.784808 21440 net.cpp:261] This network produces output h_pseudoloss
I0925 22:11:39.784837 21440 net.cpp:274] Network initialization done.
I0925 22:11:39.784919 21440 recurrent_layer.cpp:150] Adding parameter 0: W_xc
I0925 22:11:39.784934 21440 recurrent_layer.cpp:150] Adding parameter 1: b_c
I0925 22:11:39.784943 21440 recurrent_layer.cpp:150] Adding parameter 2: W_hc
I0925 22:11:39.785132 21440 net.cpp:141] Setting up lstm2
I0925 22:11:39.785156 21440 net.cpp:148] Top shape: 1 1 1000 (1000)
I0925 22:11:39.785166 21440 net.cpp:156] Memory required for data: 36412
I0925 22:11:39.785194 21440 layer_factory.hpp:77] Creating layer predict
I0925 22:11:39.785218 21440 net.cpp:91] Creating Layer predict
I0925 22:11:39.785236 21440 net.cpp:425] predict <- lstm2
I0925 22:11:39.785256 21440 net.cpp:399] predict -> predict
I0925 22:11:39.891247 21466 net.cpp:141] Setting up lstm1_transform_1
I0925 22:11:39.891299 21466 net.cpp:148] Top shape: 1 1 4000 (4000)
I0925 22:11:39.891304 21466 net.cpp:156] Memory required for data: 62016
I0925 22:11:39.891299 21438 net.cpp:141] Setting up lstm2_cont_slice
I0925 22:11:39.891337 21438 net.cpp:148] Top shape: 1 1 (1)
I0925 22:11:39.891338 21466 layer_factory.hpp:77] Creating layer lstm1_gate_input_1
I0925 22:11:39.891343 21438 net.cpp:156] Memory required for data: 14012
I0925 22:11:39.891350 21438 layer_factory.hpp:77] Creating layer cont_1_lstm2_cont_slice_0_split
I0925 22:11:39.891362 21438 net.cpp:91] Creating Layer cont_1_lstm2_cont_slice_0_split
I0925 22:11:39.891363 21466 net.cpp:91] Creating Layer lstm1_gate_input_1
I0925 22:11:39.891369 21438 net.cpp:425] cont_1_lstm2_cont_slice_0_split <- cont_1
I0925 22:11:39.891371 21466 net.cpp:425] lstm1_gate_input_1 <- W_hc_h_0
I0925 22:11:39.891379 21466 net.cpp:425] lstm1_gate_input_1 <- W_xc_x_1
I0925 22:11:39.891381 21438 net.cpp:399] cont_1_lstm2_cont_slice_0_split -> cont_1_lstm2_cont_slice_0_split_0
I0925 22:11:39.891388 21466 net.cpp:399] lstm1_gate_input_1 -> gate_input_1
I0925 22:11:39.891394 21438 net.cpp:399] cont_1_lstm2_cont_slice_0_split -> cont_1_lstm2_cont_slice_0_split_1
I0925 22:11:39.891525 21472 net.cpp:141] Setting up lstm2_x_transform
I0925 22:11:39.891546 21472 net.cpp:148] Top shape: 1 1 4000 (4000)
I0925 22:11:39.891551 21472 net.cpp:156] Memory required for data: 30020
I0925 22:11:39.891567 21472 layer_factory.hpp:77] Creating layer lstm2_W_xc_x_slice
I0925 22:11:39.891579 21472 net.cpp:91] Creating Layer lstm2_W_xc_x_slice
I0925 22:11:39.891587 21472 net.cpp:425] lstm2_W_xc_x_slice <- W_xc_x
I0925 22:11:39.891595 21472 net.cpp:399] lstm2_W_xc_x_slice -> W_xc_x_1
I0925 22:11:39.892438 21466 net.cpp:141] Setting up lstm1_gate_input_1
I0925 22:11:39.892452 21466 net.cpp:148] Top shape: 1 1 4000 (4000)
I0925 22:11:39.892457 21466 net.cpp:156] Memory required for data: 78016
I0925 22:11:39.892462 21466 layer_factory.hpp:77] Creating layer lstm1_unit_1
I0925 22:11:39.892478 21466 net.cpp:91] Creating Layer lstm1_unit_1
I0925 22:11:39.892484 21466 net.cpp:425] lstm1_unit_1 <- c_0
I0925 22:11:39.892491 21466 net.cpp:425] lstm1_unit_1 <- gate_input_1
I0925 22:11:39.892498 21466 net.cpp:425] lstm1_unit_1 <- cont_1_lstm1_cont_slice_0_split_1
I0925 22:11:39.892504 21466 net.cpp:399] lstm1_unit_1 -> c_1
I0925 22:11:39.892515 21466 net.cpp:399] lstm1_unit_1 -> h_1
I0925 22:11:39.892525 21438 net.cpp:141] Setting up cont_1_lstm2_cont_slice_0_split
I0925 22:11:39.892546 21438 net.cpp:148] Top shape: 1 1 (1)
I0925 22:11:39.892554 21438 net.cpp:148] Top shape: 1 1 (1)
I0925 22:11:39.892559 21438 net.cpp:156] Memory required for data: 14020
I0925 22:11:39.892565 21438 layer_factory.hpp:77] Creating layer lstm2_x_transform
I0925 22:11:39.892565 21472 net.cpp:141] Setting up lstm2_W_xc_x_slice
I0925 22:11:39.892585 21472 net.cpp:148] Top shape: 1 1 4000 (4000)
I0925 22:11:39.892586 21438 net.cpp:91] Creating Layer lstm2_x_transform
I0925 22:11:39.892591 21472 net.cpp:156] Memory required for data: 46020
I0925 22:11:39.892594 21438 net.cpp:425] lstm2_x_transform <- x
I0925 22:11:39.892598 21472 layer_factory.hpp:77] Creating layer lstm2_h_conted_0
I0925 22:11:39.892604 21438 net.cpp:399] lstm2_x_transform -> W_xc_x
I0925 22:11:39.892611 21472 net.cpp:91] Creating Layer lstm2_h_conted_0
I0925 22:11:39.892617 21472 net.cpp:425] lstm2_h_conted_0 <- h_0
I0925 22:11:39.892626 21472 net.cpp:425] lstm2_h_conted_0 <- cont_1_lstm2_cont_slice_0_split_0
I0925 22:11:39.892634 21472 net.cpp:399] lstm2_h_conted_0 -> h_conted_0
I0925 22:11:39.892702 21466 net.cpp:141] Setting up lstm1_unit_1
I0925 22:11:39.892721 21466 net.cpp:148] Top shape: 1 1 1000 (1000)
I0925 22:11:39.892735 21466 net.cpp:148] Top shape: 1 1 1000 (1000)
I0925 22:11:39.892743 21466 net.cpp:156] Memory required for data: 86016
I0925 22:11:39.892753 21466 layer_factory.hpp:77] Creating layer lstm1_
I0925 22:11:39.892765 21466 net.cpp:91] Creating Layer lstm1_
I0925 22:11:39.892771 21466 net.cpp:425] lstm1_ <- c_1
I0925 22:11:39.892784 21466 net.cpp:399] lstm1_ -> c_T
I0925 22:11:39.893012 21442 net.cpp:141] Setting up lstm2_x_transform
I0925 22:11:39.893028 21442 net.cpp:148] Top shape: 1 1 4000 (4000)
I0925 22:11:39.893033 21442 net.cpp:156] Memory required for data: 30020
I0925 22:11:39.893050 21442 layer_factory.hpp:77] Creating layer lstm2_W_xc_x_slice
I0925 22:11:39.893069 21442 net.cpp:91] Creating Layer lstm2_W_xc_x_slice
I0925 22:11:39.893077 21442 net.cpp:425] lstm2_W_xc_x_slice <- W_xc_x
I0925 22:11:39.893086 21442 net.cpp:399] lstm2_W_xc_x_slice -> W_xc_x_1
I0925 22:11:39.893106 21472 net.cpp:141] Setting up lstm2_h_conted_0
I0925 22:11:39.893121 21472 net.cpp:148] Top shape: 1 1 1000 (1000)
I0925 22:11:39.893126 21472 net.cpp:156] Memory required for data: 50020
I0925 22:11:39.893131 21472 layer_factory.hpp:77] Creating layer lstm2_transform_1
I0925 22:11:39.893144 21472 net.cpp:91] Creating Layer lstm2_transform_1
I0925 22:11:39.893146 21442 net.cpp:141] Setting up lstm2_W_xc_x_slice
I0925 22:11:39.893151 21472 net.cpp:425] lstm2_transform_1 <- h_conted_0
I0925 22:11:39.893169 21442 net.cpp:148] Top shape: 1 1 4000 (4000)
I0925 22:11:39.893174 21442 net.cpp:156] Memory required for data: 46020
I0925 22:11:39.893175 21472 net.cpp:399] lstm2_transform_1 -> W_hc_h_0
I0925 22:11:39.893180 21442 layer_factory.hpp:77] Creating layer lstm2_h_conted_0
I0925 22:11:39.893190 21442 net.cpp:91] Creating Layer lstm2_h_conted_0
I0925 22:11:39.893196 21442 net.cpp:425] lstm2_h_conted_0 <- h_0
I0925 22:11:39.893203 21442 net.cpp:425] lstm2_h_conted_0 <- cont_1_lstm2_cont_slice_0_split_0
I0925 22:11:39.893244 21442 net.cpp:399] lstm2_h_conted_0 -> h_conted_0
I0925 22:11:39.906111 21466 net.cpp:141] Setting up lstm1_
I0925 22:11:39.906177 21466 net.cpp:148] Top shape: 1 1 1000 (1000)
I0925 22:11:39.906189 21466 net.cpp:156] Memory required for data: 90016
I0925 22:11:39.906203 21466 layer_factory.hpp:77] Creating layer lstm1_h_concat
I0925 22:11:39.906229 21466 net.cpp:91] Creating Layer lstm1_h_concat
I0925 22:11:39.906241 21466 net.cpp:425] lstm1_h_concat <- h_1
I0925 22:11:39.906340 21466 net.cpp:399] lstm1_h_concat -> h
I0925 22:11:39.922358 21442 net.cpp:141] Setting up lstm2_h_conted_0
I0925 22:11:39.922416 21442 net.cpp:148] Top shape: 1 1 1000 (1000)
I0925 22:11:39.922427 21442 net.cpp:156] Memory required for data: 50020
I0925 22:11:39.922441 21442 layer_factory.hpp:77] Creating layer lstm2_transform_1
I0925 22:11:39.922472 21442 net.cpp:91] Creating Layer lstm2_transform_1
I0925 22:11:39.922484 21442 net.cpp:425] lstm2_transform_1 <- h_conted_0
I0925 22:11:39.922502 21442 net.cpp:399] lstm2_transform_1 -> W_hc_h_0
I0925 22:11:39.922549 21466 net.cpp:141] Setting up lstm1_h_concat
I0925 22:11:39.922564 21466 net.cpp:148] Top shape: 1 1 1000 (1000)
I0925 22:11:39.922572 21466 net.cpp:156] Memory required for data: 94016
I0925 22:11:39.922582 21466 layer_factory.hpp:77] Creating layer h_pseudoloss
I0925 22:11:39.922616 21466 net.cpp:91] Creating Layer h_pseudoloss
I0925 22:11:39.922629 21466 net.cpp:425] h_pseudoloss <- h
I0925 22:11:39.922642 21466 net.cpp:399] h_pseudoloss -> h_pseudoloss
I0925 22:11:39.934769 21466 net.cpp:141] Setting up h_pseudoloss
…
I0925 22:11:39.935140 21466 net.cpp:219] lstm1_ does not need backward computation.
I0925 22:11:39.935153 21466 net.cpp:261] This network produces output c_T
I0925 22:11:39.935169 21466 net.cpp:261] This network produces output h_pseudoloss
I0925 22:11:39.935209 21466 net.cpp:274] Network initialization done.
I0925 22:11:39.935329 21466 recurrent_layer.cpp:150] Adding parameter 0: W_xc
I0925 22:11:39.935351 21466 recurrent_layer.cpp:150] Adding parameter 1: b_c
I0925 22:11:39.935365 21466 recurrent_layer.cpp:150] Adding parameter 2: W_hc
I0925 22:11:39.937266 21466 net.cpp:141] Setting up lstm1
I0925 22:11:39.937299 21466 net.cpp:148] Top shape: 1 1 1000 (1000)
I0925 22:11:39.937307 21466 net.cpp:156] Memory required for data: 26408
I0925 22:11:39.937335 21466 layer_factory.hpp:77] Creating layer concat
I0925 22:11:39.937366 21466 net.cpp:91] Creating Layer concat
I0925 22:11:39.937376 21466 net.cpp:425] concat <- lstm1
I0925 22:11:39.937388 21466 net.cpp:425] concat <- embedded_input_sentence
I0925 22:11:39.937397 21466 net.cpp:425] concat <- reshaped_stage_indicator
I0925 22:11:39.937410 21466 net.cpp:399] concat -> lstm1_video_sequence
I0925 22:11:39.937474 21466 net.cpp:141] Setting up concat
I0925 22:11:39.937490 21466 net.cpp:148] Top shape: 1 1 1501 (1501)
I0925 22:11:39.937497 21466 net.cpp:156] Memory required for data: 32412
I0925 22:11:39.937505 21466 layer_factory.hpp:77] Creating layer lstm2
I0925 22:11:39.937525 21466 net.cpp:91] Creating Layer lstm2
I0925 22:11:39.937533 21466 net.cpp:425] lstm2 <- lstm1_video_sequence
I0925 22:11:39.937544 21466 net.cpp:425] lstm2 <- cont_sentence_input_1_split_1
I0925 22:11:39.937557 21466 net.cpp:399] lstm2 -> lstm2
I0925 22:11:39.937574 21466 recurrent_layer.cpp:20] Initializing recurrent layer: assuming input batch contains 1 timesteps of 1 independent streams.
I0925 22:11:39.937981 21466 net.cpp:49] Initializing net from parameters: 
layer {
  name: "lstm2_"
  type: "Input"
  top: "x"
  top: "cont"
  input_param {
    shape {
      dim: 1
      dim: 1
      dim: 1501
    }
    shape {
      dim: 1
      dim: 1
    }
  }
}
layer {
  name: "lstm2_"
  type: "Input"
  top: "c_0"
  top: "h_0"
  input_param {
    shape {
      dim: 1
      dim: 1
      dim: 1000
    }
    shape {
      dim: 1
      dim: 1
      dim: 1000
    }
  }
}
layer {
  name: "lstm2_cont_slice"
  type: "Slice"
  bottom: "cont"
  top: "cont_1"
  slice_param {
    axis: 0
  }
}
layer {
  name: "lstm2_x_transform"
  type: "InnerProduct"
  bottom: "x"
  top: "W_xc_x"
  param {
    name: "W_xc"
  }
  param {
    name: "b_c"
  }
  propagate_down: true
  inner_product_param {
    num_output: 4000
    bias_term: true
    weight_filler {
      type: "uniform"
      min: -0.08
      max: 0.08
    }
    bias_filler {
      type: "constant"
      value: 0
    }
    axis: 2
  }
}
layer {
  name: "lstm2_W_xc_x_slice"
  type: "Slice"
  bottom: "W_xc_x"
  top: "W_xc_x_1"
  slice_param {
    axis: 0
  }
}
layer {
  name: "lstm2_h_conted_0"
  type: "Scale"
  bottom: "h_0"
  bottom: "cont_1"
  top: "h_conted_0"
  scale_param {
    axis: 0
  }
}
layer {
  name: "lstm2_transform_1"
  type: "InnerProduct"
  bottom: "h_conted_0"
  top: "W_hc_h_0"
  param {
    name: "W_hc"
  }
  inner_product_param {
    num_output: 4000
    bias_term: false
    weight_filler {
      type: "uniform"
      min: -0.08
      max: 0.08
    }
    axis: 2
  }
}
layer {
  name: "lstm2_gate_input_1"
  type: "Eltwise"
  bottom: "W_hc_h_0"
  bottom: "W_xc_x_1"
  top: "gate_input_1"
  eltwise_param {
    operation: SUM
  }
}
layer {
  name: "lstm2_unit_1"
  type: "LSTMUnit"
  bottom: "c_0"
  bottom: "gate_input_1"
  bottom: "cont_1"
  top: "c_1"
  top: "h_1"
}
layer {
  name: "lstm2_"
  type: "Split"
  bottom: "c_1"
  top: "c_T"
}
layer {
  name: "lstm2_h_concat"
  type: "Concat"
  bottom: "h_1"
  top: "h"
  concat_param {
    axis: 0
  }
}
layer {
  name: "h_pseudoloss"
  type: "Reduction"
  bottom: "h"
  top: "h_pseudoloss"
  loss_weight: 1
}
I0925 22:11:39.938160 21466 layer_factory.hpp:77] Creating layer lstm2_
I0925 22:11:39.938181 21466 net.cpp:91] Creating Layer lstm2_
I0925 22:11:39.938192 21466 net.cpp:399] lstm2_ -> x
I0925 22:11:39.938210 21466 net.cpp:399] lstm2_ -> cont
I0925 22:11:39.945926 21466 net.cpp:141] Setting up lstm2_
I0925 22:11:39.945971 21466 net.cpp:148] Top shape: 1 1 1501 (1501)
I0925 22:11:39.945983 21466 net.cpp:148] Top shape: 1 1 (1)
I0925 22:11:39.945991 21466 net.cpp:156] Memory required for data: 6008
I0925 22:11:39.946005 21466 layer_factory.hpp:77] Creating layer lstm2_
I0925 22:11:39.946144 21466 net.cpp:91] Creating Layer lstm2_
I0925 22:11:39.946161 21466 net.cpp:399] lstm2_ -> c_0
I0925 22:11:39.946187 21466 net.cpp:399] lstm2_ -> h_0
I0925 22:11:39.957033 21472 net.cpp:141] Setting up lstm2_transform_1
I0925 22:11:39.957096 21472 net.cpp:148] Top shape: 1 1 4000 (4000)
I0925 22:11:39.957094 21466 net.cpp:141] Setting up lstm2_
I0925 22:11:39.957103 21472 net.cpp:156] Memory required for data: 66020
I0925 22:11:39.957123 21466 net.cpp:148] Top shape: 1 1 1000 (1000)
I0925 22:11:39.957134 21472 layer_factory.hpp:77] Creating layer lstm2_gate_input_1
I0925 22:11:39.957134 21466 net.cpp:148] Top shape: 1 1 1000 (1000)
I0925 22:11:39.957164 21466 net.cpp:156] Memory required for data: 14008
I0925 22:11:39.957172 21472 net.cpp:91] Creating Layer lstm2_gate_input_1
I0925 22:11:39.957173 21466 layer_factory.hpp:77] Creating layer lstm2_cont_slice
I0925 22:11:39.957180 21472 net.cpp:425] lstm2_gate_input_1 <- W_hc_h_0
I0925 22:11:39.957188 21472 net.cpp:425] lstm2_gate_input_1 <- W_xc_x_1
I0925 22:11:39.957191 21466 net.cpp:91] Creating Layer lstm2_cont_slice
I0925 22:11:39.957197 21472 net.cpp:399] lstm2_gate_input_1 -> gate_input_1
I0925 22:11:39.957201 21466 net.cpp:425] lstm2_cont_slice <- cont
I0925 22:11:39.957216 21466 net.cpp:399] lstm2_cont_slice -> cont_1
I0925 22:11:39.961990 21472 net.cpp:141] Setting up lstm2_gate_input_1
I0925 22:11:39.962069 21472 net.cpp:148] Top shape: 1 1 4000 (4000)
I0925 22:11:39.962080 21472 net.cpp:156] Memory required for data: 82020
I0925 22:11:39.962097 21472 layer_factory.hpp:77] Creating layer lstm2_unit_1
I0925 22:11:39.962131 21472 net.cpp:91] Creating Layer lstm2_unit_1
I0925 22:11:39.962146 21472 net.cpp:425] lstm2_unit_1 <- c_0
I0925 22:11:39.962163 21472 net.cpp:425] lstm2_unit_1 <- gate_input_1
I0925 22:11:39.962175 21472 net.cpp:425] lstm2_unit_1 <- cont_1_lstm2_cont_slice_0_split_1
I0925 22:11:39.962193 21472 net.cpp:399] lstm2_unit_1 -> c_1
I0925 22:11:39.962215 21472 net.cpp:399] lstm2_unit_1 -> h_1
I0925 22:11:39.962379 21472 net.cpp:141] Setting up lstm2_unit_1
I0925 22:11:39.962405 21472 net.cpp:148] Top shape: 1 1 1000 (1000)
I0925 22:11:39.962424 21472 net.cpp:148] Top shape: 1 1 1000 (1000)
I0925 22:11:39.962494 21472 net.cpp:156] Memory required for data: 90020
I0925 22:11:39.962510 21472 layer_factory.hpp:77] Creating layer lstm2_
I0925 22:11:39.962532 21472 net.cpp:91] Creating Layer lstm2_
I0925 22:11:39.962544 21472 net.cpp:425] lstm2_ <- c_1
I0925 22:11:39.962558 21472 net.cpp:399] lstm2_ -> c_T
I0925 22:11:39.962643 21472 net.cpp:141] Setting up lstm2_
I0925 22:11:39.962666 21472 net.cpp:148] Top shape: 1 1 1000 (1000)
I0925 22:11:39.962676 21472 net.cpp:156] Memory required for data: 94020
I0925 22:11:39.962687 21472 layer_factory.hpp:77] Creating layer lstm2_h_concat
I0925 22:11:39.962713 21472 net.cpp:91] Creating Layer lstm2_h_concat
I0925 22:11:39.962724 21472 net.cpp:425] lstm2_h_concat <- h_1
I0925 22:11:39.962741 21472 net.cpp:399] lstm2_h_concat -> h
I0925 22:11:39.962821 21472 net.cpp:141] Setting up lstm2_h_concat
I0925 22:11:39.962841 21472 net.cpp:148] Top shape: 1 1 1000 (1000)
I0925 22:11:39.962851 21472 net.cpp:156] Memory required for data: 98020
I0925 22:11:39.962862 21472 layer_factory.hpp:77] Creating layer h_pseudoloss
I0925 22:11:39.962879 21472 net.cpp:91] Creating Layer h_pseudoloss
I0925 22:11:39.962890 21472 net.cpp:425] h_pseudoloss <- h
I0925 22:11:39.962913 21472 net.cpp:399] h_pseudoloss -> h_pseudoloss
I0925 22:11:39.963112 21472 net.cpp:141] Setting up h_pseudoloss
…
I0925 22:11:39.963323 21472 net.cpp:219] lstm2_ does not need backward computation.
I0925 22:11:39.963331 21472 net.cpp:261] This network produces output c_T
I0925 22:11:39.963341 21472 net.cpp:261] This network produces output h_pseudoloss
I0925 22:11:39.963374 21472 net.cpp:274] Network initialization done.
I0925 22:11:39.963461 21472 recurrent_layer.cpp:150] Adding parameter 0: W_xc
I0925 22:11:39.963475 21472 recurrent_layer.cpp:150] Adding parameter 1: b_c
I0925 22:11:39.963485 21472 recurrent_layer.cpp:150] Adding parameter 2: W_hc
I0925 22:11:39.963713 21472 net.cpp:141] Setting up lstm2
I0925 22:11:39.963740 21472 net.cpp:148] Top shape: 1 1 1000 (1000)
I0925 22:11:39.963753 21472 net.cpp:156] Memory required for data: 36412
I0925 22:11:39.963793 21472 layer_factory.hpp:77] Creating layer predict
I0925 22:11:39.963821 21472 net.cpp:91] Creating Layer predict
I0925 22:11:39.963835 21472 net.cpp:425] predict <- lstm2
I0925 22:11:39.963848 21472 net.cpp:399] predict -> predict
I0925 22:11:40.052140 21466 net.cpp:141] Setting up lstm2_cont_slice
I0925 22:11:40.052202 21466 net.cpp:148] Top shape: 1 1 (1)
I0925 22:11:40.052213 21466 net.cpp:156] Memory required for data: 14012
I0925 22:11:40.052227 21466 layer_factory.hpp:77] Creating layer cont_1_lstm2_cont_slice_0_split
I0925 22:11:40.052245 21442 net.cpp:141] Setting up lstm2_transform_1
I0925 22:11:40.052249 21466 net.cpp:91] Creating Layer cont_1_lstm2_cont_slice_0_split
I0925 22:11:40.052270 21442 net.cpp:148] Top shape: 1 1 4000 (4000)
I0925 22:11:40.052273 21466 net.cpp:425] cont_1_lstm2_cont_slice_0_split <- cont_1
I0925 22:11:40.052280 21442 net.cpp:156] Memory required for data: 66020
I0925 22:11:40.052294 21466 net.cpp:399] cont_1_lstm2_cont_slice_0_split -> cont_1_lstm2_cont_slice_0_split_0
I0925 22:11:40.052301 21442 layer_factory.hpp:77] Creating layer lstm2_gate_input_1
I0925 22:11:40.052314 21466 net.cpp:399] cont_1_lstm2_cont_slice_0_split -> cont_1_lstm2_cont_slice_0_split_1
I0925 22:11:40.052326 21442 net.cpp:91] Creating Layer lstm2_gate_input_1
I0925 22:11:40.052338 21442 net.cpp:425] lstm2_gate_input_1 <- W_hc_h_0
I0925 22:11:40.052351 21442 net.cpp:425] lstm2_gate_input_1 <- W_xc_x_1
I0925 22:11:40.052366 21442 net.cpp:399] lstm2_gate_input_1 -> gate_input_1
I0925 22:11:40.052467 21438 net.cpp:141] Setting up lstm2_x_transform
I0925 22:11:40.052489 21442 net.cpp:141] Setting up lstm2_gate_input_1
I0925 22:11:40.052495 21438 net.cpp:148] Top shape: 1 1 4000 (4000)
I0925 22:11:40.052505 21438 net.cpp:156] Memory required for data: 30020
I0925 22:11:40.052506 21442 net.cpp:148] Top shape: 1 1 4000 (4000)
I0925 22:11:40.052516 21442 net.cpp:156] Memory required for data: 82020
I0925 22:11:40.052525 21442 layer_factory.hpp:77] Creating layer lstm2_unit_1
I0925 22:11:40.052527 21438 layer_factory.hpp:77] Creating layer lstm2_W_xc_x_slice
I0925 22:11:40.052547 21442 net.cpp:91] Creating Layer lstm2_unit_1
I0925 22:11:40.052547 21438 net.cpp:91] Creating Layer lstm2_W_xc_x_slice
I0925 22:11:40.052563 21442 net.cpp:425] lstm2_unit_1 <- c_0
I0925 22:11:40.052579 21442 net.cpp:425] lstm2_unit_1 <- gate_input_1
I0925 22:11:40.052577 21438 net.cpp:425] lstm2_W_xc_x_slice <- W_xc_x
I0925 22:11:40.052585 21442 net.cpp:425] lstm2_unit_1 <- cont_1_lstm2_cont_slice_0_split_1
I0925 22:11:40.052593 21442 net.cpp:399] lstm2_unit_1 -> c_1
I0925 22:11:40.052604 21442 net.cpp:399] lstm2_unit_1 -> h_1
I0925 22:11:40.052605 21438 net.cpp:399] lstm2_W_xc_x_slice -> W_xc_x_1
I0925 22:11:40.055570 21438 net.cpp:141] Setting up lstm2_W_xc_x_slice
I0925 22:11:40.055611 21466 net.cpp:141] Setting up cont_1_lstm2_cont_slice_0_split
I0925 22:11:40.055627 21438 net.cpp:148] Top shape: 1 1 4000 (4000)
I0925 22:11:40.055661 21466 net.cpp:148] Top shape: 1 1 (1)
I0925 22:11:40.055661 21438 net.cpp:156] Memory required for data: 46020
I0925 22:11:40.055682 21466 net.cpp:148] Top shape: 1 1 (1)
I0925 22:11:40.055692 21466 net.cpp:156] Memory required for data: 14020
I0925 22:11:40.055686 21438 layer_factory.hpp:77] Creating layer lstm2_h_conted_0
I0925 22:11:40.055686 21442 net.cpp:141] Setting up lstm2_unit_1
I0925 22:11:40.055709 21466 layer_factory.hpp:77] Creating layer lstm2_x_transform
I0925 22:11:40.055719 21442 net.cpp:148] Top shape: 1 1 1000 (1000)
I0925 22:11:40.055723 21438 net.cpp:91] Creating Layer lstm2_h_conted_0
I0925 22:11:40.055732 21442 net.cpp:148] Top shape: 1 1 1000 (1000)
I0925 22:11:40.055737 21438 net.cpp:425] lstm2_h_conted_0 <- h_0
I0925 22:11:40.055740 21442 net.cpp:156] Memory required for data: 90020
I0925 22:11:40.055750 21442 layer_factory.hpp:77] Creating layer lstm2_
I0925 22:11:40.055737 21466 net.cpp:91] Creating Layer lstm2_x_transform
I0925 22:11:40.055764 21442 net.cpp:91] Creating Layer lstm2_
I0925 22:11:40.055768 21466 net.cpp:425] lstm2_x_transform <- x
I0925 22:11:40.055775 21442 net.cpp:425] lstm2_ <- c_1
I0925 22:11:40.055768 21438 net.cpp:425] lstm2_h_conted_0 <- cont_1_lstm2_cont_slice_0_split_0
I0925 22:11:40.055796 21442 net.cpp:399] lstm2_ -> c_T
I0925 22:11:40.055804 21466 net.cpp:399] lstm2_x_transform -> W_xc_x
I0925 22:11:40.055827 21438 net.cpp:399] lstm2_h_conted_0 -> h_conted_0
I0925 22:11:40.057395 21442 net.cpp:141] Setting up lstm2_
I0925 22:11:40.057440 21442 net.cpp:148] Top shape: 1 1 1000 (1000)
I0925 22:11:40.057451 21442 net.cpp:156] Memory required for data: 94020
I0925 22:11:40.057463 21442 layer_factory.hpp:77] Creating layer lstm2_h_concat
I0925 22:11:40.057481 21442 net.cpp:91] Creating Layer lstm2_h_concat
I0925 22:11:40.057487 21442 net.cpp:425] lstm2_h_concat <- h_1
I0925 22:11:40.057498 21442 net.cpp:399] lstm2_h_concat -> h
I0925 22:11:40.072100 21442 net.cpp:141] Setting up lstm2_h_concat
I0925 22:11:40.072172 21438 net.cpp:141] Setting up lstm2_h_conted_0
I0925 22:11:40.072190 21442 net.cpp:148] Top shape: 1 1 1000 (1000)
I0925 22:11:40.072198 21438 net.cpp:148] Top shape: 1 1 1000 (1000)
I0925 22:11:40.072227 21438 net.cpp:156] Memory required for data: 50020
I0925 22:11:40.072226 21442 net.cpp:156] Memory required for data: 98020
I0925 22:11:40.072254 21438 layer_factory.hpp:77] Creating layer lstm2_transform_1
I0925 22:11:40.072268 21442 layer_factory.hpp:77] Creating layer h_pseudoloss
I0925 22:11:40.072286 21438 net.cpp:91] Creating Layer lstm2_transform_1
I0925 22:11:40.072299 21438 net.cpp:425] lstm2_transform_1 <- h_conted_0
…
I0925 22:11:40.089782 21442 net.cpp:219] lstm2_ does not need backward computation.
I0925 22:11:40.089789 21442 net.cpp:261] This network produces output c_T
I0925 22:11:40.089800 21442 net.cpp:261] This network produces output h_pseudoloss
I0925 22:11:40.089829 21442 net.cpp:274] Network initialization done.
I0925 22:11:40.089912 21442 recurrent_layer.cpp:150] Adding parameter 0: W_xc
I0925 22:11:40.089923 21442 recurrent_layer.cpp:150] Adding parameter 1: b_c
I0925 22:11:40.089931 21442 recurrent_layer.cpp:150] Adding parameter 2: W_hc
I0925 22:11:40.095824 21442 net.cpp:141] Setting up lstm2
I0925 22:11:40.095880 21442 net.cpp:148] Top shape: 1 1 1000 (1000)
I0925 22:11:40.095887 21442 net.cpp:156] Memory required for data: 36412
I0925 22:11:40.095918 21442 layer_factory.hpp:77] Creating layer predict
I0925 22:11:40.095943 21442 net.cpp:91] Creating Layer predict
I0925 22:11:40.095954 21442 net.cpp:425] predict <- lstm2
I0925 22:11:40.095970 21442 net.cpp:399] predict -> predict
I0925 22:11:40.209611 21438 net.cpp:141] Setting up lstm2_transform_1
I0925 22:11:40.209672 21438 net.cpp:148] Top shape: 1 1 4000 (4000)
I0925 22:11:40.209679 21438 net.cpp:156] Memory required for data: 66020
I0925 22:11:40.209707 21438 layer_factory.hpp:77] Creating layer lstm2_gate_input_1
I0925 22:11:40.209738 21438 net.cpp:91] Creating Layer lstm2_gate_input_1
I0925 22:11:40.209748 21438 net.cpp:425] lstm2_gate_input_1 <- W_hc_h_0
I0925 22:11:40.209758 21438 net.cpp:425] lstm2_gate_input_1 <- W_xc_x_1
I0925 22:11:40.209766 21438 net.cpp:399] lstm2_gate_input_1 -> gate_input_1
I0925 22:11:40.209940 21438 net.cpp:141] Setting up lstm2_gate_input_1
I0925 22:11:40.209952 21438 net.cpp:148] Top shape: 1 1 4000 (4000)
I0925 22:11:40.209957 21438 net.cpp:156] Memory required for data: 82020
I0925 22:11:40.209964 21438 layer_factory.hpp:77] Creating layer lstm2_unit_1
I0925 22:11:40.209975 21438 net.cpp:91] Creating Layer lstm2_unit_1
I0925 22:11:40.209980 21438 net.cpp:425] lstm2_unit_1 <- c_0
I0925 22:11:40.209991 21438 net.cpp:425] lstm2_unit_1 <- gate_input_1
I0925 22:11:40.209998 21438 net.cpp:425] lstm2_unit_1 <- cont_1_lstm2_cont_slice_0_split_1
I0925 22:11:40.210006 21438 net.cpp:399] lstm2_unit_1 -> c_1
I0925 22:11:40.210016 21438 net.cpp:399] lstm2_unit_1 -> h_1
I0925 22:11:40.210127 21448 net.cpp:141] Setting up predict
I0925 22:11:40.210147 21448 net.cpp:148] Top shape: 1 1 46168 (46168)
I0925 22:11:40.210153 21448 net.cpp:156] Memory required for data: 221084
I0925 22:11:40.210166 21448 layer_factory.hpp:77] Creating layer probs
I0925 22:11:40.210180 21448 net.cpp:91] Creating Layer probs
I0925 22:11:40.210186 21448 net.cpp:425] probs <- predict
I0925 22:11:40.210189 21438 net.cpp:141] Setting up lstm2_unit_1
I0925 22:11:40.210196 21448 net.cpp:399] probs -> probs
I0925 22:11:40.210202 21438 net.cpp:148] Top shape: 1 1 1000 (1000)
I0925 22:11:40.210211 21438 net.cpp:148] Top shape: 1 1 1000 (1000)
I0925 22:11:40.210214 21438 net.cpp:156] Memory required for data: 90020
I0925 22:11:40.210221 21438 layer_factory.hpp:77] Creating layer lstm2_
I0925 22:11:40.210229 21438 net.cpp:91] Creating Layer lstm2_
I0925 22:11:40.210235 21438 net.cpp:425] lstm2_ <- c_1
I0925 22:11:40.210243 21438 net.cpp:399] lstm2_ -> c_T
I0925 22:11:40.210315 21438 net.cpp:141] Setting up lstm2_
I0925 22:11:40.210327 21438 net.cpp:148] Top shape: 1 1 1000 (1000)
I0925 22:11:40.210333 21438 net.cpp:156] Memory required for data: 94020
I0925 22:11:40.210338 21438 layer_factory.hpp:77] Creating layer lstm2_h_concat
I0925 22:11:40.210351 21438 net.cpp:91] Creating Layer lstm2_h_concat
I0925 22:11:40.210356 21438 net.cpp:425] lstm2_h_concat <- h_1
I0925 22:11:40.210364 21438 net.cpp:399] lstm2_h_concat -> h
I0925 22:11:40.210409 21466 net.cpp:141] Setting up lstm2_x_transform
I0925 22:11:40.210417 21438 net.cpp:141] Setting up lstm2_h_concat
I0925 22:11:40.210456 21438 net.cpp:148] Top shape: 1 1 1000 (1000)
I0925 22:11:40.210459 21466 net.cpp:148] Top shape: 1 1 4000 (4000)
I0925 22:11:40.210466 21438 net.cpp:156] Memory required for data: 98020
I0925 22:11:40.210485 21466 net.cpp:156] Memory required for data: 30020
I0925 22:11:40.210489 21438 layer_factory.hpp:77] Creating layer h_pseudoloss
I0925 22:11:40.210517 21438 net.cpp:91] Creating Layer h_pseudoloss
I0925 22:11:40.210523 21438 net.cpp:425] h_pseudoloss <- h
I0925 22:11:40.210542 21438 net.cpp:399] h_pseudoloss -> h_pseudoloss
I0925 22:11:40.210546 21466 layer_factory.hpp:77] Creating layer lstm2_W_xc_x_slice
I0925 22:11:40.210580 21466 net.cpp:91] Creating Layer lstm2_W_xc_x_slice
I0925 22:11:40.210628 21466 net.cpp:425] lstm2_W_xc_x_slice <- W_xc_x
I0925 22:11:40.210659 21466 net.cpp:399] lstm2_W_xc_x_slice -> W_xc_x_1
I0925 22:11:40.215646 21466 net.cpp:141] Setting up lstm2_W_xc_x_slice
I0925 22:11:40.215718 21466 net.cpp:148] Top shape: 1 1 4000 (4000)
I0925 22:11:40.215736 21466 net.cpp:156] Memory required for data: 46020
I0925 22:11:40.215755 21466 layer_factory.hpp:77] Creating layer lstm2_h_conted_0
I0925 22:11:40.215759 21438 net.cpp:141] Setting up h_pseudoloss
I0925 22:11:40.215781 21438 net.cpp:148] Top shape: (1)
I0925 22:11:40.215796 21466 net.cpp:91] Creating Layer lstm2_h_conted_0
I0925 22:11:40.215787 21438 net.cpp:151]     with loss weight 1
…
I0925 22:11:40.215965 21438 net.cpp:219] lstm2_ does not need backward computation.
I0925 22:11:40.215968 21438 net.cpp:261] This network produces output c_T
I0925 22:11:40.215975 21438 net.cpp:261] This network produces output h_pseudoloss
I0925 22:11:40.215992 21438 net.cpp:274] Network initialization done.
I0925 22:11:40.216059 21438 recurrent_layer.cpp:150] Adding parameter 0: W_xc
I0925 22:11:40.216068 21438 recurrent_layer.cpp:150] Adding parameter 1: b_c
I0925 22:11:40.216073 21438 recurrent_layer.cpp:150] Adding parameter 2: W_hc
I0925 22:11:40.216270 21466 net.cpp:141] Setting up lstm2_h_conted_0
I0925 22:11:40.216300 21466 net.cpp:148] Top shape: 1 1 1000 (1000)
I0925 22:11:40.216315 21466 net.cpp:156] Memory required for data: 50020
I0925 22:11:40.216331 21466 layer_factory.hpp:77] Creating layer lstm2_transform_1
I0925 22:11:40.216367 21466 net.cpp:91] Creating Layer lstm2_transform_1
I0925 22:11:40.216385 21466 net.cpp:425] lstm2_transform_1 <- h_conted_0
I0925 22:11:40.216457 21466 net.cpp:399] lstm2_transform_1 -> W_hc_h_0
I0925 22:11:40.217800 21438 net.cpp:141] Setting up lstm2
I0925 22:11:40.217824 21438 net.cpp:148] Top shape: 1 1 1000 (1000)
I0925 22:11:40.217830 21438 net.cpp:156] Memory required for data: 36412
I0925 22:11:40.217854 21438 layer_factory.hpp:77] Creating layer predict
I0925 22:11:40.217870 21438 net.cpp:91] Creating Layer predict
I0925 22:11:40.217878 21438 net.cpp:425] predict <- lstm2
I0925 22:11:40.217887 21438 net.cpp:399] predict -> predict
I0925 22:11:40.339121 21466 net.cpp:141] Setting up lstm2_transform_1
I0925 22:11:40.339181 21466 net.cpp:148] Top shape: 1 1 4000 (4000)
I0925 22:11:40.339191 21466 net.cpp:156] Memory required for data: 66020
I0925 22:11:40.339218 21466 layer_factory.hpp:77] Creating layer lstm2_gate_input_1
I0925 22:11:40.339247 21466 net.cpp:91] Creating Layer lstm2_gate_input_1
I0925 22:11:40.339258 21466 net.cpp:425] lstm2_gate_input_1 <- W_hc_h_0
I0925 22:11:40.339272 21466 net.cpp:425] lstm2_gate_input_1 <- W_xc_x_1
I0925 22:11:40.339290 21466 net.cpp:399] lstm2_gate_input_1 -> gate_input_1
I0925 22:11:40.341190 21466 net.cpp:141] Setting up lstm2_gate_input_1
I0925 22:11:40.341235 21466 net.cpp:148] Top shape: 1 1 4000 (4000)
I0925 22:11:40.341243 21466 net.cpp:156] Memory required for data: 82020
I0925 22:11:40.341255 21466 layer_factory.hpp:77] Creating layer lstm2_unit_1
I0925 22:11:40.341280 21466 net.cpp:91] Creating Layer lstm2_unit_1
I0925 22:11:40.341291 21466 net.cpp:425] lstm2_unit_1 <- c_0
I0925 22:11:40.341306 21466 net.cpp:425] lstm2_unit_1 <- gate_input_1
I0925 22:11:40.341316 21466 net.cpp:425] lstm2_unit_1 <- cont_1_lstm2_cont_slice_0_split_1
I0925 22:11:40.341330 21466 net.cpp:399] lstm2_unit_1 -> c_1
I0925 22:11:40.341356 21466 net.cpp:399] lstm2_unit_1 -> h_1
I0925 22:11:40.341496 21466 net.cpp:141] Setting up lstm2_unit_1
I0925 22:11:40.341512 21466 net.cpp:148] Top shape: 1 1 1000 (1000)
I0925 22:11:40.341523 21466 net.cpp:148] Top shape: 1 1 1000 (1000)
I0925 22:11:40.341531 21466 net.cpp:156] Memory required for data: 90020
I0925 22:11:40.341538 21466 layer_factory.hpp:77] Creating layer lstm2_
I0925 22:11:40.341552 21466 net.cpp:91] Creating Layer lstm2_
I0925 22:11:40.341562 21466 net.cpp:425] lstm2_ <- c_1
I0925 22:11:40.341573 21466 net.cpp:399] lstm2_ -> c_T
I0925 22:11:40.341665 21466 net.cpp:141] Setting up lstm2_
I0925 22:11:40.341681 21466 net.cpp:148] Top shape: 1 1 1000 (1000)
I0925 22:11:40.341688 21466 net.cpp:156] Memory required for data: 94020
I0925 22:11:40.341696 21466 layer_factory.hpp:77] Creating layer lstm2_h_concat
I0925 22:11:40.341711 21466 net.cpp:91] Creating Layer lstm2_h_concat
I0925 22:11:40.341720 21466 net.cpp:425] lstm2_h_concat <- h_1
I0925 22:11:40.341740 21466 net.cpp:399] lstm2_h_concat -> h
I0925 22:11:40.345018 21466 net.cpp:141] Setting up lstm2_h_concat
I0925 22:11:40.345065 21466 net.cpp:148] Top shape: 1 1 1000 (1000)
I0925 22:11:40.345074 21466 net.cpp:156] Memory required for data: 98020
I0925 22:11:40.345087 21466 layer_factory.hpp:77] Creating layer h_pseudoloss
I0925 22:11:40.345178 21466 net.cpp:91] Creating Layer h_pseudoloss
I0925 22:11:40.345192 21466 net.cpp:425] h_pseudoloss <- h
I0925 22:11:40.345211 21466 net.cpp:399] h_pseudoloss -> h_pseudoloss
I0925 22:11:40.353575 21466 net.cpp:141] Setting up h_pseudoloss
…
I0925 22:11:40.353796 21466 net.cpp:219] lstm2_ does not need backward computation.
I0925 22:11:40.353801 21466 net.cpp:261] This network produces output c_T
I0925 22:11:40.353811 21466 net.cpp:261] This network produces output h_pseudoloss
I0925 22:11:40.353876 21466 net.cpp:274] Network initialization done.
I0925 22:11:40.353967 21466 recurrent_layer.cpp:150] Adding parameter 0: W_xc
I0925 22:11:40.353979 21466 recurrent_layer.cpp:150] Adding parameter 1: b_c
I0925 22:11:40.353987 21466 recurrent_layer.cpp:150] Adding parameter 2: W_hc
I0925 22:11:40.360759 21466 net.cpp:141] Setting up lstm2
I0925 22:11:40.360815 21466 net.cpp:148] Top shape: 1 1 1000 (1000)
I0925 22:11:40.360823 21466 net.cpp:156] Memory required for data: 36412
I0925 22:11:40.360859 21466 layer_factory.hpp:77] Creating layer predict
I0925 22:11:40.360888 21466 net.cpp:91] Creating Layer predict
I0925 22:11:40.360901 21466 net.cpp:425] predict <- lstm2
I0925 22:11:40.360918 21466 net.cpp:399] predict -> predict
I0925 22:11:40.464946 21472 net.cpp:141] Setting up predict
I0925 22:11:40.464999 21472 net.cpp:148] Top shape: 1 1 46168 (46168)
I0925 22:11:40.465008 21472 net.cpp:156] Memory required for data: 221084
I0925 22:11:40.465023 21472 layer_factory.hpp:77] Creating layer probs
I0925 22:11:40.465041 21472 net.cpp:91] Creating Layer probs
I0925 22:11:40.465049 21472 net.cpp:425] probs <- predict
I0925 22:11:40.465051 21440 net.cpp:141] Setting up predict
I0925 22:11:40.465062 21472 net.cpp:399] probs -> probs
I0925 22:11:40.465083 21440 net.cpp:148] Top shape: 1 1 46168 (46168)
I0925 22:11:40.465095 21440 net.cpp:156] Memory required for data: 221084
I0925 22:11:40.465114 21440 layer_factory.hpp:77] Creating layer probs
I0925 22:11:40.465131 21440 net.cpp:91] Creating Layer probs
I0925 22:11:40.465143 21440 net.cpp:425] probs <- predict
I0925 22:11:40.465157 21440 net.cpp:399] probs -> probs
I0925 22:11:40.530273 21440 net.cpp:141] Setting up probs
I0925 22:11:40.530333 21440 net.cpp:148] Top shape: 1 1 46168 (46168)
I0925 22:11:40.530344 21440 net.cpp:156] Memory required for data: 405756
I0925 22:11:40.530357 21440 net.cpp:219] probs does not need backward computation.
I0925 22:11:40.530370 21440 net.cpp:219] predict does not need backward computation.
I0925 22:11:40.530380 21440 net.cpp:219] lstm2 does not need backward computation.
I0925 22:11:40.530391 21440 net.cpp:219] concat does not need backward computation.
I0925 22:11:40.530402 21440 net.cpp:219] lstm1 does not need backward computation.
I0925 22:11:40.530413 21440 net.cpp:219] embedding does not need backward computation.
I0925 22:11:40.530424 21440 net.cpp:219] reshape_stage_indicator does not need backward computation.
I0925 22:11:40.530436 21440 net.cpp:219] reshape_frames does not need backward computation.
I0925 22:11:40.530444 21440 net.cpp:219] embed_encoder does not need backward computation.
I0925 22:11:40.530454 21440 net.cpp:219] cont_sentence_input_1_split does not need backward computation.
I0925 22:11:40.530464 21440 net.cpp:219] input does not need backward computation.
I0925 22:11:40.530472 21440 net.cpp:261] This network produces output probs
I0925 22:11:40.530505 21440 net.cpp:274] Network initialization done.
I0925 22:11:40.537979 21472 net.cpp:141] Setting up probs
I0925 22:11:40.538038 21472 net.cpp:148] Top shape: 1 1 46168 (46168)
I0925 22:11:40.538050 21472 net.cpp:156] Memory required for data: 405756
I0925 22:11:40.538064 21472 net.cpp:219] probs does not need backward computation.
I0925 22:11:40.538077 21472 net.cpp:219] predict does not need backward computation.
I0925 22:11:40.538089 21472 net.cpp:219] lstm2 does not need backward computation.
I0925 22:11:40.538099 21472 net.cpp:219] concat does not need backward computation.
I0925 22:11:40.538105 21472 net.cpp:219] lstm1 does not need backward computation.
I0925 22:11:40.538130 21472 net.cpp:219] embedding does not need backward computation.
I0925 22:11:40.538128 21448 net.cpp:141] Setting up probs
I0925 22:11:40.538151 21472 net.cpp:219] reshape_stage_indicator does not need backward computation.
I0925 22:11:40.538161 21448 net.cpp:148] Top shape: 1 1 46168 (46168)
I0925 22:11:40.538161 21472 net.cpp:219] reshape_frames does not need backward computation.
I0925 22:11:40.538166 21448 net.cpp:156] Memory required for data: 405756
I0925 22:11:40.538172 21472 net.cpp:219] embed_encoder does not need backward computation.
I0925 22:11:40.538174 21448 net.cpp:219] probs does not need backward computation.
I0925 22:11:40.538182 21472 net.cpp:219] cont_sentence_input_1_split does not need backward computation.
…
I0925 22:11:40.538246 21448 net.cpp:219] reshape_frames does not need backward computation.
I0925 22:11:40.538256 21448 net.cpp:219] embed_encoder does not need backward computation.
I0925 22:11:40.538264 21448 net.cpp:219] cont_sentence_input_1_split does not need backward computation.
I0925 22:11:40.538272 21448 net.cpp:219] input does not need backward computation.
I0925 22:11:40.538280 21448 net.cpp:261] This network produces output probs
I0925 22:11:40.538305 21448 net.cpp:274] Network initialization done.
I0925 22:11:40.539034 21464 net.cpp:141] Setting up conv1
I0925 22:11:40.539079 21464 net.cpp:148] Top shape: 10 96 55 55 (2904000)
I0925 22:11:40.539104 21464 net.cpp:156] Memory required for data: 17799480
I0925 22:11:40.539151 21464 layer_factory.hpp:77] Creating layer relu1
I0925 22:11:40.539191 21464 net.cpp:91] Creating Layer relu1
I0925 22:11:40.539211 21464 net.cpp:425] relu1 <- conv1
I0925 22:11:40.539234 21464 net.cpp:386] relu1 -> conv1 (in-place)
I0925 22:11:40.540032 21464 net.cpp:141] Setting up relu1
I0925 22:11:40.540055 21464 net.cpp:148] Top shape: 10 96 55 55 (2904000)
I0925 22:11:40.540065 21464 net.cpp:156] Memory required for data: 29415480
I0925 22:11:40.540074 21464 layer_factory.hpp:77] Creating layer pool1
I0925 22:11:40.540102 21464 net.cpp:91] Creating Layer pool1
I0925 22:11:40.540112 21464 net.cpp:425] pool1 <- conv1
I0925 22:11:40.540125 21464 net.cpp:399] pool1 -> pool1
I0925 22:11:40.540283 21464 net.cpp:141] Setting up pool1
I0925 22:11:40.540302 21464 net.cpp:148] Top shape: 10 96 27 27 (699840)
I0925 22:11:40.540312 21464 net.cpp:156] Memory required for data: 32214840
I0925 22:11:40.540320 21464 layer_factory.hpp:77] Creating layer norm1
I0925 22:11:40.540349 21464 net.cpp:91] Creating Layer norm1
I0925 22:11:40.540359 21464 net.cpp:425] norm1 <- pool1
I0925 22:11:40.540374 21464 net.cpp:399] norm1 -> norm1
I0925 22:11:40.540827 21464 net.cpp:141] Setting up norm1
I0925 22:11:40.540845 21464 net.cpp:148] Top shape: 10 96 27 27 (699840)
I0925 22:11:40.540854 21464 net.cpp:156] Memory required for data: 35014200
I0925 22:11:40.540863 21464 layer_factory.hpp:77] Creating layer conv2
I0925 22:11:40.540885 21464 net.cpp:91] Creating Layer conv2
I0925 22:11:40.540894 21464 net.cpp:425] conv2 <- norm1
I0925 22:11:40.540910 21464 net.cpp:399] conv2 -> conv2
I0925 22:11:40.548230 21464 net.cpp:141] Setting up conv2
I0925 22:11:40.548285 21464 net.cpp:148] Top shape: 10 256 27 27 (1866240)
I0925 22:11:40.548298 21464 net.cpp:156] Memory required for data: 42479160
I0925 22:11:40.548331 21464 layer_factory.hpp:77] Creating layer relu2
I0925 22:11:40.548355 21464 net.cpp:91] Creating Layer relu2
I0925 22:11:40.548367 21464 net.cpp:425] relu2 <- conv2
I0925 22:11:40.548380 21464 net.cpp:386] relu2 -> conv2 (in-place)
I0925 22:11:40.549160 21464 net.cpp:141] Setting up relu2
I0925 22:11:40.549185 21464 net.cpp:148] Top shape: 10 256 27 27 (1866240)
I0925 22:11:40.549195 21464 net.cpp:156] Memory required for data: 49944120
I0925 22:11:40.549204 21464 layer_factory.hpp:77] Creating layer pool2
I0925 22:11:40.549224 21464 net.cpp:91] Creating Layer pool2
I0925 22:11:40.549233 21464 net.cpp:425] pool2 <- conv2
I0925 22:11:40.549247 21464 net.cpp:399] pool2 -> pool2
I0925 22:11:40.549378 21464 net.cpp:141] Setting up pool2
I0925 22:11:40.549396 21464 net.cpp:148] Top shape: 10 256 13 13 (432640)
I0925 22:11:40.549403 21464 net.cpp:156] Memory required for data: 51674680
I0925 22:11:40.549417 21464 layer_factory.hpp:77] Creating layer norm2
I0925 22:11:40.549438 21464 net.cpp:91] Creating Layer norm2
I0925 22:11:40.549448 21464 net.cpp:425] norm2 <- pool2
I0925 22:11:40.549468 21464 net.cpp:399] norm2 -> norm2
I0925 22:11:40.550374 21464 net.cpp:141] Setting up norm2
I0925 22:11:40.550402 21464 net.cpp:148] Top shape: 10 256 13 13 (432640)
I0925 22:11:40.550412 21464 net.cpp:156] Memory required for data: 53405240
I0925 22:11:40.550421 21464 layer_factory.hpp:77] Creating layer conv3
I0925 22:11:40.550453 21464 net.cpp:91] Creating Layer conv3
I0925 22:11:40.550464 21464 net.cpp:425] conv3 <- norm2
I0925 22:11:40.550477 21464 net.cpp:399] conv3 -> conv3
I0925 22:11:40.576228 21464 net.cpp:141] Setting up conv3
I0925 22:11:40.576289 21464 net.cpp:148] Top shape: 10 384 13 13 (648960)
I0925 22:11:40.576302 21464 net.cpp:156] Memory required for data: 56001080
I0925 22:11:40.576334 21464 layer_factory.hpp:77] Creating layer relu3
I0925 22:11:40.576738 21464 net.cpp:91] Creating Layer relu3
I0925 22:11:40.576756 21464 net.cpp:425] relu3 <- conv3
I0925 22:11:40.576771 21464 net.cpp:386] relu3 -> conv3 (in-place)
I0925 22:11:40.577652 21464 net.cpp:141] Setting up relu3
I0925 22:11:40.577682 21464 net.cpp:148] Top shape: 10 384 13 13 (648960)
I0925 22:11:40.577692 21464 net.cpp:156] Memory required for data: 58596920
I0925 22:11:40.577702 21464 layer_factory.hpp:77] Creating layer conv4
I0925 22:11:40.578244 21464 net.cpp:91] Creating Layer conv4
I0925 22:11:40.578263 21464 net.cpp:425] conv4 <- conv3
I0925 22:11:40.578279 21464 net.cpp:399] conv4 -> conv4
I0925 22:11:40.610221 21464 net.cpp:141] Setting up conv4
I0925 22:11:40.610272 21464 net.cpp:148] Top shape: 10 384 13 13 (648960)
I0925 22:11:40.610280 21464 net.cpp:156] Memory required for data: 61192760
I0925 22:11:40.610302 21464 layer_factory.hpp:77] Creating layer relu4
I0925 22:11:40.610321 21464 net.cpp:91] Creating Layer relu4
I0925 22:11:40.610328 21464 net.cpp:425] relu4 <- conv4
I0925 22:11:40.610338 21464 net.cpp:386] relu4 -> conv4 (in-place)
I0925 22:11:40.611470 21464 net.cpp:141] Setting up relu4
I0925 22:11:40.611498 21464 net.cpp:148] Top shape: 10 384 13 13 (648960)
I0925 22:11:40.611505 21464 net.cpp:156] Memory required for data: 63788600
I0925 22:11:40.611511 21464 layer_factory.hpp:77] Creating layer conv5
I0925 22:11:40.611542 21464 net.cpp:91] Creating Layer conv5
I0925 22:11:40.611549 21464 net.cpp:425] conv5 <- conv4
I0925 22:11:40.611559 21464 net.cpp:399] conv5 -> conv5
I0925 22:11:40.623555 21464 net.cpp:141] Setting up conv5
I0925 22:11:40.623612 21464 net.cpp:148] Top shape: 10 256 13 13 (432640)
I0925 22:11:40.623620 21464 net.cpp:156] Memory required for data: 65519160
I0925 22:11:40.623644 21464 layer_factory.hpp:77] Creating layer relu5
I0925 22:11:40.623672 21464 net.cpp:91] Creating Layer relu5
I0925 22:11:40.623682 21464 net.cpp:425] relu5 <- conv5
I0925 22:11:40.623692 21464 net.cpp:386] relu5 -> conv5 (in-place)
I0925 22:11:40.624002 21464 net.cpp:141] Setting up relu5
I0925 22:11:40.624017 21464 net.cpp:148] Top shape: 10 256 13 13 (432640)
I0925 22:11:40.624022 21464 net.cpp:156] Memory required for data: 67249720
I0925 22:11:40.624027 21464 layer_factory.hpp:77] Creating layer pool5
I0925 22:11:40.624042 21464 net.cpp:91] Creating Layer pool5
I0925 22:11:40.624047 21464 net.cpp:425] pool5 <- conv5
I0925 22:11:40.624055 21464 net.cpp:399] pool5 -> pool5
I0925 22:11:40.624162 21464 net.cpp:141] Setting up pool5
I0925 22:11:40.624177 21464 net.cpp:148] Top shape: 10 256 6 6 (92160)
I0925 22:11:40.624182 21464 net.cpp:156] Memory required for data: 67618360
I0925 22:11:40.624187 21464 layer_factory.hpp:77] Creating layer fc6
I0925 22:11:40.624202 21464 net.cpp:91] Creating Layer fc6
I0925 22:11:40.624208 21464 net.cpp:425] fc6 <- pool5
I0925 22:11:40.624229 21464 net.cpp:399] fc6 -> fc6
I0925 22:11:40.720479 21442 net.cpp:141] Setting up predict
I0925 22:11:40.720551 21442 net.cpp:148] Top shape: 1 1 46168 (46168)
I0925 22:11:40.720562 21442 net.cpp:156] Memory required for data: 221084
I0925 22:11:40.720589 21442 layer_factory.hpp:77] Creating layer probs
I0925 22:11:40.720618 21442 net.cpp:91] Creating Layer probs
I0925 22:11:40.720633 21442 net.cpp:425] probs <- predict
I0925 22:11:40.720650 21442 net.cpp:399] probs -> probs
I0925 22:11:40.722038 21442 net.cpp:141] Setting up probs
I0925 22:11:40.722095 21442 net.cpp:148] Top shape: 1 1 46168 (46168)
I0925 22:11:40.722108 21442 net.cpp:156] Memory required for data: 405756
I0925 22:11:40.722123 21442 net.cpp:219] probs does not need backward computation.
I0925 22:11:40.722137 21442 net.cpp:219] predict does not need backward computation.
I0925 22:11:40.722148 21442 net.cpp:219] lstm2 does not need backward computation.
I0925 22:11:40.722159 21442 net.cpp:219] concat does not need backward computation.
I0925 22:11:40.722172 21442 net.cpp:219] lstm1 does not need backward computation.
I0925 22:11:40.722183 21442 net.cpp:219] embedding does not need backward computation.
I0925 22:11:40.722193 21442 net.cpp:219] reshape_stage_indicator does not need backward computation.
I0925 22:11:40.722204 21442 net.cpp:219] reshape_frames does not need backward computation.
I0925 22:11:40.722213 21442 net.cpp:219] embed_encoder does not need backward computation.
I0925 22:11:40.722223 21442 net.cpp:219] cont_sentence_input_1_split does not need backward computation.
I0925 22:11:40.722234 21442 net.cpp:219] input does not need backward computation.
I0925 22:11:40.722241 21442 net.cpp:261] This network produces output probs
I0925 22:11:40.722275 21442 net.cpp:274] Network initialization done.
I0925 22:11:40.770609 21464 net.cpp:141] Setting up fc6
I0925 22:11:40.770678 21464 net.cpp:148] Top shape: 10 4096 (40960)
I0925 22:11:40.770691 21464 net.cpp:156] Memory required for data: 67782200
I0925 22:11:40.770720 21464 layer_factory.hpp:77] Creating layer relu6
I0925 22:11:40.770746 21464 net.cpp:91] Creating Layer relu6
I0925 22:11:40.770759 21464 net.cpp:425] relu6 <- fc6
I0925 22:11:40.770776 21464 net.cpp:386] relu6 -> fc6 (in-place)
I0925 22:11:40.771775 21464 net.cpp:141] Setting up relu6
I0925 22:11:40.771823 21464 net.cpp:148] Top shape: 10 4096 (40960)
I0925 22:11:40.771836 21464 net.cpp:156] Memory required for data: 67946040
I0925 22:11:40.771848 21464 layer_factory.hpp:77] Creating layer drop6
I0925 22:11:40.771890 21464 net.cpp:91] Creating Layer drop6
I0925 22:11:40.771903 21464 net.cpp:425] drop6 <- fc6
I0925 22:11:40.771924 21464 net.cpp:386] drop6 -> fc6 (in-place)
I0925 22:11:40.772045 21464 net.cpp:141] Setting up drop6
I0925 22:11:40.772064 21464 net.cpp:148] Top shape: 10 4096 (40960)
I0925 22:11:40.772073 21464 net.cpp:156] Memory required for data: 68109880
I0925 22:11:40.772083 21464 layer_factory.hpp:77] Creating layer fc7
I0925 22:11:40.772114 21464 net.cpp:91] Creating Layer fc7
I0925 22:11:40.772127 21464 net.cpp:425] fc7 <- fc6
I0925 22:11:40.772142 21464 net.cpp:399] fc7 -> fc7
I0925 22:11:40.809186 21438 net.cpp:141] Setting up predict
I0925 22:11:40.809267 21438 net.cpp:148] Top shape: 1 1 46168 (46168)
I0925 22:11:40.809279 21438 net.cpp:156] Memory required for data: 221084
I0925 22:11:40.809304 21438 layer_factory.hpp:77] Creating layer probs
I0925 22:11:40.809335 21438 net.cpp:91] Creating Layer probs
I0925 22:11:40.809350 21438 net.cpp:425] probs <- predict
I0925 22:11:40.809368 21438 net.cpp:399] probs -> probs
I0925 22:11:40.813033 21438 net.cpp:141] Setting up probs
I0925 22:11:40.813096 21438 net.cpp:148] Top shape: 1 1 46168 (46168)
I0925 22:11:40.813107 21438 net.cpp:156] Memory required for data: 405756
I0925 22:11:40.813119 21438 net.cpp:219] probs does not need backward computation.
I0925 22:11:40.813132 21438 net.cpp:219] predict does not need backward computation.
I0925 22:11:40.813141 21438 net.cpp:219] lstm2 does not need backward computation.
I0925 22:11:40.813150 21438 net.cpp:219] concat does not need backward computation.
I0925 22:11:40.813161 21438 net.cpp:219] lstm1 does not need backward computation.
I0925 22:11:40.813171 21438 net.cpp:219] embedding does not need backward computation.
I0925 22:11:40.813180 21438 net.cpp:219] reshape_stage_indicator does not need backward computation.
I0925 22:11:40.813189 21438 net.cpp:219] reshape_frames does not need backward computation.
I0925 22:11:40.813197 21438 net.cpp:219] embed_encoder does not need backward computation.
I0925 22:11:40.813207 21438 net.cpp:219] cont_sentence_input_1_split does not need backward computation.
I0925 22:11:40.813217 21438 net.cpp:219] input does not need backward computation.
I0925 22:11:40.813225 21438 net.cpp:261] This network produces output probs
I0925 22:11:40.814787 21438 net.cpp:274] Network initialization done.
I0925 22:11:40.837431 21464 net.cpp:141] Setting up fc7
I0925 22:11:40.837496 21464 net.cpp:148] Top shape: 10 4096 (40960)
I0925 22:11:40.837507 21464 net.cpp:156] Memory required for data: 68273720
I0925 22:11:40.837533 21464 layer_factory.hpp:77] Creating layer relu7
I0925 22:11:40.837558 21464 net.cpp:91] Creating Layer relu7
I0925 22:11:40.837569 21464 net.cpp:425] relu7 <- fc7
I0925 22:11:40.837585 21464 net.cpp:386] relu7 -> fc7 (in-place)
I0925 22:11:40.839917 21464 net.cpp:141] Setting up relu7
I0925 22:11:40.839973 21464 net.cpp:148] Top shape: 10 4096 (40960)
I0925 22:11:40.839982 21464 net.cpp:156] Memory required for data: 68437560
I0925 22:11:40.839993 21464 layer_factory.hpp:77] Creating layer drop7
I0925 22:11:40.840503 21464 net.cpp:91] Creating Layer drop7
I0925 22:11:40.840522 21464 net.cpp:425] drop7 <- fc7
I0925 22:11:40.840539 21464 net.cpp:386] drop7 -> fc7 (in-place)
I0925 22:11:40.840708 21464 net.cpp:141] Setting up drop7
I0925 22:11:40.840725 21464 net.cpp:148] Top shape: 10 4096 (40960)
I0925 22:11:40.840731 21464 net.cpp:156] Memory required for data: 68601400
I0925 22:11:40.840737 21464 layer_factory.hpp:77] Creating layer fc8
I0925 22:11:40.840749 21464 net.cpp:91] Creating Layer fc8
I0925 22:11:40.840754 21464 net.cpp:425] fc8 <- fc7
I0925 22:11:40.841023 21464 net.cpp:399] fc8 -> fc8
I0925 22:11:40.857339 21464 net.cpp:141] Setting up fc8
I0925 22:11:40.857396 21464 net.cpp:148] Top shape: 10 1000 (10000)
I0925 22:11:40.857404 21464 net.cpp:156] Memory required for data: 68641400
I0925 22:11:40.857424 21464 layer_factory.hpp:77] Creating layer prob
I0925 22:11:40.857450 21464 net.cpp:91] Creating Layer prob
I0925 22:11:40.857457 21464 net.cpp:425] prob <- fc8
I0925 22:11:40.857467 21464 net.cpp:399] prob -> prob
I0925 22:11:40.860234 21464 net.cpp:141] Setting up prob
I0925 22:11:40.860291 21464 net.cpp:148] Top shape: 10 1000 (10000)
I0925 22:11:40.860298 21464 net.cpp:156] Memory required for data: 68681400
I0925 22:11:40.860307 21464 net.cpp:219] prob does not need backward computation.
I0925 22:11:40.860317 21464 net.cpp:219] fc8 does not need backward computation.
I0925 22:11:40.860328 21464 net.cpp:219] drop7 does not need backward computation.
I0925 22:11:40.860334 21464 net.cpp:219] relu7 does not need backward computation.
…
