…
Java HotSpot(TM) 64-Bit Server VM warning: You have loaded library /home/peifeng/work/run/storm102/data/workers/47d558b8-565a-4fac-a457-04f7e8ee8b43/tmp/cvld1618541784645149064/libopencv_java310.xine1.so which might have disabled stack guard. The VM will try to fix the stack guard now.
It's highly recommended that you fix the library with 'execstack -c <libfile>', or link it with '-z noexecstack'.
WARNING: Logging before InitGoogleLogging() is written to STDERR
I0924 00:30:50.698534 22187 net.cpp:49] Initializing net from parameters: 
name: "GoogleNet"
state {
  phase: TEST
}
layer {
  name: "data"
  type: "Input"
  top: "data"
  input_param {
    shape {
      dim: 10
      dim: 3
      dim: 224
      dim: 224
    }
  }
}
layer {
  name: "conv1/7x7_s2"
  type: "Convolution"
  bottom: "data"
  top: "conv1/7x7_s2"
  param {
    lr_mult: 1
    decay_mult: 1
  }
  param {
    lr_mult: 2
    decay_mult: 0
  }
  convolution_param {
    num_output: 64
    pad: 3
    kernel_size: 7
    stride: 2
    weight_filler {
      type: "xavier"
      std: 0.1
    }
    bias_filler {
      type: "constant"
      value: 0.2
    }
  }
}
layer {
  name: "conv1/relu_7x7"
  type: "ReLU"
  bottom: "conv1/7x7_s2"
  top: "conv1/7x7_s2"
}
layer {
  name: "pool1/3x3_s2"
  type: "Pooling"
  bottom: "conv1/7x7_s2"
  top: "pool1/3x3_s2"
  pooling_param {
    pool: MAX
    kernel_size: 3
    stride: 2
  }
}
layer {
  name: "pool1/norm1"
  type: "LRN"
  bottom: "pool1/3x3_s2"
  top: "pool1/norm1"
  lrn_param {
    local_size: 5
    alpha: 0.0001
    beta: 0.75
  }
}
layer {
  name: "conv2/3x3_reduce"
  type: "Convolution"
  bottom: "pool1/norm1"
  top: "conv2/3x3_reduce"
  param {
    lr_mult: 1
    decay_mult: 1
  }
  param {
    lr_mult: 2
    decay_mult: 0
  }
  convolution_param {
    num_output: 64
    kernel_size: 1
    weight_filler {
      type: "xavier"
      std: 0.1
    }
    bias_filler {
      type: "constant"
      value: 0.2
    }
  }
}
layer {
  name: "conv2/relu_3x3_reduce"
  type: "ReLU"
  bottom: "conv2/3x3_reduce"
  top: "conv2/3x3_reduce"
}
layer {
  name: "conv2/3x3"
  type: "Convolution"
  bottom: "conv2/3x3_reduce"
  top: "conv2/3x3"
  param {
    lr_mult: 1
    decay_mult: 1
  }
  param {
    lr_mult: 2
    decay_mult: 0
  }
  convolution_param {
    num_output: 192
    pad: 1
    kernel_size: 3
    weight_filler {
      type: "xavier"
      std: 0.03
    }
    bias_filler {
      type: "constant"
      value: 0.2
    }
  }
}
layer {
  name: "conv2/relu_3x3"
  type: "ReLU"
  bottom: "conv2/3x3"
  top: "conv2/3x3"
}
layer {
  name: "conv2/norm2"
  type: "LRN"
  bottom: "conv2/3x3"
  top: "conv2/norm2"
  lrn_param {
    local_size: 5
    alpha: 0.0001
    beta: 0.75
  }
}
layer {
  name: "pool2/3x3_s2"
  type: "Pooling"
  bottom: "conv2/norm2"
  top: "pool2/3x3_s2"
  pooling_param {
    pool: MAX
    kernel_size: 3
    stride: 2
  }
}
layer {
  name: "inception_3a/1x1"
  type: "Convolution"
  bottom: "pool2/3x3_s2"
  top: "inception_3a/1x1"
  param {
    lr_mult: 1
    decay_mult: 1
  }
  param {
    lr_mult: 2
    decay_mult: 0
  }
  convolution_param {
    num_output: 64
    kernel_size: 1
    weight_filler {
      type: "xavier"
      std: 0.03
    }
    bias_filler {
      type: "constant"
      value: 0.2
    }
  }
}
layer {
  name: "inception_3a/relu_1x1"
  type: "ReLU"
  bottom: "inception_3a/1x1"
  top: "inception_3a/1x1"
}
layer {
  name: "inception_3a/3x3_reduce"
  type: "Convolution"
  bottom: "pool2/3x3_s2"
  top: "inception_3a/3x3_reduce"
  param {
    lr_mult: 1
    decay_mult: 1
  }
  param {
    lr_mult: 2
    decay_mult: 0
  }
  convolution_param {
    num_output: 96
    kernel_size: 1
    weight_filler {
      type: "xavier"
      std: 0.09
    }
    bias_filler {
      type: "constant"
      value: 0.2
    }
  }
}
layer {
  name: "inception_3a/relu_3x3_reduce"
  type: "ReLU"
  bottom: "inception_3a/3x3_reduce"
  top: "inception_3a/3x3_reduce"
}
layer {
  name: "inception_3a/3x3"
  type: "Convolution"
  bottom: "inception_3a/3x3_reduce"
  top: "inception_3a/3x3"
  param {
    lr_mult: 1
    decay_mult: 1
  }
  param {
    lr_mult: 2
    decay_mult: 0
  }
  convolution_param {
    num_output: 128
    pad: 1
    kernel_size: 3
    weight_filler {
      type: "xavier"
      std: 0.03
    }
    bias_filler {
      type: "constant"
      value: 0.2
    }
  }
}
layer {
  name: "inception_3a/relu_3x3"
  type: "ReLU"
  bottom: "inception_3a/3x3"
  top: "inception_3a/3x3"
}
layer {
  name: "inception_3a/5x5_reduce"
  type: "Convolution"
  bottom: "pool2/3x3_s2"
  top: "inception_3a/5x5_reduce"
  param {
    lr_mult: 1
    decay_mult: 1
  }
  param {
    lr_mult: 2
    decay_mult: 0
  }
  convolution_param {
    num_output: 16
    kernel_size: 1
    weight_filler {
      type: "xavier"
      std: 0.2
    }
    bias_filler {
      type: "constant"
      value: 0.2
    }
  }
}
layer {
  name: "inception_3a/relu_5x5_reduce"
  type: "ReLU"
  bottom: "inception_3a/5x5_reduce"
  top: "inception_3a/5x5_reduce"
}
layer {
  name: "inception_3a/5x5"
  type: "Convolution"
  bottom: "inception_3a/5x5_reduce"
  top: "inception_3a/5x5"
  param {
    lr_mult: 1
    decay_mult: 1
  }
  param {
    lr_mult: 2
    decay_mult: 0
  }
  convolution_param {
    num_output: 32
    pad: 2
    kernel_size: 5
    weight_filler {
      type: "xavier"
      std: 0.03
    }
    bias_filler {
      type: "constant"
      value: 0.2
    }
  }
}
layer {
  name: "inception_3a/relu_5x5"
  type: "ReLU"
  bottom: "inception_3a/5x5"
  top: "inception_3a/5x5"
}
layer {
  name: "inception_3a/pool"
  type: "Pooling"
  bottom: "pool2/3x3_s2"
  top: "inception_3a/pool"
  pooling_param {
    pool: MAX
    kernel_size: 3
    stride: 1
    pad: 1
  }
}
layer {
  name: "inception_3a/pool_proj"
  type: "Convolution"
  bottom: "inception_3a/pool"
  top: "inception_3a/pool_proj"
  param {
    lr_mult: 1
    decay_mult: 1
  }
  param {
    lr_mult: 2
    decay_mult: 0
  }
  convolution_param {
    num_output: 32
    kernel_size: 1
    weight_filler {
      type: "xavier"
      std: 0.1
    }
    bias_filler {
      type: "constant"
      value: 0.2
    }
  }
}
layer {
  name: "inception_3a/relu_pool_proj"
  type: "ReLU"
  bottom: "inception_3a/pool_proj"
  top: "inception_3a/pool_proj"
}
layer {
  name: "inception_3a/output"
  type: "Concat"
  bottom: "inception_3a/1x1"
  bottom: "inception_3a/3x3"
  bottom: "inception_3a/5x5"
  bottom: "inception_3a/pool_proj"
  top: "inception_3a/output"
}
layer {
  name: "inception_3b/1x1"
  type: "Convolution"
  bottom: "inception_3a/output"
  top: "inception_3b/1x1"
  param {
    lr_mult: 1
    decay_mult: 1
  }
  param {
    lr_mult: 2
    decay_mult: 0
  }
  convolution_param {
    num_output: 128
    kernel_size: 1
    weight_filler {
      type: "xavier"
      std: 0.03
    }
    bias_filler {
      type: "constant"
      value: 0.2
    }
  }
}
layer {
  name: "inception_3b/relu_1x1"
  type: "ReLU"
  bottom: "inception_3b/1x1"
  top: "inception_3b/1x1"
}
layer {
  name: "inception_3b/3x3_reduce"
  type: "Convolution"
  bottom: "inception_3a/output"
  top: "inception_3b/3x3_reduce"
  param {
    lr_mult: 1
    decay_mult: 1
  }
  param {
    lr_mult: 2
    decay_mult: 0
  }
  convolution_param {
    num_output: 128
    kernel_size: 1
    weight_filler {
      type: "xavier"
      std: 0.09
    }
    bias_filler {
      type: "constant"
      value: 0.2
    }
  }
}
layer {
  name: "inception_3b/relu_3x3_reduce"
  type: "ReLU"
  bottom: "inception_3b/3x3_reduce"
  top: "inception_3b/3x3_reduce"
}
layer {
  name: "inception_3b/3x3"
  type: "Convolution"
  bottom: "inception_3b/3x3_reduce"
  top: "inception_3b/3x3"
  param {
    lr_mult: 1
    decay_mult: 1
  }
  param {
    lr_mult: 2
    decay_mult: 0
  }
  convolution_param {
    num_output: 192
    pad: 1
    kernel_size: 3
    weight_filler {
      type: "xavier"
      std: 0.03
    }
    bias_filler {
      type: "constant"
      value: 0.2
    }
  }
}
layer {
  name: "inception_3b/relu_3x3"
  type: "ReLU"
  bottom: "inception_3b/3x3"
  top: "inception_3b/3x3"
}
layer {
  name: "inception_3b/5x5_reduce"
  type: "Convolution"
  bottom: "inception_3a/output"
  top: "inception_3b/5x5_reduce"
  param {
    lr_mult: 1
    decay_mult: 1
  }
  param {
    lr_mult: 2
    decay_mult: 0
  }
  convolution_param {
    num_output: 32
    kernel_size: 1
    weight_filler {
      type: "xavier"
      std: 0.2
    }
    bias_filler {
      type: "constant"
      value: 0.2
    }
  }
}
layer {
  name: "inception_3b/relu_5x5_reduce"
  type: "ReLU"
  bottom: "inception_3b/5x5_reduce"
  top: "inception_3b/5x5_reduce"
}
layer {
  name: "inception_3b/5x5"
  type: "Convolution"
  bottom: "inception_3b/5x5_reduce"
  top: "inception_3b/5x5"
  param {
    lr_mult: 1
    decay_mult: 1
  }
  param {
    lr_mult: 2
    decay_mult: 0
  }
  convolution_param {
    num_output: 96
    pad: 2
    kernel_size: 5
    weight_filler {
      type: "xavier"
      std: 0.03
    }
    bias_filler {
      type: "constant"
      value: 0.2
    }
  }
}
layer {
  name: "inception_3b/relu_5x5"
  type: "ReLU"
  bottom: "inception_3b/5x5"
  top: "inception_3b/5x5"
}
layer {
  name: "inception_3b/pool"
  type: "Pooling"
  bottom: "inception_3a/output"
  top: "inception_3b/pool"
  pooling_param {
    pool: MAX
    kernel_size: 3
    stride: 1
    pad: 1
  }
}
layer {
  name: "inception_3b/pool_proj"
  type: "Convolution"
  bottom: "inception_3b/pool"
  top: "inception_3b/pool_proj"
  param {
    lr_mult: 1
    decay_mult: 1
  }
  param {
    lr_mult: 2
    decay_mult: 0
  }
  convolution_param {
    num_output: 64
    kernel_size: 1
    weight_filler {
      type: "xavier"
      std: 0.1
    }
    bias_filler {
      type: "constant"
      value: 0.2
    }
  }
}
layer {
  name: "inception_3b/relu_pool_proj"
  type: "ReLU"
  bottom: "inception_3b/pool_proj"
  top: "inception_3b/pool_proj"
}
layer {
  name: "inception_3b/output"
  type: "Concat"
  bottom: "inception_3b/1x1"
  bottom: "inception_3b/3x3"
  bottom: "inception_3b/5x5"
  bottom: "inception_3b/pool_proj"
  top: "inception_3b/output"
}
layer {
  name: "pool3/3x3_s2"
  type: "Pooling"
  bottom: "inception_3b/output"
  top: "pool3/3x3_s2"
  pooling_param {
    pool: MAX
    kernel_size: 3
    stride: 2
  }
}
layer {
  name: "inception_4a/1x1"
  type: "Convolution"
  bottom: "pool3/3x3_s2"
  top: "inception_4a/1x1"
  param {
    lr_mult: 1
    decay_mult: 1
  }
  param {
    lr_mult: 2
    decay_mult: 0
  }
  convolution_param {
    num_output: 192
    kernel_size: 1
    weight_filler {
      type: "xavier"
      std: 0.03
    }
    bias_filler {
      type: "constant"
      value: 0.2
    }
  }
}
layer {
  name: "inception_4a/relu_1x1"
  type: "ReLU"
  bottom: "inception_4a/1x1"
  top: "inception_4a/1x1"
}
layer {
  name: "inception_4a/3x3_reduce"
  type: "Convolution"
  bottom: "pool3/3x3_s2"
  top: "inception_4a/3x3_reduce"
  param {
    lr_mult: 1
    decay_mult: 1
  }
  param {
    lr_mult: 2
    decay_mult: 0
  }
  convolution_param {
    num_output: 96
    kernel_size: 1
    weight_filler {
      type: "xavier"
      std: 0.09
    }
    bias_filler {
      type: "constant"
      value: 0.2
    }
  }
}
layer {
  name: "inception_4a/relu_3x3_reduce"
  type: "ReLU"
  bottom: "inception_4a/3x3_reduce"
  top: "inception_4a/3x3_reduce"
}
layer {
  name: "inception_4a/3x3"
  type: "Convolution"
  bottom: "inception_4a/3x3_reduce"
  top: "inception_4a/3x3"
  param {
    lr_mult: 1
    decay_mult: 1
  }
  param {
    lr_mult: 2
    decay_mult: 0
  }
  convolution_param {
    num_output: 208
    pad: 1
    kernel_size: 3
    weight_filler {
      type: "xavier"
      std: 0.03
    }
    bias_filler {
      type: "constant"
      value: 0.2
    }
  }
}
layer {
  name: "inception_4a/relu_3x3"
  type: "ReLU"
  bottom: "inception_4a/3x3"
  top: "inception_4a/3x3"
}
layer {
  name: "inception_4a/5x5_reduce"
  type: "Convolution"
  bottom: "pool3/3x3_s2"
  top: "inception_4a/5x5_reduce"
  param {
    lr_mult: 1
    decay_mult: 1
  }
  param {
    lr_mult: 2
    decay_mult: 0
  }
  convolution_param {
    num_output: 16
    kernel_size: 1
    weight_filler {
      type: "xavier"
      std: 0.2
    }
    bias_filler {
      type: "constant"
      value: 0.2
    }
  }
}
layer {
  name: "inception_4a/relu_5x5_reduce"
  type: "ReLU"
  bottom: "inception_4a/5x5_reduce"
  top: "inception_4a/5x5_reduce"
}
layer {
  name: "inception_4a/5x5"
  type: "Convolution"
  bottom: "inception_4a/5x5_reduce"
  top: "inception_4a/5x5"
  param {
    lr_mult: 1
    decay_mult: 1
  }
  param {
    lr_mult: 2
    decay_mult: 0
  }
  convolution_param {
    num_output: 48
    pad: 2
    kernel_size: 5
    weight_filler {
      type: "xavier"
      std: 0.03
    }
    bias_filler {
      type: "constant"
      value: 0.2
    }
  }
}
layer {
  name: "inception_4a/relu_5x5"
  type: "ReLU"
  bottom: "inception_4a/5x5"
  top: "inception_4a/5x5"
}
layer {
  name: "inception_4a/pool"
  type: "Pooling"
  bottom: "pool3/3x3_s2"
  top: "inception_4a/pool"
  pooling_param {
    pool: MAX
    kernel_size: 3
    stride: 1
    pad: 1
  }
}
layer {
  name: "inception_4a/pool_proj"
  type: "Convolution"
  bottom: "inception_4a/pool"
  top: "inception_4a/pool_proj"
  param {
    lr_mult: 1
    decay_mult: 1
  }
  param {
    lr_mult: 2
    decay_mult: 0
  }
  convolution_param {
    num_output: 64
    kernel_size: 1
    weight_filler {
      type: "xavier"
      std: 0.1
    }
    bias_filler {
      type: "constant"
      value: 0.2
    }
  }
}
layer {
  name: "inception_4a/relu_pool_proj"
  type: "ReLU"
  bottom: "inception_4a/pool_proj"
  top: "inception_4a/pool_proj"
}
layer {
  name: "inception_4a/output"
  type: "Concat"
  bottom: "inception_4a/1x1"
  bottom: "inception_4a/3x3"
  bottom: "inception_4a/5x5"
  bottom: "inception_4a/pool_proj"
  top: "inception_4a/output"
}
layer {
  name: "inception_4b/1x1"
  type: "Convolution"
  bottom: "inception_4a/output"
  top: "inception_4b/1x1"
  param {
    lr_mult: 1
    decay_mult: 1
  }
  param {
    lr_mult: 2
    decay_mult: 0
  }
  convolution_param {
    num_output: 160
    kernel_size: 1
    weight_filler {
      type: "xavier"
      std: 0.03
    }
    bias_filler {
      type: "constant"
      value: 0.2
    }
  }
}
layer {
  name: "inception_4b/relu_1x1"
  type: "ReLU"
  bottom: "inception_4b/1x1"
  top: "inception_4b/1x1"
}
layer {
  name: "inception_4b/3x3_reduce"
  type: "Convolution"
  bottom: "inception_4a/output"
  top: "inception_4b/3x3_reduce"
  param {
    lr_mult: 1
    decay_mult: 1
  }
  param {
    lr_mult: 2
    decay_mult: 0
  }
  convolution_param {
    num_output: 112
    kernel_size: 1
    weight_filler {
      type: "xavier"
      std: 0.09
    }
    bias_filler {
      type: "constant"
      value: 0.2
    }
  }
}
layer {
  name: "inception_4b/relu_3x3_reduce"
  type: "ReLU"
  bottom: "inception_4b/3x3_reduce"
  top: "inception_4b/3x3_reduce"
}
layer {
  name: "inception_4b/3x3"
  type: "Convolution"
  bottom: "inception_4b/3x3_reduce"
  top: "inception_4b/3x3"
  param {
    lr_mult: 1
    decay_mult: 1
  }
  param {
    lr_mult: 2
    decay_mult: 0
  }
  convolution_param {
    num_output: 224
    pad: 1
    kernel_size: 3
    weight_filler {
      type: "xavier"
      std: 0.03
    }
    bias_filler {
      type: "constant"
      value: 0.2
    }
  }
}
layer {
  name: "inception_4b/relu_3x3"
  type: "ReLU"
  bottom: "inception_4b/3x3"
  top: "inception_4b/3x3"
}
layer {
  name: "inception_4b/5x5_reduce"
  type: "Convolution"
  bottom: "inception_4a/output"
  top: "inception_4b/5x5_reduce"
  param {
    lr_mult: 1
    decay_mult: 1
  }
  param {
    lr_mult: 2
    decay_mult: 0
  }
  convolution_param {
    num_output: 24
    kernel_size: 1
    weight_filler {
      type: "xavier"
      std: 0.2
    }
    bias_filler {
      type: "constant"
      value: 0.2
    }
  }
}
layer {
  name: "inception_4b/relu_5x5_reduce"
  type: "ReLU"
  bottom: "inception_4b/5x5_reduce"
  top: "inception_4b/5x5_reduce"
}
layer {
  name: "inception_4b/5x5"
  type: "Convolution"
  bottom: "inception_4b/5x5_reduce"
  top: "inception_4b/5x5"
  param {
    lr_mult: 1
    decay_mult: 1
  }
  param {
    lr_mult: 2
    decay_mult: 0
  }
  convolution_param {
    num_output: 64
    pad: 2
    kernel_size: 5
    weight_filler {
      type: "xavier"
      std: 0.03
    }
    bias_filler {
      type: "constant"
      value: 0.2
    }
  }
}
layer {
  name: "inception_4b/relu_5x5"
  type: "ReLU"
  bottom: "inception_4b/5x5"
  top: "inception_4b/5x5"
}
layer {
  name: "inception_4b/pool"
  type: "Pooling"
  bottom: "inception_4a/output"
  top: "inception_4b/pool"
  pooling_param {
    pool: MAX
    kernel_size: 3
    stride: 1
    pad: 1
  }
}
layer {
  name: "inception_4b/pool_proj"
  type: "Convolution"
  bottom: "inception_4b/pool"
  top: "inception_4b/pool_proj"
  param {
    lr_mult: 1
    decay_mult: 1
  }
  param {
    lr_mult: 2
    decay_mult: 0
  }
  convolution_param {
    num_output: 64
    kernel_size: 1
    weight_filler {
      type: "xavier"
      std: 0.1
    }
    bias_filler {
      type: "constant"
      value: 0.2
    }
  }
}
layer {
  name: "inception_4b/relu_pool_proj"
  type: "ReLU"
  bottom: "inception_4b/pool_proj"
  top: "inception_4b/pool_proj"
}
layer {
  name: "inception_4b/output"
  type: "Concat"
  bottom: "inception_4b/1x1"
  bottom: "inception_4b/3x3"
  bottom: "inception_4b/5x5"
  bottom: "inception_4b/pool_proj"
  top: "inception_4b/output"
}
layer {
  name: "inception_4c/1x1"
  type: "Convolution"
  bottom: "inception_4b/output"
  top: "inception_4c/1x1"
  param {
    lr_mult: 1
    decay_mult: 1
  }
  param {
    lr_mult: 2
    decay_mult: 0
  }
  convolution_param {
    num_output: 128
    kernel_size: 1
    weight_filler {
      type: "xavier"
      std: 0.03
    }
    bias_filler {
      type: "constant"
      value: 0.2
    }
  }
}
layer {
  name: "inception_4c/relu_1x1"
  type: "ReLU"
  bottom: "inception_4c/1x1"
  top: "inception_4c/1x1"
}
layer {
  name: "inception_4c/3x3_reduce"
  type: "Convolution"
  bottom: "inception_4b/output"
  top: "inception_4c/3x3_reduce"
  param {
    lr_mult: 1
    decay_mult: 1
  }
  param {
    lr_mult: 2
    decay_mult: 0
  }
  convolution_param {
    num_output: 128
    kernel_size: 1
    weight_filler {
      type: "xavier"
      std: 0.09
    }
    bias_filler {
      type: "constant"
      value: 0.2
    }
  }
}
layer {
  name: "inception_4c/relu_3x3_reduce"
  type: "ReLU"
  bottom: "inception_4c/3x3_reduce"
  top: "inception_4c/3x3_reduce"
}
layer {
  name: "inception_4c/3x3"
  type: "Convolution"
  bottom: "inception_4c/3x3_reduce"
  top: "inception_4c/3x3"
  param {
    lr_mult: 1
    decay_mult: 1
  }
  param {
    lr_mult: 2
    decay_mult: 0
  }
  convolution_param {
    num_output: 256
    pad: 1
    kernel_size: 3
    weight_filler {
      type: "xavier"
      std: 0.03
    }
    bias_filler {
      type: "constant"
      value: 0.2
    }
  }
}
layer {
  name: "inception_4c/relu_3x3"
  type: "ReLU"
  bottom: "inception_4c/3x3"
  top: "inception_4c/3x3"
}
layer {
  name: "inception_4c/5x5_reduce"
  type: "Convolution"
  bottom: "inception_4b/output"
  top: "inception_4c/5x5_reduce"
  param {
    lr_mult: 1
    decay_mult: 1
  }
  param {
    lr_mult: 2
    decay_mult: 0
  }
  convolution_param {
    num_output: 24
    kernel_size: 1
    weight_filler {
      type: "xavier"
      std: 0.2
    }
    bias_filler {
      type: "constant"
      value: 0.2
    }
  }
}
layer {
  name: "inception_4c/relu_5x5_reduce"
  type: "ReLU"
  bottom: "inception_4c/5x5_reduce"
  top: "inception_4c/5x5_reduce"
}
layer {
  name: "inception_4c/5x5"
  type: "Convolution"
  bottom: "inception_4c/5x5_reduce"
  top: "inception_4c/5x5"
  param {
    lr_mult: 1
    decay_mult: 1
  }
  param {
    lr_mult: 2
    decay_mult: 0
  }
  convolution_param {
    num_output: 64
    pad: 2
    kernel_size: 5
    weight_filler {
      type: "xavier"
      std: 0.03
    }
    bias_filler {
      type: "constant"
      value: 0.2
    }
  }
}
layer {
  name: "inception_4c/relu_5x5"
  type: "ReLU"
  bottom: "inception_4c/5x5"
  top: "inception_4c/5x5"
}
layer {
  name: "inception_4c/pool"
  type: "Pooling"
  bottom: "inception_4b/output"
  top: "inception_4c/pool"
  pooling_param {
    pool: MAX
    kernel_size: 3
    stride: 1
    pad: 1
  }
}
layer {
  name: "inception_4c/pool_proj"
  type: "Convolution"
  bottom: "inception_4c/pool"
  top: "inception_4c/pool_proj"
  param {
    lr_mult: 1
    decay_mult: 1
  }
  param {
    lr_mult: 2
    decay_mult: 0
  }
  convolution_param {
    num_output: 64
    kernel_size: 1
    weight_filler {
      type: "xavier"
      std: 0.1
    }
    bias_filler {
      type: "constant"
      value: 0.2
    }
  }
}
layer {
  name: "inception_4c/relu_pool_proj"
  type: "ReLU"
  bottom: "inception_4c/pool_proj"
  top: "inception_4c/pool_proj"
}
layer {
  name: "inception_4c/output"
  type: "Concat"
  bottom: "inception_4c/1x1"
  bottom: "inception_4c/3x3"
  bottom: "inception_4c/5x5"
  bottom: "inception_4c/pool_proj"
  top: "inception_4c/output"
}
layer {
  name: "inception_4d/1x1"
  type: "Convolution"
  bottom: "inception_4c/output"
  top: "inception_4d/1x1"
  param {
    lr_mult: 1
    decay_mult: 1
  }
  param {
    lr_mult: 2
    decay_mult: 0
  }
  convolution_param {
    num_output: 112
    kernel_size: 1
    weight_filler {
      type: "xavier"
      std: 0.03
    }
    bias_filler {
      type: "constant"
      value: 0.2
    }
  }
}
layer {
  name: "inception_4d/relu_1x1"
  type: "ReLU"
  bottom: "inception_4d/1x1"
  top: "inception_4d/1x1"
}
layer {
  name: "inception_4d/3x3_reduce"
  type: "Convolution"
  bottom: "inception_4c/output"
  top: "inception_4d/3x3_reduce"
  param {
    lr_mult: 1
    decay_mult: 1
  }
  param {
    lr_mult: 2
    decay_mult: 0
  }
  convolution_param {
    num_output: 144
    kernel_size: 1
    weight_filler {
      type: "xavier"
      std: 0.09
    }
    bias_filler {
      type: "constant"
      value: 0.2
    }
  }
}
layer {
  name: "inception_4d/relu_3x3_reduce"
  type: "ReLU"
  bottom: "inception_4d/3x3_reduce"
  top: "inception_4d/3x3_reduce"
}
layer {
  name: "inception_4d/3x3"
  type: "Convolution"
  bottom: "inception_4d/3x3_reduce"
  top: "inception_4d/3x3"
  param {
    lr_mult: 1
    decay_mult: 1
  }
  param {
    lr_mult: 2
    decay_mult: 0
  }
  convolution_param {
    num_output: 288
    pad: 1
    kernel_size: 3
    weight_filler {
      type: "xavier"
      std: 0.03
    }
    bias_filler {
      type: "constant"
      value: 0.2
    }
  }
}
layer {
  name: "inception_4d/relu_3x3"
  type: "ReLU"
  bottom: "inception_4d/3x3"
  top: "inception_4d/3x3"
}
layer {
  name: "inception_4d/5x5_reduce"
  type: "Convolution"
  bottom: "inception_4c/output"
  top: "inception_4d/5x5_reduce"
  param {
    lr_mult: 1
    decay_mult: 1
  }
  param {
    lr_mult: 2
    decay_mult: 0
  }
  convolution_param {
    num_output: 32
    kernel_size: 1
    weight_filler {
      type: "xavier"
      std: 0.2
    }
    bias_filler {
      type: "constant"
      value: 0.2
    }
  }
}
layer {
  name: "inception_4d/relu_5x5_reduce"
  type: "ReLU"
  bottom: "inception_4d/5x5_reduce"
  top: "inception_4d/5x5_reduce"
}
layer {
  name: "inception_4d/5x5"
  type: "Convolution"
  bottom: "inception_4d/5x5_reduce"
  top: "inception_4d/5x5"
  param {
    lr_mult: 1
    decay_mult: 1
  }
  param {
    lr_mult: 2
    decay_mult: 0
  }
  convolution_param {
    num_output: 64
    pad: 2
    kernel_size: 5
    weight_filler {
      type: "xavier"
      std: 0.03
    }
    bias_filler {
      type: "constant"
      value: 0.2
    }
  }
}
layer {
  name: "inception_4d/relu_5x5"
  type: "ReLU"
  bottom: "inception_4d/5x5"
  top: "inception_4d/5x5"
}
layer {
  name: "inception_4d/pool"
  type: "Pooling"
  bottom: "inception_4c/output"
  top: "inception_4d/pool"
  pooling_param {
    pool: MAX
    kernel_size: 3
    stride: 1
    pad: 1
  }
}
layer {
  name: "inception_4d/pool_proj"
  type: "Convolution"
  bottom: "inception_4d/pool"
  top: "inception_4d/pool_proj"
  param {
    lr_mult: 1
    decay_mult: 1
  }
  param {
    lr_mult: 2
    decay_mult: 0
  }
  convolution_param {
    num_output: 64
    kernel_size: 1
    weight_filler {
      type: "xavier"
      std: 0.1
    }
    bias_filler {
      type: "constant"
      value: 0.2
    }
  }
}
layer {
  name: "inception_4d/relu_pool_proj"
  type: "ReLU"
  bottom: "inception_4d/pool_proj"
  top: "inception_4d/pool_proj"
}
layer {
  name: "inception_4d/output"
  type: "Concat"
  bottom: "inception_4d/1x1"
  bottom: "inception_4d/3x3"
  bottom: "inception_4d/5x5"
  bottom: "inception_4d/pool_proj"
  top: "inception_4d/output"
}
layer {
  name: "inception_4e/1x1"
  type: "Convolution"
  bottom: "inception_4d/output"
  top: "inception_4e/1x1"
  param {
    lr_mult: 1
    decay_mult: 1
  }
  param {
    lr_mult: 2
    decay_mult: 0
  }
  convolution_param {
    num_output: 256
    kernel_size: 1
    weight_filler {
      type: "xavier"
      std: 0.03
    }
    bias_filler {
      type: "constant"
      value: 0.2
    }
  }
}
layer {
  name: "inception_4e/relu_1x1"
  type: "ReLU"
  bottom: "inception_4e/1x1"
  top: "inception_4e/1x1"
}
layer {
  name: "inception_4e/3x3_reduce"
  type: "Convolution"
  bottom: "inception_4d/output"
  top: "inception_4e/3x3_reduce"
  param {
    lr_mult: 1
    decay_mult: 1
  }
  param {
    lr_mult: 2
    decay_mult: 0
  }
  convolution_param {
    num_output: 160
    kernel_size: 1
    weight_filler {
      type: "xavier"
      std: 0.09
    }
    bias_filler {
      type: "constant"
      value: 0.2
    }
  }
}
layer {
  name: "inception_4e/relu_3x3_reduce"
  type: "ReLU"
  bottom: "inception_4e/3x3_reduce"
  top: "inception_4e/3x3_reduce"
}
layer {
  name: "inception_4e/3x3"
  type: "Convolution"
  bottom: "inception_4e/3x3_reduce"
  top: "inception_4e/3x3"
  param {
    lr_mult: 1
    decay_mult: 1
  }
  param {
    lr_mult: 2
    decay_mult: 0
  }
  convolution_param {
    num_output: 320
    pad: 1
    kernel_size: 3
    weight_filler {
      type: "xavier"
      std: 0.03
    }
    bias_filler {
      type: "constant"
      value: 0.2
    }
  }
}
layer {
  name: "inception_4e/relu_3x3"
  type: "ReLU"
  bottom: "inception_4e/3x3"
  top: "inception_4e/3x3"
}
layer {
  name: "inception_4e/5x5_reduce"
  type: "Convolution"
  bottom: "inception_4d/output"
  top: "inception_4e/5x5_reduce"
  param {
    lr_mult: 1
    decay_mult: 1
  }
  param {
    lr_mult: 2
    decay_mult: 0
  }
  convolution_param {
    num_output: 32
    kernel_size: 1
    weight_filler {
      type: "xavier"
      std: 0.2
    }
    bias_filler {
      type: "constant"
      value: 0.2
    }
  }
}
layer {
  name: "inception_4e/relu_5x5_reduce"
  type: "ReLU"
  bottom: "inception_4e/5x5_reduce"
  top: "inception_4e/5x5_reduce"
}
layer {
  name: "inception_4e/5x5"
  type: "Convolution"
  bottom: "inception_4e/5x5_reduce"
  top: "inception_4e/5x5"
  param {
    lr_mult: 1
    decay_mult: 1
  }
  param {
    lr_mult: 2
    decay_mult: 0
  }
  convolution_param {
    num_output: 128
    pad: 2
    kernel_size: 5
    weight_filler {
      type: "xavier"
      std: 0.03
    }
    bias_filler {
      type: "constant"
      value: 0.2
    }
  }
}
layer {
  name: "inception_4e/relu_5x5"
  type: "ReLU"
  bottom: "inception_4e/5x5"
  top: "inception_4e/5x5"
}
layer {
  name: "inception_4e/pool"
  type: "Pooling"
  bottom: "inception_4d/output"
  top: "inception_4e/pool"
  pooling_param {
    pool: MAX
    kernel_size: 3
    stride: 1
    pad: 1
  }
}
layer {
  name: "inception_4e/pool_proj"
  type: "Convolution"
  bottom: "inception_4e/pool"
  top: "inception_4e/pool_proj"
  param {
    lr_mult: 1
    decay_mult: 1
  }
  param {
    lr_mult: 2
    decay_mult: 0
  }
  convolution_param {
    num_output: 128
    kernel_size: 1
    weight_filler {
      type: "xavier"
      std: 0.1
    }
    bias_filler {
      type: "constant"
      value: 0.2
    }
  }
}
layer {
  name: "inception_4e/relu_pool_proj"
  type: "ReLU"
  bottom: "inception_4e/pool_proj"
  top: "inception_4e/pool_proj"
}
layer {
  name: "inception_4e/output"
  type: "Concat"
  bottom: "inception_4e/1x1"
  bottom: "inception_4e/3x3"
  bottom: "inception_4e/5x5"
  bottom: "inception_4e/pool_proj"
  top: "inception_4e/output"
}
layer {
  name: "pool4/3x3_s2"
  type: "Pooling"
  bottom: "inception_4e/output"
  top: "pool4/3x3_s2"
  pooling_param {
    pool: MAX
    kernel_size: 3
    stride: 2
  }
}
layer {
  name: "inception_5a/1x1"
  type: "Convolution"
  bottom: "pool4/3x3_s2"
  top: "inception_5a/1x1"
  param {
    lr_mult: 1
    decay_mult: 1
  }
  param {
    lr_mult: 2
    decay_mult: 0
  }
  convolution_param {
    num_output: 256
    kernel_size: 1
    weight_filler {
      type: "xavier"
      std: 0.03
    }
    bias_filler {
      type: "constant"
      value: 0.2
    }
  }
}
layer {
  name: "inception_5a/relu_1x1"
  type: "ReLU"
  bottom: "inception_5a/1x1"
  top: "inception_5a/1x1"
}
layer {
  name: "inception_5a/3x3_reduce"
  type: "Convolution"
  bottom: "pool4/3x3_s2"
  top: "inception_5a/3x3_reduce"
  param {
    lr_mult: 1
    decay_mult: 1
  }
  param {
    lr_mult: 2
    decay_mult: 0
  }
  convolution_param {
    num_output: 160
    kernel_size: 1
    weight_filler {
      type: "xavier"
      std: 0.09
    }
    bias_filler {
      type: "constant"
      value: 0.2
    }
  }
}
layer {
  name: "inception_5a/relu_3x3_reduce"
  type: "ReLU"
  bottom: "inception_5a/3x3_reduce"
  top: "inception_5a/3x3_reduce"
}
layer {
  name: "inception_5a/3x3"
  type: "Convolution"
  bottom: "inception_5a/3x3_reduce"
  top: "inception_5a/3x3"
  param {
    lr_mult: 1
    decay_mult: 1
  }
  param {
    lr_mult: 2
    decay_mult: 0
  }
  convolution_param {
    num_output: 320
    pad: 1
    kernel_size: 3
    weight_filler {
      type: "xavier"
      std: 0.03
    }
    bias_filler {
      type: "constant"
      value: 0.2
    }
  }
}
layer {
  name: "inception_5a/relu_3x3"
  type: "ReLU"
  bottom: "inception_5a/3x3"
  top: "inception_5a/3x3"
}
layer {
  name: "inception_5a/5x5_reduce"
  type: "Convolution"
  bottom: "pool4/3x3_s2"
  top: "inception_5a/5x5_reduce"
  param {
    lr_mult: 1
    decay_mult: 1
  }
  param {
    lr_mult: 2
    decay_mult: 0
  }
  convolution_param {
    num_output: 32
    kernel_size: 1
    weight_filler {
      type: "xavier"
      std: 0.2
    }
    bias_filler {
      type: "constant"
      value: 0.2
    }
I0924 00:30:50.699379 22187 layer_factory.hpp:77] Creating layer data
I0924 00:30:50.699405 22187 net.cpp:91] Creating Layer data
I0924 00:30:50.699415 22187 net.cpp:399] data -> data
I0924 00:30:51.204227 22187 net.cpp:141] Setting up data
I0924 00:30:51.204296 22187 net.cpp:148] Top shape: 10 3 224 224 (1505280)
I0924 00:30:51.204304 22187 net.cpp:156] Memory required for data: 6021120
I0924 00:30:51.204324 22187 layer_factory.hpp:77] Creating layer conv1/7x7_s2
I0924 00:30:51.204358 22187 net.cpp:91] Creating Layer conv1/7x7_s2
I0924 00:30:51.204367 22187 net.cpp:425] conv1/7x7_s2 <- data
I0924 00:30:51.204380 22187 net.cpp:399] conv1/7x7_s2 -> conv1/7x7_s2
I0924 00:30:51.381206 22187 net.cpp:141] Setting up conv1/7x7_s2
I0924 00:30:51.381258 22187 net.cpp:148] Top shape: 10 64 112 112 (8028160)
I0924 00:30:51.381266 22187 net.cpp:156] Memory required for data: 38133760
I0924 00:30:51.381300 22187 layer_factory.hpp:77] Creating layer conv1/relu_7x7
I0924 00:30:51.381330 22187 net.cpp:91] Creating Layer conv1/relu_7x7
I0924 00:30:51.381340 22187 net.cpp:425] conv1/relu_7x7 <- conv1/7x7_s2
I0924 00:30:51.381352 22187 net.cpp:386] conv1/relu_7x7 -> conv1/7x7_s2 (in-place)
I0924 00:30:51.381909 22187 net.cpp:141] Setting up conv1/relu_7x7
I0924 00:30:51.381928 22187 net.cpp:148] Top shape: 10 64 112 112 (8028160)
I0924 00:30:51.381937 22187 net.cpp:156] Memory required for data: 70246400
I0924 00:30:51.381944 22187 layer_factory.hpp:77] Creating layer pool1/3x3_s2
I0924 00:30:51.381966 22187 net.cpp:91] Creating Layer pool1/3x3_s2
I0924 00:30:51.381976 22187 net.cpp:425] pool1/3x3_s2 <- conv1/7x7_s2
I0924 00:30:51.381989 22187 net.cpp:399] pool1/3x3_s2 -> pool1/3x3_s2
I0924 00:30:51.382105 22187 net.cpp:141] Setting up pool1/3x3_s2
I0924 00:30:51.382123 22187 net.cpp:148] Top shape: 10 64 56 56 (2007040)
I0924 00:30:51.382133 22187 net.cpp:156] Memory required for data: 78274560
I0924 00:30:51.382141 22187 layer_factory.hpp:77] Creating layer pool1/norm1
I0924 00:30:51.382165 22187 net.cpp:91] Creating Layer pool1/norm1
I0924 00:30:51.382177 22187 net.cpp:425] pool1/norm1 <- pool1/3x3_s2
I0924 00:30:51.382197 22187 net.cpp:399] pool1/norm1 -> pool1/norm1
I0924 00:30:51.382665 22187 net.cpp:141] Setting up pool1/norm1
I0924 00:30:51.382689 22187 net.cpp:148] Top shape: 10 64 56 56 (2007040)
I0924 00:30:51.382699 22187 net.cpp:156] Memory required for data: 86302720
I0924 00:30:51.382709 22187 layer_factory.hpp:77] Creating layer conv2/3x3_reduce
I0924 00:30:51.382740 22187 net.cpp:91] Creating Layer conv2/3x3_reduce
I0924 00:30:51.382751 22187 net.cpp:425] conv2/3x3_reduce <- pool1/norm1
I0924 00:30:51.382768 22187 net.cpp:399] conv2/3x3_reduce -> conv2/3x3_reduce
I0924 00:30:51.385623 22187 net.cpp:141] Setting up conv2/3x3_reduce
I0924 00:30:51.385645 22187 net.cpp:148] Top shape: 10 64 56 56 (2007040)
I0924 00:30:51.385654 22187 net.cpp:156] Memory required for data: 94330880
I0924 00:30:51.385673 22187 layer_factory.hpp:77] Creating layer conv2/relu_3x3_reduce
I0924 00:30:51.385699 22187 net.cpp:91] Creating Layer conv2/relu_3x3_reduce
I0924 00:30:51.385710 22187 net.cpp:425] conv2/relu_3x3_reduce <- conv2/3x3_reduce
I0924 00:30:51.385725 22187 net.cpp:386] conv2/relu_3x3_reduce -> conv2/3x3_reduce (in-place)
I0924 00:30:51.386333 22187 net.cpp:141] Setting up conv2/relu_3x3_reduce
I0924 00:30:51.386353 22187 net.cpp:148] Top shape: 10 64 56 56 (2007040)
I0924 00:30:51.386363 22187 net.cpp:156] Memory required for data: 102359040
I0924 00:30:51.386373 22187 layer_factory.hpp:77] Creating layer conv2/3x3
I0924 00:30:51.386397 22187 net.cpp:91] Creating Layer conv2/3x3
I0924 00:30:51.386409 22187 net.cpp:425] conv2/3x3 <- conv2/3x3_reduce
I0924 00:30:51.386431 22187 net.cpp:399] conv2/3x3 -> conv2/3x3
I0924 00:30:51.389734 22187 net.cpp:141] Setting up conv2/3x3
I0924 00:30:51.389755 22187 net.cpp:148] Top shape: 10 192 56 56 (6021120)
I0924 00:30:51.389765 22187 net.cpp:156] Memory required for data: 126443520
I0924 00:30:51.389791 22187 layer_factory.hpp:77] Creating layer conv2/relu_3x3
I0924 00:30:51.389808 22187 net.cpp:91] Creating Layer conv2/relu_3x3
I0924 00:30:51.389818 22187 net.cpp:425] conv2/relu_3x3 <- conv2/3x3
I0924 00:30:51.389847 22187 net.cpp:386] conv2/relu_3x3 -> conv2/3x3 (in-place)
I0924 00:30:51.390239 22187 net.cpp:141] Setting up conv2/relu_3x3
I0924 00:30:51.390259 22187 net.cpp:148] Top shape: 10 192 56 56 (6021120)
I0924 00:30:51.390267 22187 net.cpp:156] Memory required for data: 150528000
I0924 00:30:51.390277 22187 layer_factory.hpp:77] Creating layer conv2/norm2
I0924 00:30:51.390297 22187 net.cpp:91] Creating Layer conv2/norm2
I0924 00:30:51.390308 22187 net.cpp:425] conv2/norm2 <- conv2/3x3
I0924 00:30:51.390323 22187 net.cpp:399] conv2/norm2 -> conv2/norm2
I0924 00:30:51.391016 22187 net.cpp:141] Setting up conv2/norm2
I0924 00:30:51.391036 22187 net.cpp:148] Top shape: 10 192 56 56 (6021120)
I0924 00:30:51.391044 22187 net.cpp:156] Memory required for data: 174612480
I0924 00:30:51.391052 22187 layer_factory.hpp:77] Creating layer pool2/3x3_s2
I0924 00:30:51.391072 22187 net.cpp:91] Creating Layer pool2/3x3_s2
I0924 00:30:51.391083 22187 net.cpp:425] pool2/3x3_s2 <- conv2/norm2
I0924 00:30:51.391099 22187 net.cpp:399] pool2/3x3_s2 -> pool2/3x3_s2
I0924 00:30:51.391181 22187 net.cpp:141] Setting up pool2/3x3_s2
I0924 00:30:51.391198 22187 net.cpp:148] Top shape: 10 192 28 28 (1505280)
I0924 00:30:51.391206 22187 net.cpp:156] Memory required for data: 180633600
I0924 00:30:51.391214 22187 layer_factory.hpp:77] Creating layer pool2/3x3_s2_pool2/3x3_s2_0_split
I0924 00:30:51.391232 22187 net.cpp:91] Creating Layer pool2/3x3_s2_pool2/3x3_s2_0_split
I0924 00:30:51.391242 22187 net.cpp:425] pool2/3x3_s2_pool2/3x3_s2_0_split <- pool2/3x3_s2
I0924 00:30:51.391254 22187 net.cpp:399] pool2/3x3_s2_pool2/3x3_s2_0_split -> pool2/3x3_s2_pool2/3x3_s2_0_split_0
I0924 00:30:51.391271 22187 net.cpp:399] pool2/3x3_s2_pool2/3x3_s2_0_split -> pool2/3x3_s2_pool2/3x3_s2_0_split_1
I0924 00:30:51.391288 22187 net.cpp:399] pool2/3x3_s2_pool2/3x3_s2_0_split -> pool2/3x3_s2_pool2/3x3_s2_0_split_2
I0924 00:30:51.391302 22187 net.cpp:399] pool2/3x3_s2_pool2/3x3_s2_0_split -> pool2/3x3_s2_pool2/3x3_s2_0_split_3
I0924 00:30:51.391443 22187 net.cpp:141] Setting up pool2/3x3_s2_pool2/3x3_s2_0_split
I0924 00:30:51.391461 22187 net.cpp:148] Top shape: 10 192 28 28 (1505280)
I0924 00:30:51.391474 22187 net.cpp:148] Top shape: 10 192 28 28 (1505280)
I0924 00:30:51.391482 22187 net.cpp:148] Top shape: 10 192 28 28 (1505280)
I0924 00:30:51.391491 22187 net.cpp:148] Top shape: 10 192 28 28 (1505280)
I0924 00:30:51.391510 22187 net.cpp:156] Memory required for data: 204718080
I0924 00:30:51.391517 22187 layer_factory.hpp:77] Creating layer inception_3a/1x1
I0924 00:30:51.391541 22187 net.cpp:91] Creating Layer inception_3a/1x1
I0924 00:30:51.391549 22187 net.cpp:425] inception_3a/1x1 <- pool2/3x3_s2_pool2/3x3_s2_0_split_0
I0924 00:30:51.391583 22187 net.cpp:399] inception_3a/1x1 -> inception_3a/1x1
I0924 00:30:51.394515 22187 net.cpp:141] Setting up inception_3a/1x1
I0924 00:30:51.394533 22187 net.cpp:148] Top shape: 10 64 28 28 (501760)
I0924 00:30:51.394542 22187 net.cpp:156] Memory required for data: 206725120
I0924 00:30:51.394558 22187 layer_factory.hpp:77] Creating layer inception_3a/relu_1x1
I0924 00:30:51.394575 22187 net.cpp:91] Creating Layer inception_3a/relu_1x1
I0924 00:30:51.394584 22187 net.cpp:425] inception_3a/relu_1x1 <- inception_3a/1x1
I0924 00:30:51.394606 22187 net.cpp:386] inception_3a/relu_1x1 -> inception_3a/1x1 (in-place)
I0924 00:30:51.395236 22187 net.cpp:141] Setting up inception_3a/relu_1x1
I0924 00:30:51.395253 22187 net.cpp:148] Top shape: 10 64 28 28 (501760)
I0924 00:30:51.395263 22187 net.cpp:156] Memory required for data: 208732160
I0924 00:30:51.395272 22187 layer_factory.hpp:77] Creating layer inception_3a/3x3_reduce
I0924 00:30:51.395298 22187 net.cpp:91] Creating Layer inception_3a/3x3_reduce
I0924 00:30:51.395310 22187 net.cpp:425] inception_3a/3x3_reduce <- pool2/3x3_s2_pool2/3x3_s2_0_split_1
I0924 00:30:51.395333 22187 net.cpp:399] inception_3a/3x3_reduce -> inception_3a/3x3_reduce
I0924 00:30:51.397912 22187 net.cpp:141] Setting up inception_3a/3x3_reduce
I0924 00:30:51.397933 22187 net.cpp:148] Top shape: 10 96 28 28 (752640)
I0924 00:30:51.397940 22187 net.cpp:156] Memory required for data: 211742720
I0924 00:30:51.397979 22187 layer_factory.hpp:77] Creating layer inception_3a/relu_3x3_reduce
I0924 00:30:51.397994 22187 net.cpp:91] Creating Layer inception_3a/relu_3x3_reduce
I0924 00:30:51.398003 22187 net.cpp:425] inception_3a/relu_3x3_reduce <- inception_3a/3x3_reduce
I0924 00:30:51.398027 22187 net.cpp:386] inception_3a/relu_3x3_reduce -> inception_3a/3x3_reduce (in-place)
I0924 00:30:51.398432 22187 net.cpp:141] Setting up inception_3a/relu_3x3_reduce
I0924 00:30:51.398452 22187 net.cpp:148] Top shape: 10 96 28 28 (752640)
I0924 00:30:51.398463 22187 net.cpp:156] Memory required for data: 214753280
I0924 00:30:51.398473 22187 layer_factory.hpp:77] Creating layer inception_3a/3x3
I0924 00:30:51.398502 22187 net.cpp:91] Creating Layer inception_3a/3x3
I0924 00:30:51.398515 22187 net.cpp:425] inception_3a/3x3 <- inception_3a/3x3_reduce
I0924 00:30:51.398537 22187 net.cpp:399] inception_3a/3x3 -> inception_3a/3x3
I0924 00:30:51.401125 22187 net.cpp:141] Setting up inception_3a/3x3
I0924 00:30:51.401147 22187 net.cpp:148] Top shape: 10 128 28 28 (1003520)
I0924 00:30:51.401157 22187 net.cpp:156] Memory required for data: 218767360
I0924 00:30:51.401175 22187 layer_factory.hpp:77] Creating layer inception_3a/relu_3x3
I0924 00:30:51.401188 22187 net.cpp:91] Creating Layer inception_3a/relu_3x3
I0924 00:30:51.401198 22187 net.cpp:425] inception_3a/relu_3x3 <- inception_3a/3x3
I0924 00:30:51.401216 22187 net.cpp:386] inception_3a/relu_3x3 -> inception_3a/3x3 (in-place)
I0924 00:30:51.401823 22187 net.cpp:141] Setting up inception_3a/relu_3x3
I0924 00:30:51.401844 22187 net.cpp:148] Top shape: 10 128 28 28 (1003520)
I0924 00:30:51.401854 22187 net.cpp:156] Memory required for data: 222781440
I0924 00:30:51.401864 22187 layer_factory.hpp:77] Creating layer inception_3a/5x5_reduce
I0924 00:30:51.401888 22187 net.cpp:91] Creating Layer inception_3a/5x5_reduce
I0924 00:30:51.401901 22187 net.cpp:425] inception_3a/5x5_reduce <- pool2/3x3_s2_pool2/3x3_s2_0_split_2
I0924 00:30:51.401924 22187 net.cpp:399] inception_3a/5x5_reduce -> inception_3a/5x5_reduce
I0924 00:30:51.404659 22187 net.cpp:141] Setting up inception_3a/5x5_reduce
I0924 00:30:51.404695 22187 net.cpp:148] Top shape: 10 16 28 28 (125440)
I0924 00:30:51.404705 22187 net.cpp:156] Memory required for data: 223283200
I0924 00:30:51.404724 22187 layer_factory.hpp:77] Creating layer inception_3a/relu_5x5_reduce
I0924 00:30:51.404747 22187 net.cpp:91] Creating Layer inception_3a/relu_5x5_reduce
I0924 00:30:51.404760 22187 net.cpp:425] inception_3a/relu_5x5_reduce <- inception_3a/5x5_reduce
I0924 00:30:51.404773 22187 net.cpp:386] inception_3a/relu_5x5_reduce -> inception_3a/5x5_reduce (in-place)
I0924 00:30:51.405381 22187 net.cpp:141] Setting up inception_3a/relu_5x5_reduce
I0924 00:30:51.405400 22187 net.cpp:148] Top shape: 10 16 28 28 (125440)
I0924 00:30:51.405411 22187 net.cpp:156] Memory required for data: 223784960
I0924 00:30:51.405421 22187 layer_factory.hpp:77] Creating layer inception_3a/5x5
I0924 00:30:51.405452 22187 net.cpp:91] Creating Layer inception_3a/5x5
I0924 00:30:51.405467 22187 net.cpp:425] inception_3a/5x5 <- inception_3a/5x5_reduce
I0924 00:30:51.405484 22187 net.cpp:399] inception_3a/5x5 -> inception_3a/5x5
I0924 00:30:51.407707 22187 net.cpp:141] Setting up inception_3a/5x5
I0924 00:30:51.407732 22187 net.cpp:148] Top shape: 10 32 28 28 (250880)
I0924 00:30:51.407742 22187 net.cpp:156] Memory required for data: 224788480
I0924 00:30:51.407758 22187 layer_factory.hpp:77] Creating layer inception_3a/relu_5x5
I0924 00:30:51.407773 22187 net.cpp:91] Creating Layer inception_3a/relu_5x5
I0924 00:30:51.407783 22187 net.cpp:425] inception_3a/relu_5x5 <- inception_3a/5x5
I0924 00:30:51.407801 22187 net.cpp:386] inception_3a/relu_5x5 -> inception_3a/5x5 (in-place)
I0924 00:30:51.408195 22187 net.cpp:141] Setting up inception_3a/relu_5x5
I0924 00:30:51.408221 22187 net.cpp:148] Top shape: 10 32 28 28 (250880)
I0924 00:30:51.408231 22187 net.cpp:156] Memory required for data: 225792000
I0924 00:30:51.408241 22187 layer_factory.hpp:77] Creating layer inception_3a/pool
I0924 00:30:51.408257 22187 net.cpp:91] Creating Layer inception_3a/pool
I0924 00:30:51.408267 22187 net.cpp:425] inception_3a/pool <- pool2/3x3_s2_pool2/3x3_s2_0_split_3
I0924 00:30:51.408280 22187 net.cpp:399] inception_3a/pool -> inception_3a/pool
I0924 00:30:51.408383 22187 net.cpp:141] Setting up inception_3a/pool
I0924 00:30:51.408401 22187 net.cpp:148] Top shape: 10 192 28 28 (1505280)
I0924 00:30:51.408411 22187 net.cpp:156] Memory required for data: 231813120
I0924 00:30:51.408419 22187 layer_factory.hpp:77] Creating layer inception_3a/pool_proj
I0924 00:30:51.408444 22187 net.cpp:91] Creating Layer inception_3a/pool_proj
I0924 00:30:51.408457 22187 net.cpp:425] inception_3a/pool_proj <- inception_3a/pool
I0924 00:30:51.408478 22187 net.cpp:399] inception_3a/pool_proj -> inception_3a/pool_proj
I0924 00:30:51.410476 22187 net.cpp:141] Setting up inception_3a/pool_proj
I0924 00:30:51.410498 22187 net.cpp:148] Top shape: 10 32 28 28 (250880)
I0924 00:30:51.410507 22187 net.cpp:156] Memory required for data: 232816640
I0924 00:30:51.410531 22187 layer_factory.hpp:77] Creating layer inception_3a/relu_pool_proj
I0924 00:30:51.410552 22187 net.cpp:91] Creating Layer inception_3a/relu_pool_proj
I0924 00:30:51.410563 22187 net.cpp:425] inception_3a/relu_pool_proj <- inception_3a/pool_proj
I0924 00:30:51.410578 22187 net.cpp:386] inception_3a/relu_pool_proj -> inception_3a/pool_proj (in-place)
I0924 00:30:51.411196 22187 net.cpp:141] Setting up inception_3a/relu_pool_proj
I0924 00:30:51.411217 22187 net.cpp:148] Top shape: 10 32 28 28 (250880)
I0924 00:30:51.411227 22187 net.cpp:156] Memory required for data: 233820160
I0924 00:30:51.411237 22187 layer_factory.hpp:77] Creating layer inception_3a/output
I0924 00:30:51.411267 22187 net.cpp:91] Creating Layer inception_3a/output
I0924 00:30:51.411280 22187 net.cpp:425] inception_3a/output <- inception_3a/1x1
I0924 00:30:51.411293 22187 net.cpp:425] inception_3a/output <- inception_3a/3x3
I0924 00:30:51.411304 22187 net.cpp:425] inception_3a/output <- inception_3a/5x5
I0924 00:30:51.411315 22187 net.cpp:425] inception_3a/output <- inception_3a/pool_proj
I0924 00:30:51.411329 22187 net.cpp:399] inception_3a/output -> inception_3a/output
I0924 00:30:51.411391 22187 net.cpp:141] Setting up inception_3a/output
I0924 00:30:51.411408 22187 net.cpp:148] Top shape: 10 256 28 28 (2007040)
I0924 00:30:51.411417 22187 net.cpp:156] Memory required for data: 241848320
I0924 00:30:51.411427 22187 layer_factory.hpp:77] Creating layer inception_3a/output_inception_3a/output_0_split
I0924 00:30:51.411444 22187 net.cpp:91] Creating Layer inception_3a/output_inception_3a/output_0_split
I0924 00:30:51.411453 22187 net.cpp:425] inception_3a/output_inception_3a/output_0_split <- inception_3a/output
I0924 00:30:51.411470 22187 net.cpp:399] inception_3a/output_inception_3a/output_0_split -> inception_3a/output_inception_3a/output_0_split_0
I0924 00:30:51.411485 22187 net.cpp:399] inception_3a/output_inception_3a/output_0_split -> inception_3a/output_inception_3a/output_0_split_1
I0924 00:30:51.411499 22187 net.cpp:399] inception_3a/output_inception_3a/output_0_split -> inception_3a/output_inception_3a/output_0_split_2
I0924 00:30:51.411512 22187 net.cpp:399] inception_3a/output_inception_3a/output_0_split -> inception_3a/output_inception_3a/output_0_split_3
I0924 00:30:51.411660 22187 net.cpp:141] Setting up inception_3a/output_inception_3a/output_0_split
I0924 00:30:51.411679 22187 net.cpp:148] Top shape: 10 256 28 28 (2007040)
I0924 00:30:51.411690 22187 net.cpp:148] Top shape: 10 256 28 28 (2007040)
I0924 00:30:51.411702 22187 net.cpp:148] Top shape: 10 256 28 28 (2007040)
I0924 00:30:51.411713 22187 net.cpp:148] Top shape: 10 256 28 28 (2007040)
I0924 00:30:51.411721 22187 net.cpp:156] Memory required for data: 273960960
I0924 00:30:51.411731 22187 layer_factory.hpp:77] Creating layer inception_3b/1x1
I0924 00:30:51.411759 22187 net.cpp:91] Creating Layer inception_3b/1x1
I0924 00:30:51.411772 22187 net.cpp:425] inception_3b/1x1 <- inception_3a/output_inception_3a/output_0_split_0
I0924 00:30:51.411789 22187 net.cpp:399] inception_3b/1x1 -> inception_3b/1x1
I0924 00:30:51.414207 22187 net.cpp:141] Setting up inception_3b/1x1
I0924 00:30:51.414228 22187 net.cpp:148] Top shape: 10 128 28 28 (1003520)
I0924 00:30:51.414239 22187 net.cpp:156] Memory required for data: 277975040
I0924 00:30:51.414257 22187 layer_factory.hpp:77] Creating layer inception_3b/relu_1x1
I0924 00:30:51.414273 22187 net.cpp:91] Creating Layer inception_3b/relu_1x1
I0924 00:30:51.414283 22187 net.cpp:425] inception_3b/relu_1x1 <- inception_3b/1x1
I0924 00:30:51.414307 22187 net.cpp:386] inception_3b/relu_1x1 -> inception_3b/1x1 (in-place)
I0924 00:30:51.414919 22187 net.cpp:141] Setting up inception_3b/relu_1x1
I0924 00:30:51.414939 22187 net.cpp:148] Top shape: 10 128 28 28 (1003520)
I0924 00:30:51.414949 22187 net.cpp:156] Memory required for data: 281989120
I0924 00:30:51.414959 22187 layer_factory.hpp:77] Creating layer inception_3b/3x3_reduce
I0924 00:30:51.414985 22187 net.cpp:91] Creating Layer inception_3b/3x3_reduce
I0924 00:30:51.414999 22187 net.cpp:425] inception_3b/3x3_reduce <- inception_3a/output_inception_3a/output_0_split_1
I0924 00:30:51.415019 22187 net.cpp:399] inception_3b/3x3_reduce -> inception_3b/3x3_reduce
I0924 00:30:51.417081 22187 net.cpp:141] Setting up inception_3b/3x3_reduce
I0924 00:30:51.417104 22187 net.cpp:148] Top shape: 10 128 28 28 (1003520)
I0924 00:30:51.417112 22187 net.cpp:156] Memory required for data: 286003200
I0924 00:30:51.417129 22187 layer_factory.hpp:77] Creating layer inception_3b/relu_3x3_reduce
I0924 00:30:51.417143 22187 net.cpp:91] Creating Layer inception_3b/relu_3x3_reduce
I0924 00:30:51.417153 22187 net.cpp:425] inception_3b/relu_3x3_reduce <- inception_3b/3x3_reduce
I0924 00:30:51.417172 22187 net.cpp:386] inception_3b/relu_3x3_reduce -> inception_3b/3x3_reduce (in-place)
I0924 00:30:51.417552 22187 net.cpp:141] Setting up inception_3b/relu_3x3_reduce
I0924 00:30:51.417572 22187 net.cpp:148] Top shape: 10 128 28 28 (1003520)
I0924 00:30:51.417582 22187 net.cpp:156] Memory required for data: 290017280
I0924 00:30:51.417592 22187 layer_factory.hpp:77] Creating layer inception_3b/3x3
I0924 00:30:51.417616 22187 net.cpp:91] Creating Layer inception_3b/3x3
I0924 00:30:51.417629 22187 net.cpp:425] inception_3b/3x3 <- inception_3b/3x3_reduce
I0924 00:30:51.417651 22187 net.cpp:399] inception_3b/3x3 -> inception_3b/3x3
I0924 00:30:51.421736 22187 net.cpp:141] Setting up inception_3b/3x3
I0924 00:30:51.421758 22187 net.cpp:148] Top shape: 10 192 28 28 (1505280)
I0924 00:30:51.421768 22187 net.cpp:156] Memory required for data: 296038400
I0924 00:30:51.421784 22187 layer_factory.hpp:77] Creating layer inception_3b/relu_3x3
I0924 00:30:51.421810 22187 net.cpp:91] Creating Layer inception_3b/relu_3x3
I0924 00:30:51.421823 22187 net.cpp:425] inception_3b/relu_3x3 <- inception_3b/3x3
I0924 00:30:51.421836 22187 net.cpp:386] inception_3b/relu_3x3 -> inception_3b/3x3 (in-place)
I0924 00:30:51.422479 22187 net.cpp:141] Setting up inception_3b/relu_3x3
I0924 00:30:51.422499 22187 net.cpp:148] Top shape: 10 192 28 28 (1505280)
I0924 00:30:51.422509 22187 net.cpp:156] Memory required for data: 302059520
I0924 00:30:51.422518 22187 layer_factory.hpp:77] Creating layer inception_3b/5x5_reduce
I0924 00:30:51.422546 22187 net.cpp:91] Creating Layer inception_3b/5x5_reduce
I0924 00:30:51.422559 22187 net.cpp:425] inception_3b/5x5_reduce <- inception_3a/output_inception_3a/output_0_split_2
I0924 00:30:51.422577 22187 net.cpp:399] inception_3b/5x5_reduce -> inception_3b/5x5_reduce
I0924 00:30:51.424242 22187 net.cpp:141] Setting up inception_3b/5x5_reduce
I0924 00:30:51.424264 22187 net.cpp:148] Top shape: 10 32 28 28 (250880)
I0924 00:30:51.424274 22187 net.cpp:156] Memory required for data: 303063040
I0924 00:30:51.424290 22187 layer_factory.hpp:77] Creating layer inception_3b/relu_5x5_reduce
I0924 00:30:51.424304 22187 net.cpp:91] Creating Layer inception_3b/relu_5x5_reduce
I0924 00:30:51.424315 22187 net.cpp:425] inception_3b/relu_5x5_reduce <- inception_3b/5x5_reduce
I0924 00:30:51.424330 22187 net.cpp:386] inception_3b/relu_5x5_reduce -> inception_3b/5x5_reduce (in-place)
I0924 00:30:51.424938 22187 net.cpp:141] Setting up inception_3b/relu_5x5_reduce
I0924 00:30:51.424958 22187 net.cpp:148] Top shape: 10 32 28 28 (250880)
I0924 00:30:51.424968 22187 net.cpp:156] Memory required for data: 304066560
I0924 00:30:51.424978 22187 layer_factory.hpp:77] Creating layer inception_3b/5x5
I0924 00:30:51.425003 22187 net.cpp:91] Creating Layer inception_3b/5x5
I0924 00:30:51.425015 22187 net.cpp:425] inception_3b/5x5 <- inception_3b/5x5_reduce
I0924 00:30:51.425037 22187 net.cpp:399] inception_3b/5x5 -> inception_3b/5x5
I0924 00:30:51.427889 22187 net.cpp:141] Setting up inception_3b/5x5
I0924 00:30:51.427912 22187 net.cpp:148] Top shape: 10 96 28 28 (752640)
I0924 00:30:51.427922 22187 net.cpp:156] Memory required for data: 307077120
I0924 00:30:51.427938 22187 layer_factory.hpp:77] Creating layer inception_3b/relu_5x5
I0924 00:30:51.427953 22187 net.cpp:91] Creating Layer inception_3b/relu_5x5
I0924 00:30:51.427964 22187 net.cpp:425] inception_3b/relu_5x5 <- inception_3b/5x5
I0924 00:30:51.427983 22187 net.cpp:386] inception_3b/relu_5x5 -> inception_3b/5x5 (in-place)
I0924 00:30:51.428369 22187 net.cpp:141] Setting up inception_3b/relu_5x5
I0924 00:30:51.428388 22187 net.cpp:148] Top shape: 10 96 28 28 (752640)
I0924 00:30:51.428398 22187 net.cpp:156] Memory required for data: 310087680
I0924 00:30:51.428408 22187 layer_factory.hpp:77] Creating layer inception_3b/pool
I0924 00:30:51.428426 22187 net.cpp:91] Creating Layer inception_3b/pool
I0924 00:30:51.428437 22187 net.cpp:425] inception_3b/pool <- inception_3a/output_inception_3a/output_0_split_3
I0924 00:30:51.428455 22187 net.cpp:399] inception_3b/pool -> inception_3b/pool
I0924 00:30:51.428560 22187 net.cpp:141] Setting up inception_3b/pool
I0924 00:30:51.428578 22187 net.cpp:148] Top shape: 10 256 28 28 (2007040)
I0924 00:30:51.428587 22187 net.cpp:156] Memory required for data: 318115840
I0924 00:30:51.428596 22187 layer_factory.hpp:77] Creating layer inception_3b/pool_proj
I0924 00:30:51.428620 22187 net.cpp:91] Creating Layer inception_3b/pool_proj
I0924 00:30:51.428632 22187 net.cpp:425] inception_3b/pool_proj <- inception_3b/pool
I0924 00:30:51.428648 22187 net.cpp:399] inception_3b/pool_proj -> inception_3b/pool_proj
I0924 00:30:51.430841 22187 net.cpp:141] Setting up inception_3b/pool_proj
I0924 00:30:51.430865 22187 net.cpp:148] Top shape: 10 64 28 28 (501760)
I0924 00:30:51.430874 22187 net.cpp:156] Memory required for data: 320122880
I0924 00:30:51.430892 22187 layer_factory.hpp:77] Creating layer inception_3b/relu_pool_proj
I0924 00:30:51.430915 22187 net.cpp:91] Creating Layer inception_3b/relu_pool_proj
I0924 00:30:51.430927 22187 net.cpp:425] inception_3b/relu_pool_proj <- inception_3b/pool_proj
I0924 00:30:51.430941 22187 net.cpp:386] inception_3b/relu_pool_proj -> inception_3b/pool_proj (in-place)
I0924 00:30:51.431560 22187 net.cpp:141] Setting up inception_3b/relu_pool_proj
I0924 00:30:51.431579 22187 net.cpp:148] Top shape: 10 64 28 28 (501760)
I0924 00:30:51.431588 22187 net.cpp:156] Memory required for data: 322129920
I0924 00:30:51.431598 22187 layer_factory.hpp:77] Creating layer inception_3b/output
I0924 00:30:51.431618 22187 net.cpp:91] Creating Layer inception_3b/output
I0924 00:30:51.431632 22187 net.cpp:425] inception_3b/output <- inception_3b/1x1
I0924 00:30:51.431643 22187 net.cpp:425] inception_3b/output <- inception_3b/3x3
I0924 00:30:51.431654 22187 net.cpp:425] inception_3b/output <- inception_3b/5x5
I0924 00:30:51.431664 22187 net.cpp:425] inception_3b/output <- inception_3b/pool_proj
I0924 00:30:51.431677 22187 net.cpp:399] inception_3b/output -> inception_3b/output
I0924 00:30:51.431742 22187 net.cpp:141] Setting up inception_3b/output
I0924 00:30:51.431759 22187 net.cpp:148] Top shape: 10 480 28 28 (3763200)
I0924 00:30:51.431768 22187 net.cpp:156] Memory required for data: 337182720
I0924 00:30:51.431777 22187 layer_factory.hpp:77] Creating layer pool3/3x3_s2
I0924 00:30:51.431792 22187 net.cpp:91] Creating Layer pool3/3x3_s2
I0924 00:30:51.431802 22187 net.cpp:425] pool3/3x3_s2 <- inception_3b/output
I0924 00:30:51.431823 22187 net.cpp:399] pool3/3x3_s2 -> pool3/3x3_s2
I0924 00:30:51.431932 22187 net.cpp:141] Setting up pool3/3x3_s2
I0924 00:30:51.431951 22187 net.cpp:148] Top shape: 10 480 14 14 (940800)
I0924 00:30:51.431959 22187 net.cpp:156] Memory required for data: 340945920
I0924 00:30:51.431968 22187 layer_factory.hpp:77] Creating layer pool3/3x3_s2_pool3/3x3_s2_0_split
I0924 00:30:51.431983 22187 net.cpp:91] Creating Layer pool3/3x3_s2_pool3/3x3_s2_0_split
I0924 00:30:51.431998 22187 net.cpp:425] pool3/3x3_s2_pool3/3x3_s2_0_split <- pool3/3x3_s2
I0924 00:30:51.432013 22187 net.cpp:399] pool3/3x3_s2_pool3/3x3_s2_0_split -> pool3/3x3_s2_pool3/3x3_s2_0_split_0
I0924 00:30:51.432029 22187 net.cpp:399] pool3/3x3_s2_pool3/3x3_s2_0_split -> pool3/3x3_s2_pool3/3x3_s2_0_split_1
I0924 00:30:51.432046 22187 net.cpp:399] pool3/3x3_s2_pool3/3x3_s2_0_split -> pool3/3x3_s2_pool3/3x3_s2_0_split_2
I0924 00:30:51.432063 22187 net.cpp:399] pool3/3x3_s2_pool3/3x3_s2_0_split -> pool3/3x3_s2_pool3/3x3_s2_0_split_3
I0924 00:30:51.432221 22187 net.cpp:141] Setting up pool3/3x3_s2_pool3/3x3_s2_0_split
I0924 00:30:51.432240 22187 net.cpp:148] Top shape: 10 480 14 14 (940800)
I0924 00:30:51.432251 22187 net.cpp:148] Top shape: 10 480 14 14 (940800)
I0924 00:30:51.432263 22187 net.cpp:148] Top shape: 10 480 14 14 (940800)
I0924 00:30:51.432276 22187 net.cpp:148] Top shape: 10 480 14 14 (940800)
I0924 00:30:51.432283 22187 net.cpp:156] Memory required for data: 355998720
I0924 00:30:51.432292 22187 layer_factory.hpp:77] Creating layer inception_4a/1x1
I0924 00:30:51.432317 22187 net.cpp:91] Creating Layer inception_4a/1x1
I0924 00:30:51.432330 22187 net.cpp:425] inception_4a/1x1 <- pool3/3x3_s2_pool3/3x3_s2_0_split_0
I0924 00:30:51.432351 22187 net.cpp:399] inception_4a/1x1 -> inception_4a/1x1
I0924 00:30:51.435376 22187 net.cpp:141] Setting up inception_4a/1x1
I0924 00:30:51.435398 22187 net.cpp:148] Top shape: 10 192 14 14 (376320)
I0924 00:30:51.435407 22187 net.cpp:156] Memory required for data: 357504000
I0924 00:30:51.435425 22187 layer_factory.hpp:77] Creating layer inception_4a/relu_1x1
I0924 00:30:51.435439 22187 net.cpp:91] Creating Layer inception_4a/relu_1x1
I0924 00:30:51.435451 22187 net.cpp:425] inception_4a/relu_1x1 <- inception_4a/1x1
I0924 00:30:51.435470 22187 net.cpp:386] inception_4a/relu_1x1 -> inception_4a/1x1 (in-place)
I0924 00:30:51.436075 22187 net.cpp:141] Setting up inception_4a/relu_1x1
I0924 00:30:51.436095 22187 net.cpp:148] Top shape: 10 192 14 14 (376320)
I0924 00:30:51.436105 22187 net.cpp:156] Memory required for data: 359009280
I0924 00:30:51.436113 22187 layer_factory.hpp:77] Creating layer inception_4a/3x3_reduce
I0924 00:30:51.436141 22187 net.cpp:91] Creating Layer inception_4a/3x3_reduce
I0924 00:30:51.436154 22187 net.cpp:425] inception_4a/3x3_reduce <- pool3/3x3_s2_pool3/3x3_s2_0_split_1
I0924 00:30:51.436177 22187 net.cpp:399] inception_4a/3x3_reduce -> inception_4a/3x3_reduce
I0924 00:30:51.438172 22187 net.cpp:141] Setting up inception_4a/3x3_reduce
I0924 00:30:51.438194 22187 net.cpp:148] Top shape: 10 96 14 14 (188160)
I0924 00:30:51.438205 22187 net.cpp:156] Memory required for data: 359761920
I0924 00:30:51.438237 22187 layer_factory.hpp:77] Creating layer inception_4a/relu_3x3_reduce
I0924 00:30:51.438254 22187 net.cpp:91] Creating Layer inception_4a/relu_3x3_reduce
I0924 00:30:51.438266 22187 net.cpp:425] inception_4a/relu_3x3_reduce <- inception_4a/3x3_reduce
I0924 00:30:51.438282 22187 net.cpp:386] inception_4a/relu_3x3_reduce -> inception_4a/3x3_reduce (in-place)
I0924 00:30:51.438680 22187 net.cpp:141] Setting up inception_4a/relu_3x3_reduce
I0924 00:30:51.438699 22187 net.cpp:148] Top shape: 10 96 14 14 (188160)
I0924 00:30:51.438709 22187 net.cpp:156] Memory required for data: 360514560
I0924 00:30:51.438719 22187 layer_factory.hpp:77] Creating layer inception_4a/3x3
I0924 00:30:51.438745 22187 net.cpp:91] Creating Layer inception_4a/3x3
I0924 00:30:51.438756 22187 net.cpp:425] inception_4a/3x3 <- inception_4a/3x3_reduce
I0924 00:30:51.438771 22187 net.cpp:399] inception_4a/3x3 -> inception_4a/3x3
I0924 00:30:51.443465 22187 net.cpp:141] Setting up inception_4a/3x3
I0924 00:30:51.443500 22187 net.cpp:148] Top shape: 10 208 14 14 (407680)
I0924 00:30:51.443506 22187 net.cpp:156] Memory required for data: 362145280
I0924 00:30:51.443517 22187 layer_factory.hpp:77] Creating layer inception_4a/relu_3x3
I0924 00:30:51.443539 22187 net.cpp:91] Creating Layer inception_4a/relu_3x3
I0924 00:30:51.443550 22187 net.cpp:425] inception_4a/relu_3x3 <- inception_4a/3x3
I0924 00:30:51.443560 22187 net.cpp:386] inception_4a/relu_3x3 -> inception_4a/3x3 (in-place)
I0924 00:30:51.444139 22187 net.cpp:141] Setting up inception_4a/relu_3x3
I0924 00:30:51.444159 22187 net.cpp:148] Top shape: 10 208 14 14 (407680)
I0924 00:30:51.444169 22187 net.cpp:156] Memory required for data: 363776000
I0924 00:30:51.444180 22187 layer_factory.hpp:77] Creating layer inception_4a/5x5_reduce
I0924 00:30:51.444207 22187 net.cpp:91] Creating Layer inception_4a/5x5_reduce
I0924 00:30:51.444219 22187 net.cpp:425] inception_4a/5x5_reduce <- pool3/3x3_s2_pool3/3x3_s2_0_split_2
I0924 00:30:51.444243 22187 net.cpp:399] inception_4a/5x5_reduce -> inception_4a/5x5_reduce
I0924 00:30:51.446910 22187 net.cpp:141] Setting up inception_4a/5x5_reduce
I0924 00:30:51.446936 22187 net.cpp:148] Top shape: 10 16 14 14 (31360)
I0924 00:30:51.446946 22187 net.cpp:156] Memory required for data: 363901440
I0924 00:30:51.446964 22187 layer_factory.hpp:77] Creating layer inception_4a/relu_5x5_reduce
I0924 00:30:51.446979 22187 net.cpp:91] Creating Layer inception_4a/relu_5x5_reduce
I0924 00:30:51.446990 22187 net.cpp:425] inception_4a/relu_5x5_reduce <- inception_4a/5x5_reduce
I0924 00:30:51.447007 22187 net.cpp:386] inception_4a/relu_5x5_reduce -> inception_4a/5x5_reduce (in-place)
I0924 00:30:51.447626 22187 net.cpp:141] Setting up inception_4a/relu_5x5_reduce
I0924 00:30:51.447646 22187 net.cpp:148] Top shape: 10 16 14 14 (31360)
I0924 00:30:51.447656 22187 net.cpp:156] Memory required for data: 364026880
I0924 00:30:51.447666 22187 layer_factory.hpp:77] Creating layer inception_4a/5x5
I0924 00:30:51.447690 22187 net.cpp:91] Creating Layer inception_4a/5x5
I0924 00:30:51.447705 22187 net.cpp:425] inception_4a/5x5 <- inception_4a/5x5_reduce
I0924 00:30:51.447726 22187 net.cpp:399] inception_4a/5x5 -> inception_4a/5x5
I0924 00:30:51.449722 22187 net.cpp:141] Setting up inception_4a/5x5
I0924 00:30:51.449746 22187 net.cpp:148] Top shape: 10 48 14 14 (94080)
I0924 00:30:51.449755 22187 net.cpp:156] Memory required for data: 364403200
I0924 00:30:51.449774 22187 layer_factory.hpp:77] Creating layer inception_4a/relu_5x5
I0924 00:30:51.449789 22187 net.cpp:91] Creating Layer inception_4a/relu_5x5
I0924 00:30:51.449800 22187 net.cpp:425] inception_4a/relu_5x5 <- inception_4a/5x5
I0924 00:30:51.449820 22187 net.cpp:386] inception_4a/relu_5x5 -> inception_4a/5x5 (in-place)
I0924 00:30:51.450203 22187 net.cpp:141] Setting up inception_4a/relu_5x5
I0924 00:30:51.450230 22187 net.cpp:148] Top shape: 10 48 14 14 (94080)
I0924 00:30:51.450239 22187 net.cpp:156] Memory required for data: 364779520
I0924 00:30:51.450249 22187 layer_factory.hpp:77] Creating layer inception_4a/pool
I0924 00:30:51.450265 22187 net.cpp:91] Creating Layer inception_4a/pool
I0924 00:30:51.450278 22187 net.cpp:425] inception_4a/pool <- pool3/3x3_s2_pool3/3x3_s2_0_split_3
I0924 00:30:51.450292 22187 net.cpp:399] inception_4a/pool -> inception_4a/pool
I0924 00:30:51.450407 22187 net.cpp:141] Setting up inception_4a/pool
I0924 00:30:51.450424 22187 net.cpp:148] Top shape: 10 480 14 14 (940800)
I0924 00:30:51.450434 22187 net.cpp:156] Memory required for data: 368542720
I0924 00:30:51.450444 22187 layer_factory.hpp:77] Creating layer inception_4a/pool_proj
I0924 00:30:51.450471 22187 net.cpp:91] Creating Layer inception_4a/pool_proj
I0924 00:30:51.450484 22187 net.cpp:425] inception_4a/pool_proj <- inception_4a/pool
I0924 00:30:51.450505 22187 net.cpp:399] inception_4a/pool_proj -> inception_4a/pool_proj
I0924 00:30:51.452456 22187 net.cpp:141] Setting up inception_4a/pool_proj
I0924 00:30:51.452476 22187 net.cpp:148] Top shape: 10 64 14 14 (125440)
I0924 00:30:51.452482 22187 net.cpp:156] Memory required for data: 369044480
I0924 00:30:51.452491 22187 layer_factory.hpp:77] Creating layer inception_4a/relu_pool_proj
I0924 00:30:51.452505 22187 net.cpp:91] Creating Layer inception_4a/relu_pool_proj
I0924 00:30:51.452512 22187 net.cpp:425] inception_4a/relu_pool_proj <- inception_4a/pool_proj
I0924 00:30:51.452519 22187 net.cpp:386] inception_4a/relu_pool_proj -> inception_4a/pool_proj (in-place)
I0924 00:30:51.452913 22187 net.cpp:141] Setting up inception_4a/relu_pool_proj
I0924 00:30:51.452926 22187 net.cpp:148] Top shape: 10 64 14 14 (125440)
I0924 00:30:51.452930 22187 net.cpp:156] Memory required for data: 369546240
I0924 00:30:51.452935 22187 layer_factory.hpp:77] Creating layer inception_4a/output
I0924 00:30:51.452947 22187 net.cpp:91] Creating Layer inception_4a/output
I0924 00:30:51.452953 22187 net.cpp:425] inception_4a/output <- inception_4a/1x1
I0924 00:30:51.452960 22187 net.cpp:425] inception_4a/output <- inception_4a/3x3
I0924 00:30:51.452965 22187 net.cpp:425] inception_4a/output <- inception_4a/5x5
I0924 00:30:51.452971 22187 net.cpp:425] inception_4a/output <- inception_4a/pool_proj
I0924 00:30:51.452978 22187 net.cpp:399] inception_4a/output -> inception_4a/output
I0924 00:30:51.453022 22187 net.cpp:141] Setting up inception_4a/output
I0924 00:30:51.453030 22187 net.cpp:148] Top shape: 10 512 14 14 (1003520)
I0924 00:30:51.453034 22187 net.cpp:156] Memory required for data: 373560320
I0924 00:30:51.453039 22187 layer_factory.hpp:77] Creating layer inception_4a/output_inception_4a/output_0_split
I0924 00:30:51.453047 22187 net.cpp:91] Creating Layer inception_4a/output_inception_4a/output_0_split
I0924 00:30:51.453052 22187 net.cpp:425] inception_4a/output_inception_4a/output_0_split <- inception_4a/output
I0924 00:30:51.453063 22187 net.cpp:399] inception_4a/output_inception_4a/output_0_split -> inception_4a/output_inception_4a/output_0_split_0
I0924 00:30:51.453073 22187 net.cpp:399] inception_4a/output_inception_4a/output_0_split -> inception_4a/output_inception_4a/output_0_split_1
I0924 00:30:51.453081 22187 net.cpp:399] inception_4a/output_inception_4a/output_0_split -> inception_4a/output_inception_4a/output_0_split_2
I0924 00:30:51.453089 22187 net.cpp:399] inception_4a/output_inception_4a/output_0_split -> inception_4a/output_inception_4a/output_0_split_3
I0924 00:30:51.453174 22187 net.cpp:141] Setting up inception_4a/output_inception_4a/output_0_split
I0924 00:30:51.453183 22187 net.cpp:148] Top shape: 10 512 14 14 (1003520)
I0924 00:30:51.453188 22187 net.cpp:148] Top shape: 10 512 14 14 (1003520)
I0924 00:30:51.453194 22187 net.cpp:148] Top shape: 10 512 14 14 (1003520)
I0924 00:30:51.453199 22187 net.cpp:148] Top shape: 10 512 14 14 (1003520)
I0924 00:30:51.453203 22187 net.cpp:156] Memory required for data: 389616640
I0924 00:30:51.453207 22187 layer_factory.hpp:77] Creating layer inception_4b/1x1
I0924 00:30:51.453224 22187 net.cpp:91] Creating Layer inception_4b/1x1
I0924 00:30:51.453230 22187 net.cpp:425] inception_4b/1x1 <- inception_4a/output_inception_4a/output_0_split_0
I0924 00:30:51.453238 22187 net.cpp:399] inception_4b/1x1 -> inception_4b/1x1
I0924 00:30:51.455067 22187 net.cpp:141] Setting up inception_4b/1x1
I0924 00:30:51.455087 22187 net.cpp:148] Top shape: 10 160 14 14 (313600)
I0924 00:30:51.455092 22187 net.cpp:156] Memory required for data: 390871040
I0924 00:30:51.455101 22187 layer_factory.hpp:77] Creating layer inception_4b/relu_1x1
I0924 00:30:51.455113 22187 net.cpp:91] Creating Layer inception_4b/relu_1x1
I0924 00:30:51.455119 22187 net.cpp:425] inception_4b/relu_1x1 <- inception_4b/1x1
I0924 00:30:51.455127 22187 net.cpp:386] inception_4b/relu_1x1 -> inception_4b/1x1 (in-place)
I0924 00:30:51.455521 22187 net.cpp:141] Setting up inception_4b/relu_1x1
I0924 00:30:51.455534 22187 net.cpp:148] Top shape: 10 160 14 14 (313600)
I0924 00:30:51.455539 22187 net.cpp:156] Memory required for data: 392125440
I0924 00:30:51.455544 22187 layer_factory.hpp:77] Creating layer inception_4b/3x3_reduce
I0924 00:30:51.455561 22187 net.cpp:91] Creating Layer inception_4b/3x3_reduce
I0924 00:30:51.455567 22187 net.cpp:425] inception_4b/3x3_reduce <- inception_4a/output_inception_4a/output_0_split_1
I0924 00:30:51.455575 22187 net.cpp:399] inception_4b/3x3_reduce -> inception_4b/3x3_reduce
I0924 00:30:51.457393 22187 net.cpp:141] Setting up inception_4b/3x3_reduce
I0924 00:30:51.457411 22187 net.cpp:148] Top shape: 10 112 14 14 (219520)
I0924 00:30:51.457417 22187 net.cpp:156] Memory required for data: 393003520
I0924 00:30:51.457424 22187 layer_factory.hpp:77] Creating layer inception_4b/relu_3x3_reduce
I0924 00:30:51.457432 22187 net.cpp:91] Creating Layer inception_4b/relu_3x3_reduce
I0924 00:30:51.457438 22187 net.cpp:425] inception_4b/relu_3x3_reduce <- inception_4b/3x3_reduce
I0924 00:30:51.457449 22187 net.cpp:386] inception_4b/relu_3x3_reduce -> inception_4b/3x3_reduce (in-place)
I0924 00:30:51.457676 22187 net.cpp:141] Setting up inception_4b/relu_3x3_reduce
I0924 00:30:51.457687 22187 net.cpp:148] Top shape: 10 112 14 14 (219520)
I0924 00:30:51.457692 22187 net.cpp:156] Memory required for data: 393881600
I0924 00:30:51.457697 22187 layer_factory.hpp:77] Creating layer inception_4b/3x3
I0924 00:30:51.457710 22187 net.cpp:91] Creating Layer inception_4b/3x3
I0924 00:30:51.457717 22187 net.cpp:425] inception_4b/3x3 <- inception_4b/3x3_reduce
I0924 00:30:51.457728 22187 net.cpp:399] inception_4b/3x3 -> inception_4b/3x3
I0924 00:30:51.461648 22187 net.cpp:141] Setting up inception_4b/3x3
I0924 00:30:51.461666 22187 net.cpp:148] Top shape: 10 224 14 14 (439040)
I0924 00:30:51.461673 22187 net.cpp:156] Memory required for data: 395637760
I0924 00:30:51.461681 22187 layer_factory.hpp:77] Creating layer inception_4b/relu_3x3
I0924 00:30:51.461689 22187 net.cpp:91] Creating Layer inception_4b/relu_3x3
I0924 00:30:51.461695 22187 net.cpp:425] inception_4b/relu_3x3 <- inception_4b/3x3
I0924 00:30:51.461705 22187 net.cpp:386] inception_4b/relu_3x3 -> inception_4b/3x3 (in-place)
I0924 00:30:51.462118 22187 net.cpp:141] Setting up inception_4b/relu_3x3
I0924 00:30:51.462131 22187 net.cpp:148] Top shape: 10 224 14 14 (439040)
I0924 00:30:51.462136 22187 net.cpp:156] Memory required for data: 397393920
I0924 00:30:51.462141 22187 layer_factory.hpp:77] Creating layer inception_4b/5x5_reduce
I0924 00:30:51.462167 22187 net.cpp:91] Creating Layer inception_4b/5x5_reduce
I0924 00:30:51.462173 22187 net.cpp:425] inception_4b/5x5_reduce <- inception_4a/output_inception_4a/output_0_split_2
I0924 00:30:51.462182 22187 net.cpp:399] inception_4b/5x5_reduce -> inception_4b/5x5_reduce
I0924 00:30:51.463534 22187 net.cpp:141] Setting up inception_4b/5x5_reduce
I0924 00:30:51.463552 22187 net.cpp:148] Top shape: 10 24 14 14 (47040)
I0924 00:30:51.463557 22187 net.cpp:156] Memory required for data: 397582080
I0924 00:30:51.463567 22187 layer_factory.hpp:77] Creating layer inception_4b/relu_5x5_reduce
I0924 00:30:51.463575 22187 net.cpp:91] Creating Layer inception_4b/relu_5x5_reduce
I0924 00:30:51.463582 22187 net.cpp:425] inception_4b/relu_5x5_reduce <- inception_4b/5x5_reduce
I0924 00:30:51.463590 22187 net.cpp:386] inception_4b/relu_5x5_reduce -> inception_4b/5x5_reduce (in-place)
I0924 00:30:51.463987 22187 net.cpp:141] Setting up inception_4b/relu_5x5_reduce
I0924 00:30:51.463999 22187 net.cpp:148] Top shape: 10 24 14 14 (47040)
I0924 00:30:51.464004 22187 net.cpp:156] Memory required for data: 397770240
I0924 00:30:51.464010 22187 layer_factory.hpp:77] Creating layer inception_4b/5x5
I0924 00:30:51.464023 22187 net.cpp:91] Creating Layer inception_4b/5x5
I0924 00:30:51.464030 22187 net.cpp:425] inception_4b/5x5 <- inception_4b/5x5_reduce
I0924 00:30:51.464041 22187 net.cpp:399] inception_4b/5x5 -> inception_4b/5x5
I0924 00:30:51.466346 22187 net.cpp:141] Setting up inception_4b/5x5
I0924 00:30:51.466367 22187 net.cpp:148] Top shape: 10 64 14 14 (125440)
I0924 00:30:51.466372 22187 net.cpp:156] Memory required for data: 398272000
I0924 00:30:51.466380 22187 layer_factory.hpp:77] Creating layer inception_4b/relu_5x5
I0924 00:30:51.466389 22187 net.cpp:91] Creating Layer inception_4b/relu_5x5
I0924 00:30:51.466394 22187 net.cpp:425] inception_4b/relu_5x5 <- inception_4b/5x5
I0924 00:30:51.466401 22187 net.cpp:386] inception_4b/relu_5x5 -> inception_4b/5x5 (in-place)
I0924 00:30:51.466644 22187 net.cpp:141] Setting up inception_4b/relu_5x5
I0924 00:30:51.466655 22187 net.cpp:148] Top shape: 10 64 14 14 (125440)
I0924 00:30:51.466660 22187 net.cpp:156] Memory required for data: 398773760
I0924 00:30:51.466665 22187 layer_factory.hpp:77] Creating layer inception_4b/pool
I0924 00:30:51.466673 22187 net.cpp:91] Creating Layer inception_4b/pool
I0924 00:30:51.466680 22187 net.cpp:425] inception_4b/pool <- inception_4a/output_inception_4a/output_0_split_3
I0924 00:30:51.466689 22187 net.cpp:399] inception_4b/pool -> inception_4b/pool
I0924 00:30:51.466754 22187 net.cpp:141] Setting up inception_4b/pool
I0924 00:30:51.466765 22187 net.cpp:148] Top shape: 10 512 14 14 (1003520)
I0924 00:30:51.466770 22187 net.cpp:156] Memory required for data: 402787840
I0924 00:30:51.466775 22187 layer_factory.hpp:77] Creating layer inception_4b/pool_proj
I0924 00:30:51.466786 22187 net.cpp:91] Creating Layer inception_4b/pool_proj
I0924 00:30:51.466792 22187 net.cpp:425] inception_4b/pool_proj <- inception_4b/pool
I0924 00:30:51.466804 22187 net.cpp:399] inception_4b/pool_proj -> inception_4b/pool_proj
I0924 00:30:51.468417 22187 net.cpp:141] Setting up inception_4b/pool_proj
I0924 00:30:51.468436 22187 net.cpp:148] Top shape: 10 64 14 14 (125440)
I0924 00:30:51.468442 22187 net.cpp:156] Memory required for data: 403289600
I0924 00:30:51.468451 22187 layer_factory.hpp:77] Creating layer inception_4b/relu_pool_proj
I0924 00:30:51.468459 22187 net.cpp:91] Creating Layer inception_4b/relu_pool_proj
I0924 00:30:51.468466 22187 net.cpp:425] inception_4b/relu_pool_proj <- inception_4b/pool_proj
I0924 00:30:51.468472 22187 net.cpp:386] inception_4b/relu_pool_proj -> inception_4b/pool_proj (in-place)
I0924 00:30:51.468869 22187 net.cpp:141] Setting up inception_4b/relu_pool_proj
I0924 00:30:51.468884 22187 net.cpp:148] Top shape: 10 64 14 14 (125440)
I0924 00:30:51.468888 22187 net.cpp:156] Memory required for data: 403791360
I0924 00:30:51.468894 22187 layer_factory.hpp:77] Creating layer inception_4b/output
I0924 00:30:51.468902 22187 net.cpp:91] Creating Layer inception_4b/output
I0924 00:30:51.468907 22187 net.cpp:425] inception_4b/output <- inception_4b/1x1
I0924 00:30:51.468914 22187 net.cpp:425] inception_4b/output <- inception_4b/3x3
I0924 00:30:51.468919 22187 net.cpp:425] inception_4b/output <- inception_4b/5x5
I0924 00:30:51.468924 22187 net.cpp:425] inception_4b/output <- inception_4b/pool_proj
I0924 00:30:51.468930 22187 net.cpp:399] inception_4b/output -> inception_4b/output
I0924 00:30:51.468974 22187 net.cpp:141] Setting up inception_4b/output
I0924 00:30:51.468983 22187 net.cpp:148] Top shape: 10 512 14 14 (1003520)
I0924 00:30:51.468987 22187 net.cpp:156] Memory required for data: 407805440
I0924 00:30:51.468992 22187 layer_factory.hpp:77] Creating layer inception_4b/output_inception_4b/output_0_split
I0924 00:30:51.469000 22187 net.cpp:91] Creating Layer inception_4b/output_inception_4b/output_0_split
I0924 00:30:51.469010 22187 net.cpp:425] inception_4b/output_inception_4b/output_0_split <- inception_4b/output
I0924 00:30:51.469017 22187 net.cpp:399] inception_4b/output_inception_4b/output_0_split -> inception_4b/output_inception_4b/output_0_split_0
I0924 00:30:51.469025 22187 net.cpp:399] inception_4b/output_inception_4b/output_0_split -> inception_4b/output_inception_4b/output_0_split_1
I0924 00:30:51.469033 22187 net.cpp:399] inception_4b/output_inception_4b/output_0_split -> inception_4b/output_inception_4b/output_0_split_2
I0924 00:30:51.469041 22187 net.cpp:399] inception_4b/output_inception_4b/output_0_split -> inception_4b/output_inception_4b/output_0_split_3
I0924 00:30:51.469130 22187 net.cpp:141] Setting up inception_4b/output_inception_4b/output_0_split
I0924 00:30:51.469137 22187 net.cpp:148] Top shape: 10 512 14 14 (1003520)
I0924 00:30:51.469143 22187 net.cpp:148] Top shape: 10 512 14 14 (1003520)
I0924 00:30:51.469148 22187 net.cpp:148] Top shape: 10 512 14 14 (1003520)
I0924 00:30:51.469154 22187 net.cpp:148] Top shape: 10 512 14 14 (1003520)
I0924 00:30:51.469158 22187 net.cpp:156] Memory required for data: 423861760
I0924 00:30:51.469162 22187 layer_factory.hpp:77] Creating layer inception_4c/1x1
I0924 00:30:51.469177 22187 net.cpp:91] Creating Layer inception_4c/1x1
I0924 00:30:51.469183 22187 net.cpp:425] inception_4c/1x1 <- inception_4b/output_inception_4b/output_0_split_0
I0924 00:30:51.469193 22187 net.cpp:399] inception_4c/1x1 -> inception_4c/1x1
I0924 00:30:51.470896 22187 net.cpp:141] Setting up inception_4c/1x1
I0924 00:30:51.470914 22187 net.cpp:148] Top shape: 10 128 14 14 (250880)
I0924 00:30:51.470919 22187 net.cpp:156] Memory required for data: 424865280
I0924 00:30:51.470927 22187 layer_factory.hpp:77] Creating layer inception_4c/relu_1x1
I0924 00:30:51.470939 22187 net.cpp:91] Creating Layer inception_4c/relu_1x1
I0924 00:30:51.470945 22187 net.cpp:425] inception_4c/relu_1x1 <- inception_4c/1x1
I0924 00:30:51.470953 22187 net.cpp:386] inception_4c/relu_1x1 -> inception_4c/1x1 (in-place)
I0924 00:30:51.471343 22187 net.cpp:141] Setting up inception_4c/relu_1x1
I0924 00:30:51.471355 22187 net.cpp:148] Top shape: 10 128 14 14 (250880)
I0924 00:30:51.471359 22187 net.cpp:156] Memory required for data: 425868800
I0924 00:30:51.471364 22187 layer_factory.hpp:77] Creating layer inception_4c/3x3_reduce
I0924 00:30:51.471381 22187 net.cpp:91] Creating Layer inception_4c/3x3_reduce
I0924 00:30:51.471387 22187 net.cpp:425] inception_4c/3x3_reduce <- inception_4b/output_inception_4b/output_0_split_1
I0924 00:30:51.471396 22187 net.cpp:399] inception_4c/3x3_reduce -> inception_4c/3x3_reduce
I0924 00:30:51.473281 22187 net.cpp:141] Setting up inception_4c/3x3_reduce
I0924 00:30:51.473299 22187 net.cpp:148] Top shape: 10 128 14 14 (250880)
I0924 00:30:51.473304 22187 net.cpp:156] Memory required for data: 426872320
I0924 00:30:51.473312 22187 layer_factory.hpp:77] Creating layer inception_4c/relu_3x3_reduce
I0924 00:30:51.473320 22187 net.cpp:91] Creating Layer inception_4c/relu_3x3_reduce
I0924 00:30:51.473325 22187 net.cpp:425] inception_4c/relu_3x3_reduce <- inception_4c/3x3_reduce
I0924 00:30:51.473336 22187 net.cpp:386] inception_4c/relu_3x3_reduce -> inception_4c/3x3_reduce (in-place)
I0924 00:30:51.473564 22187 net.cpp:141] Setting up inception_4c/relu_3x3_reduce
I0924 00:30:51.473577 22187 net.cpp:148] Top shape: 10 128 14 14 (250880)
I0924 00:30:51.473582 22187 net.cpp:156] Memory required for data: 427875840
I0924 00:30:51.473587 22187 layer_factory.hpp:77] Creating layer inception_4c/3x3
I0924 00:30:51.473601 22187 net.cpp:91] Creating Layer inception_4c/3x3
I0924 00:30:51.473608 22187 net.cpp:425] inception_4c/3x3 <- inception_4c/3x3_reduce
I0924 00:30:51.473616 22187 net.cpp:399] inception_4c/3x3 -> inception_4c/3x3
I0924 00:30:51.477857 22187 net.cpp:141] Setting up inception_4c/3x3
I0924 00:30:51.477876 22187 net.cpp:148] Top shape: 10 256 14 14 (501760)
I0924 00:30:51.477881 22187 net.cpp:156] Memory required for data: 429882880
I0924 00:30:51.477890 22187 layer_factory.hpp:77] Creating layer inception_4c/relu_3x3
I0924 00:30:51.477901 22187 net.cpp:91] Creating Layer inception_4c/relu_3x3
I0924 00:30:51.477908 22187 net.cpp:425] inception_4c/relu_3x3 <- inception_4c/3x3
I0924 00:30:51.477916 22187 net.cpp:386] inception_4c/relu_3x3 -> inception_4c/3x3 (in-place)
I0924 00:30:51.478313 22187 net.cpp:141] Setting up inception_4c/relu_3x3
I0924 00:30:51.478327 22187 net.cpp:148] Top shape: 10 256 14 14 (501760)
I0924 00:30:51.478330 22187 net.cpp:156] Memory required for data: 431889920
I0924 00:30:51.478337 22187 layer_factory.hpp:77] Creating layer inception_4c/5x5_reduce
I0924 00:30:51.478351 22187 net.cpp:91] Creating Layer inception_4c/5x5_reduce
I0924 00:30:51.478360 22187 net.cpp:425] inception_4c/5x5_reduce <- inception_4b/output_inception_4b/output_0_split_2
I0924 00:30:51.478369 22187 net.cpp:399] inception_4c/5x5_reduce -> inception_4c/5x5_reduce
I0924 00:30:51.479732 22187 net.cpp:141] Setting up inception_4c/5x5_reduce
I0924 00:30:51.479763 22187 net.cpp:148] Top shape: 10 24 14 14 (47040)
I0924 00:30:51.479768 22187 net.cpp:156] Memory required for data: 432078080
I0924 00:30:51.479776 22187 layer_factory.hpp:77] Creating layer inception_4c/relu_5x5_reduce
I0924 00:30:51.479784 22187 net.cpp:91] Creating Layer inception_4c/relu_5x5_reduce
I0924 00:30:51.479790 22187 net.cpp:425] inception_4c/relu_5x5_reduce <- inception_4c/5x5_reduce
I0924 00:30:51.479800 22187 net.cpp:386] inception_4c/relu_5x5_reduce -> inception_4c/5x5_reduce (in-place)
I0924 00:30:51.480195 22187 net.cpp:141] Setting up inception_4c/relu_5x5_reduce
I0924 00:30:51.480206 22187 net.cpp:148] Top shape: 10 24 14 14 (47040)
I0924 00:30:51.480211 22187 net.cpp:156] Memory required for data: 432266240
I0924 00:30:51.480216 22187 layer_factory.hpp:77] Creating layer inception_4c/5x5
I0924 00:30:51.480232 22187 net.cpp:91] Creating Layer inception_4c/5x5
I0924 00:30:51.480238 22187 net.cpp:425] inception_4c/5x5 <- inception_4c/5x5_reduce
I0924 00:30:51.480248 22187 net.cpp:399] inception_4c/5x5 -> inception_4c/5x5
I0924 00:30:51.482138 22187 net.cpp:141] Setting up inception_4c/5x5
I0924 00:30:51.482156 22187 net.cpp:148] Top shape: 10 64 14 14 (125440)
I0924 00:30:51.482161 22187 net.cpp:156] Memory required for data: 432768000
I0924 00:30:51.482182 22187 layer_factory.hpp:77] Creating layer inception_4c/relu_5x5
I0924 00:30:51.482193 22187 net.cpp:91] Creating Layer inception_4c/relu_5x5
I0924 00:30:51.482199 22187 net.cpp:425] inception_4c/relu_5x5 <- inception_4c/5x5
I0924 00:30:51.482208 22187 net.cpp:386] inception_4c/relu_5x5 -> inception_4c/5x5 (in-place)
I0924 00:30:51.482436 22187 net.cpp:141] Setting up inception_4c/relu_5x5
I0924 00:30:51.482447 22187 net.cpp:148] Top shape: 10 64 14 14 (125440)
I0924 00:30:51.482452 22187 net.cpp:156] Memory required for data: 433269760
I0924 00:30:51.482456 22187 layer_factory.hpp:77] Creating layer inception_4c/pool
I0924 00:30:51.482465 22187 net.cpp:91] Creating Layer inception_4c/pool
I0924 00:30:51.482470 22187 net.cpp:425] inception_4c/pool <- inception_4b/output_inception_4b/output_0_split_3
I0924 00:30:51.482481 22187 net.cpp:399] inception_4c/pool -> inception_4c/pool
I0924 00:30:51.482547 22187 net.cpp:141] Setting up inception_4c/pool
I0924 00:30:51.482555 22187 net.cpp:148] Top shape: 10 512 14 14 (1003520)
I0924 00:30:51.482559 22187 net.cpp:156] Memory required for data: 437283840
I0924 00:30:51.482564 22187 layer_factory.hpp:77] Creating layer inception_4c/pool_proj
I0924 00:30:51.482583 22187 net.cpp:91] Creating Layer inception_4c/pool_proj
I0924 00:30:51.482589 22187 net.cpp:425] inception_4c/pool_proj <- inception_4c/pool
I0924 00:30:51.482604 22187 net.cpp:399] inception_4c/pool_proj -> inception_4c/pool_proj
I0924 00:30:51.484917 22187 net.cpp:141] Setting up inception_4c/pool_proj
I0924 00:30:51.484947 22187 net.cpp:148] Top shape: 10 64 14 14 (125440)
I0924 00:30:51.484952 22187 net.cpp:156] Memory required for data: 437785600
I0924 00:30:51.484978 22187 layer_factory.hpp:77] Creating layer inception_4c/relu_pool_proj
I0924 00:30:51.484990 22187 net.cpp:91] Creating Layer inception_4c/relu_pool_proj
I0924 00:30:51.484997 22187 net.cpp:425] inception_4c/relu_pool_proj <- inception_4c/pool_proj
I0924 00:30:51.485003 22187 net.cpp:386] inception_4c/relu_pool_proj -> inception_4c/pool_proj (in-place)
I0924 00:30:51.485405 22187 net.cpp:141] Setting up inception_4c/relu_pool_proj
I0924 00:30:51.485419 22187 net.cpp:148] Top shape: 10 64 14 14 (125440)
I0924 00:30:51.485424 22187 net.cpp:156] Memory required for data: 438287360
I0924 00:30:51.485429 22187 layer_factory.hpp:77] Creating layer inception_4c/output
I0924 00:30:51.485440 22187 net.cpp:91] Creating Layer inception_4c/output
I0924 00:30:51.485445 22187 net.cpp:425] inception_4c/output <- inception_4c/1x1
I0924 00:30:51.485451 22187 net.cpp:425] inception_4c/output <- inception_4c/3x3
I0924 00:30:51.485457 22187 net.cpp:425] inception_4c/output <- inception_4c/5x5
I0924 00:30:51.485462 22187 net.cpp:425] inception_4c/output <- inception_4c/pool_proj
I0924 00:30:51.485468 22187 net.cpp:399] inception_4c/output -> inception_4c/output
I0924 00:30:51.485514 22187 net.cpp:141] Setting up inception_4c/output
I0924 00:30:51.485523 22187 net.cpp:148] Top shape: 10 512 14 14 (1003520)
I0924 00:30:51.485528 22187 net.cpp:156] Memory required for data: 442301440
I0924 00:30:51.485532 22187 layer_factory.hpp:77] Creating layer inception_4c/output_inception_4c/output_0_split
I0924 00:30:51.485540 22187 net.cpp:91] Creating Layer inception_4c/output_inception_4c/output_0_split
I0924 00:30:51.485545 22187 net.cpp:425] inception_4c/output_inception_4c/output_0_split <- inception_4c/output
I0924 00:30:51.485556 22187 net.cpp:399] inception_4c/output_inception_4c/output_0_split -> inception_4c/output_inception_4c/output_0_split_0
I0924 00:30:51.485565 22187 net.cpp:399] inception_4c/output_inception_4c/output_0_split -> inception_4c/output_inception_4c/output_0_split_1
I0924 00:30:51.485574 22187 net.cpp:399] inception_4c/output_inception_4c/output_0_split -> inception_4c/output_inception_4c/output_0_split_2
I0924 00:30:51.485581 22187 net.cpp:399] inception_4c/output_inception_4c/output_0_split -> inception_4c/output_inception_4c/output_0_split_3
I0924 00:30:51.485673 22187 net.cpp:141] Setting up inception_4c/output_inception_4c/output_0_split
I0924 00:30:51.485682 22187 net.cpp:148] Top shape: 10 512 14 14 (1003520)
I0924 00:30:51.485688 22187 net.cpp:148] Top shape: 10 512 14 14 (1003520)
I0924 00:30:51.485693 22187 net.cpp:148] Top shape: 10 512 14 14 (1003520)
I0924 00:30:51.485698 22187 net.cpp:148] Top shape: 10 512 14 14 (1003520)
I0924 00:30:51.485702 22187 net.cpp:156] Memory required for data: 458357760
I0924 00:30:51.485707 22187 layer_factory.hpp:77] Creating layer inception_4d/1x1
I0924 00:30:51.485723 22187 net.cpp:91] Creating Layer inception_4d/1x1
I0924 00:30:51.485728 22187 net.cpp:425] inception_4d/1x1 <- inception_4c/output_inception_4c/output_0_split_0
I0924 00:30:51.485738 22187 net.cpp:399] inception_4d/1x1 -> inception_4d/1x1
I0924 00:30:51.487409 22187 net.cpp:141] Setting up inception_4d/1x1
I0924 00:30:51.487428 22187 net.cpp:148] Top shape: 10 112 14 14 (219520)
I0924 00:30:51.487433 22187 net.cpp:156] Memory required for data: 459235840
I0924 00:30:51.487442 22187 layer_factory.hpp:77] Creating layer inception_4d/relu_1x1
I0924 00:30:51.487450 22187 net.cpp:91] Creating Layer inception_4d/relu_1x1
I0924 00:30:51.487457 22187 net.cpp:425] inception_4d/relu_1x1 <- inception_4d/1x1
I0924 00:30:51.487467 22187 net.cpp:386] inception_4d/relu_1x1 -> inception_4d/1x1 (in-place)
I0924 00:30:51.487866 22187 net.cpp:141] Setting up inception_4d/relu_1x1
I0924 00:30:51.487882 22187 net.cpp:148] Top shape: 10 112 14 14 (219520)
I0924 00:30:51.487887 22187 net.cpp:156] Memory required for data: 460113920
I0924 00:30:51.487892 22187 layer_factory.hpp:77] Creating layer inception_4d/3x3_reduce
I0924 00:30:51.487907 22187 net.cpp:91] Creating Layer inception_4d/3x3_reduce
I0924 00:30:51.487915 22187 net.cpp:425] inception_4d/3x3_reduce <- inception_4c/output_inception_4c/output_0_split_1
I0924 00:30:51.487926 22187 net.cpp:399] inception_4d/3x3_reduce -> inception_4d/3x3_reduce
I0924 00:30:51.489923 22187 net.cpp:141] Setting up inception_4d/3x3_reduce
I0924 00:30:51.489939 22187 net.cpp:148] Top shape: 10 144 14 14 (282240)
I0924 00:30:51.489945 22187 net.cpp:156] Memory required for data: 461242880
I0924 00:30:51.489953 22187 layer_factory.hpp:77] Creating layer inception_4d/relu_3x3_reduce
I0924 00:30:51.489962 22187 net.cpp:91] Creating Layer inception_4d/relu_3x3_reduce
I0924 00:30:51.489969 22187 net.cpp:425] inception_4d/relu_3x3_reduce <- inception_4d/3x3_reduce
I0924 00:30:51.489979 22187 net.cpp:386] inception_4d/relu_3x3_reduce -> inception_4d/3x3_reduce (in-place)
I0924 00:30:51.490211 22187 net.cpp:141] Setting up inception_4d/relu_3x3_reduce
I0924 00:30:51.490224 22187 net.cpp:148] Top shape: 10 144 14 14 (282240)
I0924 00:30:51.490229 22187 net.cpp:156] Memory required for data: 462371840
I0924 00:30:51.490234 22187 layer_factory.hpp:77] Creating layer inception_4d/3x3
I0924 00:30:51.490248 22187 net.cpp:91] Creating Layer inception_4d/3x3
I0924 00:30:51.490254 22187 net.cpp:425] inception_4d/3x3 <- inception_4d/3x3_reduce
I0924 00:30:51.490263 22187 net.cpp:399] inception_4d/3x3 -> inception_4d/3x3
I0924 00:30:51.495432 22187 net.cpp:141] Setting up inception_4d/3x3
I0924 00:30:51.495465 22187 net.cpp:148] Top shape: 10 288 14 14 (564480)
I0924 00:30:51.495471 22187 net.cpp:156] Memory required for data: 464629760
I0924 00:30:51.495481 22187 layer_factory.hpp:77] Creating layer inception_4d/relu_3x3
I0924 00:30:51.495492 22187 net.cpp:91] Creating Layer inception_4d/relu_3x3
I0924 00:30:51.495499 22187 net.cpp:425] inception_4d/relu_3x3 <- inception_4d/3x3
I0924 00:30:51.495512 22187 net.cpp:386] inception_4d/relu_3x3 -> inception_4d/3x3 (in-place)
I0924 00:30:51.495921 22187 net.cpp:141] Setting up inception_4d/relu_3x3
I0924 00:30:51.495934 22187 net.cpp:148] Top shape: 10 288 14 14 (564480)
I0924 00:30:51.495939 22187 net.cpp:156] Memory required for data: 466887680
I0924 00:30:51.495944 22187 layer_factory.hpp:77] Creating layer inception_4d/5x5_reduce
I0924 00:30:51.495961 22187 net.cpp:91] Creating Layer inception_4d/5x5_reduce
I0924 00:30:51.495968 22187 net.cpp:425] inception_4d/5x5_reduce <- inception_4c/output_inception_4c/output_0_split_2
I0924 00:30:51.495981 22187 net.cpp:399] inception_4d/5x5_reduce -> inception_4d/5x5_reduce
I0924 00:30:51.497408 22187 net.cpp:141] Setting up inception_4d/5x5_reduce
I0924 00:30:51.497426 22187 net.cpp:148] Top shape: 10 32 14 14 (62720)
I0924 00:30:51.497431 22187 net.cpp:156] Memory required for data: 467138560
I0924 00:30:51.497439 22187 layer_factory.hpp:77] Creating layer inception_4d/relu_5x5_reduce
I0924 00:30:51.497448 22187 net.cpp:91] Creating Layer inception_4d/relu_5x5_reduce
I0924 00:30:51.497454 22187 net.cpp:425] inception_4d/relu_5x5_reduce <- inception_4d/5x5_reduce
I0924 00:30:51.497462 22187 net.cpp:386] inception_4d/relu_5x5_reduce -> inception_4d/5x5_reduce (in-place)
I0924 00:30:51.497864 22187 net.cpp:141] Setting up inception_4d/relu_5x5_reduce
I0924 00:30:51.497875 22187 net.cpp:148] Top shape: 10 32 14 14 (62720)
I0924 00:30:51.497880 22187 net.cpp:156] Memory required for data: 467389440
I0924 00:30:51.497885 22187 layer_factory.hpp:77] Creating layer inception_4d/5x5
I0924 00:30:51.497900 22187 net.cpp:91] Creating Layer inception_4d/5x5
I0924 00:30:51.497906 22187 net.cpp:425] inception_4d/5x5 <- inception_4d/5x5_reduce
I0924 00:30:51.497917 22187 net.cpp:399] inception_4d/5x5 -> inception_4d/5x5
I0924 00:30:51.499755 22187 net.cpp:141] Setting up inception_4d/5x5
I0924 00:30:51.499776 22187 net.cpp:148] Top shape: 10 64 14 14 (125440)
I0924 00:30:51.499783 22187 net.cpp:156] Memory required for data: 467891200
I0924 00:30:51.499791 22187 layer_factory.hpp:77] Creating layer inception_4d/relu_5x5
I0924 00:30:51.499800 22187 net.cpp:91] Creating Layer inception_4d/relu_5x5
I0924 00:30:51.499805 22187 net.cpp:425] inception_4d/relu_5x5 <- inception_4d/5x5
I0924 00:30:51.499812 22187 net.cpp:386] inception_4d/relu_5x5 -> inception_4d/5x5 (in-place)
I0924 00:30:51.500048 22187 net.cpp:141] Setting up inception_4d/relu_5x5
I0924 00:30:51.500062 22187 net.cpp:148] Top shape: 10 64 14 14 (125440)
I0924 00:30:51.500066 22187 net.cpp:156] Memory required for data: 468392960
I0924 00:30:51.500072 22187 layer_factory.hpp:77] Creating layer inception_4d/pool
I0924 00:30:51.500082 22187 net.cpp:91] Creating Layer inception_4d/pool
I0924 00:30:51.500087 22187 net.cpp:425] inception_4d/pool <- inception_4c/output_inception_4c/output_0_split_3
I0924 00:30:51.500097 22187 net.cpp:399] inception_4d/pool -> inception_4d/pool
I0924 00:30:51.500164 22187 net.cpp:141] Setting up inception_4d/pool
I0924 00:30:51.500176 22187 net.cpp:148] Top shape: 10 512 14 14 (1003520)
I0924 00:30:51.500180 22187 net.cpp:156] Memory required for data: 472407040
I0924 00:30:51.500185 22187 layer_factory.hpp:77] Creating layer inception_4d/pool_proj
I0924 00:30:51.500196 22187 net.cpp:91] Creating Layer inception_4d/pool_proj
I0924 00:30:51.500202 22187 net.cpp:425] inception_4d/pool_proj <- inception_4d/pool
I0924 00:30:51.500213 22187 net.cpp:399] inception_4d/pool_proj -> inception_4d/pool_proj
I0924 00:30:51.501911 22187 net.cpp:141] Setting up inception_4d/pool_proj
I0924 00:30:51.501929 22187 net.cpp:148] Top shape: 10 64 14 14 (125440)
I0924 00:30:51.501935 22187 net.cpp:156] Memory required for data: 472908800
I0924 00:30:51.501942 22187 layer_factory.hpp:77] Creating layer inception_4d/relu_pool_proj
I0924 00:30:51.501953 22187 net.cpp:91] Creating Layer inception_4d/relu_pool_proj
I0924 00:30:51.501960 22187 net.cpp:425] inception_4d/relu_pool_proj <- inception_4d/pool_proj
I0924 00:30:51.501966 22187 net.cpp:386] inception_4d/relu_pool_proj -> inception_4d/pool_proj (in-place)
I0924 00:30:51.502372 22187 net.cpp:141] Setting up inception_4d/relu_pool_proj
I0924 00:30:51.502385 22187 net.cpp:148] Top shape: 10 64 14 14 (125440)
I0924 00:30:51.502389 22187 net.cpp:156] Memory required for data: 473410560
I0924 00:30:51.502394 22187 layer_factory.hpp:77] Creating layer inception_4d/output
I0924 00:30:51.502403 22187 net.cpp:91] Creating Layer inception_4d/output
I0924 00:30:51.502408 22187 net.cpp:425] inception_4d/output <- inception_4d/1x1
I0924 00:30:51.502424 22187 net.cpp:425] inception_4d/output <- inception_4d/3x3
I0924 00:30:51.502430 22187 net.cpp:425] inception_4d/output <- inception_4d/5x5
I0924 00:30:51.502435 22187 net.cpp:425] inception_4d/output <- inception_4d/pool_proj
I0924 00:30:51.502442 22187 net.cpp:399] inception_4d/output -> inception_4d/output
I0924 00:30:51.502486 22187 net.cpp:141] Setting up inception_4d/output
I0924 00:30:51.502496 22187 net.cpp:148] Top shape: 10 528 14 14 (1034880)
I0924 00:30:51.502499 22187 net.cpp:156] Memory required for data: 477550080
I0924 00:30:51.502504 22187 layer_factory.hpp:77] Creating layer inception_4d/output_inception_4d/output_0_split
I0924 00:30:51.502516 22187 net.cpp:91] Creating Layer inception_4d/output_inception_4d/output_0_split
I0924 00:30:51.502522 22187 net.cpp:425] inception_4d/output_inception_4d/output_0_split <- inception_4d/output
I0924 00:30:51.502532 22187 net.cpp:399] inception_4d/output_inception_4d/output_0_split -> inception_4d/output_inception_4d/output_0_split_0
I0924 00:30:51.502539 22187 net.cpp:399] inception_4d/output_inception_4d/output_0_split -> inception_4d/output_inception_4d/output_0_split_1
I0924 00:30:51.502547 22187 net.cpp:399] inception_4d/output_inception_4d/output_0_split -> inception_4d/output_inception_4d/output_0_split_2
I0924 00:30:51.502555 22187 net.cpp:399] inception_4d/output_inception_4d/output_0_split -> inception_4d/output_inception_4d/output_0_split_3
I0924 00:30:51.502661 22187 net.cpp:141] Setting up inception_4d/output_inception_4d/output_0_split
I0924 00:30:51.502671 22187 net.cpp:148] Top shape: 10 528 14 14 (1034880)
I0924 00:30:51.502677 22187 net.cpp:148] Top shape: 10 528 14 14 (1034880)
I0924 00:30:51.502682 22187 net.cpp:148] Top shape: 10 528 14 14 (1034880)
I0924 00:30:51.502687 22187 net.cpp:148] Top shape: 10 528 14 14 (1034880)
I0924 00:30:51.502691 22187 net.cpp:156] Memory required for data: 494108160
I0924 00:30:51.502696 22187 layer_factory.hpp:77] Creating layer inception_4e/1x1
I0924 00:30:51.502709 22187 net.cpp:91] Creating Layer inception_4e/1x1
I0924 00:30:51.502715 22187 net.cpp:425] inception_4e/1x1 <- inception_4d/output_inception_4d/output_0_split_0
I0924 00:30:51.502727 22187 net.cpp:399] inception_4e/1x1 -> inception_4e/1x1
I0924 00:30:51.505869 22187 net.cpp:141] Setting up inception_4e/1x1
I0924 00:30:51.505888 22187 net.cpp:148] Top shape: 10 256 14 14 (501760)
I0924 00:30:51.505893 22187 net.cpp:156] Memory required for data: 496115200
I0924 00:30:51.505903 22187 layer_factory.hpp:77] Creating layer inception_4e/relu_1x1
I0924 00:30:51.505910 22187 net.cpp:91] Creating Layer inception_4e/relu_1x1
I0924 00:30:51.505915 22187 net.cpp:425] inception_4e/relu_1x1 <- inception_4e/1x1
I0924 00:30:51.505926 22187 net.cpp:386] inception_4e/relu_1x1 -> inception_4e/1x1 (in-place)
I0924 00:30:51.506338 22187 net.cpp:141] Setting up inception_4e/relu_1x1
I0924 00:30:51.506350 22187 net.cpp:148] Top shape: 10 256 14 14 (501760)
I0924 00:30:51.506356 22187 net.cpp:156] Memory required for data: 498122240
I0924 00:30:51.506361 22187 layer_factory.hpp:77] Creating layer inception_4e/3x3_reduce
I0924 00:30:51.506376 22187 net.cpp:91] Creating Layer inception_4e/3x3_reduce
I0924 00:30:51.506382 22187 net.cpp:425] inception_4e/3x3_reduce <- inception_4d/output_inception_4d/output_0_split_1
I0924 00:30:51.506393 22187 net.cpp:399] inception_4e/3x3_reduce -> inception_4e/3x3_reduce
I0924 00:30:51.508509 22187 net.cpp:141] Setting up inception_4e/3x3_reduce
I0924 00:30:51.508528 22187 net.cpp:148] Top shape: 10 160 14 14 (313600)
I0924 00:30:51.508533 22187 net.cpp:156] Memory required for data: 499376640
I0924 00:30:51.508541 22187 layer_factory.hpp:77] Creating layer inception_4e/relu_3x3_reduce
I0924 00:30:51.508550 22187 net.cpp:91] Creating Layer inception_4e/relu_3x3_reduce
I0924 00:30:51.508556 22187 net.cpp:425] inception_4e/relu_3x3_reduce <- inception_4e/3x3_reduce
I0924 00:30:51.508566 22187 net.cpp:386] inception_4e/relu_3x3_reduce -> inception_4e/3x3_reduce (in-place)
I0924 00:30:51.508805 22187 net.cpp:141] Setting up inception_4e/relu_3x3_reduce
I0924 00:30:51.508816 22187 net.cpp:148] Top shape: 10 160 14 14 (313600)
I0924 00:30:51.508821 22187 net.cpp:156] Memory required for data: 500631040
I0924 00:30:51.508824 22187 layer_factory.hpp:77] Creating layer inception_4e/3x3
I0924 00:30:51.508839 22187 net.cpp:91] Creating Layer inception_4e/3x3
I0924 00:30:51.508844 22187 net.cpp:425] inception_4e/3x3 <- inception_4e/3x3_reduce
I0924 00:30:51.508857 22187 net.cpp:399] inception_4e/3x3 -> inception_4e/3x3
I0924 00:30:51.514762 22187 net.cpp:141] Setting up inception_4e/3x3
I0924 00:30:51.514781 22187 net.cpp:148] Top shape: 10 320 14 14 (627200)
I0924 00:30:51.514786 22187 net.cpp:156] Memory required for data: 503139840
I0924 00:30:51.514796 22187 layer_factory.hpp:77] Creating layer inception_4e/relu_3x3
I0924 00:30:51.514803 22187 net.cpp:91] Creating Layer inception_4e/relu_3x3
I0924 00:30:51.514809 22187 net.cpp:425] inception_4e/relu_3x3 <- inception_4e/3x3
I0924 00:30:51.514819 22187 net.cpp:386] inception_4e/relu_3x3 -> inception_4e/3x3 (in-place)
I0924 00:30:51.515240 22187 net.cpp:141] Setting up inception_4e/relu_3x3
I0924 00:30:51.515254 22187 net.cpp:148] Top shape: 10 320 14 14 (627200)
I0924 00:30:51.515257 22187 net.cpp:156] Memory required for data: 505648640
I0924 00:30:51.515262 22187 layer_factory.hpp:77] Creating layer inception_4e/5x5_reduce
I0924 00:30:51.515280 22187 net.cpp:91] Creating Layer inception_4e/5x5_reduce
I0924 00:30:51.515286 22187 net.cpp:425] inception_4e/5x5_reduce <- inception_4d/output_inception_4d/output_0_split_2
I0924 00:30:51.515295 22187 net.cpp:399] inception_4e/5x5_reduce -> inception_4e/5x5_reduce
I0924 00:30:51.516744 22187 net.cpp:141] Setting up inception_4e/5x5_reduce
I0924 00:30:51.516762 22187 net.cpp:148] Top shape: 10 32 14 14 (62720)
I0924 00:30:51.516767 22187 net.cpp:156] Memory required for data: 505899520
I0924 00:30:51.516777 22187 layer_factory.hpp:77] Creating layer inception_4e/relu_5x5_reduce
I0924 00:30:51.516784 22187 net.cpp:91] Creating Layer inception_4e/relu_5x5_reduce
I0924 00:30:51.516790 22187 net.cpp:425] inception_4e/relu_5x5_reduce <- inception_4e/5x5_reduce
I0924 00:30:51.516800 22187 net.cpp:386] inception_4e/relu_5x5_reduce -> inception_4e/5x5_reduce (in-place)
I0924 00:30:51.517204 22187 net.cpp:141] Setting up inception_4e/relu_5x5_reduce
I0924 00:30:51.517217 22187 net.cpp:148] Top shape: 10 32 14 14 (62720)
I0924 00:30:51.517222 22187 net.cpp:156] Memory required for data: 506150400
I0924 00:30:51.517227 22187 layer_factory.hpp:77] Creating layer inception_4e/5x5
I0924 00:30:51.517242 22187 net.cpp:91] Creating Layer inception_4e/5x5
I0924 00:30:51.517249 22187 net.cpp:425] inception_4e/5x5 <- inception_4e/5x5_reduce
I0924 00:30:51.517261 22187 net.cpp:399] inception_4e/5x5 -> inception_4e/5x5
I0924 00:30:51.520112 22187 net.cpp:141] Setting up inception_4e/5x5
I0924 00:30:51.520129 22187 net.cpp:148] Top shape: 10 128 14 14 (250880)
I0924 00:30:51.520135 22187 net.cpp:156] Memory required for data: 507153920
I0924 00:30:51.520144 22187 layer_factory.hpp:77] Creating layer inception_4e/relu_5x5
I0924 00:30:51.520153 22187 net.cpp:91] Creating Layer inception_4e/relu_5x5
I0924 00:30:51.520159 22187 net.cpp:425] inception_4e/relu_5x5 <- inception_4e/5x5
I0924 00:30:51.520169 22187 net.cpp:386] inception_4e/relu_5x5 -> inception_4e/5x5 (in-place)
I0924 00:30:51.520404 22187 net.cpp:141] Setting up inception_4e/relu_5x5
I0924 00:30:51.520416 22187 net.cpp:148] Top shape: 10 128 14 14 (250880)
I0924 00:30:51.520421 22187 net.cpp:156] Memory required for data: 508157440
I0924 00:30:51.520426 22187 layer_factory.hpp:77] Creating layer inception_4e/pool
I0924 00:30:51.520437 22187 net.cpp:91] Creating Layer inception_4e/pool
I0924 00:30:51.520442 22187 net.cpp:425] inception_4e/pool <- inception_4d/output_inception_4d/output_0_split_3
I0924 00:30:51.520450 22187 net.cpp:399] inception_4e/pool -> inception_4e/pool
I0924 00:30:51.520522 22187 net.cpp:141] Setting up inception_4e/pool
I0924 00:30:51.520531 22187 net.cpp:148] Top shape: 10 528 14 14 (1034880)
I0924 00:30:51.520535 22187 net.cpp:156] Memory required for data: 512296960
I0924 00:30:51.520540 22187 layer_factory.hpp:77] Creating layer inception_4e/pool_proj
I0924 00:30:51.520555 22187 net.cpp:91] Creating Layer inception_4e/pool_proj
I0924 00:30:51.520561 22187 net.cpp:425] inception_4e/pool_proj <- inception_4e/pool
I0924 00:30:51.520571 22187 net.cpp:399] inception_4e/pool_proj -> inception_4e/pool_proj
I0924 00:30:51.522541 22187 net.cpp:141] Setting up inception_4e/pool_proj
I0924 00:30:51.522558 22187 net.cpp:148] Top shape: 10 128 14 14 (250880)
I0924 00:30:51.522563 22187 net.cpp:156] Memory required for data: 513300480
I0924 00:30:51.522572 22187 layer_factory.hpp:77] Creating layer inception_4e/relu_pool_proj
I0924 00:30:51.522580 22187 net.cpp:91] Creating Layer inception_4e/relu_pool_proj
I0924 00:30:51.522586 22187 net.cpp:425] inception_4e/relu_pool_proj <- inception_4e/pool_proj
I0924 00:30:51.522608 22187 net.cpp:386] inception_4e/relu_pool_proj -> inception_4e/pool_proj (in-place)
I0924 00:30:51.523030 22187 net.cpp:141] Setting up inception_4e/relu_pool_proj
I0924 00:30:51.523042 22187 net.cpp:148] Top shape: 10 128 14 14 (250880)
I0924 00:30:51.523047 22187 net.cpp:156] Memory required for data: 514304000
I0924 00:30:51.523052 22187 layer_factory.hpp:77] Creating layer inception_4e/output
I0924 00:30:51.523061 22187 net.cpp:91] Creating Layer inception_4e/output
I0924 00:30:51.523066 22187 net.cpp:425] inception_4e/output <- inception_4e/1x1
I0924 00:30:51.523072 22187 net.cpp:425] inception_4e/output <- inception_4e/3x3
I0924 00:30:51.523077 22187 net.cpp:425] inception_4e/output <- inception_4e/5x5
I0924 00:30:51.523082 22187 net.cpp:425] inception_4e/output <- inception_4e/pool_proj
I0924 00:30:51.523092 22187 net.cpp:399] inception_4e/output -> inception_4e/output
I0924 00:30:51.523138 22187 net.cpp:141] Setting up inception_4e/output
I0924 00:30:51.523149 22187 net.cpp:148] Top shape: 10 832 14 14 (1630720)
I0924 00:30:51.523154 22187 net.cpp:156] Memory required for data: 520826880
I0924 00:30:51.523159 22187 layer_factory.hpp:77] Creating layer pool4/3x3_s2
I0924 00:30:51.523166 22187 net.cpp:91] Creating Layer pool4/3x3_s2
I0924 00:30:51.523172 22187 net.cpp:425] pool4/3x3_s2 <- inception_4e/output
I0924 00:30:51.523178 22187 net.cpp:399] pool4/3x3_s2 -> pool4/3x3_s2
I0924 00:30:51.523243 22187 net.cpp:141] Setting up pool4/3x3_s2
I0924 00:30:51.523252 22187 net.cpp:148] Top shape: 10 832 7 7 (407680)
I0924 00:30:51.523257 22187 net.cpp:156] Memory required for data: 522457600
I0924 00:30:51.523262 22187 layer_factory.hpp:77] Creating layer pool4/3x3_s2_pool4/3x3_s2_0_split
I0924 00:30:51.523269 22187 net.cpp:91] Creating Layer pool4/3x3_s2_pool4/3x3_s2_0_split
I0924 00:30:51.523274 22187 net.cpp:425] pool4/3x3_s2_pool4/3x3_s2_0_split <- pool4/3x3_s2
I0924 00:30:51.523284 22187 net.cpp:399] pool4/3x3_s2_pool4/3x3_s2_0_split -> pool4/3x3_s2_pool4/3x3_s2_0_split_0
I0924 00:30:51.523293 22187 net.cpp:399] pool4/3x3_s2_pool4/3x3_s2_0_split -> pool4/3x3_s2_pool4/3x3_s2_0_split_1
I0924 00:30:51.523300 22187 net.cpp:399] pool4/3x3_s2_pool4/3x3_s2_0_split -> pool4/3x3_s2_pool4/3x3_s2_0_split_2
I0924 00:30:51.523308 22187 net.cpp:399] pool4/3x3_s2_pool4/3x3_s2_0_split -> pool4/3x3_s2_pool4/3x3_s2_0_split_3
I0924 00:30:51.523404 22187 net.cpp:141] Setting up pool4/3x3_s2_pool4/3x3_s2_0_split
I0924 00:30:51.523413 22187 net.cpp:148] Top shape: 10 832 7 7 (407680)
I0924 00:30:51.523419 22187 net.cpp:148] Top shape: 10 832 7 7 (407680)
I0924 00:30:51.523424 22187 net.cpp:148] Top shape: 10 832 7 7 (407680)
I0924 00:30:51.523429 22187 net.cpp:148] Top shape: 10 832 7 7 (407680)
I0924 00:30:51.523433 22187 net.cpp:156] Memory required for data: 528980480
I0924 00:30:51.523438 22187 layer_factory.hpp:77] Creating layer inception_5a/1x1
I0924 00:30:51.523455 22187 net.cpp:91] Creating Layer inception_5a/1x1
I0924 00:30:51.523463 22187 net.cpp:425] inception_5a/1x1 <- pool4/3x3_s2_pool4/3x3_s2_0_split_0
I0924 00:30:51.523470 22187 net.cpp:399] inception_5a/1x1 -> inception_5a/1x1
I0924 00:30:51.527000 22187 net.cpp:141] Setting up inception_5a/1x1
I0924 00:30:51.527019 22187 net.cpp:148] Top shape: 10 256 7 7 (125440)
I0924 00:30:51.527024 22187 net.cpp:156] Memory required for data: 529482240
I0924 00:30:51.527032 22187 layer_factory.hpp:77] Creating layer inception_5a/relu_1x1
I0924 00:30:51.527040 22187 net.cpp:91] Creating Layer inception_5a/relu_1x1
I0924 00:30:51.527050 22187 net.cpp:425] inception_5a/relu_1x1 <- inception_5a/1x1
I0924 00:30:51.527056 22187 net.cpp:386] inception_5a/relu_1x1 -> inception_5a/1x1 (in-place)
I0924 00:30:51.527470 22187 net.cpp:141] Setting up inception_5a/relu_1x1
I0924 00:30:51.527483 22187 net.cpp:148] Top shape: 10 256 7 7 (125440)
I0924 00:30:51.527487 22187 net.cpp:156] Memory required for data: 529984000
I0924 00:30:51.527493 22187 layer_factory.hpp:77] Creating layer inception_5a/3x3_reduce
I0924 00:30:51.527508 22187 net.cpp:91] Creating Layer inception_5a/3x3_reduce
I0924 00:30:51.527514 22187 net.cpp:425] inception_5a/3x3_reduce <- pool4/3x3_s2_pool4/3x3_s2_0_split_1
I0924 00:30:51.527526 22187 net.cpp:399] inception_5a/3x3_reduce -> inception_5a/3x3_reduce
I0924 00:30:51.530658 22187 net.cpp:141] Setting up inception_5a/3x3_reduce
I0924 00:30:51.530678 22187 net.cpp:148] Top shape: 10 160 7 7 (78400)
I0924 00:30:51.530683 22187 net.cpp:156] Memory required for data: 530297600
I0924 00:30:51.530691 22187 layer_factory.hpp:77] Creating layer inception_5a/relu_3x3_reduce
I0924 00:30:51.530699 22187 net.cpp:91] Creating Layer inception_5a/relu_3x3_reduce
I0924 00:30:51.530705 22187 net.cpp:425] inception_5a/relu_3x3_reduce <- inception_5a/3x3_reduce
I0924 00:30:51.530712 22187 net.cpp:386] inception_5a/relu_3x3_reduce -> inception_5a/3x3_reduce (in-place)
I0924 00:30:51.530956 22187 net.cpp:141] Setting up inception_5a/relu_3x3_reduce
I0924 00:30:51.530966 22187 net.cpp:148] Top shape: 10 160 7 7 (78400)
I0924 00:30:51.530972 22187 net.cpp:156] Memory required for data: 530611200
I0924 00:30:51.530977 22187 layer_factory.hpp:77] Creating layer inception_5a/3x3
I0924 00:30:51.530990 22187 net.cpp:91] Creating Layer inception_5a/3x3
I0924 00:30:51.530997 22187 net.cpp:425] inception_5a/3x3 <- inception_5a/3x3_reduce
I0924 00:30:51.531008 22187 net.cpp:399] inception_5a/3x3 -> inception_5a/3x3
I0924 00:30:51.537266 22187 net.cpp:141] Setting up inception_5a/3x3
I0924 00:30:51.537286 22187 net.cpp:148] Top shape: 10 320 7 7 (156800)
I0924 00:30:51.537292 22187 net.cpp:156] Memory required for data: 531238400
I0924 00:30:51.537300 22187 layer_factory.hpp:77] Creating layer inception_5a/relu_3x3
I0924 00:30:51.537309 22187 net.cpp:91] Creating Layer inception_5a/relu_3x3
I0924 00:30:51.537315 22187 net.cpp:425] inception_5a/relu_3x3 <- inception_5a/3x3
I0924 00:30:51.537322 22187 net.cpp:386] inception_5a/relu_3x3 -> inception_5a/3x3 (in-place)
I0924 00:30:51.537762 22187 net.cpp:141] Setting up inception_5a/relu_3x3
I0924 00:30:51.537775 22187 net.cpp:148] Top shape: 10 320 7 7 (156800)
I0924 00:30:51.537780 22187 net.cpp:156] Memory required for data: 531865600
I0924 00:30:51.537784 22187 layer_factory.hpp:77] Creating layer inception_5a/5x5_reduce
I0924 00:30:51.537799 22187 net.cpp:91] Creating Layer inception_5a/5x5_reduce
I0924 00:30:51.537806 22187 net.cpp:425] inception_5a/5x5_reduce <- pool4/3x3_s2_pool4/3x3_s2_0_split_2
I0924 00:30:51.537817 22187 net.cpp:399] inception_5a/5x5_reduce -> inception_5a/5x5_reduce
I0924 00:30:51.539391 22187 net.cpp:141] Setting up inception_5a/5x5_reduce
I0924 00:30:51.539408 22187 net.cpp:148] Top shape: 10 32 7 7 (15680)
I0924 00:30:51.539413 22187 net.cpp:156] Memory required for data: 531928320
I0924 00:30:51.539422 22187 layer_factory.hpp:77] Creating layer inception_5a/relu_5x5_reduce
I0924 00:30:51.539430 22187 net.cpp:91] Creating Layer inception_5a/relu_5x5_reduce
I0924 00:30:51.539439 22187 net.cpp:425] inception_5a/relu_5x5_reduce <- inception_5a/5x5_reduce
I0924 00:30:51.539446 22187 net.cpp:386] inception_5a/relu_5x5_reduce -> inception_5a/5x5_reduce (in-place)
I0924 00:30:51.539858 22187 net.cpp:141] Setting up inception_5a/relu_5x5_reduce
I0924 00:30:51.539871 22187 net.cpp:148] Top shape: 10 32 7 7 (15680)
I0924 00:30:51.539876 22187 net.cpp:156] Memory required for data: 531991040
I0924 00:30:51.539881 22187 layer_factory.hpp:77] Creating layer inception_5a/5x5
I0924 00:30:51.539896 22187 net.cpp:91] Creating Layer inception_5a/5x5
I0924 00:30:51.539901 22187 net.cpp:425] inception_5a/5x5 <- inception_5a/5x5_reduce
I0924 00:30:51.539913 22187 net.cpp:399] inception_5a/5x5 -> inception_5a/5x5
I0924 00:30:51.542146 22187 net.cpp:141] Setting up inception_5a/5x5
I0924 00:30:51.542163 22187 net.cpp:148] Top shape: 10 128 7 7 (62720)
I0924 00:30:51.542170 22187 net.cpp:156] Memory required for data: 532241920
I0924 00:30:51.542177 22187 layer_factory.hpp:77] Creating layer inception_5a/relu_5x5
I0924 00:30:51.542209 22187 net.cpp:91] Creating Layer inception_5a/relu_5x5
I0924 00:30:51.542217 22187 net.cpp:425] inception_5a/relu_5x5 <- inception_5a/5x5
I0924 00:30:51.542223 22187 net.cpp:386] inception_5a/relu_5x5 -> inception_5a/5x5 (in-place)
I0924 00:30:51.542465 22187 net.cpp:141] Setting up inception_5a/relu_5x5
I0924 00:30:51.542476 22187 net.cpp:148] Top shape: 10 128 7 7 (62720)
I0924 00:30:51.542480 22187 net.cpp:156] Memory required for data: 532492800
I0924 00:30:51.542486 22187 layer_factory.hpp:77] Creating layer inception_5a/pool
I0924 00:30:51.542496 22187 net.cpp:91] Creating Layer inception_5a/pool
I0924 00:30:51.542502 22187 net.cpp:425] inception_5a/pool <- pool4/3x3_s2_pool4/3x3_s2_0_split_3
I0924 00:30:51.542510 22187 net.cpp:399] inception_5a/pool -> inception_5a/pool
I0924 00:30:51.542584 22187 net.cpp:141] Setting up inception_5a/pool
I0924 00:30:51.542600 22187 net.cpp:148] Top shape: 10 832 7 7 (407680)
I0924 00:30:51.542605 22187 net.cpp:156] Memory required for data: 534123520
I0924 00:30:51.542610 22187 layer_factory.hpp:77] Creating layer inception_5a/pool_proj
I0924 00:30:51.542625 22187 net.cpp:91] Creating Layer inception_5a/pool_proj
I0924 00:30:51.542631 22187 net.cpp:425] inception_5a/pool_proj <- inception_5a/pool
I0924 00:30:51.542642 22187 net.cpp:399] inception_5a/pool_proj -> inception_5a/pool_proj
I0924 00:30:51.545562 22187 net.cpp:141] Setting up inception_5a/pool_proj
I0924 00:30:51.545580 22187 net.cpp:148] Top shape: 10 128 7 7 (62720)
I0924 00:30:51.545585 22187 net.cpp:156] Memory required for data: 534374400
I0924 00:30:51.545594 22187 layer_factory.hpp:77] Creating layer inception_5a/relu_pool_proj
I0924 00:30:51.545603 22187 net.cpp:91] Creating Layer inception_5a/relu_pool_proj
I0924 00:30:51.545608 22187 net.cpp:425] inception_5a/relu_pool_proj <- inception_5a/pool_proj
I0924 00:30:51.545617 22187 net.cpp:386] inception_5a/relu_pool_proj -> inception_5a/pool_proj (in-place)
I0924 00:30:51.546036 22187 net.cpp:141] Setting up inception_5a/relu_pool_proj
I0924 00:30:51.546049 22187 net.cpp:148] Top shape: 10 128 7 7 (62720)
I0924 00:30:51.546053 22187 net.cpp:156] Memory required for data: 534625280
I0924 00:30:51.546058 22187 layer_factory.hpp:77] Creating layer inception_5a/output
I0924 00:30:51.546066 22187 net.cpp:91] Creating Layer inception_5a/output
I0924 00:30:51.546072 22187 net.cpp:425] inception_5a/output <- inception_5a/1x1
I0924 00:30:51.546078 22187 net.cpp:425] inception_5a/output <- inception_5a/3x3
I0924 00:30:51.546083 22187 net.cpp:425] inception_5a/output <- inception_5a/5x5
I0924 00:30:51.546088 22187 net.cpp:425] inception_5a/output <- inception_5a/pool_proj
I0924 00:30:51.546097 22187 net.cpp:399] inception_5a/output -> inception_5a/output
I0924 00:30:51.546144 22187 net.cpp:141] Setting up inception_5a/output
I0924 00:30:51.546154 22187 net.cpp:148] Top shape: 10 832 7 7 (407680)
I0924 00:30:51.546157 22187 net.cpp:156] Memory required for data: 536256000
I0924 00:30:51.546162 22187 layer_factory.hpp:77] Creating layer inception_5a/output_inception_5a/output_0_split
I0924 00:30:51.546175 22187 net.cpp:91] Creating Layer inception_5a/output_inception_5a/output_0_split
I0924 00:30:51.546180 22187 net.cpp:425] inception_5a/output_inception_5a/output_0_split <- inception_5a/output
I0924 00:30:51.546186 22187 net.cpp:399] inception_5a/output_inception_5a/output_0_split -> inception_5a/output_inception_5a/output_0_split_0
I0924 00:30:51.546195 22187 net.cpp:399] inception_5a/output_inception_5a/output_0_split -> inception_5a/output_inception_5a/output_0_split_1
I0924 00:30:51.546205 22187 net.cpp:399] inception_5a/output_inception_5a/output_0_split -> inception_5a/output_inception_5a/output_0_split_2
I0924 00:30:51.546214 22187 net.cpp:399] inception_5a/output_inception_5a/output_0_split -> inception_5a/output_inception_5a/output_0_split_3
I0924 00:30:51.546317 22187 net.cpp:141] Setting up inception_5a/output_inception_5a/output_0_split
I0924 00:30:51.546327 22187 net.cpp:148] Top shape: 10 832 7 7 (407680)
I0924 00:30:51.546332 22187 net.cpp:148] Top shape: 10 832 7 7 (407680)
I0924 00:30:51.546337 22187 net.cpp:148] Top shape: 10 832 7 7 (407680)
I0924 00:30:51.546342 22187 net.cpp:148] Top shape: 10 832 7 7 (407680)
I0924 00:30:51.546346 22187 net.cpp:156] Memory required for data: 542778880
I0924 00:30:51.546351 22187 layer_factory.hpp:77] Creating layer inception_5b/1x1
I0924 00:30:51.546365 22187 net.cpp:91] Creating Layer inception_5b/1x1
I0924 00:30:51.546370 22187 net.cpp:425] inception_5b/1x1 <- inception_5a/output_inception_5a/output_0_split_0
I0924 00:30:51.546381 22187 net.cpp:399] inception_5b/1x1 -> inception_5b/1x1
I0924 00:30:51.550914 22187 net.cpp:141] Setting up inception_5b/1x1
I0924 00:30:51.550932 22187 net.cpp:148] Top shape: 10 384 7 7 (188160)
I0924 00:30:51.550937 22187 net.cpp:156] Memory required for data: 543531520
I0924 00:30:51.550958 22187 layer_factory.hpp:77] Creating layer inception_5b/relu_1x1
I0924 00:30:51.550969 22187 net.cpp:91] Creating Layer inception_5b/relu_1x1
I0924 00:30:51.550976 22187 net.cpp:425] inception_5b/relu_1x1 <- inception_5b/1x1
I0924 00:30:51.550982 22187 net.cpp:386] inception_5b/relu_1x1 -> inception_5b/1x1 (in-place)
I0924 00:30:51.551405 22187 net.cpp:141] Setting up inception_5b/relu_1x1
I0924 00:30:51.551417 22187 net.cpp:148] Top shape: 10 384 7 7 (188160)
I0924 00:30:51.551422 22187 net.cpp:156] Memory required for data: 544284160
I0924 00:30:51.551427 22187 layer_factory.hpp:77] Creating layer inception_5b/3x3_reduce
I0924 00:30:51.551441 22187 net.cpp:91] Creating Layer inception_5b/3x3_reduce
I0924 00:30:51.551447 22187 net.cpp:425] inception_5b/3x3_reduce <- inception_5a/output_inception_5a/output_0_split_1
I0924 00:30:51.551460 22187 net.cpp:399] inception_5b/3x3_reduce -> inception_5b/3x3_reduce
I0924 00:30:51.554872 22187 net.cpp:141] Setting up inception_5b/3x3_reduce
I0924 00:30:51.554903 22187 net.cpp:148] Top shape: 10 192 7 7 (94080)
I0924 00:30:51.554909 22187 net.cpp:156] Memory required for data: 544660480
I0924 00:30:51.554918 22187 layer_factory.hpp:77] Creating layer inception_5b/relu_3x3_reduce
I0924 00:30:51.554929 22187 net.cpp:91] Creating Layer inception_5b/relu_3x3_reduce
I0924 00:30:51.554935 22187 net.cpp:425] inception_5b/relu_3x3_reduce <- inception_5b/3x3_reduce
I0924 00:30:51.554955 22187 net.cpp:386] inception_5b/relu_3x3_reduce -> inception_5b/3x3_reduce (in-place)
I0924 00:30:51.555199 22187 net.cpp:141] Setting up inception_5b/relu_3x3_reduce
I0924 00:30:51.555212 22187 net.cpp:148] Top shape: 10 192 7 7 (94080)
I0924 00:30:51.555215 22187 net.cpp:156] Memory required for data: 545036800
I0924 00:30:51.555220 22187 layer_factory.hpp:77] Creating layer inception_5b/3x3
I0924 00:30:51.555238 22187 net.cpp:91] Creating Layer inception_5b/3x3
I0924 00:30:51.555243 22187 net.cpp:425] inception_5b/3x3 <- inception_5b/3x3_reduce
I0924 00:30:51.555254 22187 net.cpp:399] inception_5b/3x3 -> inception_5b/3x3
I0924 00:30:51.563026 22187 net.cpp:141] Setting up inception_5b/3x3
I0924 00:30:51.563057 22187 net.cpp:148] Top shape: 10 384 7 7 (188160)
I0924 00:30:51.563063 22187 net.cpp:156] Memory required for data: 545789440
I0924 00:30:51.563071 22187 layer_factory.hpp:77] Creating layer inception_5b/relu_3x3
I0924 00:30:51.563083 22187 net.cpp:91] Creating Layer inception_5b/relu_3x3
I0924 00:30:51.563091 22187 net.cpp:425] inception_5b/relu_3x3 <- inception_5b/3x3
I0924 00:30:51.563097 22187 net.cpp:386] inception_5b/relu_3x3 -> inception_5b/3x3 (in-place)
I0924 00:30:51.563524 22187 net.cpp:141] Setting up inception_5b/relu_3x3
I0924 00:30:51.563537 22187 net.cpp:148] Top shape: 10 384 7 7 (188160)
I0924 00:30:51.563541 22187 net.cpp:156] Memory required for data: 546542080
I0924 00:30:51.563546 22187 layer_factory.hpp:77] Creating layer inception_5b/5x5_reduce
I0924 00:30:51.563563 22187 net.cpp:91] Creating Layer inception_5b/5x5_reduce
I0924 00:30:51.563570 22187 net.cpp:425] inception_5b/5x5_reduce <- inception_5a/output_inception_5a/output_0_split_2
I0924 00:30:51.563578 22187 net.cpp:399] inception_5b/5x5_reduce -> inception_5b/5x5_reduce
I0924 00:30:51.565289 22187 net.cpp:141] Setting up inception_5b/5x5_reduce
I0924 00:30:51.565318 22187 net.cpp:148] Top shape: 10 48 7 7 (23520)
I0924 00:30:51.565323 22187 net.cpp:156] Memory required for data: 546636160
I0924 00:30:51.565332 22187 layer_factory.hpp:77] Creating layer inception_5b/relu_5x5_reduce
I0924 00:30:51.565340 22187 net.cpp:91] Creating Layer inception_5b/relu_5x5_reduce
I0924 00:30:51.565346 22187 net.cpp:425] inception_5b/relu_5x5_reduce <- inception_5b/5x5_reduce
I0924 00:30:51.565357 22187 net.cpp:386] inception_5b/relu_5x5_reduce -> inception_5b/5x5_reduce (in-place)
I0924 00:30:51.565768 22187 net.cpp:141] Setting up inception_5b/relu_5x5_reduce
I0924 00:30:51.565783 22187 net.cpp:148] Top shape: 10 48 7 7 (23520)
I0924 00:30:51.565788 22187 net.cpp:156] Memory required for data: 546730240
I0924 00:30:51.565793 22187 layer_factory.hpp:77] Creating layer inception_5b/5x5
I0924 00:30:51.565809 22187 net.cpp:91] Creating Layer inception_5b/5x5
I0924 00:30:51.565814 22187 net.cpp:425] inception_5b/5x5 <- inception_5b/5x5_reduce
I0924 00:30:51.565824 22187 net.cpp:399] inception_5b/5x5 -> inception_5b/5x5
I0924 00:30:51.568734 22187 net.cpp:141] Setting up inception_5b/5x5
I0924 00:30:51.568753 22187 net.cpp:148] Top shape: 10 128 7 7 (62720)
I0924 00:30:51.568758 22187 net.cpp:156] Memory required for data: 546981120
I0924 00:30:51.568766 22187 layer_factory.hpp:77] Creating layer inception_5b/relu_5x5
I0924 00:30:51.568774 22187 net.cpp:91] Creating Layer inception_5b/relu_5x5
I0924 00:30:51.568780 22187 net.cpp:425] inception_5b/relu_5x5 <- inception_5b/5x5
I0924 00:30:51.568788 22187 net.cpp:386] inception_5b/relu_5x5 -> inception_5b/5x5 (in-place)
I0924 00:30:51.569037 22187 net.cpp:141] Setting up inception_5b/relu_5x5
I0924 00:30:51.569048 22187 net.cpp:148] Top shape: 10 128 7 7 (62720)
I0924 00:30:51.569053 22187 net.cpp:156] Memory required for data: 547232000
I0924 00:30:51.569057 22187 layer_factory.hpp:77] Creating layer inception_5b/pool
I0924 00:30:51.569068 22187 net.cpp:91] Creating Layer inception_5b/pool
I0924 00:30:51.569074 22187 net.cpp:425] inception_5b/pool <- inception_5a/output_inception_5a/output_0_split_3
I0924 00:30:51.569082 22187 net.cpp:399] inception_5b/pool -> inception_5b/pool
I0924 00:30:51.569159 22187 net.cpp:141] Setting up inception_5b/pool
I0924 00:30:51.569169 22187 net.cpp:148] Top shape: 10 832 7 7 (407680)
I0924 00:30:51.569172 22187 net.cpp:156] Memory required for data: 548862720
I0924 00:30:51.569177 22187 layer_factory.hpp:77] Creating layer inception_5b/pool_proj
I0924 00:30:51.569192 22187 net.cpp:91] Creating Layer inception_5b/pool_proj
I0924 00:30:51.569198 22187 net.cpp:425] inception_5b/pool_proj <- inception_5b/pool
I0924 00:30:51.569208 22187 net.cpp:399] inception_5b/pool_proj -> inception_5b/pool_proj
I0924 00:30:51.572242 22187 net.cpp:141] Setting up inception_5b/pool_proj
I0924 00:30:51.572273 22187 net.cpp:148] Top shape: 10 128 7 7 (62720)
I0924 00:30:51.572278 22187 net.cpp:156] Memory required for data: 549113600
I0924 00:30:51.572288 22187 layer_factory.hpp:77] Creating layer inception_5b/relu_pool_proj
I0924 00:30:51.572299 22187 net.cpp:91] Creating Layer inception_5b/relu_pool_proj
I0924 00:30:51.572306 22187 net.cpp:425] inception_5b/relu_pool_proj <- inception_5b/pool_proj
I0924 00:30:51.572314 22187 net.cpp:386] inception_5b/relu_pool_proj -> inception_5b/pool_proj (in-place)
I0924 00:30:51.572742 22187 net.cpp:141] Setting up inception_5b/relu_pool_proj
I0924 00:30:51.572754 22187 net.cpp:148] Top shape: 10 128 7 7 (62720)
I0924 00:30:51.572759 22187 net.cpp:156] Memory required for data: 549364480
I0924 00:30:51.572764 22187 layer_factory.hpp:77] Creating layer inception_5b/output
I0924 00:30:51.572775 22187 net.cpp:91] Creating Layer inception_5b/output
I0924 00:30:51.572782 22187 net.cpp:425] inception_5b/output <- inception_5b/1x1
I0924 00:30:51.572788 22187 net.cpp:425] inception_5b/output <- inception_5b/3x3
I0924 00:30:51.572793 22187 net.cpp:425] inception_5b/output <- inception_5b/5x5
I0924 00:30:51.572799 22187 net.cpp:425] inception_5b/output <- inception_5b/pool_proj
I0924 00:30:51.572805 22187 net.cpp:399] inception_5b/output -> inception_5b/output
I0924 00:30:51.572856 22187 net.cpp:141] Setting up inception_5b/output
I0924 00:30:51.572865 22187 net.cpp:148] Top shape: 10 1024 7 7 (501760)
I0924 00:30:51.572870 22187 net.cpp:156] Memory required for data: 551371520
I0924 00:30:51.572875 22187 layer_factory.hpp:77] Creating layer pool5/7x7_s1
I0924 00:30:51.572882 22187 net.cpp:91] Creating Layer pool5/7x7_s1
I0924 00:30:51.572887 22187 net.cpp:425] pool5/7x7_s1 <- inception_5b/output
I0924 00:30:51.572898 22187 net.cpp:399] pool5/7x7_s1 -> pool5/7x7_s1
I0924 00:30:51.573187 22187 net.cpp:141] Setting up pool5/7x7_s1
I0924 00:30:51.573199 22187 net.cpp:148] Top shape: 10 1024 1 1 (10240)
I0924 00:30:51.573204 22187 net.cpp:156] Memory required for data: 551412480
I0924 00:30:51.573209 22187 layer_factory.hpp:77] Creating layer pool5/drop_7x7_s1
I0924 00:30:51.573230 22187 net.cpp:91] Creating Layer pool5/drop_7x7_s1
I0924 00:30:51.573235 22187 net.cpp:425] pool5/drop_7x7_s1 <- pool5/7x7_s1
I0924 00:30:51.573241 22187 net.cpp:386] pool5/drop_7x7_s1 -> pool5/7x7_s1 (in-place)
I0924 00:30:51.573294 22187 net.cpp:141] Setting up pool5/drop_7x7_s1
I0924 00:30:51.573303 22187 net.cpp:148] Top shape: 10 1024 1 1 (10240)
I0924 00:30:51.573307 22187 net.cpp:156] Memory required for data: 551453440
I0924 00:30:51.573312 22187 layer_factory.hpp:77] Creating layer loss3/classifier
I0924 00:30:51.573323 22187 net.cpp:91] Creating Layer loss3/classifier
I0924 00:30:51.573328 22187 net.cpp:425] loss3/classifier <- pool5/7x7_s1
I0924 00:30:51.573339 22187 net.cpp:399] loss3/classifier -> loss3/classifier
I0924 00:30:51.583292 22187 net.cpp:141] Setting up loss3/classifier
I0924 00:30:51.583323 22187 net.cpp:148] Top shape: 10 1000 (10000)
I0924 00:30:51.583328 22187 net.cpp:156] Memory required for data: 551493440
I0924 00:30:51.583338 22187 layer_factory.hpp:77] Creating layer prob
I0924 00:30:51.583348 22187 net.cpp:91] Creating Layer prob
I0924 00:30:51.583354 22187 net.cpp:425] prob <- loss3/classifier
I0924 00:30:51.583361 22187 net.cpp:399] prob -> prob
I0924 00:30:51.583914 22187 net.cpp:141] Setting up prob
I0924 00:30:51.583930 22187 net.cpp:148] Top shape: 10 1000 (10000)
I0924 00:30:51.583935 22187 net.cpp:156] Memory required for data: 551533440
I0924 00:30:51.583940 22187 net.cpp:219] prob does not need backward computation.
I0924 00:30:51.583945 22187 net.cpp:219] loss3/classifier does not need backward computation.
I0924 00:30:51.583950 22187 net.cpp:219] pool5/drop_7x7_s1 does not need backward computation.
I0924 00:30:51.583953 22187 net.cpp:219] pool5/7x7_s1 does not need backward computation.
…
