…
Java HotSpot(TM) 64-Bit Server VM warning: You have loaded library /tmp/cvld4683573116197218049/libopencv_java310.xine1.so which might have disabled stack guard. The VM will try to fix the stack guard now.
It's highly recommended that you fix the library with 'execstack -c <libfile>', or link it with '-z noexecstack'.
WARNING: Logging before InitGoogleLogging() is written to STDERR
I0713 13:37:15.822407 25426 net.cpp:49] Initializing net from parameters: 
name: "GoogleNet"
state {
  phase: TEST
}
layer {
  name: "data"
  type: "Input"
  top: "data"
  input_param {
    shape {
      dim: 10
      dim: 3
      dim: 224
      dim: 224
    }
  }
}
layer {
  name: "conv1/7x7_s2"
  type: "Convolution"
  bottom: "data"
  top: "conv1/7x7_s2"
  param {
    lr_mult: 1
    decay_mult: 1
  }
  param {
    lr_mult: 2
    decay_mult: 0
  }
  convolution_param {
    num_output: 64
    pad: 3
    kernel_size: 7
    stride: 2
    weight_filler {
      type: "xavier"
      std: 0.1
    }
    bias_filler {
      type: "constant"
      value: 0.2
    }
  }
}
layer {
  name: "conv1/relu_7x7"
  type: "ReLU"
  bottom: "conv1/7x7_s2"
  top: "conv1/7x7_s2"
}
layer {
  name: "pool1/3x3_s2"
  type: "Pooling"
  bottom: "conv1/7x7_s2"
  top: "pool1/3x3_s2"
  pooling_param {
    pool: MAX
    kernel_size: 3
    stride: 2
  }
}
layer {
  name: "pool1/norm1"
  type: "LRN"
  bottom: "pool1/3x3_s2"
  top: "pool1/norm1"
  lrn_param {
    local_size: 5
    alpha: 0.0001
    beta: 0.75
  }
}
layer {
  name: "conv2/3x3_reduce"
  type: "Convolution"
  bottom: "pool1/norm1"
  top: "conv2/3x3_reduce"
  param {
    lr_mult: 1
    decay_mult: 1
  }
  param {
    lr_mult: 2
    decay_mult: 0
  }
  convolution_param {
    num_output: 64
    kernel_size: 1
    weight_filler {
      type: "xavier"
      std: 0.1
    }
    bias_filler {
      type: "constant"
      value: 0.2
    }
  }
}
layer {
  name: "conv2/relu_3x3_reduce"
  type: "ReLU"
  bottom: "conv2/3x3_reduce"
  top: "conv2/3x3_reduce"
}
layer {
  name: "conv2/3x3"
  type: "Convolution"
  bottom: "conv2/3x3_reduce"
  top: "conv2/3x3"
  param {
    lr_mult: 1
    decay_mult: 1
  }
  param {
    lr_mult: 2
    decay_mult: 0
  }
  convolution_param {
    num_output: 192
    pad: 1
    kernel_size: 3
    weight_filler {
      type: "xavier"
      std: 0.03
    }
    bias_filler {
      type: "constant"
      value: 0.2
    }
  }
}
layer {
  name: "conv2/relu_3x3"
  type: "ReLU"
  bottom: "conv2/3x3"
  top: "conv2/3x3"
}
layer {
  name: "conv2/norm2"
  type: "LRN"
  bottom: "conv2/3x3"
  top: "conv2/norm2"
  lrn_param {
    local_size: 5
    alpha: 0.0001
    beta: 0.75
  }
}
layer {
  name: "pool2/3x3_s2"
  type: "Pooling"
  bottom: "conv2/norm2"
  top: "pool2/3x3_s2"
  pooling_param {
    pool: MAX
    kernel_size: 3
    stride: 2
  }
}
layer {
  name: "inception_3a/1x1"
  type: "Convolution"
  bottom: "pool2/3x3_s2"
  top: "inception_3a/1x1"
  param {
    lr_mult: 1
    decay_mult: 1
  }
  param {
    lr_mult: 2
    decay_mult: 0
  }
  convolution_param {
    num_output: 64
    kernel_size: 1
    weight_filler {
      type: "xavier"
      std: 0.03
    }
    bias_filler {
      type: "constant"
      value: 0.2
    }
  }
}
layer {
  name: "inception_3a/relu_1x1"
  type: "ReLU"
  bottom: "inception_3a/1x1"
  top: "inception_3a/1x1"
}
layer {
  name: "inception_3a/3x3_reduce"
  type: "Convolution"
  bottom: "pool2/3x3_s2"
  top: "inception_3a/3x3_reduce"
  param {
    lr_mult: 1
    decay_mult: 1
  }
  param {
    lr_mult: 2
    decay_mult: 0
  }
  convolution_param {
    num_output: 96
    kernel_size: 1
    weight_filler {
      type: "xavier"
      std: 0.09
    }
    bias_filler {
      type: "constant"
      value: 0.2
    }
  }
}
layer {
  name: "inception_3a/relu_3x3_reduce"
  type: "ReLU"
  bottom: "inception_3a/3x3_reduce"
  top: "inception_3a/3x3_reduce"
}
layer {
  name: "inception_3a/3x3"
  type: "Convolution"
  bottom: "inception_3a/3x3_reduce"
  top: "inception_3a/3x3"
  param {
    lr_mult: 1
    decay_mult: 1
  }
  param {
    lr_mult: 2
    decay_mult: 0
  }
  convolution_param {
    num_output: 128
    pad: 1
    kernel_size: 3
    weight_filler {
      type: "xavier"
      std: 0.03
    }
    bias_filler {
      type: "constant"
      value: 0.2
    }
  }
}
layer {
  name: "inception_3a/relu_3x3"
  type: "ReLU"
  bottom: "inception_3a/3x3"
  top: "inception_3a/3x3"
}
layer {
  name: "inception_3a/5x5_reduce"
  type: "Convolution"
  bottom: "pool2/3x3_s2"
  top: "inception_3a/5x5_reduce"
  param {
    lr_mult: 1
    decay_mult: 1
  }
  param {
    lr_mult: 2
    decay_mult: 0
  }
  convolution_param {
    num_output: 16
    kernel_size: 1
    weight_filler {
      type: "xavier"
      std: 0.2
    }
    bias_filler {
      type: "constant"
      value: 0.2
    }
  }
}
layer {
  name: "inception_3a/relu_5x5_reduce"
  type: "ReLU"
  bottom: "inception_3a/5x5_reduce"
  top: "inception_3a/5x5_reduce"
}
layer {
  name: "inception_3a/5x5"
  type: "Convolution"
  bottom: "inception_3a/5x5_reduce"
  top: "inception_3a/5x5"
  param {
    lr_mult: 1
    decay_mult: 1
  }
  param {
    lr_mult: 2
    decay_mult: 0
  }
  convolution_param {
    num_output: 32
    pad: 2
    kernel_size: 5
    weight_filler {
      type: "xavier"
      std: 0.03
    }
    bias_filler {
      type: "constant"
      value: 0.2
    }
  }
}
layer {
  name: "inception_3a/relu_5x5"
  type: "ReLU"
  bottom: "inception_3a/5x5"
  top: "inception_3a/5x5"
}
layer {
  name: "inception_3a/pool"
  type: "Pooling"
  bottom: "pool2/3x3_s2"
  top: "inception_3a/pool"
  pooling_param {
    pool: MAX
    kernel_size: 3
    stride: 1
    pad: 1
  }
}
layer {
  name: "inception_3a/pool_proj"
  type: "Convolution"
  bottom: "inception_3a/pool"
  top: "inception_3a/pool_proj"
  param {
    lr_mult: 1
    decay_mult: 1
  }
  param {
    lr_mult: 2
    decay_mult: 0
  }
  convolution_param {
    num_output: 32
    kernel_size: 1
    weight_filler {
      type: "xavier"
      std: 0.1
    }
    bias_filler {
      type: "constant"
      value: 0.2
    }
  }
}
layer {
  name: "inception_3a/relu_pool_proj"
  type: "ReLU"
  bottom: "inception_3a/pool_proj"
  top: "inception_3a/pool_proj"
}
layer {
  name: "inception_3a/output"
  type: "Concat"
  bottom: "inception_3a/1x1"
  bottom: "inception_3a/3x3"
  bottom: "inception_3a/5x5"
  bottom: "inception_3a/pool_proj"
  top: "inception_3a/output"
}
layer {
  name: "inception_3b/1x1"
  type: "Convolution"
  bottom: "inception_3a/output"
  top: "inception_3b/1x1"
  param {
    lr_mult: 1
    decay_mult: 1
  }
  param {
    lr_mult: 2
    decay_mult: 0
  }
  convolution_param {
    num_output: 128
    kernel_size: 1
    weight_filler {
      type: "xavier"
      std: 0.03
    }
    bias_filler {
      type: "constant"
      value: 0.2
    }
  }
}
layer {
  name: "inception_3b/relu_1x1"
  type: "ReLU"
  bottom: "inception_3b/1x1"
  top: "inception_3b/1x1"
}
layer {
  name: "inception_3b/3x3_reduce"
  type: "Convolution"
  bottom: "inception_3a/output"
  top: "inception_3b/3x3_reduce"
  param {
    lr_mult: 1
    decay_mult: 1
  }
  param {
    lr_mult: 2
    decay_mult: 0
  }
  convolution_param {
    num_output: 128
    kernel_size: 1
    weight_filler {
      type: "xavier"
      std: 0.09
    }
    bias_filler {
      type: "constant"
      value: 0.2
    }
  }
}
layer {
  name: "inception_3b/relu_3x3_reduce"
  type: "ReLU"
  bottom: "inception_3b/3x3_reduce"
  top: "inception_3b/3x3_reduce"
}
layer {
  name: "inception_3b/3x3"
  type: "Convolution"
  bottom: "inception_3b/3x3_reduce"
  top: "inception_3b/3x3"
  param {
    lr_mult: 1
    decay_mult: 1
  }
  param {
    lr_mult: 2
    decay_mult: 0
  }
  convolution_param {
    num_output: 192
    pad: 1
    kernel_size: 3
    weight_filler {
      type: "xavier"
      std: 0.03
    }
    bias_filler {
      type: "constant"
      value: 0.2
    }
  }
}
layer {
  name: "inception_3b/relu_3x3"
  type: "ReLU"
  bottom: "inception_3b/3x3"
  top: "inception_3b/3x3"
}
layer {
  name: "inception_3b/5x5_reduce"
  type: "Convolution"
  bottom: "inception_3a/output"
  top: "inception_3b/5x5_reduce"
  param {
    lr_mult: 1
    decay_mult: 1
  }
  param {
    lr_mult: 2
    decay_mult: 0
  }
  convolution_param {
    num_output: 32
    kernel_size: 1
    weight_filler {
      type: "xavier"
      std: 0.2
    }
    bias_filler {
      type: "constant"
      value: 0.2
    }
  }
}
layer {
  name: "inception_3b/relu_5x5_reduce"
  type: "ReLU"
  bottom: "inception_3b/5x5_reduce"
  top: "inception_3b/5x5_reduce"
}
layer {
  name: "inception_3b/5x5"
  type: "Convolution"
  bottom: "inception_3b/5x5_reduce"
  top: "inception_3b/5x5"
  param {
    lr_mult: 1
    decay_mult: 1
  }
  param {
    lr_mult: 2
    decay_mult: 0
  }
  convolution_param {
    num_output: 96
    pad: 2
    kernel_size: 5
    weight_filler {
      type: "xavier"
      std: 0.03
    }
    bias_filler {
      type: "constant"
      value: 0.2
    }
  }
}
layer {
  name: "inception_3b/relu_5x5"
  type: "ReLU"
  bottom: "inception_3b/5x5"
  top: "inception_3b/5x5"
}
layer {
  name: "inception_3b/pool"
  type: "Pooling"
  bottom: "inception_3a/output"
  top: "inception_3b/pool"
  pooling_param {
    pool: MAX
    kernel_size: 3
    stride: 1
    pad: 1
  }
}
layer {
  name: "inception_3b/pool_proj"
  type: "Convolution"
  bottom: "inception_3b/pool"
  top: "inception_3b/pool_proj"
  param {
    lr_mult: 1
    decay_mult: 1
  }
  param {
    lr_mult: 2
    decay_mult: 0
  }
  convolution_param {
    num_output: 64
    kernel_size: 1
    weight_filler {
      type: "xavier"
      std: 0.1
    }
    bias_filler {
      type: "constant"
      value: 0.2
    }
  }
}
layer {
  name: "inception_3b/relu_pool_proj"
  type: "ReLU"
  bottom: "inception_3b/pool_proj"
  top: "inception_3b/pool_proj"
}
layer {
  name: "inception_3b/output"
  type: "Concat"
  bottom: "inception_3b/1x1"
  bottom: "inception_3b/3x3"
  bottom: "inception_3b/5x5"
  bottom: "inception_3b/pool_proj"
  top: "inception_3b/output"
}
layer {
  name: "pool3/3x3_s2"
  type: "Pooling"
  bottom: "inception_3b/output"
  top: "pool3/3x3_s2"
  pooling_param {
    pool: MAX
    kernel_size: 3
    stride: 2
  }
}
layer {
  name: "inception_4a/1x1"
  type: "Convolution"
  bottom: "pool3/3x3_s2"
  top: "inception_4a/1x1"
  param {
    lr_mult: 1
    decay_mult: 1
  }
  param {
    lr_mult: 2
    decay_mult: 0
  }
  convolution_param {
    num_output: 192
    kernel_size: 1
    weight_filler {
      type: "xavier"
      std: 0.03
    }
    bias_filler {
      type: "constant"
      value: 0.2
    }
  }
}
layer {
  name: "inception_4a/relu_1x1"
  type: "ReLU"
  bottom: "inception_4a/1x1"
  top: "inception_4a/1x1"
}
layer {
  name: "inception_4a/3x3_reduce"
  type: "Convolution"
  bottom: "pool3/3x3_s2"
  top: "inception_4a/3x3_reduce"
  param {
    lr_mult: 1
    decay_mult: 1
  }
  param {
    lr_mult: 2
    decay_mult: 0
  }
  convolution_param {
    num_output: 96
    kernel_size: 1
    weight_filler {
      type: "xavier"
      std: 0.09
    }
    bias_filler {
      type: "constant"
      value: 0.2
    }
  }
}
layer {
  name: "inception_4a/relu_3x3_reduce"
  type: "ReLU"
  bottom: "inception_4a/3x3_reduce"
  top: "inception_4a/3x3_reduce"
}
layer {
  name: "inception_4a/3x3"
  type: "Convolution"
  bottom: "inception_4a/3x3_reduce"
  top: "inception_4a/3x3"
  param {
    lr_mult: 1
    decay_mult: 1
  }
  param {
    lr_mult: 2
    decay_mult: 0
  }
  convolution_param {
    num_output: 208
    pad: 1
    kernel_size: 3
    weight_filler {
      type: "xavier"
      std: 0.03
    }
    bias_filler {
      type: "constant"
      value: 0.2
    }
  }
}
layer {
  name: "inception_4a/relu_3x3"
  type: "ReLU"
  bottom: "inception_4a/3x3"
  top: "inception_4a/3x3"
}
layer {
  name: "inception_4a/5x5_reduce"
  type: "Convolution"
  bottom: "pool3/3x3_s2"
  top: "inception_4a/5x5_reduce"
  param {
    lr_mult: 1
    decay_mult: 1
  }
  param {
    lr_mult: 2
    decay_mult: 0
  }
  convolution_param {
    num_output: 16
    kernel_size: 1
    weight_filler {
      type: "xavier"
      std: 0.2
    }
    bias_filler {
      type: "constant"
      value: 0.2
    }
  }
}
layer {
  name: "inception_4a/relu_5x5_reduce"
  type: "ReLU"
  bottom: "inception_4a/5x5_reduce"
  top: "inception_4a/5x5_reduce"
}
layer {
  name: "inception_4a/5x5"
  type: "Convolution"
  bottom: "inception_4a/5x5_reduce"
  top: "inception_4a/5x5"
  param {
    lr_mult: 1
    decay_mult: 1
  }
  param {
    lr_mult: 2
    decay_mult: 0
  }
  convolution_param {
    num_output: 48
    pad: 2
    kernel_size: 5
    weight_filler {
      type: "xavier"
      std: 0.03
    }
    bias_filler {
      type: "constant"
      value: 0.2
    }
  }
}
layer {
  name: "inception_4a/relu_5x5"
  type: "ReLU"
  bottom: "inception_4a/5x5"
  top: "inception_4a/5x5"
}
layer {
  name: "inception_4a/pool"
  type: "Pooling"
  bottom: "pool3/3x3_s2"
  top: "inception_4a/pool"
  pooling_param {
    pool: MAX
    kernel_size: 3
    stride: 1
    pad: 1
  }
}
layer {
  name: "inception_4a/pool_proj"
  type: "Convolution"
  bottom: "inception_4a/pool"
  top: "inception_4a/pool_proj"
  param {
    lr_mult: 1
    decay_mult: 1
  }
  param {
    lr_mult: 2
    decay_mult: 0
  }
  convolution_param {
    num_output: 64
    kernel_size: 1
    weight_filler {
      type: "xavier"
      std: 0.1
    }
    bias_filler {
      type: "constant"
      value: 0.2
    }
  }
}
layer {
  name: "inception_4a/relu_pool_proj"
  type: "ReLU"
  bottom: "inception_4a/pool_proj"
  top: "inception_4a/pool_proj"
}
layer {
  name: "inception_4a/output"
  type: "Concat"
  bottom: "inception_4a/1x1"
  bottom: "inception_4a/3x3"
  bottom: "inception_4a/5x5"
  bottom: "inception_4a/pool_proj"
  top: "inception_4a/output"
}
layer {
  name: "inception_4b/1x1"
  type: "Convolution"
  bottom: "inception_4a/output"
  top: "inception_4b/1x1"
  param {
    lr_mult: 1
    decay_mult: 1
  }
  param {
    lr_mult: 2
    decay_mult: 0
  }
  convolution_param {
    num_output: 160
    kernel_size: 1
    weight_filler {
      type: "xavier"
      std: 0.03
    }
    bias_filler {
      type: "constant"
      value: 0.2
    }
  }
}
layer {
  name: "inception_4b/relu_1x1"
  type: "ReLU"
  bottom: "inception_4b/1x1"
  top: "inception_4b/1x1"
}
layer {
  name: "inception_4b/3x3_reduce"
  type: "Convolution"
  bottom: "inception_4a/output"
  top: "inception_4b/3x3_reduce"
  param {
    lr_mult: 1
    decay_mult: 1
  }
  param {
    lr_mult: 2
    decay_mult: 0
  }
  convolution_param {
    num_output: 112
    kernel_size: 1
    weight_filler {
      type: "xavier"
      std: 0.09
    }
    bias_filler {
      type: "constant"
      value: 0.2
    }
  }
}
layer {
  name: "inception_4b/relu_3x3_reduce"
  type: "ReLU"
  bottom: "inception_4b/3x3_reduce"
  top: "inception_4b/3x3_reduce"
}
layer {
  name: "inception_4b/3x3"
  type: "Convolution"
  bottom: "inception_4b/3x3_reduce"
  top: "inception_4b/3x3"
  param {
    lr_mult: 1
    decay_mult: 1
  }
  param {
    lr_mult: 2
    decay_mult: 0
  }
  convolution_param {
    num_output: 224
    pad: 1
    kernel_size: 3
    weight_filler {
      type: "xavier"
      std: 0.03
    }
    bias_filler {
      type: "constant"
      value: 0.2
    }
  }
}
layer {
  name: "inception_4b/relu_3x3"
  type: "ReLU"
  bottom: "inception_4b/3x3"
  top: "inception_4b/3x3"
}
layer {
  name: "inception_4b/5x5_reduce"
  type: "Convolution"
  bottom: "inception_4a/output"
  top: "inception_4b/5x5_reduce"
  param {
    lr_mult: 1
    decay_mult: 1
  }
  param {
    lr_mult: 2
    decay_mult: 0
  }
  convolution_param {
    num_output: 24
    kernel_size: 1
    weight_filler {
      type: "xavier"
      std: 0.2
    }
    bias_filler {
      type: "constant"
      value: 0.2
    }
  }
}
layer {
  name: "inception_4b/relu_5x5_reduce"
  type: "ReLU"
  bottom: "inception_4b/5x5_reduce"
  top: "inception_4b/5x5_reduce"
}
layer {
  name: "inception_4b/5x5"
  type: "Convolution"
  bottom: "inception_4b/5x5_reduce"
  top: "inception_4b/5x5"
  param {
    lr_mult: 1
    decay_mult: 1
  }
  param {
    lr_mult: 2
    decay_mult: 0
  }
  convolution_param {
    num_output: 64
    pad: 2
    kernel_size: 5
    weight_filler {
      type: "xavier"
      std: 0.03
    }
    bias_filler {
      type: "constant"
      value: 0.2
    }
  }
}
layer {
  name: "inception_4b/relu_5x5"
  type: "ReLU"
  bottom: "inception_4b/5x5"
  top: "inception_4b/5x5"
}
layer {
  name: "inception_4b/pool"
  type: "Pooling"
  bottom: "inception_4a/output"
  top: "inception_4b/pool"
  pooling_param {
    pool: MAX
    kernel_size: 3
    stride: 1
    pad: 1
  }
}
layer {
  name: "inception_4b/pool_proj"
  type: "Convolution"
  bottom: "inception_4b/pool"
  top: "inception_4b/pool_proj"
  param {
    lr_mult: 1
    decay_mult: 1
  }
  param {
    lr_mult: 2
    decay_mult: 0
  }
  convolution_param {
    num_output: 64
    kernel_size: 1
    weight_filler {
      type: "xavier"
      std: 0.1
    }
    bias_filler {
      type: "constant"
      value: 0.2
    }
  }
}
layer {
  name: "inception_4b/relu_pool_proj"
  type: "ReLU"
  bottom: "inception_4b/pool_proj"
  top: "inception_4b/pool_proj"
}
layer {
  name: "inception_4b/output"
  type: "Concat"
  bottom: "inception_4b/1x1"
  bottom: "inception_4b/3x3"
  bottom: "inception_4b/5x5"
  bottom: "inception_4b/pool_proj"
  top: "inception_4b/output"
}
layer {
  name: "inception_4c/1x1"
  type: "Convolution"
  bottom: "inception_4b/output"
  top: "inception_4c/1x1"
  param {
    lr_mult: 1
    decay_mult: 1
  }
  param {
    lr_mult: 2
    decay_mult: 0
  }
  convolution_param {
    num_output: 128
    kernel_size: 1
    weight_filler {
      type: "xavier"
      std: 0.03
    }
    bias_filler {
      type: "constant"
      value: 0.2
    }
  }
}
layer {
  name: "inception_4c/relu_1x1"
  type: "ReLU"
  bottom: "inception_4c/1x1"
  top: "inception_4c/1x1"
}
layer {
  name: "inception_4c/3x3_reduce"
  type: "Convolution"
  bottom: "inception_4b/output"
  top: "inception_4c/3x3_reduce"
  param {
    lr_mult: 1
    decay_mult: 1
  }
  param {
    lr_mult: 2
    decay_mult: 0
  }
  convolution_param {
    num_output: 128
    kernel_size: 1
    weight_filler {
      type: "xavier"
      std: 0.09
    }
    bias_filler {
      type: "constant"
      value: 0.2
    }
  }
}
layer {
  name: "inception_4c/relu_3x3_reduce"
  type: "ReLU"
  bottom: "inception_4c/3x3_reduce"
  top: "inception_4c/3x3_reduce"
}
layer {
  name: "inception_4c/3x3"
  type: "Convolution"
  bottom: "inception_4c/3x3_reduce"
  top: "inception_4c/3x3"
  param {
    lr_mult: 1
    decay_mult: 1
  }
  param {
    lr_mult: 2
    decay_mult: 0
  }
  convolution_param {
    num_output: 256
    pad: 1
    kernel_size: 3
    weight_filler {
      type: "xavier"
      std: 0.03
    }
    bias_filler {
      type: "constant"
      value: 0.2
    }
  }
}
layer {
  name: "inception_4c/relu_3x3"
  type: "ReLU"
  bottom: "inception_4c/3x3"
  top: "inception_4c/3x3"
}
layer {
  name: "inception_4c/5x5_reduce"
  type: "Convolution"
  bottom: "inception_4b/output"
  top: "inception_4c/5x5_reduce"
  param {
    lr_mult: 1
    decay_mult: 1
  }
  param {
    lr_mult: 2
    decay_mult: 0
  }
  convolution_param {
    num_output: 24
    kernel_size: 1
    weight_filler {
      type: "xavier"
      std: 0.2
    }
    bias_filler {
      type: "constant"
      value: 0.2
    }
  }
}
layer {
  name: "inception_4c/relu_5x5_reduce"
  type: "ReLU"
  bottom: "inception_4c/5x5_reduce"
  top: "inception_4c/5x5_reduce"
}
layer {
  name: "inception_4c/5x5"
  type: "Convolution"
  bottom: "inception_4c/5x5_reduce"
  top: "inception_4c/5x5"
  param {
    lr_mult: 1
    decay_mult: 1
  }
  param {
    lr_mult: 2
    decay_mult: 0
  }
  convolution_param {
    num_output: 64
    pad: 2
    kernel_size: 5
    weight_filler {
      type: "xavier"
      std: 0.03
    }
    bias_filler {
      type: "constant"
      value: 0.2
    }
  }
}
layer {
  name: "inception_4c/relu_5x5"
  type: "ReLU"
  bottom: "inception_4c/5x5"
  top: "inception_4c/5x5"
}
layer {
  name: "inception_4c/pool"
  type: "Pooling"
  bottom: "inception_4b/output"
  top: "inception_4c/pool"
  pooling_param {
    pool: MAX
    kernel_size: 3
    stride: 1
    pad: 1
  }
}
layer {
  name: "inception_4c/pool_proj"
  type: "Convolution"
  bottom: "inception_4c/pool"
  top: "inception_4c/pool_proj"
  param {
    lr_mult: 1
    decay_mult: 1
  }
  param {
    lr_mult: 2
    decay_mult: 0
  }
  convolution_param {
    num_output: 64
    kernel_size: 1
    weight_filler {
      type: "xavier"
      std: 0.1
    }
    bias_filler {
      type: "constant"
      value: 0.2
    }
  }
}
layer {
  name: "inception_4c/relu_pool_proj"
  type: "ReLU"
  bottom: "inception_4c/pool_proj"
  top: "inception_4c/pool_proj"
}
layer {
  name: "inception_4c/output"
  type: "Concat"
  bottom: "inception_4c/1x1"
  bottom: "inception_4c/3x3"
  bottom: "inception_4c/5x5"
  bottom: "inception_4c/pool_proj"
  top: "inception_4c/output"
}
layer {
  name: "inception_4d/1x1"
  type: "Convolution"
  bottom: "inception_4c/output"
  top: "inception_4d/1x1"
  param {
    lr_mult: 1
    decay_mult: 1
  }
  param {
    lr_mult: 2
    decay_mult: 0
  }
  convolution_param {
    num_output: 112
    kernel_size: 1
    weight_filler {
      type: "xavier"
      std: 0.03
    }
    bias_filler {
      type: "constant"
      value: 0.2
    }
  }
}
layer {
  name: "inception_4d/relu_1x1"
  type: "ReLU"
  bottom: "inception_4d/1x1"
  top: "inception_4d/1x1"
}
layer {
  name: "inception_4d/3x3_reduce"
  type: "Convolution"
  bottom: "inception_4c/output"
  top: "inception_4d/3x3_reduce"
  param {
    lr_mult: 1
    decay_mult: 1
  }
  param {
    lr_mult: 2
    decay_mult: 0
  }
  convolution_param {
    num_output: 144
    kernel_size: 1
    weight_filler {
      type: "xavier"
      std: 0.09
    }
    bias_filler {
      type: "constant"
      value: 0.2
    }
  }
}
layer {
  name: "inception_4d/relu_3x3_reduce"
  type: "ReLU"
  bottom: "inception_4d/3x3_reduce"
  top: "inception_4d/3x3_reduce"
}
layer {
  name: "inception_4d/3x3"
  type: "Convolution"
  bottom: "inception_4d/3x3_reduce"
  top: "inception_4d/3x3"
  param {
    lr_mult: 1
    decay_mult: 1
  }
  param {
    lr_mult: 2
    decay_mult: 0
  }
  convolution_param {
    num_output: 288
    pad: 1
    kernel_size: 3
    weight_filler {
      type: "xavier"
      std: 0.03
    }
    bias_filler {
      type: "constant"
      value: 0.2
    }
  }
}
layer {
  name: "inception_4d/relu_3x3"
  type: "ReLU"
  bottom: "inception_4d/3x3"
  top: "inception_4d/3x3"
}
layer {
  name: "inception_4d/5x5_reduce"
  type: "Convolution"
  bottom: "inception_4c/output"
  top: "inception_4d/5x5_reduce"
  param {
    lr_mult: 1
    decay_mult: 1
  }
  param {
    lr_mult: 2
    decay_mult: 0
  }
  convolution_param {
    num_output: 32
    kernel_size: 1
    weight_filler {
      type: "xavier"
      std: 0.2
    }
    bias_filler {
      type: "constant"
      value: 0.2
    }
  }
}
layer {
  name: "inception_4d/relu_5x5_reduce"
  type: "ReLU"
  bottom: "inception_4d/5x5_reduce"
  top: "inception_4d/5x5_reduce"
}
layer {
  name: "inception_4d/5x5"
  type: "Convolution"
  bottom: "inception_4d/5x5_reduce"
  top: "inception_4d/5x5"
  param {
    lr_mult: 1
    decay_mult: 1
  }
  param {
    lr_mult: 2
    decay_mult: 0
  }
  convolution_param {
    num_output: 64
    pad: 2
    kernel_size: 5
    weight_filler {
      type: "xavier"
      std: 0.03
    }
    bias_filler {
      type: "constant"
      value: 0.2
    }
  }
}
layer {
  name: "inception_4d/relu_5x5"
  type: "ReLU"
  bottom: "inception_4d/5x5"
  top: "inception_4d/5x5"
}
layer {
  name: "inception_4d/pool"
  type: "Pooling"
  bottom: "inception_4c/output"
  top: "inception_4d/pool"
  pooling_param {
    pool: MAX
    kernel_size: 3
    stride: 1
    pad: 1
  }
}
layer {
  name: "inception_4d/pool_proj"
  type: "Convolution"
  bottom: "inception_4d/pool"
  top: "inception_4d/pool_proj"
  param {
    lr_mult: 1
    decay_mult: 1
  }
  param {
    lr_mult: 2
    decay_mult: 0
  }
  convolution_param {
    num_output: 64
    kernel_size: 1
    weight_filler {
      type: "xavier"
      std: 0.1
    }
    bias_filler {
      type: "constant"
      value: 0.2
    }
  }
}
layer {
  name: "inception_4d/relu_pool_proj"
  type: "ReLU"
  bottom: "inception_4d/pool_proj"
  top: "inception_4d/pool_proj"
}
layer {
  name: "inception_4d/output"
  type: "Concat"
  bottom: "inception_4d/1x1"
  bottom: "inception_4d/3x3"
  bottom: "inception_4d/5x5"
  bottom: "inception_4d/pool_proj"
  top: "inception_4d/output"
}
layer {
  name: "inception_4e/1x1"
  type: "Convolution"
  bottom: "inception_4d/output"
  top: "inception_4e/1x1"
  param {
    lr_mult: 1
    decay_mult: 1
  }
  param {
    lr_mult: 2
    decay_mult: 0
  }
  convolution_param {
    num_output: 256
    kernel_size: 1
    weight_filler {
      type: "xavier"
      std: 0.03
    }
    bias_filler {
      type: "constant"
      value: 0.2
    }
  }
}
layer {
  name: "inception_4e/relu_1x1"
  type: "ReLU"
  bottom: "inception_4e/1x1"
  top: "inception_4e/1x1"
}
layer {
  name: "inception_4e/3x3_reduce"
  type: "Convolution"
  bottom: "inception_4d/output"
  top: "inception_4e/3x3_reduce"
  param {
    lr_mult: 1
    decay_mult: 1
  }
  param {
    lr_mult: 2
    decay_mult: 0
  }
  convolution_param {
    num_output: 160
    kernel_size: 1
    weight_filler {
      type: "xavier"
      std: 0.09
    }
    bias_filler {
      type: "constant"
      value: 0.2
    }
  }
}
layer {
  name: "inception_4e/relu_3x3_reduce"
  type: "ReLU"
  bottom: "inception_4e/3x3_reduce"
  top: "inception_4e/3x3_reduce"
}
layer {
  name: "inception_4e/3x3"
  type: "Convolution"
  bottom: "inception_4e/3x3_reduce"
  top: "inception_4e/3x3"
  param {
    lr_mult: 1
    decay_mult: 1
  }
  param {
    lr_mult: 2
    decay_mult: 0
  }
  convolution_param {
    num_output: 320
    pad: 1
    kernel_size: 3
    weight_filler {
      type: "xavier"
      std: 0.03
    }
    bias_filler {
      type: "constant"
      value: 0.2
    }
  }
}
layer {
  name: "inception_4e/relu_3x3"
  type: "ReLU"
  bottom: "inception_4e/3x3"
  top: "inception_4e/3x3"
}
layer {
  name: "inception_4e/5x5_reduce"
  type: "Convolution"
  bottom: "inception_4d/output"
  top: "inception_4e/5x5_reduce"
  param {
    lr_mult: 1
    decay_mult: 1
  }
  param {
    lr_mult: 2
    decay_mult: 0
  }
  convolution_param {
    num_output: 32
    kernel_size: 1
    weight_filler {
      type: "xavier"
      std: 0.2
    }
    bias_filler {
      type: "constant"
      value: 0.2
    }
  }
}
layer {
  name: "inception_4e/relu_5x5_reduce"
  type: "ReLU"
  bottom: "inception_4e/5x5_reduce"
  top: "inception_4e/5x5_reduce"
}
layer {
  name: "inception_4e/5x5"
  type: "Convolution"
  bottom: "inception_4e/5x5_reduce"
  top: "inception_4e/5x5"
  param {
    lr_mult: 1
    decay_mult: 1
  }
  param {
    lr_mult: 2
    decay_mult: 0
  }
  convolution_param {
    num_output: 128
    pad: 2
    kernel_size: 5
    weight_filler {
      type: "xavier"
      std: 0.03
    }
    bias_filler {
      type: "constant"
      value: 0.2
    }
  }
}
layer {
  name: "inception_4e/relu_5x5"
  type: "ReLU"
  bottom: "inception_4e/5x5"
  top: "inception_4e/5x5"
}
layer {
  name: "inception_4e/pool"
  type: "Pooling"
  bottom: "inception_4d/output"
  top: "inception_4e/pool"
  pooling_param {
    pool: MAX
    kernel_size: 3
    stride: 1
    pad: 1
  }
}
layer {
  name: "inception_4e/pool_proj"
  type: "Convolution"
  bottom: "inception_4e/pool"
  top: "inception_4e/pool_proj"
  param {
    lr_mult: 1
    decay_mult: 1
  }
  param {
    lr_mult: 2
    decay_mult: 0
  }
  convolution_param {
    num_output: 128
    kernel_size: 1
    weight_filler {
      type: "xavier"
      std: 0.1
    }
    bias_filler {
      type: "constant"
      value: 0.2
    }
  }
}
layer {
  name: "inception_4e/relu_pool_proj"
  type: "ReLU"
  bottom: "inception_4e/pool_proj"
  top: "inception_4e/pool_proj"
}
layer {
  name: "inception_4e/output"
  type: "Concat"
  bottom: "inception_4e/1x1"
  bottom: "inception_4e/3x3"
  bottom: "inception_4e/5x5"
  bottom: "inception_4e/pool_proj"
  top: "inception_4e/output"
}
layer {
  name: "pool4/3x3_s2"
  type: "Pooling"
  bottom: "inception_4e/output"
  top: "pool4/3x3_s2"
  pooling_param {
    pool: MAX
    kernel_size: 3
    stride: 2
  }
}
layer {
  name: "inception_5a/1x1"
  type: "Convolution"
  bottom: "pool4/3x3_s2"
  top: "inception_5a/1x1"
  param {
    lr_mult: 1
    decay_mult: 1
  }
  param {
    lr_mult: 2
    decay_mult: 0
  }
  convolution_param {
    num_output: 256
    kernel_size: 1
    weight_filler {
      type: "xavier"
      std: 0.03
    }
    bias_filler {
      type: "constant"
      value: 0.2
    }
  }
}
layer {
  name: "inception_5a/relu_1x1"
  type: "ReLU"
  bottom: "inception_5a/1x1"
  top: "inception_5a/1x1"
}
layer {
  name: "inception_5a/3x3_reduce"
  type: "Convolution"
  bottom: "pool4/3x3_s2"
  top: "inception_5a/3x3_reduce"
  param {
    lr_mult: 1
    decay_mult: 1
  }
  param {
    lr_mult: 2
    decay_mult: 0
  }
  convolution_param {
    num_output: 160
    kernel_size: 1
    weight_filler {
      type: "xavier"
      std: 0.09
    }
    bias_filler {
      type: "constant"
      value: 0.2
    }
  }
}
layer {
  name: "inception_5a/relu_3x3_reduce"
  type: "ReLU"
  bottom: "inception_5a/3x3_reduce"
  top: "inception_5a/3x3_reduce"
}
layer {
  name: "inception_5a/3x3"
  type: "Convolution"
  bottom: "inception_5a/3x3_reduce"
  top: "inception_5a/3x3"
  param {
    lr_mult: 1
    decay_mult: 1
  }
  param {
    lr_mult: 2
    decay_mult: 0
  }
  convolution_param {
    num_output: 320
    pad: 1
    kernel_size: 3
    weight_filler {
      type: "xavier"
      std: 0.03
    }
    bias_filler {
      type: "constant"
      value: 0.2
    }
  }
}
layer {
  name: "inception_5a/relu_3x3"
  type: "ReLU"
  bottom: "inception_5a/3x3"
  top: "inception_5a/3x3"
}
layer {
  name: "inception_5a/5x5_reduce"
  type: "Convolution"
  bottom: "pool4/3x3_s2"
  top: "inception_5a/5x5_reduce"
  param {
    lr_mult: 1
    decay_mult: 1
  }
  param {
    lr_mult: 2
    decay_mult: 0
  }
  convolution_param {
    num_output: 32
    kernel_size: 1
    weight_filler {
      type: "xavier"
      std: 0.2
    }
    bias_filler {
      type: "constant"
      value: 0.2
    }
I0713 13:37:15.823606 25426 layer_factory.hpp:77] Creating layer data
I0713 13:37:15.823638 25426 net.cpp:91] Creating Layer data
I0713 13:37:15.823650 25426 net.cpp:399] data -> data
I0713 13:37:16.441077 25426 net.cpp:141] Setting up data
I0713 13:37:16.441157 25426 net.cpp:148] Top shape: 10 3 224 224 (1505280)
I0713 13:37:16.441164 25426 net.cpp:156] Memory required for data: 6021120
I0713 13:37:16.441187 25426 layer_factory.hpp:77] Creating layer conv1/7x7_s2
I0713 13:37:16.441228 25426 net.cpp:91] Creating Layer conv1/7x7_s2
I0713 13:37:16.441238 25426 net.cpp:425] conv1/7x7_s2 <- data
I0713 13:37:16.441253 25426 net.cpp:399] conv1/7x7_s2 -> conv1/7x7_s2
I0713 13:37:16.703037 25426 net.cpp:141] Setting up conv1/7x7_s2
I0713 13:37:16.703091 25426 net.cpp:148] Top shape: 10 64 112 112 (8028160)
I0713 13:37:16.703099 25426 net.cpp:156] Memory required for data: 38133760
I0713 13:37:16.703127 25426 layer_factory.hpp:77] Creating layer conv1/relu_7x7
I0713 13:37:16.703147 25426 net.cpp:91] Creating Layer conv1/relu_7x7
I0713 13:37:16.703155 25426 net.cpp:425] conv1/relu_7x7 <- conv1/7x7_s2
I0713 13:37:16.703164 25426 net.cpp:386] conv1/relu_7x7 -> conv1/7x7_s2 (in-place)
I0713 13:37:16.703922 25426 net.cpp:141] Setting up conv1/relu_7x7
I0713 13:37:16.703936 25426 net.cpp:148] Top shape: 10 64 112 112 (8028160)
I0713 13:37:16.703941 25426 net.cpp:156] Memory required for data: 70246400
I0713 13:37:16.703948 25426 layer_factory.hpp:77] Creating layer pool1/3x3_s2
I0713 13:37:16.703963 25426 net.cpp:91] Creating Layer pool1/3x3_s2
I0713 13:37:16.703969 25426 net.cpp:425] pool1/3x3_s2 <- conv1/7x7_s2
I0713 13:37:16.703976 25426 net.cpp:399] pool1/3x3_s2 -> pool1/3x3_s2
I0713 13:37:16.704057 25426 net.cpp:141] Setting up pool1/3x3_s2
I0713 13:37:16.704069 25426 net.cpp:148] Top shape: 10 64 56 56 (2007040)
I0713 13:37:16.704074 25426 net.cpp:156] Memory required for data: 78274560
I0713 13:37:16.704079 25426 layer_factory.hpp:77] Creating layer pool1/norm1
I0713 13:37:16.704098 25426 net.cpp:91] Creating Layer pool1/norm1
I0713 13:37:16.704104 25426 net.cpp:425] pool1/norm1 <- pool1/3x3_s2
I0713 13:37:16.704113 25426 net.cpp:399] pool1/norm1 -> pool1/norm1
I0713 13:37:16.704915 25426 net.cpp:141] Setting up pool1/norm1
I0713 13:37:16.704929 25426 net.cpp:148] Top shape: 10 64 56 56 (2007040)
I0713 13:37:16.704936 25426 net.cpp:156] Memory required for data: 86302720
I0713 13:37:16.704941 25426 layer_factory.hpp:77] Creating layer conv2/3x3_reduce
I0713 13:37:16.704967 25426 net.cpp:91] Creating Layer conv2/3x3_reduce
I0713 13:37:16.704972 25426 net.cpp:425] conv2/3x3_reduce <- pool1/norm1
I0713 13:37:16.704982 25426 net.cpp:399] conv2/3x3_reduce -> conv2/3x3_reduce
I0713 13:37:16.707744 25426 net.cpp:141] Setting up conv2/3x3_reduce
I0713 13:37:16.707767 25426 net.cpp:148] Top shape: 10 64 56 56 (2007040)
I0713 13:37:16.707772 25426 net.cpp:156] Memory required for data: 94330880
I0713 13:37:16.707787 25426 layer_factory.hpp:77] Creating layer conv2/relu_3x3_reduce
I0713 13:37:16.707797 25426 net.cpp:91] Creating Layer conv2/relu_3x3_reduce
I0713 13:37:16.707803 25426 net.cpp:425] conv2/relu_3x3_reduce <- conv2/3x3_reduce
I0713 13:37:16.707809 25426 net.cpp:386] conv2/relu_3x3_reduce -> conv2/3x3_reduce (in-place)
I0713 13:37:16.708554 25426 net.cpp:141] Setting up conv2/relu_3x3_reduce
I0713 13:37:16.708571 25426 net.cpp:148] Top shape: 10 64 56 56 (2007040)
I0713 13:37:16.708577 25426 net.cpp:156] Memory required for data: 102359040
I0713 13:37:16.708583 25426 layer_factory.hpp:77] Creating layer conv2/3x3
I0713 13:37:16.708600 25426 net.cpp:91] Creating Layer conv2/3x3
I0713 13:37:16.708606 25426 net.cpp:425] conv2/3x3 <- conv2/3x3_reduce
I0713 13:37:16.708614 25426 net.cpp:399] conv2/3x3 -> conv2/3x3
I0713 13:37:16.713554 25426 net.cpp:141] Setting up conv2/3x3
I0713 13:37:16.713575 25426 net.cpp:148] Top shape: 10 192 56 56 (6021120)
I0713 13:37:16.713582 25426 net.cpp:156] Memory required for data: 126443520
I0713 13:37:16.713594 25426 layer_factory.hpp:77] Creating layer conv2/relu_3x3
I0713 13:37:16.713609 25426 net.cpp:91] Creating Layer conv2/relu_3x3
I0713 13:37:16.713615 25426 net.cpp:425] conv2/relu_3x3 <- conv2/3x3
I0713 13:37:16.713623 25426 net.cpp:386] conv2/relu_3x3 -> conv2/3x3 (in-place)
I0713 13:37:16.713878 25426 net.cpp:141] Setting up conv2/relu_3x3
I0713 13:37:16.713891 25426 net.cpp:148] Top shape: 10 192 56 56 (6021120)
I0713 13:37:16.713896 25426 net.cpp:156] Memory required for data: 150528000
I0713 13:37:16.713901 25426 layer_factory.hpp:77] Creating layer conv2/norm2
I0713 13:37:16.713914 25426 net.cpp:91] Creating Layer conv2/norm2
I0713 13:37:16.713919 25426 net.cpp:425] conv2/norm2 <- conv2/3x3
I0713 13:37:16.713929 25426 net.cpp:399] conv2/norm2 -> conv2/norm2
I0713 13:37:16.714761 25426 net.cpp:141] Setting up conv2/norm2
I0713 13:37:16.714779 25426 net.cpp:148] Top shape: 10 192 56 56 (6021120)
I0713 13:37:16.714786 25426 net.cpp:156] Memory required for data: 174612480
I0713 13:37:16.714790 25426 layer_factory.hpp:77] Creating layer pool2/3x3_s2
I0713 13:37:16.714805 25426 net.cpp:91] Creating Layer pool2/3x3_s2
I0713 13:37:16.714810 25426 net.cpp:425] pool2/3x3_s2 <- conv2/norm2
I0713 13:37:16.714818 25426 net.cpp:399] pool2/3x3_s2 -> pool2/3x3_s2
I0713 13:37:16.714875 25426 net.cpp:141] Setting up pool2/3x3_s2
I0713 13:37:16.714885 25426 net.cpp:148] Top shape: 10 192 28 28 (1505280)
I0713 13:37:16.714890 25426 net.cpp:156] Memory required for data: 180633600
I0713 13:37:16.714895 25426 layer_factory.hpp:77] Creating layer pool2/3x3_s2_pool2/3x3_s2_0_split
I0713 13:37:16.714911 25426 net.cpp:91] Creating Layer pool2/3x3_s2_pool2/3x3_s2_0_split
I0713 13:37:16.714916 25426 net.cpp:425] pool2/3x3_s2_pool2/3x3_s2_0_split <- pool2/3x3_s2
I0713 13:37:16.714923 25426 net.cpp:399] pool2/3x3_s2_pool2/3x3_s2_0_split -> pool2/3x3_s2_pool2/3x3_s2_0_split_0
I0713 13:37:16.714937 25426 net.cpp:399] pool2/3x3_s2_pool2/3x3_s2_0_split -> pool2/3x3_s2_pool2/3x3_s2_0_split_1
I0713 13:37:16.714947 25426 net.cpp:399] pool2/3x3_s2_pool2/3x3_s2_0_split -> pool2/3x3_s2_pool2/3x3_s2_0_split_2
I0713 13:37:16.714956 25426 net.cpp:399] pool2/3x3_s2_pool2/3x3_s2_0_split -> pool2/3x3_s2_pool2/3x3_s2_0_split_3
I0713 13:37:16.715044 25426 net.cpp:141] Setting up pool2/3x3_s2_pool2/3x3_s2_0_split
I0713 13:37:16.715054 25426 net.cpp:148] Top shape: 10 192 28 28 (1505280)
I0713 13:37:16.715059 25426 net.cpp:148] Top shape: 10 192 28 28 (1505280)
I0713 13:37:16.715065 25426 net.cpp:148] Top shape: 10 192 28 28 (1505280)
I0713 13:37:16.715070 25426 net.cpp:148] Top shape: 10 192 28 28 (1505280)
I0713 13:37:16.715075 25426 net.cpp:156] Memory required for data: 204718080
I0713 13:37:16.715080 25426 layer_factory.hpp:77] Creating layer inception_3a/1x1
I0713 13:37:16.715100 25426 net.cpp:91] Creating Layer inception_3a/1x1
I0713 13:37:16.715106 25426 net.cpp:425] inception_3a/1x1 <- pool2/3x3_s2_pool2/3x3_s2_0_split_0
I0713 13:37:16.715131 25426 net.cpp:399] inception_3a/1x1 -> inception_3a/1x1
I0713 13:37:16.719255 25426 net.cpp:141] Setting up inception_3a/1x1
I0713 13:37:16.719275 25426 net.cpp:148] Top shape: 10 64 28 28 (501760)
I0713 13:37:16.719281 25426 net.cpp:156] Memory required for data: 206725120
I0713 13:37:16.719292 25426 layer_factory.hpp:77] Creating layer inception_3a/relu_1x1
I0713 13:37:16.719307 25426 net.cpp:91] Creating Layer inception_3a/relu_1x1
I0713 13:37:16.719313 25426 net.cpp:425] inception_3a/relu_1x1 <- inception_3a/1x1
I0713 13:37:16.719321 25426 net.cpp:386] inception_3a/relu_1x1 -> inception_3a/1x1 (in-place)
I0713 13:37:16.719591 25426 net.cpp:141] Setting up inception_3a/relu_1x1
I0713 13:37:16.719604 25426 net.cpp:148] Top shape: 10 64 28 28 (501760)
I0713 13:37:16.719609 25426 net.cpp:156] Memory required for data: 208732160
I0713 13:37:16.719614 25426 layer_factory.hpp:77] Creating layer inception_3a/3x3_reduce
I0713 13:37:16.719632 25426 net.cpp:91] Creating Layer inception_3a/3x3_reduce
I0713 13:37:16.719638 25426 net.cpp:425] inception_3a/3x3_reduce <- pool2/3x3_s2_pool2/3x3_s2_0_split_1
I0713 13:37:16.719650 25426 net.cpp:399] inception_3a/3x3_reduce -> inception_3a/3x3_reduce
I0713 13:37:16.723206 25426 net.cpp:141] Setting up inception_3a/3x3_reduce
I0713 13:37:16.723225 25426 net.cpp:148] Top shape: 10 96 28 28 (752640)
I0713 13:37:16.723232 25426 net.cpp:156] Memory required for data: 211742720
I0713 13:37:16.723247 25426 layer_factory.hpp:77] Creating layer inception_3a/relu_3x3_reduce
I0713 13:37:16.723256 25426 net.cpp:91] Creating Layer inception_3a/relu_3x3_reduce
I0713 13:37:16.723261 25426 net.cpp:425] inception_3a/relu_3x3_reduce <- inception_3a/3x3_reduce
I0713 13:37:16.723273 25426 net.cpp:386] inception_3a/relu_3x3_reduce -> inception_3a/3x3_reduce (in-place)
I0713 13:37:16.723526 25426 net.cpp:141] Setting up inception_3a/relu_3x3_reduce
I0713 13:37:16.723538 25426 net.cpp:148] Top shape: 10 96 28 28 (752640)
I0713 13:37:16.723546 25426 net.cpp:156] Memory required for data: 214753280
I0713 13:37:16.723551 25426 layer_factory.hpp:77] Creating layer inception_3a/3x3
I0713 13:37:16.723572 25426 net.cpp:91] Creating Layer inception_3a/3x3
I0713 13:37:16.723577 25426 net.cpp:425] inception_3a/3x3 <- inception_3a/3x3_reduce
I0713 13:37:16.723587 25426 net.cpp:399] inception_3a/3x3 -> inception_3a/3x3
I0713 13:37:16.726763 25426 net.cpp:141] Setting up inception_3a/3x3
I0713 13:37:16.726783 25426 net.cpp:148] Top shape: 10 128 28 28 (1003520)
I0713 13:37:16.726788 25426 net.cpp:156] Memory required for data: 218767360
I0713 13:37:16.726799 25426 layer_factory.hpp:77] Creating layer inception_3a/relu_3x3
I0713 13:37:16.726819 25426 net.cpp:91] Creating Layer inception_3a/relu_3x3
I0713 13:37:16.726825 25426 net.cpp:425] inception_3a/relu_3x3 <- inception_3a/3x3
I0713 13:37:16.726833 25426 net.cpp:386] inception_3a/relu_3x3 -> inception_3a/3x3 (in-place)
I0713 13:37:16.727610 25426 net.cpp:141] Setting up inception_3a/relu_3x3
I0713 13:37:16.727628 25426 net.cpp:148] Top shape: 10 128 28 28 (1003520)
I0713 13:37:16.727633 25426 net.cpp:156] Memory required for data: 222781440
I0713 13:37:16.727638 25426 layer_factory.hpp:77] Creating layer inception_3a/5x5_reduce
I0713 13:37:16.727658 25426 net.cpp:91] Creating Layer inception_3a/5x5_reduce
I0713 13:37:16.727665 25426 net.cpp:425] inception_3a/5x5_reduce <- pool2/3x3_s2_pool2/3x3_s2_0_split_2
I0713 13:37:16.727675 25426 net.cpp:399] inception_3a/5x5_reduce -> inception_3a/5x5_reduce
I0713 13:37:16.729944 25426 net.cpp:141] Setting up inception_3a/5x5_reduce
I0713 13:37:16.729964 25426 net.cpp:148] Top shape: 10 16 28 28 (125440)
I0713 13:37:16.729969 25426 net.cpp:156] Memory required for data: 223283200
I0713 13:37:16.729981 25426 layer_factory.hpp:77] Creating layer inception_3a/relu_5x5_reduce
I0713 13:37:16.729995 25426 net.cpp:91] Creating Layer inception_3a/relu_5x5_reduce
I0713 13:37:16.730001 25426 net.cpp:425] inception_3a/relu_5x5_reduce <- inception_3a/5x5_reduce
I0713 13:37:16.730010 25426 net.cpp:386] inception_3a/relu_5x5_reduce -> inception_3a/5x5_reduce (in-place)
I0713 13:37:16.730270 25426 net.cpp:141] Setting up inception_3a/relu_5x5_reduce
I0713 13:37:16.730283 25426 net.cpp:148] Top shape: 10 16 28 28 (125440)
I0713 13:37:16.730288 25426 net.cpp:156] Memory required for data: 223784960
I0713 13:37:16.730293 25426 layer_factory.hpp:77] Creating layer inception_3a/5x5
I0713 13:37:16.730314 25426 net.cpp:91] Creating Layer inception_3a/5x5
I0713 13:37:16.730319 25426 net.cpp:425] inception_3a/5x5 <- inception_3a/5x5_reduce
I0713 13:37:16.730329 25426 net.cpp:399] inception_3a/5x5 -> inception_3a/5x5
I0713 13:37:16.733863 25426 net.cpp:141] Setting up inception_3a/5x5
I0713 13:37:16.733885 25426 net.cpp:148] Top shape: 10 32 28 28 (250880)
I0713 13:37:16.733889 25426 net.cpp:156] Memory required for data: 224788480
I0713 13:37:16.733899 25426 layer_factory.hpp:77] Creating layer inception_3a/relu_5x5
I0713 13:37:16.733911 25426 net.cpp:91] Creating Layer inception_3a/relu_5x5
I0713 13:37:16.733916 25426 net.cpp:425] inception_3a/relu_5x5 <- inception_3a/5x5
I0713 13:37:16.733927 25426 net.cpp:386] inception_3a/relu_5x5 -> inception_3a/5x5 (in-place)
I0713 13:37:16.734194 25426 net.cpp:141] Setting up inception_3a/relu_5x5
I0713 13:37:16.734205 25426 net.cpp:148] Top shape: 10 32 28 28 (250880)
I0713 13:37:16.734210 25426 net.cpp:156] Memory required for data: 225792000
I0713 13:37:16.734215 25426 layer_factory.hpp:77] Creating layer inception_3a/pool
I0713 13:37:16.734230 25426 net.cpp:91] Creating Layer inception_3a/pool
I0713 13:37:16.734236 25426 net.cpp:425] inception_3a/pool <- pool2/3x3_s2_pool2/3x3_s2_0_split_3
I0713 13:37:16.734243 25426 net.cpp:399] inception_3a/pool -> inception_3a/pool
I0713 13:37:16.734309 25426 net.cpp:141] Setting up inception_3a/pool
I0713 13:37:16.734319 25426 net.cpp:148] Top shape: 10 192 28 28 (1505280)
I0713 13:37:16.734323 25426 net.cpp:156] Memory required for data: 231813120
I0713 13:37:16.734329 25426 layer_factory.hpp:77] Creating layer inception_3a/pool_proj
I0713 13:37:16.734344 25426 net.cpp:91] Creating Layer inception_3a/pool_proj
I0713 13:37:16.734350 25426 net.cpp:425] inception_3a/pool_proj <- inception_3a/pool
I0713 13:37:16.734367 25426 net.cpp:399] inception_3a/pool_proj -> inception_3a/pool_proj
I0713 13:37:16.736618 25426 net.cpp:141] Setting up inception_3a/pool_proj
I0713 13:37:16.736641 25426 net.cpp:148] Top shape: 10 32 28 28 (250880)
I0713 13:37:16.736646 25426 net.cpp:156] Memory required for data: 232816640
I0713 13:37:16.736661 25426 layer_factory.hpp:77] Creating layer inception_3a/relu_pool_proj
I0713 13:37:16.736671 25426 net.cpp:91] Creating Layer inception_3a/relu_pool_proj
I0713 13:37:16.736677 25426 net.cpp:425] inception_3a/relu_pool_proj <- inception_3a/pool_proj
I0713 13:37:16.736690 25426 net.cpp:386] inception_3a/relu_pool_proj -> inception_3a/pool_proj (in-place)
I0713 13:37:16.737468 25426 net.cpp:141] Setting up inception_3a/relu_pool_proj
I0713 13:37:16.737485 25426 net.cpp:148] Top shape: 10 32 28 28 (250880)
I0713 13:37:16.737490 25426 net.cpp:156] Memory required for data: 233820160
I0713 13:37:16.737495 25426 layer_factory.hpp:77] Creating layer inception_3a/output
I0713 13:37:16.737514 25426 net.cpp:91] Creating Layer inception_3a/output
I0713 13:37:16.737519 25426 net.cpp:425] inception_3a/output <- inception_3a/1x1
I0713 13:37:16.737525 25426 net.cpp:425] inception_3a/output <- inception_3a/3x3
I0713 13:37:16.737531 25426 net.cpp:425] inception_3a/output <- inception_3a/5x5
I0713 13:37:16.737536 25426 net.cpp:425] inception_3a/output <- inception_3a/pool_proj
I0713 13:37:16.737550 25426 net.cpp:399] inception_3a/output -> inception_3a/output
I0713 13:37:16.737596 25426 net.cpp:141] Setting up inception_3a/output
I0713 13:37:16.737606 25426 net.cpp:148] Top shape: 10 256 28 28 (2007040)
I0713 13:37:16.737609 25426 net.cpp:156] Memory required for data: 241848320
I0713 13:37:16.737615 25426 layer_factory.hpp:77] Creating layer inception_3a/output_inception_3a/output_0_split
I0713 13:37:16.737623 25426 net.cpp:91] Creating Layer inception_3a/output_inception_3a/output_0_split
I0713 13:37:16.737628 25426 net.cpp:425] inception_3a/output_inception_3a/output_0_split <- inception_3a/output
I0713 13:37:16.737635 25426 net.cpp:399] inception_3a/output_inception_3a/output_0_split -> inception_3a/output_inception_3a/output_0_split_0
I0713 13:37:16.737648 25426 net.cpp:399] inception_3a/output_inception_3a/output_0_split -> inception_3a/output_inception_3a/output_0_split_1
I0713 13:37:16.737658 25426 net.cpp:399] inception_3a/output_inception_3a/output_0_split -> inception_3a/output_inception_3a/output_0_split_2
I0713 13:37:16.737666 25426 net.cpp:399] inception_3a/output_inception_3a/output_0_split -> inception_3a/output_inception_3a/output_0_split_3
I0713 13:37:16.737756 25426 net.cpp:141] Setting up inception_3a/output_inception_3a/output_0_split
I0713 13:37:16.737766 25426 net.cpp:148] Top shape: 10 256 28 28 (2007040)
I0713 13:37:16.737771 25426 net.cpp:148] Top shape: 10 256 28 28 (2007040)
I0713 13:37:16.737777 25426 net.cpp:148] Top shape: 10 256 28 28 (2007040)
I0713 13:37:16.737782 25426 net.cpp:148] Top shape: 10 256 28 28 (2007040)
I0713 13:37:16.737787 25426 net.cpp:156] Memory required for data: 273960960
I0713 13:37:16.737792 25426 layer_factory.hpp:77] Creating layer inception_3b/1x1
I0713 13:37:16.737812 25426 net.cpp:91] Creating Layer inception_3b/1x1
I0713 13:37:16.737818 25426 net.cpp:425] inception_3b/1x1 <- inception_3a/output_inception_3a/output_0_split_0
I0713 13:37:16.737828 25426 net.cpp:399] inception_3b/1x1 -> inception_3b/1x1
I0713 13:37:16.740290 25426 net.cpp:141] Setting up inception_3b/1x1
I0713 13:37:16.740310 25426 net.cpp:148] Top shape: 10 128 28 28 (1003520)
I0713 13:37:16.740315 25426 net.cpp:156] Memory required for data: 277975040
I0713 13:37:16.740327 25426 layer_factory.hpp:77] Creating layer inception_3b/relu_1x1
I0713 13:37:16.740340 25426 net.cpp:91] Creating Layer inception_3b/relu_1x1
I0713 13:37:16.740346 25426 net.cpp:425] inception_3b/relu_1x1 <- inception_3b/1x1
I0713 13:37:16.740355 25426 net.cpp:386] inception_3b/relu_1x1 -> inception_3b/1x1 (in-place)
I0713 13:37:16.740607 25426 net.cpp:141] Setting up inception_3b/relu_1x1
I0713 13:37:16.740618 25426 net.cpp:148] Top shape: 10 128 28 28 (1003520)
I0713 13:37:16.740623 25426 net.cpp:156] Memory required for data: 281989120
I0713 13:37:16.740629 25426 layer_factory.hpp:77] Creating layer inception_3b/3x3_reduce
I0713 13:37:16.740656 25426 net.cpp:91] Creating Layer inception_3b/3x3_reduce
I0713 13:37:16.740663 25426 net.cpp:425] inception_3b/3x3_reduce <- inception_3a/output_inception_3a/output_0_split_1
I0713 13:37:16.740672 25426 net.cpp:399] inception_3b/3x3_reduce -> inception_3b/3x3_reduce
I0713 13:37:16.743212 25426 net.cpp:141] Setting up inception_3b/3x3_reduce
I0713 13:37:16.743232 25426 net.cpp:148] Top shape: 10 128 28 28 (1003520)
I0713 13:37:16.743237 25426 net.cpp:156] Memory required for data: 286003200
I0713 13:37:16.743247 25426 layer_factory.hpp:77] Creating layer inception_3b/relu_3x3_reduce
I0713 13:37:16.743257 25426 net.cpp:91] Creating Layer inception_3b/relu_3x3_reduce
I0713 13:37:16.743263 25426 net.cpp:425] inception_3b/relu_3x3_reduce <- inception_3b/3x3_reduce
I0713 13:37:16.743273 25426 net.cpp:386] inception_3b/relu_3x3_reduce -> inception_3b/3x3_reduce (in-place)
I0713 13:37:16.743530 25426 net.cpp:141] Setting up inception_3b/relu_3x3_reduce
I0713 13:37:16.743541 25426 net.cpp:148] Top shape: 10 128 28 28 (1003520)
I0713 13:37:16.743546 25426 net.cpp:156] Memory required for data: 290017280
I0713 13:37:16.743551 25426 layer_factory.hpp:77] Creating layer inception_3b/3x3
I0713 13:37:16.743573 25426 net.cpp:91] Creating Layer inception_3b/3x3
I0713 13:37:16.743579 25426 net.cpp:425] inception_3b/3x3 <- inception_3b/3x3_reduce
I0713 13:37:16.743588 25426 net.cpp:399] inception_3b/3x3 -> inception_3b/3x3
I0713 13:37:16.748869 25426 net.cpp:141] Setting up inception_3b/3x3
I0713 13:37:16.748891 25426 net.cpp:148] Top shape: 10 192 28 28 (1505280)
I0713 13:37:16.748896 25426 net.cpp:156] Memory required for data: 296038400
I0713 13:37:16.748906 25426 layer_factory.hpp:77] Creating layer inception_3b/relu_3x3
I0713 13:37:16.748924 25426 net.cpp:91] Creating Layer inception_3b/relu_3x3
I0713 13:37:16.748930 25426 net.cpp:425] inception_3b/relu_3x3 <- inception_3b/3x3
I0713 13:37:16.748939 25426 net.cpp:386] inception_3b/relu_3x3 -> inception_3b/3x3 (in-place)
I0713 13:37:16.749733 25426 net.cpp:141] Setting up inception_3b/relu_3x3
I0713 13:37:16.749752 25426 net.cpp:148] Top shape: 10 192 28 28 (1505280)
I0713 13:37:16.749757 25426 net.cpp:156] Memory required for data: 302059520
I0713 13:37:16.749761 25426 layer_factory.hpp:77] Creating layer inception_3b/5x5_reduce
I0713 13:37:16.749783 25426 net.cpp:91] Creating Layer inception_3b/5x5_reduce
I0713 13:37:16.749789 25426 net.cpp:425] inception_3b/5x5_reduce <- inception_3a/output_inception_3a/output_0_split_2
I0713 13:37:16.749799 25426 net.cpp:399] inception_3b/5x5_reduce -> inception_3b/5x5_reduce
I0713 13:37:16.752115 25426 net.cpp:141] Setting up inception_3b/5x5_reduce
I0713 13:37:16.752135 25426 net.cpp:148] Top shape: 10 32 28 28 (250880)
I0713 13:37:16.752141 25426 net.cpp:156] Memory required for data: 303063040
I0713 13:37:16.752151 25426 layer_factory.hpp:77] Creating layer inception_3b/relu_5x5_reduce
I0713 13:37:16.752164 25426 net.cpp:91] Creating Layer inception_3b/relu_5x5_reduce
I0713 13:37:16.752171 25426 net.cpp:425] inception_3b/relu_5x5_reduce <- inception_3b/5x5_reduce
I0713 13:37:16.752178 25426 net.cpp:386] inception_3b/relu_5x5_reduce -> inception_3b/5x5_reduce (in-place)
I0713 13:37:16.752439 25426 net.cpp:141] Setting up inception_3b/relu_5x5_reduce
I0713 13:37:16.752450 25426 net.cpp:148] Top shape: 10 32 28 28 (250880)
I0713 13:37:16.752455 25426 net.cpp:156] Memory required for data: 304066560
I0713 13:37:16.752461 25426 layer_factory.hpp:77] Creating layer inception_3b/5x5
I0713 13:37:16.752482 25426 net.cpp:91] Creating Layer inception_3b/5x5
I0713 13:37:16.752490 25426 net.cpp:425] inception_3b/5x5 <- inception_3b/5x5_reduce
I0713 13:37:16.752498 25426 net.cpp:399] inception_3b/5x5 -> inception_3b/5x5
I0713 13:37:16.756580 25426 net.cpp:141] Setting up inception_3b/5x5
I0713 13:37:16.756600 25426 net.cpp:148] Top shape: 10 96 28 28 (752640)
I0713 13:37:16.756606 25426 net.cpp:156] Memory required for data: 307077120
I0713 13:37:16.756616 25426 layer_factory.hpp:77] Creating layer inception_3b/relu_5x5
I0713 13:37:16.756631 25426 net.cpp:91] Creating Layer inception_3b/relu_5x5
I0713 13:37:16.756639 25426 net.cpp:425] inception_3b/relu_5x5 <- inception_3b/5x5
I0713 13:37:16.756645 25426 net.cpp:386] inception_3b/relu_5x5 -> inception_3b/5x5 (in-place)
I0713 13:37:16.756903 25426 net.cpp:141] Setting up inception_3b/relu_5x5
I0713 13:37:16.756916 25426 net.cpp:148] Top shape: 10 96 28 28 (752640)
I0713 13:37:16.756920 25426 net.cpp:156] Memory required for data: 310087680
I0713 13:37:16.756925 25426 layer_factory.hpp:77] Creating layer inception_3b/pool
I0713 13:37:16.756935 25426 net.cpp:91] Creating Layer inception_3b/pool
I0713 13:37:16.756942 25426 net.cpp:425] inception_3b/pool <- inception_3a/output_inception_3a/output_0_split_3
I0713 13:37:16.756953 25426 net.cpp:399] inception_3b/pool -> inception_3b/pool
I0713 13:37:16.757017 25426 net.cpp:141] Setting up inception_3b/pool
I0713 13:37:16.757027 25426 net.cpp:148] Top shape: 10 256 28 28 (2007040)
I0713 13:37:16.757031 25426 net.cpp:156] Memory required for data: 318115840
I0713 13:37:16.757037 25426 layer_factory.hpp:77] Creating layer inception_3b/pool_proj
I0713 13:37:16.757060 25426 net.cpp:91] Creating Layer inception_3b/pool_proj
I0713 13:37:16.757066 25426 net.cpp:425] inception_3b/pool_proj <- inception_3b/pool
I0713 13:37:16.757076 25426 net.cpp:399] inception_3b/pool_proj -> inception_3b/pool_proj
I0713 13:37:16.759491 25426 net.cpp:141] Setting up inception_3b/pool_proj
I0713 13:37:16.759510 25426 net.cpp:148] Top shape: 10 64 28 28 (501760)
I0713 13:37:16.759516 25426 net.cpp:156] Memory required for data: 320122880
I0713 13:37:16.759528 25426 layer_factory.hpp:77] Creating layer inception_3b/relu_pool_proj
I0713 13:37:16.759543 25426 net.cpp:91] Creating Layer inception_3b/relu_pool_proj
I0713 13:37:16.759551 25426 net.cpp:425] inception_3b/relu_pool_proj <- inception_3b/pool_proj
I0713 13:37:16.759560 25426 net.cpp:386] inception_3b/relu_pool_proj -> inception_3b/pool_proj (in-place)
I0713 13:37:16.760360 25426 net.cpp:141] Setting up inception_3b/relu_pool_proj
I0713 13:37:16.760377 25426 net.cpp:148] Top shape: 10 64 28 28 (501760)
I0713 13:37:16.760382 25426 net.cpp:156] Memory required for data: 322129920
I0713 13:37:16.760390 25426 layer_factory.hpp:77] Creating layer inception_3b/output
I0713 13:37:16.760398 25426 net.cpp:91] Creating Layer inception_3b/output
I0713 13:37:16.760404 25426 net.cpp:425] inception_3b/output <- inception_3b/1x1
I0713 13:37:16.760411 25426 net.cpp:425] inception_3b/output <- inception_3b/3x3
I0713 13:37:16.760416 25426 net.cpp:425] inception_3b/output <- inception_3b/5x5
I0713 13:37:16.760421 25426 net.cpp:425] inception_3b/output <- inception_3b/pool_proj
I0713 13:37:16.760432 25426 net.cpp:399] inception_3b/output -> inception_3b/output
I0713 13:37:16.760473 25426 net.cpp:141] Setting up inception_3b/output
I0713 13:37:16.760483 25426 net.cpp:148] Top shape: 10 480 28 28 (3763200)
I0713 13:37:16.760486 25426 net.cpp:156] Memory required for data: 337182720
I0713 13:37:16.760491 25426 layer_factory.hpp:77] Creating layer pool3/3x3_s2
I0713 13:37:16.760505 25426 net.cpp:91] Creating Layer pool3/3x3_s2
I0713 13:37:16.760511 25426 net.cpp:425] pool3/3x3_s2 <- inception_3b/output
I0713 13:37:16.760519 25426 net.cpp:399] pool3/3x3_s2 -> pool3/3x3_s2
I0713 13:37:16.760584 25426 net.cpp:141] Setting up pool3/3x3_s2
I0713 13:37:16.760597 25426 net.cpp:148] Top shape: 10 480 14 14 (940800)
I0713 13:37:16.760602 25426 net.cpp:156] Memory required for data: 340945920
I0713 13:37:16.760607 25426 layer_factory.hpp:77] Creating layer pool3/3x3_s2_pool3/3x3_s2_0_split
I0713 13:37:16.760617 25426 net.cpp:91] Creating Layer pool3/3x3_s2_pool3/3x3_s2_0_split
I0713 13:37:16.760622 25426 net.cpp:425] pool3/3x3_s2_pool3/3x3_s2_0_split <- pool3/3x3_s2
I0713 13:37:16.760628 25426 net.cpp:399] pool3/3x3_s2_pool3/3x3_s2_0_split -> pool3/3x3_s2_pool3/3x3_s2_0_split_0
I0713 13:37:16.760637 25426 net.cpp:399] pool3/3x3_s2_pool3/3x3_s2_0_split -> pool3/3x3_s2_pool3/3x3_s2_0_split_1
I0713 13:37:16.760645 25426 net.cpp:399] pool3/3x3_s2_pool3/3x3_s2_0_split -> pool3/3x3_s2_pool3/3x3_s2_0_split_2
I0713 13:37:16.760656 25426 net.cpp:399] pool3/3x3_s2_pool3/3x3_s2_0_split -> pool3/3x3_s2_pool3/3x3_s2_0_split_3
I0713 13:37:16.760746 25426 net.cpp:141] Setting up pool3/3x3_s2_pool3/3x3_s2_0_split
I0713 13:37:16.760756 25426 net.cpp:148] Top shape: 10 480 14 14 (940800)
I0713 13:37:16.760761 25426 net.cpp:148] Top shape: 10 480 14 14 (940800)
I0713 13:37:16.760766 25426 net.cpp:148] Top shape: 10 480 14 14 (940800)
I0713 13:37:16.760772 25426 net.cpp:148] Top shape: 10 480 14 14 (940800)
I0713 13:37:16.760776 25426 net.cpp:156] Memory required for data: 355998720
I0713 13:37:16.760782 25426 layer_factory.hpp:77] Creating layer inception_4a/1x1
I0713 13:37:16.760798 25426 net.cpp:91] Creating Layer inception_4a/1x1
I0713 13:37:16.760804 25426 net.cpp:425] inception_4a/1x1 <- pool3/3x3_s2_pool3/3x3_s2_0_split_0
I0713 13:37:16.760817 25426 net.cpp:399] inception_4a/1x1 -> inception_4a/1x1
I0713 13:37:16.764446 25426 net.cpp:141] Setting up inception_4a/1x1
I0713 13:37:16.764464 25426 net.cpp:148] Top shape: 10 192 14 14 (376320)
I0713 13:37:16.764470 25426 net.cpp:156] Memory required for data: 357504000
I0713 13:37:16.764480 25426 layer_factory.hpp:77] Creating layer inception_4a/relu_1x1
I0713 13:37:16.764492 25426 net.cpp:91] Creating Layer inception_4a/relu_1x1
I0713 13:37:16.764498 25426 net.cpp:425] inception_4a/relu_1x1 <- inception_4a/1x1
I0713 13:37:16.764506 25426 net.cpp:386] inception_4a/relu_1x1 -> inception_4a/1x1 (in-place)
I0713 13:37:16.764775 25426 net.cpp:141] Setting up inception_4a/relu_1x1
I0713 13:37:16.764787 25426 net.cpp:148] Top shape: 10 192 14 14 (376320)
I0713 13:37:16.764792 25426 net.cpp:156] Memory required for data: 359009280
I0713 13:37:16.764797 25426 layer_factory.hpp:77] Creating layer inception_4a/3x3_reduce
I0713 13:37:16.764813 25426 net.cpp:91] Creating Layer inception_4a/3x3_reduce
I0713 13:37:16.764819 25426 net.cpp:425] inception_4a/3x3_reduce <- pool3/3x3_s2_pool3/3x3_s2_0_split_1
I0713 13:37:16.764832 25426 net.cpp:399] inception_4a/3x3_reduce -> inception_4a/3x3_reduce
I0713 13:37:16.767549 25426 net.cpp:141] Setting up inception_4a/3x3_reduce
I0713 13:37:16.767570 25426 net.cpp:148] Top shape: 10 96 14 14 (188160)
I0713 13:37:16.767575 25426 net.cpp:156] Memory required for data: 359761920
I0713 13:37:16.767596 25426 layer_factory.hpp:77] Creating layer inception_4a/relu_3x3_reduce
I0713 13:37:16.767606 25426 net.cpp:91] Creating Layer inception_4a/relu_3x3_reduce
I0713 13:37:16.767612 25426 net.cpp:425] inception_4a/relu_3x3_reduce <- inception_4a/3x3_reduce
I0713 13:37:16.767619 25426 net.cpp:386] inception_4a/relu_3x3_reduce -> inception_4a/3x3_reduce (in-place)
I0713 13:37:16.767889 25426 net.cpp:141] Setting up inception_4a/relu_3x3_reduce
I0713 13:37:16.767901 25426 net.cpp:148] Top shape: 10 96 14 14 (188160)
I0713 13:37:16.767906 25426 net.cpp:156] Memory required for data: 360514560
I0713 13:37:16.767912 25426 layer_factory.hpp:77] Creating layer inception_4a/3x3
I0713 13:37:16.767932 25426 net.cpp:91] Creating Layer inception_4a/3x3
I0713 13:37:16.767938 25426 net.cpp:425] inception_4a/3x3 <- inception_4a/3x3_reduce
I0713 13:37:16.767951 25426 net.cpp:399] inception_4a/3x3 -> inception_4a/3x3
I0713 13:37:16.772922 25426 net.cpp:141] Setting up inception_4a/3x3
I0713 13:37:16.772941 25426 net.cpp:148] Top shape: 10 208 14 14 (407680)
I0713 13:37:16.772948 25426 net.cpp:156] Memory required for data: 362145280
I0713 13:37:16.772958 25426 layer_factory.hpp:77] Creating layer inception_4a/relu_3x3
I0713 13:37:16.772969 25426 net.cpp:91] Creating Layer inception_4a/relu_3x3
I0713 13:37:16.772975 25426 net.cpp:425] inception_4a/relu_3x3 <- inception_4a/3x3
I0713 13:37:16.772987 25426 net.cpp:386] inception_4a/relu_3x3 -> inception_4a/3x3 (in-place)
I0713 13:37:16.773778 25426 net.cpp:141] Setting up inception_4a/relu_3x3
I0713 13:37:16.773795 25426 net.cpp:148] Top shape: 10 208 14 14 (407680)
I0713 13:37:16.773800 25426 net.cpp:156] Memory required for data: 363776000
I0713 13:37:16.773809 25426 layer_factory.hpp:77] Creating layer inception_4a/5x5_reduce
I0713 13:37:16.773828 25426 net.cpp:91] Creating Layer inception_4a/5x5_reduce
I0713 13:37:16.773834 25426 net.cpp:425] inception_4a/5x5_reduce <- pool3/3x3_s2_pool3/3x3_s2_0_split_2
I0713 13:37:16.773847 25426 net.cpp:399] inception_4a/5x5_reduce -> inception_4a/5x5_reduce
I0713 13:37:16.776206 25426 net.cpp:141] Setting up inception_4a/5x5_reduce
I0713 13:37:16.776224 25426 net.cpp:148] Top shape: 10 16 14 14 (31360)
I0713 13:37:16.776231 25426 net.cpp:156] Memory required for data: 363901440
I0713 13:37:16.776242 25426 layer_factory.hpp:77] Creating layer inception_4a/relu_5x5_reduce
I0713 13:37:16.776254 25426 net.cpp:91] Creating Layer inception_4a/relu_5x5_reduce
I0713 13:37:16.776260 25426 net.cpp:425] inception_4a/relu_5x5_reduce <- inception_4a/5x5_reduce
I0713 13:37:16.776271 25426 net.cpp:386] inception_4a/relu_5x5_reduce -> inception_4a/5x5_reduce (in-place)
I0713 13:37:16.776532 25426 net.cpp:141] Setting up inception_4a/relu_5x5_reduce
I0713 13:37:16.776546 25426 net.cpp:148] Top shape: 10 16 14 14 (31360)
I0713 13:37:16.776549 25426 net.cpp:156] Memory required for data: 364026880
I0713 13:37:16.776556 25426 layer_factory.hpp:77] Creating layer inception_4a/5x5
I0713 13:37:16.776579 25426 net.cpp:91] Creating Layer inception_4a/5x5
I0713 13:37:16.776585 25426 net.cpp:425] inception_4a/5x5 <- inception_4a/5x5_reduce
I0713 13:37:16.776595 25426 net.cpp:399] inception_4a/5x5 -> inception_4a/5x5
I0713 13:37:16.779017 25426 net.cpp:141] Setting up inception_4a/5x5
I0713 13:37:16.779036 25426 net.cpp:148] Top shape: 10 48 14 14 (94080)
I0713 13:37:16.779042 25426 net.cpp:156] Memory required for data: 364403200
I0713 13:37:16.779053 25426 layer_factory.hpp:77] Creating layer inception_4a/relu_5x5
I0713 13:37:16.779072 25426 net.cpp:91] Creating Layer inception_4a/relu_5x5
I0713 13:37:16.779078 25426 net.cpp:425] inception_4a/relu_5x5 <- inception_4a/5x5
I0713 13:37:16.779085 25426 net.cpp:386] inception_4a/relu_5x5 -> inception_4a/5x5 (in-place)
I0713 13:37:16.779346 25426 net.cpp:141] Setting up inception_4a/relu_5x5
I0713 13:37:16.779361 25426 net.cpp:148] Top shape: 10 48 14 14 (94080)
I0713 13:37:16.779366 25426 net.cpp:156] Memory required for data: 364779520
I0713 13:37:16.779372 25426 layer_factory.hpp:77] Creating layer inception_4a/pool
I0713 13:37:16.779381 25426 net.cpp:91] Creating Layer inception_4a/pool
I0713 13:37:16.779387 25426 net.cpp:425] inception_4a/pool <- pool3/3x3_s2_pool3/3x3_s2_0_split_3
I0713 13:37:16.779399 25426 net.cpp:399] inception_4a/pool -> inception_4a/pool
I0713 13:37:16.779467 25426 net.cpp:141] Setting up inception_4a/pool
I0713 13:37:16.779477 25426 net.cpp:148] Top shape: 10 480 14 14 (940800)
I0713 13:37:16.779481 25426 net.cpp:156] Memory required for data: 368542720
I0713 13:37:16.779489 25426 layer_factory.hpp:77] Creating layer inception_4a/pool_proj
I0713 13:37:16.779508 25426 net.cpp:91] Creating Layer inception_4a/pool_proj
I0713 13:37:16.779515 25426 net.cpp:425] inception_4a/pool_proj <- inception_4a/pool
I0713 13:37:16.779523 25426 net.cpp:399] inception_4a/pool_proj -> inception_4a/pool_proj
I0713 13:37:16.782045 25426 net.cpp:141] Setting up inception_4a/pool_proj
I0713 13:37:16.782064 25426 net.cpp:148] Top shape: 10 64 14 14 (125440)
I0713 13:37:16.782069 25426 net.cpp:156] Memory required for data: 369044480
I0713 13:37:16.782080 25426 layer_factory.hpp:77] Creating layer inception_4a/relu_pool_proj
I0713 13:37:16.782096 25426 net.cpp:91] Creating Layer inception_4a/relu_pool_proj
I0713 13:37:16.782104 25426 net.cpp:425] inception_4a/relu_pool_proj <- inception_4a/pool_proj
I0713 13:37:16.782110 25426 net.cpp:386] inception_4a/relu_pool_proj -> inception_4a/pool_proj (in-place)
I0713 13:37:16.782908 25426 net.cpp:141] Setting up inception_4a/relu_pool_proj
I0713 13:37:16.782928 25426 net.cpp:148] Top shape: 10 64 14 14 (125440)
I0713 13:37:16.782933 25426 net.cpp:156] Memory required for data: 369546240
I0713 13:37:16.782939 25426 layer_factory.hpp:77] Creating layer inception_4a/output
I0713 13:37:16.782948 25426 net.cpp:91] Creating Layer inception_4a/output
I0713 13:37:16.782954 25426 net.cpp:425] inception_4a/output <- inception_4a/1x1
I0713 13:37:16.782960 25426 net.cpp:425] inception_4a/output <- inception_4a/3x3
I0713 13:37:16.782966 25426 net.cpp:425] inception_4a/output <- inception_4a/5x5
I0713 13:37:16.782973 25426 net.cpp:425] inception_4a/output <- inception_4a/pool_proj
I0713 13:37:16.782979 25426 net.cpp:399] inception_4a/output -> inception_4a/output
I0713 13:37:16.783030 25426 net.cpp:141] Setting up inception_4a/output
I0713 13:37:16.783041 25426 net.cpp:148] Top shape: 10 512 14 14 (1003520)
I0713 13:37:16.783044 25426 net.cpp:156] Memory required for data: 373560320
I0713 13:37:16.783049 25426 layer_factory.hpp:77] Creating layer inception_4a/output_inception_4a/output_0_split
I0713 13:37:16.783057 25426 net.cpp:91] Creating Layer inception_4a/output_inception_4a/output_0_split
I0713 13:37:16.783066 25426 net.cpp:425] inception_4a/output_inception_4a/output_0_split <- inception_4a/output
I0713 13:37:16.783073 25426 net.cpp:399] inception_4a/output_inception_4a/output_0_split -> inception_4a/output_inception_4a/output_0_split_0
I0713 13:37:16.783082 25426 net.cpp:399] inception_4a/output_inception_4a/output_0_split -> inception_4a/output_inception_4a/output_0_split_1
I0713 13:37:16.783092 25426 net.cpp:399] inception_4a/output_inception_4a/output_0_split -> inception_4a/output_inception_4a/output_0_split_2
I0713 13:37:16.783100 25426 net.cpp:399] inception_4a/output_inception_4a/output_0_split -> inception_4a/output_inception_4a/output_0_split_3
I0713 13:37:16.783195 25426 net.cpp:141] Setting up inception_4a/output_inception_4a/output_0_split
I0713 13:37:16.783203 25426 net.cpp:148] Top shape: 10 512 14 14 (1003520)
I0713 13:37:16.783210 25426 net.cpp:148] Top shape: 10 512 14 14 (1003520)
I0713 13:37:16.783215 25426 net.cpp:148] Top shape: 10 512 14 14 (1003520)
I0713 13:37:16.783221 25426 net.cpp:148] Top shape: 10 512 14 14 (1003520)
I0713 13:37:16.783224 25426 net.cpp:156] Memory required for data: 389616640
I0713 13:37:16.783229 25426 layer_factory.hpp:77] Creating layer inception_4b/1x1
I0713 13:37:16.783247 25426 net.cpp:91] Creating Layer inception_4b/1x1
I0713 13:37:16.783253 25426 net.cpp:425] inception_4b/1x1 <- inception_4a/output_inception_4a/output_0_split_0
I0713 13:37:16.783264 25426 net.cpp:399] inception_4b/1x1 -> inception_4b/1x1
I0713 13:37:16.786229 25426 net.cpp:141] Setting up inception_4b/1x1
I0713 13:37:16.786249 25426 net.cpp:148] Top shape: 10 160 14 14 (313600)
I0713 13:37:16.786254 25426 net.cpp:156] Memory required for data: 390871040
I0713 13:37:16.786264 25426 layer_factory.hpp:77] Creating layer inception_4b/relu_1x1
I0713 13:37:16.786279 25426 net.cpp:91] Creating Layer inception_4b/relu_1x1
I0713 13:37:16.786285 25426 net.cpp:425] inception_4b/relu_1x1 <- inception_4b/1x1
I0713 13:37:16.786294 25426 net.cpp:386] inception_4b/relu_1x1 -> inception_4b/1x1 (in-place)
I0713 13:37:16.786551 25426 net.cpp:141] Setting up inception_4b/relu_1x1
I0713 13:37:16.786563 25426 net.cpp:148] Top shape: 10 160 14 14 (313600)
I0713 13:37:16.786568 25426 net.cpp:156] Memory required for data: 392125440
I0713 13:37:16.786576 25426 layer_factory.hpp:77] Creating layer inception_4b/3x3_reduce
I0713 13:37:16.786597 25426 net.cpp:91] Creating Layer inception_4b/3x3_reduce
I0713 13:37:16.786602 25426 net.cpp:425] inception_4b/3x3_reduce <- inception_4a/output_inception_4a/output_0_split_1
I0713 13:37:16.786614 25426 net.cpp:399] inception_4b/3x3_reduce -> inception_4b/3x3_reduce
I0713 13:37:16.789413 25426 net.cpp:141] Setting up inception_4b/3x3_reduce
I0713 13:37:16.789433 25426 net.cpp:148] Top shape: 10 112 14 14 (219520)
I0713 13:37:16.789438 25426 net.cpp:156] Memory required for data: 393003520
I0713 13:37:16.789451 25426 layer_factory.hpp:77] Creating layer inception_4b/relu_3x3_reduce
I0713 13:37:16.789465 25426 net.cpp:91] Creating Layer inception_4b/relu_3x3_reduce
I0713 13:37:16.789471 25426 net.cpp:425] inception_4b/relu_3x3_reduce <- inception_4b/3x3_reduce
I0713 13:37:16.789479 25426 net.cpp:386] inception_4b/relu_3x3_reduce -> inception_4b/3x3_reduce (in-place)
I0713 13:37:16.789741 25426 net.cpp:141] Setting up inception_4b/relu_3x3_reduce
I0713 13:37:16.789752 25426 net.cpp:148] Top shape: 10 112 14 14 (219520)
I0713 13:37:16.789757 25426 net.cpp:156] Memory required for data: 393881600
I0713 13:37:16.789764 25426 layer_factory.hpp:77] Creating layer inception_4b/3x3
I0713 13:37:16.789785 25426 net.cpp:91] Creating Layer inception_4b/3x3
I0713 13:37:16.789791 25426 net.cpp:425] inception_4b/3x3 <- inception_4b/3x3_reduce
I0713 13:37:16.789804 25426 net.cpp:399] inception_4b/3x3 -> inception_4b/3x3
I0713 13:37:16.795797 25426 net.cpp:141] Setting up inception_4b/3x3
I0713 13:37:16.795819 25426 net.cpp:148] Top shape: 10 224 14 14 (439040)
I0713 13:37:16.795824 25426 net.cpp:156] Memory required for data: 395637760
I0713 13:37:16.795833 25426 layer_factory.hpp:77] Creating layer inception_4b/relu_3x3
I0713 13:37:16.795850 25426 net.cpp:91] Creating Layer inception_4b/relu_3x3
I0713 13:37:16.795856 25426 net.cpp:425] inception_4b/relu_3x3 <- inception_4b/3x3
I0713 13:37:16.795864 25426 net.cpp:386] inception_4b/relu_3x3 -> inception_4b/3x3 (in-place)
I0713 13:37:16.796672 25426 net.cpp:141] Setting up inception_4b/relu_3x3
I0713 13:37:16.796690 25426 net.cpp:148] Top shape: 10 224 14 14 (439040)
I0713 13:37:16.796695 25426 net.cpp:156] Memory required for data: 397393920
I0713 13:37:16.796701 25426 layer_factory.hpp:77] Creating layer inception_4b/5x5_reduce
I0713 13:37:16.796730 25426 net.cpp:91] Creating Layer inception_4b/5x5_reduce
I0713 13:37:16.796736 25426 net.cpp:425] inception_4b/5x5_reduce <- inception_4a/output_inception_4a/output_0_split_2
I0713 13:37:16.796749 25426 net.cpp:399] inception_4b/5x5_reduce -> inception_4b/5x5_reduce
I0713 13:37:16.799155 25426 net.cpp:141] Setting up inception_4b/5x5_reduce
I0713 13:37:16.799176 25426 net.cpp:148] Top shape: 10 24 14 14 (47040)
I0713 13:37:16.799182 25426 net.cpp:156] Memory required for data: 397582080
I0713 13:37:16.799195 25426 layer_factory.hpp:77] Creating layer inception_4b/relu_5x5_reduce
I0713 13:37:16.799206 25426 net.cpp:91] Creating Layer inception_4b/relu_5x5_reduce
I0713 13:37:16.799212 25426 net.cpp:425] inception_4b/relu_5x5_reduce <- inception_4b/5x5_reduce
I0713 13:37:16.799221 25426 net.cpp:386] inception_4b/relu_5x5_reduce -> inception_4b/5x5_reduce (in-place)
I0713 13:37:16.799484 25426 net.cpp:141] Setting up inception_4b/relu_5x5_reduce
I0713 13:37:16.799496 25426 net.cpp:148] Top shape: 10 24 14 14 (47040)
I0713 13:37:16.799501 25426 net.cpp:156] Memory required for data: 397770240
I0713 13:37:16.799507 25426 layer_factory.hpp:77] Creating layer inception_4b/5x5
I0713 13:37:16.799523 25426 net.cpp:91] Creating Layer inception_4b/5x5
I0713 13:37:16.799530 25426 net.cpp:425] inception_4b/5x5 <- inception_4b/5x5_reduce
I0713 13:37:16.799542 25426 net.cpp:399] inception_4b/5x5 -> inception_4b/5x5
I0713 13:37:16.803333 25426 net.cpp:141] Setting up inception_4b/5x5
I0713 13:37:16.803354 25426 net.cpp:148] Top shape: 10 64 14 14 (125440)
I0713 13:37:16.803359 25426 net.cpp:156] Memory required for data: 398272000
I0713 13:37:16.803371 25426 layer_factory.hpp:77] Creating layer inception_4b/relu_5x5
I0713 13:37:16.803387 25426 net.cpp:91] Creating Layer inception_4b/relu_5x5
I0713 13:37:16.803395 25426 net.cpp:425] inception_4b/relu_5x5 <- inception_4b/5x5
I0713 13:37:16.803402 25426 net.cpp:386] inception_4b/relu_5x5 -> inception_4b/5x5 (in-place)
I0713 13:37:16.803663 25426 net.cpp:141] Setting up inception_4b/relu_5x5
I0713 13:37:16.803674 25426 net.cpp:148] Top shape: 10 64 14 14 (125440)
I0713 13:37:16.803679 25426 net.cpp:156] Memory required for data: 398773760
I0713 13:37:16.803684 25426 layer_factory.hpp:77] Creating layer inception_4b/pool
I0713 13:37:16.803694 25426 net.cpp:91] Creating Layer inception_4b/pool
I0713 13:37:16.803699 25426 net.cpp:425] inception_4b/pool <- inception_4a/output_inception_4a/output_0_split_3
I0713 13:37:16.803712 25426 net.cpp:399] inception_4b/pool -> inception_4b/pool
I0713 13:37:16.803783 25426 net.cpp:141] Setting up inception_4b/pool
I0713 13:37:16.803793 25426 net.cpp:148] Top shape: 10 512 14 14 (1003520)
I0713 13:37:16.803797 25426 net.cpp:156] Memory required for data: 402787840
I0713 13:37:16.803804 25426 layer_factory.hpp:77] Creating layer inception_4b/pool_proj
I0713 13:37:16.803824 25426 net.cpp:91] Creating Layer inception_4b/pool_proj
I0713 13:37:16.803831 25426 net.cpp:425] inception_4b/pool_proj <- inception_4b/pool
I0713 13:37:16.803840 25426 net.cpp:399] inception_4b/pool_proj -> inception_4b/pool_proj
I0713 13:37:16.806435 25426 net.cpp:141] Setting up inception_4b/pool_proj
I0713 13:37:16.806457 25426 net.cpp:148] Top shape: 10 64 14 14 (125440)
I0713 13:37:16.806462 25426 net.cpp:156] Memory required for data: 403289600
I0713 13:37:16.806473 25426 layer_factory.hpp:77] Creating layer inception_4b/relu_pool_proj
I0713 13:37:16.806484 25426 net.cpp:91] Creating Layer inception_4b/relu_pool_proj
I0713 13:37:16.806491 25426 net.cpp:425] inception_4b/relu_pool_proj <- inception_4b/pool_proj
I0713 13:37:16.806499 25426 net.cpp:386] inception_4b/relu_pool_proj -> inception_4b/pool_proj (in-place)
I0713 13:37:16.807317 25426 net.cpp:141] Setting up inception_4b/relu_pool_proj
I0713 13:37:16.807337 25426 net.cpp:148] Top shape: 10 64 14 14 (125440)
I0713 13:37:16.807342 25426 net.cpp:156] Memory required for data: 403791360
I0713 13:37:16.807348 25426 layer_factory.hpp:77] Creating layer inception_4b/output
I0713 13:37:16.807359 25426 net.cpp:91] Creating Layer inception_4b/output
I0713 13:37:16.807365 25426 net.cpp:425] inception_4b/output <- inception_4b/1x1
I0713 13:37:16.807373 25426 net.cpp:425] inception_4b/output <- inception_4b/3x3
I0713 13:37:16.807379 25426 net.cpp:425] inception_4b/output <- inception_4b/5x5
I0713 13:37:16.807384 25426 net.cpp:425] inception_4b/output <- inception_4b/pool_proj
I0713 13:37:16.807390 25426 net.cpp:399] inception_4b/output -> inception_4b/output
I0713 13:37:16.807443 25426 net.cpp:141] Setting up inception_4b/output
I0713 13:37:16.807453 25426 net.cpp:148] Top shape: 10 512 14 14 (1003520)
I0713 13:37:16.807458 25426 net.cpp:156] Memory required for data: 407805440
I0713 13:37:16.807463 25426 layer_factory.hpp:77] Creating layer inception_4b/output_inception_4b/output_0_split
I0713 13:37:16.807472 25426 net.cpp:91] Creating Layer inception_4b/output_inception_4b/output_0_split
I0713 13:37:16.807477 25426 net.cpp:425] inception_4b/output_inception_4b/output_0_split <- inception_4b/output
I0713 13:37:16.807487 25426 net.cpp:399] inception_4b/output_inception_4b/output_0_split -> inception_4b/output_inception_4b/output_0_split_0
I0713 13:37:16.807497 25426 net.cpp:399] inception_4b/output_inception_4b/output_0_split -> inception_4b/output_inception_4b/output_0_split_1
I0713 13:37:16.807505 25426 net.cpp:399] inception_4b/output_inception_4b/output_0_split -> inception_4b/output_inception_4b/output_0_split_2
I0713 13:37:16.807513 25426 net.cpp:399] inception_4b/output_inception_4b/output_0_split -> inception_4b/output_inception_4b/output_0_split_3
I0713 13:37:16.807610 25426 net.cpp:141] Setting up inception_4b/output_inception_4b/output_0_split
I0713 13:37:16.807626 25426 net.cpp:148] Top shape: 10 512 14 14 (1003520)
I0713 13:37:16.807632 25426 net.cpp:148] Top shape: 10 512 14 14 (1003520)
I0713 13:37:16.807638 25426 net.cpp:148] Top shape: 10 512 14 14 (1003520)
I0713 13:37:16.807643 25426 net.cpp:148] Top shape: 10 512 14 14 (1003520)
I0713 13:37:16.807647 25426 net.cpp:156] Memory required for data: 423861760
I0713 13:37:16.807652 25426 layer_factory.hpp:77] Creating layer inception_4c/1x1
I0713 13:37:16.807669 25426 net.cpp:91] Creating Layer inception_4c/1x1
I0713 13:37:16.807675 25426 net.cpp:425] inception_4c/1x1 <- inception_4b/output_inception_4b/output_0_split_0
I0713 13:37:16.807684 25426 net.cpp:399] inception_4c/1x1 -> inception_4c/1x1
I0713 13:37:16.810959 25426 net.cpp:141] Setting up inception_4c/1x1
I0713 13:37:16.810993 25426 net.cpp:148] Top shape: 10 128 14 14 (250880)
I0713 13:37:16.810999 25426 net.cpp:156] Memory required for data: 424865280
I0713 13:37:16.811010 25426 layer_factory.hpp:77] Creating layer inception_4c/relu_1x1
I0713 13:37:16.811022 25426 net.cpp:91] Creating Layer inception_4c/relu_1x1
I0713 13:37:16.811029 25426 net.cpp:425] inception_4c/relu_1x1 <- inception_4c/1x1
I0713 13:37:16.811038 25426 net.cpp:386] inception_4c/relu_1x1 -> inception_4c/1x1 (in-place)
I0713 13:37:16.811303 25426 net.cpp:141] Setting up inception_4c/relu_1x1
I0713 13:37:16.811316 25426 net.cpp:148] Top shape: 10 128 14 14 (250880)
I0713 13:37:16.811321 25426 net.cpp:156] Memory required for data: 425868800
I0713 13:37:16.811326 25426 layer_factory.hpp:77] Creating layer inception_4c/3x3_reduce
I0713 13:37:16.811344 25426 net.cpp:91] Creating Layer inception_4c/3x3_reduce
I0713 13:37:16.811350 25426 net.cpp:425] inception_4c/3x3_reduce <- inception_4b/output_inception_4b/output_0_split_1
I0713 13:37:16.811365 25426 net.cpp:399] inception_4c/3x3_reduce -> inception_4c/3x3_reduce
I0713 13:37:16.814373 25426 net.cpp:141] Setting up inception_4c/3x3_reduce
I0713 13:37:16.814396 25426 net.cpp:148] Top shape: 10 128 14 14 (250880)
I0713 13:37:16.814402 25426 net.cpp:156] Memory required for data: 426872320
I0713 13:37:16.814414 25426 layer_factory.hpp:77] Creating layer inception_4c/relu_3x3_reduce
I0713 13:37:16.814424 25426 net.cpp:91] Creating Layer inception_4c/relu_3x3_reduce
I0713 13:37:16.814429 25426 net.cpp:425] inception_4c/relu_3x3_reduce <- inception_4c/3x3_reduce
I0713 13:37:16.814437 25426 net.cpp:386] inception_4c/relu_3x3_reduce -> inception_4c/3x3_reduce (in-place)
I0713 13:37:16.814713 25426 net.cpp:141] Setting up inception_4c/relu_3x3_reduce
I0713 13:37:16.814726 25426 net.cpp:148] Top shape: 10 128 14 14 (250880)
I0713 13:37:16.814731 25426 net.cpp:156] Memory required for data: 427875840
I0713 13:37:16.814736 25426 layer_factory.hpp:77] Creating layer inception_4c/3x3
I0713 13:37:16.814754 25426 net.cpp:91] Creating Layer inception_4c/3x3
I0713 13:37:16.814759 25426 net.cpp:425] inception_4c/3x3 <- inception_4c/3x3_reduce
I0713 13:37:16.814772 25426 net.cpp:399] inception_4c/3x3 -> inception_4c/3x3
I0713 13:37:16.820912 25426 net.cpp:141] Setting up inception_4c/3x3
I0713 13:37:16.820935 25426 net.cpp:148] Top shape: 10 256 14 14 (501760)
I0713 13:37:16.820940 25426 net.cpp:156] Memory required for data: 429882880
I0713 13:37:16.820951 25426 layer_factory.hpp:77] Creating layer inception_4c/relu_3x3
I0713 13:37:16.820966 25426 net.cpp:91] Creating Layer inception_4c/relu_3x3
I0713 13:37:16.820972 25426 net.cpp:425] inception_4c/relu_3x3 <- inception_4c/3x3
I0713 13:37:16.820981 25426 net.cpp:386] inception_4c/relu_3x3 -> inception_4c/3x3 (in-place)
I0713 13:37:16.821812 25426 net.cpp:141] Setting up inception_4c/relu_3x3
I0713 13:37:16.821831 25426 net.cpp:148] Top shape: 10 256 14 14 (501760)
I0713 13:37:16.821836 25426 net.cpp:156] Memory required for data: 431889920
I0713 13:37:16.821842 25426 layer_factory.hpp:77] Creating layer inception_4c/5x5_reduce
I0713 13:37:16.821866 25426 net.cpp:91] Creating Layer inception_4c/5x5_reduce
I0713 13:37:16.821872 25426 net.cpp:425] inception_4c/5x5_reduce <- inception_4b/output_inception_4b/output_0_split_2
I0713 13:37:16.821882 25426 net.cpp:399] inception_4c/5x5_reduce -> inception_4c/5x5_reduce
I0713 13:37:16.824425 25426 net.cpp:141] Setting up inception_4c/5x5_reduce
I0713 13:37:16.824447 25426 net.cpp:148] Top shape: 10 24 14 14 (47040)
I0713 13:37:16.824453 25426 net.cpp:156] Memory required for data: 432078080
I0713 13:37:16.824463 25426 layer_factory.hpp:77] Creating layer inception_4c/relu_5x5_reduce
I0713 13:37:16.824473 25426 net.cpp:91] Creating Layer inception_4c/relu_5x5_reduce
I0713 13:37:16.824481 25426 net.cpp:425] inception_4c/relu_5x5_reduce <- inception_4c/5x5_reduce
I0713 13:37:16.824487 25426 net.cpp:386] inception_4c/relu_5x5_reduce -> inception_4c/5x5_reduce (in-place)
I0713 13:37:16.824757 25426 net.cpp:141] Setting up inception_4c/relu_5x5_reduce
I0713 13:37:16.824769 25426 net.cpp:148] Top shape: 10 24 14 14 (47040)
I0713 13:37:16.824774 25426 net.cpp:156] Memory required for data: 432266240
I0713 13:37:16.824779 25426 layer_factory.hpp:77] Creating layer inception_4c/5x5
I0713 13:37:16.824796 25426 net.cpp:91] Creating Layer inception_4c/5x5
I0713 13:37:16.824802 25426 net.cpp:425] inception_4c/5x5 <- inception_4c/5x5_reduce
I0713 13:37:16.824815 25426 net.cpp:399] inception_4c/5x5 -> inception_4c/5x5
I0713 13:37:16.828091 25426 net.cpp:141] Setting up inception_4c/5x5
I0713 13:37:16.828110 25426 net.cpp:148] Top shape: 10 64 14 14 (125440)
I0713 13:37:16.828115 25426 net.cpp:156] Memory required for data: 432768000
I0713 13:37:16.828125 25426 layer_factory.hpp:77] Creating layer inception_4c/relu_5x5
I0713 13:37:16.828136 25426 net.cpp:91] Creating Layer inception_4c/relu_5x5
I0713 13:37:16.828142 25426 net.cpp:425] inception_4c/relu_5x5 <- inception_4c/5x5
I0713 13:37:16.828153 25426 net.cpp:386] inception_4c/relu_5x5 -> inception_4c/5x5 (in-place)
I0713 13:37:16.828416 25426 net.cpp:141] Setting up inception_4c/relu_5x5
I0713 13:37:16.828430 25426 net.cpp:148] Top shape: 10 64 14 14 (125440)
I0713 13:37:16.828435 25426 net.cpp:156] Memory required for data: 433269760
I0713 13:37:16.828440 25426 layer_factory.hpp:77] Creating layer inception_4c/pool
I0713 13:37:16.828451 25426 net.cpp:91] Creating Layer inception_4c/pool
I0713 13:37:16.828457 25426 net.cpp:425] inception_4c/pool <- inception_4b/output_inception_4b/output_0_split_3
I0713 13:37:16.828465 25426 net.cpp:399] inception_4c/pool -> inception_4c/pool
I0713 13:37:16.828544 25426 net.cpp:141] Setting up inception_4c/pool
I0713 13:37:16.828555 25426 net.cpp:148] Top shape: 10 512 14 14 (1003520)
I0713 13:37:16.828559 25426 net.cpp:156] Memory required for data: 437283840
I0713 13:37:16.828564 25426 layer_factory.hpp:77] Creating layer inception_4c/pool_proj
I0713 13:37:16.828583 25426 net.cpp:91] Creating Layer inception_4c/pool_proj
I0713 13:37:16.828588 25426 net.cpp:425] inception_4c/pool_proj <- inception_4c/pool
I0713 13:37:16.828600 25426 net.cpp:399] inception_4c/pool_proj -> inception_4c/pool_proj
I0713 13:37:16.832378 25426 net.cpp:141] Setting up inception_4c/pool_proj
I0713 13:37:16.832398 25426 net.cpp:148] Top shape: 10 64 14 14 (125440)
I0713 13:37:16.832404 25426 net.cpp:156] Memory required for data: 437785600
I0713 13:37:16.832434 25426 layer_factory.hpp:77] Creating layer inception_4c/relu_pool_proj
I0713 13:37:16.832448 25426 net.cpp:91] Creating Layer inception_4c/relu_pool_proj
I0713 13:37:16.832454 25426 net.cpp:425] inception_4c/relu_pool_proj <- inception_4c/pool_proj
I0713 13:37:16.832461 25426 net.cpp:386] inception_4c/relu_pool_proj -> inception_4c/pool_proj (in-place)
I0713 13:37:16.833268 25426 net.cpp:141] Setting up inception_4c/relu_pool_proj
I0713 13:37:16.833287 25426 net.cpp:148] Top shape: 10 64 14 14 (125440)
I0713 13:37:16.833292 25426 net.cpp:156] Memory required for data: 438287360
I0713 13:37:16.833297 25426 layer_factory.hpp:77] Creating layer inception_4c/output
I0713 13:37:16.833307 25426 net.cpp:91] Creating Layer inception_4c/output
I0713 13:37:16.833312 25426 net.cpp:425] inception_4c/output <- inception_4c/1x1
I0713 13:37:16.833319 25426 net.cpp:425] inception_4c/output <- inception_4c/3x3
I0713 13:37:16.833325 25426 net.cpp:425] inception_4c/output <- inception_4c/5x5
I0713 13:37:16.833330 25426 net.cpp:425] inception_4c/output <- inception_4c/pool_proj
I0713 13:37:16.833340 25426 net.cpp:399] inception_4c/output -> inception_4c/output
I0713 13:37:16.833394 25426 net.cpp:141] Setting up inception_4c/output
I0713 13:37:16.833402 25426 net.cpp:148] Top shape: 10 512 14 14 (1003520)
I0713 13:37:16.833407 25426 net.cpp:156] Memory required for data: 442301440
I0713 13:37:16.833416 25426 layer_factory.hpp:77] Creating layer inception_4c/output_inception_4c/output_0_split
I0713 13:37:16.833433 25426 net.cpp:91] Creating Layer inception_4c/output_inception_4c/output_0_split
I0713 13:37:16.833439 25426 net.cpp:425] inception_4c/output_inception_4c/output_0_split <- inception_4c/output
I0713 13:37:16.833446 25426 net.cpp:399] inception_4c/output_inception_4c/output_0_split -> inception_4c/output_inception_4c/output_0_split_0
I0713 13:37:16.833458 25426 net.cpp:399] inception_4c/output_inception_4c/output_0_split -> inception_4c/output_inception_4c/output_0_split_1
I0713 13:37:16.833467 25426 net.cpp:399] inception_4c/output_inception_4c/output_0_split -> inception_4c/output_inception_4c/output_0_split_2
I0713 13:37:16.833475 25426 net.cpp:399] inception_4c/output_inception_4c/output_0_split -> inception_4c/output_inception_4c/output_0_split_3
I0713 13:37:16.833578 25426 net.cpp:141] Setting up inception_4c/output_inception_4c/output_0_split
I0713 13:37:16.833588 25426 net.cpp:148] Top shape: 10 512 14 14 (1003520)
I0713 13:37:16.833595 25426 net.cpp:148] Top shape: 10 512 14 14 (1003520)
I0713 13:37:16.833600 25426 net.cpp:148] Top shape: 10 512 14 14 (1003520)
I0713 13:37:16.833606 25426 net.cpp:148] Top shape: 10 512 14 14 (1003520)
I0713 13:37:16.833609 25426 net.cpp:156] Memory required for data: 458357760
I0713 13:37:16.833614 25426 layer_factory.hpp:77] Creating layer inception_4d/1x1
I0713 13:37:16.833631 25426 net.cpp:91] Creating Layer inception_4d/1x1
I0713 13:37:16.833636 25426 net.cpp:425] inception_4d/1x1 <- inception_4c/output_inception_4c/output_0_split_0
I0713 13:37:16.833649 25426 net.cpp:399] inception_4d/1x1 -> inception_4d/1x1
I0713 13:37:16.836460 25426 net.cpp:141] Setting up inception_4d/1x1
I0713 13:37:16.836479 25426 net.cpp:148] Top shape: 10 112 14 14 (219520)
I0713 13:37:16.836485 25426 net.cpp:156] Memory required for data: 459235840
I0713 13:37:16.836495 25426 layer_factory.hpp:77] Creating layer inception_4d/relu_1x1
I0713 13:37:16.836505 25426 net.cpp:91] Creating Layer inception_4d/relu_1x1
I0713 13:37:16.836511 25426 net.cpp:425] inception_4d/relu_1x1 <- inception_4d/1x1
I0713 13:37:16.836524 25426 net.cpp:386] inception_4d/relu_1x1 -> inception_4d/1x1 (in-place)
I0713 13:37:16.836791 25426 net.cpp:141] Setting up inception_4d/relu_1x1
I0713 13:37:16.836805 25426 net.cpp:148] Top shape: 10 112 14 14 (219520)
I0713 13:37:16.836810 25426 net.cpp:156] Memory required for data: 460113920
I0713 13:37:16.836818 25426 layer_factory.hpp:77] Creating layer inception_4d/3x3_reduce
I0713 13:37:16.836833 25426 net.cpp:91] Creating Layer inception_4d/3x3_reduce
I0713 13:37:16.836839 25426 net.cpp:425] inception_4d/3x3_reduce <- inception_4c/output_inception_4c/output_0_split_1
I0713 13:37:16.836853 25426 net.cpp:399] inception_4d/3x3_reduce -> inception_4d/3x3_reduce
I0713 13:37:16.839844 25426 net.cpp:141] Setting up inception_4d/3x3_reduce
I0713 13:37:16.839862 25426 net.cpp:148] Top shape: 10 144 14 14 (282240)
I0713 13:37:16.839869 25426 net.cpp:156] Memory required for data: 461242880
I0713 13:37:16.839879 25426 layer_factory.hpp:77] Creating layer inception_4d/relu_3x3_reduce
I0713 13:37:16.839890 25426 net.cpp:91] Creating Layer inception_4d/relu_3x3_reduce
I0713 13:37:16.839896 25426 net.cpp:425] inception_4d/relu_3x3_reduce <- inception_4d/3x3_reduce
I0713 13:37:16.839907 25426 net.cpp:386] inception_4d/relu_3x3_reduce -> inception_4d/3x3_reduce (in-place)
I0713 13:37:16.840173 25426 net.cpp:141] Setting up inception_4d/relu_3x3_reduce
I0713 13:37:16.840188 25426 net.cpp:148] Top shape: 10 144 14 14 (282240)
I0713 13:37:16.840193 25426 net.cpp:156] Memory required for data: 462371840
I0713 13:37:16.840198 25426 layer_factory.hpp:77] Creating layer inception_4d/3x3
I0713 13:37:16.840216 25426 net.cpp:91] Creating Layer inception_4d/3x3
I0713 13:37:16.840224 25426 net.cpp:425] inception_4d/3x3 <- inception_4d/3x3_reduce
I0713 13:37:16.840232 25426 net.cpp:399] inception_4d/3x3 -> inception_4d/3x3
I0713 13:37:16.847143 25426 net.cpp:141] Setting up inception_4d/3x3
I0713 13:37:16.847164 25426 net.cpp:148] Top shape: 10 288 14 14 (564480)
I0713 13:37:16.847169 25426 net.cpp:156] Memory required for data: 464629760
I0713 13:37:16.847182 25426 layer_factory.hpp:77] Creating layer inception_4d/relu_3x3
I0713 13:37:16.847192 25426 net.cpp:91] Creating Layer inception_4d/relu_3x3
I0713 13:37:16.847198 25426 net.cpp:425] inception_4d/relu_3x3 <- inception_4d/3x3
I0713 13:37:16.847208 25426 net.cpp:386] inception_4d/relu_3x3 -> inception_4d/3x3 (in-place)
I0713 13:37:16.848011 25426 net.cpp:141] Setting up inception_4d/relu_3x3
I0713 13:37:16.848027 25426 net.cpp:148] Top shape: 10 288 14 14 (564480)
I0713 13:37:16.848032 25426 net.cpp:156] Memory required for data: 466887680
I0713 13:37:16.848039 25426 layer_factory.hpp:77] Creating layer inception_4d/5x5_reduce
I0713 13:37:16.848058 25426 net.cpp:91] Creating Layer inception_4d/5x5_reduce
I0713 13:37:16.848065 25426 net.cpp:425] inception_4d/5x5_reduce <- inception_4c/output_inception_4c/output_0_split_2
I0713 13:37:16.848084 25426 net.cpp:399] inception_4d/5x5_reduce -> inception_4d/5x5_reduce
I0713 13:37:16.850591 25426 net.cpp:141] Setting up inception_4d/5x5_reduce
I0713 13:37:16.850611 25426 net.cpp:148] Top shape: 10 32 14 14 (62720)
I0713 13:37:16.850616 25426 net.cpp:156] Memory required for data: 467138560
I0713 13:37:16.850628 25426 layer_factory.hpp:77] Creating layer inception_4d/relu_5x5_reduce
I0713 13:37:16.850637 25426 net.cpp:91] Creating Layer inception_4d/relu_5x5_reduce
I0713 13:37:16.850644 25426 net.cpp:425] inception_4d/relu_5x5_reduce <- inception_4d/5x5_reduce
I0713 13:37:16.850656 25426 net.cpp:386] inception_4d/relu_5x5_reduce -> inception_4d/5x5_reduce (in-place)
I0713 13:37:16.850940 25426 net.cpp:141] Setting up inception_4d/relu_5x5_reduce
I0713 13:37:16.850953 25426 net.cpp:148] Top shape: 10 32 14 14 (62720)
I0713 13:37:16.850960 25426 net.cpp:156] Memory required for data: 467389440
I0713 13:37:16.850965 25426 layer_factory.hpp:77] Creating layer inception_4d/5x5
I0713 13:37:16.850981 25426 net.cpp:91] Creating Layer inception_4d/5x5
I0713 13:37:16.850987 25426 net.cpp:425] inception_4d/5x5 <- inception_4d/5x5_reduce
I0713 13:37:16.851001 25426 net.cpp:399] inception_4d/5x5 -> inception_4d/5x5
I0713 13:37:16.853765 25426 net.cpp:141] Setting up inception_4d/5x5
I0713 13:37:16.853785 25426 net.cpp:148] Top shape: 10 64 14 14 (125440)
I0713 13:37:16.853790 25426 net.cpp:156] Memory required for data: 467891200
I0713 13:37:16.853801 25426 layer_factory.hpp:77] Creating layer inception_4d/relu_5x5
I0713 13:37:16.853812 25426 net.cpp:91] Creating Layer inception_4d/relu_5x5
I0713 13:37:16.853818 25426 net.cpp:425] inception_4d/relu_5x5 <- inception_4d/5x5
I0713 13:37:16.853826 25426 net.cpp:386] inception_4d/relu_5x5 -> inception_4d/5x5 (in-place)
I0713 13:37:16.854099 25426 net.cpp:141] Setting up inception_4d/relu_5x5
I0713 13:37:16.854111 25426 net.cpp:148] Top shape: 10 64 14 14 (125440)
I0713 13:37:16.854116 25426 net.cpp:156] Memory required for data: 468392960
I0713 13:37:16.854121 25426 layer_factory.hpp:77] Creating layer inception_4d/pool
I0713 13:37:16.854135 25426 net.cpp:91] Creating Layer inception_4d/pool
I0713 13:37:16.854140 25426 net.cpp:425] inception_4d/pool <- inception_4c/output_inception_4c/output_0_split_3
I0713 13:37:16.854148 25426 net.cpp:399] inception_4d/pool -> inception_4d/pool
I0713 13:37:16.854228 25426 net.cpp:141] Setting up inception_4d/pool
I0713 13:37:16.854238 25426 net.cpp:148] Top shape: 10 512 14 14 (1003520)
I0713 13:37:16.854243 25426 net.cpp:156] Memory required for data: 472407040
I0713 13:37:16.854248 25426 layer_factory.hpp:77] Creating layer inception_4d/pool_proj
I0713 13:37:16.854264 25426 net.cpp:91] Creating Layer inception_4d/pool_proj
I0713 13:37:16.854269 25426 net.cpp:425] inception_4d/pool_proj <- inception_4d/pool
I0713 13:37:16.854286 25426 net.cpp:399] inception_4d/pool_proj -> inception_4d/pool_proj
I0713 13:37:16.856932 25426 net.cpp:141] Setting up inception_4d/pool_proj
I0713 13:37:16.856951 25426 net.cpp:148] Top shape: 10 64 14 14 (125440)
I0713 13:37:16.856957 25426 net.cpp:156] Memory required for data: 472908800
I0713 13:37:16.856966 25426 layer_factory.hpp:77] Creating layer inception_4d/relu_pool_proj
I0713 13:37:16.856977 25426 net.cpp:91] Creating Layer inception_4d/relu_pool_proj
I0713 13:37:16.856983 25426 net.cpp:425] inception_4d/relu_pool_proj <- inception_4d/pool_proj
I0713 13:37:16.856995 25426 net.cpp:386] inception_4d/relu_pool_proj -> inception_4d/pool_proj (in-place)
I0713 13:37:16.857808 25426 net.cpp:141] Setting up inception_4d/relu_pool_proj
I0713 13:37:16.857823 25426 net.cpp:148] Top shape: 10 64 14 14 (125440)
I0713 13:37:16.857828 25426 net.cpp:156] Memory required for data: 473410560
I0713 13:37:16.857834 25426 layer_factory.hpp:77] Creating layer inception_4d/output
I0713 13:37:16.857843 25426 net.cpp:91] Creating Layer inception_4d/output
I0713 13:37:16.857849 25426 net.cpp:425] inception_4d/output <- inception_4d/1x1
I0713 13:37:16.857861 25426 net.cpp:425] inception_4d/output <- inception_4d/3x3
I0713 13:37:16.857867 25426 net.cpp:425] inception_4d/output <- inception_4d/5x5
I0713 13:37:16.857872 25426 net.cpp:425] inception_4d/output <- inception_4d/pool_proj
I0713 13:37:16.857879 25426 net.cpp:399] inception_4d/output -> inception_4d/output
I0713 13:37:16.857933 25426 net.cpp:141] Setting up inception_4d/output
I0713 13:37:16.857942 25426 net.cpp:148] Top shape: 10 528 14 14 (1034880)
I0713 13:37:16.857947 25426 net.cpp:156] Memory required for data: 477550080
I0713 13:37:16.857952 25426 layer_factory.hpp:77] Creating layer inception_4d/output_inception_4d/output_0_split
I0713 13:37:16.857961 25426 net.cpp:91] Creating Layer inception_4d/output_inception_4d/output_0_split
I0713 13:37:16.857966 25426 net.cpp:425] inception_4d/output_inception_4d/output_0_split <- inception_4d/output
I0713 13:37:16.857980 25426 net.cpp:399] inception_4d/output_inception_4d/output_0_split -> inception_4d/output_inception_4d/output_0_split_0
I0713 13:37:16.857990 25426 net.cpp:399] inception_4d/output_inception_4d/output_0_split -> inception_4d/output_inception_4d/output_0_split_1
I0713 13:37:16.858000 25426 net.cpp:399] inception_4d/output_inception_4d/output_0_split -> inception_4d/output_inception_4d/output_0_split_2
I0713 13:37:16.858007 25426 net.cpp:399] inception_4d/output_inception_4d/output_0_split -> inception_4d/output_inception_4d/output_0_split_3
I0713 13:37:16.858117 25426 net.cpp:141] Setting up inception_4d/output_inception_4d/output_0_split
I0713 13:37:16.858127 25426 net.cpp:148] Top shape: 10 528 14 14 (1034880)
I0713 13:37:16.858134 25426 net.cpp:148] Top shape: 10 528 14 14 (1034880)
I0713 13:37:16.858139 25426 net.cpp:148] Top shape: 10 528 14 14 (1034880)
I0713 13:37:16.858144 25426 net.cpp:148] Top shape: 10 528 14 14 (1034880)
I0713 13:37:16.858150 25426 net.cpp:156] Memory required for data: 494108160
I0713 13:37:16.858155 25426 layer_factory.hpp:77] Creating layer inception_4e/1x1
I0713 13:37:16.858173 25426 net.cpp:91] Creating Layer inception_4e/1x1
I0713 13:37:16.858180 25426 net.cpp:425] inception_4e/1x1 <- inception_4d/output_inception_4d/output_0_split_0
I0713 13:37:16.858189 25426 net.cpp:399] inception_4e/1x1 -> inception_4e/1x1
I0713 13:37:16.863590 25426 net.cpp:141] Setting up inception_4e/1x1
I0713 13:37:16.863611 25426 net.cpp:148] Top shape: 10 256 14 14 (501760)
I0713 13:37:16.863617 25426 net.cpp:156] Memory required for data: 496115200
I0713 13:37:16.863629 25426 layer_factory.hpp:77] Creating layer inception_4e/relu_1x1
I0713 13:37:16.863643 25426 net.cpp:91] Creating Layer inception_4e/relu_1x1
I0713 13:37:16.863651 25426 net.cpp:425] inception_4e/relu_1x1 <- inception_4e/1x1
I0713 13:37:16.863657 25426 net.cpp:386] inception_4e/relu_1x1 -> inception_4e/1x1 (in-place)
I0713 13:37:16.863945 25426 net.cpp:141] Setting up inception_4e/relu_1x1
I0713 13:37:16.863956 25426 net.cpp:148] Top shape: 10 256 14 14 (501760)
I0713 13:37:16.863961 25426 net.cpp:156] Memory required for data: 498122240
I0713 13:37:16.863968 25426 layer_factory.hpp:77] Creating layer inception_4e/3x3_reduce
I0713 13:37:16.863986 25426 net.cpp:91] Creating Layer inception_4e/3x3_reduce
I0713 13:37:16.863992 25426 net.cpp:425] inception_4e/3x3_reduce <- inception_4d/output_inception_4d/output_0_split_1
I0713 13:37:16.864004 25426 net.cpp:399] inception_4e/3x3_reduce -> inception_4e/3x3_reduce
I0713 13:37:16.867092 25426 net.cpp:141] Setting up inception_4e/3x3_reduce
I0713 13:37:16.867111 25426 net.cpp:148] Top shape: 10 160 14 14 (313600)
I0713 13:37:16.867116 25426 net.cpp:156] Memory required for data: 499376640
I0713 13:37:16.867127 25426 layer_factory.hpp:77] Creating layer inception_4e/relu_3x3_reduce
I0713 13:37:16.867141 25426 net.cpp:91] Creating Layer inception_4e/relu_3x3_reduce
I0713 13:37:16.867148 25426 net.cpp:425] inception_4e/relu_3x3_reduce <- inception_4e/3x3_reduce
I0713 13:37:16.867156 25426 net.cpp:386] inception_4e/relu_3x3_reduce -> inception_4e/3x3_reduce (in-place)
I0713 13:37:16.867430 25426 net.cpp:141] Setting up inception_4e/relu_3x3_reduce
I0713 13:37:16.867444 25426 net.cpp:148] Top shape: 10 160 14 14 (313600)
I0713 13:37:16.867447 25426 net.cpp:156] Memory required for data: 500631040
I0713 13:37:16.867454 25426 layer_factory.hpp:77] Creating layer inception_4e/3x3
I0713 13:37:16.867473 25426 net.cpp:91] Creating Layer inception_4e/3x3
I0713 13:37:16.867480 25426 net.cpp:425] inception_4e/3x3 <- inception_4e/3x3_reduce
I0713 13:37:16.867492 25426 net.cpp:399] inception_4e/3x3 -> inception_4e/3x3
I0713 13:37:16.875301 25426 net.cpp:141] Setting up inception_4e/3x3
I0713 13:37:16.875325 25426 net.cpp:148] Top shape: 10 320 14 14 (627200)
I0713 13:37:16.875330 25426 net.cpp:156] Memory required for data: 503139840
I0713 13:37:16.875342 25426 layer_factory.hpp:77] Creating layer inception_4e/relu_3x3
I0713 13:37:16.875352 25426 net.cpp:91] Creating Layer inception_4e/relu_3x3
I0713 13:37:16.875358 25426 net.cpp:425] inception_4e/relu_3x3 <- inception_4e/3x3
I0713 13:37:16.875366 25426 net.cpp:386] inception_4e/relu_3x3 -> inception_4e/3x3 (in-place)
I0713 13:37:16.876191 25426 net.cpp:141] Setting up inception_4e/relu_3x3
I0713 13:37:16.876209 25426 net.cpp:148] Top shape: 10 320 14 14 (627200)
I0713 13:37:16.876214 25426 net.cpp:156] Memory required for data: 505648640
I0713 13:37:16.876219 25426 layer_factory.hpp:77] Creating layer inception_4e/5x5_reduce
I0713 13:37:16.876240 25426 net.cpp:91] Creating Layer inception_4e/5x5_reduce
I0713 13:37:16.876246 25426 net.cpp:425] inception_4e/5x5_reduce <- inception_4d/output_inception_4d/output_0_split_2
I0713 13:37:16.876260 25426 net.cpp:399] inception_4e/5x5_reduce -> inception_4e/5x5_reduce
I0713 13:37:16.878801 25426 net.cpp:141] Setting up inception_4e/5x5_reduce
I0713 13:37:16.878824 25426 net.cpp:148] Top shape: 10 32 14 14 (62720)
I0713 13:37:16.878830 25426 net.cpp:156] Memory required for data: 505899520
I0713 13:37:16.878840 25426 layer_factory.hpp:77] Creating layer inception_4e/relu_5x5_reduce
I0713 13:37:16.878849 25426 net.cpp:91] Creating Layer inception_4e/relu_5x5_reduce
I0713 13:37:16.878856 25426 net.cpp:425] inception_4e/relu_5x5_reduce <- inception_4e/5x5_reduce
I0713 13:37:16.878867 25426 net.cpp:386] inception_4e/relu_5x5_reduce -> inception_4e/5x5_reduce (in-place)
I0713 13:37:16.879145 25426 net.cpp:141] Setting up inception_4e/relu_5x5_reduce
I0713 13:37:16.879158 25426 net.cpp:148] Top shape: 10 32 14 14 (62720)
I0713 13:37:16.879163 25426 net.cpp:156] Memory required for data: 506150400
I0713 13:37:16.879168 25426 layer_factory.hpp:77] Creating layer inception_4e/5x5
I0713 13:37:16.879189 25426 net.cpp:91] Creating Layer inception_4e/5x5
I0713 13:37:16.879196 25426 net.cpp:425] inception_4e/5x5 <- inception_4e/5x5_reduce
I0713 13:37:16.879205 25426 net.cpp:399] inception_4e/5x5 -> inception_4e/5x5
I0713 13:37:16.883636 25426 net.cpp:141] Setting up inception_4e/5x5
I0713 13:37:16.883656 25426 net.cpp:148] Top shape: 10 128 14 14 (250880)
I0713 13:37:16.883661 25426 net.cpp:156] Memory required for data: 507153920
I0713 13:37:16.883673 25426 layer_factory.hpp:77] Creating layer inception_4e/relu_5x5
I0713 13:37:16.883683 25426 net.cpp:91] Creating Layer inception_4e/relu_5x5
I0713 13:37:16.883689 25426 net.cpp:425] inception_4e/relu_5x5 <- inception_4e/5x5
I0713 13:37:16.883700 25426 net.cpp:386] inception_4e/relu_5x5 -> inception_4e/5x5 (in-place)
I0713 13:37:16.883977 25426 net.cpp:141] Setting up inception_4e/relu_5x5
I0713 13:37:16.883990 25426 net.cpp:148] Top shape: 10 128 14 14 (250880)
I0713 13:37:16.883994 25426 net.cpp:156] Memory required for data: 508157440
I0713 13:37:16.884001 25426 layer_factory.hpp:77] Creating layer inception_4e/pool
I0713 13:37:16.884016 25426 net.cpp:91] Creating Layer inception_4e/pool
I0713 13:37:16.884021 25426 net.cpp:425] inception_4e/pool <- inception_4d/output_inception_4d/output_0_split_3
I0713 13:37:16.884030 25426 net.cpp:399] inception_4e/pool -> inception_4e/pool
I0713 13:37:16.884120 25426 net.cpp:141] Setting up inception_4e/pool
I0713 13:37:16.884131 25426 net.cpp:148] Top shape: 10 528 14 14 (1034880)
I0713 13:37:16.884135 25426 net.cpp:156] Memory required for data: 512296960
I0713 13:37:16.884141 25426 layer_factory.hpp:77] Creating layer inception_4e/pool_proj
I0713 13:37:16.884158 25426 net.cpp:91] Creating Layer inception_4e/pool_proj
I0713 13:37:16.884165 25426 net.cpp:425] inception_4e/pool_proj <- inception_4e/pool
I0713 13:37:16.884177 25426 net.cpp:399] inception_4e/pool_proj -> inception_4e/pool_proj
I0713 13:37:16.887163 25426 net.cpp:141] Setting up inception_4e/pool_proj
I0713 13:37:16.887184 25426 net.cpp:148] Top shape: 10 128 14 14 (250880)
I0713 13:37:16.887190 25426 net.cpp:156] Memory required for data: 513300480
I0713 13:37:16.887202 25426 layer_factory.hpp:77] Creating layer inception_4e/relu_pool_proj
I0713 13:37:16.887212 25426 net.cpp:91] Creating Layer inception_4e/relu_pool_proj
I0713 13:37:16.887218 25426 net.cpp:425] inception_4e/relu_pool_proj <- inception_4e/pool_proj
I0713 13:37:16.887225 25426 net.cpp:386] inception_4e/relu_pool_proj -> inception_4e/pool_proj (in-place)
I0713 13:37:16.888041 25426 net.cpp:141] Setting up inception_4e/relu_pool_proj
I0713 13:37:16.888059 25426 net.cpp:148] Top shape: 10 128 14 14 (250880)
I0713 13:37:16.888064 25426 net.cpp:156] Memory required for data: 514304000
I0713 13:37:16.888070 25426 layer_factory.hpp:77] Creating layer inception_4e/output
I0713 13:37:16.888080 25426 net.cpp:91] Creating Layer inception_4e/output
I0713 13:37:16.888087 25426 net.cpp:425] inception_4e/output <- inception_4e/1x1
I0713 13:37:16.888093 25426 net.cpp:425] inception_4e/output <- inception_4e/3x3
I0713 13:37:16.888099 25426 net.cpp:425] inception_4e/output <- inception_4e/5x5
I0713 13:37:16.888105 25426 net.cpp:425] inception_4e/output <- inception_4e/pool_proj
I0713 13:37:16.888113 25426 net.cpp:399] inception_4e/output -> inception_4e/output
I0713 13:37:16.888170 25426 net.cpp:141] Setting up inception_4e/output
I0713 13:37:16.888180 25426 net.cpp:148] Top shape: 10 832 14 14 (1630720)
I0713 13:37:16.888185 25426 net.cpp:156] Memory required for data: 520826880
I0713 13:37:16.888190 25426 layer_factory.hpp:77] Creating layer pool4/3x3_s2
I0713 13:37:16.888201 25426 net.cpp:91] Creating Layer pool4/3x3_s2
I0713 13:37:16.888207 25426 net.cpp:425] pool4/3x3_s2 <- inception_4e/output
I0713 13:37:16.888216 25426 net.cpp:399] pool4/3x3_s2 -> pool4/3x3_s2
I0713 13:37:16.888290 25426 net.cpp:141] Setting up pool4/3x3_s2
I0713 13:37:16.888300 25426 net.cpp:148] Top shape: 10 832 7 7 (407680)
I0713 13:37:16.888305 25426 net.cpp:156] Memory required for data: 522457600
I0713 13:37:16.888310 25426 layer_factory.hpp:77] Creating layer pool4/3x3_s2_pool4/3x3_s2_0_split
I0713 13:37:16.888319 25426 net.cpp:91] Creating Layer pool4/3x3_s2_pool4/3x3_s2_0_split
I0713 13:37:16.888324 25426 net.cpp:425] pool4/3x3_s2_pool4/3x3_s2_0_split <- pool4/3x3_s2
I0713 13:37:16.888334 25426 net.cpp:399] pool4/3x3_s2_pool4/3x3_s2_0_split -> pool4/3x3_s2_pool4/3x3_s2_0_split_0
I0713 13:37:16.888345 25426 net.cpp:399] pool4/3x3_s2_pool4/3x3_s2_0_split -> pool4/3x3_s2_pool4/3x3_s2_0_split_1
I0713 13:37:16.888353 25426 net.cpp:399] pool4/3x3_s2_pool4/3x3_s2_0_split -> pool4/3x3_s2_pool4/3x3_s2_0_split_2
I0713 13:37:16.888361 25426 net.cpp:399] pool4/3x3_s2_pool4/3x3_s2_0_split -> pool4/3x3_s2_pool4/3x3_s2_0_split_3
I0713 13:37:16.888473 25426 net.cpp:141] Setting up pool4/3x3_s2_pool4/3x3_s2_0_split
I0713 13:37:16.888484 25426 net.cpp:148] Top shape: 10 832 7 7 (407680)
I0713 13:37:16.888489 25426 net.cpp:148] Top shape: 10 832 7 7 (407680)
I0713 13:37:16.888494 25426 net.cpp:148] Top shape: 10 832 7 7 (407680)
I0713 13:37:16.888500 25426 net.cpp:148] Top shape: 10 832 7 7 (407680)
I0713 13:37:16.888504 25426 net.cpp:156] Memory required for data: 528980480
I0713 13:37:16.888509 25426 layer_factory.hpp:77] Creating layer inception_5a/1x1
I0713 13:37:16.888530 25426 net.cpp:91] Creating Layer inception_5a/1x1
I0713 13:37:16.888536 25426 net.cpp:425] inception_5a/1x1 <- pool4/3x3_s2_pool4/3x3_s2_0_split_0
I0713 13:37:16.888545 25426 net.cpp:399] inception_5a/1x1 -> inception_5a/1x1
I0713 13:37:16.893909 25426 net.cpp:141] Setting up inception_5a/1x1
I0713 13:37:16.893932 25426 net.cpp:148] Top shape: 10 256 7 7 (125440)
I0713 13:37:16.893939 25426 net.cpp:156] Memory required for data: 529482240
I0713 13:37:16.893949 25426 layer_factory.hpp:77] Creating layer inception_5a/relu_1x1
I0713 13:37:16.893964 25426 net.cpp:91] Creating Layer inception_5a/relu_1x1
I0713 13:37:16.893970 25426 net.cpp:425] inception_5a/relu_1x1 <- inception_5a/1x1
I0713 13:37:16.893980 25426 net.cpp:386] inception_5a/relu_1x1 -> inception_5a/1x1 (in-place)
I0713 13:37:16.894254 25426 net.cpp:141] Setting up inception_5a/relu_1x1
I0713 13:37:16.894266 25426 net.cpp:148] Top shape: 10 256 7 7 (125440)
I0713 13:37:16.894271 25426 net.cpp:156] Memory required for data: 529984000
I0713 13:37:16.894276 25426 layer_factory.hpp:77] Creating layer inception_5a/3x3_reduce
I0713 13:37:16.894294 25426 net.cpp:91] Creating Layer inception_5a/3x3_reduce
I0713 13:37:16.894301 25426 net.cpp:425] inception_5a/3x3_reduce <- pool4/3x3_s2_pool4/3x3_s2_0_split_1
I0713 13:37:16.894314 25426 net.cpp:399] inception_5a/3x3_reduce -> inception_5a/3x3_reduce
I0713 13:37:16.900326 25426 net.cpp:141] Setting up inception_5a/3x3_reduce
I0713 13:37:16.900375 25426 net.cpp:148] Top shape: 10 160 7 7 (78400)
I0713 13:37:16.900382 25426 net.cpp:156] Memory required for data: 530297600
I0713 13:37:16.900398 25426 layer_factory.hpp:77] Creating layer inception_5a/relu_3x3_reduce
I0713 13:37:16.900419 25426 net.cpp:91] Creating Layer inception_5a/relu_3x3_reduce
I0713 13:37:16.900430 25426 net.cpp:425] inception_5a/relu_3x3_reduce <- inception_5a/3x3_reduce
I0713 13:37:16.900442 25426 net.cpp:386] inception_5a/relu_3x3_reduce -> inception_5a/3x3_reduce (in-place)
I0713 13:37:16.900740 25426 net.cpp:141] Setting up inception_5a/relu_3x3_reduce
I0713 13:37:16.900753 25426 net.cpp:148] Top shape: 10 160 7 7 (78400)
I0713 13:37:16.900758 25426 net.cpp:156] Memory required for data: 530611200
I0713 13:37:16.900763 25426 layer_factory.hpp:77] Creating layer inception_5a/3x3
I0713 13:37:16.900791 25426 net.cpp:91] Creating Layer inception_5a/3x3
I0713 13:37:16.900799 25426 net.cpp:425] inception_5a/3x3 <- inception_5a/3x3_reduce
I0713 13:37:16.900809 25426 net.cpp:399] inception_5a/3x3 -> inception_5a/3x3
I0713 13:37:16.910465 25426 net.cpp:141] Setting up inception_5a/3x3
I0713 13:37:16.910490 25426 net.cpp:148] Top shape: 10 320 7 7 (156800)
I0713 13:37:16.910495 25426 net.cpp:156] Memory required for data: 531238400
I0713 13:37:16.910506 25426 layer_factory.hpp:77] Creating layer inception_5a/relu_3x3
I0713 13:37:16.910517 25426 net.cpp:91] Creating Layer inception_5a/relu_3x3
I0713 13:37:16.910524 25426 net.cpp:425] inception_5a/relu_3x3 <- inception_5a/3x3
I0713 13:37:16.910537 25426 net.cpp:386] inception_5a/relu_3x3 -> inception_5a/3x3 (in-place)
I0713 13:37:16.911592 25426 net.cpp:141] Setting up inception_5a/relu_3x3
I0713 13:37:16.911618 25426 net.cpp:148] Top shape: 10 320 7 7 (156800)
I0713 13:37:16.911628 25426 net.cpp:156] Memory required for data: 531865600
I0713 13:37:16.911645 25426 layer_factory.hpp:77] Creating layer inception_5a/5x5_reduce
I0713 13:37:16.911676 25426 net.cpp:91] Creating Layer inception_5a/5x5_reduce
I0713 13:37:16.911692 25426 net.cpp:425] inception_5a/5x5_reduce <- pool4/3x3_s2_pool4/3x3_s2_0_split_2
I0713 13:37:16.911726 25426 net.cpp:399] inception_5a/5x5_reduce -> inception_5a/5x5_reduce
I0713 13:37:16.916057 25426 net.cpp:141] Setting up inception_5a/5x5_reduce
I0713 13:37:16.916087 25426 net.cpp:148] Top shape: 10 32 7 7 (15680)
I0713 13:37:16.916098 25426 net.cpp:156] Memory required for data: 531928320
I0713 13:37:16.916116 25426 layer_factory.hpp:77] Creating layer inception_5a/relu_5x5_reduce
I0713 13:37:16.916152 25426 net.cpp:91] Creating Layer inception_5a/relu_5x5_reduce
I0713 13:37:16.916165 25426 net.cpp:425] inception_5a/relu_5x5_reduce <- inception_5a/5x5_reduce
I0713 13:37:16.916180 25426 net.cpp:386] inception_5a/relu_5x5_reduce -> inception_5a/5x5_reduce (in-place)
I0713 13:37:16.916640 25426 net.cpp:141] Setting up inception_5a/relu_5x5_reduce
I0713 13:37:16.916661 25426 net.cpp:148] Top shape: 10 32 7 7 (15680)
I0713 13:37:16.916669 25426 net.cpp:156] Memory required for data: 531991040
I0713 13:37:16.916678 25426 layer_factory.hpp:77] Creating layer inception_5a/5x5
I0713 13:37:16.916705 25426 net.cpp:91] Creating Layer inception_5a/5x5
I0713 13:37:16.916718 25426 net.cpp:425] inception_5a/5x5 <- inception_5a/5x5_reduce
I0713 13:37:16.916740 25426 net.cpp:399] inception_5a/5x5 -> inception_5a/5x5
I0713 13:37:16.921900 25426 net.cpp:141] Setting up inception_5a/5x5
I0713 13:37:16.921931 25426 net.cpp:148] Top shape: 10 128 7 7 (62720)
I0713 13:37:16.921941 25426 net.cpp:156] Memory required for data: 532241920
I0713 13:37:16.921958 25426 layer_factory.hpp:77] Creating layer inception_5a/relu_5x5
I0713 13:37:16.922029 25426 net.cpp:91] Creating Layer inception_5a/relu_5x5
I0713 13:37:16.922044 25426 net.cpp:425] inception_5a/relu_5x5 <- inception_5a/5x5
I0713 13:37:16.922058 25426 net.cpp:386] inception_5a/relu_5x5 -> inception_5a/5x5 (in-place)
I0713 13:37:16.922504 25426 net.cpp:141] Setting up inception_5a/relu_5x5
I0713 13:37:16.922525 25426 net.cpp:148] Top shape: 10 128 7 7 (62720)
I0713 13:37:16.922534 25426 net.cpp:156] Memory required for data: 532492800
I0713 13:37:16.922545 25426 layer_factory.hpp:77] Creating layer inception_5a/pool
I0713 13:37:16.922566 25426 net.cpp:91] Creating Layer inception_5a/pool
I0713 13:37:16.922579 25426 net.cpp:425] inception_5a/pool <- pool4/3x3_s2_pool4/3x3_s2_0_split_3
I0713 13:37:16.922593 25426 net.cpp:399] inception_5a/pool -> inception_5a/pool
I0713 13:37:16.922755 25426 net.cpp:141] Setting up inception_5a/pool
I0713 13:37:16.922772 25426 net.cpp:148] Top shape: 10 832 7 7 (407680)
I0713 13:37:16.922778 25426 net.cpp:156] Memory required for data: 534123520
I0713 13:37:16.922783 25426 layer_factory.hpp:77] Creating layer inception_5a/pool_proj
I0713 13:37:16.922813 25426 net.cpp:91] Creating Layer inception_5a/pool_proj
I0713 13:37:16.922821 25426 net.cpp:425] inception_5a/pool_proj <- inception_5a/pool
I0713 13:37:16.922830 25426 net.cpp:399] inception_5a/pool_proj -> inception_5a/pool_proj
I0713 13:37:16.927697 25426 net.cpp:141] Setting up inception_5a/pool_proj
I0713 13:37:16.927721 25426 net.cpp:148] Top shape: 10 128 7 7 (62720)
I0713 13:37:16.927727 25426 net.cpp:156] Memory required for data: 534374400
I0713 13:37:16.927739 25426 layer_factory.hpp:77] Creating layer inception_5a/relu_pool_proj
I0713 13:37:16.927752 25426 net.cpp:91] Creating Layer inception_5a/relu_pool_proj
I0713 13:37:16.927768 25426 net.cpp:425] inception_5a/relu_pool_proj <- inception_5a/pool_proj
I0713 13:37:16.927777 25426 net.cpp:386] inception_5a/relu_pool_proj -> inception_5a/pool_proj (in-place)
I0713 13:37:16.928632 25426 net.cpp:141] Setting up inception_5a/relu_pool_proj
I0713 13:37:16.928648 25426 net.cpp:148] Top shape: 10 128 7 7 (62720)
I0713 13:37:16.928653 25426 net.cpp:156] Memory required for data: 534625280
I0713 13:37:16.928659 25426 layer_factory.hpp:77] Creating layer inception_5a/output
I0713 13:37:16.928673 25426 net.cpp:91] Creating Layer inception_5a/output
I0713 13:37:16.928679 25426 net.cpp:425] inception_5a/output <- inception_5a/1x1
I0713 13:37:16.928688 25426 net.cpp:425] inception_5a/output <- inception_5a/3x3
I0713 13:37:16.928694 25426 net.cpp:425] inception_5a/output <- inception_5a/5x5
I0713 13:37:16.928699 25426 net.cpp:425] inception_5a/output <- inception_5a/pool_proj
I0713 13:37:16.928707 25426 net.cpp:399] inception_5a/output -> inception_5a/output
I0713 13:37:16.928776 25426 net.cpp:141] Setting up inception_5a/output
I0713 13:37:16.928787 25426 net.cpp:148] Top shape: 10 832 7 7 (407680)
I0713 13:37:16.928791 25426 net.cpp:156] Memory required for data: 536256000
I0713 13:37:16.928797 25426 layer_factory.hpp:77] Creating layer inception_5a/output_inception_5a/output_0_split
I0713 13:37:16.928807 25426 net.cpp:91] Creating Layer inception_5a/output_inception_5a/output_0_split
I0713 13:37:16.928812 25426 net.cpp:425] inception_5a/output_inception_5a/output_0_split <- inception_5a/output
I0713 13:37:16.928822 25426 net.cpp:399] inception_5a/output_inception_5a/output_0_split -> inception_5a/output_inception_5a/output_0_split_0
I0713 13:37:16.928833 25426 net.cpp:399] inception_5a/output_inception_5a/output_0_split -> inception_5a/output_inception_5a/output_0_split_1
I0713 13:37:16.928841 25426 net.cpp:399] inception_5a/output_inception_5a/output_0_split -> inception_5a/output_inception_5a/output_0_split_2
I0713 13:37:16.928850 25426 net.cpp:399] inception_5a/output_inception_5a/output_0_split -> inception_5a/output_inception_5a/output_0_split_3
I0713 13:37:16.928977 25426 net.cpp:141] Setting up inception_5a/output_inception_5a/output_0_split
I0713 13:37:16.928987 25426 net.cpp:148] Top shape: 10 832 7 7 (407680)
I0713 13:37:16.928992 25426 net.cpp:148] Top shape: 10 832 7 7 (407680)
I0713 13:37:16.928998 25426 net.cpp:148] Top shape: 10 832 7 7 (407680)
I0713 13:37:16.929003 25426 net.cpp:148] Top shape: 10 832 7 7 (407680)
I0713 13:37:16.929008 25426 net.cpp:156] Memory required for data: 542778880
I0713 13:37:16.929013 25426 layer_factory.hpp:77] Creating layer inception_5b/1x1
I0713 13:37:16.929031 25426 net.cpp:91] Creating Layer inception_5b/1x1
I0713 13:37:16.929038 25426 net.cpp:425] inception_5b/1x1 <- inception_5a/output_inception_5a/output_0_split_0
I0713 13:37:16.929047 25426 net.cpp:399] inception_5b/1x1 -> inception_5b/1x1
I0713 13:37:16.935654 25426 net.cpp:141] Setting up inception_5b/1x1
I0713 13:37:16.935679 25426 net.cpp:148] Top shape: 10 384 7 7 (188160)
I0713 13:37:16.935685 25426 net.cpp:156] Memory required for data: 543531520
I0713 13:37:16.935696 25426 layer_factory.hpp:77] Creating layer inception_5b/relu_1x1
I0713 13:37:16.935708 25426 net.cpp:91] Creating Layer inception_5b/relu_1x1
I0713 13:37:16.935719 25426 net.cpp:425] inception_5b/relu_1x1 <- inception_5b/1x1
I0713 13:37:16.935727 25426 net.cpp:386] inception_5b/relu_1x1 -> inception_5b/1x1 (in-place)
I0713 13:37:16.936015 25426 net.cpp:141] Setting up inception_5b/relu_1x1
I0713 13:37:16.936028 25426 net.cpp:148] Top shape: 10 384 7 7 (188160)
I0713 13:37:16.936033 25426 net.cpp:156] Memory required for data: 544284160
I0713 13:37:16.936038 25426 layer_factory.hpp:77] Creating layer inception_5b/3x3_reduce
I0713 13:37:16.936058 25426 net.cpp:91] Creating Layer inception_5b/3x3_reduce
I0713 13:37:16.936064 25426 net.cpp:425] inception_5b/3x3_reduce <- inception_5a/output_inception_5a/output_0_split_1
I0713 13:37:16.936074 25426 net.cpp:399] inception_5b/3x3_reduce -> inception_5b/3x3_reduce
I0713 13:37:16.941136 25426 net.cpp:141] Setting up inception_5b/3x3_reduce
I0713 13:37:16.941159 25426 net.cpp:148] Top shape: 10 192 7 7 (94080)
I0713 13:37:16.941164 25426 net.cpp:156] Memory required for data: 544660480
I0713 13:37:16.941175 25426 layer_factory.hpp:77] Creating layer inception_5b/relu_3x3_reduce
I0713 13:37:16.941190 25426 net.cpp:91] Creating Layer inception_5b/relu_3x3_reduce
I0713 13:37:16.941196 25426 net.cpp:425] inception_5b/relu_3x3_reduce <- inception_5b/3x3_reduce
I0713 13:37:16.941205 25426 net.cpp:386] inception_5b/relu_3x3_reduce -> inception_5b/3x3_reduce (in-place)
I0713 13:37:16.941498 25426 net.cpp:141] Setting up inception_5b/relu_3x3_reduce
I0713 13:37:16.941509 25426 net.cpp:148] Top shape: 10 192 7 7 (94080)
I0713 13:37:16.941514 25426 net.cpp:156] Memory required for data: 545036800
I0713 13:37:16.941519 25426 layer_factory.hpp:77] Creating layer inception_5b/3x3
I0713 13:37:16.941540 25426 net.cpp:91] Creating Layer inception_5b/3x3
I0713 13:37:16.941546 25426 net.cpp:425] inception_5b/3x3 <- inception_5b/3x3_reduce
I0713 13:37:16.941558 25426 net.cpp:399] inception_5b/3x3 -> inception_5b/3x3
I0713 13:37:16.952311 25426 net.cpp:141] Setting up inception_5b/3x3
I0713 13:37:16.952342 25426 net.cpp:148] Top shape: 10 384 7 7 (188160)
I0713 13:37:16.952347 25426 net.cpp:156] Memory required for data: 545789440
I0713 13:37:16.952358 25426 layer_factory.hpp:77] Creating layer inception_5b/relu_3x3
I0713 13:37:16.952373 25426 net.cpp:91] Creating Layer inception_5b/relu_3x3
I0713 13:37:16.952381 25426 net.cpp:425] inception_5b/relu_3x3 <- inception_5b/3x3
I0713 13:37:16.952391 25426 net.cpp:386] inception_5b/relu_3x3 -> inception_5b/3x3 (in-place)
I0713 13:37:16.953253 25426 net.cpp:141] Setting up inception_5b/relu_3x3
I0713 13:37:16.953272 25426 net.cpp:148] Top shape: 10 384 7 7 (188160)
I0713 13:37:16.953279 25426 net.cpp:156] Memory required for data: 546542080
I0713 13:37:16.953284 25426 layer_factory.hpp:77] Creating layer inception_5b/5x5_reduce
I0713 13:37:16.953305 25426 net.cpp:91] Creating Layer inception_5b/5x5_reduce
I0713 13:37:16.953312 25426 net.cpp:425] inception_5b/5x5_reduce <- inception_5a/output_inception_5a/output_0_split_2
I0713 13:37:16.953331 25426 net.cpp:399] inception_5b/5x5_reduce -> inception_5b/5x5_reduce
I0713 13:37:16.956326 25426 net.cpp:141] Setting up inception_5b/5x5_reduce
I0713 13:37:16.956346 25426 net.cpp:148] Top shape: 10 48 7 7 (23520)
I0713 13:37:16.956352 25426 net.cpp:156] Memory required for data: 546636160
I0713 13:37:16.956362 25426 layer_factory.hpp:77] Creating layer inception_5b/relu_5x5_reduce
I0713 13:37:16.956373 25426 net.cpp:91] Creating Layer inception_5b/relu_5x5_reduce
I0713 13:37:16.956380 25426 net.cpp:425] inception_5b/relu_5x5_reduce <- inception_5b/5x5_reduce
I0713 13:37:16.956392 25426 net.cpp:386] inception_5b/relu_5x5_reduce -> inception_5b/5x5_reduce (in-place)
I0713 13:37:16.956671 25426 net.cpp:141] Setting up inception_5b/relu_5x5_reduce
I0713 13:37:16.956683 25426 net.cpp:148] Top shape: 10 48 7 7 (23520)
I0713 13:37:16.956688 25426 net.cpp:156] Memory required for data: 546730240
I0713 13:37:16.956693 25426 layer_factory.hpp:77] Creating layer inception_5b/5x5
I0713 13:37:16.956712 25426 net.cpp:91] Creating Layer inception_5b/5x5
I0713 13:37:16.956717 25426 net.cpp:425] inception_5b/5x5 <- inception_5b/5x5_reduce
I0713 13:37:16.956730 25426 net.cpp:399] inception_5b/5x5 -> inception_5b/5x5
I0713 13:37:16.961570 25426 net.cpp:141] Setting up inception_5b/5x5
I0713 13:37:16.961599 25426 net.cpp:148] Top shape: 10 128 7 7 (62720)
I0713 13:37:16.961606 25426 net.cpp:156] Memory required for data: 546981120
I0713 13:37:16.961617 25426 layer_factory.hpp:77] Creating layer inception_5b/relu_5x5
I0713 13:37:16.961628 25426 net.cpp:91] Creating Layer inception_5b/relu_5x5
I0713 13:37:16.961637 25426 net.cpp:425] inception_5b/relu_5x5 <- inception_5b/5x5
I0713 13:37:16.961654 25426 net.cpp:386] inception_5b/relu_5x5 -> inception_5b/5x5 (in-place)
I0713 13:37:16.961935 25426 net.cpp:141] Setting up inception_5b/relu_5x5
I0713 13:37:16.961948 25426 net.cpp:148] Top shape: 10 128 7 7 (62720)
I0713 13:37:16.961953 25426 net.cpp:156] Memory required for data: 547232000
I0713 13:37:16.961959 25426 layer_factory.hpp:77] Creating layer inception_5b/pool
I0713 13:37:16.961971 25426 net.cpp:91] Creating Layer inception_5b/pool
I0713 13:37:16.961977 25426 net.cpp:425] inception_5b/pool <- inception_5a/output_inception_5a/output_0_split_3
I0713 13:37:16.961985 25426 net.cpp:399] inception_5b/pool -> inception_5b/pool
I0713 13:37:16.962076 25426 net.cpp:141] Setting up inception_5b/pool
I0713 13:37:16.962087 25426 net.cpp:148] Top shape: 10 832 7 7 (407680)
I0713 13:37:16.962091 25426 net.cpp:156] Memory required for data: 548862720
I0713 13:37:16.962097 25426 layer_factory.hpp:77] Creating layer inception_5b/pool_proj
I0713 13:37:16.962116 25426 net.cpp:91] Creating Layer inception_5b/pool_proj
I0713 13:37:16.962121 25426 net.cpp:425] inception_5b/pool_proj <- inception_5b/pool
I0713 13:37:16.962132 25426 net.cpp:399] inception_5b/pool_proj -> inception_5b/pool_proj
I0713 13:37:16.966845 25426 net.cpp:141] Setting up inception_5b/pool_proj
I0713 13:37:16.966867 25426 net.cpp:148] Top shape: 10 128 7 7 (62720)
I0713 13:37:16.966873 25426 net.cpp:156] Memory required for data: 549113600
I0713 13:37:16.966886 25426 layer_factory.hpp:77] Creating layer inception_5b/relu_pool_proj
I0713 13:37:16.966897 25426 net.cpp:91] Creating Layer inception_5b/relu_pool_proj
I0713 13:37:16.966905 25426 net.cpp:425] inception_5b/relu_pool_proj <- inception_5b/pool_proj
I0713 13:37:16.966913 25426 net.cpp:386] inception_5b/relu_pool_proj -> inception_5b/pool_proj (in-place)
I0713 13:37:16.967772 25426 net.cpp:141] Setting up inception_5b/relu_pool_proj
I0713 13:37:16.967792 25426 net.cpp:148] Top shape: 10 128 7 7 (62720)
I0713 13:37:16.967797 25426 net.cpp:156] Memory required for data: 549364480
I0713 13:37:16.967803 25426 layer_factory.hpp:77] Creating layer inception_5b/output
I0713 13:37:16.967814 25426 net.cpp:91] Creating Layer inception_5b/output
I0713 13:37:16.967820 25426 net.cpp:425] inception_5b/output <- inception_5b/1x1
I0713 13:37:16.967828 25426 net.cpp:425] inception_5b/output <- inception_5b/3x3
I0713 13:37:16.967834 25426 net.cpp:425] inception_5b/output <- inception_5b/5x5
I0713 13:37:16.967841 25426 net.cpp:425] inception_5b/output <- inception_5b/pool_proj
I0713 13:37:16.967849 25426 net.cpp:399] inception_5b/output -> inception_5b/output
I0713 13:37:16.967912 25426 net.cpp:141] Setting up inception_5b/output
I0713 13:37:16.967923 25426 net.cpp:148] Top shape: 10 1024 7 7 (501760)
I0713 13:37:16.967927 25426 net.cpp:156] Memory required for data: 551371520
I0713 13:37:16.967933 25426 layer_factory.hpp:77] Creating layer pool5/7x7_s1
I0713 13:37:16.967944 25426 net.cpp:91] Creating Layer pool5/7x7_s1
I0713 13:37:16.967950 25426 net.cpp:425] pool5/7x7_s1 <- inception_5b/output
I0713 13:37:16.967959 25426 net.cpp:399] pool5/7x7_s1 -> pool5/7x7_s1
I0713 13:37:16.968314 25426 net.cpp:141] Setting up pool5/7x7_s1
I0713 13:37:16.968327 25426 net.cpp:148] Top shape: 10 1024 1 1 (10240)
I0713 13:37:16.968333 25426 net.cpp:156] Memory required for data: 551412480
I0713 13:37:16.968338 25426 layer_factory.hpp:77] Creating layer pool5/drop_7x7_s1
I0713 13:37:16.968358 25426 net.cpp:91] Creating Layer pool5/drop_7x7_s1
I0713 13:37:16.968364 25426 net.cpp:425] pool5/drop_7x7_s1 <- pool5/7x7_s1
I0713 13:37:16.968371 25426 net.cpp:386] pool5/drop_7x7_s1 -> pool5/7x7_s1 (in-place)
I0713 13:37:16.968433 25426 net.cpp:141] Setting up pool5/drop_7x7_s1
I0713 13:37:16.968443 25426 net.cpp:148] Top shape: 10 1024 1 1 (10240)
I0713 13:37:16.968448 25426 net.cpp:156] Memory required for data: 551453440
I0713 13:37:16.968453 25426 layer_factory.hpp:77] Creating layer loss3/classifier
I0713 13:37:16.968477 25426 net.cpp:91] Creating Layer loss3/classifier
I0713 13:37:16.968483 25426 net.cpp:425] loss3/classifier <- pool5/7x7_s1
I0713 13:37:16.968492 25426 net.cpp:399] loss3/classifier -> loss3/classifier
I0713 13:37:16.980353 25426 net.cpp:141] Setting up loss3/classifier
I0713 13:37:16.980394 25426 net.cpp:148] Top shape: 10 1000 (10000)
I0713 13:37:16.980401 25426 net.cpp:156] Memory required for data: 551493440
I0713 13:37:16.980413 25426 layer_factory.hpp:77] Creating layer prob
I0713 13:37:16.980428 25426 net.cpp:91] Creating Layer prob
I0713 13:37:16.980437 25426 net.cpp:425] prob <- loss3/classifier
I0713 13:37:16.980450 25426 net.cpp:399] prob -> prob
I0713 13:37:16.982059 25426 net.cpp:141] Setting up prob
I0713 13:37:16.982079 25426 net.cpp:148] Top shape: 10 1000 (10000)
I0713 13:37:16.982084 25426 net.cpp:156] Memory required for data: 551533440
I0713 13:37:16.982089 25426 net.cpp:219] prob does not need backward computation.
I0713 13:37:16.982095 25426 net.cpp:219] loss3/classifier does not need backward computation.
I0713 13:37:16.982100 25426 net.cpp:219] pool5/drop_7x7_s1 does not need backward computation.
I0713 13:37:16.982105 25426 net.cpp:219] pool5/7x7_s1 does not need backward computation.
…
