…
Java HotSpot(TM) 64-Bit Server VM warning: You have loaded library /tmp/cvld7641045841276928651/libopencv_java310.xine1.so which might have disabled stack guard. The VM will try to fix the stack guard now.
It's highly recommended that you fix the library with 'execstack -c <libfile>', or link it with '-z noexecstack'.
WARNING: Logging before InitGoogleLogging() is written to STDERR
I0720 14:07:05.502059 11509 net.cpp:49] Initializing net from parameters: 
name: "CaffeNet"
state {
  phase: TEST
}
layer {
  name: "data"
  type: "Input"
  top: "data"
  input_param {
    shape {
      dim: 10
      dim: 3
      dim: 227
      dim: 227
    }
  }
}
layer {
  name: "conv1"
  type: "Convolution"
  bottom: "data"
  top: "conv1"
  convolution_param {
    num_output: 96
    kernel_size: 11
    stride: 4
  }
}
layer {
  name: "relu1"
  type: "ReLU"
  bottom: "conv1"
  top: "conv1"
}
layer {
  name: "pool1"
  type: "Pooling"
  bottom: "conv1"
  top: "pool1"
  pooling_param {
    pool: MAX
    kernel_size: 3
    stride: 2
  }
}
layer {
  name: "norm1"
  type: "LRN"
  bottom: "pool1"
  top: "norm1"
  lrn_param {
    local_size: 5
    alpha: 0.0001
    beta: 0.75
  }
}
layer {
  name: "conv2"
  type: "Convolution"
  bottom: "norm1"
  top: "conv2"
  convolution_param {
    num_output: 256
    pad: 2
    kernel_size: 5
    group: 2
  }
}
layer {
  name: "relu2"
  type: "ReLU"
  bottom: "conv2"
  top: "conv2"
}
layer {
  name: "pool2"
  type: "Pooling"
  bottom: "conv2"
  top: "pool2"
  pooling_param {
    pool: MAX
    kernel_size: 3
    stride: 2
  }
}
layer {
  name: "norm2"
  type: "LRN"
  bottom: "pool2"
  top: "norm2"
  lrn_param {
    local_size: 5
    alpha: 0.0001
    beta: 0.75
  }
}
layer {
  name: "conv3"
  type: "Convolution"
  bottom: "norm2"
  top: "conv3"
  convolution_param {
    num_output: 384
    pad: 1
    kernel_size: 3
  }
}
layer {
  name: "relu3"
  type: "ReLU"
  bottom: "conv3"
  top: "conv3"
}
layer {
  name: "conv4"
  type: "Convolution"
  bottom: "conv3"
  top: "conv4"
  convolution_param {
    num_output: 384
    pad: 1
    kernel_size: 3
    group: 2
  }
}
layer {
  name: "relu4"
  type: "ReLU"
  bottom: "conv4"
  top: "conv4"
}
layer {
  name: "conv5"
  type: "Convolution"
  bottom: "conv4"
  top: "conv5"
  convolution_param {
    num_output: 256
    pad: 1
    kernel_size: 3
    group: 2
  }
}
layer {
  name: "relu5"
  type: "ReLU"
  bottom: "conv5"
  top: "conv5"
}
layer {
  name: "pool5"
  type: "Pooling"
  bottom: "conv5"
  top: "pool5"
  pooling_param {
    pool: MAX
    kernel_size: 3
    stride: 2
  }
}
layer {
  name: "fc6"
  type: "InnerProduct"
  bottom: "pool5"
  top: "fc6"
  inner_product_param {
    num_output: 4096
  }
}
layer {
  name: "relu6"
  type: "ReLU"
  bottom: "fc6"
  top: "fc6"
}
layer {
  name: "drop6"
  type: "Dropout"
  bottom: "fc6"
  top: "fc6"
  dropout_param {
    dropout_ratio: 0.5
  }
}
layer {
  name: "fc7"
  type: "InnerProduct"
  bottom: "fc6"
  top: "fc7"
  inner_product_param {
    num_output: 4096
  }
}
layer {
  name: "relu7"
  type: "ReLU"
  bottom: "fc7"
  top: "fc7"
}
layer {
  name: "drop7"
  type: "Dropout"
  bottom: "fc7"
  top: "fc7"
  dropout_param {
    dropout_ratio: 0.5
  }
}
layer {
  name: "fc8"
  type: "InnerProduct"
  bottom: "fc7"
  top: "fc8"
  inner_product_param {
    num_output: 1000
  }
}
layer {
  name: "prob"
  type: "Softmax"
  bottom: "fc8"
  top: "prob"
}
I0720 14:07:05.502059 11545 net.cpp:49] Initializing net from parameters: 
name: "CaffeNet"
state {
  phase: TEST
}
layer {
  name: "data"
  type: "Input"
  top: "data"
  input_param {
    shape {
      dim: 10
      dim: 3
      dim: 227
      dim: 227
    }
  }
}
layer {
  name: "conv1"
  type: "Convolution"
  bottom: "data"
  top: "conv1"
  convolution_param {
    num_output: 96
    kernel_size: 11
    stride: 4
  }
}
layer {
  name: "relu1"
  type: "ReLU"
  bottom: "conv1"
  top: "conv1"
}
layer {
  name: "pool1"
  type: "Pooling"
  bottom: "conv1"
  top: "pool1"
  pooling_param {
    pool: MAX
    kernel_size: 3
    stride: 2
  }
}
layer {
  name: "norm1"
  type: "LRN"
  bottom: "pool1"
  top: "norm1"
  lrn_param {
    local_size: 5
    alpha: 0.0001
    beta: 0.75
  }
}
layer {
  name: "conv2"
  type: "Convolution"
  bottom: "norm1"
  top: "conv2"
  convolution_param {
    num_output: 256
    pad: 2
    kernel_size: 5
    group: 2
  }
}
layer {
  name: "relu2"
  type: "ReLU"
  bottom: "conv2"
  top: "conv2"
}
layer {
  name: "pool2"
  type: "Pooling"
  bottom: "conv2"
  top: "pool2"
  pooling_param {
    pool: MAX
    kernel_size: 3
    stride: 2
  }
}
layer {
  name: "norm2"
  type: "LRN"
  bottom: "pool2"
  top: "norm2"
  lrn_param {
    local_size: 5
    alpha: 0.0001
    beta: 0.75
  }
}
layer {
  name: "conv3"
  type: "Convolution"
  bottom: "norm2"
  top: "conv3"
  convolution_param {
    num_output: 384
    pad: 1
    kernel_size: 3
  }
}
layer {
  name: "relu3"
  type: "ReLU"
  bottom: "conv3"
  top: "conv3"
}
layer {
  name: "conv4"
  type: "Convolution"
  bottom: "conv3"
  top: "conv4"
  convolution_param {
    num_output: 384
    pad: 1
    kernel_size: 3
    group: 2
  }
}
layer {
  name: "relu4"
  type: "ReLU"
  bottom: "conv4"
  top: "conv4"
}
layer {
  name: "conv5"
  type: "Convolution"
  bottom: "conv4"
  top: "conv5"
  convolution_param {
    num_output: 256
    pad: 1
    kernel_size: 3
    group: 2
  }
}
layer {
  name: "relu5"
  type: "ReLU"
  bottom: "conv5"
  top: "conv5"
}
layer {
  name: "pool5"
  type: "Pooling"
  bottom: "conv5"
  top: "pool5"
  pooling_param {
    pool: MAX
    kernel_size: 3
    stride: 2
  }
}
layer {
  name: "fc6"
  type: "InnerProduct"
  bottom: "pool5"
  top: "fc6"
  inner_product_param {
    num_output: 4096
  }
}
layer {
  name: "relu6"
  type: "ReLU"
  bottom: "fc6"
  top: "fc6"
}
layer {
  name: "drop6"
  type: "Dropout"
  bottom: "fc6"
  top: "fc6"
  dropout_param {
    dropout_ratio: 0.5
  }
}
layer {
  name: "fc7"
  type: "InnerProduct"
  bottom: "fc6"
  top: "fc7"
  inner_product_param {
    num_output: 4096
  }
}
layer {
  name: "relu7"
  type: "ReLU"
  bottom: "fc7"
  top: "fc7"
}
layer {
  name: "drop7"
  type: "Dropout"
  bottom: "fc7"
  top: "fc7"
  dropout_param {
    dropout_ratio: 0.5
  }
}
layer {
  name: "fc8"
  type: "InnerProduct"
  bottom: "fc7"
  top: "fc8"
  inner_product_param {
    num_output: 1000
  }
}
layer {
  name: "prob"
  type: "Softmax"
  bottom: "fc8"
  top: "prob"
}
I0720 14:07:05.502059 11543 net.cpp:49] Initializing net from parameters: 
name: "CaffeNet"
state {
  phase: TEST
}
layer {
  name: "data"
  type: "Input"
  top: "data"
  input_param {
    shape {
      dim: 10
      dim: 3
      dim: 227
      dim: 227
    }
  }
}
layer {
  name: "conv1"
  type: "Convolution"
  bottom: "data"
  top: "conv1"
  convolution_param {
    num_output: 96
    kernel_size: 11
    stride: 4
  }
}
layer {
  name: "relu1"
  type: "ReLU"
  bottom: "conv1"
  top: "conv1"
}
layer {
  name: "pool1"
  type: "Pooling"
  bottom: "conv1"
  top: "pool1"
  pooling_param {
    pool: MAX
    kernel_size: 3
    stride: 2
  }
}
layer {
  name: "norm1"
  type: "LRN"
  bottom: "pool1"
  top: "norm1"
  lrn_param {
    local_size: 5
    alpha: 0.0001
    beta: 0.75
  }
}
layer {
  name: "conv2"
  type: "Convolution"
  bottom: "norm1"
  top: "conv2"
  convolution_param {
    num_output: 256
    pad: 2
    kernel_size: 5
    group: 2
  }
}
layer {
  name: "relu2"
  type: "ReLU"
  bottom: "conv2"
  top: "conv2"
}
layer {
  name: "pool2"
  type: "Pooling"
  bottom: "conv2"
  top: "pool2"
  pooling_param {
    pool: MAX
    kernel_size: 3
    stride: 2
  }
}
layer {
  name: "norm2"
  type: "LRN"
  bottom: "pool2"
  top: "norm2"
  lrn_param {
    local_size: 5
    alpha: 0.0001
    beta: 0.75
  }
}
layer {
  name: "conv3"
  type: "Convolution"
  bottom: "norm2"
  top: "conv3"
  convolution_param {
    num_output: 384
    pad: 1
    kernel_size: 3
  }
}
layer {
  name: "relu3"
  type: "ReLU"
  bottom: "conv3"
  top: "conv3"
}
layer {
  name: "conv4"
  type: "Convolution"
  bottom: "conv3"
  top: "conv4"
  convolution_param {
    num_output: 384
    pad: 1
    kernel_size: 3
    group: 2
  }
}
layer {
  name: "relu4"
  type: "ReLU"
  bottom: "conv4"
  top: "conv4"
}
layer {
  name: "conv5"
  type: "Convolution"
  bottom: "conv4"
  top: "conv5"
  convolution_param {
    num_output: 256
    pad: 1
    kernel_size: 3
    group: 2
  }
}
layer {
  name: "relu5"
  type: "ReLU"
  bottom: "conv5"
  top: "conv5"
}
layer {
  name: "pool5"
  type: "Pooling"
  bottom: "conv5"
  top: "pool5"
  pooling_param {
    pool: MAX
    kernel_size: 3
    stride: 2
  }
}
layer {
  name: "fc6"
  type: "InnerProduct"
  bottom: "pool5"
  top: "fc6"
  inner_product_param {
    num_output: 4096
  }
}
layer {
  name: "relu6"
  type: "ReLU"
  bottom: "fc6"
  top: "fc6"
}
layer {
  name: "drop6"
  type: "Dropout"
  bottom: "fc6"
  top: "fc6"
  dropout_param {
    dropout_ratio: 0.5
  }
}
layer {
  name: "fc7"
  type: "InnerProduct"
  bottom: "fc6"
  top: "fc7"
  inner_product_param {
    num_output: 4096
  }
}
layer {
  name: "relu7"
  type: "ReLU"
  bottom: "fc7"
  top: "fc7"
}
layer {
  name: "drop7"
  type: "Dropout"
  bottom: "fc7"
  top: "fc7"
  dropout_param {
    dropout_ratio: 0.5
  }
}
layer {
  name: "fc8"
  type: "InnerProduct"
  bottom: "fc7"
  top: "fc8"
  inner_product_param {
    num_output: 1000
  }
}
layer {
  name: "prob"
  type: "Softmax"
  bottom: "fc8"
  top: "prob"
}
I0720 14:07:05.502059 11525 net.cpp:49] Initializing net from parameters: 
name: "CaffeNet"
state {
  phase: TEST
}
layer {
  name: "data"
  type: "Input"
  top: "data"
  input_param {
    shape {
      dim: 10
      dim: 3
      dim: 227
      dim: 227
    }
  }
}
layer {
  name: "conv1"
  type: "Convolution"
  bottom: "data"
  top: "conv1"
  convolution_param {
    num_output: 96
    kernel_size: 11
    stride: 4
  }
}
layer {
  name: "relu1"
  type: "ReLU"
  bottom: "conv1"
  top: "conv1"
}
layer {
  name: "pool1"
  type: "Pooling"
  bottom: "conv1"
  top: "pool1"
  pooling_param {
    pool: MAX
    kernel_size: 3
    stride: 2
  }
}
layer {
  name: "norm1"
  type: "LRN"
  bottom: "pool1"
  top: "norm1"
  lrn_param {
    local_size: 5
    alpha: 0.0001
    beta: 0.75
  }
}
layer {
  name: "conv2"
  type: "Convolution"
  bottom: "norm1"
  top: "conv2"
  convolution_param {
    num_output: 256
    pad: 2
    kernel_size: 5
    group: 2
  }
}
layer {
  name: "relu2"
  type: "ReLU"
  bottom: "conv2"
  top: "conv2"
}
layer {
  name: "pool2"
  type: "Pooling"
  bottom: "conv2"
  top: "pool2"
  pooling_param {
    pool: MAX
    kernel_size: 3
    stride: 2
  }
}
layer {
  name: "norm2"
  type: "LRN"
  bottom: "pool2"
  top: "norm2"
  lrn_param {
    local_size: 5
    alpha: 0.0001
    beta: 0.75
  }
}
layer {
  name: "conv3"
  type: "Convolution"
  bottom: "norm2"
  top: "conv3"
  convolution_param {
    num_output: 384
    pad: 1
    kernel_size: 3
  }
}
layer {
  name: "relu3"
  type: "ReLU"
  bottom: "conv3"
  top: "conv3"
}
layer {
  name: "conv4"
  type: "Convolution"
  bottom: "conv3"
  top: "conv4"
  convolution_param {
    num_output: 384
    pad: 1
    kernel_size: 3
    group: 2
  }
}
layer {
  name: "relu4"
  type: "ReLU"
  bottom: "conv4"
  top: "conv4"
}
layer {
  name: "conv5"
  type: "Convolution"
  bottom: "conv4"
  top: "conv5"
  convolution_param {
    num_output: 256
    pad: 1
    kernel_size: 3
    group: 2
  }
}
layer {
  name: "relu5"
  type: "ReLU"
  bottom: "conv5"
  top: "conv5"
}
layer {
  name: "pool5"
  type: "Pooling"
  bottom: "conv5"
  top: "pool5"
  pooling_param {
    pool: MAX
    kernel_size: 3
    stride: 2
  }
}
layer {
  name: "fc6"
  type: "InnerProduct"
  bottom: "pool5"
  top: "fc6"
  inner_product_param {
    num_output: 4096
  }
}
layer {
  name: "relu6"
  type: "ReLU"
  bottom: "fc6"
  top: "fc6"
}
layer {
  name: "drop6"
  type: "Dropout"
  bottom: "fc6"
  top: "fc6"
  dropout_param {
    dropout_ratio: 0.5
  }
}
layer {
  name: "fc7"
  type: "InnerProduct"
  bottom: "fc6"
  top: "fc7"
  inner_product_param {
    num_output: 4096
  }
}
layer {
  name: "relu7"
  type: "ReLU"
  bottom: "fc7"
  top: "fc7"
}
layer {
  name: "drop7"
  type: "Dropout"
  bottom: "fc7"
  top: "fc7"
  dropout_param {
    dropout_ratio: 0.5
  }
}
layer {
  name: "fc8"
  type: "InnerProduct"
  bottom: "fc7"
  top: "fc8"
  inner_product_param {
    num_output: 1000
  }
}
layer {
  name: "prob"
  type: "Softmax"
  bottom: "fc8"
  top: "prob"
}
I0720 14:07:05.502059 11537 net.cpp:49] Initializing net from parameters: 
name: "CaffeNet"
state {
  phase: TEST
}
layer {
  name: "data"
  type: "Input"
  top: "data"
  input_param {
    shape {
      dim: 10
      dim: 3
      dim: 227
      dim: 227
    }
  }
}
layer {
  name: "conv1"
  type: "Convolution"
  bottom: "data"
  top: "conv1"
  convolution_param {
    num_output: 96
    kernel_size: 11
    stride: 4
  }
}
layer {
  name: "relu1"
  type: "ReLU"
  bottom: "conv1"
  top: "conv1"
}
layer {
  name: "pool1"
  type: "Pooling"
  bottom: "conv1"
  top: "pool1"
  pooling_param {
    pool: MAX
    kernel_size: 3
    stride: 2
  }
}
layer {
  name: "norm1"
  type: "LRN"
  bottom: "pool1"
  top: "norm1"
  lrn_param {
    local_size: 5
    alpha: 0.0001
    beta: 0.75
  }
}
layer {
  name: "conv2"
  type: "Convolution"
  bottom: "norm1"
  top: "conv2"
  convolution_param {
    num_output: 256
    pad: 2
    kernel_size: 5
    group: 2
  }
}
layer {
  name: "relu2"
  type: "ReLU"
  bottom: "conv2"
  top: "conv2"
}
layer {
  name: "pool2"
  type: "Pooling"
  bottom: "conv2"
  top: "pool2"
  pooling_param {
    pool: MAX
    kernel_size: 3
    stride: 2
  }
}
layer {
  name: "norm2"
  type: "LRN"
  bottom: "pool2"
  top: "norm2"
  lrn_param {
    local_size: 5
    alpha: 0.0001
    beta: 0.75
  }
}
layer {
  name: "conv3"
  type: "Convolution"
  bottom: "norm2"
  top: "conv3"
  convolution_param {
    num_output: 384
    pad: 1
    kernel_size: 3
  }
}
layer {
  name: "relu3"
  type: "ReLU"
  bottom: "conv3"
  top: "conv3"
}
layer {
  name: "conv4"
  type: "Convolution"
  bottom: "conv3"
  top: "conv4"
  convolution_param {
    num_output: 384
    pad: 1
    kernel_size: 3
    group: 2
  }
}
layer {
  name: "relu4"
  type: "ReLU"
  bottom: "conv4"
  top: "conv4"
}
layer {
  name: "conv5"
  type: "Convolution"
  bottom: "conv4"
  top: "conv5"
  convolution_param {
    num_output: 256
    pad: 1
    kernel_size: 3
    group: 2
  }
}
layer {
  name: "relu5"
  type: "ReLU"
  bottom: "conv5"
  top: "conv5"
}
layer {
  name: "pool5"
  type: "Pooling"
  bottom: "conv5"
  top: "pool5"
  pooling_param {
    pool: MAX
    kernel_size: 3
    stride: 2
  }
}
layer {
  name: "fc6"
  type: "InnerProduct"
  bottom: "pool5"
  top: "fc6"
  inner_product_param {
    num_output: 4096
  }
}
layer {
  name: "relu6"
  type: "ReLU"
  bottom: "fc6"
  top: "fc6"
}
layer {
  name: "drop6"
  type: "Dropout"
  bottom: "fc6"
  top: "fc6"
  dropout_param {
    dropout_ratio: 0.5
  }
}
layer {
  name: "fc7"
  type: "InnerProduct"
  bottom: "fc6"
  top: "fc7"
  inner_product_param {
    num_output: 4096
  }
}
layer {
  name: "relu7"
  type: "ReLU"
  bottom: "fc7"
  top: "fc7"
}
layer {
  name: "drop7"
  type: "Dropout"
  bottom: "fc7"
  top: "fc7"
  dropout_param {
    dropout_ratio: 0.5
  }
}
layer {
  name: "fc8"
  type: "InnerProduct"
  bottom: "fc7"
  top: "fc8"
  inner_product_param {
    num_output: 1000
  }
}
layer {
  name: "prob"
  type: "Softmax"
  bottom: "fc8"
  top: "prob"
}
I0720 14:07:05.502331 11509 layer_factory.hpp:77] Creating layer data
I0720 14:07:05.502334 11545 layer_factory.hpp:77] Creating layer data
I0720 14:07:05.502059 11519 net.cpp:49] Initializing net from parameters: 
name: "CaffeNet"
state {
  phase: TEST
}
layer {
  name: "data"
  type: "Input"
  top: "data"
  input_param {
    shape {
      dim: 10
      dim: 3
      dim: 227
      dim: 227
    }
  }
}
layer {
  name: "conv1"
  type: "Convolution"
  bottom: "data"
  top: "conv1"
  convolution_param {
    num_output: 96
    kernel_size: 11
    stride: 4
  }
}
layer {
  name: "relu1"
  type: "ReLU"
  bottom: "conv1"
  top: "conv1"
}
layer {
  name: "pool1"
  type: "Pooling"
  bottom: "conv1"
  top: "pool1"
  pooling_param {
    pool: MAX
    kernel_size: 3
    stride: 2
  }
}
layer {
  name: "norm1"
  type: "LRN"
  bottom: "pool1"
  top: "norm1"
  lrn_param {
    local_size: 5
    alpha: 0.0001
    beta: 0.75
  }
}
layer {
  name: "conv2"
  type: "Convolution"
  bottom: "norm1"
  top: "conv2"
  convolution_param {
    num_output: 256
    pad: 2
    kernel_size: 5
    group: 2
  }
}
layer {
  name: "relu2"
  type: "ReLU"
  bottom: "conv2"
  top: "conv2"
}
layer {
  name: "pool2"
  type: "Pooling"
  bottom: "conv2"
  top: "pool2"
  pooling_param {
    pool: MAX
    kernel_size: 3
    stride: 2
  }
}
layer {
  name: "norm2"
  type: "LRN"
  bottom: "pool2"
  top: "norm2"
  lrn_param {
    local_size: 5
    alpha: 0.0001
    beta: 0.75
  }
}
layer {
  name: "conv3"
  type: "Convolution"
  bottom: "norm2"
  top: "conv3"
  convolution_param {
    num_output: 384
    pad: 1
    kernel_size: 3
  }
}
layer {
  name: "relu3"
  type: "ReLU"
  bottom: "conv3"
  top: "conv3"
}
layer {
  name: "conv4"
  type: "Convolution"
  bottom: "conv3"
  top: "conv4"
  convolution_param {
    num_output: 384
    pad: 1
    kernel_size: 3
    group: 2
  }
}
layer {
  name: "relu4"
  type: "ReLU"
  bottom: "conv4"
  top: "conv4"
}
layer {
  name: "conv5"
  type: "Convolution"
  bottom: "conv4"
  top: "conv5"
  convolution_param {
    num_output: 256
    pad: 1
    kernel_size: 3
    group: 2
  }
}
layer {
  name: "relu5"
  type: "ReLU"
  bottom: "conv5"
  top: "conv5"
}
layer {
  name: "pool5"
  type: "Pooling"
  bottom: "conv5"
  top: "pool5"
  pooling_param {
    pool: MAX
    kernel_size: 3
    stride: 2
  }
}
layer {
  name: "fc6"
  type: "InnerProduct"
  bottom: "pool5"
  top: "fc6"
  inner_product_param {
    num_output: 4096
  }
}
layer {
  name: "relu6"
  type: "ReLU"
  bottom: "fc6"
  top: "fc6"
}
layer {
  name: "drop6"
  type: "Dropout"
  bottom: "fc6"
  top: "fc6"
  dropout_param {
    dropout_ratio: 0.5
  }
}
layer {
  name: "fc7"
  type: "InnerProduct"
  bottom: "fc6"
  top: "fc7"
  inner_product_param {
    num_output: 4096
  }
}
layer {
  name: "relu7"
  type: "ReLU"
  bottom: "fc7"
  top: "fc7"
}
layer {
  name: "drop7"
  type: "Dropout"
  bottom: "fc7"
  top: "fc7"
  dropout_param {
    dropout_ratio: 0.5
  }
}
layer {
  name: "fc8"
  type: "InnerProduct"
  bottom: "fc7"
  top: "fc8"
  inner_product_param {
    num_output: 1000
  }
}
layer {
  name: "prob"
  type: "Softmax"
  bottom: "fc8"
  top: "prob"
}
I0720 14:07:05.502369 11545 net.cpp:91] Creating Layer data
I0720 14:07:05.502336 11543 layer_factory.hpp:77] Creating layer data
I0720 14:07:05.502385 11545 net.cpp:399] data -> data
I0720 14:07:05.502339 11537 layer_factory.hpp:77] Creating layer data
I0720 14:07:05.502369 11509 net.cpp:91] Creating Layer data
I0720 14:07:05.502401 11543 net.cpp:91] Creating Layer data
I0720 14:07:05.502408 11537 net.cpp:91] Creating Layer data
I0720 14:07:05.502413 11509 net.cpp:399] data -> data
I0720 14:07:05.502421 11537 net.cpp:399] data -> data
I0720 14:07:05.502415 11543 net.cpp:399] data -> data
I0720 14:07:05.502454 11545 net.cpp:141] Setting up data
I0720 14:07:05.502454 11537 net.cpp:141] Setting up data
I0720 14:07:05.502333 11525 layer_factory.hpp:77] Creating layer data
I0720 14:07:05.502454 11543 net.cpp:141] Setting up data
I0720 14:07:05.502496 11525 net.cpp:91] Creating Layer data
I0720 14:07:05.502454 11509 net.cpp:141] Setting up data
I0720 14:07:05.502508 11525 net.cpp:399] data -> data
I0720 14:07:05.502521 11545 net.cpp:148] Top shape: 10 3 227 227 (1545870)
I0720 14:07:05.502521 11509 net.cpp:148] Top shape: 10 3 227 227 (1545870)
I0720 14:07:05.502539 11545 net.cpp:156] Memory required for data: 6183480
I0720 14:07:05.502550 11509 net.cpp:156] Memory required for data: 6183480
I0720 14:07:05.502521 11537 net.cpp:148] Top shape: 10 3 227 227 (1545870)
I0720 14:07:05.502059 11539 net.cpp:49] Initializing net from parameters: 
name: "CaffeNet"
state {
  phase: TEST
}
layer {
  name: "data"
  type: "Input"
  top: "data"
  input_param {
    shape {
      dim: 10
      dim: 3
      dim: 227
      dim: 227
    }
  }
}
layer {
  name: "conv1"
  type: "Convolution"
  bottom: "data"
  top: "conv1"
  convolution_param {
    num_output: 96
    kernel_size: 11
    stride: 4
  }
}
layer {
  name: "relu1"
  type: "ReLU"
  bottom: "conv1"
  top: "conv1"
}
layer {
  name: "pool1"
  type: "Pooling"
  bottom: "conv1"
  top: "pool1"
  pooling_param {
    pool: MAX
    kernel_size: 3
    stride: 2
  }
}
layer {
  name: "norm1"
  type: "LRN"
  bottom: "pool1"
  top: "norm1"
  lrn_param {
    local_size: 5
    alpha: 0.0001
    beta: 0.75
  }
}
layer {
  name: "conv2"
  type: "Convolution"
  bottom: "norm1"
  top: "conv2"
  convolution_param {
    num_output: 256
    pad: 2
    kernel_size: 5
    group: 2
  }
}
layer {
  name: "relu2"
  type: "ReLU"
  bottom: "conv2"
  top: "conv2"
}
layer {
  name: "pool2"
  type: "Pooling"
  bottom: "conv2"
  top: "pool2"
  pooling_param {
    pool: MAX
    kernel_size: 3
    stride: 2
  }
}
layer {
  name: "norm2"
  type: "LRN"
  bottom: "pool2"
  top: "norm2"
  lrn_param {
    local_size: 5
    alpha: 0.0001
    beta: 0.75
  }
}
layer {
  name: "conv3"
  type: "Convolution"
  bottom: "norm2"
  top: "conv3"
  convolution_param {
    num_output: 384
    pad: 1
    kernel_size: 3
  }
}
layer {
  name: "relu3"
  type: "ReLU"
  bottom: "conv3"
  top: "conv3"
}
layer {
  name: "conv4"
  type: "Convolution"
  bottom: "conv3"
  top: "conv4"
  convolution_param {
    num_output: 384
    pad: 1
    kernel_size: 3
    group: 2
  }
}
layer {
  name: "relu4"
  type: "ReLU"
  bottom: "conv4"
  top: "conv4"
}
layer {
  name: "conv5"
  type: "Convolution"
  bottom: "conv4"
  top: "conv5"
  convolution_param {
    num_output: 256
    pad: 1
    kernel_size: 3
    group: 2
  }
}
layer {
  name: "relu5"
  type: "ReLU"
  bottom: "conv5"
  top: "conv5"
}
layer {
  name: "pool5"
  type: "Pooling"
  bottom: "conv5"
  top: "pool5"
  pooling_param {
    pool: MAX
    kernel_size: 3
    stride: 2
  }
}
layer {
  name: "fc6"
  type: "InnerProduct"
  bottom: "pool5"
  top: "fc6"
  inner_product_param {
    num_output: 4096
  }
}
layer {
  name: "relu6"
  type: "ReLU"
  bottom: "fc6"
  top: "fc6"
}
layer {
  name: "drop6"
  type: "Dropout"
  bottom: "fc6"
  top: "fc6"
  dropout_param {
    dropout_ratio: 0.5
  }
}
layer {
  name: "fc7"
  type: "InnerProduct"
  bottom: "fc6"
  top: "fc7"
  inner_product_param {
    num_output: 4096
  }
}
layer {
  name: "relu7"
  type: "ReLU"
  bottom: "fc7"
  top: "fc7"
}
layer {
  name: "drop7"
  type: "Dropout"
  bottom: "fc7"
  top: "fc7"
  dropout_param {
    dropout_ratio: 0.5
  }
}
layer {
  name: "fc8"
  type: "InnerProduct"
  bottom: "fc7"
  top: "fc8"
  inner_product_param {
    num_output: 1000
  }
}
layer {
  name: "prob"
  type: "Softmax"
  bottom: "fc8"
  top: "prob"
}
I0720 14:07:05.502526 11525 net.cpp:141] Setting up data
I0720 14:07:05.502521 11543 net.cpp:148] Top shape: 10 3 227 227 (1545870)
I0720 14:07:05.502560 11545 layer_factory.hpp:77] Creating layer conv1
I0720 14:07:05.502585 11525 net.cpp:148] Top shape: 10 3 227 227 (1545870)
I0720 14:07:05.502586 11543 net.cpp:156] Memory required for data: 6183480
I0720 14:07:05.502564 11509 layer_factory.hpp:77] Creating layer conv1
I0720 14:07:05.502599 11525 net.cpp:156] Memory required for data: 6183480
I0720 14:07:05.502600 11543 layer_factory.hpp:77] Creating layer conv1
I0720 14:07:05.502609 11525 layer_factory.hpp:77] Creating layer conv1
I0720 14:07:05.502573 11537 net.cpp:156] Memory required for data: 6183480
…
I0720 14:07:05.502646 11543 net.cpp:425] conv1 <- data
I0720 14:07:05.502665 11537 net.cpp:425] conv1 <- data
I0720 14:07:05.502670 11525 net.cpp:399] conv1 -> conv1
I0720 14:07:05.502674 11543 net.cpp:399] conv1 -> conv1
I0720 14:07:05.502665 11509 net.cpp:399] conv1 -> conv1
I0720 14:07:05.502696 11537 net.cpp:399] conv1 -> conv1
I0720 14:07:05.502709 11539 layer_factory.hpp:77] Creating layer data
I0720 14:07:05.502725 11539 net.cpp:91] Creating Layer data
I0720 14:07:05.502737 11539 net.cpp:399] data -> data
I0720 14:07:05.502758 11539 net.cpp:141] Setting up data
I0720 14:07:05.502770 11539 net.cpp:148] Top shape: 10 3 227 227 (1545870)
I0720 14:07:05.502780 11539 net.cpp:156] Memory required for data: 6183480
I0720 14:07:05.502471 11519 layer_factory.hpp:77] Creating layer data
I0720 14:07:05.502789 11539 layer_factory.hpp:77] Creating layer conv1
I0720 14:07:05.502706 11545 net.cpp:91] Creating Layer conv1
I0720 14:07:05.502805 11539 net.cpp:91] Creating Layer conv1
I0720 14:07:05.502806 11519 net.cpp:91] Creating Layer data
I0720 14:07:05.502815 11539 net.cpp:425] conv1 <- data
I0720 14:07:05.502820 11519 net.cpp:399] data -> data
I0720 14:07:05.502828 11539 net.cpp:399] conv1 -> conv1
I0720 14:07:05.502840 11519 net.cpp:141] Setting up data
I0720 14:07:05.502853 11519 net.cpp:148] Top shape: 10 3 227 227 (1545870)
I0720 14:07:05.502861 11519 net.cpp:156] Memory required for data: 6183480
I0720 14:07:05.502871 11519 layer_factory.hpp:77] Creating layer conv1
I0720 14:07:05.502887 11519 net.cpp:91] Creating Layer conv1
I0720 14:07:05.502892 11545 net.cpp:425] conv1 <- data
I0720 14:07:05.502918 11545 net.cpp:399] conv1 -> conv1
I0720 14:07:05.502897 11519 net.cpp:425] conv1 <- data
I0720 14:07:05.502962 11519 net.cpp:399] conv1 -> conv1
I0720 14:07:05.502059 11531 net.cpp:49] Initializing net from parameters: 
name: "CaffeNet"
state {
  phase: TEST
}
layer {
  name: "data"
  type: "Input"
  top: "data"
  input_param {
    shape {
      dim: 10
      dim: 3
      dim: 227
      dim: 227
    }
  }
}
layer {
  name: "conv1"
  type: "Convolution"
  bottom: "data"
  top: "conv1"
  convolution_param {
    num_output: 96
    kernel_size: 11
    stride: 4
  }
}
layer {
  name: "relu1"
  type: "ReLU"
  bottom: "conv1"
  top: "conv1"
}
layer {
  name: "pool1"
  type: "Pooling"
  bottom: "conv1"
  top: "pool1"
  pooling_param {
    pool: MAX
    kernel_size: 3
    stride: 2
  }
}
layer {
  name: "norm1"
  type: "LRN"
  bottom: "pool1"
  top: "norm1"
  lrn_param {
    local_size: 5
    alpha: 0.0001
    beta: 0.75
  }
}
layer {
  name: "conv2"
  type: "Convolution"
  bottom: "norm1"
  top: "conv2"
  convolution_param {
    num_output: 256
    pad: 2
    kernel_size: 5
    group: 2
  }
}
layer {
  name: "relu2"
  type: "ReLU"
  bottom: "conv2"
  top: "conv2"
}
layer {
  name: "pool2"
  type: "Pooling"
  bottom: "conv2"
  top: "pool2"
  pooling_param {
    pool: MAX
    kernel_size: 3
    stride: 2
  }
}
layer {
  name: "norm2"
  type: "LRN"
  bottom: "pool2"
  top: "norm2"
  lrn_param {
    local_size: 5
    alpha: 0.0001
    beta: 0.75
  }
}
layer {
  name: "conv3"
  type: "Convolution"
  bottom: "norm2"
  top: "conv3"
  convolution_param {
    num_output: 384
    pad: 1
    kernel_size: 3
  }
}
layer {
  name: "relu3"
  type: "ReLU"
  bottom: "conv3"
  top: "conv3"
}
layer {
  name: "conv4"
  type: "Convolution"
  bottom: "conv3"
  top: "conv4"
  convolution_param {
    num_output: 384
    pad: 1
    kernel_size: 3
    group: 2
  }
}
layer {
  name: "relu4"
  type: "ReLU"
  bottom: "conv4"
  top: "conv4"
}
layer {
  name: "conv5"
  type: "Convolution"
  bottom: "conv4"
  top: "conv5"
  convolution_param {
    num_output: 256
    pad: 1
    kernel_size: 3
    group: 2
  }
}
layer {
  name: "relu5"
  type: "ReLU"
  bottom: "conv5"
  top: "conv5"
}
layer {
  name: "pool5"
  type: "Pooling"
  bottom: "conv5"
  top: "pool5"
  pooling_param {
    pool: MAX
    kernel_size: 3
    stride: 2
  }
}
layer {
  name: "fc6"
  type: "InnerProduct"
  bottom: "pool5"
  top: "fc6"
  inner_product_param {
    num_output: 4096
  }
}
layer {
  name: "relu6"
  type: "ReLU"
  bottom: "fc6"
  top: "fc6"
}
layer {
  name: "drop6"
  type: "Dropout"
  bottom: "fc6"
  top: "fc6"
  dropout_param {
    dropout_ratio: 0.5
  }
}
layer {
  name: "fc7"
  type: "InnerProduct"
  bottom: "fc6"
  top: "fc7"
  inner_product_param {
    num_output: 4096
  }
}
layer {
  name: "relu7"
  type: "ReLU"
  bottom: "fc7"
  top: "fc7"
}
layer {
  name: "drop7"
  type: "Dropout"
  bottom: "fc7"
  top: "fc7"
  dropout_param {
    dropout_ratio: 0.5
  }
}
layer {
  name: "fc8"
  type: "InnerProduct"
  bottom: "fc7"
  top: "fc8"
  inner_product_param {
    num_output: 1000
  }
}
layer {
  name: "prob"
  type: "Softmax"
  bottom: "fc8"
  top: "prob"
}
I0720 14:07:05.503018 11533 net.cpp:49] Initializing net from parameters: 
name: "CaffeNet"
state {
  phase: TEST
}
layer {
  name: "data"
  type: "Input"
  top: "data"
  input_param {
    shape {
      dim: 10
      dim: 3
      dim: 227
      dim: 227
    }
  }
}
layer {
  name: "conv1"
  type: "Convolution"
  bottom: "data"
  top: "conv1"
  convolution_param {
    num_output: 96
    kernel_size: 11
    stride: 4
  }
}
layer {
  name: "relu1"
  type: "ReLU"
  bottom: "conv1"
  top: "conv1"
}
layer {
  name: "pool1"
  type: "Pooling"
  bottom: "conv1"
  top: "pool1"
  pooling_param {
    pool: MAX
    kernel_size: 3
    stride: 2
  }
}
layer {
  name: "norm1"
  type: "LRN"
  bottom: "pool1"
  top: "norm1"
  lrn_param {
    local_size: 5
    alpha: 0.0001
    beta: 0.75
  }
}
layer {
  name: "conv2"
  type: "Convolution"
  bottom: "norm1"
  top: "conv2"
  convolution_param {
    num_output: 256
    pad: 2
    kernel_size: 5
    group: 2
  }
}
layer {
  name: "relu2"
  type: "ReLU"
  bottom: "conv2"
  top: "conv2"
}
layer {
  name: "pool2"
  type: "Pooling"
  bottom: "conv2"
  top: "pool2"
  pooling_param {
    pool: MAX
    kernel_size: 3
    stride: 2
  }
}
layer {
  name: "norm2"
  type: "LRN"
  bottom: "pool2"
  top: "norm2"
  lrn_param {
    local_size: 5
    alpha: 0.0001
    beta: 0.75
  }
}
layer {
  name: "conv3"
  type: "Convolution"
  bottom: "norm2"
  top: "conv3"
  convolution_param {
    num_output: 384
    pad: 1
    kernel_size: 3
  }
}
layer {
  name: "relu3"
  type: "ReLU"
  bottom: "conv3"
  top: "conv3"
}
layer {
  name: "conv4"
  type: "Convolution"
  bottom: "conv3"
  top: "conv4"
  convolution_param {
    num_output: 384
    pad: 1
    kernel_size: 3
    group: 2
  }
}
layer {
  name: "relu4"
  type: "ReLU"
  bottom: "conv4"
  top: "conv4"
}
layer {
  name: "conv5"
  type: "Convolution"
  bottom: "conv4"
  top: "conv5"
  convolution_param {
    num_output: 256
    pad: 1
    kernel_size: 3
    group: 2
  }
}
layer {
  name: "relu5"
  type: "ReLU"
  bottom: "conv5"
  top: "conv5"
}
layer {
  name: "pool5"
  type: "Pooling"
  bottom: "conv5"
  top: "pool5"
  pooling_param {
    pool: MAX
    kernel_size: 3
    stride: 2
  }
}
layer {
  name: "fc6"
  type: "InnerProduct"
  bottom: "pool5"
  top: "fc6"
  inner_product_param {
    num_output: 4096
  }
}
layer {
  name: "relu6"
  type: "ReLU"
  bottom: "fc6"
  top: "fc6"
}
layer {
  name: "drop6"
  type: "Dropout"
  bottom: "fc6"
  top: "fc6"
  dropout_param {
    dropout_ratio: 0.5
  }
}
layer {
  name: "fc7"
  type: "InnerProduct"
  bottom: "fc6"
  top: "fc7"
  inner_product_param {
    num_output: 4096
  }
}
layer {
  name: "relu7"
  type: "ReLU"
  bottom: "fc7"
  top: "fc7"
}
layer {
  name: "drop7"
  type: "Dropout"
  bottom: "fc7"
  top: "fc7"
  dropout_param {
    dropout_ratio: 0.5
  }
}
layer {
  name: "fc8"
  type: "InnerProduct"
  bottom: "fc7"
  top: "fc8"
  inner_product_param {
    num_output: 1000
  }
}
layer {
  name: "prob"
  type: "Softmax"
  bottom: "fc8"
  top: "prob"
}
I0720 14:07:05.503135 11529 net.cpp:49] Initializing net from parameters: 
name: "CaffeNet"
state {
  phase: TEST
}
layer {
  name: "data"
  type: "Input"
  top: "data"
  input_param {
    shape {
      dim: 10
      dim: 3
      dim: 227
      dim: 227
    }
  }
}
layer {
  name: "conv1"
  type: "Convolution"
  bottom: "data"
  top: "conv1"
  convolution_param {
    num_output: 96
    kernel_size: 11
    stride: 4
  }
}
layer {
  name: "relu1"
  type: "ReLU"
  bottom: "conv1"
  top: "conv1"
}
layer {
  name: "pool1"
  type: "Pooling"
  bottom: "conv1"
  top: "pool1"
  pooling_param {
    pool: MAX
    kernel_size: 3
    stride: 2
  }
}
layer {
  name: "norm1"
  type: "LRN"
  bottom: "pool1"
  top: "norm1"
  lrn_param {
    local_size: 5
    alpha: 0.0001
    beta: 0.75
  }
}
layer {
  name: "conv2"
  type: "Convolution"
  bottom: "norm1"
  top: "conv2"
  convolution_param {
    num_output: 256
    pad: 2
    kernel_size: 5
    group: 2
  }
}
layer {
  name: "relu2"
  type: "ReLU"
  bottom: "conv2"
  top: "conv2"
}
layer {
  name: "pool2"
  type: "Pooling"
  bottom: "conv2"
  top: "pool2"
  pooling_param {
    pool: MAX
    kernel_size: 3
    stride: 2
  }
}
layer {
  name: "norm2"
  type: "LRN"
  bottom: "pool2"
  top: "norm2"
  lrn_param {
    local_size: 5
    alpha: 0.0001
    beta: 0.75
  }
}
layer {
  name: "conv3"
  type: "Convolution"
  bottom: "norm2"
  top: "conv3"
  convolution_param {
    num_output: 384
    pad: 1
    kernel_size: 3
  }
}
layer {
  name: "relu3"
  type: "ReLU"
  bottom: "conv3"
  top: "conv3"
}
layer {
  name: "conv4"
  type: "Convolution"
  bottom: "conv3"
  top: "conv4"
  convolution_param {
    num_output: 384
    pad: 1
    kernel_size: 3
    group: 2
  }
}
layer {
  name: "relu4"
  type: "ReLU"
  bottom: "conv4"
  top: "conv4"
}
layer {
  name: "conv5"
  type: "Convolution"
  bottom: "conv4"
  top: "conv5"
  convolution_param {
    num_output: 256
    pad: 1
    kernel_size: 3
    group: 2
  }
}
layer {
  name: "relu5"
  type: "ReLU"
  bottom: "conv5"
  top: "conv5"
}
layer {
  name: "pool5"
  type: "Pooling"
  bottom: "conv5"
  top: "pool5"
  pooling_param {
    pool: MAX
    kernel_size: 3
    stride: 2
  }
}
layer {
  name: "fc6"
  type: "InnerProduct"
  bottom: "pool5"
  top: "fc6"
  inner_product_param {
    num_output: 4096
  }
}
layer {
  name: "relu6"
  type: "ReLU"
  bottom: "fc6"
  top: "fc6"
}
layer {
  name: "drop6"
  type: "Dropout"
  bottom: "fc6"
  top: "fc6"
  dropout_param {
    dropout_ratio: 0.5
  }
}
layer {
  name: "fc7"
  type: "InnerProduct"
  bottom: "fc6"
  top: "fc7"
  inner_product_param {
    num_output: 4096
  }
}
layer {
  name: "relu7"
  type: "ReLU"
  bottom: "fc7"
  top: "fc7"
}
layer {
  name: "drop7"
  type: "Dropout"
  bottom: "fc7"
  top: "fc7"
  dropout_param {
    dropout_ratio: 0.5
  }
}
layer {
  name: "fc8"
  type: "InnerProduct"
  bottom: "fc7"
  top: "fc8"
  inner_product_param {
    num_output: 1000
  }
}
layer {
  name: "prob"
  type: "Softmax"
  bottom: "fc8"
  top: "prob"
}
I0720 14:07:05.503142 11533 layer_factory.hpp:77] Creating layer data
I0720 14:07:05.503161 11533 net.cpp:91] Creating Layer data
I0720 14:07:05.503168 11533 net.cpp:399] data -> data
I0720 14:07:05.503170 11531 layer_factory.hpp:77] Creating layer data
I0720 14:07:05.503180 11533 net.cpp:141] Setting up data
I0720 14:07:05.503185 11531 net.cpp:91] Creating Layer data
I0720 14:07:05.503188 11533 net.cpp:148] Top shape: 10 3 227 227 (1545870)
I0720 14:07:05.503190 11531 net.cpp:399] data -> data
I0720 14:07:05.503193 11533 net.cpp:156] Memory required for data: 6183480
I0720 14:07:05.503198 11533 layer_factory.hpp:77] Creating layer conv1
I0720 14:07:05.503203 11531 net.cpp:141] Setting up data
I0720 14:07:05.503207 11533 net.cpp:91] Creating Layer conv1
I0720 14:07:05.503211 11531 net.cpp:148] Top shape: 10 3 227 227 (1545870)
I0720 14:07:05.503212 11533 net.cpp:425] conv1 <- data
I0720 14:07:05.503221 11531 net.cpp:156] Memory required for data: 6183480
I0720 14:07:05.503226 11531 layer_factory.hpp:77] Creating layer conv1
I0720 14:07:05.503226 11533 net.cpp:399] conv1 -> conv1
I0720 14:07:05.503235 11531 net.cpp:91] Creating Layer conv1
I0720 14:07:05.503240 11531 net.cpp:425] conv1 <- data
I0720 14:07:05.503247 11531 net.cpp:399] conv1 -> conv1
I0720 14:07:05.506729 11529 layer_factory.hpp:77] Creating layer data
I0720 14:07:05.506750 11529 net.cpp:91] Creating Layer data
I0720 14:07:05.506760 11529 net.cpp:399] data -> data
I0720 14:07:05.506778 11529 net.cpp:141] Setting up data
I0720 14:07:05.506790 11529 net.cpp:148] Top shape: 10 3 227 227 (1545870)
I0720 14:07:05.506798 11529 net.cpp:156] Memory required for data: 6183480
I0720 14:07:05.506808 11529 layer_factory.hpp:77] Creating layer conv1
I0720 14:07:05.506822 11529 net.cpp:91] Creating Layer conv1
I0720 14:07:05.506831 11529 net.cpp:425] conv1 <- data
I0720 14:07:05.506844 11529 net.cpp:399] conv1 -> conv1
I0720 14:07:06.060559 11511 upgrade_proto.cpp:66] Attempting to upgrade input file specified using deprecated input fields: /tmp/cvld7641045841276928651/s2vt.words_to_preds.prototxt
I0720 14:07:06.060616 11511 upgrade_proto.cpp:69] Successfully upgraded file specified using deprecated input fields.
W0720 14:07:06.060624 11511 upgrade_proto.cpp:71] Note that future Caffe releases will only support input layers and not input fields.
I0720 14:07:06.060889 11511 net.cpp:49] Initializing net from parameters: 
name: "s2vt:features_to_lstm"
state {
  phase: TEST
}
layer {
  name: "input"
  type: "Input"
  top: "frames_fc7"
  top: "cont_sentence"
  top: "input_sentence"
  top: "stage_indicator"
  input_param {
    shape {
      dim: 1
      dim: 4096
    }
    shape {
      dim: 1
      dim: 1
    }
    shape {
      dim: 1
      dim: 1
    }
    shape {
      dim: 1
      dim: 1
    }
  }
}
layer {
  name: "embed_encoder"
  type: "InnerProduct"
  bottom: "frames_fc7"
  top: "embedded_in_frames"
  param {
    lr_mult: 1
    decay_mult: 1
  }
  param {
    lr_mult: 2
    decay_mult: 0
  }
  inner_product_param {
    num_output: 500
    weight_filler {
      type: "xavier"
    }
    bias_filler {
      type: "constant"
      value: 0.2
    }
  }
}
layer {
  name: "reshape_frames"
  type: "Reshape"
  bottom: "embedded_in_frames"
  top: "embedded_input_frames"
  reshape_param {
    shape {
      dim: 1
      dim: 1
      dim: 500
    }
  }
}
layer {
  name: "reshape_stage_indicator"
  type: "Reshape"
  bottom: "stage_indicator"
  top: "reshaped_stage_indicator"
  reshape_param {
    shape {
      dim: 1
      dim: 1
      dim: 1
    }
  }
}
layer {
  name: "embedding"
  type: "Embed"
  bottom: "input_sentence"
  top: "embedded_input_sentence"
  param {
    lr_mult: 1
  }
  embed_param {
    num_output: 500
    input_dim: 46168
    bias_term: false
    weight_filler {
      type: "uniform"
      min: -0.08
      max: 0.08
    }
  }
}
layer {
  name: "lstm1"
  type: "LSTM"
  bottom: "embedded_input_frames"
  bottom: "cont_sentence"
  top: "lstm1"
  recurrent_param {
    num_output: 1000
    weight_filler {
      type: "uniform"
      min: -0.08
      max: 0.08
    }
    bias_filler {
      type: "constant"
      value: 0
    }
  }
}
layer {
  name: "concat"
  type: "Concat"
  bottom: "lstm1"
  bottom: "embedded_input_sentence"
  bottom: "reshaped_stage_indicator"
  top: "lstm1_video_sequence"
  concat_param {
    concat_dim: 2
  }
}
layer {
  name: "lstm2"
  type: "LSTM"
  bottom: "lstm1_video_sequence"
  bottom: "cont_sentence"
  top: "lstm2"
  recurrent_param {
    num_output: 1000
    weight_filler {
      type: "uniform"
      min: -0.08
      max: 0.08
    }
    bias_filler {
      type: "constant"
      value: 0
    }
  }
}
layer {
  name: "predict"
  type: "InnerProduct"
  bottom: "lstm2"
  top: "predict"
  param {
    lr_mult: 1
    decay_mult: 1
  }
  param {
    lr_mult: 2
    decay_mult: 0
  }
  inner_product_param {
    num_output: 46168
    weight_filler {
      type: "uniform"
      min: -0.08
      max: 0.08
    }
    bias_filler {
      type: "constant"
      value: 0
    }
    axis: 2
  }
}
layer {
  name: "probs"
  type: "Softmax"
  bottom: "predict"
  top: "probs"
  softmax_param {
    axis: 2
  }
}
I0720 14:07:06.060988 11511 layer_factory.hpp:77] Creating layer input
I0720 14:07:06.061004 11511 net.cpp:91] Creating Layer input
I0720 14:07:06.061012 11511 net.cpp:399] input -> frames_fc7
I0720 14:07:06.061030 11511 net.cpp:399] input -> cont_sentence
I0720 14:07:06.061040 11511 net.cpp:399] input -> input_sentence
I0720 14:07:06.061049 11511 net.cpp:399] input -> stage_indicator
I0720 14:07:06.063156 11511 net.cpp:141] Setting up input
I0720 14:07:06.063179 11511 net.cpp:148] Top shape: 1 4096 (4096)
I0720 14:07:06.063185 11511 net.cpp:148] Top shape: 1 1 (1)
I0720 14:07:06.063190 11511 net.cpp:148] Top shape: 1 1 (1)
I0720 14:07:06.063195 11511 net.cpp:148] Top shape: 1 1 (1)
I0720 14:07:06.063199 11511 net.cpp:156] Memory required for data: 16396
I0720 14:07:06.063205 11511 layer_factory.hpp:77] Creating layer cont_sentence_input_1_split
I0720 14:07:06.063226 11511 net.cpp:91] Creating Layer cont_sentence_input_1_split
I0720 14:07:06.063232 11511 net.cpp:425] cont_sentence_input_1_split <- cont_sentence
I0720 14:07:06.063259 11511 net.cpp:399] cont_sentence_input_1_split -> cont_sentence_input_1_split_0
I0720 14:07:06.063271 11511 net.cpp:399] cont_sentence_input_1_split -> cont_sentence_input_1_split_1
I0720 14:07:06.077200 11511 net.cpp:141] Setting up cont_sentence_input_1_split
I0720 14:07:06.077250 11511 net.cpp:148] Top shape: 1 1 (1)
I0720 14:07:06.077258 11511 net.cpp:148] Top shape: 1 1 (1)
I0720 14:07:06.077262 11511 net.cpp:156] Memory required for data: 16404
I0720 14:07:06.077272 11511 layer_factory.hpp:77] Creating layer embed_encoder
I0720 14:07:06.077306 11511 net.cpp:91] Creating Layer embed_encoder
I0720 14:07:06.077314 11511 net.cpp:425] embed_encoder <- frames_fc7
I0720 14:07:06.077327 11511 net.cpp:399] embed_encoder -> embedded_in_frames
I0720 14:07:06.117064 11511 net.cpp:141] Setting up embed_encoder
I0720 14:07:06.117106 11511 net.cpp:148] Top shape: 1 500 (500)
I0720 14:07:06.117112 11511 net.cpp:156] Memory required for data: 18404
I0720 14:07:06.117143 11511 layer_factory.hpp:77] Creating layer reshape_frames
I0720 14:07:06.117173 11511 net.cpp:91] Creating Layer reshape_frames
I0720 14:07:06.117182 11511 net.cpp:425] reshape_frames <- embedded_in_frames
I0720 14:07:06.117193 11511 net.cpp:399] reshape_frames -> embedded_input_frames
I0720 14:07:06.117318 11511 net.cpp:141] Setting up reshape_frames
I0720 14:07:06.117328 11511 net.cpp:148] Top shape: 1 1 500 (500)
I0720 14:07:06.117332 11511 net.cpp:156] Memory required for data: 20404
I0720 14:07:06.117336 11511 layer_factory.hpp:77] Creating layer reshape_stage_indicator
I0720 14:07:06.117352 11511 net.cpp:91] Creating Layer reshape_stage_indicator
I0720 14:07:06.117357 11511 net.cpp:425] reshape_stage_indicator <- stage_indicator
I0720 14:07:06.117365 11511 net.cpp:399] reshape_stage_indicator -> reshaped_stage_indicator
I0720 14:07:06.117447 11511 net.cpp:141] Setting up reshape_stage_indicator
I0720 14:07:06.117457 11511 net.cpp:148] Top shape: 1 1 1 (1)
I0720 14:07:06.117461 11511 net.cpp:156] Memory required for data: 20408
I0720 14:07:06.117466 11511 layer_factory.hpp:77] Creating layer embedding
I0720 14:07:06.117478 11511 net.cpp:91] Creating Layer embedding
I0720 14:07:06.117483 11511 net.cpp:425] embedding <- input_sentence
I0720 14:07:06.117494 11511 net.cpp:399] embedding -> embedded_input_sentence
I0720 14:07:06.379045 11511 net.cpp:141] Setting up embedding
I0720 14:07:06.379093 11511 net.cpp:148] Top shape: 1 1 500 (500)
I0720 14:07:06.379098 11511 net.cpp:156] Memory required for data: 22408
I0720 14:07:06.379117 11511 layer_factory.hpp:77] Creating layer lstm1
I0720 14:07:06.379137 11511 net.cpp:91] Creating Layer lstm1
I0720 14:07:06.379146 11511 net.cpp:425] lstm1 <- embedded_input_frames
I0720 14:07:06.379155 11511 net.cpp:425] lstm1 <- cont_sentence_input_1_split_0
I0720 14:07:06.379164 11511 net.cpp:399] lstm1 -> lstm1
I0720 14:07:06.379200 11511 recurrent_layer.cpp:20] Initializing recurrent layer: assuming input batch contains 1 timesteps of 1 independent streams.
I0720 14:07:06.379561 11511 net.cpp:49] Initializing net from parameters: 
layer {
  name: "lstm1_"
  type: "Input"
  top: "x"
  top: "cont"
  input_param {
    shape {
      dim: 1
      dim: 1
      dim: 500
    }
    shape {
      dim: 1
      dim: 1
    }
  }
}
layer {
  name: "lstm1_"
  type: "Input"
  top: "c_0"
  top: "h_0"
  input_param {
    shape {
      dim: 1
      dim: 1
      dim: 1000
    }
    shape {
      dim: 1
      dim: 1
      dim: 1000
    }
  }
}
layer {
  name: "lstm1_cont_slice"
  type: "Slice"
  bottom: "cont"
  top: "cont_1"
  slice_param {
    axis: 0
  }
}
layer {
  name: "lstm1_x_transform"
  type: "InnerProduct"
  bottom: "x"
  top: "W_xc_x"
  param {
    name: "W_xc"
  }
  param {
    name: "b_c"
  }
  propagate_down: true
  inner_product_param {
    num_output: 4000
    bias_term: true
    weight_filler {
      type: "uniform"
      min: -0.08
      max: 0.08
    }
    bias_filler {
      type: "constant"
      value: 0
    }
    axis: 2
  }
}
layer {
  name: "lstm1_W_xc_x_slice"
  type: "Slice"
  bottom: "W_xc_x"
  top: "W_xc_x_1"
  slice_param {
    axis: 0
  }
}
layer {
  name: "lstm1_h_conted_0"
  type: "Scale"
  bottom: "h_0"
  bottom: "cont_1"
  top: "h_conted_0"
  scale_param {
    axis: 0
  }
}
layer {
  name: "lstm1_transform_1"
  type: "InnerProduct"
  bottom: "h_conted_0"
  top: "W_hc_h_0"
  param {
    name: "W_hc"
  }
  inner_product_param {
    num_output: 4000
    bias_term: false
    weight_filler {
      type: "uniform"
      min: -0.08
      max: 0.08
    }
    axis: 2
  }
}
layer {
  name: "lstm1_gate_input_1"
  type: "Eltwise"
  bottom: "W_hc_h_0"
  bottom: "W_xc_x_1"
  top: "gate_input_1"
  eltwise_param {
    operation: SUM
  }
}
layer {
  name: "lstm1_unit_1"
  type: "LSTMUnit"
  bottom: "c_0"
  bottom: "gate_input_1"
  bottom: "cont_1"
  top: "c_1"
  top: "h_1"
}
layer {
  name: "lstm1_"
  type: "Split"
  bottom: "c_1"
  top: "c_T"
}
layer {
  name: "lstm1_h_concat"
  type: "Concat"
  bottom: "h_1"
  top: "h"
  concat_param {
    axis: 0
  }
}
layer {
  name: "h_pseudoloss"
  type: "Reduction"
  bottom: "h"
  top: "h_pseudoloss"
  loss_weight: 1
}
I0720 14:07:06.379654 11511 layer_factory.hpp:77] Creating layer lstm1_
I0720 14:07:06.379668 11511 net.cpp:91] Creating Layer lstm1_
I0720 14:07:06.379675 11511 net.cpp:399] lstm1_ -> x
I0720 14:07:06.379686 11511 net.cpp:399] lstm1_ -> cont
I0720 14:07:06.392483 11511 net.cpp:141] Setting up lstm1_
I0720 14:07:06.392515 11511 net.cpp:148] Top shape: 1 1 500 (500)
I0720 14:07:06.392523 11511 net.cpp:148] Top shape: 1 1 (1)
I0720 14:07:06.392526 11511 net.cpp:156] Memory required for data: 2004
I0720 14:07:06.392534 11511 layer_factory.hpp:77] Creating layer lstm1_
I0720 14:07:06.392550 11511 net.cpp:91] Creating Layer lstm1_
I0720 14:07:06.392559 11511 net.cpp:399] lstm1_ -> c_0
I0720 14:07:06.392573 11511 net.cpp:399] lstm1_ -> h_0
I0720 14:07:06.394022 11511 net.cpp:141] Setting up lstm1_
I0720 14:07:06.394042 11511 net.cpp:148] Top shape: 1 1 1000 (1000)
I0720 14:07:06.394048 11511 net.cpp:148] Top shape: 1 1 1000 (1000)
I0720 14:07:06.394052 11511 net.cpp:156] Memory required for data: 10004
I0720 14:07:06.394058 11511 layer_factory.hpp:77] Creating layer lstm1_cont_slice
I0720 14:07:06.394073 11511 net.cpp:91] Creating Layer lstm1_cont_slice
I0720 14:07:06.394078 11511 net.cpp:425] lstm1_cont_slice <- cont
I0720 14:07:06.394086 11511 net.cpp:399] lstm1_cont_slice -> cont_1
I0720 14:07:06.397058 11511 net.cpp:141] Setting up lstm1_cont_slice
I0720 14:07:06.397071 11511 net.cpp:148] Top shape: 1 1 (1)
I0720 14:07:06.397076 11511 net.cpp:156] Memory required for data: 10008
I0720 14:07:06.397081 11511 layer_factory.hpp:77] Creating layer cont_1_lstm1_cont_slice_0_split
I0720 14:07:06.397092 11511 net.cpp:91] Creating Layer cont_1_lstm1_cont_slice_0_split
I0720 14:07:06.397097 11511 net.cpp:425] cont_1_lstm1_cont_slice_0_split <- cont_1
I0720 14:07:06.397104 11511 net.cpp:399] cont_1_lstm1_cont_slice_0_split -> cont_1_lstm1_cont_slice_0_split_0
I0720 14:07:06.397112 11511 net.cpp:399] cont_1_lstm1_cont_slice_0_split -> cont_1_lstm1_cont_slice_0_split_1
I0720 14:07:06.404080 11511 net.cpp:141] Setting up cont_1_lstm1_cont_slice_0_split
I0720 14:07:06.404101 11511 net.cpp:148] Top shape: 1 1 (1)
I0720 14:07:06.404109 11511 net.cpp:148] Top shape: 1 1 (1)
I0720 14:07:06.404112 11511 net.cpp:156] Memory required for data: 10016
I0720 14:07:06.404119 11511 layer_factory.hpp:77] Creating layer lstm1_x_transform
I0720 14:07:06.404136 11511 net.cpp:91] Creating Layer lstm1_x_transform
I0720 14:07:06.404142 11511 net.cpp:425] lstm1_x_transform <- x
I0720 14:07:06.404151 11511 net.cpp:399] lstm1_x_transform -> W_xc_x
I0720 14:07:06.456346 11511 net.cpp:141] Setting up lstm1_x_transform
I0720 14:07:06.456395 11511 net.cpp:148] Top shape: 1 1 4000 (4000)
I0720 14:07:06.456400 11511 net.cpp:156] Memory required for data: 26016
I0720 14:07:06.456426 11511 layer_factory.hpp:77] Creating layer lstm1_W_xc_x_slice
I0720 14:07:06.456442 11511 net.cpp:91] Creating Layer lstm1_W_xc_x_slice
I0720 14:07:06.456449 11511 net.cpp:425] lstm1_W_xc_x_slice <- W_xc_x
I0720 14:07:06.456459 11511 net.cpp:399] lstm1_W_xc_x_slice -> W_xc_x_1
I0720 14:07:06.457167 11511 net.cpp:141] Setting up lstm1_W_xc_x_slice
I0720 14:07:06.457180 11511 net.cpp:148] Top shape: 1 1 4000 (4000)
I0720 14:07:06.457183 11511 net.cpp:156] Memory required for data: 42016
I0720 14:07:06.457188 11511 layer_factory.hpp:77] Creating layer lstm1_h_conted_0
I0720 14:07:06.457211 11511 net.cpp:91] Creating Layer lstm1_h_conted_0
I0720 14:07:06.457216 11511 net.cpp:425] lstm1_h_conted_0 <- h_0
I0720 14:07:06.457222 11511 net.cpp:425] lstm1_h_conted_0 <- cont_1_lstm1_cont_slice_0_split_0
I0720 14:07:06.457229 11511 net.cpp:399] lstm1_h_conted_0 -> h_conted_0
I0720 14:07:06.467741 11511 net.cpp:141] Setting up lstm1_h_conted_0
I0720 14:07:06.467774 11511 net.cpp:148] Top shape: 1 1 1000 (1000)
I0720 14:07:06.467784 11511 net.cpp:156] Memory required for data: 46016
I0720 14:07:06.467794 11511 layer_factory.hpp:77] Creating layer lstm1_transform_1
I0720 14:07:06.467815 11511 net.cpp:91] Creating Layer lstm1_transform_1
I0720 14:07:06.467826 11511 net.cpp:425] lstm1_transform_1 <- h_conted_0
I0720 14:07:06.467845 11511 net.cpp:399] lstm1_transform_1 -> W_hc_h_0
I0720 14:07:06.488024 11519 net.cpp:141] Setting up conv1
I0720 14:07:06.488075 11519 net.cpp:148] Top shape: 10 96 55 55 (2904000)
I0720 14:07:06.488082 11519 net.cpp:156] Memory required for data: 17799480
I0720 14:07:06.488106 11519 layer_factory.hpp:77] Creating layer relu1
I0720 14:07:06.488123 11519 net.cpp:91] Creating Layer relu1
I0720 14:07:06.488131 11519 net.cpp:425] relu1 <- conv1
I0720 14:07:06.488138 11519 net.cpp:386] relu1 -> conv1 (in-place)
I0720 14:07:06.488203 11531 net.cpp:141] Setting up conv1
I0720 14:07:06.488219 11531 net.cpp:148] Top shape: 10 96 55 55 (2904000)
I0720 14:07:06.488224 11531 net.cpp:156] Memory required for data: 17799480
I0720 14:07:06.488236 11531 layer_factory.hpp:77] Creating layer relu1
I0720 14:07:06.488245 11531 net.cpp:91] Creating Layer relu1
I0720 14:07:06.488250 11531 net.cpp:425] relu1 <- conv1
I0720 14:07:06.488256 11531 net.cpp:386] relu1 -> conv1 (in-place)
I0720 14:07:06.489501 11545 net.cpp:141] Setting up conv1
I0720 14:07:06.489531 11545 net.cpp:148] Top shape: 10 96 55 55 (2904000)
I0720 14:07:06.489542 11545 net.cpp:156] Memory required for data: 17799480
I0720 14:07:06.489570 11545 layer_factory.hpp:77] Creating layer relu1
I0720 14:07:06.489588 11545 net.cpp:91] Creating Layer relu1
I0720 14:07:06.489594 11545 net.cpp:425] relu1 <- conv1
I0720 14:07:06.489609 11545 net.cpp:386] relu1 -> conv1 (in-place)
I0720 14:07:06.491374 11509 net.cpp:141] Setting up conv1
I0720 14:07:06.491401 11509 net.cpp:148] Top shape: 10 96 55 55 (2904000)
I0720 14:07:06.491407 11509 net.cpp:156] Memory required for data: 17799480
I0720 14:07:06.491422 11509 layer_factory.hpp:77] Creating layer relu1
I0720 14:07:06.491432 11509 net.cpp:91] Creating Layer relu1
I0720 14:07:06.491438 11509 net.cpp:425] relu1 <- conv1
I0720 14:07:06.491447 11509 net.cpp:386] relu1 -> conv1 (in-place)
I0720 14:07:06.493640 11525 net.cpp:141] Setting up conv1
I0720 14:07:06.493670 11525 net.cpp:148] Top shape: 10 96 55 55 (2904000)
I0720 14:07:06.493681 11525 net.cpp:156] Memory required for data: 17799480
I0720 14:07:06.493705 11525 layer_factory.hpp:77] Creating layer relu1
I0720 14:07:06.493726 11525 net.cpp:91] Creating Layer relu1
I0720 14:07:06.493737 11525 net.cpp:425] relu1 <- conv1
I0720 14:07:06.493748 11525 net.cpp:386] relu1 -> conv1 (in-place)
I0720 14:07:06.493779 11531 net.cpp:141] Setting up relu1
I0720 14:07:06.493798 11531 net.cpp:148] Top shape: 10 96 55 55 (2904000)
I0720 14:07:06.493806 11531 net.cpp:156] Memory required for data: 29415480
I0720 14:07:06.493815 11531 layer_factory.hpp:77] Creating layer pool1
I0720 14:07:06.493837 11531 net.cpp:91] Creating Layer pool1
I0720 14:07:06.493847 11531 net.cpp:425] pool1 <- conv1
I0720 14:07:06.493860 11531 net.cpp:399] pool1 -> pool1
I0720 14:07:06.493901 11531 net.cpp:141] Setting up pool1
I0720 14:07:06.493916 11531 net.cpp:148] Top shape: 10 96 27 27 (699840)
I0720 14:07:06.493924 11531 net.cpp:156] Memory required for data: 32214840
I0720 14:07:06.493932 11531 layer_factory.hpp:77] Creating layer norm1
I0720 14:07:06.493960 11531 net.cpp:91] Creating Layer norm1
I0720 14:07:06.493969 11531 net.cpp:425] norm1 <- pool1
I0720 14:07:06.493985 11531 net.cpp:399] norm1 -> norm1
I0720 14:07:06.495029 11519 net.cpp:141] Setting up relu1
I0720 14:07:06.495050 11519 net.cpp:148] Top shape: 10 96 55 55 (2904000)
I0720 14:07:06.495056 11519 net.cpp:156] Memory required for data: 29415480
I0720 14:07:06.495062 11519 layer_factory.hpp:77] Creating layer pool1
I0720 14:07:06.495072 11519 net.cpp:91] Creating Layer pool1
I0720 14:07:06.495077 11519 net.cpp:425] pool1 <- conv1
I0720 14:07:06.495079 11525 net.cpp:141] Setting up relu1
I0720 14:07:06.495085 11519 net.cpp:399] pool1 -> pool1
I0720 14:07:06.495112 11519 net.cpp:141] Setting up pool1
I0720 14:07:06.495110 11525 net.cpp:148] Top shape: 10 96 55 55 (2904000)
I0720 14:07:06.495124 11519 net.cpp:148] Top shape: 10 96 27 27 (699840)
I0720 14:07:06.495129 11519 net.cpp:156] Memory required for data: 32214840
I0720 14:07:06.495134 11519 layer_factory.hpp:77] Creating layer norm1
I0720 14:07:06.495132 11525 net.cpp:156] Memory required for data: 29415480
I0720 14:07:06.495143 11519 net.cpp:91] Creating Layer norm1
I0720 14:07:06.495144 11525 layer_factory.hpp:77] Creating layer pool1
I0720 14:07:06.495149 11519 net.cpp:425] norm1 <- pool1
I0720 14:07:06.495157 11519 net.cpp:399] norm1 -> norm1
I0720 14:07:06.495159 11525 net.cpp:91] Creating Layer pool1
I0720 14:07:06.495167 11525 net.cpp:425] pool1 <- conv1
I0720 14:07:06.495180 11525 net.cpp:399] pool1 -> pool1
I0720 14:07:06.495200 11525 net.cpp:141] Setting up pool1
I0720 14:07:06.495214 11525 net.cpp:148] Top shape: 10 96 27 27 (699840)
I0720 14:07:06.495223 11525 net.cpp:156] Memory required for data: 32214840
I0720 14:07:06.495231 11525 layer_factory.hpp:77] Creating layer norm1
I0720 14:07:06.495249 11525 net.cpp:91] Creating Layer norm1
I0720 14:07:06.495260 11525 net.cpp:425] norm1 <- pool1
I0720 14:07:06.495275 11525 net.cpp:399] norm1 -> norm1
I0720 14:07:06.496237 11543 net.cpp:141] Setting up conv1
I0720 14:07:06.496259 11543 net.cpp:148] Top shape: 10 96 55 55 (2904000)
I0720 14:07:06.496268 11543 net.cpp:156] Memory required for data: 17799480
I0720 14:07:06.496287 11543 layer_factory.hpp:77] Creating layer relu1
I0720 14:07:06.496306 11543 net.cpp:91] Creating Layer relu1
I0720 14:07:06.496315 11543 net.cpp:425] relu1 <- conv1
I0720 14:07:06.496325 11543 net.cpp:386] relu1 -> conv1 (in-place)
I0720 14:07:06.497480 11509 net.cpp:141] Setting up relu1
I0720 14:07:06.497480 11519 net.cpp:141] Setting up norm1
I0720 14:07:06.497506 11509 net.cpp:148] Top shape: 10 96 55 55 (2904000)
I0720 14:07:06.497511 11519 net.cpp:148] Top shape: 10 96 27 27 (699840)
I0720 14:07:06.497517 11519 net.cpp:156] Memory required for data: 35014200
I0720 14:07:06.497529 11519 layer_factory.hpp:77] Creating layer conv2
I0720 14:07:06.497550 11519 net.cpp:91] Creating Layer conv2
I0720 14:07:06.497556 11519 net.cpp:425] conv2 <- norm1
I0720 14:07:06.497566 11519 net.cpp:399] conv2 -> conv2
I0720 14:07:06.497516 11509 net.cpp:156] Memory required for data: 29415480
I0720 14:07:06.497586 11509 layer_factory.hpp:77] Creating layer pool1
I0720 14:07:06.497601 11509 net.cpp:91] Creating Layer pool1
I0720 14:07:06.497611 11509 net.cpp:425] pool1 <- conv1
I0720 14:07:06.497627 11509 net.cpp:399] pool1 -> pool1
I0720 14:07:06.497649 11509 net.cpp:141] Setting up pool1
I0720 14:07:06.497663 11509 net.cpp:148] Top shape: 10 96 27 27 (699840)
I0720 14:07:06.497673 11509 net.cpp:156] Memory required for data: 32214840
I0720 14:07:06.497680 11509 layer_factory.hpp:77] Creating layer norm1
I0720 14:07:06.497699 11509 net.cpp:91] Creating Layer norm1
I0720 14:07:06.497709 11509 net.cpp:425] norm1 <- pool1
I0720 14:07:06.497720 11509 net.cpp:399] norm1 -> norm1
I0720 14:07:06.499107 11529 net.cpp:141] Setting up conv1
I0720 14:07:06.499135 11529 net.cpp:148] Top shape: 10 96 55 55 (2904000)
I0720 14:07:06.499145 11529 net.cpp:156] Memory required for data: 17799480
I0720 14:07:06.499166 11529 layer_factory.hpp:77] Creating layer relu1
I0720 14:07:06.499198 11529 net.cpp:91] Creating Layer relu1
I0720 14:07:06.499208 11529 net.cpp:425] relu1 <- conv1
I0720 14:07:06.499218 11529 net.cpp:386] relu1 -> conv1 (in-place)
I0720 14:07:06.499222 11545 net.cpp:141] Setting up relu1
I0720 14:07:06.499239 11545 net.cpp:148] Top shape: 10 96 55 55 (2904000)
I0720 14:07:06.499243 11545 net.cpp:156] Memory required for data: 29415480
I0720 14:07:06.499249 11545 layer_factory.hpp:77] Creating layer pool1
I0720 14:07:06.499279 11545 net.cpp:91] Creating Layer pool1
I0720 14:07:06.499289 11545 net.cpp:425] pool1 <- conv1
I0720 14:07:06.499301 11545 net.cpp:399] pool1 -> pool1
I0720 14:07:06.499321 11545 net.cpp:141] Setting up pool1
I0720 14:07:06.499356 11545 net.cpp:148] Top shape: 10 96 27 27 (699840)
I0720 14:07:06.499366 11545 net.cpp:156] Memory required for data: 32214840
I0720 14:07:06.499374 11545 layer_factory.hpp:77] Creating layer norm1
I0720 14:07:06.499388 11545 net.cpp:91] Creating Layer norm1
I0720 14:07:06.499394 11545 net.cpp:425] norm1 <- pool1
I0720 14:07:06.499402 11545 net.cpp:399] norm1 -> norm1
I0720 14:07:06.500912 11539 net.cpp:141] Setting up conv1
I0720 14:07:06.500932 11539 net.cpp:148] Top shape: 10 96 55 55 (2904000)
I0720 14:07:06.500937 11539 net.cpp:156] Memory required for data: 17799480
I0720 14:07:06.500952 11539 layer_factory.hpp:77] Creating layer relu1
I0720 14:07:06.500962 11539 net.cpp:91] Creating Layer relu1
I0720 14:07:06.500967 11539 net.cpp:425] relu1 <- conv1
I0720 14:07:06.500983 11539 net.cpp:386] relu1 -> conv1 (in-place)
I0720 14:07:06.502241 11533 net.cpp:141] Setting up conv1
I0720 14:07:06.502264 11533 net.cpp:148] Top shape: 10 96 55 55 (2904000)
I0720 14:07:06.502274 11533 net.cpp:156] Memory required for data: 17799480
I0720 14:07:06.502290 11543 net.cpp:141] Setting up relu1
I0720 14:07:06.502297 11533 layer_factory.hpp:77] Creating layer relu1
I0720 14:07:06.502306 11543 net.cpp:148] Top shape: 10 96 55 55 (2904000)
I0720 14:07:06.502316 11543 net.cpp:156] Memory required for data: 29415480
I0720 14:07:06.502323 11543 layer_factory.hpp:77] Creating layer pool1
I0720 14:07:06.502326 11533 net.cpp:91] Creating Layer relu1
I0720 14:07:06.502336 11543 net.cpp:91] Creating Layer pool1
I0720 14:07:06.502337 11533 net.cpp:425] relu1 <- conv1
I0720 14:07:06.502343 11543 net.cpp:425] pool1 <- conv1
I0720 14:07:06.502351 11533 net.cpp:386] relu1 -> conv1 (in-place)
I0720 14:07:06.502357 11543 net.cpp:399] pool1 -> pool1
I0720 14:07:06.502374 11543 net.cpp:141] Setting up pool1
I0720 14:07:06.502385 11543 net.cpp:148] Top shape: 10 96 27 27 (699840)
I0720 14:07:06.502391 11543 net.cpp:156] Memory required for data: 32214840
I0720 14:07:06.502398 11543 layer_factory.hpp:77] Creating layer norm1
I0720 14:07:06.502413 11543 net.cpp:91] Creating Layer norm1
I0720 14:07:06.502420 11543 net.cpp:425] norm1 <- pool1
I0720 14:07:06.502430 11543 net.cpp:399] norm1 -> norm1
I0720 14:07:06.502533 11509 net.cpp:141] Setting up norm1
I0720 14:07:06.502552 11509 net.cpp:148] Top shape: 10 96 27 27 (699840)
I0720 14:07:06.502559 11509 net.cpp:156] Memory required for data: 35014200
I0720 14:07:06.502564 11509 layer_factory.hpp:77] Creating layer conv2
I0720 14:07:06.502581 11509 net.cpp:91] Creating Layer conv2
I0720 14:07:06.502586 11509 net.cpp:425] conv2 <- norm1
I0720 14:07:06.502606 11509 net.cpp:399] conv2 -> conv2
I0720 14:07:06.502632 11537 net.cpp:141] Setting up conv1
I0720 14:07:06.502653 11537 net.cpp:148] Top shape: 10 96 55 55 (2904000)
I0720 14:07:06.502662 11537 net.cpp:156] Memory required for data: 17799480
I0720 14:07:06.502671 11529 net.cpp:141] Setting up relu1
I0720 14:07:06.502683 11537 layer_factory.hpp:77] Creating layer relu1
I0720 14:07:06.502698 11529 net.cpp:148] Top shape: 10 96 55 55 (2904000)
I0720 14:07:06.502717 11529 net.cpp:156] Memory required for data: 29415480
I0720 14:07:06.502723 11537 net.cpp:91] Creating Layer relu1
I0720 14:07:06.502725 11529 layer_factory.hpp:77] Creating layer pool1
I0720 14:07:06.502738 11537 net.cpp:425] relu1 <- conv1
I0720 14:07:06.502745 11529 net.cpp:91] Creating Layer pool1
I0720 14:07:06.502751 11537 net.cpp:386] relu1 -> conv1 (in-place)
I0720 14:07:06.502753 11529 net.cpp:425] pool1 <- conv1
I0720 14:07:06.502764 11531 net.cpp:141] Setting up norm1
I0720 14:07:06.502785 11529 net.cpp:399] pool1 -> pool1
I0720 14:07:06.502771 11525 net.cpp:141] Setting up norm1
I0720 14:07:06.502765 11539 net.cpp:141] Setting up relu1
I0720 14:07:06.502799 11531 net.cpp:148] Top shape: 10 96 27 27 (699840)
I0720 14:07:06.502806 11539 net.cpp:148] Top shape: 10 96 55 55 (2904000)
I0720 14:07:06.502807 11529 net.cpp:141] Setting up pool1
I0720 14:07:06.502810 11531 net.cpp:156] Memory required for data: 35014200
I0720 14:07:06.502815 11539 net.cpp:156] Memory required for data: 29415480
I0720 14:07:06.502804 11525 net.cpp:148] Top shape: 10 96 27 27 (699840)
I0720 14:07:06.502825 11531 layer_factory.hpp:77] Creating layer conv2
I0720 14:07:06.502828 11539 layer_factory.hpp:77] Creating layer pool1
I0720 14:07:06.502835 11525 net.cpp:156] Memory required for data: 35014200
I0720 14:07:06.502822 11529 net.cpp:148] Top shape: 10 96 27 27 (699840)
I0720 14:07:06.502846 11525 layer_factory.hpp:77] Creating layer conv2
I0720 14:07:06.502848 11529 net.cpp:156] Memory required for data: 32214840
I0720 14:07:06.502847 11539 net.cpp:91] Creating Layer pool1
I0720 14:07:06.502846 11531 net.cpp:91] Creating Layer conv2
I0720 14:07:06.502861 11529 layer_factory.hpp:77] Creating layer norm1
I0720 14:07:06.502864 11525 net.cpp:91] Creating Layer conv2
I0720 14:07:06.502867 11531 net.cpp:425] conv2 <- norm1
I0720 14:07:06.502863 11539 net.cpp:425] pool1 <- conv1
I0720 14:07:06.502876 11525 net.cpp:425] conv2 <- norm1
I0720 14:07:06.502885 11531 net.cpp:399] conv2 -> conv2
I0720 14:07:06.502876 11529 net.cpp:91] Creating Layer norm1
I0720 14:07:06.502893 11539 net.cpp:399] pool1 -> pool1
I0720 14:07:06.502898 11529 net.cpp:425] norm1 <- pool1
I0720 14:07:06.502902 11525 net.cpp:399] conv2 -> conv2
I0720 14:07:06.502909 11529 net.cpp:399] norm1 -> norm1
I0720 14:07:06.502914 11539 net.cpp:141] Setting up pool1
I0720 14:07:06.502928 11539 net.cpp:148] Top shape: 10 96 27 27 (699840)
I0720 14:07:06.502936 11539 net.cpp:156] Memory required for data: 32214840
I0720 14:07:06.502945 11539 layer_factory.hpp:77] Creating layer norm1
I0720 14:07:06.502981 11539 net.cpp:91] Creating Layer norm1
I0720 14:07:06.502993 11539 net.cpp:425] norm1 <- pool1
I0720 14:07:06.503007 11539 net.cpp:399] norm1 -> norm1
I0720 14:07:06.507030 11545 net.cpp:141] Setting up norm1
I0720 14:07:06.507061 11545 net.cpp:148] Top shape: 10 96 27 27 (699840)
I0720 14:07:06.507066 11545 net.cpp:156] Memory required for data: 35014200
I0720 14:07:06.507072 11545 layer_factory.hpp:77] Creating layer conv2
I0720 14:07:06.507104 11545 net.cpp:91] Creating Layer conv2
I0720 14:07:06.507112 11545 net.cpp:425] conv2 <- norm1
I0720 14:07:06.507123 11545 net.cpp:399] conv2 -> conv2
I0720 14:07:06.507752 11539 net.cpp:141] Setting up norm1
I0720 14:07:06.507767 11539 net.cpp:148] Top shape: 10 96 27 27 (699840)
I0720 14:07:06.507772 11539 net.cpp:156] Memory required for data: 35014200
I0720 14:07:06.507777 11539 layer_factory.hpp:77] Creating layer conv2
I0720 14:07:06.507789 11539 net.cpp:91] Creating Layer conv2
I0720 14:07:06.507794 11539 net.cpp:425] conv2 <- norm1
I0720 14:07:06.507802 11539 net.cpp:399] conv2 -> conv2
I0720 14:07:06.511052 11529 net.cpp:141] Setting up norm1
I0720 14:07:06.511081 11529 net.cpp:148] Top shape: 10 96 27 27 (699840)
I0720 14:07:06.511090 11529 net.cpp:156] Memory required for data: 35014200
I0720 14:07:06.511097 11529 layer_factory.hpp:77] Creating layer conv2
I0720 14:07:06.511119 11529 net.cpp:91] Creating Layer conv2
I0720 14:07:06.511128 11529 net.cpp:425] conv2 <- norm1
I0720 14:07:06.511140 11529 net.cpp:399] conv2 -> conv2
I0720 14:07:06.511584 11543 net.cpp:141] Setting up norm1
I0720 14:07:06.511605 11543 net.cpp:148] Top shape: 10 96 27 27 (699840)
I0720 14:07:06.511612 11543 net.cpp:156] Memory required for data: 35014200
I0720 14:07:06.511620 11543 layer_factory.hpp:77] Creating layer conv2
I0720 14:07:06.511629 11537 net.cpp:141] Setting up relu1
I0720 14:07:06.511637 11543 net.cpp:91] Creating Layer conv2
I0720 14:07:06.511646 11537 net.cpp:148] Top shape: 10 96 55 55 (2904000)
I0720 14:07:06.511646 11543 net.cpp:425] conv2 <- norm1
I0720 14:07:06.511652 11537 net.cpp:156] Memory required for data: 29415480
I0720 14:07:06.511658 11537 layer_factory.hpp:77] Creating layer pool1
I0720 14:07:06.511668 11537 net.cpp:91] Creating Layer pool1
I0720 14:07:06.511669 11543 net.cpp:399] conv2 -> conv2
I0720 14:07:06.511674 11537 net.cpp:425] pool1 <- conv1
I0720 14:07:06.511692 11537 net.cpp:399] pool1 -> pool1
I0720 14:07:06.511708 11537 net.cpp:141] Setting up pool1
I0720 14:07:06.511716 11537 net.cpp:148] Top shape: 10 96 27 27 (699840)
I0720 14:07:06.511720 11537 net.cpp:156] Memory required for data: 32214840
I0720 14:07:06.511724 11537 layer_factory.hpp:77] Creating layer norm1
I0720 14:07:06.511754 11537 net.cpp:91] Creating Layer norm1
I0720 14:07:06.511760 11537 net.cpp:425] norm1 <- pool1
I0720 14:07:06.511766 11537 net.cpp:399] norm1 -> norm1
I0720 14:07:06.512393 11511 net.cpp:141] Setting up lstm1_transform_1
I0720 14:07:06.512409 11511 net.cpp:148] Top shape: 1 1 4000 (4000)
I0720 14:07:06.512414 11511 net.cpp:156] Memory required for data: 62016
I0720 14:07:06.512428 11511 layer_factory.hpp:77] Creating layer lstm1_gate_input_1
I0720 14:07:06.512439 11511 net.cpp:91] Creating Layer lstm1_gate_input_1
I0720 14:07:06.512445 11511 net.cpp:425] lstm1_gate_input_1 <- W_hc_h_0
I0720 14:07:06.512456 11511 net.cpp:425] lstm1_gate_input_1 <- W_xc_x_1
I0720 14:07:06.512466 11511 net.cpp:399] lstm1_gate_input_1 -> gate_input_1
I0720 14:07:06.514366 11533 net.cpp:141] Setting up relu1
I0720 14:07:06.514385 11533 net.cpp:148] Top shape: 10 96 55 55 (2904000)
I0720 14:07:06.514391 11533 net.cpp:156] Memory required for data: 29415480
I0720 14:07:06.514397 11533 layer_factory.hpp:77] Creating layer pool1
I0720 14:07:06.514408 11533 net.cpp:91] Creating Layer pool1
I0720 14:07:06.514415 11533 net.cpp:425] pool1 <- conv1
I0720 14:07:06.514421 11533 net.cpp:399] pool1 -> pool1
I0720 14:07:06.514437 11533 net.cpp:141] Setting up pool1
I0720 14:07:06.514451 11533 net.cpp:148] Top shape: 10 96 27 27 (699840)
I0720 14:07:06.514456 11533 net.cpp:156] Memory required for data: 32214840
I0720 14:07:06.514461 11533 layer_factory.hpp:77] Creating layer norm1
I0720 14:07:06.514469 11533 net.cpp:91] Creating Layer norm1
I0720 14:07:06.514473 11533 net.cpp:425] norm1 <- pool1
I0720 14:07:06.514482 11533 net.cpp:399] norm1 -> norm1
I0720 14:07:06.515564 11511 net.cpp:141] Setting up lstm1_gate_input_1
I0720 14:07:06.515588 11511 net.cpp:148] Top shape: 1 1 4000 (4000)
I0720 14:07:06.515595 11511 net.cpp:156] Memory required for data: 78016
I0720 14:07:06.515602 11511 layer_factory.hpp:77] Creating layer lstm1_unit_1
I0720 14:07:06.515616 11511 net.cpp:91] Creating Layer lstm1_unit_1
I0720 14:07:06.515622 11511 net.cpp:425] lstm1_unit_1 <- c_0
I0720 14:07:06.515630 11511 net.cpp:425] lstm1_unit_1 <- gate_input_1
I0720 14:07:06.515635 11511 net.cpp:425] lstm1_unit_1 <- cont_1_lstm1_cont_slice_0_split_1
I0720 14:07:06.515641 11511 net.cpp:399] lstm1_unit_1 -> c_1
I0720 14:07:06.515650 11511 net.cpp:399] lstm1_unit_1 -> h_1
I0720 14:07:06.518126 11511 net.cpp:141] Setting up lstm1_unit_1
I0720 14:07:06.518143 11511 net.cpp:148] Top shape: 1 1 1000 (1000)
I0720 14:07:06.518149 11511 net.cpp:148] Top shape: 1 1 1000 (1000)
I0720 14:07:06.518154 11511 net.cpp:156] Memory required for data: 86016
I0720 14:07:06.518159 11511 layer_factory.hpp:77] Creating layer lstm1_
I0720 14:07:06.518172 11511 net.cpp:91] Creating Layer lstm1_
I0720 14:07:06.518175 11511 net.cpp:425] lstm1_ <- c_1
I0720 14:07:06.518182 11511 net.cpp:399] lstm1_ -> c_T
I0720 14:07:06.519466 11537 net.cpp:141] Setting up norm1
I0720 14:07:06.519491 11537 net.cpp:148] Top shape: 10 96 27 27 (699840)
I0720 14:07:06.519495 11533 net.cpp:141] Setting up norm1
I0720 14:07:06.519500 11537 net.cpp:156] Memory required for data: 35014200
I0720 14:07:06.519513 11533 net.cpp:148] Top shape: 10 96 27 27 (699840)
I0720 14:07:06.519515 11537 layer_factory.hpp:77] Creating layer conv2
I0720 14:07:06.519518 11533 net.cpp:156] Memory required for data: 35014200
I0720 14:07:06.519526 11533 layer_factory.hpp:77] Creating layer conv2
I0720 14:07:06.519531 11537 net.cpp:91] Creating Layer conv2
I0720 14:07:06.519536 11537 net.cpp:425] conv2 <- norm1
I0720 14:07:06.519546 11537 net.cpp:399] conv2 -> conv2
I0720 14:07:06.519546 11533 net.cpp:91] Creating Layer conv2
I0720 14:07:06.519552 11533 net.cpp:425] conv2 <- norm1
I0720 14:07:06.519559 11533 net.cpp:399] conv2 -> conv2
I0720 14:07:06.519614 11511 net.cpp:141] Setting up lstm1_
I0720 14:07:06.519632 11511 net.cpp:148] Top shape: 1 1 1000 (1000)
I0720 14:07:06.519641 11511 net.cpp:156] Memory required for data: 90016
I0720 14:07:06.519650 11511 layer_factory.hpp:77] Creating layer lstm1_h_concat
I0720 14:07:06.519665 11511 net.cpp:91] Creating Layer lstm1_h_concat
I0720 14:07:06.519675 11511 net.cpp:425] lstm1_h_concat <- h_1
I0720 14:07:06.519691 11511 net.cpp:399] lstm1_h_concat -> h
I0720 14:07:06.525874 11511 net.cpp:141] Setting up lstm1_h_concat
I0720 14:07:06.525898 11511 net.cpp:148] Top shape: 1 1 1000 (1000)
I0720 14:07:06.525903 11511 net.cpp:156] Memory required for data: 94016
I0720 14:07:06.525909 11511 layer_factory.hpp:77] Creating layer h_pseudoloss
I0720 14:07:06.525929 11511 net.cpp:91] Creating Layer h_pseudoloss
I0720 14:07:06.525939 11511 net.cpp:425] h_pseudoloss <- h
I0720 14:07:06.525952 11511 net.cpp:399] h_pseudoloss -> h_pseudoloss
I0720 14:07:06.526585 11511 net.cpp:141] Setting up h_pseudoloss
…
I0720 14:07:06.526721 11511 net.cpp:219] lstm1_ does not need backward computation.
I0720 14:07:06.526724 11511 net.cpp:261] This network produces output c_T
I0720 14:07:06.526728 11511 net.cpp:261] This network produces output h_pseudoloss
I0720 14:07:06.526748 11511 net.cpp:274] Network initialization done.
I0720 14:07:06.526814 11511 recurrent_layer.cpp:150] Adding parameter 0: W_xc
I0720 14:07:06.526823 11511 recurrent_layer.cpp:150] Adding parameter 1: b_c
I0720 14:07:06.526828 11511 recurrent_layer.cpp:150] Adding parameter 2: W_hc
I0720 14:07:06.531144 11511 net.cpp:141] Setting up lstm1
I0720 14:07:06.531169 11511 net.cpp:148] Top shape: 1 1 1000 (1000)
I0720 14:07:06.531175 11511 net.cpp:156] Memory required for data: 26408
I0720 14:07:06.531191 11511 layer_factory.hpp:77] Creating layer concat
I0720 14:07:06.531203 11511 net.cpp:91] Creating Layer concat
I0720 14:07:06.531209 11511 net.cpp:425] concat <- lstm1
I0720 14:07:06.531215 11511 net.cpp:425] concat <- embedded_input_sentence
I0720 14:07:06.531220 11511 net.cpp:425] concat <- reshaped_stage_indicator
I0720 14:07:06.531227 11511 net.cpp:399] concat -> lstm1_video_sequence
I0720 14:07:06.535720 11511 net.cpp:141] Setting up concat
I0720 14:07:06.535743 11511 net.cpp:148] Top shape: 1 1 1501 (1501)
I0720 14:07:06.535753 11511 net.cpp:156] Memory required for data: 32412
I0720 14:07:06.535764 11511 layer_factory.hpp:77] Creating layer lstm2
I0720 14:07:06.535787 11511 net.cpp:91] Creating Layer lstm2
I0720 14:07:06.535799 11511 net.cpp:425] lstm2 <- lstm1_video_sequence
I0720 14:07:06.535811 11511 net.cpp:425] lstm2 <- cont_sentence_input_1_split_1
I0720 14:07:06.535827 11511 net.cpp:399] lstm2 -> lstm2
I0720 14:07:06.535847 11511 recurrent_layer.cpp:20] Initializing recurrent layer: assuming input batch contains 1 timesteps of 1 independent streams.
I0720 14:07:06.536267 11511 net.cpp:49] Initializing net from parameters: 
layer {
  name: "lstm2_"
  type: "Input"
  top: "x"
  top: "cont"
  input_param {
    shape {
      dim: 1
      dim: 1
      dim: 1501
    }
    shape {
      dim: 1
      dim: 1
    }
  }
}
layer {
  name: "lstm2_"
  type: "Input"
  top: "c_0"
  top: "h_0"
  input_param {
    shape {
      dim: 1
      dim: 1
      dim: 1000
    }
    shape {
      dim: 1
      dim: 1
      dim: 1000
    }
  }
}
layer {
  name: "lstm2_cont_slice"
  type: "Slice"
  bottom: "cont"
  top: "cont_1"
  slice_param {
    axis: 0
  }
}
layer {
  name: "lstm2_x_transform"
  type: "InnerProduct"
  bottom: "x"
  top: "W_xc_x"
  param {
    name: "W_xc"
  }
  param {
    name: "b_c"
  }
  propagate_down: true
  inner_product_param {
    num_output: 4000
    bias_term: true
    weight_filler {
      type: "uniform"
      min: -0.08
      max: 0.08
    }
    bias_filler {
      type: "constant"
      value: 0
    }
    axis: 2
  }
}
layer {
  name: "lstm2_W_xc_x_slice"
  type: "Slice"
  bottom: "W_xc_x"
  top: "W_xc_x_1"
  slice_param {
    axis: 0
  }
}
layer {
  name: "lstm2_h_conted_0"
  type: "Scale"
  bottom: "h_0"
  bottom: "cont_1"
  top: "h_conted_0"
  scale_param {
    axis: 0
  }
}
layer {
  name: "lstm2_transform_1"
  type: "InnerProduct"
  bottom: "h_conted_0"
  top: "W_hc_h_0"
  param {
    name: "W_hc"
  }
  inner_product_param {
    num_output: 4000
    bias_term: false
    weight_filler {
      type: "uniform"
      min: -0.08
      max: 0.08
    }
    axis: 2
  }
}
layer {
  name: "lstm2_gate_input_1"
  type: "Eltwise"
  bottom: "W_hc_h_0"
  bottom: "W_xc_x_1"
  top: "gate_input_1"
  eltwise_param {
    operation: SUM
  }
}
layer {
  name: "lstm2_unit_1"
  type: "LSTMUnit"
  bottom: "c_0"
  bottom: "gate_input_1"
  bottom: "cont_1"
  top: "c_1"
  top: "h_1"
}
layer {
  name: "lstm2_"
  type: "Split"
  bottom: "c_1"
  top: "c_T"
}
layer {
  name: "lstm2_h_concat"
  type: "Concat"
  bottom: "h_1"
  top: "h"
  concat_param {
    axis: 0
  }
}
layer {
  name: "h_pseudoloss"
  type: "Reduction"
  bottom: "h"
  top: "h_pseudoloss"
  loss_weight: 1
}
I0720 14:07:06.536419 11511 layer_factory.hpp:77] Creating layer lstm2_
I0720 14:07:06.536442 11511 net.cpp:91] Creating Layer lstm2_
I0720 14:07:06.536455 11511 net.cpp:399] lstm2_ -> x
I0720 14:07:06.536475 11511 net.cpp:399] lstm2_ -> cont
I0720 14:07:06.539535 11511 net.cpp:141] Setting up lstm2_
I0720 14:07:06.539554 11511 net.cpp:148] Top shape: 1 1 1501 (1501)
I0720 14:07:06.539569 11511 net.cpp:148] Top shape: 1 1 (1)
I0720 14:07:06.539577 11511 net.cpp:156] Memory required for data: 6008
I0720 14:07:06.539587 11511 layer_factory.hpp:77] Creating layer lstm2_
I0720 14:07:06.539600 11511 net.cpp:91] Creating Layer lstm2_
I0720 14:07:06.539610 11511 net.cpp:399] lstm2_ -> c_0
I0720 14:07:06.539623 11511 net.cpp:399] lstm2_ -> h_0
I0720 14:07:06.542268 11531 net.cpp:141] Setting up conv2
I0720 14:07:06.542286 11531 net.cpp:148] Top shape: 10 256 27 27 (1866240)
I0720 14:07:06.542291 11531 net.cpp:156] Memory required for data: 42479160
I0720 14:07:06.542305 11531 layer_factory.hpp:77] Creating layer relu2
I0720 14:07:06.542316 11531 net.cpp:91] Creating Layer relu2
I0720 14:07:06.542321 11531 net.cpp:425] relu2 <- conv2
I0720 14:07:06.542330 11531 net.cpp:386] relu2 -> conv2 (in-place)
I0720 14:07:06.543499 11511 net.cpp:141] Setting up lstm2_
I0720 14:07:06.543519 11511 net.cpp:148] Top shape: 1 1 1000 (1000)
I0720 14:07:06.543525 11511 net.cpp:148] Top shape: 1 1 1000 (1000)
I0720 14:07:06.543529 11511 net.cpp:156] Memory required for data: 14008
I0720 14:07:06.543535 11511 layer_factory.hpp:77] Creating layer lstm2_cont_slice
I0720 14:07:06.543550 11511 net.cpp:91] Creating Layer lstm2_cont_slice
I0720 14:07:06.543555 11511 net.cpp:425] lstm2_cont_slice <- cont
I0720 14:07:06.543570 11511 net.cpp:399] lstm2_cont_slice -> cont_1
I0720 14:07:06.544781 11511 net.cpp:141] Setting up lstm2_cont_slice
I0720 14:07:06.544796 11511 net.cpp:148] Top shape: 1 1 (1)
I0720 14:07:06.544801 11511 net.cpp:156] Memory required for data: 14012
I0720 14:07:06.544806 11511 layer_factory.hpp:77] Creating layer cont_1_lstm2_cont_slice_0_split
I0720 14:07:06.544817 11511 net.cpp:91] Creating Layer cont_1_lstm2_cont_slice_0_split
I0720 14:07:06.544822 11511 net.cpp:425] cont_1_lstm2_cont_slice_0_split <- cont_1
I0720 14:07:06.544829 11511 net.cpp:399] cont_1_lstm2_cont_slice_0_split -> cont_1_lstm2_cont_slice_0_split_0
I0720 14:07:06.544837 11511 net.cpp:399] cont_1_lstm2_cont_slice_0_split -> cont_1_lstm2_cont_slice_0_split_1
I0720 14:07:06.547241 11511 net.cpp:141] Setting up cont_1_lstm2_cont_slice_0_split
I0720 14:07:06.547262 11511 net.cpp:148] Top shape: 1 1 (1)
I0720 14:07:06.547273 11511 net.cpp:148] Top shape: 1 1 (1)
I0720 14:07:06.547278 11511 net.cpp:156] Memory required for data: 14020
I0720 14:07:06.547283 11511 layer_factory.hpp:77] Creating layer lstm2_x_transform
I0720 14:07:06.547303 11511 net.cpp:91] Creating Layer lstm2_x_transform
I0720 14:07:06.547308 11511 net.cpp:425] lstm2_x_transform <- x
I0720 14:07:06.547318 11511 net.cpp:399] lstm2_x_transform -> W_xc_x
I0720 14:07:06.548020 11529 net.cpp:141] Setting up conv2
I0720 14:07:06.548038 11529 net.cpp:148] Top shape: 10 256 27 27 (1866240)
I0720 14:07:06.548043 11529 net.cpp:156] Memory required for data: 42479160
I0720 14:07:06.548055 11529 layer_factory.hpp:77] Creating layer relu2
I0720 14:07:06.548068 11529 net.cpp:91] Creating Layer relu2
I0720 14:07:06.548072 11529 net.cpp:425] relu2 <- conv2
I0720 14:07:06.548079 11529 net.cpp:386] relu2 -> conv2 (in-place)
I0720 14:07:06.555743 11509 net.cpp:141] Setting up conv2
I0720 14:07:06.555785 11519 net.cpp:141] Setting up conv2
I0720 14:07:06.555791 11509 net.cpp:148] Top shape: 10 256 27 27 (1866240)
I0720 14:07:06.555799 11509 net.cpp:156] Memory required for data: 42479160
I0720 14:07:06.555804 11519 net.cpp:148] Top shape: 10 256 27 27 (1866240)
I0720 14:07:06.555811 11519 net.cpp:156] Memory required for data: 42479160
I0720 14:07:06.555824 11509 layer_factory.hpp:77] Creating layer relu2
I0720 14:07:06.555831 11519 layer_factory.hpp:77] Creating layer relu2
I0720 14:07:06.555842 11509 net.cpp:91] Creating Layer relu2
I0720 14:07:06.555842 11519 net.cpp:91] Creating Layer relu2
I0720 14:07:06.555857 11509 net.cpp:425] relu2 <- conv2
…
W0720 14:07:06.567661 11515 upgrade_proto.cpp:71] Note that future Caffe releases will only support input layers and not input fields.
I0720 14:07:06.567912 11515 net.cpp:49] Initializing net from parameters: 
name: "s2vt:features_to_lstm"
state {
  phase: TEST
}
layer {
  name: "input"
  type: "Input"
  top: "frames_fc7"
  top: "cont_sentence"
  top: "input_sentence"
  top: "stage_indicator"
  input_param {
    shape {
      dim: 1
      dim: 4096
    }
    shape {
      dim: 1
      dim: 1
    }
    shape {
      dim: 1
      dim: 1
    }
    shape {
      dim: 1
      dim: 1
    }
  }
}
layer {
  name: "embed_encoder"
  type: "InnerProduct"
  bottom: "frames_fc7"
  top: "embedded_in_frames"
  param {
    lr_mult: 1
    decay_mult: 1
  }
  param {
    lr_mult: 2
    decay_mult: 0
  }
  inner_product_param {
    num_output: 500
    weight_filler {
      type: "xavier"
    }
    bias_filler {
      type: "constant"
      value: 0.2
    }
  }
}
layer {
  name: "reshape_frames"
  type: "Reshape"
  bottom: "embedded_in_frames"
  top: "embedded_input_frames"
  reshape_param {
    shape {
      dim: 1
      dim: 1
      dim: 500
    }
  }
}
layer {
  name: "reshape_stage_indicator"
  type: "Reshape"
  bottom: "stage_indicator"
  top: "reshaped_stage_indicator"
  reshape_param {
    shape {
      dim: 1
      dim: 1
      dim: 1
    }
  }
}
layer {
  name: "embedding"
  type: "Embed"
  bottom: "input_sentence"
  top: "embedded_input_sentence"
  param {
    lr_mult: 1
  }
  embed_param {
    num_output: 500
    input_dim: 46168
    bias_term: false
    weight_filler {
      type: "uniform"
      min: -0.08
      max: 0.08
    }
  }
}
layer {
  name: "lstm1"
  type: "LSTM"
  bottom: "embedded_input_frames"
  bottom: "cont_sentence"
  top: "lstm1"
  recurrent_param {
    num_output: 1000
    weight_filler {
      type: "uniform"
      min: -0.08
      max: 0.08
    }
    bias_filler {
      type: "constant"
      value: 0
    }
  }
}
layer {
  name: "concat"
  type: "Concat"
  bottom: "lstm1"
  bottom: "embedded_input_sentence"
  bottom: "reshaped_stage_indicator"
  top: "lstm1_video_sequence"
  concat_param {
    concat_dim: 2
  }
}
layer {
  name: "lstm2"
  type: "LSTM"
  bottom: "lstm1_video_sequence"
  bottom: "cont_sentence"
  top: "lstm2"
  recurrent_param {
    num_output: 1000
    weight_filler {
      type: "uniform"
      min: -0.08
      max: 0.08
    }
    bias_filler {
      type: "constant"
      value: 0
    }
  }
}
layer {
  name: "predict"
  type: "InnerProduct"
  bottom: "lstm2"
  top: "predict"
  param {
    lr_mult: 1
    decay_mult: 1
  }
  param {
    lr_mult: 2
    decay_mult: 0
  }
  inner_product_param {
    num_output: 46168
    weight_filler {
      type: "uniform"
      min: -0.08
      max: 0.08
    }
    bias_filler {
      type: "constant"
      value: 0
    }
    axis: 2
  }
}
layer {
  name: "probs"
  type: "Softmax"
  bottom: "predict"
  top: "probs"
  softmax_param {
    axis: 2
  }
}
I0720 14:07:06.568014 11515 layer_factory.hpp:77] Creating layer input
I0720 14:07:06.568030 11515 net.cpp:91] Creating Layer input
I0720 14:07:06.568038 11515 net.cpp:399] input -> frames_fc7
I0720 14:07:06.568056 11515 net.cpp:399] input -> cont_sentence
I0720 14:07:06.568066 11515 net.cpp:399] input -> input_sentence
I0720 14:07:06.568075 11515 net.cpp:399] input -> stage_indicator
I0720 14:07:06.569416 11531 net.cpp:141] Setting up relu2
I0720 14:07:06.569464 11531 net.cpp:148] Top shape: 10 256 27 27 (1866240)
I0720 14:07:06.569474 11531 net.cpp:156] Memory required for data: 49944120
I0720 14:07:06.569483 11531 layer_factory.hpp:77] Creating layer pool2
I0720 14:07:06.569502 11531 net.cpp:91] Creating Layer pool2
I0720 14:07:06.569509 11531 net.cpp:425] pool2 <- conv2
I0720 14:07:06.569520 11531 net.cpp:399] pool2 -> pool2
I0720 14:07:06.569550 11531 net.cpp:141] Setting up pool2
I0720 14:07:06.569564 11531 net.cpp:148] Top shape: 10 256 13 13 (432640)
I0720 14:07:06.569572 11531 net.cpp:156] Memory required for data: 51674680
I0720 14:07:06.569581 11531 layer_factory.hpp:77] Creating layer norm2
I0720 14:07:06.569602 11531 net.cpp:91] Creating Layer norm2
I0720 14:07:06.569612 11531 net.cpp:425] norm2 <- pool2
I0720 14:07:06.569624 11531 net.cpp:399] norm2 -> norm2
I0720 14:07:06.572527 11545 net.cpp:141] Setting up conv2
I0720 14:07:06.572567 11545 net.cpp:148] Top shape: 10 256 27 27 (1866240)
I0720 14:07:06.572573 11545 net.cpp:156] Memory required for data: 42479160
I0720 14:07:06.572599 11545 layer_factory.hpp:77] Creating layer relu2
I0720 14:07:06.572615 11545 net.cpp:91] Creating Layer relu2
I0720 14:07:06.572621 11545 net.cpp:425] relu2 <- conv2
I0720 14:07:06.572631 11545 net.cpp:386] relu2 -> conv2 (in-place)
I0720 14:07:06.577090 11509 net.cpp:141] Setting up relu2
I0720 14:07:06.577143 11509 net.cpp:148] Top shape: 10 256 27 27 (1866240)
I0720 14:07:06.577152 11509 net.cpp:156] Memory required for data: 49944120
I0720 14:07:06.577159 11509 layer_factory.hpp:77] Creating layer pool2
I0720 14:07:06.577180 11509 net.cpp:91] Creating Layer pool2
I0720 14:07:06.577191 11509 net.cpp:425] pool2 <- conv2
I0720 14:07:06.577188 11519 net.cpp:141] Setting up relu2
I0720 14:07:06.577211 11509 net.cpp:399] pool2 -> pool2
I0720 14:07:06.577219 11519 net.cpp:148] Top shape: 10 256 27 27 (1866240)
I0720 14:07:06.577229 11519 net.cpp:156] Memory required for data: 49944120
I0720 14:07:06.577240 11519 layer_factory.hpp:77] Creating layer pool2
I0720 14:07:06.577240 11509 net.cpp:141] Setting up pool2
I0720 14:07:06.577255 11509 net.cpp:148] Top shape: 10 256 13 13 (432640)
I0720 14:07:06.577257 11519 net.cpp:91] Creating Layer pool2
I0720 14:07:06.577265 11509 net.cpp:156] Memory required for data: 51674680
I0720 14:07:06.577268 11519 net.cpp:425] pool2 <- conv2
I0720 14:07:06.577273 11509 layer_factory.hpp:77] Creating layer norm2
I0720 14:07:06.577282 11519 net.cpp:399] pool2 -> pool2
I0720 14:07:06.577298 11509 net.cpp:91] Creating Layer norm2
I0720 14:07:06.577304 11519 net.cpp:141] Setting up pool2
I0720 14:07:06.577308 11509 net.cpp:425] norm2 <- pool2
I0720 14:07:06.577318 11519 net.cpp:148] Top shape: 10 256 13 13 (432640)
I0720 14:07:06.577322 11509 net.cpp:399] norm2 -> norm2
I0720 14:07:06.577327 11519 net.cpp:156] Memory required for data: 51674680
I0720 14:07:06.577335 11519 layer_factory.hpp:77] Creating layer norm2
I0720 14:07:06.577353 11519 net.cpp:91] Creating Layer norm2
I0720 14:07:06.577363 11519 net.cpp:425] norm2 <- pool2
I0720 14:07:06.577376 11519 net.cpp:399] norm2 -> norm2
I0720 14:07:06.578922 11529 net.cpp:141] Setting up relu2
I0720 14:07:06.578927 11545 net.cpp:141] Setting up relu2
I0720 14:07:06.578950 11529 net.cpp:148] Top shape: 10 256 27 27 (1866240)
I0720 14:07:06.578958 11529 net.cpp:156] Memory required for data: 49944120
I0720 14:07:06.578959 11545 net.cpp:148] Top shape: 10 256 27 27 (1866240)
I0720 14:07:06.578964 11529 layer_factory.hpp:77] Creating layer pool2
I0720 14:07:06.578969 11545 net.cpp:156] Memory required for data: 49944120
I0720 14:07:06.578974 11529 net.cpp:91] Creating Layer pool2
I0720 14:07:06.578980 11529 net.cpp:425] pool2 <- conv2
I0720 14:07:06.578979 11545 layer_factory.hpp:77] Creating layer pool2
I0720 14:07:06.579000 11545 net.cpp:91] Creating Layer pool2
I0720 14:07:06.579010 11545 net.cpp:425] pool2 <- conv2
I0720 14:07:06.579013 11529 net.cpp:399] pool2 -> pool2
I0720 14:07:06.579031 11529 net.cpp:141] Setting up pool2
I0720 14:07:06.579035 11545 net.cpp:399] pool2 -> pool2
I0720 14:07:06.579038 11529 net.cpp:148] Top shape: 10 256 13 13 (432640)
I0720 14:07:06.579051 11529 net.cpp:156] Memory required for data: 51674680
I0720 14:07:06.579056 11529 layer_factory.hpp:77] Creating layer norm2
I0720 14:07:06.579061 11545 net.cpp:141] Setting up pool2
I0720 14:07:06.579071 11529 net.cpp:91] Creating Layer norm2
I0720 14:07:06.579073 11545 net.cpp:148] Top shape: 10 256 13 13 (432640)
I0720 14:07:06.579077 11529 net.cpp:425] norm2 <- pool2
I0720 14:07:06.579082 11545 net.cpp:156] Memory required for data: 51674680
I0720 14:07:06.579084 11529 net.cpp:399] norm2 -> norm2
I0720 14:07:06.579093 11545 layer_factory.hpp:77] Creating layer norm2
I0720 14:07:06.579114 11545 net.cpp:91] Creating Layer norm2
I0720 14:07:06.579123 11545 net.cpp:425] norm2 <- pool2
I0720 14:07:06.579133 11545 net.cpp:399] norm2 -> norm2
I0720 14:07:06.582046 11519 net.cpp:141] Setting up norm2
I0720 14:07:06.582077 11519 net.cpp:148] Top shape: 10 256 13 13 (432640)
I0720 14:07:06.582085 11519 net.cpp:156] Memory required for data: 53405240
I0720 14:07:06.582095 11519 layer_factory.hpp:77] Creating layer conv3
I0720 14:07:06.582121 11519 net.cpp:91] Creating Layer conv3
I0720 14:07:06.582129 11519 net.cpp:425] conv3 <- norm2
I0720 14:07:06.582129 11529 net.cpp:141] Setting up norm2
I0720 14:07:06.582141 11519 net.cpp:399] conv3 -> conv3
I0720 14:07:06.582147 11529 net.cpp:148] Top shape: 10 256 13 13 (432640)
I0720 14:07:06.582154 11529 net.cpp:156] Memory required for data: 53405240
I0720 14:07:06.582159 11529 layer_factory.hpp:77] Creating layer conv3
I0720 14:07:06.582180 11529 net.cpp:91] Creating Layer conv3
I0720 14:07:06.582190 11529 net.cpp:425] conv3 <- norm2
I0720 14:07:06.582200 11529 net.cpp:399] conv3 -> conv3
I0720 14:07:06.583782 11537 net.cpp:141] Setting up conv2
I0720 14:07:06.583811 11537 net.cpp:148] Top shape: 10 256 27 27 (1866240)
I0720 14:07:06.583822 11537 net.cpp:156] Memory required for data: 42479160
I0720 14:07:06.583847 11537 layer_factory.hpp:77] Creating layer relu2
I0720 14:07:06.583864 11537 net.cpp:91] Creating Layer relu2
I0720 14:07:06.583874 11537 net.cpp:425] relu2 <- conv2
I0720 14:07:06.583889 11537 net.cpp:386] relu2 -> conv2 (in-place)
I0720 14:07:06.584280 11537 net.cpp:141] Setting up relu2
I0720 14:07:06.584302 11537 net.cpp:148] Top shape: 10 256 27 27 (1866240)
I0720 14:07:06.584311 11537 net.cpp:156] Memory required for data: 49944120
I0720 14:07:06.584318 11537 layer_factory.hpp:77] Creating layer pool2
I0720 14:07:06.584333 11537 net.cpp:91] Creating Layer pool2
I0720 14:07:06.584342 11537 net.cpp:425] pool2 <- conv2
I0720 14:07:06.584354 11537 net.cpp:399] pool2 -> pool2
I0720 14:07:06.584424 11537 net.cpp:141] Setting up pool2
I0720 14:07:06.584442 11537 net.cpp:148] Top shape: 10 256 13 13 (432640)
I0720 14:07:06.584450 11537 net.cpp:156] Memory required for data: 51674680
I0720 14:07:06.584475 11543 net.cpp:141] Setting up conv2
I0720 14:07:06.584504 11537 layer_factory.hpp:77] Creating layer norm2
I0720 14:07:06.584517 11543 net.cpp:148] Top shape: 10 256 27 27 (1866240)
I0720 14:07:06.584524 11543 net.cpp:156] Memory required for data: 42479160
I0720 14:07:06.584543 11543 layer_factory.hpp:77] Creating layer relu2
I0720 14:07:06.584544 11537 net.cpp:91] Creating Layer norm2
I0720 14:07:06.584554 11537 net.cpp:425] norm2 <- pool2
I0720 14:07:06.584555 11543 net.cpp:91] Creating Layer relu2
I0720 14:07:06.584611 11537 net.cpp:399] norm2 -> norm2
I0720 14:07:06.584671 11525 net.cpp:141] Setting up conv2
I0720 14:07:06.584693 11533 net.cpp:141] Setting up conv2
I0720 14:07:06.584797 11531 net.cpp:141] Setting up norm2
I0720 14:07:06.584844 11533 net.cpp:148] Top shape: 10 256 27 27 (1866240)
I0720 14:07:06.584842 11525 net.cpp:148] Top shape: 10 256 27 27 (1866240)
I0720 14:07:06.584856 11533 net.cpp:156] Memory required for data: 42479160
I0720 14:07:06.584861 11525 net.cpp:156] Memory required for data: 42479160
I0720 14:07:06.584862 11531 net.cpp:148] Top shape: 10 256 13 13 (432640)
I0720 14:07:06.584873 11531 net.cpp:156] Memory required for data: 53405240
I0720 14:07:06.584877 11533 layer_factory.hpp:77] Creating layer relu2
I0720 14:07:06.584883 11531 layer_factory.hpp:77] Creating layer conv3
I0720 14:07:06.584887 11545 net.cpp:141] Setting up norm2
I0720 14:07:06.584890 11533 net.cpp:91] Creating Layer relu2
I0720 14:07:06.584892 11525 layer_factory.hpp:77] Creating layer relu2
I0720 14:07:06.584902 11545 net.cpp:148] Top shape: 10 256 13 13 (432640)
I0720 14:07:06.584904 11533 net.cpp:425] relu2 <- conv2
I0720 14:07:06.584915 11525 net.cpp:91] Creating Layer relu2
I0720 14:07:06.584913 11539 net.cpp:141] Setting up conv2
I0720 14:07:06.584919 11509 net.cpp:141] Setting up norm2
I0720 14:07:06.584928 11533 net.cpp:386] relu2 -> conv2 (in-place)
I0720 14:07:06.584918 11531 net.cpp:91] Creating Layer conv3
I0720 14:07:06.584918 11545 net.cpp:156] Memory required for data: 53405240
I0720 14:07:06.584940 11525 net.cpp:425] relu2 <- conv2
I0720 14:07:06.584944 11509 net.cpp:148] Top shape: 10 256 13 13 (432640)
I0720 14:07:06.584946 11531 net.cpp:425] conv3 <- norm2
I0720 14:07:06.584949 11545 layer_factory.hpp:77] Creating layer conv3
I0720 14:07:06.584972 11509 net.cpp:156] Memory required for data: 53405240
I0720 14:07:06.584986 11531 net.cpp:399] conv3 -> conv3
I0720 14:07:06.584969 11539 net.cpp:148] Top shape: 10 256 27 27 (1866240)
I0720 14:07:06.584995 11509 layer_factory.hpp:77] Creating layer conv3
I0720 14:07:06.584996 11525 net.cpp:386] relu2 -> conv2 (in-place)
I0720 14:07:06.585005 11539 net.cpp:156] Memory required for data: 42479160
I0720 14:07:06.585031 11539 layer_factory.hpp:77] Creating layer relu2
I0720 14:07:06.585037 11545 net.cpp:91] Creating Layer conv3
I0720 14:07:06.585041 11509 net.cpp:91] Creating Layer conv3
I0720 14:07:06.585052 11545 net.cpp:425] conv3 <- norm2
I0720 14:07:06.585043 11539 net.cpp:91] Creating Layer relu2
I0720 14:07:06.585057 11509 net.cpp:425] conv3 <- norm2
I0720 14:07:06.585070 11539 net.cpp:425] relu2 <- conv2
I0720 14:07:06.585083 11539 net.cpp:386] relu2 -> conv2 (in-place)
I0720 14:07:06.585083 11509 net.cpp:399] conv3 -> conv3
I0720 14:07:06.585088 11545 net.cpp:399] conv3 -> conv3
I0720 14:07:06.584799 11543 net.cpp:425] relu2 <- conv2
I0720 14:07:06.586805 11543 net.cpp:386] relu2 -> conv2 (in-place)
I0720 14:07:06.593363 11539 net.cpp:141] Setting up relu2
I0720 14:07:06.593410 11539 net.cpp:148] Top shape: 10 256 27 27 (1866240)
I0720 14:07:06.593418 11539 net.cpp:156] Memory required for data: 49944120
I0720 14:07:06.593430 11539 layer_factory.hpp:77] Creating layer pool2
I0720 14:07:06.593451 11539 net.cpp:91] Creating Layer pool2
I0720 14:07:06.593461 11539 net.cpp:425] pool2 <- conv2
I0720 14:07:06.593479 11539 net.cpp:399] pool2 -> pool2
I0720 14:07:06.593504 11539 net.cpp:141] Setting up pool2
I0720 14:07:06.593514 11539 net.cpp:148] Top shape: 10 256 13 13 (432640)
I0720 14:07:06.593520 11539 net.cpp:156] Memory required for data: 51674680
I0720 14:07:06.593528 11539 layer_factory.hpp:77] Creating layer norm2
I0720 14:07:06.593549 11539 net.cpp:91] Creating Layer norm2
I0720 14:07:06.593555 11539 net.cpp:425] norm2 <- pool2
I0720 14:07:06.593565 11539 net.cpp:399] norm2 -> norm2
I0720 14:07:06.595299 11543 net.cpp:141] Setting up relu2
I0720 14:07:06.595321 11543 net.cpp:148] Top shape: 10 256 27 27 (1866240)
I0720 14:07:06.595327 11543 net.cpp:156] Memory required for data: 49944120
I0720 14:07:06.595333 11543 layer_factory.hpp:77] Creating layer pool2
I0720 14:07:06.595343 11543 net.cpp:91] Creating Layer pool2
I0720 14:07:06.595348 11543 net.cpp:425] pool2 <- conv2
I0720 14:07:06.595362 11543 net.cpp:399] pool2 -> pool2
I0720 14:07:06.595376 11543 net.cpp:141] Setting up pool2
I0720 14:07:06.595383 11543 net.cpp:148] Top shape: 10 256 13 13 (432640)
I0720 14:07:06.595387 11543 net.cpp:156] Memory required for data: 51674680
I0720 14:07:06.595391 11543 layer_factory.hpp:77] Creating layer norm2
I0720 14:07:06.595413 11543 net.cpp:91] Creating Layer norm2
I0720 14:07:06.595422 11543 net.cpp:425] norm2 <- pool2
I0720 14:07:06.595434 11543 net.cpp:399] norm2 -> norm2
I0720 14:07:06.600188 11525 net.cpp:141] Setting up relu2
I0720 14:07:06.600214 11525 net.cpp:148] Top shape: 10 256 27 27 (1866240)
I0720 14:07:06.600224 11525 net.cpp:156] Memory required for data: 49944120
I0720 14:07:06.600230 11525 layer_factory.hpp:77] Creating layer pool2
I0720 14:07:06.600244 11525 net.cpp:91] Creating Layer pool2
I0720 14:07:06.600250 11525 net.cpp:425] pool2 <- conv2
I0720 14:07:06.600260 11525 net.cpp:399] pool2 -> pool2
I0720 14:07:06.600272 11525 net.cpp:141] Setting up pool2
I0720 14:07:06.600280 11525 net.cpp:148] Top shape: 10 256 13 13 (432640)
I0720 14:07:06.600283 11525 net.cpp:156] Memory required for data: 51674680
I0720 14:07:06.600287 11525 layer_factory.hpp:77] Creating layer norm2
I0720 14:07:06.600301 11525 net.cpp:91] Creating Layer norm2
I0720 14:07:06.600309 11525 net.cpp:425] norm2 <- pool2
I0720 14:07:06.600307 11533 net.cpp:141] Setting up relu2
I0720 14:07:06.600325 11525 net.cpp:399] norm2 -> norm2
I0720 14:07:06.600334 11533 net.cpp:148] Top shape: 10 256 27 27 (1866240)
I0720 14:07:06.600344 11533 net.cpp:156] Memory required for data: 49944120
I0720 14:07:06.600353 11533 layer_factory.hpp:77] Creating layer pool2
I0720 14:07:06.600366 11533 net.cpp:91] Creating Layer pool2
I0720 14:07:06.600375 11533 net.cpp:425] pool2 <- conv2
I0720 14:07:06.600392 11533 net.cpp:399] pool2 -> pool2
I0720 14:07:06.600409 11533 net.cpp:141] Setting up pool2
I0720 14:07:06.600416 11533 net.cpp:148] Top shape: 10 256 13 13 (432640)
I0720 14:07:06.600420 11533 net.cpp:156] Memory required for data: 51674680
I0720 14:07:06.600425 11533 layer_factory.hpp:77] Creating layer norm2
I0720 14:07:06.600440 11533 net.cpp:91] Creating Layer norm2
I0720 14:07:06.600445 11533 net.cpp:425] norm2 <- pool2
I0720 14:07:06.600450 11533 net.cpp:399] norm2 -> norm2
I0720 14:07:06.600589 11543 net.cpp:141] Setting up norm2
I0720 14:07:06.600610 11543 net.cpp:148] Top shape: 10 256 13 13 (432640)
I0720 14:07:06.600615 11543 net.cpp:156] Memory required for data: 53405240
I0720 14:07:06.600620 11543 layer_factory.hpp:77] Creating layer conv3
I0720 14:07:06.600635 11543 net.cpp:91] Creating Layer conv3
I0720 14:07:06.600639 11543 net.cpp:425] conv3 <- norm2
I0720 14:07:06.600656 11543 net.cpp:399] conv3 -> conv3
I0720 14:07:06.601063 11533 net.cpp:141] Setting up norm2
I0720 14:07:06.601083 11533 net.cpp:148] Top shape: 10 256 13 13 (432640)
I0720 14:07:06.601091 11533 net.cpp:156] Memory required for data: 53405240
I0720 14:07:06.601100 11533 layer_factory.hpp:77] Creating layer conv3
I0720 14:07:06.601124 11533 net.cpp:91] Creating Layer conv3
I0720 14:07:06.601133 11533 net.cpp:425] conv3 <- norm2
I0720 14:07:06.601148 11533 net.cpp:399] conv3 -> conv3
I0720 14:07:06.607229 11539 net.cpp:141] Setting up norm2
I0720 14:07:06.607280 11539 net.cpp:148] Top shape: 10 256 13 13 (432640)
I0720 14:07:06.607280 11537 net.cpp:141] Setting up norm2
I0720 14:07:06.607288 11539 net.cpp:156] Memory required for data: 53405240
I0720 14:07:06.607307 11537 net.cpp:148] Top shape: 10 256 13 13 (432640)
I0720 14:07:06.607307 11539 layer_factory.hpp:77] Creating layer conv3
I0720 14:07:06.607319 11537 net.cpp:156] Memory required for data: 53405240
I0720 14:07:06.607329 11537 layer_factory.hpp:77] Creating layer conv3
I0720 14:07:06.607341 11539 net.cpp:91] Creating Layer conv3
I0720 14:07:06.607350 11539 net.cpp:425] conv3 <- norm2
I0720 14:07:06.607350 11537 net.cpp:91] Creating Layer conv3
I0720 14:07:06.607362 11537 net.cpp:425] conv3 <- norm2
I0720 14:07:06.607372 11539 net.cpp:399] conv3 -> conv3
I0720 14:07:06.607377 11537 net.cpp:399] conv3 -> conv3
I0720 14:07:06.608896 11509 net.cpp:141] Setting up conv3
I0720 14:07:06.608927 11509 net.cpp:148] Top shape: 10 384 13 13 (648960)
I0720 14:07:06.608935 11509 net.cpp:156] Memory required for data: 56001080
I0720 14:07:06.608979 11509 layer_factory.hpp:77] Creating layer relu3
I0720 14:07:06.608999 11509 net.cpp:91] Creating Layer relu3
I0720 14:07:06.609009 11509 net.cpp:425] relu3 <- conv3
I0720 14:07:06.609022 11509 net.cpp:386] relu3 -> conv3 (in-place)
I0720 14:07:06.615937 11519 net.cpp:141] Setting up conv3
I0720 14:07:06.615981 11519 net.cpp:148] Top shape: 10 384 13 13 (648960)
I0720 14:07:06.615988 11519 net.cpp:156] Memory required for data: 56001080
I0720 14:07:06.616014 11519 layer_factory.hpp:77] Creating layer relu3
I0720 14:07:06.616030 11519 net.cpp:91] Creating Layer relu3
I0720 14:07:06.616037 11519 net.cpp:425] relu3 <- conv3
I0720 14:07:06.616045 11519 net.cpp:386] relu3 -> conv3 (in-place)
I0720 14:07:06.616516 11529 net.cpp:141] Setting up conv3
I0720 14:07:06.616552 11529 net.cpp:148] Top shape: 10 384 13 13 (648960)
I0720 14:07:06.616557 11529 net.cpp:156] Memory required for data: 56001080
I0720 14:07:06.616562 11509 net.cpp:141] Setting up relu3
I0720 14:07:06.616575 11529 layer_factory.hpp:77] Creating layer relu3
I0720 14:07:06.616585 11509 net.cpp:148] Top shape: 10 384 13 13 (648960)
I0720 14:07:06.616595 11529 net.cpp:91] Creating Layer relu3
I0720 14:07:06.616595 11509 net.cpp:156] Memory required for data: 58596920
I0720 14:07:06.616601 11529 net.cpp:425] relu3 <- conv3
I0720 14:07:06.616605 11509 layer_factory.hpp:77] Creating layer conv4
I0720 14:07:06.616611 11529 net.cpp:386] relu3 -> conv3 (in-place)
I0720 14:07:06.616632 11509 net.cpp:91] Creating Layer conv4
I0720 14:07:06.616643 11509 net.cpp:425] conv4 <- conv3
I0720 14:07:06.616672 11509 net.cpp:399] conv4 -> conv4
I0720 14:07:06.618053 11525 net.cpp:141] Setting up norm2
I0720 14:07:06.618073 11525 net.cpp:148] Top shape: 10 256 13 13 (432640)
I0720 14:07:06.618078 11525 net.cpp:156] Memory required for data: 53405240
I0720 14:07:06.618084 11525 layer_factory.hpp:77] Creating layer conv3
I0720 14:07:06.618099 11525 net.cpp:91] Creating Layer conv3
I0720 14:07:06.618105 11525 net.cpp:425] conv3 <- norm2
I0720 14:07:06.618116 11525 net.cpp:399] conv3 -> conv3
I0720 14:07:06.630957 11545 net.cpp:141] Setting up conv3
I0720 14:07:06.630997 11545 net.cpp:148] Top shape: 10 384 13 13 (648960)
I0720 14:07:06.631003 11545 net.cpp:156] Memory required for data: 56001080
I0720 14:07:06.631024 11545 layer_factory.hpp:77] Creating layer relu3
I0720 14:07:06.631038 11545 net.cpp:91] Creating Layer relu3
I0720 14:07:06.631044 11545 net.cpp:425] relu3 <- conv3
I0720 14:07:06.631052 11545 net.cpp:386] relu3 -> conv3 (in-place)
I0720 14:07:06.631876 11543 net.cpp:141] Setting up conv3
I0720 14:07:06.631913 11543 net.cpp:148] Top shape: 10 384 13 13 (648960)
I0720 14:07:06.631919 11543 net.cpp:156] Memory required for data: 56001080
I0720 14:07:06.631937 11543 layer_factory.hpp:77] Creating layer relu3
I0720 14:07:06.631953 11543 net.cpp:91] Creating Layer relu3
I0720 14:07:06.631958 11543 net.cpp:425] relu3 <- conv3
I0720 14:07:06.631966 11543 net.cpp:386] relu3 -> conv3 (in-place)
I0720 14:07:06.632149 11511 net.cpp:141] Setting up lstm2_x_transform
I0720 14:07:06.632171 11511 net.cpp:148] Top shape: 1 1 4000 (4000)
I0720 14:07:06.632180 11511 net.cpp:156] Memory required for data: 30020
I0720 14:07:06.632194 11511 layer_factory.hpp:77] Creating layer lstm2_W_xc_x_slice
I0720 14:07:06.632205 11511 net.cpp:91] Creating Layer lstm2_W_xc_x_slice
I0720 14:07:06.632210 11511 net.cpp:425] lstm2_W_xc_x_slice <- W_xc_x
I0720 14:07:06.632218 11511 net.cpp:399] lstm2_W_xc_x_slice -> W_xc_x_1
I0720 14:07:06.632591 11511 net.cpp:141] Setting up lstm2_W_xc_x_slice
I0720 14:07:06.632603 11511 net.cpp:148] Top shape: 1 1 4000 (4000)
I0720 14:07:06.632608 11511 net.cpp:156] Memory required for data: 46020
I0720 14:07:06.632612 11511 layer_factory.hpp:77] Creating layer lstm2_h_conted_0
I0720 14:07:06.632624 11511 net.cpp:91] Creating Layer lstm2_h_conted_0
I0720 14:07:06.632633 11511 net.cpp:425] lstm2_h_conted_0 <- h_0
I0720 14:07:06.632643 11511 net.cpp:425] lstm2_h_conted_0 <- cont_1_lstm2_cont_slice_0_split_0
I0720 14:07:06.632658 11511 net.cpp:399] lstm2_h_conted_0 -> h_conted_0
I0720 14:07:06.633909 11545 net.cpp:141] Setting up relu3
I0720 14:07:06.633934 11545 net.cpp:148] Top shape: 10 384 13 13 (648960)
I0720 14:07:06.633940 11545 net.cpp:156] Memory required for data: 58596920
I0720 14:07:06.633946 11545 layer_factory.hpp:77] Creating layer conv4
I0720 14:07:06.633977 11545 net.cpp:91] Creating Layer conv4
I0720 14:07:06.633985 11545 net.cpp:425] conv4 <- conv3
I0720 14:07:06.633992 11545 net.cpp:399] conv4 -> conv4
I0720 14:07:06.634323 11519 net.cpp:141] Setting up relu3
I0720 14:07:06.634341 11519 net.cpp:148] Top shape: 10 384 13 13 (648960)
I0720 14:07:06.634346 11519 net.cpp:156] Memory required for data: 58596920
I0720 14:07:06.634352 11519 layer_factory.hpp:77] Creating layer conv4
I0720 14:07:06.634382 11519 net.cpp:91] Creating Layer conv4
I0720 14:07:06.634390 11519 net.cpp:425] conv4 <- conv3
I0720 14:07:06.634398 11519 net.cpp:399] conv4 -> conv4
I0720 14:07:06.647596 11537 net.cpp:141] Setting up conv3
I0720 14:07:06.647631 11537 net.cpp:148] Top shape: 10 384 13 13 (648960)
I0720 14:07:06.647637 11537 net.cpp:156] Memory required for data: 56001080
I0720 14:07:06.647658 11537 layer_factory.hpp:77] Creating layer relu3
I0720 14:07:06.647675 11537 net.cpp:91] Creating Layer relu3
I0720 14:07:06.647681 11537 net.cpp:425] relu3 <- conv3
I0720 14:07:06.647689 11537 net.cpp:386] relu3 -> conv3 (in-place)
I0720 14:07:06.649163 11511 net.cpp:141] Setting up lstm2_h_conted_0
I0720 14:07:06.649180 11511 net.cpp:148] Top shape: 1 1 1000 (1000)
I0720 14:07:06.649185 11511 net.cpp:156] Memory required for data: 50020
I0720 14:07:06.649190 11511 layer_factory.hpp:77] Creating layer lstm2_transform_1
I0720 14:07:06.649206 11511 net.cpp:91] Creating Layer lstm2_transform_1
I0720 14:07:06.649211 11511 net.cpp:425] lstm2_transform_1 <- h_conted_0
I0720 14:07:06.649222 11511 net.cpp:399] lstm2_transform_1 -> W_hc_h_0
I0720 14:07:06.659441 11529 net.cpp:141] Setting up relu3
I0720 14:07:06.659492 11529 net.cpp:148] Top shape: 10 384 13 13 (648960)
I0720 14:07:06.659502 11529 net.cpp:156] Memory required for data: 58596920
I0720 14:07:06.659512 11529 layer_factory.hpp:77] Creating layer conv4
I0720 14:07:06.659540 11529 net.cpp:91] Creating Layer conv4
I0720 14:07:06.659548 11529 net.cpp:425] conv4 <- conv3
I0720 14:07:06.659564 11529 net.cpp:399] conv4 -> conv4
I0720 14:07:06.664264 11543 net.cpp:141] Setting up relu3
I0720 14:07:06.664289 11543 net.cpp:148] Top shape: 10 384 13 13 (648960)
I0720 14:07:06.664294 11543 net.cpp:156] Memory required for data: 58596920
I0720 14:07:06.664300 11543 layer_factory.hpp:77] Creating layer conv4
I0720 14:07:06.664306 11531 net.cpp:141] Setting up conv3
I0720 14:07:06.664316 11543 net.cpp:91] Creating Layer conv4
I0720 14:07:06.664322 11531 net.cpp:148] Top shape: 10 384 13 13 (648960)
I0720 14:07:06.664332 11531 net.cpp:156] Memory required for data: 56001080
I0720 14:07:06.664324 11543 net.cpp:425] conv4 <- conv3
I0720 14:07:06.664353 11543 net.cpp:399] conv4 -> conv4
I0720 14:07:06.664360 11531 layer_factory.hpp:77] Creating layer relu3
I0720 14:07:06.664376 11531 net.cpp:91] Creating Layer relu3
I0720 14:07:06.664386 11531 net.cpp:425] relu3 <- conv3
I0720 14:07:06.664402 11531 net.cpp:386] relu3 -> conv3 (in-place)
I0720 14:07:06.665341 11537 net.cpp:141] Setting up relu3
I0720 14:07:06.665374 11537 net.cpp:148] Top shape: 10 384 13 13 (648960)
I0720 14:07:06.665382 11537 net.cpp:156] Memory required for data: 58596920
I0720 14:07:06.665392 11537 layer_factory.hpp:77] Creating layer conv4
I0720 14:07:06.665416 11537 net.cpp:91] Creating Layer conv4
I0720 14:07:06.665426 11537 net.cpp:425] conv4 <- conv3
I0720 14:07:06.665443 11537 net.cpp:399] conv4 -> conv4
I0720 14:07:06.668933 11533 net.cpp:141] Setting up conv3
I0720 14:07:06.668982 11533 net.cpp:148] Top shape: 10 384 13 13 (648960)
I0720 14:07:06.668993 11533 net.cpp:156] Memory required for data: 56001080
I0720 14:07:06.669003 11531 net.cpp:141] Setting up relu3
I0720 14:07:06.669018 11531 net.cpp:148] Top shape: 10 384 13 13 (648960)
I0720 14:07:06.669023 11531 net.cpp:156] Memory required for data: 58596920
I0720 14:07:06.669021 11533 layer_factory.hpp:77] Creating layer relu3
I0720 14:07:06.669028 11531 layer_factory.hpp:77] Creating layer conv4
I0720 14:07:06.669055 11531 net.cpp:91] Creating Layer conv4
I0720 14:07:06.669055 11533 net.cpp:91] Creating Layer relu3
I0720 14:07:06.669064 11531 net.cpp:425] conv4 <- conv3
I0720 14:07:06.669067 11533 net.cpp:425] relu3 <- conv3
I0720 14:07:06.669075 11531 net.cpp:399] conv4 -> conv4
I0720 14:07:06.669080 11533 net.cpp:386] relu3 -> conv3 (in-place)
I0720 14:07:06.671573 11525 net.cpp:141] Setting up conv3
I0720 14:07:06.671602 11525 net.cpp:148] Top shape: 10 384 13 13 (648960)
I0720 14:07:06.671608 11525 net.cpp:156] Memory required for data: 56001080
I0720 14:07:06.671641 11525 layer_factory.hpp:77] Creating layer relu3
I0720 14:07:06.671655 11525 net.cpp:91] Creating Layer relu3
I0720 14:07:06.671663 11525 net.cpp:425] relu3 <- conv3
I0720 14:07:06.671676 11525 net.cpp:386] relu3 -> conv3 (in-place)
I0720 14:07:06.676823 11533 net.cpp:141] Setting up relu3
I0720 14:07:06.676858 11533 net.cpp:148] Top shape: 10 384 13 13 (648960)
I0720 14:07:06.676868 11533 net.cpp:156] Memory required for data: 58596920
I0720 14:07:06.676878 11533 layer_factory.hpp:77] Creating layer conv4
I0720 14:07:06.676906 11533 net.cpp:91] Creating Layer conv4
I0720 14:07:06.676918 11533 net.cpp:425] conv4 <- conv3
I0720 14:07:06.676934 11533 net.cpp:399] conv4 -> conv4
I0720 14:07:06.679422 11539 net.cpp:141] Setting up conv3
I0720 14:07:06.679452 11539 net.cpp:148] Top shape: 10 384 13 13 (648960)
I0720 14:07:06.679460 11539 net.cpp:156] Memory required for data: 56001080
I0720 14:07:06.679476 11539 layer_factory.hpp:77] Creating layer relu3
I0720 14:07:06.679487 11539 net.cpp:91] Creating Layer relu3
I0720 14:07:06.679492 11539 net.cpp:425] relu3 <- conv3
I0720 14:07:06.679534 11539 net.cpp:386] relu3 -> conv3 (in-place)
I0720 14:07:06.679585 11519 net.cpp:141] Setting up conv4
I0720 14:07:06.679623 11519 net.cpp:148] Top shape: 10 384 13 13 (648960)
I0720 14:07:06.679628 11519 net.cpp:156] Memory required for data: 61192760
I0720 14:07:06.679642 11519 layer_factory.hpp:77] Creating layer relu4
I0720 14:07:06.679656 11519 net.cpp:91] Creating Layer relu4
I0720 14:07:06.679663 11519 net.cpp:425] relu4 <- conv4
I0720 14:07:06.679675 11519 net.cpp:386] relu4 -> conv4 (in-place)
I0720 14:07:06.683282 11539 net.cpp:141] Setting up relu3
I0720 14:07:06.683287 11525 net.cpp:141] Setting up relu3
I0720 14:07:06.683311 11539 net.cpp:148] Top shape: 10 384 13 13 (648960)
I0720 14:07:06.683317 11525 net.cpp:148] Top shape: 10 384 13 13 (648960)
I0720 14:07:06.683320 11539 net.cpp:156] Memory required for data: 58596920
I0720 14:07:06.683327 11525 net.cpp:156] Memory required for data: 58596920
I0720 14:07:06.683331 11539 layer_factory.hpp:77] Creating layer conv4
I0720 14:07:06.683336 11525 layer_factory.hpp:77] Creating layer conv4
I0720 14:07:06.683353 11539 net.cpp:91] Creating Layer conv4
I0720 14:07:06.683359 11539 net.cpp:425] conv4 <- conv3
I0720 14:07:06.683367 11525 net.cpp:91] Creating Layer conv4
I0720 14:07:06.683377 11539 net.cpp:399] conv4 -> conv4
I0720 14:07:06.683377 11525 net.cpp:425] conv4 <- conv3
I0720 14:07:06.683398 11525 net.cpp:399] conv4 -> conv4
I0720 14:07:06.687237 11519 net.cpp:141] Setting up relu4
I0720 14:07:06.687263 11519 net.cpp:148] Top shape: 10 384 13 13 (648960)
I0720 14:07:06.687268 11519 net.cpp:156] Memory required for data: 63788600
I0720 14:07:06.687273 11519 layer_factory.hpp:77] Creating layer conv5
I0720 14:07:06.687294 11519 net.cpp:91] Creating Layer conv5
I0720 14:07:06.687300 11519 net.cpp:425] conv5 <- conv4
I0720 14:07:06.687309 11519 net.cpp:399] conv5 -> conv5
I0720 14:07:06.691282 11545 net.cpp:141] Setting up conv4
I0720 14:07:06.691308 11545 net.cpp:148] Top shape: 10 384 13 13 (648960)
I0720 14:07:06.691313 11545 net.cpp:156] Memory required for data: 61192760
I0720 14:07:06.691325 11545 layer_factory.hpp:77] Creating layer relu4
I0720 14:07:06.691336 11545 net.cpp:91] Creating Layer relu4
I0720 14:07:06.691342 11545 net.cpp:425] relu4 <- conv4
I0720 14:07:06.691349 11545 net.cpp:386] relu4 -> conv4 (in-place)
I0720 14:07:06.697139 11511 net.cpp:141] Setting up lstm2_transform_1
I0720 14:07:06.697181 11511 net.cpp:148] Top shape: 1 1 4000 (4000)
I0720 14:07:06.697188 11511 net.cpp:156] Memory required for data: 66020
I0720 14:07:06.697207 11511 layer_factory.hpp:77] Creating layer lstm2_gate_input_1
I0720 14:07:06.697224 11511 net.cpp:91] Creating Layer lstm2_gate_input_1
I0720 14:07:06.697232 11511 net.cpp:425] lstm2_gate_input_1 <- W_hc_h_0
I0720 14:07:06.697238 11511 net.cpp:425] lstm2_gate_input_1 <- W_xc_x_1
I0720 14:07:06.697247 11511 net.cpp:399] lstm2_gate_input_1 -> gate_input_1
I0720 14:07:06.697770 11545 net.cpp:141] Setting up relu4
I0720 14:07:06.697793 11545 net.cpp:148] Top shape: 10 384 13 13 (648960)
I0720 14:07:06.697798 11545 net.cpp:156] Memory required for data: 63788600
I0720 14:07:06.697804 11545 layer_factory.hpp:77] Creating layer conv5
I0720 14:07:06.697824 11545 net.cpp:91] Creating Layer conv5
I0720 14:07:06.697831 11545 net.cpp:425] conv5 <- conv4
I0720 14:07:06.697839 11545 net.cpp:399] conv5 -> conv5
I0720 14:07:06.698839 11511 net.cpp:141] Setting up lstm2_gate_input_1
I0720 14:07:06.698858 11511 net.cpp:148] Top shape: 1 1 4000 (4000)
I0720 14:07:06.698863 11511 net.cpp:156] Memory required for data: 82020
I0720 14:07:06.698868 11511 layer_factory.hpp:77] Creating layer lstm2_unit_1
I0720 14:07:06.698879 11511 net.cpp:91] Creating Layer lstm2_unit_1
I0720 14:07:06.698882 11511 net.cpp:425] lstm2_unit_1 <- c_0
I0720 14:07:06.698889 11511 net.cpp:425] lstm2_unit_1 <- gate_input_1
I0720 14:07:06.698894 11511 net.cpp:425] lstm2_unit_1 <- cont_1_lstm2_cont_slice_0_split_1
I0720 14:07:06.698904 11511 net.cpp:399] lstm2_unit_1 -> c_1
I0720 14:07:06.698912 11511 net.cpp:399] lstm2_unit_1 -> h_1
I0720 14:07:06.725942 11511 net.cpp:141] Setting up lstm2_unit_1
I0720 14:07:06.725993 11511 net.cpp:148] Top shape: 1 1 1000 (1000)
I0720 14:07:06.726001 11511 net.cpp:148] Top shape: 1 1 1000 (1000)
I0720 14:07:06.726006 11511 net.cpp:156] Memory required for data: 90020
I0720 14:07:06.726013 11511 layer_factory.hpp:77] Creating layer lstm2_
I0720 14:07:06.726029 11511 net.cpp:91] Creating Layer lstm2_
I0720 14:07:06.726039 11511 net.cpp:425] lstm2_ <- c_1
I0720 14:07:06.726052 11511 net.cpp:399] lstm2_ -> c_T
I0720 14:07:06.726189 11511 net.cpp:141] Setting up lstm2_
I0720 14:07:06.726202 11511 net.cpp:148] Top shape: 1 1 1000 (1000)
I0720 14:07:06.726207 11511 net.cpp:156] Memory required for data: 94020
I0720 14:07:06.726212 11511 layer_factory.hpp:77] Creating layer lstm2_h_concat
I0720 14:07:06.726222 11511 net.cpp:91] Creating Layer lstm2_h_concat
I0720 14:07:06.726227 11511 net.cpp:425] lstm2_h_concat <- h_1
I0720 14:07:06.726233 11511 net.cpp:399] lstm2_h_concat -> h
I0720 14:07:06.727926 11511 net.cpp:141] Setting up lstm2_h_concat
I0720 14:07:06.727944 11511 net.cpp:148] Top shape: 1 1 1000 (1000)
I0720 14:07:06.727948 11511 net.cpp:156] Memory required for data: 98020
I0720 14:07:06.727957 11511 layer_factory.hpp:77] Creating layer h_pseudoloss
I0720 14:07:06.727973 11511 net.cpp:91] Creating Layer h_pseudoloss
I0720 14:07:06.727982 11511 net.cpp:425] h_pseudoloss <- h
I0720 14:07:06.727991 11511 net.cpp:399] h_pseudoloss -> h_pseudoloss
I0720 14:07:06.731271 11531 net.cpp:141] Setting up conv4
I0720 14:07:06.731294 11531 net.cpp:148] Top shape: 10 384 13 13 (648960)
I0720 14:07:06.731300 11531 net.cpp:156] Memory required for data: 61192760
I0720 14:07:06.731312 11531 layer_factory.hpp:77] Creating layer relu4
I0720 14:07:06.731322 11531 net.cpp:91] Creating Layer relu4
I0720 14:07:06.731328 11531 net.cpp:425] relu4 <- conv4
I0720 14:07:06.731340 11531 net.cpp:386] relu4 -> conv4 (in-place)
I0720 14:07:06.731595 11543 net.cpp:141] Setting up conv4
I0720 14:07:06.731616 11543 net.cpp:148] Top shape: 10 384 13 13 (648960)
I0720 14:07:06.731621 11543 net.cpp:156] Memory required for data: 61192760
I0720 14:07:06.731631 11543 layer_factory.hpp:77] Creating layer relu4
I0720 14:07:06.731640 11543 net.cpp:91] Creating Layer relu4
I0720 14:07:06.731645 11543 net.cpp:425] relu4 <- conv4
I0720 14:07:06.731652 11543 net.cpp:386] relu4 -> conv4 (in-place)
I0720 14:07:06.732733 11529 net.cpp:141] Setting up conv4
I0720 14:07:06.732750 11529 net.cpp:148] Top shape: 10 384 13 13 (648960)
I0720 14:07:06.732755 11529 net.cpp:156] Memory required for data: 61192760
I0720 14:07:06.732765 11529 layer_factory.hpp:77] Creating layer relu4
I0720 14:07:06.732774 11529 net.cpp:91] Creating Layer relu4
I0720 14:07:06.732779 11529 net.cpp:425] relu4 <- conv4
I0720 14:07:06.732786 11529 net.cpp:386] relu4 -> conv4 (in-place)
I0720 14:07:06.743124 11511 net.cpp:141] Setting up h_pseudoloss
…
I0720 14:07:06.743273 11511 net.cpp:219] lstm2_ does not need backward computation.
I0720 14:07:06.743278 11511 net.cpp:261] This network produces output c_T
I0720 14:07:06.743283 11511 net.cpp:261] This network produces output h_pseudoloss
I0720 14:07:06.743301 11511 net.cpp:274] Network initialization done.
I0720 14:07:06.743372 11511 recurrent_layer.cpp:150] Adding parameter 0: W_xc
I0720 14:07:06.743383 11511 recurrent_layer.cpp:150] Adding parameter 1: b_c
I0720 14:07:06.743392 11511 recurrent_layer.cpp:150] Adding parameter 2: W_hc
I0720 14:07:06.746929 11543 net.cpp:141] Setting up relu4
I0720 14:07:06.746955 11543 net.cpp:148] Top shape: 10 384 13 13 (648960)
I0720 14:07:06.746960 11543 net.cpp:156] Memory required for data: 63788600
I0720 14:07:06.746968 11543 layer_factory.hpp:77] Creating layer conv5
I0720 14:07:06.747004 11543 net.cpp:91] Creating Layer conv5
I0720 14:07:06.747012 11543 net.cpp:425] conv5 <- conv4
I0720 14:07:06.747021 11543 net.cpp:399] conv5 -> conv5
I0720 14:07:06.747364 11531 net.cpp:141] Setting up relu4
I0720 14:07:06.747385 11531 net.cpp:148] Top shape: 10 384 13 13 (648960)
I0720 14:07:06.747390 11531 net.cpp:156] Memory required for data: 63788600
I0720 14:07:06.747395 11531 layer_factory.hpp:77] Creating layer conv5
I0720 14:07:06.747421 11531 net.cpp:91] Creating Layer conv5
I0720 14:07:06.747433 11531 net.cpp:425] conv5 <- conv4
I0720 14:07:06.747445 11531 net.cpp:399] conv5 -> conv5
I0720 14:07:06.747975 11509 net.cpp:141] Setting up conv4
I0720 14:07:06.747999 11509 net.cpp:148] Top shape: 10 384 13 13 (648960)
I0720 14:07:06.748009 11509 net.cpp:156] Memory required for data: 61192760
I0720 14:07:06.748028 11509 layer_factory.hpp:77] Creating layer relu4
I0720 14:07:06.748051 11509 net.cpp:91] Creating Layer relu4
I0720 14:07:06.748061 11509 net.cpp:425] relu4 <- conv4
I0720 14:07:06.748073 11509 net.cpp:386] relu4 -> conv4 (in-place)
I0720 14:07:06.756192 11511 net.cpp:141] Setting up lstm2
I0720 14:07:06.756232 11511 net.cpp:148] Top shape: 1 1 1000 (1000)
I0720 14:07:06.756237 11511 net.cpp:156] Memory required for data: 36412
I0720 14:07:06.756255 11511 layer_factory.hpp:77] Creating layer predict
I0720 14:07:06.756273 11511 net.cpp:91] Creating Layer predict
I0720 14:07:06.756278 11511 net.cpp:425] predict <- lstm2
I0720 14:07:06.756286 11511 net.cpp:399] predict -> predict
I0720 14:07:06.756317 11529 net.cpp:141] Setting up relu4
I0720 14:07:06.756335 11529 net.cpp:148] Top shape: 10 384 13 13 (648960)
I0720 14:07:06.756340 11529 net.cpp:156] Memory required for data: 63788600
I0720 14:07:06.756346 11529 layer_factory.hpp:77] Creating layer conv5
I0720 14:07:06.756369 11529 net.cpp:91] Creating Layer conv5
I0720 14:07:06.756381 11529 net.cpp:425] conv5 <- conv4
I0720 14:07:06.756393 11529 net.cpp:399] conv5 -> conv5
I0720 14:07:06.840095 11539 net.cpp:141] Setting up conv4
I0720 14:07:06.840148 11539 net.cpp:148] Top shape: 10 384 13 13 (648960)
I0720 14:07:06.840155 11539 net.cpp:156] Memory required for data: 61192760
I0720 14:07:06.840173 11539 layer_factory.hpp:77] Creating layer relu4
I0720 14:07:06.840204 11539 net.cpp:91] Creating Layer relu4
I0720 14:07:06.840214 11539 net.cpp:425] relu4 <- conv4
I0720 14:07:06.840229 11539 net.cpp:386] relu4 -> conv4 (in-place)
I0720 14:07:06.847167 11537 net.cpp:141] Setting up conv4
I0720 14:07:06.847247 11537 net.cpp:148] Top shape: 10 384 13 13 (648960)
I0720 14:07:06.847265 11537 net.cpp:156] Memory required for data: 61192760
I0720 14:07:06.847301 11537 layer_factory.hpp:77] Creating layer relu4
I0720 14:07:06.847337 11537 net.cpp:91] Creating Layer relu4
I0720 14:07:06.847357 11537 net.cpp:425] relu4 <- conv4
I0720 14:07:06.847385 11537 net.cpp:386] relu4 -> conv4 (in-place)
I0720 14:07:06.848937 11533 net.cpp:141] Setting up conv4
I0720 14:07:06.848969 11533 net.cpp:148] Top shape: 10 384 13 13 (648960)
I0720 14:07:06.848978 11533 net.cpp:156] Memory required for data: 61192760
I0720 14:07:06.848999 11533 layer_factory.hpp:77] Creating layer relu4
I0720 14:07:06.849016 11533 net.cpp:91] Creating Layer relu4
I0720 14:07:06.849026 11533 net.cpp:425] relu4 <- conv4
I0720 14:07:06.849040 11533 net.cpp:386] relu4 -> conv4 (in-place)
I0720 14:07:06.850594 11519 net.cpp:141] Setting up conv5
I0720 14:07:06.850637 11519 net.cpp:148] Top shape: 10 256 13 13 (432640)
I0720 14:07:06.850643 11519 net.cpp:156] Memory required for data: 65519160
I0720 14:07:06.850666 11519 layer_factory.hpp:77] Creating layer relu5
I0720 14:07:06.850728 11519 net.cpp:91] Creating Layer relu5
I0720 14:07:06.850740 11519 net.cpp:425] relu5 <- conv5
I0720 14:07:06.850750 11519 net.cpp:386] relu5 -> conv5 (in-place)
I0720 14:07:06.851728 11509 net.cpp:141] Setting up relu4
I0720 14:07:06.851771 11509 net.cpp:148] Top shape: 10 384 13 13 (648960)
I0720 14:07:06.851778 11509 net.cpp:156] Memory required for data: 63788600
I0720 14:07:06.851788 11509 layer_factory.hpp:77] Creating layer conv5
I0720 14:07:06.851815 11509 net.cpp:91] Creating Layer conv5
I0720 14:07:06.851824 11509 net.cpp:425] conv5 <- conv4
I0720 14:07:06.851833 11509 net.cpp:399] conv5 -> conv5
I0720 14:07:06.852419 11525 net.cpp:141] Setting up conv4
I0720 14:07:06.852444 11525 net.cpp:148] Top shape: 10 384 13 13 (648960)
I0720 14:07:06.852453 11525 net.cpp:156] Memory required for data: 61192760
I0720 14:07:06.852470 11525 layer_factory.hpp:77] Creating layer relu4
I0720 14:07:06.852495 11525 net.cpp:91] Creating Layer relu4
I0720 14:07:06.852505 11525 net.cpp:425] relu4 <- conv4
I0720 14:07:06.852515 11525 net.cpp:386] relu4 -> conv4 (in-place)
I0720 14:07:06.857499 11539 net.cpp:141] Setting up relu4
I0720 14:07:06.857545 11539 net.cpp:148] Top shape: 10 384 13 13 (648960)
I0720 14:07:06.857554 11539 net.cpp:156] Memory required for data: 63788600
I0720 14:07:06.857566 11539 layer_factory.hpp:77] Creating layer conv5
I0720 14:07:06.857604 11539 net.cpp:91] Creating Layer conv5
I0720 14:07:06.857614 11539 net.cpp:425] conv5 <- conv4
I0720 14:07:06.857633 11539 net.cpp:399] conv5 -> conv5
I0720 14:07:06.859323 11525 net.cpp:141] Setting up relu4
I0720 14:07:06.859361 11525 net.cpp:148] Top shape: 10 384 13 13 (648960)
I0720 14:07:06.859366 11525 net.cpp:156] Memory required for data: 63788600
I0720 14:07:06.859375 11525 layer_factory.hpp:77] Creating layer conv5
I0720 14:07:06.859412 11525 net.cpp:91] Creating Layer conv5
I0720 14:07:06.859424 11525 net.cpp:425] conv5 <- conv4
I0720 14:07:06.859441 11525 net.cpp:399] conv5 -> conv5
I0720 14:07:06.862826 11533 net.cpp:141] Setting up relu4
I0720 14:07:06.862879 11533 net.cpp:148] Top shape: 10 384 13 13 (648960)
I0720 14:07:06.862889 11533 net.cpp:156] Memory required for data: 63788600
I0720 14:07:06.862902 11533 layer_factory.hpp:77] Creating layer conv5
I0720 14:07:06.862939 11533 net.cpp:91] Creating Layer conv5
I0720 14:07:06.862951 11533 net.cpp:425] conv5 <- conv4
I0720 14:07:06.862968 11533 net.cpp:399] conv5 -> conv5
I0720 14:07:06.863221 11537 net.cpp:141] Setting up relu4
I0720 14:07:06.863252 11537 net.cpp:148] Top shape: 10 384 13 13 (648960)
I0720 14:07:06.863267 11537 net.cpp:156] Memory required for data: 63788600
I0720 14:07:06.863283 11537 layer_factory.hpp:77] Creating layer conv5
I0720 14:07:06.863335 11537 net.cpp:91] Creating Layer conv5
I0720 14:07:06.863355 11537 net.cpp:425] conv5 <- conv4
I0720 14:07:06.863389 11537 net.cpp:399] conv5 -> conv5
I0720 14:07:06.863487 11519 net.cpp:141] Setting up relu5
I0720 14:07:06.863513 11519 net.cpp:148] Top shape: 10 256 13 13 (432640)
I0720 14:07:06.863518 11519 net.cpp:156] Memory required for data: 67249720
I0720 14:07:06.863525 11519 layer_factory.hpp:77] Creating layer pool5
I0720 14:07:06.863572 11519 net.cpp:91] Creating Layer pool5
I0720 14:07:06.863581 11519 net.cpp:425] pool5 <- conv5
I0720 14:07:06.863591 11519 net.cpp:399] pool5 -> pool5
I0720 14:07:06.863625 11519 net.cpp:141] Setting up pool5
I0720 14:07:06.863632 11519 net.cpp:148] Top shape: 10 256 6 6 (92160)
I0720 14:07:06.863636 11519 net.cpp:156] Memory required for data: 67618360
I0720 14:07:06.863641 11519 layer_factory.hpp:77] Creating layer fc6
I0720 14:07:06.863654 11519 net.cpp:91] Creating Layer fc6
I0720 14:07:06.863658 11519 net.cpp:425] fc6 <- pool5
I0720 14:07:06.863687 11519 net.cpp:399] fc6 -> fc6
I0720 14:07:06.904714 11543 net.cpp:141] Setting up conv5
I0720 14:07:06.904767 11543 net.cpp:148] Top shape: 10 256 13 13 (432640)
I0720 14:07:06.904773 11543 net.cpp:156] Memory required for data: 65519160
I0720 14:07:06.904798 11543 layer_factory.hpp:77] Creating layer relu5
I0720 14:07:06.905232 11543 net.cpp:91] Creating Layer relu5
I0720 14:07:06.905247 11543 net.cpp:425] relu5 <- conv5
I0720 14:07:06.905261 11543 net.cpp:386] relu5 -> conv5 (in-place)
I0720 14:07:06.909772 11543 net.cpp:141] Setting up relu5
I0720 14:07:06.909806 11543 net.cpp:148] Top shape: 10 256 13 13 (432640)
I0720 14:07:06.909816 11543 net.cpp:156] Memory required for data: 67249720
I0720 14:07:06.909826 11543 layer_factory.hpp:77] Creating layer pool5
I0720 14:07:06.909858 11543 net.cpp:91] Creating Layer pool5
I0720 14:07:06.909870 11543 net.cpp:425] pool5 <- conv5
I0720 14:07:06.909890 11543 net.cpp:399] pool5 -> pool5
I0720 14:07:06.909917 11543 net.cpp:141] Setting up pool5
I0720 14:07:06.909930 11543 net.cpp:148] Top shape: 10 256 6 6 (92160)
I0720 14:07:06.909939 11543 net.cpp:156] Memory required for data: 67618360
I0720 14:07:06.909945 11543 layer_factory.hpp:77] Creating layer fc6
I0720 14:07:06.909966 11543 net.cpp:91] Creating Layer fc6
I0720 14:07:06.909976 11543 net.cpp:425] fc6 <- pool5
I0720 14:07:06.909996 11543 net.cpp:399] fc6 -> fc6
I0720 14:07:06.926226 11519 net.cpp:141] Setting up fc6
I0720 14:07:06.926743 11519 net.cpp:148] Top shape: 10 4096 (40960)
I0720 14:07:06.926754 11519 net.cpp:156] Memory required for data: 67782200
I0720 14:07:06.926770 11519 layer_factory.hpp:77] Creating layer relu6
I0720 14:07:06.926785 11519 net.cpp:91] Creating Layer relu6
I0720 14:07:06.926792 11519 net.cpp:425] relu6 <- fc6
I0720 14:07:06.926800 11519 net.cpp:386] relu6 -> fc6 (in-place)
I0720 14:07:06.936991 11529 net.cpp:141] Setting up conv5
I0720 14:07:06.937043 11529 net.cpp:148] Top shape: 10 256 13 13 (432640)
I0720 14:07:06.937053 11529 net.cpp:156] Memory required for data: 65519160
I0720 14:07:06.937544 11529 layer_factory.hpp:77] Creating layer relu5
I0720 14:07:06.937572 11529 net.cpp:91] Creating Layer relu5
I0720 14:07:06.937585 11529 net.cpp:425] relu5 <- conv5
I0720 14:07:06.937600 11529 net.cpp:386] relu5 -> conv5 (in-place)
I0720 14:07:06.945053 11531 net.cpp:141] Setting up conv5
I0720 14:07:06.945102 11531 net.cpp:148] Top shape: 10 256 13 13 (432640)
I0720 14:07:06.945111 11531 net.cpp:156] Memory required for data: 65519160
I0720 14:07:06.945140 11531 layer_factory.hpp:77] Creating layer relu5
I0720 14:07:06.945592 11531 net.cpp:91] Creating Layer relu5
I0720 14:07:06.945611 11531 net.cpp:425] relu5 <- conv5
I0720 14:07:06.945626 11531 net.cpp:386] relu5 -> conv5 (in-place)
I0720 14:07:06.956682 11509 net.cpp:141] Setting up conv5
I0720 14:07:06.956712 11545 net.cpp:141] Setting up conv5
I0720 14:07:06.956743 11545 net.cpp:148] Top shape: 10 256 13 13 (432640)
I0720 14:07:06.956748 11545 net.cpp:156] Memory required for data: 65519160
I0720 14:07:06.956820 11545 layer_factory.hpp:77] Creating layer relu5
I0720 14:07:06.956837 11545 net.cpp:91] Creating Layer relu5
I0720 14:07:06.956845 11545 net.cpp:425] relu5 <- conv5
I0720 14:07:06.956743 11509 net.cpp:148] Top shape: 10 256 13 13 (432640)
I0720 14:07:06.957419 11509 net.cpp:156] Memory required for data: 65519160
I0720 14:07:06.956852 11545 net.cpp:386] relu5 -> conv5 (in-place)
I0720 14:07:06.957468 11529 net.cpp:141] Setting up relu5
I0720 14:07:06.957486 11529 net.cpp:148] Top shape: 10 256 13 13 (432640)
I0720 14:07:06.957496 11529 net.cpp:156] Memory required for data: 67249720
I0720 14:07:06.957506 11529 layer_factory.hpp:77] Creating layer pool5
I0720 14:07:06.957530 11529 net.cpp:91] Creating Layer pool5
I0720 14:07:06.957545 11529 net.cpp:425] pool5 <- conv5
I0720 14:07:06.957576 11529 net.cpp:399] pool5 -> pool5
I0720 14:07:06.957612 11529 net.cpp:141] Setting up pool5
I0720 14:07:06.957628 11529 net.cpp:148] Top shape: 10 256 6 6 (92160)
I0720 14:07:06.957638 11529 net.cpp:156] Memory required for data: 67618360
I0720 14:07:06.957648 11529 layer_factory.hpp:77] Creating layer fc6
I0720 14:07:06.957686 11529 net.cpp:91] Creating Layer fc6
I0720 14:07:06.957700 11529 net.cpp:425] fc6 <- pool5
I0720 14:07:06.957715 11529 net.cpp:399] fc6 -> fc6
I0720 14:07:06.958392 11539 net.cpp:141] Setting up conv5
I0720 14:07:06.958421 11539 net.cpp:148] Top shape: 10 256 13 13 (432640)
I0720 14:07:06.958431 11539 net.cpp:156] Memory required for data: 65519160
I0720 14:07:06.958456 11539 layer_factory.hpp:77] Creating layer relu5
I0720 14:07:06.958468 11539 net.cpp:91] Creating Layer relu5
I0720 14:07:06.958474 11539 net.cpp:425] relu5 <- conv5
I0720 14:07:06.958482 11539 net.cpp:386] relu5 -> conv5 (in-place)
I0720 14:07:06.957447 11509 layer_factory.hpp:77] Creating layer relu5
I0720 14:07:06.959194 11509 net.cpp:91] Creating Layer relu5
I0720 14:07:06.959206 11509 net.cpp:425] relu5 <- conv5
I0720 14:07:06.959215 11509 net.cpp:386] relu5 -> conv5 (in-place)
I0720 14:07:06.965951 11509 net.cpp:141] Setting up relu5
I0720 14:07:06.965973 11509 net.cpp:148] Top shape: 10 256 13 13 (432640)
I0720 14:07:06.965978 11509 net.cpp:156] Memory required for data: 67249720
I0720 14:07:06.965984 11509 layer_factory.hpp:77] Creating layer pool5
I0720 14:07:06.965996 11509 net.cpp:91] Creating Layer pool5
I0720 14:07:06.966001 11509 net.cpp:425] pool5 <- conv5
I0720 14:07:06.966553 11509 net.cpp:399] pool5 -> pool5
I0720 14:07:06.966549 11519 net.cpp:141] Setting up relu6
I0720 14:07:06.966585 11519 net.cpp:148] Top shape: 10 4096 (40960)
I0720 14:07:06.966588 11509 net.cpp:141] Setting up pool5
I0720 14:07:06.966591 11519 net.cpp:156] Memory required for data: 67946040
I0720 14:07:06.966598 11509 net.cpp:148] Top shape: 10 256 6 6 (92160)
I0720 14:07:06.966598 11519 layer_factory.hpp:77] Creating layer drop6
I0720 14:07:06.966605 11509 net.cpp:156] Memory required for data: 67618360
I0720 14:07:06.966610 11509 layer_factory.hpp:77] Creating layer fc6
I0720 14:07:06.967136 11519 net.cpp:91] Creating Layer drop6
I0720 14:07:06.967139 11509 net.cpp:91] Creating Layer fc6
I0720 14:07:06.967164 11519 net.cpp:425] drop6 <- fc6
I0720 14:07:06.967183 11509 net.cpp:425] fc6 <- pool5
I0720 14:07:06.967188 11519 net.cpp:386] drop6 -> fc6 (in-place)
I0720 14:07:06.967195 11509 net.cpp:399] fc6 -> fc6
I0720 14:07:06.967213 11519 net.cpp:141] Setting up drop6
I0720 14:07:06.967221 11519 net.cpp:148] Top shape: 10 4096 (40960)
I0720 14:07:06.967226 11519 net.cpp:156] Memory required for data: 68109880
I0720 14:07:06.967231 11519 layer_factory.hpp:77] Creating layer fc7
I0720 14:07:06.972072 11519 net.cpp:91] Creating Layer fc7
I0720 14:07:06.972093 11519 net.cpp:425] fc7 <- fc6
I0720 14:07:06.972105 11519 net.cpp:399] fc7 -> fc7
I0720 14:07:06.976804 11543 net.cpp:141] Setting up fc6
I0720 14:07:06.976855 11543 net.cpp:148] Top shape: 10 4096 (40960)
I0720 14:07:06.976861 11543 net.cpp:156] Memory required for data: 67782200
I0720 14:07:06.976876 11543 layer_factory.hpp:77] Creating layer relu6
I0720 14:07:06.976892 11543 net.cpp:91] Creating Layer relu6
I0720 14:07:06.976898 11543 net.cpp:425] relu6 <- fc6
I0720 14:07:06.976907 11543 net.cpp:386] relu6 -> fc6 (in-place)
I0720 14:07:07.006160 11531 net.cpp:141] Setting up relu5
I0720 14:07:07.006213 11531 net.cpp:148] Top shape: 10 256 13 13 (432640)
I0720 14:07:07.006223 11531 net.cpp:156] Memory required for data: 67249720
I0720 14:07:07.006237 11531 layer_factory.hpp:77] Creating layer pool5
I0720 14:07:07.007220 11531 net.cpp:91] Creating Layer pool5
I0720 14:07:07.007222 11543 net.cpp:141] Setting up relu6
I0720 14:07:07.007246 11531 net.cpp:425] pool5 <- conv5
I0720 14:07:07.007262 11543 net.cpp:148] Top shape: 10 4096 (40960)
I0720 14:07:07.007269 11543 net.cpp:156] Memory required for data: 67946040
I0720 14:07:07.007271 11531 net.cpp:399] pool5 -> pool5
I0720 14:07:07.007278 11543 layer_factory.hpp:77] Creating layer drop6
I0720 14:07:07.007299 11543 net.cpp:91] Creating Layer drop6
I0720 14:07:07.007308 11531 net.cpp:141] Setting up pool5
I0720 14:07:07.007313 11543 net.cpp:425] drop6 <- fc6
I0720 14:07:07.007325 11531 net.cpp:148] Top shape: 10 256 6 6 (92160)
I0720 14:07:07.007334 11531 net.cpp:156] Memory required for data: 67618360
I0720 14:07:07.007344 11531 layer_factory.hpp:77] Creating layer fc6
I0720 14:07:07.008324 11543 net.cpp:386] drop6 -> fc6 (in-place)
I0720 14:07:07.008360 11531 net.cpp:91] Creating Layer fc6
I0720 14:07:07.008364 11543 net.cpp:141] Setting up drop6
I0720 14:07:07.008380 11531 net.cpp:425] fc6 <- pool5
I0720 14:07:07.008396 11543 net.cpp:148] Top shape: 10 4096 (40960)
I0720 14:07:07.008400 11531 net.cpp:399] fc6 -> fc6
I0720 14:07:07.008409 11543 net.cpp:156] Memory required for data: 68109880
I0720 14:07:07.008419 11543 layer_factory.hpp:77] Creating layer fc7
I0720 14:07:07.008433 11543 net.cpp:91] Creating Layer fc7
I0720 14:07:07.008442 11543 net.cpp:425] fc7 <- fc6
I0720 14:07:07.009426 11543 net.cpp:399] fc7 -> fc7
I0720 14:07:07.014356 11539 net.cpp:141] Setting up relu5
I0720 14:07:07.014379 11545 net.cpp:141] Setting up relu5
I0720 14:07:07.014425 11539 net.cpp:148] Top shape: 10 256 13 13 (432640)
I0720 14:07:07.014377 11537 net.cpp:141] Setting up conv5
I0720 14:07:07.014452 11545 net.cpp:148] Top shape: 10 256 13 13 (432640)
I0720 14:07:07.014441 11539 net.cpp:156] Memory required for data: 67249720
I0720 14:07:07.014468 11545 net.cpp:156] Memory required for data: 67249720
I0720 14:07:07.014475 11539 layer_factory.hpp:77] Creating layer pool5
I0720 14:07:07.014477 11537 net.cpp:148] Top shape: 10 256 13 13 (432640)
I0720 14:07:07.014480 11545 layer_factory.hpp:77] Creating layer pool5
I0720 14:07:07.014503 11539 net.cpp:91] Creating Layer pool5
I0720 14:07:07.014497 11537 net.cpp:156] Memory required for data: 65519160
I0720 14:07:07.014514 11539 net.cpp:425] pool5 <- conv5
I0720 14:07:07.014528 11545 net.cpp:91] Creating Layer pool5
I0720 14:07:07.014541 11545 net.cpp:425] pool5 <- conv5
I0720 14:07:07.014912 11539 net.cpp:399] pool5 -> pool5
I0720 14:07:07.014950 11539 net.cpp:141] Setting up pool5
I0720 14:07:07.014964 11539 net.cpp:148] Top shape: 10 256 6 6 (92160)
I0720 14:07:07.014971 11539 net.cpp:156] Memory required for data: 67618360
I0720 14:07:07.014979 11539 layer_factory.hpp:77] Creating layer fc6
I0720 14:07:07.016541 11537 layer_factory.hpp:77] Creating layer relu5
I0720 14:07:07.016559 11545 net.cpp:399] pool5 -> pool5
I0720 14:07:07.016605 11537 net.cpp:91] Creating Layer relu5
I0720 14:07:07.016618 11545 net.cpp:141] Setting up pool5
I0720 14:07:07.016626 11537 net.cpp:425] relu5 <- conv5
I0720 14:07:07.016624 11539 net.cpp:91] Creating Layer fc6
I0720 14:07:07.016630 11545 net.cpp:148] Top shape: 10 256 6 6 (92160)
I0720 14:07:07.016659 11539 net.cpp:425] fc6 <- pool5
I0720 14:07:07.016664 11545 net.cpp:156] Memory required for data: 67618360
I0720 14:07:07.016671 11545 layer_factory.hpp:77] Creating layer fc6
I0720 14:07:07.016671 11539 net.cpp:399] fc6 -> fc6
I0720 14:07:07.017144 11537 net.cpp:386] relu5 -> conv5 (in-place)
I0720 14:07:07.017158 11545 net.cpp:91] Creating Layer fc6
I0720 14:07:07.017186 11545 net.cpp:425] fc6 <- pool5
I0720 14:07:07.017199 11545 net.cpp:399] fc6 -> fc6
I0720 14:07:07.047322 11537 net.cpp:141] Setting up relu5
I0720 14:07:07.047384 11537 net.cpp:148] Top shape: 10 256 13 13 (432640)
I0720 14:07:07.047395 11537 net.cpp:156] Memory required for data: 67249720
I0720 14:07:07.047410 11537 layer_factory.hpp:77] Creating layer pool5
I0720 14:07:07.048388 11525 net.cpp:141] Setting up conv5
I0720 14:07:07.048399 11537 net.cpp:91] Creating Layer pool5
I0720 14:07:07.048418 11525 net.cpp:148] Top shape: 10 256 13 13 (432640)
I0720 14:07:07.048429 11525 net.cpp:156] Memory required for data: 65519160
I0720 14:07:07.048429 11537 net.cpp:425] pool5 <- conv5
I0720 14:07:07.048460 11525 layer_factory.hpp:77] Creating layer relu5
I0720 14:07:07.048936 11525 net.cpp:91] Creating Layer relu5
I0720 14:07:07.048945 11537 net.cpp:399] pool5 -> pool5
I0720 14:07:07.048954 11525 net.cpp:425] relu5 <- conv5
I0720 14:07:07.048970 11525 net.cpp:386] relu5 -> conv5 (in-place)
I0720 14:07:07.048976 11537 net.cpp:141] Setting up pool5
I0720 14:07:07.048985 11537 net.cpp:148] Top shape: 10 256 6 6 (92160)
I0720 14:07:07.048990 11537 net.cpp:156] Memory required for data: 67618360
I0720 14:07:07.048995 11537 layer_factory.hpp:77] Creating layer fc6
I0720 14:07:07.049008 11537 net.cpp:91] Creating Layer fc6
I0720 14:07:07.049012 11537 net.cpp:425] fc6 <- pool5
I0720 14:07:07.050537 11537 net.cpp:399] fc6 -> fc6
I0720 14:07:07.051589 11533 net.cpp:141] Setting up conv5
I0720 14:07:07.051620 11533 net.cpp:148] Top shape: 10 256 13 13 (432640)
I0720 14:07:07.051625 11533 net.cpp:156] Memory required for data: 65519160
I0720 14:07:07.052659 11533 layer_factory.hpp:77] Creating layer relu5
I0720 14:07:07.052695 11533 net.cpp:91] Creating Layer relu5
I0720 14:07:07.052701 11533 net.cpp:425] relu5 <- conv5
I0720 14:07:07.053210 11533 net.cpp:386] relu5 -> conv5 (in-place)
I0720 14:07:07.057301 11525 net.cpp:141] Setting up relu5
I0720 14:07:07.057374 11525 net.cpp:148] Top shape: 10 256 13 13 (432640)
I0720 14:07:07.057384 11525 net.cpp:156] Memory required for data: 67249720
I0720 14:07:07.057399 11525 layer_factory.hpp:77] Creating layer pool5
I0720 14:07:07.058013 11525 net.cpp:91] Creating Layer pool5
I0720 14:07:07.058037 11525 net.cpp:425] pool5 <- conv5
I0720 14:07:07.058054 11525 net.cpp:399] pool5 -> pool5
I0720 14:07:07.058082 11525 net.cpp:141] Setting up pool5
I0720 14:07:07.058090 11525 net.cpp:148] Top shape: 10 256 6 6 (92160)
I0720 14:07:07.058094 11525 net.cpp:156] Memory required for data: 67618360
I0720 14:07:07.058099 11525 layer_factory.hpp:77] Creating layer fc6
I0720 14:07:07.059157 11525 net.cpp:91] Creating Layer fc6
I0720 14:07:07.059195 11525 net.cpp:425] fc6 <- pool5
I0720 14:07:07.059221 11525 net.cpp:399] fc6 -> fc6
I0720 14:07:07.065016 11533 net.cpp:141] Setting up relu5
I0720 14:07:07.065094 11533 net.cpp:148] Top shape: 10 256 13 13 (432640)
I0720 14:07:07.065106 11533 net.cpp:156] Memory required for data: 67249720
I0720 14:07:07.065122 11533 layer_factory.hpp:77] Creating layer pool5
I0720 14:07:07.065649 11533 net.cpp:91] Creating Layer pool5
I0720 14:07:07.065690 11533 net.cpp:425] pool5 <- conv5
I0720 14:07:07.065712 11533 net.cpp:399] pool5 -> pool5
I0720 14:07:07.066462 11533 net.cpp:141] Setting up pool5
I0720 14:07:07.066500 11533 net.cpp:148] Top shape: 10 256 6 6 (92160)
I0720 14:07:07.066511 11533 net.cpp:156] Memory required for data: 67618360
I0720 14:07:07.066524 11533 layer_factory.hpp:77] Creating layer fc6
I0720 14:07:07.066556 11533 net.cpp:91] Creating Layer fc6
I0720 14:07:07.066568 11533 net.cpp:425] fc6 <- pool5
I0720 14:07:07.066583 11533 net.cpp:399] fc6 -> fc6
I0720 14:07:07.073906 11519 net.cpp:141] Setting up fc7
I0720 14:07:07.073966 11519 net.cpp:148] Top shape: 10 4096 (40960)
I0720 14:07:07.073971 11519 net.cpp:156] Memory required for data: 68273720
I0720 14:07:07.073989 11519 layer_factory.hpp:77] Creating layer relu7
I0720 14:07:07.074007 11519 net.cpp:91] Creating Layer relu7
I0720 14:07:07.074013 11519 net.cpp:425] relu7 <- fc7
I0720 14:07:07.075295 11519 net.cpp:386] relu7 -> fc7 (in-place)
I0720 14:07:07.082779 11519 net.cpp:141] Setting up relu7
I0720 14:07:07.082836 11519 net.cpp:148] Top shape: 10 4096 (40960)
I0720 14:07:07.082844 11519 net.cpp:156] Memory required for data: 68437560
I0720 14:07:07.082854 11519 layer_factory.hpp:77] Creating layer drop7
I0720 14:07:07.082873 11519 net.cpp:91] Creating Layer drop7
I0720 14:07:07.082881 11519 net.cpp:425] drop7 <- fc7
I0720 14:07:07.083663 11519 net.cpp:386] drop7 -> fc7 (in-place)
I0720 14:07:07.083704 11519 net.cpp:141] Setting up drop7
I0720 14:07:07.083714 11519 net.cpp:148] Top shape: 10 4096 (40960)
I0720 14:07:07.083719 11519 net.cpp:156] Memory required for data: 68601400
I0720 14:07:07.083724 11519 layer_factory.hpp:77] Creating layer fc8
I0720 14:07:07.083736 11519 net.cpp:91] Creating Layer fc8
I0720 14:07:07.083741 11519 net.cpp:425] fc8 <- fc7
I0720 14:07:07.084497 11519 net.cpp:399] fc8 -> fc8
I0720 14:07:07.109786 11529 net.cpp:141] Setting up fc6
I0720 14:07:07.109853 11529 net.cpp:148] Top shape: 10 4096 (40960)
I0720 14:07:07.109863 11529 net.cpp:156] Memory required for data: 67782200
I0720 14:07:07.109886 11529 layer_factory.hpp:77] Creating layer relu6
I0720 14:07:07.109910 11529 net.cpp:91] Creating Layer relu6
I0720 14:07:07.109921 11529 net.cpp:425] relu6 <- fc6
I0720 14:07:07.109936 11529 net.cpp:386] relu6 -> fc6 (in-place)
I0720 14:07:07.113297 11529 net.cpp:141] Setting up relu6
I0720 14:07:07.113354 11529 net.cpp:148] Top shape: 10 4096 (40960)
I0720 14:07:07.113363 11529 net.cpp:156] Memory required for data: 67946040
I0720 14:07:07.113376 11529 layer_factory.hpp:77] Creating layer drop6
I0720 14:07:07.113857 11529 net.cpp:91] Creating Layer drop6
I0720 14:07:07.113885 11529 net.cpp:425] drop6 <- fc6
I0720 14:07:07.113906 11529 net.cpp:386] drop6 -> fc6 (in-place)
I0720 14:07:07.113935 11529 net.cpp:141] Setting up drop6
I0720 14:07:07.113950 11529 net.cpp:148] Top shape: 10 4096 (40960)
I0720 14:07:07.113960 11529 net.cpp:156] Memory required for data: 68109880
I0720 14:07:07.113970 11529 layer_factory.hpp:77] Creating layer fc7
I0720 14:07:07.113989 11529 net.cpp:91] Creating Layer fc7
I0720 14:07:07.114001 11529 net.cpp:425] fc7 <- fc6
I0720 14:07:07.115221 11529 net.cpp:399] fc7 -> fc7
I0720 14:07:07.117202 11545 net.cpp:141] Setting up fc6
I0720 14:07:07.117254 11545 net.cpp:148] Top shape: 10 4096 (40960)
I0720 14:07:07.117260 11545 net.cpp:156] Memory required for data: 67782200
I0720 14:07:07.117278 11545 layer_factory.hpp:77] Creating layer relu6
I0720 14:07:07.117296 11545 net.cpp:91] Creating Layer relu6
I0720 14:07:07.117302 11545 net.cpp:425] relu6 <- fc6
I0720 14:07:07.118031 11545 net.cpp:386] relu6 -> fc6 (in-place)
I0720 14:07:07.123368 11543 net.cpp:141] Setting up fc7
I0720 14:07:07.123425 11543 net.cpp:148] Top shape: 10 4096 (40960)
I0720 14:07:07.123431 11543 net.cpp:156] Memory required for data: 68273720
I0720 14:07:07.123448 11543 layer_factory.hpp:77] Creating layer relu7
I0720 14:07:07.123466 11543 net.cpp:91] Creating Layer relu7
I0720 14:07:07.123473 11543 net.cpp:425] relu7 <- fc7
I0720 14:07:07.123960 11543 net.cpp:386] relu7 -> fc7 (in-place)
I0720 14:07:07.123970 11545 net.cpp:141] Setting up relu6
I0720 14:07:07.124014 11545 net.cpp:148] Top shape: 10 4096 (40960)
I0720 14:07:07.124020 11545 net.cpp:156] Memory required for data: 67946040
I0720 14:07:07.124029 11545 layer_factory.hpp:77] Creating layer drop6
I0720 14:07:07.124045 11545 net.cpp:91] Creating Layer drop6
I0720 14:07:07.124052 11545 net.cpp:425] drop6 <- fc6
I0720 14:07:07.124784 11545 net.cpp:386] drop6 -> fc6 (in-place)
I0720 14:07:07.124826 11545 net.cpp:141] Setting up drop6
I0720 14:07:07.124835 11545 net.cpp:148] Top shape: 10 4096 (40960)
I0720 14:07:07.124840 11545 net.cpp:156] Memory required for data: 68109880
I0720 14:07:07.124846 11545 layer_factory.hpp:77] Creating layer fc7
I0720 14:07:07.124857 11545 net.cpp:91] Creating Layer fc7
I0720 14:07:07.124862 11545 net.cpp:425] fc7 <- fc6
I0720 14:07:07.125310 11545 net.cpp:399] fc7 -> fc7
I0720 14:07:07.128681 11543 net.cpp:141] Setting up relu7
I0720 14:07:07.128737 11543 net.cpp:148] Top shape: 10 4096 (40960)
I0720 14:07:07.128743 11543 net.cpp:156] Memory required for data: 68437560
I0720 14:07:07.128753 11543 layer_factory.hpp:77] Creating layer drop7
I0720 14:07:07.128772 11543 net.cpp:91] Creating Layer drop7
I0720 14:07:07.128780 11543 net.cpp:425] drop7 <- fc7
I0720 14:07:07.128790 11543 net.cpp:386] drop7 -> fc7 (in-place)
I0720 14:07:07.128809 11543 net.cpp:141] Setting up drop7
I0720 14:07:07.128815 11543 net.cpp:148] Top shape: 10 4096 (40960)
I0720 14:07:07.128819 11543 net.cpp:156] Memory required for data: 68601400
I0720 14:07:07.128824 11543 layer_factory.hpp:77] Creating layer fc8
I0720 14:07:07.129802 11543 net.cpp:91] Creating Layer fc8
I0720 14:07:07.129822 11543 net.cpp:425] fc8 <- fc7
I0720 14:07:07.129834 11543 net.cpp:399] fc8 -> fc8
I0720 14:07:07.136066 11509 net.cpp:141] Setting up fc6
I0720 14:07:07.136131 11509 net.cpp:148] Top shape: 10 4096 (40960)
I0720 14:07:07.136138 11509 net.cpp:156] Memory required for data: 67782200
I0720 14:07:07.136159 11509 layer_factory.hpp:77] Creating layer relu6
I0720 14:07:07.136178 11509 net.cpp:91] Creating Layer relu6
I0720 14:07:07.136186 11509 net.cpp:425] relu6 <- fc6
I0720 14:07:07.136894 11509 net.cpp:386] relu6 -> fc6 (in-place)
I0720 14:07:07.140123 11519 net.cpp:141] Setting up fc8
I0720 14:07:07.140195 11519 net.cpp:148] Top shape: 10 1000 (10000)
I0720 14:07:07.140208 11519 net.cpp:156] Memory required for data: 68641400
I0720 14:07:07.140234 11519 layer_factory.hpp:77] Creating layer prob
I0720 14:07:07.140975 11509 net.cpp:141] Setting up relu6
I0720 14:07:07.140998 11509 net.cpp:148] Top shape: 10 4096 (40960)
I0720 14:07:07.141005 11509 net.cpp:156] Memory required for data: 67946040
I0720 14:07:07.141010 11509 layer_factory.hpp:77] Creating layer drop6
I0720 14:07:07.141690 11519 net.cpp:91] Creating Layer prob
I0720 14:07:07.141705 11509 net.cpp:91] Creating Layer drop6
I0720 14:07:07.141755 11519 net.cpp:425] prob <- fc8
I0720 14:07:07.141757 11509 net.cpp:425] drop6 <- fc6
I0720 14:07:07.141777 11509 net.cpp:386] drop6 -> fc6 (in-place)
I0720 14:07:07.141790 11509 net.cpp:141] Setting up drop6
I0720 14:07:07.141789 11519 net.cpp:399] prob -> prob
I0720 14:07:07.141798 11509 net.cpp:148] Top shape: 10 4096 (40960)
I0720 14:07:07.141803 11509 net.cpp:156] Memory required for data: 68109880
I0720 14:07:07.141808 11509 layer_factory.hpp:77] Creating layer fc7
I0720 14:07:07.141824 11509 net.cpp:91] Creating Layer fc7
I0720 14:07:07.141827 11509 net.cpp:425] fc7 <- fc6
I0720 14:07:07.142356 11509 net.cpp:399] fc7 -> fc7
I0720 14:07:07.147416 11519 net.cpp:141] Setting up prob
I0720 14:07:07.147487 11519 net.cpp:148] Top shape: 10 1000 (10000)
I0720 14:07:07.147495 11519 net.cpp:156] Memory required for data: 68681400
I0720 14:07:07.147505 11519 net.cpp:219] prob does not need backward computation.
I0720 14:07:07.147511 11519 net.cpp:219] fc8 does not need backward computation.
I0720 14:07:07.147516 11519 net.cpp:219] drop7 does not need backward computation.
I0720 14:07:07.147521 11519 net.cpp:219] relu7 does not need backward computation.
…
I0720 14:07:07.148941 11519 net.cpp:219] norm1 does not need backward computation.
I0720 14:07:07.148946 11519 net.cpp:219] pool1 does not need backward computation.
I0720 14:07:07.148949 11519 net.cpp:219] relu1 does not need backward computation.
I0720 14:07:07.148953 11519 net.cpp:219] conv1 does not need backward computation.
I0720 14:07:07.148957 11519 net.cpp:219] data does not need backward computation.
I0720 14:07:07.148962 11519 net.cpp:261] This network produces output prob
I0720 14:07:07.149992 11519 net.cpp:274] Network initialization done.
I0720 14:07:07.159380 11539 net.cpp:141] Setting up fc6
I0720 14:07:07.159448 11539 net.cpp:148] Top shape: 10 4096 (40960)
I0720 14:07:07.159456 11539 net.cpp:156] Memory required for data: 67782200
I0720 14:07:07.159476 11539 layer_factory.hpp:77] Creating layer relu6
I0720 14:07:07.159492 11539 net.cpp:91] Creating Layer relu6
I0720 14:07:07.159499 11539 net.cpp:425] relu6 <- fc6
I0720 14:07:07.160080 11539 net.cpp:386] relu6 -> fc6 (in-place)
I0720 14:07:07.165172 11539 net.cpp:141] Setting up relu6
I0720 14:07:07.165230 11539 net.cpp:148] Top shape: 10 4096 (40960)
I0720 14:07:07.165235 11539 net.cpp:156] Memory required for data: 67946040
I0720 14:07:07.165246 11539 layer_factory.hpp:77] Creating layer drop6
I0720 14:07:07.165264 11539 net.cpp:91] Creating Layer drop6
I0720 14:07:07.165271 11539 net.cpp:425] drop6 <- fc6
I0720 14:07:07.165746 11539 net.cpp:386] drop6 -> fc6 (in-place)
I0720 14:07:07.165786 11539 net.cpp:141] Setting up drop6
I0720 14:07:07.165801 11539 net.cpp:148] Top shape: 10 4096 (40960)
I0720 14:07:07.165808 11539 net.cpp:156] Memory required for data: 68109880
I0720 14:07:07.165818 11539 layer_factory.hpp:77] Creating layer fc7
I0720 14:07:07.165835 11539 net.cpp:91] Creating Layer fc7
I0720 14:07:07.165845 11539 net.cpp:425] fc7 <- fc6
I0720 14:07:07.165861 11539 net.cpp:399] fc7 -> fc7
I0720 14:07:07.169745 11543 net.cpp:141] Setting up fc8
I0720 14:07:07.169796 11543 net.cpp:148] Top shape: 10 1000 (10000)
I0720 14:07:07.169802 11543 net.cpp:156] Memory required for data: 68641400
I0720 14:07:07.169818 11543 layer_factory.hpp:77] Creating layer prob
I0720 14:07:07.169834 11543 net.cpp:91] Creating Layer prob
I0720 14:07:07.169842 11543 net.cpp:425] prob <- fc8
I0720 14:07:07.170835 11543 net.cpp:399] prob -> prob
I0720 14:07:07.175396 11543 net.cpp:141] Setting up prob
I0720 14:07:07.175438 11543 net.cpp:148] Top shape: 10 1000 (10000)
I0720 14:07:07.175449 11543 net.cpp:156] Memory required for data: 68681400
I0720 14:07:07.175460 11543 net.cpp:219] prob does not need backward computation.
I0720 14:07:07.175472 11543 net.cpp:219] fc8 does not need backward computation.
I0720 14:07:07.175480 11543 net.cpp:219] drop7 does not need backward computation.
I0720 14:07:07.175489 11543 net.cpp:219] relu7 does not need backward computation.
…
I0720 14:07:07.175606 11543 net.cpp:219] norm1 does not need backward computation.
I0720 14:07:07.175611 11543 net.cpp:219] pool1 does not need backward computation.
I0720 14:07:07.175616 11543 net.cpp:219] relu1 does not need backward computation.
I0720 14:07:07.175619 11543 net.cpp:219] conv1 does not need backward computation.
I0720 14:07:07.175623 11543 net.cpp:219] data does not need backward computation.
I0720 14:07:07.175627 11543 net.cpp:261] This network produces output prob
I0720 14:07:07.176460 11543 net.cpp:274] Network initialization done.
I0720 14:07:07.184564 11531 net.cpp:141] Setting up fc6
I0720 14:07:07.184646 11531 net.cpp:148] Top shape: 10 4096 (40960)
I0720 14:07:07.184662 11531 net.cpp:156] Memory required for data: 67782200
I0720 14:07:07.184695 11531 layer_factory.hpp:77] Creating layer relu6
I0720 14:07:07.185153 11531 net.cpp:91] Creating Layer relu6
I0720 14:07:07.185184 11531 net.cpp:425] relu6 <- fc6
I0720 14:07:07.185211 11531 net.cpp:386] relu6 -> fc6 (in-place)
I0720 14:07:07.193418 11529 net.cpp:141] Setting up fc7
I0720 14:07:07.193496 11529 net.cpp:148] Top shape: 10 4096 (40960)
I0720 14:07:07.193505 11529 net.cpp:156] Memory required for data: 68273720
I0720 14:07:07.193531 11529 layer_factory.hpp:77] Creating layer relu7
I0720 14:07:07.193555 11529 net.cpp:91] Creating Layer relu7
I0720 14:07:07.193567 11529 net.cpp:425] relu7 <- fc7
I0720 14:07:07.193581 11529 net.cpp:386] relu7 -> fc7 (in-place)
I0720 14:07:07.194499 11531 net.cpp:141] Setting up relu6
I0720 14:07:07.194555 11531 net.cpp:148] Top shape: 10 4096 (40960)
I0720 14:07:07.194566 11531 net.cpp:156] Memory required for data: 67946040
I0720 14:07:07.194578 11531 layer_factory.hpp:77] Creating layer drop6
I0720 14:07:07.194617 11529 net.cpp:141] Setting up relu7
I0720 14:07:07.194627 11531 net.cpp:91] Creating Layer drop6
I0720 14:07:07.194634 11529 net.cpp:148] Top shape: 10 4096 (40960)
I0720 14:07:07.194638 11531 net.cpp:425] drop6 <- fc6
I0720 14:07:07.194643 11529 net.cpp:156] Memory required for data: 68437560
I0720 14:07:07.194651 11529 layer_factory.hpp:77] Creating layer drop7
I0720 14:07:07.194653 11531 net.cpp:386] drop6 -> fc6 (in-place)
I0720 14:07:07.194664 11529 net.cpp:91] Creating Layer drop7
I0720 14:07:07.194672 11529 net.cpp:425] drop7 <- fc7
I0720 14:07:07.194677 11531 net.cpp:141] Setting up drop6
I0720 14:07:07.194701 11531 net.cpp:148] Top shape: 10 4096 (40960)
I0720 14:07:07.194701 11529 net.cpp:386] drop7 -> fc7 (in-place)
I0720 14:07:07.194715 11531 net.cpp:156] Memory required for data: 68109880
I0720 14:07:07.194725 11531 layer_factory.hpp:77] Creating layer fc7
I0720 14:07:07.194725 11529 net.cpp:141] Setting up drop7
I0720 14:07:07.194741 11529 net.cpp:148] Top shape: 10 4096 (40960)
I0720 14:07:07.194746 11531 net.cpp:91] Creating Layer fc7
I0720 14:07:07.194748 11529 net.cpp:156] Memory required for data: 68601400
I0720 14:07:07.194758 11531 net.cpp:425] fc7 <- fc6
I0720 14:07:07.194761 11529 layer_factory.hpp:77] Creating layer fc8
I0720 14:07:07.194773 11529 net.cpp:91] Creating Layer fc8
I0720 14:07:07.194782 11529 net.cpp:425] fc8 <- fc7
I0720 14:07:07.194793 11529 net.cpp:399] fc8 -> fc8
I0720 14:07:07.194797 11531 net.cpp:399] fc7 -> fc7
I0720 14:07:07.197234 11509 net.cpp:141] Setting up fc7
I0720 14:07:07.197305 11509 net.cpp:148] Top shape: 10 4096 (40960)
I0720 14:07:07.197311 11509 net.cpp:156] Memory required for data: 68273720
I0720 14:07:07.197334 11509 layer_factory.hpp:77] Creating layer relu7
I0720 14:07:07.197355 11509 net.cpp:91] Creating Layer relu7
I0720 14:07:07.197365 11509 net.cpp:425] relu7 <- fc7
I0720 14:07:07.197373 11509 net.cpp:386] relu7 -> fc7 (in-place)
I0720 14:07:07.201879 11509 net.cpp:141] Setting up relu7
I0720 14:07:07.201932 11509 net.cpp:148] Top shape: 10 4096 (40960)
I0720 14:07:07.201938 11509 net.cpp:156] Memory required for data: 68437560
I0720 14:07:07.201948 11509 layer_factory.hpp:77] Creating layer drop7
I0720 14:07:07.202700 11509 net.cpp:91] Creating Layer drop7
I0720 14:07:07.202715 11509 net.cpp:425] drop7 <- fc7
I0720 14:07:07.202729 11509 net.cpp:386] drop7 -> fc7 (in-place)
I0720 14:07:07.202750 11509 net.cpp:141] Setting up drop7
I0720 14:07:07.202760 11509 net.cpp:148] Top shape: 10 4096 (40960)
I0720 14:07:07.202764 11509 net.cpp:156] Memory required for data: 68601400
I0720 14:07:07.202769 11509 layer_factory.hpp:77] Creating layer fc8
I0720 14:07:07.202787 11509 net.cpp:91] Creating Layer fc8
I0720 14:07:07.202791 11509 net.cpp:425] fc8 <- fc7
I0720 14:07:07.202800 11509 net.cpp:399] fc8 -> fc8
I0720 14:07:07.209244 11545 net.cpp:141] Setting up fc7
I0720 14:07:07.210350 11545 net.cpp:148] Top shape: 10 4096 (40960)
I0720 14:07:07.210436 11545 net.cpp:156] Memory required for data: 68273720
I0720 14:07:07.210511 11545 layer_factory.hpp:77] Creating layer relu7
I0720 14:07:07.210571 11545 net.cpp:91] Creating Layer relu7
I0720 14:07:07.210605 11545 net.cpp:425] relu7 <- fc7
I0720 14:07:07.210649 11545 net.cpp:386] relu7 -> fc7 (in-place)
I0720 14:07:07.213326 11529 net.cpp:141] Setting up fc8
I0720 14:07:07.213421 11529 net.cpp:148] Top shape: 10 1000 (10000)
I0720 14:07:07.213433 11529 net.cpp:156] Memory required for data: 68641400
I0720 14:07:07.213465 11529 layer_factory.hpp:77] Creating layer prob
I0720 14:07:07.214254 11529 net.cpp:91] Creating Layer prob
I0720 14:07:07.214298 11529 net.cpp:425] prob <- fc8
I0720 14:07:07.214320 11529 net.cpp:399] prob -> prob
I0720 14:07:07.216665 11509 net.cpp:141] Setting up fc8
I0720 14:07:07.216666 11539 net.cpp:141] Setting up fc7
I0720 14:07:07.216734 11509 net.cpp:148] Top shape: 10 1000 (10000)
I0720 14:07:07.216753 11509 net.cpp:156] Memory required for data: 68641400
I0720 14:07:07.216761 11539 net.cpp:148] Top shape: 10 4096 (40960)
I0720 14:07:07.216771 11539 net.cpp:156] Memory required for data: 68273720
I0720 14:07:07.216773 11509 layer_factory.hpp:77] Creating layer prob
I0720 14:07:07.216790 11539 layer_factory.hpp:77] Creating layer relu7
I0720 14:07:07.216795 11509 net.cpp:91] Creating Layer prob
I0720 14:07:07.216804 11509 net.cpp:425] prob <- fc8
I0720 14:07:07.217453 11539 net.cpp:91] Creating Layer relu7
I0720 14:07:07.217478 11539 net.cpp:425] relu7 <- fc7
I0720 14:07:07.217484 11509 net.cpp:399] prob -> prob
I0720 14:07:07.217492 11539 net.cpp:386] relu7 -> fc7 (in-place)
I0720 14:07:07.225733 11525 net.cpp:141] Setting up fc6
I0720 14:07:07.225782 11525 net.cpp:148] Top shape: 10 4096 (40960)
I0720 14:07:07.225788 11525 net.cpp:156] Memory required for data: 67782200
I0720 14:07:07.225805 11525 layer_factory.hpp:77] Creating layer relu6
I0720 14:07:07.226399 11525 net.cpp:91] Creating Layer relu6
I0720 14:07:07.226413 11525 net.cpp:425] relu6 <- fc6
I0720 14:07:07.226423 11525 net.cpp:386] relu6 -> fc6 (in-place)
I0720 14:07:07.227488 11529 net.cpp:141] Setting up prob
I0720 14:07:07.227535 11529 net.cpp:148] Top shape: 10 1000 (10000)
I0720 14:07:07.227541 11529 net.cpp:156] Memory required for data: 68681400
I0720 14:07:07.227550 11529 net.cpp:219] prob does not need backward computation.
I0720 14:07:07.227557 11529 net.cpp:219] fc8 does not need backward computation.
I0720 14:07:07.227562 11529 net.cpp:219] drop7 does not need backward computation.
I0720 14:07:07.227566 11529 net.cpp:219] relu7 does not need backward computation.
…
I0720 14:07:07.227632 11529 net.cpp:219] conv2 does not need backward computation.
I0720 14:07:07.227637 11529 net.cpp:219] norm1 does not need backward computation.
I0720 14:07:07.227640 11529 net.cpp:219] pool1 does not need backward computation.
I0720 14:07:07.227644 11529 net.cpp:219] relu1 does not need backward computation.
I0720 14:07:07.227648 11529 net.cpp:219] conv1 does not need backward computation.
I0720 14:07:07.227653 11529 net.cpp:219] data does not need backward computation.
I0720 14:07:07.227658 11529 net.cpp:261] This network produces output prob
I0720 14:07:07.228482 11537 net.cpp:141] Setting up fc6
I0720 14:07:07.229027 11537 net.cpp:148] Top shape: 10 4096 (40960)
I0720 14:07:07.229038 11537 net.cpp:156] Memory required for data: 67782200
I0720 14:07:07.229060 11537 layer_factory.hpp:77] Creating layer relu6
I0720 14:07:07.229082 11537 net.cpp:91] Creating Layer relu6
I0720 14:07:07.229094 11537 net.cpp:425] relu6 <- fc6
I0720 14:07:07.229110 11537 net.cpp:386] relu6 -> fc6 (in-place)
I0720 14:07:07.228986 11529 net.cpp:274] Network initialization done.
I0720 14:07:07.230518 11533 net.cpp:141] Setting up fc6
I0720 14:07:07.230541 11533 net.cpp:148] Top shape: 10 4096 (40960)
I0720 14:07:07.230547 11533 net.cpp:156] Memory required for data: 67782200
I0720 14:07:07.230557 11533 layer_factory.hpp:77] Creating layer relu6
I0720 14:07:07.231051 11533 net.cpp:91] Creating Layer relu6
I0720 14:07:07.231070 11533 net.cpp:425] relu6 <- fc6
I0720 14:07:07.231078 11533 net.cpp:386] relu6 -> fc6 (in-place)
I0720 14:07:07.239109 11545 net.cpp:141] Setting up relu7
I0720 14:07:07.239159 11545 net.cpp:148] Top shape: 10 4096 (40960)
I0720 14:07:07.239166 11545 net.cpp:156] Memory required for data: 68437560
I0720 14:07:07.239174 11545 layer_factory.hpp:77] Creating layer drop7
I0720 14:07:07.239192 11545 net.cpp:91] Creating Layer drop7
I0720 14:07:07.239199 11545 net.cpp:425] drop7 <- fc7
I0720 14:07:07.239619 11545 net.cpp:386] drop7 -> fc7 (in-place)
I0720 14:07:07.239648 11545 net.cpp:141] Setting up drop7
I0720 14:07:07.239660 11545 net.cpp:148] Top shape: 10 4096 (40960)
I0720 14:07:07.239662 11533 net.cpp:141] Setting up relu6
I0720 14:07:07.239668 11545 net.cpp:156] Memory required for data: 68601400
I0720 14:07:07.239676 11545 layer_factory.hpp:77] Creating layer fc8
I0720 14:07:07.239691 11545 net.cpp:91] Creating Layer fc8
I0720 14:07:07.239696 11545 net.cpp:425] fc8 <- fc7
I0720 14:07:07.240164 11533 net.cpp:148] Top shape: 10 4096 (40960)
I0720 14:07:07.240180 11533 net.cpp:156] Memory required for data: 67946040
I0720 14:07:07.240186 11533 layer_factory.hpp:77] Creating layer drop6
I0720 14:07:07.240195 11533 net.cpp:91] Creating Layer drop6
I0720 14:07:07.240201 11533 net.cpp:425] drop6 <- fc6
I0720 14:07:07.240208 11533 net.cpp:386] drop6 -> fc6 (in-place)
I0720 14:07:07.240218 11533 net.cpp:141] Setting up drop6
I0720 14:07:07.240224 11533 net.cpp:148] Top shape: 10 4096 (40960)
I0720 14:07:07.240228 11533 net.cpp:156] Memory required for data: 68109880
I0720 14:07:07.240233 11533 layer_factory.hpp:77] Creating layer fc7
I0720 14:07:07.240797 11545 net.cpp:399] fc8 -> fc8
I0720 14:07:07.240808 11537 net.cpp:141] Setting up relu6
I0720 14:07:07.240833 11537 net.cpp:148] Top shape: 10 4096 (40960)
I0720 14:07:07.240839 11537 net.cpp:156] Memory required for data: 67946040
I0720 14:07:07.240844 11537 layer_factory.hpp:77] Creating layer drop6
I0720 14:07:07.241333 11533 net.cpp:91] Creating Layer fc7
I0720 14:07:07.241350 11533 net.cpp:425] fc7 <- fc6
I0720 14:07:07.241361 11533 net.cpp:399] fc7 -> fc7
I0720 14:07:07.241462 11537 net.cpp:91] Creating Layer drop6
I0720 14:07:07.241469 11539 net.cpp:141] Setting up relu7
I0720 14:07:07.241482 11537 net.cpp:425] drop6 <- fc6
I0720 14:07:07.241464 11509 net.cpp:141] Setting up prob
I0720 14:07:07.241494 11537 net.cpp:386] drop6 -> fc6 (in-place)
I0720 14:07:07.241497 11539 net.cpp:148] Top shape: 10 4096 (40960)
I0720 14:07:07.241518 11509 net.cpp:148] Top shape: 10 1000 (10000)
I0720 14:07:07.241521 11537 net.cpp:141] Setting up drop6
I0720 14:07:07.241525 11509 net.cpp:156] Memory required for data: 68681400
I0720 14:07:07.241526 11539 net.cpp:156] Memory required for data: 68437560
I0720 14:07:07.241534 11509 net.cpp:219] prob does not need backward computation.
I0720 14:07:07.241531 11537 net.cpp:148] Top shape: 10 4096 (40960)
I0720 14:07:07.241544 11509 net.cpp:219] fc8 does not need backward computation.
I0720 14:07:07.241545 11539 layer_factory.hpp:77] Creating layer drop7
I0720 14:07:07.241547 11537 net.cpp:156] Memory required for data: 68109880
I0720 14:07:07.241549 11509 net.cpp:219] drop7 does not need backward computation.
I0720 14:07:07.241565 11537 layer_factory.hpp:77] Creating layer fc7
I0720 14:07:07.241572 11509 net.cpp:219] relu7 does not need backward computation.
…
I0720 14:07:07.241657 11509 net.cpp:219] pool1 does not need backward computation.
I0720 14:07:07.241662 11509 net.cpp:219] relu1 does not need backward computation.
I0720 14:07:07.241667 11509 net.cpp:219] conv1 does not need backward computation.
I0720 14:07:07.241670 11509 net.cpp:219] data does not need backward computation.
I0720 14:07:07.241674 11509 net.cpp:261] This network produces output prob
I0720 14:07:07.242100 11525 net.cpp:141] Setting up relu6
I0720 14:07:07.242101 11537 net.cpp:399] fc7 -> fc7
I0720 14:07:07.242101 11539 net.cpp:91] Creating Layer drop7
I0720 14:07:07.242125 11525 net.cpp:148] Top shape: 10 4096 (40960)
I0720 14:07:07.242130 11525 net.cpp:156] Memory required for data: 67946040
I0720 14:07:07.242128 11509 net.cpp:274] Network initialization done.
I0720 14:07:07.242136 11539 net.cpp:425] drop7 <- fc7
I0720 14:07:07.242137 11525 layer_factory.hpp:77] Creating layer drop6
I0720 14:07:07.242158 11525 net.cpp:91] Creating Layer drop6
I0720 14:07:07.242164 11525 net.cpp:425] drop6 <- fc6
I0720 14:07:07.242153 11539 net.cpp:386] drop7 -> fc7 (in-place)
I0720 14:07:07.242672 11539 net.cpp:141] Setting up drop7
I0720 14:07:07.242699 11539 net.cpp:148] Top shape: 10 4096 (40960)
I0720 14:07:07.242710 11539 net.cpp:156] Memory required for data: 68601400
I0720 14:07:07.242720 11539 layer_factory.hpp:77] Creating layer fc8
I0720 14:07:07.242735 11539 net.cpp:91] Creating Layer fc8
I0720 14:07:07.242745 11539 net.cpp:425] fc8 <- fc7
I0720 14:07:07.242759 11539 net.cpp:399] fc8 -> fc8
I0720 14:07:07.243227 11525 net.cpp:386] drop6 -> fc6 (in-place)
I0720 14:07:07.243253 11525 net.cpp:141] Setting up drop6
I0720 14:07:07.243262 11525 net.cpp:148] Top shape: 10 4096 (40960)
I0720 14:07:07.243266 11525 net.cpp:156] Memory required for data: 68109880
I0720 14:07:07.243271 11525 layer_factory.hpp:77] Creating layer fc7
I0720 14:07:07.243283 11525 net.cpp:91] Creating Layer fc7
I0720 14:07:07.243794 11525 net.cpp:425] fc7 <- fc6
I0720 14:07:07.243811 11525 net.cpp:399] fc7 -> fc7
I0720 14:07:07.288360 11539 net.cpp:141] Setting up fc8
I0720 14:07:07.288426 11539 net.cpp:148] Top shape: 10 1000 (10000)
I0720 14:07:07.288435 11539 net.cpp:156] Memory required for data: 68641400
I0720 14:07:07.288460 11539 layer_factory.hpp:77] Creating layer prob
I0720 14:07:07.288483 11539 net.cpp:91] Creating Layer prob
I0720 14:07:07.288493 11539 net.cpp:425] prob <- fc8
I0720 14:07:07.288931 11539 net.cpp:399] prob -> prob
I0720 14:07:07.293370 11545 net.cpp:141] Setting up fc8
I0720 14:07:07.293449 11545 net.cpp:148] Top shape: 10 1000 (10000)
I0720 14:07:07.293460 11545 net.cpp:156] Memory required for data: 68641400
I0720 14:07:07.293489 11545 layer_factory.hpp:77] Creating layer prob
I0720 14:07:07.293943 11545 net.cpp:91] Creating Layer prob
I0720 14:07:07.293969 11545 net.cpp:425] prob <- fc8
I0720 14:07:07.293987 11545 net.cpp:399] prob -> prob
I0720 14:07:07.302983 11531 net.cpp:141] Setting up fc7
I0720 14:07:07.303055 11531 net.cpp:148] Top shape: 10 4096 (40960)
I0720 14:07:07.303061 11531 net.cpp:156] Memory required for data: 68273720
I0720 14:07:07.303077 11531 layer_factory.hpp:77] Creating layer relu7
I0720 14:07:07.303095 11531 net.cpp:91] Creating Layer relu7
I0720 14:07:07.303102 11531 net.cpp:425] relu7 <- fc7
I0720 14:07:07.303112 11531 net.cpp:386] relu7 -> fc7 (in-place)
I0720 14:07:07.333323 11533 net.cpp:141] Setting up fc7
I0720 14:07:07.333353 11525 net.cpp:141] Setting up fc7
I0720 14:07:07.333384 11533 net.cpp:148] Top shape: 10 4096 (40960)
I0720 14:07:07.333392 11533 net.cpp:156] Memory required for data: 68273720
I0720 14:07:07.333394 11525 net.cpp:148] Top shape: 10 4096 (40960)
I0720 14:07:07.333405 11525 net.cpp:156] Memory required for data: 68273720
I0720 14:07:07.333415 11533 layer_factory.hpp:77] Creating layer relu7
I0720 14:07:07.333420 11525 layer_factory.hpp:77] Creating layer relu7
I0720 14:07:07.333432 11533 net.cpp:91] Creating Layer relu7
I0720 14:07:07.333441 11533 net.cpp:425] relu7 <- fc7
I0720 14:07:07.333465 11533 net.cpp:386] relu7 -> fc7 (in-place)
I0720 14:07:07.333467 11525 net.cpp:91] Creating Layer relu7
I0720 14:07:07.333487 11525 net.cpp:425] relu7 <- fc7
I0720 14:07:07.333498 11525 net.cpp:386] relu7 -> fc7 (in-place)
I0720 14:07:07.334223 11537 net.cpp:141] Setting up fc7
I0720 14:07:07.334245 11537 net.cpp:148] Top shape: 10 4096 (40960)
I0720 14:07:07.334250 11537 net.cpp:156] Memory required for data: 68273720
I0720 14:07:07.334260 11537 layer_factory.hpp:77] Creating layer relu7
I0720 14:07:07.334269 11537 net.cpp:91] Creating Layer relu7
I0720 14:07:07.334273 11537 net.cpp:425] relu7 <- fc7
I0720 14:07:07.334280 11537 net.cpp:386] relu7 -> fc7 (in-place)
I0720 14:07:07.441372 11525 net.cpp:141] Setting up relu7
I0720 14:07:07.441377 11537 net.cpp:141] Setting up relu7
I0720 14:07:07.441429 11525 net.cpp:148] Top shape: 10 4096 (40960)
I0720 14:07:07.441445 11525 net.cpp:156] Memory required for data: 68437560
I0720 14:07:07.441452 11537 net.cpp:148] Top shape: 10 4096 (40960)
I0720 14:07:07.441455 11525 layer_factory.hpp:77] Creating layer drop7
I0720 14:07:07.441468 11537 net.cpp:156] Memory required for data: 68437560
I0720 14:07:07.441481 11537 layer_factory.hpp:77] Creating layer drop7
I0720 14:07:07.441484 11525 net.cpp:91] Creating Layer drop7
I0720 14:07:07.441499 11525 net.cpp:425] drop7 <- fc7
I0720 14:07:07.441504 11533 net.cpp:141] Setting up relu7
I0720 14:07:07.441514 11537 net.cpp:91] Creating Layer drop7
I0720 14:07:07.441516 11525 net.cpp:386] drop7 -> fc7 (in-place)
I0720 14:07:07.441534 11533 net.cpp:148] Top shape: 10 4096 (40960)
I0720 14:07:07.441540 11537 net.cpp:425] drop7 <- fc7
I0720 14:07:07.441545 11533 net.cpp:156] Memory required for data: 68437560
I0720 14:07:07.441555 11533 layer_factory.hpp:77] Creating layer drop7
I0720 14:07:07.441557 11525 net.cpp:141] Setting up drop7
I0720 14:07:07.441563 11539 net.cpp:141] Setting up prob
I0720 14:07:07.441567 11545 net.cpp:141] Setting up prob
I0720 14:07:07.441572 11525 net.cpp:148] Top shape: 10 4096 (40960)
I0720 14:07:07.441586 11539 net.cpp:148] Top shape: 10 1000 (10000)
I0720 14:07:07.441591 11545 net.cpp:148] Top shape: 10 1000 (10000)
I0720 14:07:07.441597 11539 net.cpp:156] Memory required for data: 68681400
I0720 14:07:07.441570 11531 net.cpp:141] Setting up relu7
I0720 14:07:07.441570 11533 net.cpp:91] Creating Layer drop7
I0720 14:07:07.441593 11525 net.cpp:156] Memory required for data: 68601400
I0720 14:07:07.441632 11533 net.cpp:425] drop7 <- fc7
I0720 14:07:07.441557 11537 net.cpp:386] drop7 -> fc7 (in-place)
I0720 14:07:07.441606 11545 net.cpp:156] Memory required for data: 68681400
I0720 14:07:07.441611 11539 net.cpp:219] prob does not need backward computation.
I0720 14:07:07.441639 11531 net.cpp:148] Top shape: 10 4096 (40960)
I0720 14:07:07.441653 11545 net.cpp:219] prob does not need backward computation.
I0720 14:07:07.441654 11539 net.cpp:219] fc8 does not need backward computation.
I0720 14:07:07.441639 11525 layer_factory.hpp:77] Creating layer fc8
I0720 14:07:07.441653 11533 net.cpp:386] drop7 -> fc7 (in-place)
I0720 14:07:07.441666 11539 net.cpp:219] drop7 does not need backward computation.
I0720 14:07:07.441668 11545 net.cpp:219] fc8 does not need backward computation.
I0720 14:07:07.441668 11531 net.cpp:156] Memory required for data: 68437560
I0720 14:07:07.441663 11537 net.cpp:141] Setting up drop7
I0720 14:07:07.441681 11545 net.cpp:219] drop7 does not need backward computation.
I0720 14:07:07.441682 11533 net.cpp:141] Setting up drop7
I0720 14:07:07.441743 11545 net.cpp:219] relu7 does not need backward computation.
I0720 14:07:07.441675 11539 net.cpp:219] relu7 does not need backward computation.
I0720 14:07:07.441676 11525 net.cpp:91] Creating Layer fc8
I0720 14:07:07.441753 11545 net.cpp:219] fc7 does not need backward computation.
I0720 14:07:07.441696 11537 net.cpp:148] Top shape: 10 4096 (40960)
I0720 14:07:07.441757 11533 net.cpp:148] Top shape: 10 4096 (40960)
I0720 14:07:07.441759 11539 net.cpp:219] fc7 does not need backward computation.
I0720 14:07:07.441695 11531 layer_factory.hpp:77] Creating layer drop7
I0720 14:07:07.441766 11545 net.cpp:219] drop6 does not need backward computation.
I0720 14:07:07.441774 11539 net.cpp:219] drop6 does not need backward computation.
I0720 14:07:07.441767 11533 net.cpp:156] Memory required for data: 68601400
I0720 14:07:07.441762 11525 net.cpp:425] fc8 <- fc7
I0720 14:07:07.441730 11511 net.cpp:141] Setting up predict
I0720 14:07:07.441792 11525 net.cpp:399] fc8 -> fc8
I0720 14:07:07.441786 11533 layer_factory.hpp:77] Creating layer fc8
I0720 14:07:07.441766 11537 net.cpp:156] Memory required for data: 68601400
I0720 14:07:07.441787 11539 net.cpp:219] relu6 does not need backward computation.
I0720 14:07:07.441818 11533 net.cpp:91] Creating Layer fc8
I0720 14:07:07.441819 11537 layer_factory.hpp:77] Creating layer fc8
I0720 14:07:07.441805 11511 net.cpp:148] Top shape: 1 1 46168 (46168)
I0720 14:07:07.441783 11545 net.cpp:219] relu6 does not need backward computation.
I0720 14:07:07.441825 11539 net.cpp:219] fc6 does not need backward computation.
I0720 14:07:07.441830 11533 net.cpp:425] fc8 <- fc7
I0720 14:07:07.441838 11537 net.cpp:91] Creating Layer fc8
I0720 14:07:07.441843 11539 net.cpp:219] pool5 does not need backward computation.
I0720 14:07:07.441835 11511 net.cpp:156] Memory required for data: 221084
…
I0720 14:07:07.441963 11545 net.cpp:219] data does not need backward computation.
I0720 14:07:07.441967 11545 net.cpp:261] This network produces output prob
I0720 14:07:07.442219 11531 net.cpp:91] Creating Layer drop7
I0720 14:07:07.442234 11531 net.cpp:425] drop7 <- fc7
I0720 14:07:07.442245 11533 net.cpp:399] fc8 -> fc8
I0720 14:07:07.442248 11531 net.cpp:386] drop7 -> fc7 (in-place)
I0720 14:07:07.442257 11537 net.cpp:399] fc8 -> fc8
I0720 14:07:07.442263 11539 net.cpp:274] Network initialization done.
I0720 14:07:07.442267 11531 net.cpp:141] Setting up drop7
I0720 14:07:07.442281 11531 net.cpp:148] Top shape: 10 4096 (40960)
I0720 14:07:07.442291 11531 net.cpp:156] Memory required for data: 68601400
I0720 14:07:07.442301 11531 layer_factory.hpp:77] Creating layer fc8
I0720 14:07:07.442303 11545 net.cpp:274] Network initialization done.
I0720 14:07:07.442314 11531 net.cpp:91] Creating Layer fc8
I0720 14:07:07.442324 11531 net.cpp:425] fc8 <- fc7
I0720 14:07:07.442895 11531 net.cpp:399] fc8 -> fc8
I0720 14:07:07.451594 11537 net.cpp:141] Setting up fc8
I0720 14:07:07.451649 11537 net.cpp:148] Top shape: 10 1000 (10000)
I0720 14:07:07.451655 11537 net.cpp:156] Memory required for data: 68641400
I0720 14:07:07.451673 11537 layer_factory.hpp:77] Creating layer prob
I0720 14:07:07.451689 11537 net.cpp:91] Creating Layer prob
I0720 14:07:07.451696 11537 net.cpp:425] prob <- fc8
I0720 14:07:07.451707 11537 net.cpp:399] prob -> prob
I0720 14:07:07.455302 11525 net.cpp:141] Setting up fc8
I0720 14:07:07.455360 11525 net.cpp:148] Top shape: 10 1000 (10000)
I0720 14:07:07.455366 11525 net.cpp:156] Memory required for data: 68641400
I0720 14:07:07.455384 11525 layer_factory.hpp:77] Creating layer prob
I0720 14:07:07.455407 11525 net.cpp:91] Creating Layer prob
I0720 14:07:07.455415 11525 net.cpp:425] prob <- fc8
I0720 14:07:07.455425 11525 net.cpp:399] prob -> prob
I0720 14:07:07.457460 11533 net.cpp:141] Setting up fc8
I0720 14:07:07.457543 11533 net.cpp:148] Top shape: 10 1000 (10000)
I0720 14:07:07.457556 11533 net.cpp:156] Memory required for data: 68641400
I0720 14:07:07.457586 11533 layer_factory.hpp:77] Creating layer prob
I0720 14:07:07.457622 11533 net.cpp:91] Creating Layer prob
I0720 14:07:07.457634 11533 net.cpp:425] prob <- fc8
I0720 14:07:07.457653 11533 net.cpp:399] prob -> prob
I0720 14:07:07.458247 11531 net.cpp:141] Setting up fc8
I0720 14:07:07.458276 11531 net.cpp:148] Top shape: 10 1000 (10000)
I0720 14:07:07.458284 11531 net.cpp:156] Memory required for data: 68641400
I0720 14:07:07.458304 11531 layer_factory.hpp:77] Creating layer prob
I0720 14:07:07.458320 11531 net.cpp:91] Creating Layer prob
I0720 14:07:07.458331 11531 net.cpp:425] prob <- fc8
I0720 14:07:07.458345 11531 net.cpp:399] prob -> prob
I0720 14:07:07.465559 11511 net.cpp:141] Setting up probs
I0720 14:07:07.465620 11511 net.cpp:148] Top shape: 1 1 46168 (46168)
I0720 14:07:07.465631 11511 net.cpp:156] Memory required for data: 405756
I0720 14:07:07.465646 11511 net.cpp:219] probs does not need backward computation.
I0720 14:07:07.465657 11511 net.cpp:219] predict does not need backward computation.
I0720 14:07:07.465667 11511 net.cpp:219] lstm2 does not need backward computation.
I0720 14:07:07.465682 11511 net.cpp:219] concat does not need backward computation.
I0720 14:07:07.465693 11511 net.cpp:219] lstm1 does not need backward computation.
I0720 14:07:07.465703 11511 net.cpp:219] embedding does not need backward computation.
I0720 14:07:07.465711 11511 net.cpp:219] reshape_stage_indicator does not need backward computation.
I0720 14:07:07.465720 11511 net.cpp:219] reshape_frames does not need backward computation.
I0720 14:07:07.465729 11511 net.cpp:219] embed_encoder does not need backward computation.
I0720 14:07:07.465739 11511 net.cpp:219] cont_sentence_input_1_split does not need backward computation.
I0720 14:07:07.465746 11511 net.cpp:219] input does not need backward computation.
I0720 14:07:07.465754 11511 net.cpp:261] This network produces output probs
I0720 14:07:07.465782 11511 net.cpp:274] Network initialization done.
I0720 14:07:07.465951 11525 net.cpp:141] Setting up prob
I0720 14:07:07.465988 11525 net.cpp:148] Top shape: 10 1000 (10000)
I0720 14:07:07.465993 11525 net.cpp:156] Memory required for data: 68681400
I0720 14:07:07.466002 11525 net.cpp:219] prob does not need backward computation.
I0720 14:07:07.466008 11525 net.cpp:219] fc8 does not need backward computation.
I0720 14:07:07.466013 11525 net.cpp:219] drop7 does not need backward computation.
I0720 14:07:07.466017 11525 net.cpp:219] relu7 does not need backward computation.
…
I0720 14:07:08.865535 11525 net.cpp:752] Ignoring source layer loss
I0720 14:07:08.890772 11537 upgrade_proto.cpp:60] Successfully upgraded file specified using deprecated V1LayerParameter
I0720 14:07:08.892416 11531 net.cpp:752] Ignoring source layer loss
I0720 14:07:08.913285 11533 upgrade_proto.cpp:60] Successfully upgraded file specified using deprecated V1LayerParameter
I0720 14:07:08.955797 11537 net.cpp:752] Ignoring source layer loss
I0720 14:07:08.974643 11533 net.cpp:752] Ignoring source layer loss
I0720 14:07:09.467468 11515 net.cpp:141] Setting up input
I0720 14:07:09.467516 11515 net.cpp:148] Top shape: 1 4096 (4096)
I0720 14:07:09.467525 11515 net.cpp:148] Top shape: 1 1 (1)
I0720 14:07:09.467530 11515 net.cpp:148] Top shape: 1 1 (1)
I0720 14:07:09.467535 11515 net.cpp:148] Top shape: 1 1 (1)
I0720 14:07:09.467540 11515 net.cpp:156] Memory required for data: 16396
I0720 14:07:09.467550 11515 layer_factory.hpp:77] Creating layer cont_sentence_input_1_split
I0720 14:07:09.467566 11515 net.cpp:91] Creating Layer cont_sentence_input_1_split
I0720 14:07:09.467573 11515 net.cpp:425] cont_sentence_input_1_split <- cont_sentence
I0720 14:07:09.467586 11515 net.cpp:399] cont_sentence_input_1_split -> cont_sentence_input_1_split_0
I0720 14:07:09.467600 11515 net.cpp:399] cont_sentence_input_1_split -> cont_sentence_input_1_split_1
I0720 14:07:09.467669 11515 net.cpp:141] Setting up cont_sentence_input_1_split
I0720 14:07:09.467679 11515 net.cpp:148] Top shape: 1 1 (1)
I0720 14:07:09.467684 11515 net.cpp:148] Top shape: 1 1 (1)
I0720 14:07:09.467687 11515 net.cpp:156] Memory required for data: 16404
I0720 14:07:09.467692 11515 layer_factory.hpp:77] Creating layer embed_encoder
I0720 14:07:09.467708 11515 net.cpp:91] Creating Layer embed_encoder
I0720 14:07:09.467713 11515 net.cpp:425] embed_encoder <- frames_fc7
I0720 14:07:09.467720 11515 net.cpp:399] embed_encoder -> embedded_in_frames
I0720 14:07:09.492772 11515 net.cpp:141] Setting up embed_encoder
I0720 14:07:09.492828 11515 net.cpp:148] Top shape: 1 500 (500)
I0720 14:07:09.492837 11515 net.cpp:156] Memory required for data: 18404
I0720 14:07:09.492869 11515 layer_factory.hpp:77] Creating layer reshape_frames
I0720 14:07:09.492895 11515 net.cpp:91] Creating Layer reshape_frames
I0720 14:07:09.492907 11515 net.cpp:425] reshape_frames <- embedded_in_frames
I0720 14:07:09.492923 11515 net.cpp:399] reshape_frames -> embedded_input_frames
I0720 14:07:09.493000 11515 net.cpp:141] Setting up reshape_frames
I0720 14:07:09.493015 11515 net.cpp:148] Top shape: 1 1 500 (500)
I0720 14:07:09.493021 11515 net.cpp:156] Memory required for data: 20404
I0720 14:07:09.493028 11515 layer_factory.hpp:77] Creating layer reshape_stage_indicator
I0720 14:07:09.493042 11515 net.cpp:91] Creating Layer reshape_stage_indicator
I0720 14:07:09.493051 11515 net.cpp:425] reshape_stage_indicator <- stage_indicator
I0720 14:07:09.493065 11515 net.cpp:399] reshape_stage_indicator -> reshaped_stage_indicator
I0720 14:07:09.493144 11515 net.cpp:141] Setting up reshape_stage_indicator
I0720 14:07:09.493165 11515 net.cpp:148] Top shape: 1 1 1 (1)
I0720 14:07:09.493173 11515 net.cpp:156] Memory required for data: 20408
I0720 14:07:09.493181 11515 layer_factory.hpp:77] Creating layer embedding
I0720 14:07:09.493198 11515 net.cpp:91] Creating Layer embedding
I0720 14:07:09.493208 11515 net.cpp:425] embedding <- input_sentence
I0720 14:07:09.493221 11515 net.cpp:399] embedding -> embedded_input_sentence
I0720 14:07:09.769418 11515 net.cpp:141] Setting up embedding
I0720 14:07:09.769475 11515 net.cpp:148] Top shape: 1 1 500 (500)
I0720 14:07:09.769484 11515 net.cpp:156] Memory required for data: 22408
I0720 14:07:09.769507 11515 layer_factory.hpp:77] Creating layer lstm1
I0720 14:07:09.769531 11515 net.cpp:91] Creating Layer lstm1
I0720 14:07:09.769542 11515 net.cpp:425] lstm1 <- embedded_input_frames
I0720 14:07:09.769556 11515 net.cpp:425] lstm1 <- cont_sentence_input_1_split_0
I0720 14:07:09.769573 11515 net.cpp:399] lstm1 -> lstm1
I0720 14:07:09.769598 11515 recurrent_layer.cpp:20] Initializing recurrent layer: assuming input batch contains 1 timesteps of 1 independent streams.
I0720 14:07:09.769989 11515 net.cpp:49] Initializing net from parameters: 
layer {
  name: "lstm1_"
  type: "Input"
  top: "x"
  top: "cont"
  input_param {
    shape {
      dim: 1
      dim: 1
      dim: 500
    }
    shape {
      dim: 1
      dim: 1
    }
  }
}
layer {
  name: "lstm1_"
  type: "Input"
  top: "c_0"
  top: "h_0"
  input_param {
    shape {
      dim: 1
      dim: 1
      dim: 1000
    }
    shape {
      dim: 1
      dim: 1
      dim: 1000
    }
  }
}
layer {
  name: "lstm1_cont_slice"
  type: "Slice"
  bottom: "cont"
  top: "cont_1"
  slice_param {
    axis: 0
  }
}
layer {
  name: "lstm1_x_transform"
  type: "InnerProduct"
  bottom: "x"
  top: "W_xc_x"
  param {
    name: "W_xc"
  }
  param {
    name: "b_c"
  }
  propagate_down: true
  inner_product_param {
    num_output: 4000
    bias_term: true
    weight_filler {
      type: "uniform"
      min: -0.08
      max: 0.08
    }
    bias_filler {
      type: "constant"
      value: 0
    }
    axis: 2
  }
}
layer {
  name: "lstm1_W_xc_x_slice"
  type: "Slice"
  bottom: "W_xc_x"
  top: "W_xc_x_1"
  slice_param {
    axis: 0
  }
}
layer {
  name: "lstm1_h_conted_0"
  type: "Scale"
  bottom: "h_0"
  bottom: "cont_1"
  top: "h_conted_0"
  scale_param {
    axis: 0
  }
}
layer {
  name: "lstm1_transform_1"
  type: "InnerProduct"
  bottom: "h_conted_0"
  top: "W_hc_h_0"
  param {
    name: "W_hc"
  }
  inner_product_param {
    num_output: 4000
    bias_term: false
    weight_filler {
      type: "uniform"
      min: -0.08
      max: 0.08
    }
    axis: 2
  }
}
layer {
  name: "lstm1_gate_input_1"
  type: "Eltwise"
  bottom: "W_hc_h_0"
  bottom: "W_xc_x_1"
  top: "gate_input_1"
  eltwise_param {
    operation: SUM
  }
}
layer {
  name: "lstm1_unit_1"
  type: "LSTMUnit"
  bottom: "c_0"
  bottom: "gate_input_1"
  bottom: "cont_1"
  top: "c_1"
  top: "h_1"
}
layer {
  name: "lstm1_"
  type: "Split"
  bottom: "c_1"
  top: "c_T"
}
layer {
  name: "lstm1_h_concat"
  type: "Concat"
  bottom: "h_1"
  top: "h"
  concat_param {
    axis: 0
  }
}
layer {
  name: "h_pseudoloss"
  type: "Reduction"
  bottom: "h"
  top: "h_pseudoloss"
  loss_weight: 1
}
I0720 14:07:09.770165 11515 layer_factory.hpp:77] Creating layer lstm1_
I0720 14:07:09.770184 11515 net.cpp:91] Creating Layer lstm1_
I0720 14:07:09.770195 11515 net.cpp:399] lstm1_ -> x
I0720 14:07:09.770210 11515 net.cpp:399] lstm1_ -> cont
I0720 14:07:09.770328 11515 net.cpp:141] Setting up lstm1_
I0720 14:07:09.770344 11515 net.cpp:148] Top shape: 1 1 500 (500)
I0720 14:07:09.770354 11515 net.cpp:148] Top shape: 1 1 (1)
I0720 14:07:09.770360 11515 net.cpp:156] Memory required for data: 2004
I0720 14:07:09.770367 11515 layer_factory.hpp:77] Creating layer lstm1_
I0720 14:07:09.770380 11515 net.cpp:91] Creating Layer lstm1_
I0720 14:07:09.770390 11515 net.cpp:399] lstm1_ -> c_0
I0720 14:07:09.770403 11515 net.cpp:399] lstm1_ -> h_0
I0720 14:07:09.770516 11515 net.cpp:141] Setting up lstm1_
I0720 14:07:09.770534 11515 net.cpp:148] Top shape: 1 1 1000 (1000)
I0720 14:07:09.770544 11515 net.cpp:148] Top shape: 1 1 1000 (1000)
I0720 14:07:09.770550 11515 net.cpp:156] Memory required for data: 10004
I0720 14:07:09.770556 11515 layer_factory.hpp:77] Creating layer lstm1_cont_slice
I0720 14:07:09.770568 11515 net.cpp:91] Creating Layer lstm1_cont_slice
I0720 14:07:09.770576 11515 net.cpp:425] lstm1_cont_slice <- cont
I0720 14:07:09.770586 11515 net.cpp:399] lstm1_cont_slice -> cont_1
I0720 14:07:09.770663 11515 net.cpp:141] Setting up lstm1_cont_slice
I0720 14:07:09.770678 11515 net.cpp:148] Top shape: 1 1 (1)
I0720 14:07:09.770684 11515 net.cpp:156] Memory required for data: 10008
I0720 14:07:09.770701 11515 layer_factory.hpp:77] Creating layer cont_1_lstm1_cont_slice_0_split
I0720 14:07:09.770714 11515 net.cpp:91] Creating Layer cont_1_lstm1_cont_slice_0_split
I0720 14:07:09.770720 11515 net.cpp:425] cont_1_lstm1_cont_slice_0_split <- cont_1
I0720 14:07:09.770730 11515 net.cpp:399] cont_1_lstm1_cont_slice_0_split -> cont_1_lstm1_cont_slice_0_split_0
I0720 14:07:09.770759 11515 net.cpp:399] cont_1_lstm1_cont_slice_0_split -> cont_1_lstm1_cont_slice_0_split_1
I0720 14:07:09.770866 11515 net.cpp:141] Setting up cont_1_lstm1_cont_slice_0_split
I0720 14:07:09.770887 11515 net.cpp:148] Top shape: 1 1 (1)
I0720 14:07:09.770896 11515 net.cpp:148] Top shape: 1 1 (1)
I0720 14:07:09.770902 11515 net.cpp:156] Memory required for data: 10016
I0720 14:07:09.770910 11515 layer_factory.hpp:77] Creating layer lstm1_x_transform
I0720 14:07:09.770925 11515 net.cpp:91] Creating Layer lstm1_x_transform
I0720 14:07:09.770932 11515 net.cpp:425] lstm1_x_transform <- x
I0720 14:07:09.770949 11515 net.cpp:399] lstm1_x_transform -> W_xc_x
I0720 14:07:09.805953 11515 net.cpp:141] Setting up lstm1_x_transform
I0720 14:07:09.806006 11515 net.cpp:148] Top shape: 1 1 4000 (4000)
I0720 14:07:09.806015 11515 net.cpp:156] Memory required for data: 26016
I0720 14:07:09.806042 11515 layer_factory.hpp:77] Creating layer lstm1_W_xc_x_slice
I0720 14:07:09.806062 11515 net.cpp:91] Creating Layer lstm1_W_xc_x_slice
I0720 14:07:09.806072 11515 net.cpp:425] lstm1_W_xc_x_slice <- W_xc_x
I0720 14:07:09.806092 11515 net.cpp:399] lstm1_W_xc_x_slice -> W_xc_x_1
I0720 14:07:09.806160 11515 net.cpp:141] Setting up lstm1_W_xc_x_slice
I0720 14:07:09.806174 11515 net.cpp:148] Top shape: 1 1 4000 (4000)
I0720 14:07:09.806181 11515 net.cpp:156] Memory required for data: 42016
I0720 14:07:09.806188 11515 layer_factory.hpp:77] Creating layer lstm1_h_conted_0
I0720 14:07:09.806206 11515 net.cpp:91] Creating Layer lstm1_h_conted_0
I0720 14:07:09.806215 11515 net.cpp:425] lstm1_h_conted_0 <- h_0
I0720 14:07:09.806223 11515 net.cpp:425] lstm1_h_conted_0 <- cont_1_lstm1_cont_slice_0_split_0
I0720 14:07:09.806233 11515 net.cpp:399] lstm1_h_conted_0 -> h_conted_0
I0720 14:07:09.806411 11515 net.cpp:141] Setting up lstm1_h_conted_0
I0720 14:07:09.806423 11515 net.cpp:148] Top shape: 1 1 1000 (1000)
I0720 14:07:09.806430 11515 net.cpp:156] Memory required for data: 46016
I0720 14:07:09.806437 11515 layer_factory.hpp:77] Creating layer lstm1_transform_1
I0720 14:07:09.806457 11515 net.cpp:91] Creating Layer lstm1_transform_1
I0720 14:07:09.806463 11515 net.cpp:425] lstm1_transform_1 <- h_conted_0
I0720 14:07:09.806474 11515 net.cpp:399] lstm1_transform_1 -> W_hc_h_0
I0720 14:07:09.860936 11515 net.cpp:141] Setting up lstm1_transform_1
I0720 14:07:09.860986 11515 net.cpp:148] Top shape: 1 1 4000 (4000)
I0720 14:07:09.860992 11515 net.cpp:156] Memory required for data: 62016
I0720 14:07:09.861013 11515 layer_factory.hpp:77] Creating layer lstm1_gate_input_1
I0720 14:07:09.861032 11515 net.cpp:91] Creating Layer lstm1_gate_input_1
I0720 14:07:09.861039 11515 net.cpp:425] lstm1_gate_input_1 <- W_hc_h_0
I0720 14:07:09.861048 11515 net.cpp:425] lstm1_gate_input_1 <- W_xc_x_1
I0720 14:07:09.861060 11515 net.cpp:399] lstm1_gate_input_1 -> gate_input_1
I0720 14:07:09.861125 11515 net.cpp:141] Setting up lstm1_gate_input_1
I0720 14:07:09.861135 11515 net.cpp:148] Top shape: 1 1 4000 (4000)
I0720 14:07:09.861140 11515 net.cpp:156] Memory required for data: 78016
I0720 14:07:09.861146 11515 layer_factory.hpp:77] Creating layer lstm1_unit_1
I0720 14:07:09.861241 11515 net.cpp:91] Creating Layer lstm1_unit_1
I0720 14:07:09.861248 11515 net.cpp:425] lstm1_unit_1 <- c_0
I0720 14:07:09.861254 11515 net.cpp:425] lstm1_unit_1 <- gate_input_1
I0720 14:07:09.861259 11515 net.cpp:425] lstm1_unit_1 <- cont_1_lstm1_cont_slice_0_split_1
I0720 14:07:09.861266 11515 net.cpp:399] lstm1_unit_1 -> c_1
I0720 14:07:09.861277 11515 net.cpp:399] lstm1_unit_1 -> h_1
I0720 14:07:09.861372 11515 net.cpp:141] Setting up lstm1_unit_1
I0720 14:07:09.861382 11515 net.cpp:148] Top shape: 1 1 1000 (1000)
I0720 14:07:09.861388 11515 net.cpp:148] Top shape: 1 1 1000 (1000)
I0720 14:07:09.861392 11515 net.cpp:156] Memory required for data: 86016
I0720 14:07:09.861397 11515 layer_factory.hpp:77] Creating layer lstm1_
I0720 14:07:09.861404 11515 net.cpp:91] Creating Layer lstm1_
I0720 14:07:09.861408 11515 net.cpp:425] lstm1_ <- c_1
I0720 14:07:09.861418 11515 net.cpp:399] lstm1_ -> c_T
I0720 14:07:09.861461 11515 net.cpp:141] Setting up lstm1_
I0720 14:07:09.861469 11515 net.cpp:148] Top shape: 1 1 1000 (1000)
I0720 14:07:09.861474 11515 net.cpp:156] Memory required for data: 90016
I0720 14:07:09.861477 11515 layer_factory.hpp:77] Creating layer lstm1_h_concat
I0720 14:07:09.861486 11515 net.cpp:91] Creating Layer lstm1_h_concat
I0720 14:07:09.861490 11515 net.cpp:425] lstm1_h_concat <- h_1
I0720 14:07:09.861500 11515 net.cpp:399] lstm1_h_concat -> h
I0720 14:07:09.861547 11515 net.cpp:141] Setting up lstm1_h_concat
I0720 14:07:09.861557 11515 net.cpp:148] Top shape: 1 1 1000 (1000)
I0720 14:07:09.861560 11515 net.cpp:156] Memory required for data: 94016
I0720 14:07:09.861564 11515 layer_factory.hpp:77] Creating layer h_pseudoloss
I0720 14:07:09.861577 11515 net.cpp:91] Creating Layer h_pseudoloss
I0720 14:07:09.861582 11515 net.cpp:425] h_pseudoloss <- h
I0720 14:07:09.861588 11515 net.cpp:399] h_pseudoloss -> h_pseudoloss
I0720 14:07:09.861708 11515 net.cpp:141] Setting up h_pseudoloss
…
I0720 14:07:09.861801 11515 net.cpp:219] lstm1_ does not need backward computation.
I0720 14:07:09.861805 11515 net.cpp:261] This network produces output c_T
I0720 14:07:09.861809 11515 net.cpp:261] This network produces output h_pseudoloss
I0720 14:07:09.861826 11515 net.cpp:274] Network initialization done.
I0720 14:07:09.861872 11515 recurrent_layer.cpp:150] Adding parameter 0: W_xc
I0720 14:07:09.861878 11515 recurrent_layer.cpp:150] Adding parameter 1: b_c
I0720 14:07:09.861883 11515 recurrent_layer.cpp:150] Adding parameter 2: W_hc
I0720 14:07:09.862013 11515 net.cpp:141] Setting up lstm1
I0720 14:07:09.862025 11515 net.cpp:148] Top shape: 1 1 1000 (1000)
I0720 14:07:09.862028 11515 net.cpp:156] Memory required for data: 26408
I0720 14:07:09.862041 11515 layer_factory.hpp:77] Creating layer concat
I0720 14:07:09.862049 11515 net.cpp:91] Creating Layer concat
I0720 14:07:09.862054 11515 net.cpp:425] concat <- lstm1
I0720 14:07:09.862061 11515 net.cpp:425] concat <- embedded_input_sentence
I0720 14:07:09.862066 11515 net.cpp:425] concat <- reshaped_stage_indicator
I0720 14:07:09.862072 11515 net.cpp:399] concat -> lstm1_video_sequence
I0720 14:07:09.862115 11515 net.cpp:141] Setting up concat
I0720 14:07:09.862123 11515 net.cpp:148] Top shape: 1 1 1501 (1501)
I0720 14:07:09.862128 11515 net.cpp:156] Memory required for data: 32412
I0720 14:07:09.862133 11515 layer_factory.hpp:77] Creating layer lstm2
I0720 14:07:09.862144 11515 net.cpp:91] Creating Layer lstm2
I0720 14:07:09.862149 11515 net.cpp:425] lstm2 <- lstm1_video_sequence
I0720 14:07:09.862155 11515 net.cpp:425] lstm2 <- cont_sentence_input_1_split_1
I0720 14:07:09.862161 11515 net.cpp:399] lstm2 -> lstm2
I0720 14:07:09.862171 11515 recurrent_layer.cpp:20] Initializing recurrent layer: assuming input batch contains 1 timesteps of 1 independent streams.
I0720 14:07:09.862423 11515 net.cpp:49] Initializing net from parameters: 
layer {
  name: "lstm2_"
  type: "Input"
  top: "x"
  top: "cont"
  input_param {
    shape {
      dim: 1
      dim: 1
      dim: 1501
    }
    shape {
      dim: 1
      dim: 1
    }
  }
}
layer {
  name: "lstm2_"
  type: "Input"
  top: "c_0"
  top: "h_0"
  input_param {
    shape {
      dim: 1
      dim: 1
      dim: 1000
    }
    shape {
      dim: 1
      dim: 1
      dim: 1000
    }
  }
}
layer {
  name: "lstm2_cont_slice"
  type: "Slice"
  bottom: "cont"
  top: "cont_1"
  slice_param {
    axis: 0
  }
}
layer {
  name: "lstm2_x_transform"
  type: "InnerProduct"
  bottom: "x"
  top: "W_xc_x"
  param {
    name: "W_xc"
  }
  param {
    name: "b_c"
  }
  propagate_down: true
  inner_product_param {
    num_output: 4000
    bias_term: true
    weight_filler {
      type: "uniform"
      min: -0.08
      max: 0.08
    }
    bias_filler {
      type: "constant"
      value: 0
    }
    axis: 2
  }
}
layer {
  name: "lstm2_W_xc_x_slice"
  type: "Slice"
  bottom: "W_xc_x"
  top: "W_xc_x_1"
  slice_param {
    axis: 0
  }
}
layer {
  name: "lstm2_h_conted_0"
  type: "Scale"
  bottom: "h_0"
  bottom: "cont_1"
  top: "h_conted_0"
  scale_param {
    axis: 0
  }
}
layer {
  name: "lstm2_transform_1"
  type: "InnerProduct"
  bottom: "h_conted_0"
  top: "W_hc_h_0"
  param {
    name: "W_hc"
  }
  inner_product_param {
    num_output: 4000
    bias_term: false
    weight_filler {
      type: "uniform"
      min: -0.08
      max: 0.08
    }
    axis: 2
  }
}
layer {
  name: "lstm2_gate_input_1"
  type: "Eltwise"
  bottom: "W_hc_h_0"
  bottom: "W_xc_x_1"
  top: "gate_input_1"
  eltwise_param {
    operation: SUM
  }
}
layer {
  name: "lstm2_unit_1"
  type: "LSTMUnit"
  bottom: "c_0"
  bottom: "gate_input_1"
  bottom: "cont_1"
  top: "c_1"
  top: "h_1"
}
layer {
  name: "lstm2_"
  type: "Split"
  bottom: "c_1"
  top: "c_T"
}
layer {
  name: "lstm2_h_concat"
  type: "Concat"
  bottom: "h_1"
  top: "h"
  concat_param {
    axis: 0
  }
}
layer {
  name: "h_pseudoloss"
  type: "Reduction"
  bottom: "h"
  top: "h_pseudoloss"
  loss_weight: 1
}
I0720 14:07:09.862512 11515 layer_factory.hpp:77] Creating layer lstm2_
I0720 14:07:09.862524 11515 net.cpp:91] Creating Layer lstm2_
I0720 14:07:09.862530 11515 net.cpp:399] lstm2_ -> x
I0720 14:07:09.862540 11515 net.cpp:399] lstm2_ -> cont
I0720 14:07:09.862617 11515 net.cpp:141] Setting up lstm2_
I0720 14:07:09.862627 11515 net.cpp:148] Top shape: 1 1 1501 (1501)
I0720 14:07:09.862632 11515 net.cpp:148] Top shape: 1 1 (1)
I0720 14:07:09.862637 11515 net.cpp:156] Memory required for data: 6008
I0720 14:07:09.862642 11515 layer_factory.hpp:77] Creating layer lstm2_
I0720 14:07:09.862649 11515 net.cpp:91] Creating Layer lstm2_
I0720 14:07:09.862654 11515 net.cpp:399] lstm2_ -> c_0
I0720 14:07:09.862664 11515 net.cpp:399] lstm2_ -> h_0
I0720 14:07:09.862748 11515 net.cpp:141] Setting up lstm2_
I0720 14:07:09.862762 11515 net.cpp:148] Top shape: 1 1 1000 (1000)
I0720 14:07:09.862767 11515 net.cpp:148] Top shape: 1 1 1000 (1000)
I0720 14:07:09.862771 11515 net.cpp:156] Memory required for data: 14008
I0720 14:07:09.862776 11515 layer_factory.hpp:77] Creating layer lstm2_cont_slice
I0720 14:07:09.862784 11515 net.cpp:91] Creating Layer lstm2_cont_slice
I0720 14:07:09.862788 11515 net.cpp:425] lstm2_cont_slice <- cont
I0720 14:07:09.862795 11515 net.cpp:399] lstm2_cont_slice -> cont_1
I0720 14:07:09.862844 11515 net.cpp:141] Setting up lstm2_cont_slice
I0720 14:07:09.862854 11515 net.cpp:148] Top shape: 1 1 (1)
I0720 14:07:09.862859 11515 net.cpp:156] Memory required for data: 14012
I0720 14:07:09.862862 11515 layer_factory.hpp:77] Creating layer cont_1_lstm2_cont_slice_0_split
I0720 14:07:09.862869 11515 net.cpp:91] Creating Layer cont_1_lstm2_cont_slice_0_split
I0720 14:07:09.862872 11515 net.cpp:425] cont_1_lstm2_cont_slice_0_split <- cont_1
I0720 14:07:09.862879 11515 net.cpp:399] cont_1_lstm2_cont_slice_0_split -> cont_1_lstm2_cont_slice_0_split_0
I0720 14:07:09.862886 11515 net.cpp:399] cont_1_lstm2_cont_slice_0_split -> cont_1_lstm2_cont_slice_0_split_1
I0720 14:07:09.862970 11515 net.cpp:141] Setting up cont_1_lstm2_cont_slice_0_split
I0720 14:07:09.862982 11515 net.cpp:148] Top shape: 1 1 (1)
I0720 14:07:09.862987 11515 net.cpp:148] Top shape: 1 1 (1)
I0720 14:07:09.862992 11515 net.cpp:156] Memory required for data: 14020
I0720 14:07:09.862996 11515 layer_factory.hpp:77] Creating layer lstm2_x_transform
I0720 14:07:09.863005 11515 net.cpp:91] Creating Layer lstm2_x_transform
I0720 14:07:09.863010 11515 net.cpp:425] lstm2_x_transform <- x
I0720 14:07:09.863029 11515 net.cpp:399] lstm2_x_transform -> W_xc_x
I0720 14:07:09.922245 11515 net.cpp:141] Setting up lstm2_x_transform
I0720 14:07:09.922297 11515 net.cpp:148] Top shape: 1 1 4000 (4000)
I0720 14:07:09.922302 11515 net.cpp:156] Memory required for data: 30020
I0720 14:07:09.922325 11515 layer_factory.hpp:77] Creating layer lstm2_W_xc_x_slice
I0720 14:07:09.922346 11515 net.cpp:91] Creating Layer lstm2_W_xc_x_slice
I0720 14:07:09.922353 11515 net.cpp:425] lstm2_W_xc_x_slice <- W_xc_x
I0720 14:07:09.922363 11515 net.cpp:399] lstm2_W_xc_x_slice -> W_xc_x_1
I0720 14:07:09.922425 11515 net.cpp:141] Setting up lstm2_W_xc_x_slice
I0720 14:07:09.922435 11515 net.cpp:148] Top shape: 1 1 4000 (4000)
I0720 14:07:09.922440 11515 net.cpp:156] Memory required for data: 46020
I0720 14:07:09.922444 11515 layer_factory.hpp:77] Creating layer lstm2_h_conted_0
I0720 14:07:09.922454 11515 net.cpp:91] Creating Layer lstm2_h_conted_0
I0720 14:07:09.922459 11515 net.cpp:425] lstm2_h_conted_0 <- h_0
I0720 14:07:09.922464 11515 net.cpp:425] lstm2_h_conted_0 <- cont_1_lstm2_cont_slice_0_split_0
I0720 14:07:09.922472 11515 net.cpp:399] lstm2_h_conted_0 -> h_conted_0
I0720 14:07:09.922616 11515 net.cpp:141] Setting up lstm2_h_conted_0
I0720 14:07:09.922626 11515 net.cpp:148] Top shape: 1 1 1000 (1000)
I0720 14:07:09.922629 11515 net.cpp:156] Memory required for data: 50020
I0720 14:07:09.922634 11515 layer_factory.hpp:77] Creating layer lstm2_transform_1
I0720 14:07:09.922646 11515 net.cpp:91] Creating Layer lstm2_transform_1
I0720 14:07:09.922652 11515 net.cpp:425] lstm2_transform_1 <- h_conted_0
I0720 14:07:09.922665 11515 net.cpp:399] lstm2_transform_1 -> W_hc_h_0
I0720 14:07:09.981281 11515 net.cpp:141] Setting up lstm2_transform_1
I0720 14:07:09.981339 11515 net.cpp:148] Top shape: 1 1 4000 (4000)
I0720 14:07:09.981349 11515 net.cpp:156] Memory required for data: 66020
I0720 14:07:09.981375 11515 layer_factory.hpp:77] Creating layer lstm2_gate_input_1
I0720 14:07:09.981408 11515 net.cpp:91] Creating Layer lstm2_gate_input_1
I0720 14:07:09.981420 11515 net.cpp:425] lstm2_gate_input_1 <- W_hc_h_0
I0720 14:07:09.981432 11515 net.cpp:425] lstm2_gate_input_1 <- W_xc_x_1
I0720 14:07:09.981444 11515 net.cpp:399] lstm2_gate_input_1 -> gate_input_1
I0720 14:07:09.981534 11515 net.cpp:141] Setting up lstm2_gate_input_1
I0720 14:07:09.981549 11515 net.cpp:148] Top shape: 1 1 4000 (4000)
I0720 14:07:09.981556 11515 net.cpp:156] Memory required for data: 82020
I0720 14:07:09.981564 11515 layer_factory.hpp:77] Creating layer lstm2_unit_1
I0720 14:07:09.981580 11515 net.cpp:91] Creating Layer lstm2_unit_1
I0720 14:07:09.981587 11515 net.cpp:425] lstm2_unit_1 <- c_0
I0720 14:07:09.981596 11515 net.cpp:425] lstm2_unit_1 <- gate_input_1
I0720 14:07:09.981604 11515 net.cpp:425] lstm2_unit_1 <- cont_1_lstm2_cont_slice_0_split_1
I0720 14:07:09.981614 11515 net.cpp:399] lstm2_unit_1 -> c_1
I0720 14:07:09.981628 11515 net.cpp:399] lstm2_unit_1 -> h_1
I0720 14:07:09.981768 11515 net.cpp:141] Setting up lstm2_unit_1
I0720 14:07:09.981782 11515 net.cpp:148] Top shape: 1 1 1000 (1000)
I0720 14:07:09.981792 11515 net.cpp:148] Top shape: 1 1 1000 (1000)
I0720 14:07:09.981798 11515 net.cpp:156] Memory required for data: 90020
I0720 14:07:09.981806 11515 layer_factory.hpp:77] Creating layer lstm2_
I0720 14:07:09.981822 11515 net.cpp:91] Creating Layer lstm2_
I0720 14:07:09.981832 11515 net.cpp:425] lstm2_ <- c_1
I0720 14:07:09.981842 11515 net.cpp:399] lstm2_ -> c_T
I0720 14:07:09.981905 11515 net.cpp:141] Setting up lstm2_
I0720 14:07:09.981920 11515 net.cpp:148] Top shape: 1 1 1000 (1000)
I0720 14:07:09.981926 11515 net.cpp:156] Memory required for data: 94020
I0720 14:07:09.981935 11515 layer_factory.hpp:77] Creating layer lstm2_h_concat
I0720 14:07:09.981947 11515 net.cpp:91] Creating Layer lstm2_h_concat
I0720 14:07:09.981956 11515 net.cpp:425] lstm2_h_concat <- h_1
I0720 14:07:09.981968 11515 net.cpp:399] lstm2_h_concat -> h
I0720 14:07:09.982038 11515 net.cpp:141] Setting up lstm2_h_concat
I0720 14:07:09.982051 11515 net.cpp:148] Top shape: 1 1 1000 (1000)
I0720 14:07:09.982058 11515 net.cpp:156] Memory required for data: 98020
I0720 14:07:09.982065 11515 layer_factory.hpp:77] Creating layer h_pseudoloss
I0720 14:07:09.982079 11515 net.cpp:91] Creating Layer h_pseudoloss
I0720 14:07:09.982085 11515 net.cpp:425] h_pseudoloss <- h
I0720 14:07:09.982095 11515 net.cpp:399] h_pseudoloss -> h_pseudoloss
I0720 14:07:09.982269 11515 net.cpp:141] Setting up h_pseudoloss
…
