…
Java HotSpot(TM) 64-Bit Server VM warning: You have loaded library /home/peifeng/work/run/storm102/data/workers/012ea4be-596d-4f13-b78f-8fbd3031cd08/tmp/cvld646429608990132139/libopencv_java310.xine1.so which might have disabled stack guard. The VM will try to fix the stack guard now.
It's highly recommended that you fix the library with 'execstack -c <libfile>', or link it with '-z noexecstack'.
WARNING: Logging before InitGoogleLogging() is written to STDERR
I0913 17:52:33.239539 17050 net.cpp:49] Initializing net from parameters: 
name: "GoogleNet"
state {
  phase: TEST
}
layer {
  name: "data"
  type: "Input"
  top: "data"
  input_param {
    shape {
      dim: 10
      dim: 3
      dim: 224
      dim: 224
    }
  }
}
layer {
  name: "conv1/7x7_s2"
  type: "Convolution"
  bottom: "data"
  top: "conv1/7x7_s2"
  param {
    lr_mult: 1
    decay_mult: 1
  }
  param {
    lr_mult: 2
    decay_mult: 0
  }
  convolution_param {
    num_output: 64
    pad: 3
    kernel_size: 7
    stride: 2
    weight_filler {
      type: "xavier"
      std: 0.1
    }
    bias_filler {
      type: "constant"
      value: 0.2
    }
  }
}
layer {
  name: "conv1/relu_7x7"
  type: "ReLU"
  bottom: "conv1/7x7_s2"
  top: "conv1/7x7_s2"
}
layer {
  name: "pool1/3x3_s2"
  type: "Pooling"
  bottom: "conv1/7x7_s2"
  top: "pool1/3x3_s2"
  pooling_param {
    pool: MAX
    kernel_size: 3
    stride: 2
  }
}
layer {
  name: "pool1/norm1"
  type: "LRN"
  bottom: "pool1/3x3_s2"
  top: "pool1/norm1"
  lrn_param {
    local_size: 5
    alpha: 0.0001
    beta: 0.75
  }
}
layer {
  name: "conv2/3x3_reduce"
  type: "Convolution"
  bottom: "pool1/norm1"
  top: "conv2/3x3_reduce"
  param {
    lr_mult: 1
    decay_mult: 1
  }
  param {
    lr_mult: 2
    decay_mult: 0
  }
  convolution_param {
    num_output: 64
    kernel_size: 1
    weight_filler {
      type: "xavier"
      std: 0.1
    }
    bias_filler {
      type: "constant"
      value: 0.2
    }
  }
}
layer {
  name: "conv2/relu_3x3_reduce"
  type: "ReLU"
  bottom: "conv2/3x3_reduce"
  top: "conv2/3x3_reduce"
}
layer {
  name: "conv2/3x3"
  type: "Convolution"
  bottom: "conv2/3x3_reduce"
  top: "conv2/3x3"
  param {
    lr_mult: 1
    decay_mult: 1
  }
  param {
    lr_mult: 2
    decay_mult: 0
  }
  convolution_param {
    num_output: 192
    pad: 1
    kernel_size: 3
    weight_filler {
      type: "xavier"
      std: 0.03
    }
    bias_filler {
      type: "constant"
      value: 0.2
    }
  }
}
layer {
  name: "conv2/relu_3x3"
  type: "ReLU"
  bottom: "conv2/3x3"
  top: "conv2/3x3"
}
layer {
  name: "conv2/norm2"
  type: "LRN"
  bottom: "conv2/3x3"
  top: "conv2/norm2"
  lrn_param {
    local_size: 5
    alpha: 0.0001
    beta: 0.75
  }
}
layer {
  name: "pool2/3x3_s2"
  type: "Pooling"
  bottom: "conv2/norm2"
  top: "pool2/3x3_s2"
  pooling_param {
    pool: MAX
    kernel_size: 3
    stride: 2
  }
}
layer {
  name: "inception_3a/1x1"
  type: "Convolution"
  bottom: "pool2/3x3_s2"
  top: "inception_3a/1x1"
  param {
    lr_mult: 1
    decay_mult: 1
  }
  param {
    lr_mult: 2
    decay_mult: 0
  }
  convolution_param {
    num_output: 64
    kernel_size: 1
    weight_filler {
      type: "xavier"
      std: 0.03
    }
    bias_filler {
      type: "constant"
      value: 0.2
    }
  }
}
layer {
  name: "inception_3a/relu_1x1"
  type: "ReLU"
  bottom: "inception_3a/1x1"
  top: "inception_3a/1x1"
}
layer {
  name: "inception_3a/3x3_reduce"
  type: "Convolution"
  bottom: "pool2/3x3_s2"
  top: "inception_3a/3x3_reduce"
  param {
    lr_mult: 1
    decay_mult: 1
  }
  param {
    lr_mult: 2
    decay_mult: 0
  }
  convolution_param {
    num_output: 96
    kernel_size: 1
    weight_filler {
      type: "xavier"
      std: 0.09
    }
    bias_filler {
      type: "constant"
      value: 0.2
    }
  }
}
layer {
  name: "inception_3a/relu_3x3_reduce"
  type: "ReLU"
  bottom: "inception_3a/3x3_reduce"
  top: "inception_3a/3x3_reduce"
}
layer {
  name: "inception_3a/3x3"
  type: "Convolution"
  bottom: "inception_3a/3x3_reduce"
  top: "inception_3a/3x3"
  param {
    lr_mult: 1
    decay_mult: 1
  }
  param {
    lr_mult: 2
    decay_mult: 0
  }
  convolution_param {
    num_output: 128
    pad: 1
    kernel_size: 3
    weight_filler {
      type: "xavier"
      std: 0.03
    }
    bias_filler {
      type: "constant"
      value: 0.2
    }
  }
}
layer {
  name: "inception_3a/relu_3x3"
  type: "ReLU"
  bottom: "inception_3a/3x3"
  top: "inception_3a/3x3"
}
layer {
  name: "inception_3a/5x5_reduce"
  type: "Convolution"
  bottom: "pool2/3x3_s2"
  top: "inception_3a/5x5_reduce"
  param {
    lr_mult: 1
    decay_mult: 1
  }
  param {
    lr_mult: 2
    decay_mult: 0
  }
  convolution_param {
    num_output: 16
    kernel_size: 1
    weight_filler {
      type: "xavier"
      std: 0.2
    }
    bias_filler {
      type: "constant"
      value: 0.2
    }
  }
}
layer {
  name: "inception_3a/relu_5x5_reduce"
  type: "ReLU"
  bottom: "inception_3a/5x5_reduce"
  top: "inception_3a/5x5_reduce"
}
layer {
  name: "inception_3a/5x5"
  type: "Convolution"
  bottom: "inception_3a/5x5_reduce"
  top: "inception_3a/5x5"
  param {
    lr_mult: 1
    decay_mult: 1
  }
  param {
    lr_mult: 2
    decay_mult: 0
  }
  convolution_param {
    num_output: 32
    pad: 2
    kernel_size: 5
    weight_filler {
      type: "xavier"
      std: 0.03
    }
    bias_filler {
      type: "constant"
      value: 0.2
    }
  }
}
layer {
  name: "inception_3a/relu_5x5"
  type: "ReLU"
  bottom: "inception_3a/5x5"
  top: "inception_3a/5x5"
}
layer {
  name: "inception_3a/pool"
  type: "Pooling"
  bottom: "pool2/3x3_s2"
  top: "inception_3a/pool"
  pooling_param {
    pool: MAX
    kernel_size: 3
    stride: 1
    pad: 1
  }
}
layer {
  name: "inception_3a/pool_proj"
  type: "Convolution"
  bottom: "inception_3a/pool"
  top: "inception_3a/pool_proj"
  param {
    lr_mult: 1
    decay_mult: 1
  }
  param {
    lr_mult: 2
    decay_mult: 0
  }
  convolution_param {
    num_output: 32
    kernel_size: 1
    weight_filler {
      type: "xavier"
      std: 0.1
    }
    bias_filler {
      type: "constant"
      value: 0.2
    }
  }
}
layer {
  name: "inception_3a/relu_pool_proj"
  type: "ReLU"
  bottom: "inception_3a/pool_proj"
  top: "inception_3a/pool_proj"
}
layer {
  name: "inception_3a/output"
  type: "Concat"
  bottom: "inception_3a/1x1"
  bottom: "inception_3a/3x3"
  bottom: "inception_3a/5x5"
  bottom: "inception_3a/pool_proj"
  top: "inception_3a/output"
}
layer {
  name: "inception_3b/1x1"
  type: "Convolution"
  bottom: "inception_3a/output"
  top: "inception_3b/1x1"
  param {
    lr_mult: 1
    decay_mult: 1
  }
  param {
    lr_mult: 2
    decay_mult: 0
  }
  convolution_param {
    num_output: 128
    kernel_size: 1
    weight_filler {
      type: "xavier"
      std: 0.03
    }
    bias_filler {
      type: "constant"
      value: 0.2
    }
  }
}
layer {
  name: "inception_3b/relu_1x1"
  type: "ReLU"
  bottom: "inception_3b/1x1"
  top: "inception_3b/1x1"
}
layer {
  name: "inception_3b/3x3_reduce"
  type: "Convolution"
  bottom: "inception_3a/output"
  top: "inception_3b/3x3_reduce"
  param {
    lr_mult: 1
    decay_mult: 1
  }
  param {
    lr_mult: 2
    decay_mult: 0
  }
  convolution_param {
    num_output: 128
    kernel_size: 1
    weight_filler {
      type: "xavier"
      std: 0.09
    }
    bias_filler {
      type: "constant"
      value: 0.2
    }
  }
}
layer {
  name: "inception_3b/relu_3x3_reduce"
  type: "ReLU"
  bottom: "inception_3b/3x3_reduce"
  top: "inception_3b/3x3_reduce"
}
layer {
  name: "inception_3b/3x3"
  type: "Convolution"
  bottom: "inception_3b/3x3_reduce"
  top: "inception_3b/3x3"
  param {
    lr_mult: 1
    decay_mult: 1
  }
  param {
    lr_mult: 2
    decay_mult: 0
  }
  convolution_param {
    num_output: 192
    pad: 1
    kernel_size: 3
    weight_filler {
      type: "xavier"
      std: 0.03
    }
    bias_filler {
      type: "constant"
      value: 0.2
    }
  }
}
layer {
  name: "inception_3b/relu_3x3"
  type: "ReLU"
  bottom: "inception_3b/3x3"
  top: "inception_3b/3x3"
}
layer {
  name: "inception_3b/5x5_reduce"
  type: "Convolution"
  bottom: "inception_3a/output"
  top: "inception_3b/5x5_reduce"
  param {
    lr_mult: 1
    decay_mult: 1
  }
  param {
    lr_mult: 2
    decay_mult: 0
  }
  convolution_param {
    num_output: 32
    kernel_size: 1
    weight_filler {
      type: "xavier"
      std: 0.2
    }
    bias_filler {
      type: "constant"
      value: 0.2
    }
  }
}
layer {
  name: "inception_3b/relu_5x5_reduce"
  type: "ReLU"
  bottom: "inception_3b/5x5_reduce"
  top: "inception_3b/5x5_reduce"
}
layer {
  name: "inception_3b/5x5"
  type: "Convolution"
  bottom: "inception_3b/5x5_reduce"
  top: "inception_3b/5x5"
  param {
    lr_mult: 1
    decay_mult: 1
  }
  param {
    lr_mult: 2
    decay_mult: 0
  }
  convolution_param {
    num_output: 96
    pad: 2
    kernel_size: 5
    weight_filler {
      type: "xavier"
      std: 0.03
    }
    bias_filler {
      type: "constant"
      value: 0.2
    }
  }
}
layer {
  name: "inception_3b/relu_5x5"
  type: "ReLU"
  bottom: "inception_3b/5x5"
  top: "inception_3b/5x5"
}
layer {
  name: "inception_3b/pool"
  type: "Pooling"
  bottom: "inception_3a/output"
  top: "inception_3b/pool"
  pooling_param {
    pool: MAX
    kernel_size: 3
    stride: 1
    pad: 1
  }
}
layer {
  name: "inception_3b/pool_proj"
  type: "Convolution"
  bottom: "inception_3b/pool"
  top: "inception_3b/pool_proj"
  param {
    lr_mult: 1
    decay_mult: 1
  }
  param {
    lr_mult: 2
    decay_mult: 0
  }
  convolution_param {
    num_output: 64
    kernel_size: 1
    weight_filler {
      type: "xavier"
      std: 0.1
    }
    bias_filler {
      type: "constant"
      value: 0.2
    }
  }
}
layer {
  name: "inception_3b/relu_pool_proj"
  type: "ReLU"
  bottom: "inception_3b/pool_proj"
  top: "inception_3b/pool_proj"
}
layer {
  name: "inception_3b/output"
  type: "Concat"
  bottom: "inception_3b/1x1"
  bottom: "inception_3b/3x3"
  bottom: "inception_3b/5x5"
  bottom: "inception_3b/pool_proj"
  top: "inception_3b/output"
}
layer {
  name: "pool3/3x3_s2"
  type: "Pooling"
  bottom: "inception_3b/output"
  top: "pool3/3x3_s2"
  pooling_param {
    pool: MAX
    kernel_size: 3
    stride: 2
  }
}
layer {
  name: "inception_4a/1x1"
  type: "Convolution"
  bottom: "pool3/3x3_s2"
  top: "inception_4a/1x1"
  param {
    lr_mult: 1
    decay_mult: 1
  }
  param {
    lr_mult: 2
    decay_mult: 0
  }
  convolution_param {
    num_output: 192
    kernel_size: 1
    weight_filler {
      type: "xavier"
      std: 0.03
    }
    bias_filler {
      type: "constant"
      value: 0.2
    }
  }
}
layer {
  name: "inception_4a/relu_1x1"
  type: "ReLU"
  bottom: "inception_4a/1x1"
  top: "inception_4a/1x1"
}
layer {
  name: "inception_4a/3x3_reduce"
  type: "Convolution"
  bottom: "pool3/3x3_s2"
  top: "inception_4a/3x3_reduce"
  param {
    lr_mult: 1
    decay_mult: 1
  }
  param {
    lr_mult: 2
    decay_mult: 0
  }
  convolution_param {
    num_output: 96
    kernel_size: 1
    weight_filler {
      type: "xavier"
      std: 0.09
    }
    bias_filler {
      type: "constant"
      value: 0.2
    }
  }
}
layer {
  name: "inception_4a/relu_3x3_reduce"
  type: "ReLU"
  bottom: "inception_4a/3x3_reduce"
  top: "inception_4a/3x3_reduce"
}
layer {
  name: "inception_4a/3x3"
  type: "Convolution"
  bottom: "inception_4a/3x3_reduce"
  top: "inception_4a/3x3"
  param {
    lr_mult: 1
    decay_mult: 1
  }
  param {
    lr_mult: 2
    decay_mult: 0
  }
  convolution_param {
    num_output: 208
    pad: 1
    kernel_size: 3
    weight_filler {
      type: "xavier"
      std: 0.03
    }
    bias_filler {
      type: "constant"
      value: 0.2
    }
  }
}
layer {
  name: "inception_4a/relu_3x3"
  type: "ReLU"
  bottom: "inception_4a/3x3"
  top: "inception_4a/3x3"
}
layer {
  name: "inception_4a/5x5_reduce"
  type: "Convolution"
  bottom: "pool3/3x3_s2"
  top: "inception_4a/5x5_reduce"
  param {
    lr_mult: 1
    decay_mult: 1
  }
  param {
    lr_mult: 2
    decay_mult: 0
  }
  convolution_param {
    num_output: 16
    kernel_size: 1
    weight_filler {
      type: "xavier"
      std: 0.2
    }
    bias_filler {
      type: "constant"
      value: 0.2
    }
  }
}
layer {
  name: "inception_4a/relu_5x5_reduce"
  type: "ReLU"
  bottom: "inception_4a/5x5_reduce"
  top: "inception_4a/5x5_reduce"
}
layer {
  name: "inception_4a/5x5"
  type: "Convolution"
  bottom: "inception_4a/5x5_reduce"
  top: "inception_4a/5x5"
  param {
    lr_mult: 1
    decay_mult: 1
  }
  param {
    lr_mult: 2
    decay_mult: 0
  }
  convolution_param {
    num_output: 48
    pad: 2
    kernel_size: 5
    weight_filler {
      type: "xavier"
      std: 0.03
    }
    bias_filler {
      type: "constant"
      value: 0.2
    }
  }
}
layer {
  name: "inception_4a/relu_5x5"
  type: "ReLU"
  bottom: "inception_4a/5x5"
  top: "inception_4a/5x5"
}
layer {
  name: "inception_4a/pool"
  type: "Pooling"
  bottom: "pool3/3x3_s2"
  top: "inception_4a/pool"
  pooling_param {
    pool: MAX
    kernel_size: 3
    stride: 1
    pad: 1
  }
}
layer {
  name: "inception_4a/pool_proj"
  type: "Convolution"
  bottom: "inception_4a/pool"
  top: "inception_4a/pool_proj"
  param {
    lr_mult: 1
    decay_mult: 1
  }
  param {
    lr_mult: 2
    decay_mult: 0
  }
  convolution_param {
    num_output: 64
    kernel_size: 1
    weight_filler {
      type: "xavier"
      std: 0.1
    }
    bias_filler {
      type: "constant"
      value: 0.2
    }
  }
}
layer {
  name: "inception_4a/relu_pool_proj"
  type: "ReLU"
  bottom: "inception_4a/pool_proj"
  top: "inception_4a/pool_proj"
}
layer {
  name: "inception_4a/output"
  type: "Concat"
  bottom: "inception_4a/1x1"
  bottom: "inception_4a/3x3"
  bottom: "inception_4a/5x5"
  bottom: "inception_4a/pool_proj"
  top: "inception_4a/output"
}
layer {
  name: "inception_4b/1x1"
  type: "Convolution"
  bottom: "inception_4a/output"
  top: "inception_4b/1x1"
  param {
    lr_mult: 1
    decay_mult: 1
  }
  param {
    lr_mult: 2
    decay_mult: 0
  }
  convolution_param {
    num_output: 160
    kernel_size: 1
    weight_filler {
      type: "xavier"
      std: 0.03
    }
    bias_filler {
      type: "constant"
      value: 0.2
    }
  }
}
layer {
  name: "inception_4b/relu_1x1"
  type: "ReLU"
  bottom: "inception_4b/1x1"
  top: "inception_4b/1x1"
}
layer {
  name: "inception_4b/3x3_reduce"
  type: "Convolution"
  bottom: "inception_4a/output"
  top: "inception_4b/3x3_reduce"
  param {
    lr_mult: 1
    decay_mult: 1
  }
  param {
    lr_mult: 2
    decay_mult: 0
  }
  convolution_param {
    num_output: 112
    kernel_size: 1
    weight_filler {
      type: "xavier"
      std: 0.09
    }
    bias_filler {
      type: "constant"
      value: 0.2
    }
  }
}
layer {
  name: "inception_4b/relu_3x3_reduce"
  type: "ReLU"
  bottom: "inception_4b/3x3_reduce"
  top: "inception_4b/3x3_reduce"
}
layer {
  name: "inception_4b/3x3"
  type: "Convolution"
  bottom: "inception_4b/3x3_reduce"
  top: "inception_4b/3x3"
  param {
    lr_mult: 1
    decay_mult: 1
  }
  param {
    lr_mult: 2
    decay_mult: 0
  }
  convolution_param {
    num_output: 224
    pad: 1
    kernel_size: 3
    weight_filler {
      type: "xavier"
      std: 0.03
    }
    bias_filler {
      type: "constant"
      value: 0.2
    }
  }
}
layer {
  name: "inception_4b/relu_3x3"
  type: "ReLU"
  bottom: "inception_4b/3x3"
  top: "inception_4b/3x3"
}
layer {
  name: "inception_4b/5x5_reduce"
  type: "Convolution"
  bottom: "inception_4a/output"
  top: "inception_4b/5x5_reduce"
  param {
    lr_mult: 1
    decay_mult: 1
  }
  param {
    lr_mult: 2
    decay_mult: 0
  }
  convolution_param {
    num_output: 24
    kernel_size: 1
    weight_filler {
      type: "xavier"
      std: 0.2
    }
    bias_filler {
      type: "constant"
      value: 0.2
    }
  }
}
layer {
  name: "inception_4b/relu_5x5_reduce"
  type: "ReLU"
  bottom: "inception_4b/5x5_reduce"
  top: "inception_4b/5x5_reduce"
}
layer {
  name: "inception_4b/5x5"
  type: "Convolution"
  bottom: "inception_4b/5x5_reduce"
  top: "inception_4b/5x5"
  param {
    lr_mult: 1
    decay_mult: 1
  }
  param {
    lr_mult: 2
    decay_mult: 0
  }
  convolution_param {
    num_output: 64
    pad: 2
    kernel_size: 5
    weight_filler {
      type: "xavier"
      std: 0.03
    }
    bias_filler {
      type: "constant"
      value: 0.2
    }
  }
}
layer {
  name: "inception_4b/relu_5x5"
  type: "ReLU"
  bottom: "inception_4b/5x5"
  top: "inception_4b/5x5"
}
layer {
  name: "inception_4b/pool"
  type: "Pooling"
  bottom: "inception_4a/output"
  top: "inception_4b/pool"
  pooling_param {
    pool: MAX
    kernel_size: 3
    stride: 1
    pad: 1
  }
}
layer {
  name: "inception_4b/pool_proj"
  type: "Convolution"
  bottom: "inception_4b/pool"
  top: "inception_4b/pool_proj"
  param {
    lr_mult: 1
    decay_mult: 1
  }
  param {
    lr_mult: 2
    decay_mult: 0
  }
  convolution_param {
    num_output: 64
    kernel_size: 1
    weight_filler {
      type: "xavier"
      std: 0.1
    }
    bias_filler {
      type: "constant"
      value: 0.2
    }
  }
}
layer {
  name: "inception_4b/relu_pool_proj"
  type: "ReLU"
  bottom: "inception_4b/pool_proj"
  top: "inception_4b/pool_proj"
}
layer {
  name: "inception_4b/output"
  type: "Concat"
  bottom: "inception_4b/1x1"
  bottom: "inception_4b/3x3"
  bottom: "inception_4b/5x5"
  bottom: "inception_4b/pool_proj"
  top: "inception_4b/output"
}
layer {
  name: "inception_4c/1x1"
  type: "Convolution"
  bottom: "inception_4b/output"
  top: "inception_4c/1x1"
  param {
    lr_mult: 1
    decay_mult: 1
  }
  param {
    lr_mult: 2
    decay_mult: 0
  }
  convolution_param {
    num_output: 128
    kernel_size: 1
    weight_filler {
      type: "xavier"
      std: 0.03
    }
    bias_filler {
      type: "constant"
      value: 0.2
    }
  }
}
layer {
  name: "inception_4c/relu_1x1"
  type: "ReLU"
  bottom: "inception_4c/1x1"
  top: "inception_4c/1x1"
}
layer {
  name: "inception_4c/3x3_reduce"
  type: "Convolution"
  bottom: "inception_4b/output"
  top: "inception_4c/3x3_reduce"
  param {
    lr_mult: 1
    decay_mult: 1
  }
  param {
    lr_mult: 2
    decay_mult: 0
  }
  convolution_param {
    num_output: 128
    kernel_size: 1
    weight_filler {
      type: "xavier"
      std: 0.09
    }
    bias_filler {
      type: "constant"
      value: 0.2
    }
  }
}
layer {
  name: "inception_4c/relu_3x3_reduce"
  type: "ReLU"
  bottom: "inception_4c/3x3_reduce"
  top: "inception_4c/3x3_reduce"
}
layer {
  name: "inception_4c/3x3"
  type: "Convolution"
  bottom: "inception_4c/3x3_reduce"
  top: "inception_4c/3x3"
  param {
    lr_mult: 1
    decay_mult: 1
  }
  param {
    lr_mult: 2
    decay_mult: 0
  }
  convolution_param {
    num_output: 256
    pad: 1
    kernel_size: 3
    weight_filler {
      type: "xavier"
      std: 0.03
    }
    bias_filler {
      type: "constant"
      value: 0.2
    }
  }
}
layer {
  name: "inception_4c/relu_3x3"
  type: "ReLU"
  bottom: "inception_4c/3x3"
  top: "inception_4c/3x3"
}
layer {
  name: "inception_4c/5x5_reduce"
  type: "Convolution"
  bottom: "inception_4b/output"
  top: "inception_4c/5x5_reduce"
  param {
    lr_mult: 1
    decay_mult: 1
  }
  param {
    lr_mult: 2
    decay_mult: 0
  }
  convolution_param {
    num_output: 24
    kernel_size: 1
    weight_filler {
      type: "xavier"
      std: 0.2
    }
    bias_filler {
      type: "constant"
      value: 0.2
    }
  }
}
layer {
  name: "inception_4c/relu_5x5_reduce"
  type: "ReLU"
  bottom: "inception_4c/5x5_reduce"
  top: "inception_4c/5x5_reduce"
}
layer {
  name: "inception_4c/5x5"
  type: "Convolution"
  bottom: "inception_4c/5x5_reduce"
  top: "inception_4c/5x5"
  param {
    lr_mult: 1
    decay_mult: 1
  }
  param {
    lr_mult: 2
    decay_mult: 0
  }
  convolution_param {
    num_output: 64
    pad: 2
    kernel_size: 5
    weight_filler {
      type: "xavier"
      std: 0.03
    }
    bias_filler {
      type: "constant"
      value: 0.2
    }
  }
}
layer {
  name: "inception_4c/relu_5x5"
  type: "ReLU"
  bottom: "inception_4c/5x5"
  top: "inception_4c/5x5"
}
layer {
  name: "inception_4c/pool"
  type: "Pooling"
  bottom: "inception_4b/output"
  top: "inception_4c/pool"
  pooling_param {
    pool: MAX
    kernel_size: 3
    stride: 1
    pad: 1
  }
}
layer {
  name: "inception_4c/pool_proj"
  type: "Convolution"
  bottom: "inception_4c/pool"
  top: "inception_4c/pool_proj"
  param {
    lr_mult: 1
    decay_mult: 1
  }
  param {
    lr_mult: 2
    decay_mult: 0
  }
  convolution_param {
    num_output: 64
    kernel_size: 1
    weight_filler {
      type: "xavier"
      std: 0.1
    }
    bias_filler {
      type: "constant"
      value: 0.2
    }
  }
}
layer {
  name: "inception_4c/relu_pool_proj"
  type: "ReLU"
  bottom: "inception_4c/pool_proj"
  top: "inception_4c/pool_proj"
}
layer {
  name: "inception_4c/output"
  type: "Concat"
  bottom: "inception_4c/1x1"
  bottom: "inception_4c/3x3"
  bottom: "inception_4c/5x5"
  bottom: "inception_4c/pool_proj"
  top: "inception_4c/output"
}
layer {
  name: "inception_4d/1x1"
  type: "Convolution"
  bottom: "inception_4c/output"
  top: "inception_4d/1x1"
  param {
    lr_mult: 1
    decay_mult: 1
  }
  param {
    lr_mult: 2
    decay_mult: 0
  }
  convolution_param {
    num_output: 112
    kernel_size: 1
    weight_filler {
      type: "xavier"
      std: 0.03
    }
    bias_filler {
      type: "constant"
      value: 0.2
    }
  }
}
layer {
  name: "inception_4d/relu_1x1"
  type: "ReLU"
  bottom: "inception_4d/1x1"
  top: "inception_4d/1x1"
}
layer {
  name: "inception_4d/3x3_reduce"
  type: "Convolution"
  bottom: "inception_4c/output"
  top: "inception_4d/3x3_reduce"
  param {
    lr_mult: 1
    decay_mult: 1
  }
  param {
    lr_mult: 2
    decay_mult: 0
  }
  convolution_param {
    num_output: 144
    kernel_size: 1
    weight_filler {
      type: "xavier"
      std: 0.09
    }
    bias_filler {
      type: "constant"
      value: 0.2
    }
  }
}
layer {
  name: "inception_4d/relu_3x3_reduce"
  type: "ReLU"
  bottom: "inception_4d/3x3_reduce"
  top: "inception_4d/3x3_reduce"
}
layer {
  name: "inception_4d/3x3"
  type: "Convolution"
  bottom: "inception_4d/3x3_reduce"
  top: "inception_4d/3x3"
  param {
    lr_mult: 1
    decay_mult: 1
  }
  param {
    lr_mult: 2
    decay_mult: 0
  }
  convolution_param {
    num_output: 288
    pad: 1
    kernel_size: 3
    weight_filler {
      type: "xavier"
      std: 0.03
    }
    bias_filler {
      type: "constant"
      value: 0.2
    }
  }
}
layer {
  name: "inception_4d/relu_3x3"
  type: "ReLU"
  bottom: "inception_4d/3x3"
  top: "inception_4d/3x3"
}
layer {
  name: "inception_4d/5x5_reduce"
  type: "Convolution"
  bottom: "inception_4c/output"
  top: "inception_4d/5x5_reduce"
  param {
    lr_mult: 1
    decay_mult: 1
  }
  param {
    lr_mult: 2
    decay_mult: 0
  }
  convolution_param {
    num_output: 32
    kernel_size: 1
    weight_filler {
      type: "xavier"
      std: 0.2
    }
    bias_filler {
      type: "constant"
      value: 0.2
    }
  }
}
layer {
  name: "inception_4d/relu_5x5_reduce"
  type: "ReLU"
  bottom: "inception_4d/5x5_reduce"
  top: "inception_4d/5x5_reduce"
}
layer {
  name: "inception_4d/5x5"
  type: "Convolution"
  bottom: "inception_4d/5x5_reduce"
  top: "inception_4d/5x5"
  param {
    lr_mult: 1
    decay_mult: 1
  }
  param {
    lr_mult: 2
    decay_mult: 0
  }
  convolution_param {
    num_output: 64
    pad: 2
    kernel_size: 5
    weight_filler {
      type: "xavier"
      std: 0.03
    }
    bias_filler {
      type: "constant"
      value: 0.2
    }
  }
}
layer {
  name: "inception_4d/relu_5x5"
  type: "ReLU"
  bottom: "inception_4d/5x5"
  top: "inception_4d/5x5"
}
layer {
  name: "inception_4d/pool"
  type: "Pooling"
  bottom: "inception_4c/output"
  top: "inception_4d/pool"
  pooling_param {
    pool: MAX
    kernel_size: 3
    stride: 1
    pad: 1
  }
}
layer {
  name: "inception_4d/pool_proj"
  type: "Convolution"
  bottom: "inception_4d/pool"
  top: "inception_4d/pool_proj"
  param {
    lr_mult: 1
    decay_mult: 1
  }
  param {
    lr_mult: 2
    decay_mult: 0
  }
  convolution_param {
    num_output: 64
    kernel_size: 1
    weight_filler {
      type: "xavier"
      std: 0.1
    }
    bias_filler {
      type: "constant"
      value: 0.2
    }
  }
}
layer {
  name: "inception_4d/relu_pool_proj"
  type: "ReLU"
  bottom: "inception_4d/pool_proj"
  top: "inception_4d/pool_proj"
}
layer {
  name: "inception_4d/output"
  type: "Concat"
  bottom: "inception_4d/1x1"
  bottom: "inception_4d/3x3"
  bottom: "inception_4d/5x5"
  bottom: "inception_4d/pool_proj"
  top: "inception_4d/output"
}
layer {
  name: "inception_4e/1x1"
  type: "Convolution"
  bottom: "inception_4d/output"
  top: "inception_4e/1x1"
  param {
    lr_mult: 1
    decay_mult: 1
  }
  param {
    lr_mult: 2
    decay_mult: 0
  }
  convolution_param {
    num_output: 256
    kernel_size: 1
    weight_filler {
      type: "xavier"
      std: 0.03
    }
    bias_filler {
      type: "constant"
      value: 0.2
    }
  }
}
layer {
  name: "inception_4e/relu_1x1"
  type: "ReLU"
  bottom: "inception_4e/1x1"
  top: "inception_4e/1x1"
}
layer {
  name: "inception_4e/3x3_reduce"
  type: "Convolution"
  bottom: "inception_4d/output"
  top: "inception_4e/3x3_reduce"
  param {
    lr_mult: 1
    decay_mult: 1
  }
  param {
    lr_mult: 2
    decay_mult: 0
  }
  convolution_param {
    num_output: 160
    kernel_size: 1
    weight_filler {
      type: "xavier"
      std: 0.09
    }
    bias_filler {
      type: "constant"
      value: 0.2
    }
  }
}
layer {
  name: "inception_4e/relu_3x3_reduce"
  type: "ReLU"
  bottom: "inception_4e/3x3_reduce"
  top: "inception_4e/3x3_reduce"
}
layer {
  name: "inception_4e/3x3"
  type: "Convolution"
  bottom: "inception_4e/3x3_reduce"
  top: "inception_4e/3x3"
  param {
    lr_mult: 1
    decay_mult: 1
  }
  param {
    lr_mult: 2
    decay_mult: 0
  }
  convolution_param {
    num_output: 320
    pad: 1
    kernel_size: 3
    weight_filler {
      type: "xavier"
      std: 0.03
    }
    bias_filler {
      type: "constant"
      value: 0.2
    }
  }
}
layer {
  name: "inception_4e/relu_3x3"
  type: "ReLU"
  bottom: "inception_4e/3x3"
  top: "inception_4e/3x3"
}
layer {
  name: "inception_4e/5x5_reduce"
  type: "Convolution"
  bottom: "inception_4d/output"
  top: "inception_4e/5x5_reduce"
  param {
    lr_mult: 1
    decay_mult: 1
  }
  param {
    lr_mult: 2
    decay_mult: 0
  }
  convolution_param {
    num_output: 32
    kernel_size: 1
    weight_filler {
      type: "xavier"
      std: 0.2
    }
    bias_filler {
      type: "constant"
      value: 0.2
    }
  }
}
layer {
  name: "inception_4e/relu_5x5_reduce"
  type: "ReLU"
  bottom: "inception_4e/5x5_reduce"
  top: "inception_4e/5x5_reduce"
}
layer {
  name: "inception_4e/5x5"
  type: "Convolution"
  bottom: "inception_4e/5x5_reduce"
  top: "inception_4e/5x5"
  param {
    lr_mult: 1
    decay_mult: 1
  }
  param {
    lr_mult: 2
    decay_mult: 0
  }
  convolution_param {
    num_output: 128
    pad: 2
    kernel_size: 5
    weight_filler {
      type: "xavier"
      std: 0.03
    }
    bias_filler {
      type: "constant"
      value: 0.2
    }
  }
}
layer {
  name: "inception_4e/relu_5x5"
  type: "ReLU"
  bottom: "inception_4e/5x5"
  top: "inception_4e/5x5"
}
layer {
  name: "inception_4e/pool"
  type: "Pooling"
  bottom: "inception_4d/output"
  top: "inception_4e/pool"
  pooling_param {
    pool: MAX
    kernel_size: 3
    stride: 1
    pad: 1
  }
}
layer {
  name: "inception_4e/pool_proj"
  type: "Convolution"
  bottom: "inception_4e/pool"
  top: "inception_4e/pool_proj"
  param {
    lr_mult: 1
    decay_mult: 1
  }
  param {
    lr_mult: 2
    decay_mult: 0
  }
  convolution_param {
    num_output: 128
    kernel_size: 1
    weight_filler {
      type: "xavier"
      std: 0.1
    }
    bias_filler {
      type: "constant"
      value: 0.2
    }
  }
}
layer {
  name: "inception_4e/relu_pool_proj"
  type: "ReLU"
  bottom: "inception_4e/pool_proj"
  top: "inception_4e/pool_proj"
}
layer {
  name: "inception_4e/output"
  type: "Concat"
  bottom: "inception_4e/1x1"
  bottom: "inception_4e/3x3"
  bottom: "inception_4e/5x5"
  bottom: "inception_4e/pool_proj"
  top: "inception_4e/output"
}
layer {
  name: "pool4/3x3_s2"
  type: "Pooling"
  bottom: "inception_4e/output"
  top: "pool4/3x3_s2"
  pooling_param {
    pool: MAX
    kernel_size: 3
    stride: 2
  }
}
layer {
  name: "inception_5a/1x1"
  type: "Convolution"
  bottom: "pool4/3x3_s2"
  top: "inception_5a/1x1"
  param {
    lr_mult: 1
    decay_mult: 1
  }
  param {
    lr_mult: 2
    decay_mult: 0
  }
  convolution_param {
    num_output: 256
    kernel_size: 1
    weight_filler {
      type: "xavier"
      std: 0.03
    }
    bias_filler {
      type: "constant"
      value: 0.2
    }
  }
}
layer {
  name: "inception_5a/relu_1x1"
  type: "ReLU"
  bottom: "inception_5a/1x1"
  top: "inception_5a/1x1"
}
layer {
  name: "inception_5a/3x3_reduce"
  type: "Convolution"
  bottom: "pool4/3x3_s2"
  top: "inception_5a/3x3_reduce"
  param {
    lr_mult: 1
    decay_mult: 1
  }
  param {
    lr_mult: 2
    decay_mult: 0
  }
  convolution_param {
    num_output: 160
    kernel_size: 1
    weight_filler {
      type: "xavier"
      std: 0.09
    }
    bias_filler {
      type: "constant"
      value: 0.2
    }
  }
}
layer {
  name: "inception_5a/relu_3x3_reduce"
  type: "ReLU"
  bottom: "inception_5a/3x3_reduce"
  top: "inception_5a/3x3_reduce"
}
layer {
  name: "inception_5a/3x3"
  type: "Convolution"
  bottom: "inception_5a/3x3_reduce"
  top: "inception_5a/3x3"
  param {
    lr_mult: 1
    decay_mult: 1
  }
  param {
    lr_mult: 2
    decay_mult: 0
  }
  convolution_param {
    num_output: 320
    pad: 1
    kernel_size: 3
    weight_filler {
      type: "xavier"
      std: 0.03
    }
    bias_filler {
      type: "constant"
      value: 0.2
    }
  }
}
layer {
  name: "inception_5a/relu_3x3"
  type: "ReLU"
  bottom: "inception_5a/3x3"
  top: "inception_5a/3x3"
}
layer {
  name: "inception_5a/5x5_reduce"
  type: "Convolution"
  bottom: "pool4/3x3_s2"
  top: "inception_5a/5x5_reduce"
  param {
    lr_mult: 1
    decay_mult: 1
  }
  param {
    lr_mult: 2
    decay_mult: 0
  }
  convolution_param {
    num_output: 32
    kernel_size: 1
    weight_filler {
      type: "xavier"
      std: 0.2
    }
    bias_filler {
      type: "constant"
      value: 0.2
    }
I0913 17:52:33.240414 17050 layer_factory.hpp:77] Creating layer data
I0913 17:52:33.240443 17050 net.cpp:91] Creating Layer data
I0913 17:52:33.240454 17050 net.cpp:399] data -> data
I0913 17:52:33.759320 17050 net.cpp:141] Setting up data
I0913 17:52:33.759398 17050 net.cpp:148] Top shape: 10 3 224 224 (1505280)
I0913 17:52:33.759405 17050 net.cpp:156] Memory required for data: 6021120
I0913 17:52:33.759428 17050 layer_factory.hpp:77] Creating layer conv1/7x7_s2
I0913 17:52:33.759471 17050 net.cpp:91] Creating Layer conv1/7x7_s2
I0913 17:52:33.759481 17050 net.cpp:425] conv1/7x7_s2 <- data
I0913 17:52:33.759498 17050 net.cpp:399] conv1/7x7_s2 -> conv1/7x7_s2
I0913 17:52:33.933547 17050 net.cpp:141] Setting up conv1/7x7_s2
I0913 17:52:33.933603 17050 net.cpp:148] Top shape: 10 64 112 112 (8028160)
I0913 17:52:33.933609 17050 net.cpp:156] Memory required for data: 38133760
I0913 17:52:33.933641 17050 layer_factory.hpp:77] Creating layer conv1/relu_7x7
I0913 17:52:33.933662 17050 net.cpp:91] Creating Layer conv1/relu_7x7
I0913 17:52:33.933670 17050 net.cpp:425] conv1/relu_7x7 <- conv1/7x7_s2
I0913 17:52:33.933679 17050 net.cpp:386] conv1/relu_7x7 -> conv1/7x7_s2 (in-place)
I0913 17:52:33.934120 17050 net.cpp:141] Setting up conv1/relu_7x7
I0913 17:52:33.934134 17050 net.cpp:148] Top shape: 10 64 112 112 (8028160)
I0913 17:52:33.934139 17050 net.cpp:156] Memory required for data: 70246400
I0913 17:52:33.934144 17050 layer_factory.hpp:77] Creating layer pool1/3x3_s2
I0913 17:52:33.934160 17050 net.cpp:91] Creating Layer pool1/3x3_s2
I0913 17:52:33.934165 17050 net.cpp:425] pool1/3x3_s2 <- conv1/7x7_s2
I0913 17:52:33.934172 17050 net.cpp:399] pool1/3x3_s2 -> pool1/3x3_s2
I0913 17:52:33.934252 17050 net.cpp:141] Setting up pool1/3x3_s2
I0913 17:52:33.934262 17050 net.cpp:148] Top shape: 10 64 56 56 (2007040)
I0913 17:52:33.934267 17050 net.cpp:156] Memory required for data: 78274560
I0913 17:52:33.934272 17050 layer_factory.hpp:77] Creating layer pool1/norm1
I0913 17:52:33.934288 17050 net.cpp:91] Creating Layer pool1/norm1
I0913 17:52:33.934293 17050 net.cpp:425] pool1/norm1 <- pool1/3x3_s2
I0913 17:52:33.934303 17050 net.cpp:399] pool1/norm1 -> pool1/norm1
I0913 17:52:33.934588 17050 net.cpp:141] Setting up pool1/norm1
I0913 17:52:33.934605 17050 net.cpp:148] Top shape: 10 64 56 56 (2007040)
I0913 17:52:33.934610 17050 net.cpp:156] Memory required for data: 86302720
I0913 17:52:33.934615 17050 layer_factory.hpp:77] Creating layer conv2/3x3_reduce
I0913 17:52:33.934636 17050 net.cpp:91] Creating Layer conv2/3x3_reduce
I0913 17:52:33.934641 17050 net.cpp:425] conv2/3x3_reduce <- pool1/norm1
I0913 17:52:33.934649 17050 net.cpp:399] conv2/3x3_reduce -> conv2/3x3_reduce
I0913 17:52:33.936746 17050 net.cpp:141] Setting up conv2/3x3_reduce
I0913 17:52:33.936779 17050 net.cpp:148] Top shape: 10 64 56 56 (2007040)
I0913 17:52:33.936785 17050 net.cpp:156] Memory required for data: 94330880
I0913 17:52:33.936797 17050 layer_factory.hpp:77] Creating layer conv2/relu_3x3_reduce
I0913 17:52:33.936805 17050 net.cpp:91] Creating Layer conv2/relu_3x3_reduce
I0913 17:52:33.936810 17050 net.cpp:425] conv2/relu_3x3_reduce <- conv2/3x3_reduce
I0913 17:52:33.936817 17050 net.cpp:386] conv2/relu_3x3_reduce -> conv2/3x3_reduce (in-place)
I0913 17:52:33.937211 17050 net.cpp:141] Setting up conv2/relu_3x3_reduce
I0913 17:52:33.937224 17050 net.cpp:148] Top shape: 10 64 56 56 (2007040)
I0913 17:52:33.937228 17050 net.cpp:156] Memory required for data: 102359040
I0913 17:52:33.937233 17050 layer_factory.hpp:77] Creating layer conv2/3x3
I0913 17:52:33.937249 17050 net.cpp:91] Creating Layer conv2/3x3
I0913 17:52:33.937255 17050 net.cpp:425] conv2/3x3 <- conv2/3x3_reduce
I0913 17:52:33.937265 17050 net.cpp:399] conv2/3x3 -> conv2/3x3
I0913 17:52:33.940304 17050 net.cpp:141] Setting up conv2/3x3
I0913 17:52:33.940335 17050 net.cpp:148] Top shape: 10 192 56 56 (6021120)
I0913 17:52:33.940341 17050 net.cpp:156] Memory required for data: 126443520
I0913 17:52:33.940353 17050 layer_factory.hpp:77] Creating layer conv2/relu_3x3
I0913 17:52:33.940367 17050 net.cpp:91] Creating Layer conv2/relu_3x3
I0913 17:52:33.940372 17050 net.cpp:425] conv2/relu_3x3 <- conv2/3x3
I0913 17:52:33.940378 17050 net.cpp:386] conv2/relu_3x3 -> conv2/3x3 (in-place)
I0913 17:52:33.940613 17050 net.cpp:141] Setting up conv2/relu_3x3
I0913 17:52:33.940624 17050 net.cpp:148] Top shape: 10 192 56 56 (6021120)
I0913 17:52:33.940629 17050 net.cpp:156] Memory required for data: 150528000
I0913 17:52:33.940634 17050 layer_factory.hpp:77] Creating layer conv2/norm2
I0913 17:52:33.940644 17050 net.cpp:91] Creating Layer conv2/norm2
I0913 17:52:33.940649 17050 net.cpp:425] conv2/norm2 <- conv2/3x3
I0913 17:52:33.940656 17050 net.cpp:399] conv2/norm2 -> conv2/norm2
I0913 17:52:33.941095 17050 net.cpp:141] Setting up conv2/norm2
I0913 17:52:33.941108 17050 net.cpp:148] Top shape: 10 192 56 56 (6021120)
I0913 17:52:33.941112 17050 net.cpp:156] Memory required for data: 174612480
I0913 17:52:33.941118 17050 layer_factory.hpp:77] Creating layer pool2/3x3_s2
I0913 17:52:33.941129 17050 net.cpp:91] Creating Layer pool2/3x3_s2
I0913 17:52:33.941134 17050 net.cpp:425] pool2/3x3_s2 <- conv2/norm2
I0913 17:52:33.941144 17050 net.cpp:399] pool2/3x3_s2 -> pool2/3x3_s2
I0913 17:52:33.941192 17050 net.cpp:141] Setting up pool2/3x3_s2
I0913 17:52:33.941201 17050 net.cpp:148] Top shape: 10 192 28 28 (1505280)
I0913 17:52:33.941205 17050 net.cpp:156] Memory required for data: 180633600
I0913 17:52:33.941210 17050 layer_factory.hpp:77] Creating layer pool2/3x3_s2_pool2/3x3_s2_0_split
I0913 17:52:33.941220 17050 net.cpp:91] Creating Layer pool2/3x3_s2_pool2/3x3_s2_0_split
I0913 17:52:33.941225 17050 net.cpp:425] pool2/3x3_s2_pool2/3x3_s2_0_split <- pool2/3x3_s2
I0913 17:52:33.941231 17050 net.cpp:399] pool2/3x3_s2_pool2/3x3_s2_0_split -> pool2/3x3_s2_pool2/3x3_s2_0_split_0
I0913 17:52:33.941239 17050 net.cpp:399] pool2/3x3_s2_pool2/3x3_s2_0_split -> pool2/3x3_s2_pool2/3x3_s2_0_split_1
I0913 17:52:33.941247 17050 net.cpp:399] pool2/3x3_s2_pool2/3x3_s2_0_split -> pool2/3x3_s2_pool2/3x3_s2_0_split_2
I0913 17:52:33.941254 17050 net.cpp:399] pool2/3x3_s2_pool2/3x3_s2_0_split -> pool2/3x3_s2_pool2/3x3_s2_0_split_3
I0913 17:52:33.941328 17050 net.cpp:141] Setting up pool2/3x3_s2_pool2/3x3_s2_0_split
I0913 17:52:33.941336 17050 net.cpp:148] Top shape: 10 192 28 28 (1505280)
I0913 17:52:33.941342 17050 net.cpp:148] Top shape: 10 192 28 28 (1505280)
I0913 17:52:33.941347 17050 net.cpp:148] Top shape: 10 192 28 28 (1505280)
I0913 17:52:33.941354 17050 net.cpp:148] Top shape: 10 192 28 28 (1505280)
I0913 17:52:33.941356 17050 net.cpp:156] Memory required for data: 204718080
I0913 17:52:33.941361 17050 layer_factory.hpp:77] Creating layer inception_3a/1x1
I0913 17:52:33.941376 17050 net.cpp:91] Creating Layer inception_3a/1x1
I0913 17:52:33.941382 17050 net.cpp:425] inception_3a/1x1 <- pool2/3x3_s2_pool2/3x3_s2_0_split_0
I0913 17:52:33.941407 17050 net.cpp:399] inception_3a/1x1 -> inception_3a/1x1
I0913 17:52:33.943359 17050 net.cpp:141] Setting up inception_3a/1x1
I0913 17:52:33.943389 17050 net.cpp:148] Top shape: 10 64 28 28 (501760)
I0913 17:52:33.943394 17050 net.cpp:156] Memory required for data: 206725120
I0913 17:52:33.943403 17050 layer_factory.hpp:77] Creating layer inception_3a/relu_1x1
I0913 17:52:33.943413 17050 net.cpp:91] Creating Layer inception_3a/relu_1x1
I0913 17:52:33.943418 17050 net.cpp:425] inception_3a/relu_1x1 <- inception_3a/1x1
I0913 17:52:33.943428 17050 net.cpp:386] inception_3a/relu_1x1 -> inception_3a/1x1 (in-place)
I0913 17:52:33.943817 17050 net.cpp:141] Setting up inception_3a/relu_1x1
I0913 17:52:33.943830 17050 net.cpp:148] Top shape: 10 64 28 28 (501760)
I0913 17:52:33.943835 17050 net.cpp:156] Memory required for data: 208732160
I0913 17:52:33.943840 17050 layer_factory.hpp:77] Creating layer inception_3a/3x3_reduce
I0913 17:52:33.943856 17050 net.cpp:91] Creating Layer inception_3a/3x3_reduce
I0913 17:52:33.943861 17050 net.cpp:425] inception_3a/3x3_reduce <- pool2/3x3_s2_pool2/3x3_s2_0_split_1
I0913 17:52:33.943871 17050 net.cpp:399] inception_3a/3x3_reduce -> inception_3a/3x3_reduce
I0913 17:52:33.946339 17050 net.cpp:141] Setting up inception_3a/3x3_reduce
I0913 17:52:33.946358 17050 net.cpp:148] Top shape: 10 96 28 28 (752640)
I0913 17:52:33.946364 17050 net.cpp:156] Memory required for data: 211742720
I0913 17:52:33.946380 17050 layer_factory.hpp:77] Creating layer inception_3a/relu_3x3_reduce
I0913 17:52:33.946389 17050 net.cpp:91] Creating Layer inception_3a/relu_3x3_reduce
I0913 17:52:33.946395 17050 net.cpp:425] inception_3a/relu_3x3_reduce <- inception_3a/3x3_reduce
I0913 17:52:33.946404 17050 net.cpp:386] inception_3a/relu_3x3_reduce -> inception_3a/3x3_reduce (in-place)
I0913 17:52:33.946642 17050 net.cpp:141] Setting up inception_3a/relu_3x3_reduce
I0913 17:52:33.946655 17050 net.cpp:148] Top shape: 10 96 28 28 (752640)
I0913 17:52:33.946658 17050 net.cpp:156] Memory required for data: 214753280
I0913 17:52:33.946663 17050 layer_factory.hpp:77] Creating layer inception_3a/3x3
I0913 17:52:33.946681 17050 net.cpp:91] Creating Layer inception_3a/3x3
I0913 17:52:33.946687 17050 net.cpp:425] inception_3a/3x3 <- inception_3a/3x3_reduce
I0913 17:52:33.946696 17050 net.cpp:399] inception_3a/3x3 -> inception_3a/3x3
I0913 17:52:33.948863 17050 net.cpp:141] Setting up inception_3a/3x3
I0913 17:52:33.948880 17050 net.cpp:148] Top shape: 10 128 28 28 (1003520)
I0913 17:52:33.948886 17050 net.cpp:156] Memory required for data: 218767360
I0913 17:52:33.948894 17050 layer_factory.hpp:77] Creating layer inception_3a/relu_3x3
I0913 17:52:33.948905 17050 net.cpp:91] Creating Layer inception_3a/relu_3x3
I0913 17:52:33.948910 17050 net.cpp:425] inception_3a/relu_3x3 <- inception_3a/3x3
I0913 17:52:33.948917 17050 net.cpp:386] inception_3a/relu_3x3 -> inception_3a/3x3 (in-place)
I0913 17:52:33.949307 17050 net.cpp:141] Setting up inception_3a/relu_3x3
I0913 17:52:33.949321 17050 net.cpp:148] Top shape: 10 128 28 28 (1003520)
I0913 17:52:33.949324 17050 net.cpp:156] Memory required for data: 222781440
I0913 17:52:33.949329 17050 layer_factory.hpp:77] Creating layer inception_3a/5x5_reduce
I0913 17:52:33.949343 17050 net.cpp:91] Creating Layer inception_3a/5x5_reduce
I0913 17:52:33.949349 17050 net.cpp:425] inception_3a/5x5_reduce <- pool2/3x3_s2_pool2/3x3_s2_0_split_2
I0913 17:52:33.949362 17050 net.cpp:399] inception_3a/5x5_reduce -> inception_3a/5x5_reduce
I0913 17:52:33.950585 17050 net.cpp:141] Setting up inception_3a/5x5_reduce
I0913 17:52:33.950605 17050 net.cpp:148] Top shape: 10 16 28 28 (125440)
I0913 17:52:33.950610 17050 net.cpp:156] Memory required for data: 223283200
I0913 17:52:33.950619 17050 layer_factory.hpp:77] Creating layer inception_3a/relu_5x5_reduce
I0913 17:52:33.950628 17050 net.cpp:91] Creating Layer inception_3a/relu_5x5_reduce
I0913 17:52:33.950633 17050 net.cpp:425] inception_3a/relu_5x5_reduce <- inception_3a/5x5_reduce
I0913 17:52:33.950640 17050 net.cpp:386] inception_3a/relu_5x5_reduce -> inception_3a/5x5_reduce (in-place)
I0913 17:52:33.951030 17050 net.cpp:141] Setting up inception_3a/relu_5x5_reduce
I0913 17:52:33.951045 17050 net.cpp:148] Top shape: 10 16 28 28 (125440)
I0913 17:52:33.951048 17050 net.cpp:156] Memory required for data: 223784960
I0913 17:52:33.951053 17050 layer_factory.hpp:77] Creating layer inception_3a/5x5
I0913 17:52:33.951069 17050 net.cpp:91] Creating Layer inception_3a/5x5
I0913 17:52:33.951076 17050 net.cpp:425] inception_3a/5x5 <- inception_3a/5x5_reduce
I0913 17:52:33.951083 17050 net.cpp:399] inception_3a/5x5 -> inception_3a/5x5
I0913 17:52:33.953037 17050 net.cpp:141] Setting up inception_3a/5x5
I0913 17:52:33.953055 17050 net.cpp:148] Top shape: 10 32 28 28 (250880)
I0913 17:52:33.953060 17050 net.cpp:156] Memory required for data: 224788480
I0913 17:52:33.953069 17050 layer_factory.hpp:77] Creating layer inception_3a/relu_5x5
I0913 17:52:33.953078 17050 net.cpp:91] Creating Layer inception_3a/relu_5x5
I0913 17:52:33.953083 17050 net.cpp:425] inception_3a/relu_5x5 <- inception_3a/5x5
I0913 17:52:33.953094 17050 net.cpp:386] inception_3a/relu_5x5 -> inception_3a/5x5 (in-place)
I0913 17:52:33.953328 17050 net.cpp:141] Setting up inception_3a/relu_5x5
I0913 17:52:33.953341 17050 net.cpp:148] Top shape: 10 32 28 28 (250880)
I0913 17:52:33.953346 17050 net.cpp:156] Memory required for data: 225792000
I0913 17:52:33.953351 17050 layer_factory.hpp:77] Creating layer inception_3a/pool
I0913 17:52:33.953361 17050 net.cpp:91] Creating Layer inception_3a/pool
I0913 17:52:33.953366 17050 net.cpp:425] inception_3a/pool <- pool2/3x3_s2_pool2/3x3_s2_0_split_3
I0913 17:52:33.953373 17050 net.cpp:399] inception_3a/pool -> inception_3a/pool
I0913 17:52:33.953436 17050 net.cpp:141] Setting up inception_3a/pool
I0913 17:52:33.953445 17050 net.cpp:148] Top shape: 10 192 28 28 (1505280)
I0913 17:52:33.953449 17050 net.cpp:156] Memory required for data: 231813120
I0913 17:52:33.953454 17050 layer_factory.hpp:77] Creating layer inception_3a/pool_proj
I0913 17:52:33.953469 17050 net.cpp:91] Creating Layer inception_3a/pool_proj
I0913 17:52:33.953474 17050 net.cpp:425] inception_3a/pool_proj <- inception_3a/pool
I0913 17:52:33.953485 17050 net.cpp:399] inception_3a/pool_proj -> inception_3a/pool_proj
I0913 17:52:33.954872 17050 net.cpp:141] Setting up inception_3a/pool_proj
I0913 17:52:33.954888 17050 net.cpp:148] Top shape: 10 32 28 28 (250880)
I0913 17:52:33.954895 17050 net.cpp:156] Memory required for data: 232816640
I0913 17:52:33.954910 17050 layer_factory.hpp:77] Creating layer inception_3a/relu_pool_proj
I0913 17:52:33.954921 17050 net.cpp:91] Creating Layer inception_3a/relu_pool_proj
I0913 17:52:33.954926 17050 net.cpp:425] inception_3a/relu_pool_proj <- inception_3a/pool_proj
I0913 17:52:33.954933 17050 net.cpp:386] inception_3a/relu_pool_proj -> inception_3a/pool_proj (in-place)
I0913 17:52:33.955325 17050 net.cpp:141] Setting up inception_3a/relu_pool_proj
I0913 17:52:33.955338 17050 net.cpp:148] Top shape: 10 32 28 28 (250880)
I0913 17:52:33.955343 17050 net.cpp:156] Memory required for data: 233820160
I0913 17:52:33.955348 17050 layer_factory.hpp:77] Creating layer inception_3a/output
I0913 17:52:33.955368 17050 net.cpp:91] Creating Layer inception_3a/output
I0913 17:52:33.955374 17050 net.cpp:425] inception_3a/output <- inception_3a/1x1
I0913 17:52:33.955379 17050 net.cpp:425] inception_3a/output <- inception_3a/3x3
I0913 17:52:33.955385 17050 net.cpp:425] inception_3a/output <- inception_3a/5x5
I0913 17:52:33.955390 17050 net.cpp:425] inception_3a/output <- inception_3a/pool_proj
I0913 17:52:33.955396 17050 net.cpp:399] inception_3a/output -> inception_3a/output
I0913 17:52:33.955438 17050 net.cpp:141] Setting up inception_3a/output
I0913 17:52:33.955447 17050 net.cpp:148] Top shape: 10 256 28 28 (2007040)
I0913 17:52:33.955452 17050 net.cpp:156] Memory required for data: 241848320
I0913 17:52:33.955456 17050 layer_factory.hpp:77] Creating layer inception_3a/output_inception_3a/output_0_split
I0913 17:52:33.955464 17050 net.cpp:91] Creating Layer inception_3a/output_inception_3a/output_0_split
I0913 17:52:33.955468 17050 net.cpp:425] inception_3a/output_inception_3a/output_0_split <- inception_3a/output
I0913 17:52:33.955477 17050 net.cpp:399] inception_3a/output_inception_3a/output_0_split -> inception_3a/output_inception_3a/output_0_split_0
I0913 17:52:33.955485 17050 net.cpp:399] inception_3a/output_inception_3a/output_0_split -> inception_3a/output_inception_3a/output_0_split_1
I0913 17:52:33.955493 17050 net.cpp:399] inception_3a/output_inception_3a/output_0_split -> inception_3a/output_inception_3a/output_0_split_2
I0913 17:52:33.955500 17050 net.cpp:399] inception_3a/output_inception_3a/output_0_split -> inception_3a/output_inception_3a/output_0_split_3
I0913 17:52:33.955576 17050 net.cpp:141] Setting up inception_3a/output_inception_3a/output_0_split
I0913 17:52:33.955587 17050 net.cpp:148] Top shape: 10 256 28 28 (2007040)
I0913 17:52:33.955592 17050 net.cpp:148] Top shape: 10 256 28 28 (2007040)
I0913 17:52:33.955598 17050 net.cpp:148] Top shape: 10 256 28 28 (2007040)
I0913 17:52:33.955603 17050 net.cpp:148] Top shape: 10 256 28 28 (2007040)
I0913 17:52:33.955607 17050 net.cpp:156] Memory required for data: 273960960
I0913 17:52:33.955611 17050 layer_factory.hpp:77] Creating layer inception_3b/1x1
I0913 17:52:33.955626 17050 net.cpp:91] Creating Layer inception_3b/1x1
I0913 17:52:33.955631 17050 net.cpp:425] inception_3b/1x1 <- inception_3a/output_inception_3a/output_0_split_0
I0913 17:52:33.955641 17050 net.cpp:399] inception_3b/1x1 -> inception_3b/1x1
I0913 17:52:33.957061 17050 net.cpp:141] Setting up inception_3b/1x1
I0913 17:52:33.957077 17050 net.cpp:148] Top shape: 10 128 28 28 (1003520)
I0913 17:52:33.957082 17050 net.cpp:156] Memory required for data: 277975040
I0913 17:52:33.957089 17050 layer_factory.hpp:77] Creating layer inception_3b/relu_1x1
I0913 17:52:33.957098 17050 net.cpp:91] Creating Layer inception_3b/relu_1x1
I0913 17:52:33.957103 17050 net.cpp:425] inception_3b/relu_1x1 <- inception_3b/1x1
I0913 17:52:33.957109 17050 net.cpp:386] inception_3b/relu_1x1 -> inception_3b/1x1 (in-place)
I0913 17:52:33.957509 17050 net.cpp:141] Setting up inception_3b/relu_1x1
I0913 17:52:33.957521 17050 net.cpp:148] Top shape: 10 128 28 28 (1003520)
I0913 17:52:33.957525 17050 net.cpp:156] Memory required for data: 281989120
I0913 17:52:33.957530 17050 layer_factory.hpp:77] Creating layer inception_3b/3x3_reduce
I0913 17:52:33.957546 17050 net.cpp:91] Creating Layer inception_3b/3x3_reduce
I0913 17:52:33.957552 17050 net.cpp:425] inception_3b/3x3_reduce <- inception_3a/output_inception_3a/output_0_split_1
I0913 17:52:33.957561 17050 net.cpp:399] inception_3b/3x3_reduce -> inception_3b/3x3_reduce
I0913 17:52:33.959190 17050 net.cpp:141] Setting up inception_3b/3x3_reduce
I0913 17:52:33.959208 17050 net.cpp:148] Top shape: 10 128 28 28 (1003520)
I0913 17:52:33.959213 17050 net.cpp:156] Memory required for data: 286003200
I0913 17:52:33.959221 17050 layer_factory.hpp:77] Creating layer inception_3b/relu_3x3_reduce
I0913 17:52:33.959229 17050 net.cpp:91] Creating Layer inception_3b/relu_3x3_reduce
I0913 17:52:33.959235 17050 net.cpp:425] inception_3b/relu_3x3_reduce <- inception_3b/3x3_reduce
I0913 17:52:33.959246 17050 net.cpp:386] inception_3b/relu_3x3_reduce -> inception_3b/3x3_reduce (in-place)
I0913 17:52:33.959470 17050 net.cpp:141] Setting up inception_3b/relu_3x3_reduce
I0913 17:52:33.959483 17050 net.cpp:148] Top shape: 10 128 28 28 (1003520)
I0913 17:52:33.959487 17050 net.cpp:156] Memory required for data: 290017280
I0913 17:52:33.959492 17050 layer_factory.hpp:77] Creating layer inception_3b/3x3
I0913 17:52:33.959507 17050 net.cpp:91] Creating Layer inception_3b/3x3
I0913 17:52:33.959513 17050 net.cpp:425] inception_3b/3x3 <- inception_3b/3x3_reduce
I0913 17:52:33.959522 17050 net.cpp:399] inception_3b/3x3 -> inception_3b/3x3
I0913 17:52:33.963202 17050 net.cpp:141] Setting up inception_3b/3x3
I0913 17:52:33.963220 17050 net.cpp:148] Top shape: 10 192 28 28 (1505280)
I0913 17:52:33.963225 17050 net.cpp:156] Memory required for data: 296038400
I0913 17:52:33.963234 17050 layer_factory.hpp:77] Creating layer inception_3b/relu_3x3
I0913 17:52:33.963251 17050 net.cpp:91] Creating Layer inception_3b/relu_3x3
I0913 17:52:33.963258 17050 net.cpp:425] inception_3b/relu_3x3 <- inception_3b/3x3
I0913 17:52:33.963264 17050 net.cpp:386] inception_3b/relu_3x3 -> inception_3b/3x3 (in-place)
I0913 17:52:33.963663 17050 net.cpp:141] Setting up inception_3b/relu_3x3
I0913 17:52:33.963678 17050 net.cpp:148] Top shape: 10 192 28 28 (1505280)
I0913 17:52:33.963683 17050 net.cpp:156] Memory required for data: 302059520
I0913 17:52:33.963688 17050 layer_factory.hpp:77] Creating layer inception_3b/5x5_reduce
I0913 17:52:33.963703 17050 net.cpp:91] Creating Layer inception_3b/5x5_reduce
I0913 17:52:33.963709 17050 net.cpp:425] inception_3b/5x5_reduce <- inception_3a/output_inception_3a/output_0_split_2
I0913 17:52:33.963718 17050 net.cpp:399] inception_3b/5x5_reduce -> inception_3b/5x5_reduce
I0913 17:52:33.964979 17050 net.cpp:141] Setting up inception_3b/5x5_reduce
I0913 17:52:33.964996 17050 net.cpp:148] Top shape: 10 32 28 28 (250880)
I0913 17:52:33.965001 17050 net.cpp:156] Memory required for data: 303063040
I0913 17:52:33.965009 17050 layer_factory.hpp:77] Creating layer inception_3b/relu_5x5_reduce
I0913 17:52:33.965018 17050 net.cpp:91] Creating Layer inception_3b/relu_5x5_reduce
I0913 17:52:33.965023 17050 net.cpp:425] inception_3b/relu_5x5_reduce <- inception_3b/5x5_reduce
I0913 17:52:33.965030 17050 net.cpp:386] inception_3b/relu_5x5_reduce -> inception_3b/5x5_reduce (in-place)
I0913 17:52:33.965422 17050 net.cpp:141] Setting up inception_3b/relu_5x5_reduce
I0913 17:52:33.965435 17050 net.cpp:148] Top shape: 10 32 28 28 (250880)
I0913 17:52:33.965440 17050 net.cpp:156] Memory required for data: 304066560
I0913 17:52:33.965445 17050 layer_factory.hpp:77] Creating layer inception_3b/5x5
I0913 17:52:33.965461 17050 net.cpp:91] Creating Layer inception_3b/5x5
I0913 17:52:33.965466 17050 net.cpp:425] inception_3b/5x5 <- inception_3b/5x5_reduce
I0913 17:52:33.965477 17050 net.cpp:399] inception_3b/5x5 -> inception_3b/5x5
I0913 17:52:33.968103 17050 net.cpp:141] Setting up inception_3b/5x5
I0913 17:52:33.968124 17050 net.cpp:148] Top shape: 10 96 28 28 (752640)
I0913 17:52:33.968129 17050 net.cpp:156] Memory required for data: 307077120
I0913 17:52:33.968138 17050 layer_factory.hpp:77] Creating layer inception_3b/relu_5x5
I0913 17:52:33.968147 17050 net.cpp:91] Creating Layer inception_3b/relu_5x5
I0913 17:52:33.968152 17050 net.cpp:425] inception_3b/relu_5x5 <- inception_3b/5x5
I0913 17:52:33.968159 17050 net.cpp:386] inception_3b/relu_5x5 -> inception_3b/5x5 (in-place)
I0913 17:52:33.968387 17050 net.cpp:141] Setting up inception_3b/relu_5x5
I0913 17:52:33.968399 17050 net.cpp:148] Top shape: 10 96 28 28 (752640)
I0913 17:52:33.968403 17050 net.cpp:156] Memory required for data: 310087680
I0913 17:52:33.968407 17050 layer_factory.hpp:77] Creating layer inception_3b/pool
I0913 17:52:33.968416 17050 net.cpp:91] Creating Layer inception_3b/pool
I0913 17:52:33.968423 17050 net.cpp:425] inception_3b/pool <- inception_3a/output_inception_3a/output_0_split_3
I0913 17:52:33.968431 17050 net.cpp:399] inception_3b/pool -> inception_3b/pool
I0913 17:52:33.968490 17050 net.cpp:141] Setting up inception_3b/pool
I0913 17:52:33.968500 17050 net.cpp:148] Top shape: 10 256 28 28 (2007040)
I0913 17:52:33.968504 17050 net.cpp:156] Memory required for data: 318115840
I0913 17:52:33.968508 17050 layer_factory.hpp:77] Creating layer inception_3b/pool_proj
I0913 17:52:33.968523 17050 net.cpp:91] Creating Layer inception_3b/pool_proj
I0913 17:52:33.968529 17050 net.cpp:425] inception_3b/pool_proj <- inception_3b/pool
I0913 17:52:33.968538 17050 net.cpp:399] inception_3b/pool_proj -> inception_3b/pool_proj
I0913 17:52:33.970038 17050 net.cpp:141] Setting up inception_3b/pool_proj
I0913 17:52:33.970055 17050 net.cpp:148] Top shape: 10 64 28 28 (501760)
I0913 17:52:33.970060 17050 net.cpp:156] Memory required for data: 320122880
I0913 17:52:33.970069 17050 layer_factory.hpp:77] Creating layer inception_3b/relu_pool_proj
I0913 17:52:33.970077 17050 net.cpp:91] Creating Layer inception_3b/relu_pool_proj
I0913 17:52:33.970083 17050 net.cpp:425] inception_3b/relu_pool_proj <- inception_3b/pool_proj
I0913 17:52:33.970093 17050 net.cpp:386] inception_3b/relu_pool_proj -> inception_3b/pool_proj (in-place)
I0913 17:52:33.970491 17050 net.cpp:141] Setting up inception_3b/relu_pool_proj
I0913 17:52:33.970504 17050 net.cpp:148] Top shape: 10 64 28 28 (501760)
I0913 17:52:33.970509 17050 net.cpp:156] Memory required for data: 322129920
I0913 17:52:33.970513 17050 layer_factory.hpp:77] Creating layer inception_3b/output
I0913 17:52:33.970521 17050 net.cpp:91] Creating Layer inception_3b/output
I0913 17:52:33.970526 17050 net.cpp:425] inception_3b/output <- inception_3b/1x1
I0913 17:52:33.970532 17050 net.cpp:425] inception_3b/output <- inception_3b/3x3
I0913 17:52:33.970537 17050 net.cpp:425] inception_3b/output <- inception_3b/5x5
I0913 17:52:33.970543 17050 net.cpp:425] inception_3b/output <- inception_3b/pool_proj
I0913 17:52:33.970552 17050 net.cpp:399] inception_3b/output -> inception_3b/output
I0913 17:52:33.970592 17050 net.cpp:141] Setting up inception_3b/output
I0913 17:52:33.970602 17050 net.cpp:148] Top shape: 10 480 28 28 (3763200)
I0913 17:52:33.970605 17050 net.cpp:156] Memory required for data: 337182720
I0913 17:52:33.970612 17050 layer_factory.hpp:77] Creating layer pool3/3x3_s2
I0913 17:52:33.970618 17050 net.cpp:91] Creating Layer pool3/3x3_s2
I0913 17:52:33.970623 17050 net.cpp:425] pool3/3x3_s2 <- inception_3b/output
I0913 17:52:33.970629 17050 net.cpp:399] pool3/3x3_s2 -> pool3/3x3_s2
I0913 17:52:33.970688 17050 net.cpp:141] Setting up pool3/3x3_s2
I0913 17:52:33.970700 17050 net.cpp:148] Top shape: 10 480 14 14 (940800)
I0913 17:52:33.970705 17050 net.cpp:156] Memory required for data: 340945920
I0913 17:52:33.970710 17050 layer_factory.hpp:77] Creating layer pool3/3x3_s2_pool3/3x3_s2_0_split
I0913 17:52:33.970717 17050 net.cpp:91] Creating Layer pool3/3x3_s2_pool3/3x3_s2_0_split
I0913 17:52:33.970722 17050 net.cpp:425] pool3/3x3_s2_pool3/3x3_s2_0_split <- pool3/3x3_s2
I0913 17:52:33.970731 17050 net.cpp:399] pool3/3x3_s2_pool3/3x3_s2_0_split -> pool3/3x3_s2_pool3/3x3_s2_0_split_0
I0913 17:52:33.970738 17050 net.cpp:399] pool3/3x3_s2_pool3/3x3_s2_0_split -> pool3/3x3_s2_pool3/3x3_s2_0_split_1
I0913 17:52:33.970746 17050 net.cpp:399] pool3/3x3_s2_pool3/3x3_s2_0_split -> pool3/3x3_s2_pool3/3x3_s2_0_split_2
I0913 17:52:33.970753 17050 net.cpp:399] pool3/3x3_s2_pool3/3x3_s2_0_split -> pool3/3x3_s2_pool3/3x3_s2_0_split_3
I0913 17:52:33.970829 17050 net.cpp:141] Setting up pool3/3x3_s2_pool3/3x3_s2_0_split
I0913 17:52:33.970840 17050 net.cpp:148] Top shape: 10 480 14 14 (940800)
I0913 17:52:33.970845 17050 net.cpp:148] Top shape: 10 480 14 14 (940800)
I0913 17:52:33.970850 17050 net.cpp:148] Top shape: 10 480 14 14 (940800)
I0913 17:52:33.970856 17050 net.cpp:148] Top shape: 10 480 14 14 (940800)
I0913 17:52:33.970860 17050 net.cpp:156] Memory required for data: 355998720
I0913 17:52:33.970865 17050 layer_factory.hpp:77] Creating layer inception_4a/1x1
I0913 17:52:33.970875 17050 net.cpp:91] Creating Layer inception_4a/1x1
I0913 17:52:33.970880 17050 net.cpp:425] inception_4a/1x1 <- pool3/3x3_s2_pool3/3x3_s2_0_split_0
I0913 17:52:33.970892 17050 net.cpp:399] inception_4a/1x1 -> inception_4a/1x1
I0913 17:52:33.973032 17050 net.cpp:141] Setting up inception_4a/1x1
I0913 17:52:33.973049 17050 net.cpp:148] Top shape: 10 192 14 14 (376320)
I0913 17:52:33.973054 17050 net.cpp:156] Memory required for data: 357504000
I0913 17:52:33.973062 17050 layer_factory.hpp:77] Creating layer inception_4a/relu_1x1
I0913 17:52:33.973074 17050 net.cpp:91] Creating Layer inception_4a/relu_1x1
I0913 17:52:33.973080 17050 net.cpp:425] inception_4a/relu_1x1 <- inception_4a/1x1
I0913 17:52:33.973088 17050 net.cpp:386] inception_4a/relu_1x1 -> inception_4a/1x1 (in-place)
I0913 17:52:33.973485 17050 net.cpp:141] Setting up inception_4a/relu_1x1
I0913 17:52:33.973497 17050 net.cpp:148] Top shape: 10 192 14 14 (376320)
I0913 17:52:33.973502 17050 net.cpp:156] Memory required for data: 359009280
I0913 17:52:33.973507 17050 layer_factory.hpp:77] Creating layer inception_4a/3x3_reduce
I0913 17:52:33.973525 17050 net.cpp:91] Creating Layer inception_4a/3x3_reduce
I0913 17:52:33.973531 17050 net.cpp:425] inception_4a/3x3_reduce <- pool3/3x3_s2_pool3/3x3_s2_0_split_1
I0913 17:52:33.973539 17050 net.cpp:399] inception_4a/3x3_reduce -> inception_4a/3x3_reduce
I0913 17:52:33.976102 17050 net.cpp:141] Setting up inception_4a/3x3_reduce
I0913 17:52:33.976157 17050 net.cpp:148] Top shape: 10 96 14 14 (188160)
I0913 17:52:33.976166 17050 net.cpp:156] Memory required for data: 359761920
I0913 17:52:33.976209 17050 layer_factory.hpp:77] Creating layer inception_4a/relu_3x3_reduce
I0913 17:52:33.976233 17050 net.cpp:91] Creating Layer inception_4a/relu_3x3_reduce
I0913 17:52:33.976244 17050 net.cpp:425] inception_4a/relu_3x3_reduce <- inception_4a/3x3_reduce
I0913 17:52:33.976263 17050 net.cpp:386] inception_4a/relu_3x3_reduce -> inception_4a/3x3_reduce (in-place)
I0913 17:52:33.976580 17050 net.cpp:141] Setting up inception_4a/relu_3x3_reduce
I0913 17:52:33.976595 17050 net.cpp:148] Top shape: 10 96 14 14 (188160)
I0913 17:52:33.976603 17050 net.cpp:156] Memory required for data: 360514560
I0913 17:52:33.976609 17050 layer_factory.hpp:77] Creating layer inception_4a/3x3
I0913 17:52:33.976634 17050 net.cpp:91] Creating Layer inception_4a/3x3
I0913 17:52:33.976642 17050 net.cpp:425] inception_4a/3x3 <- inception_4a/3x3_reduce
I0913 17:52:33.976660 17050 net.cpp:399] inception_4a/3x3 -> inception_4a/3x3
I0913 17:52:33.980262 17050 net.cpp:141] Setting up inception_4a/3x3
I0913 17:52:33.980293 17050 net.cpp:148] Top shape: 10 208 14 14 (407680)
I0913 17:52:33.980298 17050 net.cpp:156] Memory required for data: 362145280
I0913 17:52:33.980306 17050 layer_factory.hpp:77] Creating layer inception_4a/relu_3x3
I0913 17:52:33.980317 17050 net.cpp:91] Creating Layer inception_4a/relu_3x3
I0913 17:52:33.980324 17050 net.cpp:425] inception_4a/relu_3x3 <- inception_4a/3x3
I0913 17:52:33.980330 17050 net.cpp:386] inception_4a/relu_3x3 -> inception_4a/3x3 (in-place)
I0913 17:52:33.980733 17050 net.cpp:141] Setting up inception_4a/relu_3x3
I0913 17:52:33.980746 17050 net.cpp:148] Top shape: 10 208 14 14 (407680)
I0913 17:52:33.980756 17050 net.cpp:156] Memory required for data: 363776000
I0913 17:52:33.980762 17050 layer_factory.hpp:77] Creating layer inception_4a/5x5_reduce
I0913 17:52:33.980773 17050 net.cpp:91] Creating Layer inception_4a/5x5_reduce
I0913 17:52:33.980779 17050 net.cpp:425] inception_4a/5x5_reduce <- pool3/3x3_s2_pool3/3x3_s2_0_split_2
I0913 17:52:33.980792 17050 net.cpp:399] inception_4a/5x5_reduce -> inception_4a/5x5_reduce
I0913 17:52:33.982069 17050 net.cpp:141] Setting up inception_4a/5x5_reduce
I0913 17:52:33.982097 17050 net.cpp:148] Top shape: 10 16 14 14 (31360)
I0913 17:52:33.982103 17050 net.cpp:156] Memory required for data: 363901440
I0913 17:52:33.982111 17050 layer_factory.hpp:77] Creating layer inception_4a/relu_5x5_reduce
I0913 17:52:33.982120 17050 net.cpp:91] Creating Layer inception_4a/relu_5x5_reduce
I0913 17:52:33.982126 17050 net.cpp:425] inception_4a/relu_5x5_reduce <- inception_4a/5x5_reduce
I0913 17:52:33.982132 17050 net.cpp:386] inception_4a/relu_5x5_reduce -> inception_4a/5x5_reduce (in-place)
I0913 17:52:33.982533 17050 net.cpp:141] Setting up inception_4a/relu_5x5_reduce
I0913 17:52:33.982545 17050 net.cpp:148] Top shape: 10 16 14 14 (31360)
I0913 17:52:33.982550 17050 net.cpp:156] Memory required for data: 364026880
I0913 17:52:33.982555 17050 layer_factory.hpp:77] Creating layer inception_4a/5x5
I0913 17:52:33.982570 17050 net.cpp:91] Creating Layer inception_4a/5x5
I0913 17:52:33.982578 17050 net.cpp:425] inception_4a/5x5 <- inception_4a/5x5_reduce
I0913 17:52:33.982587 17050 net.cpp:399] inception_4a/5x5 -> inception_4a/5x5
I0913 17:52:33.984138 17050 net.cpp:141] Setting up inception_4a/5x5
I0913 17:52:33.984167 17050 net.cpp:148] Top shape: 10 48 14 14 (94080)
I0913 17:52:33.984174 17050 net.cpp:156] Memory required for data: 364403200
I0913 17:52:33.984181 17050 layer_factory.hpp:77] Creating layer inception_4a/relu_5x5
I0913 17:52:33.984190 17050 net.cpp:91] Creating Layer inception_4a/relu_5x5
I0913 17:52:33.984195 17050 net.cpp:425] inception_4a/relu_5x5 <- inception_4a/5x5
I0913 17:52:33.984202 17050 net.cpp:386] inception_4a/relu_5x5 -> inception_4a/5x5 (in-place)
I0913 17:52:33.984433 17050 net.cpp:141] Setting up inception_4a/relu_5x5
I0913 17:52:33.984444 17050 net.cpp:148] Top shape: 10 48 14 14 (94080)
I0913 17:52:33.984449 17050 net.cpp:156] Memory required for data: 364779520
I0913 17:52:33.984454 17050 layer_factory.hpp:77] Creating layer inception_4a/pool
I0913 17:52:33.984467 17050 net.cpp:91] Creating Layer inception_4a/pool
I0913 17:52:33.984472 17050 net.cpp:425] inception_4a/pool <- pool3/3x3_s2_pool3/3x3_s2_0_split_3
I0913 17:52:33.984479 17050 net.cpp:399] inception_4a/pool -> inception_4a/pool
I0913 17:52:33.984547 17050 net.cpp:141] Setting up inception_4a/pool
I0913 17:52:33.984556 17050 net.cpp:148] Top shape: 10 480 14 14 (940800)
I0913 17:52:33.984560 17050 net.cpp:156] Memory required for data: 368542720
I0913 17:52:33.984565 17050 layer_factory.hpp:77] Creating layer inception_4a/pool_proj
I0913 17:52:33.984580 17050 net.cpp:91] Creating Layer inception_4a/pool_proj
I0913 17:52:33.984586 17050 net.cpp:425] inception_4a/pool_proj <- inception_4a/pool
I0913 17:52:33.984596 17050 net.cpp:399] inception_4a/pool_proj -> inception_4a/pool_proj
I0913 17:52:33.986197 17050 net.cpp:141] Setting up inception_4a/pool_proj
I0913 17:52:33.986228 17050 net.cpp:148] Top shape: 10 64 14 14 (125440)
I0913 17:52:33.986234 17050 net.cpp:156] Memory required for data: 369044480
I0913 17:52:33.986243 17050 layer_factory.hpp:77] Creating layer inception_4a/relu_pool_proj
I0913 17:52:33.986251 17050 net.cpp:91] Creating Layer inception_4a/relu_pool_proj
I0913 17:52:33.986258 17050 net.cpp:425] inception_4a/relu_pool_proj <- inception_4a/pool_proj
I0913 17:52:33.986266 17050 net.cpp:386] inception_4a/relu_pool_proj -> inception_4a/pool_proj (in-place)
I0913 17:52:33.986666 17050 net.cpp:141] Setting up inception_4a/relu_pool_proj
I0913 17:52:33.986680 17050 net.cpp:148] Top shape: 10 64 14 14 (125440)
I0913 17:52:33.986683 17050 net.cpp:156] Memory required for data: 369546240
I0913 17:52:33.986688 17050 layer_factory.hpp:77] Creating layer inception_4a/output
I0913 17:52:33.986697 17050 net.cpp:91] Creating Layer inception_4a/output
I0913 17:52:33.986703 17050 net.cpp:425] inception_4a/output <- inception_4a/1x1
I0913 17:52:33.986709 17050 net.cpp:425] inception_4a/output <- inception_4a/3x3
I0913 17:52:33.986714 17050 net.cpp:425] inception_4a/output <- inception_4a/5x5
I0913 17:52:33.986719 17050 net.cpp:425] inception_4a/output <- inception_4a/pool_proj
I0913 17:52:33.986728 17050 net.cpp:399] inception_4a/output -> inception_4a/output
I0913 17:52:33.986769 17050 net.cpp:141] Setting up inception_4a/output
I0913 17:52:33.986778 17050 net.cpp:148] Top shape: 10 512 14 14 (1003520)
I0913 17:52:33.986783 17050 net.cpp:156] Memory required for data: 373560320
I0913 17:52:33.986788 17050 layer_factory.hpp:77] Creating layer inception_4a/output_inception_4a/output_0_split
I0913 17:52:33.986800 17050 net.cpp:91] Creating Layer inception_4a/output_inception_4a/output_0_split
I0913 17:52:33.986805 17050 net.cpp:425] inception_4a/output_inception_4a/output_0_split <- inception_4a/output
I0913 17:52:33.986812 17050 net.cpp:399] inception_4a/output_inception_4a/output_0_split -> inception_4a/output_inception_4a/output_0_split_0
I0913 17:52:33.986822 17050 net.cpp:399] inception_4a/output_inception_4a/output_0_split -> inception_4a/output_inception_4a/output_0_split_1
I0913 17:52:33.986831 17050 net.cpp:399] inception_4a/output_inception_4a/output_0_split -> inception_4a/output_inception_4a/output_0_split_2
I0913 17:52:33.986838 17050 net.cpp:399] inception_4a/output_inception_4a/output_0_split -> inception_4a/output_inception_4a/output_0_split_3
I0913 17:52:33.986922 17050 net.cpp:141] Setting up inception_4a/output_inception_4a/output_0_split
I0913 17:52:33.986930 17050 net.cpp:148] Top shape: 10 512 14 14 (1003520)
I0913 17:52:33.986935 17050 net.cpp:148] Top shape: 10 512 14 14 (1003520)
I0913 17:52:33.986941 17050 net.cpp:148] Top shape: 10 512 14 14 (1003520)
I0913 17:52:33.986946 17050 net.cpp:148] Top shape: 10 512 14 14 (1003520)
I0913 17:52:33.986949 17050 net.cpp:156] Memory required for data: 389616640
I0913 17:52:33.986954 17050 layer_factory.hpp:77] Creating layer inception_4b/1x1
I0913 17:52:33.986968 17050 net.cpp:91] Creating Layer inception_4b/1x1
I0913 17:52:33.986974 17050 net.cpp:425] inception_4b/1x1 <- inception_4a/output_inception_4a/output_0_split_0
I0913 17:52:33.986984 17050 net.cpp:399] inception_4b/1x1 -> inception_4b/1x1
I0913 17:52:33.988807 17050 net.cpp:141] Setting up inception_4b/1x1
I0913 17:52:33.988839 17050 net.cpp:148] Top shape: 10 160 14 14 (313600)
I0913 17:52:33.988845 17050 net.cpp:156] Memory required for data: 390871040
I0913 17:52:33.988854 17050 layer_factory.hpp:77] Creating layer inception_4b/relu_1x1
I0913 17:52:33.988862 17050 net.cpp:91] Creating Layer inception_4b/relu_1x1
I0913 17:52:33.988868 17050 net.cpp:425] inception_4b/relu_1x1 <- inception_4b/1x1
I0913 17:52:33.988875 17050 net.cpp:386] inception_4b/relu_1x1 -> inception_4b/1x1 (in-place)
I0913 17:52:33.989284 17050 net.cpp:141] Setting up inception_4b/relu_1x1
I0913 17:52:33.989296 17050 net.cpp:148] Top shape: 10 160 14 14 (313600)
I0913 17:52:33.989301 17050 net.cpp:156] Memory required for data: 392125440
I0913 17:52:33.989306 17050 layer_factory.hpp:77] Creating layer inception_4b/3x3_reduce
I0913 17:52:33.989321 17050 net.cpp:91] Creating Layer inception_4b/3x3_reduce
I0913 17:52:33.989327 17050 net.cpp:425] inception_4b/3x3_reduce <- inception_4a/output_inception_4a/output_0_split_1
I0913 17:52:33.989336 17050 net.cpp:399] inception_4b/3x3_reduce -> inception_4b/3x3_reduce
I0913 17:52:33.991144 17050 net.cpp:141] Setting up inception_4b/3x3_reduce
I0913 17:52:33.991160 17050 net.cpp:148] Top shape: 10 112 14 14 (219520)
I0913 17:52:33.991179 17050 net.cpp:156] Memory required for data: 393003520
I0913 17:52:33.991188 17050 layer_factory.hpp:77] Creating layer inception_4b/relu_3x3_reduce
I0913 17:52:33.991196 17050 net.cpp:91] Creating Layer inception_4b/relu_3x3_reduce
I0913 17:52:33.991201 17050 net.cpp:425] inception_4b/relu_3x3_reduce <- inception_4b/3x3_reduce
I0913 17:52:33.991212 17050 net.cpp:386] inception_4b/relu_3x3_reduce -> inception_4b/3x3_reduce (in-place)
I0913 17:52:33.991443 17050 net.cpp:141] Setting up inception_4b/relu_3x3_reduce
I0913 17:52:33.991456 17050 net.cpp:148] Top shape: 10 112 14 14 (219520)
I0913 17:52:33.991461 17050 net.cpp:156] Memory required for data: 393881600
I0913 17:52:33.991466 17050 layer_factory.hpp:77] Creating layer inception_4b/3x3
I0913 17:52:33.991480 17050 net.cpp:91] Creating Layer inception_4b/3x3
I0913 17:52:33.991487 17050 net.cpp:425] inception_4b/3x3 <- inception_4b/3x3_reduce
I0913 17:52:33.991494 17050 net.cpp:399] inception_4b/3x3 -> inception_4b/3x3
I0913 17:52:33.995741 17050 net.cpp:141] Setting up inception_4b/3x3
I0913 17:52:33.995760 17050 net.cpp:148] Top shape: 10 224 14 14 (439040)
I0913 17:52:33.995766 17050 net.cpp:156] Memory required for data: 395637760
I0913 17:52:33.995774 17050 layer_factory.hpp:77] Creating layer inception_4b/relu_3x3
I0913 17:52:33.995784 17050 net.cpp:91] Creating Layer inception_4b/relu_3x3
I0913 17:52:33.995790 17050 net.cpp:425] inception_4b/relu_3x3 <- inception_4b/3x3
I0913 17:52:33.995795 17050 net.cpp:386] inception_4b/relu_3x3 -> inception_4b/3x3 (in-place)
I0913 17:52:33.996232 17050 net.cpp:141] Setting up inception_4b/relu_3x3
I0913 17:52:33.996244 17050 net.cpp:148] Top shape: 10 224 14 14 (439040)
I0913 17:52:33.996249 17050 net.cpp:156] Memory required for data: 397393920
I0913 17:52:33.996254 17050 layer_factory.hpp:77] Creating layer inception_4b/5x5_reduce
I0913 17:52:33.996280 17050 net.cpp:91] Creating Layer inception_4b/5x5_reduce
I0913 17:52:33.996286 17050 net.cpp:425] inception_4b/5x5_reduce <- inception_4a/output_inception_4a/output_0_split_2
I0913 17:52:33.996295 17050 net.cpp:399] inception_4b/5x5_reduce -> inception_4b/5x5_reduce
I0913 17:52:33.997640 17050 net.cpp:141] Setting up inception_4b/5x5_reduce
I0913 17:52:33.997658 17050 net.cpp:148] Top shape: 10 24 14 14 (47040)
I0913 17:52:33.997663 17050 net.cpp:156] Memory required for data: 397582080
I0913 17:52:33.997671 17050 layer_factory.hpp:77] Creating layer inception_4b/relu_5x5_reduce
I0913 17:52:33.997684 17050 net.cpp:91] Creating Layer inception_4b/relu_5x5_reduce
I0913 17:52:33.997690 17050 net.cpp:425] inception_4b/relu_5x5_reduce <- inception_4b/5x5_reduce
I0913 17:52:33.997697 17050 net.cpp:386] inception_4b/relu_5x5_reduce -> inception_4b/5x5_reduce (in-place)
I0913 17:52:33.998097 17050 net.cpp:141] Setting up inception_4b/relu_5x5_reduce
I0913 17:52:33.998109 17050 net.cpp:148] Top shape: 10 24 14 14 (47040)
I0913 17:52:33.998114 17050 net.cpp:156] Memory required for data: 397770240
I0913 17:52:33.998119 17050 layer_factory.hpp:77] Creating layer inception_4b/5x5
I0913 17:52:33.998136 17050 net.cpp:91] Creating Layer inception_4b/5x5
I0913 17:52:33.998142 17050 net.cpp:425] inception_4b/5x5 <- inception_4b/5x5_reduce
I0913 17:52:33.998152 17050 net.cpp:399] inception_4b/5x5 -> inception_4b/5x5
I0913 17:52:34.000530 17050 net.cpp:141] Setting up inception_4b/5x5
I0913 17:52:34.000547 17050 net.cpp:148] Top shape: 10 64 14 14 (125440)
I0913 17:52:34.000552 17050 net.cpp:156] Memory required for data: 398272000
I0913 17:52:34.000561 17050 layer_factory.hpp:77] Creating layer inception_4b/relu_5x5
I0913 17:52:34.000571 17050 net.cpp:91] Creating Layer inception_4b/relu_5x5
I0913 17:52:34.000576 17050 net.cpp:425] inception_4b/relu_5x5 <- inception_4b/5x5
I0913 17:52:34.000586 17050 net.cpp:386] inception_4b/relu_5x5 -> inception_4b/5x5 (in-place)
I0913 17:52:34.000820 17050 net.cpp:141] Setting up inception_4b/relu_5x5
I0913 17:52:34.000833 17050 net.cpp:148] Top shape: 10 64 14 14 (125440)
I0913 17:52:34.000839 17050 net.cpp:156] Memory required for data: 398773760
I0913 17:52:34.000844 17050 layer_factory.hpp:77] Creating layer inception_4b/pool
I0913 17:52:34.000852 17050 net.cpp:91] Creating Layer inception_4b/pool
I0913 17:52:34.000859 17050 net.cpp:425] inception_4b/pool <- inception_4a/output_inception_4a/output_0_split_3
I0913 17:52:34.000865 17050 net.cpp:399] inception_4b/pool -> inception_4b/pool
I0913 17:52:34.000929 17050 net.cpp:141] Setting up inception_4b/pool
I0913 17:52:34.000939 17050 net.cpp:148] Top shape: 10 512 14 14 (1003520)
I0913 17:52:34.000943 17050 net.cpp:156] Memory required for data: 402787840
I0913 17:52:34.000947 17050 layer_factory.hpp:77] Creating layer inception_4b/pool_proj
I0913 17:52:34.000962 17050 net.cpp:91] Creating Layer inception_4b/pool_proj
I0913 17:52:34.000968 17050 net.cpp:425] inception_4b/pool_proj <- inception_4b/pool
I0913 17:52:34.000978 17050 net.cpp:399] inception_4b/pool_proj -> inception_4b/pool_proj
I0913 17:52:34.002648 17050 net.cpp:141] Setting up inception_4b/pool_proj
I0913 17:52:34.002665 17050 net.cpp:148] Top shape: 10 64 14 14 (125440)
I0913 17:52:34.002671 17050 net.cpp:156] Memory required for data: 403289600
I0913 17:52:34.002678 17050 layer_factory.hpp:77] Creating layer inception_4b/relu_pool_proj
I0913 17:52:34.002691 17050 net.cpp:91] Creating Layer inception_4b/relu_pool_proj
I0913 17:52:34.002697 17050 net.cpp:425] inception_4b/relu_pool_proj <- inception_4b/pool_proj
I0913 17:52:34.002707 17050 net.cpp:386] inception_4b/relu_pool_proj -> inception_4b/pool_proj (in-place)
I0913 17:52:34.003126 17050 net.cpp:141] Setting up inception_4b/relu_pool_proj
I0913 17:52:34.003139 17050 net.cpp:148] Top shape: 10 64 14 14 (125440)
I0913 17:52:34.003144 17050 net.cpp:156] Memory required for data: 403791360
I0913 17:52:34.003149 17050 layer_factory.hpp:77] Creating layer inception_4b/output
I0913 17:52:34.003156 17050 net.cpp:91] Creating Layer inception_4b/output
I0913 17:52:34.003161 17050 net.cpp:425] inception_4b/output <- inception_4b/1x1
I0913 17:52:34.003168 17050 net.cpp:425] inception_4b/output <- inception_4b/3x3
I0913 17:52:34.003173 17050 net.cpp:425] inception_4b/output <- inception_4b/5x5
I0913 17:52:34.003178 17050 net.cpp:425] inception_4b/output <- inception_4b/pool_proj
I0913 17:52:34.003190 17050 net.cpp:399] inception_4b/output -> inception_4b/output
I0913 17:52:34.003232 17050 net.cpp:141] Setting up inception_4b/output
I0913 17:52:34.003240 17050 net.cpp:148] Top shape: 10 512 14 14 (1003520)
I0913 17:52:34.003244 17050 net.cpp:156] Memory required for data: 407805440
I0913 17:52:34.003249 17050 layer_factory.hpp:77] Creating layer inception_4b/output_inception_4b/output_0_split
I0913 17:52:34.003262 17050 net.cpp:91] Creating Layer inception_4b/output_inception_4b/output_0_split
I0913 17:52:34.003267 17050 net.cpp:425] inception_4b/output_inception_4b/output_0_split <- inception_4b/output
I0913 17:52:34.003273 17050 net.cpp:399] inception_4b/output_inception_4b/output_0_split -> inception_4b/output_inception_4b/output_0_split_0
I0913 17:52:34.003283 17050 net.cpp:399] inception_4b/output_inception_4b/output_0_split -> inception_4b/output_inception_4b/output_0_split_1
I0913 17:52:34.003291 17050 net.cpp:399] inception_4b/output_inception_4b/output_0_split -> inception_4b/output_inception_4b/output_0_split_2
I0913 17:52:34.003299 17050 net.cpp:399] inception_4b/output_inception_4b/output_0_split -> inception_4b/output_inception_4b/output_0_split_3
I0913 17:52:34.003383 17050 net.cpp:141] Setting up inception_4b/output_inception_4b/output_0_split
I0913 17:52:34.003392 17050 net.cpp:148] Top shape: 10 512 14 14 (1003520)
I0913 17:52:34.003397 17050 net.cpp:148] Top shape: 10 512 14 14 (1003520)
I0913 17:52:34.003402 17050 net.cpp:148] Top shape: 10 512 14 14 (1003520)
I0913 17:52:34.003408 17050 net.cpp:148] Top shape: 10 512 14 14 (1003520)
I0913 17:52:34.003412 17050 net.cpp:156] Memory required for data: 423861760
I0913 17:52:34.003417 17050 layer_factory.hpp:77] Creating layer inception_4c/1x1
I0913 17:52:34.003429 17050 net.cpp:91] Creating Layer inception_4c/1x1
I0913 17:52:34.003435 17050 net.cpp:425] inception_4c/1x1 <- inception_4b/output_inception_4b/output_0_split_0
I0913 17:52:34.003446 17050 net.cpp:399] inception_4c/1x1 -> inception_4c/1x1
I0913 17:52:34.005177 17050 net.cpp:141] Setting up inception_4c/1x1
I0913 17:52:34.005192 17050 net.cpp:148] Top shape: 10 128 14 14 (250880)
I0913 17:52:34.005197 17050 net.cpp:156] Memory required for data: 424865280
I0913 17:52:34.005204 17050 layer_factory.hpp:77] Creating layer inception_4c/relu_1x1
I0913 17:52:34.005215 17050 net.cpp:91] Creating Layer inception_4c/relu_1x1
I0913 17:52:34.005221 17050 net.cpp:425] inception_4c/relu_1x1 <- inception_4c/1x1
I0913 17:52:34.005228 17050 net.cpp:386] inception_4c/relu_1x1 -> inception_4c/1x1 (in-place)
I0913 17:52:34.005635 17050 net.cpp:141] Setting up inception_4c/relu_1x1
I0913 17:52:34.005647 17050 net.cpp:148] Top shape: 10 128 14 14 (250880)
I0913 17:52:34.005651 17050 net.cpp:156] Memory required for data: 425868800
I0913 17:52:34.005656 17050 layer_factory.hpp:77] Creating layer inception_4c/3x3_reduce
I0913 17:52:34.005676 17050 net.cpp:91] Creating Layer inception_4c/3x3_reduce
I0913 17:52:34.005681 17050 net.cpp:425] inception_4c/3x3_reduce <- inception_4b/output_inception_4b/output_0_split_1
I0913 17:52:34.005691 17050 net.cpp:399] inception_4c/3x3_reduce -> inception_4c/3x3_reduce
I0913 17:52:34.007619 17050 net.cpp:141] Setting up inception_4c/3x3_reduce
I0913 17:52:34.007637 17050 net.cpp:148] Top shape: 10 128 14 14 (250880)
I0913 17:52:34.007642 17050 net.cpp:156] Memory required for data: 426872320
I0913 17:52:34.007649 17050 layer_factory.hpp:77] Creating layer inception_4c/relu_3x3_reduce
I0913 17:52:34.007660 17050 net.cpp:91] Creating Layer inception_4c/relu_3x3_reduce
I0913 17:52:34.007666 17050 net.cpp:425] inception_4c/relu_3x3_reduce <- inception_4c/3x3_reduce
I0913 17:52:34.007673 17050 net.cpp:386] inception_4c/relu_3x3_reduce -> inception_4c/3x3_reduce (in-place)
I0913 17:52:34.007910 17050 net.cpp:141] Setting up inception_4c/relu_3x3_reduce
I0913 17:52:34.007921 17050 net.cpp:148] Top shape: 10 128 14 14 (250880)
I0913 17:52:34.007925 17050 net.cpp:156] Memory required for data: 427875840
I0913 17:52:34.007930 17050 layer_factory.hpp:77] Creating layer inception_4c/3x3
I0913 17:52:34.007947 17050 net.cpp:91] Creating Layer inception_4c/3x3
I0913 17:52:34.007953 17050 net.cpp:425] inception_4c/3x3 <- inception_4c/3x3_reduce
I0913 17:52:34.007962 17050 net.cpp:399] inception_4c/3x3 -> inception_4c/3x3
I0913 17:52:34.012311 17050 net.cpp:141] Setting up inception_4c/3x3
I0913 17:52:34.012329 17050 net.cpp:148] Top shape: 10 256 14 14 (501760)
I0913 17:52:34.012336 17050 net.cpp:156] Memory required for data: 429882880
I0913 17:52:34.012343 17050 layer_factory.hpp:77] Creating layer inception_4c/relu_3x3
I0913 17:52:34.012352 17050 net.cpp:91] Creating Layer inception_4c/relu_3x3
I0913 17:52:34.012357 17050 net.cpp:425] inception_4c/relu_3x3 <- inception_4c/3x3
I0913 17:52:34.012368 17050 net.cpp:386] inception_4c/relu_3x3 -> inception_4c/3x3 (in-place)
I0913 17:52:34.012780 17050 net.cpp:141] Setting up inception_4c/relu_3x3
I0913 17:52:34.012794 17050 net.cpp:148] Top shape: 10 256 14 14 (501760)
I0913 17:52:34.012799 17050 net.cpp:156] Memory required for data: 431889920
I0913 17:52:34.012804 17050 layer_factory.hpp:77] Creating layer inception_4c/5x5_reduce
I0913 17:52:34.012819 17050 net.cpp:91] Creating Layer inception_4c/5x5_reduce
I0913 17:52:34.012825 17050 net.cpp:425] inception_4c/5x5_reduce <- inception_4b/output_inception_4b/output_0_split_2
I0913 17:52:34.012835 17050 net.cpp:399] inception_4c/5x5_reduce -> inception_4c/5x5_reduce
I0913 17:52:34.014205 17050 net.cpp:141] Setting up inception_4c/5x5_reduce
I0913 17:52:34.014224 17050 net.cpp:148] Top shape: 10 24 14 14 (47040)
I0913 17:52:34.014228 17050 net.cpp:156] Memory required for data: 432078080
I0913 17:52:34.014236 17050 layer_factory.hpp:77] Creating layer inception_4c/relu_5x5_reduce
I0913 17:52:34.014248 17050 net.cpp:91] Creating Layer inception_4c/relu_5x5_reduce
I0913 17:52:34.014255 17050 net.cpp:425] inception_4c/relu_5x5_reduce <- inception_4c/5x5_reduce
I0913 17:52:34.014261 17050 net.cpp:386] inception_4c/relu_5x5_reduce -> inception_4c/5x5_reduce (in-place)
I0913 17:52:34.014701 17050 net.cpp:141] Setting up inception_4c/relu_5x5_reduce
I0913 17:52:34.014714 17050 net.cpp:148] Top shape: 10 24 14 14 (47040)
I0913 17:52:34.014719 17050 net.cpp:156] Memory required for data: 432266240
I0913 17:52:34.014725 17050 layer_factory.hpp:77] Creating layer inception_4c/5x5
I0913 17:52:34.014739 17050 net.cpp:91] Creating Layer inception_4c/5x5
I0913 17:52:34.014745 17050 net.cpp:425] inception_4c/5x5 <- inception_4c/5x5_reduce
I0913 17:52:34.014755 17050 net.cpp:399] inception_4c/5x5 -> inception_4c/5x5
I0913 17:52:34.016734 17050 net.cpp:141] Setting up inception_4c/5x5
I0913 17:52:34.016752 17050 net.cpp:148] Top shape: 10 64 14 14 (125440)
I0913 17:52:34.016757 17050 net.cpp:156] Memory required for data: 432768000
I0913 17:52:34.016764 17050 layer_factory.hpp:77] Creating layer inception_4c/relu_5x5
I0913 17:52:34.016772 17050 net.cpp:91] Creating Layer inception_4c/relu_5x5
I0913 17:52:34.016778 17050 net.cpp:425] inception_4c/relu_5x5 <- inception_4c/5x5
I0913 17:52:34.016785 17050 net.cpp:386] inception_4c/relu_5x5 -> inception_4c/5x5 (in-place)
I0913 17:52:34.017022 17050 net.cpp:141] Setting up inception_4c/relu_5x5
I0913 17:52:34.017033 17050 net.cpp:148] Top shape: 10 64 14 14 (125440)
I0913 17:52:34.017038 17050 net.cpp:156] Memory required for data: 433269760
I0913 17:52:34.017043 17050 layer_factory.hpp:77] Creating layer inception_4c/pool
I0913 17:52:34.017053 17050 net.cpp:91] Creating Layer inception_4c/pool
I0913 17:52:34.017060 17050 net.cpp:425] inception_4c/pool <- inception_4b/output_inception_4b/output_0_split_3
I0913 17:52:34.017066 17050 net.cpp:399] inception_4c/pool -> inception_4c/pool
I0913 17:52:34.017137 17050 net.cpp:141] Setting up inception_4c/pool
I0913 17:52:34.017145 17050 net.cpp:148] Top shape: 10 512 14 14 (1003520)
I0913 17:52:34.017149 17050 net.cpp:156] Memory required for data: 437283840
I0913 17:52:34.017154 17050 layer_factory.hpp:77] Creating layer inception_4c/pool_proj
I0913 17:52:34.017168 17050 net.cpp:91] Creating Layer inception_4c/pool_proj
I0913 17:52:34.017174 17050 net.cpp:425] inception_4c/pool_proj <- inception_4c/pool
I0913 17:52:34.017184 17050 net.cpp:399] inception_4c/pool_proj -> inception_4c/pool_proj
I0913 17:52:34.019575 17050 net.cpp:141] Setting up inception_4c/pool_proj
I0913 17:52:34.019593 17050 net.cpp:148] Top shape: 10 64 14 14 (125440)
I0913 17:52:34.019598 17050 net.cpp:156] Memory required for data: 437785600
I0913 17:52:34.019623 17050 layer_factory.hpp:77] Creating layer inception_4c/relu_pool_proj
I0913 17:52:34.019632 17050 net.cpp:91] Creating Layer inception_4c/relu_pool_proj
I0913 17:52:34.019639 17050 net.cpp:425] inception_4c/relu_pool_proj <- inception_4c/pool_proj
I0913 17:52:34.019647 17050 net.cpp:386] inception_4c/relu_pool_proj -> inception_4c/pool_proj (in-place)
I0913 17:52:34.020061 17050 net.cpp:141] Setting up inception_4c/relu_pool_proj
I0913 17:52:34.020082 17050 net.cpp:148] Top shape: 10 64 14 14 (125440)
I0913 17:52:34.020088 17050 net.cpp:156] Memory required for data: 438287360
I0913 17:52:34.020093 17050 layer_factory.hpp:77] Creating layer inception_4c/output
I0913 17:52:34.020105 17050 net.cpp:91] Creating Layer inception_4c/output
I0913 17:52:34.020110 17050 net.cpp:425] inception_4c/output <- inception_4c/1x1
I0913 17:52:34.020117 17050 net.cpp:425] inception_4c/output <- inception_4c/3x3
I0913 17:52:34.020123 17050 net.cpp:425] inception_4c/output <- inception_4c/5x5
I0913 17:52:34.020128 17050 net.cpp:425] inception_4c/output <- inception_4c/pool_proj
I0913 17:52:34.020136 17050 net.cpp:399] inception_4c/output -> inception_4c/output
I0913 17:52:34.020180 17050 net.cpp:141] Setting up inception_4c/output
I0913 17:52:34.020190 17050 net.cpp:148] Top shape: 10 512 14 14 (1003520)
I0913 17:52:34.020193 17050 net.cpp:156] Memory required for data: 442301440
I0913 17:52:34.020197 17050 layer_factory.hpp:77] Creating layer inception_4c/output_inception_4c/output_0_split
I0913 17:52:34.020210 17050 net.cpp:91] Creating Layer inception_4c/output_inception_4c/output_0_split
I0913 17:52:34.020215 17050 net.cpp:425] inception_4c/output_inception_4c/output_0_split <- inception_4c/output
I0913 17:52:34.020221 17050 net.cpp:399] inception_4c/output_inception_4c/output_0_split -> inception_4c/output_inception_4c/output_0_split_0
I0913 17:52:34.020231 17050 net.cpp:399] inception_4c/output_inception_4c/output_0_split -> inception_4c/output_inception_4c/output_0_split_1
I0913 17:52:34.020238 17050 net.cpp:399] inception_4c/output_inception_4c/output_0_split -> inception_4c/output_inception_4c/output_0_split_2
I0913 17:52:34.020248 17050 net.cpp:399] inception_4c/output_inception_4c/output_0_split -> inception_4c/output_inception_4c/output_0_split_3
I0913 17:52:34.020336 17050 net.cpp:141] Setting up inception_4c/output_inception_4c/output_0_split
I0913 17:52:34.020345 17050 net.cpp:148] Top shape: 10 512 14 14 (1003520)
I0913 17:52:34.020351 17050 net.cpp:148] Top shape: 10 512 14 14 (1003520)
I0913 17:52:34.020356 17050 net.cpp:148] Top shape: 10 512 14 14 (1003520)
I0913 17:52:34.020361 17050 net.cpp:148] Top shape: 10 512 14 14 (1003520)
I0913 17:52:34.020365 17050 net.cpp:156] Memory required for data: 458357760
I0913 17:52:34.020370 17050 layer_factory.hpp:77] Creating layer inception_4d/1x1
I0913 17:52:34.020387 17050 net.cpp:91] Creating Layer inception_4d/1x1
I0913 17:52:34.020393 17050 net.cpp:425] inception_4d/1x1 <- inception_4c/output_inception_4c/output_0_split_0
I0913 17:52:34.020404 17050 net.cpp:399] inception_4d/1x1 -> inception_4d/1x1
I0913 17:52:34.022089 17050 net.cpp:141] Setting up inception_4d/1x1
I0913 17:52:34.022105 17050 net.cpp:148] Top shape: 10 112 14 14 (219520)
I0913 17:52:34.022110 17050 net.cpp:156] Memory required for data: 459235840
I0913 17:52:34.022119 17050 layer_factory.hpp:77] Creating layer inception_4d/relu_1x1
I0913 17:52:34.022130 17050 net.cpp:91] Creating Layer inception_4d/relu_1x1
I0913 17:52:34.022136 17050 net.cpp:425] inception_4d/relu_1x1 <- inception_4d/1x1
I0913 17:52:34.022143 17050 net.cpp:386] inception_4d/relu_1x1 -> inception_4d/1x1 (in-place)
I0913 17:52:34.022553 17050 net.cpp:141] Setting up inception_4d/relu_1x1
I0913 17:52:34.022567 17050 net.cpp:148] Top shape: 10 112 14 14 (219520)
I0913 17:52:34.022570 17050 net.cpp:156] Memory required for data: 460113920
I0913 17:52:34.022575 17050 layer_factory.hpp:77] Creating layer inception_4d/3x3_reduce
I0913 17:52:34.022590 17050 net.cpp:91] Creating Layer inception_4d/3x3_reduce
I0913 17:52:34.022596 17050 net.cpp:425] inception_4d/3x3_reduce <- inception_4c/output_inception_4c/output_0_split_1
I0913 17:52:34.022608 17050 net.cpp:399] inception_4d/3x3_reduce -> inception_4d/3x3_reduce
I0913 17:52:34.024646 17050 net.cpp:141] Setting up inception_4d/3x3_reduce
I0913 17:52:34.024662 17050 net.cpp:148] Top shape: 10 144 14 14 (282240)
I0913 17:52:34.024667 17050 net.cpp:156] Memory required for data: 461242880
I0913 17:52:34.024677 17050 layer_factory.hpp:77] Creating layer inception_4d/relu_3x3_reduce
I0913 17:52:34.024684 17050 net.cpp:91] Creating Layer inception_4d/relu_3x3_reduce
I0913 17:52:34.024690 17050 net.cpp:425] inception_4d/relu_3x3_reduce <- inception_4d/3x3_reduce
I0913 17:52:34.024701 17050 net.cpp:386] inception_4d/relu_3x3_reduce -> inception_4d/3x3_reduce (in-place)
I0913 17:52:34.024938 17050 net.cpp:141] Setting up inception_4d/relu_3x3_reduce
I0913 17:52:34.024952 17050 net.cpp:148] Top shape: 10 144 14 14 (282240)
I0913 17:52:34.024956 17050 net.cpp:156] Memory required for data: 462371840
I0913 17:52:34.024962 17050 layer_factory.hpp:77] Creating layer inception_4d/3x3
I0913 17:52:34.024976 17050 net.cpp:91] Creating Layer inception_4d/3x3
I0913 17:52:34.024982 17050 net.cpp:425] inception_4d/3x3 <- inception_4d/3x3_reduce
I0913 17:52:34.024991 17050 net.cpp:399] inception_4d/3x3 -> inception_4d/3x3
I0913 17:52:34.030067 17050 net.cpp:141] Setting up inception_4d/3x3
I0913 17:52:34.030086 17050 net.cpp:148] Top shape: 10 288 14 14 (564480)
I0913 17:52:34.030091 17050 net.cpp:156] Memory required for data: 464629760
I0913 17:52:34.030098 17050 layer_factory.hpp:77] Creating layer inception_4d/relu_3x3
I0913 17:52:34.030110 17050 net.cpp:91] Creating Layer inception_4d/relu_3x3
I0913 17:52:34.030117 17050 net.cpp:425] inception_4d/relu_3x3 <- inception_4d/3x3
I0913 17:52:34.030127 17050 net.cpp:386] inception_4d/relu_3x3 -> inception_4d/3x3 (in-place)
I0913 17:52:34.030544 17050 net.cpp:141] Setting up inception_4d/relu_3x3
I0913 17:52:34.030556 17050 net.cpp:148] Top shape: 10 288 14 14 (564480)
I0913 17:52:34.030560 17050 net.cpp:156] Memory required for data: 466887680
I0913 17:52:34.030566 17050 layer_factory.hpp:77] Creating layer inception_4d/5x5_reduce
I0913 17:52:34.030580 17050 net.cpp:91] Creating Layer inception_4d/5x5_reduce
I0913 17:52:34.030586 17050 net.cpp:425] inception_4d/5x5_reduce <- inception_4c/output_inception_4c/output_0_split_2
I0913 17:52:34.030598 17050 net.cpp:399] inception_4d/5x5_reduce -> inception_4d/5x5_reduce
I0913 17:52:34.032018 17050 net.cpp:141] Setting up inception_4d/5x5_reduce
I0913 17:52:34.032035 17050 net.cpp:148] Top shape: 10 32 14 14 (62720)
I0913 17:52:34.032040 17050 net.cpp:156] Memory required for data: 467138560
I0913 17:52:34.032048 17050 layer_factory.hpp:77] Creating layer inception_4d/relu_5x5_reduce
I0913 17:52:34.032059 17050 net.cpp:91] Creating Layer inception_4d/relu_5x5_reduce
I0913 17:52:34.032065 17050 net.cpp:425] inception_4d/relu_5x5_reduce <- inception_4d/5x5_reduce
I0913 17:52:34.032079 17050 net.cpp:386] inception_4d/relu_5x5_reduce -> inception_4d/5x5_reduce (in-place)
I0913 17:52:34.032492 17050 net.cpp:141] Setting up inception_4d/relu_5x5_reduce
I0913 17:52:34.032505 17050 net.cpp:148] Top shape: 10 32 14 14 (62720)
I0913 17:52:34.032510 17050 net.cpp:156] Memory required for data: 467389440
I0913 17:52:34.032515 17050 layer_factory.hpp:77] Creating layer inception_4d/5x5
I0913 17:52:34.032529 17050 net.cpp:91] Creating Layer inception_4d/5x5
I0913 17:52:34.032536 17050 net.cpp:425] inception_4d/5x5 <- inception_4d/5x5_reduce
I0913 17:52:34.032547 17050 net.cpp:399] inception_4d/5x5 -> inception_4d/5x5
I0913 17:52:34.034389 17050 net.cpp:141] Setting up inception_4d/5x5
I0913 17:52:34.034407 17050 net.cpp:148] Top shape: 10 64 14 14 (125440)
I0913 17:52:34.034412 17050 net.cpp:156] Memory required for data: 467891200
I0913 17:52:34.034420 17050 layer_factory.hpp:77] Creating layer inception_4d/relu_5x5
I0913 17:52:34.034428 17050 net.cpp:91] Creating Layer inception_4d/relu_5x5
I0913 17:52:34.034435 17050 net.cpp:425] inception_4d/relu_5x5 <- inception_4d/5x5
I0913 17:52:34.034441 17050 net.cpp:386] inception_4d/relu_5x5 -> inception_4d/5x5 (in-place)
I0913 17:52:34.034680 17050 net.cpp:141] Setting up inception_4d/relu_5x5
I0913 17:52:34.034692 17050 net.cpp:148] Top shape: 10 64 14 14 (125440)
I0913 17:52:34.034695 17050 net.cpp:156] Memory required for data: 468392960
I0913 17:52:34.034700 17050 layer_factory.hpp:77] Creating layer inception_4d/pool
I0913 17:52:34.034714 17050 net.cpp:91] Creating Layer inception_4d/pool
I0913 17:52:34.034719 17050 net.cpp:425] inception_4d/pool <- inception_4c/output_inception_4c/output_0_split_3
I0913 17:52:34.034728 17050 net.cpp:399] inception_4d/pool -> inception_4d/pool
I0913 17:52:34.034793 17050 net.cpp:141] Setting up inception_4d/pool
I0913 17:52:34.034803 17050 net.cpp:148] Top shape: 10 512 14 14 (1003520)
I0913 17:52:34.034807 17050 net.cpp:156] Memory required for data: 472407040
I0913 17:52:34.034811 17050 layer_factory.hpp:77] Creating layer inception_4d/pool_proj
I0913 17:52:34.034826 17050 net.cpp:91] Creating Layer inception_4d/pool_proj
I0913 17:52:34.034832 17050 net.cpp:425] inception_4d/pool_proj <- inception_4d/pool
I0913 17:52:34.034842 17050 net.cpp:399] inception_4d/pool_proj -> inception_4d/pool_proj
I0913 17:52:34.036569 17050 net.cpp:141] Setting up inception_4d/pool_proj
I0913 17:52:34.036586 17050 net.cpp:148] Top shape: 10 64 14 14 (125440)
I0913 17:52:34.036592 17050 net.cpp:156] Memory required for data: 472908800
I0913 17:52:34.036600 17050 layer_factory.hpp:77] Creating layer inception_4d/relu_pool_proj
I0913 17:52:34.036608 17050 net.cpp:91] Creating Layer inception_4d/relu_pool_proj
I0913 17:52:34.036614 17050 net.cpp:425] inception_4d/relu_pool_proj <- inception_4d/pool_proj
I0913 17:52:34.036624 17050 net.cpp:386] inception_4d/relu_pool_proj -> inception_4d/pool_proj (in-place)
I0913 17:52:34.037039 17050 net.cpp:141] Setting up inception_4d/relu_pool_proj
I0913 17:52:34.037051 17050 net.cpp:148] Top shape: 10 64 14 14 (125440)
I0913 17:52:34.037056 17050 net.cpp:156] Memory required for data: 473410560
I0913 17:52:34.037061 17050 layer_factory.hpp:77] Creating layer inception_4d/output
I0913 17:52:34.037070 17050 net.cpp:91] Creating Layer inception_4d/output
I0913 17:52:34.037075 17050 net.cpp:425] inception_4d/output <- inception_4d/1x1
I0913 17:52:34.037081 17050 net.cpp:425] inception_4d/output <- inception_4d/3x3
I0913 17:52:34.037086 17050 net.cpp:425] inception_4d/output <- inception_4d/5x5
I0913 17:52:34.037091 17050 net.cpp:425] inception_4d/output <- inception_4d/pool_proj
I0913 17:52:34.037101 17050 net.cpp:399] inception_4d/output -> inception_4d/output
I0913 17:52:34.037147 17050 net.cpp:141] Setting up inception_4d/output
I0913 17:52:34.037156 17050 net.cpp:148] Top shape: 10 528 14 14 (1034880)
I0913 17:52:34.037161 17050 net.cpp:156] Memory required for data: 477550080
I0913 17:52:34.037165 17050 layer_factory.hpp:77] Creating layer inception_4d/output_inception_4d/output_0_split
I0913 17:52:34.037173 17050 net.cpp:91] Creating Layer inception_4d/output_inception_4d/output_0_split
I0913 17:52:34.037178 17050 net.cpp:425] inception_4d/output_inception_4d/output_0_split <- inception_4d/output
I0913 17:52:34.037186 17050 net.cpp:399] inception_4d/output_inception_4d/output_0_split -> inception_4d/output_inception_4d/output_0_split_0
I0913 17:52:34.037199 17050 net.cpp:399] inception_4d/output_inception_4d/output_0_split -> inception_4d/output_inception_4d/output_0_split_1
I0913 17:52:34.037206 17050 net.cpp:399] inception_4d/output_inception_4d/output_0_split -> inception_4d/output_inception_4d/output_0_split_2
I0913 17:52:34.037214 17050 net.cpp:399] inception_4d/output_inception_4d/output_0_split -> inception_4d/output_inception_4d/output_0_split_3
I0913 17:52:34.037310 17050 net.cpp:141] Setting up inception_4d/output_inception_4d/output_0_split
I0913 17:52:34.037320 17050 net.cpp:148] Top shape: 10 528 14 14 (1034880)
I0913 17:52:34.037325 17050 net.cpp:148] Top shape: 10 528 14 14 (1034880)
I0913 17:52:34.037331 17050 net.cpp:148] Top shape: 10 528 14 14 (1034880)
I0913 17:52:34.037336 17050 net.cpp:148] Top shape: 10 528 14 14 (1034880)
I0913 17:52:34.037340 17050 net.cpp:156] Memory required for data: 494108160
I0913 17:52:34.037344 17050 layer_factory.hpp:77] Creating layer inception_4e/1x1
I0913 17:52:34.037360 17050 net.cpp:91] Creating Layer inception_4e/1x1
I0913 17:52:34.037366 17050 net.cpp:425] inception_4e/1x1 <- inception_4d/output_inception_4d/output_0_split_0
I0913 17:52:34.037375 17050 net.cpp:399] inception_4e/1x1 -> inception_4e/1x1
I0913 17:52:34.040634 17050 net.cpp:141] Setting up inception_4e/1x1
I0913 17:52:34.040652 17050 net.cpp:148] Top shape: 10 256 14 14 (501760)
I0913 17:52:34.040658 17050 net.cpp:156] Memory required for data: 496115200
I0913 17:52:34.040668 17050 layer_factory.hpp:77] Creating layer inception_4e/relu_1x1
I0913 17:52:34.040675 17050 net.cpp:91] Creating Layer inception_4e/relu_1x1
I0913 17:52:34.040681 17050 net.cpp:425] inception_4e/relu_1x1 <- inception_4e/1x1
I0913 17:52:34.040693 17050 net.cpp:386] inception_4e/relu_1x1 -> inception_4e/1x1 (in-place)
I0913 17:52:34.041106 17050 net.cpp:141] Setting up inception_4e/relu_1x1
I0913 17:52:34.041120 17050 net.cpp:148] Top shape: 10 256 14 14 (501760)
I0913 17:52:34.041124 17050 net.cpp:156] Memory required for data: 498122240
I0913 17:52:34.041129 17050 layer_factory.hpp:77] Creating layer inception_4e/3x3_reduce
I0913 17:52:34.041144 17050 net.cpp:91] Creating Layer inception_4e/3x3_reduce
I0913 17:52:34.041151 17050 net.cpp:425] inception_4e/3x3_reduce <- inception_4d/output_inception_4d/output_0_split_1
I0913 17:52:34.041162 17050 net.cpp:399] inception_4e/3x3_reduce -> inception_4e/3x3_reduce
I0913 17:52:34.043265 17050 net.cpp:141] Setting up inception_4e/3x3_reduce
I0913 17:52:34.043282 17050 net.cpp:148] Top shape: 10 160 14 14 (313600)
I0913 17:52:34.043287 17050 net.cpp:156] Memory required for data: 499376640
I0913 17:52:34.043297 17050 layer_factory.hpp:77] Creating layer inception_4e/relu_3x3_reduce
I0913 17:52:34.043309 17050 net.cpp:91] Creating Layer inception_4e/relu_3x3_reduce
I0913 17:52:34.043315 17050 net.cpp:425] inception_4e/relu_3x3_reduce <- inception_4e/3x3_reduce
I0913 17:52:34.043323 17050 net.cpp:386] inception_4e/relu_3x3_reduce -> inception_4e/3x3_reduce (in-place)
I0913 17:52:34.043562 17050 net.cpp:141] Setting up inception_4e/relu_3x3_reduce
I0913 17:52:34.043573 17050 net.cpp:148] Top shape: 10 160 14 14 (313600)
I0913 17:52:34.043578 17050 net.cpp:156] Memory required for data: 500631040
I0913 17:52:34.043583 17050 layer_factory.hpp:77] Creating layer inception_4e/3x3
I0913 17:52:34.043598 17050 net.cpp:91] Creating Layer inception_4e/3x3
I0913 17:52:34.043604 17050 net.cpp:425] inception_4e/3x3 <- inception_4e/3x3_reduce
I0913 17:52:34.043615 17050 net.cpp:399] inception_4e/3x3 -> inception_4e/3x3
I0913 17:52:34.049479 17050 net.cpp:141] Setting up inception_4e/3x3
I0913 17:52:34.049499 17050 net.cpp:148] Top shape: 10 320 14 14 (627200)
I0913 17:52:34.049505 17050 net.cpp:156] Memory required for data: 503139840
I0913 17:52:34.049513 17050 layer_factory.hpp:77] Creating layer inception_4e/relu_3x3
I0913 17:52:34.049522 17050 net.cpp:91] Creating Layer inception_4e/relu_3x3
I0913 17:52:34.049527 17050 net.cpp:425] inception_4e/relu_3x3 <- inception_4e/3x3
I0913 17:52:34.049535 17050 net.cpp:386] inception_4e/relu_3x3 -> inception_4e/3x3 (in-place)
I0913 17:52:34.049963 17050 net.cpp:141] Setting up inception_4e/relu_3x3
I0913 17:52:34.049976 17050 net.cpp:148] Top shape: 10 320 14 14 (627200)
I0913 17:52:34.049980 17050 net.cpp:156] Memory required for data: 505648640
I0913 17:52:34.049985 17050 layer_factory.hpp:77] Creating layer inception_4e/5x5_reduce
I0913 17:52:34.050001 17050 net.cpp:91] Creating Layer inception_4e/5x5_reduce
I0913 17:52:34.050009 17050 net.cpp:425] inception_4e/5x5_reduce <- inception_4d/output_inception_4d/output_0_split_2
I0913 17:52:34.050019 17050 net.cpp:399] inception_4e/5x5_reduce -> inception_4e/5x5_reduce
I0913 17:52:34.051479 17050 net.cpp:141] Setting up inception_4e/5x5_reduce
I0913 17:52:34.051496 17050 net.cpp:148] Top shape: 10 32 14 14 (62720)
I0913 17:52:34.051501 17050 net.cpp:156] Memory required for data: 505899520
I0913 17:52:34.051509 17050 layer_factory.hpp:77] Creating layer inception_4e/relu_5x5_reduce
I0913 17:52:34.051520 17050 net.cpp:91] Creating Layer inception_4e/relu_5x5_reduce
I0913 17:52:34.051527 17050 net.cpp:425] inception_4e/relu_5x5_reduce <- inception_4e/5x5_reduce
I0913 17:52:34.051534 17050 net.cpp:386] inception_4e/relu_5x5_reduce -> inception_4e/5x5_reduce (in-place)
I0913 17:52:34.051951 17050 net.cpp:141] Setting up inception_4e/relu_5x5_reduce
I0913 17:52:34.051964 17050 net.cpp:148] Top shape: 10 32 14 14 (62720)
I0913 17:52:34.051969 17050 net.cpp:156] Memory required for data: 506150400
I0913 17:52:34.051973 17050 layer_factory.hpp:77] Creating layer inception_4e/5x5
I0913 17:52:34.051990 17050 net.cpp:91] Creating Layer inception_4e/5x5
I0913 17:52:34.051996 17050 net.cpp:425] inception_4e/5x5 <- inception_4e/5x5_reduce
I0913 17:52:34.052006 17050 net.cpp:399] inception_4e/5x5 -> inception_4e/5x5
I0913 17:52:34.054944 17050 net.cpp:141] Setting up inception_4e/5x5
I0913 17:52:34.054961 17050 net.cpp:148] Top shape: 10 128 14 14 (250880)
I0913 17:52:34.054966 17050 net.cpp:156] Memory required for data: 507153920
I0913 17:52:34.054975 17050 layer_factory.hpp:77] Creating layer inception_4e/relu_5x5
I0913 17:52:34.054983 17050 net.cpp:91] Creating Layer inception_4e/relu_5x5
I0913 17:52:34.054989 17050 net.cpp:425] inception_4e/relu_5x5 <- inception_4e/5x5
I0913 17:52:34.054998 17050 net.cpp:386] inception_4e/relu_5x5 -> inception_4e/5x5 (in-place)
I0913 17:52:34.055243 17050 net.cpp:141] Setting up inception_4e/relu_5x5
I0913 17:52:34.055254 17050 net.cpp:148] Top shape: 10 128 14 14 (250880)
I0913 17:52:34.055258 17050 net.cpp:156] Memory required for data: 508157440
I0913 17:52:34.055263 17050 layer_factory.hpp:77] Creating layer inception_4e/pool
I0913 17:52:34.055276 17050 net.cpp:91] Creating Layer inception_4e/pool
I0913 17:52:34.055282 17050 net.cpp:425] inception_4e/pool <- inception_4d/output_inception_4d/output_0_split_3
I0913 17:52:34.055290 17050 net.cpp:399] inception_4e/pool -> inception_4e/pool
I0913 17:52:34.055361 17050 net.cpp:141] Setting up inception_4e/pool
I0913 17:52:34.055369 17050 net.cpp:148] Top shape: 10 528 14 14 (1034880)
I0913 17:52:34.055373 17050 net.cpp:156] Memory required for data: 512296960
I0913 17:52:34.055378 17050 layer_factory.hpp:77] Creating layer inception_4e/pool_proj
I0913 17:52:34.055392 17050 net.cpp:91] Creating Layer inception_4e/pool_proj
I0913 17:52:34.055397 17050 net.cpp:425] inception_4e/pool_proj <- inception_4e/pool
I0913 17:52:34.055408 17050 net.cpp:399] inception_4e/pool_proj -> inception_4e/pool_proj
I0913 17:52:34.057395 17050 net.cpp:141] Setting up inception_4e/pool_proj
I0913 17:52:34.057412 17050 net.cpp:148] Top shape: 10 128 14 14 (250880)
I0913 17:52:34.057417 17050 net.cpp:156] Memory required for data: 513300480
I0913 17:52:34.057425 17050 layer_factory.hpp:77] Creating layer inception_4e/relu_pool_proj
I0913 17:52:34.057435 17050 net.cpp:91] Creating Layer inception_4e/relu_pool_proj
I0913 17:52:34.057440 17050 net.cpp:425] inception_4e/relu_pool_proj <- inception_4e/pool_proj
I0913 17:52:34.057446 17050 net.cpp:386] inception_4e/relu_pool_proj -> inception_4e/pool_proj (in-place)
I0913 17:52:34.057873 17050 net.cpp:141] Setting up inception_4e/relu_pool_proj
I0913 17:52:34.057886 17050 net.cpp:148] Top shape: 10 128 14 14 (250880)
I0913 17:52:34.057890 17050 net.cpp:156] Memory required for data: 514304000
I0913 17:52:34.057895 17050 layer_factory.hpp:77] Creating layer inception_4e/output
I0913 17:52:34.057904 17050 net.cpp:91] Creating Layer inception_4e/output
I0913 17:52:34.057909 17050 net.cpp:425] inception_4e/output <- inception_4e/1x1
I0913 17:52:34.057915 17050 net.cpp:425] inception_4e/output <- inception_4e/3x3
I0913 17:52:34.057921 17050 net.cpp:425] inception_4e/output <- inception_4e/5x5
I0913 17:52:34.057926 17050 net.cpp:425] inception_4e/output <- inception_4e/pool_proj
I0913 17:52:34.057936 17050 net.cpp:399] inception_4e/output -> inception_4e/output
I0913 17:52:34.057981 17050 net.cpp:141] Setting up inception_4e/output
I0913 17:52:34.057993 17050 net.cpp:148] Top shape: 10 832 14 14 (1630720)
I0913 17:52:34.057998 17050 net.cpp:156] Memory required for data: 520826880
I0913 17:52:34.058003 17050 layer_factory.hpp:77] Creating layer pool4/3x3_s2
I0913 17:52:34.058012 17050 net.cpp:91] Creating Layer pool4/3x3_s2
I0913 17:52:34.058017 17050 net.cpp:425] pool4/3x3_s2 <- inception_4e/output
I0913 17:52:34.058023 17050 net.cpp:399] pool4/3x3_s2 -> pool4/3x3_s2
I0913 17:52:34.058089 17050 net.cpp:141] Setting up pool4/3x3_s2
I0913 17:52:34.058099 17050 net.cpp:148] Top shape: 10 832 7 7 (407680)
I0913 17:52:34.058102 17050 net.cpp:156] Memory required for data: 522457600
I0913 17:52:34.058107 17050 layer_factory.hpp:77] Creating layer pool4/3x3_s2_pool4/3x3_s2_0_split
I0913 17:52:34.058115 17050 net.cpp:91] Creating Layer pool4/3x3_s2_pool4/3x3_s2_0_split
I0913 17:52:34.058120 17050 net.cpp:425] pool4/3x3_s2_pool4/3x3_s2_0_split <- pool4/3x3_s2
I0913 17:52:34.058130 17050 net.cpp:399] pool4/3x3_s2_pool4/3x3_s2_0_split -> pool4/3x3_s2_pool4/3x3_s2_0_split_0
I0913 17:52:34.058138 17050 net.cpp:399] pool4/3x3_s2_pool4/3x3_s2_0_split -> pool4/3x3_s2_pool4/3x3_s2_0_split_1
I0913 17:52:34.058146 17050 net.cpp:399] pool4/3x3_s2_pool4/3x3_s2_0_split -> pool4/3x3_s2_pool4/3x3_s2_0_split_2
I0913 17:52:34.058153 17050 net.cpp:399] pool4/3x3_s2_pool4/3x3_s2_0_split -> pool4/3x3_s2_pool4/3x3_s2_0_split_3
I0913 17:52:34.058253 17050 net.cpp:141] Setting up pool4/3x3_s2_pool4/3x3_s2_0_split
I0913 17:52:34.058261 17050 net.cpp:148] Top shape: 10 832 7 7 (407680)
I0913 17:52:34.058267 17050 net.cpp:148] Top shape: 10 832 7 7 (407680)
I0913 17:52:34.058272 17050 net.cpp:148] Top shape: 10 832 7 7 (407680)
I0913 17:52:34.058277 17050 net.cpp:148] Top shape: 10 832 7 7 (407680)
I0913 17:52:34.058281 17050 net.cpp:156] Memory required for data: 528980480
I0913 17:52:34.058286 17050 layer_factory.hpp:77] Creating layer inception_5a/1x1
I0913 17:52:34.058300 17050 net.cpp:91] Creating Layer inception_5a/1x1
I0913 17:52:34.058305 17050 net.cpp:425] inception_5a/1x1 <- pool4/3x3_s2_pool4/3x3_s2_0_split_0
I0913 17:52:34.058315 17050 net.cpp:399] inception_5a/1x1 -> inception_5a/1x1
I0913 17:52:34.061947 17050 net.cpp:141] Setting up inception_5a/1x1
I0913 17:52:34.061965 17050 net.cpp:148] Top shape: 10 256 7 7 (125440)
I0913 17:52:34.061970 17050 net.cpp:156] Memory required for data: 529482240
I0913 17:52:34.061980 17050 layer_factory.hpp:77] Creating layer inception_5a/relu_1x1
I0913 17:52:34.061987 17050 net.cpp:91] Creating Layer inception_5a/relu_1x1
I0913 17:52:34.061993 17050 net.cpp:425] inception_5a/relu_1x1 <- inception_5a/1x1
I0913 17:52:34.062000 17050 net.cpp:386] inception_5a/relu_1x1 -> inception_5a/1x1 (in-place)
I0913 17:52:34.062429 17050 net.cpp:141] Setting up inception_5a/relu_1x1
I0913 17:52:34.062443 17050 net.cpp:148] Top shape: 10 256 7 7 (125440)
I0913 17:52:34.062446 17050 net.cpp:156] Memory required for data: 529984000
I0913 17:52:34.062451 17050 layer_factory.hpp:77] Creating layer inception_5a/3x3_reduce
I0913 17:52:34.062468 17050 net.cpp:91] Creating Layer inception_5a/3x3_reduce
I0913 17:52:34.062474 17050 net.cpp:425] inception_5a/3x3_reduce <- pool4/3x3_s2_pool4/3x3_s2_0_split_1
I0913 17:52:34.062484 17050 net.cpp:399] inception_5a/3x3_reduce -> inception_5a/3x3_reduce
I0913 17:52:34.065690 17050 net.cpp:141] Setting up inception_5a/3x3_reduce
I0913 17:52:34.065708 17050 net.cpp:148] Top shape: 10 160 7 7 (78400)
I0913 17:52:34.065713 17050 net.cpp:156] Memory required for data: 530297600
I0913 17:52:34.065722 17050 layer_factory.hpp:77] Creating layer inception_5a/relu_3x3_reduce
I0913 17:52:34.065733 17050 net.cpp:91] Creating Layer inception_5a/relu_3x3_reduce
I0913 17:52:34.065739 17050 net.cpp:425] inception_5a/relu_3x3_reduce <- inception_5a/3x3_reduce
I0913 17:52:34.065747 17050 net.cpp:386] inception_5a/relu_3x3_reduce -> inception_5a/3x3_reduce (in-place)
I0913 17:52:34.065999 17050 net.cpp:141] Setting up inception_5a/relu_3x3_reduce
I0913 17:52:34.066009 17050 net.cpp:148] Top shape: 10 160 7 7 (78400)
I0913 17:52:34.066015 17050 net.cpp:156] Memory required for data: 530611200
I0913 17:52:34.066018 17050 layer_factory.hpp:77] Creating layer inception_5a/3x3
I0913 17:52:34.066033 17050 net.cpp:91] Creating Layer inception_5a/3x3
I0913 17:52:34.066040 17050 net.cpp:425] inception_5a/3x3 <- inception_5a/3x3_reduce
I0913 17:52:34.066051 17050 net.cpp:399] inception_5a/3x3 -> inception_5a/3x3
I0913 17:52:34.072480 17050 net.cpp:141] Setting up inception_5a/3x3
I0913 17:52:34.072499 17050 net.cpp:148] Top shape: 10 320 7 7 (156800)
I0913 17:52:34.072504 17050 net.cpp:156] Memory required for data: 531238400
I0913 17:52:34.072513 17050 layer_factory.hpp:77] Creating layer inception_5a/relu_3x3
I0913 17:52:34.072522 17050 net.cpp:91] Creating Layer inception_5a/relu_3x3
I0913 17:52:34.072528 17050 net.cpp:425] inception_5a/relu_3x3 <- inception_5a/3x3
I0913 17:52:34.072538 17050 net.cpp:386] inception_5a/relu_3x3 -> inception_5a/3x3 (in-place)
I0913 17:52:34.072978 17050 net.cpp:141] Setting up inception_5a/relu_3x3
I0913 17:52:34.072989 17050 net.cpp:148] Top shape: 10 320 7 7 (156800)
I0913 17:52:34.072994 17050 net.cpp:156] Memory required for data: 531865600
I0913 17:52:34.072999 17050 layer_factory.hpp:77] Creating layer inception_5a/5x5_reduce
I0913 17:52:34.073017 17050 net.cpp:91] Creating Layer inception_5a/5x5_reduce
I0913 17:52:34.073024 17050 net.cpp:425] inception_5a/5x5_reduce <- pool4/3x3_s2_pool4/3x3_s2_0_split_2
I0913 17:52:34.073035 17050 net.cpp:399] inception_5a/5x5_reduce -> inception_5a/5x5_reduce
I0913 17:52:34.074607 17050 net.cpp:141] Setting up inception_5a/5x5_reduce
I0913 17:52:34.074625 17050 net.cpp:148] Top shape: 10 32 7 7 (15680)
I0913 17:52:34.074630 17050 net.cpp:156] Memory required for data: 531928320
I0913 17:52:34.074637 17050 layer_factory.hpp:77] Creating layer inception_5a/relu_5x5_reduce
I0913 17:52:34.074645 17050 net.cpp:91] Creating Layer inception_5a/relu_5x5_reduce
I0913 17:52:34.074651 17050 net.cpp:425] inception_5a/relu_5x5_reduce <- inception_5a/5x5_reduce
I0913 17:52:34.074662 17050 net.cpp:386] inception_5a/relu_5x5_reduce -> inception_5a/5x5_reduce (in-place)
I0913 17:52:34.075083 17050 net.cpp:141] Setting up inception_5a/relu_5x5_reduce
I0913 17:52:34.075095 17050 net.cpp:148] Top shape: 10 32 7 7 (15680)
I0913 17:52:34.075099 17050 net.cpp:156] Memory required for data: 531991040
I0913 17:52:34.075104 17050 layer_factory.hpp:77] Creating layer inception_5a/5x5
I0913 17:52:34.075121 17050 net.cpp:91] Creating Layer inception_5a/5x5
I0913 17:52:34.075129 17050 net.cpp:425] inception_5a/5x5 <- inception_5a/5x5_reduce
I0913 17:52:34.075136 17050 net.cpp:399] inception_5a/5x5 -> inception_5a/5x5
I0913 17:52:34.077400 17050 net.cpp:141] Setting up inception_5a/5x5
I0913 17:52:34.077417 17050 net.cpp:148] Top shape: 10 128 7 7 (62720)
I0913 17:52:34.077422 17050 net.cpp:156] Memory required for data: 532241920
I0913 17:52:34.077431 17050 layer_factory.hpp:77] Creating layer inception_5a/relu_5x5
I0913 17:52:34.077462 17050 net.cpp:91] Creating Layer inception_5a/relu_5x5
I0913 17:52:34.077468 17050 net.cpp:425] inception_5a/relu_5x5 <- inception_5a/5x5
I0913 17:52:34.077479 17050 net.cpp:386] inception_5a/relu_5x5 -> inception_5a/5x5 (in-place)
I0913 17:52:34.077726 17050 net.cpp:141] Setting up inception_5a/relu_5x5
I0913 17:52:34.077739 17050 net.cpp:148] Top shape: 10 128 7 7 (62720)
I0913 17:52:34.077742 17050 net.cpp:156] Memory required for data: 532492800
I0913 17:52:34.077749 17050 layer_factory.hpp:77] Creating layer inception_5a/pool
I0913 17:52:34.077759 17050 net.cpp:91] Creating Layer inception_5a/pool
I0913 17:52:34.077764 17050 net.cpp:425] inception_5a/pool <- pool4/3x3_s2_pool4/3x3_s2_0_split_3
I0913 17:52:34.077771 17050 net.cpp:399] inception_5a/pool -> inception_5a/pool
I0913 17:52:34.077844 17050 net.cpp:141] Setting up inception_5a/pool
I0913 17:52:34.077854 17050 net.cpp:148] Top shape: 10 832 7 7 (407680)
I0913 17:52:34.077858 17050 net.cpp:156] Memory required for data: 534123520
I0913 17:52:34.077862 17050 layer_factory.hpp:77] Creating layer inception_5a/pool_proj
I0913 17:52:34.077877 17050 net.cpp:91] Creating Layer inception_5a/pool_proj
I0913 17:52:34.077883 17050 net.cpp:425] inception_5a/pool_proj <- inception_5a/pool
I0913 17:52:34.077894 17050 net.cpp:399] inception_5a/pool_proj -> inception_5a/pool_proj
I0913 17:52:34.080932 17050 net.cpp:141] Setting up inception_5a/pool_proj
I0913 17:52:34.080952 17050 net.cpp:148] Top shape: 10 128 7 7 (62720)
I0913 17:52:34.080958 17050 net.cpp:156] Memory required for data: 534374400
I0913 17:52:34.080967 17050 layer_factory.hpp:77] Creating layer inception_5a/relu_pool_proj
I0913 17:52:34.080976 17050 net.cpp:91] Creating Layer inception_5a/relu_pool_proj
I0913 17:52:34.080981 17050 net.cpp:425] inception_5a/relu_pool_proj <- inception_5a/pool_proj
I0913 17:52:34.080988 17050 net.cpp:386] inception_5a/relu_pool_proj -> inception_5a/pool_proj (in-place)
I0913 17:52:34.081423 17050 net.cpp:141] Setting up inception_5a/relu_pool_proj
I0913 17:52:34.081437 17050 net.cpp:148] Top shape: 10 128 7 7 (62720)
I0913 17:52:34.081442 17050 net.cpp:156] Memory required for data: 534625280
I0913 17:52:34.081447 17050 layer_factory.hpp:77] Creating layer inception_5a/output
I0913 17:52:34.081456 17050 net.cpp:91] Creating Layer inception_5a/output
I0913 17:52:34.081461 17050 net.cpp:425] inception_5a/output <- inception_5a/1x1
I0913 17:52:34.081468 17050 net.cpp:425] inception_5a/output <- inception_5a/3x3
I0913 17:52:34.081473 17050 net.cpp:425] inception_5a/output <- inception_5a/5x5
I0913 17:52:34.081478 17050 net.cpp:425] inception_5a/output <- inception_5a/pool_proj
I0913 17:52:34.081485 17050 net.cpp:399] inception_5a/output -> inception_5a/output
I0913 17:52:34.081537 17050 net.cpp:141] Setting up inception_5a/output
I0913 17:52:34.081547 17050 net.cpp:148] Top shape: 10 832 7 7 (407680)
I0913 17:52:34.081550 17050 net.cpp:156] Memory required for data: 536256000
I0913 17:52:34.081554 17050 layer_factory.hpp:77] Creating layer inception_5a/output_inception_5a/output_0_split
I0913 17:52:34.081569 17050 net.cpp:91] Creating Layer inception_5a/output_inception_5a/output_0_split
I0913 17:52:34.081574 17050 net.cpp:425] inception_5a/output_inception_5a/output_0_split <- inception_5a/output
I0913 17:52:34.081581 17050 net.cpp:399] inception_5a/output_inception_5a/output_0_split -> inception_5a/output_inception_5a/output_0_split_0
I0913 17:52:34.081589 17050 net.cpp:399] inception_5a/output_inception_5a/output_0_split -> inception_5a/output_inception_5a/output_0_split_1
I0913 17:52:34.081598 17050 net.cpp:399] inception_5a/output_inception_5a/output_0_split -> inception_5a/output_inception_5a/output_0_split_2
I0913 17:52:34.081605 17050 net.cpp:399] inception_5a/output_inception_5a/output_0_split -> inception_5a/output_inception_5a/output_0_split_3
I0913 17:52:34.081709 17050 net.cpp:141] Setting up inception_5a/output_inception_5a/output_0_split
I0913 17:52:34.081719 17050 net.cpp:148] Top shape: 10 832 7 7 (407680)
I0913 17:52:34.081724 17050 net.cpp:148] Top shape: 10 832 7 7 (407680)
I0913 17:52:34.081730 17050 net.cpp:148] Top shape: 10 832 7 7 (407680)
I0913 17:52:34.081735 17050 net.cpp:148] Top shape: 10 832 7 7 (407680)
I0913 17:52:34.081739 17050 net.cpp:156] Memory required for data: 542778880
I0913 17:52:34.081743 17050 layer_factory.hpp:77] Creating layer inception_5b/1x1
I0913 17:52:34.081758 17050 net.cpp:91] Creating Layer inception_5b/1x1
I0913 17:52:34.081764 17050 net.cpp:425] inception_5b/1x1 <- inception_5a/output_inception_5a/output_0_split_0
I0913 17:52:34.081774 17050 net.cpp:399] inception_5b/1x1 -> inception_5b/1x1
I0913 17:52:34.086333 17050 net.cpp:141] Setting up inception_5b/1x1
I0913 17:52:34.086350 17050 net.cpp:148] Top shape: 10 384 7 7 (188160)
I0913 17:52:34.086355 17050 net.cpp:156] Memory required for data: 543531520
I0913 17:52:34.086364 17050 layer_factory.hpp:77] Creating layer inception_5b/relu_1x1
I0913 17:52:34.086376 17050 net.cpp:91] Creating Layer inception_5b/relu_1x1
I0913 17:52:34.086382 17050 net.cpp:425] inception_5b/relu_1x1 <- inception_5b/1x1
I0913 17:52:34.086391 17050 net.cpp:386] inception_5b/relu_1x1 -> inception_5b/1x1 (in-place)
I0913 17:52:34.086818 17050 net.cpp:141] Setting up inception_5b/relu_1x1
I0913 17:52:34.086830 17050 net.cpp:148] Top shape: 10 384 7 7 (188160)
I0913 17:52:34.086835 17050 net.cpp:156] Memory required for data: 544284160
I0913 17:52:34.086840 17050 layer_factory.hpp:77] Creating layer inception_5b/3x3_reduce
I0913 17:52:34.086855 17050 net.cpp:91] Creating Layer inception_5b/3x3_reduce
I0913 17:52:34.086861 17050 net.cpp:425] inception_5b/3x3_reduce <- inception_5a/output_inception_5a/output_0_split_1
I0913 17:52:34.086872 17050 net.cpp:399] inception_5b/3x3_reduce -> inception_5b/3x3_reduce
I0913 17:52:34.090345 17050 net.cpp:141] Setting up inception_5b/3x3_reduce
I0913 17:52:34.090365 17050 net.cpp:148] Top shape: 10 192 7 7 (94080)
I0913 17:52:34.090370 17050 net.cpp:156] Memory required for data: 544660480
I0913 17:52:34.090381 17050 layer_factory.hpp:77] Creating layer inception_5b/relu_3x3_reduce
I0913 17:52:34.090390 17050 net.cpp:91] Creating Layer inception_5b/relu_3x3_reduce
I0913 17:52:34.090396 17050 net.cpp:425] inception_5b/relu_3x3_reduce <- inception_5b/3x3_reduce
I0913 17:52:34.090405 17050 net.cpp:386] inception_5b/relu_3x3_reduce -> inception_5b/3x3_reduce (in-place)
I0913 17:52:34.090653 17050 net.cpp:141] Setting up inception_5b/relu_3x3_reduce
I0913 17:52:34.090665 17050 net.cpp:148] Top shape: 10 192 7 7 (94080)
I0913 17:52:34.090669 17050 net.cpp:156] Memory required for data: 545036800
I0913 17:52:34.090674 17050 layer_factory.hpp:77] Creating layer inception_5b/3x3
I0913 17:52:34.090692 17050 net.cpp:91] Creating Layer inception_5b/3x3
I0913 17:52:34.090698 17050 net.cpp:425] inception_5b/3x3 <- inception_5b/3x3_reduce
I0913 17:52:34.090706 17050 net.cpp:399] inception_5b/3x3 -> inception_5b/3x3
I0913 17:52:34.098495 17050 net.cpp:141] Setting up inception_5b/3x3
I0913 17:52:34.098517 17050 net.cpp:148] Top shape: 10 384 7 7 (188160)
I0913 17:52:34.098522 17050 net.cpp:156] Memory required for data: 545789440
I0913 17:52:34.098531 17050 layer_factory.hpp:77] Creating layer inception_5b/relu_3x3
I0913 17:52:34.098541 17050 net.cpp:91] Creating Layer inception_5b/relu_3x3
I0913 17:52:34.098547 17050 net.cpp:425] inception_5b/relu_3x3 <- inception_5b/3x3
I0913 17:52:34.098558 17050 net.cpp:386] inception_5b/relu_3x3 -> inception_5b/3x3 (in-place)
I0913 17:52:34.098995 17050 net.cpp:141] Setting up inception_5b/relu_3x3
I0913 17:52:34.099011 17050 net.cpp:148] Top shape: 10 384 7 7 (188160)
I0913 17:52:34.099016 17050 net.cpp:156] Memory required for data: 546542080
I0913 17:52:34.099021 17050 layer_factory.hpp:77] Creating layer inception_5b/5x5_reduce
I0913 17:52:34.099037 17050 net.cpp:91] Creating Layer inception_5b/5x5_reduce
I0913 17:52:34.099045 17050 net.cpp:425] inception_5b/5x5_reduce <- inception_5a/output_inception_5a/output_0_split_2
I0913 17:52:34.099056 17050 net.cpp:399] inception_5b/5x5_reduce -> inception_5b/5x5_reduce
I0913 17:52:34.100780 17050 net.cpp:141] Setting up inception_5b/5x5_reduce
I0913 17:52:34.100796 17050 net.cpp:148] Top shape: 10 48 7 7 (23520)
I0913 17:52:34.100801 17050 net.cpp:156] Memory required for data: 546636160
I0913 17:52:34.100811 17050 layer_factory.hpp:77] Creating layer inception_5b/relu_5x5_reduce
I0913 17:52:34.100818 17050 net.cpp:91] Creating Layer inception_5b/relu_5x5_reduce
I0913 17:52:34.100824 17050 net.cpp:425] inception_5b/relu_5x5_reduce <- inception_5b/5x5_reduce
I0913 17:52:34.100832 17050 net.cpp:386] inception_5b/relu_5x5_reduce -> inception_5b/5x5_reduce (in-place)
I0913 17:52:34.101261 17050 net.cpp:141] Setting up inception_5b/relu_5x5_reduce
I0913 17:52:34.101276 17050 net.cpp:148] Top shape: 10 48 7 7 (23520)
I0913 17:52:34.101281 17050 net.cpp:156] Memory required for data: 546730240
I0913 17:52:34.101286 17050 layer_factory.hpp:77] Creating layer inception_5b/5x5
I0913 17:52:34.101302 17050 net.cpp:91] Creating Layer inception_5b/5x5
I0913 17:52:34.101308 17050 net.cpp:425] inception_5b/5x5 <- inception_5b/5x5_reduce
I0913 17:52:34.101320 17050 net.cpp:399] inception_5b/5x5 -> inception_5b/5x5
I0913 17:52:34.104310 17050 net.cpp:141] Setting up inception_5b/5x5
I0913 17:52:34.104327 17050 net.cpp:148] Top shape: 10 128 7 7 (62720)
I0913 17:52:34.104332 17050 net.cpp:156] Memory required for data: 546981120
I0913 17:52:34.104341 17050 layer_factory.hpp:77] Creating layer inception_5b/relu_5x5
I0913 17:52:34.104354 17050 net.cpp:91] Creating Layer inception_5b/relu_5x5
I0913 17:52:34.104360 17050 net.cpp:425] inception_5b/relu_5x5 <- inception_5b/5x5
I0913 17:52:34.104367 17050 net.cpp:386] inception_5b/relu_5x5 -> inception_5b/5x5 (in-place)
I0913 17:52:34.104619 17050 net.cpp:141] Setting up inception_5b/relu_5x5
I0913 17:52:34.104631 17050 net.cpp:148] Top shape: 10 128 7 7 (62720)
I0913 17:52:34.104635 17050 net.cpp:156] Memory required for data: 547232000
I0913 17:52:34.104640 17050 layer_factory.hpp:77] Creating layer inception_5b/pool
I0913 17:52:34.104650 17050 net.cpp:91] Creating Layer inception_5b/pool
I0913 17:52:34.104655 17050 net.cpp:425] inception_5b/pool <- inception_5a/output_inception_5a/output_0_split_3
I0913 17:52:34.104666 17050 net.cpp:399] inception_5b/pool -> inception_5b/pool
I0913 17:52:34.104743 17050 net.cpp:141] Setting up inception_5b/pool
I0913 17:52:34.104753 17050 net.cpp:148] Top shape: 10 832 7 7 (407680)
I0913 17:52:34.104756 17050 net.cpp:156] Memory required for data: 548862720
I0913 17:52:34.104761 17050 layer_factory.hpp:77] Creating layer inception_5b/pool_proj
I0913 17:52:34.104779 17050 net.cpp:91] Creating Layer inception_5b/pool_proj
I0913 17:52:34.104784 17050 net.cpp:425] inception_5b/pool_proj <- inception_5b/pool
I0913 17:52:34.104792 17050 net.cpp:399] inception_5b/pool_proj -> inception_5b/pool_proj
I0913 17:52:34.107880 17050 net.cpp:141] Setting up inception_5b/pool_proj
I0913 17:52:34.107898 17050 net.cpp:148] Top shape: 10 128 7 7 (62720)
I0913 17:52:34.107903 17050 net.cpp:156] Memory required for data: 549113600
I0913 17:52:34.107913 17050 layer_factory.hpp:77] Creating layer inception_5b/relu_pool_proj
I0913 17:52:34.107920 17050 net.cpp:91] Creating Layer inception_5b/relu_pool_proj
I0913 17:52:34.107926 17050 net.cpp:425] inception_5b/relu_pool_proj <- inception_5b/pool_proj
I0913 17:52:34.107938 17050 net.cpp:386] inception_5b/relu_pool_proj -> inception_5b/pool_proj (in-place)
I0913 17:52:34.108388 17050 net.cpp:141] Setting up inception_5b/relu_pool_proj
I0913 17:52:34.108404 17050 net.cpp:148] Top shape: 10 128 7 7 (62720)
I0913 17:52:34.108409 17050 net.cpp:156] Memory required for data: 549364480
I0913 17:52:34.108415 17050 layer_factory.hpp:77] Creating layer inception_5b/output
I0913 17:52:34.108423 17050 net.cpp:91] Creating Layer inception_5b/output
I0913 17:52:34.108429 17050 net.cpp:425] inception_5b/output <- inception_5b/1x1
I0913 17:52:34.108435 17050 net.cpp:425] inception_5b/output <- inception_5b/3x3
I0913 17:52:34.108440 17050 net.cpp:425] inception_5b/output <- inception_5b/5x5
I0913 17:52:34.108445 17050 net.cpp:425] inception_5b/output <- inception_5b/pool_proj
I0913 17:52:34.108456 17050 net.cpp:399] inception_5b/output -> inception_5b/output
I0913 17:52:34.108508 17050 net.cpp:141] Setting up inception_5b/output
I0913 17:52:34.108518 17050 net.cpp:148] Top shape: 10 1024 7 7 (501760)
I0913 17:52:34.108522 17050 net.cpp:156] Memory required for data: 551371520
I0913 17:52:34.108526 17050 layer_factory.hpp:77] Creating layer pool5/7x7_s1
I0913 17:52:34.108535 17050 net.cpp:91] Creating Layer pool5/7x7_s1
I0913 17:52:34.108539 17050 net.cpp:425] pool5/7x7_s1 <- inception_5b/output
I0913 17:52:34.108546 17050 net.cpp:399] pool5/7x7_s1 -> pool5/7x7_s1
I0913 17:52:34.108850 17050 net.cpp:141] Setting up pool5/7x7_s1
I0913 17:52:34.108862 17050 net.cpp:148] Top shape: 10 1024 1 1 (10240)
I0913 17:52:34.108867 17050 net.cpp:156] Memory required for data: 551412480
I0913 17:52:34.108871 17050 layer_factory.hpp:77] Creating layer pool5/drop_7x7_s1
I0913 17:52:34.108896 17050 net.cpp:91] Creating Layer pool5/drop_7x7_s1
I0913 17:52:34.108902 17050 net.cpp:425] pool5/drop_7x7_s1 <- pool5/7x7_s1
I0913 17:52:34.108909 17050 net.cpp:386] pool5/drop_7x7_s1 -> pool5/7x7_s1 (in-place)
I0913 17:52:34.108963 17050 net.cpp:141] Setting up pool5/drop_7x7_s1
I0913 17:52:34.108973 17050 net.cpp:148] Top shape: 10 1024 1 1 (10240)
I0913 17:52:34.108976 17050 net.cpp:156] Memory required for data: 551453440
I0913 17:52:34.108981 17050 layer_factory.hpp:77] Creating layer loss3/classifier
I0913 17:52:34.108992 17050 net.cpp:91] Creating Layer loss3/classifier
I0913 17:52:34.108996 17050 net.cpp:425] loss3/classifier <- pool5/7x7_s1
I0913 17:52:34.109009 17050 net.cpp:399] loss3/classifier -> loss3/classifier
I0913 17:52:34.118862 17050 net.cpp:141] Setting up loss3/classifier
I0913 17:52:34.118885 17050 net.cpp:148] Top shape: 10 1000 (10000)
I0913 17:52:34.118891 17050 net.cpp:156] Memory required for data: 551493440
I0913 17:52:34.118901 17050 layer_factory.hpp:77] Creating layer prob
I0913 17:52:34.118911 17050 net.cpp:91] Creating Layer prob
I0913 17:52:34.118917 17050 net.cpp:425] prob <- loss3/classifier
I0913 17:52:34.118924 17050 net.cpp:399] prob -> prob
I0913 17:52:34.119509 17050 net.cpp:141] Setting up prob
I0913 17:52:34.119525 17050 net.cpp:148] Top shape: 10 1000 (10000)
I0913 17:52:34.119530 17050 net.cpp:156] Memory required for data: 551533440
I0913 17:52:34.119535 17050 net.cpp:219] prob does not need backward computation.
I0913 17:52:34.119540 17050 net.cpp:219] loss3/classifier does not need backward computation.
I0913 17:52:34.119545 17050 net.cpp:219] pool5/drop_7x7_s1 does not need backward computation.
I0913 17:52:34.119549 17050 net.cpp:219] pool5/7x7_s1 does not need backward computation.
…
