…
Java HotSpot(TM) 64-Bit Server VM warning: You have loaded library /tmp/cvld716364196068742875/libopencv_java310.xine1.so which might have disabled stack guard. The VM will try to fix the stack guard now.
It's highly recommended that you fix the library with 'execstack -c <libfile>', or link it with '-z noexecstack'.
WARNING: Logging before InitGoogleLogging() is written to STDERR
I0715 00:31:14.128237 20377 net.cpp:49] Initializing net from parameters: 
name: "GoogleNet"
state {
  phase: TEST
}
layer {
  name: "data"
  type: "Input"
  top: "data"
  input_param {
    shape {
      dim: 10
      dim: 3
      dim: 224
      dim: 224
    }
  }
}
layer {
  name: "conv1/7x7_s2"
  type: "Convolution"
  bottom: "data"
  top: "conv1/7x7_s2"
  param {
    lr_mult: 1
    decay_mult: 1
  }
  param {
    lr_mult: 2
    decay_mult: 0
  }
  convolution_param {
    num_output: 64
    pad: 3
    kernel_size: 7
    stride: 2
    weight_filler {
      type: "xavier"
      std: 0.1
    }
    bias_filler {
      type: "constant"
      value: 0.2
    }
  }
}
layer {
  name: "conv1/relu_7x7"
  type: "ReLU"
  bottom: "conv1/7x7_s2"
  top: "conv1/7x7_s2"
}
layer {
  name: "pool1/3x3_s2"
  type: "Pooling"
  bottom: "conv1/7x7_s2"
  top: "pool1/3x3_s2"
  pooling_param {
    pool: MAX
    kernel_size: 3
    stride: 2
  }
}
layer {
  name: "pool1/norm1"
  type: "LRN"
  bottom: "pool1/3x3_s2"
  top: "pool1/norm1"
  lrn_param {
    local_size: 5
    alpha: 0.0001
    beta: 0.75
  }
}
layer {
  name: "conv2/3x3_reduce"
  type: "Convolution"
  bottom: "pool1/norm1"
  top: "conv2/3x3_reduce"
  param {
    lr_mult: 1
    decay_mult: 1
  }
  param {
    lr_mult: 2
    decay_mult: 0
  }
  convolution_param {
    num_output: 64
    kernel_size: 1
    weight_filler {
      type: "xavier"
      std: 0.1
    }
    bias_filler {
      type: "constant"
      value: 0.2
    }
  }
}
layer {
  name: "conv2/relu_3x3_reduce"
  type: "ReLU"
  bottom: "conv2/3x3_reduce"
  top: "conv2/3x3_reduce"
}
layer {
  name: "conv2/3x3"
  type: "Convolution"
  bottom: "conv2/3x3_reduce"
  top: "conv2/3x3"
  param {
    lr_mult: 1
    decay_mult: 1
  }
  param {
    lr_mult: 2
    decay_mult: 0
  }
  convolution_param {
    num_output: 192
    pad: 1
    kernel_size: 3
    weight_filler {
      type: "xavier"
      std: 0.03
    }
    bias_filler {
      type: "constant"
      value: 0.2
    }
  }
}
layer {
  name: "conv2/relu_3x3"
  type: "ReLU"
  bottom: "conv2/3x3"
  top: "conv2/3x3"
}
layer {
  name: "conv2/norm2"
  type: "LRN"
  bottom: "conv2/3x3"
  top: "conv2/norm2"
  lrn_param {
    local_size: 5
    alpha: 0.0001
    beta: 0.75
  }
}
layer {
  name: "pool2/3x3_s2"
  type: "Pooling"
  bottom: "conv2/norm2"
  top: "pool2/3x3_s2"
  pooling_param {
    pool: MAX
    kernel_size: 3
    stride: 2
  }
}
layer {
  name: "inception_3a/1x1"
  type: "Convolution"
  bottom: "pool2/3x3_s2"
  top: "inception_3a/1x1"
  param {
    lr_mult: 1
    decay_mult: 1
  }
  param {
    lr_mult: 2
    decay_mult: 0
  }
  convolution_param {
    num_output: 64
    kernel_size: 1
    weight_filler {
      type: "xavier"
      std: 0.03
    }
    bias_filler {
      type: "constant"
      value: 0.2
    }
  }
}
layer {
  name: "inception_3a/relu_1x1"
  type: "ReLU"
  bottom: "inception_3a/1x1"
  top: "inception_3a/1x1"
}
layer {
  name: "inception_3a/3x3_reduce"
  type: "Convolution"
  bottom: "pool2/3x3_s2"
  top: "inception_3a/3x3_reduce"
  param {
    lr_mult: 1
    decay_mult: 1
  }
  param {
    lr_mult: 2
    decay_mult: 0
  }
  convolution_param {
    num_output: 96
    kernel_size: 1
    weight_filler {
      type: "xavier"
      std: 0.09
    }
    bias_filler {
      type: "constant"
      value: 0.2
    }
  }
}
layer {
  name: "inception_3a/relu_3x3_reduce"
  type: "ReLU"
  bottom: "inception_3a/3x3_reduce"
  top: "inception_3a/3x3_reduce"
}
layer {
  name: "inception_3a/3x3"
  type: "Convolution"
  bottom: "inception_3a/3x3_reduce"
  top: "inception_3a/3x3"
  param {
    lr_mult: 1
    decay_mult: 1
  }
  param {
    lr_mult: 2
    decay_mult: 0
  }
  convolution_param {
    num_output: 128
    pad: 1
    kernel_size: 3
    weight_filler {
      type: "xavier"
      std: 0.03
    }
    bias_filler {
      type: "constant"
      value: 0.2
    }
  }
}
layer {
  name: "inception_3a/relu_3x3"
  type: "ReLU"
  bottom: "inception_3a/3x3"
  top: "inception_3a/3x3"
}
layer {
  name: "inception_3a/5x5_reduce"
  type: "Convolution"
  bottom: "pool2/3x3_s2"
  top: "inception_3a/5x5_reduce"
  param {
    lr_mult: 1
    decay_mult: 1
  }
  param {
    lr_mult: 2
    decay_mult: 0
  }
  convolution_param {
    num_output: 16
    kernel_size: 1
    weight_filler {
      type: "xavier"
      std: 0.2
    }
    bias_filler {
      type: "constant"
      value: 0.2
    }
  }
}
layer {
  name: "inception_3a/relu_5x5_reduce"
  type: "ReLU"
  bottom: "inception_3a/5x5_reduce"
  top: "inception_3a/5x5_reduce"
}
layer {
  name: "inception_3a/5x5"
  type: "Convolution"
  bottom: "inception_3a/5x5_reduce"
  top: "inception_3a/5x5"
  param {
    lr_mult: 1
    decay_mult: 1
  }
  param {
    lr_mult: 2
    decay_mult: 0
  }
  convolution_param {
    num_output: 32
    pad: 2
    kernel_size: 5
    weight_filler {
      type: "xavier"
      std: 0.03
    }
    bias_filler {
      type: "constant"
      value: 0.2
    }
  }
}
layer {
  name: "inception_3a/relu_5x5"
  type: "ReLU"
  bottom: "inception_3a/5x5"
  top: "inception_3a/5x5"
}
layer {
  name: "inception_3a/pool"
  type: "Pooling"
  bottom: "pool2/3x3_s2"
  top: "inception_3a/pool"
  pooling_param {
    pool: MAX
    kernel_size: 3
    stride: 1
    pad: 1
  }
}
layer {
  name: "inception_3a/pool_proj"
  type: "Convolution"
  bottom: "inception_3a/pool"
  top: "inception_3a/pool_proj"
  param {
    lr_mult: 1
    decay_mult: 1
  }
  param {
    lr_mult: 2
    decay_mult: 0
  }
  convolution_param {
    num_output: 32
    kernel_size: 1
    weight_filler {
      type: "xavier"
      std: 0.1
    }
    bias_filler {
      type: "constant"
      value: 0.2
    }
  }
}
layer {
  name: "inception_3a/relu_pool_proj"
  type: "ReLU"
  bottom: "inception_3a/pool_proj"
  top: "inception_3a/pool_proj"
}
layer {
  name: "inception_3a/output"
  type: "Concat"
  bottom: "inception_3a/1x1"
  bottom: "inception_3a/3x3"
  bottom: "inception_3a/5x5"
  bottom: "inception_3a/pool_proj"
  top: "inception_3a/output"
}
layer {
  name: "inception_3b/1x1"
  type: "Convolution"
  bottom: "inception_3a/output"
  top: "inception_3b/1x1"
  param {
    lr_mult: 1
    decay_mult: 1
  }
  param {
    lr_mult: 2
    decay_mult: 0
  }
  convolution_param {
    num_output: 128
    kernel_size: 1
    weight_filler {
      type: "xavier"
      std: 0.03
    }
    bias_filler {
      type: "constant"
      value: 0.2
    }
  }
}
layer {
  name: "inception_3b/relu_1x1"
  type: "ReLU"
  bottom: "inception_3b/1x1"
  top: "inception_3b/1x1"
}
layer {
  name: "inception_3b/3x3_reduce"
  type: "Convolution"
  bottom: "inception_3a/output"
  top: "inception_3b/3x3_reduce"
  param {
    lr_mult: 1
    decay_mult: 1
  }
  param {
    lr_mult: 2
    decay_mult: 0
  }
  convolution_param {
    num_output: 128
    kernel_size: 1
    weight_filler {
      type: "xavier"
      std: 0.09
    }
    bias_filler {
      type: "constant"
      value: 0.2
    }
  }
}
layer {
  name: "inception_3b/relu_3x3_reduce"
  type: "ReLU"
  bottom: "inception_3b/3x3_reduce"
  top: "inception_3b/3x3_reduce"
}
layer {
  name: "inception_3b/3x3"
  type: "Convolution"
  bottom: "inception_3b/3x3_reduce"
  top: "inception_3b/3x3"
  param {
    lr_mult: 1
    decay_mult: 1
  }
  param {
    lr_mult: 2
    decay_mult: 0
  }
  convolution_param {
    num_output: 192
    pad: 1
    kernel_size: 3
    weight_filler {
      type: "xavier"
      std: 0.03
    }
    bias_filler {
      type: "constant"
      value: 0.2
    }
  }
}
layer {
  name: "inception_3b/relu_3x3"
  type: "ReLU"
  bottom: "inception_3b/3x3"
  top: "inception_3b/3x3"
}
layer {
  name: "inception_3b/5x5_reduce"
  type: "Convolution"
  bottom: "inception_3a/output"
  top: "inception_3b/5x5_reduce"
  param {
    lr_mult: 1
    decay_mult: 1
  }
  param {
    lr_mult: 2
    decay_mult: 0
  }
  convolution_param {
    num_output: 32
    kernel_size: 1
    weight_filler {
      type: "xavier"
      std: 0.2
    }
    bias_filler {
      type: "constant"
      value: 0.2
    }
  }
}
layer {
  name: "inception_3b/relu_5x5_reduce"
  type: "ReLU"
  bottom: "inception_3b/5x5_reduce"
  top: "inception_3b/5x5_reduce"
}
layer {
  name: "inception_3b/5x5"
  type: "Convolution"
  bottom: "inception_3b/5x5_reduce"
  top: "inception_3b/5x5"
  param {
    lr_mult: 1
    decay_mult: 1
  }
  param {
    lr_mult: 2
    decay_mult: 0
  }
  convolution_param {
    num_output: 96
    pad: 2
    kernel_size: 5
    weight_filler {
      type: "xavier"
      std: 0.03
    }
    bias_filler {
      type: "constant"
      value: 0.2
    }
  }
}
layer {
  name: "inception_3b/relu_5x5"
  type: "ReLU"
  bottom: "inception_3b/5x5"
  top: "inception_3b/5x5"
}
layer {
  name: "inception_3b/pool"
  type: "Pooling"
  bottom: "inception_3a/output"
  top: "inception_3b/pool"
  pooling_param {
    pool: MAX
    kernel_size: 3
    stride: 1
    pad: 1
  }
}
layer {
  name: "inception_3b/pool_proj"
  type: "Convolution"
  bottom: "inception_3b/pool"
  top: "inception_3b/pool_proj"
  param {
    lr_mult: 1
    decay_mult: 1
  }
  param {
    lr_mult: 2
    decay_mult: 0
  }
  convolution_param {
    num_output: 64
    kernel_size: 1
    weight_filler {
      type: "xavier"
      std: 0.1
    }
    bias_filler {
      type: "constant"
      value: 0.2
    }
  }
}
layer {
  name: "inception_3b/relu_pool_proj"
  type: "ReLU"
  bottom: "inception_3b/pool_proj"
  top: "inception_3b/pool_proj"
}
layer {
  name: "inception_3b/output"
  type: "Concat"
  bottom: "inception_3b/1x1"
  bottom: "inception_3b/3x3"
  bottom: "inception_3b/5x5"
  bottom: "inception_3b/pool_proj"
  top: "inception_3b/output"
}
layer {
  name: "pool3/3x3_s2"
  type: "Pooling"
  bottom: "inception_3b/output"
  top: "pool3/3x3_s2"
  pooling_param {
    pool: MAX
    kernel_size: 3
    stride: 2
  }
}
layer {
  name: "inception_4a/1x1"
  type: "Convolution"
  bottom: "pool3/3x3_s2"
  top: "inception_4a/1x1"
  param {
    lr_mult: 1
    decay_mult: 1
  }
  param {
    lr_mult: 2
    decay_mult: 0
  }
  convolution_param {
    num_output: 192
    kernel_size: 1
    weight_filler {
      type: "xavier"
      std: 0.03
    }
    bias_filler {
      type: "constant"
      value: 0.2
    }
  }
}
layer {
  name: "inception_4a/relu_1x1"
  type: "ReLU"
  bottom: "inception_4a/1x1"
  top: "inception_4a/1x1"
}
layer {
  name: "inception_4a/3x3_reduce"
  type: "Convolution"
  bottom: "pool3/3x3_s2"
  top: "inception_4a/3x3_reduce"
  param {
    lr_mult: 1
    decay_mult: 1
  }
  param {
    lr_mult: 2
    decay_mult: 0
  }
  convolution_param {
    num_output: 96
    kernel_size: 1
    weight_filler {
      type: "xavier"
      std: 0.09
    }
    bias_filler {
      type: "constant"
      value: 0.2
    }
  }
}
layer {
  name: "inception_4a/relu_3x3_reduce"
  type: "ReLU"
  bottom: "inception_4a/3x3_reduce"
  top: "inception_4a/3x3_reduce"
}
layer {
  name: "inception_4a/3x3"
  type: "Convolution"
  bottom: "inception_4a/3x3_reduce"
  top: "inception_4a/3x3"
  param {
    lr_mult: 1
    decay_mult: 1
  }
  param {
    lr_mult: 2
    decay_mult: 0
  }
  convolution_param {
    num_output: 208
    pad: 1
    kernel_size: 3
    weight_filler {
      type: "xavier"
      std: 0.03
    }
    bias_filler {
      type: "constant"
      value: 0.2
    }
  }
}
layer {
  name: "inception_4a/relu_3x3"
  type: "ReLU"
  bottom: "inception_4a/3x3"
  top: "inception_4a/3x3"
}
layer {
  name: "inception_4a/5x5_reduce"
  type: "Convolution"
  bottom: "pool3/3x3_s2"
  top: "inception_4a/5x5_reduce"
  param {
    lr_mult: 1
    decay_mult: 1
  }
  param {
    lr_mult: 2
    decay_mult: 0
  }
  convolution_param {
    num_output: 16
    kernel_size: 1
    weight_filler {
      type: "xavier"
      std: 0.2
    }
    bias_filler {
      type: "constant"
      value: 0.2
    }
  }
}
layer {
  name: "inception_4a/relu_5x5_reduce"
  type: "ReLU"
  bottom: "inception_4a/5x5_reduce"
  top: "inception_4a/5x5_reduce"
}
layer {
  name: "inception_4a/5x5"
  type: "Convolution"
  bottom: "inception_4a/5x5_reduce"
  top: "inception_4a/5x5"
  param {
    lr_mult: 1
    decay_mult: 1
  }
  param {
    lr_mult: 2
    decay_mult: 0
  }
  convolution_param {
    num_output: 48
    pad: 2
    kernel_size: 5
    weight_filler {
      type: "xavier"
      std: 0.03
    }
    bias_filler {
      type: "constant"
      value: 0.2
    }
  }
}
layer {
  name: "inception_4a/relu_5x5"
  type: "ReLU"
  bottom: "inception_4a/5x5"
  top: "inception_4a/5x5"
}
layer {
  name: "inception_4a/pool"
  type: "Pooling"
  bottom: "pool3/3x3_s2"
  top: "inception_4a/pool"
  pooling_param {
    pool: MAX
    kernel_size: 3
    stride: 1
    pad: 1
  }
}
layer {
  name: "inception_4a/pool_proj"
  type: "Convolution"
  bottom: "inception_4a/pool"
  top: "inception_4a/pool_proj"
  param {
    lr_mult: 1
    decay_mult: 1
  }
  param {
    lr_mult: 2
    decay_mult: 0
  }
  convolution_param {
    num_output: 64
    kernel_size: 1
    weight_filler {
      type: "xavier"
      std: 0.1
    }
    bias_filler {
      type: "constant"
      value: 0.2
    }
  }
}
layer {
  name: "inception_4a/relu_pool_proj"
  type: "ReLU"
  bottom: "inception_4a/pool_proj"
  top: "inception_4a/pool_proj"
}
layer {
  name: "inception_4a/output"
  type: "Concat"
  bottom: "inception_4a/1x1"
  bottom: "inception_4a/3x3"
  bottom: "inception_4a/5x5"
  bottom: "inception_4a/pool_proj"
  top: "inception_4a/output"
}
layer {
  name: "inception_4b/1x1"
  type: "Convolution"
  bottom: "inception_4a/output"
  top: "inception_4b/1x1"
  param {
    lr_mult: 1
    decay_mult: 1
  }
  param {
    lr_mult: 2
    decay_mult: 0
  }
  convolution_param {
    num_output: 160
    kernel_size: 1
    weight_filler {
      type: "xavier"
      std: 0.03
    }
    bias_filler {
      type: "constant"
      value: 0.2
    }
  }
}
layer {
  name: "inception_4b/relu_1x1"
  type: "ReLU"
  bottom: "inception_4b/1x1"
  top: "inception_4b/1x1"
}
layer {
  name: "inception_4b/3x3_reduce"
  type: "Convolution"
  bottom: "inception_4a/output"
  top: "inception_4b/3x3_reduce"
  param {
    lr_mult: 1
    decay_mult: 1
  }
  param {
    lr_mult: 2
    decay_mult: 0
  }
  convolution_param {
    num_output: 112
    kernel_size: 1
    weight_filler {
      type: "xavier"
      std: 0.09
    }
    bias_filler {
      type: "constant"
      value: 0.2
    }
  }
}
layer {
  name: "inception_4b/relu_3x3_reduce"
  type: "ReLU"
  bottom: "inception_4b/3x3_reduce"
  top: "inception_4b/3x3_reduce"
}
layer {
  name: "inception_4b/3x3"
  type: "Convolution"
  bottom: "inception_4b/3x3_reduce"
  top: "inception_4b/3x3"
  param {
    lr_mult: 1
    decay_mult: 1
  }
  param {
    lr_mult: 2
    decay_mult: 0
  }
  convolution_param {
    num_output: 224
    pad: 1
    kernel_size: 3
    weight_filler {
      type: "xavier"
      std: 0.03
    }
    bias_filler {
      type: "constant"
      value: 0.2
    }
  }
}
layer {
  name: "inception_4b/relu_3x3"
  type: "ReLU"
  bottom: "inception_4b/3x3"
  top: "inception_4b/3x3"
}
layer {
  name: "inception_4b/5x5_reduce"
  type: "Convolution"
  bottom: "inception_4a/output"
  top: "inception_4b/5x5_reduce"
  param {
    lr_mult: 1
    decay_mult: 1
  }
  param {
    lr_mult: 2
    decay_mult: 0
  }
  convolution_param {
    num_output: 24
    kernel_size: 1
    weight_filler {
      type: "xavier"
      std: 0.2
    }
    bias_filler {
      type: "constant"
      value: 0.2
    }
  }
}
layer {
  name: "inception_4b/relu_5x5_reduce"
  type: "ReLU"
  bottom: "inception_4b/5x5_reduce"
  top: "inception_4b/5x5_reduce"
}
layer {
  name: "inception_4b/5x5"
  type: "Convolution"
  bottom: "inception_4b/5x5_reduce"
  top: "inception_4b/5x5"
  param {
    lr_mult: 1
    decay_mult: 1
  }
  param {
    lr_mult: 2
    decay_mult: 0
  }
  convolution_param {
    num_output: 64
    pad: 2
    kernel_size: 5
    weight_filler {
      type: "xavier"
      std: 0.03
    }
    bias_filler {
      type: "constant"
      value: 0.2
    }
  }
}
layer {
  name: "inception_4b/relu_5x5"
  type: "ReLU"
  bottom: "inception_4b/5x5"
  top: "inception_4b/5x5"
}
layer {
  name: "inception_4b/pool"
  type: "Pooling"
  bottom: "inception_4a/output"
  top: "inception_4b/pool"
  pooling_param {
    pool: MAX
    kernel_size: 3
    stride: 1
    pad: 1
  }
}
layer {
  name: "inception_4b/pool_proj"
  type: "Convolution"
  bottom: "inception_4b/pool"
  top: "inception_4b/pool_proj"
  param {
    lr_mult: 1
    decay_mult: 1
  }
  param {
    lr_mult: 2
    decay_mult: 0
  }
  convolution_param {
    num_output: 64
    kernel_size: 1
    weight_filler {
      type: "xavier"
      std: 0.1
    }
    bias_filler {
      type: "constant"
      value: 0.2
    }
  }
}
layer {
  name: "inception_4b/relu_pool_proj"
  type: "ReLU"
  bottom: "inception_4b/pool_proj"
  top: "inception_4b/pool_proj"
}
layer {
  name: "inception_4b/output"
  type: "Concat"
  bottom: "inception_4b/1x1"
  bottom: "inception_4b/3x3"
  bottom: "inception_4b/5x5"
  bottom: "inception_4b/pool_proj"
  top: "inception_4b/output"
}
layer {
  name: "inception_4c/1x1"
  type: "Convolution"
  bottom: "inception_4b/output"
  top: "inception_4c/1x1"
  param {
    lr_mult: 1
    decay_mult: 1
  }
  param {
    lr_mult: 2
    decay_mult: 0
  }
  convolution_param {
    num_output: 128
    kernel_size: 1
    weight_filler {
      type: "xavier"
      std: 0.03
    }
    bias_filler {
      type: "constant"
      value: 0.2
    }
  }
}
layer {
  name: "inception_4c/relu_1x1"
  type: "ReLU"
  bottom: "inception_4c/1x1"
  top: "inception_4c/1x1"
}
layer {
  name: "inception_4c/3x3_reduce"
  type: "Convolution"
  bottom: "inception_4b/output"
  top: "inception_4c/3x3_reduce"
  param {
    lr_mult: 1
    decay_mult: 1
  }
  param {
    lr_mult: 2
    decay_mult: 0
  }
  convolution_param {
    num_output: 128
    kernel_size: 1
    weight_filler {
      type: "xavier"
      std: 0.09
    }
    bias_filler {
      type: "constant"
      value: 0.2
    }
  }
}
layer {
  name: "inception_4c/relu_3x3_reduce"
  type: "ReLU"
  bottom: "inception_4c/3x3_reduce"
  top: "inception_4c/3x3_reduce"
}
layer {
  name: "inception_4c/3x3"
  type: "Convolution"
  bottom: "inception_4c/3x3_reduce"
  top: "inception_4c/3x3"
  param {
    lr_mult: 1
    decay_mult: 1
  }
  param {
    lr_mult: 2
    decay_mult: 0
  }
  convolution_param {
    num_output: 256
    pad: 1
    kernel_size: 3
    weight_filler {
      type: "xavier"
      std: 0.03
    }
    bias_filler {
      type: "constant"
      value: 0.2
    }
  }
}
layer {
  name: "inception_4c/relu_3x3"
  type: "ReLU"
  bottom: "inception_4c/3x3"
  top: "inception_4c/3x3"
}
layer {
  name: "inception_4c/5x5_reduce"
  type: "Convolution"
  bottom: "inception_4b/output"
  top: "inception_4c/5x5_reduce"
  param {
    lr_mult: 1
    decay_mult: 1
  }
  param {
    lr_mult: 2
    decay_mult: 0
  }
  convolution_param {
    num_output: 24
    kernel_size: 1
    weight_filler {
      type: "xavier"
      std: 0.2
    }
    bias_filler {
      type: "constant"
      value: 0.2
    }
  }
}
layer {
  name: "inception_4c/relu_5x5_reduce"
  type: "ReLU"
  bottom: "inception_4c/5x5_reduce"
  top: "inception_4c/5x5_reduce"
}
layer {
  name: "inception_4c/5x5"
  type: "Convolution"
  bottom: "inception_4c/5x5_reduce"
  top: "inception_4c/5x5"
  param {
    lr_mult: 1
    decay_mult: 1
  }
  param {
    lr_mult: 2
    decay_mult: 0
  }
  convolution_param {
    num_output: 64
    pad: 2
    kernel_size: 5
    weight_filler {
      type: "xavier"
      std: 0.03
    }
    bias_filler {
      type: "constant"
      value: 0.2
    }
  }
}
layer {
  name: "inception_4c/relu_5x5"
  type: "ReLU"
  bottom: "inception_4c/5x5"
  top: "inception_4c/5x5"
}
layer {
  name: "inception_4c/pool"
  type: "Pooling"
  bottom: "inception_4b/output"
  top: "inception_4c/pool"
  pooling_param {
    pool: MAX
    kernel_size: 3
    stride: 1
    pad: 1
  }
}
layer {
  name: "inception_4c/pool_proj"
  type: "Convolution"
  bottom: "inception_4c/pool"
  top: "inception_4c/pool_proj"
  param {
    lr_mult: 1
    decay_mult: 1
  }
  param {
    lr_mult: 2
    decay_mult: 0
  }
  convolution_param {
    num_output: 64
    kernel_size: 1
    weight_filler {
      type: "xavier"
      std: 0.1
    }
    bias_filler {
      type: "constant"
      value: 0.2
    }
  }
}
layer {
  name: "inception_4c/relu_pool_proj"
  type: "ReLU"
  bottom: "inception_4c/pool_proj"
  top: "inception_4c/pool_proj"
}
layer {
  name: "inception_4c/output"
  type: "Concat"
  bottom: "inception_4c/1x1"
  bottom: "inception_4c/3x3"
  bottom: "inception_4c/5x5"
  bottom: "inception_4c/pool_proj"
  top: "inception_4c/output"
}
layer {
  name: "inception_4d/1x1"
  type: "Convolution"
  bottom: "inception_4c/output"
  top: "inception_4d/1x1"
  param {
    lr_mult: 1
    decay_mult: 1
  }
  param {
    lr_mult: 2
    decay_mult: 0
  }
  convolution_param {
    num_output: 112
    kernel_size: 1
    weight_filler {
      type: "xavier"
      std: 0.03
    }
    bias_filler {
      type: "constant"
      value: 0.2
    }
  }
}
layer {
  name: "inception_4d/relu_1x1"
  type: "ReLU"
  bottom: "inception_4d/1x1"
  top: "inception_4d/1x1"
}
layer {
  name: "inception_4d/3x3_reduce"
  type: "Convolution"
  bottom: "inception_4c/output"
  top: "inception_4d/3x3_reduce"
  param {
    lr_mult: 1
    decay_mult: 1
  }
  param {
    lr_mult: 2
    decay_mult: 0
  }
  convolution_param {
    num_output: 144
    kernel_size: 1
    weight_filler {
      type: "xavier"
      std: 0.09
    }
    bias_filler {
      type: "constant"
      value: 0.2
    }
  }
}
layer {
  name: "inception_4d/relu_3x3_reduce"
  type: "ReLU"
  bottom: "inception_4d/3x3_reduce"
  top: "inception_4d/3x3_reduce"
}
layer {
  name: "inception_4d/3x3"
  type: "Convolution"
  bottom: "inception_4d/3x3_reduce"
  top: "inception_4d/3x3"
  param {
    lr_mult: 1
    decay_mult: 1
  }
  param {
    lr_mult: 2
    decay_mult: 0
  }
  convolution_param {
    num_output: 288
    pad: 1
    kernel_size: 3
    weight_filler {
      type: "xavier"
      std: 0.03
    }
    bias_filler {
      type: "constant"
      value: 0.2
    }
  }
}
layer {
  name: "inception_4d/relu_3x3"
  type: "ReLU"
  bottom: "inception_4d/3x3"
  top: "inception_4d/3x3"
}
layer {
  name: "inception_4d/5x5_reduce"
  type: "Convolution"
  bottom: "inception_4c/output"
  top: "inception_4d/5x5_reduce"
  param {
    lr_mult: 1
    decay_mult: 1
  }
  param {
    lr_mult: 2
    decay_mult: 0
  }
  convolution_param {
    num_output: 32
    kernel_size: 1
    weight_filler {
      type: "xavier"
      std: 0.2
    }
    bias_filler {
      type: "constant"
      value: 0.2
    }
  }
}
layer {
  name: "inception_4d/relu_5x5_reduce"
  type: "ReLU"
  bottom: "inception_4d/5x5_reduce"
  top: "inception_4d/5x5_reduce"
}
layer {
  name: "inception_4d/5x5"
  type: "Convolution"
  bottom: "inception_4d/5x5_reduce"
  top: "inception_4d/5x5"
  param {
    lr_mult: 1
    decay_mult: 1
  }
  param {
    lr_mult: 2
    decay_mult: 0
  }
  convolution_param {
    num_output: 64
    pad: 2
    kernel_size: 5
    weight_filler {
      type: "xavier"
      std: 0.03
    }
    bias_filler {
      type: "constant"
      value: 0.2
    }
  }
}
layer {
  name: "inception_4d/relu_5x5"
  type: "ReLU"
  bottom: "inception_4d/5x5"
  top: "inception_4d/5x5"
}
layer {
  name: "inception_4d/pool"
  type: "Pooling"
  bottom: "inception_4c/output"
  top: "inception_4d/pool"
  pooling_param {
    pool: MAX
    kernel_size: 3
    stride: 1
    pad: 1
  }
}
layer {
  name: "inception_4d/pool_proj"
  type: "Convolution"
  bottom: "inception_4d/pool"
  top: "inception_4d/pool_proj"
  param {
    lr_mult: 1
    decay_mult: 1
  }
  param {
    lr_mult: 2
    decay_mult: 0
  }
  convolution_param {
    num_output: 64
    kernel_size: 1
    weight_filler {
      type: "xavier"
      std: 0.1
    }
    bias_filler {
      type: "constant"
      value: 0.2
    }
  }
}
layer {
  name: "inception_4d/relu_pool_proj"
  type: "ReLU"
  bottom: "inception_4d/pool_proj"
  top: "inception_4d/pool_proj"
}
layer {
  name: "inception_4d/output"
  type: "Concat"
  bottom: "inception_4d/1x1"
  bottom: "inception_4d/3x3"
  bottom: "inception_4d/5x5"
  bottom: "inception_4d/pool_proj"
  top: "inception_4d/output"
}
layer {
  name: "inception_4e/1x1"
  type: "Convolution"
  bottom: "inception_4d/output"
  top: "inception_4e/1x1"
  param {
    lr_mult: 1
    decay_mult: 1
  }
  param {
    lr_mult: 2
    decay_mult: 0
  }
  convolution_param {
    num_output: 256
    kernel_size: 1
    weight_filler {
      type: "xavier"
      std: 0.03
    }
    bias_filler {
      type: "constant"
      value: 0.2
    }
  }
}
layer {
  name: "inception_4e/relu_1x1"
  type: "ReLU"
  bottom: "inception_4e/1x1"
  top: "inception_4e/1x1"
}
layer {
  name: "inception_4e/3x3_reduce"
  type: "Convolution"
  bottom: "inception_4d/output"
  top: "inception_4e/3x3_reduce"
  param {
    lr_mult: 1
    decay_mult: 1
  }
  param {
    lr_mult: 2
    decay_mult: 0
  }
  convolution_param {
    num_output: 160
    kernel_size: 1
    weight_filler {
      type: "xavier"
      std: 0.09
    }
    bias_filler {
      type: "constant"
      value: 0.2
    }
  }
}
layer {
  name: "inception_4e/relu_3x3_reduce"
  type: "ReLU"
  bottom: "inception_4e/3x3_reduce"
  top: "inception_4e/3x3_reduce"
}
layer {
  name: "inception_4e/3x3"
  type: "Convolution"
  bottom: "inception_4e/3x3_reduce"
  top: "inception_4e/3x3"
  param {
    lr_mult: 1
    decay_mult: 1
  }
  param {
    lr_mult: 2
    decay_mult: 0
  }
  convolution_param {
    num_output: 320
    pad: 1
    kernel_size: 3
    weight_filler {
      type: "xavier"
      std: 0.03
    }
    bias_filler {
      type: "constant"
      value: 0.2
    }
  }
}
layer {
  name: "inception_4e/relu_3x3"
  type: "ReLU"
  bottom: "inception_4e/3x3"
  top: "inception_4e/3x3"
}
layer {
  name: "inception_4e/5x5_reduce"
  type: "Convolution"
  bottom: "inception_4d/output"
  top: "inception_4e/5x5_reduce"
  param {
    lr_mult: 1
    decay_mult: 1
  }
  param {
    lr_mult: 2
    decay_mult: 0
  }
  convolution_param {
    num_output: 32
    kernel_size: 1
    weight_filler {
      type: "xavier"
      std: 0.2
    }
    bias_filler {
      type: "constant"
      value: 0.2
    }
  }
}
layer {
  name: "inception_4e/relu_5x5_reduce"
  type: "ReLU"
  bottom: "inception_4e/5x5_reduce"
  top: "inception_4e/5x5_reduce"
}
layer {
  name: "inception_4e/5x5"
  type: "Convolution"
  bottom: "inception_4e/5x5_reduce"
  top: "inception_4e/5x5"
  param {
    lr_mult: 1
    decay_mult: 1
  }
  param {
    lr_mult: 2
    decay_mult: 0
  }
  convolution_param {
    num_output: 128
    pad: 2
    kernel_size: 5
    weight_filler {
      type: "xavier"
      std: 0.03
    }
    bias_filler {
      type: "constant"
      value: 0.2
    }
  }
}
layer {
  name: "inception_4e/relu_5x5"
  type: "ReLU"
  bottom: "inception_4e/5x5"
  top: "inception_4e/5x5"
}
layer {
  name: "inception_4e/pool"
  type: "Pooling"
  bottom: "inception_4d/output"
  top: "inception_4e/pool"
  pooling_param {
    pool: MAX
    kernel_size: 3
    stride: 1
    pad: 1
  }
}
layer {
  name: "inception_4e/pool_proj"
  type: "Convolution"
  bottom: "inception_4e/pool"
  top: "inception_4e/pool_proj"
  param {
    lr_mult: 1
    decay_mult: 1
  }
  param {
    lr_mult: 2
    decay_mult: 0
  }
  convolution_param {
    num_output: 128
    kernel_size: 1
    weight_filler {
      type: "xavier"
      std: 0.1
    }
    bias_filler {
      type: "constant"
      value: 0.2
    }
  }
}
layer {
  name: "inception_4e/relu_pool_proj"
  type: "ReLU"
  bottom: "inception_4e/pool_proj"
  top: "inception_4e/pool_proj"
}
layer {
  name: "inception_4e/output"
  type: "Concat"
  bottom: "inception_4e/1x1"
  bottom: "inception_4e/3x3"
  bottom: "inception_4e/5x5"
  bottom: "inception_4e/pool_proj"
  top: "inception_4e/output"
}
layer {
  name: "pool4/3x3_s2"
  type: "Pooling"
  bottom: "inception_4e/output"
  top: "pool4/3x3_s2"
  pooling_param {
    pool: MAX
    kernel_size: 3
    stride: 2
  }
}
layer {
  name: "inception_5a/1x1"
  type: "Convolution"
  bottom: "pool4/3x3_s2"
  top: "inception_5a/1x1"
  param {
    lr_mult: 1
    decay_mult: 1
  }
  param {
    lr_mult: 2
    decay_mult: 0
  }
  convolution_param {
    num_output: 256
    kernel_size: 1
    weight_filler {
      type: "xavier"
      std: 0.03
    }
    bias_filler {
      type: "constant"
      value: 0.2
    }
  }
}
layer {
  name: "inception_5a/relu_1x1"
  type: "ReLU"
  bottom: "inception_5a/1x1"
  top: "inception_5a/1x1"
}
layer {
  name: "inception_5a/3x3_reduce"
  type: "Convolution"
  bottom: "pool4/3x3_s2"
  top: "inception_5a/3x3_reduce"
  param {
    lr_mult: 1
    decay_mult: 1
  }
  param {
    lr_mult: 2
    decay_mult: 0
  }
  convolution_param {
    num_output: 160
    kernel_size: 1
    weight_filler {
      type: "xavier"
      std: 0.09
    }
    bias_filler {
      type: "constant"
      value: 0.2
    }
  }
}
layer {
  name: "inception_5a/relu_3x3_reduce"
  type: "ReLU"
  bottom: "inception_5a/3x3_reduce"
  top: "inception_5a/3x3_reduce"
}
layer {
  name: "inception_5a/3x3"
  type: "Convolution"
  bottom: "inception_5a/3x3_reduce"
  top: "inception_5a/3x3"
  param {
    lr_mult: 1
    decay_mult: 1
  }
  param {
    lr_mult: 2
    decay_mult: 0
  }
  convolution_param {
    num_output: 320
    pad: 1
    kernel_size: 3
    weight_filler {
      type: "xavier"
      std: 0.03
    }
    bias_filler {
      type: "constant"
      value: 0.2
    }
  }
}
layer {
  name: "inception_5a/relu_3x3"
  type: "ReLU"
  bottom: "inception_5a/3x3"
  top: "inception_5a/3x3"
}
layer {
  name: "inception_5a/5x5_reduce"
  type: "Convolution"
  bottom: "pool4/3x3_s2"
  top: "inception_5a/5x5_reduce"
  param {
    lr_mult: 1
    decay_mult: 1
  }
  param {
    lr_mult: 2
    decay_mult: 0
  }
  convolution_param {
    num_output: 32
    kernel_size: 1
    weight_filler {
      type: "xavier"
      std: 0.2
    }
    bias_filler {
      type: "constant"
      value: 0.2
    }
I0715 00:31:14.128237 20373 net.cpp:49] Initializing net from parameters: 
name: "GoogleNet"
state {
  phase: TEST
}
layer {
  name: "data"
  type: "Input"
  top: "data"
  input_param {
    shape {
      dim: 10
      dim: 3
      dim: 224
      dim: 224
    }
  }
}
layer {
  name: "conv1/7x7_s2"
  type: "Convolution"
  bottom: "data"
  top: "conv1/7x7_s2"
  param {
    lr_mult: 1
    decay_mult: 1
  }
  param {
    lr_mult: 2
    decay_mult: 0
  }
  convolution_param {
    num_output: 64
    pad: 3
    kernel_size: 7
    stride: 2
    weight_filler {
      type: "xavier"
      std: 0.1
    }
    bias_filler {
      type: "constant"
      value: 0.2
    }
  }
}
layer {
  name: "conv1/relu_7x7"
  type: "ReLU"
  bottom: "conv1/7x7_s2"
  top: "conv1/7x7_s2"
}
layer {
  name: "pool1/3x3_s2"
  type: "Pooling"
  bottom: "conv1/7x7_s2"
  top: "pool1/3x3_s2"
  pooling_param {
    pool: MAX
    kernel_size: 3
    stride: 2
  }
}
layer {
  name: "pool1/norm1"
  type: "LRN"
  bottom: "pool1/3x3_s2"
  top: "pool1/norm1"
  lrn_param {
    local_size: 5
    alpha: 0.0001
    beta: 0.75
  }
}
layer {
  name: "conv2/3x3_reduce"
  type: "Convolution"
  bottom: "pool1/norm1"
  top: "conv2/3x3_reduce"
  param {
    lr_mult: 1
    decay_mult: 1
  }
  param {
    lr_mult: 2
    decay_mult: 0
  }
  convolution_param {
    num_output: 64
    kernel_size: 1
    weight_filler {
      type: "xavier"
      std: 0.1
    }
    bias_filler {
      type: "constant"
      value: 0.2
    }
  }
}
layer {
  name: "conv2/relu_3x3_reduce"
  type: "ReLU"
  bottom: "conv2/3x3_reduce"
  top: "conv2/3x3_reduce"
}
layer {
  name: "conv2/3x3"
  type: "Convolution"
  bottom: "conv2/3x3_reduce"
  top: "conv2/3x3"
  param {
    lr_mult: 1
    decay_mult: 1
  }
  param {
    lr_mult: 2
    decay_mult: 0
  }
  convolution_param {
    num_output: 192
    pad: 1
    kernel_size: 3
    weight_filler {
      type: "xavier"
      std: 0.03
    }
    bias_filler {
      type: "constant"
      value: 0.2
    }
  }
}
layer {
  name: "conv2/relu_3x3"
  type: "ReLU"
  bottom: "conv2/3x3"
  top: "conv2/3x3"
}
layer {
  name: "conv2/norm2"
  type: "LRN"
  bottom: "conv2/3x3"
  top: "conv2/norm2"
  lrn_param {
    local_size: 5
    alpha: 0.0001
    beta: 0.75
  }
}
layer {
  name: "pool2/3x3_s2"
  type: "Pooling"
  bottom: "conv2/norm2"
  top: "pool2/3x3_s2"
  pooling_param {
    pool: MAX
    kernel_size: 3
    stride: 2
  }
}
layer {
  name: "inception_3a/1x1"
  type: "Convolution"
  bottom: "pool2/3x3_s2"
  top: "inception_3a/1x1"
  param {
    lr_mult: 1
    decay_mult: 1
  }
  param {
    lr_mult: 2
    decay_mult: 0
  }
  convolution_param {
    num_output: 64
    kernel_size: 1
    weight_filler {
      type: "xavier"
      std: 0.03
    }
    bias_filler {
      type: "constant"
      value: 0.2
    }
  }
}
layer {
  name: "inception_3a/relu_1x1"
  type: "ReLU"
  bottom: "inception_3a/1x1"
  top: "inception_3a/1x1"
}
layer {
  name: "inception_3a/3x3_reduce"
  type: "Convolution"
  bottom: "pool2/3x3_s2"
  top: "inception_3a/3x3_reduce"
  param {
    lr_mult: 1
    decay_mult: 1
  }
  param {
    lr_mult: 2
    decay_mult: 0
  }
  convolution_param {
    num_output: 96
    kernel_size: 1
    weight_filler {
      type: "xavier"
      std: 0.09
    }
    bias_filler {
      type: "constant"
      value: 0.2
    }
  }
}
layer {
  name: "inception_3a/relu_3x3_reduce"
  type: "ReLU"
  bottom: "inception_3a/3x3_reduce"
  top: "inception_3a/3x3_reduce"
}
layer {
  name: "inception_3a/3x3"
  type: "Convolution"
  bottom: "inception_3a/3x3_reduce"
  top: "inception_3a/3x3"
  param {
    lr_mult: 1
    decay_mult: 1
  }
  param {
    lr_mult: 2
    decay_mult: 0
  }
  convolution_param {
    num_output: 128
    pad: 1
    kernel_size: 3
    weight_filler {
      type: "xavier"
      std: 0.03
    }
    bias_filler {
      type: "constant"
      value: 0.2
    }
  }
}
layer {
  name: "inception_3a/relu_3x3"
  type: "ReLU"
  bottom: "inception_3a/3x3"
  top: "inception_3a/3x3"
}
layer {
  name: "inception_3a/5x5_reduce"
  type: "Convolution"
  bottom: "pool2/3x3_s2"
  top: "inception_3a/5x5_reduce"
  param {
    lr_mult: 1
    decay_mult: 1
  }
  param {
    lr_mult: 2
    decay_mult: 0
  }
  convolution_param {
    num_output: 16
    kernel_size: 1
    weight_filler {
      type: "xavier"
      std: 0.2
    }
    bias_filler {
      type: "constant"
      value: 0.2
    }
  }
}
layer {
  name: "inception_3a/relu_5x5_reduce"
  type: "ReLU"
  bottom: "inception_3a/5x5_reduce"
  top: "inception_3a/5x5_reduce"
}
layer {
  name: "inception_3a/5x5"
  type: "Convolution"
  bottom: "inception_3a/5x5_reduce"
  top: "inception_3a/5x5"
  param {
    lr_mult: 1
    decay_mult: 1
  }
  param {
    lr_mult: 2
    decay_mult: 0
  }
  convolution_param {
    num_output: 32
    pad: 2
    kernel_size: 5
    weight_filler {
      type: "xavier"
      std: 0.03
    }
    bias_filler {
      type: "constant"
      value: 0.2
    }
  }
}
layer {
  name: "inception_3a/relu_5x5"
  type: "ReLU"
  bottom: "inception_3a/5x5"
  top: "inception_3a/5x5"
}
layer {
  name: "inception_3a/pool"
  type: "Pooling"
  bottom: "pool2/3x3_s2"
  top: "inception_3a/pool"
  pooling_param {
    pool: MAX
    kernel_size: 3
    stride: 1
    pad: 1
  }
}
layer {
  name: "inception_3a/pool_proj"
  type: "Convolution"
  bottom: "inception_3a/pool"
  top: "inception_3a/pool_proj"
  param {
    lr_mult: 1
    decay_mult: 1
  }
  param {
    lr_mult: 2
    decay_mult: 0
  }
  convolution_param {
    num_output: 32
    kernel_size: 1
    weight_filler {
      type: "xavier"
      std: 0.1
    }
    bias_filler {
      type: "constant"
      value: 0.2
    }
  }
}
layer {
  name: "inception_3a/relu_pool_proj"
  type: "ReLU"
  bottom: "inception_3a/pool_proj"
  top: "inception_3a/pool_proj"
}
layer {
  name: "inception_3a/output"
  type: "Concat"
  bottom: "inception_3a/1x1"
  bottom: "inception_3a/3x3"
  bottom: "inception_3a/5x5"
  bottom: "inception_3a/pool_proj"
  top: "inception_3a/output"
}
layer {
  name: "inception_3b/1x1"
  type: "Convolution"
  bottom: "inception_3a/output"
  top: "inception_3b/1x1"
  param {
    lr_mult: 1
    decay_mult: 1
  }
  param {
    lr_mult: 2
    decay_mult: 0
  }
  convolution_param {
    num_output: 128
    kernel_size: 1
    weight_filler {
      type: "xavier"
      std: 0.03
    }
    bias_filler {
      type: "constant"
      value: 0.2
    }
  }
}
layer {
  name: "inception_3b/relu_1x1"
  type: "ReLU"
  bottom: "inception_3b/1x1"
  top: "inception_3b/1x1"
}
layer {
  name: "inception_3b/3x3_reduce"
  type: "Convolution"
  bottom: "inception_3a/output"
  top: "inception_3b/3x3_reduce"
  param {
    lr_mult: 1
    decay_mult: 1
  }
  param {
    lr_mult: 2
    decay_mult: 0
  }
  convolution_param {
    num_output: 128
    kernel_size: 1
    weight_filler {
      type: "xavier"
      std: 0.09
    }
    bias_filler {
      type: "constant"
      value: 0.2
    }
  }
}
layer {
  name: "inception_3b/relu_3x3_reduce"
  type: "ReLU"
  bottom: "inception_3b/3x3_reduce"
  top: "inception_3b/3x3_reduce"
}
layer {
  name: "inception_3b/3x3"
  type: "Convolution"
  bottom: "inception_3b/3x3_reduce"
  top: "inception_3b/3x3"
  param {
    lr_mult: 1
    decay_mult: 1
  }
  param {
    lr_mult: 2
    decay_mult: 0
  }
  convolution_param {
    num_output: 192
    pad: 1
    kernel_size: 3
    weight_filler {
      type: "xavier"
      std: 0.03
    }
    bias_filler {
      type: "constant"
      value: 0.2
    }
  }
}
layer {
  name: "inception_3b/relu_3x3"
  type: "ReLU"
  bottom: "inception_3b/3x3"
  top: "inception_3b/3x3"
}
layer {
  name: "inception_3b/5x5_reduce"
  type: "Convolution"
  bottom: "inception_3a/output"
  top: "inception_3b/5x5_reduce"
  param {
    lr_mult: 1
    decay_mult: 1
  }
  param {
    lr_mult: 2
    decay_mult: 0
  }
  convolution_param {
    num_output: 32
    kernel_size: 1
    weight_filler {
      type: "xavier"
      std: 0.2
    }
    bias_filler {
      type: "constant"
      value: 0.2
    }
  }
}
layer {
  name: "inception_3b/relu_5x5_reduce"
  type: "ReLU"
  bottom: "inception_3b/5x5_reduce"
  top: "inception_3b/5x5_reduce"
}
layer {
  name: "inception_3b/5x5"
  type: "Convolution"
  bottom: "inception_3b/5x5_reduce"
  top: "inception_3b/5x5"
  param {
    lr_mult: 1
    decay_mult: 1
  }
  param {
    lr_mult: 2
    decay_mult: 0
  }
  convolution_param {
    num_output: 96
    pad: 2
    kernel_size: 5
    weight_filler {
      type: "xavier"
      std: 0.03
    }
    bias_filler {
      type: "constant"
      value: 0.2
    }
  }
}
layer {
  name: "inception_3b/relu_5x5"
  type: "ReLU"
  bottom: "inception_3b/5x5"
  top: "inception_3b/5x5"
}
layer {
  name: "inception_3b/pool"
  type: "Pooling"
  bottom: "inception_3a/output"
  top: "inception_3b/pool"
  pooling_param {
    pool: MAX
    kernel_size: 3
    stride: 1
    pad: 1
  }
}
layer {
  name: "inception_3b/pool_proj"
  type: "Convolution"
  bottom: "inception_3b/pool"
  top: "inception_3b/pool_proj"
  param {
    lr_mult: 1
    decay_mult: 1
  }
  param {
    lr_mult: 2
    decay_mult: 0
  }
  convolution_param {
    num_output: 64
    kernel_size: 1
    weight_filler {
      type: "xavier"
      std: 0.1
    }
    bias_filler {
      type: "constant"
      value: 0.2
    }
  }
}
layer {
  name: "inception_3b/relu_pool_proj"
  type: "ReLU"
  bottom: "inception_3b/pool_proj"
  top: "inception_3b/pool_proj"
}
layer {
  name: "inception_3b/output"
  type: "Concat"
  bottom: "inception_3b/1x1"
  bottom: "inception_3b/3x3"
  bottom: "inception_3b/5x5"
  bottom: "inception_3b/pool_proj"
  top: "inception_3b/output"
}
layer {
  name: "pool3/3x3_s2"
  type: "Pooling"
  bottom: "inception_3b/output"
  top: "pool3/3x3_s2"
  pooling_param {
    pool: MAX
    kernel_size: 3
    stride: 2
  }
}
layer {
  name: "inception_4a/1x1"
  type: "Convolution"
  bottom: "pool3/3x3_s2"
  top: "inception_4a/1x1"
  param {
    lr_mult: 1
    decay_mult: 1
  }
  param {
    lr_mult: 2
    decay_mult: 0
  }
  convolution_param {
    num_output: 192
    kernel_size: 1
    weight_filler {
      type: "xavier"
      std: 0.03
    }
    bias_filler {
      type: "constant"
      value: 0.2
    }
  }
}
layer {
  name: "inception_4a/relu_1x1"
  type: "ReLU"
  bottom: "inception_4a/1x1"
  top: "inception_4a/1x1"
}
layer {
  name: "inception_4a/3x3_reduce"
  type: "Convolution"
  bottom: "pool3/3x3_s2"
  top: "inception_4a/3x3_reduce"
  param {
    lr_mult: 1
    decay_mult: 1
  }
  param {
    lr_mult: 2
    decay_mult: 0
  }
  convolution_param {
    num_output: 96
    kernel_size: 1
    weight_filler {
      type: "xavier"
      std: 0.09
    }
    bias_filler {
      type: "constant"
      value: 0.2
    }
  }
}
layer {
  name: "inception_4a/relu_3x3_reduce"
  type: "ReLU"
  bottom: "inception_4a/3x3_reduce"
  top: "inception_4a/3x3_reduce"
}
layer {
  name: "inception_4a/3x3"
  type: "Convolution"
  bottom: "inception_4a/3x3_reduce"
  top: "inception_4a/3x3"
  param {
    lr_mult: 1
    decay_mult: 1
  }
  param {
    lr_mult: 2
    decay_mult: 0
  }
  convolution_param {
    num_output: 208
    pad: 1
    kernel_size: 3
    weight_filler {
      type: "xavier"
      std: 0.03
    }
    bias_filler {
      type: "constant"
      value: 0.2
    }
  }
}
layer {
  name: "inception_4a/relu_3x3"
  type: "ReLU"
  bottom: "inception_4a/3x3"
  top: "inception_4a/3x3"
}
layer {
  name: "inception_4a/5x5_reduce"
  type: "Convolution"
  bottom: "pool3/3x3_s2"
  top: "inception_4a/5x5_reduce"
  param {
    lr_mult: 1
    decay_mult: 1
  }
  param {
    lr_mult: 2
    decay_mult: 0
  }
  convolution_param {
    num_output: 16
    kernel_size: 1
    weight_filler {
      type: "xavier"
      std: 0.2
    }
    bias_filler {
      type: "constant"
      value: 0.2
    }
  }
}
layer {
  name: "inception_4a/relu_5x5_reduce"
  type: "ReLU"
  bottom: "inception_4a/5x5_reduce"
  top: "inception_4a/5x5_reduce"
}
layer {
  name: "inception_4a/5x5"
  type: "Convolution"
  bottom: "inception_4a/5x5_reduce"
  top: "inception_4a/5x5"
  param {
    lr_mult: 1
    decay_mult: 1
  }
  param {
    lr_mult: 2
    decay_mult: 0
  }
  convolution_param {
    num_output: 48
    pad: 2
    kernel_size: 5
    weight_filler {
      type: "xavier"
      std: 0.03
    }
    bias_filler {
      type: "constant"
      value: 0.2
    }
  }
}
layer {
  name: "inception_4a/relu_5x5"
  type: "ReLU"
  bottom: "inception_4a/5x5"
  top: "inception_4a/5x5"
}
layer {
  name: "inception_4a/pool"
  type: "Pooling"
  bottom: "pool3/3x3_s2"
  top: "inception_4a/pool"
  pooling_param {
    pool: MAX
    kernel_size: 3
    stride: 1
    pad: 1
  }
}
layer {
  name: "inception_4a/pool_proj"
  type: "Convolution"
  bottom: "inception_4a/pool"
  top: "inception_4a/pool_proj"
  param {
    lr_mult: 1
    decay_mult: 1
  }
  param {
    lr_mult: 2
    decay_mult: 0
  }
  convolution_param {
    num_output: 64
    kernel_size: 1
    weight_filler {
      type: "xavier"
      std: 0.1
    }
    bias_filler {
      type: "constant"
      value: 0.2
    }
  }
}
layer {
  name: "inception_4a/relu_pool_proj"
  type: "ReLU"
  bottom: "inception_4a/pool_proj"
  top: "inception_4a/pool_proj"
}
layer {
  name: "inception_4a/output"
  type: "Concat"
  bottom: "inception_4a/1x1"
  bottom: "inception_4a/3x3"
  bottom: "inception_4a/5x5"
  bottom: "inception_4a/pool_proj"
  top: "inception_4a/output"
}
layer {
  name: "inception_4b/1x1"
  type: "Convolution"
  bottom: "inception_4a/output"
  top: "inception_4b/1x1"
  param {
    lr_mult: 1
    decay_mult: 1
  }
  param {
    lr_mult: 2
    decay_mult: 0
  }
  convolution_param {
    num_output: 160
    kernel_size: 1
    weight_filler {
      type: "xavier"
      std: 0.03
    }
    bias_filler {
      type: "constant"
      value: 0.2
    }
  }
}
layer {
  name: "inception_4b/relu_1x1"
  type: "ReLU"
  bottom: "inception_4b/1x1"
  top: "inception_4b/1x1"
}
layer {
  name: "inception_4b/3x3_reduce"
  type: "Convolution"
  bottom: "inception_4a/output"
  top: "inception_4b/3x3_reduce"
  param {
    lr_mult: 1
    decay_mult: 1
  }
  param {
    lr_mult: 2
    decay_mult: 0
  }
  convolution_param {
    num_output: 112
    kernel_size: 1
    weight_filler {
      type: "xavier"
      std: 0.09
    }
    bias_filler {
      type: "constant"
      value: 0.2
    }
  }
}
layer {
  name: "inception_4b/relu_3x3_reduce"
  type: "ReLU"
  bottom: "inception_4b/3x3_reduce"
  top: "inception_4b/3x3_reduce"
}
layer {
  name: "inception_4b/3x3"
  type: "Convolution"
  bottom: "inception_4b/3x3_reduce"
  top: "inception_4b/3x3"
  param {
    lr_mult: 1
    decay_mult: 1
  }
  param {
    lr_mult: 2
    decay_mult: 0
  }
  convolution_param {
    num_output: 224
    pad: 1
    kernel_size: 3
    weight_filler {
      type: "xavier"
      std: 0.03
    }
    bias_filler {
      type: "constant"
      value: 0.2
    }
  }
}
layer {
  name: "inception_4b/relu_3x3"
  type: "ReLU"
  bottom: "inception_4b/3x3"
  top: "inception_4b/3x3"
}
layer {
  name: "inception_4b/5x5_reduce"
  type: "Convolution"
  bottom: "inception_4a/output"
  top: "inception_4b/5x5_reduce"
  param {
    lr_mult: 1
    decay_mult: 1
  }
  param {
    lr_mult: 2
    decay_mult: 0
  }
  convolution_param {
    num_output: 24
    kernel_size: 1
    weight_filler {
      type: "xavier"
      std: 0.2
    }
    bias_filler {
      type: "constant"
      value: 0.2
    }
  }
}
layer {
  name: "inception_4b/relu_5x5_reduce"
  type: "ReLU"
  bottom: "inception_4b/5x5_reduce"
  top: "inception_4b/5x5_reduce"
}
layer {
  name: "inception_4b/5x5"
  type: "Convolution"
  bottom: "inception_4b/5x5_reduce"
  top: "inception_4b/5x5"
  param {
    lr_mult: 1
    decay_mult: 1
  }
  param {
    lr_mult: 2
    decay_mult: 0
  }
  convolution_param {
    num_output: 64
    pad: 2
    kernel_size: 5
    weight_filler {
      type: "xavier"
      std: 0.03
    }
    bias_filler {
      type: "constant"
      value: 0.2
    }
  }
}
layer {
  name: "inception_4b/relu_5x5"
  type: "ReLU"
  bottom: "inception_4b/5x5"
  top: "inception_4b/5x5"
}
layer {
  name: "inception_4b/pool"
  type: "Pooling"
  bottom: "inception_4a/output"
  top: "inception_4b/pool"
  pooling_param {
    pool: MAX
    kernel_size: 3
    stride: 1
    pad: 1
  }
}
layer {
  name: "inception_4b/pool_proj"
  type: "Convolution"
  bottom: "inception_4b/pool"
  top: "inception_4b/pool_proj"
  param {
    lr_mult: 1
    decay_mult: 1
  }
  param {
    lr_mult: 2
    decay_mult: 0
  }
  convolution_param {
    num_output: 64
    kernel_size: 1
    weight_filler {
      type: "xavier"
      std: 0.1
    }
    bias_filler {
      type: "constant"
      value: 0.2
    }
  }
}
layer {
  name: "inception_4b/relu_pool_proj"
  type: "ReLU"
  bottom: "inception_4b/pool_proj"
  top: "inception_4b/pool_proj"
}
layer {
  name: "inception_4b/output"
  type: "Concat"
  bottom: "inception_4b/1x1"
  bottom: "inception_4b/3x3"
  bottom: "inception_4b/5x5"
  bottom: "inception_4b/pool_proj"
  top: "inception_4b/output"
}
layer {
  name: "inception_4c/1x1"
  type: "Convolution"
  bottom: "inception_4b/output"
  top: "inception_4c/1x1"
  param {
    lr_mult: 1
    decay_mult: 1
  }
  param {
    lr_mult: 2
    decay_mult: 0
  }
  convolution_param {
    num_output: 128
    kernel_size: 1
    weight_filler {
      type: "xavier"
      std: 0.03
    }
    bias_filler {
      type: "constant"
      value: 0.2
    }
  }
}
layer {
  name: "inception_4c/relu_1x1"
  type: "ReLU"
  bottom: "inception_4c/1x1"
  top: "inception_4c/1x1"
}
layer {
  name: "inception_4c/3x3_reduce"
  type: "Convolution"
  bottom: "inception_4b/output"
  top: "inception_4c/3x3_reduce"
  param {
    lr_mult: 1
    decay_mult: 1
  }
  param {
    lr_mult: 2
    decay_mult: 0
  }
  convolution_param {
    num_output: 128
    kernel_size: 1
    weight_filler {
      type: "xavier"
      std: 0.09
    }
    bias_filler {
      type: "constant"
      value: 0.2
    }
  }
}
layer {
  name: "inception_4c/relu_3x3_reduce"
  type: "ReLU"
  bottom: "inception_4c/3x3_reduce"
  top: "inception_4c/3x3_reduce"
}
layer {
  name: "inception_4c/3x3"
  type: "Convolution"
  bottom: "inception_4c/3x3_reduce"
  top: "inception_4c/3x3"
  param {
    lr_mult: 1
    decay_mult: 1
  }
  param {
    lr_mult: 2
    decay_mult: 0
  }
  convolution_param {
    num_output: 256
    pad: 1
    kernel_size: 3
    weight_filler {
      type: "xavier"
      std: 0.03
    }
    bias_filler {
      type: "constant"
      value: 0.2
    }
  }
}
layer {
  name: "inception_4c/relu_3x3"
  type: "ReLU"
  bottom: "inception_4c/3x3"
  top: "inception_4c/3x3"
}
layer {
  name: "inception_4c/5x5_reduce"
  type: "Convolution"
  bottom: "inception_4b/output"
  top: "inception_4c/5x5_reduce"
  param {
    lr_mult: 1
    decay_mult: 1
  }
  param {
    lr_mult: 2
    decay_mult: 0
  }
  convolution_param {
    num_output: 24
    kernel_size: 1
    weight_filler {
      type: "xavier"
      std: 0.2
    }
    bias_filler {
      type: "constant"
      value: 0.2
    }
  }
}
layer {
  name: "inception_4c/relu_5x5_reduce"
  type: "ReLU"
  bottom: "inception_4c/5x5_reduce"
  top: "inception_4c/5x5_reduce"
}
layer {
  name: "inception_4c/5x5"
  type: "Convolution"
  bottom: "inception_4c/5x5_reduce"
  top: "inception_4c/5x5"
  param {
    lr_mult: 1
    decay_mult: 1
  }
  param {
    lr_mult: 2
    decay_mult: 0
  }
  convolution_param {
    num_output: 64
    pad: 2
    kernel_size: 5
    weight_filler {
      type: "xavier"
      std: 0.03
    }
    bias_filler {
      type: "constant"
      value: 0.2
    }
  }
}
layer {
  name: "inception_4c/relu_5x5"
  type: "ReLU"
  bottom: "inception_4c/5x5"
  top: "inception_4c/5x5"
}
layer {
  name: "inception_4c/pool"
  type: "Pooling"
  bottom: "inception_4b/output"
  top: "inception_4c/pool"
  pooling_param {
    pool: MAX
    kernel_size: 3
    stride: 1
    pad: 1
  }
}
layer {
  name: "inception_4c/pool_proj"
  type: "Convolution"
  bottom: "inception_4c/pool"
  top: "inception_4c/pool_proj"
  param {
    lr_mult: 1
    decay_mult: 1
  }
  param {
    lr_mult: 2
    decay_mult: 0
  }
  convolution_param {
    num_output: 64
    kernel_size: 1
    weight_filler {
      type: "xavier"
      std: 0.1
    }
    bias_filler {
      type: "constant"
      value: 0.2
    }
  }
}
layer {
  name: "inception_4c/relu_pool_proj"
  type: "ReLU"
  bottom: "inception_4c/pool_proj"
  top: "inception_4c/pool_proj"
}
layer {
  name: "inception_4c/output"
  type: "Concat"
  bottom: "inception_4c/1x1"
  bottom: "inception_4c/3x3"
  bottom: "inception_4c/5x5"
  bottom: "inception_4c/pool_proj"
  top: "inception_4c/output"
}
layer {
  name: "inception_4d/1x1"
  type: "Convolution"
  bottom: "inception_4c/output"
  top: "inception_4d/1x1"
  param {
    lr_mult: 1
    decay_mult: 1
  }
  param {
    lr_mult: 2
    decay_mult: 0
  }
  convolution_param {
    num_output: 112
    kernel_size: 1
    weight_filler {
      type: "xavier"
      std: 0.03
    }
    bias_filler {
      type: "constant"
      value: 0.2
    }
  }
}
layer {
  name: "inception_4d/relu_1x1"
  type: "ReLU"
  bottom: "inception_4d/1x1"
  top: "inception_4d/1x1"
}
layer {
  name: "inception_4d/3x3_reduce"
  type: "Convolution"
  bottom: "inception_4c/output"
  top: "inception_4d/3x3_reduce"
  param {
    lr_mult: 1
    decay_mult: 1
  }
  param {
    lr_mult: 2
    decay_mult: 0
  }
  convolution_param {
    num_output: 144
    kernel_size: 1
    weight_filler {
      type: "xavier"
      std: 0.09
    }
    bias_filler {
      type: "constant"
      value: 0.2
    }
  }
}
layer {
  name: "inception_4d/relu_3x3_reduce"
  type: "ReLU"
  bottom: "inception_4d/3x3_reduce"
  top: "inception_4d/3x3_reduce"
}
layer {
  name: "inception_4d/3x3"
  type: "Convolution"
  bottom: "inception_4d/3x3_reduce"
  top: "inception_4d/3x3"
  param {
    lr_mult: 1
    decay_mult: 1
  }
  param {
    lr_mult: 2
    decay_mult: 0
  }
  convolution_param {
    num_output: 288
    pad: 1
    kernel_size: 3
    weight_filler {
      type: "xavier"
      std: 0.03
    }
    bias_filler {
      type: "constant"
      value: 0.2
    }
  }
}
layer {
  name: "inception_4d/relu_3x3"
  type: "ReLU"
  bottom: "inception_4d/3x3"
  top: "inception_4d/3x3"
}
layer {
  name: "inception_4d/5x5_reduce"
  type: "Convolution"
  bottom: "inception_4c/output"
  top: "inception_4d/5x5_reduce"
  param {
    lr_mult: 1
    decay_mult: 1
  }
  param {
    lr_mult: 2
    decay_mult: 0
  }
  convolution_param {
    num_output: 32
    kernel_size: 1
    weight_filler {
      type: "xavier"
      std: 0.2
    }
    bias_filler {
      type: "constant"
      value: 0.2
    }
  }
}
layer {
  name: "inception_4d/relu_5x5_reduce"
  type: "ReLU"
  bottom: "inception_4d/5x5_reduce"
  top: "inception_4d/5x5_reduce"
}
layer {
  name: "inception_4d/5x5"
  type: "Convolution"
  bottom: "inception_4d/5x5_reduce"
  top: "inception_4d/5x5"
  param {
    lr_mult: 1
    decay_mult: 1
  }
  param {
    lr_mult: 2
    decay_mult: 0
  }
  convolution_param {
    num_output: 64
    pad: 2
    kernel_size: 5
    weight_filler {
      type: "xavier"
      std: 0.03
    }
    bias_filler {
      type: "constant"
      value: 0.2
    }
  }
}
layer {
  name: "inception_4d/relu_5x5"
  type: "ReLU"
  bottom: "inception_4d/5x5"
  top: "inception_4d/5x5"
}
layer {
  name: "inception_4d/pool"
  type: "Pooling"
  bottom: "inception_4c/output"
  top: "inception_4d/pool"
  pooling_param {
    pool: MAX
    kernel_size: 3
    stride: 1
    pad: 1
  }
}
layer {
  name: "inception_4d/pool_proj"
  type: "Convolution"
  bottom: "inception_4d/pool"
  top: "inception_4d/pool_proj"
  param {
    lr_mult: 1
    decay_mult: 1
  }
  param {
    lr_mult: 2
    decay_mult: 0
  }
  convolution_param {
    num_output: 64
    kernel_size: 1
    weight_filler {
      type: "xavier"
      std: 0.1
    }
    bias_filler {
      type: "constant"
      value: 0.2
    }
  }
}
layer {
  name: "inception_4d/relu_pool_proj"
  type: "ReLU"
  bottom: "inception_4d/pool_proj"
  top: "inception_4d/pool_proj"
}
layer {
  name: "inception_4d/output"
  type: "Concat"
  bottom: "inception_4d/1x1"
  bottom: "inception_4d/3x3"
  bottom: "inception_4d/5x5"
  bottom: "inception_4d/pool_proj"
  top: "inception_4d/output"
}
layer {
  name: "inception_4e/1x1"
  type: "Convolution"
  bottom: "inception_4d/output"
  top: "inception_4e/1x1"
  param {
    lr_mult: 1
    decay_mult: 1
  }
  param {
    lr_mult: 2
    decay_mult: 0
  }
  convolution_param {
    num_output: 256
    kernel_size: 1
    weight_filler {
      type: "xavier"
      std: 0.03
    }
    bias_filler {
      type: "constant"
      value: 0.2
    }
  }
}
layer {
  name: "inception_4e/relu_1x1"
  type: "ReLU"
  bottom: "inception_4e/1x1"
  top: "inception_4e/1x1"
}
layer {
  name: "inception_4e/3x3_reduce"
  type: "Convolution"
  bottom: "inception_4d/output"
  top: "inception_4e/3x3_reduce"
  param {
    lr_mult: 1
    decay_mult: 1
  }
  param {
    lr_mult: 2
    decay_mult: 0
  }
  convolution_param {
    num_output: 160
    kernel_size: 1
    weight_filler {
      type: "xavier"
      std: 0.09
    }
    bias_filler {
      type: "constant"
      value: 0.2
    }
  }
}
layer {
  name: "inception_4e/relu_3x3_reduce"
  type: "ReLU"
  bottom: "inception_4e/3x3_reduce"
  top: "inception_4e/3x3_reduce"
}
layer {
  name: "inception_4e/3x3"
  type: "Convolution"
  bottom: "inception_4e/3x3_reduce"
  top: "inception_4e/3x3"
  param {
    lr_mult: 1
    decay_mult: 1
  }
  param {
    lr_mult: 2
    decay_mult: 0
  }
  convolution_param {
    num_output: 320
    pad: 1
    kernel_size: 3
    weight_filler {
      type: "xavier"
      std: 0.03
    }
    bias_filler {
      type: "constant"
      value: 0.2
    }
  }
}
layer {
  name: "inception_4e/relu_3x3"
  type: "ReLU"
  bottom: "inception_4e/3x3"
  top: "inception_4e/3x3"
}
layer {
  name: "inception_4e/5x5_reduce"
  type: "Convolution"
  bottom: "inception_4d/output"
  top: "inception_4e/5x5_reduce"
  param {
    lr_mult: 1
    decay_mult: 1
  }
  param {
    lr_mult: 2
    decay_mult: 0
  }
  convolution_param {
    num_output: 32
    kernel_size: 1
    weight_filler {
      type: "xavier"
      std: 0.2
    }
    bias_filler {
      type: "constant"
      value: 0.2
    }
  }
}
layer {
  name: "inception_4e/relu_5x5_reduce"
  type: "ReLU"
  bottom: "inception_4e/5x5_reduce"
  top: "inception_4e/5x5_reduce"
}
layer {
  name: "inception_4e/5x5"
  type: "Convolution"
  bottom: "inception_4e/5x5_reduce"
  top: "inception_4e/5x5"
  param {
    lr_mult: 1
    decay_mult: 1
  }
  param {
    lr_mult: 2
    decay_mult: 0
  }
  convolution_param {
    num_output: 128
    pad: 2
    kernel_size: 5
    weight_filler {
      type: "xavier"
      std: 0.03
    }
    bias_filler {
      type: "constant"
      value: 0.2
    }
  }
}
layer {
  name: "inception_4e/relu_5x5"
  type: "ReLU"
  bottom: "inception_4e/5x5"
  top: "inception_4e/5x5"
}
layer {
  name: "inception_4e/pool"
  type: "Pooling"
  bottom: "inception_4d/output"
  top: "inception_4e/pool"
  pooling_param {
    pool: MAX
    kernel_size: 3
    stride: 1
    pad: 1
  }
}
layer {
  name: "inception_4e/pool_proj"
  type: "Convolution"
  bottom: "inception_4e/pool"
  top: "inception_4e/pool_proj"
  param {
    lr_mult: 1
    decay_mult: 1
  }
  param {
    lr_mult: 2
    decay_mult: 0
  }
  convolution_param {
    num_output: 128
    kernel_size: 1
    weight_filler {
      type: "xavier"
      std: 0.1
    }
    bias_filler {
      type: "constant"
      value: 0.2
    }
  }
}
layer {
  name: "inception_4e/relu_pool_proj"
  type: "ReLU"
  bottom: "inception_4e/pool_proj"
  top: "inception_4e/pool_proj"
}
layer {
  name: "inception_4e/output"
  type: "Concat"
  bottom: "inception_4e/1x1"
  bottom: "inception_4e/3x3"
  bottom: "inception_4e/5x5"
  bottom: "inception_4e/pool_proj"
  top: "inception_4e/output"
}
layer {
  name: "pool4/3x3_s2"
  type: "Pooling"
  bottom: "inception_4e/output"
  top: "pool4/3x3_s2"
  pooling_param {
    pool: MAX
    kernel_size: 3
    stride: 2
  }
}
layer {
  name: "inception_5a/1x1"
  type: "Convolution"
  bottom: "pool4/3x3_s2"
  top: "inception_5a/1x1"
  param {
    lr_mult: 1
    decay_mult: 1
  }
  param {
    lr_mult: 2
    decay_mult: 0
  }
  convolution_param {
    num_output: 256
    kernel_size: 1
    weight_filler {
      type: "xavier"
      std: 0.03
    }
    bias_filler {
      type: "constant"
      value: 0.2
    }
  }
}
layer {
  name: "inception_5a/relu_1x1"
  type: "ReLU"
  bottom: "inception_5a/1x1"
  top: "inception_5a/1x1"
}
layer {
  name: "inception_5a/3x3_reduce"
  type: "Convolution"
  bottom: "pool4/3x3_s2"
  top: "inception_5a/3x3_reduce"
  param {
    lr_mult: 1
    decay_mult: 1
  }
  param {
    lr_mult: 2
    decay_mult: 0
  }
  convolution_param {
    num_output: 160
    kernel_size: 1
    weight_filler {
      type: "xavier"
      std: 0.09
    }
    bias_filler {
      type: "constant"
      value: 0.2
    }
  }
}
layer {
  name: "inception_5a/relu_3x3_reduce"
  type: "ReLU"
  bottom: "inception_5a/3x3_reduce"
  top: "inception_5a/3x3_reduce"
}
layer {
  name: "inception_5a/3x3"
  type: "Convolution"
  bottom: "inception_5a/3x3_reduce"
  top: "inception_5a/3x3"
  param {
    lr_mult: 1
    decay_mult: 1
  }
  param {
    lr_mult: 2
    decay_mult: 0
  }
  convolution_param {
    num_output: 320
    pad: 1
    kernel_size: 3
    weight_filler {
      type: "xavier"
      std: 0.03
    }
    bias_filler {
      type: "constant"
      value: 0.2
    }
  }
}
layer {
  name: "inception_5a/relu_3x3"
  type: "ReLU"
  bottom: "inception_5a/3x3"
  top: "inception_5a/3x3"
}
layer {
  name: "inception_5a/5x5_reduce"
  type: "Convolution"
  bottom: "pool4/3x3_s2"
  top: "inception_5a/5x5_reduce"
  param {
    lr_mult: 1
    decay_mult: 1
  }
  param {
    lr_mult: 2
    decay_mult: 0
  }
  convolution_param {
    num_output: 32
    kernel_size: 1
    weight_filler {
      type: "xavier"
      std: 0.2
    }
    bias_filler {
      type: "constant"
      value: 0.2
    }
I0715 00:31:14.129501 20377 layer_factory.hpp:77] Creating layer data
I0715 00:31:14.129520 20373 layer_factory.hpp:77] Creating layer data
I0715 00:31:14.129540 20377 net.cpp:91] Creating Layer data
I0715 00:31:14.129544 20373 net.cpp:91] Creating Layer data
I0715 00:31:14.129554 20377 net.cpp:399] data -> data
I0715 00:31:14.129556 20373 net.cpp:399] data -> data
I0715 00:31:14.695583 20373 net.cpp:141] Setting up data
I0715 00:31:14.695643 20377 net.cpp:141] Setting up data
I0715 00:31:14.695665 20373 net.cpp:148] Top shape: 10 3 224 224 (1505280)
I0715 00:31:14.695674 20373 net.cpp:156] Memory required for data: 6021120
I0715 00:31:14.695683 20377 net.cpp:148] Top shape: 10 3 224 224 (1505280)
I0715 00:31:14.695689 20377 net.cpp:156] Memory required for data: 6021120
I0715 00:31:14.695696 20373 layer_factory.hpp:77] Creating layer conv1/7x7_s2
I0715 00:31:14.695701 20377 layer_factory.hpp:77] Creating layer conv1/7x7_s2
I0715 00:31:14.695732 20373 net.cpp:91] Creating Layer conv1/7x7_s2
I0715 00:31:14.695741 20373 net.cpp:425] conv1/7x7_s2 <- data
I0715 00:31:14.695744 20377 net.cpp:91] Creating Layer conv1/7x7_s2
I0715 00:31:14.695751 20377 net.cpp:425] conv1/7x7_s2 <- data
I0715 00:31:14.695756 20373 net.cpp:399] conv1/7x7_s2 -> conv1/7x7_s2
I0715 00:31:14.695765 20377 net.cpp:399] conv1/7x7_s2 -> conv1/7x7_s2
I0715 00:31:14.936130 20373 net.cpp:141] Setting up conv1/7x7_s2
I0715 00:31:14.936130 20377 net.cpp:141] Setting up conv1/7x7_s2
I0715 00:31:14.936192 20373 net.cpp:148] Top shape: 10 64 112 112 (8028160)
I0715 00:31:14.936192 20377 net.cpp:148] Top shape: 10 64 112 112 (8028160)
I0715 00:31:14.936203 20373 net.cpp:156] Memory required for data: 38133760
I0715 00:31:14.936206 20377 net.cpp:156] Memory required for data: 38133760
I0715 00:31:14.936235 20377 layer_factory.hpp:77] Creating layer conv1/relu_7x7
I0715 00:31:14.936235 20373 layer_factory.hpp:77] Creating layer conv1/relu_7x7
I0715 00:31:14.936269 20373 net.cpp:91] Creating Layer conv1/relu_7x7
I0715 00:31:14.936274 20377 net.cpp:91] Creating Layer conv1/relu_7x7
I0715 00:31:14.936276 20373 net.cpp:425] conv1/relu_7x7 <- conv1/7x7_s2
I0715 00:31:14.936280 20377 net.cpp:425] conv1/relu_7x7 <- conv1/7x7_s2
I0715 00:31:14.936286 20373 net.cpp:386] conv1/relu_7x7 -> conv1/7x7_s2 (in-place)
I0715 00:31:14.936288 20377 net.cpp:386] conv1/relu_7x7 -> conv1/7x7_s2 (in-place)
I0715 00:31:14.937436 20373 net.cpp:141] Setting up conv1/relu_7x7
I0715 00:31:14.937443 20377 net.cpp:141] Setting up conv1/relu_7x7
I0715 00:31:14.937453 20373 net.cpp:148] Top shape: 10 64 112 112 (8028160)
I0715 00:31:14.937458 20377 net.cpp:148] Top shape: 10 64 112 112 (8028160)
I0715 00:31:14.937458 20373 net.cpp:156] Memory required for data: 70246400
I0715 00:31:14.937464 20377 net.cpp:156] Memory required for data: 70246400
I0715 00:31:14.937466 20373 layer_factory.hpp:77] Creating layer pool1/3x3_s2
I0715 00:31:14.937470 20377 layer_factory.hpp:77] Creating layer pool1/3x3_s2
I0715 00:31:14.937480 20377 net.cpp:91] Creating Layer pool1/3x3_s2
I0715 00:31:14.937481 20373 net.cpp:91] Creating Layer pool1/3x3_s2
I0715 00:31:14.937490 20377 net.cpp:425] pool1/3x3_s2 <- conv1/7x7_s2
I0715 00:31:14.937496 20373 net.cpp:425] pool1/3x3_s2 <- conv1/7x7_s2
I0715 00:31:14.937502 20377 net.cpp:399] pool1/3x3_s2 -> pool1/3x3_s2
I0715 00:31:14.937507 20373 net.cpp:399] pool1/3x3_s2 -> pool1/3x3_s2
I0715 00:31:14.937680 20377 net.cpp:141] Setting up pool1/3x3_s2
I0715 00:31:14.937693 20377 net.cpp:148] Top shape: 10 64 56 56 (2007040)
I0715 00:31:14.937698 20377 net.cpp:156] Memory required for data: 78274560
I0715 00:31:14.937703 20377 layer_factory.hpp:77] Creating layer pool1/norm1
I0715 00:31:14.937722 20377 net.cpp:91] Creating Layer pool1/norm1
I0715 00:31:14.937721 20373 net.cpp:141] Setting up pool1/3x3_s2
I0715 00:31:14.937739 20377 net.cpp:425] pool1/norm1 <- pool1/3x3_s2
I0715 00:31:14.937767 20373 net.cpp:148] Top shape: 10 64 56 56 (2007040)
I0715 00:31:14.937772 20377 net.cpp:399] pool1/norm1 -> pool1/norm1
I0715 00:31:14.937773 20373 net.cpp:156] Memory required for data: 78274560
I0715 00:31:14.937791 20373 layer_factory.hpp:77] Creating layer pool1/norm1
I0715 00:31:14.937811 20373 net.cpp:91] Creating Layer pool1/norm1
I0715 00:31:14.937819 20373 net.cpp:425] pool1/norm1 <- pool1/3x3_s2
I0715 00:31:14.937827 20373 net.cpp:399] pool1/norm1 -> pool1/norm1
I0715 00:31:14.939075 20377 net.cpp:141] Setting up pool1/norm1
I0715 00:31:14.939095 20377 net.cpp:148] Top shape: 10 64 56 56 (2007040)
I0715 00:31:14.939100 20377 net.cpp:156] Memory required for data: 86302720
I0715 00:31:14.939106 20377 layer_factory.hpp:77] Creating layer conv2/3x3_reduce
I0715 00:31:14.939105 20373 net.cpp:141] Setting up pool1/norm1
I0715 00:31:14.939124 20373 net.cpp:148] Top shape: 10 64 56 56 (2007040)
I0715 00:31:14.939131 20373 net.cpp:156] Memory required for data: 86302720
I0715 00:31:14.939133 20377 net.cpp:91] Creating Layer conv2/3x3_reduce
I0715 00:31:14.939136 20373 layer_factory.hpp:77] Creating layer conv2/3x3_reduce
I0715 00:31:14.939141 20377 net.cpp:425] conv2/3x3_reduce <- pool1/norm1
I0715 00:31:14.939154 20377 net.cpp:399] conv2/3x3_reduce -> conv2/3x3_reduce
I0715 00:31:14.939157 20373 net.cpp:91] Creating Layer conv2/3x3_reduce
I0715 00:31:14.939163 20373 net.cpp:425] conv2/3x3_reduce <- pool1/norm1
I0715 00:31:14.939172 20373 net.cpp:399] conv2/3x3_reduce -> conv2/3x3_reduce
I0715 00:31:14.944870 20373 net.cpp:141] Setting up conv2/3x3_reduce
I0715 00:31:14.944890 20373 net.cpp:148] Top shape: 10 64 56 56 (2007040)
I0715 00:31:14.944895 20373 net.cpp:156] Memory required for data: 94330880
I0715 00:31:14.944910 20373 layer_factory.hpp:77] Creating layer conv2/relu_3x3_reduce
I0715 00:31:14.944919 20373 net.cpp:91] Creating Layer conv2/relu_3x3_reduce
I0715 00:31:14.944924 20373 net.cpp:425] conv2/relu_3x3_reduce <- conv2/3x3_reduce
I0715 00:31:14.944936 20373 net.cpp:386] conv2/relu_3x3_reduce -> conv2/3x3_reduce (in-place)
I0715 00:31:14.945644 20377 net.cpp:141] Setting up conv2/3x3_reduce
I0715 00:31:14.945665 20377 net.cpp:148] Top shape: 10 64 56 56 (2007040)
I0715 00:31:14.945672 20377 net.cpp:156] Memory required for data: 94330880
I0715 00:31:14.945688 20377 layer_factory.hpp:77] Creating layer conv2/relu_3x3_reduce
I0715 00:31:14.945698 20377 net.cpp:91] Creating Layer conv2/relu_3x3_reduce
I0715 00:31:14.945703 20377 net.cpp:425] conv2/relu_3x3_reduce <- conv2/3x3_reduce
I0715 00:31:14.945710 20377 net.cpp:386] conv2/relu_3x3_reduce -> conv2/3x3_reduce (in-place)
I0715 00:31:14.945724 20373 net.cpp:141] Setting up conv2/relu_3x3_reduce
I0715 00:31:14.945736 20373 net.cpp:148] Top shape: 10 64 56 56 (2007040)
I0715 00:31:14.945741 20373 net.cpp:156] Memory required for data: 102359040
I0715 00:31:14.945746 20373 layer_factory.hpp:77] Creating layer conv2/3x3
I0715 00:31:14.945762 20373 net.cpp:91] Creating Layer conv2/3x3
I0715 00:31:14.945768 20373 net.cpp:425] conv2/3x3 <- conv2/3x3_reduce
I0715 00:31:14.945780 20373 net.cpp:399] conv2/3x3 -> conv2/3x3
I0715 00:31:14.947233 20377 net.cpp:141] Setting up conv2/relu_3x3_reduce
I0715 00:31:14.947250 20377 net.cpp:148] Top shape: 10 64 56 56 (2007040)
I0715 00:31:14.947255 20377 net.cpp:156] Memory required for data: 102359040
I0715 00:31:14.947262 20377 layer_factory.hpp:77] Creating layer conv2/3x3
I0715 00:31:14.947278 20377 net.cpp:91] Creating Layer conv2/3x3
I0715 00:31:14.947283 20377 net.cpp:425] conv2/3x3 <- conv2/3x3_reduce
I0715 00:31:14.947296 20377 net.cpp:399] conv2/3x3 -> conv2/3x3
I0715 00:31:14.951815 20373 net.cpp:141] Setting up conv2/3x3
I0715 00:31:14.951849 20373 net.cpp:148] Top shape: 10 192 56 56 (6021120)
I0715 00:31:14.951855 20373 net.cpp:156] Memory required for data: 126443520
I0715 00:31:14.951869 20373 layer_factory.hpp:77] Creating layer conv2/relu_3x3
I0715 00:31:14.951879 20373 net.cpp:91] Creating Layer conv2/relu_3x3
I0715 00:31:14.951884 20373 net.cpp:425] conv2/relu_3x3 <- conv2/3x3
I0715 00:31:14.951890 20373 net.cpp:386] conv2/relu_3x3 -> conv2/3x3 (in-place)
I0715 00:31:14.953044 20373 net.cpp:141] Setting up conv2/relu_3x3
I0715 00:31:14.953058 20373 net.cpp:148] Top shape: 10 192 56 56 (6021120)
I0715 00:31:14.953063 20373 net.cpp:156] Memory required for data: 150528000
I0715 00:31:14.953069 20373 layer_factory.hpp:77] Creating layer conv2/norm2
I0715 00:31:14.953080 20373 net.cpp:91] Creating Layer conv2/norm2
I0715 00:31:14.953086 20373 net.cpp:425] conv2/norm2 <- conv2/3x3
I0715 00:31:14.953093 20373 net.cpp:399] conv2/norm2 -> conv2/norm2
I0715 00:31:14.954031 20377 net.cpp:141] Setting up conv2/3x3
I0715 00:31:14.954053 20377 net.cpp:148] Top shape: 10 192 56 56 (6021120)
I0715 00:31:14.954059 20377 net.cpp:156] Memory required for data: 126443520
I0715 00:31:14.954082 20377 layer_factory.hpp:77] Creating layer conv2/relu_3x3
I0715 00:31:14.954092 20377 net.cpp:91] Creating Layer conv2/relu_3x3
I0715 00:31:14.954097 20377 net.cpp:425] conv2/relu_3x3 <- conv2/3x3
I0715 00:31:14.954109 20377 net.cpp:386] conv2/relu_3x3 -> conv2/3x3 (in-place)
I0715 00:31:14.954107 20373 net.cpp:141] Setting up conv2/norm2
I0715 00:31:14.954129 20373 net.cpp:148] Top shape: 10 192 56 56 (6021120)
I0715 00:31:14.954134 20373 net.cpp:156] Memory required for data: 174612480
I0715 00:31:14.954139 20373 layer_factory.hpp:77] Creating layer pool2/3x3_s2
I0715 00:31:14.954149 20373 net.cpp:91] Creating Layer pool2/3x3_s2
I0715 00:31:14.954154 20373 net.cpp:425] pool2/3x3_s2 <- conv2/norm2
I0715 00:31:14.954165 20373 net.cpp:399] pool2/3x3_s2 -> pool2/3x3_s2
I0715 00:31:14.954368 20373 net.cpp:141] Setting up pool2/3x3_s2
I0715 00:31:14.954378 20373 net.cpp:148] Top shape: 10 192 28 28 (1505280)
I0715 00:31:14.954383 20373 net.cpp:156] Memory required for data: 180633600
I0715 00:31:14.954401 20373 layer_factory.hpp:77] Creating layer pool2/3x3_s2_pool2/3x3_s2_0_split
I0715 00:31:14.954421 20373 net.cpp:91] Creating Layer pool2/3x3_s2_pool2/3x3_s2_0_split
I0715 00:31:14.954427 20373 net.cpp:425] pool2/3x3_s2_pool2/3x3_s2_0_split <- pool2/3x3_s2
I0715 00:31:14.954432 20373 net.cpp:399] pool2/3x3_s2_pool2/3x3_s2_0_split -> pool2/3x3_s2_pool2/3x3_s2_0_split_0
I0715 00:31:14.954443 20373 net.cpp:399] pool2/3x3_s2_pool2/3x3_s2_0_split -> pool2/3x3_s2_pool2/3x3_s2_0_split_1
I0715 00:31:14.954452 20373 net.cpp:399] pool2/3x3_s2_pool2/3x3_s2_0_split -> pool2/3x3_s2_pool2/3x3_s2_0_split_2
I0715 00:31:14.954458 20373 net.cpp:399] pool2/3x3_s2_pool2/3x3_s2_0_split -> pool2/3x3_s2_pool2/3x3_s2_0_split_3
I0715 00:31:14.954548 20373 net.cpp:141] Setting up pool2/3x3_s2_pool2/3x3_s2_0_split
I0715 00:31:14.954558 20373 net.cpp:148] Top shape: 10 192 28 28 (1505280)
I0715 00:31:14.954565 20377 net.cpp:141] Setting up conv2/relu_3x3
I0715 00:31:14.954566 20373 net.cpp:148] Top shape: 10 192 28 28 (1505280)
I0715 00:31:14.954587 20377 net.cpp:148] Top shape: 10 192 56 56 (6021120)
I0715 00:31:14.954589 20373 net.cpp:148] Top shape: 10 192 28 28 (1505280)
I0715 00:31:14.954596 20377 net.cpp:156] Memory required for data: 150528000
I0715 00:31:14.954602 20373 net.cpp:148] Top shape: 10 192 28 28 (1505280)
I0715 00:31:14.954603 20377 layer_factory.hpp:77] Creating layer conv2/norm2
I0715 00:31:14.954607 20373 net.cpp:156] Memory required for data: 204718080
I0715 00:31:14.954612 20373 layer_factory.hpp:77] Creating layer inception_3a/1x1
I0715 00:31:14.954614 20377 net.cpp:91] Creating Layer conv2/norm2
I0715 00:31:14.954620 20377 net.cpp:425] conv2/norm2 <- conv2/3x3
I0715 00:31:14.954627 20373 net.cpp:91] Creating Layer inception_3a/1x1
I0715 00:31:14.954632 20377 net.cpp:399] conv2/norm2 -> conv2/norm2
I0715 00:31:14.954634 20373 net.cpp:425] inception_3a/1x1 <- pool2/3x3_s2_pool2/3x3_s2_0_split_0
I0715 00:31:14.954676 20373 net.cpp:399] inception_3a/1x1 -> inception_3a/1x1
I0715 00:31:14.955881 20377 net.cpp:141] Setting up conv2/norm2
I0715 00:31:14.955899 20377 net.cpp:148] Top shape: 10 192 56 56 (6021120)
I0715 00:31:14.955904 20377 net.cpp:156] Memory required for data: 174612480
I0715 00:31:14.955909 20377 layer_factory.hpp:77] Creating layer pool2/3x3_s2
I0715 00:31:14.955919 20377 net.cpp:91] Creating Layer pool2/3x3_s2
I0715 00:31:14.955924 20377 net.cpp:425] pool2/3x3_s2 <- conv2/norm2
I0715 00:31:14.955945 20377 net.cpp:399] pool2/3x3_s2 -> pool2/3x3_s2
I0715 00:31:14.956143 20377 net.cpp:141] Setting up pool2/3x3_s2
I0715 00:31:14.956156 20377 net.cpp:148] Top shape: 10 192 28 28 (1505280)
I0715 00:31:14.956161 20377 net.cpp:156] Memory required for data: 180633600
I0715 00:31:14.956166 20377 layer_factory.hpp:77] Creating layer pool2/3x3_s2_pool2/3x3_s2_0_split
I0715 00:31:14.956176 20377 net.cpp:91] Creating Layer pool2/3x3_s2_pool2/3x3_s2_0_split
I0715 00:31:14.956182 20377 net.cpp:425] pool2/3x3_s2_pool2/3x3_s2_0_split <- pool2/3x3_s2
I0715 00:31:14.956188 20377 net.cpp:399] pool2/3x3_s2_pool2/3x3_s2_0_split -> pool2/3x3_s2_pool2/3x3_s2_0_split_0
I0715 00:31:14.956199 20377 net.cpp:399] pool2/3x3_s2_pool2/3x3_s2_0_split -> pool2/3x3_s2_pool2/3x3_s2_0_split_1
I0715 00:31:14.956208 20377 net.cpp:399] pool2/3x3_s2_pool2/3x3_s2_0_split -> pool2/3x3_s2_pool2/3x3_s2_0_split_2
I0715 00:31:14.956218 20377 net.cpp:399] pool2/3x3_s2_pool2/3x3_s2_0_split -> pool2/3x3_s2_pool2/3x3_s2_0_split_3
I0715 00:31:14.956979 20377 net.cpp:141] Setting up pool2/3x3_s2_pool2/3x3_s2_0_split
I0715 00:31:14.956993 20377 net.cpp:148] Top shape: 10 192 28 28 (1505280)
I0715 00:31:14.957000 20377 net.cpp:148] Top shape: 10 192 28 28 (1505280)
I0715 00:31:14.957006 20377 net.cpp:148] Top shape: 10 192 28 28 (1505280)
I0715 00:31:14.957015 20377 net.cpp:148] Top shape: 10 192 28 28 (1505280)
I0715 00:31:14.957023 20377 net.cpp:156] Memory required for data: 204718080
I0715 00:31:14.957034 20377 layer_factory.hpp:77] Creating layer inception_3a/1x1
I0715 00:31:14.957051 20377 net.cpp:91] Creating Layer inception_3a/1x1
I0715 00:31:14.957056 20377 net.cpp:425] inception_3a/1x1 <- pool2/3x3_s2_pool2/3x3_s2_0_split_0
I0715 00:31:14.957072 20377 net.cpp:399] inception_3a/1x1 -> inception_3a/1x1
I0715 00:31:14.960342 20373 net.cpp:141] Setting up inception_3a/1x1
I0715 00:31:14.960366 20373 net.cpp:148] Top shape: 10 64 28 28 (501760)
I0715 00:31:14.960372 20373 net.cpp:156] Memory required for data: 206725120
I0715 00:31:14.960382 20373 layer_factory.hpp:77] Creating layer inception_3a/relu_1x1
I0715 00:31:14.960392 20373 net.cpp:91] Creating Layer inception_3a/relu_1x1
I0715 00:31:14.960397 20373 net.cpp:425] inception_3a/relu_1x1 <- inception_3a/1x1
I0715 00:31:14.960404 20373 net.cpp:386] inception_3a/relu_1x1 -> inception_3a/1x1 (in-place)
I0715 00:31:14.961490 20373 net.cpp:141] Setting up inception_3a/relu_1x1
I0715 00:31:14.961505 20373 net.cpp:148] Top shape: 10 64 28 28 (501760)
I0715 00:31:14.961510 20373 net.cpp:156] Memory required for data: 208732160
I0715 00:31:14.961515 20373 layer_factory.hpp:77] Creating layer inception_3a/3x3_reduce
I0715 00:31:14.961534 20373 net.cpp:91] Creating Layer inception_3a/3x3_reduce
I0715 00:31:14.961539 20373 net.cpp:425] inception_3a/3x3_reduce <- pool2/3x3_s2_pool2/3x3_s2_0_split_1
I0715 00:31:14.961550 20373 net.cpp:399] inception_3a/3x3_reduce -> inception_3a/3x3_reduce
I0715 00:31:14.966073 20377 net.cpp:141] Setting up inception_3a/1x1
I0715 00:31:14.966094 20377 net.cpp:148] Top shape: 10 64 28 28 (501760)
I0715 00:31:14.966101 20377 net.cpp:156] Memory required for data: 206725120
I0715 00:31:14.966111 20377 layer_factory.hpp:77] Creating layer inception_3a/relu_1x1
I0715 00:31:14.966121 20377 net.cpp:91] Creating Layer inception_3a/relu_1x1
I0715 00:31:14.966127 20377 net.cpp:425] inception_3a/relu_1x1 <- inception_3a/1x1
I0715 00:31:14.966135 20377 net.cpp:386] inception_3a/relu_1x1 -> inception_3a/1x1 (in-place)
I0715 00:31:14.966570 20373 net.cpp:141] Setting up inception_3a/3x3_reduce
I0715 00:31:14.966588 20373 net.cpp:148] Top shape: 10 96 28 28 (752640)
I0715 00:31:14.966593 20373 net.cpp:156] Memory required for data: 211742720
I0715 00:31:14.966608 20373 layer_factory.hpp:77] Creating layer inception_3a/relu_3x3_reduce
I0715 00:31:14.966616 20373 net.cpp:91] Creating Layer inception_3a/relu_3x3_reduce
I0715 00:31:14.966622 20373 net.cpp:425] inception_3a/relu_3x3_reduce <- inception_3a/3x3_reduce
I0715 00:31:14.966629 20373 net.cpp:386] inception_3a/relu_3x3_reduce -> inception_3a/3x3_reduce (in-place)
I0715 00:31:14.966645 20377 net.cpp:141] Setting up inception_3a/relu_1x1
I0715 00:31:14.966660 20377 net.cpp:148] Top shape: 10 64 28 28 (501760)
I0715 00:31:14.966665 20377 net.cpp:156] Memory required for data: 208732160
I0715 00:31:14.966670 20377 layer_factory.hpp:77] Creating layer inception_3a/3x3_reduce
I0715 00:31:14.966698 20377 net.cpp:91] Creating Layer inception_3a/3x3_reduce
I0715 00:31:14.966709 20377 net.cpp:425] inception_3a/3x3_reduce <- pool2/3x3_s2_pool2/3x3_s2_0_split_1
I0715 00:31:14.966724 20377 net.cpp:399] inception_3a/3x3_reduce -> inception_3a/3x3_reduce
I0715 00:31:14.967653 20373 net.cpp:141] Setting up inception_3a/relu_3x3_reduce
I0715 00:31:14.967674 20373 net.cpp:148] Top shape: 10 96 28 28 (752640)
I0715 00:31:14.967679 20373 net.cpp:156] Memory required for data: 214753280
I0715 00:31:14.967684 20373 layer_factory.hpp:77] Creating layer inception_3a/3x3
I0715 00:31:14.967702 20373 net.cpp:91] Creating Layer inception_3a/3x3
I0715 00:31:14.967708 20373 net.cpp:425] inception_3a/3x3 <- inception_3a/3x3_reduce
I0715 00:31:14.967718 20373 net.cpp:399] inception_3a/3x3 -> inception_3a/3x3
I0715 00:31:14.972805 20377 net.cpp:141] Setting up inception_3a/3x3_reduce
I0715 00:31:14.972826 20377 net.cpp:148] Top shape: 10 96 28 28 (752640)
I0715 00:31:14.972832 20377 net.cpp:156] Memory required for data: 211742720
I0715 00:31:14.972846 20377 layer_factory.hpp:77] Creating layer inception_3a/relu_3x3_reduce
I0715 00:31:14.972856 20377 net.cpp:91] Creating Layer inception_3a/relu_3x3_reduce
I0715 00:31:14.972862 20377 net.cpp:425] inception_3a/relu_3x3_reduce <- inception_3a/3x3_reduce
I0715 00:31:14.972873 20377 net.cpp:386] inception_3a/relu_3x3_reduce -> inception_3a/3x3_reduce (in-place)
I0715 00:31:14.973714 20373 net.cpp:141] Setting up inception_3a/3x3
I0715 00:31:14.973736 20373 net.cpp:148] Top shape: 10 128 28 28 (1003520)
I0715 00:31:14.973740 20373 net.cpp:156] Memory required for data: 218767360
I0715 00:31:14.973750 20373 layer_factory.hpp:77] Creating layer inception_3a/relu_3x3
I0715 00:31:14.973758 20373 net.cpp:91] Creating Layer inception_3a/relu_3x3
I0715 00:31:14.973764 20373 net.cpp:425] inception_3a/relu_3x3 <- inception_3a/3x3
I0715 00:31:14.973773 20373 net.cpp:386] inception_3a/relu_3x3 -> inception_3a/3x3 (in-place)
I0715 00:31:14.974050 20377 net.cpp:141] Setting up inception_3a/relu_3x3_reduce
I0715 00:31:14.974064 20377 net.cpp:148] Top shape: 10 96 28 28 (752640)
I0715 00:31:14.974071 20377 net.cpp:156] Memory required for data: 214753280
I0715 00:31:14.974076 20377 layer_factory.hpp:77] Creating layer inception_3a/3x3
I0715 00:31:14.974097 20377 net.cpp:91] Creating Layer inception_3a/3x3
I0715 00:31:14.974104 20377 net.cpp:425] inception_3a/3x3 <- inception_3a/3x3_reduce
I0715 00:31:14.974114 20377 net.cpp:399] inception_3a/3x3 -> inception_3a/3x3
I0715 00:31:14.974113 20373 net.cpp:141] Setting up inception_3a/relu_3x3
I0715 00:31:14.974126 20373 net.cpp:148] Top shape: 10 128 28 28 (1003520)
I0715 00:31:14.974131 20373 net.cpp:156] Memory required for data: 222781440
I0715 00:31:14.974136 20373 layer_factory.hpp:77] Creating layer inception_3a/5x5_reduce
I0715 00:31:14.974154 20373 net.cpp:91] Creating Layer inception_3a/5x5_reduce
I0715 00:31:14.974160 20373 net.cpp:425] inception_3a/5x5_reduce <- pool2/3x3_s2_pool2/3x3_s2_0_split_2
I0715 00:31:14.974169 20373 net.cpp:399] inception_3a/5x5_reduce -> inception_3a/5x5_reduce
I0715 00:31:14.977792 20373 net.cpp:141] Setting up inception_3a/5x5_reduce
I0715 00:31:14.977812 20373 net.cpp:148] Top shape: 10 16 28 28 (125440)
I0715 00:31:14.977816 20373 net.cpp:156] Memory required for data: 223283200
I0715 00:31:14.977825 20373 layer_factory.hpp:77] Creating layer inception_3a/relu_5x5_reduce
I0715 00:31:14.977834 20373 net.cpp:91] Creating Layer inception_3a/relu_5x5_reduce
I0715 00:31:14.977839 20373 net.cpp:425] inception_3a/relu_5x5_reduce <- inception_3a/5x5_reduce
I0715 00:31:14.977846 20373 net.cpp:386] inception_3a/relu_5x5_reduce -> inception_3a/5x5_reduce (in-place)
I0715 00:31:14.979593 20373 net.cpp:141] Setting up inception_3a/relu_5x5_reduce
I0715 00:31:14.979621 20373 net.cpp:148] Top shape: 10 16 28 28 (125440)
I0715 00:31:14.979626 20373 net.cpp:156] Memory required for data: 223784960
I0715 00:31:14.979631 20373 layer_factory.hpp:77] Creating layer inception_3a/5x5
I0715 00:31:14.979647 20373 net.cpp:91] Creating Layer inception_3a/5x5
I0715 00:31:14.979653 20373 net.cpp:425] inception_3a/5x5 <- inception_3a/5x5_reduce
I0715 00:31:14.979665 20373 net.cpp:399] inception_3a/5x5 -> inception_3a/5x5
I0715 00:31:14.980032 20377 net.cpp:141] Setting up inception_3a/3x3
I0715 00:31:14.980049 20377 net.cpp:148] Top shape: 10 128 28 28 (1003520)
I0715 00:31:14.980056 20377 net.cpp:156] Memory required for data: 218767360
I0715 00:31:14.980065 20377 layer_factory.hpp:77] Creating layer inception_3a/relu_3x3
I0715 00:31:14.980077 20377 net.cpp:91] Creating Layer inception_3a/relu_3x3
I0715 00:31:14.980083 20377 net.cpp:425] inception_3a/relu_3x3 <- inception_3a/3x3
I0715 00:31:14.980093 20377 net.cpp:386] inception_3a/relu_3x3 -> inception_3a/3x3 (in-place)
I0715 00:31:14.981241 20377 net.cpp:141] Setting up inception_3a/relu_3x3
I0715 00:31:14.981261 20377 net.cpp:148] Top shape: 10 128 28 28 (1003520)
I0715 00:31:14.981266 20377 net.cpp:156] Memory required for data: 222781440
I0715 00:31:14.981271 20377 layer_factory.hpp:77] Creating layer inception_3a/5x5_reduce
I0715 00:31:14.981290 20377 net.cpp:91] Creating Layer inception_3a/5x5_reduce
I0715 00:31:14.981297 20377 net.cpp:425] inception_3a/5x5_reduce <- pool2/3x3_s2_pool2/3x3_s2_0_split_2
I0715 00:31:14.981307 20377 net.cpp:399] inception_3a/5x5_reduce -> inception_3a/5x5_reduce
I0715 00:31:14.984400 20373 net.cpp:141] Setting up inception_3a/5x5
I0715 00:31:14.984426 20373 net.cpp:148] Top shape: 10 32 28 28 (250880)
I0715 00:31:14.984431 20373 net.cpp:156] Memory required for data: 224788480
I0715 00:31:14.984442 20373 layer_factory.hpp:77] Creating layer inception_3a/relu_5x5
I0715 00:31:14.984452 20373 net.cpp:91] Creating Layer inception_3a/relu_5x5
I0715 00:31:14.984457 20373 net.cpp:425] inception_3a/relu_5x5 <- inception_3a/5x5
I0715 00:31:14.984467 20373 net.cpp:386] inception_3a/relu_5x5 -> inception_3a/5x5 (in-place)
I0715 00:31:14.985683 20373 net.cpp:141] Setting up inception_3a/relu_5x5
I0715 00:31:14.985697 20373 net.cpp:148] Top shape: 10 32 28 28 (250880)
I0715 00:31:14.985714 20373 net.cpp:156] Memory required for data: 225792000
I0715 00:31:14.985719 20373 layer_factory.hpp:77] Creating layer inception_3a/pool
I0715 00:31:14.985733 20373 net.cpp:91] Creating Layer inception_3a/pool
I0715 00:31:14.985739 20373 net.cpp:425] inception_3a/pool <- pool2/3x3_s2_pool2/3x3_s2_0_split_3
I0715 00:31:14.985748 20373 net.cpp:399] inception_3a/pool -> inception_3a/pool
I0715 00:31:14.986021 20373 net.cpp:141] Setting up inception_3a/pool
I0715 00:31:14.986032 20373 net.cpp:148] Top shape: 10 192 28 28 (1505280)
I0715 00:31:14.986035 20373 net.cpp:156] Memory required for data: 231813120
I0715 00:31:14.986040 20373 layer_factory.hpp:77] Creating layer inception_3a/pool_proj
I0715 00:31:14.986055 20373 net.cpp:91] Creating Layer inception_3a/pool_proj
I0715 00:31:14.986062 20373 net.cpp:425] inception_3a/pool_proj <- inception_3a/pool
I0715 00:31:14.986073 20373 net.cpp:399] inception_3a/pool_proj -> inception_3a/pool_proj
I0715 00:31:14.986930 20377 net.cpp:141] Setting up inception_3a/5x5_reduce
I0715 00:31:14.986953 20377 net.cpp:148] Top shape: 10 16 28 28 (125440)
I0715 00:31:14.986959 20377 net.cpp:156] Memory required for data: 223283200
I0715 00:31:14.986970 20377 layer_factory.hpp:77] Creating layer inception_3a/relu_5x5_reduce
I0715 00:31:14.986980 20377 net.cpp:91] Creating Layer inception_3a/relu_5x5_reduce
I0715 00:31:14.986986 20377 net.cpp:425] inception_3a/relu_5x5_reduce <- inception_3a/5x5_reduce
I0715 00:31:14.986999 20377 net.cpp:386] inception_3a/relu_5x5_reduce -> inception_3a/5x5_reduce (in-place)
I0715 00:31:14.988461 20377 net.cpp:141] Setting up inception_3a/relu_5x5_reduce
I0715 00:31:14.988478 20377 net.cpp:148] Top shape: 10 16 28 28 (125440)
I0715 00:31:14.988483 20377 net.cpp:156] Memory required for data: 223784960
I0715 00:31:14.988489 20377 layer_factory.hpp:77] Creating layer inception_3a/5x5
I0715 00:31:14.988512 20377 net.cpp:91] Creating Layer inception_3a/5x5
I0715 00:31:14.988519 20377 net.cpp:425] inception_3a/5x5 <- inception_3a/5x5_reduce
I0715 00:31:14.988531 20377 net.cpp:399] inception_3a/5x5 -> inception_3a/5x5
I0715 00:31:14.990932 20373 net.cpp:141] Setting up inception_3a/pool_proj
I0715 00:31:14.990953 20373 net.cpp:148] Top shape: 10 32 28 28 (250880)
I0715 00:31:14.990958 20373 net.cpp:156] Memory required for data: 232816640
I0715 00:31:14.990973 20373 layer_factory.hpp:77] Creating layer inception_3a/relu_pool_proj
I0715 00:31:14.990986 20373 net.cpp:91] Creating Layer inception_3a/relu_pool_proj
I0715 00:31:14.990993 20373 net.cpp:425] inception_3a/relu_pool_proj <- inception_3a/pool_proj
I0715 00:31:14.991000 20373 net.cpp:386] inception_3a/relu_pool_proj -> inception_3a/pool_proj (in-place)
I0715 00:31:14.991835 20373 net.cpp:141] Setting up inception_3a/relu_pool_proj
I0715 00:31:14.991850 20373 net.cpp:148] Top shape: 10 32 28 28 (250880)
I0715 00:31:14.991855 20373 net.cpp:156] Memory required for data: 233820160
I0715 00:31:14.991860 20373 layer_factory.hpp:77] Creating layer inception_3a/output
I0715 00:31:14.991889 20373 net.cpp:91] Creating Layer inception_3a/output
I0715 00:31:14.991895 20373 net.cpp:425] inception_3a/output <- inception_3a/1x1
I0715 00:31:14.991902 20373 net.cpp:425] inception_3a/output <- inception_3a/3x3
I0715 00:31:14.991907 20373 net.cpp:425] inception_3a/output <- inception_3a/5x5
I0715 00:31:14.991912 20373 net.cpp:425] inception_3a/output <- inception_3a/pool_proj
I0715 00:31:14.991919 20373 net.cpp:399] inception_3a/output -> inception_3a/output
I0715 00:31:14.992097 20373 net.cpp:141] Setting up inception_3a/output
I0715 00:31:14.992108 20373 net.cpp:148] Top shape: 10 256 28 28 (2007040)
I0715 00:31:14.992112 20373 net.cpp:156] Memory required for data: 241848320
I0715 00:31:14.992117 20373 layer_factory.hpp:77] Creating layer inception_3a/output_inception_3a/output_0_split
I0715 00:31:14.992126 20373 net.cpp:91] Creating Layer inception_3a/output_inception_3a/output_0_split
I0715 00:31:14.992130 20373 net.cpp:425] inception_3a/output_inception_3a/output_0_split <- inception_3a/output
I0715 00:31:14.992142 20373 net.cpp:399] inception_3a/output_inception_3a/output_0_split -> inception_3a/output_inception_3a/output_0_split_0
I0715 00:31:14.992151 20373 net.cpp:399] inception_3a/output_inception_3a/output_0_split -> inception_3a/output_inception_3a/output_0_split_1
I0715 00:31:14.992159 20373 net.cpp:399] inception_3a/output_inception_3a/output_0_split -> inception_3a/output_inception_3a/output_0_split_2
I0715 00:31:14.992167 20373 net.cpp:399] inception_3a/output_inception_3a/output_0_split -> inception_3a/output_inception_3a/output_0_split_3
I0715 00:31:14.992301 20373 net.cpp:141] Setting up inception_3a/output_inception_3a/output_0_split
I0715 00:31:14.992314 20373 net.cpp:148] Top shape: 10 256 28 28 (2007040)
I0715 00:31:14.992321 20373 net.cpp:148] Top shape: 10 256 28 28 (2007040)
I0715 00:31:14.992326 20373 net.cpp:148] Top shape: 10 256 28 28 (2007040)
I0715 00:31:14.992331 20373 net.cpp:148] Top shape: 10 256 28 28 (2007040)
I0715 00:31:14.992334 20373 net.cpp:156] Memory required for data: 273960960
I0715 00:31:14.992339 20373 layer_factory.hpp:77] Creating layer inception_3b/1x1
I0715 00:31:14.992353 20373 net.cpp:91] Creating Layer inception_3b/1x1
I0715 00:31:14.992359 20373 net.cpp:425] inception_3b/1x1 <- inception_3a/output_inception_3a/output_0_split_0
I0715 00:31:14.992367 20373 net.cpp:399] inception_3b/1x1 -> inception_3b/1x1
I0715 00:31:14.994237 20377 net.cpp:141] Setting up inception_3a/5x5
I0715 00:31:14.994259 20377 net.cpp:148] Top shape: 10 32 28 28 (250880)
I0715 00:31:14.994266 20377 net.cpp:156] Memory required for data: 224788480
I0715 00:31:14.994282 20377 layer_factory.hpp:77] Creating layer inception_3a/relu_5x5
I0715 00:31:14.994292 20377 net.cpp:91] Creating Layer inception_3a/relu_5x5
I0715 00:31:14.994298 20377 net.cpp:425] inception_3a/relu_5x5 <- inception_3a/5x5
I0715 00:31:14.994307 20377 net.cpp:386] inception_3a/relu_5x5 -> inception_3a/5x5 (in-place)
I0715 00:31:14.995479 20377 net.cpp:141] Setting up inception_3a/relu_5x5
I0715 00:31:14.995496 20377 net.cpp:148] Top shape: 10 32 28 28 (250880)
I0715 00:31:14.995501 20377 net.cpp:156] Memory required for data: 225792000
I0715 00:31:14.995507 20377 layer_factory.hpp:77] Creating layer inception_3a/pool
I0715 00:31:14.995517 20377 net.cpp:91] Creating Layer inception_3a/pool
I0715 00:31:14.995522 20377 net.cpp:425] inception_3a/pool <- pool2/3x3_s2_pool2/3x3_s2_0_split_3
I0715 00:31:14.995535 20377 net.cpp:399] inception_3a/pool -> inception_3a/pool
I0715 00:31:14.996265 20377 net.cpp:141] Setting up inception_3a/pool
I0715 00:31:14.996279 20377 net.cpp:148] Top shape: 10 192 28 28 (1505280)
I0715 00:31:14.996284 20377 net.cpp:156] Memory required for data: 231813120
I0715 00:31:14.996290 20377 layer_factory.hpp:77] Creating layer inception_3a/pool_proj
I0715 00:31:14.996310 20377 net.cpp:91] Creating Layer inception_3a/pool_proj
I0715 00:31:14.996317 20377 net.cpp:425] inception_3a/pool_proj <- inception_3a/pool
I0715 00:31:14.996326 20377 net.cpp:399] inception_3a/pool_proj -> inception_3a/pool_proj
I0715 00:31:14.998064 20373 net.cpp:141] Setting up inception_3b/1x1
I0715 00:31:14.998098 20373 net.cpp:148] Top shape: 10 128 28 28 (1003520)
I0715 00:31:14.998105 20373 net.cpp:156] Memory required for data: 277975040
I0715 00:31:14.998114 20373 layer_factory.hpp:77] Creating layer inception_3b/relu_1x1
I0715 00:31:14.998123 20373 net.cpp:91] Creating Layer inception_3b/relu_1x1
I0715 00:31:14.998129 20373 net.cpp:425] inception_3b/relu_1x1 <- inception_3b/1x1
I0715 00:31:14.998137 20373 net.cpp:386] inception_3b/relu_1x1 -> inception_3b/1x1 (in-place)
I0715 00:31:14.999209 20373 net.cpp:141] Setting up inception_3b/relu_1x1
I0715 00:31:14.999224 20373 net.cpp:148] Top shape: 10 128 28 28 (1003520)
I0715 00:31:14.999243 20373 net.cpp:156] Memory required for data: 281989120
I0715 00:31:14.999248 20373 layer_factory.hpp:77] Creating layer inception_3b/3x3_reduce
I0715 00:31:14.999265 20373 net.cpp:91] Creating Layer inception_3b/3x3_reduce
I0715 00:31:14.999271 20373 net.cpp:425] inception_3b/3x3_reduce <- inception_3a/output_inception_3a/output_0_split_1
I0715 00:31:14.999284 20373 net.cpp:399] inception_3b/3x3_reduce -> inception_3b/3x3_reduce
I0715 00:31:15.000749 20377 net.cpp:141] Setting up inception_3a/pool_proj
I0715 00:31:15.000771 20377 net.cpp:148] Top shape: 10 32 28 28 (250880)
I0715 00:31:15.000777 20377 net.cpp:156] Memory required for data: 232816640
I0715 00:31:15.000794 20377 layer_factory.hpp:77] Creating layer inception_3a/relu_pool_proj
I0715 00:31:15.000804 20377 net.cpp:91] Creating Layer inception_3a/relu_pool_proj
I0715 00:31:15.000810 20377 net.cpp:425] inception_3a/relu_pool_proj <- inception_3a/pool_proj
I0715 00:31:15.000818 20377 net.cpp:386] inception_3a/relu_pool_proj -> inception_3a/pool_proj (in-place)
I0715 00:31:15.002028 20377 net.cpp:141] Setting up inception_3a/relu_pool_proj
I0715 00:31:15.002045 20377 net.cpp:148] Top shape: 10 32 28 28 (250880)
I0715 00:31:15.002051 20377 net.cpp:156] Memory required for data: 233820160
I0715 00:31:15.002056 20377 layer_factory.hpp:77] Creating layer inception_3a/output
I0715 00:31:15.002066 20377 net.cpp:91] Creating Layer inception_3a/output
I0715 00:31:15.002073 20377 net.cpp:425] inception_3a/output <- inception_3a/1x1
I0715 00:31:15.002079 20377 net.cpp:425] inception_3a/output <- inception_3a/3x3
I0715 00:31:15.002085 20377 net.cpp:425] inception_3a/output <- inception_3a/5x5
I0715 00:31:15.002090 20377 net.cpp:425] inception_3a/output <- inception_3a/pool_proj
I0715 00:31:15.002097 20377 net.cpp:399] inception_3a/output -> inception_3a/output
I0715 00:31:15.002830 20377 net.cpp:141] Setting up inception_3a/output
I0715 00:31:15.002845 20377 net.cpp:148] Top shape: 10 256 28 28 (2007040)
I0715 00:31:15.002851 20377 net.cpp:156] Memory required for data: 241848320
I0715 00:31:15.002856 20377 layer_factory.hpp:77] Creating layer inception_3a/output_inception_3a/output_0_split
I0715 00:31:15.002864 20377 net.cpp:91] Creating Layer inception_3a/output_inception_3a/output_0_split
I0715 00:31:15.002872 20377 net.cpp:425] inception_3a/output_inception_3a/output_0_split <- inception_3a/output
I0715 00:31:15.002881 20377 net.cpp:399] inception_3a/output_inception_3a/output_0_split -> inception_3a/output_inception_3a/output_0_split_0
I0715 00:31:15.002890 20377 net.cpp:399] inception_3a/output_inception_3a/output_0_split -> inception_3a/output_inception_3a/output_0_split_1
I0715 00:31:15.002900 20377 net.cpp:399] inception_3a/output_inception_3a/output_0_split -> inception_3a/output_inception_3a/output_0_split_2
I0715 00:31:15.002908 20377 net.cpp:399] inception_3a/output_inception_3a/output_0_split -> inception_3a/output_inception_3a/output_0_split_3
I0715 00:31:15.003026 20377 net.cpp:141] Setting up inception_3a/output_inception_3a/output_0_split
I0715 00:31:15.003037 20377 net.cpp:148] Top shape: 10 256 28 28 (2007040)
I0715 00:31:15.003043 20377 net.cpp:148] Top shape: 10 256 28 28 (2007040)
I0715 00:31:15.003049 20377 net.cpp:148] Top shape: 10 256 28 28 (2007040)
I0715 00:31:15.003054 20377 net.cpp:148] Top shape: 10 256 28 28 (2007040)
I0715 00:31:15.003059 20377 net.cpp:156] Memory required for data: 273960960
I0715 00:31:15.003064 20377 layer_factory.hpp:77] Creating layer inception_3b/1x1
I0715 00:31:15.003080 20377 net.cpp:91] Creating Layer inception_3b/1x1
I0715 00:31:15.003087 20377 net.cpp:425] inception_3b/1x1 <- inception_3a/output_inception_3a/output_0_split_0
I0715 00:31:15.003098 20377 net.cpp:399] inception_3b/1x1 -> inception_3b/1x1
I0715 00:31:15.003453 20373 net.cpp:141] Setting up inception_3b/3x3_reduce
I0715 00:31:15.003473 20373 net.cpp:148] Top shape: 10 128 28 28 (1003520)
I0715 00:31:15.003478 20373 net.cpp:156] Memory required for data: 286003200
I0715 00:31:15.003487 20373 layer_factory.hpp:77] Creating layer inception_3b/relu_3x3_reduce
I0715 00:31:15.003497 20373 net.cpp:91] Creating Layer inception_3b/relu_3x3_reduce
I0715 00:31:15.003504 20373 net.cpp:425] inception_3b/relu_3x3_reduce <- inception_3b/3x3_reduce
I0715 00:31:15.003511 20373 net.cpp:386] inception_3b/relu_3x3_reduce -> inception_3b/3x3_reduce (in-place)
I0715 00:31:15.003867 20373 net.cpp:141] Setting up inception_3b/relu_3x3_reduce
I0715 00:31:15.003880 20373 net.cpp:148] Top shape: 10 128 28 28 (1003520)
I0715 00:31:15.003885 20373 net.cpp:156] Memory required for data: 290017280
I0715 00:31:15.003890 20373 layer_factory.hpp:77] Creating layer inception_3b/3x3
I0715 00:31:15.003906 20373 net.cpp:91] Creating Layer inception_3b/3x3
I0715 00:31:15.003911 20373 net.cpp:425] inception_3b/3x3 <- inception_3b/3x3_reduce
I0715 00:31:15.003923 20373 net.cpp:399] inception_3b/3x3 -> inception_3b/3x3
I0715 00:31:15.007932 20377 net.cpp:141] Setting up inception_3b/1x1
I0715 00:31:15.007956 20377 net.cpp:148] Top shape: 10 128 28 28 (1003520)
I0715 00:31:15.007962 20377 net.cpp:156] Memory required for data: 277975040
I0715 00:31:15.007972 20377 layer_factory.hpp:77] Creating layer inception_3b/relu_1x1
I0715 00:31:15.007987 20377 net.cpp:91] Creating Layer inception_3b/relu_1x1
I0715 00:31:15.007993 20377 net.cpp:425] inception_3b/relu_1x1 <- inception_3b/1x1
I0715 00:31:15.008002 20377 net.cpp:386] inception_3b/relu_1x1 -> inception_3b/1x1 (in-place)
I0715 00:31:15.009181 20377 net.cpp:141] Setting up inception_3b/relu_1x1
I0715 00:31:15.009198 20377 net.cpp:148] Top shape: 10 128 28 28 (1003520)
I0715 00:31:15.009204 20377 net.cpp:156] Memory required for data: 281989120
I0715 00:31:15.009209 20377 layer_factory.hpp:77] Creating layer inception_3b/3x3_reduce
I0715 00:31:15.009230 20377 net.cpp:91] Creating Layer inception_3b/3x3_reduce
I0715 00:31:15.009238 20377 net.cpp:425] inception_3b/3x3_reduce <- inception_3a/output_inception_3a/output_0_split_1
I0715 00:31:15.009248 20377 net.cpp:399] inception_3b/3x3_reduce -> inception_3b/3x3_reduce
I0715 00:31:15.012506 20373 net.cpp:141] Setting up inception_3b/3x3
I0715 00:31:15.012542 20373 net.cpp:148] Top shape: 10 192 28 28 (1505280)
I0715 00:31:15.012549 20373 net.cpp:156] Memory required for data: 296038400
I0715 00:31:15.012562 20373 layer_factory.hpp:77] Creating layer inception_3b/relu_3x3
I0715 00:31:15.012585 20373 net.cpp:91] Creating Layer inception_3b/relu_3x3
I0715 00:31:15.012593 20373 net.cpp:425] inception_3b/relu_3x3 <- inception_3b/3x3
I0715 00:31:15.012604 20373 net.cpp:386] inception_3b/relu_3x3 -> inception_3b/3x3 (in-place)
I0715 00:31:15.014523 20373 net.cpp:141] Setting up inception_3b/relu_3x3
I0715 00:31:15.014539 20373 net.cpp:148] Top shape: 10 192 28 28 (1505280)
I0715 00:31:15.014542 20373 net.cpp:156] Memory required for data: 302059520
I0715 00:31:15.014547 20373 layer_factory.hpp:77] Creating layer inception_3b/5x5_reduce
I0715 00:31:15.014569 20373 net.cpp:91] Creating Layer inception_3b/5x5_reduce
I0715 00:31:15.014575 20373 net.cpp:425] inception_3b/5x5_reduce <- inception_3a/output_inception_3a/output_0_split_2
I0715 00:31:15.014586 20373 net.cpp:399] inception_3b/5x5_reduce -> inception_3b/5x5_reduce
I0715 00:31:15.015736 20377 net.cpp:141] Setting up inception_3b/3x3_reduce
I0715 00:31:15.015758 20377 net.cpp:148] Top shape: 10 128 28 28 (1003520)
I0715 00:31:15.015764 20377 net.cpp:156] Memory required for data: 286003200
I0715 00:31:15.015774 20377 layer_factory.hpp:77] Creating layer inception_3b/relu_3x3_reduce
I0715 00:31:15.015784 20377 net.cpp:91] Creating Layer inception_3b/relu_3x3_reduce
I0715 00:31:15.015790 20377 net.cpp:425] inception_3b/relu_3x3_reduce <- inception_3b/3x3_reduce
I0715 00:31:15.015799 20377 net.cpp:386] inception_3b/relu_3x3_reduce -> inception_3b/3x3_reduce (in-place)
I0715 00:31:15.017922 20377 net.cpp:141] Setting up inception_3b/relu_3x3_reduce
I0715 00:31:15.017940 20377 net.cpp:148] Top shape: 10 128 28 28 (1003520)
I0715 00:31:15.017945 20377 net.cpp:156] Memory required for data: 290017280
I0715 00:31:15.017951 20377 layer_factory.hpp:77] Creating layer inception_3b/3x3
I0715 00:31:15.017966 20377 net.cpp:91] Creating Layer inception_3b/3x3
I0715 00:31:15.017973 20377 net.cpp:425] inception_3b/3x3 <- inception_3b/3x3_reduce
I0715 00:31:15.017990 20377 net.cpp:399] inception_3b/3x3 -> inception_3b/3x3
I0715 00:31:15.019860 20373 net.cpp:141] Setting up inception_3b/5x5_reduce
I0715 00:31:15.019886 20373 net.cpp:148] Top shape: 10 32 28 28 (250880)
I0715 00:31:15.019891 20373 net.cpp:156] Memory required for data: 303063040
I0715 00:31:15.019901 20373 layer_factory.hpp:77] Creating layer inception_3b/relu_5x5_reduce
I0715 00:31:15.019915 20373 net.cpp:91] Creating Layer inception_3b/relu_5x5_reduce
I0715 00:31:15.019922 20373 net.cpp:425] inception_3b/relu_5x5_reduce <- inception_3b/5x5_reduce
I0715 00:31:15.019934 20373 net.cpp:386] inception_3b/relu_5x5_reduce -> inception_3b/5x5_reduce (in-place)
I0715 00:31:15.020778 20373 net.cpp:141] Setting up inception_3b/relu_5x5_reduce
I0715 00:31:15.020794 20373 net.cpp:148] Top shape: 10 32 28 28 (250880)
I0715 00:31:15.020799 20373 net.cpp:156] Memory required for data: 304066560
I0715 00:31:15.020804 20373 layer_factory.hpp:77] Creating layer inception_3b/5x5
I0715 00:31:15.020822 20373 net.cpp:91] Creating Layer inception_3b/5x5
I0715 00:31:15.020828 20373 net.cpp:425] inception_3b/5x5 <- inception_3b/5x5_reduce
I0715 00:31:15.020839 20373 net.cpp:399] inception_3b/5x5 -> inception_3b/5x5
I0715 00:31:15.024925 20377 net.cpp:141] Setting up inception_3b/3x3
I0715 00:31:15.024948 20377 net.cpp:148] Top shape: 10 192 28 28 (1505280)
I0715 00:31:15.024955 20377 net.cpp:156] Memory required for data: 296038400
I0715 00:31:15.024965 20377 layer_factory.hpp:77] Creating layer inception_3b/relu_3x3
I0715 00:31:15.024982 20377 net.cpp:91] Creating Layer inception_3b/relu_3x3
I0715 00:31:15.024989 20377 net.cpp:425] inception_3b/relu_3x3 <- inception_3b/3x3
I0715 00:31:15.025001 20377 net.cpp:386] inception_3b/relu_3x3 -> inception_3b/3x3 (in-place)
I0715 00:31:15.026913 20377 net.cpp:141] Setting up inception_3b/relu_3x3
I0715 00:31:15.026931 20377 net.cpp:148] Top shape: 10 192 28 28 (1505280)
I0715 00:31:15.026935 20377 net.cpp:156] Memory required for data: 302059520
I0715 00:31:15.026942 20377 layer_factory.hpp:77] Creating layer inception_3b/5x5_reduce
I0715 00:31:15.026960 20377 net.cpp:91] Creating Layer inception_3b/5x5_reduce
I0715 00:31:15.026968 20377 net.cpp:425] inception_3b/5x5_reduce <- inception_3a/output_inception_3a/output_0_split_2
I0715 00:31:15.026978 20377 net.cpp:399] inception_3b/5x5_reduce -> inception_3b/5x5_reduce
I0715 00:31:15.027407 20373 net.cpp:141] Setting up inception_3b/5x5
I0715 00:31:15.027427 20373 net.cpp:148] Top shape: 10 96 28 28 (752640)
I0715 00:31:15.027432 20373 net.cpp:156] Memory required for data: 307077120
I0715 00:31:15.027442 20373 layer_factory.hpp:77] Creating layer inception_3b/relu_5x5
I0715 00:31:15.027454 20373 net.cpp:91] Creating Layer inception_3b/relu_5x5
I0715 00:31:15.027462 20373 net.cpp:425] inception_3b/relu_5x5 <- inception_3b/5x5
I0715 00:31:15.027468 20373 net.cpp:386] inception_3b/relu_5x5 -> inception_3b/5x5 (in-place)
I0715 00:31:15.028785 20373 net.cpp:141] Setting up inception_3b/relu_5x5
I0715 00:31:15.028800 20373 net.cpp:148] Top shape: 10 96 28 28 (752640)
I0715 00:31:15.028820 20373 net.cpp:156] Memory required for data: 310087680
I0715 00:31:15.028825 20373 layer_factory.hpp:77] Creating layer inception_3b/pool
I0715 00:31:15.028836 20373 net.cpp:91] Creating Layer inception_3b/pool
I0715 00:31:15.028841 20373 net.cpp:425] inception_3b/pool <- inception_3a/output_inception_3a/output_0_split_3
I0715 00:31:15.028853 20373 net.cpp:399] inception_3b/pool -> inception_3b/pool
I0715 00:31:15.029572 20373 net.cpp:141] Setting up inception_3b/pool
I0715 00:31:15.029584 20373 net.cpp:148] Top shape: 10 256 28 28 (2007040)
I0715 00:31:15.029589 20373 net.cpp:156] Memory required for data: 318115840
I0715 00:31:15.029593 20373 layer_factory.hpp:77] Creating layer inception_3b/pool_proj
I0715 00:31:15.029614 20373 net.cpp:91] Creating Layer inception_3b/pool_proj
I0715 00:31:15.029620 20373 net.cpp:425] inception_3b/pool_proj <- inception_3b/pool
I0715 00:31:15.029628 20373 net.cpp:399] inception_3b/pool_proj -> inception_3b/pool_proj
I0715 00:31:15.032451 20377 net.cpp:141] Setting up inception_3b/5x5_reduce
I0715 00:31:15.032472 20377 net.cpp:148] Top shape: 10 32 28 28 (250880)
I0715 00:31:15.032479 20377 net.cpp:156] Memory required for data: 303063040
I0715 00:31:15.032488 20377 layer_factory.hpp:77] Creating layer inception_3b/relu_5x5_reduce
I0715 00:31:15.032500 20377 net.cpp:91] Creating Layer inception_3b/relu_5x5_reduce
I0715 00:31:15.032507 20377 net.cpp:425] inception_3b/relu_5x5_reduce <- inception_3b/5x5_reduce
I0715 00:31:15.032516 20377 net.cpp:386] inception_3b/relu_5x5_reduce -> inception_3b/5x5_reduce (in-place)
I0715 00:31:15.033596 20373 net.cpp:141] Setting up inception_3b/pool_proj
I0715 00:31:15.033629 20373 net.cpp:148] Top shape: 10 64 28 28 (501760)
I0715 00:31:15.033635 20373 net.cpp:156] Memory required for data: 320122880
I0715 00:31:15.033640 20377 net.cpp:141] Setting up inception_3b/relu_5x5_reduce
I0715 00:31:15.033645 20373 layer_factory.hpp:77] Creating layer inception_3b/relu_pool_proj
I0715 00:31:15.033658 20377 net.cpp:148] Top shape: 10 32 28 28 (250880)
I0715 00:31:15.033665 20377 net.cpp:156] Memory required for data: 304066560
I0715 00:31:15.033665 20373 net.cpp:91] Creating Layer inception_3b/relu_pool_proj
I0715 00:31:15.033675 20377 layer_factory.hpp:77] Creating layer inception_3b/5x5
I0715 00:31:15.033681 20373 net.cpp:425] inception_3b/relu_pool_proj <- inception_3b/pool_proj
I0715 00:31:15.033691 20373 net.cpp:386] inception_3b/relu_pool_proj -> inception_3b/pool_proj (in-place)
I0715 00:31:15.033694 20377 net.cpp:91] Creating Layer inception_3b/5x5
I0715 00:31:15.033702 20377 net.cpp:425] inception_3b/5x5 <- inception_3b/5x5_reduce
I0715 00:31:15.033716 20377 net.cpp:399] inception_3b/5x5 -> inception_3b/5x5
I0715 00:31:15.034229 20373 net.cpp:141] Setting up inception_3b/relu_pool_proj
I0715 00:31:15.034240 20373 net.cpp:148] Top shape: 10 64 28 28 (501760)
I0715 00:31:15.034245 20373 net.cpp:156] Memory required for data: 322129920
I0715 00:31:15.034250 20373 layer_factory.hpp:77] Creating layer inception_3b/output
I0715 00:31:15.034261 20373 net.cpp:91] Creating Layer inception_3b/output
I0715 00:31:15.034267 20373 net.cpp:425] inception_3b/output <- inception_3b/1x1
I0715 00:31:15.034273 20373 net.cpp:425] inception_3b/output <- inception_3b/3x3
I0715 00:31:15.034278 20373 net.cpp:425] inception_3b/output <- inception_3b/5x5
I0715 00:31:15.034283 20373 net.cpp:425] inception_3b/output <- inception_3b/pool_proj
I0715 00:31:15.034291 20373 net.cpp:399] inception_3b/output -> inception_3b/output
I0715 00:31:15.034342 20373 net.cpp:141] Setting up inception_3b/output
I0715 00:31:15.034350 20373 net.cpp:148] Top shape: 10 480 28 28 (3763200)
I0715 00:31:15.034354 20373 net.cpp:156] Memory required for data: 337182720
I0715 00:31:15.034359 20373 layer_factory.hpp:77] Creating layer pool3/3x3_s2
I0715 00:31:15.034368 20373 net.cpp:91] Creating Layer pool3/3x3_s2
I0715 00:31:15.034373 20373 net.cpp:425] pool3/3x3_s2 <- inception_3b/output
I0715 00:31:15.034382 20373 net.cpp:399] pool3/3x3_s2 -> pool3/3x3_s2
I0715 00:31:15.034446 20373 net.cpp:141] Setting up pool3/3x3_s2
I0715 00:31:15.034456 20373 net.cpp:148] Top shape: 10 480 14 14 (940800)
I0715 00:31:15.034459 20373 net.cpp:156] Memory required for data: 340945920
I0715 00:31:15.034463 20373 layer_factory.hpp:77] Creating layer pool3/3x3_s2_pool3/3x3_s2_0_split
I0715 00:31:15.034473 20373 net.cpp:91] Creating Layer pool3/3x3_s2_pool3/3x3_s2_0_split
I0715 00:31:15.034481 20373 net.cpp:425] pool3/3x3_s2_pool3/3x3_s2_0_split <- pool3/3x3_s2
I0715 00:31:15.034487 20373 net.cpp:399] pool3/3x3_s2_pool3/3x3_s2_0_split -> pool3/3x3_s2_pool3/3x3_s2_0_split_0
I0715 00:31:15.034494 20373 net.cpp:399] pool3/3x3_s2_pool3/3x3_s2_0_split -> pool3/3x3_s2_pool3/3x3_s2_0_split_1
I0715 00:31:15.034502 20373 net.cpp:399] pool3/3x3_s2_pool3/3x3_s2_0_split -> pool3/3x3_s2_pool3/3x3_s2_0_split_2
I0715 00:31:15.034509 20373 net.cpp:399] pool3/3x3_s2_pool3/3x3_s2_0_split -> pool3/3x3_s2_pool3/3x3_s2_0_split_3
I0715 00:31:15.034597 20373 net.cpp:141] Setting up pool3/3x3_s2_pool3/3x3_s2_0_split
I0715 00:31:15.034606 20373 net.cpp:148] Top shape: 10 480 14 14 (940800)
I0715 00:31:15.034612 20373 net.cpp:148] Top shape: 10 480 14 14 (940800)
I0715 00:31:15.034617 20373 net.cpp:148] Top shape: 10 480 14 14 (940800)
I0715 00:31:15.034622 20373 net.cpp:148] Top shape: 10 480 14 14 (940800)
I0715 00:31:15.034626 20373 net.cpp:156] Memory required for data: 355998720
I0715 00:31:15.034631 20373 layer_factory.hpp:77] Creating layer inception_4a/1x1
I0715 00:31:15.034646 20373 net.cpp:91] Creating Layer inception_4a/1x1
I0715 00:31:15.034651 20373 net.cpp:425] inception_4a/1x1 <- pool3/3x3_s2_pool3/3x3_s2_0_split_0
I0715 00:31:15.034662 20373 net.cpp:399] inception_4a/1x1 -> inception_4a/1x1
I0715 00:31:15.039597 20377 net.cpp:141] Setting up inception_3b/5x5
I0715 00:31:15.039623 20377 net.cpp:148] Top shape: 10 96 28 28 (752640)
I0715 00:31:15.039629 20377 net.cpp:156] Memory required for data: 307077120
I0715 00:31:15.039640 20377 layer_factory.hpp:77] Creating layer inception_3b/relu_5x5
I0715 00:31:15.039649 20377 net.cpp:91] Creating Layer inception_3b/relu_5x5
I0715 00:31:15.039656 20377 net.cpp:425] inception_3b/relu_5x5 <- inception_3b/5x5
I0715 00:31:15.039670 20377 net.cpp:386] inception_3b/relu_5x5 -> inception_3b/5x5 (in-place)
I0715 00:31:15.040114 20373 net.cpp:141] Setting up inception_4a/1x1
I0715 00:31:15.040133 20373 net.cpp:148] Top shape: 10 192 14 14 (376320)
I0715 00:31:15.040138 20373 net.cpp:156] Memory required for data: 357504000
I0715 00:31:15.040148 20373 layer_factory.hpp:77] Creating layer inception_4a/relu_1x1
I0715 00:31:15.040158 20373 net.cpp:91] Creating Layer inception_4a/relu_1x1
I0715 00:31:15.040163 20373 net.cpp:425] inception_4a/relu_1x1 <- inception_4a/1x1
I0715 00:31:15.040174 20373 net.cpp:386] inception_4a/relu_1x1 -> inception_4a/1x1 (in-place)
I0715 00:31:15.040195 20377 net.cpp:141] Setting up inception_3b/relu_5x5
I0715 00:31:15.040210 20377 net.cpp:148] Top shape: 10 96 28 28 (752640)
I0715 00:31:15.040215 20377 net.cpp:156] Memory required for data: 310087680
I0715 00:31:15.040220 20377 layer_factory.hpp:77] Creating layer inception_3b/pool
I0715 00:31:15.040233 20377 net.cpp:91] Creating Layer inception_3b/pool
I0715 00:31:15.040240 20377 net.cpp:425] inception_3b/pool <- inception_3a/output_inception_3a/output_0_split_3
I0715 00:31:15.040248 20377 net.cpp:399] inception_3b/pool -> inception_3b/pool
I0715 00:31:15.040990 20377 net.cpp:141] Setting up inception_3b/pool
I0715 00:31:15.041005 20377 net.cpp:148] Top shape: 10 256 28 28 (2007040)
I0715 00:31:15.041010 20377 net.cpp:156] Memory required for data: 318115840
I0715 00:31:15.041016 20377 layer_factory.hpp:77] Creating layer inception_3b/pool_proj
I0715 00:31:15.041033 20377 net.cpp:91] Creating Layer inception_3b/pool_proj
I0715 00:31:15.041039 20377 net.cpp:425] inception_3b/pool_proj <- inception_3b/pool
I0715 00:31:15.041056 20377 net.cpp:399] inception_3b/pool_proj -> inception_3b/pool_proj
I0715 00:31:15.041070 20373 net.cpp:141] Setting up inception_4a/relu_1x1
I0715 00:31:15.041085 20373 net.cpp:148] Top shape: 10 192 14 14 (376320)
I0715 00:31:15.041088 20373 net.cpp:156] Memory required for data: 359009280
I0715 00:31:15.041095 20373 layer_factory.hpp:77] Creating layer inception_4a/3x3_reduce
I0715 00:31:15.041111 20373 net.cpp:91] Creating Layer inception_4a/3x3_reduce
I0715 00:31:15.041117 20373 net.cpp:425] inception_4a/3x3_reduce <- pool3/3x3_s2_pool3/3x3_s2_0_split_1
I0715 00:31:15.041128 20373 net.cpp:399] inception_4a/3x3_reduce -> inception_4a/3x3_reduce
I0715 00:31:15.046185 20377 net.cpp:141] Setting up inception_3b/pool_proj
I0715 00:31:15.046205 20377 net.cpp:148] Top shape: 10 64 28 28 (501760)
I0715 00:31:15.046211 20377 net.cpp:156] Memory required for data: 320122880
I0715 00:31:15.046221 20377 layer_factory.hpp:77] Creating layer inception_3b/relu_pool_proj
I0715 00:31:15.046236 20377 net.cpp:91] Creating Layer inception_3b/relu_pool_proj
I0715 00:31:15.046243 20377 net.cpp:425] inception_3b/relu_pool_proj <- inception_3b/pool_proj
I0715 00:31:15.046252 20377 net.cpp:386] inception_3b/relu_pool_proj -> inception_3b/pool_proj (in-place)
I0715 00:31:15.047222 20373 net.cpp:141] Setting up inception_4a/3x3_reduce
I0715 00:31:15.047256 20373 net.cpp:148] Top shape: 10 96 14 14 (188160)
I0715 00:31:15.047262 20373 net.cpp:156] Memory required for data: 359761920
I0715 00:31:15.047282 20373 layer_factory.hpp:77] Creating layer inception_4a/relu_3x3_reduce
I0715 00:31:15.047292 20373 net.cpp:91] Creating Layer inception_4a/relu_3x3_reduce
I0715 00:31:15.047297 20373 net.cpp:425] inception_4a/relu_3x3_reduce <- inception_4a/3x3_reduce
I0715 00:31:15.047307 20373 net.cpp:386] inception_4a/relu_3x3_reduce -> inception_4a/3x3_reduce (in-place)
I0715 00:31:15.047355 20377 net.cpp:141] Setting up inception_3b/relu_pool_proj
I0715 00:31:15.047370 20377 net.cpp:148] Top shape: 10 64 28 28 (501760)
I0715 00:31:15.047375 20377 net.cpp:156] Memory required for data: 322129920
I0715 00:31:15.047381 20377 layer_factory.hpp:77] Creating layer inception_3b/output
I0715 00:31:15.047395 20377 net.cpp:91] Creating Layer inception_3b/output
I0715 00:31:15.047401 20377 net.cpp:425] inception_3b/output <- inception_3b/1x1
I0715 00:31:15.047408 20377 net.cpp:425] inception_3b/output <- inception_3b/3x3
I0715 00:31:15.047415 20377 net.cpp:425] inception_3b/output <- inception_3b/5x5
I0715 00:31:15.047420 20377 net.cpp:425] inception_3b/output <- inception_3b/pool_proj
I0715 00:31:15.047427 20377 net.cpp:399] inception_3b/output -> inception_3b/output
I0715 00:31:15.047605 20377 net.cpp:141] Setting up inception_3b/output
I0715 00:31:15.047616 20377 net.cpp:148] Top shape: 10 480 28 28 (3763200)
I0715 00:31:15.047621 20377 net.cpp:156] Memory required for data: 337182720
I0715 00:31:15.047626 20377 layer_factory.hpp:77] Creating layer pool3/3x3_s2
I0715 00:31:15.047636 20377 net.cpp:91] Creating Layer pool3/3x3_s2
I0715 00:31:15.047641 20377 net.cpp:425] pool3/3x3_s2 <- inception_3b/output
I0715 00:31:15.047653 20377 net.cpp:399] pool3/3x3_s2 -> pool3/3x3_s2
I0715 00:31:15.047686 20373 net.cpp:141] Setting up inception_4a/relu_3x3_reduce
I0715 00:31:15.047698 20373 net.cpp:148] Top shape: 10 96 14 14 (188160)
I0715 00:31:15.047703 20373 net.cpp:156] Memory required for data: 360514560
I0715 00:31:15.047708 20373 layer_factory.hpp:77] Creating layer inception_4a/3x3
I0715 00:31:15.047727 20373 net.cpp:91] Creating Layer inception_4a/3x3
I0715 00:31:15.047734 20373 net.cpp:425] inception_4a/3x3 <- inception_4a/3x3_reduce
I0715 00:31:15.047742 20373 net.cpp:399] inception_4a/3x3 -> inception_4a/3x3
I0715 00:31:15.047752 20377 net.cpp:141] Setting up pool3/3x3_s2
I0715 00:31:15.047765 20377 net.cpp:148] Top shape: 10 480 14 14 (940800)
I0715 00:31:15.047770 20377 net.cpp:156] Memory required for data: 340945920
I0715 00:31:15.047775 20377 layer_factory.hpp:77] Creating layer pool3/3x3_s2_pool3/3x3_s2_0_split
I0715 00:31:15.047785 20377 net.cpp:91] Creating Layer pool3/3x3_s2_pool3/3x3_s2_0_split
I0715 00:31:15.047790 20377 net.cpp:425] pool3/3x3_s2_pool3/3x3_s2_0_split <- pool3/3x3_s2
I0715 00:31:15.047799 20377 net.cpp:399] pool3/3x3_s2_pool3/3x3_s2_0_split -> pool3/3x3_s2_pool3/3x3_s2_0_split_0
I0715 00:31:15.047808 20377 net.cpp:399] pool3/3x3_s2_pool3/3x3_s2_0_split -> pool3/3x3_s2_pool3/3x3_s2_0_split_1
I0715 00:31:15.047817 20377 net.cpp:399] pool3/3x3_s2_pool3/3x3_s2_0_split -> pool3/3x3_s2_pool3/3x3_s2_0_split_2
I0715 00:31:15.047827 20377 net.cpp:399] pool3/3x3_s2_pool3/3x3_s2_0_split -> pool3/3x3_s2_pool3/3x3_s2_0_split_3
I0715 00:31:15.049275 20377 net.cpp:141] Setting up pool3/3x3_s2_pool3/3x3_s2_0_split
I0715 00:31:15.049288 20377 net.cpp:148] Top shape: 10 480 14 14 (940800)
I0715 00:31:15.049294 20377 net.cpp:148] Top shape: 10 480 14 14 (940800)
I0715 00:31:15.049300 20377 net.cpp:148] Top shape: 10 480 14 14 (940800)
I0715 00:31:15.049305 20377 net.cpp:148] Top shape: 10 480 14 14 (940800)
I0715 00:31:15.049310 20377 net.cpp:156] Memory required for data: 355998720
I0715 00:31:15.049315 20377 layer_factory.hpp:77] Creating layer inception_4a/1x1
I0715 00:31:15.049332 20377 net.cpp:91] Creating Layer inception_4a/1x1
I0715 00:31:15.049338 20377 net.cpp:425] inception_4a/1x1 <- pool3/3x3_s2_pool3/3x3_s2_0_split_0
I0715 00:31:15.049350 20377 net.cpp:399] inception_4a/1x1 -> inception_4a/1x1
I0715 00:31:15.055570 20377 net.cpp:141] Setting up inception_4a/1x1
I0715 00:31:15.055593 20377 net.cpp:148] Top shape: 10 192 14 14 (376320)
I0715 00:31:15.055599 20377 net.cpp:156] Memory required for data: 357504000
I0715 00:31:15.055609 20377 layer_factory.hpp:77] Creating layer inception_4a/relu_1x1
I0715 00:31:15.055624 20377 net.cpp:91] Creating Layer inception_4a/relu_1x1
I0715 00:31:15.055630 20377 net.cpp:425] inception_4a/relu_1x1 <- inception_4a/1x1
I0715 00:31:15.055639 20377 net.cpp:386] inception_4a/relu_1x1 -> inception_4a/1x1 (in-place)
I0715 00:31:15.056471 20373 net.cpp:141] Setting up inception_4a/3x3
I0715 00:31:15.056496 20373 net.cpp:148] Top shape: 10 208 14 14 (407680)
I0715 00:31:15.056502 20373 net.cpp:156] Memory required for data: 362145280
I0715 00:31:15.056512 20373 layer_factory.hpp:77] Creating layer inception_4a/relu_3x3
I0715 00:31:15.056525 20373 net.cpp:91] Creating Layer inception_4a/relu_3x3
I0715 00:31:15.056532 20373 net.cpp:425] inception_4a/relu_3x3 <- inception_4a/3x3
I0715 00:31:15.056540 20373 net.cpp:386] inception_4a/relu_3x3 -> inception_4a/3x3 (in-place)
I0715 00:31:15.056591 20377 net.cpp:141] Setting up inception_4a/relu_1x1
I0715 00:31:15.056605 20377 net.cpp:148] Top shape: 10 192 14 14 (376320)
I0715 00:31:15.056612 20377 net.cpp:156] Memory required for data: 359009280
I0715 00:31:15.056617 20377 layer_factory.hpp:77] Creating layer inception_4a/3x3_reduce
I0715 00:31:15.056638 20377 net.cpp:91] Creating Layer inception_4a/3x3_reduce
I0715 00:31:15.056644 20377 net.cpp:425] inception_4a/3x3_reduce <- pool3/3x3_s2_pool3/3x3_s2_0_split_1
I0715 00:31:15.056654 20377 net.cpp:399] inception_4a/3x3_reduce -> inception_4a/3x3_reduce
I0715 00:31:15.057157 20373 net.cpp:141] Setting up inception_4a/relu_3x3
I0715 00:31:15.057169 20373 net.cpp:148] Top shape: 10 208 14 14 (407680)
I0715 00:31:15.057173 20373 net.cpp:156] Memory required for data: 363776000
I0715 00:31:15.057178 20373 layer_factory.hpp:77] Creating layer inception_4a/5x5_reduce
I0715 00:31:15.057198 20373 net.cpp:91] Creating Layer inception_4a/5x5_reduce
I0715 00:31:15.057204 20373 net.cpp:425] inception_4a/5x5_reduce <- pool3/3x3_s2_pool3/3x3_s2_0_split_2
I0715 00:31:15.057214 20373 net.cpp:399] inception_4a/5x5_reduce -> inception_4a/5x5_reduce
I0715 00:31:15.062126 20373 net.cpp:141] Setting up inception_4a/5x5_reduce
I0715 00:31:15.062158 20373 net.cpp:148] Top shape: 10 16 14 14 (31360)
I0715 00:31:15.062165 20373 net.cpp:156] Memory required for data: 363901440
I0715 00:31:15.062173 20373 layer_factory.hpp:77] Creating layer inception_4a/relu_5x5_reduce
I0715 00:31:15.062186 20373 net.cpp:91] Creating Layer inception_4a/relu_5x5_reduce
I0715 00:31:15.062191 20373 net.cpp:425] inception_4a/relu_5x5_reduce <- inception_4a/5x5_reduce
I0715 00:31:15.062199 20373 net.cpp:386] inception_4a/relu_5x5_reduce -> inception_4a/5x5_reduce (in-place)
I0715 00:31:15.062785 20373 net.cpp:141] Setting up inception_4a/relu_5x5_reduce
I0715 00:31:15.062799 20373 net.cpp:148] Top shape: 10 16 14 14 (31360)
I0715 00:31:15.062804 20373 net.cpp:156] Memory required for data: 364026880
I0715 00:31:15.062809 20373 layer_factory.hpp:77] Creating layer inception_4a/5x5
I0715 00:31:15.062831 20377 net.cpp:141] Setting up inception_4a/3x3_reduce
I0715 00:31:15.062835 20373 net.cpp:91] Creating Layer inception_4a/5x5
I0715 00:31:15.062851 20377 net.cpp:148] Top shape: 10 96 14 14 (188160)
I0715 00:31:15.062855 20373 net.cpp:425] inception_4a/5x5 <- inception_4a/5x5_reduce
I0715 00:31:15.062858 20377 net.cpp:156] Memory required for data: 359761920
I0715 00:31:15.062870 20373 net.cpp:399] inception_4a/5x5 -> inception_4a/5x5
I0715 00:31:15.062880 20377 layer_factory.hpp:77] Creating layer inception_4a/relu_3x3_reduce
I0715 00:31:15.062891 20377 net.cpp:91] Creating Layer inception_4a/relu_3x3_reduce
I0715 00:31:15.062898 20377 net.cpp:425] inception_4a/relu_3x3_reduce <- inception_4a/3x3_reduce
I0715 00:31:15.062908 20377 net.cpp:386] inception_4a/relu_3x3_reduce -> inception_4a/3x3_reduce (in-place)
I0715 00:31:15.065595 20377 net.cpp:141] Setting up inception_4a/relu_3x3_reduce
I0715 00:31:15.065614 20377 net.cpp:148] Top shape: 10 96 14 14 (188160)
I0715 00:31:15.065619 20377 net.cpp:156] Memory required for data: 360514560
I0715 00:31:15.065625 20377 layer_factory.hpp:77] Creating layer inception_4a/3x3
I0715 00:31:15.065642 20377 net.cpp:91] Creating Layer inception_4a/3x3
I0715 00:31:15.065649 20377 net.cpp:425] inception_4a/3x3 <- inception_4a/3x3_reduce
I0715 00:31:15.065663 20377 net.cpp:399] inception_4a/3x3 -> inception_4a/3x3
I0715 00:31:15.068888 20373 net.cpp:141] Setting up inception_4a/5x5
I0715 00:31:15.068924 20373 net.cpp:148] Top shape: 10 48 14 14 (94080)
I0715 00:31:15.068930 20373 net.cpp:156] Memory required for data: 364403200
I0715 00:31:15.068941 20373 layer_factory.hpp:77] Creating layer inception_4a/relu_5x5
I0715 00:31:15.068953 20373 net.cpp:91] Creating Layer inception_4a/relu_5x5
I0715 00:31:15.068959 20373 net.cpp:425] inception_4a/relu_5x5 <- inception_4a/5x5
I0715 00:31:15.068967 20373 net.cpp:386] inception_4a/relu_5x5 -> inception_4a/5x5 (in-place)
I0715 00:31:15.069205 20373 net.cpp:141] Setting up inception_4a/relu_5x5
I0715 00:31:15.069216 20373 net.cpp:148] Top shape: 10 48 14 14 (94080)
I0715 00:31:15.069221 20373 net.cpp:156] Memory required for data: 364779520
I0715 00:31:15.069226 20373 layer_factory.hpp:77] Creating layer inception_4a/pool
I0715 00:31:15.069238 20373 net.cpp:91] Creating Layer inception_4a/pool
I0715 00:31:15.069244 20373 net.cpp:425] inception_4a/pool <- pool3/3x3_s2_pool3/3x3_s2_0_split_3
I0715 00:31:15.069253 20373 net.cpp:399] inception_4a/pool -> inception_4a/pool
I0715 00:31:15.069324 20373 net.cpp:141] Setting up inception_4a/pool
I0715 00:31:15.069334 20373 net.cpp:148] Top shape: 10 480 14 14 (940800)
I0715 00:31:15.069339 20373 net.cpp:156] Memory required for data: 368542720
I0715 00:31:15.069344 20373 layer_factory.hpp:77] Creating layer inception_4a/pool_proj
I0715 00:31:15.069357 20373 net.cpp:91] Creating Layer inception_4a/pool_proj
I0715 00:31:15.069363 20373 net.cpp:425] inception_4a/pool_proj <- inception_4a/pool
I0715 00:31:15.069375 20373 net.cpp:399] inception_4a/pool_proj -> inception_4a/pool_proj
I0715 00:31:15.074295 20377 net.cpp:141] Setting up inception_4a/3x3
I0715 00:31:15.074318 20377 net.cpp:148] Top shape: 10 208 14 14 (407680)
I0715 00:31:15.074324 20377 net.cpp:156] Memory required for data: 362145280
I0715 00:31:15.074334 20377 layer_factory.hpp:77] Creating layer inception_4a/relu_3x3
I0715 00:31:15.074347 20377 net.cpp:91] Creating Layer inception_4a/relu_3x3
I0715 00:31:15.074354 20377 net.cpp:425] inception_4a/relu_3x3 <- inception_4a/3x3
I0715 00:31:15.074362 20377 net.cpp:386] inception_4a/relu_3x3 -> inception_4a/3x3 (in-place)
I0715 00:31:15.074792 20373 net.cpp:141] Setting up inception_4a/pool_proj
I0715 00:31:15.074810 20373 net.cpp:148] Top shape: 10 64 14 14 (125440)
I0715 00:31:15.074815 20373 net.cpp:156] Memory required for data: 369044480
I0715 00:31:15.074826 20373 layer_factory.hpp:77] Creating layer inception_4a/relu_pool_proj
I0715 00:31:15.074836 20373 net.cpp:91] Creating Layer inception_4a/relu_pool_proj
I0715 00:31:15.074843 20373 net.cpp:425] inception_4a/relu_pool_proj <- inception_4a/pool_proj
I0715 00:31:15.074851 20373 net.cpp:386] inception_4a/relu_pool_proj -> inception_4a/pool_proj (in-place)
I0715 00:31:15.076354 20377 net.cpp:141] Setting up inception_4a/relu_3x3
I0715 00:31:15.076370 20373 net.cpp:141] Setting up inception_4a/relu_pool_proj
I0715 00:31:15.076375 20377 net.cpp:148] Top shape: 10 208 14 14 (407680)
I0715 00:31:15.076386 20373 net.cpp:148] Top shape: 10 64 14 14 (125440)
I0715 00:31:15.076390 20377 net.cpp:156] Memory required for data: 363776000
I0715 00:31:15.076393 20373 net.cpp:156] Memory required for data: 369546240
I0715 00:31:15.076397 20377 layer_factory.hpp:77] Creating layer inception_4a/5x5_reduce
I0715 00:31:15.076400 20373 layer_factory.hpp:77] Creating layer inception_4a/output
I0715 00:31:15.076409 20373 net.cpp:91] Creating Layer inception_4a/output
I0715 00:31:15.076414 20373 net.cpp:425] inception_4a/output <- inception_4a/1x1
I0715 00:31:15.076416 20377 net.cpp:91] Creating Layer inception_4a/5x5_reduce
I0715 00:31:15.076422 20373 net.cpp:425] inception_4a/output <- inception_4a/3x3
I0715 00:31:15.076424 20377 net.cpp:425] inception_4a/5x5_reduce <- pool3/3x3_s2_pool3/3x3_s2_0_split_2
I0715 00:31:15.076428 20373 net.cpp:425] inception_4a/output <- inception_4a/5x5
I0715 00:31:15.076434 20373 net.cpp:425] inception_4a/output <- inception_4a/pool_proj
I0715 00:31:15.076436 20377 net.cpp:399] inception_4a/5x5_reduce -> inception_4a/5x5_reduce
I0715 00:31:15.076442 20373 net.cpp:399] inception_4a/output -> inception_4a/output
I0715 00:31:15.076807 20373 net.cpp:141] Setting up inception_4a/output
I0715 00:31:15.076817 20373 net.cpp:148] Top shape: 10 512 14 14 (1003520)
I0715 00:31:15.076822 20373 net.cpp:156] Memory required for data: 373560320
I0715 00:31:15.076827 20373 layer_factory.hpp:77] Creating layer inception_4a/output_inception_4a/output_0_split
I0715 00:31:15.076835 20373 net.cpp:91] Creating Layer inception_4a/output_inception_4a/output_0_split
I0715 00:31:15.076840 20373 net.cpp:425] inception_4a/output_inception_4a/output_0_split <- inception_4a/output
I0715 00:31:15.076849 20373 net.cpp:399] inception_4a/output_inception_4a/output_0_split -> inception_4a/output_inception_4a/output_0_split_0
I0715 00:31:15.076858 20373 net.cpp:399] inception_4a/output_inception_4a/output_0_split -> inception_4a/output_inception_4a/output_0_split_1
I0715 00:31:15.076867 20373 net.cpp:399] inception_4a/output_inception_4a/output_0_split -> inception_4a/output_inception_4a/output_0_split_2
I0715 00:31:15.076874 20373 net.cpp:399] inception_4a/output_inception_4a/output_0_split -> inception_4a/output_inception_4a/output_0_split_3
I0715 00:31:15.077234 20373 net.cpp:141] Setting up inception_4a/output_inception_4a/output_0_split
I0715 00:31:15.077244 20373 net.cpp:148] Top shape: 10 512 14 14 (1003520)
I0715 00:31:15.077250 20373 net.cpp:148] Top shape: 10 512 14 14 (1003520)
I0715 00:31:15.077255 20373 net.cpp:148] Top shape: 10 512 14 14 (1003520)
I0715 00:31:15.077260 20373 net.cpp:148] Top shape: 10 512 14 14 (1003520)
I0715 00:31:15.077263 20373 net.cpp:156] Memory required for data: 389616640
I0715 00:31:15.077268 20373 layer_factory.hpp:77] Creating layer inception_4b/1x1
I0715 00:31:15.077283 20373 net.cpp:91] Creating Layer inception_4b/1x1
I0715 00:31:15.077289 20373 net.cpp:425] inception_4b/1x1 <- inception_4a/output_inception_4a/output_0_split_0
I0715 00:31:15.077297 20373 net.cpp:399] inception_4b/1x1 -> inception_4b/1x1
I0715 00:31:15.081123 20373 net.cpp:141] Setting up inception_4b/1x1
I0715 00:31:15.081143 20373 net.cpp:148] Top shape: 10 160 14 14 (313600)
I0715 00:31:15.081148 20373 net.cpp:156] Memory required for data: 390871040
I0715 00:31:15.081158 20373 layer_factory.hpp:77] Creating layer inception_4b/relu_1x1
I0715 00:31:15.081171 20373 net.cpp:91] Creating Layer inception_4b/relu_1x1
I0715 00:31:15.081177 20373 net.cpp:425] inception_4b/relu_1x1 <- inception_4b/1x1
I0715 00:31:15.081184 20373 net.cpp:386] inception_4b/relu_1x1 -> inception_4b/1x1 (in-place)
I0715 00:31:15.082061 20377 net.cpp:141] Setting up inception_4a/5x5_reduce
I0715 00:31:15.082082 20377 net.cpp:148] Top shape: 10 16 14 14 (31360)
I0715 00:31:15.082087 20377 net.cpp:156] Memory required for data: 363901440
I0715 00:31:15.082098 20377 layer_factory.hpp:77] Creating layer inception_4a/relu_5x5_reduce
I0715 00:31:15.082109 20377 net.cpp:91] Creating Layer inception_4a/relu_5x5_reduce
I0715 00:31:15.082116 20377 net.cpp:425] inception_4a/relu_5x5_reduce <- inception_4a/5x5_reduce
I0715 00:31:15.082124 20377 net.cpp:386] inception_4a/relu_5x5_reduce -> inception_4a/5x5_reduce (in-place)
I0715 00:31:15.082181 20373 net.cpp:141] Setting up inception_4b/relu_1x1
I0715 00:31:15.082196 20373 net.cpp:148] Top shape: 10 160 14 14 (313600)
I0715 00:31:15.082201 20373 net.cpp:156] Memory required for data: 392125440
I0715 00:31:15.082206 20373 layer_factory.hpp:77] Creating layer inception_4b/3x3_reduce
I0715 00:31:15.082234 20373 net.cpp:91] Creating Layer inception_4b/3x3_reduce
I0715 00:31:15.082242 20373 net.cpp:425] inception_4b/3x3_reduce <- inception_4a/output_inception_4a/output_0_split_1
I0715 00:31:15.082252 20373 net.cpp:399] inception_4b/3x3_reduce -> inception_4b/3x3_reduce
I0715 00:31:15.082767 20377 net.cpp:141] Setting up inception_4a/relu_5x5_reduce
I0715 00:31:15.082782 20377 net.cpp:148] Top shape: 10 16 14 14 (31360)
I0715 00:31:15.082787 20377 net.cpp:156] Memory required for data: 364026880
I0715 00:31:15.082793 20377 layer_factory.hpp:77] Creating layer inception_4a/5x5
I0715 00:31:15.082813 20377 net.cpp:91] Creating Layer inception_4a/5x5
I0715 00:31:15.082819 20377 net.cpp:425] inception_4a/5x5 <- inception_4a/5x5_reduce
I0715 00:31:15.082829 20377 net.cpp:399] inception_4a/5x5 -> inception_4a/5x5
I0715 00:31:15.087298 20373 net.cpp:141] Setting up inception_4b/3x3_reduce
I0715 00:31:15.087332 20373 net.cpp:148] Top shape: 10 112 14 14 (219520)
I0715 00:31:15.087337 20373 net.cpp:156] Memory required for data: 393003520
I0715 00:31:15.087347 20373 layer_factory.hpp:77] Creating layer inception_4b/relu_3x3_reduce
I0715 00:31:15.087355 20373 net.cpp:91] Creating Layer inception_4b/relu_3x3_reduce
I0715 00:31:15.087362 20373 net.cpp:425] inception_4b/relu_3x3_reduce <- inception_4b/3x3_reduce
I0715 00:31:15.087368 20373 net.cpp:386] inception_4b/relu_3x3_reduce -> inception_4b/3x3_reduce (in-place)
I0715 00:31:15.088443 20373 net.cpp:141] Setting up inception_4b/relu_3x3_reduce
I0715 00:31:15.088472 20373 net.cpp:148] Top shape: 10 112 14 14 (219520)
I0715 00:31:15.088477 20373 net.cpp:156] Memory required for data: 393881600
I0715 00:31:15.088484 20373 layer_factory.hpp:77] Creating layer inception_4b/3x3
I0715 00:31:15.088503 20373 net.cpp:91] Creating Layer inception_4b/3x3
I0715 00:31:15.088510 20373 net.cpp:425] inception_4b/3x3 <- inception_4b/3x3_reduce
I0715 00:31:15.088521 20373 net.cpp:399] inception_4b/3x3 -> inception_4b/3x3
I0715 00:31:15.088711 20377 net.cpp:141] Setting up inception_4a/5x5
I0715 00:31:15.088728 20377 net.cpp:148] Top shape: 10 48 14 14 (94080)
I0715 00:31:15.088734 20377 net.cpp:156] Memory required for data: 364403200
I0715 00:31:15.088744 20377 layer_factory.hpp:77] Creating layer inception_4a/relu_5x5
I0715 00:31:15.088753 20377 net.cpp:91] Creating Layer inception_4a/relu_5x5
I0715 00:31:15.088760 20377 net.cpp:425] inception_4a/relu_5x5 <- inception_4a/5x5
I0715 00:31:15.088770 20377 net.cpp:386] inception_4a/relu_5x5 -> inception_4a/5x5 (in-place)
I0715 00:31:15.090471 20377 net.cpp:141] Setting up inception_4a/relu_5x5
I0715 00:31:15.090489 20377 net.cpp:148] Top shape: 10 48 14 14 (94080)
I0715 00:31:15.090494 20377 net.cpp:156] Memory required for data: 364779520
I0715 00:31:15.090500 20377 layer_factory.hpp:77] Creating layer inception_4a/pool
I0715 00:31:15.090513 20377 net.cpp:91] Creating Layer inception_4a/pool
I0715 00:31:15.090520 20377 net.cpp:425] inception_4a/pool <- pool3/3x3_s2_pool3/3x3_s2_0_split_3
I0715 00:31:15.090528 20377 net.cpp:399] inception_4a/pool -> inception_4a/pool
I0715 00:31:15.090620 20377 net.cpp:141] Setting up inception_4a/pool
I0715 00:31:15.090629 20377 net.cpp:148] Top shape: 10 480 14 14 (940800)
I0715 00:31:15.090634 20377 net.cpp:156] Memory required for data: 368542720
I0715 00:31:15.090639 20377 layer_factory.hpp:77] Creating layer inception_4a/pool_proj
I0715 00:31:15.090656 20377 net.cpp:91] Creating Layer inception_4a/pool_proj
I0715 00:31:15.090662 20377 net.cpp:425] inception_4a/pool_proj <- inception_4a/pool
I0715 00:31:15.090679 20377 net.cpp:399] inception_4a/pool_proj -> inception_4a/pool_proj
I0715 00:31:15.095860 20373 net.cpp:141] Setting up inception_4b/3x3
I0715 00:31:15.095901 20373 net.cpp:148] Top shape: 10 224 14 14 (439040)
I0715 00:31:15.095907 20373 net.cpp:156] Memory required for data: 395637760
I0715 00:31:15.095918 20373 layer_factory.hpp:77] Creating layer inception_4b/relu_3x3
I0715 00:31:15.095932 20373 net.cpp:91] Creating Layer inception_4b/relu_3x3
I0715 00:31:15.095939 20373 net.cpp:425] inception_4b/relu_3x3 <- inception_4b/3x3
I0715 00:31:15.095948 20373 net.cpp:386] inception_4b/relu_3x3 -> inception_4b/3x3 (in-place)
I0715 00:31:15.096377 20377 net.cpp:141] Setting up inception_4a/pool_proj
I0715 00:31:15.096395 20377 net.cpp:148] Top shape: 10 64 14 14 (125440)
I0715 00:31:15.096400 20377 net.cpp:156] Memory required for data: 369044480
I0715 00:31:15.096410 20377 layer_factory.hpp:77] Creating layer inception_4a/relu_pool_proj
I0715 00:31:15.096423 20377 net.cpp:91] Creating Layer inception_4a/relu_pool_proj
I0715 00:31:15.096431 20377 net.cpp:425] inception_4a/relu_pool_proj <- inception_4a/pool_proj
I0715 00:31:15.096439 20377 net.cpp:386] inception_4a/relu_pool_proj -> inception_4a/pool_proj (in-place)
I0715 00:31:15.097332 20373 net.cpp:141] Setting up inception_4b/relu_3x3
I0715 00:31:15.097347 20373 net.cpp:148] Top shape: 10 224 14 14 (439040)
I0715 00:31:15.097352 20373 net.cpp:156] Memory required for data: 397393920
I0715 00:31:15.097357 20373 layer_factory.hpp:77] Creating layer inception_4b/5x5_reduce
I0715 00:31:15.097373 20377 net.cpp:141] Setting up inception_4a/relu_pool_proj
I0715 00:31:15.097386 20373 net.cpp:91] Creating Layer inception_4b/5x5_reduce
I0715 00:31:15.097389 20377 net.cpp:148] Top shape: 10 64 14 14 (125440)
I0715 00:31:15.097393 20373 net.cpp:425] inception_4b/5x5_reduce <- inception_4a/output_inception_4a/output_0_split_2
I0715 00:31:15.097395 20377 net.cpp:156] Memory required for data: 369546240
I0715 00:31:15.097403 20377 layer_factory.hpp:77] Creating layer inception_4a/output
I0715 00:31:15.097404 20373 net.cpp:399] inception_4b/5x5_reduce -> inception_4b/5x5_reduce
I0715 00:31:15.097416 20377 net.cpp:91] Creating Layer inception_4a/output
I0715 00:31:15.097424 20377 net.cpp:425] inception_4a/output <- inception_4a/1x1
I0715 00:31:15.097431 20377 net.cpp:425] inception_4a/output <- inception_4a/3x3
I0715 00:31:15.097437 20377 net.cpp:425] inception_4a/output <- inception_4a/5x5
I0715 00:31:15.097442 20377 net.cpp:425] inception_4a/output <- inception_4a/pool_proj
I0715 00:31:15.097450 20377 net.cpp:399] inception_4a/output -> inception_4a/output
I0715 00:31:15.097753 20377 net.cpp:141] Setting up inception_4a/output
I0715 00:31:15.097765 20377 net.cpp:148] Top shape: 10 512 14 14 (1003520)
I0715 00:31:15.097769 20377 net.cpp:156] Memory required for data: 373560320
I0715 00:31:15.097775 20377 layer_factory.hpp:77] Creating layer inception_4a/output_inception_4a/output_0_split
I0715 00:31:15.097784 20377 net.cpp:91] Creating Layer inception_4a/output_inception_4a/output_0_split
I0715 00:31:15.097790 20377 net.cpp:425] inception_4a/output_inception_4a/output_0_split <- inception_4a/output
I0715 00:31:15.097802 20377 net.cpp:399] inception_4a/output_inception_4a/output_0_split -> inception_4a/output_inception_4a/output_0_split_0
I0715 00:31:15.097813 20377 net.cpp:399] inception_4a/output_inception_4a/output_0_split -> inception_4a/output_inception_4a/output_0_split_1
I0715 00:31:15.097822 20377 net.cpp:399] inception_4a/output_inception_4a/output_0_split -> inception_4a/output_inception_4a/output_0_split_2
I0715 00:31:15.097831 20377 net.cpp:399] inception_4a/output_inception_4a/output_0_split -> inception_4a/output_inception_4a/output_0_split_3
I0715 00:31:15.098332 20377 net.cpp:141] Setting up inception_4a/output_inception_4a/output_0_split
I0715 00:31:15.098345 20377 net.cpp:148] Top shape: 10 512 14 14 (1003520)
I0715 00:31:15.098351 20377 net.cpp:148] Top shape: 10 512 14 14 (1003520)
I0715 00:31:15.098357 20377 net.cpp:148] Top shape: 10 512 14 14 (1003520)
I0715 00:31:15.098363 20377 net.cpp:148] Top shape: 10 512 14 14 (1003520)
I0715 00:31:15.098367 20377 net.cpp:156] Memory required for data: 389616640
I0715 00:31:15.098373 20377 layer_factory.hpp:77] Creating layer inception_4b/1x1
I0715 00:31:15.098388 20377 net.cpp:91] Creating Layer inception_4b/1x1
I0715 00:31:15.098394 20377 net.cpp:425] inception_4b/1x1 <- inception_4a/output_inception_4a/output_0_split_0
I0715 00:31:15.098404 20377 net.cpp:399] inception_4b/1x1 -> inception_4b/1x1
I0715 00:31:15.101366 20373 net.cpp:141] Setting up inception_4b/5x5_reduce
I0715 00:31:15.101399 20373 net.cpp:148] Top shape: 10 24 14 14 (47040)
I0715 00:31:15.101405 20373 net.cpp:156] Memory required for data: 397582080
I0715 00:31:15.101416 20373 layer_factory.hpp:77] Creating layer inception_4b/relu_5x5_reduce
I0715 00:31:15.101425 20373 net.cpp:91] Creating Layer inception_4b/relu_5x5_reduce
I0715 00:31:15.101431 20373 net.cpp:425] inception_4b/relu_5x5_reduce <- inception_4b/5x5_reduce
I0715 00:31:15.101438 20373 net.cpp:386] inception_4b/relu_5x5_reduce -> inception_4b/5x5_reduce (in-place)
I0715 00:31:15.102499 20373 net.cpp:141] Setting up inception_4b/relu_5x5_reduce
I0715 00:31:15.102514 20373 net.cpp:148] Top shape: 10 24 14 14 (47040)
I0715 00:31:15.102531 20373 net.cpp:156] Memory required for data: 397770240
I0715 00:31:15.102536 20373 layer_factory.hpp:77] Creating layer inception_4b/5x5
I0715 00:31:15.102553 20373 net.cpp:91] Creating Layer inception_4b/5x5
I0715 00:31:15.102560 20373 net.cpp:425] inception_4b/5x5 <- inception_4b/5x5_reduce
I0715 00:31:15.102571 20373 net.cpp:399] inception_4b/5x5 -> inception_4b/5x5
I0715 00:31:15.105582 20377 net.cpp:141] Setting up inception_4b/1x1
I0715 00:31:15.105604 20377 net.cpp:148] Top shape: 10 160 14 14 (313600)
I0715 00:31:15.105613 20377 net.cpp:156] Memory required for data: 390871040
I0715 00:31:15.105623 20377 layer_factory.hpp:77] Creating layer inception_4b/relu_1x1
I0715 00:31:15.105633 20377 net.cpp:91] Creating Layer inception_4b/relu_1x1
I0715 00:31:15.105641 20377 net.cpp:425] inception_4b/relu_1x1 <- inception_4b/1x1
I0715 00:31:15.105650 20377 net.cpp:386] inception_4b/relu_1x1 -> inception_4b/1x1 (in-place)
I0715 00:31:15.107025 20377 net.cpp:141] Setting up inception_4b/relu_1x1
I0715 00:31:15.107043 20377 net.cpp:148] Top shape: 10 160 14 14 (313600)
I0715 00:31:15.107048 20377 net.cpp:156] Memory required for data: 392125440
I0715 00:31:15.107053 20377 layer_factory.hpp:77] Creating layer inception_4b/3x3_reduce
I0715 00:31:15.107076 20377 net.cpp:91] Creating Layer inception_4b/3x3_reduce
I0715 00:31:15.107084 20377 net.cpp:425] inception_4b/3x3_reduce <- inception_4a/output_inception_4a/output_0_split_1
I0715 00:31:15.107094 20377 net.cpp:399] inception_4b/3x3_reduce -> inception_4b/3x3_reduce
I0715 00:31:15.107609 20373 net.cpp:141] Setting up inception_4b/5x5
I0715 00:31:15.107631 20373 net.cpp:148] Top shape: 10 64 14 14 (125440)
I0715 00:31:15.107636 20373 net.cpp:156] Memory required for data: 398272000
I0715 00:31:15.107645 20373 layer_factory.hpp:77] Creating layer inception_4b/relu_5x5
I0715 00:31:15.107656 20373 net.cpp:91] Creating Layer inception_4b/relu_5x5
I0715 00:31:15.107661 20373 net.cpp:425] inception_4b/relu_5x5 <- inception_4b/5x5
I0715 00:31:15.107671 20373 net.cpp:386] inception_4b/relu_5x5 -> inception_4b/5x5 (in-place)
I0715 00:31:15.108671 20373 net.cpp:141] Setting up inception_4b/relu_5x5
I0715 00:31:15.108687 20373 net.cpp:148] Top shape: 10 64 14 14 (125440)
I0715 00:31:15.108705 20373 net.cpp:156] Memory required for data: 398773760
I0715 00:31:15.108711 20373 layer_factory.hpp:77] Creating layer inception_4b/pool
I0715 00:31:15.108723 20373 net.cpp:91] Creating Layer inception_4b/pool
I0715 00:31:15.108729 20373 net.cpp:425] inception_4b/pool <- inception_4a/output_inception_4a/output_0_split_3
I0715 00:31:15.108738 20373 net.cpp:399] inception_4b/pool -> inception_4b/pool
I0715 00:31:15.109861 20373 net.cpp:141] Setting up inception_4b/pool
I0715 00:31:15.109887 20373 net.cpp:148] Top shape: 10 512 14 14 (1003520)
I0715 00:31:15.109892 20373 net.cpp:156] Memory required for data: 402787840
I0715 00:31:15.109897 20373 layer_factory.hpp:77] Creating layer inception_4b/pool_proj
I0715 00:31:15.109912 20373 net.cpp:91] Creating Layer inception_4b/pool_proj
I0715 00:31:15.109918 20373 net.cpp:425] inception_4b/pool_proj <- inception_4b/pool
I0715 00:31:15.109931 20373 net.cpp:399] inception_4b/pool_proj -> inception_4b/pool_proj
I0715 00:31:15.113003 20377 net.cpp:141] Setting up inception_4b/3x3_reduce
I0715 00:31:15.113025 20377 net.cpp:148] Top shape: 10 112 14 14 (219520)
I0715 00:31:15.113031 20377 net.cpp:156] Memory required for data: 393003520
I0715 00:31:15.113046 20377 layer_factory.hpp:77] Creating layer inception_4b/relu_3x3_reduce
I0715 00:31:15.113056 20377 net.cpp:91] Creating Layer inception_4b/relu_3x3_reduce
I0715 00:31:15.113064 20377 net.cpp:425] inception_4b/relu_3x3_reduce <- inception_4b/3x3_reduce
I0715 00:31:15.113073 20377 net.cpp:386] inception_4b/relu_3x3_reduce -> inception_4b/3x3_reduce (in-place)
I0715 00:31:15.115109 20377 net.cpp:141] Setting up inception_4b/relu_3x3_reduce
I0715 00:31:15.115125 20377 net.cpp:148] Top shape: 10 112 14 14 (219520)
I0715 00:31:15.115130 20377 net.cpp:156] Memory required for data: 393881600
I0715 00:31:15.115136 20377 layer_factory.hpp:77] Creating layer inception_4b/3x3
I0715 00:31:15.115154 20377 net.cpp:91] Creating Layer inception_4b/3x3
I0715 00:31:15.115164 20377 net.cpp:425] inception_4b/3x3 <- inception_4b/3x3_reduce
I0715 00:31:15.115173 20377 net.cpp:399] inception_4b/3x3 -> inception_4b/3x3
I0715 00:31:15.115334 20373 net.cpp:141] Setting up inception_4b/pool_proj
I0715 00:31:15.115352 20373 net.cpp:148] Top shape: 10 64 14 14 (125440)
I0715 00:31:15.115357 20373 net.cpp:156] Memory required for data: 403289600
I0715 00:31:15.115367 20373 layer_factory.hpp:77] Creating layer inception_4b/relu_pool_proj
I0715 00:31:15.115380 20373 net.cpp:91] Creating Layer inception_4b/relu_pool_proj
I0715 00:31:15.115386 20373 net.cpp:425] inception_4b/relu_pool_proj <- inception_4b/pool_proj
I0715 00:31:15.115392 20373 net.cpp:386] inception_4b/relu_pool_proj -> inception_4b/pool_proj (in-place)
I0715 00:31:15.117035 20373 net.cpp:141] Setting up inception_4b/relu_pool_proj
I0715 00:31:15.117063 20373 net.cpp:148] Top shape: 10 64 14 14 (125440)
I0715 00:31:15.117069 20373 net.cpp:156] Memory required for data: 403791360
I0715 00:31:15.117074 20373 layer_factory.hpp:77] Creating layer inception_4b/output
I0715 00:31:15.117084 20373 net.cpp:91] Creating Layer inception_4b/output
I0715 00:31:15.117089 20373 net.cpp:425] inception_4b/output <- inception_4b/1x1
I0715 00:31:15.117094 20373 net.cpp:425] inception_4b/output <- inception_4b/3x3
I0715 00:31:15.117100 20373 net.cpp:425] inception_4b/output <- inception_4b/5x5
I0715 00:31:15.117105 20373 net.cpp:425] inception_4b/output <- inception_4b/pool_proj
I0715 00:31:15.117115 20373 net.cpp:399] inception_4b/output -> inception_4b/output
I0715 00:31:15.117175 20373 net.cpp:141] Setting up inception_4b/output
I0715 00:31:15.117184 20373 net.cpp:148] Top shape: 10 512 14 14 (1003520)
I0715 00:31:15.117188 20373 net.cpp:156] Memory required for data: 407805440
I0715 00:31:15.117193 20373 layer_factory.hpp:77] Creating layer inception_4b/output_inception_4b/output_0_split
I0715 00:31:15.117202 20373 net.cpp:91] Creating Layer inception_4b/output_inception_4b/output_0_split
I0715 00:31:15.117207 20373 net.cpp:425] inception_4b/output_inception_4b/output_0_split <- inception_4b/output
I0715 00:31:15.117213 20373 net.cpp:399] inception_4b/output_inception_4b/output_0_split -> inception_4b/output_inception_4b/output_0_split_0
I0715 00:31:15.117225 20373 net.cpp:399] inception_4b/output_inception_4b/output_0_split -> inception_4b/output_inception_4b/output_0_split_1
I0715 00:31:15.117234 20373 net.cpp:399] inception_4b/output_inception_4b/output_0_split -> inception_4b/output_inception_4b/output_0_split_2
I0715 00:31:15.117244 20373 net.cpp:399] inception_4b/output_inception_4b/output_0_split -> inception_4b/output_inception_4b/output_0_split_3
I0715 00:31:15.117347 20373 net.cpp:141] Setting up inception_4b/output_inception_4b/output_0_split
I0715 00:31:15.117357 20373 net.cpp:148] Top shape: 10 512 14 14 (1003520)
I0715 00:31:15.117362 20373 net.cpp:148] Top shape: 10 512 14 14 (1003520)
I0715 00:31:15.117367 20373 net.cpp:148] Top shape: 10 512 14 14 (1003520)
I0715 00:31:15.117372 20373 net.cpp:148] Top shape: 10 512 14 14 (1003520)
I0715 00:31:15.117377 20373 net.cpp:156] Memory required for data: 423861760
I0715 00:31:15.117380 20373 layer_factory.hpp:77] Creating layer inception_4c/1x1
I0715 00:31:15.117398 20373 net.cpp:91] Creating Layer inception_4c/1x1
I0715 00:31:15.117404 20373 net.cpp:425] inception_4c/1x1 <- inception_4b/output_inception_4b/output_0_split_0
I0715 00:31:15.117413 20373 net.cpp:399] inception_4c/1x1 -> inception_4c/1x1
I0715 00:31:15.121649 20373 net.cpp:141] Setting up inception_4c/1x1
I0715 00:31:15.121681 20373 net.cpp:148] Top shape: 10 128 14 14 (250880)
I0715 00:31:15.121687 20373 net.cpp:156] Memory required for data: 424865280
I0715 00:31:15.121696 20373 layer_factory.hpp:77] Creating layer inception_4c/relu_1x1
I0715 00:31:15.121706 20373 net.cpp:91] Creating Layer inception_4c/relu_1x1
I0715 00:31:15.121711 20373 net.cpp:425] inception_4c/relu_1x1 <- inception_4c/1x1
I0715 00:31:15.121719 20373 net.cpp:386] inception_4c/relu_1x1 -> inception_4c/1x1 (in-place)
I0715 00:31:15.123438 20373 net.cpp:141] Setting up inception_4c/relu_1x1
I0715 00:31:15.123452 20373 net.cpp:148] Top shape: 10 128 14 14 (250880)
I0715 00:31:15.123457 20373 net.cpp:156] Memory required for data: 425868800
I0715 00:31:15.123462 20373 layer_factory.hpp:77] Creating layer inception_4c/3x3_reduce
I0715 00:31:15.123477 20373 net.cpp:91] Creating Layer inception_4c/3x3_reduce
I0715 00:31:15.123483 20373 net.cpp:425] inception_4c/3x3_reduce <- inception_4b/output_inception_4b/output_0_split_1
I0715 00:31:15.123497 20373 net.cpp:399] inception_4c/3x3_reduce -> inception_4c/3x3_reduce
I0715 00:31:15.124054 20377 net.cpp:141] Setting up inception_4b/3x3
I0715 00:31:15.124078 20377 net.cpp:148] Top shape: 10 224 14 14 (439040)
I0715 00:31:15.124083 20377 net.cpp:156] Memory required for data: 395637760
I0715 00:31:15.124094 20377 layer_factory.hpp:77] Creating layer inception_4b/relu_3x3
I0715 00:31:15.124107 20377 net.cpp:91] Creating Layer inception_4b/relu_3x3
I0715 00:31:15.124114 20377 net.cpp:425] inception_4b/relu_3x3 <- inception_4b/3x3
I0715 00:31:15.124122 20377 net.cpp:386] inception_4b/relu_3x3 -> inception_4b/3x3 (in-place)
I0715 00:31:15.125555 20377 net.cpp:141] Setting up inception_4b/relu_3x3
I0715 00:31:15.125571 20377 net.cpp:148] Top shape: 10 224 14 14 (439040)
I0715 00:31:15.125576 20377 net.cpp:156] Memory required for data: 397393920
I0715 00:31:15.125582 20377 layer_factory.hpp:77] Creating layer inception_4b/5x5_reduce
I0715 00:31:15.125610 20377 net.cpp:91] Creating Layer inception_4b/5x5_reduce
I0715 00:31:15.125617 20377 net.cpp:425] inception_4b/5x5_reduce <- inception_4a/output_inception_4a/output_0_split_2
I0715 00:31:15.125632 20377 net.cpp:399] inception_4b/5x5_reduce -> inception_4b/5x5_reduce
I0715 00:31:15.127411 20373 net.cpp:141] Setting up inception_4c/3x3_reduce
I0715 00:31:15.127446 20373 net.cpp:148] Top shape: 10 128 14 14 (250880)
I0715 00:31:15.127452 20373 net.cpp:156] Memory required for data: 426872320
I0715 00:31:15.127462 20373 layer_factory.hpp:77] Creating layer inception_4c/relu_3x3_reduce
I0715 00:31:15.127472 20373 net.cpp:91] Creating Layer inception_4c/relu_3x3_reduce
I0715 00:31:15.127478 20373 net.cpp:425] inception_4c/relu_3x3_reduce <- inception_4c/3x3_reduce
I0715 00:31:15.127493 20373 net.cpp:386] inception_4c/relu_3x3_reduce -> inception_4c/3x3_reduce (in-place)
I0715 00:31:15.128597 20373 net.cpp:141] Setting up inception_4c/relu_3x3_reduce
I0715 00:31:15.128610 20373 net.cpp:148] Top shape: 10 128 14 14 (250880)
I0715 00:31:15.128614 20373 net.cpp:156] Memory required for data: 427875840
I0715 00:31:15.128619 20373 layer_factory.hpp:77] Creating layer inception_4c/3x3
I0715 00:31:15.128636 20373 net.cpp:91] Creating Layer inception_4c/3x3
I0715 00:31:15.128643 20373 net.cpp:425] inception_4c/3x3 <- inception_4c/3x3_reduce
I0715 00:31:15.128651 20373 net.cpp:399] inception_4c/3x3 -> inception_4c/3x3
I0715 00:31:15.131602 20377 net.cpp:141] Setting up inception_4b/5x5_reduce
I0715 00:31:15.131623 20377 net.cpp:148] Top shape: 10 24 14 14 (47040)
I0715 00:31:15.131629 20377 net.cpp:156] Memory required for data: 397582080
I0715 00:31:15.131640 20377 layer_factory.hpp:77] Creating layer inception_4b/relu_5x5_reduce
I0715 00:31:15.131650 20377 net.cpp:91] Creating Layer inception_4b/relu_5x5_reduce
I0715 00:31:15.131656 20377 net.cpp:425] inception_4b/relu_5x5_reduce <- inception_4b/5x5_reduce
I0715 00:31:15.131669 20377 net.cpp:386] inception_4b/relu_5x5_reduce -> inception_4b/5x5_reduce (in-place)
I0715 00:31:15.132570 20377 net.cpp:141] Setting up inception_4b/relu_5x5_reduce
I0715 00:31:15.132588 20377 net.cpp:148] Top shape: 10 24 14 14 (47040)
I0715 00:31:15.132594 20377 net.cpp:156] Memory required for data: 397770240
I0715 00:31:15.132599 20377 layer_factory.hpp:77] Creating layer inception_4b/5x5
I0715 00:31:15.132617 20377 net.cpp:91] Creating Layer inception_4b/5x5
I0715 00:31:15.132624 20377 net.cpp:425] inception_4b/5x5 <- inception_4b/5x5_reduce
I0715 00:31:15.132637 20377 net.cpp:399] inception_4b/5x5 -> inception_4b/5x5
I0715 00:31:15.137676 20373 net.cpp:141] Setting up inception_4c/3x3
I0715 00:31:15.137715 20373 net.cpp:148] Top shape: 10 256 14 14 (501760)
I0715 00:31:15.137722 20373 net.cpp:156] Memory required for data: 429882880
I0715 00:31:15.137733 20373 layer_factory.hpp:77] Creating layer inception_4c/relu_3x3
…
I0715 00:31:15.258831 20373 net.cpp:399] pool4/3x3_s2_pool4/3x3_s2_0_split -> pool4/3x3_s2_pool4/3x3_s2_0_split_3
I0715 00:31:15.258968 20373 net.cpp:141] Setting up pool4/3x3_s2_pool4/3x3_s2_0_split
I0715 00:31:15.258977 20373 net.cpp:148] Top shape: 10 832 7 7 (407680)
I0715 00:31:15.258983 20373 net.cpp:148] Top shape: 10 832 7 7 (407680)
I0715 00:31:15.258988 20373 net.cpp:148] Top shape: 10 832 7 7 (407680)
I0715 00:31:15.258993 20373 net.cpp:148] Top shape: 10 832 7 7 (407680)
I0715 00:31:15.258997 20373 net.cpp:156] Memory required for data: 528980480
I0715 00:31:15.259001 20373 layer_factory.hpp:77] Creating layer inception_5a/1x1
I0715 00:31:15.259021 20373 net.cpp:91] Creating Layer inception_5a/1x1
I0715 00:31:15.259026 20373 net.cpp:425] inception_5a/1x1 <- pool4/3x3_s2_pool4/3x3_s2_0_split_0
I0715 00:31:15.259034 20373 net.cpp:399] inception_5a/1x1 -> inception_5a/1x1
I0715 00:31:15.265276 20377 net.cpp:141] Setting up inception_4e/3x3_reduce
I0715 00:31:15.265301 20377 net.cpp:148] Top shape: 10 160 14 14 (313600)
I0715 00:31:15.265307 20377 net.cpp:156] Memory required for data: 499376640
I0715 00:31:15.265317 20377 layer_factory.hpp:77] Creating layer inception_4e/relu_3x3_reduce
I0715 00:31:15.265327 20377 net.cpp:91] Creating Layer inception_4e/relu_3x3_reduce
I0715 00:31:15.265334 20377 net.cpp:425] inception_4e/relu_3x3_reduce <- inception_4e/3x3_reduce
I0715 00:31:15.265342 20377 net.cpp:386] inception_4e/relu_3x3_reduce -> inception_4e/3x3_reduce (in-place)
I0715 00:31:15.266614 20377 net.cpp:141] Setting up inception_4e/relu_3x3_reduce
I0715 00:31:15.266630 20377 net.cpp:148] Top shape: 10 160 14 14 (313600)
I0715 00:31:15.266636 20377 net.cpp:156] Memory required for data: 500631040
I0715 00:31:15.266641 20377 layer_factory.hpp:77] Creating layer inception_4e/3x3
I0715 00:31:15.266659 20377 net.cpp:91] Creating Layer inception_4e/3x3
I0715 00:31:15.266666 20377 net.cpp:425] inception_4e/3x3 <- inception_4e/3x3_reduce
I0715 00:31:15.266659 20373 net.cpp:141] Setting up inception_5a/1x1
I0715 00:31:15.266681 20377 net.cpp:399] inception_4e/3x3 -> inception_4e/3x3
I0715 00:31:15.266685 20373 net.cpp:148] Top shape: 10 256 7 7 (125440)
I0715 00:31:15.266715 20373 net.cpp:156] Memory required for data: 529482240
I0715 00:31:15.266727 20373 layer_factory.hpp:77] Creating layer inception_5a/relu_1x1
I0715 00:31:15.266741 20373 net.cpp:91] Creating Layer inception_5a/relu_1x1
I0715 00:31:15.266749 20373 net.cpp:425] inception_5a/relu_1x1 <- inception_5a/1x1
I0715 00:31:15.266760 20373 net.cpp:386] inception_5a/relu_1x1 -> inception_5a/1x1 (in-place)
I0715 00:31:15.267983 20373 net.cpp:141] Setting up inception_5a/relu_1x1
I0715 00:31:15.268013 20373 net.cpp:148] Top shape: 10 256 7 7 (125440)
I0715 00:31:15.268019 20373 net.cpp:156] Memory required for data: 529984000
I0715 00:31:15.268024 20373 layer_factory.hpp:77] Creating layer inception_5a/3x3_reduce
I0715 00:31:15.268044 20373 net.cpp:91] Creating Layer inception_5a/3x3_reduce
I0715 00:31:15.268054 20373 net.cpp:425] inception_5a/3x3_reduce <- pool4/3x3_s2_pool4/3x3_s2_0_split_1
I0715 00:31:15.268863 20373 net.cpp:399] inception_5a/3x3_reduce -> inception_5a/3x3_reduce
I0715 00:31:15.274760 20373 net.cpp:141] Setting up inception_5a/3x3_reduce
I0715 00:31:15.274781 20373 net.cpp:148] Top shape: 10 160 7 7 (78400)
I0715 00:31:15.274787 20373 net.cpp:156] Memory required for data: 530297600
I0715 00:31:15.274799 20373 layer_factory.hpp:77] Creating layer inception_5a/relu_3x3_reduce
I0715 00:31:15.274811 20373 net.cpp:91] Creating Layer inception_5a/relu_3x3_reduce
I0715 00:31:15.274818 20373 net.cpp:425] inception_5a/relu_3x3_reduce <- inception_5a/3x3_reduce
I0715 00:31:15.274828 20373 net.cpp:386] inception_5a/relu_3x3_reduce -> inception_5a/3x3_reduce (in-place)
I0715 00:31:15.276031 20373 net.cpp:141] Setting up inception_5a/relu_3x3_reduce
I0715 00:31:15.276059 20373 net.cpp:148] Top shape: 10 160 7 7 (78400)
I0715 00:31:15.276064 20373 net.cpp:156] Memory required for data: 530611200
I0715 00:31:15.276069 20373 layer_factory.hpp:77] Creating layer inception_5a/3x3
I0715 00:31:15.276098 20373 net.cpp:91] Creating Layer inception_5a/3x3
I0715 00:31:15.276106 20373 net.cpp:425] inception_5a/3x3 <- inception_5a/3x3_reduce
I0715 00:31:15.276115 20373 net.cpp:399] inception_5a/3x3 -> inception_5a/3x3
I0715 00:31:15.279042 20377 net.cpp:141] Setting up inception_4e/3x3
I0715 00:31:15.279067 20377 net.cpp:148] Top shape: 10 320 14 14 (627200)
I0715 00:31:15.279072 20377 net.cpp:156] Memory required for data: 503139840
I0715 00:31:15.279083 20377 layer_factory.hpp:77] Creating layer inception_4e/relu_3x3
I0715 00:31:15.279093 20377 net.cpp:91] Creating Layer inception_4e/relu_3x3
I0715 00:31:15.279099 20377 net.cpp:425] inception_4e/relu_3x3 <- inception_4e/3x3
I0715 00:31:15.279112 20377 net.cpp:386] inception_4e/relu_3x3 -> inception_4e/3x3 (in-place)
I0715 00:31:15.279431 20377 net.cpp:141] Setting up inception_4e/relu_3x3
I0715 00:31:15.279444 20377 net.cpp:148] Top shape: 10 320 14 14 (627200)
I0715 00:31:15.279449 20377 net.cpp:156] Memory required for data: 505648640
I0715 00:31:15.279454 20377 layer_factory.hpp:77] Creating layer inception_4e/5x5_reduce
I0715 00:31:15.279472 20377 net.cpp:91] Creating Layer inception_4e/5x5_reduce
I0715 00:31:15.279479 20377 net.cpp:425] inception_4e/5x5_reduce <- inception_4d/output_inception_4d/output_0_split_2
I0715 00:31:15.279492 20377 net.cpp:399] inception_4e/5x5_reduce -> inception_4e/5x5_reduce
I0715 00:31:15.283891 20377 net.cpp:141] Setting up inception_4e/5x5_reduce
I0715 00:31:15.283915 20377 net.cpp:148] Top shape: 10 32 14 14 (62720)
I0715 00:31:15.283921 20377 net.cpp:156] Memory required for data: 505899520
I0715 00:31:15.283931 20377 layer_factory.hpp:77] Creating layer inception_4e/relu_5x5_reduce
I0715 00:31:15.283944 20377 net.cpp:91] Creating Layer inception_4e/relu_5x5_reduce
I0715 00:31:15.283952 20377 net.cpp:425] inception_4e/relu_5x5_reduce <- inception_4e/5x5_reduce
I0715 00:31:15.283967 20377 net.cpp:386] inception_4e/relu_5x5_reduce -> inception_4e/5x5_reduce (in-place)
I0715 00:31:15.286643 20373 net.cpp:141] Setting up inception_5a/3x3
I0715 00:31:15.286659 20377 net.cpp:141] Setting up inception_4e/relu_5x5_reduce
I0715 00:31:15.286679 20373 net.cpp:148] Top shape: 10 320 7 7 (156800)
I0715 00:31:15.286694 20377 net.cpp:148] Top shape: 10 32 14 14 (62720)
I0715 00:31:15.286694 20373 net.cpp:156] Memory required for data: 531238400
I0715 00:31:15.286702 20377 net.cpp:156] Memory required for data: 506150400
I0715 00:31:15.286717 20373 layer_factory.hpp:77] Creating layer inception_5a/relu_3x3
I0715 00:31:15.286720 20377 layer_factory.hpp:77] Creating layer inception_4e/5x5
I0715 00:31:15.286732 20373 net.cpp:91] Creating Layer inception_5a/relu_3x3
I0715 00:31:15.286739 20373 net.cpp:425] inception_5a/relu_3x3 <- inception_5a/3x3
I0715 00:31:15.286741 20377 net.cpp:91] Creating Layer inception_4e/5x5
I0715 00:31:15.286747 20373 net.cpp:386] inception_5a/relu_3x3 -> inception_5a/3x3 (in-place)
I0715 00:31:15.286751 20377 net.cpp:425] inception_4e/5x5 <- inception_4e/5x5_reduce
I0715 00:31:15.286766 20377 net.cpp:399] inception_4e/5x5 -> inception_4e/5x5
I0715 00:31:15.287472 20373 net.cpp:141] Setting up inception_5a/relu_3x3
I0715 00:31:15.287487 20373 net.cpp:148] Top shape: 10 320 7 7 (156800)
I0715 00:31:15.287492 20373 net.cpp:156] Memory required for data: 531865600
I0715 00:31:15.287497 20373 layer_factory.hpp:77] Creating layer inception_5a/5x5_reduce
I0715 00:31:15.287515 20373 net.cpp:91] Creating Layer inception_5a/5x5_reduce
I0715 00:31:15.287523 20373 net.cpp:425] inception_5a/5x5_reduce <- pool4/3x3_s2_pool4/3x3_s2_0_split_2
I0715 00:31:15.287534 20373 net.cpp:399] inception_5a/5x5_reduce -> inception_5a/5x5_reduce
I0715 00:31:15.292062 20373 net.cpp:141] Setting up inception_5a/5x5_reduce
I0715 00:31:15.292080 20373 net.cpp:148] Top shape: 10 32 7 7 (15680)
I0715 00:31:15.292085 20373 net.cpp:156] Memory required for data: 531928320
I0715 00:31:15.292095 20373 layer_factory.hpp:77] Creating layer inception_5a/relu_5x5_reduce
I0715 00:31:15.292109 20373 net.cpp:91] Creating Layer inception_5a/relu_5x5_reduce
I0715 00:31:15.292114 20373 net.cpp:425] inception_5a/relu_5x5_reduce <- inception_5a/5x5_reduce
I0715 00:31:15.292122 20373 net.cpp:386] inception_5a/relu_5x5_reduce -> inception_5a/5x5_reduce (in-place)
I0715 00:31:15.293341 20373 net.cpp:141] Setting up inception_5a/relu_5x5_reduce
I0715 00:31:15.293371 20373 net.cpp:148] Top shape: 10 32 7 7 (15680)
I0715 00:31:15.293376 20373 net.cpp:156] Memory required for data: 531991040
I0715 00:31:15.293382 20373 layer_factory.hpp:77] Creating layer inception_5a/5x5
I0715 00:31:15.293402 20373 net.cpp:91] Creating Layer inception_5a/5x5
I0715 00:31:15.293409 20373 net.cpp:425] inception_5a/5x5 <- inception_5a/5x5_reduce
I0715 00:31:15.293418 20373 net.cpp:399] inception_5a/5x5 -> inception_5a/5x5
I0715 00:31:15.294059 20377 net.cpp:141] Setting up inception_4e/5x5
I0715 00:31:15.294081 20377 net.cpp:148] Top shape: 10 128 14 14 (250880)
I0715 00:31:15.294087 20377 net.cpp:156] Memory required for data: 507153920
I0715 00:31:15.294097 20377 layer_factory.hpp:77] Creating layer inception_4e/relu_5x5
I0715 00:31:15.294117 20377 net.cpp:91] Creating Layer inception_4e/relu_5x5
I0715 00:31:15.294126 20377 net.cpp:425] inception_4e/relu_5x5 <- inception_4e/5x5
I0715 00:31:15.294133 20377 net.cpp:386] inception_4e/relu_5x5 -> inception_4e/5x5 (in-place)
I0715 00:31:15.296522 20377 net.cpp:141] Setting up inception_4e/relu_5x5
I0715 00:31:15.296542 20377 net.cpp:148] Top shape: 10 128 14 14 (250880)
I0715 00:31:15.296547 20377 net.cpp:156] Memory required for data: 508157440
I0715 00:31:15.296553 20377 layer_factory.hpp:77] Creating layer inception_4e/pool
I0715 00:31:15.296568 20377 net.cpp:91] Creating Layer inception_4e/pool
I0715 00:31:15.296576 20377 net.cpp:425] inception_4e/pool <- inception_4d/output_inception_4d/output_0_split_3
I0715 00:31:15.296587 20377 net.cpp:399] inception_4e/pool -> inception_4e/pool
I0715 00:31:15.296746 20377 net.cpp:141] Setting up inception_4e/pool
I0715 00:31:15.296759 20377 net.cpp:148] Top shape: 10 528 14 14 (1034880)
I0715 00:31:15.296763 20377 net.cpp:156] Memory required for data: 512296960
I0715 00:31:15.296769 20377 layer_factory.hpp:77] Creating layer inception_4e/pool_proj
I0715 00:31:15.296787 20377 net.cpp:91] Creating Layer inception_4e/pool_proj
I0715 00:31:15.296795 20377 net.cpp:425] inception_4e/pool_proj <- inception_4e/pool
I0715 00:31:15.296808 20377 net.cpp:399] inception_4e/pool_proj -> inception_4e/pool_proj
I0715 00:31:15.299476 20373 net.cpp:141] Setting up inception_5a/5x5
I0715 00:31:15.299512 20373 net.cpp:148] Top shape: 10 128 7 7 (62720)
I0715 00:31:15.299518 20373 net.cpp:156] Memory required for data: 532241920
I0715 00:31:15.299530 20373 layer_factory.hpp:77] Creating layer inception_5a/relu_5x5
I0715 00:31:15.299562 20373 net.cpp:91] Creating Layer inception_5a/relu_5x5
I0715 00:31:15.299569 20373 net.cpp:425] inception_5a/relu_5x5 <- inception_5a/5x5
I0715 00:31:15.299577 20373 net.cpp:386] inception_5a/relu_5x5 -> inception_5a/5x5 (in-place)
I0715 00:31:15.300006 20373 net.cpp:141] Setting up inception_5a/relu_5x5
I0715 00:31:15.300020 20373 net.cpp:148] Top shape: 10 128 7 7 (62720)
I0715 00:31:15.300025 20373 net.cpp:156] Memory required for data: 532492800
I0715 00:31:15.300031 20373 layer_factory.hpp:77] Creating layer inception_5a/pool
I0715 00:31:15.300040 20373 net.cpp:91] Creating Layer inception_5a/pool
I0715 00:31:15.300046 20373 net.cpp:425] inception_5a/pool <- pool4/3x3_s2_pool4/3x3_s2_0_split_3
I0715 00:31:15.300057 20373 net.cpp:399] inception_5a/pool -> inception_5a/pool
I0715 00:31:15.300906 20373 net.cpp:141] Setting up inception_5a/pool
I0715 00:31:15.300931 20373 net.cpp:148] Top shape: 10 832 7 7 (407680)
I0715 00:31:15.300937 20373 net.cpp:156] Memory required for data: 534123520
I0715 00:31:15.300942 20373 layer_factory.hpp:77] Creating layer inception_5a/pool_proj
I0715 00:31:15.300961 20373 net.cpp:91] Creating Layer inception_5a/pool_proj
I0715 00:31:15.300966 20373 net.cpp:425] inception_5a/pool_proj <- inception_5a/pool
I0715 00:31:15.300977 20373 net.cpp:399] inception_5a/pool_proj -> inception_5a/pool_proj
I0715 00:31:15.305968 20377 net.cpp:141] Setting up inception_4e/pool_proj
I0715 00:31:15.305992 20377 net.cpp:148] Top shape: 10 128 14 14 (250880)
I0715 00:31:15.305999 20377 net.cpp:156] Memory required for data: 513300480
I0715 00:31:15.306008 20377 layer_factory.hpp:77] Creating layer inception_4e/relu_pool_proj
I0715 00:31:15.306018 20377 net.cpp:91] Creating Layer inception_4e/relu_pool_proj
I0715 00:31:15.306028 20377 net.cpp:425] inception_4e/relu_pool_proj <- inception_4e/pool_proj
I0715 00:31:15.306036 20377 net.cpp:386] inception_4e/relu_pool_proj -> inception_4e/pool_proj (in-place)
I0715 00:31:15.306561 20373 net.cpp:141] Setting up inception_5a/pool_proj
I0715 00:31:15.306599 20373 net.cpp:148] Top shape: 10 128 7 7 (62720)
I0715 00:31:15.306607 20373 net.cpp:156] Memory required for data: 534374400
I0715 00:31:15.306627 20373 layer_factory.hpp:77] Creating layer inception_5a/relu_pool_proj
I0715 00:31:15.306639 20373 net.cpp:91] Creating Layer inception_5a/relu_pool_proj
I0715 00:31:15.306649 20373 net.cpp:425] inception_5a/relu_pool_proj <- inception_5a/pool_proj
I0715 00:31:15.306658 20373 net.cpp:386] inception_5a/relu_pool_proj -> inception_5a/pool_proj (in-place)
I0715 00:31:15.307613 20377 net.cpp:141] Setting up inception_4e/relu_pool_proj
I0715 00:31:15.307631 20377 net.cpp:148] Top shape: 10 128 14 14 (250880)
I0715 00:31:15.307637 20377 net.cpp:156] Memory required for data: 514304000
I0715 00:31:15.307642 20377 layer_factory.hpp:77] Creating layer inception_4e/output
I0715 00:31:15.307646 20373 net.cpp:141] Setting up inception_5a/relu_pool_proj
I0715 00:31:15.307657 20377 net.cpp:91] Creating Layer inception_4e/output
I0715 00:31:15.307662 20373 net.cpp:148] Top shape: 10 128 7 7 (62720)
I0715 00:31:15.307664 20377 net.cpp:425] inception_4e/output <- inception_4e/1x1
I0715 00:31:15.307668 20373 net.cpp:156] Memory required for data: 534625280
I0715 00:31:15.307672 20377 net.cpp:425] inception_4e/output <- inception_4e/3x3
I0715 00:31:15.307678 20373 layer_factory.hpp:77] Creating layer inception_5a/output
I0715 00:31:15.307680 20377 net.cpp:425] inception_4e/output <- inception_4e/5x5
I0715 00:31:15.307698 20377 net.cpp:425] inception_4e/output <- inception_4e/pool_proj
I0715 00:31:15.307703 20373 net.cpp:91] Creating Layer inception_5a/output
I0715 00:31:15.307706 20377 net.cpp:399] inception_4e/output -> inception_4e/output
I0715 00:31:15.307713 20373 net.cpp:425] inception_5a/output <- inception_5a/1x1
I0715 00:31:15.307721 20373 net.cpp:425] inception_5a/output <- inception_5a/3x3
I0715 00:31:15.307726 20373 net.cpp:425] inception_5a/output <- inception_5a/5x5
I0715 00:31:15.307732 20373 net.cpp:425] inception_5a/output <- inception_5a/pool_proj
I0715 00:31:15.307739 20373 net.cpp:399] inception_5a/output -> inception_5a/output
I0715 00:31:15.307796 20377 net.cpp:141] Setting up inception_4e/output
I0715 00:31:15.307807 20377 net.cpp:148] Top shape: 10 832 14 14 (1630720)
I0715 00:31:15.307812 20377 net.cpp:156] Memory required for data: 520826880
I0715 00:31:15.307817 20377 layer_factory.hpp:77] Creating layer pool4/3x3_s2
I0715 00:31:15.307826 20377 net.cpp:91] Creating Layer pool4/3x3_s2
I0715 00:31:15.307832 20377 net.cpp:425] pool4/3x3_s2 <- inception_4e/output
I0715 00:31:15.307844 20377 net.cpp:399] pool4/3x3_s2 -> pool4/3x3_s2
I0715 00:31:15.307859 20373 net.cpp:141] Setting up inception_5a/output
I0715 00:31:15.307875 20373 net.cpp:148] Top shape: 10 832 7 7 (407680)
I0715 00:31:15.307893 20373 net.cpp:156] Memory required for data: 536256000
I0715 00:31:15.307898 20373 layer_factory.hpp:77] Creating layer inception_5a/output_inception_5a/output_0_split
I0715 00:31:15.307906 20373 net.cpp:91] Creating Layer inception_5a/output_inception_5a/output_0_split
I0715 00:31:15.307911 20373 net.cpp:425] inception_5a/output_inception_5a/output_0_split <- inception_5a/output
I0715 00:31:15.307921 20373 net.cpp:399] inception_5a/output_inception_5a/output_0_split -> inception_5a/output_inception_5a/output_0_split_0
I0715 00:31:15.307930 20373 net.cpp:399] inception_5a/output_inception_5a/output_0_split -> inception_5a/output_inception_5a/output_0_split_1
I0715 00:31:15.307940 20373 net.cpp:399] inception_5a/output_inception_5a/output_0_split -> inception_5a/output_inception_5a/output_0_split_2
I0715 00:31:15.307947 20373 net.cpp:399] inception_5a/output_inception_5a/output_0_split -> inception_5a/output_inception_5a/output_0_split_3
I0715 00:31:15.307974 20377 net.cpp:141] Setting up pool4/3x3_s2
I0715 00:31:15.307986 20377 net.cpp:148] Top shape: 10 832 7 7 (407680)
I0715 00:31:15.307991 20377 net.cpp:156] Memory required for data: 522457600
I0715 00:31:15.307996 20377 layer_factory.hpp:77] Creating layer pool4/3x3_s2_pool4/3x3_s2_0_split
I0715 00:31:15.308010 20377 net.cpp:91] Creating Layer pool4/3x3_s2_pool4/3x3_s2_0_split
I0715 00:31:15.308015 20377 net.cpp:425] pool4/3x3_s2_pool4/3x3_s2_0_split <- pool4/3x3_s2
I0715 00:31:15.308025 20377 net.cpp:399] pool4/3x3_s2_pool4/3x3_s2_0_split -> pool4/3x3_s2_pool4/3x3_s2_0_split_0
I0715 00:31:15.308035 20377 net.cpp:399] pool4/3x3_s2_pool4/3x3_s2_0_split -> pool4/3x3_s2_pool4/3x3_s2_0_split_1
I0715 00:31:15.308044 20377 net.cpp:399] pool4/3x3_s2_pool4/3x3_s2_0_split -> pool4/3x3_s2_pool4/3x3_s2_0_split_2
I0715 00:31:15.308053 20377 net.cpp:399] pool4/3x3_s2_pool4/3x3_s2_0_split -> pool4/3x3_s2_pool4/3x3_s2_0_split_3
I0715 00:31:15.308240 20377 net.cpp:141] Setting up pool4/3x3_s2_pool4/3x3_s2_0_split
I0715 00:31:15.308254 20377 net.cpp:148] Top shape: 10 832 7 7 (407680)
I0715 00:31:15.308261 20377 net.cpp:148] Top shape: 10 832 7 7 (407680)
I0715 00:31:15.308267 20377 net.cpp:148] Top shape: 10 832 7 7 (407680)
I0715 00:31:15.308274 20377 net.cpp:148] Top shape: 10 832 7 7 (407680)
I0715 00:31:15.308277 20377 net.cpp:156] Memory required for data: 528980480
I0715 00:31:15.308282 20377 layer_factory.hpp:77] Creating layer inception_5a/1x1
I0715 00:31:15.308295 20377 net.cpp:91] Creating Layer inception_5a/1x1
I0715 00:31:15.308301 20377 net.cpp:425] inception_5a/1x1 <- pool4/3x3_s2_pool4/3x3_s2_0_split_0
I0715 00:31:15.308315 20377 net.cpp:399] inception_5a/1x1 -> inception_5a/1x1
I0715 00:31:15.308326 20373 net.cpp:141] Setting up inception_5a/output_inception_5a/output_0_split
I0715 00:31:15.308338 20373 net.cpp:148] Top shape: 10 832 7 7 (407680)
I0715 00:31:15.308344 20373 net.cpp:148] Top shape: 10 832 7 7 (407680)
I0715 00:31:15.308349 20373 net.cpp:148] Top shape: 10 832 7 7 (407680)
I0715 00:31:15.308354 20373 net.cpp:148] Top shape: 10 832 7 7 (407680)
I0715 00:31:15.308357 20373 net.cpp:156] Memory required for data: 542778880
I0715 00:31:15.308362 20373 layer_factory.hpp:77] Creating layer inception_5b/1x1
I0715 00:31:15.308379 20373 net.cpp:91] Creating Layer inception_5b/1x1
I0715 00:31:15.308384 20373 net.cpp:425] inception_5b/1x1 <- inception_5a/output_inception_5a/output_0_split_0
I0715 00:31:15.308393 20373 net.cpp:399] inception_5b/1x1 -> inception_5b/1x1
I0715 00:31:15.314611 20373 net.cpp:141] Setting up inception_5b/1x1
I0715 00:31:15.314646 20373 net.cpp:148] Top shape: 10 384 7 7 (188160)
I0715 00:31:15.314651 20373 net.cpp:156] Memory required for data: 543531520
I0715 00:31:15.314661 20373 layer_factory.hpp:77] Creating layer inception_5b/relu_1x1
I0715 00:31:15.314669 20373 net.cpp:91] Creating Layer inception_5b/relu_1x1
I0715 00:31:15.314676 20373 net.cpp:425] inception_5b/relu_1x1 <- inception_5b/1x1
I0715 00:31:15.314685 20373 net.cpp:386] inception_5b/relu_1x1 -> inception_5b/1x1 (in-place)
I0715 00:31:15.315198 20373 net.cpp:141] Setting up inception_5b/relu_1x1
I0715 00:31:15.315213 20373 net.cpp:148] Top shape: 10 384 7 7 (188160)
I0715 00:31:15.315218 20373 net.cpp:156] Memory required for data: 544284160
I0715 00:31:15.315223 20373 layer_factory.hpp:77] Creating layer inception_5b/3x3_reduce
I0715 00:31:15.315243 20373 net.cpp:91] Creating Layer inception_5b/3x3_reduce
I0715 00:31:15.315248 20373 net.cpp:425] inception_5b/3x3_reduce <- inception_5a/output_inception_5a/output_0_split_1
I0715 00:31:15.315258 20373 net.cpp:399] inception_5b/3x3_reduce -> inception_5b/3x3_reduce
I0715 00:31:15.321552 20377 net.cpp:141] Setting up inception_5a/1x1
I0715 00:31:15.321584 20377 net.cpp:148] Top shape: 10 256 7 7 (125440)
I0715 00:31:15.321591 20377 net.cpp:156] Memory required for data: 529482240
I0715 00:31:15.321604 20377 layer_factory.hpp:77] Creating layer inception_5a/relu_1x1
I0715 00:31:15.321619 20377 net.cpp:91] Creating Layer inception_5a/relu_1x1
I0715 00:31:15.321626 20377 net.cpp:425] inception_5a/relu_1x1 <- inception_5a/1x1
I0715 00:31:15.321635 20377 net.cpp:386] inception_5a/relu_1x1 -> inception_5a/1x1 (in-place)
I0715 00:31:15.322072 20377 net.cpp:141] Setting up inception_5a/relu_1x1
I0715 00:31:15.322090 20377 net.cpp:148] Top shape: 10 256 7 7 (125440)
I0715 00:31:15.322095 20377 net.cpp:156] Memory required for data: 529984000
I0715 00:31:15.322101 20377 layer_factory.hpp:77] Creating layer inception_5a/3x3_reduce
I0715 00:31:15.322119 20377 net.cpp:91] Creating Layer inception_5a/3x3_reduce
I0715 00:31:15.322127 20377 net.cpp:425] inception_5a/3x3_reduce <- pool4/3x3_s2_pool4/3x3_s2_0_split_1
I0715 00:31:15.322137 20377 net.cpp:399] inception_5a/3x3_reduce -> inception_5a/3x3_reduce
I0715 00:31:15.322445 20373 net.cpp:141] Setting up inception_5b/3x3_reduce
I0715 00:31:15.322479 20373 net.cpp:148] Top shape: 10 192 7 7 (94080)
I0715 00:31:15.322485 20373 net.cpp:156] Memory required for data: 544660480
I0715 00:31:15.322495 20373 layer_factory.hpp:77] Creating layer inception_5b/relu_3x3_reduce
I0715 00:31:15.322504 20373 net.cpp:91] Creating Layer inception_5b/relu_3x3_reduce
I0715 00:31:15.322510 20373 net.cpp:425] inception_5b/relu_3x3_reduce <- inception_5b/3x3_reduce
I0715 00:31:15.322521 20373 net.cpp:386] inception_5b/relu_3x3_reduce -> inception_5b/3x3_reduce (in-place)
I0715 00:31:15.324879 20373 net.cpp:141] Setting up inception_5b/relu_3x3_reduce
I0715 00:31:15.324908 20373 net.cpp:148] Top shape: 10 192 7 7 (94080)
I0715 00:31:15.324913 20373 net.cpp:156] Memory required for data: 545036800
I0715 00:31:15.324918 20373 layer_factory.hpp:77] Creating layer inception_5b/3x3
I0715 00:31:15.324936 20373 net.cpp:91] Creating Layer inception_5b/3x3
I0715 00:31:15.324942 20373 net.cpp:425] inception_5b/3x3 <- inception_5b/3x3_reduce
I0715 00:31:15.324954 20373 net.cpp:399] inception_5b/3x3 -> inception_5b/3x3
I0715 00:31:15.329561 20377 net.cpp:141] Setting up inception_5a/3x3_reduce
I0715 00:31:15.329586 20377 net.cpp:148] Top shape: 10 160 7 7 (78400)
I0715 00:31:15.329592 20377 net.cpp:156] Memory required for data: 530297600
I0715 00:31:15.329602 20377 layer_factory.hpp:77] Creating layer inception_5a/relu_3x3_reduce
I0715 00:31:15.329617 20377 net.cpp:91] Creating Layer inception_5a/relu_3x3_reduce
I0715 00:31:15.329623 20377 net.cpp:425] inception_5a/relu_3x3_reduce <- inception_5a/3x3_reduce
I0715 00:31:15.329632 20377 net.cpp:386] inception_5a/relu_3x3_reduce -> inception_5a/3x3_reduce (in-place)
I0715 00:31:15.329949 20377 net.cpp:141] Setting up inception_5a/relu_3x3_reduce
I0715 00:31:15.329965 20377 net.cpp:148] Top shape: 10 160 7 7 (78400)
I0715 00:31:15.329972 20377 net.cpp:156] Memory required for data: 530611200
I0715 00:31:15.329977 20377 layer_factory.hpp:77] Creating layer inception_5a/3x3
I0715 00:31:15.329994 20377 net.cpp:91] Creating Layer inception_5a/3x3
I0715 00:31:15.330001 20377 net.cpp:425] inception_5a/3x3 <- inception_5a/3x3_reduce
I0715 00:31:15.330013 20377 net.cpp:399] inception_5a/3x3 -> inception_5a/3x3
I0715 00:31:15.334195 20373 net.cpp:141] Setting up inception_5b/3x3
I0715 00:31:15.334235 20373 net.cpp:148] Top shape: 10 384 7 7 (188160)
I0715 00:31:15.334241 20373 net.cpp:156] Memory required for data: 545789440
I0715 00:31:15.334251 20373 layer_factory.hpp:77] Creating layer inception_5b/relu_3x3
I0715 00:31:15.334260 20373 net.cpp:91] Creating Layer inception_5b/relu_3x3
I0715 00:31:15.334266 20373 net.cpp:425] inception_5b/relu_3x3 <- inception_5b/3x3
I0715 00:31:15.334275 20373 net.cpp:386] inception_5b/relu_3x3 -> inception_5b/3x3 (in-place)
I0715 00:31:15.334573 20373 net.cpp:141] Setting up inception_5b/relu_3x3
I0715 00:31:15.334586 20373 net.cpp:148] Top shape: 10 384 7 7 (188160)
I0715 00:31:15.334590 20373 net.cpp:156] Memory required for data: 546542080
I0715 00:31:15.334595 20373 layer_factory.hpp:77] Creating layer inception_5b/5x5_reduce
I0715 00:31:15.334611 20373 net.cpp:91] Creating Layer inception_5b/5x5_reduce
I0715 00:31:15.334617 20373 net.cpp:425] inception_5b/5x5_reduce <- inception_5a/output_inception_5a/output_0_split_2
I0715 00:31:15.334632 20373 net.cpp:399] inception_5b/5x5_reduce -> inception_5b/5x5_reduce
I0715 00:31:15.341302 20373 net.cpp:141] Setting up inception_5b/5x5_reduce
I0715 00:31:15.341333 20373 net.cpp:148] Top shape: 10 48 7 7 (23520)
I0715 00:31:15.341338 20373 net.cpp:156] Memory required for data: 546636160
I0715 00:31:15.341348 20373 layer_factory.hpp:77] Creating layer inception_5b/relu_5x5_reduce
I0715 00:31:15.341368 20373 net.cpp:91] Creating Layer inception_5b/relu_5x5_reduce
I0715 00:31:15.341375 20373 net.cpp:425] inception_5b/relu_5x5_reduce <- inception_5b/5x5_reduce
I0715 00:31:15.341383 20373 net.cpp:386] inception_5b/relu_5x5_reduce -> inception_5b/5x5_reduce (in-place)
I0715 00:31:15.342931 20377 net.cpp:141] Setting up inception_5a/3x3
I0715 00:31:15.342957 20377 net.cpp:148] Top shape: 10 320 7 7 (156800)
I0715 00:31:15.342962 20377 net.cpp:156] Memory required for data: 531238400
I0715 00:31:15.342973 20377 layer_factory.hpp:77] Creating layer inception_5a/relu_3x3
I0715 00:31:15.342988 20377 net.cpp:91] Creating Layer inception_5a/relu_3x3
I0715 00:31:15.342994 20377 net.cpp:425] inception_5a/relu_3x3 <- inception_5a/3x3
I0715 00:31:15.343003 20377 net.cpp:386] inception_5a/relu_3x3 -> inception_5a/3x3 (in-place)
I0715 00:31:15.343118 20373 net.cpp:141] Setting up inception_5b/relu_5x5_reduce
I0715 00:31:15.343137 20373 net.cpp:148] Top shape: 10 48 7 7 (23520)
I0715 00:31:15.343142 20373 net.cpp:156] Memory required for data: 546730240
I0715 00:31:15.343148 20373 layer_factory.hpp:77] Creating layer inception_5b/5x5
I0715 00:31:15.343166 20373 net.cpp:91] Creating Layer inception_5b/5x5
I0715 00:31:15.343173 20373 net.cpp:425] inception_5b/5x5 <- inception_5b/5x5_reduce
I0715 00:31:15.343181 20373 net.cpp:399] inception_5b/5x5 -> inception_5b/5x5
I0715 00:31:15.345007 20377 net.cpp:141] Setting up inception_5a/relu_3x3
I0715 00:31:15.345024 20377 net.cpp:148] Top shape: 10 320 7 7 (156800)
I0715 00:31:15.345029 20377 net.cpp:156] Memory required for data: 531865600
I0715 00:31:15.345036 20377 layer_factory.hpp:77] Creating layer inception_5a/5x5_reduce
I0715 00:31:15.345054 20377 net.cpp:91] Creating Layer inception_5a/5x5_reduce
I0715 00:31:15.345062 20377 net.cpp:425] inception_5a/5x5_reduce <- pool4/3x3_s2_pool4/3x3_s2_0_split_2
I0715 00:31:15.345077 20377 net.cpp:399] inception_5a/5x5_reduce -> inception_5a/5x5_reduce
I0715 00:31:15.350996 20373 net.cpp:141] Setting up inception_5b/5x5
I0715 00:31:15.351022 20373 net.cpp:148] Top shape: 10 128 7 7 (62720)
I0715 00:31:15.351028 20373 net.cpp:156] Memory required for data: 546981120
I0715 00:31:15.351038 20373 layer_factory.hpp:77] Creating layer inception_5b/relu_5x5
I0715 00:31:15.351053 20373 net.cpp:91] Creating Layer inception_5b/relu_5x5
I0715 00:31:15.351061 20373 net.cpp:425] inception_5b/relu_5x5 <- inception_5b/5x5
I0715 00:31:15.351070 20373 net.cpp:386] inception_5b/relu_5x5 -> inception_5b/5x5 (in-place)
I0715 00:31:15.351424 20377 net.cpp:141] Setting up inception_5a/5x5_reduce
I0715 00:31:15.351441 20377 net.cpp:148] Top shape: 10 32 7 7 (15680)
I0715 00:31:15.351447 20377 net.cpp:156] Memory required for data: 531928320
I0715 00:31:15.351457 20377 layer_factory.hpp:77] Creating layer inception_5a/relu_5x5_reduce
I0715 00:31:15.351470 20377 net.cpp:91] Creating Layer inception_5a/relu_5x5_reduce
I0715 00:31:15.351477 20377 net.cpp:425] inception_5a/relu_5x5_reduce <- inception_5a/5x5_reduce
I0715 00:31:15.351488 20377 net.cpp:386] inception_5a/relu_5x5_reduce -> inception_5a/5x5_reduce (in-place)
I0715 00:31:15.352418 20373 net.cpp:141] Setting up inception_5b/relu_5x5
I0715 00:31:15.352447 20373 net.cpp:148] Top shape: 10 128 7 7 (62720)
I0715 00:31:15.352452 20373 net.cpp:156] Memory required for data: 547232000
I0715 00:31:15.352457 20373 layer_factory.hpp:77] Creating layer inception_5b/pool
I0715 00:31:15.352466 20373 net.cpp:91] Creating Layer inception_5b/pool
I0715 00:31:15.352473 20373 net.cpp:425] inception_5b/pool <- inception_5a/output_inception_5a/output_0_split_3
I0715 00:31:15.352484 20373 net.cpp:399] inception_5b/pool -> inception_5b/pool
I0715 00:31:15.352506 20377 net.cpp:141] Setting up inception_5a/relu_5x5_reduce
I0715 00:31:15.352522 20377 net.cpp:148] Top shape: 10 32 7 7 (15680)
I0715 00:31:15.352527 20377 net.cpp:156] Memory required for data: 531991040
I0715 00:31:15.352533 20377 layer_factory.hpp:77] Creating layer inception_5a/5x5
I0715 00:31:15.352550 20377 net.cpp:91] Creating Layer inception_5a/5x5
I0715 00:31:15.352557 20377 net.cpp:425] inception_5a/5x5 <- inception_5a/5x5_reduce
I0715 00:31:15.352571 20377 net.cpp:399] inception_5a/5x5 -> inception_5a/5x5
I0715 00:31:15.352612 20373 net.cpp:141] Setting up inception_5b/pool
I0715 00:31:15.352630 20373 net.cpp:148] Top shape: 10 832 7 7 (407680)
I0715 00:31:15.352635 20373 net.cpp:156] Memory required for data: 548862720
I0715 00:31:15.352640 20373 layer_factory.hpp:77] Creating layer inception_5b/pool_proj
I0715 00:31:15.352661 20373 net.cpp:91] Creating Layer inception_5b/pool_proj
I0715 00:31:15.352669 20373 net.cpp:425] inception_5b/pool_proj <- inception_5b/pool
I0715 00:31:15.352676 20373 net.cpp:399] inception_5b/pool_proj -> inception_5b/pool_proj
I0715 00:31:15.358850 20373 net.cpp:141] Setting up inception_5b/pool_proj
I0715 00:31:15.358870 20373 net.cpp:148] Top shape: 10 128 7 7 (62720)
I0715 00:31:15.358875 20373 net.cpp:156] Memory required for data: 549113600
I0715 00:31:15.358883 20373 layer_factory.hpp:77] Creating layer inception_5b/relu_pool_proj
I0715 00:31:15.358892 20373 net.cpp:91] Creating Layer inception_5b/relu_pool_proj
I0715 00:31:15.358902 20373 net.cpp:425] inception_5b/relu_pool_proj <- inception_5b/pool_proj
I0715 00:31:15.358911 20373 net.cpp:386] inception_5b/relu_pool_proj -> inception_5b/pool_proj (in-place)
I0715 00:31:15.359160 20377 net.cpp:141] Setting up inception_5a/5x5
I0715 00:31:15.359177 20377 net.cpp:148] Top shape: 10 128 7 7 (62720)
I0715 00:31:15.359184 20377 net.cpp:156] Memory required for data: 532241920
I0715 00:31:15.359194 20377 layer_factory.hpp:77] Creating layer inception_5a/relu_5x5
I0715 00:31:15.359227 20377 net.cpp:91] Creating Layer inception_5a/relu_5x5
I0715 00:31:15.359236 20377 net.cpp:425] inception_5a/relu_5x5 <- inception_5a/5x5
I0715 00:31:15.359247 20377 net.cpp:386] inception_5a/relu_5x5 -> inception_5a/5x5 (in-place)
I0715 00:31:15.360355 20373 net.cpp:141] Setting up inception_5b/relu_pool_proj
I0715 00:31:15.360383 20373 net.cpp:148] Top shape: 10 128 7 7 (62720)
I0715 00:31:15.360389 20373 net.cpp:156] Memory required for data: 549364480
I0715 00:31:15.360395 20373 layer_factory.hpp:77] Creating layer inception_5b/output
I0715 00:31:15.360394 20377 net.cpp:141] Setting up inception_5a/relu_5x5
I0715 00:31:15.360409 20377 net.cpp:148] Top shape: 10 128 7 7 (62720)
I0715 00:31:15.360417 20377 net.cpp:156] Memory required for data: 532492800
I0715 00:31:15.360409 20373 net.cpp:91] Creating Layer inception_5b/output
I0715 00:31:15.360427 20377 layer_factory.hpp:77] Creating layer inception_5a/pool
I0715 00:31:15.360432 20373 net.cpp:425] inception_5b/output <- inception_5b/1x1
I0715 00:31:15.360441 20373 net.cpp:425] inception_5b/output <- inception_5b/3x3
I0715 00:31:15.360441 20377 net.cpp:91] Creating Layer inception_5a/pool
I0715 00:31:15.360450 20373 net.cpp:425] inception_5b/output <- inception_5b/5x5
I0715 00:31:15.360451 20377 net.cpp:425] inception_5a/pool <- pool4/3x3_s2_pool4/3x3_s2_0_split_3
I0715 00:31:15.360456 20373 net.cpp:425] inception_5b/output <- inception_5b/pool_proj
I0715 00:31:15.360461 20377 net.cpp:399] inception_5a/pool -> inception_5a/pool
I0715 00:31:15.360465 20373 net.cpp:399] inception_5b/output -> inception_5b/output
I0715 00:31:15.360607 20373 net.cpp:141] Setting up inception_5b/output
I0715 00:31:15.360620 20373 net.cpp:148] Top shape: 10 1024 7 7 (501760)
I0715 00:31:15.360625 20373 net.cpp:156] Memory required for data: 551371520
I0715 00:31:15.360630 20373 layer_factory.hpp:77] Creating layer pool5/7x7_s1
I0715 00:31:15.360641 20373 net.cpp:91] Creating Layer pool5/7x7_s1
I0715 00:31:15.360647 20373 net.cpp:425] pool5/7x7_s1 <- inception_5b/output
I0715 00:31:15.360657 20373 net.cpp:399] pool5/7x7_s1 -> pool5/7x7_s1
I0715 00:31:15.360689 20377 net.cpp:141] Setting up inception_5a/pool
I0715 00:31:15.360703 20377 net.cpp:148] Top shape: 10 832 7 7 (407680)
I0715 00:31:15.360707 20377 net.cpp:156] Memory required for data: 534123520
I0715 00:31:15.360713 20377 layer_factory.hpp:77] Creating layer inception_5a/pool_proj
I0715 00:31:15.360730 20377 net.cpp:91] Creating Layer inception_5a/pool_proj
I0715 00:31:15.360738 20377 net.cpp:425] inception_5a/pool_proj <- inception_5a/pool
I0715 00:31:15.360754 20377 net.cpp:399] inception_5a/pool_proj -> inception_5a/pool_proj
I0715 00:31:15.362026 20373 net.cpp:141] Setting up pool5/7x7_s1
I0715 00:31:15.362056 20373 net.cpp:148] Top shape: 10 1024 1 1 (10240)
I0715 00:31:15.362061 20373 net.cpp:156] Memory required for data: 551412480
I0715 00:31:15.362066 20373 layer_factory.hpp:77] Creating layer pool5/drop_7x7_s1
I0715 00:31:15.362082 20373 net.cpp:91] Creating Layer pool5/drop_7x7_s1
I0715 00:31:15.362087 20373 net.cpp:425] pool5/drop_7x7_s1 <- pool5/7x7_s1
I0715 00:31:15.362097 20373 net.cpp:386] pool5/drop_7x7_s1 -> pool5/7x7_s1 (in-place)
I0715 00:31:15.363382 20373 net.cpp:141] Setting up pool5/drop_7x7_s1
I0715 00:31:15.363396 20373 net.cpp:148] Top shape: 10 1024 1 1 (10240)
I0715 00:31:15.363414 20373 net.cpp:156] Memory required for data: 551453440
I0715 00:31:15.363418 20373 layer_factory.hpp:77] Creating layer loss3/classifier
I0715 00:31:15.363436 20373 net.cpp:91] Creating Layer loss3/classifier
I0715 00:31:15.363442 20373 net.cpp:425] loss3/classifier <- pool5/7x7_s1
I0715 00:31:15.363454 20373 net.cpp:399] loss3/classifier -> loss3/classifier
I0715 00:31:15.368834 20377 net.cpp:141] Setting up inception_5a/pool_proj
I0715 00:31:15.368860 20377 net.cpp:148] Top shape: 10 128 7 7 (62720)
I0715 00:31:15.368866 20377 net.cpp:156] Memory required for data: 534374400
I0715 00:31:15.368877 20377 layer_factory.hpp:77] Creating layer inception_5a/relu_pool_proj
I0715 00:31:15.368886 20377 net.cpp:91] Creating Layer inception_5a/relu_pool_proj
I0715 00:31:15.368896 20377 net.cpp:425] inception_5a/relu_pool_proj <- inception_5a/pool_proj
I0715 00:31:15.368906 20377 net.cpp:386] inception_5a/relu_pool_proj -> inception_5a/pool_proj (in-place)
I0715 00:31:15.369226 20377 net.cpp:141] Setting up inception_5a/relu_pool_proj
I0715 00:31:15.369240 20377 net.cpp:148] Top shape: 10 128 7 7 (62720)
I0715 00:31:15.369245 20377 net.cpp:156] Memory required for data: 534625280
I0715 00:31:15.369249 20377 layer_factory.hpp:77] Creating layer inception_5a/output
I0715 00:31:15.369262 20377 net.cpp:91] Creating Layer inception_5a/output
I0715 00:31:15.369269 20377 net.cpp:425] inception_5a/output <- inception_5a/1x1
I0715 00:31:15.369277 20377 net.cpp:425] inception_5a/output <- inception_5a/3x3
I0715 00:31:15.369282 20377 net.cpp:425] inception_5a/output <- inception_5a/5x5
I0715 00:31:15.369288 20377 net.cpp:425] inception_5a/output <- inception_5a/pool_proj
I0715 00:31:15.369295 20377 net.cpp:399] inception_5a/output -> inception_5a/output
I0715 00:31:15.369370 20377 net.cpp:141] Setting up inception_5a/output
I0715 00:31:15.369382 20377 net.cpp:148] Top shape: 10 832 7 7 (407680)
I0715 00:31:15.369386 20377 net.cpp:156] Memory required for data: 536256000
I0715 00:31:15.369392 20377 layer_factory.hpp:77] Creating layer inception_5a/output_inception_5a/output_0_split
I0715 00:31:15.369401 20377 net.cpp:91] Creating Layer inception_5a/output_inception_5a/output_0_split
I0715 00:31:15.369406 20377 net.cpp:425] inception_5a/output_inception_5a/output_0_split <- inception_5a/output
I0715 00:31:15.369418 20377 net.cpp:399] inception_5a/output_inception_5a/output_0_split -> inception_5a/output_inception_5a/output_0_split_0
I0715 00:31:15.369429 20377 net.cpp:399] inception_5a/output_inception_5a/output_0_split -> inception_5a/output_inception_5a/output_0_split_1
I0715 00:31:15.369438 20377 net.cpp:399] inception_5a/output_inception_5a/output_0_split -> inception_5a/output_inception_5a/output_0_split_2
I0715 00:31:15.369447 20377 net.cpp:399] inception_5a/output_inception_5a/output_0_split -> inception_5a/output_inception_5a/output_0_split_3
I0715 00:31:15.369631 20377 net.cpp:141] Setting up inception_5a/output_inception_5a/output_0_split
I0715 00:31:15.369642 20377 net.cpp:148] Top shape: 10 832 7 7 (407680)
I0715 00:31:15.369648 20377 net.cpp:148] Top shape: 10 832 7 7 (407680)
I0715 00:31:15.369654 20377 net.cpp:148] Top shape: 10 832 7 7 (407680)
I0715 00:31:15.369660 20377 net.cpp:148] Top shape: 10 832 7 7 (407680)
I0715 00:31:15.369664 20377 net.cpp:156] Memory required for data: 542778880
I0715 00:31:15.369669 20377 layer_factory.hpp:77] Creating layer inception_5b/1x1
I0715 00:31:15.369685 20377 net.cpp:91] Creating Layer inception_5b/1x1
I0715 00:31:15.369693 20377 net.cpp:425] inception_5b/1x1 <- inception_5a/output_inception_5a/output_0_split_0
I0715 00:31:15.369701 20377 net.cpp:399] inception_5b/1x1 -> inception_5b/1x1
I0715 00:31:15.375782 20373 net.cpp:141] Setting up loss3/classifier
I0715 00:31:15.375816 20373 net.cpp:148] Top shape: 10 1000 (10000)
I0715 00:31:15.375823 20373 net.cpp:156] Memory required for data: 551493440
I0715 00:31:15.375835 20373 layer_factory.hpp:77] Creating layer prob
I0715 00:31:15.375847 20373 net.cpp:91] Creating Layer prob
I0715 00:31:15.375855 20373 net.cpp:425] prob <- loss3/classifier
I0715 00:31:15.375869 20373 net.cpp:399] prob -> prob
I0715 00:31:15.377317 20373 net.cpp:141] Setting up prob
I0715 00:31:15.377332 20373 net.cpp:148] Top shape: 10 1000 (10000)
I0715 00:31:15.377337 20373 net.cpp:156] Memory required for data: 551533440
I0715 00:31:15.377342 20373 net.cpp:219] prob does not need backward computation.
I0715 00:31:15.377347 20373 net.cpp:219] loss3/classifier does not need backward computation.
I0715 00:31:15.377353 20373 net.cpp:219] pool5/drop_7x7_s1 does not need backward computation.
I0715 00:31:15.377357 20373 net.cpp:219] pool5/7x7_s1 does not need backward computation.
…
I0715 00:31:15.378021 20373 net.cpp:219] pool1/3x3_s2 does not need backward computation.
I0715 00:31:15.378027 20373 net.cpp:219] conv1/relu_7x7 does not need backward computation.
I0715 00:31:15.378032 20373 net.cpp:219] conv1/7x7_s2 does not need backward computation.
I0715 00:31:15.378037 20373 net.cpp:219] data does not need backward computation.
I0715 00:31:15.378041 20373 net.cpp:261] This network produces output prob
I0715 00:31:15.378170 20373 net.cpp:274] Network initialization done.
I0715 00:31:15.379349 20377 net.cpp:141] Setting up inception_5b/1x1
I0715 00:31:15.379369 20377 net.cpp:148] Top shape: 10 384 7 7 (188160)
I0715 00:31:15.379374 20377 net.cpp:156] Memory required for data: 543531520
I0715 00:31:15.379384 20377 layer_factory.hpp:77] Creating layer inception_5b/relu_1x1
I0715 00:31:15.379396 20377 net.cpp:91] Creating Layer inception_5b/relu_1x1
I0715 00:31:15.379405 20377 net.cpp:425] inception_5b/relu_1x1 <- inception_5b/1x1
I0715 00:31:15.379412 20377 net.cpp:386] inception_5b/relu_1x1 -> inception_5b/1x1 (in-place)
I0715 00:31:15.379755 20377 net.cpp:141] Setting up inception_5b/relu_1x1
I0715 00:31:15.379767 20377 net.cpp:148] Top shape: 10 384 7 7 (188160)
I0715 00:31:15.379773 20377 net.cpp:156] Memory required for data: 544284160
I0715 00:31:15.379778 20377 layer_factory.hpp:77] Creating layer inception_5b/3x3_reduce
I0715 00:31:15.379798 20377 net.cpp:91] Creating Layer inception_5b/3x3_reduce
I0715 00:31:15.379806 20377 net.cpp:425] inception_5b/3x3_reduce <- inception_5a/output_inception_5a/output_0_split_1
I0715 00:31:15.379815 20377 net.cpp:399] inception_5b/3x3_reduce -> inception_5b/3x3_reduce
I0715 00:31:15.385820 20377 net.cpp:141] Setting up inception_5b/3x3_reduce
I0715 00:31:15.385843 20377 net.cpp:148] Top shape: 10 192 7 7 (94080)
I0715 00:31:15.385849 20377 net.cpp:156] Memory required for data: 544660480
I0715 00:31:15.385860 20377 layer_factory.hpp:77] Creating layer inception_5b/relu_3x3_reduce
I0715 00:31:15.385872 20377 net.cpp:91] Creating Layer inception_5b/relu_3x3_reduce
I0715 00:31:15.385879 20377 net.cpp:425] inception_5b/relu_3x3_reduce <- inception_5b/3x3_reduce
I0715 00:31:15.385887 20377 net.cpp:386] inception_5b/relu_3x3_reduce -> inception_5b/3x3_reduce (in-place)
I0715 00:31:15.386814 20377 net.cpp:141] Setting up inception_5b/relu_3x3_reduce
I0715 00:31:15.386834 20377 net.cpp:148] Top shape: 10 192 7 7 (94080)
I0715 00:31:15.386839 20377 net.cpp:156] Memory required for data: 545036800
I0715 00:31:15.386845 20377 layer_factory.hpp:77] Creating layer inception_5b/3x3
I0715 00:31:15.386862 20377 net.cpp:91] Creating Layer inception_5b/3x3
I0715 00:31:15.386869 20377 net.cpp:425] inception_5b/3x3 <- inception_5b/3x3_reduce
I0715 00:31:15.386883 20377 net.cpp:399] inception_5b/3x3 -> inception_5b/3x3
I0715 00:31:15.396525 20377 net.cpp:141] Setting up inception_5b/3x3
I0715 00:31:15.396549 20377 net.cpp:148] Top shape: 10 384 7 7 (188160)
I0715 00:31:15.396555 20377 net.cpp:156] Memory required for data: 545789440
I0715 00:31:15.396566 20377 layer_factory.hpp:77] Creating layer inception_5b/relu_3x3
I0715 00:31:15.396576 20377 net.cpp:91] Creating Layer inception_5b/relu_3x3
I0715 00:31:15.396582 20377 net.cpp:425] inception_5b/relu_3x3 <- inception_5b/3x3
I0715 00:31:15.396595 20377 net.cpp:386] inception_5b/relu_3x3 -> inception_5b/3x3 (in-place)
I0715 00:31:15.397508 20377 net.cpp:141] Setting up inception_5b/relu_3x3
I0715 00:31:15.397526 20377 net.cpp:148] Top shape: 10 384 7 7 (188160)
I0715 00:31:15.397531 20377 net.cpp:156] Memory required for data: 546542080
I0715 00:31:15.397537 20377 layer_factory.hpp:77] Creating layer inception_5b/5x5_reduce
I0715 00:31:15.397557 20377 net.cpp:91] Creating Layer inception_5b/5x5_reduce
I0715 00:31:15.397563 20377 net.cpp:425] inception_5b/5x5_reduce <- inception_5a/output_inception_5a/output_0_split_2
I0715 00:31:15.397577 20377 net.cpp:399] inception_5b/5x5_reduce -> inception_5b/5x5_reduce
I0715 00:31:15.400609 20377 net.cpp:141] Setting up inception_5b/5x5_reduce
I0715 00:31:15.400629 20377 net.cpp:148] Top shape: 10 48 7 7 (23520)
I0715 00:31:15.400635 20377 net.cpp:156] Memory required for data: 546636160
I0715 00:31:15.400645 20377 layer_factory.hpp:77] Creating layer inception_5b/relu_5x5_reduce
I0715 00:31:15.400656 20377 net.cpp:91] Creating Layer inception_5b/relu_5x5_reduce
I0715 00:31:15.400663 20377 net.cpp:425] inception_5b/relu_5x5_reduce <- inception_5b/5x5_reduce
I0715 00:31:15.400671 20377 net.cpp:386] inception_5b/relu_5x5_reduce -> inception_5b/5x5_reduce (in-place)
I0715 00:31:15.400996 20377 net.cpp:141] Setting up inception_5b/relu_5x5_reduce
I0715 00:31:15.401012 20377 net.cpp:148] Top shape: 10 48 7 7 (23520)
I0715 00:31:15.401018 20377 net.cpp:156] Memory required for data: 546730240
I0715 00:31:15.401023 20377 layer_factory.hpp:77] Creating layer inception_5b/5x5
I0715 00:31:15.401043 20377 net.cpp:91] Creating Layer inception_5b/5x5
I0715 00:31:15.401049 20377 net.cpp:425] inception_5b/5x5 <- inception_5b/5x5_reduce
I0715 00:31:15.401059 20377 net.cpp:399] inception_5b/5x5 -> inception_5b/5x5
I0715 00:31:15.405880 20377 net.cpp:141] Setting up inception_5b/5x5
I0715 00:31:15.405901 20377 net.cpp:148] Top shape: 10 128 7 7 (62720)
I0715 00:31:15.405907 20377 net.cpp:156] Memory required for data: 546981120
I0715 00:31:15.405917 20377 layer_factory.hpp:77] Creating layer inception_5b/relu_5x5
I0715 00:31:15.405926 20377 net.cpp:91] Creating Layer inception_5b/relu_5x5
I0715 00:31:15.405932 20377 net.cpp:425] inception_5b/relu_5x5 <- inception_5b/5x5
I0715 00:31:15.405956 20377 net.cpp:386] inception_5b/relu_5x5 -> inception_5b/5x5 (in-place)
I0715 00:31:15.407001 20377 net.cpp:141] Setting up inception_5b/relu_5x5
I0715 00:31:15.407019 20377 net.cpp:148] Top shape: 10 128 7 7 (62720)
I0715 00:31:15.407024 20377 net.cpp:156] Memory required for data: 547232000
I0715 00:31:15.407030 20377 layer_factory.hpp:77] Creating layer inception_5b/pool
I0715 00:31:15.407045 20377 net.cpp:91] Creating Layer inception_5b/pool
I0715 00:31:15.407052 20377 net.cpp:425] inception_5b/pool <- inception_5a/output_inception_5a/output_0_split_3
I0715 00:31:15.407060 20377 net.cpp:399] inception_5b/pool -> inception_5b/pool
I0715 00:31:15.407143 20377 net.cpp:141] Setting up inception_5b/pool
I0715 00:31:15.407155 20377 net.cpp:148] Top shape: 10 832 7 7 (407680)
I0715 00:31:15.407160 20377 net.cpp:156] Memory required for data: 548862720
I0715 00:31:15.407166 20377 layer_factory.hpp:77] Creating layer inception_5b/pool_proj
I0715 00:31:15.407181 20377 net.cpp:91] Creating Layer inception_5b/pool_proj
I0715 00:31:15.407187 20377 net.cpp:425] inception_5b/pool_proj <- inception_5b/pool
I0715 00:31:15.407212 20377 net.cpp:399] inception_5b/pool_proj -> inception_5b/pool_proj
I0715 00:31:15.411217 20377 net.cpp:141] Setting up inception_5b/pool_proj
I0715 00:31:15.411240 20377 net.cpp:148] Top shape: 10 128 7 7 (62720)
I0715 00:31:15.411247 20377 net.cpp:156] Memory required for data: 549113600
I0715 00:31:15.411257 20377 layer_factory.hpp:77] Creating layer inception_5b/relu_pool_proj
I0715 00:31:15.411267 20377 net.cpp:91] Creating Layer inception_5b/relu_pool_proj
I0715 00:31:15.411273 20377 net.cpp:425] inception_5b/relu_pool_proj <- inception_5b/pool_proj
I0715 00:31:15.411284 20377 net.cpp:386] inception_5b/relu_pool_proj -> inception_5b/pool_proj (in-place)
I0715 00:31:15.412220 20377 net.cpp:141] Setting up inception_5b/relu_pool_proj
I0715 00:31:15.412238 20377 net.cpp:148] Top shape: 10 128 7 7 (62720)
I0715 00:31:15.412243 20377 net.cpp:156] Memory required for data: 549364480
I0715 00:31:15.412250 20377 layer_factory.hpp:77] Creating layer inception_5b/output
I0715 00:31:15.412259 20377 net.cpp:91] Creating Layer inception_5b/output
I0715 00:31:15.412266 20377 net.cpp:425] inception_5b/output <- inception_5b/1x1
I0715 00:31:15.412272 20377 net.cpp:425] inception_5b/output <- inception_5b/3x3
I0715 00:31:15.412278 20377 net.cpp:425] inception_5b/output <- inception_5b/5x5
I0715 00:31:15.412284 20377 net.cpp:425] inception_5b/output <- inception_5b/pool_proj
I0715 00:31:15.412297 20377 net.cpp:399] inception_5b/output -> inception_5b/output
I0715 00:31:15.412348 20377 net.cpp:141] Setting up inception_5b/output
I0715 00:31:15.412358 20377 net.cpp:148] Top shape: 10 1024 7 7 (501760)
I0715 00:31:15.412363 20377 net.cpp:156] Memory required for data: 551371520
I0715 00:31:15.412367 20377 layer_factory.hpp:77] Creating layer pool5/7x7_s1
I0715 00:31:15.412375 20377 net.cpp:91] Creating Layer pool5/7x7_s1
I0715 00:31:15.412381 20377 net.cpp:425] pool5/7x7_s1 <- inception_5b/output
I0715 00:31:15.412389 20377 net.cpp:399] pool5/7x7_s1 -> pool5/7x7_s1
I0715 00:31:15.413436 20377 net.cpp:141] Setting up pool5/7x7_s1
I0715 00:31:15.413453 20377 net.cpp:148] Top shape: 10 1024 1 1 (10240)
I0715 00:31:15.413458 20377 net.cpp:156] Memory required for data: 551412480
I0715 00:31:15.413463 20377 layer_factory.hpp:77] Creating layer pool5/drop_7x7_s1
I0715 00:31:15.413488 20377 net.cpp:91] Creating Layer pool5/drop_7x7_s1
I0715 00:31:15.413496 20377 net.cpp:425] pool5/drop_7x7_s1 <- pool5/7x7_s1
I0715 00:31:15.413503 20377 net.cpp:386] pool5/drop_7x7_s1 -> pool5/7x7_s1 (in-place)
I0715 00:31:15.413545 20377 net.cpp:141] Setting up pool5/drop_7x7_s1
I0715 00:31:15.413555 20377 net.cpp:148] Top shape: 10 1024 1 1 (10240)
I0715 00:31:15.413559 20377 net.cpp:156] Memory required for data: 551453440
I0715 00:31:15.413564 20377 layer_factory.hpp:77] Creating layer loss3/classifier
I0715 00:31:15.413578 20377 net.cpp:91] Creating Layer loss3/classifier
I0715 00:31:15.413583 20377 net.cpp:425] loss3/classifier <- pool5/7x7_s1
I0715 00:31:15.413599 20377 net.cpp:399] loss3/classifier -> loss3/classifier
I0715 00:31:15.425380 20377 net.cpp:141] Setting up loss3/classifier
I0715 00:31:15.425406 20377 net.cpp:148] Top shape: 10 1000 (10000)
I0715 00:31:15.425412 20377 net.cpp:156] Memory required for data: 551493440
I0715 00:31:15.425423 20377 layer_factory.hpp:77] Creating layer prob
I0715 00:31:15.425441 20377 net.cpp:91] Creating Layer prob
I0715 00:31:15.425447 20377 net.cpp:425] prob <- loss3/classifier
I0715 00:31:15.425457 20377 net.cpp:399] prob -> prob
I0715 00:31:15.426782 20377 net.cpp:141] Setting up prob
I0715 00:31:15.426801 20377 net.cpp:148] Top shape: 10 1000 (10000)
I0715 00:31:15.426807 20377 net.cpp:156] Memory required for data: 551533440
I0715 00:31:15.426812 20377 net.cpp:219] prob does not need backward computation.
I0715 00:31:15.426818 20377 net.cpp:219] loss3/classifier does not need backward computation.
I0715 00:31:15.426822 20377 net.cpp:219] pool5/drop_7x7_s1 does not need backward computation.
I0715 00:31:15.426827 20377 net.cpp:219] pool5/7x7_s1 does not need backward computation.
…
