…
Java HotSpot(TM) 64-Bit Server VM warning: You have loaded library /tmp/cvld8617975512267692246/libopencv_java310.xine1.so which might have disabled stack guard. The VM will try to fix the stack guard now.
It's highly recommended that you fix the library with 'execstack -c <libfile>', or link it with '-z noexecstack'.
WARNING: Logging before InitGoogleLogging() is written to STDERR
I0714 21:57:28.844607 16221 net.cpp:49] Initializing net from parameters: 
name: "GoogleNet"
state {
  phase: TEST
}
layer {
  name: "data"
  type: "Input"
  top: "data"
  input_param {
    shape {
      dim: 10
      dim: 3
      dim: 224
      dim: 224
    }
  }
}
layer {
  name: "conv1/7x7_s2"
  type: "Convolution"
  bottom: "data"
  top: "conv1/7x7_s2"
  param {
    lr_mult: 1
    decay_mult: 1
  }
  param {
    lr_mult: 2
    decay_mult: 0
  }
  convolution_param {
    num_output: 64
    pad: 3
    kernel_size: 7
    stride: 2
    weight_filler {
      type: "xavier"
      std: 0.1
    }
    bias_filler {
      type: "constant"
      value: 0.2
    }
  }
}
layer {
  name: "conv1/relu_7x7"
  type: "ReLU"
  bottom: "conv1/7x7_s2"
  top: "conv1/7x7_s2"
}
layer {
  name: "pool1/3x3_s2"
  type: "Pooling"
  bottom: "conv1/7x7_s2"
  top: "pool1/3x3_s2"
  pooling_param {
    pool: MAX
    kernel_size: 3
    stride: 2
  }
}
layer {
  name: "pool1/norm1"
  type: "LRN"
  bottom: "pool1/3x3_s2"
  top: "pool1/norm1"
  lrn_param {
    local_size: 5
    alpha: 0.0001
    beta: 0.75
  }
}
layer {
  name: "conv2/3x3_reduce"
  type: "Convolution"
  bottom: "pool1/norm1"
  top: "conv2/3x3_reduce"
  param {
    lr_mult: 1
    decay_mult: 1
  }
  param {
    lr_mult: 2
    decay_mult: 0
  }
  convolution_param {
    num_output: 64
    kernel_size: 1
    weight_filler {
      type: "xavier"
      std: 0.1
    }
    bias_filler {
      type: "constant"
      value: 0.2
    }
  }
}
layer {
  name: "conv2/relu_3x3_reduce"
  type: "ReLU"
  bottom: "conv2/3x3_reduce"
  top: "conv2/3x3_reduce"
}
layer {
  name: "conv2/3x3"
  type: "Convolution"
  bottom: "conv2/3x3_reduce"
  top: "conv2/3x3"
  param {
    lr_mult: 1
    decay_mult: 1
  }
  param {
    lr_mult: 2
    decay_mult: 0
  }
  convolution_param {
    num_output: 192
    pad: 1
    kernel_size: 3
    weight_filler {
      type: "xavier"
      std: 0.03
    }
    bias_filler {
      type: "constant"
      value: 0.2
    }
  }
}
layer {
  name: "conv2/relu_3x3"
  type: "ReLU"
  bottom: "conv2/3x3"
  top: "conv2/3x3"
}
layer {
  name: "conv2/norm2"
  type: "LRN"
  bottom: "conv2/3x3"
  top: "conv2/norm2"
  lrn_param {
    local_size: 5
    alpha: 0.0001
    beta: 0.75
  }
}
layer {
  name: "pool2/3x3_s2"
  type: "Pooling"
  bottom: "conv2/norm2"
  top: "pool2/3x3_s2"
  pooling_param {
    pool: MAX
    kernel_size: 3
    stride: 2
  }
}
layer {
  name: "inception_3a/1x1"
  type: "Convolution"
  bottom: "pool2/3x3_s2"
  top: "inception_3a/1x1"
  param {
    lr_mult: 1
    decay_mult: 1
  }
  param {
    lr_mult: 2
    decay_mult: 0
  }
  convolution_param {
    num_output: 64
    kernel_size: 1
    weight_filler {
      type: "xavier"
      std: 0.03
    }
    bias_filler {
      type: "constant"
      value: 0.2
    }
  }
}
layer {
  name: "inception_3a/relu_1x1"
  type: "ReLU"
  bottom: "inception_3a/1x1"
  top: "inception_3a/1x1"
}
layer {
  name: "inception_3a/3x3_reduce"
  type: "Convolution"
  bottom: "pool2/3x3_s2"
  top: "inception_3a/3x3_reduce"
  param {
    lr_mult: 1
    decay_mult: 1
  }
  param {
    lr_mult: 2
    decay_mult: 0
  }
  convolution_param {
    num_output: 96
    kernel_size: 1
    weight_filler {
      type: "xavier"
      std: 0.09
    }
    bias_filler {
      type: "constant"
      value: 0.2
    }
  }
}
layer {
  name: "inception_3a/relu_3x3_reduce"
  type: "ReLU"
  bottom: "inception_3a/3x3_reduce"
  top: "inception_3a/3x3_reduce"
}
layer {
  name: "inception_3a/3x3"
  type: "Convolution"
  bottom: "inception_3a/3x3_reduce"
  top: "inception_3a/3x3"
  param {
    lr_mult: 1
    decay_mult: 1
  }
  param {
    lr_mult: 2
    decay_mult: 0
  }
  convolution_param {
    num_output: 128
    pad: 1
    kernel_size: 3
    weight_filler {
      type: "xavier"
      std: 0.03
    }
    bias_filler {
      type: "constant"
      value: 0.2
    }
  }
}
layer {
  name: "inception_3a/relu_3x3"
  type: "ReLU"
  bottom: "inception_3a/3x3"
  top: "inception_3a/3x3"
}
layer {
  name: "inception_3a/5x5_reduce"
  type: "Convolution"
  bottom: "pool2/3x3_s2"
  top: "inception_3a/5x5_reduce"
  param {
    lr_mult: 1
    decay_mult: 1
  }
  param {
    lr_mult: 2
    decay_mult: 0
  }
  convolution_param {
    num_output: 16
    kernel_size: 1
    weight_filler {
      type: "xavier"
      std: 0.2
    }
    bias_filler {
      type: "constant"
      value: 0.2
    }
  }
}
layer {
  name: "inception_3a/relu_5x5_reduce"
  type: "ReLU"
  bottom: "inception_3a/5x5_reduce"
  top: "inception_3a/5x5_reduce"
}
layer {
  name: "inception_3a/5x5"
  type: "Convolution"
  bottom: "inception_3a/5x5_reduce"
  top: "inception_3a/5x5"
  param {
    lr_mult: 1
    decay_mult: 1
  }
  param {
    lr_mult: 2
    decay_mult: 0
  }
  convolution_param {
    num_output: 32
    pad: 2
    kernel_size: 5
    weight_filler {
      type: "xavier"
      std: 0.03
    }
    bias_filler {
      type: "constant"
      value: 0.2
    }
  }
}
layer {
  name: "inception_3a/relu_5x5"
  type: "ReLU"
  bottom: "inception_3a/5x5"
  top: "inception_3a/5x5"
}
layer {
  name: "inception_3a/pool"
  type: "Pooling"
  bottom: "pool2/3x3_s2"
  top: "inception_3a/pool"
  pooling_param {
    pool: MAX
    kernel_size: 3
    stride: 1
    pad: 1
  }
}
layer {
  name: "inception_3a/pool_proj"
  type: "Convolution"
  bottom: "inception_3a/pool"
  top: "inception_3a/pool_proj"
  param {
    lr_mult: 1
    decay_mult: 1
  }
  param {
    lr_mult: 2
    decay_mult: 0
  }
  convolution_param {
    num_output: 32
    kernel_size: 1
    weight_filler {
      type: "xavier"
      std: 0.1
    }
    bias_filler {
      type: "constant"
      value: 0.2
    }
  }
}
layer {
  name: "inception_3a/relu_pool_proj"
  type: "ReLU"
  bottom: "inception_3a/pool_proj"
  top: "inception_3a/pool_proj"
}
layer {
  name: "inception_3a/output"
  type: "Concat"
  bottom: "inception_3a/1x1"
  bottom: "inception_3a/3x3"
  bottom: "inception_3a/5x5"
  bottom: "inception_3a/pool_proj"
  top: "inception_3a/output"
}
layer {
  name: "inception_3b/1x1"
  type: "Convolution"
  bottom: "inception_3a/output"
  top: "inception_3b/1x1"
  param {
    lr_mult: 1
    decay_mult: 1
  }
  param {
    lr_mult: 2
    decay_mult: 0
  }
  convolution_param {
    num_output: 128
    kernel_size: 1
    weight_filler {
      type: "xavier"
      std: 0.03
    }
    bias_filler {
      type: "constant"
      value: 0.2
    }
  }
}
layer {
  name: "inception_3b/relu_1x1"
  type: "ReLU"
  bottom: "inception_3b/1x1"
  top: "inception_3b/1x1"
}
layer {
  name: "inception_3b/3x3_reduce"
  type: "Convolution"
  bottom: "inception_3a/output"
  top: "inception_3b/3x3_reduce"
  param {
    lr_mult: 1
    decay_mult: 1
  }
  param {
    lr_mult: 2
    decay_mult: 0
  }
  convolution_param {
    num_output: 128
    kernel_size: 1
    weight_filler {
      type: "xavier"
      std: 0.09
    }
    bias_filler {
      type: "constant"
      value: 0.2
    }
  }
}
layer {
  name: "inception_3b/relu_3x3_reduce"
  type: "ReLU"
  bottom: "inception_3b/3x3_reduce"
  top: "inception_3b/3x3_reduce"
}
layer {
  name: "inception_3b/3x3"
  type: "Convolution"
  bottom: "inception_3b/3x3_reduce"
  top: "inception_3b/3x3"
  param {
    lr_mult: 1
    decay_mult: 1
  }
  param {
    lr_mult: 2
    decay_mult: 0
  }
  convolution_param {
    num_output: 192
    pad: 1
    kernel_size: 3
    weight_filler {
      type: "xavier"
      std: 0.03
    }
    bias_filler {
      type: "constant"
      value: 0.2
    }
  }
}
layer {
  name: "inception_3b/relu_3x3"
  type: "ReLU"
  bottom: "inception_3b/3x3"
  top: "inception_3b/3x3"
}
layer {
  name: "inception_3b/5x5_reduce"
  type: "Convolution"
  bottom: "inception_3a/output"
  top: "inception_3b/5x5_reduce"
  param {
    lr_mult: 1
    decay_mult: 1
  }
  param {
    lr_mult: 2
    decay_mult: 0
  }
  convolution_param {
    num_output: 32
    kernel_size: 1
    weight_filler {
      type: "xavier"
      std: 0.2
    }
    bias_filler {
      type: "constant"
      value: 0.2
    }
  }
}
layer {
  name: "inception_3b/relu_5x5_reduce"
  type: "ReLU"
  bottom: "inception_3b/5x5_reduce"
  top: "inception_3b/5x5_reduce"
}
layer {
  name: "inception_3b/5x5"
  type: "Convolution"
  bottom: "inception_3b/5x5_reduce"
  top: "inception_3b/5x5"
  param {
    lr_mult: 1
    decay_mult: 1
  }
  param {
    lr_mult: 2
    decay_mult: 0
  }
  convolution_param {
    num_output: 96
    pad: 2
    kernel_size: 5
    weight_filler {
      type: "xavier"
      std: 0.03
    }
    bias_filler {
      type: "constant"
      value: 0.2
    }
  }
}
layer {
  name: "inception_3b/relu_5x5"
  type: "ReLU"
  bottom: "inception_3b/5x5"
  top: "inception_3b/5x5"
}
layer {
  name: "inception_3b/pool"
  type: "Pooling"
  bottom: "inception_3a/output"
  top: "inception_3b/pool"
  pooling_param {
    pool: MAX
    kernel_size: 3
    stride: 1
    pad: 1
  }
}
layer {
  name: "inception_3b/pool_proj"
  type: "Convolution"
  bottom: "inception_3b/pool"
  top: "inception_3b/pool_proj"
  param {
    lr_mult: 1
    decay_mult: 1
  }
  param {
    lr_mult: 2
    decay_mult: 0
  }
  convolution_param {
    num_output: 64
    kernel_size: 1
    weight_filler {
      type: "xavier"
      std: 0.1
    }
    bias_filler {
      type: "constant"
      value: 0.2
    }
  }
}
layer {
  name: "inception_3b/relu_pool_proj"
  type: "ReLU"
  bottom: "inception_3b/pool_proj"
  top: "inception_3b/pool_proj"
}
layer {
  name: "inception_3b/output"
  type: "Concat"
  bottom: "inception_3b/1x1"
  bottom: "inception_3b/3x3"
  bottom: "inception_3b/5x5"
  bottom: "inception_3b/pool_proj"
  top: "inception_3b/output"
}
layer {
  name: "pool3/3x3_s2"
  type: "Pooling"
  bottom: "inception_3b/output"
  top: "pool3/3x3_s2"
  pooling_param {
    pool: MAX
    kernel_size: 3
    stride: 2
  }
}
layer {
  name: "inception_4a/1x1"
  type: "Convolution"
  bottom: "pool3/3x3_s2"
  top: "inception_4a/1x1"
  param {
    lr_mult: 1
    decay_mult: 1
  }
  param {
    lr_mult: 2
    decay_mult: 0
  }
  convolution_param {
    num_output: 192
    kernel_size: 1
    weight_filler {
      type: "xavier"
      std: 0.03
    }
    bias_filler {
      type: "constant"
      value: 0.2
    }
  }
}
layer {
  name: "inception_4a/relu_1x1"
  type: "ReLU"
  bottom: "inception_4a/1x1"
  top: "inception_4a/1x1"
}
layer {
  name: "inception_4a/3x3_reduce"
  type: "Convolution"
  bottom: "pool3/3x3_s2"
  top: "inception_4a/3x3_reduce"
  param {
    lr_mult: 1
    decay_mult: 1
  }
  param {
    lr_mult: 2
    decay_mult: 0
  }
  convolution_param {
    num_output: 96
    kernel_size: 1
    weight_filler {
      type: "xavier"
      std: 0.09
    }
    bias_filler {
      type: "constant"
      value: 0.2
    }
  }
}
layer {
  name: "inception_4a/relu_3x3_reduce"
  type: "ReLU"
  bottom: "inception_4a/3x3_reduce"
  top: "inception_4a/3x3_reduce"
}
layer {
  name: "inception_4a/3x3"
  type: "Convolution"
  bottom: "inception_4a/3x3_reduce"
  top: "inception_4a/3x3"
  param {
    lr_mult: 1
    decay_mult: 1
  }
  param {
    lr_mult: 2
    decay_mult: 0
  }
  convolution_param {
    num_output: 208
    pad: 1
    kernel_size: 3
    weight_filler {
      type: "xavier"
      std: 0.03
    }
    bias_filler {
      type: "constant"
      value: 0.2
    }
  }
}
layer {
  name: "inception_4a/relu_3x3"
  type: "ReLU"
  bottom: "inception_4a/3x3"
  top: "inception_4a/3x3"
}
layer {
  name: "inception_4a/5x5_reduce"
  type: "Convolution"
  bottom: "pool3/3x3_s2"
  top: "inception_4a/5x5_reduce"
  param {
    lr_mult: 1
    decay_mult: 1
  }
  param {
    lr_mult: 2
    decay_mult: 0
  }
  convolution_param {
    num_output: 16
    kernel_size: 1
    weight_filler {
      type: "xavier"
      std: 0.2
    }
    bias_filler {
      type: "constant"
      value: 0.2
    }
  }
}
layer {
  name: "inception_4a/relu_5x5_reduce"
  type: "ReLU"
  bottom: "inception_4a/5x5_reduce"
  top: "inception_4a/5x5_reduce"
}
layer {
  name: "inception_4a/5x5"
  type: "Convolution"
  bottom: "inception_4a/5x5_reduce"
  top: "inception_4a/5x5"
  param {
    lr_mult: 1
    decay_mult: 1
  }
  param {
    lr_mult: 2
    decay_mult: 0
  }
  convolution_param {
    num_output: 48
    pad: 2
    kernel_size: 5
    weight_filler {
      type: "xavier"
      std: 0.03
    }
    bias_filler {
      type: "constant"
      value: 0.2
    }
  }
}
layer {
  name: "inception_4a/relu_5x5"
  type: "ReLU"
  bottom: "inception_4a/5x5"
  top: "inception_4a/5x5"
}
layer {
  name: "inception_4a/pool"
  type: "Pooling"
  bottom: "pool3/3x3_s2"
  top: "inception_4a/pool"
  pooling_param {
    pool: MAX
    kernel_size: 3
    stride: 1
    pad: 1
  }
}
layer {
  name: "inception_4a/pool_proj"
  type: "Convolution"
  bottom: "inception_4a/pool"
  top: "inception_4a/pool_proj"
  param {
    lr_mult: 1
    decay_mult: 1
  }
  param {
    lr_mult: 2
    decay_mult: 0
  }
  convolution_param {
    num_output: 64
    kernel_size: 1
    weight_filler {
      type: "xavier"
      std: 0.1
    }
    bias_filler {
      type: "constant"
      value: 0.2
    }
  }
}
layer {
  name: "inception_4a/relu_pool_proj"
  type: "ReLU"
  bottom: "inception_4a/pool_proj"
  top: "inception_4a/pool_proj"
}
layer {
  name: "inception_4a/output"
  type: "Concat"
  bottom: "inception_4a/1x1"
  bottom: "inception_4a/3x3"
  bottom: "inception_4a/5x5"
  bottom: "inception_4a/pool_proj"
  top: "inception_4a/output"
}
layer {
  name: "inception_4b/1x1"
  type: "Convolution"
  bottom: "inception_4a/output"
  top: "inception_4b/1x1"
  param {
    lr_mult: 1
    decay_mult: 1
  }
  param {
    lr_mult: 2
    decay_mult: 0
  }
  convolution_param {
    num_output: 160
    kernel_size: 1
    weight_filler {
      type: "xavier"
      std: 0.03
    }
    bias_filler {
      type: "constant"
      value: 0.2
    }
  }
}
layer {
  name: "inception_4b/relu_1x1"
  type: "ReLU"
  bottom: "inception_4b/1x1"
  top: "inception_4b/1x1"
}
layer {
  name: "inception_4b/3x3_reduce"
  type: "Convolution"
  bottom: "inception_4a/output"
  top: "inception_4b/3x3_reduce"
  param {
    lr_mult: 1
    decay_mult: 1
  }
  param {
    lr_mult: 2
    decay_mult: 0
  }
  convolution_param {
    num_output: 112
    kernel_size: 1
    weight_filler {
      type: "xavier"
      std: 0.09
    }
    bias_filler {
      type: "constant"
      value: 0.2
    }
  }
}
layer {
  name: "inception_4b/relu_3x3_reduce"
  type: "ReLU"
  bottom: "inception_4b/3x3_reduce"
  top: "inception_4b/3x3_reduce"
}
layer {
  name: "inception_4b/3x3"
  type: "Convolution"
  bottom: "inception_4b/3x3_reduce"
  top: "inception_4b/3x3"
  param {
    lr_mult: 1
    decay_mult: 1
  }
  param {
    lr_mult: 2
    decay_mult: 0
  }
  convolution_param {
    num_output: 224
    pad: 1
    kernel_size: 3
    weight_filler {
      type: "xavier"
      std: 0.03
    }
    bias_filler {
      type: "constant"
      value: 0.2
    }
  }
}
layer {
  name: "inception_4b/relu_3x3"
  type: "ReLU"
  bottom: "inception_4b/3x3"
  top: "inception_4b/3x3"
}
layer {
  name: "inception_4b/5x5_reduce"
  type: "Convolution"
  bottom: "inception_4a/output"
  top: "inception_4b/5x5_reduce"
  param {
    lr_mult: 1
    decay_mult: 1
  }
  param {
    lr_mult: 2
    decay_mult: 0
  }
  convolution_param {
    num_output: 24
    kernel_size: 1
    weight_filler {
      type: "xavier"
      std: 0.2
    }
    bias_filler {
      type: "constant"
      value: 0.2
    }
  }
}
layer {
  name: "inception_4b/relu_5x5_reduce"
  type: "ReLU"
  bottom: "inception_4b/5x5_reduce"
  top: "inception_4b/5x5_reduce"
}
layer {
  name: "inception_4b/5x5"
  type: "Convolution"
  bottom: "inception_4b/5x5_reduce"
  top: "inception_4b/5x5"
  param {
    lr_mult: 1
    decay_mult: 1
  }
  param {
    lr_mult: 2
    decay_mult: 0
  }
  convolution_param {
    num_output: 64
    pad: 2
    kernel_size: 5
    weight_filler {
      type: "xavier"
      std: 0.03
    }
    bias_filler {
      type: "constant"
      value: 0.2
    }
  }
}
layer {
  name: "inception_4b/relu_5x5"
  type: "ReLU"
  bottom: "inception_4b/5x5"
  top: "inception_4b/5x5"
}
layer {
  name: "inception_4b/pool"
  type: "Pooling"
  bottom: "inception_4a/output"
  top: "inception_4b/pool"
  pooling_param {
    pool: MAX
    kernel_size: 3
    stride: 1
    pad: 1
  }
}
layer {
  name: "inception_4b/pool_proj"
  type: "Convolution"
  bottom: "inception_4b/pool"
  top: "inception_4b/pool_proj"
  param {
    lr_mult: 1
    decay_mult: 1
  }
  param {
    lr_mult: 2
    decay_mult: 0
  }
  convolution_param {
    num_output: 64
    kernel_size: 1
    weight_filler {
      type: "xavier"
      std: 0.1
    }
    bias_filler {
      type: "constant"
      value: 0.2
    }
  }
}
layer {
  name: "inception_4b/relu_pool_proj"
  type: "ReLU"
  bottom: "inception_4b/pool_proj"
  top: "inception_4b/pool_proj"
}
layer {
  name: "inception_4b/output"
  type: "Concat"
  bottom: "inception_4b/1x1"
  bottom: "inception_4b/3x3"
  bottom: "inception_4b/5x5"
  bottom: "inception_4b/pool_proj"
  top: "inception_4b/output"
}
layer {
  name: "inception_4c/1x1"
  type: "Convolution"
  bottom: "inception_4b/output"
  top: "inception_4c/1x1"
  param {
    lr_mult: 1
    decay_mult: 1
  }
  param {
    lr_mult: 2
    decay_mult: 0
  }
  convolution_param {
    num_output: 128
    kernel_size: 1
    weight_filler {
      type: "xavier"
      std: 0.03
    }
    bias_filler {
      type: "constant"
      value: 0.2
    }
  }
}
layer {
  name: "inception_4c/relu_1x1"
  type: "ReLU"
  bottom: "inception_4c/1x1"
  top: "inception_4c/1x1"
}
layer {
  name: "inception_4c/3x3_reduce"
  type: "Convolution"
  bottom: "inception_4b/output"
  top: "inception_4c/3x3_reduce"
  param {
    lr_mult: 1
    decay_mult: 1
  }
  param {
    lr_mult: 2
    decay_mult: 0
  }
  convolution_param {
    num_output: 128
    kernel_size: 1
    weight_filler {
      type: "xavier"
      std: 0.09
    }
    bias_filler {
      type: "constant"
      value: 0.2
    }
  }
}
layer {
  name: "inception_4c/relu_3x3_reduce"
  type: "ReLU"
  bottom: "inception_4c/3x3_reduce"
  top: "inception_4c/3x3_reduce"
}
layer {
  name: "inception_4c/3x3"
  type: "Convolution"
  bottom: "inception_4c/3x3_reduce"
  top: "inception_4c/3x3"
  param {
    lr_mult: 1
    decay_mult: 1
  }
  param {
    lr_mult: 2
    decay_mult: 0
  }
  convolution_param {
    num_output: 256
    pad: 1
    kernel_size: 3
    weight_filler {
      type: "xavier"
      std: 0.03
    }
    bias_filler {
      type: "constant"
      value: 0.2
    }
  }
}
layer {
  name: "inception_4c/relu_3x3"
  type: "ReLU"
  bottom: "inception_4c/3x3"
  top: "inception_4c/3x3"
}
layer {
  name: "inception_4c/5x5_reduce"
  type: "Convolution"
  bottom: "inception_4b/output"
  top: "inception_4c/5x5_reduce"
  param {
    lr_mult: 1
    decay_mult: 1
  }
  param {
    lr_mult: 2
    decay_mult: 0
  }
  convolution_param {
    num_output: 24
    kernel_size: 1
    weight_filler {
      type: "xavier"
      std: 0.2
    }
    bias_filler {
      type: "constant"
      value: 0.2
    }
  }
}
layer {
  name: "inception_4c/relu_5x5_reduce"
  type: "ReLU"
  bottom: "inception_4c/5x5_reduce"
  top: "inception_4c/5x5_reduce"
}
layer {
  name: "inception_4c/5x5"
  type: "Convolution"
  bottom: "inception_4c/5x5_reduce"
  top: "inception_4c/5x5"
  param {
    lr_mult: 1
    decay_mult: 1
  }
  param {
    lr_mult: 2
    decay_mult: 0
  }
  convolution_param {
    num_output: 64
    pad: 2
    kernel_size: 5
    weight_filler {
      type: "xavier"
      std: 0.03
    }
    bias_filler {
      type: "constant"
      value: 0.2
    }
  }
}
layer {
  name: "inception_4c/relu_5x5"
  type: "ReLU"
  bottom: "inception_4c/5x5"
  top: "inception_4c/5x5"
}
layer {
  name: "inception_4c/pool"
  type: "Pooling"
  bottom: "inception_4b/output"
  top: "inception_4c/pool"
  pooling_param {
    pool: MAX
    kernel_size: 3
    stride: 1
    pad: 1
  }
}
layer {
  name: "inception_4c/pool_proj"
  type: "Convolution"
  bottom: "inception_4c/pool"
  top: "inception_4c/pool_proj"
  param {
    lr_mult: 1
    decay_mult: 1
  }
  param {
    lr_mult: 2
    decay_mult: 0
  }
  convolution_param {
    num_output: 64
    kernel_size: 1
    weight_filler {
      type: "xavier"
      std: 0.1
    }
    bias_filler {
      type: "constant"
      value: 0.2
    }
  }
}
layer {
  name: "inception_4c/relu_pool_proj"
  type: "ReLU"
  bottom: "inception_4c/pool_proj"
  top: "inception_4c/pool_proj"
}
layer {
  name: "inception_4c/output"
  type: "Concat"
  bottom: "inception_4c/1x1"
  bottom: "inception_4c/3x3"
  bottom: "inception_4c/5x5"
  bottom: "inception_4c/pool_proj"
  top: "inception_4c/output"
}
layer {
  name: "inception_4d/1x1"
  type: "Convolution"
  bottom: "inception_4c/output"
  top: "inception_4d/1x1"
  param {
    lr_mult: 1
    decay_mult: 1
  }
  param {
    lr_mult: 2
    decay_mult: 0
  }
  convolution_param {
    num_output: 112
    kernel_size: 1
    weight_filler {
      type: "xavier"
      std: 0.03
    }
    bias_filler {
      type: "constant"
      value: 0.2
    }
  }
}
layer {
  name: "inception_4d/relu_1x1"
  type: "ReLU"
  bottom: "inception_4d/1x1"
  top: "inception_4d/1x1"
}
layer {
  name: "inception_4d/3x3_reduce"
  type: "Convolution"
  bottom: "inception_4c/output"
  top: "inception_4d/3x3_reduce"
  param {
    lr_mult: 1
    decay_mult: 1
  }
  param {
    lr_mult: 2
    decay_mult: 0
  }
  convolution_param {
    num_output: 144
    kernel_size: 1
    weight_filler {
      type: "xavier"
      std: 0.09
    }
    bias_filler {
      type: "constant"
      value: 0.2
    }
  }
}
layer {
  name: "inception_4d/relu_3x3_reduce"
  type: "ReLU"
  bottom: "inception_4d/3x3_reduce"
  top: "inception_4d/3x3_reduce"
}
layer {
  name: "inception_4d/3x3"
  type: "Convolution"
  bottom: "inception_4d/3x3_reduce"
  top: "inception_4d/3x3"
  param {
    lr_mult: 1
    decay_mult: 1
  }
  param {
    lr_mult: 2
    decay_mult: 0
  }
  convolution_param {
    num_output: 288
    pad: 1
    kernel_size: 3
    weight_filler {
      type: "xavier"
      std: 0.03
    }
    bias_filler {
      type: "constant"
      value: 0.2
    }
  }
}
layer {
  name: "inception_4d/relu_3x3"
  type: "ReLU"
  bottom: "inception_4d/3x3"
  top: "inception_4d/3x3"
}
layer {
  name: "inception_4d/5x5_reduce"
  type: "Convolution"
  bottom: "inception_4c/output"
  top: "inception_4d/5x5_reduce"
  param {
    lr_mult: 1
    decay_mult: 1
  }
  param {
    lr_mult: 2
    decay_mult: 0
  }
  convolution_param {
    num_output: 32
    kernel_size: 1
    weight_filler {
      type: "xavier"
      std: 0.2
    }
    bias_filler {
      type: "constant"
      value: 0.2
    }
  }
}
layer {
  name: "inception_4d/relu_5x5_reduce"
  type: "ReLU"
  bottom: "inception_4d/5x5_reduce"
  top: "inception_4d/5x5_reduce"
}
layer {
  name: "inception_4d/5x5"
  type: "Convolution"
  bottom: "inception_4d/5x5_reduce"
  top: "inception_4d/5x5"
  param {
    lr_mult: 1
    decay_mult: 1
  }
  param {
    lr_mult: 2
    decay_mult: 0
  }
  convolution_param {
    num_output: 64
    pad: 2
    kernel_size: 5
    weight_filler {
      type: "xavier"
      std: 0.03
    }
    bias_filler {
      type: "constant"
      value: 0.2
    }
  }
}
layer {
  name: "inception_4d/relu_5x5"
  type: "ReLU"
  bottom: "inception_4d/5x5"
  top: "inception_4d/5x5"
}
layer {
  name: "inception_4d/pool"
  type: "Pooling"
  bottom: "inception_4c/output"
  top: "inception_4d/pool"
  pooling_param {
    pool: MAX
    kernel_size: 3
    stride: 1
    pad: 1
  }
}
layer {
  name: "inception_4d/pool_proj"
  type: "Convolution"
  bottom: "inception_4d/pool"
  top: "inception_4d/pool_proj"
  param {
    lr_mult: 1
    decay_mult: 1
  }
  param {
    lr_mult: 2
    decay_mult: 0
  }
  convolution_param {
    num_output: 64
    kernel_size: 1
    weight_filler {
      type: "xavier"
      std: 0.1
    }
    bias_filler {
      type: "constant"
      value: 0.2
    }
  }
}
layer {
  name: "inception_4d/relu_pool_proj"
  type: "ReLU"
  bottom: "inception_4d/pool_proj"
  top: "inception_4d/pool_proj"
}
layer {
  name: "inception_4d/output"
  type: "Concat"
  bottom: "inception_4d/1x1"
  bottom: "inception_4d/3x3"
  bottom: "inception_4d/5x5"
  bottom: "inception_4d/pool_proj"
  top: "inception_4d/output"
}
layer {
  name: "inception_4e/1x1"
  type: "Convolution"
  bottom: "inception_4d/output"
  top: "inception_4e/1x1"
  param {
    lr_mult: 1
    decay_mult: 1
  }
  param {
    lr_mult: 2
    decay_mult: 0
  }
  convolution_param {
    num_output: 256
    kernel_size: 1
    weight_filler {
      type: "xavier"
      std: 0.03
    }
    bias_filler {
      type: "constant"
      value: 0.2
    }
  }
}
layer {
  name: "inception_4e/relu_1x1"
  type: "ReLU"
  bottom: "inception_4e/1x1"
  top: "inception_4e/1x1"
}
layer {
  name: "inception_4e/3x3_reduce"
  type: "Convolution"
  bottom: "inception_4d/output"
  top: "inception_4e/3x3_reduce"
  param {
    lr_mult: 1
    decay_mult: 1
  }
  param {
    lr_mult: 2
    decay_mult: 0
  }
  convolution_param {
    num_output: 160
    kernel_size: 1
    weight_filler {
      type: "xavier"
      std: 0.09
    }
    bias_filler {
      type: "constant"
      value: 0.2
    }
  }
}
layer {
  name: "inception_4e/relu_3x3_reduce"
  type: "ReLU"
  bottom: "inception_4e/3x3_reduce"
  top: "inception_4e/3x3_reduce"
}
layer {
  name: "inception_4e/3x3"
  type: "Convolution"
  bottom: "inception_4e/3x3_reduce"
  top: "inception_4e/3x3"
  param {
    lr_mult: 1
    decay_mult: 1
  }
  param {
    lr_mult: 2
    decay_mult: 0
  }
  convolution_param {
    num_output: 320
    pad: 1
    kernel_size: 3
    weight_filler {
      type: "xavier"
      std: 0.03
    }
    bias_filler {
      type: "constant"
      value: 0.2
    }
  }
}
layer {
  name: "inception_4e/relu_3x3"
  type: "ReLU"
  bottom: "inception_4e/3x3"
  top: "inception_4e/3x3"
}
layer {
  name: "inception_4e/5x5_reduce"
  type: "Convolution"
  bottom: "inception_4d/output"
  top: "inception_4e/5x5_reduce"
  param {
    lr_mult: 1
    decay_mult: 1
  }
  param {
    lr_mult: 2
    decay_mult: 0
  }
  convolution_param {
    num_output: 32
    kernel_size: 1
    weight_filler {
      type: "xavier"
      std: 0.2
    }
    bias_filler {
      type: "constant"
      value: 0.2
    }
  }
}
layer {
  name: "inception_4e/relu_5x5_reduce"
  type: "ReLU"
  bottom: "inception_4e/5x5_reduce"
  top: "inception_4e/5x5_reduce"
}
layer {
  name: "inception_4e/5x5"
  type: "Convolution"
  bottom: "inception_4e/5x5_reduce"
  top: "inception_4e/5x5"
  param {
    lr_mult: 1
    decay_mult: 1
  }
  param {
    lr_mult: 2
    decay_mult: 0
  }
  convolution_param {
    num_output: 128
    pad: 2
    kernel_size: 5
    weight_filler {
      type: "xavier"
      std: 0.03
    }
    bias_filler {
      type: "constant"
      value: 0.2
    }
  }
}
layer {
  name: "inception_4e/relu_5x5"
  type: "ReLU"
  bottom: "inception_4e/5x5"
  top: "inception_4e/5x5"
}
layer {
  name: "inception_4e/pool"
  type: "Pooling"
  bottom: "inception_4d/output"
  top: "inception_4e/pool"
  pooling_param {
    pool: MAX
    kernel_size: 3
    stride: 1
    pad: 1
  }
}
layer {
  name: "inception_4e/pool_proj"
  type: "Convolution"
  bottom: "inception_4e/pool"
  top: "inception_4e/pool_proj"
  param {
    lr_mult: 1
    decay_mult: 1
  }
  param {
    lr_mult: 2
    decay_mult: 0
  }
  convolution_param {
    num_output: 128
    kernel_size: 1
    weight_filler {
      type: "xavier"
      std: 0.1
    }
    bias_filler {
      type: "constant"
      value: 0.2
    }
  }
}
layer {
  name: "inception_4e/relu_pool_proj"
  type: "ReLU"
  bottom: "inception_4e/pool_proj"
  top: "inception_4e/pool_proj"
}
layer {
  name: "inception_4e/output"
  type: "Concat"
  bottom: "inception_4e/1x1"
  bottom: "inception_4e/3x3"
  bottom: "inception_4e/5x5"
  bottom: "inception_4e/pool_proj"
  top: "inception_4e/output"
}
layer {
  name: "pool4/3x3_s2"
  type: "Pooling"
  bottom: "inception_4e/output"
  top: "pool4/3x3_s2"
  pooling_param {
    pool: MAX
    kernel_size: 3
    stride: 2
  }
}
layer {
  name: "inception_5a/1x1"
  type: "Convolution"
  bottom: "pool4/3x3_s2"
  top: "inception_5a/1x1"
  param {
    lr_mult: 1
    decay_mult: 1
  }
  param {
    lr_mult: 2
    decay_mult: 0
  }
  convolution_param {
    num_output: 256
    kernel_size: 1
    weight_filler {
      type: "xavier"
      std: 0.03
    }
    bias_filler {
      type: "constant"
      value: 0.2
    }
  }
}
layer {
  name: "inception_5a/relu_1x1"
  type: "ReLU"
  bottom: "inception_5a/1x1"
  top: "inception_5a/1x1"
}
layer {
  name: "inception_5a/3x3_reduce"
  type: "Convolution"
  bottom: "pool4/3x3_s2"
  top: "inception_5a/3x3_reduce"
  param {
    lr_mult: 1
    decay_mult: 1
  }
  param {
    lr_mult: 2
    decay_mult: 0
  }
  convolution_param {
    num_output: 160
    kernel_size: 1
    weight_filler {
      type: "xavier"
      std: 0.09
    }
    bias_filler {
      type: "constant"
      value: 0.2
    }
  }
}
layer {
  name: "inception_5a/relu_3x3_reduce"
  type: "ReLU"
  bottom: "inception_5a/3x3_reduce"
  top: "inception_5a/3x3_reduce"
}
layer {
  name: "inception_5a/3x3"
  type: "Convolution"
  bottom: "inception_5a/3x3_reduce"
  top: "inception_5a/3x3"
  param {
    lr_mult: 1
    decay_mult: 1
  }
  param {
    lr_mult: 2
    decay_mult: 0
  }
  convolution_param {
    num_output: 320
    pad: 1
    kernel_size: 3
    weight_filler {
      type: "xavier"
      std: 0.03
    }
    bias_filler {
      type: "constant"
      value: 0.2
    }
  }
}
layer {
  name: "inception_5a/relu_3x3"
  type: "ReLU"
  bottom: "inception_5a/3x3"
  top: "inception_5a/3x3"
}
layer {
  name: "inception_5a/5x5_reduce"
  type: "Convolution"
  bottom: "pool4/3x3_s2"
  top: "inception_5a/5x5_reduce"
  param {
    lr_mult: 1
    decay_mult: 1
  }
  param {
    lr_mult: 2
    decay_mult: 0
  }
  convolution_param {
    num_output: 32
    kernel_size: 1
    weight_filler {
      type: "xavier"
      std: 0.2
    }
    bias_filler {
      type: "constant"
      value: 0.2
    }
I0714 21:57:28.845635 16221 layer_factory.hpp:77] Creating layer data
I0714 21:57:28.845669 16221 net.cpp:91] Creating Layer data
I0714 21:57:28.845681 16221 net.cpp:399] data -> data
I0714 21:57:28.851228 16217 net.cpp:49] Initializing net from parameters: 
name: "GoogleNet"
state {
  phase: TEST
}
layer {
  name: "data"
  type: "Input"
  top: "data"
  input_param {
    shape {
      dim: 10
      dim: 3
      dim: 224
      dim: 224
    }
  }
}
layer {
  name: "conv1/7x7_s2"
  type: "Convolution"
  bottom: "data"
  top: "conv1/7x7_s2"
  param {
    lr_mult: 1
    decay_mult: 1
  }
  param {
    lr_mult: 2
    decay_mult: 0
  }
  convolution_param {
    num_output: 64
    pad: 3
    kernel_size: 7
    stride: 2
    weight_filler {
      type: "xavier"
      std: 0.1
    }
    bias_filler {
      type: "constant"
      value: 0.2
    }
  }
}
layer {
  name: "conv1/relu_7x7"
  type: "ReLU"
  bottom: "conv1/7x7_s2"
  top: "conv1/7x7_s2"
}
layer {
  name: "pool1/3x3_s2"
  type: "Pooling"
  bottom: "conv1/7x7_s2"
  top: "pool1/3x3_s2"
  pooling_param {
    pool: MAX
    kernel_size: 3
    stride: 2
  }
}
layer {
  name: "pool1/norm1"
  type: "LRN"
  bottom: "pool1/3x3_s2"
  top: "pool1/norm1"
  lrn_param {
    local_size: 5
    alpha: 0.0001
    beta: 0.75
  }
}
layer {
  name: "conv2/3x3_reduce"
  type: "Convolution"
  bottom: "pool1/norm1"
  top: "conv2/3x3_reduce"
  param {
    lr_mult: 1
    decay_mult: 1
  }
  param {
    lr_mult: 2
    decay_mult: 0
  }
  convolution_param {
    num_output: 64
    kernel_size: 1
    weight_filler {
      type: "xavier"
      std: 0.1
    }
    bias_filler {
      type: "constant"
      value: 0.2
    }
  }
}
layer {
  name: "conv2/relu_3x3_reduce"
  type: "ReLU"
  bottom: "conv2/3x3_reduce"
  top: "conv2/3x3_reduce"
}
layer {
  name: "conv2/3x3"
  type: "Convolution"
  bottom: "conv2/3x3_reduce"
  top: "conv2/3x3"
  param {
    lr_mult: 1
    decay_mult: 1
  }
  param {
    lr_mult: 2
    decay_mult: 0
  }
  convolution_param {
    num_output: 192
    pad: 1
    kernel_size: 3
    weight_filler {
      type: "xavier"
      std: 0.03
    }
    bias_filler {
      type: "constant"
      value: 0.2
    }
  }
}
layer {
  name: "conv2/relu_3x3"
  type: "ReLU"
  bottom: "conv2/3x3"
  top: "conv2/3x3"
}
layer {
  name: "conv2/norm2"
  type: "LRN"
  bottom: "conv2/3x3"
  top: "conv2/norm2"
  lrn_param {
    local_size: 5
    alpha: 0.0001
    beta: 0.75
  }
}
layer {
  name: "pool2/3x3_s2"
  type: "Pooling"
  bottom: "conv2/norm2"
  top: "pool2/3x3_s2"
  pooling_param {
    pool: MAX
    kernel_size: 3
    stride: 2
  }
}
layer {
  name: "inception_3a/1x1"
  type: "Convolution"
  bottom: "pool2/3x3_s2"
  top: "inception_3a/1x1"
  param {
    lr_mult: 1
    decay_mult: 1
  }
  param {
    lr_mult: 2
    decay_mult: 0
  }
  convolution_param {
    num_output: 64
    kernel_size: 1
    weight_filler {
      type: "xavier"
      std: 0.03
    }
    bias_filler {
      type: "constant"
      value: 0.2
    }
  }
}
layer {
  name: "inception_3a/relu_1x1"
  type: "ReLU"
  bottom: "inception_3a/1x1"
  top: "inception_3a/1x1"
}
layer {
  name: "inception_3a/3x3_reduce"
  type: "Convolution"
  bottom: "pool2/3x3_s2"
  top: "inception_3a/3x3_reduce"
  param {
    lr_mult: 1
    decay_mult: 1
  }
  param {
    lr_mult: 2
    decay_mult: 0
  }
  convolution_param {
    num_output: 96
    kernel_size: 1
    weight_filler {
      type: "xavier"
      std: 0.09
    }
    bias_filler {
      type: "constant"
      value: 0.2
    }
  }
}
layer {
  name: "inception_3a/relu_3x3_reduce"
  type: "ReLU"
  bottom: "inception_3a/3x3_reduce"
  top: "inception_3a/3x3_reduce"
}
layer {
  name: "inception_3a/3x3"
  type: "Convolution"
  bottom: "inception_3a/3x3_reduce"
  top: "inception_3a/3x3"
  param {
    lr_mult: 1
    decay_mult: 1
  }
  param {
    lr_mult: 2
    decay_mult: 0
  }
  convolution_param {
    num_output: 128
    pad: 1
    kernel_size: 3
    weight_filler {
      type: "xavier"
      std: 0.03
    }
    bias_filler {
      type: "constant"
      value: 0.2
    }
  }
}
layer {
  name: "inception_3a/relu_3x3"
  type: "ReLU"
  bottom: "inception_3a/3x3"
  top: "inception_3a/3x3"
}
layer {
  name: "inception_3a/5x5_reduce"
  type: "Convolution"
  bottom: "pool2/3x3_s2"
  top: "inception_3a/5x5_reduce"
  param {
    lr_mult: 1
    decay_mult: 1
  }
  param {
    lr_mult: 2
    decay_mult: 0
  }
  convolution_param {
    num_output: 16
    kernel_size: 1
    weight_filler {
      type: "xavier"
      std: 0.2
    }
    bias_filler {
      type: "constant"
      value: 0.2
    }
  }
}
layer {
  name: "inception_3a/relu_5x5_reduce"
  type: "ReLU"
  bottom: "inception_3a/5x5_reduce"
  top: "inception_3a/5x5_reduce"
}
layer {
  name: "inception_3a/5x5"
  type: "Convolution"
  bottom: "inception_3a/5x5_reduce"
  top: "inception_3a/5x5"
  param {
    lr_mult: 1
    decay_mult: 1
  }
  param {
    lr_mult: 2
    decay_mult: 0
  }
  convolution_param {
    num_output: 32
    pad: 2
    kernel_size: 5
    weight_filler {
      type: "xavier"
      std: 0.03
    }
    bias_filler {
      type: "constant"
      value: 0.2
    }
  }
}
layer {
  name: "inception_3a/relu_5x5"
  type: "ReLU"
  bottom: "inception_3a/5x5"
  top: "inception_3a/5x5"
}
layer {
  name: "inception_3a/pool"
  type: "Pooling"
  bottom: "pool2/3x3_s2"
  top: "inception_3a/pool"
  pooling_param {
    pool: MAX
    kernel_size: 3
    stride: 1
    pad: 1
  }
}
layer {
  name: "inception_3a/pool_proj"
  type: "Convolution"
  bottom: "inception_3a/pool"
  top: "inception_3a/pool_proj"
  param {
    lr_mult: 1
    decay_mult: 1
  }
  param {
    lr_mult: 2
    decay_mult: 0
  }
  convolution_param {
    num_output: 32
    kernel_size: 1
    weight_filler {
      type: "xavier"
      std: 0.1
    }
    bias_filler {
      type: "constant"
      value: 0.2
    }
  }
}
layer {
  name: "inception_3a/relu_pool_proj"
  type: "ReLU"
  bottom: "inception_3a/pool_proj"
  top: "inception_3a/pool_proj"
}
layer {
  name: "inception_3a/output"
  type: "Concat"
  bottom: "inception_3a/1x1"
  bottom: "inception_3a/3x3"
  bottom: "inception_3a/5x5"
  bottom: "inception_3a/pool_proj"
  top: "inception_3a/output"
}
layer {
  name: "inception_3b/1x1"
  type: "Convolution"
  bottom: "inception_3a/output"
  top: "inception_3b/1x1"
  param {
    lr_mult: 1
    decay_mult: 1
  }
  param {
    lr_mult: 2
    decay_mult: 0
  }
  convolution_param {
    num_output: 128
    kernel_size: 1
    weight_filler {
      type: "xavier"
      std: 0.03
    }
    bias_filler {
      type: "constant"
      value: 0.2
    }
  }
}
layer {
  name: "inception_3b/relu_1x1"
  type: "ReLU"
  bottom: "inception_3b/1x1"
  top: "inception_3b/1x1"
}
layer {
  name: "inception_3b/3x3_reduce"
  type: "Convolution"
  bottom: "inception_3a/output"
  top: "inception_3b/3x3_reduce"
  param {
    lr_mult: 1
    decay_mult: 1
  }
  param {
    lr_mult: 2
    decay_mult: 0
  }
  convolution_param {
    num_output: 128
    kernel_size: 1
    weight_filler {
      type: "xavier"
      std: 0.09
    }
    bias_filler {
      type: "constant"
      value: 0.2
    }
  }
}
layer {
  name: "inception_3b/relu_3x3_reduce"
  type: "ReLU"
  bottom: "inception_3b/3x3_reduce"
  top: "inception_3b/3x3_reduce"
}
layer {
  name: "inception_3b/3x3"
  type: "Convolution"
  bottom: "inception_3b/3x3_reduce"
  top: "inception_3b/3x3"
  param {
    lr_mult: 1
    decay_mult: 1
  }
  param {
    lr_mult: 2
    decay_mult: 0
  }
  convolution_param {
    num_output: 192
    pad: 1
    kernel_size: 3
    weight_filler {
      type: "xavier"
      std: 0.03
    }
    bias_filler {
      type: "constant"
      value: 0.2
    }
  }
}
layer {
  name: "inception_3b/relu_3x3"
  type: "ReLU"
  bottom: "inception_3b/3x3"
  top: "inception_3b/3x3"
}
layer {
  name: "inception_3b/5x5_reduce"
  type: "Convolution"
  bottom: "inception_3a/output"
  top: "inception_3b/5x5_reduce"
  param {
    lr_mult: 1
    decay_mult: 1
  }
  param {
    lr_mult: 2
    decay_mult: 0
  }
  convolution_param {
    num_output: 32
    kernel_size: 1
    weight_filler {
      type: "xavier"
      std: 0.2
    }
    bias_filler {
      type: "constant"
      value: 0.2
    }
  }
}
layer {
  name: "inception_3b/relu_5x5_reduce"
  type: "ReLU"
  bottom: "inception_3b/5x5_reduce"
  top: "inception_3b/5x5_reduce"
}
layer {
  name: "inception_3b/5x5"
  type: "Convolution"
  bottom: "inception_3b/5x5_reduce"
  top: "inception_3b/5x5"
  param {
    lr_mult: 1
    decay_mult: 1
  }
  param {
    lr_mult: 2
    decay_mult: 0
  }
  convolution_param {
    num_output: 96
    pad: 2
    kernel_size: 5
    weight_filler {
      type: "xavier"
      std: 0.03
    }
    bias_filler {
      type: "constant"
      value: 0.2
    }
  }
}
layer {
  name: "inception_3b/relu_5x5"
  type: "ReLU"
  bottom: "inception_3b/5x5"
  top: "inception_3b/5x5"
}
layer {
  name: "inception_3b/pool"
  type: "Pooling"
  bottom: "inception_3a/output"
  top: "inception_3b/pool"
  pooling_param {
    pool: MAX
    kernel_size: 3
    stride: 1
    pad: 1
  }
}
layer {
  name: "inception_3b/pool_proj"
  type: "Convolution"
  bottom: "inception_3b/pool"
  top: "inception_3b/pool_proj"
  param {
    lr_mult: 1
    decay_mult: 1
  }
  param {
    lr_mult: 2
    decay_mult: 0
  }
  convolution_param {
    num_output: 64
    kernel_size: 1
    weight_filler {
      type: "xavier"
      std: 0.1
    }
    bias_filler {
      type: "constant"
      value: 0.2
    }
  }
}
layer {
  name: "inception_3b/relu_pool_proj"
  type: "ReLU"
  bottom: "inception_3b/pool_proj"
  top: "inception_3b/pool_proj"
}
layer {
  name: "inception_3b/output"
  type: "Concat"
  bottom: "inception_3b/1x1"
  bottom: "inception_3b/3x3"
  bottom: "inception_3b/5x5"
  bottom: "inception_3b/pool_proj"
  top: "inception_3b/output"
}
layer {
  name: "pool3/3x3_s2"
  type: "Pooling"
  bottom: "inception_3b/output"
  top: "pool3/3x3_s2"
  pooling_param {
    pool: MAX
    kernel_size: 3
    stride: 2
  }
}
layer {
  name: "inception_4a/1x1"
  type: "Convolution"
  bottom: "pool3/3x3_s2"
  top: "inception_4a/1x1"
  param {
    lr_mult: 1
    decay_mult: 1
  }
  param {
    lr_mult: 2
    decay_mult: 0
  }
  convolution_param {
    num_output: 192
    kernel_size: 1
    weight_filler {
      type: "xavier"
      std: 0.03
    }
    bias_filler {
      type: "constant"
      value: 0.2
    }
  }
}
layer {
  name: "inception_4a/relu_1x1"
  type: "ReLU"
  bottom: "inception_4a/1x1"
  top: "inception_4a/1x1"
}
layer {
  name: "inception_4a/3x3_reduce"
  type: "Convolution"
  bottom: "pool3/3x3_s2"
  top: "inception_4a/3x3_reduce"
  param {
    lr_mult: 1
    decay_mult: 1
  }
  param {
    lr_mult: 2
    decay_mult: 0
  }
  convolution_param {
    num_output: 96
    kernel_size: 1
    weight_filler {
      type: "xavier"
      std: 0.09
    }
    bias_filler {
      type: "constant"
      value: 0.2
    }
  }
}
layer {
  name: "inception_4a/relu_3x3_reduce"
  type: "ReLU"
  bottom: "inception_4a/3x3_reduce"
  top: "inception_4a/3x3_reduce"
}
layer {
  name: "inception_4a/3x3"
  type: "Convolution"
  bottom: "inception_4a/3x3_reduce"
  top: "inception_4a/3x3"
  param {
    lr_mult: 1
    decay_mult: 1
  }
  param {
    lr_mult: 2
    decay_mult: 0
  }
  convolution_param {
    num_output: 208
    pad: 1
    kernel_size: 3
    weight_filler {
      type: "xavier"
      std: 0.03
    }
    bias_filler {
      type: "constant"
      value: 0.2
    }
  }
}
layer {
  name: "inception_4a/relu_3x3"
  type: "ReLU"
  bottom: "inception_4a/3x3"
  top: "inception_4a/3x3"
}
layer {
  name: "inception_4a/5x5_reduce"
  type: "Convolution"
  bottom: "pool3/3x3_s2"
  top: "inception_4a/5x5_reduce"
  param {
    lr_mult: 1
    decay_mult: 1
  }
  param {
    lr_mult: 2
    decay_mult: 0
  }
  convolution_param {
    num_output: 16
    kernel_size: 1
    weight_filler {
      type: "xavier"
      std: 0.2
    }
    bias_filler {
      type: "constant"
      value: 0.2
    }
  }
}
layer {
  name: "inception_4a/relu_5x5_reduce"
  type: "ReLU"
  bottom: "inception_4a/5x5_reduce"
  top: "inception_4a/5x5_reduce"
}
layer {
  name: "inception_4a/5x5"
  type: "Convolution"
  bottom: "inception_4a/5x5_reduce"
  top: "inception_4a/5x5"
  param {
    lr_mult: 1
    decay_mult: 1
  }
  param {
    lr_mult: 2
    decay_mult: 0
  }
  convolution_param {
    num_output: 48
    pad: 2
    kernel_size: 5
    weight_filler {
      type: "xavier"
      std: 0.03
    }
    bias_filler {
      type: "constant"
      value: 0.2
    }
  }
}
layer {
  name: "inception_4a/relu_5x5"
  type: "ReLU"
  bottom: "inception_4a/5x5"
  top: "inception_4a/5x5"
}
layer {
  name: "inception_4a/pool"
  type: "Pooling"
  bottom: "pool3/3x3_s2"
  top: "inception_4a/pool"
  pooling_param {
    pool: MAX
    kernel_size: 3
    stride: 1
    pad: 1
  }
}
layer {
  name: "inception_4a/pool_proj"
  type: "Convolution"
  bottom: "inception_4a/pool"
  top: "inception_4a/pool_proj"
  param {
    lr_mult: 1
    decay_mult: 1
  }
  param {
    lr_mult: 2
    decay_mult: 0
  }
  convolution_param {
    num_output: 64
    kernel_size: 1
    weight_filler {
      type: "xavier"
      std: 0.1
    }
    bias_filler {
      type: "constant"
      value: 0.2
    }
  }
}
layer {
  name: "inception_4a/relu_pool_proj"
  type: "ReLU"
  bottom: "inception_4a/pool_proj"
  top: "inception_4a/pool_proj"
}
layer {
  name: "inception_4a/output"
  type: "Concat"
  bottom: "inception_4a/1x1"
  bottom: "inception_4a/3x3"
  bottom: "inception_4a/5x5"
  bottom: "inception_4a/pool_proj"
  top: "inception_4a/output"
}
layer {
  name: "inception_4b/1x1"
  type: "Convolution"
  bottom: "inception_4a/output"
  top: "inception_4b/1x1"
  param {
    lr_mult: 1
    decay_mult: 1
  }
  param {
    lr_mult: 2
    decay_mult: 0
  }
  convolution_param {
    num_output: 160
    kernel_size: 1
    weight_filler {
      type: "xavier"
      std: 0.03
    }
    bias_filler {
      type: "constant"
      value: 0.2
    }
  }
}
layer {
  name: "inception_4b/relu_1x1"
  type: "ReLU"
  bottom: "inception_4b/1x1"
  top: "inception_4b/1x1"
}
layer {
  name: "inception_4b/3x3_reduce"
  type: "Convolution"
  bottom: "inception_4a/output"
  top: "inception_4b/3x3_reduce"
  param {
    lr_mult: 1
    decay_mult: 1
  }
  param {
    lr_mult: 2
    decay_mult: 0
  }
  convolution_param {
    num_output: 112
    kernel_size: 1
    weight_filler {
      type: "xavier"
      std: 0.09
    }
    bias_filler {
      type: "constant"
      value: 0.2
    }
  }
}
layer {
  name: "inception_4b/relu_3x3_reduce"
  type: "ReLU"
  bottom: "inception_4b/3x3_reduce"
  top: "inception_4b/3x3_reduce"
}
layer {
  name: "inception_4b/3x3"
  type: "Convolution"
  bottom: "inception_4b/3x3_reduce"
  top: "inception_4b/3x3"
  param {
    lr_mult: 1
    decay_mult: 1
  }
  param {
    lr_mult: 2
    decay_mult: 0
  }
  convolution_param {
    num_output: 224
    pad: 1
    kernel_size: 3
    weight_filler {
      type: "xavier"
      std: 0.03
    }
    bias_filler {
      type: "constant"
      value: 0.2
    }
  }
}
layer {
  name: "inception_4b/relu_3x3"
  type: "ReLU"
  bottom: "inception_4b/3x3"
  top: "inception_4b/3x3"
}
layer {
  name: "inception_4b/5x5_reduce"
  type: "Convolution"
  bottom: "inception_4a/output"
  top: "inception_4b/5x5_reduce"
  param {
    lr_mult: 1
    decay_mult: 1
  }
  param {
    lr_mult: 2
    decay_mult: 0
  }
  convolution_param {
    num_output: 24
    kernel_size: 1
    weight_filler {
      type: "xavier"
      std: 0.2
    }
    bias_filler {
      type: "constant"
      value: 0.2
    }
  }
}
layer {
  name: "inception_4b/relu_5x5_reduce"
  type: "ReLU"
  bottom: "inception_4b/5x5_reduce"
  top: "inception_4b/5x5_reduce"
}
layer {
  name: "inception_4b/5x5"
  type: "Convolution"
  bottom: "inception_4b/5x5_reduce"
  top: "inception_4b/5x5"
  param {
    lr_mult: 1
    decay_mult: 1
  }
  param {
    lr_mult: 2
    decay_mult: 0
  }
  convolution_param {
    num_output: 64
    pad: 2
    kernel_size: 5
    weight_filler {
      type: "xavier"
      std: 0.03
    }
    bias_filler {
      type: "constant"
      value: 0.2
    }
  }
}
layer {
  name: "inception_4b/relu_5x5"
  type: "ReLU"
  bottom: "inception_4b/5x5"
  top: "inception_4b/5x5"
}
layer {
  name: "inception_4b/pool"
  type: "Pooling"
  bottom: "inception_4a/output"
  top: "inception_4b/pool"
  pooling_param {
    pool: MAX
    kernel_size: 3
    stride: 1
    pad: 1
  }
}
layer {
  name: "inception_4b/pool_proj"
  type: "Convolution"
  bottom: "inception_4b/pool"
  top: "inception_4b/pool_proj"
  param {
    lr_mult: 1
    decay_mult: 1
  }
  param {
    lr_mult: 2
    decay_mult: 0
  }
  convolution_param {
    num_output: 64
    kernel_size: 1
    weight_filler {
      type: "xavier"
      std: 0.1
    }
    bias_filler {
      type: "constant"
      value: 0.2
    }
  }
}
layer {
  name: "inception_4b/relu_pool_proj"
  type: "ReLU"
  bottom: "inception_4b/pool_proj"
  top: "inception_4b/pool_proj"
}
layer {
  name: "inception_4b/output"
  type: "Concat"
  bottom: "inception_4b/1x1"
  bottom: "inception_4b/3x3"
  bottom: "inception_4b/5x5"
  bottom: "inception_4b/pool_proj"
  top: "inception_4b/output"
}
layer {
  name: "inception_4c/1x1"
  type: "Convolution"
  bottom: "inception_4b/output"
  top: "inception_4c/1x1"
  param {
    lr_mult: 1
    decay_mult: 1
  }
  param {
    lr_mult: 2
    decay_mult: 0
  }
  convolution_param {
    num_output: 128
    kernel_size: 1
    weight_filler {
      type: "xavier"
      std: 0.03
    }
    bias_filler {
      type: "constant"
      value: 0.2
    }
  }
}
layer {
  name: "inception_4c/relu_1x1"
  type: "ReLU"
  bottom: "inception_4c/1x1"
  top: "inception_4c/1x1"
}
layer {
  name: "inception_4c/3x3_reduce"
  type: "Convolution"
  bottom: "inception_4b/output"
  top: "inception_4c/3x3_reduce"
  param {
    lr_mult: 1
    decay_mult: 1
  }
  param {
    lr_mult: 2
    decay_mult: 0
  }
  convolution_param {
    num_output: 128
    kernel_size: 1
    weight_filler {
      type: "xavier"
      std: 0.09
    }
    bias_filler {
      type: "constant"
      value: 0.2
    }
  }
}
layer {
  name: "inception_4c/relu_3x3_reduce"
  type: "ReLU"
  bottom: "inception_4c/3x3_reduce"
  top: "inception_4c/3x3_reduce"
}
layer {
  name: "inception_4c/3x3"
  type: "Convolution"
  bottom: "inception_4c/3x3_reduce"
  top: "inception_4c/3x3"
  param {
    lr_mult: 1
    decay_mult: 1
  }
  param {
    lr_mult: 2
    decay_mult: 0
  }
  convolution_param {
    num_output: 256
    pad: 1
    kernel_size: 3
    weight_filler {
      type: "xavier"
      std: 0.03
    }
    bias_filler {
      type: "constant"
      value: 0.2
    }
  }
}
layer {
  name: "inception_4c/relu_3x3"
  type: "ReLU"
  bottom: "inception_4c/3x3"
  top: "inception_4c/3x3"
}
layer {
  name: "inception_4c/5x5_reduce"
  type: "Convolution"
  bottom: "inception_4b/output"
  top: "inception_4c/5x5_reduce"
  param {
    lr_mult: 1
    decay_mult: 1
  }
  param {
    lr_mult: 2
    decay_mult: 0
  }
  convolution_param {
    num_output: 24
    kernel_size: 1
    weight_filler {
      type: "xavier"
      std: 0.2
    }
    bias_filler {
      type: "constant"
      value: 0.2
    }
  }
}
layer {
  name: "inception_4c/relu_5x5_reduce"
  type: "ReLU"
  bottom: "inception_4c/5x5_reduce"
  top: "inception_4c/5x5_reduce"
}
layer {
  name: "inception_4c/5x5"
  type: "Convolution"
  bottom: "inception_4c/5x5_reduce"
  top: "inception_4c/5x5"
  param {
    lr_mult: 1
    decay_mult: 1
  }
  param {
    lr_mult: 2
    decay_mult: 0
  }
  convolution_param {
    num_output: 64
    pad: 2
    kernel_size: 5
    weight_filler {
      type: "xavier"
      std: 0.03
    }
    bias_filler {
      type: "constant"
      value: 0.2
    }
  }
}
layer {
  name: "inception_4c/relu_5x5"
  type: "ReLU"
  bottom: "inception_4c/5x5"
  top: "inception_4c/5x5"
}
layer {
  name: "inception_4c/pool"
  type: "Pooling"
  bottom: "inception_4b/output"
  top: "inception_4c/pool"
  pooling_param {
    pool: MAX
    kernel_size: 3
    stride: 1
    pad: 1
  }
}
layer {
  name: "inception_4c/pool_proj"
  type: "Convolution"
  bottom: "inception_4c/pool"
  top: "inception_4c/pool_proj"
  param {
    lr_mult: 1
    decay_mult: 1
  }
  param {
    lr_mult: 2
    decay_mult: 0
  }
  convolution_param {
    num_output: 64
    kernel_size: 1
    weight_filler {
      type: "xavier"
      std: 0.1
    }
    bias_filler {
      type: "constant"
      value: 0.2
    }
  }
}
layer {
  name: "inception_4c/relu_pool_proj"
  type: "ReLU"
  bottom: "inception_4c/pool_proj"
  top: "inception_4c/pool_proj"
}
layer {
  name: "inception_4c/output"
  type: "Concat"
  bottom: "inception_4c/1x1"
  bottom: "inception_4c/3x3"
  bottom: "inception_4c/5x5"
  bottom: "inception_4c/pool_proj"
  top: "inception_4c/output"
}
layer {
  name: "inception_4d/1x1"
  type: "Convolution"
  bottom: "inception_4c/output"
  top: "inception_4d/1x1"
  param {
    lr_mult: 1
    decay_mult: 1
  }
  param {
    lr_mult: 2
    decay_mult: 0
  }
  convolution_param {
    num_output: 112
    kernel_size: 1
    weight_filler {
      type: "xavier"
      std: 0.03
    }
    bias_filler {
      type: "constant"
      value: 0.2
    }
  }
}
layer {
  name: "inception_4d/relu_1x1"
  type: "ReLU"
  bottom: "inception_4d/1x1"
  top: "inception_4d/1x1"
}
layer {
  name: "inception_4d/3x3_reduce"
  type: "Convolution"
  bottom: "inception_4c/output"
  top: "inception_4d/3x3_reduce"
  param {
    lr_mult: 1
    decay_mult: 1
  }
  param {
    lr_mult: 2
    decay_mult: 0
  }
  convolution_param {
    num_output: 144
    kernel_size: 1
    weight_filler {
      type: "xavier"
      std: 0.09
    }
    bias_filler {
      type: "constant"
      value: 0.2
    }
  }
}
layer {
  name: "inception_4d/relu_3x3_reduce"
  type: "ReLU"
  bottom: "inception_4d/3x3_reduce"
  top: "inception_4d/3x3_reduce"
}
layer {
  name: "inception_4d/3x3"
  type: "Convolution"
  bottom: "inception_4d/3x3_reduce"
  top: "inception_4d/3x3"
  param {
    lr_mult: 1
    decay_mult: 1
  }
  param {
    lr_mult: 2
    decay_mult: 0
  }
  convolution_param {
    num_output: 288
    pad: 1
    kernel_size: 3
    weight_filler {
      type: "xavier"
      std: 0.03
    }
    bias_filler {
      type: "constant"
      value: 0.2
    }
  }
}
layer {
  name: "inception_4d/relu_3x3"
  type: "ReLU"
  bottom: "inception_4d/3x3"
  top: "inception_4d/3x3"
}
layer {
  name: "inception_4d/5x5_reduce"
  type: "Convolution"
  bottom: "inception_4c/output"
  top: "inception_4d/5x5_reduce"
  param {
    lr_mult: 1
    decay_mult: 1
  }
  param {
    lr_mult: 2
    decay_mult: 0
  }
  convolution_param {
    num_output: 32
    kernel_size: 1
    weight_filler {
      type: "xavier"
      std: 0.2
    }
    bias_filler {
      type: "constant"
      value: 0.2
    }
  }
}
layer {
  name: "inception_4d/relu_5x5_reduce"
  type: "ReLU"
  bottom: "inception_4d/5x5_reduce"
  top: "inception_4d/5x5_reduce"
}
layer {
  name: "inception_4d/5x5"
  type: "Convolution"
  bottom: "inception_4d/5x5_reduce"
  top: "inception_4d/5x5"
  param {
    lr_mult: 1
    decay_mult: 1
  }
  param {
    lr_mult: 2
    decay_mult: 0
  }
  convolution_param {
    num_output: 64
    pad: 2
    kernel_size: 5
    weight_filler {
      type: "xavier"
      std: 0.03
    }
    bias_filler {
      type: "constant"
      value: 0.2
    }
  }
}
layer {
  name: "inception_4d/relu_5x5"
  type: "ReLU"
  bottom: "inception_4d/5x5"
  top: "inception_4d/5x5"
}
layer {
  name: "inception_4d/pool"
  type: "Pooling"
  bottom: "inception_4c/output"
  top: "inception_4d/pool"
  pooling_param {
    pool: MAX
    kernel_size: 3
    stride: 1
    pad: 1
  }
}
layer {
  name: "inception_4d/pool_proj"
  type: "Convolution"
  bottom: "inception_4d/pool"
  top: "inception_4d/pool_proj"
  param {
    lr_mult: 1
    decay_mult: 1
  }
  param {
    lr_mult: 2
    decay_mult: 0
  }
  convolution_param {
    num_output: 64
    kernel_size: 1
    weight_filler {
      type: "xavier"
      std: 0.1
    }
    bias_filler {
      type: "constant"
      value: 0.2
    }
  }
}
layer {
  name: "inception_4d/relu_pool_proj"
  type: "ReLU"
  bottom: "inception_4d/pool_proj"
  top: "inception_4d/pool_proj"
}
layer {
  name: "inception_4d/output"
  type: "Concat"
  bottom: "inception_4d/1x1"
  bottom: "inception_4d/3x3"
  bottom: "inception_4d/5x5"
  bottom: "inception_4d/pool_proj"
  top: "inception_4d/output"
}
layer {
  name: "inception_4e/1x1"
  type: "Convolution"
  bottom: "inception_4d/output"
  top: "inception_4e/1x1"
  param {
    lr_mult: 1
    decay_mult: 1
  }
  param {
    lr_mult: 2
    decay_mult: 0
  }
  convolution_param {
    num_output: 256
    kernel_size: 1
    weight_filler {
      type: "xavier"
      std: 0.03
    }
    bias_filler {
      type: "constant"
      value: 0.2
    }
  }
}
layer {
  name: "inception_4e/relu_1x1"
  type: "ReLU"
  bottom: "inception_4e/1x1"
  top: "inception_4e/1x1"
}
layer {
  name: "inception_4e/3x3_reduce"
  type: "Convolution"
  bottom: "inception_4d/output"
  top: "inception_4e/3x3_reduce"
  param {
    lr_mult: 1
    decay_mult: 1
  }
  param {
    lr_mult: 2
    decay_mult: 0
  }
  convolution_param {
    num_output: 160
    kernel_size: 1
    weight_filler {
      type: "xavier"
      std: 0.09
    }
    bias_filler {
      type: "constant"
      value: 0.2
    }
  }
}
layer {
  name: "inception_4e/relu_3x3_reduce"
  type: "ReLU"
  bottom: "inception_4e/3x3_reduce"
  top: "inception_4e/3x3_reduce"
}
layer {
  name: "inception_4e/3x3"
  type: "Convolution"
  bottom: "inception_4e/3x3_reduce"
  top: "inception_4e/3x3"
  param {
    lr_mult: 1
    decay_mult: 1
  }
  param {
    lr_mult: 2
    decay_mult: 0
  }
  convolution_param {
    num_output: 320
    pad: 1
    kernel_size: 3
    weight_filler {
      type: "xavier"
      std: 0.03
    }
    bias_filler {
      type: "constant"
      value: 0.2
    }
  }
}
layer {
  name: "inception_4e/relu_3x3"
  type: "ReLU"
  bottom: "inception_4e/3x3"
  top: "inception_4e/3x3"
}
layer {
  name: "inception_4e/5x5_reduce"
  type: "Convolution"
  bottom: "inception_4d/output"
  top: "inception_4e/5x5_reduce"
  param {
    lr_mult: 1
    decay_mult: 1
  }
  param {
    lr_mult: 2
    decay_mult: 0
  }
  convolution_param {
    num_output: 32
    kernel_size: 1
    weight_filler {
      type: "xavier"
      std: 0.2
    }
    bias_filler {
      type: "constant"
      value: 0.2
    }
  }
}
layer {
  name: "inception_4e/relu_5x5_reduce"
  type: "ReLU"
  bottom: "inception_4e/5x5_reduce"
  top: "inception_4e/5x5_reduce"
}
layer {
  name: "inception_4e/5x5"
  type: "Convolution"
  bottom: "inception_4e/5x5_reduce"
  top: "inception_4e/5x5"
  param {
    lr_mult: 1
    decay_mult: 1
  }
  param {
    lr_mult: 2
    decay_mult: 0
  }
  convolution_param {
    num_output: 128
    pad: 2
    kernel_size: 5
    weight_filler {
      type: "xavier"
      std: 0.03
    }
    bias_filler {
      type: "constant"
      value: 0.2
    }
  }
}
layer {
  name: "inception_4e/relu_5x5"
  type: "ReLU"
  bottom: "inception_4e/5x5"
  top: "inception_4e/5x5"
}
layer {
  name: "inception_4e/pool"
  type: "Pooling"
  bottom: "inception_4d/output"
  top: "inception_4e/pool"
  pooling_param {
    pool: MAX
    kernel_size: 3
    stride: 1
    pad: 1
  }
}
layer {
  name: "inception_4e/pool_proj"
  type: "Convolution"
  bottom: "inception_4e/pool"
  top: "inception_4e/pool_proj"
  param {
    lr_mult: 1
    decay_mult: 1
  }
  param {
    lr_mult: 2
    decay_mult: 0
  }
  convolution_param {
    num_output: 128
    kernel_size: 1
    weight_filler {
      type: "xavier"
      std: 0.1
    }
    bias_filler {
      type: "constant"
      value: 0.2
    }
  }
}
layer {
  name: "inception_4e/relu_pool_proj"
  type: "ReLU"
  bottom: "inception_4e/pool_proj"
  top: "inception_4e/pool_proj"
}
layer {
  name: "inception_4e/output"
  type: "Concat"
  bottom: "inception_4e/1x1"
  bottom: "inception_4e/3x3"
  bottom: "inception_4e/5x5"
  bottom: "inception_4e/pool_proj"
  top: "inception_4e/output"
}
layer {
  name: "pool4/3x3_s2"
  type: "Pooling"
  bottom: "inception_4e/output"
  top: "pool4/3x3_s2"
  pooling_param {
    pool: MAX
    kernel_size: 3
    stride: 2
  }
}
layer {
  name: "inception_5a/1x1"
  type: "Convolution"
  bottom: "pool4/3x3_s2"
  top: "inception_5a/1x1"
  param {
    lr_mult: 1
    decay_mult: 1
  }
  param {
    lr_mult: 2
    decay_mult: 0
  }
  convolution_param {
    num_output: 256
    kernel_size: 1
    weight_filler {
      type: "xavier"
      std: 0.03
    }
    bias_filler {
      type: "constant"
      value: 0.2
    }
  }
}
layer {
  name: "inception_5a/relu_1x1"
  type: "ReLU"
  bottom: "inception_5a/1x1"
  top: "inception_5a/1x1"
}
layer {
  name: "inception_5a/3x3_reduce"
  type: "Convolution"
  bottom: "pool4/3x3_s2"
  top: "inception_5a/3x3_reduce"
  param {
    lr_mult: 1
    decay_mult: 1
  }
  param {
    lr_mult: 2
    decay_mult: 0
  }
  convolution_param {
    num_output: 160
    kernel_size: 1
    weight_filler {
      type: "xavier"
      std: 0.09
    }
    bias_filler {
      type: "constant"
      value: 0.2
    }
  }
}
layer {
  name: "inception_5a/relu_3x3_reduce"
  type: "ReLU"
  bottom: "inception_5a/3x3_reduce"
  top: "inception_5a/3x3_reduce"
}
layer {
  name: "inception_5a/3x3"
  type: "Convolution"
  bottom: "inception_5a/3x3_reduce"
  top: "inception_5a/3x3"
  param {
    lr_mult: 1
    decay_mult: 1
  }
  param {
    lr_mult: 2
    decay_mult: 0
  }
  convolution_param {
    num_output: 320
    pad: 1
    kernel_size: 3
    weight_filler {
      type: "xavier"
      std: 0.03
    }
    bias_filler {
      type: "constant"
      value: 0.2
    }
  }
}
layer {
  name: "inception_5a/relu_3x3"
  type: "ReLU"
  bottom: "inception_5a/3x3"
  top: "inception_5a/3x3"
}
layer {
  name: "inception_5a/5x5_reduce"
  type: "Convolution"
  bottom: "pool4/3x3_s2"
  top: "inception_5a/5x5_reduce"
  param {
    lr_mult: 1
    decay_mult: 1
  }
  param {
    lr_mult: 2
    decay_mult: 0
  }
  convolution_param {
    num_output: 32
    kernel_size: 1
    weight_filler {
      type: "xavier"
      std: 0.2
    }
    bias_filler {
      type: "constant"
      value: 0.2
    }
I0714 21:57:28.852128 16217 layer_factory.hpp:77] Creating layer data
I0714 21:57:28.852145 16217 net.cpp:91] Creating Layer data
I0714 21:57:28.852154 16217 net.cpp:399] data -> data
I0714 21:57:29.958907 16221 net.cpp:141] Setting up data
I0714 21:57:29.959136 16221 net.cpp:148] Top shape: 10 3 224 224 (1505280)
I0714 21:57:29.959146 16221 net.cpp:156] Memory required for data: 6021120
I0714 21:57:29.959193 16221 layer_factory.hpp:77] Creating layer conv1/7x7_s2
I0714 21:57:29.959280 16221 net.cpp:91] Creating Layer conv1/7x7_s2
I0714 21:57:29.959292 16221 net.cpp:425] conv1/7x7_s2 <- data
I0714 21:57:29.959341 16221 net.cpp:399] conv1/7x7_s2 -> conv1/7x7_s2
I0714 21:57:29.961180 16217 net.cpp:141] Setting up data
I0714 21:57:29.961206 16217 net.cpp:148] Top shape: 10 3 224 224 (1505280)
I0714 21:57:29.961213 16217 net.cpp:156] Memory required for data: 6021120
I0714 21:57:29.961222 16217 layer_factory.hpp:77] Creating layer conv1/7x7_s2
I0714 21:57:29.961243 16217 net.cpp:91] Creating Layer conv1/7x7_s2
I0714 21:57:29.961251 16217 net.cpp:425] conv1/7x7_s2 <- data
I0714 21:57:29.961262 16217 net.cpp:399] conv1/7x7_s2 -> conv1/7x7_s2
I0714 21:57:30.416808 16221 net.cpp:141] Setting up conv1/7x7_s2
I0714 21:57:30.416867 16221 net.cpp:148] Top shape: 10 64 112 112 (8028160)
I0714 21:57:30.416874 16221 net.cpp:156] Memory required for data: 38133760
I0714 21:57:30.416930 16221 layer_factory.hpp:77] Creating layer conv1/relu_7x7
I0714 21:57:30.416966 16221 net.cpp:91] Creating Layer conv1/relu_7x7
I0714 21:57:30.416975 16221 net.cpp:425] conv1/relu_7x7 <- conv1/7x7_s2
I0714 21:57:30.416985 16221 net.cpp:386] conv1/relu_7x7 -> conv1/7x7_s2 (in-place)
I0714 21:57:30.418344 16221 net.cpp:141] Setting up conv1/relu_7x7
I0714 21:57:30.418365 16221 net.cpp:148] Top shape: 10 64 112 112 (8028160)
I0714 21:57:30.418372 16221 net.cpp:156] Memory required for data: 70246400
I0714 21:57:30.418378 16221 layer_factory.hpp:77] Creating layer pool1/3x3_s2
I0714 21:57:30.418395 16221 net.cpp:91] Creating Layer pool1/3x3_s2
I0714 21:57:30.418401 16221 net.cpp:425] pool1/3x3_s2 <- conv1/7x7_s2
I0714 21:57:30.418411 16221 net.cpp:399] pool1/3x3_s2 -> pool1/3x3_s2
I0714 21:57:30.420711 16221 net.cpp:141] Setting up pool1/3x3_s2
I0714 21:57:30.420737 16221 net.cpp:148] Top shape: 10 64 56 56 (2007040)
I0714 21:57:30.420743 16221 net.cpp:156] Memory required for data: 78274560
I0714 21:57:30.420749 16221 layer_factory.hpp:77] Creating layer pool1/norm1
I0714 21:57:30.420790 16221 net.cpp:91] Creating Layer pool1/norm1
I0714 21:57:30.420799 16221 net.cpp:425] pool1/norm1 <- pool1/3x3_s2
I0714 21:57:30.420809 16221 net.cpp:399] pool1/norm1 -> pool1/norm1
I0714 21:57:30.422590 16217 net.cpp:141] Setting up conv1/7x7_s2
I0714 21:57:30.422618 16217 net.cpp:148] Top shape: 10 64 112 112 (8028160)
I0714 21:57:30.422624 16217 net.cpp:156] Memory required for data: 38133760
I0714 21:57:30.422627 16221 net.cpp:141] Setting up pool1/norm1
I0714 21:57:30.422643 16221 net.cpp:148] Top shape: 10 64 56 56 (2007040)
I0714 21:57:30.422643 16217 layer_factory.hpp:77] Creating layer conv1/relu_7x7
I0714 21:57:30.422648 16221 net.cpp:156] Memory required for data: 86302720
I0714 21:57:30.422654 16221 layer_factory.hpp:77] Creating layer conv2/3x3_reduce
I0714 21:57:30.422657 16217 net.cpp:91] Creating Layer conv1/relu_7x7
I0714 21:57:30.422665 16217 net.cpp:425] conv1/relu_7x7 <- conv1/7x7_s2
I0714 21:57:30.422672 16217 net.cpp:386] conv1/relu_7x7 -> conv1/7x7_s2 (in-place)
I0714 21:57:30.422698 16221 net.cpp:91] Creating Layer conv2/3x3_reduce
I0714 21:57:30.422706 16221 net.cpp:425] conv2/3x3_reduce <- pool1/norm1
I0714 21:57:30.422719 16221 net.cpp:399] conv2/3x3_reduce -> conv2/3x3_reduce
I0714 21:57:30.423676 16217 net.cpp:141] Setting up conv1/relu_7x7
I0714 21:57:30.423692 16217 net.cpp:148] Top shape: 10 64 112 112 (8028160)
I0714 21:57:30.423698 16217 net.cpp:156] Memory required for data: 70246400
I0714 21:57:30.423703 16217 layer_factory.hpp:77] Creating layer pool1/3x3_s2
I0714 21:57:30.423715 16217 net.cpp:91] Creating Layer pool1/3x3_s2
I0714 21:57:30.423720 16217 net.cpp:425] pool1/3x3_s2 <- conv1/7x7_s2
I0714 21:57:30.423732 16217 net.cpp:399] pool1/3x3_s2 -> pool1/3x3_s2
I0714 21:57:30.425242 16217 net.cpp:141] Setting up pool1/3x3_s2
I0714 21:57:30.425259 16217 net.cpp:148] Top shape: 10 64 56 56 (2007040)
I0714 21:57:30.425264 16217 net.cpp:156] Memory required for data: 78274560
I0714 21:57:30.425271 16217 layer_factory.hpp:77] Creating layer pool1/norm1
I0714 21:57:30.425283 16217 net.cpp:91] Creating Layer pool1/norm1
I0714 21:57:30.425289 16217 net.cpp:425] pool1/norm1 <- pool1/3x3_s2
I0714 21:57:30.425302 16217 net.cpp:399] pool1/norm1 -> pool1/norm1
I0714 21:57:30.427028 16217 net.cpp:141] Setting up pool1/norm1
I0714 21:57:30.427050 16217 net.cpp:148] Top shape: 10 64 56 56 (2007040)
I0714 21:57:30.427057 16217 net.cpp:156] Memory required for data: 86302720
I0714 21:57:30.427062 16217 layer_factory.hpp:77] Creating layer conv2/3x3_reduce
I0714 21:57:30.427083 16217 net.cpp:91] Creating Layer conv2/3x3_reduce
I0714 21:57:30.427088 16217 net.cpp:425] conv2/3x3_reduce <- pool1/norm1
I0714 21:57:30.427098 16217 net.cpp:399] conv2/3x3_reduce -> conv2/3x3_reduce
I0714 21:57:30.430958 16221 net.cpp:141] Setting up conv2/3x3_reduce
I0714 21:57:30.430986 16221 net.cpp:148] Top shape: 10 64 56 56 (2007040)
I0714 21:57:30.430992 16221 net.cpp:156] Memory required for data: 94330880
I0714 21:57:30.431011 16221 layer_factory.hpp:77] Creating layer conv2/relu_3x3_reduce
I0714 21:57:30.431026 16221 net.cpp:91] Creating Layer conv2/relu_3x3_reduce
I0714 21:57:30.431033 16221 net.cpp:425] conv2/relu_3x3_reduce <- conv2/3x3_reduce
I0714 21:57:30.431041 16221 net.cpp:386] conv2/relu_3x3_reduce -> conv2/3x3_reduce (in-place)
I0714 21:57:30.431998 16221 net.cpp:141] Setting up conv2/relu_3x3_reduce
I0714 21:57:30.432014 16221 net.cpp:148] Top shape: 10 64 56 56 (2007040)
I0714 21:57:30.432020 16221 net.cpp:156] Memory required for data: 102359040
I0714 21:57:30.432025 16221 layer_factory.hpp:77] Creating layer conv2/3x3
I0714 21:57:30.432049 16221 net.cpp:91] Creating Layer conv2/3x3
I0714 21:57:30.432055 16221 net.cpp:425] conv2/3x3 <- conv2/3x3_reduce
I0714 21:57:30.432065 16221 net.cpp:399] conv2/3x3 -> conv2/3x3
I0714 21:57:30.435016 16217 net.cpp:141] Setting up conv2/3x3_reduce
I0714 21:57:30.435046 16217 net.cpp:148] Top shape: 10 64 56 56 (2007040)
I0714 21:57:30.435052 16217 net.cpp:156] Memory required for data: 94330880
I0714 21:57:30.435071 16217 layer_factory.hpp:77] Creating layer conv2/relu_3x3_reduce
I0714 21:57:30.435084 16217 net.cpp:91] Creating Layer conv2/relu_3x3_reduce
I0714 21:57:30.435091 16217 net.cpp:425] conv2/relu_3x3_reduce <- conv2/3x3_reduce
I0714 21:57:30.435099 16217 net.cpp:386] conv2/relu_3x3_reduce -> conv2/3x3_reduce (in-place)
I0714 21:57:30.436064 16217 net.cpp:141] Setting up conv2/relu_3x3_reduce
I0714 21:57:30.436081 16217 net.cpp:148] Top shape: 10 64 56 56 (2007040)
I0714 21:57:30.436087 16217 net.cpp:156] Memory required for data: 102359040
I0714 21:57:30.436094 16217 layer_factory.hpp:77] Creating layer conv2/3x3
I0714 21:57:30.436112 16217 net.cpp:91] Creating Layer conv2/3x3
I0714 21:57:30.436118 16217 net.cpp:425] conv2/3x3 <- conv2/3x3_reduce
I0714 21:57:30.436132 16217 net.cpp:399] conv2/3x3 -> conv2/3x3
I0714 21:57:30.440863 16221 net.cpp:141] Setting up conv2/3x3
I0714 21:57:30.440889 16221 net.cpp:148] Top shape: 10 192 56 56 (6021120)
I0714 21:57:30.440896 16221 net.cpp:156] Memory required for data: 126443520
I0714 21:57:30.440910 16221 layer_factory.hpp:77] Creating layer conv2/relu_3x3
I0714 21:57:30.440927 16221 net.cpp:91] Creating Layer conv2/relu_3x3
I0714 21:57:30.440932 16221 net.cpp:425] conv2/relu_3x3 <- conv2/3x3
I0714 21:57:30.440943 16221 net.cpp:386] conv2/relu_3x3 -> conv2/3x3 (in-place)
I0714 21:57:30.441306 16221 net.cpp:141] Setting up conv2/relu_3x3
I0714 21:57:30.441320 16221 net.cpp:148] Top shape: 10 192 56 56 (6021120)
I0714 21:57:30.441325 16221 net.cpp:156] Memory required for data: 150528000
I0714 21:57:30.441330 16221 layer_factory.hpp:77] Creating layer conv2/norm2
I0714 21:57:30.441354 16221 net.cpp:91] Creating Layer conv2/norm2
I0714 21:57:30.441359 16221 net.cpp:425] conv2/norm2 <- conv2/3x3
I0714 21:57:30.441368 16221 net.cpp:399] conv2/norm2 -> conv2/norm2
I0714 21:57:30.443073 16221 net.cpp:141] Setting up conv2/norm2
I0714 21:57:30.443095 16221 net.cpp:148] Top shape: 10 192 56 56 (6021120)
I0714 21:57:30.443101 16221 net.cpp:156] Memory required for data: 174612480
I0714 21:57:30.443112 16221 layer_factory.hpp:77] Creating layer pool2/3x3_s2
I0714 21:57:30.443128 16221 net.cpp:91] Creating Layer pool2/3x3_s2
I0714 21:57:30.443135 16221 net.cpp:425] pool2/3x3_s2 <- conv2/norm2
I0714 21:57:30.443145 16221 net.cpp:399] pool2/3x3_s2 -> pool2/3x3_s2
I0714 21:57:30.443310 16221 net.cpp:141] Setting up pool2/3x3_s2
I0714 21:57:30.443323 16221 net.cpp:148] Top shape: 10 192 28 28 (1505280)
I0714 21:57:30.443328 16221 net.cpp:156] Memory required for data: 180633600
I0714 21:57:30.443333 16221 layer_factory.hpp:77] Creating layer pool2/3x3_s2_pool2/3x3_s2_0_split
I0714 21:57:30.443367 16221 net.cpp:91] Creating Layer pool2/3x3_s2_pool2/3x3_s2_0_split
I0714 21:57:30.443373 16221 net.cpp:425] pool2/3x3_s2_pool2/3x3_s2_0_split <- pool2/3x3_s2
I0714 21:57:30.443380 16221 net.cpp:399] pool2/3x3_s2_pool2/3x3_s2_0_split -> pool2/3x3_s2_pool2/3x3_s2_0_split_0
I0714 21:57:30.443392 16221 net.cpp:399] pool2/3x3_s2_pool2/3x3_s2_0_split -> pool2/3x3_s2_pool2/3x3_s2_0_split_1
I0714 21:57:30.443403 16221 net.cpp:399] pool2/3x3_s2_pool2/3x3_s2_0_split -> pool2/3x3_s2_pool2/3x3_s2_0_split_2
I0714 21:57:30.443413 16221 net.cpp:399] pool2/3x3_s2_pool2/3x3_s2_0_split -> pool2/3x3_s2_pool2/3x3_s2_0_split_3
I0714 21:57:30.444210 16217 net.cpp:141] Setting up conv2/3x3
I0714 21:57:30.444231 16217 net.cpp:148] Top shape: 10 192 56 56 (6021120)
I0714 21:57:30.444237 16217 net.cpp:156] Memory required for data: 126443520
I0714 21:57:30.444252 16217 layer_factory.hpp:77] Creating layer conv2/relu_3x3
I0714 21:57:30.444265 16221 net.cpp:141] Setting up pool2/3x3_s2_pool2/3x3_s2_0_split
I0714 21:57:30.444268 16217 net.cpp:91] Creating Layer conv2/relu_3x3
I0714 21:57:30.444281 16221 net.cpp:148] Top shape: 10 192 28 28 (1505280)
I0714 21:57:30.444283 16217 net.cpp:425] conv2/relu_3x3 <- conv2/3x3
I0714 21:57:30.444298 16221 net.cpp:148] Top shape: 10 192 28 28 (1505280)
I0714 21:57:30.444303 16217 net.cpp:386] conv2/relu_3x3 -> conv2/3x3 (in-place)
I0714 21:57:30.444304 16221 net.cpp:148] Top shape: 10 192 28 28 (1505280)
I0714 21:57:30.444310 16221 net.cpp:148] Top shape: 10 192 28 28 (1505280)
I0714 21:57:30.444315 16221 net.cpp:156] Memory required for data: 204718080
I0714 21:57:30.444320 16221 layer_factory.hpp:77] Creating layer inception_3a/1x1
I0714 21:57:30.444342 16221 net.cpp:91] Creating Layer inception_3a/1x1
I0714 21:57:30.444349 16221 net.cpp:425] inception_3a/1x1 <- pool2/3x3_s2_pool2/3x3_s2_0_split_0
I0714 21:57:30.444377 16221 net.cpp:399] inception_3a/1x1 -> inception_3a/1x1
I0714 21:57:30.444705 16217 net.cpp:141] Setting up conv2/relu_3x3
I0714 21:57:30.444718 16217 net.cpp:148] Top shape: 10 192 56 56 (6021120)
I0714 21:57:30.444723 16217 net.cpp:156] Memory required for data: 150528000
I0714 21:57:30.444730 16217 layer_factory.hpp:77] Creating layer conv2/norm2
I0714 21:57:30.444744 16217 net.cpp:91] Creating Layer conv2/norm2
I0714 21:57:30.444751 16217 net.cpp:425] conv2/norm2 <- conv2/3x3
I0714 21:57:30.444758 16217 net.cpp:399] conv2/norm2 -> conv2/norm2
I0714 21:57:30.445783 16217 net.cpp:141] Setting up conv2/norm2
I0714 21:57:30.445802 16217 net.cpp:148] Top shape: 10 192 56 56 (6021120)
I0714 21:57:30.445807 16217 net.cpp:156] Memory required for data: 174612480
I0714 21:57:30.445816 16217 layer_factory.hpp:77] Creating layer pool2/3x3_s2
I0714 21:57:30.445824 16217 net.cpp:91] Creating Layer pool2/3x3_s2
I0714 21:57:30.445830 16217 net.cpp:425] pool2/3x3_s2 <- conv2/norm2
I0714 21:57:30.445842 16217 net.cpp:399] pool2/3x3_s2 -> pool2/3x3_s2
I0714 21:57:30.446163 16217 net.cpp:141] Setting up pool2/3x3_s2
I0714 21:57:30.446177 16217 net.cpp:148] Top shape: 10 192 28 28 (1505280)
I0714 21:57:30.446182 16217 net.cpp:156] Memory required for data: 180633600
I0714 21:57:30.446187 16217 layer_factory.hpp:77] Creating layer pool2/3x3_s2_pool2/3x3_s2_0_split
I0714 21:57:30.446198 16217 net.cpp:91] Creating Layer pool2/3x3_s2_pool2/3x3_s2_0_split
I0714 21:57:30.446204 16217 net.cpp:425] pool2/3x3_s2_pool2/3x3_s2_0_split <- pool2/3x3_s2
I0714 21:57:30.446211 16217 net.cpp:399] pool2/3x3_s2_pool2/3x3_s2_0_split -> pool2/3x3_s2_pool2/3x3_s2_0_split_0
I0714 21:57:30.446223 16217 net.cpp:399] pool2/3x3_s2_pool2/3x3_s2_0_split -> pool2/3x3_s2_pool2/3x3_s2_0_split_1
I0714 21:57:30.446233 16217 net.cpp:399] pool2/3x3_s2_pool2/3x3_s2_0_split -> pool2/3x3_s2_pool2/3x3_s2_0_split_2
I0714 21:57:30.446241 16217 net.cpp:399] pool2/3x3_s2_pool2/3x3_s2_0_split -> pool2/3x3_s2_pool2/3x3_s2_0_split_3
I0714 21:57:30.447199 16217 net.cpp:141] Setting up pool2/3x3_s2_pool2/3x3_s2_0_split
I0714 21:57:30.447213 16217 net.cpp:148] Top shape: 10 192 28 28 (1505280)
I0714 21:57:30.447221 16217 net.cpp:148] Top shape: 10 192 28 28 (1505280)
I0714 21:57:30.447227 16217 net.cpp:148] Top shape: 10 192 28 28 (1505280)
I0714 21:57:30.447232 16217 net.cpp:148] Top shape: 10 192 28 28 (1505280)
I0714 21:57:30.447237 16217 net.cpp:156] Memory required for data: 204718080
I0714 21:57:30.447242 16217 layer_factory.hpp:77] Creating layer inception_3a/1x1
I0714 21:57:30.447258 16217 net.cpp:91] Creating Layer inception_3a/1x1
I0714 21:57:30.447264 16217 net.cpp:425] inception_3a/1x1 <- pool2/3x3_s2_pool2/3x3_s2_0_split_0
I0714 21:57:30.447286 16217 net.cpp:399] inception_3a/1x1 -> inception_3a/1x1
I0714 21:57:30.451056 16221 net.cpp:141] Setting up inception_3a/1x1
I0714 21:57:30.451077 16221 net.cpp:148] Top shape: 10 64 28 28 (501760)
I0714 21:57:30.451083 16221 net.cpp:156] Memory required for data: 206725120
I0714 21:57:30.451097 16221 layer_factory.hpp:77] Creating layer inception_3a/relu_1x1
I0714 21:57:30.451112 16221 net.cpp:91] Creating Layer inception_3a/relu_1x1
I0714 21:57:30.451118 16221 net.cpp:425] inception_3a/relu_1x1 <- inception_3a/1x1
I0714 21:57:30.451128 16221 net.cpp:386] inception_3a/relu_1x1 -> inception_3a/1x1 (in-place)
I0714 21:57:30.451484 16221 net.cpp:141] Setting up inception_3a/relu_1x1
I0714 21:57:30.451498 16221 net.cpp:148] Top shape: 10 64 28 28 (501760)
I0714 21:57:30.451503 16221 net.cpp:156] Memory required for data: 208732160
I0714 21:57:30.451509 16221 layer_factory.hpp:77] Creating layer inception_3a/3x3_reduce
I0714 21:57:30.451529 16221 net.cpp:91] Creating Layer inception_3a/3x3_reduce
I0714 21:57:30.451536 16221 net.cpp:425] inception_3a/3x3_reduce <- pool2/3x3_s2_pool2/3x3_s2_0_split_1
I0714 21:57:30.451546 16221 net.cpp:399] inception_3a/3x3_reduce -> inception_3a/3x3_reduce
I0714 21:57:30.457743 16217 net.cpp:141] Setting up inception_3a/1x1
I0714 21:57:30.457772 16217 net.cpp:148] Top shape: 10 64 28 28 (501760)
I0714 21:57:30.457778 16217 net.cpp:156] Memory required for data: 206725120
I0714 21:57:30.457792 16217 layer_factory.hpp:77] Creating layer inception_3a/relu_1x1
I0714 21:57:30.457809 16217 net.cpp:91] Creating Layer inception_3a/relu_1x1
I0714 21:57:30.457818 16217 net.cpp:425] inception_3a/relu_1x1 <- inception_3a/1x1
I0714 21:57:30.457826 16217 net.cpp:386] inception_3a/relu_1x1 -> inception_3a/1x1 (in-place)
I0714 21:57:30.458149 16217 net.cpp:141] Setting up inception_3a/relu_1x1
I0714 21:57:30.458163 16217 net.cpp:148] Top shape: 10 64 28 28 (501760)
I0714 21:57:30.458168 16217 net.cpp:156] Memory required for data: 208732160
I0714 21:57:30.458175 16217 layer_factory.hpp:77] Creating layer inception_3a/3x3_reduce
I0714 21:57:30.458194 16217 net.cpp:91] Creating Layer inception_3a/3x3_reduce
I0714 21:57:30.458200 16217 net.cpp:425] inception_3a/3x3_reduce <- pool2/3x3_s2_pool2/3x3_s2_0_split_1
I0714 21:57:30.458212 16217 net.cpp:399] inception_3a/3x3_reduce -> inception_3a/3x3_reduce
I0714 21:57:30.463266 16221 net.cpp:141] Setting up inception_3a/3x3_reduce
I0714 21:57:30.463295 16221 net.cpp:148] Top shape: 10 96 28 28 (752640)
I0714 21:57:30.463301 16221 net.cpp:156] Memory required for data: 211742720
I0714 21:57:30.463323 16221 layer_factory.hpp:77] Creating layer inception_3a/relu_3x3_reduce
I0714 21:57:30.463340 16221 net.cpp:91] Creating Layer inception_3a/relu_3x3_reduce
I0714 21:57:30.463347 16221 net.cpp:425] inception_3a/relu_3x3_reduce <- inception_3a/3x3_reduce
I0714 21:57:30.463359 16221 net.cpp:386] inception_3a/relu_3x3_reduce -> inception_3a/3x3_reduce (in-place)
I0714 21:57:30.463737 16221 net.cpp:141] Setting up inception_3a/relu_3x3_reduce
I0714 21:57:30.463750 16221 net.cpp:148] Top shape: 10 96 28 28 (752640)
I0714 21:57:30.463755 16221 net.cpp:156] Memory required for data: 214753280
I0714 21:57:30.463760 16221 layer_factory.hpp:77] Creating layer inception_3a/3x3
I0714 21:57:30.463785 16221 net.cpp:91] Creating Layer inception_3a/3x3
I0714 21:57:30.463793 16221 net.cpp:425] inception_3a/3x3 <- inception_3a/3x3_reduce
I0714 21:57:30.463801 16221 net.cpp:399] inception_3a/3x3 -> inception_3a/3x3
I0714 21:57:30.465157 16217 net.cpp:141] Setting up inception_3a/3x3_reduce
I0714 21:57:30.465178 16217 net.cpp:148] Top shape: 10 96 28 28 (752640)
I0714 21:57:30.465183 16217 net.cpp:156] Memory required for data: 211742720
I0714 21:57:30.465198 16217 layer_factory.hpp:77] Creating layer inception_3a/relu_3x3_reduce
I0714 21:57:30.465209 16217 net.cpp:91] Creating Layer inception_3a/relu_3x3_reduce
I0714 21:57:30.465214 16217 net.cpp:425] inception_3a/relu_3x3_reduce <- inception_3a/3x3_reduce
I0714 21:57:30.465227 16217 net.cpp:386] inception_3a/relu_3x3_reduce -> inception_3a/3x3_reduce (in-place)
I0714 21:57:30.465498 16217 net.cpp:141] Setting up inception_3a/relu_3x3_reduce
I0714 21:57:30.465510 16217 net.cpp:148] Top shape: 10 96 28 28 (752640)
I0714 21:57:30.465515 16217 net.cpp:156] Memory required for data: 214753280
I0714 21:57:30.465522 16217 layer_factory.hpp:77] Creating layer inception_3a/3x3
I0714 21:57:30.465544 16217 net.cpp:91] Creating Layer inception_3a/3x3
I0714 21:57:30.465551 16217 net.cpp:425] inception_3a/3x3 <- inception_3a/3x3_reduce
I0714 21:57:30.465566 16217 net.cpp:399] inception_3a/3x3 -> inception_3a/3x3
I0714 21:57:30.469233 16221 net.cpp:141] Setting up inception_3a/3x3
I0714 21:57:30.469255 16221 net.cpp:148] Top shape: 10 128 28 28 (1003520)
I0714 21:57:30.469261 16221 net.cpp:156] Memory required for data: 218767360
I0714 21:57:30.469274 16221 layer_factory.hpp:77] Creating layer inception_3a/relu_3x3
I0714 21:57:30.469286 16221 net.cpp:91] Creating Layer inception_3a/relu_3x3
I0714 21:57:30.469293 16221 net.cpp:425] inception_3a/relu_3x3 <- inception_3a/3x3
I0714 21:57:30.469305 16221 net.cpp:386] inception_3a/relu_3x3 -> inception_3a/3x3 (in-place)
I0714 21:57:30.470340 16221 net.cpp:141] Setting up inception_3a/relu_3x3
I0714 21:57:30.470357 16221 net.cpp:148] Top shape: 10 128 28 28 (1003520)
I0714 21:57:30.470362 16221 net.cpp:156] Memory required for data: 222781440
I0714 21:57:30.470368 16221 layer_factory.hpp:77] Creating layer inception_3a/5x5_reduce
I0714 21:57:30.470384 16217 net.cpp:141] Setting up inception_3a/3x3
I0714 21:57:30.470389 16221 net.cpp:91] Creating Layer inception_3a/5x5_reduce
I0714 21:57:30.470407 16221 net.cpp:425] inception_3a/5x5_reduce <- pool2/3x3_s2_pool2/3x3_s2_0_split_2
I0714 21:57:30.470407 16217 net.cpp:148] Top shape: 10 128 28 28 (1003520)
I0714 21:57:30.470414 16217 net.cpp:156] Memory required for data: 218767360
I0714 21:57:30.470418 16221 net.cpp:399] inception_3a/5x5_reduce -> inception_3a/5x5_reduce
I0714 21:57:30.470425 16217 layer_factory.hpp:77] Creating layer inception_3a/relu_3x3
I0714 21:57:30.470435 16217 net.cpp:91] Creating Layer inception_3a/relu_3x3
I0714 21:57:30.470441 16217 net.cpp:425] inception_3a/relu_3x3 <- inception_3a/3x3
I0714 21:57:30.470449 16217 net.cpp:386] inception_3a/relu_3x3 -> inception_3a/3x3 (in-place)
I0714 21:57:30.471487 16217 net.cpp:141] Setting up inception_3a/relu_3x3
I0714 21:57:30.471505 16217 net.cpp:148] Top shape: 10 128 28 28 (1003520)
I0714 21:57:30.471510 16217 net.cpp:156] Memory required for data: 222781440
I0714 21:57:30.471518 16217 layer_factory.hpp:77] Creating layer inception_3a/5x5_reduce
I0714 21:57:30.471537 16217 net.cpp:91] Creating Layer inception_3a/5x5_reduce
I0714 21:57:30.471544 16217 net.cpp:425] inception_3a/5x5_reduce <- pool2/3x3_s2_pool2/3x3_s2_0_split_2
I0714 21:57:30.471554 16217 net.cpp:399] inception_3a/5x5_reduce -> inception_3a/5x5_reduce
I0714 21:57:30.475111 16221 net.cpp:141] Setting up inception_3a/5x5_reduce
I0714 21:57:30.475131 16221 net.cpp:148] Top shape: 10 16 28 28 (125440)
I0714 21:57:30.475137 16221 net.cpp:156] Memory required for data: 223283200
I0714 21:57:30.475147 16221 layer_factory.hpp:77] Creating layer inception_3a/relu_5x5_reduce
I0714 21:57:30.475165 16221 net.cpp:91] Creating Layer inception_3a/relu_5x5_reduce
I0714 21:57:30.475172 16221 net.cpp:425] inception_3a/relu_5x5_reduce <- inception_3a/5x5_reduce
I0714 21:57:30.475180 16221 net.cpp:386] inception_3a/relu_5x5_reduce -> inception_3a/5x5_reduce (in-place)
I0714 21:57:30.475502 16217 net.cpp:141] Setting up inception_3a/5x5_reduce
I0714 21:57:30.475517 16217 net.cpp:148] Top shape: 10 16 28 28 (125440)
I0714 21:57:30.475522 16217 net.cpp:156] Memory required for data: 223283200
I0714 21:57:30.475533 16217 layer_factory.hpp:77] Creating layer inception_3a/relu_5x5_reduce
I0714 21:57:30.475536 16221 net.cpp:141] Setting up inception_3a/relu_5x5_reduce
I0714 21:57:30.475544 16217 net.cpp:91] Creating Layer inception_3a/relu_5x5_reduce
I0714 21:57:30.475550 16221 net.cpp:148] Top shape: 10 16 28 28 (125440)
I0714 21:57:30.475550 16217 net.cpp:425] inception_3a/relu_5x5_reduce <- inception_3a/5x5_reduce
I0714 21:57:30.475560 16221 net.cpp:156] Memory required for data: 223784960
I0714 21:57:30.475566 16221 layer_factory.hpp:77] Creating layer inception_3a/5x5
I0714 21:57:30.475571 16217 net.cpp:386] inception_3a/relu_5x5_reduce -> inception_3a/5x5_reduce (in-place)
I0714 21:57:30.475584 16221 net.cpp:91] Creating Layer inception_3a/5x5
I0714 21:57:30.475591 16221 net.cpp:425] inception_3a/5x5 <- inception_3a/5x5_reduce
I0714 21:57:30.475603 16221 net.cpp:399] inception_3a/5x5 -> inception_3a/5x5
I0714 21:57:30.475983 16217 net.cpp:141] Setting up inception_3a/relu_5x5_reduce
I0714 21:57:30.475997 16217 net.cpp:148] Top shape: 10 16 28 28 (125440)
I0714 21:57:30.476002 16217 net.cpp:156] Memory required for data: 223784960
I0714 21:57:30.476007 16217 layer_factory.hpp:77] Creating layer inception_3a/5x5
I0714 21:57:30.476024 16217 net.cpp:91] Creating Layer inception_3a/5x5
I0714 21:57:30.476030 16217 net.cpp:425] inception_3a/5x5 <- inception_3a/5x5_reduce
I0714 21:57:30.476043 16217 net.cpp:399] inception_3a/5x5 -> inception_3a/5x5
I0714 21:57:30.482280 16221 net.cpp:141] Setting up inception_3a/5x5
I0714 21:57:30.482329 16221 net.cpp:148] Top shape: 10 32 28 28 (250880)
I0714 21:57:30.482336 16221 net.cpp:156] Memory required for data: 224788480
I0714 21:57:30.482398 16221 layer_factory.hpp:77] Creating layer inception_3a/relu_5x5
I0714 21:57:30.482432 16221 net.cpp:91] Creating Layer inception_3a/relu_5x5
I0714 21:57:30.482441 16221 net.cpp:425] inception_3a/relu_5x5 <- inception_3a/5x5
I0714 21:57:30.482452 16221 net.cpp:386] inception_3a/relu_5x5 -> inception_3a/5x5 (in-place)
I0714 21:57:30.482786 16221 net.cpp:141] Setting up inception_3a/relu_5x5
I0714 21:57:30.482802 16221 net.cpp:148] Top shape: 10 32 28 28 (250880)
I0714 21:57:30.482807 16221 net.cpp:156] Memory required for data: 225792000
I0714 21:57:30.482815 16221 layer_factory.hpp:77] Creating layer inception_3a/pool
I0714 21:57:30.482827 16221 net.cpp:91] Creating Layer inception_3a/pool
I0714 21:57:30.482834 16221 net.cpp:425] inception_3a/pool <- pool2/3x3_s2_pool2/3x3_s2_0_split_3
I0714 21:57:30.482844 16221 net.cpp:399] inception_3a/pool -> inception_3a/pool
I0714 21:57:30.483105 16217 net.cpp:141] Setting up inception_3a/5x5
I0714 21:57:30.483124 16217 net.cpp:148] Top shape: 10 32 28 28 (250880)
I0714 21:57:30.483129 16217 net.cpp:156] Memory required for data: 224788480
I0714 21:57:30.483142 16217 layer_factory.hpp:77] Creating layer inception_3a/relu_5x5
I0714 21:57:30.483141 16221 net.cpp:141] Setting up inception_3a/pool
I0714 21:57:30.483157 16217 net.cpp:91] Creating Layer inception_3a/relu_5x5
I0714 21:57:30.483163 16221 net.cpp:148] Top shape: 10 192 28 28 (1505280)
I0714 21:57:30.483165 16217 net.cpp:425] inception_3a/relu_5x5 <- inception_3a/5x5
I0714 21:57:30.483170 16221 net.cpp:156] Memory required for data: 231813120
I0714 21:57:30.483175 16221 layer_factory.hpp:77] Creating layer inception_3a/pool_proj
I0714 21:57:30.483176 16217 net.cpp:386] inception_3a/relu_5x5 -> inception_3a/5x5 (in-place)
I0714 21:57:30.483198 16221 net.cpp:91] Creating Layer inception_3a/pool_proj
I0714 21:57:30.483206 16221 net.cpp:425] inception_3a/pool_proj <- inception_3a/pool
I0714 21:57:30.483218 16221 net.cpp:399] inception_3a/pool_proj -> inception_3a/pool_proj
I0714 21:57:30.483579 16217 net.cpp:141] Setting up inception_3a/relu_5x5
I0714 21:57:30.483593 16217 net.cpp:148] Top shape: 10 32 28 28 (250880)
I0714 21:57:30.483598 16217 net.cpp:156] Memory required for data: 225792000
I0714 21:57:30.483603 16217 layer_factory.hpp:77] Creating layer inception_3a/pool
I0714 21:57:30.483618 16217 net.cpp:91] Creating Layer inception_3a/pool
I0714 21:57:30.483625 16217 net.cpp:425] inception_3a/pool <- pool2/3x3_s2_pool2/3x3_s2_0_split_3
I0714 21:57:30.483634 16217 net.cpp:399] inception_3a/pool -> inception_3a/pool
I0714 21:57:30.483839 16217 net.cpp:141] Setting up inception_3a/pool
I0714 21:57:30.483851 16217 net.cpp:148] Top shape: 10 192 28 28 (1505280)
I0714 21:57:30.483856 16217 net.cpp:156] Memory required for data: 231813120
I0714 21:57:30.483862 16217 layer_factory.hpp:77] Creating layer inception_3a/pool_proj
I0714 21:57:30.483881 16217 net.cpp:91] Creating Layer inception_3a/pool_proj
I0714 21:57:30.483887 16217 net.cpp:425] inception_3a/pool_proj <- inception_3a/pool
I0714 21:57:30.483897 16217 net.cpp:399] inception_3a/pool_proj -> inception_3a/pool_proj
I0714 21:57:30.487892 16221 net.cpp:141] Setting up inception_3a/pool_proj
I0714 21:57:30.487915 16221 net.cpp:148] Top shape: 10 32 28 28 (250880)
I0714 21:57:30.487920 16221 net.cpp:156] Memory required for data: 232816640
I0714 21:57:30.487939 16221 layer_factory.hpp:77] Creating layer inception_3a/relu_pool_proj
I0714 21:57:30.487954 16221 net.cpp:91] Creating Layer inception_3a/relu_pool_proj
I0714 21:57:30.487960 16221 net.cpp:425] inception_3a/relu_pool_proj <- inception_3a/pool_proj
I0714 21:57:30.487968 16221 net.cpp:386] inception_3a/relu_pool_proj -> inception_3a/pool_proj (in-place)
I0714 21:57:30.488962 16221 net.cpp:141] Setting up inception_3a/relu_pool_proj
I0714 21:57:30.488979 16221 net.cpp:148] Top shape: 10 32 28 28 (250880)
I0714 21:57:30.488986 16221 net.cpp:156] Memory required for data: 233820160
I0714 21:57:30.488992 16221 layer_factory.hpp:77] Creating layer inception_3a/output
I0714 21:57:30.489019 16221 net.cpp:91] Creating Layer inception_3a/output
I0714 21:57:30.489025 16221 net.cpp:425] inception_3a/output <- inception_3a/1x1
I0714 21:57:30.489032 16221 net.cpp:425] inception_3a/output <- inception_3a/3x3
I0714 21:57:30.489038 16221 net.cpp:425] inception_3a/output <- inception_3a/5x5
I0714 21:57:30.489044 16221 net.cpp:425] inception_3a/output <- inception_3a/pool_proj
I0714 21:57:30.489051 16221 net.cpp:399] inception_3a/output -> inception_3a/output
I0714 21:57:30.489060 16217 net.cpp:141] Setting up inception_3a/pool_proj
I0714 21:57:30.489076 16217 net.cpp:148] Top shape: 10 32 28 28 (250880)
I0714 21:57:30.489083 16217 net.cpp:156] Memory required for data: 232816640
I0714 21:57:30.489099 16217 layer_factory.hpp:77] Creating layer inception_3a/relu_pool_proj
I0714 21:57:30.489112 16217 net.cpp:91] Creating Layer inception_3a/relu_pool_proj
I0714 21:57:30.489118 16217 net.cpp:425] inception_3a/relu_pool_proj <- inception_3a/pool_proj
I0714 21:57:30.489125 16221 net.cpp:141] Setting up inception_3a/output
I0714 21:57:30.489126 16217 net.cpp:386] inception_3a/relu_pool_proj -> inception_3a/pool_proj (in-place)
I0714 21:57:30.489142 16221 net.cpp:148] Top shape: 10 256 28 28 (2007040)
I0714 21:57:30.489147 16221 net.cpp:156] Memory required for data: 241848320
I0714 21:57:30.489153 16221 layer_factory.hpp:77] Creating layer inception_3a/output_inception_3a/output_0_split
I0714 21:57:30.489163 16221 net.cpp:91] Creating Layer inception_3a/output_inception_3a/output_0_split
I0714 21:57:30.489168 16221 net.cpp:425] inception_3a/output_inception_3a/output_0_split <- inception_3a/output
I0714 21:57:30.489176 16221 net.cpp:399] inception_3a/output_inception_3a/output_0_split -> inception_3a/output_inception_3a/output_0_split_0
I0714 21:57:30.489187 16221 net.cpp:399] inception_3a/output_inception_3a/output_0_split -> inception_3a/output_inception_3a/output_0_split_1
I0714 21:57:30.489195 16221 net.cpp:399] inception_3a/output_inception_3a/output_0_split -> inception_3a/output_inception_3a/output_0_split_2
I0714 21:57:30.489207 16221 net.cpp:399] inception_3a/output_inception_3a/output_0_split -> inception_3a/output_inception_3a/output_0_split_3
I0714 21:57:30.490058 16217 net.cpp:141] Setting up inception_3a/relu_pool_proj
I0714 21:57:30.490070 16221 net.cpp:141] Setting up inception_3a/output_inception_3a/output_0_split
I0714 21:57:30.490073 16217 net.cpp:148] Top shape: 10 32 28 28 (250880)
I0714 21:57:30.490085 16221 net.cpp:148] Top shape: 10 256 28 28 (2007040)
I0714 21:57:30.490087 16217 net.cpp:156] Memory required for data: 233820160
I0714 21:57:30.490092 16221 net.cpp:148] Top shape: 10 256 28 28 (2007040)
I0714 21:57:30.490095 16217 layer_factory.hpp:77] Creating layer inception_3a/output
I0714 21:57:30.490098 16221 net.cpp:148] Top shape: 10 256 28 28 (2007040)
I0714 21:57:30.490111 16221 net.cpp:148] Top shape: 10 256 28 28 (2007040)
I0714 21:57:30.490114 16217 net.cpp:91] Creating Layer inception_3a/output
I0714 21:57:30.490115 16221 net.cpp:156] Memory required for data: 273960960
I0714 21:57:30.490123 16217 net.cpp:425] inception_3a/output <- inception_3a/1x1
I0714 21:57:30.490125 16221 layer_factory.hpp:77] Creating layer inception_3b/1x1
I0714 21:57:30.490131 16217 net.cpp:425] inception_3a/output <- inception_3a/3x3
I0714 21:57:30.490137 16217 net.cpp:425] inception_3a/output <- inception_3a/5x5
I0714 21:57:30.490144 16217 net.cpp:425] inception_3a/output <- inception_3a/pool_proj
I0714 21:57:30.490147 16221 net.cpp:91] Creating Layer inception_3b/1x1
I0714 21:57:30.490154 16221 net.cpp:425] inception_3b/1x1 <- inception_3a/output_inception_3a/output_0_split_0
I0714 21:57:30.490150 16217 net.cpp:399] inception_3a/output -> inception_3a/output
I0714 21:57:30.490167 16221 net.cpp:399] inception_3b/1x1 -> inception_3b/1x1
I0714 21:57:30.490257 16217 net.cpp:141] Setting up inception_3a/output
I0714 21:57:30.490268 16217 net.cpp:148] Top shape: 10 256 28 28 (2007040)
I0714 21:57:30.490273 16217 net.cpp:156] Memory required for data: 241848320
I0714 21:57:30.490278 16217 layer_factory.hpp:77] Creating layer inception_3a/output_inception_3a/output_0_split
I0714 21:57:30.490288 16217 net.cpp:91] Creating Layer inception_3a/output_inception_3a/output_0_split
I0714 21:57:30.490293 16217 net.cpp:425] inception_3a/output_inception_3a/output_0_split <- inception_3a/output
I0714 21:57:30.490303 16217 net.cpp:399] inception_3a/output_inception_3a/output_0_split -> inception_3a/output_inception_3a/output_0_split_0
I0714 21:57:30.490312 16217 net.cpp:399] inception_3a/output_inception_3a/output_0_split -> inception_3a/output_inception_3a/output_0_split_1
I0714 21:57:30.490320 16217 net.cpp:399] inception_3a/output_inception_3a/output_0_split -> inception_3a/output_inception_3a/output_0_split_2
I0714 21:57:30.490329 16217 net.cpp:399] inception_3a/output_inception_3a/output_0_split -> inception_3a/output_inception_3a/output_0_split_3
I0714 21:57:30.490715 16217 net.cpp:141] Setting up inception_3a/output_inception_3a/output_0_split
I0714 21:57:30.490730 16217 net.cpp:148] Top shape: 10 256 28 28 (2007040)
I0714 21:57:30.490736 16217 net.cpp:148] Top shape: 10 256 28 28 (2007040)
I0714 21:57:30.490742 16217 net.cpp:148] Top shape: 10 256 28 28 (2007040)
I0714 21:57:30.490747 16217 net.cpp:148] Top shape: 10 256 28 28 (2007040)
I0714 21:57:30.490751 16217 net.cpp:156] Memory required for data: 273960960
I0714 21:57:30.490757 16217 layer_factory.hpp:77] Creating layer inception_3b/1x1
I0714 21:57:30.490773 16217 net.cpp:91] Creating Layer inception_3b/1x1
I0714 21:57:30.490779 16217 net.cpp:425] inception_3b/1x1 <- inception_3a/output_inception_3a/output_0_split_0
I0714 21:57:30.490792 16217 net.cpp:399] inception_3b/1x1 -> inception_3b/1x1
I0714 21:57:30.494910 16221 net.cpp:141] Setting up inception_3b/1x1
I0714 21:57:30.494928 16221 net.cpp:148] Top shape: 10 128 28 28 (1003520)
I0714 21:57:30.494935 16221 net.cpp:156] Memory required for data: 277975040
I0714 21:57:30.494945 16221 layer_factory.hpp:77] Creating layer inception_3b/relu_1x1
I0714 21:57:30.494961 16221 net.cpp:91] Creating Layer inception_3b/relu_1x1
I0714 21:57:30.494967 16221 net.cpp:425] inception_3b/relu_1x1 <- inception_3b/1x1
I0714 21:57:30.494976 16221 net.cpp:386] inception_3b/relu_1x1 -> inception_3b/1x1 (in-place)
I0714 21:57:30.495370 16221 net.cpp:141] Setting up inception_3b/relu_1x1
I0714 21:57:30.495384 16221 net.cpp:148] Top shape: 10 128 28 28 (1003520)
I0714 21:57:30.495389 16221 net.cpp:156] Memory required for data: 281989120
I0714 21:57:30.495395 16221 layer_factory.hpp:77] Creating layer inception_3b/3x3_reduce
I0714 21:57:30.495412 16221 net.cpp:91] Creating Layer inception_3b/3x3_reduce
I0714 21:57:30.495419 16221 net.cpp:425] inception_3b/3x3_reduce <- inception_3a/output_inception_3a/output_0_split_1
I0714 21:57:30.495431 16221 net.cpp:399] inception_3b/3x3_reduce -> inception_3b/3x3_reduce
I0714 21:57:30.495455 16217 net.cpp:141] Setting up inception_3b/1x1
I0714 21:57:30.495471 16217 net.cpp:148] Top shape: 10 128 28 28 (1003520)
I0714 21:57:30.495476 16217 net.cpp:156] Memory required for data: 277975040
I0714 21:57:30.495486 16217 layer_factory.hpp:77] Creating layer inception_3b/relu_1x1
I0714 21:57:30.495496 16217 net.cpp:91] Creating Layer inception_3b/relu_1x1
I0714 21:57:30.495501 16217 net.cpp:425] inception_3b/relu_1x1 <- inception_3b/1x1
I0714 21:57:30.495509 16217 net.cpp:386] inception_3b/relu_1x1 -> inception_3b/1x1 (in-place)
I0714 21:57:30.495931 16217 net.cpp:141] Setting up inception_3b/relu_1x1
I0714 21:57:30.495945 16217 net.cpp:148] Top shape: 10 128 28 28 (1003520)
I0714 21:57:30.495950 16217 net.cpp:156] Memory required for data: 281989120
I0714 21:57:30.495957 16217 layer_factory.hpp:77] Creating layer inception_3b/3x3_reduce
I0714 21:57:30.495975 16217 net.cpp:91] Creating Layer inception_3b/3x3_reduce
I0714 21:57:30.495980 16217 net.cpp:425] inception_3b/3x3_reduce <- inception_3a/output_inception_3a/output_0_split_1
I0714 21:57:30.495993 16217 net.cpp:399] inception_3b/3x3_reduce -> inception_3b/3x3_reduce
I0714 21:57:30.499685 16221 net.cpp:141] Setting up inception_3b/3x3_reduce
I0714 21:57:30.499703 16221 net.cpp:148] Top shape: 10 128 28 28 (1003520)
I0714 21:57:30.499709 16221 net.cpp:156] Memory required for data: 286003200
I0714 21:57:30.499719 16221 layer_factory.hpp:77] Creating layer inception_3b/relu_3x3_reduce
I0714 21:57:30.499732 16221 net.cpp:91] Creating Layer inception_3b/relu_3x3_reduce
I0714 21:57:30.499739 16221 net.cpp:425] inception_3b/relu_3x3_reduce <- inception_3b/3x3_reduce
I0714 21:57:30.499747 16221 net.cpp:386] inception_3b/relu_3x3_reduce -> inception_3b/3x3_reduce (in-place)
I0714 21:57:30.500064 16217 net.cpp:141] Setting up inception_3b/3x3_reduce
I0714 21:57:30.500082 16217 net.cpp:148] Top shape: 10 128 28 28 (1003520)
I0714 21:57:30.500087 16217 net.cpp:156] Memory required for data: 286003200
I0714 21:57:30.500097 16217 layer_factory.hpp:77] Creating layer inception_3b/relu_3x3_reduce
I0714 21:57:30.500113 16221 net.cpp:141] Setting up inception_3b/relu_3x3_reduce
I0714 21:57:30.500118 16217 net.cpp:91] Creating Layer inception_3b/relu_3x3_reduce
I0714 21:57:30.500129 16221 net.cpp:148] Top shape: 10 128 28 28 (1003520)
I0714 21:57:30.500130 16217 net.cpp:425] inception_3b/relu_3x3_reduce <- inception_3b/3x3_reduce
I0714 21:57:30.500134 16221 net.cpp:156] Memory required for data: 290017280
I0714 21:57:30.500140 16221 layer_factory.hpp:77] Creating layer inception_3b/3x3
I0714 21:57:30.500139 16217 net.cpp:386] inception_3b/relu_3x3_reduce -> inception_3b/3x3_reduce (in-place)
I0714 21:57:30.500164 16221 net.cpp:91] Creating Layer inception_3b/3x3
I0714 21:57:30.500171 16221 net.cpp:425] inception_3b/3x3 <- inception_3b/3x3_reduce
I0714 21:57:30.500181 16221 net.cpp:399] inception_3b/3x3 -> inception_3b/3x3
I0714 21:57:30.500537 16217 net.cpp:141] Setting up inception_3b/relu_3x3_reduce
I0714 21:57:30.500550 16217 net.cpp:148] Top shape: 10 128 28 28 (1003520)
I0714 21:57:30.500555 16217 net.cpp:156] Memory required for data: 290017280
I0714 21:57:30.500561 16217 layer_factory.hpp:77] Creating layer inception_3b/3x3
I0714 21:57:30.500579 16217 net.cpp:91] Creating Layer inception_3b/3x3
I0714 21:57:30.500586 16217 net.cpp:425] inception_3b/3x3 <- inception_3b/3x3_reduce
I0714 21:57:30.500597 16217 net.cpp:399] inception_3b/3x3 -> inception_3b/3x3
I0714 21:57:30.508508 16221 net.cpp:141] Setting up inception_3b/3x3
I0714 21:57:30.508535 16221 net.cpp:148] Top shape: 10 192 28 28 (1505280)
I0714 21:57:30.508541 16221 net.cpp:156] Memory required for data: 296038400
I0714 21:57:30.508561 16221 layer_factory.hpp:77] Creating layer inception_3b/relu_3x3
I0714 21:57:30.508585 16221 net.cpp:91] Creating Layer inception_3b/relu_3x3
I0714 21:57:30.508592 16221 net.cpp:425] inception_3b/relu_3x3 <- inception_3b/3x3
I0714 21:57:30.508600 16221 net.cpp:386] inception_3b/relu_3x3 -> inception_3b/3x3 (in-place)
I0714 21:57:30.509591 16221 net.cpp:141] Setting up inception_3b/relu_3x3
I0714 21:57:30.509608 16221 net.cpp:148] Top shape: 10 192 28 28 (1505280)
I0714 21:57:30.509613 16221 net.cpp:156] Memory required for data: 302059520
I0714 21:57:30.509618 16221 layer_factory.hpp:77] Creating layer inception_3b/5x5_reduce
I0714 21:57:30.509647 16221 net.cpp:91] Creating Layer inception_3b/5x5_reduce
I0714 21:57:30.509655 16221 net.cpp:425] inception_3b/5x5_reduce <- inception_3a/output_inception_3a/output_0_split_2
I0714 21:57:30.509666 16221 net.cpp:399] inception_3b/5x5_reduce -> inception_3b/5x5_reduce
I0714 21:57:30.509769 16217 net.cpp:141] Setting up inception_3b/3x3
I0714 21:57:30.509793 16217 net.cpp:148] Top shape: 10 192 28 28 (1505280)
I0714 21:57:30.509799 16217 net.cpp:156] Memory required for data: 296038400
I0714 21:57:30.509811 16217 layer_factory.hpp:77] Creating layer inception_3b/relu_3x3
I0714 21:57:30.509827 16217 net.cpp:91] Creating Layer inception_3b/relu_3x3
I0714 21:57:30.509835 16217 net.cpp:425] inception_3b/relu_3x3 <- inception_3b/3x3
I0714 21:57:30.509846 16217 net.cpp:386] inception_3b/relu_3x3 -> inception_3b/3x3 (in-place)
I0714 21:57:30.510830 16217 net.cpp:141] Setting up inception_3b/relu_3x3
I0714 21:57:30.510848 16217 net.cpp:148] Top shape: 10 192 28 28 (1505280)
I0714 21:57:30.510854 16217 net.cpp:156] Memory required for data: 302059520
I0714 21:57:30.510859 16217 layer_factory.hpp:77] Creating layer inception_3b/5x5_reduce
I0714 21:57:30.510876 16217 net.cpp:91] Creating Layer inception_3b/5x5_reduce
I0714 21:57:30.510884 16217 net.cpp:425] inception_3b/5x5_reduce <- inception_3a/output_inception_3a/output_0_split_2
I0714 21:57:30.510896 16217 net.cpp:399] inception_3b/5x5_reduce -> inception_3b/5x5_reduce
I0714 21:57:30.515136 16221 net.cpp:141] Setting up inception_3b/5x5_reduce
I0714 21:57:30.515158 16221 net.cpp:148] Top shape: 10 32 28 28 (250880)
I0714 21:57:30.515163 16221 net.cpp:156] Memory required for data: 303063040
I0714 21:57:30.515174 16221 layer_factory.hpp:77] Creating layer inception_3b/relu_5x5_reduce
I0714 21:57:30.515189 16221 net.cpp:91] Creating Layer inception_3b/relu_5x5_reduce
I0714 21:57:30.515197 16221 net.cpp:425] inception_3b/relu_5x5_reduce <- inception_3b/5x5_reduce
I0714 21:57:30.515207 16221 net.cpp:386] inception_3b/relu_5x5_reduce -> inception_3b/5x5_reduce (in-place)
I0714 21:57:30.515625 16221 net.cpp:141] Setting up inception_3b/relu_5x5_reduce
I0714 21:57:30.515638 16221 net.cpp:148] Top shape: 10 32 28 28 (250880)
I0714 21:57:30.515643 16221 net.cpp:156] Memory required for data: 304066560
I0714 21:57:30.515648 16221 layer_factory.hpp:77] Creating layer inception_3b/5x5
I0714 21:57:30.515668 16221 net.cpp:91] Creating Layer inception_3b/5x5
I0714 21:57:30.515676 16221 net.cpp:425] inception_3b/5x5 <- inception_3b/5x5_reduce
I0714 21:57:30.515687 16221 net.cpp:399] inception_3b/5x5 -> inception_3b/5x5
I0714 21:57:30.515717 16217 net.cpp:141] Setting up inception_3b/5x5_reduce
I0714 21:57:30.515733 16217 net.cpp:148] Top shape: 10 32 28 28 (250880)
I0714 21:57:30.515738 16217 net.cpp:156] Memory required for data: 303063040
I0714 21:57:30.515748 16217 layer_factory.hpp:77] Creating layer inception_3b/relu_5x5_reduce
I0714 21:57:30.515758 16217 net.cpp:91] Creating Layer inception_3b/relu_5x5_reduce
I0714 21:57:30.515764 16217 net.cpp:425] inception_3b/relu_5x5_reduce <- inception_3b/5x5_reduce
I0714 21:57:30.515777 16217 net.cpp:386] inception_3b/relu_5x5_reduce -> inception_3b/5x5_reduce (in-place)
I0714 21:57:30.516168 16217 net.cpp:141] Setting up inception_3b/relu_5x5_reduce
I0714 21:57:30.516183 16217 net.cpp:148] Top shape: 10 32 28 28 (250880)
I0714 21:57:30.516190 16217 net.cpp:156] Memory required for data: 304066560
I0714 21:57:30.516194 16217 layer_factory.hpp:77] Creating layer inception_3b/5x5
I0714 21:57:30.516213 16217 net.cpp:91] Creating Layer inception_3b/5x5
I0714 21:57:30.516221 16217 net.cpp:425] inception_3b/5x5 <- inception_3b/5x5_reduce
I0714 21:57:30.516229 16217 net.cpp:399] inception_3b/5x5 -> inception_3b/5x5
I0714 21:57:30.523722 16221 net.cpp:141] Setting up inception_3b/5x5
I0714 21:57:30.523751 16221 net.cpp:148] Top shape: 10 96 28 28 (752640)
I0714 21:57:30.523756 16221 net.cpp:156] Memory required for data: 307077120
I0714 21:57:30.523771 16221 layer_factory.hpp:77] Creating layer inception_3b/relu_5x5
I0714 21:57:30.523783 16221 net.cpp:91] Creating Layer inception_3b/relu_5x5
I0714 21:57:30.523790 16221 net.cpp:425] inception_3b/relu_5x5 <- inception_3b/5x5
I0714 21:57:30.523799 16221 net.cpp:386] inception_3b/relu_5x5 -> inception_3b/5x5 (in-place)
I0714 21:57:30.524088 16217 net.cpp:141] Setting up inception_3b/5x5
I0714 21:57:30.524106 16217 net.cpp:148] Top shape: 10 96 28 28 (752640)
I0714 21:57:30.524111 16217 net.cpp:156] Memory required for data: 307077120
I0714 21:57:30.524124 16217 layer_factory.hpp:77] Creating layer inception_3b/relu_5x5
I0714 21:57:30.524137 16217 net.cpp:91] Creating Layer inception_3b/relu_5x5
I0714 21:57:30.524143 16217 net.cpp:425] inception_3b/relu_5x5 <- inception_3b/5x5
I0714 21:57:30.524152 16217 net.cpp:386] inception_3b/relu_5x5 -> inception_3b/5x5 (in-place)
I0714 21:57:30.524158 16221 net.cpp:141] Setting up inception_3b/relu_5x5
I0714 21:57:30.524173 16221 net.cpp:148] Top shape: 10 96 28 28 (752640)
I0714 21:57:30.524178 16221 net.cpp:156] Memory required for data: 310087680
I0714 21:57:30.524183 16221 layer_factory.hpp:77] Creating layer inception_3b/pool
I0714 21:57:30.524197 16221 net.cpp:91] Creating Layer inception_3b/pool
I0714 21:57:30.524204 16221 net.cpp:425] inception_3b/pool <- inception_3a/output_inception_3a/output_0_split_3
I0714 21:57:30.524212 16221 net.cpp:399] inception_3b/pool -> inception_3b/pool
I0714 21:57:30.524441 16221 net.cpp:141] Setting up inception_3b/pool
I0714 21:57:30.524453 16221 net.cpp:148] Top shape: 10 256 28 28 (2007040)
I0714 21:57:30.524457 16221 net.cpp:156] Memory required for data: 318115840
I0714 21:57:30.524463 16221 layer_factory.hpp:77] Creating layer inception_3b/pool_proj
I0714 21:57:30.524480 16221 net.cpp:91] Creating Layer inception_3b/pool_proj
I0714 21:57:30.524487 16221 net.cpp:425] inception_3b/pool_proj <- inception_3b/pool
I0714 21:57:30.524507 16221 net.cpp:399] inception_3b/pool_proj -> inception_3b/pool_proj
I0714 21:57:30.524513 16217 net.cpp:141] Setting up inception_3b/relu_5x5
I0714 21:57:30.524528 16217 net.cpp:148] Top shape: 10 96 28 28 (752640)
I0714 21:57:30.524533 16217 net.cpp:156] Memory required for data: 310087680
I0714 21:57:30.524538 16217 layer_factory.hpp:77] Creating layer inception_3b/pool
I0714 21:57:30.524550 16217 net.cpp:91] Creating Layer inception_3b/pool
I0714 21:57:30.524557 16217 net.cpp:425] inception_3b/pool <- inception_3a/output_inception_3a/output_0_split_3
I0714 21:57:30.524569 16217 net.cpp:399] inception_3b/pool -> inception_3b/pool
I0714 21:57:30.524791 16217 net.cpp:141] Setting up inception_3b/pool
I0714 21:57:30.524802 16217 net.cpp:148] Top shape: 10 256 28 28 (2007040)
I0714 21:57:30.524807 16217 net.cpp:156] Memory required for data: 318115840
I0714 21:57:30.524812 16217 layer_factory.hpp:77] Creating layer inception_3b/pool_proj
I0714 21:57:30.524837 16217 net.cpp:91] Creating Layer inception_3b/pool_proj
I0714 21:57:30.524844 16217 net.cpp:425] inception_3b/pool_proj <- inception_3b/pool
I0714 21:57:30.524854 16217 net.cpp:399] inception_3b/pool_proj -> inception_3b/pool_proj
I0714 21:57:30.528547 16221 net.cpp:141] Setting up inception_3b/pool_proj
I0714 21:57:30.528565 16221 net.cpp:148] Top shape: 10 64 28 28 (501760)
I0714 21:57:30.528570 16221 net.cpp:156] Memory required for data: 320122880
I0714 21:57:30.528583 16221 layer_factory.hpp:77] Creating layer inception_3b/relu_pool_proj
I0714 21:57:30.528597 16221 net.cpp:91] Creating Layer inception_3b/relu_pool_proj
I0714 21:57:30.528604 16221 net.cpp:425] inception_3b/relu_pool_proj <- inception_3b/pool_proj
I0714 21:57:30.528612 16221 net.cpp:386] inception_3b/relu_pool_proj -> inception_3b/pool_proj (in-place)
I0714 21:57:30.529569 16221 net.cpp:141] Setting up inception_3b/relu_pool_proj
I0714 21:57:30.529585 16221 net.cpp:148] Top shape: 10 64 28 28 (501760)
I0714 21:57:30.529592 16221 net.cpp:156] Memory required for data: 322129920
I0714 21:57:30.529598 16221 layer_factory.hpp:77] Creating layer inception_3b/output
I0714 21:57:30.529613 16221 net.cpp:91] Creating Layer inception_3b/output
I0714 21:57:30.529619 16221 net.cpp:425] inception_3b/output <- inception_3b/1x1
I0714 21:57:30.529626 16221 net.cpp:425] inception_3b/output <- inception_3b/3x3
I0714 21:57:30.529633 16221 net.cpp:425] inception_3b/output <- inception_3b/5x5
I0714 21:57:30.529639 16221 net.cpp:425] inception_3b/output <- inception_3b/pool_proj
I0714 21:57:30.529649 16221 net.cpp:399] inception_3b/output -> inception_3b/output
I0714 21:57:30.529700 16217 net.cpp:141] Setting up inception_3b/pool_proj
I0714 21:57:30.529716 16217 net.cpp:148] Top shape: 10 64 28 28 (501760)
I0714 21:57:30.529721 16217 net.cpp:156] Memory required for data: 320122880
I0714 21:57:30.529724 16221 net.cpp:141] Setting up inception_3b/output
I0714 21:57:30.529732 16217 layer_factory.hpp:77] Creating layer inception_3b/relu_pool_proj
I0714 21:57:30.529736 16221 net.cpp:148] Top shape: 10 480 28 28 (3763200)
I0714 21:57:30.529741 16221 net.cpp:156] Memory required for data: 337182720
I0714 21:57:30.529742 16217 net.cpp:91] Creating Layer inception_3b/relu_pool_proj
I0714 21:57:30.529747 16221 layer_factory.hpp:77] Creating layer pool3/3x3_s2
I0714 21:57:30.529748 16217 net.cpp:425] inception_3b/relu_pool_proj <- inception_3b/pool_proj
I0714 21:57:30.529754 16221 net.cpp:91] Creating Layer pool3/3x3_s2
I0714 21:57:30.529760 16221 net.cpp:425] pool3/3x3_s2 <- inception_3b/output
I0714 21:57:30.529762 16217 net.cpp:386] inception_3b/relu_pool_proj -> inception_3b/pool_proj (in-place)
I0714 21:57:30.529772 16221 net.cpp:399] pool3/3x3_s2 -> pool3/3x3_s2
I0714 21:57:30.530587 16221 net.cpp:141] Setting up pool3/3x3_s2
I0714 21:57:30.530601 16221 net.cpp:148] Top shape: 10 480 14 14 (940800)
I0714 21:57:30.530606 16221 net.cpp:156] Memory required for data: 340945920
I0714 21:57:30.530611 16221 layer_factory.hpp:77] Creating layer pool3/3x3_s2_pool3/3x3_s2_0_split
I0714 21:57:30.530623 16221 net.cpp:91] Creating Layer pool3/3x3_s2_pool3/3x3_s2_0_split
I0714 21:57:30.530628 16221 net.cpp:425] pool3/3x3_s2_pool3/3x3_s2_0_split <- pool3/3x3_s2
I0714 21:57:30.530637 16221 net.cpp:399] pool3/3x3_s2_pool3/3x3_s2_0_split -> pool3/3x3_s2_pool3/3x3_s2_0_split_0
I0714 21:57:30.530645 16221 net.cpp:399] pool3/3x3_s2_pool3/3x3_s2_0_split -> pool3/3x3_s2_pool3/3x3_s2_0_split_1
I0714 21:57:30.530654 16221 net.cpp:399] pool3/3x3_s2_pool3/3x3_s2_0_split -> pool3/3x3_s2_pool3/3x3_s2_0_split_2
I0714 21:57:30.530663 16221 net.cpp:399] pool3/3x3_s2_pool3/3x3_s2_0_split -> pool3/3x3_s2_pool3/3x3_s2_0_split_3
I0714 21:57:30.530678 16217 net.cpp:141] Setting up inception_3b/relu_pool_proj
I0714 21:57:30.530704 16217 net.cpp:148] Top shape: 10 64 28 28 (501760)
I0714 21:57:30.530709 16217 net.cpp:156] Memory required for data: 322129920
I0714 21:57:30.530717 16217 layer_factory.hpp:77] Creating layer inception_3b/output
I0714 21:57:30.530735 16217 net.cpp:91] Creating Layer inception_3b/output
I0714 21:57:30.530741 16217 net.cpp:425] inception_3b/output <- inception_3b/1x1
I0714 21:57:30.530748 16217 net.cpp:425] inception_3b/output <- inception_3b/3x3
I0714 21:57:30.530755 16217 net.cpp:425] inception_3b/output <- inception_3b/5x5
I0714 21:57:30.530760 16217 net.cpp:425] inception_3b/output <- inception_3b/pool_proj
I0714 21:57:30.530771 16217 net.cpp:399] inception_3b/output -> inception_3b/output
I0714 21:57:30.530875 16217 net.cpp:141] Setting up inception_3b/output
I0714 21:57:30.530889 16217 net.cpp:148] Top shape: 10 480 28 28 (3763200)
I0714 21:57:30.530894 16217 net.cpp:156] Memory required for data: 337182720
I0714 21:57:30.530899 16217 layer_factory.hpp:77] Creating layer pool3/3x3_s2
I0714 21:57:30.530915 16217 net.cpp:91] Creating Layer pool3/3x3_s2
I0714 21:57:30.530922 16217 net.cpp:425] pool3/3x3_s2 <- inception_3b/output
I0714 21:57:30.530925 16221 net.cpp:141] Setting up pool3/3x3_s2_pool3/3x3_s2_0_split
I0714 21:57:30.530930 16217 net.cpp:399] pool3/3x3_s2 -> pool3/3x3_s2
I0714 21:57:30.530937 16221 net.cpp:148] Top shape: 10 480 14 14 (940800)
I0714 21:57:30.530944 16221 net.cpp:148] Top shape: 10 480 14 14 (940800)
I0714 21:57:30.530951 16221 net.cpp:148] Top shape: 10 480 14 14 (940800)
I0714 21:57:30.530956 16221 net.cpp:148] Top shape: 10 480 14 14 (940800)
I0714 21:57:30.530961 16221 net.cpp:156] Memory required for data: 355998720
I0714 21:57:30.530966 16221 layer_factory.hpp:77] Creating layer inception_4a/1x1
I0714 21:57:30.530984 16221 net.cpp:91] Creating Layer inception_4a/1x1
I0714 21:57:30.530992 16221 net.cpp:425] inception_4a/1x1 <- pool3/3x3_s2_pool3/3x3_s2_0_split_0
I0714 21:57:30.531002 16221 net.cpp:399] inception_4a/1x1 -> inception_4a/1x1
I0714 21:57:30.531078 16217 net.cpp:141] Setting up pool3/3x3_s2
I0714 21:57:30.531092 16217 net.cpp:148] Top shape: 10 480 14 14 (940800)
I0714 21:57:30.531096 16217 net.cpp:156] Memory required for data: 340945920
I0714 21:57:30.531102 16217 layer_factory.hpp:77] Creating layer pool3/3x3_s2_pool3/3x3_s2_0_split
I0714 21:57:30.531116 16217 net.cpp:91] Creating Layer pool3/3x3_s2_pool3/3x3_s2_0_split
I0714 21:57:30.531121 16217 net.cpp:425] pool3/3x3_s2_pool3/3x3_s2_0_split <- pool3/3x3_s2
I0714 21:57:30.531131 16217 net.cpp:399] pool3/3x3_s2_pool3/3x3_s2_0_split -> pool3/3x3_s2_pool3/3x3_s2_0_split_0
I0714 21:57:30.531139 16217 net.cpp:399] pool3/3x3_s2_pool3/3x3_s2_0_split -> pool3/3x3_s2_pool3/3x3_s2_0_split_1
I0714 21:57:30.531148 16217 net.cpp:399] pool3/3x3_s2_pool3/3x3_s2_0_split -> pool3/3x3_s2_pool3/3x3_s2_0_split_2
I0714 21:57:30.531157 16217 net.cpp:399] pool3/3x3_s2_pool3/3x3_s2_0_split -> pool3/3x3_s2_pool3/3x3_s2_0_split_3
I0714 21:57:30.531513 16217 net.cpp:141] Setting up pool3/3x3_s2_pool3/3x3_s2_0_split
I0714 21:57:30.531525 16217 net.cpp:148] Top shape: 10 480 14 14 (940800)
I0714 21:57:30.531533 16217 net.cpp:148] Top shape: 10 480 14 14 (940800)
I0714 21:57:30.531538 16217 net.cpp:148] Top shape: 10 480 14 14 (940800)
I0714 21:57:30.531543 16217 net.cpp:148] Top shape: 10 480 14 14 (940800)
I0714 21:57:30.531548 16217 net.cpp:156] Memory required for data: 355998720
I0714 21:57:30.531553 16217 layer_factory.hpp:77] Creating layer inception_4a/1x1
I0714 21:57:30.531569 16217 net.cpp:91] Creating Layer inception_4a/1x1
I0714 21:57:30.531576 16217 net.cpp:425] inception_4a/1x1 <- pool3/3x3_s2_pool3/3x3_s2_0_split_0
I0714 21:57:30.531585 16217 net.cpp:399] inception_4a/1x1 -> inception_4a/1x1
I0714 21:57:30.536707 16221 net.cpp:141] Setting up inception_4a/1x1
I0714 21:57:30.536728 16221 net.cpp:148] Top shape: 10 192 14 14 (376320)
I0714 21:57:30.536734 16221 net.cpp:156] Memory required for data: 357504000
I0714 21:57:30.536744 16221 layer_factory.hpp:77] Creating layer inception_4a/relu_1x1
I0714 21:57:30.536757 16221 net.cpp:91] Creating Layer inception_4a/relu_1x1
I0714 21:57:30.536764 16221 net.cpp:425] inception_4a/relu_1x1 <- inception_4a/1x1
I0714 21:57:30.536772 16221 net.cpp:386] inception_4a/relu_1x1 -> inception_4a/1x1 (in-place)
I0714 21:57:30.537113 16217 net.cpp:141] Setting up inception_4a/1x1
I0714 21:57:30.537129 16217 net.cpp:148] Top shape: 10 192 14 14 (376320)
I0714 21:57:30.537134 16217 net.cpp:156] Memory required for data: 357504000
I0714 21:57:30.537144 16221 net.cpp:141] Setting up inception_4a/relu_1x1
I0714 21:57:30.537147 16217 layer_factory.hpp:77] Creating layer inception_4a/relu_1x1
I0714 21:57:30.537160 16221 net.cpp:148] Top shape: 10 192 14 14 (376320)
I0714 21:57:30.537166 16221 net.cpp:156] Memory required for data: 359009280
I0714 21:57:30.537170 16217 net.cpp:91] Creating Layer inception_4a/relu_1x1
I0714 21:57:30.537171 16221 layer_factory.hpp:77] Creating layer inception_4a/3x3_reduce
I0714 21:57:30.537178 16217 net.cpp:425] inception_4a/relu_1x1 <- inception_4a/1x1
I0714 21:57:30.537189 16217 net.cpp:386] inception_4a/relu_1x1 -> inception_4a/1x1 (in-place)
I0714 21:57:30.537190 16221 net.cpp:91] Creating Layer inception_4a/3x3_reduce
I0714 21:57:30.537197 16221 net.cpp:425] inception_4a/3x3_reduce <- pool3/3x3_s2_pool3/3x3_s2_0_split_1
I0714 21:57:30.537211 16221 net.cpp:399] inception_4a/3x3_reduce -> inception_4a/3x3_reduce
I0714 21:57:30.537607 16217 net.cpp:141] Setting up inception_4a/relu_1x1
I0714 21:57:30.537621 16217 net.cpp:148] Top shape: 10 192 14 14 (376320)
I0714 21:57:30.537626 16217 net.cpp:156] Memory required for data: 359009280
I0714 21:57:30.537631 16217 layer_factory.hpp:77] Creating layer inception_4a/3x3_reduce
I0714 21:57:30.537657 16217 net.cpp:91] Creating Layer inception_4a/3x3_reduce
I0714 21:57:30.537663 16217 net.cpp:425] inception_4a/3x3_reduce <- pool3/3x3_s2_pool3/3x3_s2_0_split_1
I0714 21:57:30.537677 16217 net.cpp:399] inception_4a/3x3_reduce -> inception_4a/3x3_reduce
I0714 21:57:30.541708 16221 net.cpp:141] Setting up inception_4a/3x3_reduce
I0714 21:57:30.541728 16221 net.cpp:148] Top shape: 10 96 14 14 (188160)
I0714 21:57:30.541733 16221 net.cpp:156] Memory required for data: 359761920
I0714 21:57:30.541760 16221 layer_factory.hpp:77] Creating layer inception_4a/relu_3x3_reduce
I0714 21:57:30.541772 16221 net.cpp:91] Creating Layer inception_4a/relu_3x3_reduce
I0714 21:57:30.541779 16221 net.cpp:425] inception_4a/relu_3x3_reduce <- inception_4a/3x3_reduce
I0714 21:57:30.541787 16221 net.cpp:386] inception_4a/relu_3x3_reduce -> inception_4a/3x3_reduce (in-place)
I0714 21:57:30.542060 16217 net.cpp:141] Setting up inception_4a/3x3_reduce
I0714 21:57:30.542076 16217 net.cpp:148] Top shape: 10 96 14 14 (188160)
I0714 21:57:30.542081 16217 net.cpp:156] Memory required for data: 359761920
I0714 21:57:30.542105 16217 layer_factory.hpp:77] Creating layer inception_4a/relu_3x3_reduce
I0714 21:57:30.542116 16217 net.cpp:91] Creating Layer inception_4a/relu_3x3_reduce
I0714 21:57:30.542122 16217 net.cpp:425] inception_4a/relu_3x3_reduce <- inception_4a/3x3_reduce
I0714 21:57:30.542130 16221 net.cpp:141] Setting up inception_4a/relu_3x3_reduce
I0714 21:57:30.542134 16217 net.cpp:386] inception_4a/relu_3x3_reduce -> inception_4a/3x3_reduce (in-place)
I0714 21:57:30.542146 16221 net.cpp:148] Top shape: 10 96 14 14 (188160)
I0714 21:57:30.542152 16221 net.cpp:156] Memory required for data: 360514560
I0714 21:57:30.542160 16221 layer_factory.hpp:77] Creating layer inception_4a/3x3
I0714 21:57:30.542176 16221 net.cpp:91] Creating Layer inception_4a/3x3
I0714 21:57:30.542183 16221 net.cpp:425] inception_4a/3x3 <- inception_4a/3x3_reduce
I0714 21:57:30.542196 16221 net.cpp:399] inception_4a/3x3 -> inception_4a/3x3
I0714 21:57:30.542547 16217 net.cpp:141] Setting up inception_4a/relu_3x3_reduce
I0714 21:57:30.542562 16217 net.cpp:148] Top shape: 10 96 14 14 (188160)
I0714 21:57:30.542567 16217 net.cpp:156] Memory required for data: 360514560
I0714 21:57:30.542573 16217 layer_factory.hpp:77] Creating layer inception_4a/3x3
I0714 21:57:30.542593 16217 net.cpp:91] Creating Layer inception_4a/3x3
I0714 21:57:30.542600 16217 net.cpp:425] inception_4a/3x3 <- inception_4a/3x3_reduce
I0714 21:57:30.542609 16217 net.cpp:399] inception_4a/3x3 -> inception_4a/3x3
I0714 21:57:30.550321 16221 net.cpp:141] Setting up inception_4a/3x3
I0714 21:57:30.550345 16221 net.cpp:148] Top shape: 10 208 14 14 (407680)
I0714 21:57:30.550353 16221 net.cpp:156] Memory required for data: 362145280
I0714 21:57:30.550362 16221 layer_factory.hpp:77] Creating layer inception_4a/relu_3x3
I0714 21:57:30.550372 16221 net.cpp:91] Creating Layer inception_4a/relu_3x3
I0714 21:57:30.550379 16221 net.cpp:425] inception_4a/relu_3x3 <- inception_4a/3x3
I0714 21:57:30.550390 16221 net.cpp:386] inception_4a/relu_3x3 -> inception_4a/3x3 (in-place)
I0714 21:57:30.551380 16221 net.cpp:141] Setting up inception_4a/relu_3x3
I0714 21:57:30.551398 16221 net.cpp:148] Top shape: 10 208 14 14 (407680)
I0714 21:57:30.551403 16221 net.cpp:156] Memory required for data: 363776000
I0714 21:57:30.551409 16221 layer_factory.hpp:77] Creating layer inception_4a/5x5_reduce
I0714 21:57:30.551429 16221 net.cpp:91] Creating Layer inception_4a/5x5_reduce
I0714 21:57:30.551436 16221 net.cpp:425] inception_4a/5x5_reduce <- pool3/3x3_s2_pool3/3x3_s2_0_split_2
I0714 21:57:30.551450 16221 net.cpp:399] inception_4a/5x5_reduce -> inception_4a/5x5_reduce
I0714 21:57:30.551501 16217 net.cpp:141] Setting up inception_4a/3x3
I0714 21:57:30.551517 16217 net.cpp:148] Top shape: 10 208 14 14 (407680)
I0714 21:57:30.551522 16217 net.cpp:156] Memory required for data: 362145280
I0714 21:57:30.551532 16217 layer_factory.hpp:77] Creating layer inception_4a/relu_3x3
I0714 21:57:30.551545 16217 net.cpp:91] Creating Layer inception_4a/relu_3x3
I0714 21:57:30.551551 16217 net.cpp:425] inception_4a/relu_3x3 <- inception_4a/3x3
I0714 21:57:30.551563 16217 net.cpp:386] inception_4a/relu_3x3 -> inception_4a/3x3 (in-place)
I0714 21:57:30.552563 16217 net.cpp:141] Setting up inception_4a/relu_3x3
I0714 21:57:30.552580 16217 net.cpp:148] Top shape: 10 208 14 14 (407680)
I0714 21:57:30.552585 16217 net.cpp:156] Memory required for data: 363776000
I0714 21:57:30.552593 16217 layer_factory.hpp:77] Creating layer inception_4a/5x5_reduce
I0714 21:57:30.552613 16217 net.cpp:91] Creating Layer inception_4a/5x5_reduce
I0714 21:57:30.552619 16217 net.cpp:425] inception_4a/5x5_reduce <- pool3/3x3_s2_pool3/3x3_s2_0_split_2
I0714 21:57:30.552629 16217 net.cpp:399] inception_4a/5x5_reduce -> inception_4a/5x5_reduce
I0714 21:57:30.556975 16221 net.cpp:141] Setting up inception_4a/5x5_reduce
I0714 21:57:30.556994 16221 net.cpp:148] Top shape: 10 16 14 14 (31360)
I0714 21:57:30.557000 16221 net.cpp:156] Memory required for data: 363901440
I0714 21:57:30.557009 16221 layer_factory.hpp:77] Creating layer inception_4a/relu_5x5_reduce
I0714 21:57:30.557029 16221 net.cpp:91] Creating Layer inception_4a/relu_5x5_reduce
I0714 21:57:30.557036 16221 net.cpp:425] inception_4a/relu_5x5_reduce <- inception_4a/5x5_reduce
I0714 21:57:30.557044 16221 net.cpp:386] inception_4a/relu_5x5_reduce -> inception_4a/5x5_reduce (in-place)
I0714 21:57:30.557472 16221 net.cpp:141] Setting up inception_4a/relu_5x5_reduce
I0714 21:57:30.557490 16221 net.cpp:148] Top shape: 10 16 14 14 (31360)
I0714 21:57:30.557495 16221 net.cpp:156] Memory required for data: 364026880
I0714 21:57:30.557503 16221 layer_factory.hpp:77] Creating layer inception_4a/5x5
I0714 21:57:30.557528 16221 net.cpp:91] Creating Layer inception_4a/5x5
I0714 21:57:30.557534 16221 net.cpp:425] inception_4a/5x5 <- inception_4a/5x5_reduce
I0714 21:57:30.557544 16221 net.cpp:399] inception_4a/5x5 -> inception_4a/5x5
I0714 21:57:30.557600 16217 net.cpp:141] Setting up inception_4a/5x5_reduce
I0714 21:57:30.557616 16217 net.cpp:148] Top shape: 10 16 14 14 (31360)
I0714 21:57:30.557622 16217 net.cpp:156] Memory required for data: 363901440
I0714 21:57:30.557632 16217 layer_factory.hpp:77] Creating layer inception_4a/relu_5x5_reduce
I0714 21:57:30.557646 16217 net.cpp:91] Creating Layer inception_4a/relu_5x5_reduce
I0714 21:57:30.557653 16217 net.cpp:425] inception_4a/relu_5x5_reduce <- inception_4a/5x5_reduce
I0714 21:57:30.557662 16217 net.cpp:386] inception_4a/relu_5x5_reduce -> inception_4a/5x5_reduce (in-place)
I0714 21:57:30.558142 16217 net.cpp:141] Setting up inception_4a/relu_5x5_reduce
I0714 21:57:30.558161 16217 net.cpp:148] Top shape: 10 16 14 14 (31360)
I0714 21:57:30.558167 16217 net.cpp:156] Memory required for data: 364026880
I0714 21:57:30.558173 16217 layer_factory.hpp:77] Creating layer inception_4a/5x5
I0714 21:57:30.558195 16217 net.cpp:91] Creating Layer inception_4a/5x5
I0714 21:57:30.558203 16217 net.cpp:425] inception_4a/5x5 <- inception_4a/5x5_reduce
I0714 21:57:30.558223 16217 net.cpp:399] inception_4a/5x5 -> inception_4a/5x5
I0714 21:57:30.563359 16221 net.cpp:141] Setting up inception_4a/5x5
I0714 21:57:30.563400 16221 net.cpp:148] Top shape: 10 48 14 14 (94080)
I0714 21:57:30.563406 16221 net.cpp:156] Memory required for data: 364403200
I0714 21:57:30.563434 16221 layer_factory.hpp:77] Creating layer inception_4a/relu_5x5
I0714 21:57:30.563459 16221 net.cpp:91] Creating Layer inception_4a/relu_5x5
I0714 21:57:30.563469 16221 net.cpp:425] inception_4a/relu_5x5 <- inception_4a/5x5
I0714 21:57:30.563482 16221 net.cpp:386] inception_4a/relu_5x5 -> inception_4a/5x5 (in-place)
I0714 21:57:30.563763 16217 net.cpp:141] Setting up inception_4a/5x5
I0714 21:57:30.563784 16217 net.cpp:148] Top shape: 10 48 14 14 (94080)
I0714 21:57:30.563791 16217 net.cpp:156] Memory required for data: 364403200
I0714 21:57:30.563802 16217 layer_factory.hpp:77] Creating layer inception_4a/relu_5x5
I0714 21:57:30.563812 16217 net.cpp:91] Creating Layer inception_4a/relu_5x5
I0714 21:57:30.563818 16217 net.cpp:425] inception_4a/relu_5x5 <- inception_4a/5x5
I0714 21:57:30.563830 16217 net.cpp:386] inception_4a/relu_5x5 -> inception_4a/5x5 (in-place)
I0714 21:57:30.563859 16221 net.cpp:141] Setting up inception_4a/relu_5x5
I0714 21:57:30.563874 16221 net.cpp:148] Top shape: 10 48 14 14 (94080)
I0714 21:57:30.563879 16221 net.cpp:156] Memory required for data: 364779520
I0714 21:57:30.563884 16221 layer_factory.hpp:77] Creating layer inception_4a/pool
I0714 21:57:30.563900 16221 net.cpp:91] Creating Layer inception_4a/pool
I0714 21:57:30.563908 16221 net.cpp:425] inception_4a/pool <- pool3/3x3_s2_pool3/3x3_s2_0_split_3
I0714 21:57:30.563917 16221 net.cpp:399] inception_4a/pool -> inception_4a/pool
I0714 21:57:30.564168 16221 net.cpp:141] Setting up inception_4a/pool
I0714 21:57:30.564182 16221 net.cpp:148] Top shape: 10 480 14 14 (940800)
I0714 21:57:30.564187 16221 net.cpp:156] Memory required for data: 368542720
I0714 21:57:30.564191 16221 layer_factory.hpp:77] Creating layer inception_4a/pool_proj
I0714 21:57:30.564218 16221 net.cpp:91] Creating Layer inception_4a/pool_proj
I0714 21:57:30.564224 16221 net.cpp:425] inception_4a/pool_proj <- inception_4a/pool
I0714 21:57:30.564239 16221 net.cpp:399] inception_4a/pool_proj -> inception_4a/pool_proj
I0714 21:57:30.564252 16217 net.cpp:141] Setting up inception_4a/relu_5x5
I0714 21:57:30.564267 16217 net.cpp:148] Top shape: 10 48 14 14 (94080)
I0714 21:57:30.564272 16217 net.cpp:156] Memory required for data: 364779520
I0714 21:57:30.564277 16217 layer_factory.hpp:77] Creating layer inception_4a/pool
I0714 21:57:30.564292 16217 net.cpp:91] Creating Layer inception_4a/pool
I0714 21:57:30.564299 16217 net.cpp:425] inception_4a/pool <- pool3/3x3_s2_pool3/3x3_s2_0_split_3
I0714 21:57:30.564308 16217 net.cpp:399] inception_4a/pool -> inception_4a/pool
I0714 21:57:30.564637 16217 net.cpp:141] Setting up inception_4a/pool
I0714 21:57:30.564651 16217 net.cpp:148] Top shape: 10 480 14 14 (940800)
I0714 21:57:30.564656 16217 net.cpp:156] Memory required for data: 368542720
I0714 21:57:30.564661 16217 layer_factory.hpp:77] Creating layer inception_4a/pool_proj
I0714 21:57:30.564683 16217 net.cpp:91] Creating Layer inception_4a/pool_proj
I0714 21:57:30.564690 16217 net.cpp:425] inception_4a/pool_proj <- inception_4a/pool
I0714 21:57:30.564700 16217 net.cpp:399] inception_4a/pool_proj -> inception_4a/pool_proj
I0714 21:57:30.569593 16221 net.cpp:141] Setting up inception_4a/pool_proj
I0714 21:57:30.569614 16221 net.cpp:148] Top shape: 10 64 14 14 (125440)
I0714 21:57:30.569620 16221 net.cpp:156] Memory required for data: 369044480
I0714 21:57:30.569631 16221 layer_factory.hpp:77] Creating layer inception_4a/relu_pool_proj
I0714 21:57:30.569648 16221 net.cpp:91] Creating Layer inception_4a/relu_pool_proj
I0714 21:57:30.569655 16221 net.cpp:425] inception_4a/relu_pool_proj <- inception_4a/pool_proj
I0714 21:57:30.569676 16221 net.cpp:386] inception_4a/relu_pool_proj -> inception_4a/pool_proj (in-place)
I0714 21:57:30.570746 16221 net.cpp:141] Setting up inception_4a/relu_pool_proj
I0714 21:57:30.570765 16221 net.cpp:148] Top shape: 10 64 14 14 (125440)
I0714 21:57:30.570770 16221 net.cpp:156] Memory required for data: 369546240
I0714 21:57:30.570775 16221 layer_factory.hpp:77] Creating layer inception_4a/output
I0714 21:57:30.570790 16221 net.cpp:91] Creating Layer inception_4a/output
I0714 21:57:30.570809 16221 net.cpp:425] inception_4a/output <- inception_4a/1x1
I0714 21:57:30.570817 16221 net.cpp:425] inception_4a/output <- inception_4a/3x3
I0714 21:57:30.570824 16221 net.cpp:425] inception_4a/output <- inception_4a/5x5
I0714 21:57:30.570830 16221 net.cpp:425] inception_4a/output <- inception_4a/pool_proj
I0714 21:57:30.570838 16221 net.cpp:399] inception_4a/output -> inception_4a/output
I0714 21:57:30.570837 16217 net.cpp:141] Setting up inception_4a/pool_proj
I0714 21:57:30.570858 16217 net.cpp:148] Top shape: 10 64 14 14 (125440)
I0714 21:57:30.570863 16217 net.cpp:156] Memory required for data: 369044480
I0714 21:57:30.570876 16217 layer_factory.hpp:77] Creating layer inception_4a/relu_pool_proj
I0714 21:57:30.570893 16217 net.cpp:91] Creating Layer inception_4a/relu_pool_proj
I0714 21:57:30.570899 16217 net.cpp:425] inception_4a/relu_pool_proj <- inception_4a/pool_proj
I0714 21:57:30.570907 16217 net.cpp:386] inception_4a/relu_pool_proj -> inception_4a/pool_proj (in-place)
I0714 21:57:30.570930 16221 net.cpp:141] Setting up inception_4a/output
I0714 21:57:30.570945 16221 net.cpp:148] Top shape: 10 512 14 14 (1003520)
I0714 21:57:30.570950 16221 net.cpp:156] Memory required for data: 373560320
I0714 21:57:30.570955 16221 layer_factory.hpp:77] Creating layer inception_4a/output_inception_4a/output_0_split
I0714 21:57:30.570966 16221 net.cpp:91] Creating Layer inception_4a/output_inception_4a/output_0_split
I0714 21:57:30.570971 16221 net.cpp:425] inception_4a/output_inception_4a/output_0_split <- inception_4a/output
I0714 21:57:30.570978 16221 net.cpp:399] inception_4a/output_inception_4a/output_0_split -> inception_4a/output_inception_4a/output_0_split_0
I0714 21:57:30.570987 16221 net.cpp:399] inception_4a/output_inception_4a/output_0_split -> inception_4a/output_inception_4a/output_0_split_1
I0714 21:57:30.570997 16221 net.cpp:399] inception_4a/output_inception_4a/output_0_split -> inception_4a/output_inception_4a/output_0_split_2
I0714 21:57:30.571009 16221 net.cpp:399] inception_4a/output_inception_4a/output_0_split -> inception_4a/output_inception_4a/output_0_split_3
I0714 21:57:30.572005 16217 net.cpp:141] Setting up inception_4a/relu_pool_proj
I0714 21:57:30.572019 16217 net.cpp:148] Top shape: 10 64 14 14 (125440)
I0714 21:57:30.572019 16221 net.cpp:141] Setting up inception_4a/output_inception_4a/output_0_split
I0714 21:57:30.572031 16217 net.cpp:156] Memory required for data: 369546240
I0714 21:57:30.572043 16221 net.cpp:148] Top shape: 10 512 14 14 (1003520)
I0714 21:57:30.572047 16217 layer_factory.hpp:77] Creating layer inception_4a/output
I0714 21:57:30.572052 16221 net.cpp:148] Top shape: 10 512 14 14 (1003520)
I0714 21:57:30.572058 16221 net.cpp:148] Top shape: 10 512 14 14 (1003520)
I0714 21:57:30.572064 16221 net.cpp:148] Top shape: 10 512 14 14 (1003520)
I0714 21:57:30.572065 16217 net.cpp:91] Creating Layer inception_4a/output
I0714 21:57:30.572068 16221 net.cpp:156] Memory required for data: 389616640
I0714 21:57:30.572073 16217 net.cpp:425] inception_4a/output <- inception_4a/1x1
I0714 21:57:30.572075 16221 layer_factory.hpp:77] Creating layer inception_4b/1x1
I0714 21:57:30.572082 16217 net.cpp:425] inception_4a/output <- inception_4a/3x3
I0714 21:57:30.572088 16217 net.cpp:425] inception_4a/output <- inception_4a/5x5
I0714 21:57:30.572094 16217 net.cpp:425] inception_4a/output <- inception_4a/pool_proj
I0714 21:57:30.572099 16221 net.cpp:91] Creating Layer inception_4b/1x1
I0714 21:57:30.572103 16217 net.cpp:399] inception_4a/output -> inception_4a/output
I0714 21:57:30.572108 16221 net.cpp:425] inception_4b/1x1 <- inception_4a/output_inception_4a/output_0_split_0
I0714 21:57:30.572118 16221 net.cpp:399] inception_4b/1x1 -> inception_4b/1x1
I0714 21:57:30.572227 16217 net.cpp:141] Setting up inception_4a/output
I0714 21:57:30.572240 16217 net.cpp:148] Top shape: 10 512 14 14 (1003520)
I0714 21:57:30.572245 16217 net.cpp:156] Memory required for data: 373560320
I0714 21:57:30.572250 16217 layer_factory.hpp:77] Creating layer inception_4a/output_inception_4a/output_0_split
I0714 21:57:30.572260 16217 net.cpp:91] Creating Layer inception_4a/output_inception_4a/output_0_split
I0714 21:57:30.572266 16217 net.cpp:425] inception_4a/output_inception_4a/output_0_split <- inception_4a/output
I0714 21:57:30.572276 16217 net.cpp:399] inception_4a/output_inception_4a/output_0_split -> inception_4a/output_inception_4a/output_0_split_0
I0714 21:57:30.572288 16217 net.cpp:399] inception_4a/output_inception_4a/output_0_split -> inception_4a/output_inception_4a/output_0_split_1
I0714 21:57:30.572296 16217 net.cpp:399] inception_4a/output_inception_4a/output_0_split -> inception_4a/output_inception_4a/output_0_split_2
I0714 21:57:30.572305 16217 net.cpp:399] inception_4a/output_inception_4a/output_0_split -> inception_4a/output_inception_4a/output_0_split_3
I0714 21:57:30.572859 16217 net.cpp:141] Setting up inception_4a/output_inception_4a/output_0_split
I0714 21:57:30.572872 16217 net.cpp:148] Top shape: 10 512 14 14 (1003520)
I0714 21:57:30.572878 16217 net.cpp:148] Top shape: 10 512 14 14 (1003520)
I0714 21:57:30.572885 16217 net.cpp:148] Top shape: 10 512 14 14 (1003520)
I0714 21:57:30.572890 16217 net.cpp:148] Top shape: 10 512 14 14 (1003520)
I0714 21:57:30.572896 16217 net.cpp:156] Memory required for data: 389616640
I0714 21:57:30.572901 16217 layer_factory.hpp:77] Creating layer inception_4b/1x1
I0714 21:57:30.572921 16217 net.cpp:91] Creating Layer inception_4b/1x1
I0714 21:57:30.572927 16217 net.cpp:425] inception_4b/1x1 <- inception_4a/output_inception_4a/output_0_split_0
I0714 21:57:30.572940 16217 net.cpp:399] inception_4b/1x1 -> inception_4b/1x1
I0714 21:57:30.578533 16221 net.cpp:141] Setting up inception_4b/1x1
I0714 21:57:30.578564 16221 net.cpp:148] Top shape: 10 160 14 14 (313600)
I0714 21:57:30.578570 16221 net.cpp:156] Memory required for data: 390871040
I0714 21:57:30.578583 16221 layer_factory.hpp:77] Creating layer inception_4b/relu_1x1
I0714 21:57:30.578600 16221 net.cpp:91] Creating Layer inception_4b/relu_1x1
I0714 21:57:30.578609 16221 net.cpp:425] inception_4b/relu_1x1 <- inception_4b/1x1
I0714 21:57:30.578621 16221 net.cpp:386] inception_4b/relu_1x1 -> inception_4b/1x1 (in-place)
I0714 21:57:30.578649 16217 net.cpp:141] Setting up inception_4b/1x1
I0714 21:57:30.578670 16217 net.cpp:148] Top shape: 10 160 14 14 (313600)
I0714 21:57:30.578675 16217 net.cpp:156] Memory required for data: 390871040
I0714 21:57:30.578699 16217 layer_factory.hpp:77] Creating layer inception_4b/relu_1x1
I0714 21:57:30.578711 16217 net.cpp:91] Creating Layer inception_4b/relu_1x1
I0714 21:57:30.578717 16217 net.cpp:425] inception_4b/relu_1x1 <- inception_4b/1x1
I0714 21:57:30.578732 16217 net.cpp:386] inception_4b/relu_1x1 -> inception_4b/1x1 (in-place)
I0714 21:57:30.579035 16221 net.cpp:141] Setting up inception_4b/relu_1x1
I0714 21:57:30.579048 16221 net.cpp:148] Top shape: 10 160 14 14 (313600)
I0714 21:57:30.579053 16221 net.cpp:156] Memory required for data: 392125440
I0714 21:57:30.579059 16221 layer_factory.hpp:77] Creating layer inception_4b/3x3_reduce
I0714 21:57:30.579079 16221 net.cpp:91] Creating Layer inception_4b/3x3_reduce
I0714 21:57:30.579087 16221 net.cpp:425] inception_4b/3x3_reduce <- inception_4a/output_inception_4a/output_0_split_1
I0714 21:57:30.579097 16221 net.cpp:399] inception_4b/3x3_reduce -> inception_4b/3x3_reduce
I0714 21:57:30.579099 16217 net.cpp:141] Setting up inception_4b/relu_1x1
I0714 21:57:30.579113 16217 net.cpp:148] Top shape: 10 160 14 14 (313600)
I0714 21:57:30.579119 16217 net.cpp:156] Memory required for data: 392125440
I0714 21:57:30.579124 16217 layer_factory.hpp:77] Creating layer inception_4b/3x3_reduce
I0714 21:57:30.579146 16217 net.cpp:91] Creating Layer inception_4b/3x3_reduce
I0714 21:57:30.579154 16217 net.cpp:425] inception_4b/3x3_reduce <- inception_4a/output_inception_4a/output_0_split_1
I0714 21:57:30.579164 16217 net.cpp:399] inception_4b/3x3_reduce -> inception_4b/3x3_reduce
I0714 21:57:30.584754 16221 net.cpp:141] Setting up inception_4b/3x3_reduce
I0714 21:57:30.584791 16221 net.cpp:148] Top shape: 10 112 14 14 (219520)
I0714 21:57:30.584803 16221 net.cpp:156] Memory required for data: 393003520
I0714 21:57:30.584827 16221 layer_factory.hpp:77] Creating layer inception_4b/relu_3x3_reduce
I0714 21:57:30.584847 16221 net.cpp:91] Creating Layer inception_4b/relu_3x3_reduce
I0714 21:57:30.584858 16221 net.cpp:425] inception_4b/relu_3x3_reduce <- inception_4b/3x3_reduce
I0714 21:57:30.584874 16221 net.cpp:386] inception_4b/relu_3x3_reduce -> inception_4b/3x3_reduce (in-place)
I0714 21:57:30.585319 16217 net.cpp:141] Setting up inception_4b/3x3_reduce
I0714 21:57:30.585337 16217 net.cpp:148] Top shape: 10 112 14 14 (219520)
I0714 21:57:30.585343 16217 net.cpp:156] Memory required for data: 393003520
I0714 21:57:30.585355 16217 layer_factory.hpp:77] Creating layer inception_4b/relu_3x3_reduce
I0714 21:57:30.585367 16217 net.cpp:91] Creating Layer inception_4b/relu_3x3_reduce
I0714 21:57:30.585374 16217 net.cpp:425] inception_4b/relu_3x3_reduce <- inception_4b/3x3_reduce
I0714 21:57:30.585382 16217 net.cpp:386] inception_4b/relu_3x3_reduce -> inception_4b/3x3_reduce (in-place)
I0714 21:57:30.585458 16221 net.cpp:141] Setting up inception_4b/relu_3x3_reduce
I0714 21:57:30.585479 16221 net.cpp:148] Top shape: 10 112 14 14 (219520)
I0714 21:57:30.585487 16221 net.cpp:156] Memory required for data: 393881600
I0714 21:57:30.585500 16221 layer_factory.hpp:77] Creating layer inception_4b/3x3
I0714 21:57:30.585530 16221 net.cpp:91] Creating Layer inception_4b/3x3
I0714 21:57:30.585541 16221 net.cpp:425] inception_4b/3x3 <- inception_4b/3x3_reduce
I0714 21:57:30.585563 16221 net.cpp:399] inception_4b/3x3 -> inception_4b/3x3
I0714 21:57:30.585729 16217 net.cpp:141] Setting up inception_4b/relu_3x3_reduce
I0714 21:57:30.585743 16217 net.cpp:148] Top shape: 10 112 14 14 (219520)
I0714 21:57:30.585748 16217 net.cpp:156] Memory required for data: 393881600
I0714 21:57:30.585754 16217 layer_factory.hpp:77] Creating layer inception_4b/3x3
I0714 21:57:30.585777 16217 net.cpp:91] Creating Layer inception_4b/3x3
I0714 21:57:30.585784 16217 net.cpp:425] inception_4b/3x3 <- inception_4b/3x3_reduce
I0714 21:57:30.585793 16217 net.cpp:399] inception_4b/3x3 -> inception_4b/3x3
I0714 21:57:30.595970 16217 net.cpp:141] Setting up inception_4b/3x3
I0714 21:57:30.596009 16217 net.cpp:148] Top shape: 10 224 14 14 (439040)
I0714 21:57:30.596015 16217 net.cpp:156] Memory required for data: 395637760
I0714 21:57:30.596029 16217 layer_factory.hpp:77] Creating layer inception_4b/relu_3x3
I0714 21:57:30.596055 16217 net.cpp:91] Creating Layer inception_4b/relu_3x3
I0714 21:57:30.596065 16217 net.cpp:425] inception_4b/relu_3x3 <- inception_4b/3x3
I0714 21:57:30.596076 16217 net.cpp:386] inception_4b/relu_3x3 -> inception_4b/3x3 (in-place)
I0714 21:57:30.596969 16217 net.cpp:141] Setting up inception_4b/relu_3x3
I0714 21:57:30.596987 16217 net.cpp:148] Top shape: 10 224 14 14 (439040)
I0714 21:57:30.596993 16217 net.cpp:156] Memory required for data: 397393920
I0714 21:57:30.596998 16217 layer_factory.hpp:77] Creating layer inception_4b/5x5_reduce
I0714 21:57:30.597033 16217 net.cpp:91] Creating Layer inception_4b/5x5_reduce
I0714 21:57:30.597040 16217 net.cpp:425] inception_4b/5x5_reduce <- inception_4a/output_inception_4a/output_0_split_2
I0714 21:57:30.597054 16217 net.cpp:399] inception_4b/5x5_reduce -> inception_4b/5x5_reduce
I0714 21:57:30.600996 16221 net.cpp:141] Setting up inception_4b/3x3
I0714 21:57:30.601028 16221 net.cpp:148] Top shape: 10 224 14 14 (439040)
I0714 21:57:30.601042 16221 net.cpp:156] Memory required for data: 395637760
I0714 21:57:30.601061 16221 layer_factory.hpp:77] Creating layer inception_4b/relu_3x3
I0714 21:57:30.601079 16221 net.cpp:91] Creating Layer inception_4b/relu_3x3
I0714 21:57:30.601094 16221 net.cpp:425] inception_4b/relu_3x3 <- inception_4b/3x3
I0714 21:57:30.601109 16221 net.cpp:386] inception_4b/relu_3x3 -> inception_4b/3x3 (in-place)
I0714 21:57:30.602984 16221 net.cpp:141] Setting up inception_4b/relu_3x3
I0714 21:57:30.603009 16217 net.cpp:141] Setting up inception_4b/5x5_reduce
I0714 21:57:30.603015 16221 net.cpp:148] Top shape: 10 224 14 14 (439040)
I0714 21:57:30.603026 16221 net.cpp:156] Memory required for data: 397393920
I0714 21:57:30.603029 16217 net.cpp:148] Top shape: 10 24 14 14 (47040)
I0714 21:57:30.603042 16217 net.cpp:156] Memory required for data: 397582080
I0714 21:57:30.603041 16221 layer_factory.hpp:77] Creating layer inception_4b/5x5_reduce
I0714 21:57:30.603055 16217 layer_factory.hpp:77] Creating layer inception_4b/relu_5x5_reduce
I0714 21:57:30.603065 16217 net.cpp:91] Creating Layer inception_4b/relu_5x5_reduce
I0714 21:57:30.603071 16217 net.cpp:425] inception_4b/relu_5x5_reduce <- inception_4b/5x5_reduce
I0714 21:57:30.603078 16217 net.cpp:386] inception_4b/relu_5x5_reduce -> inception_4b/5x5_reduce (in-place)
I0714 21:57:30.603091 16221 net.cpp:91] Creating Layer inception_4b/5x5_reduce
I0714 21:57:30.603108 16221 net.cpp:425] inception_4b/5x5_reduce <- inception_4a/output_inception_4a/output_0_split_2
I0714 21:57:30.603127 16221 net.cpp:399] inception_4b/5x5_reduce -> inception_4b/5x5_reduce
I0714 21:57:30.603499 16217 net.cpp:141] Setting up inception_4b/relu_5x5_reduce
I0714 21:57:30.603513 16217 net.cpp:148] Top shape: 10 24 14 14 (47040)
I0714 21:57:30.603518 16217 net.cpp:156] Memory required for data: 397770240
I0714 21:57:30.603525 16217 layer_factory.hpp:77] Creating layer inception_4b/5x5
I0714 21:57:30.603543 16217 net.cpp:91] Creating Layer inception_4b/5x5
I0714 21:57:30.603549 16217 net.cpp:425] inception_4b/5x5 <- inception_4b/5x5_reduce
I0714 21:57:30.603564 16217 net.cpp:399] inception_4b/5x5 -> inception_4b/5x5
I0714 21:57:30.610395 16217 net.cpp:141] Setting up inception_4b/5x5
I0714 21:57:30.610421 16217 net.cpp:148] Top shape: 10 64 14 14 (125440)
I0714 21:57:30.610427 16217 net.cpp:156] Memory required for data: 398272000
I0714 21:57:30.610438 16217 layer_factory.hpp:77] Creating layer inception_4b/relu_5x5
I0714 21:57:30.610457 16217 net.cpp:91] Creating Layer inception_4b/relu_5x5
I0714 21:57:30.610465 16217 net.cpp:425] inception_4b/relu_5x5 <- inception_4b/5x5
I0714 21:57:30.610473 16217 net.cpp:386] inception_4b/relu_5x5 -> inception_4b/5x5 (in-place)
I0714 21:57:30.610891 16217 net.cpp:141] Setting up inception_4b/relu_5x5
I0714 21:57:30.610906 16217 net.cpp:148] Top shape: 10 64 14 14 (125440)
I0714 21:57:30.610911 16217 net.cpp:156] Memory required for data: 398773760
I0714 21:57:30.610918 16217 layer_factory.hpp:77] Creating layer inception_4b/pool
I0714 21:57:30.610929 16217 net.cpp:91] Creating Layer inception_4b/pool
I0714 21:57:30.610934 16217 net.cpp:425] inception_4b/pool <- inception_4a/output_inception_4a/output_0_split_3
I0714 21:57:30.610947 16217 net.cpp:399] inception_4b/pool -> inception_4b/pool
I0714 21:57:30.611166 16217 net.cpp:141] Setting up inception_4b/pool
I0714 21:57:30.611179 16217 net.cpp:148] Top shape: 10 512 14 14 (1003520)
I0714 21:57:30.611184 16217 net.cpp:156] Memory required for data: 402787840
I0714 21:57:30.611189 16217 layer_factory.hpp:77] Creating layer inception_4b/pool_proj
I0714 21:57:30.611210 16217 net.cpp:91] Creating Layer inception_4b/pool_proj
I0714 21:57:30.611217 16217 net.cpp:425] inception_4b/pool_proj <- inception_4b/pool
I0714 21:57:30.611229 16217 net.cpp:399] inception_4b/pool_proj -> inception_4b/pool_proj
I0714 21:57:30.611274 16221 net.cpp:141] Setting up inception_4b/5x5_reduce
I0714 21:57:30.611300 16221 net.cpp:148] Top shape: 10 24 14 14 (47040)
I0714 21:57:30.611311 16221 net.cpp:156] Memory required for data: 397582080
I0714 21:57:30.611332 16221 layer_factory.hpp:77] Creating layer inception_4b/relu_5x5_reduce
I0714 21:57:30.611361 16221 net.cpp:91] Creating Layer inception_4b/relu_5x5_reduce
I0714 21:57:30.611376 16221 net.cpp:425] inception_4b/relu_5x5_reduce <- inception_4b/5x5_reduce
I0714 21:57:30.611390 16221 net.cpp:386] inception_4b/relu_5x5_reduce -> inception_4b/5x5_reduce (in-place)
I0714 21:57:30.612126 16221 net.cpp:141] Setting up inception_4b/relu_5x5_reduce
I0714 21:57:30.612152 16221 net.cpp:148] Top shape: 10 24 14 14 (47040)
I0714 21:57:30.612164 16221 net.cpp:156] Memory required for data: 397770240
I0714 21:57:30.612176 16221 layer_factory.hpp:77] Creating layer inception_4b/5x5
I0714 21:57:30.612205 16221 net.cpp:91] Creating Layer inception_4b/5x5
I0714 21:57:30.612220 16221 net.cpp:425] inception_4b/5x5 <- inception_4b/5x5_reduce
I0714 21:57:30.612241 16221 net.cpp:399] inception_4b/5x5 -> inception_4b/5x5
I0714 21:57:30.617205 16217 net.cpp:141] Setting up inception_4b/pool_proj
I0714 21:57:30.617254 16217 net.cpp:148] Top shape: 10 64 14 14 (125440)
I0714 21:57:30.617259 16217 net.cpp:156] Memory required for data: 403289600
I0714 21:57:30.617291 16217 layer_factory.hpp:77] Creating layer inception_4b/relu_pool_proj
I0714 21:57:30.617310 16217 net.cpp:91] Creating Layer inception_4b/relu_pool_proj
I0714 21:57:30.617319 16217 net.cpp:425] inception_4b/relu_pool_proj <- inception_4b/pool_proj
I0714 21:57:30.617331 16217 net.cpp:386] inception_4b/relu_pool_proj -> inception_4b/pool_proj (in-place)
I0714 21:57:30.618949 16217 net.cpp:141] Setting up inception_4b/relu_pool_proj
I0714 21:57:30.618971 16217 net.cpp:148] Top shape: 10 64 14 14 (125440)
I0714 21:57:30.618976 16217 net.cpp:156] Memory required for data: 403791360
I0714 21:57:30.618983 16217 layer_factory.hpp:77] Creating layer inception_4b/output
I0714 21:57:30.618994 16217 net.cpp:91] Creating Layer inception_4b/output
I0714 21:57:30.619001 16217 net.cpp:425] inception_4b/output <- inception_4b/1x1
I0714 21:57:30.619009 16217 net.cpp:425] inception_4b/output <- inception_4b/3x3
I0714 21:57:30.619015 16217 net.cpp:425] inception_4b/output <- inception_4b/5x5
I0714 21:57:30.619021 16217 net.cpp:425] inception_4b/output <- inception_4b/pool_proj
I0714 21:57:30.619029 16217 net.cpp:399] inception_4b/output -> inception_4b/output
I0714 21:57:30.619287 16217 net.cpp:141] Setting up inception_4b/output
I0714 21:57:30.619300 16217 net.cpp:148] Top shape: 10 512 14 14 (1003520)
I0714 21:57:30.619305 16217 net.cpp:156] Memory required for data: 407805440
I0714 21:57:30.619310 16217 layer_factory.hpp:77] Creating layer inception_4b/output_inception_4b/output_0_split
I0714 21:57:30.619321 16217 net.cpp:91] Creating Layer inception_4b/output_inception_4b/output_0_split
I0714 21:57:30.619328 16217 net.cpp:425] inception_4b/output_inception_4b/output_0_split <- inception_4b/output
I0714 21:57:30.619339 16217 net.cpp:399] inception_4b/output_inception_4b/output_0_split -> inception_4b/output_inception_4b/output_0_split_0
I0714 21:57:30.619350 16217 net.cpp:399] inception_4b/output_inception_4b/output_0_split -> inception_4b/output_inception_4b/output_0_split_1
I0714 21:57:30.619359 16217 net.cpp:399] inception_4b/output_inception_4b/output_0_split -> inception_4b/output_inception_4b/output_0_split_2
I0714 21:57:30.619369 16217 net.cpp:399] inception_4b/output_inception_4b/output_0_split -> inception_4b/output_inception_4b/output_0_split_3
I0714 21:57:30.619936 16217 net.cpp:141] Setting up inception_4b/output_inception_4b/output_0_split
I0714 21:57:30.619949 16217 net.cpp:148] Top shape: 10 512 14 14 (1003520)
I0714 21:57:30.619956 16217 net.cpp:148] Top shape: 10 512 14 14 (1003520)
I0714 21:57:30.619961 16217 net.cpp:148] Top shape: 10 512 14 14 (1003520)
I0714 21:57:30.619967 16217 net.cpp:148] Top shape: 10 512 14 14 (1003520)
I0714 21:57:30.619971 16217 net.cpp:156] Memory required for data: 423861760
I0714 21:57:30.619990 16217 layer_factory.hpp:77] Creating layer inception_4c/1x1
I0714 21:57:30.620024 16217 net.cpp:91] Creating Layer inception_4c/1x1
I0714 21:57:30.620031 16217 net.cpp:425] inception_4c/1x1 <- inception_4b/output_inception_4b/output_0_split_0
I0714 21:57:30.620044 16217 net.cpp:399] inception_4c/1x1 -> inception_4c/1x1
I0714 21:57:30.621687 16221 net.cpp:141] Setting up inception_4b/5x5
I0714 21:57:30.621717 16221 net.cpp:148] Top shape: 10 64 14 14 (125440)
I0714 21:57:30.621723 16221 net.cpp:156] Memory required for data: 398272000
I0714 21:57:30.621736 16221 layer_factory.hpp:77] Creating layer inception_4b/relu_5x5
I0714 21:57:30.621750 16221 net.cpp:91] Creating Layer inception_4b/relu_5x5
I0714 21:57:30.621758 16221 net.cpp:425] inception_4b/relu_5x5 <- inception_4b/5x5
I0714 21:57:30.621769 16221 net.cpp:386] inception_4b/relu_5x5 -> inception_4b/5x5 (in-place)
I0714 21:57:30.622062 16221 net.cpp:141] Setting up inception_4b/relu_5x5
I0714 21:57:30.622076 16221 net.cpp:148] Top shape: 10 64 14 14 (125440)
I0714 21:57:30.622081 16221 net.cpp:156] Memory required for data: 398773760
I0714 21:57:30.622087 16221 layer_factory.hpp:77] Creating layer inception_4b/pool
I0714 21:57:30.622102 16221 net.cpp:91] Creating Layer inception_4b/pool
I0714 21:57:30.622109 16221 net.cpp:425] inception_4b/pool <- inception_4a/output_inception_4a/output_0_split_3
I0714 21:57:30.622118 16221 net.cpp:399] inception_4b/pool -> inception_4b/pool
I0714 21:57:30.622252 16221 net.cpp:141] Setting up inception_4b/pool
I0714 21:57:30.622263 16221 net.cpp:148] Top shape: 10 512 14 14 (1003520)
I0714 21:57:30.622268 16221 net.cpp:156] Memory required for data: 402787840
I0714 21:57:30.622273 16221 layer_factory.hpp:77] Creating layer inception_4b/pool_proj
I0714 21:57:30.622295 16221 net.cpp:91] Creating Layer inception_4b/pool_proj
I0714 21:57:30.622303 16221 net.cpp:425] inception_4b/pool_proj <- inception_4b/pool
I0714 21:57:30.622313 16221 net.cpp:399] inception_4b/pool_proj -> inception_4b/pool_proj
I0714 21:57:30.627624 16217 net.cpp:141] Setting up inception_4c/1x1
I0714 21:57:30.627647 16217 net.cpp:148] Top shape: 10 128 14 14 (250880)
I0714 21:57:30.627655 16217 net.cpp:156] Memory required for data: 424865280
I0714 21:57:30.627665 16217 layer_factory.hpp:77] Creating layer inception_4c/relu_1x1
I0714 21:57:30.627681 16217 net.cpp:91] Creating Layer inception_4c/relu_1x1
I0714 21:57:30.627688 16217 net.cpp:425] inception_4c/relu_1x1 <- inception_4c/1x1
I0714 21:57:30.627697 16217 net.cpp:386] inception_4c/relu_1x1 -> inception_4c/1x1 (in-place)
I0714 21:57:30.628208 16217 net.cpp:141] Setting up inception_4c/relu_1x1
I0714 21:57:30.628224 16217 net.cpp:148] Top shape: 10 128 14 14 (250880)
I0714 21:57:30.628229 16217 net.cpp:156] Memory required for data: 425868800
I0714 21:57:30.628237 16217 layer_factory.hpp:77] Creating layer inception_4c/3x3_reduce
I0714 21:57:30.628257 16217 net.cpp:91] Creating Layer inception_4c/3x3_reduce
…
I0714 21:57:30.760987 16221 net.cpp:141] Setting up inception_4e/relu_5x5_reduce
I0714 21:57:30.761003 16221 net.cpp:148] Top shape: 10 32 14 14 (62720)
I0714 21:57:30.761008 16221 net.cpp:156] Memory required for data: 506150400
I0714 21:57:30.761015 16221 layer_factory.hpp:77] Creating layer inception_4e/5x5
I0714 21:57:30.761034 16221 net.cpp:91] Creating Layer inception_4e/5x5
I0714 21:57:30.761040 16221 net.cpp:425] inception_4e/5x5 <- inception_4e/5x5_reduce
I0714 21:57:30.761050 16221 net.cpp:399] inception_4e/5x5 -> inception_4e/5x5
I0714 21:57:30.765390 16217 net.cpp:141] Setting up inception_4e/5x5
I0714 21:57:30.765411 16217 net.cpp:148] Top shape: 10 128 14 14 (250880)
I0714 21:57:30.765418 16217 net.cpp:156] Memory required for data: 507153920
I0714 21:57:30.765429 16217 layer_factory.hpp:77] Creating layer inception_4e/relu_5x5
I0714 21:57:30.765442 16217 net.cpp:91] Creating Layer inception_4e/relu_5x5
I0714 21:57:30.765450 16217 net.cpp:425] inception_4e/relu_5x5 <- inception_4e/5x5
I0714 21:57:30.765457 16217 net.cpp:386] inception_4e/relu_5x5 -> inception_4e/5x5 (in-place)
I0714 21:57:30.765764 16217 net.cpp:141] Setting up inception_4e/relu_5x5
I0714 21:57:30.765777 16217 net.cpp:148] Top shape: 10 128 14 14 (250880)
I0714 21:57:30.765781 16217 net.cpp:156] Memory required for data: 508157440
I0714 21:57:30.765787 16217 layer_factory.hpp:77] Creating layer inception_4e/pool
I0714 21:57:30.765799 16217 net.cpp:91] Creating Layer inception_4e/pool
I0714 21:57:30.765805 16217 net.cpp:425] inception_4e/pool <- inception_4d/output_inception_4d/output_0_split_3
I0714 21:57:30.765816 16217 net.cpp:399] inception_4e/pool -> inception_4e/pool
I0714 21:57:30.766822 16217 net.cpp:141] Setting up inception_4e/pool
I0714 21:57:30.766839 16217 net.cpp:148] Top shape: 10 528 14 14 (1034880)
I0714 21:57:30.766844 16217 net.cpp:156] Memory required for data: 512296960
I0714 21:57:30.766849 16217 layer_factory.hpp:77] Creating layer inception_4e/pool_proj
I0714 21:57:30.766868 16217 net.cpp:91] Creating Layer inception_4e/pool_proj
I0714 21:57:30.766875 16217 net.cpp:425] inception_4e/pool_proj <- inception_4e/pool
I0714 21:57:30.766885 16217 net.cpp:399] inception_4e/pool_proj -> inception_4e/pool_proj
I0714 21:57:30.768899 16221 net.cpp:141] Setting up inception_4e/5x5
I0714 21:57:30.768918 16221 net.cpp:148] Top shape: 10 128 14 14 (250880)
I0714 21:57:30.768924 16221 net.cpp:156] Memory required for data: 507153920
I0714 21:57:30.768934 16221 layer_factory.hpp:77] Creating layer inception_4e/relu_5x5
I0714 21:57:30.768947 16221 net.cpp:91] Creating Layer inception_4e/relu_5x5
I0714 21:57:30.768954 16221 net.cpp:425] inception_4e/relu_5x5 <- inception_4e/5x5
I0714 21:57:30.768967 16221 net.cpp:386] inception_4e/relu_5x5 -> inception_4e/5x5 (in-place)
I0714 21:57:30.769366 16221 net.cpp:141] Setting up inception_4e/relu_5x5
I0714 21:57:30.769379 16221 net.cpp:148] Top shape: 10 128 14 14 (250880)
I0714 21:57:30.769384 16221 net.cpp:156] Memory required for data: 508157440
I0714 21:57:30.769389 16221 layer_factory.hpp:77] Creating layer inception_4e/pool
I0714 21:57:30.769402 16221 net.cpp:91] Creating Layer inception_4e/pool
I0714 21:57:30.769409 16221 net.cpp:425] inception_4e/pool <- inception_4d/output_inception_4d/output_0_split_3
I0714 21:57:30.769418 16221 net.cpp:399] inception_4e/pool -> inception_4e/pool
I0714 21:57:30.770212 16221 net.cpp:141] Setting up inception_4e/pool
I0714 21:57:30.770226 16221 net.cpp:148] Top shape: 10 528 14 14 (1034880)
I0714 21:57:30.770231 16221 net.cpp:156] Memory required for data: 512296960
I0714 21:57:30.770238 16221 layer_factory.hpp:77] Creating layer inception_4e/pool_proj
I0714 21:57:30.770256 16221 net.cpp:91] Creating Layer inception_4e/pool_proj
I0714 21:57:30.770262 16221 net.cpp:425] inception_4e/pool_proj <- inception_4e/pool
I0714 21:57:30.770277 16221 net.cpp:399] inception_4e/pool_proj -> inception_4e/pool_proj
I0714 21:57:30.772282 16217 net.cpp:141] Setting up inception_4e/pool_proj
I0714 21:57:30.772301 16217 net.cpp:148] Top shape: 10 128 14 14 (250880)
I0714 21:57:30.772307 16217 net.cpp:156] Memory required for data: 513300480
I0714 21:57:30.772317 16217 layer_factory.hpp:77] Creating layer inception_4e/relu_pool_proj
I0714 21:57:30.772333 16217 net.cpp:91] Creating Layer inception_4e/relu_pool_proj
I0714 21:57:30.772341 16217 net.cpp:425] inception_4e/relu_pool_proj <- inception_4e/pool_proj
I0714 21:57:30.772348 16217 net.cpp:386] inception_4e/relu_pool_proj -> inception_4e/pool_proj (in-place)
I0714 21:57:30.773327 16217 net.cpp:141] Setting up inception_4e/relu_pool_proj
I0714 21:57:30.773342 16217 net.cpp:148] Top shape: 10 128 14 14 (250880)
I0714 21:57:30.773347 16217 net.cpp:156] Memory required for data: 514304000
I0714 21:57:30.773355 16217 layer_factory.hpp:77] Creating layer inception_4e/output
I0714 21:57:30.773370 16217 net.cpp:91] Creating Layer inception_4e/output
I0714 21:57:30.773377 16217 net.cpp:425] inception_4e/output <- inception_4e/1x1
I0714 21:57:30.773386 16217 net.cpp:425] inception_4e/output <- inception_4e/3x3
I0714 21:57:30.773391 16217 net.cpp:425] inception_4e/output <- inception_4e/5x5
I0714 21:57:30.773397 16217 net.cpp:425] inception_4e/output <- inception_4e/pool_proj
I0714 21:57:30.773406 16217 net.cpp:399] inception_4e/output -> inception_4e/output
I0714 21:57:30.774065 16217 net.cpp:141] Setting up inception_4e/output
I0714 21:57:30.774085 16217 net.cpp:148] Top shape: 10 832 14 14 (1630720)
I0714 21:57:30.774091 16217 net.cpp:156] Memory required for data: 520826880
I0714 21:57:30.774096 16217 layer_factory.hpp:77] Creating layer pool4/3x3_s2
I0714 21:57:30.774106 16217 net.cpp:91] Creating Layer pool4/3x3_s2
I0714 21:57:30.774111 16217 net.cpp:425] pool4/3x3_s2 <- inception_4e/output
I0714 21:57:30.774121 16217 net.cpp:399] pool4/3x3_s2 -> pool4/3x3_s2
I0714 21:57:30.774294 16217 net.cpp:141] Setting up pool4/3x3_s2
I0714 21:57:30.774307 16217 net.cpp:148] Top shape: 10 832 7 7 (407680)
I0714 21:57:30.774312 16217 net.cpp:156] Memory required for data: 522457600
I0714 21:57:30.774318 16217 layer_factory.hpp:77] Creating layer pool4/3x3_s2_pool4/3x3_s2_0_split
I0714 21:57:30.774333 16217 net.cpp:91] Creating Layer pool4/3x3_s2_pool4/3x3_s2_0_split
I0714 21:57:30.774338 16217 net.cpp:425] pool4/3x3_s2_pool4/3x3_s2_0_split <- pool4/3x3_s2
I0714 21:57:30.774348 16217 net.cpp:399] pool4/3x3_s2_pool4/3x3_s2_0_split -> pool4/3x3_s2_pool4/3x3_s2_0_split_0
I0714 21:57:30.774358 16217 net.cpp:399] pool4/3x3_s2_pool4/3x3_s2_0_split -> pool4/3x3_s2_pool4/3x3_s2_0_split_1
I0714 21:57:30.774368 16217 net.cpp:399] pool4/3x3_s2_pool4/3x3_s2_0_split -> pool4/3x3_s2_pool4/3x3_s2_0_split_2
I0714 21:57:30.774376 16217 net.cpp:399] pool4/3x3_s2_pool4/3x3_s2_0_split -> pool4/3x3_s2_pool4/3x3_s2_0_split_3
I0714 21:57:30.775279 16217 net.cpp:141] Setting up pool4/3x3_s2_pool4/3x3_s2_0_split
I0714 21:57:30.775295 16217 net.cpp:148] Top shape: 10 832 7 7 (407680)
I0714 21:57:30.775301 16217 net.cpp:148] Top shape: 10 832 7 7 (407680)
I0714 21:57:30.775307 16217 net.cpp:148] Top shape: 10 832 7 7 (407680)
I0714 21:57:30.775313 16217 net.cpp:148] Top shape: 10 832 7 7 (407680)
I0714 21:57:30.775317 16217 net.cpp:156] Memory required for data: 528980480
I0714 21:57:30.775322 16217 layer_factory.hpp:77] Creating layer inception_5a/1x1
I0714 21:57:30.775343 16217 net.cpp:91] Creating Layer inception_5a/1x1
I0714 21:57:30.775351 16217 net.cpp:425] inception_5a/1x1 <- pool4/3x3_s2_pool4/3x3_s2_0_split_0
I0714 21:57:30.775359 16217 net.cpp:399] inception_5a/1x1 -> inception_5a/1x1
I0714 21:57:30.778146 16221 net.cpp:141] Setting up inception_4e/pool_proj
I0714 21:57:30.778167 16221 net.cpp:148] Top shape: 10 128 14 14 (250880)
I0714 21:57:30.778172 16221 net.cpp:156] Memory required for data: 513300480
I0714 21:57:30.778183 16221 layer_factory.hpp:77] Creating layer inception_4e/relu_pool_proj
I0714 21:57:30.778197 16221 net.cpp:91] Creating Layer inception_4e/relu_pool_proj
I0714 21:57:30.778203 16221 net.cpp:425] inception_4e/relu_pool_proj <- inception_4e/pool_proj
I0714 21:57:30.778213 16221 net.cpp:386] inception_4e/relu_pool_proj -> inception_4e/pool_proj (in-place)
I0714 21:57:30.779078 16221 net.cpp:141] Setting up inception_4e/relu_pool_proj
I0714 21:57:30.779095 16221 net.cpp:148] Top shape: 10 128 14 14 (250880)
I0714 21:57:30.779101 16221 net.cpp:156] Memory required for data: 514304000
I0714 21:57:30.779106 16221 layer_factory.hpp:77] Creating layer inception_4e/output
I0714 21:57:30.779116 16221 net.cpp:91] Creating Layer inception_4e/output
I0714 21:57:30.779122 16221 net.cpp:425] inception_4e/output <- inception_4e/1x1
I0714 21:57:30.779129 16221 net.cpp:425] inception_4e/output <- inception_4e/3x3
I0714 21:57:30.779135 16221 net.cpp:425] inception_4e/output <- inception_4e/5x5
I0714 21:57:30.779140 16221 net.cpp:425] inception_4e/output <- inception_4e/pool_proj
I0714 21:57:30.779151 16221 net.cpp:399] inception_4e/output -> inception_4e/output
I0714 21:57:30.779235 16221 net.cpp:141] Setting up inception_4e/output
I0714 21:57:30.779247 16221 net.cpp:148] Top shape: 10 832 14 14 (1630720)
I0714 21:57:30.779253 16221 net.cpp:156] Memory required for data: 520826880
I0714 21:57:30.779258 16221 layer_factory.hpp:77] Creating layer pool4/3x3_s2
I0714 21:57:30.779268 16221 net.cpp:91] Creating Layer pool4/3x3_s2
I0714 21:57:30.779274 16221 net.cpp:425] pool4/3x3_s2 <- inception_4e/output
I0714 21:57:30.779283 16221 net.cpp:399] pool4/3x3_s2 -> pool4/3x3_s2
I0714 21:57:30.779412 16221 net.cpp:141] Setting up pool4/3x3_s2
I0714 21:57:30.779423 16221 net.cpp:148] Top shape: 10 832 7 7 (407680)
I0714 21:57:30.779428 16221 net.cpp:156] Memory required for data: 522457600
I0714 21:57:30.779434 16221 layer_factory.hpp:77] Creating layer pool4/3x3_s2_pool4/3x3_s2_0_split
I0714 21:57:30.779446 16221 net.cpp:91] Creating Layer pool4/3x3_s2_pool4/3x3_s2_0_split
I0714 21:57:30.779451 16221 net.cpp:425] pool4/3x3_s2_pool4/3x3_s2_0_split <- pool4/3x3_s2
I0714 21:57:30.779459 16221 net.cpp:399] pool4/3x3_s2_pool4/3x3_s2_0_split -> pool4/3x3_s2_pool4/3x3_s2_0_split_0
I0714 21:57:30.779469 16221 net.cpp:399] pool4/3x3_s2_pool4/3x3_s2_0_split -> pool4/3x3_s2_pool4/3x3_s2_0_split_1
I0714 21:57:30.779477 16221 net.cpp:399] pool4/3x3_s2_pool4/3x3_s2_0_split -> pool4/3x3_s2_pool4/3x3_s2_0_split_2
I0714 21:57:30.779485 16221 net.cpp:399] pool4/3x3_s2_pool4/3x3_s2_0_split -> pool4/3x3_s2_pool4/3x3_s2_0_split_3
I0714 21:57:30.779700 16221 net.cpp:141] Setting up pool4/3x3_s2_pool4/3x3_s2_0_split
I0714 21:57:30.779712 16221 net.cpp:148] Top shape: 10 832 7 7 (407680)
I0714 21:57:30.779718 16221 net.cpp:148] Top shape: 10 832 7 7 (407680)
I0714 21:57:30.779724 16221 net.cpp:148] Top shape: 10 832 7 7 (407680)
I0714 21:57:30.779731 16221 net.cpp:148] Top shape: 10 832 7 7 (407680)
I0714 21:57:30.779734 16221 net.cpp:156] Memory required for data: 528980480
I0714 21:57:30.779742 16221 layer_factory.hpp:77] Creating layer inception_5a/1x1
I0714 21:57:30.779758 16221 net.cpp:91] Creating Layer inception_5a/1x1
I0714 21:57:30.779765 16221 net.cpp:425] inception_5a/1x1 <- pool4/3x3_s2_pool4/3x3_s2_0_split_0
I0714 21:57:30.779774 16221 net.cpp:399] inception_5a/1x1 -> inception_5a/1x1
I0714 21:57:30.784077 16217 net.cpp:141] Setting up inception_5a/1x1
I0714 21:57:30.784098 16217 net.cpp:148] Top shape: 10 256 7 7 (125440)
I0714 21:57:30.784104 16217 net.cpp:156] Memory required for data: 529482240
I0714 21:57:30.784114 16217 layer_factory.hpp:77] Creating layer inception_5a/relu_1x1
I0714 21:57:30.784131 16217 net.cpp:91] Creating Layer inception_5a/relu_1x1
I0714 21:57:30.784137 16217 net.cpp:425] inception_5a/relu_1x1 <- inception_5a/1x1
I0714 21:57:30.784145 16217 net.cpp:386] inception_5a/relu_1x1 -> inception_5a/1x1 (in-place)
I0714 21:57:30.784448 16217 net.cpp:141] Setting up inception_5a/relu_1x1
I0714 21:57:30.784461 16217 net.cpp:148] Top shape: 10 256 7 7 (125440)
I0714 21:57:30.784466 16217 net.cpp:156] Memory required for data: 529984000
I0714 21:57:30.784472 16217 layer_factory.hpp:77] Creating layer inception_5a/3x3_reduce
I0714 21:57:30.784492 16217 net.cpp:91] Creating Layer inception_5a/3x3_reduce
I0714 21:57:30.784500 16217 net.cpp:425] inception_5a/3x3_reduce <- pool4/3x3_s2_pool4/3x3_s2_0_split_1
I0714 21:57:30.784509 16217 net.cpp:399] inception_5a/3x3_reduce -> inception_5a/3x3_reduce
I0714 21:57:30.790755 16221 net.cpp:141] Setting up inception_5a/1x1
I0714 21:57:30.790779 16221 net.cpp:148] Top shape: 10 256 7 7 (125440)
I0714 21:57:30.790786 16221 net.cpp:156] Memory required for data: 529482240
I0714 21:57:30.790796 16221 layer_factory.hpp:77] Creating layer inception_5a/relu_1x1
I0714 21:57:30.790810 16221 net.cpp:91] Creating Layer inception_5a/relu_1x1
I0714 21:57:30.790817 16221 net.cpp:425] inception_5a/relu_1x1 <- inception_5a/1x1
I0714 21:57:30.790827 16221 net.cpp:386] inception_5a/relu_1x1 -> inception_5a/1x1 (in-place)
I0714 21:57:30.791163 16217 net.cpp:141] Setting up inception_5a/3x3_reduce
I0714 21:57:30.791180 16217 net.cpp:148] Top shape: 10 160 7 7 (78400)
I0714 21:57:30.791185 16217 net.cpp:156] Memory required for data: 530297600
I0714 21:57:30.791198 16217 layer_factory.hpp:77] Creating layer inception_5a/relu_3x3_reduce
I0714 21:57:30.791209 16217 net.cpp:91] Creating Layer inception_5a/relu_3x3_reduce
I0714 21:57:30.791216 16217 net.cpp:425] inception_5a/relu_3x3_reduce <- inception_5a/3x3_reduce
I0714 21:57:30.791231 16217 net.cpp:386] inception_5a/relu_3x3_reduce -> inception_5a/3x3_reduce (in-place)
I0714 21:57:30.791239 16221 net.cpp:141] Setting up inception_5a/relu_1x1
I0714 21:57:30.791254 16221 net.cpp:148] Top shape: 10 256 7 7 (125440)
I0714 21:57:30.791259 16221 net.cpp:156] Memory required for data: 529984000
I0714 21:57:30.791263 16221 layer_factory.hpp:77] Creating layer inception_5a/3x3_reduce
I0714 21:57:30.791280 16221 net.cpp:91] Creating Layer inception_5a/3x3_reduce
I0714 21:57:30.791288 16221 net.cpp:425] inception_5a/3x3_reduce <- pool4/3x3_s2_pool4/3x3_s2_0_split_1
I0714 21:57:30.791301 16221 net.cpp:399] inception_5a/3x3_reduce -> inception_5a/3x3_reduce
I0714 21:57:30.791687 16217 net.cpp:141] Setting up inception_5a/relu_3x3_reduce
I0714 21:57:30.791699 16217 net.cpp:148] Top shape: 10 160 7 7 (78400)
I0714 21:57:30.791704 16217 net.cpp:156] Memory required for data: 530611200
I0714 21:57:30.791710 16217 layer_factory.hpp:77] Creating layer inception_5a/3x3
I0714 21:57:30.791728 16217 net.cpp:91] Creating Layer inception_5a/3x3
I0714 21:57:30.791734 16217 net.cpp:425] inception_5a/3x3 <- inception_5a/3x3_reduce
I0714 21:57:30.791744 16217 net.cpp:399] inception_5a/3x3 -> inception_5a/3x3
I0714 21:57:30.798890 16221 net.cpp:141] Setting up inception_5a/3x3_reduce
I0714 21:57:30.798914 16221 net.cpp:148] Top shape: 10 160 7 7 (78400)
I0714 21:57:30.798920 16221 net.cpp:156] Memory required for data: 530297600
I0714 21:57:30.798934 16221 layer_factory.hpp:77] Creating layer inception_5a/relu_3x3_reduce
I0714 21:57:30.798949 16221 net.cpp:91] Creating Layer inception_5a/relu_3x3_reduce
I0714 21:57:30.798957 16221 net.cpp:425] inception_5a/relu_3x3_reduce <- inception_5a/3x3_reduce
I0714 21:57:30.798965 16221 net.cpp:386] inception_5a/relu_3x3_reduce -> inception_5a/3x3_reduce (in-place)
I0714 21:57:30.799270 16221 net.cpp:141] Setting up inception_5a/relu_3x3_reduce
I0714 21:57:30.799283 16221 net.cpp:148] Top shape: 10 160 7 7 (78400)
I0714 21:57:30.799288 16221 net.cpp:156] Memory required for data: 530611200
I0714 21:57:30.799293 16221 layer_factory.hpp:77] Creating layer inception_5a/3x3
I0714 21:57:30.799311 16221 net.cpp:91] Creating Layer inception_5a/3x3
I0714 21:57:30.799319 16221 net.cpp:425] inception_5a/3x3 <- inception_5a/3x3_reduce
I0714 21:57:30.799331 16221 net.cpp:399] inception_5a/3x3 -> inception_5a/3x3
I0714 21:57:30.806103 16217 net.cpp:141] Setting up inception_5a/3x3
I0714 21:57:30.806134 16217 net.cpp:148] Top shape: 10 320 7 7 (156800)
I0714 21:57:30.806140 16217 net.cpp:156] Memory required for data: 531238400
I0714 21:57:30.806152 16217 layer_factory.hpp:77] Creating layer inception_5a/relu_3x3
I0714 21:57:30.806164 16217 net.cpp:91] Creating Layer inception_5a/relu_3x3
I0714 21:57:30.806172 16217 net.cpp:425] inception_5a/relu_3x3 <- inception_5a/3x3
I0714 21:57:30.806185 16217 net.cpp:386] inception_5a/relu_3x3 -> inception_5a/3x3 (in-place)
I0714 21:57:30.807548 16217 net.cpp:141] Setting up inception_5a/relu_3x3
I0714 21:57:30.807571 16217 net.cpp:148] Top shape: 10 320 7 7 (156800)
I0714 21:57:30.807577 16217 net.cpp:156] Memory required for data: 531865600
I0714 21:57:30.807584 16217 layer_factory.hpp:77] Creating layer inception_5a/5x5_reduce
I0714 21:57:30.807607 16217 net.cpp:91] Creating Layer inception_5a/5x5_reduce
I0714 21:57:30.807615 16217 net.cpp:425] inception_5a/5x5_reduce <- pool4/3x3_s2_pool4/3x3_s2_0_split_2
I0714 21:57:30.807631 16217 net.cpp:399] inception_5a/5x5_reduce -> inception_5a/5x5_reduce
I0714 21:57:30.811050 16221 net.cpp:141] Setting up inception_5a/3x3
I0714 21:57:30.811075 16221 net.cpp:148] Top shape: 10 320 7 7 (156800)
I0714 21:57:30.811081 16221 net.cpp:156] Memory required for data: 531238400
I0714 21:57:30.811097 16221 layer_factory.hpp:77] Creating layer inception_5a/relu_3x3
I0714 21:57:30.811108 16221 net.cpp:91] Creating Layer inception_5a/relu_3x3
I0714 21:57:30.811115 16221 net.cpp:425] inception_5a/relu_3x3 <- inception_5a/3x3
I0714 21:57:30.811125 16221 net.cpp:386] inception_5a/relu_3x3 -> inception_5a/3x3 (in-place)
I0714 21:57:30.812432 16221 net.cpp:141] Setting up inception_5a/relu_3x3
I0714 21:57:30.812454 16221 net.cpp:148] Top shape: 10 320 7 7 (156800)
I0714 21:57:30.812460 16221 net.cpp:156] Memory required for data: 531865600
I0714 21:57:30.812468 16221 layer_factory.hpp:77] Creating layer inception_5a/5x5_reduce
I0714 21:57:30.812490 16221 net.cpp:91] Creating Layer inception_5a/5x5_reduce
I0714 21:57:30.812499 16221 net.cpp:425] inception_5a/5x5_reduce <- pool4/3x3_s2_pool4/3x3_s2_0_split_2
I0714 21:57:30.812512 16221 net.cpp:399] inception_5a/5x5_reduce -> inception_5a/5x5_reduce
I0714 21:57:30.814664 16217 net.cpp:141] Setting up inception_5a/5x5_reduce
I0714 21:57:30.814708 16217 net.cpp:148] Top shape: 10 32 7 7 (15680)
I0714 21:57:30.814721 16217 net.cpp:156] Memory required for data: 531928320
I0714 21:57:30.814740 16217 layer_factory.hpp:77] Creating layer inception_5a/relu_5x5_reduce
I0714 21:57:30.814769 16217 net.cpp:91] Creating Layer inception_5a/relu_5x5_reduce
I0714 21:57:30.814782 16217 net.cpp:425] inception_5a/relu_5x5_reduce <- inception_5a/5x5_reduce
I0714 21:57:30.814800 16217 net.cpp:386] inception_5a/relu_5x5_reduce -> inception_5a/5x5_reduce (in-place)
I0714 21:57:30.815332 16217 net.cpp:141] Setting up inception_5a/relu_5x5_reduce
I0714 21:57:30.815357 16217 net.cpp:148] Top shape: 10 32 7 7 (15680)
I0714 21:57:30.815367 16217 net.cpp:156] Memory required for data: 531991040
I0714 21:57:30.815378 16217 layer_factory.hpp:77] Creating layer inception_5a/5x5
I0714 21:57:30.815407 16217 net.cpp:91] Creating Layer inception_5a/5x5
I0714 21:57:30.815420 16217 net.cpp:425] inception_5a/5x5 <- inception_5a/5x5_reduce
I0714 21:57:30.815443 16217 net.cpp:399] inception_5a/5x5 -> inception_5a/5x5
I0714 21:57:30.818284 16221 net.cpp:141] Setting up inception_5a/5x5_reduce
I0714 21:57:30.818305 16221 net.cpp:148] Top shape: 10 32 7 7 (15680)
I0714 21:57:30.818310 16221 net.cpp:156] Memory required for data: 531928320
I0714 21:57:30.818322 16221 layer_factory.hpp:77] Creating layer inception_5a/relu_5x5_reduce
I0714 21:57:30.818339 16221 net.cpp:91] Creating Layer inception_5a/relu_5x5_reduce
I0714 21:57:30.818346 16221 net.cpp:425] inception_5a/relu_5x5_reduce <- inception_5a/5x5_reduce
I0714 21:57:30.818354 16221 net.cpp:386] inception_5a/relu_5x5_reduce -> inception_5a/5x5_reduce (in-place)
I0714 21:57:30.818702 16221 net.cpp:141] Setting up inception_5a/relu_5x5_reduce
I0714 21:57:30.818722 16221 net.cpp:148] Top shape: 10 32 7 7 (15680)
I0714 21:57:30.818727 16221 net.cpp:156] Memory required for data: 531991040
I0714 21:57:30.818732 16221 layer_factory.hpp:77] Creating layer inception_5a/5x5
I0714 21:57:30.818754 16221 net.cpp:91] Creating Layer inception_5a/5x5
I0714 21:57:30.818763 16221 net.cpp:425] inception_5a/5x5 <- inception_5a/5x5_reduce
I0714 21:57:30.818773 16221 net.cpp:399] inception_5a/5x5 -> inception_5a/5x5
I0714 21:57:30.823480 16217 net.cpp:141] Setting up inception_5a/5x5
I0714 21:57:30.823504 16217 net.cpp:148] Top shape: 10 128 7 7 (62720)
I0714 21:57:30.823510 16217 net.cpp:156] Memory required for data: 532241920
I0714 21:57:30.823523 16217 layer_factory.hpp:77] Creating layer inception_5a/relu_5x5
I0714 21:57:30.823566 16217 net.cpp:91] Creating Layer inception_5a/relu_5x5
I0714 21:57:30.823575 16217 net.cpp:425] inception_5a/relu_5x5 <- inception_5a/5x5
I0714 21:57:30.823583 16217 net.cpp:386] inception_5a/relu_5x5 -> inception_5a/5x5 (in-place)
I0714 21:57:30.823864 16221 net.cpp:141] Setting up inception_5a/5x5
I0714 21:57:30.823884 16221 net.cpp:148] Top shape: 10 128 7 7 (62720)
I0714 21:57:30.823890 16221 net.cpp:156] Memory required for data: 532241920
I0714 21:57:30.823900 16221 layer_factory.hpp:77] Creating layer inception_5a/relu_5x5
I0714 21:57:30.823938 16221 net.cpp:91] Creating Layer inception_5a/relu_5x5
I0714 21:57:30.823946 16221 net.cpp:425] inception_5a/relu_5x5 <- inception_5a/5x5
I0714 21:57:30.823956 16221 net.cpp:386] inception_5a/relu_5x5 -> inception_5a/5x5 (in-place)
I0714 21:57:30.823968 16217 net.cpp:141] Setting up inception_5a/relu_5x5
I0714 21:57:30.823982 16217 net.cpp:148] Top shape: 10 128 7 7 (62720)
I0714 21:57:30.823987 16217 net.cpp:156] Memory required for data: 532492800
I0714 21:57:30.823993 16217 layer_factory.hpp:77] Creating layer inception_5a/pool
I0714 21:57:30.824007 16217 net.cpp:91] Creating Layer inception_5a/pool
I0714 21:57:30.824014 16217 net.cpp:425] inception_5a/pool <- pool4/3x3_s2_pool4/3x3_s2_0_split_3
I0714 21:57:30.824026 16217 net.cpp:399] inception_5a/pool -> inception_5a/pool
I0714 21:57:30.824280 16217 net.cpp:141] Setting up inception_5a/pool
I0714 21:57:30.824293 16217 net.cpp:148] Top shape: 10 832 7 7 (407680)
I0714 21:57:30.824298 16217 net.cpp:156] Memory required for data: 534123520
I0714 21:57:30.824304 16217 layer_factory.hpp:77] Creating layer inception_5a/pool_proj
I0714 21:57:30.824323 16217 net.cpp:91] Creating Layer inception_5a/pool_proj
I0714 21:57:30.824331 16217 net.cpp:425] inception_5a/pool_proj <- inception_5a/pool
I0714 21:57:30.824342 16217 net.cpp:399] inception_5a/pool_proj -> inception_5a/pool_proj
I0714 21:57:30.824360 16221 net.cpp:141] Setting up inception_5a/relu_5x5
I0714 21:57:30.824374 16221 net.cpp:148] Top shape: 10 128 7 7 (62720)
I0714 21:57:30.824379 16221 net.cpp:156] Memory required for data: 532492800
I0714 21:57:30.824388 16221 layer_factory.hpp:77] Creating layer inception_5a/pool
I0714 21:57:30.824401 16221 net.cpp:91] Creating Layer inception_5a/pool
I0714 21:57:30.824407 16221 net.cpp:425] inception_5a/pool <- pool4/3x3_s2_pool4/3x3_s2_0_split_3
I0714 21:57:30.824419 16221 net.cpp:399] inception_5a/pool -> inception_5a/pool
I0714 21:57:30.824674 16221 net.cpp:141] Setting up inception_5a/pool
I0714 21:57:30.824687 16221 net.cpp:148] Top shape: 10 832 7 7 (407680)
I0714 21:57:30.824692 16221 net.cpp:156] Memory required for data: 534123520
I0714 21:57:30.824697 16221 layer_factory.hpp:77] Creating layer inception_5a/pool_proj
I0714 21:57:30.824717 16221 net.cpp:91] Creating Layer inception_5a/pool_proj
I0714 21:57:30.824724 16221 net.cpp:425] inception_5a/pool_proj <- inception_5a/pool
I0714 21:57:30.824734 16221 net.cpp:399] inception_5a/pool_proj -> inception_5a/pool_proj
I0714 21:57:30.833394 16217 net.cpp:141] Setting up inception_5a/pool_proj
I0714 21:57:30.833426 16217 net.cpp:148] Top shape: 10 128 7 7 (62720)
I0714 21:57:30.833436 16217 net.cpp:156] Memory required for data: 534374400
I0714 21:57:30.833449 16217 layer_factory.hpp:77] Creating layer inception_5a/relu_pool_proj
I0714 21:57:30.833465 16217 net.cpp:91] Creating Layer inception_5a/relu_pool_proj
I0714 21:57:30.833473 16217 net.cpp:425] inception_5a/relu_pool_proj <- inception_5a/pool_proj
I0714 21:57:30.833482 16217 net.cpp:386] inception_5a/relu_pool_proj -> inception_5a/pool_proj (in-place)
I0714 21:57:30.834698 16217 net.cpp:141] Setting up inception_5a/relu_pool_proj
I0714 21:57:30.834720 16217 net.cpp:148] Top shape: 10 128 7 7 (62720)
I0714 21:57:30.834727 16217 net.cpp:156] Memory required for data: 534625280
I0714 21:57:30.834731 16217 layer_factory.hpp:77] Creating layer inception_5a/output
I0714 21:57:30.834741 16217 net.cpp:91] Creating Layer inception_5a/output
I0714 21:57:30.834748 16217 net.cpp:425] inception_5a/output <- inception_5a/1x1
I0714 21:57:30.834756 16217 net.cpp:425] inception_5a/output <- inception_5a/3x3
I0714 21:57:30.834763 16217 net.cpp:425] inception_5a/output <- inception_5a/5x5
I0714 21:57:30.834769 16217 net.cpp:425] inception_5a/output <- inception_5a/pool_proj
I0714 21:57:30.834776 16217 net.cpp:399] inception_5a/output -> inception_5a/output
I0714 21:57:30.834960 16217 net.cpp:141] Setting up inception_5a/output
I0714 21:57:30.834974 16217 net.cpp:148] Top shape: 10 832 7 7 (407680)
I0714 21:57:30.834978 16217 net.cpp:156] Memory required for data: 536256000
I0714 21:57:30.834986 16217 layer_factory.hpp:77] Creating layer inception_5a/output_inception_5a/output_0_split
I0714 21:57:30.834975 16221 net.cpp:141] Setting up inception_5a/pool_proj
I0714 21:57:30.834997 16217 net.cpp:91] Creating Layer inception_5a/output_inception_5a/output_0_split
I0714 21:57:30.835014 16217 net.cpp:425] inception_5a/output_inception_5a/output_0_split <- inception_5a/output
I0714 21:57:30.835018 16221 net.cpp:148] Top shape: 10 128 7 7 (62720)
I0714 21:57:30.835026 16221 net.cpp:156] Memory required for data: 534374400
I0714 21:57:30.835028 16217 net.cpp:399] inception_5a/output_inception_5a/output_0_split -> inception_5a/output_inception_5a/output_0_split_0
I0714 21:57:30.835041 16217 net.cpp:399] inception_5a/output_inception_5a/output_0_split -> inception_5a/output_inception_5a/output_0_split_1
I0714 21:57:30.835049 16217 net.cpp:399] inception_5a/output_inception_5a/output_0_split -> inception_5a/output_inception_5a/output_0_split_2
I0714 21:57:30.835059 16217 net.cpp:399] inception_5a/output_inception_5a/output_0_split -> inception_5a/output_inception_5a/output_0_split_3
I0714 21:57:30.835041 16221 layer_factory.hpp:77] Creating layer inception_5a/relu_pool_proj
I0714 21:57:30.835100 16221 net.cpp:91] Creating Layer inception_5a/relu_pool_proj
I0714 21:57:30.835114 16221 net.cpp:425] inception_5a/relu_pool_proj <- inception_5a/pool_proj
I0714 21:57:30.835132 16221 net.cpp:386] inception_5a/relu_pool_proj -> inception_5a/pool_proj (in-place)
I0714 21:57:30.836130 16217 net.cpp:141] Setting up inception_5a/output_inception_5a/output_0_split
I0714 21:57:30.836143 16217 net.cpp:148] Top shape: 10 832 7 7 (407680)
I0714 21:57:30.836150 16217 net.cpp:148] Top shape: 10 832 7 7 (407680)
I0714 21:57:30.836156 16217 net.cpp:148] Top shape: 10 832 7 7 (407680)
I0714 21:57:30.836163 16217 net.cpp:148] Top shape: 10 832 7 7 (407680)
I0714 21:57:30.836166 16217 net.cpp:156] Memory required for data: 542778880
I0714 21:57:30.836172 16217 layer_factory.hpp:77] Creating layer inception_5b/1x1
I0714 21:57:30.836191 16217 net.cpp:91] Creating Layer inception_5b/1x1
I0714 21:57:30.836199 16217 net.cpp:425] inception_5b/1x1 <- inception_5a/output_inception_5a/output_0_split_0
I0714 21:57:30.836212 16217 net.cpp:399] inception_5b/1x1 -> inception_5b/1x1
I0714 21:57:30.836236 16221 net.cpp:141] Setting up inception_5a/relu_pool_proj
I0714 21:57:30.836251 16221 net.cpp:148] Top shape: 10 128 7 7 (62720)
I0714 21:57:30.836257 16221 net.cpp:156] Memory required for data: 534625280
I0714 21:57:30.836263 16221 layer_factory.hpp:77] Creating layer inception_5a/output
I0714 21:57:30.836272 16221 net.cpp:91] Creating Layer inception_5a/output
I0714 21:57:30.836279 16221 net.cpp:425] inception_5a/output <- inception_5a/1x1
I0714 21:57:30.836287 16221 net.cpp:425] inception_5a/output <- inception_5a/3x3
I0714 21:57:30.836293 16221 net.cpp:425] inception_5a/output <- inception_5a/5x5
I0714 21:57:30.836299 16221 net.cpp:425] inception_5a/output <- inception_5a/pool_proj
I0714 21:57:30.836311 16221 net.cpp:399] inception_5a/output -> inception_5a/output
I0714 21:57:30.836527 16221 net.cpp:141] Setting up inception_5a/output
I0714 21:57:30.836541 16221 net.cpp:148] Top shape: 10 832 7 7 (407680)
I0714 21:57:30.836546 16221 net.cpp:156] Memory required for data: 536256000
I0714 21:57:30.836554 16221 layer_factory.hpp:77] Creating layer inception_5a/output_inception_5a/output_0_split
I0714 21:57:30.836562 16221 net.cpp:91] Creating Layer inception_5a/output_inception_5a/output_0_split
I0714 21:57:30.836568 16221 net.cpp:425] inception_5a/output_inception_5a/output_0_split <- inception_5a/output
I0714 21:57:30.836581 16221 net.cpp:399] inception_5a/output_inception_5a/output_0_split -> inception_5a/output_inception_5a/output_0_split_0
I0714 21:57:30.836592 16221 net.cpp:399] inception_5a/output_inception_5a/output_0_split -> inception_5a/output_inception_5a/output_0_split_1
I0714 21:57:30.836602 16221 net.cpp:399] inception_5a/output_inception_5a/output_0_split -> inception_5a/output_inception_5a/output_0_split_2
I0714 21:57:30.836614 16221 net.cpp:399] inception_5a/output_inception_5a/output_0_split -> inception_5a/output_inception_5a/output_0_split_3
I0714 21:57:30.838439 16221 net.cpp:141] Setting up inception_5a/output_inception_5a/output_0_split
I0714 21:57:30.838460 16221 net.cpp:148] Top shape: 10 832 7 7 (407680)
I0714 21:57:30.838467 16221 net.cpp:148] Top shape: 10 832 7 7 (407680)
I0714 21:57:30.838474 16221 net.cpp:148] Top shape: 10 832 7 7 (407680)
I0714 21:57:30.838481 16221 net.cpp:148] Top shape: 10 832 7 7 (407680)
I0714 21:57:30.838485 16221 net.cpp:156] Memory required for data: 542778880
I0714 21:57:30.838490 16221 layer_factory.hpp:77] Creating layer inception_5b/1x1
I0714 21:57:30.838510 16221 net.cpp:91] Creating Layer inception_5b/1x1
I0714 21:57:30.838516 16221 net.cpp:425] inception_5b/1x1 <- inception_5a/output_inception_5a/output_0_split_0
I0714 21:57:30.838526 16221 net.cpp:399] inception_5b/1x1 -> inception_5b/1x1
I0714 21:57:30.844565 16217 net.cpp:141] Setting up inception_5b/1x1
I0714 21:57:30.844593 16217 net.cpp:148] Top shape: 10 384 7 7 (188160)
I0714 21:57:30.844599 16217 net.cpp:156] Memory required for data: 543531520
I0714 21:57:30.844609 16217 layer_factory.hpp:77] Creating layer inception_5b/relu_1x1
I0714 21:57:30.844629 16217 net.cpp:91] Creating Layer inception_5b/relu_1x1
I0714 21:57:30.844636 16217 net.cpp:425] inception_5b/relu_1x1 <- inception_5b/1x1
I0714 21:57:30.844646 16217 net.cpp:386] inception_5b/relu_1x1 -> inception_5b/1x1 (in-place)
I0714 21:57:30.844995 16217 net.cpp:141] Setting up inception_5b/relu_1x1
I0714 21:57:30.845008 16217 net.cpp:148] Top shape: 10 384 7 7 (188160)
I0714 21:57:30.845013 16217 net.cpp:156] Memory required for data: 544284160
I0714 21:57:30.845018 16217 layer_factory.hpp:77] Creating layer inception_5b/3x3_reduce
I0714 21:57:30.845039 16217 net.cpp:91] Creating Layer inception_5b/3x3_reduce
I0714 21:57:30.845047 16217 net.cpp:425] inception_5b/3x3_reduce <- inception_5a/output_inception_5a/output_0_split_1
I0714 21:57:30.845060 16217 net.cpp:399] inception_5b/3x3_reduce -> inception_5b/3x3_reduce
I0714 21:57:30.849512 16221 net.cpp:141] Setting up inception_5b/1x1
I0714 21:57:30.849539 16221 net.cpp:148] Top shape: 10 384 7 7 (188160)
I0714 21:57:30.849545 16221 net.cpp:156] Memory required for data: 543531520
I0714 21:57:30.849560 16221 layer_factory.hpp:77] Creating layer inception_5b/relu_1x1
I0714 21:57:30.849575 16221 net.cpp:91] Creating Layer inception_5b/relu_1x1
I0714 21:57:30.849583 16221 net.cpp:425] inception_5b/relu_1x1 <- inception_5b/1x1
I0714 21:57:30.849596 16221 net.cpp:386] inception_5b/relu_1x1 -> inception_5b/1x1 (in-place)
I0714 21:57:30.849928 16221 net.cpp:141] Setting up inception_5b/relu_1x1
I0714 21:57:30.849942 16221 net.cpp:148] Top shape: 10 384 7 7 (188160)
I0714 21:57:30.849947 16221 net.cpp:156] Memory required for data: 544284160
I0714 21:57:30.849953 16221 layer_factory.hpp:77] Creating layer inception_5b/3x3_reduce
I0714 21:57:30.849975 16221 net.cpp:91] Creating Layer inception_5b/3x3_reduce
I0714 21:57:30.849985 16221 net.cpp:425] inception_5b/3x3_reduce <- inception_5a/output_inception_5a/output_0_split_1
I0714 21:57:30.849995 16221 net.cpp:399] inception_5b/3x3_reduce -> inception_5b/3x3_reduce
I0714 21:57:30.856474 16217 net.cpp:141] Setting up inception_5b/3x3_reduce
I0714 21:57:30.856501 16217 net.cpp:148] Top shape: 10 192 7 7 (94080)
I0714 21:57:30.856508 16217 net.cpp:156] Memory required for data: 544660480
I0714 21:57:30.856518 16217 layer_factory.hpp:77] Creating layer inception_5b/relu_3x3_reduce
I0714 21:57:30.856530 16217 net.cpp:91] Creating Layer inception_5b/relu_3x3_reduce
I0714 21:57:30.856539 16217 net.cpp:425] inception_5b/relu_3x3_reduce <- inception_5b/3x3_reduce
I0714 21:57:30.856546 16217 net.cpp:386] inception_5b/relu_3x3_reduce -> inception_5b/3x3_reduce (in-place)
I0714 21:57:30.856887 16217 net.cpp:141] Setting up inception_5b/relu_3x3_reduce
I0714 21:57:30.856900 16217 net.cpp:148] Top shape: 10 192 7 7 (94080)
I0714 21:57:30.856906 16217 net.cpp:156] Memory required for data: 545036800
I0714 21:57:30.856911 16217 layer_factory.hpp:77] Creating layer inception_5b/3x3
I0714 21:57:30.856935 16217 net.cpp:91] Creating Layer inception_5b/3x3
I0714 21:57:30.856941 16217 net.cpp:425] inception_5b/3x3 <- inception_5b/3x3_reduce
I0714 21:57:30.856955 16217 net.cpp:399] inception_5b/3x3 -> inception_5b/3x3
I0714 21:57:30.860980 16221 net.cpp:141] Setting up inception_5b/3x3_reduce
I0714 21:57:30.861006 16221 net.cpp:148] Top shape: 10 192 7 7 (94080)
I0714 21:57:30.861012 16221 net.cpp:156] Memory required for data: 544660480
I0714 21:57:30.861024 16221 layer_factory.hpp:77] Creating layer inception_5b/relu_3x3_reduce
I0714 21:57:30.861035 16221 net.cpp:91] Creating Layer inception_5b/relu_3x3_reduce
I0714 21:57:30.861042 16221 net.cpp:425] inception_5b/relu_3x3_reduce <- inception_5b/3x3_reduce
I0714 21:57:30.861055 16221 net.cpp:386] inception_5b/relu_3x3_reduce -> inception_5b/3x3_reduce (in-place)
I0714 21:57:30.861377 16221 net.cpp:141] Setting up inception_5b/relu_3x3_reduce
I0714 21:57:30.861393 16221 net.cpp:148] Top shape: 10 192 7 7 (94080)
I0714 21:57:30.861398 16221 net.cpp:156] Memory required for data: 545036800
I0714 21:57:30.861404 16221 layer_factory.hpp:77] Creating layer inception_5b/3x3
I0714 21:57:30.861426 16221 net.cpp:91] Creating Layer inception_5b/3x3
I0714 21:57:30.861434 16221 net.cpp:425] inception_5b/3x3 <- inception_5b/3x3_reduce
I0714 21:57:30.861451 16221 net.cpp:399] inception_5b/3x3 -> inception_5b/3x3
I0714 21:57:30.869984 16217 net.cpp:141] Setting up inception_5b/3x3
I0714 21:57:30.870023 16217 net.cpp:148] Top shape: 10 384 7 7 (188160)
I0714 21:57:30.870029 16217 net.cpp:156] Memory required for data: 545789440
I0714 21:57:30.870043 16217 layer_factory.hpp:77] Creating layer inception_5b/relu_3x3
I0714 21:57:30.870060 16217 net.cpp:91] Creating Layer inception_5b/relu_3x3
I0714 21:57:30.870070 16217 net.cpp:425] inception_5b/relu_3x3 <- inception_5b/3x3
I0714 21:57:30.870080 16217 net.cpp:386] inception_5b/relu_3x3 -> inception_5b/3x3 (in-place)
I0714 21:57:30.871197 16217 net.cpp:141] Setting up inception_5b/relu_3x3
I0714 21:57:30.871214 16217 net.cpp:148] Top shape: 10 384 7 7 (188160)
I0714 21:57:30.871220 16217 net.cpp:156] Memory required for data: 546542080
I0714 21:57:30.871225 16217 layer_factory.hpp:77] Creating layer inception_5b/5x5_reduce
I0714 21:57:30.871255 16217 net.cpp:91] Creating Layer inception_5b/5x5_reduce
I0714 21:57:30.871264 16217 net.cpp:425] inception_5b/5x5_reduce <- inception_5a/output_inception_5a/output_0_split_2
I0714 21:57:30.871275 16217 net.cpp:399] inception_5b/5x5_reduce -> inception_5b/5x5_reduce
I0714 21:57:30.874344 16221 net.cpp:141] Setting up inception_5b/3x3
I0714 21:57:30.874366 16221 net.cpp:148] Top shape: 10 384 7 7 (188160)
I0714 21:57:30.874372 16221 net.cpp:156] Memory required for data: 545789440
I0714 21:57:30.874383 16221 layer_factory.hpp:77] Creating layer inception_5b/relu_3x3
I0714 21:57:30.874393 16221 net.cpp:91] Creating Layer inception_5b/relu_3x3
I0714 21:57:30.874402 16221 net.cpp:425] inception_5b/relu_3x3 <- inception_5b/3x3
I0714 21:57:30.874418 16221 net.cpp:386] inception_5b/relu_3x3 -> inception_5b/3x3 (in-place)
I0714 21:57:30.875432 16221 net.cpp:141] Setting up inception_5b/relu_3x3
I0714 21:57:30.875452 16221 net.cpp:148] Top shape: 10 384 7 7 (188160)
I0714 21:57:30.875457 16221 net.cpp:156] Memory required for data: 546542080
I0714 21:57:30.875463 16221 layer_factory.hpp:77] Creating layer inception_5b/5x5_reduce
I0714 21:57:30.875484 16221 net.cpp:91] Creating Layer inception_5b/5x5_reduce
I0714 21:57:30.875493 16221 net.cpp:425] inception_5b/5x5_reduce <- inception_5a/output_inception_5a/output_0_split_2
I0714 21:57:30.875507 16221 net.cpp:399] inception_5b/5x5_reduce -> inception_5b/5x5_reduce
I0714 21:57:30.877739 16217 net.cpp:141] Setting up inception_5b/5x5_reduce
I0714 21:57:30.877759 16217 net.cpp:148] Top shape: 10 48 7 7 (23520)
I0714 21:57:30.877764 16217 net.cpp:156] Memory required for data: 546636160
I0714 21:57:30.877775 16217 layer_factory.hpp:77] Creating layer inception_5b/relu_5x5_reduce
I0714 21:57:30.877790 16217 net.cpp:91] Creating Layer inception_5b/relu_5x5_reduce
I0714 21:57:30.877797 16217 net.cpp:425] inception_5b/relu_5x5_reduce <- inception_5b/5x5_reduce
I0714 21:57:30.877805 16217 net.cpp:386] inception_5b/relu_5x5_reduce -> inception_5b/5x5_reduce (in-place)
I0714 21:57:30.878188 16217 net.cpp:141] Setting up inception_5b/relu_5x5_reduce
I0714 21:57:30.878208 16217 net.cpp:148] Top shape: 10 48 7 7 (23520)
I0714 21:57:30.878213 16217 net.cpp:156] Memory required for data: 546730240
I0714 21:57:30.878219 16217 layer_factory.hpp:77] Creating layer inception_5b/5x5
I0714 21:57:30.878234 16217 net.cpp:91] Creating Layer inception_5b/5x5
I0714 21:57:30.878242 16217 net.cpp:425] inception_5b/5x5 <- inception_5b/5x5_reduce
I0714 21:57:30.878254 16217 net.cpp:399] inception_5b/5x5 -> inception_5b/5x5
I0714 21:57:30.881237 16221 net.cpp:141] Setting up inception_5b/5x5_reduce
I0714 21:57:30.881270 16221 net.cpp:148] Top shape: 10 48 7 7 (23520)
I0714 21:57:30.881275 16221 net.cpp:156] Memory required for data: 546636160
I0714 21:57:30.881286 16221 layer_factory.hpp:77] Creating layer inception_5b/relu_5x5_reduce
I0714 21:57:30.881301 16221 net.cpp:91] Creating Layer inception_5b/relu_5x5_reduce
I0714 21:57:30.881309 16221 net.cpp:425] inception_5b/relu_5x5_reduce <- inception_5b/5x5_reduce
I0714 21:57:30.881320 16221 net.cpp:386] inception_5b/relu_5x5_reduce -> inception_5b/5x5_reduce (in-place)
I0714 21:57:30.881628 16221 net.cpp:141] Setting up inception_5b/relu_5x5_reduce
I0714 21:57:30.881640 16221 net.cpp:148] Top shape: 10 48 7 7 (23520)
I0714 21:57:30.881645 16221 net.cpp:156] Memory required for data: 546730240
I0714 21:57:30.881650 16221 layer_factory.hpp:77] Creating layer inception_5b/5x5
I0714 21:57:30.881669 16221 net.cpp:91] Creating Layer inception_5b/5x5
I0714 21:57:30.881676 16221 net.cpp:425] inception_5b/5x5 <- inception_5b/5x5_reduce
I0714 21:57:30.881690 16221 net.cpp:399] inception_5b/5x5 -> inception_5b/5x5
I0714 21:57:30.887691 16217 net.cpp:141] Setting up inception_5b/5x5
I0714 21:57:30.887723 16217 net.cpp:148] Top shape: 10 128 7 7 (62720)
I0714 21:57:30.887729 16217 net.cpp:156] Memory required for data: 546981120
I0714 21:57:30.887742 16217 layer_factory.hpp:77] Creating layer inception_5b/relu_5x5
I0714 21:57:30.887761 16217 net.cpp:91] Creating Layer inception_5b/relu_5x5
I0714 21:57:30.887770 16217 net.cpp:425] inception_5b/relu_5x5 <- inception_5b/5x5
I0714 21:57:30.887780 16217 net.cpp:386] inception_5b/relu_5x5 -> inception_5b/5x5 (in-place)
I0714 21:57:30.888165 16217 net.cpp:141] Setting up inception_5b/relu_5x5
I0714 21:57:30.888182 16217 net.cpp:148] Top shape: 10 128 7 7 (62720)
I0714 21:57:30.888188 16217 net.cpp:156] Memory required for data: 547232000
I0714 21:57:30.888193 16217 layer_factory.hpp:77] Creating layer inception_5b/pool
I0714 21:57:30.888206 16217 net.cpp:91] Creating Layer inception_5b/pool
I0714 21:57:30.888212 16217 net.cpp:425] inception_5b/pool <- inception_5a/output_inception_5a/output_0_split_3
I0714 21:57:30.888224 16217 net.cpp:399] inception_5b/pool -> inception_5b/pool
I0714 21:57:30.889101 16217 net.cpp:141] Setting up inception_5b/pool
I0714 21:57:30.889116 16217 net.cpp:148] Top shape: 10 832 7 7 (407680)
I0714 21:57:30.889120 16217 net.cpp:156] Memory required for data: 548862720
I0714 21:57:30.889127 16217 layer_factory.hpp:77] Creating layer inception_5b/pool_proj
I0714 21:57:30.889159 16217 net.cpp:91] Creating Layer inception_5b/pool_proj
I0714 21:57:30.889168 16217 net.cpp:425] inception_5b/pool_proj <- inception_5b/pool
I0714 21:57:30.889178 16217 net.cpp:399] inception_5b/pool_proj -> inception_5b/pool_proj
I0714 21:57:30.889932 16221 net.cpp:141] Setting up inception_5b/5x5
I0714 21:57:30.889952 16221 net.cpp:148] Top shape: 10 128 7 7 (62720)
I0714 21:57:30.889958 16221 net.cpp:156] Memory required for data: 546981120
I0714 21:57:30.889969 16221 layer_factory.hpp:77] Creating layer inception_5b/relu_5x5
I0714 21:57:30.889981 16221 net.cpp:91] Creating Layer inception_5b/relu_5x5
I0714 21:57:30.889989 16221 net.cpp:425] inception_5b/relu_5x5 <- inception_5b/5x5
I0714 21:57:30.889997 16221 net.cpp:386] inception_5b/relu_5x5 -> inception_5b/5x5 (in-place)
I0714 21:57:30.890888 16221 net.cpp:141] Setting up inception_5b/relu_5x5
I0714 21:57:30.890905 16221 net.cpp:148] Top shape: 10 128 7 7 (62720)
I0714 21:57:30.890911 16221 net.cpp:156] Memory required for data: 547232000
I0714 21:57:30.890916 16221 layer_factory.hpp:77] Creating layer inception_5b/pool
I0714 21:57:30.890929 16221 net.cpp:91] Creating Layer inception_5b/pool
I0714 21:57:30.890936 16221 net.cpp:425] inception_5b/pool <- inception_5a/output_inception_5a/output_0_split_3
I0714 21:57:30.890945 16221 net.cpp:399] inception_5b/pool -> inception_5b/pool
I0714 21:57:30.892650 16221 net.cpp:141] Setting up inception_5b/pool
I0714 21:57:30.892668 16221 net.cpp:148] Top shape: 10 832 7 7 (407680)
I0714 21:57:30.892673 16221 net.cpp:156] Memory required for data: 548862720
I0714 21:57:30.892679 16221 layer_factory.hpp:77] Creating layer inception_5b/pool_proj
I0714 21:57:30.892698 16221 net.cpp:91] Creating Layer inception_5b/pool_proj
I0714 21:57:30.892704 16221 net.cpp:425] inception_5b/pool_proj <- inception_5b/pool
I0714 21:57:30.892719 16221 net.cpp:399] inception_5b/pool_proj -> inception_5b/pool_proj
I0714 21:57:30.898829 16217 net.cpp:141] Setting up inception_5b/pool_proj
I0714 21:57:30.898855 16217 net.cpp:148] Top shape: 10 128 7 7 (62720)
I0714 21:57:30.898869 16217 net.cpp:156] Memory required for data: 549113600
I0714 21:57:30.898880 16217 layer_factory.hpp:77] Creating layer inception_5b/relu_pool_proj
I0714 21:57:30.898895 16217 net.cpp:91] Creating Layer inception_5b/relu_pool_proj
I0714 21:57:30.898902 16217 net.cpp:425] inception_5b/relu_pool_proj <- inception_5b/pool_proj
I0714 21:57:30.898911 16217 net.cpp:386] inception_5b/relu_pool_proj -> inception_5b/pool_proj (in-place)
I0714 21:57:30.900023 16217 net.cpp:141] Setting up inception_5b/relu_pool_proj
I0714 21:57:30.900050 16217 net.cpp:148] Top shape: 10 128 7 7 (62720)
I0714 21:57:30.900055 16217 net.cpp:156] Memory required for data: 549364480
I0714 21:57:30.900060 16217 layer_factory.hpp:77] Creating layer inception_5b/output
I0714 21:57:30.900071 16217 net.cpp:91] Creating Layer inception_5b/output
I0714 21:57:30.900077 16217 net.cpp:425] inception_5b/output <- inception_5b/1x1
I0714 21:57:30.900085 16217 net.cpp:425] inception_5b/output <- inception_5b/3x3
I0714 21:57:30.900091 16217 net.cpp:425] inception_5b/output <- inception_5b/5x5
I0714 21:57:30.900096 16217 net.cpp:425] inception_5b/output <- inception_5b/pool_proj
I0714 21:57:30.900104 16217 net.cpp:399] inception_5b/output -> inception_5b/output
I0714 21:57:30.900115 16221 net.cpp:141] Setting up inception_5b/pool_proj
I0714 21:57:30.900131 16221 net.cpp:148] Top shape: 10 128 7 7 (62720)
I0714 21:57:30.900136 16221 net.cpp:156] Memory required for data: 549113600
I0714 21:57:30.900147 16221 layer_factory.hpp:77] Creating layer inception_5b/relu_pool_proj
I0714 21:57:30.900168 16221 net.cpp:91] Creating Layer inception_5b/relu_pool_proj
I0714 21:57:30.900176 16221 net.cpp:425] inception_5b/relu_pool_proj <- inception_5b/pool_proj
I0714 21:57:30.900187 16221 net.cpp:386] inception_5b/relu_pool_proj -> inception_5b/pool_proj (in-place)
I0714 21:57:30.900215 16217 net.cpp:141] Setting up inception_5b/output
I0714 21:57:30.900228 16217 net.cpp:148] Top shape: 10 1024 7 7 (501760)
I0714 21:57:30.900233 16217 net.cpp:156] Memory required for data: 551371520
I0714 21:57:30.900238 16217 layer_factory.hpp:77] Creating layer pool5/7x7_s1
I0714 21:57:30.900248 16217 net.cpp:91] Creating Layer pool5/7x7_s1
I0714 21:57:30.900252 16217 net.cpp:425] pool5/7x7_s1 <- inception_5b/output
I0714 21:57:30.900264 16217 net.cpp:399] pool5/7x7_s1 -> pool5/7x7_s1
I0714 21:57:30.901024 16217 net.cpp:141] Setting up pool5/7x7_s1
I0714 21:57:30.901037 16217 net.cpp:148] Top shape: 10 1024 1 1 (10240)
I0714 21:57:30.901042 16217 net.cpp:156] Memory required for data: 551412480
I0714 21:57:30.901047 16217 layer_factory.hpp:77] Creating layer pool5/drop_7x7_s1
I0714 21:57:30.901064 16217 net.cpp:91] Creating Layer pool5/drop_7x7_s1
I0714 21:57:30.901070 16217 net.cpp:425] pool5/drop_7x7_s1 <- pool5/7x7_s1
I0714 21:57:30.901077 16217 net.cpp:386] pool5/drop_7x7_s1 -> pool5/7x7_s1 (in-place)
I0714 21:57:30.901144 16221 net.cpp:141] Setting up inception_5b/relu_pool_proj
I0714 21:57:30.901159 16221 net.cpp:148] Top shape: 10 128 7 7 (62720)
I0714 21:57:30.901165 16221 net.cpp:156] Memory required for data: 549364480
I0714 21:57:30.901171 16221 layer_factory.hpp:77] Creating layer inception_5b/output
I0714 21:57:30.901180 16221 net.cpp:91] Creating Layer inception_5b/output
I0714 21:57:30.901186 16221 net.cpp:425] inception_5b/output <- inception_5b/1x1
I0714 21:57:30.901185 16217 net.cpp:141] Setting up pool5/drop_7x7_s1
I0714 21:57:30.901197 16221 net.cpp:425] inception_5b/output <- inception_5b/3x3
I0714 21:57:30.901199 16217 net.cpp:148] Top shape: 10 1024 1 1 (10240)
I0714 21:57:30.901204 16217 net.cpp:156] Memory required for data: 551453440
I0714 21:57:30.901204 16221 net.cpp:425] inception_5b/output <- inception_5b/5x5
I0714 21:57:30.901216 16217 layer_factory.hpp:77] Creating layer loss3/classifier
I0714 21:57:30.901221 16221 net.cpp:425] inception_5b/output <- inception_5b/pool_proj
I0714 21:57:30.901229 16221 net.cpp:399] inception_5b/output -> inception_5b/output
I0714 21:57:30.901233 16217 net.cpp:91] Creating Layer loss3/classifier
I0714 21:57:30.901239 16217 net.cpp:425] loss3/classifier <- pool5/7x7_s1
I0714 21:57:30.901252 16217 net.cpp:399] loss3/classifier -> loss3/classifier
I0714 21:57:30.901372 16221 net.cpp:141] Setting up inception_5b/output
I0714 21:57:30.901386 16221 net.cpp:148] Top shape: 10 1024 7 7 (501760)
I0714 21:57:30.901391 16221 net.cpp:156] Memory required for data: 551371520
I0714 21:57:30.901396 16221 layer_factory.hpp:77] Creating layer pool5/7x7_s1
I0714 21:57:30.901409 16221 net.cpp:91] Creating Layer pool5/7x7_s1
I0714 21:57:30.901415 16221 net.cpp:425] pool5/7x7_s1 <- inception_5b/output
I0714 21:57:30.901424 16221 net.cpp:399] pool5/7x7_s1 -> pool5/7x7_s1
I0714 21:57:30.904414 16221 net.cpp:141] Setting up pool5/7x7_s1
I0714 21:57:30.904436 16221 net.cpp:148] Top shape: 10 1024 1 1 (10240)
I0714 21:57:30.904441 16221 net.cpp:156] Memory required for data: 551412480
I0714 21:57:30.904448 16221 layer_factory.hpp:77] Creating layer pool5/drop_7x7_s1
I0714 21:57:30.904458 16221 net.cpp:91] Creating Layer pool5/drop_7x7_s1
I0714 21:57:30.904465 16221 net.cpp:425] pool5/drop_7x7_s1 <- pool5/7x7_s1
I0714 21:57:30.904472 16221 net.cpp:386] pool5/drop_7x7_s1 -> pool5/7x7_s1 (in-place)
I0714 21:57:30.905190 16221 net.cpp:141] Setting up pool5/drop_7x7_s1
I0714 21:57:30.905206 16221 net.cpp:148] Top shape: 10 1024 1 1 (10240)
I0714 21:57:30.905211 16221 net.cpp:156] Memory required for data: 551453440
I0714 21:57:30.905216 16221 layer_factory.hpp:77] Creating layer loss3/classifier
I0714 21:57:30.905233 16221 net.cpp:91] Creating Layer loss3/classifier
I0714 21:57:30.905239 16221 net.cpp:425] loss3/classifier <- pool5/7x7_s1
I0714 21:57:30.905256 16221 net.cpp:399] loss3/classifier -> loss3/classifier
I0714 21:57:30.914551 16217 net.cpp:141] Setting up loss3/classifier
I0714 21:57:30.914592 16217 net.cpp:148] Top shape: 10 1000 (10000)
I0714 21:57:30.914597 16217 net.cpp:156] Memory required for data: 551493440
I0714 21:57:30.914610 16217 layer_factory.hpp:77] Creating layer prob
I0714 21:57:30.914626 16217 net.cpp:91] Creating Layer prob
I0714 21:57:30.914644 16217 net.cpp:425] prob <- loss3/classifier
I0714 21:57:30.914655 16217 net.cpp:399] prob -> prob
I0714 21:57:30.916775 16217 net.cpp:141] Setting up prob
I0714 21:57:30.916795 16217 net.cpp:148] Top shape: 10 1000 (10000)
I0714 21:57:30.916800 16217 net.cpp:156] Memory required for data: 551533440
I0714 21:57:30.916806 16217 net.cpp:219] prob does not need backward computation.
I0714 21:57:30.916812 16217 net.cpp:219] loss3/classifier does not need backward computation.
I0714 21:57:30.916818 16217 net.cpp:219] pool5/drop_7x7_s1 does not need backward computation.
I0714 21:57:30.916823 16217 net.cpp:219] pool5/7x7_s1 does not need backward computation.
…
