…
Java HotSpot(TM) 64-Bit Server VM warning: You have loaded library /home/peifeng/work/run/storm102/data/workers/29c5194f-88e5-49a5-9d72-dda0f5a6a9bd/tmp/cvld5566800454658860499/libopencv_java310.xine1.so which might have disabled stack guard. The VM will try to fix the stack guard now.
It's highly recommended that you fix the library with 'execstack -c <libfile>', or link it with '-z noexecstack'.
WARNING: Logging before InitGoogleLogging() is written to STDERR
I0913 19:53:52.055747 30535 net.cpp:49] Initializing net from parameters: 
name: "GoogleNet"
state {
  phase: TEST
}
layer {
  name: "data"
  type: "Input"
  top: "data"
  input_param {
    shape {
      dim: 10
      dim: 3
      dim: 224
      dim: 224
    }
  }
}
layer {
  name: "conv1/7x7_s2"
  type: "Convolution"
  bottom: "data"
  top: "conv1/7x7_s2"
  param {
    lr_mult: 1
    decay_mult: 1
  }
  param {
    lr_mult: 2
    decay_mult: 0
  }
  convolution_param {
    num_output: 64
    pad: 3
    kernel_size: 7
    stride: 2
    weight_filler {
      type: "xavier"
      std: 0.1
    }
    bias_filler {
      type: "constant"
      value: 0.2
    }
  }
}
layer {
  name: "conv1/relu_7x7"
  type: "ReLU"
  bottom: "conv1/7x7_s2"
  top: "conv1/7x7_s2"
}
layer {
  name: "pool1/3x3_s2"
  type: "Pooling"
  bottom: "conv1/7x7_s2"
  top: "pool1/3x3_s2"
  pooling_param {
    pool: MAX
    kernel_size: 3
    stride: 2
  }
}
layer {
  name: "pool1/norm1"
  type: "LRN"
  bottom: "pool1/3x3_s2"
  top: "pool1/norm1"
  lrn_param {
    local_size: 5
    alpha: 0.0001
    beta: 0.75
  }
}
layer {
  name: "conv2/3x3_reduce"
  type: "Convolution"
  bottom: "pool1/norm1"
  top: "conv2/3x3_reduce"
  param {
    lr_mult: 1
    decay_mult: 1
  }
  param {
    lr_mult: 2
    decay_mult: 0
  }
  convolution_param {
    num_output: 64
    kernel_size: 1
    weight_filler {
      type: "xavier"
      std: 0.1
    }
    bias_filler {
      type: "constant"
      value: 0.2
    }
  }
}
layer {
  name: "conv2/relu_3x3_reduce"
  type: "ReLU"
  bottom: "conv2/3x3_reduce"
  top: "conv2/3x3_reduce"
}
layer {
  name: "conv2/3x3"
  type: "Convolution"
  bottom: "conv2/3x3_reduce"
  top: "conv2/3x3"
  param {
    lr_mult: 1
    decay_mult: 1
  }
  param {
    lr_mult: 2
    decay_mult: 0
  }
  convolution_param {
    num_output: 192
    pad: 1
    kernel_size: 3
    weight_filler {
      type: "xavier"
      std: 0.03
    }
    bias_filler {
      type: "constant"
      value: 0.2
    }
  }
}
layer {
  name: "conv2/relu_3x3"
  type: "ReLU"
  bottom: "conv2/3x3"
  top: "conv2/3x3"
}
layer {
  name: "conv2/norm2"
  type: "LRN"
  bottom: "conv2/3x3"
  top: "conv2/norm2"
  lrn_param {
    local_size: 5
    alpha: 0.0001
    beta: 0.75
  }
}
layer {
  name: "pool2/3x3_s2"
  type: "Pooling"
  bottom: "conv2/norm2"
  top: "pool2/3x3_s2"
  pooling_param {
    pool: MAX
    kernel_size: 3
    stride: 2
  }
}
layer {
  name: "inception_3a/1x1"
  type: "Convolution"
  bottom: "pool2/3x3_s2"
  top: "inception_3a/1x1"
  param {
    lr_mult: 1
    decay_mult: 1
  }
  param {
    lr_mult: 2
    decay_mult: 0
  }
  convolution_param {
    num_output: 64
    kernel_size: 1
    weight_filler {
      type: "xavier"
      std: 0.03
    }
    bias_filler {
      type: "constant"
      value: 0.2
    }
  }
}
layer {
  name: "inception_3a/relu_1x1"
  type: "ReLU"
  bottom: "inception_3a/1x1"
  top: "inception_3a/1x1"
}
layer {
  name: "inception_3a/3x3_reduce"
  type: "Convolution"
  bottom: "pool2/3x3_s2"
  top: "inception_3a/3x3_reduce"
  param {
    lr_mult: 1
    decay_mult: 1
  }
  param {
    lr_mult: 2
    decay_mult: 0
  }
  convolution_param {
    num_output: 96
    kernel_size: 1
    weight_filler {
      type: "xavier"
      std: 0.09
    }
    bias_filler {
      type: "constant"
      value: 0.2
    }
  }
}
layer {
  name: "inception_3a/relu_3x3_reduce"
  type: "ReLU"
  bottom: "inception_3a/3x3_reduce"
  top: "inception_3a/3x3_reduce"
}
layer {
  name: "inception_3a/3x3"
  type: "Convolution"
  bottom: "inception_3a/3x3_reduce"
  top: "inception_3a/3x3"
  param {
    lr_mult: 1
    decay_mult: 1
  }
  param {
    lr_mult: 2
    decay_mult: 0
  }
  convolution_param {
    num_output: 128
    pad: 1
    kernel_size: 3
    weight_filler {
      type: "xavier"
      std: 0.03
    }
    bias_filler {
      type: "constant"
      value: 0.2
    }
  }
}
layer {
  name: "inception_3a/relu_3x3"
  type: "ReLU"
  bottom: "inception_3a/3x3"
  top: "inception_3a/3x3"
}
layer {
  name: "inception_3a/5x5_reduce"
  type: "Convolution"
  bottom: "pool2/3x3_s2"
  top: "inception_3a/5x5_reduce"
  param {
    lr_mult: 1
    decay_mult: 1
  }
  param {
    lr_mult: 2
    decay_mult: 0
  }
  convolution_param {
    num_output: 16
    kernel_size: 1
    weight_filler {
      type: "xavier"
      std: 0.2
    }
    bias_filler {
      type: "constant"
      value: 0.2
    }
  }
}
layer {
  name: "inception_3a/relu_5x5_reduce"
  type: "ReLU"
  bottom: "inception_3a/5x5_reduce"
  top: "inception_3a/5x5_reduce"
}
layer {
  name: "inception_3a/5x5"
  type: "Convolution"
  bottom: "inception_3a/5x5_reduce"
  top: "inception_3a/5x5"
  param {
    lr_mult: 1
    decay_mult: 1
  }
  param {
    lr_mult: 2
    decay_mult: 0
  }
  convolution_param {
    num_output: 32
    pad: 2
    kernel_size: 5
    weight_filler {
      type: "xavier"
      std: 0.03
    }
    bias_filler {
      type: "constant"
      value: 0.2
    }
  }
}
layer {
  name: "inception_3a/relu_5x5"
  type: "ReLU"
  bottom: "inception_3a/5x5"
  top: "inception_3a/5x5"
}
layer {
  name: "inception_3a/pool"
  type: "Pooling"
  bottom: "pool2/3x3_s2"
  top: "inception_3a/pool"
  pooling_param {
    pool: MAX
    kernel_size: 3
    stride: 1
    pad: 1
  }
}
layer {
  name: "inception_3a/pool_proj"
  type: "Convolution"
  bottom: "inception_3a/pool"
  top: "inception_3a/pool_proj"
  param {
    lr_mult: 1
    decay_mult: 1
  }
  param {
    lr_mult: 2
    decay_mult: 0
  }
  convolution_param {
    num_output: 32
    kernel_size: 1
    weight_filler {
      type: "xavier"
      std: 0.1
    }
    bias_filler {
      type: "constant"
      value: 0.2
    }
  }
}
layer {
  name: "inception_3a/relu_pool_proj"
  type: "ReLU"
  bottom: "inception_3a/pool_proj"
  top: "inception_3a/pool_proj"
}
layer {
  name: "inception_3a/output"
  type: "Concat"
  bottom: "inception_3a/1x1"
  bottom: "inception_3a/3x3"
  bottom: "inception_3a/5x5"
  bottom: "inception_3a/pool_proj"
  top: "inception_3a/output"
}
layer {
  name: "inception_3b/1x1"
  type: "Convolution"
  bottom: "inception_3a/output"
  top: "inception_3b/1x1"
  param {
    lr_mult: 1
    decay_mult: 1
  }
  param {
    lr_mult: 2
    decay_mult: 0
  }
  convolution_param {
    num_output: 128
    kernel_size: 1
    weight_filler {
      type: "xavier"
      std: 0.03
    }
    bias_filler {
      type: "constant"
      value: 0.2
    }
  }
}
layer {
  name: "inception_3b/relu_1x1"
  type: "ReLU"
  bottom: "inception_3b/1x1"
  top: "inception_3b/1x1"
}
layer {
  name: "inception_3b/3x3_reduce"
  type: "Convolution"
  bottom: "inception_3a/output"
  top: "inception_3b/3x3_reduce"
  param {
    lr_mult: 1
    decay_mult: 1
  }
  param {
    lr_mult: 2
    decay_mult: 0
  }
  convolution_param {
    num_output: 128
    kernel_size: 1
    weight_filler {
      type: "xavier"
      std: 0.09
    }
    bias_filler {
      type: "constant"
      value: 0.2
    }
  }
}
layer {
  name: "inception_3b/relu_3x3_reduce"
  type: "ReLU"
  bottom: "inception_3b/3x3_reduce"
  top: "inception_3b/3x3_reduce"
}
layer {
  name: "inception_3b/3x3"
  type: "Convolution"
  bottom: "inception_3b/3x3_reduce"
  top: "inception_3b/3x3"
  param {
    lr_mult: 1
    decay_mult: 1
  }
  param {
    lr_mult: 2
    decay_mult: 0
  }
  convolution_param {
    num_output: 192
    pad: 1
    kernel_size: 3
    weight_filler {
      type: "xavier"
      std: 0.03
    }
    bias_filler {
      type: "constant"
      value: 0.2
    }
  }
}
layer {
  name: "inception_3b/relu_3x3"
  type: "ReLU"
  bottom: "inception_3b/3x3"
  top: "inception_3b/3x3"
}
layer {
  name: "inception_3b/5x5_reduce"
  type: "Convolution"
  bottom: "inception_3a/output"
  top: "inception_3b/5x5_reduce"
  param {
    lr_mult: 1
    decay_mult: 1
  }
  param {
    lr_mult: 2
    decay_mult: 0
  }
  convolution_param {
    num_output: 32
    kernel_size: 1
    weight_filler {
      type: "xavier"
      std: 0.2
    }
    bias_filler {
      type: "constant"
      value: 0.2
    }
  }
}
layer {
  name: "inception_3b/relu_5x5_reduce"
  type: "ReLU"
  bottom: "inception_3b/5x5_reduce"
  top: "inception_3b/5x5_reduce"
}
layer {
  name: "inception_3b/5x5"
  type: "Convolution"
  bottom: "inception_3b/5x5_reduce"
  top: "inception_3b/5x5"
  param {
    lr_mult: 1
    decay_mult: 1
  }
  param {
    lr_mult: 2
    decay_mult: 0
  }
  convolution_param {
    num_output: 96
    pad: 2
    kernel_size: 5
    weight_filler {
      type: "xavier"
      std: 0.03
    }
    bias_filler {
      type: "constant"
      value: 0.2
    }
  }
}
layer {
  name: "inception_3b/relu_5x5"
  type: "ReLU"
  bottom: "inception_3b/5x5"
  top: "inception_3b/5x5"
}
layer {
  name: "inception_3b/pool"
  type: "Pooling"
  bottom: "inception_3a/output"
  top: "inception_3b/pool"
  pooling_param {
    pool: MAX
    kernel_size: 3
    stride: 1
    pad: 1
  }
}
layer {
  name: "inception_3b/pool_proj"
  type: "Convolution"
  bottom: "inception_3b/pool"
  top: "inception_3b/pool_proj"
  param {
    lr_mult: 1
    decay_mult: 1
  }
  param {
    lr_mult: 2
    decay_mult: 0
  }
  convolution_param {
    num_output: 64
    kernel_size: 1
    weight_filler {
      type: "xavier"
      std: 0.1
    }
    bias_filler {
      type: "constant"
      value: 0.2
    }
  }
}
layer {
  name: "inception_3b/relu_pool_proj"
  type: "ReLU"
  bottom: "inception_3b/pool_proj"
  top: "inception_3b/pool_proj"
}
layer {
  name: "inception_3b/output"
  type: "Concat"
  bottom: "inception_3b/1x1"
  bottom: "inception_3b/3x3"
  bottom: "inception_3b/5x5"
  bottom: "inception_3b/pool_proj"
  top: "inception_3b/output"
}
layer {
  name: "pool3/3x3_s2"
  type: "Pooling"
  bottom: "inception_3b/output"
  top: "pool3/3x3_s2"
  pooling_param {
    pool: MAX
    kernel_size: 3
    stride: 2
  }
}
layer {
  name: "inception_4a/1x1"
  type: "Convolution"
  bottom: "pool3/3x3_s2"
  top: "inception_4a/1x1"
  param {
    lr_mult: 1
    decay_mult: 1
  }
  param {
    lr_mult: 2
    decay_mult: 0
  }
  convolution_param {
    num_output: 192
    kernel_size: 1
    weight_filler {
      type: "xavier"
      std: 0.03
    }
    bias_filler {
      type: "constant"
      value: 0.2
    }
  }
}
layer {
  name: "inception_4a/relu_1x1"
  type: "ReLU"
  bottom: "inception_4a/1x1"
  top: "inception_4a/1x1"
}
layer {
  name: "inception_4a/3x3_reduce"
  type: "Convolution"
  bottom: "pool3/3x3_s2"
  top: "inception_4a/3x3_reduce"
  param {
    lr_mult: 1
    decay_mult: 1
  }
  param {
    lr_mult: 2
    decay_mult: 0
  }
  convolution_param {
    num_output: 96
    kernel_size: 1
    weight_filler {
      type: "xavier"
      std: 0.09
    }
    bias_filler {
      type: "constant"
      value: 0.2
    }
  }
}
layer {
  name: "inception_4a/relu_3x3_reduce"
  type: "ReLU"
  bottom: "inception_4a/3x3_reduce"
  top: "inception_4a/3x3_reduce"
}
layer {
  name: "inception_4a/3x3"
  type: "Convolution"
  bottom: "inception_4a/3x3_reduce"
  top: "inception_4a/3x3"
  param {
    lr_mult: 1
    decay_mult: 1
  }
  param {
    lr_mult: 2
    decay_mult: 0
  }
  convolution_param {
    num_output: 208
    pad: 1
    kernel_size: 3
    weight_filler {
      type: "xavier"
      std: 0.03
    }
    bias_filler {
      type: "constant"
      value: 0.2
    }
  }
}
layer {
  name: "inception_4a/relu_3x3"
  type: "ReLU"
  bottom: "inception_4a/3x3"
  top: "inception_4a/3x3"
}
layer {
  name: "inception_4a/5x5_reduce"
  type: "Convolution"
  bottom: "pool3/3x3_s2"
  top: "inception_4a/5x5_reduce"
  param {
    lr_mult: 1
    decay_mult: 1
  }
  param {
    lr_mult: 2
    decay_mult: 0
  }
  convolution_param {
    num_output: 16
    kernel_size: 1
    weight_filler {
      type: "xavier"
      std: 0.2
    }
    bias_filler {
      type: "constant"
      value: 0.2
    }
  }
}
layer {
  name: "inception_4a/relu_5x5_reduce"
  type: "ReLU"
  bottom: "inception_4a/5x5_reduce"
  top: "inception_4a/5x5_reduce"
}
layer {
  name: "inception_4a/5x5"
  type: "Convolution"
  bottom: "inception_4a/5x5_reduce"
  top: "inception_4a/5x5"
  param {
    lr_mult: 1
    decay_mult: 1
  }
  param {
    lr_mult: 2
    decay_mult: 0
  }
  convolution_param {
    num_output: 48
    pad: 2
    kernel_size: 5
    weight_filler {
      type: "xavier"
      std: 0.03
    }
    bias_filler {
      type: "constant"
      value: 0.2
    }
  }
}
layer {
  name: "inception_4a/relu_5x5"
  type: "ReLU"
  bottom: "inception_4a/5x5"
  top: "inception_4a/5x5"
}
layer {
  name: "inception_4a/pool"
  type: "Pooling"
  bottom: "pool3/3x3_s2"
  top: "inception_4a/pool"
  pooling_param {
    pool: MAX
    kernel_size: 3
    stride: 1
    pad: 1
  }
}
layer {
  name: "inception_4a/pool_proj"
  type: "Convolution"
  bottom: "inception_4a/pool"
  top: "inception_4a/pool_proj"
  param {
    lr_mult: 1
    decay_mult: 1
  }
  param {
    lr_mult: 2
    decay_mult: 0
  }
  convolution_param {
    num_output: 64
    kernel_size: 1
    weight_filler {
      type: "xavier"
      std: 0.1
    }
    bias_filler {
      type: "constant"
      value: 0.2
    }
  }
}
layer {
  name: "inception_4a/relu_pool_proj"
  type: "ReLU"
  bottom: "inception_4a/pool_proj"
  top: "inception_4a/pool_proj"
}
layer {
  name: "inception_4a/output"
  type: "Concat"
  bottom: "inception_4a/1x1"
  bottom: "inception_4a/3x3"
  bottom: "inception_4a/5x5"
  bottom: "inception_4a/pool_proj"
  top: "inception_4a/output"
}
layer {
  name: "inception_4b/1x1"
  type: "Convolution"
  bottom: "inception_4a/output"
  top: "inception_4b/1x1"
  param {
    lr_mult: 1
    decay_mult: 1
  }
  param {
    lr_mult: 2
    decay_mult: 0
  }
  convolution_param {
    num_output: 160
    kernel_size: 1
    weight_filler {
      type: "xavier"
      std: 0.03
    }
    bias_filler {
      type: "constant"
      value: 0.2
    }
  }
}
layer {
  name: "inception_4b/relu_1x1"
  type: "ReLU"
  bottom: "inception_4b/1x1"
  top: "inception_4b/1x1"
}
layer {
  name: "inception_4b/3x3_reduce"
  type: "Convolution"
  bottom: "inception_4a/output"
  top: "inception_4b/3x3_reduce"
  param {
    lr_mult: 1
    decay_mult: 1
  }
  param {
    lr_mult: 2
    decay_mult: 0
  }
  convolution_param {
    num_output: 112
    kernel_size: 1
    weight_filler {
      type: "xavier"
      std: 0.09
    }
    bias_filler {
      type: "constant"
      value: 0.2
    }
  }
}
layer {
  name: "inception_4b/relu_3x3_reduce"
  type: "ReLU"
  bottom: "inception_4b/3x3_reduce"
  top: "inception_4b/3x3_reduce"
}
layer {
  name: "inception_4b/3x3"
  type: "Convolution"
  bottom: "inception_4b/3x3_reduce"
  top: "inception_4b/3x3"
  param {
    lr_mult: 1
    decay_mult: 1
  }
  param {
    lr_mult: 2
    decay_mult: 0
  }
  convolution_param {
    num_output: 224
    pad: 1
    kernel_size: 3
    weight_filler {
      type: "xavier"
      std: 0.03
    }
    bias_filler {
      type: "constant"
      value: 0.2
    }
  }
}
layer {
  name: "inception_4b/relu_3x3"
  type: "ReLU"
  bottom: "inception_4b/3x3"
  top: "inception_4b/3x3"
}
layer {
  name: "inception_4b/5x5_reduce"
  type: "Convolution"
  bottom: "inception_4a/output"
  top: "inception_4b/5x5_reduce"
  param {
    lr_mult: 1
    decay_mult: 1
  }
  param {
    lr_mult: 2
    decay_mult: 0
  }
  convolution_param {
    num_output: 24
    kernel_size: 1
    weight_filler {
      type: "xavier"
      std: 0.2
    }
    bias_filler {
      type: "constant"
      value: 0.2
    }
  }
}
layer {
  name: "inception_4b/relu_5x5_reduce"
  type: "ReLU"
  bottom: "inception_4b/5x5_reduce"
  top: "inception_4b/5x5_reduce"
}
layer {
  name: "inception_4b/5x5"
  type: "Convolution"
  bottom: "inception_4b/5x5_reduce"
  top: "inception_4b/5x5"
  param {
    lr_mult: 1
    decay_mult: 1
  }
  param {
    lr_mult: 2
    decay_mult: 0
  }
  convolution_param {
    num_output: 64
    pad: 2
    kernel_size: 5
    weight_filler {
      type: "xavier"
      std: 0.03
    }
    bias_filler {
      type: "constant"
      value: 0.2
    }
  }
}
layer {
  name: "inception_4b/relu_5x5"
  type: "ReLU"
  bottom: "inception_4b/5x5"
  top: "inception_4b/5x5"
}
layer {
  name: "inception_4b/pool"
  type: "Pooling"
  bottom: "inception_4a/output"
  top: "inception_4b/pool"
  pooling_param {
    pool: MAX
    kernel_size: 3
    stride: 1
    pad: 1
  }
}
layer {
  name: "inception_4b/pool_proj"
  type: "Convolution"
  bottom: "inception_4b/pool"
  top: "inception_4b/pool_proj"
  param {
    lr_mult: 1
    decay_mult: 1
  }
  param {
    lr_mult: 2
    decay_mult: 0
  }
  convolution_param {
    num_output: 64
    kernel_size: 1
    weight_filler {
      type: "xavier"
      std: 0.1
    }
    bias_filler {
      type: "constant"
      value: 0.2
    }
  }
}
layer {
  name: "inception_4b/relu_pool_proj"
  type: "ReLU"
  bottom: "inception_4b/pool_proj"
  top: "inception_4b/pool_proj"
}
layer {
  name: "inception_4b/output"
  type: "Concat"
  bottom: "inception_4b/1x1"
  bottom: "inception_4b/3x3"
  bottom: "inception_4b/5x5"
  bottom: "inception_4b/pool_proj"
  top: "inception_4b/output"
}
layer {
  name: "inception_4c/1x1"
  type: "Convolution"
  bottom: "inception_4b/output"
  top: "inception_4c/1x1"
  param {
    lr_mult: 1
    decay_mult: 1
  }
  param {
    lr_mult: 2
    decay_mult: 0
  }
  convolution_param {
    num_output: 128
    kernel_size: 1
    weight_filler {
      type: "xavier"
      std: 0.03
    }
    bias_filler {
      type: "constant"
      value: 0.2
    }
  }
}
layer {
  name: "inception_4c/relu_1x1"
  type: "ReLU"
  bottom: "inception_4c/1x1"
  top: "inception_4c/1x1"
}
layer {
  name: "inception_4c/3x3_reduce"
  type: "Convolution"
  bottom: "inception_4b/output"
  top: "inception_4c/3x3_reduce"
  param {
    lr_mult: 1
    decay_mult: 1
  }
  param {
    lr_mult: 2
    decay_mult: 0
  }
  convolution_param {
    num_output: 128
    kernel_size: 1
    weight_filler {
      type: "xavier"
      std: 0.09
    }
    bias_filler {
      type: "constant"
      value: 0.2
    }
  }
}
layer {
  name: "inception_4c/relu_3x3_reduce"
  type: "ReLU"
  bottom: "inception_4c/3x3_reduce"
  top: "inception_4c/3x3_reduce"
}
layer {
  name: "inception_4c/3x3"
  type: "Convolution"
  bottom: "inception_4c/3x3_reduce"
  top: "inception_4c/3x3"
  param {
    lr_mult: 1
    decay_mult: 1
  }
  param {
    lr_mult: 2
    decay_mult: 0
  }
  convolution_param {
    num_output: 256
    pad: 1
    kernel_size: 3
    weight_filler {
      type: "xavier"
      std: 0.03
    }
    bias_filler {
      type: "constant"
      value: 0.2
    }
  }
}
layer {
  name: "inception_4c/relu_3x3"
  type: "ReLU"
  bottom: "inception_4c/3x3"
  top: "inception_4c/3x3"
}
layer {
  name: "inception_4c/5x5_reduce"
  type: "Convolution"
  bottom: "inception_4b/output"
  top: "inception_4c/5x5_reduce"
  param {
    lr_mult: 1
    decay_mult: 1
  }
  param {
    lr_mult: 2
    decay_mult: 0
  }
  convolution_param {
    num_output: 24
    kernel_size: 1
    weight_filler {
      type: "xavier"
      std: 0.2
    }
    bias_filler {
      type: "constant"
      value: 0.2
    }
  }
}
layer {
  name: "inception_4c/relu_5x5_reduce"
  type: "ReLU"
  bottom: "inception_4c/5x5_reduce"
  top: "inception_4c/5x5_reduce"
}
layer {
  name: "inception_4c/5x5"
  type: "Convolution"
  bottom: "inception_4c/5x5_reduce"
  top: "inception_4c/5x5"
  param {
    lr_mult: 1
    decay_mult: 1
  }
  param {
    lr_mult: 2
    decay_mult: 0
  }
  convolution_param {
    num_output: 64
    pad: 2
    kernel_size: 5
    weight_filler {
      type: "xavier"
      std: 0.03
    }
    bias_filler {
      type: "constant"
      value: 0.2
    }
  }
}
layer {
  name: "inception_4c/relu_5x5"
  type: "ReLU"
  bottom: "inception_4c/5x5"
  top: "inception_4c/5x5"
}
layer {
  name: "inception_4c/pool"
  type: "Pooling"
  bottom: "inception_4b/output"
  top: "inception_4c/pool"
  pooling_param {
    pool: MAX
    kernel_size: 3
    stride: 1
    pad: 1
  }
}
layer {
  name: "inception_4c/pool_proj"
  type: "Convolution"
  bottom: "inception_4c/pool"
  top: "inception_4c/pool_proj"
  param {
    lr_mult: 1
    decay_mult: 1
  }
  param {
    lr_mult: 2
    decay_mult: 0
  }
  convolution_param {
    num_output: 64
    kernel_size: 1
    weight_filler {
      type: "xavier"
      std: 0.1
    }
    bias_filler {
      type: "constant"
      value: 0.2
    }
  }
}
layer {
  name: "inception_4c/relu_pool_proj"
  type: "ReLU"
  bottom: "inception_4c/pool_proj"
  top: "inception_4c/pool_proj"
}
layer {
  name: "inception_4c/output"
  type: "Concat"
  bottom: "inception_4c/1x1"
  bottom: "inception_4c/3x3"
  bottom: "inception_4c/5x5"
  bottom: "inception_4c/pool_proj"
  top: "inception_4c/output"
}
layer {
  name: "inception_4d/1x1"
  type: "Convolution"
  bottom: "inception_4c/output"
  top: "inception_4d/1x1"
  param {
    lr_mult: 1
    decay_mult: 1
  }
  param {
    lr_mult: 2
    decay_mult: 0
  }
  convolution_param {
    num_output: 112
    kernel_size: 1
    weight_filler {
      type: "xavier"
      std: 0.03
    }
    bias_filler {
      type: "constant"
      value: 0.2
    }
  }
}
layer {
  name: "inception_4d/relu_1x1"
  type: "ReLU"
  bottom: "inception_4d/1x1"
  top: "inception_4d/1x1"
}
layer {
  name: "inception_4d/3x3_reduce"
  type: "Convolution"
  bottom: "inception_4c/output"
  top: "inception_4d/3x3_reduce"
  param {
    lr_mult: 1
    decay_mult: 1
  }
  param {
    lr_mult: 2
    decay_mult: 0
  }
  convolution_param {
    num_output: 144
    kernel_size: 1
    weight_filler {
      type: "xavier"
      std: 0.09
    }
    bias_filler {
      type: "constant"
      value: 0.2
    }
  }
}
layer {
  name: "inception_4d/relu_3x3_reduce"
  type: "ReLU"
  bottom: "inception_4d/3x3_reduce"
  top: "inception_4d/3x3_reduce"
}
layer {
  name: "inception_4d/3x3"
  type: "Convolution"
  bottom: "inception_4d/3x3_reduce"
  top: "inception_4d/3x3"
  param {
    lr_mult: 1
    decay_mult: 1
  }
  param {
    lr_mult: 2
    decay_mult: 0
  }
  convolution_param {
    num_output: 288
    pad: 1
    kernel_size: 3
    weight_filler {
      type: "xavier"
      std: 0.03
    }
    bias_filler {
      type: "constant"
      value: 0.2
    }
  }
}
layer {
  name: "inception_4d/relu_3x3"
  type: "ReLU"
  bottom: "inception_4d/3x3"
  top: "inception_4d/3x3"
}
layer {
  name: "inception_4d/5x5_reduce"
  type: "Convolution"
  bottom: "inception_4c/output"
  top: "inception_4d/5x5_reduce"
  param {
    lr_mult: 1
    decay_mult: 1
  }
  param {
    lr_mult: 2
    decay_mult: 0
  }
  convolution_param {
    num_output: 32
    kernel_size: 1
    weight_filler {
      type: "xavier"
      std: 0.2
    }
    bias_filler {
      type: "constant"
      value: 0.2
    }
  }
}
layer {
  name: "inception_4d/relu_5x5_reduce"
  type: "ReLU"
  bottom: "inception_4d/5x5_reduce"
  top: "inception_4d/5x5_reduce"
}
layer {
  name: "inception_4d/5x5"
  type: "Convolution"
  bottom: "inception_4d/5x5_reduce"
  top: "inception_4d/5x5"
  param {
    lr_mult: 1
    decay_mult: 1
  }
  param {
    lr_mult: 2
    decay_mult: 0
  }
  convolution_param {
    num_output: 64
    pad: 2
    kernel_size: 5
    weight_filler {
      type: "xavier"
      std: 0.03
    }
    bias_filler {
      type: "constant"
      value: 0.2
    }
  }
}
layer {
  name: "inception_4d/relu_5x5"
  type: "ReLU"
  bottom: "inception_4d/5x5"
  top: "inception_4d/5x5"
}
layer {
  name: "inception_4d/pool"
  type: "Pooling"
  bottom: "inception_4c/output"
  top: "inception_4d/pool"
  pooling_param {
    pool: MAX
    kernel_size: 3
    stride: 1
    pad: 1
  }
}
layer {
  name: "inception_4d/pool_proj"
  type: "Convolution"
  bottom: "inception_4d/pool"
  top: "inception_4d/pool_proj"
  param {
    lr_mult: 1
    decay_mult: 1
  }
  param {
    lr_mult: 2
    decay_mult: 0
  }
  convolution_param {
    num_output: 64
    kernel_size: 1
    weight_filler {
      type: "xavier"
      std: 0.1
    }
    bias_filler {
      type: "constant"
      value: 0.2
    }
  }
}
layer {
  name: "inception_4d/relu_pool_proj"
  type: "ReLU"
  bottom: "inception_4d/pool_proj"
  top: "inception_4d/pool_proj"
}
layer {
  name: "inception_4d/output"
  type: "Concat"
  bottom: "inception_4d/1x1"
  bottom: "inception_4d/3x3"
  bottom: "inception_4d/5x5"
  bottom: "inception_4d/pool_proj"
  top: "inception_4d/output"
}
layer {
  name: "inception_4e/1x1"
  type: "Convolution"
  bottom: "inception_4d/output"
  top: "inception_4e/1x1"
  param {
    lr_mult: 1
    decay_mult: 1
  }
  param {
    lr_mult: 2
    decay_mult: 0
  }
  convolution_param {
    num_output: 256
    kernel_size: 1
    weight_filler {
      type: "xavier"
      std: 0.03
    }
    bias_filler {
      type: "constant"
      value: 0.2
    }
  }
}
layer {
  name: "inception_4e/relu_1x1"
  type: "ReLU"
  bottom: "inception_4e/1x1"
  top: "inception_4e/1x1"
}
layer {
  name: "inception_4e/3x3_reduce"
  type: "Convolution"
  bottom: "inception_4d/output"
  top: "inception_4e/3x3_reduce"
  param {
    lr_mult: 1
    decay_mult: 1
  }
  param {
    lr_mult: 2
    decay_mult: 0
  }
  convolution_param {
    num_output: 160
    kernel_size: 1
    weight_filler {
      type: "xavier"
      std: 0.09
    }
    bias_filler {
      type: "constant"
      value: 0.2
    }
  }
}
layer {
  name: "inception_4e/relu_3x3_reduce"
  type: "ReLU"
  bottom: "inception_4e/3x3_reduce"
  top: "inception_4e/3x3_reduce"
}
layer {
  name: "inception_4e/3x3"
  type: "Convolution"
  bottom: "inception_4e/3x3_reduce"
  top: "inception_4e/3x3"
  param {
    lr_mult: 1
    decay_mult: 1
  }
  param {
    lr_mult: 2
    decay_mult: 0
  }
  convolution_param {
    num_output: 320
    pad: 1
    kernel_size: 3
    weight_filler {
      type: "xavier"
      std: 0.03
    }
    bias_filler {
      type: "constant"
      value: 0.2
    }
  }
}
layer {
  name: "inception_4e/relu_3x3"
  type: "ReLU"
  bottom: "inception_4e/3x3"
  top: "inception_4e/3x3"
}
layer {
  name: "inception_4e/5x5_reduce"
  type: "Convolution"
  bottom: "inception_4d/output"
  top: "inception_4e/5x5_reduce"
  param {
    lr_mult: 1
    decay_mult: 1
  }
  param {
    lr_mult: 2
    decay_mult: 0
  }
  convolution_param {
    num_output: 32
    kernel_size: 1
    weight_filler {
      type: "xavier"
      std: 0.2
    }
    bias_filler {
      type: "constant"
      value: 0.2
    }
  }
}
layer {
  name: "inception_4e/relu_5x5_reduce"
  type: "ReLU"
  bottom: "inception_4e/5x5_reduce"
  top: "inception_4e/5x5_reduce"
}
layer {
  name: "inception_4e/5x5"
  type: "Convolution"
  bottom: "inception_4e/5x5_reduce"
  top: "inception_4e/5x5"
  param {
    lr_mult: 1
    decay_mult: 1
  }
  param {
    lr_mult: 2
    decay_mult: 0
  }
  convolution_param {
    num_output: 128
    pad: 2
    kernel_size: 5
    weight_filler {
      type: "xavier"
      std: 0.03
    }
    bias_filler {
      type: "constant"
      value: 0.2
    }
  }
}
layer {
  name: "inception_4e/relu_5x5"
  type: "ReLU"
  bottom: "inception_4e/5x5"
  top: "inception_4e/5x5"
}
layer {
  name: "inception_4e/pool"
  type: "Pooling"
  bottom: "inception_4d/output"
  top: "inception_4e/pool"
  pooling_param {
    pool: MAX
    kernel_size: 3
    stride: 1
    pad: 1
  }
}
layer {
  name: "inception_4e/pool_proj"
  type: "Convolution"
  bottom: "inception_4e/pool"
  top: "inception_4e/pool_proj"
  param {
    lr_mult: 1
    decay_mult: 1
  }
  param {
    lr_mult: 2
    decay_mult: 0
  }
  convolution_param {
    num_output: 128
    kernel_size: 1
    weight_filler {
      type: "xavier"
      std: 0.1
    }
    bias_filler {
      type: "constant"
      value: 0.2
    }
  }
}
layer {
  name: "inception_4e/relu_pool_proj"
  type: "ReLU"
  bottom: "inception_4e/pool_proj"
  top: "inception_4e/pool_proj"
}
layer {
  name: "inception_4e/output"
  type: "Concat"
  bottom: "inception_4e/1x1"
  bottom: "inception_4e/3x3"
  bottom: "inception_4e/5x5"
  bottom: "inception_4e/pool_proj"
  top: "inception_4e/output"
}
layer {
  name: "pool4/3x3_s2"
  type: "Pooling"
  bottom: "inception_4e/output"
  top: "pool4/3x3_s2"
  pooling_param {
    pool: MAX
    kernel_size: 3
    stride: 2
  }
}
layer {
  name: "inception_5a/1x1"
  type: "Convolution"
  bottom: "pool4/3x3_s2"
  top: "inception_5a/1x1"
  param {
    lr_mult: 1
    decay_mult: 1
  }
  param {
    lr_mult: 2
    decay_mult: 0
  }
  convolution_param {
    num_output: 256
    kernel_size: 1
    weight_filler {
      type: "xavier"
      std: 0.03
    }
    bias_filler {
      type: "constant"
      value: 0.2
    }
  }
}
layer {
  name: "inception_5a/relu_1x1"
  type: "ReLU"
  bottom: "inception_5a/1x1"
  top: "inception_5a/1x1"
}
layer {
  name: "inception_5a/3x3_reduce"
  type: "Convolution"
  bottom: "pool4/3x3_s2"
  top: "inception_5a/3x3_reduce"
  param {
    lr_mult: 1
    decay_mult: 1
  }
  param {
    lr_mult: 2
    decay_mult: 0
  }
  convolution_param {
    num_output: 160
    kernel_size: 1
    weight_filler {
      type: "xavier"
      std: 0.09
    }
    bias_filler {
      type: "constant"
      value: 0.2
    }
  }
}
layer {
  name: "inception_5a/relu_3x3_reduce"
  type: "ReLU"
  bottom: "inception_5a/3x3_reduce"
  top: "inception_5a/3x3_reduce"
}
layer {
  name: "inception_5a/3x3"
  type: "Convolution"
  bottom: "inception_5a/3x3_reduce"
  top: "inception_5a/3x3"
  param {
    lr_mult: 1
    decay_mult: 1
  }
  param {
    lr_mult: 2
    decay_mult: 0
  }
  convolution_param {
    num_output: 320
    pad: 1
    kernel_size: 3
    weight_filler {
      type: "xavier"
      std: 0.03
    }
    bias_filler {
      type: "constant"
      value: 0.2
    }
  }
}
layer {
  name: "inception_5a/relu_3x3"
  type: "ReLU"
  bottom: "inception_5a/3x3"
  top: "inception_5a/3x3"
}
layer {
  name: "inception_5a/5x5_reduce"
  type: "Convolution"
  bottom: "pool4/3x3_s2"
  top: "inception_5a/5x5_reduce"
  param {
    lr_mult: 1
    decay_mult: 1
  }
  param {
    lr_mult: 2
    decay_mult: 0
  }
  convolution_param {
    num_output: 32
    kernel_size: 1
    weight_filler {
      type: "xavier"
      std: 0.2
    }
    bias_filler {
      type: "constant"
      value: 0.2
    }
I0913 19:53:52.056596 30535 layer_factory.hpp:77] Creating layer data
I0913 19:53:52.056622 30535 net.cpp:91] Creating Layer data
I0913 19:53:52.056632 30535 net.cpp:399] data -> data
I0913 19:53:52.592612 30535 net.cpp:141] Setting up data
I0913 19:53:52.592685 30535 net.cpp:148] Top shape: 10 3 224 224 (1505280)
I0913 19:53:52.592692 30535 net.cpp:156] Memory required for data: 6021120
I0913 19:53:52.592711 30535 layer_factory.hpp:77] Creating layer conv1/7x7_s2
I0913 19:53:52.592747 30535 net.cpp:91] Creating Layer conv1/7x7_s2
I0913 19:53:52.592756 30535 net.cpp:425] conv1/7x7_s2 <- data
I0913 19:53:52.592769 30535 net.cpp:399] conv1/7x7_s2 -> conv1/7x7_s2
I0913 19:53:52.770926 30535 net.cpp:141] Setting up conv1/7x7_s2
I0913 19:53:52.770977 30535 net.cpp:148] Top shape: 10 64 112 112 (8028160)
I0913 19:53:52.770984 30535 net.cpp:156] Memory required for data: 38133760
I0913 19:53:52.771011 30535 layer_factory.hpp:77] Creating layer conv1/relu_7x7
I0913 19:53:52.771040 30535 net.cpp:91] Creating Layer conv1/relu_7x7
I0913 19:53:52.771049 30535 net.cpp:425] conv1/relu_7x7 <- conv1/7x7_s2
I0913 19:53:52.771057 30535 net.cpp:386] conv1/relu_7x7 -> conv1/7x7_s2 (in-place)
I0913 19:53:52.771464 30535 net.cpp:141] Setting up conv1/relu_7x7
I0913 19:53:52.771477 30535 net.cpp:148] Top shape: 10 64 112 112 (8028160)
I0913 19:53:52.771482 30535 net.cpp:156] Memory required for data: 70246400
I0913 19:53:52.771488 30535 layer_factory.hpp:77] Creating layer pool1/3x3_s2
I0913 19:53:52.771505 30535 net.cpp:91] Creating Layer pool1/3x3_s2
I0913 19:53:52.771510 30535 net.cpp:425] pool1/3x3_s2 <- conv1/7x7_s2
I0913 19:53:52.771517 30535 net.cpp:399] pool1/3x3_s2 -> pool1/3x3_s2
I0913 19:53:52.771595 30535 net.cpp:141] Setting up pool1/3x3_s2
I0913 19:53:52.771605 30535 net.cpp:148] Top shape: 10 64 56 56 (2007040)
I0913 19:53:52.771610 30535 net.cpp:156] Memory required for data: 78274560
I0913 19:53:52.771615 30535 layer_factory.hpp:77] Creating layer pool1/norm1
I0913 19:53:52.771634 30535 net.cpp:91] Creating Layer pool1/norm1
I0913 19:53:52.771641 30535 net.cpp:425] pool1/norm1 <- pool1/3x3_s2
I0913 19:53:52.771647 30535 net.cpp:399] pool1/norm1 -> pool1/norm1
I0913 19:53:52.771929 30535 net.cpp:141] Setting up pool1/norm1
I0913 19:53:52.771941 30535 net.cpp:148] Top shape: 10 64 56 56 (2007040)
I0913 19:53:52.771946 30535 net.cpp:156] Memory required for data: 86302720
I0913 19:53:52.771951 30535 layer_factory.hpp:77] Creating layer conv2/3x3_reduce
I0913 19:53:52.771982 30535 net.cpp:91] Creating Layer conv2/3x3_reduce
I0913 19:53:52.771988 30535 net.cpp:425] conv2/3x3_reduce <- pool1/norm1
I0913 19:53:52.771996 30535 net.cpp:399] conv2/3x3_reduce -> conv2/3x3_reduce
I0913 19:53:52.774070 30535 net.cpp:141] Setting up conv2/3x3_reduce
I0913 19:53:52.774088 30535 net.cpp:148] Top shape: 10 64 56 56 (2007040)
I0913 19:53:52.774093 30535 net.cpp:156] Memory required for data: 94330880
I0913 19:53:52.774104 30535 layer_factory.hpp:77] Creating layer conv2/relu_3x3_reduce
I0913 19:53:52.774113 30535 net.cpp:91] Creating Layer conv2/relu_3x3_reduce
I0913 19:53:52.774118 30535 net.cpp:425] conv2/relu_3x3_reduce <- conv2/3x3_reduce
I0913 19:53:52.774127 30535 net.cpp:386] conv2/relu_3x3_reduce -> conv2/3x3_reduce (in-place)
I0913 19:53:52.774513 30535 net.cpp:141] Setting up conv2/relu_3x3_reduce
I0913 19:53:52.774526 30535 net.cpp:148] Top shape: 10 64 56 56 (2007040)
I0913 19:53:52.774531 30535 net.cpp:156] Memory required for data: 102359040
I0913 19:53:52.774536 30535 layer_factory.hpp:77] Creating layer conv2/3x3
I0913 19:53:52.774552 30535 net.cpp:91] Creating Layer conv2/3x3
I0913 19:53:52.774559 30535 net.cpp:425] conv2/3x3 <- conv2/3x3_reduce
I0913 19:53:52.774569 30535 net.cpp:399] conv2/3x3 -> conv2/3x3
I0913 19:53:52.777664 30535 net.cpp:141] Setting up conv2/3x3
I0913 19:53:52.777684 30535 net.cpp:148] Top shape: 10 192 56 56 (6021120)
I0913 19:53:52.777689 30535 net.cpp:156] Memory required for data: 126443520
I0913 19:53:52.777701 30535 layer_factory.hpp:77] Creating layer conv2/relu_3x3
I0913 19:53:52.777712 30535 net.cpp:91] Creating Layer conv2/relu_3x3
I0913 19:53:52.777719 30535 net.cpp:425] conv2/relu_3x3 <- conv2/3x3
I0913 19:53:52.777725 30535 net.cpp:386] conv2/relu_3x3 -> conv2/3x3 (in-place)
I0913 19:53:52.777961 30535 net.cpp:141] Setting up conv2/relu_3x3
I0913 19:53:52.777972 30535 net.cpp:148] Top shape: 10 192 56 56 (6021120)
I0913 19:53:52.777977 30535 net.cpp:156] Memory required for data: 150528000
I0913 19:53:52.777982 30535 layer_factory.hpp:77] Creating layer conv2/norm2
I0913 19:53:52.778007 30535 net.cpp:91] Creating Layer conv2/norm2
I0913 19:53:52.778012 30535 net.cpp:425] conv2/norm2 <- conv2/3x3
I0913 19:53:52.778018 30535 net.cpp:399] conv2/norm2 -> conv2/norm2
I0913 19:53:52.778446 30535 net.cpp:141] Setting up conv2/norm2
I0913 19:53:52.778458 30535 net.cpp:148] Top shape: 10 192 56 56 (6021120)
I0913 19:53:52.778463 30535 net.cpp:156] Memory required for data: 174612480
I0913 19:53:52.778468 30535 layer_factory.hpp:77] Creating layer pool2/3x3_s2
I0913 19:53:52.778477 30535 net.cpp:91] Creating Layer pool2/3x3_s2
I0913 19:53:52.778481 30535 net.cpp:425] pool2/3x3_s2 <- conv2/norm2
I0913 19:53:52.778491 30535 net.cpp:399] pool2/3x3_s2 -> pool2/3x3_s2
I0913 19:53:52.778538 30535 net.cpp:141] Setting up pool2/3x3_s2
I0913 19:53:52.778547 30535 net.cpp:148] Top shape: 10 192 28 28 (1505280)
I0913 19:53:52.778550 30535 net.cpp:156] Memory required for data: 180633600
I0913 19:53:52.778555 30535 layer_factory.hpp:77] Creating layer pool2/3x3_s2_pool2/3x3_s2_0_split
I0913 19:53:52.778570 30535 net.cpp:91] Creating Layer pool2/3x3_s2_pool2/3x3_s2_0_split
I0913 19:53:52.778575 30535 net.cpp:425] pool2/3x3_s2_pool2/3x3_s2_0_split <- pool2/3x3_s2
I0913 19:53:52.778581 30535 net.cpp:399] pool2/3x3_s2_pool2/3x3_s2_0_split -> pool2/3x3_s2_pool2/3x3_s2_0_split_0
I0913 19:53:52.778592 30535 net.cpp:399] pool2/3x3_s2_pool2/3x3_s2_0_split -> pool2/3x3_s2_pool2/3x3_s2_0_split_1
I0913 19:53:52.778600 30535 net.cpp:399] pool2/3x3_s2_pool2/3x3_s2_0_split -> pool2/3x3_s2_pool2/3x3_s2_0_split_2
I0913 19:53:52.778607 30535 net.cpp:399] pool2/3x3_s2_pool2/3x3_s2_0_split -> pool2/3x3_s2_pool2/3x3_s2_0_split_3
I0913 19:53:52.778673 30535 net.cpp:141] Setting up pool2/3x3_s2_pool2/3x3_s2_0_split
I0913 19:53:52.778682 30535 net.cpp:148] Top shape: 10 192 28 28 (1505280)
I0913 19:53:52.778688 30535 net.cpp:148] Top shape: 10 192 28 28 (1505280)
I0913 19:53:52.778693 30535 net.cpp:148] Top shape: 10 192 28 28 (1505280)
I0913 19:53:52.778698 30535 net.cpp:148] Top shape: 10 192 28 28 (1505280)
I0913 19:53:52.778702 30535 net.cpp:156] Memory required for data: 204718080
I0913 19:53:52.778707 30535 layer_factory.hpp:77] Creating layer inception_3a/1x1
I0913 19:53:52.778738 30535 net.cpp:91] Creating Layer inception_3a/1x1
I0913 19:53:52.778743 30535 net.cpp:425] inception_3a/1x1 <- pool2/3x3_s2_pool2/3x3_s2_0_split_0
I0913 19:53:52.778769 30535 net.cpp:399] inception_3a/1x1 -> inception_3a/1x1
I0913 19:53:52.780731 30535 net.cpp:141] Setting up inception_3a/1x1
I0913 19:53:52.780747 30535 net.cpp:148] Top shape: 10 64 28 28 (501760)
I0913 19:53:52.780753 30535 net.cpp:156] Memory required for data: 206725120
I0913 19:53:52.780762 30535 layer_factory.hpp:77] Creating layer inception_3a/relu_1x1
I0913 19:53:52.780773 30535 net.cpp:91] Creating Layer inception_3a/relu_1x1
I0913 19:53:52.780778 30535 net.cpp:425] inception_3a/relu_1x1 <- inception_3a/1x1
I0913 19:53:52.780787 30535 net.cpp:386] inception_3a/relu_1x1 -> inception_3a/1x1 (in-place)
I0913 19:53:52.781182 30535 net.cpp:141] Setting up inception_3a/relu_1x1
I0913 19:53:52.781194 30535 net.cpp:148] Top shape: 10 64 28 28 (501760)
I0913 19:53:52.781199 30535 net.cpp:156] Memory required for data: 208732160
I0913 19:53:52.781204 30535 layer_factory.hpp:77] Creating layer inception_3a/3x3_reduce
I0913 19:53:52.781221 30535 net.cpp:91] Creating Layer inception_3a/3x3_reduce
I0913 19:53:52.781227 30535 net.cpp:425] inception_3a/3x3_reduce <- pool2/3x3_s2_pool2/3x3_s2_0_split_1
I0913 19:53:52.781252 30535 net.cpp:399] inception_3a/3x3_reduce -> inception_3a/3x3_reduce
I0913 19:53:52.783725 30535 net.cpp:141] Setting up inception_3a/3x3_reduce
I0913 19:53:52.783741 30535 net.cpp:148] Top shape: 10 96 28 28 (752640)
I0913 19:53:52.783746 30535 net.cpp:156] Memory required for data: 211742720
I0913 19:53:52.783758 30535 layer_factory.hpp:77] Creating layer inception_3a/relu_3x3_reduce
I0913 19:53:52.783767 30535 net.cpp:91] Creating Layer inception_3a/relu_3x3_reduce
I0913 19:53:52.783772 30535 net.cpp:425] inception_3a/relu_3x3_reduce <- inception_3a/3x3_reduce
I0913 19:53:52.783782 30535 net.cpp:386] inception_3a/relu_3x3_reduce -> inception_3a/3x3_reduce (in-place)
I0913 19:53:52.784008 30535 net.cpp:141] Setting up inception_3a/relu_3x3_reduce
I0913 19:53:52.784020 30535 net.cpp:148] Top shape: 10 96 28 28 (752640)
I0913 19:53:52.784025 30535 net.cpp:156] Memory required for data: 214753280
I0913 19:53:52.784030 30535 layer_factory.hpp:77] Creating layer inception_3a/3x3
I0913 19:53:52.784047 30535 net.cpp:91] Creating Layer inception_3a/3x3
I0913 19:53:52.784054 30535 net.cpp:425] inception_3a/3x3 <- inception_3a/3x3_reduce
I0913 19:53:52.784063 30535 net.cpp:399] inception_3a/3x3 -> inception_3a/3x3
I0913 19:53:52.786288 30535 net.cpp:141] Setting up inception_3a/3x3
I0913 19:53:52.786305 30535 net.cpp:148] Top shape: 10 128 28 28 (1003520)
I0913 19:53:52.786310 30535 net.cpp:156] Memory required for data: 218767360
I0913 19:53:52.786320 30535 layer_factory.hpp:77] Creating layer inception_3a/relu_3x3
I0913 19:53:52.786332 30535 net.cpp:91] Creating Layer inception_3a/relu_3x3
I0913 19:53:52.786339 30535 net.cpp:425] inception_3a/relu_3x3 <- inception_3a/3x3
I0913 19:53:52.786345 30535 net.cpp:386] inception_3a/relu_3x3 -> inception_3a/3x3 (in-place)
I0913 19:53:52.786736 30535 net.cpp:141] Setting up inception_3a/relu_3x3
I0913 19:53:52.786749 30535 net.cpp:148] Top shape: 10 128 28 28 (1003520)
I0913 19:53:52.786754 30535 net.cpp:156] Memory required for data: 222781440
I0913 19:53:52.786759 30535 layer_factory.hpp:77] Creating layer inception_3a/5x5_reduce
I0913 19:53:52.786777 30535 net.cpp:91] Creating Layer inception_3a/5x5_reduce
I0913 19:53:52.786783 30535 net.cpp:425] inception_3a/5x5_reduce <- pool2/3x3_s2_pool2/3x3_s2_0_split_2
I0913 19:53:52.786792 30535 net.cpp:399] inception_3a/5x5_reduce -> inception_3a/5x5_reduce
I0913 19:53:52.788023 30535 net.cpp:141] Setting up inception_3a/5x5_reduce
I0913 19:53:52.788040 30535 net.cpp:148] Top shape: 10 16 28 28 (125440)
I0913 19:53:52.788045 30535 net.cpp:156] Memory required for data: 223283200
I0913 19:53:52.788054 30535 layer_factory.hpp:77] Creating layer inception_3a/relu_5x5_reduce
I0913 19:53:52.788066 30535 net.cpp:91] Creating Layer inception_3a/relu_5x5_reduce
I0913 19:53:52.788081 30535 net.cpp:425] inception_3a/relu_5x5_reduce <- inception_3a/5x5_reduce
I0913 19:53:52.788092 30535 net.cpp:386] inception_3a/relu_5x5_reduce -> inception_3a/5x5_reduce (in-place)
I0913 19:53:52.789072 30535 net.cpp:141] Setting up inception_3a/relu_5x5_reduce
I0913 19:53:52.789088 30535 net.cpp:148] Top shape: 10 16 28 28 (125440)
I0913 19:53:52.789098 30535 net.cpp:156] Memory required for data: 223784960
I0913 19:53:52.789103 30535 layer_factory.hpp:77] Creating layer inception_3a/5x5
I0913 19:53:52.789119 30535 net.cpp:91] Creating Layer inception_3a/5x5
I0913 19:53:52.789125 30535 net.cpp:425] inception_3a/5x5 <- inception_3a/5x5_reduce
I0913 19:53:52.789139 30535 net.cpp:399] inception_3a/5x5 -> inception_3a/5x5
I0913 19:53:52.791074 30535 net.cpp:141] Setting up inception_3a/5x5
I0913 19:53:52.791090 30535 net.cpp:148] Top shape: 10 32 28 28 (250880)
I0913 19:53:52.791096 30535 net.cpp:156] Memory required for data: 224788480
I0913 19:53:52.791105 30535 layer_factory.hpp:77] Creating layer inception_3a/relu_5x5
I0913 19:53:52.791116 30535 net.cpp:91] Creating Layer inception_3a/relu_5x5
I0913 19:53:52.791122 30535 net.cpp:425] inception_3a/relu_5x5 <- inception_3a/5x5
I0913 19:53:52.791129 30535 net.cpp:386] inception_3a/relu_5x5 -> inception_3a/5x5 (in-place)
I0913 19:53:52.791362 30535 net.cpp:141] Setting up inception_3a/relu_5x5
I0913 19:53:52.791373 30535 net.cpp:148] Top shape: 10 32 28 28 (250880)
I0913 19:53:52.791378 30535 net.cpp:156] Memory required for data: 225792000
I0913 19:53:52.791383 30535 layer_factory.hpp:77] Creating layer inception_3a/pool
I0913 19:53:52.791395 30535 net.cpp:91] Creating Layer inception_3a/pool
I0913 19:53:52.791400 30535 net.cpp:425] inception_3a/pool <- pool2/3x3_s2_pool2/3x3_s2_0_split_3
I0913 19:53:52.791410 30535 net.cpp:399] inception_3a/pool -> inception_3a/pool
I0913 19:53:52.791465 30535 net.cpp:141] Setting up inception_3a/pool
I0913 19:53:52.791474 30535 net.cpp:148] Top shape: 10 192 28 28 (1505280)
I0913 19:53:52.791479 30535 net.cpp:156] Memory required for data: 231813120
I0913 19:53:52.791483 30535 layer_factory.hpp:77] Creating layer inception_3a/pool_proj
I0913 19:53:52.791498 30535 net.cpp:91] Creating Layer inception_3a/pool_proj
I0913 19:53:52.791503 30535 net.cpp:425] inception_3a/pool_proj <- inception_3a/pool
I0913 19:53:52.791514 30535 net.cpp:399] inception_3a/pool_proj -> inception_3a/pool_proj
I0913 19:53:52.792891 30535 net.cpp:141] Setting up inception_3a/pool_proj
I0913 19:53:52.792909 30535 net.cpp:148] Top shape: 10 32 28 28 (250880)
I0913 19:53:52.792915 30535 net.cpp:156] Memory required for data: 232816640
I0913 19:53:52.792927 30535 layer_factory.hpp:77] Creating layer inception_3a/relu_pool_proj
I0913 19:53:52.792940 30535 net.cpp:91] Creating Layer inception_3a/relu_pool_proj
I0913 19:53:52.792946 30535 net.cpp:425] inception_3a/relu_pool_proj <- inception_3a/pool_proj
I0913 19:53:52.792954 30535 net.cpp:386] inception_3a/relu_pool_proj -> inception_3a/pool_proj (in-place)
I0913 19:53:52.793345 30535 net.cpp:141] Setting up inception_3a/relu_pool_proj
I0913 19:53:52.793359 30535 net.cpp:148] Top shape: 10 32 28 28 (250880)
I0913 19:53:52.793362 30535 net.cpp:156] Memory required for data: 233820160
I0913 19:53:52.793368 30535 layer_factory.hpp:77] Creating layer inception_3a/output
I0913 19:53:52.793390 30535 net.cpp:91] Creating Layer inception_3a/output
I0913 19:53:52.793395 30535 net.cpp:425] inception_3a/output <- inception_3a/1x1
I0913 19:53:52.793401 30535 net.cpp:425] inception_3a/output <- inception_3a/3x3
I0913 19:53:52.793406 30535 net.cpp:425] inception_3a/output <- inception_3a/5x5
I0913 19:53:52.793411 30535 net.cpp:425] inception_3a/output <- inception_3a/pool_proj
I0913 19:53:52.793417 30535 net.cpp:399] inception_3a/output -> inception_3a/output
I0913 19:53:52.793459 30535 net.cpp:141] Setting up inception_3a/output
I0913 19:53:52.793468 30535 net.cpp:148] Top shape: 10 256 28 28 (2007040)
I0913 19:53:52.793473 30535 net.cpp:156] Memory required for data: 241848320
I0913 19:53:52.793478 30535 layer_factory.hpp:77] Creating layer inception_3a/output_inception_3a/output_0_split
I0913 19:53:52.793485 30535 net.cpp:91] Creating Layer inception_3a/output_inception_3a/output_0_split
I0913 19:53:52.793489 30535 net.cpp:425] inception_3a/output_inception_3a/output_0_split <- inception_3a/output
I0913 19:53:52.793500 30535 net.cpp:399] inception_3a/output_inception_3a/output_0_split -> inception_3a/output_inception_3a/output_0_split_0
I0913 19:53:52.793509 30535 net.cpp:399] inception_3a/output_inception_3a/output_0_split -> inception_3a/output_inception_3a/output_0_split_1
I0913 19:53:52.793517 30535 net.cpp:399] inception_3a/output_inception_3a/output_0_split -> inception_3a/output_inception_3a/output_0_split_2
I0913 19:53:52.793525 30535 net.cpp:399] inception_3a/output_inception_3a/output_0_split -> inception_3a/output_inception_3a/output_0_split_3
I0913 19:53:52.793603 30535 net.cpp:141] Setting up inception_3a/output_inception_3a/output_0_split
I0913 19:53:52.793612 30535 net.cpp:148] Top shape: 10 256 28 28 (2007040)
I0913 19:53:52.793617 30535 net.cpp:148] Top shape: 10 256 28 28 (2007040)
I0913 19:53:52.793623 30535 net.cpp:148] Top shape: 10 256 28 28 (2007040)
I0913 19:53:52.793628 30535 net.cpp:148] Top shape: 10 256 28 28 (2007040)
I0913 19:53:52.793632 30535 net.cpp:156] Memory required for data: 273960960
I0913 19:53:52.793637 30535 layer_factory.hpp:77] Creating layer inception_3b/1x1
I0913 19:53:52.793654 30535 net.cpp:91] Creating Layer inception_3b/1x1
I0913 19:53:52.793660 30535 net.cpp:425] inception_3b/1x1 <- inception_3a/output_inception_3a/output_0_split_0
I0913 19:53:52.793668 30535 net.cpp:399] inception_3b/1x1 -> inception_3b/1x1
I0913 19:53:52.795065 30535 net.cpp:141] Setting up inception_3b/1x1
I0913 19:53:52.795079 30535 net.cpp:148] Top shape: 10 128 28 28 (1003520)
I0913 19:53:52.795083 30535 net.cpp:156] Memory required for data: 277975040
I0913 19:53:52.795094 30535 layer_factory.hpp:77] Creating layer inception_3b/relu_1x1
I0913 19:53:52.795104 30535 net.cpp:91] Creating Layer inception_3b/relu_1x1
I0913 19:53:52.795110 30535 net.cpp:425] inception_3b/relu_1x1 <- inception_3b/1x1
I0913 19:53:52.795120 30535 net.cpp:386] inception_3b/relu_1x1 -> inception_3b/1x1 (in-place)
I0913 19:53:52.795505 30535 net.cpp:141] Setting up inception_3b/relu_1x1
I0913 19:53:52.795516 30535 net.cpp:148] Top shape: 10 128 28 28 (1003520)
I0913 19:53:52.795521 30535 net.cpp:156] Memory required for data: 281989120
I0913 19:53:52.795526 30535 layer_factory.hpp:77] Creating layer inception_3b/3x3_reduce
I0913 19:53:52.795542 30535 net.cpp:91] Creating Layer inception_3b/3x3_reduce
I0913 19:53:52.795547 30535 net.cpp:425] inception_3b/3x3_reduce <- inception_3a/output_inception_3a/output_0_split_1
I0913 19:53:52.795558 30535 net.cpp:399] inception_3b/3x3_reduce -> inception_3b/3x3_reduce
I0913 19:53:52.797174 30535 net.cpp:141] Setting up inception_3b/3x3_reduce
I0913 19:53:52.797193 30535 net.cpp:148] Top shape: 10 128 28 28 (1003520)
I0913 19:53:52.797197 30535 net.cpp:156] Memory required for data: 286003200
I0913 19:53:52.797206 30535 layer_factory.hpp:77] Creating layer inception_3b/relu_3x3_reduce
I0913 19:53:52.797217 30535 net.cpp:91] Creating Layer inception_3b/relu_3x3_reduce
I0913 19:53:52.797224 30535 net.cpp:425] inception_3b/relu_3x3_reduce <- inception_3b/3x3_reduce
I0913 19:53:52.797231 30535 net.cpp:386] inception_3b/relu_3x3_reduce -> inception_3b/3x3_reduce (in-place)
I0913 19:53:52.797459 30535 net.cpp:141] Setting up inception_3b/relu_3x3_reduce
I0913 19:53:52.797471 30535 net.cpp:148] Top shape: 10 128 28 28 (1003520)
I0913 19:53:52.797475 30535 net.cpp:156] Memory required for data: 290017280
I0913 19:53:52.797480 30535 layer_factory.hpp:77] Creating layer inception_3b/3x3
I0913 19:53:52.797495 30535 net.cpp:91] Creating Layer inception_3b/3x3
I0913 19:53:52.797502 30535 net.cpp:425] inception_3b/3x3 <- inception_3b/3x3_reduce
I0913 19:53:52.797513 30535 net.cpp:399] inception_3b/3x3 -> inception_3b/3x3
I0913 19:53:52.801266 30535 net.cpp:141] Setting up inception_3b/3x3
I0913 19:53:52.801297 30535 net.cpp:148] Top shape: 10 192 28 28 (1505280)
I0913 19:53:52.801303 30535 net.cpp:156] Memory required for data: 296038400
I0913 19:53:52.801312 30535 layer_factory.hpp:77] Creating layer inception_3b/relu_3x3
I0913 19:53:52.801328 30535 net.cpp:91] Creating Layer inception_3b/relu_3x3
I0913 19:53:52.801334 30535 net.cpp:425] inception_3b/relu_3x3 <- inception_3b/3x3
I0913 19:53:52.801343 30535 net.cpp:386] inception_3b/relu_3x3 -> inception_3b/3x3 (in-place)
I0913 19:53:52.801738 30535 net.cpp:141] Setting up inception_3b/relu_3x3
I0913 19:53:52.801750 30535 net.cpp:148] Top shape: 10 192 28 28 (1505280)
I0913 19:53:52.801755 30535 net.cpp:156] Memory required for data: 302059520
I0913 19:53:52.801760 30535 layer_factory.hpp:77] Creating layer inception_3b/5x5_reduce
I0913 19:53:52.801776 30535 net.cpp:91] Creating Layer inception_3b/5x5_reduce
I0913 19:53:52.801781 30535 net.cpp:425] inception_3b/5x5_reduce <- inception_3a/output_inception_3a/output_0_split_2
I0913 19:53:52.801790 30535 net.cpp:399] inception_3b/5x5_reduce -> inception_3b/5x5_reduce
I0913 19:53:52.803042 30535 net.cpp:141] Setting up inception_3b/5x5_reduce
I0913 19:53:52.803058 30535 net.cpp:148] Top shape: 10 32 28 28 (250880)
I0913 19:53:52.803077 30535 net.cpp:156] Memory required for data: 303063040
I0913 19:53:52.803086 30535 layer_factory.hpp:77] Creating layer inception_3b/relu_5x5_reduce
I0913 19:53:52.803095 30535 net.cpp:91] Creating Layer inception_3b/relu_5x5_reduce
I0913 19:53:52.803102 30535 net.cpp:425] inception_3b/relu_5x5_reduce <- inception_3b/5x5_reduce
I0913 19:53:52.803110 30535 net.cpp:386] inception_3b/relu_5x5_reduce -> inception_3b/5x5_reduce (in-place)
I0913 19:53:52.803498 30535 net.cpp:141] Setting up inception_3b/relu_5x5_reduce
I0913 19:53:52.803510 30535 net.cpp:148] Top shape: 10 32 28 28 (250880)
I0913 19:53:52.803514 30535 net.cpp:156] Memory required for data: 304066560
I0913 19:53:52.803520 30535 layer_factory.hpp:77] Creating layer inception_3b/5x5
I0913 19:53:52.803535 30535 net.cpp:91] Creating Layer inception_3b/5x5
I0913 19:53:52.803541 30535 net.cpp:425] inception_3b/5x5 <- inception_3b/5x5_reduce
I0913 19:53:52.803553 30535 net.cpp:399] inception_3b/5x5 -> inception_3b/5x5
I0913 19:53:52.806197 30535 net.cpp:141] Setting up inception_3b/5x5
I0913 19:53:52.806226 30535 net.cpp:148] Top shape: 10 96 28 28 (752640)
I0913 19:53:52.806232 30535 net.cpp:156] Memory required for data: 307077120
I0913 19:53:52.806241 30535 layer_factory.hpp:77] Creating layer inception_3b/relu_5x5
I0913 19:53:52.806254 30535 net.cpp:91] Creating Layer inception_3b/relu_5x5
I0913 19:53:52.806260 30535 net.cpp:425] inception_3b/relu_5x5 <- inception_3b/5x5
I0913 19:53:52.806269 30535 net.cpp:386] inception_3b/relu_5x5 -> inception_3b/5x5 (in-place)
I0913 19:53:52.806495 30535 net.cpp:141] Setting up inception_3b/relu_5x5
I0913 19:53:52.806507 30535 net.cpp:148] Top shape: 10 96 28 28 (752640)
I0913 19:53:52.806511 30535 net.cpp:156] Memory required for data: 310087680
I0913 19:53:52.806516 30535 layer_factory.hpp:77] Creating layer inception_3b/pool
I0913 19:53:52.806529 30535 net.cpp:91] Creating Layer inception_3b/pool
I0913 19:53:52.806535 30535 net.cpp:425] inception_3b/pool <- inception_3a/output_inception_3a/output_0_split_3
I0913 19:53:52.806542 30535 net.cpp:399] inception_3b/pool -> inception_3b/pool
I0913 19:53:52.806602 30535 net.cpp:141] Setting up inception_3b/pool
I0913 19:53:52.806610 30535 net.cpp:148] Top shape: 10 256 28 28 (2007040)
I0913 19:53:52.806614 30535 net.cpp:156] Memory required for data: 318115840
I0913 19:53:52.806619 30535 layer_factory.hpp:77] Creating layer inception_3b/pool_proj
I0913 19:53:52.806633 30535 net.cpp:91] Creating Layer inception_3b/pool_proj
I0913 19:53:52.806639 30535 net.cpp:425] inception_3b/pool_proj <- inception_3b/pool
I0913 19:53:52.806650 30535 net.cpp:399] inception_3b/pool_proj -> inception_3b/pool_proj
I0913 19:53:52.808176 30535 net.cpp:141] Setting up inception_3b/pool_proj
I0913 19:53:52.808194 30535 net.cpp:148] Top shape: 10 64 28 28 (501760)
I0913 19:53:52.808199 30535 net.cpp:156] Memory required for data: 320122880
I0913 19:53:52.808208 30535 layer_factory.hpp:77] Creating layer inception_3b/relu_pool_proj
I0913 19:53:52.808219 30535 net.cpp:91] Creating Layer inception_3b/relu_pool_proj
I0913 19:53:52.808225 30535 net.cpp:425] inception_3b/relu_pool_proj <- inception_3b/pool_proj
I0913 19:53:52.808233 30535 net.cpp:386] inception_3b/relu_pool_proj -> inception_3b/pool_proj (in-place)
I0913 19:53:52.808632 30535 net.cpp:141] Setting up inception_3b/relu_pool_proj
I0913 19:53:52.808645 30535 net.cpp:148] Top shape: 10 64 28 28 (501760)
I0913 19:53:52.808650 30535 net.cpp:156] Memory required for data: 322129920
I0913 19:53:52.808655 30535 layer_factory.hpp:77] Creating layer inception_3b/output
I0913 19:53:52.808665 30535 net.cpp:91] Creating Layer inception_3b/output
I0913 19:53:52.808670 30535 net.cpp:425] inception_3b/output <- inception_3b/1x1
I0913 19:53:52.808676 30535 net.cpp:425] inception_3b/output <- inception_3b/3x3
I0913 19:53:52.808682 30535 net.cpp:425] inception_3b/output <- inception_3b/5x5
I0913 19:53:52.808687 30535 net.cpp:425] inception_3b/output <- inception_3b/pool_proj
I0913 19:53:52.808693 30535 net.cpp:399] inception_3b/output -> inception_3b/output
I0913 19:53:52.808734 30535 net.cpp:141] Setting up inception_3b/output
I0913 19:53:52.808743 30535 net.cpp:148] Top shape: 10 480 28 28 (3763200)
I0913 19:53:52.808748 30535 net.cpp:156] Memory required for data: 337182720
I0913 19:53:52.808753 30535 layer_factory.hpp:77] Creating layer pool3/3x3_s2
I0913 19:53:52.808760 30535 net.cpp:91] Creating Layer pool3/3x3_s2
I0913 19:53:52.808765 30535 net.cpp:425] pool3/3x3_s2 <- inception_3b/output
I0913 19:53:52.808774 30535 net.cpp:399] pool3/3x3_s2 -> pool3/3x3_s2
I0913 19:53:52.808831 30535 net.cpp:141] Setting up pool3/3x3_s2
I0913 19:53:52.808841 30535 net.cpp:148] Top shape: 10 480 14 14 (940800)
I0913 19:53:52.808845 30535 net.cpp:156] Memory required for data: 340945920
I0913 19:53:52.808851 30535 layer_factory.hpp:77] Creating layer pool3/3x3_s2_pool3/3x3_s2_0_split
I0913 19:53:52.808858 30535 net.cpp:91] Creating Layer pool3/3x3_s2_pool3/3x3_s2_0_split
I0913 19:53:52.808863 30535 net.cpp:425] pool3/3x3_s2_pool3/3x3_s2_0_split <- pool3/3x3_s2
I0913 19:53:52.808872 30535 net.cpp:399] pool3/3x3_s2_pool3/3x3_s2_0_split -> pool3/3x3_s2_pool3/3x3_s2_0_split_0
I0913 19:53:52.808881 30535 net.cpp:399] pool3/3x3_s2_pool3/3x3_s2_0_split -> pool3/3x3_s2_pool3/3x3_s2_0_split_1
I0913 19:53:52.808888 30535 net.cpp:399] pool3/3x3_s2_pool3/3x3_s2_0_split -> pool3/3x3_s2_pool3/3x3_s2_0_split_2
I0913 19:53:52.808897 30535 net.cpp:399] pool3/3x3_s2_pool3/3x3_s2_0_split -> pool3/3x3_s2_pool3/3x3_s2_0_split_3
I0913 19:53:52.808974 30535 net.cpp:141] Setting up pool3/3x3_s2_pool3/3x3_s2_0_split
I0913 19:53:52.808982 30535 net.cpp:148] Top shape: 10 480 14 14 (940800)
I0913 19:53:52.808989 30535 net.cpp:148] Top shape: 10 480 14 14 (940800)
I0913 19:53:52.808993 30535 net.cpp:148] Top shape: 10 480 14 14 (940800)
I0913 19:53:52.809000 30535 net.cpp:148] Top shape: 10 480 14 14 (940800)
I0913 19:53:52.809002 30535 net.cpp:156] Memory required for data: 355998720
I0913 19:53:52.809007 30535 layer_factory.hpp:77] Creating layer inception_4a/1x1
I0913 19:53:52.809023 30535 net.cpp:91] Creating Layer inception_4a/1x1
I0913 19:53:52.809029 30535 net.cpp:425] inception_4a/1x1 <- pool3/3x3_s2_pool3/3x3_s2_0_split_0
I0913 19:53:52.809037 30535 net.cpp:399] inception_4a/1x1 -> inception_4a/1x1
I0913 19:53:52.811220 30535 net.cpp:141] Setting up inception_4a/1x1
I0913 19:53:52.811240 30535 net.cpp:148] Top shape: 10 192 14 14 (376320)
I0913 19:53:52.811245 30535 net.cpp:156] Memory required for data: 357504000
I0913 19:53:52.811254 30535 layer_factory.hpp:77] Creating layer inception_4a/relu_1x1
I0913 19:53:52.811264 30535 net.cpp:91] Creating Layer inception_4a/relu_1x1
I0913 19:53:52.811269 30535 net.cpp:425] inception_4a/relu_1x1 <- inception_4a/1x1
I0913 19:53:52.811275 30535 net.cpp:386] inception_4a/relu_1x1 -> inception_4a/1x1 (in-place)
I0913 19:53:52.811672 30535 net.cpp:141] Setting up inception_4a/relu_1x1
I0913 19:53:52.811684 30535 net.cpp:148] Top shape: 10 192 14 14 (376320)
I0913 19:53:52.811689 30535 net.cpp:156] Memory required for data: 359009280
I0913 19:53:52.811694 30535 layer_factory.hpp:77] Creating layer inception_4a/3x3_reduce
I0913 19:53:52.811710 30535 net.cpp:91] Creating Layer inception_4a/3x3_reduce
I0913 19:53:52.811717 30535 net.cpp:425] inception_4a/3x3_reduce <- pool3/3x3_s2_pool3/3x3_s2_0_split_1
I0913 19:53:52.811728 30535 net.cpp:399] inception_4a/3x3_reduce -> inception_4a/3x3_reduce
I0913 19:53:52.813505 30535 net.cpp:141] Setting up inception_4a/3x3_reduce
I0913 19:53:52.813519 30535 net.cpp:148] Top shape: 10 96 14 14 (188160)
I0913 19:53:52.813524 30535 net.cpp:156] Memory required for data: 359761920
I0913 19:53:52.813542 30535 layer_factory.hpp:77] Creating layer inception_4a/relu_3x3_reduce
I0913 19:53:52.813555 30535 net.cpp:91] Creating Layer inception_4a/relu_3x3_reduce
I0913 19:53:52.813560 30535 net.cpp:425] inception_4a/relu_3x3_reduce <- inception_4a/3x3_reduce
I0913 19:53:52.813566 30535 net.cpp:386] inception_4a/relu_3x3_reduce -> inception_4a/3x3_reduce (in-place)
I0913 19:53:52.813798 30535 net.cpp:141] Setting up inception_4a/relu_3x3_reduce
I0913 19:53:52.813808 30535 net.cpp:148] Top shape: 10 96 14 14 (188160)
I0913 19:53:52.813813 30535 net.cpp:156] Memory required for data: 360514560
I0913 19:53:52.813818 30535 layer_factory.hpp:77] Creating layer inception_4a/3x3
I0913 19:53:52.813835 30535 net.cpp:91] Creating Layer inception_4a/3x3
I0913 19:53:52.813841 30535 net.cpp:425] inception_4a/3x3 <- inception_4a/3x3_reduce
I0913 19:53:52.813849 30535 net.cpp:399] inception_4a/3x3 -> inception_4a/3x3
I0913 19:53:52.817301 30535 net.cpp:141] Setting up inception_4a/3x3
I0913 19:53:52.817315 30535 net.cpp:148] Top shape: 10 208 14 14 (407680)
I0913 19:53:52.817320 30535 net.cpp:156] Memory required for data: 362145280
I0913 19:53:52.817329 30535 layer_factory.hpp:77] Creating layer inception_4a/relu_3x3
I0913 19:53:52.817342 30535 net.cpp:91] Creating Layer inception_4a/relu_3x3
I0913 19:53:52.817348 30535 net.cpp:425] inception_4a/relu_3x3 <- inception_4a/3x3
I0913 19:53:52.817354 30535 net.cpp:386] inception_4a/relu_3x3 -> inception_4a/3x3 (in-place)
I0913 19:53:52.817751 30535 net.cpp:141] Setting up inception_4a/relu_3x3
I0913 19:53:52.817764 30535 net.cpp:148] Top shape: 10 208 14 14 (407680)
I0913 19:53:52.817770 30535 net.cpp:156] Memory required for data: 363776000
I0913 19:53:52.817775 30535 layer_factory.hpp:77] Creating layer inception_4a/5x5_reduce
I0913 19:53:52.817792 30535 net.cpp:91] Creating Layer inception_4a/5x5_reduce
I0913 19:53:52.817798 30535 net.cpp:425] inception_4a/5x5_reduce <- pool3/3x3_s2_pool3/3x3_s2_0_split_2
I0913 19:53:52.817807 30535 net.cpp:399] inception_4a/5x5_reduce -> inception_4a/5x5_reduce
I0913 19:53:52.819113 30535 net.cpp:141] Setting up inception_4a/5x5_reduce
I0913 19:53:52.819142 30535 net.cpp:148] Top shape: 10 16 14 14 (31360)
I0913 19:53:52.819147 30535 net.cpp:156] Memory required for data: 363901440
I0913 19:53:52.819155 30535 layer_factory.hpp:77] Creating layer inception_4a/relu_5x5_reduce
I0913 19:53:52.819164 30535 net.cpp:91] Creating Layer inception_4a/relu_5x5_reduce
I0913 19:53:52.819169 30535 net.cpp:425] inception_4a/relu_5x5_reduce <- inception_4a/5x5_reduce
I0913 19:53:52.819178 30535 net.cpp:386] inception_4a/relu_5x5_reduce -> inception_4a/5x5_reduce (in-place)
I0913 19:53:52.819584 30535 net.cpp:141] Setting up inception_4a/relu_5x5_reduce
I0913 19:53:52.819597 30535 net.cpp:148] Top shape: 10 16 14 14 (31360)
I0913 19:53:52.819602 30535 net.cpp:156] Memory required for data: 364026880
I0913 19:53:52.819607 30535 layer_factory.hpp:77] Creating layer inception_4a/5x5
I0913 19:53:52.819622 30535 net.cpp:91] Creating Layer inception_4a/5x5
I0913 19:53:52.819628 30535 net.cpp:425] inception_4a/5x5 <- inception_4a/5x5_reduce
I0913 19:53:52.819639 30535 net.cpp:399] inception_4a/5x5 -> inception_4a/5x5
I0913 19:53:52.821176 30535 net.cpp:141] Setting up inception_4a/5x5
I0913 19:53:52.821193 30535 net.cpp:148] Top shape: 10 48 14 14 (94080)
I0913 19:53:52.821198 30535 net.cpp:156] Memory required for data: 364403200
I0913 19:53:52.821208 30535 layer_factory.hpp:77] Creating layer inception_4a/relu_5x5
I0913 19:53:52.821216 30535 net.cpp:91] Creating Layer inception_4a/relu_5x5
I0913 19:53:52.821221 30535 net.cpp:425] inception_4a/relu_5x5 <- inception_4a/5x5
I0913 19:53:52.821231 30535 net.cpp:386] inception_4a/relu_5x5 -> inception_4a/5x5 (in-place)
I0913 19:53:52.821460 30535 net.cpp:141] Setting up inception_4a/relu_5x5
I0913 19:53:52.821470 30535 net.cpp:148] Top shape: 10 48 14 14 (94080)
I0913 19:53:52.821475 30535 net.cpp:156] Memory required for data: 364779520
I0913 19:53:52.821480 30535 layer_factory.hpp:77] Creating layer inception_4a/pool
I0913 19:53:52.821492 30535 net.cpp:91] Creating Layer inception_4a/pool
I0913 19:53:52.821498 30535 net.cpp:425] inception_4a/pool <- pool3/3x3_s2_pool3/3x3_s2_0_split_3
I0913 19:53:52.821506 30535 net.cpp:399] inception_4a/pool -> inception_4a/pool
I0913 19:53:52.821568 30535 net.cpp:141] Setting up inception_4a/pool
I0913 19:53:52.821578 30535 net.cpp:148] Top shape: 10 480 14 14 (940800)
I0913 19:53:52.821581 30535 net.cpp:156] Memory required for data: 368542720
I0913 19:53:52.821586 30535 layer_factory.hpp:77] Creating layer inception_4a/pool_proj
I0913 19:53:52.821600 30535 net.cpp:91] Creating Layer inception_4a/pool_proj
I0913 19:53:52.821606 30535 net.cpp:425] inception_4a/pool_proj <- inception_4a/pool
I0913 19:53:52.821617 30535 net.cpp:399] inception_4a/pool_proj -> inception_4a/pool_proj
I0913 19:53:52.823259 30535 net.cpp:141] Setting up inception_4a/pool_proj
I0913 19:53:52.823276 30535 net.cpp:148] Top shape: 10 64 14 14 (125440)
I0913 19:53:52.823282 30535 net.cpp:156] Memory required for data: 369044480
I0913 19:53:52.823290 30535 layer_factory.hpp:77] Creating layer inception_4a/relu_pool_proj
I0913 19:53:52.823299 30535 net.cpp:91] Creating Layer inception_4a/relu_pool_proj
I0913 19:53:52.823304 30535 net.cpp:425] inception_4a/relu_pool_proj <- inception_4a/pool_proj
I0913 19:53:52.823317 30535 net.cpp:386] inception_4a/relu_pool_proj -> inception_4a/pool_proj (in-place)
I0913 19:53:52.823714 30535 net.cpp:141] Setting up inception_4a/relu_pool_proj
I0913 19:53:52.823726 30535 net.cpp:148] Top shape: 10 64 14 14 (125440)
I0913 19:53:52.823731 30535 net.cpp:156] Memory required for data: 369546240
I0913 19:53:52.823736 30535 layer_factory.hpp:77] Creating layer inception_4a/output
I0913 19:53:52.823745 30535 net.cpp:91] Creating Layer inception_4a/output
I0913 19:53:52.823750 30535 net.cpp:425] inception_4a/output <- inception_4a/1x1
I0913 19:53:52.823757 30535 net.cpp:425] inception_4a/output <- inception_4a/3x3
I0913 19:53:52.823762 30535 net.cpp:425] inception_4a/output <- inception_4a/5x5
I0913 19:53:52.823767 30535 net.cpp:425] inception_4a/output <- inception_4a/pool_proj
I0913 19:53:52.823778 30535 net.cpp:399] inception_4a/output -> inception_4a/output
I0913 19:53:52.823822 30535 net.cpp:141] Setting up inception_4a/output
I0913 19:53:52.823830 30535 net.cpp:148] Top shape: 10 512 14 14 (1003520)
I0913 19:53:52.823834 30535 net.cpp:156] Memory required for data: 373560320
I0913 19:53:52.823839 30535 layer_factory.hpp:77] Creating layer inception_4a/output_inception_4a/output_0_split
I0913 19:53:52.823848 30535 net.cpp:91] Creating Layer inception_4a/output_inception_4a/output_0_split
I0913 19:53:52.823853 30535 net.cpp:425] inception_4a/output_inception_4a/output_0_split <- inception_4a/output
I0913 19:53:52.823859 30535 net.cpp:399] inception_4a/output_inception_4a/output_0_split -> inception_4a/output_inception_4a/output_0_split_0
I0913 19:53:52.823871 30535 net.cpp:399] inception_4a/output_inception_4a/output_0_split -> inception_4a/output_inception_4a/output_0_split_1
I0913 19:53:52.823880 30535 net.cpp:399] inception_4a/output_inception_4a/output_0_split -> inception_4a/output_inception_4a/output_0_split_2
I0913 19:53:52.823889 30535 net.cpp:399] inception_4a/output_inception_4a/output_0_split -> inception_4a/output_inception_4a/output_0_split_3
I0913 19:53:52.823972 30535 net.cpp:141] Setting up inception_4a/output_inception_4a/output_0_split
I0913 19:53:52.823982 30535 net.cpp:148] Top shape: 10 512 14 14 (1003520)
I0913 19:53:52.823987 30535 net.cpp:148] Top shape: 10 512 14 14 (1003520)
I0913 19:53:52.823992 30535 net.cpp:148] Top shape: 10 512 14 14 (1003520)
I0913 19:53:52.823997 30535 net.cpp:148] Top shape: 10 512 14 14 (1003520)
I0913 19:53:52.824002 30535 net.cpp:156] Memory required for data: 389616640
I0913 19:53:52.824005 30535 layer_factory.hpp:77] Creating layer inception_4b/1x1
I0913 19:53:52.824023 30535 net.cpp:91] Creating Layer inception_4b/1x1
I0913 19:53:52.824028 30535 net.cpp:425] inception_4b/1x1 <- inception_4a/output_inception_4a/output_0_split_0
I0913 19:53:52.824036 30535 net.cpp:399] inception_4b/1x1 -> inception_4b/1x1
I0913 19:53:52.825878 30535 net.cpp:141] Setting up inception_4b/1x1
I0913 19:53:52.825896 30535 net.cpp:148] Top shape: 10 160 14 14 (313600)
I0913 19:53:52.825901 30535 net.cpp:156] Memory required for data: 390871040
I0913 19:53:52.825911 30535 layer_factory.hpp:77] Creating layer inception_4b/relu_1x1
I0913 19:53:52.825922 30535 net.cpp:91] Creating Layer inception_4b/relu_1x1
I0913 19:53:52.825928 30535 net.cpp:425] inception_4b/relu_1x1 <- inception_4b/1x1
I0913 19:53:52.825937 30535 net.cpp:386] inception_4b/relu_1x1 -> inception_4b/1x1 (in-place)
I0913 19:53:52.826336 30535 net.cpp:141] Setting up inception_4b/relu_1x1
I0913 19:53:52.826349 30535 net.cpp:148] Top shape: 10 160 14 14 (313600)
I0913 19:53:52.826354 30535 net.cpp:156] Memory required for data: 392125440
I0913 19:53:52.826359 30535 layer_factory.hpp:77] Creating layer inception_4b/3x3_reduce
I0913 19:53:52.826373 30535 net.cpp:91] Creating Layer inception_4b/3x3_reduce
I0913 19:53:52.826380 30535 net.cpp:425] inception_4b/3x3_reduce <- inception_4a/output_inception_4a/output_0_split_1
I0913 19:53:52.826391 30535 net.cpp:399] inception_4b/3x3_reduce -> inception_4b/3x3_reduce
I0913 19:53:52.828249 30535 net.cpp:141] Setting up inception_4b/3x3_reduce
I0913 19:53:52.828266 30535 net.cpp:148] Top shape: 10 112 14 14 (219520)
I0913 19:53:52.828271 30535 net.cpp:156] Memory required for data: 393003520
I0913 19:53:52.828280 30535 layer_factory.hpp:77] Creating layer inception_4b/relu_3x3_reduce
I0913 19:53:52.828291 30535 net.cpp:91] Creating Layer inception_4b/relu_3x3_reduce
I0913 19:53:52.828297 30535 net.cpp:425] inception_4b/relu_3x3_reduce <- inception_4b/3x3_reduce
I0913 19:53:52.828305 30535 net.cpp:386] inception_4b/relu_3x3_reduce -> inception_4b/3x3_reduce (in-place)
I0913 19:53:52.828536 30535 net.cpp:141] Setting up inception_4b/relu_3x3_reduce
I0913 19:53:52.828547 30535 net.cpp:148] Top shape: 10 112 14 14 (219520)
I0913 19:53:52.828552 30535 net.cpp:156] Memory required for data: 393881600
I0913 19:53:52.828557 30535 layer_factory.hpp:77] Creating layer inception_4b/3x3
I0913 19:53:52.828574 30535 net.cpp:91] Creating Layer inception_4b/3x3
I0913 19:53:52.828580 30535 net.cpp:425] inception_4b/3x3 <- inception_4b/3x3_reduce
I0913 19:53:52.828588 30535 net.cpp:399] inception_4b/3x3 -> inception_4b/3x3
I0913 19:53:52.832700 30535 net.cpp:141] Setting up inception_4b/3x3
I0913 19:53:52.832731 30535 net.cpp:148] Top shape: 10 224 14 14 (439040)
I0913 19:53:52.832737 30535 net.cpp:156] Memory required for data: 395637760
I0913 19:53:52.832746 30535 layer_factory.hpp:77] Creating layer inception_4b/relu_3x3
I0913 19:53:52.832756 30535 net.cpp:91] Creating Layer inception_4b/relu_3x3
I0913 19:53:52.832762 30535 net.cpp:425] inception_4b/relu_3x3 <- inception_4b/3x3
I0913 19:53:52.832770 30535 net.cpp:386] inception_4b/relu_3x3 -> inception_4b/3x3 (in-place)
I0913 19:53:52.833186 30535 net.cpp:141] Setting up inception_4b/relu_3x3
I0913 19:53:52.833199 30535 net.cpp:148] Top shape: 10 224 14 14 (439040)
I0913 19:53:52.833204 30535 net.cpp:156] Memory required for data: 397393920
I0913 19:53:52.833209 30535 layer_factory.hpp:77] Creating layer inception_4b/5x5_reduce
I0913 19:53:52.833237 30535 net.cpp:91] Creating Layer inception_4b/5x5_reduce
I0913 19:53:52.833243 30535 net.cpp:425] inception_4b/5x5_reduce <- inception_4a/output_inception_4a/output_0_split_2
I0913 19:53:52.833254 30535 net.cpp:399] inception_4b/5x5_reduce -> inception_4b/5x5_reduce
I0913 19:53:52.834640 30535 net.cpp:141] Setting up inception_4b/5x5_reduce
I0913 19:53:52.834658 30535 net.cpp:148] Top shape: 10 24 14 14 (47040)
I0913 19:53:52.834663 30535 net.cpp:156] Memory required for data: 397582080
I0913 19:53:52.834673 30535 layer_factory.hpp:77] Creating layer inception_4b/relu_5x5_reduce
I0913 19:53:52.834682 30535 net.cpp:91] Creating Layer inception_4b/relu_5x5_reduce
I0913 19:53:52.834688 30535 net.cpp:425] inception_4b/relu_5x5_reduce <- inception_4b/5x5_reduce
I0913 19:53:52.834695 30535 net.cpp:386] inception_4b/relu_5x5_reduce -> inception_4b/5x5_reduce (in-place)
I0913 19:53:52.835103 30535 net.cpp:141] Setting up inception_4b/relu_5x5_reduce
I0913 19:53:52.835115 30535 net.cpp:148] Top shape: 10 24 14 14 (47040)
I0913 19:53:52.835120 30535 net.cpp:156] Memory required for data: 397770240
I0913 19:53:52.835125 30535 layer_factory.hpp:77] Creating layer inception_4b/5x5
I0913 19:53:52.835142 30535 net.cpp:91] Creating Layer inception_4b/5x5
I0913 19:53:52.835150 30535 net.cpp:425] inception_4b/5x5 <- inception_4b/5x5_reduce
I0913 19:53:52.835160 30535 net.cpp:399] inception_4b/5x5 -> inception_4b/5x5
I0913 19:53:52.837613 30535 net.cpp:141] Setting up inception_4b/5x5
I0913 19:53:52.837631 30535 net.cpp:148] Top shape: 10 64 14 14 (125440)
I0913 19:53:52.837637 30535 net.cpp:156] Memory required for data: 398272000
I0913 19:53:52.837646 30535 layer_factory.hpp:77] Creating layer inception_4b/relu_5x5
I0913 19:53:52.837657 30535 net.cpp:91] Creating Layer inception_4b/relu_5x5
I0913 19:53:52.837663 30535 net.cpp:425] inception_4b/relu_5x5 <- inception_4b/5x5
I0913 19:53:52.837671 30535 net.cpp:386] inception_4b/relu_5x5 -> inception_4b/5x5 (in-place)
I0913 19:53:52.837913 30535 net.cpp:141] Setting up inception_4b/relu_5x5
I0913 19:53:52.837924 30535 net.cpp:148] Top shape: 10 64 14 14 (125440)
I0913 19:53:52.837929 30535 net.cpp:156] Memory required for data: 398773760
I0913 19:53:52.837934 30535 layer_factory.hpp:77] Creating layer inception_4b/pool
I0913 19:53:52.837947 30535 net.cpp:91] Creating Layer inception_4b/pool
I0913 19:53:52.837954 30535 net.cpp:425] inception_4b/pool <- inception_4a/output_inception_4a/output_0_split_3
I0913 19:53:52.837963 30535 net.cpp:399] inception_4b/pool -> inception_4b/pool
I0913 19:53:52.838027 30535 net.cpp:141] Setting up inception_4b/pool
I0913 19:53:52.838037 30535 net.cpp:148] Top shape: 10 512 14 14 (1003520)
I0913 19:53:52.838042 30535 net.cpp:156] Memory required for data: 402787840
I0913 19:53:52.838047 30535 layer_factory.hpp:77] Creating layer inception_4b/pool_proj
I0913 19:53:52.838060 30535 net.cpp:91] Creating Layer inception_4b/pool_proj
I0913 19:53:52.838065 30535 net.cpp:425] inception_4b/pool_proj <- inception_4b/pool
I0913 19:53:52.838076 30535 net.cpp:399] inception_4b/pool_proj -> inception_4b/pool_proj
I0913 19:53:52.839727 30535 net.cpp:141] Setting up inception_4b/pool_proj
I0913 19:53:52.839745 30535 net.cpp:148] Top shape: 10 64 14 14 (125440)
I0913 19:53:52.839750 30535 net.cpp:156] Memory required for data: 403289600
I0913 19:53:52.839758 30535 layer_factory.hpp:77] Creating layer inception_4b/relu_pool_proj
I0913 19:53:52.839767 30535 net.cpp:91] Creating Layer inception_4b/relu_pool_proj
I0913 19:53:52.839773 30535 net.cpp:425] inception_4b/relu_pool_proj <- inception_4b/pool_proj
I0913 19:53:52.839783 30535 net.cpp:386] inception_4b/relu_pool_proj -> inception_4b/pool_proj (in-place)
I0913 19:53:52.840204 30535 net.cpp:141] Setting up inception_4b/relu_pool_proj
I0913 19:53:52.840216 30535 net.cpp:148] Top shape: 10 64 14 14 (125440)
I0913 19:53:52.840221 30535 net.cpp:156] Memory required for data: 403791360
I0913 19:53:52.840226 30535 layer_factory.hpp:77] Creating layer inception_4b/output
I0913 19:53:52.840235 30535 net.cpp:91] Creating Layer inception_4b/output
I0913 19:53:52.840240 30535 net.cpp:425] inception_4b/output <- inception_4b/1x1
I0913 19:53:52.840247 30535 net.cpp:425] inception_4b/output <- inception_4b/3x3
I0913 19:53:52.840252 30535 net.cpp:425] inception_4b/output <- inception_4b/5x5
I0913 19:53:52.840258 30535 net.cpp:425] inception_4b/output <- inception_4b/pool_proj
I0913 19:53:52.840268 30535 net.cpp:399] inception_4b/output -> inception_4b/output
I0913 19:53:52.840312 30535 net.cpp:141] Setting up inception_4b/output
I0913 19:53:52.840322 30535 net.cpp:148] Top shape: 10 512 14 14 (1003520)
I0913 19:53:52.840327 30535 net.cpp:156] Memory required for data: 407805440
I0913 19:53:52.840332 30535 layer_factory.hpp:77] Creating layer inception_4b/output_inception_4b/output_0_split
I0913 19:53:52.840339 30535 net.cpp:91] Creating Layer inception_4b/output_inception_4b/output_0_split
I0913 19:53:52.840344 30535 net.cpp:425] inception_4b/output_inception_4b/output_0_split <- inception_4b/output
I0913 19:53:52.840351 30535 net.cpp:399] inception_4b/output_inception_4b/output_0_split -> inception_4b/output_inception_4b/output_0_split_0
I0913 19:53:52.840363 30535 net.cpp:399] inception_4b/output_inception_4b/output_0_split -> inception_4b/output_inception_4b/output_0_split_1
I0913 19:53:52.840373 30535 net.cpp:399] inception_4b/output_inception_4b/output_0_split -> inception_4b/output_inception_4b/output_0_split_2
I0913 19:53:52.840380 30535 net.cpp:399] inception_4b/output_inception_4b/output_0_split -> inception_4b/output_inception_4b/output_0_split_3
I0913 19:53:52.840472 30535 net.cpp:141] Setting up inception_4b/output_inception_4b/output_0_split
I0913 19:53:52.840481 30535 net.cpp:148] Top shape: 10 512 14 14 (1003520)
I0913 19:53:52.840487 30535 net.cpp:148] Top shape: 10 512 14 14 (1003520)
I0913 19:53:52.840492 30535 net.cpp:148] Top shape: 10 512 14 14 (1003520)
I0913 19:53:52.840498 30535 net.cpp:148] Top shape: 10 512 14 14 (1003520)
I0913 19:53:52.840502 30535 net.cpp:156] Memory required for data: 423861760
I0913 19:53:52.840507 30535 layer_factory.hpp:77] Creating layer inception_4c/1x1
I0913 19:53:52.840524 30535 net.cpp:91] Creating Layer inception_4c/1x1
I0913 19:53:52.840530 30535 net.cpp:425] inception_4c/1x1 <- inception_4b/output_inception_4b/output_0_split_0
I0913 19:53:52.840538 30535 net.cpp:399] inception_4c/1x1 -> inception_4c/1x1
I0913 19:53:52.842260 30535 net.cpp:141] Setting up inception_4c/1x1
I0913 19:53:52.842277 30535 net.cpp:148] Top shape: 10 128 14 14 (250880)
I0913 19:53:52.842281 30535 net.cpp:156] Memory required for data: 424865280
I0913 19:53:52.842290 30535 layer_factory.hpp:77] Creating layer inception_4c/relu_1x1
I0913 19:53:52.842299 30535 net.cpp:91] Creating Layer inception_4c/relu_1x1
I0913 19:53:52.842305 30535 net.cpp:425] inception_4c/relu_1x1 <- inception_4c/1x1
I0913 19:53:52.842311 30535 net.cpp:386] inception_4c/relu_1x1 -> inception_4c/1x1 (in-place)
I0913 19:53:52.842717 30535 net.cpp:141] Setting up inception_4c/relu_1x1
I0913 19:53:52.842730 30535 net.cpp:148] Top shape: 10 128 14 14 (250880)
I0913 19:53:52.842735 30535 net.cpp:156] Memory required for data: 425868800
I0913 19:53:52.842739 30535 layer_factory.hpp:77] Creating layer inception_4c/3x3_reduce
I0913 19:53:52.842756 30535 net.cpp:91] Creating Layer inception_4c/3x3_reduce
I0913 19:53:52.842762 30535 net.cpp:425] inception_4c/3x3_reduce <- inception_4b/output_inception_4b/output_0_split_1
I0913 19:53:52.842773 30535 net.cpp:399] inception_4c/3x3_reduce -> inception_4c/3x3_reduce
I0913 19:53:52.844718 30535 net.cpp:141] Setting up inception_4c/3x3_reduce
I0913 19:53:52.844736 30535 net.cpp:148] Top shape: 10 128 14 14 (250880)
I0913 19:53:52.844741 30535 net.cpp:156] Memory required for data: 426872320
I0913 19:53:52.844751 30535 layer_factory.hpp:77] Creating layer inception_4c/relu_3x3_reduce
I0913 19:53:52.844763 30535 net.cpp:91] Creating Layer inception_4c/relu_3x3_reduce
I0913 19:53:52.844769 30535 net.cpp:425] inception_4c/relu_3x3_reduce <- inception_4c/3x3_reduce
I0913 19:53:52.844776 30535 net.cpp:386] inception_4c/relu_3x3_reduce -> inception_4c/3x3_reduce (in-place)
I0913 19:53:52.845010 30535 net.cpp:141] Setting up inception_4c/relu_3x3_reduce
I0913 19:53:52.845021 30535 net.cpp:148] Top shape: 10 128 14 14 (250880)
I0913 19:53:52.845026 30535 net.cpp:156] Memory required for data: 427875840
I0913 19:53:52.845031 30535 layer_factory.hpp:77] Creating layer inception_4c/3x3
I0913 19:53:52.845046 30535 net.cpp:91] Creating Layer inception_4c/3x3
I0913 19:53:52.845052 30535 net.cpp:425] inception_4c/3x3 <- inception_4c/3x3_reduce
I0913 19:53:52.845063 30535 net.cpp:399] inception_4c/3x3 -> inception_4c/3x3
I0913 19:53:52.849679 30535 net.cpp:141] Setting up inception_4c/3x3
I0913 19:53:52.849716 30535 net.cpp:148] Top shape: 10 256 14 14 (501760)
I0913 19:53:52.849722 30535 net.cpp:156] Memory required for data: 429882880
I0913 19:53:52.849735 30535 layer_factory.hpp:77] Creating layer inception_4c/relu_3x3
I0913 19:53:52.849751 30535 net.cpp:91] Creating Layer inception_4c/relu_3x3
I0913 19:53:52.849759 30535 net.cpp:425] inception_4c/relu_3x3 <- inception_4c/3x3
I0913 19:53:52.849767 30535 net.cpp:386] inception_4c/relu_3x3 -> inception_4c/3x3 (in-place)
I0913 19:53:52.850188 30535 net.cpp:141] Setting up inception_4c/relu_3x3
I0913 19:53:52.850200 30535 net.cpp:148] Top shape: 10 256 14 14 (501760)
I0913 19:53:52.850205 30535 net.cpp:156] Memory required for data: 431889920
I0913 19:53:52.850210 30535 layer_factory.hpp:77] Creating layer inception_4c/5x5_reduce
I0913 19:53:52.850229 30535 net.cpp:91] Creating Layer inception_4c/5x5_reduce
I0913 19:53:52.850235 30535 net.cpp:425] inception_4c/5x5_reduce <- inception_4b/output_inception_4b/output_0_split_2
I0913 19:53:52.850247 30535 net.cpp:399] inception_4c/5x5_reduce -> inception_4c/5x5_reduce
I0913 19:53:52.851646 30535 net.cpp:141] Setting up inception_4c/5x5_reduce
I0913 19:53:52.851663 30535 net.cpp:148] Top shape: 10 24 14 14 (47040)
I0913 19:53:52.851668 30535 net.cpp:156] Memory required for data: 432078080
I0913 19:53:52.851677 30535 layer_factory.hpp:77] Creating layer inception_4c/relu_5x5_reduce
I0913 19:53:52.851686 30535 net.cpp:91] Creating Layer inception_4c/relu_5x5_reduce
I0913 19:53:52.851691 30535 net.cpp:425] inception_4c/relu_5x5_reduce <- inception_4c/5x5_reduce
I0913 19:53:52.851702 30535 net.cpp:386] inception_4c/relu_5x5_reduce -> inception_4c/5x5_reduce (in-place)
I0913 19:53:52.852125 30535 net.cpp:141] Setting up inception_4c/relu_5x5_reduce
I0913 19:53:52.852138 30535 net.cpp:148] Top shape: 10 24 14 14 (47040)
I0913 19:53:52.852144 30535 net.cpp:156] Memory required for data: 432266240
I0913 19:53:52.852149 30535 layer_factory.hpp:77] Creating layer inception_4c/5x5
I0913 19:53:52.852165 30535 net.cpp:91] Creating Layer inception_4c/5x5
I0913 19:53:52.852172 30535 net.cpp:425] inception_4c/5x5 <- inception_4c/5x5_reduce
I0913 19:53:52.852183 30535 net.cpp:399] inception_4c/5x5 -> inception_4c/5x5
I0913 19:53:52.854192 30535 net.cpp:141] Setting up inception_4c/5x5
I0913 19:53:52.854208 30535 net.cpp:148] Top shape: 10 64 14 14 (125440)
I0913 19:53:52.854213 30535 net.cpp:156] Memory required for data: 432768000
I0913 19:53:52.854223 30535 layer_factory.hpp:77] Creating layer inception_4c/relu_5x5
I0913 19:53:52.854231 30535 net.cpp:91] Creating Layer inception_4c/relu_5x5
I0913 19:53:52.854236 30535 net.cpp:425] inception_4c/relu_5x5 <- inception_4c/5x5
I0913 19:53:52.854246 30535 net.cpp:386] inception_4c/relu_5x5 -> inception_4c/5x5 (in-place)
I0913 19:53:52.854480 30535 net.cpp:141] Setting up inception_4c/relu_5x5
I0913 19:53:52.854491 30535 net.cpp:148] Top shape: 10 64 14 14 (125440)
I0913 19:53:52.854496 30535 net.cpp:156] Memory required for data: 433269760
I0913 19:53:52.854501 30535 layer_factory.hpp:77] Creating layer inception_4c/pool
I0913 19:53:52.854514 30535 net.cpp:91] Creating Layer inception_4c/pool
I0913 19:53:52.854521 30535 net.cpp:425] inception_4c/pool <- inception_4b/output_inception_4b/output_0_split_3
I0913 19:53:52.854528 30535 net.cpp:399] inception_4c/pool -> inception_4c/pool
I0913 19:53:52.854599 30535 net.cpp:141] Setting up inception_4c/pool
I0913 19:53:52.854609 30535 net.cpp:148] Top shape: 10 512 14 14 (1003520)
I0913 19:53:52.854614 30535 net.cpp:156] Memory required for data: 437283840
I0913 19:53:52.854619 30535 layer_factory.hpp:77] Creating layer inception_4c/pool_proj
I0913 19:53:52.854632 30535 net.cpp:91] Creating Layer inception_4c/pool_proj
I0913 19:53:52.854638 30535 net.cpp:425] inception_4c/pool_proj <- inception_4c/pool
I0913 19:53:52.854650 30535 net.cpp:399] inception_4c/pool_proj -> inception_4c/pool_proj
I0913 19:53:52.857058 30535 net.cpp:141] Setting up inception_4c/pool_proj
I0913 19:53:52.857075 30535 net.cpp:148] Top shape: 10 64 14 14 (125440)
I0913 19:53:52.857080 30535 net.cpp:156] Memory required for data: 437785600
I0913 19:53:52.857107 30535 layer_factory.hpp:77] Creating layer inception_4c/relu_pool_proj
I0913 19:53:52.857117 30535 net.cpp:91] Creating Layer inception_4c/relu_pool_proj
I0913 19:53:52.857123 30535 net.cpp:425] inception_4c/relu_pool_proj <- inception_4c/pool_proj
I0913 19:53:52.857131 30535 net.cpp:386] inception_4c/relu_pool_proj -> inception_4c/pool_proj (in-place)
I0913 19:53:52.857543 30535 net.cpp:141] Setting up inception_4c/relu_pool_proj
I0913 19:53:52.857556 30535 net.cpp:148] Top shape: 10 64 14 14 (125440)
I0913 19:53:52.857560 30535 net.cpp:156] Memory required for data: 438287360
I0913 19:53:52.857566 30535 layer_factory.hpp:77] Creating layer inception_4c/output
I0913 19:53:52.857575 30535 net.cpp:91] Creating Layer inception_4c/output
I0913 19:53:52.857581 30535 net.cpp:425] inception_4c/output <- inception_4c/1x1
I0913 19:53:52.857587 30535 net.cpp:425] inception_4c/output <- inception_4c/3x3
I0913 19:53:52.857592 30535 net.cpp:425] inception_4c/output <- inception_4c/5x5
I0913 19:53:52.857597 30535 net.cpp:425] inception_4c/output <- inception_4c/pool_proj
I0913 19:53:52.857607 30535 net.cpp:399] inception_4c/output -> inception_4c/output
I0913 19:53:52.857651 30535 net.cpp:141] Setting up inception_4c/output
I0913 19:53:52.857663 30535 net.cpp:148] Top shape: 10 512 14 14 (1003520)
I0913 19:53:52.857668 30535 net.cpp:156] Memory required for data: 442301440
I0913 19:53:52.857673 30535 layer_factory.hpp:77] Creating layer inception_4c/output_inception_4c/output_0_split
I0913 19:53:52.857681 30535 net.cpp:91] Creating Layer inception_4c/output_inception_4c/output_0_split
I0913 19:53:52.857686 30535 net.cpp:425] inception_4c/output_inception_4c/output_0_split <- inception_4c/output
I0913 19:53:52.857693 30535 net.cpp:399] inception_4c/output_inception_4c/output_0_split -> inception_4c/output_inception_4c/output_0_split_0
I0913 19:53:52.857702 30535 net.cpp:399] inception_4c/output_inception_4c/output_0_split -> inception_4c/output_inception_4c/output_0_split_1
I0913 19:53:52.857712 30535 net.cpp:399] inception_4c/output_inception_4c/output_0_split -> inception_4c/output_inception_4c/output_0_split_2
I0913 19:53:52.857722 30535 net.cpp:399] inception_4c/output_inception_4c/output_0_split -> inception_4c/output_inception_4c/output_0_split_3
I0913 19:53:52.857816 30535 net.cpp:141] Setting up inception_4c/output_inception_4c/output_0_split
I0913 19:53:52.857825 30535 net.cpp:148] Top shape: 10 512 14 14 (1003520)
I0913 19:53:52.857831 30535 net.cpp:148] Top shape: 10 512 14 14 (1003520)
I0913 19:53:52.857837 30535 net.cpp:148] Top shape: 10 512 14 14 (1003520)
I0913 19:53:52.857842 30535 net.cpp:148] Top shape: 10 512 14 14 (1003520)
I0913 19:53:52.857846 30535 net.cpp:156] Memory required for data: 458357760
I0913 19:53:52.857851 30535 layer_factory.hpp:77] Creating layer inception_4d/1x1
I0913 19:53:52.857866 30535 net.cpp:91] Creating Layer inception_4d/1x1
I0913 19:53:52.857872 30535 net.cpp:425] inception_4d/1x1 <- inception_4c/output_inception_4c/output_0_split_0
I0913 19:53:52.857882 30535 net.cpp:399] inception_4d/1x1 -> inception_4d/1x1
I0913 19:53:52.859580 30535 net.cpp:141] Setting up inception_4d/1x1
I0913 19:53:52.859596 30535 net.cpp:148] Top shape: 10 112 14 14 (219520)
I0913 19:53:52.859601 30535 net.cpp:156] Memory required for data: 459235840
I0913 19:53:52.859611 30535 layer_factory.hpp:77] Creating layer inception_4d/relu_1x1
I0913 19:53:52.859622 30535 net.cpp:91] Creating Layer inception_4d/relu_1x1
I0913 19:53:52.859628 30535 net.cpp:425] inception_4d/relu_1x1 <- inception_4d/1x1
I0913 19:53:52.859635 30535 net.cpp:386] inception_4d/relu_1x1 -> inception_4d/1x1 (in-place)
I0913 19:53:52.860045 30535 net.cpp:141] Setting up inception_4d/relu_1x1
I0913 19:53:52.860057 30535 net.cpp:148] Top shape: 10 112 14 14 (219520)
I0913 19:53:52.860062 30535 net.cpp:156] Memory required for data: 460113920
I0913 19:53:52.860067 30535 layer_factory.hpp:77] Creating layer inception_4d/3x3_reduce
I0913 19:53:52.860095 30535 net.cpp:91] Creating Layer inception_4d/3x3_reduce
I0913 19:53:52.860100 30535 net.cpp:425] inception_4d/3x3_reduce <- inception_4c/output_inception_4c/output_0_split_1
I0913 19:53:52.860110 30535 net.cpp:399] inception_4d/3x3_reduce -> inception_4d/3x3_reduce
I0913 19:53:52.862146 30535 net.cpp:141] Setting up inception_4d/3x3_reduce
I0913 19:53:52.862164 30535 net.cpp:148] Top shape: 10 144 14 14 (282240)
I0913 19:53:52.862169 30535 net.cpp:156] Memory required for data: 461242880
I0913 19:53:52.862176 30535 layer_factory.hpp:77] Creating layer inception_4d/relu_3x3_reduce
I0913 19:53:52.862187 30535 net.cpp:91] Creating Layer inception_4d/relu_3x3_reduce
I0913 19:53:52.862193 30535 net.cpp:425] inception_4d/relu_3x3_reduce <- inception_4d/3x3_reduce
I0913 19:53:52.862200 30535 net.cpp:386] inception_4d/relu_3x3_reduce -> inception_4d/3x3_reduce (in-place)
I0913 19:53:52.862437 30535 net.cpp:141] Setting up inception_4d/relu_3x3_reduce
I0913 19:53:52.862449 30535 net.cpp:148] Top shape: 10 144 14 14 (282240)
I0913 19:53:52.862453 30535 net.cpp:156] Memory required for data: 462371840
I0913 19:53:52.862458 30535 layer_factory.hpp:77] Creating layer inception_4d/3x3
I0913 19:53:52.862476 30535 net.cpp:91] Creating Layer inception_4d/3x3
I0913 19:53:52.862483 30535 net.cpp:425] inception_4d/3x3 <- inception_4d/3x3_reduce
I0913 19:53:52.862490 30535 net.cpp:399] inception_4d/3x3 -> inception_4d/3x3
I0913 19:53:52.867593 30535 net.cpp:141] Setting up inception_4d/3x3
I0913 19:53:52.867610 30535 net.cpp:148] Top shape: 10 288 14 14 (564480)
I0913 19:53:52.867615 30535 net.cpp:156] Memory required for data: 464629760
I0913 19:53:52.867624 30535 layer_factory.hpp:77] Creating layer inception_4d/relu_3x3
I0913 19:53:52.867633 30535 net.cpp:91] Creating Layer inception_4d/relu_3x3
I0913 19:53:52.867640 30535 net.cpp:425] inception_4d/relu_3x3 <- inception_4d/3x3
I0913 19:53:52.867650 30535 net.cpp:386] inception_4d/relu_3x3 -> inception_4d/3x3 (in-place)
I0913 19:53:52.868077 30535 net.cpp:141] Setting up inception_4d/relu_3x3
I0913 19:53:52.868090 30535 net.cpp:148] Top shape: 10 288 14 14 (564480)
I0913 19:53:52.868094 30535 net.cpp:156] Memory required for data: 466887680
I0913 19:53:52.868100 30535 layer_factory.hpp:77] Creating layer inception_4d/5x5_reduce
I0913 19:53:52.868118 30535 net.cpp:91] Creating Layer inception_4d/5x5_reduce
I0913 19:53:52.868124 30535 net.cpp:425] inception_4d/5x5_reduce <- inception_4c/output_inception_4c/output_0_split_2
I0913 19:53:52.868134 30535 net.cpp:399] inception_4d/5x5_reduce -> inception_4d/5x5_reduce
I0913 19:53:52.869585 30535 net.cpp:141] Setting up inception_4d/5x5_reduce
I0913 19:53:52.869602 30535 net.cpp:148] Top shape: 10 32 14 14 (62720)
I0913 19:53:52.869607 30535 net.cpp:156] Memory required for data: 467138560
I0913 19:53:52.869616 30535 layer_factory.hpp:77] Creating layer inception_4d/relu_5x5_reduce
I0913 19:53:52.869628 30535 net.cpp:91] Creating Layer inception_4d/relu_5x5_reduce
I0913 19:53:52.869634 30535 net.cpp:425] inception_4d/relu_5x5_reduce <- inception_4d/5x5_reduce
I0913 19:53:52.869642 30535 net.cpp:386] inception_4d/relu_5x5_reduce -> inception_4d/5x5_reduce (in-place)
I0913 19:53:52.870056 30535 net.cpp:141] Setting up inception_4d/relu_5x5_reduce
I0913 19:53:52.870069 30535 net.cpp:148] Top shape: 10 32 14 14 (62720)
I0913 19:53:52.870074 30535 net.cpp:156] Memory required for data: 467389440
I0913 19:53:52.870079 30535 layer_factory.hpp:77] Creating layer inception_4d/5x5
I0913 19:53:52.870096 30535 net.cpp:91] Creating Layer inception_4d/5x5
I0913 19:53:52.870103 30535 net.cpp:425] inception_4d/5x5 <- inception_4d/5x5_reduce
I0913 19:53:52.870111 30535 net.cpp:399] inception_4d/5x5 -> inception_4d/5x5
I0913 19:53:52.871979 30535 net.cpp:141] Setting up inception_4d/5x5
I0913 19:53:52.871995 30535 net.cpp:148] Top shape: 10 64 14 14 (125440)
I0913 19:53:52.872000 30535 net.cpp:156] Memory required for data: 467891200
I0913 19:53:52.872009 30535 layer_factory.hpp:77] Creating layer inception_4d/relu_5x5
I0913 19:53:52.872017 30535 net.cpp:91] Creating Layer inception_4d/relu_5x5
I0913 19:53:52.872023 30535 net.cpp:425] inception_4d/relu_5x5 <- inception_4d/5x5
I0913 19:53:52.872033 30535 net.cpp:386] inception_4d/relu_5x5 -> inception_4d/5x5 (in-place)
I0913 19:53:52.872282 30535 net.cpp:141] Setting up inception_4d/relu_5x5
I0913 19:53:52.872294 30535 net.cpp:148] Top shape: 10 64 14 14 (125440)
I0913 19:53:52.872298 30535 net.cpp:156] Memory required for data: 468392960
I0913 19:53:52.872303 30535 layer_factory.hpp:77] Creating layer inception_4d/pool
I0913 19:53:52.872318 30535 net.cpp:91] Creating Layer inception_4d/pool
I0913 19:53:52.872324 30535 net.cpp:425] inception_4d/pool <- inception_4c/output_inception_4c/output_0_split_3
I0913 19:53:52.872331 30535 net.cpp:399] inception_4d/pool -> inception_4d/pool
I0913 19:53:52.872403 30535 net.cpp:141] Setting up inception_4d/pool
I0913 19:53:52.872412 30535 net.cpp:148] Top shape: 10 512 14 14 (1003520)
I0913 19:53:52.872417 30535 net.cpp:156] Memory required for data: 472407040
I0913 19:53:52.872421 30535 layer_factory.hpp:77] Creating layer inception_4d/pool_proj
I0913 19:53:52.872436 30535 net.cpp:91] Creating Layer inception_4d/pool_proj
I0913 19:53:52.872442 30535 net.cpp:425] inception_4d/pool_proj <- inception_4d/pool
I0913 19:53:52.872452 30535 net.cpp:399] inception_4d/pool_proj -> inception_4d/pool_proj
I0913 19:53:52.874205 30535 net.cpp:141] Setting up inception_4d/pool_proj
I0913 19:53:52.874222 30535 net.cpp:148] Top shape: 10 64 14 14 (125440)
I0913 19:53:52.874228 30535 net.cpp:156] Memory required for data: 472908800
I0913 19:53:52.874236 30535 layer_factory.hpp:77] Creating layer inception_4d/relu_pool_proj
I0913 19:53:52.874248 30535 net.cpp:91] Creating Layer inception_4d/relu_pool_proj
I0913 19:53:52.874254 30535 net.cpp:425] inception_4d/relu_pool_proj <- inception_4d/pool_proj
I0913 19:53:52.874261 30535 net.cpp:386] inception_4d/relu_pool_proj -> inception_4d/pool_proj (in-place)
I0913 19:53:52.874686 30535 net.cpp:141] Setting up inception_4d/relu_pool_proj
I0913 19:53:52.874698 30535 net.cpp:148] Top shape: 10 64 14 14 (125440)
I0913 19:53:52.874706 30535 net.cpp:156] Memory required for data: 473410560
I0913 19:53:52.874711 30535 layer_factory.hpp:77] Creating layer inception_4d/output
I0913 19:53:52.874721 30535 net.cpp:91] Creating Layer inception_4d/output
I0913 19:53:52.874727 30535 net.cpp:425] inception_4d/output <- inception_4d/1x1
I0913 19:53:52.874732 30535 net.cpp:425] inception_4d/output <- inception_4d/3x3
I0913 19:53:52.874737 30535 net.cpp:425] inception_4d/output <- inception_4d/5x5
I0913 19:53:52.874742 30535 net.cpp:425] inception_4d/output <- inception_4d/pool_proj
I0913 19:53:52.874749 30535 net.cpp:399] inception_4d/output -> inception_4d/output
I0913 19:53:52.874799 30535 net.cpp:141] Setting up inception_4d/output
I0913 19:53:52.874809 30535 net.cpp:148] Top shape: 10 528 14 14 (1034880)
I0913 19:53:52.874812 30535 net.cpp:156] Memory required for data: 477550080
I0913 19:53:52.874817 30535 layer_factory.hpp:77] Creating layer inception_4d/output_inception_4d/output_0_split
I0913 19:53:52.874826 30535 net.cpp:91] Creating Layer inception_4d/output_inception_4d/output_0_split
I0913 19:53:52.874831 30535 net.cpp:425] inception_4d/output_inception_4d/output_0_split <- inception_4d/output
I0913 19:53:52.874840 30535 net.cpp:399] inception_4d/output_inception_4d/output_0_split -> inception_4d/output_inception_4d/output_0_split_0
I0913 19:53:52.874850 30535 net.cpp:399] inception_4d/output_inception_4d/output_0_split -> inception_4d/output_inception_4d/output_0_split_1
I0913 19:53:52.874857 30535 net.cpp:399] inception_4d/output_inception_4d/output_0_split -> inception_4d/output_inception_4d/output_0_split_2
I0913 19:53:52.874866 30535 net.cpp:399] inception_4d/output_inception_4d/output_0_split -> inception_4d/output_inception_4d/output_0_split_3
I0913 19:53:52.874964 30535 net.cpp:141] Setting up inception_4d/output_inception_4d/output_0_split
I0913 19:53:52.874974 30535 net.cpp:148] Top shape: 10 528 14 14 (1034880)
I0913 19:53:52.874979 30535 net.cpp:148] Top shape: 10 528 14 14 (1034880)
I0913 19:53:52.874984 30535 net.cpp:148] Top shape: 10 528 14 14 (1034880)
I0913 19:53:52.874989 30535 net.cpp:148] Top shape: 10 528 14 14 (1034880)
I0913 19:53:52.874994 30535 net.cpp:156] Memory required for data: 494108160
I0913 19:53:52.874997 30535 layer_factory.hpp:77] Creating layer inception_4e/1x1
I0913 19:53:52.875013 30535 net.cpp:91] Creating Layer inception_4e/1x1
I0913 19:53:52.875018 30535 net.cpp:425] inception_4e/1x1 <- inception_4d/output_inception_4d/output_0_split_0
I0913 19:53:52.875030 30535 net.cpp:399] inception_4e/1x1 -> inception_4e/1x1
I0913 19:53:52.878368 30535 net.cpp:141] Setting up inception_4e/1x1
I0913 19:53:52.878387 30535 net.cpp:148] Top shape: 10 256 14 14 (501760)
I0913 19:53:52.878392 30535 net.cpp:156] Memory required for data: 496115200
I0913 19:53:52.878401 30535 layer_factory.hpp:77] Creating layer inception_4e/relu_1x1
I0913 19:53:52.878410 30535 net.cpp:91] Creating Layer inception_4e/relu_1x1
I0913 19:53:52.878419 30535 net.cpp:425] inception_4e/relu_1x1 <- inception_4e/1x1
I0913 19:53:52.878427 30535 net.cpp:386] inception_4e/relu_1x1 -> inception_4e/1x1 (in-place)
I0913 19:53:52.878840 30535 net.cpp:141] Setting up inception_4e/relu_1x1
I0913 19:53:52.878854 30535 net.cpp:148] Top shape: 10 256 14 14 (501760)
I0913 19:53:52.878857 30535 net.cpp:156] Memory required for data: 498122240
I0913 19:53:52.878864 30535 layer_factory.hpp:77] Creating layer inception_4e/3x3_reduce
I0913 19:53:52.878878 30535 net.cpp:91] Creating Layer inception_4e/3x3_reduce
I0913 19:53:52.878885 30535 net.cpp:425] inception_4e/3x3_reduce <- inception_4d/output_inception_4d/output_0_split_1
I0913 19:53:52.878896 30535 net.cpp:399] inception_4e/3x3_reduce -> inception_4e/3x3_reduce
I0913 19:53:52.881036 30535 net.cpp:141] Setting up inception_4e/3x3_reduce
I0913 19:53:52.881053 30535 net.cpp:148] Top shape: 10 160 14 14 (313600)
I0913 19:53:52.881058 30535 net.cpp:156] Memory required for data: 499376640
I0913 19:53:52.881068 30535 layer_factory.hpp:77] Creating layer inception_4e/relu_3x3_reduce
I0913 19:53:52.881078 30535 net.cpp:91] Creating Layer inception_4e/relu_3x3_reduce
I0913 19:53:52.881083 30535 net.cpp:425] inception_4e/relu_3x3_reduce <- inception_4e/3x3_reduce
I0913 19:53:52.881089 30535 net.cpp:386] inception_4e/relu_3x3_reduce -> inception_4e/3x3_reduce (in-place)
I0913 19:53:52.881330 30535 net.cpp:141] Setting up inception_4e/relu_3x3_reduce
I0913 19:53:52.881340 30535 net.cpp:148] Top shape: 10 160 14 14 (313600)
I0913 19:53:52.881345 30535 net.cpp:156] Memory required for data: 500631040
I0913 19:53:52.881350 30535 layer_factory.hpp:77] Creating layer inception_4e/3x3
I0913 19:53:52.881366 30535 net.cpp:91] Creating Layer inception_4e/3x3
I0913 19:53:52.881371 30535 net.cpp:425] inception_4e/3x3 <- inception_4e/3x3_reduce
I0913 19:53:52.881382 30535 net.cpp:399] inception_4e/3x3 -> inception_4e/3x3
I0913 19:53:52.887312 30535 net.cpp:141] Setting up inception_4e/3x3
I0913 19:53:52.887341 30535 net.cpp:148] Top shape: 10 320 14 14 (627200)
I0913 19:53:52.887346 30535 net.cpp:156] Memory required for data: 503139840
I0913 19:53:52.887357 30535 layer_factory.hpp:77] Creating layer inception_4e/relu_3x3
I0913 19:53:52.887367 30535 net.cpp:91] Creating Layer inception_4e/relu_3x3
I0913 19:53:52.887373 30535 net.cpp:425] inception_4e/relu_3x3 <- inception_4e/3x3
I0913 19:53:52.887382 30535 net.cpp:386] inception_4e/relu_3x3 -> inception_4e/3x3 (in-place)
I0913 19:53:52.887817 30535 net.cpp:141] Setting up inception_4e/relu_3x3
I0913 19:53:52.887830 30535 net.cpp:148] Top shape: 10 320 14 14 (627200)
I0913 19:53:52.887835 30535 net.cpp:156] Memory required for data: 505648640
I0913 19:53:52.887840 30535 layer_factory.hpp:77] Creating layer inception_4e/5x5_reduce
I0913 19:53:52.887856 30535 net.cpp:91] Creating Layer inception_4e/5x5_reduce
I0913 19:53:52.887863 30535 net.cpp:425] inception_4e/5x5_reduce <- inception_4d/output_inception_4d/output_0_split_2
I0913 19:53:52.887876 30535 net.cpp:399] inception_4e/5x5_reduce -> inception_4e/5x5_reduce
I0913 19:53:52.889390 30535 net.cpp:141] Setting up inception_4e/5x5_reduce
I0913 19:53:52.889412 30535 net.cpp:148] Top shape: 10 32 14 14 (62720)
I0913 19:53:52.889417 30535 net.cpp:156] Memory required for data: 505899520
I0913 19:53:52.889427 30535 layer_factory.hpp:77] Creating layer inception_4e/relu_5x5_reduce
I0913 19:53:52.889437 30535 net.cpp:91] Creating Layer inception_4e/relu_5x5_reduce
I0913 19:53:52.889443 30535 net.cpp:425] inception_4e/relu_5x5_reduce <- inception_4e/5x5_reduce
I0913 19:53:52.889451 30535 net.cpp:386] inception_4e/relu_5x5_reduce -> inception_4e/5x5_reduce (in-place)
I0913 19:53:52.889868 30535 net.cpp:141] Setting up inception_4e/relu_5x5_reduce
I0913 19:53:52.889883 30535 net.cpp:148] Top shape: 10 32 14 14 (62720)
I0913 19:53:52.889886 30535 net.cpp:156] Memory required for data: 506150400
I0913 19:53:52.889892 30535 layer_factory.hpp:77] Creating layer inception_4e/5x5
I0913 19:53:52.889909 30535 net.cpp:91] Creating Layer inception_4e/5x5
I0913 19:53:52.889915 30535 net.cpp:425] inception_4e/5x5 <- inception_4e/5x5_reduce
I0913 19:53:52.889925 30535 net.cpp:399] inception_4e/5x5 -> inception_4e/5x5
I0913 19:53:52.892930 30535 net.cpp:141] Setting up inception_4e/5x5
I0913 19:53:52.892948 30535 net.cpp:148] Top shape: 10 128 14 14 (250880)
I0913 19:53:52.892953 30535 net.cpp:156] Memory required for data: 507153920
I0913 19:53:52.892962 30535 layer_factory.hpp:77] Creating layer inception_4e/relu_5x5
I0913 19:53:52.892972 30535 net.cpp:91] Creating Layer inception_4e/relu_5x5
I0913 19:53:52.892978 30535 net.cpp:425] inception_4e/relu_5x5 <- inception_4e/5x5
I0913 19:53:52.892988 30535 net.cpp:386] inception_4e/relu_5x5 -> inception_4e/5x5 (in-place)
I0913 19:53:52.893231 30535 net.cpp:141] Setting up inception_4e/relu_5x5
I0913 19:53:52.893242 30535 net.cpp:148] Top shape: 10 128 14 14 (250880)
I0913 19:53:52.893247 30535 net.cpp:156] Memory required for data: 508157440
I0913 19:53:52.893252 30535 layer_factory.hpp:77] Creating layer inception_4e/pool
I0913 19:53:52.893263 30535 net.cpp:91] Creating Layer inception_4e/pool
I0913 19:53:52.893270 30535 net.cpp:425] inception_4e/pool <- inception_4d/output_inception_4d/output_0_split_3
I0913 19:53:52.893277 30535 net.cpp:399] inception_4e/pool -> inception_4e/pool
I0913 19:53:52.893352 30535 net.cpp:141] Setting up inception_4e/pool
I0913 19:53:52.893362 30535 net.cpp:148] Top shape: 10 528 14 14 (1034880)
I0913 19:53:52.893367 30535 net.cpp:156] Memory required for data: 512296960
I0913 19:53:52.893371 30535 layer_factory.hpp:77] Creating layer inception_4e/pool_proj
I0913 19:53:52.893388 30535 net.cpp:91] Creating Layer inception_4e/pool_proj
I0913 19:53:52.893395 30535 net.cpp:425] inception_4e/pool_proj <- inception_4e/pool
I0913 19:53:52.893404 30535 net.cpp:399] inception_4e/pool_proj -> inception_4e/pool_proj
I0913 19:53:52.895395 30535 net.cpp:141] Setting up inception_4e/pool_proj
I0913 19:53:52.895411 30535 net.cpp:148] Top shape: 10 128 14 14 (250880)
I0913 19:53:52.895416 30535 net.cpp:156] Memory required for data: 513300480
I0913 19:53:52.895424 30535 layer_factory.hpp:77] Creating layer inception_4e/relu_pool_proj
I0913 19:53:52.895433 30535 net.cpp:91] Creating Layer inception_4e/relu_pool_proj
I0913 19:53:52.895439 30535 net.cpp:425] inception_4e/relu_pool_proj <- inception_4e/pool_proj
I0913 19:53:52.895448 30535 net.cpp:386] inception_4e/relu_pool_proj -> inception_4e/pool_proj (in-place)
I0913 19:53:52.895869 30535 net.cpp:141] Setting up inception_4e/relu_pool_proj
I0913 19:53:52.895881 30535 net.cpp:148] Top shape: 10 128 14 14 (250880)
I0913 19:53:52.895886 30535 net.cpp:156] Memory required for data: 514304000
I0913 19:53:52.895891 30535 layer_factory.hpp:77] Creating layer inception_4e/output
I0913 19:53:52.895900 30535 net.cpp:91] Creating Layer inception_4e/output
I0913 19:53:52.895908 30535 net.cpp:425] inception_4e/output <- inception_4e/1x1
I0913 19:53:52.895915 30535 net.cpp:425] inception_4e/output <- inception_4e/3x3
I0913 19:53:52.895920 30535 net.cpp:425] inception_4e/output <- inception_4e/5x5
I0913 19:53:52.895925 30535 net.cpp:425] inception_4e/output <- inception_4e/pool_proj
I0913 19:53:52.895932 30535 net.cpp:399] inception_4e/output -> inception_4e/output
I0913 19:53:52.895977 30535 net.cpp:141] Setting up inception_4e/output
I0913 19:53:52.895987 30535 net.cpp:148] Top shape: 10 832 14 14 (1630720)
I0913 19:53:52.895992 30535 net.cpp:156] Memory required for data: 520826880
I0913 19:53:52.895997 30535 layer_factory.hpp:77] Creating layer pool4/3x3_s2
I0913 19:53:52.896008 30535 net.cpp:91] Creating Layer pool4/3x3_s2
I0913 19:53:52.896014 30535 net.cpp:425] pool4/3x3_s2 <- inception_4e/output
I0913 19:53:52.896023 30535 net.cpp:399] pool4/3x3_s2 -> pool4/3x3_s2
I0913 19:53:52.896096 30535 net.cpp:141] Setting up pool4/3x3_s2
I0913 19:53:52.896107 30535 net.cpp:148] Top shape: 10 832 7 7 (407680)
I0913 19:53:52.896112 30535 net.cpp:156] Memory required for data: 522457600
I0913 19:53:52.896116 30535 layer_factory.hpp:77] Creating layer pool4/3x3_s2_pool4/3x3_s2_0_split
I0913 19:53:52.896128 30535 net.cpp:91] Creating Layer pool4/3x3_s2_pool4/3x3_s2_0_split
I0913 19:53:52.896133 30535 net.cpp:425] pool4/3x3_s2_pool4/3x3_s2_0_split <- pool4/3x3_s2
I0913 19:53:52.896141 30535 net.cpp:399] pool4/3x3_s2_pool4/3x3_s2_0_split -> pool4/3x3_s2_pool4/3x3_s2_0_split_0
I0913 19:53:52.896148 30535 net.cpp:399] pool4/3x3_s2_pool4/3x3_s2_0_split -> pool4/3x3_s2_pool4/3x3_s2_0_split_1
I0913 19:53:52.896157 30535 net.cpp:399] pool4/3x3_s2_pool4/3x3_s2_0_split -> pool4/3x3_s2_pool4/3x3_s2_0_split_2
I0913 19:53:52.896164 30535 net.cpp:399] pool4/3x3_s2_pool4/3x3_s2_0_split -> pool4/3x3_s2_pool4/3x3_s2_0_split_3
I0913 19:53:52.896263 30535 net.cpp:141] Setting up pool4/3x3_s2_pool4/3x3_s2_0_split
I0913 19:53:52.896273 30535 net.cpp:148] Top shape: 10 832 7 7 (407680)
I0913 19:53:52.896280 30535 net.cpp:148] Top shape: 10 832 7 7 (407680)
I0913 19:53:52.896284 30535 net.cpp:148] Top shape: 10 832 7 7 (407680)
I0913 19:53:52.896289 30535 net.cpp:148] Top shape: 10 832 7 7 (407680)
I0913 19:53:52.896293 30535 net.cpp:156] Memory required for data: 528980480
I0913 19:53:52.896298 30535 layer_factory.hpp:77] Creating layer inception_5a/1x1
I0913 19:53:52.896314 30535 net.cpp:91] Creating Layer inception_5a/1x1
I0913 19:53:52.896320 30535 net.cpp:425] inception_5a/1x1 <- pool4/3x3_s2_pool4/3x3_s2_0_split_0
I0913 19:53:52.896330 30535 net.cpp:399] inception_5a/1x1 -> inception_5a/1x1
I0913 19:53:52.899952 30535 net.cpp:141] Setting up inception_5a/1x1
I0913 19:53:52.899971 30535 net.cpp:148] Top shape: 10 256 7 7 (125440)
I0913 19:53:52.899976 30535 net.cpp:156] Memory required for data: 529482240
I0913 19:53:52.899984 30535 layer_factory.hpp:77] Creating layer inception_5a/relu_1x1
I0913 19:53:52.899992 30535 net.cpp:91] Creating Layer inception_5a/relu_1x1
I0913 19:53:52.899998 30535 net.cpp:425] inception_5a/relu_1x1 <- inception_5a/1x1
I0913 19:53:52.900008 30535 net.cpp:386] inception_5a/relu_1x1 -> inception_5a/1x1 (in-place)
I0913 19:53:52.900429 30535 net.cpp:141] Setting up inception_5a/relu_1x1
I0913 19:53:52.900441 30535 net.cpp:148] Top shape: 10 256 7 7 (125440)
I0913 19:53:52.900446 30535 net.cpp:156] Memory required for data: 529984000
I0913 19:53:52.900451 30535 layer_factory.hpp:77] Creating layer inception_5a/3x3_reduce
I0913 19:53:52.900467 30535 net.cpp:91] Creating Layer inception_5a/3x3_reduce
I0913 19:53:52.900475 30535 net.cpp:425] inception_5a/3x3_reduce <- pool4/3x3_s2_pool4/3x3_s2_0_split_1
I0913 19:53:52.900486 30535 net.cpp:399] inception_5a/3x3_reduce -> inception_5a/3x3_reduce
I0913 19:53:52.904636 30535 net.cpp:141] Setting up inception_5a/3x3_reduce
I0913 19:53:52.904660 30535 net.cpp:148] Top shape: 10 160 7 7 (78400)
I0913 19:53:52.904667 30535 net.cpp:156] Memory required for data: 530297600
I0913 19:53:52.904677 30535 layer_factory.hpp:77] Creating layer inception_5a/relu_3x3_reduce
I0913 19:53:52.904692 30535 net.cpp:91] Creating Layer inception_5a/relu_3x3_reduce
I0913 19:53:52.904700 30535 net.cpp:425] inception_5a/relu_3x3_reduce <- inception_5a/3x3_reduce
I0913 19:53:52.904707 30535 net.cpp:386] inception_5a/relu_3x3_reduce -> inception_5a/3x3_reduce (in-place)
I0913 19:53:52.904961 30535 net.cpp:141] Setting up inception_5a/relu_3x3_reduce
I0913 19:53:52.904973 30535 net.cpp:148] Top shape: 10 160 7 7 (78400)
I0913 19:53:52.904978 30535 net.cpp:156] Memory required for data: 530611200
I0913 19:53:52.904983 30535 layer_factory.hpp:77] Creating layer inception_5a/3x3
I0913 19:53:52.905001 30535 net.cpp:91] Creating Layer inception_5a/3x3
I0913 19:53:52.905007 30535 net.cpp:425] inception_5a/3x3 <- inception_5a/3x3_reduce
I0913 19:53:52.905019 30535 net.cpp:399] inception_5a/3x3 -> inception_5a/3x3
I0913 19:53:52.914664 30535 net.cpp:141] Setting up inception_5a/3x3
I0913 19:53:52.914707 30535 net.cpp:148] Top shape: 10 320 7 7 (156800)
I0913 19:53:52.914715 30535 net.cpp:156] Memory required for data: 531238400
I0913 19:53:52.914732 30535 layer_factory.hpp:77] Creating layer inception_5a/relu_3x3
I0913 19:53:52.914748 30535 net.cpp:91] Creating Layer inception_5a/relu_3x3
I0913 19:53:52.914758 30535 net.cpp:425] inception_5a/relu_3x3 <- inception_5a/3x3
I0913 19:53:52.914767 30535 net.cpp:386] inception_5a/relu_3x3 -> inception_5a/3x3 (in-place)
I0913 19:53:52.915230 30535 net.cpp:141] Setting up inception_5a/relu_3x3
I0913 19:53:52.915246 30535 net.cpp:148] Top shape: 10 320 7 7 (156800)
I0913 19:53:52.915251 30535 net.cpp:156] Memory required for data: 531865600
I0913 19:53:52.915256 30535 layer_factory.hpp:77] Creating layer inception_5a/5x5_reduce
I0913 19:53:52.915278 30535 net.cpp:91] Creating Layer inception_5a/5x5_reduce
I0913 19:53:52.915285 30535 net.cpp:425] inception_5a/5x5_reduce <- pool4/3x3_s2_pool4/3x3_s2_0_split_2
I0913 19:53:52.915295 30535 net.cpp:399] inception_5a/5x5_reduce -> inception_5a/5x5_reduce
I0913 19:53:52.917076 30535 net.cpp:141] Setting up inception_5a/5x5_reduce
I0913 19:53:52.917096 30535 net.cpp:148] Top shape: 10 32 7 7 (15680)
I0913 19:53:52.917101 30535 net.cpp:156] Memory required for data: 531928320
I0913 19:53:52.917110 30535 layer_factory.hpp:77] Creating layer inception_5a/relu_5x5_reduce
I0913 19:53:52.917122 30535 net.cpp:91] Creating Layer inception_5a/relu_5x5_reduce
I0913 19:53:52.917129 30535 net.cpp:425] inception_5a/relu_5x5_reduce <- inception_5a/5x5_reduce
I0913 19:53:52.917136 30535 net.cpp:386] inception_5a/relu_5x5_reduce -> inception_5a/5x5_reduce (in-place)
I0913 19:53:52.917698 30535 net.cpp:141] Setting up inception_5a/relu_5x5_reduce
I0913 19:53:52.917723 30535 net.cpp:148] Top shape: 10 32 7 7 (15680)
I0913 19:53:52.917732 30535 net.cpp:156] Memory required for data: 531991040
I0913 19:53:52.917739 30535 layer_factory.hpp:77] Creating layer inception_5a/5x5
I0913 19:53:52.917762 30535 net.cpp:91] Creating Layer inception_5a/5x5
I0913 19:53:52.917771 30535 net.cpp:425] inception_5a/5x5 <- inception_5a/5x5_reduce
I0913 19:53:52.917784 30535 net.cpp:399] inception_5a/5x5 -> inception_5a/5x5
I0913 19:53:52.920861 30535 net.cpp:141] Setting up inception_5a/5x5
I0913 19:53:52.920893 30535 net.cpp:148] Top shape: 10 128 7 7 (62720)
I0913 19:53:52.920902 30535 net.cpp:156] Memory required for data: 532241920
I0913 19:53:52.920917 30535 layer_factory.hpp:77] Creating layer inception_5a/relu_5x5
I0913 19:53:52.920959 30535 net.cpp:91] Creating Layer inception_5a/relu_5x5
I0913 19:53:52.920970 30535 net.cpp:425] inception_5a/relu_5x5 <- inception_5a/5x5
I0913 19:53:52.920981 30535 net.cpp:386] inception_5a/relu_5x5 -> inception_5a/5x5 (in-place)
I0913 19:53:52.921303 30535 net.cpp:141] Setting up inception_5a/relu_5x5
I0913 19:53:52.921319 30535 net.cpp:148] Top shape: 10 128 7 7 (62720)
I0913 19:53:52.921324 30535 net.cpp:156] Memory required for data: 532492800
I0913 19:53:52.921334 30535 layer_factory.hpp:77] Creating layer inception_5a/pool
I0913 19:53:52.921350 30535 net.cpp:91] Creating Layer inception_5a/pool
I0913 19:53:52.921360 30535 net.cpp:425] inception_5a/pool <- pool4/3x3_s2_pool4/3x3_s2_0_split_3
I0913 19:53:52.921370 30535 net.cpp:399] inception_5a/pool -> inception_5a/pool
I0913 19:53:52.921466 30535 net.cpp:141] Setting up inception_5a/pool
I0913 19:53:52.921479 30535 net.cpp:148] Top shape: 10 832 7 7 (407680)
I0913 19:53:52.921486 30535 net.cpp:156] Memory required for data: 534123520
I0913 19:53:52.921494 30535 layer_factory.hpp:77] Creating layer inception_5a/pool_proj
I0913 19:53:52.921514 30535 net.cpp:91] Creating Layer inception_5a/pool_proj
I0913 19:53:52.921522 30535 net.cpp:425] inception_5a/pool_proj <- inception_5a/pool
I0913 19:53:52.921538 30535 net.cpp:399] inception_5a/pool_proj -> inception_5a/pool_proj
I0913 19:53:52.925451 30535 net.cpp:141] Setting up inception_5a/pool_proj
I0913 19:53:52.925469 30535 net.cpp:148] Top shape: 10 128 7 7 (62720)
I0913 19:53:52.925475 30535 net.cpp:156] Memory required for data: 534374400
I0913 19:53:52.925488 30535 layer_factory.hpp:77] Creating layer inception_5a/relu_pool_proj
I0913 19:53:52.925498 30535 net.cpp:91] Creating Layer inception_5a/relu_pool_proj
I0913 19:53:52.925503 30535 net.cpp:425] inception_5a/relu_pool_proj <- inception_5a/pool_proj
I0913 19:53:52.925515 30535 net.cpp:386] inception_5a/relu_pool_proj -> inception_5a/pool_proj (in-place)
I0913 19:53:52.925948 30535 net.cpp:141] Setting up inception_5a/relu_pool_proj
I0913 19:53:52.925963 30535 net.cpp:148] Top shape: 10 128 7 7 (62720)
I0913 19:53:52.925968 30535 net.cpp:156] Memory required for data: 534625280
I0913 19:53:52.925974 30535 layer_factory.hpp:77] Creating layer inception_5a/output
I0913 19:53:52.925984 30535 net.cpp:91] Creating Layer inception_5a/output
I0913 19:53:52.925990 30535 net.cpp:425] inception_5a/output <- inception_5a/1x1
I0913 19:53:52.925997 30535 net.cpp:425] inception_5a/output <- inception_5a/3x3
I0913 19:53:52.926002 30535 net.cpp:425] inception_5a/output <- inception_5a/5x5
I0913 19:53:52.926008 30535 net.cpp:425] inception_5a/output <- inception_5a/pool_proj
I0913 19:53:52.926017 30535 net.cpp:399] inception_5a/output -> inception_5a/output
I0913 19:53:52.926065 30535 net.cpp:141] Setting up inception_5a/output
I0913 19:53:52.926074 30535 net.cpp:148] Top shape: 10 832 7 7 (407680)
I0913 19:53:52.926082 30535 net.cpp:156] Memory required for data: 536256000
I0913 19:53:52.926087 30535 layer_factory.hpp:77] Creating layer inception_5a/output_inception_5a/output_0_split
I0913 19:53:52.926158 30535 net.cpp:91] Creating Layer inception_5a/output_inception_5a/output_0_split
I0913 19:53:52.926164 30535 net.cpp:425] inception_5a/output_inception_5a/output_0_split <- inception_5a/output
I0913 19:53:52.926173 30535 net.cpp:399] inception_5a/output_inception_5a/output_0_split -> inception_5a/output_inception_5a/output_0_split_0
I0913 19:53:52.926184 30535 net.cpp:399] inception_5a/output_inception_5a/output_0_split -> inception_5a/output_inception_5a/output_0_split_1
I0913 19:53:52.926193 30535 net.cpp:399] inception_5a/output_inception_5a/output_0_split -> inception_5a/output_inception_5a/output_0_split_2
I0913 19:53:52.926201 30535 net.cpp:399] inception_5a/output_inception_5a/output_0_split -> inception_5a/output_inception_5a/output_0_split_3
I0913 19:53:52.926311 30535 net.cpp:141] Setting up inception_5a/output_inception_5a/output_0_split
I0913 19:53:52.926323 30535 net.cpp:148] Top shape: 10 832 7 7 (407680)
I0913 19:53:52.926333 30535 net.cpp:148] Top shape: 10 832 7 7 (407680)
I0913 19:53:52.926343 30535 net.cpp:148] Top shape: 10 832 7 7 (407680)
I0913 19:53:52.926352 30535 net.cpp:148] Top shape: 10 832 7 7 (407680)
I0913 19:53:52.926358 30535 net.cpp:156] Memory required for data: 542778880
I0913 19:53:52.926365 30535 layer_factory.hpp:77] Creating layer inception_5b/1x1
I0913 19:53:52.926389 30535 net.cpp:91] Creating Layer inception_5b/1x1
I0913 19:53:52.926399 30535 net.cpp:425] inception_5b/1x1 <- inception_5a/output_inception_5a/output_0_split_0
I0913 19:53:52.926419 30535 net.cpp:399] inception_5b/1x1 -> inception_5b/1x1
I0913 19:53:52.931176 30535 net.cpp:141] Setting up inception_5b/1x1
I0913 19:53:52.931201 30535 net.cpp:148] Top shape: 10 384 7 7 (188160)
I0913 19:53:52.931206 30535 net.cpp:156] Memory required for data: 543531520
I0913 19:53:52.931216 30535 layer_factory.hpp:77] Creating layer inception_5b/relu_1x1
I0913 19:53:52.931226 30535 net.cpp:91] Creating Layer inception_5b/relu_1x1
I0913 19:53:52.931232 30535 net.cpp:425] inception_5b/relu_1x1 <- inception_5b/1x1
I0913 19:53:52.931243 30535 net.cpp:386] inception_5b/relu_1x1 -> inception_5b/1x1 (in-place)
I0913 19:53:52.931668 30535 net.cpp:141] Setting up inception_5b/relu_1x1
I0913 19:53:52.931679 30535 net.cpp:148] Top shape: 10 384 7 7 (188160)
I0913 19:53:52.931684 30535 net.cpp:156] Memory required for data: 544284160
I0913 19:53:52.931689 30535 layer_factory.hpp:77] Creating layer inception_5b/3x3_reduce
I0913 19:53:52.931706 30535 net.cpp:91] Creating Layer inception_5b/3x3_reduce
I0913 19:53:52.931713 30535 net.cpp:425] inception_5b/3x3_reduce <- inception_5a/output_inception_5a/output_0_split_1
I0913 19:53:52.931725 30535 net.cpp:399] inception_5b/3x3_reduce -> inception_5b/3x3_reduce
I0913 19:53:52.935326 30535 net.cpp:141] Setting up inception_5b/3x3_reduce
I0913 19:53:52.935345 30535 net.cpp:148] Top shape: 10 192 7 7 (94080)
I0913 19:53:52.935351 30535 net.cpp:156] Memory required for data: 544660480
I0913 19:53:52.935361 30535 layer_factory.hpp:77] Creating layer inception_5b/relu_3x3_reduce
I0913 19:53:52.935370 30535 net.cpp:91] Creating Layer inception_5b/relu_3x3_reduce
I0913 19:53:52.935377 30535 net.cpp:425] inception_5b/relu_3x3_reduce <- inception_5b/3x3_reduce
I0913 19:53:52.935389 30535 net.cpp:386] inception_5b/relu_3x3_reduce -> inception_5b/3x3_reduce (in-place)
I0913 19:53:52.935636 30535 net.cpp:141] Setting up inception_5b/relu_3x3_reduce
I0913 19:53:52.935649 30535 net.cpp:148] Top shape: 10 192 7 7 (94080)
I0913 19:53:52.935654 30535 net.cpp:156] Memory required for data: 545036800
I0913 19:53:52.935659 30535 layer_factory.hpp:77] Creating layer inception_5b/3x3
I0913 19:53:52.935677 30535 net.cpp:91] Creating Layer inception_5b/3x3
I0913 19:53:52.935683 30535 net.cpp:425] inception_5b/3x3 <- inception_5b/3x3_reduce
I0913 19:53:52.935690 30535 net.cpp:399] inception_5b/3x3 -> inception_5b/3x3
I0913 19:53:52.943994 30535 net.cpp:141] Setting up inception_5b/3x3
I0913 19:53:52.944037 30535 net.cpp:148] Top shape: 10 384 7 7 (188160)
I0913 19:53:52.944043 30535 net.cpp:156] Memory required for data: 545789440
I0913 19:53:52.944057 30535 layer_factory.hpp:77] Creating layer inception_5b/relu_3x3
I0913 19:53:52.944084 30535 net.cpp:91] Creating Layer inception_5b/relu_3x3
I0913 19:53:52.944097 30535 net.cpp:425] inception_5b/relu_3x3 <- inception_5b/3x3
I0913 19:53:52.944105 30535 net.cpp:386] inception_5b/relu_3x3 -> inception_5b/3x3 (in-place)
I0913 19:53:52.944551 30535 net.cpp:141] Setting up inception_5b/relu_3x3
I0913 19:53:52.944564 30535 net.cpp:148] Top shape: 10 384 7 7 (188160)
I0913 19:53:52.944568 30535 net.cpp:156] Memory required for data: 546542080
I0913 19:53:52.944574 30535 layer_factory.hpp:77] Creating layer inception_5b/5x5_reduce
I0913 19:53:52.944593 30535 net.cpp:91] Creating Layer inception_5b/5x5_reduce
I0913 19:53:52.944600 30535 net.cpp:425] inception_5b/5x5_reduce <- inception_5a/output_inception_5a/output_0_split_2
I0913 19:53:52.944613 30535 net.cpp:399] inception_5b/5x5_reduce -> inception_5b/5x5_reduce
I0913 19:53:52.946419 30535 net.cpp:141] Setting up inception_5b/5x5_reduce
I0913 19:53:52.946436 30535 net.cpp:148] Top shape: 10 48 7 7 (23520)
I0913 19:53:52.946441 30535 net.cpp:156] Memory required for data: 546636160
I0913 19:53:52.946451 30535 layer_factory.hpp:77] Creating layer inception_5b/relu_5x5_reduce
I0913 19:53:52.946460 30535 net.cpp:91] Creating Layer inception_5b/relu_5x5_reduce
I0913 19:53:52.946468 30535 net.cpp:425] inception_5b/relu_5x5_reduce <- inception_5b/5x5_reduce
I0913 19:53:52.946475 30535 net.cpp:386] inception_5b/relu_5x5_reduce -> inception_5b/5x5_reduce (in-place)
I0913 19:53:52.946913 30535 net.cpp:141] Setting up inception_5b/relu_5x5_reduce
I0913 19:53:52.946928 30535 net.cpp:148] Top shape: 10 48 7 7 (23520)
I0913 19:53:52.946933 30535 net.cpp:156] Memory required for data: 546730240
I0913 19:53:52.946938 30535 layer_factory.hpp:77] Creating layer inception_5b/5x5
I0913 19:53:52.946954 30535 net.cpp:91] Creating Layer inception_5b/5x5
I0913 19:53:52.946959 30535 net.cpp:425] inception_5b/5x5 <- inception_5b/5x5_reduce
I0913 19:53:52.946971 30535 net.cpp:399] inception_5b/5x5 -> inception_5b/5x5
I0913 19:53:52.950104 30535 net.cpp:141] Setting up inception_5b/5x5
I0913 19:53:52.950129 30535 net.cpp:148] Top shape: 10 128 7 7 (62720)
I0913 19:53:52.950139 30535 net.cpp:156] Memory required for data: 546981120
I0913 19:53:52.950155 30535 layer_factory.hpp:77] Creating layer inception_5b/relu_5x5
I0913 19:53:52.950163 30535 net.cpp:91] Creating Layer inception_5b/relu_5x5
I0913 19:53:52.950170 30535 net.cpp:425] inception_5b/relu_5x5 <- inception_5b/5x5
I0913 19:53:52.950177 30535 net.cpp:386] inception_5b/relu_5x5 -> inception_5b/5x5 (in-place)
I0913 19:53:52.950439 30535 net.cpp:141] Setting up inception_5b/relu_5x5
I0913 19:53:52.950450 30535 net.cpp:148] Top shape: 10 128 7 7 (62720)
I0913 19:53:52.950455 30535 net.cpp:156] Memory required for data: 547232000
I0913 19:53:52.950460 30535 layer_factory.hpp:77] Creating layer inception_5b/pool
I0913 19:53:52.950474 30535 net.cpp:91] Creating Layer inception_5b/pool
I0913 19:53:52.950479 30535 net.cpp:425] inception_5b/pool <- inception_5a/output_inception_5a/output_0_split_3
I0913 19:53:52.950486 30535 net.cpp:399] inception_5b/pool -> inception_5b/pool
I0913 19:53:52.950570 30535 net.cpp:141] Setting up inception_5b/pool
I0913 19:53:52.950580 30535 net.cpp:148] Top shape: 10 832 7 7 (407680)
I0913 19:53:52.950585 30535 net.cpp:156] Memory required for data: 548862720
I0913 19:53:52.950589 30535 layer_factory.hpp:77] Creating layer inception_5b/pool_proj
I0913 19:53:52.950606 30535 net.cpp:91] Creating Layer inception_5b/pool_proj
I0913 19:53:52.950613 30535 net.cpp:425] inception_5b/pool_proj <- inception_5b/pool
I0913 19:53:52.950623 30535 net.cpp:399] inception_5b/pool_proj -> inception_5b/pool_proj
I0913 19:53:52.953833 30535 net.cpp:141] Setting up inception_5b/pool_proj
I0913 19:53:52.953852 30535 net.cpp:148] Top shape: 10 128 7 7 (62720)
I0913 19:53:52.953857 30535 net.cpp:156] Memory required for data: 549113600
I0913 19:53:52.953867 30535 layer_factory.hpp:77] Creating layer inception_5b/relu_pool_proj
I0913 19:53:52.953878 30535 net.cpp:91] Creating Layer inception_5b/relu_pool_proj
I0913 19:53:52.953886 30535 net.cpp:425] inception_5b/relu_pool_proj <- inception_5b/pool_proj
I0913 19:53:52.953892 30535 net.cpp:386] inception_5b/relu_pool_proj -> inception_5b/pool_proj (in-place)
I0913 19:53:52.954330 30535 net.cpp:141] Setting up inception_5b/relu_pool_proj
I0913 19:53:52.954344 30535 net.cpp:148] Top shape: 10 128 7 7 (62720)
I0913 19:53:52.954347 30535 net.cpp:156] Memory required for data: 549364480
I0913 19:53:52.954352 30535 layer_factory.hpp:77] Creating layer inception_5b/output
I0913 19:53:52.954365 30535 net.cpp:91] Creating Layer inception_5b/output
I0913 19:53:52.954370 30535 net.cpp:425] inception_5b/output <- inception_5b/1x1
I0913 19:53:52.954376 30535 net.cpp:425] inception_5b/output <- inception_5b/3x3
I0913 19:53:52.954381 30535 net.cpp:425] inception_5b/output <- inception_5b/5x5
I0913 19:53:52.954386 30535 net.cpp:425] inception_5b/output <- inception_5b/pool_proj
I0913 19:53:52.954393 30535 net.cpp:399] inception_5b/output -> inception_5b/output
I0913 19:53:52.954455 30535 net.cpp:141] Setting up inception_5b/output
I0913 19:53:52.954469 30535 net.cpp:148] Top shape: 10 1024 7 7 (501760)
I0913 19:53:52.954473 30535 net.cpp:156] Memory required for data: 551371520
I0913 19:53:52.954478 30535 layer_factory.hpp:77] Creating layer pool5/7x7_s1
I0913 19:53:52.954488 30535 net.cpp:91] Creating Layer pool5/7x7_s1
I0913 19:53:52.954493 30535 net.cpp:425] pool5/7x7_s1 <- inception_5b/output
I0913 19:53:52.954502 30535 net.cpp:399] pool5/7x7_s1 -> pool5/7x7_s1
I0913 19:53:52.954812 30535 net.cpp:141] Setting up pool5/7x7_s1
I0913 19:53:52.954825 30535 net.cpp:148] Top shape: 10 1024 1 1 (10240)
I0913 19:53:52.954830 30535 net.cpp:156] Memory required for data: 551412480
I0913 19:53:52.954835 30535 layer_factory.hpp:77] Creating layer pool5/drop_7x7_s1
I0913 19:53:52.954856 30535 net.cpp:91] Creating Layer pool5/drop_7x7_s1
I0913 19:53:52.954861 30535 net.cpp:425] pool5/drop_7x7_s1 <- pool5/7x7_s1
I0913 19:53:52.954869 30535 net.cpp:386] pool5/drop_7x7_s1 -> pool5/7x7_s1 (in-place)
I0913 19:53:52.954922 30535 net.cpp:141] Setting up pool5/drop_7x7_s1
I0913 19:53:52.954932 30535 net.cpp:148] Top shape: 10 1024 1 1 (10240)
I0913 19:53:52.954936 30535 net.cpp:156] Memory required for data: 551453440
I0913 19:53:52.954941 30535 layer_factory.hpp:77] Creating layer loss3/classifier
I0913 19:53:52.954954 30535 net.cpp:91] Creating Layer loss3/classifier
I0913 19:53:52.954959 30535 net.cpp:425] loss3/classifier <- pool5/7x7_s1
I0913 19:53:52.954967 30535 net.cpp:399] loss3/classifier -> loss3/classifier
I0913 19:53:52.964944 30535 net.cpp:141] Setting up loss3/classifier
I0913 19:53:52.964987 30535 net.cpp:148] Top shape: 10 1000 (10000)
I0913 19:53:52.964993 30535 net.cpp:156] Memory required for data: 551493440
I0913 19:53:52.965006 30535 layer_factory.hpp:77] Creating layer prob
I0913 19:53:52.965025 30535 net.cpp:91] Creating Layer prob
I0913 19:53:52.965034 30535 net.cpp:425] prob <- loss3/classifier
I0913 19:53:52.965044 30535 net.cpp:399] prob -> prob
I0913 19:53:52.965807 30535 net.cpp:141] Setting up prob
I0913 19:53:52.965824 30535 net.cpp:148] Top shape: 10 1000 (10000)
I0913 19:53:52.965829 30535 net.cpp:156] Memory required for data: 551533440
I0913 19:53:52.965836 30535 net.cpp:219] prob does not need backward computation.
I0913 19:53:52.965840 30535 net.cpp:219] loss3/classifier does not need backward computation.
I0913 19:53:52.965845 30535 net.cpp:219] pool5/drop_7x7_s1 does not need backward computation.
I0913 19:53:52.965850 30535 net.cpp:219] pool5/7x7_s1 does not need backward computation.
…
