…
Java HotSpot(TM) 64-Bit Server VM warning: You have loaded library /home/peifeng/work/run/storm102/data/workers/78277562-7263-45cf-a8c5-10b407bd07b2/tmp/cvld2876351053615315575/libopencv_java310.xine1.so which might have disabled stack guard. The VM will try to fix the stack guard now.
It's highly recommended that you fix the library with 'execstack -c <libfile>', or link it with '-z noexecstack'.
WARNING: Logging before InitGoogleLogging() is written to STDERR
I0913 21:05:10.518441 13902 net.cpp:49] Initializing net from parameters: 
name: "CaffeNet"
state {
  phase: TEST
}
layer {
  name: "data"
  type: "Input"
  top: "data"
  input_param {
    shape {
      dim: 10
      dim: 3
      dim: 227
      dim: 227
    }
  }
}
layer {
  name: "conv1"
  type: "Convolution"
  bottom: "data"
  top: "conv1"
  convolution_param {
    num_output: 96
    kernel_size: 11
    stride: 4
  }
}
layer {
  name: "relu1"
  type: "ReLU"
  bottom: "conv1"
  top: "conv1"
}
layer {
  name: "pool1"
  type: "Pooling"
  bottom: "conv1"
  top: "pool1"
  pooling_param {
    pool: MAX
    kernel_size: 3
    stride: 2
  }
}
layer {
  name: "norm1"
  type: "LRN"
  bottom: "pool1"
  top: "norm1"
  lrn_param {
    local_size: 5
    alpha: 0.0001
    beta: 0.75
  }
}
layer {
  name: "conv2"
  type: "Convolution"
  bottom: "norm1"
  top: "conv2"
  convolution_param {
    num_output: 256
    pad: 2
    kernel_size: 5
    group: 2
  }
}
layer {
  name: "relu2"
  type: "ReLU"
  bottom: "conv2"
  top: "conv2"
}
layer {
  name: "pool2"
  type: "Pooling"
  bottom: "conv2"
  top: "pool2"
  pooling_param {
    pool: MAX
    kernel_size: 3
    stride: 2
  }
}
layer {
  name: "norm2"
  type: "LRN"
  bottom: "pool2"
  top: "norm2"
  lrn_param {
    local_size: 5
    alpha: 0.0001
    beta: 0.75
  }
}
layer {
  name: "conv3"
  type: "Convolution"
  bottom: "norm2"
  top: "conv3"
  convolution_param {
    num_output: 384
    pad: 1
    kernel_size: 3
  }
}
layer {
  name: "relu3"
  type: "ReLU"
  bottom: "conv3"
  top: "conv3"
}
layer {
  name: "conv4"
  type: "Convolution"
  bottom: "conv3"
  top: "conv4"
  convolution_param {
    num_output: 384
    pad: 1
    kernel_size: 3
    group: 2
  }
}
layer {
  name: "relu4"
  type: "ReLU"
  bottom: "conv4"
  top: "conv4"
}
layer {
  name: "conv5"
  type: "Convolution"
  bottom: "conv4"
  top: "conv5"
  convolution_param {
    num_output: 256
    pad: 1
    kernel_size: 3
    group: 2
  }
}
layer {
  name: "relu5"
  type: "ReLU"
  bottom: "conv5"
  top: "conv5"
}
layer {
  name: "pool5"
  type: "Pooling"
  bottom: "conv5"
  top: "pool5"
  pooling_param {
    pool: MAX
    kernel_size: 3
    stride: 2
  }
}
layer {
  name: "fc6"
  type: "InnerProduct"
  bottom: "pool5"
  top: "fc6"
  inner_product_param {
    num_output: 4096
  }
}
layer {
  name: "relu6"
  type: "ReLU"
  bottom: "fc6"
  top: "fc6"
}
layer {
  name: "drop6"
  type: "Dropout"
  bottom: "fc6"
  top: "fc6"
  dropout_param {
    dropout_ratio: 0.5
  }
}
layer {
  name: "fc7"
  type: "InnerProduct"
  bottom: "fc6"
  top: "fc7"
  inner_product_param {
    num_output: 4096
  }
}
layer {
  name: "relu7"
  type: "ReLU"
  bottom: "fc7"
  top: "fc7"
}
layer {
  name: "drop7"
  type: "Dropout"
  bottom: "fc7"
  top: "fc7"
  dropout_param {
    dropout_ratio: 0.5
  }
}
layer {
  name: "fc8"
  type: "InnerProduct"
  bottom: "fc7"
  top: "fc8"
  inner_product_param {
    num_output: 1000
  }
}
layer {
  name: "prob"
  type: "Softmax"
  bottom: "fc8"
  top: "prob"
}
I0913 21:05:10.518640 13902 layer_factory.hpp:77] Creating layer data
I0913 21:05:10.518669 13902 net.cpp:91] Creating Layer data
I0913 21:05:10.518679 13902 net.cpp:399] data -> data
I0913 21:05:11.043761 13902 net.cpp:141] Setting up data
I0913 21:05:11.043858 13902 net.cpp:148] Top shape: 10 3 227 227 (1545870)
I0913 21:05:11.043864 13902 net.cpp:156] Memory required for data: 6183480
I0913 21:05:11.043882 13902 layer_factory.hpp:77] Creating layer conv1
I0913 21:05:11.043913 13902 net.cpp:91] Creating Layer conv1
I0913 21:05:11.043922 13902 net.cpp:425] conv1 <- data
I0913 21:05:11.043936 13902 net.cpp:399] conv1 -> conv1
I0913 21:05:11.210844 13892 upgrade_proto.cpp:66] Attempting to upgrade input file specified using deprecated input fields: /home/peifeng/work/run/storm102/data/workers/78277562-7263-45cf-a8c5-10b407bd07b2/tmp/cvld2876351053615315575/s2vt.words_to_preds.prototxt
I0913 21:05:11.210892 13892 upgrade_proto.cpp:69] Successfully upgraded file specified using deprecated input fields.
W0913 21:05:11.210901 13892 upgrade_proto.cpp:71] Note that future Caffe releases will only support input layers and not input fields.
I0913 21:05:11.211143 13892 net.cpp:49] Initializing net from parameters: 
name: "s2vt:features_to_lstm"
state {
  phase: TEST
}
layer {
  name: "input"
  type: "Input"
  top: "frames_fc7"
  top: "cont_sentence"
  top: "input_sentence"
  top: "stage_indicator"
  input_param {
    shape {
      dim: 1
      dim: 4096
    }
    shape {
      dim: 1
      dim: 1
    }
    shape {
      dim: 1
      dim: 1
    }
    shape {
      dim: 1
      dim: 1
    }
  }
}
layer {
  name: "embed_encoder"
  type: "InnerProduct"
  bottom: "frames_fc7"
  top: "embedded_in_frames"
  param {
    lr_mult: 1
    decay_mult: 1
  }
  param {
    lr_mult: 2
    decay_mult: 0
  }
  inner_product_param {
    num_output: 500
    weight_filler {
      type: "xavier"
    }
    bias_filler {
      type: "constant"
      value: 0.2
    }
  }
}
layer {
  name: "reshape_frames"
  type: "Reshape"
  bottom: "embedded_in_frames"
  top: "embedded_input_frames"
  reshape_param {
    shape {
      dim: 1
      dim: 1
      dim: 500
    }
  }
}
layer {
  name: "reshape_stage_indicator"
  type: "Reshape"
  bottom: "stage_indicator"
  top: "reshaped_stage_indicator"
  reshape_param {
    shape {
      dim: 1
      dim: 1
      dim: 1
    }
  }
}
layer {
  name: "embedding"
  type: "Embed"
  bottom: "input_sentence"
  top: "embedded_input_sentence"
  param {
    lr_mult: 1
  }
  embed_param {
    num_output: 500
    input_dim: 46168
    bias_term: false
    weight_filler {
      type: "uniform"
      min: -0.08
      max: 0.08
    }
  }
}
layer {
  name: "lstm1"
  type: "LSTM"
  bottom: "embedded_input_frames"
  bottom: "cont_sentence"
  top: "lstm1"
  recurrent_param {
    num_output: 1000
    weight_filler {
      type: "uniform"
      min: -0.08
      max: 0.08
    }
    bias_filler {
      type: "constant"
      value: 0
    }
  }
}
layer {
  name: "concat"
  type: "Concat"
  bottom: "lstm1"
  bottom: "embedded_input_sentence"
  bottom: "reshaped_stage_indicator"
  top: "lstm1_video_sequence"
  concat_param {
    concat_dim: 2
  }
}
layer {
  name: "lstm2"
  type: "LSTM"
  bottom: "lstm1_video_sequence"
  bottom: "cont_sentence"
  top: "lstm2"
  recurrent_param {
    num_output: 1000
    weight_filler {
      type: "uniform"
      min: -0.08
      max: 0.08
    }
    bias_filler {
      type: "constant"
      value: 0
    }
  }
}
layer {
  name: "predict"
  type: "InnerProduct"
  bottom: "lstm2"
  top: "predict"
  param {
    lr_mult: 1
    decay_mult: 1
  }
  param {
    lr_mult: 2
    decay_mult: 0
  }
  inner_product_param {
    num_output: 46168
    weight_filler {
      type: "uniform"
      min: -0.08
      max: 0.08
    }
    bias_filler {
      type: "constant"
      value: 0
    }
    axis: 2
  }
}
layer {
  name: "probs"
  type: "Softmax"
  bottom: "predict"
  top: "probs"
  softmax_param {
    axis: 2
  }
}
I0913 21:05:11.211237 13892 layer_factory.hpp:77] Creating layer input
I0913 21:05:11.211252 13892 net.cpp:91] Creating Layer input
I0913 21:05:11.211261 13892 net.cpp:399] input -> frames_fc7
I0913 21:05:11.211277 13892 net.cpp:399] input -> cont_sentence
I0913 21:05:11.211289 13892 net.cpp:399] input -> input_sentence
I0913 21:05:11.211298 13892 net.cpp:399] input -> stage_indicator
I0913 21:05:11.217373 13892 net.cpp:141] Setting up input
I0913 21:05:11.217391 13892 net.cpp:148] Top shape: 1 4096 (4096)
I0913 21:05:11.217398 13892 net.cpp:148] Top shape: 1 1 (1)
I0913 21:05:11.217403 13892 net.cpp:148] Top shape: 1 1 (1)
I0913 21:05:11.217408 13892 net.cpp:148] Top shape: 1 1 (1)
I0913 21:05:11.217412 13892 net.cpp:156] Memory required for data: 16396
I0913 21:05:11.217417 13892 layer_factory.hpp:77] Creating layer cont_sentence_input_1_split
I0913 21:05:11.217434 13892 net.cpp:91] Creating Layer cont_sentence_input_1_split
I0913 21:05:11.217440 13892 net.cpp:425] cont_sentence_input_1_split <- cont_sentence
I0913 21:05:11.217458 13892 net.cpp:399] cont_sentence_input_1_split -> cont_sentence_input_1_split_0
I0913 21:05:11.217468 13892 net.cpp:399] cont_sentence_input_1_split -> cont_sentence_input_1_split_1
I0913 21:05:11.220212 13892 net.cpp:141] Setting up cont_sentence_input_1_split
I0913 21:05:11.220232 13892 net.cpp:148] Top shape: 1 1 (1)
I0913 21:05:11.220238 13892 net.cpp:148] Top shape: 1 1 (1)
I0913 21:05:11.220242 13892 net.cpp:156] Memory required for data: 16404
I0913 21:05:11.220247 13892 layer_factory.hpp:77] Creating layer embed_encoder
I0913 21:05:11.220264 13892 net.cpp:91] Creating Layer embed_encoder
I0913 21:05:11.220270 13892 net.cpp:425] embed_encoder <- frames_fc7
I0913 21:05:11.220280 13892 net.cpp:399] embed_encoder -> embedded_in_frames
I0913 21:05:11.233181 13902 net.cpp:141] Setting up conv1
I0913 21:05:11.233233 13902 net.cpp:148] Top shape: 10 96 55 55 (2904000)
I0913 21:05:11.233245 13902 net.cpp:156] Memory required for data: 17799480
I0913 21:05:11.233286 13902 layer_factory.hpp:77] Creating layer relu1
I0913 21:05:11.233314 13902 net.cpp:91] Creating Layer relu1
I0913 21:05:11.233325 13902 net.cpp:425] relu1 <- conv1
I0913 21:05:11.233337 13902 net.cpp:386] relu1 -> conv1 (in-place)
I0913 21:05:11.233865 13902 net.cpp:141] Setting up relu1
I0913 21:05:11.233885 13902 net.cpp:148] Top shape: 10 96 55 55 (2904000)
I0913 21:05:11.233893 13902 net.cpp:156] Memory required for data: 29415480
I0913 21:05:11.233901 13902 layer_factory.hpp:77] Creating layer pool1
I0913 21:05:11.233919 13902 net.cpp:91] Creating Layer pool1
I0913 21:05:11.233927 13902 net.cpp:425] pool1 <- conv1
I0913 21:05:11.233940 13902 net.cpp:399] pool1 -> pool1
I0913 21:05:11.234045 13902 net.cpp:141] Setting up pool1
I0913 21:05:11.234063 13902 net.cpp:148] Top shape: 10 96 27 27 (699840)
I0913 21:05:11.234072 13902 net.cpp:156] Memory required for data: 32214840
I0913 21:05:11.234081 13902 layer_factory.hpp:77] Creating layer norm1
I0913 21:05:11.234107 13902 net.cpp:91] Creating Layer norm1
I0913 21:05:11.234113 13902 net.cpp:425] norm1 <- pool1
I0913 21:05:11.234120 13902 net.cpp:399] norm1 -> norm1
I0913 21:05:11.234378 13902 net.cpp:141] Setting up norm1
I0913 21:05:11.234390 13902 net.cpp:148] Top shape: 10 96 27 27 (699840)
I0913 21:05:11.234395 13902 net.cpp:156] Memory required for data: 35014200
I0913 21:05:11.234400 13902 layer_factory.hpp:77] Creating layer conv2
I0913 21:05:11.234414 13902 net.cpp:91] Creating Layer conv2
I0913 21:05:11.234419 13902 net.cpp:425] conv2 <- norm1
I0913 21:05:11.234426 13902 net.cpp:399] conv2 -> conv2
I0913 21:05:11.238122 13902 net.cpp:141] Setting up conv2
I0913 21:05:11.238142 13902 net.cpp:148] Top shape: 10 256 27 27 (1866240)
I0913 21:05:11.238147 13902 net.cpp:156] Memory required for data: 42479160
I0913 21:05:11.238159 13902 layer_factory.hpp:77] Creating layer relu2
I0913 21:05:11.238168 13902 net.cpp:91] Creating Layer relu2
I0913 21:05:11.238173 13902 net.cpp:425] relu2 <- conv2
I0913 21:05:11.238180 13902 net.cpp:386] relu2 -> conv2 (in-place)
I0913 21:05:11.238572 13902 net.cpp:141] Setting up relu2
I0913 21:05:11.238585 13902 net.cpp:148] Top shape: 10 256 27 27 (1866240)
I0913 21:05:11.238590 13902 net.cpp:156] Memory required for data: 49944120
I0913 21:05:11.238595 13902 layer_factory.hpp:77] Creating layer pool2
I0913 21:05:11.238606 13902 net.cpp:91] Creating Layer pool2
I0913 21:05:11.238611 13902 net.cpp:425] pool2 <- conv2
I0913 21:05:11.238618 13902 net.cpp:399] pool2 -> pool2
I0913 21:05:11.238673 13902 net.cpp:141] Setting up pool2
I0913 21:05:11.238682 13902 net.cpp:148] Top shape: 10 256 13 13 (432640)
I0913 21:05:11.238687 13902 net.cpp:156] Memory required for data: 51674680
I0913 21:05:11.238692 13902 layer_factory.hpp:77] Creating layer norm2
I0913 21:05:11.238703 13902 net.cpp:91] Creating Layer norm2
I0913 21:05:11.238706 13902 net.cpp:425] norm2 <- pool2
I0913 21:05:11.238713 13902 net.cpp:399] norm2 -> norm2
I0913 21:05:11.238965 13902 net.cpp:141] Setting up norm2
I0913 21:05:11.238979 13902 net.cpp:148] Top shape: 10 256 13 13 (432640)
I0913 21:05:11.238984 13902 net.cpp:156] Memory required for data: 53405240
I0913 21:05:11.238989 13902 layer_factory.hpp:77] Creating layer conv3
I0913 21:05:11.239001 13902 net.cpp:91] Creating Layer conv3
I0913 21:05:11.239006 13902 net.cpp:425] conv3 <- norm2
I0913 21:05:11.239012 13902 net.cpp:399] conv3 -> conv3
I0913 21:05:11.241072 13892 net.cpp:141] Setting up embed_encoder
I0913 21:05:11.241122 13892 net.cpp:148] Top shape: 1 500 (500)
I0913 21:05:11.241127 13892 net.cpp:156] Memory required for data: 18404
I0913 21:05:11.241147 13892 layer_factory.hpp:77] Creating layer reshape_frames
I0913 21:05:11.241163 13892 net.cpp:91] Creating Layer reshape_frames
I0913 21:05:11.241169 13892 net.cpp:425] reshape_frames <- embedded_in_frames
I0913 21:05:11.241180 13892 net.cpp:399] reshape_frames -> embedded_input_frames
I0913 21:05:11.241230 13892 net.cpp:141] Setting up reshape_frames
I0913 21:05:11.241238 13892 net.cpp:148] Top shape: 1 1 500 (500)
I0913 21:05:11.241243 13892 net.cpp:156] Memory required for data: 20404
I0913 21:05:11.241247 13892 layer_factory.hpp:77] Creating layer reshape_stage_indicator
I0913 21:05:11.241258 13892 net.cpp:91] Creating Layer reshape_stage_indicator
I0913 21:05:11.241263 13892 net.cpp:425] reshape_stage_indicator <- stage_indicator
I0913 21:05:11.241271 13892 net.cpp:399] reshape_stage_indicator -> reshaped_stage_indicator
I0913 21:05:11.241305 13892 net.cpp:141] Setting up reshape_stage_indicator
I0913 21:05:11.241313 13892 net.cpp:148] Top shape: 1 1 1 (1)
I0913 21:05:11.241317 13892 net.cpp:156] Memory required for data: 20408
I0913 21:05:11.241322 13892 layer_factory.hpp:77] Creating layer embedding
I0913 21:05:11.241334 13892 net.cpp:91] Creating Layer embedding
I0913 21:05:11.241339 13892 net.cpp:425] embedding <- input_sentence
I0913 21:05:11.241346 13892 net.cpp:399] embedding -> embedded_input_sentence
I0913 21:05:11.280936 13902 net.cpp:141] Setting up conv3
I0913 21:05:11.281008 13902 net.cpp:148] Top shape: 10 384 13 13 (648960)
I0913 21:05:11.281018 13902 net.cpp:156] Memory required for data: 56001080
I0913 21:05:11.281050 13902 layer_factory.hpp:77] Creating layer relu3
I0913 21:05:11.281078 13902 net.cpp:91] Creating Layer relu3
I0913 21:05:11.281090 13902 net.cpp:425] relu3 <- conv3
I0913 21:05:11.281111 13902 net.cpp:386] relu3 -> conv3 (in-place)
I0913 21:05:11.281440 13902 net.cpp:141] Setting up relu3
I0913 21:05:11.281456 13902 net.cpp:148] Top shape: 10 384 13 13 (648960)
I0913 21:05:11.281464 13902 net.cpp:156] Memory required for data: 58596920
I0913 21:05:11.281472 13902 layer_factory.hpp:77] Creating layer conv4
I0913 21:05:11.281499 13902 net.cpp:91] Creating Layer conv4
I0913 21:05:11.281507 13902 net.cpp:425] conv4 <- conv3
I0913 21:05:11.281525 13902 net.cpp:399] conv4 -> conv4
I0913 21:05:11.286924 13902 net.cpp:141] Setting up conv4
I0913 21:05:11.286973 13902 net.cpp:148] Top shape: 10 384 13 13 (648960)
I0913 21:05:11.286979 13902 net.cpp:156] Memory required for data: 61192760
I0913 21:05:11.286993 13902 layer_factory.hpp:77] Creating layer relu4
I0913 21:05:11.287010 13902 net.cpp:91] Creating Layer relu4
I0913 21:05:11.287016 13902 net.cpp:425] relu4 <- conv4
I0913 21:05:11.287029 13902 net.cpp:386] relu4 -> conv4 (in-place)
I0913 21:05:11.287441 13902 net.cpp:141] Setting up relu4
I0913 21:05:11.287452 13902 net.cpp:148] Top shape: 10 384 13 13 (648960)
I0913 21:05:11.287457 13902 net.cpp:156] Memory required for data: 63788600
I0913 21:05:11.287462 13902 layer_factory.hpp:77] Creating layer conv5
I0913 21:05:11.287480 13902 net.cpp:91] Creating Layer conv5
I0913 21:05:11.287485 13902 net.cpp:425] conv5 <- conv4
I0913 21:05:11.287492 13902 net.cpp:399] conv5 -> conv5
I0913 21:05:11.291184 13902 net.cpp:141] Setting up conv5
I0913 21:05:11.291205 13902 net.cpp:148] Top shape: 10 256 13 13 (432640)
I0913 21:05:11.291210 13902 net.cpp:156] Memory required for data: 65519160
I0913 21:05:11.291225 13902 layer_factory.hpp:77] Creating layer relu5
I0913 21:05:11.291234 13902 net.cpp:91] Creating Layer relu5
I0913 21:05:11.291239 13902 net.cpp:425] relu5 <- conv5
I0913 21:05:11.291245 13902 net.cpp:386] relu5 -> conv5 (in-place)
I0913 21:05:11.291637 13902 net.cpp:141] Setting up relu5
I0913 21:05:11.291651 13902 net.cpp:148] Top shape: 10 256 13 13 (432640)
I0913 21:05:11.291654 13902 net.cpp:156] Memory required for data: 67249720
I0913 21:05:11.291659 13902 layer_factory.hpp:77] Creating layer pool5
I0913 21:05:11.291669 13902 net.cpp:91] Creating Layer pool5
I0913 21:05:11.291673 13902 net.cpp:425] pool5 <- conv5
I0913 21:05:11.291684 13902 net.cpp:399] pool5 -> pool5
I0913 21:05:11.291743 13902 net.cpp:141] Setting up pool5
I0913 21:05:11.291752 13902 net.cpp:148] Top shape: 10 256 6 6 (92160)
I0913 21:05:11.291756 13902 net.cpp:156] Memory required for data: 67618360
I0913 21:05:11.291761 13902 layer_factory.hpp:77] Creating layer fc6
I0913 21:05:11.291777 13902 net.cpp:91] Creating Layer fc6
I0913 21:05:11.291782 13902 net.cpp:425] fc6 <- pool5
I0913 21:05:11.291790 13902 net.cpp:399] fc6 -> fc6
I0913 21:05:11.392323 13902 net.cpp:141] Setting up fc6
I0913 21:05:11.392371 13902 net.cpp:148] Top shape: 10 4096 (40960)
I0913 21:05:11.392376 13902 net.cpp:156] Memory required for data: 67782200
I0913 21:05:11.392391 13902 layer_factory.hpp:77] Creating layer relu6
I0913 21:05:11.392412 13902 net.cpp:91] Creating Layer relu6
I0913 21:05:11.392419 13902 net.cpp:425] relu6 <- fc6
I0913 21:05:11.392428 13902 net.cpp:386] relu6 -> fc6 (in-place)
I0913 21:05:11.392743 13902 net.cpp:141] Setting up relu6
I0913 21:05:11.392758 13902 net.cpp:148] Top shape: 10 4096 (40960)
I0913 21:05:11.392766 13902 net.cpp:156] Memory required for data: 67946040
I0913 21:05:11.392774 13902 layer_factory.hpp:77] Creating layer drop6
I0913 21:05:11.392787 13902 net.cpp:91] Creating Layer drop6
I0913 21:05:11.392792 13902 net.cpp:425] drop6 <- fc6
I0913 21:05:11.392802 13902 net.cpp:386] drop6 -> fc6 (in-place)
I0913 21:05:11.392850 13902 net.cpp:141] Setting up drop6
I0913 21:05:11.392858 13902 net.cpp:148] Top shape: 10 4096 (40960)
I0913 21:05:11.392863 13902 net.cpp:156] Memory required for data: 68109880
I0913 21:05:11.392868 13902 layer_factory.hpp:77] Creating layer fc7
I0913 21:05:11.392879 13902 net.cpp:91] Creating Layer fc7
I0913 21:05:11.392884 13902 net.cpp:425] fc7 <- fc6
I0913 21:05:11.392890 13902 net.cpp:399] fc7 -> fc7
I0913 21:05:11.442776 13902 net.cpp:141] Setting up fc7
I0913 21:05:11.442824 13902 net.cpp:148] Top shape: 10 4096 (40960)
I0913 21:05:11.442831 13902 net.cpp:156] Memory required for data: 68273720
I0913 21:05:11.442845 13902 layer_factory.hpp:77] Creating layer relu7
I0913 21:05:11.442865 13902 net.cpp:91] Creating Layer relu7
I0913 21:05:11.442873 13902 net.cpp:425] relu7 <- fc7
I0913 21:05:11.442881 13902 net.cpp:386] relu7 -> fc7 (in-place)
I0913 21:05:11.443517 13902 net.cpp:141] Setting up relu7
I0913 21:05:11.443531 13902 net.cpp:148] Top shape: 10 4096 (40960)
I0913 21:05:11.443534 13902 net.cpp:156] Memory required for data: 68437560
I0913 21:05:11.443539 13902 layer_factory.hpp:77] Creating layer drop7
I0913 21:05:11.443553 13902 net.cpp:91] Creating Layer drop7
I0913 21:05:11.443558 13902 net.cpp:425] drop7 <- fc7
I0913 21:05:11.443564 13902 net.cpp:386] drop7 -> fc7 (in-place)
I0913 21:05:11.443604 13902 net.cpp:141] Setting up drop7
I0913 21:05:11.443613 13902 net.cpp:148] Top shape: 10 4096 (40960)
I0913 21:05:11.443617 13902 net.cpp:156] Memory required for data: 68601400
I0913 21:05:11.443621 13902 layer_factory.hpp:77] Creating layer fc8
I0913 21:05:11.443630 13902 net.cpp:91] Creating Layer fc8
I0913 21:05:11.443634 13902 net.cpp:425] fc8 <- fc7
I0913 21:05:11.443645 13902 net.cpp:399] fc8 -> fc8
I0913 21:05:11.452736 13892 net.cpp:141] Setting up embedding
I0913 21:05:11.452780 13892 net.cpp:148] Top shape: 1 1 500 (500)
I0913 21:05:11.452785 13892 net.cpp:156] Memory required for data: 22408
I0913 21:05:11.452801 13892 layer_factory.hpp:77] Creating layer lstm1
I0913 21:05:11.452822 13892 net.cpp:91] Creating Layer lstm1
I0913 21:05:11.452829 13892 net.cpp:425] lstm1 <- embedded_input_frames
I0913 21:05:11.452837 13892 net.cpp:425] lstm1 <- cont_sentence_input_1_split_0
I0913 21:05:11.452847 13892 net.cpp:399] lstm1 -> lstm1
I0913 21:05:11.452880 13892 recurrent_layer.cpp:20] Initializing recurrent layer: assuming input batch contains 1 timesteps of 1 independent streams.
I0913 21:05:11.453243 13892 net.cpp:49] Initializing net from parameters: 
layer {
  name: "lstm1_"
  type: "Input"
  top: "x"
  top: "cont"
  input_param {
    shape {
      dim: 1
      dim: 1
      dim: 500
    }
    shape {
      dim: 1
      dim: 1
    }
  }
}
layer {
  name: "lstm1_"
  type: "Input"
  top: "c_0"
  top: "h_0"
  input_param {
    shape {
      dim: 1
      dim: 1
      dim: 1000
    }
    shape {
      dim: 1
      dim: 1
      dim: 1000
    }
  }
}
layer {
  name: "lstm1_cont_slice"
  type: "Slice"
  bottom: "cont"
  top: "cont_1"
  slice_param {
    axis: 0
  }
}
layer {
  name: "lstm1_x_transform"
  type: "InnerProduct"
  bottom: "x"
  top: "W_xc_x"
  param {
    name: "W_xc"
  }
  param {
    name: "b_c"
  }
  propagate_down: true
  inner_product_param {
    num_output: 4000
    bias_term: true
    weight_filler {
      type: "uniform"
      min: -0.08
      max: 0.08
    }
    bias_filler {
      type: "constant"
      value: 0
    }
    axis: 2
  }
}
layer {
  name: "lstm1_W_xc_x_slice"
  type: "Slice"
  bottom: "W_xc_x"
  top: "W_xc_x_1"
  slice_param {
    axis: 0
  }
}
layer {
  name: "lstm1_h_conted_0"
  type: "Scale"
  bottom: "h_0"
  bottom: "cont_1"
  top: "h_conted_0"
  scale_param {
    axis: 0
  }
}
layer {
  name: "lstm1_transform_1"
  type: "InnerProduct"
  bottom: "h_conted_0"
  top: "W_hc_h_0"
  param {
    name: "W_hc"
  }
  inner_product_param {
    num_output: 4000
    bias_term: false
    weight_filler {
      type: "uniform"
      min: -0.08
      max: 0.08
    }
    axis: 2
  }
}
layer {
  name: "lstm1_gate_input_1"
  type: "Eltwise"
  bottom: "W_hc_h_0"
  bottom: "W_xc_x_1"
  top: "gate_input_1"
  eltwise_param {
    operation: SUM
  }
}
layer {
  name: "lstm1_unit_1"
  type: "LSTMUnit"
  bottom: "c_0"
  bottom: "gate_input_1"
  bottom: "cont_1"
  top: "c_1"
  top: "h_1"
}
layer {
  name: "lstm1_"
  type: "Split"
  bottom: "c_1"
  top: "c_T"
}
layer {
  name: "lstm1_h_concat"
  type: "Concat"
  bottom: "h_1"
  top: "h"
  concat_param {
    axis: 0
  }
}
layer {
  name: "h_pseudoloss"
  type: "Reduction"
  bottom: "h"
  top: "h_pseudoloss"
  loss_weight: 1
}
I0913 21:05:11.453337 13892 layer_factory.hpp:77] Creating layer lstm1_
I0913 21:05:11.453351 13892 net.cpp:91] Creating Layer lstm1_
I0913 21:05:11.453356 13892 net.cpp:399] lstm1_ -> x
I0913 21:05:11.453367 13892 net.cpp:399] lstm1_ -> cont
I0913 21:05:11.453431 13892 net.cpp:141] Setting up lstm1_
I0913 21:05:11.453441 13892 net.cpp:148] Top shape: 1 1 500 (500)
I0913 21:05:11.453447 13892 net.cpp:148] Top shape: 1 1 (1)
I0913 21:05:11.453450 13892 net.cpp:156] Memory required for data: 2004
I0913 21:05:11.453455 13892 layer_factory.hpp:77] Creating layer lstm1_
I0913 21:05:11.453466 13892 net.cpp:91] Creating Layer lstm1_
I0913 21:05:11.453472 13892 net.cpp:399] lstm1_ -> c_0
I0913 21:05:11.453483 13892 net.cpp:399] lstm1_ -> h_0
I0913 21:05:11.453532 13892 net.cpp:141] Setting up lstm1_
I0913 21:05:11.453541 13892 net.cpp:148] Top shape: 1 1 1000 (1000)
I0913 21:05:11.453547 13892 net.cpp:148] Top shape: 1 1 1000 (1000)
I0913 21:05:11.453550 13892 net.cpp:156] Memory required for data: 10004
I0913 21:05:11.453554 13892 layer_factory.hpp:77] Creating layer lstm1_cont_slice
I0913 21:05:11.453565 13892 net.cpp:91] Creating Layer lstm1_cont_slice
I0913 21:05:11.453570 13892 net.cpp:425] lstm1_cont_slice <- cont
I0913 21:05:11.453583 13892 net.cpp:399] lstm1_cont_slice -> cont_1
I0913 21:05:11.453629 13892 net.cpp:141] Setting up lstm1_cont_slice
I0913 21:05:11.453637 13892 net.cpp:148] Top shape: 1 1 (1)
I0913 21:05:11.453642 13892 net.cpp:156] Memory required for data: 10008
I0913 21:05:11.453646 13892 layer_factory.hpp:77] Creating layer cont_1_lstm1_cont_slice_0_split
I0913 21:05:11.453655 13892 net.cpp:91] Creating Layer cont_1_lstm1_cont_slice_0_split
I0913 21:05:11.453658 13892 net.cpp:425] cont_1_lstm1_cont_slice_0_split <- cont_1
I0913 21:05:11.453667 13892 net.cpp:399] cont_1_lstm1_cont_slice_0_split -> cont_1_lstm1_cont_slice_0_split_0
I0913 21:05:11.453675 13892 net.cpp:399] cont_1_lstm1_cont_slice_0_split -> cont_1_lstm1_cont_slice_0_split_1
I0913 21:05:11.453722 13892 net.cpp:141] Setting up cont_1_lstm1_cont_slice_0_split
I0913 21:05:11.453729 13892 net.cpp:148] Top shape: 1 1 (1)
I0913 21:05:11.453737 13892 net.cpp:148] Top shape: 1 1 (1)
I0913 21:05:11.453740 13892 net.cpp:156] Memory required for data: 10016
I0913 21:05:11.453745 13892 layer_factory.hpp:77] Creating layer lstm1_x_transform
I0913 21:05:11.453754 13892 net.cpp:91] Creating Layer lstm1_x_transform
I0913 21:05:11.453759 13892 net.cpp:425] lstm1_x_transform <- x
I0913 21:05:11.453768 13892 net.cpp:399] lstm1_x_transform -> W_xc_x
I0913 21:05:11.458014 13902 net.cpp:141] Setting up fc8
I0913 21:05:11.458060 13902 net.cpp:148] Top shape: 10 1000 (10000)
I0913 21:05:11.458065 13902 net.cpp:156] Memory required for data: 68641400
I0913 21:05:11.458079 13902 layer_factory.hpp:77] Creating layer prob
I0913 21:05:11.458099 13902 net.cpp:91] Creating Layer prob
I0913 21:05:11.458106 13902 net.cpp:425] prob <- fc8
I0913 21:05:11.458115 13902 net.cpp:399] prob -> prob
I0913 21:05:11.458530 13902 net.cpp:141] Setting up prob
I0913 21:05:11.458542 13902 net.cpp:148] Top shape: 10 1000 (10000)
I0913 21:05:11.458546 13902 net.cpp:156] Memory required for data: 68681400
I0913 21:05:11.458552 13902 net.cpp:219] prob does not need backward computation.
I0913 21:05:11.458557 13902 net.cpp:219] fc8 does not need backward computation.
I0913 21:05:11.458561 13902 net.cpp:219] drop7 does not need backward computation.
I0913 21:05:11.458565 13902 net.cpp:219] relu7 does not need backward computation.
…
I0913 21:05:11.458627 13902 net.cpp:219] norm1 does not need backward computation.
I0913 21:05:11.458631 13902 net.cpp:219] pool1 does not need backward computation.
I0913 21:05:11.458636 13902 net.cpp:219] relu1 does not need backward computation.
I0913 21:05:11.458639 13902 net.cpp:219] conv1 does not need backward computation.
I0913 21:05:11.458643 13902 net.cpp:219] data does not need backward computation.
I0913 21:05:11.458647 13902 net.cpp:261] This network produces output prob
I0913 21:05:11.458670 13902 net.cpp:274] Network initialization done.
I0913 21:05:11.472988 13892 net.cpp:141] Setting up lstm1_x_transform
I0913 21:05:11.473028 13892 net.cpp:148] Top shape: 1 1 4000 (4000)
I0913 21:05:11.473036 13892 net.cpp:156] Memory required for data: 26016
I0913 21:05:11.473054 13892 layer_factory.hpp:77] Creating layer lstm1_W_xc_x_slice
I0913 21:05:11.473069 13892 net.cpp:91] Creating Layer lstm1_W_xc_x_slice
I0913 21:05:11.473076 13892 net.cpp:425] lstm1_W_xc_x_slice <- W_xc_x
I0913 21:05:11.473085 13892 net.cpp:399] lstm1_W_xc_x_slice -> W_xc_x_1
I0913 21:05:11.473126 13892 net.cpp:141] Setting up lstm1_W_xc_x_slice
I0913 21:05:11.473136 13892 net.cpp:148] Top shape: 1 1 4000 (4000)
I0913 21:05:11.473140 13892 net.cpp:156] Memory required for data: 42016
I0913 21:05:11.473145 13892 layer_factory.hpp:77] Creating layer lstm1_h_conted_0
I0913 21:05:11.473157 13892 net.cpp:91] Creating Layer lstm1_h_conted_0
I0913 21:05:11.473162 13892 net.cpp:425] lstm1_h_conted_0 <- h_0
I0913 21:05:11.473168 13892 net.cpp:425] lstm1_h_conted_0 <- cont_1_lstm1_cont_slice_0_split_0
I0913 21:05:11.473176 13892 net.cpp:399] lstm1_h_conted_0 -> h_conted_0
I0913 21:05:11.473275 13892 net.cpp:141] Setting up lstm1_h_conted_0
I0913 21:05:11.473284 13892 net.cpp:148] Top shape: 1 1 1000 (1000)
I0913 21:05:11.473289 13892 net.cpp:156] Memory required for data: 46016
I0913 21:05:11.473294 13892 layer_factory.hpp:77] Creating layer lstm1_transform_1
I0913 21:05:11.473305 13892 net.cpp:91] Creating Layer lstm1_transform_1
I0913 21:05:11.473310 13892 net.cpp:425] lstm1_transform_1 <- h_conted_0
I0913 21:05:11.473317 13892 net.cpp:399] lstm1_transform_1 -> W_hc_h_0
I0913 21:05:11.510953 13892 net.cpp:141] Setting up lstm1_transform_1
I0913 21:05:11.510993 13892 net.cpp:148] Top shape: 1 1 4000 (4000)
I0913 21:05:11.511000 13892 net.cpp:156] Memory required for data: 62016
I0913 21:05:11.511016 13892 layer_factory.hpp:77] Creating layer lstm1_gate_input_1
I0913 21:05:11.511037 13892 net.cpp:91] Creating Layer lstm1_gate_input_1
I0913 21:05:11.511044 13892 net.cpp:425] lstm1_gate_input_1 <- W_hc_h_0
I0913 21:05:11.511051 13892 net.cpp:425] lstm1_gate_input_1 <- W_xc_x_1
I0913 21:05:11.511059 13892 net.cpp:399] lstm1_gate_input_1 -> gate_input_1
I0913 21:05:11.511114 13892 net.cpp:141] Setting up lstm1_gate_input_1
I0913 21:05:11.511123 13892 net.cpp:148] Top shape: 1 1 4000 (4000)
I0913 21:05:11.511128 13892 net.cpp:156] Memory required for data: 78016
I0913 21:05:11.511132 13892 layer_factory.hpp:77] Creating layer lstm1_unit_1
I0913 21:05:11.511142 13892 net.cpp:91] Creating Layer lstm1_unit_1
I0913 21:05:11.511145 13892 net.cpp:425] lstm1_unit_1 <- c_0
I0913 21:05:11.511152 13892 net.cpp:425] lstm1_unit_1 <- gate_input_1
I0913 21:05:11.511157 13892 net.cpp:425] lstm1_unit_1 <- cont_1_lstm1_cont_slice_0_split_1
I0913 21:05:11.511163 13892 net.cpp:399] lstm1_unit_1 -> c_1
I0913 21:05:11.511171 13892 net.cpp:399] lstm1_unit_1 -> h_1
I0913 21:05:11.511234 13892 net.cpp:141] Setting up lstm1_unit_1
I0913 21:05:11.511242 13892 net.cpp:148] Top shape: 1 1 1000 (1000)
I0913 21:05:11.511248 13892 net.cpp:148] Top shape: 1 1 1000 (1000)
I0913 21:05:11.511252 13892 net.cpp:156] Memory required for data: 86016
I0913 21:05:11.511256 13892 layer_factory.hpp:77] Creating layer lstm1_
I0913 21:05:11.511266 13892 net.cpp:91] Creating Layer lstm1_
I0913 21:05:11.511271 13892 net.cpp:425] lstm1_ <- c_1
I0913 21:05:11.511277 13892 net.cpp:399] lstm1_ -> c_T
I0913 21:05:11.511307 13892 net.cpp:141] Setting up lstm1_
I0913 21:05:11.511314 13892 net.cpp:148] Top shape: 1 1 1000 (1000)
I0913 21:05:11.511318 13892 net.cpp:156] Memory required for data: 90016
I0913 21:05:11.511322 13892 layer_factory.hpp:77] Creating layer lstm1_h_concat
I0913 21:05:11.511332 13892 net.cpp:91] Creating Layer lstm1_h_concat
I0913 21:05:11.511335 13892 net.cpp:425] lstm1_h_concat <- h_1
I0913 21:05:11.511345 13892 net.cpp:399] lstm1_h_concat -> h
I0913 21:05:11.511390 13892 net.cpp:141] Setting up lstm1_h_concat
I0913 21:05:11.511399 13892 net.cpp:148] Top shape: 1 1 1000 (1000)
I0913 21:05:11.511402 13892 net.cpp:156] Memory required for data: 94016
I0913 21:05:11.511406 13892 layer_factory.hpp:77] Creating layer h_pseudoloss
I0913 21:05:11.511421 13892 net.cpp:91] Creating Layer h_pseudoloss
I0913 21:05:11.511426 13892 net.cpp:425] h_pseudoloss <- h
I0913 21:05:11.511435 13892 net.cpp:399] h_pseudoloss -> h_pseudoloss
I0913 21:05:11.511533 13892 net.cpp:141] Setting up h_pseudoloss
…
I0913 21:05:11.511646 13892 net.cpp:219] lstm1_ does not need backward computation.
I0913 21:05:11.511648 13892 net.cpp:261] This network produces output c_T
I0913 21:05:11.511652 13892 net.cpp:261] This network produces output h_pseudoloss
I0913 21:05:11.511668 13892 net.cpp:274] Network initialization done.
I0913 21:05:11.511718 13892 recurrent_layer.cpp:150] Adding parameter 0: W_xc
I0913 21:05:11.511723 13892 recurrent_layer.cpp:150] Adding parameter 1: b_c
I0913 21:05:11.511728 13892 recurrent_layer.cpp:150] Adding parameter 2: W_hc
I0913 21:05:11.511829 13892 net.cpp:141] Setting up lstm1
I0913 21:05:11.511839 13892 net.cpp:148] Top shape: 1 1 1000 (1000)
I0913 21:05:11.511843 13892 net.cpp:156] Memory required for data: 26408
I0913 21:05:11.511855 13892 layer_factory.hpp:77] Creating layer concat
I0913 21:05:11.511864 13892 net.cpp:91] Creating Layer concat
I0913 21:05:11.511869 13892 net.cpp:425] concat <- lstm1
I0913 21:05:11.511876 13892 net.cpp:425] concat <- embedded_input_sentence
I0913 21:05:11.511881 13892 net.cpp:425] concat <- reshaped_stage_indicator
I0913 21:05:11.511888 13892 net.cpp:399] concat -> lstm1_video_sequence
I0913 21:05:11.511920 13892 net.cpp:141] Setting up concat
I0913 21:05:11.511929 13892 net.cpp:148] Top shape: 1 1 1501 (1501)
I0913 21:05:11.511932 13892 net.cpp:156] Memory required for data: 32412
I0913 21:05:11.511937 13892 layer_factory.hpp:77] Creating layer lstm2
I0913 21:05:11.511950 13892 net.cpp:91] Creating Layer lstm2
I0913 21:05:11.511955 13892 net.cpp:425] lstm2 <- lstm1_video_sequence
I0913 21:05:11.511960 13892 net.cpp:425] lstm2 <- cont_sentence_input_1_split_1
I0913 21:05:11.511965 13892 net.cpp:399] lstm2 -> lstm2
I0913 21:05:11.511976 13892 recurrent_layer.cpp:20] Initializing recurrent layer: assuming input batch contains 1 timesteps of 1 independent streams.
I0913 21:05:11.512219 13892 net.cpp:49] Initializing net from parameters: 
layer {
  name: "lstm2_"
  type: "Input"
  top: "x"
  top: "cont"
  input_param {
    shape {
      dim: 1
      dim: 1
      dim: 1501
    }
    shape {
      dim: 1
      dim: 1
    }
  }
}
layer {
  name: "lstm2_"
  type: "Input"
  top: "c_0"
  top: "h_0"
  input_param {
    shape {
      dim: 1
      dim: 1
      dim: 1000
    }
    shape {
      dim: 1
      dim: 1
      dim: 1000
    }
  }
}
layer {
  name: "lstm2_cont_slice"
  type: "Slice"
  bottom: "cont"
  top: "cont_1"
  slice_param {
    axis: 0
  }
}
layer {
  name: "lstm2_x_transform"
  type: "InnerProduct"
  bottom: "x"
  top: "W_xc_x"
  param {
    name: "W_xc"
  }
  param {
    name: "b_c"
  }
  propagate_down: true
  inner_product_param {
    num_output: 4000
    bias_term: true
    weight_filler {
      type: "uniform"
      min: -0.08
      max: 0.08
    }
    bias_filler {
      type: "constant"
      value: 0
    }
    axis: 2
  }
}
layer {
  name: "lstm2_W_xc_x_slice"
  type: "Slice"
  bottom: "W_xc_x"
  top: "W_xc_x_1"
  slice_param {
    axis: 0
  }
}
layer {
  name: "lstm2_h_conted_0"
  type: "Scale"
  bottom: "h_0"
  bottom: "cont_1"
  top: "h_conted_0"
  scale_param {
    axis: 0
  }
}
layer {
  name: "lstm2_transform_1"
  type: "InnerProduct"
  bottom: "h_conted_0"
  top: "W_hc_h_0"
  param {
    name: "W_hc"
  }
  inner_product_param {
    num_output: 4000
    bias_term: false
    weight_filler {
      type: "uniform"
      min: -0.08
      max: 0.08
    }
    axis: 2
  }
}
layer {
  name: "lstm2_gate_input_1"
  type: "Eltwise"
  bottom: "W_hc_h_0"
  bottom: "W_xc_x_1"
  top: "gate_input_1"
  eltwise_param {
    operation: SUM
  }
}
layer {
  name: "lstm2_unit_1"
  type: "LSTMUnit"
  bottom: "c_0"
  bottom: "gate_input_1"
  bottom: "cont_1"
  top: "c_1"
  top: "h_1"
}
layer {
  name: "lstm2_"
  type: "Split"
  bottom: "c_1"
  top: "c_T"
}
layer {
  name: "lstm2_h_concat"
  type: "Concat"
  bottom: "h_1"
  top: "h"
  concat_param {
    axis: 0
  }
}
layer {
  name: "h_pseudoloss"
  type: "Reduction"
  bottom: "h"
  top: "h_pseudoloss"
  loss_weight: 1
}
I0913 21:05:11.512302 13892 layer_factory.hpp:77] Creating layer lstm2_
I0913 21:05:11.512318 13892 net.cpp:91] Creating Layer lstm2_
I0913 21:05:11.512325 13892 net.cpp:399] lstm2_ -> x
I0913 21:05:11.512336 13892 net.cpp:399] lstm2_ -> cont
I0913 21:05:11.512387 13892 net.cpp:141] Setting up lstm2_
I0913 21:05:11.512395 13892 net.cpp:148] Top shape: 1 1 1501 (1501)
I0913 21:05:11.512401 13892 net.cpp:148] Top shape: 1 1 (1)
I0913 21:05:11.512405 13892 net.cpp:156] Memory required for data: 6008
I0913 21:05:11.512409 13892 layer_factory.hpp:77] Creating layer lstm2_
I0913 21:05:11.512418 13892 net.cpp:91] Creating Layer lstm2_
I0913 21:05:11.512423 13892 net.cpp:399] lstm2_ -> c_0
I0913 21:05:11.512431 13892 net.cpp:399] lstm2_ -> h_0
I0913 21:05:11.512477 13892 net.cpp:141] Setting up lstm2_
I0913 21:05:11.512486 13892 net.cpp:148] Top shape: 1 1 1000 (1000)
I0913 21:05:11.512491 13892 net.cpp:148] Top shape: 1 1 1000 (1000)
I0913 21:05:11.512495 13892 net.cpp:156] Memory required for data: 14008
I0913 21:05:11.512500 13892 layer_factory.hpp:77] Creating layer lstm2_cont_slice
I0913 21:05:11.512507 13892 net.cpp:91] Creating Layer lstm2_cont_slice
I0913 21:05:11.512511 13892 net.cpp:425] lstm2_cont_slice <- cont
I0913 21:05:11.512521 13892 net.cpp:399] lstm2_cont_slice -> cont_1
I0913 21:05:11.512552 13892 net.cpp:141] Setting up lstm2_cont_slice
I0913 21:05:11.512559 13892 net.cpp:148] Top shape: 1 1 (1)
I0913 21:05:11.512564 13892 net.cpp:156] Memory required for data: 14012
I0913 21:05:11.512569 13892 layer_factory.hpp:77] Creating layer cont_1_lstm2_cont_slice_0_split
I0913 21:05:11.512575 13892 net.cpp:91] Creating Layer cont_1_lstm2_cont_slice_0_split
I0913 21:05:11.512579 13892 net.cpp:425] cont_1_lstm2_cont_slice_0_split <- cont_1
I0913 21:05:11.512585 13892 net.cpp:399] cont_1_lstm2_cont_slice_0_split -> cont_1_lstm2_cont_slice_0_split_0
I0913 21:05:11.512593 13892 net.cpp:399] cont_1_lstm2_cont_slice_0_split -> cont_1_lstm2_cont_slice_0_split_1
I0913 21:05:11.512637 13892 net.cpp:141] Setting up cont_1_lstm2_cont_slice_0_split
I0913 21:05:11.512646 13892 net.cpp:148] Top shape: 1 1 (1)
I0913 21:05:11.512651 13892 net.cpp:148] Top shape: 1 1 (1)
I0913 21:05:11.512655 13892 net.cpp:156] Memory required for data: 14020
I0913 21:05:11.512660 13892 layer_factory.hpp:77] Creating layer lstm2_x_transform
I0913 21:05:11.512670 13892 net.cpp:91] Creating Layer lstm2_x_transform
I0913 21:05:11.512676 13892 net.cpp:425] lstm2_x_transform <- x
I0913 21:05:11.512682 13892 net.cpp:399] lstm2_x_transform -> W_xc_x
I0913 21:05:11.569020 13892 net.cpp:141] Setting up lstm2_x_transform
I0913 21:05:11.569063 13892 net.cpp:148] Top shape: 1 1 4000 (4000)
I0913 21:05:11.569069 13892 net.cpp:156] Memory required for data: 30020
I0913 21:05:11.569088 13892 layer_factory.hpp:77] Creating layer lstm2_W_xc_x_slice
I0913 21:05:11.569104 13892 net.cpp:91] Creating Layer lstm2_W_xc_x_slice
I0913 21:05:11.569111 13892 net.cpp:425] lstm2_W_xc_x_slice <- W_xc_x
I0913 21:05:11.569124 13892 net.cpp:399] lstm2_W_xc_x_slice -> W_xc_x_1
I0913 21:05:11.569167 13892 net.cpp:141] Setting up lstm2_W_xc_x_slice
I0913 21:05:11.569176 13892 net.cpp:148] Top shape: 1 1 4000 (4000)
I0913 21:05:11.569181 13892 net.cpp:156] Memory required for data: 46020
I0913 21:05:11.569185 13892 layer_factory.hpp:77] Creating layer lstm2_h_conted_0
I0913 21:05:11.569196 13892 net.cpp:91] Creating Layer lstm2_h_conted_0
I0913 21:05:11.569201 13892 net.cpp:425] lstm2_h_conted_0 <- h_0
I0913 21:05:11.569206 13892 net.cpp:425] lstm2_h_conted_0 <- cont_1_lstm2_cont_slice_0_split_0
I0913 21:05:11.569216 13892 net.cpp:399] lstm2_h_conted_0 -> h_conted_0
I0913 21:05:11.569308 13892 net.cpp:141] Setting up lstm2_h_conted_0
I0913 21:05:11.569316 13892 net.cpp:148] Top shape: 1 1 1000 (1000)
I0913 21:05:11.569320 13892 net.cpp:156] Memory required for data: 50020
I0913 21:05:11.569325 13892 layer_factory.hpp:77] Creating layer lstm2_transform_1
I0913 21:05:11.569339 13892 net.cpp:91] Creating Layer lstm2_transform_1
I0913 21:05:11.569344 13892 net.cpp:425] lstm2_transform_1 <- h_conted_0
I0913 21:05:11.569351 13892 net.cpp:399] lstm2_transform_1 -> W_hc_h_0
I0913 21:05:11.606889 13892 net.cpp:141] Setting up lstm2_transform_1
I0913 21:05:11.606927 13892 net.cpp:148] Top shape: 1 1 4000 (4000)
I0913 21:05:11.606933 13892 net.cpp:156] Memory required for data: 66020
I0913 21:05:11.606950 13892 layer_factory.hpp:77] Creating layer lstm2_gate_input_1
I0913 21:05:11.606971 13892 net.cpp:91] Creating Layer lstm2_gate_input_1
I0913 21:05:11.606978 13892 net.cpp:425] lstm2_gate_input_1 <- W_hc_h_0
I0913 21:05:11.606986 13892 net.cpp:425] lstm2_gate_input_1 <- W_xc_x_1
I0913 21:05:11.606995 13892 net.cpp:399] lstm2_gate_input_1 -> gate_input_1
I0913 21:05:11.607043 13892 net.cpp:141] Setting up lstm2_gate_input_1
I0913 21:05:11.607051 13892 net.cpp:148] Top shape: 1 1 4000 (4000)
I0913 21:05:11.607055 13892 net.cpp:156] Memory required for data: 82020
I0913 21:05:11.607060 13892 layer_factory.hpp:77] Creating layer lstm2_unit_1
I0913 21:05:11.607072 13892 net.cpp:91] Creating Layer lstm2_unit_1
I0913 21:05:11.607076 13892 net.cpp:425] lstm2_unit_1 <- c_0
I0913 21:05:11.607082 13892 net.cpp:425] lstm2_unit_1 <- gate_input_1
I0913 21:05:11.607087 13892 net.cpp:425] lstm2_unit_1 <- cont_1_lstm2_cont_slice_0_split_1
I0913 21:05:11.607094 13892 net.cpp:399] lstm2_unit_1 -> c_1
I0913 21:05:11.607101 13892 net.cpp:399] lstm2_unit_1 -> h_1
I0913 21:05:11.607161 13892 net.cpp:141] Setting up lstm2_unit_1
I0913 21:05:11.607170 13892 net.cpp:148] Top shape: 1 1 1000 (1000)
I0913 21:05:11.607175 13892 net.cpp:148] Top shape: 1 1 1000 (1000)
I0913 21:05:11.607179 13892 net.cpp:156] Memory required for data: 90020
I0913 21:05:11.607184 13892 layer_factory.hpp:77] Creating layer lstm2_
I0913 21:05:11.607192 13892 net.cpp:91] Creating Layer lstm2_
I0913 21:05:11.607197 13892 net.cpp:425] lstm2_ <- c_1
I0913 21:05:11.607205 13892 net.cpp:399] lstm2_ -> c_T
I0913 21:05:11.607234 13892 net.cpp:141] Setting up lstm2_
I0913 21:05:11.607242 13892 net.cpp:148] Top shape: 1 1 1000 (1000)
I0913 21:05:11.607246 13892 net.cpp:156] Memory required for data: 94020
I0913 21:05:11.607251 13892 layer_factory.hpp:77] Creating layer lstm2_h_concat
I0913 21:05:11.607260 13892 net.cpp:91] Creating Layer lstm2_h_concat
I0913 21:05:11.607264 13892 net.cpp:425] lstm2_h_concat <- h_1
I0913 21:05:11.607270 13892 net.cpp:399] lstm2_h_concat -> h
I0913 21:05:11.607305 13892 net.cpp:141] Setting up lstm2_h_concat
I0913 21:05:11.607313 13892 net.cpp:148] Top shape: 1 1 1000 (1000)
I0913 21:05:11.607317 13892 net.cpp:156] Memory required for data: 98020
I0913 21:05:11.607321 13892 layer_factory.hpp:77] Creating layer h_pseudoloss
I0913 21:05:11.607329 13892 net.cpp:91] Creating Layer h_pseudoloss
I0913 21:05:11.607334 13892 net.cpp:425] h_pseudoloss <- h
I0913 21:05:11.607341 13892 net.cpp:399] h_pseudoloss -> h_pseudoloss
I0913 21:05:11.607429 13892 net.cpp:141] Setting up h_pseudoloss
…
Java HotSpot(TM) 64-Bit Server VM warning: You have loaded library /home/peifeng/work/run/storm102/data/workers/c35e6a57-bee3-4006-b186-a1251ae5127a/tmp/cvld2549614463368891675/libopencv_java310.xine1.so which might have disabled stack guard. The VM will try to fix the stack guard now.
It's highly recommended that you fix the library with 'execstack -c <libfile>', or link it with '-z noexecstack'.
WARNING: Logging before InitGoogleLogging() is written to STDERR
I0913 21:06:22.956809 14047 net.cpp:49] Initializing net from parameters: 
name: "CaffeNet"
state {
  phase: TEST
}
layer {
  name: "data"
  type: "Input"
  top: "data"
  input_param {
    shape {
      dim: 10
      dim: 3
      dim: 227
      dim: 227
    }
  }
}
layer {
  name: "conv1"
  type: "Convolution"
  bottom: "data"
  top: "conv1"
  convolution_param {
    num_output: 96
    kernel_size: 11
    stride: 4
  }
}
layer {
  name: "relu1"
  type: "ReLU"
  bottom: "conv1"
  top: "conv1"
}
layer {
  name: "pool1"
  type: "Pooling"
  bottom: "conv1"
  top: "pool1"
  pooling_param {
    pool: MAX
    kernel_size: 3
    stride: 2
  }
}
layer {
  name: "norm1"
  type: "LRN"
  bottom: "pool1"
  top: "norm1"
  lrn_param {
    local_size: 5
    alpha: 0.0001
    beta: 0.75
  }
}
layer {
  name: "conv2"
  type: "Convolution"
  bottom: "norm1"
  top: "conv2"
  convolution_param {
    num_output: 256
    pad: 2
    kernel_size: 5
    group: 2
  }
}
layer {
  name: "relu2"
  type: "ReLU"
  bottom: "conv2"
  top: "conv2"
}
layer {
  name: "pool2"
  type: "Pooling"
  bottom: "conv2"
  top: "pool2"
  pooling_param {
    pool: MAX
    kernel_size: 3
    stride: 2
  }
}
layer {
  name: "norm2"
  type: "LRN"
  bottom: "pool2"
  top: "norm2"
  lrn_param {
    local_size: 5
    alpha: 0.0001
    beta: 0.75
  }
}
layer {
  name: "conv3"
  type: "Convolution"
  bottom: "norm2"
  top: "conv3"
  convolution_param {
    num_output: 384
    pad: 1
    kernel_size: 3
  }
}
layer {
  name: "relu3"
  type: "ReLU"
  bottom: "conv3"
  top: "conv3"
}
layer {
  name: "conv4"
  type: "Convolution"
  bottom: "conv3"
  top: "conv4"
  convolution_param {
    num_output: 384
    pad: 1
    kernel_size: 3
    group: 2
  }
}
layer {
  name: "relu4"
  type: "ReLU"
  bottom: "conv4"
  top: "conv4"
}
layer {
  name: "conv5"
  type: "Convolution"
  bottom: "conv4"
  top: "conv5"
  convolution_param {
    num_output: 256
    pad: 1
    kernel_size: 3
    group: 2
  }
}
layer {
  name: "relu5"
  type: "ReLU"
  bottom: "conv5"
  top: "conv5"
}
layer {
  name: "pool5"
  type: "Pooling"
  bottom: "conv5"
  top: "pool5"
  pooling_param {
    pool: MAX
    kernel_size: 3
    stride: 2
  }
}
layer {
  name: "fc6"
  type: "InnerProduct"
  bottom: "pool5"
  top: "fc6"
  inner_product_param {
    num_output: 4096
  }
}
layer {
  name: "relu6"
  type: "ReLU"
  bottom: "fc6"
  top: "fc6"
}
layer {
  name: "drop6"
  type: "Dropout"
  bottom: "fc6"
  top: "fc6"
  dropout_param {
    dropout_ratio: 0.5
  }
}
layer {
  name: "fc7"
  type: "InnerProduct"
  bottom: "fc6"
  top: "fc7"
  inner_product_param {
    num_output: 4096
  }
}
layer {
  name: "relu7"
  type: "ReLU"
  bottom: "fc7"
  top: "fc7"
}
layer {
  name: "drop7"
  type: "Dropout"
  bottom: "fc7"
  top: "fc7"
  dropout_param {
    dropout_ratio: 0.5
  }
}
layer {
  name: "fc8"
  type: "InnerProduct"
  bottom: "fc7"
  top: "fc8"
  inner_product_param {
    num_output: 1000
  }
}
layer {
  name: "prob"
  type: "Softmax"
  bottom: "fc8"
  top: "prob"
}
I0913 21:06:22.957015 14047 layer_factory.hpp:77] Creating layer data
I0913 21:06:22.957046 14047 net.cpp:91] Creating Layer data
I0913 21:06:22.957056 14047 net.cpp:399] data -> data
I0913 21:06:23.507169 14047 net.cpp:141] Setting up data
I0913 21:06:23.507292 14047 net.cpp:148] Top shape: 10 3 227 227 (1545870)
I0913 21:06:23.507299 14047 net.cpp:156] Memory required for data: 6183480
I0913 21:06:23.507318 14047 layer_factory.hpp:77] Creating layer conv1
I0913 21:06:23.507352 14047 net.cpp:91] Creating Layer conv1
I0913 21:06:23.507362 14047 net.cpp:425] conv1 <- data
I0913 21:06:23.507376 14047 net.cpp:399] conv1 -> conv1
I0913 21:06:23.682517 14047 net.cpp:141] Setting up conv1
I0913 21:06:23.682569 14047 net.cpp:148] Top shape: 10 96 55 55 (2904000)
I0913 21:06:23.682575 14047 net.cpp:156] Memory required for data: 17799480
I0913 21:06:23.682605 14047 layer_factory.hpp:77] Creating layer relu1
I0913 21:06:23.682629 14047 net.cpp:91] Creating Layer relu1
I0913 21:06:23.682636 14047 net.cpp:425] relu1 <- conv1
I0913 21:06:23.682644 14047 net.cpp:386] relu1 -> conv1 (in-place)
I0913 21:06:23.683046 14047 net.cpp:141] Setting up relu1
I0913 21:06:23.683059 14047 net.cpp:148] Top shape: 10 96 55 55 (2904000)
I0913 21:06:23.683063 14047 net.cpp:156] Memory required for data: 29415480
I0913 21:06:23.683068 14047 layer_factory.hpp:77] Creating layer pool1
I0913 21:06:23.683081 14047 net.cpp:91] Creating Layer pool1
I0913 21:06:23.683086 14047 net.cpp:425] pool1 <- conv1
I0913 21:06:23.683097 14047 net.cpp:399] pool1 -> pool1
I0913 21:06:23.683166 14047 net.cpp:141] Setting up pool1
I0913 21:06:23.683176 14047 net.cpp:148] Top shape: 10 96 27 27 (699840)
I0913 21:06:23.683181 14047 net.cpp:156] Memory required for data: 32214840
I0913 21:06:23.683185 14047 layer_factory.hpp:77] Creating layer norm1
I0913 21:06:23.683205 14047 net.cpp:91] Creating Layer norm1
I0913 21:06:23.683212 14047 net.cpp:425] norm1 <- pool1
I0913 21:06:23.683219 14047 net.cpp:399] norm1 -> norm1
I0913 21:06:23.683486 14047 net.cpp:141] Setting up norm1
I0913 21:06:23.683498 14047 net.cpp:148] Top shape: 10 96 27 27 (699840)
I0913 21:06:23.683502 14047 net.cpp:156] Memory required for data: 35014200
I0913 21:06:23.683507 14047 layer_factory.hpp:77] Creating layer conv2
I0913 21:06:23.683526 14047 net.cpp:91] Creating Layer conv2
I0913 21:06:23.683531 14047 net.cpp:425] conv2 <- norm1
I0913 21:06:23.683540 14047 net.cpp:399] conv2 -> conv2
I0913 21:06:23.688861 14047 net.cpp:141] Setting up conv2
I0913 21:06:23.688890 14047 net.cpp:148] Top shape: 10 256 27 27 (1866240)
I0913 21:06:23.688895 14047 net.cpp:156] Memory required for data: 42479160
I0913 21:06:23.688910 14047 layer_factory.hpp:77] Creating layer relu2
I0913 21:06:23.688926 14047 net.cpp:91] Creating Layer relu2
I0913 21:06:23.688932 14047 net.cpp:425] relu2 <- conv2
I0913 21:06:23.688940 14047 net.cpp:386] relu2 -> conv2 (in-place)
I0913 21:06:23.689349 14047 net.cpp:141] Setting up relu2
I0913 21:06:23.689363 14047 net.cpp:148] Top shape: 10 256 27 27 (1866240)
I0913 21:06:23.689368 14047 net.cpp:156] Memory required for data: 49944120
I0913 21:06:23.689373 14047 layer_factory.hpp:77] Creating layer pool2
I0913 21:06:23.689381 14047 net.cpp:91] Creating Layer pool2
I0913 21:06:23.689386 14047 net.cpp:425] pool2 <- conv2
I0913 21:06:23.689395 14047 net.cpp:399] pool2 -> pool2
I0913 21:06:23.689452 14047 net.cpp:141] Setting up pool2
I0913 21:06:23.689463 14047 net.cpp:148] Top shape: 10 256 13 13 (432640)
I0913 21:06:23.689467 14047 net.cpp:156] Memory required for data: 51674680
I0913 21:06:23.689472 14047 layer_factory.hpp:77] Creating layer norm2
I0913 21:06:23.689483 14047 net.cpp:91] Creating Layer norm2
I0913 21:06:23.689487 14047 net.cpp:425] norm2 <- pool2
I0913 21:06:23.689497 14047 net.cpp:399] norm2 -> norm2
I0913 21:06:23.689746 14047 net.cpp:141] Setting up norm2
I0913 21:06:23.689759 14047 net.cpp:148] Top shape: 10 256 13 13 (432640)
I0913 21:06:23.689764 14047 net.cpp:156] Memory required for data: 53405240
I0913 21:06:23.689769 14047 layer_factory.hpp:77] Creating layer conv3
I0913 21:06:23.689781 14047 net.cpp:91] Creating Layer conv3
I0913 21:06:23.689786 14047 net.cpp:425] conv3 <- norm2
I0913 21:06:23.689796 14047 net.cpp:399] conv3 -> conv3
I0913 21:06:23.693615 14047 net.cpp:141] Setting up conv3
I0913 21:06:23.693639 14047 net.cpp:148] Top shape: 10 384 13 13 (648960)
I0913 21:06:23.693645 14047 net.cpp:156] Memory required for data: 56001080
I0913 21:06:23.693657 14047 layer_factory.hpp:77] Creating layer relu3
I0913 21:06:23.693672 14047 net.cpp:91] Creating Layer relu3
I0913 21:06:23.693677 14047 net.cpp:425] relu3 <- conv3
I0913 21:06:23.693684 14047 net.cpp:386] relu3 -> conv3 (in-place)
I0913 21:06:23.693908 14047 net.cpp:141] Setting up relu3
I0913 21:06:23.693920 14047 net.cpp:148] Top shape: 10 384 13 13 (648960)
I0913 21:06:23.693924 14047 net.cpp:156] Memory required for data: 58596920
I0913 21:06:23.693929 14047 layer_factory.hpp:77] Creating layer conv4
I0913 21:06:23.693943 14047 net.cpp:91] Creating Layer conv4
I0913 21:06:23.693948 14047 net.cpp:425] conv4 <- conv3
I0913 21:06:23.693955 14047 net.cpp:399] conv4 -> conv4
I0913 21:06:23.698006 14047 net.cpp:141] Setting up conv4
I0913 21:06:23.698047 14047 net.cpp:148] Top shape: 10 384 13 13 (648960)
I0913 21:06:23.698053 14047 net.cpp:156] Memory required for data: 61192760
I0913 21:06:23.698065 14047 layer_factory.hpp:77] Creating layer relu4
I0913 21:06:23.698087 14047 net.cpp:91] Creating Layer relu4
I0913 21:06:23.698094 14047 net.cpp:425] relu4 <- conv4
I0913 21:06:23.698102 14047 net.cpp:386] relu4 -> conv4 (in-place)
I0913 21:06:23.698493 14047 net.cpp:141] Setting up relu4
I0913 21:06:23.698505 14047 net.cpp:148] Top shape: 10 384 13 13 (648960)
I0913 21:06:23.698510 14047 net.cpp:156] Memory required for data: 63788600
I0913 21:06:23.698515 14047 layer_factory.hpp:77] Creating layer conv5
I0913 21:06:23.698532 14047 net.cpp:91] Creating Layer conv5
I0913 21:06:23.698539 14047 net.cpp:425] conv5 <- conv4
I0913 21:06:23.698549 14047 net.cpp:399] conv5 -> conv5
I0913 21:06:23.702431 14047 net.cpp:141] Setting up conv5
I0913 21:06:23.702471 14047 net.cpp:148] Top shape: 10 256 13 13 (432640)
I0913 21:06:23.702476 14047 net.cpp:156] Memory required for data: 65519160
I0913 21:06:23.702496 14047 layer_factory.hpp:77] Creating layer relu5
I0913 21:06:23.702510 14047 net.cpp:91] Creating Layer relu5
I0913 21:06:23.702515 14047 net.cpp:425] relu5 <- conv5
I0913 21:06:23.702527 14047 net.cpp:386] relu5 -> conv5 (in-place)
I0913 21:06:23.702932 14047 net.cpp:141] Setting up relu5
I0913 21:06:23.702945 14047 net.cpp:148] Top shape: 10 256 13 13 (432640)
I0913 21:06:23.702950 14047 net.cpp:156] Memory required for data: 67249720
I0913 21:06:23.702955 14047 layer_factory.hpp:77] Creating layer pool5
I0913 21:06:23.702968 14047 net.cpp:91] Creating Layer pool5
I0913 21:06:23.702973 14047 net.cpp:425] pool5 <- conv5
I0913 21:06:23.702981 14047 net.cpp:399] pool5 -> pool5
I0913 21:06:23.703044 14047 net.cpp:141] Setting up pool5
I0913 21:06:23.703053 14047 net.cpp:148] Top shape: 10 256 6 6 (92160)
I0913 21:06:23.703058 14047 net.cpp:156] Memory required for data: 67618360
I0913 21:06:23.703063 14047 layer_factory.hpp:77] Creating layer fc6
I0913 21:06:23.703090 14047 net.cpp:91] Creating Layer fc6
I0913 21:06:23.703095 14047 net.cpp:425] fc6 <- pool5
I0913 21:06:23.703102 14047 net.cpp:399] fc6 -> fc6
I0913 21:06:23.804896 14047 net.cpp:141] Setting up fc6
I0913 21:06:23.804946 14047 net.cpp:148] Top shape: 10 4096 (40960)
I0913 21:06:23.804951 14047 net.cpp:156] Memory required for data: 67782200
I0913 21:06:23.804966 14047 layer_factory.hpp:77] Creating layer relu6
I0913 21:06:23.804985 14047 net.cpp:91] Creating Layer relu6
I0913 21:06:23.804991 14047 net.cpp:425] relu6 <- fc6
I0913 21:06:23.805002 14047 net.cpp:386] relu6 -> fc6 (in-place)
I0913 21:06:23.805321 14047 net.cpp:141] Setting up relu6
I0913 21:06:23.805332 14047 net.cpp:148] Top shape: 10 4096 (40960)
I0913 21:06:23.805337 14047 net.cpp:156] Memory required for data: 67946040
I0913 21:06:23.805341 14047 layer_factory.hpp:77] Creating layer drop6
I0913 21:06:23.805351 14047 net.cpp:91] Creating Layer drop6
I0913 21:06:23.805356 14047 net.cpp:425] drop6 <- fc6
I0913 21:06:23.805366 14047 net.cpp:386] drop6 -> fc6 (in-place)
I0913 21:06:23.805415 14047 net.cpp:141] Setting up drop6
I0913 21:06:23.805424 14047 net.cpp:148] Top shape: 10 4096 (40960)
I0913 21:06:23.805428 14047 net.cpp:156] Memory required for data: 68109880
I0913 21:06:23.805433 14047 layer_factory.hpp:77] Creating layer fc7
I0913 21:06:23.805443 14047 net.cpp:91] Creating Layer fc7
I0913 21:06:23.805447 14047 net.cpp:425] fc7 <- fc6
I0913 21:06:23.805459 14047 net.cpp:399] fc7 -> fc7
I0913 21:06:23.844761 14037 upgrade_proto.cpp:66] Attempting to upgrade input file specified using deprecated input fields: /home/peifeng/work/run/storm102/data/workers/c35e6a57-bee3-4006-b186-a1251ae5127a/tmp/cvld2549614463368891675/s2vt.words_to_preds.prototxt
I0913 21:06:23.844826 14037 upgrade_proto.cpp:69] Successfully upgraded file specified using deprecated input fields.
W0913 21:06:23.844835 14037 upgrade_proto.cpp:71] Note that future Caffe releases will only support input layers and not input fields.
I0913 21:06:23.845105 14037 net.cpp:49] Initializing net from parameters: 
name: "s2vt:features_to_lstm"
state {
  phase: TEST
}
layer {
  name: "input"
  type: "Input"
  top: "frames_fc7"
  top: "cont_sentence"
  top: "input_sentence"
  top: "stage_indicator"
  input_param {
    shape {
      dim: 1
      dim: 4096
    }
    shape {
      dim: 1
      dim: 1
    }
    shape {
      dim: 1
      dim: 1
    }
    shape {
      dim: 1
      dim: 1
    }
  }
}
layer {
  name: "embed_encoder"
  type: "InnerProduct"
  bottom: "frames_fc7"
  top: "embedded_in_frames"
  param {
    lr_mult: 1
    decay_mult: 1
  }
  param {
    lr_mult: 2
    decay_mult: 0
  }
  inner_product_param {
    num_output: 500
    weight_filler {
      type: "xavier"
    }
    bias_filler {
      type: "constant"
      value: 0.2
    }
  }
}
layer {
  name: "reshape_frames"
  type: "Reshape"
  bottom: "embedded_in_frames"
  top: "embedded_input_frames"
  reshape_param {
    shape {
      dim: 1
      dim: 1
      dim: 500
    }
  }
}
layer {
  name: "reshape_stage_indicator"
  type: "Reshape"
  bottom: "stage_indicator"
  top: "reshaped_stage_indicator"
  reshape_param {
    shape {
      dim: 1
      dim: 1
      dim: 1
    }
  }
}
layer {
  name: "embedding"
  type: "Embed"
  bottom: "input_sentence"
  top: "embedded_input_sentence"
  param {
    lr_mult: 1
  }
  embed_param {
    num_output: 500
    input_dim: 46168
    bias_term: false
    weight_filler {
      type: "uniform"
      min: -0.08
      max: 0.08
    }
  }
}
layer {
  name: "lstm1"
  type: "LSTM"
  bottom: "embedded_input_frames"
  bottom: "cont_sentence"
  top: "lstm1"
  recurrent_param {
    num_output: 1000
    weight_filler {
      type: "uniform"
      min: -0.08
      max: 0.08
    }
    bias_filler {
      type: "constant"
      value: 0
    }
  }
}
layer {
  name: "concat"
  type: "Concat"
  bottom: "lstm1"
  bottom: "embedded_input_sentence"
  bottom: "reshaped_stage_indicator"
  top: "lstm1_video_sequence"
  concat_param {
    concat_dim: 2
  }
}
layer {
  name: "lstm2"
  type: "LSTM"
  bottom: "lstm1_video_sequence"
  bottom: "cont_sentence"
  top: "lstm2"
  recurrent_param {
    num_output: 1000
    weight_filler {
      type: "uniform"
      min: -0.08
      max: 0.08
    }
    bias_filler {
      type: "constant"
      value: 0
    }
  }
}
layer {
  name: "predict"
  type: "InnerProduct"
  bottom: "lstm2"
  top: "predict"
  param {
    lr_mult: 1
    decay_mult: 1
  }
  param {
    lr_mult: 2
    decay_mult: 0
  }
  inner_product_param {
    num_output: 46168
    weight_filler {
      type: "uniform"
      min: -0.08
      max: 0.08
    }
    bias_filler {
      type: "constant"
      value: 0
    }
    axis: 2
  }
}
layer {
  name: "probs"
  type: "Softmax"
  bottom: "predict"
  top: "probs"
  softmax_param {
    axis: 2
  }
}
I0913 21:06:23.845207 14037 layer_factory.hpp:77] Creating layer input
I0913 21:06:23.845223 14037 net.cpp:91] Creating Layer input
I0913 21:06:23.845232 14037 net.cpp:399] input -> frames_fc7
I0913 21:06:23.845252 14037 net.cpp:399] input -> cont_sentence
I0913 21:06:23.845263 14037 net.cpp:399] input -> input_sentence
I0913 21:06:23.845273 14037 net.cpp:399] input -> stage_indicator
I0913 21:06:23.845420 14037 net.cpp:141] Setting up input
I0913 21:06:23.845433 14037 net.cpp:148] Top shape: 1 4096 (4096)
I0913 21:06:23.845439 14037 net.cpp:148] Top shape: 1 1 (1)
I0913 21:06:23.845444 14037 net.cpp:148] Top shape: 1 1 (1)
I0913 21:06:23.845449 14037 net.cpp:148] Top shape: 1 1 (1)
I0913 21:06:23.845453 14037 net.cpp:156] Memory required for data: 16396
I0913 21:06:23.845459 14037 layer_factory.hpp:77] Creating layer cont_sentence_input_1_split
I0913 21:06:23.845480 14037 net.cpp:91] Creating Layer cont_sentence_input_1_split
I0913 21:06:23.845487 14037 net.cpp:425] cont_sentence_input_1_split <- cont_sentence
I0913 21:06:23.845510 14037 net.cpp:399] cont_sentence_input_1_split -> cont_sentence_input_1_split_0
I0913 21:06:23.845520 14037 net.cpp:399] cont_sentence_input_1_split -> cont_sentence_input_1_split_1
I0913 21:06:23.845569 14037 net.cpp:141] Setting up cont_sentence_input_1_split
I0913 21:06:23.845582 14037 net.cpp:148] Top shape: 1 1 (1)
I0913 21:06:23.845587 14037 net.cpp:148] Top shape: 1 1 (1)
I0913 21:06:23.845592 14037 net.cpp:156] Memory required for data: 16404
I0913 21:06:23.845595 14037 layer_factory.hpp:77] Creating layer embed_encoder
I0913 21:06:23.845605 14037 net.cpp:91] Creating Layer embed_encoder
I0913 21:06:23.845610 14037 net.cpp:425] embed_encoder <- frames_fc7
I0913 21:06:23.845619 14037 net.cpp:399] embed_encoder -> embedded_in_frames
I0913 21:06:23.851202 14047 net.cpp:141] Setting up fc7
I0913 21:06:23.851248 14047 net.cpp:148] Top shape: 10 4096 (40960)
I0913 21:06:23.851254 14047 net.cpp:156] Memory required for data: 68273720
I0913 21:06:23.851269 14047 layer_factory.hpp:77] Creating layer relu7
I0913 21:06:23.851290 14047 net.cpp:91] Creating Layer relu7
I0913 21:06:23.851299 14047 net.cpp:425] relu7 <- fc7
I0913 21:06:23.851310 14047 net.cpp:386] relu7 -> fc7 (in-place)
I0913 21:06:23.851936 14047 net.cpp:141] Setting up relu7
I0913 21:06:23.851949 14047 net.cpp:148] Top shape: 10 4096 (40960)
I0913 21:06:23.851954 14047 net.cpp:156] Memory required for data: 68437560
I0913 21:06:23.851959 14047 layer_factory.hpp:77] Creating layer drop7
I0913 21:06:23.851970 14047 net.cpp:91] Creating Layer drop7
I0913 21:06:23.851975 14047 net.cpp:425] drop7 <- fc7
I0913 21:06:23.851985 14047 net.cpp:386] drop7 -> fc7 (in-place)
I0913 21:06:23.852022 14047 net.cpp:141] Setting up drop7
I0913 21:06:23.852031 14047 net.cpp:148] Top shape: 10 4096 (40960)
I0913 21:06:23.852035 14047 net.cpp:156] Memory required for data: 68601400
I0913 21:06:23.852040 14047 layer_factory.hpp:77] Creating layer fc8
I0913 21:06:23.852053 14047 net.cpp:91] Creating Layer fc8
I0913 21:06:23.852058 14047 net.cpp:425] fc8 <- fc7
I0913 21:06:23.852066 14047 net.cpp:399] fc8 -> fc8
I0913 21:06:23.863637 14047 net.cpp:141] Setting up fc8
I0913 21:06:23.863682 14047 net.cpp:148] Top shape: 10 1000 (10000)
I0913 21:06:23.863687 14047 net.cpp:156] Memory required for data: 68641400
I0913 21:06:23.863703 14047 layer_factory.hpp:77] Creating layer prob
I0913 21:06:23.863720 14047 net.cpp:91] Creating Layer prob
I0913 21:06:23.863726 14047 net.cpp:425] prob <- fc8
I0913 21:06:23.863736 14047 net.cpp:399] prob -> prob
I0913 21:06:23.864164 14047 net.cpp:141] Setting up prob
I0913 21:06:23.864176 14047 net.cpp:148] Top shape: 10 1000 (10000)
I0913 21:06:23.864181 14047 net.cpp:156] Memory required for data: 68681400
I0913 21:06:23.864187 14047 net.cpp:219] prob does not need backward computation.
I0913 21:06:23.864192 14047 net.cpp:219] fc8 does not need backward computation.
I0913 21:06:23.864197 14047 net.cpp:219] drop7 does not need backward computation.
I0913 21:06:23.864200 14047 net.cpp:219] relu7 does not need backward computation.
…
I0913 21:06:23.864269 14047 net.cpp:219] norm1 does not need backward computation.
I0913 21:06:23.864274 14047 net.cpp:219] pool1 does not need backward computation.
I0913 21:06:23.864277 14047 net.cpp:219] relu1 does not need backward computation.
I0913 21:06:23.864281 14047 net.cpp:219] conv1 does not need backward computation.
I0913 21:06:23.864285 14047 net.cpp:219] data does not need backward computation.
I0913 21:06:23.864289 14047 net.cpp:261] This network produces output prob
I0913 21:06:23.864310 14047 net.cpp:274] Network initialization done.
I0913 21:06:23.866137 14037 net.cpp:141] Setting up embed_encoder
I0913 21:06:23.866155 14037 net.cpp:148] Top shape: 1 500 (500)
I0913 21:06:23.866160 14037 net.cpp:156] Memory required for data: 18404
I0913 21:06:23.866178 14037 layer_factory.hpp:77] Creating layer reshape_frames
I0913 21:06:23.866200 14037 net.cpp:91] Creating Layer reshape_frames
I0913 21:06:23.866206 14037 net.cpp:425] reshape_frames <- embedded_in_frames
I0913 21:06:23.866216 14037 net.cpp:399] reshape_frames -> embedded_input_frames
I0913 21:06:23.866264 14037 net.cpp:141] Setting up reshape_frames
I0913 21:06:23.866273 14037 net.cpp:148] Top shape: 1 1 500 (500)
I0913 21:06:23.866278 14037 net.cpp:156] Memory required for data: 20404
I0913 21:06:23.866282 14037 layer_factory.hpp:77] Creating layer reshape_stage_indicator
I0913 21:06:23.866294 14037 net.cpp:91] Creating Layer reshape_stage_indicator
I0913 21:06:23.866299 14037 net.cpp:425] reshape_stage_indicator <- stage_indicator
I0913 21:06:23.866307 14037 net.cpp:399] reshape_stage_indicator -> reshaped_stage_indicator
I0913 21:06:23.866343 14037 net.cpp:141] Setting up reshape_stage_indicator
I0913 21:06:23.866353 14037 net.cpp:148] Top shape: 1 1 1 (1)
I0913 21:06:23.866356 14037 net.cpp:156] Memory required for data: 20408
I0913 21:06:23.866361 14037 layer_factory.hpp:77] Creating layer embedding
I0913 21:06:23.866372 14037 net.cpp:91] Creating Layer embedding
I0913 21:06:23.866376 14037 net.cpp:425] embedding <- input_sentence
I0913 21:06:23.866385 14037 net.cpp:399] embedding -> embedded_input_sentence
I0913 21:06:24.094239 14037 net.cpp:141] Setting up embedding
I0913 21:06:24.094307 14037 net.cpp:148] Top shape: 1 1 500 (500)
I0913 21:06:24.094315 14037 net.cpp:156] Memory required for data: 22408
I0913 21:06:24.094331 14037 layer_factory.hpp:77] Creating layer lstm1
I0913 21:06:24.094353 14037 net.cpp:91] Creating Layer lstm1
I0913 21:06:24.094362 14037 net.cpp:425] lstm1 <- embedded_input_frames
I0913 21:06:24.094372 14037 net.cpp:425] lstm1 <- cont_sentence_input_1_split_0
I0913 21:06:24.094380 14037 net.cpp:399] lstm1 -> lstm1
I0913 21:06:24.094408 14037 recurrent_layer.cpp:20] Initializing recurrent layer: assuming input batch contains 1 timesteps of 1 independent streams.
I0913 21:06:24.094786 14037 net.cpp:49] Initializing net from parameters: 
layer {
  name: "lstm1_"
  type: "Input"
  top: "x"
  top: "cont"
  input_param {
    shape {
      dim: 1
      dim: 1
      dim: 500
    }
    shape {
      dim: 1
      dim: 1
    }
  }
}
layer {
  name: "lstm1_"
  type: "Input"
  top: "c_0"
  top: "h_0"
  input_param {
    shape {
      dim: 1
      dim: 1
      dim: 1000
    }
    shape {
      dim: 1
      dim: 1
      dim: 1000
    }
  }
}
layer {
  name: "lstm1_cont_slice"
  type: "Slice"
  bottom: "cont"
  top: "cont_1"
  slice_param {
    axis: 0
  }
}
layer {
  name: "lstm1_x_transform"
  type: "InnerProduct"
  bottom: "x"
  top: "W_xc_x"
  param {
    name: "W_xc"
  }
  param {
    name: "b_c"
  }
  propagate_down: true
  inner_product_param {
    num_output: 4000
    bias_term: true
    weight_filler {
      type: "uniform"
      min: -0.08
      max: 0.08
    }
    bias_filler {
      type: "constant"
      value: 0
    }
    axis: 2
  }
}
layer {
  name: "lstm1_W_xc_x_slice"
  type: "Slice"
  bottom: "W_xc_x"
  top: "W_xc_x_1"
  slice_param {
    axis: 0
  }
}
layer {
  name: "lstm1_h_conted_0"
  type: "Scale"
  bottom: "h_0"
  bottom: "cont_1"
  top: "h_conted_0"
  scale_param {
    axis: 0
  }
}
layer {
  name: "lstm1_transform_1"
  type: "InnerProduct"
  bottom: "h_conted_0"
  top: "W_hc_h_0"
  param {
    name: "W_hc"
  }
  inner_product_param {
    num_output: 4000
    bias_term: false
    weight_filler {
      type: "uniform"
      min: -0.08
      max: 0.08
    }
    axis: 2
  }
}
layer {
  name: "lstm1_gate_input_1"
  type: "Eltwise"
  bottom: "W_hc_h_0"
  bottom: "W_xc_x_1"
  top: "gate_input_1"
  eltwise_param {
    operation: SUM
  }
}
layer {
  name: "lstm1_unit_1"
  type: "LSTMUnit"
  bottom: "c_0"
  bottom: "gate_input_1"
  bottom: "cont_1"
  top: "c_1"
  top: "h_1"
}
layer {
  name: "lstm1_"
  type: "Split"
  bottom: "c_1"
  top: "c_T"
}
layer {
  name: "lstm1_h_concat"
  type: "Concat"
  bottom: "h_1"
  top: "h"
  concat_param {
    axis: 0
  }
}
layer {
  name: "h_pseudoloss"
  type: "Reduction"
  bottom: "h"
  top: "h_pseudoloss"
  loss_weight: 1
}
I0913 21:06:24.094878 14037 layer_factory.hpp:77] Creating layer lstm1_
I0913 21:06:24.094892 14037 net.cpp:91] Creating Layer lstm1_
I0913 21:06:24.094897 14037 net.cpp:399] lstm1_ -> x
I0913 21:06:24.094909 14037 net.cpp:399] lstm1_ -> cont
I0913 21:06:24.094967 14037 net.cpp:141] Setting up lstm1_
I0913 21:06:24.094977 14037 net.cpp:148] Top shape: 1 1 500 (500)
I0913 21:06:24.094983 14037 net.cpp:148] Top shape: 1 1 (1)
I0913 21:06:24.094987 14037 net.cpp:156] Memory required for data: 2004
I0913 21:06:24.094992 14037 layer_factory.hpp:77] Creating layer lstm1_
I0913 21:06:24.095003 14037 net.cpp:91] Creating Layer lstm1_
I0913 21:06:24.095010 14037 net.cpp:399] lstm1_ -> c_0
I0913 21:06:24.095019 14037 net.cpp:399] lstm1_ -> h_0
I0913 21:06:24.095067 14037 net.cpp:141] Setting up lstm1_
I0913 21:06:24.095082 14037 net.cpp:148] Top shape: 1 1 1000 (1000)
I0913 21:06:24.095089 14037 net.cpp:148] Top shape: 1 1 1000 (1000)
I0913 21:06:24.095093 14037 net.cpp:156] Memory required for data: 10004
I0913 21:06:24.095098 14037 layer_factory.hpp:77] Creating layer lstm1_cont_slice
I0913 21:06:24.095106 14037 net.cpp:91] Creating Layer lstm1_cont_slice
I0913 21:06:24.095110 14037 net.cpp:425] lstm1_cont_slice <- cont
I0913 21:06:24.095120 14037 net.cpp:399] lstm1_cont_slice -> cont_1
I0913 21:06:24.095155 14037 net.cpp:141] Setting up lstm1_cont_slice
I0913 21:06:24.095165 14037 net.cpp:148] Top shape: 1 1 (1)
I0913 21:06:24.095170 14037 net.cpp:156] Memory required for data: 10008
I0913 21:06:24.095173 14037 layer_factory.hpp:77] Creating layer cont_1_lstm1_cont_slice_0_split
I0913 21:06:24.095185 14037 net.cpp:91] Creating Layer cont_1_lstm1_cont_slice_0_split
I0913 21:06:24.095191 14037 net.cpp:425] cont_1_lstm1_cont_slice_0_split <- cont_1
I0913 21:06:24.095196 14037 net.cpp:399] cont_1_lstm1_cont_slice_0_split -> cont_1_lstm1_cont_slice_0_split_0
I0913 21:06:24.095206 14037 net.cpp:399] cont_1_lstm1_cont_slice_0_split -> cont_1_lstm1_cont_slice_0_split_1
I0913 21:06:24.095253 14037 net.cpp:141] Setting up cont_1_lstm1_cont_slice_0_split
I0913 21:06:24.095263 14037 net.cpp:148] Top shape: 1 1 (1)
I0913 21:06:24.095268 14037 net.cpp:148] Top shape: 1 1 (1)
I0913 21:06:24.095271 14037 net.cpp:156] Memory required for data: 10016
I0913 21:06:24.095275 14037 layer_factory.hpp:77] Creating layer lstm1_x_transform
I0913 21:06:24.095285 14037 net.cpp:91] Creating Layer lstm1_x_transform
I0913 21:06:24.095290 14037 net.cpp:425] lstm1_x_transform <- x
I0913 21:06:24.095299 14037 net.cpp:399] lstm1_x_transform -> W_xc_x
I0913 21:06:24.114861 14037 net.cpp:141] Setting up lstm1_x_transform
I0913 21:06:24.114910 14037 net.cpp:148] Top shape: 1 1 4000 (4000)
I0913 21:06:24.114917 14037 net.cpp:156] Memory required for data: 26016
I0913 21:06:24.114939 14037 layer_factory.hpp:77] Creating layer lstm1_W_xc_x_slice
I0913 21:06:24.114956 14037 net.cpp:91] Creating Layer lstm1_W_xc_x_slice
I0913 21:06:24.114964 14037 net.cpp:425] lstm1_W_xc_x_slice <- W_xc_x
I0913 21:06:24.114972 14037 net.cpp:399] lstm1_W_xc_x_slice -> W_xc_x_1
I0913 21:06:24.115020 14037 net.cpp:141] Setting up lstm1_W_xc_x_slice
I0913 21:06:24.115031 14037 net.cpp:148] Top shape: 1 1 4000 (4000)
I0913 21:06:24.115036 14037 net.cpp:156] Memory required for data: 42016
I0913 21:06:24.115039 14037 layer_factory.hpp:77] Creating layer lstm1_h_conted_0
I0913 21:06:24.115049 14037 net.cpp:91] Creating Layer lstm1_h_conted_0
I0913 21:06:24.115054 14037 net.cpp:425] lstm1_h_conted_0 <- h_0
I0913 21:06:24.115061 14037 net.cpp:425] lstm1_h_conted_0 <- cont_1_lstm1_cont_slice_0_split_0
I0913 21:06:24.115067 14037 net.cpp:399] lstm1_h_conted_0 -> h_conted_0
I0913 21:06:24.115160 14037 net.cpp:141] Setting up lstm1_h_conted_0
I0913 21:06:24.115170 14037 net.cpp:148] Top shape: 1 1 1000 (1000)
I0913 21:06:24.115175 14037 net.cpp:156] Memory required for data: 46016
I0913 21:06:24.115178 14037 layer_factory.hpp:77] Creating layer lstm1_transform_1
I0913 21:06:24.115191 14037 net.cpp:91] Creating Layer lstm1_transform_1
I0913 21:06:24.115196 14037 net.cpp:425] lstm1_transform_1 <- h_conted_0
I0913 21:06:24.115203 14037 net.cpp:399] lstm1_transform_1 -> W_hc_h_0
I0913 21:06:24.125268 14047 upgrade_proto.cpp:43] Attempting to upgrade input file specified using deprecated transformation parameters: /home/peifeng/work/run/storm102/data/workers/c35e6a57-bee3-4006-b186-a1251ae5127a/tmp/cvld2549614463368891675/bvlc_reference_caffenet.caffemodel
I0913 21:06:24.125314 14047 upgrade_proto.cpp:46] Successfully upgraded file specified using deprecated data transformation parameters.
W0913 21:06:24.125320 14047 upgrade_proto.cpp:48] Note that future Caffe releases will only support transform_param messages for transformation fields.
I0913 21:06:24.125324 14047 upgrade_proto.cpp:52] Attempting to upgrade input file specified using deprecated V1LayerParameter: /home/peifeng/work/run/storm102/data/workers/c35e6a57-bee3-4006-b186-a1251ae5127a/tmp/cvld2549614463368891675/bvlc_reference_caffenet.caffemodel
I0913 21:06:24.155315 14037 net.cpp:141] Setting up lstm1_transform_1
I0913 21:06:24.155382 14037 net.cpp:148] Top shape: 1 1 4000 (4000)
I0913 21:06:24.155388 14037 net.cpp:156] Memory required for data: 62016
I0913 21:06:24.155410 14037 layer_factory.hpp:77] Creating layer lstm1_gate_input_1
I0913 21:06:24.155431 14037 net.cpp:91] Creating Layer lstm1_gate_input_1
I0913 21:06:24.155438 14037 net.cpp:425] lstm1_gate_input_1 <- W_hc_h_0
I0913 21:06:24.155447 14037 net.cpp:425] lstm1_gate_input_1 <- W_xc_x_1
I0913 21:06:24.155453 14037 net.cpp:399] lstm1_gate_input_1 -> gate_input_1
I0913 21:06:24.155509 14037 net.cpp:141] Setting up lstm1_gate_input_1
I0913 21:06:24.155519 14037 net.cpp:148] Top shape: 1 1 4000 (4000)
I0913 21:06:24.155524 14037 net.cpp:156] Memory required for data: 78016
I0913 21:06:24.155527 14037 layer_factory.hpp:77] Creating layer lstm1_unit_1
I0913 21:06:24.155539 14037 net.cpp:91] Creating Layer lstm1_unit_1
I0913 21:06:24.155544 14037 net.cpp:425] lstm1_unit_1 <- c_0
I0913 21:06:24.155550 14037 net.cpp:425] lstm1_unit_1 <- gate_input_1
I0913 21:06:24.155555 14037 net.cpp:425] lstm1_unit_1 <- cont_1_lstm1_cont_slice_0_split_1
I0913 21:06:24.155560 14037 net.cpp:399] lstm1_unit_1 -> c_1
I0913 21:06:24.155568 14037 net.cpp:399] lstm1_unit_1 -> h_1
I0913 21:06:24.155630 14037 net.cpp:141] Setting up lstm1_unit_1
I0913 21:06:24.155639 14037 net.cpp:148] Top shape: 1 1 1000 (1000)
I0913 21:06:24.155644 14037 net.cpp:148] Top shape: 1 1 1000 (1000)
I0913 21:06:24.155648 14037 net.cpp:156] Memory required for data: 86016
I0913 21:06:24.155653 14037 layer_factory.hpp:77] Creating layer lstm1_
I0913 21:06:24.155661 14037 net.cpp:91] Creating Layer lstm1_
I0913 21:06:24.155665 14037 net.cpp:425] lstm1_ <- c_1
I0913 21:06:24.155671 14037 net.cpp:399] lstm1_ -> c_T
I0913 21:06:24.155712 14037 net.cpp:141] Setting up lstm1_
I0913 21:06:24.155720 14037 net.cpp:148] Top shape: 1 1 1000 (1000)
I0913 21:06:24.155725 14037 net.cpp:156] Memory required for data: 90016
I0913 21:06:24.155728 14037 layer_factory.hpp:77] Creating layer lstm1_h_concat
I0913 21:06:24.155740 14037 net.cpp:91] Creating Layer lstm1_h_concat
I0913 21:06:24.155745 14037 net.cpp:425] lstm1_h_concat <- h_1
I0913 21:06:24.155751 14037 net.cpp:399] lstm1_h_concat -> h
I0913 21:06:24.155802 14037 net.cpp:141] Setting up lstm1_h_concat
I0913 21:06:24.155812 14037 net.cpp:148] Top shape: 1 1 1000 (1000)
I0913 21:06:24.155814 14037 net.cpp:156] Memory required for data: 94016
I0913 21:06:24.155819 14037 layer_factory.hpp:77] Creating layer h_pseudoloss
I0913 21:06:24.155836 14037 net.cpp:91] Creating Layer h_pseudoloss
I0913 21:06:24.155840 14037 net.cpp:425] h_pseudoloss <- h
I0913 21:06:24.155849 14037 net.cpp:399] h_pseudoloss -> h_pseudoloss
I0913 21:06:24.155931 14037 net.cpp:141] Setting up h_pseudoloss
…
