…
Java HotSpot(TM) 64-Bit Server VM warning: You have loaded library /tmp/cvld5769114590077131214/libopencv_java310.xine1.so which might have disabled stack guard. The VM will try to fix the stack guard now.
It's highly recommended that you fix the library with 'execstack -c <libfile>', or link it with '-z noexecstack'.
WARNING: Logging before InitGoogleLogging() is written to STDERR
I0731 22:05:17.681869  5130 net.cpp:49] Initializing net from parameters: 
name: "CaffeNet"
state {
  phase: TEST
}
layer {
  name: "data"
  type: "Input"
  top: "data"
  input_param {
    shape {
      dim: 10
      dim: 3
      dim: 227
      dim: 227
    }
  }
}
layer {
  name: "conv1"
  type: "Convolution"
  bottom: "data"
  top: "conv1"
  convolution_param {
    num_output: 96
    kernel_size: 11
    stride: 4
  }
}
layer {
  name: "relu1"
  type: "ReLU"
  bottom: "conv1"
  top: "conv1"
}
layer {
  name: "pool1"
  type: "Pooling"
  bottom: "conv1"
  top: "pool1"
  pooling_param {
    pool: MAX
    kernel_size: 3
    stride: 2
  }
}
layer {
  name: "norm1"
  type: "LRN"
  bottom: "pool1"
  top: "norm1"
  lrn_param {
    local_size: 5
    alpha: 0.0001
    beta: 0.75
  }
}
layer {
  name: "conv2"
  type: "Convolution"
  bottom: "norm1"
  top: "conv2"
  convolution_param {
    num_output: 256
    pad: 2
    kernel_size: 5
    group: 2
  }
}
layer {
  name: "relu2"
  type: "ReLU"
  bottom: "conv2"
  top: "conv2"
}
layer {
  name: "pool2"
  type: "Pooling"
  bottom: "conv2"
  top: "pool2"
  pooling_param {
    pool: MAX
    kernel_size: 3
    stride: 2
  }
}
layer {
  name: "norm2"
  type: "LRN"
  bottom: "pool2"
  top: "norm2"
  lrn_param {
    local_size: 5
    alpha: 0.0001
    beta: 0.75
  }
}
layer {
  name: "conv3"
  type: "Convolution"
  bottom: "norm2"
  top: "conv3"
  convolution_param {
    num_output: 384
    pad: 1
    kernel_size: 3
  }
}
layer {
  name: "relu3"
  type: "ReLU"
  bottom: "conv3"
  top: "conv3"
}
layer {
  name: "conv4"
  type: "Convolution"
  bottom: "conv3"
  top: "conv4"
  convolution_param {
    num_output: 384
    pad: 1
    kernel_size: 3
    group: 2
  }
}
layer {
  name: "relu4"
  type: "ReLU"
  bottom: "conv4"
  top: "conv4"
}
layer {
  name: "conv5"
  type: "Convolution"
  bottom: "conv4"
  top: "conv5"
  convolution_param {
    num_output: 256
    pad: 1
    kernel_size: 3
    group: 2
  }
}
layer {
  name: "relu5"
  type: "ReLU"
  bottom: "conv5"
  top: "conv5"
}
layer {
  name: "pool5"
  type: "Pooling"
  bottom: "conv5"
  top: "pool5"
  pooling_param {
    pool: MAX
    kernel_size: 3
    stride: 2
  }
}
layer {
  name: "fc6"
  type: "InnerProduct"
  bottom: "pool5"
  top: "fc6"
  inner_product_param {
    num_output: 4096
  }
}
layer {
  name: "relu6"
  type: "ReLU"
  bottom: "fc6"
  top: "fc6"
}
layer {
  name: "drop6"
  type: "Dropout"
  bottom: "fc6"
  top: "fc6"
  dropout_param {
    dropout_ratio: 0.5
  }
}
layer {
  name: "fc7"
  type: "InnerProduct"
  bottom: "fc6"
  top: "fc7"
  inner_product_param {
    num_output: 4096
  }
}
layer {
  name: "relu7"
  type: "ReLU"
  bottom: "fc7"
  top: "fc7"
}
layer {
  name: "drop7"
  type: "Dropout"
  bottom: "fc7"
  top: "fc7"
  dropout_param {
    dropout_ratio: 0.5
  }
}
layer {
  name: "fc8"
  type: "InnerProduct"
  bottom: "fc7"
  top: "fc8"
  inner_product_param {
    num_output: 1000
  }
}
layer {
  name: "prob"
  type: "Softmax"
  bottom: "fc8"
  top: "prob"
}
I0731 22:05:17.682060  5130 layer_factory.hpp:77] Creating layer data
I0731 22:05:17.682083  5130 net.cpp:91] Creating Layer data
I0731 22:05:17.682093  5130 net.cpp:399] data -> data
I0731 22:05:18.170284  5130 net.cpp:141] Setting up data
I0731 22:05:18.170399  5130 net.cpp:148] Top shape: 10 3 227 227 (1545870)
I0731 22:05:18.170406  5130 net.cpp:156] Memory required for data: 6183480
I0731 22:05:18.170428  5130 layer_factory.hpp:77] Creating layer conv1
I0731 22:05:18.170459  5130 net.cpp:91] Creating Layer conv1
I0731 22:05:18.170469  5130 net.cpp:425] conv1 <- data
I0731 22:05:18.170482  5130 net.cpp:399] conv1 -> conv1
I0731 22:05:18.206903  5120 upgrade_proto.cpp:66] Attempting to upgrade input file specified using deprecated input fields: /tmp/cvld5769114590077131214/s2vt.words_to_preds.prototxt
I0731 22:05:18.206959  5120 upgrade_proto.cpp:69] Successfully upgraded file specified using deprecated input fields.
W0731 22:05:18.206967  5120 upgrade_proto.cpp:71] Note that future Caffe releases will only support input layers and not input fields.
I0731 22:05:18.207238  5120 net.cpp:49] Initializing net from parameters: 
name: "s2vt:features_to_lstm"
state {
  phase: TEST
}
layer {
  name: "input"
  type: "Input"
  top: "frames_fc7"
  top: "cont_sentence"
  top: "input_sentence"
  top: "stage_indicator"
  input_param {
    shape {
      dim: 1
      dim: 4096
    }
    shape {
      dim: 1
      dim: 1
    }
    shape {
      dim: 1
      dim: 1
    }
    shape {
      dim: 1
      dim: 1
    }
  }
}
layer {
  name: "embed_encoder"
  type: "InnerProduct"
  bottom: "frames_fc7"
  top: "embedded_in_frames"
  param {
    lr_mult: 1
    decay_mult: 1
  }
  param {
    lr_mult: 2
    decay_mult: 0
  }
  inner_product_param {
    num_output: 500
    weight_filler {
      type: "xavier"
    }
    bias_filler {
      type: "constant"
      value: 0.2
    }
  }
}
layer {
  name: "reshape_frames"
  type: "Reshape"
  bottom: "embedded_in_frames"
  top: "embedded_input_frames"
  reshape_param {
    shape {
      dim: 1
      dim: 1
      dim: 500
    }
  }
}
layer {
  name: "reshape_stage_indicator"
  type: "Reshape"
  bottom: "stage_indicator"
  top: "reshaped_stage_indicator"
  reshape_param {
    shape {
      dim: 1
      dim: 1
      dim: 1
    }
  }
}
layer {
  name: "embedding"
  type: "Embed"
  bottom: "input_sentence"
  top: "embedded_input_sentence"
  param {
    lr_mult: 1
  }
  embed_param {
    num_output: 500
    input_dim: 46168
    bias_term: false
    weight_filler {
      type: "uniform"
      min: -0.08
      max: 0.08
    }
  }
}
layer {
  name: "lstm1"
  type: "LSTM"
  bottom: "embedded_input_frames"
  bottom: "cont_sentence"
  top: "lstm1"
  recurrent_param {
    num_output: 1000
    weight_filler {
      type: "uniform"
      min: -0.08
      max: 0.08
    }
    bias_filler {
      type: "constant"
      value: 0
    }
  }
}
layer {
  name: "concat"
  type: "Concat"
  bottom: "lstm1"
  bottom: "embedded_input_sentence"
  bottom: "reshaped_stage_indicator"
  top: "lstm1_video_sequence"
  concat_param {
    concat_dim: 2
  }
}
layer {
  name: "lstm2"
  type: "LSTM"
  bottom: "lstm1_video_sequence"
  bottom: "cont_sentence"
  top: "lstm2"
  recurrent_param {
    num_output: 1000
    weight_filler {
      type: "uniform"
      min: -0.08
      max: 0.08
    }
    bias_filler {
      type: "constant"
      value: 0
    }
  }
}
layer {
  name: "predict"
  type: "InnerProduct"
  bottom: "lstm2"
  top: "predict"
  param {
    lr_mult: 1
    decay_mult: 1
  }
  param {
    lr_mult: 2
    decay_mult: 0
  }
  inner_product_param {
    num_output: 46168
    weight_filler {
      type: "uniform"
      min: -0.08
      max: 0.08
    }
    bias_filler {
      type: "constant"
      value: 0
    }
    axis: 2
  }
}
layer {
  name: "probs"
  type: "Softmax"
  bottom: "predict"
  top: "probs"
  softmax_param {
    axis: 2
  }
}
I0731 22:05:18.207337  5120 layer_factory.hpp:77] Creating layer input
I0731 22:05:18.207355  5120 net.cpp:91] Creating Layer input
I0731 22:05:18.207362  5120 net.cpp:399] input -> frames_fc7
I0731 22:05:18.207382  5120 net.cpp:399] input -> cont_sentence
I0731 22:05:18.207392  5120 net.cpp:399] input -> input_sentence
I0731 22:05:18.207401  5120 net.cpp:399] input -> stage_indicator
I0731 22:05:18.207659  5120 net.cpp:141] Setting up input
I0731 22:05:18.207674  5120 net.cpp:148] Top shape: 1 4096 (4096)
I0731 22:05:18.207679  5120 net.cpp:148] Top shape: 1 1 (1)
I0731 22:05:18.207684  5120 net.cpp:148] Top shape: 1 1 (1)
I0731 22:05:18.207690  5120 net.cpp:148] Top shape: 1 1 (1)
I0731 22:05:18.207695  5120 net.cpp:156] Memory required for data: 16396
I0731 22:05:18.207700  5120 layer_factory.hpp:77] Creating layer cont_sentence_input_1_split
I0731 22:05:18.207718  5120 net.cpp:91] Creating Layer cont_sentence_input_1_split
I0731 22:05:18.207723  5120 net.cpp:425] cont_sentence_input_1_split <- cont_sentence
I0731 22:05:18.207744  5120 net.cpp:399] cont_sentence_input_1_split -> cont_sentence_input_1_split_0
I0731 22:05:18.207754  5120 net.cpp:399] cont_sentence_input_1_split -> cont_sentence_input_1_split_1
I0731 22:05:18.209697  5120 net.cpp:141] Setting up cont_sentence_input_1_split
I0731 22:05:18.209720  5120 net.cpp:148] Top shape: 1 1 (1)
I0731 22:05:18.209733  5120 net.cpp:148] Top shape: 1 1 (1)
I0731 22:05:18.209740  5120 net.cpp:156] Memory required for data: 16404
I0731 22:05:18.209749  5120 layer_factory.hpp:77] Creating layer embed_encoder
I0731 22:05:18.209769  5120 net.cpp:91] Creating Layer embed_encoder
I0731 22:05:18.209779  5120 net.cpp:425] embed_encoder <- frames_fc7
I0731 22:05:18.209794  5120 net.cpp:399] embed_encoder -> embedded_in_frames
I0731 22:05:18.236845  5120 net.cpp:141] Setting up embed_encoder
I0731 22:05:18.236891  5120 net.cpp:148] Top shape: 1 500 (500)
I0731 22:05:18.236897  5120 net.cpp:156] Memory required for data: 18404
I0731 22:05:18.236928  5120 layer_factory.hpp:77] Creating layer reshape_frames
I0731 22:05:18.236958  5120 net.cpp:91] Creating Layer reshape_frames
I0731 22:05:18.236965  5120 net.cpp:425] reshape_frames <- embedded_in_frames
I0731 22:05:18.236979  5120 net.cpp:399] reshape_frames -> embedded_input_frames
I0731 22:05:18.237036  5120 net.cpp:141] Setting up reshape_frames
I0731 22:05:18.237046  5120 net.cpp:148] Top shape: 1 1 500 (500)
I0731 22:05:18.237051  5120 net.cpp:156] Memory required for data: 20404
I0731 22:05:18.237056  5120 layer_factory.hpp:77] Creating layer reshape_stage_indicator
I0731 22:05:18.237066  5120 net.cpp:91] Creating Layer reshape_stage_indicator
I0731 22:05:18.237071  5120 net.cpp:425] reshape_stage_indicator <- stage_indicator
I0731 22:05:18.237083  5120 net.cpp:399] reshape_stage_indicator -> reshaped_stage_indicator
I0731 22:05:18.237131  5120 net.cpp:141] Setting up reshape_stage_indicator
I0731 22:05:18.237141  5120 net.cpp:148] Top shape: 1 1 1 (1)
I0731 22:05:18.237145  5120 net.cpp:156] Memory required for data: 20408
I0731 22:05:18.237149  5120 layer_factory.hpp:77] Creating layer embedding
I0731 22:05:18.237161  5120 net.cpp:91] Creating Layer embedding
I0731 22:05:18.237166  5120 net.cpp:425] embedding <- input_sentence
I0731 22:05:18.237174  5120 net.cpp:399] embedding -> embedded_input_sentence
I0731 22:05:18.421690  5130 net.cpp:141] Setting up conv1
I0731 22:05:18.421741  5130 net.cpp:148] Top shape: 10 96 55 55 (2904000)
I0731 22:05:18.421746  5130 net.cpp:156] Memory required for data: 17799480
I0731 22:05:18.421771  5130 layer_factory.hpp:77] Creating layer relu1
I0731 22:05:18.421789  5130 net.cpp:91] Creating Layer relu1
I0731 22:05:18.421797  5130 net.cpp:425] relu1 <- conv1
I0731 22:05:18.421804  5130 net.cpp:386] relu1 -> conv1 (in-place)
I0731 22:05:18.422251  5130 net.cpp:141] Setting up relu1
I0731 22:05:18.422264  5130 net.cpp:148] Top shape: 10 96 55 55 (2904000)
I0731 22:05:18.422269  5130 net.cpp:156] Memory required for data: 29415480
I0731 22:05:18.422274  5130 layer_factory.hpp:77] Creating layer pool1
I0731 22:05:18.422286  5130 net.cpp:91] Creating Layer pool1
I0731 22:05:18.422292  5130 net.cpp:425] pool1 <- conv1
I0731 22:05:18.422299  5130 net.cpp:399] pool1 -> pool1
I0731 22:05:18.422368  5130 net.cpp:141] Setting up pool1
I0731 22:05:18.422377  5130 net.cpp:148] Top shape: 10 96 27 27 (699840)
I0731 22:05:18.422382  5130 net.cpp:156] Memory required for data: 32214840
I0731 22:05:18.422386  5130 layer_factory.hpp:77] Creating layer norm1
I0731 22:05:18.422404  5130 net.cpp:91] Creating Layer norm1
I0731 22:05:18.422408  5130 net.cpp:425] norm1 <- pool1
I0731 22:05:18.422415  5130 net.cpp:399] norm1 -> norm1
I0731 22:05:18.422885  5130 net.cpp:141] Setting up norm1
I0731 22:05:18.422899  5130 net.cpp:148] Top shape: 10 96 27 27 (699840)
I0731 22:05:18.422902  5130 net.cpp:156] Memory required for data: 35014200
I0731 22:05:18.422907  5130 layer_factory.hpp:77] Creating layer conv2
I0731 22:05:18.422924  5130 net.cpp:91] Creating Layer conv2
I0731 22:05:18.422929  5130 net.cpp:425] conv2 <- norm1
I0731 22:05:18.422935  5130 net.cpp:399] conv2 -> conv2
I0731 22:05:18.426198  5130 net.cpp:141] Setting up conv2
I0731 22:05:18.426216  5130 net.cpp:148] Top shape: 10 256 27 27 (1866240)
I0731 22:05:18.426221  5130 net.cpp:156] Memory required for data: 42479160
I0731 22:05:18.426232  5130 layer_factory.hpp:77] Creating layer relu2
I0731 22:05:18.426244  5130 net.cpp:91] Creating Layer relu2
I0731 22:05:18.426250  5130 net.cpp:425] relu2 <- conv2
I0731 22:05:18.426256  5130 net.cpp:386] relu2 -> conv2 (in-place)
I0731 22:05:18.426703  5130 net.cpp:141] Setting up relu2
I0731 22:05:18.426715  5130 net.cpp:148] Top shape: 10 256 27 27 (1866240)
I0731 22:05:18.426720  5130 net.cpp:156] Memory required for data: 49944120
I0731 22:05:18.426725  5130 layer_factory.hpp:77] Creating layer pool2
I0731 22:05:18.426736  5130 net.cpp:91] Creating Layer pool2
I0731 22:05:18.426741  5130 net.cpp:425] pool2 <- conv2
I0731 22:05:18.426750  5130 net.cpp:399] pool2 -> pool2
I0731 22:05:18.426802  5130 net.cpp:141] Setting up pool2
I0731 22:05:18.426811  5130 net.cpp:148] Top shape: 10 256 13 13 (432640)
I0731 22:05:18.426815  5130 net.cpp:156] Memory required for data: 51674680
I0731 22:05:18.426820  5130 layer_factory.hpp:77] Creating layer norm2
I0731 22:05:18.426831  5130 net.cpp:91] Creating Layer norm2
I0731 22:05:18.426836  5130 net.cpp:425] norm2 <- pool2
I0731 22:05:18.426841  5130 net.cpp:399] norm2 -> norm2
I0731 22:05:18.427090  5130 net.cpp:141] Setting up norm2
I0731 22:05:18.427101  5130 net.cpp:148] Top shape: 10 256 13 13 (432640)
I0731 22:05:18.427105  5130 net.cpp:156] Memory required for data: 53405240
I0731 22:05:18.427110  5130 layer_factory.hpp:77] Creating layer conv3
I0731 22:05:18.427121  5130 net.cpp:91] Creating Layer conv3
I0731 22:05:18.427126  5130 net.cpp:425] conv3 <- norm2
I0731 22:05:18.427134  5130 net.cpp:399] conv3 -> conv3
I0731 22:05:18.430805  5130 net.cpp:141] Setting up conv3
I0731 22:05:18.430825  5130 net.cpp:148] Top shape: 10 384 13 13 (648960)
I0731 22:05:18.430830  5130 net.cpp:156] Memory required for data: 56001080
I0731 22:05:18.430842  5130 layer_factory.hpp:77] Creating layer relu3
I0731 22:05:18.430855  5130 net.cpp:91] Creating Layer relu3
I0731 22:05:18.430860  5130 net.cpp:425] relu3 <- conv3
I0731 22:05:18.430867  5130 net.cpp:386] relu3 -> conv3 (in-place)
I0731 22:05:18.431309  5130 net.cpp:141] Setting up relu3
I0731 22:05:18.431321  5130 net.cpp:148] Top shape: 10 384 13 13 (648960)
I0731 22:05:18.431326  5130 net.cpp:156] Memory required for data: 58596920
I0731 22:05:18.431331  5130 layer_factory.hpp:77] Creating layer conv4
I0731 22:05:18.431344  5130 net.cpp:91] Creating Layer conv4
I0731 22:05:18.431349  5130 net.cpp:425] conv4 <- conv3
I0731 22:05:18.431359  5130 net.cpp:399] conv4 -> conv4
I0731 22:05:18.435370  5130 net.cpp:141] Setting up conv4
I0731 22:05:18.435391  5130 net.cpp:148] Top shape: 10 384 13 13 (648960)
I0731 22:05:18.435396  5130 net.cpp:156] Memory required for data: 61192760
I0731 22:05:18.435405  5130 layer_factory.hpp:77] Creating layer relu4
I0731 22:05:18.435413  5130 net.cpp:91] Creating Layer relu4
I0731 22:05:18.435418  5130 net.cpp:425] relu4 <- conv4
I0731 22:05:18.435425  5130 net.cpp:386] relu4 -> conv4 (in-place)
I0731 22:05:18.435864  5130 net.cpp:141] Setting up relu4
I0731 22:05:18.435876  5130 net.cpp:148] Top shape: 10 384 13 13 (648960)
I0731 22:05:18.435881  5130 net.cpp:156] Memory required for data: 63788600
I0731 22:05:18.435886  5130 layer_factory.hpp:77] Creating layer conv5
I0731 22:05:18.435897  5130 net.cpp:91] Creating Layer conv5
I0731 22:05:18.435902  5130 net.cpp:425] conv5 <- conv4
I0731 22:05:18.435914  5130 net.cpp:399] conv5 -> conv5
I0731 22:05:18.439759  5130 net.cpp:141] Setting up conv5
I0731 22:05:18.439777  5130 net.cpp:148] Top shape: 10 256 13 13 (432640)
I0731 22:05:18.439785  5130 net.cpp:156] Memory required for data: 65519160
I0731 22:05:18.439797  5130 layer_factory.hpp:77] Creating layer relu5
I0731 22:05:18.439806  5130 net.cpp:91] Creating Layer relu5
I0731 22:05:18.439810  5130 net.cpp:425] relu5 <- conv5
I0731 22:05:18.439816  5130 net.cpp:386] relu5 -> conv5 (in-place)
I0731 22:05:18.440279  5130 net.cpp:141] Setting up relu5
I0731 22:05:18.440292  5130 net.cpp:148] Top shape: 10 256 13 13 (432640)
I0731 22:05:18.440296  5130 net.cpp:156] Memory required for data: 67249720
I0731 22:05:18.440301  5130 layer_factory.hpp:77] Creating layer pool5
I0731 22:05:18.440312  5130 net.cpp:91] Creating Layer pool5
I0731 22:05:18.440317  5130 net.cpp:425] pool5 <- conv5
I0731 22:05:18.440327  5130 net.cpp:399] pool5 -> pool5
I0731 22:05:18.440385  5130 net.cpp:141] Setting up pool5
I0731 22:05:18.440394  5130 net.cpp:148] Top shape: 10 256 6 6 (92160)
I0731 22:05:18.440398  5130 net.cpp:156] Memory required for data: 67618360
I0731 22:05:18.440402  5130 layer_factory.hpp:77] Creating layer fc6
I0731 22:05:18.440419  5130 net.cpp:91] Creating Layer fc6
I0731 22:05:18.440424  5130 net.cpp:425] fc6 <- pool5
I0731 22:05:18.440433  5130 net.cpp:399] fc6 -> fc6
I0731 22:05:18.502686  5120 net.cpp:141] Setting up embedding
I0731 22:05:18.502738  5120 net.cpp:148] Top shape: 1 1 500 (500)
I0731 22:05:18.502744  5120 net.cpp:156] Memory required for data: 22408
I0731 22:05:18.502768  5120 layer_factory.hpp:77] Creating layer lstm1
I0731 22:05:18.502789  5120 net.cpp:91] Creating Layer lstm1
I0731 22:05:18.502797  5120 net.cpp:425] lstm1 <- embedded_input_frames
I0731 22:05:18.502806  5120 net.cpp:425] lstm1 <- cont_sentence_input_1_split_0
I0731 22:05:18.502818  5120 net.cpp:399] lstm1 -> lstm1
I0731 22:05:18.502848  5120 recurrent_layer.cpp:20] Initializing recurrent layer: assuming input batch contains 1 timesteps of 1 independent streams.
I0731 22:05:18.503226  5120 net.cpp:49] Initializing net from parameters: 
layer {
  name: "lstm1_"
  type: "Input"
  top: "x"
  top: "cont"
  input_param {
    shape {
      dim: 1
      dim: 1
      dim: 500
    }
    shape {
      dim: 1
      dim: 1
    }
  }
}
layer {
  name: "lstm1_"
  type: "Input"
  top: "c_0"
  top: "h_0"
  input_param {
    shape {
      dim: 1
      dim: 1
      dim: 1000
    }
    shape {
      dim: 1
      dim: 1
      dim: 1000
    }
  }
}
layer {
  name: "lstm1_cont_slice"
  type: "Slice"
  bottom: "cont"
  top: "cont_1"
  slice_param {
    axis: 0
  }
}
layer {
  name: "lstm1_x_transform"
  type: "InnerProduct"
  bottom: "x"
  top: "W_xc_x"
  param {
    name: "W_xc"
  }
  param {
    name: "b_c"
  }
  propagate_down: true
  inner_product_param {
    num_output: 4000
    bias_term: true
    weight_filler {
      type: "uniform"
      min: -0.08
      max: 0.08
    }
    bias_filler {
      type: "constant"
      value: 0
    }
    axis: 2
  }
}
layer {
  name: "lstm1_W_xc_x_slice"
  type: "Slice"
  bottom: "W_xc_x"
  top: "W_xc_x_1"
  slice_param {
    axis: 0
  }
}
layer {
  name: "lstm1_h_conted_0"
  type: "Scale"
  bottom: "h_0"
  bottom: "cont_1"
  top: "h_conted_0"
  scale_param {
    axis: 0
  }
}
layer {
  name: "lstm1_transform_1"
  type: "InnerProduct"
  bottom: "h_conted_0"
  top: "W_hc_h_0"
  param {
    name: "W_hc"
  }
  inner_product_param {
    num_output: 4000
    bias_term: false
    weight_filler {
      type: "uniform"
      min: -0.08
      max: 0.08
    }
    axis: 2
  }
}
layer {
  name: "lstm1_gate_input_1"
  type: "Eltwise"
  bottom: "W_hc_h_0"
  bottom: "W_xc_x_1"
  top: "gate_input_1"
  eltwise_param {
    operation: SUM
  }
}
layer {
  name: "lstm1_unit_1"
  type: "LSTMUnit"
  bottom: "c_0"
  bottom: "gate_input_1"
  bottom: "cont_1"
  top: "c_1"
  top: "h_1"
}
layer {
  name: "lstm1_"
  type: "Split"
  bottom: "c_1"
  top: "c_T"
}
layer {
  name: "lstm1_h_concat"
  type: "Concat"
  bottom: "h_1"
  top: "h"
  concat_param {
    axis: 0
  }
}
layer {
  name: "h_pseudoloss"
  type: "Reduction"
  bottom: "h"
  top: "h_pseudoloss"
  loss_weight: 1
}
I0731 22:05:18.503322  5120 layer_factory.hpp:77] Creating layer lstm1_
I0731 22:05:18.503334  5120 net.cpp:91] Creating Layer lstm1_
I0731 22:05:18.503340  5120 net.cpp:399] lstm1_ -> x
I0731 22:05:18.503352  5120 net.cpp:399] lstm1_ -> cont
I0731 22:05:18.503420  5120 net.cpp:141] Setting up lstm1_
I0731 22:05:18.503432  5120 net.cpp:148] Top shape: 1 1 500 (500)
I0731 22:05:18.503437  5120 net.cpp:148] Top shape: 1 1 (1)
I0731 22:05:18.503440  5120 net.cpp:156] Memory required for data: 2004
I0731 22:05:18.503445  5120 layer_factory.hpp:77] Creating layer lstm1_
I0731 22:05:18.503453  5120 net.cpp:91] Creating Layer lstm1_
I0731 22:05:18.503463  5120 net.cpp:399] lstm1_ -> c_0
I0731 22:05:18.503471  5120 net.cpp:399] lstm1_ -> h_0
I0731 22:05:18.503520  5120 net.cpp:141] Setting up lstm1_
I0731 22:05:18.503528  5120 net.cpp:148] Top shape: 1 1 1000 (1000)
I0731 22:05:18.503533  5120 net.cpp:148] Top shape: 1 1 1000 (1000)
I0731 22:05:18.503537  5120 net.cpp:156] Memory required for data: 10004
I0731 22:05:18.503541  5120 layer_factory.hpp:77] Creating layer lstm1_cont_slice
I0731 22:05:18.503552  5120 net.cpp:91] Creating Layer lstm1_cont_slice
I0731 22:05:18.503557  5120 net.cpp:425] lstm1_cont_slice <- cont
I0731 22:05:18.503566  5120 net.cpp:399] lstm1_cont_slice -> cont_1
I0731 22:05:18.503597  5120 net.cpp:141] Setting up lstm1_cont_slice
I0731 22:05:18.503607  5120 net.cpp:148] Top shape: 1 1 (1)
I0731 22:05:18.503610  5120 net.cpp:156] Memory required for data: 10008
I0731 22:05:18.503614  5120 layer_factory.hpp:77] Creating layer cont_1_lstm1_cont_slice_0_split
I0731 22:05:18.503623  5120 net.cpp:91] Creating Layer cont_1_lstm1_cont_slice_0_split
I0731 22:05:18.503626  5120 net.cpp:425] cont_1_lstm1_cont_slice_0_split <- cont_1
I0731 22:05:18.503635  5120 net.cpp:399] cont_1_lstm1_cont_slice_0_split -> cont_1_lstm1_cont_slice_0_split_0
I0731 22:05:18.503644  5120 net.cpp:399] cont_1_lstm1_cont_slice_0_split -> cont_1_lstm1_cont_slice_0_split_1
I0731 22:05:18.503690  5120 net.cpp:141] Setting up cont_1_lstm1_cont_slice_0_split
I0731 22:05:18.503698  5120 net.cpp:148] Top shape: 1 1 (1)
I0731 22:05:18.503705  5120 net.cpp:148] Top shape: 1 1 (1)
I0731 22:05:18.503708  5120 net.cpp:156] Memory required for data: 10016
I0731 22:05:18.503712  5120 layer_factory.hpp:77] Creating layer lstm1_x_transform
I0731 22:05:18.503722  5120 net.cpp:91] Creating Layer lstm1_x_transform
I0731 22:05:18.503726  5120 net.cpp:425] lstm1_x_transform <- x
I0731 22:05:18.503733  5120 net.cpp:399] lstm1_x_transform -> W_xc_x
I0731 22:05:18.523931  5120 net.cpp:141] Setting up lstm1_x_transform
I0731 22:05:18.523980  5120 net.cpp:148] Top shape: 1 1 4000 (4000)
I0731 22:05:18.523985  5120 net.cpp:156] Memory required for data: 26016
I0731 22:05:18.524019  5120 layer_factory.hpp:77] Creating layer lstm1_W_xc_x_slice
I0731 22:05:18.524039  5120 net.cpp:91] Creating Layer lstm1_W_xc_x_slice
I0731 22:05:18.524045  5120 net.cpp:425] lstm1_W_xc_x_slice <- W_xc_x
I0731 22:05:18.524055  5120 net.cpp:399] lstm1_W_xc_x_slice -> W_xc_x_1
I0731 22:05:18.524101  5120 net.cpp:141] Setting up lstm1_W_xc_x_slice
I0731 22:05:18.524109  5120 net.cpp:148] Top shape: 1 1 4000 (4000)
I0731 22:05:18.524113  5120 net.cpp:156] Memory required for data: 42016
I0731 22:05:18.524118  5120 layer_factory.hpp:77] Creating layer lstm1_h_conted_0
I0731 22:05:18.524132  5120 net.cpp:91] Creating Layer lstm1_h_conted_0
I0731 22:05:18.524137  5120 net.cpp:425] lstm1_h_conted_0 <- h_0
I0731 22:05:18.524142  5120 net.cpp:425] lstm1_h_conted_0 <- cont_1_lstm1_cont_slice_0_split_0
I0731 22:05:18.524148  5120 net.cpp:399] lstm1_h_conted_0 -> h_conted_0
I0731 22:05:18.524232  5120 net.cpp:141] Setting up lstm1_h_conted_0
I0731 22:05:18.524241  5120 net.cpp:148] Top shape: 1 1 1000 (1000)
I0731 22:05:18.524245  5120 net.cpp:156] Memory required for data: 46016
I0731 22:05:18.524250  5120 layer_factory.hpp:77] Creating layer lstm1_transform_1
I0731 22:05:18.524271  5120 net.cpp:91] Creating Layer lstm1_transform_1
I0731 22:05:18.524276  5120 net.cpp:425] lstm1_transform_1 <- h_conted_0
I0731 22:05:18.524283  5120 net.cpp:399] lstm1_transform_1 -> W_hc_h_0
I0731 22:05:18.539971  5130 net.cpp:141] Setting up fc6
I0731 22:05:18.540033  5130 net.cpp:148] Top shape: 10 4096 (40960)
I0731 22:05:18.540040  5130 net.cpp:156] Memory required for data: 67782200
I0731 22:05:18.540055  5130 layer_factory.hpp:77] Creating layer relu6
I0731 22:05:18.540071  5130 net.cpp:91] Creating Layer relu6
I0731 22:05:18.540077  5130 net.cpp:425] relu6 <- fc6
I0731 22:05:18.540091  5130 net.cpp:386] relu6 -> fc6 (in-place)
I0731 22:05:18.540408  5130 net.cpp:141] Setting up relu6
I0731 22:05:18.540419  5130 net.cpp:148] Top shape: 10 4096 (40960)
I0731 22:05:18.540423  5130 net.cpp:156] Memory required for data: 67946040
I0731 22:05:18.540428  5130 layer_factory.hpp:77] Creating layer drop6
I0731 22:05:18.540438  5130 net.cpp:91] Creating Layer drop6
I0731 22:05:18.540443  5130 net.cpp:425] drop6 <- fc6
I0731 22:05:18.540449  5130 net.cpp:386] drop6 -> fc6 (in-place)
I0731 22:05:18.540509  5130 net.cpp:141] Setting up drop6
I0731 22:05:18.540518  5130 net.cpp:148] Top shape: 10 4096 (40960)
I0731 22:05:18.540523  5130 net.cpp:156] Memory required for data: 68109880
I0731 22:05:18.540527  5130 layer_factory.hpp:77] Creating layer fc7
I0731 22:05:18.540539  5130 net.cpp:91] Creating Layer fc7
I0731 22:05:18.540544  5130 net.cpp:425] fc7 <- fc6
I0731 22:05:18.540550  5130 net.cpp:399] fc7 -> fc7
I0731 22:05:18.568893  5120 net.cpp:141] Setting up lstm1_transform_1
I0731 22:05:18.568944  5120 net.cpp:148] Top shape: 1 1 4000 (4000)
I0731 22:05:18.568950  5120 net.cpp:156] Memory required for data: 62016
I0731 22:05:18.568974  5120 layer_factory.hpp:77] Creating layer lstm1_gate_input_1
I0731 22:05:18.568996  5120 net.cpp:91] Creating Layer lstm1_gate_input_1
I0731 22:05:18.569003  5120 net.cpp:425] lstm1_gate_input_1 <- W_hc_h_0
I0731 22:05:18.569012  5120 net.cpp:425] lstm1_gate_input_1 <- W_xc_x_1
I0731 22:05:18.569023  5120 net.cpp:399] lstm1_gate_input_1 -> gate_input_1
I0731 22:05:18.569082  5120 net.cpp:141] Setting up lstm1_gate_input_1
I0731 22:05:18.569092  5120 net.cpp:148] Top shape: 1 1 4000 (4000)
I0731 22:05:18.569095  5120 net.cpp:156] Memory required for data: 78016
I0731 22:05:18.569100  5120 layer_factory.hpp:77] Creating layer lstm1_unit_1
I0731 22:05:18.569111  5120 net.cpp:91] Creating Layer lstm1_unit_1
I0731 22:05:18.569116  5120 net.cpp:425] lstm1_unit_1 <- c_0
I0731 22:05:18.569123  5120 net.cpp:425] lstm1_unit_1 <- gate_input_1
I0731 22:05:18.569128  5120 net.cpp:425] lstm1_unit_1 <- cont_1_lstm1_cont_slice_0_split_1
I0731 22:05:18.569134  5120 net.cpp:399] lstm1_unit_1 -> c_1
I0731 22:05:18.569144  5120 net.cpp:399] lstm1_unit_1 -> h_1
I0731 22:05:18.569205  5120 net.cpp:141] Setting up lstm1_unit_1
I0731 22:05:18.569213  5120 net.cpp:148] Top shape: 1 1 1000 (1000)
I0731 22:05:18.569219  5120 net.cpp:148] Top shape: 1 1 1000 (1000)
I0731 22:05:18.569223  5120 net.cpp:156] Memory required for data: 86016
I0731 22:05:18.569227  5120 layer_factory.hpp:77] Creating layer lstm1_
I0731 22:05:18.569236  5120 net.cpp:91] Creating Layer lstm1_
I0731 22:05:18.569239  5120 net.cpp:425] lstm1_ <- c_1
I0731 22:05:18.569248  5120 net.cpp:399] lstm1_ -> c_T
I0731 22:05:18.569278  5120 net.cpp:141] Setting up lstm1_
I0731 22:05:18.569286  5120 net.cpp:148] Top shape: 1 1 1000 (1000)
I0731 22:05:18.569290  5120 net.cpp:156] Memory required for data: 90016
I0731 22:05:18.569294  5120 layer_factory.hpp:77] Creating layer lstm1_h_concat
I0731 22:05:18.569314  5120 net.cpp:91] Creating Layer lstm1_h_concat
I0731 22:05:18.569319  5120 net.cpp:425] lstm1_h_concat <- h_1
I0731 22:05:18.569324  5120 net.cpp:399] lstm1_h_concat -> h
I0731 22:05:18.569362  5120 net.cpp:141] Setting up lstm1_h_concat
I0731 22:05:18.569370  5120 net.cpp:148] Top shape: 1 1 1000 (1000)
I0731 22:05:18.569375  5120 net.cpp:156] Memory required for data: 94016
I0731 22:05:18.569378  5120 layer_factory.hpp:77] Creating layer h_pseudoloss
I0731 22:05:18.569388  5120 net.cpp:91] Creating Layer h_pseudoloss
I0731 22:05:18.569392  5120 net.cpp:425] h_pseudoloss <- h
I0731 22:05:18.569399  5120 net.cpp:399] h_pseudoloss -> h_pseudoloss
I0731 22:05:18.569486  5120 net.cpp:141] Setting up h_pseudoloss
…
I0731 22:05:18.569602  5120 net.cpp:219] lstm1_ does not need backward computation.
I0731 22:05:18.569604  5120 net.cpp:261] This network produces output c_T
I0731 22:05:18.569608  5120 net.cpp:261] This network produces output h_pseudoloss
I0731 22:05:18.569624  5120 net.cpp:274] Network initialization done.
I0731 22:05:18.569684  5120 recurrent_layer.cpp:150] Adding parameter 0: W_xc
I0731 22:05:18.569690  5120 recurrent_layer.cpp:150] Adding parameter 1: b_c
I0731 22:05:18.569694  5120 recurrent_layer.cpp:150] Adding parameter 2: W_hc
I0731 22:05:18.569802  5120 net.cpp:141] Setting up lstm1
I0731 22:05:18.569813  5120 net.cpp:148] Top shape: 1 1 1000 (1000)
I0731 22:05:18.569818  5120 net.cpp:156] Memory required for data: 26408
I0731 22:05:18.569829  5120 layer_factory.hpp:77] Creating layer concat
I0731 22:05:18.569838  5120 net.cpp:91] Creating Layer concat
I0731 22:05:18.569844  5120 net.cpp:425] concat <- lstm1
I0731 22:05:18.569849  5120 net.cpp:425] concat <- embedded_input_sentence
I0731 22:05:18.569854  5120 net.cpp:425] concat <- reshaped_stage_indicator
I0731 22:05:18.569860  5120 net.cpp:399] concat -> lstm1_video_sequence
I0731 22:05:18.569893  5120 net.cpp:141] Setting up concat
I0731 22:05:18.569901  5120 net.cpp:148] Top shape: 1 1 1501 (1501)
I0731 22:05:18.569905  5120 net.cpp:156] Memory required for data: 32412
I0731 22:05:18.569911  5120 layer_factory.hpp:77] Creating layer lstm2
I0731 22:05:18.569922  5120 net.cpp:91] Creating Layer lstm2
I0731 22:05:18.569927  5120 net.cpp:425] lstm2 <- lstm1_video_sequence
I0731 22:05:18.569933  5120 net.cpp:425] lstm2 <- cont_sentence_input_1_split_1
I0731 22:05:18.569939  5120 net.cpp:399] lstm2 -> lstm2
I0731 22:05:18.569949  5120 recurrent_layer.cpp:20] Initializing recurrent layer: assuming input batch contains 1 timesteps of 1 independent streams.
I0731 22:05:18.570210  5120 net.cpp:49] Initializing net from parameters: 
layer {
  name: "lstm2_"
  type: "Input"
  top: "x"
  top: "cont"
  input_param {
    shape {
      dim: 1
      dim: 1
      dim: 1501
    }
    shape {
      dim: 1
      dim: 1
    }
  }
}
layer {
  name: "lstm2_"
  type: "Input"
  top: "c_0"
  top: "h_0"
  input_param {
    shape {
      dim: 1
      dim: 1
      dim: 1000
    }
    shape {
      dim: 1
      dim: 1
      dim: 1000
    }
  }
}
layer {
  name: "lstm2_cont_slice"
  type: "Slice"
  bottom: "cont"
  top: "cont_1"
  slice_param {
    axis: 0
  }
}
layer {
  name: "lstm2_x_transform"
  type: "InnerProduct"
  bottom: "x"
  top: "W_xc_x"
  param {
    name: "W_xc"
  }
  param {
    name: "b_c"
  }
  propagate_down: true
  inner_product_param {
    num_output: 4000
    bias_term: true
    weight_filler {
      type: "uniform"
      min: -0.08
      max: 0.08
    }
    bias_filler {
      type: "constant"
      value: 0
    }
    axis: 2
  }
}
layer {
  name: "lstm2_W_xc_x_slice"
  type: "Slice"
  bottom: "W_xc_x"
  top: "W_xc_x_1"
  slice_param {
    axis: 0
  }
}
layer {
  name: "lstm2_h_conted_0"
  type: "Scale"
  bottom: "h_0"
  bottom: "cont_1"
  top: "h_conted_0"
  scale_param {
    axis: 0
  }
}
layer {
  name: "lstm2_transform_1"
  type: "InnerProduct"
  bottom: "h_conted_0"
  top: "W_hc_h_0"
  param {
    name: "W_hc"
  }
  inner_product_param {
    num_output: 4000
    bias_term: false
    weight_filler {
      type: "uniform"
      min: -0.08
      max: 0.08
    }
    axis: 2
  }
}
layer {
  name: "lstm2_gate_input_1"
  type: "Eltwise"
  bottom: "W_hc_h_0"
  bottom: "W_xc_x_1"
  top: "gate_input_1"
  eltwise_param {
    operation: SUM
  }
}
layer {
  name: "lstm2_unit_1"
  type: "LSTMUnit"
  bottom: "c_0"
  bottom: "gate_input_1"
  bottom: "cont_1"
  top: "c_1"
  top: "h_1"
}
layer {
  name: "lstm2_"
  type: "Split"
  bottom: "c_1"
  top: "c_T"
}
layer {
  name: "lstm2_h_concat"
  type: "Concat"
  bottom: "h_1"
  top: "h"
  concat_param {
    axis: 0
  }
}
layer {
  name: "h_pseudoloss"
  type: "Reduction"
  bottom: "h"
  top: "h_pseudoloss"
  loss_weight: 1
}
I0731 22:05:18.570296  5120 layer_factory.hpp:77] Creating layer lstm2_
I0731 22:05:18.570307  5120 net.cpp:91] Creating Layer lstm2_
I0731 22:05:18.570312  5120 net.cpp:399] lstm2_ -> x
I0731 22:05:18.570322  5120 net.cpp:399] lstm2_ -> cont
I0731 22:05:18.570372  5120 net.cpp:141] Setting up lstm2_
I0731 22:05:18.570382  5120 net.cpp:148] Top shape: 1 1 1501 (1501)
I0731 22:05:18.570387  5120 net.cpp:148] Top shape: 1 1 (1)
I0731 22:05:18.570391  5120 net.cpp:156] Memory required for data: 6008
I0731 22:05:18.570396  5120 layer_factory.hpp:77] Creating layer lstm2_
I0731 22:05:18.570407  5120 net.cpp:91] Creating Layer lstm2_
I0731 22:05:18.570413  5120 net.cpp:399] lstm2_ -> c_0
I0731 22:05:18.570422  5120 net.cpp:399] lstm2_ -> h_0
I0731 22:05:18.570471  5120 net.cpp:141] Setting up lstm2_
I0731 22:05:18.570479  5120 net.cpp:148] Top shape: 1 1 1000 (1000)
I0731 22:05:18.570484  5120 net.cpp:148] Top shape: 1 1 1000 (1000)
I0731 22:05:18.570488  5120 net.cpp:156] Memory required for data: 14008
I0731 22:05:18.570492  5120 layer_factory.hpp:77] Creating layer lstm2_cont_slice
I0731 22:05:18.570500  5120 net.cpp:91] Creating Layer lstm2_cont_slice
I0731 22:05:18.570504  5120 net.cpp:425] lstm2_cont_slice <- cont
I0731 22:05:18.570511  5120 net.cpp:399] lstm2_cont_slice -> cont_1
I0731 22:05:18.570544  5120 net.cpp:141] Setting up lstm2_cont_slice
I0731 22:05:18.570552  5120 net.cpp:148] Top shape: 1 1 (1)
I0731 22:05:18.570556  5120 net.cpp:156] Memory required for data: 14012
I0731 22:05:18.570560  5120 layer_factory.hpp:77] Creating layer cont_1_lstm2_cont_slice_0_split
I0731 22:05:18.570567  5120 net.cpp:91] Creating Layer cont_1_lstm2_cont_slice_0_split
I0731 22:05:18.570571  5120 net.cpp:425] cont_1_lstm2_cont_slice_0_split <- cont_1
I0731 22:05:18.570580  5120 net.cpp:399] cont_1_lstm2_cont_slice_0_split -> cont_1_lstm2_cont_slice_0_split_0
I0731 22:05:18.570587  5120 net.cpp:399] cont_1_lstm2_cont_slice_0_split -> cont_1_lstm2_cont_slice_0_split_1
I0731 22:05:18.570631  5120 net.cpp:141] Setting up cont_1_lstm2_cont_slice_0_split
I0731 22:05:18.570641  5120 net.cpp:148] Top shape: 1 1 (1)
I0731 22:05:18.570647  5120 net.cpp:148] Top shape: 1 1 (1)
I0731 22:05:18.570649  5120 net.cpp:156] Memory required for data: 14020
I0731 22:05:18.570654  5120 layer_factory.hpp:77] Creating layer lstm2_x_transform
I0731 22:05:18.570663  5120 net.cpp:91] Creating Layer lstm2_x_transform
I0731 22:05:18.570668  5120 net.cpp:425] lstm2_x_transform <- x
I0731 22:05:18.570677  5120 net.cpp:399] lstm2_x_transform -> W_xc_x
I0731 22:05:18.585980  5130 net.cpp:141] Setting up fc7
I0731 22:05:18.586021  5130 net.cpp:148] Top shape: 10 4096 (40960)
I0731 22:05:18.586026  5130 net.cpp:156] Memory required for data: 68273720
I0731 22:05:18.586041  5130 layer_factory.hpp:77] Creating layer relu7
I0731 22:05:18.586061  5130 net.cpp:91] Creating Layer relu7
I0731 22:05:18.586067  5130 net.cpp:425] relu7 <- fc7
I0731 22:05:18.586077  5130 net.cpp:386] relu7 -> fc7 (in-place)
I0731 22:05:18.586868  5130 net.cpp:141] Setting up relu7
I0731 22:05:18.586880  5130 net.cpp:148] Top shape: 10 4096 (40960)
I0731 22:05:18.586884  5130 net.cpp:156] Memory required for data: 68437560
I0731 22:05:18.586889  5130 layer_factory.hpp:77] Creating layer drop7
I0731 22:05:18.586904  5130 net.cpp:91] Creating Layer drop7
I0731 22:05:18.586908  5130 net.cpp:425] drop7 <- fc7
I0731 22:05:18.586915  5130 net.cpp:386] drop7 -> fc7 (in-place)
I0731 22:05:18.586954  5130 net.cpp:141] Setting up drop7
I0731 22:05:18.586962  5130 net.cpp:148] Top shape: 10 4096 (40960)
I0731 22:05:18.586966  5130 net.cpp:156] Memory required for data: 68601400
I0731 22:05:18.586971  5130 layer_factory.hpp:77] Creating layer fc8
I0731 22:05:18.586980  5130 net.cpp:91] Creating Layer fc8
I0731 22:05:18.586985  5130 net.cpp:425] fc8 <- fc7
I0731 22:05:18.586995  5130 net.cpp:399] fc8 -> fc8
I0731 22:05:18.598525  5130 net.cpp:141] Setting up fc8
I0731 22:05:18.598574  5130 net.cpp:148] Top shape: 10 1000 (10000)
I0731 22:05:18.598580  5130 net.cpp:156] Memory required for data: 68641400
I0731 22:05:18.598594  5130 layer_factory.hpp:77] Creating layer prob
I0731 22:05:18.598613  5130 net.cpp:91] Creating Layer prob
I0731 22:05:18.598618  5130 net.cpp:425] prob <- fc8
I0731 22:05:18.598629  5130 net.cpp:399] prob -> prob
I0731 22:05:18.599031  5130 net.cpp:141] Setting up prob
I0731 22:05:18.599042  5130 net.cpp:148] Top shape: 10 1000 (10000)
I0731 22:05:18.599047  5130 net.cpp:156] Memory required for data: 68681400
I0731 22:05:18.599052  5130 net.cpp:219] prob does not need backward computation.
I0731 22:05:18.599057  5130 net.cpp:219] fc8 does not need backward computation.
I0731 22:05:18.599061  5130 net.cpp:219] drop7 does not need backward computation.
I0731 22:05:18.599066  5130 net.cpp:219] relu7 does not need backward computation.
…
I0731 22:05:18.599133  5130 net.cpp:219] norm1 does not need backward computation.
I0731 22:05:18.599138  5130 net.cpp:219] pool1 does not need backward computation.
I0731 22:05:18.599143  5130 net.cpp:219] relu1 does not need backward computation.
I0731 22:05:18.599146  5130 net.cpp:219] conv1 does not need backward computation.
I0731 22:05:18.599151  5130 net.cpp:219] data does not need backward computation.
I0731 22:05:18.599154  5130 net.cpp:261] This network produces output prob
I0731 22:05:18.599171  5130 net.cpp:274] Network initialization done.
I0731 22:05:18.628131  5120 net.cpp:141] Setting up lstm2_x_transform
I0731 22:05:18.628176  5120 net.cpp:148] Top shape: 1 1 4000 (4000)
I0731 22:05:18.628181  5120 net.cpp:156] Memory required for data: 30020
I0731 22:05:18.628203  5120 layer_factory.hpp:77] Creating layer lstm2_W_xc_x_slice
I0731 22:05:18.628219  5120 net.cpp:91] Creating Layer lstm2_W_xc_x_slice
I0731 22:05:18.628226  5120 net.cpp:425] lstm2_W_xc_x_slice <- W_xc_x
I0731 22:05:18.628234  5120 net.cpp:399] lstm2_W_xc_x_slice -> W_xc_x_1
I0731 22:05:18.628281  5120 net.cpp:141] Setting up lstm2_W_xc_x_slice
I0731 22:05:18.628291  5120 net.cpp:148] Top shape: 1 1 4000 (4000)
I0731 22:05:18.628295  5120 net.cpp:156] Memory required for data: 46020
I0731 22:05:18.628300  5120 layer_factory.hpp:77] Creating layer lstm2_h_conted_0
I0731 22:05:18.628309  5120 net.cpp:91] Creating Layer lstm2_h_conted_0
I0731 22:05:18.628314  5120 net.cpp:425] lstm2_h_conted_0 <- h_0
I0731 22:05:18.628320  5120 net.cpp:425] lstm2_h_conted_0 <- cont_1_lstm2_cont_slice_0_split_0
I0731 22:05:18.628326  5120 net.cpp:399] lstm2_h_conted_0 -> h_conted_0
I0731 22:05:18.628414  5120 net.cpp:141] Setting up lstm2_h_conted_0
I0731 22:05:18.628423  5120 net.cpp:148] Top shape: 1 1 1000 (1000)
I0731 22:05:18.628427  5120 net.cpp:156] Memory required for data: 50020
I0731 22:05:18.628432  5120 layer_factory.hpp:77] Creating layer lstm2_transform_1
I0731 22:05:18.628444  5120 net.cpp:91] Creating Layer lstm2_transform_1
I0731 22:05:18.628448  5120 net.cpp:425] lstm2_transform_1 <- h_conted_0
I0731 22:05:18.628456  5120 net.cpp:399] lstm2_transform_1 -> W_hc_h_0
I0731 22:05:18.670011  5120 net.cpp:141] Setting up lstm2_transform_1
I0731 22:05:18.670060  5120 net.cpp:148] Top shape: 1 1 4000 (4000)
I0731 22:05:18.670066  5120 net.cpp:156] Memory required for data: 66020
I0731 22:05:18.670087  5120 layer_factory.hpp:77] Creating layer lstm2_gate_input_1
I0731 22:05:18.670112  5120 net.cpp:91] Creating Layer lstm2_gate_input_1
I0731 22:05:18.670120  5120 net.cpp:425] lstm2_gate_input_1 <- W_hc_h_0
I0731 22:05:18.670130  5120 net.cpp:425] lstm2_gate_input_1 <- W_xc_x_1
I0731 22:05:18.670140  5120 net.cpp:399] lstm2_gate_input_1 -> gate_input_1
I0731 22:05:18.670197  5120 net.cpp:141] Setting up lstm2_gate_input_1
I0731 22:05:18.670207  5120 net.cpp:148] Top shape: 1 1 4000 (4000)
I0731 22:05:18.670212  5120 net.cpp:156] Memory required for data: 82020
I0731 22:05:18.670217  5120 layer_factory.hpp:77] Creating layer lstm2_unit_1
I0731 22:05:18.670228  5120 net.cpp:91] Creating Layer lstm2_unit_1
I0731 22:05:18.670235  5120 net.cpp:425] lstm2_unit_1 <- c_0
I0731 22:05:18.670241  5120 net.cpp:425] lstm2_unit_1 <- gate_input_1
I0731 22:05:18.670248  5120 net.cpp:425] lstm2_unit_1 <- cont_1_lstm2_cont_slice_0_split_1
I0731 22:05:18.670255  5120 net.cpp:399] lstm2_unit_1 -> c_1
I0731 22:05:18.670264  5120 net.cpp:399] lstm2_unit_1 -> h_1
I0731 22:05:18.670336  5120 net.cpp:141] Setting up lstm2_unit_1
I0731 22:05:18.670346  5120 net.cpp:148] Top shape: 1 1 1000 (1000)
I0731 22:05:18.670351  5120 net.cpp:148] Top shape: 1 1 1000 (1000)
I0731 22:05:18.670356  5120 net.cpp:156] Memory required for data: 90020
I0731 22:05:18.670361  5120 layer_factory.hpp:77] Creating layer lstm2_
I0731 22:05:18.670372  5120 net.cpp:91] Creating Layer lstm2_
I0731 22:05:18.670377  5120 net.cpp:425] lstm2_ <- c_1
I0731 22:05:18.670385  5120 net.cpp:399] lstm2_ -> c_T
I0731 22:05:18.670419  5120 net.cpp:141] Setting up lstm2_
I0731 22:05:18.670428  5120 net.cpp:148] Top shape: 1 1 1000 (1000)
I0731 22:05:18.670433  5120 net.cpp:156] Memory required for data: 94020
I0731 22:05:18.670438  5120 layer_factory.hpp:77] Creating layer lstm2_h_concat
I0731 22:05:18.670449  5120 net.cpp:91] Creating Layer lstm2_h_concat
I0731 22:05:18.670454  5120 net.cpp:425] lstm2_h_concat <- h_1
I0731 22:05:18.670464  5120 net.cpp:399] lstm2_h_concat -> h
I0731 22:05:18.670503  5120 net.cpp:141] Setting up lstm2_h_concat
I0731 22:05:18.670513  5120 net.cpp:148] Top shape: 1 1 1000 (1000)
I0731 22:05:18.670517  5120 net.cpp:156] Memory required for data: 98020
I0731 22:05:18.670522  5120 layer_factory.hpp:77] Creating layer h_pseudoloss
I0731 22:05:18.670532  5120 net.cpp:91] Creating Layer h_pseudoloss
I0731 22:05:18.670537  5120 net.cpp:425] h_pseudoloss <- h
I0731 22:05:18.670544  5120 net.cpp:399] h_pseudoloss -> h_pseudoloss
I0731 22:05:18.670647  5120 net.cpp:141] Setting up h_pseudoloss
…
