…
Java HotSpot(TM) 64-Bit Server VM warning: You have loaded library /tmp/cvld8622915257070995819/libopencv_java310.xine1.so which might have disabled stack guard. The VM will try to fix the stack guard now.
It's highly recommended that you fix the library with 'execstack -c <libfile>', or link it with '-z noexecstack'.
WARNING: Logging before InitGoogleLogging() is written to STDERR
I0714 21:27:39.737530 28909 net.cpp:49] Initializing net from parameters: 
name: "GoogleNet"
state {
  phase: TEST
}
layer {
  name: "data"
  type: "Input"
  top: "data"
  input_param {
    shape {
      dim: 10
      dim: 3
      dim: 224
      dim: 224
    }
  }
}
layer {
  name: "conv1/7x7_s2"
  type: "Convolution"
  bottom: "data"
  top: "conv1/7x7_s2"
  param {
    lr_mult: 1
    decay_mult: 1
  }
  param {
    lr_mult: 2
    decay_mult: 0
  }
  convolution_param {
    num_output: 64
    pad: 3
    kernel_size: 7
    stride: 2
    weight_filler {
      type: "xavier"
      std: 0.1
    }
    bias_filler {
      type: "constant"
      value: 0.2
    }
  }
}
layer {
  name: "conv1/relu_7x7"
  type: "ReLU"
  bottom: "conv1/7x7_s2"
  top: "conv1/7x7_s2"
}
layer {
  name: "pool1/3x3_s2"
  type: "Pooling"
  bottom: "conv1/7x7_s2"
  top: "pool1/3x3_s2"
  pooling_param {
    pool: MAX
    kernel_size: 3
    stride: 2
  }
}
layer {
  name: "pool1/norm1"
  type: "LRN"
  bottom: "pool1/3x3_s2"
  top: "pool1/norm1"
  lrn_param {
    local_size: 5
    alpha: 0.0001
    beta: 0.75
  }
}
layer {
  name: "conv2/3x3_reduce"
  type: "Convolution"
  bottom: "pool1/norm1"
  top: "conv2/3x3_reduce"
  param {
    lr_mult: 1
    decay_mult: 1
  }
  param {
    lr_mult: 2
    decay_mult: 0
  }
  convolution_param {
    num_output: 64
    kernel_size: 1
    weight_filler {
      type: "xavier"
      std: 0.1
    }
    bias_filler {
      type: "constant"
      value: 0.2
    }
  }
}
layer {
  name: "conv2/relu_3x3_reduce"
  type: "ReLU"
  bottom: "conv2/3x3_reduce"
  top: "conv2/3x3_reduce"
}
layer {
  name: "conv2/3x3"
  type: "Convolution"
  bottom: "conv2/3x3_reduce"
  top: "conv2/3x3"
  param {
    lr_mult: 1
    decay_mult: 1
  }
  param {
    lr_mult: 2
    decay_mult: 0
  }
  convolution_param {
    num_output: 192
    pad: 1
    kernel_size: 3
    weight_filler {
      type: "xavier"
      std: 0.03
    }
    bias_filler {
      type: "constant"
      value: 0.2
    }
  }
}
layer {
  name: "conv2/relu_3x3"
  type: "ReLU"
  bottom: "conv2/3x3"
  top: "conv2/3x3"
}
layer {
  name: "conv2/norm2"
  type: "LRN"
  bottom: "conv2/3x3"
  top: "conv2/norm2"
  lrn_param {
    local_size: 5
    alpha: 0.0001
    beta: 0.75
  }
}
layer {
  name: "pool2/3x3_s2"
  type: "Pooling"
  bottom: "conv2/norm2"
  top: "pool2/3x3_s2"
  pooling_param {
    pool: MAX
    kernel_size: 3
    stride: 2
  }
}
layer {
  name: "inception_3a/1x1"
  type: "Convolution"
  bottom: "pool2/3x3_s2"
  top: "inception_3a/1x1"
  param {
    lr_mult: 1
    decay_mult: 1
  }
  param {
    lr_mult: 2
    decay_mult: 0
  }
  convolution_param {
    num_output: 64
    kernel_size: 1
    weight_filler {
      type: "xavier"
      std: 0.03
    }
    bias_filler {
      type: "constant"
      value: 0.2
    }
  }
}
layer {
  name: "inception_3a/relu_1x1"
  type: "ReLU"
  bottom: "inception_3a/1x1"
  top: "inception_3a/1x1"
}
layer {
  name: "inception_3a/3x3_reduce"
  type: "Convolution"
  bottom: "pool2/3x3_s2"
  top: "inception_3a/3x3_reduce"
  param {
    lr_mult: 1
    decay_mult: 1
  }
  param {
    lr_mult: 2
    decay_mult: 0
  }
  convolution_param {
    num_output: 96
    kernel_size: 1
    weight_filler {
      type: "xavier"
      std: 0.09
    }
    bias_filler {
      type: "constant"
      value: 0.2
    }
  }
}
layer {
  name: "inception_3a/relu_3x3_reduce"
  type: "ReLU"
  bottom: "inception_3a/3x3_reduce"
  top: "inception_3a/3x3_reduce"
}
layer {
  name: "inception_3a/3x3"
  type: "Convolution"
  bottom: "inception_3a/3x3_reduce"
  top: "inception_3a/3x3"
  param {
    lr_mult: 1
    decay_mult: 1
  }
  param {
    lr_mult: 2
    decay_mult: 0
  }
  convolution_param {
    num_output: 128
    pad: 1
    kernel_size: 3
    weight_filler {
      type: "xavier"
      std: 0.03
    }
    bias_filler {
      type: "constant"
      value: 0.2
    }
  }
}
layer {
  name: "inception_3a/relu_3x3"
  type: "ReLU"
  bottom: "inception_3a/3x3"
  top: "inception_3a/3x3"
}
layer {
  name: "inception_3a/5x5_reduce"
  type: "Convolution"
  bottom: "pool2/3x3_s2"
  top: "inception_3a/5x5_reduce"
  param {
    lr_mult: 1
    decay_mult: 1
  }
  param {
    lr_mult: 2
    decay_mult: 0
  }
  convolution_param {
    num_output: 16
    kernel_size: 1
    weight_filler {
      type: "xavier"
      std: 0.2
    }
    bias_filler {
      type: "constant"
      value: 0.2
    }
  }
}
layer {
  name: "inception_3a/relu_5x5_reduce"
  type: "ReLU"
  bottom: "inception_3a/5x5_reduce"
  top: "inception_3a/5x5_reduce"
}
layer {
  name: "inception_3a/5x5"
  type: "Convolution"
  bottom: "inception_3a/5x5_reduce"
  top: "inception_3a/5x5"
  param {
    lr_mult: 1
    decay_mult: 1
  }
  param {
    lr_mult: 2
    decay_mult: 0
  }
  convolution_param {
    num_output: 32
    pad: 2
    kernel_size: 5
    weight_filler {
      type: "xavier"
      std: 0.03
    }
    bias_filler {
      type: "constant"
      value: 0.2
    }
  }
}
layer {
  name: "inception_3a/relu_5x5"
  type: "ReLU"
  bottom: "inception_3a/5x5"
  top: "inception_3a/5x5"
}
layer {
  name: "inception_3a/pool"
  type: "Pooling"
  bottom: "pool2/3x3_s2"
  top: "inception_3a/pool"
  pooling_param {
    pool: MAX
    kernel_size: 3
    stride: 1
    pad: 1
  }
}
layer {
  name: "inception_3a/pool_proj"
  type: "Convolution"
  bottom: "inception_3a/pool"
  top: "inception_3a/pool_proj"
  param {
    lr_mult: 1
    decay_mult: 1
  }
  param {
    lr_mult: 2
    decay_mult: 0
  }
  convolution_param {
    num_output: 32
    kernel_size: 1
    weight_filler {
      type: "xavier"
      std: 0.1
    }
    bias_filler {
      type: "constant"
      value: 0.2
    }
  }
}
layer {
  name: "inception_3a/relu_pool_proj"
  type: "ReLU"
  bottom: "inception_3a/pool_proj"
  top: "inception_3a/pool_proj"
}
layer {
  name: "inception_3a/output"
  type: "Concat"
  bottom: "inception_3a/1x1"
  bottom: "inception_3a/3x3"
  bottom: "inception_3a/5x5"
  bottom: "inception_3a/pool_proj"
  top: "inception_3a/output"
}
layer {
  name: "inception_3b/1x1"
  type: "Convolution"
  bottom: "inception_3a/output"
  top: "inception_3b/1x1"
  param {
    lr_mult: 1
    decay_mult: 1
  }
  param {
    lr_mult: 2
    decay_mult: 0
  }
  convolution_param {
    num_output: 128
    kernel_size: 1
    weight_filler {
      type: "xavier"
      std: 0.03
    }
    bias_filler {
      type: "constant"
      value: 0.2
    }
  }
}
layer {
  name: "inception_3b/relu_1x1"
  type: "ReLU"
  bottom: "inception_3b/1x1"
  top: "inception_3b/1x1"
}
layer {
  name: "inception_3b/3x3_reduce"
  type: "Convolution"
  bottom: "inception_3a/output"
  top: "inception_3b/3x3_reduce"
  param {
    lr_mult: 1
    decay_mult: 1
  }
  param {
    lr_mult: 2
    decay_mult: 0
  }
  convolution_param {
    num_output: 128
    kernel_size: 1
    weight_filler {
      type: "xavier"
      std: 0.09
    }
    bias_filler {
      type: "constant"
      value: 0.2
    }
  }
}
layer {
  name: "inception_3b/relu_3x3_reduce"
  type: "ReLU"
  bottom: "inception_3b/3x3_reduce"
  top: "inception_3b/3x3_reduce"
}
layer {
  name: "inception_3b/3x3"
  type: "Convolution"
  bottom: "inception_3b/3x3_reduce"
  top: "inception_3b/3x3"
  param {
    lr_mult: 1
    decay_mult: 1
  }
  param {
    lr_mult: 2
    decay_mult: 0
  }
  convolution_param {
    num_output: 192
    pad: 1
    kernel_size: 3
    weight_filler {
      type: "xavier"
      std: 0.03
    }
    bias_filler {
      type: "constant"
      value: 0.2
    }
  }
}
layer {
  name: "inception_3b/relu_3x3"
  type: "ReLU"
  bottom: "inception_3b/3x3"
  top: "inception_3b/3x3"
}
layer {
  name: "inception_3b/5x5_reduce"
  type: "Convolution"
  bottom: "inception_3a/output"
  top: "inception_3b/5x5_reduce"
  param {
    lr_mult: 1
    decay_mult: 1
  }
  param {
    lr_mult: 2
    decay_mult: 0
  }
  convolution_param {
    num_output: 32
    kernel_size: 1
    weight_filler {
      type: "xavier"
      std: 0.2
    }
    bias_filler {
      type: "constant"
      value: 0.2
    }
  }
}
layer {
  name: "inception_3b/relu_5x5_reduce"
  type: "ReLU"
  bottom: "inception_3b/5x5_reduce"
  top: "inception_3b/5x5_reduce"
}
layer {
  name: "inception_3b/5x5"
  type: "Convolution"
  bottom: "inception_3b/5x5_reduce"
  top: "inception_3b/5x5"
  param {
    lr_mult: 1
    decay_mult: 1
  }
  param {
    lr_mult: 2
    decay_mult: 0
  }
  convolution_param {
    num_output: 96
    pad: 2
    kernel_size: 5
    weight_filler {
      type: "xavier"
      std: 0.03
    }
    bias_filler {
      type: "constant"
      value: 0.2
    }
  }
}
layer {
  name: "inception_3b/relu_5x5"
  type: "ReLU"
  bottom: "inception_3b/5x5"
  top: "inception_3b/5x5"
}
layer {
  name: "inception_3b/pool"
  type: "Pooling"
  bottom: "inception_3a/output"
  top: "inception_3b/pool"
  pooling_param {
    pool: MAX
    kernel_size: 3
    stride: 1
    pad: 1
  }
}
layer {
  name: "inception_3b/pool_proj"
  type: "Convolution"
  bottom: "inception_3b/pool"
  top: "inception_3b/pool_proj"
  param {
    lr_mult: 1
    decay_mult: 1
  }
  param {
    lr_mult: 2
    decay_mult: 0
  }
  convolution_param {
    num_output: 64
    kernel_size: 1
    weight_filler {
      type: "xavier"
      std: 0.1
    }
    bias_filler {
      type: "constant"
      value: 0.2
    }
  }
}
layer {
  name: "inception_3b/relu_pool_proj"
  type: "ReLU"
  bottom: "inception_3b/pool_proj"
  top: "inception_3b/pool_proj"
}
layer {
  name: "inception_3b/output"
  type: "Concat"
  bottom: "inception_3b/1x1"
  bottom: "inception_3b/3x3"
  bottom: "inception_3b/5x5"
  bottom: "inception_3b/pool_proj"
  top: "inception_3b/output"
}
layer {
  name: "pool3/3x3_s2"
  type: "Pooling"
  bottom: "inception_3b/output"
  top: "pool3/3x3_s2"
  pooling_param {
    pool: MAX
    kernel_size: 3
    stride: 2
  }
}
layer {
  name: "inception_4a/1x1"
  type: "Convolution"
  bottom: "pool3/3x3_s2"
  top: "inception_4a/1x1"
  param {
    lr_mult: 1
    decay_mult: 1
  }
  param {
    lr_mult: 2
    decay_mult: 0
  }
  convolution_param {
    num_output: 192
    kernel_size: 1
    weight_filler {
      type: "xavier"
      std: 0.03
    }
    bias_filler {
      type: "constant"
      value: 0.2
    }
  }
}
layer {
  name: "inception_4a/relu_1x1"
  type: "ReLU"
  bottom: "inception_4a/1x1"
  top: "inception_4a/1x1"
}
layer {
  name: "inception_4a/3x3_reduce"
  type: "Convolution"
  bottom: "pool3/3x3_s2"
  top: "inception_4a/3x3_reduce"
  param {
    lr_mult: 1
    decay_mult: 1
  }
  param {
    lr_mult: 2
    decay_mult: 0
  }
  convolution_param {
    num_output: 96
    kernel_size: 1
    weight_filler {
      type: "xavier"
      std: 0.09
    }
    bias_filler {
      type: "constant"
      value: 0.2
    }
  }
}
layer {
  name: "inception_4a/relu_3x3_reduce"
  type: "ReLU"
  bottom: "inception_4a/3x3_reduce"
  top: "inception_4a/3x3_reduce"
}
layer {
  name: "inception_4a/3x3"
  type: "Convolution"
  bottom: "inception_4a/3x3_reduce"
  top: "inception_4a/3x3"
  param {
    lr_mult: 1
    decay_mult: 1
  }
  param {
    lr_mult: 2
    decay_mult: 0
  }
  convolution_param {
    num_output: 208
    pad: 1
    kernel_size: 3
    weight_filler {
      type: "xavier"
      std: 0.03
    }
    bias_filler {
      type: "constant"
      value: 0.2
    }
  }
}
layer {
  name: "inception_4a/relu_3x3"
  type: "ReLU"
  bottom: "inception_4a/3x3"
  top: "inception_4a/3x3"
}
layer {
  name: "inception_4a/5x5_reduce"
  type: "Convolution"
  bottom: "pool3/3x3_s2"
  top: "inception_4a/5x5_reduce"
  param {
    lr_mult: 1
    decay_mult: 1
  }
  param {
    lr_mult: 2
    decay_mult: 0
  }
  convolution_param {
    num_output: 16
    kernel_size: 1
    weight_filler {
      type: "xavier"
      std: 0.2
    }
    bias_filler {
      type: "constant"
      value: 0.2
    }
  }
}
layer {
  name: "inception_4a/relu_5x5_reduce"
  type: "ReLU"
  bottom: "inception_4a/5x5_reduce"
  top: "inception_4a/5x5_reduce"
}
layer {
  name: "inception_4a/5x5"
  type: "Convolution"
  bottom: "inception_4a/5x5_reduce"
  top: "inception_4a/5x5"
  param {
    lr_mult: 1
    decay_mult: 1
  }
  param {
    lr_mult: 2
    decay_mult: 0
  }
  convolution_param {
    num_output: 48
    pad: 2
    kernel_size: 5
    weight_filler {
      type: "xavier"
      std: 0.03
    }
    bias_filler {
      type: "constant"
      value: 0.2
    }
  }
}
layer {
  name: "inception_4a/relu_5x5"
  type: "ReLU"
  bottom: "inception_4a/5x5"
  top: "inception_4a/5x5"
}
layer {
  name: "inception_4a/pool"
  type: "Pooling"
  bottom: "pool3/3x3_s2"
  top: "inception_4a/pool"
  pooling_param {
    pool: MAX
    kernel_size: 3
    stride: 1
    pad: 1
  }
}
layer {
  name: "inception_4a/pool_proj"
  type: "Convolution"
  bottom: "inception_4a/pool"
  top: "inception_4a/pool_proj"
  param {
    lr_mult: 1
    decay_mult: 1
  }
  param {
    lr_mult: 2
    decay_mult: 0
  }
  convolution_param {
    num_output: 64
    kernel_size: 1
    weight_filler {
      type: "xavier"
      std: 0.1
    }
    bias_filler {
      type: "constant"
      value: 0.2
    }
  }
}
layer {
  name: "inception_4a/relu_pool_proj"
  type: "ReLU"
  bottom: "inception_4a/pool_proj"
  top: "inception_4a/pool_proj"
}
layer {
  name: "inception_4a/output"
  type: "Concat"
  bottom: "inception_4a/1x1"
  bottom: "inception_4a/3x3"
  bottom: "inception_4a/5x5"
  bottom: "inception_4a/pool_proj"
  top: "inception_4a/output"
}
layer {
  name: "inception_4b/1x1"
  type: "Convolution"
  bottom: "inception_4a/output"
  top: "inception_4b/1x1"
  param {
    lr_mult: 1
    decay_mult: 1
  }
  param {
    lr_mult: 2
    decay_mult: 0
  }
  convolution_param {
    num_output: 160
    kernel_size: 1
    weight_filler {
      type: "xavier"
      std: 0.03
    }
    bias_filler {
      type: "constant"
      value: 0.2
    }
  }
}
layer {
  name: "inception_4b/relu_1x1"
  type: "ReLU"
  bottom: "inception_4b/1x1"
  top: "inception_4b/1x1"
}
layer {
  name: "inception_4b/3x3_reduce"
  type: "Convolution"
  bottom: "inception_4a/output"
  top: "inception_4b/3x3_reduce"
  param {
    lr_mult: 1
    decay_mult: 1
  }
  param {
    lr_mult: 2
    decay_mult: 0
  }
  convolution_param {
    num_output: 112
    kernel_size: 1
    weight_filler {
      type: "xavier"
      std: 0.09
    }
    bias_filler {
      type: "constant"
      value: 0.2
    }
  }
}
layer {
  name: "inception_4b/relu_3x3_reduce"
  type: "ReLU"
  bottom: "inception_4b/3x3_reduce"
  top: "inception_4b/3x3_reduce"
}
layer {
  name: "inception_4b/3x3"
  type: "Convolution"
  bottom: "inception_4b/3x3_reduce"
  top: "inception_4b/3x3"
  param {
    lr_mult: 1
    decay_mult: 1
  }
  param {
    lr_mult: 2
    decay_mult: 0
  }
  convolution_param {
    num_output: 224
    pad: 1
    kernel_size: 3
    weight_filler {
      type: "xavier"
      std: 0.03
    }
    bias_filler {
      type: "constant"
      value: 0.2
    }
  }
}
layer {
  name: "inception_4b/relu_3x3"
  type: "ReLU"
  bottom: "inception_4b/3x3"
  top: "inception_4b/3x3"
}
layer {
  name: "inception_4b/5x5_reduce"
  type: "Convolution"
  bottom: "inception_4a/output"
  top: "inception_4b/5x5_reduce"
  param {
    lr_mult: 1
    decay_mult: 1
  }
  param {
    lr_mult: 2
    decay_mult: 0
  }
  convolution_param {
    num_output: 24
    kernel_size: 1
    weight_filler {
      type: "xavier"
      std: 0.2
    }
    bias_filler {
      type: "constant"
      value: 0.2
    }
  }
}
layer {
  name: "inception_4b/relu_5x5_reduce"
  type: "ReLU"
  bottom: "inception_4b/5x5_reduce"
  top: "inception_4b/5x5_reduce"
}
layer {
  name: "inception_4b/5x5"
  type: "Convolution"
  bottom: "inception_4b/5x5_reduce"
  top: "inception_4b/5x5"
  param {
    lr_mult: 1
    decay_mult: 1
  }
  param {
    lr_mult: 2
    decay_mult: 0
  }
  convolution_param {
    num_output: 64
    pad: 2
    kernel_size: 5
    weight_filler {
      type: "xavier"
      std: 0.03
    }
    bias_filler {
      type: "constant"
      value: 0.2
    }
  }
}
layer {
  name: "inception_4b/relu_5x5"
  type: "ReLU"
  bottom: "inception_4b/5x5"
  top: "inception_4b/5x5"
}
layer {
  name: "inception_4b/pool"
  type: "Pooling"
  bottom: "inception_4a/output"
  top: "inception_4b/pool"
  pooling_param {
    pool: MAX
    kernel_size: 3
    stride: 1
    pad: 1
  }
}
layer {
  name: "inception_4b/pool_proj"
  type: "Convolution"
  bottom: "inception_4b/pool"
  top: "inception_4b/pool_proj"
  param {
    lr_mult: 1
    decay_mult: 1
  }
  param {
    lr_mult: 2
    decay_mult: 0
  }
  convolution_param {
    num_output: 64
    kernel_size: 1
    weight_filler {
      type: "xavier"
      std: 0.1
    }
    bias_filler {
      type: "constant"
      value: 0.2
    }
  }
}
layer {
  name: "inception_4b/relu_pool_proj"
  type: "ReLU"
  bottom: "inception_4b/pool_proj"
  top: "inception_4b/pool_proj"
}
layer {
  name: "inception_4b/output"
  type: "Concat"
  bottom: "inception_4b/1x1"
  bottom: "inception_4b/3x3"
  bottom: "inception_4b/5x5"
  bottom: "inception_4b/pool_proj"
  top: "inception_4b/output"
}
layer {
  name: "inception_4c/1x1"
  type: "Convolution"
  bottom: "inception_4b/output"
  top: "inception_4c/1x1"
  param {
    lr_mult: 1
    decay_mult: 1
  }
  param {
    lr_mult: 2
    decay_mult: 0
  }
  convolution_param {
    num_output: 128
    kernel_size: 1
    weight_filler {
      type: "xavier"
      std: 0.03
    }
    bias_filler {
      type: "constant"
      value: 0.2
    }
  }
}
layer {
  name: "inception_4c/relu_1x1"
  type: "ReLU"
  bottom: "inception_4c/1x1"
  top: "inception_4c/1x1"
}
layer {
  name: "inception_4c/3x3_reduce"
  type: "Convolution"
  bottom: "inception_4b/output"
  top: "inception_4c/3x3_reduce"
  param {
    lr_mult: 1
    decay_mult: 1
  }
  param {
    lr_mult: 2
    decay_mult: 0
  }
  convolution_param {
    num_output: 128
    kernel_size: 1
    weight_filler {
      type: "xavier"
      std: 0.09
    }
    bias_filler {
      type: "constant"
      value: 0.2
    }
  }
}
layer {
  name: "inception_4c/relu_3x3_reduce"
  type: "ReLU"
  bottom: "inception_4c/3x3_reduce"
  top: "inception_4c/3x3_reduce"
}
layer {
  name: "inception_4c/3x3"
  type: "Convolution"
  bottom: "inception_4c/3x3_reduce"
  top: "inception_4c/3x3"
  param {
    lr_mult: 1
    decay_mult: 1
  }
  param {
    lr_mult: 2
    decay_mult: 0
  }
  convolution_param {
    num_output: 256
    pad: 1
    kernel_size: 3
    weight_filler {
      type: "xavier"
      std: 0.03
    }
    bias_filler {
      type: "constant"
      value: 0.2
    }
  }
}
layer {
  name: "inception_4c/relu_3x3"
  type: "ReLU"
  bottom: "inception_4c/3x3"
  top: "inception_4c/3x3"
}
layer {
  name: "inception_4c/5x5_reduce"
  type: "Convolution"
  bottom: "inception_4b/output"
  top: "inception_4c/5x5_reduce"
  param {
    lr_mult: 1
    decay_mult: 1
  }
  param {
    lr_mult: 2
    decay_mult: 0
  }
  convolution_param {
    num_output: 24
    kernel_size: 1
    weight_filler {
      type: "xavier"
      std: 0.2
    }
    bias_filler {
      type: "constant"
      value: 0.2
    }
  }
}
layer {
  name: "inception_4c/relu_5x5_reduce"
  type: "ReLU"
  bottom: "inception_4c/5x5_reduce"
  top: "inception_4c/5x5_reduce"
}
layer {
  name: "inception_4c/5x5"
  type: "Convolution"
  bottom: "inception_4c/5x5_reduce"
  top: "inception_4c/5x5"
  param {
    lr_mult: 1
    decay_mult: 1
  }
  param {
    lr_mult: 2
    decay_mult: 0
  }
  convolution_param {
    num_output: 64
    pad: 2
    kernel_size: 5
    weight_filler {
      type: "xavier"
      std: 0.03
    }
    bias_filler {
      type: "constant"
      value: 0.2
    }
  }
}
layer {
  name: "inception_4c/relu_5x5"
  type: "ReLU"
  bottom: "inception_4c/5x5"
  top: "inception_4c/5x5"
}
layer {
  name: "inception_4c/pool"
  type: "Pooling"
  bottom: "inception_4b/output"
  top: "inception_4c/pool"
  pooling_param {
    pool: MAX
    kernel_size: 3
    stride: 1
    pad: 1
  }
}
layer {
  name: "inception_4c/pool_proj"
  type: "Convolution"
  bottom: "inception_4c/pool"
  top: "inception_4c/pool_proj"
  param {
    lr_mult: 1
    decay_mult: 1
  }
  param {
    lr_mult: 2
    decay_mult: 0
  }
  convolution_param {
    num_output: 64
    kernel_size: 1
    weight_filler {
      type: "xavier"
      std: 0.1
    }
    bias_filler {
      type: "constant"
      value: 0.2
    }
  }
}
layer {
  name: "inception_4c/relu_pool_proj"
  type: "ReLU"
  bottom: "inception_4c/pool_proj"
  top: "inception_4c/pool_proj"
}
layer {
  name: "inception_4c/output"
  type: "Concat"
  bottom: "inception_4c/1x1"
  bottom: "inception_4c/3x3"
  bottom: "inception_4c/5x5"
  bottom: "inception_4c/pool_proj"
  top: "inception_4c/output"
}
layer {
  name: "inception_4d/1x1"
  type: "Convolution"
  bottom: "inception_4c/output"
  top: "inception_4d/1x1"
  param {
    lr_mult: 1
    decay_mult: 1
  }
  param {
    lr_mult: 2
    decay_mult: 0
  }
  convolution_param {
    num_output: 112
    kernel_size: 1
    weight_filler {
      type: "xavier"
      std: 0.03
    }
    bias_filler {
      type: "constant"
      value: 0.2
    }
  }
}
layer {
  name: "inception_4d/relu_1x1"
  type: "ReLU"
  bottom: "inception_4d/1x1"
  top: "inception_4d/1x1"
}
layer {
  name: "inception_4d/3x3_reduce"
  type: "Convolution"
  bottom: "inception_4c/output"
  top: "inception_4d/3x3_reduce"
  param {
    lr_mult: 1
    decay_mult: 1
  }
  param {
    lr_mult: 2
    decay_mult: 0
  }
  convolution_param {
    num_output: 144
    kernel_size: 1
    weight_filler {
      type: "xavier"
      std: 0.09
    }
    bias_filler {
      type: "constant"
      value: 0.2
    }
  }
}
layer {
  name: "inception_4d/relu_3x3_reduce"
  type: "ReLU"
  bottom: "inception_4d/3x3_reduce"
  top: "inception_4d/3x3_reduce"
}
layer {
  name: "inception_4d/3x3"
  type: "Convolution"
  bottom: "inception_4d/3x3_reduce"
  top: "inception_4d/3x3"
  param {
    lr_mult: 1
    decay_mult: 1
  }
  param {
    lr_mult: 2
    decay_mult: 0
  }
  convolution_param {
    num_output: 288
    pad: 1
    kernel_size: 3
    weight_filler {
      type: "xavier"
      std: 0.03
    }
    bias_filler {
      type: "constant"
      value: 0.2
    }
  }
}
layer {
  name: "inception_4d/relu_3x3"
  type: "ReLU"
  bottom: "inception_4d/3x3"
  top: "inception_4d/3x3"
}
layer {
  name: "inception_4d/5x5_reduce"
  type: "Convolution"
  bottom: "inception_4c/output"
  top: "inception_4d/5x5_reduce"
  param {
    lr_mult: 1
    decay_mult: 1
  }
  param {
    lr_mult: 2
    decay_mult: 0
  }
  convolution_param {
    num_output: 32
    kernel_size: 1
    weight_filler {
      type: "xavier"
      std: 0.2
    }
    bias_filler {
      type: "constant"
      value: 0.2
    }
  }
}
layer {
  name: "inception_4d/relu_5x5_reduce"
  type: "ReLU"
  bottom: "inception_4d/5x5_reduce"
  top: "inception_4d/5x5_reduce"
}
layer {
  name: "inception_4d/5x5"
  type: "Convolution"
  bottom: "inception_4d/5x5_reduce"
  top: "inception_4d/5x5"
  param {
    lr_mult: 1
    decay_mult: 1
  }
  param {
    lr_mult: 2
    decay_mult: 0
  }
  convolution_param {
    num_output: 64
    pad: 2
    kernel_size: 5
    weight_filler {
      type: "xavier"
      std: 0.03
    }
    bias_filler {
      type: "constant"
      value: 0.2
    }
  }
}
layer {
  name: "inception_4d/relu_5x5"
  type: "ReLU"
  bottom: "inception_4d/5x5"
  top: "inception_4d/5x5"
}
layer {
  name: "inception_4d/pool"
  type: "Pooling"
  bottom: "inception_4c/output"
  top: "inception_4d/pool"
  pooling_param {
    pool: MAX
    kernel_size: 3
    stride: 1
    pad: 1
  }
}
layer {
  name: "inception_4d/pool_proj"
  type: "Convolution"
  bottom: "inception_4d/pool"
  top: "inception_4d/pool_proj"
  param {
    lr_mult: 1
    decay_mult: 1
  }
  param {
    lr_mult: 2
    decay_mult: 0
  }
  convolution_param {
    num_output: 64
    kernel_size: 1
    weight_filler {
      type: "xavier"
      std: 0.1
    }
    bias_filler {
      type: "constant"
      value: 0.2
    }
  }
}
layer {
  name: "inception_4d/relu_pool_proj"
  type: "ReLU"
  bottom: "inception_4d/pool_proj"
  top: "inception_4d/pool_proj"
}
layer {
  name: "inception_4d/output"
  type: "Concat"
  bottom: "inception_4d/1x1"
  bottom: "inception_4d/3x3"
  bottom: "inception_4d/5x5"
  bottom: "inception_4d/pool_proj"
  top: "inception_4d/output"
}
layer {
  name: "inception_4e/1x1"
  type: "Convolution"
  bottom: "inception_4d/output"
  top: "inception_4e/1x1"
  param {
    lr_mult: 1
    decay_mult: 1
  }
  param {
    lr_mult: 2
    decay_mult: 0
  }
  convolution_param {
    num_output: 256
    kernel_size: 1
    weight_filler {
      type: "xavier"
      std: 0.03
    }
    bias_filler {
      type: "constant"
      value: 0.2
    }
  }
}
layer {
  name: "inception_4e/relu_1x1"
  type: "ReLU"
  bottom: "inception_4e/1x1"
  top: "inception_4e/1x1"
}
layer {
  name: "inception_4e/3x3_reduce"
  type: "Convolution"
  bottom: "inception_4d/output"
  top: "inception_4e/3x3_reduce"
  param {
    lr_mult: 1
    decay_mult: 1
  }
  param {
    lr_mult: 2
    decay_mult: 0
  }
  convolution_param {
    num_output: 160
    kernel_size: 1
    weight_filler {
      type: "xavier"
      std: 0.09
    }
    bias_filler {
      type: "constant"
      value: 0.2
    }
  }
}
layer {
  name: "inception_4e/relu_3x3_reduce"
  type: "ReLU"
  bottom: "inception_4e/3x3_reduce"
  top: "inception_4e/3x3_reduce"
}
layer {
  name: "inception_4e/3x3"
  type: "Convolution"
  bottom: "inception_4e/3x3_reduce"
  top: "inception_4e/3x3"
  param {
    lr_mult: 1
    decay_mult: 1
  }
  param {
    lr_mult: 2
    decay_mult: 0
  }
  convolution_param {
    num_output: 320
    pad: 1
    kernel_size: 3
    weight_filler {
      type: "xavier"
      std: 0.03
    }
    bias_filler {
      type: "constant"
      value: 0.2
    }
  }
}
layer {
  name: "inception_4e/relu_3x3"
  type: "ReLU"
  bottom: "inception_4e/3x3"
  top: "inception_4e/3x3"
}
layer {
  name: "inception_4e/5x5_reduce"
  type: "Convolution"
  bottom: "inception_4d/output"
  top: "inception_4e/5x5_reduce"
  param {
    lr_mult: 1
    decay_mult: 1
  }
  param {
    lr_mult: 2
    decay_mult: 0
  }
  convolution_param {
    num_output: 32
    kernel_size: 1
    weight_filler {
      type: "xavier"
      std: 0.2
    }
    bias_filler {
      type: "constant"
      value: 0.2
    }
  }
}
layer {
  name: "inception_4e/relu_5x5_reduce"
  type: "ReLU"
  bottom: "inception_4e/5x5_reduce"
  top: "inception_4e/5x5_reduce"
}
layer {
  name: "inception_4e/5x5"
  type: "Convolution"
  bottom: "inception_4e/5x5_reduce"
  top: "inception_4e/5x5"
  param {
    lr_mult: 1
    decay_mult: 1
  }
  param {
    lr_mult: 2
    decay_mult: 0
  }
  convolution_param {
    num_output: 128
    pad: 2
    kernel_size: 5
    weight_filler {
      type: "xavier"
      std: 0.03
    }
    bias_filler {
      type: "constant"
      value: 0.2
    }
  }
}
layer {
  name: "inception_4e/relu_5x5"
  type: "ReLU"
  bottom: "inception_4e/5x5"
  top: "inception_4e/5x5"
}
layer {
  name: "inception_4e/pool"
  type: "Pooling"
  bottom: "inception_4d/output"
  top: "inception_4e/pool"
  pooling_param {
    pool: MAX
    kernel_size: 3
    stride: 1
    pad: 1
  }
}
layer {
  name: "inception_4e/pool_proj"
  type: "Convolution"
  bottom: "inception_4e/pool"
  top: "inception_4e/pool_proj"
  param {
    lr_mult: 1
    decay_mult: 1
  }
  param {
    lr_mult: 2
    decay_mult: 0
  }
  convolution_param {
    num_output: 128
    kernel_size: 1
    weight_filler {
      type: "xavier"
      std: 0.1
    }
    bias_filler {
      type: "constant"
      value: 0.2
    }
  }
}
layer {
  name: "inception_4e/relu_pool_proj"
  type: "ReLU"
  bottom: "inception_4e/pool_proj"
  top: "inception_4e/pool_proj"
}
layer {
  name: "inception_4e/output"
  type: "Concat"
  bottom: "inception_4e/1x1"
  bottom: "inception_4e/3x3"
  bottom: "inception_4e/5x5"
  bottom: "inception_4e/pool_proj"
  top: "inception_4e/output"
}
layer {
  name: "pool4/3x3_s2"
  type: "Pooling"
  bottom: "inception_4e/output"
  top: "pool4/3x3_s2"
  pooling_param {
    pool: MAX
    kernel_size: 3
    stride: 2
  }
}
layer {
  name: "inception_5a/1x1"
  type: "Convolution"
  bottom: "pool4/3x3_s2"
  top: "inception_5a/1x1"
  param {
    lr_mult: 1
    decay_mult: 1
  }
  param {
    lr_mult: 2
    decay_mult: 0
  }
  convolution_param {
    num_output: 256
    kernel_size: 1
    weight_filler {
      type: "xavier"
      std: 0.03
    }
    bias_filler {
      type: "constant"
      value: 0.2
    }
  }
}
layer {
  name: "inception_5a/relu_1x1"
  type: "ReLU"
  bottom: "inception_5a/1x1"
  top: "inception_5a/1x1"
}
layer {
  name: "inception_5a/3x3_reduce"
  type: "Convolution"
  bottom: "pool4/3x3_s2"
  top: "inception_5a/3x3_reduce"
  param {
    lr_mult: 1
    decay_mult: 1
  }
  param {
    lr_mult: 2
    decay_mult: 0
  }
  convolution_param {
    num_output: 160
    kernel_size: 1
    weight_filler {
      type: "xavier"
      std: 0.09
    }
    bias_filler {
      type: "constant"
      value: 0.2
    }
  }
}
layer {
  name: "inception_5a/relu_3x3_reduce"
  type: "ReLU"
  bottom: "inception_5a/3x3_reduce"
  top: "inception_5a/3x3_reduce"
}
layer {
  name: "inception_5a/3x3"
  type: "Convolution"
  bottom: "inception_5a/3x3_reduce"
  top: "inception_5a/3x3"
  param {
    lr_mult: 1
    decay_mult: 1
  }
  param {
    lr_mult: 2
    decay_mult: 0
  }
  convolution_param {
    num_output: 320
    pad: 1
    kernel_size: 3
    weight_filler {
      type: "xavier"
      std: 0.03
    }
    bias_filler {
      type: "constant"
      value: 0.2
    }
  }
}
layer {
  name: "inception_5a/relu_3x3"
  type: "ReLU"
  bottom: "inception_5a/3x3"
  top: "inception_5a/3x3"
}
layer {
  name: "inception_5a/5x5_reduce"
  type: "Convolution"
  bottom: "pool4/3x3_s2"
  top: "inception_5a/5x5_reduce"
  param {
    lr_mult: 1
    decay_mult: 1
  }
  param {
    lr_mult: 2
    decay_mult: 0
  }
  convolution_param {
    num_output: 32
    kernel_size: 1
    weight_filler {
      type: "xavier"
      std: 0.2
    }
    bias_filler {
      type: "constant"
      value: 0.2
    }
I0714 21:27:39.738600 28909 layer_factory.hpp:77] Creating layer data
I0714 21:27:39.738653 28909 net.cpp:91] Creating Layer data
I0714 21:27:39.738665 28909 net.cpp:399] data -> data
I0714 21:27:39.745867 28913 net.cpp:49] Initializing net from parameters: 
name: "GoogleNet"
state {
  phase: TEST
}
layer {
  name: "data"
  type: "Input"
  top: "data"
  input_param {
    shape {
      dim: 10
      dim: 3
      dim: 224
      dim: 224
    }
  }
}
layer {
  name: "conv1/7x7_s2"
  type: "Convolution"
  bottom: "data"
  top: "conv1/7x7_s2"
  param {
    lr_mult: 1
    decay_mult: 1
  }
  param {
    lr_mult: 2
    decay_mult: 0
  }
  convolution_param {
    num_output: 64
    pad: 3
    kernel_size: 7
    stride: 2
    weight_filler {
      type: "xavier"
      std: 0.1
    }
    bias_filler {
      type: "constant"
      value: 0.2
    }
  }
}
layer {
  name: "conv1/relu_7x7"
  type: "ReLU"
  bottom: "conv1/7x7_s2"
  top: "conv1/7x7_s2"
}
layer {
  name: "pool1/3x3_s2"
  type: "Pooling"
  bottom: "conv1/7x7_s2"
  top: "pool1/3x3_s2"
  pooling_param {
    pool: MAX
    kernel_size: 3
    stride: 2
  }
}
layer {
  name: "pool1/norm1"
  type: "LRN"
  bottom: "pool1/3x3_s2"
  top: "pool1/norm1"
  lrn_param {
    local_size: 5
    alpha: 0.0001
    beta: 0.75
  }
}
layer {
  name: "conv2/3x3_reduce"
  type: "Convolution"
  bottom: "pool1/norm1"
  top: "conv2/3x3_reduce"
  param {
    lr_mult: 1
    decay_mult: 1
  }
  param {
    lr_mult: 2
    decay_mult: 0
  }
  convolution_param {
    num_output: 64
    kernel_size: 1
    weight_filler {
      type: "xavier"
      std: 0.1
    }
    bias_filler {
      type: "constant"
      value: 0.2
    }
  }
}
layer {
  name: "conv2/relu_3x3_reduce"
  type: "ReLU"
  bottom: "conv2/3x3_reduce"
  top: "conv2/3x3_reduce"
}
layer {
  name: "conv2/3x3"
  type: "Convolution"
  bottom: "conv2/3x3_reduce"
  top: "conv2/3x3"
  param {
    lr_mult: 1
    decay_mult: 1
  }
  param {
    lr_mult: 2
    decay_mult: 0
  }
  convolution_param {
    num_output: 192
    pad: 1
    kernel_size: 3
    weight_filler {
      type: "xavier"
      std: 0.03
    }
    bias_filler {
      type: "constant"
      value: 0.2
    }
  }
}
layer {
  name: "conv2/relu_3x3"
  type: "ReLU"
  bottom: "conv2/3x3"
  top: "conv2/3x3"
}
layer {
  name: "conv2/norm2"
  type: "LRN"
  bottom: "conv2/3x3"
  top: "conv2/norm2"
  lrn_param {
    local_size: 5
    alpha: 0.0001
    beta: 0.75
  }
}
layer {
  name: "pool2/3x3_s2"
  type: "Pooling"
  bottom: "conv2/norm2"
  top: "pool2/3x3_s2"
  pooling_param {
    pool: MAX
    kernel_size: 3
    stride: 2
  }
}
layer {
  name: "inception_3a/1x1"
  type: "Convolution"
  bottom: "pool2/3x3_s2"
  top: "inception_3a/1x1"
  param {
    lr_mult: 1
    decay_mult: 1
  }
  param {
    lr_mult: 2
    decay_mult: 0
  }
  convolution_param {
    num_output: 64
    kernel_size: 1
    weight_filler {
      type: "xavier"
      std: 0.03
    }
    bias_filler {
      type: "constant"
      value: 0.2
    }
  }
}
layer {
  name: "inception_3a/relu_1x1"
  type: "ReLU"
  bottom: "inception_3a/1x1"
  top: "inception_3a/1x1"
}
layer {
  name: "inception_3a/3x3_reduce"
  type: "Convolution"
  bottom: "pool2/3x3_s2"
  top: "inception_3a/3x3_reduce"
  param {
    lr_mult: 1
    decay_mult: 1
  }
  param {
    lr_mult: 2
    decay_mult: 0
  }
  convolution_param {
    num_output: 96
    kernel_size: 1
    weight_filler {
      type: "xavier"
      std: 0.09
    }
    bias_filler {
      type: "constant"
      value: 0.2
    }
  }
}
layer {
  name: "inception_3a/relu_3x3_reduce"
  type: "ReLU"
  bottom: "inception_3a/3x3_reduce"
  top: "inception_3a/3x3_reduce"
}
layer {
  name: "inception_3a/3x3"
  type: "Convolution"
  bottom: "inception_3a/3x3_reduce"
  top: "inception_3a/3x3"
  param {
    lr_mult: 1
    decay_mult: 1
  }
  param {
    lr_mult: 2
    decay_mult: 0
  }
  convolution_param {
    num_output: 128
    pad: 1
    kernel_size: 3
    weight_filler {
      type: "xavier"
      std: 0.03
    }
    bias_filler {
      type: "constant"
      value: 0.2
    }
  }
}
layer {
  name: "inception_3a/relu_3x3"
  type: "ReLU"
  bottom: "inception_3a/3x3"
  top: "inception_3a/3x3"
}
layer {
  name: "inception_3a/5x5_reduce"
  type: "Convolution"
  bottom: "pool2/3x3_s2"
  top: "inception_3a/5x5_reduce"
  param {
    lr_mult: 1
    decay_mult: 1
  }
  param {
    lr_mult: 2
    decay_mult: 0
  }
  convolution_param {
    num_output: 16
    kernel_size: 1
    weight_filler {
      type: "xavier"
      std: 0.2
    }
    bias_filler {
      type: "constant"
      value: 0.2
    }
  }
}
layer {
  name: "inception_3a/relu_5x5_reduce"
  type: "ReLU"
  bottom: "inception_3a/5x5_reduce"
  top: "inception_3a/5x5_reduce"
}
layer {
  name: "inception_3a/5x5"
  type: "Convolution"
  bottom: "inception_3a/5x5_reduce"
  top: "inception_3a/5x5"
  param {
    lr_mult: 1
    decay_mult: 1
  }
  param {
    lr_mult: 2
    decay_mult: 0
  }
  convolution_param {
    num_output: 32
    pad: 2
    kernel_size: 5
    weight_filler {
      type: "xavier"
      std: 0.03
    }
    bias_filler {
      type: "constant"
      value: 0.2
    }
  }
}
layer {
  name: "inception_3a/relu_5x5"
  type: "ReLU"
  bottom: "inception_3a/5x5"
  top: "inception_3a/5x5"
}
layer {
  name: "inception_3a/pool"
  type: "Pooling"
  bottom: "pool2/3x3_s2"
  top: "inception_3a/pool"
  pooling_param {
    pool: MAX
    kernel_size: 3
    stride: 1
    pad: 1
  }
}
layer {
  name: "inception_3a/pool_proj"
  type: "Convolution"
  bottom: "inception_3a/pool"
  top: "inception_3a/pool_proj"
  param {
    lr_mult: 1
    decay_mult: 1
  }
  param {
    lr_mult: 2
    decay_mult: 0
  }
  convolution_param {
    num_output: 32
    kernel_size: 1
    weight_filler {
      type: "xavier"
      std: 0.1
    }
    bias_filler {
      type: "constant"
      value: 0.2
    }
  }
}
layer {
  name: "inception_3a/relu_pool_proj"
  type: "ReLU"
  bottom: "inception_3a/pool_proj"
  top: "inception_3a/pool_proj"
}
layer {
  name: "inception_3a/output"
  type: "Concat"
  bottom: "inception_3a/1x1"
  bottom: "inception_3a/3x3"
  bottom: "inception_3a/5x5"
  bottom: "inception_3a/pool_proj"
  top: "inception_3a/output"
}
layer {
  name: "inception_3b/1x1"
  type: "Convolution"
  bottom: "inception_3a/output"
  top: "inception_3b/1x1"
  param {
    lr_mult: 1
    decay_mult: 1
  }
  param {
    lr_mult: 2
    decay_mult: 0
  }
  convolution_param {
    num_output: 128
    kernel_size: 1
    weight_filler {
      type: "xavier"
      std: 0.03
    }
    bias_filler {
      type: "constant"
      value: 0.2
    }
  }
}
layer {
  name: "inception_3b/relu_1x1"
  type: "ReLU"
  bottom: "inception_3b/1x1"
  top: "inception_3b/1x1"
}
layer {
  name: "inception_3b/3x3_reduce"
  type: "Convolution"
  bottom: "inception_3a/output"
  top: "inception_3b/3x3_reduce"
  param {
    lr_mult: 1
    decay_mult: 1
  }
  param {
    lr_mult: 2
    decay_mult: 0
  }
  convolution_param {
    num_output: 128
    kernel_size: 1
    weight_filler {
      type: "xavier"
      std: 0.09
    }
    bias_filler {
      type: "constant"
      value: 0.2
    }
  }
}
layer {
  name: "inception_3b/relu_3x3_reduce"
  type: "ReLU"
  bottom: "inception_3b/3x3_reduce"
  top: "inception_3b/3x3_reduce"
}
layer {
  name: "inception_3b/3x3"
  type: "Convolution"
  bottom: "inception_3b/3x3_reduce"
  top: "inception_3b/3x3"
  param {
    lr_mult: 1
    decay_mult: 1
  }
  param {
    lr_mult: 2
    decay_mult: 0
  }
  convolution_param {
    num_output: 192
    pad: 1
    kernel_size: 3
    weight_filler {
      type: "xavier"
      std: 0.03
    }
    bias_filler {
      type: "constant"
      value: 0.2
    }
  }
}
layer {
  name: "inception_3b/relu_3x3"
  type: "ReLU"
  bottom: "inception_3b/3x3"
  top: "inception_3b/3x3"
}
layer {
  name: "inception_3b/5x5_reduce"
  type: "Convolution"
  bottom: "inception_3a/output"
  top: "inception_3b/5x5_reduce"
  param {
    lr_mult: 1
    decay_mult: 1
  }
  param {
    lr_mult: 2
    decay_mult: 0
  }
  convolution_param {
    num_output: 32
    kernel_size: 1
    weight_filler {
      type: "xavier"
      std: 0.2
    }
    bias_filler {
      type: "constant"
      value: 0.2
    }
  }
}
layer {
  name: "inception_3b/relu_5x5_reduce"
  type: "ReLU"
  bottom: "inception_3b/5x5_reduce"
  top: "inception_3b/5x5_reduce"
}
layer {
  name: "inception_3b/5x5"
  type: "Convolution"
  bottom: "inception_3b/5x5_reduce"
  top: "inception_3b/5x5"
  param {
    lr_mult: 1
    decay_mult: 1
  }
  param {
    lr_mult: 2
    decay_mult: 0
  }
  convolution_param {
    num_output: 96
    pad: 2
    kernel_size: 5
    weight_filler {
      type: "xavier"
      std: 0.03
    }
    bias_filler {
      type: "constant"
      value: 0.2
    }
  }
}
layer {
  name: "inception_3b/relu_5x5"
  type: "ReLU"
  bottom: "inception_3b/5x5"
  top: "inception_3b/5x5"
}
layer {
  name: "inception_3b/pool"
  type: "Pooling"
  bottom: "inception_3a/output"
  top: "inception_3b/pool"
  pooling_param {
    pool: MAX
    kernel_size: 3
    stride: 1
    pad: 1
  }
}
layer {
  name: "inception_3b/pool_proj"
  type: "Convolution"
  bottom: "inception_3b/pool"
  top: "inception_3b/pool_proj"
  param {
    lr_mult: 1
    decay_mult: 1
  }
  param {
    lr_mult: 2
    decay_mult: 0
  }
  convolution_param {
    num_output: 64
    kernel_size: 1
    weight_filler {
      type: "xavier"
      std: 0.1
    }
    bias_filler {
      type: "constant"
      value: 0.2
    }
  }
}
layer {
  name: "inception_3b/relu_pool_proj"
  type: "ReLU"
  bottom: "inception_3b/pool_proj"
  top: "inception_3b/pool_proj"
}
layer {
  name: "inception_3b/output"
  type: "Concat"
  bottom: "inception_3b/1x1"
  bottom: "inception_3b/3x3"
  bottom: "inception_3b/5x5"
  bottom: "inception_3b/pool_proj"
  top: "inception_3b/output"
}
layer {
  name: "pool3/3x3_s2"
  type: "Pooling"
  bottom: "inception_3b/output"
  top: "pool3/3x3_s2"
  pooling_param {
    pool: MAX
    kernel_size: 3
    stride: 2
  }
}
layer {
  name: "inception_4a/1x1"
  type: "Convolution"
  bottom: "pool3/3x3_s2"
  top: "inception_4a/1x1"
  param {
    lr_mult: 1
    decay_mult: 1
  }
  param {
    lr_mult: 2
    decay_mult: 0
  }
  convolution_param {
    num_output: 192
    kernel_size: 1
    weight_filler {
      type: "xavier"
      std: 0.03
    }
    bias_filler {
      type: "constant"
      value: 0.2
    }
  }
}
layer {
  name: "inception_4a/relu_1x1"
  type: "ReLU"
  bottom: "inception_4a/1x1"
  top: "inception_4a/1x1"
}
layer {
  name: "inception_4a/3x3_reduce"
  type: "Convolution"
  bottom: "pool3/3x3_s2"
  top: "inception_4a/3x3_reduce"
  param {
    lr_mult: 1
    decay_mult: 1
  }
  param {
    lr_mult: 2
    decay_mult: 0
  }
  convolution_param {
    num_output: 96
    kernel_size: 1
    weight_filler {
      type: "xavier"
      std: 0.09
    }
    bias_filler {
      type: "constant"
      value: 0.2
    }
  }
}
layer {
  name: "inception_4a/relu_3x3_reduce"
  type: "ReLU"
  bottom: "inception_4a/3x3_reduce"
  top: "inception_4a/3x3_reduce"
}
layer {
  name: "inception_4a/3x3"
  type: "Convolution"
  bottom: "inception_4a/3x3_reduce"
  top: "inception_4a/3x3"
  param {
    lr_mult: 1
    decay_mult: 1
  }
  param {
    lr_mult: 2
    decay_mult: 0
  }
  convolution_param {
    num_output: 208
    pad: 1
    kernel_size: 3
    weight_filler {
      type: "xavier"
      std: 0.03
    }
    bias_filler {
      type: "constant"
      value: 0.2
    }
  }
}
layer {
  name: "inception_4a/relu_3x3"
  type: "ReLU"
  bottom: "inception_4a/3x3"
  top: "inception_4a/3x3"
}
layer {
  name: "inception_4a/5x5_reduce"
  type: "Convolution"
  bottom: "pool3/3x3_s2"
  top: "inception_4a/5x5_reduce"
  param {
    lr_mult: 1
    decay_mult: 1
  }
  param {
    lr_mult: 2
    decay_mult: 0
  }
  convolution_param {
    num_output: 16
    kernel_size: 1
    weight_filler {
      type: "xavier"
      std: 0.2
    }
    bias_filler {
      type: "constant"
      value: 0.2
    }
  }
}
layer {
  name: "inception_4a/relu_5x5_reduce"
  type: "ReLU"
  bottom: "inception_4a/5x5_reduce"
  top: "inception_4a/5x5_reduce"
}
layer {
  name: "inception_4a/5x5"
  type: "Convolution"
  bottom: "inception_4a/5x5_reduce"
  top: "inception_4a/5x5"
  param {
    lr_mult: 1
    decay_mult: 1
  }
  param {
    lr_mult: 2
    decay_mult: 0
  }
  convolution_param {
    num_output: 48
    pad: 2
    kernel_size: 5
    weight_filler {
      type: "xavier"
      std: 0.03
    }
    bias_filler {
      type: "constant"
      value: 0.2
    }
  }
}
layer {
  name: "inception_4a/relu_5x5"
  type: "ReLU"
  bottom: "inception_4a/5x5"
  top: "inception_4a/5x5"
}
layer {
  name: "inception_4a/pool"
  type: "Pooling"
  bottom: "pool3/3x3_s2"
  top: "inception_4a/pool"
  pooling_param {
    pool: MAX
    kernel_size: 3
    stride: 1
    pad: 1
  }
}
layer {
  name: "inception_4a/pool_proj"
  type: "Convolution"
  bottom: "inception_4a/pool"
  top: "inception_4a/pool_proj"
  param {
    lr_mult: 1
    decay_mult: 1
  }
  param {
    lr_mult: 2
    decay_mult: 0
  }
  convolution_param {
    num_output: 64
    kernel_size: 1
    weight_filler {
      type: "xavier"
      std: 0.1
    }
    bias_filler {
      type: "constant"
      value: 0.2
    }
  }
}
layer {
  name: "inception_4a/relu_pool_proj"
  type: "ReLU"
  bottom: "inception_4a/pool_proj"
  top: "inception_4a/pool_proj"
}
layer {
  name: "inception_4a/output"
  type: "Concat"
  bottom: "inception_4a/1x1"
  bottom: "inception_4a/3x3"
  bottom: "inception_4a/5x5"
  bottom: "inception_4a/pool_proj"
  top: "inception_4a/output"
}
layer {
  name: "inception_4b/1x1"
  type: "Convolution"
  bottom: "inception_4a/output"
  top: "inception_4b/1x1"
  param {
    lr_mult: 1
    decay_mult: 1
  }
  param {
    lr_mult: 2
    decay_mult: 0
  }
  convolution_param {
    num_output: 160
    kernel_size: 1
    weight_filler {
      type: "xavier"
      std: 0.03
    }
    bias_filler {
      type: "constant"
      value: 0.2
    }
  }
}
layer {
  name: "inception_4b/relu_1x1"
  type: "ReLU"
  bottom: "inception_4b/1x1"
  top: "inception_4b/1x1"
}
layer {
  name: "inception_4b/3x3_reduce"
  type: "Convolution"
  bottom: "inception_4a/output"
  top: "inception_4b/3x3_reduce"
  param {
    lr_mult: 1
    decay_mult: 1
  }
  param {
    lr_mult: 2
    decay_mult: 0
  }
  convolution_param {
    num_output: 112
    kernel_size: 1
    weight_filler {
      type: "xavier"
      std: 0.09
    }
    bias_filler {
      type: "constant"
      value: 0.2
    }
  }
}
layer {
  name: "inception_4b/relu_3x3_reduce"
  type: "ReLU"
  bottom: "inception_4b/3x3_reduce"
  top: "inception_4b/3x3_reduce"
}
layer {
  name: "inception_4b/3x3"
  type: "Convolution"
  bottom: "inception_4b/3x3_reduce"
  top: "inception_4b/3x3"
  param {
    lr_mult: 1
    decay_mult: 1
  }
  param {
    lr_mult: 2
    decay_mult: 0
  }
  convolution_param {
    num_output: 224
    pad: 1
    kernel_size: 3
    weight_filler {
      type: "xavier"
      std: 0.03
    }
    bias_filler {
      type: "constant"
      value: 0.2
    }
  }
}
layer {
  name: "inception_4b/relu_3x3"
  type: "ReLU"
  bottom: "inception_4b/3x3"
  top: "inception_4b/3x3"
}
layer {
  name: "inception_4b/5x5_reduce"
  type: "Convolution"
  bottom: "inception_4a/output"
  top: "inception_4b/5x5_reduce"
  param {
    lr_mult: 1
    decay_mult: 1
  }
  param {
    lr_mult: 2
    decay_mult: 0
  }
  convolution_param {
    num_output: 24
    kernel_size: 1
    weight_filler {
      type: "xavier"
      std: 0.2
    }
    bias_filler {
      type: "constant"
      value: 0.2
    }
  }
}
layer {
  name: "inception_4b/relu_5x5_reduce"
  type: "ReLU"
  bottom: "inception_4b/5x5_reduce"
  top: "inception_4b/5x5_reduce"
}
layer {
  name: "inception_4b/5x5"
  type: "Convolution"
  bottom: "inception_4b/5x5_reduce"
  top: "inception_4b/5x5"
  param {
    lr_mult: 1
    decay_mult: 1
  }
  param {
    lr_mult: 2
    decay_mult: 0
  }
  convolution_param {
    num_output: 64
    pad: 2
    kernel_size: 5
    weight_filler {
      type: "xavier"
      std: 0.03
    }
    bias_filler {
      type: "constant"
      value: 0.2
    }
  }
}
layer {
  name: "inception_4b/relu_5x5"
  type: "ReLU"
  bottom: "inception_4b/5x5"
  top: "inception_4b/5x5"
}
layer {
  name: "inception_4b/pool"
  type: "Pooling"
  bottom: "inception_4a/output"
  top: "inception_4b/pool"
  pooling_param {
    pool: MAX
    kernel_size: 3
    stride: 1
    pad: 1
  }
}
layer {
  name: "inception_4b/pool_proj"
  type: "Convolution"
  bottom: "inception_4b/pool"
  top: "inception_4b/pool_proj"
  param {
    lr_mult: 1
    decay_mult: 1
  }
  param {
    lr_mult: 2
    decay_mult: 0
  }
  convolution_param {
    num_output: 64
    kernel_size: 1
    weight_filler {
      type: "xavier"
      std: 0.1
    }
    bias_filler {
      type: "constant"
      value: 0.2
    }
  }
}
layer {
  name: "inception_4b/relu_pool_proj"
  type: "ReLU"
  bottom: "inception_4b/pool_proj"
  top: "inception_4b/pool_proj"
}
layer {
  name: "inception_4b/output"
  type: "Concat"
  bottom: "inception_4b/1x1"
  bottom: "inception_4b/3x3"
  bottom: "inception_4b/5x5"
  bottom: "inception_4b/pool_proj"
  top: "inception_4b/output"
}
layer {
  name: "inception_4c/1x1"
  type: "Convolution"
  bottom: "inception_4b/output"
  top: "inception_4c/1x1"
  param {
    lr_mult: 1
    decay_mult: 1
  }
  param {
    lr_mult: 2
    decay_mult: 0
  }
  convolution_param {
    num_output: 128
    kernel_size: 1
    weight_filler {
      type: "xavier"
      std: 0.03
    }
    bias_filler {
      type: "constant"
      value: 0.2
    }
  }
}
layer {
  name: "inception_4c/relu_1x1"
  type: "ReLU"
  bottom: "inception_4c/1x1"
  top: "inception_4c/1x1"
}
layer {
  name: "inception_4c/3x3_reduce"
  type: "Convolution"
  bottom: "inception_4b/output"
  top: "inception_4c/3x3_reduce"
  param {
    lr_mult: 1
    decay_mult: 1
  }
  param {
    lr_mult: 2
    decay_mult: 0
  }
  convolution_param {
    num_output: 128
    kernel_size: 1
    weight_filler {
      type: "xavier"
      std: 0.09
    }
    bias_filler {
      type: "constant"
      value: 0.2
    }
  }
}
layer {
  name: "inception_4c/relu_3x3_reduce"
  type: "ReLU"
  bottom: "inception_4c/3x3_reduce"
  top: "inception_4c/3x3_reduce"
}
layer {
  name: "inception_4c/3x3"
  type: "Convolution"
  bottom: "inception_4c/3x3_reduce"
  top: "inception_4c/3x3"
  param {
    lr_mult: 1
    decay_mult: 1
  }
  param {
    lr_mult: 2
    decay_mult: 0
  }
  convolution_param {
    num_output: 256
    pad: 1
    kernel_size: 3
    weight_filler {
      type: "xavier"
      std: 0.03
    }
    bias_filler {
      type: "constant"
      value: 0.2
    }
  }
}
layer {
  name: "inception_4c/relu_3x3"
  type: "ReLU"
  bottom: "inception_4c/3x3"
  top: "inception_4c/3x3"
}
layer {
  name: "inception_4c/5x5_reduce"
  type: "Convolution"
  bottom: "inception_4b/output"
  top: "inception_4c/5x5_reduce"
  param {
    lr_mult: 1
    decay_mult: 1
  }
  param {
    lr_mult: 2
    decay_mult: 0
  }
  convolution_param {
    num_output: 24
    kernel_size: 1
    weight_filler {
      type: "xavier"
      std: 0.2
    }
    bias_filler {
      type: "constant"
      value: 0.2
    }
  }
}
layer {
  name: "inception_4c/relu_5x5_reduce"
  type: "ReLU"
  bottom: "inception_4c/5x5_reduce"
  top: "inception_4c/5x5_reduce"
}
layer {
  name: "inception_4c/5x5"
  type: "Convolution"
  bottom: "inception_4c/5x5_reduce"
  top: "inception_4c/5x5"
  param {
    lr_mult: 1
    decay_mult: 1
  }
  param {
    lr_mult: 2
    decay_mult: 0
  }
  convolution_param {
    num_output: 64
    pad: 2
    kernel_size: 5
    weight_filler {
      type: "xavier"
      std: 0.03
    }
    bias_filler {
      type: "constant"
      value: 0.2
    }
  }
}
layer {
  name: "inception_4c/relu_5x5"
  type: "ReLU"
  bottom: "inception_4c/5x5"
  top: "inception_4c/5x5"
}
layer {
  name: "inception_4c/pool"
  type: "Pooling"
  bottom: "inception_4b/output"
  top: "inception_4c/pool"
  pooling_param {
    pool: MAX
    kernel_size: 3
    stride: 1
    pad: 1
  }
}
layer {
  name: "inception_4c/pool_proj"
  type: "Convolution"
  bottom: "inception_4c/pool"
  top: "inception_4c/pool_proj"
  param {
    lr_mult: 1
    decay_mult: 1
  }
  param {
    lr_mult: 2
    decay_mult: 0
  }
  convolution_param {
    num_output: 64
    kernel_size: 1
    weight_filler {
      type: "xavier"
      std: 0.1
    }
    bias_filler {
      type: "constant"
      value: 0.2
    }
  }
}
layer {
  name: "inception_4c/relu_pool_proj"
  type: "ReLU"
  bottom: "inception_4c/pool_proj"
  top: "inception_4c/pool_proj"
}
layer {
  name: "inception_4c/output"
  type: "Concat"
  bottom: "inception_4c/1x1"
  bottom: "inception_4c/3x3"
  bottom: "inception_4c/5x5"
  bottom: "inception_4c/pool_proj"
  top: "inception_4c/output"
}
layer {
  name: "inception_4d/1x1"
  type: "Convolution"
  bottom: "inception_4c/output"
  top: "inception_4d/1x1"
  param {
    lr_mult: 1
    decay_mult: 1
  }
  param {
    lr_mult: 2
    decay_mult: 0
  }
  convolution_param {
    num_output: 112
    kernel_size: 1
    weight_filler {
      type: "xavier"
      std: 0.03
    }
    bias_filler {
      type: "constant"
      value: 0.2
    }
  }
}
layer {
  name: "inception_4d/relu_1x1"
  type: "ReLU"
  bottom: "inception_4d/1x1"
  top: "inception_4d/1x1"
}
layer {
  name: "inception_4d/3x3_reduce"
  type: "Convolution"
  bottom: "inception_4c/output"
  top: "inception_4d/3x3_reduce"
  param {
    lr_mult: 1
    decay_mult: 1
  }
  param {
    lr_mult: 2
    decay_mult: 0
  }
  convolution_param {
    num_output: 144
    kernel_size: 1
    weight_filler {
      type: "xavier"
      std: 0.09
    }
    bias_filler {
      type: "constant"
      value: 0.2
    }
  }
}
layer {
  name: "inception_4d/relu_3x3_reduce"
  type: "ReLU"
  bottom: "inception_4d/3x3_reduce"
  top: "inception_4d/3x3_reduce"
}
layer {
  name: "inception_4d/3x3"
  type: "Convolution"
  bottom: "inception_4d/3x3_reduce"
  top: "inception_4d/3x3"
  param {
    lr_mult: 1
    decay_mult: 1
  }
  param {
    lr_mult: 2
    decay_mult: 0
  }
  convolution_param {
    num_output: 288
    pad: 1
    kernel_size: 3
    weight_filler {
      type: "xavier"
      std: 0.03
    }
    bias_filler {
      type: "constant"
      value: 0.2
    }
  }
}
layer {
  name: "inception_4d/relu_3x3"
  type: "ReLU"
  bottom: "inception_4d/3x3"
  top: "inception_4d/3x3"
}
layer {
  name: "inception_4d/5x5_reduce"
  type: "Convolution"
  bottom: "inception_4c/output"
  top: "inception_4d/5x5_reduce"
  param {
    lr_mult: 1
    decay_mult: 1
  }
  param {
    lr_mult: 2
    decay_mult: 0
  }
  convolution_param {
    num_output: 32
    kernel_size: 1
    weight_filler {
      type: "xavier"
      std: 0.2
    }
    bias_filler {
      type: "constant"
      value: 0.2
    }
  }
}
layer {
  name: "inception_4d/relu_5x5_reduce"
  type: "ReLU"
  bottom: "inception_4d/5x5_reduce"
  top: "inception_4d/5x5_reduce"
}
layer {
  name: "inception_4d/5x5"
  type: "Convolution"
  bottom: "inception_4d/5x5_reduce"
  top: "inception_4d/5x5"
  param {
    lr_mult: 1
    decay_mult: 1
  }
  param {
    lr_mult: 2
    decay_mult: 0
  }
  convolution_param {
    num_output: 64
    pad: 2
    kernel_size: 5
    weight_filler {
      type: "xavier"
      std: 0.03
    }
    bias_filler {
      type: "constant"
      value: 0.2
    }
  }
}
layer {
  name: "inception_4d/relu_5x5"
  type: "ReLU"
  bottom: "inception_4d/5x5"
  top: "inception_4d/5x5"
}
layer {
  name: "inception_4d/pool"
  type: "Pooling"
  bottom: "inception_4c/output"
  top: "inception_4d/pool"
  pooling_param {
    pool: MAX
    kernel_size: 3
    stride: 1
    pad: 1
  }
}
layer {
  name: "inception_4d/pool_proj"
  type: "Convolution"
  bottom: "inception_4d/pool"
  top: "inception_4d/pool_proj"
  param {
    lr_mult: 1
    decay_mult: 1
  }
  param {
    lr_mult: 2
    decay_mult: 0
  }
  convolution_param {
    num_output: 64
    kernel_size: 1
    weight_filler {
      type: "xavier"
      std: 0.1
    }
    bias_filler {
      type: "constant"
      value: 0.2
    }
  }
}
layer {
  name: "inception_4d/relu_pool_proj"
  type: "ReLU"
  bottom: "inception_4d/pool_proj"
  top: "inception_4d/pool_proj"
}
layer {
  name: "inception_4d/output"
  type: "Concat"
  bottom: "inception_4d/1x1"
  bottom: "inception_4d/3x3"
  bottom: "inception_4d/5x5"
  bottom: "inception_4d/pool_proj"
  top: "inception_4d/output"
}
layer {
  name: "inception_4e/1x1"
  type: "Convolution"
  bottom: "inception_4d/output"
  top: "inception_4e/1x1"
  param {
    lr_mult: 1
    decay_mult: 1
  }
  param {
    lr_mult: 2
    decay_mult: 0
  }
  convolution_param {
    num_output: 256
    kernel_size: 1
    weight_filler {
      type: "xavier"
      std: 0.03
    }
    bias_filler {
      type: "constant"
      value: 0.2
    }
  }
}
layer {
  name: "inception_4e/relu_1x1"
  type: "ReLU"
  bottom: "inception_4e/1x1"
  top: "inception_4e/1x1"
}
layer {
  name: "inception_4e/3x3_reduce"
  type: "Convolution"
  bottom: "inception_4d/output"
  top: "inception_4e/3x3_reduce"
  param {
    lr_mult: 1
    decay_mult: 1
  }
  param {
    lr_mult: 2
    decay_mult: 0
  }
  convolution_param {
    num_output: 160
    kernel_size: 1
    weight_filler {
      type: "xavier"
      std: 0.09
    }
    bias_filler {
      type: "constant"
      value: 0.2
    }
  }
}
layer {
  name: "inception_4e/relu_3x3_reduce"
  type: "ReLU"
  bottom: "inception_4e/3x3_reduce"
  top: "inception_4e/3x3_reduce"
}
layer {
  name: "inception_4e/3x3"
  type: "Convolution"
  bottom: "inception_4e/3x3_reduce"
  top: "inception_4e/3x3"
  param {
    lr_mult: 1
    decay_mult: 1
  }
  param {
    lr_mult: 2
    decay_mult: 0
  }
  convolution_param {
    num_output: 320
    pad: 1
    kernel_size: 3
    weight_filler {
      type: "xavier"
      std: 0.03
    }
    bias_filler {
      type: "constant"
      value: 0.2
    }
  }
}
layer {
  name: "inception_4e/relu_3x3"
  type: "ReLU"
  bottom: "inception_4e/3x3"
  top: "inception_4e/3x3"
}
layer {
  name: "inception_4e/5x5_reduce"
  type: "Convolution"
  bottom: "inception_4d/output"
  top: "inception_4e/5x5_reduce"
  param {
    lr_mult: 1
    decay_mult: 1
  }
  param {
    lr_mult: 2
    decay_mult: 0
  }
  convolution_param {
    num_output: 32
    kernel_size: 1
    weight_filler {
      type: "xavier"
      std: 0.2
    }
    bias_filler {
      type: "constant"
      value: 0.2
    }
  }
}
layer {
  name: "inception_4e/relu_5x5_reduce"
  type: "ReLU"
  bottom: "inception_4e/5x5_reduce"
  top: "inception_4e/5x5_reduce"
}
layer {
  name: "inception_4e/5x5"
  type: "Convolution"
  bottom: "inception_4e/5x5_reduce"
  top: "inception_4e/5x5"
  param {
    lr_mult: 1
    decay_mult: 1
  }
  param {
    lr_mult: 2
    decay_mult: 0
  }
  convolution_param {
    num_output: 128
    pad: 2
    kernel_size: 5
    weight_filler {
      type: "xavier"
      std: 0.03
    }
    bias_filler {
      type: "constant"
      value: 0.2
    }
  }
}
layer {
  name: "inception_4e/relu_5x5"
  type: "ReLU"
  bottom: "inception_4e/5x5"
  top: "inception_4e/5x5"
}
layer {
  name: "inception_4e/pool"
  type: "Pooling"
  bottom: "inception_4d/output"
  top: "inception_4e/pool"
  pooling_param {
    pool: MAX
    kernel_size: 3
    stride: 1
    pad: 1
  }
}
layer {
  name: "inception_4e/pool_proj"
  type: "Convolution"
  bottom: "inception_4e/pool"
  top: "inception_4e/pool_proj"
  param {
    lr_mult: 1
    decay_mult: 1
  }
  param {
    lr_mult: 2
    decay_mult: 0
  }
  convolution_param {
    num_output: 128
    kernel_size: 1
    weight_filler {
      type: "xavier"
      std: 0.1
    }
    bias_filler {
      type: "constant"
      value: 0.2
    }
  }
}
layer {
  name: "inception_4e/relu_pool_proj"
  type: "ReLU"
  bottom: "inception_4e/pool_proj"
  top: "inception_4e/pool_proj"
}
layer {
  name: "inception_4e/output"
  type: "Concat"
  bottom: "inception_4e/1x1"
  bottom: "inception_4e/3x3"
  bottom: "inception_4e/5x5"
  bottom: "inception_4e/pool_proj"
  top: "inception_4e/output"
}
layer {
  name: "pool4/3x3_s2"
  type: "Pooling"
  bottom: "inception_4e/output"
  top: "pool4/3x3_s2"
  pooling_param {
    pool: MAX
    kernel_size: 3
    stride: 2
  }
}
layer {
  name: "inception_5a/1x1"
  type: "Convolution"
  bottom: "pool4/3x3_s2"
  top: "inception_5a/1x1"
  param {
    lr_mult: 1
    decay_mult: 1
  }
  param {
    lr_mult: 2
    decay_mult: 0
  }
  convolution_param {
    num_output: 256
    kernel_size: 1
    weight_filler {
      type: "xavier"
      std: 0.03
    }
    bias_filler {
      type: "constant"
      value: 0.2
    }
  }
}
layer {
  name: "inception_5a/relu_1x1"
  type: "ReLU"
  bottom: "inception_5a/1x1"
  top: "inception_5a/1x1"
}
layer {
  name: "inception_5a/3x3_reduce"
  type: "Convolution"
  bottom: "pool4/3x3_s2"
  top: "inception_5a/3x3_reduce"
  param {
    lr_mult: 1
    decay_mult: 1
  }
  param {
    lr_mult: 2
    decay_mult: 0
  }
  convolution_param {
    num_output: 160
    kernel_size: 1
    weight_filler {
      type: "xavier"
      std: 0.09
    }
    bias_filler {
      type: "constant"
      value: 0.2
    }
  }
}
layer {
  name: "inception_5a/relu_3x3_reduce"
  type: "ReLU"
  bottom: "inception_5a/3x3_reduce"
  top: "inception_5a/3x3_reduce"
}
layer {
  name: "inception_5a/3x3"
  type: "Convolution"
  bottom: "inception_5a/3x3_reduce"
  top: "inception_5a/3x3"
  param {
    lr_mult: 1
    decay_mult: 1
  }
  param {
    lr_mult: 2
    decay_mult: 0
  }
  convolution_param {
    num_output: 320
    pad: 1
    kernel_size: 3
    weight_filler {
      type: "xavier"
      std: 0.03
    }
    bias_filler {
      type: "constant"
      value: 0.2
    }
  }
}
layer {
  name: "inception_5a/relu_3x3"
  type: "ReLU"
  bottom: "inception_5a/3x3"
  top: "inception_5a/3x3"
}
layer {
  name: "inception_5a/5x5_reduce"
  type: "Convolution"
  bottom: "pool4/3x3_s2"
  top: "inception_5a/5x5_reduce"
  param {
    lr_mult: 1
    decay_mult: 1
  }
  param {
    lr_mult: 2
    decay_mult: 0
  }
  convolution_param {
    num_output: 32
    kernel_size: 1
    weight_filler {
      type: "xavier"
      std: 0.2
    }
    bias_filler {
      type: "constant"
      value: 0.2
    }
I0714 21:27:39.746706 28913 layer_factory.hpp:77] Creating layer data
I0714 21:27:39.746726 28913 net.cpp:91] Creating Layer data
I0714 21:27:39.746734 28913 net.cpp:399] data -> data
I0714 21:27:40.849066 28909 net.cpp:141] Setting up data
I0714 21:27:40.849143 28909 net.cpp:148] Top shape: 10 3 224 224 (1505280)
I0714 21:27:40.849150 28909 net.cpp:156] Memory required for data: 6021120
I0714 21:27:40.849172 28909 layer_factory.hpp:77] Creating layer conv1/7x7_s2
I0714 21:27:40.849210 28909 net.cpp:91] Creating Layer conv1/7x7_s2
I0714 21:27:40.849220 28909 net.cpp:425] conv1/7x7_s2 <- data
I0714 21:27:40.849236 28909 net.cpp:399] conv1/7x7_s2 -> conv1/7x7_s2
I0714 21:27:40.854971 28913 net.cpp:141] Setting up data
I0714 21:27:40.855021 28913 net.cpp:148] Top shape: 10 3 224 224 (1505280)
I0714 21:27:40.855028 28913 net.cpp:156] Memory required for data: 6021120
I0714 21:27:40.855039 28913 layer_factory.hpp:77] Creating layer conv1/7x7_s2
I0714 21:27:40.855070 28913 net.cpp:91] Creating Layer conv1/7x7_s2
I0714 21:27:40.855078 28913 net.cpp:425] conv1/7x7_s2 <- data
I0714 21:27:40.855089 28913 net.cpp:399] conv1/7x7_s2 -> conv1/7x7_s2
I0714 21:27:41.296761 28909 net.cpp:141] Setting up conv1/7x7_s2
I0714 21:27:41.296828 28909 net.cpp:148] Top shape: 10 64 112 112 (8028160)
I0714 21:27:41.296835 28909 net.cpp:156] Memory required for data: 38133760
I0714 21:27:41.296871 28909 layer_factory.hpp:77] Creating layer conv1/relu_7x7
I0714 21:27:41.296896 28909 net.cpp:91] Creating Layer conv1/relu_7x7
I0714 21:27:41.296905 28909 net.cpp:425] conv1/relu_7x7 <- conv1/7x7_s2
I0714 21:27:41.296916 28909 net.cpp:386] conv1/relu_7x7 -> conv1/7x7_s2 (in-place)
I0714 21:27:41.298255 28909 net.cpp:141] Setting up conv1/relu_7x7
I0714 21:27:41.298274 28909 net.cpp:148] Top shape: 10 64 112 112 (8028160)
I0714 21:27:41.298280 28909 net.cpp:156] Memory required for data: 70246400
I0714 21:27:41.298286 28909 layer_factory.hpp:77] Creating layer pool1/3x3_s2
I0714 21:27:41.298301 28909 net.cpp:91] Creating Layer pool1/3x3_s2
I0714 21:27:41.298307 28909 net.cpp:425] pool1/3x3_s2 <- conv1/7x7_s2
I0714 21:27:41.298316 28909 net.cpp:399] pool1/3x3_s2 -> pool1/3x3_s2
I0714 21:27:41.298319 28913 net.cpp:141] Setting up conv1/7x7_s2
I0714 21:27:41.298341 28913 net.cpp:148] Top shape: 10 64 112 112 (8028160)
I0714 21:27:41.298347 28913 net.cpp:156] Memory required for data: 38133760
I0714 21:27:41.298365 28913 layer_factory.hpp:77] Creating layer conv1/relu_7x7
I0714 21:27:41.298377 28913 net.cpp:91] Creating Layer conv1/relu_7x7
I0714 21:27:41.298383 28913 net.cpp:425] conv1/relu_7x7 <- conv1/7x7_s2
I0714 21:27:41.298391 28913 net.cpp:386] conv1/relu_7x7 -> conv1/7x7_s2 (in-place)
I0714 21:27:41.299139 28909 net.cpp:141] Setting up pool1/3x3_s2
I0714 21:27:41.299152 28909 net.cpp:148] Top shape: 10 64 56 56 (2007040)
I0714 21:27:41.299157 28909 net.cpp:156] Memory required for data: 78274560
I0714 21:27:41.299163 28909 layer_factory.hpp:77] Creating layer pool1/norm1
I0714 21:27:41.299185 28909 net.cpp:91] Creating Layer pool1/norm1
I0714 21:27:41.299191 28909 net.cpp:425] pool1/norm1 <- pool1/3x3_s2
I0714 21:27:41.299199 28909 net.cpp:399] pool1/norm1 -> pool1/norm1
I0714 21:27:41.299223 28913 net.cpp:141] Setting up conv1/relu_7x7
I0714 21:27:41.299238 28913 net.cpp:148] Top shape: 10 64 112 112 (8028160)
I0714 21:27:41.299243 28913 net.cpp:156] Memory required for data: 70246400
I0714 21:27:41.299250 28913 layer_factory.hpp:77] Creating layer pool1/3x3_s2
I0714 21:27:41.299260 28913 net.cpp:91] Creating Layer pool1/3x3_s2
I0714 21:27:41.299266 28913 net.cpp:425] pool1/3x3_s2 <- conv1/7x7_s2
I0714 21:27:41.299274 28913 net.cpp:399] pool1/3x3_s2 -> pool1/3x3_s2
I0714 21:27:41.300024 28913 net.cpp:141] Setting up pool1/3x3_s2
I0714 21:27:41.300040 28913 net.cpp:148] Top shape: 10 64 56 56 (2007040)
I0714 21:27:41.300045 28913 net.cpp:156] Memory required for data: 78274560
I0714 21:27:41.300052 28913 layer_factory.hpp:77] Creating layer pool1/norm1
I0714 21:27:41.300065 28913 net.cpp:91] Creating Layer pool1/norm1
I0714 21:27:41.300071 28913 net.cpp:425] pool1/norm1 <- pool1/3x3_s2
I0714 21:27:41.300077 28913 net.cpp:399] pool1/norm1 -> pool1/norm1
I0714 21:27:41.300892 28909 net.cpp:141] Setting up pool1/norm1
I0714 21:27:41.300910 28909 net.cpp:148] Top shape: 10 64 56 56 (2007040)
I0714 21:27:41.300915 28909 net.cpp:156] Memory required for data: 86302720
I0714 21:27:41.300921 28909 layer_factory.hpp:77] Creating layer conv2/3x3_reduce
I0714 21:27:41.300946 28909 net.cpp:91] Creating Layer conv2/3x3_reduce
I0714 21:27:41.300952 28909 net.cpp:425] conv2/3x3_reduce <- pool1/norm1
I0714 21:27:41.300961 28909 net.cpp:399] conv2/3x3_reduce -> conv2/3x3_reduce
I0714 21:27:41.301044 28913 net.cpp:141] Setting up pool1/norm1
I0714 21:27:41.301060 28913 net.cpp:148] Top shape: 10 64 56 56 (2007040)
I0714 21:27:41.301065 28913 net.cpp:156] Memory required for data: 86302720
I0714 21:27:41.301071 28913 layer_factory.hpp:77] Creating layer conv2/3x3_reduce
I0714 21:27:41.301085 28913 net.cpp:91] Creating Layer conv2/3x3_reduce
I0714 21:27:41.301091 28913 net.cpp:425] conv2/3x3_reduce <- pool1/norm1
I0714 21:27:41.301100 28913 net.cpp:399] conv2/3x3_reduce -> conv2/3x3_reduce
I0714 21:27:41.307389 28909 net.cpp:141] Setting up conv2/3x3_reduce
I0714 21:27:41.307412 28909 net.cpp:148] Top shape: 10 64 56 56 (2007040)
I0714 21:27:41.307420 28909 net.cpp:156] Memory required for data: 94330880
I0714 21:27:41.307433 28909 layer_factory.hpp:77] Creating layer conv2/relu_3x3_reduce
I0714 21:27:41.307445 28909 net.cpp:91] Creating Layer conv2/relu_3x3_reduce
I0714 21:27:41.307451 28909 net.cpp:425] conv2/relu_3x3_reduce <- conv2/3x3_reduce
I0714 21:27:41.307458 28909 net.cpp:386] conv2/relu_3x3_reduce -> conv2/3x3_reduce (in-place)
I0714 21:27:41.308431 28909 net.cpp:141] Setting up conv2/relu_3x3_reduce
I0714 21:27:41.308432 28913 net.cpp:141] Setting up conv2/3x3_reduce
I0714 21:27:41.308452 28909 net.cpp:148] Top shape: 10 64 56 56 (2007040)
I0714 21:27:41.308457 28909 net.cpp:156] Memory required for data: 102359040
I0714 21:27:41.308461 28913 net.cpp:148] Top shape: 10 64 56 56 (2007040)
I0714 21:27:41.308464 28909 layer_factory.hpp:77] Creating layer conv2/3x3
I0714 21:27:41.308467 28913 net.cpp:156] Memory required for data: 94330880
I0714 21:27:41.308482 28909 net.cpp:91] Creating Layer conv2/3x3
I0714 21:27:41.308482 28913 layer_factory.hpp:77] Creating layer conv2/relu_3x3_reduce
I0714 21:27:41.308490 28909 net.cpp:425] conv2/3x3 <- conv2/3x3_reduce
I0714 21:27:41.308495 28913 net.cpp:91] Creating Layer conv2/relu_3x3_reduce
I0714 21:27:41.308500 28909 net.cpp:399] conv2/3x3 -> conv2/3x3
I0714 21:27:41.308501 28913 net.cpp:425] conv2/relu_3x3_reduce <- conv2/3x3_reduce
I0714 21:27:41.308511 28913 net.cpp:386] conv2/relu_3x3_reduce -> conv2/3x3_reduce (in-place)
I0714 21:27:41.309434 28913 net.cpp:141] Setting up conv2/relu_3x3_reduce
I0714 21:27:41.309451 28913 net.cpp:148] Top shape: 10 64 56 56 (2007040)
I0714 21:27:41.309458 28913 net.cpp:156] Memory required for data: 102359040
I0714 21:27:41.309463 28913 layer_factory.hpp:77] Creating layer conv2/3x3
I0714 21:27:41.309480 28913 net.cpp:91] Creating Layer conv2/3x3
I0714 21:27:41.309486 28913 net.cpp:425] conv2/3x3 <- conv2/3x3_reduce
I0714 21:27:41.309495 28913 net.cpp:399] conv2/3x3 -> conv2/3x3
I0714 21:27:41.317755 28909 net.cpp:141] Setting up conv2/3x3
I0714 21:27:41.317777 28909 net.cpp:148] Top shape: 10 192 56 56 (6021120)
I0714 21:27:41.317785 28909 net.cpp:156] Memory required for data: 126443520
I0714 21:27:41.317798 28909 layer_factory.hpp:77] Creating layer conv2/relu_3x3
I0714 21:27:41.317811 28909 net.cpp:91] Creating Layer conv2/relu_3x3
I0714 21:27:41.317816 28909 net.cpp:425] conv2/relu_3x3 <- conv2/3x3
I0714 21:27:41.317828 28909 net.cpp:386] conv2/relu_3x3 -> conv2/3x3 (in-place)
I0714 21:27:41.318181 28909 net.cpp:141] Setting up conv2/relu_3x3
I0714 21:27:41.318197 28909 net.cpp:148] Top shape: 10 192 56 56 (6021120)
I0714 21:27:41.318203 28909 net.cpp:156] Memory required for data: 150528000
I0714 21:27:41.318208 28909 layer_factory.hpp:77] Creating layer conv2/norm2
I0714 21:27:41.318219 28909 net.cpp:91] Creating Layer conv2/norm2
I0714 21:27:41.318224 28909 net.cpp:425] conv2/norm2 <- conv2/3x3
I0714 21:27:41.318233 28909 net.cpp:399] conv2/norm2 -> conv2/norm2
I0714 21:27:41.318861 28913 net.cpp:141] Setting up conv2/3x3
I0714 21:27:41.318882 28913 net.cpp:148] Top shape: 10 192 56 56 (6021120)
I0714 21:27:41.318888 28913 net.cpp:156] Memory required for data: 126443520
I0714 21:27:41.318902 28913 layer_factory.hpp:77] Creating layer conv2/relu_3x3
I0714 21:27:41.318918 28913 net.cpp:91] Creating Layer conv2/relu_3x3
I0714 21:27:41.318924 28913 net.cpp:425] conv2/relu_3x3 <- conv2/3x3
I0714 21:27:41.318934 28913 net.cpp:386] conv2/relu_3x3 -> conv2/3x3 (in-place)
I0714 21:27:41.319221 28913 net.cpp:141] Setting up conv2/relu_3x3
I0714 21:27:41.319234 28913 net.cpp:148] Top shape: 10 192 56 56 (6021120)
I0714 21:27:41.319241 28913 net.cpp:156] Memory required for data: 150528000
I0714 21:27:41.319247 28913 layer_factory.hpp:77] Creating layer conv2/norm2
I0714 21:27:41.319265 28913 net.cpp:91] Creating Layer conv2/norm2
I0714 21:27:41.319272 28913 net.cpp:425] conv2/norm2 <- conv2/3x3
I0714 21:27:41.319279 28913 net.cpp:399] conv2/norm2 -> conv2/norm2
I0714 21:27:41.320101 28909 net.cpp:141] Setting up conv2/norm2
I0714 21:27:41.320119 28909 net.cpp:148] Top shape: 10 192 56 56 (6021120)
I0714 21:27:41.320125 28909 net.cpp:156] Memory required for data: 174612480
I0714 21:27:41.320132 28909 layer_factory.hpp:77] Creating layer pool2/3x3_s2
I0714 21:27:41.320145 28909 net.cpp:91] Creating Layer pool2/3x3_s2
I0714 21:27:41.320152 28909 net.cpp:425] pool2/3x3_s2 <- conv2/norm2
I0714 21:27:41.320159 28909 net.cpp:399] pool2/3x3_s2 -> pool2/3x3_s2
I0714 21:27:41.320315 28913 net.cpp:141] Setting up conv2/norm2
I0714 21:27:41.320330 28913 net.cpp:148] Top shape: 10 192 56 56 (6021120)
I0714 21:27:41.320335 28913 net.cpp:156] Memory required for data: 174612480
I0714 21:27:41.320340 28913 layer_factory.hpp:77] Creating layer pool2/3x3_s2
I0714 21:27:41.320351 28913 net.cpp:91] Creating Layer pool2/3x3_s2
I0714 21:27:41.320356 28913 net.cpp:425] pool2/3x3_s2 <- conv2/norm2
I0714 21:27:41.320360 28909 net.cpp:141] Setting up pool2/3x3_s2
I0714 21:27:41.320368 28913 net.cpp:399] pool2/3x3_s2 -> pool2/3x3_s2
I0714 21:27:41.320374 28909 net.cpp:148] Top shape: 10 192 28 28 (1505280)
I0714 21:27:41.320379 28909 net.cpp:156] Memory required for data: 180633600
I0714 21:27:41.320384 28909 layer_factory.hpp:77] Creating layer pool2/3x3_s2_pool2/3x3_s2_0_split
I0714 21:27:41.320405 28909 net.cpp:91] Creating Layer pool2/3x3_s2_pool2/3x3_s2_0_split
I0714 21:27:41.320410 28909 net.cpp:425] pool2/3x3_s2_pool2/3x3_s2_0_split <- pool2/3x3_s2
I0714 21:27:41.320421 28909 net.cpp:399] pool2/3x3_s2_pool2/3x3_s2_0_split -> pool2/3x3_s2_pool2/3x3_s2_0_split_0
I0714 21:27:41.320432 28909 net.cpp:399] pool2/3x3_s2_pool2/3x3_s2_0_split -> pool2/3x3_s2_pool2/3x3_s2_0_split_1
I0714 21:27:41.320441 28909 net.cpp:399] pool2/3x3_s2_pool2/3x3_s2_0_split -> pool2/3x3_s2_pool2/3x3_s2_0_split_2
I0714 21:27:41.320451 28909 net.cpp:399] pool2/3x3_s2_pool2/3x3_s2_0_split -> pool2/3x3_s2_pool2/3x3_s2_0_split_3
I0714 21:27:41.320463 28913 net.cpp:141] Setting up pool2/3x3_s2
I0714 21:27:41.320475 28913 net.cpp:148] Top shape: 10 192 28 28 (1505280)
I0714 21:27:41.320480 28913 net.cpp:156] Memory required for data: 180633600
I0714 21:27:41.320487 28913 layer_factory.hpp:77] Creating layer pool2/3x3_s2_pool2/3x3_s2_0_split
I0714 21:27:41.320495 28913 net.cpp:91] Creating Layer pool2/3x3_s2_pool2/3x3_s2_0_split
I0714 21:27:41.320500 28913 net.cpp:425] pool2/3x3_s2_pool2/3x3_s2_0_split <- pool2/3x3_s2
I0714 21:27:41.320511 28913 net.cpp:399] pool2/3x3_s2_pool2/3x3_s2_0_split -> pool2/3x3_s2_pool2/3x3_s2_0_split_0
I0714 21:27:41.320523 28913 net.cpp:399] pool2/3x3_s2_pool2/3x3_s2_0_split -> pool2/3x3_s2_pool2/3x3_s2_0_split_1
I0714 21:27:41.320533 28913 net.cpp:399] pool2/3x3_s2_pool2/3x3_s2_0_split -> pool2/3x3_s2_pool2/3x3_s2_0_split_2
I0714 21:27:41.320541 28913 net.cpp:399] pool2/3x3_s2_pool2/3x3_s2_0_split -> pool2/3x3_s2_pool2/3x3_s2_0_split_3
I0714 21:27:41.320677 28909 net.cpp:141] Setting up pool2/3x3_s2_pool2/3x3_s2_0_split
I0714 21:27:41.320690 28909 net.cpp:148] Top shape: 10 192 28 28 (1505280)
I0714 21:27:41.320696 28909 net.cpp:148] Top shape: 10 192 28 28 (1505280)
I0714 21:27:41.320703 28909 net.cpp:148] Top shape: 10 192 28 28 (1505280)
I0714 21:27:41.320708 28909 net.cpp:148] Top shape: 10 192 28 28 (1505280)
I0714 21:27:41.320713 28909 net.cpp:156] Memory required for data: 204718080
I0714 21:27:41.320718 28909 layer_factory.hpp:77] Creating layer inception_3a/1x1
I0714 21:27:41.320739 28909 net.cpp:91] Creating Layer inception_3a/1x1
I0714 21:27:41.320746 28909 net.cpp:425] inception_3a/1x1 <- pool2/3x3_s2_pool2/3x3_s2_0_split_0
I0714 21:27:41.320776 28909 net.cpp:399] inception_3a/1x1 -> inception_3a/1x1
I0714 21:27:41.320775 28913 net.cpp:141] Setting up pool2/3x3_s2_pool2/3x3_s2_0_split
I0714 21:27:41.320796 28913 net.cpp:148] Top shape: 10 192 28 28 (1505280)
I0714 21:27:41.320803 28913 net.cpp:148] Top shape: 10 192 28 28 (1505280)
I0714 21:27:41.320808 28913 net.cpp:148] Top shape: 10 192 28 28 (1505280)
I0714 21:27:41.320814 28913 net.cpp:148] Top shape: 10 192 28 28 (1505280)
I0714 21:27:41.320818 28913 net.cpp:156] Memory required for data: 204718080
I0714 21:27:41.320823 28913 layer_factory.hpp:77] Creating layer inception_3a/1x1
I0714 21:27:41.320842 28913 net.cpp:91] Creating Layer inception_3a/1x1
I0714 21:27:41.320848 28913 net.cpp:425] inception_3a/1x1 <- pool2/3x3_s2_pool2/3x3_s2_0_split_0
I0714 21:27:41.320861 28913 net.cpp:399] inception_3a/1x1 -> inception_3a/1x1
I0714 21:27:41.327703 28909 net.cpp:141] Setting up inception_3a/1x1
I0714 21:27:41.327739 28909 net.cpp:148] Top shape: 10 64 28 28 (501760)
I0714 21:27:41.327746 28909 net.cpp:156] Memory required for data: 206725120
I0714 21:27:41.327759 28909 layer_factory.hpp:77] Creating layer inception_3a/relu_1x1
I0714 21:27:41.327775 28909 net.cpp:91] Creating Layer inception_3a/relu_1x1
I0714 21:27:41.327780 28909 net.cpp:425] inception_3a/relu_1x1 <- inception_3a/1x1
I0714 21:27:41.327795 28909 net.cpp:386] inception_3a/relu_1x1 -> inception_3a/1x1 (in-place)
I0714 21:27:41.328088 28909 net.cpp:141] Setting up inception_3a/relu_1x1
I0714 21:27:41.328102 28909 net.cpp:148] Top shape: 10 64 28 28 (501760)
I0714 21:27:41.328107 28909 net.cpp:156] Memory required for data: 208732160
I0714 21:27:41.328114 28909 layer_factory.hpp:77] Creating layer inception_3a/3x3_reduce
I0714 21:27:41.328135 28909 net.cpp:91] Creating Layer inception_3a/3x3_reduce
I0714 21:27:41.328141 28909 net.cpp:425] inception_3a/3x3_reduce <- pool2/3x3_s2_pool2/3x3_s2_0_split_1
I0714 21:27:41.328151 28909 net.cpp:399] inception_3a/3x3_reduce -> inception_3a/3x3_reduce
I0714 21:27:41.329521 28913 net.cpp:141] Setting up inception_3a/1x1
I0714 21:27:41.329555 28913 net.cpp:148] Top shape: 10 64 28 28 (501760)
I0714 21:27:41.329562 28913 net.cpp:156] Memory required for data: 206725120
I0714 21:27:41.329576 28913 layer_factory.hpp:77] Creating layer inception_3a/relu_1x1
I0714 21:27:41.329587 28913 net.cpp:91] Creating Layer inception_3a/relu_1x1
I0714 21:27:41.329594 28913 net.cpp:425] inception_3a/relu_1x1 <- inception_3a/1x1
I0714 21:27:41.329607 28913 net.cpp:386] inception_3a/relu_1x1 -> inception_3a/1x1 (in-place)
I0714 21:27:41.330080 28913 net.cpp:141] Setting up inception_3a/relu_1x1
I0714 21:27:41.330096 28913 net.cpp:148] Top shape: 10 64 28 28 (501760)
I0714 21:27:41.330101 28913 net.cpp:156] Memory required for data: 208732160
I0714 21:27:41.330107 28913 layer_factory.hpp:77] Creating layer inception_3a/3x3_reduce
I0714 21:27:41.330610 28913 net.cpp:91] Creating Layer inception_3a/3x3_reduce
I0714 21:27:41.330621 28913 net.cpp:425] inception_3a/3x3_reduce <- pool2/3x3_s2_pool2/3x3_s2_0_split_1
I0714 21:27:41.330632 28913 net.cpp:399] inception_3a/3x3_reduce -> inception_3a/3x3_reduce
I0714 21:27:41.337074 28909 net.cpp:141] Setting up inception_3a/3x3_reduce
I0714 21:27:41.337101 28909 net.cpp:148] Top shape: 10 96 28 28 (752640)
I0714 21:27:41.337107 28909 net.cpp:156] Memory required for data: 211742720
I0714 21:27:41.337129 28909 layer_factory.hpp:77] Creating layer inception_3a/relu_3x3_reduce
I0714 21:27:41.337141 28909 net.cpp:91] Creating Layer inception_3a/relu_3x3_reduce
I0714 21:27:41.337148 28909 net.cpp:425] inception_3a/relu_3x3_reduce <- inception_3a/3x3_reduce
I0714 21:27:41.337157 28909 net.cpp:386] inception_3a/relu_3x3_reduce -> inception_3a/3x3_reduce (in-place)
I0714 21:27:41.337435 28909 net.cpp:141] Setting up inception_3a/relu_3x3_reduce
I0714 21:27:41.337447 28909 net.cpp:148] Top shape: 10 96 28 28 (752640)
I0714 21:27:41.337452 28909 net.cpp:156] Memory required for data: 214753280
I0714 21:27:41.337458 28909 layer_factory.hpp:77] Creating layer inception_3a/3x3
I0714 21:27:41.337481 28909 net.cpp:91] Creating Layer inception_3a/3x3
I0714 21:27:41.337487 28909 net.cpp:425] inception_3a/3x3 <- inception_3a/3x3_reduce
I0714 21:27:41.337501 28909 net.cpp:399] inception_3a/3x3 -> inception_3a/3x3
I0714 21:27:41.338582 28913 net.cpp:141] Setting up inception_3a/3x3_reduce
I0714 21:27:41.338603 28913 net.cpp:148] Top shape: 10 96 28 28 (752640)
I0714 21:27:41.338608 28913 net.cpp:156] Memory required for data: 211742720
I0714 21:27:41.338624 28913 layer_factory.hpp:77] Creating layer inception_3a/relu_3x3_reduce
I0714 21:27:41.338637 28913 net.cpp:91] Creating Layer inception_3a/relu_3x3_reduce
I0714 21:27:41.338644 28913 net.cpp:425] inception_3a/relu_3x3_reduce <- inception_3a/3x3_reduce
I0714 21:27:41.338652 28913 net.cpp:386] inception_3a/relu_3x3_reduce -> inception_3a/3x3_reduce (in-place)
I0714 21:27:41.338932 28913 net.cpp:141] Setting up inception_3a/relu_3x3_reduce
I0714 21:27:41.338946 28913 net.cpp:148] Top shape: 10 96 28 28 (752640)
I0714 21:27:41.338951 28913 net.cpp:156] Memory required for data: 214753280
I0714 21:27:41.338958 28913 layer_factory.hpp:77] Creating layer inception_3a/3x3
I0714 21:27:41.338980 28913 net.cpp:91] Creating Layer inception_3a/3x3
I0714 21:27:41.338986 28913 net.cpp:425] inception_3a/3x3 <- inception_3a/3x3_reduce
I0714 21:27:41.338999 28913 net.cpp:399] inception_3a/3x3 -> inception_3a/3x3
I0714 21:27:41.342603 28909 net.cpp:141] Setting up inception_3a/3x3
I0714 21:27:41.342625 28909 net.cpp:148] Top shape: 10 128 28 28 (1003520)
I0714 21:27:41.342631 28909 net.cpp:156] Memory required for data: 218767360
I0714 21:27:41.342643 28909 layer_factory.hpp:77] Creating layer inception_3a/relu_3x3
I0714 21:27:41.342653 28909 net.cpp:91] Creating Layer inception_3a/relu_3x3
I0714 21:27:41.342658 28909 net.cpp:425] inception_3a/relu_3x3 <- inception_3a/3x3
I0714 21:27:41.342669 28909 net.cpp:386] inception_3a/relu_3x3 -> inception_3a/3x3 (in-place)
I0714 21:27:41.343889 28909 net.cpp:141] Setting up inception_3a/relu_3x3
I0714 21:27:41.343909 28909 net.cpp:148] Top shape: 10 128 28 28 (1003520)
I0714 21:27:41.343910 28913 net.cpp:141] Setting up inception_3a/3x3
I0714 21:27:41.343914 28909 net.cpp:156] Memory required for data: 222781440
I0714 21:27:41.343930 28913 net.cpp:148] Top shape: 10 128 28 28 (1003520)
I0714 21:27:41.343930 28909 layer_factory.hpp:77] Creating layer inception_3a/5x5_reduce
I0714 21:27:41.343938 28913 net.cpp:156] Memory required for data: 218767360
I0714 21:27:41.343950 28913 layer_factory.hpp:77] Creating layer inception_3a/relu_3x3
I0714 21:27:41.343957 28909 net.cpp:91] Creating Layer inception_3a/5x5_reduce
I0714 21:27:41.343960 28913 net.cpp:91] Creating Layer inception_3a/relu_3x3
I0714 21:27:41.343969 28909 net.cpp:425] inception_3a/5x5_reduce <- pool2/3x3_s2_pool2/3x3_s2_0_split_2
I0714 21:27:41.343972 28913 net.cpp:425] inception_3a/relu_3x3 <- inception_3a/3x3
I0714 21:27:41.343981 28913 net.cpp:386] inception_3a/relu_3x3 -> inception_3a/3x3 (in-place)
I0714 21:27:41.343988 28909 net.cpp:399] inception_3a/5x5_reduce -> inception_3a/5x5_reduce
I0714 21:27:41.344993 28913 net.cpp:141] Setting up inception_3a/relu_3x3
I0714 21:27:41.345011 28913 net.cpp:148] Top shape: 10 128 28 28 (1003520)
I0714 21:27:41.345016 28913 net.cpp:156] Memory required for data: 222781440
I0714 21:27:41.345022 28913 layer_factory.hpp:77] Creating layer inception_3a/5x5_reduce
I0714 21:27:41.345043 28913 net.cpp:91] Creating Layer inception_3a/5x5_reduce
I0714 21:27:41.345051 28913 net.cpp:425] inception_3a/5x5_reduce <- pool2/3x3_s2_pool2/3x3_s2_0_split_2
I0714 21:27:41.345063 28913 net.cpp:399] inception_3a/5x5_reduce -> inception_3a/5x5_reduce
I0714 21:27:41.348788 28909 net.cpp:141] Setting up inception_3a/5x5_reduce
I0714 21:27:41.348810 28909 net.cpp:148] Top shape: 10 16 28 28 (125440)
I0714 21:27:41.348816 28909 net.cpp:156] Memory required for data: 223283200
I0714 21:27:41.348827 28909 layer_factory.hpp:77] Creating layer inception_3a/relu_5x5_reduce
I0714 21:27:41.348841 28909 net.cpp:91] Creating Layer inception_3a/relu_5x5_reduce
I0714 21:27:41.348848 28909 net.cpp:425] inception_3a/relu_5x5_reduce <- inception_3a/5x5_reduce
I0714 21:27:41.348856 28909 net.cpp:386] inception_3a/relu_5x5_reduce -> inception_3a/5x5_reduce (in-place)
I0714 21:27:41.349158 28913 net.cpp:141] Setting up inception_3a/5x5_reduce
I0714 21:27:41.349172 28913 net.cpp:148] Top shape: 10 16 28 28 (125440)
I0714 21:27:41.349179 28913 net.cpp:156] Memory required for data: 223283200
I0714 21:27:41.349189 28913 layer_factory.hpp:77] Creating layer inception_3a/relu_5x5_reduce
I0714 21:27:41.349197 28913 net.cpp:91] Creating Layer inception_3a/relu_5x5_reduce
I0714 21:27:41.349205 28913 net.cpp:425] inception_3a/relu_5x5_reduce <- inception_3a/5x5_reduce
I0714 21:27:41.349215 28913 net.cpp:386] inception_3a/relu_5x5_reduce -> inception_3a/5x5_reduce (in-place)
I0714 21:27:41.349213 28909 net.cpp:141] Setting up inception_3a/relu_5x5_reduce
I0714 21:27:41.349234 28909 net.cpp:148] Top shape: 10 16 28 28 (125440)
I0714 21:27:41.349241 28909 net.cpp:156] Memory required for data: 223784960
I0714 21:27:41.349246 28909 layer_factory.hpp:77] Creating layer inception_3a/5x5
I0714 21:27:41.349269 28909 net.cpp:91] Creating Layer inception_3a/5x5
I0714 21:27:41.349277 28909 net.cpp:425] inception_3a/5x5 <- inception_3a/5x5_reduce
I0714 21:27:41.349287 28909 net.cpp:399] inception_3a/5x5 -> inception_3a/5x5
I0714 21:27:41.349637 28913 net.cpp:141] Setting up inception_3a/relu_5x5_reduce
I0714 21:27:41.349655 28913 net.cpp:148] Top shape: 10 16 28 28 (125440)
I0714 21:27:41.349661 28913 net.cpp:156] Memory required for data: 223784960
I0714 21:27:41.349666 28913 layer_factory.hpp:77] Creating layer inception_3a/5x5
I0714 21:27:41.349685 28913 net.cpp:91] Creating Layer inception_3a/5x5
I0714 21:27:41.349692 28913 net.cpp:425] inception_3a/5x5 <- inception_3a/5x5_reduce
I0714 21:27:41.349702 28913 net.cpp:399] inception_3a/5x5 -> inception_3a/5x5
I0714 21:27:41.355697 28909 net.cpp:141] Setting up inception_3a/5x5
I0714 21:27:41.355722 28909 net.cpp:148] Top shape: 10 32 28 28 (250880)
I0714 21:27:41.355728 28909 net.cpp:156] Memory required for data: 224788480
I0714 21:27:41.355741 28909 layer_factory.hpp:77] Creating layer inception_3a/relu_5x5
I0714 21:27:41.355756 28909 net.cpp:91] Creating Layer inception_3a/relu_5x5
I0714 21:27:41.355762 28909 net.cpp:425] inception_3a/relu_5x5 <- inception_3a/5x5
I0714 21:27:41.355770 28909 net.cpp:386] inception_3a/relu_5x5 -> inception_3a/5x5 (in-place)
I0714 21:27:41.356164 28909 net.cpp:141] Setting up inception_3a/relu_5x5
I0714 21:27:41.356178 28909 net.cpp:148] Top shape: 10 32 28 28 (250880)
I0714 21:27:41.356184 28909 net.cpp:156] Memory required for data: 225792000
I0714 21:27:41.356189 28909 layer_factory.hpp:77] Creating layer inception_3a/pool
I0714 21:27:41.356201 28909 net.cpp:91] Creating Layer inception_3a/pool
I0714 21:27:41.356207 28909 net.cpp:425] inception_3a/pool <- pool2/3x3_s2_pool2/3x3_s2_0_split_3
I0714 21:27:41.356220 28909 net.cpp:399] inception_3a/pool -> inception_3a/pool
I0714 21:27:41.356822 28913 net.cpp:141] Setting up inception_3a/5x5
I0714 21:27:41.356842 28913 net.cpp:148] Top shape: 10 32 28 28 (250880)
I0714 21:27:41.356848 28913 net.cpp:156] Memory required for data: 224788480
I0714 21:27:41.356855 28909 net.cpp:141] Setting up inception_3a/pool
I0714 21:27:41.356858 28913 layer_factory.hpp:77] Creating layer inception_3a/relu_5x5
I0714 21:27:41.356871 28909 net.cpp:148] Top shape: 10 192 28 28 (1505280)
I0714 21:27:41.356878 28909 net.cpp:156] Memory required for data: 231813120
I0714 21:27:41.356878 28913 net.cpp:91] Creating Layer inception_3a/relu_5x5
I0714 21:27:41.356884 28909 layer_factory.hpp:77] Creating layer inception_3a/pool_proj
I0714 21:27:41.356889 28913 net.cpp:425] inception_3a/relu_5x5 <- inception_3a/5x5
I0714 21:27:41.356897 28913 net.cpp:386] inception_3a/relu_5x5 -> inception_3a/5x5 (in-place)
I0714 21:27:41.356904 28909 net.cpp:91] Creating Layer inception_3a/pool_proj
I0714 21:27:41.356911 28909 net.cpp:425] inception_3a/pool_proj <- inception_3a/pool
I0714 21:27:41.356923 28909 net.cpp:399] inception_3a/pool_proj -> inception_3a/pool_proj
I0714 21:27:41.357338 28913 net.cpp:141] Setting up inception_3a/relu_5x5
I0714 21:27:41.357352 28913 net.cpp:148] Top shape: 10 32 28 28 (250880)
I0714 21:27:41.357357 28913 net.cpp:156] Memory required for data: 225792000
I0714 21:27:41.357362 28913 layer_factory.hpp:77] Creating layer inception_3a/pool
I0714 21:27:41.357377 28913 net.cpp:91] Creating Layer inception_3a/pool
I0714 21:27:41.357383 28913 net.cpp:425] inception_3a/pool <- pool2/3x3_s2_pool2/3x3_s2_0_split_3
I0714 21:27:41.357393 28913 net.cpp:399] inception_3a/pool -> inception_3a/pool
I0714 21:27:41.357580 28913 net.cpp:141] Setting up inception_3a/pool
I0714 21:27:41.357594 28913 net.cpp:148] Top shape: 10 192 28 28 (1505280)
I0714 21:27:41.357599 28913 net.cpp:156] Memory required for data: 231813120
I0714 21:27:41.357604 28913 layer_factory.hpp:77] Creating layer inception_3a/pool_proj
I0714 21:27:41.357625 28913 net.cpp:91] Creating Layer inception_3a/pool_proj
I0714 21:27:41.357631 28913 net.cpp:425] inception_3a/pool_proj <- inception_3a/pool
I0714 21:27:41.357640 28913 net.cpp:399] inception_3a/pool_proj -> inception_3a/pool_proj
I0714 21:27:41.361892 28909 net.cpp:141] Setting up inception_3a/pool_proj
I0714 21:27:41.361915 28909 net.cpp:148] Top shape: 10 32 28 28 (250880)
I0714 21:27:41.361923 28909 net.cpp:156] Memory required for data: 232816640
I0714 21:27:41.361941 28909 layer_factory.hpp:77] Creating layer inception_3a/relu_pool_proj
I0714 21:27:41.361953 28909 net.cpp:91] Creating Layer inception_3a/relu_pool_proj
I0714 21:27:41.361958 28909 net.cpp:425] inception_3a/relu_pool_proj <- inception_3a/pool_proj
I0714 21:27:41.361970 28909 net.cpp:386] inception_3a/relu_pool_proj -> inception_3a/pool_proj (in-place)
I0714 21:27:41.363005 28909 net.cpp:141] Setting up inception_3a/relu_pool_proj
I0714 21:27:41.363024 28909 net.cpp:148] Top shape: 10 32 28 28 (250880)
I0714 21:27:41.363029 28909 net.cpp:156] Memory required for data: 233820160
I0714 21:27:41.363036 28909 layer_factory.hpp:77] Creating layer inception_3a/output
I0714 21:27:41.363062 28909 net.cpp:91] Creating Layer inception_3a/output
I0714 21:27:41.363070 28909 net.cpp:425] inception_3a/output <- inception_3a/1x1
I0714 21:27:41.363076 28909 net.cpp:425] inception_3a/output <- inception_3a/3x3
I0714 21:27:41.363082 28909 net.cpp:425] inception_3a/output <- inception_3a/5x5
I0714 21:27:41.363088 28909 net.cpp:425] inception_3a/output <- inception_3a/pool_proj
I0714 21:27:41.363101 28909 net.cpp:399] inception_3a/output -> inception_3a/output
I0714 21:27:41.363155 28913 net.cpp:141] Setting up inception_3a/pool_proj
I0714 21:27:41.363173 28913 net.cpp:148] Top shape: 10 32 28 28 (250880)
I0714 21:27:41.363178 28913 net.cpp:156] Memory required for data: 232816640
I0714 21:27:41.363183 28909 net.cpp:141] Setting up inception_3a/output
I0714 21:27:41.363194 28909 net.cpp:148] Top shape: 10 256 28 28 (2007040)
I0714 21:27:41.363195 28913 layer_factory.hpp:77] Creating layer inception_3a/relu_pool_proj
I0714 21:27:41.363199 28909 net.cpp:156] Memory required for data: 241848320
I0714 21:27:41.363204 28909 layer_factory.hpp:77] Creating layer inception_3a/output_inception_3a/output_0_split
I0714 21:27:41.363209 28913 net.cpp:91] Creating Layer inception_3a/relu_pool_proj
I0714 21:27:41.363215 28909 net.cpp:91] Creating Layer inception_3a/output_inception_3a/output_0_split
…
I0714 21:27:41.363240 28909 net.cpp:399] inception_3a/output_inception_3a/output_0_split -> inception_3a/output_inception_3a/output_0_split_0
I0714 21:27:41.363250 28909 net.cpp:399] inception_3a/output_inception_3a/output_0_split -> inception_3a/output_inception_3a/output_0_split_1
I0714 21:27:41.363260 28909 net.cpp:399] inception_3a/output_inception_3a/output_0_split -> inception_3a/output_inception_3a/output_0_split_2
I0714 21:27:41.363271 28909 net.cpp:399] inception_3a/output_inception_3a/output_0_split -> inception_3a/output_inception_3a/output_0_split_3
I0714 21:27:41.364250 28909 net.cpp:141] Setting up inception_3a/output_inception_3a/output_0_split
I0714 21:27:41.364267 28909 net.cpp:148] Top shape: 10 256 28 28 (2007040)
I0714 21:27:41.364266 28913 net.cpp:141] Setting up inception_3a/relu_pool_proj
I0714 21:27:41.364275 28909 net.cpp:148] Top shape: 10 256 28 28 (2007040)
I0714 21:27:41.364281 28909 net.cpp:148] Top shape: 10 256 28 28 (2007040)
I0714 21:27:41.364281 28913 net.cpp:148] Top shape: 10 32 28 28 (250880)
I0714 21:27:41.364289 28909 net.cpp:148] Top shape: 10 256 28 28 (2007040)
I0714 21:27:41.364289 28913 net.cpp:156] Memory required for data: 233820160
I0714 21:27:41.364296 28909 net.cpp:156] Memory required for data: 273960960
I0714 21:27:41.364301 28913 layer_factory.hpp:77] Creating layer inception_3a/output
I0714 21:27:41.364302 28909 layer_factory.hpp:77] Creating layer inception_3b/1x1
I0714 21:27:41.364320 28913 net.cpp:91] Creating Layer inception_3a/output
I0714 21:27:41.364327 28913 net.cpp:425] inception_3a/output <- inception_3a/1x1
I0714 21:27:41.364331 28909 net.cpp:91] Creating Layer inception_3b/1x1
I0714 21:27:41.364336 28913 net.cpp:425] inception_3a/output <- inception_3a/3x3
I0714 21:27:41.364338 28909 net.cpp:425] inception_3b/1x1 <- inception_3a/output_inception_3a/output_0_split_0
I0714 21:27:41.364341 28913 net.cpp:425] inception_3a/output <- inception_3a/5x5
I0714 21:27:41.364347 28913 net.cpp:425] inception_3a/output <- inception_3a/pool_proj
I0714 21:27:41.364348 28909 net.cpp:399] inception_3b/1x1 -> inception_3b/1x1
I0714 21:27:41.364357 28913 net.cpp:399] inception_3a/output -> inception_3a/output
I0714 21:27:41.364491 28913 net.cpp:141] Setting up inception_3a/output
I0714 21:27:41.364505 28913 net.cpp:148] Top shape: 10 256 28 28 (2007040)
I0714 21:27:41.364509 28913 net.cpp:156] Memory required for data: 241848320
I0714 21:27:41.364514 28913 layer_factory.hpp:77] Creating layer inception_3a/output_inception_3a/output_0_split
I0714 21:27:41.364524 28913 net.cpp:91] Creating Layer inception_3a/output_inception_3a/output_0_split
I0714 21:27:41.364531 28913 net.cpp:425] inception_3a/output_inception_3a/output_0_split <- inception_3a/output
I0714 21:27:41.364540 28913 net.cpp:399] inception_3a/output_inception_3a/output_0_split -> inception_3a/output_inception_3a/output_0_split_0
I0714 21:27:41.364550 28913 net.cpp:399] inception_3a/output_inception_3a/output_0_split -> inception_3a/output_inception_3a/output_0_split_1
I0714 21:27:41.364559 28913 net.cpp:399] inception_3a/output_inception_3a/output_0_split -> inception_3a/output_inception_3a/output_0_split_2
I0714 21:27:41.364568 28913 net.cpp:399] inception_3a/output_inception_3a/output_0_split -> inception_3a/output_inception_3a/output_0_split_3
I0714 21:27:41.364969 28913 net.cpp:141] Setting up inception_3a/output_inception_3a/output_0_split
I0714 21:27:41.364981 28913 net.cpp:148] Top shape: 10 256 28 28 (2007040)
I0714 21:27:41.364987 28913 net.cpp:148] Top shape: 10 256 28 28 (2007040)
I0714 21:27:41.364994 28913 net.cpp:148] Top shape: 10 256 28 28 (2007040)
I0714 21:27:41.364998 28913 net.cpp:148] Top shape: 10 256 28 28 (2007040)
I0714 21:27:41.365002 28913 net.cpp:156] Memory required for data: 273960960
I0714 21:27:41.365008 28913 layer_factory.hpp:77] Creating layer inception_3b/1x1
I0714 21:27:41.365026 28913 net.cpp:91] Creating Layer inception_3b/1x1
I0714 21:27:41.365033 28913 net.cpp:425] inception_3b/1x1 <- inception_3a/output_inception_3a/output_0_split_0
I0714 21:27:41.365046 28913 net.cpp:399] inception_3b/1x1 -> inception_3b/1x1
I0714 21:27:41.369631 28909 net.cpp:141] Setting up inception_3b/1x1
I0714 21:27:41.369655 28909 net.cpp:148] Top shape: 10 128 28 28 (1003520)
I0714 21:27:41.369662 28909 net.cpp:156] Memory required for data: 277975040
I0714 21:27:41.369673 28909 layer_factory.hpp:77] Creating layer inception_3b/relu_1x1
I0714 21:27:41.369688 28909 net.cpp:91] Creating Layer inception_3b/relu_1x1
I0714 21:27:41.369694 28909 net.cpp:425] inception_3b/relu_1x1 <- inception_3b/1x1
I0714 21:27:41.369702 28909 net.cpp:386] inception_3b/relu_1x1 -> inception_3b/1x1 (in-place)
I0714 21:27:41.370231 28909 net.cpp:141] Setting up inception_3b/relu_1x1
I0714 21:27:41.370246 28913 net.cpp:141] Setting up inception_3b/1x1
I0714 21:27:41.370255 28909 net.cpp:148] Top shape: 10 128 28 28 (1003520)
I0714 21:27:41.370262 28913 net.cpp:148] Top shape: 10 128 28 28 (1003520)
I0714 21:27:41.370265 28909 net.cpp:156] Memory required for data: 281989120
I0714 21:27:41.370268 28913 net.cpp:156] Memory required for data: 277975040
I0714 21:27:41.370275 28909 layer_factory.hpp:77] Creating layer inception_3b/3x3_reduce
I0714 21:27:41.370278 28913 layer_factory.hpp:77] Creating layer inception_3b/relu_1x1
I0714 21:27:41.370290 28913 net.cpp:91] Creating Layer inception_3b/relu_1x1
I0714 21:27:41.370296 28913 net.cpp:425] inception_3b/relu_1x1 <- inception_3b/1x1
I0714 21:27:41.370314 28913 net.cpp:386] inception_3b/relu_1x1 -> inception_3b/1x1 (in-place)
I0714 21:27:41.370319 28909 net.cpp:91] Creating Layer inception_3b/3x3_reduce
I0714 21:27:41.370332 28909 net.cpp:425] inception_3b/3x3_reduce <- inception_3a/output_inception_3a/output_0_split_1
I0714 21:27:41.370350 28909 net.cpp:399] inception_3b/3x3_reduce -> inception_3b/3x3_reduce
I0714 21:27:41.370726 28913 net.cpp:141] Setting up inception_3b/relu_1x1
I0714 21:27:41.370741 28913 net.cpp:148] Top shape: 10 128 28 28 (1003520)
I0714 21:27:41.370746 28913 net.cpp:156] Memory required for data: 281989120
I0714 21:27:41.370754 28913 layer_factory.hpp:77] Creating layer inception_3b/3x3_reduce
I0714 21:27:41.370772 28913 net.cpp:91] Creating Layer inception_3b/3x3_reduce
I0714 21:27:41.370779 28913 net.cpp:425] inception_3b/3x3_reduce <- inception_3a/output_inception_3a/output_0_split_1
I0714 21:27:41.370792 28913 net.cpp:399] inception_3b/3x3_reduce -> inception_3b/3x3_reduce
I0714 21:27:41.375031 28909 net.cpp:141] Setting up inception_3b/3x3_reduce
I0714 21:27:41.375057 28909 net.cpp:148] Top shape: 10 128 28 28 (1003520)
I0714 21:27:41.375063 28909 net.cpp:156] Memory required for data: 286003200
I0714 21:27:41.375074 28909 layer_factory.hpp:77] Creating layer inception_3b/relu_3x3_reduce
I0714 21:27:41.375087 28909 net.cpp:91] Creating Layer inception_3b/relu_3x3_reduce
I0714 21:27:41.375093 28909 net.cpp:425] inception_3b/relu_3x3_reduce <- inception_3b/3x3_reduce
I0714 21:27:41.375115 28909 net.cpp:386] inception_3b/relu_3x3_reduce -> inception_3b/3x3_reduce (in-place)
I0714 21:27:41.375408 28913 net.cpp:141] Setting up inception_3b/3x3_reduce
I0714 21:27:41.375428 28913 net.cpp:148] Top shape: 10 128 28 28 (1003520)
I0714 21:27:41.375434 28913 net.cpp:156] Memory required for data: 286003200
I0714 21:27:41.375445 28913 layer_factory.hpp:77] Creating layer inception_3b/relu_3x3_reduce
I0714 21:27:41.375459 28913 net.cpp:91] Creating Layer inception_3b/relu_3x3_reduce
I0714 21:27:41.375468 28913 net.cpp:425] inception_3b/relu_3x3_reduce <- inception_3b/3x3_reduce
I0714 21:27:41.375474 28909 net.cpp:141] Setting up inception_3b/relu_3x3_reduce
I0714 21:27:41.375478 28913 net.cpp:386] inception_3b/relu_3x3_reduce -> inception_3b/3x3_reduce (in-place)
I0714 21:27:41.375494 28909 net.cpp:148] Top shape: 10 128 28 28 (1003520)
I0714 21:27:41.375499 28909 net.cpp:156] Memory required for data: 290017280
I0714 21:27:41.375505 28909 layer_factory.hpp:77] Creating layer inception_3b/3x3
I0714 21:27:41.375526 28909 net.cpp:91] Creating Layer inception_3b/3x3
I0714 21:27:41.375533 28909 net.cpp:425] inception_3b/3x3 <- inception_3b/3x3_reduce
I0714 21:27:41.375543 28909 net.cpp:399] inception_3b/3x3 -> inception_3b/3x3
I0714 21:27:41.375875 28913 net.cpp:141] Setting up inception_3b/relu_3x3_reduce
I0714 21:27:41.375890 28913 net.cpp:148] Top shape: 10 128 28 28 (1003520)
I0714 21:27:41.375895 28913 net.cpp:156] Memory required for data: 290017280
I0714 21:27:41.375900 28913 layer_factory.hpp:77] Creating layer inception_3b/3x3
I0714 21:27:41.375921 28913 net.cpp:91] Creating Layer inception_3b/3x3
I0714 21:27:41.375926 28913 net.cpp:425] inception_3b/3x3 <- inception_3b/3x3_reduce
I0714 21:27:41.375939 28913 net.cpp:399] inception_3b/3x3 -> inception_3b/3x3
I0714 21:27:41.384271 28909 net.cpp:141] Setting up inception_3b/3x3
I0714 21:27:41.384299 28909 net.cpp:148] Top shape: 10 192 28 28 (1505280)
I0714 21:27:41.384305 28909 net.cpp:156] Memory required for data: 296038400
I0714 21:27:41.384317 28909 layer_factory.hpp:77] Creating layer inception_3b/relu_3x3
I0714 21:27:41.384338 28909 net.cpp:91] Creating Layer inception_3b/relu_3x3
I0714 21:27:41.384346 28909 net.cpp:425] inception_3b/relu_3x3 <- inception_3b/3x3
I0714 21:27:41.384353 28909 net.cpp:386] inception_3b/relu_3x3 -> inception_3b/3x3 (in-place)
I0714 21:27:41.385424 28909 net.cpp:141] Setting up inception_3b/relu_3x3
I0714 21:27:41.385444 28909 net.cpp:148] Top shape: 10 192 28 28 (1505280)
I0714 21:27:41.385449 28909 net.cpp:156] Memory required for data: 302059520
I0714 21:27:41.385455 28909 layer_factory.hpp:77] Creating layer inception_3b/5x5_reduce
I0714 21:27:41.385471 28909 net.cpp:91] Creating Layer inception_3b/5x5_reduce
I0714 21:27:41.385478 28909 net.cpp:425] inception_3b/5x5_reduce <- inception_3a/output_inception_3a/output_0_split_2
I0714 21:27:41.385493 28909 net.cpp:399] inception_3b/5x5_reduce -> inception_3b/5x5_reduce
I0714 21:27:41.385527 28913 net.cpp:141] Setting up inception_3b/3x3
I0714 21:27:41.385547 28913 net.cpp:148] Top shape: 10 192 28 28 (1505280)
I0714 21:27:41.385553 28913 net.cpp:156] Memory required for data: 296038400
I0714 21:27:41.385563 28913 layer_factory.hpp:77] Creating layer inception_3b/relu_3x3
I0714 21:27:41.385578 28913 net.cpp:91] Creating Layer inception_3b/relu_3x3
I0714 21:27:41.385584 28913 net.cpp:425] inception_3b/relu_3x3 <- inception_3b/3x3
I0714 21:27:41.385596 28913 net.cpp:386] inception_3b/relu_3x3 -> inception_3b/3x3 (in-place)
I0714 21:27:41.386584 28913 net.cpp:141] Setting up inception_3b/relu_3x3
I0714 21:27:41.386602 28913 net.cpp:148] Top shape: 10 192 28 28 (1505280)
I0714 21:27:41.386607 28913 net.cpp:156] Memory required for data: 302059520
I0714 21:27:41.386613 28913 layer_factory.hpp:77] Creating layer inception_3b/5x5_reduce
I0714 21:27:41.386633 28913 net.cpp:91] Creating Layer inception_3b/5x5_reduce
I0714 21:27:41.386641 28913 net.cpp:425] inception_3b/5x5_reduce <- inception_3a/output_inception_3a/output_0_split_2
I0714 21:27:41.386653 28913 net.cpp:399] inception_3b/5x5_reduce -> inception_3b/5x5_reduce
I0714 21:27:41.391067 28909 net.cpp:141] Setting up inception_3b/5x5_reduce
I0714 21:27:41.391094 28909 net.cpp:148] Top shape: 10 32 28 28 (250880)
I0714 21:27:41.391100 28909 net.cpp:156] Memory required for data: 303063040
I0714 21:27:41.391111 28909 layer_factory.hpp:77] Creating layer inception_3b/relu_5x5_reduce
I0714 21:27:41.391126 28909 net.cpp:91] Creating Layer inception_3b/relu_5x5_reduce
I0714 21:27:41.391134 28909 net.cpp:425] inception_3b/relu_5x5_reduce <- inception_3b/5x5_reduce
I0714 21:27:41.391142 28909 net.cpp:386] inception_3b/relu_5x5_reduce -> inception_3b/5x5_reduce (in-place)
I0714 21:27:41.391585 28909 net.cpp:141] Setting up inception_3b/relu_5x5_reduce
I0714 21:27:41.391602 28909 net.cpp:148] Top shape: 10 32 28 28 (250880)
I0714 21:27:41.391607 28909 net.cpp:156] Memory required for data: 304066560
I0714 21:27:41.391613 28909 layer_factory.hpp:77] Creating layer inception_3b/5x5
I0714 21:27:41.391633 28909 net.cpp:91] Creating Layer inception_3b/5x5
I0714 21:27:41.391640 28909 net.cpp:425] inception_3b/5x5 <- inception_3b/5x5_reduce
I0714 21:27:41.391651 28909 net.cpp:399] inception_3b/5x5 -> inception_3b/5x5
I0714 21:27:41.391681 28913 net.cpp:141] Setting up inception_3b/5x5_reduce
I0714 21:27:41.391700 28913 net.cpp:148] Top shape: 10 32 28 28 (250880)
I0714 21:27:41.391705 28913 net.cpp:156] Memory required for data: 303063040
I0714 21:27:41.391716 28913 layer_factory.hpp:77] Creating layer inception_3b/relu_5x5_reduce
I0714 21:27:41.391726 28913 net.cpp:91] Creating Layer inception_3b/relu_5x5_reduce
I0714 21:27:41.391732 28913 net.cpp:425] inception_3b/relu_5x5_reduce <- inception_3b/5x5_reduce
I0714 21:27:41.391744 28913 net.cpp:386] inception_3b/relu_5x5_reduce -> inception_3b/5x5_reduce (in-place)
I0714 21:27:41.392132 28913 net.cpp:141] Setting up inception_3b/relu_5x5_reduce
I0714 21:27:41.392148 28913 net.cpp:148] Top shape: 10 32 28 28 (250880)
I0714 21:27:41.392153 28913 net.cpp:156] Memory required for data: 304066560
I0714 21:27:41.392158 28913 layer_factory.hpp:77] Creating layer inception_3b/5x5
I0714 21:27:41.392179 28913 net.cpp:91] Creating Layer inception_3b/5x5
I0714 21:27:41.392185 28913 net.cpp:425] inception_3b/5x5 <- inception_3b/5x5_reduce
I0714 21:27:41.392194 28913 net.cpp:399] inception_3b/5x5 -> inception_3b/5x5
I0714 21:27:41.402580 28909 net.cpp:141] Setting up inception_3b/5x5
I0714 21:27:41.402632 28909 net.cpp:148] Top shape: 10 96 28 28 (752640)
I0714 21:27:41.402640 28909 net.cpp:156] Memory required for data: 307077120
I0714 21:27:41.402660 28909 layer_factory.hpp:77] Creating layer inception_3b/relu_5x5
I0714 21:27:41.402684 28909 net.cpp:91] Creating Layer inception_3b/relu_5x5
I0714 21:27:41.402715 28909 net.cpp:425] inception_3b/relu_5x5 <- inception_3b/5x5
I0714 21:27:41.402716 28913 net.cpp:141] Setting up inception_3b/5x5
I0714 21:27:41.402750 28909 net.cpp:386] inception_3b/relu_5x5 -> inception_3b/5x5 (in-place)
I0714 21:27:41.402758 28913 net.cpp:148] Top shape: 10 96 28 28 (752640)
I0714 21:27:41.402765 28913 net.cpp:156] Memory required for data: 307077120
I0714 21:27:41.402778 28913 layer_factory.hpp:77] Creating layer inception_3b/relu_5x5
I0714 21:27:41.402794 28913 net.cpp:91] Creating Layer inception_3b/relu_5x5
I0714 21:27:41.402803 28913 net.cpp:425] inception_3b/relu_5x5 <- inception_3b/5x5
I0714 21:27:41.402813 28913 net.cpp:386] inception_3b/relu_5x5 -> inception_3b/5x5 (in-place)
I0714 21:27:41.403259 28913 net.cpp:141] Setting up inception_3b/relu_5x5
I0714 21:27:41.403273 28913 net.cpp:148] Top shape: 10 96 28 28 (752640)
I0714 21:27:41.403278 28913 net.cpp:156] Memory required for data: 310087680
I0714 21:27:41.403285 28913 layer_factory.hpp:77] Creating layer inception_3b/pool
I0714 21:27:41.403301 28913 net.cpp:91] Creating Layer inception_3b/pool
I0714 21:27:41.403307 28913 net.cpp:425] inception_3b/pool <- inception_3a/output_inception_3a/output_0_split_3
I0714 21:27:41.403321 28913 net.cpp:399] inception_3b/pool -> inception_3b/pool
I0714 21:27:41.403525 28913 net.cpp:141] Setting up inception_3b/pool
I0714 21:27:41.403538 28913 net.cpp:148] Top shape: 10 256 28 28 (2007040)
I0714 21:27:41.403543 28913 net.cpp:156] Memory required for data: 318115840
I0714 21:27:41.403549 28913 layer_factory.hpp:77] Creating layer inception_3b/pool_proj
I0714 21:27:41.403563 28909 net.cpp:141] Setting up inception_3b/relu_5x5
I0714 21:27:41.403574 28913 net.cpp:91] Creating Layer inception_3b/pool_proj
I0714 21:27:41.403583 28913 net.cpp:425] inception_3b/pool_proj <- inception_3b/pool
I0714 21:27:41.403587 28909 net.cpp:148] Top shape: 10 96 28 28 (752640)
I0714 21:27:41.403594 28913 net.cpp:399] inception_3b/pool_proj -> inception_3b/pool_proj
I0714 21:27:41.403597 28909 net.cpp:156] Memory required for data: 310087680
I0714 21:27:41.403607 28909 layer_factory.hpp:77] Creating layer inception_3b/pool
I0714 21:27:41.403625 28909 net.cpp:91] Creating Layer inception_3b/pool
I0714 21:27:41.403636 28909 net.cpp:425] inception_3b/pool <- inception_3a/output_inception_3a/output_0_split_3
I0714 21:27:41.403667 28909 net.cpp:399] inception_3b/pool -> inception_3b/pool
I0714 21:27:41.404120 28909 net.cpp:141] Setting up inception_3b/pool
I0714 21:27:41.404144 28909 net.cpp:148] Top shape: 10 256 28 28 (2007040)
I0714 21:27:41.404151 28909 net.cpp:156] Memory required for data: 318115840
I0714 21:27:41.404161 28909 layer_factory.hpp:77] Creating layer inception_3b/pool_proj
I0714 21:27:41.404196 28909 net.cpp:91] Creating Layer inception_3b/pool_proj
I0714 21:27:41.404207 28909 net.cpp:425] inception_3b/pool_proj <- inception_3b/pool
I0714 21:27:41.404227 28909 net.cpp:399] inception_3b/pool_proj -> inception_3b/pool_proj
I0714 21:27:41.408354 28913 net.cpp:141] Setting up inception_3b/pool_proj
I0714 21:27:41.408380 28913 net.cpp:148] Top shape: 10 64 28 28 (501760)
I0714 21:27:41.408385 28913 net.cpp:156] Memory required for data: 320122880
I0714 21:27:41.408396 28913 layer_factory.hpp:77] Creating layer inception_3b/relu_pool_proj
I0714 21:27:41.408408 28913 net.cpp:91] Creating Layer inception_3b/relu_pool_proj
I0714 21:27:41.408414 28913 net.cpp:425] inception_3b/relu_pool_proj <- inception_3b/pool_proj
I0714 21:27:41.408427 28913 net.cpp:386] inception_3b/relu_pool_proj -> inception_3b/pool_proj (in-place)
I0714 21:27:41.410562 28913 net.cpp:141] Setting up inception_3b/relu_pool_proj
I0714 21:27:41.410583 28913 net.cpp:148] Top shape: 10 64 28 28 (501760)
I0714 21:27:41.410589 28913 net.cpp:156] Memory required for data: 322129920
I0714 21:27:41.410595 28913 layer_factory.hpp:77] Creating layer inception_3b/output
I0714 21:27:41.410607 28913 net.cpp:91] Creating Layer inception_3b/output
I0714 21:27:41.410614 28913 net.cpp:425] inception_3b/output <- inception_3b/1x1
I0714 21:27:41.410624 28913 net.cpp:425] inception_3b/output <- inception_3b/3x3
I0714 21:27:41.410630 28913 net.cpp:425] inception_3b/output <- inception_3b/5x5
I0714 21:27:41.410635 28913 net.cpp:425] inception_3b/output <- inception_3b/pool_proj
I0714 21:27:41.410646 28913 net.cpp:399] inception_3b/output -> inception_3b/output
I0714 21:27:41.411433 28913 net.cpp:141] Setting up inception_3b/output
I0714 21:27:41.411449 28913 net.cpp:148] Top shape: 10 480 28 28 (3763200)
I0714 21:27:41.411454 28913 net.cpp:156] Memory required for data: 337182720
I0714 21:27:41.411460 28913 layer_factory.hpp:77] Creating layer pool3/3x3_s2
I0714 21:27:41.411476 28913 net.cpp:91] Creating Layer pool3/3x3_s2
I0714 21:27:41.411484 28913 net.cpp:425] pool3/3x3_s2 <- inception_3b/output
I0714 21:27:41.411491 28913 net.cpp:399] pool3/3x3_s2 -> pool3/3x3_s2
I0714 21:27:41.411736 28913 net.cpp:141] Setting up pool3/3x3_s2
I0714 21:27:41.411753 28913 net.cpp:148] Top shape: 10 480 14 14 (940800)
I0714 21:27:41.411759 28913 net.cpp:156] Memory required for data: 340945920
I0714 21:27:41.411764 28913 layer_factory.hpp:77] Creating layer pool3/3x3_s2_pool3/3x3_s2_0_split
I0714 21:27:41.411775 28913 net.cpp:91] Creating Layer pool3/3x3_s2_pool3/3x3_s2_0_split
I0714 21:27:41.411782 28913 net.cpp:425] pool3/3x3_s2_pool3/3x3_s2_0_split <- pool3/3x3_s2
I0714 21:27:41.411792 28913 net.cpp:399] pool3/3x3_s2_pool3/3x3_s2_0_split -> pool3/3x3_s2_pool3/3x3_s2_0_split_0
I0714 21:27:41.411801 28913 net.cpp:399] pool3/3x3_s2_pool3/3x3_s2_0_split -> pool3/3x3_s2_pool3/3x3_s2_0_split_1
I0714 21:27:41.411810 28913 net.cpp:399] pool3/3x3_s2_pool3/3x3_s2_0_split -> pool3/3x3_s2_pool3/3x3_s2_0_split_2
I0714 21:27:41.411819 28913 net.cpp:399] pool3/3x3_s2_pool3/3x3_s2_0_split -> pool3/3x3_s2_pool3/3x3_s2_0_split_3
I0714 21:27:41.412372 28913 net.cpp:141] Setting up pool3/3x3_s2_pool3/3x3_s2_0_split
I0714 21:27:41.412385 28913 net.cpp:148] Top shape: 10 480 14 14 (940800)
I0714 21:27:41.412391 28913 net.cpp:148] Top shape: 10 480 14 14 (940800)
I0714 21:27:41.412397 28913 net.cpp:148] Top shape: 10 480 14 14 (940800)
I0714 21:27:41.412402 28913 net.cpp:148] Top shape: 10 480 14 14 (940800)
I0714 21:27:41.412407 28913 net.cpp:156] Memory required for data: 355998720
I0714 21:27:41.412412 28913 layer_factory.hpp:77] Creating layer inception_4a/1x1
I0714 21:27:41.412433 28913 net.cpp:91] Creating Layer inception_4a/1x1
I0714 21:27:41.412441 28913 net.cpp:425] inception_4a/1x1 <- pool3/3x3_s2_pool3/3x3_s2_0_split_0
I0714 21:27:41.412449 28913 net.cpp:399] inception_4a/1x1 -> inception_4a/1x1
I0714 21:27:41.413700 28909 net.cpp:141] Setting up inception_3b/pool_proj
I0714 21:27:41.413740 28909 net.cpp:148] Top shape: 10 64 28 28 (501760)
I0714 21:27:41.413750 28909 net.cpp:156] Memory required for data: 320122880
I0714 21:27:41.413769 28909 layer_factory.hpp:77] Creating layer inception_3b/relu_pool_proj
I0714 21:27:41.413791 28909 net.cpp:91] Creating Layer inception_3b/relu_pool_proj
I0714 21:27:41.413802 28909 net.cpp:425] inception_3b/relu_pool_proj <- inception_3b/pool_proj
I0714 21:27:41.413817 28909 net.cpp:386] inception_3b/relu_pool_proj -> inception_3b/pool_proj (in-place)
I0714 21:27:41.415254 28909 net.cpp:141] Setting up inception_3b/relu_pool_proj
I0714 21:27:41.415282 28909 net.cpp:148] Top shape: 10 64 28 28 (501760)
I0714 21:27:41.415288 28909 net.cpp:156] Memory required for data: 322129920
I0714 21:27:41.415297 28909 layer_factory.hpp:77] Creating layer inception_3b/output
I0714 21:27:41.415308 28909 net.cpp:91] Creating Layer inception_3b/output
I0714 21:27:41.415316 28909 net.cpp:425] inception_3b/output <- inception_3b/1x1
I0714 21:27:41.415326 28909 net.cpp:425] inception_3b/output <- inception_3b/3x3
I0714 21:27:41.415333 28909 net.cpp:425] inception_3b/output <- inception_3b/5x5
I0714 21:27:41.415341 28909 net.cpp:425] inception_3b/output <- inception_3b/pool_proj
I0714 21:27:41.415350 28909 net.cpp:399] inception_3b/output -> inception_3b/output
I0714 21:27:41.415496 28909 net.cpp:141] Setting up inception_3b/output
I0714 21:27:41.415513 28909 net.cpp:148] Top shape: 10 480 28 28 (3763200)
I0714 21:27:41.415534 28909 net.cpp:156] Memory required for data: 337182720
I0714 21:27:41.415539 28909 layer_factory.hpp:77] Creating layer pool3/3x3_s2
I0714 21:27:41.415549 28909 net.cpp:91] Creating Layer pool3/3x3_s2
I0714 21:27:41.415555 28909 net.cpp:425] pool3/3x3_s2 <- inception_3b/output
I0714 21:27:41.415567 28909 net.cpp:399] pool3/3x3_s2 -> pool3/3x3_s2
I0714 21:27:41.417001 28909 net.cpp:141] Setting up pool3/3x3_s2
I0714 21:27:41.417022 28909 net.cpp:148] Top shape: 10 480 14 14 (940800)
I0714 21:27:41.417029 28909 net.cpp:156] Memory required for data: 340945920
I0714 21:27:41.417037 28909 layer_factory.hpp:77] Creating layer pool3/3x3_s2_pool3/3x3_s2_0_split
I0714 21:27:41.417048 28909 net.cpp:91] Creating Layer pool3/3x3_s2_pool3/3x3_s2_0_split
I0714 21:27:41.417055 28909 net.cpp:425] pool3/3x3_s2_pool3/3x3_s2_0_split <- pool3/3x3_s2
I0714 21:27:41.417070 28909 net.cpp:399] pool3/3x3_s2_pool3/3x3_s2_0_split -> pool3/3x3_s2_pool3/3x3_s2_0_split_0
I0714 21:27:41.417084 28909 net.cpp:399] pool3/3x3_s2_pool3/3x3_s2_0_split -> pool3/3x3_s2_pool3/3x3_s2_0_split_1
I0714 21:27:41.417095 28909 net.cpp:399] pool3/3x3_s2_pool3/3x3_s2_0_split -> pool3/3x3_s2_pool3/3x3_s2_0_split_2
I0714 21:27:41.417119 28909 net.cpp:399] pool3/3x3_s2_pool3/3x3_s2_0_split -> pool3/3x3_s2_pool3/3x3_s2_0_split_3
I0714 21:27:41.418786 28909 net.cpp:141] Setting up pool3/3x3_s2_pool3/3x3_s2_0_split
I0714 21:27:41.418802 28909 net.cpp:148] Top shape: 10 480 14 14 (940800)
I0714 21:27:41.418808 28909 net.cpp:148] Top shape: 10 480 14 14 (940800)
I0714 21:27:41.418815 28909 net.cpp:148] Top shape: 10 480 14 14 (940800)
I0714 21:27:41.418822 28909 net.cpp:148] Top shape: 10 480 14 14 (940800)
I0714 21:27:41.418825 28909 net.cpp:156] Memory required for data: 355998720
I0714 21:27:41.418830 28909 layer_factory.hpp:77] Creating layer inception_4a/1x1
I0714 21:27:41.418849 28909 net.cpp:91] Creating Layer inception_4a/1x1
I0714 21:27:41.418855 28909 net.cpp:425] inception_4a/1x1 <- pool3/3x3_s2_pool3/3x3_s2_0_split_0
I0714 21:27:41.418870 28909 net.cpp:399] inception_4a/1x1 -> inception_4a/1x1
I0714 21:27:41.419677 28913 net.cpp:141] Setting up inception_4a/1x1
I0714 21:27:41.419704 28913 net.cpp:148] Top shape: 10 192 14 14 (376320)
I0714 21:27:41.419711 28913 net.cpp:156] Memory required for data: 357504000
I0714 21:27:41.419723 28913 layer_factory.hpp:77] Creating layer inception_4a/relu_1x1
I0714 21:27:41.419744 28913 net.cpp:91] Creating Layer inception_4a/relu_1x1
I0714 21:27:41.419755 28913 net.cpp:425] inception_4a/relu_1x1 <- inception_4a/1x1
I0714 21:27:41.419775 28913 net.cpp:386] inception_4a/relu_1x1 -> inception_4a/1x1 (in-place)
I0714 21:27:41.420357 28913 net.cpp:141] Setting up inception_4a/relu_1x1
I0714 21:27:41.420379 28913 net.cpp:148] Top shape: 10 192 14 14 (376320)
I0714 21:27:41.420388 28913 net.cpp:156] Memory required for data: 359009280
I0714 21:27:41.420397 28913 layer_factory.hpp:77] Creating layer inception_4a/3x3_reduce
I0714 21:27:41.420428 28913 net.cpp:91] Creating Layer inception_4a/3x3_reduce
I0714 21:27:41.420439 28913 net.cpp:425] inception_4a/3x3_reduce <- pool3/3x3_s2_pool3/3x3_s2_0_split_1
I0714 21:27:41.420460 28913 net.cpp:399] inception_4a/3x3_reduce -> inception_4a/3x3_reduce
I0714 21:27:41.426748 28909 net.cpp:141] Setting up inception_4a/1x1
I0714 21:27:41.426784 28909 net.cpp:148] Top shape: 10 192 14 14 (376320)
I0714 21:27:41.426791 28909 net.cpp:156] Memory required for data: 357504000
I0714 21:27:41.426805 28909 layer_factory.hpp:77] Creating layer inception_4a/relu_1x1
I0714 21:27:41.426818 28909 net.cpp:91] Creating Layer inception_4a/relu_1x1
I0714 21:27:41.426826 28909 net.cpp:425] inception_4a/relu_1x1 <- inception_4a/1x1
I0714 21:27:41.426841 28909 net.cpp:386] inception_4a/relu_1x1 -> inception_4a/1x1 (in-place)
I0714 21:27:41.426928 28913 net.cpp:141] Setting up inception_4a/3x3_reduce
I0714 21:27:41.426949 28913 net.cpp:148] Top shape: 10 96 14 14 (188160)
I0714 21:27:41.426954 28913 net.cpp:156] Memory required for data: 359761920
I0714 21:27:41.426977 28913 layer_factory.hpp:77] Creating layer inception_4a/relu_3x3_reduce
I0714 21:27:41.426990 28913 net.cpp:91] Creating Layer inception_4a/relu_3x3_reduce
I0714 21:27:41.426995 28913 net.cpp:425] inception_4a/relu_3x3_reduce <- inception_4a/3x3_reduce
I0714 21:27:41.427006 28913 net.cpp:386] inception_4a/relu_3x3_reduce -> inception_4a/3x3_reduce (in-place)
I0714 21:27:41.427248 28909 net.cpp:141] Setting up inception_4a/relu_1x1
I0714 21:27:41.427268 28909 net.cpp:148] Top shape: 10 192 14 14 (376320)
I0714 21:27:41.427278 28909 net.cpp:156] Memory required for data: 359009280
I0714 21:27:41.427287 28909 layer_factory.hpp:77] Creating layer inception_4a/3x3_reduce
I0714 21:27:41.427314 28909 net.cpp:91] Creating Layer inception_4a/3x3_reduce
I0714 21:27:41.427322 28909 net.cpp:425] inception_4a/3x3_reduce <- pool3/3x3_s2_pool3/3x3_s2_0_split_1
I0714 21:27:41.427333 28909 net.cpp:399] inception_4a/3x3_reduce -> inception_4a/3x3_reduce
I0714 21:27:41.427388 28913 net.cpp:141] Setting up inception_4a/relu_3x3_reduce
I0714 21:27:41.427403 28913 net.cpp:148] Top shape: 10 96 14 14 (188160)
I0714 21:27:41.427408 28913 net.cpp:156] Memory required for data: 360514560
I0714 21:27:41.427414 28913 layer_factory.hpp:77] Creating layer inception_4a/3x3
I0714 21:27:41.427433 28913 net.cpp:91] Creating Layer inception_4a/3x3
I0714 21:27:41.427446 28913 net.cpp:425] inception_4a/3x3 <- inception_4a/3x3_reduce
I0714 21:27:41.427464 28913 net.cpp:399] inception_4a/3x3 -> inception_4a/3x3
I0714 21:27:41.434701 28909 net.cpp:141] Setting up inception_4a/3x3_reduce
I0714 21:27:41.434725 28909 net.cpp:148] Top shape: 10 96 14 14 (188160)
I0714 21:27:41.434731 28909 net.cpp:156] Memory required for data: 359761920
I0714 21:27:41.434756 28909 layer_factory.hpp:77] Creating layer inception_4a/relu_3x3_reduce
I0714 21:27:41.434773 28909 net.cpp:91] Creating Layer inception_4a/relu_3x3_reduce
I0714 21:27:41.434780 28909 net.cpp:425] inception_4a/relu_3x3_reduce <- inception_4a/3x3_reduce
I0714 21:27:41.434788 28909 net.cpp:386] inception_4a/relu_3x3_reduce -> inception_4a/3x3_reduce (in-place)
I0714 21:27:41.435259 28909 net.cpp:141] Setting up inception_4a/relu_3x3_reduce
I0714 21:27:41.435273 28909 net.cpp:148] Top shape: 10 96 14 14 (188160)
I0714 21:27:41.435278 28909 net.cpp:156] Memory required for data: 360514560
I0714 21:27:41.435284 28909 layer_factory.hpp:77] Creating layer inception_4a/3x3
I0714 21:27:41.435303 28909 net.cpp:91] Creating Layer inception_4a/3x3
I0714 21:27:41.435309 28909 net.cpp:425] inception_4a/3x3 <- inception_4a/3x3_reduce
I0714 21:27:41.435319 28909 net.cpp:399] inception_4a/3x3 -> inception_4a/3x3
I0714 21:27:41.435804 28913 net.cpp:141] Setting up inception_4a/3x3
I0714 21:27:41.435827 28913 net.cpp:148] Top shape: 10 208 14 14 (407680)
I0714 21:27:41.435832 28913 net.cpp:156] Memory required for data: 362145280
I0714 21:27:41.435843 28913 layer_factory.hpp:77] Creating layer inception_4a/relu_3x3
I0714 21:27:41.435853 28913 net.cpp:91] Creating Layer inception_4a/relu_3x3
I0714 21:27:41.435859 28913 net.cpp:425] inception_4a/relu_3x3 <- inception_4a/3x3
I0714 21:27:41.435871 28913 net.cpp:386] inception_4a/relu_3x3 -> inception_4a/3x3 (in-place)
I0714 21:27:41.436846 28913 net.cpp:141] Setting up inception_4a/relu_3x3
I0714 21:27:41.436863 28913 net.cpp:148] Top shape: 10 208 14 14 (407680)
I0714 21:27:41.436869 28913 net.cpp:156] Memory required for data: 363776000
I0714 21:27:41.436874 28913 layer_factory.hpp:77] Creating layer inception_4a/5x5_reduce
I0714 21:27:41.437296 28913 net.cpp:91] Creating Layer inception_4a/5x5_reduce
I0714 21:27:41.437309 28913 net.cpp:425] inception_4a/5x5_reduce <- pool3/3x3_s2_pool3/3x3_s2_0_split_2
I0714 21:27:41.437321 28913 net.cpp:399] inception_4a/5x5_reduce -> inception_4a/5x5_reduce
I0714 21:27:41.443188 28913 net.cpp:141] Setting up inception_4a/5x5_reduce
I0714 21:27:41.443208 28913 net.cpp:148] Top shape: 10 16 14 14 (31360)
I0714 21:27:41.443214 28913 net.cpp:156] Memory required for data: 363901440
I0714 21:27:41.443223 28913 layer_factory.hpp:77] Creating layer inception_4a/relu_5x5_reduce
I0714 21:27:41.443238 28913 net.cpp:91] Creating Layer inception_4a/relu_5x5_reduce
I0714 21:27:41.443244 28913 net.cpp:425] inception_4a/relu_5x5_reduce <- inception_4a/5x5_reduce
I0714 21:27:41.443253 28913 net.cpp:386] inception_4a/relu_5x5_reduce -> inception_4a/5x5_reduce (in-place)
I0714 21:27:41.443969 28913 net.cpp:141] Setting up inception_4a/relu_5x5_reduce
I0714 21:27:41.443986 28913 net.cpp:148] Top shape: 10 16 14 14 (31360)
I0714 21:27:41.443991 28913 net.cpp:156] Memory required for data: 364026880
I0714 21:27:41.443997 28913 layer_factory.hpp:77] Creating layer inception_4a/5x5
I0714 21:27:41.444017 28913 net.cpp:91] Creating Layer inception_4a/5x5
I0714 21:27:41.444025 28913 net.cpp:425] inception_4a/5x5 <- inception_4a/5x5_reduce
I0714 21:27:41.444047 28913 net.cpp:399] inception_4a/5x5 -> inception_4a/5x5
I0714 21:27:41.444133 28909 net.cpp:141] Setting up inception_4a/3x3
I0714 21:27:41.444159 28909 net.cpp:148] Top shape: 10 208 14 14 (407680)
I0714 21:27:41.444165 28909 net.cpp:156] Memory required for data: 362145280
I0714 21:27:41.444176 28909 layer_factory.hpp:77] Creating layer inception_4a/relu_3x3
I0714 21:27:41.444187 28909 net.cpp:91] Creating Layer inception_4a/relu_3x3
I0714 21:27:41.444193 28909 net.cpp:425] inception_4a/relu_3x3 <- inception_4a/3x3
I0714 21:27:41.444202 28909 net.cpp:386] inception_4a/relu_3x3 -> inception_4a/3x3 (in-place)
I0714 21:27:41.445233 28909 net.cpp:141] Setting up inception_4a/relu_3x3
I0714 21:27:41.445252 28909 net.cpp:148] Top shape: 10 208 14 14 (407680)
I0714 21:27:41.445257 28909 net.cpp:156] Memory required for data: 363776000
I0714 21:27:41.445263 28909 layer_factory.hpp:77] Creating layer inception_4a/5x5_reduce
I0714 21:27:41.445282 28909 net.cpp:91] Creating Layer inception_4a/5x5_reduce
I0714 21:27:41.445289 28909 net.cpp:425] inception_4a/5x5_reduce <- pool3/3x3_s2_pool3/3x3_s2_0_split_2
I0714 21:27:41.445300 28909 net.cpp:399] inception_4a/5x5_reduce -> inception_4a/5x5_reduce
I0714 21:27:41.449975 28913 net.cpp:141] Setting up inception_4a/5x5
I0714 21:27:41.449996 28913 net.cpp:148] Top shape: 10 48 14 14 (94080)
I0714 21:27:41.450002 28913 net.cpp:156] Memory required for data: 364403200
I0714 21:27:41.450012 28913 layer_factory.hpp:77] Creating layer inception_4a/relu_5x5
I0714 21:27:41.450022 28913 net.cpp:91] Creating Layer inception_4a/relu_5x5
I0714 21:27:41.450029 28913 net.cpp:425] inception_4a/relu_5x5 <- inception_4a/5x5
I0714 21:27:41.450039 28913 net.cpp:386] inception_4a/relu_5x5 -> inception_4a/5x5 (in-place)
I0714 21:27:41.450515 28913 net.cpp:141] Setting up inception_4a/relu_5x5
I0714 21:27:41.450531 28913 net.cpp:148] Top shape: 10 48 14 14 (94080)
I0714 21:27:41.450536 28913 net.cpp:156] Memory required for data: 364779520
I0714 21:27:41.450541 28913 layer_factory.hpp:77] Creating layer inception_4a/pool
I0714 21:27:41.450557 28913 net.cpp:91] Creating Layer inception_4a/pool
I0714 21:27:41.450563 28913 net.cpp:425] inception_4a/pool <- pool3/3x3_s2_pool3/3x3_s2_0_split_3
I0714 21:27:41.450572 28913 net.cpp:399] inception_4a/pool -> inception_4a/pool
I0714 21:27:41.450767 28909 net.cpp:141] Setting up inception_4a/5x5_reduce
I0714 21:27:41.450789 28909 net.cpp:148] Top shape: 10 16 14 14 (31360)
I0714 21:27:41.450794 28909 net.cpp:156] Memory required for data: 363901440
I0714 21:27:41.450805 28909 layer_factory.hpp:77] Creating layer inception_4a/relu_5x5_reduce
I0714 21:27:41.450806 28913 net.cpp:141] Setting up inception_4a/pool
I0714 21:27:41.450816 28909 net.cpp:91] Creating Layer inception_4a/relu_5x5_reduce
I0714 21:27:41.450821 28913 net.cpp:148] Top shape: 10 480 14 14 (940800)
I0714 21:27:41.450824 28909 net.cpp:425] inception_4a/relu_5x5_reduce <- inception_4a/5x5_reduce
I0714 21:27:41.450827 28913 net.cpp:156] Memory required for data: 368542720
I0714 21:27:41.450834 28913 layer_factory.hpp:77] Creating layer inception_4a/pool_proj
I0714 21:27:41.450834 28909 net.cpp:386] inception_4a/relu_5x5_reduce -> inception_4a/5x5_reduce (in-place)
I0714 21:27:41.450855 28913 net.cpp:91] Creating Layer inception_4a/pool_proj
I0714 21:27:41.450862 28913 net.cpp:425] inception_4a/pool_proj <- inception_4a/pool
I0714 21:27:41.450872 28913 net.cpp:399] inception_4a/pool_proj -> inception_4a/pool_proj
I0714 21:27:41.451316 28909 net.cpp:141] Setting up inception_4a/relu_5x5_reduce
I0714 21:27:41.451330 28909 net.cpp:148] Top shape: 10 16 14 14 (31360)
I0714 21:27:41.451335 28909 net.cpp:156] Memory required for data: 364026880
I0714 21:27:41.451341 28909 layer_factory.hpp:77] Creating layer inception_4a/5x5
I0714 21:27:41.451359 28909 net.cpp:91] Creating Layer inception_4a/5x5
I0714 21:27:41.451365 28909 net.cpp:425] inception_4a/5x5 <- inception_4a/5x5_reduce
I0714 21:27:41.451378 28909 net.cpp:399] inception_4a/5x5 -> inception_4a/5x5
I0714 21:27:41.455870 28913 net.cpp:141] Setting up inception_4a/pool_proj
I0714 21:27:41.455890 28913 net.cpp:148] Top shape: 10 64 14 14 (125440)
I0714 21:27:41.455896 28913 net.cpp:156] Memory required for data: 369044480
I0714 21:27:41.455906 28913 layer_factory.hpp:77] Creating layer inception_4a/relu_pool_proj
I0714 21:27:41.455920 28913 net.cpp:91] Creating Layer inception_4a/relu_pool_proj
I0714 21:27:41.455927 28913 net.cpp:425] inception_4a/relu_pool_proj <- inception_4a/pool_proj
I0714 21:27:41.455935 28913 net.cpp:386] inception_4a/relu_pool_proj -> inception_4a/pool_proj (in-place)
I0714 21:27:41.456792 28909 net.cpp:141] Setting up inception_4a/5x5
I0714 21:27:41.456815 28909 net.cpp:148] Top shape: 10 48 14 14 (94080)
I0714 21:27:41.456820 28909 net.cpp:156] Memory required for data: 364403200
I0714 21:27:41.456830 28909 layer_factory.hpp:77] Creating layer inception_4a/relu_5x5
I0714 21:27:41.456843 28909 net.cpp:91] Creating Layer inception_4a/relu_5x5
I0714 21:27:41.456851 28909 net.cpp:425] inception_4a/relu_5x5 <- inception_4a/5x5
I0714 21:27:41.456858 28909 net.cpp:386] inception_4a/relu_5x5 -> inception_4a/5x5 (in-place)
I0714 21:27:41.456979 28913 net.cpp:141] Setting up inception_4a/relu_pool_proj
I0714 21:27:41.457001 28913 net.cpp:148] Top shape: 10 64 14 14 (125440)
I0714 21:27:41.457012 28913 net.cpp:156] Memory required for data: 369546240
I0714 21:27:41.457022 28913 layer_factory.hpp:77] Creating layer inception_4a/output
I0714 21:27:41.457046 28913 net.cpp:91] Creating Layer inception_4a/output
I0714 21:27:41.457059 28913 net.cpp:425] inception_4a/output <- inception_4a/1x1
I0714 21:27:41.457072 28913 net.cpp:425] inception_4a/output <- inception_4a/3x3
I0714 21:27:41.457084 28913 net.cpp:425] inception_4a/output <- inception_4a/5x5
I0714 21:27:41.457096 28913 net.cpp:425] inception_4a/output <- inception_4a/pool_proj
I0714 21:27:41.457111 28913 net.cpp:399] inception_4a/output -> inception_4a/output
I0714 21:27:41.457185 28909 net.cpp:141] Setting up inception_4a/relu_5x5
I0714 21:27:41.457200 28909 net.cpp:148] Top shape: 10 48 14 14 (94080)
I0714 21:27:41.457204 28909 net.cpp:156] Memory required for data: 364779520
I0714 21:27:41.457209 28909 layer_factory.hpp:77] Creating layer inception_4a/pool
I0714 21:27:41.457219 28909 net.cpp:91] Creating Layer inception_4a/pool
I0714 21:27:41.457226 28909 net.cpp:425] inception_4a/pool <- pool3/3x3_s2_pool3/3x3_s2_0_split_3
I0714 21:27:41.457238 28909 net.cpp:399] inception_4a/pool -> inception_4a/pool
I0714 21:27:41.457249 28913 net.cpp:141] Setting up inception_4a/output
I0714 21:27:41.457269 28913 net.cpp:148] Top shape: 10 512 14 14 (1003520)
I0714 21:27:41.457279 28913 net.cpp:156] Memory required for data: 373560320
I0714 21:27:41.457289 28913 layer_factory.hpp:77] Creating layer inception_4a/output_inception_4a/output_0_split
I0714 21:27:41.457306 28913 net.cpp:91] Creating Layer inception_4a/output_inception_4a/output_0_split
I0714 21:27:41.457319 28913 net.cpp:425] inception_4a/output_inception_4a/output_0_split <- inception_4a/output
I0714 21:27:41.457340 28913 net.cpp:399] inception_4a/output_inception_4a/output_0_split -> inception_4a/output_inception_4a/output_0_split_0
I0714 21:27:41.457360 28913 net.cpp:399] inception_4a/output_inception_4a/output_0_split -> inception_4a/output_inception_4a/output_0_split_1
I0714 21:27:41.457377 28909 net.cpp:141] Setting up inception_4a/pool
I0714 21:27:41.457379 28913 net.cpp:399] inception_4a/output_inception_4a/output_0_split -> inception_4a/output_inception_4a/output_0_split_2
I0714 21:27:41.457391 28909 net.cpp:148] Top shape: 10 480 14 14 (940800)
I0714 21:27:41.457396 28909 net.cpp:156] Memory required for data: 368542720
I0714 21:27:41.457399 28913 net.cpp:399] inception_4a/output_inception_4a/output_0_split -> inception_4a/output_inception_4a/output_0_split_3
I0714 21:27:41.457402 28909 layer_factory.hpp:77] Creating layer inception_4a/pool_proj
I0714 21:27:41.457432 28909 net.cpp:91] Creating Layer inception_4a/pool_proj
I0714 21:27:41.457439 28909 net.cpp:425] inception_4a/pool_proj <- inception_4a/pool
I0714 21:27:41.457451 28909 net.cpp:399] inception_4a/pool_proj -> inception_4a/pool_proj
I0714 21:27:41.458166 28913 net.cpp:141] Setting up inception_4a/output_inception_4a/output_0_split
I0714 21:27:41.458189 28913 net.cpp:148] Top shape: 10 512 14 14 (1003520)
I0714 21:27:41.458202 28913 net.cpp:148] Top shape: 10 512 14 14 (1003520)
I0714 21:27:41.458214 28913 net.cpp:148] Top shape: 10 512 14 14 (1003520)
I0714 21:27:41.458225 28913 net.cpp:148] Top shape: 10 512 14 14 (1003520)
I0714 21:27:41.458233 28913 net.cpp:156] Memory required for data: 389616640
I0714 21:27:41.458243 28913 layer_factory.hpp:77] Creating layer inception_4b/1x1
I0714 21:27:41.458272 28913 net.cpp:91] Creating Layer inception_4b/1x1
I0714 21:27:41.458286 28913 net.cpp:425] inception_4b/1x1 <- inception_4a/output_inception_4a/output_0_split_0
I0714 21:27:41.458307 28913 net.cpp:399] inception_4b/1x1 -> inception_4b/1x1
I0714 21:27:41.463315 28909 net.cpp:141] Setting up inception_4a/pool_proj
I0714 21:27:41.463337 28909 net.cpp:148] Top shape: 10 64 14 14 (125440)
I0714 21:27:41.463342 28909 net.cpp:156] Memory required for data: 369044480
I0714 21:27:41.463353 28909 layer_factory.hpp:77] Creating layer inception_4a/relu_pool_proj
I0714 21:27:41.463363 28909 net.cpp:91] Creating Layer inception_4a/relu_pool_proj
I0714 21:27:41.463369 28909 net.cpp:425] inception_4a/relu_pool_proj <- inception_4a/pool_proj
I0714 21:27:41.463382 28909 net.cpp:386] inception_4a/relu_pool_proj -> inception_4a/pool_proj (in-place)
I0714 21:27:41.464529 28909 net.cpp:141] Setting up inception_4a/relu_pool_proj
I0714 21:27:41.464548 28909 net.cpp:148] Top shape: 10 64 14 14 (125440)
I0714 21:27:41.464555 28909 net.cpp:156] Memory required for data: 369546240
I0714 21:27:41.464561 28909 layer_factory.hpp:77] Creating layer inception_4a/output
I0714 21:27:41.464571 28909 net.cpp:91] Creating Layer inception_4a/output
I0714 21:27:41.464577 28909 net.cpp:425] inception_4a/output <- inception_4a/1x1
I0714 21:27:41.464584 28909 net.cpp:425] inception_4a/output <- inception_4a/3x3
I0714 21:27:41.464591 28909 net.cpp:425] inception_4a/output <- inception_4a/5x5
I0714 21:27:41.464596 28909 net.cpp:425] inception_4a/output <- inception_4a/pool_proj
I0714 21:27:41.464601 28913 net.cpp:141] Setting up inception_4b/1x1
I0714 21:27:41.464608 28909 net.cpp:399] inception_4a/output -> inception_4a/output
I0714 21:27:41.464619 28913 net.cpp:148] Top shape: 10 160 14 14 (313600)
I0714 21:27:41.464625 28913 net.cpp:156] Memory required for data: 390871040
I0714 21:27:41.464635 28913 layer_factory.hpp:77] Creating layer inception_4b/relu_1x1
I0714 21:27:41.464645 28913 net.cpp:91] Creating Layer inception_4b/relu_1x1
I0714 21:27:41.464651 28913 net.cpp:425] inception_4b/relu_1x1 <- inception_4b/1x1
I0714 21:27:41.464663 28913 net.cpp:386] inception_4b/relu_1x1 -> inception_4b/1x1 (in-place)
I0714 21:27:41.464707 28909 net.cpp:141] Setting up inception_4a/output
I0714 21:27:41.464720 28909 net.cpp:148] Top shape: 10 512 14 14 (1003520)
I0714 21:27:41.464725 28909 net.cpp:156] Memory required for data: 373560320
I0714 21:27:41.464730 28909 layer_factory.hpp:77] Creating layer inception_4a/output_inception_4a/output_0_split
I0714 21:27:41.464740 28909 net.cpp:91] Creating Layer inception_4a/output_inception_4a/output_0_split
I0714 21:27:41.464745 28909 net.cpp:425] inception_4a/output_inception_4a/output_0_split <- inception_4a/output
I0714 21:27:41.464756 28909 net.cpp:399] inception_4a/output_inception_4a/output_0_split -> inception_4a/output_inception_4a/output_0_split_0
I0714 21:27:41.464767 28909 net.cpp:399] inception_4a/output_inception_4a/output_0_split -> inception_4a/output_inception_4a/output_0_split_1
I0714 21:27:41.464777 28909 net.cpp:399] inception_4a/output_inception_4a/output_0_split -> inception_4a/output_inception_4a/output_0_split_2
I0714 21:27:41.464788 28909 net.cpp:399] inception_4a/output_inception_4a/output_0_split -> inception_4a/output_inception_4a/output_0_split_3
I0714 21:27:41.465183 28909 net.cpp:141] Setting up inception_4a/output_inception_4a/output_0_split
I0714 21:27:41.465198 28909 net.cpp:148] Top shape: 10 512 14 14 (1003520)
I0714 21:27:41.465198 28913 net.cpp:141] Setting up inception_4b/relu_1x1
I0714 21:27:41.465205 28909 net.cpp:148] Top shape: 10 512 14 14 (1003520)
I0714 21:27:41.465214 28909 net.cpp:148] Top shape: 10 512 14 14 (1003520)
I0714 21:27:41.465214 28913 net.cpp:148] Top shape: 10 160 14 14 (313600)
I0714 21:27:41.465221 28909 net.cpp:148] Top shape: 10 512 14 14 (1003520)
I0714 21:27:41.465230 28909 net.cpp:156] Memory required for data: 389616640
I0714 21:27:41.465221 28913 net.cpp:156] Memory required for data: 392125440
I0714 21:27:41.465240 28909 layer_factory.hpp:77] Creating layer inception_4b/1x1
I0714 21:27:41.465245 28913 layer_factory.hpp:77] Creating layer inception_4b/3x3_reduce
I0714 21:27:41.465256 28909 net.cpp:91] Creating Layer inception_4b/1x1
I0714 21:27:41.465263 28909 net.cpp:425] inception_4b/1x1 <- inception_4a/output_inception_4a/output_0_split_0
I0714 21:27:41.465265 28913 net.cpp:91] Creating Layer inception_4b/3x3_reduce
I0714 21:27:41.465273 28913 net.cpp:425] inception_4b/3x3_reduce <- inception_4a/output_inception_4a/output_0_split_1
I0714 21:27:41.465276 28909 net.cpp:399] inception_4b/1x1 -> inception_4b/1x1
I0714 21:27:41.465283 28913 net.cpp:399] inception_4b/3x3_reduce -> inception_4b/3x3_reduce
I0714 21:27:41.470940 28913 net.cpp:141] Setting up inception_4b/3x3_reduce
I0714 21:27:41.470963 28913 net.cpp:148] Top shape: 10 112 14 14 (219520)
I0714 21:27:41.470968 28913 net.cpp:156] Memory required for data: 393003520
I0714 21:27:41.470978 28913 layer_factory.hpp:77] Creating layer inception_4b/relu_3x3_reduce
I0714 21:27:41.470991 28913 net.cpp:91] Creating Layer inception_4b/relu_3x3_reduce
I0714 21:27:41.470998 28913 net.cpp:425] inception_4b/relu_3x3_reduce <- inception_4b/3x3_reduce
I0714 21:27:41.471005 28913 net.cpp:386] inception_4b/relu_3x3_reduce -> inception_4b/3x3_reduce (in-place)
I0714 21:27:41.471434 28913 net.cpp:141] Setting up inception_4b/relu_3x3_reduce
I0714 21:27:41.471448 28913 net.cpp:148] Top shape: 10 112 14 14 (219520)
I0714 21:27:41.471446 28909 net.cpp:141] Setting up inception_4b/1x1
I0714 21:27:41.471453 28913 net.cpp:156] Memory required for data: 393881600
I0714 21:27:41.471470 28909 net.cpp:148] Top shape: 10 160 14 14 (313600)
I0714 21:27:41.471472 28913 layer_factory.hpp:77] Creating layer inception_4b/3x3
I0714 21:27:41.471480 28909 net.cpp:156] Memory required for data: 390871040
I0714 21:27:41.471492 28909 layer_factory.hpp:77] Creating layer inception_4b/relu_1x1
I0714 21:27:41.471501 28913 net.cpp:91] Creating Layer inception_4b/3x3
I0714 21:27:41.471503 28909 net.cpp:91] Creating Layer inception_4b/relu_1x1
I0714 21:27:41.471513 28913 net.cpp:425] inception_4b/3x3 <- inception_4b/3x3_reduce
I0714 21:27:41.471523 28909 net.cpp:425] inception_4b/relu_1x1 <- inception_4b/1x1
I0714 21:27:41.471536 28913 net.cpp:399] inception_4b/3x3 -> inception_4b/3x3
I0714 21:27:41.471541 28909 net.cpp:386] inception_4b/relu_1x1 -> inception_4b/1x1 (in-place)
I0714 21:27:41.472061 28909 net.cpp:141] Setting up inception_4b/relu_1x1
I0714 21:27:41.472075 28909 net.cpp:148] Top shape: 10 160 14 14 (313600)
I0714 21:27:41.472081 28909 net.cpp:156] Memory required for data: 392125440
I0714 21:27:41.472086 28909 layer_factory.hpp:77] Creating layer inception_4b/3x3_reduce
I0714 21:27:41.472105 28909 net.cpp:91] Creating Layer inception_4b/3x3_reduce
I0714 21:27:41.472111 28909 net.cpp:425] inception_4b/3x3_reduce <- inception_4a/output_inception_4a/output_0_split_1
I0714 21:27:41.472124 28909 net.cpp:399] inception_4b/3x3_reduce -> inception_4b/3x3_reduce
I0714 21:27:41.479393 28909 net.cpp:141] Setting up inception_4b/3x3_reduce
I0714 21:27:41.479420 28909 net.cpp:148] Top shape: 10 112 14 14 (219520)
I0714 21:27:41.479427 28909 net.cpp:156] Memory required for data: 393003520
I0714 21:27:41.479439 28909 layer_factory.hpp:77] Creating layer inception_4b/relu_3x3_reduce
I0714 21:27:41.479452 28909 net.cpp:91] Creating Layer inception_4b/relu_3x3_reduce
I0714 21:27:41.479460 28909 net.cpp:425] inception_4b/relu_3x3_reduce <- inception_4b/3x3_reduce
I0714 21:27:41.479468 28909 net.cpp:386] inception_4b/relu_3x3_reduce -> inception_4b/3x3_reduce (in-place)
I0714 21:27:41.479985 28909 net.cpp:141] Setting up inception_4b/relu_3x3_reduce
I0714 21:27:41.480001 28909 net.cpp:148] Top shape: 10 112 14 14 (219520)
I0714 21:27:41.480007 28909 net.cpp:156] Memory required for data: 393881600
I0714 21:27:41.480012 28909 layer_factory.hpp:77] Creating layer inception_4b/3x3
I0714 21:27:41.480032 28909 net.cpp:91] Creating Layer inception_4b/3x3
I0714 21:27:41.480039 28909 net.cpp:425] inception_4b/3x3 <- inception_4b/3x3_reduce
I0714 21:27:41.480051 28909 net.cpp:399] inception_4b/3x3 -> inception_4b/3x3
I0714 21:27:41.480089 28913 net.cpp:141] Setting up inception_4b/3x3
I0714 21:27:41.480108 28913 net.cpp:148] Top shape: 10 224 14 14 (439040)
I0714 21:27:41.480113 28913 net.cpp:156] Memory required for data: 395637760
I0714 21:27:41.480123 28913 layer_factory.hpp:77] Creating layer inception_4b/relu_3x3
I0714 21:27:41.480132 28913 net.cpp:91] Creating Layer inception_4b/relu_3x3
I0714 21:27:41.480139 28913 net.cpp:425] inception_4b/relu_3x3 <- inception_4b/3x3
I0714 21:27:41.480149 28913 net.cpp:386] inception_4b/relu_3x3 -> inception_4b/3x3 (in-place)
I0714 21:27:41.481140 28913 net.cpp:141] Setting up inception_4b/relu_3x3
I0714 21:27:41.481160 28913 net.cpp:148] Top shape: 10 224 14 14 (439040)
I0714 21:27:41.481165 28913 net.cpp:156] Memory required for data: 397393920
I0714 21:27:41.481171 28913 layer_factory.hpp:77] Creating layer inception_4b/5x5_reduce
I0714 21:27:41.481202 28913 net.cpp:91] Creating Layer inception_4b/5x5_reduce
I0714 21:27:41.481210 28913 net.cpp:425] inception_4b/5x5_reduce <- inception_4a/output_inception_4a/output_0_split_2
I0714 21:27:41.481223 28913 net.cpp:399] inception_4b/5x5_reduce -> inception_4b/5x5_reduce
I0714 21:27:41.487874 28913 net.cpp:141] Setting up inception_4b/5x5_reduce
I0714 21:27:41.487892 28913 net.cpp:148] Top shape: 10 24 14 14 (47040)
I0714 21:27:41.487901 28913 net.cpp:156] Memory required for data: 397582080
I0714 21:27:41.487911 28913 layer_factory.hpp:77] Creating layer inception_4b/relu_5x5_reduce
I0714 21:27:41.487921 28913 net.cpp:91] Creating Layer inception_4b/relu_5x5_reduce
I0714 21:27:41.487928 28913 net.cpp:425] inception_4b/relu_5x5_reduce <- inception_4b/5x5_reduce
I0714 21:27:41.487936 28913 net.cpp:386] inception_4b/relu_5x5_reduce -> inception_4b/5x5_reduce (in-place)
I0714 21:27:41.488234 28913 net.cpp:141] Setting up inception_4b/relu_5x5_reduce
I0714 21:27:41.488246 28913 net.cpp:148] Top shape: 10 24 14 14 (47040)
I0714 21:27:41.488251 28913 net.cpp:156] Memory required for data: 397770240
I0714 21:27:41.488257 28913 layer_factory.hpp:77] Creating layer inception_4b/5x5
I0714 21:27:41.488275 28913 net.cpp:91] Creating Layer inception_4b/5x5
I0714 21:27:41.488282 28913 net.cpp:425] inception_4b/5x5 <- inception_4b/5x5_reduce
I0714 21:27:41.488296 28913 net.cpp:399] inception_4b/5x5 -> inception_4b/5x5
I0714 21:27:41.491547 28909 net.cpp:141] Setting up inception_4b/3x3
I0714 21:27:41.491578 28909 net.cpp:148] Top shape: 10 224 14 14 (439040)
I0714 21:27:41.491585 28909 net.cpp:156] Memory required for data: 395637760
I0714 21:27:41.491595 28909 layer_factory.hpp:77] Creating layer inception_4b/relu_3x3
I0714 21:27:41.491611 28909 net.cpp:91] Creating Layer inception_4b/relu_3x3
I0714 21:27:41.491618 28909 net.cpp:425] inception_4b/relu_3x3 <- inception_4b/3x3
I0714 21:27:41.491626 28909 net.cpp:386] inception_4b/relu_3x3 -> inception_4b/3x3 (in-place)
I0714 21:27:41.492676 28909 net.cpp:141] Setting up inception_4b/relu_3x3
I0714 21:27:41.492694 28909 net.cpp:148] Top shape: 10 224 14 14 (439040)
I0714 21:27:41.492700 28909 net.cpp:156] Memory required for data: 397393920
I0714 21:27:41.492707 28909 layer_factory.hpp:77] Creating layer inception_4b/5x5_reduce
I0714 21:27:41.492740 28909 net.cpp:91] Creating Layer inception_4b/5x5_reduce
I0714 21:27:41.492748 28909 net.cpp:425] inception_4b/5x5_reduce <- inception_4a/output_inception_4a/output_0_split_2
I0714 21:27:41.492763 28909 net.cpp:399] inception_4b/5x5_reduce -> inception_4b/5x5_reduce
I0714 21:27:41.495906 28913 net.cpp:141] Setting up inception_4b/5x5
I0714 21:27:41.495929 28913 net.cpp:148] Top shape: 10 64 14 14 (125440)
I0714 21:27:41.495934 28913 net.cpp:156] Memory required for data: 398272000
I0714 21:27:41.495945 28913 layer_factory.hpp:77] Creating layer inception_4b/relu_5x5
I0714 21:27:41.495956 28913 net.cpp:91] Creating Layer inception_4b/relu_5x5
I0714 21:27:41.495962 28913 net.cpp:425] inception_4b/relu_5x5 <- inception_4b/5x5
I0714 21:27:41.495975 28913 net.cpp:386] inception_4b/relu_5x5 -> inception_4b/5x5 (in-place)
I0714 21:27:41.496299 28913 net.cpp:141] Setting up inception_4b/relu_5x5
I0714 21:27:41.496312 28913 net.cpp:148] Top shape: 10 64 14 14 (125440)
I0714 21:27:41.496317 28913 net.cpp:156] Memory required for data: 398773760
I0714 21:27:41.496323 28913 layer_factory.hpp:77] Creating layer inception_4b/pool
I0714 21:27:41.496332 28913 net.cpp:91] Creating Layer inception_4b/pool
I0714 21:27:41.496338 28913 net.cpp:425] inception_4b/pool <- inception_4a/output_inception_4a/output_0_split_3
I0714 21:27:41.496347 28913 net.cpp:399] inception_4b/pool -> inception_4b/pool
I0714 21:27:41.496978 28913 net.cpp:141] Setting up inception_4b/pool
I0714 21:27:41.496994 28913 net.cpp:148] Top shape: 10 512 14 14 (1003520)
I0714 21:27:41.497000 28913 net.cpp:156] Memory required for data: 402787840
I0714 21:27:41.497005 28913 layer_factory.hpp:77] Creating layer inception_4b/pool_proj
I0714 21:27:41.497035 28913 net.cpp:91] Creating Layer inception_4b/pool_proj
I0714 21:27:41.497043 28913 net.cpp:425] inception_4b/pool_proj <- inception_4b/pool
I0714 21:27:41.497053 28913 net.cpp:399] inception_4b/pool_proj -> inception_4b/pool_proj
I0714 21:27:41.498955 28909 net.cpp:141] Setting up inception_4b/5x5_reduce
I0714 21:27:41.498980 28909 net.cpp:148] Top shape: 10 24 14 14 (47040)
I0714 21:27:41.498986 28909 net.cpp:156] Memory required for data: 397582080
I0714 21:27:41.498996 28909 layer_factory.hpp:77] Creating layer inception_4b/relu_5x5_reduce
I0714 21:27:41.499006 28909 net.cpp:91] Creating Layer inception_4b/relu_5x5_reduce
I0714 21:27:41.499012 28909 net.cpp:425] inception_4b/relu_5x5_reduce <- inception_4b/5x5_reduce
I0714 21:27:41.499023 28909 net.cpp:386] inception_4b/relu_5x5_reduce -> inception_4b/5x5_reduce (in-place)
I0714 21:27:41.499431 28909 net.cpp:141] Setting up inception_4b/relu_5x5_reduce
I0714 21:27:41.499445 28909 net.cpp:148] Top shape: 10 24 14 14 (47040)
I0714 21:27:41.499450 28909 net.cpp:156] Memory required for data: 397770240
I0714 21:27:41.499456 28909 layer_factory.hpp:77] Creating layer inception_4b/5x5
I0714 21:27:41.499475 28909 net.cpp:91] Creating Layer inception_4b/5x5
I0714 21:27:41.499482 28909 net.cpp:425] inception_4b/5x5 <- inception_4b/5x5_reduce
I0714 21:27:41.499492 28909 net.cpp:399] inception_4b/5x5 -> inception_4b/5x5
I0714 21:27:41.503793 28913 net.cpp:141] Setting up inception_4b/pool_proj
I0714 21:27:41.503818 28913 net.cpp:148] Top shape: 10 64 14 14 (125440)
I0714 21:27:41.503823 28913 net.cpp:156] Memory required for data: 403289600
I0714 21:27:41.503834 28913 layer_factory.hpp:77] Creating layer inception_4b/relu_pool_proj
I0714 21:27:41.503844 28913 net.cpp:91] Creating Layer inception_4b/relu_pool_proj
I0714 21:27:41.503850 28913 net.cpp:425] inception_4b/relu_pool_proj <- inception_4b/pool_proj
I0714 21:27:41.503859 28913 net.cpp:386] inception_4b/relu_pool_proj -> inception_4b/pool_proj (in-place)
I0714 21:27:41.504811 28913 net.cpp:141] Setting up inception_4b/relu_pool_proj
I0714 21:27:41.504829 28913 net.cpp:148] Top shape: 10 64 14 14 (125440)
I0714 21:27:41.504835 28913 net.cpp:156] Memory required for data: 403791360
I0714 21:27:41.504842 28913 layer_factory.hpp:77] Creating layer inception_4b/output
I0714 21:27:41.504851 28913 net.cpp:91] Creating Layer inception_4b/output
I0714 21:27:41.504858 28913 net.cpp:425] inception_4b/output <- inception_4b/1x1
I0714 21:27:41.504864 28913 net.cpp:425] inception_4b/output <- inception_4b/3x3
I0714 21:27:41.504869 28913 net.cpp:425] inception_4b/output <- inception_4b/5x5
I0714 21:27:41.504875 28913 net.cpp:425] inception_4b/output <- inception_4b/pool_proj
I0714 21:27:41.504883 28913 net.cpp:399] inception_4b/output -> inception_4b/output
I0714 21:27:41.505573 28913 net.cpp:141] Setting up inception_4b/output
I0714 21:27:41.505587 28913 net.cpp:148] Top shape: 10 512 14 14 (1003520)
I0714 21:27:41.505592 28913 net.cpp:156] Memory required for data: 407805440
I0714 21:27:41.505599 28913 layer_factory.hpp:77] Creating layer inception_4b/output_inception_4b/output_0_split
I0714 21:27:41.505609 28913 net.cpp:91] Creating Layer inception_4b/output_inception_4b/output_0_split
I0714 21:27:41.505614 28913 net.cpp:425] inception_4b/output_inception_4b/output_0_split <- inception_4b/output
I0714 21:27:41.505625 28913 net.cpp:399] inception_4b/output_inception_4b/output_0_split -> inception_4b/output_inception_4b/output_0_split_0
I0714 21:27:41.505636 28913 net.cpp:399] inception_4b/output_inception_4b/output_0_split -> inception_4b/output_inception_4b/output_0_split_1
I0714 21:27:41.505646 28913 net.cpp:399] inception_4b/output_inception_4b/output_0_split -> inception_4b/output_inception_4b/output_0_split_2
I0714 21:27:41.505656 28913 net.cpp:399] inception_4b/output_inception_4b/output_0_split -> inception_4b/output_inception_4b/output_0_split_3
I0714 21:27:41.506978 28913 net.cpp:141] Setting up inception_4b/output_inception_4b/output_0_split
I0714 21:27:41.506994 28913 net.cpp:148] Top shape: 10 512 14 14 (1003520)
I0714 21:27:41.507000 28913 net.cpp:148] Top shape: 10 512 14 14 (1003520)
I0714 21:27:41.507005 28913 net.cpp:148] Top shape: 10 512 14 14 (1003520)
I0714 21:27:41.507011 28913 net.cpp:148] Top shape: 10 512 14 14 (1003520)
I0714 21:27:41.507016 28913 net.cpp:156] Memory required for data: 423861760
I0714 21:27:41.507021 28913 layer_factory.hpp:77] Creating layer inception_4c/1x1
I0714 21:27:41.507040 28913 net.cpp:91] Creating Layer inception_4c/1x1
I0714 21:27:41.507046 28913 net.cpp:425] inception_4c/1x1 <- inception_4b/output_inception_4b/output_0_split_0
I0714 21:27:41.507060 28913 net.cpp:399] inception_4c/1x1 -> inception_4c/1x1
I0714 21:27:41.507946 28909 net.cpp:141] Setting up inception_4b/5x5
I0714 21:27:41.507972 28909 net.cpp:148] Top shape: 10 64 14 14 (125440)
I0714 21:27:41.507978 28909 net.cpp:156] Memory required for data: 398272000
I0714 21:27:41.507989 28909 layer_factory.hpp:77] Creating layer inception_4b/relu_5x5
I0714 21:27:41.507999 28909 net.cpp:91] Creating Layer inception_4b/relu_5x5
I0714 21:27:41.508007 28909 net.cpp:425] inception_4b/relu_5x5 <- inception_4b/5x5
I0714 21:27:41.508014 28909 net.cpp:386] inception_4b/relu_5x5 -> inception_4b/5x5 (in-place)
I0714 21:27:41.508386 28909 net.cpp:141] Setting up inception_4b/relu_5x5
I0714 21:27:41.508402 28909 net.cpp:148] Top shape: 10 64 14 14 (125440)
I0714 21:27:41.508409 28909 net.cpp:156] Memory required for data: 398773760
I0714 21:27:41.508414 28909 layer_factory.hpp:77] Creating layer inception_4b/pool
I0714 21:27:41.508426 28909 net.cpp:91] Creating Layer inception_4b/pool
I0714 21:27:41.508433 28909 net.cpp:425] inception_4b/pool <- inception_4a/output_inception_4a/output_0_split_3
I0714 21:27:41.508441 28909 net.cpp:399] inception_4b/pool -> inception_4b/pool
I0714 21:27:41.508580 28909 net.cpp:141] Setting up inception_4b/pool
I0714 21:27:41.508592 28909 net.cpp:148] Top shape: 10 512 14 14 (1003520)
I0714 21:27:41.508597 28909 net.cpp:156] Memory required for data: 402787840
I0714 21:27:41.508602 28909 layer_factory.hpp:77] Creating layer inception_4b/pool_proj
I0714 21:27:41.508620 28909 net.cpp:91] Creating Layer inception_4b/pool_proj
I0714 21:27:41.508625 28909 net.cpp:425] inception_4b/pool_proj <- inception_4b/pool
I0714 21:27:41.508636 28909 net.cpp:399] inception_4b/pool_proj -> inception_4b/pool_proj
I0714 21:27:41.513218 28913 net.cpp:141] Setting up inception_4c/1x1
I0714 21:27:41.513242 28913 net.cpp:148] Top shape: 10 128 14 14 (250880)
I0714 21:27:41.513247 28913 net.cpp:156] Memory required for data: 424865280
I0714 21:27:41.513257 28913 layer_factory.hpp:77] Creating layer inception_4c/relu_1x1
I0714 21:27:41.513268 28913 net.cpp:91] Creating Layer inception_4c/relu_1x1
I0714 21:27:41.513275 28913 net.cpp:425] inception_4c/relu_1x1 <- inception_4c/1x1
I0714 21:27:41.513288 28913 net.cpp:386] inception_4c/relu_1x1 -> inception_4c/1x1 (in-place)
I0714 21:27:41.513744 28913 net.cpp:141] Setting up inception_4c/relu_1x1
I0714 21:27:41.513761 28913 net.cpp:148] Top shape: 10 128 14 14 (250880)
I0714 21:27:41.513767 28913 net.cpp:156] Memory required for data: 425868800
I0714 21:27:41.513772 28913 layer_factory.hpp:77] Creating layer inception_4c/3x3_reduce
I0714 21:27:41.513790 28913 net.cpp:91] Creating Layer inception_4c/3x3_reduce
I0714 21:27:41.513797 28913 net.cpp:425] inception_4c/3x3_reduce <- inception_4b/output_inception_4b/output_0_split_1
I0714 21:27:41.513808 28913 net.cpp:399] inception_4c/3x3_reduce -> inception_4c/3x3_reduce
I0714 21:27:41.513860 28909 net.cpp:141] Setting up inception_4b/pool_proj
…
I0714 21:27:41.653949 28913 layer_factory.hpp:77] Creating layer inception_4e/pool
I0714 21:27:41.653965 28913 net.cpp:91] Creating Layer inception_4e/pool
I0714 21:27:41.653973 28913 net.cpp:425] inception_4e/pool <- inception_4d/output_inception_4d/output_0_split_3
I0714 21:27:41.653982 28913 net.cpp:399] inception_4e/pool -> inception_4e/pool
I0714 21:27:41.654361 28913 net.cpp:141] Setting up inception_4e/pool
I0714 21:27:41.654378 28913 net.cpp:148] Top shape: 10 528 14 14 (1034880)
I0714 21:27:41.654383 28913 net.cpp:156] Memory required for data: 512296960
I0714 21:27:41.654389 28913 layer_factory.hpp:77] Creating layer inception_4e/pool_proj
I0714 21:27:41.654409 28913 net.cpp:91] Creating Layer inception_4e/pool_proj
I0714 21:27:41.654417 28913 net.cpp:425] inception_4e/pool_proj <- inception_4e/pool
I0714 21:27:41.654429 28913 net.cpp:399] inception_4e/pool_proj -> inception_4e/pool_proj
I0714 21:27:41.660528 28913 net.cpp:141] Setting up inception_4e/pool_proj
I0714 21:27:41.660547 28913 net.cpp:148] Top shape: 10 128 14 14 (250880)
I0714 21:27:41.660553 28913 net.cpp:156] Memory required for data: 513300480
I0714 21:27:41.660564 28913 layer_factory.hpp:77] Creating layer inception_4e/relu_pool_proj
I0714 21:27:41.660574 28913 net.cpp:91] Creating Layer inception_4e/relu_pool_proj
I0714 21:27:41.660580 28913 net.cpp:425] inception_4e/relu_pool_proj <- inception_4e/pool_proj
I0714 21:27:41.660593 28913 net.cpp:386] inception_4e/relu_pool_proj -> inception_4e/pool_proj (in-place)
I0714 21:27:41.661543 28909 net.cpp:141] Setting up inception_4e/5x5
I0714 21:27:41.661561 28909 net.cpp:148] Top shape: 10 128 14 14 (250880)
I0714 21:27:41.661567 28909 net.cpp:156] Memory required for data: 507153920
I0714 21:27:41.661578 28909 layer_factory.hpp:77] Creating layer inception_4e/relu_5x5
I0714 21:27:41.661592 28909 net.cpp:91] Creating Layer inception_4e/relu_5x5
I0714 21:27:41.661598 28909 net.cpp:425] inception_4e/relu_5x5 <- inception_4e/5x5
I0714 21:27:41.661607 28909 net.cpp:386] inception_4e/relu_5x5 -> inception_4e/5x5 (in-place)
I0714 21:27:41.661617 28913 net.cpp:141] Setting up inception_4e/relu_pool_proj
I0714 21:27:41.661633 28913 net.cpp:148] Top shape: 10 128 14 14 (250880)
I0714 21:27:41.661638 28913 net.cpp:156] Memory required for data: 514304000
I0714 21:27:41.661643 28913 layer_factory.hpp:77] Creating layer inception_4e/output
I0714 21:27:41.661654 28913 net.cpp:91] Creating Layer inception_4e/output
I0714 21:27:41.661660 28913 net.cpp:425] inception_4e/output <- inception_4e/1x1
I0714 21:27:41.661667 28913 net.cpp:425] inception_4e/output <- inception_4e/3x3
I0714 21:27:41.661674 28913 net.cpp:425] inception_4e/output <- inception_4e/5x5
I0714 21:27:41.661679 28913 net.cpp:425] inception_4e/output <- inception_4e/pool_proj
I0714 21:27:41.661691 28913 net.cpp:399] inception_4e/output -> inception_4e/output
I0714 21:27:41.661871 28913 net.cpp:141] Setting up inception_4e/output
I0714 21:27:41.661885 28913 net.cpp:148] Top shape: 10 832 14 14 (1630720)
I0714 21:27:41.661890 28913 net.cpp:156] Memory required for data: 520826880
I0714 21:27:41.661895 28913 layer_factory.hpp:77] Creating layer pool4/3x3_s2
I0714 21:27:41.661909 28913 net.cpp:91] Creating Layer pool4/3x3_s2
I0714 21:27:41.661916 28913 net.cpp:425] pool4/3x3_s2 <- inception_4e/output
I0714 21:27:41.661924 28913 net.cpp:399] pool4/3x3_s2 -> pool4/3x3_s2
I0714 21:27:41.661990 28909 net.cpp:141] Setting up inception_4e/relu_5x5
I0714 21:27:41.662004 28909 net.cpp:148] Top shape: 10 128 14 14 (250880)
I0714 21:27:41.662009 28909 net.cpp:156] Memory required for data: 508157440
I0714 21:27:41.662014 28909 layer_factory.hpp:77] Creating layer inception_4e/pool
I0714 21:27:41.662024 28909 net.cpp:91] Creating Layer inception_4e/pool
I0714 21:27:41.662031 28909 net.cpp:425] inception_4e/pool <- inception_4d/output_inception_4d/output_0_split_3
I0714 21:27:41.662044 28909 net.cpp:399] inception_4e/pool -> inception_4e/pool
I0714 21:27:41.662077 28913 net.cpp:141] Setting up pool4/3x3_s2
I0714 21:27:41.662091 28913 net.cpp:148] Top shape: 10 832 7 7 (407680)
I0714 21:27:41.662096 28913 net.cpp:156] Memory required for data: 522457600
I0714 21:27:41.662101 28913 layer_factory.hpp:77] Creating layer pool4/3x3_s2_pool4/3x3_s2_0_split
I0714 21:27:41.662111 28913 net.cpp:91] Creating Layer pool4/3x3_s2_pool4/3x3_s2_0_split
I0714 21:27:41.662117 28913 net.cpp:425] pool4/3x3_s2_pool4/3x3_s2_0_split <- pool4/3x3_s2
I0714 21:27:41.662127 28913 net.cpp:399] pool4/3x3_s2_pool4/3x3_s2_0_split -> pool4/3x3_s2_pool4/3x3_s2_0_split_0
I0714 21:27:41.662138 28913 net.cpp:399] pool4/3x3_s2_pool4/3x3_s2_0_split -> pool4/3x3_s2_pool4/3x3_s2_0_split_1
I0714 21:27:41.662147 28913 net.cpp:399] pool4/3x3_s2_pool4/3x3_s2_0_split -> pool4/3x3_s2_pool4/3x3_s2_0_split_2
I0714 21:27:41.662156 28913 net.cpp:399] pool4/3x3_s2_pool4/3x3_s2_0_split -> pool4/3x3_s2_pool4/3x3_s2_0_split_3
I0714 21:27:41.662278 28909 net.cpp:141] Setting up inception_4e/pool
I0714 21:27:41.662292 28909 net.cpp:148] Top shape: 10 528 14 14 (1034880)
I0714 21:27:41.662297 28909 net.cpp:156] Memory required for data: 512296960
I0714 21:27:41.662302 28909 layer_factory.hpp:77] Creating layer inception_4e/pool_proj
I0714 21:27:41.662320 28909 net.cpp:91] Creating Layer inception_4e/pool_proj
I0714 21:27:41.662328 28909 net.cpp:425] inception_4e/pool_proj <- inception_4e/pool
I0714 21:27:41.662339 28909 net.cpp:399] inception_4e/pool_proj -> inception_4e/pool_proj
I0714 21:27:41.662636 28913 net.cpp:141] Setting up pool4/3x3_s2_pool4/3x3_s2_0_split
I0714 21:27:41.662649 28913 net.cpp:148] Top shape: 10 832 7 7 (407680)
I0714 21:27:41.662657 28913 net.cpp:148] Top shape: 10 832 7 7 (407680)
I0714 21:27:41.662662 28913 net.cpp:148] Top shape: 10 832 7 7 (407680)
I0714 21:27:41.662667 28913 net.cpp:148] Top shape: 10 832 7 7 (407680)
I0714 21:27:41.662672 28913 net.cpp:156] Memory required for data: 528980480
I0714 21:27:41.662678 28913 layer_factory.hpp:77] Creating layer inception_5a/1x1
I0714 21:27:41.662700 28913 net.cpp:91] Creating Layer inception_5a/1x1
I0714 21:27:41.662708 28913 net.cpp:425] inception_5a/1x1 <- pool4/3x3_s2_pool4/3x3_s2_0_split_0
I0714 21:27:41.662722 28913 net.cpp:399] inception_5a/1x1 -> inception_5a/1x1
I0714 21:27:41.669589 28909 net.cpp:141] Setting up inception_4e/pool_proj
I0714 21:27:41.669615 28909 net.cpp:148] Top shape: 10 128 14 14 (250880)
I0714 21:27:41.669621 28909 net.cpp:156] Memory required for data: 513300480
I0714 21:27:41.669631 28909 layer_factory.hpp:77] Creating layer inception_4e/relu_pool_proj
I0714 21:27:41.669641 28909 net.cpp:91] Creating Layer inception_4e/relu_pool_proj
I0714 21:27:41.669647 28909 net.cpp:425] inception_4e/relu_pool_proj <- inception_4e/pool_proj
I0714 21:27:41.669656 28909 net.cpp:386] inception_4e/relu_pool_proj -> inception_4e/pool_proj (in-place)
I0714 21:27:41.671257 28909 net.cpp:141] Setting up inception_4e/relu_pool_proj
I0714 21:27:41.671277 28909 net.cpp:148] Top shape: 10 128 14 14 (250880)
I0714 21:27:41.671283 28909 net.cpp:156] Memory required for data: 514304000
I0714 21:27:41.671288 28909 layer_factory.hpp:77] Creating layer inception_4e/output
I0714 21:27:41.671298 28909 net.cpp:91] Creating Layer inception_4e/output
I0714 21:27:41.671303 28909 net.cpp:425] inception_4e/output <- inception_4e/1x1
I0714 21:27:41.671310 28909 net.cpp:425] inception_4e/output <- inception_4e/3x3
I0714 21:27:41.671316 28909 net.cpp:425] inception_4e/output <- inception_4e/5x5
I0714 21:27:41.671322 28909 net.cpp:425] inception_4e/output <- inception_4e/pool_proj
I0714 21:27:41.671329 28909 net.cpp:399] inception_4e/output -> inception_4e/output
I0714 21:27:41.671501 28909 net.cpp:141] Setting up inception_4e/output
I0714 21:27:41.671514 28909 net.cpp:148] Top shape: 10 832 14 14 (1630720)
I0714 21:27:41.671519 28909 net.cpp:156] Memory required for data: 520826880
I0714 21:27:41.671525 28909 layer_factory.hpp:77] Creating layer pool4/3x3_s2
I0714 21:27:41.671533 28909 net.cpp:91] Creating Layer pool4/3x3_s2
I0714 21:27:41.671540 28909 net.cpp:425] pool4/3x3_s2 <- inception_4e/output
I0714 21:27:41.671551 28909 net.cpp:399] pool4/3x3_s2 -> pool4/3x3_s2
I0714 21:27:41.671551 28913 net.cpp:141] Setting up inception_5a/1x1
I0714 21:27:41.671574 28913 net.cpp:148] Top shape: 10 256 7 7 (125440)
I0714 21:27:41.671581 28913 net.cpp:156] Memory required for data: 529482240
I0714 21:27:41.671591 28913 layer_factory.hpp:77] Creating layer inception_5a/relu_1x1
I0714 21:27:41.671607 28913 net.cpp:91] Creating Layer inception_5a/relu_1x1
I0714 21:27:41.671614 28913 net.cpp:425] inception_5a/relu_1x1 <- inception_5a/1x1
I0714 21:27:41.671625 28913 net.cpp:386] inception_5a/relu_1x1 -> inception_5a/1x1 (in-place)
I0714 21:27:41.671907 28909 net.cpp:141] Setting up pool4/3x3_s2
I0714 21:27:41.671921 28909 net.cpp:148] Top shape: 10 832 7 7 (407680)
I0714 21:27:41.671926 28909 net.cpp:156] Memory required for data: 522457600
I0714 21:27:41.671931 28909 layer_factory.hpp:77] Creating layer pool4/3x3_s2_pool4/3x3_s2_0_split
I0714 21:27:41.671941 28909 net.cpp:91] Creating Layer pool4/3x3_s2_pool4/3x3_s2_0_split
I0714 21:27:41.671947 28909 net.cpp:425] pool4/3x3_s2_pool4/3x3_s2_0_split <- pool4/3x3_s2
I0714 21:27:41.671953 28909 net.cpp:399] pool4/3x3_s2_pool4/3x3_s2_0_split -> pool4/3x3_s2_pool4/3x3_s2_0_split_0
I0714 21:27:41.671970 28909 net.cpp:399] pool4/3x3_s2_pool4/3x3_s2_0_split -> pool4/3x3_s2_pool4/3x3_s2_0_split_1
I0714 21:27:41.671980 28909 net.cpp:399] pool4/3x3_s2_pool4/3x3_s2_0_split -> pool4/3x3_s2_pool4/3x3_s2_0_split_2
I0714 21:27:41.671989 28909 net.cpp:399] pool4/3x3_s2_pool4/3x3_s2_0_split -> pool4/3x3_s2_pool4/3x3_s2_0_split_3
I0714 21:27:41.672024 28913 net.cpp:141] Setting up inception_5a/relu_1x1
I0714 21:27:41.672039 28913 net.cpp:148] Top shape: 10 256 7 7 (125440)
I0714 21:27:41.672044 28913 net.cpp:156] Memory required for data: 529984000
I0714 21:27:41.672049 28913 layer_factory.hpp:77] Creating layer inception_5a/3x3_reduce
I0714 21:27:41.672070 28913 net.cpp:91] Creating Layer inception_5a/3x3_reduce
I0714 21:27:41.672077 28913 net.cpp:425] inception_5a/3x3_reduce <- pool4/3x3_s2_pool4/3x3_s2_0_split_1
I0714 21:27:41.672093 28913 net.cpp:399] inception_5a/3x3_reduce -> inception_5a/3x3_reduce
I0714 21:27:41.672399 28909 net.cpp:141] Setting up pool4/3x3_s2_pool4/3x3_s2_0_split
I0714 21:27:41.672413 28909 net.cpp:148] Top shape: 10 832 7 7 (407680)
I0714 21:27:41.672420 28909 net.cpp:148] Top shape: 10 832 7 7 (407680)
I0714 21:27:41.672425 28909 net.cpp:148] Top shape: 10 832 7 7 (407680)
I0714 21:27:41.672430 28909 net.cpp:148] Top shape: 10 832 7 7 (407680)
I0714 21:27:41.672435 28909 net.cpp:156] Memory required for data: 528980480
I0714 21:27:41.672441 28909 layer_factory.hpp:77] Creating layer inception_5a/1x1
I0714 21:27:41.672453 28909 net.cpp:91] Creating Layer inception_5a/1x1
I0714 21:27:41.672461 28909 net.cpp:425] inception_5a/1x1 <- pool4/3x3_s2_pool4/3x3_s2_0_split_0
I0714 21:27:41.672474 28909 net.cpp:399] inception_5a/1x1 -> inception_5a/1x1
I0714 21:27:41.681239 28913 net.cpp:141] Setting up inception_5a/3x3_reduce
I0714 21:27:41.681270 28913 net.cpp:148] Top shape: 10 160 7 7 (78400)
I0714 21:27:41.681277 28913 net.cpp:156] Memory required for data: 530297600
I0714 21:27:41.681287 28913 layer_factory.hpp:77] Creating layer inception_5a/relu_3x3_reduce
I0714 21:27:41.681298 28913 net.cpp:91] Creating Layer inception_5a/relu_3x3_reduce
I0714 21:27:41.681304 28913 net.cpp:425] inception_5a/relu_3x3_reduce <- inception_5a/3x3_reduce
I0714 21:27:41.681313 28913 net.cpp:386] inception_5a/relu_3x3_reduce -> inception_5a/3x3_reduce (in-place)
I0714 21:27:41.681696 28913 net.cpp:141] Setting up inception_5a/relu_3x3_reduce
I0714 21:27:41.681710 28913 net.cpp:148] Top shape: 10 160 7 7 (78400)
I0714 21:27:41.681715 28913 net.cpp:156] Memory required for data: 530611200
I0714 21:27:41.681720 28913 layer_factory.hpp:77] Creating layer inception_5a/3x3
I0714 21:27:41.681740 28913 net.cpp:91] Creating Layer inception_5a/3x3
I0714 21:27:41.681746 28913 net.cpp:425] inception_5a/3x3 <- inception_5a/3x3_reduce
I0714 21:27:41.681759 28913 net.cpp:399] inception_5a/3x3 -> inception_5a/3x3
I0714 21:27:41.685353 28909 net.cpp:141] Setting up inception_5a/1x1
I0714 21:27:41.685384 28909 net.cpp:148] Top shape: 10 256 7 7 (125440)
I0714 21:27:41.685389 28909 net.cpp:156] Memory required for data: 529482240
I0714 21:27:41.685400 28909 layer_factory.hpp:77] Creating layer inception_5a/relu_1x1
I0714 21:27:41.685415 28909 net.cpp:91] Creating Layer inception_5a/relu_1x1
I0714 21:27:41.685422 28909 net.cpp:425] inception_5a/relu_1x1 <- inception_5a/1x1
I0714 21:27:41.685431 28909 net.cpp:386] inception_5a/relu_1x1 -> inception_5a/1x1 (in-place)
I0714 21:27:41.685742 28909 net.cpp:141] Setting up inception_5a/relu_1x1
I0714 21:27:41.685755 28909 net.cpp:148] Top shape: 10 256 7 7 (125440)
I0714 21:27:41.685761 28909 net.cpp:156] Memory required for data: 529984000
I0714 21:27:41.685766 28909 layer_factory.hpp:77] Creating layer inception_5a/3x3_reduce
I0714 21:27:41.685786 28909 net.cpp:91] Creating Layer inception_5a/3x3_reduce
I0714 21:27:41.685792 28909 net.cpp:425] inception_5a/3x3_reduce <- pool4/3x3_s2_pool4/3x3_s2_0_split_1
I0714 21:27:41.685806 28909 net.cpp:399] inception_5a/3x3_reduce -> inception_5a/3x3_reduce
I0714 21:27:41.694278 28913 net.cpp:141] Setting up inception_5a/3x3
I0714 21:27:41.694301 28913 net.cpp:148] Top shape: 10 320 7 7 (156800)
I0714 21:27:41.694308 28913 net.cpp:156] Memory required for data: 531238400
I0714 21:27:41.694319 28913 layer_factory.hpp:77] Creating layer inception_5a/relu_3x3
I0714 21:27:41.694334 28913 net.cpp:91] Creating Layer inception_5a/relu_3x3
I0714 21:27:41.694340 28913 net.cpp:425] inception_5a/relu_3x3 <- inception_5a/3x3
I0714 21:27:41.694349 28913 net.cpp:386] inception_5a/relu_3x3 -> inception_5a/3x3 (in-place)
I0714 21:27:41.695394 28913 net.cpp:141] Setting up inception_5a/relu_3x3
I0714 21:27:41.695411 28913 net.cpp:148] Top shape: 10 320 7 7 (156800)
I0714 21:27:41.695416 28913 net.cpp:156] Memory required for data: 531865600
I0714 21:27:41.695416 28909 net.cpp:141] Setting up inception_5a/3x3_reduce
I0714 21:27:41.695422 28913 layer_factory.hpp:77] Creating layer inception_5a/5x5_reduce
I0714 21:27:41.695441 28909 net.cpp:148] Top shape: 10 160 7 7 (78400)
I0714 21:27:41.695447 28909 net.cpp:156] Memory required for data: 530297600
I0714 21:27:41.695459 28913 net.cpp:91] Creating Layer inception_5a/5x5_reduce
I0714 21:27:41.695461 28909 layer_factory.hpp:77] Creating layer inception_5a/relu_3x3_reduce
I0714 21:27:41.695472 28913 net.cpp:425] inception_5a/5x5_reduce <- pool4/3x3_s2_pool4/3x3_s2_0_split_2
I0714 21:27:41.695483 28913 net.cpp:399] inception_5a/5x5_reduce -> inception_5a/5x5_reduce
I0714 21:27:41.695487 28909 net.cpp:91] Creating Layer inception_5a/relu_3x3_reduce
I0714 21:27:41.695497 28909 net.cpp:425] inception_5a/relu_3x3_reduce <- inception_5a/3x3_reduce
I0714 21:27:41.695507 28909 net.cpp:386] inception_5a/relu_3x3_reduce -> inception_5a/3x3_reduce (in-place)
I0714 21:27:41.695986 28909 net.cpp:141] Setting up inception_5a/relu_3x3_reduce
I0714 21:27:41.695999 28909 net.cpp:148] Top shape: 10 160 7 7 (78400)
I0714 21:27:41.696004 28909 net.cpp:156] Memory required for data: 530611200
I0714 21:27:41.696010 28909 layer_factory.hpp:77] Creating layer inception_5a/3x3
I0714 21:27:41.696033 28909 net.cpp:91] Creating Layer inception_5a/3x3
I0714 21:27:41.696039 28909 net.cpp:425] inception_5a/3x3 <- inception_5a/3x3_reduce
I0714 21:27:41.696049 28909 net.cpp:399] inception_5a/3x3 -> inception_5a/3x3
I0714 21:27:41.702508 28913 net.cpp:141] Setting up inception_5a/5x5_reduce
I0714 21:27:41.702539 28913 net.cpp:148] Top shape: 10 32 7 7 (15680)
I0714 21:27:41.702545 28913 net.cpp:156] Memory required for data: 531928320
I0714 21:27:41.702558 28913 layer_factory.hpp:77] Creating layer inception_5a/relu_5x5_reduce
I0714 21:27:41.702569 28913 net.cpp:91] Creating Layer inception_5a/relu_5x5_reduce
I0714 21:27:41.702576 28913 net.cpp:425] inception_5a/relu_5x5_reduce <- inception_5a/5x5_reduce
I0714 21:27:41.702589 28913 net.cpp:386] inception_5a/relu_5x5_reduce -> inception_5a/5x5_reduce (in-place)
I0714 21:27:41.702906 28913 net.cpp:141] Setting up inception_5a/relu_5x5_reduce
I0714 21:27:41.702920 28913 net.cpp:148] Top shape: 10 32 7 7 (15680)
I0714 21:27:41.702925 28913 net.cpp:156] Memory required for data: 531991040
I0714 21:27:41.702931 28913 layer_factory.hpp:77] Creating layer inception_5a/5x5
I0714 21:27:41.702951 28913 net.cpp:91] Creating Layer inception_5a/5x5
I0714 21:27:41.702958 28913 net.cpp:425] inception_5a/5x5 <- inception_5a/5x5_reduce
I0714 21:27:41.702968 28913 net.cpp:399] inception_5a/5x5 -> inception_5a/5x5
I0714 21:27:41.708482 28913 net.cpp:141] Setting up inception_5a/5x5
I0714 21:27:41.708510 28913 net.cpp:148] Top shape: 10 128 7 7 (62720)
I0714 21:27:41.708518 28913 net.cpp:156] Memory required for data: 532241920
I0714 21:27:41.708528 28913 layer_factory.hpp:77] Creating layer inception_5a/relu_5x5
I0714 21:27:41.708570 28913 net.cpp:91] Creating Layer inception_5a/relu_5x5
I0714 21:27:41.708578 28913 net.cpp:425] inception_5a/relu_5x5 <- inception_5a/5x5
I0714 21:27:41.708587 28913 net.cpp:386] inception_5a/relu_5x5 -> inception_5a/5x5 (in-place)
I0714 21:27:41.708916 28913 net.cpp:141] Setting up inception_5a/relu_5x5
I0714 21:27:41.708933 28913 net.cpp:148] Top shape: 10 128 7 7 (62720)
I0714 21:27:41.708938 28913 net.cpp:156] Memory required for data: 532492800
I0714 21:27:41.708945 28913 layer_factory.hpp:77] Creating layer inception_5a/pool
I0714 21:27:41.708956 28913 net.cpp:91] Creating Layer inception_5a/pool
I0714 21:27:41.708963 28913 net.cpp:425] inception_5a/pool <- pool4/3x3_s2_pool4/3x3_s2_0_split_3
I0714 21:27:41.708971 28913 net.cpp:399] inception_5a/pool -> inception_5a/pool
I0714 21:27:41.709729 28913 net.cpp:141] Setting up inception_5a/pool
I0714 21:27:41.709748 28913 net.cpp:148] Top shape: 10 832 7 7 (407680)
I0714 21:27:41.709753 28913 net.cpp:156] Memory required for data: 534123520
I0714 21:27:41.709758 28913 layer_factory.hpp:77] Creating layer inception_5a/pool_proj
I0714 21:27:41.709786 28913 net.cpp:91] Creating Layer inception_5a/pool_proj
I0714 21:27:41.709795 28913 net.cpp:425] inception_5a/pool_proj <- inception_5a/pool
I0714 21:27:41.709805 28913 net.cpp:399] inception_5a/pool_proj -> inception_5a/pool_proj
I0714 21:27:41.715035 28909 net.cpp:141] Setting up inception_5a/3x3
I0714 21:27:41.715066 28909 net.cpp:148] Top shape: 10 320 7 7 (156800)
I0714 21:27:41.715076 28909 net.cpp:156] Memory required for data: 531238400
I0714 21:27:41.715096 28909 layer_factory.hpp:77] Creating layer inception_5a/relu_3x3
I0714 21:27:41.715113 28909 net.cpp:91] Creating Layer inception_5a/relu_3x3
I0714 21:27:41.715127 28909 net.cpp:425] inception_5a/relu_3x3 <- inception_5a/3x3
I0714 21:27:41.715147 28909 net.cpp:386] inception_5a/relu_3x3 -> inception_5a/3x3 (in-place)
I0714 21:27:41.716657 28909 net.cpp:141] Setting up inception_5a/relu_3x3
I0714 21:27:41.716683 28909 net.cpp:148] Top shape: 10 320 7 7 (156800)
I0714 21:27:41.716693 28909 net.cpp:156] Memory required for data: 531865600
I0714 21:27:41.716704 28909 layer_factory.hpp:77] Creating layer inception_5a/5x5_reduce
I0714 21:27:41.716733 28909 net.cpp:91] Creating Layer inception_5a/5x5_reduce
I0714 21:27:41.716745 28909 net.cpp:425] inception_5a/5x5_reduce <- pool4/3x3_s2_pool4/3x3_s2_0_split_2
I0714 21:27:41.716768 28909 net.cpp:399] inception_5a/5x5_reduce -> inception_5a/5x5_reduce
I0714 21:27:41.718356 28913 net.cpp:141] Setting up inception_5a/pool_proj
I0714 21:27:41.718379 28913 net.cpp:148] Top shape: 10 128 7 7 (62720)
I0714 21:27:41.718384 28913 net.cpp:156] Memory required for data: 534374400
I0714 21:27:41.718395 28913 layer_factory.hpp:77] Creating layer inception_5a/relu_pool_proj
I0714 21:27:41.718406 28913 net.cpp:91] Creating Layer inception_5a/relu_pool_proj
I0714 21:27:41.718415 28913 net.cpp:425] inception_5a/relu_pool_proj <- inception_5a/pool_proj
I0714 21:27:41.718425 28913 net.cpp:386] inception_5a/relu_pool_proj -> inception_5a/pool_proj (in-place)
I0714 21:27:41.719545 28913 net.cpp:141] Setting up inception_5a/relu_pool_proj
I0714 21:27:41.719563 28913 net.cpp:148] Top shape: 10 128 7 7 (62720)
I0714 21:27:41.719568 28913 net.cpp:156] Memory required for data: 534625280
I0714 21:27:41.719574 28913 layer_factory.hpp:77] Creating layer inception_5a/output
I0714 21:27:41.719584 28913 net.cpp:91] Creating Layer inception_5a/output
I0714 21:27:41.719594 28913 net.cpp:425] inception_5a/output <- inception_5a/1x1
I0714 21:27:41.719601 28913 net.cpp:425] inception_5a/output <- inception_5a/3x3
I0714 21:27:41.719609 28913 net.cpp:425] inception_5a/output <- inception_5a/5x5
I0714 21:27:41.719614 28913 net.cpp:425] inception_5a/output <- inception_5a/pool_proj
I0714 21:27:41.719621 28913 net.cpp:399] inception_5a/output -> inception_5a/output
I0714 21:27:41.719907 28913 net.cpp:141] Setting up inception_5a/output
I0714 21:27:41.719920 28913 net.cpp:148] Top shape: 10 832 7 7 (407680)
I0714 21:27:41.719925 28913 net.cpp:156] Memory required for data: 536256000
I0714 21:27:41.719931 28913 layer_factory.hpp:77] Creating layer inception_5a/output_inception_5a/output_0_split
I0714 21:27:41.719944 28913 net.cpp:91] Creating Layer inception_5a/output_inception_5a/output_0_split
I0714 21:27:41.719950 28913 net.cpp:425] inception_5a/output_inception_5a/output_0_split <- inception_5a/output
I0714 21:27:41.719959 28913 net.cpp:399] inception_5a/output_inception_5a/output_0_split -> inception_5a/output_inception_5a/output_0_split_0
I0714 21:27:41.719969 28913 net.cpp:399] inception_5a/output_inception_5a/output_0_split -> inception_5a/output_inception_5a/output_0_split_1
I0714 21:27:41.719979 28913 net.cpp:399] inception_5a/output_inception_5a/output_0_split -> inception_5a/output_inception_5a/output_0_split_2
I0714 21:27:41.719988 28913 net.cpp:399] inception_5a/output_inception_5a/output_0_split -> inception_5a/output_inception_5a/output_0_split_3
I0714 21:27:41.721357 28913 net.cpp:141] Setting up inception_5a/output_inception_5a/output_0_split
I0714 21:27:41.721374 28913 net.cpp:148] Top shape: 10 832 7 7 (407680)
I0714 21:27:41.721379 28913 net.cpp:148] Top shape: 10 832 7 7 (407680)
I0714 21:27:41.721385 28913 net.cpp:148] Top shape: 10 832 7 7 (407680)
I0714 21:27:41.721391 28913 net.cpp:148] Top shape: 10 832 7 7 (407680)
I0714 21:27:41.721395 28913 net.cpp:156] Memory required for data: 542778880
I0714 21:27:41.721401 28913 layer_factory.hpp:77] Creating layer inception_5b/1x1
I0714 21:27:41.721424 28913 net.cpp:91] Creating Layer inception_5b/1x1
I0714 21:27:41.721431 28913 net.cpp:425] inception_5b/1x1 <- inception_5a/output_inception_5a/output_0_split_0
I0714 21:27:41.721441 28913 net.cpp:399] inception_5b/1x1 -> inception_5b/1x1
I0714 21:27:41.725723 28909 net.cpp:141] Setting up inception_5a/5x5_reduce
I0714 21:27:41.725752 28909 net.cpp:148] Top shape: 10 32 7 7 (15680)
I0714 21:27:41.725762 28909 net.cpp:156] Memory required for data: 531928320
I0714 21:27:41.725780 28909 layer_factory.hpp:77] Creating layer inception_5a/relu_5x5_reduce
I0714 21:27:41.725793 28909 net.cpp:91] Creating Layer inception_5a/relu_5x5_reduce
I0714 21:27:41.725805 28909 net.cpp:425] inception_5a/relu_5x5_reduce <- inception_5a/5x5_reduce
I0714 21:27:41.725817 28909 net.cpp:386] inception_5a/relu_5x5_reduce -> inception_5a/5x5_reduce (in-place)
I0714 21:27:41.726270 28909 net.cpp:141] Setting up inception_5a/relu_5x5_reduce
I0714 21:27:41.726292 28909 net.cpp:148] Top shape: 10 32 7 7 (15680)
I0714 21:27:41.726300 28909 net.cpp:156] Memory required for data: 531991040
I0714 21:27:41.726310 28909 layer_factory.hpp:77] Creating layer inception_5a/5x5
I0714 21:27:41.726335 28909 net.cpp:91] Creating Layer inception_5a/5x5
I0714 21:27:41.726346 28909 net.cpp:425] inception_5a/5x5 <- inception_5a/5x5_reduce
I0714 21:27:41.726366 28909 net.cpp:399] inception_5a/5x5 -> inception_5a/5x5
I0714 21:27:41.731673 28913 net.cpp:141] Setting up inception_5b/1x1
I0714 21:27:41.731694 28913 net.cpp:148] Top shape: 10 384 7 7 (188160)
I0714 21:27:41.731700 28913 net.cpp:156] Memory required for data: 543531520
I0714 21:27:41.731711 28913 layer_factory.hpp:77] Creating layer inception_5b/relu_1x1
I0714 21:27:41.731720 28913 net.cpp:91] Creating Layer inception_5b/relu_1x1
I0714 21:27:41.731727 28913 net.cpp:425] inception_5b/relu_1x1 <- inception_5b/1x1
I0714 21:27:41.731736 28913 net.cpp:386] inception_5b/relu_1x1 -> inception_5b/1x1 (in-place)
I0714 21:27:41.732115 28909 net.cpp:141] Setting up inception_5a/5x5
I0714 21:27:41.732133 28909 net.cpp:148] Top shape: 10 128 7 7 (62720)
I0714 21:27:41.732138 28909 net.cpp:156] Memory required for data: 532241920
I0714 21:27:41.732148 28909 layer_factory.hpp:77] Creating layer inception_5a/relu_5x5
I0714 21:27:41.732192 28909 net.cpp:91] Creating Layer inception_5a/relu_5x5
I0714 21:27:41.732190 28913 net.cpp:141] Setting up inception_5b/relu_1x1
I0714 21:27:41.732204 28909 net.cpp:425] inception_5a/relu_5x5 <- inception_5a/5x5
I0714 21:27:41.732213 28913 net.cpp:148] Top shape: 10 384 7 7 (188160)
I0714 21:27:41.732216 28909 net.cpp:386] inception_5a/relu_5x5 -> inception_5a/5x5 (in-place)
I0714 21:27:41.732218 28913 net.cpp:156] Memory required for data: 544284160
I0714 21:27:41.732230 28913 layer_factory.hpp:77] Creating layer inception_5b/3x3_reduce
I0714 21:27:41.732249 28913 net.cpp:91] Creating Layer inception_5b/3x3_reduce
I0714 21:27:41.732256 28913 net.cpp:425] inception_5b/3x3_reduce <- inception_5a/output_inception_5a/output_0_split_1
I0714 21:27:41.732270 28913 net.cpp:399] inception_5b/3x3_reduce -> inception_5b/3x3_reduce
I0714 21:27:41.732686 28909 net.cpp:141] Setting up inception_5a/relu_5x5
I0714 21:27:41.732699 28909 net.cpp:148] Top shape: 10 128 7 7 (62720)
I0714 21:27:41.732705 28909 net.cpp:156] Memory required for data: 532492800
I0714 21:27:41.732713 28909 layer_factory.hpp:77] Creating layer inception_5a/pool
I0714 21:27:41.732729 28909 net.cpp:91] Creating Layer inception_5a/pool
I0714 21:27:41.732735 28909 net.cpp:425] inception_5a/pool <- pool4/3x3_s2_pool4/3x3_s2_0_split_3
I0714 21:27:41.732744 28909 net.cpp:399] inception_5a/pool -> inception_5a/pool
I0714 21:27:41.733049 28909 net.cpp:141] Setting up inception_5a/pool
I0714 21:27:41.733062 28909 net.cpp:148] Top shape: 10 832 7 7 (407680)
I0714 21:27:41.733067 28909 net.cpp:156] Memory required for data: 534123520
I0714 21:27:41.733072 28909 layer_factory.hpp:77] Creating layer inception_5a/pool_proj
I0714 21:27:41.733091 28909 net.cpp:91] Creating Layer inception_5a/pool_proj
I0714 21:27:41.733098 28909 net.cpp:425] inception_5a/pool_proj <- inception_5a/pool
I0714 21:27:41.733113 28909 net.cpp:399] inception_5a/pool_proj -> inception_5a/pool_proj
I0714 21:27:41.740597 28913 net.cpp:141] Setting up inception_5b/3x3_reduce
I0714 21:27:41.740620 28913 net.cpp:148] Top shape: 10 192 7 7 (94080)
I0714 21:27:41.740627 28913 net.cpp:156] Memory required for data: 544660480
I0714 21:27:41.740636 28913 layer_factory.hpp:77] Creating layer inception_5b/relu_3x3_reduce
I0714 21:27:41.740653 28913 net.cpp:91] Creating Layer inception_5b/relu_3x3_reduce
I0714 21:27:41.740659 28913 net.cpp:425] inception_5b/relu_3x3_reduce <- inception_5b/3x3_reduce
I0714 21:27:41.740667 28913 net.cpp:386] inception_5b/relu_3x3_reduce -> inception_5b/3x3_reduce (in-place)
I0714 21:27:41.741147 28913 net.cpp:141] Setting up inception_5b/relu_3x3_reduce
I0714 21:27:41.741163 28913 net.cpp:148] Top shape: 10 192 7 7 (94080)
I0714 21:27:41.741168 28913 net.cpp:156] Memory required for data: 545036800
I0714 21:27:41.741173 28913 layer_factory.hpp:77] Creating layer inception_5b/3x3
I0714 21:27:41.741199 28913 net.cpp:91] Creating Layer inception_5b/3x3
I0714 21:27:41.741206 28913 net.cpp:425] inception_5b/3x3 <- inception_5b/3x3_reduce
I0714 21:27:41.741216 28913 net.cpp:399] inception_5b/3x3 -> inception_5b/3x3
I0714 21:27:41.741298 28909 net.cpp:141] Setting up inception_5a/pool_proj
I0714 21:27:41.741315 28909 net.cpp:148] Top shape: 10 128 7 7 (62720)
I0714 21:27:41.741322 28909 net.cpp:156] Memory required for data: 534374400
I0714 21:27:41.741331 28909 layer_factory.hpp:77] Creating layer inception_5a/relu_pool_proj
I0714 21:27:41.741345 28909 net.cpp:91] Creating Layer inception_5a/relu_pool_proj
I0714 21:27:41.741353 28909 net.cpp:425] inception_5a/relu_pool_proj <- inception_5a/pool_proj
I0714 21:27:41.741360 28909 net.cpp:386] inception_5a/relu_pool_proj -> inception_5a/pool_proj (in-place)
I0714 21:27:41.742424 28909 net.cpp:141] Setting up inception_5a/relu_pool_proj
I0714 21:27:41.742440 28909 net.cpp:148] Top shape: 10 128 7 7 (62720)
I0714 21:27:41.742446 28909 net.cpp:156] Memory required for data: 534625280
I0714 21:27:41.742452 28909 layer_factory.hpp:77] Creating layer inception_5a/output
I0714 21:27:41.742466 28909 net.cpp:91] Creating Layer inception_5a/output
I0714 21:27:41.742473 28909 net.cpp:425] inception_5a/output <- inception_5a/1x1
I0714 21:27:41.742481 28909 net.cpp:425] inception_5a/output <- inception_5a/3x3
I0714 21:27:41.742486 28909 net.cpp:425] inception_5a/output <- inception_5a/5x5
I0714 21:27:41.742492 28909 net.cpp:425] inception_5a/output <- inception_5a/pool_proj
I0714 21:27:41.742502 28909 net.cpp:399] inception_5a/output -> inception_5a/output
I0714 21:27:41.742640 28909 net.cpp:141] Setting up inception_5a/output
I0714 21:27:41.742652 28909 net.cpp:148] Top shape: 10 832 7 7 (407680)
I0714 21:27:41.742656 28909 net.cpp:156] Memory required for data: 536256000
I0714 21:27:41.742662 28909 layer_factory.hpp:77] Creating layer inception_5a/output_inception_5a/output_0_split
I0714 21:27:41.742672 28909 net.cpp:91] Creating Layer inception_5a/output_inception_5a/output_0_split
I0714 21:27:41.742678 28909 net.cpp:425] inception_5a/output_inception_5a/output_0_split <- inception_5a/output
I0714 21:27:41.742698 28909 net.cpp:399] inception_5a/output_inception_5a/output_0_split -> inception_5a/output_inception_5a/output_0_split_0
I0714 21:27:41.742710 28909 net.cpp:399] inception_5a/output_inception_5a/output_0_split -> inception_5a/output_inception_5a/output_0_split_1
I0714 21:27:41.742720 28909 net.cpp:399] inception_5a/output_inception_5a/output_0_split -> inception_5a/output_inception_5a/output_0_split_2
I0714 21:27:41.742729 28909 net.cpp:399] inception_5a/output_inception_5a/output_0_split -> inception_5a/output_inception_5a/output_0_split_3
I0714 21:27:41.745497 28909 net.cpp:141] Setting up inception_5a/output_inception_5a/output_0_split
I0714 21:27:41.745515 28909 net.cpp:148] Top shape: 10 832 7 7 (407680)
I0714 21:27:41.745522 28909 net.cpp:148] Top shape: 10 832 7 7 (407680)
I0714 21:27:41.745528 28909 net.cpp:148] Top shape: 10 832 7 7 (407680)
I0714 21:27:41.745533 28909 net.cpp:148] Top shape: 10 832 7 7 (407680)
I0714 21:27:41.745538 28909 net.cpp:156] Memory required for data: 542778880
I0714 21:27:41.745543 28909 layer_factory.hpp:77] Creating layer inception_5b/1x1
I0714 21:27:41.745563 28909 net.cpp:91] Creating Layer inception_5b/1x1
I0714 21:27:41.745570 28909 net.cpp:425] inception_5b/1x1 <- inception_5a/output_inception_5a/output_0_split_0
I0714 21:27:41.745582 28909 net.cpp:399] inception_5b/1x1 -> inception_5b/1x1
I0714 21:27:41.754039 28913 net.cpp:141] Setting up inception_5b/3x3
I0714 21:27:41.754065 28913 net.cpp:148] Top shape: 10 384 7 7 (188160)
I0714 21:27:41.754070 28913 net.cpp:156] Memory required for data: 545789440
I0714 21:27:41.754082 28913 layer_factory.hpp:77] Creating layer inception_5b/relu_3x3
I0714 21:27:41.754094 28913 net.cpp:91] Creating Layer inception_5b/relu_3x3
I0714 21:27:41.754101 28913 net.cpp:425] inception_5b/relu_3x3 <- inception_5b/3x3
I0714 21:27:41.754114 28913 net.cpp:386] inception_5b/relu_3x3 -> inception_5b/3x3 (in-place)
I0714 21:27:41.755035 28909 net.cpp:141] Setting up inception_5b/1x1
I0714 21:27:41.755055 28909 net.cpp:148] Top shape: 10 384 7 7 (188160)
I0714 21:27:41.755064 28909 net.cpp:156] Memory required for data: 543531520
I0714 21:27:41.755074 28909 layer_factory.hpp:77] Creating layer inception_5b/relu_1x1
I0714 21:27:41.755084 28909 net.cpp:91] Creating Layer inception_5b/relu_1x1
I0714 21:27:41.755092 28909 net.cpp:425] inception_5b/relu_1x1 <- inception_5b/1x1
I0714 21:27:41.755100 28909 net.cpp:386] inception_5b/relu_1x1 -> inception_5b/1x1 (in-place)
I0714 21:27:41.755117 28913 net.cpp:141] Setting up inception_5b/relu_3x3
I0714 21:27:41.755132 28913 net.cpp:148] Top shape: 10 384 7 7 (188160)
I0714 21:27:41.755137 28913 net.cpp:156] Memory required for data: 546542080
I0714 21:27:41.755143 28913 layer_factory.hpp:77] Creating layer inception_5b/5x5_reduce
I0714 21:27:41.755164 28913 net.cpp:91] Creating Layer inception_5b/5x5_reduce
I0714 21:27:41.755172 28913 net.cpp:425] inception_5b/5x5_reduce <- inception_5a/output_inception_5a/output_0_split_2
I0714 21:27:41.755183 28913 net.cpp:399] inception_5b/5x5_reduce -> inception_5b/5x5_reduce
I0714 21:27:41.755569 28909 net.cpp:141] Setting up inception_5b/relu_1x1
I0714 21:27:41.755583 28909 net.cpp:148] Top shape: 10 384 7 7 (188160)
I0714 21:27:41.755589 28909 net.cpp:156] Memory required for data: 544284160
I0714 21:27:41.755594 28909 layer_factory.hpp:77] Creating layer inception_5b/3x3_reduce
I0714 21:27:41.755610 28909 net.cpp:91] Creating Layer inception_5b/3x3_reduce
I0714 21:27:41.755617 28909 net.cpp:425] inception_5b/3x3_reduce <- inception_5a/output_inception_5a/output_0_split_1
I0714 21:27:41.755630 28909 net.cpp:399] inception_5b/3x3_reduce -> inception_5b/3x3_reduce
I0714 21:27:41.761940 28913 net.cpp:141] Setting up inception_5b/5x5_reduce
I0714 21:27:41.761960 28913 net.cpp:148] Top shape: 10 48 7 7 (23520)
I0714 21:27:41.761966 28913 net.cpp:156] Memory required for data: 546636160
I0714 21:27:41.761978 28913 layer_factory.hpp:77] Creating layer inception_5b/relu_5x5_reduce
I0714 21:27:41.761989 28913 net.cpp:91] Creating Layer inception_5b/relu_5x5_reduce
I0714 21:27:41.761996 28913 net.cpp:425] inception_5b/relu_5x5_reduce <- inception_5b/5x5_reduce
I0714 21:27:41.762003 28913 net.cpp:386] inception_5b/relu_5x5_reduce -> inception_5b/5x5_reduce (in-place)
I0714 21:27:41.762321 28913 net.cpp:141] Setting up inception_5b/relu_5x5_reduce
I0714 21:27:41.762334 28913 net.cpp:148] Top shape: 10 48 7 7 (23520)
I0714 21:27:41.762339 28913 net.cpp:156] Memory required for data: 546730240
I0714 21:27:41.762344 28913 layer_factory.hpp:77] Creating layer inception_5b/5x5
I0714 21:27:41.762362 28913 net.cpp:91] Creating Layer inception_5b/5x5
I0714 21:27:41.762369 28913 net.cpp:425] inception_5b/5x5 <- inception_5b/5x5_reduce
I0714 21:27:41.762382 28913 net.cpp:399] inception_5b/5x5 -> inception_5b/5x5
I0714 21:27:41.763809 28909 net.cpp:141] Setting up inception_5b/3x3_reduce
I0714 21:27:41.763830 28909 net.cpp:148] Top shape: 10 192 7 7 (94080)
I0714 21:27:41.763836 28909 net.cpp:156] Memory required for data: 544660480
I0714 21:27:41.763850 28909 layer_factory.hpp:77] Creating layer inception_5b/relu_3x3_reduce
I0714 21:27:41.763860 28909 net.cpp:91] Creating Layer inception_5b/relu_3x3_reduce
I0714 21:27:41.763869 28909 net.cpp:425] inception_5b/relu_3x3_reduce <- inception_5b/3x3_reduce
I0714 21:27:41.763878 28909 net.cpp:386] inception_5b/relu_3x3_reduce -> inception_5b/3x3_reduce (in-place)
I0714 21:27:41.764181 28909 net.cpp:141] Setting up inception_5b/relu_3x3_reduce
I0714 21:27:41.764194 28909 net.cpp:148] Top shape: 10 192 7 7 (94080)
I0714 21:27:41.764199 28909 net.cpp:156] Memory required for data: 545036800
I0714 21:27:41.764204 28909 layer_factory.hpp:77] Creating layer inception_5b/3x3
I0714 21:27:41.764224 28909 net.cpp:91] Creating Layer inception_5b/3x3
I0714 21:27:41.764232 28909 net.cpp:425] inception_5b/3x3 <- inception_5b/3x3_reduce
I0714 21:27:41.764241 28909 net.cpp:399] inception_5b/3x3 -> inception_5b/3x3
I0714 21:27:41.771605 28913 net.cpp:141] Setting up inception_5b/5x5
I0714 21:27:41.771649 28913 net.cpp:148] Top shape: 10 128 7 7 (62720)
I0714 21:27:41.771656 28913 net.cpp:156] Memory required for data: 546981120
I0714 21:27:41.771672 28913 layer_factory.hpp:77] Creating layer inception_5b/relu_5x5
I0714 21:27:41.771687 28913 net.cpp:91] Creating Layer inception_5b/relu_5x5
I0714 21:27:41.771700 28913 net.cpp:425] inception_5b/relu_5x5 <- inception_5b/5x5
I0714 21:27:41.771721 28913 net.cpp:386] inception_5b/relu_5x5 -> inception_5b/5x5 (in-place)
I0714 21:27:41.772222 28913 net.cpp:141] Setting up inception_5b/relu_5x5
I0714 21:27:41.772243 28913 net.cpp:148] Top shape: 10 128 7 7 (62720)
I0714 21:27:41.772253 28913 net.cpp:156] Memory required for data: 547232000
I0714 21:27:41.772263 28913 layer_factory.hpp:77] Creating layer inception_5b/pool
I0714 21:27:41.772285 28913 net.cpp:91] Creating Layer inception_5b/pool
I0714 21:27:41.772301 28913 net.cpp:425] inception_5b/pool <- inception_5a/output_inception_5a/output_0_split_3
I0714 21:27:41.772318 28913 net.cpp:399] inception_5b/pool -> inception_5b/pool
I0714 21:27:41.772572 28913 net.cpp:141] Setting up inception_5b/pool
I0714 21:27:41.772598 28913 net.cpp:148] Top shape: 10 832 7 7 (407680)
I0714 21:27:41.772608 28913 net.cpp:156] Memory required for data: 548862720
I0714 21:27:41.772619 28913 layer_factory.hpp:77] Creating layer inception_5b/pool_proj
I0714 21:27:41.772655 28913 net.cpp:91] Creating Layer inception_5b/pool_proj
I0714 21:27:41.772668 28913 net.cpp:425] inception_5b/pool_proj <- inception_5b/pool
I0714 21:27:41.772687 28913 net.cpp:399] inception_5b/pool_proj -> inception_5b/pool_proj
I0714 21:27:41.778965 28909 net.cpp:141] Setting up inception_5b/3x3
I0714 21:27:41.779002 28909 net.cpp:148] Top shape: 10 384 7 7 (188160)
I0714 21:27:41.779008 28909 net.cpp:156] Memory required for data: 545789440
I0714 21:27:41.779021 28909 layer_factory.hpp:77] Creating layer inception_5b/relu_3x3
I0714 21:27:41.779033 28909 net.cpp:91] Creating Layer inception_5b/relu_3x3
I0714 21:27:41.779041 28909 net.cpp:425] inception_5b/relu_3x3 <- inception_5b/3x3
I0714 21:27:41.779049 28909 net.cpp:386] inception_5b/relu_3x3 -> inception_5b/3x3 (in-place)
I0714 21:27:41.780087 28909 net.cpp:141] Setting up inception_5b/relu_3x3
I0714 21:27:41.780105 28909 net.cpp:148] Top shape: 10 384 7 7 (188160)
I0714 21:27:41.780110 28909 net.cpp:156] Memory required for data: 546542080
I0714 21:27:41.780117 28909 layer_factory.hpp:77] Creating layer inception_5b/5x5_reduce
I0714 21:27:41.780138 28909 net.cpp:91] Creating Layer inception_5b/5x5_reduce
I0714 21:27:41.780145 28909 net.cpp:425] inception_5b/5x5_reduce <- inception_5a/output_inception_5a/output_0_split_2
I0714 21:27:41.780155 28909 net.cpp:399] inception_5b/5x5_reduce -> inception_5b/5x5_reduce
I0714 21:27:41.786902 28913 net.cpp:141] Setting up inception_5b/pool_proj
I0714 21:27:41.786948 28913 net.cpp:148] Top shape: 10 128 7 7 (62720)
I0714 21:27:41.786955 28913 net.cpp:156] Memory required for data: 549113600
I0714 21:27:41.786970 28913 layer_factory.hpp:77] Creating layer inception_5b/relu_pool_proj
I0714 21:27:41.786989 28913 net.cpp:91] Creating Layer inception_5b/relu_pool_proj
I0714 21:27:41.786998 28913 net.cpp:425] inception_5b/relu_pool_proj <- inception_5b/pool_proj
I0714 21:27:41.787010 28913 net.cpp:386] inception_5b/relu_pool_proj -> inception_5b/pool_proj (in-place)
I0714 21:27:41.788338 28913 net.cpp:141] Setting up inception_5b/relu_pool_proj
I0714 21:27:41.788357 28913 net.cpp:148] Top shape: 10 128 7 7 (62720)
I0714 21:27:41.788365 28913 net.cpp:156] Memory required for data: 549364480
I0714 21:27:41.788372 28913 layer_factory.hpp:77] Creating layer inception_5b/output
I0714 21:27:41.788383 28913 net.cpp:91] Creating Layer inception_5b/output
I0714 21:27:41.788388 28913 net.cpp:425] inception_5b/output <- inception_5b/1x1
I0714 21:27:41.788396 28913 net.cpp:425] inception_5b/output <- inception_5b/3x3
I0714 21:27:41.788403 28913 net.cpp:425] inception_5b/output <- inception_5b/5x5
I0714 21:27:41.788409 28913 net.cpp:425] inception_5b/output <- inception_5b/pool_proj
I0714 21:27:41.788416 28913 net.cpp:399] inception_5b/output -> inception_5b/output
I0714 21:27:41.788483 28909 net.cpp:141] Setting up inception_5b/5x5_reduce
I0714 21:27:41.788504 28909 net.cpp:148] Top shape: 10 48 7 7 (23520)
I0714 21:27:41.788511 28909 net.cpp:156] Memory required for data: 546636160
I0714 21:27:41.788522 28909 layer_factory.hpp:77] Creating layer inception_5b/relu_5x5_reduce
I0714 21:27:41.788533 28909 net.cpp:91] Creating Layer inception_5b/relu_5x5_reduce
I0714 21:27:41.788540 28909 net.cpp:425] inception_5b/relu_5x5_reduce <- inception_5b/5x5_reduce
I0714 21:27:41.788542 28913 net.cpp:141] Setting up inception_5b/output
I0714 21:27:41.788549 28909 net.cpp:386] inception_5b/relu_5x5_reduce -> inception_5b/5x5_reduce (in-place)
I0714 21:27:41.788555 28913 net.cpp:148] Top shape: 10 1024 7 7 (501760)
I0714 21:27:41.788561 28913 net.cpp:156] Memory required for data: 551371520
I0714 21:27:41.788566 28913 layer_factory.hpp:77] Creating layer pool5/7x7_s1
I0714 21:27:41.788576 28913 net.cpp:91] Creating Layer pool5/7x7_s1
I0714 21:27:41.788583 28913 net.cpp:425] pool5/7x7_s1 <- inception_5b/output
I0714 21:27:41.788590 28913 net.cpp:399] pool5/7x7_s1 -> pool5/7x7_s1
I0714 21:27:41.789046 28909 net.cpp:141] Setting up inception_5b/relu_5x5_reduce
I0714 21:27:41.789059 28909 net.cpp:148] Top shape: 10 48 7 7 (23520)
I0714 21:27:41.789064 28909 net.cpp:156] Memory required for data: 546730240
I0714 21:27:41.789070 28909 layer_factory.hpp:77] Creating layer inception_5b/5x5
I0714 21:27:41.789093 28909 net.cpp:91] Creating Layer inception_5b/5x5
I0714 21:27:41.789099 28909 net.cpp:425] inception_5b/5x5 <- inception_5b/5x5_reduce
I0714 21:27:41.789110 28909 net.cpp:399] inception_5b/5x5 -> inception_5b/5x5
I0714 21:27:41.789240 28913 net.cpp:141] Setting up pool5/7x7_s1
I0714 21:27:41.789255 28913 net.cpp:148] Top shape: 10 1024 1 1 (10240)
I0714 21:27:41.789260 28913 net.cpp:156] Memory required for data: 551412480
I0714 21:27:41.789266 28913 layer_factory.hpp:77] Creating layer pool5/drop_7x7_s1
I0714 21:27:41.789283 28913 net.cpp:91] Creating Layer pool5/drop_7x7_s1
I0714 21:27:41.789289 28913 net.cpp:425] pool5/drop_7x7_s1 <- pool5/7x7_s1
I0714 21:27:41.789300 28913 net.cpp:386] pool5/drop_7x7_s1 -> pool5/7x7_s1 (in-place)
I0714 21:27:41.789533 28913 net.cpp:141] Setting up pool5/drop_7x7_s1
I0714 21:27:41.789546 28913 net.cpp:148] Top shape: 10 1024 1 1 (10240)
I0714 21:27:41.789551 28913 net.cpp:156] Memory required for data: 551453440
I0714 21:27:41.789556 28913 layer_factory.hpp:77] Creating layer loss3/classifier
I0714 21:27:41.789577 28913 net.cpp:91] Creating Layer loss3/classifier
I0714 21:27:41.789583 28913 net.cpp:425] loss3/classifier <- pool5/7x7_s1
I0714 21:27:41.789592 28913 net.cpp:399] loss3/classifier -> loss3/classifier
I0714 21:27:41.798332 28909 net.cpp:141] Setting up inception_5b/5x5
I0714 21:27:41.798360 28909 net.cpp:148] Top shape: 10 128 7 7 (62720)
I0714 21:27:41.798367 28909 net.cpp:156] Memory required for data: 546981120
I0714 21:27:41.798377 28909 layer_factory.hpp:77] Creating layer inception_5b/relu_5x5
I0714 21:27:41.798393 28909 net.cpp:91] Creating Layer inception_5b/relu_5x5
I0714 21:27:41.798399 28909 net.cpp:425] inception_5b/relu_5x5 <- inception_5b/5x5
I0714 21:27:41.798408 28909 net.cpp:386] inception_5b/relu_5x5 -> inception_5b/5x5 (in-place)
I0714 21:27:41.798729 28909 net.cpp:141] Setting up inception_5b/relu_5x5
I0714 21:27:41.798743 28909 net.cpp:148] Top shape: 10 128 7 7 (62720)
I0714 21:27:41.798748 28909 net.cpp:156] Memory required for data: 547232000
I0714 21:27:41.798753 28909 layer_factory.hpp:77] Creating layer inception_5b/pool
I0714 21:27:41.798765 28909 net.cpp:91] Creating Layer inception_5b/pool
I0714 21:27:41.798773 28909 net.cpp:425] inception_5b/pool <- inception_5a/output_inception_5a/output_0_split_3
I0714 21:27:41.798784 28909 net.cpp:399] inception_5b/pool -> inception_5b/pool
I0714 21:27:41.798949 28909 net.cpp:141] Setting up inception_5b/pool
I0714 21:27:41.798961 28909 net.cpp:148] Top shape: 10 832 7 7 (407680)
I0714 21:27:41.798966 28909 net.cpp:156] Memory required for data: 548862720
I0714 21:27:41.798972 28909 layer_factory.hpp:77] Creating layer inception_5b/pool_proj
I0714 21:27:41.798998 28909 net.cpp:91] Creating Layer inception_5b/pool_proj
I0714 21:27:41.799006 28909 net.cpp:425] inception_5b/pool_proj <- inception_5b/pool
I0714 21:27:41.799018 28909 net.cpp:399] inception_5b/pool_proj -> inception_5b/pool_proj
I0714 21:27:41.804687 28913 net.cpp:141] Setting up loss3/classifier
I0714 21:27:41.804716 28913 net.cpp:148] Top shape: 10 1000 (10000)
I0714 21:27:41.804723 28913 net.cpp:156] Memory required for data: 551493440
I0714 21:27:41.804736 28913 layer_factory.hpp:77] Creating layer prob
I0714 21:27:41.804750 28913 net.cpp:91] Creating Layer prob
I0714 21:27:41.804759 28913 net.cpp:425] prob <- loss3/classifier
I0714 21:27:41.804769 28913 net.cpp:399] prob -> prob
I0714 21:27:41.808774 28909 net.cpp:141] Setting up inception_5b/pool_proj
I0714 21:27:41.808837 28909 net.cpp:148] Top shape: 10 128 7 7 (62720)
I0714 21:27:41.808850 28909 net.cpp:156] Memory required for data: 549113600
I0714 21:27:41.808873 28909 layer_factory.hpp:77] Creating layer inception_5b/relu_pool_proj
I0714 21:27:41.809191 28909 net.cpp:91] Creating Layer inception_5b/relu_pool_proj
I0714 21:27:41.809245 28913 net.cpp:141] Setting up prob
I0714 21:27:41.809273 28913 net.cpp:148] Top shape: 10 1000 (10000)
I0714 21:27:41.809347 28913 net.cpp:156] Memory required for data: 551533440
I0714 21:27:41.809365 28913 net.cpp:219] prob does not need backward computation.
I0714 21:27:41.809378 28913 net.cpp:219] loss3/classifier does not need backward computation.
I0714 21:27:41.809389 28913 net.cpp:219] pool5/drop_7x7_s1 does not need backward computation.
I0714 21:27:41.809401 28913 net.cpp:219] pool5/7x7_s1 does not need backward computation.
…
I0714 21:27:41.810992 28913 net.cpp:219] conv1/7x7_s2 does not need backward computation.
I0714 21:27:41.811002 28913 net.cpp:219] data does not need backward computation.
I0714 21:27:41.811008 28913 net.cpp:261] This network produces output prob
I0714 21:27:41.811230 28913 net.cpp:274] Network initialization done.
I0714 21:27:41.809219 28909 net.cpp:425] inception_5b/relu_pool_proj <- inception_5b/pool_proj
I0714 21:27:41.812824 28909 net.cpp:386] inception_5b/relu_pool_proj -> inception_5b/pool_proj (in-place)
I0714 21:27:41.814452 28909 net.cpp:141] Setting up inception_5b/relu_pool_proj
I0714 21:27:41.814470 28909 net.cpp:148] Top shape: 10 128 7 7 (62720)
I0714 21:27:41.814476 28909 net.cpp:156] Memory required for data: 549364480
I0714 21:27:41.814481 28909 layer_factory.hpp:77] Creating layer inception_5b/output
I0714 21:27:41.814492 28909 net.cpp:91] Creating Layer inception_5b/output
I0714 21:27:41.814499 28909 net.cpp:425] inception_5b/output <- inception_5b/1x1
I0714 21:27:41.814507 28909 net.cpp:425] inception_5b/output <- inception_5b/3x3
I0714 21:27:41.814513 28909 net.cpp:425] inception_5b/output <- inception_5b/5x5
I0714 21:27:41.814519 28909 net.cpp:425] inception_5b/output <- inception_5b/pool_proj
I0714 21:27:41.814530 28909 net.cpp:399] inception_5b/output -> inception_5b/output
I0714 21:27:41.814699 28909 net.cpp:141] Setting up inception_5b/output
I0714 21:27:41.814716 28909 net.cpp:148] Top shape: 10 1024 7 7 (501760)
I0714 21:27:41.814721 28909 net.cpp:156] Memory required for data: 551371520
I0714 21:27:41.814726 28909 layer_factory.hpp:77] Creating layer pool5/7x7_s1
I0714 21:27:41.814743 28909 net.cpp:91] Creating Layer pool5/7x7_s1
I0714 21:27:41.814750 28909 net.cpp:425] pool5/7x7_s1 <- inception_5b/output
I0714 21:27:41.814760 28909 net.cpp:399] pool5/7x7_s1 -> pool5/7x7_s1
I0714 21:27:41.815173 28909 net.cpp:141] Setting up pool5/7x7_s1
I0714 21:27:41.815186 28909 net.cpp:148] Top shape: 10 1024 1 1 (10240)
I0714 21:27:41.815191 28909 net.cpp:156] Memory required for data: 551412480
I0714 21:27:41.815197 28909 layer_factory.hpp:77] Creating layer pool5/drop_7x7_s1
I0714 21:27:41.815212 28909 net.cpp:91] Creating Layer pool5/drop_7x7_s1
I0714 21:27:41.815217 28909 net.cpp:425] pool5/drop_7x7_s1 <- pool5/7x7_s1
I0714 21:27:41.815224 28909 net.cpp:386] pool5/drop_7x7_s1 -> pool5/7x7_s1 (in-place)
I0714 21:27:41.815311 28909 net.cpp:141] Setting up pool5/drop_7x7_s1
I0714 21:27:41.815322 28909 net.cpp:148] Top shape: 10 1024 1 1 (10240)
I0714 21:27:41.815327 28909 net.cpp:156] Memory required for data: 551453440
I0714 21:27:41.815333 28909 layer_factory.hpp:77] Creating layer loss3/classifier
I0714 21:27:41.815351 28909 net.cpp:91] Creating Layer loss3/classifier
I0714 21:27:41.815358 28909 net.cpp:425] loss3/classifier <- pool5/7x7_s1
I0714 21:27:41.815368 28909 net.cpp:399] loss3/classifier -> loss3/classifier
I0714 21:27:41.828439 28909 net.cpp:141] Setting up loss3/classifier
I0714 21:27:41.828476 28909 net.cpp:148] Top shape: 10 1000 (10000)
I0714 21:27:41.828482 28909 net.cpp:156] Memory required for data: 551493440
I0714 21:27:41.828496 28909 layer_factory.hpp:77] Creating layer prob
I0714 21:27:41.828510 28909 net.cpp:91] Creating Layer prob
I0714 21:27:41.828516 28909 net.cpp:425] prob <- loss3/classifier
I0714 21:27:41.828526 28909 net.cpp:399] prob -> prob
I0714 21:27:41.830216 28909 net.cpp:141] Setting up prob
I0714 21:27:41.830237 28909 net.cpp:148] Top shape: 10 1000 (10000)
I0714 21:27:41.830243 28909 net.cpp:156] Memory required for data: 551533440
I0714 21:27:41.830250 28909 net.cpp:219] prob does not need backward computation.
I0714 21:27:41.830255 28909 net.cpp:219] loss3/classifier does not need backward computation.
I0714 21:27:41.830260 28909 net.cpp:219] pool5/drop_7x7_s1 does not need backward computation.
I0714 21:27:41.830265 28909 net.cpp:219] pool5/7x7_s1 does not need backward computation.
…
