…
W0922 22:05:39.967767 16694 upgrade_proto.cpp:71] Note that future Caffe releases will only support input layers and not input fields.
I0922 22:05:39.967916 16698 net.cpp:49] Initializing net from parameters: 
name: "s2vt:features_to_lstm"
state {
  phase: TEST
}
layer {
  name: "input"
  type: "Input"
  top: "frames_fc7"
  top: "cont_sentence"
  top: "input_sentence"
  top: "stage_indicator"
  input_param {
    shape {
      dim: 1
      dim: 4096
    }
    shape {
      dim: 1
      dim: 1
    }
    shape {
      dim: 1
      dim: 1
    }
    shape {
      dim: 1
      dim: 1
    }
  }
}
layer {
  name: "embed_encoder"
  type: "InnerProduct"
  bottom: "frames_fc7"
  top: "embedded_in_frames"
  param {
    lr_mult: 1
    decay_mult: 1
  }
  param {
    lr_mult: 2
    decay_mult: 0
  }
  inner_product_param {
    num_output: 500
    weight_filler {
      type: "xavier"
    }
    bias_filler {
      type: "constant"
      value: 0.2
    }
  }
}
layer {
  name: "reshape_frames"
  type: "Reshape"
  bottom: "embedded_in_frames"
  top: "embedded_input_frames"
  reshape_param {
    shape {
      dim: 1
      dim: 1
      dim: 500
    }
  }
}
layer {
  name: "reshape_stage_indicator"
  type: "Reshape"
  bottom: "stage_indicator"
  top: "reshaped_stage_indicator"
  reshape_param {
    shape {
      dim: 1
      dim: 1
      dim: 1
    }
  }
}
layer {
  name: "embedding"
  type: "Embed"
  bottom: "input_sentence"
  top: "embedded_input_sentence"
  param {
    lr_mult: 1
  }
  embed_param {
    num_output: 500
    input_dim: 46168
    bias_term: false
    weight_filler {
      type: "uniform"
      min: -0.08
      max: 0.08
    }
  }
}
layer {
  name: "lstm1"
  type: "LSTM"
  bottom: "embedded_input_frames"
  bottom: "cont_sentence"
  top: "lstm1"
  recurrent_param {
    num_output: 1000
    weight_filler {
      type: "uniform"
      min: -0.08
      max: 0.08
    }
    bias_filler {
      type: "constant"
      value: 0
    }
  }
}
layer {
  name: "concat"
  type: "Concat"
  bottom: "lstm1"
  bottom: "embedded_input_sentence"
  bottom: "reshaped_stage_indicator"
  top: "lstm1_video_sequence"
  concat_param {
    concat_dim: 2
  }
}
layer {
  name: "lstm2"
  type: "LSTM"
  bottom: "lstm1_video_sequence"
  bottom: "cont_sentence"
  top: "lstm2"
  recurrent_param {
    num_output: 1000
    weight_filler {
      type: "uniform"
      min: -0.08
      max: 0.08
    }
    bias_filler {
      type: "constant"
      value: 0
    }
  }
}
layer {
  name: "predict"
  type: "InnerProduct"
  bottom: "lstm2"
  top: "predict"
  param {
    lr_mult: 1
    decay_mult: 1
  }
  param {
    lr_mult: 2
    decay_mult: 0
  }
  inner_product_param {
    num_output: 46168
    weight_filler {
      type: "uniform"
      min: -0.08
      max: 0.08
    }
    bias_filler {
      type: "constant"
      value: 0
    }
    axis: 2
  }
}
layer {
  name: "probs"
  type: "Softmax"
  bottom: "predict"
  top: "probs"
  softmax_param {
    axis: 2
  }
}
I0922 22:05:39.967921 16704 net.cpp:49] Initializing net from parameters: 
name: "CaffeNet"
state {
  phase: TEST
}
layer {
  name: "data"
  type: "Input"
  top: "data"
  input_param {
    shape {
      dim: 10
      dim: 3
      dim: 227
      dim: 227
    }
  }
}
layer {
  name: "conv1"
  type: "Convolution"
  bottom: "data"
  top: "conv1"
  convolution_param {
    num_output: 96
    kernel_size: 11
    stride: 4
  }
}
layer {
  name: "relu1"
  type: "ReLU"
  bottom: "conv1"
  top: "conv1"
}
layer {
  name: "pool1"
  type: "Pooling"
  bottom: "conv1"
  top: "pool1"
  pooling_param {
    pool: MAX
    kernel_size: 3
    stride: 2
  }
}
layer {
  name: "norm1"
  type: "LRN"
  bottom: "pool1"
  top: "norm1"
  lrn_param {
    local_size: 5
    alpha: 0.0001
    beta: 0.75
  }
}
layer {
  name: "conv2"
  type: "Convolution"
  bottom: "norm1"
  top: "conv2"
  convolution_param {
    num_output: 256
    pad: 2
    kernel_size: 5
    group: 2
  }
}
layer {
  name: "relu2"
  type: "ReLU"
  bottom: "conv2"
  top: "conv2"
}
layer {
  name: "pool2"
  type: "Pooling"
  bottom: "conv2"
  top: "pool2"
  pooling_param {
    pool: MAX
    kernel_size: 3
    stride: 2
  }
}
layer {
  name: "norm2"
  type: "LRN"
  bottom: "pool2"
  top: "norm2"
  lrn_param {
    local_size: 5
    alpha: 0.0001
    beta: 0.75
  }
}
layer {
  name: "conv3"
  type: "Convolution"
  bottom: "norm2"
  top: "conv3"
  convolution_param {
    num_output: 384
    pad: 1
    kernel_size: 3
  }
}
layer {
  name: "relu3"
  type: "ReLU"
  bottom: "conv3"
  top: "conv3"
}
layer {
  name: "conv4"
  type: "Convolution"
  bottom: "conv3"
  top: "conv4"
  convolution_param {
    num_output: 384
    pad: 1
    kernel_size: 3
    group: 2
  }
}
layer {
  name: "relu4"
  type: "ReLU"
  bottom: "conv4"
  top: "conv4"
}
layer {
  name: "conv5"
  type: "Convolution"
  bottom: "conv4"
  top: "conv5"
  convolution_param {
    num_output: 256
    pad: 1
    kernel_size: 3
    group: 2
  }
}
layer {
  name: "relu5"
  type: "ReLU"
  bottom: "conv5"
  top: "conv5"
}
layer {
  name: "pool5"
  type: "Pooling"
  bottom: "conv5"
  top: "pool5"
  pooling_param {
    pool: MAX
    kernel_size: 3
    stride: 2
  }
}
layer {
  name: "fc6"
  type: "InnerProduct"
  bottom: "pool5"
  top: "fc6"
  inner_product_param {
    num_output: 4096
  }
}
layer {
  name: "relu6"
  type: "ReLU"
  bottom: "fc6"
  top: "fc6"
}
layer {
  name: "drop6"
  type: "Dropout"
  bottom: "fc6"
  top: "fc6"
  dropout_param {
    dropout_ratio: 0.5
  }
}
layer {
  name: "fc7"
  type: "InnerProduct"
  bottom: "fc6"
  top: "fc7"
  inner_product_param {
    num_output: 4096
  }
}
layer {
  name: "relu7"
  type: "ReLU"
  bottom: "fc7"
  top: "fc7"
}
layer {
  name: "drop7"
  type: "Dropout"
  bottom: "fc7"
  top: "fc7"
  dropout_param {
    dropout_ratio: 0.5
  }
}
layer {
  name: "fc8"
  type: "InnerProduct"
  bottom: "fc7"
  top: "fc8"
  inner_product_param {
    num_output: 1000
  }
}
layer {
  name: "prob"
  type: "Softmax"
  bottom: "fc8"
  top: "prob"
}
I0922 22:05:39.968042 16698 layer_factory.hpp:77] Creating layer input
I0922 22:05:39.968045 16704 layer_factory.hpp:77] Creating layer data
I0922 22:05:39.968067 16704 net.cpp:91] Creating Layer data
I0922 22:05:39.968067 16698 net.cpp:91] Creating Layer input
I0922 22:05:39.968082 16704 net.cpp:399] data -> data
I0922 22:05:39.968070 16694 net.cpp:49] Initializing net from parameters: 
name: "s2vt:features_to_lstm"
state {
  phase: TEST
}
layer {
  name: "input"
  type: "Input"
  top: "frames_fc7"
  top: "cont_sentence"
  top: "input_sentence"
  top: "stage_indicator"
  input_param {
    shape {
      dim: 1
      dim: 4096
    }
    shape {
      dim: 1
      dim: 1
    }
    shape {
      dim: 1
      dim: 1
    }
    shape {
      dim: 1
      dim: 1
    }
  }
}
layer {
  name: "embed_encoder"
  type: "InnerProduct"
  bottom: "frames_fc7"
  top: "embedded_in_frames"
  param {
    lr_mult: 1
    decay_mult: 1
  }
  param {
    lr_mult: 2
    decay_mult: 0
  }
  inner_product_param {
    num_output: 500
    weight_filler {
      type: "xavier"
    }
    bias_filler {
      type: "constant"
      value: 0.2
    }
  }
}
layer {
  name: "reshape_frames"
  type: "Reshape"
  bottom: "embedded_in_frames"
  top: "embedded_input_frames"
  reshape_param {
    shape {
      dim: 1
      dim: 1
      dim: 500
    }
  }
}
layer {
  name: "reshape_stage_indicator"
  type: "Reshape"
  bottom: "stage_indicator"
  top: "reshaped_stage_indicator"
  reshape_param {
    shape {
      dim: 1
      dim: 1
      dim: 1
    }
  }
}
layer {
  name: "embedding"
  type: "Embed"
  bottom: "input_sentence"
  top: "embedded_input_sentence"
  param {
    lr_mult: 1
  }
  embed_param {
    num_output: 500
    input_dim: 46168
    bias_term: false
    weight_filler {
      type: "uniform"
      min: -0.08
      max: 0.08
    }
  }
}
layer {
  name: "lstm1"
  type: "LSTM"
  bottom: "embedded_input_frames"
  bottom: "cont_sentence"
  top: "lstm1"
  recurrent_param {
    num_output: 1000
    weight_filler {
      type: "uniform"
      min: -0.08
      max: 0.08
    }
    bias_filler {
      type: "constant"
      value: 0
    }
  }
}
layer {
  name: "concat"
  type: "Concat"
  bottom: "lstm1"
  bottom: "embedded_input_sentence"
  bottom: "reshaped_stage_indicator"
  top: "lstm1_video_sequence"
  concat_param {
    concat_dim: 2
  }
}
layer {
  name: "lstm2"
  type: "LSTM"
  bottom: "lstm1_video_sequence"
  bottom: "cont_sentence"
  top: "lstm2"
  recurrent_param {
    num_output: 1000
    weight_filler {
      type: "uniform"
      min: -0.08
      max: 0.08
    }
    bias_filler {
      type: "constant"
      value: 0
    }
  }
}
layer {
  name: "predict"
  type: "InnerProduct"
  bottom: "lstm2"
  top: "predict"
  param {
    lr_mult: 1
    decay_mult: 1
  }
  param {
    lr_mult: 2
    decay_mult: 0
  }
  inner_product_param {
    num_output: 46168
    weight_filler {
      type: "uniform"
      min: -0.08
      max: 0.08
    }
    bias_filler {
      type: "constant"
      value: 0
    }
    axis: 2
  }
}
layer {
  name: "probs"
  type: "Softmax"
  bottom: "predict"
  top: "probs"
  softmax_param {
    axis: 2
  }
}
I0922 22:05:39.968089 16698 net.cpp:399] input -> frames_fc7
I0922 22:05:39.968116 16698 net.cpp:399] input -> cont_sentence
I0922 22:05:39.968130 16698 net.cpp:399] input -> input_sentence
I0922 22:05:39.968140 16698 net.cpp:399] input -> stage_indicator
I0922 22:05:39.968204 16694 layer_factory.hpp:77] Creating layer input
I0922 22:05:39.968222 16694 net.cpp:91] Creating Layer input
I0922 22:05:39.968233 16694 net.cpp:399] input -> frames_fc7
I0922 22:05:39.968252 16694 net.cpp:399] input -> cont_sentence
I0922 22:05:39.968269 16694 net.cpp:399] input -> input_sentence
I0922 22:05:39.968286 16694 net.cpp:399] input -> stage_indicator
I0922 22:05:40.498774 16704 net.cpp:141] Setting up data
I0922 22:05:40.498850 16704 net.cpp:148] Top shape: 10 3 227 227 (1545870)
I0922 22:05:40.498857 16704 net.cpp:156] Memory required for data: 6183480
I0922 22:05:40.498878 16704 layer_factory.hpp:77] Creating layer conv1
I0922 22:05:40.498908 16704 net.cpp:91] Creating Layer conv1
I0922 22:05:40.498916 16704 net.cpp:425] conv1 <- data
I0922 22:05:40.498929 16704 net.cpp:399] conv1 -> conv1
I0922 22:05:40.499002 16698 net.cpp:141] Setting up input
I0922 22:05:40.499035 16698 net.cpp:148] Top shape: 1 4096 (4096)
I0922 22:05:40.499050 16698 net.cpp:148] Top shape: 1 1 (1)
I0922 22:05:40.499061 16698 net.cpp:148] Top shape: 1 1 (1)
I0922 22:05:40.499070 16698 net.cpp:148] Top shape: 1 1 (1)
I0922 22:05:40.499078 16698 net.cpp:156] Memory required for data: 16396
I0922 22:05:40.499089 16698 layer_factory.hpp:77] Creating layer cont_sentence_input_1_split
I0922 22:05:40.499090 16694 net.cpp:141] Setting up input
I0922 22:05:40.499114 16698 net.cpp:91] Creating Layer cont_sentence_input_1_split
I0922 22:05:40.499115 16694 net.cpp:148] Top shape: 1 4096 (4096)
I0922 22:05:40.499132 16698 net.cpp:425] cont_sentence_input_1_split <- cont_sentence
I0922 22:05:40.499141 16694 net.cpp:148] Top shape: 1 1 (1)
I0922 22:05:40.499153 16694 net.cpp:148] Top shape: 1 1 (1)
I0922 22:05:40.499164 16694 net.cpp:148] Top shape: 1 1 (1)
I0922 22:05:40.499166 16698 net.cpp:399] cont_sentence_input_1_split -> cont_sentence_input_1_split_0
I0922 22:05:40.499172 16694 net.cpp:156] Memory required for data: 16396
I0922 22:05:40.499184 16694 layer_factory.hpp:77] Creating layer cont_sentence_input_1_split
I0922 22:05:40.499212 16698 net.cpp:399] cont_sentence_input_1_split -> cont_sentence_input_1_split_1
I0922 22:05:40.499217 16694 net.cpp:91] Creating Layer cont_sentence_input_1_split
I0922 22:05:40.499230 16694 net.cpp:425] cont_sentence_input_1_split <- cont_sentence
I0922 22:05:40.499244 16694 net.cpp:399] cont_sentence_input_1_split -> cont_sentence_input_1_split_0
I0922 22:05:40.499259 16694 net.cpp:399] cont_sentence_input_1_split -> cont_sentence_input_1_split_1
I0922 22:05:40.499290 16698 net.cpp:141] Setting up cont_sentence_input_1_split
I0922 22:05:40.499307 16698 net.cpp:148] Top shape: 1 1 (1)
I0922 22:05:40.499317 16698 net.cpp:148] Top shape: 1 1 (1)
I0922 22:05:40.499326 16698 net.cpp:156] Memory required for data: 16404
I0922 22:05:40.499336 16698 layer_factory.hpp:77] Creating layer embed_encoder
I0922 22:05:40.499362 16698 net.cpp:91] Creating Layer embed_encoder
I0922 22:05:40.499372 16698 net.cpp:425] embed_encoder <- frames_fc7
I0922 22:05:40.499387 16698 net.cpp:399] embed_encoder -> embedded_in_frames
I0922 22:05:40.500068 16694 net.cpp:141] Setting up cont_sentence_input_1_split
I0922 22:05:40.500083 16694 net.cpp:148] Top shape: 1 1 (1)
I0922 22:05:40.500092 16694 net.cpp:148] Top shape: 1 1 (1)
I0922 22:05:40.500100 16694 net.cpp:156] Memory required for data: 16404
I0922 22:05:40.500109 16694 layer_factory.hpp:77] Creating layer embed_encoder
I0922 22:05:40.500130 16694 net.cpp:91] Creating Layer embed_encoder
I0922 22:05:40.500140 16694 net.cpp:425] embed_encoder <- frames_fc7
I0922 22:05:40.500150 16694 net.cpp:399] embed_encoder -> embedded_in_frames
I0922 22:05:40.528548 16694 net.cpp:141] Setting up embed_encoder
I0922 22:05:40.528589 16694 net.cpp:148] Top shape: 1 500 (500)
I0922 22:05:40.528586 16698 net.cpp:141] Setting up embed_encoder
I0922 22:05:40.528595 16694 net.cpp:156] Memory required for data: 18404
I0922 22:05:40.528609 16698 net.cpp:148] Top shape: 1 500 (500)
I0922 22:05:40.528614 16698 net.cpp:156] Memory required for data: 18404
I0922 22:05:40.528630 16698 layer_factory.hpp:77] Creating layer reshape_frames
I0922 22:05:40.528630 16694 layer_factory.hpp:77] Creating layer reshape_frames
I0922 22:05:40.528657 16694 net.cpp:91] Creating Layer reshape_frames
I0922 22:05:40.528657 16698 net.cpp:91] Creating Layer reshape_frames
I0922 22:05:40.528674 16694 net.cpp:425] reshape_frames <- embedded_in_frames
I0922 22:05:40.528677 16698 net.cpp:425] reshape_frames <- embedded_in_frames
I0922 22:05:40.528684 16694 net.cpp:399] reshape_frames -> embedded_input_frames
I0922 22:05:40.528687 16698 net.cpp:399] reshape_frames -> embedded_input_frames
I0922 22:05:40.533820 16698 net.cpp:141] Setting up reshape_frames
I0922 22:05:40.533860 16694 net.cpp:141] Setting up reshape_frames
I0922 22:05:40.533866 16698 net.cpp:148] Top shape: 1 1 500 (500)
I0922 22:05:40.533885 16694 net.cpp:148] Top shape: 1 1 500 (500)
I0922 22:05:40.533885 16698 net.cpp:156] Memory required for data: 20404
I0922 22:05:40.533892 16694 net.cpp:156] Memory required for data: 20404
I0922 22:05:40.533898 16698 layer_factory.hpp:77] Creating layer reshape_stage_indicator
I0922 22:05:40.533900 16694 layer_factory.hpp:77] Creating layer reshape_stage_indicator
I0922 22:05:40.533923 16698 net.cpp:91] Creating Layer reshape_stage_indicator
I0922 22:05:40.533931 16698 net.cpp:425] reshape_stage_indicator <- stage_indicator
I0922 22:05:40.533943 16698 net.cpp:399] reshape_stage_indicator -> reshaped_stage_indicator
I0922 22:05:40.533946 16694 net.cpp:91] Creating Layer reshape_stage_indicator
I0922 22:05:40.533954 16694 net.cpp:425] reshape_stage_indicator <- stage_indicator
I0922 22:05:40.533963 16694 net.cpp:399] reshape_stage_indicator -> reshaped_stage_indicator
I0922 22:05:40.537045 16698 net.cpp:141] Setting up reshape_stage_indicator
I0922 22:05:40.537076 16694 net.cpp:141] Setting up reshape_stage_indicator
I0922 22:05:40.537076 16698 net.cpp:148] Top shape: 1 1 1 (1)
I0922 22:05:40.537106 16694 net.cpp:148] Top shape: 1 1 1 (1)
I0922 22:05:40.537106 16698 net.cpp:156] Memory required for data: 20408
I0922 22:05:40.537113 16694 net.cpp:156] Memory required for data: 20408
I0922 22:05:40.537117 16698 layer_factory.hpp:77] Creating layer embedding
I0922 22:05:40.537123 16694 layer_factory.hpp:77] Creating layer embedding
I0922 22:05:40.537133 16698 net.cpp:91] Creating Layer embedding
I0922 22:05:40.537140 16698 net.cpp:425] embedding <- input_sentence
I0922 22:05:40.537150 16698 net.cpp:399] embedding -> embedded_input_sentence
I0922 22:05:40.537178 16694 net.cpp:91] Creating Layer embedding
I0922 22:05:40.537187 16694 net.cpp:425] embedding <- input_sentence
I0922 22:05:40.537197 16694 net.cpp:399] embedding -> embedded_input_sentence
I0922 22:05:40.757747 16698 net.cpp:141] Setting up embedding
I0922 22:05:40.757794 16698 net.cpp:148] Top shape: 1 1 500 (500)
I0922 22:05:40.757802 16698 net.cpp:156] Memory required for data: 22408
I0922 22:05:40.757818 16698 layer_factory.hpp:77] Creating layer lstm1
I0922 22:05:40.757848 16698 net.cpp:91] Creating Layer lstm1
I0922 22:05:40.757856 16698 net.cpp:425] lstm1 <- embedded_input_frames
I0922 22:05:40.757866 16698 net.cpp:425] lstm1 <- cont_sentence_input_1_split_0
I0922 22:05:40.757875 16698 net.cpp:399] lstm1 -> lstm1
I0922 22:05:40.757901 16698 recurrent_layer.cpp:20] Initializing recurrent layer: assuming input batch contains 1 timesteps of 1 independent streams.
I0922 22:05:40.758239 16698 net.cpp:49] Initializing net from parameters: 
layer {
  name: "lstm1_"
  type: "Input"
  top: "x"
  top: "cont"
  input_param {
    shape {
      dim: 1
      dim: 1
      dim: 500
    }
    shape {
      dim: 1
      dim: 1
    }
  }
}
layer {
  name: "lstm1_"
  type: "Input"
  top: "c_0"
  top: "h_0"
  input_param {
    shape {
      dim: 1
      dim: 1
      dim: 1000
    }
    shape {
      dim: 1
      dim: 1
      dim: 1000
    }
  }
}
layer {
  name: "lstm1_cont_slice"
  type: "Slice"
  bottom: "cont"
  top: "cont_1"
  slice_param {
    axis: 0
  }
}
layer {
  name: "lstm1_x_transform"
  type: "InnerProduct"
  bottom: "x"
  top: "W_xc_x"
  param {
    name: "W_xc"
  }
  param {
    name: "b_c"
  }
  propagate_down: true
  inner_product_param {
    num_output: 4000
    bias_term: true
    weight_filler {
      type: "uniform"
      min: -0.08
      max: 0.08
    }
    bias_filler {
      type: "constant"
      value: 0
    }
    axis: 2
  }
}
layer {
  name: "lstm1_W_xc_x_slice"
  type: "Slice"
  bottom: "W_xc_x"
  top: "W_xc_x_1"
  slice_param {
    axis: 0
  }
}
layer {
  name: "lstm1_h_conted_0"
  type: "Scale"
  bottom: "h_0"
  bottom: "cont_1"
  top: "h_conted_0"
  scale_param {
    axis: 0
  }
}
layer {
  name: "lstm1_transform_1"
  type: "InnerProduct"
  bottom: "h_conted_0"
  top: "W_hc_h_0"
  param {
    name: "W_hc"
  }
  inner_product_param {
    num_output: 4000
    bias_term: false
    weight_filler {
      type: "uniform"
      min: -0.08
      max: 0.08
    }
    axis: 2
  }
}
layer {
  name: "lstm1_gate_input_1"
  type: "Eltwise"
  bottom: "W_hc_h_0"
  bottom: "W_xc_x_1"
  top: "gate_input_1"
  eltwise_param {
    operation: SUM
  }
}
layer {
  name: "lstm1_unit_1"
  type: "LSTMUnit"
  bottom: "c_0"
  bottom: "gate_input_1"
  bottom: "cont_1"
  top: "c_1"
  top: "h_1"
}
layer {
  name: "lstm1_"
  type: "Split"
  bottom: "c_1"
  top: "c_T"
}
layer {
  name: "lstm1_h_concat"
  type: "Concat"
  bottom: "h_1"
  top: "h"
  concat_param {
    axis: 0
  }
}
layer {
  name: "h_pseudoloss"
  type: "Reduction"
  bottom: "h"
  top: "h_pseudoloss"
  loss_weight: 1
}
I0922 22:05:40.758324 16698 layer_factory.hpp:77] Creating layer lstm1_
I0922 22:05:40.758337 16698 net.cpp:91] Creating Layer lstm1_
I0922 22:05:40.758343 16698 net.cpp:399] lstm1_ -> x
I0922 22:05:40.758354 16698 net.cpp:399] lstm1_ -> cont
I0922 22:05:40.760615 16698 net.cpp:141] Setting up lstm1_
I0922 22:05:40.760633 16698 net.cpp:148] Top shape: 1 1 500 (500)
I0922 22:05:40.760642 16698 net.cpp:148] Top shape: 1 1 (1)
I0922 22:05:40.760645 16698 net.cpp:156] Memory required for data: 2004
I0922 22:05:40.760651 16698 layer_factory.hpp:77] Creating layer lstm1_
I0922 22:05:40.760663 16698 net.cpp:91] Creating Layer lstm1_
I0922 22:05:40.760669 16698 net.cpp:399] lstm1_ -> c_0
I0922 22:05:40.760681 16698 net.cpp:399] lstm1_ -> h_0
I0922 22:05:40.762480 16698 net.cpp:141] Setting up lstm1_
I0922 22:05:40.762497 16698 net.cpp:148] Top shape: 1 1 1000 (1000)
I0922 22:05:40.762504 16698 net.cpp:148] Top shape: 1 1 1000 (1000)
I0922 22:05:40.762508 16698 net.cpp:156] Memory required for data: 10004
I0922 22:05:40.762513 16698 layer_factory.hpp:77] Creating layer lstm1_cont_slice
I0922 22:05:40.762524 16698 net.cpp:91] Creating Layer lstm1_cont_slice
I0922 22:05:40.762529 16698 net.cpp:425] lstm1_cont_slice <- cont
I0922 22:05:40.762554 16698 net.cpp:399] lstm1_cont_slice -> cont_1
I0922 22:05:40.763556 16698 net.cpp:141] Setting up lstm1_cont_slice
I0922 22:05:40.763573 16698 net.cpp:148] Top shape: 1 1 (1)
I0922 22:05:40.763578 16698 net.cpp:156] Memory required for data: 10008
I0922 22:05:40.763584 16698 layer_factory.hpp:77] Creating layer cont_1_lstm1_cont_slice_0_split
I0922 22:05:40.763593 16698 net.cpp:91] Creating Layer cont_1_lstm1_cont_slice_0_split
I0922 22:05:40.763598 16698 net.cpp:425] cont_1_lstm1_cont_slice_0_split <- cont_1
I0922 22:05:40.763607 16698 net.cpp:399] cont_1_lstm1_cont_slice_0_split -> cont_1_lstm1_cont_slice_0_split_0
I0922 22:05:40.763622 16698 net.cpp:399] cont_1_lstm1_cont_slice_0_split -> cont_1_lstm1_cont_slice_0_split_1
I0922 22:05:40.767514 16698 net.cpp:141] Setting up cont_1_lstm1_cont_slice_0_split
I0922 22:05:40.767529 16698 net.cpp:148] Top shape: 1 1 (1)
I0922 22:05:40.767535 16698 net.cpp:148] Top shape: 1 1 (1)
I0922 22:05:40.767539 16698 net.cpp:156] Memory required for data: 10016
I0922 22:05:40.767544 16698 layer_factory.hpp:77] Creating layer lstm1_x_transform
I0922 22:05:40.767563 16698 net.cpp:91] Creating Layer lstm1_x_transform
I0922 22:05:40.767570 16698 net.cpp:425] lstm1_x_transform <- x
I0922 22:05:40.767580 16698 net.cpp:399] lstm1_x_transform -> W_xc_x
I0922 22:05:40.788873 16698 net.cpp:141] Setting up lstm1_x_transform
I0922 22:05:40.788921 16698 net.cpp:148] Top shape: 1 1 4000 (4000)
I0922 22:05:40.788928 16698 net.cpp:156] Memory required for data: 26016
I0922 22:05:40.788949 16698 layer_factory.hpp:77] Creating layer lstm1_W_xc_x_slice
I0922 22:05:40.788965 16698 net.cpp:91] Creating Layer lstm1_W_xc_x_slice
I0922 22:05:40.788971 16698 net.cpp:425] lstm1_W_xc_x_slice <- W_xc_x
I0922 22:05:40.788981 16698 net.cpp:399] lstm1_W_xc_x_slice -> W_xc_x_1
I0922 22:05:40.795142 16698 net.cpp:141] Setting up lstm1_W_xc_x_slice
I0922 22:05:40.795166 16698 net.cpp:148] Top shape: 1 1 4000 (4000)
I0922 22:05:40.795171 16698 net.cpp:156] Memory required for data: 42016
I0922 22:05:40.795176 16698 layer_factory.hpp:77] Creating layer lstm1_h_conted_0
I0922 22:05:40.795197 16698 net.cpp:91] Creating Layer lstm1_h_conted_0
I0922 22:05:40.795203 16698 net.cpp:425] lstm1_h_conted_0 <- h_0
I0922 22:05:40.795210 16698 net.cpp:425] lstm1_h_conted_0 <- cont_1_lstm1_cont_slice_0_split_0
I0922 22:05:40.795217 16698 net.cpp:399] lstm1_h_conted_0 -> h_conted_0
I0922 22:05:40.795342 16698 net.cpp:141] Setting up lstm1_h_conted_0
I0922 22:05:40.795354 16698 net.cpp:148] Top shape: 1 1 1000 (1000)
I0922 22:05:40.795358 16698 net.cpp:156] Memory required for data: 46016
I0922 22:05:40.795363 16698 layer_factory.hpp:77] Creating layer lstm1_transform_1
I0922 22:05:40.795377 16698 net.cpp:91] Creating Layer lstm1_transform_1
I0922 22:05:40.795382 16698 net.cpp:425] lstm1_transform_1 <- h_conted_0
I0922 22:05:40.795390 16698 net.cpp:399] lstm1_transform_1 -> W_hc_h_0
I0922 22:05:40.804446 16704 net.cpp:141] Setting up conv1
I0922 22:05:40.804507 16704 net.cpp:148] Top shape: 10 96 55 55 (2904000)
I0922 22:05:40.804515 16704 net.cpp:156] Memory required for data: 17799480
I0922 22:05:40.804558 16704 layer_factory.hpp:77] Creating layer relu1
I0922 22:05:40.804594 16704 net.cpp:91] Creating Layer relu1
I0922 22:05:40.804605 16704 net.cpp:425] relu1 <- conv1
I0922 22:05:40.804616 16704 net.cpp:386] relu1 -> conv1 (in-place)
I0922 22:05:40.805063 16704 net.cpp:141] Setting up relu1
I0922 22:05:40.805078 16704 net.cpp:148] Top shape: 10 96 55 55 (2904000)
I0922 22:05:40.805083 16704 net.cpp:156] Memory required for data: 29415480
I0922 22:05:40.805089 16704 layer_factory.hpp:77] Creating layer pool1
I0922 22:05:40.805110 16704 net.cpp:91] Creating Layer pool1
I0922 22:05:40.805116 16704 net.cpp:425] pool1 <- conv1
I0922 22:05:40.805126 16704 net.cpp:399] pool1 -> pool1
I0922 22:05:40.805213 16704 net.cpp:141] Setting up pool1
I0922 22:05:40.805224 16704 net.cpp:148] Top shape: 10 96 27 27 (699840)
I0922 22:05:40.805229 16704 net.cpp:156] Memory required for data: 32214840
I0922 22:05:40.805234 16704 layer_factory.hpp:77] Creating layer norm1
I0922 22:05:40.805253 16704 net.cpp:91] Creating Layer norm1
I0922 22:05:40.805259 16704 net.cpp:425] norm1 <- pool1
I0922 22:05:40.805268 16704 net.cpp:399] norm1 -> norm1
I0922 22:05:40.805524 16704 net.cpp:141] Setting up norm1
I0922 22:05:40.805537 16704 net.cpp:148] Top shape: 10 96 27 27 (699840)
I0922 22:05:40.805541 16704 net.cpp:156] Memory required for data: 35014200
I0922 22:05:40.805547 16704 layer_factory.hpp:77] Creating layer conv2
I0922 22:05:40.805563 16704 net.cpp:91] Creating Layer conv2
I0922 22:05:40.805569 16704 net.cpp:425] conv2 <- norm1
I0922 22:05:40.805578 16704 net.cpp:399] conv2 -> conv2
I0922 22:05:40.807515 16694 net.cpp:141] Setting up embedding
I0922 22:05:40.807535 16694 net.cpp:148] Top shape: 1 1 500 (500)
I0922 22:05:40.807540 16694 net.cpp:156] Memory required for data: 22408
I0922 22:05:40.807552 16694 layer_factory.hpp:77] Creating layer lstm1
I0922 22:05:40.807569 16694 net.cpp:91] Creating Layer lstm1
I0922 22:05:40.807577 16694 net.cpp:425] lstm1 <- embedded_input_frames
I0922 22:05:40.807585 16694 net.cpp:425] lstm1 <- cont_sentence_input_1_split_0
I0922 22:05:40.807592 16694 net.cpp:399] lstm1 -> lstm1
I0922 22:05:40.807605 16694 recurrent_layer.cpp:20] Initializing recurrent layer: assuming input batch contains 1 timesteps of 1 independent streams.
I0922 22:05:40.807862 16694 net.cpp:49] Initializing net from parameters: 
layer {
  name: "lstm1_"
  type: "Input"
  top: "x"
  top: "cont"
  input_param {
    shape {
      dim: 1
      dim: 1
      dim: 500
    }
    shape {
      dim: 1
      dim: 1
    }
  }
}
layer {
  name: "lstm1_"
  type: "Input"
  top: "c_0"
  top: "h_0"
  input_param {
    shape {
      dim: 1
      dim: 1
      dim: 1000
    }
    shape {
      dim: 1
      dim: 1
      dim: 1000
    }
  }
}
layer {
  name: "lstm1_cont_slice"
  type: "Slice"
  bottom: "cont"
  top: "cont_1"
  slice_param {
    axis: 0
  }
}
layer {
  name: "lstm1_x_transform"
  type: "InnerProduct"
  bottom: "x"
  top: "W_xc_x"
  param {
    name: "W_xc"
  }
  param {
    name: "b_c"
  }
  propagate_down: true
  inner_product_param {
    num_output: 4000
    bias_term: true
    weight_filler {
      type: "uniform"
      min: -0.08
      max: 0.08
    }
    bias_filler {
      type: "constant"
      value: 0
    }
    axis: 2
  }
}
layer {
  name: "lstm1_W_xc_x_slice"
  type: "Slice"
  bottom: "W_xc_x"
  top: "W_xc_x_1"
  slice_param {
    axis: 0
  }
}
layer {
  name: "lstm1_h_conted_0"
  type: "Scale"
  bottom: "h_0"
  bottom: "cont_1"
  top: "h_conted_0"
  scale_param {
    axis: 0
  }
}
layer {
  name: "lstm1_transform_1"
  type: "InnerProduct"
  bottom: "h_conted_0"
  top: "W_hc_h_0"
  param {
    name: "W_hc"
  }
  inner_product_param {
    num_output: 4000
    bias_term: false
    weight_filler {
      type: "uniform"
      min: -0.08
      max: 0.08
    }
    axis: 2
  }
}
layer {
  name: "lstm1_gate_input_1"
  type: "Eltwise"
  bottom: "W_hc_h_0"
  bottom: "W_xc_x_1"
  top: "gate_input_1"
  eltwise_param {
    operation: SUM
  }
}
layer {
  name: "lstm1_unit_1"
  type: "LSTMUnit"
  bottom: "c_0"
  bottom: "gate_input_1"
  bottom: "cont_1"
  top: "c_1"
  top: "h_1"
}
layer {
  name: "lstm1_"
  type: "Split"
  bottom: "c_1"
  top: "c_T"
}
layer {
  name: "lstm1_h_concat"
  type: "Concat"
  bottom: "h_1"
  top: "h"
  concat_param {
    axis: 0
  }
}
layer {
  name: "h_pseudoloss"
  type: "Reduction"
  bottom: "h"
  top: "h_pseudoloss"
  loss_weight: 1
}
I0922 22:05:40.807953 16694 layer_factory.hpp:77] Creating layer lstm1_
I0922 22:05:40.807965 16694 net.cpp:91] Creating Layer lstm1_
I0922 22:05:40.807971 16694 net.cpp:399] lstm1_ -> x
I0922 22:05:40.807983 16694 net.cpp:399] lstm1_ -> cont
I0922 22:05:40.808290 16694 net.cpp:141] Setting up lstm1_
I0922 22:05:40.808306 16694 net.cpp:148] Top shape: 1 1 500 (500)
I0922 22:05:40.808317 16694 net.cpp:148] Top shape: 1 1 (1)
I0922 22:05:40.808325 16694 net.cpp:156] Memory required for data: 2004
I0922 22:05:40.808332 16694 layer_factory.hpp:77] Creating layer lstm1_
I0922 22:05:40.808368 16694 net.cpp:91] Creating Layer lstm1_
I0922 22:05:40.808383 16694 net.cpp:399] lstm1_ -> c_0
I0922 22:05:40.808405 16694 net.cpp:399] lstm1_ -> h_0
I0922 22:05:40.808665 16694 net.cpp:141] Setting up lstm1_
I0922 22:05:40.808678 16694 net.cpp:148] Top shape: 1 1 1000 (1000)
I0922 22:05:40.808683 16694 net.cpp:148] Top shape: 1 1 1000 (1000)
I0922 22:05:40.808688 16694 net.cpp:156] Memory required for data: 10004
I0922 22:05:40.808693 16694 layer_factory.hpp:77] Creating layer lstm1_cont_slice
I0922 22:05:40.808704 16694 net.cpp:91] Creating Layer lstm1_cont_slice
I0922 22:05:40.808709 16694 net.cpp:425] lstm1_cont_slice <- cont
I0922 22:05:40.808717 16694 net.cpp:399] lstm1_cont_slice -> cont_1
I0922 22:05:40.808790 16694 net.cpp:141] Setting up lstm1_cont_slice
I0922 22:05:40.808801 16694 net.cpp:148] Top shape: 1 1 (1)
I0922 22:05:40.808806 16694 net.cpp:156] Memory required for data: 10008
I0922 22:05:40.808811 16694 layer_factory.hpp:77] Creating layer cont_1_lstm1_cont_slice_0_split
I0922 22:05:40.808820 16694 net.cpp:91] Creating Layer cont_1_lstm1_cont_slice_0_split
I0922 22:05:40.808825 16694 net.cpp:425] cont_1_lstm1_cont_slice_0_split <- cont_1
I0922 22:05:40.808833 16694 net.cpp:399] cont_1_lstm1_cont_slice_0_split -> cont_1_lstm1_cont_slice_0_split_0
I0922 22:05:40.808842 16694 net.cpp:399] cont_1_lstm1_cont_slice_0_split -> cont_1_lstm1_cont_slice_0_split_1
I0922 22:05:40.809051 16694 net.cpp:141] Setting up cont_1_lstm1_cont_slice_0_split
I0922 22:05:40.809062 16694 net.cpp:148] Top shape: 1 1 (1)
I0922 22:05:40.809067 16694 net.cpp:148] Top shape: 1 1 (1)
I0922 22:05:40.809072 16694 net.cpp:156] Memory required for data: 10016
I0922 22:05:40.809077 16694 layer_factory.hpp:77] Creating layer lstm1_x_transform
I0922 22:05:40.809089 16694 net.cpp:91] Creating Layer lstm1_x_transform
I0922 22:05:40.809095 16694 net.cpp:425] lstm1_x_transform <- x
I0922 22:05:40.809118 16694 net.cpp:399] lstm1_x_transform -> W_xc_x
I0922 22:05:40.813439 16704 net.cpp:141] Setting up conv2
I0922 22:05:40.813482 16704 net.cpp:148] Top shape: 10 256 27 27 (1866240)
I0922 22:05:40.813493 16704 net.cpp:156] Memory required for data: 42479160
I0922 22:05:40.813518 16704 layer_factory.hpp:77] Creating layer relu2
I0922 22:05:40.813536 16704 net.cpp:91] Creating Layer relu2
I0922 22:05:40.813547 16704 net.cpp:425] relu2 <- conv2
I0922 22:05:40.813561 16704 net.cpp:386] relu2 -> conv2 (in-place)
I0922 22:05:40.814146 16704 net.cpp:141] Setting up relu2
I0922 22:05:40.814164 16704 net.cpp:148] Top shape: 10 256 27 27 (1866240)
I0922 22:05:40.814173 16704 net.cpp:156] Memory required for data: 49944120
I0922 22:05:40.814189 16704 layer_factory.hpp:77] Creating layer pool2
I0922 22:05:40.814206 16704 net.cpp:91] Creating Layer pool2
I0922 22:05:40.814215 16704 net.cpp:425] pool2 <- conv2
I0922 22:05:40.814229 16704 net.cpp:399] pool2 -> pool2
I0922 22:05:40.814311 16704 net.cpp:141] Setting up pool2
I0922 22:05:40.814327 16704 net.cpp:148] Top shape: 10 256 13 13 (432640)
I0922 22:05:40.814337 16704 net.cpp:156] Memory required for data: 51674680
I0922 22:05:40.814345 16704 layer_factory.hpp:77] Creating layer norm2
I0922 22:05:40.814363 16704 net.cpp:91] Creating Layer norm2
I0922 22:05:40.814373 16704 net.cpp:425] norm2 <- pool2
I0922 22:05:40.814385 16704 net.cpp:399] norm2 -> norm2
I0922 22:05:40.814765 16704 net.cpp:141] Setting up norm2
I0922 22:05:40.814782 16704 net.cpp:148] Top shape: 10 256 13 13 (432640)
I0922 22:05:40.814790 16704 net.cpp:156] Memory required for data: 53405240
I0922 22:05:40.814797 16704 layer_factory.hpp:77] Creating layer conv3
I0922 22:05:40.814817 16704 net.cpp:91] Creating Layer conv3
I0922 22:05:40.814826 16704 net.cpp:425] conv3 <- norm2
I0922 22:05:40.814841 16704 net.cpp:399] conv3 -> conv3
I0922 22:05:40.819684 16704 net.cpp:141] Setting up conv3
I0922 22:05:40.819718 16704 net.cpp:148] Top shape: 10 384 13 13 (648960)
I0922 22:05:40.819728 16704 net.cpp:156] Memory required for data: 56001080
I0922 22:05:40.819751 16704 layer_factory.hpp:77] Creating layer relu3
I0922 22:05:40.819774 16704 net.cpp:91] Creating Layer relu3
I0922 22:05:40.819784 16704 net.cpp:425] relu3 <- conv3
I0922 22:05:40.819802 16704 net.cpp:386] relu3 -> conv3 (in-place)
I0922 22:05:40.820137 16704 net.cpp:141] Setting up relu3
I0922 22:05:40.820154 16704 net.cpp:148] Top shape: 10 384 13 13 (648960)
I0922 22:05:40.820163 16704 net.cpp:156] Memory required for data: 58596920
I0922 22:05:40.820170 16704 layer_factory.hpp:77] Creating layer conv4
I0922 22:05:40.820193 16704 net.cpp:91] Creating Layer conv4
I0922 22:05:40.820201 16704 net.cpp:425] conv4 <- conv3
I0922 22:05:40.820217 16704 net.cpp:399] conv4 -> conv4
I0922 22:05:40.825728 16704 net.cpp:141] Setting up conv4
I0922 22:05:40.825759 16704 net.cpp:148] Top shape: 10 384 13 13 (648960)
I0922 22:05:40.825768 16704 net.cpp:156] Memory required for data: 61192760
I0922 22:05:40.825785 16704 layer_factory.hpp:77] Creating layer relu4
I0922 22:05:40.825809 16704 net.cpp:91] Creating Layer relu4
I0922 22:05:40.825821 16704 net.cpp:425] relu4 <- conv4
I0922 22:05:40.825836 16704 net.cpp:386] relu4 -> conv4 (in-place)
I0922 22:05:40.826375 16704 net.cpp:141] Setting up relu4
I0922 22:05:40.826393 16704 net.cpp:148] Top shape: 10 384 13 13 (648960)
I0922 22:05:40.826401 16704 net.cpp:156] Memory required for data: 63788600
I0922 22:05:40.826411 16704 layer_factory.hpp:77] Creating layer conv5
I0922 22:05:40.826436 16704 net.cpp:91] Creating Layer conv5
I0922 22:05:40.826445 16704 net.cpp:425] conv5 <- conv4
I0922 22:05:40.826462 16704 net.cpp:399] conv5 -> conv5
I0922 22:05:40.828181 16694 net.cpp:141] Setting up lstm1_x_transform
I0922 22:05:40.828197 16694 net.cpp:148] Top shape: 1 1 4000 (4000)
I0922 22:05:40.828202 16694 net.cpp:156] Memory required for data: 26016
I0922 22:05:40.828217 16694 layer_factory.hpp:77] Creating layer lstm1_W_xc_x_slice
I0922 22:05:40.828227 16694 net.cpp:91] Creating Layer lstm1_W_xc_x_slice
I0922 22:05:40.828233 16694 net.cpp:425] lstm1_W_xc_x_slice <- W_xc_x
I0922 22:05:40.828240 16694 net.cpp:399] lstm1_W_xc_x_slice -> W_xc_x_1
I0922 22:05:40.828328 16694 net.cpp:141] Setting up lstm1_W_xc_x_slice
I0922 22:05:40.828339 16694 net.cpp:148] Top shape: 1 1 4000 (4000)
I0922 22:05:40.828344 16694 net.cpp:156] Memory required for data: 42016
I0922 22:05:40.828349 16694 layer_factory.hpp:77] Creating layer lstm1_h_conted_0
I0922 22:05:40.828359 16694 net.cpp:91] Creating Layer lstm1_h_conted_0
I0922 22:05:40.828364 16694 net.cpp:425] lstm1_h_conted_0 <- h_0
I0922 22:05:40.828371 16694 net.cpp:425] lstm1_h_conted_0 <- cont_1_lstm1_cont_slice_0_split_0
I0922 22:05:40.828378 16694 net.cpp:399] lstm1_h_conted_0 -> h_conted_0
I0922 22:05:40.828485 16694 net.cpp:141] Setting up lstm1_h_conted_0
I0922 22:05:40.828495 16694 net.cpp:148] Top shape: 1 1 1000 (1000)
I0922 22:05:40.828500 16694 net.cpp:156] Memory required for data: 46016
I0922 22:05:40.828505 16694 layer_factory.hpp:77] Creating layer lstm1_transform_1
I0922 22:05:40.828516 16694 net.cpp:91] Creating Layer lstm1_transform_1
I0922 22:05:40.828521 16694 net.cpp:425] lstm1_transform_1 <- h_conted_0
I0922 22:05:40.828529 16694 net.cpp:399] lstm1_transform_1 -> W_hc_h_0
I0922 22:05:40.836169 16698 net.cpp:141] Setting up lstm1_transform_1
I0922 22:05:40.836221 16698 net.cpp:148] Top shape: 1 1 4000 (4000)
I0922 22:05:40.836227 16698 net.cpp:156] Memory required for data: 62016
I0922 22:05:40.836249 16698 layer_factory.hpp:77] Creating layer lstm1_gate_input_1
I0922 22:05:40.836272 16698 net.cpp:91] Creating Layer lstm1_gate_input_1
I0922 22:05:40.836279 16698 net.cpp:425] lstm1_gate_input_1 <- W_hc_h_0
I0922 22:05:40.836287 16698 net.cpp:425] lstm1_gate_input_1 <- W_xc_x_1
I0922 22:05:40.836295 16698 net.cpp:399] lstm1_gate_input_1 -> gate_input_1
I0922 22:05:40.836410 16698 net.cpp:141] Setting up lstm1_gate_input_1
I0922 22:05:40.836422 16698 net.cpp:148] Top shape: 1 1 4000 (4000)
I0922 22:05:40.836427 16698 net.cpp:156] Memory required for data: 78016
I0922 22:05:40.836432 16698 layer_factory.hpp:77] Creating layer lstm1_unit_1
I0922 22:05:40.836443 16698 net.cpp:91] Creating Layer lstm1_unit_1
I0922 22:05:40.836449 16698 net.cpp:425] lstm1_unit_1 <- c_0
I0922 22:05:40.836455 16698 net.cpp:425] lstm1_unit_1 <- gate_input_1
I0922 22:05:40.836460 16698 net.cpp:425] lstm1_unit_1 <- cont_1_lstm1_cont_slice_0_split_1
I0922 22:05:40.836467 16698 net.cpp:399] lstm1_unit_1 -> c_1
I0922 22:05:40.836477 16698 net.cpp:399] lstm1_unit_1 -> h_1
I0922 22:05:40.836935 16698 net.cpp:141] Setting up lstm1_unit_1
I0922 22:05:40.836947 16698 net.cpp:148] Top shape: 1 1 1000 (1000)
I0922 22:05:40.836953 16698 net.cpp:148] Top shape: 1 1 1000 (1000)
I0922 22:05:40.836957 16698 net.cpp:156] Memory required for data: 86016
I0922 22:05:40.836962 16698 layer_factory.hpp:77] Creating layer lstm1_
I0922 22:05:40.836980 16698 net.cpp:91] Creating Layer lstm1_
I0922 22:05:40.836987 16698 net.cpp:425] lstm1_ <- c_1
I0922 22:05:40.836993 16698 net.cpp:399] lstm1_ -> c_T
I0922 22:05:40.837030 16698 net.cpp:141] Setting up lstm1_
I0922 22:05:40.837040 16698 net.cpp:148] Top shape: 1 1 1000 (1000)
I0922 22:05:40.837044 16698 net.cpp:156] Memory required for data: 90016
I0922 22:05:40.837049 16698 layer_factory.hpp:77] Creating layer lstm1_h_concat
I0922 22:05:40.837066 16698 net.cpp:91] Creating Layer lstm1_h_concat
I0922 22:05:40.837071 16698 net.cpp:425] lstm1_h_concat <- h_1
I0922 22:05:40.837079 16698 net.cpp:399] lstm1_h_concat -> h
I0922 22:05:40.837250 16698 net.cpp:141] Setting up lstm1_h_concat
I0922 22:05:40.837260 16698 net.cpp:148] Top shape: 1 1 1000 (1000)
I0922 22:05:40.837265 16698 net.cpp:156] Memory required for data: 94016
I0922 22:05:40.837270 16698 layer_factory.hpp:77] Creating layer h_pseudoloss
I0922 22:05:40.837285 16698 net.cpp:91] Creating Layer h_pseudoloss
I0922 22:05:40.837290 16698 net.cpp:425] h_pseudoloss <- h
I0922 22:05:40.837304 16698 net.cpp:399] h_pseudoloss -> h_pseudoloss
I0922 22:05:40.837642 16698 net.cpp:141] Setting up h_pseudoloss
…
I0922 22:05:40.837769 16698 net.cpp:219] lstm1_ does not need backward computation.
I0922 22:05:40.837772 16698 net.cpp:261] This network produces output c_T
I0922 22:05:40.837777 16698 net.cpp:261] This network produces output h_pseudoloss
I0922 22:05:40.837810 16698 net.cpp:274] Network initialization done.
I0922 22:05:40.837875 16698 recurrent_layer.cpp:150] Adding parameter 0: W_xc
I0922 22:05:40.837882 16698 recurrent_layer.cpp:150] Adding parameter 1: b_c
I0922 22:05:40.837887 16698 recurrent_layer.cpp:150] Adding parameter 2: W_hc
I0922 22:05:40.838150 16698 net.cpp:141] Setting up lstm1
I0922 22:05:40.838162 16698 net.cpp:148] Top shape: 1 1 1000 (1000)
I0922 22:05:40.838166 16698 net.cpp:156] Memory required for data: 26408
I0922 22:05:40.838181 16698 layer_factory.hpp:77] Creating layer concat
I0922 22:05:40.838191 16698 net.cpp:91] Creating Layer concat
I0922 22:05:40.838197 16698 net.cpp:425] concat <- lstm1
I0922 22:05:40.838204 16698 net.cpp:425] concat <- embedded_input_sentence
I0922 22:05:40.838209 16698 net.cpp:425] concat <- reshaped_stage_indicator
I0922 22:05:40.838217 16698 net.cpp:399] concat -> lstm1_video_sequence
I0922 22:05:40.838537 16698 net.cpp:141] Setting up concat
I0922 22:05:40.838548 16698 net.cpp:148] Top shape: 1 1 1501 (1501)
I0922 22:05:40.838552 16698 net.cpp:156] Memory required for data: 32412
I0922 22:05:40.838557 16698 layer_factory.hpp:77] Creating layer lstm2
I0922 22:05:40.838570 16698 net.cpp:91] Creating Layer lstm2
I0922 22:05:40.838575 16698 net.cpp:425] lstm2 <- lstm1_video_sequence
I0922 22:05:40.838582 16698 net.cpp:425] lstm2 <- cont_sentence_input_1_split_1
I0922 22:05:40.838589 16698 net.cpp:399] lstm2 -> lstm2
I0922 22:05:40.838600 16698 recurrent_layer.cpp:20] Initializing recurrent layer: assuming input batch contains 1 timesteps of 1 independent streams.
I0922 22:05:40.838841 16698 net.cpp:49] Initializing net from parameters: 
layer {
  name: "lstm2_"
  type: "Input"
  top: "x"
  top: "cont"
  input_param {
    shape {
      dim: 1
      dim: 1
      dim: 1501
    }
    shape {
      dim: 1
      dim: 1
    }
  }
}
layer {
  name: "lstm2_"
  type: "Input"
  top: "c_0"
  top: "h_0"
  input_param {
    shape {
      dim: 1
      dim: 1
      dim: 1000
    }
    shape {
      dim: 1
      dim: 1
      dim: 1000
    }
  }
}
layer {
  name: "lstm2_cont_slice"
  type: "Slice"
  bottom: "cont"
  top: "cont_1"
  slice_param {
    axis: 0
  }
}
layer {
  name: "lstm2_x_transform"
  type: "InnerProduct"
  bottom: "x"
  top: "W_xc_x"
  param {
    name: "W_xc"
  }
  param {
    name: "b_c"
  }
  propagate_down: true
  inner_product_param {
    num_output: 4000
    bias_term: true
    weight_filler {
      type: "uniform"
      min: -0.08
      max: 0.08
    }
    bias_filler {
      type: "constant"
      value: 0
    }
    axis: 2
  }
}
layer {
  name: "lstm2_W_xc_x_slice"
  type: "Slice"
  bottom: "W_xc_x"
  top: "W_xc_x_1"
  slice_param {
    axis: 0
  }
}
layer {
  name: "lstm2_h_conted_0"
  type: "Scale"
  bottom: "h_0"
  bottom: "cont_1"
  top: "h_conted_0"
  scale_param {
    axis: 0
  }
}
layer {
  name: "lstm2_transform_1"
  type: "InnerProduct"
  bottom: "h_conted_0"
  top: "W_hc_h_0"
  param {
    name: "W_hc"
  }
  inner_product_param {
    num_output: 4000
    bias_term: false
    weight_filler {
      type: "uniform"
      min: -0.08
      max: 0.08
    }
    axis: 2
  }
}
layer {
  name: "lstm2_gate_input_1"
  type: "Eltwise"
  bottom: "W_hc_h_0"
  bottom: "W_xc_x_1"
  top: "gate_input_1"
  eltwise_param {
    operation: SUM
  }
}
layer {
  name: "lstm2_unit_1"
  type: "LSTMUnit"
  bottom: "c_0"
  bottom: "gate_input_1"
  bottom: "cont_1"
  top: "c_1"
  top: "h_1"
}
layer {
  name: "lstm2_"
  type: "Split"
  bottom: "c_1"
  top: "c_T"
}
layer {
  name: "lstm2_h_concat"
  type: "Concat"
  bottom: "h_1"
  top: "h"
  concat_param {
    axis: 0
  }
}
layer {
  name: "h_pseudoloss"
  type: "Reduction"
  bottom: "h"
  top: "h_pseudoloss"
  loss_weight: 1
}
I0922 22:05:40.838932 16698 layer_factory.hpp:77] Creating layer lstm2_
I0922 22:05:40.838946 16698 net.cpp:91] Creating Layer lstm2_
I0922 22:05:40.838953 16698 net.cpp:399] lstm2_ -> x
I0922 22:05:40.838963 16698 net.cpp:399] lstm2_ -> cont
I0922 22:05:40.839035 16704 net.cpp:141] Setting up conv5
I0922 22:05:40.839054 16704 net.cpp:148] Top shape: 10 256 13 13 (432640)
I0922 22:05:40.839059 16704 net.cpp:156] Memory required for data: 65519160
I0922 22:05:40.839059 16698 net.cpp:141] Setting up lstm2_
I0922 22:05:40.839072 16698 net.cpp:148] Top shape: 1 1 1501 (1501)
I0922 22:05:40.839074 16704 layer_factory.hpp:77] Creating layer relu5
I0922 22:05:40.839078 16698 net.cpp:148] Top shape: 1 1 (1)
I0922 22:05:40.839082 16698 net.cpp:156] Memory required for data: 6008
I0922 22:05:40.839087 16704 net.cpp:91] Creating Layer relu5
I0922 22:05:40.839087 16698 layer_factory.hpp:77] Creating layer lstm2_
I0922 22:05:40.839094 16704 net.cpp:425] relu5 <- conv5
I0922 22:05:40.839098 16698 net.cpp:91] Creating Layer lstm2_
I0922 22:05:40.839102 16704 net.cpp:386] relu5 -> conv5 (in-place)
I0922 22:05:40.839105 16698 net.cpp:399] lstm2_ -> c_0
I0922 22:05:40.839115 16698 net.cpp:399] lstm2_ -> h_0
I0922 22:05:40.839498 16698 net.cpp:141] Setting up lstm2_
I0922 22:05:40.839509 16698 net.cpp:148] Top shape: 1 1 1000 (1000)
I0922 22:05:40.839514 16698 net.cpp:148] Top shape: 1 1 1000 (1000)
I0922 22:05:40.839519 16698 net.cpp:156] Memory required for data: 14008
I0922 22:05:40.839524 16698 layer_factory.hpp:77] Creating layer lstm2_cont_slice
I0922 22:05:40.839532 16698 net.cpp:91] Creating Layer lstm2_cont_slice
I0922 22:05:40.839537 16698 net.cpp:425] lstm2_cont_slice <- cont
I0922 22:05:40.839547 16698 net.cpp:399] lstm2_cont_slice -> cont_1
I0922 22:05:40.839596 16698 net.cpp:141] Setting up lstm2_cont_slice
I0922 22:05:40.839607 16698 net.cpp:148] Top shape: 1 1 (1)
I0922 22:05:40.839610 16698 net.cpp:156] Memory required for data: 14012
I0922 22:05:40.839608 16704 net.cpp:141] Setting up relu5
I0922 22:05:40.839618 16698 layer_factory.hpp:77] Creating layer cont_1_lstm2_cont_slice_0_split
I0922 22:05:40.839629 16704 net.cpp:148] Top shape: 10 256 13 13 (432640)
I0922 22:05:40.839632 16698 net.cpp:91] Creating Layer cont_1_lstm2_cont_slice_0_split
I0922 22:05:40.839635 16704 net.cpp:156] Memory required for data: 67249720
I0922 22:05:40.839637 16698 net.cpp:425] cont_1_lstm2_cont_slice_0_split <- cont_1
I0922 22:05:40.839640 16704 layer_factory.hpp:77] Creating layer pool5
I0922 22:05:40.839645 16698 net.cpp:399] cont_1_lstm2_cont_slice_0_split -> cont_1_lstm2_cont_slice_0_split_0
I0922 22:05:40.839653 16704 net.cpp:91] Creating Layer pool5
I0922 22:05:40.839653 16698 net.cpp:399] cont_1_lstm2_cont_slice_0_split -> cont_1_lstm2_cont_slice_0_split_1
I0922 22:05:40.839663 16704 net.cpp:425] pool5 <- conv5
I0922 22:05:40.839678 16704 net.cpp:399] pool5 -> pool5
I0922 22:05:40.839714 16698 net.cpp:141] Setting up cont_1_lstm2_cont_slice_0_split
I0922 22:05:40.839723 16698 net.cpp:148] Top shape: 1 1 (1)
I0922 22:05:40.839730 16698 net.cpp:148] Top shape: 1 1 (1)
I0922 22:05:40.839733 16698 net.cpp:156] Memory required for data: 14020
I0922 22:05:40.839738 16698 layer_factory.hpp:77] Creating layer lstm2_x_transform
I0922 22:05:40.839751 16698 net.cpp:91] Creating Layer lstm2_x_transform
I0922 22:05:40.839757 16698 net.cpp:425] lstm2_x_transform <- x
I0922 22:05:40.839764 16698 net.cpp:399] lstm2_x_transform -> W_xc_x
I0922 22:05:40.839767 16704 net.cpp:141] Setting up pool5
I0922 22:05:40.839779 16704 net.cpp:148] Top shape: 10 256 6 6 (92160)
I0922 22:05:40.839784 16704 net.cpp:156] Memory required for data: 67618360
I0922 22:05:40.839793 16704 layer_factory.hpp:77] Creating layer fc6
I0922 22:05:40.839807 16704 net.cpp:91] Creating Layer fc6
I0922 22:05:40.839812 16704 net.cpp:425] fc6 <- pool5
I0922 22:05:40.839828 16704 net.cpp:399] fc6 -> fc6
I0922 22:05:40.923416 16694 net.cpp:141] Setting up lstm1_transform_1
I0922 22:05:40.923470 16694 net.cpp:148] Top shape: 1 1 4000 (4000)
I0922 22:05:40.923480 16694 net.cpp:156] Memory required for data: 62016
I0922 22:05:40.923503 16694 layer_factory.hpp:77] Creating layer lstm1_gate_input_1
I0922 22:05:40.923532 16694 net.cpp:91] Creating Layer lstm1_gate_input_1
I0922 22:05:40.923545 16694 net.cpp:425] lstm1_gate_input_1 <- W_hc_h_0
I0922 22:05:40.923557 16694 net.cpp:425] lstm1_gate_input_1 <- W_xc_x_1
I0922 22:05:40.923571 16694 net.cpp:399] lstm1_gate_input_1 -> gate_input_1
I0922 22:05:40.923580 16698 net.cpp:141] Setting up lstm2_x_transform
I0922 22:05:40.923600 16698 net.cpp:148] Top shape: 1 1 4000 (4000)
I0922 22:05:40.923605 16698 net.cpp:156] Memory required for data: 30020
I0922 22:05:40.923619 16698 layer_factory.hpp:77] Creating layer lstm2_W_xc_x_slice
I0922 22:05:40.923630 16698 net.cpp:91] Creating Layer lstm2_W_xc_x_slice
I0922 22:05:40.923636 16698 net.cpp:425] lstm2_W_xc_x_slice <- W_xc_x
I0922 22:05:40.923653 16694 net.cpp:141] Setting up lstm1_gate_input_1
I0922 22:05:40.923658 16698 net.cpp:399] lstm2_W_xc_x_slice -> W_xc_x_1
I0922 22:05:40.923672 16694 net.cpp:148] Top shape: 1 1 4000 (4000)
I0922 22:05:40.923681 16694 net.cpp:156] Memory required for data: 78016
I0922 22:05:40.923688 16694 layer_factory.hpp:77] Creating layer lstm1_unit_1
I0922 22:05:40.923702 16694 net.cpp:91] Creating Layer lstm1_unit_1
I0922 22:05:40.923707 16698 net.cpp:141] Setting up lstm2_W_xc_x_slice
I0922 22:05:40.923710 16694 net.cpp:425] lstm1_unit_1 <- c_0
I0922 22:05:40.923719 16698 net.cpp:148] Top shape: 1 1 4000 (4000)
I0922 22:05:40.923722 16694 net.cpp:425] lstm1_unit_1 <- gate_input_1
I0922 22:05:40.923724 16698 net.cpp:156] Memory required for data: 46020
I0922 22:05:40.923738 16698 layer_factory.hpp:77] Creating layer lstm2_h_conted_0
I0922 22:05:40.923737 16694 net.cpp:425] lstm1_unit_1 <- cont_1_lstm1_cont_slice_0_split_1
I0922 22:05:40.923754 16698 net.cpp:91] Creating Layer lstm2_h_conted_0
I0922 22:05:40.923760 16698 net.cpp:425] lstm2_h_conted_0 <- h_0
I0922 22:05:40.923768 16698 net.cpp:425] lstm2_h_conted_0 <- cont_1_lstm2_cont_slice_0_split_0
I0922 22:05:40.923765 16694 net.cpp:399] lstm1_unit_1 -> c_1
I0922 22:05:40.923779 16698 net.cpp:399] lstm2_h_conted_0 -> h_conted_0
I0922 22:05:40.923784 16694 net.cpp:399] lstm1_unit_1 -> h_1
I0922 22:05:40.923882 16698 net.cpp:141] Setting up lstm2_h_conted_0
I0922 22:05:40.923893 16698 net.cpp:148] Top shape: 1 1 1000 (1000)
I0922 22:05:40.923897 16698 net.cpp:156] Memory required for data: 50020
I0922 22:05:40.923902 16698 layer_factory.hpp:77] Creating layer lstm2_transform_1
I0922 22:05:40.923918 16698 net.cpp:91] Creating Layer lstm2_transform_1
I0922 22:05:40.923923 16698 net.cpp:425] lstm2_transform_1 <- h_conted_0
I0922 22:05:40.923930 16698 net.cpp:399] lstm2_transform_1 -> W_hc_h_0
I0922 22:05:40.924038 16694 net.cpp:141] Setting up lstm1_unit_1
I0922 22:05:40.924058 16694 net.cpp:148] Top shape: 1 1 1000 (1000)
I0922 22:05:40.924070 16694 net.cpp:148] Top shape: 1 1 1000 (1000)
I0922 22:05:40.924079 16694 net.cpp:156] Memory required for data: 86016
I0922 22:05:40.924089 16694 layer_factory.hpp:77] Creating layer lstm1_
I0922 22:05:40.924116 16694 net.cpp:91] Creating Layer lstm1_
I0922 22:05:40.924129 16694 net.cpp:425] lstm1_ <- c_1
I0922 22:05:40.924144 16694 net.cpp:399] lstm1_ -> c_T
I0922 22:05:40.931674 16694 net.cpp:141] Setting up lstm1_
I0922 22:05:40.931736 16694 net.cpp:148] Top shape: 1 1 1000 (1000)
I0922 22:05:40.931747 16694 net.cpp:156] Memory required for data: 90016
I0922 22:05:40.931761 16694 layer_factory.hpp:77] Creating layer lstm1_h_concat
I0922 22:05:40.931787 16694 net.cpp:91] Creating Layer lstm1_h_concat
I0922 22:05:40.931799 16694 net.cpp:425] lstm1_h_concat <- h_1
I0922 22:05:40.931833 16694 net.cpp:399] lstm1_h_concat -> h
I0922 22:05:40.931915 16694 net.cpp:141] Setting up lstm1_h_concat
I0922 22:05:40.931932 16694 net.cpp:148] Top shape: 1 1 1000 (1000)
I0922 22:05:40.931939 16694 net.cpp:156] Memory required for data: 94016
I0922 22:05:40.931949 16694 layer_factory.hpp:77] Creating layer h_pseudoloss
I0922 22:05:40.931965 16694 net.cpp:91] Creating Layer h_pseudoloss
I0922 22:05:40.931974 16694 net.cpp:425] h_pseudoloss <- h
I0922 22:05:40.931987 16694 net.cpp:399] h_pseudoloss -> h_pseudoloss
I0922 22:05:40.932127 16694 net.cpp:141] Setting up h_pseudoloss
…
I0922 22:05:40.932317 16694 net.cpp:219] lstm1_ does not need backward computation.
I0922 22:05:40.932324 16694 net.cpp:261] This network produces output c_T
I0922 22:05:40.932337 16694 net.cpp:261] This network produces output h_pseudoloss
I0922 22:05:40.932363 16694 net.cpp:274] Network initialization done.
I0922 22:05:40.932440 16694 recurrent_layer.cpp:150] Adding parameter 0: W_xc
I0922 22:05:40.932456 16694 recurrent_layer.cpp:150] Adding parameter 1: b_c
I0922 22:05:40.932464 16694 recurrent_layer.cpp:150] Adding parameter 2: W_hc
I0922 22:05:40.932647 16694 net.cpp:141] Setting up lstm1
I0922 22:05:40.932667 16694 net.cpp:148] Top shape: 1 1 1000 (1000)
I0922 22:05:40.932678 16694 net.cpp:156] Memory required for data: 26408
I0922 22:05:40.932708 16694 layer_factory.hpp:77] Creating layer concat
I0922 22:05:40.932732 16694 net.cpp:91] Creating Layer concat
I0922 22:05:40.932745 16694 net.cpp:425] concat <- lstm1
I0922 22:05:40.932760 16694 net.cpp:425] concat <- embedded_input_sentence
I0922 22:05:40.932771 16694 net.cpp:425] concat <- reshaped_stage_indicator
I0922 22:05:40.932785 16694 net.cpp:399] concat -> lstm1_video_sequence
I0922 22:05:40.932848 16694 net.cpp:141] Setting up concat
I0922 22:05:40.932867 16694 net.cpp:148] Top shape: 1 1 1501 (1501)
I0922 22:05:40.932876 16694 net.cpp:156] Memory required for data: 32412
I0922 22:05:40.932886 16694 layer_factory.hpp:77] Creating layer lstm2
I0922 22:05:40.932909 16694 net.cpp:91] Creating Layer lstm2
I0922 22:05:40.932921 16694 net.cpp:425] lstm2 <- lstm1_video_sequence
I0922 22:05:40.932934 16694 net.cpp:425] lstm2 <- cont_sentence_input_1_split_1
I0922 22:05:40.932948 16694 net.cpp:399] lstm2 -> lstm2
I0922 22:05:40.932968 16694 recurrent_layer.cpp:20] Initializing recurrent layer: assuming input batch contains 1 timesteps of 1 independent streams.
I0922 22:05:40.933360 16694 net.cpp:49] Initializing net from parameters: 
layer {
  name: "lstm2_"
  type: "Input"
  top: "x"
  top: "cont"
  input_param {
    shape {
      dim: 1
      dim: 1
      dim: 1501
    }
    shape {
      dim: 1
      dim: 1
    }
  }
}
layer {
  name: "lstm2_"
  type: "Input"
  top: "c_0"
  top: "h_0"
  input_param {
    shape {
      dim: 1
      dim: 1
      dim: 1000
    }
    shape {
      dim: 1
      dim: 1
      dim: 1000
    }
  }
}
layer {
  name: "lstm2_cont_slice"
  type: "Slice"
  bottom: "cont"
  top: "cont_1"
  slice_param {
    axis: 0
  }
}
layer {
  name: "lstm2_x_transform"
  type: "InnerProduct"
  bottom: "x"
  top: "W_xc_x"
  param {
    name: "W_xc"
  }
  param {
    name: "b_c"
  }
  propagate_down: true
  inner_product_param {
    num_output: 4000
    bias_term: true
    weight_filler {
      type: "uniform"
      min: -0.08
      max: 0.08
    }
    bias_filler {
      type: "constant"
      value: 0
    }
    axis: 2
  }
}
layer {
  name: "lstm2_W_xc_x_slice"
  type: "Slice"
  bottom: "W_xc_x"
  top: "W_xc_x_1"
  slice_param {
    axis: 0
  }
}
layer {
  name: "lstm2_h_conted_0"
  type: "Scale"
  bottom: "h_0"
  bottom: "cont_1"
  top: "h_conted_0"
  scale_param {
    axis: 0
  }
}
layer {
  name: "lstm2_transform_1"
  type: "InnerProduct"
  bottom: "h_conted_0"
  top: "W_hc_h_0"
  param {
    name: "W_hc"
  }
  inner_product_param {
    num_output: 4000
    bias_term: false
    weight_filler {
      type: "uniform"
      min: -0.08
      max: 0.08
    }
    axis: 2
  }
}
layer {
  name: "lstm2_gate_input_1"
  type: "Eltwise"
  bottom: "W_hc_h_0"
  bottom: "W_xc_x_1"
  top: "gate_input_1"
  eltwise_param {
    operation: SUM
  }
}
layer {
  name: "lstm2_unit_1"
  type: "LSTMUnit"
  bottom: "c_0"
  bottom: "gate_input_1"
  bottom: "cont_1"
  top: "c_1"
  top: "h_1"
}
layer {
  name: "lstm2_"
  type: "Split"
  bottom: "c_1"
  top: "c_T"
}
layer {
  name: "lstm2_h_concat"
  type: "Concat"
  bottom: "h_1"
  top: "h"
  concat_param {
    axis: 0
  }
}
layer {
  name: "h_pseudoloss"
  type: "Reduction"
  bottom: "h"
  top: "h_pseudoloss"
  loss_weight: 1
}
I0922 22:05:40.933516 16694 layer_factory.hpp:77] Creating layer lstm2_
I0922 22:05:40.933538 16694 net.cpp:91] Creating Layer lstm2_
I0922 22:05:40.933552 16694 net.cpp:399] lstm2_ -> x
I0922 22:05:40.933574 16694 net.cpp:399] lstm2_ -> cont
I0922 22:05:40.933688 16694 net.cpp:141] Setting up lstm2_
I0922 22:05:40.933707 16694 net.cpp:148] Top shape: 1 1 1501 (1501)
I0922 22:05:40.933720 16694 net.cpp:148] Top shape: 1 1 (1)
I0922 22:05:40.933730 16694 net.cpp:156] Memory required for data: 6008
I0922 22:05:40.933739 16694 layer_factory.hpp:77] Creating layer lstm2_
I0922 22:05:40.933758 16694 net.cpp:91] Creating Layer lstm2_
I0922 22:05:40.933776 16694 net.cpp:399] lstm2_ -> c_0
I0922 22:05:40.933796 16694 net.cpp:399] lstm2_ -> h_0
I0922 22:05:40.933930 16694 net.cpp:141] Setting up lstm2_
I0922 22:05:40.933950 16694 net.cpp:148] Top shape: 1 1 1000 (1000)
I0922 22:05:40.933965 16694 net.cpp:148] Top shape: 1 1 1000 (1000)
I0922 22:05:40.933974 16694 net.cpp:156] Memory required for data: 14008
I0922 22:05:40.933984 16694 layer_factory.hpp:77] Creating layer lstm2_cont_slice
I0922 22:05:40.934000 16694 net.cpp:91] Creating Layer lstm2_cont_slice
I0922 22:05:40.934011 16694 net.cpp:425] lstm2_cont_slice <- cont
I0922 22:05:40.934026 16694 net.cpp:399] lstm2_cont_slice -> cont_1
I0922 22:05:40.934094 16694 net.cpp:141] Setting up lstm2_cont_slice
I0922 22:05:40.934113 16694 net.cpp:148] Top shape: 1 1 (1)
I0922 22:05:40.934123 16694 net.cpp:156] Memory required for data: 14012
I0922 22:05:40.934132 16694 layer_factory.hpp:77] Creating layer cont_1_lstm2_cont_slice_0_split
I0922 22:05:40.934150 16694 net.cpp:91] Creating Layer cont_1_lstm2_cont_slice_0_split
I0922 22:05:40.934161 16694 net.cpp:425] cont_1_lstm2_cont_slice_0_split <- cont_1
I0922 22:05:40.934175 16694 net.cpp:399] cont_1_lstm2_cont_slice_0_split -> cont_1_lstm2_cont_slice_0_split_0
I0922 22:05:40.934192 16694 net.cpp:399] cont_1_lstm2_cont_slice_0_split -> cont_1_lstm2_cont_slice_0_split_1
I0922 22:05:40.934286 16694 net.cpp:141] Setting up cont_1_lstm2_cont_slice_0_split
I0922 22:05:40.934304 16694 net.cpp:148] Top shape: 1 1 (1)
I0922 22:05:40.934317 16694 net.cpp:148] Top shape: 1 1 (1)
I0922 22:05:40.934327 16694 net.cpp:156] Memory required for data: 14020
I0922 22:05:40.934336 16694 layer_factory.hpp:77] Creating layer lstm2_x_transform
I0922 22:05:40.934355 16694 net.cpp:91] Creating Layer lstm2_x_transform
I0922 22:05:40.934366 16694 net.cpp:425] lstm2_x_transform <- x
I0922 22:05:40.934389 16694 net.cpp:399] lstm2_x_transform -> W_xc_x
I0922 22:05:40.962335 16698 net.cpp:141] Setting up lstm2_transform_1
I0922 22:05:40.962383 16698 net.cpp:148] Top shape: 1 1 4000 (4000)
I0922 22:05:40.962389 16698 net.cpp:156] Memory required for data: 66020
I0922 22:05:40.962407 16698 layer_factory.hpp:77] Creating layer lstm2_gate_input_1
I0922 22:05:40.962430 16698 net.cpp:91] Creating Layer lstm2_gate_input_1
I0922 22:05:40.962436 16698 net.cpp:425] lstm2_gate_input_1 <- W_hc_h_0
I0922 22:05:40.962445 16698 net.cpp:425] lstm2_gate_input_1 <- W_xc_x_1
I0922 22:05:40.962452 16698 net.cpp:399] lstm2_gate_input_1 -> gate_input_1
I0922 22:05:40.962501 16698 net.cpp:141] Setting up lstm2_gate_input_1
I0922 22:05:40.962509 16698 net.cpp:148] Top shape: 1 1 4000 (4000)
I0922 22:05:40.962514 16698 net.cpp:156] Memory required for data: 82020
I0922 22:05:40.962518 16698 layer_factory.hpp:77] Creating layer lstm2_unit_1
I0922 22:05:40.962527 16698 net.cpp:91] Creating Layer lstm2_unit_1
I0922 22:05:40.962532 16698 net.cpp:425] lstm2_unit_1 <- c_0
I0922 22:05:40.962538 16698 net.cpp:425] lstm2_unit_1 <- gate_input_1
I0922 22:05:40.962543 16698 net.cpp:425] lstm2_unit_1 <- cont_1_lstm2_cont_slice_0_split_1
I0922 22:05:40.962553 16698 net.cpp:399] lstm2_unit_1 -> c_1
I0922 22:05:40.962563 16698 net.cpp:399] lstm2_unit_1 -> h_1
I0922 22:05:40.962625 16698 net.cpp:141] Setting up lstm2_unit_1
I0922 22:05:40.962635 16698 net.cpp:148] Top shape: 1 1 1000 (1000)
I0922 22:05:40.962641 16698 net.cpp:148] Top shape: 1 1 1000 (1000)
I0922 22:05:40.962644 16698 net.cpp:156] Memory required for data: 90020
I0922 22:05:40.962649 16698 layer_factory.hpp:77] Creating layer lstm2_
I0922 22:05:40.962657 16698 net.cpp:91] Creating Layer lstm2_
I0922 22:05:40.962662 16698 net.cpp:425] lstm2_ <- c_1
I0922 22:05:40.962669 16698 net.cpp:399] lstm2_ -> c_T
I0922 22:05:40.962703 16698 net.cpp:141] Setting up lstm2_
I0922 22:05:40.962713 16698 net.cpp:148] Top shape: 1 1 1000 (1000)
I0922 22:05:40.962718 16698 net.cpp:156] Memory required for data: 94020
I0922 22:05:40.962723 16698 layer_factory.hpp:77] Creating layer lstm2_h_concat
I0922 22:05:40.962731 16698 net.cpp:91] Creating Layer lstm2_h_concat
I0922 22:05:40.962736 16698 net.cpp:425] lstm2_h_concat <- h_1
I0922 22:05:40.962743 16698 net.cpp:399] lstm2_h_concat -> h
I0922 22:05:40.962775 16698 net.cpp:141] Setting up lstm2_h_concat
I0922 22:05:40.962784 16698 net.cpp:148] Top shape: 1 1 1000 (1000)
I0922 22:05:40.962787 16698 net.cpp:156] Memory required for data: 98020
I0922 22:05:40.962792 16698 layer_factory.hpp:77] Creating layer h_pseudoloss
I0922 22:05:40.962805 16698 net.cpp:91] Creating Layer h_pseudoloss
I0922 22:05:40.962810 16698 net.cpp:425] h_pseudoloss <- h
I0922 22:05:40.962817 16698 net.cpp:399] h_pseudoloss -> h_pseudoloss
I0922 22:05:40.962905 16698 net.cpp:141] Setting up h_pseudoloss
…
I0922 22:05:40.963007 16698 net.cpp:219] lstm2_ does not need backward computation.
I0922 22:05:40.963011 16698 net.cpp:261] This network produces output c_T
I0922 22:05:40.963016 16698 net.cpp:261] This network produces output h_pseudoloss
I0922 22:05:40.963047 16698 net.cpp:274] Network initialization done.
I0922 22:05:40.963094 16698 recurrent_layer.cpp:150] Adding parameter 0: W_xc
I0922 22:05:40.963101 16698 recurrent_layer.cpp:150] Adding parameter 1: b_c
I0922 22:05:40.963105 16698 recurrent_layer.cpp:150] Adding parameter 2: W_hc
I0922 22:05:40.963207 16698 net.cpp:141] Setting up lstm2
I0922 22:05:40.963220 16698 net.cpp:148] Top shape: 1 1 1000 (1000)
I0922 22:05:40.963224 16698 net.cpp:156] Memory required for data: 36412
I0922 22:05:40.963238 16698 layer_factory.hpp:77] Creating layer predict
I0922 22:05:40.963250 16698 net.cpp:91] Creating Layer predict
I0922 22:05:40.963258 16698 net.cpp:425] predict <- lstm2
I0922 22:05:40.963264 16698 net.cpp:399] predict -> predict
I0922 22:05:41.042731 16704 net.cpp:141] Setting up fc6
I0922 22:05:41.042788 16704 net.cpp:148] Top shape: 10 4096 (40960)
I0922 22:05:41.042794 16704 net.cpp:156] Memory required for data: 67782200
I0922 22:05:41.042814 16704 layer_factory.hpp:77] Creating layer relu6
I0922 22:05:41.042816 16694 net.cpp:141] Setting up lstm2_x_transform
I0922 22:05:41.042834 16704 net.cpp:91] Creating Layer relu6
I0922 22:05:41.042860 16694 net.cpp:148] Top shape: 1 1 4000 (4000)
I0922 22:05:41.042862 16704 net.cpp:425] relu6 <- fc6
I0922 22:05:41.042865 16694 net.cpp:156] Memory required for data: 30020
I0922 22:05:41.042876 16704 net.cpp:386] relu6 -> fc6 (in-place)
I0922 22:05:41.042887 16694 layer_factory.hpp:77] Creating layer lstm2_W_xc_x_slice
I0922 22:05:41.042903 16694 net.cpp:91] Creating Layer lstm2_W_xc_x_slice
I0922 22:05:41.042912 16694 net.cpp:425] lstm2_W_xc_x_slice <- W_xc_x
I0922 22:05:41.042922 16694 net.cpp:399] lstm2_W_xc_x_slice -> W_xc_x_1
I0922 22:05:41.043205 16694 net.cpp:141] Setting up lstm2_W_xc_x_slice
I0922 22:05:41.043218 16694 net.cpp:148] Top shape: 1 1 4000 (4000)
I0922 22:05:41.043223 16694 net.cpp:156] Memory required for data: 46020
I0922 22:05:41.043228 16694 layer_factory.hpp:77] Creating layer lstm2_h_conted_0
I0922 22:05:41.043239 16694 net.cpp:91] Creating Layer lstm2_h_conted_0
I0922 22:05:41.043246 16694 net.cpp:425] lstm2_h_conted_0 <- h_0
I0922 22:05:41.043251 16694 net.cpp:425] lstm2_h_conted_0 <- cont_1_lstm2_cont_slice_0_split_0
I0922 22:05:41.043258 16694 net.cpp:399] lstm2_h_conted_0 -> h_conted_0
I0922 22:05:41.043378 16694 net.cpp:141] Setting up lstm2_h_conted_0
I0922 22:05:41.043388 16694 net.cpp:148] Top shape: 1 1 1000 (1000)
I0922 22:05:41.043392 16694 net.cpp:156] Memory required for data: 50020
I0922 22:05:41.043397 16694 layer_factory.hpp:77] Creating layer lstm2_transform_1
I0922 22:05:41.043413 16694 net.cpp:91] Creating Layer lstm2_transform_1
I0922 22:05:41.043424 16694 net.cpp:425] lstm2_transform_1 <- h_conted_0
I0922 22:05:41.043442 16694 net.cpp:399] lstm2_transform_1 -> W_hc_h_0
I0922 22:05:41.043495 16704 net.cpp:141] Setting up relu6
I0922 22:05:41.043510 16704 net.cpp:148] Top shape: 10 4096 (40960)
I0922 22:05:41.043516 16704 net.cpp:156] Memory required for data: 67946040
I0922 22:05:41.043522 16704 layer_factory.hpp:77] Creating layer drop6
I0922 22:05:41.043547 16704 net.cpp:91] Creating Layer drop6
I0922 22:05:41.043553 16704 net.cpp:425] drop6 <- fc6
I0922 22:05:41.043565 16704 net.cpp:386] drop6 -> fc6 (in-place)
I0922 22:05:41.051111 16704 net.cpp:141] Setting up drop6
I0922 22:05:41.051126 16704 net.cpp:148] Top shape: 10 4096 (40960)
I0922 22:05:41.051131 16704 net.cpp:156] Memory required for data: 68109880
I0922 22:05:41.051137 16704 layer_factory.hpp:77] Creating layer fc7
I0922 22:05:41.051159 16704 net.cpp:91] Creating Layer fc7
I0922 22:05:41.051165 16704 net.cpp:425] fc7 <- fc6
I0922 22:05:41.051174 16704 net.cpp:399] fc7 -> fc7
I0922 22:05:41.089521 16694 net.cpp:141] Setting up lstm2_transform_1
I0922 22:05:41.089582 16694 net.cpp:148] Top shape: 1 1 4000 (4000)
I0922 22:05:41.089592 16694 net.cpp:156] Memory required for data: 66020
I0922 22:05:41.089618 16694 layer_factory.hpp:77] Creating layer lstm2_gate_input_1
I0922 22:05:41.089643 16694 net.cpp:91] Creating Layer lstm2_gate_input_1
I0922 22:05:41.089653 16694 net.cpp:425] lstm2_gate_input_1 <- W_hc_h_0
I0922 22:05:41.089664 16694 net.cpp:425] lstm2_gate_input_1 <- W_xc_x_1
I0922 22:05:41.089684 16694 net.cpp:399] lstm2_gate_input_1 -> gate_input_1
I0922 22:05:41.089751 16694 net.cpp:141] Setting up lstm2_gate_input_1
I0922 22:05:41.089766 16694 net.cpp:148] Top shape: 1 1 4000 (4000)
I0922 22:05:41.089773 16694 net.cpp:156] Memory required for data: 82020
I0922 22:05:41.089781 16694 layer_factory.hpp:77] Creating layer lstm2_unit_1
I0922 22:05:41.089794 16694 net.cpp:91] Creating Layer lstm2_unit_1
I0922 22:05:41.089802 16694 net.cpp:425] lstm2_unit_1 <- c_0
I0922 22:05:41.089812 16694 net.cpp:425] lstm2_unit_1 <- gate_input_1
I0922 22:05:41.089820 16694 net.cpp:425] lstm2_unit_1 <- cont_1_lstm2_cont_slice_0_split_1
I0922 22:05:41.089831 16694 net.cpp:399] lstm2_unit_1 -> c_1
I0922 22:05:41.089849 16694 net.cpp:399] lstm2_unit_1 -> h_1
I0922 22:05:41.089951 16694 net.cpp:141] Setting up lstm2_unit_1
I0922 22:05:41.089967 16694 net.cpp:148] Top shape: 1 1 1000 (1000)
I0922 22:05:41.089977 16694 net.cpp:148] Top shape: 1 1 1000 (1000)
I0922 22:05:41.089985 16694 net.cpp:156] Memory required for data: 90020
I0922 22:05:41.089993 16694 layer_factory.hpp:77] Creating layer lstm2_
I0922 22:05:41.090005 16694 net.cpp:91] Creating Layer lstm2_
I0922 22:05:41.090013 16694 net.cpp:425] lstm2_ <- c_1
I0922 22:05:41.090025 16694 net.cpp:399] lstm2_ -> c_T
I0922 22:05:41.090072 16694 net.cpp:141] Setting up lstm2_
I0922 22:05:41.090088 16694 net.cpp:148] Top shape: 1 1 1000 (1000)
I0922 22:05:41.090096 16694 net.cpp:156] Memory required for data: 94020
I0922 22:05:41.090104 16694 layer_factory.hpp:77] Creating layer lstm2_h_concat
I0922 22:05:41.090122 16694 net.cpp:91] Creating Layer lstm2_h_concat
I0922 22:05:41.090131 16694 net.cpp:425] lstm2_h_concat <- h_1
I0922 22:05:41.090144 16694 net.cpp:399] lstm2_h_concat -> h
I0922 22:05:41.090194 16694 net.cpp:141] Setting up lstm2_h_concat
I0922 22:05:41.090209 16694 net.cpp:148] Top shape: 1 1 1000 (1000)
I0922 22:05:41.090216 16694 net.cpp:156] Memory required for data: 98020
I0922 22:05:41.090224 16694 layer_factory.hpp:77] Creating layer h_pseudoloss
I0922 22:05:41.090243 16694 net.cpp:91] Creating Layer h_pseudoloss
I0922 22:05:41.090252 16694 net.cpp:425] h_pseudoloss <- h
I0922 22:05:41.090262 16694 net.cpp:399] h_pseudoloss -> h_pseudoloss
I0922 22:05:41.090394 16694 net.cpp:141] Setting up h_pseudoloss
…
I0922 22:05:41.090560 16694 net.cpp:219] lstm2_ does not need backward computation.
I0922 22:05:41.090567 16694 net.cpp:261] This network produces output c_T
I0922 22:05:41.090575 16694 net.cpp:261] This network produces output h_pseudoloss
I0922 22:05:41.090605 16694 net.cpp:274] Network initialization done.
I0922 22:05:41.090672 16694 recurrent_layer.cpp:150] Adding parameter 0: W_xc
I0922 22:05:41.090682 16694 recurrent_layer.cpp:150] Adding parameter 1: b_c
I0922 22:05:41.090689 16694 recurrent_layer.cpp:150] Adding parameter 2: W_hc
I0922 22:05:41.090842 16694 net.cpp:141] Setting up lstm2
I0922 22:05:41.090858 16694 net.cpp:148] Top shape: 1 1 1000 (1000)
I0922 22:05:41.090865 16694 net.cpp:156] Memory required for data: 36412
I0922 22:05:41.090888 16694 layer_factory.hpp:77] Creating layer predict
I0922 22:05:41.090906 16694 net.cpp:91] Creating Layer predict
I0922 22:05:41.090915 16694 net.cpp:425] predict <- lstm2
I0922 22:05:41.090929 16694 net.cpp:399] predict -> predict
I0922 22:05:41.169791 16704 net.cpp:141] Setting up fc7
I0922 22:05:41.169837 16704 net.cpp:148] Top shape: 10 4096 (40960)
I0922 22:05:41.169843 16704 net.cpp:156] Memory required for data: 68273720
I0922 22:05:41.169860 16704 layer_factory.hpp:77] Creating layer relu7
I0922 22:05:41.169881 16704 net.cpp:91] Creating Layer relu7
I0922 22:05:41.169889 16704 net.cpp:425] relu7 <- fc7
I0922 22:05:41.169901 16704 net.cpp:386] relu7 -> fc7 (in-place)
I0922 22:05:41.170487 16704 net.cpp:141] Setting up relu7
I0922 22:05:41.170500 16704 net.cpp:148] Top shape: 10 4096 (40960)
I0922 22:05:41.170506 16704 net.cpp:156] Memory required for data: 68437560
I0922 22:05:41.170511 16704 layer_factory.hpp:77] Creating layer drop7
I0922 22:05:41.170521 16704 net.cpp:91] Creating Layer drop7
I0922 22:05:41.170526 16704 net.cpp:425] drop7 <- fc7
I0922 22:05:41.170539 16704 net.cpp:386] drop7 -> fc7 (in-place)
I0922 22:05:41.170579 16704 net.cpp:141] Setting up drop7
I0922 22:05:41.170590 16704 net.cpp:148] Top shape: 10 4096 (40960)
I0922 22:05:41.170595 16704 net.cpp:156] Memory required for data: 68601400
I0922 22:05:41.170600 16704 layer_factory.hpp:77] Creating layer fc8
I0922 22:05:41.170610 16704 net.cpp:91] Creating Layer fc8
I0922 22:05:41.170615 16704 net.cpp:425] fc8 <- fc7
I0922 22:05:41.170621 16704 net.cpp:399] fc8 -> fc8
I0922 22:05:41.183418 16704 net.cpp:141] Setting up fc8
I0922 22:05:41.183470 16704 net.cpp:148] Top shape: 10 1000 (10000)
I0922 22:05:41.183475 16704 net.cpp:156] Memory required for data: 68641400
I0922 22:05:41.183490 16704 layer_factory.hpp:77] Creating layer prob
I0922 22:05:41.183507 16704 net.cpp:91] Creating Layer prob
I0922 22:05:41.183516 16704 net.cpp:425] prob <- fc8
I0922 22:05:41.183526 16704 net.cpp:399] prob -> prob
I0922 22:05:41.183998 16704 net.cpp:141] Setting up prob
I0922 22:05:41.184011 16704 net.cpp:148] Top shape: 10 1000 (10000)
I0922 22:05:41.184015 16704 net.cpp:156] Memory required for data: 68681400
I0922 22:05:41.184021 16704 net.cpp:219] prob does not need backward computation.
I0922 22:05:41.184027 16704 net.cpp:219] fc8 does not need backward computation.
I0922 22:05:41.184031 16704 net.cpp:219] drop7 does not need backward computation.
I0922 22:05:41.184036 16704 net.cpp:219] relu7 does not need backward computation.
…
