…
Java HotSpot(TM) 64-Bit Server VM warning: You have loaded library /tmp/cvld1238258345377189636/libopencv_java310.xine1.so which might have disabled stack guard. The VM will try to fix the stack guard now.
It's highly recommended that you fix the library with 'execstack -c <libfile>', or link it with '-z noexecstack'.
WARNING: Logging before InitGoogleLogging() is written to STDERR
I0715 00:41:56.262986 28842 net.cpp:49] Initializing net from parameters: 
name: "GoogleNet"
state {
  phase: TEST
}
layer {
  name: "data"
  type: "Input"
  top: "data"
  input_param {
    shape {
      dim: 10
      dim: 3
      dim: 224
      dim: 224
    }
  }
}
layer {
  name: "conv1/7x7_s2"
  type: "Convolution"
  bottom: "data"
  top: "conv1/7x7_s2"
  param {
    lr_mult: 1
    decay_mult: 1
  }
  param {
    lr_mult: 2
    decay_mult: 0
  }
  convolution_param {
    num_output: 64
    pad: 3
    kernel_size: 7
    stride: 2
    weight_filler {
      type: "xavier"
      std: 0.1
    }
    bias_filler {
      type: "constant"
      value: 0.2
    }
  }
}
layer {
  name: "conv1/relu_7x7"
  type: "ReLU"
  bottom: "conv1/7x7_s2"
  top: "conv1/7x7_s2"
}
layer {
  name: "pool1/3x3_s2"
  type: "Pooling"
  bottom: "conv1/7x7_s2"
  top: "pool1/3x3_s2"
  pooling_param {
    pool: MAX
    kernel_size: 3
    stride: 2
  }
}
layer {
  name: "pool1/norm1"
  type: "LRN"
  bottom: "pool1/3x3_s2"
  top: "pool1/norm1"
  lrn_param {
    local_size: 5
    alpha: 0.0001
    beta: 0.75
  }
}
layer {
  name: "conv2/3x3_reduce"
  type: "Convolution"
  bottom: "pool1/norm1"
  top: "conv2/3x3_reduce"
  param {
    lr_mult: 1
    decay_mult: 1
  }
  param {
    lr_mult: 2
    decay_mult: 0
  }
  convolution_param {
    num_output: 64
    kernel_size: 1
    weight_filler {
      type: "xavier"
      std: 0.1
    }
    bias_filler {
      type: "constant"
      value: 0.2
    }
  }
}
layer {
  name: "conv2/relu_3x3_reduce"
  type: "ReLU"
  bottom: "conv2/3x3_reduce"
  top: "conv2/3x3_reduce"
}
layer {
  name: "conv2/3x3"
  type: "Convolution"
  bottom: "conv2/3x3_reduce"
  top: "conv2/3x3"
  param {
    lr_mult: 1
    decay_mult: 1
  }
  param {
    lr_mult: 2
    decay_mult: 0
  }
  convolution_param {
    num_output: 192
    pad: 1
    kernel_size: 3
    weight_filler {
      type: "xavier"
      std: 0.03
    }
    bias_filler {
      type: "constant"
      value: 0.2
    }
  }
}
layer {
  name: "conv2/relu_3x3"
  type: "ReLU"
  bottom: "conv2/3x3"
  top: "conv2/3x3"
}
layer {
  name: "conv2/norm2"
  type: "LRN"
  bottom: "conv2/3x3"
  top: "conv2/norm2"
  lrn_param {
    local_size: 5
    alpha: 0.0001
    beta: 0.75
  }
}
layer {
  name: "pool2/3x3_s2"
  type: "Pooling"
  bottom: "conv2/norm2"
  top: "pool2/3x3_s2"
  pooling_param {
    pool: MAX
    kernel_size: 3
    stride: 2
  }
}
layer {
  name: "inception_3a/1x1"
  type: "Convolution"
  bottom: "pool2/3x3_s2"
  top: "inception_3a/1x1"
  param {
    lr_mult: 1
    decay_mult: 1
  }
  param {
    lr_mult: 2
    decay_mult: 0
  }
  convolution_param {
    num_output: 64
    kernel_size: 1
    weight_filler {
      type: "xavier"
      std: 0.03
    }
    bias_filler {
      type: "constant"
      value: 0.2
    }
  }
}
layer {
  name: "inception_3a/relu_1x1"
  type: "ReLU"
  bottom: "inception_3a/1x1"
  top: "inception_3a/1x1"
}
layer {
  name: "inception_3a/3x3_reduce"
  type: "Convolution"
  bottom: "pool2/3x3_s2"
  top: "inception_3a/3x3_reduce"
  param {
    lr_mult: 1
    decay_mult: 1
  }
  param {
    lr_mult: 2
    decay_mult: 0
  }
  convolution_param {
    num_output: 96
    kernel_size: 1
    weight_filler {
      type: "xavier"
      std: 0.09
    }
    bias_filler {
      type: "constant"
      value: 0.2
    }
  }
}
layer {
  name: "inception_3a/relu_3x3_reduce"
  type: "ReLU"
  bottom: "inception_3a/3x3_reduce"
  top: "inception_3a/3x3_reduce"
}
layer {
  name: "inception_3a/3x3"
  type: "Convolution"
  bottom: "inception_3a/3x3_reduce"
  top: "inception_3a/3x3"
  param {
    lr_mult: 1
    decay_mult: 1
  }
  param {
    lr_mult: 2
    decay_mult: 0
  }
  convolution_param {
    num_output: 128
    pad: 1
    kernel_size: 3
    weight_filler {
      type: "xavier"
      std: 0.03
    }
    bias_filler {
      type: "constant"
      value: 0.2
    }
  }
}
layer {
  name: "inception_3a/relu_3x3"
  type: "ReLU"
  bottom: "inception_3a/3x3"
  top: "inception_3a/3x3"
}
layer {
  name: "inception_3a/5x5_reduce"
  type: "Convolution"
  bottom: "pool2/3x3_s2"
  top: "inception_3a/5x5_reduce"
  param {
    lr_mult: 1
    decay_mult: 1
  }
  param {
    lr_mult: 2
    decay_mult: 0
  }
  convolution_param {
    num_output: 16
    kernel_size: 1
    weight_filler {
      type: "xavier"
      std: 0.2
    }
    bias_filler {
      type: "constant"
      value: 0.2
    }
  }
}
layer {
  name: "inception_3a/relu_5x5_reduce"
  type: "ReLU"
  bottom: "inception_3a/5x5_reduce"
  top: "inception_3a/5x5_reduce"
}
layer {
  name: "inception_3a/5x5"
  type: "Convolution"
  bottom: "inception_3a/5x5_reduce"
  top: "inception_3a/5x5"
  param {
    lr_mult: 1
    decay_mult: 1
  }
  param {
    lr_mult: 2
    decay_mult: 0
  }
  convolution_param {
    num_output: 32
    pad: 2
    kernel_size: 5
    weight_filler {
      type: "xavier"
      std: 0.03
    }
    bias_filler {
      type: "constant"
      value: 0.2
    }
  }
}
layer {
  name: "inception_3a/relu_5x5"
  type: "ReLU"
  bottom: "inception_3a/5x5"
  top: "inception_3a/5x5"
}
layer {
  name: "inception_3a/pool"
  type: "Pooling"
  bottom: "pool2/3x3_s2"
  top: "inception_3a/pool"
  pooling_param {
    pool: MAX
    kernel_size: 3
    stride: 1
    pad: 1
  }
}
layer {
  name: "inception_3a/pool_proj"
  type: "Convolution"
  bottom: "inception_3a/pool"
  top: "inception_3a/pool_proj"
  param {
    lr_mult: 1
    decay_mult: 1
  }
  param {
    lr_mult: 2
    decay_mult: 0
  }
  convolution_param {
    num_output: 32
    kernel_size: 1
    weight_filler {
      type: "xavier"
      std: 0.1
    }
    bias_filler {
      type: "constant"
      value: 0.2
    }
  }
}
layer {
  name: "inception_3a/relu_pool_proj"
  type: "ReLU"
  bottom: "inception_3a/pool_proj"
  top: "inception_3a/pool_proj"
}
layer {
  name: "inception_3a/output"
  type: "Concat"
  bottom: "inception_3a/1x1"
  bottom: "inception_3a/3x3"
  bottom: "inception_3a/5x5"
  bottom: "inception_3a/pool_proj"
  top: "inception_3a/output"
}
layer {
  name: "inception_3b/1x1"
  type: "Convolution"
  bottom: "inception_3a/output"
  top: "inception_3b/1x1"
  param {
    lr_mult: 1
    decay_mult: 1
  }
  param {
    lr_mult: 2
    decay_mult: 0
  }
  convolution_param {
    num_output: 128
    kernel_size: 1
    weight_filler {
      type: "xavier"
      std: 0.03
    }
    bias_filler {
      type: "constant"
      value: 0.2
    }
  }
}
layer {
  name: "inception_3b/relu_1x1"
  type: "ReLU"
  bottom: "inception_3b/1x1"
  top: "inception_3b/1x1"
}
layer {
  name: "inception_3b/3x3_reduce"
  type: "Convolution"
  bottom: "inception_3a/output"
  top: "inception_3b/3x3_reduce"
  param {
    lr_mult: 1
    decay_mult: 1
  }
  param {
    lr_mult: 2
    decay_mult: 0
  }
  convolution_param {
    num_output: 128
    kernel_size: 1
    weight_filler {
      type: "xavier"
      std: 0.09
    }
    bias_filler {
      type: "constant"
      value: 0.2
    }
  }
}
layer {
  name: "inception_3b/relu_3x3_reduce"
  type: "ReLU"
  bottom: "inception_3b/3x3_reduce"
  top: "inception_3b/3x3_reduce"
}
layer {
  name: "inception_3b/3x3"
  type: "Convolution"
  bottom: "inception_3b/3x3_reduce"
  top: "inception_3b/3x3"
  param {
    lr_mult: 1
    decay_mult: 1
  }
  param {
    lr_mult: 2
    decay_mult: 0
  }
  convolution_param {
    num_output: 192
    pad: 1
    kernel_size: 3
    weight_filler {
      type: "xavier"
      std: 0.03
    }
    bias_filler {
      type: "constant"
      value: 0.2
    }
  }
}
layer {
  name: "inception_3b/relu_3x3"
  type: "ReLU"
  bottom: "inception_3b/3x3"
  top: "inception_3b/3x3"
}
layer {
  name: "inception_3b/5x5_reduce"
  type: "Convolution"
  bottom: "inception_3a/output"
  top: "inception_3b/5x5_reduce"
  param {
    lr_mult: 1
    decay_mult: 1
  }
  param {
    lr_mult: 2
    decay_mult: 0
  }
  convolution_param {
    num_output: 32
    kernel_size: 1
    weight_filler {
      type: "xavier"
      std: 0.2
    }
    bias_filler {
      type: "constant"
      value: 0.2
    }
  }
}
layer {
  name: "inception_3b/relu_5x5_reduce"
  type: "ReLU"
  bottom: "inception_3b/5x5_reduce"
  top: "inception_3b/5x5_reduce"
}
layer {
  name: "inception_3b/5x5"
  type: "Convolution"
  bottom: "inception_3b/5x5_reduce"
  top: "inception_3b/5x5"
  param {
    lr_mult: 1
    decay_mult: 1
  }
  param {
    lr_mult: 2
    decay_mult: 0
  }
  convolution_param {
    num_output: 96
    pad: 2
    kernel_size: 5
    weight_filler {
      type: "xavier"
      std: 0.03
    }
    bias_filler {
      type: "constant"
      value: 0.2
    }
  }
}
layer {
  name: "inception_3b/relu_5x5"
  type: "ReLU"
  bottom: "inception_3b/5x5"
  top: "inception_3b/5x5"
}
layer {
  name: "inception_3b/pool"
  type: "Pooling"
  bottom: "inception_3a/output"
  top: "inception_3b/pool"
  pooling_param {
    pool: MAX
    kernel_size: 3
    stride: 1
    pad: 1
  }
}
layer {
  name: "inception_3b/pool_proj"
  type: "Convolution"
  bottom: "inception_3b/pool"
  top: "inception_3b/pool_proj"
  param {
    lr_mult: 1
    decay_mult: 1
  }
  param {
    lr_mult: 2
    decay_mult: 0
  }
  convolution_param {
    num_output: 64
    kernel_size: 1
    weight_filler {
      type: "xavier"
      std: 0.1
    }
    bias_filler {
      type: "constant"
      value: 0.2
    }
  }
}
layer {
  name: "inception_3b/relu_pool_proj"
  type: "ReLU"
  bottom: "inception_3b/pool_proj"
  top: "inception_3b/pool_proj"
}
layer {
  name: "inception_3b/output"
  type: "Concat"
  bottom: "inception_3b/1x1"
  bottom: "inception_3b/3x3"
  bottom: "inception_3b/5x5"
  bottom: "inception_3b/pool_proj"
  top: "inception_3b/output"
}
layer {
  name: "pool3/3x3_s2"
  type: "Pooling"
  bottom: "inception_3b/output"
  top: "pool3/3x3_s2"
  pooling_param {
    pool: MAX
    kernel_size: 3
    stride: 2
  }
}
layer {
  name: "inception_4a/1x1"
  type: "Convolution"
  bottom: "pool3/3x3_s2"
  top: "inception_4a/1x1"
  param {
    lr_mult: 1
    decay_mult: 1
  }
  param {
    lr_mult: 2
    decay_mult: 0
  }
  convolution_param {
    num_output: 192
    kernel_size: 1
    weight_filler {
      type: "xavier"
      std: 0.03
    }
    bias_filler {
      type: "constant"
      value: 0.2
    }
  }
}
layer {
  name: "inception_4a/relu_1x1"
  type: "ReLU"
  bottom: "inception_4a/1x1"
  top: "inception_4a/1x1"
}
layer {
  name: "inception_4a/3x3_reduce"
  type: "Convolution"
  bottom: "pool3/3x3_s2"
  top: "inception_4a/3x3_reduce"
  param {
    lr_mult: 1
    decay_mult: 1
  }
  param {
    lr_mult: 2
    decay_mult: 0
  }
  convolution_param {
    num_output: 96
    kernel_size: 1
    weight_filler {
      type: "xavier"
      std: 0.09
    }
    bias_filler {
      type: "constant"
      value: 0.2
    }
  }
}
layer {
  name: "inception_4a/relu_3x3_reduce"
  type: "ReLU"
  bottom: "inception_4a/3x3_reduce"
  top: "inception_4a/3x3_reduce"
}
layer {
  name: "inception_4a/3x3"
  type: "Convolution"
  bottom: "inception_4a/3x3_reduce"
  top: "inception_4a/3x3"
  param {
    lr_mult: 1
    decay_mult: 1
  }
  param {
    lr_mult: 2
    decay_mult: 0
  }
  convolution_param {
    num_output: 208
    pad: 1
    kernel_size: 3
    weight_filler {
      type: "xavier"
      std: 0.03
    }
    bias_filler {
      type: "constant"
      value: 0.2
    }
  }
}
layer {
  name: "inception_4a/relu_3x3"
  type: "ReLU"
  bottom: "inception_4a/3x3"
  top: "inception_4a/3x3"
}
layer {
  name: "inception_4a/5x5_reduce"
  type: "Convolution"
  bottom: "pool3/3x3_s2"
  top: "inception_4a/5x5_reduce"
  param {
    lr_mult: 1
    decay_mult: 1
  }
  param {
    lr_mult: 2
    decay_mult: 0
  }
  convolution_param {
    num_output: 16
    kernel_size: 1
    weight_filler {
      type: "xavier"
      std: 0.2
    }
    bias_filler {
      type: "constant"
      value: 0.2
    }
  }
}
layer {
  name: "inception_4a/relu_5x5_reduce"
  type: "ReLU"
  bottom: "inception_4a/5x5_reduce"
  top: "inception_4a/5x5_reduce"
}
layer {
  name: "inception_4a/5x5"
  type: "Convolution"
  bottom: "inception_4a/5x5_reduce"
  top: "inception_4a/5x5"
  param {
    lr_mult: 1
    decay_mult: 1
  }
  param {
    lr_mult: 2
    decay_mult: 0
  }
  convolution_param {
    num_output: 48
    pad: 2
    kernel_size: 5
    weight_filler {
      type: "xavier"
      std: 0.03
    }
    bias_filler {
      type: "constant"
      value: 0.2
    }
  }
}
layer {
  name: "inception_4a/relu_5x5"
  type: "ReLU"
  bottom: "inception_4a/5x5"
  top: "inception_4a/5x5"
}
layer {
  name: "inception_4a/pool"
  type: "Pooling"
  bottom: "pool3/3x3_s2"
  top: "inception_4a/pool"
  pooling_param {
    pool: MAX
    kernel_size: 3
    stride: 1
    pad: 1
  }
}
layer {
  name: "inception_4a/pool_proj"
  type: "Convolution"
  bottom: "inception_4a/pool"
  top: "inception_4a/pool_proj"
  param {
    lr_mult: 1
    decay_mult: 1
  }
  param {
    lr_mult: 2
    decay_mult: 0
  }
  convolution_param {
    num_output: 64
    kernel_size: 1
    weight_filler {
      type: "xavier"
      std: 0.1
    }
    bias_filler {
      type: "constant"
      value: 0.2
    }
  }
}
layer {
  name: "inception_4a/relu_pool_proj"
  type: "ReLU"
  bottom: "inception_4a/pool_proj"
  top: "inception_4a/pool_proj"
}
layer {
  name: "inception_4a/output"
  type: "Concat"
  bottom: "inception_4a/1x1"
  bottom: "inception_4a/3x3"
  bottom: "inception_4a/5x5"
  bottom: "inception_4a/pool_proj"
  top: "inception_4a/output"
}
layer {
  name: "inception_4b/1x1"
  type: "Convolution"
  bottom: "inception_4a/output"
  top: "inception_4b/1x1"
  param {
    lr_mult: 1
    decay_mult: 1
  }
  param {
    lr_mult: 2
    decay_mult: 0
  }
  convolution_param {
    num_output: 160
    kernel_size: 1
    weight_filler {
      type: "xavier"
      std: 0.03
    }
    bias_filler {
      type: "constant"
      value: 0.2
    }
  }
}
layer {
  name: "inception_4b/relu_1x1"
  type: "ReLU"
  bottom: "inception_4b/1x1"
  top: "inception_4b/1x1"
}
layer {
  name: "inception_4b/3x3_reduce"
  type: "Convolution"
  bottom: "inception_4a/output"
  top: "inception_4b/3x3_reduce"
  param {
    lr_mult: 1
    decay_mult: 1
  }
  param {
    lr_mult: 2
    decay_mult: 0
  }
  convolution_param {
    num_output: 112
    kernel_size: 1
    weight_filler {
      type: "xavier"
      std: 0.09
    }
    bias_filler {
      type: "constant"
      value: 0.2
    }
  }
}
layer {
  name: "inception_4b/relu_3x3_reduce"
  type: "ReLU"
  bottom: "inception_4b/3x3_reduce"
  top: "inception_4b/3x3_reduce"
}
layer {
  name: "inception_4b/3x3"
  type: "Convolution"
  bottom: "inception_4b/3x3_reduce"
  top: "inception_4b/3x3"
  param {
    lr_mult: 1
    decay_mult: 1
  }
  param {
    lr_mult: 2
    decay_mult: 0
  }
  convolution_param {
    num_output: 224
    pad: 1
    kernel_size: 3
    weight_filler {
      type: "xavier"
      std: 0.03
    }
    bias_filler {
      type: "constant"
      value: 0.2
    }
  }
}
layer {
  name: "inception_4b/relu_3x3"
  type: "ReLU"
  bottom: "inception_4b/3x3"
  top: "inception_4b/3x3"
}
layer {
  name: "inception_4b/5x5_reduce"
  type: "Convolution"
  bottom: "inception_4a/output"
  top: "inception_4b/5x5_reduce"
  param {
    lr_mult: 1
    decay_mult: 1
  }
  param {
    lr_mult: 2
    decay_mult: 0
  }
  convolution_param {
    num_output: 24
    kernel_size: 1
    weight_filler {
      type: "xavier"
      std: 0.2
    }
    bias_filler {
      type: "constant"
      value: 0.2
    }
  }
}
layer {
  name: "inception_4b/relu_5x5_reduce"
  type: "ReLU"
  bottom: "inception_4b/5x5_reduce"
  top: "inception_4b/5x5_reduce"
}
layer {
  name: "inception_4b/5x5"
  type: "Convolution"
  bottom: "inception_4b/5x5_reduce"
  top: "inception_4b/5x5"
  param {
    lr_mult: 1
    decay_mult: 1
  }
  param {
    lr_mult: 2
    decay_mult: 0
  }
  convolution_param {
    num_output: 64
    pad: 2
    kernel_size: 5
    weight_filler {
      type: "xavier"
      std: 0.03
    }
    bias_filler {
      type: "constant"
      value: 0.2
    }
  }
}
layer {
  name: "inception_4b/relu_5x5"
  type: "ReLU"
  bottom: "inception_4b/5x5"
  top: "inception_4b/5x5"
}
layer {
  name: "inception_4b/pool"
  type: "Pooling"
  bottom: "inception_4a/output"
  top: "inception_4b/pool"
  pooling_param {
    pool: MAX
    kernel_size: 3
    stride: 1
    pad: 1
  }
}
layer {
  name: "inception_4b/pool_proj"
  type: "Convolution"
  bottom: "inception_4b/pool"
  top: "inception_4b/pool_proj"
  param {
    lr_mult: 1
    decay_mult: 1
  }
  param {
    lr_mult: 2
    decay_mult: 0
  }
  convolution_param {
    num_output: 64
    kernel_size: 1
    weight_filler {
      type: "xavier"
      std: 0.1
    }
    bias_filler {
      type: "constant"
      value: 0.2
    }
  }
}
layer {
  name: "inception_4b/relu_pool_proj"
  type: "ReLU"
  bottom: "inception_4b/pool_proj"
  top: "inception_4b/pool_proj"
}
layer {
  name: "inception_4b/output"
  type: "Concat"
  bottom: "inception_4b/1x1"
  bottom: "inception_4b/3x3"
  bottom: "inception_4b/5x5"
  bottom: "inception_4b/pool_proj"
  top: "inception_4b/output"
}
layer {
  name: "inception_4c/1x1"
  type: "Convolution"
  bottom: "inception_4b/output"
  top: "inception_4c/1x1"
  param {
    lr_mult: 1
    decay_mult: 1
  }
  param {
    lr_mult: 2
    decay_mult: 0
  }
  convolution_param {
    num_output: 128
    kernel_size: 1
    weight_filler {
      type: "xavier"
      std: 0.03
    }
    bias_filler {
      type: "constant"
      value: 0.2
    }
  }
}
layer {
  name: "inception_4c/relu_1x1"
  type: "ReLU"
  bottom: "inception_4c/1x1"
  top: "inception_4c/1x1"
}
layer {
  name: "inception_4c/3x3_reduce"
  type: "Convolution"
  bottom: "inception_4b/output"
  top: "inception_4c/3x3_reduce"
  param {
    lr_mult: 1
    decay_mult: 1
  }
  param {
    lr_mult: 2
    decay_mult: 0
  }
  convolution_param {
    num_output: 128
    kernel_size: 1
    weight_filler {
      type: "xavier"
      std: 0.09
    }
    bias_filler {
      type: "constant"
      value: 0.2
    }
  }
}
layer {
  name: "inception_4c/relu_3x3_reduce"
  type: "ReLU"
  bottom: "inception_4c/3x3_reduce"
  top: "inception_4c/3x3_reduce"
}
layer {
  name: "inception_4c/3x3"
  type: "Convolution"
  bottom: "inception_4c/3x3_reduce"
  top: "inception_4c/3x3"
  param {
    lr_mult: 1
    decay_mult: 1
  }
  param {
    lr_mult: 2
    decay_mult: 0
  }
  convolution_param {
    num_output: 256
    pad: 1
    kernel_size: 3
    weight_filler {
      type: "xavier"
      std: 0.03
    }
    bias_filler {
      type: "constant"
      value: 0.2
    }
  }
}
layer {
  name: "inception_4c/relu_3x3"
  type: "ReLU"
  bottom: "inception_4c/3x3"
  top: "inception_4c/3x3"
}
layer {
  name: "inception_4c/5x5_reduce"
  type: "Convolution"
  bottom: "inception_4b/output"
  top: "inception_4c/5x5_reduce"
  param {
    lr_mult: 1
    decay_mult: 1
  }
  param {
    lr_mult: 2
    decay_mult: 0
  }
  convolution_param {
    num_output: 24
    kernel_size: 1
    weight_filler {
      type: "xavier"
      std: 0.2
    }
    bias_filler {
      type: "constant"
      value: 0.2
    }
  }
}
layer {
  name: "inception_4c/relu_5x5_reduce"
  type: "ReLU"
  bottom: "inception_4c/5x5_reduce"
  top: "inception_4c/5x5_reduce"
}
layer {
  name: "inception_4c/5x5"
  type: "Convolution"
  bottom: "inception_4c/5x5_reduce"
  top: "inception_4c/5x5"
  param {
    lr_mult: 1
    decay_mult: 1
  }
  param {
    lr_mult: 2
    decay_mult: 0
  }
  convolution_param {
    num_output: 64
    pad: 2
    kernel_size: 5
    weight_filler {
      type: "xavier"
      std: 0.03
    }
    bias_filler {
      type: "constant"
      value: 0.2
    }
  }
}
layer {
  name: "inception_4c/relu_5x5"
  type: "ReLU"
  bottom: "inception_4c/5x5"
  top: "inception_4c/5x5"
}
layer {
  name: "inception_4c/pool"
  type: "Pooling"
  bottom: "inception_4b/output"
  top: "inception_4c/pool"
  pooling_param {
    pool: MAX
    kernel_size: 3
    stride: 1
    pad: 1
  }
}
layer {
  name: "inception_4c/pool_proj"
  type: "Convolution"
  bottom: "inception_4c/pool"
  top: "inception_4c/pool_proj"
  param {
    lr_mult: 1
    decay_mult: 1
  }
  param {
    lr_mult: 2
    decay_mult: 0
  }
  convolution_param {
    num_output: 64
    kernel_size: 1
    weight_filler {
      type: "xavier"
      std: 0.1
    }
    bias_filler {
      type: "constant"
      value: 0.2
    }
  }
}
layer {
  name: "inception_4c/relu_pool_proj"
  type: "ReLU"
  bottom: "inception_4c/pool_proj"
  top: "inception_4c/pool_proj"
}
layer {
  name: "inception_4c/output"
  type: "Concat"
  bottom: "inception_4c/1x1"
  bottom: "inception_4c/3x3"
  bottom: "inception_4c/5x5"
  bottom: "inception_4c/pool_proj"
  top: "inception_4c/output"
}
layer {
  name: "inception_4d/1x1"
  type: "Convolution"
  bottom: "inception_4c/output"
  top: "inception_4d/1x1"
  param {
    lr_mult: 1
    decay_mult: 1
  }
  param {
    lr_mult: 2
    decay_mult: 0
  }
  convolution_param {
    num_output: 112
    kernel_size: 1
    weight_filler {
      type: "xavier"
      std: 0.03
    }
    bias_filler {
      type: "constant"
      value: 0.2
    }
  }
}
layer {
  name: "inception_4d/relu_1x1"
  type: "ReLU"
  bottom: "inception_4d/1x1"
  top: "inception_4d/1x1"
}
layer {
  name: "inception_4d/3x3_reduce"
  type: "Convolution"
  bottom: "inception_4c/output"
  top: "inception_4d/3x3_reduce"
  param {
    lr_mult: 1
    decay_mult: 1
  }
  param {
    lr_mult: 2
    decay_mult: 0
  }
  convolution_param {
    num_output: 144
    kernel_size: 1
    weight_filler {
      type: "xavier"
      std: 0.09
    }
    bias_filler {
      type: "constant"
      value: 0.2
    }
  }
}
layer {
  name: "inception_4d/relu_3x3_reduce"
  type: "ReLU"
  bottom: "inception_4d/3x3_reduce"
  top: "inception_4d/3x3_reduce"
}
layer {
  name: "inception_4d/3x3"
  type: "Convolution"
  bottom: "inception_4d/3x3_reduce"
  top: "inception_4d/3x3"
  param {
    lr_mult: 1
    decay_mult: 1
  }
  param {
    lr_mult: 2
    decay_mult: 0
  }
  convolution_param {
    num_output: 288
    pad: 1
    kernel_size: 3
    weight_filler {
      type: "xavier"
      std: 0.03
    }
    bias_filler {
      type: "constant"
      value: 0.2
    }
  }
}
layer {
  name: "inception_4d/relu_3x3"
  type: "ReLU"
  bottom: "inception_4d/3x3"
  top: "inception_4d/3x3"
}
layer {
  name: "inception_4d/5x5_reduce"
  type: "Convolution"
  bottom: "inception_4c/output"
  top: "inception_4d/5x5_reduce"
  param {
    lr_mult: 1
    decay_mult: 1
  }
  param {
    lr_mult: 2
    decay_mult: 0
  }
  convolution_param {
    num_output: 32
    kernel_size: 1
    weight_filler {
      type: "xavier"
      std: 0.2
    }
    bias_filler {
      type: "constant"
      value: 0.2
    }
  }
}
layer {
  name: "inception_4d/relu_5x5_reduce"
  type: "ReLU"
  bottom: "inception_4d/5x5_reduce"
  top: "inception_4d/5x5_reduce"
}
layer {
  name: "inception_4d/5x5"
  type: "Convolution"
  bottom: "inception_4d/5x5_reduce"
  top: "inception_4d/5x5"
  param {
    lr_mult: 1
    decay_mult: 1
  }
  param {
    lr_mult: 2
    decay_mult: 0
  }
  convolution_param {
    num_output: 64
    pad: 2
    kernel_size: 5
    weight_filler {
      type: "xavier"
      std: 0.03
    }
    bias_filler {
      type: "constant"
      value: 0.2
    }
  }
}
layer {
  name: "inception_4d/relu_5x5"
  type: "ReLU"
  bottom: "inception_4d/5x5"
  top: "inception_4d/5x5"
}
layer {
  name: "inception_4d/pool"
  type: "Pooling"
  bottom: "inception_4c/output"
  top: "inception_4d/pool"
  pooling_param {
    pool: MAX
    kernel_size: 3
    stride: 1
    pad: 1
  }
}
layer {
  name: "inception_4d/pool_proj"
  type: "Convolution"
  bottom: "inception_4d/pool"
  top: "inception_4d/pool_proj"
  param {
    lr_mult: 1
    decay_mult: 1
  }
  param {
    lr_mult: 2
    decay_mult: 0
  }
  convolution_param {
    num_output: 64
    kernel_size: 1
    weight_filler {
      type: "xavier"
      std: 0.1
    }
    bias_filler {
      type: "constant"
      value: 0.2
    }
  }
}
layer {
  name: "inception_4d/relu_pool_proj"
  type: "ReLU"
  bottom: "inception_4d/pool_proj"
  top: "inception_4d/pool_proj"
}
layer {
  name: "inception_4d/output"
  type: "Concat"
  bottom: "inception_4d/1x1"
  bottom: "inception_4d/3x3"
  bottom: "inception_4d/5x5"
  bottom: "inception_4d/pool_proj"
  top: "inception_4d/output"
}
layer {
  name: "inception_4e/1x1"
  type: "Convolution"
  bottom: "inception_4d/output"
  top: "inception_4e/1x1"
  param {
    lr_mult: 1
    decay_mult: 1
  }
  param {
    lr_mult: 2
    decay_mult: 0
  }
  convolution_param {
    num_output: 256
    kernel_size: 1
    weight_filler {
      type: "xavier"
      std: 0.03
    }
    bias_filler {
      type: "constant"
      value: 0.2
    }
  }
}
layer {
  name: "inception_4e/relu_1x1"
  type: "ReLU"
  bottom: "inception_4e/1x1"
  top: "inception_4e/1x1"
}
layer {
  name: "inception_4e/3x3_reduce"
  type: "Convolution"
  bottom: "inception_4d/output"
  top: "inception_4e/3x3_reduce"
  param {
    lr_mult: 1
    decay_mult: 1
  }
  param {
    lr_mult: 2
    decay_mult: 0
  }
  convolution_param {
    num_output: 160
    kernel_size: 1
    weight_filler {
      type: "xavier"
      std: 0.09
    }
    bias_filler {
      type: "constant"
      value: 0.2
    }
  }
}
layer {
  name: "inception_4e/relu_3x3_reduce"
  type: "ReLU"
  bottom: "inception_4e/3x3_reduce"
  top: "inception_4e/3x3_reduce"
}
layer {
  name: "inception_4e/3x3"
  type: "Convolution"
  bottom: "inception_4e/3x3_reduce"
  top: "inception_4e/3x3"
  param {
    lr_mult: 1
    decay_mult: 1
  }
  param {
    lr_mult: 2
    decay_mult: 0
  }
  convolution_param {
    num_output: 320
    pad: 1
    kernel_size: 3
    weight_filler {
      type: "xavier"
      std: 0.03
    }
    bias_filler {
      type: "constant"
      value: 0.2
    }
  }
}
layer {
  name: "inception_4e/relu_3x3"
  type: "ReLU"
  bottom: "inception_4e/3x3"
  top: "inception_4e/3x3"
}
layer {
  name: "inception_4e/5x5_reduce"
  type: "Convolution"
  bottom: "inception_4d/output"
  top: "inception_4e/5x5_reduce"
  param {
    lr_mult: 1
    decay_mult: 1
  }
  param {
    lr_mult: 2
    decay_mult: 0
  }
  convolution_param {
    num_output: 32
    kernel_size: 1
    weight_filler {
      type: "xavier"
      std: 0.2
    }
    bias_filler {
      type: "constant"
      value: 0.2
    }
  }
}
layer {
  name: "inception_4e/relu_5x5_reduce"
  type: "ReLU"
  bottom: "inception_4e/5x5_reduce"
  top: "inception_4e/5x5_reduce"
}
layer {
  name: "inception_4e/5x5"
  type: "Convolution"
  bottom: "inception_4e/5x5_reduce"
  top: "inception_4e/5x5"
  param {
    lr_mult: 1
    decay_mult: 1
  }
  param {
    lr_mult: 2
    decay_mult: 0
  }
  convolution_param {
    num_output: 128
    pad: 2
    kernel_size: 5
    weight_filler {
      type: "xavier"
      std: 0.03
    }
    bias_filler {
      type: "constant"
      value: 0.2
    }
  }
}
layer {
  name: "inception_4e/relu_5x5"
  type: "ReLU"
  bottom: "inception_4e/5x5"
  top: "inception_4e/5x5"
}
layer {
  name: "inception_4e/pool"
  type: "Pooling"
  bottom: "inception_4d/output"
  top: "inception_4e/pool"
  pooling_param {
    pool: MAX
    kernel_size: 3
    stride: 1
    pad: 1
  }
}
layer {
  name: "inception_4e/pool_proj"
  type: "Convolution"
  bottom: "inception_4e/pool"
  top: "inception_4e/pool_proj"
  param {
    lr_mult: 1
    decay_mult: 1
  }
  param {
    lr_mult: 2
    decay_mult: 0
  }
  convolution_param {
    num_output: 128
    kernel_size: 1
    weight_filler {
      type: "xavier"
      std: 0.1
    }
    bias_filler {
      type: "constant"
      value: 0.2
    }
  }
}
layer {
  name: "inception_4e/relu_pool_proj"
  type: "ReLU"
  bottom: "inception_4e/pool_proj"
  top: "inception_4e/pool_proj"
}
layer {
  name: "inception_4e/output"
  type: "Concat"
  bottom: "inception_4e/1x1"
  bottom: "inception_4e/3x3"
  bottom: "inception_4e/5x5"
  bottom: "inception_4e/pool_proj"
  top: "inception_4e/output"
}
layer {
  name: "pool4/3x3_s2"
  type: "Pooling"
  bottom: "inception_4e/output"
  top: "pool4/3x3_s2"
  pooling_param {
    pool: MAX
    kernel_size: 3
    stride: 2
  }
}
layer {
  name: "inception_5a/1x1"
  type: "Convolution"
  bottom: "pool4/3x3_s2"
  top: "inception_5a/1x1"
  param {
    lr_mult: 1
    decay_mult: 1
  }
  param {
    lr_mult: 2
    decay_mult: 0
  }
  convolution_param {
    num_output: 256
    kernel_size: 1
    weight_filler {
      type: "xavier"
      std: 0.03
    }
    bias_filler {
      type: "constant"
      value: 0.2
    }
  }
}
layer {
  name: "inception_5a/relu_1x1"
  type: "ReLU"
  bottom: "inception_5a/1x1"
  top: "inception_5a/1x1"
}
layer {
  name: "inception_5a/3x3_reduce"
  type: "Convolution"
  bottom: "pool4/3x3_s2"
  top: "inception_5a/3x3_reduce"
  param {
    lr_mult: 1
    decay_mult: 1
  }
  param {
    lr_mult: 2
    decay_mult: 0
  }
  convolution_param {
    num_output: 160
    kernel_size: 1
    weight_filler {
      type: "xavier"
      std: 0.09
    }
    bias_filler {
      type: "constant"
      value: 0.2
    }
  }
}
layer {
  name: "inception_5a/relu_3x3_reduce"
  type: "ReLU"
  bottom: "inception_5a/3x3_reduce"
  top: "inception_5a/3x3_reduce"
}
layer {
  name: "inception_5a/3x3"
  type: "Convolution"
  bottom: "inception_5a/3x3_reduce"
  top: "inception_5a/3x3"
  param {
    lr_mult: 1
    decay_mult: 1
  }
  param {
    lr_mult: 2
    decay_mult: 0
  }
  convolution_param {
    num_output: 320
    pad: 1
    kernel_size: 3
    weight_filler {
      type: "xavier"
      std: 0.03
    }
    bias_filler {
      type: "constant"
      value: 0.2
    }
  }
}
layer {
  name: "inception_5a/relu_3x3"
  type: "ReLU"
  bottom: "inception_5a/3x3"
  top: "inception_5a/3x3"
}
layer {
  name: "inception_5a/5x5_reduce"
  type: "Convolution"
  bottom: "pool4/3x3_s2"
  top: "inception_5a/5x5_reduce"
  param {
    lr_mult: 1
    decay_mult: 1
  }
  param {
    lr_mult: 2
    decay_mult: 0
  }
  convolution_param {
    num_output: 32
    kernel_size: 1
    weight_filler {
      type: "xavier"
      std: 0.2
    }
    bias_filler {
      type: "constant"
      value: 0.2
    }
I0715 00:41:56.263900 28842 layer_factory.hpp:77] Creating layer data
I0715 00:41:56.263931 28842 net.cpp:91] Creating Layer data
I0715 00:41:56.263942 28842 net.cpp:399] data -> data
I0715 00:41:56.265336 28846 net.cpp:49] Initializing net from parameters: 
name: "GoogleNet"
state {
  phase: TEST
}
layer {
  name: "data"
  type: "Input"
  top: "data"
  input_param {
    shape {
      dim: 10
      dim: 3
      dim: 224
      dim: 224
    }
  }
}
layer {
  name: "conv1/7x7_s2"
  type: "Convolution"
  bottom: "data"
  top: "conv1/7x7_s2"
  param {
    lr_mult: 1
    decay_mult: 1
  }
  param {
    lr_mult: 2
    decay_mult: 0
  }
  convolution_param {
    num_output: 64
    pad: 3
    kernel_size: 7
    stride: 2
    weight_filler {
      type: "xavier"
      std: 0.1
    }
    bias_filler {
      type: "constant"
      value: 0.2
    }
  }
}
layer {
  name: "conv1/relu_7x7"
  type: "ReLU"
  bottom: "conv1/7x7_s2"
  top: "conv1/7x7_s2"
}
layer {
  name: "pool1/3x3_s2"
  type: "Pooling"
  bottom: "conv1/7x7_s2"
  top: "pool1/3x3_s2"
  pooling_param {
    pool: MAX
    kernel_size: 3
    stride: 2
  }
}
layer {
  name: "pool1/norm1"
  type: "LRN"
  bottom: "pool1/3x3_s2"
  top: "pool1/norm1"
  lrn_param {
    local_size: 5
    alpha: 0.0001
    beta: 0.75
  }
}
layer {
  name: "conv2/3x3_reduce"
  type: "Convolution"
  bottom: "pool1/norm1"
  top: "conv2/3x3_reduce"
  param {
    lr_mult: 1
    decay_mult: 1
  }
  param {
    lr_mult: 2
    decay_mult: 0
  }
  convolution_param {
    num_output: 64
    kernel_size: 1
    weight_filler {
      type: "xavier"
      std: 0.1
    }
    bias_filler {
      type: "constant"
      value: 0.2
    }
  }
}
layer {
  name: "conv2/relu_3x3_reduce"
  type: "ReLU"
  bottom: "conv2/3x3_reduce"
  top: "conv2/3x3_reduce"
}
layer {
  name: "conv2/3x3"
  type: "Convolution"
  bottom: "conv2/3x3_reduce"
  top: "conv2/3x3"
  param {
    lr_mult: 1
    decay_mult: 1
  }
  param {
    lr_mult: 2
    decay_mult: 0
  }
  convolution_param {
    num_output: 192
    pad: 1
    kernel_size: 3
    weight_filler {
      type: "xavier"
      std: 0.03
    }
    bias_filler {
      type: "constant"
      value: 0.2
    }
  }
}
layer {
  name: "conv2/relu_3x3"
  type: "ReLU"
  bottom: "conv2/3x3"
  top: "conv2/3x3"
}
layer {
  name: "conv2/norm2"
  type: "LRN"
  bottom: "conv2/3x3"
  top: "conv2/norm2"
  lrn_param {
    local_size: 5
    alpha: 0.0001
    beta: 0.75
  }
}
layer {
  name: "pool2/3x3_s2"
  type: "Pooling"
  bottom: "conv2/norm2"
  top: "pool2/3x3_s2"
  pooling_param {
    pool: MAX
    kernel_size: 3
    stride: 2
  }
}
layer {
  name: "inception_3a/1x1"
  type: "Convolution"
  bottom: "pool2/3x3_s2"
  top: "inception_3a/1x1"
  param {
    lr_mult: 1
    decay_mult: 1
  }
  param {
    lr_mult: 2
    decay_mult: 0
  }
  convolution_param {
    num_output: 64
    kernel_size: 1
    weight_filler {
      type: "xavier"
      std: 0.03
    }
    bias_filler {
      type: "constant"
      value: 0.2
    }
  }
}
layer {
  name: "inception_3a/relu_1x1"
  type: "ReLU"
  bottom: "inception_3a/1x1"
  top: "inception_3a/1x1"
}
layer {
  name: "inception_3a/3x3_reduce"
  type: "Convolution"
  bottom: "pool2/3x3_s2"
  top: "inception_3a/3x3_reduce"
  param {
    lr_mult: 1
    decay_mult: 1
  }
  param {
    lr_mult: 2
    decay_mult: 0
  }
  convolution_param {
    num_output: 96
    kernel_size: 1
    weight_filler {
      type: "xavier"
      std: 0.09
    }
    bias_filler {
      type: "constant"
      value: 0.2
    }
  }
}
layer {
  name: "inception_3a/relu_3x3_reduce"
  type: "ReLU"
  bottom: "inception_3a/3x3_reduce"
  top: "inception_3a/3x3_reduce"
}
layer {
  name: "inception_3a/3x3"
  type: "Convolution"
  bottom: "inception_3a/3x3_reduce"
  top: "inception_3a/3x3"
  param {
    lr_mult: 1
    decay_mult: 1
  }
  param {
    lr_mult: 2
    decay_mult: 0
  }
  convolution_param {
    num_output: 128
    pad: 1
    kernel_size: 3
    weight_filler {
      type: "xavier"
      std: 0.03
    }
    bias_filler {
      type: "constant"
      value: 0.2
    }
  }
}
layer {
  name: "inception_3a/relu_3x3"
  type: "ReLU"
  bottom: "inception_3a/3x3"
  top: "inception_3a/3x3"
}
layer {
  name: "inception_3a/5x5_reduce"
  type: "Convolution"
  bottom: "pool2/3x3_s2"
  top: "inception_3a/5x5_reduce"
  param {
    lr_mult: 1
    decay_mult: 1
  }
  param {
    lr_mult: 2
    decay_mult: 0
  }
  convolution_param {
    num_output: 16
    kernel_size: 1
    weight_filler {
      type: "xavier"
      std: 0.2
    }
    bias_filler {
      type: "constant"
      value: 0.2
    }
  }
}
layer {
  name: "inception_3a/relu_5x5_reduce"
  type: "ReLU"
  bottom: "inception_3a/5x5_reduce"
  top: "inception_3a/5x5_reduce"
}
layer {
  name: "inception_3a/5x5"
  type: "Convolution"
  bottom: "inception_3a/5x5_reduce"
  top: "inception_3a/5x5"
  param {
    lr_mult: 1
    decay_mult: 1
  }
  param {
    lr_mult: 2
    decay_mult: 0
  }
  convolution_param {
    num_output: 32
    pad: 2
    kernel_size: 5
    weight_filler {
      type: "xavier"
      std: 0.03
    }
    bias_filler {
      type: "constant"
      value: 0.2
    }
  }
}
layer {
  name: "inception_3a/relu_5x5"
  type: "ReLU"
  bottom: "inception_3a/5x5"
  top: "inception_3a/5x5"
}
layer {
  name: "inception_3a/pool"
  type: "Pooling"
  bottom: "pool2/3x3_s2"
  top: "inception_3a/pool"
  pooling_param {
    pool: MAX
    kernel_size: 3
    stride: 1
    pad: 1
  }
}
layer {
  name: "inception_3a/pool_proj"
  type: "Convolution"
  bottom: "inception_3a/pool"
  top: "inception_3a/pool_proj"
  param {
    lr_mult: 1
    decay_mult: 1
  }
  param {
    lr_mult: 2
    decay_mult: 0
  }
  convolution_param {
    num_output: 32
    kernel_size: 1
    weight_filler {
      type: "xavier"
      std: 0.1
    }
    bias_filler {
      type: "constant"
      value: 0.2
    }
  }
}
layer {
  name: "inception_3a/relu_pool_proj"
  type: "ReLU"
  bottom: "inception_3a/pool_proj"
  top: "inception_3a/pool_proj"
}
layer {
  name: "inception_3a/output"
  type: "Concat"
  bottom: "inception_3a/1x1"
  bottom: "inception_3a/3x3"
  bottom: "inception_3a/5x5"
  bottom: "inception_3a/pool_proj"
  top: "inception_3a/output"
}
layer {
  name: "inception_3b/1x1"
  type: "Convolution"
  bottom: "inception_3a/output"
  top: "inception_3b/1x1"
  param {
    lr_mult: 1
    decay_mult: 1
  }
  param {
    lr_mult: 2
    decay_mult: 0
  }
  convolution_param {
    num_output: 128
    kernel_size: 1
    weight_filler {
      type: "xavier"
      std: 0.03
    }
    bias_filler {
      type: "constant"
      value: 0.2
    }
  }
}
layer {
  name: "inception_3b/relu_1x1"
  type: "ReLU"
  bottom: "inception_3b/1x1"
  top: "inception_3b/1x1"
}
layer {
  name: "inception_3b/3x3_reduce"
  type: "Convolution"
  bottom: "inception_3a/output"
  top: "inception_3b/3x3_reduce"
  param {
    lr_mult: 1
    decay_mult: 1
  }
  param {
    lr_mult: 2
    decay_mult: 0
  }
  convolution_param {
    num_output: 128
    kernel_size: 1
    weight_filler {
      type: "xavier"
      std: 0.09
    }
    bias_filler {
      type: "constant"
      value: 0.2
    }
  }
}
layer {
  name: "inception_3b/relu_3x3_reduce"
  type: "ReLU"
  bottom: "inception_3b/3x3_reduce"
  top: "inception_3b/3x3_reduce"
}
layer {
  name: "inception_3b/3x3"
  type: "Convolution"
  bottom: "inception_3b/3x3_reduce"
  top: "inception_3b/3x3"
  param {
    lr_mult: 1
    decay_mult: 1
  }
  param {
    lr_mult: 2
    decay_mult: 0
  }
  convolution_param {
    num_output: 192
    pad: 1
    kernel_size: 3
    weight_filler {
      type: "xavier"
      std: 0.03
    }
    bias_filler {
      type: "constant"
      value: 0.2
    }
  }
}
layer {
  name: "inception_3b/relu_3x3"
  type: "ReLU"
  bottom: "inception_3b/3x3"
  top: "inception_3b/3x3"
}
layer {
  name: "inception_3b/5x5_reduce"
  type: "Convolution"
  bottom: "inception_3a/output"
  top: "inception_3b/5x5_reduce"
  param {
    lr_mult: 1
    decay_mult: 1
  }
  param {
    lr_mult: 2
    decay_mult: 0
  }
  convolution_param {
    num_output: 32
    kernel_size: 1
    weight_filler {
      type: "xavier"
      std: 0.2
    }
    bias_filler {
      type: "constant"
      value: 0.2
    }
  }
}
layer {
  name: "inception_3b/relu_5x5_reduce"
  type: "ReLU"
  bottom: "inception_3b/5x5_reduce"
  top: "inception_3b/5x5_reduce"
}
layer {
  name: "inception_3b/5x5"
  type: "Convolution"
  bottom: "inception_3b/5x5_reduce"
  top: "inception_3b/5x5"
  param {
    lr_mult: 1
    decay_mult: 1
  }
  param {
    lr_mult: 2
    decay_mult: 0
  }
  convolution_param {
    num_output: 96
    pad: 2
    kernel_size: 5
    weight_filler {
      type: "xavier"
      std: 0.03
    }
    bias_filler {
      type: "constant"
      value: 0.2
    }
  }
}
layer {
  name: "inception_3b/relu_5x5"
  type: "ReLU"
  bottom: "inception_3b/5x5"
  top: "inception_3b/5x5"
}
layer {
  name: "inception_3b/pool"
  type: "Pooling"
  bottom: "inception_3a/output"
  top: "inception_3b/pool"
  pooling_param {
    pool: MAX
    kernel_size: 3
    stride: 1
    pad: 1
  }
}
layer {
  name: "inception_3b/pool_proj"
  type: "Convolution"
  bottom: "inception_3b/pool"
  top: "inception_3b/pool_proj"
  param {
    lr_mult: 1
    decay_mult: 1
  }
  param {
    lr_mult: 2
    decay_mult: 0
  }
  convolution_param {
    num_output: 64
    kernel_size: 1
    weight_filler {
      type: "xavier"
      std: 0.1
    }
    bias_filler {
      type: "constant"
      value: 0.2
    }
  }
}
layer {
  name: "inception_3b/relu_pool_proj"
  type: "ReLU"
  bottom: "inception_3b/pool_proj"
  top: "inception_3b/pool_proj"
}
layer {
  name: "inception_3b/output"
  type: "Concat"
  bottom: "inception_3b/1x1"
  bottom: "inception_3b/3x3"
  bottom: "inception_3b/5x5"
  bottom: "inception_3b/pool_proj"
  top: "inception_3b/output"
}
layer {
  name: "pool3/3x3_s2"
  type: "Pooling"
  bottom: "inception_3b/output"
  top: "pool3/3x3_s2"
  pooling_param {
    pool: MAX
    kernel_size: 3
    stride: 2
  }
}
layer {
  name: "inception_4a/1x1"
  type: "Convolution"
  bottom: "pool3/3x3_s2"
  top: "inception_4a/1x1"
  param {
    lr_mult: 1
    decay_mult: 1
  }
  param {
    lr_mult: 2
    decay_mult: 0
  }
  convolution_param {
    num_output: 192
    kernel_size: 1
    weight_filler {
      type: "xavier"
      std: 0.03
    }
    bias_filler {
      type: "constant"
      value: 0.2
    }
  }
}
layer {
  name: "inception_4a/relu_1x1"
  type: "ReLU"
  bottom: "inception_4a/1x1"
  top: "inception_4a/1x1"
}
layer {
  name: "inception_4a/3x3_reduce"
  type: "Convolution"
  bottom: "pool3/3x3_s2"
  top: "inception_4a/3x3_reduce"
  param {
    lr_mult: 1
    decay_mult: 1
  }
  param {
    lr_mult: 2
    decay_mult: 0
  }
  convolution_param {
    num_output: 96
    kernel_size: 1
    weight_filler {
      type: "xavier"
      std: 0.09
    }
    bias_filler {
      type: "constant"
      value: 0.2
    }
  }
}
layer {
  name: "inception_4a/relu_3x3_reduce"
  type: "ReLU"
  bottom: "inception_4a/3x3_reduce"
  top: "inception_4a/3x3_reduce"
}
layer {
  name: "inception_4a/3x3"
  type: "Convolution"
  bottom: "inception_4a/3x3_reduce"
  top: "inception_4a/3x3"
  param {
    lr_mult: 1
    decay_mult: 1
  }
  param {
    lr_mult: 2
    decay_mult: 0
  }
  convolution_param {
    num_output: 208
    pad: 1
    kernel_size: 3
    weight_filler {
      type: "xavier"
      std: 0.03
    }
    bias_filler {
      type: "constant"
      value: 0.2
    }
  }
}
layer {
  name: "inception_4a/relu_3x3"
  type: "ReLU"
  bottom: "inception_4a/3x3"
  top: "inception_4a/3x3"
}
layer {
  name: "inception_4a/5x5_reduce"
  type: "Convolution"
  bottom: "pool3/3x3_s2"
  top: "inception_4a/5x5_reduce"
  param {
    lr_mult: 1
    decay_mult: 1
  }
  param {
    lr_mult: 2
    decay_mult: 0
  }
  convolution_param {
    num_output: 16
    kernel_size: 1
    weight_filler {
      type: "xavier"
      std: 0.2
    }
    bias_filler {
      type: "constant"
      value: 0.2
    }
  }
}
layer {
  name: "inception_4a/relu_5x5_reduce"
  type: "ReLU"
  bottom: "inception_4a/5x5_reduce"
  top: "inception_4a/5x5_reduce"
}
layer {
  name: "inception_4a/5x5"
  type: "Convolution"
  bottom: "inception_4a/5x5_reduce"
  top: "inception_4a/5x5"
  param {
    lr_mult: 1
    decay_mult: 1
  }
  param {
    lr_mult: 2
    decay_mult: 0
  }
  convolution_param {
    num_output: 48
    pad: 2
    kernel_size: 5
    weight_filler {
      type: "xavier"
      std: 0.03
    }
    bias_filler {
      type: "constant"
      value: 0.2
    }
  }
}
layer {
  name: "inception_4a/relu_5x5"
  type: "ReLU"
  bottom: "inception_4a/5x5"
  top: "inception_4a/5x5"
}
layer {
  name: "inception_4a/pool"
  type: "Pooling"
  bottom: "pool3/3x3_s2"
  top: "inception_4a/pool"
  pooling_param {
    pool: MAX
    kernel_size: 3
    stride: 1
    pad: 1
  }
}
layer {
  name: "inception_4a/pool_proj"
  type: "Convolution"
  bottom: "inception_4a/pool"
  top: "inception_4a/pool_proj"
  param {
    lr_mult: 1
    decay_mult: 1
  }
  param {
    lr_mult: 2
    decay_mult: 0
  }
  convolution_param {
    num_output: 64
    kernel_size: 1
    weight_filler {
      type: "xavier"
      std: 0.1
    }
    bias_filler {
      type: "constant"
      value: 0.2
    }
  }
}
layer {
  name: "inception_4a/relu_pool_proj"
  type: "ReLU"
  bottom: "inception_4a/pool_proj"
  top: "inception_4a/pool_proj"
}
layer {
  name: "inception_4a/output"
  type: "Concat"
  bottom: "inception_4a/1x1"
  bottom: "inception_4a/3x3"
  bottom: "inception_4a/5x5"
  bottom: "inception_4a/pool_proj"
  top: "inception_4a/output"
}
layer {
  name: "inception_4b/1x1"
  type: "Convolution"
  bottom: "inception_4a/output"
  top: "inception_4b/1x1"
  param {
    lr_mult: 1
    decay_mult: 1
  }
  param {
    lr_mult: 2
    decay_mult: 0
  }
  convolution_param {
    num_output: 160
    kernel_size: 1
    weight_filler {
      type: "xavier"
      std: 0.03
    }
    bias_filler {
      type: "constant"
      value: 0.2
    }
  }
}
layer {
  name: "inception_4b/relu_1x1"
  type: "ReLU"
  bottom: "inception_4b/1x1"
  top: "inception_4b/1x1"
}
layer {
  name: "inception_4b/3x3_reduce"
  type: "Convolution"
  bottom: "inception_4a/output"
  top: "inception_4b/3x3_reduce"
  param {
    lr_mult: 1
    decay_mult: 1
  }
  param {
    lr_mult: 2
    decay_mult: 0
  }
  convolution_param {
    num_output: 112
    kernel_size: 1
    weight_filler {
      type: "xavier"
      std: 0.09
    }
    bias_filler {
      type: "constant"
      value: 0.2
    }
  }
}
layer {
  name: "inception_4b/relu_3x3_reduce"
  type: "ReLU"
  bottom: "inception_4b/3x3_reduce"
  top: "inception_4b/3x3_reduce"
}
layer {
  name: "inception_4b/3x3"
  type: "Convolution"
  bottom: "inception_4b/3x3_reduce"
  top: "inception_4b/3x3"
  param {
    lr_mult: 1
    decay_mult: 1
  }
  param {
    lr_mult: 2
    decay_mult: 0
  }
  convolution_param {
    num_output: 224
    pad: 1
    kernel_size: 3
    weight_filler {
      type: "xavier"
      std: 0.03
    }
    bias_filler {
      type: "constant"
      value: 0.2
    }
  }
}
layer {
  name: "inception_4b/relu_3x3"
  type: "ReLU"
  bottom: "inception_4b/3x3"
  top: "inception_4b/3x3"
}
layer {
  name: "inception_4b/5x5_reduce"
  type: "Convolution"
  bottom: "inception_4a/output"
  top: "inception_4b/5x5_reduce"
  param {
    lr_mult: 1
    decay_mult: 1
  }
  param {
    lr_mult: 2
    decay_mult: 0
  }
  convolution_param {
    num_output: 24
    kernel_size: 1
    weight_filler {
      type: "xavier"
      std: 0.2
    }
    bias_filler {
      type: "constant"
      value: 0.2
    }
  }
}
layer {
  name: "inception_4b/relu_5x5_reduce"
  type: "ReLU"
  bottom: "inception_4b/5x5_reduce"
  top: "inception_4b/5x5_reduce"
}
layer {
  name: "inception_4b/5x5"
  type: "Convolution"
  bottom: "inception_4b/5x5_reduce"
  top: "inception_4b/5x5"
  param {
    lr_mult: 1
    decay_mult: 1
  }
  param {
    lr_mult: 2
    decay_mult: 0
  }
  convolution_param {
    num_output: 64
    pad: 2
    kernel_size: 5
    weight_filler {
      type: "xavier"
      std: 0.03
    }
    bias_filler {
      type: "constant"
      value: 0.2
    }
  }
}
layer {
  name: "inception_4b/relu_5x5"
  type: "ReLU"
  bottom: "inception_4b/5x5"
  top: "inception_4b/5x5"
}
layer {
  name: "inception_4b/pool"
  type: "Pooling"
  bottom: "inception_4a/output"
  top: "inception_4b/pool"
  pooling_param {
    pool: MAX
    kernel_size: 3
    stride: 1
    pad: 1
  }
}
layer {
  name: "inception_4b/pool_proj"
  type: "Convolution"
  bottom: "inception_4b/pool"
  top: "inception_4b/pool_proj"
  param {
    lr_mult: 1
    decay_mult: 1
  }
  param {
    lr_mult: 2
    decay_mult: 0
  }
  convolution_param {
    num_output: 64
    kernel_size: 1
    weight_filler {
      type: "xavier"
      std: 0.1
    }
    bias_filler {
      type: "constant"
      value: 0.2
    }
  }
}
layer {
  name: "inception_4b/relu_pool_proj"
  type: "ReLU"
  bottom: "inception_4b/pool_proj"
  top: "inception_4b/pool_proj"
}
layer {
  name: "inception_4b/output"
  type: "Concat"
  bottom: "inception_4b/1x1"
  bottom: "inception_4b/3x3"
  bottom: "inception_4b/5x5"
  bottom: "inception_4b/pool_proj"
  top: "inception_4b/output"
}
layer {
  name: "inception_4c/1x1"
  type: "Convolution"
  bottom: "inception_4b/output"
  top: "inception_4c/1x1"
  param {
    lr_mult: 1
    decay_mult: 1
  }
  param {
    lr_mult: 2
    decay_mult: 0
  }
  convolution_param {
    num_output: 128
    kernel_size: 1
    weight_filler {
      type: "xavier"
      std: 0.03
    }
    bias_filler {
      type: "constant"
      value: 0.2
    }
  }
}
layer {
  name: "inception_4c/relu_1x1"
  type: "ReLU"
  bottom: "inception_4c/1x1"
  top: "inception_4c/1x1"
}
layer {
  name: "inception_4c/3x3_reduce"
  type: "Convolution"
  bottom: "inception_4b/output"
  top: "inception_4c/3x3_reduce"
  param {
    lr_mult: 1
    decay_mult: 1
  }
  param {
    lr_mult: 2
    decay_mult: 0
  }
  convolution_param {
    num_output: 128
    kernel_size: 1
    weight_filler {
      type: "xavier"
      std: 0.09
    }
    bias_filler {
      type: "constant"
      value: 0.2
    }
  }
}
layer {
  name: "inception_4c/relu_3x3_reduce"
  type: "ReLU"
  bottom: "inception_4c/3x3_reduce"
  top: "inception_4c/3x3_reduce"
}
layer {
  name: "inception_4c/3x3"
  type: "Convolution"
  bottom: "inception_4c/3x3_reduce"
  top: "inception_4c/3x3"
  param {
    lr_mult: 1
    decay_mult: 1
  }
  param {
    lr_mult: 2
    decay_mult: 0
  }
  convolution_param {
    num_output: 256
    pad: 1
    kernel_size: 3
    weight_filler {
      type: "xavier"
      std: 0.03
    }
    bias_filler {
      type: "constant"
      value: 0.2
    }
  }
}
layer {
  name: "inception_4c/relu_3x3"
  type: "ReLU"
  bottom: "inception_4c/3x3"
  top: "inception_4c/3x3"
}
layer {
  name: "inception_4c/5x5_reduce"
  type: "Convolution"
  bottom: "inception_4b/output"
  top: "inception_4c/5x5_reduce"
  param {
    lr_mult: 1
    decay_mult: 1
  }
  param {
    lr_mult: 2
    decay_mult: 0
  }
  convolution_param {
    num_output: 24
    kernel_size: 1
    weight_filler {
      type: "xavier"
      std: 0.2
    }
    bias_filler {
      type: "constant"
      value: 0.2
    }
  }
}
layer {
  name: "inception_4c/relu_5x5_reduce"
  type: "ReLU"
  bottom: "inception_4c/5x5_reduce"
  top: "inception_4c/5x5_reduce"
}
layer {
  name: "inception_4c/5x5"
  type: "Convolution"
  bottom: "inception_4c/5x5_reduce"
  top: "inception_4c/5x5"
  param {
    lr_mult: 1
    decay_mult: 1
  }
  param {
    lr_mult: 2
    decay_mult: 0
  }
  convolution_param {
    num_output: 64
    pad: 2
    kernel_size: 5
    weight_filler {
      type: "xavier"
      std: 0.03
    }
    bias_filler {
      type: "constant"
      value: 0.2
    }
  }
}
layer {
  name: "inception_4c/relu_5x5"
  type: "ReLU"
  bottom: "inception_4c/5x5"
  top: "inception_4c/5x5"
}
layer {
  name: "inception_4c/pool"
  type: "Pooling"
  bottom: "inception_4b/output"
  top: "inception_4c/pool"
  pooling_param {
    pool: MAX
    kernel_size: 3
    stride: 1
    pad: 1
  }
}
layer {
  name: "inception_4c/pool_proj"
  type: "Convolution"
  bottom: "inception_4c/pool"
  top: "inception_4c/pool_proj"
  param {
    lr_mult: 1
    decay_mult: 1
  }
  param {
    lr_mult: 2
    decay_mult: 0
  }
  convolution_param {
    num_output: 64
    kernel_size: 1
    weight_filler {
      type: "xavier"
      std: 0.1
    }
    bias_filler {
      type: "constant"
      value: 0.2
    }
  }
}
layer {
  name: "inception_4c/relu_pool_proj"
  type: "ReLU"
  bottom: "inception_4c/pool_proj"
  top: "inception_4c/pool_proj"
}
layer {
  name: "inception_4c/output"
  type: "Concat"
  bottom: "inception_4c/1x1"
  bottom: "inception_4c/3x3"
  bottom: "inception_4c/5x5"
  bottom: "inception_4c/pool_proj"
  top: "inception_4c/output"
}
layer {
  name: "inception_4d/1x1"
  type: "Convolution"
  bottom: "inception_4c/output"
  top: "inception_4d/1x1"
  param {
    lr_mult: 1
    decay_mult: 1
  }
  param {
    lr_mult: 2
    decay_mult: 0
  }
  convolution_param {
    num_output: 112
    kernel_size: 1
    weight_filler {
      type: "xavier"
      std: 0.03
    }
    bias_filler {
      type: "constant"
      value: 0.2
    }
  }
}
layer {
  name: "inception_4d/relu_1x1"
  type: "ReLU"
  bottom: "inception_4d/1x1"
  top: "inception_4d/1x1"
}
layer {
  name: "inception_4d/3x3_reduce"
  type: "Convolution"
  bottom: "inception_4c/output"
  top: "inception_4d/3x3_reduce"
  param {
    lr_mult: 1
    decay_mult: 1
  }
  param {
    lr_mult: 2
    decay_mult: 0
  }
  convolution_param {
    num_output: 144
    kernel_size: 1
    weight_filler {
      type: "xavier"
      std: 0.09
    }
    bias_filler {
      type: "constant"
      value: 0.2
    }
  }
}
layer {
  name: "inception_4d/relu_3x3_reduce"
  type: "ReLU"
  bottom: "inception_4d/3x3_reduce"
  top: "inception_4d/3x3_reduce"
}
layer {
  name: "inception_4d/3x3"
  type: "Convolution"
  bottom: "inception_4d/3x3_reduce"
  top: "inception_4d/3x3"
  param {
    lr_mult: 1
    decay_mult: 1
  }
  param {
    lr_mult: 2
    decay_mult: 0
  }
  convolution_param {
    num_output: 288
    pad: 1
    kernel_size: 3
    weight_filler {
      type: "xavier"
      std: 0.03
    }
    bias_filler {
      type: "constant"
      value: 0.2
    }
  }
}
layer {
  name: "inception_4d/relu_3x3"
  type: "ReLU"
  bottom: "inception_4d/3x3"
  top: "inception_4d/3x3"
}
layer {
  name: "inception_4d/5x5_reduce"
  type: "Convolution"
  bottom: "inception_4c/output"
  top: "inception_4d/5x5_reduce"
  param {
    lr_mult: 1
    decay_mult: 1
  }
  param {
    lr_mult: 2
    decay_mult: 0
  }
  convolution_param {
    num_output: 32
    kernel_size: 1
    weight_filler {
      type: "xavier"
      std: 0.2
    }
    bias_filler {
      type: "constant"
      value: 0.2
    }
  }
}
layer {
  name: "inception_4d/relu_5x5_reduce"
  type: "ReLU"
  bottom: "inception_4d/5x5_reduce"
  top: "inception_4d/5x5_reduce"
}
layer {
  name: "inception_4d/5x5"
  type: "Convolution"
  bottom: "inception_4d/5x5_reduce"
  top: "inception_4d/5x5"
  param {
    lr_mult: 1
    decay_mult: 1
  }
  param {
    lr_mult: 2
    decay_mult: 0
  }
  convolution_param {
    num_output: 64
    pad: 2
    kernel_size: 5
    weight_filler {
      type: "xavier"
      std: 0.03
    }
    bias_filler {
      type: "constant"
      value: 0.2
    }
  }
}
layer {
  name: "inception_4d/relu_5x5"
  type: "ReLU"
  bottom: "inception_4d/5x5"
  top: "inception_4d/5x5"
}
layer {
  name: "inception_4d/pool"
  type: "Pooling"
  bottom: "inception_4c/output"
  top: "inception_4d/pool"
  pooling_param {
    pool: MAX
    kernel_size: 3
    stride: 1
    pad: 1
  }
}
layer {
  name: "inception_4d/pool_proj"
  type: "Convolution"
  bottom: "inception_4d/pool"
  top: "inception_4d/pool_proj"
  param {
    lr_mult: 1
    decay_mult: 1
  }
  param {
    lr_mult: 2
    decay_mult: 0
  }
  convolution_param {
    num_output: 64
    kernel_size: 1
    weight_filler {
      type: "xavier"
      std: 0.1
    }
    bias_filler {
      type: "constant"
      value: 0.2
    }
  }
}
layer {
  name: "inception_4d/relu_pool_proj"
  type: "ReLU"
  bottom: "inception_4d/pool_proj"
  top: "inception_4d/pool_proj"
}
layer {
  name: "inception_4d/output"
  type: "Concat"
  bottom: "inception_4d/1x1"
  bottom: "inception_4d/3x3"
  bottom: "inception_4d/5x5"
  bottom: "inception_4d/pool_proj"
  top: "inception_4d/output"
}
layer {
  name: "inception_4e/1x1"
  type: "Convolution"
  bottom: "inception_4d/output"
  top: "inception_4e/1x1"
  param {
    lr_mult: 1
    decay_mult: 1
  }
  param {
    lr_mult: 2
    decay_mult: 0
  }
  convolution_param {
    num_output: 256
    kernel_size: 1
    weight_filler {
      type: "xavier"
      std: 0.03
    }
    bias_filler {
      type: "constant"
      value: 0.2
    }
  }
}
layer {
  name: "inception_4e/relu_1x1"
  type: "ReLU"
  bottom: "inception_4e/1x1"
  top: "inception_4e/1x1"
}
layer {
  name: "inception_4e/3x3_reduce"
  type: "Convolution"
  bottom: "inception_4d/output"
  top: "inception_4e/3x3_reduce"
  param {
    lr_mult: 1
    decay_mult: 1
  }
  param {
    lr_mult: 2
    decay_mult: 0
  }
  convolution_param {
    num_output: 160
    kernel_size: 1
    weight_filler {
      type: "xavier"
      std: 0.09
    }
    bias_filler {
      type: "constant"
      value: 0.2
    }
  }
}
layer {
  name: "inception_4e/relu_3x3_reduce"
  type: "ReLU"
  bottom: "inception_4e/3x3_reduce"
  top: "inception_4e/3x3_reduce"
}
layer {
  name: "inception_4e/3x3"
  type: "Convolution"
  bottom: "inception_4e/3x3_reduce"
  top: "inception_4e/3x3"
  param {
    lr_mult: 1
    decay_mult: 1
  }
  param {
    lr_mult: 2
    decay_mult: 0
  }
  convolution_param {
    num_output: 320
    pad: 1
    kernel_size: 3
    weight_filler {
      type: "xavier"
      std: 0.03
    }
    bias_filler {
      type: "constant"
      value: 0.2
    }
  }
}
layer {
  name: "inception_4e/relu_3x3"
  type: "ReLU"
  bottom: "inception_4e/3x3"
  top: "inception_4e/3x3"
}
layer {
  name: "inception_4e/5x5_reduce"
  type: "Convolution"
  bottom: "inception_4d/output"
  top: "inception_4e/5x5_reduce"
  param {
    lr_mult: 1
    decay_mult: 1
  }
  param {
    lr_mult: 2
    decay_mult: 0
  }
  convolution_param {
    num_output: 32
    kernel_size: 1
    weight_filler {
      type: "xavier"
      std: 0.2
    }
    bias_filler {
      type: "constant"
      value: 0.2
    }
  }
}
layer {
  name: "inception_4e/relu_5x5_reduce"
  type: "ReLU"
  bottom: "inception_4e/5x5_reduce"
  top: "inception_4e/5x5_reduce"
}
layer {
  name: "inception_4e/5x5"
  type: "Convolution"
  bottom: "inception_4e/5x5_reduce"
  top: "inception_4e/5x5"
  param {
    lr_mult: 1
    decay_mult: 1
  }
  param {
    lr_mult: 2
    decay_mult: 0
  }
  convolution_param {
    num_output: 128
    pad: 2
    kernel_size: 5
    weight_filler {
      type: "xavier"
      std: 0.03
    }
    bias_filler {
      type: "constant"
      value: 0.2
    }
  }
}
layer {
  name: "inception_4e/relu_5x5"
  type: "ReLU"
  bottom: "inception_4e/5x5"
  top: "inception_4e/5x5"
}
layer {
  name: "inception_4e/pool"
  type: "Pooling"
  bottom: "inception_4d/output"
  top: "inception_4e/pool"
  pooling_param {
    pool: MAX
    kernel_size: 3
    stride: 1
    pad: 1
  }
}
layer {
  name: "inception_4e/pool_proj"
  type: "Convolution"
  bottom: "inception_4e/pool"
  top: "inception_4e/pool_proj"
  param {
    lr_mult: 1
    decay_mult: 1
  }
  param {
    lr_mult: 2
    decay_mult: 0
  }
  convolution_param {
    num_output: 128
    kernel_size: 1
    weight_filler {
      type: "xavier"
      std: 0.1
    }
    bias_filler {
      type: "constant"
      value: 0.2
    }
  }
}
layer {
  name: "inception_4e/relu_pool_proj"
  type: "ReLU"
  bottom: "inception_4e/pool_proj"
  top: "inception_4e/pool_proj"
}
layer {
  name: "inception_4e/output"
  type: "Concat"
  bottom: "inception_4e/1x1"
  bottom: "inception_4e/3x3"
  bottom: "inception_4e/5x5"
  bottom: "inception_4e/pool_proj"
  top: "inception_4e/output"
}
layer {
  name: "pool4/3x3_s2"
  type: "Pooling"
  bottom: "inception_4e/output"
  top: "pool4/3x3_s2"
  pooling_param {
    pool: MAX
    kernel_size: 3
    stride: 2
  }
}
layer {
  name: "inception_5a/1x1"
  type: "Convolution"
  bottom: "pool4/3x3_s2"
  top: "inception_5a/1x1"
  param {
    lr_mult: 1
    decay_mult: 1
  }
  param {
    lr_mult: 2
    decay_mult: 0
  }
  convolution_param {
    num_output: 256
    kernel_size: 1
    weight_filler {
      type: "xavier"
      std: 0.03
    }
    bias_filler {
      type: "constant"
      value: 0.2
    }
  }
}
layer {
  name: "inception_5a/relu_1x1"
  type: "ReLU"
  bottom: "inception_5a/1x1"
  top: "inception_5a/1x1"
}
layer {
  name: "inception_5a/3x3_reduce"
  type: "Convolution"
  bottom: "pool4/3x3_s2"
  top: "inception_5a/3x3_reduce"
  param {
    lr_mult: 1
    decay_mult: 1
  }
  param {
    lr_mult: 2
    decay_mult: 0
  }
  convolution_param {
    num_output: 160
    kernel_size: 1
    weight_filler {
      type: "xavier"
      std: 0.09
    }
    bias_filler {
      type: "constant"
      value: 0.2
    }
  }
}
layer {
  name: "inception_5a/relu_3x3_reduce"
  type: "ReLU"
  bottom: "inception_5a/3x3_reduce"
  top: "inception_5a/3x3_reduce"
}
layer {
  name: "inception_5a/3x3"
  type: "Convolution"
  bottom: "inception_5a/3x3_reduce"
  top: "inception_5a/3x3"
  param {
    lr_mult: 1
    decay_mult: 1
  }
  param {
    lr_mult: 2
    decay_mult: 0
  }
  convolution_param {
    num_output: 320
    pad: 1
    kernel_size: 3
    weight_filler {
      type: "xavier"
      std: 0.03
    }
    bias_filler {
      type: "constant"
      value: 0.2
    }
  }
}
layer {
  name: "inception_5a/relu_3x3"
  type: "ReLU"
  bottom: "inception_5a/3x3"
  top: "inception_5a/3x3"
}
layer {
  name: "inception_5a/5x5_reduce"
  type: "Convolution"
  bottom: "pool4/3x3_s2"
  top: "inception_5a/5x5_reduce"
  param {
    lr_mult: 1
    decay_mult: 1
  }
  param {
    lr_mult: 2
    decay_mult: 0
  }
  convolution_param {
    num_output: 32
    kernel_size: 1
    weight_filler {
      type: "xavier"
      std: 0.2
    }
    bias_filler {
      type: "constant"
      value: 0.2
    }
I0715 00:41:56.266291 28846 layer_factory.hpp:77] Creating layer data
I0715 00:41:56.266316 28846 net.cpp:91] Creating Layer data
I0715 00:41:56.266326 28846 net.cpp:399] data -> data
I0715 00:41:56.786720 28842 net.cpp:141] Setting up data
I0715 00:41:56.786813 28842 net.cpp:148] Top shape: 10 3 224 224 (1505280)
I0715 00:41:56.786803 28846 net.cpp:141] Setting up data
I0715 00:41:56.786861 28846 net.cpp:148] Top shape: 10 3 224 224 (1505280)
I0715 00:41:56.786820 28842 net.cpp:156] Memory required for data: 6021120
I0715 00:41:56.786873 28846 net.cpp:156] Memory required for data: 6021120
I0715 00:41:56.786912 28846 layer_factory.hpp:77] Creating layer conv1/7x7_s2
I0715 00:41:56.786916 28842 layer_factory.hpp:77] Creating layer conv1/7x7_s2
I0715 00:41:56.786962 28842 net.cpp:91] Creating Layer conv1/7x7_s2
I0715 00:41:56.786963 28846 net.cpp:91] Creating Layer conv1/7x7_s2
I0715 00:41:56.786973 28842 net.cpp:425] conv1/7x7_s2 <- data
I0715 00:41:56.786974 28846 net.cpp:425] conv1/7x7_s2 <- data
I0715 00:41:56.786989 28842 net.cpp:399] conv1/7x7_s2 -> conv1/7x7_s2
I0715 00:41:56.787000 28846 net.cpp:399] conv1/7x7_s2 -> conv1/7x7_s2
I0715 00:41:57.009734 28842 net.cpp:141] Setting up conv1/7x7_s2
I0715 00:41:57.009734 28846 net.cpp:141] Setting up conv1/7x7_s2
I0715 00:41:57.009785 28842 net.cpp:148] Top shape: 10 64 112 112 (8028160)
I0715 00:41:57.009789 28846 net.cpp:148] Top shape: 10 64 112 112 (8028160)
I0715 00:41:57.009793 28842 net.cpp:156] Memory required for data: 38133760
I0715 00:41:57.009796 28846 net.cpp:156] Memory required for data: 38133760
I0715 00:41:57.009824 28846 layer_factory.hpp:77] Creating layer conv1/relu_7x7
I0715 00:41:57.009824 28842 layer_factory.hpp:77] Creating layer conv1/relu_7x7
I0715 00:41:57.009846 28842 net.cpp:91] Creating Layer conv1/relu_7x7
I0715 00:41:57.009848 28846 net.cpp:91] Creating Layer conv1/relu_7x7
I0715 00:41:57.009855 28842 net.cpp:425] conv1/relu_7x7 <- conv1/7x7_s2
I0715 00:41:57.009855 28846 net.cpp:425] conv1/relu_7x7 <- conv1/7x7_s2
I0715 00:41:57.009863 28842 net.cpp:386] conv1/relu_7x7 -> conv1/7x7_s2 (in-place)
I0715 00:41:57.009866 28846 net.cpp:386] conv1/relu_7x7 -> conv1/7x7_s2 (in-place)
I0715 00:41:57.011035 28846 net.cpp:141] Setting up conv1/relu_7x7
I0715 00:41:57.011049 28842 net.cpp:141] Setting up conv1/relu_7x7
I0715 00:41:57.011055 28846 net.cpp:148] Top shape: 10 64 112 112 (8028160)
I0715 00:41:57.011062 28846 net.cpp:156] Memory required for data: 70246400
I0715 00:41:57.011065 28842 net.cpp:148] Top shape: 10 64 112 112 (8028160)
I0715 00:41:57.011068 28846 layer_factory.hpp:77] Creating layer pool1/3x3_s2
I0715 00:41:57.011071 28842 net.cpp:156] Memory required for data: 70246400
I0715 00:41:57.011077 28842 layer_factory.hpp:77] Creating layer pool1/3x3_s2
I0715 00:41:57.011085 28846 net.cpp:91] Creating Layer pool1/3x3_s2
I0715 00:41:57.011088 28842 net.cpp:91] Creating Layer pool1/3x3_s2
I0715 00:41:57.011091 28846 net.cpp:425] pool1/3x3_s2 <- conv1/7x7_s2
I0715 00:41:57.011095 28842 net.cpp:425] pool1/3x3_s2 <- conv1/7x7_s2
I0715 00:41:57.011099 28846 net.cpp:399] pool1/3x3_s2 -> pool1/3x3_s2
I0715 00:41:57.011103 28842 net.cpp:399] pool1/3x3_s2 -> pool1/3x3_s2
I0715 00:41:57.011231 28846 net.cpp:141] Setting up pool1/3x3_s2
I0715 00:41:57.011245 28846 net.cpp:148] Top shape: 10 64 56 56 (2007040)
I0715 00:41:57.011250 28846 net.cpp:156] Memory required for data: 78274560
I0715 00:41:57.011255 28846 layer_factory.hpp:77] Creating layer pool1/norm1
I0715 00:41:57.011256 28842 net.cpp:141] Setting up pool1/3x3_s2
I0715 00:41:57.011270 28842 net.cpp:148] Top shape: 10 64 56 56 (2007040)
I0715 00:41:57.011274 28842 net.cpp:156] Memory required for data: 78274560
I0715 00:41:57.011274 28846 net.cpp:91] Creating Layer pool1/norm1
I0715 00:41:57.011281 28842 layer_factory.hpp:77] Creating layer pool1/norm1
I0715 00:41:57.011282 28846 net.cpp:425] pool1/norm1 <- pool1/3x3_s2
I0715 00:41:57.011297 28846 net.cpp:399] pool1/norm1 -> pool1/norm1
I0715 00:41:57.011304 28842 net.cpp:91] Creating Layer pool1/norm1
I0715 00:41:57.011312 28842 net.cpp:425] pool1/norm1 <- pool1/3x3_s2
I0715 00:41:57.011328 28842 net.cpp:399] pool1/norm1 -> pool1/norm1
I0715 00:41:57.012542 28846 net.cpp:141] Setting up pool1/norm1
I0715 00:41:57.012557 28846 net.cpp:148] Top shape: 10 64 56 56 (2007040)
I0715 00:41:57.012562 28846 net.cpp:156] Memory required for data: 86302720
I0715 00:41:57.012563 28842 net.cpp:141] Setting up pool1/norm1
I0715 00:41:57.012567 28846 layer_factory.hpp:77] Creating layer conv2/3x3_reduce
I0715 00:41:57.012583 28842 net.cpp:148] Top shape: 10 64 56 56 (2007040)
I0715 00:41:57.012588 28842 net.cpp:156] Memory required for data: 86302720
I0715 00:41:57.012593 28842 layer_factory.hpp:77] Creating layer conv2/3x3_reduce
I0715 00:41:57.012600 28846 net.cpp:91] Creating Layer conv2/3x3_reduce
I0715 00:41:57.012608 28846 net.cpp:425] conv2/3x3_reduce <- pool1/norm1
I0715 00:41:57.012614 28842 net.cpp:91] Creating Layer conv2/3x3_reduce
I0715 00:41:57.012617 28846 net.cpp:399] conv2/3x3_reduce -> conv2/3x3_reduce
I0715 00:41:57.012619 28842 net.cpp:425] conv2/3x3_reduce <- pool1/norm1
I0715 00:41:57.012629 28842 net.cpp:399] conv2/3x3_reduce -> conv2/3x3_reduce
I0715 00:41:57.018721 28842 net.cpp:141] Setting up conv2/3x3_reduce
I0715 00:41:57.018743 28842 net.cpp:148] Top shape: 10 64 56 56 (2007040)
I0715 00:41:57.018749 28842 net.cpp:156] Memory required for data: 94330880
I0715 00:41:57.018769 28842 layer_factory.hpp:77] Creating layer conv2/relu_3x3_reduce
I0715 00:41:57.018779 28842 net.cpp:91] Creating Layer conv2/relu_3x3_reduce
I0715 00:41:57.018784 28842 net.cpp:425] conv2/relu_3x3_reduce <- conv2/3x3_reduce
I0715 00:41:57.018791 28842 net.cpp:386] conv2/relu_3x3_reduce -> conv2/3x3_reduce (in-place)
I0715 00:41:57.018867 28846 net.cpp:141] Setting up conv2/3x3_reduce
I0715 00:41:57.018889 28846 net.cpp:148] Top shape: 10 64 56 56 (2007040)
I0715 00:41:57.018895 28846 net.cpp:156] Memory required for data: 94330880
I0715 00:41:57.018910 28846 layer_factory.hpp:77] Creating layer conv2/relu_3x3_reduce
I0715 00:41:57.018920 28846 net.cpp:91] Creating Layer conv2/relu_3x3_reduce
I0715 00:41:57.018925 28846 net.cpp:425] conv2/relu_3x3_reduce <- conv2/3x3_reduce
I0715 00:41:57.018934 28846 net.cpp:386] conv2/relu_3x3_reduce -> conv2/3x3_reduce (in-place)
I0715 00:41:57.019961 28846 net.cpp:141] Setting up conv2/relu_3x3_reduce
I0715 00:41:57.019968 28842 net.cpp:141] Setting up conv2/relu_3x3_reduce
I0715 00:41:57.019976 28846 net.cpp:148] Top shape: 10 64 56 56 (2007040)
I0715 00:41:57.019982 28846 net.cpp:156] Memory required for data: 102359040
I0715 00:41:57.019985 28842 net.cpp:148] Top shape: 10 64 56 56 (2007040)
I0715 00:41:57.019989 28846 layer_factory.hpp:77] Creating layer conv2/3x3
I0715 00:41:57.019990 28842 net.cpp:156] Memory required for data: 102359040
I0715 00:41:57.019996 28842 layer_factory.hpp:77] Creating layer conv2/3x3
I0715 00:41:57.020005 28846 net.cpp:91] Creating Layer conv2/3x3
I0715 00:41:57.020012 28846 net.cpp:425] conv2/3x3 <- conv2/3x3_reduce
I0715 00:41:57.020015 28842 net.cpp:91] Creating Layer conv2/3x3
I0715 00:41:57.020022 28842 net.cpp:425] conv2/3x3 <- conv2/3x3_reduce
I0715 00:41:57.020025 28846 net.cpp:399] conv2/3x3 -> conv2/3x3
I0715 00:41:57.020032 28842 net.cpp:399] conv2/3x3 -> conv2/3x3
I0715 00:41:57.027459 28846 net.cpp:141] Setting up conv2/3x3
I0715 00:41:57.027479 28846 net.cpp:148] Top shape: 10 192 56 56 (6021120)
I0715 00:41:57.027485 28846 net.cpp:156] Memory required for data: 126443520
I0715 00:41:57.027485 28842 net.cpp:141] Setting up conv2/3x3
I0715 00:41:57.027500 28846 layer_factory.hpp:77] Creating layer conv2/relu_3x3
I0715 00:41:57.027503 28842 net.cpp:148] Top shape: 10 192 56 56 (6021120)
I0715 00:41:57.027515 28842 net.cpp:156] Memory required for data: 126443520
I0715 00:41:57.027519 28846 net.cpp:91] Creating Layer conv2/relu_3x3
I0715 00:41:57.027525 28846 net.cpp:425] conv2/relu_3x3 <- conv2/3x3
I0715 00:41:57.027529 28842 layer_factory.hpp:77] Creating layer conv2/relu_3x3
I0715 00:41:57.027534 28846 net.cpp:386] conv2/relu_3x3 -> conv2/3x3 (in-place)
I0715 00:41:57.027541 28842 net.cpp:91] Creating Layer conv2/relu_3x3
I0715 00:41:57.027547 28842 net.cpp:425] conv2/relu_3x3 <- conv2/3x3
I0715 00:41:57.027559 28842 net.cpp:386] conv2/relu_3x3 -> conv2/3x3 (in-place)
I0715 00:41:57.028661 28846 net.cpp:141] Setting up conv2/relu_3x3
I0715 00:41:57.028676 28846 net.cpp:148] Top shape: 10 192 56 56 (6021120)
I0715 00:41:57.028682 28846 net.cpp:156] Memory required for data: 150528000
I0715 00:41:57.028687 28846 layer_factory.hpp:77] Creating layer conv2/norm2
I0715 00:41:57.028692 28842 net.cpp:141] Setting up conv2/relu_3x3
I0715 00:41:57.028697 28846 net.cpp:91] Creating Layer conv2/norm2
I0715 00:41:57.028710 28842 net.cpp:148] Top shape: 10 192 56 56 (6021120)
I0715 00:41:57.028710 28846 net.cpp:425] conv2/norm2 <- conv2/3x3
I0715 00:41:57.028717 28842 net.cpp:156] Memory required for data: 150528000
I0715 00:41:57.028724 28842 layer_factory.hpp:77] Creating layer conv2/norm2
I0715 00:41:57.028726 28846 net.cpp:399] conv2/norm2 -> conv2/norm2
I0715 00:41:57.028738 28842 net.cpp:91] Creating Layer conv2/norm2
I0715 00:41:57.028744 28842 net.cpp:425] conv2/norm2 <- conv2/3x3
I0715 00:41:57.028753 28842 net.cpp:399] conv2/norm2 -> conv2/norm2
I0715 00:41:57.029927 28846 net.cpp:141] Setting up conv2/norm2
I0715 00:41:57.029942 28846 net.cpp:148] Top shape: 10 192 56 56 (6021120)
I0715 00:41:57.029947 28846 net.cpp:156] Memory required for data: 174612480
I0715 00:41:57.029953 28846 layer_factory.hpp:77] Creating layer pool2/3x3_s2
I0715 00:41:57.029963 28846 net.cpp:91] Creating Layer pool2/3x3_s2
I0715 00:41:57.029968 28846 net.cpp:425] pool2/3x3_s2 <- conv2/norm2
I0715 00:41:57.029975 28846 net.cpp:399] pool2/3x3_s2 -> pool2/3x3_s2
I0715 00:41:57.029979 28842 net.cpp:141] Setting up conv2/norm2
I0715 00:41:57.029995 28842 net.cpp:148] Top shape: 10 192 56 56 (6021120)
I0715 00:41:57.030000 28842 net.cpp:156] Memory required for data: 174612480
I0715 00:41:57.030006 28842 layer_factory.hpp:77] Creating layer pool2/3x3_s2
I0715 00:41:57.030019 28842 net.cpp:91] Creating Layer pool2/3x3_s2
I0715 00:41:57.030025 28842 net.cpp:425] pool2/3x3_s2 <- conv2/norm2
I0715 00:41:57.030036 28842 net.cpp:399] pool2/3x3_s2 -> pool2/3x3_s2
I0715 00:41:57.030040 28846 net.cpp:141] Setting up pool2/3x3_s2
I0715 00:41:57.030050 28846 net.cpp:148] Top shape: 10 192 28 28 (1505280)
I0715 00:41:57.030055 28846 net.cpp:156] Memory required for data: 180633600
I0715 00:41:57.030061 28846 layer_factory.hpp:77] Creating layer pool2/3x3_s2_pool2/3x3_s2_0_split
I0715 00:41:57.030073 28846 net.cpp:91] Creating Layer pool2/3x3_s2_pool2/3x3_s2_0_split
I0715 00:41:57.030079 28846 net.cpp:425] pool2/3x3_s2_pool2/3x3_s2_0_split <- pool2/3x3_s2
I0715 00:41:57.030086 28846 net.cpp:399] pool2/3x3_s2_pool2/3x3_s2_0_split -> pool2/3x3_s2_pool2/3x3_s2_0_split_0
I0715 00:41:57.030095 28846 net.cpp:399] pool2/3x3_s2_pool2/3x3_s2_0_split -> pool2/3x3_s2_pool2/3x3_s2_0_split_1
I0715 00:41:57.030097 28842 net.cpp:141] Setting up pool2/3x3_s2
I0715 00:41:57.030107 28846 net.cpp:399] pool2/3x3_s2_pool2/3x3_s2_0_split -> pool2/3x3_s2_pool2/3x3_s2_0_split_2
I0715 00:41:57.030107 28842 net.cpp:148] Top shape: 10 192 28 28 (1505280)
I0715 00:41:57.030122 28846 net.cpp:399] pool2/3x3_s2_pool2/3x3_s2_0_split -> pool2/3x3_s2_pool2/3x3_s2_0_split_3
I0715 00:41:57.030122 28842 net.cpp:156] Memory required for data: 180633600
I0715 00:41:57.030133 28842 layer_factory.hpp:77] Creating layer pool2/3x3_s2_pool2/3x3_s2_0_split
I0715 00:41:57.030144 28842 net.cpp:91] Creating Layer pool2/3x3_s2_pool2/3x3_s2_0_split
I0715 00:41:57.030150 28842 net.cpp:425] pool2/3x3_s2_pool2/3x3_s2_0_split <- pool2/3x3_s2
I0715 00:41:57.030158 28842 net.cpp:399] pool2/3x3_s2_pool2/3x3_s2_0_split -> pool2/3x3_s2_pool2/3x3_s2_0_split_0
I0715 00:41:57.030167 28842 net.cpp:399] pool2/3x3_s2_pool2/3x3_s2_0_split -> pool2/3x3_s2_pool2/3x3_s2_0_split_1
I0715 00:41:57.030176 28842 net.cpp:399] pool2/3x3_s2_pool2/3x3_s2_0_split -> pool2/3x3_s2_pool2/3x3_s2_0_split_2
I0715 00:41:57.030184 28842 net.cpp:399] pool2/3x3_s2_pool2/3x3_s2_0_split -> pool2/3x3_s2_pool2/3x3_s2_0_split_3
I0715 00:41:57.030211 28846 net.cpp:141] Setting up pool2/3x3_s2_pool2/3x3_s2_0_split
I0715 00:41:57.030221 28846 net.cpp:148] Top shape: 10 192 28 28 (1505280)
I0715 00:41:57.030228 28846 net.cpp:148] Top shape: 10 192 28 28 (1505280)
I0715 00:41:57.030235 28846 net.cpp:148] Top shape: 10 192 28 28 (1505280)
I0715 00:41:57.030241 28846 net.cpp:148] Top shape: 10 192 28 28 (1505280)
I0715 00:41:57.030244 28846 net.cpp:156] Memory required for data: 204718080
I0715 00:41:57.030249 28846 layer_factory.hpp:77] Creating layer inception_3a/1x1
I0715 00:41:57.030266 28846 net.cpp:91] Creating Layer inception_3a/1x1
I0715 00:41:57.030272 28846 net.cpp:425] inception_3a/1x1 <- pool2/3x3_s2_pool2/3x3_s2_0_split_0
I0715 00:41:57.030295 28842 net.cpp:141] Setting up pool2/3x3_s2_pool2/3x3_s2_0_split
I0715 00:41:57.030302 28846 net.cpp:399] inception_3a/1x1 -> inception_3a/1x1
I0715 00:41:57.030308 28842 net.cpp:148] Top shape: 10 192 28 28 (1505280)
I0715 00:41:57.030314 28842 net.cpp:148] Top shape: 10 192 28 28 (1505280)
I0715 00:41:57.030320 28842 net.cpp:148] Top shape: 10 192 28 28 (1505280)
I0715 00:41:57.030326 28842 net.cpp:148] Top shape: 10 192 28 28 (1505280)
I0715 00:41:57.030330 28842 net.cpp:156] Memory required for data: 204718080
I0715 00:41:57.030335 28842 layer_factory.hpp:77] Creating layer inception_3a/1x1
I0715 00:41:57.030354 28842 net.cpp:91] Creating Layer inception_3a/1x1
I0715 00:41:57.030360 28842 net.cpp:425] inception_3a/1x1 <- pool2/3x3_s2_pool2/3x3_s2_0_split_0
I0715 00:41:57.030372 28842 net.cpp:399] inception_3a/1x1 -> inception_3a/1x1
I0715 00:41:57.037099 28846 net.cpp:141] Setting up inception_3a/1x1
I0715 00:41:57.037130 28846 net.cpp:148] Top shape: 10 64 28 28 (501760)
I0715 00:41:57.037137 28846 net.cpp:156] Memory required for data: 206725120
I0715 00:41:57.037152 28846 layer_factory.hpp:77] Creating layer inception_3a/relu_1x1
I0715 00:41:57.037163 28846 net.cpp:91] Creating Layer inception_3a/relu_1x1
I0715 00:41:57.037169 28846 net.cpp:425] inception_3a/relu_1x1 <- inception_3a/1x1
I0715 00:41:57.037178 28846 net.cpp:386] inception_3a/relu_1x1 -> inception_3a/1x1 (in-place)
I0715 00:41:57.038573 28846 net.cpp:141] Setting up inception_3a/relu_1x1
I0715 00:41:57.038589 28846 net.cpp:148] Top shape: 10 64 28 28 (501760)
I0715 00:41:57.038594 28846 net.cpp:156] Memory required for data: 208732160
I0715 00:41:57.038599 28846 layer_factory.hpp:77] Creating layer inception_3a/3x3_reduce
I0715 00:41:57.038621 28846 net.cpp:91] Creating Layer inception_3a/3x3_reduce
I0715 00:41:57.038628 28846 net.cpp:425] inception_3a/3x3_reduce <- pool2/3x3_s2_pool2/3x3_s2_0_split_1
I0715 00:41:57.038641 28846 net.cpp:399] inception_3a/3x3_reduce -> inception_3a/3x3_reduce
I0715 00:41:57.040335 28842 net.cpp:141] Setting up inception_3a/1x1
I0715 00:41:57.040359 28842 net.cpp:148] Top shape: 10 64 28 28 (501760)
I0715 00:41:57.040364 28842 net.cpp:156] Memory required for data: 206725120
I0715 00:41:57.040376 28842 layer_factory.hpp:77] Creating layer inception_3a/relu_1x1
I0715 00:41:57.040391 28842 net.cpp:91] Creating Layer inception_3a/relu_1x1
I0715 00:41:57.040400 28842 net.cpp:425] inception_3a/relu_1x1 <- inception_3a/1x1
I0715 00:41:57.040410 28842 net.cpp:386] inception_3a/relu_1x1 -> inception_3a/1x1 (in-place)
I0715 00:41:57.042448 28842 net.cpp:141] Setting up inception_3a/relu_1x1
I0715 00:41:57.042467 28842 net.cpp:148] Top shape: 10 64 28 28 (501760)
I0715 00:41:57.042472 28842 net.cpp:156] Memory required for data: 208732160
I0715 00:41:57.042479 28842 layer_factory.hpp:77] Creating layer inception_3a/3x3_reduce
I0715 00:41:57.042500 28842 net.cpp:91] Creating Layer inception_3a/3x3_reduce
I0715 00:41:57.042507 28842 net.cpp:425] inception_3a/3x3_reduce <- pool2/3x3_s2_pool2/3x3_s2_0_split_1
I0715 00:41:57.042521 28842 net.cpp:399] inception_3a/3x3_reduce -> inception_3a/3x3_reduce
I0715 00:41:57.043184 28846 net.cpp:141] Setting up inception_3a/3x3_reduce
I0715 00:41:57.043201 28846 net.cpp:148] Top shape: 10 96 28 28 (752640)
I0715 00:41:57.043207 28846 net.cpp:156] Memory required for data: 211742720
I0715 00:41:57.043226 28846 layer_factory.hpp:77] Creating layer inception_3a/relu_3x3_reduce
I0715 00:41:57.043236 28846 net.cpp:91] Creating Layer inception_3a/relu_3x3_reduce
I0715 00:41:57.043242 28846 net.cpp:425] inception_3a/relu_3x3_reduce <- inception_3a/3x3_reduce
I0715 00:41:57.043252 28846 net.cpp:386] inception_3a/relu_3x3_reduce -> inception_3a/3x3_reduce (in-place)
I0715 00:41:57.045311 28846 net.cpp:141] Setting up inception_3a/relu_3x3_reduce
I0715 00:41:57.045333 28846 net.cpp:148] Top shape: 10 96 28 28 (752640)
I0715 00:41:57.045339 28846 net.cpp:156] Memory required for data: 214753280
I0715 00:41:57.045346 28846 layer_factory.hpp:77] Creating layer inception_3a/3x3
I0715 00:41:57.045370 28846 net.cpp:91] Creating Layer inception_3a/3x3
I0715 00:41:57.045377 28846 net.cpp:425] inception_3a/3x3 <- inception_3a/3x3_reduce
I0715 00:41:57.045388 28846 net.cpp:399] inception_3a/3x3 -> inception_3a/3x3
I0715 00:41:57.047924 28842 net.cpp:141] Setting up inception_3a/3x3_reduce
I0715 00:41:57.047948 28842 net.cpp:148] Top shape: 10 96 28 28 (752640)
I0715 00:41:57.047955 28842 net.cpp:156] Memory required for data: 211742720
I0715 00:41:57.047971 28842 layer_factory.hpp:77] Creating layer inception_3a/relu_3x3_reduce
I0715 00:41:57.047981 28842 net.cpp:91] Creating Layer inception_3a/relu_3x3_reduce
I0715 00:41:57.047987 28842 net.cpp:425] inception_3a/relu_3x3_reduce <- inception_3a/3x3_reduce
I0715 00:41:57.048001 28842 net.cpp:386] inception_3a/relu_3x3_reduce -> inception_3a/3x3_reduce (in-place)
I0715 00:41:57.048271 28842 net.cpp:141] Setting up inception_3a/relu_3x3_reduce
I0715 00:41:57.048286 28842 net.cpp:148] Top shape: 10 96 28 28 (752640)
I0715 00:41:57.048291 28842 net.cpp:156] Memory required for data: 214753280
I0715 00:41:57.048296 28842 layer_factory.hpp:77] Creating layer inception_3a/3x3
I0715 00:41:57.048319 28842 net.cpp:91] Creating Layer inception_3a/3x3
I0715 00:41:57.048326 28842 net.cpp:425] inception_3a/3x3 <- inception_3a/3x3_reduce
I0715 00:41:57.048336 28842 net.cpp:399] inception_3a/3x3 -> inception_3a/3x3
I0715 00:41:57.052780 28846 net.cpp:141] Setting up inception_3a/3x3
I0715 00:41:57.052801 28846 net.cpp:148] Top shape: 10 128 28 28 (1003520)
I0715 00:41:57.052808 28846 net.cpp:156] Memory required for data: 218767360
I0715 00:41:57.052819 28846 layer_factory.hpp:77] Creating layer inception_3a/relu_3x3
I0715 00:41:57.052829 28846 net.cpp:91] Creating Layer inception_3a/relu_3x3
I0715 00:41:57.052834 28846 net.cpp:425] inception_3a/relu_3x3 <- inception_3a/3x3
I0715 00:41:57.052848 28846 net.cpp:386] inception_3a/relu_3x3 -> inception_3a/3x3 (in-place)
I0715 00:41:57.053341 28842 net.cpp:141] Setting up inception_3a/3x3
I0715 00:41:57.053347 28846 net.cpp:141] Setting up inception_3a/relu_3x3
I0715 00:41:57.053362 28842 net.cpp:148] Top shape: 10 128 28 28 (1003520)
I0715 00:41:57.053366 28846 net.cpp:148] Top shape: 10 128 28 28 (1003520)
I0715 00:41:57.053369 28842 net.cpp:156] Memory required for data: 218767360
I0715 00:41:57.053371 28846 net.cpp:156] Memory required for data: 222781440
I0715 00:41:57.053378 28846 layer_factory.hpp:77] Creating layer inception_3a/5x5_reduce
I0715 00:41:57.053380 28842 layer_factory.hpp:77] Creating layer inception_3a/relu_3x3
I0715 00:41:57.053400 28846 net.cpp:91] Creating Layer inception_3a/5x5_reduce
I0715 00:41:57.053401 28842 net.cpp:91] Creating Layer inception_3a/relu_3x3
I0715 00:41:57.053407 28846 net.cpp:425] inception_3a/5x5_reduce <- pool2/3x3_s2_pool2/3x3_s2_0_split_2
I0715 00:41:57.053409 28842 net.cpp:425] inception_3a/relu_3x3 <- inception_3a/3x3
I0715 00:41:57.053417 28842 net.cpp:386] inception_3a/relu_3x3 -> inception_3a/3x3 (in-place)
I0715 00:41:57.053421 28846 net.cpp:399] inception_3a/5x5_reduce -> inception_3a/5x5_reduce
I0715 00:41:57.054792 28842 net.cpp:141] Setting up inception_3a/relu_3x3
I0715 00:41:57.054810 28842 net.cpp:148] Top shape: 10 128 28 28 (1003520)
I0715 00:41:57.054816 28842 net.cpp:156] Memory required for data: 222781440
I0715 00:41:57.054821 28842 layer_factory.hpp:77] Creating layer inception_3a/5x5_reduce
I0715 00:41:57.054843 28842 net.cpp:91] Creating Layer inception_3a/5x5_reduce
I0715 00:41:57.054849 28842 net.cpp:425] inception_3a/5x5_reduce <- pool2/3x3_s2_pool2/3x3_s2_0_split_2
I0715 00:41:57.054860 28842 net.cpp:399] inception_3a/5x5_reduce -> inception_3a/5x5_reduce
I0715 00:41:57.058279 28846 net.cpp:141] Setting up inception_3a/5x5_reduce
I0715 00:41:57.058298 28846 net.cpp:148] Top shape: 10 16 28 28 (125440)
I0715 00:41:57.058305 28846 net.cpp:156] Memory required for data: 223283200
I0715 00:41:57.058316 28846 layer_factory.hpp:77] Creating layer inception_3a/relu_5x5_reduce
I0715 00:41:57.058326 28846 net.cpp:91] Creating Layer inception_3a/relu_5x5_reduce
I0715 00:41:57.058332 28846 net.cpp:425] inception_3a/relu_5x5_reduce <- inception_3a/5x5_reduce
I0715 00:41:57.058341 28846 net.cpp:386] inception_3a/relu_5x5_reduce -> inception_3a/5x5_reduce (in-place)
I0715 00:41:57.059747 28846 net.cpp:141] Setting up inception_3a/relu_5x5_reduce
I0715 00:41:57.059769 28846 net.cpp:148] Top shape: 10 16 28 28 (125440)
I0715 00:41:57.059774 28846 net.cpp:156] Memory required for data: 223784960
I0715 00:41:57.059782 28846 layer_factory.hpp:77] Creating layer inception_3a/5x5
I0715 00:41:57.059800 28846 net.cpp:91] Creating Layer inception_3a/5x5
I0715 00:41:57.059808 28846 net.cpp:425] inception_3a/5x5 <- inception_3a/5x5_reduce
I0715 00:41:57.059824 28846 net.cpp:399] inception_3a/5x5 -> inception_3a/5x5
I0715 00:41:57.060178 28842 net.cpp:141] Setting up inception_3a/5x5_reduce
I0715 00:41:57.060199 28842 net.cpp:148] Top shape: 10 16 28 28 (125440)
I0715 00:41:57.060211 28842 net.cpp:156] Memory required for data: 223283200
I0715 00:41:57.060230 28842 layer_factory.hpp:77] Creating layer inception_3a/relu_5x5_reduce
I0715 00:41:57.060246 28842 net.cpp:91] Creating Layer inception_3a/relu_5x5_reduce
I0715 00:41:57.060255 28842 net.cpp:425] inception_3a/relu_5x5_reduce <- inception_3a/5x5_reduce
I0715 00:41:57.060262 28842 net.cpp:386] inception_3a/relu_5x5_reduce -> inception_3a/5x5_reduce (in-place)
I0715 00:41:57.061444 28842 net.cpp:141] Setting up inception_3a/relu_5x5_reduce
I0715 00:41:57.061462 28842 net.cpp:148] Top shape: 10 16 28 28 (125440)
I0715 00:41:57.061468 28842 net.cpp:156] Memory required for data: 223784960
I0715 00:41:57.061476 28842 layer_factory.hpp:77] Creating layer inception_3a/5x5
I0715 00:41:57.061499 28842 net.cpp:91] Creating Layer inception_3a/5x5
I0715 00:41:57.061506 28842 net.cpp:425] inception_3a/5x5 <- inception_3a/5x5_reduce
I0715 00:41:57.061524 28842 net.cpp:399] inception_3a/5x5 -> inception_3a/5x5
I0715 00:41:57.069475 28846 net.cpp:141] Setting up inception_3a/5x5
I0715 00:41:57.069550 28846 net.cpp:148] Top shape: 10 32 28 28 (250880)
I0715 00:41:57.069562 28846 net.cpp:156] Memory required for data: 224788480
I0715 00:41:57.069591 28846 layer_factory.hpp:77] Creating layer inception_3a/relu_5x5
I0715 00:41:57.069617 28846 net.cpp:91] Creating Layer inception_3a/relu_5x5
I0715 00:41:57.069630 28846 net.cpp:425] inception_3a/relu_5x5 <- inception_3a/5x5
I0715 00:41:57.069648 28846 net.cpp:386] inception_3a/relu_5x5 -> inception_3a/5x5 (in-place)
I0715 00:41:57.072356 28842 net.cpp:141] Setting up inception_3a/5x5
I0715 00:41:57.072396 28842 net.cpp:148] Top shape: 10 32 28 28 (250880)
I0715 00:41:57.072402 28842 net.cpp:156] Memory required for data: 224788480
I0715 00:41:57.072417 28842 layer_factory.hpp:77] Creating layer inception_3a/relu_5x5
I0715 00:41:57.072429 28842 net.cpp:91] Creating Layer inception_3a/relu_5x5
I0715 00:41:57.072437 28842 net.cpp:425] inception_3a/relu_5x5 <- inception_3a/5x5
I0715 00:41:57.072449 28842 net.cpp:386] inception_3a/relu_5x5 -> inception_3a/5x5 (in-place)
I0715 00:41:57.072865 28842 net.cpp:141] Setting up inception_3a/relu_5x5
I0715 00:41:57.072878 28842 net.cpp:148] Top shape: 10 32 28 28 (250880)
I0715 00:41:57.072883 28842 net.cpp:156] Memory required for data: 225792000
I0715 00:41:57.072890 28842 layer_factory.hpp:77] Creating layer inception_3a/pool
I0715 00:41:57.072906 28842 net.cpp:91] Creating Layer inception_3a/pool
I0715 00:41:57.072917 28842 net.cpp:425] inception_3a/pool <- pool2/3x3_s2_pool2/3x3_s2_0_split_3
I0715 00:41:57.072933 28842 net.cpp:399] inception_3a/pool -> inception_3a/pool
I0715 00:41:57.073122 28842 net.cpp:141] Setting up inception_3a/pool
I0715 00:41:57.073134 28842 net.cpp:148] Top shape: 10 192 28 28 (1505280)
I0715 00:41:57.073139 28842 net.cpp:156] Memory required for data: 231813120
I0715 00:41:57.073144 28842 layer_factory.hpp:77] Creating layer inception_3a/pool_proj
I0715 00:41:57.073164 28842 net.cpp:91] Creating Layer inception_3a/pool_proj
I0715 00:41:57.073171 28842 net.cpp:425] inception_3a/pool_proj <- inception_3a/pool
I0715 00:41:57.073185 28842 net.cpp:399] inception_3a/pool_proj -> inception_3a/pool_proj
I0715 00:41:57.073199 28846 net.cpp:141] Setting up inception_3a/relu_5x5
I0715 00:41:57.073236 28846 net.cpp:148] Top shape: 10 32 28 28 (250880)
I0715 00:41:57.073246 28846 net.cpp:156] Memory required for data: 225792000
I0715 00:41:57.073256 28846 layer_factory.hpp:77] Creating layer inception_3a/pool
I0715 00:41:57.073276 28846 net.cpp:91] Creating Layer inception_3a/pool
I0715 00:41:57.073287 28846 net.cpp:425] inception_3a/pool <- pool2/3x3_s2_pool2/3x3_s2_0_split_3
I0715 00:41:57.073308 28846 net.cpp:399] inception_3a/pool -> inception_3a/pool
I0715 00:41:57.073623 28846 net.cpp:141] Setting up inception_3a/pool
I0715 00:41:57.073645 28846 net.cpp:148] Top shape: 10 192 28 28 (1505280)
I0715 00:41:57.073653 28846 net.cpp:156] Memory required for data: 231813120
I0715 00:41:57.073663 28846 layer_factory.hpp:77] Creating layer inception_3a/pool_proj
I0715 00:41:57.073703 28846 net.cpp:91] Creating Layer inception_3a/pool_proj
I0715 00:41:57.073714 28846 net.cpp:425] inception_3a/pool_proj <- inception_3a/pool
I0715 00:41:57.073731 28846 net.cpp:399] inception_3a/pool_proj -> inception_3a/pool_proj
I0715 00:41:57.078130 28842 net.cpp:141] Setting up inception_3a/pool_proj
I0715 00:41:57.078155 28842 net.cpp:148] Top shape: 10 32 28 28 (250880)
I0715 00:41:57.078164 28842 net.cpp:156] Memory required for data: 232816640
I0715 00:41:57.078183 28842 layer_factory.hpp:77] Creating layer inception_3a/relu_pool_proj
I0715 00:41:57.078194 28842 net.cpp:91] Creating Layer inception_3a/relu_pool_proj
I0715 00:41:57.078200 28842 net.cpp:425] inception_3a/relu_pool_proj <- inception_3a/pool_proj
I0715 00:41:57.078213 28842 net.cpp:386] inception_3a/relu_pool_proj -> inception_3a/pool_proj (in-place)
I0715 00:41:57.078711 28842 net.cpp:141] Setting up inception_3a/relu_pool_proj
I0715 00:41:57.078727 28842 net.cpp:148] Top shape: 10 32 28 28 (250880)
I0715 00:41:57.078732 28842 net.cpp:156] Memory required for data: 233820160
I0715 00:41:57.078738 28842 layer_factory.hpp:77] Creating layer inception_3a/output
I0715 00:41:57.078763 28842 net.cpp:91] Creating Layer inception_3a/output
I0715 00:41:57.078768 28842 net.cpp:425] inception_3a/output <- inception_3a/1x1
I0715 00:41:57.078776 28842 net.cpp:425] inception_3a/output <- inception_3a/3x3
I0715 00:41:57.078783 28842 net.cpp:425] inception_3a/output <- inception_3a/5x5
I0715 00:41:57.078788 28842 net.cpp:425] inception_3a/output <- inception_3a/pool_proj
I0715 00:41:57.078795 28842 net.cpp:399] inception_3a/output -> inception_3a/output
I0715 00:41:57.080000 28842 net.cpp:141] Setting up inception_3a/output
I0715 00:41:57.080018 28842 net.cpp:148] Top shape: 10 256 28 28 (2007040)
I0715 00:41:57.080024 28842 net.cpp:156] Memory required for data: 241848320
I0715 00:41:57.080030 28842 layer_factory.hpp:77] Creating layer inception_3a/output_inception_3a/output_0_split
I0715 00:41:57.080041 28842 net.cpp:91] Creating Layer inception_3a/output_inception_3a/output_0_split
I0715 00:41:57.080047 28842 net.cpp:425] inception_3a/output_inception_3a/output_0_split <- inception_3a/output
I0715 00:41:57.080059 28842 net.cpp:399] inception_3a/output_inception_3a/output_0_split -> inception_3a/output_inception_3a/output_0_split_0
I0715 00:41:57.080068 28842 net.cpp:399] inception_3a/output_inception_3a/output_0_split -> inception_3a/output_inception_3a/output_0_split_1
I0715 00:41:57.080078 28842 net.cpp:399] inception_3a/output_inception_3a/output_0_split -> inception_3a/output_inception_3a/output_0_split_2
I0715 00:41:57.080087 28842 net.cpp:399] inception_3a/output_inception_3a/output_0_split -> inception_3a/output_inception_3a/output_0_split_3
I0715 00:41:57.080255 28842 net.cpp:141] Setting up inception_3a/output_inception_3a/output_0_split
I0715 00:41:57.080268 28842 net.cpp:148] Top shape: 10 256 28 28 (2007040)
I0715 00:41:57.080274 28842 net.cpp:148] Top shape: 10 256 28 28 (2007040)
I0715 00:41:57.080281 28842 net.cpp:148] Top shape: 10 256 28 28 (2007040)
I0715 00:41:57.080286 28842 net.cpp:148] Top shape: 10 256 28 28 (2007040)
I0715 00:41:57.080291 28842 net.cpp:156] Memory required for data: 273960960
I0715 00:41:57.080296 28842 layer_factory.hpp:77] Creating layer inception_3b/1x1
I0715 00:41:57.080314 28842 net.cpp:91] Creating Layer inception_3b/1x1
I0715 00:41:57.080322 28842 net.cpp:425] inception_3b/1x1 <- inception_3a/output_inception_3a/output_0_split_0
I0715 00:41:57.080332 28842 net.cpp:399] inception_3b/1x1 -> inception_3b/1x1
I0715 00:41:57.083602 28842 net.cpp:141] Setting up inception_3b/1x1
I0715 00:41:57.083624 28842 net.cpp:148] Top shape: 10 128 28 28 (1003520)
I0715 00:41:57.083631 28842 net.cpp:156] Memory required for data: 277975040
I0715 00:41:57.083641 28842 layer_factory.hpp:77] Creating layer inception_3b/relu_1x1
I0715 00:41:57.083657 28842 net.cpp:91] Creating Layer inception_3b/relu_1x1
I0715 00:41:57.083663 28842 net.cpp:425] inception_3b/relu_1x1 <- inception_3b/1x1
I0715 00:41:57.083672 28842 net.cpp:386] inception_3b/relu_1x1 -> inception_3b/1x1 (in-place)
I0715 00:41:57.084698 28842 net.cpp:141] Setting up inception_3b/relu_1x1
I0715 00:41:57.084717 28842 net.cpp:148] Top shape: 10 128 28 28 (1003520)
I0715 00:41:57.084722 28842 net.cpp:156] Memory required for data: 281989120
I0715 00:41:57.084728 28842 layer_factory.hpp:77] Creating layer inception_3b/3x3_reduce
I0715 00:41:57.084748 28842 net.cpp:91] Creating Layer inception_3b/3x3_reduce
I0715 00:41:57.084755 28842 net.cpp:425] inception_3b/3x3_reduce <- inception_3a/output_inception_3a/output_0_split_1
I0715 00:41:57.084766 28842 net.cpp:399] inception_3b/3x3_reduce -> inception_3b/3x3_reduce
I0715 00:41:57.085088 28846 net.cpp:141] Setting up inception_3a/pool_proj
I0715 00:41:57.085119 28846 net.cpp:148] Top shape: 10 32 28 28 (250880)
I0715 00:41:57.085129 28846 net.cpp:156] Memory required for data: 232816640
I0715 00:41:57.085165 28846 layer_factory.hpp:77] Creating layer inception_3a/relu_pool_proj
I0715 00:41:57.085185 28846 net.cpp:91] Creating Layer inception_3a/relu_pool_proj
I0715 00:41:57.085194 28846 net.cpp:425] inception_3a/relu_pool_proj <- inception_3a/pool_proj
I0715 00:41:57.085209 28846 net.cpp:386] inception_3a/relu_pool_proj -> inception_3a/pool_proj (in-place)
I0715 00:41:57.087116 28846 net.cpp:141] Setting up inception_3a/relu_pool_proj
I0715 00:41:57.087146 28846 net.cpp:148] Top shape: 10 32 28 28 (250880)
I0715 00:41:57.087157 28846 net.cpp:156] Memory required for data: 233820160
I0715 00:41:57.087167 28846 layer_factory.hpp:77] Creating layer inception_3a/output
I0715 00:41:57.087183 28846 net.cpp:91] Creating Layer inception_3a/output
I0715 00:41:57.087193 28846 net.cpp:425] inception_3a/output <- inception_3a/1x1
I0715 00:41:57.087206 28846 net.cpp:425] inception_3a/output <- inception_3a/3x3
I0715 00:41:57.087222 28846 net.cpp:425] inception_3a/output <- inception_3a/5x5
I0715 00:41:57.087232 28846 net.cpp:425] inception_3a/output <- inception_3a/pool_proj
I0715 00:41:57.087245 28846 net.cpp:399] inception_3a/output -> inception_3a/output
I0715 00:41:57.087919 28846 net.cpp:141] Setting up inception_3a/output
I0715 00:41:57.087939 28846 net.cpp:148] Top shape: 10 256 28 28 (2007040)
I0715 00:41:57.087947 28846 net.cpp:156] Memory required for data: 241848320
I0715 00:41:57.087956 28846 layer_factory.hpp:77] Creating layer inception_3a/output_inception_3a/output_0_split
I0715 00:41:57.087978 28846 net.cpp:91] Creating Layer inception_3a/output_inception_3a/output_0_split
I0715 00:41:57.087988 28846 net.cpp:425] inception_3a/output_inception_3a/output_0_split <- inception_3a/output
I0715 00:41:57.088001 28846 net.cpp:399] inception_3a/output_inception_3a/output_0_split -> inception_3a/output_inception_3a/output_0_split_0
I0715 00:41:57.088018 28846 net.cpp:399] inception_3a/output_inception_3a/output_0_split -> inception_3a/output_inception_3a/output_0_split_1
I0715 00:41:57.088034 28846 net.cpp:399] inception_3a/output_inception_3a/output_0_split -> inception_3a/output_inception_3a/output_0_split_2
I0715 00:41:57.088053 28846 net.cpp:399] inception_3a/output_inception_3a/output_0_split -> inception_3a/output_inception_3a/output_0_split_3
I0715 00:41:57.088372 28842 net.cpp:141] Setting up inception_3b/3x3_reduce
I0715 00:41:57.088392 28842 net.cpp:148] Top shape: 10 128 28 28 (1003520)
I0715 00:41:57.088398 28842 net.cpp:156] Memory required for data: 286003200
I0715 00:41:57.088409 28842 layer_factory.hpp:77] Creating layer inception_3b/relu_3x3_reduce
I0715 00:41:57.088419 28842 net.cpp:91] Creating Layer inception_3b/relu_3x3_reduce
I0715 00:41:57.088428 28842 net.cpp:425] inception_3b/relu_3x3_reduce <- inception_3b/3x3_reduce
I0715 00:41:57.088440 28842 net.cpp:386] inception_3b/relu_3x3_reduce -> inception_3b/3x3_reduce (in-place)
I0715 00:41:57.088495 28846 net.cpp:141] Setting up inception_3a/output_inception_3a/output_0_split
I0715 00:41:57.088516 28846 net.cpp:148] Top shape: 10 256 28 28 (2007040)
I0715 00:41:57.088527 28846 net.cpp:148] Top shape: 10 256 28 28 (2007040)
I0715 00:41:57.088537 28846 net.cpp:148] Top shape: 10 256 28 28 (2007040)
I0715 00:41:57.088547 28846 net.cpp:148] Top shape: 10 256 28 28 (2007040)
I0715 00:41:57.088556 28846 net.cpp:156] Memory required for data: 273960960
I0715 00:41:57.088564 28846 layer_factory.hpp:77] Creating layer inception_3b/1x1
I0715 00:41:57.088592 28846 net.cpp:91] Creating Layer inception_3b/1x1
I0715 00:41:57.088603 28846 net.cpp:425] inception_3b/1x1 <- inception_3a/output_inception_3a/output_0_split_0
I0715 00:41:57.088624 28846 net.cpp:399] inception_3b/1x1 -> inception_3b/1x1
I0715 00:41:57.088776 28842 net.cpp:141] Setting up inception_3b/relu_3x3_reduce
I0715 00:41:57.088790 28842 net.cpp:148] Top shape: 10 128 28 28 (1003520)
I0715 00:41:57.088795 28842 net.cpp:156] Memory required for data: 290017280
I0715 00:41:57.088801 28842 layer_factory.hpp:77] Creating layer inception_3b/3x3
I0715 00:41:57.088824 28842 net.cpp:91] Creating Layer inception_3b/3x3
I0715 00:41:57.088831 28842 net.cpp:425] inception_3b/3x3 <- inception_3b/3x3_reduce
I0715 00:41:57.088840 28842 net.cpp:399] inception_3b/3x3 -> inception_3b/3x3
I0715 00:41:57.095736 28842 net.cpp:141] Setting up inception_3b/3x3
I0715 00:41:57.095757 28842 net.cpp:148] Top shape: 10 192 28 28 (1505280)
I0715 00:41:57.095764 28842 net.cpp:156] Memory required for data: 296038400
I0715 00:41:57.095774 28842 layer_factory.hpp:77] Creating layer inception_3b/relu_3x3
I0715 00:41:57.095795 28842 net.cpp:91] Creating Layer inception_3b/relu_3x3
I0715 00:41:57.095801 28842 net.cpp:425] inception_3b/relu_3x3 <- inception_3b/3x3
I0715 00:41:57.095810 28842 net.cpp:386] inception_3b/relu_3x3 -> inception_3b/3x3 (in-place)
I0715 00:41:57.098065 28842 net.cpp:141] Setting up inception_3b/relu_3x3
I0715 00:41:57.098081 28842 net.cpp:148] Top shape: 10 192 28 28 (1505280)
I0715 00:41:57.098088 28842 net.cpp:156] Memory required for data: 302059520
I0715 00:41:57.098093 28842 layer_factory.hpp:77] Creating layer inception_3b/5x5_reduce
I0715 00:41:57.098111 28842 net.cpp:91] Creating Layer inception_3b/5x5_reduce
I0715 00:41:57.098119 28842 net.cpp:425] inception_3b/5x5_reduce <- inception_3a/output_inception_3a/output_0_split_2
I0715 00:41:57.098131 28842 net.cpp:399] inception_3b/5x5_reduce -> inception_3b/5x5_reduce
I0715 00:41:57.100920 28846 net.cpp:141] Setting up inception_3b/1x1
I0715 00:41:57.100951 28842 net.cpp:141] Setting up inception_3b/5x5_reduce
I0715 00:41:57.100956 28846 net.cpp:148] Top shape: 10 128 28 28 (1003520)
I0715 00:41:57.100975 28842 net.cpp:148] Top shape: 10 32 28 28 (250880)
I0715 00:41:57.100980 28846 net.cpp:156] Memory required for data: 277975040
I0715 00:41:57.100983 28842 net.cpp:156] Memory required for data: 303063040
I0715 00:41:57.101004 28846 layer_factory.hpp:77] Creating layer inception_3b/relu_1x1
I0715 00:41:57.101008 28842 layer_factory.hpp:77] Creating layer inception_3b/relu_5x5_reduce
I0715 00:41:57.101024 28842 net.cpp:91] Creating Layer inception_3b/relu_5x5_reduce
I0715 00:41:57.101027 28846 net.cpp:91] Creating Layer inception_3b/relu_1x1
I0715 00:41:57.101032 28842 net.cpp:425] inception_3b/relu_5x5_reduce <- inception_3b/5x5_reduce
I0715 00:41:57.101038 28846 net.cpp:425] inception_3b/relu_1x1 <- inception_3b/1x1
I0715 00:41:57.101042 28842 net.cpp:386] inception_3b/relu_5x5_reduce -> inception_3b/5x5_reduce (in-place)
I0715 00:41:57.101058 28846 net.cpp:386] inception_3b/relu_1x1 -> inception_3b/1x1 (in-place)
I0715 00:41:57.102913 28842 net.cpp:141] Setting up inception_3b/relu_5x5_reduce
I0715 00:41:57.102933 28842 net.cpp:148] Top shape: 10 32 28 28 (250880)
I0715 00:41:57.102939 28842 net.cpp:156] Memory required for data: 304066560
I0715 00:41:57.102946 28842 layer_factory.hpp:77] Creating layer inception_3b/5x5
I0715 00:41:57.102965 28842 net.cpp:91] Creating Layer inception_3b/5x5
I0715 00:41:57.102972 28842 net.cpp:425] inception_3b/5x5 <- inception_3b/5x5_reduce
I0715 00:41:57.102984 28842 net.cpp:399] inception_3b/5x5 -> inception_3b/5x5
I0715 00:41:57.103437 28846 net.cpp:141] Setting up inception_3b/relu_1x1
I0715 00:41:57.103459 28846 net.cpp:148] Top shape: 10 128 28 28 (1003520)
I0715 00:41:57.103467 28846 net.cpp:156] Memory required for data: 281989120
I0715 00:41:57.103477 28846 layer_factory.hpp:77] Creating layer inception_3b/3x3_reduce
I0715 00:41:57.103503 28846 net.cpp:91] Creating Layer inception_3b/3x3_reduce
I0715 00:41:57.103513 28846 net.cpp:425] inception_3b/3x3_reduce <- inception_3a/output_inception_3a/output_0_split_1
I0715 00:41:57.103549 28846 net.cpp:399] inception_3b/3x3_reduce -> inception_3b/3x3_reduce
I0715 00:41:57.111306 28846 net.cpp:141] Setting up inception_3b/3x3_reduce
I0715 00:41:57.111338 28846 net.cpp:148] Top shape: 10 128 28 28 (1003520)
I0715 00:41:57.111346 28846 net.cpp:156] Memory required for data: 286003200
I0715 00:41:57.111363 28846 layer_factory.hpp:77] Creating layer inception_3b/relu_3x3_reduce
I0715 00:41:57.111382 28846 net.cpp:91] Creating Layer inception_3b/relu_3x3_reduce
I0715 00:41:57.111392 28846 net.cpp:425] inception_3b/relu_3x3_reduce <- inception_3b/3x3_reduce
I0715 00:41:57.111404 28846 net.cpp:386] inception_3b/relu_3x3_reduce -> inception_3b/3x3_reduce (in-place)
I0715 00:41:57.113999 28846 net.cpp:141] Setting up inception_3b/relu_3x3_reduce
I0715 00:41:57.114022 28846 net.cpp:148] Top shape: 10 128 28 28 (1003520)
I0715 00:41:57.114029 28846 net.cpp:156] Memory required for data: 290017280
I0715 00:41:57.114038 28846 layer_factory.hpp:77] Creating layer inception_3b/3x3
I0715 00:41:57.114066 28846 net.cpp:91] Creating Layer inception_3b/3x3
I0715 00:41:57.114078 28846 net.cpp:425] inception_3b/3x3 <- inception_3b/3x3_reduce
I0715 00:41:57.114091 28846 net.cpp:399] inception_3b/3x3 -> inception_3b/3x3
I0715 00:41:57.116382 28842 net.cpp:141] Setting up inception_3b/5x5
I0715 00:41:57.116415 28842 net.cpp:148] Top shape: 10 96 28 28 (752640)
I0715 00:41:57.116422 28842 net.cpp:156] Memory required for data: 307077120
I0715 00:41:57.116436 28842 layer_factory.hpp:77] Creating layer inception_3b/relu_5x5
I0715 00:41:57.116452 28842 net.cpp:91] Creating Layer inception_3b/relu_5x5
I0715 00:41:57.116461 28842 net.cpp:425] inception_3b/relu_5x5 <- inception_3b/5x5
I0715 00:41:57.116472 28842 net.cpp:386] inception_3b/relu_5x5 -> inception_3b/5x5 (in-place)
I0715 00:41:57.116767 28842 net.cpp:141] Setting up inception_3b/relu_5x5
I0715 00:41:57.116780 28842 net.cpp:148] Top shape: 10 96 28 28 (752640)
I0715 00:41:57.116786 28842 net.cpp:156] Memory required for data: 310087680
I0715 00:41:57.116791 28842 layer_factory.hpp:77] Creating layer inception_3b/pool
I0715 00:41:57.116807 28842 net.cpp:91] Creating Layer inception_3b/pool
I0715 00:41:57.116814 28842 net.cpp:425] inception_3b/pool <- inception_3a/output_inception_3a/output_0_split_3
I0715 00:41:57.116824 28842 net.cpp:399] inception_3b/pool -> inception_3b/pool
I0715 00:41:57.116900 28842 net.cpp:141] Setting up inception_3b/pool
I0715 00:41:57.116910 28842 net.cpp:148] Top shape: 10 256 28 28 (2007040)
I0715 00:41:57.116915 28842 net.cpp:156] Memory required for data: 318115840
I0715 00:41:57.116920 28842 layer_factory.hpp:77] Creating layer inception_3b/pool_proj
I0715 00:41:57.116940 28842 net.cpp:91] Creating Layer inception_3b/pool_proj
I0715 00:41:57.116945 28842 net.cpp:425] inception_3b/pool_proj <- inception_3b/pool
I0715 00:41:57.116957 28842 net.cpp:399] inception_3b/pool_proj -> inception_3b/pool_proj
I0715 00:41:57.119854 28842 net.cpp:141] Setting up inception_3b/pool_proj
I0715 00:41:57.119877 28842 net.cpp:148] Top shape: 10 64 28 28 (501760)
I0715 00:41:57.119884 28842 net.cpp:156] Memory required for data: 320122880
I0715 00:41:57.119894 28842 layer_factory.hpp:77] Creating layer inception_3b/relu_pool_proj
I0715 00:41:57.119905 28842 net.cpp:91] Creating Layer inception_3b/relu_pool_proj
I0715 00:41:57.119912 28842 net.cpp:425] inception_3b/relu_pool_proj <- inception_3b/pool_proj
I0715 00:41:57.119925 28842 net.cpp:386] inception_3b/relu_pool_proj -> inception_3b/pool_proj (in-place)
I0715 00:41:57.121208 28842 net.cpp:141] Setting up inception_3b/relu_pool_proj
I0715 00:41:57.121227 28842 net.cpp:148] Top shape: 10 64 28 28 (501760)
I0715 00:41:57.121232 28842 net.cpp:156] Memory required for data: 322129920
I0715 00:41:57.121237 28842 layer_factory.hpp:77] Creating layer inception_3b/output
I0715 00:41:57.121248 28842 net.cpp:91] Creating Layer inception_3b/output
I0715 00:41:57.121253 28842 net.cpp:425] inception_3b/output <- inception_3b/1x1
I0715 00:41:57.121260 28842 net.cpp:425] inception_3b/output <- inception_3b/3x3
I0715 00:41:57.121266 28842 net.cpp:425] inception_3b/output <- inception_3b/5x5
I0715 00:41:57.121273 28842 net.cpp:425] inception_3b/output <- inception_3b/pool_proj
I0715 00:41:57.121279 28842 net.cpp:399] inception_3b/output -> inception_3b/output
I0715 00:41:57.121422 28842 net.cpp:141] Setting up inception_3b/output
I0715 00:41:57.121433 28842 net.cpp:148] Top shape: 10 480 28 28 (3763200)
I0715 00:41:57.121438 28842 net.cpp:156] Memory required for data: 337182720
I0715 00:41:57.121443 28842 layer_factory.hpp:77] Creating layer pool3/3x3_s2
I0715 00:41:57.121455 28842 net.cpp:91] Creating Layer pool3/3x3_s2
I0715 00:41:57.121461 28842 net.cpp:425] pool3/3x3_s2 <- inception_3b/output
I0715 00:41:57.121469 28842 net.cpp:399] pool3/3x3_s2 -> pool3/3x3_s2
I0715 00:41:57.122514 28842 net.cpp:141] Setting up pool3/3x3_s2
I0715 00:41:57.122529 28842 net.cpp:148] Top shape: 10 480 14 14 (940800)
I0715 00:41:57.122534 28842 net.cpp:156] Memory required for data: 340945920
I0715 00:41:57.122539 28842 layer_factory.hpp:77] Creating layer pool3/3x3_s2_pool3/3x3_s2_0_split
I0715 00:41:57.122550 28842 net.cpp:91] Creating Layer pool3/3x3_s2_pool3/3x3_s2_0_split
I0715 00:41:57.122555 28842 net.cpp:425] pool3/3x3_s2_pool3/3x3_s2_0_split <- pool3/3x3_s2
I0715 00:41:57.122565 28842 net.cpp:399] pool3/3x3_s2_pool3/3x3_s2_0_split -> pool3/3x3_s2_pool3/3x3_s2_0_split_0
I0715 00:41:57.122575 28842 net.cpp:399] pool3/3x3_s2_pool3/3x3_s2_0_split -> pool3/3x3_s2_pool3/3x3_s2_0_split_1
I0715 00:41:57.122584 28842 net.cpp:399] pool3/3x3_s2_pool3/3x3_s2_0_split -> pool3/3x3_s2_pool3/3x3_s2_0_split_2
I0715 00:41:57.122592 28842 net.cpp:399] pool3/3x3_s2_pool3/3x3_s2_0_split -> pool3/3x3_s2_pool3/3x3_s2_0_split_3
I0715 00:41:57.122797 28842 net.cpp:141] Setting up pool3/3x3_s2_pool3/3x3_s2_0_split
I0715 00:41:57.122809 28842 net.cpp:148] Top shape: 10 480 14 14 (940800)
I0715 00:41:57.122815 28842 net.cpp:148] Top shape: 10 480 14 14 (940800)
I0715 00:41:57.122822 28842 net.cpp:148] Top shape: 10 480 14 14 (940800)
I0715 00:41:57.122826 28842 net.cpp:148] Top shape: 10 480 14 14 (940800)
I0715 00:41:57.122830 28842 net.cpp:156] Memory required for data: 355998720
I0715 00:41:57.122835 28842 layer_factory.hpp:77] Creating layer inception_4a/1x1
I0715 00:41:57.122853 28842 net.cpp:91] Creating Layer inception_4a/1x1
I0715 00:41:57.122860 28842 net.cpp:425] inception_4a/1x1 <- pool3/3x3_s2_pool3/3x3_s2_0_split_0
I0715 00:41:57.122869 28842 net.cpp:399] inception_4a/1x1 -> inception_4a/1x1
I0715 00:41:57.123754 28846 net.cpp:141] Setting up inception_3b/3x3
I0715 00:41:57.123785 28846 net.cpp:148] Top shape: 10 192 28 28 (1505280)
I0715 00:41:57.123792 28846 net.cpp:156] Memory required for data: 296038400
I0715 00:41:57.123807 28846 layer_factory.hpp:77] Creating layer inception_3b/relu_3x3
I0715 00:41:57.123834 28846 net.cpp:91] Creating Layer inception_3b/relu_3x3
I0715 00:41:57.123843 28846 net.cpp:425] inception_3b/relu_3x3 <- inception_3b/3x3
I0715 00:41:57.123855 28846 net.cpp:386] inception_3b/relu_3x3 -> inception_3b/3x3 (in-place)
I0715 00:41:57.126708 28846 net.cpp:141] Setting up inception_3b/relu_3x3
I0715 00:41:57.126734 28846 net.cpp:148] Top shape: 10 192 28 28 (1505280)
I0715 00:41:57.126741 28846 net.cpp:156] Memory required for data: 302059520
I0715 00:41:57.126749 28846 layer_factory.hpp:77] Creating layer inception_3b/5x5_reduce
I0715 00:41:57.126773 28846 net.cpp:91] Creating Layer inception_3b/5x5_reduce
I0715 00:41:57.126782 28846 net.cpp:425] inception_3b/5x5_reduce <- inception_3a/output_inception_3a/output_0_split_2
I0715 00:41:57.126799 28846 net.cpp:399] inception_3b/5x5_reduce -> inception_3b/5x5_reduce
I0715 00:41:57.128190 28842 net.cpp:141] Setting up inception_4a/1x1
I0715 00:41:57.128212 28842 net.cpp:148] Top shape: 10 192 14 14 (376320)
I0715 00:41:57.128217 28842 net.cpp:156] Memory required for data: 357504000
I0715 00:41:57.128229 28842 layer_factory.hpp:77] Creating layer inception_4a/relu_1x1
I0715 00:41:57.128242 28842 net.cpp:91] Creating Layer inception_4a/relu_1x1
I0715 00:41:57.128249 28842 net.cpp:425] inception_4a/relu_1x1 <- inception_4a/1x1
I0715 00:41:57.128257 28842 net.cpp:386] inception_4a/relu_1x1 -> inception_4a/1x1 (in-place)
I0715 00:41:57.129667 28842 net.cpp:141] Setting up inception_4a/relu_1x1
I0715 00:41:57.129685 28842 net.cpp:148] Top shape: 10 192 14 14 (376320)
I0715 00:41:57.129690 28842 net.cpp:156] Memory required for data: 359009280
I0715 00:41:57.129696 28842 layer_factory.hpp:77] Creating layer inception_4a/3x3_reduce
I0715 00:41:57.129714 28842 net.cpp:91] Creating Layer inception_4a/3x3_reduce
I0715 00:41:57.129721 28842 net.cpp:425] inception_4a/3x3_reduce <- pool3/3x3_s2_pool3/3x3_s2_0_split_1
I0715 00:41:57.129735 28842 net.cpp:399] inception_4a/3x3_reduce -> inception_4a/3x3_reduce
I0715 00:41:57.131886 28846 net.cpp:141] Setting up inception_3b/5x5_reduce
I0715 00:41:57.131914 28846 net.cpp:148] Top shape: 10 32 28 28 (250880)
I0715 00:41:57.131922 28846 net.cpp:156] Memory required for data: 303063040
I0715 00:41:57.131937 28846 layer_factory.hpp:77] Creating layer inception_3b/relu_5x5_reduce
I0715 00:41:57.131953 28846 net.cpp:91] Creating Layer inception_3b/relu_5x5_reduce
I0715 00:41:57.131961 28846 net.cpp:425] inception_3b/relu_5x5_reduce <- inception_3b/5x5_reduce
I0715 00:41:57.131973 28846 net.cpp:386] inception_3b/relu_5x5_reduce -> inception_3b/5x5_reduce (in-place)
I0715 00:41:57.134846 28846 net.cpp:141] Setting up inception_3b/relu_5x5_reduce
I0715 00:41:57.134878 28846 net.cpp:148] Top shape: 10 32 28 28 (250880)
I0715 00:41:57.134886 28846 net.cpp:156] Memory required for data: 304066560
I0715 00:41:57.134894 28846 layer_factory.hpp:77] Creating layer inception_3b/5x5
I0715 00:41:57.134927 28846 net.cpp:91] Creating Layer inception_3b/5x5
I0715 00:41:57.134937 28846 net.cpp:425] inception_3b/5x5 <- inception_3b/5x5_reduce
I0715 00:41:57.134951 28846 net.cpp:399] inception_3b/5x5 -> inception_3b/5x5
I0715 00:41:57.135144 28842 net.cpp:141] Setting up inception_4a/3x3_reduce
I0715 00:41:57.135171 28842 net.cpp:148] Top shape: 10 96 14 14 (188160)
I0715 00:41:57.135179 28842 net.cpp:156] Memory required for data: 359761920
I0715 00:41:57.135205 28842 layer_factory.hpp:77] Creating layer inception_4a/relu_3x3_reduce
I0715 00:41:57.135220 28842 net.cpp:91] Creating Layer inception_4a/relu_3x3_reduce
I0715 00:41:57.135226 28842 net.cpp:425] inception_4a/relu_3x3_reduce <- inception_4a/3x3_reduce
I0715 00:41:57.135236 28842 net.cpp:386] inception_4a/relu_3x3_reduce -> inception_4a/3x3_reduce (in-place)
I0715 00:41:57.136373 28842 net.cpp:141] Setting up inception_4a/relu_3x3_reduce
I0715 00:41:57.136394 28842 net.cpp:148] Top shape: 10 96 14 14 (188160)
I0715 00:41:57.136399 28842 net.cpp:156] Memory required for data: 360514560
I0715 00:41:57.136404 28842 layer_factory.hpp:77] Creating layer inception_4a/3x3
I0715 00:41:57.136425 28842 net.cpp:91] Creating Layer inception_4a/3x3
I0715 00:41:57.136431 28842 net.cpp:425] inception_4a/3x3 <- inception_4a/3x3_reduce
I0715 00:41:57.136445 28842 net.cpp:399] inception_4a/3x3 -> inception_4a/3x3
I0715 00:41:57.143318 28846 net.cpp:141] Setting up inception_3b/5x5
I0715 00:41:57.143347 28846 net.cpp:148] Top shape: 10 96 28 28 (752640)
I0715 00:41:57.143355 28846 net.cpp:156] Memory required for data: 307077120
I0715 00:41:57.143369 28846 layer_factory.hpp:77] Creating layer inception_3b/relu_5x5
I0715 00:41:57.143383 28846 net.cpp:91] Creating Layer inception_3b/relu_5x5
I0715 00:41:57.143391 28846 net.cpp:425] inception_3b/relu_5x5 <- inception_3b/5x5
I0715 00:41:57.143405 28846 net.cpp:386] inception_3b/relu_5x5 -> inception_3b/5x5 (in-place)
I0715 00:41:57.144698 28842 net.cpp:141] Setting up inception_4a/3x3
I0715 00:41:57.144726 28842 net.cpp:148] Top shape: 10 208 14 14 (407680)
I0715 00:41:57.144731 28842 net.cpp:156] Memory required for data: 362145280
I0715 00:41:57.144743 28842 layer_factory.hpp:77] Creating layer inception_4a/relu_3x3
I0715 00:41:57.144758 28842 net.cpp:91] Creating Layer inception_4a/relu_3x3
I0715 00:41:57.144765 28842 net.cpp:425] inception_4a/relu_3x3 <- inception_4a/3x3
I0715 00:41:57.144773 28842 net.cpp:386] inception_4a/relu_3x3 -> inception_4a/3x3 (in-place)
I0715 00:41:57.144801 28846 net.cpp:141] Setting up inception_3b/relu_5x5
I0715 00:41:57.144821 28846 net.cpp:148] Top shape: 10 96 28 28 (752640)
I0715 00:41:57.144829 28846 net.cpp:156] Memory required for data: 310087680
I0715 00:41:57.144835 28846 layer_factory.hpp:77] Creating layer inception_3b/pool
I0715 00:41:57.144852 28846 net.cpp:91] Creating Layer inception_3b/pool
I0715 00:41:57.144860 28846 net.cpp:425] inception_3b/pool <- inception_3a/output_inception_3a/output_0_split_3
I0715 00:41:57.144872 28846 net.cpp:399] inception_3b/pool -> inception_3b/pool
I0715 00:41:57.145102 28846 net.cpp:141] Setting up inception_3b/pool
I0715 00:41:57.145118 28846 net.cpp:148] Top shape: 10 256 28 28 (2007040)
I0715 00:41:57.145124 28846 net.cpp:156] Memory required for data: 318115840
I0715 00:41:57.145131 28846 layer_factory.hpp:77] Creating layer inception_3b/pool_proj
I0715 00:41:57.145153 28846 net.cpp:91] Creating Layer inception_3b/pool_proj
I0715 00:41:57.145161 28846 net.cpp:425] inception_3b/pool_proj <- inception_3b/pool
I0715 00:41:57.145174 28846 net.cpp:399] inception_3b/pool_proj -> inception_3b/pool_proj
I0715 00:41:57.145226 28842 net.cpp:141] Setting up inception_4a/relu_3x3
I0715 00:41:57.145239 28842 net.cpp:148] Top shape: 10 208 14 14 (407680)
I0715 00:41:57.145244 28842 net.cpp:156] Memory required for data: 363776000
I0715 00:41:57.145251 28842 layer_factory.hpp:77] Creating layer inception_4a/5x5_reduce
I0715 00:41:57.145272 28842 net.cpp:91] Creating Layer inception_4a/5x5_reduce
I0715 00:41:57.145278 28842 net.cpp:425] inception_4a/5x5_reduce <- pool3/3x3_s2_pool3/3x3_s2_0_split_2
I0715 00:41:57.145289 28842 net.cpp:399] inception_4a/5x5_reduce -> inception_4a/5x5_reduce
I0715 00:41:57.150465 28842 net.cpp:141] Setting up inception_4a/5x5_reduce
I0715 00:41:57.150491 28842 net.cpp:148] Top shape: 10 16 14 14 (31360)
I0715 00:41:57.150497 28842 net.cpp:156] Memory required for data: 363901440
I0715 00:41:57.150509 28842 layer_factory.hpp:77] Creating layer inception_4a/relu_5x5_reduce
I0715 00:41:57.150524 28842 net.cpp:91] Creating Layer inception_4a/relu_5x5_reduce
I0715 00:41:57.150532 28842 net.cpp:425] inception_4a/relu_5x5_reduce <- inception_4a/5x5_reduce
I0715 00:41:57.150542 28842 net.cpp:386] inception_4a/relu_5x5_reduce -> inception_4a/5x5_reduce (in-place)
I0715 00:41:57.152441 28842 net.cpp:141] Setting up inception_4a/relu_5x5_reduce
I0715 00:41:57.152456 28842 net.cpp:148] Top shape: 10 16 14 14 (31360)
I0715 00:41:57.152462 28842 net.cpp:156] Memory required for data: 364026880
I0715 00:41:57.152467 28842 layer_factory.hpp:77] Creating layer inception_4a/5x5
I0715 00:41:57.152488 28842 net.cpp:91] Creating Layer inception_4a/5x5
I0715 00:41:57.152496 28842 net.cpp:425] inception_4a/5x5 <- inception_4a/5x5_reduce
I0715 00:41:57.152506 28842 net.cpp:399] inception_4a/5x5 -> inception_4a/5x5
I0715 00:41:57.153190 28846 net.cpp:141] Setting up inception_3b/pool_proj
I0715 00:41:57.153216 28846 net.cpp:148] Top shape: 10 64 28 28 (501760)
I0715 00:41:57.153223 28846 net.cpp:156] Memory required for data: 320122880
I0715 00:41:57.153236 28846 layer_factory.hpp:77] Creating layer inception_3b/relu_pool_proj
I0715 00:41:57.153249 28846 net.cpp:91] Creating Layer inception_3b/relu_pool_proj
I0715 00:41:57.153261 28846 net.cpp:425] inception_3b/relu_pool_proj <- inception_3b/pool_proj
I0715 00:41:57.153271 28846 net.cpp:386] inception_3b/relu_pool_proj -> inception_3b/pool_proj (in-place)
I0715 00:41:57.155045 28846 net.cpp:141] Setting up inception_3b/relu_pool_proj
I0715 00:41:57.155064 28846 net.cpp:148] Top shape: 10 64 28 28 (501760)
I0715 00:41:57.155071 28846 net.cpp:156] Memory required for data: 322129920
I0715 00:41:57.155077 28846 layer_factory.hpp:77] Creating layer inception_3b/output
I0715 00:41:57.155092 28846 net.cpp:91] Creating Layer inception_3b/output
I0715 00:41:57.155100 28846 net.cpp:425] inception_3b/output <- inception_3b/1x1
I0715 00:41:57.155108 28846 net.cpp:425] inception_3b/output <- inception_3b/3x3
I0715 00:41:57.155117 28846 net.cpp:425] inception_3b/output <- inception_3b/5x5
I0715 00:41:57.155123 28846 net.cpp:425] inception_3b/output <- inception_3b/pool_proj
I0715 00:41:57.155133 28846 net.cpp:399] inception_3b/output -> inception_3b/output
I0715 00:41:57.155912 28846 net.cpp:141] Setting up inception_3b/output
I0715 00:41:57.155927 28846 net.cpp:148] Top shape: 10 480 28 28 (3763200)
I0715 00:41:57.155933 28846 net.cpp:156] Memory required for data: 337182720
I0715 00:41:57.155941 28846 layer_factory.hpp:77] Creating layer pool3/3x3_s2
I0715 00:41:57.155951 28846 net.cpp:91] Creating Layer pool3/3x3_s2
I0715 00:41:57.155957 28846 net.cpp:425] pool3/3x3_s2 <- inception_3b/output
I0715 00:41:57.155971 28846 net.cpp:399] pool3/3x3_s2 -> pool3/3x3_s2
I0715 00:41:57.156301 28842 net.cpp:141] Setting up inception_4a/5x5
I0715 00:41:57.156319 28842 net.cpp:148] Top shape: 10 48 14 14 (94080)
I0715 00:41:57.156325 28842 net.cpp:156] Memory required for data: 364403200
I0715 00:41:57.156335 28842 layer_factory.hpp:77] Creating layer inception_4a/relu_5x5
I0715 00:41:57.156345 28846 net.cpp:141] Setting up pool3/3x3_s2
I0715 00:41:57.156347 28842 net.cpp:91] Creating Layer inception_4a/relu_5x5
I0715 00:41:57.156365 28846 net.cpp:148] Top shape: 10 480 14 14 (940800)
I0715 00:41:57.156369 28842 net.cpp:425] inception_4a/relu_5x5 <- inception_4a/5x5
I0715 00:41:57.156373 28846 net.cpp:156] Memory required for data: 340945920
I0715 00:41:57.156380 28846 layer_factory.hpp:77] Creating layer pool3/3x3_s2_pool3/3x3_s2_0_split
I0715 00:41:57.156380 28842 net.cpp:386] inception_4a/relu_5x5 -> inception_4a/5x5 (in-place)
I0715 00:41:57.156399 28846 net.cpp:91] Creating Layer pool3/3x3_s2_pool3/3x3_s2_0_split
I0715 00:41:57.156407 28846 net.cpp:425] pool3/3x3_s2_pool3/3x3_s2_0_split <- pool3/3x3_s2
I0715 00:41:57.156416 28846 net.cpp:399] pool3/3x3_s2_pool3/3x3_s2_0_split -> pool3/3x3_s2_pool3/3x3_s2_0_split_0
I0715 00:41:57.156427 28846 net.cpp:399] pool3/3x3_s2_pool3/3x3_s2_0_split -> pool3/3x3_s2_pool3/3x3_s2_0_split_1
I0715 00:41:57.156438 28846 net.cpp:399] pool3/3x3_s2_pool3/3x3_s2_0_split -> pool3/3x3_s2_pool3/3x3_s2_0_split_2
I0715 00:41:57.156448 28846 net.cpp:399] pool3/3x3_s2_pool3/3x3_s2_0_split -> pool3/3x3_s2_pool3/3x3_s2_0_split_3
I0715 00:41:57.156853 28846 net.cpp:141] Setting up pool3/3x3_s2_pool3/3x3_s2_0_split
I0715 00:41:57.156869 28846 net.cpp:148] Top shape: 10 480 14 14 (940800)
I0715 00:41:57.156877 28846 net.cpp:148] Top shape: 10 480 14 14 (940800)
I0715 00:41:57.156884 28846 net.cpp:148] Top shape: 10 480 14 14 (940800)
I0715 00:41:57.156888 28842 net.cpp:141] Setting up inception_4a/relu_5x5
I0715 00:41:57.156891 28846 net.cpp:148] Top shape: 10 480 14 14 (940800)
I0715 00:41:57.156904 28842 net.cpp:148] Top shape: 10 48 14 14 (94080)
I0715 00:41:57.156909 28846 net.cpp:156] Memory required for data: 355998720
I0715 00:41:57.156910 28842 net.cpp:156] Memory required for data: 364779520
I0715 00:41:57.156919 28846 layer_factory.hpp:77] Creating layer inception_4a/1x1
I0715 00:41:57.156930 28842 layer_factory.hpp:77] Creating layer inception_4a/pool
I0715 00:41:57.156947 28842 net.cpp:91] Creating Layer inception_4a/pool
I0715 00:41:57.156952 28846 net.cpp:91] Creating Layer inception_4a/1x1
I0715 00:41:57.156955 28842 net.cpp:425] inception_4a/pool <- pool3/3x3_s2_pool3/3x3_s2_0_split_3
I0715 00:41:57.156965 28846 net.cpp:425] inception_4a/1x1 <- pool3/3x3_s2_pool3/3x3_s2_0_split_0
I0715 00:41:57.156975 28842 net.cpp:399] inception_4a/pool -> inception_4a/pool
I0715 00:41:57.156982 28846 net.cpp:399] inception_4a/1x1 -> inception_4a/1x1
I0715 00:41:57.157073 28842 net.cpp:141] Setting up inception_4a/pool
I0715 00:41:57.157085 28842 net.cpp:148] Top shape: 10 480 14 14 (940800)
I0715 00:41:57.157089 28842 net.cpp:156] Memory required for data: 368542720
I0715 00:41:57.157095 28842 layer_factory.hpp:77] Creating layer inception_4a/pool_proj
I0715 00:41:57.157114 28842 net.cpp:91] Creating Layer inception_4a/pool_proj
I0715 00:41:57.157126 28842 net.cpp:425] inception_4a/pool_proj <- inception_4a/pool
I0715 00:41:57.157145 28842 net.cpp:399] inception_4a/pool_proj -> inception_4a/pool_proj
I0715 00:41:57.165496 28846 net.cpp:141] Setting up inception_4a/1x1
I0715 00:41:57.165520 28846 net.cpp:148] Top shape: 10 192 14 14 (376320)
I0715 00:41:57.165527 28846 net.cpp:156] Memory required for data: 357504000
I0715 00:41:57.165539 28846 layer_factory.hpp:77] Creating layer inception_4a/relu_1x1
I0715 00:41:57.165555 28846 net.cpp:91] Creating Layer inception_4a/relu_1x1
I0715 00:41:57.165562 28846 net.cpp:425] inception_4a/relu_1x1 <- inception_4a/1x1
I0715 00:41:57.165572 28846 net.cpp:386] inception_4a/relu_1x1 -> inception_4a/1x1 (in-place)
I0715 00:41:57.166599 28842 net.cpp:141] Setting up inception_4a/pool_proj
I0715 00:41:57.166623 28842 net.cpp:148] Top shape: 10 64 14 14 (125440)
I0715 00:41:57.166630 28842 net.cpp:156] Memory required for data: 369044480
I0715 00:41:57.166645 28842 layer_factory.hpp:77] Creating layer inception_4a/relu_pool_proj
I0715 00:41:57.166658 28842 net.cpp:91] Creating Layer inception_4a/relu_pool_proj
I0715 00:41:57.166668 28842 net.cpp:425] inception_4a/relu_pool_proj <- inception_4a/pool_proj
I0715 00:41:57.166678 28842 net.cpp:386] inception_4a/relu_pool_proj -> inception_4a/pool_proj (in-place)
I0715 00:41:57.166677 28846 net.cpp:141] Setting up inception_4a/relu_1x1
I0715 00:41:57.166704 28846 net.cpp:148] Top shape: 10 192 14 14 (376320)
I0715 00:41:57.166710 28846 net.cpp:156] Memory required for data: 359009280
I0715 00:41:57.166718 28846 layer_factory.hpp:77] Creating layer inception_4a/3x3_reduce
I0715 00:41:57.166738 28846 net.cpp:91] Creating Layer inception_4a/3x3_reduce
I0715 00:41:57.166746 28846 net.cpp:425] inception_4a/3x3_reduce <- pool3/3x3_s2_pool3/3x3_s2_0_split_1
I0715 00:41:57.166761 28846 net.cpp:399] inception_4a/3x3_reduce -> inception_4a/3x3_reduce
I0715 00:41:57.167366 28842 net.cpp:141] Setting up inception_4a/relu_pool_proj
I0715 00:41:57.167377 28842 net.cpp:148] Top shape: 10 64 14 14 (125440)
I0715 00:41:57.167382 28842 net.cpp:156] Memory required for data: 369546240
I0715 00:41:57.167387 28842 layer_factory.hpp:77] Creating layer inception_4a/output
I0715 00:41:57.167397 28842 net.cpp:91] Creating Layer inception_4a/output
I0715 00:41:57.167403 28842 net.cpp:425] inception_4a/output <- inception_4a/1x1
I0715 00:41:57.167409 28842 net.cpp:425] inception_4a/output <- inception_4a/3x3
I0715 00:41:57.167415 28842 net.cpp:425] inception_4a/output <- inception_4a/5x5
I0715 00:41:57.167420 28842 net.cpp:425] inception_4a/output <- inception_4a/pool_proj
I0715 00:41:57.167428 28842 net.cpp:399] inception_4a/output -> inception_4a/output
I0715 00:41:57.167475 28842 net.cpp:141] Setting up inception_4a/output
I0715 00:41:57.167484 28842 net.cpp:148] Top shape: 10 512 14 14 (1003520)
I0715 00:41:57.167489 28842 net.cpp:156] Memory required for data: 373560320
I0715 00:41:57.167492 28842 layer_factory.hpp:77] Creating layer inception_4a/output_inception_4a/output_0_split
I0715 00:41:57.167520 28842 net.cpp:91] Creating Layer inception_4a/output_inception_4a/output_0_split
I0715 00:41:57.167528 28842 net.cpp:425] inception_4a/output_inception_4a/output_0_split <- inception_4a/output
I0715 00:41:57.167537 28842 net.cpp:399] inception_4a/output_inception_4a/output_0_split -> inception_4a/output_inception_4a/output_0_split_0
I0715 00:41:57.167548 28842 net.cpp:399] inception_4a/output_inception_4a/output_0_split -> inception_4a/output_inception_4a/output_0_split_1
I0715 00:41:57.167559 28842 net.cpp:399] inception_4a/output_inception_4a/output_0_split -> inception_4a/output_inception_4a/output_0_split_2
I0715 00:41:57.167573 28842 net.cpp:399] inception_4a/output_inception_4a/output_0_split -> inception_4a/output_inception_4a/output_0_split_3
I0715 00:41:57.167697 28842 net.cpp:141] Setting up inception_4a/output_inception_4a/output_0_split
I0715 00:41:57.167709 28842 net.cpp:148] Top shape: 10 512 14 14 (1003520)
I0715 00:41:57.167717 28842 net.cpp:148] Top shape: 10 512 14 14 (1003520)
I0715 00:41:57.167723 28842 net.cpp:148] Top shape: 10 512 14 14 (1003520)
I0715 00:41:57.167731 28842 net.cpp:148] Top shape: 10 512 14 14 (1003520)
I0715 00:41:57.167735 28842 net.cpp:156] Memory required for data: 389616640
I0715 00:41:57.167740 28842 layer_factory.hpp:77] Creating layer inception_4b/1x1
I0715 00:41:57.167758 28842 net.cpp:91] Creating Layer inception_4b/1x1
I0715 00:41:57.167765 28842 net.cpp:425] inception_4b/1x1 <- inception_4a/output_inception_4a/output_0_split_0
I0715 00:41:57.167780 28842 net.cpp:399] inception_4b/1x1 -> inception_4b/1x1
I0715 00:41:57.171957 28846 net.cpp:141] Setting up inception_4a/3x3_reduce
I0715 00:41:57.171978 28846 net.cpp:148] Top shape: 10 96 14 14 (188160)
I0715 00:41:57.171984 28846 net.cpp:156] Memory required for data: 359761920
I0715 00:41:57.172010 28846 layer_factory.hpp:77] Creating layer inception_4a/relu_3x3_reduce
I0715 00:41:57.172024 28846 net.cpp:91] Creating Layer inception_4a/relu_3x3_reduce
I0715 00:41:57.172032 28846 net.cpp:425] inception_4a/relu_3x3_reduce <- inception_4a/3x3_reduce
I0715 00:41:57.172042 28846 net.cpp:386] inception_4a/relu_3x3_reduce -> inception_4a/3x3_reduce (in-place)
I0715 00:41:57.174078 28846 net.cpp:141] Setting up inception_4a/relu_3x3_reduce
I0715 00:41:57.174093 28846 net.cpp:148] Top shape: 10 96 14 14 (188160)
I0715 00:41:57.174098 28846 net.cpp:156] Memory required for data: 360514560
I0715 00:41:57.174103 28846 layer_factory.hpp:77] Creating layer inception_4a/3x3
I0715 00:41:57.174118 28846 net.cpp:91] Creating Layer inception_4a/3x3
I0715 00:41:57.174124 28846 net.cpp:425] inception_4a/3x3 <- inception_4a/3x3_reduce
I0715 00:41:57.174156 28846 net.cpp:399] inception_4a/3x3 -> inception_4a/3x3
I0715 00:41:57.174468 28842 net.cpp:141] Setting up inception_4b/1x1
I0715 00:41:57.174487 28842 net.cpp:148] Top shape: 10 160 14 14 (313600)
I0715 00:41:57.174494 28842 net.cpp:156] Memory required for data: 390871040
I0715 00:41:57.174505 28842 layer_factory.hpp:77] Creating layer inception_4b/relu_1x1
I0715 00:41:57.174525 28842 net.cpp:91] Creating Layer inception_4b/relu_1x1
I0715 00:41:57.174532 28842 net.cpp:425] inception_4b/relu_1x1 <- inception_4b/1x1
I0715 00:41:57.174541 28842 net.cpp:386] inception_4b/relu_1x1 -> inception_4b/1x1 (in-place)
I0715 00:41:57.176486 28842 net.cpp:141] Setting up inception_4b/relu_1x1
I0715 00:41:57.176504 28842 net.cpp:148] Top shape: 10 160 14 14 (313600)
I0715 00:41:57.176511 28842 net.cpp:156] Memory required for data: 392125440
I0715 00:41:57.176515 28842 layer_factory.hpp:77] Creating layer inception_4b/3x3_reduce
I0715 00:41:57.176535 28842 net.cpp:91] Creating Layer inception_4b/3x3_reduce
I0715 00:41:57.176542 28842 net.cpp:425] inception_4b/3x3_reduce <- inception_4a/output_inception_4a/output_0_split_1
I0715 00:41:57.176564 28842 net.cpp:399] inception_4b/3x3_reduce -> inception_4b/3x3_reduce
I0715 00:41:57.181118 28842 net.cpp:141] Setting up inception_4b/3x3_reduce
I0715 00:41:57.181136 28842 net.cpp:148] Top shape: 10 112 14 14 (219520)
I0715 00:41:57.181143 28842 net.cpp:156] Memory required for data: 393003520
I0715 00:41:57.181152 28842 layer_factory.hpp:77] Creating layer inception_4b/relu_3x3_reduce
I0715 00:41:57.181166 28842 net.cpp:91] Creating Layer inception_4b/relu_3x3_reduce
I0715 00:41:57.181174 28842 net.cpp:425] inception_4b/relu_3x3_reduce <- inception_4b/3x3_reduce
I0715 00:41:57.181195 28842 net.cpp:386] inception_4b/relu_3x3_reduce -> inception_4b/3x3_reduce (in-place)
I0715 00:41:57.182057 28846 net.cpp:141] Setting up inception_4a/3x3
I0715 00:41:57.182075 28846 net.cpp:148] Top shape: 10 208 14 14 (407680)
I0715 00:41:57.182081 28846 net.cpp:156] Memory required for data: 362145280
I0715 00:41:57.182092 28846 layer_factory.hpp:77] Creating layer inception_4a/relu_3x3
I0715 00:41:57.182102 28846 net.cpp:91] Creating Layer inception_4a/relu_3x3
I0715 00:41:57.182108 28846 net.cpp:425] inception_4a/relu_3x3 <- inception_4a/3x3
I0715 00:41:57.182129 28846 net.cpp:386] inception_4a/relu_3x3 -> inception_4a/3x3 (in-place)
I0715 00:41:57.182132 28842 net.cpp:141] Setting up inception_4b/relu_3x3_reduce
I0715 00:41:57.182144 28842 net.cpp:148] Top shape: 10 112 14 14 (219520)
I0715 00:41:57.182149 28842 net.cpp:156] Memory required for data: 393881600
I0715 00:41:57.182154 28842 layer_factory.hpp:77] Creating layer inception_4b/3x3
I0715 00:41:57.182171 28842 net.cpp:91] Creating Layer inception_4b/3x3
I0715 00:41:57.182178 28842 net.cpp:425] inception_4b/3x3 <- inception_4b/3x3_reduce
I0715 00:41:57.182186 28842 net.cpp:399] inception_4b/3x3 -> inception_4b/3x3
I0715 00:41:57.183712 28846 net.cpp:141] Setting up inception_4a/relu_3x3
I0715 00:41:57.183727 28846 net.cpp:148] Top shape: 10 208 14 14 (407680)
I0715 00:41:57.183732 28846 net.cpp:156] Memory required for data: 363776000
I0715 00:41:57.183737 28846 layer_factory.hpp:77] Creating layer inception_4a/5x5_reduce
I0715 00:41:57.183753 28846 net.cpp:91] Creating Layer inception_4a/5x5_reduce
I0715 00:41:57.183759 28846 net.cpp:425] inception_4a/5x5_reduce <- pool3/3x3_s2_pool3/3x3_s2_0_split_2
I0715 00:41:57.183771 28846 net.cpp:399] inception_4a/5x5_reduce -> inception_4a/5x5_reduce
I0715 00:41:57.188004 28846 net.cpp:141] Setting up inception_4a/5x5_reduce
I0715 00:41:57.188024 28846 net.cpp:148] Top shape: 10 16 14 14 (31360)
I0715 00:41:57.188030 28846 net.cpp:156] Memory required for data: 363901440
I0715 00:41:57.188038 28846 layer_factory.hpp:77] Creating layer inception_4a/relu_5x5_reduce
I0715 00:41:57.188047 28846 net.cpp:91] Creating Layer inception_4a/relu_5x5_reduce
I0715 00:41:57.188052 28846 net.cpp:425] inception_4a/relu_5x5_reduce <- inception_4a/5x5_reduce
I0715 00:41:57.188066 28846 net.cpp:386] inception_4a/relu_5x5_reduce -> inception_4a/5x5_reduce (in-place)
I0715 00:41:57.188995 28842 net.cpp:141] Setting up inception_4b/3x3
I0715 00:41:57.189013 28842 net.cpp:148] Top shape: 10 224 14 14 (439040)
I0715 00:41:57.189018 28842 net.cpp:156] Memory required for data: 395637760
I0715 00:41:57.189028 28842 layer_factory.hpp:77] Creating layer inception_4b/relu_3x3
I0715 00:41:57.189036 28842 net.cpp:91] Creating Layer inception_4b/relu_3x3
I0715 00:41:57.189043 28842 net.cpp:425] inception_4b/relu_3x3 <- inception_4b/3x3
I0715 00:41:57.189049 28842 net.cpp:386] inception_4b/relu_3x3 -> inception_4b/3x3 (in-place)
I0715 00:41:57.189059 28846 net.cpp:141] Setting up inception_4a/relu_5x5_reduce
I0715 00:41:57.189072 28846 net.cpp:148] Top shape: 10 16 14 14 (31360)
I0715 00:41:57.189077 28846 net.cpp:156] Memory required for data: 364026880
I0715 00:41:57.189081 28846 layer_factory.hpp:77] Creating layer inception_4a/5x5
I0715 00:41:57.189097 28846 net.cpp:91] Creating Layer inception_4a/5x5
I0715 00:41:57.189103 28846 net.cpp:425] inception_4a/5x5 <- inception_4a/5x5_reduce
I0715 00:41:57.189116 28846 net.cpp:399] inception_4a/5x5 -> inception_4a/5x5
I0715 00:41:57.189553 28842 net.cpp:141] Setting up inception_4b/relu_3x3
I0715 00:41:57.189564 28842 net.cpp:148] Top shape: 10 224 14 14 (439040)
I0715 00:41:57.189568 28842 net.cpp:156] Memory required for data: 397393920
I0715 00:41:57.189574 28842 layer_factory.hpp:77] Creating layer inception_4b/5x5_reduce
I0715 00:41:57.189602 28842 net.cpp:91] Creating Layer inception_4b/5x5_reduce
I0715 00:41:57.189609 28842 net.cpp:425] inception_4b/5x5_reduce <- inception_4a/output_inception_4a/output_0_split_2
I0715 00:41:57.189620 28842 net.cpp:399] inception_4b/5x5_reduce -> inception_4b/5x5_reduce
I0715 00:41:57.193963 28846 net.cpp:141] Setting up inception_4a/5x5
I0715 00:41:57.193996 28846 net.cpp:148] Top shape: 10 48 14 14 (94080)
I0715 00:41:57.194002 28846 net.cpp:156] Memory required for data: 364403200
I0715 00:41:57.194011 28846 layer_factory.hpp:77] Creating layer inception_4a/relu_5x5
I0715 00:41:57.194021 28846 net.cpp:91] Creating Layer inception_4a/relu_5x5
I0715 00:41:57.194026 28846 net.cpp:425] inception_4a/relu_5x5 <- inception_4a/5x5
I0715 00:41:57.194036 28846 net.cpp:386] inception_4a/relu_5x5 -> inception_4a/5x5 (in-place)
I0715 00:41:57.194399 28842 net.cpp:141] Setting up inception_4b/5x5_reduce
I0715 00:41:57.194418 28842 net.cpp:148] Top shape: 10 24 14 14 (47040)
I0715 00:41:57.194424 28842 net.cpp:156] Memory required for data: 397582080
I0715 00:41:57.194434 28842 layer_factory.hpp:77] Creating layer inception_4b/relu_5x5_reduce
I0715 00:41:57.194442 28842 net.cpp:91] Creating Layer inception_4b/relu_5x5_reduce
I0715 00:41:57.194448 28842 net.cpp:425] inception_4b/relu_5x5_reduce <- inception_4b/5x5_reduce
I0715 00:41:57.194456 28842 net.cpp:386] inception_4b/relu_5x5_reduce -> inception_4b/5x5_reduce (in-place)
I0715 00:41:57.194461 28846 net.cpp:141] Setting up inception_4a/relu_5x5
I0715 00:41:57.194473 28846 net.cpp:148] Top shape: 10 48 14 14 (94080)
I0715 00:41:57.194478 28846 net.cpp:156] Memory required for data: 364779520
I0715 00:41:57.194483 28846 layer_factory.hpp:77] Creating layer inception_4a/pool
I0715 00:41:57.194495 28846 net.cpp:91] Creating Layer inception_4a/pool
I0715 00:41:57.194501 28846 net.cpp:425] inception_4a/pool <- pool3/3x3_s2_pool3/3x3_s2_0_split_3
I0715 00:41:57.194509 28846 net.cpp:399] inception_4a/pool -> inception_4a/pool
I0715 00:41:57.195204 28846 net.cpp:141] Setting up inception_4a/pool
I0715 00:41:57.195216 28846 net.cpp:148] Top shape: 10 480 14 14 (940800)
I0715 00:41:57.195221 28846 net.cpp:156] Memory required for data: 368542720
I0715 00:41:57.195226 28846 layer_factory.hpp:77] Creating layer inception_4a/pool_proj
I0715 00:41:57.195245 28846 net.cpp:91] Creating Layer inception_4a/pool_proj
I0715 00:41:57.195251 28846 net.cpp:425] inception_4a/pool_proj <- inception_4a/pool
I0715 00:41:57.195263 28846 net.cpp:399] inception_4a/pool_proj -> inception_4a/pool_proj
I0715 00:41:57.195502 28842 net.cpp:141] Setting up inception_4b/relu_5x5_reduce
I0715 00:41:57.195514 28842 net.cpp:148] Top shape: 10 24 14 14 (47040)
I0715 00:41:57.195519 28842 net.cpp:156] Memory required for data: 397770240
I0715 00:41:57.195523 28842 layer_factory.hpp:77] Creating layer inception_4b/5x5
I0715 00:41:57.195538 28842 net.cpp:91] Creating Layer inception_4b/5x5
I0715 00:41:57.195544 28842 net.cpp:425] inception_4b/5x5 <- inception_4b/5x5_reduce
I0715 00:41:57.195556 28842 net.cpp:399] inception_4b/5x5 -> inception_4b/5x5
I0715 00:41:57.199105 28846 net.cpp:141] Setting up inception_4a/pool_proj
I0715 00:41:57.199133 28846 net.cpp:148] Top shape: 10 64 14 14 (125440)
I0715 00:41:57.199139 28846 net.cpp:156] Memory required for data: 369044480
I0715 00:41:57.199148 28846 layer_factory.hpp:77] Creating layer inception_4a/relu_pool_proj
I0715 00:41:57.199161 28846 net.cpp:91] Creating Layer inception_4a/relu_pool_proj
I0715 00:41:57.199167 28846 net.cpp:425] inception_4a/relu_pool_proj <- inception_4a/pool_proj
I0715 00:41:57.199174 28846 net.cpp:386] inception_4a/relu_pool_proj -> inception_4a/pool_proj (in-place)
I0715 00:41:57.200884 28846 net.cpp:141] Setting up inception_4a/relu_pool_proj
I0715 00:41:57.200892 28842 net.cpp:141] Setting up inception_4b/5x5
I0715 00:41:57.200902 28846 net.cpp:148] Top shape: 10 64 14 14 (125440)
I0715 00:41:57.200907 28842 net.cpp:148] Top shape: 10 64 14 14 (125440)
I0715 00:41:57.200907 28846 net.cpp:156] Memory required for data: 369546240
I0715 00:41:57.200912 28842 net.cpp:156] Memory required for data: 398272000
I0715 00:41:57.200913 28846 layer_factory.hpp:77] Creating layer inception_4a/output
I0715 00:41:57.200922 28842 layer_factory.hpp:77] Creating layer inception_4b/relu_5x5
I0715 00:41:57.200923 28846 net.cpp:91] Creating Layer inception_4a/output
I0715 00:41:57.200933 28842 net.cpp:91] Creating Layer inception_4b/relu_5x5
I0715 00:41:57.200934 28846 net.cpp:425] inception_4a/output <- inception_4a/1x1
I0715 00:41:57.200942 28842 net.cpp:425] inception_4b/relu_5x5 <- inception_4b/5x5
I0715 00:41:57.200947 28846 net.cpp:425] inception_4a/output <- inception_4a/3x3
I0715 00:41:57.200953 28842 net.cpp:386] inception_4b/relu_5x5 -> inception_4b/5x5 (in-place)
I0715 00:41:57.200953 28846 net.cpp:425] inception_4a/output <- inception_4a/5x5
I0715 00:41:57.200963 28846 net.cpp:425] inception_4a/output <- inception_4a/pool_proj
I0715 00:41:57.200970 28846 net.cpp:399] inception_4a/output -> inception_4a/output
I0715 00:41:57.201189 28846 net.cpp:141] Setting up inception_4a/output
I0715 00:41:57.201200 28846 net.cpp:148] Top shape: 10 512 14 14 (1003520)
I0715 00:41:57.201203 28846 net.cpp:156] Memory required for data: 373560320
I0715 00:41:57.201208 28846 layer_factory.hpp:77] Creating layer inception_4a/output_inception_4a/output_0_split
I0715 00:41:57.201218 28846 net.cpp:91] Creating Layer inception_4a/output_inception_4a/output_0_split
I0715 00:41:57.201223 28846 net.cpp:425] inception_4a/output_inception_4a/output_0_split <- inception_4a/output
I0715 00:41:57.201231 28846 net.cpp:399] inception_4a/output_inception_4a/output_0_split -> inception_4a/output_inception_4a/output_0_split_0
I0715 00:41:57.201239 28846 net.cpp:399] inception_4a/output_inception_4a/output_0_split -> inception_4a/output_inception_4a/output_0_split_1
I0715 00:41:57.201247 28846 net.cpp:399] inception_4a/output_inception_4a/output_0_split -> inception_4a/output_inception_4a/output_0_split_2
I0715 00:41:57.201254 28846 net.cpp:399] inception_4a/output_inception_4a/output_0_split -> inception_4a/output_inception_4a/output_0_split_3
I0715 00:41:57.201378 28846 net.cpp:141] Setting up inception_4a/output_inception_4a/output_0_split
I0715 00:41:57.201388 28846 net.cpp:148] Top shape: 10 512 14 14 (1003520)
I0715 00:41:57.201387 28842 net.cpp:141] Setting up inception_4b/relu_5x5
I0715 00:41:57.201395 28846 net.cpp:148] Top shape: 10 512 14 14 (1003520)
I0715 00:41:57.201400 28842 net.cpp:148] Top shape: 10 64 14 14 (125440)
I0715 00:41:57.201400 28846 net.cpp:148] Top shape: 10 512 14 14 (1003520)
I0715 00:41:57.201406 28842 net.cpp:156] Memory required for data: 398773760
I0715 00:41:57.201411 28846 net.cpp:148] Top shape: 10 512 14 14 (1003520)
I0715 00:41:57.201411 28842 layer_factory.hpp:77] Creating layer inception_4b/pool
I0715 00:41:57.201418 28846 net.cpp:156] Memory required for data: 389616640
I0715 00:41:57.201424 28846 layer_factory.hpp:77] Creating layer inception_4b/1x1
I0715 00:41:57.201431 28842 net.cpp:91] Creating Layer inception_4b/pool
I0715 00:41:57.201436 28842 net.cpp:425] inception_4b/pool <- inception_4a/output_inception_4a/output_0_split_3
I0715 00:41:57.201442 28846 net.cpp:91] Creating Layer inception_4b/1x1
I0715 00:41:57.201443 28842 net.cpp:399] inception_4b/pool -> inception_4b/pool
I0715 00:41:57.201447 28846 net.cpp:425] inception_4b/1x1 <- inception_4a/output_inception_4a/output_0_split_0
I0715 00:41:57.201459 28846 net.cpp:399] inception_4b/1x1 -> inception_4b/1x1
I0715 00:41:57.201570 28842 net.cpp:141] Setting up inception_4b/pool
I0715 00:41:57.201581 28842 net.cpp:148] Top shape: 10 512 14 14 (1003520)
I0715 00:41:57.201586 28842 net.cpp:156] Memory required for data: 402787840
I0715 00:41:57.201589 28842 layer_factory.hpp:77] Creating layer inception_4b/pool_proj
I0715 00:41:57.201603 28842 net.cpp:91] Creating Layer inception_4b/pool_proj
I0715 00:41:57.201608 28842 net.cpp:425] inception_4b/pool_proj <- inception_4b/pool
I0715 00:41:57.201620 28842 net.cpp:399] inception_4b/pool_proj -> inception_4b/pool_proj
I0715 00:41:57.206681 28842 net.cpp:141] Setting up inception_4b/pool_proj
I0715 00:41:57.206708 28842 net.cpp:148] Top shape: 10 64 14 14 (125440)
I0715 00:41:57.206713 28842 net.cpp:156] Memory required for data: 403289600
I0715 00:41:57.206723 28842 layer_factory.hpp:77] Creating layer inception_4b/relu_pool_proj
I0715 00:41:57.206734 28842 net.cpp:91] Creating Layer inception_4b/relu_pool_proj
I0715 00:41:57.206740 28842 net.cpp:425] inception_4b/relu_pool_proj <- inception_4b/pool_proj
I0715 00:41:57.206748 28842 net.cpp:386] inception_4b/relu_pool_proj -> inception_4b/pool_proj (in-place)
I0715 00:41:57.206774 28846 net.cpp:141] Setting up inception_4b/1x1
I0715 00:41:57.206789 28846 net.cpp:148] Top shape: 10 160 14 14 (313600)
I0715 00:41:57.206794 28846 net.cpp:156] Memory required for data: 390871040
I0715 00:41:57.206805 28846 layer_factory.hpp:77] Creating layer inception_4b/relu_1x1
I0715 00:41:57.206815 28846 net.cpp:91] Creating Layer inception_4b/relu_1x1
I0715 00:41:57.206820 28846 net.cpp:425] inception_4b/relu_1x1 <- inception_4b/1x1
I0715 00:41:57.206830 28846 net.cpp:386] inception_4b/relu_1x1 -> inception_4b/1x1 (in-place)
I0715 00:41:57.207805 28846 net.cpp:141] Setting up inception_4b/relu_1x1
I0715 00:41:57.207818 28846 net.cpp:148] Top shape: 10 160 14 14 (313600)
I0715 00:41:57.207823 28846 net.cpp:156] Memory required for data: 392125440
I0715 00:41:57.207828 28846 layer_factory.hpp:77] Creating layer inception_4b/3x3_reduce
I0715 00:41:57.207826 28842 net.cpp:141] Setting up inception_4b/relu_pool_proj
I0715 00:41:57.207841 28842 net.cpp:148] Top shape: 10 64 14 14 (125440)
I0715 00:41:57.207844 28846 net.cpp:91] Creating Layer inception_4b/3x3_reduce
I0715 00:41:57.207846 28842 net.cpp:156] Memory required for data: 403791360
I0715 00:41:57.207851 28846 net.cpp:425] inception_4b/3x3_reduce <- inception_4a/output_inception_4a/output_0_split_1
I0715 00:41:57.207852 28842 layer_factory.hpp:77] Creating layer inception_4b/output
I0715 00:41:57.207866 28842 net.cpp:91] Creating Layer inception_4b/output
I0715 00:41:57.207867 28846 net.cpp:399] inception_4b/3x3_reduce -> inception_4b/3x3_reduce
I0715 00:41:57.207875 28842 net.cpp:425] inception_4b/output <- inception_4b/1x1
I0715 00:41:57.207883 28842 net.cpp:425] inception_4b/output <- inception_4b/3x3
I0715 00:41:57.207888 28842 net.cpp:425] inception_4b/output <- inception_4b/5x5
I0715 00:41:57.207893 28842 net.cpp:425] inception_4b/output <- inception_4b/pool_proj
I0715 00:41:57.207900 28842 net.cpp:399] inception_4b/output -> inception_4b/output
I0715 00:41:57.208132 28842 net.cpp:141] Setting up inception_4b/output
I0715 00:41:57.208143 28842 net.cpp:148] Top shape: 10 512 14 14 (1003520)
I0715 00:41:57.208148 28842 net.cpp:156] Memory required for data: 407805440
I0715 00:41:57.208153 28842 layer_factory.hpp:77] Creating layer inception_4b/output_inception_4b/output_0_split
I0715 00:41:57.208160 28842 net.cpp:91] Creating Layer inception_4b/output_inception_4b/output_0_split
I0715 00:41:57.208173 28842 net.cpp:425] inception_4b/output_inception_4b/output_0_split <- inception_4b/output
I0715 00:41:57.208179 28842 net.cpp:399] inception_4b/output_inception_4b/output_0_split -> inception_4b/output_inception_4b/output_0_split_0
I0715 00:41:57.208189 28842 net.cpp:399] inception_4b/output_inception_4b/output_0_split -> inception_4b/output_inception_4b/output_0_split_1
I0715 00:41:57.208196 28842 net.cpp:399] inception_4b/output_inception_4b/output_0_split -> inception_4b/output_inception_4b/output_0_split_2
I0715 00:41:57.208204 28842 net.cpp:399] inception_4b/output_inception_4b/output_0_split -> inception_4b/output_inception_4b/output_0_split_3
I0715 00:41:57.209492 28842 net.cpp:141] Setting up inception_4b/output_inception_4b/output_0_split
I0715 00:41:57.209507 28842 net.cpp:148] Top shape: 10 512 14 14 (1003520)
I0715 00:41:57.209512 28842 net.cpp:148] Top shape: 10 512 14 14 (1003520)
I0715 00:41:57.209517 28842 net.cpp:148] Top shape: 10 512 14 14 (1003520)
I0715 00:41:57.209522 28842 net.cpp:148] Top shape: 10 512 14 14 (1003520)
I0715 00:41:57.209527 28842 net.cpp:156] Memory required for data: 423861760
I0715 00:41:57.209532 28842 layer_factory.hpp:77] Creating layer inception_4c/1x1
I0715 00:41:57.209547 28842 net.cpp:91] Creating Layer inception_4c/1x1
I0715 00:41:57.209553 28842 net.cpp:425] inception_4c/1x1 <- inception_4b/output_inception_4b/output_0_split_0
I0715 00:41:57.209564 28842 net.cpp:399] inception_4c/1x1 -> inception_4c/1x1
I0715 00:41:57.214699 28846 net.cpp:141] Setting up inception_4b/3x3_reduce
I0715 00:41:57.214726 28846 net.cpp:148] Top shape: 10 112 14 14 (219520)
I0715 00:41:57.214731 28846 net.cpp:156] Memory required for data: 393003520
I0715 00:41:57.214743 28846 layer_factory.hpp:77] Creating layer inception_4b/relu_3x3_reduce
I0715 00:41:57.214754 28846 net.cpp:91] Creating Layer inception_4b/relu_3x3_reduce
I0715 00:41:57.214761 28846 net.cpp:425] inception_4b/relu_3x3_reduce <- inception_4b/3x3_reduce
I0715 00:41:57.214773 28846 net.cpp:386] inception_4b/relu_3x3_reduce -> inception_4b/3x3_reduce (in-place)
I0715 00:41:57.215301 28842 net.cpp:141] Setting up inception_4c/1x1
I0715 00:41:57.215319 28842 net.cpp:148] Top shape: 10 128 14 14 (250880)
I0715 00:41:57.215324 28846 net.cpp:141] Setting up inception_4b/relu_3x3_reduce
I0715 00:41:57.215327 28842 net.cpp:156] Memory required for data: 424865280
I0715 00:41:57.215342 28846 net.cpp:148] Top shape: 10 112 14 14 (219520)
I0715 00:41:57.215348 28846 net.cpp:156] Memory required for data: 393881600
I0715 00:41:57.215349 28842 layer_factory.hpp:77] Creating layer inception_4c/relu_1x1
I0715 00:41:57.215353 28846 layer_factory.hpp:77] Creating layer inception_4b/3x3
I0715 00:41:57.215365 28842 net.cpp:91] Creating Layer inception_4c/relu_1x1
I0715 00:41:57.215374 28842 net.cpp:425] inception_4c/relu_1x1 <- inception_4c/1x1
I0715 00:41:57.215378 28846 net.cpp:91] Creating Layer inception_4b/3x3
I0715 00:41:57.215385 28846 net.cpp:425] inception_4b/3x3 <- inception_4b/3x3_reduce
I0715 00:41:57.215389 28842 net.cpp:386] inception_4c/relu_1x1 -> inception_4c/1x1 (in-place)
I0715 00:41:57.215394 28846 net.cpp:399] inception_4b/3x3 -> inception_4b/3x3
I0715 00:41:57.217833 28842 net.cpp:141] Setting up inception_4c/relu_1x1
I0715 00:41:57.217856 28842 net.cpp:148] Top shape: 10 128 14 14 (250880)
I0715 00:41:57.217864 28842 net.cpp:156] Memory required for data: 425868800
I0715 00:41:57.217872 28842 layer_factory.hpp:77] Creating layer inception_4c/3x3_reduce
I0715 00:41:57.217895 28842 net.cpp:91] Creating Layer inception_4c/3x3_reduce
I0715 00:41:57.217903 28842 net.cpp:425] inception_4c/3x3_reduce <- inception_4b/output_inception_4b/output_0_split_1
I0715 00:41:57.217921 28842 net.cpp:399] inception_4c/3x3_reduce -> inception_4c/3x3_reduce
I0715 00:41:57.223045 28846 net.cpp:141] Setting up inception_4b/3x3
I0715 00:41:57.223063 28846 net.cpp:148] Top shape: 10 224 14 14 (439040)
I0715 00:41:57.223069 28846 net.cpp:156] Memory required for data: 395637760
I0715 00:41:57.223078 28846 layer_factory.hpp:77] Creating layer inception_4b/relu_3x3
I0715 00:41:57.223090 28846 net.cpp:91] Creating Layer inception_4b/relu_3x3
I0715 00:41:57.223096 28846 net.cpp:425] inception_4b/relu_3x3 <- inception_4b/3x3
I0715 00:41:57.223104 28846 net.cpp:386] inception_4b/relu_3x3 -> inception_4b/3x3 (in-place)
I0715 00:41:57.224102 28842 net.cpp:141] Setting up inception_4c/3x3_reduce
I0715 00:41:57.224122 28842 net.cpp:148] Top shape: 10 128 14 14 (250880)
I0715 00:41:57.224128 28846 net.cpp:141] Setting up inception_4b/relu_3x3
I0715 00:41:57.224128 28842 net.cpp:156] Memory required for data: 426872320
I0715 00:41:57.224145 28846 net.cpp:148] Top shape: 10 224 14 14 (439040)
I0715 00:41:57.224150 28846 net.cpp:156] Memory required for data: 397393920
I0715 00:41:57.224153 28842 layer_factory.hpp:77] Creating layer inception_4c/relu_3x3_reduce
I0715 00:41:57.224155 28846 layer_factory.hpp:77] Creating layer inception_4b/5x5_reduce
I0715 00:41:57.224164 28842 net.cpp:91] Creating Layer inception_4c/relu_3x3_reduce
I0715 00:41:57.224174 28842 net.cpp:425] inception_4c/relu_3x3_reduce <- inception_4c/3x3_reduce
I0715 00:41:57.224184 28842 net.cpp:386] inception_4c/relu_3x3_reduce -> inception_4c/3x3_reduce (in-place)
I0715 00:41:57.224186 28846 net.cpp:91] Creating Layer inception_4b/5x5_reduce
I0715 00:41:57.224194 28846 net.cpp:425] inception_4b/5x5_reduce <- inception_4a/output_inception_4a/output_0_split_2
I0715 00:41:57.224205 28846 net.cpp:399] inception_4b/5x5_reduce -> inception_4b/5x5_reduce
I0715 00:41:57.224812 28842 net.cpp:141] Setting up inception_4c/relu_3x3_reduce
I0715 00:41:57.224827 28842 net.cpp:148] Top shape: 10 128 14 14 (250880)
I0715 00:41:57.224833 28842 net.cpp:156] Memory required for data: 427875840
I0715 00:41:57.224840 28842 layer_factory.hpp:77] Creating layer inception_4c/3x3
I0715 00:41:57.224860 28842 net.cpp:91] Creating Layer inception_4c/3x3
I0715 00:41:57.224869 28842 net.cpp:425] inception_4c/3x3 <- inception_4c/3x3_reduce
I0715 00:41:57.224884 28842 net.cpp:399] inception_4c/3x3 -> inception_4c/3x3
I0715 00:41:57.228652 28846 net.cpp:141] Setting up inception_4b/5x5_reduce
I0715 00:41:57.228683 28846 net.cpp:148] Top shape: 10 24 14 14 (47040)
I0715 00:41:57.228689 28846 net.cpp:156] Memory required for data: 397582080
I0715 00:41:57.228703 28846 layer_factory.hpp:77] Creating layer inception_4b/relu_5x5_reduce
I0715 00:41:57.228711 28846 net.cpp:91] Creating Layer inception_4b/relu_5x5_reduce
I0715 00:41:57.228718 28846 net.cpp:425] inception_4b/relu_5x5_reduce <- inception_4b/5x5_reduce
I0715 00:41:57.228725 28846 net.cpp:386] inception_4b/relu_5x5_reduce -> inception_4b/5x5_reduce (in-place)
I0715 00:41:57.229526 28846 net.cpp:141] Setting up inception_4b/relu_5x5_reduce
I0715 00:41:57.229540 28846 net.cpp:148] Top shape: 10 24 14 14 (47040)
I0715 00:41:57.229544 28846 net.cpp:156] Memory required for data: 397770240
I0715 00:41:57.229549 28846 layer_factory.hpp:77] Creating layer inception_4b/5x5
I0715 00:41:57.229567 28846 net.cpp:91] Creating Layer inception_4b/5x5
I0715 00:41:57.229573 28846 net.cpp:425] inception_4b/5x5 <- inception_4b/5x5_reduce
I0715 00:41:57.229584 28846 net.cpp:399] inception_4b/5x5 -> inception_4b/5x5
I0715 00:41:57.233479 28846 net.cpp:141] Setting up inception_4b/5x5
I0715 00:41:57.233506 28846 net.cpp:148] Top shape: 10 64 14 14 (125440)
I0715 00:41:57.233512 28846 net.cpp:156] Memory required for data: 398272000
I0715 00:41:57.233521 28846 layer_factory.hpp:77] Creating layer inception_4b/relu_5x5
…
I0715 00:41:57.346771 28842 net.cpp:425] inception_4e/pool_proj <- inception_4e/pool
I0715 00:41:57.346781 28842 net.cpp:399] inception_4e/pool_proj -> inception_4e/pool_proj
I0715 00:41:57.351853 28846 net.cpp:141] Setting up inception_4e/5x5_reduce
I0715 00:41:57.351871 28846 net.cpp:148] Top shape: 10 32 14 14 (62720)
I0715 00:41:57.351876 28846 net.cpp:156] Memory required for data: 505899520
I0715 00:41:57.351886 28846 layer_factory.hpp:77] Creating layer inception_4e/relu_5x5_reduce
I0715 00:41:57.351897 28846 net.cpp:91] Creating Layer inception_4e/relu_5x5_reduce
I0715 00:41:57.351903 28846 net.cpp:425] inception_4e/relu_5x5_reduce <- inception_4e/5x5_reduce
I0715 00:41:57.351910 28846 net.cpp:386] inception_4e/relu_5x5_reduce -> inception_4e/5x5_reduce (in-place)
I0715 00:41:57.352845 28842 net.cpp:141] Setting up inception_4e/pool_proj
I0715 00:41:57.352861 28842 net.cpp:148] Top shape: 10 128 14 14 (250880)
I0715 00:41:57.352866 28842 net.cpp:156] Memory required for data: 513300480
I0715 00:41:57.352875 28842 layer_factory.hpp:77] Creating layer inception_4e/relu_pool_proj
I0715 00:41:57.352886 28842 net.cpp:91] Creating Layer inception_4e/relu_pool_proj
I0715 00:41:57.352892 28842 net.cpp:425] inception_4e/relu_pool_proj <- inception_4e/pool_proj
I0715 00:41:57.352900 28842 net.cpp:386] inception_4e/relu_pool_proj -> inception_4e/pool_proj (in-place)
I0715 00:41:57.352918 28846 net.cpp:141] Setting up inception_4e/relu_5x5_reduce
I0715 00:41:57.352931 28846 net.cpp:148] Top shape: 10 32 14 14 (62720)
I0715 00:41:57.352936 28846 net.cpp:156] Memory required for data: 506150400
I0715 00:41:57.352941 28846 layer_factory.hpp:77] Creating layer inception_4e/5x5
I0715 00:41:57.352957 28846 net.cpp:91] Creating Layer inception_4e/5x5
I0715 00:41:57.352964 28846 net.cpp:425] inception_4e/5x5 <- inception_4e/5x5_reduce
I0715 00:41:57.352977 28846 net.cpp:399] inception_4e/5x5 -> inception_4e/5x5
I0715 00:41:57.353518 28842 net.cpp:141] Setting up inception_4e/relu_pool_proj
I0715 00:41:57.353530 28842 net.cpp:148] Top shape: 10 128 14 14 (250880)
I0715 00:41:57.353534 28842 net.cpp:156] Memory required for data: 514304000
I0715 00:41:57.353539 28842 layer_factory.hpp:77] Creating layer inception_4e/output
I0715 00:41:57.353548 28842 net.cpp:91] Creating Layer inception_4e/output
I0715 00:41:57.353552 28842 net.cpp:425] inception_4e/output <- inception_4e/1x1
I0715 00:41:57.353559 28842 net.cpp:425] inception_4e/output <- inception_4e/3x3
I0715 00:41:57.353564 28842 net.cpp:425] inception_4e/output <- inception_4e/5x5
I0715 00:41:57.353569 28842 net.cpp:425] inception_4e/output <- inception_4e/pool_proj
I0715 00:41:57.353579 28842 net.cpp:399] inception_4e/output -> inception_4e/output
I0715 00:41:57.354625 28842 net.cpp:141] Setting up inception_4e/output
I0715 00:41:57.354640 28842 net.cpp:148] Top shape: 10 832 14 14 (1630720)
I0715 00:41:57.354645 28842 net.cpp:156] Memory required for data: 520826880
I0715 00:41:57.354648 28842 layer_factory.hpp:77] Creating layer pool4/3x3_s2
I0715 00:41:57.354662 28842 net.cpp:91] Creating Layer pool4/3x3_s2
I0715 00:41:57.354668 28842 net.cpp:425] pool4/3x3_s2 <- inception_4e/output
I0715 00:41:57.354676 28842 net.cpp:399] pool4/3x3_s2 -> pool4/3x3_s2
I0715 00:41:57.354775 28842 net.cpp:141] Setting up pool4/3x3_s2
I0715 00:41:57.354786 28842 net.cpp:148] Top shape: 10 832 7 7 (407680)
I0715 00:41:57.354790 28842 net.cpp:156] Memory required for data: 522457600
I0715 00:41:57.354794 28842 layer_factory.hpp:77] Creating layer pool4/3x3_s2_pool4/3x3_s2_0_split
I0715 00:41:57.354804 28842 net.cpp:91] Creating Layer pool4/3x3_s2_pool4/3x3_s2_0_split
I0715 00:41:57.354810 28842 net.cpp:425] pool4/3x3_s2_pool4/3x3_s2_0_split <- pool4/3x3_s2
I0715 00:41:57.354816 28842 net.cpp:399] pool4/3x3_s2_pool4/3x3_s2_0_split -> pool4/3x3_s2_pool4/3x3_s2_0_split_0
I0715 00:41:57.354825 28842 net.cpp:399] pool4/3x3_s2_pool4/3x3_s2_0_split -> pool4/3x3_s2_pool4/3x3_s2_0_split_1
I0715 00:41:57.354833 28842 net.cpp:399] pool4/3x3_s2_pool4/3x3_s2_0_split -> pool4/3x3_s2_pool4/3x3_s2_0_split_2
I0715 00:41:57.354840 28842 net.cpp:399] pool4/3x3_s2_pool4/3x3_s2_0_split -> pool4/3x3_s2_pool4/3x3_s2_0_split_3
I0715 00:41:57.354975 28842 net.cpp:141] Setting up pool4/3x3_s2_pool4/3x3_s2_0_split
I0715 00:41:57.354984 28842 net.cpp:148] Top shape: 10 832 7 7 (407680)
I0715 00:41:57.354990 28842 net.cpp:148] Top shape: 10 832 7 7 (407680)
I0715 00:41:57.354995 28842 net.cpp:148] Top shape: 10 832 7 7 (407680)
I0715 00:41:57.355000 28842 net.cpp:148] Top shape: 10 832 7 7 (407680)
I0715 00:41:57.355003 28842 net.cpp:156] Memory required for data: 528980480
I0715 00:41:57.355007 28842 layer_factory.hpp:77] Creating layer inception_5a/1x1
I0715 00:41:57.355023 28842 net.cpp:91] Creating Layer inception_5a/1x1
I0715 00:41:57.355029 28842 net.cpp:425] inception_5a/1x1 <- pool4/3x3_s2_pool4/3x3_s2_0_split_0
I0715 00:41:57.355041 28842 net.cpp:399] inception_5a/1x1 -> inception_5a/1x1
I0715 00:41:57.359768 28846 net.cpp:141] Setting up inception_4e/5x5
I0715 00:41:57.359786 28846 net.cpp:148] Top shape: 10 128 14 14 (250880)
I0715 00:41:57.359791 28846 net.cpp:156] Memory required for data: 507153920
I0715 00:41:57.359800 28846 layer_factory.hpp:77] Creating layer inception_4e/relu_5x5
I0715 00:41:57.359809 28846 net.cpp:91] Creating Layer inception_4e/relu_5x5
I0715 00:41:57.359817 28846 net.cpp:425] inception_4e/relu_5x5 <- inception_4e/5x5
I0715 00:41:57.359823 28846 net.cpp:386] inception_4e/relu_5x5 -> inception_4e/5x5 (in-place)
I0715 00:41:57.360905 28846 net.cpp:141] Setting up inception_4e/relu_5x5
I0715 00:41:57.360920 28846 net.cpp:148] Top shape: 10 128 14 14 (250880)
I0715 00:41:57.360925 28846 net.cpp:156] Memory required for data: 508157440
I0715 00:41:57.360930 28846 layer_factory.hpp:77] Creating layer inception_4e/pool
I0715 00:41:57.360941 28846 net.cpp:91] Creating Layer inception_4e/pool
I0715 00:41:57.360947 28846 net.cpp:425] inception_4e/pool <- inception_4d/output_inception_4d/output_0_split_3
I0715 00:41:57.360955 28846 net.cpp:399] inception_4e/pool -> inception_4e/pool
I0715 00:41:57.361155 28846 net.cpp:141] Setting up inception_4e/pool
I0715 00:41:57.361166 28846 net.cpp:148] Top shape: 10 528 14 14 (1034880)
I0715 00:41:57.361169 28846 net.cpp:156] Memory required for data: 512296960
I0715 00:41:57.361174 28846 layer_factory.hpp:77] Creating layer inception_4e/pool_proj
I0715 00:41:57.361191 28846 net.cpp:91] Creating Layer inception_4e/pool_proj
I0715 00:41:57.361197 28846 net.cpp:425] inception_4e/pool_proj <- inception_4e/pool
I0715 00:41:57.361207 28846 net.cpp:399] inception_4e/pool_proj -> inception_4e/pool_proj
I0715 00:41:57.361325 28842 net.cpp:141] Setting up inception_5a/1x1
I0715 00:41:57.361340 28842 net.cpp:148] Top shape: 10 256 7 7 (125440)
I0715 00:41:57.361343 28842 net.cpp:156] Memory required for data: 529482240
I0715 00:41:57.361352 28842 layer_factory.hpp:77] Creating layer inception_5a/relu_1x1
I0715 00:41:57.361363 28842 net.cpp:91] Creating Layer inception_5a/relu_1x1
I0715 00:41:57.361369 28842 net.cpp:425] inception_5a/relu_1x1 <- inception_5a/1x1
I0715 00:41:57.361376 28842 net.cpp:386] inception_5a/relu_1x1 -> inception_5a/1x1 (in-place)
I0715 00:41:57.362403 28842 net.cpp:141] Setting up inception_5a/relu_1x1
I0715 00:41:57.362421 28842 net.cpp:148] Top shape: 10 256 7 7 (125440)
I0715 00:41:57.362426 28842 net.cpp:156] Memory required for data: 529984000
I0715 00:41:57.362432 28842 layer_factory.hpp:77] Creating layer inception_5a/3x3_reduce
I0715 00:41:57.362447 28842 net.cpp:91] Creating Layer inception_5a/3x3_reduce
I0715 00:41:57.362453 28842 net.cpp:425] inception_5a/3x3_reduce <- pool4/3x3_s2_pool4/3x3_s2_0_split_1
I0715 00:41:57.362462 28842 net.cpp:399] inception_5a/3x3_reduce -> inception_5a/3x3_reduce
I0715 00:41:57.367527 28846 net.cpp:141] Setting up inception_4e/pool_proj
I0715 00:41:57.367543 28846 net.cpp:148] Top shape: 10 128 14 14 (250880)
I0715 00:41:57.367548 28846 net.cpp:156] Memory required for data: 513300480
I0715 00:41:57.367558 28846 layer_factory.hpp:77] Creating layer inception_4e/relu_pool_proj
I0715 00:41:57.367566 28846 net.cpp:91] Creating Layer inception_4e/relu_pool_proj
I0715 00:41:57.367573 28846 net.cpp:425] inception_4e/relu_pool_proj <- inception_4e/pool_proj
I0715 00:41:57.367583 28846 net.cpp:386] inception_4e/relu_pool_proj -> inception_4e/pool_proj (in-place)
I0715 00:41:57.368758 28842 net.cpp:141] Setting up inception_5a/3x3_reduce
I0715 00:41:57.368772 28846 net.cpp:141] Setting up inception_4e/relu_pool_proj
I0715 00:41:57.368775 28842 net.cpp:148] Top shape: 10 160 7 7 (78400)
I0715 00:41:57.368788 28846 net.cpp:148] Top shape: 10 128 14 14 (250880)
I0715 00:41:57.368789 28842 net.cpp:156] Memory required for data: 530297600
I0715 00:41:57.368793 28846 net.cpp:156] Memory required for data: 514304000
I0715 00:41:57.368798 28846 layer_factory.hpp:77] Creating layer inception_4e/output
I0715 00:41:57.368799 28842 layer_factory.hpp:77] Creating layer inception_5a/relu_3x3_reduce
I0715 00:41:57.368815 28842 net.cpp:91] Creating Layer inception_5a/relu_3x3_reduce
I0715 00:41:57.368816 28846 net.cpp:91] Creating Layer inception_4e/output
I0715 00:41:57.368821 28842 net.cpp:425] inception_5a/relu_3x3_reduce <- inception_5a/3x3_reduce
I0715 00:41:57.368824 28846 net.cpp:425] inception_4e/output <- inception_4e/1x1
I0715 00:41:57.368831 28846 net.cpp:425] inception_4e/output <- inception_4e/3x3
I0715 00:41:57.368832 28842 net.cpp:386] inception_5a/relu_3x3_reduce -> inception_5a/3x3_reduce (in-place)
I0715 00:41:57.368836 28846 net.cpp:425] inception_4e/output <- inception_4e/5x5
I0715 00:41:57.368841 28846 net.cpp:425] inception_4e/output <- inception_4e/pool_proj
I0715 00:41:57.368849 28846 net.cpp:399] inception_4e/output -> inception_4e/output
I0715 00:41:57.369067 28846 net.cpp:141] Setting up inception_4e/output
I0715 00:41:57.369078 28846 net.cpp:148] Top shape: 10 832 14 14 (1630720)
I0715 00:41:57.369083 28846 net.cpp:156] Memory required for data: 520826880
I0715 00:41:57.369087 28846 layer_factory.hpp:77] Creating layer pool4/3x3_s2
I0715 00:41:57.369096 28846 net.cpp:91] Creating Layer pool4/3x3_s2
I0715 00:41:57.369102 28846 net.cpp:425] pool4/3x3_s2 <- inception_4e/output
I0715 00:41:57.369112 28846 net.cpp:399] pool4/3x3_s2 -> pool4/3x3_s2
I0715 00:41:57.369247 28846 net.cpp:141] Setting up pool4/3x3_s2
I0715 00:41:57.369258 28846 net.cpp:148] Top shape: 10 832 7 7 (407680)
I0715 00:41:57.369262 28846 net.cpp:156] Memory required for data: 522457600
I0715 00:41:57.369266 28846 layer_factory.hpp:77] Creating layer pool4/3x3_s2_pool4/3x3_s2_0_split
I0715 00:41:57.369277 28842 net.cpp:141] Setting up inception_5a/relu_3x3_reduce
I0715 00:41:57.369282 28846 net.cpp:91] Creating Layer pool4/3x3_s2_pool4/3x3_s2_0_split
I0715 00:41:57.369287 28842 net.cpp:148] Top shape: 10 160 7 7 (78400)
I0715 00:41:57.369288 28846 net.cpp:425] pool4/3x3_s2_pool4/3x3_s2_0_split <- pool4/3x3_s2
I0715 00:41:57.369297 28842 net.cpp:156] Memory required for data: 530611200
I0715 00:41:57.369302 28842 layer_factory.hpp:77] Creating layer inception_5a/3x3
I0715 00:41:57.369302 28846 net.cpp:399] pool4/3x3_s2_pool4/3x3_s2_0_split -> pool4/3x3_s2_pool4/3x3_s2_0_split_0
I0715 00:41:57.369313 28846 net.cpp:399] pool4/3x3_s2_pool4/3x3_s2_0_split -> pool4/3x3_s2_pool4/3x3_s2_0_split_1
I0715 00:41:57.369318 28842 net.cpp:91] Creating Layer inception_5a/3x3
I0715 00:41:57.369321 28846 net.cpp:399] pool4/3x3_s2_pool4/3x3_s2_0_split -> pool4/3x3_s2_pool4/3x3_s2_0_split_2
I0715 00:41:57.369324 28842 net.cpp:425] inception_5a/3x3 <- inception_5a/3x3_reduce
I0715 00:41:57.369329 28846 net.cpp:399] pool4/3x3_s2_pool4/3x3_s2_0_split -> pool4/3x3_s2_pool4/3x3_s2_0_split_3
I0715 00:41:57.369334 28842 net.cpp:399] inception_5a/3x3 -> inception_5a/3x3
I0715 00:41:57.369540 28846 net.cpp:141] Setting up pool4/3x3_s2_pool4/3x3_s2_0_split
I0715 00:41:57.369551 28846 net.cpp:148] Top shape: 10 832 7 7 (407680)
I0715 00:41:57.369556 28846 net.cpp:148] Top shape: 10 832 7 7 (407680)
I0715 00:41:57.369561 28846 net.cpp:148] Top shape: 10 832 7 7 (407680)
I0715 00:41:57.369567 28846 net.cpp:148] Top shape: 10 832 7 7 (407680)
I0715 00:41:57.369571 28846 net.cpp:156] Memory required for data: 528980480
I0715 00:41:57.369575 28846 layer_factory.hpp:77] Creating layer inception_5a/1x1
I0715 00:41:57.369590 28846 net.cpp:91] Creating Layer inception_5a/1x1
I0715 00:41:57.369596 28846 net.cpp:425] inception_5a/1x1 <- pool4/3x3_s2_pool4/3x3_s2_0_split_0
I0715 00:41:57.369608 28846 net.cpp:399] inception_5a/1x1 -> inception_5a/1x1
I0715 00:41:57.378706 28846 net.cpp:141] Setting up inception_5a/1x1
I0715 00:41:57.378728 28846 net.cpp:148] Top shape: 10 256 7 7 (125440)
I0715 00:41:57.378733 28846 net.cpp:156] Memory required for data: 529482240
I0715 00:41:57.378743 28846 layer_factory.hpp:77] Creating layer inception_5a/relu_1x1
I0715 00:41:57.378757 28846 net.cpp:91] Creating Layer inception_5a/relu_1x1
I0715 00:41:57.378764 28846 net.cpp:425] inception_5a/relu_1x1 <- inception_5a/1x1
I0715 00:41:57.378772 28846 net.cpp:386] inception_5a/relu_1x1 -> inception_5a/1x1 (in-place)
I0715 00:41:57.380358 28842 net.cpp:141] Setting up inception_5a/3x3
I0715 00:41:57.380375 28842 net.cpp:148] Top shape: 10 320 7 7 (156800)
I0715 00:41:57.380380 28842 net.cpp:156] Memory required for data: 531238400
I0715 00:41:57.380389 28842 layer_factory.hpp:77] Creating layer inception_5a/relu_3x3
I0715 00:41:57.380398 28842 net.cpp:91] Creating Layer inception_5a/relu_3x3
I0715 00:41:57.380403 28842 net.cpp:425] inception_5a/relu_3x3 <- inception_5a/3x3
I0715 00:41:57.380414 28842 net.cpp:386] inception_5a/relu_3x3 -> inception_5a/3x3 (in-place)
I0715 00:41:57.380431 28846 net.cpp:141] Setting up inception_5a/relu_1x1
I0715 00:41:57.380445 28846 net.cpp:148] Top shape: 10 256 7 7 (125440)
I0715 00:41:57.380450 28846 net.cpp:156] Memory required for data: 529984000
I0715 00:41:57.380455 28846 layer_factory.hpp:77] Creating layer inception_5a/3x3_reduce
I0715 00:41:57.380473 28846 net.cpp:91] Creating Layer inception_5a/3x3_reduce
I0715 00:41:57.380481 28846 net.cpp:425] inception_5a/3x3_reduce <- pool4/3x3_s2_pool4/3x3_s2_0_split_1
I0715 00:41:57.380489 28846 net.cpp:399] inception_5a/3x3_reduce -> inception_5a/3x3_reduce
I0715 00:41:57.382117 28842 net.cpp:141] Setting up inception_5a/relu_3x3
I0715 00:41:57.382133 28842 net.cpp:148] Top shape: 10 320 7 7 (156800)
I0715 00:41:57.382136 28842 net.cpp:156] Memory required for data: 531865600
I0715 00:41:57.382141 28842 layer_factory.hpp:77] Creating layer inception_5a/5x5_reduce
I0715 00:41:57.382158 28842 net.cpp:91] Creating Layer inception_5a/5x5_reduce
I0715 00:41:57.382164 28842 net.cpp:425] inception_5a/5x5_reduce <- pool4/3x3_s2_pool4/3x3_s2_0_split_2
I0715 00:41:57.382176 28842 net.cpp:399] inception_5a/5x5_reduce -> inception_5a/5x5_reduce
I0715 00:41:57.387897 28846 net.cpp:141] Setting up inception_5a/3x3_reduce
I0715 00:41:57.387914 28846 net.cpp:148] Top shape: 10 160 7 7 (78400)
I0715 00:41:57.387919 28846 net.cpp:156] Memory required for data: 530297600
I0715 00:41:57.387928 28846 layer_factory.hpp:77] Creating layer inception_5a/relu_3x3_reduce
I0715 00:41:57.387938 28846 net.cpp:91] Creating Layer inception_5a/relu_3x3_reduce
I0715 00:41:57.387943 28846 net.cpp:425] inception_5a/relu_3x3_reduce <- inception_5a/3x3_reduce
I0715 00:41:57.387954 28846 net.cpp:386] inception_5a/relu_3x3_reduce -> inception_5a/3x3_reduce (in-place)
I0715 00:41:57.388216 28842 net.cpp:141] Setting up inception_5a/5x5_reduce
I0715 00:41:57.388231 28842 net.cpp:148] Top shape: 10 32 7 7 (15680)
I0715 00:41:57.388236 28842 net.cpp:156] Memory required for data: 531928320
I0715 00:41:57.388245 28842 layer_factory.hpp:77] Creating layer inception_5a/relu_5x5_reduce
I0715 00:41:57.388253 28842 net.cpp:91] Creating Layer inception_5a/relu_5x5_reduce
I0715 00:41:57.388258 28842 net.cpp:425] inception_5a/relu_5x5_reduce <- inception_5a/5x5_reduce
I0715 00:41:57.388269 28842 net.cpp:386] inception_5a/relu_5x5_reduce -> inception_5a/5x5_reduce (in-place)
I0715 00:41:57.389021 28846 net.cpp:141] Setting up inception_5a/relu_3x3_reduce
I0715 00:41:57.389036 28846 net.cpp:148] Top shape: 10 160 7 7 (78400)
I0715 00:41:57.389041 28846 net.cpp:156] Memory required for data: 530611200
I0715 00:41:57.389046 28846 layer_factory.hpp:77] Creating layer inception_5a/3x3
I0715 00:41:57.389060 28846 net.cpp:91] Creating Layer inception_5a/3x3
I0715 00:41:57.389066 28846 net.cpp:425] inception_5a/3x3 <- inception_5a/3x3_reduce
I0715 00:41:57.389077 28846 net.cpp:399] inception_5a/3x3 -> inception_5a/3x3
I0715 00:41:57.390846 28842 net.cpp:141] Setting up inception_5a/relu_5x5_reduce
I0715 00:41:57.390863 28842 net.cpp:148] Top shape: 10 32 7 7 (15680)
I0715 00:41:57.390868 28842 net.cpp:156] Memory required for data: 531991040
I0715 00:41:57.390873 28842 layer_factory.hpp:77] Creating layer inception_5a/5x5
I0715 00:41:57.390889 28842 net.cpp:91] Creating Layer inception_5a/5x5
I0715 00:41:57.390895 28842 net.cpp:425] inception_5a/5x5 <- inception_5a/5x5_reduce
I0715 00:41:57.390909 28842 net.cpp:399] inception_5a/5x5 -> inception_5a/5x5
I0715 00:41:57.394081 28842 net.cpp:141] Setting up inception_5a/5x5
I0715 00:41:57.394098 28842 net.cpp:148] Top shape: 10 128 7 7 (62720)
I0715 00:41:57.394104 28842 net.cpp:156] Memory required for data: 532241920
I0715 00:41:57.394112 28842 layer_factory.hpp:77] Creating layer inception_5a/relu_5x5
I0715 00:41:57.394145 28842 net.cpp:91] Creating Layer inception_5a/relu_5x5
I0715 00:41:57.394152 28842 net.cpp:425] inception_5a/relu_5x5 <- inception_5a/5x5
I0715 00:41:57.394160 28842 net.cpp:386] inception_5a/relu_5x5 -> inception_5a/5x5 (in-place)
I0715 00:41:57.395306 28842 net.cpp:141] Setting up inception_5a/relu_5x5
I0715 00:41:57.395321 28842 net.cpp:148] Top shape: 10 128 7 7 (62720)
I0715 00:41:57.395325 28842 net.cpp:156] Memory required for data: 532492800
I0715 00:41:57.395331 28842 layer_factory.hpp:77] Creating layer inception_5a/pool
I0715 00:41:57.395346 28842 net.cpp:91] Creating Layer inception_5a/pool
I0715 00:41:57.395352 28842 net.cpp:425] inception_5a/pool <- pool4/3x3_s2_pool4/3x3_s2_0_split_3
I0715 00:41:57.395362 28842 net.cpp:399] inception_5a/pool -> inception_5a/pool
I0715 00:41:57.395659 28842 net.cpp:141] Setting up inception_5a/pool
I0715 00:41:57.395669 28842 net.cpp:148] Top shape: 10 832 7 7 (407680)
I0715 00:41:57.395674 28842 net.cpp:156] Memory required for data: 534123520
I0715 00:41:57.395678 28842 layer_factory.hpp:77] Creating layer inception_5a/pool_proj
I0715 00:41:57.395694 28842 net.cpp:91] Creating Layer inception_5a/pool_proj
I0715 00:41:57.395699 28842 net.cpp:425] inception_5a/pool_proj <- inception_5a/pool
I0715 00:41:57.395710 28842 net.cpp:399] inception_5a/pool_proj -> inception_5a/pool_proj
I0715 00:41:57.397796 28846 net.cpp:141] Setting up inception_5a/3x3
I0715 00:41:57.397814 28846 net.cpp:148] Top shape: 10 320 7 7 (156800)
I0715 00:41:57.397819 28846 net.cpp:156] Memory required for data: 531238400
I0715 00:41:57.397828 28846 layer_factory.hpp:77] Creating layer inception_5a/relu_3x3
I0715 00:41:57.397837 28846 net.cpp:91] Creating Layer inception_5a/relu_3x3
I0715 00:41:57.397843 28846 net.cpp:425] inception_5a/relu_3x3 <- inception_5a/3x3
I0715 00:41:57.397850 28846 net.cpp:386] inception_5a/relu_3x3 -> inception_5a/3x3 (in-place)
I0715 00:41:57.399715 28846 net.cpp:141] Setting up inception_5a/relu_3x3
I0715 00:41:57.399731 28846 net.cpp:148] Top shape: 10 320 7 7 (156800)
I0715 00:41:57.399736 28846 net.cpp:156] Memory required for data: 531865600
I0715 00:41:57.399741 28846 layer_factory.hpp:77] Creating layer inception_5a/5x5_reduce
I0715 00:41:57.399758 28846 net.cpp:91] Creating Layer inception_5a/5x5_reduce
I0715 00:41:57.399765 28846 net.cpp:425] inception_5a/5x5_reduce <- pool4/3x3_s2_pool4/3x3_s2_0_split_2
I0715 00:41:57.399778 28846 net.cpp:399] inception_5a/5x5_reduce -> inception_5a/5x5_reduce
I0715 00:41:57.400959 28842 net.cpp:141] Setting up inception_5a/pool_proj
I0715 00:41:57.400974 28842 net.cpp:148] Top shape: 10 128 7 7 (62720)
I0715 00:41:57.400979 28842 net.cpp:156] Memory required for data: 534374400
I0715 00:41:57.400988 28842 layer_factory.hpp:77] Creating layer inception_5a/relu_pool_proj
I0715 00:41:57.400997 28842 net.cpp:91] Creating Layer inception_5a/relu_pool_proj
I0715 00:41:57.401003 28842 net.cpp:425] inception_5a/relu_pool_proj <- inception_5a/pool_proj
I0715 00:41:57.401013 28842 net.cpp:386] inception_5a/relu_pool_proj -> inception_5a/pool_proj (in-place)
I0715 00:41:57.402129 28842 net.cpp:141] Setting up inception_5a/relu_pool_proj
I0715 00:41:57.402144 28842 net.cpp:148] Top shape: 10 128 7 7 (62720)
I0715 00:41:57.402149 28842 net.cpp:156] Memory required for data: 534625280
I0715 00:41:57.402154 28842 layer_factory.hpp:77] Creating layer inception_5a/output
I0715 00:41:57.402163 28842 net.cpp:91] Creating Layer inception_5a/output
I0715 00:41:57.402168 28842 net.cpp:425] inception_5a/output <- inception_5a/1x1
I0715 00:41:57.402173 28842 net.cpp:425] inception_5a/output <- inception_5a/3x3
I0715 00:41:57.402179 28842 net.cpp:425] inception_5a/output <- inception_5a/5x5
I0715 00:41:57.402184 28842 net.cpp:425] inception_5a/output <- inception_5a/pool_proj
I0715 00:41:57.402195 28842 net.cpp:399] inception_5a/output -> inception_5a/output
I0715 00:41:57.402958 28842 net.cpp:141] Setting up inception_5a/output
I0715 00:41:57.402978 28842 net.cpp:148] Top shape: 10 832 7 7 (407680)
I0715 00:41:57.402982 28842 net.cpp:156] Memory required for data: 536256000
I0715 00:41:57.402987 28842 layer_factory.hpp:77] Creating layer inception_5a/output_inception_5a/output_0_split
I0715 00:41:57.402995 28842 net.cpp:91] Creating Layer inception_5a/output_inception_5a/output_0_split
I0715 00:41:57.403000 28842 net.cpp:425] inception_5a/output_inception_5a/output_0_split <- inception_5a/output
I0715 00:41:57.403007 28842 net.cpp:399] inception_5a/output_inception_5a/output_0_split -> inception_5a/output_inception_5a/output_0_split_0
I0715 00:41:57.403015 28842 net.cpp:399] inception_5a/output_inception_5a/output_0_split -> inception_5a/output_inception_5a/output_0_split_1
I0715 00:41:57.403023 28842 net.cpp:399] inception_5a/output_inception_5a/output_0_split -> inception_5a/output_inception_5a/output_0_split_2
I0715 00:41:57.403034 28842 net.cpp:399] inception_5a/output_inception_5a/output_0_split -> inception_5a/output_inception_5a/output_0_split_3
I0715 00:41:57.403254 28842 net.cpp:141] Setting up inception_5a/output_inception_5a/output_0_split
I0715 00:41:57.403264 28842 net.cpp:148] Top shape: 10 832 7 7 (407680)
I0715 00:41:57.403270 28842 net.cpp:148] Top shape: 10 832 7 7 (407680)
I0715 00:41:57.403275 28842 net.cpp:148] Top shape: 10 832 7 7 (407680)
I0715 00:41:57.403280 28842 net.cpp:148] Top shape: 10 832 7 7 (407680)
I0715 00:41:57.403283 28842 net.cpp:156] Memory required for data: 542778880
I0715 00:41:57.403288 28842 layer_factory.hpp:77] Creating layer inception_5b/1x1
I0715 00:41:57.403303 28842 net.cpp:91] Creating Layer inception_5b/1x1
I0715 00:41:57.403309 28842 net.cpp:425] inception_5b/1x1 <- inception_5a/output_inception_5a/output_0_split_0
I0715 00:41:57.403319 28842 net.cpp:399] inception_5b/1x1 -> inception_5b/1x1
I0715 00:41:57.406038 28846 net.cpp:141] Setting up inception_5a/5x5_reduce
I0715 00:41:57.406060 28846 net.cpp:148] Top shape: 10 32 7 7 (15680)
I0715 00:41:57.406066 28846 net.cpp:156] Memory required for data: 531928320
I0715 00:41:57.406077 28846 layer_factory.hpp:77] Creating layer inception_5a/relu_5x5_reduce
I0715 00:41:57.406087 28846 net.cpp:91] Creating Layer inception_5a/relu_5x5_reduce
I0715 00:41:57.406095 28846 net.cpp:425] inception_5a/relu_5x5_reduce <- inception_5a/5x5_reduce
I0715 00:41:57.406106 28846 net.cpp:386] inception_5a/relu_5x5_reduce -> inception_5a/5x5_reduce (in-place)
I0715 00:41:57.406394 28846 net.cpp:141] Setting up inception_5a/relu_5x5_reduce
I0715 00:41:57.406406 28846 net.cpp:148] Top shape: 10 32 7 7 (15680)
I0715 00:41:57.406411 28846 net.cpp:156] Memory required for data: 531991040
I0715 00:41:57.406416 28846 layer_factory.hpp:77] Creating layer inception_5a/5x5
I0715 00:41:57.406435 28846 net.cpp:91] Creating Layer inception_5a/5x5
I0715 00:41:57.406440 28846 net.cpp:425] inception_5a/5x5 <- inception_5a/5x5_reduce
I0715 00:41:57.406450 28846 net.cpp:399] inception_5a/5x5 -> inception_5a/5x5
I0715 00:41:57.412139 28842 net.cpp:141] Setting up inception_5b/1x1
I0715 00:41:57.412169 28842 net.cpp:148] Top shape: 10 384 7 7 (188160)
I0715 00:41:57.412175 28842 net.cpp:156] Memory required for data: 543531520
I0715 00:41:57.412187 28842 layer_factory.hpp:77] Creating layer inception_5b/relu_1x1
I0715 00:41:57.412202 28842 net.cpp:91] Creating Layer inception_5b/relu_1x1
I0715 00:41:57.412209 28842 net.cpp:425] inception_5b/relu_1x1 <- inception_5b/1x1
I0715 00:41:57.412217 28842 net.cpp:386] inception_5b/relu_1x1 -> inception_5b/1x1 (in-place)
I0715 00:41:57.414111 28842 net.cpp:141] Setting up inception_5b/relu_1x1
I0715 00:41:57.414136 28842 net.cpp:148] Top shape: 10 384 7 7 (188160)
I0715 00:41:57.414145 28842 net.cpp:156] Memory required for data: 544284160
I0715 00:41:57.414156 28842 layer_factory.hpp:77] Creating layer inception_5b/3x3_reduce
I0715 00:41:57.414186 28842 net.cpp:91] Creating Layer inception_5b/3x3_reduce
I0715 00:41:57.414197 28842 net.cpp:425] inception_5b/3x3_reduce <- inception_5a/output_inception_5a/output_0_split_1
I0715 00:41:57.414212 28842 net.cpp:399] inception_5b/3x3_reduce -> inception_5b/3x3_reduce
I0715 00:41:57.414350 28846 net.cpp:141] Setting up inception_5a/5x5
I0715 00:41:57.414366 28846 net.cpp:148] Top shape: 10 128 7 7 (62720)
I0715 00:41:57.414371 28846 net.cpp:156] Memory required for data: 532241920
I0715 00:41:57.414381 28846 layer_factory.hpp:77] Creating layer inception_5a/relu_5x5
I0715 00:41:57.414417 28846 net.cpp:91] Creating Layer inception_5a/relu_5x5
I0715 00:41:57.414425 28846 net.cpp:425] inception_5a/relu_5x5 <- inception_5a/5x5
I0715 00:41:57.414433 28846 net.cpp:386] inception_5a/relu_5x5 -> inception_5a/5x5 (in-place)
I0715 00:41:57.415884 28846 net.cpp:141] Setting up inception_5a/relu_5x5
I0715 00:41:57.415901 28846 net.cpp:148] Top shape: 10 128 7 7 (62720)
I0715 00:41:57.415906 28846 net.cpp:156] Memory required for data: 532492800
I0715 00:41:57.415912 28846 layer_factory.hpp:77] Creating layer inception_5a/pool
I0715 00:41:57.415926 28846 net.cpp:91] Creating Layer inception_5a/pool
I0715 00:41:57.415933 28846 net.cpp:425] inception_5a/pool <- pool4/3x3_s2_pool4/3x3_s2_0_split_3
I0715 00:41:57.415941 28846 net.cpp:399] inception_5a/pool -> inception_5a/pool
I0715 00:41:57.416045 28846 net.cpp:141] Setting up inception_5a/pool
I0715 00:41:57.416055 28846 net.cpp:148] Top shape: 10 832 7 7 (407680)
I0715 00:41:57.416059 28846 net.cpp:156] Memory required for data: 534123520
I0715 00:41:57.416064 28846 layer_factory.hpp:77] Creating layer inception_5a/pool_proj
I0715 00:41:57.416079 28846 net.cpp:91] Creating Layer inception_5a/pool_proj
I0715 00:41:57.416085 28846 net.cpp:425] inception_5a/pool_proj <- inception_5a/pool
I0715 00:41:57.416097 28846 net.cpp:399] inception_5a/pool_proj -> inception_5a/pool_proj
I0715 00:41:57.422720 28842 net.cpp:141] Setting up inception_5b/3x3_reduce
I0715 00:41:57.422744 28842 net.cpp:148] Top shape: 10 192 7 7 (94080)
I0715 00:41:57.422750 28842 net.cpp:156] Memory required for data: 544660480
I0715 00:41:57.422760 28842 layer_factory.hpp:77] Creating layer inception_5b/relu_3x3_reduce
I0715 00:41:57.422781 28842 net.cpp:91] Creating Layer inception_5b/relu_3x3_reduce
I0715 00:41:57.422788 28842 net.cpp:425] inception_5b/relu_3x3_reduce <- inception_5b/3x3_reduce
I0715 00:41:57.422797 28842 net.cpp:386] inception_5b/relu_3x3_reduce -> inception_5b/3x3_reduce (in-place)
I0715 00:41:57.423864 28846 net.cpp:141] Setting up inception_5a/pool_proj
I0715 00:41:57.423882 28846 net.cpp:148] Top shape: 10 128 7 7 (62720)
I0715 00:41:57.423889 28846 net.cpp:156] Memory required for data: 534374400
I0715 00:41:57.423899 28846 layer_factory.hpp:77] Creating layer inception_5a/relu_pool_proj
I0715 00:41:57.423908 28846 net.cpp:91] Creating Layer inception_5a/relu_pool_proj
I0715 00:41:57.423914 28846 net.cpp:425] inception_5a/relu_pool_proj <- inception_5a/pool_proj
I0715 00:41:57.423921 28846 net.cpp:386] inception_5a/relu_pool_proj -> inception_5a/pool_proj (in-place)
I0715 00:41:57.423931 28842 net.cpp:141] Setting up inception_5b/relu_3x3_reduce
I0715 00:41:57.423944 28842 net.cpp:148] Top shape: 10 192 7 7 (94080)
I0715 00:41:57.423949 28842 net.cpp:156] Memory required for data: 545036800
I0715 00:41:57.423954 28842 layer_factory.hpp:77] Creating layer inception_5b/3x3
I0715 00:41:57.423974 28842 net.cpp:91] Creating Layer inception_5b/3x3
I0715 00:41:57.423979 28842 net.cpp:425] inception_5b/3x3 <- inception_5b/3x3_reduce
I0715 00:41:57.423988 28842 net.cpp:399] inception_5b/3x3 -> inception_5b/3x3
I0715 00:41:57.424576 28846 net.cpp:141] Setting up inception_5a/relu_pool_proj
I0715 00:41:57.424589 28846 net.cpp:148] Top shape: 10 128 7 7 (62720)
I0715 00:41:57.424593 28846 net.cpp:156] Memory required for data: 534625280
I0715 00:41:57.424598 28846 layer_factory.hpp:77] Creating layer inception_5a/output
I0715 00:41:57.424607 28846 net.cpp:91] Creating Layer inception_5a/output
I0715 00:41:57.424613 28846 net.cpp:425] inception_5a/output <- inception_5a/1x1
I0715 00:41:57.424619 28846 net.cpp:425] inception_5a/output <- inception_5a/3x3
I0715 00:41:57.424625 28846 net.cpp:425] inception_5a/output <- inception_5a/5x5
I0715 00:41:57.424630 28846 net.cpp:425] inception_5a/output <- inception_5a/pool_proj
I0715 00:41:57.424656 28846 net.cpp:399] inception_5a/output -> inception_5a/output
I0715 00:41:57.426443 28846 net.cpp:141] Setting up inception_5a/output
I0715 00:41:57.426460 28846 net.cpp:148] Top shape: 10 832 7 7 (407680)
I0715 00:41:57.426463 28846 net.cpp:156] Memory required for data: 536256000
I0715 00:41:57.426468 28846 layer_factory.hpp:77] Creating layer inception_5a/output_inception_5a/output_0_split
I0715 00:41:57.426486 28846 net.cpp:91] Creating Layer inception_5a/output_inception_5a/output_0_split
I0715 00:41:57.426491 28846 net.cpp:425] inception_5a/output_inception_5a/output_0_split <- inception_5a/output
I0715 00:41:57.426498 28846 net.cpp:399] inception_5a/output_inception_5a/output_0_split -> inception_5a/output_inception_5a/output_0_split_0
I0715 00:41:57.426509 28846 net.cpp:399] inception_5a/output_inception_5a/output_0_split -> inception_5a/output_inception_5a/output_0_split_1
I0715 00:41:57.426517 28846 net.cpp:399] inception_5a/output_inception_5a/output_0_split -> inception_5a/output_inception_5a/output_0_split_2
I0715 00:41:57.426525 28846 net.cpp:399] inception_5a/output_inception_5a/output_0_split -> inception_5a/output_inception_5a/output_0_split_3
I0715 00:41:57.426678 28846 net.cpp:141] Setting up inception_5a/output_inception_5a/output_0_split
I0715 00:41:57.426699 28846 net.cpp:148] Top shape: 10 832 7 7 (407680)
I0715 00:41:57.426707 28846 net.cpp:148] Top shape: 10 832 7 7 (407680)
I0715 00:41:57.426712 28846 net.cpp:148] Top shape: 10 832 7 7 (407680)
I0715 00:41:57.426717 28846 net.cpp:148] Top shape: 10 832 7 7 (407680)
I0715 00:41:57.426720 28846 net.cpp:156] Memory required for data: 542778880
I0715 00:41:57.426724 28846 layer_factory.hpp:77] Creating layer inception_5b/1x1
I0715 00:41:57.426739 28846 net.cpp:91] Creating Layer inception_5b/1x1
I0715 00:41:57.426745 28846 net.cpp:425] inception_5b/1x1 <- inception_5a/output_inception_5a/output_0_split_0
I0715 00:41:57.426758 28846 net.cpp:399] inception_5b/1x1 -> inception_5b/1x1
I0715 00:41:57.435230 28846 net.cpp:141] Setting up inception_5b/1x1
I0715 00:41:57.435255 28846 net.cpp:148] Top shape: 10 384 7 7 (188160)
I0715 00:41:57.435259 28846 net.cpp:156] Memory required for data: 543531520
I0715 00:41:57.435269 28846 layer_factory.hpp:77] Creating layer inception_5b/relu_1x1
I0715 00:41:57.435279 28846 net.cpp:91] Creating Layer inception_5b/relu_1x1
I0715 00:41:57.435286 28846 net.cpp:425] inception_5b/relu_1x1 <- inception_5b/1x1
I0715 00:41:57.435292 28846 net.cpp:386] inception_5b/relu_1x1 -> inception_5b/1x1 (in-place)
I0715 00:41:57.436120 28842 net.cpp:141] Setting up inception_5b/3x3
I0715 00:41:57.436136 28842 net.cpp:148] Top shape: 10 384 7 7 (188160)
I0715 00:41:57.436141 28842 net.cpp:156] Memory required for data: 545789440
I0715 00:41:57.436151 28842 layer_factory.hpp:77] Creating layer inception_5b/relu_3x3
I0715 00:41:57.436162 28842 net.cpp:91] Creating Layer inception_5b/relu_3x3
I0715 00:41:57.436168 28842 net.cpp:425] inception_5b/relu_3x3 <- inception_5b/3x3
I0715 00:41:57.436177 28842 net.cpp:386] inception_5b/relu_3x3 -> inception_5b/3x3 (in-place)
I0715 00:41:57.436513 28846 net.cpp:141] Setting up inception_5b/relu_1x1
I0715 00:41:57.436529 28846 net.cpp:148] Top shape: 10 384 7 7 (188160)
I0715 00:41:57.436533 28846 net.cpp:156] Memory required for data: 544284160
I0715 00:41:57.436538 28846 layer_factory.hpp:77] Creating layer inception_5b/3x3_reduce
I0715 00:41:57.436556 28846 net.cpp:91] Creating Layer inception_5b/3x3_reduce
I0715 00:41:57.436563 28846 net.cpp:425] inception_5b/3x3_reduce <- inception_5a/output_inception_5a/output_0_split_1
I0715 00:41:57.436574 28846 net.cpp:399] inception_5b/3x3_reduce -> inception_5b/3x3_reduce
I0715 00:41:57.436578 28842 net.cpp:141] Setting up inception_5b/relu_3x3
I0715 00:41:57.436590 28842 net.cpp:148] Top shape: 10 384 7 7 (188160)
I0715 00:41:57.436595 28842 net.cpp:156] Memory required for data: 546542080
I0715 00:41:57.436600 28842 layer_factory.hpp:77] Creating layer inception_5b/5x5_reduce
I0715 00:41:57.436615 28842 net.cpp:91] Creating Layer inception_5b/5x5_reduce
I0715 00:41:57.436621 28842 net.cpp:425] inception_5b/5x5_reduce <- inception_5a/output_inception_5a/output_0_split_2
I0715 00:41:57.436632 28842 net.cpp:399] inception_5b/5x5_reduce -> inception_5b/5x5_reduce
I0715 00:41:57.443446 28842 net.cpp:141] Setting up inception_5b/5x5_reduce
I0715 00:41:57.443464 28842 net.cpp:148] Top shape: 10 48 7 7 (23520)
I0715 00:41:57.443470 28842 net.cpp:156] Memory required for data: 546636160
I0715 00:41:57.443478 28842 layer_factory.hpp:77] Creating layer inception_5b/relu_5x5_reduce
I0715 00:41:57.443486 28842 net.cpp:91] Creating Layer inception_5b/relu_5x5_reduce
I0715 00:41:57.443492 28842 net.cpp:425] inception_5b/relu_5x5_reduce <- inception_5b/5x5_reduce
I0715 00:41:57.443502 28842 net.cpp:386] inception_5b/relu_5x5_reduce -> inception_5b/5x5_reduce (in-place)
I0715 00:41:57.443541 28846 net.cpp:141] Setting up inception_5b/3x3_reduce
I0715 00:41:57.443555 28846 net.cpp:148] Top shape: 10 192 7 7 (94080)
I0715 00:41:57.443560 28846 net.cpp:156] Memory required for data: 544660480
I0715 00:41:57.443569 28846 layer_factory.hpp:77] Creating layer inception_5b/relu_3x3_reduce
I0715 00:41:57.443581 28846 net.cpp:91] Creating Layer inception_5b/relu_3x3_reduce
I0715 00:41:57.443588 28846 net.cpp:425] inception_5b/relu_3x3_reduce <- inception_5b/3x3_reduce
I0715 00:41:57.443594 28846 net.cpp:386] inception_5b/relu_3x3_reduce -> inception_5b/3x3_reduce (in-place)
I0715 00:41:57.444636 28842 net.cpp:141] Setting up inception_5b/relu_5x5_reduce
I0715 00:41:57.444653 28842 net.cpp:148] Top shape: 10 48 7 7 (23520)
I0715 00:41:57.444656 28842 net.cpp:156] Memory required for data: 546730240
I0715 00:41:57.444655 28846 net.cpp:141] Setting up inception_5b/relu_3x3_reduce
I0715 00:41:57.444661 28842 layer_factory.hpp:77] Creating layer inception_5b/5x5
I0715 00:41:57.444669 28846 net.cpp:148] Top shape: 10 192 7 7 (94080)
I0715 00:41:57.444674 28846 net.cpp:156] Memory required for data: 545036800
I0715 00:41:57.444679 28846 layer_factory.hpp:77] Creating layer inception_5b/3x3
I0715 00:41:57.444681 28842 net.cpp:91] Creating Layer inception_5b/5x5
I0715 00:41:57.444689 28842 net.cpp:425] inception_5b/5x5 <- inception_5b/5x5_reduce
I0715 00:41:57.444697 28842 net.cpp:399] inception_5b/5x5 -> inception_5b/5x5
I0715 00:41:57.444697 28846 net.cpp:91] Creating Layer inception_5b/3x3
I0715 00:41:57.444705 28846 net.cpp:425] inception_5b/3x3 <- inception_5b/3x3_reduce
I0715 00:41:57.444715 28846 net.cpp:399] inception_5b/3x3 -> inception_5b/3x3
I0715 00:41:57.450407 28842 net.cpp:141] Setting up inception_5b/5x5
I0715 00:41:57.450430 28842 net.cpp:148] Top shape: 10 128 7 7 (62720)
I0715 00:41:57.450435 28842 net.cpp:156] Memory required for data: 546981120
I0715 00:41:57.450445 28842 layer_factory.hpp:77] Creating layer inception_5b/relu_5x5
I0715 00:41:57.450454 28842 net.cpp:91] Creating Layer inception_5b/relu_5x5
I0715 00:41:57.450460 28842 net.cpp:425] inception_5b/relu_5x5 <- inception_5b/5x5
I0715 00:41:57.450471 28842 net.cpp:386] inception_5b/relu_5x5 -> inception_5b/5x5 (in-place)
I0715 00:41:57.450768 28842 net.cpp:141] Setting up inception_5b/relu_5x5
I0715 00:41:57.450783 28842 net.cpp:148] Top shape: 10 128 7 7 (62720)
I0715 00:41:57.450788 28842 net.cpp:156] Memory required for data: 547232000
I0715 00:41:57.450793 28842 layer_factory.hpp:77] Creating layer inception_5b/pool
I0715 00:41:57.450803 28842 net.cpp:91] Creating Layer inception_5b/pool
I0715 00:41:57.450808 28842 net.cpp:425] inception_5b/pool <- inception_5a/output_inception_5a/output_0_split_3
I0715 00:41:57.450814 28842 net.cpp:399] inception_5b/pool -> inception_5b/pool
I0715 00:41:57.450876 28842 net.cpp:141] Setting up inception_5b/pool
I0715 00:41:57.450886 28842 net.cpp:148] Top shape: 10 832 7 7 (407680)
I0715 00:41:57.450889 28842 net.cpp:156] Memory required for data: 548862720
I0715 00:41:57.450893 28842 layer_factory.hpp:77] Creating layer inception_5b/pool_proj
I0715 00:41:57.450909 28842 net.cpp:91] Creating Layer inception_5b/pool_proj
I0715 00:41:57.450916 28842 net.cpp:425] inception_5b/pool_proj <- inception_5b/pool
I0715 00:41:57.450925 28842 net.cpp:399] inception_5b/pool_proj -> inception_5b/pool_proj
I0715 00:41:57.457067 28846 net.cpp:141] Setting up inception_5b/3x3
I0715 00:41:57.457085 28846 net.cpp:148] Top shape: 10 384 7 7 (188160)
I0715 00:41:57.457090 28846 net.cpp:156] Memory required for data: 545789440
I0715 00:41:57.457099 28846 layer_factory.hpp:77] Creating layer inception_5b/relu_3x3
I0715 00:41:57.457120 28846 net.cpp:91] Creating Layer inception_5b/relu_3x3
I0715 00:41:57.457129 28846 net.cpp:425] inception_5b/relu_3x3 <- inception_5b/3x3
I0715 00:41:57.457136 28846 net.cpp:386] inception_5b/relu_3x3 -> inception_5b/3x3 (in-place)
I0715 00:41:57.457432 28842 net.cpp:141] Setting up inception_5b/pool_proj
I0715 00:41:57.457445 28842 net.cpp:148] Top shape: 10 128 7 7 (62720)
I0715 00:41:57.457450 28842 net.cpp:156] Memory required for data: 549113600
I0715 00:41:57.457459 28842 layer_factory.hpp:77] Creating layer inception_5b/relu_pool_proj
I0715 00:41:57.457469 28842 net.cpp:91] Creating Layer inception_5b/relu_pool_proj
I0715 00:41:57.457476 28842 net.cpp:425] inception_5b/relu_pool_proj <- inception_5b/pool_proj
I0715 00:41:57.457482 28842 net.cpp:386] inception_5b/relu_pool_proj -> inception_5b/pool_proj (in-place)
I0715 00:41:57.458271 28846 net.cpp:141] Setting up inception_5b/relu_3x3
I0715 00:41:57.458286 28846 net.cpp:148] Top shape: 10 384 7 7 (188160)
I0715 00:41:57.458289 28846 net.cpp:156] Memory required for data: 546542080
I0715 00:41:57.458295 28846 layer_factory.hpp:77] Creating layer inception_5b/5x5_reduce
I0715 00:41:57.458312 28846 net.cpp:91] Creating Layer inception_5b/5x5_reduce
I0715 00:41:57.458319 28846 net.cpp:425] inception_5b/5x5_reduce <- inception_5a/output_inception_5a/output_0_split_2
I0715 00:41:57.458330 28846 net.cpp:399] inception_5b/5x5_reduce -> inception_5b/5x5_reduce
I0715 00:41:57.458597 28842 net.cpp:141] Setting up inception_5b/relu_pool_proj
I0715 00:41:57.458616 28842 net.cpp:148] Top shape: 10 128 7 7 (62720)
I0715 00:41:57.458621 28842 net.cpp:156] Memory required for data: 549364480
I0715 00:41:57.458626 28842 layer_factory.hpp:77] Creating layer inception_5b/output
I0715 00:41:57.458633 28842 net.cpp:91] Creating Layer inception_5b/output
I0715 00:41:57.458638 28842 net.cpp:425] inception_5b/output <- inception_5b/1x1
I0715 00:41:57.458644 28842 net.cpp:425] inception_5b/output <- inception_5b/3x3
I0715 00:41:57.458649 28842 net.cpp:425] inception_5b/output <- inception_5b/5x5
I0715 00:41:57.458654 28842 net.cpp:425] inception_5b/output <- inception_5b/pool_proj
I0715 00:41:57.458660 28842 net.cpp:399] inception_5b/output -> inception_5b/output
I0715 00:41:57.458714 28842 net.cpp:141] Setting up inception_5b/output
I0715 00:41:57.458724 28842 net.cpp:148] Top shape: 10 1024 7 7 (501760)
I0715 00:41:57.458729 28842 net.cpp:156] Memory required for data: 551371520
I0715 00:41:57.458732 28842 layer_factory.hpp:77] Creating layer pool5/7x7_s1
I0715 00:41:57.458742 28842 net.cpp:91] Creating Layer pool5/7x7_s1
I0715 00:41:57.458747 28842 net.cpp:425] pool5/7x7_s1 <- inception_5b/output
I0715 00:41:57.458755 28842 net.cpp:399] pool5/7x7_s1 -> pool5/7x7_s1
I0715 00:41:57.460011 28842 net.cpp:141] Setting up pool5/7x7_s1
I0715 00:41:57.460023 28842 net.cpp:148] Top shape: 10 1024 1 1 (10240)
I0715 00:41:57.460028 28842 net.cpp:156] Memory required for data: 551412480
I0715 00:41:57.460033 28842 layer_factory.hpp:77] Creating layer pool5/drop_7x7_s1
I0715 00:41:57.460042 28842 net.cpp:91] Creating Layer pool5/drop_7x7_s1
I0715 00:41:57.460047 28842 net.cpp:425] pool5/drop_7x7_s1 <- pool5/7x7_s1
I0715 00:41:57.460053 28842 net.cpp:386] pool5/drop_7x7_s1 -> pool5/7x7_s1 (in-place)
I0715 00:41:57.460747 28842 net.cpp:141] Setting up pool5/drop_7x7_s1
I0715 00:41:57.460758 28842 net.cpp:148] Top shape: 10 1024 1 1 (10240)
I0715 00:41:57.460762 28842 net.cpp:156] Memory required for data: 551453440
I0715 00:41:57.460767 28842 layer_factory.hpp:77] Creating layer loss3/classifier
I0715 00:41:57.460780 28842 net.cpp:91] Creating Layer loss3/classifier
I0715 00:41:57.460785 28842 net.cpp:425] loss3/classifier <- pool5/7x7_s1
I0715 00:41:57.460793 28842 net.cpp:399] loss3/classifier -> loss3/classifier
I0715 00:41:57.463838 28846 net.cpp:141] Setting up inception_5b/5x5_reduce
I0715 00:41:57.463861 28846 net.cpp:148] Top shape: 10 48 7 7 (23520)
I0715 00:41:57.463866 28846 net.cpp:156] Memory required for data: 546636160
I0715 00:41:57.463876 28846 layer_factory.hpp:77] Creating layer inception_5b/relu_5x5_reduce
I0715 00:41:57.463886 28846 net.cpp:91] Creating Layer inception_5b/relu_5x5_reduce
I0715 00:41:57.463891 28846 net.cpp:425] inception_5b/relu_5x5_reduce <- inception_5b/5x5_reduce
I0715 00:41:57.463901 28846 net.cpp:386] inception_5b/relu_5x5_reduce -> inception_5b/5x5_reduce (in-place)
I0715 00:41:57.464783 28846 net.cpp:141] Setting up inception_5b/relu_5x5_reduce
I0715 00:41:57.464798 28846 net.cpp:148] Top shape: 10 48 7 7 (23520)
I0715 00:41:57.464803 28846 net.cpp:156] Memory required for data: 546730240
I0715 00:41:57.464808 28846 layer_factory.hpp:77] Creating layer inception_5b/5x5
I0715 00:41:57.464824 28846 net.cpp:91] Creating Layer inception_5b/5x5
I0715 00:41:57.464831 28846 net.cpp:425] inception_5b/5x5 <- inception_5b/5x5_reduce
I0715 00:41:57.464843 28846 net.cpp:399] inception_5b/5x5 -> inception_5b/5x5
I0715 00:41:57.467725 28846 net.cpp:141] Setting up inception_5b/5x5
I0715 00:41:57.467743 28846 net.cpp:148] Top shape: 10 128 7 7 (62720)
I0715 00:41:57.467748 28846 net.cpp:156] Memory required for data: 546981120
I0715 00:41:57.467757 28846 layer_factory.hpp:77] Creating layer inception_5b/relu_5x5
I0715 00:41:57.467767 28846 net.cpp:91] Creating Layer inception_5b/relu_5x5
I0715 00:41:57.467772 28846 net.cpp:425] inception_5b/relu_5x5 <- inception_5b/5x5
I0715 00:41:57.467784 28846 net.cpp:386] inception_5b/relu_5x5 -> inception_5b/5x5 (in-place)
I0715 00:41:57.468591 28846 net.cpp:141] Setting up inception_5b/relu_5x5
I0715 00:41:57.468606 28846 net.cpp:148] Top shape: 10 128 7 7 (62720)
I0715 00:41:57.468611 28846 net.cpp:156] Memory required for data: 547232000
I0715 00:41:57.468616 28846 layer_factory.hpp:77] Creating layer inception_5b/pool
I0715 00:41:57.468628 28846 net.cpp:91] Creating Layer inception_5b/pool
I0715 00:41:57.468636 28846 net.cpp:425] inception_5b/pool <- inception_5a/output_inception_5a/output_0_split_3
I0715 00:41:57.468643 28846 net.cpp:399] inception_5b/pool -> inception_5b/pool
I0715 00:41:57.468704 28846 net.cpp:141] Setting up inception_5b/pool
I0715 00:41:57.468713 28846 net.cpp:148] Top shape: 10 832 7 7 (407680)
I0715 00:41:57.468719 28846 net.cpp:156] Memory required for data: 548862720
I0715 00:41:57.468722 28846 layer_factory.hpp:77] Creating layer inception_5b/pool_proj
I0715 00:41:57.468739 28846 net.cpp:91] Creating Layer inception_5b/pool_proj
I0715 00:41:57.468744 28846 net.cpp:425] inception_5b/pool_proj <- inception_5b/pool
I0715 00:41:57.468752 28846 net.cpp:399] inception_5b/pool_proj -> inception_5b/pool_proj
I0715 00:41:57.471691 28842 net.cpp:141] Setting up loss3/classifier
I0715 00:41:57.471709 28842 net.cpp:148] Top shape: 10 1000 (10000)
I0715 00:41:57.471714 28842 net.cpp:156] Memory required for data: 551493440
I0715 00:41:57.471724 28842 layer_factory.hpp:77] Creating layer prob
I0715 00:41:57.471736 28842 net.cpp:91] Creating Layer prob
I0715 00:41:57.471743 28842 net.cpp:425] prob <- loss3/classifier
I0715 00:41:57.471750 28842 net.cpp:399] prob -> prob
I0715 00:41:57.473356 28842 net.cpp:141] Setting up prob
I0715 00:41:57.473371 28842 net.cpp:148] Top shape: 10 1000 (10000)
I0715 00:41:57.473376 28842 net.cpp:156] Memory required for data: 551533440
I0715 00:41:57.473379 28842 net.cpp:219] prob does not need backward computation.
I0715 00:41:57.473384 28842 net.cpp:219] loss3/classifier does not need backward computation.
I0715 00:41:57.473388 28842 net.cpp:219] pool5/drop_7x7_s1 does not need backward computation.
I0715 00:41:57.473392 28842 net.cpp:219] pool5/7x7_s1 does not need backward computation.
…
I0715 00:41:57.474072 28842 net.cpp:219] pool1/3x3_s2 does not need backward computation.
I0715 00:41:57.474076 28842 net.cpp:219] conv1/relu_7x7 does not need backward computation.
I0715 00:41:57.474081 28842 net.cpp:219] conv1/7x7_s2 does not need backward computation.
I0715 00:41:57.474086 28842 net.cpp:219] data does not need backward computation.
I0715 00:41:57.474088 28842 net.cpp:261] This network produces output prob
I0715 00:41:57.474217 28842 net.cpp:274] Network initialization done.
I0715 00:41:57.474517 28846 net.cpp:141] Setting up inception_5b/relu_pool_proj
I0715 00:41:57.474529 28846 net.cpp:148] Top shape: 10 128 7 7 (62720)
I0715 00:41:57.474534 28846 net.cpp:156] Memory required for data: 549364480
I0715 00:41:57.474539 28846 layer_factory.hpp:77] Creating layer inception_5b/output
I0715 00:41:57.474547 28846 net.cpp:91] Creating Layer inception_5b/output
I0715 00:41:57.474553 28846 net.cpp:425] inception_5b/output <- inception_5b/1x1
I0715 00:41:57.474560 28846 net.cpp:425] inception_5b/output <- inception_5b/3x3
I0715 00:41:57.474565 28846 net.cpp:425] inception_5b/output <- inception_5b/5x5
I0715 00:41:57.474570 28846 net.cpp:425] inception_5b/output <- inception_5b/pool_proj
I0715 00:41:57.474578 28846 net.cpp:399] inception_5b/output -> inception_5b/output
I0715 00:41:57.474617 28846 net.cpp:141] Setting up inception_5b/output
I0715 00:41:57.474625 28846 net.cpp:148] Top shape: 10 1024 7 7 (501760)
I0715 00:41:57.474630 28846 net.cpp:156] Memory required for data: 551371520
I0715 00:41:57.474635 28846 layer_factory.hpp:77] Creating layer pool5/7x7_s1
I0715 00:41:57.474652 28846 net.cpp:91] Creating Layer pool5/7x7_s1
I0715 00:41:57.474658 28846 net.cpp:425] pool5/7x7_s1 <- inception_5b/output
I0715 00:41:57.474664 28846 net.cpp:399] pool5/7x7_s1 -> pool5/7x7_s1
I0715 00:41:57.474989 28846 net.cpp:141] Setting up pool5/7x7_s1
I0715 00:41:57.475002 28846 net.cpp:148] Top shape: 10 1024 1 1 (10240)
I0715 00:41:57.475005 28846 net.cpp:156] Memory required for data: 551412480
I0715 00:41:57.475010 28846 layer_factory.hpp:77] Creating layer pool5/drop_7x7_s1
I0715 00:41:57.475020 28846 net.cpp:91] Creating Layer pool5/drop_7x7_s1
I0715 00:41:57.475028 28846 net.cpp:425] pool5/drop_7x7_s1 <- pool5/7x7_s1
I0715 00:41:57.475034 28846 net.cpp:386] pool5/drop_7x7_s1 -> pool5/7x7_s1 (in-place)
I0715 00:41:57.475066 28846 net.cpp:141] Setting up pool5/drop_7x7_s1
I0715 00:41:57.475075 28846 net.cpp:148] Top shape: 10 1024 1 1 (10240)
I0715 00:41:57.475078 28846 net.cpp:156] Memory required for data: 551453440
I0715 00:41:57.475082 28846 layer_factory.hpp:77] Creating layer loss3/classifier
I0715 00:41:57.475106 28846 net.cpp:91] Creating Layer loss3/classifier
I0715 00:41:57.475112 28846 net.cpp:425] loss3/classifier <- pool5/7x7_s1
I0715 00:41:57.475122 28846 net.cpp:399] loss3/classifier -> loss3/classifier
I0715 00:41:57.485929 28846 net.cpp:141] Setting up loss3/classifier
I0715 00:41:57.485978 28846 net.cpp:148] Top shape: 10 1000 (10000)
I0715 00:41:57.485983 28846 net.cpp:156] Memory required for data: 551493440
I0715 00:41:57.485997 28846 layer_factory.hpp:77] Creating layer prob
I0715 00:41:57.486018 28846 net.cpp:91] Creating Layer prob
I0715 00:41:57.486027 28846 net.cpp:425] prob <- loss3/classifier
I0715 00:41:57.486037 28846 net.cpp:399] prob -> prob
I0715 00:41:57.488214 28846 net.cpp:141] Setting up prob
I0715 00:41:57.488240 28846 net.cpp:148] Top shape: 10 1000 (10000)
I0715 00:41:57.488245 28846 net.cpp:156] Memory required for data: 551533440
I0715 00:41:57.488252 28846 net.cpp:219] prob does not need backward computation.
I0715 00:41:57.488257 28846 net.cpp:219] loss3/classifier does not need backward computation.
I0715 00:41:57.488262 28846 net.cpp:219] pool5/drop_7x7_s1 does not need backward computation.
I0715 00:41:57.488267 28846 net.cpp:219] pool5/7x7_s1 does not need backward computation.
…
