…
Java HotSpot(TM) 64-Bit Server VM warning: You have loaded library /tmp/cvld6778600000410579665/libopencv_java310.xine1.so which might have disabled stack guard. The VM will try to fix the stack guard now.
It's highly recommended that you fix the library with 'execstack -c <libfile>', or link it with '-z noexecstack'.
WARNING: Logging before InitGoogleLogging() is written to STDERR
I0727 20:33:54.163084  5109 net.cpp:49] Initializing net from parameters: 
name: "GoogleNet"
state {
  phase: TEST
}
layer {
  name: "data"
  type: "Input"
  top: "data"
  input_param {
    shape {
      dim: 10
      dim: 3
      dim: 224
      dim: 224
    }
  }
}
layer {
  name: "conv1/7x7_s2"
  type: "Convolution"
  bottom: "data"
  top: "conv1/7x7_s2"
  param {
    lr_mult: 1
    decay_mult: 1
  }
  param {
    lr_mult: 2
    decay_mult: 0
  }
  convolution_param {
    num_output: 64
    pad: 3
    kernel_size: 7
    stride: 2
    weight_filler {
      type: "xavier"
      std: 0.1
    }
    bias_filler {
      type: "constant"
      value: 0.2
    }
  }
}
layer {
  name: "conv1/relu_7x7"
  type: "ReLU"
  bottom: "conv1/7x7_s2"
  top: "conv1/7x7_s2"
}
layer {
  name: "pool1/3x3_s2"
  type: "Pooling"
  bottom: "conv1/7x7_s2"
  top: "pool1/3x3_s2"
  pooling_param {
    pool: MAX
    kernel_size: 3
    stride: 2
  }
}
layer {
  name: "pool1/norm1"
  type: "LRN"
  bottom: "pool1/3x3_s2"
  top: "pool1/norm1"
  lrn_param {
    local_size: 5
    alpha: 0.0001
    beta: 0.75
  }
}
layer {
  name: "conv2/3x3_reduce"
  type: "Convolution"
  bottom: "pool1/norm1"
  top: "conv2/3x3_reduce"
  param {
    lr_mult: 1
    decay_mult: 1
  }
  param {
    lr_mult: 2
    decay_mult: 0
  }
  convolution_param {
    num_output: 64
    kernel_size: 1
    weight_filler {
      type: "xavier"
      std: 0.1
    }
    bias_filler {
      type: "constant"
      value: 0.2
    }
  }
}
layer {
  name: "conv2/relu_3x3_reduce"
  type: "ReLU"
  bottom: "conv2/3x3_reduce"
  top: "conv2/3x3_reduce"
}
layer {
  name: "conv2/3x3"
  type: "Convolution"
  bottom: "conv2/3x3_reduce"
  top: "conv2/3x3"
  param {
    lr_mult: 1
    decay_mult: 1
  }
  param {
    lr_mult: 2
    decay_mult: 0
  }
  convolution_param {
    num_output: 192
    pad: 1
    kernel_size: 3
    weight_filler {
      type: "xavier"
      std: 0.03
    }
    bias_filler {
      type: "constant"
      value: 0.2
    }
  }
}
layer {
  name: "conv2/relu_3x3"
  type: "ReLU"
  bottom: "conv2/3x3"
  top: "conv2/3x3"
}
layer {
  name: "conv2/norm2"
  type: "LRN"
  bottom: "conv2/3x3"
  top: "conv2/norm2"
  lrn_param {
    local_size: 5
    alpha: 0.0001
    beta: 0.75
  }
}
layer {
  name: "pool2/3x3_s2"
  type: "Pooling"
  bottom: "conv2/norm2"
  top: "pool2/3x3_s2"
  pooling_param {
    pool: MAX
    kernel_size: 3
    stride: 2
  }
}
layer {
  name: "inception_3a/1x1"
  type: "Convolution"
  bottom: "pool2/3x3_s2"
  top: "inception_3a/1x1"
  param {
    lr_mult: 1
    decay_mult: 1
  }
  param {
    lr_mult: 2
    decay_mult: 0
  }
  convolution_param {
    num_output: 64
    kernel_size: 1
    weight_filler {
      type: "xavier"
      std: 0.03
    }
    bias_filler {
      type: "constant"
      value: 0.2
    }
  }
}
layer {
  name: "inception_3a/relu_1x1"
  type: "ReLU"
  bottom: "inception_3a/1x1"
  top: "inception_3a/1x1"
}
layer {
  name: "inception_3a/3x3_reduce"
  type: "Convolution"
  bottom: "pool2/3x3_s2"
  top: "inception_3a/3x3_reduce"
  param {
    lr_mult: 1
    decay_mult: 1
  }
  param {
    lr_mult: 2
    decay_mult: 0
  }
  convolution_param {
    num_output: 96
    kernel_size: 1
    weight_filler {
      type: "xavier"
      std: 0.09
    }
    bias_filler {
      type: "constant"
      value: 0.2
    }
  }
}
layer {
  name: "inception_3a/relu_3x3_reduce"
  type: "ReLU"
  bottom: "inception_3a/3x3_reduce"
  top: "inception_3a/3x3_reduce"
}
layer {
  name: "inception_3a/3x3"
  type: "Convolution"
  bottom: "inception_3a/3x3_reduce"
  top: "inception_3a/3x3"
  param {
    lr_mult: 1
    decay_mult: 1
  }
  param {
    lr_mult: 2
    decay_mult: 0
  }
  convolution_param {
    num_output: 128
    pad: 1
    kernel_size: 3
    weight_filler {
      type: "xavier"
      std: 0.03
    }
    bias_filler {
      type: "constant"
      value: 0.2
    }
  }
}
layer {
  name: "inception_3a/relu_3x3"
  type: "ReLU"
  bottom: "inception_3a/3x3"
  top: "inception_3a/3x3"
}
layer {
  name: "inception_3a/5x5_reduce"
  type: "Convolution"
  bottom: "pool2/3x3_s2"
  top: "inception_3a/5x5_reduce"
  param {
    lr_mult: 1
    decay_mult: 1
  }
  param {
    lr_mult: 2
    decay_mult: 0
  }
  convolution_param {
    num_output: 16
    kernel_size: 1
    weight_filler {
      type: "xavier"
      std: 0.2
    }
    bias_filler {
      type: "constant"
      value: 0.2
    }
  }
}
layer {
  name: "inception_3a/relu_5x5_reduce"
  type: "ReLU"
  bottom: "inception_3a/5x5_reduce"
  top: "inception_3a/5x5_reduce"
}
layer {
  name: "inception_3a/5x5"
  type: "Convolution"
  bottom: "inception_3a/5x5_reduce"
  top: "inception_3a/5x5"
  param {
    lr_mult: 1
    decay_mult: 1
  }
  param {
    lr_mult: 2
    decay_mult: 0
  }
  convolution_param {
    num_output: 32
    pad: 2
    kernel_size: 5
    weight_filler {
      type: "xavier"
      std: 0.03
    }
    bias_filler {
      type: "constant"
      value: 0.2
    }
  }
}
layer {
  name: "inception_3a/relu_5x5"
  type: "ReLU"
  bottom: "inception_3a/5x5"
  top: "inception_3a/5x5"
}
layer {
  name: "inception_3a/pool"
  type: "Pooling"
  bottom: "pool2/3x3_s2"
  top: "inception_3a/pool"
  pooling_param {
    pool: MAX
    kernel_size: 3
    stride: 1
    pad: 1
  }
}
layer {
  name: "inception_3a/pool_proj"
  type: "Convolution"
  bottom: "inception_3a/pool"
  top: "inception_3a/pool_proj"
  param {
    lr_mult: 1
    decay_mult: 1
  }
  param {
    lr_mult: 2
    decay_mult: 0
  }
  convolution_param {
    num_output: 32
    kernel_size: 1
    weight_filler {
      type: "xavier"
      std: 0.1
    }
    bias_filler {
      type: "constant"
      value: 0.2
    }
  }
}
layer {
  name: "inception_3a/relu_pool_proj"
  type: "ReLU"
  bottom: "inception_3a/pool_proj"
  top: "inception_3a/pool_proj"
}
layer {
  name: "inception_3a/output"
  type: "Concat"
  bottom: "inception_3a/1x1"
  bottom: "inception_3a/3x3"
  bottom: "inception_3a/5x5"
  bottom: "inception_3a/pool_proj"
  top: "inception_3a/output"
}
layer {
  name: "inception_3b/1x1"
  type: "Convolution"
  bottom: "inception_3a/output"
  top: "inception_3b/1x1"
  param {
    lr_mult: 1
    decay_mult: 1
  }
  param {
    lr_mult: 2
    decay_mult: 0
  }
  convolution_param {
    num_output: 128
    kernel_size: 1
    weight_filler {
      type: "xavier"
      std: 0.03
    }
    bias_filler {
      type: "constant"
      value: 0.2
    }
  }
}
layer {
  name: "inception_3b/relu_1x1"
  type: "ReLU"
  bottom: "inception_3b/1x1"
  top: "inception_3b/1x1"
}
layer {
  name: "inception_3b/3x3_reduce"
  type: "Convolution"
  bottom: "inception_3a/output"
  top: "inception_3b/3x3_reduce"
  param {
    lr_mult: 1
    decay_mult: 1
  }
  param {
    lr_mult: 2
    decay_mult: 0
  }
  convolution_param {
    num_output: 128
    kernel_size: 1
    weight_filler {
      type: "xavier"
      std: 0.09
    }
    bias_filler {
      type: "constant"
      value: 0.2
    }
  }
}
layer {
  name: "inception_3b/relu_3x3_reduce"
  type: "ReLU"
  bottom: "inception_3b/3x3_reduce"
  top: "inception_3b/3x3_reduce"
}
layer {
  name: "inception_3b/3x3"
  type: "Convolution"
  bottom: "inception_3b/3x3_reduce"
  top: "inception_3b/3x3"
  param {
    lr_mult: 1
    decay_mult: 1
  }
  param {
    lr_mult: 2
    decay_mult: 0
  }
  convolution_param {
    num_output: 192
    pad: 1
    kernel_size: 3
    weight_filler {
      type: "xavier"
      std: 0.03
    }
    bias_filler {
      type: "constant"
      value: 0.2
    }
  }
}
layer {
  name: "inception_3b/relu_3x3"
  type: "ReLU"
  bottom: "inception_3b/3x3"
  top: "inception_3b/3x3"
}
layer {
  name: "inception_3b/5x5_reduce"
  type: "Convolution"
  bottom: "inception_3a/output"
  top: "inception_3b/5x5_reduce"
  param {
    lr_mult: 1
    decay_mult: 1
  }
  param {
    lr_mult: 2
    decay_mult: 0
  }
  convolution_param {
    num_output: 32
    kernel_size: 1
    weight_filler {
      type: "xavier"
      std: 0.2
    }
    bias_filler {
      type: "constant"
      value: 0.2
    }
  }
}
layer {
  name: "inception_3b/relu_5x5_reduce"
  type: "ReLU"
  bottom: "inception_3b/5x5_reduce"
  top: "inception_3b/5x5_reduce"
}
layer {
  name: "inception_3b/5x5"
  type: "Convolution"
  bottom: "inception_3b/5x5_reduce"
  top: "inception_3b/5x5"
  param {
    lr_mult: 1
    decay_mult: 1
  }
  param {
    lr_mult: 2
    decay_mult: 0
  }
  convolution_param {
    num_output: 96
    pad: 2
    kernel_size: 5
    weight_filler {
      type: "xavier"
      std: 0.03
    }
    bias_filler {
      type: "constant"
      value: 0.2
    }
  }
}
layer {
  name: "inception_3b/relu_5x5"
  type: "ReLU"
  bottom: "inception_3b/5x5"
  top: "inception_3b/5x5"
}
layer {
  name: "inception_3b/pool"
  type: "Pooling"
  bottom: "inception_3a/output"
  top: "inception_3b/pool"
  pooling_param {
    pool: MAX
    kernel_size: 3
    stride: 1
    pad: 1
  }
}
layer {
  name: "inception_3b/pool_proj"
  type: "Convolution"
  bottom: "inception_3b/pool"
  top: "inception_3b/pool_proj"
  param {
    lr_mult: 1
    decay_mult: 1
  }
  param {
    lr_mult: 2
    decay_mult: 0
  }
  convolution_param {
    num_output: 64
    kernel_size: 1
    weight_filler {
      type: "xavier"
      std: 0.1
    }
    bias_filler {
      type: "constant"
      value: 0.2
    }
  }
}
layer {
  name: "inception_3b/relu_pool_proj"
  type: "ReLU"
  bottom: "inception_3b/pool_proj"
  top: "inception_3b/pool_proj"
}
layer {
  name: "inception_3b/output"
  type: "Concat"
  bottom: "inception_3b/1x1"
  bottom: "inception_3b/3x3"
  bottom: "inception_3b/5x5"
  bottom: "inception_3b/pool_proj"
  top: "inception_3b/output"
}
layer {
  name: "pool3/3x3_s2"
  type: "Pooling"
  bottom: "inception_3b/output"
  top: "pool3/3x3_s2"
  pooling_param {
    pool: MAX
    kernel_size: 3
    stride: 2
  }
}
layer {
  name: "inception_4a/1x1"
  type: "Convolution"
  bottom: "pool3/3x3_s2"
  top: "inception_4a/1x1"
  param {
    lr_mult: 1
    decay_mult: 1
  }
  param {
    lr_mult: 2
    decay_mult: 0
  }
  convolution_param {
    num_output: 192
    kernel_size: 1
    weight_filler {
      type: "xavier"
      std: 0.03
    }
    bias_filler {
      type: "constant"
      value: 0.2
    }
  }
}
layer {
  name: "inception_4a/relu_1x1"
  type: "ReLU"
  bottom: "inception_4a/1x1"
  top: "inception_4a/1x1"
}
layer {
  name: "inception_4a/3x3_reduce"
  type: "Convolution"
  bottom: "pool3/3x3_s2"
  top: "inception_4a/3x3_reduce"
  param {
    lr_mult: 1
    decay_mult: 1
  }
  param {
    lr_mult: 2
    decay_mult: 0
  }
  convolution_param {
    num_output: 96
    kernel_size: 1
    weight_filler {
      type: "xavier"
      std: 0.09
    }
    bias_filler {
      type: "constant"
      value: 0.2
    }
  }
}
layer {
  name: "inception_4a/relu_3x3_reduce"
  type: "ReLU"
  bottom: "inception_4a/3x3_reduce"
  top: "inception_4a/3x3_reduce"
}
layer {
  name: "inception_4a/3x3"
  type: "Convolution"
  bottom: "inception_4a/3x3_reduce"
  top: "inception_4a/3x3"
  param {
    lr_mult: 1
    decay_mult: 1
  }
  param {
    lr_mult: 2
    decay_mult: 0
  }
  convolution_param {
    num_output: 208
    pad: 1
    kernel_size: 3
    weight_filler {
      type: "xavier"
      std: 0.03
    }
    bias_filler {
      type: "constant"
      value: 0.2
    }
  }
}
layer {
  name: "inception_4a/relu_3x3"
  type: "ReLU"
  bottom: "inception_4a/3x3"
  top: "inception_4a/3x3"
}
layer {
  name: "inception_4a/5x5_reduce"
  type: "Convolution"
  bottom: "pool3/3x3_s2"
  top: "inception_4a/5x5_reduce"
  param {
    lr_mult: 1
    decay_mult: 1
  }
  param {
    lr_mult: 2
    decay_mult: 0
  }
  convolution_param {
    num_output: 16
    kernel_size: 1
    weight_filler {
      type: "xavier"
      std: 0.2
    }
    bias_filler {
      type: "constant"
      value: 0.2
    }
  }
}
layer {
  name: "inception_4a/relu_5x5_reduce"
  type: "ReLU"
  bottom: "inception_4a/5x5_reduce"
  top: "inception_4a/5x5_reduce"
}
layer {
  name: "inception_4a/5x5"
  type: "Convolution"
  bottom: "inception_4a/5x5_reduce"
  top: "inception_4a/5x5"
  param {
    lr_mult: 1
    decay_mult: 1
  }
  param {
    lr_mult: 2
    decay_mult: 0
  }
  convolution_param {
    num_output: 48
    pad: 2
    kernel_size: 5
    weight_filler {
      type: "xavier"
      std: 0.03
    }
    bias_filler {
      type: "constant"
      value: 0.2
    }
  }
}
layer {
  name: "inception_4a/relu_5x5"
  type: "ReLU"
  bottom: "inception_4a/5x5"
  top: "inception_4a/5x5"
}
layer {
  name: "inception_4a/pool"
  type: "Pooling"
  bottom: "pool3/3x3_s2"
  top: "inception_4a/pool"
  pooling_param {
    pool: MAX
    kernel_size: 3
    stride: 1
    pad: 1
  }
}
layer {
  name: "inception_4a/pool_proj"
  type: "Convolution"
  bottom: "inception_4a/pool"
  top: "inception_4a/pool_proj"
  param {
    lr_mult: 1
    decay_mult: 1
  }
  param {
    lr_mult: 2
    decay_mult: 0
  }
  convolution_param {
    num_output: 64
    kernel_size: 1
    weight_filler {
      type: "xavier"
      std: 0.1
    }
    bias_filler {
      type: "constant"
      value: 0.2
    }
  }
}
layer {
  name: "inception_4a/relu_pool_proj"
  type: "ReLU"
  bottom: "inception_4a/pool_proj"
  top: "inception_4a/pool_proj"
}
layer {
  name: "inception_4a/output"
  type: "Concat"
  bottom: "inception_4a/1x1"
  bottom: "inception_4a/3x3"
  bottom: "inception_4a/5x5"
  bottom: "inception_4a/pool_proj"
  top: "inception_4a/output"
}
layer {
  name: "inception_4b/1x1"
  type: "Convolution"
  bottom: "inception_4a/output"
  top: "inception_4b/1x1"
  param {
    lr_mult: 1
    decay_mult: 1
  }
  param {
    lr_mult: 2
    decay_mult: 0
  }
  convolution_param {
    num_output: 160
    kernel_size: 1
    weight_filler {
      type: "xavier"
      std: 0.03
    }
    bias_filler {
      type: "constant"
      value: 0.2
    }
  }
}
layer {
  name: "inception_4b/relu_1x1"
  type: "ReLU"
  bottom: "inception_4b/1x1"
  top: "inception_4b/1x1"
}
layer {
  name: "inception_4b/3x3_reduce"
  type: "Convolution"
  bottom: "inception_4a/output"
  top: "inception_4b/3x3_reduce"
  param {
    lr_mult: 1
    decay_mult: 1
  }
  param {
    lr_mult: 2
    decay_mult: 0
  }
  convolution_param {
    num_output: 112
    kernel_size: 1
    weight_filler {
      type: "xavier"
      std: 0.09
    }
    bias_filler {
      type: "constant"
      value: 0.2
    }
  }
}
layer {
  name: "inception_4b/relu_3x3_reduce"
  type: "ReLU"
  bottom: "inception_4b/3x3_reduce"
  top: "inception_4b/3x3_reduce"
}
layer {
  name: "inception_4b/3x3"
  type: "Convolution"
  bottom: "inception_4b/3x3_reduce"
  top: "inception_4b/3x3"
  param {
    lr_mult: 1
    decay_mult: 1
  }
  param {
    lr_mult: 2
    decay_mult: 0
  }
  convolution_param {
    num_output: 224
    pad: 1
    kernel_size: 3
    weight_filler {
      type: "xavier"
      std: 0.03
    }
    bias_filler {
      type: "constant"
      value: 0.2
    }
  }
}
layer {
  name: "inception_4b/relu_3x3"
  type: "ReLU"
  bottom: "inception_4b/3x3"
  top: "inception_4b/3x3"
}
layer {
  name: "inception_4b/5x5_reduce"
  type: "Convolution"
  bottom: "inception_4a/output"
  top: "inception_4b/5x5_reduce"
  param {
    lr_mult: 1
    decay_mult: 1
  }
  param {
    lr_mult: 2
    decay_mult: 0
  }
  convolution_param {
    num_output: 24
    kernel_size: 1
    weight_filler {
      type: "xavier"
      std: 0.2
    }
    bias_filler {
      type: "constant"
      value: 0.2
    }
  }
}
layer {
  name: "inception_4b/relu_5x5_reduce"
  type: "ReLU"
  bottom: "inception_4b/5x5_reduce"
  top: "inception_4b/5x5_reduce"
}
layer {
  name: "inception_4b/5x5"
  type: "Convolution"
  bottom: "inception_4b/5x5_reduce"
  top: "inception_4b/5x5"
  param {
    lr_mult: 1
    decay_mult: 1
  }
  param {
    lr_mult: 2
    decay_mult: 0
  }
  convolution_param {
    num_output: 64
    pad: 2
    kernel_size: 5
    weight_filler {
      type: "xavier"
      std: 0.03
    }
    bias_filler {
      type: "constant"
      value: 0.2
    }
  }
}
layer {
  name: "inception_4b/relu_5x5"
  type: "ReLU"
  bottom: "inception_4b/5x5"
  top: "inception_4b/5x5"
}
layer {
  name: "inception_4b/pool"
  type: "Pooling"
  bottom: "inception_4a/output"
  top: "inception_4b/pool"
  pooling_param {
    pool: MAX
    kernel_size: 3
    stride: 1
    pad: 1
  }
}
layer {
  name: "inception_4b/pool_proj"
  type: "Convolution"
  bottom: "inception_4b/pool"
  top: "inception_4b/pool_proj"
  param {
    lr_mult: 1
    decay_mult: 1
  }
  param {
    lr_mult: 2
    decay_mult: 0
  }
  convolution_param {
    num_output: 64
    kernel_size: 1
    weight_filler {
      type: "xavier"
      std: 0.1
    }
    bias_filler {
      type: "constant"
      value: 0.2
    }
  }
}
layer {
  name: "inception_4b/relu_pool_proj"
  type: "ReLU"
  bottom: "inception_4b/pool_proj"
  top: "inception_4b/pool_proj"
}
layer {
  name: "inception_4b/output"
  type: "Concat"
  bottom: "inception_4b/1x1"
  bottom: "inception_4b/3x3"
  bottom: "inception_4b/5x5"
  bottom: "inception_4b/pool_proj"
  top: "inception_4b/output"
}
layer {
  name: "inception_4c/1x1"
  type: "Convolution"
  bottom: "inception_4b/output"
  top: "inception_4c/1x1"
  param {
    lr_mult: 1
    decay_mult: 1
  }
  param {
    lr_mult: 2
    decay_mult: 0
  }
  convolution_param {
    num_output: 128
    kernel_size: 1
    weight_filler {
      type: "xavier"
      std: 0.03
    }
    bias_filler {
      type: "constant"
      value: 0.2
    }
  }
}
layer {
  name: "inception_4c/relu_1x1"
  type: "ReLU"
  bottom: "inception_4c/1x1"
  top: "inception_4c/1x1"
}
layer {
  name: "inception_4c/3x3_reduce"
  type: "Convolution"
  bottom: "inception_4b/output"
  top: "inception_4c/3x3_reduce"
  param {
    lr_mult: 1
    decay_mult: 1
  }
  param {
    lr_mult: 2
    decay_mult: 0
  }
  convolution_param {
    num_output: 128
    kernel_size: 1
    weight_filler {
      type: "xavier"
      std: 0.09
    }
    bias_filler {
      type: "constant"
      value: 0.2
    }
  }
}
layer {
  name: "inception_4c/relu_3x3_reduce"
  type: "ReLU"
  bottom: "inception_4c/3x3_reduce"
  top: "inception_4c/3x3_reduce"
}
layer {
  name: "inception_4c/3x3"
  type: "Convolution"
  bottom: "inception_4c/3x3_reduce"
  top: "inception_4c/3x3"
  param {
    lr_mult: 1
    decay_mult: 1
  }
  param {
    lr_mult: 2
    decay_mult: 0
  }
  convolution_param {
    num_output: 256
    pad: 1
    kernel_size: 3
    weight_filler {
      type: "xavier"
      std: 0.03
    }
    bias_filler {
      type: "constant"
      value: 0.2
    }
  }
}
layer {
  name: "inception_4c/relu_3x3"
  type: "ReLU"
  bottom: "inception_4c/3x3"
  top: "inception_4c/3x3"
}
layer {
  name: "inception_4c/5x5_reduce"
  type: "Convolution"
  bottom: "inception_4b/output"
  top: "inception_4c/5x5_reduce"
  param {
    lr_mult: 1
    decay_mult: 1
  }
  param {
    lr_mult: 2
    decay_mult: 0
  }
  convolution_param {
    num_output: 24
    kernel_size: 1
    weight_filler {
      type: "xavier"
      std: 0.2
    }
    bias_filler {
      type: "constant"
      value: 0.2
    }
  }
}
layer {
  name: "inception_4c/relu_5x5_reduce"
  type: "ReLU"
  bottom: "inception_4c/5x5_reduce"
  top: "inception_4c/5x5_reduce"
}
layer {
  name: "inception_4c/5x5"
  type: "Convolution"
  bottom: "inception_4c/5x5_reduce"
  top: "inception_4c/5x5"
  param {
    lr_mult: 1
    decay_mult: 1
  }
  param {
    lr_mult: 2
    decay_mult: 0
  }
  convolution_param {
    num_output: 64
    pad: 2
    kernel_size: 5
    weight_filler {
      type: "xavier"
      std: 0.03
    }
    bias_filler {
      type: "constant"
      value: 0.2
    }
  }
}
layer {
  name: "inception_4c/relu_5x5"
  type: "ReLU"
  bottom: "inception_4c/5x5"
  top: "inception_4c/5x5"
}
layer {
  name: "inception_4c/pool"
  type: "Pooling"
  bottom: "inception_4b/output"
  top: "inception_4c/pool"
  pooling_param {
    pool: MAX
    kernel_size: 3
    stride: 1
    pad: 1
  }
}
layer {
  name: "inception_4c/pool_proj"
  type: "Convolution"
  bottom: "inception_4c/pool"
  top: "inception_4c/pool_proj"
  param {
    lr_mult: 1
    decay_mult: 1
  }
  param {
    lr_mult: 2
    decay_mult: 0
  }
  convolution_param {
    num_output: 64
    kernel_size: 1
    weight_filler {
      type: "xavier"
      std: 0.1
    }
    bias_filler {
      type: "constant"
      value: 0.2
    }
  }
}
layer {
  name: "inception_4c/relu_pool_proj"
  type: "ReLU"
  bottom: "inception_4c/pool_proj"
  top: "inception_4c/pool_proj"
}
layer {
  name: "inception_4c/output"
  type: "Concat"
  bottom: "inception_4c/1x1"
  bottom: "inception_4c/3x3"
  bottom: "inception_4c/5x5"
  bottom: "inception_4c/pool_proj"
  top: "inception_4c/output"
}
layer {
  name: "inception_4d/1x1"
  type: "Convolution"
  bottom: "inception_4c/output"
  top: "inception_4d/1x1"
  param {
    lr_mult: 1
    decay_mult: 1
  }
  param {
    lr_mult: 2
    decay_mult: 0
  }
  convolution_param {
    num_output: 112
    kernel_size: 1
    weight_filler {
      type: "xavier"
      std: 0.03
    }
    bias_filler {
      type: "constant"
      value: 0.2
    }
  }
}
layer {
  name: "inception_4d/relu_1x1"
  type: "ReLU"
  bottom: "inception_4d/1x1"
  top: "inception_4d/1x1"
}
layer {
  name: "inception_4d/3x3_reduce"
  type: "Convolution"
  bottom: "inception_4c/output"
  top: "inception_4d/3x3_reduce"
  param {
    lr_mult: 1
    decay_mult: 1
  }
  param {
    lr_mult: 2
    decay_mult: 0
  }
  convolution_param {
    num_output: 144
    kernel_size: 1
    weight_filler {
      type: "xavier"
      std: 0.09
    }
    bias_filler {
      type: "constant"
      value: 0.2
    }
  }
}
layer {
  name: "inception_4d/relu_3x3_reduce"
  type: "ReLU"
  bottom: "inception_4d/3x3_reduce"
  top: "inception_4d/3x3_reduce"
}
layer {
  name: "inception_4d/3x3"
  type: "Convolution"
  bottom: "inception_4d/3x3_reduce"
  top: "inception_4d/3x3"
  param {
    lr_mult: 1
    decay_mult: 1
  }
  param {
    lr_mult: 2
    decay_mult: 0
  }
  convolution_param {
    num_output: 288
    pad: 1
    kernel_size: 3
    weight_filler {
      type: "xavier"
      std: 0.03
    }
    bias_filler {
      type: "constant"
      value: 0.2
    }
  }
}
layer {
  name: "inception_4d/relu_3x3"
  type: "ReLU"
  bottom: "inception_4d/3x3"
  top: "inception_4d/3x3"
}
layer {
  name: "inception_4d/5x5_reduce"
  type: "Convolution"
  bottom: "inception_4c/output"
  top: "inception_4d/5x5_reduce"
  param {
    lr_mult: 1
    decay_mult: 1
  }
  param {
    lr_mult: 2
    decay_mult: 0
  }
  convolution_param {
    num_output: 32
    kernel_size: 1
    weight_filler {
      type: "xavier"
      std: 0.2
    }
    bias_filler {
      type: "constant"
      value: 0.2
    }
  }
}
layer {
  name: "inception_4d/relu_5x5_reduce"
  type: "ReLU"
  bottom: "inception_4d/5x5_reduce"
  top: "inception_4d/5x5_reduce"
}
layer {
  name: "inception_4d/5x5"
  type: "Convolution"
  bottom: "inception_4d/5x5_reduce"
  top: "inception_4d/5x5"
  param {
    lr_mult: 1
    decay_mult: 1
  }
  param {
    lr_mult: 2
    decay_mult: 0
  }
  convolution_param {
    num_output: 64
    pad: 2
    kernel_size: 5
    weight_filler {
      type: "xavier"
      std: 0.03
    }
    bias_filler {
      type: "constant"
      value: 0.2
    }
  }
}
layer {
  name: "inception_4d/relu_5x5"
  type: "ReLU"
  bottom: "inception_4d/5x5"
  top: "inception_4d/5x5"
}
layer {
  name: "inception_4d/pool"
  type: "Pooling"
  bottom: "inception_4c/output"
  top: "inception_4d/pool"
  pooling_param {
    pool: MAX
    kernel_size: 3
    stride: 1
    pad: 1
  }
}
layer {
  name: "inception_4d/pool_proj"
  type: "Convolution"
  bottom: "inception_4d/pool"
  top: "inception_4d/pool_proj"
  param {
    lr_mult: 1
    decay_mult: 1
  }
  param {
    lr_mult: 2
    decay_mult: 0
  }
  convolution_param {
    num_output: 64
    kernel_size: 1
    weight_filler {
      type: "xavier"
      std: 0.1
    }
    bias_filler {
      type: "constant"
      value: 0.2
    }
  }
}
layer {
  name: "inception_4d/relu_pool_proj"
  type: "ReLU"
  bottom: "inception_4d/pool_proj"
  top: "inception_4d/pool_proj"
}
layer {
  name: "inception_4d/output"
  type: "Concat"
  bottom: "inception_4d/1x1"
  bottom: "inception_4d/3x3"
  bottom: "inception_4d/5x5"
  bottom: "inception_4d/pool_proj"
  top: "inception_4d/output"
}
layer {
  name: "inception_4e/1x1"
  type: "Convolution"
  bottom: "inception_4d/output"
  top: "inception_4e/1x1"
  param {
    lr_mult: 1
    decay_mult: 1
  }
  param {
    lr_mult: 2
    decay_mult: 0
  }
  convolution_param {
    num_output: 256
    kernel_size: 1
    weight_filler {
      type: "xavier"
      std: 0.03
    }
    bias_filler {
      type: "constant"
      value: 0.2
    }
  }
}
layer {
  name: "inception_4e/relu_1x1"
  type: "ReLU"
  bottom: "inception_4e/1x1"
  top: "inception_4e/1x1"
}
layer {
  name: "inception_4e/3x3_reduce"
  type: "Convolution"
  bottom: "inception_4d/output"
  top: "inception_4e/3x3_reduce"
  param {
    lr_mult: 1
    decay_mult: 1
  }
  param {
    lr_mult: 2
    decay_mult: 0
  }
  convolution_param {
    num_output: 160
    kernel_size: 1
    weight_filler {
      type: "xavier"
      std: 0.09
    }
    bias_filler {
      type: "constant"
      value: 0.2
    }
  }
}
layer {
  name: "inception_4e/relu_3x3_reduce"
  type: "ReLU"
  bottom: "inception_4e/3x3_reduce"
  top: "inception_4e/3x3_reduce"
}
layer {
  name: "inception_4e/3x3"
  type: "Convolution"
  bottom: "inception_4e/3x3_reduce"
  top: "inception_4e/3x3"
  param {
    lr_mult: 1
    decay_mult: 1
  }
  param {
    lr_mult: 2
    decay_mult: 0
  }
  convolution_param {
    num_output: 320
    pad: 1
    kernel_size: 3
    weight_filler {
      type: "xavier"
      std: 0.03
    }
    bias_filler {
      type: "constant"
      value: 0.2
    }
  }
}
layer {
  name: "inception_4e/relu_3x3"
  type: "ReLU"
  bottom: "inception_4e/3x3"
  top: "inception_4e/3x3"
}
layer {
  name: "inception_4e/5x5_reduce"
  type: "Convolution"
  bottom: "inception_4d/output"
  top: "inception_4e/5x5_reduce"
  param {
    lr_mult: 1
    decay_mult: 1
  }
  param {
    lr_mult: 2
    decay_mult: 0
  }
  convolution_param {
    num_output: 32
    kernel_size: 1
    weight_filler {
      type: "xavier"
      std: 0.2
    }
    bias_filler {
      type: "constant"
      value: 0.2
    }
  }
}
layer {
  name: "inception_4e/relu_5x5_reduce"
  type: "ReLU"
  bottom: "inception_4e/5x5_reduce"
  top: "inception_4e/5x5_reduce"
}
layer {
  name: "inception_4e/5x5"
  type: "Convolution"
  bottom: "inception_4e/5x5_reduce"
  top: "inception_4e/5x5"
  param {
    lr_mult: 1
    decay_mult: 1
  }
  param {
    lr_mult: 2
    decay_mult: 0
  }
  convolution_param {
    num_output: 128
    pad: 2
    kernel_size: 5
    weight_filler {
      type: "xavier"
      std: 0.03
    }
    bias_filler {
      type: "constant"
      value: 0.2
    }
  }
}
layer {
  name: "inception_4e/relu_5x5"
  type: "ReLU"
  bottom: "inception_4e/5x5"
  top: "inception_4e/5x5"
}
layer {
  name: "inception_4e/pool"
  type: "Pooling"
  bottom: "inception_4d/output"
  top: "inception_4e/pool"
  pooling_param {
    pool: MAX
    kernel_size: 3
    stride: 1
    pad: 1
  }
}
layer {
  name: "inception_4e/pool_proj"
  type: "Convolution"
  bottom: "inception_4e/pool"
  top: "inception_4e/pool_proj"
  param {
    lr_mult: 1
    decay_mult: 1
  }
  param {
    lr_mult: 2
    decay_mult: 0
  }
  convolution_param {
    num_output: 128
    kernel_size: 1
    weight_filler {
      type: "xavier"
      std: 0.1
    }
    bias_filler {
      type: "constant"
      value: 0.2
    }
  }
}
layer {
  name: "inception_4e/relu_pool_proj"
  type: "ReLU"
  bottom: "inception_4e/pool_proj"
  top: "inception_4e/pool_proj"
}
layer {
  name: "inception_4e/output"
  type: "Concat"
  bottom: "inception_4e/1x1"
  bottom: "inception_4e/3x3"
  bottom: "inception_4e/5x5"
  bottom: "inception_4e/pool_proj"
  top: "inception_4e/output"
}
layer {
  name: "pool4/3x3_s2"
  type: "Pooling"
  bottom: "inception_4e/output"
  top: "pool4/3x3_s2"
  pooling_param {
    pool: MAX
    kernel_size: 3
    stride: 2
  }
}
layer {
  name: "inception_5a/1x1"
  type: "Convolution"
  bottom: "pool4/3x3_s2"
  top: "inception_5a/1x1"
  param {
    lr_mult: 1
    decay_mult: 1
  }
  param {
    lr_mult: 2
    decay_mult: 0
  }
  convolution_param {
    num_output: 256
    kernel_size: 1
    weight_filler {
      type: "xavier"
      std: 0.03
    }
    bias_filler {
      type: "constant"
      value: 0.2
    }
  }
}
layer {
  name: "inception_5a/relu_1x1"
  type: "ReLU"
  bottom: "inception_5a/1x1"
  top: "inception_5a/1x1"
}
layer {
  name: "inception_5a/3x3_reduce"
  type: "Convolution"
  bottom: "pool4/3x3_s2"
  top: "inception_5a/3x3_reduce"
  param {
    lr_mult: 1
    decay_mult: 1
  }
  param {
    lr_mult: 2
    decay_mult: 0
  }
  convolution_param {
    num_output: 160
    kernel_size: 1
    weight_filler {
      type: "xavier"
      std: 0.09
    }
    bias_filler {
      type: "constant"
      value: 0.2
    }
  }
}
layer {
  name: "inception_5a/relu_3x3_reduce"
  type: "ReLU"
  bottom: "inception_5a/3x3_reduce"
  top: "inception_5a/3x3_reduce"
}
layer {
  name: "inception_5a/3x3"
  type: "Convolution"
  bottom: "inception_5a/3x3_reduce"
  top: "inception_5a/3x3"
  param {
    lr_mult: 1
    decay_mult: 1
  }
  param {
    lr_mult: 2
    decay_mult: 0
  }
  convolution_param {
    num_output: 320
    pad: 1
    kernel_size: 3
    weight_filler {
      type: "xavier"
      std: 0.03
    }
    bias_filler {
      type: "constant"
      value: 0.2
    }
  }
}
layer {
  name: "inception_5a/relu_3x3"
  type: "ReLU"
  bottom: "inception_5a/3x3"
  top: "inception_5a/3x3"
}
layer {
  name: "inception_5a/5x5_reduce"
  type: "Convolution"
  bottom: "pool4/3x3_s2"
  top: "inception_5a/5x5_reduce"
  param {
    lr_mult: 1
    decay_mult: 1
  }
  param {
    lr_mult: 2
    decay_mult: 0
  }
  convolution_param {
    num_output: 32
    kernel_size: 1
    weight_filler {
      type: "xavier"
      std: 0.2
    }
    bias_filler {
      type: "constant"
      value: 0.2
    }
I0727 20:33:54.164098  5109 layer_factory.hpp:77] Creating layer data
I0727 20:33:54.164129  5109 net.cpp:91] Creating Layer data
I0727 20:33:54.164139  5109 net.cpp:399] data -> data
I0727 20:33:54.171423  5105 net.cpp:49] Initializing net from parameters: 
name: "GoogleNet"
state {
  phase: TEST
}
layer {
  name: "data"
  type: "Input"
  top: "data"
  input_param {
    shape {
      dim: 10
      dim: 3
      dim: 224
      dim: 224
    }
  }
}
layer {
  name: "conv1/7x7_s2"
  type: "Convolution"
  bottom: "data"
  top: "conv1/7x7_s2"
  param {
    lr_mult: 1
    decay_mult: 1
  }
  param {
    lr_mult: 2
    decay_mult: 0
  }
  convolution_param {
    num_output: 64
    pad: 3
    kernel_size: 7
    stride: 2
    weight_filler {
      type: "xavier"
      std: 0.1
    }
    bias_filler {
      type: "constant"
      value: 0.2
    }
  }
}
layer {
  name: "conv1/relu_7x7"
  type: "ReLU"
  bottom: "conv1/7x7_s2"
  top: "conv1/7x7_s2"
}
layer {
  name: "pool1/3x3_s2"
  type: "Pooling"
  bottom: "conv1/7x7_s2"
  top: "pool1/3x3_s2"
  pooling_param {
    pool: MAX
    kernel_size: 3
    stride: 2
  }
}
layer {
  name: "pool1/norm1"
  type: "LRN"
  bottom: "pool1/3x3_s2"
  top: "pool1/norm1"
  lrn_param {
    local_size: 5
    alpha: 0.0001
    beta: 0.75
  }
}
layer {
  name: "conv2/3x3_reduce"
  type: "Convolution"
  bottom: "pool1/norm1"
  top: "conv2/3x3_reduce"
  param {
    lr_mult: 1
    decay_mult: 1
  }
  param {
    lr_mult: 2
    decay_mult: 0
  }
  convolution_param {
    num_output: 64
    kernel_size: 1
    weight_filler {
      type: "xavier"
      std: 0.1
    }
    bias_filler {
      type: "constant"
      value: 0.2
    }
  }
}
layer {
  name: "conv2/relu_3x3_reduce"
  type: "ReLU"
  bottom: "conv2/3x3_reduce"
  top: "conv2/3x3_reduce"
}
layer {
  name: "conv2/3x3"
  type: "Convolution"
  bottom: "conv2/3x3_reduce"
  top: "conv2/3x3"
  param {
    lr_mult: 1
    decay_mult: 1
  }
  param {
    lr_mult: 2
    decay_mult: 0
  }
  convolution_param {
    num_output: 192
    pad: 1
    kernel_size: 3
    weight_filler {
      type: "xavier"
      std: 0.03
    }
    bias_filler {
      type: "constant"
      value: 0.2
    }
  }
}
layer {
  name: "conv2/relu_3x3"
  type: "ReLU"
  bottom: "conv2/3x3"
  top: "conv2/3x3"
}
layer {
  name: "conv2/norm2"
  type: "LRN"
  bottom: "conv2/3x3"
  top: "conv2/norm2"
  lrn_param {
    local_size: 5
    alpha: 0.0001
    beta: 0.75
  }
}
layer {
  name: "pool2/3x3_s2"
  type: "Pooling"
  bottom: "conv2/norm2"
  top: "pool2/3x3_s2"
  pooling_param {
    pool: MAX
    kernel_size: 3
    stride: 2
  }
}
layer {
  name: "inception_3a/1x1"
  type: "Convolution"
  bottom: "pool2/3x3_s2"
  top: "inception_3a/1x1"
  param {
    lr_mult: 1
    decay_mult: 1
  }
  param {
    lr_mult: 2
    decay_mult: 0
  }
  convolution_param {
    num_output: 64
    kernel_size: 1
    weight_filler {
      type: "xavier"
      std: 0.03
    }
    bias_filler {
      type: "constant"
      value: 0.2
    }
  }
}
layer {
  name: "inception_3a/relu_1x1"
  type: "ReLU"
  bottom: "inception_3a/1x1"
  top: "inception_3a/1x1"
}
layer {
  name: "inception_3a/3x3_reduce"
  type: "Convolution"
  bottom: "pool2/3x3_s2"
  top: "inception_3a/3x3_reduce"
  param {
    lr_mult: 1
    decay_mult: 1
  }
  param {
    lr_mult: 2
    decay_mult: 0
  }
  convolution_param {
    num_output: 96
    kernel_size: 1
    weight_filler {
      type: "xavier"
      std: 0.09
    }
    bias_filler {
      type: "constant"
      value: 0.2
    }
  }
}
layer {
  name: "inception_3a/relu_3x3_reduce"
  type: "ReLU"
  bottom: "inception_3a/3x3_reduce"
  top: "inception_3a/3x3_reduce"
}
layer {
  name: "inception_3a/3x3"
  type: "Convolution"
  bottom: "inception_3a/3x3_reduce"
  top: "inception_3a/3x3"
  param {
    lr_mult: 1
    decay_mult: 1
  }
  param {
    lr_mult: 2
    decay_mult: 0
  }
  convolution_param {
    num_output: 128
    pad: 1
    kernel_size: 3
    weight_filler {
      type: "xavier"
      std: 0.03
    }
    bias_filler {
      type: "constant"
      value: 0.2
    }
  }
}
layer {
  name: "inception_3a/relu_3x3"
  type: "ReLU"
  bottom: "inception_3a/3x3"
  top: "inception_3a/3x3"
}
layer {
  name: "inception_3a/5x5_reduce"
  type: "Convolution"
  bottom: "pool2/3x3_s2"
  top: "inception_3a/5x5_reduce"
  param {
    lr_mult: 1
    decay_mult: 1
  }
  param {
    lr_mult: 2
    decay_mult: 0
  }
  convolution_param {
    num_output: 16
    kernel_size: 1
    weight_filler {
      type: "xavier"
      std: 0.2
    }
    bias_filler {
      type: "constant"
      value: 0.2
    }
  }
}
layer {
  name: "inception_3a/relu_5x5_reduce"
  type: "ReLU"
  bottom: "inception_3a/5x5_reduce"
  top: "inception_3a/5x5_reduce"
}
layer {
  name: "inception_3a/5x5"
  type: "Convolution"
  bottom: "inception_3a/5x5_reduce"
  top: "inception_3a/5x5"
  param {
    lr_mult: 1
    decay_mult: 1
  }
  param {
    lr_mult: 2
    decay_mult: 0
  }
  convolution_param {
    num_output: 32
    pad: 2
    kernel_size: 5
    weight_filler {
      type: "xavier"
      std: 0.03
    }
    bias_filler {
      type: "constant"
      value: 0.2
    }
  }
}
layer {
  name: "inception_3a/relu_5x5"
  type: "ReLU"
  bottom: "inception_3a/5x5"
  top: "inception_3a/5x5"
}
layer {
  name: "inception_3a/pool"
  type: "Pooling"
  bottom: "pool2/3x3_s2"
  top: "inception_3a/pool"
  pooling_param {
    pool: MAX
    kernel_size: 3
    stride: 1
    pad: 1
  }
}
layer {
  name: "inception_3a/pool_proj"
  type: "Convolution"
  bottom: "inception_3a/pool"
  top: "inception_3a/pool_proj"
  param {
    lr_mult: 1
    decay_mult: 1
  }
  param {
    lr_mult: 2
    decay_mult: 0
  }
  convolution_param {
    num_output: 32
    kernel_size: 1
    weight_filler {
      type: "xavier"
      std: 0.1
    }
    bias_filler {
      type: "constant"
      value: 0.2
    }
  }
}
layer {
  name: "inception_3a/relu_pool_proj"
  type: "ReLU"
  bottom: "inception_3a/pool_proj"
  top: "inception_3a/pool_proj"
}
layer {
  name: "inception_3a/output"
  type: "Concat"
  bottom: "inception_3a/1x1"
  bottom: "inception_3a/3x3"
  bottom: "inception_3a/5x5"
  bottom: "inception_3a/pool_proj"
  top: "inception_3a/output"
}
layer {
  name: "inception_3b/1x1"
  type: "Convolution"
  bottom: "inception_3a/output"
  top: "inception_3b/1x1"
  param {
    lr_mult: 1
    decay_mult: 1
  }
  param {
    lr_mult: 2
    decay_mult: 0
  }
  convolution_param {
    num_output: 128
    kernel_size: 1
    weight_filler {
      type: "xavier"
      std: 0.03
    }
    bias_filler {
      type: "constant"
      value: 0.2
    }
  }
}
layer {
  name: "inception_3b/relu_1x1"
  type: "ReLU"
  bottom: "inception_3b/1x1"
  top: "inception_3b/1x1"
}
layer {
  name: "inception_3b/3x3_reduce"
  type: "Convolution"
  bottom: "inception_3a/output"
  top: "inception_3b/3x3_reduce"
  param {
    lr_mult: 1
    decay_mult: 1
  }
  param {
    lr_mult: 2
    decay_mult: 0
  }
  convolution_param {
    num_output: 128
    kernel_size: 1
    weight_filler {
      type: "xavier"
      std: 0.09
    }
    bias_filler {
      type: "constant"
      value: 0.2
    }
  }
}
layer {
  name: "inception_3b/relu_3x3_reduce"
  type: "ReLU"
  bottom: "inception_3b/3x3_reduce"
  top: "inception_3b/3x3_reduce"
}
layer {
  name: "inception_3b/3x3"
  type: "Convolution"
  bottom: "inception_3b/3x3_reduce"
  top: "inception_3b/3x3"
  param {
    lr_mult: 1
    decay_mult: 1
  }
  param {
    lr_mult: 2
    decay_mult: 0
  }
  convolution_param {
    num_output: 192
    pad: 1
    kernel_size: 3
    weight_filler {
      type: "xavier"
      std: 0.03
    }
    bias_filler {
      type: "constant"
      value: 0.2
    }
  }
}
layer {
  name: "inception_3b/relu_3x3"
  type: "ReLU"
  bottom: "inception_3b/3x3"
  top: "inception_3b/3x3"
}
layer {
  name: "inception_3b/5x5_reduce"
  type: "Convolution"
  bottom: "inception_3a/output"
  top: "inception_3b/5x5_reduce"
  param {
    lr_mult: 1
    decay_mult: 1
  }
  param {
    lr_mult: 2
    decay_mult: 0
  }
  convolution_param {
    num_output: 32
    kernel_size: 1
    weight_filler {
      type: "xavier"
      std: 0.2
    }
    bias_filler {
      type: "constant"
      value: 0.2
    }
  }
}
layer {
  name: "inception_3b/relu_5x5_reduce"
  type: "ReLU"
  bottom: "inception_3b/5x5_reduce"
  top: "inception_3b/5x5_reduce"
}
layer {
  name: "inception_3b/5x5"
  type: "Convolution"
  bottom: "inception_3b/5x5_reduce"
  top: "inception_3b/5x5"
  param {
    lr_mult: 1
    decay_mult: 1
  }
  param {
    lr_mult: 2
    decay_mult: 0
  }
  convolution_param {
    num_output: 96
    pad: 2
    kernel_size: 5
    weight_filler {
      type: "xavier"
      std: 0.03
    }
    bias_filler {
      type: "constant"
      value: 0.2
    }
  }
}
layer {
  name: "inception_3b/relu_5x5"
  type: "ReLU"
  bottom: "inception_3b/5x5"
  top: "inception_3b/5x5"
}
layer {
  name: "inception_3b/pool"
  type: "Pooling"
  bottom: "inception_3a/output"
  top: "inception_3b/pool"
  pooling_param {
    pool: MAX
    kernel_size: 3
    stride: 1
    pad: 1
  }
}
layer {
  name: "inception_3b/pool_proj"
  type: "Convolution"
  bottom: "inception_3b/pool"
  top: "inception_3b/pool_proj"
  param {
    lr_mult: 1
    decay_mult: 1
  }
  param {
    lr_mult: 2
    decay_mult: 0
  }
  convolution_param {
    num_output: 64
    kernel_size: 1
    weight_filler {
      type: "xavier"
      std: 0.1
    }
    bias_filler {
      type: "constant"
      value: 0.2
    }
  }
}
layer {
  name: "inception_3b/relu_pool_proj"
  type: "ReLU"
  bottom: "inception_3b/pool_proj"
  top: "inception_3b/pool_proj"
}
layer {
  name: "inception_3b/output"
  type: "Concat"
  bottom: "inception_3b/1x1"
  bottom: "inception_3b/3x3"
  bottom: "inception_3b/5x5"
  bottom: "inception_3b/pool_proj"
  top: "inception_3b/output"
}
layer {
  name: "pool3/3x3_s2"
  type: "Pooling"
  bottom: "inception_3b/output"
  top: "pool3/3x3_s2"
  pooling_param {
    pool: MAX
    kernel_size: 3
    stride: 2
  }
}
layer {
  name: "inception_4a/1x1"
  type: "Convolution"
  bottom: "pool3/3x3_s2"
  top: "inception_4a/1x1"
  param {
    lr_mult: 1
    decay_mult: 1
  }
  param {
    lr_mult: 2
    decay_mult: 0
  }
  convolution_param {
    num_output: 192
    kernel_size: 1
    weight_filler {
      type: "xavier"
      std: 0.03
    }
    bias_filler {
      type: "constant"
      value: 0.2
    }
  }
}
layer {
  name: "inception_4a/relu_1x1"
  type: "ReLU"
  bottom: "inception_4a/1x1"
  top: "inception_4a/1x1"
}
layer {
  name: "inception_4a/3x3_reduce"
  type: "Convolution"
  bottom: "pool3/3x3_s2"
  top: "inception_4a/3x3_reduce"
  param {
    lr_mult: 1
    decay_mult: 1
  }
  param {
    lr_mult: 2
    decay_mult: 0
  }
  convolution_param {
    num_output: 96
    kernel_size: 1
    weight_filler {
      type: "xavier"
      std: 0.09
    }
    bias_filler {
      type: "constant"
      value: 0.2
    }
  }
}
layer {
  name: "inception_4a/relu_3x3_reduce"
  type: "ReLU"
  bottom: "inception_4a/3x3_reduce"
  top: "inception_4a/3x3_reduce"
}
layer {
  name: "inception_4a/3x3"
  type: "Convolution"
  bottom: "inception_4a/3x3_reduce"
  top: "inception_4a/3x3"
  param {
    lr_mult: 1
    decay_mult: 1
  }
  param {
    lr_mult: 2
    decay_mult: 0
  }
  convolution_param {
    num_output: 208
    pad: 1
    kernel_size: 3
    weight_filler {
      type: "xavier"
      std: 0.03
    }
    bias_filler {
      type: "constant"
      value: 0.2
    }
  }
}
layer {
  name: "inception_4a/relu_3x3"
  type: "ReLU"
  bottom: "inception_4a/3x3"
  top: "inception_4a/3x3"
}
layer {
  name: "inception_4a/5x5_reduce"
  type: "Convolution"
  bottom: "pool3/3x3_s2"
  top: "inception_4a/5x5_reduce"
  param {
    lr_mult: 1
    decay_mult: 1
  }
  param {
    lr_mult: 2
    decay_mult: 0
  }
  convolution_param {
    num_output: 16
    kernel_size: 1
    weight_filler {
      type: "xavier"
      std: 0.2
    }
    bias_filler {
      type: "constant"
      value: 0.2
    }
  }
}
layer {
  name: "inception_4a/relu_5x5_reduce"
  type: "ReLU"
  bottom: "inception_4a/5x5_reduce"
  top: "inception_4a/5x5_reduce"
}
layer {
  name: "inception_4a/5x5"
  type: "Convolution"
  bottom: "inception_4a/5x5_reduce"
  top: "inception_4a/5x5"
  param {
    lr_mult: 1
    decay_mult: 1
  }
  param {
    lr_mult: 2
    decay_mult: 0
  }
  convolution_param {
    num_output: 48
    pad: 2
    kernel_size: 5
    weight_filler {
      type: "xavier"
      std: 0.03
    }
    bias_filler {
      type: "constant"
      value: 0.2
    }
  }
}
layer {
  name: "inception_4a/relu_5x5"
  type: "ReLU"
  bottom: "inception_4a/5x5"
  top: "inception_4a/5x5"
}
layer {
  name: "inception_4a/pool"
  type: "Pooling"
  bottom: "pool3/3x3_s2"
  top: "inception_4a/pool"
  pooling_param {
    pool: MAX
    kernel_size: 3
    stride: 1
    pad: 1
  }
}
layer {
  name: "inception_4a/pool_proj"
  type: "Convolution"
  bottom: "inception_4a/pool"
  top: "inception_4a/pool_proj"
  param {
    lr_mult: 1
    decay_mult: 1
  }
  param {
    lr_mult: 2
    decay_mult: 0
  }
  convolution_param {
    num_output: 64
    kernel_size: 1
    weight_filler {
      type: "xavier"
      std: 0.1
    }
    bias_filler {
      type: "constant"
      value: 0.2
    }
  }
}
layer {
  name: "inception_4a/relu_pool_proj"
  type: "ReLU"
  bottom: "inception_4a/pool_proj"
  top: "inception_4a/pool_proj"
}
layer {
  name: "inception_4a/output"
  type: "Concat"
  bottom: "inception_4a/1x1"
  bottom: "inception_4a/3x3"
  bottom: "inception_4a/5x5"
  bottom: "inception_4a/pool_proj"
  top: "inception_4a/output"
}
layer {
  name: "inception_4b/1x1"
  type: "Convolution"
  bottom: "inception_4a/output"
  top: "inception_4b/1x1"
  param {
    lr_mult: 1
    decay_mult: 1
  }
  param {
    lr_mult: 2
    decay_mult: 0
  }
  convolution_param {
    num_output: 160
    kernel_size: 1
    weight_filler {
      type: "xavier"
      std: 0.03
    }
    bias_filler {
      type: "constant"
      value: 0.2
    }
  }
}
layer {
  name: "inception_4b/relu_1x1"
  type: "ReLU"
  bottom: "inception_4b/1x1"
  top: "inception_4b/1x1"
}
layer {
  name: "inception_4b/3x3_reduce"
  type: "Convolution"
  bottom: "inception_4a/output"
  top: "inception_4b/3x3_reduce"
  param {
    lr_mult: 1
    decay_mult: 1
  }
  param {
    lr_mult: 2
    decay_mult: 0
  }
  convolution_param {
    num_output: 112
    kernel_size: 1
    weight_filler {
      type: "xavier"
      std: 0.09
    }
    bias_filler {
      type: "constant"
      value: 0.2
    }
  }
}
layer {
  name: "inception_4b/relu_3x3_reduce"
  type: "ReLU"
  bottom: "inception_4b/3x3_reduce"
  top: "inception_4b/3x3_reduce"
}
layer {
  name: "inception_4b/3x3"
  type: "Convolution"
  bottom: "inception_4b/3x3_reduce"
  top: "inception_4b/3x3"
  param {
    lr_mult: 1
    decay_mult: 1
  }
  param {
    lr_mult: 2
    decay_mult: 0
  }
  convolution_param {
    num_output: 224
    pad: 1
    kernel_size: 3
    weight_filler {
      type: "xavier"
      std: 0.03
    }
    bias_filler {
      type: "constant"
      value: 0.2
    }
  }
}
layer {
  name: "inception_4b/relu_3x3"
  type: "ReLU"
  bottom: "inception_4b/3x3"
  top: "inception_4b/3x3"
}
layer {
  name: "inception_4b/5x5_reduce"
  type: "Convolution"
  bottom: "inception_4a/output"
  top: "inception_4b/5x5_reduce"
  param {
    lr_mult: 1
    decay_mult: 1
  }
  param {
    lr_mult: 2
    decay_mult: 0
  }
  convolution_param {
    num_output: 24
    kernel_size: 1
    weight_filler {
      type: "xavier"
      std: 0.2
    }
    bias_filler {
      type: "constant"
      value: 0.2
    }
  }
}
layer {
  name: "inception_4b/relu_5x5_reduce"
  type: "ReLU"
  bottom: "inception_4b/5x5_reduce"
  top: "inception_4b/5x5_reduce"
}
layer {
  name: "inception_4b/5x5"
  type: "Convolution"
  bottom: "inception_4b/5x5_reduce"
  top: "inception_4b/5x5"
  param {
    lr_mult: 1
    decay_mult: 1
  }
  param {
    lr_mult: 2
    decay_mult: 0
  }
  convolution_param {
    num_output: 64
    pad: 2
    kernel_size: 5
    weight_filler {
      type: "xavier"
      std: 0.03
    }
    bias_filler {
      type: "constant"
      value: 0.2
    }
  }
}
layer {
  name: "inception_4b/relu_5x5"
  type: "ReLU"
  bottom: "inception_4b/5x5"
  top: "inception_4b/5x5"
}
layer {
  name: "inception_4b/pool"
  type: "Pooling"
  bottom: "inception_4a/output"
  top: "inception_4b/pool"
  pooling_param {
    pool: MAX
    kernel_size: 3
    stride: 1
    pad: 1
  }
}
layer {
  name: "inception_4b/pool_proj"
  type: "Convolution"
  bottom: "inception_4b/pool"
  top: "inception_4b/pool_proj"
  param {
    lr_mult: 1
    decay_mult: 1
  }
  param {
    lr_mult: 2
    decay_mult: 0
  }
  convolution_param {
    num_output: 64
    kernel_size: 1
    weight_filler {
      type: "xavier"
      std: 0.1
    }
    bias_filler {
      type: "constant"
      value: 0.2
    }
  }
}
layer {
  name: "inception_4b/relu_pool_proj"
  type: "ReLU"
  bottom: "inception_4b/pool_proj"
  top: "inception_4b/pool_proj"
}
layer {
  name: "inception_4b/output"
  type: "Concat"
  bottom: "inception_4b/1x1"
  bottom: "inception_4b/3x3"
  bottom: "inception_4b/5x5"
  bottom: "inception_4b/pool_proj"
  top: "inception_4b/output"
}
layer {
  name: "inception_4c/1x1"
  type: "Convolution"
  bottom: "inception_4b/output"
  top: "inception_4c/1x1"
  param {
    lr_mult: 1
    decay_mult: 1
  }
  param {
    lr_mult: 2
    decay_mult: 0
  }
  convolution_param {
    num_output: 128
    kernel_size: 1
    weight_filler {
      type: "xavier"
      std: 0.03
    }
    bias_filler {
      type: "constant"
      value: 0.2
    }
  }
}
layer {
  name: "inception_4c/relu_1x1"
  type: "ReLU"
  bottom: "inception_4c/1x1"
  top: "inception_4c/1x1"
}
layer {
  name: "inception_4c/3x3_reduce"
  type: "Convolution"
  bottom: "inception_4b/output"
  top: "inception_4c/3x3_reduce"
  param {
    lr_mult: 1
    decay_mult: 1
  }
  param {
    lr_mult: 2
    decay_mult: 0
  }
  convolution_param {
    num_output: 128
    kernel_size: 1
    weight_filler {
      type: "xavier"
      std: 0.09
    }
    bias_filler {
      type: "constant"
      value: 0.2
    }
  }
}
layer {
  name: "inception_4c/relu_3x3_reduce"
  type: "ReLU"
  bottom: "inception_4c/3x3_reduce"
  top: "inception_4c/3x3_reduce"
}
layer {
  name: "inception_4c/3x3"
  type: "Convolution"
  bottom: "inception_4c/3x3_reduce"
  top: "inception_4c/3x3"
  param {
    lr_mult: 1
    decay_mult: 1
  }
  param {
    lr_mult: 2
    decay_mult: 0
  }
  convolution_param {
    num_output: 256
    pad: 1
    kernel_size: 3
    weight_filler {
      type: "xavier"
      std: 0.03
    }
    bias_filler {
      type: "constant"
      value: 0.2
    }
  }
}
layer {
  name: "inception_4c/relu_3x3"
  type: "ReLU"
  bottom: "inception_4c/3x3"
  top: "inception_4c/3x3"
}
layer {
  name: "inception_4c/5x5_reduce"
  type: "Convolution"
  bottom: "inception_4b/output"
  top: "inception_4c/5x5_reduce"
  param {
    lr_mult: 1
    decay_mult: 1
  }
  param {
    lr_mult: 2
    decay_mult: 0
  }
  convolution_param {
    num_output: 24
    kernel_size: 1
    weight_filler {
      type: "xavier"
      std: 0.2
    }
    bias_filler {
      type: "constant"
      value: 0.2
    }
  }
}
layer {
  name: "inception_4c/relu_5x5_reduce"
  type: "ReLU"
  bottom: "inception_4c/5x5_reduce"
  top: "inception_4c/5x5_reduce"
}
layer {
  name: "inception_4c/5x5"
  type: "Convolution"
  bottom: "inception_4c/5x5_reduce"
  top: "inception_4c/5x5"
  param {
    lr_mult: 1
    decay_mult: 1
  }
  param {
    lr_mult: 2
    decay_mult: 0
  }
  convolution_param {
    num_output: 64
    pad: 2
    kernel_size: 5
    weight_filler {
      type: "xavier"
      std: 0.03
    }
    bias_filler {
      type: "constant"
      value: 0.2
    }
  }
}
layer {
  name: "inception_4c/relu_5x5"
  type: "ReLU"
  bottom: "inception_4c/5x5"
  top: "inception_4c/5x5"
}
layer {
  name: "inception_4c/pool"
  type: "Pooling"
  bottom: "inception_4b/output"
  top: "inception_4c/pool"
  pooling_param {
    pool: MAX
    kernel_size: 3
    stride: 1
    pad: 1
  }
}
layer {
  name: "inception_4c/pool_proj"
  type: "Convolution"
  bottom: "inception_4c/pool"
  top: "inception_4c/pool_proj"
  param {
    lr_mult: 1
    decay_mult: 1
  }
  param {
    lr_mult: 2
    decay_mult: 0
  }
  convolution_param {
    num_output: 64
    kernel_size: 1
    weight_filler {
      type: "xavier"
      std: 0.1
    }
    bias_filler {
      type: "constant"
      value: 0.2
    }
  }
}
layer {
  name: "inception_4c/relu_pool_proj"
  type: "ReLU"
  bottom: "inception_4c/pool_proj"
  top: "inception_4c/pool_proj"
}
layer {
  name: "inception_4c/output"
  type: "Concat"
  bottom: "inception_4c/1x1"
  bottom: "inception_4c/3x3"
  bottom: "inception_4c/5x5"
  bottom: "inception_4c/pool_proj"
  top: "inception_4c/output"
}
layer {
  name: "inception_4d/1x1"
  type: "Convolution"
  bottom: "inception_4c/output"
  top: "inception_4d/1x1"
  param {
    lr_mult: 1
    decay_mult: 1
  }
  param {
    lr_mult: 2
    decay_mult: 0
  }
  convolution_param {
    num_output: 112
    kernel_size: 1
    weight_filler {
      type: "xavier"
      std: 0.03
    }
    bias_filler {
      type: "constant"
      value: 0.2
    }
  }
}
layer {
  name: "inception_4d/relu_1x1"
  type: "ReLU"
  bottom: "inception_4d/1x1"
  top: "inception_4d/1x1"
}
layer {
  name: "inception_4d/3x3_reduce"
  type: "Convolution"
  bottom: "inception_4c/output"
  top: "inception_4d/3x3_reduce"
  param {
    lr_mult: 1
    decay_mult: 1
  }
  param {
    lr_mult: 2
    decay_mult: 0
  }
  convolution_param {
    num_output: 144
    kernel_size: 1
    weight_filler {
      type: "xavier"
      std: 0.09
    }
    bias_filler {
      type: "constant"
      value: 0.2
    }
  }
}
layer {
  name: "inception_4d/relu_3x3_reduce"
  type: "ReLU"
  bottom: "inception_4d/3x3_reduce"
  top: "inception_4d/3x3_reduce"
}
layer {
  name: "inception_4d/3x3"
  type: "Convolution"
  bottom: "inception_4d/3x3_reduce"
  top: "inception_4d/3x3"
  param {
    lr_mult: 1
    decay_mult: 1
  }
  param {
    lr_mult: 2
    decay_mult: 0
  }
  convolution_param {
    num_output: 288
    pad: 1
    kernel_size: 3
    weight_filler {
      type: "xavier"
      std: 0.03
    }
    bias_filler {
      type: "constant"
      value: 0.2
    }
  }
}
layer {
  name: "inception_4d/relu_3x3"
  type: "ReLU"
  bottom: "inception_4d/3x3"
  top: "inception_4d/3x3"
}
layer {
  name: "inception_4d/5x5_reduce"
  type: "Convolution"
  bottom: "inception_4c/output"
  top: "inception_4d/5x5_reduce"
  param {
    lr_mult: 1
    decay_mult: 1
  }
  param {
    lr_mult: 2
    decay_mult: 0
  }
  convolution_param {
    num_output: 32
    kernel_size: 1
    weight_filler {
      type: "xavier"
      std: 0.2
    }
    bias_filler {
      type: "constant"
      value: 0.2
    }
  }
}
layer {
  name: "inception_4d/relu_5x5_reduce"
  type: "ReLU"
  bottom: "inception_4d/5x5_reduce"
  top: "inception_4d/5x5_reduce"
}
layer {
  name: "inception_4d/5x5"
  type: "Convolution"
  bottom: "inception_4d/5x5_reduce"
  top: "inception_4d/5x5"
  param {
    lr_mult: 1
    decay_mult: 1
  }
  param {
    lr_mult: 2
    decay_mult: 0
  }
  convolution_param {
    num_output: 64
    pad: 2
    kernel_size: 5
    weight_filler {
      type: "xavier"
      std: 0.03
    }
    bias_filler {
      type: "constant"
      value: 0.2
    }
  }
}
layer {
  name: "inception_4d/relu_5x5"
  type: "ReLU"
  bottom: "inception_4d/5x5"
  top: "inception_4d/5x5"
}
layer {
  name: "inception_4d/pool"
  type: "Pooling"
  bottom: "inception_4c/output"
  top: "inception_4d/pool"
  pooling_param {
    pool: MAX
    kernel_size: 3
    stride: 1
    pad: 1
  }
}
layer {
  name: "inception_4d/pool_proj"
  type: "Convolution"
  bottom: "inception_4d/pool"
  top: "inception_4d/pool_proj"
  param {
    lr_mult: 1
    decay_mult: 1
  }
  param {
    lr_mult: 2
    decay_mult: 0
  }
  convolution_param {
    num_output: 64
    kernel_size: 1
    weight_filler {
      type: "xavier"
      std: 0.1
    }
    bias_filler {
      type: "constant"
      value: 0.2
    }
  }
}
layer {
  name: "inception_4d/relu_pool_proj"
  type: "ReLU"
  bottom: "inception_4d/pool_proj"
  top: "inception_4d/pool_proj"
}
layer {
  name: "inception_4d/output"
  type: "Concat"
  bottom: "inception_4d/1x1"
  bottom: "inception_4d/3x3"
  bottom: "inception_4d/5x5"
  bottom: "inception_4d/pool_proj"
  top: "inception_4d/output"
}
layer {
  name: "inception_4e/1x1"
  type: "Convolution"
  bottom: "inception_4d/output"
  top: "inception_4e/1x1"
  param {
    lr_mult: 1
    decay_mult: 1
  }
  param {
    lr_mult: 2
    decay_mult: 0
  }
  convolution_param {
    num_output: 256
    kernel_size: 1
    weight_filler {
      type: "xavier"
      std: 0.03
    }
    bias_filler {
      type: "constant"
      value: 0.2
    }
  }
}
layer {
  name: "inception_4e/relu_1x1"
  type: "ReLU"
  bottom: "inception_4e/1x1"
  top: "inception_4e/1x1"
}
layer {
  name: "inception_4e/3x3_reduce"
  type: "Convolution"
  bottom: "inception_4d/output"
  top: "inception_4e/3x3_reduce"
  param {
    lr_mult: 1
    decay_mult: 1
  }
  param {
    lr_mult: 2
    decay_mult: 0
  }
  convolution_param {
    num_output: 160
    kernel_size: 1
    weight_filler {
      type: "xavier"
      std: 0.09
    }
    bias_filler {
      type: "constant"
      value: 0.2
    }
  }
}
layer {
  name: "inception_4e/relu_3x3_reduce"
  type: "ReLU"
  bottom: "inception_4e/3x3_reduce"
  top: "inception_4e/3x3_reduce"
}
layer {
  name: "inception_4e/3x3"
  type: "Convolution"
  bottom: "inception_4e/3x3_reduce"
  top: "inception_4e/3x3"
  param {
    lr_mult: 1
    decay_mult: 1
  }
  param {
    lr_mult: 2
    decay_mult: 0
  }
  convolution_param {
    num_output: 320
    pad: 1
    kernel_size: 3
    weight_filler {
      type: "xavier"
      std: 0.03
    }
    bias_filler {
      type: "constant"
      value: 0.2
    }
  }
}
layer {
  name: "inception_4e/relu_3x3"
  type: "ReLU"
  bottom: "inception_4e/3x3"
  top: "inception_4e/3x3"
}
layer {
  name: "inception_4e/5x5_reduce"
  type: "Convolution"
  bottom: "inception_4d/output"
  top: "inception_4e/5x5_reduce"
  param {
    lr_mult: 1
    decay_mult: 1
  }
  param {
    lr_mult: 2
    decay_mult: 0
  }
  convolution_param {
    num_output: 32
    kernel_size: 1
    weight_filler {
      type: "xavier"
      std: 0.2
    }
    bias_filler {
      type: "constant"
      value: 0.2
    }
  }
}
layer {
  name: "inception_4e/relu_5x5_reduce"
  type: "ReLU"
  bottom: "inception_4e/5x5_reduce"
  top: "inception_4e/5x5_reduce"
}
layer {
  name: "inception_4e/5x5"
  type: "Convolution"
  bottom: "inception_4e/5x5_reduce"
  top: "inception_4e/5x5"
  param {
    lr_mult: 1
    decay_mult: 1
  }
  param {
    lr_mult: 2
    decay_mult: 0
  }
  convolution_param {
    num_output: 128
    pad: 2
    kernel_size: 5
    weight_filler {
      type: "xavier"
      std: 0.03
    }
    bias_filler {
      type: "constant"
      value: 0.2
    }
  }
}
layer {
  name: "inception_4e/relu_5x5"
  type: "ReLU"
  bottom: "inception_4e/5x5"
  top: "inception_4e/5x5"
}
layer {
  name: "inception_4e/pool"
  type: "Pooling"
  bottom: "inception_4d/output"
  top: "inception_4e/pool"
  pooling_param {
    pool: MAX
    kernel_size: 3
    stride: 1
    pad: 1
  }
}
layer {
  name: "inception_4e/pool_proj"
  type: "Convolution"
  bottom: "inception_4e/pool"
  top: "inception_4e/pool_proj"
  param {
    lr_mult: 1
    decay_mult: 1
  }
  param {
    lr_mult: 2
    decay_mult: 0
  }
  convolution_param {
    num_output: 128
    kernel_size: 1
    weight_filler {
      type: "xavier"
      std: 0.1
    }
    bias_filler {
      type: "constant"
      value: 0.2
    }
  }
}
layer {
  name: "inception_4e/relu_pool_proj"
  type: "ReLU"
  bottom: "inception_4e/pool_proj"
  top: "inception_4e/pool_proj"
}
layer {
  name: "inception_4e/output"
  type: "Concat"
  bottom: "inception_4e/1x1"
  bottom: "inception_4e/3x3"
  bottom: "inception_4e/5x5"
  bottom: "inception_4e/pool_proj"
  top: "inception_4e/output"
}
layer {
  name: "pool4/3x3_s2"
  type: "Pooling"
  bottom: "inception_4e/output"
  top: "pool4/3x3_s2"
  pooling_param {
    pool: MAX
    kernel_size: 3
    stride: 2
  }
}
layer {
  name: "inception_5a/1x1"
  type: "Convolution"
  bottom: "pool4/3x3_s2"
  top: "inception_5a/1x1"
  param {
    lr_mult: 1
    decay_mult: 1
  }
  param {
    lr_mult: 2
    decay_mult: 0
  }
  convolution_param {
    num_output: 256
    kernel_size: 1
    weight_filler {
      type: "xavier"
      std: 0.03
    }
    bias_filler {
      type: "constant"
      value: 0.2
    }
  }
}
layer {
  name: "inception_5a/relu_1x1"
  type: "ReLU"
  bottom: "inception_5a/1x1"
  top: "inception_5a/1x1"
}
layer {
  name: "inception_5a/3x3_reduce"
  type: "Convolution"
  bottom: "pool4/3x3_s2"
  top: "inception_5a/3x3_reduce"
  param {
    lr_mult: 1
    decay_mult: 1
  }
  param {
    lr_mult: 2
    decay_mult: 0
  }
  convolution_param {
    num_output: 160
    kernel_size: 1
    weight_filler {
      type: "xavier"
      std: 0.09
    }
    bias_filler {
      type: "constant"
      value: 0.2
    }
  }
}
layer {
  name: "inception_5a/relu_3x3_reduce"
  type: "ReLU"
  bottom: "inception_5a/3x3_reduce"
  top: "inception_5a/3x3_reduce"
}
layer {
  name: "inception_5a/3x3"
  type: "Convolution"
  bottom: "inception_5a/3x3_reduce"
  top: "inception_5a/3x3"
  param {
    lr_mult: 1
    decay_mult: 1
  }
  param {
    lr_mult: 2
    decay_mult: 0
  }
  convolution_param {
    num_output: 320
    pad: 1
    kernel_size: 3
    weight_filler {
      type: "xavier"
      std: 0.03
    }
    bias_filler {
      type: "constant"
      value: 0.2
    }
  }
}
layer {
  name: "inception_5a/relu_3x3"
  type: "ReLU"
  bottom: "inception_5a/3x3"
  top: "inception_5a/3x3"
}
layer {
  name: "inception_5a/5x5_reduce"
  type: "Convolution"
  bottom: "pool4/3x3_s2"
  top: "inception_5a/5x5_reduce"
  param {
    lr_mult: 1
    decay_mult: 1
  }
  param {
    lr_mult: 2
    decay_mult: 0
  }
  convolution_param {
    num_output: 32
    kernel_size: 1
    weight_filler {
      type: "xavier"
      std: 0.2
    }
    bias_filler {
      type: "constant"
      value: 0.2
    }
I0727 20:33:54.172227  5105 layer_factory.hpp:77] Creating layer data
I0727 20:33:54.172246  5105 net.cpp:91] Creating Layer data
I0727 20:33:54.172253  5105 net.cpp:399] data -> data
I0727 20:33:55.294204  5109 net.cpp:141] Setting up data
I0727 20:33:55.294303  5109 net.cpp:148] Top shape: 10 3 224 224 (1505280)
I0727 20:33:55.294311  5109 net.cpp:156] Memory required for data: 6021120
I0727 20:33:55.294337  5109 layer_factory.hpp:77] Creating layer conv1/7x7_s2
I0727 20:33:55.294380  5109 net.cpp:91] Creating Layer conv1/7x7_s2
I0727 20:33:55.294390  5109 net.cpp:425] conv1/7x7_s2 <- data
I0727 20:33:55.294405  5109 net.cpp:399] conv1/7x7_s2 -> conv1/7x7_s2
I0727 20:33:55.297793  5105 net.cpp:141] Setting up data
I0727 20:33:55.297838  5105 net.cpp:148] Top shape: 10 3 224 224 (1505280)
I0727 20:33:55.297845  5105 net.cpp:156] Memory required for data: 6021120
I0727 20:33:55.297855  5105 layer_factory.hpp:77] Creating layer conv1/7x7_s2
I0727 20:33:55.297885  5105 net.cpp:91] Creating Layer conv1/7x7_s2
I0727 20:33:55.297893  5105 net.cpp:425] conv1/7x7_s2 <- data
I0727 20:33:55.297904  5105 net.cpp:399] conv1/7x7_s2 -> conv1/7x7_s2
I0727 20:33:55.759311  5109 net.cpp:141] Setting up conv1/7x7_s2
I0727 20:33:55.759377  5109 net.cpp:148] Top shape: 10 64 112 112 (8028160)
I0727 20:33:55.759389  5109 net.cpp:156] Memory required for data: 38133760
I0727 20:33:55.759434  5109 layer_factory.hpp:77] Creating layer conv1/relu_7x7
I0727 20:33:55.759462  5109 net.cpp:91] Creating Layer conv1/relu_7x7
I0727 20:33:55.759475  5109 net.cpp:425] conv1/relu_7x7 <- conv1/7x7_s2
I0727 20:33:55.759490  5109 net.cpp:386] conv1/relu_7x7 -> conv1/7x7_s2 (in-place)
I0727 20:33:55.761564  5109 net.cpp:141] Setting up conv1/relu_7x7
I0727 20:33:55.761593  5109 net.cpp:148] Top shape: 10 64 112 112 (8028160)
I0727 20:33:55.761602  5109 net.cpp:156] Memory required for data: 70246400
I0727 20:33:55.761612  5109 layer_factory.hpp:77] Creating layer pool1/3x3_s2
I0727 20:33:55.761632  5109 net.cpp:91] Creating Layer pool1/3x3_s2
I0727 20:33:55.761642  5109 net.cpp:425] pool1/3x3_s2 <- conv1/7x7_s2
I0727 20:33:55.761656  5109 net.cpp:399] pool1/3x3_s2 -> pool1/3x3_s2
I0727 20:33:55.763451  5109 net.cpp:141] Setting up pool1/3x3_s2
I0727 20:33:55.763475  5109 net.cpp:148] Top shape: 10 64 56 56 (2007040)
I0727 20:33:55.763484  5109 net.cpp:156] Memory required for data: 78274560
I0727 20:33:55.763494  5109 layer_factory.hpp:77] Creating layer pool1/norm1
I0727 20:33:55.763525  5109 net.cpp:91] Creating Layer pool1/norm1
I0727 20:33:55.763535  5109 net.cpp:425] pool1/norm1 <- pool1/3x3_s2
I0727 20:33:55.763548  5109 net.cpp:399] pool1/norm1 -> pool1/norm1
I0727 20:33:55.765105  5109 net.cpp:141] Setting up pool1/norm1
I0727 20:33:55.765130  5109 net.cpp:148] Top shape: 10 64 56 56 (2007040)
I0727 20:33:55.765138  5109 net.cpp:156] Memory required for data: 86302720
I0727 20:33:55.765147  5109 layer_factory.hpp:77] Creating layer conv2/3x3_reduce
I0727 20:33:55.765180  5109 net.cpp:91] Creating Layer conv2/3x3_reduce
I0727 20:33:55.765190  5109 net.cpp:425] conv2/3x3_reduce <- pool1/norm1
I0727 20:33:55.765205  5109 net.cpp:399] conv2/3x3_reduce -> conv2/3x3_reduce
I0727 20:33:55.767233  5105 net.cpp:141] Setting up conv1/7x7_s2
I0727 20:33:55.767261  5105 net.cpp:148] Top shape: 10 64 112 112 (8028160)
I0727 20:33:55.767269  5105 net.cpp:156] Memory required for data: 38133760
I0727 20:33:55.767297  5105 layer_factory.hpp:77] Creating layer conv1/relu_7x7
I0727 20:33:55.767313  5105 net.cpp:91] Creating Layer conv1/relu_7x7
I0727 20:33:55.767323  5105 net.cpp:425] conv1/relu_7x7 <- conv1/7x7_s2
I0727 20:33:55.767335  5105 net.cpp:386] conv1/relu_7x7 -> conv1/7x7_s2 (in-place)
I0727 20:33:55.768719  5105 net.cpp:141] Setting up conv1/relu_7x7
I0727 20:33:55.768744  5105 net.cpp:148] Top shape: 10 64 112 112 (8028160)
I0727 20:33:55.768754  5105 net.cpp:156] Memory required for data: 70246400
I0727 20:33:55.768764  5105 layer_factory.hpp:77] Creating layer pool1/3x3_s2
I0727 20:33:55.768781  5105 net.cpp:91] Creating Layer pool1/3x3_s2
I0727 20:33:55.768790  5105 net.cpp:425] pool1/3x3_s2 <- conv1/7x7_s2
I0727 20:33:55.768803  5105 net.cpp:399] pool1/3x3_s2 -> pool1/3x3_s2
I0727 20:33:55.768983  5105 net.cpp:141] Setting up pool1/3x3_s2
I0727 20:33:55.769001  5105 net.cpp:148] Top shape: 10 64 56 56 (2007040)
I0727 20:33:55.769011  5105 net.cpp:156] Memory required for data: 78274560
I0727 20:33:55.769019  5105 layer_factory.hpp:77] Creating layer pool1/norm1
I0727 20:33:55.769037  5105 net.cpp:91] Creating Layer pool1/norm1
I0727 20:33:55.769044  5105 net.cpp:425] pool1/norm1 <- pool1/3x3_s2
I0727 20:33:55.769057  5105 net.cpp:399] pool1/norm1 -> pool1/norm1
I0727 20:33:55.770701  5105 net.cpp:141] Setting up pool1/norm1
I0727 20:33:55.770725  5105 net.cpp:148] Top shape: 10 64 56 56 (2007040)
I0727 20:33:55.770743  5105 net.cpp:156] Memory required for data: 86302720
I0727 20:33:55.770752  5105 layer_factory.hpp:77] Creating layer conv2/3x3_reduce
I0727 20:33:55.770776  5105 net.cpp:91] Creating Layer conv2/3x3_reduce
I0727 20:33:55.770787  5105 net.cpp:425] conv2/3x3_reduce <- pool1/norm1
I0727 20:33:55.770802  5105 net.cpp:399] conv2/3x3_reduce -> conv2/3x3_reduce
I0727 20:33:55.770870  5109 net.cpp:141] Setting up conv2/3x3_reduce
I0727 20:33:55.770894  5109 net.cpp:148] Top shape: 10 64 56 56 (2007040)
I0727 20:33:55.770902  5109 net.cpp:156] Memory required for data: 94330880
I0727 20:33:55.770922  5109 layer_factory.hpp:77] Creating layer conv2/relu_3x3_reduce
I0727 20:33:55.770936  5109 net.cpp:91] Creating Layer conv2/relu_3x3_reduce
I0727 20:33:55.770946  5109 net.cpp:425] conv2/relu_3x3_reduce <- conv2/3x3_reduce
I0727 20:33:55.770957  5109 net.cpp:386] conv2/relu_3x3_reduce -> conv2/3x3_reduce (in-place)
I0727 20:33:55.771911  5109 net.cpp:141] Setting up conv2/relu_3x3_reduce
I0727 20:33:55.771932  5109 net.cpp:148] Top shape: 10 64 56 56 (2007040)
I0727 20:33:55.771941  5109 net.cpp:156] Memory required for data: 102359040
I0727 20:33:55.771950  5109 layer_factory.hpp:77] Creating layer conv2/3x3
I0727 20:33:55.771976  5109 net.cpp:91] Creating Layer conv2/3x3
I0727 20:33:55.771986  5109 net.cpp:425] conv2/3x3 <- conv2/3x3_reduce
I0727 20:33:55.772001  5109 net.cpp:399] conv2/3x3 -> conv2/3x3
I0727 20:33:55.776630  5105 net.cpp:141] Setting up conv2/3x3_reduce
I0727 20:33:55.776660  5105 net.cpp:148] Top shape: 10 64 56 56 (2007040)
I0727 20:33:55.776667  5105 net.cpp:156] Memory required for data: 94330880
I0727 20:33:55.776689  5105 layer_factory.hpp:77] Creating layer conv2/relu_3x3_reduce
I0727 20:33:55.776701  5105 net.cpp:91] Creating Layer conv2/relu_3x3_reduce
I0727 20:33:55.776710  5105 net.cpp:425] conv2/relu_3x3_reduce <- conv2/3x3_reduce
I0727 20:33:55.776720  5105 net.cpp:386] conv2/relu_3x3_reduce -> conv2/3x3_reduce (in-place)
I0727 20:33:55.777669  5105 net.cpp:141] Setting up conv2/relu_3x3_reduce
I0727 20:33:55.777691  5105 net.cpp:148] Top shape: 10 64 56 56 (2007040)
I0727 20:33:55.777699  5105 net.cpp:156] Memory required for data: 102359040
I0727 20:33:55.777709  5105 layer_factory.hpp:77] Creating layer conv2/3x3
I0727 20:33:55.777735  5105 net.cpp:91] Creating Layer conv2/3x3
I0727 20:33:55.777745  5105 net.cpp:425] conv2/3x3 <- conv2/3x3_reduce
I0727 20:33:55.777762  5105 net.cpp:399] conv2/3x3 -> conv2/3x3
I0727 20:33:55.782507  5109 net.cpp:141] Setting up conv2/3x3
I0727 20:33:55.782536  5109 net.cpp:148] Top shape: 10 192 56 56 (6021120)
I0727 20:33:55.782543  5109 net.cpp:156] Memory required for data: 126443520
I0727 20:33:55.782565  5109 layer_factory.hpp:77] Creating layer conv2/relu_3x3
I0727 20:33:55.782589  5109 net.cpp:91] Creating Layer conv2/relu_3x3
I0727 20:33:55.782599  5109 net.cpp:425] conv2/relu_3x3 <- conv2/3x3
I0727 20:33:55.782611  5109 net.cpp:386] conv2/relu_3x3 -> conv2/3x3 (in-place)
I0727 20:33:55.783000  5109 net.cpp:141] Setting up conv2/relu_3x3
I0727 20:33:55.783020  5109 net.cpp:148] Top shape: 10 192 56 56 (6021120)
I0727 20:33:55.783027  5109 net.cpp:156] Memory required for data: 150528000
I0727 20:33:55.783036  5109 layer_factory.hpp:77] Creating layer conv2/norm2
I0727 20:33:55.783058  5109 net.cpp:91] Creating Layer conv2/norm2
I0727 20:33:55.783067  5109 net.cpp:425] conv2/norm2 <- conv2/3x3
I0727 20:33:55.783080  5109 net.cpp:399] conv2/norm2 -> conv2/norm2
I0727 20:33:55.784603  5109 net.cpp:141] Setting up conv2/norm2
I0727 20:33:55.784626  5109 net.cpp:148] Top shape: 10 192 56 56 (6021120)
I0727 20:33:55.784636  5109 net.cpp:156] Memory required for data: 174612480
I0727 20:33:55.784646  5109 layer_factory.hpp:77] Creating layer pool2/3x3_s2
I0727 20:33:55.784662  5109 net.cpp:91] Creating Layer pool2/3x3_s2
I0727 20:33:55.784670  5109 net.cpp:425] pool2/3x3_s2 <- conv2/norm2
I0727 20:33:55.784682  5109 net.cpp:399] pool2/3x3_s2 -> pool2/3x3_s2
I0727 20:33:55.785508  5109 net.cpp:141] Setting up pool2/3x3_s2
I0727 20:33:55.785538  5109 net.cpp:148] Top shape: 10 192 28 28 (1505280)
I0727 20:33:55.785548  5109 net.cpp:156] Memory required for data: 180633600
I0727 20:33:55.785557  5109 layer_factory.hpp:77] Creating layer pool2/3x3_s2_pool2/3x3_s2_0_split
I0727 20:33:55.785585  5109 net.cpp:91] Creating Layer pool2/3x3_s2_pool2/3x3_s2_0_split
I0727 20:33:55.785595  5109 net.cpp:425] pool2/3x3_s2_pool2/3x3_s2_0_split <- pool2/3x3_s2
I0727 20:33:55.785609  5109 net.cpp:399] pool2/3x3_s2_pool2/3x3_s2_0_split -> pool2/3x3_s2_pool2/3x3_s2_0_split_0
I0727 20:33:55.785630  5109 net.cpp:399] pool2/3x3_s2_pool2/3x3_s2_0_split -> pool2/3x3_s2_pool2/3x3_s2_0_split_1
I0727 20:33:55.785645  5109 net.cpp:399] pool2/3x3_s2_pool2/3x3_s2_0_split -> pool2/3x3_s2_pool2/3x3_s2_0_split_2
I0727 20:33:55.785658  5109 net.cpp:399] pool2/3x3_s2_pool2/3x3_s2_0_split -> pool2/3x3_s2_pool2/3x3_s2_0_split_3
I0727 20:33:55.786029  5109 net.cpp:141] Setting up pool2/3x3_s2_pool2/3x3_s2_0_split
I0727 20:33:55.786047  5109 net.cpp:148] Top shape: 10 192 28 28 (1505280)
I0727 20:33:55.786057  5109 net.cpp:148] Top shape: 10 192 28 28 (1505280)
I0727 20:33:55.786067  5109 net.cpp:148] Top shape: 10 192 28 28 (1505280)
I0727 20:33:55.786077  5109 net.cpp:148] Top shape: 10 192 28 28 (1505280)
I0727 20:33:55.786083  5109 net.cpp:156] Memory required for data: 204718080
I0727 20:33:55.786092  5109 layer_factory.hpp:77] Creating layer inception_3a/1x1
I0727 20:33:55.786118  5109 net.cpp:91] Creating Layer inception_3a/1x1
I0727 20:33:55.786128  5109 net.cpp:425] inception_3a/1x1 <- pool2/3x3_s2_pool2/3x3_s2_0_split_0
I0727 20:33:55.786176  5109 net.cpp:399] inception_3a/1x1 -> inception_3a/1x1
I0727 20:33:55.786768  5105 net.cpp:141] Setting up conv2/3x3
I0727 20:33:55.786792  5105 net.cpp:148] Top shape: 10 192 56 56 (6021120)
I0727 20:33:55.786800  5105 net.cpp:156] Memory required for data: 126443520
I0727 20:33:55.786821  5105 layer_factory.hpp:77] Creating layer conv2/relu_3x3
I0727 20:33:55.786844  5105 net.cpp:91] Creating Layer conv2/relu_3x3
I0727 20:33:55.786854  5105 net.cpp:425] conv2/relu_3x3 <- conv2/3x3
I0727 20:33:55.786866  5105 net.cpp:386] conv2/relu_3x3 -> conv2/3x3 (in-place)
I0727 20:33:55.787348  5105 net.cpp:141] Setting up conv2/relu_3x3
I0727 20:33:55.787367  5105 net.cpp:148] Top shape: 10 192 56 56 (6021120)
I0727 20:33:55.787375  5105 net.cpp:156] Memory required for data: 150528000
I0727 20:33:55.787384  5105 layer_factory.hpp:77] Creating layer conv2/norm2
I0727 20:33:55.787402  5105 net.cpp:91] Creating Layer conv2/norm2
I0727 20:33:55.787411  5105 net.cpp:425] conv2/norm2 <- conv2/3x3
I0727 20:33:55.787425  5105 net.cpp:399] conv2/norm2 -> conv2/norm2
I0727 20:33:55.788620  5105 net.cpp:141] Setting up conv2/norm2
I0727 20:33:55.788642  5105 net.cpp:148] Top shape: 10 192 56 56 (6021120)
I0727 20:33:55.788650  5105 net.cpp:156] Memory required for data: 174612480
I0727 20:33:55.788660  5105 layer_factory.hpp:77] Creating layer pool2/3x3_s2
I0727 20:33:55.788673  5105 net.cpp:91] Creating Layer pool2/3x3_s2
I0727 20:33:55.788683  5105 net.cpp:425] pool2/3x3_s2 <- conv2/norm2
I0727 20:33:55.788702  5105 net.cpp:399] pool2/3x3_s2 -> pool2/3x3_s2
I0727 20:33:55.788861  5105 net.cpp:141] Setting up pool2/3x3_s2
I0727 20:33:55.788877  5105 net.cpp:148] Top shape: 10 192 28 28 (1505280)
I0727 20:33:55.788884  5105 net.cpp:156] Memory required for data: 180633600
I0727 20:33:55.788892  5105 layer_factory.hpp:77] Creating layer pool2/3x3_s2_pool2/3x3_s2_0_split
I0727 20:33:55.788907  5105 net.cpp:91] Creating Layer pool2/3x3_s2_pool2/3x3_s2_0_split
I0727 20:33:55.788914  5105 net.cpp:425] pool2/3x3_s2_pool2/3x3_s2_0_split <- pool2/3x3_s2
I0727 20:33:55.788924  5105 net.cpp:399] pool2/3x3_s2_pool2/3x3_s2_0_split -> pool2/3x3_s2_pool2/3x3_s2_0_split_0
I0727 20:33:55.788945  5105 net.cpp:399] pool2/3x3_s2_pool2/3x3_s2_0_split -> pool2/3x3_s2_pool2/3x3_s2_0_split_1
I0727 20:33:55.788962  5105 net.cpp:399] pool2/3x3_s2_pool2/3x3_s2_0_split -> pool2/3x3_s2_pool2/3x3_s2_0_split_2
I0727 20:33:55.788974  5105 net.cpp:399] pool2/3x3_s2_pool2/3x3_s2_0_split -> pool2/3x3_s2_pool2/3x3_s2_0_split_3
I0727 20:33:55.790215  5105 net.cpp:141] Setting up pool2/3x3_s2_pool2/3x3_s2_0_split
I0727 20:33:55.790241  5105 net.cpp:148] Top shape: 10 192 28 28 (1505280)
I0727 20:33:55.790252  5105 net.cpp:148] Top shape: 10 192 28 28 (1505280)
I0727 20:33:55.790263  5105 net.cpp:148] Top shape: 10 192 28 28 (1505280)
I0727 20:33:55.790273  5105 net.cpp:148] Top shape: 10 192 28 28 (1505280)
I0727 20:33:55.790280  5105 net.cpp:156] Memory required for data: 204718080
I0727 20:33:55.790290  5105 layer_factory.hpp:77] Creating layer inception_3a/1x1
I0727 20:33:55.790318  5105 net.cpp:91] Creating Layer inception_3a/1x1
I0727 20:33:55.790328  5105 net.cpp:425] inception_3a/1x1 <- pool2/3x3_s2_pool2/3x3_s2_0_split_0
I0727 20:33:55.790354  5105 net.cpp:399] inception_3a/1x1 -> inception_3a/1x1
I0727 20:33:55.794147  5109 net.cpp:141] Setting up inception_3a/1x1
I0727 20:33:55.794175  5109 net.cpp:148] Top shape: 10 64 28 28 (501760)
I0727 20:33:55.794185  5109 net.cpp:156] Memory required for data: 206725120
I0727 20:33:55.794204  5109 layer_factory.hpp:77] Creating layer inception_3a/relu_1x1
I0727 20:33:55.794225  5109 net.cpp:91] Creating Layer inception_3a/relu_1x1
I0727 20:33:55.794235  5109 net.cpp:425] inception_3a/relu_1x1 <- inception_3a/1x1
I0727 20:33:55.794248  5109 net.cpp:386] inception_3a/relu_1x1 -> inception_3a/1x1 (in-place)
I0727 20:33:55.794701  5109 net.cpp:141] Setting up inception_3a/relu_1x1
I0727 20:33:55.794723  5109 net.cpp:148] Top shape: 10 64 28 28 (501760)
I0727 20:33:55.794730  5109 net.cpp:156] Memory required for data: 208732160
I0727 20:33:55.794739  5109 layer_factory.hpp:77] Creating layer inception_3a/3x3_reduce
I0727 20:33:55.794766  5109 net.cpp:91] Creating Layer inception_3a/3x3_reduce
I0727 20:33:55.794777  5109 net.cpp:425] inception_3a/3x3_reduce <- pool2/3x3_s2_pool2/3x3_s2_0_split_1
I0727 20:33:55.794796  5109 net.cpp:399] inception_3a/3x3_reduce -> inception_3a/3x3_reduce
I0727 20:33:55.801038  5105 net.cpp:141] Setting up inception_3a/1x1
I0727 20:33:55.801075  5105 net.cpp:148] Top shape: 10 64 28 28 (501760)
I0727 20:33:55.801086  5105 net.cpp:156] Memory required for data: 206725120
I0727 20:33:55.801110  5105 layer_factory.hpp:77] Creating layer inception_3a/relu_1x1
I0727 20:33:55.801128  5105 net.cpp:91] Creating Layer inception_3a/relu_1x1
I0727 20:33:55.801139  5105 net.cpp:425] inception_3a/relu_1x1 <- inception_3a/1x1
I0727 20:33:55.801156  5105 net.cpp:386] inception_3a/relu_1x1 -> inception_3a/1x1 (in-place)
I0727 20:33:55.801527  5105 net.cpp:141] Setting up inception_3a/relu_1x1
I0727 20:33:55.801544  5105 net.cpp:148] Top shape: 10 64 28 28 (501760)
I0727 20:33:55.801551  5105 net.cpp:156] Memory required for data: 208732160
I0727 20:33:55.801559  5105 layer_factory.hpp:77] Creating layer inception_3a/3x3_reduce
I0727 20:33:55.801586  5105 net.cpp:91] Creating Layer inception_3a/3x3_reduce
I0727 20:33:55.801595  5105 net.cpp:425] inception_3a/3x3_reduce <- pool2/3x3_s2_pool2/3x3_s2_0_split_1
I0727 20:33:55.801614  5105 net.cpp:399] inception_3a/3x3_reduce -> inception_3a/3x3_reduce
I0727 20:33:55.806565  5109 net.cpp:141] Setting up inception_3a/3x3_reduce
I0727 20:33:55.806614  5109 net.cpp:148] Top shape: 10 96 28 28 (752640)
I0727 20:33:55.806625  5109 net.cpp:156] Memory required for data: 211742720
I0727 20:33:55.806655  5109 layer_factory.hpp:77] Creating layer inception_3a/relu_3x3_reduce
I0727 20:33:55.806677  5109 net.cpp:91] Creating Layer inception_3a/relu_3x3_reduce
I0727 20:33:55.806699  5109 net.cpp:425] inception_3a/relu_3x3_reduce <- inception_3a/3x3_reduce
I0727 20:33:55.806722  5109 net.cpp:386] inception_3a/relu_3x3_reduce -> inception_3a/3x3_reduce (in-place)
I0727 20:33:55.807201  5109 net.cpp:141] Setting up inception_3a/relu_3x3_reduce
I0727 20:33:55.807222  5109 net.cpp:148] Top shape: 10 96 28 28 (752640)
I0727 20:33:55.807230  5109 net.cpp:156] Memory required for data: 214753280
I0727 20:33:55.807240  5109 layer_factory.hpp:77] Creating layer inception_3a/3x3
I0727 20:33:55.807274  5109 net.cpp:91] Creating Layer inception_3a/3x3
I0727 20:33:55.807286  5109 net.cpp:425] inception_3a/3x3 <- inception_3a/3x3_reduce
I0727 20:33:55.807302  5109 net.cpp:399] inception_3a/3x3 -> inception_3a/3x3
I0727 20:33:55.809113  5105 net.cpp:141] Setting up inception_3a/3x3_reduce
I0727 20:33:55.809139  5105 net.cpp:148] Top shape: 10 96 28 28 (752640)
I0727 20:33:55.809145  5105 net.cpp:156] Memory required for data: 211742720
I0727 20:33:55.809166  5105 layer_factory.hpp:77] Creating layer inception_3a/relu_3x3_reduce
I0727 20:33:55.809181  5105 net.cpp:91] Creating Layer inception_3a/relu_3x3_reduce
I0727 20:33:55.809190  5105 net.cpp:425] inception_3a/relu_3x3_reduce <- inception_3a/3x3_reduce
I0727 20:33:55.809203  5105 net.cpp:386] inception_3a/relu_3x3_reduce -> inception_3a/3x3_reduce (in-place)
I0727 20:33:55.809522  5105 net.cpp:141] Setting up inception_3a/relu_3x3_reduce
I0727 20:33:55.809536  5105 net.cpp:148] Top shape: 10 96 28 28 (752640)
I0727 20:33:55.809543  5105 net.cpp:156] Memory required for data: 214753280
I0727 20:33:55.809551  5105 layer_factory.hpp:77] Creating layer inception_3a/3x3
I0727 20:33:55.809581  5105 net.cpp:91] Creating Layer inception_3a/3x3
I0727 20:33:55.809589  5105 net.cpp:425] inception_3a/3x3 <- inception_3a/3x3_reduce
I0727 20:33:55.809604  5105 net.cpp:399] inception_3a/3x3 -> inception_3a/3x3
I0727 20:33:55.814210  5109 net.cpp:141] Setting up inception_3a/3x3
I0727 20:33:55.814240  5109 net.cpp:148] Top shape: 10 128 28 28 (1003520)
I0727 20:33:55.814249  5109 net.cpp:156] Memory required for data: 218767360
I0727 20:33:55.814268  5109 layer_factory.hpp:77] Creating layer inception_3a/relu_3x3
I0727 20:33:55.814292  5109 net.cpp:91] Creating Layer inception_3a/relu_3x3
I0727 20:33:55.814303  5109 net.cpp:425] inception_3a/relu_3x3 <- inception_3a/3x3
I0727 20:33:55.814316  5109 net.cpp:386] inception_3a/relu_3x3 -> inception_3a/3x3 (in-place)
I0727 20:33:55.815421  5109 net.cpp:141] Setting up inception_3a/relu_3x3
I0727 20:33:55.815448  5109 net.cpp:148] Top shape: 10 128 28 28 (1003520)
I0727 20:33:55.815456  5109 net.cpp:156] Memory required for data: 222781440
I0727 20:33:55.815465  5109 layer_factory.hpp:77] Creating layer inception_3a/5x5_reduce
I0727 20:33:55.815491  5109 net.cpp:91] Creating Layer inception_3a/5x5_reduce
I0727 20:33:55.815498  5105 net.cpp:141] Setting up inception_3a/3x3
I0727 20:33:55.815503  5109 net.cpp:425] inception_3a/5x5_reduce <- pool2/3x3_s2_pool2/3x3_s2_0_split_2
I0727 20:33:55.815517  5105 net.cpp:148] Top shape: 10 128 28 28 (1003520)
I0727 20:33:55.815520  5109 net.cpp:399] inception_3a/5x5_reduce -> inception_3a/5x5_reduce
I0727 20:33:55.815531  5105 net.cpp:156] Memory required for data: 218767360
I0727 20:33:55.815546  5105 layer_factory.hpp:77] Creating layer inception_3a/relu_3x3
I0727 20:33:55.815559  5105 net.cpp:91] Creating Layer inception_3a/relu_3x3
I0727 20:33:55.815568  5105 net.cpp:425] inception_3a/relu_3x3 <- inception_3a/3x3
I0727 20:33:55.815582  5105 net.cpp:386] inception_3a/relu_3x3 -> inception_3a/3x3 (in-place)
I0727 20:33:55.816643  5105 net.cpp:141] Setting up inception_3a/relu_3x3
I0727 20:33:55.816666  5105 net.cpp:148] Top shape: 10 128 28 28 (1003520)
I0727 20:33:55.816675  5105 net.cpp:156] Memory required for data: 222781440
I0727 20:33:55.816685  5105 layer_factory.hpp:77] Creating layer inception_3a/5x5_reduce
I0727 20:33:55.816711  5105 net.cpp:91] Creating Layer inception_3a/5x5_reduce
I0727 20:33:55.816722  5105 net.cpp:425] inception_3a/5x5_reduce <- pool2/3x3_s2_pool2/3x3_s2_0_split_2
I0727 20:33:55.816741  5105 net.cpp:399] inception_3a/5x5_reduce -> inception_3a/5x5_reduce
I0727 20:33:55.820749  5109 net.cpp:141] Setting up inception_3a/5x5_reduce
I0727 20:33:55.820775  5109 net.cpp:148] Top shape: 10 16 28 28 (125440)
I0727 20:33:55.820783  5109 net.cpp:156] Memory required for data: 223283200
I0727 20:33:55.820801  5109 layer_factory.hpp:77] Creating layer inception_3a/relu_5x5_reduce
I0727 20:33:55.820816  5109 net.cpp:91] Creating Layer inception_3a/relu_5x5_reduce
I0727 20:33:55.820827  5109 net.cpp:425] inception_3a/relu_5x5_reduce <- inception_3a/5x5_reduce
I0727 20:33:55.820838  5109 net.cpp:386] inception_3a/relu_5x5_reduce -> inception_3a/5x5_reduce (in-place)
I0727 20:33:55.821171  5105 net.cpp:141] Setting up inception_3a/5x5_reduce
I0727 20:33:55.821189  5105 net.cpp:148] Top shape: 10 16 28 28 (125440)
I0727 20:33:55.821197  5105 net.cpp:156] Memory required for data: 223283200
I0727 20:33:55.821213  5105 layer_factory.hpp:77] Creating layer inception_3a/relu_5x5_reduce
I0727 20:33:55.821226  5105 net.cpp:91] Creating Layer inception_3a/relu_5x5_reduce
I0727 20:33:55.821235  5105 net.cpp:425] inception_3a/relu_5x5_reduce <- inception_3a/5x5_reduce
I0727 20:33:55.821252  5105 net.cpp:386] inception_3a/relu_5x5_reduce -> inception_3a/5x5_reduce (in-place)
I0727 20:33:55.821264  5109 net.cpp:141] Setting up inception_3a/relu_5x5_reduce
I0727 20:33:55.821279  5109 net.cpp:148] Top shape: 10 16 28 28 (125440)
I0727 20:33:55.821286  5109 net.cpp:156] Memory required for data: 223784960
I0727 20:33:55.821295  5109 layer_factory.hpp:77] Creating layer inception_3a/5x5
I0727 20:33:55.821319  5109 net.cpp:91] Creating Layer inception_3a/5x5
I0727 20:33:55.821329  5109 net.cpp:425] inception_3a/5x5 <- inception_3a/5x5_reduce
I0727 20:33:55.821348  5109 net.cpp:399] inception_3a/5x5 -> inception_3a/5x5
I0727 20:33:55.821748  5105 net.cpp:141] Setting up inception_3a/relu_5x5_reduce
I0727 20:33:55.821765  5105 net.cpp:148] Top shape: 10 16 28 28 (125440)
I0727 20:33:55.821776  5105 net.cpp:156] Memory required for data: 223784960
I0727 20:33:55.821785  5105 layer_factory.hpp:77] Creating layer inception_3a/5x5
I0727 20:33:55.821805  5105 net.cpp:91] Creating Layer inception_3a/5x5
I0727 20:33:55.821815  5105 net.cpp:425] inception_3a/5x5 <- inception_3a/5x5_reduce
I0727 20:33:55.821835  5105 net.cpp:399] inception_3a/5x5 -> inception_3a/5x5
I0727 20:33:55.827911  5109 net.cpp:141] Setting up inception_3a/5x5
I0727 20:33:55.827950  5109 net.cpp:148] Top shape: 10 32 28 28 (250880)
I0727 20:33:55.827960  5109 net.cpp:156] Memory required for data: 224788480
I0727 20:33:55.827978  5109 layer_factory.hpp:77] Creating layer inception_3a/relu_5x5
I0727 20:33:55.827996  5109 net.cpp:91] Creating Layer inception_3a/relu_5x5
I0727 20:33:55.828006  5109 net.cpp:425] inception_3a/relu_5x5 <- inception_3a/5x5
I0727 20:33:55.828022  5109 net.cpp:386] inception_3a/relu_5x5 -> inception_3a/5x5 (in-place)
I0727 20:33:55.828405  5109 net.cpp:141] Setting up inception_3a/relu_5x5
I0727 20:33:55.828425  5109 net.cpp:148] Top shape: 10 32 28 28 (250880)
I0727 20:33:55.828433  5109 net.cpp:156] Memory required for data: 225792000
I0727 20:33:55.828441  5109 layer_factory.hpp:77] Creating layer inception_3a/pool
I0727 20:33:55.828461  5109 net.cpp:91] Creating Layer inception_3a/pool
I0727 20:33:55.828471  5109 net.cpp:425] inception_3a/pool <- pool2/3x3_s2_pool2/3x3_s2_0_split_3
I0727 20:33:55.828483  5109 net.cpp:399] inception_3a/pool -> inception_3a/pool
I0727 20:33:55.828867  5105 net.cpp:141] Setting up inception_3a/5x5
I0727 20:33:55.828891  5105 net.cpp:148] Top shape: 10 32 28 28 (250880)
I0727 20:33:55.828899  5105 net.cpp:156] Memory required for data: 224788480
I0727 20:33:55.828915  5105 layer_factory.hpp:77] Creating layer inception_3a/relu_5x5
I0727 20:33:55.828924  5109 net.cpp:141] Setting up inception_3a/pool
I0727 20:33:55.828933  5105 net.cpp:91] Creating Layer inception_3a/relu_5x5
I0727 20:33:55.828938  5109 net.cpp:148] Top shape: 10 192 28 28 (1505280)
I0727 20:33:55.828940  5105 net.cpp:425] inception_3a/relu_5x5 <- inception_3a/5x5
I0727 20:33:55.828946  5109 net.cpp:156] Memory required for data: 231813120
I0727 20:33:55.828953  5105 net.cpp:386] inception_3a/relu_5x5 -> inception_3a/5x5 (in-place)
I0727 20:33:55.828953  5109 layer_factory.hpp:77] Creating layer inception_3a/pool_proj
I0727 20:33:55.828979  5109 net.cpp:91] Creating Layer inception_3a/pool_proj
I0727 20:33:55.828990  5109 net.cpp:425] inception_3a/pool_proj <- inception_3a/pool
I0727 20:33:55.829007  5109 net.cpp:399] inception_3a/pool_proj -> inception_3a/pool_proj
I0727 20:33:55.829442  5105 net.cpp:141] Setting up inception_3a/relu_5x5
I0727 20:33:55.829458  5105 net.cpp:148] Top shape: 10 32 28 28 (250880)
I0727 20:33:55.829466  5105 net.cpp:156] Memory required for data: 225792000
I0727 20:33:55.829474  5105 layer_factory.hpp:77] Creating layer inception_3a/pool
I0727 20:33:55.829493  5105 net.cpp:91] Creating Layer inception_3a/pool
I0727 20:33:55.829504  5105 net.cpp:425] inception_3a/pool <- pool2/3x3_s2_pool2/3x3_s2_0_split_3
I0727 20:33:55.829520  5105 net.cpp:399] inception_3a/pool -> inception_3a/pool
I0727 20:33:55.829707  5105 net.cpp:141] Setting up inception_3a/pool
I0727 20:33:55.829725  5105 net.cpp:148] Top shape: 10 192 28 28 (1505280)
I0727 20:33:55.829731  5105 net.cpp:156] Memory required for data: 231813120
I0727 20:33:55.829741  5105 layer_factory.hpp:77] Creating layer inception_3a/pool_proj
I0727 20:33:55.829766  5105 net.cpp:91] Creating Layer inception_3a/pool_proj
I0727 20:33:55.829777  5105 net.cpp:425] inception_3a/pool_proj <- inception_3a/pool
I0727 20:33:55.829792  5105 net.cpp:399] inception_3a/pool_proj -> inception_3a/pool_proj
I0727 20:33:55.834239  5109 net.cpp:141] Setting up inception_3a/pool_proj
I0727 20:33:55.834267  5109 net.cpp:148] Top shape: 10 32 28 28 (250880)
I0727 20:33:55.834276  5109 net.cpp:156] Memory required for data: 232816640
I0727 20:33:55.834302  5109 layer_factory.hpp:77] Creating layer inception_3a/relu_pool_proj
I0727 20:33:55.834332  5109 net.cpp:91] Creating Layer inception_3a/relu_pool_proj
I0727 20:33:55.834344  5109 net.cpp:425] inception_3a/relu_pool_proj <- inception_3a/pool_proj
I0727 20:33:55.834357  5109 net.cpp:386] inception_3a/relu_pool_proj -> inception_3a/pool_proj (in-place)
I0727 20:33:55.835438  5109 net.cpp:141] Setting up inception_3a/relu_pool_proj
I0727 20:33:55.835463  5109 net.cpp:148] Top shape: 10 32 28 28 (250880)
I0727 20:33:55.835470  5109 net.cpp:156] Memory required for data: 233820160
I0727 20:33:55.835479  5109 layer_factory.hpp:77] Creating layer inception_3a/output
I0727 20:33:55.835515  5109 net.cpp:91] Creating Layer inception_3a/output
I0727 20:33:55.835526  5109 net.cpp:425] inception_3a/output <- inception_3a/1x1
I0727 20:33:55.835537  5109 net.cpp:425] inception_3a/output <- inception_3a/3x3
I0727 20:33:55.835546  5109 net.cpp:425] inception_3a/output <- inception_3a/5x5
I0727 20:33:55.835556  5109 net.cpp:425] inception_3a/output <- inception_3a/pool_proj
I0727 20:33:55.835568  5109 net.cpp:399] inception_3a/output -> inception_3a/output
I0727 20:33:55.835605  5105 net.cpp:141] Setting up inception_3a/pool_proj
I0727 20:33:55.835623  5105 net.cpp:148] Top shape: 10 32 28 28 (250880)
I0727 20:33:55.835631  5105 net.cpp:156] Memory required for data: 232816640
I0727 20:33:55.835654  5109 net.cpp:141] Setting up inception_3a/output
I0727 20:33:55.835654  5105 layer_factory.hpp:77] Creating layer inception_3a/relu_pool_proj
I0727 20:33:55.835675  5109 net.cpp:148] Top shape: 10 256 28 28 (2007040)
I0727 20:33:55.835682  5105 net.cpp:91] Creating Layer inception_3a/relu_pool_proj
I0727 20:33:55.835683  5109 net.cpp:156] Memory required for data: 241848320
I0727 20:33:55.835696  5105 net.cpp:425] inception_3a/relu_pool_proj <- inception_3a/pool_proj
I0727 20:33:55.835698  5109 layer_factory.hpp:77] Creating layer inception_3a/output_inception_3a/output_0_split
I0727 20:33:55.835711  5105 net.cpp:386] inception_3a/relu_pool_proj -> inception_3a/pool_proj (in-place)
I0727 20:33:55.835714  5109 net.cpp:91] Creating Layer inception_3a/output_inception_3a/output_0_split
I0727 20:33:55.835722  5109 net.cpp:425] inception_3a/output_inception_3a/output_0_split <- inception_3a/output
I0727 20:33:55.835737  5109 net.cpp:399] inception_3a/output_inception_3a/output_0_split -> inception_3a/output_inception_3a/output_0_split_0
I0727 20:33:55.835752  5109 net.cpp:399] inception_3a/output_inception_3a/output_0_split -> inception_3a/output_inception_3a/output_0_split_1
I0727 20:33:55.835767  5109 net.cpp:399] inception_3a/output_inception_3a/output_0_split -> inception_3a/output_inception_3a/output_0_split_2
I0727 20:33:55.835782  5109 net.cpp:399] inception_3a/output_inception_3a/output_0_split -> inception_3a/output_inception_3a/output_0_split_3
I0727 20:33:55.836702  5109 net.cpp:141] Setting up inception_3a/output_inception_3a/output_0_split
I0727 20:33:55.836705  5105 net.cpp:141] Setting up inception_3a/relu_pool_proj
I0727 20:33:55.836724  5109 net.cpp:148] Top shape: 10 256 28 28 (2007040)
I0727 20:33:55.836724  5105 net.cpp:148] Top shape: 10 32 28 28 (250880)
I0727 20:33:55.836738  5109 net.cpp:148] Top shape: 10 256 28 28 (2007040)
I0727 20:33:55.836737  5105 net.cpp:156] Memory required for data: 233820160
I0727 20:33:55.836750  5109 net.cpp:148] Top shape: 10 256 28 28 (2007040)
I0727 20:33:55.836750  5105 layer_factory.hpp:77] Creating layer inception_3a/output
I0727 20:33:55.836762  5109 net.cpp:148] Top shape: 10 256 28 28 (2007040)
I0727 20:33:55.836769  5109 net.cpp:156] Memory required for data: 273960960
I0727 20:33:55.836773  5105 net.cpp:91] Creating Layer inception_3a/output
I0727 20:33:55.836777  5109 layer_factory.hpp:77] Creating layer inception_3b/1x1
I0727 20:33:55.836782  5105 net.cpp:425] inception_3a/output <- inception_3a/1x1
I0727 20:33:55.836792  5105 net.cpp:425] inception_3a/output <- inception_3a/3x3
I0727 20:33:55.836802  5105 net.cpp:425] inception_3a/output <- inception_3a/5x5
I0727 20:33:55.836802  5109 net.cpp:91] Creating Layer inception_3b/1x1
I0727 20:33:55.836815  5105 net.cpp:425] inception_3a/output <- inception_3a/pool_proj
I0727 20:33:55.836819  5109 net.cpp:425] inception_3b/1x1 <- inception_3a/output_inception_3a/output_0_split_0
I0727 20:33:55.836835  5105 net.cpp:399] inception_3a/output -> inception_3a/output
I0727 20:33:55.836835  5109 net.cpp:399] inception_3b/1x1 -> inception_3b/1x1
I0727 20:33:55.836958  5105 net.cpp:141] Setting up inception_3a/output
I0727 20:33:55.836974  5105 net.cpp:148] Top shape: 10 256 28 28 (2007040)
I0727 20:33:55.836982  5105 net.cpp:156] Memory required for data: 241848320
I0727 20:33:55.836992  5105 layer_factory.hpp:77] Creating layer inception_3a/output_inception_3a/output_0_split
I0727 20:33:55.837003  5105 net.cpp:91] Creating Layer inception_3a/output_inception_3a/output_0_split
I0727 20:33:55.837013  5105 net.cpp:425] inception_3a/output_inception_3a/output_0_split <- inception_3a/output
I0727 20:33:55.837028  5105 net.cpp:399] inception_3a/output_inception_3a/output_0_split -> inception_3a/output_inception_3a/output_0_split_0
I0727 20:33:55.837044  5105 net.cpp:399] inception_3a/output_inception_3a/output_0_split -> inception_3a/output_inception_3a/output_0_split_1
I0727 20:33:55.837057  5105 net.cpp:399] inception_3a/output_inception_3a/output_0_split -> inception_3a/output_inception_3a/output_0_split_2
I0727 20:33:55.837071  5105 net.cpp:399] inception_3a/output_inception_3a/output_0_split -> inception_3a/output_inception_3a/output_0_split_3
I0727 20:33:55.837436  5105 net.cpp:141] Setting up inception_3a/output_inception_3a/output_0_split
I0727 20:33:55.837453  5105 net.cpp:148] Top shape: 10 256 28 28 (2007040)
I0727 20:33:55.837463  5105 net.cpp:148] Top shape: 10 256 28 28 (2007040)
I0727 20:33:55.837473  5105 net.cpp:148] Top shape: 10 256 28 28 (2007040)
I0727 20:33:55.837483  5105 net.cpp:148] Top shape: 10 256 28 28 (2007040)
I0727 20:33:55.837491  5105 net.cpp:156] Memory required for data: 273960960
I0727 20:33:55.837498  5105 layer_factory.hpp:77] Creating layer inception_3b/1x1
I0727 20:33:55.837527  5105 net.cpp:91] Creating Layer inception_3b/1x1
I0727 20:33:55.837538  5105 net.cpp:425] inception_3b/1x1 <- inception_3a/output_inception_3a/output_0_split_0
I0727 20:33:55.837554  5105 net.cpp:399] inception_3b/1x1 -> inception_3b/1x1
I0727 20:33:55.841450  5109 net.cpp:141] Setting up inception_3b/1x1
I0727 20:33:55.841487  5109 net.cpp:148] Top shape: 10 128 28 28 (1003520)
I0727 20:33:55.841497  5109 net.cpp:156] Memory required for data: 277975040
I0727 20:33:55.841516  5109 layer_factory.hpp:77] Creating layer inception_3b/relu_1x1
I0727 20:33:55.841532  5109 net.cpp:91] Creating Layer inception_3b/relu_1x1
I0727 20:33:55.841542  5109 net.cpp:425] inception_3b/relu_1x1 <- inception_3b/1x1
I0727 20:33:55.841557  5109 net.cpp:386] inception_3b/relu_1x1 -> inception_3b/1x1 (in-place)
I0727 20:33:55.841909  5109 net.cpp:141] Setting up inception_3b/relu_1x1
I0727 20:33:55.841925  5109 net.cpp:148] Top shape: 10 128 28 28 (1003520)
I0727 20:33:55.841933  5109 net.cpp:156] Memory required for data: 281989120
I0727 20:33:55.841939  5109 layer_factory.hpp:77] Creating layer inception_3b/3x3_reduce
I0727 20:33:55.841964  5109 net.cpp:91] Creating Layer inception_3b/3x3_reduce
I0727 20:33:55.841974  5109 net.cpp:425] inception_3b/3x3_reduce <- inception_3a/output_inception_3a/output_0_split_1
I0727 20:33:55.841990  5109 net.cpp:399] inception_3b/3x3_reduce -> inception_3b/3x3_reduce
I0727 20:33:55.843103  5105 net.cpp:141] Setting up inception_3b/1x1
I0727 20:33:55.843127  5105 net.cpp:148] Top shape: 10 128 28 28 (1003520)
I0727 20:33:55.843134  5105 net.cpp:156] Memory required for data: 277975040
I0727 20:33:55.843149  5105 layer_factory.hpp:77] Creating layer inception_3b/relu_1x1
I0727 20:33:55.843161  5105 net.cpp:91] Creating Layer inception_3b/relu_1x1
I0727 20:33:55.843170  5105 net.cpp:425] inception_3b/relu_1x1 <- inception_3b/1x1
I0727 20:33:55.843186  5105 net.cpp:386] inception_3b/relu_1x1 -> inception_3b/1x1 (in-place)
I0727 20:33:55.843586  5105 net.cpp:141] Setting up inception_3b/relu_1x1
I0727 20:33:55.843606  5105 net.cpp:148] Top shape: 10 128 28 28 (1003520)
I0727 20:33:55.843614  5105 net.cpp:156] Memory required for data: 281989120
I0727 20:33:55.843623  5105 layer_factory.hpp:77] Creating layer inception_3b/3x3_reduce
I0727 20:33:55.843647  5105 net.cpp:91] Creating Layer inception_3b/3x3_reduce
I0727 20:33:55.843658  5105 net.cpp:425] inception_3b/3x3_reduce <- inception_3a/output_inception_3a/output_0_split_1
I0727 20:33:55.843678  5105 net.cpp:399] inception_3b/3x3_reduce -> inception_3b/3x3_reduce
I0727 20:33:55.847548  5109 net.cpp:141] Setting up inception_3b/3x3_reduce
I0727 20:33:55.847575  5109 net.cpp:148] Top shape: 10 128 28 28 (1003520)
I0727 20:33:55.847584  5109 net.cpp:156] Memory required for data: 286003200
I0727 20:33:55.847600  5109 layer_factory.hpp:77] Creating layer inception_3b/relu_3x3_reduce
I0727 20:33:55.847621  5109 net.cpp:91] Creating Layer inception_3b/relu_3x3_reduce
I0727 20:33:55.847632  5109 net.cpp:425] inception_3b/relu_3x3_reduce <- inception_3b/3x3_reduce
I0727 20:33:55.847645  5109 net.cpp:386] inception_3b/relu_3x3_reduce -> inception_3b/3x3_reduce (in-place)
I0727 20:33:55.848002  5109 net.cpp:141] Setting up inception_3b/relu_3x3_reduce
I0727 20:33:55.848019  5109 net.cpp:148] Top shape: 10 128 28 28 (1003520)
I0727 20:33:55.848027  5109 net.cpp:156] Memory required for data: 290017280
I0727 20:33:55.848036  5109 layer_factory.hpp:77] Creating layer inception_3b/3x3
I0727 20:33:55.848058  5109 net.cpp:91] Creating Layer inception_3b/3x3
I0727 20:33:55.848068  5109 net.cpp:425] inception_3b/3x3 <- inception_3b/3x3_reduce
I0727 20:33:55.848085  5109 net.cpp:399] inception_3b/3x3 -> inception_3b/3x3
I0727 20:33:55.851013  5105 net.cpp:141] Setting up inception_3b/3x3_reduce
I0727 20:33:55.851058  5105 net.cpp:148] Top shape: 10 128 28 28 (1003520)
I0727 20:33:55.851065  5105 net.cpp:156] Memory required for data: 286003200
I0727 20:33:55.851080  5105 layer_factory.hpp:77] Creating layer inception_3b/relu_3x3_reduce
I0727 20:33:55.851109  5105 net.cpp:91] Creating Layer inception_3b/relu_3x3_reduce
I0727 20:33:55.851119  5105 net.cpp:425] inception_3b/relu_3x3_reduce <- inception_3b/3x3_reduce
I0727 20:33:55.851132  5105 net.cpp:386] inception_3b/relu_3x3_reduce -> inception_3b/3x3_reduce (in-place)
I0727 20:33:55.851462  5105 net.cpp:141] Setting up inception_3b/relu_3x3_reduce
I0727 20:33:55.851476  5105 net.cpp:148] Top shape: 10 128 28 28 (1003520)
I0727 20:33:55.851482  5105 net.cpp:156] Memory required for data: 290017280
I0727 20:33:55.851490  5105 layer_factory.hpp:77] Creating layer inception_3b/3x3
I0727 20:33:55.851512  5105 net.cpp:91] Creating Layer inception_3b/3x3
I0727 20:33:55.851521  5105 net.cpp:425] inception_3b/3x3 <- inception_3b/3x3_reduce
I0727 20:33:55.851536  5105 net.cpp:399] inception_3b/3x3 -> inception_3b/3x3
I0727 20:33:55.857378  5109 net.cpp:141] Setting up inception_3b/3x3
I0727 20:33:55.857419  5109 net.cpp:148] Top shape: 10 192 28 28 (1505280)
I0727 20:33:55.857431  5109 net.cpp:156] Memory required for data: 296038400
I0727 20:33:55.857450  5109 layer_factory.hpp:77] Creating layer inception_3b/relu_3x3
I0727 20:33:55.857475  5109 net.cpp:91] Creating Layer inception_3b/relu_3x3
I0727 20:33:55.857486  5109 net.cpp:425] inception_3b/relu_3x3 <- inception_3b/3x3
I0727 20:33:55.857503  5109 net.cpp:386] inception_3b/relu_3x3 -> inception_3b/3x3 (in-place)
I0727 20:33:55.859078  5109 net.cpp:141] Setting up inception_3b/relu_3x3
I0727 20:33:55.859102  5109 net.cpp:148] Top shape: 10 192 28 28 (1505280)
I0727 20:33:55.859112  5109 net.cpp:156] Memory required for data: 302059520
I0727 20:33:55.859119  5109 layer_factory.hpp:77] Creating layer inception_3b/5x5_reduce
I0727 20:33:55.859146  5109 net.cpp:91] Creating Layer inception_3b/5x5_reduce
I0727 20:33:55.859158  5109 net.cpp:425] inception_3b/5x5_reduce <- inception_3a/output_inception_3a/output_0_split_2
I0727 20:33:55.859177  5109 net.cpp:399] inception_3b/5x5_reduce -> inception_3b/5x5_reduce
I0727 20:33:55.859297  5105 net.cpp:141] Setting up inception_3b/3x3
I0727 20:33:55.859318  5105 net.cpp:148] Top shape: 10 192 28 28 (1505280)
I0727 20:33:55.859328  5105 net.cpp:156] Memory required for data: 296038400
I0727 20:33:55.859344  5105 layer_factory.hpp:77] Creating layer inception_3b/relu_3x3
I0727 20:33:55.859364  5105 net.cpp:91] Creating Layer inception_3b/relu_3x3
I0727 20:33:55.859375  5105 net.cpp:425] inception_3b/relu_3x3 <- inception_3b/3x3
I0727 20:33:55.859392  5105 net.cpp:386] inception_3b/relu_3x3 -> inception_3b/3x3 (in-place)
I0727 20:33:55.860363  5105 net.cpp:141] Setting up inception_3b/relu_3x3
I0727 20:33:55.860383  5105 net.cpp:148] Top shape: 10 192 28 28 (1505280)
I0727 20:33:55.860393  5105 net.cpp:156] Memory required for data: 302059520
I0727 20:33:55.860401  5105 layer_factory.hpp:77] Creating layer inception_3b/5x5_reduce
I0727 20:33:55.860429  5105 net.cpp:91] Creating Layer inception_3b/5x5_reduce
I0727 20:33:55.860440  5105 net.cpp:425] inception_3b/5x5_reduce <- inception_3a/output_inception_3a/output_0_split_2
I0727 20:33:55.860458  5105 net.cpp:399] inception_3b/5x5_reduce -> inception_3b/5x5_reduce
I0727 20:33:55.865010  5109 net.cpp:141] Setting up inception_3b/5x5_reduce
I0727 20:33:55.865038  5109 net.cpp:148] Top shape: 10 32 28 28 (250880)
I0727 20:33:55.865047  5109 net.cpp:156] Memory required for data: 303063040
I0727 20:33:55.865066  5109 layer_factory.hpp:77] Creating layer inception_3b/relu_5x5_reduce
I0727 20:33:55.865080  5109 net.cpp:91] Creating Layer inception_3b/relu_5x5_reduce
I0727 20:33:55.865090  5109 net.cpp:425] inception_3b/relu_5x5_reduce <- inception_3b/5x5_reduce
I0727 20:33:55.865108  5109 net.cpp:386] inception_3b/relu_5x5_reduce -> inception_3b/5x5_reduce (in-place)
I0727 20:33:55.865545  5109 net.cpp:141] Setting up inception_3b/relu_5x5_reduce
I0727 20:33:55.865566  5109 net.cpp:148] Top shape: 10 32 28 28 (250880)
I0727 20:33:55.865574  5109 net.cpp:156] Memory required for data: 304066560
I0727 20:33:55.865582  5109 layer_factory.hpp:77] Creating layer inception_3b/5x5
I0727 20:33:55.865607  5109 net.cpp:91] Creating Layer inception_3b/5x5
I0727 20:33:55.865618  5109 net.cpp:425] inception_3b/5x5 <- inception_3b/5x5_reduce
I0727 20:33:55.865638  5109 net.cpp:399] inception_3b/5x5 -> inception_3b/5x5
I0727 20:33:55.865758  5105 net.cpp:141] Setting up inception_3b/5x5_reduce
I0727 20:33:55.865777  5105 net.cpp:148] Top shape: 10 32 28 28 (250880)
I0727 20:33:55.865784  5105 net.cpp:156] Memory required for data: 303063040
I0727 20:33:55.865800  5105 layer_factory.hpp:77] Creating layer inception_3b/relu_5x5_reduce
I0727 20:33:55.865814  5105 net.cpp:91] Creating Layer inception_3b/relu_5x5_reduce
I0727 20:33:55.865823  5105 net.cpp:425] inception_3b/relu_5x5_reduce <- inception_3b/5x5_reduce
I0727 20:33:55.865840  5105 net.cpp:386] inception_3b/relu_5x5_reduce -> inception_3b/5x5_reduce (in-place)
I0727 20:33:55.866287  5105 net.cpp:141] Setting up inception_3b/relu_5x5_reduce
I0727 20:33:55.866312  5105 net.cpp:148] Top shape: 10 32 28 28 (250880)
I0727 20:33:55.866320  5105 net.cpp:156] Memory required for data: 304066560
I0727 20:33:55.866329  5105 layer_factory.hpp:77] Creating layer inception_3b/5x5
I0727 20:33:55.866358  5105 net.cpp:91] Creating Layer inception_3b/5x5
I0727 20:33:55.866369  5105 net.cpp:425] inception_3b/5x5 <- inception_3b/5x5_reduce
I0727 20:33:55.866384  5105 net.cpp:399] inception_3b/5x5 -> inception_3b/5x5
I0727 20:33:55.874265  5109 net.cpp:141] Setting up inception_3b/5x5
I0727 20:33:55.874305  5109 net.cpp:148] Top shape: 10 96 28 28 (752640)
I0727 20:33:55.874315  5109 net.cpp:156] Memory required for data: 307077120
I0727 20:33:55.874335  5109 layer_factory.hpp:77] Creating layer inception_3b/relu_5x5
I0727 20:33:55.874353  5109 net.cpp:91] Creating Layer inception_3b/relu_5x5
I0727 20:33:55.874364  5109 net.cpp:425] inception_3b/relu_5x5 <- inception_3b/5x5
I0727 20:33:55.874382  5109 net.cpp:386] inception_3b/relu_5x5 -> inception_3b/5x5 (in-place)
I0727 20:33:55.874467  5105 net.cpp:141] Setting up inception_3b/5x5
I0727 20:33:55.874486  5105 net.cpp:148] Top shape: 10 96 28 28 (752640)
I0727 20:33:55.874495  5105 net.cpp:156] Memory required for data: 307077120
I0727 20:33:55.874511  5105 layer_factory.hpp:77] Creating layer inception_3b/relu_5x5
I0727 20:33:55.874527  5105 net.cpp:91] Creating Layer inception_3b/relu_5x5
I0727 20:33:55.874539  5105 net.cpp:425] inception_3b/relu_5x5 <- inception_3b/5x5
I0727 20:33:55.874552  5105 net.cpp:386] inception_3b/relu_5x5 -> inception_3b/5x5 (in-place)
I0727 20:33:55.874852  5109 net.cpp:141] Setting up inception_3b/relu_5x5
I0727 20:33:55.874871  5109 net.cpp:148] Top shape: 10 96 28 28 (752640)
I0727 20:33:55.874878  5109 net.cpp:156] Memory required for data: 310087680
I0727 20:33:55.874886  5109 layer_factory.hpp:77] Creating layer inception_3b/pool
I0727 20:33:55.874909  5109 net.cpp:91] Creating Layer inception_3b/pool
I0727 20:33:55.874922  5109 net.cpp:425] inception_3b/pool <- inception_3a/output_inception_3a/output_0_split_3
I0727 20:33:55.874935  5109 net.cpp:399] inception_3b/pool -> inception_3b/pool
I0727 20:33:55.874981  5105 net.cpp:141] Setting up inception_3b/relu_5x5
I0727 20:33:55.874999  5105 net.cpp:148] Top shape: 10 96 28 28 (752640)
I0727 20:33:55.875006  5105 net.cpp:156] Memory required for data: 310087680
I0727 20:33:55.875015  5105 layer_factory.hpp:77] Creating layer inception_3b/pool
I0727 20:33:55.875032  5105 net.cpp:91] Creating Layer inception_3b/pool
I0727 20:33:55.875043  5105 net.cpp:425] inception_3b/pool <- inception_3a/output_inception_3a/output_0_split_3
I0727 20:33:55.875058  5105 net.cpp:399] inception_3b/pool -> inception_3b/pool
I0727 20:33:55.875094  5109 net.cpp:141] Setting up inception_3b/pool
I0727 20:33:55.875110  5109 net.cpp:148] Top shape: 10 256 28 28 (2007040)
I0727 20:33:55.875118  5109 net.cpp:156] Memory required for data: 318115840
I0727 20:33:55.875126  5109 layer_factory.hpp:77] Creating layer inception_3b/pool_proj
I0727 20:33:55.875156  5109 net.cpp:91] Creating Layer inception_3b/pool_proj
I0727 20:33:55.875167  5109 net.cpp:425] inception_3b/pool_proj <- inception_3b/pool
I0727 20:33:55.875183  5109 net.cpp:399] inception_3b/pool_proj -> inception_3b/pool_proj
I0727 20:33:55.875212  5105 net.cpp:141] Setting up inception_3b/pool
I0727 20:33:55.875228  5105 net.cpp:148] Top shape: 10 256 28 28 (2007040)
I0727 20:33:55.875236  5105 net.cpp:156] Memory required for data: 318115840
I0727 20:33:55.875244  5105 layer_factory.hpp:77] Creating layer inception_3b/pool_proj
I0727 20:33:55.875270  5105 net.cpp:91] Creating Layer inception_3b/pool_proj
I0727 20:33:55.875280  5105 net.cpp:425] inception_3b/pool_proj <- inception_3b/pool
I0727 20:33:55.875295  5105 net.cpp:399] inception_3b/pool_proj -> inception_3b/pool_proj
I0727 20:33:55.879870  5109 net.cpp:141] Setting up inception_3b/pool_proj
I0727 20:33:55.879899  5109 net.cpp:148] Top shape: 10 64 28 28 (501760)
I0727 20:33:55.879909  5109 net.cpp:156] Memory required for data: 320122880
I0727 20:33:55.879926  5109 layer_factory.hpp:77] Creating layer inception_3b/relu_pool_proj
I0727 20:33:55.879943  5109 net.cpp:91] Creating Layer inception_3b/relu_pool_proj
I0727 20:33:55.879953  5109 net.cpp:425] inception_3b/relu_pool_proj <- inception_3b/pool_proj
I0727 20:33:55.879971  5109 net.cpp:386] inception_3b/relu_pool_proj -> inception_3b/pool_proj (in-place)
I0727 20:33:55.881027  5109 net.cpp:141] Setting up inception_3b/relu_pool_proj
I0727 20:33:55.881050  5109 net.cpp:148] Top shape: 10 64 28 28 (501760)
I0727 20:33:55.881059  5109 net.cpp:156] Memory required for data: 322129920
I0727 20:33:55.881068  5109 layer_factory.hpp:77] Creating layer inception_3b/output
I0727 20:33:55.881083  5109 net.cpp:91] Creating Layer inception_3b/output
I0727 20:33:55.881093  5109 net.cpp:425] inception_3b/output <- inception_3b/1x1
I0727 20:33:55.881103  5109 net.cpp:425] inception_3b/output <- inception_3b/3x3
I0727 20:33:55.881114  5109 net.cpp:425] inception_3b/output <- inception_3b/5x5
I0727 20:33:55.881122  5109 net.cpp:425] inception_3b/output <- inception_3b/pool_proj
I0727 20:33:55.881139  5109 net.cpp:399] inception_3b/output -> inception_3b/output
I0727 20:33:55.881145  5105 net.cpp:141] Setting up inception_3b/pool_proj
I0727 20:33:55.881160  5105 net.cpp:148] Top shape: 10 64 28 28 (501760)
I0727 20:33:55.881168  5105 net.cpp:156] Memory required for data: 320122880
I0727 20:33:55.881184  5105 layer_factory.hpp:77] Creating layer inception_3b/relu_pool_proj
I0727 20:33:55.881197  5105 net.cpp:91] Creating Layer inception_3b/relu_pool_proj
I0727 20:33:55.881208  5105 net.cpp:425] inception_3b/relu_pool_proj <- inception_3b/pool_proj
I0727 20:33:55.881225  5105 net.cpp:386] inception_3b/relu_pool_proj -> inception_3b/pool_proj (in-place)
I0727 20:33:55.881227  5109 net.cpp:141] Setting up inception_3b/output
I0727 20:33:55.881249  5109 net.cpp:148] Top shape: 10 480 28 28 (3763200)
I0727 20:33:55.881258  5109 net.cpp:156] Memory required for data: 337182720
I0727 20:33:55.881265  5109 layer_factory.hpp:77] Creating layer pool3/3x3_s2
I0727 20:33:55.881284  5109 net.cpp:91] Creating Layer pool3/3x3_s2
I0727 20:33:55.881294  5109 net.cpp:425] pool3/3x3_s2 <- inception_3b/output
I0727 20:33:55.881306  5109 net.cpp:399] pool3/3x3_s2 -> pool3/3x3_s2
I0727 20:33:55.882329  5109 net.cpp:141] Setting up pool3/3x3_s2
I0727 20:33:55.882351  5109 net.cpp:148] Top shape: 10 480 14 14 (940800)
I0727 20:33:55.882359  5109 net.cpp:156] Memory required for data: 340945920
I0727 20:33:55.882367  5109 layer_factory.hpp:77] Creating layer pool3/3x3_s2_pool3/3x3_s2_0_split
I0727 20:33:55.882390  5109 net.cpp:91] Creating Layer pool3/3x3_s2_pool3/3x3_s2_0_split
I0727 20:33:55.882400  5109 net.cpp:425] pool3/3x3_s2_pool3/3x3_s2_0_split <- pool3/3x3_s2
I0727 20:33:55.882411  5109 net.cpp:399] pool3/3x3_s2_pool3/3x3_s2_0_split -> pool3/3x3_s2_pool3/3x3_s2_0_split_0
I0727 20:33:55.882429  5105 net.cpp:141] Setting up inception_3b/relu_pool_proj
I0727 20:33:55.882434  5109 net.cpp:399] pool3/3x3_s2_pool3/3x3_s2_0_split -> pool3/3x3_s2_pool3/3x3_s2_0_split_1
I0727 20:33:55.882446  5105 net.cpp:148] Top shape: 10 64 28 28 (501760)
I0727 20:33:55.882448  5109 net.cpp:399] pool3/3x3_s2_pool3/3x3_s2_0_split -> pool3/3x3_s2_pool3/3x3_s2_0_split_2
I0727 20:33:55.882453  5105 net.cpp:156] Memory required for data: 322129920
I0727 20:33:55.882460  5109 net.cpp:399] pool3/3x3_s2_pool3/3x3_s2_0_split -> pool3/3x3_s2_pool3/3x3_s2_0_split_3
I0727 20:33:55.882462  5105 layer_factory.hpp:77] Creating layer inception_3b/output
I0727 20:33:55.882482  5105 net.cpp:91] Creating Layer inception_3b/output
I0727 20:33:55.882493  5105 net.cpp:425] inception_3b/output <- inception_3b/1x1
I0727 20:33:55.882504  5105 net.cpp:425] inception_3b/output <- inception_3b/3x3
I0727 20:33:55.882513  5105 net.cpp:425] inception_3b/output <- inception_3b/5x5
I0727 20:33:55.882524  5105 net.cpp:425] inception_3b/output <- inception_3b/pool_proj
I0727 20:33:55.882540  5105 net.cpp:399] inception_3b/output -> inception_3b/output
I0727 20:33:55.882650  5105 net.cpp:141] Setting up inception_3b/output
I0727 20:33:55.882666  5105 net.cpp:148] Top shape: 10 480 28 28 (3763200)
I0727 20:33:55.882673  5105 net.cpp:156] Memory required for data: 337182720
I0727 20:33:55.882683  5105 layer_factory.hpp:77] Creating layer pool3/3x3_s2
I0727 20:33:55.882711  5105 net.cpp:91] Creating Layer pool3/3x3_s2
I0727 20:33:55.882722  5105 net.cpp:425] pool3/3x3_s2 <- inception_3b/output
I0727 20:33:55.882735  5105 net.cpp:399] pool3/3x3_s2 -> pool3/3x3_s2
I0727 20:33:55.882777  5109 net.cpp:141] Setting up pool3/3x3_s2_pool3/3x3_s2_0_split
I0727 20:33:55.882796  5109 net.cpp:148] Top shape: 10 480 14 14 (940800)
I0727 20:33:55.882805  5109 net.cpp:148] Top shape: 10 480 14 14 (940800)
I0727 20:33:55.882815  5109 net.cpp:148] Top shape: 10 480 14 14 (940800)
I0727 20:33:55.882825  5109 net.cpp:148] Top shape: 10 480 14 14 (940800)
I0727 20:33:55.882832  5109 net.cpp:156] Memory required for data: 355998720
I0727 20:33:55.882840  5109 layer_factory.hpp:77] Creating layer inception_4a/1x1
I0727 20:33:55.882868  5109 net.cpp:91] Creating Layer inception_4a/1x1
I0727 20:33:55.882879  5109 net.cpp:425] inception_4a/1x1 <- pool3/3x3_s2_pool3/3x3_s2_0_split_0
I0727 20:33:55.882894  5109 net.cpp:399] inception_4a/1x1 -> inception_4a/1x1
I0727 20:33:55.882894  5105 net.cpp:141] Setting up pool3/3x3_s2
I0727 20:33:55.882921  5105 net.cpp:148] Top shape: 10 480 14 14 (940800)
I0727 20:33:55.882930  5105 net.cpp:156] Memory required for data: 340945920
I0727 20:33:55.882939  5105 layer_factory.hpp:77] Creating layer pool3/3x3_s2_pool3/3x3_s2_0_split
I0727 20:33:55.882952  5105 net.cpp:91] Creating Layer pool3/3x3_s2_pool3/3x3_s2_0_split
I0727 20:33:55.882961  5105 net.cpp:425] pool3/3x3_s2_pool3/3x3_s2_0_split <- pool3/3x3_s2
I0727 20:33:55.882977  5105 net.cpp:399] pool3/3x3_s2_pool3/3x3_s2_0_split -> pool3/3x3_s2_pool3/3x3_s2_0_split_0
I0727 20:33:55.882992  5105 net.cpp:399] pool3/3x3_s2_pool3/3x3_s2_0_split -> pool3/3x3_s2_pool3/3x3_s2_0_split_1
I0727 20:33:55.883005  5105 net.cpp:399] pool3/3x3_s2_pool3/3x3_s2_0_split -> pool3/3x3_s2_pool3/3x3_s2_0_split_2
I0727 20:33:55.883019  5105 net.cpp:399] pool3/3x3_s2_pool3/3x3_s2_0_split -> pool3/3x3_s2_pool3/3x3_s2_0_split_3
I0727 20:33:55.883393  5105 net.cpp:141] Setting up pool3/3x3_s2_pool3/3x3_s2_0_split
I0727 20:33:55.883409  5105 net.cpp:148] Top shape: 10 480 14 14 (940800)
I0727 20:33:55.883419  5105 net.cpp:148] Top shape: 10 480 14 14 (940800)
I0727 20:33:55.883430  5105 net.cpp:148] Top shape: 10 480 14 14 (940800)
I0727 20:33:55.883438  5105 net.cpp:148] Top shape: 10 480 14 14 (940800)
I0727 20:33:55.883445  5105 net.cpp:156] Memory required for data: 355998720
I0727 20:33:55.883453  5105 layer_factory.hpp:77] Creating layer inception_4a/1x1
I0727 20:33:55.883477  5105 net.cpp:91] Creating Layer inception_4a/1x1
I0727 20:33:55.883488  5105 net.cpp:425] inception_4a/1x1 <- pool3/3x3_s2_pool3/3x3_s2_0_split_0
I0727 20:33:55.883502  5105 net.cpp:399] inception_4a/1x1 -> inception_4a/1x1
I0727 20:33:55.890385  5109 net.cpp:141] Setting up inception_4a/1x1
I0727 20:33:55.890434  5109 net.cpp:148] Top shape: 10 192 14 14 (376320)
I0727 20:33:55.890444  5109 net.cpp:156] Memory required for data: 357504000
I0727 20:33:55.890466  5109 layer_factory.hpp:77] Creating layer inception_4a/relu_1x1
I0727 20:33:55.890492  5109 net.cpp:91] Creating Layer inception_4a/relu_1x1
I0727 20:33:55.890506  5109 net.cpp:425] inception_4a/relu_1x1 <- inception_4a/1x1
I0727 20:33:55.890529  5109 net.cpp:386] inception_4a/relu_1x1 -> inception_4a/1x1 (in-place)
I0727 20:33:55.890538  5105 net.cpp:141] Setting up inception_4a/1x1
I0727 20:33:55.890554  5105 net.cpp:148] Top shape: 10 192 14 14 (376320)
I0727 20:33:55.890563  5105 net.cpp:156] Memory required for data: 357504000
I0727 20:33:55.890578  5105 layer_factory.hpp:77] Creating layer inception_4a/relu_1x1
I0727 20:33:55.890591  5105 net.cpp:91] Creating Layer inception_4a/relu_1x1
I0727 20:33:55.890602  5105 net.cpp:425] inception_4a/relu_1x1 <- inception_4a/1x1
I0727 20:33:55.890620  5105 net.cpp:386] inception_4a/relu_1x1 -> inception_4a/1x1 (in-place)
I0727 20:33:55.890982  5109 net.cpp:141] Setting up inception_4a/relu_1x1
I0727 20:33:55.891000  5109 net.cpp:148] Top shape: 10 192 14 14 (376320)
I0727 20:33:55.891010  5109 net.cpp:156] Memory required for data: 359009280
I0727 20:33:55.891017  5109 layer_factory.hpp:77] Creating layer inception_4a/3x3_reduce
I0727 20:33:55.891027  5105 net.cpp:141] Setting up inception_4a/relu_1x1
I0727 20:33:55.891041  5105 net.cpp:148] Top shape: 10 192 14 14 (376320)
I0727 20:33:55.891047  5109 net.cpp:91] Creating Layer inception_4a/3x3_reduce
I0727 20:33:55.891048  5105 net.cpp:156] Memory required for data: 359009280
I0727 20:33:55.891057  5105 layer_factory.hpp:77] Creating layer inception_4a/3x3_reduce
I0727 20:33:55.891057  5109 net.cpp:425] inception_4a/3x3_reduce <- pool3/3x3_s2_pool3/3x3_s2_0_split_1
I0727 20:33:55.891083  5105 net.cpp:91] Creating Layer inception_4a/3x3_reduce
I0727 20:33:55.891083  5109 net.cpp:399] inception_4a/3x3_reduce -> inception_4a/3x3_reduce
I0727 20:33:55.891098  5105 net.cpp:425] inception_4a/3x3_reduce <- pool3/3x3_s2_pool3/3x3_s2_0_split_1
I0727 20:33:55.891113  5105 net.cpp:399] inception_4a/3x3_reduce -> inception_4a/3x3_reduce
I0727 20:33:55.896461  5105 net.cpp:141] Setting up inception_4a/3x3_reduce
I0727 20:33:55.896497  5105 net.cpp:148] Top shape: 10 96 14 14 (188160)
I0727 20:33:55.896507  5105 net.cpp:156] Memory required for data: 359761920
I0727 20:33:55.896543  5105 layer_factory.hpp:77] Creating layer inception_4a/relu_3x3_reduce
I0727 20:33:55.896560  5105 net.cpp:91] Creating Layer inception_4a/relu_3x3_reduce
I0727 20:33:55.896572  5105 net.cpp:425] inception_4a/relu_3x3_reduce <- inception_4a/3x3_reduce
I0727 20:33:55.896591  5105 net.cpp:386] inception_4a/relu_3x3_reduce -> inception_4a/3x3_reduce (in-place)
I0727 20:33:55.896908  5109 net.cpp:141] Setting up inception_4a/3x3_reduce
I0727 20:33:55.896927  5109 net.cpp:148] Top shape: 10 96 14 14 (188160)
I0727 20:33:55.896935  5109 net.cpp:156] Memory required for data: 359761920
I0727 20:33:55.896965  5109 layer_factory.hpp:77] Creating layer inception_4a/relu_3x3_reduce
I0727 20:33:55.896981  5109 net.cpp:91] Creating Layer inception_4a/relu_3x3_reduce
I0727 20:33:55.896992  5109 net.cpp:425] inception_4a/relu_3x3_reduce <- inception_4a/3x3_reduce
I0727 20:33:55.897003  5105 net.cpp:141] Setting up inception_4a/relu_3x3_reduce
I0727 20:33:55.897007  5109 net.cpp:386] inception_4a/relu_3x3_reduce -> inception_4a/3x3_reduce (in-place)
I0727 20:33:55.897023  5105 net.cpp:148] Top shape: 10 96 14 14 (188160)
I0727 20:33:55.897032  5105 net.cpp:156] Memory required for data: 360514560
I0727 20:33:55.897040  5105 layer_factory.hpp:77] Creating layer inception_4a/3x3
I0727 20:33:55.897069  5105 net.cpp:91] Creating Layer inception_4a/3x3
I0727 20:33:55.897080  5105 net.cpp:425] inception_4a/3x3 <- inception_4a/3x3_reduce
I0727 20:33:55.897096  5105 net.cpp:399] inception_4a/3x3 -> inception_4a/3x3
I0727 20:33:55.897519  5109 net.cpp:141] Setting up inception_4a/relu_3x3_reduce
I0727 20:33:55.897536  5109 net.cpp:148] Top shape: 10 96 14 14 (188160)
I0727 20:33:55.897544  5109 net.cpp:156] Memory required for data: 360514560
I0727 20:33:55.897553  5109 layer_factory.hpp:77] Creating layer inception_4a/3x3
I0727 20:33:55.897585  5109 net.cpp:91] Creating Layer inception_4a/3x3
I0727 20:33:55.897598  5109 net.cpp:425] inception_4a/3x3 <- inception_4a/3x3_reduce
I0727 20:33:55.897616  5109 net.cpp:399] inception_4a/3x3 -> inception_4a/3x3
I0727 20:33:55.907369  5105 net.cpp:141] Setting up inception_4a/3x3
I0727 20:33:55.907428  5105 net.cpp:148] Top shape: 10 208 14 14 (407680)
I0727 20:33:55.907439  5105 net.cpp:156] Memory required for data: 362145280
I0727 20:33:55.907464  5105 layer_factory.hpp:77] Creating layer inception_4a/relu_3x3
I0727 20:33:55.907492  5105 net.cpp:91] Creating Layer inception_4a/relu_3x3
I0727 20:33:55.907507  5105 net.cpp:425] inception_4a/relu_3x3 <- inception_4a/3x3
I0727 20:33:55.907526  5105 net.cpp:386] inception_4a/relu_3x3 -> inception_4a/3x3 (in-place)
I0727 20:33:55.908718  5105 net.cpp:141] Setting up inception_4a/relu_3x3
I0727 20:33:55.908740  5105 net.cpp:148] Top shape: 10 208 14 14 (407680)
I0727 20:33:55.908749  5105 net.cpp:156] Memory required for data: 363776000
I0727 20:33:55.908758  5105 layer_factory.hpp:77] Creating layer inception_4a/5x5_reduce
I0727 20:33:55.908793  5105 net.cpp:91] Creating Layer inception_4a/5x5_reduce
I0727 20:33:55.908807  5105 net.cpp:425] inception_4a/5x5_reduce <- pool3/3x3_s2_pool3/3x3_s2_0_split_2
I0727 20:33:55.908823  5105 net.cpp:399] inception_4a/5x5_reduce -> inception_4a/5x5_reduce
I0727 20:33:55.908959  5109 net.cpp:141] Setting up inception_4a/3x3
I0727 20:33:55.908982  5109 net.cpp:148] Top shape: 10 208 14 14 (407680)
I0727 20:33:55.908989  5109 net.cpp:156] Memory required for data: 362145280
I0727 20:33:55.909008  5109 layer_factory.hpp:77] Creating layer inception_4a/relu_3x3
I0727 20:33:55.909021  5109 net.cpp:91] Creating Layer inception_4a/relu_3x3
I0727 20:33:55.909034  5109 net.cpp:425] inception_4a/relu_3x3 <- inception_4a/3x3
I0727 20:33:55.909050  5109 net.cpp:386] inception_4a/relu_3x3 -> inception_4a/3x3 (in-place)
I0727 20:33:55.910363  5109 net.cpp:141] Setting up inception_4a/relu_3x3
I0727 20:33:55.910389  5109 net.cpp:148] Top shape: 10 208 14 14 (407680)
I0727 20:33:55.910398  5109 net.cpp:156] Memory required for data: 363776000
I0727 20:33:55.910406  5109 layer_factory.hpp:77] Creating layer inception_4a/5x5_reduce
I0727 20:33:55.910434  5109 net.cpp:91] Creating Layer inception_4a/5x5_reduce
I0727 20:33:55.910446  5109 net.cpp:425] inception_4a/5x5_reduce <- pool3/3x3_s2_pool3/3x3_s2_0_split_2
I0727 20:33:55.910465  5109 net.cpp:399] inception_4a/5x5_reduce -> inception_4a/5x5_reduce
I0727 20:33:55.915467  5105 net.cpp:141] Setting up inception_4a/5x5_reduce
I0727 20:33:55.915503  5105 net.cpp:148] Top shape: 10 16 14 14 (31360)
I0727 20:33:55.915513  5105 net.cpp:156] Memory required for data: 363901440
I0727 20:33:55.915531  5105 layer_factory.hpp:77] Creating layer inception_4a/relu_5x5_reduce
I0727 20:33:55.915555  5105 net.cpp:91] Creating Layer inception_4a/relu_5x5_reduce
I0727 20:33:55.915566  5105 net.cpp:425] inception_4a/relu_5x5_reduce <- inception_4a/5x5_reduce
I0727 20:33:55.915581  5105 net.cpp:386] inception_4a/relu_5x5_reduce -> inception_4a/5x5_reduce (in-place)
I0727 20:33:55.916074  5105 net.cpp:141] Setting up inception_4a/relu_5x5_reduce
I0727 20:33:55.916095  5105 net.cpp:148] Top shape: 10 16 14 14 (31360)
I0727 20:33:55.916103  5105 net.cpp:156] Memory required for data: 364026880
I0727 20:33:55.916111  5105 layer_factory.hpp:77] Creating layer inception_4a/5x5
I0727 20:33:55.916136  5105 net.cpp:91] Creating Layer inception_4a/5x5
I0727 20:33:55.916144  5109 net.cpp:141] Setting up inception_4a/5x5_reduce
I0727 20:33:55.916147  5105 net.cpp:425] inception_4a/5x5 <- inception_4a/5x5_reduce
I0727 20:33:55.916164  5109 net.cpp:148] Top shape: 10 16 14 14 (31360)
I0727 20:33:55.916173  5109 net.cpp:156] Memory required for data: 363901440
I0727 20:33:55.916173  5105 net.cpp:399] inception_4a/5x5 -> inception_4a/5x5
I0727 20:33:55.916193  5109 layer_factory.hpp:77] Creating layer inception_4a/relu_5x5_reduce
I0727 20:33:55.916213  5109 net.cpp:91] Creating Layer inception_4a/relu_5x5_reduce
I0727 20:33:55.916224  5109 net.cpp:425] inception_4a/relu_5x5_reduce <- inception_4a/5x5_reduce
I0727 20:33:55.916235  5109 net.cpp:386] inception_4a/relu_5x5_reduce -> inception_4a/5x5_reduce (in-place)
I0727 20:33:55.916833  5109 net.cpp:141] Setting up inception_4a/relu_5x5_reduce
I0727 20:33:55.916854  5109 net.cpp:148] Top shape: 10 16 14 14 (31360)
I0727 20:33:55.916862  5109 net.cpp:156] Memory required for data: 364026880
I0727 20:33:55.916872  5109 layer_factory.hpp:77] Creating layer inception_4a/5x5
I0727 20:33:55.916898  5109 net.cpp:91] Creating Layer inception_4a/5x5
I0727 20:33:55.916908  5109 net.cpp:425] inception_4a/5x5 <- inception_4a/5x5_reduce
I0727 20:33:55.916929  5109 net.cpp:399] inception_4a/5x5 -> inception_4a/5x5
I0727 20:33:55.920924  5105 net.cpp:141] Setting up inception_4a/5x5
I0727 20:33:55.920954  5105 net.cpp:148] Top shape: 10 48 14 14 (94080)
I0727 20:33:55.920964  5105 net.cpp:156] Memory required for data: 364403200
I0727 20:33:55.920982  5105 layer_factory.hpp:77] Creating layer inception_4a/relu_5x5
I0727 20:33:55.920999  5105 net.cpp:91] Creating Layer inception_4a/relu_5x5
I0727 20:33:55.921012  5105 net.cpp:425] inception_4a/relu_5x5 <- inception_4a/5x5
I0727 20:33:55.921026  5105 net.cpp:386] inception_4a/relu_5x5 -> inception_4a/5x5 (in-place)
I0727 20:33:55.921407  5105 net.cpp:141] Setting up inception_4a/relu_5x5
I0727 20:33:55.921427  5105 net.cpp:148] Top shape: 10 48 14 14 (94080)
I0727 20:33:55.921434  5105 net.cpp:156] Memory required for data: 364779520
I0727 20:33:55.921442  5105 layer_factory.hpp:77] Creating layer inception_4a/pool
I0727 20:33:55.921460  5105 net.cpp:91] Creating Layer inception_4a/pool
I0727 20:33:55.921470  5105 net.cpp:425] inception_4a/pool <- pool3/3x3_s2_pool3/3x3_s2_0_split_3
I0727 20:33:55.921483  5105 net.cpp:399] inception_4a/pool -> inception_4a/pool
I0727 20:33:55.922098  5105 net.cpp:141] Setting up inception_4a/pool
I0727 20:33:55.922119  5105 net.cpp:148] Top shape: 10 480 14 14 (940800)
I0727 20:33:55.922128  5105 net.cpp:156] Memory required for data: 368542720
I0727 20:33:55.922137  5105 layer_factory.hpp:77] Creating layer inception_4a/pool_proj
I0727 20:33:55.922165  5105 net.cpp:91] Creating Layer inception_4a/pool_proj
I0727 20:33:55.922178  5105 net.cpp:425] inception_4a/pool_proj <- inception_4a/pool
I0727 20:33:55.922193  5105 net.cpp:399] inception_4a/pool_proj -> inception_4a/pool_proj
I0727 20:33:55.922803  5109 net.cpp:141] Setting up inception_4a/5x5
I0727 20:33:55.922827  5109 net.cpp:148] Top shape: 10 48 14 14 (94080)
I0727 20:33:55.922835  5109 net.cpp:156] Memory required for data: 364403200
I0727 20:33:55.922852  5109 layer_factory.hpp:77] Creating layer inception_4a/relu_5x5
I0727 20:33:55.922868  5109 net.cpp:91] Creating Layer inception_4a/relu_5x5
I0727 20:33:55.922878  5109 net.cpp:425] inception_4a/relu_5x5 <- inception_4a/5x5
I0727 20:33:55.922893  5109 net.cpp:386] inception_4a/relu_5x5 -> inception_4a/5x5 (in-place)
I0727 20:33:55.923291  5109 net.cpp:141] Setting up inception_4a/relu_5x5
I0727 20:33:55.923310  5109 net.cpp:148] Top shape: 10 48 14 14 (94080)
I0727 20:33:55.923316  5109 net.cpp:156] Memory required for data: 364779520
I0727 20:33:55.923323  5109 layer_factory.hpp:77] Creating layer inception_4a/pool
I0727 20:33:55.923339  5109 net.cpp:91] Creating Layer inception_4a/pool
I0727 20:33:55.923347  5109 net.cpp:425] inception_4a/pool <- pool3/3x3_s2_pool3/3x3_s2_0_split_3
I0727 20:33:55.923358  5109 net.cpp:399] inception_4a/pool -> inception_4a/pool
I0727 20:33:55.923496  5109 net.cpp:141] Setting up inception_4a/pool
I0727 20:33:55.923511  5109 net.cpp:148] Top shape: 10 480 14 14 (940800)
I0727 20:33:55.923516  5109 net.cpp:156] Memory required for data: 368542720
I0727 20:33:55.923523  5109 layer_factory.hpp:77] Creating layer inception_4a/pool_proj
I0727 20:33:55.923547  5109 net.cpp:91] Creating Layer inception_4a/pool_proj
I0727 20:33:55.923557  5109 net.cpp:425] inception_4a/pool_proj <- inception_4a/pool
I0727 20:33:55.923573  5109 net.cpp:399] inception_4a/pool_proj -> inception_4a/pool_proj
I0727 20:33:55.927660  5105 net.cpp:141] Setting up inception_4a/pool_proj
I0727 20:33:55.927688  5105 net.cpp:148] Top shape: 10 64 14 14 (125440)
I0727 20:33:55.927698  5105 net.cpp:156] Memory required for data: 369044480
I0727 20:33:55.927716  5105 layer_factory.hpp:77] Creating layer inception_4a/relu_pool_proj
I0727 20:33:55.927739  5105 net.cpp:91] Creating Layer inception_4a/relu_pool_proj
I0727 20:33:55.927752  5105 net.cpp:425] inception_4a/relu_pool_proj <- inception_4a/pool_proj
I0727 20:33:55.927765  5105 net.cpp:386] inception_4a/relu_pool_proj -> inception_4a/pool_proj (in-place)
I0727 20:33:55.929437  5105 net.cpp:141] Setting up inception_4a/relu_pool_proj
I0727 20:33:55.929461  5105 net.cpp:148] Top shape: 10 64 14 14 (125440)
I0727 20:33:55.929471  5105 net.cpp:156] Memory required for data: 369546240
I0727 20:33:55.929481  5105 layer_factory.hpp:77] Creating layer inception_4a/output
I0727 20:33:55.929504  5105 net.cpp:91] Creating Layer inception_4a/output
I0727 20:33:55.929517  5105 net.cpp:425] inception_4a/output <- inception_4a/1x1
I0727 20:33:55.929528  5105 net.cpp:425] inception_4a/output <- inception_4a/3x3
I0727 20:33:55.929538  5105 net.cpp:425] inception_4a/output <- inception_4a/5x5
I0727 20:33:55.929548  5105 net.cpp:425] inception_4a/output <- inception_4a/pool_proj
I0727 20:33:55.929563  5105 net.cpp:399] inception_4a/output -> inception_4a/output
I0727 20:33:55.929674  5105 net.cpp:141] Setting up inception_4a/output
I0727 20:33:55.929680  5109 net.cpp:141] Setting up inception_4a/pool_proj
I0727 20:33:55.929692  5105 net.cpp:148] Top shape: 10 512 14 14 (1003520)
I0727 20:33:55.929693  5109 net.cpp:148] Top shape: 10 64 14 14 (125440)
I0727 20:33:55.929699  5105 net.cpp:156] Memory required for data: 373560320
I0727 20:33:55.929700  5109 net.cpp:156] Memory required for data: 369044480
I0727 20:33:55.929710  5105 layer_factory.hpp:77] Creating layer inception_4a/output_inception_4a/output_0_split
I0727 20:33:55.929720  5109 layer_factory.hpp:77] Creating layer inception_4a/relu_pool_proj
I0727 20:33:55.929725  5105 net.cpp:91] Creating Layer inception_4a/output_inception_4a/output_0_split
…
I0727 20:33:55.929771  5105 net.cpp:399] inception_4a/output_inception_4a/output_0_split -> inception_4a/output_inception_4a/output_0_split_1
I0727 20:33:55.929785  5105 net.cpp:399] inception_4a/output_inception_4a/output_0_split -> inception_4a/output_inception_4a/output_0_split_2
I0727 20:33:55.929800  5105 net.cpp:399] inception_4a/output_inception_4a/output_0_split -> inception_4a/output_inception_4a/output_0_split_3
I0727 20:33:55.931008  5105 net.cpp:141] Setting up inception_4a/output_inception_4a/output_0_split
I0727 20:33:55.931010  5109 net.cpp:141] Setting up inception_4a/relu_pool_proj
I0727 20:33:55.931036  5105 net.cpp:148] Top shape: 10 512 14 14 (1003520)
I0727 20:33:55.931037  5109 net.cpp:148] Top shape: 10 64 14 14 (125440)
I0727 20:33:55.931051  5105 net.cpp:148] Top shape: 10 512 14 14 (1003520)
I0727 20:33:55.931049  5109 net.cpp:156] Memory required for data: 369546240
I0727 20:33:55.931062  5105 net.cpp:148] Top shape: 10 512 14 14 (1003520)
I0727 20:33:55.931063  5109 layer_factory.hpp:77] Creating layer inception_4a/output
I0727 20:33:55.931076  5105 net.cpp:148] Top shape: 10 512 14 14 (1003520)
I0727 20:33:55.931082  5105 net.cpp:156] Memory required for data: 389616640
I0727 20:33:55.931088  5109 net.cpp:91] Creating Layer inception_4a/output
I0727 20:33:55.931090  5105 layer_factory.hpp:77] Creating layer inception_4b/1x1
I0727 20:33:55.931097  5109 net.cpp:425] inception_4a/output <- inception_4a/1x1
I0727 20:33:55.931108  5109 net.cpp:425] inception_4a/output <- inception_4a/3x3
I0727 20:33:55.931116  5105 net.cpp:91] Creating Layer inception_4b/1x1
I0727 20:33:55.931118  5109 net.cpp:425] inception_4a/output <- inception_4a/5x5
I0727 20:33:55.931129  5105 net.cpp:425] inception_4b/1x1 <- inception_4a/output_inception_4a/output_0_split_0
I0727 20:33:55.931134  5109 net.cpp:425] inception_4a/output <- inception_4a/pool_proj
I0727 20:33:55.931145  5109 net.cpp:399] inception_4a/output -> inception_4a/output
I0727 20:33:55.931148  5105 net.cpp:399] inception_4b/1x1 -> inception_4b/1x1
I0727 20:33:55.931270  5109 net.cpp:141] Setting up inception_4a/output
I0727 20:33:55.931293  5109 net.cpp:148] Top shape: 10 512 14 14 (1003520)
I0727 20:33:55.931301  5109 net.cpp:156] Memory required for data: 373560320
I0727 20:33:55.931310  5109 layer_factory.hpp:77] Creating layer inception_4a/output_inception_4a/output_0_split
I0727 20:33:55.931324  5109 net.cpp:91] Creating Layer inception_4a/output_inception_4a/output_0_split
I0727 20:33:55.931332  5109 net.cpp:425] inception_4a/output_inception_4a/output_0_split <- inception_4a/output
I0727 20:33:55.931347  5109 net.cpp:399] inception_4a/output_inception_4a/output_0_split -> inception_4a/output_inception_4a/output_0_split_0
I0727 20:33:55.931363  5109 net.cpp:399] inception_4a/output_inception_4a/output_0_split -> inception_4a/output_inception_4a/output_0_split_1
I0727 20:33:55.931377  5109 net.cpp:399] inception_4a/output_inception_4a/output_0_split -> inception_4a/output_inception_4a/output_0_split_2
I0727 20:33:55.931391  5109 net.cpp:399] inception_4a/output_inception_4a/output_0_split -> inception_4a/output_inception_4a/output_0_split_3
I0727 20:33:55.931752  5109 net.cpp:141] Setting up inception_4a/output_inception_4a/output_0_split
I0727 20:33:55.931769  5109 net.cpp:148] Top shape: 10 512 14 14 (1003520)
I0727 20:33:55.931779  5109 net.cpp:148] Top shape: 10 512 14 14 (1003520)
I0727 20:33:55.931789  5109 net.cpp:148] Top shape: 10 512 14 14 (1003520)
I0727 20:33:55.931799  5109 net.cpp:148] Top shape: 10 512 14 14 (1003520)
I0727 20:33:55.931807  5109 net.cpp:156] Memory required for data: 389616640
I0727 20:33:55.931814  5109 layer_factory.hpp:77] Creating layer inception_4b/1x1
I0727 20:33:55.931838  5109 net.cpp:91] Creating Layer inception_4b/1x1
I0727 20:33:55.931850  5109 net.cpp:425] inception_4b/1x1 <- inception_4a/output_inception_4a/output_0_split_0
I0727 20:33:55.931869  5109 net.cpp:399] inception_4b/1x1 -> inception_4b/1x1
I0727 20:33:55.937319  5105 net.cpp:141] Setting up inception_4b/1x1
I0727 20:33:55.937353  5105 net.cpp:148] Top shape: 10 160 14 14 (313600)
I0727 20:33:55.937363  5105 net.cpp:156] Memory required for data: 390871040
I0727 20:33:55.937382  5105 layer_factory.hpp:77] Creating layer inception_4b/relu_1x1
I0727 20:33:55.937407  5105 net.cpp:91] Creating Layer inception_4b/relu_1x1
I0727 20:33:55.937418  5105 net.cpp:425] inception_4b/relu_1x1 <- inception_4b/1x1
I0727 20:33:55.937433  5105 net.cpp:386] inception_4b/relu_1x1 -> inception_4b/1x1 (in-place)
I0727 20:33:55.937611  5109 net.cpp:141] Setting up inception_4b/1x1
I0727 20:33:55.937630  5109 net.cpp:148] Top shape: 10 160 14 14 (313600)
I0727 20:33:55.937638  5109 net.cpp:156] Memory required for data: 390871040
I0727 20:33:55.937654  5109 layer_factory.hpp:77] Creating layer inception_4b/relu_1x1
I0727 20:33:55.937669  5109 net.cpp:91] Creating Layer inception_4b/relu_1x1
I0727 20:33:55.937679  5109 net.cpp:425] inception_4b/relu_1x1 <- inception_4b/1x1
I0727 20:33:55.937696  5109 net.cpp:386] inception_4b/relu_1x1 -> inception_4b/1x1 (in-place)
I0727 20:33:55.937908  5105 net.cpp:141] Setting up inception_4b/relu_1x1
I0727 20:33:55.937925  5105 net.cpp:148] Top shape: 10 160 14 14 (313600)
I0727 20:33:55.937933  5105 net.cpp:156] Memory required for data: 392125440
I0727 20:33:55.937942  5105 layer_factory.hpp:77] Creating layer inception_4b/3x3_reduce
I0727 20:33:55.937969  5105 net.cpp:91] Creating Layer inception_4b/3x3_reduce
I0727 20:33:55.937981  5105 net.cpp:425] inception_4b/3x3_reduce <- inception_4a/output_inception_4a/output_0_split_1
I0727 20:33:55.938000  5105 net.cpp:399] inception_4b/3x3_reduce -> inception_4b/3x3_reduce
I0727 20:33:55.938129  5109 net.cpp:141] Setting up inception_4b/relu_1x1
I0727 20:33:55.938149  5109 net.cpp:148] Top shape: 10 160 14 14 (313600)
I0727 20:33:55.938158  5109 net.cpp:156] Memory required for data: 392125440
I0727 20:33:55.938166  5109 layer_factory.hpp:77] Creating layer inception_4b/3x3_reduce
I0727 20:33:55.938189  5109 net.cpp:91] Creating Layer inception_4b/3x3_reduce
I0727 20:33:55.938200  5109 net.cpp:425] inception_4b/3x3_reduce <- inception_4a/output_inception_4a/output_0_split_1
I0727 20:33:55.938215  5109 net.cpp:399] inception_4b/3x3_reduce -> inception_4b/3x3_reduce
I0727 20:33:55.943693  5105 net.cpp:141] Setting up inception_4b/3x3_reduce
I0727 20:33:55.943724  5105 net.cpp:148] Top shape: 10 112 14 14 (219520)
I0727 20:33:55.943734  5105 net.cpp:156] Memory required for data: 393003520
I0727 20:33:55.943752  5105 layer_factory.hpp:77] Creating layer inception_4b/relu_3x3_reduce
I0727 20:33:55.943770  5105 net.cpp:91] Creating Layer inception_4b/relu_3x3_reduce
I0727 20:33:55.943783  5105 net.cpp:425] inception_4b/relu_3x3_reduce <- inception_4b/3x3_reduce
I0727 20:33:55.943796  5105 net.cpp:386] inception_4b/relu_3x3_reduce -> inception_4b/3x3_reduce (in-place)
I0727 20:33:55.944164  5109 net.cpp:141] Setting up inception_4b/3x3_reduce
I0727 20:33:55.944182  5109 net.cpp:148] Top shape: 10 112 14 14 (219520)
I0727 20:33:55.944191  5109 net.cpp:156] Memory required for data: 393003520
I0727 20:33:55.944207  5109 layer_factory.hpp:77] Creating layer inception_4b/relu_3x3_reduce
I0727 20:33:55.944218  5105 net.cpp:141] Setting up inception_4b/relu_3x3_reduce
I0727 20:33:55.944222  5109 net.cpp:91] Creating Layer inception_4b/relu_3x3_reduce
I0727 20:33:55.944232  5109 net.cpp:425] inception_4b/relu_3x3_reduce <- inception_4b/3x3_reduce
I0727 20:33:55.944233  5105 net.cpp:148] Top shape: 10 112 14 14 (219520)
I0727 20:33:55.944249  5109 net.cpp:386] inception_4b/relu_3x3_reduce -> inception_4b/3x3_reduce (in-place)
I0727 20:33:55.944249  5105 net.cpp:156] Memory required for data: 393881600
I0727 20:33:55.944265  5105 layer_factory.hpp:77] Creating layer inception_4b/3x3
I0727 20:33:55.944295  5105 net.cpp:91] Creating Layer inception_4b/3x3
I0727 20:33:55.944306  5105 net.cpp:425] inception_4b/3x3 <- inception_4b/3x3_reduce
I0727 20:33:55.944321  5105 net.cpp:399] inception_4b/3x3 -> inception_4b/3x3
I0727 20:33:55.944758  5109 net.cpp:141] Setting up inception_4b/relu_3x3_reduce
I0727 20:33:55.944777  5109 net.cpp:148] Top shape: 10 112 14 14 (219520)
I0727 20:33:55.944784  5109 net.cpp:156] Memory required for data: 393881600
I0727 20:33:55.944793  5109 layer_factory.hpp:77] Creating layer inception_4b/3x3
I0727 20:33:55.944819  5109 net.cpp:91] Creating Layer inception_4b/3x3
I0727 20:33:55.944830  5109 net.cpp:425] inception_4b/3x3 <- inception_4b/3x3_reduce
I0727 20:33:55.944846  5109 net.cpp:399] inception_4b/3x3 -> inception_4b/3x3
I0727 20:33:55.954851  5105 net.cpp:141] Setting up inception_4b/3x3
I0727 20:33:55.954907  5105 net.cpp:148] Top shape: 10 224 14 14 (439040)
I0727 20:33:55.954916  5105 net.cpp:156] Memory required for data: 395637760
I0727 20:33:55.954937  5105 layer_factory.hpp:77] Creating layer inception_4b/relu_3x3
I0727 20:33:55.954962  5105 net.cpp:91] Creating Layer inception_4b/relu_3x3
I0727 20:33:55.954975  5105 net.cpp:425] inception_4b/relu_3x3 <- inception_4b/3x3
I0727 20:33:55.954991  5105 net.cpp:386] inception_4b/relu_3x3 -> inception_4b/3x3 (in-place)
I0727 20:33:55.956528  5105 net.cpp:141] Setting up inception_4b/relu_3x3
I0727 20:33:55.956553  5105 net.cpp:148] Top shape: 10 224 14 14 (439040)
I0727 20:33:55.956562  5105 net.cpp:156] Memory required for data: 397393920
I0727 20:33:55.956573  5105 layer_factory.hpp:77] Creating layer inception_4b/5x5_reduce
I0727 20:33:55.956620  5105 net.cpp:91] Creating Layer inception_4b/5x5_reduce
I0727 20:33:55.956634  5105 net.cpp:425] inception_4b/5x5_reduce <- inception_4a/output_inception_4a/output_0_split_2
I0727 20:33:55.956655  5105 net.cpp:399] inception_4b/5x5_reduce -> inception_4b/5x5_reduce
I0727 20:33:55.956727  5109 net.cpp:141] Setting up inception_4b/3x3
I0727 20:33:55.956745  5109 net.cpp:148] Top shape: 10 224 14 14 (439040)
I0727 20:33:55.956753  5109 net.cpp:156] Memory required for data: 395637760
I0727 20:33:55.956769  5109 layer_factory.hpp:77] Creating layer inception_4b/relu_3x3
I0727 20:33:55.956784  5109 net.cpp:91] Creating Layer inception_4b/relu_3x3
I0727 20:33:55.956795  5109 net.cpp:425] inception_4b/relu_3x3 <- inception_4b/3x3
I0727 20:33:55.956812  5109 net.cpp:386] inception_4b/relu_3x3 -> inception_4b/3x3 (in-place)
I0727 20:33:55.957842  5109 net.cpp:141] Setting up inception_4b/relu_3x3
I0727 20:33:55.957864  5109 net.cpp:148] Top shape: 10 224 14 14 (439040)
I0727 20:33:55.957873  5109 net.cpp:156] Memory required for data: 397393920
I0727 20:33:55.957881  5109 layer_factory.hpp:77] Creating layer inception_4b/5x5_reduce
I0727 20:33:55.957924  5109 net.cpp:91] Creating Layer inception_4b/5x5_reduce
I0727 20:33:55.957937  5109 net.cpp:425] inception_4b/5x5_reduce <- inception_4a/output_inception_4a/output_0_split_2
I0727 20:33:55.957957  5109 net.cpp:399] inception_4b/5x5_reduce -> inception_4b/5x5_reduce
I0727 20:33:55.963155  5105 net.cpp:141] Setting up inception_4b/5x5_reduce
I0727 20:33:55.963196  5105 net.cpp:148] Top shape: 10 24 14 14 (47040)
I0727 20:33:55.963205  5105 net.cpp:156] Memory required for data: 397582080
I0727 20:33:55.963227  5105 layer_factory.hpp:77] Creating layer inception_4b/relu_5x5_reduce
I0727 20:33:55.963245  5105 net.cpp:91] Creating Layer inception_4b/relu_5x5_reduce
I0727 20:33:55.963258  5105 net.cpp:425] inception_4b/relu_5x5_reduce <- inception_4b/5x5_reduce
I0727 20:33:55.963271  5105 net.cpp:386] inception_4b/relu_5x5_reduce -> inception_4b/5x5_reduce (in-place)
I0727 20:33:55.963738  5105 net.cpp:141] Setting up inception_4b/relu_5x5_reduce
I0727 20:33:55.963759  5105 net.cpp:148] Top shape: 10 24 14 14 (47040)
I0727 20:33:55.963768  5105 net.cpp:156] Memory required for data: 397770240
I0727 20:33:55.963776  5105 layer_factory.hpp:77] Creating layer inception_4b/5x5
I0727 20:33:55.963802  5105 net.cpp:91] Creating Layer inception_4b/5x5
I0727 20:33:55.963814  5105 net.cpp:425] inception_4b/5x5 <- inception_4b/5x5_reduce
I0727 20:33:55.963820  5109 net.cpp:141] Setting up inception_4b/5x5_reduce
I0727 20:33:55.963831  5105 net.cpp:399] inception_4b/5x5 -> inception_4b/5x5
I0727 20:33:55.963838  5109 net.cpp:148] Top shape: 10 24 14 14 (47040)
I0727 20:33:55.963845  5109 net.cpp:156] Memory required for data: 397582080
I0727 20:33:55.963861  5109 layer_factory.hpp:77] Creating layer inception_4b/relu_5x5_reduce
I0727 20:33:55.963876  5109 net.cpp:91] Creating Layer inception_4b/relu_5x5_reduce
I0727 20:33:55.963886  5109 net.cpp:425] inception_4b/relu_5x5_reduce <- inception_4b/5x5_reduce
I0727 20:33:55.963898  5109 net.cpp:386] inception_4b/relu_5x5_reduce -> inception_4b/5x5_reduce (in-place)
I0727 20:33:55.964392  5109 net.cpp:141] Setting up inception_4b/relu_5x5_reduce
I0727 20:33:55.964412  5109 net.cpp:148] Top shape: 10 24 14 14 (47040)
I0727 20:33:55.964421  5109 net.cpp:156] Memory required for data: 397770240
I0727 20:33:55.964429  5109 layer_factory.hpp:77] Creating layer inception_4b/5x5
I0727 20:33:55.964452  5109 net.cpp:91] Creating Layer inception_4b/5x5
I0727 20:33:55.964463  5109 net.cpp:425] inception_4b/5x5 <- inception_4b/5x5_reduce
I0727 20:33:55.964483  5109 net.cpp:399] inception_4b/5x5 -> inception_4b/5x5
I0727 20:33:55.972210  5105 net.cpp:141] Setting up inception_4b/5x5
I0727 20:33:55.972245  5105 net.cpp:148] Top shape: 10 64 14 14 (125440)
I0727 20:33:55.972254  5105 net.cpp:156] Memory required for data: 398272000
I0727 20:33:55.972272  5105 layer_factory.hpp:77] Creating layer inception_4b/relu_5x5
I0727 20:33:55.972293  5105 net.cpp:91] Creating Layer inception_4b/relu_5x5
I0727 20:33:55.972306  5105 net.cpp:425] inception_4b/relu_5x5 <- inception_4b/5x5
I0727 20:33:55.972319  5105 net.cpp:386] inception_4b/relu_5x5 -> inception_4b/5x5 (in-place)
I0727 20:33:55.972700  5109 net.cpp:141] Setting up inception_4b/5x5
I0727 20:33:55.972723  5109 net.cpp:148] Top shape: 10 64 14 14 (125440)
I0727 20:33:55.972731  5109 net.cpp:156] Memory required for data: 398272000
I0727 20:33:55.972748  5109 layer_factory.hpp:77] Creating layer inception_4b/relu_5x5
I0727 20:33:55.972767  5109 net.cpp:91] Creating Layer inception_4b/relu_5x5
I0727 20:33:55.972779  5109 net.cpp:425] inception_4b/relu_5x5 <- inception_4b/5x5
I0727 20:33:55.972785  5105 net.cpp:141] Setting up inception_4b/relu_5x5
I0727 20:33:55.972793  5109 net.cpp:386] inception_4b/relu_5x5 -> inception_4b/5x5 (in-place)
I0727 20:33:55.972800  5105 net.cpp:148] Top shape: 10 64 14 14 (125440)
I0727 20:33:55.972806  5105 net.cpp:156] Memory required for data: 398773760
I0727 20:33:55.972815  5105 layer_factory.hpp:77] Creating layer inception_4b/pool
I0727 20:33:55.972831  5105 net.cpp:91] Creating Layer inception_4b/pool
I0727 20:33:55.972841  5105 net.cpp:425] inception_4b/pool <- inception_4a/output_inception_4a/output_0_split_3
I0727 20:33:55.972859  5105 net.cpp:399] inception_4b/pool -> inception_4b/pool
I0727 20:33:55.973167  5105 net.cpp:141] Setting up inception_4b/pool
I0727 20:33:55.973184  5105 net.cpp:148] Top shape: 10 512 14 14 (1003520)
I0727 20:33:55.973192  5105 net.cpp:156] Memory required for data: 402787840
I0727 20:33:55.973201  5105 layer_factory.hpp:77] Creating layer inception_4b/pool_proj
I0727 20:33:55.973230  5105 net.cpp:91] Creating Layer inception_4b/pool_proj
I0727 20:33:55.973242  5105 net.cpp:425] inception_4b/pool_proj <- inception_4b/pool
I0727 20:33:55.973259  5105 net.cpp:399] inception_4b/pool_proj -> inception_4b/pool_proj
I0727 20:33:55.973261  5109 net.cpp:141] Setting up inception_4b/relu_5x5
I0727 20:33:55.973275  5109 net.cpp:148] Top shape: 10 64 14 14 (125440)
I0727 20:33:55.973283  5109 net.cpp:156] Memory required for data: 398773760
I0727 20:33:55.973290  5109 layer_factory.hpp:77] Creating layer inception_4b/pool
I0727 20:33:55.973304  5109 net.cpp:91] Creating Layer inception_4b/pool
I0727 20:33:55.973314  5109 net.cpp:425] inception_4b/pool <- inception_4a/output_inception_4a/output_0_split_3
I0727 20:33:55.973332  5109 net.cpp:399] inception_4b/pool -> inception_4b/pool
I0727 20:33:55.973568  5109 net.cpp:141] Setting up inception_4b/pool
I0727 20:33:55.973584  5109 net.cpp:148] Top shape: 10 512 14 14 (1003520)
I0727 20:33:55.973592  5109 net.cpp:156] Memory required for data: 402787840
I0727 20:33:55.973600  5109 layer_factory.hpp:77] Creating layer inception_4b/pool_proj
I0727 20:33:55.973624  5109 net.cpp:91] Creating Layer inception_4b/pool_proj
I0727 20:33:55.973636  5109 net.cpp:425] inception_4b/pool_proj <- inception_4b/pool
I0727 20:33:55.973651  5109 net.cpp:399] inception_4b/pool_proj -> inception_4b/pool_proj
I0727 20:33:55.978363  5105 net.cpp:141] Setting up inception_4b/pool_proj
I0727 20:33:55.978390  5105 net.cpp:148] Top shape: 10 64 14 14 (125440)
I0727 20:33:55.978400  5105 net.cpp:156] Memory required for data: 403289600
I0727 20:33:55.978416  5105 layer_factory.hpp:77] Creating layer inception_4b/relu_pool_proj
I0727 20:33:55.978431  5105 net.cpp:91] Creating Layer inception_4b/relu_pool_proj
I0727 20:33:55.978441  5105 net.cpp:425] inception_4b/relu_pool_proj <- inception_4b/pool_proj
I0727 20:33:55.978453  5105 net.cpp:386] inception_4b/relu_pool_proj -> inception_4b/pool_proj (in-place)
I0727 20:33:55.979507  5105 net.cpp:141] Setting up inception_4b/relu_pool_proj
I0727 20:33:55.979531  5105 net.cpp:148] Top shape: 10 64 14 14 (125440)
I0727 20:33:55.979539  5105 net.cpp:156] Memory required for data: 403791360
I0727 20:33:55.979548  5105 layer_factory.hpp:77] Creating layer inception_4b/output
I0727 20:33:55.979563  5105 net.cpp:91] Creating Layer inception_4b/output
I0727 20:33:55.979573  5105 net.cpp:425] inception_4b/output <- inception_4b/1x1
I0727 20:33:55.979584  5105 net.cpp:425] inception_4b/output <- inception_4b/3x3
I0727 20:33:55.979594  5105 net.cpp:425] inception_4b/output <- inception_4b/5x5
I0727 20:33:55.979604  5105 net.cpp:425] inception_4b/output <- inception_4b/pool_proj
I0727 20:33:55.979621  5105 net.cpp:399] inception_4b/output -> inception_4b/output
I0727 20:33:55.979632  5109 net.cpp:141] Setting up inception_4b/pool_proj
I0727 20:33:55.979650  5109 net.cpp:148] Top shape: 10 64 14 14 (125440)
I0727 20:33:55.979658  5109 net.cpp:156] Memory required for data: 403289600
I0727 20:33:55.979673  5109 layer_factory.hpp:77] Creating layer inception_4b/relu_pool_proj
I0727 20:33:55.979687  5109 net.cpp:91] Creating Layer inception_4b/relu_pool_proj
I0727 20:33:55.979699  5109 net.cpp:425] inception_4b/relu_pool_proj <- inception_4b/pool_proj
I0727 20:33:55.979712  5109 net.cpp:386] inception_4b/relu_pool_proj -> inception_4b/pool_proj (in-place)
I0727 20:33:55.979717  5105 net.cpp:141] Setting up inception_4b/output
I0727 20:33:55.979732  5105 net.cpp:148] Top shape: 10 512 14 14 (1003520)
I0727 20:33:55.979739  5105 net.cpp:156] Memory required for data: 407805440
I0727 20:33:55.979748  5105 layer_factory.hpp:77] Creating layer inception_4b/output_inception_4b/output_0_split
I0727 20:33:55.979761  5105 net.cpp:91] Creating Layer inception_4b/output_inception_4b/output_0_split
I0727 20:33:55.979770  5105 net.cpp:425] inception_4b/output_inception_4b/output_0_split <- inception_4b/output
I0727 20:33:55.979787  5105 net.cpp:399] inception_4b/output_inception_4b/output_0_split -> inception_4b/output_inception_4b/output_0_split_0
I0727 20:33:55.979804  5105 net.cpp:399] inception_4b/output_inception_4b/output_0_split -> inception_4b/output_inception_4b/output_0_split_1
I0727 20:33:55.979820  5105 net.cpp:399] inception_4b/output_inception_4b/output_0_split -> inception_4b/output_inception_4b/output_0_split_2
I0727 20:33:55.979833  5105 net.cpp:399] inception_4b/output_inception_4b/output_0_split -> inception_4b/output_inception_4b/output_0_split_3
I0727 20:33:55.980788  5109 net.cpp:141] Setting up inception_4b/relu_pool_proj
I0727 20:33:55.980794  5105 net.cpp:141] Setting up inception_4b/output_inception_4b/output_0_split
I0727 20:33:55.980815  5105 net.cpp:148] Top shape: 10 512 14 14 (1003520)
I0727 20:33:55.980814  5109 net.cpp:148] Top shape: 10 64 14 14 (125440)
I0727 20:33:55.980830  5105 net.cpp:148] Top shape: 10 512 14 14 (1003520)
I0727 20:33:55.980830  5109 net.cpp:156] Memory required for data: 403791360
I0727 20:33:55.980844  5105 net.cpp:148] Top shape: 10 512 14 14 (1003520)
I0727 20:33:55.980844  5109 layer_factory.hpp:77] Creating layer inception_4b/output
I0727 20:33:55.980856  5105 net.cpp:148] Top shape: 10 512 14 14 (1003520)
I0727 20:33:55.980862  5105 net.cpp:156] Memory required for data: 423861760
I0727 20:33:55.980864  5109 net.cpp:91] Creating Layer inception_4b/output
I0727 20:33:55.980875  5105 layer_factory.hpp:77] Creating layer inception_4c/1x1
I0727 20:33:55.980876  5109 net.cpp:425] inception_4b/output <- inception_4b/1x1
I0727 20:33:55.980888  5109 net.cpp:425] inception_4b/output <- inception_4b/3x3
I0727 20:33:55.980898  5109 net.cpp:425] inception_4b/output <- inception_4b/5x5
I0727 20:33:55.980898  5105 net.cpp:91] Creating Layer inception_4c/1x1
I0727 20:33:55.980911  5109 net.cpp:425] inception_4b/output <- inception_4b/pool_proj
I0727 20:33:55.980916  5105 net.cpp:425] inception_4c/1x1 <- inception_4b/output_inception_4b/output_0_split_0
I0727 20:33:55.980923  5109 net.cpp:399] inception_4b/output -> inception_4b/output
I0727 20:33:55.980933  5105 net.cpp:399] inception_4c/1x1 -> inception_4c/1x1
I0727 20:33:55.981045  5109 net.cpp:141] Setting up inception_4b/output
…
I0727 20:33:56.115509  5105 net.cpp:425] inception_4e/pool <- inception_4d/output_inception_4d/output_0_split_3
I0727 20:33:56.115519  5105 net.cpp:399] inception_4e/pool -> inception_4e/pool
I0727 20:33:56.115653  5105 net.cpp:141] Setting up inception_4e/pool
I0727 20:33:56.115664  5105 net.cpp:148] Top shape: 10 528 14 14 (1034880)
I0727 20:33:56.115667  5105 net.cpp:156] Memory required for data: 512296960
I0727 20:33:56.115672  5105 layer_factory.hpp:77] Creating layer inception_4e/pool_proj
I0727 20:33:56.115689  5105 net.cpp:91] Creating Layer inception_4e/pool_proj
I0727 20:33:56.115694  5105 net.cpp:425] inception_4e/pool_proj <- inception_4e/pool
I0727 20:33:56.115701  5105 net.cpp:399] inception_4e/pool_proj -> inception_4e/pool_proj
I0727 20:33:56.120476  5109 net.cpp:141] Setting up inception_4e/5x5
I0727 20:33:56.120522  5109 net.cpp:148] Top shape: 10 128 14 14 (250880)
I0727 20:33:56.120527  5109 net.cpp:156] Memory required for data: 507153920
I0727 20:33:56.120542  5109 layer_factory.hpp:77] Creating layer inception_4e/relu_5x5
I0727 20:33:56.120559  5109 net.cpp:91] Creating Layer inception_4e/relu_5x5
I0727 20:33:56.120569  5109 net.cpp:425] inception_4e/relu_5x5 <- inception_4e/5x5
I0727 20:33:56.120579  5109 net.cpp:386] inception_4e/relu_5x5 -> inception_4e/5x5 (in-place)
I0727 20:33:56.121006  5109 net.cpp:141] Setting up inception_4e/relu_5x5
I0727 20:33:56.121017  5109 net.cpp:148] Top shape: 10 128 14 14 (250880)
I0727 20:33:56.121021  5109 net.cpp:156] Memory required for data: 508157440
I0727 20:33:56.121026  5109 layer_factory.hpp:77] Creating layer inception_4e/pool
I0727 20:33:56.121026  5105 net.cpp:141] Setting up inception_4e/pool_proj
I0727 20:33:56.121040  5109 net.cpp:91] Creating Layer inception_4e/pool
I0727 20:33:56.121042  5105 net.cpp:148] Top shape: 10 128 14 14 (250880)
I0727 20:33:56.121047  5105 net.cpp:156] Memory required for data: 513300480
I0727 20:33:56.121047  5109 net.cpp:425] inception_4e/pool <- inception_4d/output_inception_4d/output_0_split_3
I0727 20:33:56.121058  5105 layer_factory.hpp:77] Creating layer inception_4e/relu_pool_proj
I0727 20:33:56.121059  5109 net.cpp:399] inception_4e/pool -> inception_4e/pool
I0727 20:33:56.121074  5105 net.cpp:91] Creating Layer inception_4e/relu_pool_proj
I0727 20:33:56.121083  5105 net.cpp:425] inception_4e/relu_pool_proj <- inception_4e/pool_proj
I0727 20:33:56.121090  5105 net.cpp:386] inception_4e/relu_pool_proj -> inception_4e/pool_proj (in-place)
I0727 20:33:56.122277  5109 net.cpp:141] Setting up inception_4e/pool
I0727 20:33:56.122295  5109 net.cpp:148] Top shape: 10 528 14 14 (1034880)
I0727 20:33:56.122299  5109 net.cpp:156] Memory required for data: 512296960
I0727 20:33:56.122304  5109 layer_factory.hpp:77] Creating layer inception_4e/pool_proj
I0727 20:33:56.122329  5109 net.cpp:91] Creating Layer inception_4e/pool_proj
I0727 20:33:56.122335  5109 net.cpp:425] inception_4e/pool_proj <- inception_4e/pool
I0727 20:33:56.122344  5109 net.cpp:399] inception_4e/pool_proj -> inception_4e/pool_proj
I0727 20:33:56.122346  5105 net.cpp:141] Setting up inception_4e/relu_pool_proj
I0727 20:33:56.122360  5105 net.cpp:148] Top shape: 10 128 14 14 (250880)
I0727 20:33:56.122364  5105 net.cpp:156] Memory required for data: 514304000
I0727 20:33:56.122370  5105 layer_factory.hpp:77] Creating layer inception_4e/output
I0727 20:33:56.122382  5105 net.cpp:91] Creating Layer inception_4e/output
I0727 20:33:56.122390  5105 net.cpp:425] inception_4e/output <- inception_4e/1x1
I0727 20:33:56.122396  5105 net.cpp:425] inception_4e/output <- inception_4e/3x3
I0727 20:33:56.122401  5105 net.cpp:425] inception_4e/output <- inception_4e/5x5
I0727 20:33:56.122406  5105 net.cpp:425] inception_4e/output <- inception_4e/pool_proj
I0727 20:33:56.122413  5105 net.cpp:399] inception_4e/output -> inception_4e/output
I0727 20:33:56.122545  5105 net.cpp:141] Setting up inception_4e/output
I0727 20:33:56.122556  5105 net.cpp:148] Top shape: 10 832 14 14 (1630720)
I0727 20:33:56.122560  5105 net.cpp:156] Memory required for data: 520826880
I0727 20:33:56.122565  5105 layer_factory.hpp:77] Creating layer pool4/3x3_s2
I0727 20:33:56.122573  5105 net.cpp:91] Creating Layer pool4/3x3_s2
I0727 20:33:56.122580  5105 net.cpp:425] pool4/3x3_s2 <- inception_4e/output
I0727 20:33:56.122588  5105 net.cpp:399] pool4/3x3_s2 -> pool4/3x3_s2
I0727 20:33:56.122843  5105 net.cpp:141] Setting up pool4/3x3_s2
I0727 20:33:56.122854  5105 net.cpp:148] Top shape: 10 832 7 7 (407680)
I0727 20:33:56.122859  5105 net.cpp:156] Memory required for data: 522457600
I0727 20:33:56.122864  5105 layer_factory.hpp:77] Creating layer pool4/3x3_s2_pool4/3x3_s2_0_split
I0727 20:33:56.122875  5105 net.cpp:91] Creating Layer pool4/3x3_s2_pool4/3x3_s2_0_split
I0727 20:33:56.122880  5105 net.cpp:425] pool4/3x3_s2_pool4/3x3_s2_0_split <- pool4/3x3_s2
I0727 20:33:56.122889  5105 net.cpp:399] pool4/3x3_s2_pool4/3x3_s2_0_split -> pool4/3x3_s2_pool4/3x3_s2_0_split_0
I0727 20:33:56.122898  5105 net.cpp:399] pool4/3x3_s2_pool4/3x3_s2_0_split -> pool4/3x3_s2_pool4/3x3_s2_0_split_1
I0727 20:33:56.122905  5105 net.cpp:399] pool4/3x3_s2_pool4/3x3_s2_0_split -> pool4/3x3_s2_pool4/3x3_s2_0_split_2
I0727 20:33:56.122912  5105 net.cpp:399] pool4/3x3_s2_pool4/3x3_s2_0_split -> pool4/3x3_s2_pool4/3x3_s2_0_split_3
I0727 20:33:56.123229  5105 net.cpp:141] Setting up pool4/3x3_s2_pool4/3x3_s2_0_split
I0727 20:33:56.123239  5105 net.cpp:148] Top shape: 10 832 7 7 (407680)
I0727 20:33:56.123245  5105 net.cpp:148] Top shape: 10 832 7 7 (407680)
I0727 20:33:56.123248  5105 net.cpp:148] Top shape: 10 832 7 7 (407680)
I0727 20:33:56.123253  5105 net.cpp:148] Top shape: 10 832 7 7 (407680)
I0727 20:33:56.123257  5105 net.cpp:156] Memory required for data: 528980480
I0727 20:33:56.123262  5105 layer_factory.hpp:77] Creating layer inception_5a/1x1
I0727 20:33:56.123278  5105 net.cpp:91] Creating Layer inception_5a/1x1
I0727 20:33:56.123284  5105 net.cpp:425] inception_5a/1x1 <- pool4/3x3_s2_pool4/3x3_s2_0_split_0
I0727 20:33:56.123293  5105 net.cpp:399] inception_5a/1x1 -> inception_5a/1x1
I0727 20:33:56.131907  5109 net.cpp:141] Setting up inception_4e/pool_proj
I0727 20:33:56.131964  5109 net.cpp:148] Top shape: 10 128 14 14 (250880)
I0727 20:33:56.131976  5109 net.cpp:156] Memory required for data: 513300480
I0727 20:33:56.131999  5109 layer_factory.hpp:77] Creating layer inception_4e/relu_pool_proj
I0727 20:33:56.132026  5109 net.cpp:91] Creating Layer inception_4e/relu_pool_proj
I0727 20:33:56.132042  5109 net.cpp:425] inception_4e/relu_pool_proj <- inception_4e/pool_proj
I0727 20:33:56.132045  5105 net.cpp:141] Setting up inception_5a/1x1
I0727 20:33:56.132061  5105 net.cpp:148] Top shape: 10 256 7 7 (125440)
I0727 20:33:56.132060  5109 net.cpp:386] inception_4e/relu_pool_proj -> inception_4e/pool_proj (in-place)
I0727 20:33:56.132066  5105 net.cpp:156] Memory required for data: 529482240
I0727 20:33:56.132077  5105 layer_factory.hpp:77] Creating layer inception_5a/relu_1x1
I0727 20:33:56.132088  5105 net.cpp:91] Creating Layer inception_5a/relu_1x1
I0727 20:33:56.132097  5105 net.cpp:425] inception_5a/relu_1x1 <- inception_5a/1x1
I0727 20:33:56.132103  5105 net.cpp:386] inception_5a/relu_1x1 -> inception_5a/1x1 (in-place)
I0727 20:33:56.132459  5105 net.cpp:141] Setting up inception_5a/relu_1x1
I0727 20:33:56.132472  5105 net.cpp:148] Top shape: 10 256 7 7 (125440)
I0727 20:33:56.132477  5105 net.cpp:156] Memory required for data: 529984000
I0727 20:33:56.132482  5105 layer_factory.hpp:77] Creating layer inception_5a/3x3_reduce
I0727 20:33:56.132525  5105 net.cpp:91] Creating Layer inception_5a/3x3_reduce
I0727 20:33:56.132539  5105 net.cpp:425] inception_5a/3x3_reduce <- pool4/3x3_s2_pool4/3x3_s2_0_split_1
I0727 20:33:56.132555  5105 net.cpp:399] inception_5a/3x3_reduce -> inception_5a/3x3_reduce
I0727 20:33:56.133680  5109 net.cpp:141] Setting up inception_4e/relu_pool_proj
I0727 20:33:56.133702  5109 net.cpp:148] Top shape: 10 128 14 14 (250880)
I0727 20:33:56.133711  5109 net.cpp:156] Memory required for data: 514304000
I0727 20:33:56.133720  5109 layer_factory.hpp:77] Creating layer inception_4e/output
I0727 20:33:56.133740  5109 net.cpp:91] Creating Layer inception_4e/output
I0727 20:33:56.133750  5109 net.cpp:425] inception_4e/output <- inception_4e/1x1
I0727 20:33:56.133762  5109 net.cpp:425] inception_4e/output <- inception_4e/3x3
I0727 20:33:56.133771  5109 net.cpp:425] inception_4e/output <- inception_4e/5x5
I0727 20:33:56.133780  5109 net.cpp:425] inception_4e/output <- inception_4e/pool_proj
I0727 20:33:56.133791  5109 net.cpp:399] inception_4e/output -> inception_4e/output
I0727 20:33:56.134021  5109 net.cpp:141] Setting up inception_4e/output
I0727 20:33:56.134038  5109 net.cpp:148] Top shape: 10 832 14 14 (1630720)
I0727 20:33:56.134047  5109 net.cpp:156] Memory required for data: 520826880
I0727 20:33:56.134054  5109 layer_factory.hpp:77] Creating layer pool4/3x3_s2
I0727 20:33:56.134076  5109 net.cpp:91] Creating Layer pool4/3x3_s2
I0727 20:33:56.134085  5109 net.cpp:425] pool4/3x3_s2 <- inception_4e/output
I0727 20:33:56.134101  5109 net.cpp:399] pool4/3x3_s2 -> pool4/3x3_s2
I0727 20:33:56.136399  5109 net.cpp:141] Setting up pool4/3x3_s2
I0727 20:33:56.136425  5109 net.cpp:148] Top shape: 10 832 7 7 (407680)
I0727 20:33:56.136435  5109 net.cpp:156] Memory required for data: 522457600
I0727 20:33:56.136445  5109 layer_factory.hpp:77] Creating layer pool4/3x3_s2_pool4/3x3_s2_0_split
I0727 20:33:56.136466  5109 net.cpp:91] Creating Layer pool4/3x3_s2_pool4/3x3_s2_0_split
I0727 20:33:56.136476  5109 net.cpp:425] pool4/3x3_s2_pool4/3x3_s2_0_split <- pool4/3x3_s2
I0727 20:33:56.136488  5109 net.cpp:399] pool4/3x3_s2_pool4/3x3_s2_0_split -> pool4/3x3_s2_pool4/3x3_s2_0_split_0
I0727 20:33:56.136507  5109 net.cpp:399] pool4/3x3_s2_pool4/3x3_s2_0_split -> pool4/3x3_s2_pool4/3x3_s2_0_split_1
I0727 20:33:56.136521  5109 net.cpp:399] pool4/3x3_s2_pool4/3x3_s2_0_split -> pool4/3x3_s2_pool4/3x3_s2_0_split_2
I0727 20:33:56.136534  5109 net.cpp:399] pool4/3x3_s2_pool4/3x3_s2_0_split -> pool4/3x3_s2_pool4/3x3_s2_0_split_3
I0727 20:33:56.137890  5109 net.cpp:141] Setting up pool4/3x3_s2_pool4/3x3_s2_0_split
I0727 20:33:56.137915  5109 net.cpp:148] Top shape: 10 832 7 7 (407680)
I0727 20:33:56.137926  5109 net.cpp:148] Top shape: 10 832 7 7 (407680)
I0727 20:33:56.137936  5109 net.cpp:148] Top shape: 10 832 7 7 (407680)
I0727 20:33:56.137945  5109 net.cpp:148] Top shape: 10 832 7 7 (407680)
I0727 20:33:56.137951  5109 net.cpp:156] Memory required for data: 528980480
I0727 20:33:56.137960  5109 layer_factory.hpp:77] Creating layer inception_5a/1x1
I0727 20:33:56.137994  5109 net.cpp:91] Creating Layer inception_5a/1x1
I0727 20:33:56.138005  5109 net.cpp:425] inception_5a/1x1 <- pool4/3x3_s2_pool4/3x3_s2_0_split_0
I0727 20:33:56.138020  5109 net.cpp:399] inception_5a/1x1 -> inception_5a/1x1
I0727 20:33:56.145834  5105 net.cpp:141] Setting up inception_5a/3x3_reduce
I0727 20:33:56.145877  5105 net.cpp:148] Top shape: 10 160 7 7 (78400)
I0727 20:33:56.145885  5105 net.cpp:156] Memory required for data: 530297600
I0727 20:33:56.145898  5105 layer_factory.hpp:77] Creating layer inception_5a/relu_3x3_reduce
I0727 20:33:56.145915  5105 net.cpp:91] Creating Layer inception_5a/relu_3x3_reduce
I0727 20:33:56.145925  5105 net.cpp:425] inception_5a/relu_3x3_reduce <- inception_5a/3x3_reduce
I0727 20:33:56.145934  5105 net.cpp:386] inception_5a/relu_3x3_reduce -> inception_5a/3x3_reduce (in-place)
I0727 20:33:56.146288  5109 net.cpp:141] Setting up inception_5a/1x1
I0727 20:33:56.146304  5109 net.cpp:148] Top shape: 10 256 7 7 (125440)
I0727 20:33:56.146309  5109 net.cpp:156] Memory required for data: 529482240
I0727 20:33:56.146317  5105 net.cpp:141] Setting up inception_5a/relu_3x3_reduce
I0727 20:33:56.146319  5109 layer_factory.hpp:77] Creating layer inception_5a/relu_1x1
I0727 20:33:56.146332  5105 net.cpp:148] Top shape: 10 160 7 7 (78400)
I0727 20:33:56.146337  5105 net.cpp:156] Memory required for data: 530611200
I0727 20:33:56.146338  5109 net.cpp:91] Creating Layer inception_5a/relu_1x1
I0727 20:33:56.146342  5105 layer_factory.hpp:77] Creating layer inception_5a/3x3
I0727 20:33:56.146347  5109 net.cpp:425] inception_5a/relu_1x1 <- inception_5a/1x1
I0727 20:33:56.146354  5109 net.cpp:386] inception_5a/relu_1x1 -> inception_5a/1x1 (in-place)
I0727 20:33:56.146361  5105 net.cpp:91] Creating Layer inception_5a/3x3
I0727 20:33:56.146368  5105 net.cpp:425] inception_5a/3x3 <- inception_5a/3x3_reduce
I0727 20:33:56.146378  5105 net.cpp:399] inception_5a/3x3 -> inception_5a/3x3
I0727 20:33:56.146775  5109 net.cpp:141] Setting up inception_5a/relu_1x1
I0727 20:33:56.146787  5109 net.cpp:148] Top shape: 10 256 7 7 (125440)
I0727 20:33:56.146792  5109 net.cpp:156] Memory required for data: 529984000
I0727 20:33:56.146796  5109 layer_factory.hpp:77] Creating layer inception_5a/3x3_reduce
I0727 20:33:56.146816  5109 net.cpp:91] Creating Layer inception_5a/3x3_reduce
I0727 20:33:56.146822  5109 net.cpp:425] inception_5a/3x3_reduce <- pool4/3x3_s2_pool4/3x3_s2_0_split_1
I0727 20:33:56.146831  5109 net.cpp:399] inception_5a/3x3_reduce -> inception_5a/3x3_reduce
I0727 20:33:56.156597  5109 net.cpp:141] Setting up inception_5a/3x3_reduce
I0727 20:33:56.156644  5109 net.cpp:148] Top shape: 10 160 7 7 (78400)
I0727 20:33:56.156651  5109 net.cpp:156] Memory required for data: 530297600
I0727 20:33:56.156666  5109 layer_factory.hpp:77] Creating layer inception_5a/relu_3x3_reduce
I0727 20:33:56.156682  5109 net.cpp:91] Creating Layer inception_5a/relu_3x3_reduce
I0727 20:33:56.156692  5109 net.cpp:425] inception_5a/relu_3x3_reduce <- inception_5a/3x3_reduce
I0727 20:33:56.156704  5109 net.cpp:386] inception_5a/relu_3x3_reduce -> inception_5a/3x3_reduce (in-place)
I0727 20:33:56.157145  5109 net.cpp:141] Setting up inception_5a/relu_3x3_reduce
I0727 20:33:56.157158  5109 net.cpp:148] Top shape: 10 160 7 7 (78400)
I0727 20:33:56.157162  5109 net.cpp:156] Memory required for data: 530611200
I0727 20:33:56.157167  5109 layer_factory.hpp:77] Creating layer inception_5a/3x3
I0727 20:33:56.157189  5109 net.cpp:91] Creating Layer inception_5a/3x3
I0727 20:33:56.157196  5109 net.cpp:425] inception_5a/3x3 <- inception_5a/3x3_reduce
I0727 20:33:56.157204  5109 net.cpp:399] inception_5a/3x3 -> inception_5a/3x3
I0727 20:33:56.158000  5105 net.cpp:141] Setting up inception_5a/3x3
I0727 20:33:56.158017  5105 net.cpp:148] Top shape: 10 320 7 7 (156800)
I0727 20:33:56.158023  5105 net.cpp:156] Memory required for data: 531238400
I0727 20:33:56.158035  5105 layer_factory.hpp:77] Creating layer inception_5a/relu_3x3
I0727 20:33:56.158043  5105 net.cpp:91] Creating Layer inception_5a/relu_3x3
I0727 20:33:56.158052  5105 net.cpp:425] inception_5a/relu_3x3 <- inception_5a/3x3
I0727 20:33:56.158062  5105 net.cpp:386] inception_5a/relu_3x3 -> inception_5a/3x3 (in-place)
I0727 20:33:56.158998  5105 net.cpp:141] Setting up inception_5a/relu_3x3
I0727 20:33:56.159015  5105 net.cpp:148] Top shape: 10 320 7 7 (156800)
I0727 20:33:56.159020  5105 net.cpp:156] Memory required for data: 531865600
I0727 20:33:56.159025  5105 layer_factory.hpp:77] Creating layer inception_5a/5x5_reduce
I0727 20:33:56.159041  5105 net.cpp:91] Creating Layer inception_5a/5x5_reduce
I0727 20:33:56.159049  5105 net.cpp:425] inception_5a/5x5_reduce <- pool4/3x3_s2_pool4/3x3_s2_0_split_2
I0727 20:33:56.159060  5105 net.cpp:399] inception_5a/5x5_reduce -> inception_5a/5x5_reduce
I0727 20:33:56.169231  5105 net.cpp:141] Setting up inception_5a/5x5_reduce
I0727 20:33:56.169282  5105 net.cpp:148] Top shape: 10 32 7 7 (15680)
I0727 20:33:56.169289  5105 net.cpp:156] Memory required for data: 531928320
I0727 20:33:56.169304  5105 layer_factory.hpp:77] Creating layer inception_5a/relu_5x5_reduce
I0727 20:33:56.169325  5105 net.cpp:91] Creating Layer inception_5a/relu_5x5_reduce
I0727 20:33:56.169337  5105 net.cpp:425] inception_5a/relu_5x5_reduce <- inception_5a/5x5_reduce
I0727 20:33:56.169348  5105 net.cpp:386] inception_5a/relu_5x5_reduce -> inception_5a/5x5_reduce (in-place)
I0727 20:33:56.169844  5105 net.cpp:141] Setting up inception_5a/relu_5x5_reduce
I0727 20:33:56.169857  5105 net.cpp:148] Top shape: 10 32 7 7 (15680)
I0727 20:33:56.169862  5105 net.cpp:156] Memory required for data: 531991040
I0727 20:33:56.169867  5105 layer_factory.hpp:77] Creating layer inception_5a/5x5
I0727 20:33:56.169889  5105 net.cpp:91] Creating Layer inception_5a/5x5
I0727 20:33:56.169895  5105 net.cpp:425] inception_5a/5x5 <- inception_5a/5x5_reduce
I0727 20:33:56.169906  5105 net.cpp:399] inception_5a/5x5 -> inception_5a/5x5
I0727 20:33:56.170848  5109 net.cpp:141] Setting up inception_5a/3x3
I0727 20:33:56.170872  5109 net.cpp:148] Top shape: 10 320 7 7 (156800)
I0727 20:33:56.170882  5109 net.cpp:156] Memory required for data: 531238400
I0727 20:33:56.170907  5109 layer_factory.hpp:77] Creating layer inception_5a/relu_3x3
I0727 20:33:56.170923  5109 net.cpp:91] Creating Layer inception_5a/relu_3x3
I0727 20:33:56.170938  5109 net.cpp:425] inception_5a/relu_3x3 <- inception_5a/3x3
I0727 20:33:56.170956  5109 net.cpp:386] inception_5a/relu_3x3 -> inception_5a/3x3 (in-place)
I0727 20:33:56.172461  5109 net.cpp:141] Setting up inception_5a/relu_3x3
I0727 20:33:56.172487  5109 net.cpp:148] Top shape: 10 320 7 7 (156800)
I0727 20:33:56.172497  5109 net.cpp:156] Memory required for data: 531865600
I0727 20:33:56.172507  5109 layer_factory.hpp:77] Creating layer inception_5a/5x5_reduce
I0727 20:33:56.172536  5109 net.cpp:91] Creating Layer inception_5a/5x5_reduce
I0727 20:33:56.172550  5109 net.cpp:425] inception_5a/5x5_reduce <- pool4/3x3_s2_pool4/3x3_s2_0_split_2
I0727 20:33:56.172580  5109 net.cpp:399] inception_5a/5x5_reduce -> inception_5a/5x5_reduce
I0727 20:33:56.177357  5105 net.cpp:141] Setting up inception_5a/5x5
I0727 20:33:56.177384  5105 net.cpp:148] Top shape: 10 128 7 7 (62720)
I0727 20:33:56.177391  5105 net.cpp:156] Memory required for data: 532241920
I0727 20:33:56.177402  5105 layer_factory.hpp:77] Creating layer inception_5a/relu_5x5
I0727 20:33:56.177443  5105 net.cpp:91] Creating Layer inception_5a/relu_5x5
I0727 20:33:56.177450  5105 net.cpp:425] inception_5a/relu_5x5 <- inception_5a/5x5
I0727 20:33:56.177459  5105 net.cpp:386] inception_5a/relu_5x5 -> inception_5a/5x5 (in-place)
I0727 20:33:56.177862  5105 net.cpp:141] Setting up inception_5a/relu_5x5
I0727 20:33:56.177875  5105 net.cpp:148] Top shape: 10 128 7 7 (62720)
I0727 20:33:56.177878  5105 net.cpp:156] Memory required for data: 532492800
I0727 20:33:56.177884  5105 layer_factory.hpp:77] Creating layer inception_5a/pool
I0727 20:33:56.177898  5105 net.cpp:91] Creating Layer inception_5a/pool
I0727 20:33:56.177906  5105 net.cpp:425] inception_5a/pool <- pool4/3x3_s2_pool4/3x3_s2_0_split_3
I0727 20:33:56.177912  5105 net.cpp:399] inception_5a/pool -> inception_5a/pool
I0727 20:33:56.178134  5105 net.cpp:141] Setting up inception_5a/pool
I0727 20:33:56.178144  5105 net.cpp:148] Top shape: 10 832 7 7 (407680)
I0727 20:33:56.178148  5105 net.cpp:156] Memory required for data: 534123520
I0727 20:33:56.178153  5105 layer_factory.hpp:77] Creating layer inception_5a/pool_proj
I0727 20:33:56.178171  5105 net.cpp:91] Creating Layer inception_5a/pool_proj
I0727 20:33:56.178177  5105 net.cpp:425] inception_5a/pool_proj <- inception_5a/pool
I0727 20:33:56.178189  5105 net.cpp:399] inception_5a/pool_proj -> inception_5a/pool_proj
I0727 20:33:56.178515  5109 net.cpp:141] Setting up inception_5a/5x5_reduce
I0727 20:33:56.178537  5109 net.cpp:148] Top shape: 10 32 7 7 (15680)
I0727 20:33:56.178547  5109 net.cpp:156] Memory required for data: 531928320
I0727 20:33:56.178566  5109 layer_factory.hpp:77] Creating layer inception_5a/relu_5x5_reduce
I0727 20:33:56.178589  5109 net.cpp:91] Creating Layer inception_5a/relu_5x5_reduce
I0727 20:33:56.178602  5109 net.cpp:425] inception_5a/relu_5x5_reduce <- inception_5a/5x5_reduce
I0727 20:33:56.178617  5109 net.cpp:386] inception_5a/relu_5x5_reduce -> inception_5a/5x5_reduce (in-place)
I0727 20:33:56.179397  5109 net.cpp:141] Setting up inception_5a/relu_5x5_reduce
I0727 20:33:56.179421  5109 net.cpp:148] Top shape: 10 32 7 7 (15680)
I0727 20:33:56.179431  5109 net.cpp:156] Memory required for data: 531991040
I0727 20:33:56.179443  5109 layer_factory.hpp:77] Creating layer inception_5a/5x5
I0727 20:33:56.179471  5109 net.cpp:91] Creating Layer inception_5a/5x5
I0727 20:33:56.179482  5109 net.cpp:425] inception_5a/5x5 <- inception_5a/5x5_reduce
I0727 20:33:56.179503  5109 net.cpp:399] inception_5a/5x5 -> inception_5a/5x5
I0727 20:33:56.185719  5105 net.cpp:141] Setting up inception_5a/pool_proj
I0727 20:33:56.185750  5105 net.cpp:148] Top shape: 10 128 7 7 (62720)
I0727 20:33:56.185756  5105 net.cpp:156] Memory required for data: 534374400
I0727 20:33:56.185768  5105 layer_factory.hpp:77] Creating layer inception_5a/relu_pool_proj
I0727 20:33:56.185781  5105 net.cpp:91] Creating Layer inception_5a/relu_pool_proj
I0727 20:33:56.185789  5105 net.cpp:425] inception_5a/relu_pool_proj <- inception_5a/pool_proj
I0727 20:33:56.185797  5105 net.cpp:386] inception_5a/relu_pool_proj -> inception_5a/pool_proj (in-place)
I0727 20:33:56.186677  5109 net.cpp:141] Setting up inception_5a/5x5
I0727 20:33:56.186712  5109 net.cpp:148] Top shape: 10 128 7 7 (62720)
I0727 20:33:56.186722  5109 net.cpp:156] Memory required for data: 532241920
I0727 20:33:56.186740  5109 layer_factory.hpp:77] Creating layer inception_5a/relu_5x5
I0727 20:33:56.186792  5105 net.cpp:141] Setting up inception_5a/relu_pool_proj
I0727 20:33:56.186805  5105 net.cpp:148] Top shape: 10 128 7 7 (62720)
I0727 20:33:56.186810  5105 net.cpp:156] Memory required for data: 534625280
I0727 20:33:56.186808  5109 net.cpp:91] Creating Layer inception_5a/relu_5x5
I0727 20:33:56.186815  5105 layer_factory.hpp:77] Creating layer inception_5a/output
I0727 20:33:56.186825  5105 net.cpp:91] Creating Layer inception_5a/output
I0727 20:33:56.186825  5109 net.cpp:425] inception_5a/relu_5x5 <- inception_5a/5x5
I0727 20:33:56.186831  5105 net.cpp:425] inception_5a/output <- inception_5a/1x1
I0727 20:33:56.186838  5105 net.cpp:425] inception_5a/output <- inception_5a/3x3
I0727 20:33:56.186843  5105 net.cpp:425] inception_5a/output <- inception_5a/5x5
I0727 20:33:56.186842  5109 net.cpp:386] inception_5a/relu_5x5 -> inception_5a/5x5 (in-place)
I0727 20:33:56.186849  5105 net.cpp:425] inception_5a/output <- inception_5a/pool_proj
I0727 20:33:56.186856  5105 net.cpp:399] inception_5a/output -> inception_5a/output
I0727 20:33:56.187229  5105 net.cpp:141] Setting up inception_5a/output
I0727 20:33:56.187240  5105 net.cpp:148] Top shape: 10 832 7 7 (407680)
I0727 20:33:56.187244  5105 net.cpp:156] Memory required for data: 536256000
I0727 20:33:56.187249  5105 layer_factory.hpp:77] Creating layer inception_5a/output_inception_5a/output_0_split
I0727 20:33:56.187258  5105 net.cpp:91] Creating Layer inception_5a/output_inception_5a/output_0_split
I0727 20:33:56.187263  5105 net.cpp:425] inception_5a/output_inception_5a/output_0_split <- inception_5a/output
I0727 20:33:56.187273  5105 net.cpp:399] inception_5a/output_inception_5a/output_0_split -> inception_5a/output_inception_5a/output_0_split_0
I0727 20:33:56.187283  5105 net.cpp:399] inception_5a/output_inception_5a/output_0_split -> inception_5a/output_inception_5a/output_0_split_1
I0727 20:33:56.187290  5105 net.cpp:399] inception_5a/output_inception_5a/output_0_split -> inception_5a/output_inception_5a/output_0_split_2
I0727 20:33:56.187297  5105 net.cpp:399] inception_5a/output_inception_5a/output_0_split -> inception_5a/output_inception_5a/output_0_split_3
I0727 20:33:56.187459  5109 net.cpp:141] Setting up inception_5a/relu_5x5
I0727 20:33:56.187479  5109 net.cpp:148] Top shape: 10 128 7 7 (62720)
I0727 20:33:56.187489  5109 net.cpp:156] Memory required for data: 532492800
I0727 20:33:56.187500  5109 layer_factory.hpp:77] Creating layer inception_5a/pool
I0727 20:33:56.187517  5109 net.cpp:91] Creating Layer inception_5a/pool
I0727 20:33:56.187530  5109 net.cpp:425] inception_5a/pool <- pool4/3x3_s2_pool4/3x3_s2_0_split_3
I0727 20:33:56.187549  5109 net.cpp:399] inception_5a/pool -> inception_5a/pool
I0727 20:33:56.187571  5105 net.cpp:141] Setting up inception_5a/output_inception_5a/output_0_split
I0727 20:33:56.187582  5105 net.cpp:148] Top shape: 10 832 7 7 (407680)
I0727 20:33:56.187587  5105 net.cpp:148] Top shape: 10 832 7 7 (407680)
I0727 20:33:56.187592  5105 net.cpp:148] Top shape: 10 832 7 7 (407680)
I0727 20:33:56.187597  5105 net.cpp:148] Top shape: 10 832 7 7 (407680)
I0727 20:33:56.187600  5105 net.cpp:156] Memory required for data: 542778880
I0727 20:33:56.187605  5105 layer_factory.hpp:77] Creating layer inception_5b/1x1
I0727 20:33:56.187623  5105 net.cpp:91] Creating Layer inception_5b/1x1
I0727 20:33:56.187629  5105 net.cpp:425] inception_5b/1x1 <- inception_5a/output_inception_5a/output_0_split_0
I0727 20:33:56.187640  5105 net.cpp:399] inception_5b/1x1 -> inception_5b/1x1
I0727 20:33:56.187849  5109 net.cpp:141] Setting up inception_5a/pool
I0727 20:33:56.187867  5109 net.cpp:148] Top shape: 10 832 7 7 (407680)
I0727 20:33:56.187875  5109 net.cpp:156] Memory required for data: 534123520
I0727 20:33:56.187885  5109 layer_factory.hpp:77] Creating layer inception_5a/pool_proj
I0727 20:33:56.187913  5109 net.cpp:91] Creating Layer inception_5a/pool_proj
I0727 20:33:56.187927  5109 net.cpp:425] inception_5a/pool_proj <- inception_5a/pool
I0727 20:33:56.187949  5109 net.cpp:399] inception_5a/pool_proj -> inception_5a/pool_proj
I0727 20:33:56.200994  5105 net.cpp:141] Setting up inception_5b/1x1
I0727 20:33:56.201050  5105 net.cpp:148] Top shape: 10 384 7 7 (188160)
I0727 20:33:56.201056  5105 net.cpp:156] Memory required for data: 543531520
I0727 20:33:56.201072  5105 layer_factory.hpp:77] Creating layer inception_5b/relu_1x1
I0727 20:33:56.201092  5105 net.cpp:91] Creating Layer inception_5b/relu_1x1
I0727 20:33:56.201103  5105 net.cpp:425] inception_5b/relu_1x1 <- inception_5b/1x1
I0727 20:33:56.201114  5105 net.cpp:386] inception_5b/relu_1x1 -> inception_5b/1x1 (in-place)
I0727 20:33:56.201550  5105 net.cpp:141] Setting up inception_5b/relu_1x1
I0727 20:33:56.201561  5105 net.cpp:148] Top shape: 10 384 7 7 (188160)
I0727 20:33:56.201565  5105 net.cpp:156] Memory required for data: 544284160
I0727 20:33:56.201570  5105 layer_factory.hpp:77] Creating layer inception_5b/3x3_reduce
I0727 20:33:56.201593  5105 net.cpp:91] Creating Layer inception_5b/3x3_reduce
I0727 20:33:56.201601  5105 net.cpp:425] inception_5b/3x3_reduce <- inception_5a/output_inception_5a/output_0_split_1
I0727 20:33:56.201611  5105 net.cpp:399] inception_5b/3x3_reduce -> inception_5b/3x3_reduce
I0727 20:33:56.201843  5109 net.cpp:141] Setting up inception_5a/pool_proj
I0727 20:33:56.201865  5109 net.cpp:148] Top shape: 10 128 7 7 (62720)
I0727 20:33:56.201875  5109 net.cpp:156] Memory required for data: 534374400
I0727 20:33:56.201894  5109 layer_factory.hpp:77] Creating layer inception_5a/relu_pool_proj
I0727 20:33:56.201915  5109 net.cpp:91] Creating Layer inception_5a/relu_pool_proj
I0727 20:33:56.201931  5109 net.cpp:425] inception_5a/relu_pool_proj <- inception_5a/pool_proj
I0727 20:33:56.201946  5109 net.cpp:386] inception_5a/relu_pool_proj -> inception_5a/pool_proj (in-place)
I0727 20:33:56.203769  5109 net.cpp:141] Setting up inception_5a/relu_pool_proj
I0727 20:33:56.203799  5109 net.cpp:148] Top shape: 10 128 7 7 (62720)
I0727 20:33:56.203809  5109 net.cpp:156] Memory required for data: 534625280
I0727 20:33:56.203819  5109 layer_factory.hpp:77] Creating layer inception_5a/output
I0727 20:33:56.203835  5109 net.cpp:91] Creating Layer inception_5a/output
I0727 20:33:56.203846  5109 net.cpp:425] inception_5a/output <- inception_5a/1x1
I0727 20:33:56.203860  5109 net.cpp:425] inception_5a/output <- inception_5a/3x3
I0727 20:33:56.203871  5109 net.cpp:425] inception_5a/output <- inception_5a/5x5
I0727 20:33:56.203881  5109 net.cpp:425] inception_5a/output <- inception_5a/pool_proj
I0727 20:33:56.203893  5109 net.cpp:399] inception_5a/output -> inception_5a/output
I0727 20:33:56.204708  5109 net.cpp:141] Setting up inception_5a/output
I0727 20:33:56.204728  5109 net.cpp:148] Top shape: 10 832 7 7 (407680)
I0727 20:33:56.204737  5109 net.cpp:156] Memory required for data: 536256000
I0727 20:33:56.204746  5109 layer_factory.hpp:77] Creating layer inception_5a/output_inception_5a/output_0_split
I0727 20:33:56.204762  5109 net.cpp:91] Creating Layer inception_5a/output_inception_5a/output_0_split
I0727 20:33:56.204773  5109 net.cpp:425] inception_5a/output_inception_5a/output_0_split <- inception_5a/output
I0727 20:33:56.204787  5109 net.cpp:399] inception_5a/output_inception_5a/output_0_split -> inception_5a/output_inception_5a/output_0_split_0
I0727 20:33:56.204813  5109 net.cpp:399] inception_5a/output_inception_5a/output_0_split -> inception_5a/output_inception_5a/output_0_split_1
I0727 20:33:56.204831  5109 net.cpp:399] inception_5a/output_inception_5a/output_0_split -> inception_5a/output_inception_5a/output_0_split_2
I0727 20:33:56.204849  5109 net.cpp:399] inception_5a/output_inception_5a/output_0_split -> inception_5a/output_inception_5a/output_0_split_3
I0727 20:33:56.205751  5109 net.cpp:141] Setting up inception_5a/output_inception_5a/output_0_split
I0727 20:33:56.205772  5109 net.cpp:148] Top shape: 10 832 7 7 (407680)
I0727 20:33:56.205785  5109 net.cpp:148] Top shape: 10 832 7 7 (407680)
I0727 20:33:56.205796  5109 net.cpp:148] Top shape: 10 832 7 7 (407680)
I0727 20:33:56.205806  5109 net.cpp:148] Top shape: 10 832 7 7 (407680)
I0727 20:33:56.205813  5109 net.cpp:156] Memory required for data: 542778880
I0727 20:33:56.205822  5109 layer_factory.hpp:77] Creating layer inception_5b/1x1
I0727 20:33:56.205853  5109 net.cpp:91] Creating Layer inception_5b/1x1
I0727 20:33:56.205867  5109 net.cpp:425] inception_5b/1x1 <- inception_5a/output_inception_5a/output_0_split_0
I0727 20:33:56.205890  5109 net.cpp:399] inception_5b/1x1 -> inception_5b/1x1
I0727 20:33:56.211174  5105 net.cpp:141] Setting up inception_5b/3x3_reduce
I0727 20:33:56.211201  5105 net.cpp:148] Top shape: 10 192 7 7 (94080)
I0727 20:33:56.211206  5105 net.cpp:156] Memory required for data: 544660480
I0727 20:33:56.211220  5105 layer_factory.hpp:77] Creating layer inception_5b/relu_3x3_reduce
I0727 20:33:56.211230  5105 net.cpp:91] Creating Layer inception_5b/relu_3x3_reduce
I0727 20:33:56.211238  5105 net.cpp:425] inception_5b/relu_3x3_reduce <- inception_5b/3x3_reduce
I0727 20:33:56.211246  5105 net.cpp:386] inception_5b/relu_3x3_reduce -> inception_5b/3x3_reduce (in-place)
I0727 20:33:56.211681  5105 net.cpp:141] Setting up inception_5b/relu_3x3_reduce
I0727 20:33:56.211694  5105 net.cpp:148] Top shape: 10 192 7 7 (94080)
I0727 20:33:56.211697  5105 net.cpp:156] Memory required for data: 545036800
I0727 20:33:56.211702  5105 layer_factory.hpp:77] Creating layer inception_5b/3x3
I0727 20:33:56.211720  5105 net.cpp:91] Creating Layer inception_5b/3x3
I0727 20:33:56.211726  5105 net.cpp:425] inception_5b/3x3 <- inception_5b/3x3_reduce
I0727 20:33:56.211737  5105 net.cpp:399] inception_5b/3x3 -> inception_5b/3x3
I0727 20:33:56.216526  5109 net.cpp:141] Setting up inception_5b/1x1
I0727 20:33:56.216557  5109 net.cpp:148] Top shape: 10 384 7 7 (188160)
I0727 20:33:56.216565  5109 net.cpp:156] Memory required for data: 543531520
I0727 20:33:56.216584  5109 layer_factory.hpp:77] Creating layer inception_5b/relu_1x1
I0727 20:33:56.216608  5109 net.cpp:91] Creating Layer inception_5b/relu_1x1
I0727 20:33:56.216620  5109 net.cpp:425] inception_5b/relu_1x1 <- inception_5b/1x1
I0727 20:33:56.216635  5109 net.cpp:386] inception_5b/relu_1x1 -> inception_5b/1x1 (in-place)
I0727 20:33:56.217099  5109 net.cpp:141] Setting up inception_5b/relu_1x1
I0727 20:33:56.217118  5109 net.cpp:148] Top shape: 10 384 7 7 (188160)
I0727 20:33:56.217128  5109 net.cpp:156] Memory required for data: 544284160
I0727 20:33:56.217138  5109 layer_factory.hpp:77] Creating layer inception_5b/3x3_reduce
I0727 20:33:56.217167  5109 net.cpp:91] Creating Layer inception_5b/3x3_reduce
I0727 20:33:56.217180  5109 net.cpp:425] inception_5b/3x3_reduce <- inception_5a/output_inception_5a/output_0_split_1
I0727 20:33:56.217198  5109 net.cpp:399] inception_5b/3x3_reduce -> inception_5b/3x3_reduce
I0727 20:33:56.224232  5105 net.cpp:141] Setting up inception_5b/3x3
I0727 20:33:56.224270  5105 net.cpp:148] Top shape: 10 384 7 7 (188160)
I0727 20:33:56.224275  5105 net.cpp:156] Memory required for data: 545789440
I0727 20:33:56.224287  5105 layer_factory.hpp:77] Creating layer inception_5b/relu_3x3
I0727 20:33:56.224308  5105 net.cpp:91] Creating Layer inception_5b/relu_3x3
I0727 20:33:56.224315  5105 net.cpp:425] inception_5b/relu_3x3 <- inception_5b/3x3
I0727 20:33:56.224324  5105 net.cpp:386] inception_5b/relu_3x3 -> inception_5b/3x3 (in-place)
I0727 20:33:56.224434  5109 net.cpp:141] Setting up inception_5b/3x3_reduce
I0727 20:33:56.224457  5109 net.cpp:148] Top shape: 10 192 7 7 (94080)
I0727 20:33:56.224467  5109 net.cpp:156] Memory required for data: 544660480
I0727 20:33:56.224483  5109 layer_factory.hpp:77] Creating layer inception_5b/relu_3x3_reduce
I0727 20:33:56.224498  5109 net.cpp:91] Creating Layer inception_5b/relu_3x3_reduce
I0727 20:33:56.224510  5109 net.cpp:425] inception_5b/relu_3x3_reduce <- inception_5b/3x3_reduce
I0727 20:33:56.224524  5109 net.cpp:386] inception_5b/relu_3x3_reduce -> inception_5b/3x3_reduce (in-place)
I0727 20:33:56.224989  5109 net.cpp:141] Setting up inception_5b/relu_3x3_reduce
I0727 20:33:56.225008  5109 net.cpp:148] Top shape: 10 192 7 7 (94080)
I0727 20:33:56.225018  5109 net.cpp:156] Memory required for data: 545036800
I0727 20:33:56.225028  5109 layer_factory.hpp:77] Creating layer inception_5b/3x3
I0727 20:33:56.225059  5109 net.cpp:91] Creating Layer inception_5b/3x3
I0727 20:33:56.225071  5109 net.cpp:425] inception_5b/3x3 <- inception_5b/3x3_reduce
I0727 20:33:56.225095  5109 net.cpp:399] inception_5b/3x3 -> inception_5b/3x3
I0727 20:33:56.225452  5105 net.cpp:141] Setting up inception_5b/relu_3x3
I0727 20:33:56.225466  5105 net.cpp:148] Top shape: 10 384 7 7 (188160)
I0727 20:33:56.225471  5105 net.cpp:156] Memory required for data: 546542080
I0727 20:33:56.225476  5105 layer_factory.hpp:77] Creating layer inception_5b/5x5_reduce
I0727 20:33:56.225493  5105 net.cpp:91] Creating Layer inception_5b/5x5_reduce
I0727 20:33:56.225499  5105 net.cpp:425] inception_5b/5x5_reduce <- inception_5a/output_inception_5a/output_0_split_2
I0727 20:33:56.225509  5105 net.cpp:399] inception_5b/5x5_reduce -> inception_5b/5x5_reduce
I0727 20:33:56.232569  5105 net.cpp:141] Setting up inception_5b/5x5_reduce
I0727 20:33:56.232619  5105 net.cpp:148] Top shape: 10 48 7 7 (23520)
I0727 20:33:56.232625  5105 net.cpp:156] Memory required for data: 546636160
I0727 20:33:56.232637  5105 layer_factory.hpp:77] Creating layer inception_5b/relu_5x5_reduce
I0727 20:33:56.232657  5105 net.cpp:91] Creating Layer inception_5b/relu_5x5_reduce
I0727 20:33:56.232666  5105 net.cpp:425] inception_5b/relu_5x5_reduce <- inception_5b/5x5_reduce
I0727 20:33:56.232678  5105 net.cpp:386] inception_5b/relu_5x5_reduce -> inception_5b/5x5_reduce (in-place)
I0727 20:33:56.232944  5105 net.cpp:141] Setting up inception_5b/relu_5x5_reduce
I0727 20:33:56.232956  5105 net.cpp:148] Top shape: 10 48 7 7 (23520)
I0727 20:33:56.232960  5105 net.cpp:156] Memory required for data: 546730240
I0727 20:33:56.232965  5105 layer_factory.hpp:77] Creating layer inception_5b/5x5
I0727 20:33:56.232988  5105 net.cpp:91] Creating Layer inception_5b/5x5
I0727 20:33:56.232995  5105 net.cpp:425] inception_5b/5x5 <- inception_5b/5x5_reduce
I0727 20:33:56.233003  5105 net.cpp:399] inception_5b/5x5 -> inception_5b/5x5
I0727 20:33:56.239459  5109 net.cpp:141] Setting up inception_5b/3x3
I0727 20:33:56.239502  5109 net.cpp:148] Top shape: 10 384 7 7 (188160)
I0727 20:33:56.239511  5109 net.cpp:156] Memory required for data: 545789440
I0727 20:33:56.239531  5109 layer_factory.hpp:77] Creating layer inception_5b/relu_3x3
I0727 20:33:56.239557  5109 net.cpp:91] Creating Layer inception_5b/relu_3x3
I0727 20:33:56.239564  5105 net.cpp:141] Setting up inception_5b/5x5
I0727 20:33:56.239570  5109 net.cpp:425] inception_5b/relu_3x3 <- inception_5b/3x3
I0727 20:33:56.239580  5105 net.cpp:148] Top shape: 10 128 7 7 (62720)
I0727 20:33:56.239585  5105 net.cpp:156] Memory required for data: 546981120
I0727 20:33:56.239588  5109 net.cpp:386] inception_5b/relu_3x3 -> inception_5b/3x3 (in-place)
I0727 20:33:56.239596  5105 layer_factory.hpp:77] Creating layer inception_5b/relu_5x5
I0727 20:33:56.239608  5105 net.cpp:91] Creating Layer inception_5b/relu_5x5
I0727 20:33:56.239615  5105 net.cpp:425] inception_5b/relu_5x5 <- inception_5b/5x5
I0727 20:33:56.239622  5105 net.cpp:386] inception_5b/relu_5x5 -> inception_5b/5x5 (in-place)
I0727 20:33:56.239980  5105 net.cpp:141] Setting up inception_5b/relu_5x5
I0727 20:33:56.239992  5105 net.cpp:148] Top shape: 10 128 7 7 (62720)
I0727 20:33:56.239996  5105 net.cpp:156] Memory required for data: 547232000
I0727 20:33:56.240001  5105 layer_factory.hpp:77] Creating layer inception_5b/pool
I0727 20:33:56.240012  5105 net.cpp:91] Creating Layer inception_5b/pool
I0727 20:33:56.240018  5105 net.cpp:425] inception_5b/pool <- inception_5a/output_inception_5a/output_0_split_3
I0727 20:33:56.240028  5105 net.cpp:399] inception_5b/pool -> inception_5b/pool
I0727 20:33:56.241243  5105 net.cpp:141] Setting up inception_5b/pool
I0727 20:33:56.241263  5105 net.cpp:148] Top shape: 10 832 7 7 (407680)
I0727 20:33:56.241267  5105 net.cpp:156] Memory required for data: 548862720
I0727 20:33:56.241273  5105 layer_factory.hpp:77] Creating layer inception_5b/pool_proj
I0727 20:33:56.241297  5105 net.cpp:91] Creating Layer inception_5b/pool_proj
I0727 20:33:56.241302  5105 net.cpp:425] inception_5b/pool_proj <- inception_5b/pool
I0727 20:33:56.241312  5105 net.cpp:399] inception_5b/pool_proj -> inception_5b/pool_proj
I0727 20:33:56.241366  5109 net.cpp:141] Setting up inception_5b/relu_3x3
I0727 20:33:56.241386  5109 net.cpp:148] Top shape: 10 384 7 7 (188160)
I0727 20:33:56.241396  5109 net.cpp:156] Memory required for data: 546542080
I0727 20:33:56.241405  5109 layer_factory.hpp:77] Creating layer inception_5b/5x5_reduce
I0727 20:33:56.241436  5109 net.cpp:91] Creating Layer inception_5b/5x5_reduce
I0727 20:33:56.241451  5109 net.cpp:425] inception_5b/5x5_reduce <- inception_5a/output_inception_5a/output_0_split_2
I0727 20:33:56.241472  5109 net.cpp:399] inception_5b/5x5_reduce -> inception_5b/5x5_reduce
I0727 20:33:56.248493  5105 net.cpp:141] Setting up inception_5b/pool_proj
I0727 20:33:56.248534  5105 net.cpp:148] Top shape: 10 128 7 7 (62720)
I0727 20:33:56.248540  5105 net.cpp:156] Memory required for data: 549113600
I0727 20:33:56.248553  5105 layer_factory.hpp:77] Creating layer inception_5b/relu_pool_proj
I0727 20:33:56.248569  5105 net.cpp:91] Creating Layer inception_5b/relu_pool_proj
I0727 20:33:56.248577  5105 net.cpp:425] inception_5b/relu_pool_proj <- inception_5b/pool_proj
I0727 20:33:56.248589  5105 net.cpp:386] inception_5b/relu_pool_proj -> inception_5b/pool_proj (in-place)
I0727 20:33:56.249529  5109 net.cpp:141] Setting up inception_5b/5x5_reduce
I0727 20:33:56.249553  5109 net.cpp:148] Top shape: 10 48 7 7 (23520)
I0727 20:33:56.249562  5109 net.cpp:156] Memory required for data: 546636160
I0727 20:33:56.249582  5109 layer_factory.hpp:77] Creating layer inception_5b/relu_5x5_reduce
I0727 20:33:56.249584  5105 net.cpp:141] Setting up inception_5b/relu_pool_proj
I0727 20:33:56.249598  5105 net.cpp:148] Top shape: 10 128 7 7 (62720)
I0727 20:33:56.249598  5109 net.cpp:91] Creating Layer inception_5b/relu_5x5_reduce
I0727 20:33:56.249604  5105 net.cpp:156] Memory required for data: 549364480
I0727 20:33:56.249609  5105 layer_factory.hpp:77] Creating layer inception_5b/output
I0727 20:33:56.249614  5109 net.cpp:425] inception_5b/relu_5x5_reduce <- inception_5b/5x5_reduce
I0727 20:33:56.249619  5105 net.cpp:91] Creating Layer inception_5b/output
I0727 20:33:56.249625  5105 net.cpp:425] inception_5b/output <- inception_5b/1x1
I0727 20:33:56.249632  5105 net.cpp:425] inception_5b/output <- inception_5b/3x3
I0727 20:33:56.249637  5105 net.cpp:425] inception_5b/output <- inception_5b/5x5
I0727 20:33:56.249636  5109 net.cpp:386] inception_5b/relu_5x5_reduce -> inception_5b/5x5_reduce (in-place)
I0727 20:33:56.249644  5105 net.cpp:425] inception_5b/output <- inception_5b/pool_proj
I0727 20:33:56.249655  5105 net.cpp:399] inception_5b/output -> inception_5b/output
I0727 20:33:56.250005  5105 net.cpp:141] Setting up inception_5b/output
I0727 20:33:56.250016  5105 net.cpp:148] Top shape: 10 1024 7 7 (501760)
I0727 20:33:56.250020  5105 net.cpp:156] Memory required for data: 551371520
I0727 20:33:56.250025  5105 layer_factory.hpp:77] Creating layer pool5/7x7_s1
I0727 20:33:56.250036  5105 net.cpp:91] Creating Layer pool5/7x7_s1
I0727 20:33:56.250041  5105 net.cpp:425] pool5/7x7_s1 <- inception_5b/output
I0727 20:33:56.250051  5105 net.cpp:399] pool5/7x7_s1 -> pool5/7x7_s1
I0727 20:33:56.250176  5109 net.cpp:141] Setting up inception_5b/relu_5x5_reduce
I0727 20:33:56.250195  5109 net.cpp:148] Top shape: 10 48 7 7 (23520)
I0727 20:33:56.250205  5109 net.cpp:156] Memory required for data: 546730240
I0727 20:33:56.250213  5109 layer_factory.hpp:77] Creating layer inception_5b/5x5
I0727 20:33:56.250243  5109 net.cpp:91] Creating Layer inception_5b/5x5
I0727 20:33:56.250257  5109 net.cpp:425] inception_5b/5x5 <- inception_5b/5x5_reduce
I0727 20:33:56.250280  5109 net.cpp:399] inception_5b/5x5 -> inception_5b/5x5
I0727 20:33:56.250501  5105 net.cpp:141] Setting up pool5/7x7_s1
I0727 20:33:56.250514  5105 net.cpp:148] Top shape: 10 1024 1 1 (10240)
I0727 20:33:56.250517  5105 net.cpp:156] Memory required for data: 551412480
I0727 20:33:56.250522  5105 layer_factory.hpp:77] Creating layer pool5/drop_7x7_s1
I0727 20:33:56.250540  5105 net.cpp:91] Creating Layer pool5/drop_7x7_s1
I0727 20:33:56.250546  5105 net.cpp:425] pool5/drop_7x7_s1 <- pool5/7x7_s1
I0727 20:33:56.250552  5105 net.cpp:386] pool5/drop_7x7_s1 -> pool5/7x7_s1 (in-place)
I0727 20:33:56.250699  5105 net.cpp:141] Setting up pool5/drop_7x7_s1
I0727 20:33:56.250712  5105 net.cpp:148] Top shape: 10 1024 1 1 (10240)
I0727 20:33:56.250717  5105 net.cpp:156] Memory required for data: 551453440
I0727 20:33:56.250722  5105 layer_factory.hpp:77] Creating layer loss3/classifier
I0727 20:33:56.250738  5105 net.cpp:91] Creating Layer loss3/classifier
I0727 20:33:56.250744  5105 net.cpp:425] loss3/classifier <- pool5/7x7_s1
I0727 20:33:56.250754  5105 net.cpp:399] loss3/classifier -> loss3/classifier
I0727 20:33:56.259296  5109 net.cpp:141] Setting up inception_5b/5x5
I0727 20:33:56.259341  5109 net.cpp:148] Top shape: 10 128 7 7 (62720)
I0727 20:33:56.259351  5109 net.cpp:156] Memory required for data: 546981120
I0727 20:33:56.259371  5109 layer_factory.hpp:77] Creating layer inception_5b/relu_5x5
I0727 20:33:56.259395  5109 net.cpp:91] Creating Layer inception_5b/relu_5x5
I0727 20:33:56.259409  5109 net.cpp:425] inception_5b/relu_5x5 <- inception_5b/5x5
I0727 20:33:56.259425  5109 net.cpp:386] inception_5b/relu_5x5 -> inception_5b/5x5 (in-place)
I0727 20:33:56.259858  5109 net.cpp:141] Setting up inception_5b/relu_5x5
I0727 20:33:56.259877  5109 net.cpp:148] Top shape: 10 128 7 7 (62720)
I0727 20:33:56.259886  5109 net.cpp:156] Memory required for data: 547232000
I0727 20:33:56.259896  5109 layer_factory.hpp:77] Creating layer inception_5b/pool
I0727 20:33:56.259919  5109 net.cpp:91] Creating Layer inception_5b/pool
I0727 20:33:56.259933  5109 net.cpp:425] inception_5b/pool <- inception_5a/output_inception_5a/output_0_split_3
I0727 20:33:56.259953  5109 net.cpp:399] inception_5b/pool -> inception_5b/pool
I0727 20:33:56.260180  5109 net.cpp:141] Setting up inception_5b/pool
I0727 20:33:56.260198  5109 net.cpp:148] Top shape: 10 832 7 7 (407680)
I0727 20:33:56.260206  5109 net.cpp:156] Memory required for data: 548862720
I0727 20:33:56.260215  5109 layer_factory.hpp:77] Creating layer inception_5b/pool_proj
I0727 20:33:56.260251  5109 net.cpp:91] Creating Layer inception_5b/pool_proj
I0727 20:33:56.260264  5109 net.cpp:425] inception_5b/pool_proj <- inception_5b/pool
I0727 20:33:56.260282  5109 net.cpp:399] inception_5b/pool_proj -> inception_5b/pool_proj
I0727 20:33:56.263589  5105 net.cpp:141] Setting up loss3/classifier
I0727 20:33:56.263617  5105 net.cpp:148] Top shape: 10 1000 (10000)
I0727 20:33:56.263622  5105 net.cpp:156] Memory required for data: 551493440
I0727 20:33:56.263634  5105 layer_factory.hpp:77] Creating layer prob
I0727 20:33:56.263648  5105 net.cpp:91] Creating Layer prob
I0727 20:33:56.263655  5105 net.cpp:425] prob <- loss3/classifier
I0727 20:33:56.263664  5105 net.cpp:399] prob -> prob
I0727 20:33:56.265698  5105 net.cpp:141] Setting up prob
I0727 20:33:56.265718  5105 net.cpp:148] Top shape: 10 1000 (10000)
I0727 20:33:56.265723  5105 net.cpp:156] Memory required for data: 551533440
I0727 20:33:56.265729  5105 net.cpp:219] prob does not need backward computation.
I0727 20:33:56.265734  5105 net.cpp:219] loss3/classifier does not need backward computation.
I0727 20:33:56.265739  5105 net.cpp:219] pool5/drop_7x7_s1 does not need backward computation.
I0727 20:33:56.265743  5105 net.cpp:219] pool5/7x7_s1 does not need backward computation.
…
I0727 20:33:56.266460  5105 net.cpp:219] pool1/3x3_s2 does not need backward computation.
I0727 20:33:56.266465  5105 net.cpp:219] conv1/relu_7x7 does not need backward computation.
I0727 20:33:56.266469  5105 net.cpp:219] conv1/7x7_s2 does not need backward computation.
I0727 20:33:56.266474  5105 net.cpp:219] data does not need backward computation.
I0727 20:33:56.266479  5105 net.cpp:261] This network produces output prob
I0727 20:33:56.266607  5105 net.cpp:274] Network initialization done.
I0727 20:33:56.268160  5109 net.cpp:141] Setting up inception_5b/pool_proj
I0727 20:33:56.268198  5109 net.cpp:148] Top shape: 10 128 7 7 (62720)
I0727 20:33:56.268210  5109 net.cpp:156] Memory required for data: 549113600
I0727 20:33:56.268232  5109 layer_factory.hpp:77] Creating layer inception_5b/relu_pool_proj
I0727 20:33:56.268255  5109 net.cpp:91] Creating Layer inception_5b/relu_pool_proj
I0727 20:33:56.268271  5109 net.cpp:425] inception_5b/relu_pool_proj <- inception_5b/pool_proj
I0727 20:33:56.268288  5109 net.cpp:386] inception_5b/relu_pool_proj -> inception_5b/pool_proj (in-place)
I0727 20:33:56.270723  5109 net.cpp:141] Setting up inception_5b/relu_pool_proj
I0727 20:33:56.270757  5109 net.cpp:148] Top shape: 10 128 7 7 (62720)
I0727 20:33:56.270768  5109 net.cpp:156] Memory required for data: 549364480
I0727 20:33:56.270781  5109 layer_factory.hpp:77] Creating layer inception_5b/output
I0727 20:33:56.270800  5109 net.cpp:91] Creating Layer inception_5b/output
I0727 20:33:56.270814  5109 net.cpp:425] inception_5b/output <- inception_5b/1x1
I0727 20:33:56.270830  5109 net.cpp:425] inception_5b/output <- inception_5b/3x3
I0727 20:33:56.270843  5109 net.cpp:425] inception_5b/output <- inception_5b/5x5
I0727 20:33:56.270855  5109 net.cpp:425] inception_5b/output <- inception_5b/pool_proj
I0727 20:33:56.270870  5109 net.cpp:399] inception_5b/output -> inception_5b/output
I0727 20:33:56.271057  5109 net.cpp:141] Setting up inception_5b/output
I0727 20:33:56.271075  5109 net.cpp:148] Top shape: 10 1024 7 7 (501760)
I0727 20:33:56.271085  5109 net.cpp:156] Memory required for data: 551371520
I0727 20:33:56.271093  5109 layer_factory.hpp:77] Creating layer pool5/7x7_s1
I0727 20:33:56.271111  5109 net.cpp:91] Creating Layer pool5/7x7_s1
I0727 20:33:56.271121  5109 net.cpp:425] pool5/7x7_s1 <- inception_5b/output
I0727 20:33:56.271142  5109 net.cpp:399] pool5/7x7_s1 -> pool5/7x7_s1
I0727 20:33:56.271699  5109 net.cpp:141] Setting up pool5/7x7_s1
I0727 20:33:56.271718  5109 net.cpp:148] Top shape: 10 1024 1 1 (10240)
I0727 20:33:56.271728  5109 net.cpp:156] Memory required for data: 551412480
I0727 20:33:56.271736  5109 layer_factory.hpp:77] Creating layer pool5/drop_7x7_s1
I0727 20:33:56.271757  5109 net.cpp:91] Creating Layer pool5/drop_7x7_s1
I0727 20:33:56.271770  5109 net.cpp:425] pool5/drop_7x7_s1 <- pool5/7x7_s1
I0727 20:33:56.271781  5109 net.cpp:386] pool5/drop_7x7_s1 -> pool5/7x7_s1 (in-place)
I0727 20:33:56.271899  5109 net.cpp:141] Setting up pool5/drop_7x7_s1
I0727 20:33:56.271917  5109 net.cpp:148] Top shape: 10 1024 1 1 (10240)
I0727 20:33:56.271930  5109 net.cpp:156] Memory required for data: 551453440
I0727 20:33:56.271939  5109 layer_factory.hpp:77] Creating layer loss3/classifier
I0727 20:33:56.271960  5109 net.cpp:91] Creating Layer loss3/classifier
I0727 20:33:56.271972  5109 net.cpp:425] loss3/classifier <- pool5/7x7_s1
I0727 20:33:56.271993  5109 net.cpp:399] loss3/classifier -> loss3/classifier
I0727 20:33:56.287624  5109 net.cpp:141] Setting up loss3/classifier
I0727 20:33:56.287673  5109 net.cpp:148] Top shape: 10 1000 (10000)
I0727 20:33:56.287683  5109 net.cpp:156] Memory required for data: 551493440
I0727 20:33:56.287703  5109 layer_factory.hpp:77] Creating layer prob
I0727 20:33:56.287724  5109 net.cpp:91] Creating Layer prob
I0727 20:33:56.287736  5109 net.cpp:425] prob <- loss3/classifier
I0727 20:33:56.287755  5109 net.cpp:399] prob -> prob
I0727 20:33:56.290082  5109 net.cpp:141] Setting up prob
I0727 20:33:56.290108  5109 net.cpp:148] Top shape: 10 1000 (10000)
I0727 20:33:56.290118  5109 net.cpp:156] Memory required for data: 551533440
I0727 20:33:56.290129  5109 net.cpp:219] prob does not need backward computation.
I0727 20:33:56.290138  5109 net.cpp:219] loss3/classifier does not need backward computation.
I0727 20:33:56.290148  5109 net.cpp:219] pool5/drop_7x7_s1 does not need backward computation.
I0727 20:33:56.290158  5109 net.cpp:219] pool5/7x7_s1 does not need backward computation.
…
