…
Java HotSpot(TM) 64-Bit Server VM warning: You have loaded library /home/peifeng/work/run/storm102/data/workers/7dd3d4ee-309a-43a2-bc5b-d7673abbe409/tmp/cvld6231258101624464945/libopencv_java310.xine1.so which might have disabled stack guard. The VM will try to fix the stack guard now.
It's highly recommended that you fix the library with 'execstack -c <libfile>', or link it with '-z noexecstack'.
WARNING: Logging before InitGoogleLogging() is written to STDERR
I0924 01:04:20.277935 31866 net.cpp:49] Initializing net from parameters: 
name: "GoogleNet"
state {
  phase: TEST
}
layer {
  name: "data"
  type: "Input"
  top: "data"
  input_param {
    shape {
      dim: 10
      dim: 3
      dim: 224
      dim: 224
    }
  }
}
layer {
  name: "conv1/7x7_s2"
  type: "Convolution"
  bottom: "data"
  top: "conv1/7x7_s2"
  param {
    lr_mult: 1
    decay_mult: 1
  }
  param {
    lr_mult: 2
    decay_mult: 0
  }
  convolution_param {
    num_output: 64
    pad: 3
    kernel_size: 7
    stride: 2
    weight_filler {
      type: "xavier"
      std: 0.1
    }
    bias_filler {
      type: "constant"
      value: 0.2
    }
  }
}
layer {
  name: "conv1/relu_7x7"
  type: "ReLU"
  bottom: "conv1/7x7_s2"
  top: "conv1/7x7_s2"
}
layer {
  name: "pool1/3x3_s2"
  type: "Pooling"
  bottom: "conv1/7x7_s2"
  top: "pool1/3x3_s2"
  pooling_param {
    pool: MAX
    kernel_size: 3
    stride: 2
  }
}
layer {
  name: "pool1/norm1"
  type: "LRN"
  bottom: "pool1/3x3_s2"
  top: "pool1/norm1"
  lrn_param {
    local_size: 5
    alpha: 0.0001
    beta: 0.75
  }
}
layer {
  name: "conv2/3x3_reduce"
  type: "Convolution"
  bottom: "pool1/norm1"
  top: "conv2/3x3_reduce"
  param {
    lr_mult: 1
    decay_mult: 1
  }
  param {
    lr_mult: 2
    decay_mult: 0
  }
  convolution_param {
    num_output: 64
    kernel_size: 1
    weight_filler {
      type: "xavier"
      std: 0.1
    }
    bias_filler {
      type: "constant"
      value: 0.2
    }
  }
}
layer {
  name: "conv2/relu_3x3_reduce"
  type: "ReLU"
  bottom: "conv2/3x3_reduce"
  top: "conv2/3x3_reduce"
}
layer {
  name: "conv2/3x3"
  type: "Convolution"
  bottom: "conv2/3x3_reduce"
  top: "conv2/3x3"
  param {
    lr_mult: 1
    decay_mult: 1
  }
  param {
    lr_mult: 2
    decay_mult: 0
  }
  convolution_param {
    num_output: 192
    pad: 1
    kernel_size: 3
    weight_filler {
      type: "xavier"
      std: 0.03
    }
    bias_filler {
      type: "constant"
      value: 0.2
    }
  }
}
layer {
  name: "conv2/relu_3x3"
  type: "ReLU"
  bottom: "conv2/3x3"
  top: "conv2/3x3"
}
layer {
  name: "conv2/norm2"
  type: "LRN"
  bottom: "conv2/3x3"
  top: "conv2/norm2"
  lrn_param {
    local_size: 5
    alpha: 0.0001
    beta: 0.75
  }
}
layer {
  name: "pool2/3x3_s2"
  type: "Pooling"
  bottom: "conv2/norm2"
  top: "pool2/3x3_s2"
  pooling_param {
    pool: MAX
    kernel_size: 3
    stride: 2
  }
}
layer {
  name: "inception_3a/1x1"
  type: "Convolution"
  bottom: "pool2/3x3_s2"
  top: "inception_3a/1x1"
  param {
    lr_mult: 1
    decay_mult: 1
  }
  param {
    lr_mult: 2
    decay_mult: 0
  }
  convolution_param {
    num_output: 64
    kernel_size: 1
    weight_filler {
      type: "xavier"
      std: 0.03
    }
    bias_filler {
      type: "constant"
      value: 0.2
    }
  }
}
layer {
  name: "inception_3a/relu_1x1"
  type: "ReLU"
  bottom: "inception_3a/1x1"
  top: "inception_3a/1x1"
}
layer {
  name: "inception_3a/3x3_reduce"
  type: "Convolution"
  bottom: "pool2/3x3_s2"
  top: "inception_3a/3x3_reduce"
  param {
    lr_mult: 1
    decay_mult: 1
  }
  param {
    lr_mult: 2
    decay_mult: 0
  }
  convolution_param {
    num_output: 96
    kernel_size: 1
    weight_filler {
      type: "xavier"
      std: 0.09
    }
    bias_filler {
      type: "constant"
      value: 0.2
    }
  }
}
layer {
  name: "inception_3a/relu_3x3_reduce"
  type: "ReLU"
  bottom: "inception_3a/3x3_reduce"
  top: "inception_3a/3x3_reduce"
}
layer {
  name: "inception_3a/3x3"
  type: "Convolution"
  bottom: "inception_3a/3x3_reduce"
  top: "inception_3a/3x3"
  param {
    lr_mult: 1
    decay_mult: 1
  }
  param {
    lr_mult: 2
    decay_mult: 0
  }
  convolution_param {
    num_output: 128
    pad: 1
    kernel_size: 3
    weight_filler {
      type: "xavier"
      std: 0.03
    }
    bias_filler {
      type: "constant"
      value: 0.2
    }
  }
}
layer {
  name: "inception_3a/relu_3x3"
  type: "ReLU"
  bottom: "inception_3a/3x3"
  top: "inception_3a/3x3"
}
layer {
  name: "inception_3a/5x5_reduce"
  type: "Convolution"
  bottom: "pool2/3x3_s2"
  top: "inception_3a/5x5_reduce"
  param {
    lr_mult: 1
    decay_mult: 1
  }
  param {
    lr_mult: 2
    decay_mult: 0
  }
  convolution_param {
    num_output: 16
    kernel_size: 1
    weight_filler {
      type: "xavier"
      std: 0.2
    }
    bias_filler {
      type: "constant"
      value: 0.2
    }
  }
}
layer {
  name: "inception_3a/relu_5x5_reduce"
  type: "ReLU"
  bottom: "inception_3a/5x5_reduce"
  top: "inception_3a/5x5_reduce"
}
layer {
  name: "inception_3a/5x5"
  type: "Convolution"
  bottom: "inception_3a/5x5_reduce"
  top: "inception_3a/5x5"
  param {
    lr_mult: 1
    decay_mult: 1
  }
  param {
    lr_mult: 2
    decay_mult: 0
  }
  convolution_param {
    num_output: 32
    pad: 2
    kernel_size: 5
    weight_filler {
      type: "xavier"
      std: 0.03
    }
    bias_filler {
      type: "constant"
      value: 0.2
    }
  }
}
layer {
  name: "inception_3a/relu_5x5"
  type: "ReLU"
  bottom: "inception_3a/5x5"
  top: "inception_3a/5x5"
}
layer {
  name: "inception_3a/pool"
  type: "Pooling"
  bottom: "pool2/3x3_s2"
  top: "inception_3a/pool"
  pooling_param {
    pool: MAX
    kernel_size: 3
    stride: 1
    pad: 1
  }
}
layer {
  name: "inception_3a/pool_proj"
  type: "Convolution"
  bottom: "inception_3a/pool"
  top: "inception_3a/pool_proj"
  param {
    lr_mult: 1
    decay_mult: 1
  }
  param {
    lr_mult: 2
    decay_mult: 0
  }
  convolution_param {
    num_output: 32
    kernel_size: 1
    weight_filler {
      type: "xavier"
      std: 0.1
    }
    bias_filler {
      type: "constant"
      value: 0.2
    }
  }
}
layer {
  name: "inception_3a/relu_pool_proj"
  type: "ReLU"
  bottom: "inception_3a/pool_proj"
  top: "inception_3a/pool_proj"
}
layer {
  name: "inception_3a/output"
  type: "Concat"
  bottom: "inception_3a/1x1"
  bottom: "inception_3a/3x3"
  bottom: "inception_3a/5x5"
  bottom: "inception_3a/pool_proj"
  top: "inception_3a/output"
}
layer {
  name: "inception_3b/1x1"
  type: "Convolution"
  bottom: "inception_3a/output"
  top: "inception_3b/1x1"
  param {
    lr_mult: 1
    decay_mult: 1
  }
  param {
    lr_mult: 2
    decay_mult: 0
  }
  convolution_param {
    num_output: 128
    kernel_size: 1
    weight_filler {
      type: "xavier"
      std: 0.03
    }
    bias_filler {
      type: "constant"
      value: 0.2
    }
  }
}
layer {
  name: "inception_3b/relu_1x1"
  type: "ReLU"
  bottom: "inception_3b/1x1"
  top: "inception_3b/1x1"
}
layer {
  name: "inception_3b/3x3_reduce"
  type: "Convolution"
  bottom: "inception_3a/output"
  top: "inception_3b/3x3_reduce"
  param {
    lr_mult: 1
    decay_mult: 1
  }
  param {
    lr_mult: 2
    decay_mult: 0
  }
  convolution_param {
    num_output: 128
    kernel_size: 1
    weight_filler {
      type: "xavier"
      std: 0.09
    }
    bias_filler {
      type: "constant"
      value: 0.2
    }
  }
}
layer {
  name: "inception_3b/relu_3x3_reduce"
  type: "ReLU"
  bottom: "inception_3b/3x3_reduce"
  top: "inception_3b/3x3_reduce"
}
layer {
  name: "inception_3b/3x3"
  type: "Convolution"
  bottom: "inception_3b/3x3_reduce"
  top: "inception_3b/3x3"
  param {
    lr_mult: 1
    decay_mult: 1
  }
  param {
    lr_mult: 2
    decay_mult: 0
  }
  convolution_param {
    num_output: 192
    pad: 1
    kernel_size: 3
    weight_filler {
      type: "xavier"
      std: 0.03
    }
    bias_filler {
      type: "constant"
      value: 0.2
    }
  }
}
layer {
  name: "inception_3b/relu_3x3"
  type: "ReLU"
  bottom: "inception_3b/3x3"
  top: "inception_3b/3x3"
}
layer {
  name: "inception_3b/5x5_reduce"
  type: "Convolution"
  bottom: "inception_3a/output"
  top: "inception_3b/5x5_reduce"
  param {
    lr_mult: 1
    decay_mult: 1
  }
  param {
    lr_mult: 2
    decay_mult: 0
  }
  convolution_param {
    num_output: 32
    kernel_size: 1
    weight_filler {
      type: "xavier"
      std: 0.2
    }
    bias_filler {
      type: "constant"
      value: 0.2
    }
  }
}
layer {
  name: "inception_3b/relu_5x5_reduce"
  type: "ReLU"
  bottom: "inception_3b/5x5_reduce"
  top: "inception_3b/5x5_reduce"
}
layer {
  name: "inception_3b/5x5"
  type: "Convolution"
  bottom: "inception_3b/5x5_reduce"
  top: "inception_3b/5x5"
  param {
    lr_mult: 1
    decay_mult: 1
  }
  param {
    lr_mult: 2
    decay_mult: 0
  }
  convolution_param {
    num_output: 96
    pad: 2
    kernel_size: 5
    weight_filler {
      type: "xavier"
      std: 0.03
    }
    bias_filler {
      type: "constant"
      value: 0.2
    }
  }
}
layer {
  name: "inception_3b/relu_5x5"
  type: "ReLU"
  bottom: "inception_3b/5x5"
  top: "inception_3b/5x5"
}
layer {
  name: "inception_3b/pool"
  type: "Pooling"
  bottom: "inception_3a/output"
  top: "inception_3b/pool"
  pooling_param {
    pool: MAX
    kernel_size: 3
    stride: 1
    pad: 1
  }
}
layer {
  name: "inception_3b/pool_proj"
  type: "Convolution"
  bottom: "inception_3b/pool"
  top: "inception_3b/pool_proj"
  param {
    lr_mult: 1
    decay_mult: 1
  }
  param {
    lr_mult: 2
    decay_mult: 0
  }
  convolution_param {
    num_output: 64
    kernel_size: 1
    weight_filler {
      type: "xavier"
      std: 0.1
    }
    bias_filler {
      type: "constant"
      value: 0.2
    }
  }
}
layer {
  name: "inception_3b/relu_pool_proj"
  type: "ReLU"
  bottom: "inception_3b/pool_proj"
  top: "inception_3b/pool_proj"
}
layer {
  name: "inception_3b/output"
  type: "Concat"
  bottom: "inception_3b/1x1"
  bottom: "inception_3b/3x3"
  bottom: "inception_3b/5x5"
  bottom: "inception_3b/pool_proj"
  top: "inception_3b/output"
}
layer {
  name: "pool3/3x3_s2"
  type: "Pooling"
  bottom: "inception_3b/output"
  top: "pool3/3x3_s2"
  pooling_param {
    pool: MAX
    kernel_size: 3
    stride: 2
  }
}
layer {
  name: "inception_4a/1x1"
  type: "Convolution"
  bottom: "pool3/3x3_s2"
  top: "inception_4a/1x1"
  param {
    lr_mult: 1
    decay_mult: 1
  }
  param {
    lr_mult: 2
    decay_mult: 0
  }
  convolution_param {
    num_output: 192
    kernel_size: 1
    weight_filler {
      type: "xavier"
      std: 0.03
    }
    bias_filler {
      type: "constant"
      value: 0.2
    }
  }
}
layer {
  name: "inception_4a/relu_1x1"
  type: "ReLU"
  bottom: "inception_4a/1x1"
  top: "inception_4a/1x1"
}
layer {
  name: "inception_4a/3x3_reduce"
  type: "Convolution"
  bottom: "pool3/3x3_s2"
  top: "inception_4a/3x3_reduce"
  param {
    lr_mult: 1
    decay_mult: 1
  }
  param {
    lr_mult: 2
    decay_mult: 0
  }
  convolution_param {
    num_output: 96
    kernel_size: 1
    weight_filler {
      type: "xavier"
      std: 0.09
    }
    bias_filler {
      type: "constant"
      value: 0.2
    }
  }
}
layer {
  name: "inception_4a/relu_3x3_reduce"
  type: "ReLU"
  bottom: "inception_4a/3x3_reduce"
  top: "inception_4a/3x3_reduce"
}
layer {
  name: "inception_4a/3x3"
  type: "Convolution"
  bottom: "inception_4a/3x3_reduce"
  top: "inception_4a/3x3"
  param {
    lr_mult: 1
    decay_mult: 1
  }
  param {
    lr_mult: 2
    decay_mult: 0
  }
  convolution_param {
    num_output: 208
    pad: 1
    kernel_size: 3
    weight_filler {
      type: "xavier"
      std: 0.03
    }
    bias_filler {
      type: "constant"
      value: 0.2
    }
  }
}
layer {
  name: "inception_4a/relu_3x3"
  type: "ReLU"
  bottom: "inception_4a/3x3"
  top: "inception_4a/3x3"
}
layer {
  name: "inception_4a/5x5_reduce"
  type: "Convolution"
  bottom: "pool3/3x3_s2"
  top: "inception_4a/5x5_reduce"
  param {
    lr_mult: 1
    decay_mult: 1
  }
  param {
    lr_mult: 2
    decay_mult: 0
  }
  convolution_param {
    num_output: 16
    kernel_size: 1
    weight_filler {
      type: "xavier"
      std: 0.2
    }
    bias_filler {
      type: "constant"
      value: 0.2
    }
  }
}
layer {
  name: "inception_4a/relu_5x5_reduce"
  type: "ReLU"
  bottom: "inception_4a/5x5_reduce"
  top: "inception_4a/5x5_reduce"
}
layer {
  name: "inception_4a/5x5"
  type: "Convolution"
  bottom: "inception_4a/5x5_reduce"
  top: "inception_4a/5x5"
  param {
    lr_mult: 1
    decay_mult: 1
  }
  param {
    lr_mult: 2
    decay_mult: 0
  }
  convolution_param {
    num_output: 48
    pad: 2
    kernel_size: 5
    weight_filler {
      type: "xavier"
      std: 0.03
    }
    bias_filler {
      type: "constant"
      value: 0.2
    }
  }
}
layer {
  name: "inception_4a/relu_5x5"
  type: "ReLU"
  bottom: "inception_4a/5x5"
  top: "inception_4a/5x5"
}
layer {
  name: "inception_4a/pool"
  type: "Pooling"
  bottom: "pool3/3x3_s2"
  top: "inception_4a/pool"
  pooling_param {
    pool: MAX
    kernel_size: 3
    stride: 1
    pad: 1
  }
}
layer {
  name: "inception_4a/pool_proj"
  type: "Convolution"
  bottom: "inception_4a/pool"
  top: "inception_4a/pool_proj"
  param {
    lr_mult: 1
    decay_mult: 1
  }
  param {
    lr_mult: 2
    decay_mult: 0
  }
  convolution_param {
    num_output: 64
    kernel_size: 1
    weight_filler {
      type: "xavier"
      std: 0.1
    }
    bias_filler {
      type: "constant"
      value: 0.2
    }
  }
}
layer {
  name: "inception_4a/relu_pool_proj"
  type: "ReLU"
  bottom: "inception_4a/pool_proj"
  top: "inception_4a/pool_proj"
}
layer {
  name: "inception_4a/output"
  type: "Concat"
  bottom: "inception_4a/1x1"
  bottom: "inception_4a/3x3"
  bottom: "inception_4a/5x5"
  bottom: "inception_4a/pool_proj"
  top: "inception_4a/output"
}
layer {
  name: "inception_4b/1x1"
  type: "Convolution"
  bottom: "inception_4a/output"
  top: "inception_4b/1x1"
  param {
    lr_mult: 1
    decay_mult: 1
  }
  param {
    lr_mult: 2
    decay_mult: 0
  }
  convolution_param {
    num_output: 160
    kernel_size: 1
    weight_filler {
      type: "xavier"
      std: 0.03
    }
    bias_filler {
      type: "constant"
      value: 0.2
    }
  }
}
layer {
  name: "inception_4b/relu_1x1"
  type: "ReLU"
  bottom: "inception_4b/1x1"
  top: "inception_4b/1x1"
}
layer {
  name: "inception_4b/3x3_reduce"
  type: "Convolution"
  bottom: "inception_4a/output"
  top: "inception_4b/3x3_reduce"
  param {
    lr_mult: 1
    decay_mult: 1
  }
  param {
    lr_mult: 2
    decay_mult: 0
  }
  convolution_param {
    num_output: 112
    kernel_size: 1
    weight_filler {
      type: "xavier"
      std: 0.09
    }
    bias_filler {
      type: "constant"
      value: 0.2
    }
  }
}
layer {
  name: "inception_4b/relu_3x3_reduce"
  type: "ReLU"
  bottom: "inception_4b/3x3_reduce"
  top: "inception_4b/3x3_reduce"
}
layer {
  name: "inception_4b/3x3"
  type: "Convolution"
  bottom: "inception_4b/3x3_reduce"
  top: "inception_4b/3x3"
  param {
    lr_mult: 1
    decay_mult: 1
  }
  param {
    lr_mult: 2
    decay_mult: 0
  }
  convolution_param {
    num_output: 224
    pad: 1
    kernel_size: 3
    weight_filler {
      type: "xavier"
      std: 0.03
    }
    bias_filler {
      type: "constant"
      value: 0.2
    }
  }
}
layer {
  name: "inception_4b/relu_3x3"
  type: "ReLU"
  bottom: "inception_4b/3x3"
  top: "inception_4b/3x3"
}
layer {
  name: "inception_4b/5x5_reduce"
  type: "Convolution"
  bottom: "inception_4a/output"
  top: "inception_4b/5x5_reduce"
  param {
    lr_mult: 1
    decay_mult: 1
  }
  param {
    lr_mult: 2
    decay_mult: 0
  }
  convolution_param {
    num_output: 24
    kernel_size: 1
    weight_filler {
      type: "xavier"
      std: 0.2
    }
    bias_filler {
      type: "constant"
      value: 0.2
    }
  }
}
layer {
  name: "inception_4b/relu_5x5_reduce"
  type: "ReLU"
  bottom: "inception_4b/5x5_reduce"
  top: "inception_4b/5x5_reduce"
}
layer {
  name: "inception_4b/5x5"
  type: "Convolution"
  bottom: "inception_4b/5x5_reduce"
  top: "inception_4b/5x5"
  param {
    lr_mult: 1
    decay_mult: 1
  }
  param {
    lr_mult: 2
    decay_mult: 0
  }
  convolution_param {
    num_output: 64
    pad: 2
    kernel_size: 5
    weight_filler {
      type: "xavier"
      std: 0.03
    }
    bias_filler {
      type: "constant"
      value: 0.2
    }
  }
}
layer {
  name: "inception_4b/relu_5x5"
  type: "ReLU"
  bottom: "inception_4b/5x5"
  top: "inception_4b/5x5"
}
layer {
  name: "inception_4b/pool"
  type: "Pooling"
  bottom: "inception_4a/output"
  top: "inception_4b/pool"
  pooling_param {
    pool: MAX
    kernel_size: 3
    stride: 1
    pad: 1
  }
}
layer {
  name: "inception_4b/pool_proj"
  type: "Convolution"
  bottom: "inception_4b/pool"
  top: "inception_4b/pool_proj"
  param {
    lr_mult: 1
    decay_mult: 1
  }
  param {
    lr_mult: 2
    decay_mult: 0
  }
  convolution_param {
    num_output: 64
    kernel_size: 1
    weight_filler {
      type: "xavier"
      std: 0.1
    }
    bias_filler {
      type: "constant"
      value: 0.2
    }
  }
}
layer {
  name: "inception_4b/relu_pool_proj"
  type: "ReLU"
  bottom: "inception_4b/pool_proj"
  top: "inception_4b/pool_proj"
}
layer {
  name: "inception_4b/output"
  type: "Concat"
  bottom: "inception_4b/1x1"
  bottom: "inception_4b/3x3"
  bottom: "inception_4b/5x5"
  bottom: "inception_4b/pool_proj"
  top: "inception_4b/output"
}
layer {
  name: "inception_4c/1x1"
  type: "Convolution"
  bottom: "inception_4b/output"
  top: "inception_4c/1x1"
  param {
    lr_mult: 1
    decay_mult: 1
  }
  param {
    lr_mult: 2
    decay_mult: 0
  }
  convolution_param {
    num_output: 128
    kernel_size: 1
    weight_filler {
      type: "xavier"
      std: 0.03
    }
    bias_filler {
      type: "constant"
      value: 0.2
    }
  }
}
layer {
  name: "inception_4c/relu_1x1"
  type: "ReLU"
  bottom: "inception_4c/1x1"
  top: "inception_4c/1x1"
}
layer {
  name: "inception_4c/3x3_reduce"
  type: "Convolution"
  bottom: "inception_4b/output"
  top: "inception_4c/3x3_reduce"
  param {
    lr_mult: 1
    decay_mult: 1
  }
  param {
    lr_mult: 2
    decay_mult: 0
  }
  convolution_param {
    num_output: 128
    kernel_size: 1
    weight_filler {
      type: "xavier"
      std: 0.09
    }
    bias_filler {
      type: "constant"
      value: 0.2
    }
  }
}
layer {
  name: "inception_4c/relu_3x3_reduce"
  type: "ReLU"
  bottom: "inception_4c/3x3_reduce"
  top: "inception_4c/3x3_reduce"
}
layer {
  name: "inception_4c/3x3"
  type: "Convolution"
  bottom: "inception_4c/3x3_reduce"
  top: "inception_4c/3x3"
  param {
    lr_mult: 1
    decay_mult: 1
  }
  param {
    lr_mult: 2
    decay_mult: 0
  }
  convolution_param {
    num_output: 256
    pad: 1
    kernel_size: 3
    weight_filler {
      type: "xavier"
      std: 0.03
    }
    bias_filler {
      type: "constant"
      value: 0.2
    }
  }
}
layer {
  name: "inception_4c/relu_3x3"
  type: "ReLU"
  bottom: "inception_4c/3x3"
  top: "inception_4c/3x3"
}
layer {
  name: "inception_4c/5x5_reduce"
  type: "Convolution"
  bottom: "inception_4b/output"
  top: "inception_4c/5x5_reduce"
  param {
    lr_mult: 1
    decay_mult: 1
  }
  param {
    lr_mult: 2
    decay_mult: 0
  }
  convolution_param {
    num_output: 24
    kernel_size: 1
    weight_filler {
      type: "xavier"
      std: 0.2
    }
    bias_filler {
      type: "constant"
      value: 0.2
    }
  }
}
layer {
  name: "inception_4c/relu_5x5_reduce"
  type: "ReLU"
  bottom: "inception_4c/5x5_reduce"
  top: "inception_4c/5x5_reduce"
}
layer {
  name: "inception_4c/5x5"
  type: "Convolution"
  bottom: "inception_4c/5x5_reduce"
  top: "inception_4c/5x5"
  param {
    lr_mult: 1
    decay_mult: 1
  }
  param {
    lr_mult: 2
    decay_mult: 0
  }
  convolution_param {
    num_output: 64
    pad: 2
    kernel_size: 5
    weight_filler {
      type: "xavier"
      std: 0.03
    }
    bias_filler {
      type: "constant"
      value: 0.2
    }
  }
}
layer {
  name: "inception_4c/relu_5x5"
  type: "ReLU"
  bottom: "inception_4c/5x5"
  top: "inception_4c/5x5"
}
layer {
  name: "inception_4c/pool"
  type: "Pooling"
  bottom: "inception_4b/output"
  top: "inception_4c/pool"
  pooling_param {
    pool: MAX
    kernel_size: 3
    stride: 1
    pad: 1
  }
}
layer {
  name: "inception_4c/pool_proj"
  type: "Convolution"
  bottom: "inception_4c/pool"
  top: "inception_4c/pool_proj"
  param {
    lr_mult: 1
    decay_mult: 1
  }
  param {
    lr_mult: 2
    decay_mult: 0
  }
  convolution_param {
    num_output: 64
    kernel_size: 1
    weight_filler {
      type: "xavier"
      std: 0.1
    }
    bias_filler {
      type: "constant"
      value: 0.2
    }
  }
}
layer {
  name: "inception_4c/relu_pool_proj"
  type: "ReLU"
  bottom: "inception_4c/pool_proj"
  top: "inception_4c/pool_proj"
}
layer {
  name: "inception_4c/output"
  type: "Concat"
  bottom: "inception_4c/1x1"
  bottom: "inception_4c/3x3"
  bottom: "inception_4c/5x5"
  bottom: "inception_4c/pool_proj"
  top: "inception_4c/output"
}
layer {
  name: "inception_4d/1x1"
  type: "Convolution"
  bottom: "inception_4c/output"
  top: "inception_4d/1x1"
  param {
    lr_mult: 1
    decay_mult: 1
  }
  param {
    lr_mult: 2
    decay_mult: 0
  }
  convolution_param {
    num_output: 112
    kernel_size: 1
    weight_filler {
      type: "xavier"
      std: 0.03
    }
    bias_filler {
      type: "constant"
      value: 0.2
    }
  }
}
layer {
  name: "inception_4d/relu_1x1"
  type: "ReLU"
  bottom: "inception_4d/1x1"
  top: "inception_4d/1x1"
}
layer {
  name: "inception_4d/3x3_reduce"
  type: "Convolution"
  bottom: "inception_4c/output"
  top: "inception_4d/3x3_reduce"
  param {
    lr_mult: 1
    decay_mult: 1
  }
  param {
    lr_mult: 2
    decay_mult: 0
  }
  convolution_param {
    num_output: 144
    kernel_size: 1
    weight_filler {
      type: "xavier"
      std: 0.09
    }
    bias_filler {
      type: "constant"
      value: 0.2
    }
  }
}
layer {
  name: "inception_4d/relu_3x3_reduce"
  type: "ReLU"
  bottom: "inception_4d/3x3_reduce"
  top: "inception_4d/3x3_reduce"
}
layer {
  name: "inception_4d/3x3"
  type: "Convolution"
  bottom: "inception_4d/3x3_reduce"
  top: "inception_4d/3x3"
  param {
    lr_mult: 1
    decay_mult: 1
  }
  param {
    lr_mult: 2
    decay_mult: 0
  }
  convolution_param {
    num_output: 288
    pad: 1
    kernel_size: 3
    weight_filler {
      type: "xavier"
      std: 0.03
    }
    bias_filler {
      type: "constant"
      value: 0.2
    }
  }
}
layer {
  name: "inception_4d/relu_3x3"
  type: "ReLU"
  bottom: "inception_4d/3x3"
  top: "inception_4d/3x3"
}
layer {
  name: "inception_4d/5x5_reduce"
  type: "Convolution"
  bottom: "inception_4c/output"
  top: "inception_4d/5x5_reduce"
  param {
    lr_mult: 1
    decay_mult: 1
  }
  param {
    lr_mult: 2
    decay_mult: 0
  }
  convolution_param {
    num_output: 32
    kernel_size: 1
    weight_filler {
      type: "xavier"
      std: 0.2
    }
    bias_filler {
      type: "constant"
      value: 0.2
    }
  }
}
layer {
  name: "inception_4d/relu_5x5_reduce"
  type: "ReLU"
  bottom: "inception_4d/5x5_reduce"
  top: "inception_4d/5x5_reduce"
}
layer {
  name: "inception_4d/5x5"
  type: "Convolution"
  bottom: "inception_4d/5x5_reduce"
  top: "inception_4d/5x5"
  param {
    lr_mult: 1
    decay_mult: 1
  }
  param {
    lr_mult: 2
    decay_mult: 0
  }
  convolution_param {
    num_output: 64
    pad: 2
    kernel_size: 5
    weight_filler {
      type: "xavier"
      std: 0.03
    }
    bias_filler {
      type: "constant"
      value: 0.2
    }
  }
}
layer {
  name: "inception_4d/relu_5x5"
  type: "ReLU"
  bottom: "inception_4d/5x5"
  top: "inception_4d/5x5"
}
layer {
  name: "inception_4d/pool"
  type: "Pooling"
  bottom: "inception_4c/output"
  top: "inception_4d/pool"
  pooling_param {
    pool: MAX
    kernel_size: 3
    stride: 1
    pad: 1
  }
}
layer {
  name: "inception_4d/pool_proj"
  type: "Convolution"
  bottom: "inception_4d/pool"
  top: "inception_4d/pool_proj"
  param {
    lr_mult: 1
    decay_mult: 1
  }
  param {
    lr_mult: 2
    decay_mult: 0
  }
  convolution_param {
    num_output: 64
    kernel_size: 1
    weight_filler {
      type: "xavier"
      std: 0.1
    }
    bias_filler {
      type: "constant"
      value: 0.2
    }
  }
}
layer {
  name: "inception_4d/relu_pool_proj"
  type: "ReLU"
  bottom: "inception_4d/pool_proj"
  top: "inception_4d/pool_proj"
}
layer {
  name: "inception_4d/output"
  type: "Concat"
  bottom: "inception_4d/1x1"
  bottom: "inception_4d/3x3"
  bottom: "inception_4d/5x5"
  bottom: "inception_4d/pool_proj"
  top: "inception_4d/output"
}
layer {
  name: "inception_4e/1x1"
  type: "Convolution"
  bottom: "inception_4d/output"
  top: "inception_4e/1x1"
  param {
    lr_mult: 1
    decay_mult: 1
  }
  param {
    lr_mult: 2
    decay_mult: 0
  }
  convolution_param {
    num_output: 256
    kernel_size: 1
    weight_filler {
      type: "xavier"
      std: 0.03
    }
    bias_filler {
      type: "constant"
      value: 0.2
    }
  }
}
layer {
  name: "inception_4e/relu_1x1"
  type: "ReLU"
  bottom: "inception_4e/1x1"
  top: "inception_4e/1x1"
}
layer {
  name: "inception_4e/3x3_reduce"
  type: "Convolution"
  bottom: "inception_4d/output"
  top: "inception_4e/3x3_reduce"
  param {
    lr_mult: 1
    decay_mult: 1
  }
  param {
    lr_mult: 2
    decay_mult: 0
  }
  convolution_param {
    num_output: 160
    kernel_size: 1
    weight_filler {
      type: "xavier"
      std: 0.09
    }
    bias_filler {
      type: "constant"
      value: 0.2
    }
  }
}
layer {
  name: "inception_4e/relu_3x3_reduce"
  type: "ReLU"
  bottom: "inception_4e/3x3_reduce"
  top: "inception_4e/3x3_reduce"
}
layer {
  name: "inception_4e/3x3"
  type: "Convolution"
  bottom: "inception_4e/3x3_reduce"
  top: "inception_4e/3x3"
  param {
    lr_mult: 1
    decay_mult: 1
  }
  param {
    lr_mult: 2
    decay_mult: 0
  }
  convolution_param {
    num_output: 320
    pad: 1
    kernel_size: 3
    weight_filler {
      type: "xavier"
      std: 0.03
    }
    bias_filler {
      type: "constant"
      value: 0.2
    }
  }
}
layer {
  name: "inception_4e/relu_3x3"
  type: "ReLU"
  bottom: "inception_4e/3x3"
  top: "inception_4e/3x3"
}
layer {
  name: "inception_4e/5x5_reduce"
  type: "Convolution"
  bottom: "inception_4d/output"
  top: "inception_4e/5x5_reduce"
  param {
    lr_mult: 1
    decay_mult: 1
  }
  param {
    lr_mult: 2
    decay_mult: 0
  }
  convolution_param {
    num_output: 32
    kernel_size: 1
    weight_filler {
      type: "xavier"
      std: 0.2
    }
    bias_filler {
      type: "constant"
      value: 0.2
    }
  }
}
layer {
  name: "inception_4e/relu_5x5_reduce"
  type: "ReLU"
  bottom: "inception_4e/5x5_reduce"
  top: "inception_4e/5x5_reduce"
}
layer {
  name: "inception_4e/5x5"
  type: "Convolution"
  bottom: "inception_4e/5x5_reduce"
  top: "inception_4e/5x5"
  param {
    lr_mult: 1
    decay_mult: 1
  }
  param {
    lr_mult: 2
    decay_mult: 0
  }
  convolution_param {
    num_output: 128
    pad: 2
    kernel_size: 5
    weight_filler {
      type: "xavier"
      std: 0.03
    }
    bias_filler {
      type: "constant"
      value: 0.2
    }
  }
}
layer {
  name: "inception_4e/relu_5x5"
  type: "ReLU"
  bottom: "inception_4e/5x5"
  top: "inception_4e/5x5"
}
layer {
  name: "inception_4e/pool"
  type: "Pooling"
  bottom: "inception_4d/output"
  top: "inception_4e/pool"
  pooling_param {
    pool: MAX
    kernel_size: 3
    stride: 1
    pad: 1
  }
}
layer {
  name: "inception_4e/pool_proj"
  type: "Convolution"
  bottom: "inception_4e/pool"
  top: "inception_4e/pool_proj"
  param {
    lr_mult: 1
    decay_mult: 1
  }
  param {
    lr_mult: 2
    decay_mult: 0
  }
  convolution_param {
    num_output: 128
    kernel_size: 1
    weight_filler {
      type: "xavier"
      std: 0.1
    }
    bias_filler {
      type: "constant"
      value: 0.2
    }
  }
}
layer {
  name: "inception_4e/relu_pool_proj"
  type: "ReLU"
  bottom: "inception_4e/pool_proj"
  top: "inception_4e/pool_proj"
}
layer {
  name: "inception_4e/output"
  type: "Concat"
  bottom: "inception_4e/1x1"
  bottom: "inception_4e/3x3"
  bottom: "inception_4e/5x5"
  bottom: "inception_4e/pool_proj"
  top: "inception_4e/output"
}
layer {
  name: "pool4/3x3_s2"
  type: "Pooling"
  bottom: "inception_4e/output"
  top: "pool4/3x3_s2"
  pooling_param {
    pool: MAX
    kernel_size: 3
    stride: 2
  }
}
layer {
  name: "inception_5a/1x1"
  type: "Convolution"
  bottom: "pool4/3x3_s2"
  top: "inception_5a/1x1"
  param {
    lr_mult: 1
    decay_mult: 1
  }
  param {
    lr_mult: 2
    decay_mult: 0
  }
  convolution_param {
    num_output: 256
    kernel_size: 1
    weight_filler {
      type: "xavier"
      std: 0.03
    }
    bias_filler {
      type: "constant"
      value: 0.2
    }
  }
}
layer {
  name: "inception_5a/relu_1x1"
  type: "ReLU"
  bottom: "inception_5a/1x1"
  top: "inception_5a/1x1"
}
layer {
  name: "inception_5a/3x3_reduce"
  type: "Convolution"
  bottom: "pool4/3x3_s2"
  top: "inception_5a/3x3_reduce"
  param {
    lr_mult: 1
    decay_mult: 1
  }
  param {
    lr_mult: 2
    decay_mult: 0
  }
  convolution_param {
    num_output: 160
    kernel_size: 1
    weight_filler {
      type: "xavier"
      std: 0.09
    }
    bias_filler {
      type: "constant"
      value: 0.2
    }
  }
}
layer {
  name: "inception_5a/relu_3x3_reduce"
  type: "ReLU"
  bottom: "inception_5a/3x3_reduce"
  top: "inception_5a/3x3_reduce"
}
layer {
  name: "inception_5a/3x3"
  type: "Convolution"
  bottom: "inception_5a/3x3_reduce"
  top: "inception_5a/3x3"
  param {
    lr_mult: 1
    decay_mult: 1
  }
  param {
    lr_mult: 2
    decay_mult: 0
  }
  convolution_param {
    num_output: 320
    pad: 1
    kernel_size: 3
    weight_filler {
      type: "xavier"
      std: 0.03
    }
    bias_filler {
      type: "constant"
      value: 0.2
    }
  }
}
layer {
  name: "inception_5a/relu_3x3"
  type: "ReLU"
  bottom: "inception_5a/3x3"
  top: "inception_5a/3x3"
}
layer {
  name: "inception_5a/5x5_reduce"
  type: "Convolution"
  bottom: "pool4/3x3_s2"
  top: "inception_5a/5x5_reduce"
  param {
    lr_mult: 1
    decay_mult: 1
  }
  param {
    lr_mult: 2
    decay_mult: 0
  }
  convolution_param {
    num_output: 32
    kernel_size: 1
    weight_filler {
      type: "xavier"
      std: 0.2
    }
    bias_filler {
      type: "constant"
      value: 0.2
    }
I0924 01:04:20.279124 31866 layer_factory.hpp:77] Creating layer data
I0924 01:04:20.279165 31866 net.cpp:91] Creating Layer data
I0924 01:04:20.279178 31866 net.cpp:399] data -> data
I0924 01:04:20.831887 31866 net.cpp:141] Setting up data
I0924 01:04:20.831976 31866 net.cpp:148] Top shape: 10 3 224 224 (1505280)
I0924 01:04:20.831984 31866 net.cpp:156] Memory required for data: 6021120
I0924 01:04:20.832006 31866 layer_factory.hpp:77] Creating layer conv1/7x7_s2
I0924 01:04:20.832052 31866 net.cpp:91] Creating Layer conv1/7x7_s2
I0924 01:04:20.832063 31866 net.cpp:425] conv1/7x7_s2 <- data
I0924 01:04:20.832079 31866 net.cpp:399] conv1/7x7_s2 -> conv1/7x7_s2
I0924 01:04:21.041524 31866 net.cpp:141] Setting up conv1/7x7_s2
I0924 01:04:21.041591 31866 net.cpp:148] Top shape: 10 64 112 112 (8028160)
I0924 01:04:21.041601 31866 net.cpp:156] Memory required for data: 38133760
I0924 01:04:21.041640 31866 layer_factory.hpp:77] Creating layer conv1/relu_7x7
I0924 01:04:21.041666 31866 net.cpp:91] Creating Layer conv1/relu_7x7
I0924 01:04:21.041676 31866 net.cpp:425] conv1/relu_7x7 <- conv1/7x7_s2
I0924 01:04:21.041687 31866 net.cpp:386] conv1/relu_7x7 -> conv1/7x7_s2 (in-place)
I0924 01:04:21.042215 31866 net.cpp:141] Setting up conv1/relu_7x7
I0924 01:04:21.042234 31866 net.cpp:148] Top shape: 10 64 112 112 (8028160)
I0924 01:04:21.042243 31866 net.cpp:156] Memory required for data: 70246400
I0924 01:04:21.042249 31866 layer_factory.hpp:77] Creating layer pool1/3x3_s2
I0924 01:04:21.042268 31866 net.cpp:91] Creating Layer pool1/3x3_s2
I0924 01:04:21.042275 31866 net.cpp:425] pool1/3x3_s2 <- conv1/7x7_s2
I0924 01:04:21.042286 31866 net.cpp:399] pool1/3x3_s2 -> pool1/3x3_s2
I0924 01:04:21.042398 31866 net.cpp:141] Setting up pool1/3x3_s2
I0924 01:04:21.042414 31866 net.cpp:148] Top shape: 10 64 56 56 (2007040)
I0924 01:04:21.042420 31866 net.cpp:156] Memory required for data: 78274560
I0924 01:04:21.042428 31866 layer_factory.hpp:77] Creating layer pool1/norm1
I0924 01:04:21.042454 31866 net.cpp:91] Creating Layer pool1/norm1
I0924 01:04:21.042461 31866 net.cpp:425] pool1/norm1 <- pool1/3x3_s2
I0924 01:04:21.042471 31866 net.cpp:399] pool1/norm1 -> pool1/norm1
I0924 01:04:21.042856 31866 net.cpp:141] Setting up pool1/norm1
I0924 01:04:21.042870 31866 net.cpp:148] Top shape: 10 64 56 56 (2007040)
I0924 01:04:21.042876 31866 net.cpp:156] Memory required for data: 86302720
I0924 01:04:21.042881 31866 layer_factory.hpp:77] Creating layer conv2/3x3_reduce
I0924 01:04:21.042909 31866 net.cpp:91] Creating Layer conv2/3x3_reduce
I0924 01:04:21.042915 31866 net.cpp:425] conv2/3x3_reduce <- pool1/norm1
I0924 01:04:21.042925 31866 net.cpp:399] conv2/3x3_reduce -> conv2/3x3_reduce
I0924 01:04:21.045716 31866 net.cpp:141] Setting up conv2/3x3_reduce
I0924 01:04:21.045743 31866 net.cpp:148] Top shape: 10 64 56 56 (2007040)
I0924 01:04:21.045752 31866 net.cpp:156] Memory required for data: 94330880
I0924 01:04:21.045768 31866 layer_factory.hpp:77] Creating layer conv2/relu_3x3_reduce
I0924 01:04:21.045779 31866 net.cpp:91] Creating Layer conv2/relu_3x3_reduce
I0924 01:04:21.045786 31866 net.cpp:425] conv2/relu_3x3_reduce <- conv2/3x3_reduce
I0924 01:04:21.045802 31866 net.cpp:386] conv2/relu_3x3_reduce -> conv2/3x3_reduce (in-place)
I0924 01:04:21.046255 31866 net.cpp:141] Setting up conv2/relu_3x3_reduce
I0924 01:04:21.046269 31866 net.cpp:148] Top shape: 10 64 56 56 (2007040)
I0924 01:04:21.046275 31866 net.cpp:156] Memory required for data: 102359040
I0924 01:04:21.046280 31866 layer_factory.hpp:77] Creating layer conv2/3x3
I0924 01:04:21.046298 31866 net.cpp:91] Creating Layer conv2/3x3
I0924 01:04:21.046303 31866 net.cpp:425] conv2/3x3 <- conv2/3x3_reduce
I0924 01:04:21.046315 31866 net.cpp:399] conv2/3x3 -> conv2/3x3
I0924 01:04:21.050459 31866 net.cpp:141] Setting up conv2/3x3
I0924 01:04:21.050490 31866 net.cpp:148] Top shape: 10 192 56 56 (6021120)
I0924 01:04:21.050498 31866 net.cpp:156] Memory required for data: 126443520
I0924 01:04:21.050515 31866 layer_factory.hpp:77] Creating layer conv2/relu_3x3
I0924 01:04:21.050529 31866 net.cpp:91] Creating Layer conv2/relu_3x3
I0924 01:04:21.050537 31866 net.cpp:425] conv2/relu_3x3 <- conv2/3x3
I0924 01:04:21.050552 31866 net.cpp:386] conv2/relu_3x3 -> conv2/3x3 (in-place)
I0924 01:04:21.050880 31866 net.cpp:141] Setting up conv2/relu_3x3
I0924 01:04:21.050909 31866 net.cpp:148] Top shape: 10 192 56 56 (6021120)
I0924 01:04:21.050915 31866 net.cpp:156] Memory required for data: 150528000
I0924 01:04:21.050922 31866 layer_factory.hpp:77] Creating layer conv2/norm2
I0924 01:04:21.050936 31866 net.cpp:91] Creating Layer conv2/norm2
I0924 01:04:21.050945 31866 net.cpp:425] conv2/norm2 <- conv2/3x3
I0924 01:04:21.050954 31866 net.cpp:399] conv2/norm2 -> conv2/norm2
I0924 01:04:21.051583 31866 net.cpp:141] Setting up conv2/norm2
I0924 01:04:21.051601 31866 net.cpp:148] Top shape: 10 192 56 56 (6021120)
I0924 01:04:21.051609 31866 net.cpp:156] Memory required for data: 174612480
I0924 01:04:21.051614 31866 layer_factory.hpp:77] Creating layer pool2/3x3_s2
I0924 01:04:21.051625 31866 net.cpp:91] Creating Layer pool2/3x3_s2
I0924 01:04:21.051632 31866 net.cpp:425] pool2/3x3_s2 <- conv2/norm2
I0924 01:04:21.051642 31866 net.cpp:399] pool2/3x3_s2 -> pool2/3x3_s2
I0924 01:04:21.051712 31866 net.cpp:141] Setting up pool2/3x3_s2
I0924 01:04:21.051724 31866 net.cpp:148] Top shape: 10 192 28 28 (1505280)
I0924 01:04:21.051730 31866 net.cpp:156] Memory required for data: 180633600
I0924 01:04:21.051736 31866 layer_factory.hpp:77] Creating layer pool2/3x3_s2_pool2/3x3_s2_0_split
I0924 01:04:21.051760 31866 net.cpp:91] Creating Layer pool2/3x3_s2_pool2/3x3_s2_0_split
I0924 01:04:21.051767 31866 net.cpp:425] pool2/3x3_s2_pool2/3x3_s2_0_split <- pool2/3x3_s2
I0924 01:04:21.051775 31866 net.cpp:399] pool2/3x3_s2_pool2/3x3_s2_0_split -> pool2/3x3_s2_pool2/3x3_s2_0_split_0
I0924 01:04:21.051789 31866 net.cpp:399] pool2/3x3_s2_pool2/3x3_s2_0_split -> pool2/3x3_s2_pool2/3x3_s2_0_split_1
I0924 01:04:21.051803 31866 net.cpp:399] pool2/3x3_s2_pool2/3x3_s2_0_split -> pool2/3x3_s2_pool2/3x3_s2_0_split_2
I0924 01:04:21.051815 31866 net.cpp:399] pool2/3x3_s2_pool2/3x3_s2_0_split -> pool2/3x3_s2_pool2/3x3_s2_0_split_3
I0924 01:04:21.051910 31866 net.cpp:141] Setting up pool2/3x3_s2_pool2/3x3_s2_0_split
I0924 01:04:21.051923 31866 net.cpp:148] Top shape: 10 192 28 28 (1505280)
I0924 01:04:21.051930 31866 net.cpp:148] Top shape: 10 192 28 28 (1505280)
I0924 01:04:21.051937 31866 net.cpp:148] Top shape: 10 192 28 28 (1505280)
I0924 01:04:21.051944 31866 net.cpp:148] Top shape: 10 192 28 28 (1505280)
I0924 01:04:21.051950 31866 net.cpp:156] Memory required for data: 204718080
I0924 01:04:21.051956 31866 layer_factory.hpp:77] Creating layer inception_3a/1x1
I0924 01:04:21.051975 31866 net.cpp:91] Creating Layer inception_3a/1x1
I0924 01:04:21.051981 31866 net.cpp:425] inception_3a/1x1 <- pool2/3x3_s2_pool2/3x3_s2_0_split_0
I0924 01:04:21.052016 31866 net.cpp:399] inception_3a/1x1 -> inception_3a/1x1
I0924 01:04:21.054523 31866 net.cpp:141] Setting up inception_3a/1x1
I0924 01:04:21.054549 31866 net.cpp:148] Top shape: 10 64 28 28 (501760)
I0924 01:04:21.054556 31866 net.cpp:156] Memory required for data: 206725120
I0924 01:04:21.054569 31866 layer_factory.hpp:77] Creating layer inception_3a/relu_1x1
I0924 01:04:21.054585 31866 net.cpp:91] Creating Layer inception_3a/relu_1x1
I0924 01:04:21.054594 31866 net.cpp:425] inception_3a/relu_1x1 <- inception_3a/1x1
I0924 01:04:21.054615 31866 net.cpp:386] inception_3a/relu_1x1 -> inception_3a/1x1 (in-place)
I0924 01:04:21.055057 31866 net.cpp:141] Setting up inception_3a/relu_1x1
I0924 01:04:21.055071 31866 net.cpp:148] Top shape: 10 64 28 28 (501760)
I0924 01:04:21.055076 31866 net.cpp:156] Memory required for data: 208732160
I0924 01:04:21.055083 31866 layer_factory.hpp:77] Creating layer inception_3a/3x3_reduce
I0924 01:04:21.055100 31866 net.cpp:91] Creating Layer inception_3a/3x3_reduce
I0924 01:04:21.055107 31866 net.cpp:425] inception_3a/3x3_reduce <- pool2/3x3_s2_pool2/3x3_s2_0_split_1
I0924 01:04:21.055117 31866 net.cpp:399] inception_3a/3x3_reduce -> inception_3a/3x3_reduce
I0924 01:04:21.058010 31866 net.cpp:141] Setting up inception_3a/3x3_reduce
I0924 01:04:21.058037 31866 net.cpp:148] Top shape: 10 96 28 28 (752640)
I0924 01:04:21.058043 31866 net.cpp:156] Memory required for data: 211742720
I0924 01:04:21.058060 31866 layer_factory.hpp:77] Creating layer inception_3a/relu_3x3_reduce
I0924 01:04:21.058089 31866 net.cpp:91] Creating Layer inception_3a/relu_3x3_reduce
I0924 01:04:21.058096 31866 net.cpp:425] inception_3a/relu_3x3_reduce <- inception_3a/3x3_reduce
I0924 01:04:21.058104 31866 net.cpp:386] inception_3a/relu_3x3_reduce -> inception_3a/3x3_reduce (in-place)
I0924 01:04:21.058367 31866 net.cpp:141] Setting up inception_3a/relu_3x3_reduce
I0924 01:04:21.058380 31866 net.cpp:148] Top shape: 10 96 28 28 (752640)
I0924 01:04:21.058385 31866 net.cpp:156] Memory required for data: 214753280
I0924 01:04:21.058390 31866 layer_factory.hpp:77] Creating layer inception_3a/3x3
I0924 01:04:21.058409 31866 net.cpp:91] Creating Layer inception_3a/3x3
I0924 01:04:21.058416 31866 net.cpp:425] inception_3a/3x3 <- inception_3a/3x3_reduce
I0924 01:04:21.058429 31866 net.cpp:399] inception_3a/3x3 -> inception_3a/3x3
I0924 01:04:21.061095 31866 net.cpp:141] Setting up inception_3a/3x3
I0924 01:04:21.061116 31866 net.cpp:148] Top shape: 10 128 28 28 (1003520)
I0924 01:04:21.061122 31866 net.cpp:156] Memory required for data: 218767360
I0924 01:04:21.061132 31866 layer_factory.hpp:77] Creating layer inception_3a/relu_3x3
I0924 01:04:21.061142 31866 net.cpp:91] Creating Layer inception_3a/relu_3x3
I0924 01:04:21.061148 31866 net.cpp:425] inception_3a/relu_3x3 <- inception_3a/3x3
I0924 01:04:21.061162 31866 net.cpp:386] inception_3a/relu_3x3 -> inception_3a/3x3 (in-place)
I0924 01:04:21.061583 31866 net.cpp:141] Setting up inception_3a/relu_3x3
I0924 01:04:21.061596 31866 net.cpp:148] Top shape: 10 128 28 28 (1003520)
I0924 01:04:21.061601 31866 net.cpp:156] Memory required for data: 222781440
I0924 01:04:21.061607 31866 layer_factory.hpp:77] Creating layer inception_3a/5x5_reduce
I0924 01:04:21.061625 31866 net.cpp:91] Creating Layer inception_3a/5x5_reduce
I0924 01:04:21.061630 31866 net.cpp:425] inception_3a/5x5_reduce <- pool2/3x3_s2_pool2/3x3_s2_0_split_2
I0924 01:04:21.061643 31866 net.cpp:399] inception_3a/5x5_reduce -> inception_3a/5x5_reduce
I0924 01:04:21.063117 31866 net.cpp:141] Setting up inception_3a/5x5_reduce
I0924 01:04:21.063138 31866 net.cpp:148] Top shape: 10 16 28 28 (125440)
I0924 01:04:21.063146 31866 net.cpp:156] Memory required for data: 223283200
I0924 01:04:21.063156 31866 layer_factory.hpp:77] Creating layer inception_3a/relu_5x5_reduce
I0924 01:04:21.063166 31866 net.cpp:91] Creating Layer inception_3a/relu_5x5_reduce
I0924 01:04:21.063186 31866 net.cpp:425] inception_3a/relu_5x5_reduce <- inception_3a/5x5_reduce
I0924 01:04:21.063194 31866 net.cpp:386] inception_3a/relu_5x5_reduce -> inception_3a/5x5_reduce (in-place)
I0924 01:04:21.063613 31866 net.cpp:141] Setting up inception_3a/relu_5x5_reduce
I0924 01:04:21.063630 31866 net.cpp:148] Top shape: 10 16 28 28 (125440)
I0924 01:04:21.063635 31866 net.cpp:156] Memory required for data: 223784960
I0924 01:04:21.063640 31866 layer_factory.hpp:77] Creating layer inception_3a/5x5
I0924 01:04:21.063660 31866 net.cpp:91] Creating Layer inception_3a/5x5
I0924 01:04:21.063666 31866 net.cpp:425] inception_3a/5x5 <- inception_3a/5x5_reduce
I0924 01:04:21.063676 31866 net.cpp:399] inception_3a/5x5 -> inception_3a/5x5
I0924 01:04:21.065744 31866 net.cpp:141] Setting up inception_3a/5x5
I0924 01:04:21.065767 31866 net.cpp:148] Top shape: 10 32 28 28 (250880)
I0924 01:04:21.065773 31866 net.cpp:156] Memory required for data: 224788480
I0924 01:04:21.065783 31866 layer_factory.hpp:77] Creating layer inception_3a/relu_5x5
I0924 01:04:21.065795 31866 net.cpp:91] Creating Layer inception_3a/relu_5x5
I0924 01:04:21.065803 31866 net.cpp:425] inception_3a/relu_5x5 <- inception_3a/5x5
I0924 01:04:21.065825 31866 net.cpp:386] inception_3a/relu_5x5 -> inception_3a/5x5 (in-place)
I0924 01:04:21.066087 31866 net.cpp:141] Setting up inception_3a/relu_5x5
I0924 01:04:21.066100 31866 net.cpp:148] Top shape: 10 32 28 28 (250880)
I0924 01:04:21.066105 31866 net.cpp:156] Memory required for data: 225792000
I0924 01:04:21.066110 31866 layer_factory.hpp:77] Creating layer inception_3a/pool
I0924 01:04:21.066124 31866 net.cpp:91] Creating Layer inception_3a/pool
I0924 01:04:21.066130 31866 net.cpp:425] inception_3a/pool <- pool2/3x3_s2_pool2/3x3_s2_0_split_3
I0924 01:04:21.066141 31866 net.cpp:399] inception_3a/pool -> inception_3a/pool
I0924 01:04:21.066206 31866 net.cpp:141] Setting up inception_3a/pool
I0924 01:04:21.066217 31866 net.cpp:148] Top shape: 10 192 28 28 (1505280)
I0924 01:04:21.066221 31866 net.cpp:156] Memory required for data: 231813120
I0924 01:04:21.066226 31866 layer_factory.hpp:77] Creating layer inception_3a/pool_proj
I0924 01:04:21.066241 31866 net.cpp:91] Creating Layer inception_3a/pool_proj
I0924 01:04:21.066247 31866 net.cpp:425] inception_3a/pool_proj <- inception_3a/pool
I0924 01:04:21.066260 31866 net.cpp:399] inception_3a/pool_proj -> inception_3a/pool_proj
I0924 01:04:21.067803 31866 net.cpp:141] Setting up inception_3a/pool_proj
I0924 01:04:21.067823 31866 net.cpp:148] Top shape: 10 32 28 28 (250880)
I0924 01:04:21.067829 31866 net.cpp:156] Memory required for data: 232816640
I0924 01:04:21.067847 31866 layer_factory.hpp:77] Creating layer inception_3a/relu_pool_proj
I0924 01:04:21.067857 31866 net.cpp:91] Creating Layer inception_3a/relu_pool_proj
I0924 01:04:21.067862 31866 net.cpp:425] inception_3a/relu_pool_proj <- inception_3a/pool_proj
I0924 01:04:21.067870 31866 net.cpp:386] inception_3a/relu_pool_proj -> inception_3a/pool_proj (in-place)
I0924 01:04:21.068291 31866 net.cpp:141] Setting up inception_3a/relu_pool_proj
I0924 01:04:21.068308 31866 net.cpp:148] Top shape: 10 32 28 28 (250880)
I0924 01:04:21.068315 31866 net.cpp:156] Memory required for data: 233820160
I0924 01:04:21.068320 31866 layer_factory.hpp:77] Creating layer inception_3a/output
I0924 01:04:21.068337 31866 net.cpp:91] Creating Layer inception_3a/output
I0924 01:04:21.068343 31866 net.cpp:425] inception_3a/output <- inception_3a/1x1
I0924 01:04:21.068351 31866 net.cpp:425] inception_3a/output <- inception_3a/3x3
I0924 01:04:21.068356 31866 net.cpp:425] inception_3a/output <- inception_3a/5x5
I0924 01:04:21.068362 31866 net.cpp:425] inception_3a/output <- inception_3a/pool_proj
I0924 01:04:21.068369 31866 net.cpp:399] inception_3a/output -> inception_3a/output
I0924 01:04:21.068419 31866 net.cpp:141] Setting up inception_3a/output
I0924 01:04:21.068429 31866 net.cpp:148] Top shape: 10 256 28 28 (2007040)
I0924 01:04:21.068434 31866 net.cpp:156] Memory required for data: 241848320
I0924 01:04:21.068439 31866 layer_factory.hpp:77] Creating layer inception_3a/output_inception_3a/output_0_split
I0924 01:04:21.068449 31866 net.cpp:91] Creating Layer inception_3a/output_inception_3a/output_0_split
I0924 01:04:21.068454 31866 net.cpp:425] inception_3a/output_inception_3a/output_0_split <- inception_3a/output
I0924 01:04:21.068464 31866 net.cpp:399] inception_3a/output_inception_3a/output_0_split -> inception_3a/output_inception_3a/output_0_split_0
I0924 01:04:21.068473 31866 net.cpp:399] inception_3a/output_inception_3a/output_0_split -> inception_3a/output_inception_3a/output_0_split_1
I0924 01:04:21.068482 31866 net.cpp:399] inception_3a/output_inception_3a/output_0_split -> inception_3a/output_inception_3a/output_0_split_2
I0924 01:04:21.068491 31866 net.cpp:399] inception_3a/output_inception_3a/output_0_split -> inception_3a/output_inception_3a/output_0_split_3
I0924 01:04:21.068580 31866 net.cpp:141] Setting up inception_3a/output_inception_3a/output_0_split
I0924 01:04:21.068590 31866 net.cpp:148] Top shape: 10 256 28 28 (2007040)
I0924 01:04:21.068596 31866 net.cpp:148] Top shape: 10 256 28 28 (2007040)
I0924 01:04:21.068603 31866 net.cpp:148] Top shape: 10 256 28 28 (2007040)
I0924 01:04:21.068608 31866 net.cpp:148] Top shape: 10 256 28 28 (2007040)
I0924 01:04:21.068613 31866 net.cpp:156] Memory required for data: 273960960
I0924 01:04:21.068617 31866 layer_factory.hpp:77] Creating layer inception_3b/1x1
I0924 01:04:21.068634 31866 net.cpp:91] Creating Layer inception_3b/1x1
I0924 01:04:21.068639 31866 net.cpp:425] inception_3b/1x1 <- inception_3a/output_inception_3a/output_0_split_0
I0924 01:04:21.068650 31866 net.cpp:399] inception_3b/1x1 -> inception_3b/1x1
I0924 01:04:21.070219 31866 net.cpp:141] Setting up inception_3b/1x1
I0924 01:04:21.070235 31866 net.cpp:148] Top shape: 10 128 28 28 (1003520)
I0924 01:04:21.070240 31866 net.cpp:156] Memory required for data: 277975040
I0924 01:04:21.070250 31866 layer_factory.hpp:77] Creating layer inception_3b/relu_1x1
I0924 01:04:21.070262 31866 net.cpp:91] Creating Layer inception_3b/relu_1x1
I0924 01:04:21.070268 31866 net.cpp:425] inception_3b/relu_1x1 <- inception_3b/1x1
I0924 01:04:21.070276 31866 net.cpp:386] inception_3b/relu_1x1 -> inception_3b/1x1 (in-place)
I0924 01:04:21.070701 31866 net.cpp:141] Setting up inception_3b/relu_1x1
I0924 01:04:21.070716 31866 net.cpp:148] Top shape: 10 128 28 28 (1003520)
I0924 01:04:21.070721 31866 net.cpp:156] Memory required for data: 281989120
I0924 01:04:21.070726 31866 layer_factory.hpp:77] Creating layer inception_3b/3x3_reduce
I0924 01:04:21.070742 31866 net.cpp:91] Creating Layer inception_3b/3x3_reduce
I0924 01:04:21.070749 31866 net.cpp:425] inception_3b/3x3_reduce <- inception_3a/output_inception_3a/output_0_split_1
I0924 01:04:21.070762 31866 net.cpp:399] inception_3b/3x3_reduce -> inception_3b/3x3_reduce
I0924 01:04:21.072542 31866 net.cpp:141] Setting up inception_3b/3x3_reduce
I0924 01:04:21.072563 31866 net.cpp:148] Top shape: 10 128 28 28 (1003520)
I0924 01:04:21.072568 31866 net.cpp:156] Memory required for data: 286003200
I0924 01:04:21.072578 31866 layer_factory.hpp:77] Creating layer inception_3b/relu_3x3_reduce
I0924 01:04:21.072587 31866 net.cpp:91] Creating Layer inception_3b/relu_3x3_reduce
I0924 01:04:21.072593 31866 net.cpp:425] inception_3b/relu_3x3_reduce <- inception_3b/3x3_reduce
I0924 01:04:21.072604 31866 net.cpp:386] inception_3b/relu_3x3_reduce -> inception_3b/3x3_reduce (in-place)
I0924 01:04:21.073086 31866 net.cpp:141] Setting up inception_3b/relu_3x3_reduce
I0924 01:04:21.073127 31866 net.cpp:148] Top shape: 10 128 28 28 (1003520)
I0924 01:04:21.073133 31866 net.cpp:156] Memory required for data: 290017280
I0924 01:04:21.073143 31866 layer_factory.hpp:77] Creating layer inception_3b/3x3
I0924 01:04:21.073173 31866 net.cpp:91] Creating Layer inception_3b/3x3
I0924 01:04:21.073184 31866 net.cpp:425] inception_3b/3x3 <- inception_3b/3x3_reduce
I0924 01:04:21.073200 31866 net.cpp:399] inception_3b/3x3 -> inception_3b/3x3
I0924 01:04:21.077632 31866 net.cpp:141] Setting up inception_3b/3x3
I0924 01:04:21.077658 31866 net.cpp:148] Top shape: 10 192 28 28 (1505280)
I0924 01:04:21.077664 31866 net.cpp:156] Memory required for data: 296038400
I0924 01:04:21.077677 31866 layer_factory.hpp:77] Creating layer inception_3b/relu_3x3
I0924 01:04:21.077697 31866 net.cpp:91] Creating Layer inception_3b/relu_3x3
I0924 01:04:21.077703 31866 net.cpp:425] inception_3b/relu_3x3 <- inception_3b/3x3
I0924 01:04:21.077711 31866 net.cpp:386] inception_3b/relu_3x3 -> inception_3b/3x3 (in-place)
I0924 01:04:21.078160 31866 net.cpp:141] Setting up inception_3b/relu_3x3
I0924 01:04:21.078174 31866 net.cpp:148] Top shape: 10 192 28 28 (1505280)
I0924 01:04:21.078181 31866 net.cpp:156] Memory required for data: 302059520
I0924 01:04:21.078187 31866 layer_factory.hpp:77] Creating layer inception_3b/5x5_reduce
I0924 01:04:21.078202 31866 net.cpp:91] Creating Layer inception_3b/5x5_reduce
I0924 01:04:21.078208 31866 net.cpp:425] inception_3b/5x5_reduce <- inception_3a/output_inception_3a/output_0_split_2
I0924 01:04:21.078222 31866 net.cpp:399] inception_3b/5x5_reduce -> inception_3b/5x5_reduce
I0924 01:04:21.079684 31866 net.cpp:141] Setting up inception_3b/5x5_reduce
I0924 01:04:21.079705 31866 net.cpp:148] Top shape: 10 32 28 28 (250880)
I0924 01:04:21.079711 31866 net.cpp:156] Memory required for data: 303063040
I0924 01:04:21.079721 31866 layer_factory.hpp:77] Creating layer inception_3b/relu_5x5_reduce
I0924 01:04:21.079731 31866 net.cpp:91] Creating Layer inception_3b/relu_5x5_reduce
I0924 01:04:21.079737 31866 net.cpp:425] inception_3b/relu_5x5_reduce <- inception_3b/5x5_reduce
I0924 01:04:21.079748 31866 net.cpp:386] inception_3b/relu_5x5_reduce -> inception_3b/5x5_reduce (in-place)
I0924 01:04:21.080195 31866 net.cpp:141] Setting up inception_3b/relu_5x5_reduce
I0924 01:04:21.080209 31866 net.cpp:148] Top shape: 10 32 28 28 (250880)
I0924 01:04:21.080214 31866 net.cpp:156] Memory required for data: 304066560
I0924 01:04:21.080220 31866 layer_factory.hpp:77] Creating layer inception_3b/5x5
I0924 01:04:21.080237 31866 net.cpp:91] Creating Layer inception_3b/5x5
I0924 01:04:21.080245 31866 net.cpp:425] inception_3b/5x5 <- inception_3b/5x5_reduce
I0924 01:04:21.080253 31866 net.cpp:399] inception_3b/5x5 -> inception_3b/5x5
I0924 01:04:21.083179 31866 net.cpp:141] Setting up inception_3b/5x5
I0924 01:04:21.083200 31866 net.cpp:148] Top shape: 10 96 28 28 (752640)
I0924 01:04:21.083206 31866 net.cpp:156] Memory required for data: 307077120
I0924 01:04:21.083216 31866 layer_factory.hpp:77] Creating layer inception_3b/relu_5x5
I0924 01:04:21.083226 31866 net.cpp:91] Creating Layer inception_3b/relu_5x5
I0924 01:04:21.083232 31866 net.cpp:425] inception_3b/relu_5x5 <- inception_3b/5x5
I0924 01:04:21.083245 31866 net.cpp:386] inception_3b/relu_5x5 -> inception_3b/5x5 (in-place)
I0924 01:04:21.083499 31866 net.cpp:141] Setting up inception_3b/relu_5x5
I0924 01:04:21.083513 31866 net.cpp:148] Top shape: 10 96 28 28 (752640)
I0924 01:04:21.083518 31866 net.cpp:156] Memory required for data: 310087680
I0924 01:04:21.083523 31866 layer_factory.hpp:77] Creating layer inception_3b/pool
I0924 01:04:21.083536 31866 net.cpp:91] Creating Layer inception_3b/pool
I0924 01:04:21.083542 31866 net.cpp:425] inception_3b/pool <- inception_3a/output_inception_3a/output_0_split_3
I0924 01:04:21.083551 31866 net.cpp:399] inception_3b/pool -> inception_3b/pool
I0924 01:04:21.083629 31866 net.cpp:141] Setting up inception_3b/pool
I0924 01:04:21.083639 31866 net.cpp:148] Top shape: 10 256 28 28 (2007040)
I0924 01:04:21.083644 31866 net.cpp:156] Memory required for data: 318115840
I0924 01:04:21.083649 31866 layer_factory.hpp:77] Creating layer inception_3b/pool_proj
I0924 01:04:21.083667 31866 net.cpp:91] Creating Layer inception_3b/pool_proj
I0924 01:04:21.083674 31866 net.cpp:425] inception_3b/pool_proj <- inception_3b/pool
I0924 01:04:21.083686 31866 net.cpp:399] inception_3b/pool_proj -> inception_3b/pool_proj
I0924 01:04:21.085535 31866 net.cpp:141] Setting up inception_3b/pool_proj
I0924 01:04:21.085558 31866 net.cpp:148] Top shape: 10 64 28 28 (501760)
I0924 01:04:21.085566 31866 net.cpp:156] Memory required for data: 320122880
I0924 01:04:21.085577 31866 layer_factory.hpp:77] Creating layer inception_3b/relu_pool_proj
I0924 01:04:21.085587 31866 net.cpp:91] Creating Layer inception_3b/relu_pool_proj
I0924 01:04:21.085592 31866 net.cpp:425] inception_3b/relu_pool_proj <- inception_3b/pool_proj
I0924 01:04:21.085600 31866 net.cpp:386] inception_3b/relu_pool_proj -> inception_3b/pool_proj (in-place)
I0924 01:04:21.086050 31866 net.cpp:141] Setting up inception_3b/relu_pool_proj
I0924 01:04:21.086066 31866 net.cpp:148] Top shape: 10 64 28 28 (501760)
I0924 01:04:21.086071 31866 net.cpp:156] Memory required for data: 322129920
I0924 01:04:21.086077 31866 layer_factory.hpp:77] Creating layer inception_3b/output
I0924 01:04:21.086087 31866 net.cpp:91] Creating Layer inception_3b/output
I0924 01:04:21.086093 31866 net.cpp:425] inception_3b/output <- inception_3b/1x1
I0924 01:04:21.086100 31866 net.cpp:425] inception_3b/output <- inception_3b/3x3
I0924 01:04:21.086107 31866 net.cpp:425] inception_3b/output <- inception_3b/5x5
I0924 01:04:21.086112 31866 net.cpp:425] inception_3b/output <- inception_3b/pool_proj
I0924 01:04:21.086119 31866 net.cpp:399] inception_3b/output -> inception_3b/output
I0924 01:04:21.086168 31866 net.cpp:141] Setting up inception_3b/output
I0924 01:04:21.086177 31866 net.cpp:148] Top shape: 10 480 28 28 (3763200)
I0924 01:04:21.086182 31866 net.cpp:156] Memory required for data: 337182720
I0924 01:04:21.086187 31866 layer_factory.hpp:77] Creating layer pool3/3x3_s2
I0924 01:04:21.086199 31866 net.cpp:91] Creating Layer pool3/3x3_s2
I0924 01:04:21.086205 31866 net.cpp:425] pool3/3x3_s2 <- inception_3b/output
I0924 01:04:21.086212 31866 net.cpp:399] pool3/3x3_s2 -> pool3/3x3_s2
I0924 01:04:21.086279 31866 net.cpp:141] Setting up pool3/3x3_s2
I0924 01:04:21.086290 31866 net.cpp:148] Top shape: 10 480 14 14 (940800)
I0924 01:04:21.086295 31866 net.cpp:156] Memory required for data: 340945920
I0924 01:04:21.086300 31866 layer_factory.hpp:77] Creating layer pool3/3x3_s2_pool3/3x3_s2_0_split
I0924 01:04:21.086313 31866 net.cpp:91] Creating Layer pool3/3x3_s2_pool3/3x3_s2_0_split
I0924 01:04:21.086318 31866 net.cpp:425] pool3/3x3_s2_pool3/3x3_s2_0_split <- pool3/3x3_s2
I0924 01:04:21.086328 31866 net.cpp:399] pool3/3x3_s2_pool3/3x3_s2_0_split -> pool3/3x3_s2_pool3/3x3_s2_0_split_0
I0924 01:04:21.086338 31866 net.cpp:399] pool3/3x3_s2_pool3/3x3_s2_0_split -> pool3/3x3_s2_pool3/3x3_s2_0_split_1
I0924 01:04:21.086347 31866 net.cpp:399] pool3/3x3_s2_pool3/3x3_s2_0_split -> pool3/3x3_s2_pool3/3x3_s2_0_split_2
I0924 01:04:21.086355 31866 net.cpp:399] pool3/3x3_s2_pool3/3x3_s2_0_split -> pool3/3x3_s2_pool3/3x3_s2_0_split_3
I0924 01:04:21.086442 31866 net.cpp:141] Setting up pool3/3x3_s2_pool3/3x3_s2_0_split
I0924 01:04:21.086455 31866 net.cpp:148] Top shape: 10 480 14 14 (940800)
I0924 01:04:21.086462 31866 net.cpp:148] Top shape: 10 480 14 14 (940800)
I0924 01:04:21.086468 31866 net.cpp:148] Top shape: 10 480 14 14 (940800)
I0924 01:04:21.086474 31866 net.cpp:148] Top shape: 10 480 14 14 (940800)
I0924 01:04:21.086478 31866 net.cpp:156] Memory required for data: 355998720
I0924 01:04:21.086483 31866 layer_factory.hpp:77] Creating layer inception_4a/1x1
I0924 01:04:21.086499 31866 net.cpp:91] Creating Layer inception_4a/1x1
I0924 01:04:21.086505 31866 net.cpp:425] inception_4a/1x1 <- pool3/3x3_s2_pool3/3x3_s2_0_split_0
I0924 01:04:21.086515 31866 net.cpp:399] inception_4a/1x1 -> inception_4a/1x1
I0924 01:04:21.088871 31866 net.cpp:141] Setting up inception_4a/1x1
I0924 01:04:21.088887 31866 net.cpp:148] Top shape: 10 192 14 14 (376320)
I0924 01:04:21.088893 31866 net.cpp:156] Memory required for data: 357504000
I0924 01:04:21.088903 31866 layer_factory.hpp:77] Creating layer inception_4a/relu_1x1
I0924 01:04:21.088912 31866 net.cpp:91] Creating Layer inception_4a/relu_1x1
I0924 01:04:21.088922 31866 net.cpp:425] inception_4a/relu_1x1 <- inception_4a/1x1
I0924 01:04:21.088930 31866 net.cpp:386] inception_4a/relu_1x1 -> inception_4a/1x1 (in-place)
I0924 01:04:21.089485 31866 net.cpp:141] Setting up inception_4a/relu_1x1
I0924 01:04:21.089505 31866 net.cpp:148] Top shape: 10 192 14 14 (376320)
I0924 01:04:21.089514 31866 net.cpp:156] Memory required for data: 359009280
I0924 01:04:21.089521 31866 layer_factory.hpp:77] Creating layer inception_4a/3x3_reduce
I0924 01:04:21.089545 31866 net.cpp:91] Creating Layer inception_4a/3x3_reduce
I0924 01:04:21.089553 31866 net.cpp:425] inception_4a/3x3_reduce <- pool3/3x3_s2_pool3/3x3_s2_0_split_1
I0924 01:04:21.089573 31866 net.cpp:399] inception_4a/3x3_reduce -> inception_4a/3x3_reduce
I0924 01:04:21.092557 31866 net.cpp:141] Setting up inception_4a/3x3_reduce
I0924 01:04:21.092593 31866 net.cpp:148] Top shape: 10 96 14 14 (188160)
I0924 01:04:21.092602 31866 net.cpp:156] Memory required for data: 359761920
I0924 01:04:21.092638 31866 layer_factory.hpp:77] Creating layer inception_4a/relu_3x3_reduce
I0924 01:04:21.092654 31866 net.cpp:91] Creating Layer inception_4a/relu_3x3_reduce
I0924 01:04:21.092665 31866 net.cpp:425] inception_4a/relu_3x3_reduce <- inception_4a/3x3_reduce
I0924 01:04:21.092679 31866 net.cpp:386] inception_4a/relu_3x3_reduce -> inception_4a/3x3_reduce (in-place)
I0924 01:04:21.093022 31866 net.cpp:141] Setting up inception_4a/relu_3x3_reduce
I0924 01:04:21.093039 31866 net.cpp:148] Top shape: 10 96 14 14 (188160)
I0924 01:04:21.093047 31866 net.cpp:156] Memory required for data: 360514560
I0924 01:04:21.093055 31866 layer_factory.hpp:77] Creating layer inception_4a/3x3
I0924 01:04:21.093080 31866 net.cpp:91] Creating Layer inception_4a/3x3
I0924 01:04:21.093089 31866 net.cpp:425] inception_4a/3x3 <- inception_4a/3x3_reduce
I0924 01:04:21.093107 31866 net.cpp:399] inception_4a/3x3 -> inception_4a/3x3
I0924 01:04:21.097091 31866 net.cpp:141] Setting up inception_4a/3x3
I0924 01:04:21.097110 31866 net.cpp:148] Top shape: 10 208 14 14 (407680)
I0924 01:04:21.097115 31866 net.cpp:156] Memory required for data: 362145280
I0924 01:04:21.097124 31866 layer_factory.hpp:77] Creating layer inception_4a/relu_3x3
I0924 01:04:21.097138 31866 net.cpp:91] Creating Layer inception_4a/relu_3x3
I0924 01:04:21.097146 31866 net.cpp:425] inception_4a/relu_3x3 <- inception_4a/3x3
I0924 01:04:21.097153 31866 net.cpp:386] inception_4a/relu_3x3 -> inception_4a/3x3 (in-place)
I0924 01:04:21.097594 31866 net.cpp:141] Setting up inception_4a/relu_3x3
I0924 01:04:21.097609 31866 net.cpp:148] Top shape: 10 208 14 14 (407680)
I0924 01:04:21.097615 31866 net.cpp:156] Memory required for data: 363776000
I0924 01:04:21.097620 31866 layer_factory.hpp:77] Creating layer inception_4a/5x5_reduce
I0924 01:04:21.097640 31866 net.cpp:91] Creating Layer inception_4a/5x5_reduce
I0924 01:04:21.097650 31866 net.cpp:425] inception_4a/5x5_reduce <- pool3/3x3_s2_pool3/3x3_s2_0_split_2
I0924 01:04:21.097661 31866 net.cpp:399] inception_4a/5x5_reduce -> inception_4a/5x5_reduce
I0924 01:04:21.099114 31866 net.cpp:141] Setting up inception_4a/5x5_reduce
I0924 01:04:21.099135 31866 net.cpp:148] Top shape: 10 16 14 14 (31360)
I0924 01:04:21.099141 31866 net.cpp:156] Memory required for data: 363901440
I0924 01:04:21.099153 31866 layer_factory.hpp:77] Creating layer inception_4a/relu_5x5_reduce
I0924 01:04:21.099161 31866 net.cpp:91] Creating Layer inception_4a/relu_5x5_reduce
I0924 01:04:21.099167 31866 net.cpp:425] inception_4a/relu_5x5_reduce <- inception_4a/5x5_reduce
I0924 01:04:21.099180 31866 net.cpp:386] inception_4a/relu_5x5_reduce -> inception_4a/5x5_reduce (in-place)
I0924 01:04:21.099613 31866 net.cpp:141] Setting up inception_4a/relu_5x5_reduce
I0924 01:04:21.099627 31866 net.cpp:148] Top shape: 10 16 14 14 (31360)
I0924 01:04:21.099632 31866 net.cpp:156] Memory required for data: 364026880
I0924 01:04:21.099638 31866 layer_factory.hpp:77] Creating layer inception_4a/5x5
I0924 01:04:21.099656 31866 net.cpp:91] Creating Layer inception_4a/5x5
I0924 01:04:21.099663 31866 net.cpp:425] inception_4a/5x5 <- inception_4a/5x5_reduce
I0924 01:04:21.099675 31866 net.cpp:399] inception_4a/5x5 -> inception_4a/5x5
I0924 01:04:21.106817 31866 net.cpp:141] Setting up inception_4a/5x5
I0924 01:04:21.106880 31866 net.cpp:148] Top shape: 10 48 14 14 (94080)
I0924 01:04:21.106891 31866 net.cpp:156] Memory required for data: 364403200
I0924 01:04:21.106914 31866 layer_factory.hpp:77] Creating layer inception_4a/relu_5x5
I0924 01:04:21.106942 31866 net.cpp:91] Creating Layer inception_4a/relu_5x5
I0924 01:04:21.106956 31866 net.cpp:425] inception_4a/relu_5x5 <- inception_4a/5x5
I0924 01:04:21.106973 31866 net.cpp:386] inception_4a/relu_5x5 -> inception_4a/5x5 (in-place)
I0924 01:04:21.107421 31866 net.cpp:141] Setting up inception_4a/relu_5x5
I0924 01:04:21.107445 31866 net.cpp:148] Top shape: 10 48 14 14 (94080)
I0924 01:04:21.107455 31866 net.cpp:156] Memory required for data: 364779520
I0924 01:04:21.107463 31866 layer_factory.hpp:77] Creating layer inception_4a/pool
I0924 01:04:21.107499 31866 net.cpp:91] Creating Layer inception_4a/pool
I0924 01:04:21.107512 31866 net.cpp:425] inception_4a/pool <- pool3/3x3_s2_pool3/3x3_s2_0_split_3
I0924 01:04:21.107532 31866 net.cpp:399] inception_4a/pool -> inception_4a/pool
I0924 01:04:21.107645 31866 net.cpp:141] Setting up inception_4a/pool
I0924 01:04:21.107661 31866 net.cpp:148] Top shape: 10 480 14 14 (940800)
I0924 01:04:21.107669 31866 net.cpp:156] Memory required for data: 368542720
I0924 01:04:21.107677 31866 layer_factory.hpp:77] Creating layer inception_4a/pool_proj
I0924 01:04:21.107707 31866 net.cpp:91] Creating Layer inception_4a/pool_proj
I0924 01:04:21.107717 31866 net.cpp:425] inception_4a/pool_proj <- inception_4a/pool
I0924 01:04:21.107743 31866 net.cpp:399] inception_4a/pool_proj -> inception_4a/pool_proj
I0924 01:04:21.110738 31866 net.cpp:141] Setting up inception_4a/pool_proj
I0924 01:04:21.110762 31866 net.cpp:148] Top shape: 10 64 14 14 (125440)
I0924 01:04:21.110770 31866 net.cpp:156] Memory required for data: 369044480
I0924 01:04:21.110786 31866 layer_factory.hpp:77] Creating layer inception_4a/relu_pool_proj
I0924 01:04:21.110800 31866 net.cpp:91] Creating Layer inception_4a/relu_pool_proj
I0924 01:04:21.110810 31866 net.cpp:425] inception_4a/relu_pool_proj <- inception_4a/pool_proj
I0924 01:04:21.110821 31866 net.cpp:386] inception_4a/relu_pool_proj -> inception_4a/pool_proj (in-place)
I0924 01:04:21.111398 31866 net.cpp:141] Setting up inception_4a/relu_pool_proj
I0924 01:04:21.111420 31866 net.cpp:148] Top shape: 10 64 14 14 (125440)
I0924 01:04:21.111428 31866 net.cpp:156] Memory required for data: 369546240
I0924 01:04:21.111440 31866 layer_factory.hpp:77] Creating layer inception_4a/output
I0924 01:04:21.111455 31866 net.cpp:91] Creating Layer inception_4a/output
I0924 01:04:21.111464 31866 net.cpp:425] inception_4a/output <- inception_4a/1x1
I0924 01:04:21.111475 31866 net.cpp:425] inception_4a/output <- inception_4a/3x3
I0924 01:04:21.111484 31866 net.cpp:425] inception_4a/output <- inception_4a/5x5
I0924 01:04:21.111492 31866 net.cpp:425] inception_4a/output <- inception_4a/pool_proj
I0924 01:04:21.111503 31866 net.cpp:399] inception_4a/output -> inception_4a/output
I0924 01:04:21.111567 31866 net.cpp:141] Setting up inception_4a/output
I0924 01:04:21.111580 31866 net.cpp:148] Top shape: 10 512 14 14 (1003520)
I0924 01:04:21.111588 31866 net.cpp:156] Memory required for data: 373560320
I0924 01:04:21.111595 31866 layer_factory.hpp:77] Creating layer inception_4a/output_inception_4a/output_0_split
I0924 01:04:21.111611 31866 net.cpp:91] Creating Layer inception_4a/output_inception_4a/output_0_split
I0924 01:04:21.111619 31866 net.cpp:425] inception_4a/output_inception_4a/output_0_split <- inception_4a/output
I0924 01:04:21.111635 31866 net.cpp:399] inception_4a/output_inception_4a/output_0_split -> inception_4a/output_inception_4a/output_0_split_0
I0924 01:04:21.111650 31866 net.cpp:399] inception_4a/output_inception_4a/output_0_split -> inception_4a/output_inception_4a/output_0_split_1
I0924 01:04:21.111665 31866 net.cpp:399] inception_4a/output_inception_4a/output_0_split -> inception_4a/output_inception_4a/output_0_split_2
I0924 01:04:21.111677 31866 net.cpp:399] inception_4a/output_inception_4a/output_0_split -> inception_4a/output_inception_4a/output_0_split_3
I0924 01:04:21.111805 31866 net.cpp:141] Setting up inception_4a/output_inception_4a/output_0_split
I0924 01:04:21.111819 31866 net.cpp:148] Top shape: 10 512 14 14 (1003520)
I0924 01:04:21.111829 31866 net.cpp:148] Top shape: 10 512 14 14 (1003520)
I0924 01:04:21.111840 31866 net.cpp:148] Top shape: 10 512 14 14 (1003520)
I0924 01:04:21.111848 31866 net.cpp:148] Top shape: 10 512 14 14 (1003520)
I0924 01:04:21.111855 31866 net.cpp:156] Memory required for data: 389616640
I0924 01:04:21.111863 31866 layer_factory.hpp:77] Creating layer inception_4b/1x1
I0924 01:04:21.111886 31866 net.cpp:91] Creating Layer inception_4b/1x1
I0924 01:04:21.111896 31866 net.cpp:425] inception_4b/1x1 <- inception_4a/output_inception_4a/output_0_split_0
I0924 01:04:21.111912 31866 net.cpp:399] inception_4b/1x1 -> inception_4b/1x1
I0924 01:04:21.114962 31866 net.cpp:141] Setting up inception_4b/1x1
I0924 01:04:21.114986 31866 net.cpp:148] Top shape: 10 160 14 14 (313600)
I0924 01:04:21.114997 31866 net.cpp:156] Memory required for data: 390871040
I0924 01:04:21.115016 31866 layer_factory.hpp:77] Creating layer inception_4b/relu_1x1
I0924 01:04:21.115039 31866 net.cpp:91] Creating Layer inception_4b/relu_1x1
I0924 01:04:21.115053 31866 net.cpp:425] inception_4b/relu_1x1 <- inception_4b/1x1
I0924 01:04:21.115069 31866 net.cpp:386] inception_4b/relu_1x1 -> inception_4b/1x1 (in-place)
I0924 01:04:21.115767 31866 net.cpp:141] Setting up inception_4b/relu_1x1
I0924 01:04:21.115789 31866 net.cpp:148] Top shape: 10 160 14 14 (313600)
I0924 01:04:21.115800 31866 net.cpp:156] Memory required for data: 392125440
I0924 01:04:21.115811 31866 layer_factory.hpp:77] Creating layer inception_4b/3x3_reduce
I0924 01:04:21.115839 31866 net.cpp:91] Creating Layer inception_4b/3x3_reduce
I0924 01:04:21.115854 31866 net.cpp:425] inception_4b/3x3_reduce <- inception_4a/output_inception_4a/output_0_split_1
I0924 01:04:21.115880 31866 net.cpp:399] inception_4b/3x3_reduce -> inception_4b/3x3_reduce
I0924 01:04:21.119491 31866 net.cpp:141] Setting up inception_4b/3x3_reduce
I0924 01:04:21.119534 31866 net.cpp:148] Top shape: 10 112 14 14 (219520)
I0924 01:04:21.119540 31866 net.cpp:156] Memory required for data: 393003520
I0924 01:04:21.119554 31866 layer_factory.hpp:77] Creating layer inception_4b/relu_3x3_reduce
I0924 01:04:21.119571 31866 net.cpp:91] Creating Layer inception_4b/relu_3x3_reduce
I0924 01:04:21.119580 31866 net.cpp:425] inception_4b/relu_3x3_reduce <- inception_4b/3x3_reduce
I0924 01:04:21.119595 31866 net.cpp:386] inception_4b/relu_3x3_reduce -> inception_4b/3x3_reduce (in-place)
I0924 01:04:21.119869 31866 net.cpp:141] Setting up inception_4b/relu_3x3_reduce
I0924 01:04:21.119882 31866 net.cpp:148] Top shape: 10 112 14 14 (219520)
I0924 01:04:21.119887 31866 net.cpp:156] Memory required for data: 393881600
I0924 01:04:21.119894 31866 layer_factory.hpp:77] Creating layer inception_4b/3x3
I0924 01:04:21.119917 31866 net.cpp:91] Creating Layer inception_4b/3x3
I0924 01:04:21.119925 31866 net.cpp:425] inception_4b/3x3 <- inception_4b/3x3_reduce
I0924 01:04:21.119935 31866 net.cpp:399] inception_4b/3x3 -> inception_4b/3x3
I0924 01:04:21.124478 31866 net.cpp:141] Setting up inception_4b/3x3
I0924 01:04:21.124500 31866 net.cpp:148] Top shape: 10 224 14 14 (439040)
I0924 01:04:21.124505 31866 net.cpp:156] Memory required for data: 395637760
I0924 01:04:21.124516 31866 layer_factory.hpp:77] Creating layer inception_4b/relu_3x3
I0924 01:04:21.124526 31866 net.cpp:91] Creating Layer inception_4b/relu_3x3
I0924 01:04:21.124532 31866 net.cpp:425] inception_4b/relu_3x3 <- inception_4b/3x3
I0924 01:04:21.124544 31866 net.cpp:386] inception_4b/relu_3x3 -> inception_4b/3x3 (in-place)
I0924 01:04:21.125001 31866 net.cpp:141] Setting up inception_4b/relu_3x3
I0924 01:04:21.125016 31866 net.cpp:148] Top shape: 10 224 14 14 (439040)
I0924 01:04:21.125021 31866 net.cpp:156] Memory required for data: 397393920
I0924 01:04:21.125027 31866 layer_factory.hpp:77] Creating layer inception_4b/5x5_reduce
I0924 01:04:21.125057 31866 net.cpp:91] Creating Layer inception_4b/5x5_reduce
I0924 01:04:21.125066 31866 net.cpp:425] inception_4b/5x5_reduce <- inception_4a/output_inception_4a/output_0_split_2
I0924 01:04:21.125075 31866 net.cpp:399] inception_4b/5x5_reduce -> inception_4b/5x5_reduce
I0924 01:04:21.126690 31866 net.cpp:141] Setting up inception_4b/5x5_reduce
I0924 01:04:21.126714 31866 net.cpp:148] Top shape: 10 24 14 14 (47040)
I0924 01:04:21.126720 31866 net.cpp:156] Memory required for data: 397582080
I0924 01:04:21.126730 31866 layer_factory.hpp:77] Creating layer inception_4b/relu_5x5_reduce
I0924 01:04:21.126740 31866 net.cpp:91] Creating Layer inception_4b/relu_5x5_reduce
I0924 01:04:21.126746 31866 net.cpp:425] inception_4b/relu_5x5_reduce <- inception_4b/5x5_reduce
I0924 01:04:21.126759 31866 net.cpp:386] inception_4b/relu_5x5_reduce -> inception_4b/5x5_reduce (in-place)
I0924 01:04:21.127203 31866 net.cpp:141] Setting up inception_4b/relu_5x5_reduce
I0924 01:04:21.127218 31866 net.cpp:148] Top shape: 10 24 14 14 (47040)
I0924 01:04:21.127223 31866 net.cpp:156] Memory required for data: 397770240
I0924 01:04:21.127228 31866 layer_factory.hpp:77] Creating layer inception_4b/5x5
I0924 01:04:21.127248 31866 net.cpp:91] Creating Layer inception_4b/5x5
I0924 01:04:21.127254 31866 net.cpp:425] inception_4b/5x5 <- inception_4b/5x5_reduce
I0924 01:04:21.127267 31866 net.cpp:399] inception_4b/5x5 -> inception_4b/5x5
I0924 01:04:21.129853 31866 net.cpp:141] Setting up inception_4b/5x5
I0924 01:04:21.129873 31866 net.cpp:148] Top shape: 10 64 14 14 (125440)
I0924 01:04:21.129879 31866 net.cpp:156] Memory required for data: 398272000
I0924 01:04:21.129889 31866 layer_factory.hpp:77] Creating layer inception_4b/relu_5x5
I0924 01:04:21.129902 31866 net.cpp:91] Creating Layer inception_4b/relu_5x5
I0924 01:04:21.129909 31866 net.cpp:425] inception_4b/relu_5x5 <- inception_4b/5x5
I0924 01:04:21.129917 31866 net.cpp:386] inception_4b/relu_5x5 -> inception_4b/5x5 (in-place)
I0924 01:04:21.130187 31866 net.cpp:141] Setting up inception_4b/relu_5x5
I0924 01:04:21.130199 31866 net.cpp:148] Top shape: 10 64 14 14 (125440)
I0924 01:04:21.130204 31866 net.cpp:156] Memory required for data: 398773760
I0924 01:04:21.130209 31866 layer_factory.hpp:77] Creating layer inception_4b/pool
I0924 01:04:21.130221 31866 net.cpp:91] Creating Layer inception_4b/pool
I0924 01:04:21.130228 31866 net.cpp:425] inception_4b/pool <- inception_4a/output_inception_4a/output_0_split_3
I0924 01:04:21.130239 31866 net.cpp:399] inception_4b/pool -> inception_4b/pool
I0924 01:04:21.130313 31866 net.cpp:141] Setting up inception_4b/pool
I0924 01:04:21.130323 31866 net.cpp:148] Top shape: 10 512 14 14 (1003520)
I0924 01:04:21.130327 31866 net.cpp:156] Memory required for data: 402787840
I0924 01:04:21.130332 31866 layer_factory.hpp:77] Creating layer inception_4b/pool_proj
I0924 01:04:21.130352 31866 net.cpp:91] Creating Layer inception_4b/pool_proj
I0924 01:04:21.130359 31866 net.cpp:425] inception_4b/pool_proj <- inception_4b/pool
I0924 01:04:21.130368 31866 net.cpp:399] inception_4b/pool_proj -> inception_4b/pool_proj
I0924 01:04:21.132213 31866 net.cpp:141] Setting up inception_4b/pool_proj
I0924 01:04:21.132235 31866 net.cpp:148] Top shape: 10 64 14 14 (125440)
I0924 01:04:21.132241 31866 net.cpp:156] Memory required for data: 403289600
I0924 01:04:21.132249 31866 layer_factory.hpp:77] Creating layer inception_4b/relu_pool_proj
I0924 01:04:21.132263 31866 net.cpp:91] Creating Layer inception_4b/relu_pool_proj
I0924 01:04:21.132269 31866 net.cpp:425] inception_4b/relu_pool_proj <- inception_4b/pool_proj
I0924 01:04:21.132277 31866 net.cpp:386] inception_4b/relu_pool_proj -> inception_4b/pool_proj (in-place)
I0924 01:04:21.132722 31866 net.cpp:141] Setting up inception_4b/relu_pool_proj
I0924 01:04:21.132736 31866 net.cpp:148] Top shape: 10 64 14 14 (125440)
I0924 01:04:21.132741 31866 net.cpp:156] Memory required for data: 403791360
I0924 01:04:21.132747 31866 layer_factory.hpp:77] Creating layer inception_4b/output
I0924 01:04:21.132761 31866 net.cpp:91] Creating Layer inception_4b/output
I0924 01:04:21.132766 31866 net.cpp:425] inception_4b/output <- inception_4b/1x1
I0924 01:04:21.132774 31866 net.cpp:425] inception_4b/output <- inception_4b/3x3
I0924 01:04:21.132781 31866 net.cpp:425] inception_4b/output <- inception_4b/5x5
I0924 01:04:21.132786 31866 net.cpp:425] inception_4b/output <- inception_4b/pool_proj
I0924 01:04:21.132793 31866 net.cpp:399] inception_4b/output -> inception_4b/output
I0924 01:04:21.132843 31866 net.cpp:141] Setting up inception_4b/output
I0924 01:04:21.132854 31866 net.cpp:148] Top shape: 10 512 14 14 (1003520)
I0924 01:04:21.132859 31866 net.cpp:156] Memory required for data: 407805440
I0924 01:04:21.132864 31866 layer_factory.hpp:77] Creating layer inception_4b/output_inception_4b/output_0_split
I0924 01:04:21.132872 31866 net.cpp:91] Creating Layer inception_4b/output_inception_4b/output_0_split
I0924 01:04:21.132879 31866 net.cpp:425] inception_4b/output_inception_4b/output_0_split <- inception_4b/output
I0924 01:04:21.132889 31866 net.cpp:399] inception_4b/output_inception_4b/output_0_split -> inception_4b/output_inception_4b/output_0_split_0
I0924 01:04:21.132900 31866 net.cpp:399] inception_4b/output_inception_4b/output_0_split -> inception_4b/output_inception_4b/output_0_split_1
I0924 01:04:21.132910 31866 net.cpp:399] inception_4b/output_inception_4b/output_0_split -> inception_4b/output_inception_4b/output_0_split_2
I0924 01:04:21.132918 31866 net.cpp:399] inception_4b/output_inception_4b/output_0_split -> inception_4b/output_inception_4b/output_0_split_3
I0924 01:04:21.133019 31866 net.cpp:141] Setting up inception_4b/output_inception_4b/output_0_split
I0924 01:04:21.133029 31866 net.cpp:148] Top shape: 10 512 14 14 (1003520)
I0924 01:04:21.133035 31866 net.cpp:148] Top shape: 10 512 14 14 (1003520)
I0924 01:04:21.133041 31866 net.cpp:148] Top shape: 10 512 14 14 (1003520)
I0924 01:04:21.133047 31866 net.cpp:148] Top shape: 10 512 14 14 (1003520)
I0924 01:04:21.133051 31866 net.cpp:156] Memory required for data: 423861760
I0924 01:04:21.133056 31866 layer_factory.hpp:77] Creating layer inception_4c/1x1
I0924 01:04:21.133071 31866 net.cpp:91] Creating Layer inception_4c/1x1
I0924 01:04:21.133077 31866 net.cpp:425] inception_4c/1x1 <- inception_4b/output_inception_4b/output_0_split_0
I0924 01:04:21.133086 31866 net.cpp:399] inception_4c/1x1 -> inception_4c/1x1
I0924 01:04:21.135023 31866 net.cpp:141] Setting up inception_4c/1x1
I0924 01:04:21.135046 31866 net.cpp:148] Top shape: 10 128 14 14 (250880)
I0924 01:04:21.135051 31866 net.cpp:156] Memory required for data: 424865280
I0924 01:04:21.135061 31866 layer_factory.hpp:77] Creating layer inception_4c/relu_1x1
I0924 01:04:21.135071 31866 net.cpp:91] Creating Layer inception_4c/relu_1x1
I0924 01:04:21.135076 31866 net.cpp:425] inception_4c/relu_1x1 <- inception_4c/1x1
I0924 01:04:21.135084 31866 net.cpp:386] inception_4c/relu_1x1 -> inception_4c/1x1 (in-place)
I0924 01:04:21.135560 31866 net.cpp:141] Setting up inception_4c/relu_1x1
I0924 01:04:21.135577 31866 net.cpp:148] Top shape: 10 128 14 14 (250880)
I0924 01:04:21.135582 31866 net.cpp:156] Memory required for data: 425868800
I0924 01:04:21.135588 31866 layer_factory.hpp:77] Creating layer inception_4c/3x3_reduce
I0924 01:04:21.135606 31866 net.cpp:91] Creating Layer inception_4c/3x3_reduce
I0924 01:04:21.135612 31866 net.cpp:425] inception_4c/3x3_reduce <- inception_4b/output_inception_4b/output_0_split_1
I0924 01:04:21.135622 31866 net.cpp:399] inception_4c/3x3_reduce -> inception_4c/3x3_reduce
I0924 01:04:21.137773 31866 net.cpp:141] Setting up inception_4c/3x3_reduce
I0924 01:04:21.137796 31866 net.cpp:148] Top shape: 10 128 14 14 (250880)
I0924 01:04:21.137802 31866 net.cpp:156] Memory required for data: 426872320
I0924 01:04:21.137812 31866 layer_factory.hpp:77] Creating layer inception_4c/relu_3x3_reduce
I0924 01:04:21.137821 31866 net.cpp:91] Creating Layer inception_4c/relu_3x3_reduce
I0924 01:04:21.137828 31866 net.cpp:425] inception_4c/relu_3x3_reduce <- inception_4c/3x3_reduce
I0924 01:04:21.137836 31866 net.cpp:386] inception_4c/relu_3x3_reduce -> inception_4c/3x3_reduce (in-place)
I0924 01:04:21.138098 31866 net.cpp:141] Setting up inception_4c/relu_3x3_reduce
I0924 01:04:21.138111 31866 net.cpp:148] Top shape: 10 128 14 14 (250880)
I0924 01:04:21.138116 31866 net.cpp:156] Memory required for data: 427875840
I0924 01:04:21.138121 31866 layer_factory.hpp:77] Creating layer inception_4c/3x3
I0924 01:04:21.138139 31866 net.cpp:91] Creating Layer inception_4c/3x3
I0924 01:04:21.138146 31866 net.cpp:425] inception_4c/3x3 <- inception_4c/3x3_reduce
I0924 01:04:21.138155 31866 net.cpp:399] inception_4c/3x3 -> inception_4c/3x3
I0924 01:04:21.142951 31866 net.cpp:141] Setting up inception_4c/3x3
I0924 01:04:21.142972 31866 net.cpp:148] Top shape: 10 256 14 14 (501760)
I0924 01:04:21.142978 31866 net.cpp:156] Memory required for data: 429882880
I0924 01:04:21.142988 31866 layer_factory.hpp:77] Creating layer inception_4c/relu_3x3
I0924 01:04:21.143000 31866 net.cpp:91] Creating Layer inception_4c/relu_3x3
I0924 01:04:21.143007 31866 net.cpp:425] inception_4c/relu_3x3 <- inception_4c/3x3
I0924 01:04:21.143014 31866 net.cpp:386] inception_4c/relu_3x3 -> inception_4c/3x3 (in-place)
I0924 01:04:21.143462 31866 net.cpp:141] Setting up inception_4c/relu_3x3
I0924 01:04:21.143477 31866 net.cpp:148] Top shape: 10 256 14 14 (501760)
I0924 01:04:21.143482 31866 net.cpp:156] Memory required for data: 431889920
I0924 01:04:21.143487 31866 layer_factory.hpp:77] Creating layer inception_4c/5x5_reduce
I0924 01:04:21.143503 31866 net.cpp:91] Creating Layer inception_4c/5x5_reduce
I0924 01:04:21.143509 31866 net.cpp:425] inception_4c/5x5_reduce <- inception_4b/output_inception_4b/output_0_split_2
I0924 01:04:21.143523 31866 net.cpp:399] inception_4c/5x5_reduce -> inception_4c/5x5_reduce
I0924 01:04:21.145067 31866 net.cpp:141] Setting up inception_4c/5x5_reduce
I0924 01:04:21.145088 31866 net.cpp:148] Top shape: 10 24 14 14 (47040)
I0924 01:04:21.145093 31866 net.cpp:156] Memory required for data: 432078080
I0924 01:04:21.145104 31866 layer_factory.hpp:77] Creating layer inception_4c/relu_5x5_reduce
I0924 01:04:21.145117 31866 net.cpp:91] Creating Layer inception_4c/relu_5x5_reduce
I0924 01:04:21.145123 31866 net.cpp:425] inception_4c/relu_5x5_reduce <- inception_4c/5x5_reduce
I0924 01:04:21.145131 31866 net.cpp:386] inception_4c/relu_5x5_reduce -> inception_4c/5x5_reduce (in-place)
I0924 01:04:21.145572 31866 net.cpp:141] Setting up inception_4c/relu_5x5_reduce
I0924 01:04:21.145586 31866 net.cpp:148] Top shape: 10 24 14 14 (47040)
I0924 01:04:21.145592 31866 net.cpp:156] Memory required for data: 432266240
I0924 01:04:21.145597 31866 layer_factory.hpp:77] Creating layer inception_4c/5x5
I0924 01:04:21.145613 31866 net.cpp:91] Creating Layer inception_4c/5x5
I0924 01:04:21.145620 31866 net.cpp:425] inception_4c/5x5 <- inception_4c/5x5_reduce
I0924 01:04:21.145633 31866 net.cpp:399] inception_4c/5x5 -> inception_4c/5x5
I0924 01:04:21.147747 31866 net.cpp:141] Setting up inception_4c/5x5
I0924 01:04:21.147770 31866 net.cpp:148] Top shape: 10 64 14 14 (125440)
I0924 01:04:21.147776 31866 net.cpp:156] Memory required for data: 432768000
I0924 01:04:21.147788 31866 layer_factory.hpp:77] Creating layer inception_4c/relu_5x5
I0924 01:04:21.147796 31866 net.cpp:91] Creating Layer inception_4c/relu_5x5
I0924 01:04:21.147804 31866 net.cpp:425] inception_4c/relu_5x5 <- inception_4c/5x5
I0924 01:04:21.147811 31866 net.cpp:386] inception_4c/relu_5x5 -> inception_4c/5x5 (in-place)
I0924 01:04:21.148078 31866 net.cpp:141] Setting up inception_4c/relu_5x5
I0924 01:04:21.148093 31866 net.cpp:148] Top shape: 10 64 14 14 (125440)
I0924 01:04:21.148098 31866 net.cpp:156] Memory required for data: 433269760
I0924 01:04:21.148103 31866 layer_factory.hpp:77] Creating layer inception_4c/pool
I0924 01:04:21.148113 31866 net.cpp:91] Creating Layer inception_4c/pool
I0924 01:04:21.148118 31866 net.cpp:425] inception_4c/pool <- inception_4b/output_inception_4b/output_0_split_3
I0924 01:04:21.148128 31866 net.cpp:399] inception_4c/pool -> inception_4c/pool
I0924 01:04:21.148203 31866 net.cpp:141] Setting up inception_4c/pool
I0924 01:04:21.148216 31866 net.cpp:148] Top shape: 10 512 14 14 (1003520)
I0924 01:04:21.148221 31866 net.cpp:156] Memory required for data: 437283840
I0924 01:04:21.148226 31866 layer_factory.hpp:77] Creating layer inception_4c/pool_proj
I0924 01:04:21.148239 31866 net.cpp:91] Creating Layer inception_4c/pool_proj
I0924 01:04:21.148246 31866 net.cpp:425] inception_4c/pool_proj <- inception_4c/pool
I0924 01:04:21.148257 31866 net.cpp:399] inception_4c/pool_proj -> inception_4c/pool_proj
I0924 01:04:21.150832 31866 net.cpp:141] Setting up inception_4c/pool_proj
I0924 01:04:21.150854 31866 net.cpp:148] Top shape: 10 64 14 14 (125440)
I0924 01:04:21.150861 31866 net.cpp:156] Memory required for data: 437785600
I0924 01:04:21.150892 31866 layer_factory.hpp:77] Creating layer inception_4c/relu_pool_proj
I0924 01:04:21.150902 31866 net.cpp:91] Creating Layer inception_4c/relu_pool_proj
I0924 01:04:21.150908 31866 net.cpp:425] inception_4c/relu_pool_proj <- inception_4c/pool_proj
I0924 01:04:21.150915 31866 net.cpp:386] inception_4c/relu_pool_proj -> inception_4c/pool_proj (in-place)
I0924 01:04:21.151360 31866 net.cpp:141] Setting up inception_4c/relu_pool_proj
I0924 01:04:21.151377 31866 net.cpp:148] Top shape: 10 64 14 14 (125440)
I0924 01:04:21.151382 31866 net.cpp:156] Memory required for data: 438287360
I0924 01:04:21.151388 31866 layer_factory.hpp:77] Creating layer inception_4c/output
I0924 01:04:21.151397 31866 net.cpp:91] Creating Layer inception_4c/output
I0924 01:04:21.151402 31866 net.cpp:425] inception_4c/output <- inception_4c/1x1
I0924 01:04:21.151409 31866 net.cpp:425] inception_4c/output <- inception_4c/3x3
I0924 01:04:21.151415 31866 net.cpp:425] inception_4c/output <- inception_4c/5x5
I0924 01:04:21.151422 31866 net.cpp:425] inception_4c/output <- inception_4c/pool_proj
I0924 01:04:21.151428 31866 net.cpp:399] inception_4c/output -> inception_4c/output
I0924 01:04:21.151482 31866 net.cpp:141] Setting up inception_4c/output
I0924 01:04:21.151494 31866 net.cpp:148] Top shape: 10 512 14 14 (1003520)
I0924 01:04:21.151497 31866 net.cpp:156] Memory required for data: 442301440
I0924 01:04:21.151504 31866 layer_factory.hpp:77] Creating layer inception_4c/output_inception_4c/output_0_split
I0924 01:04:21.151511 31866 net.cpp:91] Creating Layer inception_4c/output_inception_4c/output_0_split
I0924 01:04:21.151516 31866 net.cpp:425] inception_4c/output_inception_4c/output_0_split <- inception_4c/output
I0924 01:04:21.151526 31866 net.cpp:399] inception_4c/output_inception_4c/output_0_split -> inception_4c/output_inception_4c/output_0_split_0
I0924 01:04:21.151536 31866 net.cpp:399] inception_4c/output_inception_4c/output_0_split -> inception_4c/output_inception_4c/output_0_split_1
I0924 01:04:21.151546 31866 net.cpp:399] inception_4c/output_inception_4c/output_0_split -> inception_4c/output_inception_4c/output_0_split_2
I0924 01:04:21.151554 31866 net.cpp:399] inception_4c/output_inception_4c/output_0_split -> inception_4c/output_inception_4c/output_0_split_3
I0924 01:04:21.151659 31866 net.cpp:141] Setting up inception_4c/output_inception_4c/output_0_split
I0924 01:04:21.151670 31866 net.cpp:148] Top shape: 10 512 14 14 (1003520)
I0924 01:04:21.151676 31866 net.cpp:148] Top shape: 10 512 14 14 (1003520)
I0924 01:04:21.151682 31866 net.cpp:148] Top shape: 10 512 14 14 (1003520)
I0924 01:04:21.151687 31866 net.cpp:148] Top shape: 10 512 14 14 (1003520)
I0924 01:04:21.151691 31866 net.cpp:156] Memory required for data: 458357760
I0924 01:04:21.151696 31866 layer_factory.hpp:77] Creating layer inception_4d/1x1
I0924 01:04:21.151712 31866 net.cpp:91] Creating Layer inception_4d/1x1
I0924 01:04:21.151720 31866 net.cpp:425] inception_4d/1x1 <- inception_4c/output_inception_4c/output_0_split_0
I0924 01:04:21.151731 31866 net.cpp:399] inception_4d/1x1 -> inception_4d/1x1
I0924 01:04:21.153642 31866 net.cpp:141] Setting up inception_4d/1x1
I0924 01:04:21.153663 31866 net.cpp:148] Top shape: 10 112 14 14 (219520)
I0924 01:04:21.153668 31866 net.cpp:156] Memory required for data: 459235840
I0924 01:04:21.153678 31866 layer_factory.hpp:77] Creating layer inception_4d/relu_1x1
I0924 01:04:21.153690 31866 net.cpp:91] Creating Layer inception_4d/relu_1x1
I0924 01:04:21.153697 31866 net.cpp:425] inception_4d/relu_1x1 <- inception_4d/1x1
I0924 01:04:21.153704 31866 net.cpp:386] inception_4d/relu_1x1 -> inception_4d/1x1 (in-place)
I0924 01:04:21.154150 31866 net.cpp:141] Setting up inception_4d/relu_1x1
I0924 01:04:21.154165 31866 net.cpp:148] Top shape: 10 112 14 14 (219520)
I0924 01:04:21.154170 31866 net.cpp:156] Memory required for data: 460113920
I0924 01:04:21.154175 31866 layer_factory.hpp:77] Creating layer inception_4d/3x3_reduce
I0924 01:04:21.154191 31866 net.cpp:91] Creating Layer inception_4d/3x3_reduce
I0924 01:04:21.154197 31866 net.cpp:425] inception_4d/3x3_reduce <- inception_4c/output_inception_4c/output_0_split_1
I0924 01:04:21.154211 31866 net.cpp:399] inception_4d/3x3_reduce -> inception_4d/3x3_reduce
I0924 01:04:21.156512 31866 net.cpp:141] Setting up inception_4d/3x3_reduce
I0924 01:04:21.156532 31866 net.cpp:148] Top shape: 10 144 14 14 (282240)
I0924 01:04:21.156538 31866 net.cpp:156] Memory required for data: 461242880
I0924 01:04:21.156548 31866 layer_factory.hpp:77] Creating layer inception_4d/relu_3x3_reduce
I0924 01:04:21.156559 31866 net.cpp:91] Creating Layer inception_4d/relu_3x3_reduce
I0924 01:04:21.156566 31866 net.cpp:425] inception_4d/relu_3x3_reduce <- inception_4d/3x3_reduce
I0924 01:04:21.156574 31866 net.cpp:386] inception_4d/relu_3x3_reduce -> inception_4d/3x3_reduce (in-place)
I0924 01:04:21.156843 31866 net.cpp:141] Setting up inception_4d/relu_3x3_reduce
I0924 01:04:21.156857 31866 net.cpp:148] Top shape: 10 144 14 14 (282240)
I0924 01:04:21.156862 31866 net.cpp:156] Memory required for data: 462371840
I0924 01:04:21.156867 31866 layer_factory.hpp:77] Creating layer inception_4d/3x3
I0924 01:04:21.156886 31866 net.cpp:91] Creating Layer inception_4d/3x3
I0924 01:04:21.156893 31866 net.cpp:425] inception_4d/3x3 <- inception_4d/3x3_reduce
I0924 01:04:21.156903 31866 net.cpp:399] inception_4d/3x3 -> inception_4d/3x3
I0924 01:04:21.162554 31866 net.cpp:141] Setting up inception_4d/3x3
I0924 01:04:21.162575 31866 net.cpp:148] Top shape: 10 288 14 14 (564480)
I0924 01:04:21.162580 31866 net.cpp:156] Memory required for data: 464629760
I0924 01:04:21.162590 31866 layer_factory.hpp:77] Creating layer inception_4d/relu_3x3
I0924 01:04:21.162611 31866 net.cpp:91] Creating Layer inception_4d/relu_3x3
I0924 01:04:21.162617 31866 net.cpp:425] inception_4d/relu_3x3 <- inception_4d/3x3
I0924 01:04:21.162626 31866 net.cpp:386] inception_4d/relu_3x3 -> inception_4d/3x3 (in-place)
I0924 01:04:21.163076 31866 net.cpp:141] Setting up inception_4d/relu_3x3
I0924 01:04:21.163090 31866 net.cpp:148] Top shape: 10 288 14 14 (564480)
I0924 01:04:21.163095 31866 net.cpp:156] Memory required for data: 466887680
I0924 01:04:21.163100 31866 layer_factory.hpp:77] Creating layer inception_4d/5x5_reduce
I0924 01:04:21.163116 31866 net.cpp:91] Creating Layer inception_4d/5x5_reduce
I0924 01:04:21.163123 31866 net.cpp:425] inception_4d/5x5_reduce <- inception_4c/output_inception_4c/output_0_split_2
I0924 01:04:21.163137 31866 net.cpp:399] inception_4d/5x5_reduce -> inception_4d/5x5_reduce
I0924 01:04:21.164755 31866 net.cpp:141] Setting up inception_4d/5x5_reduce
I0924 01:04:21.164778 31866 net.cpp:148] Top shape: 10 32 14 14 (62720)
I0924 01:04:21.164784 31866 net.cpp:156] Memory required for data: 467138560
I0924 01:04:21.164795 31866 layer_factory.hpp:77] Creating layer inception_4d/relu_5x5_reduce
I0924 01:04:21.164805 31866 net.cpp:91] Creating Layer inception_4d/relu_5x5_reduce
I0924 01:04:21.164811 31866 net.cpp:425] inception_4d/relu_5x5_reduce <- inception_4d/5x5_reduce
I0924 01:04:21.164821 31866 net.cpp:386] inception_4d/relu_5x5_reduce -> inception_4d/5x5_reduce (in-place)
I0924 01:04:21.165266 31866 net.cpp:141] Setting up inception_4d/relu_5x5_reduce
I0924 01:04:21.165283 31866 net.cpp:148] Top shape: 10 32 14 14 (62720)
I0924 01:04:21.165288 31866 net.cpp:156] Memory required for data: 467389440
I0924 01:04:21.165294 31866 layer_factory.hpp:77] Creating layer inception_4d/5x5
I0924 01:04:21.165310 31866 net.cpp:91] Creating Layer inception_4d/5x5
I0924 01:04:21.165318 31866 net.cpp:425] inception_4d/5x5 <- inception_4d/5x5_reduce
I0924 01:04:21.165326 31866 net.cpp:399] inception_4d/5x5 -> inception_4d/5x5
I0924 01:04:21.167462 31866 net.cpp:141] Setting up inception_4d/5x5
I0924 01:04:21.167484 31866 net.cpp:148] Top shape: 10 64 14 14 (125440)
I0924 01:04:21.167489 31866 net.cpp:156] Memory required for data: 467891200
I0924 01:04:21.167500 31866 layer_factory.hpp:77] Creating layer inception_4d/relu_5x5
I0924 01:04:21.167512 31866 net.cpp:91] Creating Layer inception_4d/relu_5x5
I0924 01:04:21.167520 31866 net.cpp:425] inception_4d/relu_5x5 <- inception_4d/5x5
I0924 01:04:21.167527 31866 net.cpp:386] inception_4d/relu_5x5 -> inception_4d/5x5 (in-place)
I0924 01:04:21.167798 31866 net.cpp:141] Setting up inception_4d/relu_5x5
I0924 01:04:21.167810 31866 net.cpp:148] Top shape: 10 64 14 14 (125440)
I0924 01:04:21.167815 31866 net.cpp:156] Memory required for data: 468392960
I0924 01:04:21.167820 31866 layer_factory.hpp:77] Creating layer inception_4d/pool
I0924 01:04:21.167830 31866 net.cpp:91] Creating Layer inception_4d/pool
I0924 01:04:21.167836 31866 net.cpp:425] inception_4d/pool <- inception_4c/output_inception_4c/output_0_split_3
I0924 01:04:21.167848 31866 net.cpp:399] inception_4d/pool -> inception_4d/pool
I0924 01:04:21.167923 31866 net.cpp:141] Setting up inception_4d/pool
I0924 01:04:21.167934 31866 net.cpp:148] Top shape: 10 512 14 14 (1003520)
I0924 01:04:21.167938 31866 net.cpp:156] Memory required for data: 472407040
I0924 01:04:21.167944 31866 layer_factory.hpp:77] Creating layer inception_4d/pool_proj
I0924 01:04:21.167963 31866 net.cpp:91] Creating Layer inception_4d/pool_proj
I0924 01:04:21.167970 31866 net.cpp:425] inception_4d/pool_proj <- inception_4d/pool
I0924 01:04:21.167979 31866 net.cpp:399] inception_4d/pool_proj -> inception_4d/pool_proj
I0924 01:04:21.169914 31866 net.cpp:141] Setting up inception_4d/pool_proj
I0924 01:04:21.169934 31866 net.cpp:148] Top shape: 10 64 14 14 (125440)
I0924 01:04:21.169940 31866 net.cpp:156] Memory required for data: 472908800
I0924 01:04:21.169950 31866 layer_factory.hpp:77] Creating layer inception_4d/relu_pool_proj
I0924 01:04:21.169958 31866 net.cpp:91] Creating Layer inception_4d/relu_pool_proj
I0924 01:04:21.169965 31866 net.cpp:425] inception_4d/relu_pool_proj <- inception_4d/pool_proj
I0924 01:04:21.169977 31866 net.cpp:386] inception_4d/relu_pool_proj -> inception_4d/pool_proj (in-place)
I0924 01:04:21.170435 31866 net.cpp:141] Setting up inception_4d/relu_pool_proj
I0924 01:04:21.170450 31866 net.cpp:148] Top shape: 10 64 14 14 (125440)
I0924 01:04:21.170455 31866 net.cpp:156] Memory required for data: 473410560
I0924 01:04:21.170460 31866 layer_factory.hpp:77] Creating layer inception_4d/output
I0924 01:04:21.170469 31866 net.cpp:91] Creating Layer inception_4d/output
I0924 01:04:21.170475 31866 net.cpp:425] inception_4d/output <- inception_4d/1x1
I0924 01:04:21.170482 31866 net.cpp:425] inception_4d/output <- inception_4d/3x3
I0924 01:04:21.170488 31866 net.cpp:425] inception_4d/output <- inception_4d/5x5
I0924 01:04:21.170495 31866 net.cpp:425] inception_4d/output <- inception_4d/pool_proj
I0924 01:04:21.170506 31866 net.cpp:399] inception_4d/output -> inception_4d/output
I0924 01:04:21.170560 31866 net.cpp:141] Setting up inception_4d/output
I0924 01:04:21.170572 31866 net.cpp:148] Top shape: 10 528 14 14 (1034880)
I0924 01:04:21.170575 31866 net.cpp:156] Memory required for data: 477550080
I0924 01:04:21.170580 31866 layer_factory.hpp:77] Creating layer inception_4d/output_inception_4d/output_0_split
I0924 01:04:21.170588 31866 net.cpp:91] Creating Layer inception_4d/output_inception_4d/output_0_split
I0924 01:04:21.170604 31866 net.cpp:425] inception_4d/output_inception_4d/output_0_split <- inception_4d/output
I0924 01:04:21.170614 31866 net.cpp:399] inception_4d/output_inception_4d/output_0_split -> inception_4d/output_inception_4d/output_0_split_0
I0924 01:04:21.170629 31866 net.cpp:399] inception_4d/output_inception_4d/output_0_split -> inception_4d/output_inception_4d/output_0_split_1
I0924 01:04:21.170639 31866 net.cpp:399] inception_4d/output_inception_4d/output_0_split -> inception_4d/output_inception_4d/output_0_split_2
I0924 01:04:21.170647 31866 net.cpp:399] inception_4d/output_inception_4d/output_0_split -> inception_4d/output_inception_4d/output_0_split_3
I0924 01:04:21.170761 31866 net.cpp:141] Setting up inception_4d/output_inception_4d/output_0_split
I0924 01:04:21.170773 31866 net.cpp:148] Top shape: 10 528 14 14 (1034880)
I0924 01:04:21.170778 31866 net.cpp:148] Top shape: 10 528 14 14 (1034880)
I0924 01:04:21.170784 31866 net.cpp:148] Top shape: 10 528 14 14 (1034880)
I0924 01:04:21.170789 31866 net.cpp:148] Top shape: 10 528 14 14 (1034880)
I0924 01:04:21.170794 31866 net.cpp:156] Memory required for data: 494108160
I0924 01:04:21.170799 31866 layer_factory.hpp:77] Creating layer inception_4e/1x1
I0924 01:04:21.170816 31866 net.cpp:91] Creating Layer inception_4e/1x1
I0924 01:04:21.170822 31866 net.cpp:425] inception_4e/1x1 <- inception_4d/output_inception_4d/output_0_split_0
I0924 01:04:21.170832 31866 net.cpp:399] inception_4e/1x1 -> inception_4e/1x1
I0924 01:04:21.174358 31866 net.cpp:141] Setting up inception_4e/1x1
I0924 01:04:21.174379 31866 net.cpp:148] Top shape: 10 256 14 14 (501760)
I0924 01:04:21.174384 31866 net.cpp:156] Memory required for data: 496115200
I0924 01:04:21.174394 31866 layer_factory.hpp:77] Creating layer inception_4e/relu_1x1
I0924 01:04:21.174404 31866 net.cpp:91] Creating Layer inception_4e/relu_1x1
I0924 01:04:21.174410 31866 net.cpp:425] inception_4e/relu_1x1 <- inception_4e/1x1
I0924 01:04:21.174422 31866 net.cpp:386] inception_4e/relu_1x1 -> inception_4e/1x1 (in-place)
I0924 01:04:21.174885 31866 net.cpp:141] Setting up inception_4e/relu_1x1
I0924 01:04:21.174901 31866 net.cpp:148] Top shape: 10 256 14 14 (501760)
I0924 01:04:21.174906 31866 net.cpp:156] Memory required for data: 498122240
I0924 01:04:21.174911 31866 layer_factory.hpp:77] Creating layer inception_4e/3x3_reduce
I0924 01:04:21.174928 31866 net.cpp:91] Creating Layer inception_4e/3x3_reduce
I0924 01:04:21.174935 31866 net.cpp:425] inception_4e/3x3_reduce <- inception_4d/output_inception_4d/output_0_split_1
I0924 01:04:21.174948 31866 net.cpp:399] inception_4e/3x3_reduce -> inception_4e/3x3_reduce
I0924 01:04:21.177340 31866 net.cpp:141] Setting up inception_4e/3x3_reduce
I0924 01:04:21.177359 31866 net.cpp:148] Top shape: 10 160 14 14 (313600)
I0924 01:04:21.177366 31866 net.cpp:156] Memory required for data: 499376640
I0924 01:04:21.177376 31866 layer_factory.hpp:77] Creating layer inception_4e/relu_3x3_reduce
I0924 01:04:21.177384 31866 net.cpp:91] Creating Layer inception_4e/relu_3x3_reduce
I0924 01:04:21.177392 31866 net.cpp:425] inception_4e/relu_3x3_reduce <- inception_4e/3x3_reduce
I0924 01:04:21.177402 31866 net.cpp:386] inception_4e/relu_3x3_reduce -> inception_4e/3x3_reduce (in-place)
I0924 01:04:21.177677 31866 net.cpp:141] Setting up inception_4e/relu_3x3_reduce
I0924 01:04:21.177690 31866 net.cpp:148] Top shape: 10 160 14 14 (313600)
I0924 01:04:21.177695 31866 net.cpp:156] Memory required for data: 500631040
I0924 01:04:21.177700 31866 layer_factory.hpp:77] Creating layer inception_4e/3x3
I0924 01:04:21.177717 31866 net.cpp:91] Creating Layer inception_4e/3x3
I0924 01:04:21.177724 31866 net.cpp:425] inception_4e/3x3 <- inception_4e/3x3_reduce
I0924 01:04:21.177736 31866 net.cpp:399] inception_4e/3x3 -> inception_4e/3x3
I0924 01:04:21.184315 31866 net.cpp:141] Setting up inception_4e/3x3
I0924 01:04:21.184336 31866 net.cpp:148] Top shape: 10 320 14 14 (627200)
I0924 01:04:21.184342 31866 net.cpp:156] Memory required for data: 503139840
I0924 01:04:21.184352 31866 layer_factory.hpp:77] Creating layer inception_4e/relu_3x3
I0924 01:04:21.184365 31866 net.cpp:91] Creating Layer inception_4e/relu_3x3
I0924 01:04:21.184371 31866 net.cpp:425] inception_4e/relu_3x3 <- inception_4e/3x3
I0924 01:04:21.184379 31866 net.cpp:386] inception_4e/relu_3x3 -> inception_4e/3x3 (in-place)
I0924 01:04:21.184859 31866 net.cpp:141] Setting up inception_4e/relu_3x3
I0924 01:04:21.184873 31866 net.cpp:148] Top shape: 10 320 14 14 (627200)
I0924 01:04:21.184878 31866 net.cpp:156] Memory required for data: 505648640
I0924 01:04:21.184885 31866 layer_factory.hpp:77] Creating layer inception_4e/5x5_reduce
I0924 01:04:21.184900 31866 net.cpp:91] Creating Layer inception_4e/5x5_reduce
I0924 01:04:21.184907 31866 net.cpp:425] inception_4e/5x5_reduce <- inception_4d/output_inception_4d/output_0_split_2
I0924 01:04:21.184922 31866 net.cpp:399] inception_4e/5x5_reduce -> inception_4e/5x5_reduce
I0924 01:04:21.186574 31866 net.cpp:141] Setting up inception_4e/5x5_reduce
I0924 01:04:21.186604 31866 net.cpp:148] Top shape: 10 32 14 14 (62720)
I0924 01:04:21.186610 31866 net.cpp:156] Memory required for data: 505899520
I0924 01:04:21.186620 31866 layer_factory.hpp:77] Creating layer inception_4e/relu_5x5_reduce
I0924 01:04:21.186630 31866 net.cpp:91] Creating Layer inception_4e/relu_5x5_reduce
I0924 01:04:21.186640 31866 net.cpp:425] inception_4e/relu_5x5_reduce <- inception_4e/5x5_reduce
I0924 01:04:21.186647 31866 net.cpp:386] inception_4e/relu_5x5_reduce -> inception_4e/5x5_reduce (in-place)
I0924 01:04:21.187103 31866 net.cpp:141] Setting up inception_4e/relu_5x5_reduce
I0924 01:04:21.187117 31866 net.cpp:148] Top shape: 10 32 14 14 (62720)
I0924 01:04:21.187122 31866 net.cpp:156] Memory required for data: 506150400
I0924 01:04:21.187127 31866 layer_factory.hpp:77] Creating layer inception_4e/5x5
I0924 01:04:21.187144 31866 net.cpp:91] Creating Layer inception_4e/5x5
I0924 01:04:21.187150 31866 net.cpp:425] inception_4e/5x5 <- inception_4e/5x5_reduce
I0924 01:04:21.187163 31866 net.cpp:399] inception_4e/5x5 -> inception_4e/5x5
I0924 01:04:21.190373 31866 net.cpp:141] Setting up inception_4e/5x5
I0924 01:04:21.190395 31866 net.cpp:148] Top shape: 10 128 14 14 (250880)
I0924 01:04:21.190400 31866 net.cpp:156] Memory required for data: 507153920
I0924 01:04:21.190410 31866 layer_factory.hpp:77] Creating layer inception_4e/relu_5x5
I0924 01:04:21.190419 31866 net.cpp:91] Creating Layer inception_4e/relu_5x5
I0924 01:04:21.190425 31866 net.cpp:425] inception_4e/relu_5x5 <- inception_4e/5x5
I0924 01:04:21.190436 31866 net.cpp:386] inception_4e/relu_5x5 -> inception_4e/5x5 (in-place)
I0924 01:04:21.190723 31866 net.cpp:141] Setting up inception_4e/relu_5x5
I0924 01:04:21.190737 31866 net.cpp:148] Top shape: 10 128 14 14 (250880)
I0924 01:04:21.190742 31866 net.cpp:156] Memory required for data: 508157440
I0924 01:04:21.190747 31866 layer_factory.hpp:77] Creating layer inception_4e/pool
I0924 01:04:21.190760 31866 net.cpp:91] Creating Layer inception_4e/pool
I0924 01:04:21.190768 31866 net.cpp:425] inception_4e/pool <- inception_4d/output_inception_4d/output_0_split_3
I0924 01:04:21.190776 31866 net.cpp:399] inception_4e/pool -> inception_4e/pool
I0924 01:04:21.190860 31866 net.cpp:141] Setting up inception_4e/pool
I0924 01:04:21.190871 31866 net.cpp:148] Top shape: 10 528 14 14 (1034880)
I0924 01:04:21.190874 31866 net.cpp:156] Memory required for data: 512296960
I0924 01:04:21.190879 31866 layer_factory.hpp:77] Creating layer inception_4e/pool_proj
I0924 01:04:21.190896 31866 net.cpp:91] Creating Layer inception_4e/pool_proj
I0924 01:04:21.190901 31866 net.cpp:425] inception_4e/pool_proj <- inception_4e/pool
I0924 01:04:21.190914 31866 net.cpp:399] inception_4e/pool_proj -> inception_4e/pool_proj
I0924 01:04:21.193130 31866 net.cpp:141] Setting up inception_4e/pool_proj
I0924 01:04:21.193150 31866 net.cpp:148] Top shape: 10 128 14 14 (250880)
I0924 01:04:21.193156 31866 net.cpp:156] Memory required for data: 513300480
I0924 01:04:21.193166 31866 layer_factory.hpp:77] Creating layer inception_4e/relu_pool_proj
I0924 01:04:21.193174 31866 net.cpp:91] Creating Layer inception_4e/relu_pool_proj
I0924 01:04:21.193181 31866 net.cpp:425] inception_4e/relu_pool_proj <- inception_4e/pool_proj
I0924 01:04:21.193192 31866 net.cpp:386] inception_4e/relu_pool_proj -> inception_4e/pool_proj (in-place)
I0924 01:04:21.193650 31866 net.cpp:141] Setting up inception_4e/relu_pool_proj
I0924 01:04:21.193665 31866 net.cpp:148] Top shape: 10 128 14 14 (250880)
I0924 01:04:21.193670 31866 net.cpp:156] Memory required for data: 514304000
I0924 01:04:21.193675 31866 layer_factory.hpp:77] Creating layer inception_4e/output
I0924 01:04:21.193683 31866 net.cpp:91] Creating Layer inception_4e/output
I0924 01:04:21.193689 31866 net.cpp:425] inception_4e/output <- inception_4e/1x1
I0924 01:04:21.193696 31866 net.cpp:425] inception_4e/output <- inception_4e/3x3
I0924 01:04:21.193702 31866 net.cpp:425] inception_4e/output <- inception_4e/5x5
I0924 01:04:21.193708 31866 net.cpp:425] inception_4e/output <- inception_4e/pool_proj
I0924 01:04:21.193718 31866 net.cpp:399] inception_4e/output -> inception_4e/output
I0924 01:04:21.193768 31866 net.cpp:141] Setting up inception_4e/output
I0924 01:04:21.193779 31866 net.cpp:148] Top shape: 10 832 14 14 (1630720)
I0924 01:04:21.193784 31866 net.cpp:156] Memory required for data: 520826880
I0924 01:04:21.193789 31866 layer_factory.hpp:77] Creating layer pool4/3x3_s2
I0924 01:04:21.193804 31866 net.cpp:91] Creating Layer pool4/3x3_s2
I0924 01:04:21.193810 31866 net.cpp:425] pool4/3x3_s2 <- inception_4e/output
I0924 01:04:21.193819 31866 net.cpp:399] pool4/3x3_s2 -> pool4/3x3_s2
I0924 01:04:21.193894 31866 net.cpp:141] Setting up pool4/3x3_s2
I0924 01:04:21.193905 31866 net.cpp:148] Top shape: 10 832 7 7 (407680)
I0924 01:04:21.193909 31866 net.cpp:156] Memory required for data: 522457600
I0924 01:04:21.193914 31866 layer_factory.hpp:77] Creating layer pool4/3x3_s2_pool4/3x3_s2_0_split
I0924 01:04:21.193923 31866 net.cpp:91] Creating Layer pool4/3x3_s2_pool4/3x3_s2_0_split
I0924 01:04:21.193931 31866 net.cpp:425] pool4/3x3_s2_pool4/3x3_s2_0_split <- pool4/3x3_s2
I0924 01:04:21.193939 31866 net.cpp:399] pool4/3x3_s2_pool4/3x3_s2_0_split -> pool4/3x3_s2_pool4/3x3_s2_0_split_0
I0924 01:04:21.193948 31866 net.cpp:399] pool4/3x3_s2_pool4/3x3_s2_0_split -> pool4/3x3_s2_pool4/3x3_s2_0_split_1
I0924 01:04:21.193958 31866 net.cpp:399] pool4/3x3_s2_pool4/3x3_s2_0_split -> pool4/3x3_s2_pool4/3x3_s2_0_split_2
I0924 01:04:21.193966 31866 net.cpp:399] pool4/3x3_s2_pool4/3x3_s2_0_split -> pool4/3x3_s2_pool4/3x3_s2_0_split_3
I0924 01:04:21.194078 31866 net.cpp:141] Setting up pool4/3x3_s2_pool4/3x3_s2_0_split
I0924 01:04:21.194088 31866 net.cpp:148] Top shape: 10 832 7 7 (407680)
I0924 01:04:21.194095 31866 net.cpp:148] Top shape: 10 832 7 7 (407680)
I0924 01:04:21.194100 31866 net.cpp:148] Top shape: 10 832 7 7 (407680)
I0924 01:04:21.194106 31866 net.cpp:148] Top shape: 10 832 7 7 (407680)
I0924 01:04:21.194110 31866 net.cpp:156] Memory required for data: 528980480
I0924 01:04:21.194115 31866 layer_factory.hpp:77] Creating layer inception_5a/1x1
I0924 01:04:21.194131 31866 net.cpp:91] Creating Layer inception_5a/1x1
I0924 01:04:21.194138 31866 net.cpp:425] inception_5a/1x1 <- pool4/3x3_s2_pool4/3x3_s2_0_split_0
I0924 01:04:21.194149 31866 net.cpp:399] inception_5a/1x1 -> inception_5a/1x1
I0924 01:04:21.198192 31866 net.cpp:141] Setting up inception_5a/1x1
I0924 01:04:21.198215 31866 net.cpp:148] Top shape: 10 256 7 7 (125440)
I0924 01:04:21.198220 31866 net.cpp:156] Memory required for data: 529482240
I0924 01:04:21.198230 31866 layer_factory.hpp:77] Creating layer inception_5a/relu_1x1
I0924 01:04:21.198240 31866 net.cpp:91] Creating Layer inception_5a/relu_1x1
I0924 01:04:21.198246 31866 net.cpp:425] inception_5a/relu_1x1 <- inception_5a/1x1
I0924 01:04:21.198258 31866 net.cpp:386] inception_5a/relu_1x1 -> inception_5a/1x1 (in-place)
I0924 01:04:21.198734 31866 net.cpp:141] Setting up inception_5a/relu_1x1
I0924 01:04:21.198750 31866 net.cpp:148] Top shape: 10 256 7 7 (125440)
I0924 01:04:21.198755 31866 net.cpp:156] Memory required for data: 529984000
I0924 01:04:21.198760 31866 layer_factory.hpp:77] Creating layer inception_5a/3x3_reduce
I0924 01:04:21.198777 31866 net.cpp:91] Creating Layer inception_5a/3x3_reduce
I0924 01:04:21.198784 31866 net.cpp:425] inception_5a/3x3_reduce <- pool4/3x3_s2_pool4/3x3_s2_0_split_1
I0924 01:04:21.198797 31866 net.cpp:399] inception_5a/3x3_reduce -> inception_5a/3x3_reduce
I0924 01:04:21.202327 31866 net.cpp:141] Setting up inception_5a/3x3_reduce
I0924 01:04:21.202348 31866 net.cpp:148] Top shape: 10 160 7 7 (78400)
I0924 01:04:21.202354 31866 net.cpp:156] Memory required for data: 530297600
I0924 01:04:21.202364 31866 layer_factory.hpp:77] Creating layer inception_5a/relu_3x3_reduce
I0924 01:04:21.202374 31866 net.cpp:91] Creating Layer inception_5a/relu_3x3_reduce
I0924 01:04:21.202381 31866 net.cpp:425] inception_5a/relu_3x3_reduce <- inception_5a/3x3_reduce
I0924 01:04:21.202391 31866 net.cpp:386] inception_5a/relu_3x3_reduce -> inception_5a/3x3_reduce (in-place)
I0924 01:04:21.202683 31866 net.cpp:141] Setting up inception_5a/relu_3x3_reduce
I0924 01:04:21.202697 31866 net.cpp:148] Top shape: 10 160 7 7 (78400)
I0924 01:04:21.202702 31866 net.cpp:156] Memory required for data: 530611200
I0924 01:04:21.202708 31866 layer_factory.hpp:77] Creating layer inception_5a/3x3
I0924 01:04:21.202724 31866 net.cpp:91] Creating Layer inception_5a/3x3
I0924 01:04:21.202731 31866 net.cpp:425] inception_5a/3x3 <- inception_5a/3x3_reduce
I0924 01:04:21.202744 31866 net.cpp:399] inception_5a/3x3 -> inception_5a/3x3
I0924 01:04:21.209846 31866 net.cpp:141] Setting up inception_5a/3x3
I0924 01:04:21.209870 31866 net.cpp:148] Top shape: 10 320 7 7 (156800)
I0924 01:04:21.209877 31866 net.cpp:156] Memory required for data: 531238400
I0924 01:04:21.209887 31866 layer_factory.hpp:77] Creating layer inception_5a/relu_3x3
I0924 01:04:21.209897 31866 net.cpp:91] Creating Layer inception_5a/relu_3x3
I0924 01:04:21.209903 31866 net.cpp:425] inception_5a/relu_3x3 <- inception_5a/3x3
I0924 01:04:21.209914 31866 net.cpp:386] inception_5a/relu_3x3 -> inception_5a/3x3 (in-place)
I0924 01:04:21.210394 31866 net.cpp:141] Setting up inception_5a/relu_3x3
I0924 01:04:21.210409 31866 net.cpp:148] Top shape: 10 320 7 7 (156800)
I0924 01:04:21.210414 31866 net.cpp:156] Memory required for data: 531865600
I0924 01:04:21.210420 31866 layer_factory.hpp:77] Creating layer inception_5a/5x5_reduce
I0924 01:04:21.210438 31866 net.cpp:91] Creating Layer inception_5a/5x5_reduce
I0924 01:04:21.210444 31866 net.cpp:425] inception_5a/5x5_reduce <- pool4/3x3_s2_pool4/3x3_s2_0_split_2
I0924 01:04:21.210454 31866 net.cpp:399] inception_5a/5x5_reduce -> inception_5a/5x5_reduce
I0924 01:04:21.212266 31866 net.cpp:141] Setting up inception_5a/5x5_reduce
I0924 01:04:21.212287 31866 net.cpp:148] Top shape: 10 32 7 7 (15680)
I0924 01:04:21.212293 31866 net.cpp:156] Memory required for data: 531928320
I0924 01:04:21.212303 31866 layer_factory.hpp:77] Creating layer inception_5a/relu_5x5_reduce
I0924 01:04:21.212312 31866 net.cpp:91] Creating Layer inception_5a/relu_5x5_reduce
I0924 01:04:21.212319 31866 net.cpp:425] inception_5a/relu_5x5_reduce <- inception_5a/5x5_reduce
I0924 01:04:21.212332 31866 net.cpp:386] inception_5a/relu_5x5_reduce -> inception_5a/5x5_reduce (in-place)
I0924 01:04:21.212795 31866 net.cpp:141] Setting up inception_5a/relu_5x5_reduce
I0924 01:04:21.212810 31866 net.cpp:148] Top shape: 10 32 7 7 (15680)
I0924 01:04:21.212815 31866 net.cpp:156] Memory required for data: 531991040
I0924 01:04:21.212819 31866 layer_factory.hpp:77] Creating layer inception_5a/5x5
I0924 01:04:21.212836 31866 net.cpp:91] Creating Layer inception_5a/5x5
I0924 01:04:21.212843 31866 net.cpp:425] inception_5a/5x5 <- inception_5a/5x5_reduce
I0924 01:04:21.212855 31866 net.cpp:399] inception_5a/5x5 -> inception_5a/5x5
I0924 01:04:21.215428 31866 net.cpp:141] Setting up inception_5a/5x5
I0924 01:04:21.215452 31866 net.cpp:148] Top shape: 10 128 7 7 (62720)
I0924 01:04:21.215458 31866 net.cpp:156] Memory required for data: 532241920
I0924 01:04:21.215468 31866 layer_factory.hpp:77] Creating layer inception_5a/relu_5x5
I0924 01:04:21.215504 31866 net.cpp:91] Creating Layer inception_5a/relu_5x5
I0924 01:04:21.215512 31866 net.cpp:425] inception_5a/relu_5x5 <- inception_5a/5x5
I0924 01:04:21.215519 31866 net.cpp:386] inception_5a/relu_5x5 -> inception_5a/5x5 (in-place)
I0924 01:04:21.215802 31866 net.cpp:141] Setting up inception_5a/relu_5x5
I0924 01:04:21.215816 31866 net.cpp:148] Top shape: 10 128 7 7 (62720)
I0924 01:04:21.215821 31866 net.cpp:156] Memory required for data: 532492800
I0924 01:04:21.215827 31866 layer_factory.hpp:77] Creating layer inception_5a/pool
I0924 01:04:21.215842 31866 net.cpp:91] Creating Layer inception_5a/pool
I0924 01:04:21.215847 31866 net.cpp:425] inception_5a/pool <- pool4/3x3_s2_pool4/3x3_s2_0_split_3
I0924 01:04:21.215857 31866 net.cpp:399] inception_5a/pool -> inception_5a/pool
I0924 01:04:21.215945 31866 net.cpp:141] Setting up inception_5a/pool
I0924 01:04:21.215957 31866 net.cpp:148] Top shape: 10 832 7 7 (407680)
I0924 01:04:21.215961 31866 net.cpp:156] Memory required for data: 534123520
I0924 01:04:21.215966 31866 layer_factory.hpp:77] Creating layer inception_5a/pool_proj
I0924 01:04:21.215982 31866 net.cpp:91] Creating Layer inception_5a/pool_proj
I0924 01:04:21.215988 31866 net.cpp:425] inception_5a/pool_proj <- inception_5a/pool
I0924 01:04:21.216003 31866 net.cpp:399] inception_5a/pool_proj -> inception_5a/pool_proj
I0924 01:04:21.219395 31866 net.cpp:141] Setting up inception_5a/pool_proj
I0924 01:04:21.219419 31866 net.cpp:148] Top shape: 10 128 7 7 (62720)
I0924 01:04:21.219425 31866 net.cpp:156] Memory required for data: 534374400
I0924 01:04:21.219435 31866 layer_factory.hpp:77] Creating layer inception_5a/relu_pool_proj
I0924 01:04:21.219444 31866 net.cpp:91] Creating Layer inception_5a/relu_pool_proj
I0924 01:04:21.219451 31866 net.cpp:425] inception_5a/relu_pool_proj <- inception_5a/pool_proj
I0924 01:04:21.219463 31866 net.cpp:386] inception_5a/relu_pool_proj -> inception_5a/pool_proj (in-place)
I0924 01:04:21.219934 31866 net.cpp:141] Setting up inception_5a/relu_pool_proj
I0924 01:04:21.219949 31866 net.cpp:148] Top shape: 10 128 7 7 (62720)
I0924 01:04:21.219954 31866 net.cpp:156] Memory required for data: 534625280
I0924 01:04:21.219959 31866 layer_factory.hpp:77] Creating layer inception_5a/output
I0924 01:04:21.219969 31866 net.cpp:91] Creating Layer inception_5a/output
I0924 01:04:21.219974 31866 net.cpp:425] inception_5a/output <- inception_5a/1x1
I0924 01:04:21.219981 31866 net.cpp:425] inception_5a/output <- inception_5a/3x3
I0924 01:04:21.219987 31866 net.cpp:425] inception_5a/output <- inception_5a/5x5
I0924 01:04:21.219993 31866 net.cpp:425] inception_5a/output <- inception_5a/pool_proj
I0924 01:04:21.220005 31866 net.cpp:399] inception_5a/output -> inception_5a/output
I0924 01:04:21.220062 31866 net.cpp:141] Setting up inception_5a/output
I0924 01:04:21.220077 31866 net.cpp:148] Top shape: 10 832 7 7 (407680)
I0924 01:04:21.220082 31866 net.cpp:156] Memory required for data: 536256000
I0924 01:04:21.220088 31866 layer_factory.hpp:77] Creating layer inception_5a/output_inception_5a/output_0_split
I0924 01:04:21.220096 31866 net.cpp:91] Creating Layer inception_5a/output_inception_5a/output_0_split
I0924 01:04:21.220103 31866 net.cpp:425] inception_5a/output_inception_5a/output_0_split <- inception_5a/output
I0924 01:04:21.220109 31866 net.cpp:399] inception_5a/output_inception_5a/output_0_split -> inception_5a/output_inception_5a/output_0_split_0
I0924 01:04:21.220119 31866 net.cpp:399] inception_5a/output_inception_5a/output_0_split -> inception_5a/output_inception_5a/output_0_split_1
I0924 01:04:21.220129 31866 net.cpp:399] inception_5a/output_inception_5a/output_0_split -> inception_5a/output_inception_5a/output_0_split_2
I0924 01:04:21.220141 31866 net.cpp:399] inception_5a/output_inception_5a/output_0_split -> inception_5a/output_inception_5a/output_0_split_3
I0924 01:04:21.220265 31866 net.cpp:141] Setting up inception_5a/output_inception_5a/output_0_split
I0924 01:04:21.220275 31866 net.cpp:148] Top shape: 10 832 7 7 (407680)
I0924 01:04:21.220281 31866 net.cpp:148] Top shape: 10 832 7 7 (407680)
I0924 01:04:21.220288 31866 net.cpp:148] Top shape: 10 832 7 7 (407680)
I0924 01:04:21.220293 31866 net.cpp:148] Top shape: 10 832 7 7 (407680)
I0924 01:04:21.220298 31866 net.cpp:156] Memory required for data: 542778880
I0924 01:04:21.220302 31866 layer_factory.hpp:77] Creating layer inception_5b/1x1
I0924 01:04:21.220319 31866 net.cpp:91] Creating Layer inception_5b/1x1
I0924 01:04:21.220325 31866 net.cpp:425] inception_5b/1x1 <- inception_5a/output_inception_5a/output_0_split_0
I0924 01:04:21.220337 31866 net.cpp:399] inception_5b/1x1 -> inception_5b/1x1
I0924 01:04:21.225433 31866 net.cpp:141] Setting up inception_5b/1x1
I0924 01:04:21.225461 31866 net.cpp:148] Top shape: 10 384 7 7 (188160)
I0924 01:04:21.225466 31866 net.cpp:156] Memory required for data: 543531520
I0924 01:04:21.225476 31866 layer_factory.hpp:77] Creating layer inception_5b/relu_1x1
I0924 01:04:21.225487 31866 net.cpp:91] Creating Layer inception_5b/relu_1x1
I0924 01:04:21.225493 31866 net.cpp:425] inception_5b/relu_1x1 <- inception_5b/1x1
I0924 01:04:21.225508 31866 net.cpp:386] inception_5b/relu_1x1 -> inception_5b/1x1 (in-place)
I0924 01:04:21.225975 31866 net.cpp:141] Setting up inception_5b/relu_1x1
I0924 01:04:21.225989 31866 net.cpp:148] Top shape: 10 384 7 7 (188160)
I0924 01:04:21.225994 31866 net.cpp:156] Memory required for data: 544284160
I0924 01:04:21.225999 31866 layer_factory.hpp:77] Creating layer inception_5b/3x3_reduce
I0924 01:04:21.226018 31866 net.cpp:91] Creating Layer inception_5b/3x3_reduce
I0924 01:04:21.226025 31866 net.cpp:425] inception_5b/3x3_reduce <- inception_5a/output_inception_5a/output_0_split_1
I0924 01:04:21.226037 31866 net.cpp:399] inception_5b/3x3_reduce -> inception_5b/3x3_reduce
I0924 01:04:21.229975 31866 net.cpp:141] Setting up inception_5b/3x3_reduce
I0924 01:04:21.229998 31866 net.cpp:148] Top shape: 10 192 7 7 (94080)
I0924 01:04:21.230006 31866 net.cpp:156] Memory required for data: 544660480
I0924 01:04:21.230017 31866 layer_factory.hpp:77] Creating layer inception_5b/relu_3x3_reduce
I0924 01:04:21.230027 31866 net.cpp:91] Creating Layer inception_5b/relu_3x3_reduce
I0924 01:04:21.230033 31866 net.cpp:425] inception_5b/relu_3x3_reduce <- inception_5b/3x3_reduce
I0924 01:04:21.230041 31866 net.cpp:386] inception_5b/relu_3x3_reduce -> inception_5b/3x3_reduce (in-place)
I0924 01:04:21.230329 31866 net.cpp:141] Setting up inception_5b/relu_3x3_reduce
I0924 01:04:21.230342 31866 net.cpp:148] Top shape: 10 192 7 7 (94080)
I0924 01:04:21.230347 31866 net.cpp:156] Memory required for data: 545036800
I0924 01:04:21.230353 31866 layer_factory.hpp:77] Creating layer inception_5b/3x3
I0924 01:04:21.230375 31866 net.cpp:91] Creating Layer inception_5b/3x3
I0924 01:04:21.230381 31866 net.cpp:425] inception_5b/3x3 <- inception_5b/3x3_reduce
I0924 01:04:21.230391 31866 net.cpp:399] inception_5b/3x3 -> inception_5b/3x3
I0924 01:04:21.239176 31866 net.cpp:141] Setting up inception_5b/3x3
I0924 01:04:21.239200 31866 net.cpp:148] Top shape: 10 384 7 7 (188160)
I0924 01:04:21.239207 31866 net.cpp:156] Memory required for data: 545789440
I0924 01:04:21.239217 31866 layer_factory.hpp:77] Creating layer inception_5b/relu_3x3
I0924 01:04:21.239226 31866 net.cpp:91] Creating Layer inception_5b/relu_3x3
I0924 01:04:21.239233 31866 net.cpp:425] inception_5b/relu_3x3 <- inception_5b/3x3
I0924 01:04:21.239240 31866 net.cpp:386] inception_5b/relu_3x3 -> inception_5b/3x3 (in-place)
I0924 01:04:21.239723 31866 net.cpp:141] Setting up inception_5b/relu_3x3
I0924 01:04:21.239737 31866 net.cpp:148] Top shape: 10 384 7 7 (188160)
I0924 01:04:21.239742 31866 net.cpp:156] Memory required for data: 546542080
I0924 01:04:21.239748 31866 layer_factory.hpp:77] Creating layer inception_5b/5x5_reduce
I0924 01:04:21.239766 31866 net.cpp:91] Creating Layer inception_5b/5x5_reduce
I0924 01:04:21.239773 31866 net.cpp:425] inception_5b/5x5_reduce <- inception_5a/output_inception_5a/output_0_split_2
I0924 01:04:21.239784 31866 net.cpp:399] inception_5b/5x5_reduce -> inception_5b/5x5_reduce
I0924 01:04:21.241740 31866 net.cpp:141] Setting up inception_5b/5x5_reduce
I0924 01:04:21.241761 31866 net.cpp:148] Top shape: 10 48 7 7 (23520)
I0924 01:04:21.241766 31866 net.cpp:156] Memory required for data: 546636160
I0924 01:04:21.241776 31866 layer_factory.hpp:77] Creating layer inception_5b/relu_5x5_reduce
I0924 01:04:21.241786 31866 net.cpp:91] Creating Layer inception_5b/relu_5x5_reduce
I0924 01:04:21.241791 31866 net.cpp:425] inception_5b/relu_5x5_reduce <- inception_5b/5x5_reduce
I0924 01:04:21.241802 31866 net.cpp:386] inception_5b/relu_5x5_reduce -> inception_5b/5x5_reduce (in-place)
I0924 01:04:21.242261 31866 net.cpp:141] Setting up inception_5b/relu_5x5_reduce
I0924 01:04:21.242275 31866 net.cpp:148] Top shape: 10 48 7 7 (23520)
I0924 01:04:21.242280 31866 net.cpp:156] Memory required for data: 546730240
I0924 01:04:21.242285 31866 layer_factory.hpp:77] Creating layer inception_5b/5x5
I0924 01:04:21.242305 31866 net.cpp:91] Creating Layer inception_5b/5x5
I0924 01:04:21.242312 31866 net.cpp:425] inception_5b/5x5 <- inception_5b/5x5_reduce
I0924 01:04:21.242322 31866 net.cpp:399] inception_5b/5x5 -> inception_5b/5x5
I0924 01:04:21.245637 31866 net.cpp:141] Setting up inception_5b/5x5
I0924 01:04:21.245659 31866 net.cpp:148] Top shape: 10 128 7 7 (62720)
I0924 01:04:21.245664 31866 net.cpp:156] Memory required for data: 546981120
I0924 01:04:21.245674 31866 layer_factory.hpp:77] Creating layer inception_5b/relu_5x5
I0924 01:04:21.245683 31866 net.cpp:91] Creating Layer inception_5b/relu_5x5
I0924 01:04:21.245689 31866 net.cpp:425] inception_5b/relu_5x5 <- inception_5b/5x5
I0924 01:04:21.245702 31866 net.cpp:386] inception_5b/relu_5x5 -> inception_5b/5x5 (in-place)
I0924 01:04:21.245991 31866 net.cpp:141] Setting up inception_5b/relu_5x5
I0924 01:04:21.246004 31866 net.cpp:148] Top shape: 10 128 7 7 (62720)
I0924 01:04:21.246009 31866 net.cpp:156] Memory required for data: 547232000
I0924 01:04:21.246014 31866 layer_factory.hpp:77] Creating layer inception_5b/pool
I0924 01:04:21.246029 31866 net.cpp:91] Creating Layer inception_5b/pool
I0924 01:04:21.246035 31866 net.cpp:425] inception_5b/pool <- inception_5a/output_inception_5a/output_0_split_3
I0924 01:04:21.246044 31866 net.cpp:399] inception_5b/pool -> inception_5b/pool
I0924 01:04:21.246140 31866 net.cpp:141] Setting up inception_5b/pool
I0924 01:04:21.246151 31866 net.cpp:148] Top shape: 10 832 7 7 (407680)
I0924 01:04:21.246156 31866 net.cpp:156] Memory required for data: 548862720
I0924 01:04:21.246161 31866 layer_factory.hpp:77] Creating layer inception_5b/pool_proj
I0924 01:04:21.246176 31866 net.cpp:91] Creating Layer inception_5b/pool_proj
I0924 01:04:21.246182 31866 net.cpp:425] inception_5b/pool_proj <- inception_5b/pool
I0924 01:04:21.246191 31866 net.cpp:399] inception_5b/pool_proj -> inception_5b/pool_proj
I0924 01:04:21.249603 31866 net.cpp:141] Setting up inception_5b/pool_proj
I0924 01:04:21.249625 31866 net.cpp:148] Top shape: 10 128 7 7 (62720)
I0924 01:04:21.249631 31866 net.cpp:156] Memory required for data: 549113600
I0924 01:04:21.249641 31866 layer_factory.hpp:77] Creating layer inception_5b/relu_pool_proj
I0924 01:04:21.249653 31866 net.cpp:91] Creating Layer inception_5b/relu_pool_proj
I0924 01:04:21.249663 31866 net.cpp:425] inception_5b/relu_pool_proj <- inception_5b/pool_proj
I0924 01:04:21.249677 31866 net.cpp:386] inception_5b/relu_pool_proj -> inception_5b/pool_proj (in-place)
I0924 01:04:21.250430 31866 net.cpp:141] Setting up inception_5b/relu_pool_proj
I0924 01:04:21.250449 31866 net.cpp:148] Top shape: 10 128 7 7 (62720)
I0924 01:04:21.250455 31866 net.cpp:156] Memory required for data: 549364480
I0924 01:04:21.250461 31866 layer_factory.hpp:77] Creating layer inception_5b/output
I0924 01:04:21.250474 31866 net.cpp:91] Creating Layer inception_5b/output
I0924 01:04:21.250480 31866 net.cpp:425] inception_5b/output <- inception_5b/1x1
I0924 01:04:21.250488 31866 net.cpp:425] inception_5b/output <- inception_5b/3x3
I0924 01:04:21.250494 31866 net.cpp:425] inception_5b/output <- inception_5b/5x5
I0924 01:04:21.250499 31866 net.cpp:425] inception_5b/output <- inception_5b/pool_proj
I0924 01:04:21.250507 31866 net.cpp:399] inception_5b/output -> inception_5b/output
I0924 01:04:21.251150 31866 net.cpp:141] Setting up inception_5b/output
I0924 01:04:21.251168 31866 net.cpp:148] Top shape: 10 1024 7 7 (501760)
I0924 01:04:21.251173 31866 net.cpp:156] Memory required for data: 551371520
I0924 01:04:21.251178 31866 layer_factory.hpp:77] Creating layer pool5/7x7_s1
I0924 01:04:21.251188 31866 net.cpp:91] Creating Layer pool5/7x7_s1
I0924 01:04:21.251194 31866 net.cpp:425] pool5/7x7_s1 <- inception_5b/output
I0924 01:04:21.251205 31866 net.cpp:399] pool5/7x7_s1 -> pool5/7x7_s1
I0924 01:04:21.251937 31866 net.cpp:141] Setting up pool5/7x7_s1
I0924 01:04:21.251955 31866 net.cpp:148] Top shape: 10 1024 1 1 (10240)
I0924 01:04:21.251962 31866 net.cpp:156] Memory required for data: 551412480
I0924 01:04:21.251968 31866 layer_factory.hpp:77] Creating layer pool5/drop_7x7_s1
I0924 01:04:21.251986 31866 net.cpp:91] Creating Layer pool5/drop_7x7_s1
I0924 01:04:21.251991 31866 net.cpp:425] pool5/drop_7x7_s1 <- pool5/7x7_s1
I0924 01:04:21.251999 31866 net.cpp:386] pool5/drop_7x7_s1 -> pool5/7x7_s1 (in-place)
I0924 01:04:21.252063 31866 net.cpp:141] Setting up pool5/drop_7x7_s1
I0924 01:04:21.252074 31866 net.cpp:148] Top shape: 10 1024 1 1 (10240)
I0924 01:04:21.252079 31866 net.cpp:156] Memory required for data: 551453440
I0924 01:04:21.252084 31866 layer_factory.hpp:77] Creating layer loss3/classifier
I0924 01:04:21.252104 31866 net.cpp:91] Creating Layer loss3/classifier
I0924 01:04:21.252110 31866 net.cpp:425] loss3/classifier <- pool5/7x7_s1
I0924 01:04:21.252118 31866 net.cpp:399] loss3/classifier -> loss3/classifier
I0924 01:04:21.263195 31866 net.cpp:141] Setting up loss3/classifier
I0924 01:04:21.263231 31866 net.cpp:148] Top shape: 10 1000 (10000)
I0924 01:04:21.263236 31866 net.cpp:156] Memory required for data: 551493440
I0924 01:04:21.263248 31866 layer_factory.hpp:77] Creating layer prob
I0924 01:04:21.263267 31866 net.cpp:91] Creating Layer prob
I0924 01:04:21.263274 31866 net.cpp:425] prob <- loss3/classifier
I0924 01:04:21.263283 31866 net.cpp:399] prob -> prob
I0924 01:04:21.264029 31866 net.cpp:141] Setting up prob
I0924 01:04:21.264048 31866 net.cpp:148] Top shape: 10 1000 (10000)
I0924 01:04:21.264055 31866 net.cpp:156] Memory required for data: 551533440
I0924 01:04:21.264060 31866 net.cpp:219] prob does not need backward computation.
I0924 01:04:21.264066 31866 net.cpp:219] loss3/classifier does not need backward computation.
I0924 01:04:21.264071 31866 net.cpp:219] pool5/drop_7x7_s1 does not need backward computation.
I0924 01:04:21.264075 31866 net.cpp:219] pool5/7x7_s1 does not need backward computation.
…
