…
Java HotSpot(TM) 64-Bit Server VM warning: You have loaded library /tmp/cvld5867317258593806173/libopencv_java310.xine1.so which might have disabled stack guard. The VM will try to fix the stack guard now.
It's highly recommended that you fix the library with 'execstack -c <libfile>', or link it with '-z noexecstack'.
WARNING: Logging before InitGoogleLogging() is written to STDERR
I0714 22:01:54.281131 19131 net.cpp:49] Initializing net from parameters: 
name: "GoogleNet"
state {
  phase: TEST
}
layer {
  name: "data"
  type: "Input"
  top: "data"
  input_param {
    shape {
      dim: 10
      dim: 3
      dim: 224
      dim: 224
    }
  }
}
layer {
  name: "conv1/7x7_s2"
  type: "Convolution"
  bottom: "data"
  top: "conv1/7x7_s2"
  param {
    lr_mult: 1
    decay_mult: 1
  }
  param {
    lr_mult: 2
    decay_mult: 0
  }
  convolution_param {
    num_output: 64
    pad: 3
    kernel_size: 7
    stride: 2
    weight_filler {
      type: "xavier"
      std: 0.1
    }
    bias_filler {
      type: "constant"
      value: 0.2
    }
  }
}
layer {
  name: "conv1/relu_7x7"
  type: "ReLU"
  bottom: "conv1/7x7_s2"
  top: "conv1/7x7_s2"
}
layer {
  name: "pool1/3x3_s2"
  type: "Pooling"
  bottom: "conv1/7x7_s2"
  top: "pool1/3x3_s2"
  pooling_param {
    pool: MAX
    kernel_size: 3
    stride: 2
  }
}
layer {
  name: "pool1/norm1"
  type: "LRN"
  bottom: "pool1/3x3_s2"
  top: "pool1/norm1"
  lrn_param {
    local_size: 5
    alpha: 0.0001
    beta: 0.75
  }
}
layer {
  name: "conv2/3x3_reduce"
  type: "Convolution"
  bottom: "pool1/norm1"
  top: "conv2/3x3_reduce"
  param {
    lr_mult: 1
    decay_mult: 1
  }
  param {
    lr_mult: 2
    decay_mult: 0
  }
  convolution_param {
    num_output: 64
    kernel_size: 1
    weight_filler {
      type: "xavier"
      std: 0.1
    }
    bias_filler {
      type: "constant"
      value: 0.2
    }
  }
}
layer {
  name: "conv2/relu_3x3_reduce"
  type: "ReLU"
  bottom: "conv2/3x3_reduce"
  top: "conv2/3x3_reduce"
}
layer {
  name: "conv2/3x3"
  type: "Convolution"
  bottom: "conv2/3x3_reduce"
  top: "conv2/3x3"
  param {
    lr_mult: 1
    decay_mult: 1
  }
  param {
    lr_mult: 2
    decay_mult: 0
  }
  convolution_param {
    num_output: 192
    pad: 1
    kernel_size: 3
    weight_filler {
      type: "xavier"
      std: 0.03
    }
    bias_filler {
      type: "constant"
      value: 0.2
    }
  }
}
layer {
  name: "conv2/relu_3x3"
  type: "ReLU"
  bottom: "conv2/3x3"
  top: "conv2/3x3"
}
layer {
  name: "conv2/norm2"
  type: "LRN"
  bottom: "conv2/3x3"
  top: "conv2/norm2"
  lrn_param {
    local_size: 5
    alpha: 0.0001
    beta: 0.75
  }
}
layer {
  name: "pool2/3x3_s2"
  type: "Pooling"
  bottom: "conv2/norm2"
  top: "pool2/3x3_s2"
  pooling_param {
    pool: MAX
    kernel_size: 3
    stride: 2
  }
}
layer {
  name: "inception_3a/1x1"
  type: "Convolution"
  bottom: "pool2/3x3_s2"
  top: "inception_3a/1x1"
  param {
    lr_mult: 1
    decay_mult: 1
  }
  param {
    lr_mult: 2
    decay_mult: 0
  }
  convolution_param {
    num_output: 64
    kernel_size: 1
    weight_filler {
      type: "xavier"
      std: 0.03
    }
    bias_filler {
      type: "constant"
      value: 0.2
    }
  }
}
layer {
  name: "inception_3a/relu_1x1"
  type: "ReLU"
  bottom: "inception_3a/1x1"
  top: "inception_3a/1x1"
}
layer {
  name: "inception_3a/3x3_reduce"
  type: "Convolution"
  bottom: "pool2/3x3_s2"
  top: "inception_3a/3x3_reduce"
  param {
    lr_mult: 1
    decay_mult: 1
  }
  param {
    lr_mult: 2
    decay_mult: 0
  }
  convolution_param {
    num_output: 96
    kernel_size: 1
    weight_filler {
      type: "xavier"
      std: 0.09
    }
    bias_filler {
      type: "constant"
      value: 0.2
    }
  }
}
layer {
  name: "inception_3a/relu_3x3_reduce"
  type: "ReLU"
  bottom: "inception_3a/3x3_reduce"
  top: "inception_3a/3x3_reduce"
}
layer {
  name: "inception_3a/3x3"
  type: "Convolution"
  bottom: "inception_3a/3x3_reduce"
  top: "inception_3a/3x3"
  param {
    lr_mult: 1
    decay_mult: 1
  }
  param {
    lr_mult: 2
    decay_mult: 0
  }
  convolution_param {
    num_output: 128
    pad: 1
    kernel_size: 3
    weight_filler {
      type: "xavier"
      std: 0.03
    }
    bias_filler {
      type: "constant"
      value: 0.2
    }
  }
}
layer {
  name: "inception_3a/relu_3x3"
  type: "ReLU"
  bottom: "inception_3a/3x3"
  top: "inception_3a/3x3"
}
layer {
  name: "inception_3a/5x5_reduce"
  type: "Convolution"
  bottom: "pool2/3x3_s2"
  top: "inception_3a/5x5_reduce"
  param {
    lr_mult: 1
    decay_mult: 1
  }
  param {
    lr_mult: 2
    decay_mult: 0
  }
  convolution_param {
    num_output: 16
    kernel_size: 1
    weight_filler {
      type: "xavier"
      std: 0.2
    }
    bias_filler {
      type: "constant"
      value: 0.2
    }
  }
}
layer {
  name: "inception_3a/relu_5x5_reduce"
  type: "ReLU"
  bottom: "inception_3a/5x5_reduce"
  top: "inception_3a/5x5_reduce"
}
layer {
  name: "inception_3a/5x5"
  type: "Convolution"
  bottom: "inception_3a/5x5_reduce"
  top: "inception_3a/5x5"
  param {
    lr_mult: 1
    decay_mult: 1
  }
  param {
    lr_mult: 2
    decay_mult: 0
  }
  convolution_param {
    num_output: 32
    pad: 2
    kernel_size: 5
    weight_filler {
      type: "xavier"
      std: 0.03
    }
    bias_filler {
      type: "constant"
      value: 0.2
    }
  }
}
layer {
  name: "inception_3a/relu_5x5"
  type: "ReLU"
  bottom: "inception_3a/5x5"
  top: "inception_3a/5x5"
}
layer {
  name: "inception_3a/pool"
  type: "Pooling"
  bottom: "pool2/3x3_s2"
  top: "inception_3a/pool"
  pooling_param {
    pool: MAX
    kernel_size: 3
    stride: 1
    pad: 1
  }
}
layer {
  name: "inception_3a/pool_proj"
  type: "Convolution"
  bottom: "inception_3a/pool"
  top: "inception_3a/pool_proj"
  param {
    lr_mult: 1
    decay_mult: 1
  }
  param {
    lr_mult: 2
    decay_mult: 0
  }
  convolution_param {
    num_output: 32
    kernel_size: 1
    weight_filler {
      type: "xavier"
      std: 0.1
    }
    bias_filler {
      type: "constant"
      value: 0.2
    }
  }
}
layer {
  name: "inception_3a/relu_pool_proj"
  type: "ReLU"
  bottom: "inception_3a/pool_proj"
  top: "inception_3a/pool_proj"
}
layer {
  name: "inception_3a/output"
  type: "Concat"
  bottom: "inception_3a/1x1"
  bottom: "inception_3a/3x3"
  bottom: "inception_3a/5x5"
  bottom: "inception_3a/pool_proj"
  top: "inception_3a/output"
}
layer {
  name: "inception_3b/1x1"
  type: "Convolution"
  bottom: "inception_3a/output"
  top: "inception_3b/1x1"
  param {
    lr_mult: 1
    decay_mult: 1
  }
  param {
    lr_mult: 2
    decay_mult: 0
  }
  convolution_param {
    num_output: 128
    kernel_size: 1
    weight_filler {
      type: "xavier"
      std: 0.03
    }
    bias_filler {
      type: "constant"
      value: 0.2
    }
  }
}
layer {
  name: "inception_3b/relu_1x1"
  type: "ReLU"
  bottom: "inception_3b/1x1"
  top: "inception_3b/1x1"
}
layer {
  name: "inception_3b/3x3_reduce"
  type: "Convolution"
  bottom: "inception_3a/output"
  top: "inception_3b/3x3_reduce"
  param {
    lr_mult: 1
    decay_mult: 1
  }
  param {
    lr_mult: 2
    decay_mult: 0
  }
  convolution_param {
    num_output: 128
    kernel_size: 1
    weight_filler {
      type: "xavier"
      std: 0.09
    }
    bias_filler {
      type: "constant"
      value: 0.2
    }
  }
}
layer {
  name: "inception_3b/relu_3x3_reduce"
  type: "ReLU"
  bottom: "inception_3b/3x3_reduce"
  top: "inception_3b/3x3_reduce"
}
layer {
  name: "inception_3b/3x3"
  type: "Convolution"
  bottom: "inception_3b/3x3_reduce"
  top: "inception_3b/3x3"
  param {
    lr_mult: 1
    decay_mult: 1
  }
  param {
    lr_mult: 2
    decay_mult: 0
  }
  convolution_param {
    num_output: 192
    pad: 1
    kernel_size: 3
    weight_filler {
      type: "xavier"
      std: 0.03
    }
    bias_filler {
      type: "constant"
      value: 0.2
    }
  }
}
layer {
  name: "inception_3b/relu_3x3"
  type: "ReLU"
  bottom: "inception_3b/3x3"
  top: "inception_3b/3x3"
}
layer {
  name: "inception_3b/5x5_reduce"
  type: "Convolution"
  bottom: "inception_3a/output"
  top: "inception_3b/5x5_reduce"
  param {
    lr_mult: 1
    decay_mult: 1
  }
  param {
    lr_mult: 2
    decay_mult: 0
  }
  convolution_param {
    num_output: 32
    kernel_size: 1
    weight_filler {
      type: "xavier"
      std: 0.2
    }
    bias_filler {
      type: "constant"
      value: 0.2
    }
  }
}
layer {
  name: "inception_3b/relu_5x5_reduce"
  type: "ReLU"
  bottom: "inception_3b/5x5_reduce"
  top: "inception_3b/5x5_reduce"
}
layer {
  name: "inception_3b/5x5"
  type: "Convolution"
  bottom: "inception_3b/5x5_reduce"
  top: "inception_3b/5x5"
  param {
    lr_mult: 1
    decay_mult: 1
  }
  param {
    lr_mult: 2
    decay_mult: 0
  }
  convolution_param {
    num_output: 96
    pad: 2
    kernel_size: 5
    weight_filler {
      type: "xavier"
      std: 0.03
    }
    bias_filler {
      type: "constant"
      value: 0.2
    }
  }
}
layer {
  name: "inception_3b/relu_5x5"
  type: "ReLU"
  bottom: "inception_3b/5x5"
  top: "inception_3b/5x5"
}
layer {
  name: "inception_3b/pool"
  type: "Pooling"
  bottom: "inception_3a/output"
  top: "inception_3b/pool"
  pooling_param {
    pool: MAX
    kernel_size: 3
    stride: 1
    pad: 1
  }
}
layer {
  name: "inception_3b/pool_proj"
  type: "Convolution"
  bottom: "inception_3b/pool"
  top: "inception_3b/pool_proj"
  param {
    lr_mult: 1
    decay_mult: 1
  }
  param {
    lr_mult: 2
    decay_mult: 0
  }
  convolution_param {
    num_output: 64
    kernel_size: 1
    weight_filler {
      type: "xavier"
      std: 0.1
    }
    bias_filler {
      type: "constant"
      value: 0.2
    }
  }
}
layer {
  name: "inception_3b/relu_pool_proj"
  type: "ReLU"
  bottom: "inception_3b/pool_proj"
  top: "inception_3b/pool_proj"
}
layer {
  name: "inception_3b/output"
  type: "Concat"
  bottom: "inception_3b/1x1"
  bottom: "inception_3b/3x3"
  bottom: "inception_3b/5x5"
  bottom: "inception_3b/pool_proj"
  top: "inception_3b/output"
}
layer {
  name: "pool3/3x3_s2"
  type: "Pooling"
  bottom: "inception_3b/output"
  top: "pool3/3x3_s2"
  pooling_param {
    pool: MAX
    kernel_size: 3
    stride: 2
  }
}
layer {
  name: "inception_4a/1x1"
  type: "Convolution"
  bottom: "pool3/3x3_s2"
  top: "inception_4a/1x1"
  param {
    lr_mult: 1
    decay_mult: 1
  }
  param {
    lr_mult: 2
    decay_mult: 0
  }
  convolution_param {
    num_output: 192
    kernel_size: 1
    weight_filler {
      type: "xavier"
      std: 0.03
    }
    bias_filler {
      type: "constant"
      value: 0.2
    }
  }
}
layer {
  name: "inception_4a/relu_1x1"
  type: "ReLU"
  bottom: "inception_4a/1x1"
  top: "inception_4a/1x1"
}
layer {
  name: "inception_4a/3x3_reduce"
  type: "Convolution"
  bottom: "pool3/3x3_s2"
  top: "inception_4a/3x3_reduce"
  param {
    lr_mult: 1
    decay_mult: 1
  }
  param {
    lr_mult: 2
    decay_mult: 0
  }
  convolution_param {
    num_output: 96
    kernel_size: 1
    weight_filler {
      type: "xavier"
      std: 0.09
    }
    bias_filler {
      type: "constant"
      value: 0.2
    }
  }
}
layer {
  name: "inception_4a/relu_3x3_reduce"
  type: "ReLU"
  bottom: "inception_4a/3x3_reduce"
  top: "inception_4a/3x3_reduce"
}
layer {
  name: "inception_4a/3x3"
  type: "Convolution"
  bottom: "inception_4a/3x3_reduce"
  top: "inception_4a/3x3"
  param {
    lr_mult: 1
    decay_mult: 1
  }
  param {
    lr_mult: 2
    decay_mult: 0
  }
  convolution_param {
    num_output: 208
    pad: 1
    kernel_size: 3
    weight_filler {
      type: "xavier"
      std: 0.03
    }
    bias_filler {
      type: "constant"
      value: 0.2
    }
  }
}
layer {
  name: "inception_4a/relu_3x3"
  type: "ReLU"
  bottom: "inception_4a/3x3"
  top: "inception_4a/3x3"
}
layer {
  name: "inception_4a/5x5_reduce"
  type: "Convolution"
  bottom: "pool3/3x3_s2"
  top: "inception_4a/5x5_reduce"
  param {
    lr_mult: 1
    decay_mult: 1
  }
  param {
    lr_mult: 2
    decay_mult: 0
  }
  convolution_param {
    num_output: 16
    kernel_size: 1
    weight_filler {
      type: "xavier"
      std: 0.2
    }
    bias_filler {
      type: "constant"
      value: 0.2
    }
  }
}
layer {
  name: "inception_4a/relu_5x5_reduce"
  type: "ReLU"
  bottom: "inception_4a/5x5_reduce"
  top: "inception_4a/5x5_reduce"
}
layer {
  name: "inception_4a/5x5"
  type: "Convolution"
  bottom: "inception_4a/5x5_reduce"
  top: "inception_4a/5x5"
  param {
    lr_mult: 1
    decay_mult: 1
  }
  param {
    lr_mult: 2
    decay_mult: 0
  }
  convolution_param {
    num_output: 48
    pad: 2
    kernel_size: 5
    weight_filler {
      type: "xavier"
      std: 0.03
    }
    bias_filler {
      type: "constant"
      value: 0.2
    }
  }
}
layer {
  name: "inception_4a/relu_5x5"
  type: "ReLU"
  bottom: "inception_4a/5x5"
  top: "inception_4a/5x5"
}
layer {
  name: "inception_4a/pool"
  type: "Pooling"
  bottom: "pool3/3x3_s2"
  top: "inception_4a/pool"
  pooling_param {
    pool: MAX
    kernel_size: 3
    stride: 1
    pad: 1
  }
}
layer {
  name: "inception_4a/pool_proj"
  type: "Convolution"
  bottom: "inception_4a/pool"
  top: "inception_4a/pool_proj"
  param {
    lr_mult: 1
    decay_mult: 1
  }
  param {
    lr_mult: 2
    decay_mult: 0
  }
  convolution_param {
    num_output: 64
    kernel_size: 1
    weight_filler {
      type: "xavier"
      std: 0.1
    }
    bias_filler {
      type: "constant"
      value: 0.2
    }
  }
}
layer {
  name: "inception_4a/relu_pool_proj"
  type: "ReLU"
  bottom: "inception_4a/pool_proj"
  top: "inception_4a/pool_proj"
}
layer {
  name: "inception_4a/output"
  type: "Concat"
  bottom: "inception_4a/1x1"
  bottom: "inception_4a/3x3"
  bottom: "inception_4a/5x5"
  bottom: "inception_4a/pool_proj"
  top: "inception_4a/output"
}
layer {
  name: "inception_4b/1x1"
  type: "Convolution"
  bottom: "inception_4a/output"
  top: "inception_4b/1x1"
  param {
    lr_mult: 1
    decay_mult: 1
  }
  param {
    lr_mult: 2
    decay_mult: 0
  }
  convolution_param {
    num_output: 160
    kernel_size: 1
    weight_filler {
      type: "xavier"
      std: 0.03
    }
    bias_filler {
      type: "constant"
      value: 0.2
    }
  }
}
layer {
  name: "inception_4b/relu_1x1"
  type: "ReLU"
  bottom: "inception_4b/1x1"
  top: "inception_4b/1x1"
}
layer {
  name: "inception_4b/3x3_reduce"
  type: "Convolution"
  bottom: "inception_4a/output"
  top: "inception_4b/3x3_reduce"
  param {
    lr_mult: 1
    decay_mult: 1
  }
  param {
    lr_mult: 2
    decay_mult: 0
  }
  convolution_param {
    num_output: 112
    kernel_size: 1
    weight_filler {
      type: "xavier"
      std: 0.09
    }
    bias_filler {
      type: "constant"
      value: 0.2
    }
  }
}
layer {
  name: "inception_4b/relu_3x3_reduce"
  type: "ReLU"
  bottom: "inception_4b/3x3_reduce"
  top: "inception_4b/3x3_reduce"
}
layer {
  name: "inception_4b/3x3"
  type: "Convolution"
  bottom: "inception_4b/3x3_reduce"
  top: "inception_4b/3x3"
  param {
    lr_mult: 1
    decay_mult: 1
  }
  param {
    lr_mult: 2
    decay_mult: 0
  }
  convolution_param {
    num_output: 224
    pad: 1
    kernel_size: 3
    weight_filler {
      type: "xavier"
      std: 0.03
    }
    bias_filler {
      type: "constant"
      value: 0.2
    }
  }
}
layer {
  name: "inception_4b/relu_3x3"
  type: "ReLU"
  bottom: "inception_4b/3x3"
  top: "inception_4b/3x3"
}
layer {
  name: "inception_4b/5x5_reduce"
  type: "Convolution"
  bottom: "inception_4a/output"
  top: "inception_4b/5x5_reduce"
  param {
    lr_mult: 1
    decay_mult: 1
  }
  param {
    lr_mult: 2
    decay_mult: 0
  }
  convolution_param {
    num_output: 24
    kernel_size: 1
    weight_filler {
      type: "xavier"
      std: 0.2
    }
    bias_filler {
      type: "constant"
      value: 0.2
    }
  }
}
layer {
  name: "inception_4b/relu_5x5_reduce"
  type: "ReLU"
  bottom: "inception_4b/5x5_reduce"
  top: "inception_4b/5x5_reduce"
}
layer {
  name: "inception_4b/5x5"
  type: "Convolution"
  bottom: "inception_4b/5x5_reduce"
  top: "inception_4b/5x5"
  param {
    lr_mult: 1
    decay_mult: 1
  }
  param {
    lr_mult: 2
    decay_mult: 0
  }
  convolution_param {
    num_output: 64
    pad: 2
    kernel_size: 5
    weight_filler {
      type: "xavier"
      std: 0.03
    }
    bias_filler {
      type: "constant"
      value: 0.2
    }
  }
}
layer {
  name: "inception_4b/relu_5x5"
  type: "ReLU"
  bottom: "inception_4b/5x5"
  top: "inception_4b/5x5"
}
layer {
  name: "inception_4b/pool"
  type: "Pooling"
  bottom: "inception_4a/output"
  top: "inception_4b/pool"
  pooling_param {
    pool: MAX
    kernel_size: 3
    stride: 1
    pad: 1
  }
}
layer {
  name: "inception_4b/pool_proj"
  type: "Convolution"
  bottom: "inception_4b/pool"
  top: "inception_4b/pool_proj"
  param {
    lr_mult: 1
    decay_mult: 1
  }
  param {
    lr_mult: 2
    decay_mult: 0
  }
  convolution_param {
    num_output: 64
    kernel_size: 1
    weight_filler {
      type: "xavier"
      std: 0.1
    }
    bias_filler {
      type: "constant"
      value: 0.2
    }
  }
}
layer {
  name: "inception_4b/relu_pool_proj"
  type: "ReLU"
  bottom: "inception_4b/pool_proj"
  top: "inception_4b/pool_proj"
}
layer {
  name: "inception_4b/output"
  type: "Concat"
  bottom: "inception_4b/1x1"
  bottom: "inception_4b/3x3"
  bottom: "inception_4b/5x5"
  bottom: "inception_4b/pool_proj"
  top: "inception_4b/output"
}
layer {
  name: "inception_4c/1x1"
  type: "Convolution"
  bottom: "inception_4b/output"
  top: "inception_4c/1x1"
  param {
    lr_mult: 1
    decay_mult: 1
  }
  param {
    lr_mult: 2
    decay_mult: 0
  }
  convolution_param {
    num_output: 128
    kernel_size: 1
    weight_filler {
      type: "xavier"
      std: 0.03
    }
    bias_filler {
      type: "constant"
      value: 0.2
    }
  }
}
layer {
  name: "inception_4c/relu_1x1"
  type: "ReLU"
  bottom: "inception_4c/1x1"
  top: "inception_4c/1x1"
}
layer {
  name: "inception_4c/3x3_reduce"
  type: "Convolution"
  bottom: "inception_4b/output"
  top: "inception_4c/3x3_reduce"
  param {
    lr_mult: 1
    decay_mult: 1
  }
  param {
    lr_mult: 2
    decay_mult: 0
  }
  convolution_param {
    num_output: 128
    kernel_size: 1
    weight_filler {
      type: "xavier"
      std: 0.09
    }
    bias_filler {
      type: "constant"
      value: 0.2
    }
  }
}
layer {
  name: "inception_4c/relu_3x3_reduce"
  type: "ReLU"
  bottom: "inception_4c/3x3_reduce"
  top: "inception_4c/3x3_reduce"
}
layer {
  name: "inception_4c/3x3"
  type: "Convolution"
  bottom: "inception_4c/3x3_reduce"
  top: "inception_4c/3x3"
  param {
    lr_mult: 1
    decay_mult: 1
  }
  param {
    lr_mult: 2
    decay_mult: 0
  }
  convolution_param {
    num_output: 256
    pad: 1
    kernel_size: 3
    weight_filler {
      type: "xavier"
      std: 0.03
    }
    bias_filler {
      type: "constant"
      value: 0.2
    }
  }
}
layer {
  name: "inception_4c/relu_3x3"
  type: "ReLU"
  bottom: "inception_4c/3x3"
  top: "inception_4c/3x3"
}
layer {
  name: "inception_4c/5x5_reduce"
  type: "Convolution"
  bottom: "inception_4b/output"
  top: "inception_4c/5x5_reduce"
  param {
    lr_mult: 1
    decay_mult: 1
  }
  param {
    lr_mult: 2
    decay_mult: 0
  }
  convolution_param {
    num_output: 24
    kernel_size: 1
    weight_filler {
      type: "xavier"
      std: 0.2
    }
    bias_filler {
      type: "constant"
      value: 0.2
    }
  }
}
layer {
  name: "inception_4c/relu_5x5_reduce"
  type: "ReLU"
  bottom: "inception_4c/5x5_reduce"
  top: "inception_4c/5x5_reduce"
}
layer {
  name: "inception_4c/5x5"
  type: "Convolution"
  bottom: "inception_4c/5x5_reduce"
  top: "inception_4c/5x5"
  param {
    lr_mult: 1
    decay_mult: 1
  }
  param {
    lr_mult: 2
    decay_mult: 0
  }
  convolution_param {
    num_output: 64
    pad: 2
    kernel_size: 5
    weight_filler {
      type: "xavier"
      std: 0.03
    }
    bias_filler {
      type: "constant"
      value: 0.2
    }
  }
}
layer {
  name: "inception_4c/relu_5x5"
  type: "ReLU"
  bottom: "inception_4c/5x5"
  top: "inception_4c/5x5"
}
layer {
  name: "inception_4c/pool"
  type: "Pooling"
  bottom: "inception_4b/output"
  top: "inception_4c/pool"
  pooling_param {
    pool: MAX
    kernel_size: 3
    stride: 1
    pad: 1
  }
}
layer {
  name: "inception_4c/pool_proj"
  type: "Convolution"
  bottom: "inception_4c/pool"
  top: "inception_4c/pool_proj"
  param {
    lr_mult: 1
    decay_mult: 1
  }
  param {
    lr_mult: 2
    decay_mult: 0
  }
  convolution_param {
    num_output: 64
    kernel_size: 1
    weight_filler {
      type: "xavier"
      std: 0.1
    }
    bias_filler {
      type: "constant"
      value: 0.2
    }
  }
}
layer {
  name: "inception_4c/relu_pool_proj"
  type: "ReLU"
  bottom: "inception_4c/pool_proj"
  top: "inception_4c/pool_proj"
}
layer {
  name: "inception_4c/output"
  type: "Concat"
  bottom: "inception_4c/1x1"
  bottom: "inception_4c/3x3"
  bottom: "inception_4c/5x5"
  bottom: "inception_4c/pool_proj"
  top: "inception_4c/output"
}
layer {
  name: "inception_4d/1x1"
  type: "Convolution"
  bottom: "inception_4c/output"
  top: "inception_4d/1x1"
  param {
    lr_mult: 1
    decay_mult: 1
  }
  param {
    lr_mult: 2
    decay_mult: 0
  }
  convolution_param {
    num_output: 112
    kernel_size: 1
    weight_filler {
      type: "xavier"
      std: 0.03
    }
    bias_filler {
      type: "constant"
      value: 0.2
    }
  }
}
layer {
  name: "inception_4d/relu_1x1"
  type: "ReLU"
  bottom: "inception_4d/1x1"
  top: "inception_4d/1x1"
}
layer {
  name: "inception_4d/3x3_reduce"
  type: "Convolution"
  bottom: "inception_4c/output"
  top: "inception_4d/3x3_reduce"
  param {
    lr_mult: 1
    decay_mult: 1
  }
  param {
    lr_mult: 2
    decay_mult: 0
  }
  convolution_param {
    num_output: 144
    kernel_size: 1
    weight_filler {
      type: "xavier"
      std: 0.09
    }
    bias_filler {
      type: "constant"
      value: 0.2
    }
  }
}
layer {
  name: "inception_4d/relu_3x3_reduce"
  type: "ReLU"
  bottom: "inception_4d/3x3_reduce"
  top: "inception_4d/3x3_reduce"
}
layer {
  name: "inception_4d/3x3"
  type: "Convolution"
  bottom: "inception_4d/3x3_reduce"
  top: "inception_4d/3x3"
  param {
    lr_mult: 1
    decay_mult: 1
  }
  param {
    lr_mult: 2
    decay_mult: 0
  }
  convolution_param {
    num_output: 288
    pad: 1
    kernel_size: 3
    weight_filler {
      type: "xavier"
      std: 0.03
    }
    bias_filler {
      type: "constant"
      value: 0.2
    }
  }
}
layer {
  name: "inception_4d/relu_3x3"
  type: "ReLU"
  bottom: "inception_4d/3x3"
  top: "inception_4d/3x3"
}
layer {
  name: "inception_4d/5x5_reduce"
  type: "Convolution"
  bottom: "inception_4c/output"
  top: "inception_4d/5x5_reduce"
  param {
    lr_mult: 1
    decay_mult: 1
  }
  param {
    lr_mult: 2
    decay_mult: 0
  }
  convolution_param {
    num_output: 32
    kernel_size: 1
    weight_filler {
      type: "xavier"
      std: 0.2
    }
    bias_filler {
      type: "constant"
      value: 0.2
    }
  }
}
layer {
  name: "inception_4d/relu_5x5_reduce"
  type: "ReLU"
  bottom: "inception_4d/5x5_reduce"
  top: "inception_4d/5x5_reduce"
}
layer {
  name: "inception_4d/5x5"
  type: "Convolution"
  bottom: "inception_4d/5x5_reduce"
  top: "inception_4d/5x5"
  param {
    lr_mult: 1
    decay_mult: 1
  }
  param {
    lr_mult: 2
    decay_mult: 0
  }
  convolution_param {
    num_output: 64
    pad: 2
    kernel_size: 5
    weight_filler {
      type: "xavier"
      std: 0.03
    }
    bias_filler {
      type: "constant"
      value: 0.2
    }
  }
}
layer {
  name: "inception_4d/relu_5x5"
  type: "ReLU"
  bottom: "inception_4d/5x5"
  top: "inception_4d/5x5"
}
layer {
  name: "inception_4d/pool"
  type: "Pooling"
  bottom: "inception_4c/output"
  top: "inception_4d/pool"
  pooling_param {
    pool: MAX
    kernel_size: 3
    stride: 1
    pad: 1
  }
}
layer {
  name: "inception_4d/pool_proj"
  type: "Convolution"
  bottom: "inception_4d/pool"
  top: "inception_4d/pool_proj"
  param {
    lr_mult: 1
    decay_mult: 1
  }
  param {
    lr_mult: 2
    decay_mult: 0
  }
  convolution_param {
    num_output: 64
    kernel_size: 1
    weight_filler {
      type: "xavier"
      std: 0.1
    }
    bias_filler {
      type: "constant"
      value: 0.2
    }
  }
}
layer {
  name: "inception_4d/relu_pool_proj"
  type: "ReLU"
  bottom: "inception_4d/pool_proj"
  top: "inception_4d/pool_proj"
}
layer {
  name: "inception_4d/output"
  type: "Concat"
  bottom: "inception_4d/1x1"
  bottom: "inception_4d/3x3"
  bottom: "inception_4d/5x5"
  bottom: "inception_4d/pool_proj"
  top: "inception_4d/output"
}
layer {
  name: "inception_4e/1x1"
  type: "Convolution"
  bottom: "inception_4d/output"
  top: "inception_4e/1x1"
  param {
    lr_mult: 1
    decay_mult: 1
  }
  param {
    lr_mult: 2
    decay_mult: 0
  }
  convolution_param {
    num_output: 256
    kernel_size: 1
    weight_filler {
      type: "xavier"
      std: 0.03
    }
    bias_filler {
      type: "constant"
      value: 0.2
    }
  }
}
layer {
  name: "inception_4e/relu_1x1"
  type: "ReLU"
  bottom: "inception_4e/1x1"
  top: "inception_4e/1x1"
}
layer {
  name: "inception_4e/3x3_reduce"
  type: "Convolution"
  bottom: "inception_4d/output"
  top: "inception_4e/3x3_reduce"
  param {
    lr_mult: 1
    decay_mult: 1
  }
  param {
    lr_mult: 2
    decay_mult: 0
  }
  convolution_param {
    num_output: 160
    kernel_size: 1
    weight_filler {
      type: "xavier"
      std: 0.09
    }
    bias_filler {
      type: "constant"
      value: 0.2
    }
  }
}
layer {
  name: "inception_4e/relu_3x3_reduce"
  type: "ReLU"
  bottom: "inception_4e/3x3_reduce"
  top: "inception_4e/3x3_reduce"
}
layer {
  name: "inception_4e/3x3"
  type: "Convolution"
  bottom: "inception_4e/3x3_reduce"
  top: "inception_4e/3x3"
  param {
    lr_mult: 1
    decay_mult: 1
  }
  param {
    lr_mult: 2
    decay_mult: 0
  }
  convolution_param {
    num_output: 320
    pad: 1
    kernel_size: 3
    weight_filler {
      type: "xavier"
      std: 0.03
    }
    bias_filler {
      type: "constant"
      value: 0.2
    }
  }
}
layer {
  name: "inception_4e/relu_3x3"
  type: "ReLU"
  bottom: "inception_4e/3x3"
  top: "inception_4e/3x3"
}
layer {
  name: "inception_4e/5x5_reduce"
  type: "Convolution"
  bottom: "inception_4d/output"
  top: "inception_4e/5x5_reduce"
  param {
    lr_mult: 1
    decay_mult: 1
  }
  param {
    lr_mult: 2
    decay_mult: 0
  }
  convolution_param {
    num_output: 32
    kernel_size: 1
    weight_filler {
      type: "xavier"
      std: 0.2
    }
    bias_filler {
      type: "constant"
      value: 0.2
    }
  }
}
layer {
  name: "inception_4e/relu_5x5_reduce"
  type: "ReLU"
  bottom: "inception_4e/5x5_reduce"
  top: "inception_4e/5x5_reduce"
}
layer {
  name: "inception_4e/5x5"
  type: "Convolution"
  bottom: "inception_4e/5x5_reduce"
  top: "inception_4e/5x5"
  param {
    lr_mult: 1
    decay_mult: 1
  }
  param {
    lr_mult: 2
    decay_mult: 0
  }
  convolution_param {
    num_output: 128
    pad: 2
    kernel_size: 5
    weight_filler {
      type: "xavier"
      std: 0.03
    }
    bias_filler {
      type: "constant"
      value: 0.2
    }
  }
}
layer {
  name: "inception_4e/relu_5x5"
  type: "ReLU"
  bottom: "inception_4e/5x5"
  top: "inception_4e/5x5"
}
layer {
  name: "inception_4e/pool"
  type: "Pooling"
  bottom: "inception_4d/output"
  top: "inception_4e/pool"
  pooling_param {
    pool: MAX
    kernel_size: 3
    stride: 1
    pad: 1
  }
}
layer {
  name: "inception_4e/pool_proj"
  type: "Convolution"
  bottom: "inception_4e/pool"
  top: "inception_4e/pool_proj"
  param {
    lr_mult: 1
    decay_mult: 1
  }
  param {
    lr_mult: 2
    decay_mult: 0
  }
  convolution_param {
    num_output: 128
    kernel_size: 1
    weight_filler {
      type: "xavier"
      std: 0.1
    }
    bias_filler {
      type: "constant"
      value: 0.2
    }
  }
}
layer {
  name: "inception_4e/relu_pool_proj"
  type: "ReLU"
  bottom: "inception_4e/pool_proj"
  top: "inception_4e/pool_proj"
}
layer {
  name: "inception_4e/output"
  type: "Concat"
  bottom: "inception_4e/1x1"
  bottom: "inception_4e/3x3"
  bottom: "inception_4e/5x5"
  bottom: "inception_4e/pool_proj"
  top: "inception_4e/output"
}
layer {
  name: "pool4/3x3_s2"
  type: "Pooling"
  bottom: "inception_4e/output"
  top: "pool4/3x3_s2"
  pooling_param {
    pool: MAX
    kernel_size: 3
    stride: 2
  }
}
layer {
  name: "inception_5a/1x1"
  type: "Convolution"
  bottom: "pool4/3x3_s2"
  top: "inception_5a/1x1"
  param {
    lr_mult: 1
    decay_mult: 1
  }
  param {
    lr_mult: 2
    decay_mult: 0
  }
  convolution_param {
    num_output: 256
    kernel_size: 1
    weight_filler {
      type: "xavier"
      std: 0.03
    }
    bias_filler {
      type: "constant"
      value: 0.2
    }
  }
}
layer {
  name: "inception_5a/relu_1x1"
  type: "ReLU"
  bottom: "inception_5a/1x1"
  top: "inception_5a/1x1"
}
layer {
  name: "inception_5a/3x3_reduce"
  type: "Convolution"
  bottom: "pool4/3x3_s2"
  top: "inception_5a/3x3_reduce"
  param {
    lr_mult: 1
    decay_mult: 1
  }
  param {
    lr_mult: 2
    decay_mult: 0
  }
  convolution_param {
    num_output: 160
    kernel_size: 1
    weight_filler {
      type: "xavier"
      std: 0.09
    }
    bias_filler {
      type: "constant"
      value: 0.2
    }
  }
}
layer {
  name: "inception_5a/relu_3x3_reduce"
  type: "ReLU"
  bottom: "inception_5a/3x3_reduce"
  top: "inception_5a/3x3_reduce"
}
layer {
  name: "inception_5a/3x3"
  type: "Convolution"
  bottom: "inception_5a/3x3_reduce"
  top: "inception_5a/3x3"
  param {
    lr_mult: 1
    decay_mult: 1
  }
  param {
    lr_mult: 2
    decay_mult: 0
  }
  convolution_param {
    num_output: 320
    pad: 1
    kernel_size: 3
    weight_filler {
      type: "xavier"
      std: 0.03
    }
    bias_filler {
      type: "constant"
      value: 0.2
    }
  }
}
layer {
  name: "inception_5a/relu_3x3"
  type: "ReLU"
  bottom: "inception_5a/3x3"
  top: "inception_5a/3x3"
}
layer {
  name: "inception_5a/5x5_reduce"
  type: "Convolution"
  bottom: "pool4/3x3_s2"
  top: "inception_5a/5x5_reduce"
  param {
    lr_mult: 1
    decay_mult: 1
  }
  param {
    lr_mult: 2
    decay_mult: 0
  }
  convolution_param {
    num_output: 32
    kernel_size: 1
    weight_filler {
      type: "xavier"
      std: 0.2
    }
    bias_filler {
      type: "constant"
      value: 0.2
    }
I0714 22:01:54.282127 19131 layer_factory.hpp:77] Creating layer data
I0714 22:01:54.282197 19131 net.cpp:91] Creating Layer data
I0714 22:01:54.282210 19131 net.cpp:399] data -> data
I0714 22:01:54.288442 19135 net.cpp:49] Initializing net from parameters: 
name: "GoogleNet"
state {
  phase: TEST
}
layer {
  name: "data"
  type: "Input"
  top: "data"
  input_param {
    shape {
      dim: 10
      dim: 3
      dim: 224
      dim: 224
    }
  }
}
layer {
  name: "conv1/7x7_s2"
  type: "Convolution"
  bottom: "data"
  top: "conv1/7x7_s2"
  param {
    lr_mult: 1
    decay_mult: 1
  }
  param {
    lr_mult: 2
    decay_mult: 0
  }
  convolution_param {
    num_output: 64
    pad: 3
    kernel_size: 7
    stride: 2
    weight_filler {
      type: "xavier"
      std: 0.1
    }
    bias_filler {
      type: "constant"
      value: 0.2
    }
  }
}
layer {
  name: "conv1/relu_7x7"
  type: "ReLU"
  bottom: "conv1/7x7_s2"
  top: "conv1/7x7_s2"
}
layer {
  name: "pool1/3x3_s2"
  type: "Pooling"
  bottom: "conv1/7x7_s2"
  top: "pool1/3x3_s2"
  pooling_param {
    pool: MAX
    kernel_size: 3
    stride: 2
  }
}
layer {
  name: "pool1/norm1"
  type: "LRN"
  bottom: "pool1/3x3_s2"
  top: "pool1/norm1"
  lrn_param {
    local_size: 5
    alpha: 0.0001
    beta: 0.75
  }
}
layer {
  name: "conv2/3x3_reduce"
  type: "Convolution"
  bottom: "pool1/norm1"
  top: "conv2/3x3_reduce"
  param {
    lr_mult: 1
    decay_mult: 1
  }
  param {
    lr_mult: 2
    decay_mult: 0
  }
  convolution_param {
    num_output: 64
    kernel_size: 1
    weight_filler {
      type: "xavier"
      std: 0.1
    }
    bias_filler {
      type: "constant"
      value: 0.2
    }
  }
}
layer {
  name: "conv2/relu_3x3_reduce"
  type: "ReLU"
  bottom: "conv2/3x3_reduce"
  top: "conv2/3x3_reduce"
}
layer {
  name: "conv2/3x3"
  type: "Convolution"
  bottom: "conv2/3x3_reduce"
  top: "conv2/3x3"
  param {
    lr_mult: 1
    decay_mult: 1
  }
  param {
    lr_mult: 2
    decay_mult: 0
  }
  convolution_param {
    num_output: 192
    pad: 1
    kernel_size: 3
    weight_filler {
      type: "xavier"
      std: 0.03
    }
    bias_filler {
      type: "constant"
      value: 0.2
    }
  }
}
layer {
  name: "conv2/relu_3x3"
  type: "ReLU"
  bottom: "conv2/3x3"
  top: "conv2/3x3"
}
layer {
  name: "conv2/norm2"
  type: "LRN"
  bottom: "conv2/3x3"
  top: "conv2/norm2"
  lrn_param {
    local_size: 5
    alpha: 0.0001
    beta: 0.75
  }
}
layer {
  name: "pool2/3x3_s2"
  type: "Pooling"
  bottom: "conv2/norm2"
  top: "pool2/3x3_s2"
  pooling_param {
    pool: MAX
    kernel_size: 3
    stride: 2
  }
}
layer {
  name: "inception_3a/1x1"
  type: "Convolution"
  bottom: "pool2/3x3_s2"
  top: "inception_3a/1x1"
  param {
    lr_mult: 1
    decay_mult: 1
  }
  param {
    lr_mult: 2
    decay_mult: 0
  }
  convolution_param {
    num_output: 64
    kernel_size: 1
    weight_filler {
      type: "xavier"
      std: 0.03
    }
    bias_filler {
      type: "constant"
      value: 0.2
    }
  }
}
layer {
  name: "inception_3a/relu_1x1"
  type: "ReLU"
  bottom: "inception_3a/1x1"
  top: "inception_3a/1x1"
}
layer {
  name: "inception_3a/3x3_reduce"
  type: "Convolution"
  bottom: "pool2/3x3_s2"
  top: "inception_3a/3x3_reduce"
  param {
    lr_mult: 1
    decay_mult: 1
  }
  param {
    lr_mult: 2
    decay_mult: 0
  }
  convolution_param {
    num_output: 96
    kernel_size: 1
    weight_filler {
      type: "xavier"
      std: 0.09
    }
    bias_filler {
      type: "constant"
      value: 0.2
    }
  }
}
layer {
  name: "inception_3a/relu_3x3_reduce"
  type: "ReLU"
  bottom: "inception_3a/3x3_reduce"
  top: "inception_3a/3x3_reduce"
}
layer {
  name: "inception_3a/3x3"
  type: "Convolution"
  bottom: "inception_3a/3x3_reduce"
  top: "inception_3a/3x3"
  param {
    lr_mult: 1
    decay_mult: 1
  }
  param {
    lr_mult: 2
    decay_mult: 0
  }
  convolution_param {
    num_output: 128
    pad: 1
    kernel_size: 3
    weight_filler {
      type: "xavier"
      std: 0.03
    }
    bias_filler {
      type: "constant"
      value: 0.2
    }
  }
}
layer {
  name: "inception_3a/relu_3x3"
  type: "ReLU"
  bottom: "inception_3a/3x3"
  top: "inception_3a/3x3"
}
layer {
  name: "inception_3a/5x5_reduce"
  type: "Convolution"
  bottom: "pool2/3x3_s2"
  top: "inception_3a/5x5_reduce"
  param {
    lr_mult: 1
    decay_mult: 1
  }
  param {
    lr_mult: 2
    decay_mult: 0
  }
  convolution_param {
    num_output: 16
    kernel_size: 1
    weight_filler {
      type: "xavier"
      std: 0.2
    }
    bias_filler {
      type: "constant"
      value: 0.2
    }
  }
}
layer {
  name: "inception_3a/relu_5x5_reduce"
  type: "ReLU"
  bottom: "inception_3a/5x5_reduce"
  top: "inception_3a/5x5_reduce"
}
layer {
  name: "inception_3a/5x5"
  type: "Convolution"
  bottom: "inception_3a/5x5_reduce"
  top: "inception_3a/5x5"
  param {
    lr_mult: 1
    decay_mult: 1
  }
  param {
    lr_mult: 2
    decay_mult: 0
  }
  convolution_param {
    num_output: 32
    pad: 2
    kernel_size: 5
    weight_filler {
      type: "xavier"
      std: 0.03
    }
    bias_filler {
      type: "constant"
      value: 0.2
    }
  }
}
layer {
  name: "inception_3a/relu_5x5"
  type: "ReLU"
  bottom: "inception_3a/5x5"
  top: "inception_3a/5x5"
}
layer {
  name: "inception_3a/pool"
  type: "Pooling"
  bottom: "pool2/3x3_s2"
  top: "inception_3a/pool"
  pooling_param {
    pool: MAX
    kernel_size: 3
    stride: 1
    pad: 1
  }
}
layer {
  name: "inception_3a/pool_proj"
  type: "Convolution"
  bottom: "inception_3a/pool"
  top: "inception_3a/pool_proj"
  param {
    lr_mult: 1
    decay_mult: 1
  }
  param {
    lr_mult: 2
    decay_mult: 0
  }
  convolution_param {
    num_output: 32
    kernel_size: 1
    weight_filler {
      type: "xavier"
      std: 0.1
    }
    bias_filler {
      type: "constant"
      value: 0.2
    }
  }
}
layer {
  name: "inception_3a/relu_pool_proj"
  type: "ReLU"
  bottom: "inception_3a/pool_proj"
  top: "inception_3a/pool_proj"
}
layer {
  name: "inception_3a/output"
  type: "Concat"
  bottom: "inception_3a/1x1"
  bottom: "inception_3a/3x3"
  bottom: "inception_3a/5x5"
  bottom: "inception_3a/pool_proj"
  top: "inception_3a/output"
}
layer {
  name: "inception_3b/1x1"
  type: "Convolution"
  bottom: "inception_3a/output"
  top: "inception_3b/1x1"
  param {
    lr_mult: 1
    decay_mult: 1
  }
  param {
    lr_mult: 2
    decay_mult: 0
  }
  convolution_param {
    num_output: 128
    kernel_size: 1
    weight_filler {
      type: "xavier"
      std: 0.03
    }
    bias_filler {
      type: "constant"
      value: 0.2
    }
  }
}
layer {
  name: "inception_3b/relu_1x1"
  type: "ReLU"
  bottom: "inception_3b/1x1"
  top: "inception_3b/1x1"
}
layer {
  name: "inception_3b/3x3_reduce"
  type: "Convolution"
  bottom: "inception_3a/output"
  top: "inception_3b/3x3_reduce"
  param {
    lr_mult: 1
    decay_mult: 1
  }
  param {
    lr_mult: 2
    decay_mult: 0
  }
  convolution_param {
    num_output: 128
    kernel_size: 1
    weight_filler {
      type: "xavier"
      std: 0.09
    }
    bias_filler {
      type: "constant"
      value: 0.2
    }
  }
}
layer {
  name: "inception_3b/relu_3x3_reduce"
  type: "ReLU"
  bottom: "inception_3b/3x3_reduce"
  top: "inception_3b/3x3_reduce"
}
layer {
  name: "inception_3b/3x3"
  type: "Convolution"
  bottom: "inception_3b/3x3_reduce"
  top: "inception_3b/3x3"
  param {
    lr_mult: 1
    decay_mult: 1
  }
  param {
    lr_mult: 2
    decay_mult: 0
  }
  convolution_param {
    num_output: 192
    pad: 1
    kernel_size: 3
    weight_filler {
      type: "xavier"
      std: 0.03
    }
    bias_filler {
      type: "constant"
      value: 0.2
    }
  }
}
layer {
  name: "inception_3b/relu_3x3"
  type: "ReLU"
  bottom: "inception_3b/3x3"
  top: "inception_3b/3x3"
}
layer {
  name: "inception_3b/5x5_reduce"
  type: "Convolution"
  bottom: "inception_3a/output"
  top: "inception_3b/5x5_reduce"
  param {
    lr_mult: 1
    decay_mult: 1
  }
  param {
    lr_mult: 2
    decay_mult: 0
  }
  convolution_param {
    num_output: 32
    kernel_size: 1
    weight_filler {
      type: "xavier"
      std: 0.2
    }
    bias_filler {
      type: "constant"
      value: 0.2
    }
  }
}
layer {
  name: "inception_3b/relu_5x5_reduce"
  type: "ReLU"
  bottom: "inception_3b/5x5_reduce"
  top: "inception_3b/5x5_reduce"
}
layer {
  name: "inception_3b/5x5"
  type: "Convolution"
  bottom: "inception_3b/5x5_reduce"
  top: "inception_3b/5x5"
  param {
    lr_mult: 1
    decay_mult: 1
  }
  param {
    lr_mult: 2
    decay_mult: 0
  }
  convolution_param {
    num_output: 96
    pad: 2
    kernel_size: 5
    weight_filler {
      type: "xavier"
      std: 0.03
    }
    bias_filler {
      type: "constant"
      value: 0.2
    }
  }
}
layer {
  name: "inception_3b/relu_5x5"
  type: "ReLU"
  bottom: "inception_3b/5x5"
  top: "inception_3b/5x5"
}
layer {
  name: "inception_3b/pool"
  type: "Pooling"
  bottom: "inception_3a/output"
  top: "inception_3b/pool"
  pooling_param {
    pool: MAX
    kernel_size: 3
    stride: 1
    pad: 1
  }
}
layer {
  name: "inception_3b/pool_proj"
  type: "Convolution"
  bottom: "inception_3b/pool"
  top: "inception_3b/pool_proj"
  param {
    lr_mult: 1
    decay_mult: 1
  }
  param {
    lr_mult: 2
    decay_mult: 0
  }
  convolution_param {
    num_output: 64
    kernel_size: 1
    weight_filler {
      type: "xavier"
      std: 0.1
    }
    bias_filler {
      type: "constant"
      value: 0.2
    }
  }
}
layer {
  name: "inception_3b/relu_pool_proj"
  type: "ReLU"
  bottom: "inception_3b/pool_proj"
  top: "inception_3b/pool_proj"
}
layer {
  name: "inception_3b/output"
  type: "Concat"
  bottom: "inception_3b/1x1"
  bottom: "inception_3b/3x3"
  bottom: "inception_3b/5x5"
  bottom: "inception_3b/pool_proj"
  top: "inception_3b/output"
}
layer {
  name: "pool3/3x3_s2"
  type: "Pooling"
  bottom: "inception_3b/output"
  top: "pool3/3x3_s2"
  pooling_param {
    pool: MAX
    kernel_size: 3
    stride: 2
  }
}
layer {
  name: "inception_4a/1x1"
  type: "Convolution"
  bottom: "pool3/3x3_s2"
  top: "inception_4a/1x1"
  param {
    lr_mult: 1
    decay_mult: 1
  }
  param {
    lr_mult: 2
    decay_mult: 0
  }
  convolution_param {
    num_output: 192
    kernel_size: 1
    weight_filler {
      type: "xavier"
      std: 0.03
    }
    bias_filler {
      type: "constant"
      value: 0.2
    }
  }
}
layer {
  name: "inception_4a/relu_1x1"
  type: "ReLU"
  bottom: "inception_4a/1x1"
  top: "inception_4a/1x1"
}
layer {
  name: "inception_4a/3x3_reduce"
  type: "Convolution"
  bottom: "pool3/3x3_s2"
  top: "inception_4a/3x3_reduce"
  param {
    lr_mult: 1
    decay_mult: 1
  }
  param {
    lr_mult: 2
    decay_mult: 0
  }
  convolution_param {
    num_output: 96
    kernel_size: 1
    weight_filler {
      type: "xavier"
      std: 0.09
    }
    bias_filler {
      type: "constant"
      value: 0.2
    }
  }
}
layer {
  name: "inception_4a/relu_3x3_reduce"
  type: "ReLU"
  bottom: "inception_4a/3x3_reduce"
  top: "inception_4a/3x3_reduce"
}
layer {
  name: "inception_4a/3x3"
  type: "Convolution"
  bottom: "inception_4a/3x3_reduce"
  top: "inception_4a/3x3"
  param {
    lr_mult: 1
    decay_mult: 1
  }
  param {
    lr_mult: 2
    decay_mult: 0
  }
  convolution_param {
    num_output: 208
    pad: 1
    kernel_size: 3
    weight_filler {
      type: "xavier"
      std: 0.03
    }
    bias_filler {
      type: "constant"
      value: 0.2
    }
  }
}
layer {
  name: "inception_4a/relu_3x3"
  type: "ReLU"
  bottom: "inception_4a/3x3"
  top: "inception_4a/3x3"
}
layer {
  name: "inception_4a/5x5_reduce"
  type: "Convolution"
  bottom: "pool3/3x3_s2"
  top: "inception_4a/5x5_reduce"
  param {
    lr_mult: 1
    decay_mult: 1
  }
  param {
    lr_mult: 2
    decay_mult: 0
  }
  convolution_param {
    num_output: 16
    kernel_size: 1
    weight_filler {
      type: "xavier"
      std: 0.2
    }
    bias_filler {
      type: "constant"
      value: 0.2
    }
  }
}
layer {
  name: "inception_4a/relu_5x5_reduce"
  type: "ReLU"
  bottom: "inception_4a/5x5_reduce"
  top: "inception_4a/5x5_reduce"
}
layer {
  name: "inception_4a/5x5"
  type: "Convolution"
  bottom: "inception_4a/5x5_reduce"
  top: "inception_4a/5x5"
  param {
    lr_mult: 1
    decay_mult: 1
  }
  param {
    lr_mult: 2
    decay_mult: 0
  }
  convolution_param {
    num_output: 48
    pad: 2
    kernel_size: 5
    weight_filler {
      type: "xavier"
      std: 0.03
    }
    bias_filler {
      type: "constant"
      value: 0.2
    }
  }
}
layer {
  name: "inception_4a/relu_5x5"
  type: "ReLU"
  bottom: "inception_4a/5x5"
  top: "inception_4a/5x5"
}
layer {
  name: "inception_4a/pool"
  type: "Pooling"
  bottom: "pool3/3x3_s2"
  top: "inception_4a/pool"
  pooling_param {
    pool: MAX
    kernel_size: 3
    stride: 1
    pad: 1
  }
}
layer {
  name: "inception_4a/pool_proj"
  type: "Convolution"
  bottom: "inception_4a/pool"
  top: "inception_4a/pool_proj"
  param {
    lr_mult: 1
    decay_mult: 1
  }
  param {
    lr_mult: 2
    decay_mult: 0
  }
  convolution_param {
    num_output: 64
    kernel_size: 1
    weight_filler {
      type: "xavier"
      std: 0.1
    }
    bias_filler {
      type: "constant"
      value: 0.2
    }
  }
}
layer {
  name: "inception_4a/relu_pool_proj"
  type: "ReLU"
  bottom: "inception_4a/pool_proj"
  top: "inception_4a/pool_proj"
}
layer {
  name: "inception_4a/output"
  type: "Concat"
  bottom: "inception_4a/1x1"
  bottom: "inception_4a/3x3"
  bottom: "inception_4a/5x5"
  bottom: "inception_4a/pool_proj"
  top: "inception_4a/output"
}
layer {
  name: "inception_4b/1x1"
  type: "Convolution"
  bottom: "inception_4a/output"
  top: "inception_4b/1x1"
  param {
    lr_mult: 1
    decay_mult: 1
  }
  param {
    lr_mult: 2
    decay_mult: 0
  }
  convolution_param {
    num_output: 160
    kernel_size: 1
    weight_filler {
      type: "xavier"
      std: 0.03
    }
    bias_filler {
      type: "constant"
      value: 0.2
    }
  }
}
layer {
  name: "inception_4b/relu_1x1"
  type: "ReLU"
  bottom: "inception_4b/1x1"
  top: "inception_4b/1x1"
}
layer {
  name: "inception_4b/3x3_reduce"
  type: "Convolution"
  bottom: "inception_4a/output"
  top: "inception_4b/3x3_reduce"
  param {
    lr_mult: 1
    decay_mult: 1
  }
  param {
    lr_mult: 2
    decay_mult: 0
  }
  convolution_param {
    num_output: 112
    kernel_size: 1
    weight_filler {
      type: "xavier"
      std: 0.09
    }
    bias_filler {
      type: "constant"
      value: 0.2
    }
  }
}
layer {
  name: "inception_4b/relu_3x3_reduce"
  type: "ReLU"
  bottom: "inception_4b/3x3_reduce"
  top: "inception_4b/3x3_reduce"
}
layer {
  name: "inception_4b/3x3"
  type: "Convolution"
  bottom: "inception_4b/3x3_reduce"
  top: "inception_4b/3x3"
  param {
    lr_mult: 1
    decay_mult: 1
  }
  param {
    lr_mult: 2
    decay_mult: 0
  }
  convolution_param {
    num_output: 224
    pad: 1
    kernel_size: 3
    weight_filler {
      type: "xavier"
      std: 0.03
    }
    bias_filler {
      type: "constant"
      value: 0.2
    }
  }
}
layer {
  name: "inception_4b/relu_3x3"
  type: "ReLU"
  bottom: "inception_4b/3x3"
  top: "inception_4b/3x3"
}
layer {
  name: "inception_4b/5x5_reduce"
  type: "Convolution"
  bottom: "inception_4a/output"
  top: "inception_4b/5x5_reduce"
  param {
    lr_mult: 1
    decay_mult: 1
  }
  param {
    lr_mult: 2
    decay_mult: 0
  }
  convolution_param {
    num_output: 24
    kernel_size: 1
    weight_filler {
      type: "xavier"
      std: 0.2
    }
    bias_filler {
      type: "constant"
      value: 0.2
    }
  }
}
layer {
  name: "inception_4b/relu_5x5_reduce"
  type: "ReLU"
  bottom: "inception_4b/5x5_reduce"
  top: "inception_4b/5x5_reduce"
}
layer {
  name: "inception_4b/5x5"
  type: "Convolution"
  bottom: "inception_4b/5x5_reduce"
  top: "inception_4b/5x5"
  param {
    lr_mult: 1
    decay_mult: 1
  }
  param {
    lr_mult: 2
    decay_mult: 0
  }
  convolution_param {
    num_output: 64
    pad: 2
    kernel_size: 5
    weight_filler {
      type: "xavier"
      std: 0.03
    }
    bias_filler {
      type: "constant"
      value: 0.2
    }
  }
}
layer {
  name: "inception_4b/relu_5x5"
  type: "ReLU"
  bottom: "inception_4b/5x5"
  top: "inception_4b/5x5"
}
layer {
  name: "inception_4b/pool"
  type: "Pooling"
  bottom: "inception_4a/output"
  top: "inception_4b/pool"
  pooling_param {
    pool: MAX
    kernel_size: 3
    stride: 1
    pad: 1
  }
}
layer {
  name: "inception_4b/pool_proj"
  type: "Convolution"
  bottom: "inception_4b/pool"
  top: "inception_4b/pool_proj"
  param {
    lr_mult: 1
    decay_mult: 1
  }
  param {
    lr_mult: 2
    decay_mult: 0
  }
  convolution_param {
    num_output: 64
    kernel_size: 1
    weight_filler {
      type: "xavier"
      std: 0.1
    }
    bias_filler {
      type: "constant"
      value: 0.2
    }
  }
}
layer {
  name: "inception_4b/relu_pool_proj"
  type: "ReLU"
  bottom: "inception_4b/pool_proj"
  top: "inception_4b/pool_proj"
}
layer {
  name: "inception_4b/output"
  type: "Concat"
  bottom: "inception_4b/1x1"
  bottom: "inception_4b/3x3"
  bottom: "inception_4b/5x5"
  bottom: "inception_4b/pool_proj"
  top: "inception_4b/output"
}
layer {
  name: "inception_4c/1x1"
  type: "Convolution"
  bottom: "inception_4b/output"
  top: "inception_4c/1x1"
  param {
    lr_mult: 1
    decay_mult: 1
  }
  param {
    lr_mult: 2
    decay_mult: 0
  }
  convolution_param {
    num_output: 128
    kernel_size: 1
    weight_filler {
      type: "xavier"
      std: 0.03
    }
    bias_filler {
      type: "constant"
      value: 0.2
    }
  }
}
layer {
  name: "inception_4c/relu_1x1"
  type: "ReLU"
  bottom: "inception_4c/1x1"
  top: "inception_4c/1x1"
}
layer {
  name: "inception_4c/3x3_reduce"
  type: "Convolution"
  bottom: "inception_4b/output"
  top: "inception_4c/3x3_reduce"
  param {
    lr_mult: 1
    decay_mult: 1
  }
  param {
    lr_mult: 2
    decay_mult: 0
  }
  convolution_param {
    num_output: 128
    kernel_size: 1
    weight_filler {
      type: "xavier"
      std: 0.09
    }
    bias_filler {
      type: "constant"
      value: 0.2
    }
  }
}
layer {
  name: "inception_4c/relu_3x3_reduce"
  type: "ReLU"
  bottom: "inception_4c/3x3_reduce"
  top: "inception_4c/3x3_reduce"
}
layer {
  name: "inception_4c/3x3"
  type: "Convolution"
  bottom: "inception_4c/3x3_reduce"
  top: "inception_4c/3x3"
  param {
    lr_mult: 1
    decay_mult: 1
  }
  param {
    lr_mult: 2
    decay_mult: 0
  }
  convolution_param {
    num_output: 256
    pad: 1
    kernel_size: 3
    weight_filler {
      type: "xavier"
      std: 0.03
    }
    bias_filler {
      type: "constant"
      value: 0.2
    }
  }
}
layer {
  name: "inception_4c/relu_3x3"
  type: "ReLU"
  bottom: "inception_4c/3x3"
  top: "inception_4c/3x3"
}
layer {
  name: "inception_4c/5x5_reduce"
  type: "Convolution"
  bottom: "inception_4b/output"
  top: "inception_4c/5x5_reduce"
  param {
    lr_mult: 1
    decay_mult: 1
  }
  param {
    lr_mult: 2
    decay_mult: 0
  }
  convolution_param {
    num_output: 24
    kernel_size: 1
    weight_filler {
      type: "xavier"
      std: 0.2
    }
    bias_filler {
      type: "constant"
      value: 0.2
    }
  }
}
layer {
  name: "inception_4c/relu_5x5_reduce"
  type: "ReLU"
  bottom: "inception_4c/5x5_reduce"
  top: "inception_4c/5x5_reduce"
}
layer {
  name: "inception_4c/5x5"
  type: "Convolution"
  bottom: "inception_4c/5x5_reduce"
  top: "inception_4c/5x5"
  param {
    lr_mult: 1
    decay_mult: 1
  }
  param {
    lr_mult: 2
    decay_mult: 0
  }
  convolution_param {
    num_output: 64
    pad: 2
    kernel_size: 5
    weight_filler {
      type: "xavier"
      std: 0.03
    }
    bias_filler {
      type: "constant"
      value: 0.2
    }
  }
}
layer {
  name: "inception_4c/relu_5x5"
  type: "ReLU"
  bottom: "inception_4c/5x5"
  top: "inception_4c/5x5"
}
layer {
  name: "inception_4c/pool"
  type: "Pooling"
  bottom: "inception_4b/output"
  top: "inception_4c/pool"
  pooling_param {
    pool: MAX
    kernel_size: 3
    stride: 1
    pad: 1
  }
}
layer {
  name: "inception_4c/pool_proj"
  type: "Convolution"
  bottom: "inception_4c/pool"
  top: "inception_4c/pool_proj"
  param {
    lr_mult: 1
    decay_mult: 1
  }
  param {
    lr_mult: 2
    decay_mult: 0
  }
  convolution_param {
    num_output: 64
    kernel_size: 1
    weight_filler {
      type: "xavier"
      std: 0.1
    }
    bias_filler {
      type: "constant"
      value: 0.2
    }
  }
}
layer {
  name: "inception_4c/relu_pool_proj"
  type: "ReLU"
  bottom: "inception_4c/pool_proj"
  top: "inception_4c/pool_proj"
}
layer {
  name: "inception_4c/output"
  type: "Concat"
  bottom: "inception_4c/1x1"
  bottom: "inception_4c/3x3"
  bottom: "inception_4c/5x5"
  bottom: "inception_4c/pool_proj"
  top: "inception_4c/output"
}
layer {
  name: "inception_4d/1x1"
  type: "Convolution"
  bottom: "inception_4c/output"
  top: "inception_4d/1x1"
  param {
    lr_mult: 1
    decay_mult: 1
  }
  param {
    lr_mult: 2
    decay_mult: 0
  }
  convolution_param {
    num_output: 112
    kernel_size: 1
    weight_filler {
      type: "xavier"
      std: 0.03
    }
    bias_filler {
      type: "constant"
      value: 0.2
    }
  }
}
layer {
  name: "inception_4d/relu_1x1"
  type: "ReLU"
  bottom: "inception_4d/1x1"
  top: "inception_4d/1x1"
}
layer {
  name: "inception_4d/3x3_reduce"
  type: "Convolution"
  bottom: "inception_4c/output"
  top: "inception_4d/3x3_reduce"
  param {
    lr_mult: 1
    decay_mult: 1
  }
  param {
    lr_mult: 2
    decay_mult: 0
  }
  convolution_param {
    num_output: 144
    kernel_size: 1
    weight_filler {
      type: "xavier"
      std: 0.09
    }
    bias_filler {
      type: "constant"
      value: 0.2
    }
  }
}
layer {
  name: "inception_4d/relu_3x3_reduce"
  type: "ReLU"
  bottom: "inception_4d/3x3_reduce"
  top: "inception_4d/3x3_reduce"
}
layer {
  name: "inception_4d/3x3"
  type: "Convolution"
  bottom: "inception_4d/3x3_reduce"
  top: "inception_4d/3x3"
  param {
    lr_mult: 1
    decay_mult: 1
  }
  param {
    lr_mult: 2
    decay_mult: 0
  }
  convolution_param {
    num_output: 288
    pad: 1
    kernel_size: 3
    weight_filler {
      type: "xavier"
      std: 0.03
    }
    bias_filler {
      type: "constant"
      value: 0.2
    }
  }
}
layer {
  name: "inception_4d/relu_3x3"
  type: "ReLU"
  bottom: "inception_4d/3x3"
  top: "inception_4d/3x3"
}
layer {
  name: "inception_4d/5x5_reduce"
  type: "Convolution"
  bottom: "inception_4c/output"
  top: "inception_4d/5x5_reduce"
  param {
    lr_mult: 1
    decay_mult: 1
  }
  param {
    lr_mult: 2
    decay_mult: 0
  }
  convolution_param {
    num_output: 32
    kernel_size: 1
    weight_filler {
      type: "xavier"
      std: 0.2
    }
    bias_filler {
      type: "constant"
      value: 0.2
    }
  }
}
layer {
  name: "inception_4d/relu_5x5_reduce"
  type: "ReLU"
  bottom: "inception_4d/5x5_reduce"
  top: "inception_4d/5x5_reduce"
}
layer {
  name: "inception_4d/5x5"
  type: "Convolution"
  bottom: "inception_4d/5x5_reduce"
  top: "inception_4d/5x5"
  param {
    lr_mult: 1
    decay_mult: 1
  }
  param {
    lr_mult: 2
    decay_mult: 0
  }
  convolution_param {
    num_output: 64
    pad: 2
    kernel_size: 5
    weight_filler {
      type: "xavier"
      std: 0.03
    }
    bias_filler {
      type: "constant"
      value: 0.2
    }
  }
}
layer {
  name: "inception_4d/relu_5x5"
  type: "ReLU"
  bottom: "inception_4d/5x5"
  top: "inception_4d/5x5"
}
layer {
  name: "inception_4d/pool"
  type: "Pooling"
  bottom: "inception_4c/output"
  top: "inception_4d/pool"
  pooling_param {
    pool: MAX
    kernel_size: 3
    stride: 1
    pad: 1
  }
}
layer {
  name: "inception_4d/pool_proj"
  type: "Convolution"
  bottom: "inception_4d/pool"
  top: "inception_4d/pool_proj"
  param {
    lr_mult: 1
    decay_mult: 1
  }
  param {
    lr_mult: 2
    decay_mult: 0
  }
  convolution_param {
    num_output: 64
    kernel_size: 1
    weight_filler {
      type: "xavier"
      std: 0.1
    }
    bias_filler {
      type: "constant"
      value: 0.2
    }
  }
}
layer {
  name: "inception_4d/relu_pool_proj"
  type: "ReLU"
  bottom: "inception_4d/pool_proj"
  top: "inception_4d/pool_proj"
}
layer {
  name: "inception_4d/output"
  type: "Concat"
  bottom: "inception_4d/1x1"
  bottom: "inception_4d/3x3"
  bottom: "inception_4d/5x5"
  bottom: "inception_4d/pool_proj"
  top: "inception_4d/output"
}
layer {
  name: "inception_4e/1x1"
  type: "Convolution"
  bottom: "inception_4d/output"
  top: "inception_4e/1x1"
  param {
    lr_mult: 1
    decay_mult: 1
  }
  param {
    lr_mult: 2
    decay_mult: 0
  }
  convolution_param {
    num_output: 256
    kernel_size: 1
    weight_filler {
      type: "xavier"
      std: 0.03
    }
    bias_filler {
      type: "constant"
      value: 0.2
    }
  }
}
layer {
  name: "inception_4e/relu_1x1"
  type: "ReLU"
  bottom: "inception_4e/1x1"
  top: "inception_4e/1x1"
}
layer {
  name: "inception_4e/3x3_reduce"
  type: "Convolution"
  bottom: "inception_4d/output"
  top: "inception_4e/3x3_reduce"
  param {
    lr_mult: 1
    decay_mult: 1
  }
  param {
    lr_mult: 2
    decay_mult: 0
  }
  convolution_param {
    num_output: 160
    kernel_size: 1
    weight_filler {
      type: "xavier"
      std: 0.09
    }
    bias_filler {
      type: "constant"
      value: 0.2
    }
  }
}
layer {
  name: "inception_4e/relu_3x3_reduce"
  type: "ReLU"
  bottom: "inception_4e/3x3_reduce"
  top: "inception_4e/3x3_reduce"
}
layer {
  name: "inception_4e/3x3"
  type: "Convolution"
  bottom: "inception_4e/3x3_reduce"
  top: "inception_4e/3x3"
  param {
    lr_mult: 1
    decay_mult: 1
  }
  param {
    lr_mult: 2
    decay_mult: 0
  }
  convolution_param {
    num_output: 320
    pad: 1
    kernel_size: 3
    weight_filler {
      type: "xavier"
      std: 0.03
    }
    bias_filler {
      type: "constant"
      value: 0.2
    }
  }
}
layer {
  name: "inception_4e/relu_3x3"
  type: "ReLU"
  bottom: "inception_4e/3x3"
  top: "inception_4e/3x3"
}
layer {
  name: "inception_4e/5x5_reduce"
  type: "Convolution"
  bottom: "inception_4d/output"
  top: "inception_4e/5x5_reduce"
  param {
    lr_mult: 1
    decay_mult: 1
  }
  param {
    lr_mult: 2
    decay_mult: 0
  }
  convolution_param {
    num_output: 32
    kernel_size: 1
    weight_filler {
      type: "xavier"
      std: 0.2
    }
    bias_filler {
      type: "constant"
      value: 0.2
    }
  }
}
layer {
  name: "inception_4e/relu_5x5_reduce"
  type: "ReLU"
  bottom: "inception_4e/5x5_reduce"
  top: "inception_4e/5x5_reduce"
}
layer {
  name: "inception_4e/5x5"
  type: "Convolution"
  bottom: "inception_4e/5x5_reduce"
  top: "inception_4e/5x5"
  param {
    lr_mult: 1
    decay_mult: 1
  }
  param {
    lr_mult: 2
    decay_mult: 0
  }
  convolution_param {
    num_output: 128
    pad: 2
    kernel_size: 5
    weight_filler {
      type: "xavier"
      std: 0.03
    }
    bias_filler {
      type: "constant"
      value: 0.2
    }
  }
}
layer {
  name: "inception_4e/relu_5x5"
  type: "ReLU"
  bottom: "inception_4e/5x5"
  top: "inception_4e/5x5"
}
layer {
  name: "inception_4e/pool"
  type: "Pooling"
  bottom: "inception_4d/output"
  top: "inception_4e/pool"
  pooling_param {
    pool: MAX
    kernel_size: 3
    stride: 1
    pad: 1
  }
}
layer {
  name: "inception_4e/pool_proj"
  type: "Convolution"
  bottom: "inception_4e/pool"
  top: "inception_4e/pool_proj"
  param {
    lr_mult: 1
    decay_mult: 1
  }
  param {
    lr_mult: 2
    decay_mult: 0
  }
  convolution_param {
    num_output: 128
    kernel_size: 1
    weight_filler {
      type: "xavier"
      std: 0.1
    }
    bias_filler {
      type: "constant"
      value: 0.2
    }
  }
}
layer {
  name: "inception_4e/relu_pool_proj"
  type: "ReLU"
  bottom: "inception_4e/pool_proj"
  top: "inception_4e/pool_proj"
}
layer {
  name: "inception_4e/output"
  type: "Concat"
  bottom: "inception_4e/1x1"
  bottom: "inception_4e/3x3"
  bottom: "inception_4e/5x5"
  bottom: "inception_4e/pool_proj"
  top: "inception_4e/output"
}
layer {
  name: "pool4/3x3_s2"
  type: "Pooling"
  bottom: "inception_4e/output"
  top: "pool4/3x3_s2"
  pooling_param {
    pool: MAX
    kernel_size: 3
    stride: 2
  }
}
layer {
  name: "inception_5a/1x1"
  type: "Convolution"
  bottom: "pool4/3x3_s2"
  top: "inception_5a/1x1"
  param {
    lr_mult: 1
    decay_mult: 1
  }
  param {
    lr_mult: 2
    decay_mult: 0
  }
  convolution_param {
    num_output: 256
    kernel_size: 1
    weight_filler {
      type: "xavier"
      std: 0.03
    }
    bias_filler {
      type: "constant"
      value: 0.2
    }
  }
}
layer {
  name: "inception_5a/relu_1x1"
  type: "ReLU"
  bottom: "inception_5a/1x1"
  top: "inception_5a/1x1"
}
layer {
  name: "inception_5a/3x3_reduce"
  type: "Convolution"
  bottom: "pool4/3x3_s2"
  top: "inception_5a/3x3_reduce"
  param {
    lr_mult: 1
    decay_mult: 1
  }
  param {
    lr_mult: 2
    decay_mult: 0
  }
  convolution_param {
    num_output: 160
    kernel_size: 1
    weight_filler {
      type: "xavier"
      std: 0.09
    }
    bias_filler {
      type: "constant"
      value: 0.2
    }
  }
}
layer {
  name: "inception_5a/relu_3x3_reduce"
  type: "ReLU"
  bottom: "inception_5a/3x3_reduce"
  top: "inception_5a/3x3_reduce"
}
layer {
  name: "inception_5a/3x3"
  type: "Convolution"
  bottom: "inception_5a/3x3_reduce"
  top: "inception_5a/3x3"
  param {
    lr_mult: 1
    decay_mult: 1
  }
  param {
    lr_mult: 2
    decay_mult: 0
  }
  convolution_param {
    num_output: 320
    pad: 1
    kernel_size: 3
    weight_filler {
      type: "xavier"
      std: 0.03
    }
    bias_filler {
      type: "constant"
      value: 0.2
    }
  }
}
layer {
  name: "inception_5a/relu_3x3"
  type: "ReLU"
  bottom: "inception_5a/3x3"
  top: "inception_5a/3x3"
}
layer {
  name: "inception_5a/5x5_reduce"
  type: "Convolution"
  bottom: "pool4/3x3_s2"
  top: "inception_5a/5x5_reduce"
  param {
    lr_mult: 1
    decay_mult: 1
  }
  param {
    lr_mult: 2
    decay_mult: 0
  }
  convolution_param {
    num_output: 32
    kernel_size: 1
    weight_filler {
      type: "xavier"
      std: 0.2
    }
    bias_filler {
      type: "constant"
      value: 0.2
    }
I0714 22:01:54.289427 19135 layer_factory.hpp:77] Creating layer data
I0714 22:01:54.289450 19135 net.cpp:91] Creating Layer data
I0714 22:01:54.289459 19135 net.cpp:399] data -> data
I0714 22:01:55.408849 19131 net.cpp:141] Setting up data
I0714 22:01:55.408988 19131 net.cpp:148] Top shape: 10 3 224 224 (1505280)
I0714 22:01:55.408999 19131 net.cpp:156] Memory required for data: 6021120
I0714 22:01:55.409025 19131 layer_factory.hpp:77] Creating layer conv1/7x7_s2
I0714 22:01:55.409073 19131 net.cpp:91] Creating Layer conv1/7x7_s2
I0714 22:01:55.409085 19131 net.cpp:425] conv1/7x7_s2 <- data
I0714 22:01:55.409102 19131 net.cpp:399] conv1/7x7_s2 -> conv1/7x7_s2
I0714 22:01:55.411178 19135 net.cpp:141] Setting up data
I0714 22:01:55.411203 19135 net.cpp:148] Top shape: 10 3 224 224 (1505280)
I0714 22:01:55.411211 19135 net.cpp:156] Memory required for data: 6021120
I0714 22:01:55.411217 19135 layer_factory.hpp:77] Creating layer conv1/7x7_s2
I0714 22:01:55.411237 19135 net.cpp:91] Creating Layer conv1/7x7_s2
I0714 22:01:55.411244 19135 net.cpp:425] conv1/7x7_s2 <- data
I0714 22:01:55.411254 19135 net.cpp:399] conv1/7x7_s2 -> conv1/7x7_s2
I0714 22:01:55.862325 19131 net.cpp:141] Setting up conv1/7x7_s2
I0714 22:01:55.862378 19131 net.cpp:148] Top shape: 10 64 112 112 (8028160)
I0714 22:01:55.862385 19131 net.cpp:156] Memory required for data: 38133760
I0714 22:01:55.862414 19131 layer_factory.hpp:77] Creating layer conv1/relu_7x7
I0714 22:01:55.862433 19131 net.cpp:91] Creating Layer conv1/relu_7x7
I0714 22:01:55.862442 19131 net.cpp:425] conv1/relu_7x7 <- conv1/7x7_s2
I0714 22:01:55.862450 19131 net.cpp:386] conv1/relu_7x7 -> conv1/7x7_s2 (in-place)
I0714 22:01:55.863371 19131 net.cpp:141] Setting up conv1/relu_7x7
I0714 22:01:55.863392 19131 net.cpp:148] Top shape: 10 64 112 112 (8028160)
I0714 22:01:55.863399 19131 net.cpp:156] Memory required for data: 70246400
I0714 22:01:55.863404 19131 layer_factory.hpp:77] Creating layer pool1/3x3_s2
I0714 22:01:55.863420 19131 net.cpp:91] Creating Layer pool1/3x3_s2
I0714 22:01:55.863425 19131 net.cpp:425] pool1/3x3_s2 <- conv1/7x7_s2
I0714 22:01:55.863433 19131 net.cpp:399] pool1/3x3_s2 -> pool1/3x3_s2
I0714 22:01:55.867524 19131 net.cpp:141] Setting up pool1/3x3_s2
I0714 22:01:55.867548 19131 net.cpp:148] Top shape: 10 64 56 56 (2007040)
I0714 22:01:55.867554 19131 net.cpp:156] Memory required for data: 78274560
I0714 22:01:55.867560 19131 layer_factory.hpp:77] Creating layer pool1/norm1
I0714 22:01:55.867580 19131 net.cpp:91] Creating Layer pool1/norm1
I0714 22:01:55.867588 19131 net.cpp:425] pool1/norm1 <- pool1/3x3_s2
I0714 22:01:55.867595 19131 net.cpp:399] pool1/norm1 -> pool1/norm1
I0714 22:01:55.869153 19131 net.cpp:141] Setting up pool1/norm1
I0714 22:01:55.869174 19131 net.cpp:148] Top shape: 10 64 56 56 (2007040)
I0714 22:01:55.869181 19131 net.cpp:156] Memory required for data: 86302720
I0714 22:01:55.869186 19131 layer_factory.hpp:77] Creating layer conv2/3x3_reduce
I0714 22:01:55.869212 19131 net.cpp:91] Creating Layer conv2/3x3_reduce
I0714 22:01:55.869220 19131 net.cpp:425] conv2/3x3_reduce <- pool1/norm1
I0714 22:01:55.869231 19131 net.cpp:399] conv2/3x3_reduce -> conv2/3x3_reduce
I0714 22:01:55.871906 19135 net.cpp:141] Setting up conv1/7x7_s2
I0714 22:01:55.871933 19135 net.cpp:148] Top shape: 10 64 112 112 (8028160)
I0714 22:01:55.871940 19135 net.cpp:156] Memory required for data: 38133760
I0714 22:01:55.871960 19135 layer_factory.hpp:77] Creating layer conv1/relu_7x7
I0714 22:01:55.871973 19135 net.cpp:91] Creating Layer conv1/relu_7x7
I0714 22:01:55.871980 19135 net.cpp:425] conv1/relu_7x7 <- conv1/7x7_s2
I0714 22:01:55.871989 19135 net.cpp:386] conv1/relu_7x7 -> conv1/7x7_s2 (in-place)
I0714 22:01:55.872794 19135 net.cpp:141] Setting up conv1/relu_7x7
I0714 22:01:55.872813 19135 net.cpp:148] Top shape: 10 64 112 112 (8028160)
I0714 22:01:55.872819 19135 net.cpp:156] Memory required for data: 70246400
I0714 22:01:55.872828 19135 layer_factory.hpp:77] Creating layer pool1/3x3_s2
I0714 22:01:55.872839 19135 net.cpp:91] Creating Layer pool1/3x3_s2
I0714 22:01:55.872844 19135 net.cpp:425] pool1/3x3_s2 <- conv1/7x7_s2
I0714 22:01:55.872853 19135 net.cpp:399] pool1/3x3_s2 -> pool1/3x3_s2
I0714 22:01:55.873239 19135 net.cpp:141] Setting up pool1/3x3_s2
I0714 22:01:55.873252 19135 net.cpp:148] Top shape: 10 64 56 56 (2007040)
I0714 22:01:55.873258 19135 net.cpp:156] Memory required for data: 78274560
I0714 22:01:55.873265 19135 layer_factory.hpp:77] Creating layer pool1/norm1
I0714 22:01:55.873276 19135 net.cpp:91] Creating Layer pool1/norm1
I0714 22:01:55.873281 19135 net.cpp:425] pool1/norm1 <- pool1/3x3_s2
I0714 22:01:55.873289 19135 net.cpp:399] pool1/norm1 -> pool1/norm1
I0714 22:01:55.874426 19131 net.cpp:141] Setting up conv2/3x3_reduce
I0714 22:01:55.874442 19135 net.cpp:141] Setting up pool1/norm1
I0714 22:01:55.874447 19131 net.cpp:148] Top shape: 10 64 56 56 (2007040)
I0714 22:01:55.874461 19135 net.cpp:148] Top shape: 10 64 56 56 (2007040)
I0714 22:01:55.874461 19131 net.cpp:156] Memory required for data: 94330880
I0714 22:01:55.874469 19135 net.cpp:156] Memory required for data: 86302720
I0714 22:01:55.874475 19135 layer_factory.hpp:77] Creating layer conv2/3x3_reduce
I0714 22:01:55.874482 19131 layer_factory.hpp:77] Creating layer conv2/relu_3x3_reduce
I0714 22:01:55.874493 19131 net.cpp:91] Creating Layer conv2/relu_3x3_reduce
I0714 22:01:55.874495 19135 net.cpp:91] Creating Layer conv2/3x3_reduce
I0714 22:01:55.874500 19131 net.cpp:425] conv2/relu_3x3_reduce <- conv2/3x3_reduce
I0714 22:01:55.874501 19135 net.cpp:425] conv2/3x3_reduce <- pool1/norm1
I0714 22:01:55.874516 19131 net.cpp:386] conv2/relu_3x3_reduce -> conv2/3x3_reduce (in-place)
I0714 22:01:55.874521 19135 net.cpp:399] conv2/3x3_reduce -> conv2/3x3_reduce
I0714 22:01:55.875540 19131 net.cpp:141] Setting up conv2/relu_3x3_reduce
I0714 22:01:55.875557 19131 net.cpp:148] Top shape: 10 64 56 56 (2007040)
I0714 22:01:55.875563 19131 net.cpp:156] Memory required for data: 102359040
I0714 22:01:55.875569 19131 layer_factory.hpp:77] Creating layer conv2/3x3
I0714 22:01:55.875588 19131 net.cpp:91] Creating Layer conv2/3x3
I0714 22:01:55.875594 19131 net.cpp:425] conv2/3x3 <- conv2/3x3_reduce
I0714 22:01:55.875607 19131 net.cpp:399] conv2/3x3 -> conv2/3x3
I0714 22:01:55.881009 19135 net.cpp:141] Setting up conv2/3x3_reduce
I0714 22:01:55.881032 19135 net.cpp:148] Top shape: 10 64 56 56 (2007040)
I0714 22:01:55.881038 19135 net.cpp:156] Memory required for data: 94330880
I0714 22:01:55.881055 19135 layer_factory.hpp:77] Creating layer conv2/relu_3x3_reduce
I0714 22:01:55.881067 19135 net.cpp:91] Creating Layer conv2/relu_3x3_reduce
I0714 22:01:55.881072 19135 net.cpp:425] conv2/relu_3x3_reduce <- conv2/3x3_reduce
I0714 22:01:55.881079 19135 net.cpp:386] conv2/relu_3x3_reduce -> conv2/3x3_reduce (in-place)
I0714 22:01:55.881995 19135 net.cpp:141] Setting up conv2/relu_3x3_reduce
I0714 22:01:55.882015 19135 net.cpp:148] Top shape: 10 64 56 56 (2007040)
I0714 22:01:55.882021 19135 net.cpp:156] Memory required for data: 102359040
I0714 22:01:55.882027 19135 layer_factory.hpp:77] Creating layer conv2/3x3
I0714 22:01:55.882046 19135 net.cpp:91] Creating Layer conv2/3x3
I0714 22:01:55.882053 19135 net.cpp:425] conv2/3x3 <- conv2/3x3_reduce
I0714 22:01:55.882062 19135 net.cpp:399] conv2/3x3 -> conv2/3x3
I0714 22:01:55.886602 19131 net.cpp:141] Setting up conv2/3x3
I0714 22:01:55.886623 19131 net.cpp:148] Top shape: 10 192 56 56 (6021120)
I0714 22:01:55.886629 19131 net.cpp:156] Memory required for data: 126443520
I0714 22:01:55.886647 19131 layer_factory.hpp:77] Creating layer conv2/relu_3x3
I0714 22:01:55.886659 19131 net.cpp:91] Creating Layer conv2/relu_3x3
I0714 22:01:55.886664 19131 net.cpp:425] conv2/relu_3x3 <- conv2/3x3
I0714 22:01:55.886678 19131 net.cpp:386] conv2/relu_3x3 -> conv2/3x3 (in-place)
I0714 22:01:55.887050 19131 net.cpp:141] Setting up conv2/relu_3x3
I0714 22:01:55.887065 19131 net.cpp:148] Top shape: 10 192 56 56 (6021120)
I0714 22:01:55.887070 19131 net.cpp:156] Memory required for data: 150528000
I0714 22:01:55.887075 19131 layer_factory.hpp:77] Creating layer conv2/norm2
I0714 22:01:55.887089 19131 net.cpp:91] Creating Layer conv2/norm2
I0714 22:01:55.887094 19131 net.cpp:425] conv2/norm2 <- conv2/3x3
I0714 22:01:55.887110 19131 net.cpp:399] conv2/norm2 -> conv2/norm2
I0714 22:01:55.888797 19131 net.cpp:141] Setting up conv2/norm2
I0714 22:01:55.888819 19131 net.cpp:148] Top shape: 10 192 56 56 (6021120)
I0714 22:01:55.888825 19131 net.cpp:156] Memory required for data: 174612480
I0714 22:01:55.888831 19131 layer_factory.hpp:77] Creating layer pool2/3x3_s2
I0714 22:01:55.888841 19131 net.cpp:91] Creating Layer pool2/3x3_s2
I0714 22:01:55.888847 19131 net.cpp:425] pool2/3x3_s2 <- conv2/norm2
I0714 22:01:55.888860 19131 net.cpp:399] pool2/3x3_s2 -> pool2/3x3_s2
I0714 22:01:55.889097 19131 net.cpp:141] Setting up pool2/3x3_s2
I0714 22:01:55.889109 19131 net.cpp:148] Top shape: 10 192 28 28 (1505280)
I0714 22:01:55.889114 19131 net.cpp:156] Memory required for data: 180633600
I0714 22:01:55.889119 19131 layer_factory.hpp:77] Creating layer pool2/3x3_s2_pool2/3x3_s2_0_split
I0714 22:01:55.889143 19131 net.cpp:91] Creating Layer pool2/3x3_s2_pool2/3x3_s2_0_split
I0714 22:01:55.889150 19131 net.cpp:425] pool2/3x3_s2_pool2/3x3_s2_0_split <- pool2/3x3_s2
I0714 22:01:55.889161 19131 net.cpp:399] pool2/3x3_s2_pool2/3x3_s2_0_split -> pool2/3x3_s2_pool2/3x3_s2_0_split_0
I0714 22:01:55.889173 19131 net.cpp:399] pool2/3x3_s2_pool2/3x3_s2_0_split -> pool2/3x3_s2_pool2/3x3_s2_0_split_1
I0714 22:01:55.889183 19131 net.cpp:399] pool2/3x3_s2_pool2/3x3_s2_0_split -> pool2/3x3_s2_pool2/3x3_s2_0_split_2
I0714 22:01:55.889190 19131 net.cpp:399] pool2/3x3_s2_pool2/3x3_s2_0_split -> pool2/3x3_s2_pool2/3x3_s2_0_split_3
I0714 22:01:55.889902 19135 net.cpp:141] Setting up conv2/3x3
I0714 22:01:55.889921 19135 net.cpp:148] Top shape: 10 192 56 56 (6021120)
I0714 22:01:55.889927 19135 net.cpp:156] Memory required for data: 126443520
I0714 22:01:55.889941 19135 layer_factory.hpp:77] Creating layer conv2/relu_3x3
I0714 22:01:55.889961 19135 net.cpp:91] Creating Layer conv2/relu_3x3
I0714 22:01:55.889968 19135 net.cpp:425] conv2/relu_3x3 <- conv2/3x3
I0714 22:01:55.889976 19135 net.cpp:386] conv2/relu_3x3 -> conv2/3x3 (in-place)
I0714 22:01:55.889987 19131 net.cpp:141] Setting up pool2/3x3_s2_pool2/3x3_s2_0_split
I0714 22:01:55.890000 19131 net.cpp:148] Top shape: 10 192 28 28 (1505280)
I0714 22:01:55.890007 19131 net.cpp:148] Top shape: 10 192 28 28 (1505280)
I0714 22:01:55.890012 19131 net.cpp:148] Top shape: 10 192 28 28 (1505280)
I0714 22:01:55.890018 19131 net.cpp:148] Top shape: 10 192 28 28 (1505280)
I0714 22:01:55.890023 19131 net.cpp:156] Memory required for data: 204718080
I0714 22:01:55.890028 19131 layer_factory.hpp:77] Creating layer inception_3a/1x1
I0714 22:01:55.890044 19131 net.cpp:91] Creating Layer inception_3a/1x1
I0714 22:01:55.890051 19131 net.cpp:425] inception_3a/1x1 <- pool2/3x3_s2_pool2/3x3_s2_0_split_0
I0714 22:01:55.890084 19131 net.cpp:399] inception_3a/1x1 -> inception_3a/1x1
I0714 22:01:55.890377 19135 net.cpp:141] Setting up conv2/relu_3x3
I0714 22:01:55.890390 19135 net.cpp:148] Top shape: 10 192 56 56 (6021120)
I0714 22:01:55.890395 19135 net.cpp:156] Memory required for data: 150528000
I0714 22:01:55.890401 19135 layer_factory.hpp:77] Creating layer conv2/norm2
I0714 22:01:55.890413 19135 net.cpp:91] Creating Layer conv2/norm2
I0714 22:01:55.890419 19135 net.cpp:425] conv2/norm2 <- conv2/3x3
I0714 22:01:55.890429 19135 net.cpp:399] conv2/norm2 -> conv2/norm2
I0714 22:01:55.891463 19135 net.cpp:141] Setting up conv2/norm2
I0714 22:01:55.891481 19135 net.cpp:148] Top shape: 10 192 56 56 (6021120)
I0714 22:01:55.891487 19135 net.cpp:156] Memory required for data: 174612480
I0714 22:01:55.891492 19135 layer_factory.hpp:77] Creating layer pool2/3x3_s2
I0714 22:01:55.891504 19135 net.cpp:91] Creating Layer pool2/3x3_s2
I0714 22:01:55.891508 19135 net.cpp:425] pool2/3x3_s2 <- conv2/norm2
I0714 22:01:55.891516 19135 net.cpp:399] pool2/3x3_s2 -> pool2/3x3_s2
I0714 22:01:55.891840 19135 net.cpp:141] Setting up pool2/3x3_s2
I0714 22:01:55.891852 19135 net.cpp:148] Top shape: 10 192 28 28 (1505280)
I0714 22:01:55.891857 19135 net.cpp:156] Memory required for data: 180633600
I0714 22:01:55.891863 19135 layer_factory.hpp:77] Creating layer pool2/3x3_s2_pool2/3x3_s2_0_split
I0714 22:01:55.891875 19135 net.cpp:91] Creating Layer pool2/3x3_s2_pool2/3x3_s2_0_split
I0714 22:01:55.891880 19135 net.cpp:425] pool2/3x3_s2_pool2/3x3_s2_0_split <- pool2/3x3_s2
I0714 22:01:55.891888 19135 net.cpp:399] pool2/3x3_s2_pool2/3x3_s2_0_split -> pool2/3x3_s2_pool2/3x3_s2_0_split_0
I0714 22:01:55.891899 19135 net.cpp:399] pool2/3x3_s2_pool2/3x3_s2_0_split -> pool2/3x3_s2_pool2/3x3_s2_0_split_1
I0714 22:01:55.891909 19135 net.cpp:399] pool2/3x3_s2_pool2/3x3_s2_0_split -> pool2/3x3_s2_pool2/3x3_s2_0_split_2
I0714 22:01:55.891921 19135 net.cpp:399] pool2/3x3_s2_pool2/3x3_s2_0_split -> pool2/3x3_s2_pool2/3x3_s2_0_split_3
I0714 22:01:55.892860 19135 net.cpp:141] Setting up pool2/3x3_s2_pool2/3x3_s2_0_split
I0714 22:01:55.892877 19135 net.cpp:148] Top shape: 10 192 28 28 (1505280)
I0714 22:01:55.892884 19135 net.cpp:148] Top shape: 10 192 28 28 (1505280)
I0714 22:01:55.892890 19135 net.cpp:148] Top shape: 10 192 28 28 (1505280)
I0714 22:01:55.892895 19135 net.cpp:148] Top shape: 10 192 28 28 (1505280)
I0714 22:01:55.892900 19135 net.cpp:156] Memory required for data: 204718080
I0714 22:01:55.892905 19135 layer_factory.hpp:77] Creating layer inception_3a/1x1
I0714 22:01:55.892922 19135 net.cpp:91] Creating Layer inception_3a/1x1
I0714 22:01:55.892928 19135 net.cpp:425] inception_3a/1x1 <- pool2/3x3_s2_pool2/3x3_s2_0_split_0
I0714 22:01:55.892938 19135 net.cpp:399] inception_3a/1x1 -> inception_3a/1x1
I0714 22:01:55.896702 19131 net.cpp:141] Setting up inception_3a/1x1
I0714 22:01:55.896721 19131 net.cpp:148] Top shape: 10 64 28 28 (501760)
I0714 22:01:55.896728 19131 net.cpp:156] Memory required for data: 206725120
I0714 22:01:55.896739 19131 layer_factory.hpp:77] Creating layer inception_3a/relu_1x1
I0714 22:01:55.896749 19131 net.cpp:91] Creating Layer inception_3a/relu_1x1
I0714 22:01:55.896754 19131 net.cpp:425] inception_3a/relu_1x1 <- inception_3a/1x1
I0714 22:01:55.896767 19131 net.cpp:386] inception_3a/relu_1x1 -> inception_3a/1x1 (in-place)
I0714 22:01:55.897228 19131 net.cpp:141] Setting up inception_3a/relu_1x1
I0714 22:01:55.897253 19131 net.cpp:148] Top shape: 10 64 28 28 (501760)
I0714 22:01:55.897263 19131 net.cpp:156] Memory required for data: 208732160
I0714 22:01:55.897272 19131 layer_factory.hpp:77] Creating layer inception_3a/3x3_reduce
I0714 22:01:55.897303 19131 net.cpp:91] Creating Layer inception_3a/3x3_reduce
I0714 22:01:55.897316 19131 net.cpp:425] inception_3a/3x3_reduce <- pool2/3x3_s2_pool2/3x3_s2_0_split_1
I0714 22:01:55.897335 19131 net.cpp:399] inception_3a/3x3_reduce -> inception_3a/3x3_reduce
I0714 22:01:55.903492 19135 net.cpp:141] Setting up inception_3a/1x1
I0714 22:01:55.903513 19135 net.cpp:148] Top shape: 10 64 28 28 (501760)
I0714 22:01:55.903519 19135 net.cpp:156] Memory required for data: 206725120
I0714 22:01:55.903532 19135 layer_factory.hpp:77] Creating layer inception_3a/relu_1x1
I0714 22:01:55.903548 19135 net.cpp:91] Creating Layer inception_3a/relu_1x1
I0714 22:01:55.903553 19135 net.cpp:425] inception_3a/relu_1x1 <- inception_3a/1x1
I0714 22:01:55.903563 19135 net.cpp:386] inception_3a/relu_1x1 -> inception_3a/1x1 (in-place)
I0714 22:01:55.903877 19135 net.cpp:141] Setting up inception_3a/relu_1x1
I0714 22:01:55.903890 19135 net.cpp:148] Top shape: 10 64 28 28 (501760)
I0714 22:01:55.903895 19135 net.cpp:156] Memory required for data: 208732160
I0714 22:01:55.903901 19135 layer_factory.hpp:77] Creating layer inception_3a/3x3_reduce
I0714 22:01:55.903920 19135 net.cpp:91] Creating Layer inception_3a/3x3_reduce
I0714 22:01:55.903926 19135 net.cpp:425] inception_3a/3x3_reduce <- pool2/3x3_s2_pool2/3x3_s2_0_split_1
I0714 22:01:55.903939 19135 net.cpp:399] inception_3a/3x3_reduce -> inception_3a/3x3_reduce
I0714 22:01:55.908697 19131 net.cpp:141] Setting up inception_3a/3x3_reduce
I0714 22:01:55.908721 19131 net.cpp:148] Top shape: 10 96 28 28 (752640)
I0714 22:01:55.908728 19131 net.cpp:156] Memory required for data: 211742720
I0714 22:01:55.908745 19131 layer_factory.hpp:77] Creating layer inception_3a/relu_3x3_reduce
I0714 22:01:55.908758 19131 net.cpp:91] Creating Layer inception_3a/relu_3x3_reduce
I0714 22:01:55.908766 19131 net.cpp:425] inception_3a/relu_3x3_reduce <- inception_3a/3x3_reduce
I0714 22:01:55.908774 19131 net.cpp:386] inception_3a/relu_3x3_reduce -> inception_3a/3x3_reduce (in-place)
I0714 22:01:55.909103 19131 net.cpp:141] Setting up inception_3a/relu_3x3_reduce
I0714 22:01:55.909117 19131 net.cpp:148] Top shape: 10 96 28 28 (752640)
I0714 22:01:55.909122 19131 net.cpp:156] Memory required for data: 214753280
I0714 22:01:55.909127 19131 layer_factory.hpp:77] Creating layer inception_3a/3x3
I0714 22:01:55.909149 19131 net.cpp:91] Creating Layer inception_3a/3x3
I0714 22:01:55.909158 19131 net.cpp:425] inception_3a/3x3 <- inception_3a/3x3_reduce
I0714 22:01:55.909168 19131 net.cpp:399] inception_3a/3x3 -> inception_3a/3x3
I0714 22:01:55.910531 19135 net.cpp:141] Setting up inception_3a/3x3_reduce
I0714 22:01:55.910550 19135 net.cpp:148] Top shape: 10 96 28 28 (752640)
I0714 22:01:55.910557 19135 net.cpp:156] Memory required for data: 211742720
I0714 22:01:55.910573 19135 layer_factory.hpp:77] Creating layer inception_3a/relu_3x3_reduce
I0714 22:01:55.910583 19135 net.cpp:91] Creating Layer inception_3a/relu_3x3_reduce
I0714 22:01:55.910590 19135 net.cpp:425] inception_3a/relu_3x3_reduce <- inception_3a/3x3_reduce
I0714 22:01:55.910603 19135 net.cpp:386] inception_3a/relu_3x3_reduce -> inception_3a/3x3_reduce (in-place)
I0714 22:01:55.910902 19135 net.cpp:141] Setting up inception_3a/relu_3x3_reduce
I0714 22:01:55.910914 19135 net.cpp:148] Top shape: 10 96 28 28 (752640)
I0714 22:01:55.910923 19135 net.cpp:156] Memory required for data: 214753280
I0714 22:01:55.910928 19135 layer_factory.hpp:77] Creating layer inception_3a/3x3
I0714 22:01:55.910958 19135 net.cpp:91] Creating Layer inception_3a/3x3
I0714 22:01:55.910964 19135 net.cpp:425] inception_3a/3x3 <- inception_3a/3x3_reduce
I0714 22:01:55.910974 19135 net.cpp:399] inception_3a/3x3 -> inception_3a/3x3
I0714 22:01:55.914537 19131 net.cpp:141] Setting up inception_3a/3x3
I0714 22:01:55.914557 19131 net.cpp:148] Top shape: 10 128 28 28 (1003520)
I0714 22:01:55.914563 19131 net.cpp:156] Memory required for data: 218767360
I0714 22:01:55.914573 19131 layer_factory.hpp:77] Creating layer inception_3a/relu_3x3
I0714 22:01:55.914583 19131 net.cpp:91] Creating Layer inception_3a/relu_3x3
I0714 22:01:55.914589 19131 net.cpp:425] inception_3a/relu_3x3 <- inception_3a/3x3
I0714 22:01:55.914609 19131 net.cpp:386] inception_3a/relu_3x3 -> inception_3a/3x3 (in-place)
I0714 22:01:55.915597 19131 net.cpp:141] Setting up inception_3a/relu_3x3
I0714 22:01:55.915614 19131 net.cpp:148] Top shape: 10 128 28 28 (1003520)
I0714 22:01:55.915621 19131 net.cpp:156] Memory required for data: 222781440
I0714 22:01:55.915627 19131 layer_factory.hpp:77] Creating layer inception_3a/5x5_reduce
I0714 22:01:55.915644 19131 net.cpp:91] Creating Layer inception_3a/5x5_reduce
I0714 22:01:55.915652 19131 net.cpp:425] inception_3a/5x5_reduce <- pool2/3x3_s2_pool2/3x3_s2_0_split_2
I0714 22:01:55.915664 19131 net.cpp:399] inception_3a/5x5_reduce -> inception_3a/5x5_reduce
I0714 22:01:55.915693 19135 net.cpp:141] Setting up inception_3a/3x3
I0714 22:01:55.915709 19135 net.cpp:148] Top shape: 10 128 28 28 (1003520)
I0714 22:01:55.915714 19135 net.cpp:156] Memory required for data: 218767360
I0714 22:01:55.915724 19135 layer_factory.hpp:77] Creating layer inception_3a/relu_3x3
I0714 22:01:55.915738 19135 net.cpp:91] Creating Layer inception_3a/relu_3x3
I0714 22:01:55.915745 19135 net.cpp:425] inception_3a/relu_3x3 <- inception_3a/3x3
I0714 22:01:55.915753 19135 net.cpp:386] inception_3a/relu_3x3 -> inception_3a/3x3 (in-place)
I0714 22:01:55.916748 19135 net.cpp:141] Setting up inception_3a/relu_3x3
I0714 22:01:55.916765 19135 net.cpp:148] Top shape: 10 128 28 28 (1003520)
I0714 22:01:55.916771 19135 net.cpp:156] Memory required for data: 222781440
I0714 22:01:55.916779 19135 layer_factory.hpp:77] Creating layer inception_3a/5x5_reduce
I0714 22:01:55.916798 19135 net.cpp:91] Creating Layer inception_3a/5x5_reduce
I0714 22:01:55.916805 19135 net.cpp:425] inception_3a/5x5_reduce <- pool2/3x3_s2_pool2/3x3_s2_0_split_2
I0714 22:01:55.916820 19135 net.cpp:399] inception_3a/5x5_reduce -> inception_3a/5x5_reduce
I0714 22:01:55.921057 19131 net.cpp:141] Setting up inception_3a/5x5_reduce
I0714 22:01:55.921077 19131 net.cpp:148] Top shape: 10 16 28 28 (125440)
I0714 22:01:55.921083 19131 net.cpp:156] Memory required for data: 223283200
I0714 22:01:55.921094 19131 layer_factory.hpp:77] Creating layer inception_3a/relu_5x5_reduce
I0714 22:01:55.921104 19131 net.cpp:91] Creating Layer inception_3a/relu_5x5_reduce
I0714 22:01:55.921110 19131 net.cpp:425] inception_3a/relu_5x5_reduce <- inception_3a/5x5_reduce
I0714 22:01:55.921118 19131 net.cpp:386] inception_3a/relu_5x5_reduce -> inception_3a/5x5_reduce (in-place)
I0714 22:01:55.921557 19131 net.cpp:141] Setting up inception_3a/relu_5x5_reduce
I0714 22:01:55.921576 19131 net.cpp:148] Top shape: 10 16 28 28 (125440)
I0714 22:01:55.921581 19131 net.cpp:156] Memory required for data: 223784960
I0714 22:01:55.921587 19131 layer_factory.hpp:77] Creating layer inception_3a/5x5
I0714 22:01:55.921605 19131 net.cpp:91] Creating Layer inception_3a/5x5
I0714 22:01:55.921612 19131 net.cpp:425] inception_3a/5x5 <- inception_3a/5x5_reduce
I0714 22:01:55.921622 19131 net.cpp:399] inception_3a/5x5 -> inception_3a/5x5
I0714 22:01:55.921650 19135 net.cpp:141] Setting up inception_3a/5x5_reduce
I0714 22:01:55.921669 19135 net.cpp:148] Top shape: 10 16 28 28 (125440)
I0714 22:01:55.921675 19135 net.cpp:156] Memory required for data: 223283200
I0714 22:01:55.921684 19135 layer_factory.hpp:77] Creating layer inception_3a/relu_5x5_reduce
I0714 22:01:55.921694 19135 net.cpp:91] Creating Layer inception_3a/relu_5x5_reduce
I0714 22:01:55.921701 19135 net.cpp:425] inception_3a/relu_5x5_reduce <- inception_3a/5x5_reduce
I0714 22:01:55.921710 19135 net.cpp:386] inception_3a/relu_5x5_reduce -> inception_3a/5x5_reduce (in-place)
I0714 22:01:55.922148 19135 net.cpp:141] Setting up inception_3a/relu_5x5_reduce
I0714 22:01:55.922161 19135 net.cpp:148] Top shape: 10 16 28 28 (125440)
I0714 22:01:55.922166 19135 net.cpp:156] Memory required for data: 223784960
I0714 22:01:55.922173 19135 layer_factory.hpp:77] Creating layer inception_3a/5x5
I0714 22:01:55.922189 19135 net.cpp:91] Creating Layer inception_3a/5x5
I0714 22:01:55.922195 19135 net.cpp:425] inception_3a/5x5 <- inception_3a/5x5_reduce
I0714 22:01:55.922209 19135 net.cpp:399] inception_3a/5x5 -> inception_3a/5x5
I0714 22:01:55.927980 19131 net.cpp:141] Setting up inception_3a/5x5
I0714 22:01:55.928004 19131 net.cpp:148] Top shape: 10 32 28 28 (250880)
I0714 22:01:55.928009 19131 net.cpp:156] Memory required for data: 224788480
I0714 22:01:55.928020 19131 layer_factory.hpp:77] Creating layer inception_3a/relu_5x5
I0714 22:01:55.928036 19131 net.cpp:91] Creating Layer inception_3a/relu_5x5
I0714 22:01:55.928043 19131 net.cpp:425] inception_3a/relu_5x5 <- inception_3a/5x5
I0714 22:01:55.928052 19131 net.cpp:386] inception_3a/relu_5x5 -> inception_3a/5x5 (in-place)
I0714 22:01:55.928448 19131 net.cpp:141] Setting up inception_3a/relu_5x5
I0714 22:01:55.928467 19131 net.cpp:148] Top shape: 10 32 28 28 (250880)
I0714 22:01:55.928472 19131 net.cpp:156] Memory required for data: 225792000
I0714 22:01:55.928478 19131 layer_factory.hpp:77] Creating layer inception_3a/pool
I0714 22:01:55.928488 19131 net.cpp:91] Creating Layer inception_3a/pool
I0714 22:01:55.928493 19131 net.cpp:425] inception_3a/pool <- pool2/3x3_s2_pool2/3x3_s2_0_split_3
I0714 22:01:55.928505 19131 net.cpp:399] inception_3a/pool -> inception_3a/pool
I0714 22:01:55.929050 19135 net.cpp:141] Setting up inception_3a/5x5
I0714 22:01:55.929070 19135 net.cpp:148] Top shape: 10 32 28 28 (250880)
I0714 22:01:55.929076 19135 net.cpp:156] Memory required for data: 224788480
I0714 22:01:55.929086 19135 layer_factory.hpp:77] Creating layer inception_3a/relu_5x5
I0714 22:01:55.929091 19131 net.cpp:141] Setting up inception_3a/pool
I0714 22:01:55.929100 19135 net.cpp:91] Creating Layer inception_3a/relu_5x5
I0714 22:01:55.929105 19131 net.cpp:148] Top shape: 10 192 28 28 (1505280)
I0714 22:01:55.929107 19135 net.cpp:425] inception_3a/relu_5x5 <- inception_3a/5x5
I0714 22:01:55.929110 19131 net.cpp:156] Memory required for data: 231813120
I0714 22:01:55.929116 19131 layer_factory.hpp:77] Creating layer inception_3a/pool_proj
I0714 22:01:55.929116 19135 net.cpp:386] inception_3a/relu_5x5 -> inception_3a/5x5 (in-place)
I0714 22:01:55.929141 19131 net.cpp:91] Creating Layer inception_3a/pool_proj
I0714 22:01:55.929148 19131 net.cpp:425] inception_3a/pool_proj <- inception_3a/pool
I0714 22:01:55.929158 19131 net.cpp:399] inception_3a/pool_proj -> inception_3a/pool_proj
I0714 22:01:55.929554 19135 net.cpp:141] Setting up inception_3a/relu_5x5
I0714 22:01:55.929568 19135 net.cpp:148] Top shape: 10 32 28 28 (250880)
I0714 22:01:55.929572 19135 net.cpp:156] Memory required for data: 225792000
I0714 22:01:55.929579 19135 layer_factory.hpp:77] Creating layer inception_3a/pool
I0714 22:01:55.929589 19135 net.cpp:91] Creating Layer inception_3a/pool
I0714 22:01:55.929594 19135 net.cpp:425] inception_3a/pool <- pool2/3x3_s2_pool2/3x3_s2_0_split_3
I0714 22:01:55.929607 19135 net.cpp:399] inception_3a/pool -> inception_3a/pool
I0714 22:01:55.929798 19135 net.cpp:141] Setting up inception_3a/pool
I0714 22:01:55.929811 19135 net.cpp:148] Top shape: 10 192 28 28 (1505280)
I0714 22:01:55.929816 19135 net.cpp:156] Memory required for data: 231813120
I0714 22:01:55.929822 19135 layer_factory.hpp:77] Creating layer inception_3a/pool_proj
I0714 22:01:55.929841 19135 net.cpp:91] Creating Layer inception_3a/pool_proj
I0714 22:01:55.929847 19135 net.cpp:425] inception_3a/pool_proj <- inception_3a/pool
I0714 22:01:55.929859 19135 net.cpp:399] inception_3a/pool_proj -> inception_3a/pool_proj
I0714 22:01:55.934020 19131 net.cpp:141] Setting up inception_3a/pool_proj
I0714 22:01:55.934041 19131 net.cpp:148] Top shape: 10 32 28 28 (250880)
I0714 22:01:55.934046 19131 net.cpp:156] Memory required for data: 232816640
I0714 22:01:55.934072 19131 layer_factory.hpp:77] Creating layer inception_3a/relu_pool_proj
I0714 22:01:55.934084 19131 net.cpp:91] Creating Layer inception_3a/relu_pool_proj
I0714 22:01:55.934092 19131 net.cpp:425] inception_3a/relu_pool_proj <- inception_3a/pool_proj
I0714 22:01:55.934103 19131 net.cpp:386] inception_3a/relu_pool_proj -> inception_3a/pool_proj (in-place)
I0714 22:01:55.935127 19131 net.cpp:141] Setting up inception_3a/relu_pool_proj
I0714 22:01:55.935145 19131 net.cpp:148] Top shape: 10 32 28 28 (250880)
I0714 22:01:55.935151 19131 net.cpp:156] Memory required for data: 233820160
I0714 22:01:55.935158 19131 layer_factory.hpp:77] Creating layer inception_3a/output
I0714 22:01:55.935176 19131 net.cpp:91] Creating Layer inception_3a/output
I0714 22:01:55.935184 19131 net.cpp:425] inception_3a/output <- inception_3a/1x1
I0714 22:01:55.935190 19131 net.cpp:425] inception_3a/output <- inception_3a/3x3
I0714 22:01:55.935196 19131 net.cpp:425] inception_3a/output <- inception_3a/5x5
I0714 22:01:55.935202 19131 net.cpp:425] inception_3a/output <- inception_3a/pool_proj
I0714 22:01:55.935221 19131 net.cpp:399] inception_3a/output -> inception_3a/output
I0714 22:01:55.935226 19135 net.cpp:141] Setting up inception_3a/pool_proj
I0714 22:01:55.935245 19135 net.cpp:148] Top shape: 10 32 28 28 (250880)
I0714 22:01:55.935251 19135 net.cpp:156] Memory required for data: 232816640
I0714 22:01:55.935266 19135 layer_factory.hpp:77] Creating layer inception_3a/relu_pool_proj
I0714 22:01:55.935276 19135 net.cpp:91] Creating Layer inception_3a/relu_pool_proj
I0714 22:01:55.935282 19135 net.cpp:425] inception_3a/relu_pool_proj <- inception_3a/pool_proj
I0714 22:01:55.935295 19135 net.cpp:386] inception_3a/relu_pool_proj -> inception_3a/pool_proj (in-place)
I0714 22:01:55.935302 19131 net.cpp:141] Setting up inception_3a/output
I0714 22:01:55.935313 19131 net.cpp:148] Top shape: 10 256 28 28 (2007040)
I0714 22:01:55.935318 19131 net.cpp:156] Memory required for data: 241848320
I0714 22:01:55.935323 19131 layer_factory.hpp:77] Creating layer inception_3a/output_inception_3a/output_0_split
I0714 22:01:55.935335 19131 net.cpp:91] Creating Layer inception_3a/output_inception_3a/output_0_split
I0714 22:01:55.935341 19131 net.cpp:425] inception_3a/output_inception_3a/output_0_split <- inception_3a/output
I0714 22:01:55.935349 19131 net.cpp:399] inception_3a/output_inception_3a/output_0_split -> inception_3a/output_inception_3a/output_0_split_0
I0714 22:01:55.935359 19131 net.cpp:399] inception_3a/output_inception_3a/output_0_split -> inception_3a/output_inception_3a/output_0_split_1
I0714 22:01:55.935369 19131 net.cpp:399] inception_3a/output_inception_3a/output_0_split -> inception_3a/output_inception_3a/output_0_split_2
I0714 22:01:55.935377 19131 net.cpp:399] inception_3a/output_inception_3a/output_0_split -> inception_3a/output_inception_3a/output_0_split_3
I0714 22:01:55.936251 19131 net.cpp:141] Setting up inception_3a/output_inception_3a/output_0_split
I0714 22:01:55.936265 19131 net.cpp:148] Top shape: 10 256 28 28 (2007040)
I0714 22:01:55.936265 19135 net.cpp:141] Setting up inception_3a/relu_pool_proj
I0714 22:01:55.936271 19131 net.cpp:148] Top shape: 10 256 28 28 (2007040)
I0714 22:01:55.936283 19135 net.cpp:148] Top shape: 10 32 28 28 (250880)
I0714 22:01:55.936285 19131 net.cpp:148] Top shape: 10 256 28 28 (2007040)
I0714 22:01:55.936290 19135 net.cpp:156] Memory required for data: 233820160
I0714 22:01:55.936292 19131 net.cpp:148] Top shape: 10 256 28 28 (2007040)
I0714 22:01:55.936297 19131 net.cpp:156] Memory required for data: 273960960
I0714 22:01:55.936295 19135 layer_factory.hpp:77] Creating layer inception_3a/output
I0714 22:01:55.936307 19131 layer_factory.hpp:77] Creating layer inception_3b/1x1
I0714 22:01:55.936314 19135 net.cpp:91] Creating Layer inception_3a/output
I0714 22:01:55.936321 19135 net.cpp:425] inception_3a/output <- inception_3a/1x1
I0714 22:01:55.936327 19131 net.cpp:91] Creating Layer inception_3b/1x1
I0714 22:01:55.936331 19135 net.cpp:425] inception_3a/output <- inception_3a/3x3
I0714 22:01:55.936334 19131 net.cpp:425] inception_3b/1x1 <- inception_3a/output_inception_3a/output_0_split_0
I0714 22:01:55.936338 19135 net.cpp:425] inception_3a/output <- inception_3a/5x5
I0714 22:01:55.936344 19131 net.cpp:399] inception_3b/1x1 -> inception_3b/1x1
I0714 22:01:55.936344 19135 net.cpp:425] inception_3a/output <- inception_3a/pool_proj
I0714 22:01:55.936359 19135 net.cpp:399] inception_3a/output -> inception_3a/output
I0714 22:01:55.936489 19135 net.cpp:141] Setting up inception_3a/output
I0714 22:01:55.936501 19135 net.cpp:148] Top shape: 10 256 28 28 (2007040)
I0714 22:01:55.936506 19135 net.cpp:156] Memory required for data: 241848320
I0714 22:01:55.936511 19135 layer_factory.hpp:77] Creating layer inception_3a/output_inception_3a/output_0_split
I0714 22:01:55.936527 19135 net.cpp:91] Creating Layer inception_3a/output_inception_3a/output_0_split
I0714 22:01:55.936532 19135 net.cpp:425] inception_3a/output_inception_3a/output_0_split <- inception_3a/output
I0714 22:01:55.936540 19135 net.cpp:399] inception_3a/output_inception_3a/output_0_split -> inception_3a/output_inception_3a/output_0_split_0
I0714 22:01:55.936550 19135 net.cpp:399] inception_3a/output_inception_3a/output_0_split -> inception_3a/output_inception_3a/output_0_split_1
I0714 22:01:55.936563 19135 net.cpp:399] inception_3a/output_inception_3a/output_0_split -> inception_3a/output_inception_3a/output_0_split_2
I0714 22:01:55.936573 19135 net.cpp:399] inception_3a/output_inception_3a/output_0_split -> inception_3a/output_inception_3a/output_0_split_3
I0714 22:01:55.936951 19135 net.cpp:141] Setting up inception_3a/output_inception_3a/output_0_split
I0714 22:01:55.936964 19135 net.cpp:148] Top shape: 10 256 28 28 (2007040)
I0714 22:01:55.936970 19135 net.cpp:148] Top shape: 10 256 28 28 (2007040)
I0714 22:01:55.936976 19135 net.cpp:148] Top shape: 10 256 28 28 (2007040)
I0714 22:01:55.936982 19135 net.cpp:148] Top shape: 10 256 28 28 (2007040)
I0714 22:01:55.936986 19135 net.cpp:156] Memory required for data: 273960960
I0714 22:01:55.936992 19135 layer_factory.hpp:77] Creating layer inception_3b/1x1
I0714 22:01:55.937010 19135 net.cpp:91] Creating Layer inception_3b/1x1
I0714 22:01:55.937016 19135 net.cpp:425] inception_3b/1x1 <- inception_3a/output_inception_3a/output_0_split_0
I0714 22:01:55.937026 19135 net.cpp:399] inception_3b/1x1 -> inception_3b/1x1
I0714 22:01:55.940863 19131 net.cpp:141] Setting up inception_3b/1x1
I0714 22:01:55.940884 19131 net.cpp:148] Top shape: 10 128 28 28 (1003520)
I0714 22:01:55.940891 19131 net.cpp:156] Memory required for data: 277975040
I0714 22:01:55.940901 19131 layer_factory.hpp:77] Creating layer inception_3b/relu_1x1
I0714 22:01:55.940910 19131 net.cpp:91] Creating Layer inception_3b/relu_1x1
I0714 22:01:55.940917 19131 net.cpp:425] inception_3b/relu_1x1 <- inception_3b/1x1
I0714 22:01:55.940929 19131 net.cpp:386] inception_3b/relu_1x1 -> inception_3b/1x1 (in-place)
I0714 22:01:55.941236 19131 net.cpp:141] Setting up inception_3b/relu_1x1
I0714 22:01:55.941253 19131 net.cpp:148] Top shape: 10 128 28 28 (1003520)
I0714 22:01:55.941258 19131 net.cpp:156] Memory required for data: 281989120
I0714 22:01:55.941264 19131 layer_factory.hpp:77] Creating layer inception_3b/3x3_reduce
I0714 22:01:55.941282 19131 net.cpp:91] Creating Layer inception_3b/3x3_reduce
I0714 22:01:55.941288 19131 net.cpp:425] inception_3b/3x3_reduce <- inception_3a/output_inception_3a/output_0_split_1
I0714 22:01:55.941298 19131 net.cpp:399] inception_3b/3x3_reduce -> inception_3b/3x3_reduce
I0714 22:01:55.942811 19135 net.cpp:141] Setting up inception_3b/1x1
I0714 22:01:55.942884 19135 net.cpp:148] Top shape: 10 128 28 28 (1003520)
I0714 22:01:55.942898 19135 net.cpp:156] Memory required for data: 277975040
I0714 22:01:55.942922 19135 layer_factory.hpp:77] Creating layer inception_3b/relu_1x1
I0714 22:01:55.942950 19135 net.cpp:91] Creating Layer inception_3b/relu_1x1
I0714 22:01:55.942965 19135 net.cpp:425] inception_3b/relu_1x1 <- inception_3b/1x1
I0714 22:01:55.942984 19135 net.cpp:386] inception_3b/relu_1x1 -> inception_3b/1x1 (in-place)
I0714 22:01:55.943627 19135 net.cpp:141] Setting up inception_3b/relu_1x1
I0714 22:01:55.943652 19135 net.cpp:148] Top shape: 10 128 28 28 (1003520)
I0714 22:01:55.943661 19135 net.cpp:156] Memory required for data: 281989120
I0714 22:01:55.943670 19135 layer_factory.hpp:77] Creating layer inception_3b/3x3_reduce
I0714 22:01:55.943711 19135 net.cpp:91] Creating Layer inception_3b/3x3_reduce
I0714 22:01:55.943723 19135 net.cpp:425] inception_3b/3x3_reduce <- inception_3a/output_inception_3a/output_0_split_1
I0714 22:01:55.943742 19135 net.cpp:399] inception_3b/3x3_reduce -> inception_3b/3x3_reduce
I0714 22:01:55.946406 19131 net.cpp:141] Setting up inception_3b/3x3_reduce
I0714 22:01:55.946429 19131 net.cpp:148] Top shape: 10 128 28 28 (1003520)
I0714 22:01:55.946435 19131 net.cpp:156] Memory required for data: 286003200
I0714 22:01:55.946446 19131 layer_factory.hpp:77] Creating layer inception_3b/relu_3x3_reduce
I0714 22:01:55.946456 19131 net.cpp:91] Creating Layer inception_3b/relu_3x3_reduce
I0714 22:01:55.946462 19131 net.cpp:425] inception_3b/relu_3x3_reduce <- inception_3b/3x3_reduce
I0714 22:01:55.946475 19131 net.cpp:386] inception_3b/relu_3x3_reduce -> inception_3b/3x3_reduce (in-place)
I0714 22:01:55.946883 19131 net.cpp:141] Setting up inception_3b/relu_3x3_reduce
I0714 22:01:55.946897 19131 net.cpp:148] Top shape: 10 128 28 28 (1003520)
I0714 22:01:55.946903 19131 net.cpp:156] Memory required for data: 290017280
I0714 22:01:55.946908 19131 layer_factory.hpp:77] Creating layer inception_3b/3x3
I0714 22:01:55.946939 19131 net.cpp:91] Creating Layer inception_3b/3x3
I0714 22:01:55.946948 19131 net.cpp:425] inception_3b/3x3 <- inception_3b/3x3_reduce
I0714 22:01:55.946957 19131 net.cpp:399] inception_3b/3x3 -> inception_3b/3x3
I0714 22:01:55.952895 19135 net.cpp:141] Setting up inception_3b/3x3_reduce
I0714 22:01:55.952939 19135 net.cpp:148] Top shape: 10 128 28 28 (1003520)
I0714 22:01:55.952950 19135 net.cpp:156] Memory required for data: 286003200
I0714 22:01:55.952970 19135 layer_factory.hpp:77] Creating layer inception_3b/relu_3x3_reduce
I0714 22:01:55.952992 19135 net.cpp:91] Creating Layer inception_3b/relu_3x3_reduce
I0714 22:01:55.953006 19135 net.cpp:425] inception_3b/relu_3x3_reduce <- inception_3b/3x3_reduce
I0714 22:01:55.953021 19135 net.cpp:386] inception_3b/relu_3x3_reduce -> inception_3b/3x3_reduce (in-place)
I0714 22:01:55.953510 19135 net.cpp:141] Setting up inception_3b/relu_3x3_reduce
I0714 22:01:55.953531 19135 net.cpp:148] Top shape: 10 128 28 28 (1003520)
I0714 22:01:55.953539 19135 net.cpp:156] Memory required for data: 290017280
I0714 22:01:55.953549 19135 layer_factory.hpp:77] Creating layer inception_3b/3x3
I0714 22:01:55.953579 19135 net.cpp:91] Creating Layer inception_3b/3x3
I0714 22:01:55.953590 19135 net.cpp:425] inception_3b/3x3 <- inception_3b/3x3_reduce
I0714 22:01:55.953611 19135 net.cpp:399] inception_3b/3x3 -> inception_3b/3x3
I0714 22:01:55.959313 19131 net.cpp:141] Setting up inception_3b/3x3
I0714 22:01:55.959337 19131 net.cpp:148] Top shape: 10 192 28 28 (1505280)
I0714 22:01:55.959343 19131 net.cpp:156] Memory required for data: 296038400
I0714 22:01:55.959353 19131 layer_factory.hpp:77] Creating layer inception_3b/relu_3x3
I0714 22:01:55.959368 19131 net.cpp:91] Creating Layer inception_3b/relu_3x3
I0714 22:01:55.959375 19131 net.cpp:425] inception_3b/relu_3x3 <- inception_3b/3x3
I0714 22:01:55.959388 19131 net.cpp:386] inception_3b/relu_3x3 -> inception_3b/3x3 (in-place)
I0714 22:01:55.960213 19131 net.cpp:141] Setting up inception_3b/relu_3x3
I0714 22:01:55.960230 19131 net.cpp:148] Top shape: 10 192 28 28 (1505280)
I0714 22:01:55.960235 19131 net.cpp:156] Memory required for data: 302059520
I0714 22:01:55.960242 19131 layer_factory.hpp:77] Creating layer inception_3b/5x5_reduce
I0714 22:01:55.960261 19131 net.cpp:91] Creating Layer inception_3b/5x5_reduce
I0714 22:01:55.960268 19131 net.cpp:425] inception_3b/5x5_reduce <- inception_3a/output_inception_3a/output_0_split_2
I0714 22:01:55.960278 19131 net.cpp:399] inception_3b/5x5_reduce -> inception_3b/5x5_reduce
I0714 22:01:55.965034 19131 net.cpp:141] Setting up inception_3b/5x5_reduce
I0714 22:01:55.965057 19131 net.cpp:148] Top shape: 10 32 28 28 (250880)
I0714 22:01:55.965065 19131 net.cpp:156] Memory required for data: 303063040
I0714 22:01:55.965075 19131 layer_factory.hpp:77] Creating layer inception_3b/relu_5x5_reduce
I0714 22:01:55.965088 19131 net.cpp:91] Creating Layer inception_3b/relu_5x5_reduce
I0714 22:01:55.965095 19131 net.cpp:425] inception_3b/relu_5x5_reduce <- inception_3b/5x5_reduce
I0714 22:01:55.965103 19131 net.cpp:386] inception_3b/relu_5x5_reduce -> inception_3b/5x5_reduce (in-place)
I0714 22:01:55.965641 19131 net.cpp:141] Setting up inception_3b/relu_5x5_reduce
I0714 22:01:55.965656 19131 net.cpp:148] Top shape: 10 32 28 28 (250880)
I0714 22:01:55.965662 19131 net.cpp:156] Memory required for data: 304066560
I0714 22:01:55.965667 19131 layer_factory.hpp:77] Creating layer inception_3b/5x5
I0714 22:01:55.965687 19131 net.cpp:91] Creating Layer inception_3b/5x5
I0714 22:01:55.965693 19131 net.cpp:425] inception_3b/5x5 <- inception_3b/5x5_reduce
I0714 22:01:55.965705 19131 net.cpp:399] inception_3b/5x5 -> inception_3b/5x5
I0714 22:01:55.965963 19135 net.cpp:141] Setting up inception_3b/3x3
I0714 22:01:55.965994 19135 net.cpp:148] Top shape: 10 192 28 28 (1505280)
I0714 22:01:55.966002 19135 net.cpp:156] Memory required for data: 296038400
I0714 22:01:55.966017 19135 layer_factory.hpp:77] Creating layer inception_3b/relu_3x3
I0714 22:01:55.966043 19135 net.cpp:91] Creating Layer inception_3b/relu_3x3
I0714 22:01:55.966053 19135 net.cpp:425] inception_3b/relu_3x3 <- inception_3b/3x3
I0714 22:01:55.966066 19135 net.cpp:386] inception_3b/relu_3x3 -> inception_3b/3x3 (in-place)
I0714 22:01:55.967896 19135 net.cpp:141] Setting up inception_3b/relu_3x3
I0714 22:01:55.967924 19135 net.cpp:148] Top shape: 10 192 28 28 (1505280)
I0714 22:01:55.967932 19135 net.cpp:156] Memory required for data: 302059520
I0714 22:01:55.967941 19135 layer_factory.hpp:77] Creating layer inception_3b/5x5_reduce
I0714 22:01:55.967964 19135 net.cpp:91] Creating Layer inception_3b/5x5_reduce
I0714 22:01:55.967973 19135 net.cpp:425] inception_3b/5x5_reduce <- inception_3a/output_inception_3a/output_0_split_2
I0714 22:01:55.967988 19135 net.cpp:399] inception_3b/5x5_reduce -> inception_3b/5x5_reduce
I0714 22:01:55.974418 19135 net.cpp:141] Setting up inception_3b/5x5_reduce
I0714 22:01:55.974460 19135 net.cpp:148] Top shape: 10 32 28 28 (250880)
I0714 22:01:55.974472 19135 net.cpp:156] Memory required for data: 303063040
I0714 22:01:55.974489 19135 layer_factory.hpp:77] Creating layer inception_3b/relu_5x5_reduce
I0714 22:01:55.974505 19135 net.cpp:91] Creating Layer inception_3b/relu_5x5_reduce
I0714 22:01:55.974515 19135 net.cpp:425] inception_3b/relu_5x5_reduce <- inception_3b/5x5_reduce
I0714 22:01:55.974529 19135 net.cpp:386] inception_3b/relu_5x5_reduce -> inception_3b/5x5_reduce (in-place)
I0714 22:01:55.974529 19131 net.cpp:141] Setting up inception_3b/5x5
I0714 22:01:55.974561 19131 net.cpp:148] Top shape: 10 96 28 28 (752640)
I0714 22:01:55.974567 19131 net.cpp:156] Memory required for data: 307077120
I0714 22:01:55.974578 19131 layer_factory.hpp:77] Creating layer inception_3b/relu_5x5
I0714 22:01:55.974588 19131 net.cpp:91] Creating Layer inception_3b/relu_5x5
I0714 22:01:55.974596 19131 net.cpp:425] inception_3b/relu_5x5 <- inception_3b/5x5
I0714 22:01:55.974603 19131 net.cpp:386] inception_3b/relu_5x5 -> inception_3b/5x5 (in-place)
I0714 22:01:55.975159 19135 net.cpp:141] Setting up inception_3b/relu_5x5_reduce
I0714 22:01:55.975174 19135 net.cpp:148] Top shape: 10 32 28 28 (250880)
I0714 22:01:55.975179 19135 net.cpp:156] Memory required for data: 304066560
I0714 22:01:55.975178 19131 net.cpp:141] Setting up inception_3b/relu_5x5
I0714 22:01:55.975188 19135 layer_factory.hpp:77] Creating layer inception_3b/5x5
I0714 22:01:55.975193 19131 net.cpp:148] Top shape: 10 96 28 28 (752640)
I0714 22:01:55.975199 19131 net.cpp:156] Memory required for data: 310087680
I0714 22:01:55.975204 19131 layer_factory.hpp:77] Creating layer inception_3b/pool
I0714 22:01:55.975206 19135 net.cpp:91] Creating Layer inception_3b/5x5
I0714 22:01:55.975214 19135 net.cpp:425] inception_3b/5x5 <- inception_3b/5x5_reduce
I0714 22:01:55.975215 19131 net.cpp:91] Creating Layer inception_3b/pool
I0714 22:01:55.975221 19131 net.cpp:425] inception_3b/pool <- inception_3a/output_inception_3a/output_0_split_3
I0714 22:01:55.975227 19135 net.cpp:399] inception_3b/5x5 -> inception_3b/5x5
I0714 22:01:55.975236 19131 net.cpp:399] inception_3b/pool -> inception_3b/pool
I0714 22:01:55.975520 19131 net.cpp:141] Setting up inception_3b/pool
I0714 22:01:55.975533 19131 net.cpp:148] Top shape: 10 256 28 28 (2007040)
I0714 22:01:55.975538 19131 net.cpp:156] Memory required for data: 318115840
I0714 22:01:55.975543 19131 layer_factory.hpp:77] Creating layer inception_3b/pool_proj
I0714 22:01:55.975559 19131 net.cpp:91] Creating Layer inception_3b/pool_proj
I0714 22:01:55.975566 19131 net.cpp:425] inception_3b/pool_proj <- inception_3b/pool
I0714 22:01:55.975575 19131 net.cpp:399] inception_3b/pool_proj -> inception_3b/pool_proj
I0714 22:01:55.983718 19131 net.cpp:141] Setting up inception_3b/pool_proj
I0714 22:01:55.983743 19131 net.cpp:148] Top shape: 10 64 28 28 (501760)
I0714 22:01:55.983749 19131 net.cpp:156] Memory required for data: 320122880
I0714 22:01:55.983760 19131 layer_factory.hpp:77] Creating layer inception_3b/relu_pool_proj
I0714 22:01:55.983774 19131 net.cpp:91] Creating Layer inception_3b/relu_pool_proj
I0714 22:01:55.983781 19131 net.cpp:425] inception_3b/relu_pool_proj <- inception_3b/pool_proj
I0714 22:01:55.983790 19131 net.cpp:386] inception_3b/relu_pool_proj -> inception_3b/pool_proj (in-place)
I0714 22:01:55.984794 19131 net.cpp:141] Setting up inception_3b/relu_pool_proj
I0714 22:01:55.984812 19131 net.cpp:148] Top shape: 10 64 28 28 (501760)
I0714 22:01:55.984818 19131 net.cpp:156] Memory required for data: 322129920
I0714 22:01:55.984823 19131 layer_factory.hpp:77] Creating layer inception_3b/output
I0714 22:01:55.984838 19131 net.cpp:91] Creating Layer inception_3b/output
I0714 22:01:55.984843 19131 net.cpp:425] inception_3b/output <- inception_3b/1x1
I0714 22:01:55.984851 19131 net.cpp:425] inception_3b/output <- inception_3b/3x3
I0714 22:01:55.984858 19131 net.cpp:425] inception_3b/output <- inception_3b/5x5
I0714 22:01:55.984863 19131 net.cpp:425] inception_3b/output <- inception_3b/pool_proj
I0714 22:01:55.984871 19131 net.cpp:399] inception_3b/output -> inception_3b/output
I0714 22:01:55.984872 19135 net.cpp:141] Setting up inception_3b/5x5
I0714 22:01:55.984895 19135 net.cpp:148] Top shape: 10 96 28 28 (752640)
I0714 22:01:55.984902 19135 net.cpp:156] Memory required for data: 307077120
I0714 22:01:55.984915 19135 layer_factory.hpp:77] Creating layer inception_3b/relu_5x5
I0714 22:01:55.984932 19135 net.cpp:91] Creating Layer inception_3b/relu_5x5
I0714 22:01:55.984941 19135 net.cpp:425] inception_3b/relu_5x5 <- inception_3b/5x5
I0714 22:01:55.984953 19135 net.cpp:386] inception_3b/relu_5x5 -> inception_3b/5x5 (in-place)
I0714 22:01:55.984959 19131 net.cpp:141] Setting up inception_3b/output
I0714 22:01:55.984972 19131 net.cpp:148] Top shape: 10 480 28 28 (3763200)
I0714 22:01:55.984977 19131 net.cpp:156] Memory required for data: 337182720
I0714 22:01:55.984982 19131 layer_factory.hpp:77] Creating layer pool3/3x3_s2
I0714 22:01:55.984995 19131 net.cpp:91] Creating Layer pool3/3x3_s2
I0714 22:01:55.985002 19131 net.cpp:425] pool3/3x3_s2 <- inception_3b/output
I0714 22:01:55.985011 19131 net.cpp:399] pool3/3x3_s2 -> pool3/3x3_s2
I0714 22:01:55.985311 19131 net.cpp:141] Setting up pool3/3x3_s2
I0714 22:01:55.985324 19131 net.cpp:148] Top shape: 10 480 14 14 (940800)
I0714 22:01:55.985329 19131 net.cpp:156] Memory required for data: 340945920
I0714 22:01:55.985334 19131 layer_factory.hpp:77] Creating layer pool3/3x3_s2_pool3/3x3_s2_0_split
I0714 22:01:55.985344 19131 net.cpp:91] Creating Layer pool3/3x3_s2_pool3/3x3_s2_0_split
I0714 22:01:55.985349 19131 net.cpp:425] pool3/3x3_s2_pool3/3x3_s2_0_split <- pool3/3x3_s2
I0714 22:01:55.985360 19131 net.cpp:399] pool3/3x3_s2_pool3/3x3_s2_0_split -> pool3/3x3_s2_pool3/3x3_s2_0_split_0
I0714 22:01:55.985369 19131 net.cpp:399] pool3/3x3_s2_pool3/3x3_s2_0_split -> pool3/3x3_s2_pool3/3x3_s2_0_split_1
I0714 22:01:55.985379 19131 net.cpp:399] pool3/3x3_s2_pool3/3x3_s2_0_split -> pool3/3x3_s2_pool3/3x3_s2_0_split_2
I0714 22:01:55.985385 19135 net.cpp:141] Setting up inception_3b/relu_5x5
I0714 22:01:55.985388 19131 net.cpp:399] pool3/3x3_s2_pool3/3x3_s2_0_split -> pool3/3x3_s2_pool3/3x3_s2_0_split_3
I0714 22:01:55.985402 19135 net.cpp:148] Top shape: 10 96 28 28 (752640)
I0714 22:01:55.985409 19135 net.cpp:156] Memory required for data: 310087680
I0714 22:01:55.985414 19135 layer_factory.hpp:77] Creating layer inception_3b/pool
I0714 22:01:55.985427 19135 net.cpp:91] Creating Layer inception_3b/pool
I0714 22:01:55.985435 19135 net.cpp:425] inception_3b/pool <- inception_3a/output_inception_3a/output_0_split_3
I0714 22:01:55.985443 19135 net.cpp:399] inception_3b/pool -> inception_3b/pool
I0714 22:01:55.985745 19135 net.cpp:141] Setting up inception_3b/pool
I0714 22:01:55.985759 19135 net.cpp:148] Top shape: 10 256 28 28 (2007040)
I0714 22:01:55.985764 19135 net.cpp:156] Memory required for data: 318115840
I0714 22:01:55.985769 19135 layer_factory.hpp:77] Creating layer inception_3b/pool_proj
I0714 22:01:55.985766 19131 net.cpp:141] Setting up pool3/3x3_s2_pool3/3x3_s2_0_split
I0714 22:01:55.985788 19131 net.cpp:148] Top shape: 10 480 14 14 (940800)
I0714 22:01:55.985790 19135 net.cpp:91] Creating Layer inception_3b/pool_proj
I0714 22:01:55.985796 19131 net.cpp:148] Top shape: 10 480 14 14 (940800)
I0714 22:01:55.985798 19135 net.cpp:425] inception_3b/pool_proj <- inception_3b/pool
I0714 22:01:55.985803 19131 net.cpp:148] Top shape: 10 480 14 14 (940800)
I0714 22:01:55.985810 19131 net.cpp:148] Top shape: 10 480 14 14 (940800)
I0714 22:01:55.985812 19135 net.cpp:399] inception_3b/pool_proj -> inception_3b/pool_proj
I0714 22:01:55.985816 19131 net.cpp:156] Memory required for data: 355998720
I0714 22:01:55.985821 19131 layer_factory.hpp:77] Creating layer inception_4a/1x1
I0714 22:01:55.985839 19131 net.cpp:91] Creating Layer inception_4a/1x1
I0714 22:01:55.985846 19131 net.cpp:425] inception_4a/1x1 <- pool3/3x3_s2_pool3/3x3_s2_0_split_0
I0714 22:01:55.985857 19131 net.cpp:399] inception_4a/1x1 -> inception_4a/1x1
I0714 22:01:55.991873 19135 net.cpp:141] Setting up inception_3b/pool_proj
I0714 22:01:55.991905 19135 net.cpp:148] Top shape: 10 64 28 28 (501760)
I0714 22:01:55.991914 19135 net.cpp:156] Memory required for data: 320122880
I0714 22:01:55.991925 19135 layer_factory.hpp:77] Creating layer inception_3b/relu_pool_proj
I0714 22:01:55.991937 19135 net.cpp:91] Creating Layer inception_3b/relu_pool_proj
I0714 22:01:55.991945 19135 net.cpp:425] inception_3b/relu_pool_proj <- inception_3b/pool_proj
I0714 22:01:55.991956 19135 net.cpp:386] inception_3b/relu_pool_proj -> inception_3b/pool_proj (in-place)
I0714 22:01:55.993208 19135 net.cpp:141] Setting up inception_3b/relu_pool_proj
I0714 22:01:55.993230 19135 net.cpp:148] Top shape: 10 64 28 28 (501760)
I0714 22:01:55.993237 19135 net.cpp:156] Memory required for data: 322129920
I0714 22:01:55.993243 19135 layer_factory.hpp:77] Creating layer inception_3b/output
I0714 22:01:55.993255 19135 net.cpp:91] Creating Layer inception_3b/output
I0714 22:01:55.993263 19135 net.cpp:425] inception_3b/output <- inception_3b/1x1
I0714 22:01:55.993271 19135 net.cpp:425] inception_3b/output <- inception_3b/3x3
I0714 22:01:55.993279 19135 net.cpp:425] inception_3b/output <- inception_3b/5x5
I0714 22:01:55.993288 19135 net.cpp:425] inception_3b/output <- inception_3b/pool_proj
I0714 22:01:55.993296 19135 net.cpp:399] inception_3b/output -> inception_3b/output
I0714 22:01:55.993324 19131 net.cpp:141] Setting up inception_4a/1x1
I0714 22:01:55.993342 19131 net.cpp:148] Top shape: 10 192 14 14 (376320)
I0714 22:01:55.993348 19131 net.cpp:156] Memory required for data: 357504000
I0714 22:01:55.993357 19131 layer_factory.hpp:77] Creating layer inception_4a/relu_1x1
I0714 22:01:55.993369 19131 net.cpp:91] Creating Layer inception_4a/relu_1x1
I0714 22:01:55.993376 19131 net.cpp:425] inception_4a/relu_1x1 <- inception_4a/1x1
I0714 22:01:55.993384 19131 net.cpp:386] inception_4a/relu_1x1 -> inception_4a/1x1 (in-place)
I0714 22:01:55.993415 19135 net.cpp:141] Setting up inception_3b/output
I0714 22:01:55.993430 19135 net.cpp:148] Top shape: 10 480 28 28 (3763200)
I0714 22:01:55.993437 19135 net.cpp:156] Memory required for data: 337182720
I0714 22:01:55.993443 19135 layer_factory.hpp:77] Creating layer pool3/3x3_s2
I0714 22:01:55.993453 19135 net.cpp:91] Creating Layer pool3/3x3_s2
I0714 22:01:55.993460 19135 net.cpp:425] pool3/3x3_s2 <- inception_3b/output
I0714 22:01:55.993475 19135 net.cpp:399] pool3/3x3_s2 -> pool3/3x3_s2
I0714 22:01:55.993815 19135 net.cpp:141] Setting up pool3/3x3_s2
I0714 22:01:55.993832 19135 net.cpp:148] Top shape: 10 480 14 14 (940800)
I0714 22:01:55.993839 19135 net.cpp:156] Memory required for data: 340945920
I0714 22:01:55.993844 19135 layer_factory.hpp:77] Creating layer pool3/3x3_s2_pool3/3x3_s2_0_split
I0714 22:01:55.993850 19131 net.cpp:141] Setting up inception_4a/relu_1x1
I0714 22:01:55.993859 19135 net.cpp:91] Creating Layer pool3/3x3_s2_pool3/3x3_s2_0_split
I0714 22:01:55.993865 19131 net.cpp:148] Top shape: 10 192 14 14 (376320)
I0714 22:01:55.993866 19135 net.cpp:425] pool3/3x3_s2_pool3/3x3_s2_0_split <- pool3/3x3_s2
I0714 22:01:55.993872 19131 net.cpp:156] Memory required for data: 359009280
I0714 22:01:55.993878 19131 layer_factory.hpp:77] Creating layer inception_4a/3x3_reduce
I0714 22:01:55.993880 19135 net.cpp:399] pool3/3x3_s2_pool3/3x3_s2_0_split -> pool3/3x3_s2_pool3/3x3_s2_0_split_0
I0714 22:01:55.993893 19135 net.cpp:399] pool3/3x3_s2_pool3/3x3_s2_0_split -> pool3/3x3_s2_pool3/3x3_s2_0_split_1
I0714 22:01:55.993899 19131 net.cpp:91] Creating Layer inception_4a/3x3_reduce
I0714 22:01:55.993906 19135 net.cpp:399] pool3/3x3_s2_pool3/3x3_s2_0_split -> pool3/3x3_s2_pool3/3x3_s2_0_split_2
I0714 22:01:55.993907 19131 net.cpp:425] inception_4a/3x3_reduce <- pool3/3x3_s2_pool3/3x3_s2_0_split_1
I0714 22:01:55.993924 19135 net.cpp:399] pool3/3x3_s2_pool3/3x3_s2_0_split -> pool3/3x3_s2_pool3/3x3_s2_0_split_3
I0714 22:01:55.993929 19131 net.cpp:399] inception_4a/3x3_reduce -> inception_4a/3x3_reduce
I0714 22:01:55.994374 19135 net.cpp:141] Setting up pool3/3x3_s2_pool3/3x3_s2_0_split
I0714 22:01:55.994387 19135 net.cpp:148] Top shape: 10 480 14 14 (940800)
I0714 22:01:55.994395 19135 net.cpp:148] Top shape: 10 480 14 14 (940800)
I0714 22:01:55.994400 19135 net.cpp:148] Top shape: 10 480 14 14 (940800)
I0714 22:01:55.994405 19135 net.cpp:148] Top shape: 10 480 14 14 (940800)
I0714 22:01:55.994410 19135 net.cpp:156] Memory required for data: 355998720
I0714 22:01:55.994415 19135 layer_factory.hpp:77] Creating layer inception_4a/1x1
I0714 22:01:55.994433 19135 net.cpp:91] Creating Layer inception_4a/1x1
I0714 22:01:55.994441 19135 net.cpp:425] inception_4a/1x1 <- pool3/3x3_s2_pool3/3x3_s2_0_split_0
I0714 22:01:55.994449 19135 net.cpp:399] inception_4a/1x1 -> inception_4a/1x1
I0714 22:01:56.000509 19131 net.cpp:141] Setting up inception_4a/3x3_reduce
I0714 22:01:56.000531 19131 net.cpp:148] Top shape: 10 96 14 14 (188160)
I0714 22:01:56.000537 19131 net.cpp:156] Memory required for data: 359761920
I0714 22:01:56.000560 19131 layer_factory.hpp:77] Creating layer inception_4a/relu_3x3_reduce
I0714 22:01:56.000572 19131 net.cpp:91] Creating Layer inception_4a/relu_3x3_reduce
I0714 22:01:56.000579 19131 net.cpp:425] inception_4a/relu_3x3_reduce <- inception_4a/3x3_reduce
I0714 22:01:56.000587 19131 net.cpp:386] inception_4a/relu_3x3_reduce -> inception_4a/3x3_reduce (in-place)
I0714 22:01:56.001067 19131 net.cpp:141] Setting up inception_4a/relu_3x3_reduce
I0714 22:01:56.001081 19131 net.cpp:148] Top shape: 10 96 14 14 (188160)
I0714 22:01:56.001086 19131 net.cpp:156] Memory required for data: 360514560
I0714 22:01:56.001092 19131 layer_factory.hpp:77] Creating layer inception_4a/3x3
I0714 22:01:56.001088 19135 net.cpp:141] Setting up inception_4a/1x1
I0714 22:01:56.001109 19135 net.cpp:148] Top shape: 10 192 14 14 (376320)
I0714 22:01:56.001114 19131 net.cpp:91] Creating Layer inception_4a/3x3
I0714 22:01:56.001116 19135 net.cpp:156] Memory required for data: 357504000
I0714 22:01:56.001127 19131 net.cpp:425] inception_4a/3x3 <- inception_4a/3x3_reduce
I0714 22:01:56.001142 19135 layer_factory.hpp:77] Creating layer inception_4a/relu_1x1
I0714 22:01:56.001149 19131 net.cpp:399] inception_4a/3x3 -> inception_4a/3x3
I0714 22:01:56.001159 19135 net.cpp:91] Creating Layer inception_4a/relu_1x1
I0714 22:01:56.001168 19135 net.cpp:425] inception_4a/relu_1x1 <- inception_4a/1x1
I0714 22:01:56.001176 19135 net.cpp:386] inception_4a/relu_1x1 -> inception_4a/1x1 (in-place)
I0714 22:01:56.001709 19135 net.cpp:141] Setting up inception_4a/relu_1x1
I0714 22:01:56.001724 19135 net.cpp:148] Top shape: 10 192 14 14 (376320)
I0714 22:01:56.001730 19135 net.cpp:156] Memory required for data: 359009280
I0714 22:01:56.001736 19135 layer_factory.hpp:77] Creating layer inception_4a/3x3_reduce
I0714 22:01:56.001759 19135 net.cpp:91] Creating Layer inception_4a/3x3_reduce
I0714 22:01:56.001766 19135 net.cpp:425] inception_4a/3x3_reduce <- pool3/3x3_s2_pool3/3x3_s2_0_split_1
I0714 22:01:56.001777 19135 net.cpp:399] inception_4a/3x3_reduce -> inception_4a/3x3_reduce
I0714 22:01:56.009146 19135 net.cpp:141] Setting up inception_4a/3x3_reduce
I0714 22:01:56.009172 19135 net.cpp:148] Top shape: 10 96 14 14 (188160)
I0714 22:01:56.009179 19135 net.cpp:156] Memory required for data: 359761920
I0714 22:01:56.009204 19135 layer_factory.hpp:77] Creating layer inception_4a/relu_3x3_reduce
I0714 22:01:56.009219 19135 net.cpp:91] Creating Layer inception_4a/relu_3x3_reduce
I0714 22:01:56.009227 19135 net.cpp:425] inception_4a/relu_3x3_reduce <- inception_4a/3x3_reduce
I0714 22:01:56.009237 19135 net.cpp:386] inception_4a/relu_3x3_reduce -> inception_4a/3x3_reduce (in-place)
I0714 22:01:56.009776 19135 net.cpp:141] Setting up inception_4a/relu_3x3_reduce
I0714 22:01:56.009790 19135 net.cpp:148] Top shape: 10 96 14 14 (188160)
I0714 22:01:56.009795 19135 net.cpp:156] Memory required for data: 360514560
I0714 22:01:56.009800 19135 layer_factory.hpp:77] Creating layer inception_4a/3x3
I0714 22:01:56.009819 19135 net.cpp:91] Creating Layer inception_4a/3x3
I0714 22:01:56.009825 19135 net.cpp:425] inception_4a/3x3 <- inception_4a/3x3_reduce
I0714 22:01:56.009838 19135 net.cpp:399] inception_4a/3x3 -> inception_4a/3x3
I0714 22:01:56.009866 19131 net.cpp:141] Setting up inception_4a/3x3
I0714 22:01:56.009896 19131 net.cpp:148] Top shape: 10 208 14 14 (407680)
I0714 22:01:56.009903 19131 net.cpp:156] Memory required for data: 362145280
I0714 22:01:56.009915 19131 layer_factory.hpp:77] Creating layer inception_4a/relu_3x3
I0714 22:01:56.009930 19131 net.cpp:91] Creating Layer inception_4a/relu_3x3
I0714 22:01:56.009939 19131 net.cpp:425] inception_4a/relu_3x3 <- inception_4a/3x3
I0714 22:01:56.009958 19131 net.cpp:386] inception_4a/relu_3x3 -> inception_4a/3x3 (in-place)
I0714 22:01:56.011143 19131 net.cpp:141] Setting up inception_4a/relu_3x3
I0714 22:01:56.011163 19131 net.cpp:148] Top shape: 10 208 14 14 (407680)
I0714 22:01:56.011169 19131 net.cpp:156] Memory required for data: 363776000
I0714 22:01:56.011175 19131 layer_factory.hpp:77] Creating layer inception_4a/5x5_reduce
I0714 22:01:56.011199 19131 net.cpp:91] Creating Layer inception_4a/5x5_reduce
I0714 22:01:56.011206 19131 net.cpp:425] inception_4a/5x5_reduce <- pool3/3x3_s2_pool3/3x3_s2_0_split_2
I0714 22:01:56.011217 19131 net.cpp:399] inception_4a/5x5_reduce -> inception_4a/5x5_reduce
I0714 22:01:56.017704 19131 net.cpp:141] Setting up inception_4a/5x5_reduce
I0714 22:01:56.017729 19131 net.cpp:148] Top shape: 10 16 14 14 (31360)
I0714 22:01:56.017736 19131 net.cpp:156] Memory required for data: 363901440
I0714 22:01:56.017752 19131 layer_factory.hpp:77] Creating layer inception_4a/relu_5x5_reduce
I0714 22:01:56.017763 19131 net.cpp:91] Creating Layer inception_4a/relu_5x5_reduce
I0714 22:01:56.017770 19131 net.cpp:425] inception_4a/relu_5x5_reduce <- inception_4a/5x5_reduce
I0714 22:01:56.017781 19131 net.cpp:386] inception_4a/relu_5x5_reduce -> inception_4a/5x5_reduce (in-place)
I0714 22:01:56.018358 19131 net.cpp:141] Setting up inception_4a/relu_5x5_reduce
I0714 22:01:56.018373 19131 net.cpp:148] Top shape: 10 16 14 14 (31360)
I0714 22:01:56.018378 19131 net.cpp:156] Memory required for data: 364026880
I0714 22:01:56.018383 19131 layer_factory.hpp:77] Creating layer inception_4a/5x5
I0714 22:01:56.018401 19131 net.cpp:91] Creating Layer inception_4a/5x5
I0714 22:01:56.018410 19131 net.cpp:425] inception_4a/5x5 <- inception_4a/5x5_reduce
I0714 22:01:56.018421 19131 net.cpp:399] inception_4a/5x5 -> inception_4a/5x5
I0714 22:01:56.018440 19135 net.cpp:141] Setting up inception_4a/3x3
I0714 22:01:56.018463 19135 net.cpp:148] Top shape: 10 208 14 14 (407680)
I0714 22:01:56.018471 19135 net.cpp:156] Memory required for data: 362145280
I0714 22:01:56.018481 19135 layer_factory.hpp:77] Creating layer inception_4a/relu_3x3
I0714 22:01:56.018491 19135 net.cpp:91] Creating Layer inception_4a/relu_3x3
I0714 22:01:56.018498 19135 net.cpp:425] inception_4a/relu_3x3 <- inception_4a/3x3
I0714 22:01:56.018507 19135 net.cpp:386] inception_4a/relu_3x3 -> inception_4a/3x3 (in-place)
I0714 22:01:56.019641 19135 net.cpp:141] Setting up inception_4a/relu_3x3
I0714 22:01:56.019666 19135 net.cpp:148] Top shape: 10 208 14 14 (407680)
I0714 22:01:56.019672 19135 net.cpp:156] Memory required for data: 363776000
I0714 22:01:56.019678 19135 layer_factory.hpp:77] Creating layer inception_4a/5x5_reduce
I0714 22:01:56.019698 19135 net.cpp:91] Creating Layer inception_4a/5x5_reduce
I0714 22:01:56.019706 19135 net.cpp:425] inception_4a/5x5_reduce <- pool3/3x3_s2_pool3/3x3_s2_0_split_2
I0714 22:01:56.019721 19135 net.cpp:399] inception_4a/5x5_reduce -> inception_4a/5x5_reduce
I0714 22:01:56.024662 19131 net.cpp:141] Setting up inception_4a/5x5
I0714 22:01:56.024684 19131 net.cpp:148] Top shape: 10 48 14 14 (94080)
I0714 22:01:56.024690 19131 net.cpp:156] Memory required for data: 364403200
I0714 22:01:56.024700 19131 layer_factory.hpp:77] Creating layer inception_4a/relu_5x5
I0714 22:01:56.024713 19131 net.cpp:91] Creating Layer inception_4a/relu_5x5
I0714 22:01:56.024719 19131 net.cpp:425] inception_4a/relu_5x5 <- inception_4a/5x5
I0714 22:01:56.024727 19131 net.cpp:386] inception_4a/relu_5x5 -> inception_4a/5x5 (in-place)
I0714 22:01:56.025244 19131 net.cpp:141] Setting up inception_4a/relu_5x5
I0714 22:01:56.025259 19131 net.cpp:148] Top shape: 10 48 14 14 (94080)
I0714 22:01:56.025264 19131 net.cpp:156] Memory required for data: 364779520
I0714 22:01:56.025269 19131 layer_factory.hpp:77] Creating layer inception_4a/pool
I0714 22:01:56.025279 19131 net.cpp:91] Creating Layer inception_4a/pool
I0714 22:01:56.025285 19131 net.cpp:425] inception_4a/pool <- pool3/3x3_s2_pool3/3x3_s2_0_split_3
I0714 22:01:56.025297 19131 net.cpp:399] inception_4a/pool -> inception_4a/pool
I0714 22:01:56.025508 19135 net.cpp:141] Setting up inception_4a/5x5_reduce
I0714 22:01:56.025527 19135 net.cpp:148] Top shape: 10 16 14 14 (31360)
I0714 22:01:56.025533 19135 net.cpp:156] Memory required for data: 363901440
I0714 22:01:56.025545 19135 layer_factory.hpp:77] Creating layer inception_4a/relu_5x5_reduce
I0714 22:01:56.025543 19131 net.cpp:141] Setting up inception_4a/pool
I0714 22:01:56.025559 19135 net.cpp:91] Creating Layer inception_4a/relu_5x5_reduce
I0714 22:01:56.025566 19135 net.cpp:425] inception_4a/relu_5x5_reduce <- inception_4a/5x5_reduce
I0714 22:01:56.025566 19131 net.cpp:148] Top shape: 10 480 14 14 (940800)
I0714 22:01:56.025574 19131 net.cpp:156] Memory required for data: 368542720
I0714 22:01:56.025579 19131 layer_factory.hpp:77] Creating layer inception_4a/pool_proj
I0714 22:01:56.025584 19135 net.cpp:386] inception_4a/relu_5x5_reduce -> inception_4a/5x5_reduce (in-place)
I0714 22:01:56.025600 19131 net.cpp:91] Creating Layer inception_4a/pool_proj
I0714 22:01:56.025607 19131 net.cpp:425] inception_4a/pool_proj <- inception_4a/pool
I0714 22:01:56.025617 19131 net.cpp:399] inception_4a/pool_proj -> inception_4a/pool_proj
I0714 22:01:56.026124 19135 net.cpp:141] Setting up inception_4a/relu_5x5_reduce
I0714 22:01:56.026139 19135 net.cpp:148] Top shape: 10 16 14 14 (31360)
I0714 22:01:56.026144 19135 net.cpp:156] Memory required for data: 364026880
I0714 22:01:56.026150 19135 layer_factory.hpp:77] Creating layer inception_4a/5x5
I0714 22:01:56.026168 19135 net.cpp:91] Creating Layer inception_4a/5x5
I0714 22:01:56.026175 19135 net.cpp:425] inception_4a/5x5 <- inception_4a/5x5_reduce
I0714 22:01:56.026190 19135 net.cpp:399] inception_4a/5x5 -> inception_4a/5x5
I0714 22:01:56.030712 19131 net.cpp:141] Setting up inception_4a/pool_proj
I0714 22:01:56.030738 19131 net.cpp:148] Top shape: 10 64 14 14 (125440)
I0714 22:01:56.030745 19131 net.cpp:156] Memory required for data: 369044480
I0714 22:01:56.030755 19131 layer_factory.hpp:77] Creating layer inception_4a/relu_pool_proj
I0714 22:01:56.030766 19131 net.cpp:91] Creating Layer inception_4a/relu_pool_proj
I0714 22:01:56.030772 19131 net.cpp:425] inception_4a/relu_pool_proj <- inception_4a/pool_proj
I0714 22:01:56.030786 19131 net.cpp:386] inception_4a/relu_pool_proj -> inception_4a/pool_proj (in-place)
I0714 22:01:56.031662 19135 net.cpp:141] Setting up inception_4a/5x5
I0714 22:01:56.031683 19135 net.cpp:148] Top shape: 10 48 14 14 (94080)
I0714 22:01:56.031690 19135 net.cpp:156] Memory required for data: 364403200
I0714 22:01:56.031702 19135 layer_factory.hpp:77] Creating layer inception_4a/relu_5x5
I0714 22:01:56.031716 19135 net.cpp:91] Creating Layer inception_4a/relu_5x5
I0714 22:01:56.031725 19135 net.cpp:425] inception_4a/relu_5x5 <- inception_4a/5x5
I0714 22:01:56.031734 19135 net.cpp:386] inception_4a/relu_5x5 -> inception_4a/5x5 (in-place)
I0714 22:01:56.031755 19131 net.cpp:141] Setting up inception_4a/relu_pool_proj
I0714 22:01:56.031770 19131 net.cpp:148] Top shape: 10 64 14 14 (125440)
I0714 22:01:56.031775 19131 net.cpp:156] Memory required for data: 369546240
I0714 22:01:56.031783 19131 layer_factory.hpp:77] Creating layer inception_4a/output
I0714 22:01:56.031793 19131 net.cpp:91] Creating Layer inception_4a/output
I0714 22:01:56.031798 19131 net.cpp:425] inception_4a/output <- inception_4a/1x1
I0714 22:01:56.031806 19131 net.cpp:425] inception_4a/output <- inception_4a/3x3
I0714 22:01:56.031812 19131 net.cpp:425] inception_4a/output <- inception_4a/5x5
I0714 22:01:56.031818 19131 net.cpp:425] inception_4a/output <- inception_4a/pool_proj
I0714 22:01:56.031828 19131 net.cpp:399] inception_4a/output -> inception_4a/output
I0714 22:01:56.032001 19131 net.cpp:141] Setting up inception_4a/output
I0714 22:01:56.032014 19131 net.cpp:148] Top shape: 10 512 14 14 (1003520)
I0714 22:01:56.032019 19131 net.cpp:156] Memory required for data: 373560320
I0714 22:01:56.032024 19131 layer_factory.hpp:77] Creating layer inception_4a/output_inception_4a/output_0_split
I0714 22:01:56.032037 19131 net.cpp:91] Creating Layer inception_4a/output_inception_4a/output_0_split
I0714 22:01:56.032042 19131 net.cpp:425] inception_4a/output_inception_4a/output_0_split <- inception_4a/output
I0714 22:01:56.032050 19131 net.cpp:399] inception_4a/output_inception_4a/output_0_split -> inception_4a/output_inception_4a/output_0_split_0
I0714 22:01:56.032060 19131 net.cpp:399] inception_4a/output_inception_4a/output_0_split -> inception_4a/output_inception_4a/output_0_split_1
I0714 22:01:56.032070 19131 net.cpp:399] inception_4a/output_inception_4a/output_0_split -> inception_4a/output_inception_4a/output_0_split_2
I0714 22:01:56.032079 19131 net.cpp:399] inception_4a/output_inception_4a/output_0_split -> inception_4a/output_inception_4a/output_0_split_3
I0714 22:01:56.032141 19135 net.cpp:141] Setting up inception_4a/relu_5x5
I0714 22:01:56.032161 19135 net.cpp:148] Top shape: 10 48 14 14 (94080)
I0714 22:01:56.032166 19135 net.cpp:156] Memory required for data: 364779520
I0714 22:01:56.032172 19135 layer_factory.hpp:77] Creating layer inception_4a/pool
I0714 22:01:56.032183 19135 net.cpp:91] Creating Layer inception_4a/pool
I0714 22:01:56.032191 19135 net.cpp:425] inception_4a/pool <- pool3/3x3_s2_pool3/3x3_s2_0_split_3
I0714 22:01:56.032203 19135 net.cpp:399] inception_4a/pool -> inception_4a/pool
I0714 22:01:56.032312 19131 net.cpp:141] Setting up inception_4a/output_inception_4a/output_0_split
I0714 22:01:56.032325 19131 net.cpp:148] Top shape: 10 512 14 14 (1003520)
I0714 22:01:56.032331 19131 net.cpp:148] Top shape: 10 512 14 14 (1003520)
I0714 22:01:56.032337 19131 net.cpp:148] Top shape: 10 512 14 14 (1003520)
I0714 22:01:56.032343 19131 net.cpp:148] Top shape: 10 512 14 14 (1003520)
I0714 22:01:56.032347 19131 net.cpp:156] Memory required for data: 389616640
I0714 22:01:56.032353 19131 layer_factory.hpp:77] Creating layer inception_4b/1x1
I0714 22:01:56.032372 19131 net.cpp:91] Creating Layer inception_4b/1x1
I0714 22:01:56.032379 19131 net.cpp:425] inception_4b/1x1 <- inception_4a/output_inception_4a/output_0_split_0
I0714 22:01:56.032389 19131 net.cpp:399] inception_4b/1x1 -> inception_4b/1x1
I0714 22:01:56.032402 19135 net.cpp:141] Setting up inception_4a/pool
I0714 22:01:56.032414 19135 net.cpp:148] Top shape: 10 480 14 14 (940800)
I0714 22:01:56.032419 19135 net.cpp:156] Memory required for data: 368542720
I0714 22:01:56.032425 19135 layer_factory.hpp:77] Creating layer inception_4a/pool_proj
I0714 22:01:56.032447 19135 net.cpp:91] Creating Layer inception_4a/pool_proj
I0714 22:01:56.032454 19135 net.cpp:425] inception_4a/pool_proj <- inception_4a/pool
I0714 22:01:56.032467 19135 net.cpp:399] inception_4a/pool_proj -> inception_4a/pool_proj
I0714 22:01:56.036846 19135 net.cpp:141] Setting up inception_4a/pool_proj
I0714 22:01:56.036867 19135 net.cpp:148] Top shape: 10 64 14 14 (125440)
I0714 22:01:56.036873 19135 net.cpp:156] Memory required for data: 369044480
I0714 22:01:56.036885 19135 layer_factory.hpp:77] Creating layer inception_4a/relu_pool_proj
I0714 22:01:56.036895 19135 net.cpp:91] Creating Layer inception_4a/relu_pool_proj
I0714 22:01:56.036901 19135 net.cpp:425] inception_4a/relu_pool_proj <- inception_4a/pool_proj
I0714 22:01:56.036916 19135 net.cpp:386] inception_4a/relu_pool_proj -> inception_4a/pool_proj (in-place)
I0714 22:01:56.038223 19135 net.cpp:141] Setting up inception_4a/relu_pool_proj
I0714 22:01:56.038241 19135 net.cpp:148] Top shape: 10 64 14 14 (125440)
I0714 22:01:56.038246 19135 net.cpp:156] Memory required for data: 369546240
I0714 22:01:56.038252 19135 layer_factory.hpp:77] Creating layer inception_4a/output
I0714 22:01:56.038264 19135 net.cpp:91] Creating Layer inception_4a/output
I0714 22:01:56.038270 19135 net.cpp:425] inception_4a/output <- inception_4a/1x1
I0714 22:01:56.038278 19135 net.cpp:425] inception_4a/output <- inception_4a/3x3
I0714 22:01:56.038285 19135 net.cpp:425] inception_4a/output <- inception_4a/5x5
I0714 22:01:56.038292 19135 net.cpp:425] inception_4a/output <- inception_4a/pool_proj
I0714 22:01:56.038306 19135 net.cpp:399] inception_4a/output -> inception_4a/output
I0714 22:01:56.038489 19135 net.cpp:141] Setting up inception_4a/output
I0714 22:01:56.038502 19135 net.cpp:148] Top shape: 10 512 14 14 (1003520)
I0714 22:01:56.038508 19135 net.cpp:156] Memory required for data: 373560320
I0714 22:01:56.038513 19135 layer_factory.hpp:77] Creating layer inception_4a/output_inception_4a/output_0_split
I0714 22:01:56.038509 19131 net.cpp:141] Setting up inception_4b/1x1
I0714 22:01:56.038528 19135 net.cpp:91] Creating Layer inception_4a/output_inception_4a/output_0_split
I0714 22:01:56.038535 19131 net.cpp:148] Top shape: 10 160 14 14 (313600)
I0714 22:01:56.038537 19135 net.cpp:425] inception_4a/output_inception_4a/output_0_split <- inception_4a/output
I0714 22:01:56.038545 19131 net.cpp:156] Memory required for data: 390871040
I0714 22:01:56.038558 19135 net.cpp:399] inception_4a/output_inception_4a/output_0_split -> inception_4a/output_inception_4a/output_0_split_0
I0714 22:01:56.038570 19135 net.cpp:399] inception_4a/output_inception_4a/output_0_split -> inception_4a/output_inception_4a/output_0_split_1
I0714 22:01:56.038571 19131 layer_factory.hpp:77] Creating layer inception_4b/relu_1x1
I0714 22:01:56.038583 19135 net.cpp:399] inception_4a/output_inception_4a/output_0_split -> inception_4a/output_inception_4a/output_0_split_2
I0714 22:01:56.038594 19131 net.cpp:91] Creating Layer inception_4b/relu_1x1
I0714 22:01:56.038609 19135 net.cpp:399] inception_4a/output_inception_4a/output_0_split -> inception_4a/output_inception_4a/output_0_split_3
I0714 22:01:56.038615 19131 net.cpp:425] inception_4b/relu_1x1 <- inception_4b/1x1
I0714 22:01:56.038626 19131 net.cpp:386] inception_4b/relu_1x1 -> inception_4b/1x1 (in-place)
I0714 22:01:56.039225 19135 net.cpp:141] Setting up inception_4a/output_inception_4a/output_0_split
I0714 22:01:56.039242 19131 net.cpp:141] Setting up inception_4b/relu_1x1
I0714 22:01:56.039249 19135 net.cpp:148] Top shape: 10 512 14 14 (1003520)
I0714 22:01:56.039257 19131 net.cpp:148] Top shape: 10 160 14 14 (313600)
I0714 22:01:56.039259 19135 net.cpp:148] Top shape: 10 512 14 14 (1003520)
I0714 22:01:56.039263 19131 net.cpp:156] Memory required for data: 392125440
I0714 22:01:56.039268 19135 net.cpp:148] Top shape: 10 512 14 14 (1003520)
I0714 22:01:56.039269 19131 layer_factory.hpp:77] Creating layer inception_4b/3x3_reduce
I0714 22:01:56.039273 19135 net.cpp:148] Top shape: 10 512 14 14 (1003520)
I0714 22:01:56.039279 19135 net.cpp:156] Memory required for data: 389616640
I0714 22:01:56.039285 19135 layer_factory.hpp:77] Creating layer inception_4b/1x1
I0714 22:01:56.039290 19131 net.cpp:91] Creating Layer inception_4b/3x3_reduce
I0714 22:01:56.039297 19131 net.cpp:425] inception_4b/3x3_reduce <- inception_4a/output_inception_4a/output_0_split_1
I0714 22:01:56.039306 19135 net.cpp:91] Creating Layer inception_4b/1x1
I0714 22:01:56.039311 19131 net.cpp:399] inception_4b/3x3_reduce -> inception_4b/3x3_reduce
I0714 22:01:56.039314 19135 net.cpp:425] inception_4b/1x1 <- inception_4a/output_inception_4a/output_0_split_0
I0714 22:01:56.039326 19135 net.cpp:399] inception_4b/1x1 -> inception_4b/1x1
I0714 22:01:56.045418 19131 net.cpp:141] Setting up inception_4b/3x3_reduce
I0714 22:01:56.045444 19131 net.cpp:148] Top shape: 10 112 14 14 (219520)
I0714 22:01:56.045450 19131 net.cpp:156] Memory required for data: 393003520
I0714 22:01:56.045461 19131 layer_factory.hpp:77] Creating layer inception_4b/relu_3x3_reduce
I0714 22:01:56.045471 19131 net.cpp:91] Creating Layer inception_4b/relu_3x3_reduce
I0714 22:01:56.045477 19131 net.cpp:425] inception_4b/relu_3x3_reduce <- inception_4b/3x3_reduce
I0714 22:01:56.045486 19131 net.cpp:386] inception_4b/relu_3x3_reduce -> inception_4b/3x3_reduce (in-place)
I0714 22:01:56.045855 19135 net.cpp:141] Setting up inception_4b/1x1
I0714 22:01:56.045876 19135 net.cpp:148] Top shape: 10 160 14 14 (313600)
I0714 22:01:56.045882 19135 net.cpp:156] Memory required for data: 390871040
I0714 22:01:56.045894 19135 layer_factory.hpp:77] Creating layer inception_4b/relu_1x1
I0714 22:01:56.045895 19131 net.cpp:141] Setting up inception_4b/relu_3x3_reduce
I0714 22:01:56.045904 19135 net.cpp:91] Creating Layer inception_4b/relu_1x1
I0714 22:01:56.045910 19131 net.cpp:148] Top shape: 10 112 14 14 (219520)
I0714 22:01:56.045912 19135 net.cpp:425] inception_4b/relu_1x1 <- inception_4b/1x1
I0714 22:01:56.045917 19131 net.cpp:156] Memory required for data: 393881600
I0714 22:01:56.045922 19135 net.cpp:386] inception_4b/relu_1x1 -> inception_4b/1x1 (in-place)
I0714 22:01:56.045924 19131 layer_factory.hpp:77] Creating layer inception_4b/3x3
I0714 22:01:56.045943 19131 net.cpp:91] Creating Layer inception_4b/3x3
I0714 22:01:56.045950 19131 net.cpp:425] inception_4b/3x3 <- inception_4b/3x3_reduce
I0714 22:01:56.045964 19131 net.cpp:399] inception_4b/3x3 -> inception_4b/3x3
I0714 22:01:56.046401 19135 net.cpp:141] Setting up inception_4b/relu_1x1
I0714 22:01:56.046416 19135 net.cpp:148] Top shape: 10 160 14 14 (313600)
I0714 22:01:56.046421 19135 net.cpp:156] Memory required for data: 392125440
I0714 22:01:56.046425 19135 layer_factory.hpp:77] Creating layer inception_4b/3x3_reduce
I0714 22:01:56.046443 19135 net.cpp:91] Creating Layer inception_4b/3x3_reduce
I0714 22:01:56.046449 19135 net.cpp:425] inception_4b/3x3_reduce <- inception_4a/output_inception_4a/output_0_split_1
I0714 22:01:56.046463 19135 net.cpp:399] inception_4b/3x3_reduce -> inception_4b/3x3_reduce
I0714 22:01:56.053920 19135 net.cpp:141] Setting up inception_4b/3x3_reduce
I0714 22:01:56.053946 19135 net.cpp:148] Top shape: 10 112 14 14 (219520)
I0714 22:01:56.053951 19135 net.cpp:156] Memory required for data: 393003520
I0714 22:01:56.053962 19135 layer_factory.hpp:77] Creating layer inception_4b/relu_3x3_reduce
I0714 22:01:56.053977 19135 net.cpp:91] Creating Layer inception_4b/relu_3x3_reduce
I0714 22:01:56.053984 19135 net.cpp:425] inception_4b/relu_3x3_reduce <- inception_4b/3x3_reduce
I0714 22:01:56.053992 19135 net.cpp:386] inception_4b/relu_3x3_reduce -> inception_4b/3x3_reduce (in-place)
I0714 22:01:56.054527 19135 net.cpp:141] Setting up inception_4b/relu_3x3_reduce
I0714 22:01:56.054543 19135 net.cpp:148] Top shape: 10 112 14 14 (219520)
I0714 22:01:56.054548 19135 net.cpp:156] Memory required for data: 393881600
I0714 22:01:56.054554 19135 layer_factory.hpp:77] Creating layer inception_4b/3x3
I0714 22:01:56.054574 19135 net.cpp:91] Creating Layer inception_4b/3x3
I0714 22:01:56.054581 19135 net.cpp:425] inception_4b/3x3 <- inception_4b/3x3_reduce
I0714 22:01:56.054594 19135 net.cpp:399] inception_4b/3x3 -> inception_4b/3x3
I0714 22:01:56.054626 19131 net.cpp:141] Setting up inception_4b/3x3
I0714 22:01:56.054644 19131 net.cpp:148] Top shape: 10 224 14 14 (439040)
I0714 22:01:56.054651 19131 net.cpp:156] Memory required for data: 395637760
I0714 22:01:56.054661 19131 layer_factory.hpp:77] Creating layer inception_4b/relu_3x3
I0714 22:01:56.054672 19131 net.cpp:91] Creating Layer inception_4b/relu_3x3
I0714 22:01:56.054679 19131 net.cpp:425] inception_4b/relu_3x3 <- inception_4b/3x3
I0714 22:01:56.054698 19131 net.cpp:386] inception_4b/relu_3x3 -> inception_4b/3x3 (in-place)
I0714 22:01:56.055770 19131 net.cpp:141] Setting up inception_4b/relu_3x3
I0714 22:01:56.055790 19131 net.cpp:148] Top shape: 10 224 14 14 (439040)
I0714 22:01:56.055799 19131 net.cpp:156] Memory required for data: 397393920
I0714 22:01:56.055804 19131 layer_factory.hpp:77] Creating layer inception_4b/5x5_reduce
I0714 22:01:56.055838 19131 net.cpp:91] Creating Layer inception_4b/5x5_reduce
I0714 22:01:56.055845 19131 net.cpp:425] inception_4b/5x5_reduce <- inception_4a/output_inception_4a/output_0_split_2
I0714 22:01:56.055856 19131 net.cpp:399] inception_4b/5x5_reduce -> inception_4b/5x5_reduce
I0714 22:01:56.062494 19131 net.cpp:141] Setting up inception_4b/5x5_reduce
I0714 22:01:56.062515 19131 net.cpp:148] Top shape: 10 24 14 14 (47040)
I0714 22:01:56.062520 19131 net.cpp:156] Memory required for data: 397582080
I0714 22:01:56.062531 19131 layer_factory.hpp:77] Creating layer inception_4b/relu_5x5_reduce
I0714 22:01:56.062542 19131 net.cpp:91] Creating Layer inception_4b/relu_5x5_reduce
I0714 22:01:56.062549 19131 net.cpp:425] inception_4b/relu_5x5_reduce <- inception_4b/5x5_reduce
I0714 22:01:56.062561 19131 net.cpp:386] inception_4b/relu_5x5_reduce -> inception_4b/5x5_reduce (in-place)
I0714 22:01:56.062872 19131 net.cpp:141] Setting up inception_4b/relu_5x5_reduce
I0714 22:01:56.062886 19131 net.cpp:148] Top shape: 10 24 14 14 (47040)
I0714 22:01:56.062891 19131 net.cpp:156] Memory required for data: 397770240
I0714 22:01:56.062897 19131 layer_factory.hpp:77] Creating layer inception_4b/5x5
I0714 22:01:56.062914 19131 net.cpp:91] Creating Layer inception_4b/5x5
I0714 22:01:56.062922 19131 net.cpp:425] inception_4b/5x5 <- inception_4b/5x5_reduce
I0714 22:01:56.062934 19131 net.cpp:399] inception_4b/5x5 -> inception_4b/5x5
I0714 22:01:56.066160 19135 net.cpp:141] Setting up inception_4b/3x3
I0714 22:01:56.066184 19135 net.cpp:148] Top shape: 10 224 14 14 (439040)
I0714 22:01:56.066190 19135 net.cpp:156] Memory required for data: 395637760
I0714 22:01:56.066201 19135 layer_factory.hpp:77] Creating layer inception_4b/relu_3x3
I0714 22:01:56.066215 19135 net.cpp:91] Creating Layer inception_4b/relu_3x3
I0714 22:01:56.066222 19135 net.cpp:425] inception_4b/relu_3x3 <- inception_4b/3x3
I0714 22:01:56.066231 19135 net.cpp:386] inception_4b/relu_3x3 -> inception_4b/3x3 (in-place)
I0714 22:01:56.067243 19135 net.cpp:141] Setting up inception_4b/relu_3x3
I0714 22:01:56.067262 19135 net.cpp:148] Top shape: 10 224 14 14 (439040)
I0714 22:01:56.067267 19135 net.cpp:156] Memory required for data: 397393920
I0714 22:01:56.067273 19135 layer_factory.hpp:77] Creating layer inception_4b/5x5_reduce
I0714 22:01:56.067306 19135 net.cpp:91] Creating Layer inception_4b/5x5_reduce
I0714 22:01:56.067314 19135 net.cpp:425] inception_4b/5x5_reduce <- inception_4a/output_inception_4a/output_0_split_2
I0714 22:01:56.067328 19135 net.cpp:399] inception_4b/5x5_reduce -> inception_4b/5x5_reduce
I0714 22:01:56.070534 19131 net.cpp:141] Setting up inception_4b/5x5
I0714 22:01:56.070556 19131 net.cpp:148] Top shape: 10 64 14 14 (125440)
I0714 22:01:56.070562 19131 net.cpp:156] Memory required for data: 398272000
I0714 22:01:56.070574 19131 layer_factory.hpp:77] Creating layer inception_4b/relu_5x5
I0714 22:01:56.070597 19131 net.cpp:91] Creating Layer inception_4b/relu_5x5
I0714 22:01:56.070605 19131 net.cpp:425] inception_4b/relu_5x5 <- inception_4b/5x5
I0714 22:01:56.070613 19131 net.cpp:386] inception_4b/relu_5x5 -> inception_4b/5x5 (in-place)
I0714 22:01:56.070932 19131 net.cpp:141] Setting up inception_4b/relu_5x5
I0714 22:01:56.070946 19131 net.cpp:148] Top shape: 10 64 14 14 (125440)
I0714 22:01:56.070951 19131 net.cpp:156] Memory required for data: 398773760
I0714 22:01:56.070956 19131 layer_factory.hpp:77] Creating layer inception_4b/pool
I0714 22:01:56.070968 19131 net.cpp:91] Creating Layer inception_4b/pool
I0714 22:01:56.070974 19131 net.cpp:425] inception_4b/pool <- inception_4a/output_inception_4a/output_0_split_3
I0714 22:01:56.070987 19131 net.cpp:399] inception_4b/pool -> inception_4b/pool
I0714 22:01:56.071475 19131 net.cpp:141] Setting up inception_4b/pool
I0714 22:01:56.071491 19131 net.cpp:148] Top shape: 10 512 14 14 (1003520)
I0714 22:01:56.071496 19131 net.cpp:156] Memory required for data: 402787840
I0714 22:01:56.071501 19131 layer_factory.hpp:77] Creating layer inception_4b/pool_proj
I0714 22:01:56.071523 19131 net.cpp:91] Creating Layer inception_4b/pool_proj
I0714 22:01:56.071530 19131 net.cpp:425] inception_4b/pool_proj <- inception_4b/pool
I0714 22:01:56.071543 19131 net.cpp:399] inception_4b/pool_proj -> inception_4b/pool_proj
I0714 22:01:56.073498 19135 net.cpp:141] Setting up inception_4b/5x5_reduce
I0714 22:01:56.073520 19135 net.cpp:148] Top shape: 10 24 14 14 (47040)
I0714 22:01:56.073526 19135 net.cpp:156] Memory required for data: 397582080
I0714 22:01:56.073537 19135 layer_factory.hpp:77] Creating layer inception_4b/relu_5x5_reduce
I0714 22:01:56.073547 19135 net.cpp:91] Creating Layer inception_4b/relu_5x5_reduce
I0714 22:01:56.073554 19135 net.cpp:425] inception_4b/relu_5x5_reduce <- inception_4b/5x5_reduce
I0714 22:01:56.073565 19135 net.cpp:386] inception_4b/relu_5x5_reduce -> inception_4b/5x5_reduce (in-place)
I0714 22:01:56.073994 19135 net.cpp:141] Setting up inception_4b/relu_5x5_reduce
I0714 22:01:56.074010 19135 net.cpp:148] Top shape: 10 24 14 14 (47040)
I0714 22:01:56.074015 19135 net.cpp:156] Memory required for data: 397770240
I0714 22:01:56.074021 19135 layer_factory.hpp:77] Creating layer inception_4b/5x5
I0714 22:01:56.074043 19135 net.cpp:91] Creating Layer inception_4b/5x5
I0714 22:01:56.074050 19135 net.cpp:425] inception_4b/5x5 <- inception_4b/5x5_reduce
I0714 22:01:56.074060 19135 net.cpp:399] inception_4b/5x5 -> inception_4b/5x5
I0714 22:01:56.078510 19131 net.cpp:141] Setting up inception_4b/pool_proj
I0714 22:01:56.078532 19131 net.cpp:148] Top shape: 10 64 14 14 (125440)
I0714 22:01:56.078538 19131 net.cpp:156] Memory required for data: 403289600
I0714 22:01:56.078548 19131 layer_factory.hpp:77] Creating layer inception_4b/relu_pool_proj
I0714 22:01:56.078559 19131 net.cpp:91] Creating Layer inception_4b/relu_pool_proj
I0714 22:01:56.078567 19131 net.cpp:425] inception_4b/relu_pool_proj <- inception_4b/pool_proj
I0714 22:01:56.078579 19131 net.cpp:386] inception_4b/relu_pool_proj -> inception_4b/pool_proj (in-place)
I0714 22:01:56.079613 19131 net.cpp:141] Setting up inception_4b/relu_pool_proj
I0714 22:01:56.079632 19131 net.cpp:148] Top shape: 10 64 14 14 (125440)
I0714 22:01:56.079638 19131 net.cpp:156] Memory required for data: 403791360
I0714 22:01:56.079643 19131 layer_factory.hpp:77] Creating layer inception_4b/output
I0714 22:01:56.079653 19131 net.cpp:91] Creating Layer inception_4b/output
I0714 22:01:56.079659 19131 net.cpp:425] inception_4b/output <- inception_4b/1x1
I0714 22:01:56.079668 19131 net.cpp:425] inception_4b/output <- inception_4b/3x3
I0714 22:01:56.079674 19131 net.cpp:425] inception_4b/output <- inception_4b/5x5
I0714 22:01:56.079679 19131 net.cpp:425] inception_4b/output <- inception_4b/pool_proj
I0714 22:01:56.079691 19131 net.cpp:399] inception_4b/output -> inception_4b/output
I0714 22:01:56.080379 19131 net.cpp:141] Setting up inception_4b/output
I0714 22:01:56.080401 19131 net.cpp:148] Top shape: 10 512 14 14 (1003520)
I0714 22:01:56.080407 19131 net.cpp:156] Memory required for data: 407805440
I0714 22:01:56.080413 19131 layer_factory.hpp:77] Creating layer inception_4b/output_inception_4b/output_0_split
I0714 22:01:56.080425 19131 net.cpp:91] Creating Layer inception_4b/output_inception_4b/output_0_split
I0714 22:01:56.080430 19131 net.cpp:425] inception_4b/output_inception_4b/output_0_split <- inception_4b/output
I0714 22:01:56.080446 19131 net.cpp:399] inception_4b/output_inception_4b/output_0_split -> inception_4b/output_inception_4b/output_0_split_0
I0714 22:01:56.080457 19131 net.cpp:399] inception_4b/output_inception_4b/output_0_split -> inception_4b/output_inception_4b/output_0_split_1
I0714 22:01:56.080469 19131 net.cpp:399] inception_4b/output_inception_4b/output_0_split -> inception_4b/output_inception_4b/output_0_split_2
I0714 22:01:56.080482 19131 net.cpp:399] inception_4b/output_inception_4b/output_0_split -> inception_4b/output_inception_4b/output_0_split_3
I0714 22:01:56.080986 19131 net.cpp:141] Setting up inception_4b/output_inception_4b/output_0_split
I0714 22:01:56.081007 19131 net.cpp:148] Top shape: 10 512 14 14 (1003520)
I0714 22:01:56.081014 19131 net.cpp:148] Top shape: 10 512 14 14 (1003520)
I0714 22:01:56.081020 19131 net.cpp:148] Top shape: 10 512 14 14 (1003520)
I0714 22:01:56.081027 19131 net.cpp:148] Top shape: 10 512 14 14 (1003520)
I0714 22:01:56.081030 19131 net.cpp:156] Memory required for data: 423861760
I0714 22:01:56.081037 19131 layer_factory.hpp:77] Creating layer inception_4c/1x1
I0714 22:01:56.081055 19131 net.cpp:91] Creating Layer inception_4c/1x1
I0714 22:01:56.081061 19131 net.cpp:425] inception_4c/1x1 <- inception_4b/output_inception_4b/output_0_split_0
I0714 22:01:56.081073 19131 net.cpp:399] inception_4c/1x1 -> inception_4c/1x1
I0714 22:01:56.082805 19135 net.cpp:141] Setting up inception_4b/5x5
I0714 22:01:56.082829 19135 net.cpp:148] Top shape: 10 64 14 14 (125440)
I0714 22:01:56.082835 19135 net.cpp:156] Memory required for data: 398272000
I0714 22:01:56.082846 19135 layer_factory.hpp:77] Creating layer inception_4b/relu_5x5
I0714 22:01:56.082856 19135 net.cpp:91] Creating Layer inception_4b/relu_5x5
I0714 22:01:56.082864 19135 net.cpp:425] inception_4b/relu_5x5 <- inception_4b/5x5
I0714 22:01:56.082871 19135 net.cpp:386] inception_4b/relu_5x5 -> inception_4b/5x5 (in-place)
I0714 22:01:56.083174 19135 net.cpp:141] Setting up inception_4b/relu_5x5
I0714 22:01:56.083186 19135 net.cpp:148] Top shape: 10 64 14 14 (125440)
I0714 22:01:56.083191 19135 net.cpp:156] Memory required for data: 398773760
I0714 22:01:56.083196 19135 layer_factory.hpp:77] Creating layer inception_4b/pool
I0714 22:01:56.083209 19135 net.cpp:91] Creating Layer inception_4b/pool
I0714 22:01:56.083216 19135 net.cpp:425] inception_4b/pool <- inception_4a/output_inception_4a/output_0_split_3
I0714 22:01:56.083225 19135 net.cpp:399] inception_4b/pool -> inception_4b/pool
I0714 22:01:56.083358 19135 net.cpp:141] Setting up inception_4b/pool
I0714 22:01:56.083369 19135 net.cpp:148] Top shape: 10 512 14 14 (1003520)
I0714 22:01:56.083374 19135 net.cpp:156] Memory required for data: 402787840
I0714 22:01:56.083379 19135 layer_factory.hpp:77] Creating layer inception_4b/pool_proj
I0714 22:01:56.083396 19135 net.cpp:91] Creating Layer inception_4b/pool_proj
I0714 22:01:56.083402 19135 net.cpp:425] inception_4b/pool_proj <- inception_4b/pool
I0714 22:01:56.083415 19135 net.cpp:399] inception_4b/pool_proj -> inception_4b/pool_proj
I0714 22:01:56.088243 19131 net.cpp:141] Setting up inception_4c/1x1
I0714 22:01:56.088268 19131 net.cpp:148] Top shape: 10 128 14 14 (250880)
I0714 22:01:56.088274 19131 net.cpp:156] Memory required for data: 424865280
I0714 22:01:56.088284 19131 layer_factory.hpp:77] Creating layer inception_4c/relu_1x1
I0714 22:01:56.088299 19131 net.cpp:91] Creating Layer inception_4c/relu_1x1
I0714 22:01:56.088306 19131 net.cpp:425] inception_4c/relu_1x1 <- inception_4c/1x1
I0714 22:01:56.088315 19131 net.cpp:386] inception_4c/relu_1x1 -> inception_4c/1x1 (in-place)
I0714 22:01:56.088793 19131 net.cpp:141] Setting up inception_4c/relu_1x1
I0714 22:01:56.088809 19131 net.cpp:148] Top shape: 10 128 14 14 (250880)
I0714 22:01:56.088815 19131 net.cpp:156] Memory required for data: 425868800
I0714 22:01:56.088821 19131 layer_factory.hpp:77] Creating layer inception_4c/3x3_reduce
I0714 22:01:56.088840 19131 net.cpp:91] Creating Layer inception_4c/3x3_reduce
…
I0714 22:01:56.220751 19135 net.cpp:386] inception_4e/relu_5x5_reduce -> inception_4e/5x5_reduce (in-place)
I0714 22:01:56.220751 19131 net.cpp:148] Top shape: 10 128 14 14 (250880)
I0714 22:01:56.220762 19131 net.cpp:156] Memory required for data: 507153920
I0714 22:01:56.220773 19131 layer_factory.hpp:77] Creating layer inception_4e/relu_5x5
I0714 22:01:56.220783 19131 net.cpp:91] Creating Layer inception_4e/relu_5x5
I0714 22:01:56.220789 19131 net.cpp:425] inception_4e/relu_5x5 <- inception_4e/5x5
I0714 22:01:56.220798 19131 net.cpp:386] inception_4e/relu_5x5 -> inception_4e/5x5 (in-place)
I0714 22:01:56.221274 19135 net.cpp:141] Setting up inception_4e/relu_5x5_reduce
I0714 22:01:56.221285 19131 net.cpp:141] Setting up inception_4e/relu_5x5
I0714 22:01:56.221289 19135 net.cpp:148] Top shape: 10 32 14 14 (62720)
I0714 22:01:56.221302 19131 net.cpp:148] Top shape: 10 128 14 14 (250880)
I0714 22:01:56.221307 19135 net.cpp:156] Memory required for data: 506150400
I0714 22:01:56.221309 19131 net.cpp:156] Memory required for data: 508157440
I0714 22:01:56.221313 19135 layer_factory.hpp:77] Creating layer inception_4e/5x5
I0714 22:01:56.221316 19131 layer_factory.hpp:77] Creating layer inception_4e/pool
I0714 22:01:56.221329 19131 net.cpp:91] Creating Layer inception_4e/pool
I0714 22:01:56.221334 19135 net.cpp:91] Creating Layer inception_4e/5x5
I0714 22:01:56.221335 19131 net.cpp:425] inception_4e/pool <- inception_4d/output_inception_4d/output_0_split_3
I0714 22:01:56.221346 19135 net.cpp:425] inception_4e/5x5 <- inception_4e/5x5_reduce
I0714 22:01:56.221374 19131 net.cpp:399] inception_4e/pool -> inception_4e/pool
I0714 22:01:56.221396 19135 net.cpp:399] inception_4e/5x5 -> inception_4e/5x5
I0714 22:01:56.221699 19131 net.cpp:141] Setting up inception_4e/pool
I0714 22:01:56.221712 19131 net.cpp:148] Top shape: 10 528 14 14 (1034880)
I0714 22:01:56.221717 19131 net.cpp:156] Memory required for data: 512296960
I0714 22:01:56.221724 19131 layer_factory.hpp:77] Creating layer inception_4e/pool_proj
I0714 22:01:56.221740 19131 net.cpp:91] Creating Layer inception_4e/pool_proj
I0714 22:01:56.221747 19131 net.cpp:425] inception_4e/pool_proj <- inception_4e/pool
I0714 22:01:56.221756 19131 net.cpp:399] inception_4e/pool_proj -> inception_4e/pool_proj
I0714 22:01:56.229315 19131 net.cpp:141] Setting up inception_4e/pool_proj
I0714 22:01:56.229337 19131 net.cpp:148] Top shape: 10 128 14 14 (250880)
I0714 22:01:56.229343 19131 net.cpp:156] Memory required for data: 513300480
I0714 22:01:56.229353 19131 layer_factory.hpp:77] Creating layer inception_4e/relu_pool_proj
I0714 22:01:56.229367 19131 net.cpp:91] Creating Layer inception_4e/relu_pool_proj
I0714 22:01:56.229374 19131 net.cpp:425] inception_4e/relu_pool_proj <- inception_4e/pool_proj
I0714 22:01:56.229382 19131 net.cpp:386] inception_4e/relu_pool_proj -> inception_4e/pool_proj (in-place)
I0714 22:01:56.230341 19135 net.cpp:141] Setting up inception_4e/5x5
I0714 22:01:56.230360 19135 net.cpp:148] Top shape: 10 128 14 14 (250880)
I0714 22:01:56.230365 19135 net.cpp:156] Memory required for data: 507153920
I0714 22:01:56.230376 19135 layer_factory.hpp:77] Creating layer inception_4e/relu_5x5
I0714 22:01:56.230391 19135 net.cpp:91] Creating Layer inception_4e/relu_5x5
I0714 22:01:56.230398 19135 net.cpp:425] inception_4e/relu_5x5 <- inception_4e/5x5
I0714 22:01:56.230407 19135 net.cpp:386] inception_4e/relu_5x5 -> inception_4e/5x5 (in-place)
I0714 22:01:56.230420 19131 net.cpp:141] Setting up inception_4e/relu_pool_proj
I0714 22:01:56.230437 19131 net.cpp:148] Top shape: 10 128 14 14 (250880)
I0714 22:01:56.230443 19131 net.cpp:156] Memory required for data: 514304000
I0714 22:01:56.230448 19131 layer_factory.hpp:77] Creating layer inception_4e/output
I0714 22:01:56.230465 19131 net.cpp:91] Creating Layer inception_4e/output
I0714 22:01:56.230473 19131 net.cpp:425] inception_4e/output <- inception_4e/1x1
I0714 22:01:56.230479 19131 net.cpp:425] inception_4e/output <- inception_4e/3x3
I0714 22:01:56.230486 19131 net.cpp:425] inception_4e/output <- inception_4e/5x5
I0714 22:01:56.230492 19131 net.cpp:425] inception_4e/output <- inception_4e/pool_proj
I0714 22:01:56.230499 19131 net.cpp:399] inception_4e/output -> inception_4e/output
I0714 22:01:56.230700 19131 net.cpp:141] Setting up inception_4e/output
I0714 22:01:56.230715 19131 net.cpp:148] Top shape: 10 832 14 14 (1630720)
I0714 22:01:56.230720 19131 net.cpp:156] Memory required for data: 520826880
I0714 22:01:56.230726 19131 layer_factory.hpp:77] Creating layer pool4/3x3_s2
I0714 22:01:56.230736 19131 net.cpp:91] Creating Layer pool4/3x3_s2
I0714 22:01:56.230741 19131 net.cpp:425] pool4/3x3_s2 <- inception_4e/output
I0714 22:01:56.230752 19131 net.cpp:399] pool4/3x3_s2 -> pool4/3x3_s2
I0714 22:01:56.230818 19135 net.cpp:141] Setting up inception_4e/relu_5x5
I0714 22:01:56.230832 19135 net.cpp:148] Top shape: 10 128 14 14 (250880)
I0714 22:01:56.230837 19135 net.cpp:156] Memory required for data: 508157440
I0714 22:01:56.230844 19135 layer_factory.hpp:77] Creating layer inception_4e/pool
I0714 22:01:56.230854 19135 net.cpp:91] Creating Layer inception_4e/pool
I0714 22:01:56.230861 19135 net.cpp:425] inception_4e/pool <- inception_4d/output_inception_4d/output_0_split_3
I0714 22:01:56.230875 19135 net.cpp:399] inception_4e/pool -> inception_4e/pool
I0714 22:01:56.230896 19131 net.cpp:141] Setting up pool4/3x3_s2
I0714 22:01:56.230908 19131 net.cpp:148] Top shape: 10 832 7 7 (407680)
I0714 22:01:56.230913 19131 net.cpp:156] Memory required for data: 522457600
I0714 22:01:56.230918 19131 layer_factory.hpp:77] Creating layer pool4/3x3_s2_pool4/3x3_s2_0_split
I0714 22:01:56.230932 19131 net.cpp:91] Creating Layer pool4/3x3_s2_pool4/3x3_s2_0_split
I0714 22:01:56.230938 19131 net.cpp:425] pool4/3x3_s2_pool4/3x3_s2_0_split <- pool4/3x3_s2
I0714 22:01:56.230949 19131 net.cpp:399] pool4/3x3_s2_pool4/3x3_s2_0_split -> pool4/3x3_s2_pool4/3x3_s2_0_split_0
I0714 22:01:56.230959 19131 net.cpp:399] pool4/3x3_s2_pool4/3x3_s2_0_split -> pool4/3x3_s2_pool4/3x3_s2_0_split_1
I0714 22:01:56.230969 19131 net.cpp:399] pool4/3x3_s2_pool4/3x3_s2_0_split -> pool4/3x3_s2_pool4/3x3_s2_0_split_2
I0714 22:01:56.230978 19131 net.cpp:399] pool4/3x3_s2_pool4/3x3_s2_0_split -> pool4/3x3_s2_pool4/3x3_s2_0_split_3
I0714 22:01:56.231087 19135 net.cpp:141] Setting up inception_4e/pool
I0714 22:01:56.231101 19135 net.cpp:148] Top shape: 10 528 14 14 (1034880)
I0714 22:01:56.231106 19135 net.cpp:156] Memory required for data: 512296960
I0714 22:01:56.231112 19135 layer_factory.hpp:77] Creating layer inception_4e/pool_proj
I0714 22:01:56.231130 19135 net.cpp:91] Creating Layer inception_4e/pool_proj
I0714 22:01:56.231137 19135 net.cpp:425] inception_4e/pool_proj <- inception_4e/pool
I0714 22:01:56.231150 19135 net.cpp:399] inception_4e/pool_proj -> inception_4e/pool_proj
I0714 22:01:56.231451 19131 net.cpp:141] Setting up pool4/3x3_s2_pool4/3x3_s2_0_split
I0714 22:01:56.231463 19131 net.cpp:148] Top shape: 10 832 7 7 (407680)
I0714 22:01:56.231469 19131 net.cpp:148] Top shape: 10 832 7 7 (407680)
I0714 22:01:56.231475 19131 net.cpp:148] Top shape: 10 832 7 7 (407680)
I0714 22:01:56.231482 19131 net.cpp:148] Top shape: 10 832 7 7 (407680)
I0714 22:01:56.231485 19131 net.cpp:156] Memory required for data: 528980480
I0714 22:01:56.231492 19131 layer_factory.hpp:77] Creating layer inception_5a/1x1
I0714 22:01:56.231510 19131 net.cpp:91] Creating Layer inception_5a/1x1
I0714 22:01:56.231518 19131 net.cpp:425] inception_5a/1x1 <- pool4/3x3_s2_pool4/3x3_s2_0_split_0
I0714 22:01:56.231528 19131 net.cpp:399] inception_5a/1x1 -> inception_5a/1x1
I0714 22:01:56.238422 19135 net.cpp:141] Setting up inception_4e/pool_proj
I0714 22:01:56.238443 19135 net.cpp:148] Top shape: 10 128 14 14 (250880)
I0714 22:01:56.238450 19135 net.cpp:156] Memory required for data: 513300480
I0714 22:01:56.238461 19135 layer_factory.hpp:77] Creating layer inception_4e/relu_pool_proj
I0714 22:01:56.238472 19135 net.cpp:91] Creating Layer inception_4e/relu_pool_proj
I0714 22:01:56.238478 19135 net.cpp:425] inception_4e/relu_pool_proj <- inception_4e/pool_proj
I0714 22:01:56.238487 19135 net.cpp:386] inception_4e/relu_pool_proj -> inception_4e/pool_proj (in-place)
I0714 22:01:56.239554 19135 net.cpp:141] Setting up inception_4e/relu_pool_proj
I0714 22:01:56.239576 19135 net.cpp:148] Top shape: 10 128 14 14 (250880)
I0714 22:01:56.239581 19135 net.cpp:156] Memory required for data: 514304000
I0714 22:01:56.239588 19135 layer_factory.hpp:77] Creating layer inception_4e/output
I0714 22:01:56.239598 19135 net.cpp:91] Creating Layer inception_4e/output
I0714 22:01:56.239605 19135 net.cpp:425] inception_4e/output <- inception_4e/1x1
I0714 22:01:56.239612 19135 net.cpp:425] inception_4e/output <- inception_4e/3x3
I0714 22:01:56.239619 19135 net.cpp:425] inception_4e/output <- inception_4e/5x5
I0714 22:01:56.239625 19135 net.cpp:425] inception_4e/output <- inception_4e/pool_proj
I0714 22:01:56.239634 19135 net.cpp:399] inception_4e/output -> inception_4e/output
I0714 22:01:56.239859 19135 net.cpp:141] Setting up inception_4e/output
I0714 22:01:56.239872 19135 net.cpp:148] Top shape: 10 832 14 14 (1630720)
I0714 22:01:56.239877 19135 net.cpp:156] Memory required for data: 520826880
I0714 22:01:56.239882 19135 layer_factory.hpp:77] Creating layer pool4/3x3_s2
I0714 22:01:56.239892 19135 net.cpp:91] Creating Layer pool4/3x3_s2
I0714 22:01:56.239898 19135 net.cpp:425] pool4/3x3_s2 <- inception_4e/output
I0714 22:01:56.239910 19135 net.cpp:399] pool4/3x3_s2 -> pool4/3x3_s2
I0714 22:01:56.240134 19135 net.cpp:141] Setting up pool4/3x3_s2
I0714 22:01:56.240147 19135 net.cpp:148] Top shape: 10 832 7 7 (407680)
I0714 22:01:56.240151 19135 net.cpp:156] Memory required for data: 522457600
I0714 22:01:56.240157 19135 layer_factory.hpp:77] Creating layer pool4/3x3_s2_pool4/3x3_s2_0_split
I0714 22:01:56.240167 19135 net.cpp:91] Creating Layer pool4/3x3_s2_pool4/3x3_s2_0_split
I0714 22:01:56.240173 19135 net.cpp:425] pool4/3x3_s2_pool4/3x3_s2_0_split <- pool4/3x3_s2
I0714 22:01:56.240181 19135 net.cpp:399] pool4/3x3_s2_pool4/3x3_s2_0_split -> pool4/3x3_s2_pool4/3x3_s2_0_split_0
I0714 22:01:56.240195 19135 net.cpp:399] pool4/3x3_s2_pool4/3x3_s2_0_split -> pool4/3x3_s2_pool4/3x3_s2_0_split_1
I0714 22:01:56.240205 19135 net.cpp:399] pool4/3x3_s2_pool4/3x3_s2_0_split -> pool4/3x3_s2_pool4/3x3_s2_0_split_2
I0714 22:01:56.240213 19135 net.cpp:399] pool4/3x3_s2_pool4/3x3_s2_0_split -> pool4/3x3_s2_pool4/3x3_s2_0_split_3
I0714 22:01:56.240816 19135 net.cpp:141] Setting up pool4/3x3_s2_pool4/3x3_s2_0_split
I0714 22:01:56.240831 19135 net.cpp:148] Top shape: 10 832 7 7 (407680)
I0714 22:01:56.240839 19135 net.cpp:148] Top shape: 10 832 7 7 (407680)
I0714 22:01:56.240844 19135 net.cpp:148] Top shape: 10 832 7 7 (407680)
I0714 22:01:56.240849 19135 net.cpp:148] Top shape: 10 832 7 7 (407680)
I0714 22:01:56.240854 19135 net.cpp:156] Memory required for data: 528980480
I0714 22:01:56.240859 19135 layer_factory.hpp:77] Creating layer inception_5a/1x1
I0714 22:01:56.240875 19135 net.cpp:91] Creating Layer inception_5a/1x1
I0714 22:01:56.240880 19135 net.cpp:425] inception_5a/1x1 <- pool4/3x3_s2_pool4/3x3_s2_0_split_0
I0714 22:01:56.240895 19135 net.cpp:399] inception_5a/1x1 -> inception_5a/1x1
I0714 22:01:56.240907 19131 net.cpp:141] Setting up inception_5a/1x1
I0714 22:01:56.240931 19131 net.cpp:148] Top shape: 10 256 7 7 (125440)
I0714 22:01:56.240936 19131 net.cpp:156] Memory required for data: 529482240
I0714 22:01:56.240948 19131 layer_factory.hpp:77] Creating layer inception_5a/relu_1x1
I0714 22:01:56.240962 19131 net.cpp:91] Creating Layer inception_5a/relu_1x1
I0714 22:01:56.240968 19131 net.cpp:425] inception_5a/relu_1x1 <- inception_5a/1x1
I0714 22:01:56.240978 19131 net.cpp:386] inception_5a/relu_1x1 -> inception_5a/1x1 (in-place)
I0714 22:01:56.241500 19131 net.cpp:141] Setting up inception_5a/relu_1x1
I0714 22:01:56.241518 19131 net.cpp:148] Top shape: 10 256 7 7 (125440)
I0714 22:01:56.241523 19131 net.cpp:156] Memory required for data: 529984000
I0714 22:01:56.241528 19131 layer_factory.hpp:77] Creating layer inception_5a/3x3_reduce
I0714 22:01:56.241545 19131 net.cpp:91] Creating Layer inception_5a/3x3_reduce
I0714 22:01:56.241552 19131 net.cpp:425] inception_5a/3x3_reduce <- pool4/3x3_s2_pool4/3x3_s2_0_split_1
I0714 22:01:56.241564 19131 net.cpp:399] inception_5a/3x3_reduce -> inception_5a/3x3_reduce
I0714 22:01:56.250082 19135 net.cpp:141] Setting up inception_5a/1x1
I0714 22:01:56.250103 19135 net.cpp:148] Top shape: 10 256 7 7 (125440)
I0714 22:01:56.250109 19135 net.cpp:156] Memory required for data: 529482240
I0714 22:01:56.250120 19135 layer_factory.hpp:77] Creating layer inception_5a/relu_1x1
I0714 22:01:56.250134 19135 net.cpp:91] Creating Layer inception_5a/relu_1x1
I0714 22:01:56.250141 19135 net.cpp:425] inception_5a/relu_1x1 <- inception_5a/1x1
I0714 22:01:56.250149 19135 net.cpp:386] inception_5a/relu_1x1 -> inception_5a/1x1 (in-place)
I0714 22:01:56.250617 19131 net.cpp:141] Setting up inception_5a/3x3_reduce
I0714 22:01:56.250641 19131 net.cpp:148] Top shape: 10 160 7 7 (78400)
I0714 22:01:56.250648 19131 net.cpp:156] Memory required for data: 530297600
I0714 22:01:56.250658 19131 layer_factory.hpp:77] Creating layer inception_5a/relu_3x3_reduce
I0714 22:01:56.250663 19135 net.cpp:141] Setting up inception_5a/relu_1x1
I0714 22:01:56.250672 19131 net.cpp:91] Creating Layer inception_5a/relu_3x3_reduce
I0714 22:01:56.250677 19135 net.cpp:148] Top shape: 10 256 7 7 (125440)
I0714 22:01:56.250680 19131 net.cpp:425] inception_5a/relu_3x3_reduce <- inception_5a/3x3_reduce
I0714 22:01:56.250684 19135 net.cpp:156] Memory required for data: 529984000
I0714 22:01:56.250699 19135 layer_factory.hpp:77] Creating layer inception_5a/3x3_reduce
I0714 22:01:56.250699 19131 net.cpp:386] inception_5a/relu_3x3_reduce -> inception_5a/3x3_reduce (in-place)
I0714 22:01:56.250723 19135 net.cpp:91] Creating Layer inception_5a/3x3_reduce
I0714 22:01:56.250731 19135 net.cpp:425] inception_5a/3x3_reduce <- pool4/3x3_s2_pool4/3x3_s2_0_split_1
I0714 22:01:56.250746 19135 net.cpp:399] inception_5a/3x3_reduce -> inception_5a/3x3_reduce
I0714 22:01:56.251246 19131 net.cpp:141] Setting up inception_5a/relu_3x3_reduce
I0714 22:01:56.251260 19131 net.cpp:148] Top shape: 10 160 7 7 (78400)
I0714 22:01:56.251266 19131 net.cpp:156] Memory required for data: 530611200
I0714 22:01:56.251271 19131 layer_factory.hpp:77] Creating layer inception_5a/3x3
I0714 22:01:56.251291 19131 net.cpp:91] Creating Layer inception_5a/3x3
I0714 22:01:56.251297 19131 net.cpp:425] inception_5a/3x3 <- inception_5a/3x3_reduce
I0714 22:01:56.251310 19131 net.cpp:399] inception_5a/3x3 -> inception_5a/3x3
I0714 22:01:56.258769 19135 net.cpp:141] Setting up inception_5a/3x3_reduce
I0714 22:01:56.258791 19135 net.cpp:148] Top shape: 10 160 7 7 (78400)
I0714 22:01:56.258797 19135 net.cpp:156] Memory required for data: 530297600
I0714 22:01:56.258807 19135 layer_factory.hpp:77] Creating layer inception_5a/relu_3x3_reduce
I0714 22:01:56.258821 19135 net.cpp:91] Creating Layer inception_5a/relu_3x3_reduce
I0714 22:01:56.258827 19135 net.cpp:425] inception_5a/relu_3x3_reduce <- inception_5a/3x3_reduce
I0714 22:01:56.258836 19135 net.cpp:386] inception_5a/relu_3x3_reduce -> inception_5a/3x3_reduce (in-place)
I0714 22:01:56.259145 19135 net.cpp:141] Setting up inception_5a/relu_3x3_reduce
I0714 22:01:56.259157 19135 net.cpp:148] Top shape: 10 160 7 7 (78400)
I0714 22:01:56.259162 19135 net.cpp:156] Memory required for data: 530611200
I0714 22:01:56.259167 19135 layer_factory.hpp:77] Creating layer inception_5a/3x3
I0714 22:01:56.259188 19135 net.cpp:91] Creating Layer inception_5a/3x3
I0714 22:01:56.259196 19135 net.cpp:425] inception_5a/3x3 <- inception_5a/3x3_reduce
I0714 22:01:56.259205 19135 net.cpp:399] inception_5a/3x3 -> inception_5a/3x3
I0714 22:01:56.265995 19131 net.cpp:141] Setting up inception_5a/3x3
I0714 22:01:56.266021 19131 net.cpp:148] Top shape: 10 320 7 7 (156800)
I0714 22:01:56.266026 19131 net.cpp:156] Memory required for data: 531238400
I0714 22:01:56.266037 19131 layer_factory.hpp:77] Creating layer inception_5a/relu_3x3
I0714 22:01:56.266048 19131 net.cpp:91] Creating Layer inception_5a/relu_3x3
I0714 22:01:56.266055 19131 net.cpp:425] inception_5a/relu_3x3 <- inception_5a/3x3
I0714 22:01:56.266067 19131 net.cpp:386] inception_5a/relu_3x3 -> inception_5a/3x3 (in-place)
I0714 22:01:56.267457 19131 net.cpp:141] Setting up inception_5a/relu_3x3
I0714 22:01:56.267482 19131 net.cpp:148] Top shape: 10 320 7 7 (156800)
I0714 22:01:56.267488 19131 net.cpp:156] Memory required for data: 531865600
I0714 22:01:56.267493 19131 layer_factory.hpp:77] Creating layer inception_5a/5x5_reduce
I0714 22:01:56.267513 19131 net.cpp:91] Creating Layer inception_5a/5x5_reduce
I0714 22:01:56.267520 19131 net.cpp:425] inception_5a/5x5_reduce <- pool4/3x3_s2_pool4/3x3_s2_0_split_2
I0714 22:01:56.267535 19131 net.cpp:399] inception_5a/5x5_reduce -> inception_5a/5x5_reduce
I0714 22:01:56.270895 19135 net.cpp:141] Setting up inception_5a/3x3
I0714 22:01:56.270918 19135 net.cpp:148] Top shape: 10 320 7 7 (156800)
I0714 22:01:56.270925 19135 net.cpp:156] Memory required for data: 531238400
I0714 22:01:56.270936 19135 layer_factory.hpp:77] Creating layer inception_5a/relu_3x3
I0714 22:01:56.270946 19135 net.cpp:91] Creating Layer inception_5a/relu_3x3
I0714 22:01:56.270952 19135 net.cpp:425] inception_5a/relu_3x3 <- inception_5a/3x3
I0714 22:01:56.270965 19135 net.cpp:386] inception_5a/relu_3x3 -> inception_5a/3x3 (in-place)
I0714 22:01:56.271940 19135 net.cpp:141] Setting up inception_5a/relu_3x3
I0714 22:01:56.271958 19135 net.cpp:148] Top shape: 10 320 7 7 (156800)
I0714 22:01:56.271965 19135 net.cpp:156] Memory required for data: 531865600
I0714 22:01:56.271970 19135 layer_factory.hpp:77] Creating layer inception_5a/5x5_reduce
I0714 22:01:56.271989 19135 net.cpp:91] Creating Layer inception_5a/5x5_reduce
I0714 22:01:56.271996 19135 net.cpp:425] inception_5a/5x5_reduce <- pool4/3x3_s2_pool4/3x3_s2_0_split_2
I0714 22:01:56.272009 19135 net.cpp:399] inception_5a/5x5_reduce -> inception_5a/5x5_reduce
I0714 22:01:56.274591 19131 net.cpp:141] Setting up inception_5a/5x5_reduce
I0714 22:01:56.274624 19131 net.cpp:148] Top shape: 10 32 7 7 (15680)
I0714 22:01:56.274636 19131 net.cpp:156] Memory required for data: 531928320
I0714 22:01:56.274654 19131 layer_factory.hpp:77] Creating layer inception_5a/relu_5x5_reduce
I0714 22:01:56.274678 19131 net.cpp:91] Creating Layer inception_5a/relu_5x5_reduce
I0714 22:01:56.274706 19131 net.cpp:425] inception_5a/relu_5x5_reduce <- inception_5a/5x5_reduce
I0714 22:01:56.274729 19131 net.cpp:386] inception_5a/relu_5x5_reduce -> inception_5a/5x5_reduce (in-place)
I0714 22:01:56.275420 19131 net.cpp:141] Setting up inception_5a/relu_5x5_reduce
I0714 22:01:56.275442 19131 net.cpp:148] Top shape: 10 32 7 7 (15680)
I0714 22:01:56.275454 19131 net.cpp:156] Memory required for data: 531991040
I0714 22:01:56.275463 19131 layer_factory.hpp:77] Creating layer inception_5a/5x5
I0714 22:01:56.275496 19131 net.cpp:91] Creating Layer inception_5a/5x5
I0714 22:01:56.275511 19131 net.cpp:425] inception_5a/5x5 <- inception_5a/5x5_reduce
I0714 22:01:56.275542 19131 net.cpp:399] inception_5a/5x5 -> inception_5a/5x5
I0714 22:01:56.277976 19135 net.cpp:141] Setting up inception_5a/5x5_reduce
I0714 22:01:56.277998 19135 net.cpp:148] Top shape: 10 32 7 7 (15680)
I0714 22:01:56.278004 19135 net.cpp:156] Memory required for data: 531928320
I0714 22:01:56.278014 19135 layer_factory.hpp:77] Creating layer inception_5a/relu_5x5_reduce
I0714 22:01:56.278024 19135 net.cpp:91] Creating Layer inception_5a/relu_5x5_reduce
I0714 22:01:56.278030 19135 net.cpp:425] inception_5a/relu_5x5_reduce <- inception_5a/5x5_reduce
I0714 22:01:56.278038 19135 net.cpp:386] inception_5a/relu_5x5_reduce -> inception_5a/5x5_reduce (in-place)
I0714 22:01:56.278347 19135 net.cpp:141] Setting up inception_5a/relu_5x5_reduce
I0714 22:01:56.278360 19135 net.cpp:148] Top shape: 10 32 7 7 (15680)
I0714 22:01:56.278365 19135 net.cpp:156] Memory required for data: 531991040
I0714 22:01:56.278370 19135 layer_factory.hpp:77] Creating layer inception_5a/5x5
I0714 22:01:56.278388 19135 net.cpp:91] Creating Layer inception_5a/5x5
I0714 22:01:56.278394 19135 net.cpp:425] inception_5a/5x5 <- inception_5a/5x5_reduce
I0714 22:01:56.278409 19135 net.cpp:399] inception_5a/5x5 -> inception_5a/5x5
I0714 22:01:56.283259 19131 net.cpp:141] Setting up inception_5a/5x5
I0714 22:01:56.283285 19131 net.cpp:148] Top shape: 10 128 7 7 (62720)
I0714 22:01:56.283291 19131 net.cpp:156] Memory required for data: 532241920
I0714 22:01:56.283303 19131 layer_factory.hpp:77] Creating layer inception_5a/relu_5x5
I0714 22:01:56.283349 19131 net.cpp:91] Creating Layer inception_5a/relu_5x5
I0714 22:01:56.283356 19131 net.cpp:425] inception_5a/relu_5x5 <- inception_5a/5x5
I0714 22:01:56.283365 19131 net.cpp:386] inception_5a/relu_5x5 -> inception_5a/5x5 (in-place)
I0714 22:01:56.283682 19131 net.cpp:141] Setting up inception_5a/relu_5x5
I0714 22:01:56.283696 19131 net.cpp:148] Top shape: 10 128 7 7 (62720)
I0714 22:01:56.283701 19131 net.cpp:156] Memory required for data: 532492800
I0714 22:01:56.283707 19131 layer_factory.hpp:77] Creating layer inception_5a/pool
I0714 22:01:56.283722 19131 net.cpp:91] Creating Layer inception_5a/pool
I0714 22:01:56.283730 19131 net.cpp:425] inception_5a/pool <- pool4/3x3_s2_pool4/3x3_s2_0_split_3
I0714 22:01:56.283738 19131 net.cpp:399] inception_5a/pool -> inception_5a/pool
I0714 22:01:56.284180 19131 net.cpp:141] Setting up inception_5a/pool
I0714 22:01:56.284193 19131 net.cpp:148] Top shape: 10 832 7 7 (407680)
I0714 22:01:56.284198 19131 net.cpp:156] Memory required for data: 534123520
I0714 22:01:56.284204 19131 layer_factory.hpp:77] Creating layer inception_5a/pool_proj
I0714 22:01:56.284224 19131 net.cpp:91] Creating Layer inception_5a/pool_proj
I0714 22:01:56.284232 19131 net.cpp:425] inception_5a/pool_proj <- inception_5a/pool
I0714 22:01:56.284245 19131 net.cpp:399] inception_5a/pool_proj -> inception_5a/pool_proj
I0714 22:01:56.285351 19135 net.cpp:141] Setting up inception_5a/5x5
I0714 22:01:56.285372 19135 net.cpp:148] Top shape: 10 128 7 7 (62720)
I0714 22:01:56.285377 19135 net.cpp:156] Memory required for data: 532241920
I0714 22:01:56.285388 19135 layer_factory.hpp:77] Creating layer inception_5a/relu_5x5
I0714 22:01:56.285428 19135 net.cpp:91] Creating Layer inception_5a/relu_5x5
I0714 22:01:56.285434 19135 net.cpp:425] inception_5a/relu_5x5 <- inception_5a/5x5
I0714 22:01:56.285444 19135 net.cpp:386] inception_5a/relu_5x5 -> inception_5a/5x5 (in-place)
I0714 22:01:56.286051 19135 net.cpp:141] Setting up inception_5a/relu_5x5
I0714 22:01:56.286067 19135 net.cpp:148] Top shape: 10 128 7 7 (62720)
I0714 22:01:56.286072 19135 net.cpp:156] Memory required for data: 532492800
I0714 22:01:56.286079 19135 layer_factory.hpp:77] Creating layer inception_5a/pool
I0714 22:01:56.286092 19135 net.cpp:91] Creating Layer inception_5a/pool
I0714 22:01:56.286099 19135 net.cpp:425] inception_5a/pool <- pool4/3x3_s2_pool4/3x3_s2_0_split_3
I0714 22:01:56.286108 19135 net.cpp:399] inception_5a/pool -> inception_5a/pool
I0714 22:01:56.287678 19135 net.cpp:141] Setting up inception_5a/pool
I0714 22:01:56.287694 19135 net.cpp:148] Top shape: 10 832 7 7 (407680)
I0714 22:01:56.287699 19135 net.cpp:156] Memory required for data: 534123520
I0714 22:01:56.287705 19135 layer_factory.hpp:77] Creating layer inception_5a/pool_proj
I0714 22:01:56.287722 19135 net.cpp:91] Creating Layer inception_5a/pool_proj
I0714 22:01:56.287729 19135 net.cpp:425] inception_5a/pool_proj <- inception_5a/pool
I0714 22:01:56.287744 19135 net.cpp:399] inception_5a/pool_proj -> inception_5a/pool_proj
I0714 22:01:56.294098 19131 net.cpp:141] Setting up inception_5a/pool_proj
I0714 22:01:56.294126 19131 net.cpp:148] Top shape: 10 128 7 7 (62720)
I0714 22:01:56.294132 19131 net.cpp:156] Memory required for data: 534374400
I0714 22:01:56.294144 19131 layer_factory.hpp:77] Creating layer inception_5a/relu_pool_proj
I0714 22:01:56.294155 19131 net.cpp:91] Creating Layer inception_5a/relu_pool_proj
I0714 22:01:56.294162 19131 net.cpp:425] inception_5a/relu_pool_proj <- inception_5a/pool_proj
I0714 22:01:56.294172 19131 net.cpp:386] inception_5a/relu_pool_proj -> inception_5a/pool_proj (in-place)
I0714 22:01:56.295385 19131 net.cpp:141] Setting up inception_5a/relu_pool_proj
I0714 22:01:56.295406 19131 net.cpp:148] Top shape: 10 128 7 7 (62720)
I0714 22:01:56.295413 19131 net.cpp:156] Memory required for data: 534625280
I0714 22:01:56.295418 19131 layer_factory.hpp:77] Creating layer inception_5a/output
I0714 22:01:56.295428 19131 net.cpp:91] Creating Layer inception_5a/output
I0714 22:01:56.295435 19131 net.cpp:425] inception_5a/output <- inception_5a/1x1
I0714 22:01:56.295444 19131 net.cpp:425] inception_5a/output <- inception_5a/3x3
I0714 22:01:56.295449 19131 net.cpp:425] inception_5a/output <- inception_5a/5x5
I0714 22:01:56.295455 19131 net.cpp:425] inception_5a/output <- inception_5a/pool_proj
I0714 22:01:56.295464 19131 net.cpp:399] inception_5a/output -> inception_5a/output
I0714 22:01:56.295634 19131 net.cpp:141] Setting up inception_5a/output
I0714 22:01:56.295646 19131 net.cpp:148] Top shape: 10 832 7 7 (407680)
I0714 22:01:56.295651 19131 net.cpp:156] Memory required for data: 536256000
I0714 22:01:56.295657 19131 layer_factory.hpp:77] Creating layer inception_5a/output_inception_5a/output_0_split
I0714 22:01:56.295667 19131 net.cpp:91] Creating Layer inception_5a/output_inception_5a/output_0_split
I0714 22:01:56.295673 19131 net.cpp:425] inception_5a/output_inception_5a/output_0_split <- inception_5a/output
I0714 22:01:56.295684 19131 net.cpp:399] inception_5a/output_inception_5a/output_0_split -> inception_5a/output_inception_5a/output_0_split_0
I0714 22:01:56.295681 19135 net.cpp:141] Setting up inception_5a/pool_proj
I0714 22:01:56.295697 19131 net.cpp:399] inception_5a/output_inception_5a/output_0_split -> inception_5a/output_inception_5a/output_0_split_1
I0714 22:01:56.295701 19135 net.cpp:148] Top shape: 10 128 7 7 (62720)
I0714 22:01:56.295707 19135 net.cpp:156] Memory required for data: 534374400
I0714 22:01:56.295708 19131 net.cpp:399] inception_5a/output_inception_5a/output_0_split -> inception_5a/output_inception_5a/output_0_split_2
I0714 22:01:56.295718 19135 layer_factory.hpp:77] Creating layer inception_5a/relu_pool_proj
I0714 22:01:56.295719 19131 net.cpp:399] inception_5a/output_inception_5a/output_0_split -> inception_5a/output_inception_5a/output_0_split_3
I0714 22:01:56.295737 19135 net.cpp:91] Creating Layer inception_5a/relu_pool_proj
I0714 22:01:56.295744 19135 net.cpp:425] inception_5a/relu_pool_proj <- inception_5a/pool_proj
I0714 22:01:56.295753 19135 net.cpp:386] inception_5a/relu_pool_proj -> inception_5a/pool_proj (in-place)
I0714 22:01:56.296823 19135 net.cpp:141] Setting up inception_5a/relu_pool_proj
I0714 22:01:56.296841 19135 net.cpp:148] Top shape: 10 128 7 7 (62720)
I0714 22:01:56.296847 19135 net.cpp:156] Memory required for data: 534625280
I0714 22:01:56.296847 19131 net.cpp:141] Setting up inception_5a/output_inception_5a/output_0_split
I0714 22:01:56.296856 19135 layer_factory.hpp:77] Creating layer inception_5a/output
I0714 22:01:56.296862 19131 net.cpp:148] Top shape: 10 832 7 7 (407680)
I0714 22:01:56.296869 19131 net.cpp:148] Top shape: 10 832 7 7 (407680)
I0714 22:01:56.296872 19135 net.cpp:91] Creating Layer inception_5a/output
I0714 22:01:56.296876 19131 net.cpp:148] Top shape: 10 832 7 7 (407680)
I0714 22:01:56.296880 19135 net.cpp:425] inception_5a/output <- inception_5a/1x1
I0714 22:01:56.296885 19131 net.cpp:148] Top shape: 10 832 7 7 (407680)
I0714 22:01:56.296890 19131 net.cpp:156] Memory required for data: 542778880
I0714 22:01:56.296890 19135 net.cpp:425] inception_5a/output <- inception_5a/3x3
I0714 22:01:56.296896 19131 layer_factory.hpp:77] Creating layer inception_5b/1x1
I0714 22:01:56.296900 19135 net.cpp:425] inception_5a/output <- inception_5a/5x5
I0714 22:01:56.296906 19135 net.cpp:425] inception_5a/output <- inception_5a/pool_proj
I0714 22:01:56.296913 19135 net.cpp:399] inception_5a/output -> inception_5a/output
I0714 22:01:56.296916 19131 net.cpp:91] Creating Layer inception_5b/1x1
I0714 22:01:56.296923 19131 net.cpp:425] inception_5b/1x1 <- inception_5a/output_inception_5a/output_0_split_0
I0714 22:01:56.296937 19131 net.cpp:399] inception_5b/1x1 -> inception_5b/1x1
I0714 22:01:56.297050 19135 net.cpp:141] Setting up inception_5a/output
I0714 22:01:56.297063 19135 net.cpp:148] Top shape: 10 832 7 7 (407680)
I0714 22:01:56.297068 19135 net.cpp:156] Memory required for data: 536256000
I0714 22:01:56.297075 19135 layer_factory.hpp:77] Creating layer inception_5a/output_inception_5a/output_0_split
I0714 22:01:56.297083 19135 net.cpp:91] Creating Layer inception_5a/output_inception_5a/output_0_split
I0714 22:01:56.297089 19135 net.cpp:425] inception_5a/output_inception_5a/output_0_split <- inception_5a/output
I0714 22:01:56.297101 19135 net.cpp:399] inception_5a/output_inception_5a/output_0_split -> inception_5a/output_inception_5a/output_0_split_0
I0714 22:01:56.297111 19135 net.cpp:399] inception_5a/output_inception_5a/output_0_split -> inception_5a/output_inception_5a/output_0_split_1
I0714 22:01:56.297121 19135 net.cpp:399] inception_5a/output_inception_5a/output_0_split -> inception_5a/output_inception_5a/output_0_split_2
I0714 22:01:56.297129 19135 net.cpp:399] inception_5a/output_inception_5a/output_0_split -> inception_5a/output_inception_5a/output_0_split_3
I0714 22:01:56.297847 19135 net.cpp:141] Setting up inception_5a/output_inception_5a/output_0_split
I0714 22:01:56.297859 19135 net.cpp:148] Top shape: 10 832 7 7 (407680)
I0714 22:01:56.297865 19135 net.cpp:148] Top shape: 10 832 7 7 (407680)
I0714 22:01:56.297871 19135 net.cpp:148] Top shape: 10 832 7 7 (407680)
I0714 22:01:56.297878 19135 net.cpp:148] Top shape: 10 832 7 7 (407680)
I0714 22:01:56.297881 19135 net.cpp:156] Memory required for data: 542778880
I0714 22:01:56.297888 19135 layer_factory.hpp:77] Creating layer inception_5b/1x1
I0714 22:01:56.297905 19135 net.cpp:91] Creating Layer inception_5b/1x1
I0714 22:01:56.297912 19135 net.cpp:425] inception_5b/1x1 <- inception_5a/output_inception_5a/output_0_split_0
I0714 22:01:56.297925 19135 net.cpp:399] inception_5b/1x1 -> inception_5b/1x1
I0714 22:01:56.306766 19131 net.cpp:141] Setting up inception_5b/1x1
I0714 22:01:56.306788 19131 net.cpp:148] Top shape: 10 384 7 7 (188160)
I0714 22:01:56.306795 19131 net.cpp:156] Memory required for data: 543531520
I0714 22:01:56.306807 19131 layer_factory.hpp:77] Creating layer inception_5b/relu_1x1
I0714 22:01:56.306821 19131 net.cpp:91] Creating Layer inception_5b/relu_1x1
I0714 22:01:56.306828 19131 net.cpp:425] inception_5b/relu_1x1 <- inception_5b/1x1
I0714 22:01:56.306838 19131 net.cpp:386] inception_5b/relu_1x1 -> inception_5b/1x1 (in-place)
I0714 22:01:56.307293 19131 net.cpp:141] Setting up inception_5b/relu_1x1
I0714 22:01:56.307309 19131 net.cpp:148] Top shape: 10 384 7 7 (188160)
I0714 22:01:56.307315 19131 net.cpp:156] Memory required for data: 544284160
I0714 22:01:56.307320 19131 layer_factory.hpp:77] Creating layer inception_5b/3x3_reduce
I0714 22:01:56.307342 19131 net.cpp:91] Creating Layer inception_5b/3x3_reduce
I0714 22:01:56.307349 19131 net.cpp:425] inception_5b/3x3_reduce <- inception_5a/output_inception_5a/output_0_split_1
I0714 22:01:56.307361 19131 net.cpp:399] inception_5b/3x3_reduce -> inception_5b/3x3_reduce
I0714 22:01:56.310709 19135 net.cpp:141] Setting up inception_5b/1x1
I0714 22:01:56.310732 19135 net.cpp:148] Top shape: 10 384 7 7 (188160)
I0714 22:01:56.310739 19135 net.cpp:156] Memory required for data: 543531520
I0714 22:01:56.310750 19135 layer_factory.hpp:77] Creating layer inception_5b/relu_1x1
I0714 22:01:56.310762 19135 net.cpp:91] Creating Layer inception_5b/relu_1x1
I0714 22:01:56.310768 19135 net.cpp:425] inception_5b/relu_1x1 <- inception_5b/1x1
I0714 22:01:56.310777 19135 net.cpp:386] inception_5b/relu_1x1 -> inception_5b/1x1 (in-place)
I0714 22:01:56.311095 19135 net.cpp:141] Setting up inception_5b/relu_1x1
I0714 22:01:56.311108 19135 net.cpp:148] Top shape: 10 384 7 7 (188160)
I0714 22:01:56.311113 19135 net.cpp:156] Memory required for data: 544284160
I0714 22:01:56.311120 19135 layer_factory.hpp:77] Creating layer inception_5b/3x3_reduce
I0714 22:01:56.311136 19135 net.cpp:91] Creating Layer inception_5b/3x3_reduce
I0714 22:01:56.311143 19135 net.cpp:425] inception_5b/3x3_reduce <- inception_5a/output_inception_5a/output_0_split_1
I0714 22:01:56.311152 19135 net.cpp:399] inception_5b/3x3_reduce -> inception_5b/3x3_reduce
I0714 22:01:56.317383 19131 net.cpp:141] Setting up inception_5b/3x3_reduce
I0714 22:01:56.317405 19131 net.cpp:148] Top shape: 10 192 7 7 (94080)
I0714 22:01:56.317411 19131 net.cpp:156] Memory required for data: 544660480
I0714 22:01:56.317422 19131 layer_factory.hpp:77] Creating layer inception_5b/relu_3x3_reduce
I0714 22:01:56.317432 19131 net.cpp:91] Creating Layer inception_5b/relu_3x3_reduce
I0714 22:01:56.317438 19131 net.cpp:425] inception_5b/relu_3x3_reduce <- inception_5b/3x3_reduce
I0714 22:01:56.317446 19131 net.cpp:386] inception_5b/relu_3x3_reduce -> inception_5b/3x3_reduce (in-place)
I0714 22:01:56.317769 19131 net.cpp:141] Setting up inception_5b/relu_3x3_reduce
I0714 22:01:56.317781 19131 net.cpp:148] Top shape: 10 192 7 7 (94080)
I0714 22:01:56.317786 19131 net.cpp:156] Memory required for data: 545036800
I0714 22:01:56.317791 19131 layer_factory.hpp:77] Creating layer inception_5b/3x3
I0714 22:01:56.317809 19131 net.cpp:91] Creating Layer inception_5b/3x3
I0714 22:01:56.317816 19131 net.cpp:425] inception_5b/3x3 <- inception_5b/3x3_reduce
I0714 22:01:56.317831 19131 net.cpp:399] inception_5b/3x3 -> inception_5b/3x3
I0714 22:01:56.321890 19135 net.cpp:141] Setting up inception_5b/3x3_reduce
I0714 22:01:56.321913 19135 net.cpp:148] Top shape: 10 192 7 7 (94080)
I0714 22:01:56.321919 19135 net.cpp:156] Memory required for data: 544660480
I0714 22:01:56.321929 19135 layer_factory.hpp:77] Creating layer inception_5b/relu_3x3_reduce
I0714 22:01:56.321943 19135 net.cpp:91] Creating Layer inception_5b/relu_3x3_reduce
I0714 22:01:56.321950 19135 net.cpp:425] inception_5b/relu_3x3_reduce <- inception_5b/3x3_reduce
I0714 22:01:56.321961 19135 net.cpp:386] inception_5b/relu_3x3_reduce -> inception_5b/3x3_reduce (in-place)
I0714 22:01:56.322269 19135 net.cpp:141] Setting up inception_5b/relu_3x3_reduce
I0714 22:01:56.322283 19135 net.cpp:148] Top shape: 10 192 7 7 (94080)
I0714 22:01:56.322288 19135 net.cpp:156] Memory required for data: 545036800
I0714 22:01:56.322293 19135 layer_factory.hpp:77] Creating layer inception_5b/3x3
I0714 22:01:56.322311 19135 net.cpp:91] Creating Layer inception_5b/3x3
I0714 22:01:56.322319 19135 net.cpp:425] inception_5b/3x3 <- inception_5b/3x3_reduce
I0714 22:01:56.322330 19135 net.cpp:399] inception_5b/3x3 -> inception_5b/3x3
I0714 22:01:56.329994 19131 net.cpp:141] Setting up inception_5b/3x3
I0714 22:01:56.330018 19131 net.cpp:148] Top shape: 10 384 7 7 (188160)
I0714 22:01:56.330025 19131 net.cpp:156] Memory required for data: 545789440
I0714 22:01:56.330035 19131 layer_factory.hpp:77] Creating layer inception_5b/relu_3x3
I0714 22:01:56.330052 19131 net.cpp:91] Creating Layer inception_5b/relu_3x3
I0714 22:01:56.330060 19131 net.cpp:425] inception_5b/relu_3x3 <- inception_5b/3x3
I0714 22:01:56.330070 19131 net.cpp:386] inception_5b/relu_3x3 -> inception_5b/3x3 (in-place)
I0714 22:01:56.330943 19131 net.cpp:141] Setting up inception_5b/relu_3x3
I0714 22:01:56.330961 19131 net.cpp:148] Top shape: 10 384 7 7 (188160)
I0714 22:01:56.330967 19131 net.cpp:156] Memory required for data: 546542080
I0714 22:01:56.330972 19131 layer_factory.hpp:77] Creating layer inception_5b/5x5_reduce
I0714 22:01:56.330997 19131 net.cpp:91] Creating Layer inception_5b/5x5_reduce
I0714 22:01:56.331006 19131 net.cpp:425] inception_5b/5x5_reduce <- inception_5a/output_inception_5a/output_0_split_2
I0714 22:01:56.331015 19131 net.cpp:399] inception_5b/5x5_reduce -> inception_5b/5x5_reduce
I0714 22:01:56.334378 19135 net.cpp:141] Setting up inception_5b/3x3
I0714 22:01:56.334401 19135 net.cpp:148] Top shape: 10 384 7 7 (188160)
I0714 22:01:56.334410 19135 net.cpp:156] Memory required for data: 545789440
I0714 22:01:56.334420 19135 layer_factory.hpp:77] Creating layer inception_5b/relu_3x3
I0714 22:01:56.334430 19135 net.cpp:91] Creating Layer inception_5b/relu_3x3
I0714 22:01:56.334437 19135 net.cpp:425] inception_5b/relu_3x3 <- inception_5b/3x3
I0714 22:01:56.334446 19135 net.cpp:386] inception_5b/relu_3x3 -> inception_5b/3x3 (in-place)
I0714 22:01:56.335444 19135 net.cpp:141] Setting up inception_5b/relu_3x3
I0714 22:01:56.335466 19135 net.cpp:148] Top shape: 10 384 7 7 (188160)
I0714 22:01:56.335472 19135 net.cpp:156] Memory required for data: 546542080
I0714 22:01:56.335479 19135 layer_factory.hpp:77] Creating layer inception_5b/5x5_reduce
I0714 22:01:56.335497 19135 net.cpp:91] Creating Layer inception_5b/5x5_reduce
I0714 22:01:56.335505 19135 net.cpp:425] inception_5b/5x5_reduce <- inception_5a/output_inception_5a/output_0_split_2
I0714 22:01:56.335515 19135 net.cpp:399] inception_5b/5x5_reduce -> inception_5b/5x5_reduce
I0714 22:01:56.337968 19131 net.cpp:141] Setting up inception_5b/5x5_reduce
I0714 22:01:56.337990 19131 net.cpp:148] Top shape: 10 48 7 7 (23520)
I0714 22:01:56.337996 19131 net.cpp:156] Memory required for data: 546636160
I0714 22:01:56.338008 19131 layer_factory.hpp:77] Creating layer inception_5b/relu_5x5_reduce
I0714 22:01:56.338023 19131 net.cpp:91] Creating Layer inception_5b/relu_5x5_reduce
I0714 22:01:56.338032 19131 net.cpp:425] inception_5b/relu_5x5_reduce <- inception_5b/5x5_reduce
I0714 22:01:56.338039 19131 net.cpp:386] inception_5b/relu_5x5_reduce -> inception_5b/5x5_reduce (in-place)
I0714 22:01:56.338479 19131 net.cpp:141] Setting up inception_5b/relu_5x5_reduce
I0714 22:01:56.338496 19131 net.cpp:148] Top shape: 10 48 7 7 (23520)
I0714 22:01:56.338502 19131 net.cpp:156] Memory required for data: 546730240
I0714 22:01:56.338507 19131 layer_factory.hpp:77] Creating layer inception_5b/5x5
I0714 22:01:56.338526 19131 net.cpp:91] Creating Layer inception_5b/5x5
I0714 22:01:56.338533 19131 net.cpp:425] inception_5b/5x5 <- inception_5b/5x5_reduce
I0714 22:01:56.338543 19131 net.cpp:399] inception_5b/5x5 -> inception_5b/5x5
I0714 22:01:56.341562 19135 net.cpp:141] Setting up inception_5b/5x5_reduce
I0714 22:01:56.341584 19135 net.cpp:148] Top shape: 10 48 7 7 (23520)
I0714 22:01:56.341590 19135 net.cpp:156] Memory required for data: 546636160
I0714 22:01:56.341600 19135 layer_factory.hpp:77] Creating layer inception_5b/relu_5x5_reduce
I0714 22:01:56.341612 19135 net.cpp:91] Creating Layer inception_5b/relu_5x5_reduce
I0714 22:01:56.341619 19135 net.cpp:425] inception_5b/relu_5x5_reduce <- inception_5b/5x5_reduce
I0714 22:01:56.341627 19135 net.cpp:386] inception_5b/relu_5x5_reduce -> inception_5b/5x5_reduce (in-place)
I0714 22:01:56.341933 19135 net.cpp:141] Setting up inception_5b/relu_5x5_reduce
I0714 22:01:56.341946 19135 net.cpp:148] Top shape: 10 48 7 7 (23520)
I0714 22:01:56.341951 19135 net.cpp:156] Memory required for data: 546730240
I0714 22:01:56.341956 19135 layer_factory.hpp:77] Creating layer inception_5b/5x5
I0714 22:01:56.341977 19135 net.cpp:91] Creating Layer inception_5b/5x5
I0714 22:01:56.341984 19135 net.cpp:425] inception_5b/5x5 <- inception_5b/5x5_reduce
I0714 22:01:56.341994 19135 net.cpp:399] inception_5b/5x5 -> inception_5b/5x5
I0714 22:01:56.347966 19131 net.cpp:141] Setting up inception_5b/5x5
I0714 22:01:56.347988 19131 net.cpp:148] Top shape: 10 128 7 7 (62720)
I0714 22:01:56.347995 19131 net.cpp:156] Memory required for data: 546981120
I0714 22:01:56.348006 19131 layer_factory.hpp:77] Creating layer inception_5b/relu_5x5
I0714 22:01:56.348022 19131 net.cpp:91] Creating Layer inception_5b/relu_5x5
I0714 22:01:56.348029 19131 net.cpp:425] inception_5b/relu_5x5 <- inception_5b/5x5
I0714 22:01:56.348038 19131 net.cpp:386] inception_5b/relu_5x5 -> inception_5b/5x5 (in-place)
I0714 22:01:56.348425 19131 net.cpp:141] Setting up inception_5b/relu_5x5
I0714 22:01:56.348441 19131 net.cpp:148] Top shape: 10 128 7 7 (62720)
I0714 22:01:56.348448 19131 net.cpp:156] Memory required for data: 547232000
I0714 22:01:56.348453 19131 layer_factory.hpp:77] Creating layer inception_5b/pool
I0714 22:01:56.348464 19131 net.cpp:91] Creating Layer inception_5b/pool
I0714 22:01:56.348470 19131 net.cpp:425] inception_5b/pool <- inception_5a/output_inception_5a/output_0_split_3
I0714 22:01:56.348481 19131 net.cpp:399] inception_5b/pool -> inception_5b/pool
I0714 22:01:56.349014 19131 net.cpp:141] Setting up inception_5b/pool
I0714 22:01:56.349028 19131 net.cpp:148] Top shape: 10 832 7 7 (407680)
I0714 22:01:56.349033 19131 net.cpp:156] Memory required for data: 548862720
I0714 22:01:56.349038 19131 layer_factory.hpp:77] Creating layer inception_5b/pool_proj
I0714 22:01:56.349061 19131 net.cpp:91] Creating Layer inception_5b/pool_proj
I0714 22:01:56.349067 19131 net.cpp:425] inception_5b/pool_proj <- inception_5b/pool
I0714 22:01:56.349077 19131 net.cpp:399] inception_5b/pool_proj -> inception_5b/pool_proj
I0714 22:01:56.350214 19135 net.cpp:141] Setting up inception_5b/5x5
I0714 22:01:56.350235 19135 net.cpp:148] Top shape: 10 128 7 7 (62720)
I0714 22:01:56.350241 19135 net.cpp:156] Memory required for data: 546981120
I0714 22:01:56.350251 19135 layer_factory.hpp:77] Creating layer inception_5b/relu_5x5
I0714 22:01:56.350265 19135 net.cpp:91] Creating Layer inception_5b/relu_5x5
I0714 22:01:56.350272 19135 net.cpp:425] inception_5b/relu_5x5 <- inception_5b/5x5
I0714 22:01:56.350281 19135 net.cpp:386] inception_5b/relu_5x5 -> inception_5b/5x5 (in-place)
I0714 22:01:56.351104 19135 net.cpp:141] Setting up inception_5b/relu_5x5
I0714 22:01:56.351119 19135 net.cpp:148] Top shape: 10 128 7 7 (62720)
I0714 22:01:56.351125 19135 net.cpp:156] Memory required for data: 547232000
I0714 22:01:56.351130 19135 layer_factory.hpp:77] Creating layer inception_5b/pool
I0714 22:01:56.351141 19135 net.cpp:91] Creating Layer inception_5b/pool
I0714 22:01:56.351148 19135 net.cpp:425] inception_5b/pool <- inception_5a/output_inception_5a/output_0_split_3
I0714 22:01:56.351161 19135 net.cpp:399] inception_5b/pool -> inception_5b/pool
I0714 22:01:56.352501 19135 net.cpp:141] Setting up inception_5b/pool
I0714 22:01:56.352517 19135 net.cpp:148] Top shape: 10 832 7 7 (407680)
I0714 22:01:56.352522 19135 net.cpp:156] Memory required for data: 548862720
I0714 22:01:56.352527 19135 layer_factory.hpp:77] Creating layer inception_5b/pool_proj
I0714 22:01:56.352546 19135 net.cpp:91] Creating Layer inception_5b/pool_proj
I0714 22:01:56.352553 19135 net.cpp:425] inception_5b/pool_proj <- inception_5b/pool
I0714 22:01:56.352566 19135 net.cpp:399] inception_5b/pool_proj -> inception_5b/pool_proj
I0714 22:01:56.359043 19131 net.cpp:141] Setting up inception_5b/pool_proj
I0714 22:01:56.359066 19131 net.cpp:148] Top shape: 10 128 7 7 (62720)
I0714 22:01:56.359073 19131 net.cpp:156] Memory required for data: 549113600
I0714 22:01:56.359083 19131 layer_factory.hpp:77] Creating layer inception_5b/relu_pool_proj
I0714 22:01:56.359094 19131 net.cpp:91] Creating Layer inception_5b/relu_pool_proj
I0714 22:01:56.359100 19131 net.cpp:425] inception_5b/relu_pool_proj <- inception_5b/pool_proj
I0714 22:01:56.359108 19131 net.cpp:386] inception_5b/relu_pool_proj -> inception_5b/pool_proj (in-place)
I0714 22:01:56.360249 19131 net.cpp:141] Setting up inception_5b/relu_pool_proj
I0714 22:01:56.360267 19131 net.cpp:148] Top shape: 10 128 7 7 (62720)
I0714 22:01:56.360272 19131 net.cpp:156] Memory required for data: 549364480
I0714 22:01:56.360278 19131 layer_factory.hpp:77] Creating layer inception_5b/output
I0714 22:01:56.360288 19131 net.cpp:91] Creating Layer inception_5b/output
I0714 22:01:56.360294 19131 net.cpp:425] inception_5b/output <- inception_5b/1x1
I0714 22:01:56.360302 19131 net.cpp:425] inception_5b/output <- inception_5b/3x3
I0714 22:01:56.360308 19131 net.cpp:425] inception_5b/output <- inception_5b/5x5
I0714 22:01:56.360314 19131 net.cpp:425] inception_5b/output <- inception_5b/pool_proj
I0714 22:01:56.360321 19131 net.cpp:399] inception_5b/output -> inception_5b/output
I0714 22:01:56.360499 19131 net.cpp:141] Setting up inception_5b/output
I0714 22:01:56.360513 19131 net.cpp:148] Top shape: 10 1024 7 7 (501760)
I0714 22:01:56.360517 19131 net.cpp:156] Memory required for data: 551371520
I0714 22:01:56.360523 19131 layer_factory.hpp:77] Creating layer pool5/7x7_s1
I0714 22:01:56.360533 19131 net.cpp:91] Creating Layer pool5/7x7_s1
I0714 22:01:56.360539 19131 net.cpp:425] pool5/7x7_s1 <- inception_5b/output
I0714 22:01:56.360551 19131 net.cpp:399] pool5/7x7_s1 -> pool5/7x7_s1
I0714 22:01:56.360550 19135 net.cpp:141] Setting up inception_5b/pool_proj
I0714 22:01:56.360569 19135 net.cpp:148] Top shape: 10 128 7 7 (62720)
I0714 22:01:56.360575 19135 net.cpp:156] Memory required for data: 549113600
I0714 22:01:56.360585 19135 layer_factory.hpp:77] Creating layer inception_5b/relu_pool_proj
I0714 22:01:56.360599 19135 net.cpp:91] Creating Layer inception_5b/relu_pool_proj
I0714 22:01:56.360605 19135 net.cpp:425] inception_5b/relu_pool_proj <- inception_5b/pool_proj
I0714 22:01:56.360620 19135 net.cpp:386] inception_5b/relu_pool_proj -> inception_5b/pool_proj (in-place)
I0714 22:01:56.361528 19131 net.cpp:141] Setting up pool5/7x7_s1
I0714 22:01:56.361546 19131 net.cpp:148] Top shape: 10 1024 1 1 (10240)
I0714 22:01:56.361551 19131 net.cpp:156] Memory required for data: 551412480
I0714 22:01:56.361557 19131 layer_factory.hpp:77] Creating layer pool5/drop_7x7_s1
I0714 22:01:56.361570 19131 net.cpp:91] Creating Layer pool5/drop_7x7_s1
I0714 22:01:56.361577 19131 net.cpp:425] pool5/drop_7x7_s1 <- pool5/7x7_s1
I0714 22:01:56.361583 19131 net.cpp:386] pool5/drop_7x7_s1 -> pool5/7x7_s1 (in-place)
I0714 22:01:56.361659 19135 net.cpp:141] Setting up inception_5b/relu_pool_proj
I0714 22:01:56.361675 19135 net.cpp:148] Top shape: 10 128 7 7 (62720)
I0714 22:01:56.361680 19135 net.cpp:156] Memory required for data: 549364480
I0714 22:01:56.361685 19135 layer_factory.hpp:77] Creating layer inception_5b/output
I0714 22:01:56.361687 19131 net.cpp:141] Setting up pool5/drop_7x7_s1
I0714 22:01:56.361696 19135 net.cpp:91] Creating Layer inception_5b/output
I0714 22:01:56.361703 19135 net.cpp:425] inception_5b/output <- inception_5b/1x1
I0714 22:01:56.361703 19131 net.cpp:148] Top shape: 10 1024 1 1 (10240)
I0714 22:01:56.361711 19131 net.cpp:156] Memory required for data: 551453440
I0714 22:01:56.361711 19135 net.cpp:425] inception_5b/output <- inception_5b/3x3
I0714 22:01:56.361716 19131 layer_factory.hpp:77] Creating layer loss3/classifier
I0714 22:01:56.361718 19135 net.cpp:425] inception_5b/output <- inception_5b/5x5
I0714 22:01:56.361726 19135 net.cpp:425] inception_5b/output <- inception_5b/pool_proj
I0714 22:01:56.361735 19135 net.cpp:399] inception_5b/output -> inception_5b/output
I0714 22:01:56.361738 19131 net.cpp:91] Creating Layer loss3/classifier
I0714 22:01:56.361745 19131 net.cpp:425] loss3/classifier <- pool5/7x7_s1
I0714 22:01:56.361758 19131 net.cpp:399] loss3/classifier -> loss3/classifier
I0714 22:01:56.361881 19135 net.cpp:141] Setting up inception_5b/output
I0714 22:01:56.361894 19135 net.cpp:148] Top shape: 10 1024 7 7 (501760)
I0714 22:01:56.361899 19135 net.cpp:156] Memory required for data: 551371520
I0714 22:01:56.361906 19135 layer_factory.hpp:77] Creating layer pool5/7x7_s1
I0714 22:01:56.361917 19135 net.cpp:91] Creating Layer pool5/7x7_s1
I0714 22:01:56.361923 19135 net.cpp:425] pool5/7x7_s1 <- inception_5b/output
I0714 22:01:56.361932 19135 net.cpp:399] pool5/7x7_s1 -> pool5/7x7_s1
I0714 22:01:56.364601 19135 net.cpp:141] Setting up pool5/7x7_s1
I0714 22:01:56.364619 19135 net.cpp:148] Top shape: 10 1024 1 1 (10240)
I0714 22:01:56.364625 19135 net.cpp:156] Memory required for data: 551412480
I0714 22:01:56.364630 19135 layer_factory.hpp:77] Creating layer pool5/drop_7x7_s1
I0714 22:01:56.364646 19135 net.cpp:91] Creating Layer pool5/drop_7x7_s1
I0714 22:01:56.364652 19135 net.cpp:425] pool5/drop_7x7_s1 <- pool5/7x7_s1
I0714 22:01:56.364660 19135 net.cpp:386] pool5/drop_7x7_s1 -> pool5/7x7_s1 (in-place)
I0714 22:01:56.365347 19135 net.cpp:141] Setting up pool5/drop_7x7_s1
I0714 22:01:56.365362 19135 net.cpp:148] Top shape: 10 1024 1 1 (10240)
I0714 22:01:56.365367 19135 net.cpp:156] Memory required for data: 551453440
I0714 22:01:56.365375 19135 layer_factory.hpp:77] Creating layer loss3/classifier
I0714 22:01:56.365392 19135 net.cpp:91] Creating Layer loss3/classifier
I0714 22:01:56.365398 19135 net.cpp:425] loss3/classifier <- pool5/7x7_s1
I0714 22:01:56.365409 19135 net.cpp:399] loss3/classifier -> loss3/classifier
I0714 22:01:56.374127 19131 net.cpp:141] Setting up loss3/classifier
I0714 22:01:56.374152 19131 net.cpp:148] Top shape: 10 1000 (10000)
I0714 22:01:56.374158 19131 net.cpp:156] Memory required for data: 551493440
I0714 22:01:56.374171 19131 layer_factory.hpp:77] Creating layer prob
I0714 22:01:56.374181 19131 net.cpp:91] Creating Layer prob
I0714 22:01:56.374187 19131 net.cpp:425] prob <- loss3/classifier
I0714 22:01:56.374197 19131 net.cpp:399] prob -> prob
I0714 22:01:56.375463 19131 net.cpp:141] Setting up prob
I0714 22:01:56.375483 19131 net.cpp:148] Top shape: 10 1000 (10000)
I0714 22:01:56.375488 19131 net.cpp:156] Memory required for data: 551533440
I0714 22:01:56.375495 19131 net.cpp:219] prob does not need backward computation.
I0714 22:01:56.375501 19131 net.cpp:219] loss3/classifier does not need backward computation.
I0714 22:01:56.375506 19131 net.cpp:219] pool5/drop_7x7_s1 does not need backward computation.
I0714 22:01:56.375510 19131 net.cpp:219] pool5/7x7_s1 does not need backward computation.
…
