…
2016-07-30 09:51:23.019 STDERR [INFO] I0730 09:51:23.000134  1496 net.cpp:91] Creating Layer input
2016-07-30 09:51:23.019 STDERR [INFO] I0730 09:51:23.000143  1496 net.cpp:399] input -> frames_fc7
2016-07-30 09:51:23.019 STDERR [INFO] I0730 09:51:23.000159  1496 net.cpp:399] input -> cont_sentence
2016-07-30 09:51:23.019 STDERR [INFO] I0730 09:51:23.000169  1496 net.cpp:399] input -> input_sentence
2016-07-30 09:51:23.019 STDERR [INFO] I0730 09:51:23.000180  1496 net.cpp:399] input -> stage_indicator
2016-07-30 09:51:23.019 STDERR [INFO] I0730 09:51:23.009259  1496 net.cpp:141] Setting up input
2016-07-30 09:51:23.019 STDERR [INFO] I0730 09:51:23.009284  1496 net.cpp:148] Top shape: 1 4096 (4096)
2016-07-30 09:51:23.020 STDERR [INFO] I0730 09:51:23.009291  1496 net.cpp:148] Top shape: 1 1 (1)
2016-07-30 09:51:23.020 STDERR [INFO] I0730 09:51:23.009296  1496 net.cpp:148] Top shape: 1 1 (1)
2016-07-30 09:51:23.020 STDERR [INFO] I0730 09:51:23.009301  1496 net.cpp:148] Top shape: 1 1 (1)
2016-07-30 09:51:23.020 STDERR [INFO] I0730 09:51:23.009305  1496 net.cpp:156] Memory required for data: 16396
2016-07-30 09:51:23.020 STDERR [INFO] I0730 09:51:23.009311  1496 layer_factory.hpp:77] Creating layer cont_sentence_input_1_split
2016-07-30 09:51:23.020 STDERR [INFO] I0730 09:51:23.009348  1496 net.cpp:91] Creating Layer cont_sentence_input_1_split
2016-07-30 09:51:23.020 STDERR [INFO] I0730 09:51:23.009356  1496 net.cpp:425] cont_sentence_input_1_split <- cont_sentence
2016-07-30 09:51:23.020 STDERR [INFO] I0730 09:51:23.009378  1496 net.cpp:399] cont_sentence_input_1_split -> cont_sentence_input_1_split_0
2016-07-30 09:51:23.020 STDERR [INFO] I0730 09:51:23.009389  1496 net.cpp:399] cont_sentence_input_1_split -> cont_sentence_input_1_split_1
2016-07-30 09:51:23.020 STDERR [INFO] I0730 09:51:23.009456  1496 net.cpp:141] Setting up cont_sentence_input_1_split
2016-07-30 09:51:23.020 STDERR [INFO] I0730 09:51:23.009466  1496 net.cpp:148] Top shape: 1 1 (1)
2016-07-30 09:51:23.020 STDERR [INFO] I0730 09:51:23.009472  1496 net.cpp:148] Top shape: 1 1 (1)
2016-07-30 09:51:23.021 STDERR [INFO] I0730 09:51:23.009475  1496 net.cpp:156] Memory required for data: 16404
2016-07-30 09:51:23.021 STDERR [INFO] I0730 09:51:23.009480  1496 layer_factory.hpp:77] Creating layer embed_encoder
2016-07-30 09:51:23.021 STDERR [INFO] I0730 09:51:23.009491  1496 net.cpp:91] Creating Layer embed_encoder
2016-07-30 09:51:23.021 STDERR [INFO] I0730 09:51:23.009496  1496 net.cpp:425] embed_encoder <- frames_fc7
2016-07-30 09:51:23.021 STDERR [INFO] I0730 09:51:23.009505  1496 net.cpp:399] embed_encoder -> embedded_in_frames
2016-07-30 09:51:23.034 STDERR [INFO] I0730 09:51:23.033988  1496 net.cpp:141] Setting up embed_encoder
2016-07-30 09:51:23.034 STDERR [INFO] I0730 09:51:23.034049  1496 net.cpp:148] Top shape: 1 500 (500)
2016-07-30 09:51:23.034 STDERR [INFO] I0730 09:51:23.034054  1496 net.cpp:156] Memory required for data: 18404
2016-07-30 09:51:23.034 STDERR [INFO] I0730 09:51:23.034081  1496 layer_factory.hpp:77] Creating layer reshape_frames
2016-07-30 09:51:23.034 STDERR [INFO] I0730 09:51:23.034109  1496 net.cpp:91] Creating Layer reshape_frames
2016-07-30 09:51:23.034 STDERR [INFO] I0730 09:51:23.034117  1496 net.cpp:425] reshape_frames <- embedded_in_frames
2016-07-30 09:51:23.035 STDERR [INFO] I0730 09:51:23.034129  1496 net.cpp:399] reshape_frames -> embedded_input_frames
2016-07-30 09:51:23.036 STDERR [INFO] I0730 09:51:23.036227  1496 net.cpp:141] Setting up reshape_frames
2016-07-30 09:51:23.036 STDERR [INFO] I0730 09:51:23.036247  1496 net.cpp:148] Top shape: 1 1 500 (500)
2016-07-30 09:51:23.036 STDERR [INFO] I0730 09:51:23.036252  1496 net.cpp:156] Memory required for data: 20404
2016-07-30 09:51:23.036 STDERR [INFO] I0730 09:51:23.036257  1496 layer_factory.hpp:77] Creating layer reshape_stage_indicator
2016-07-30 09:51:23.036 STDERR [INFO] I0730 09:51:23.036268  1496 net.cpp:91] Creating Layer reshape_stage_indicator
2016-07-30 09:51:23.036 STDERR [INFO] I0730 09:51:23.036274  1496 net.cpp:425] reshape_stage_indicator <- stage_indicator
2016-07-30 09:51:23.036 STDERR [INFO] I0730 09:51:23.036283  1496 net.cpp:399] reshape_stage_indicator -> reshaped_stage_indicator
2016-07-30 09:51:23.039 STDERR [INFO] I0730 09:51:23.039314  1496 net.cpp:141] Setting up reshape_stage_indicator
2016-07-30 09:51:23.039 STDERR [INFO] I0730 09:51:23.039336  1496 net.cpp:148] Top shape: 1 1 1 (1)
2016-07-30 09:51:23.039 STDERR [INFO] I0730 09:51:23.039341  1496 net.cpp:156] Memory required for data: 20408
2016-07-30 09:51:23.039 STDERR [INFO] I0730 09:51:23.039346  1496 layer_factory.hpp:77] Creating layer embedding
2016-07-30 09:51:23.039 STDERR [INFO] I0730 09:51:23.039361  1496 net.cpp:91] Creating Layer embedding
2016-07-30 09:51:23.039 STDERR [INFO] I0730 09:51:23.039366  1496 net.cpp:425] embedding <- input_sentence
2016-07-30 09:51:23.039 STDERR [INFO] I0730 09:51:23.039374  1496 net.cpp:399] embedding -> embedded_input_sentence
2016-07-30 09:51:23.241 STDERR [INFO] I0730 09:51:23.241598  1496 net.cpp:141] Setting up embedding
2016-07-30 09:51:23.242 STDERR [INFO] I0730 09:51:23.241658  1496 net.cpp:148] Top shape: 1 1 500 (500)
2016-07-30 09:51:23.242 STDERR [INFO] I0730 09:51:23.241664  1496 net.cpp:156] Memory required for data: 22408
2016-07-30 09:51:23.242 STDERR [INFO] I0730 09:51:23.241682  1496 layer_factory.hpp:77] Creating layer lstm1
2016-07-30 09:51:23.242 STDERR [INFO] I0730 09:51:23.241704  1496 net.cpp:91] Creating Layer lstm1
2016-07-30 09:51:23.242 STDERR [INFO] I0730 09:51:23.241711  1496 net.cpp:425] lstm1 <- embedded_input_frames
…
2016-07-30 09:51:23.253 STDERR [INFO] }
2016-07-30 09:51:23.253 STDERR [INFO] I0730 09:51:23.242178  1496 layer_factory.hpp:77] Creating layer lstm1_
2016-07-30 09:51:23.253 STDERR [INFO] I0730 09:51:23.242190  1496 net.cpp:91] Creating Layer lstm1_
2016-07-30 09:51:23.253 STDERR [INFO] I0730 09:51:23.242197  1496 net.cpp:399] lstm1_ -> x
2016-07-30 09:51:23.254 STDERR [INFO] I0730 09:51:23.242208  1496 net.cpp:399] lstm1_ -> cont
2016-07-30 09:51:23.254 STDERR [INFO] I0730 09:51:23.242980  1496 net.cpp:141] Setting up lstm1_
2016-07-30 09:51:23.254 STDERR [INFO] I0730 09:51:23.243001  1496 net.cpp:148] Top shape: 1 1 500 (500)
2016-07-30 09:51:23.254 STDERR [INFO] I0730 09:51:23.243008  1496 net.cpp:148] Top shape: 1 1 (1)
2016-07-30 09:51:23.254 STDERR [INFO] I0730 09:51:23.243012  1496 net.cpp:156] Memory required for data: 2004
2016-07-30 09:51:23.254 STDERR [INFO] I0730 09:51:23.243017  1496 layer_factory.hpp:77] Creating layer lstm1_
2016-07-30 09:51:23.254 STDERR [INFO] I0730 09:51:23.243027  1496 net.cpp:91] Creating Layer lstm1_
2016-07-30 09:51:23.254 STDERR [INFO] I0730 09:51:23.243032  1496 net.cpp:399] lstm1_ -> c_0
2016-07-30 09:51:23.254 STDERR [INFO] I0730 09:51:23.243046  1496 net.cpp:399] lstm1_ -> h_0
2016-07-30 09:51:23.254 STDERR [INFO] I0730 09:51:23.243278  1496 net.cpp:141] Setting up lstm1_
2016-07-30 09:51:23.254 STDERR [INFO] I0730 09:51:23.243288  1496 net.cpp:148] Top shape: 1 1 1000 (1000)
2016-07-30 09:51:23.255 STDERR [INFO] I0730 09:51:23.243293  1496 net.cpp:148] Top shape: 1 1 1000 (1000)
2016-07-30 09:51:23.255 STDERR [INFO] I0730 09:51:23.243296  1496 net.cpp:156] Memory required for data: 10004
2016-07-30 09:51:23.255 STDERR [INFO] I0730 09:51:23.243300  1496 layer_factory.hpp:77] Creating layer lstm1_cont_slice
2016-07-30 09:51:23.255 STDERR [INFO] I0730 09:51:23.243312  1496 net.cpp:91] Creating Layer lstm1_cont_slice
2016-07-30 09:51:23.255 STDERR [INFO] I0730 09:51:23.243317  1496 net.cpp:425] lstm1_cont_slice <- cont
2016-07-30 09:51:23.255 STDERR [INFO] I0730 09:51:23.243324  1496 net.cpp:399] lstm1_cont_slice -> cont_1
2016-07-30 09:51:23.255 STDERR [INFO] I0730 09:51:23.243386  1496 net.cpp:141] Setting up lstm1_cont_slice
2016-07-30 09:51:23.255 STDERR [INFO] I0730 09:51:23.243396  1496 net.cpp:148] Top shape: 1 1 (1)
2016-07-30 09:51:23.255 STDERR [INFO] I0730 09:51:23.243399  1496 net.cpp:156] Memory required for data: 10008
2016-07-30 09:51:23.255 STDERR [INFO] I0730 09:51:23.243404  1496 layer_factory.hpp:77] Creating layer cont_1_lstm1_cont_slice_0_split
2016-07-30 09:51:23.255 STDERR [INFO] I0730 09:51:23.243412  1496 net.cpp:91] Creating Layer cont_1_lstm1_cont_slice_0_split
2016-07-30 09:51:23.255 STDERR [INFO] I0730 09:51:23.243417  1496 net.cpp:425] cont_1_lstm1_cont_slice_0_split <- cont_1
2016-07-30 09:51:23.255 STDERR [INFO] I0730 09:51:23.243424  1496 net.cpp:399] cont_1_lstm1_cont_slice_0_split -> cont_1_lstm1_cont_slice_0_split_0
2016-07-30 09:51:23.255 STDERR [INFO] I0730 09:51:23.243432  1496 net.cpp:399] cont_1_lstm1_cont_slice_0_split -> cont_1_lstm1_cont_slice_0_split_1
2016-07-30 09:51:23.255 STDERR [INFO] I0730 09:51:23.243484  1496 net.cpp:141] Setting up cont_1_lstm1_cont_slice_0_split
2016-07-30 09:51:23.256 STDERR [INFO] I0730 09:51:23.243492  1496 net.cpp:148] Top shape: 1 1 (1)
2016-07-30 09:51:23.256 STDERR [INFO] I0730 09:51:23.243497  1496 net.cpp:148] Top shape: 1 1 (1)
2016-07-30 09:51:23.256 STDERR [INFO] I0730 09:51:23.243501  1496 net.cpp:156] Memory required for data: 10016
2016-07-30 09:51:23.256 STDERR [INFO] I0730 09:51:23.243505  1496 layer_factory.hpp:77] Creating layer lstm1_x_transform
2016-07-30 09:51:23.256 STDERR [INFO] I0730 09:51:23.243517  1496 net.cpp:91] Creating Layer lstm1_x_transform
2016-07-30 09:51:23.256 STDERR [INFO] I0730 09:51:23.243522  1496 net.cpp:425] lstm1_x_transform <- x
2016-07-30 09:51:23.256 STDERR [INFO] I0730 09:51:23.243530  1496 net.cpp:399] lstm1_x_transform -> W_xc_x
2016-07-30 09:51:23.256 STDERR [INFO] I0730 09:51:23.250072  1507 net.cpp:141] Setting up conv1
2016-07-30 09:51:23.256 STDERR [INFO] I0730 09:51:23.250124  1507 net.cpp:148] Top shape: 10 96 55 55 (2904000)
2016-07-30 09:51:23.256 STDERR [INFO] I0730 09:51:23.250135  1507 net.cpp:156] Memory required for data: 17799480
2016-07-30 09:51:23.256 STDERR [INFO] I0730 09:51:23.250167  1507 layer_factory.hpp:77] Creating layer relu1
2016-07-30 09:51:23.256 STDERR [INFO] I0730 09:51:23.250188  1507 net.cpp:91] Creating Layer relu1
2016-07-30 09:51:23.256 STDERR [INFO] I0730 09:51:23.250195  1507 net.cpp:425] relu1 <- conv1
2016-07-30 09:51:23.256 STDERR [INFO] I0730 09:51:23.250210  1507 net.cpp:386] relu1 -> conv1 (in-place)
2016-07-30 09:51:23.257 STDERR [INFO] I0730 09:51:23.251055  1507 net.cpp:141] Setting up relu1
2016-07-30 09:51:23.257 STDERR [INFO] I0730 09:51:23.251070  1507 net.cpp:148] Top shape: 10 96 55 55 (2904000)
2016-07-30 09:51:23.257 STDERR [INFO] I0730 09:51:23.251075  1507 net.cpp:156] Memory required for data: 29415480
2016-07-30 09:51:23.257 STDERR [INFO] I0730 09:51:23.251081  1507 layer_factory.hpp:77] Creating layer pool1
2016-07-30 09:51:23.257 STDERR [INFO] I0730 09:51:23.251094  1507 net.cpp:91] Creating Layer pool1
2016-07-30 09:51:23.257 STDERR [INFO] I0730 09:51:23.251099  1507 net.cpp:425] pool1 <- conv1
2016-07-30 09:51:23.257 STDERR [INFO] I0730 09:51:23.251111  1507 net.cpp:399] pool1 -> pool1
2016-07-30 09:51:23.257 STDERR [INFO] I0730 09:51:23.251199  1507 net.cpp:141] Setting up pool1
2016-07-30 09:51:23.257 STDERR [INFO] I0730 09:51:23.251210  1507 net.cpp:148] Top shape: 10 96 27 27 (699840)
2016-07-30 09:51:23.257 STDERR [INFO] I0730 09:51:23.251214  1507 net.cpp:156] Memory required for data: 32214840
2016-07-30 09:51:23.257 STDERR [INFO] I0730 09:51:23.251219  1507 layer_factory.hpp:77] Creating layer norm1
2016-07-30 09:51:23.257 STDERR [INFO] I0730 09:51:23.251243  1507 net.cpp:91] Creating Layer norm1
2016-07-30 09:51:23.257 STDERR [INFO] I0730 09:51:23.251250  1507 net.cpp:425] norm1 <- pool1
2016-07-30 09:51:23.257 STDERR [INFO] I0730 09:51:23.251256  1507 net.cpp:399] norm1 -> norm1
2016-07-30 09:51:23.257 STDERR [INFO] I0730 09:51:23.252084  1507 net.cpp:141] Setting up norm1
2016-07-30 09:51:23.258 STDERR [INFO] I0730 09:51:23.252099  1507 net.cpp:148] Top shape: 10 96 27 27 (699840)
2016-07-30 09:51:23.258 STDERR [INFO] I0730 09:51:23.252104  1507 net.cpp:156] Memory required for data: 35014200
2016-07-30 09:51:23.258 STDERR [INFO] I0730 09:51:23.252110  1507 layer_factory.hpp:77] Creating layer conv2
2016-07-30 09:51:23.258 STDERR [INFO] I0730 09:51:23.252128  1507 net.cpp:91] Creating Layer conv2
2016-07-30 09:51:23.258 STDERR [INFO] I0730 09:51:23.252133  1507 net.cpp:425] conv2 <- norm1
2016-07-30 09:51:23.258 STDERR [INFO] I0730 09:51:23.252141  1507 net.cpp:399] conv2 -> conv2
2016-07-30 09:51:23.258 STDERR [INFO] I0730 09:51:23.256947  1507 net.cpp:141] Setting up conv2
2016-07-30 09:51:23.258 STDERR [INFO] I0730 09:51:23.256968  1507 net.cpp:148] Top shape: 10 256 27 27 (1866240)
2016-07-30 09:51:23.258 STDERR [INFO] I0730 09:51:23.256973  1507 net.cpp:156] Memory required for data: 42479160
2016-07-30 09:51:23.258 STDERR [INFO] I0730 09:51:23.256986  1507 layer_factory.hpp:77] Creating layer relu2
2016-07-30 09:51:23.258 STDERR [INFO] I0730 09:51:23.256995  1507 net.cpp:91] Creating Layer relu2
2016-07-30 09:51:23.259 STDERR [INFO] I0730 09:51:23.257001  1507 net.cpp:425] relu2 <- conv2
2016-07-30 09:51:23.259 STDERR [INFO] I0730 09:51:23.257012  1507 net.cpp:386] relu2 -> conv2 (in-place)
2016-07-30 09:51:23.259 STDERR [INFO] I0730 09:51:23.257813  1507 net.cpp:141] Setting up relu2
2016-07-30 09:51:23.259 STDERR [INFO] I0730 09:51:23.257828  1507 net.cpp:148] Top shape: 10 256 27 27 (1866240)
2016-07-30 09:51:23.259 STDERR [INFO] I0730 09:51:23.257834  1507 net.cpp:156] Memory required for data: 49944120
2016-07-30 09:51:23.259 STDERR [INFO] I0730 09:51:23.257839  1507 layer_factory.hpp:77] Creating layer pool2
2016-07-30 09:51:23.259 STDERR [INFO] I0730 09:51:23.257853  1507 net.cpp:91] Creating Layer pool2
2016-07-30 09:51:23.259 STDERR [INFO] I0730 09:51:23.257858  1507 net.cpp:425] pool2 <- conv2
2016-07-30 09:51:23.259 STDERR [INFO] I0730 09:51:23.257865  1507 net.cpp:399] pool2 -> pool2
2016-07-30 09:51:23.259 STDERR [INFO] I0730 09:51:23.257931  1507 net.cpp:141] Setting up pool2
2016-07-30 09:51:23.259 STDERR [INFO] I0730 09:51:23.257941  1507 net.cpp:148] Top shape: 10 256 13 13 (432640)
2016-07-30 09:51:23.259 STDERR [INFO] I0730 09:51:23.257946  1507 net.cpp:156] Memory required for data: 51674680
2016-07-30 09:51:23.259 STDERR [INFO] I0730 09:51:23.257951  1507 layer_factory.hpp:77] Creating layer norm2
2016-07-30 09:51:23.260 STDERR [INFO] I0730 09:51:23.257963  1507 net.cpp:91] Creating Layer norm2
2016-07-30 09:51:23.260 STDERR [INFO] I0730 09:51:23.257968  1507 net.cpp:425] norm2 <- pool2
2016-07-30 09:51:23.260 STDERR [INFO] I0730 09:51:23.257977  1507 net.cpp:399] norm2 -> norm2
2016-07-30 09:51:23.260 STDERR [INFO] I0730 09:51:23.258266  1507 net.cpp:141] Setting up norm2
2016-07-30 09:51:23.260 STDERR [INFO] I0730 09:51:23.258280  1507 net.cpp:148] Top shape: 10 256 13 13 (432640)
2016-07-30 09:51:23.260 STDERR [INFO] I0730 09:51:23.258285  1507 net.cpp:156] Memory required for data: 53405240
2016-07-30 09:51:23.260 STDERR [INFO] I0730 09:51:23.258291  1507 layer_factory.hpp:77] Creating layer conv3
2016-07-30 09:51:23.260 STDERR [INFO] I0730 09:51:23.258304  1507 net.cpp:91] Creating Layer conv3
2016-07-30 09:51:23.260 STDERR [INFO] I0730 09:51:23.258309  1507 net.cpp:425] conv3 <- norm2
2016-07-30 09:51:23.260 STDERR [INFO] I0730 09:51:23.258317  1507 net.cpp:399] conv3 -> conv3
2016-07-30 09:51:23.263 STDERR [INFO] I0730 09:51:23.263483  1507 net.cpp:141] Setting up conv3
2016-07-30 09:51:23.263 STDERR [INFO] I0730 09:51:23.263510  1507 net.cpp:148] Top shape: 10 384 13 13 (648960)
2016-07-30 09:51:23.264 STDERR [INFO] I0730 09:51:23.263516  1507 net.cpp:156] Memory required for data: 56001080
2016-07-30 09:51:23.264 STDERR [INFO] I0730 09:51:23.263531  1507 layer_factory.hpp:77] Creating layer relu3
2016-07-30 09:51:23.264 STDERR [INFO] I0730 09:51:23.263541  1507 net.cpp:91] Creating Layer relu3
2016-07-30 09:51:23.264 STDERR [INFO] I0730 09:51:23.263547  1507 net.cpp:425] relu3 <- conv3
2016-07-30 09:51:23.264 STDERR [INFO] I0730 09:51:23.263559  1507 net.cpp:386] relu3 -> conv3 (in-place)
2016-07-30 09:51:23.264 STDERR [INFO] I0730 09:51:23.264466  1496 net.cpp:141] Setting up lstm1_x_transform
2016-07-30 09:51:23.264 STDERR [INFO] I0730 09:51:23.264487  1496 net.cpp:148] Top shape: 1 1 4000 (4000)
2016-07-30 09:51:23.264 STDERR [INFO] I0730 09:51:23.264492  1496 net.cpp:156] Memory required for data: 26016
2016-07-30 09:51:23.264 STDERR [INFO] I0730 09:51:23.264505  1496 layer_factory.hpp:77] Creating layer lstm1_W_xc_x_slice
2016-07-30 09:51:23.265 STDERR [INFO] I0730 09:51:23.264518  1496 net.cpp:91] Creating Layer lstm1_W_xc_x_slice
2016-07-30 09:51:23.265 STDERR [INFO] I0730 09:51:23.264523  1496 net.cpp:425] lstm1_W_xc_x_slice <- W_xc_x
2016-07-30 09:51:23.265 STDERR [INFO] I0730 09:51:23.264528  1496 net.cpp:399] lstm1_W_xc_x_slice -> W_xc_x_1
2016-07-30 09:51:23.265 STDERR [INFO] I0730 09:51:23.264539  1507 net.cpp:141] Setting up relu3
2016-07-30 09:51:23.265 STDERR [INFO] I0730 09:51:23.264555  1507 net.cpp:148] Top shape: 10 384 13 13 (648960)
2016-07-30 09:51:23.265 STDERR [INFO] I0730 09:51:23.264560  1507 net.cpp:156] Memory required for data: 58596920
2016-07-30 09:51:23.265 STDERR [INFO] I0730 09:51:23.264566  1507 layer_factory.hpp:77] Creating layer conv4
2016-07-30 09:51:23.265 STDERR [INFO] I0730 09:51:23.264567  1496 net.cpp:141] Setting up lstm1_W_xc_x_slice
2016-07-30 09:51:23.265 STDERR [INFO] I0730 09:51:23.264576  1496 net.cpp:148] Top shape: 1 1 4000 (4000)
2016-07-30 09:51:23.265 STDERR [INFO] I0730 09:51:23.264580  1496 net.cpp:156] Memory required for data: 42016
2016-07-30 09:51:23.265 STDERR [INFO] I0730 09:51:23.264582  1507 net.cpp:91] Creating Layer conv4
2016-07-30 09:51:23.265 STDERR [INFO] I0730 09:51:23.264585  1496 layer_factory.hpp:77] Creating layer lstm1_h_conted_0
2016-07-30 09:51:23.265 STDERR [INFO] I0730 09:51:23.264591  1507 net.cpp:425] conv4 <- conv3
2016-07-30 09:51:23.266 STDERR [INFO] I0730 09:51:23.264598  1496 net.cpp:91] Creating Layer lstm1_h_conted_0
2016-07-30 09:51:23.266 STDERR [INFO] I0730 09:51:23.264602  1507 net.cpp:399] conv4 -> conv4
2016-07-30 09:51:23.266 STDERR [INFO] I0730 09:51:23.264605  1496 net.cpp:425] lstm1_h_conted_0 <- h_0
2016-07-30 09:51:23.266 STDERR [INFO] I0730 09:51:23.264621  1496 net.cpp:425] lstm1_h_conted_0 <- cont_1_lstm1_cont_slice_0_split_0
2016-07-30 09:51:23.266 STDERR [INFO] I0730 09:51:23.264627  1496 net.cpp:399] lstm1_h_conted_0 -> h_conted_0
2016-07-30 09:51:23.267 STDERR [INFO] I0730 09:51:23.266834  1496 net.cpp:141] Setting up lstm1_h_conted_0
2016-07-30 09:51:23.267 STDERR [INFO] I0730 09:51:23.266844  1496 net.cpp:148] Top shape: 1 1 1000 (1000)
2016-07-30 09:51:23.267 STDERR [INFO] I0730 09:51:23.266847  1496 net.cpp:156] Memory required for data: 46016
2016-07-30 09:51:23.267 STDERR [INFO] I0730 09:51:23.266852  1496 layer_factory.hpp:77] Creating layer lstm1_transform_1
2016-07-30 09:51:23.267 STDERR [INFO] I0730 09:51:23.266865  1496 net.cpp:91] Creating Layer lstm1_transform_1
2016-07-30 09:51:23.267 STDERR [INFO] I0730 09:51:23.266870  1496 net.cpp:425] lstm1_transform_1 <- h_conted_0
2016-07-30 09:51:23.267 STDERR [INFO] I0730 09:51:23.266877  1496 net.cpp:399] lstm1_transform_1 -> W_hc_h_0
2016-07-30 09:51:23.277 STDERR [INFO] I0730 09:51:23.277595  1507 net.cpp:141] Setting up conv4
2016-07-30 09:51:23.277 STDERR [INFO] I0730 09:51:23.277627  1507 net.cpp:148] Top shape: 10 384 13 13 (648960)
2016-07-30 09:51:23.278 STDERR [INFO] I0730 09:51:23.277633  1507 net.cpp:156] Memory required for data: 61192760
2016-07-30 09:51:23.278 STDERR [INFO] I0730 09:51:23.277645  1507 layer_factory.hpp:77] Creating layer relu4
2016-07-30 09:51:23.278 STDERR [INFO] I0730 09:51:23.277657  1507 net.cpp:91] Creating Layer relu4
2016-07-30 09:51:23.278 STDERR [INFO] I0730 09:51:23.277662  1507 net.cpp:425] relu4 <- conv4
2016-07-30 09:51:23.278 STDERR [INFO] I0730 09:51:23.277670  1507 net.cpp:386] relu4 -> conv4 (in-place)
2016-07-30 09:51:23.278 STDERR [INFO] I0730 09:51:23.278455  1507 net.cpp:141] Setting up relu4
2016-07-30 09:51:23.278 STDERR [INFO] I0730 09:51:23.278470  1507 net.cpp:148] Top shape: 10 384 13 13 (648960)
2016-07-30 09:51:23.278 STDERR [INFO] I0730 09:51:23.278475  1507 net.cpp:156] Memory required for data: 63788600
2016-07-30 09:51:23.278 STDERR [INFO] I0730 09:51:23.278481  1507 layer_factory.hpp:77] Creating layer conv5
2016-07-30 09:51:23.278 STDERR [INFO] I0730 09:51:23.278493  1507 net.cpp:91] Creating Layer conv5
2016-07-30 09:51:23.278 STDERR [INFO] I0730 09:51:23.278499  1507 net.cpp:425] conv5 <- conv4
2016-07-30 09:51:23.279 STDERR [INFO] I0730 09:51:23.278511  1507 net.cpp:399] conv5 -> conv5
2016-07-30 09:51:23.284 STDERR [INFO] I0730 09:51:23.284368  1507 net.cpp:141] Setting up conv5
2016-07-30 09:51:23.284 STDERR [INFO] I0730 09:51:23.284394  1507 net.cpp:148] Top shape: 10 256 13 13 (432640)
2016-07-30 09:51:23.284 STDERR [INFO] I0730 09:51:23.284399  1507 net.cpp:156] Memory required for data: 65519160
2016-07-30 09:51:23.284 STDERR [INFO] I0730 09:51:23.284415  1507 layer_factory.hpp:77] Creating layer relu5
2016-07-30 09:51:23.284 STDERR [INFO] I0730 09:51:23.284425  1507 net.cpp:91] Creating Layer relu5
2016-07-30 09:51:23.285 STDERR [INFO] I0730 09:51:23.284430  1507 net.cpp:425] relu5 <- conv5
2016-07-30 09:51:23.285 STDERR [INFO] I0730 09:51:23.284437  1507 net.cpp:386] relu5 -> conv5 (in-place)
2016-07-30 09:51:23.285 STDERR [INFO] I0730 09:51:23.285329  1507 net.cpp:141] Setting up relu5
2016-07-30 09:51:23.285 STDERR [INFO] I0730 09:51:23.285346  1507 net.cpp:148] Top shape: 10 256 13 13 (432640)
2016-07-30 09:51:23.285 STDERR [INFO] I0730 09:51:23.285351  1507 net.cpp:156] Memory required for data: 67249720
2016-07-30 09:51:23.285 STDERR [INFO] I0730 09:51:23.285356  1507 layer_factory.hpp:77] Creating layer pool5
2016-07-30 09:51:23.285 STDERR [INFO] I0730 09:51:23.285367  1507 net.cpp:91] Creating Layer pool5
2016-07-30 09:51:23.285 STDERR [INFO] I0730 09:51:23.285373  1507 net.cpp:425] pool5 <- conv5
2016-07-30 09:51:23.285 STDERR [INFO] I0730 09:51:23.285384  1507 net.cpp:399] pool5 -> pool5
2016-07-30 09:51:23.286 STDERR [INFO] I0730 09:51:23.285454  1507 net.cpp:141] Setting up pool5
2016-07-30 09:51:23.286 STDERR [INFO] I0730 09:51:23.285466  1507 net.cpp:148] Top shape: 10 256 6 6 (92160)
2016-07-30 09:51:23.286 STDERR [INFO] I0730 09:51:23.285475  1507 net.cpp:156] Memory required for data: 67618360
2016-07-30 09:51:23.286 STDERR [INFO] I0730 09:51:23.285485  1507 layer_factory.hpp:77] Creating layer fc6
2016-07-30 09:51:23.286 STDERR [INFO] I0730 09:51:23.285512  1507 net.cpp:91] Creating Layer fc6
2016-07-30 09:51:23.286 STDERR [INFO] I0730 09:51:23.285524  1507 net.cpp:425] fc6 <- pool5
2016-07-30 09:51:23.286 STDERR [INFO] I0730 09:51:23.285542  1507 net.cpp:399] fc6 -> fc6
2016-07-30 09:51:23.354 STDERR [INFO] I0730 09:51:23.354660  1496 net.cpp:141] Setting up lstm1_transform_1
2016-07-30 09:51:23.355 STDERR [INFO] I0730 09:51:23.354729  1496 net.cpp:148] Top shape: 1 1 4000 (4000)
2016-07-30 09:51:23.355 STDERR [INFO] I0730 09:51:23.354737  1496 net.cpp:156] Memory required for data: 62016
2016-07-30 09:51:23.355 STDERR [INFO] I0730 09:51:23.354756  1496 layer_factory.hpp:77] Creating layer lstm1_gate_input_1
2016-07-30 09:51:23.355 STDERR [INFO] I0730 09:51:23.354779  1496 net.cpp:91] Creating Layer lstm1_gate_input_1
2016-07-30 09:51:23.355 STDERR [INFO] I0730 09:51:23.354786  1496 net.cpp:425] lstm1_gate_input_1 <- W_hc_h_0
2016-07-30 09:51:23.355 STDERR [INFO] I0730 09:51:23.354794  1496 net.cpp:425] lstm1_gate_input_1 <- W_xc_x_1
2016-07-30 09:51:23.355 STDERR [INFO] I0730 09:51:23.354802  1496 net.cpp:399] lstm1_gate_input_1 -> gate_input_1
2016-07-30 09:51:23.356 STDERR [INFO] I0730 09:51:23.354861  1496 net.cpp:141] Setting up lstm1_gate_input_1
2016-07-30 09:51:23.356 STDERR [INFO] I0730 09:51:23.354869  1496 net.cpp:148] Top shape: 1 1 4000 (4000)
2016-07-30 09:51:23.356 STDERR [INFO] I0730 09:51:23.354873  1496 net.cpp:156] Memory required for data: 78016
2016-07-30 09:51:23.356 STDERR [INFO] I0730 09:51:23.354877  1496 layer_factory.hpp:77] Creating layer lstm1_unit_1
2016-07-30 09:51:23.356 STDERR [INFO] I0730 09:51:23.354889  1496 net.cpp:91] Creating Layer lstm1_unit_1
2016-07-30 09:51:23.356 STDERR [INFO] I0730 09:51:23.354893  1496 net.cpp:425] lstm1_unit_1 <- c_0
2016-07-30 09:51:23.356 STDERR [INFO] I0730 09:51:23.354899  1496 net.cpp:425] lstm1_unit_1 <- gate_input_1
2016-07-30 09:51:23.356 STDERR [INFO] I0730 09:51:23.354904  1496 net.cpp:425] lstm1_unit_1 <- cont_1_lstm1_cont_slice_0_split_1
2016-07-30 09:51:23.356 STDERR [INFO] I0730 09:51:23.354910  1496 net.cpp:399] lstm1_unit_1 -> c_1
2016-07-30 09:51:23.356 STDERR [INFO] I0730 09:51:23.354918  1496 net.cpp:399] lstm1_unit_1 -> h_1
2016-07-30 09:51:23.356 STDERR [INFO] I0730 09:51:23.354977  1496 net.cpp:141] Setting up lstm1_unit_1
2016-07-30 09:51:23.357 STDERR [INFO] I0730 09:51:23.354985  1496 net.cpp:148] Top shape: 1 1 1000 (1000)
2016-07-30 09:51:23.357 STDERR [INFO] I0730 09:51:23.354990  1496 net.cpp:148] Top shape: 1 1 1000 (1000)
2016-07-30 09:51:23.357 STDERR [INFO] I0730 09:51:23.354995  1496 net.cpp:156] Memory required for data: 86016
2016-07-30 09:51:23.357 STDERR [INFO] I0730 09:51:23.354998  1496 layer_factory.hpp:77] Creating layer lstm1_
2016-07-30 09:51:23.357 STDERR [INFO] I0730 09:51:23.355007  1496 net.cpp:91] Creating Layer lstm1_
2016-07-30 09:51:23.357 STDERR [INFO] I0730 09:51:23.355011  1496 net.cpp:425] lstm1_ <- c_1
2016-07-30 09:51:23.357 STDERR [INFO] I0730 09:51:23.355020  1496 net.cpp:399] lstm1_ -> c_T
2016-07-30 09:51:23.357 STDERR [INFO] I0730 09:51:23.355048  1496 net.cpp:141] Setting up lstm1_
2016-07-30 09:51:23.357 STDERR [INFO] I0730 09:51:23.355056  1496 net.cpp:148] Top shape: 1 1 1000 (1000)
2016-07-30 09:51:23.357 STDERR [INFO] I0730 09:51:23.355059  1496 net.cpp:156] Memory required for data: 90016
2016-07-30 09:51:23.357 STDERR [INFO] I0730 09:51:23.355063  1496 layer_factory.hpp:77] Creating layer lstm1_h_concat
2016-07-30 09:51:23.357 STDERR [INFO] I0730 09:51:23.355082  1496 net.cpp:91] Creating Layer lstm1_h_concat
2016-07-30 09:51:23.357 STDERR [INFO] I0730 09:51:23.355087  1496 net.cpp:425] lstm1_h_concat <- h_1
2016-07-30 09:51:23.358 STDERR [INFO] I0730 09:51:23.355093  1496 net.cpp:399] lstm1_h_concat -> h
2016-07-30 09:51:23.358 STDERR [INFO] I0730 09:51:23.355129  1496 net.cpp:141] Setting up lstm1_h_concat
2016-07-30 09:51:23.358 STDERR [INFO] I0730 09:51:23.355137  1496 net.cpp:148] Top shape: 1 1 1000 (1000)
2016-07-30 09:51:23.358 STDERR [INFO] I0730 09:51:23.355140  1496 net.cpp:156] Memory required for data: 94016
2016-07-30 09:51:23.358 STDERR [INFO] I0730 09:51:23.355145  1496 layer_factory.hpp:77] Creating layer h_pseudoloss
2016-07-30 09:51:23.358 STDERR [INFO] I0730 09:51:23.355159  1496 net.cpp:91] Creating Layer h_pseudoloss
2016-07-30 09:51:23.358 STDERR [INFO] I0730 09:51:23.355164  1496 net.cpp:425] h_pseudoloss <- h
…
2016-07-30 09:51:23.376 STDERR [INFO] }
2016-07-30 09:51:23.376 STDERR [INFO] I0730 09:51:23.356009  1496 layer_factory.hpp:77] Creating layer lstm2_
2016-07-30 09:51:23.377 STDERR [INFO] I0730 09:51:23.356020  1496 net.cpp:91] Creating Layer lstm2_
2016-07-30 09:51:23.377 STDERR [INFO] I0730 09:51:23.356026  1496 net.cpp:399] lstm2_ -> x
2016-07-30 09:51:23.377 STDERR [INFO] I0730 09:51:23.356036  1496 net.cpp:399] lstm2_ -> cont
2016-07-30 09:51:23.377 STDERR [INFO] I0730 09:51:23.356086  1496 net.cpp:141] Setting up lstm2_
2016-07-30 09:51:23.377 STDERR [INFO] I0730 09:51:23.356093  1496 net.cpp:148] Top shape: 1 1 1501 (1501)
2016-07-30 09:51:23.377 STDERR [INFO] I0730 09:51:23.356098  1496 net.cpp:148] Top shape: 1 1 (1)
2016-07-30 09:51:23.377 STDERR [INFO] I0730 09:51:23.356102  1496 net.cpp:156] Memory required for data: 6008
2016-07-30 09:51:23.377 STDERR [INFO] I0730 09:51:23.356107  1496 layer_factory.hpp:77] Creating layer lstm2_
2016-07-30 09:51:23.378 STDERR [INFO] I0730 09:51:23.356117  1496 net.cpp:91] Creating Layer lstm2_
2016-07-30 09:51:23.378 STDERR [INFO] I0730 09:51:23.356123  1496 net.cpp:399] lstm2_ -> c_0
2016-07-30 09:51:23.378 STDERR [INFO] I0730 09:51:23.356132  1496 net.cpp:399] lstm2_ -> h_0
2016-07-30 09:51:23.378 STDERR [INFO] I0730 09:51:23.356178  1496 net.cpp:141] Setting up lstm2_
2016-07-30 09:51:23.378 STDERR [INFO] I0730 09:51:23.356185  1496 net.cpp:148] Top shape: 1 1 1000 (1000)
2016-07-30 09:51:23.378 STDERR [INFO] I0730 09:51:23.356190  1496 net.cpp:148] Top shape: 1 1 1000 (1000)
2016-07-30 09:51:23.379 STDERR [INFO] I0730 09:51:23.356194  1496 net.cpp:156] Memory required for data: 14008
2016-07-30 09:51:23.379 STDERR [INFO] I0730 09:51:23.356199  1496 layer_factory.hpp:77] Creating layer lstm2_cont_slice
2016-07-30 09:51:23.379 STDERR [INFO] I0730 09:51:23.356206  1496 net.cpp:91] Creating Layer lstm2_cont_slice
2016-07-30 09:51:23.379 STDERR [INFO] I0730 09:51:23.356210  1496 net.cpp:425] lstm2_cont_slice <- cont
2016-07-30 09:51:23.379 STDERR [INFO] I0730 09:51:23.356216  1496 net.cpp:399] lstm2_cont_slice -> cont_1
2016-07-30 09:51:23.379 STDERR [INFO] I0730 09:51:23.356246  1496 net.cpp:141] Setting up lstm2_cont_slice
2016-07-30 09:51:23.379 STDERR [INFO] I0730 09:51:23.356254  1496 net.cpp:148] Top shape: 1 1 (1)
2016-07-30 09:51:23.379 STDERR [INFO] I0730 09:51:23.356258  1496 net.cpp:156] Memory required for data: 14012
2016-07-30 09:51:23.379 STDERR [INFO] I0730 09:51:23.356262  1496 layer_factory.hpp:77] Creating layer cont_1_lstm2_cont_slice_0_split
2016-07-30 09:51:23.379 STDERR [INFO] I0730 09:51:23.356271  1496 net.cpp:91] Creating Layer cont_1_lstm2_cont_slice_0_split
2016-07-30 09:51:23.379 STDERR [INFO] I0730 09:51:23.356276  1496 net.cpp:425] cont_1_lstm2_cont_slice_0_split <- cont_1
2016-07-30 09:51:23.379 STDERR [INFO] I0730 09:51:23.356281  1496 net.cpp:399] cont_1_lstm2_cont_slice_0_split -> cont_1_lstm2_cont_slice_0_split_0
2016-07-30 09:51:23.380 STDERR [INFO] I0730 09:51:23.356290  1496 net.cpp:399] cont_1_lstm2_cont_slice_0_split -> cont_1_lstm2_cont_slice_0_split_1
2016-07-30 09:51:23.380 STDERR [INFO] I0730 09:51:23.356331  1496 net.cpp:141] Setting up cont_1_lstm2_cont_slice_0_split
2016-07-30 09:51:23.380 STDERR [INFO] I0730 09:51:23.356339  1496 net.cpp:148] Top shape: 1 1 (1)
2016-07-30 09:51:23.380 STDERR [INFO] I0730 09:51:23.356344  1496 net.cpp:148] Top shape: 1 1 (1)
2016-07-30 09:51:23.380 STDERR [INFO] I0730 09:51:23.356348  1496 net.cpp:156] Memory required for data: 14020
2016-07-30 09:51:23.380 STDERR [INFO] I0730 09:51:23.356351  1496 layer_factory.hpp:77] Creating layer lstm2_x_transform
2016-07-30 09:51:23.380 STDERR [INFO] I0730 09:51:23.356364  1496 net.cpp:91] Creating Layer lstm2_x_transform
2016-07-30 09:51:23.380 STDERR [INFO] I0730 09:51:23.356367  1496 net.cpp:425] lstm2_x_transform <- x
2016-07-30 09:51:23.380 STDERR [INFO] I0730 09:51:23.356376  1496 net.cpp:399] lstm2_x_transform -> W_xc_x
2016-07-30 09:51:23.395 STDERR [INFO] I0730 09:51:23.395263  1507 net.cpp:141] Setting up fc6
2016-07-30 09:51:23.395 STDERR [INFO] I0730 09:51:23.395319  1507 net.cpp:148] Top shape: 10 4096 (40960)
2016-07-30 09:51:23.395 STDERR [INFO] I0730 09:51:23.395326  1507 net.cpp:156] Memory required for data: 67782200
2016-07-30 09:51:23.396 STDERR [INFO] I0730 09:51:23.395344  1507 layer_factory.hpp:77] Creating layer relu6
2016-07-30 09:51:23.396 STDERR [INFO] I0730 09:51:23.395361  1507 net.cpp:91] Creating Layer relu6
2016-07-30 09:51:23.396 STDERR [INFO] I0730 09:51:23.395368  1507 net.cpp:425] relu6 <- fc6
2016-07-30 09:51:23.396 STDERR [INFO] I0730 09:51:23.395383  1507 net.cpp:386] relu6 -> fc6 (in-place)
2016-07-30 09:51:23.396 STDERR [INFO] I0730 09:51:23.395747  1507 net.cpp:141] Setting up relu6
2016-07-30 09:51:23.396 STDERR [INFO] I0730 09:51:23.395759  1507 net.cpp:148] Top shape: 10 4096 (40960)
2016-07-30 09:51:23.396 STDERR [INFO] I0730 09:51:23.395766  1507 net.cpp:156] Memory required for data: 67946040
2016-07-30 09:51:23.396 STDERR [INFO] I0730 09:51:23.395771  1507 layer_factory.hpp:77] Creating layer drop6
2016-07-30 09:51:23.396 STDERR [INFO] I0730 09:51:23.395781  1507 net.cpp:91] Creating Layer drop6
2016-07-30 09:51:23.396 STDERR [INFO] I0730 09:51:23.395787  1507 net.cpp:425] drop6 <- fc6
2016-07-30 09:51:23.397 STDERR [INFO] I0730 09:51:23.395793  1507 net.cpp:386] drop6 -> fc6 (in-place)
2016-07-30 09:51:23.397 STDERR [INFO] I0730 09:51:23.395851  1507 net.cpp:141] Setting up drop6
2016-07-30 09:51:23.397 STDERR [INFO] I0730 09:51:23.395861  1507 net.cpp:148] Top shape: 10 4096 (40960)
2016-07-30 09:51:23.397 STDERR [INFO] I0730 09:51:23.395866  1507 net.cpp:156] Memory required for data: 68109880
2016-07-30 09:51:23.397 STDERR [INFO] I0730 09:51:23.395871  1507 layer_factory.hpp:77] Creating layer fc7
2016-07-30 09:51:23.397 STDERR [INFO] I0730 09:51:23.395884  1507 net.cpp:91] Creating Layer fc7
2016-07-30 09:51:23.397 STDERR [INFO] I0730 09:51:23.395890  1507 net.cpp:425] fc7 <- fc6
2016-07-30 09:51:23.397 STDERR [INFO] I0730 09:51:23.395897  1507 net.cpp:399] fc7 -> fc7
2016-07-30 09:51:23.428 STDERR [INFO] I0730 09:51:23.428463  1496 net.cpp:141] Setting up lstm2_x_transform
2016-07-30 09:51:23.429 STDERR [INFO] I0730 09:51:23.428510  1496 net.cpp:148] Top shape: 1 1 4000 (4000)
2016-07-30 09:51:23.429 STDERR [INFO] I0730 09:51:23.428516  1496 net.cpp:156] Memory required for data: 30020
2016-07-30 09:51:23.429 STDERR [INFO] I0730 09:51:23.428541  1496 layer_factory.hpp:77] Creating layer lstm2_W_xc_x_slice
2016-07-30 09:51:23.429 STDERR [INFO] I0730 09:51:23.428558  1496 net.cpp:91] Creating Layer lstm2_W_xc_x_slice
2016-07-30 09:51:23.429 STDERR [INFO] I0730 09:51:23.428565  1496 net.cpp:425] lstm2_W_xc_x_slice <- W_xc_x
2016-07-30 09:51:23.429 STDERR [INFO] I0730 09:51:23.428573  1496 net.cpp:399] lstm2_W_xc_x_slice -> W_xc_x_1
2016-07-30 09:51:23.429 STDERR [INFO] I0730 09:51:23.428616  1496 net.cpp:141] Setting up lstm2_W_xc_x_slice
2016-07-30 09:51:23.429 STDERR [INFO] I0730 09:51:23.428624  1496 net.cpp:148] Top shape: 1 1 4000 (4000)
2016-07-30 09:51:23.429 STDERR [INFO] I0730 09:51:23.428628  1496 net.cpp:156] Memory required for data: 46020
2016-07-30 09:51:23.429 STDERR [INFO] I0730 09:51:23.428632  1496 layer_factory.hpp:77] Creating layer lstm2_h_conted_0
2016-07-30 09:51:23.429 STDERR [INFO] I0730 09:51:23.428645  1496 net.cpp:91] Creating Layer lstm2_h_conted_0
2016-07-30 09:51:23.429 STDERR [INFO] I0730 09:51:23.428650  1496 net.cpp:425] lstm2_h_conted_0 <- h_0
2016-07-30 09:51:23.429 STDERR [INFO] I0730 09:51:23.428656  1496 net.cpp:425] lstm2_h_conted_0 <- cont_1_lstm2_cont_slice_0_split_0
2016-07-30 09:51:23.430 STDERR [INFO] I0730 09:51:23.428663  1496 net.cpp:399] lstm2_h_conted_0 -> h_conted_0
2016-07-30 09:51:23.430 STDERR [INFO] I0730 09:51:23.428755  1496 net.cpp:141] Setting up lstm2_h_conted_0
2016-07-30 09:51:23.430 STDERR [INFO] I0730 09:51:23.428764  1496 net.cpp:148] Top shape: 1 1 1000 (1000)
2016-07-30 09:51:23.430 STDERR [INFO] I0730 09:51:23.428768  1496 net.cpp:156] Memory required for data: 50020
2016-07-30 09:51:23.430 STDERR [INFO] I0730 09:51:23.428772  1496 layer_factory.hpp:77] Creating layer lstm2_transform_1
2016-07-30 09:51:23.430 STDERR [INFO] I0730 09:51:23.428786  1496 net.cpp:91] Creating Layer lstm2_transform_1
2016-07-30 09:51:23.430 STDERR [INFO] I0730 09:51:23.428789  1496 net.cpp:425] lstm2_transform_1 <- h_conted_0
2016-07-30 09:51:23.430 STDERR [INFO] I0730 09:51:23.428797  1496 net.cpp:399] lstm2_transform_1 -> W_hc_h_0
2016-07-30 09:51:23.446 STDERR [INFO] I0730 09:51:23.446571  1507 net.cpp:141] Setting up fc7
2016-07-30 09:51:23.447 STDERR [INFO] I0730 09:51:23.446632  1507 net.cpp:148] Top shape: 10 4096 (40960)
2016-07-30 09:51:23.447 STDERR [INFO] I0730 09:51:23.446640  1507 net.cpp:156] Memory required for data: 68273720
2016-07-30 09:51:23.447 STDERR [INFO] I0730 09:51:23.446656  1507 layer_factory.hpp:77] Creating layer relu7
2016-07-30 09:51:23.447 STDERR [INFO] I0730 09:51:23.446673  1507 net.cpp:91] Creating Layer relu7
2016-07-30 09:51:23.447 STDERR [INFO] I0730 09:51:23.446681  1507 net.cpp:425] relu7 <- fc7
2016-07-30 09:51:23.447 STDERR [INFO] I0730 09:51:23.446707  1507 net.cpp:386] relu7 -> fc7 (in-place)
2016-07-30 09:51:23.448 STDERR [INFO] I0730 09:51:23.448415  1507 net.cpp:141] Setting up relu7
2016-07-30 09:51:23.448 STDERR [INFO] I0730 09:51:23.448434  1507 net.cpp:148] Top shape: 10 4096 (40960)
2016-07-30 09:51:23.448 STDERR [INFO] I0730 09:51:23.448441  1507 net.cpp:156] Memory required for data: 68437560
2016-07-30 09:51:23.448 STDERR [INFO] I0730 09:51:23.448446  1507 layer_factory.hpp:77] Creating layer drop7
2016-07-30 09:51:23.449 STDERR [INFO] I0730 09:51:23.448457  1507 net.cpp:91] Creating Layer drop7
2016-07-30 09:51:23.449 STDERR [INFO] I0730 09:51:23.448462  1507 net.cpp:425] drop7 <- fc7
2016-07-30 09:51:23.449 STDERR [INFO] I0730 09:51:23.448472  1507 net.cpp:386] drop7 -> fc7 (in-place)
2016-07-30 09:51:23.449 STDERR [INFO] I0730 09:51:23.448516  1507 net.cpp:141] Setting up drop7
2016-07-30 09:51:23.449 STDERR [INFO] I0730 09:51:23.448525  1507 net.cpp:148] Top shape: 10 4096 (40960)
2016-07-30 09:51:23.449 STDERR [INFO] I0730 09:51:23.448530  1507 net.cpp:156] Memory required for data: 68601400
2016-07-30 09:51:23.449 STDERR [INFO] I0730 09:51:23.448535  1507 layer_factory.hpp:77] Creating layer fc8
2016-07-30 09:51:23.449 STDERR [INFO] I0730 09:51:23.448551  1507 net.cpp:91] Creating Layer fc8
2016-07-30 09:51:23.449 STDERR [INFO] I0730 09:51:23.448557  1507 net.cpp:425] fc8 <- fc7
2016-07-30 09:51:23.449 STDERR [INFO] I0730 09:51:23.448565  1507 net.cpp:399] fc8 -> fc8
2016-07-30 09:51:23.461 STDERR [INFO] I0730 09:51:23.461604  1507 net.cpp:141] Setting up fc8
2016-07-30 09:51:23.462 STDERR [INFO] I0730 09:51:23.461658  1507 net.cpp:148] Top shape: 10 1000 (10000)
2016-07-30 09:51:23.462 STDERR [INFO] I0730 09:51:23.461663  1507 net.cpp:156] Memory required for data: 68641400
2016-07-30 09:51:23.462 STDERR [INFO] I0730 09:51:23.461680  1507 layer_factory.hpp:77] Creating layer prob
2016-07-30 09:51:23.462 STDERR [INFO] I0730 09:51:23.461699  1507 net.cpp:91] Creating Layer prob
2016-07-30 09:51:23.462 STDERR [INFO] I0730 09:51:23.461705  1507 net.cpp:425] prob <- fc8
2016-07-30 09:51:23.462 STDERR [INFO] I0730 09:51:23.461725  1507 net.cpp:399] prob -> prob
2016-07-30 09:51:23.463 STDERR [INFO] I0730 09:51:23.462194  1507 net.cpp:141] Setting up prob
2016-07-30 09:51:23.463 STDERR [INFO] I0730 09:51:23.462209  1507 net.cpp:148] Top shape: 10 1000 (10000)
2016-07-30 09:51:23.463 STDERR [INFO] I0730 09:51:23.462214  1507 net.cpp:156] Memory required for data: 68681400
2016-07-30 09:51:23.463 STDERR [INFO] I0730 09:51:23.462219  1507 net.cpp:219] prob does not need backward computation.
2016-07-30 09:51:23.463 STDERR [INFO] I0730 09:51:23.462225  1507 net.cpp:219] fc8 does not need backward computation.
2016-07-30 09:51:23.463 STDERR [INFO] I0730 09:51:23.462229  1507 net.cpp:219] drop7 does not need backward computation.
…
2016-07-30 09:51:23.465 STDERR [INFO] I0730 09:51:23.462321  1507 net.cpp:219] conv1 does not need backward computation.
2016-07-30 09:51:23.465 STDERR [INFO] I0730 09:51:23.462326  1507 net.cpp:219] data does not need backward computation.
2016-07-30 09:51:23.465 STDERR [INFO] I0730 09:51:23.462329  1507 net.cpp:261] This network produces output prob
2016-07-30 09:51:23.465 STDERR [INFO] I0730 09:51:23.462349  1507 net.cpp:274] Network initialization done.
2016-07-30 09:51:23.465 STDERR [INFO] I0730 09:51:23.464402  1496 net.cpp:141] Setting up lstm2_transform_1
2016-07-30 09:51:23.465 STDERR [INFO] I0730 09:51:23.464439  1496 net.cpp:148] Top shape: 1 1 4000 (4000)
2016-07-30 09:51:23.465 STDERR [INFO] I0730 09:51:23.464444  1496 net.cpp:156] Memory required for data: 66020
2016-07-30 09:51:23.465 STDERR [INFO] I0730 09:51:23.464460  1496 layer_factory.hpp:77] Creating layer lstm2_gate_input_1
2016-07-30 09:51:23.465 STDERR [INFO] I0730 09:51:23.464478  1496 net.cpp:91] Creating Layer lstm2_gate_input_1
2016-07-30 09:51:23.466 STDERR [INFO] I0730 09:51:23.464485  1496 net.cpp:425] lstm2_gate_input_1 <- W_hc_h_0
2016-07-30 09:51:23.466 STDERR [INFO] I0730 09:51:23.464493  1496 net.cpp:425] lstm2_gate_input_1 <- W_xc_x_1
2016-07-30 09:51:23.466 STDERR [INFO] I0730 09:51:23.464499  1496 net.cpp:399] lstm2_gate_input_1 -> gate_input_1
2016-07-30 09:51:23.466 STDERR [INFO] I0730 09:51:23.464543  1496 net.cpp:141] Setting up lstm2_gate_input_1
2016-07-30 09:51:23.466 STDERR [INFO] I0730 09:51:23.464550  1496 net.cpp:148] Top shape: 1 1 4000 (4000)
2016-07-30 09:51:23.466 STDERR [INFO] I0730 09:51:23.464555  1496 net.cpp:156] Memory required for data: 82020
2016-07-30 09:51:23.466 STDERR [INFO] I0730 09:51:23.464558  1496 layer_factory.hpp:77] Creating layer lstm2_unit_1
2016-07-30 09:51:23.466 STDERR [INFO] I0730 09:51:23.464570  1496 net.cpp:91] Creating Layer lstm2_unit_1
2016-07-30 09:51:23.466 STDERR [INFO] I0730 09:51:23.464573  1496 net.cpp:425] lstm2_unit_1 <- c_0
2016-07-30 09:51:23.466 STDERR [INFO] I0730 09:51:23.464579  1496 net.cpp:425] lstm2_unit_1 <- gate_input_1
2016-07-30 09:51:23.466 STDERR [INFO] I0730 09:51:23.464583  1496 net.cpp:425] lstm2_unit_1 <- cont_1_lstm2_cont_slice_0_split_1
2016-07-30 09:51:23.466 STDERR [INFO] I0730 09:51:23.464589  1496 net.cpp:399] lstm2_unit_1 -> c_1
2016-07-30 09:51:23.467 STDERR [INFO] I0730 09:51:23.464596  1496 net.cpp:399] lstm2_unit_1 -> h_1
2016-07-30 09:51:23.467 STDERR [INFO] I0730 09:51:23.464653  1496 net.cpp:141] Setting up lstm2_unit_1
2016-07-30 09:51:23.467 STDERR [INFO] I0730 09:51:23.464660  1496 net.cpp:148] Top shape: 1 1 1000 (1000)
2016-07-30 09:51:23.467 STDERR [INFO] I0730 09:51:23.464665  1496 net.cpp:148] Top shape: 1 1 1000 (1000)
2016-07-30 09:51:23.467 STDERR [INFO] I0730 09:51:23.464669  1496 net.cpp:156] Memory required for data: 90020
2016-07-30 09:51:23.467 STDERR [INFO] I0730 09:51:23.464673  1496 layer_factory.hpp:77] Creating layer lstm2_
2016-07-30 09:51:23.467 STDERR [INFO] I0730 09:51:23.464681  1496 net.cpp:91] Creating Layer lstm2_
2016-07-30 09:51:23.467 STDERR [INFO] I0730 09:51:23.464685  1496 net.cpp:425] lstm2_ <- c_1
2016-07-30 09:51:23.467 STDERR [INFO] I0730 09:51:23.464694  1496 net.cpp:399] lstm2_ -> c_T
2016-07-30 09:51:23.467 STDERR [INFO] I0730 09:51:23.464721  1496 net.cpp:141] Setting up lstm2_
2016-07-30 09:51:23.467 STDERR [INFO] I0730 09:51:23.464728  1496 net.cpp:148] Top shape: 1 1 1000 (1000)
2016-07-30 09:51:23.467 STDERR [INFO] I0730 09:51:23.464732  1496 net.cpp:156] Memory required for data: 94020
2016-07-30 09:51:23.468 STDERR [INFO] I0730 09:51:23.464736  1496 layer_factory.hpp:77] Creating layer lstm2_h_concat
2016-07-30 09:51:23.468 STDERR [INFO] I0730 09:51:23.464745  1496 net.cpp:91] Creating Layer lstm2_h_concat
2016-07-30 09:51:23.468 STDERR [INFO] I0730 09:51:23.464748  1496 net.cpp:425] lstm2_h_concat <- h_1
2016-07-30 09:51:23.468 STDERR [INFO] I0730 09:51:23.464757  1496 net.cpp:399] lstm2_h_concat -> h
2016-07-30 09:51:23.468 STDERR [INFO] I0730 09:51:23.464789  1496 net.cpp:141] Setting up lstm2_h_concat
2016-07-30 09:51:23.468 STDERR [INFO] I0730 09:51:23.464797  1496 net.cpp:148] Top shape: 1 1 1000 (1000)
2016-07-30 09:51:23.468 STDERR [INFO] I0730 09:51:23.464800  1496 net.cpp:156] Memory required for data: 98020
2016-07-30 09:51:23.468 STDERR [INFO] I0730 09:51:23.464804  1496 layer_factory.hpp:77] Creating layer h_pseudoloss
2016-07-30 09:51:23.468 STDERR [INFO] I0730 09:51:23.464813  1496 net.cpp:91] Creating Layer h_pseudoloss
2016-07-30 09:51:23.468 STDERR [INFO] I0730 09:51:23.464818  1496 net.cpp:425] h_pseudoloss <- h
…
