…
W0922 22:37:33.629446 32478 upgrade_proto.cpp:71] Note that future Caffe releases will only support input layers and not input fields.
I0922 22:37:33.629571 32462 net.cpp:49] Initializing net from parameters: 
name: "s2vt:features_to_lstm"
state {
  phase: TEST
}
layer {
  name: "input"
  type: "Input"
  top: "frames_fc7"
  top: "cont_sentence"
  top: "input_sentence"
  top: "stage_indicator"
  input_param {
    shape {
      dim: 1
      dim: 4096
    }
    shape {
      dim: 1
      dim: 1
    }
    shape {
      dim: 1
      dim: 1
    }
    shape {
      dim: 1
      dim: 1
    }
  }
}
layer {
  name: "embed_encoder"
  type: "InnerProduct"
  bottom: "frames_fc7"
  top: "embedded_in_frames"
  param {
    lr_mult: 1
    decay_mult: 1
  }
  param {
    lr_mult: 2
    decay_mult: 0
  }
  inner_product_param {
    num_output: 500
    weight_filler {
      type: "xavier"
    }
    bias_filler {
      type: "constant"
      value: 0.2
    }
  }
}
layer {
  name: "reshape_frames"
  type: "Reshape"
  bottom: "embedded_in_frames"
  top: "embedded_input_frames"
  reshape_param {
    shape {
      dim: 1
      dim: 1
      dim: 500
    }
  }
}
layer {
  name: "reshape_stage_indicator"
  type: "Reshape"
  bottom: "stage_indicator"
  top: "reshaped_stage_indicator"
  reshape_param {
    shape {
      dim: 1
      dim: 1
      dim: 1
    }
  }
}
layer {
  name: "embedding"
  type: "Embed"
  bottom: "input_sentence"
  top: "embedded_input_sentence"
  param {
    lr_mult: 1
  }
  embed_param {
    num_output: 500
    input_dim: 46168
    bias_term: false
    weight_filler {
      type: "uniform"
      min: -0.08
      max: 0.08
    }
  }
}
layer {
  name: "lstm1"
  type: "LSTM"
  bottom: "embedded_input_frames"
  bottom: "cont_sentence"
  top: "lstm1"
  recurrent_param {
    num_output: 1000
    weight_filler {
      type: "uniform"
      min: -0.08
      max: 0.08
    }
    bias_filler {
      type: "constant"
      value: 0
    }
  }
}
layer {
  name: "concat"
  type: "Concat"
  bottom: "lstm1"
  bottom: "embedded_input_sentence"
  bottom: "reshaped_stage_indicator"
  top: "lstm1_video_sequence"
  concat_param {
    concat_dim: 2
  }
}
layer {
  name: "lstm2"
  type: "LSTM"
  bottom: "lstm1_video_sequence"
  bottom: "cont_sentence"
  top: "lstm2"
  recurrent_param {
    num_output: 1000
    weight_filler {
      type: "uniform"
      min: -0.08
      max: 0.08
    }
    bias_filler {
      type: "constant"
      value: 0
    }
  }
}
layer {
  name: "predict"
  type: "InnerProduct"
  bottom: "lstm2"
  top: "predict"
  param {
    lr_mult: 1
    decay_mult: 1
  }
  param {
    lr_mult: 2
    decay_mult: 0
  }
  inner_product_param {
    num_output: 46168
    weight_filler {
      type: "uniform"
      min: -0.08
      max: 0.08
    }
    bias_filler {
      type: "constant"
      value: 0
    }
    axis: 2
  }
}
layer {
  name: "probs"
  type: "Softmax"
  bottom: "predict"
  top: "probs"
  softmax_param {
    axis: 2
  }
}
I0922 22:37:33.629565 32456 net.cpp:49] Initializing net from parameters: 
name: "CaffeNet"
state {
  phase: TEST
}
layer {
  name: "data"
  type: "Input"
  top: "data"
  input_param {
    shape {
      dim: 10
      dim: 3
      dim: 227
      dim: 227
    }
  }
}
layer {
  name: "conv1"
  type: "Convolution"
  bottom: "data"
  top: "conv1"
  convolution_param {
    num_output: 96
    kernel_size: 11
    stride: 4
  }
}
layer {
  name: "relu1"
  type: "ReLU"
  bottom: "conv1"
  top: "conv1"
}
layer {
  name: "pool1"
  type: "Pooling"
  bottom: "conv1"
  top: "pool1"
  pooling_param {
    pool: MAX
    kernel_size: 3
    stride: 2
  }
}
layer {
  name: "norm1"
  type: "LRN"
  bottom: "pool1"
  top: "norm1"
  lrn_param {
    local_size: 5
    alpha: 0.0001
    beta: 0.75
  }
}
layer {
  name: "conv2"
  type: "Convolution"
  bottom: "norm1"
  top: "conv2"
  convolution_param {
    num_output: 256
    pad: 2
    kernel_size: 5
    group: 2
  }
}
layer {
  name: "relu2"
  type: "ReLU"
  bottom: "conv2"
  top: "conv2"
}
layer {
  name: "pool2"
  type: "Pooling"
  bottom: "conv2"
  top: "pool2"
  pooling_param {
    pool: MAX
    kernel_size: 3
    stride: 2
  }
}
layer {
  name: "norm2"
  type: "LRN"
  bottom: "pool2"
  top: "norm2"
  lrn_param {
    local_size: 5
    alpha: 0.0001
    beta: 0.75
  }
}
layer {
  name: "conv3"
  type: "Convolution"
  bottom: "norm2"
  top: "conv3"
  convolution_param {
    num_output: 384
    pad: 1
    kernel_size: 3
  }
}
layer {
  name: "relu3"
  type: "ReLU"
  bottom: "conv3"
  top: "conv3"
}
layer {
  name: "conv4"
  type: "Convolution"
  bottom: "conv3"
  top: "conv4"
  convolution_param {
    num_output: 384
    pad: 1
    kernel_size: 3
    group: 2
  }
}
layer {
  name: "relu4"
  type: "ReLU"
  bottom: "conv4"
  top: "conv4"
}
layer {
  name: "conv5"
  type: "Convolution"
  bottom: "conv4"
  top: "conv5"
  convolution_param {
    num_output: 256
    pad: 1
    kernel_size: 3
    group: 2
  }
}
layer {
  name: "relu5"
  type: "ReLU"
  bottom: "conv5"
  top: "conv5"
}
layer {
  name: "pool5"
  type: "Pooling"
  bottom: "conv5"
  top: "pool5"
  pooling_param {
    pool: MAX
    kernel_size: 3
    stride: 2
  }
}
layer {
  name: "fc6"
  type: "InnerProduct"
  bottom: "pool5"
  top: "fc6"
  inner_product_param {
    num_output: 4096
  }
}
layer {
  name: "relu6"
  type: "ReLU"
  bottom: "fc6"
  top: "fc6"
}
layer {
  name: "drop6"
  type: "Dropout"
  bottom: "fc6"
  top: "fc6"
  dropout_param {
    dropout_ratio: 0.5
  }
}
layer {
  name: "fc7"
  type: "InnerProduct"
  bottom: "fc6"
  top: "fc7"
  inner_product_param {
    num_output: 4096
  }
}
layer {
  name: "relu7"
  type: "ReLU"
  bottom: "fc7"
  top: "fc7"
}
layer {
  name: "drop7"
  type: "Dropout"
  bottom: "fc7"
  top: "fc7"
  dropout_param {
    dropout_ratio: 0.5
  }
}
layer {
  name: "fc8"
  type: "InnerProduct"
  bottom: "fc7"
  top: "fc8"
  inner_product_param {
    num_output: 1000
  }
}
layer {
  name: "prob"
  type: "Softmax"
  bottom: "fc8"
  top: "prob"
}
I0922 22:37:33.629694 32462 layer_factory.hpp:77] Creating layer input
I0922 22:37:33.629698 32456 layer_factory.hpp:77] Creating layer data
I0922 22:37:33.629719 32456 net.cpp:91] Creating Layer data
I0922 22:37:33.629719 32462 net.cpp:91] Creating Layer input
I0922 22:37:33.629735 32456 net.cpp:399] data -> data
I0922 22:37:33.629737 32462 net.cpp:399] input -> frames_fc7
I0922 22:37:33.629743 32478 net.cpp:49] Initializing net from parameters: 
name: "s2vt:features_to_lstm"
state {
  phase: TEST
}
layer {
  name: "input"
  type: "Input"
  top: "frames_fc7"
  top: "cont_sentence"
  top: "input_sentence"
  top: "stage_indicator"
  input_param {
    shape {
      dim: 1
      dim: 4096
    }
    shape {
      dim: 1
      dim: 1
    }
    shape {
      dim: 1
      dim: 1
    }
    shape {
      dim: 1
      dim: 1
    }
  }
}
layer {
  name: "embed_encoder"
  type: "InnerProduct"
  bottom: "frames_fc7"
  top: "embedded_in_frames"
  param {
    lr_mult: 1
    decay_mult: 1
  }
  param {
    lr_mult: 2
    decay_mult: 0
  }
  inner_product_param {
    num_output: 500
    weight_filler {
      type: "xavier"
    }
    bias_filler {
      type: "constant"
      value: 0.2
    }
  }
}
layer {
  name: "reshape_frames"
  type: "Reshape"
  bottom: "embedded_in_frames"
  top: "embedded_input_frames"
  reshape_param {
    shape {
      dim: 1
      dim: 1
      dim: 500
    }
  }
}
layer {
  name: "reshape_stage_indicator"
  type: "Reshape"
  bottom: "stage_indicator"
  top: "reshaped_stage_indicator"
  reshape_param {
    shape {
      dim: 1
      dim: 1
      dim: 1
    }
  }
}
layer {
  name: "embedding"
  type: "Embed"
  bottom: "input_sentence"
  top: "embedded_input_sentence"
  param {
    lr_mult: 1
  }
  embed_param {
    num_output: 500
    input_dim: 46168
    bias_term: false
    weight_filler {
      type: "uniform"
      min: -0.08
      max: 0.08
    }
  }
}
layer {
  name: "lstm1"
  type: "LSTM"
  bottom: "embedded_input_frames"
  bottom: "cont_sentence"
  top: "lstm1"
  recurrent_param {
    num_output: 1000
    weight_filler {
      type: "uniform"
      min: -0.08
      max: 0.08
    }
    bias_filler {
      type: "constant"
      value: 0
    }
  }
}
layer {
  name: "concat"
  type: "Concat"
  bottom: "lstm1"
  bottom: "embedded_input_sentence"
  bottom: "reshaped_stage_indicator"
  top: "lstm1_video_sequence"
  concat_param {
    concat_dim: 2
  }
}
layer {
  name: "lstm2"
  type: "LSTM"
  bottom: "lstm1_video_sequence"
  bottom: "cont_sentence"
  top: "lstm2"
  recurrent_param {
    num_output: 1000
    weight_filler {
      type: "uniform"
      min: -0.08
      max: 0.08
    }
    bias_filler {
      type: "constant"
      value: 0
    }
  }
}
layer {
  name: "predict"
  type: "InnerProduct"
  bottom: "lstm2"
  top: "predict"
  param {
    lr_mult: 1
    decay_mult: 1
  }
  param {
    lr_mult: 2
    decay_mult: 0
  }
  inner_product_param {
    num_output: 46168
    weight_filler {
      type: "uniform"
      min: -0.08
      max: 0.08
    }
    bias_filler {
      type: "constant"
      value: 0
    }
    axis: 2
  }
}
layer {
  name: "probs"
  type: "Softmax"
  bottom: "predict"
  top: "probs"
  softmax_param {
    axis: 2
  }
}
I0922 22:37:33.629743 32458 net.cpp:49] Initializing net from parameters: 
name: "s2vt:features_to_lstm"
state {
  phase: TEST
}
layer {
  name: "input"
  type: "Input"
  top: "frames_fc7"
  top: "cont_sentence"
  top: "input_sentence"
  top: "stage_indicator"
  input_param {
    shape {
      dim: 1
      dim: 4096
    }
    shape {
      dim: 1
      dim: 1
    }
    shape {
      dim: 1
      dim: 1
    }
    shape {
      dim: 1
      dim: 1
    }
  }
}
layer {
  name: "embed_encoder"
  type: "InnerProduct"
  bottom: "frames_fc7"
  top: "embedded_in_frames"
  param {
    lr_mult: 1
    decay_mult: 1
  }
  param {
    lr_mult: 2
    decay_mult: 0
  }
  inner_product_param {
    num_output: 500
    weight_filler {
      type: "xavier"
    }
    bias_filler {
      type: "constant"
      value: 0.2
    }
  }
}
layer {
  name: "reshape_frames"
  type: "Reshape"
  bottom: "embedded_in_frames"
  top: "embedded_input_frames"
  reshape_param {
    shape {
      dim: 1
      dim: 1
      dim: 500
    }
  }
}
layer {
  name: "reshape_stage_indicator"
  type: "Reshape"
  bottom: "stage_indicator"
  top: "reshaped_stage_indicator"
  reshape_param {
    shape {
      dim: 1
      dim: 1
      dim: 1
    }
  }
}
layer {
  name: "embedding"
  type: "Embed"
  bottom: "input_sentence"
  top: "embedded_input_sentence"
  param {
    lr_mult: 1
  }
  embed_param {
    num_output: 500
    input_dim: 46168
    bias_term: false
    weight_filler {
      type: "uniform"
      min: -0.08
      max: 0.08
    }
  }
}
layer {
  name: "lstm1"
  type: "LSTM"
  bottom: "embedded_input_frames"
  bottom: "cont_sentence"
  top: "lstm1"
  recurrent_param {
    num_output: 1000
    weight_filler {
      type: "uniform"
      min: -0.08
      max: 0.08
    }
    bias_filler {
      type: "constant"
      value: 0
    }
  }
}
layer {
  name: "concat"
  type: "Concat"
  bottom: "lstm1"
  bottom: "embedded_input_sentence"
  bottom: "reshaped_stage_indicator"
  top: "lstm1_video_sequence"
  concat_param {
    concat_dim: 2
  }
}
layer {
  name: "lstm2"
  type: "LSTM"
  bottom: "lstm1_video_sequence"
  bottom: "cont_sentence"
  top: "lstm2"
  recurrent_param {
    num_output: 1000
    weight_filler {
      type: "uniform"
      min: -0.08
      max: 0.08
    }
    bias_filler {
      type: "constant"
      value: 0
    }
  }
}
layer {
  name: "predict"
  type: "InnerProduct"
  bottom: "lstm2"
  top: "predict"
  param {
    lr_mult: 1
    decay_mult: 1
  }
  param {
    lr_mult: 2
    decay_mult: 0
  }
  inner_product_param {
    num_output: 46168
    weight_filler {
      type: "uniform"
      min: -0.08
      max: 0.08
    }
    bias_filler {
      type: "constant"
      value: 0
    }
    axis: 2
  }
}
layer {
  name: "probs"
  type: "Softmax"
  bottom: "predict"
  top: "probs"
  softmax_param {
    axis: 2
  }
}
I0922 22:37:33.629770 32462 net.cpp:399] input -> cont_sentence
I0922 22:37:33.629783 32462 net.cpp:399] input -> input_sentence
I0922 22:37:33.629794 32462 net.cpp:399] input -> stage_indicator
I0922 22:37:33.629868 32478 layer_factory.hpp:77] Creating layer input
I0922 22:37:33.629868 32458 layer_factory.hpp:77] Creating layer input
I0922 22:37:33.629894 32478 net.cpp:91] Creating Layer input
I0922 22:37:33.629894 32458 net.cpp:91] Creating Layer input
I0922 22:37:33.629914 32478 net.cpp:399] input -> frames_fc7
I0922 22:37:33.629916 32458 net.cpp:399] input -> frames_fc7
I0922 22:37:33.629933 32458 net.cpp:399] input -> cont_sentence
I0922 22:37:33.629933 32478 net.cpp:399] input -> cont_sentence
I0922 22:37:33.629956 32458 net.cpp:399] input -> input_sentence
I0922 22:37:33.629958 32478 net.cpp:399] input -> input_sentence
I0922 22:37:33.629978 32458 net.cpp:399] input -> stage_indicator
I0922 22:37:33.629978 32478 net.cpp:399] input -> stage_indicator
I0922 22:37:34.157946 32456 net.cpp:141] Setting up data
I0922 22:37:34.158017 32456 net.cpp:148] Top shape: 10 3 227 227 (1545870)
I0922 22:37:34.158023 32456 net.cpp:156] Memory required for data: 6183480
I0922 22:37:34.158044 32456 layer_factory.hpp:77] Creating layer conv1
I0922 22:37:34.158076 32456 net.cpp:91] Creating Layer conv1
I0922 22:37:34.158084 32456 net.cpp:425] conv1 <- data
I0922 22:37:34.158090 32478 net.cpp:141] Setting up input
I0922 22:37:34.158097 32456 net.cpp:399] conv1 -> conv1
I0922 22:37:34.158116 32478 net.cpp:148] Top shape: 1 4096 (4096)
I0922 22:37:34.158129 32478 net.cpp:148] Top shape: 1 1 (1)
I0922 22:37:34.158140 32478 net.cpp:148] Top shape: 1 1 (1)
I0922 22:37:34.158146 32478 net.cpp:148] Top shape: 1 1 (1)
I0922 22:37:34.158151 32478 net.cpp:156] Memory required for data: 16396
I0922 22:37:34.158157 32478 layer_factory.hpp:77] Creating layer cont_sentence_input_1_split
I0922 22:37:34.158175 32478 net.cpp:91] Creating Layer cont_sentence_input_1_split
I0922 22:37:34.158181 32478 net.cpp:425] cont_sentence_input_1_split <- cont_sentence
I0922 22:37:34.158205 32478 net.cpp:399] cont_sentence_input_1_split -> cont_sentence_input_1_split_0
I0922 22:37:34.158217 32478 net.cpp:399] cont_sentence_input_1_split -> cont_sentence_input_1_split_1
I0922 22:37:34.158260 32462 net.cpp:141] Setting up input
I0922 22:37:34.158285 32462 net.cpp:148] Top shape: 1 4096 (4096)
I0922 22:37:34.158298 32462 net.cpp:148] Top shape: 1 1 (1)
I0922 22:37:34.158304 32462 net.cpp:148] Top shape: 1 1 (1)
I0922 22:37:34.158309 32462 net.cpp:148] Top shape: 1 1 (1)
I0922 22:37:34.158313 32462 net.cpp:156] Memory required for data: 16396
I0922 22:37:34.158319 32462 layer_factory.hpp:77] Creating layer cont_sentence_input_1_split
I0922 22:37:34.158326 32478 net.cpp:141] Setting up cont_sentence_input_1_split
I0922 22:37:34.158329 32462 net.cpp:91] Creating Layer cont_sentence_input_1_split
I0922 22:37:34.158344 32462 net.cpp:425] cont_sentence_input_1_split <- cont_sentence
I0922 22:37:34.158345 32478 net.cpp:148] Top shape: 1 1 (1)
I0922 22:37:34.158352 32462 net.cpp:399] cont_sentence_input_1_split -> cont_sentence_input_1_split_0
I0922 22:37:34.158357 32478 net.cpp:148] Top shape: 1 1 (1)
I0922 22:37:34.158363 32462 net.cpp:399] cont_sentence_input_1_split -> cont_sentence_input_1_split_1
I0922 22:37:34.158367 32478 net.cpp:156] Memory required for data: 16404
I0922 22:37:34.158376 32478 layer_factory.hpp:77] Creating layer embed_encoder
I0922 22:37:34.158406 32478 net.cpp:91] Creating Layer embed_encoder
I0922 22:37:34.158412 32478 net.cpp:425] embed_encoder <- frames_fc7
I0922 22:37:34.158422 32478 net.cpp:399] embed_encoder -> embedded_in_frames
I0922 22:37:34.158468 32458 net.cpp:141] Setting up input
I0922 22:37:34.158491 32458 net.cpp:148] Top shape: 1 4096 (4096)
I0922 22:37:34.158502 32458 net.cpp:148] Top shape: 1 1 (1)
I0922 22:37:34.158514 32458 net.cpp:148] Top shape: 1 1 (1)
I0922 22:37:34.158524 32458 net.cpp:148] Top shape: 1 1 (1)
I0922 22:37:34.158529 32458 net.cpp:156] Memory required for data: 16396
I0922 22:37:34.158540 32458 layer_factory.hpp:77] Creating layer cont_sentence_input_1_split
I0922 22:37:34.158556 32458 net.cpp:91] Creating Layer cont_sentence_input_1_split
I0922 22:37:34.158565 32458 net.cpp:425] cont_sentence_input_1_split <- cont_sentence
I0922 22:37:34.158566 32462 net.cpp:141] Setting up cont_sentence_input_1_split
I0922 22:37:34.158579 32458 net.cpp:399] cont_sentence_input_1_split -> cont_sentence_input_1_split_0
I0922 22:37:34.158581 32462 net.cpp:148] Top shape: 1 1 (1)
I0922 22:37:34.158598 32462 net.cpp:148] Top shape: 1 1 (1)
I0922 22:37:34.158603 32462 net.cpp:156] Memory required for data: 16404
I0922 22:37:34.158604 32458 net.cpp:399] cont_sentence_input_1_split -> cont_sentence_input_1_split_1
I0922 22:37:34.158608 32462 layer_factory.hpp:77] Creating layer embed_encoder
I0922 22:37:34.158620 32462 net.cpp:91] Creating Layer embed_encoder
I0922 22:37:34.158625 32462 net.cpp:425] embed_encoder <- frames_fc7
I0922 22:37:34.158634 32462 net.cpp:399] embed_encoder -> embedded_in_frames
I0922 22:37:34.167472 32458 net.cpp:141] Setting up cont_sentence_input_1_split
I0922 22:37:34.167532 32458 net.cpp:148] Top shape: 1 1 (1)
I0922 22:37:34.167543 32458 net.cpp:148] Top shape: 1 1 (1)
I0922 22:37:34.167551 32458 net.cpp:156] Memory required for data: 16404
I0922 22:37:34.167562 32458 layer_factory.hpp:77] Creating layer embed_encoder
I0922 22:37:34.167592 32458 net.cpp:91] Creating Layer embed_encoder
I0922 22:37:34.167601 32458 net.cpp:425] embed_encoder <- frames_fc7
I0922 22:37:34.167618 32458 net.cpp:399] embed_encoder -> embedded_in_frames
I0922 22:37:34.189785 32462 net.cpp:141] Setting up embed_encoder
I0922 22:37:34.189836 32462 net.cpp:148] Top shape: 1 500 (500)
I0922 22:37:34.189846 32462 net.cpp:156] Memory required for data: 18404
I0922 22:37:34.189880 32462 layer_factory.hpp:77] Creating layer reshape_frames
I0922 22:37:34.189915 32462 net.cpp:91] Creating Layer reshape_frames
I0922 22:37:34.189926 32462 net.cpp:425] reshape_frames <- embedded_in_frames
I0922 22:37:34.189924 32478 net.cpp:141] Setting up embed_encoder
I0922 22:37:34.189939 32462 net.cpp:399] reshape_frames -> embedded_input_frames
I0922 22:37:34.189949 32478 net.cpp:148] Top shape: 1 500 (500)
I0922 22:37:34.189960 32478 net.cpp:156] Memory required for data: 18404
I0922 22:37:34.189982 32478 layer_factory.hpp:77] Creating layer reshape_frames
I0922 22:37:34.189997 32478 net.cpp:91] Creating Layer reshape_frames
I0922 22:37:34.190001 32462 net.cpp:141] Setting up reshape_frames
I0922 22:37:34.190007 32478 net.cpp:425] reshape_frames <- embedded_in_frames
I0922 22:37:34.190011 32462 net.cpp:148] Top shape: 1 1 500 (500)
I0922 22:37:34.190032 32462 net.cpp:156] Memory required for data: 20404
I0922 22:37:34.190034 32478 net.cpp:399] reshape_frames -> embedded_input_frames
I0922 22:37:34.190037 32462 layer_factory.hpp:77] Creating layer reshape_stage_indicator
I0922 22:37:34.190060 32462 net.cpp:91] Creating Layer reshape_stage_indicator
I0922 22:37:34.190068 32462 net.cpp:425] reshape_stage_indicator <- stage_indicator
I0922 22:37:34.190076 32462 net.cpp:399] reshape_stage_indicator -> reshaped_stage_indicator
I0922 22:37:34.192610 32478 net.cpp:141] Setting up reshape_frames
I0922 22:37:34.192646 32462 net.cpp:141] Setting up reshape_stage_indicator
I0922 22:37:34.192649 32478 net.cpp:148] Top shape: 1 1 500 (500)
I0922 22:37:34.192670 32462 net.cpp:148] Top shape: 1 1 1 (1)
I0922 22:37:34.192673 32478 net.cpp:156] Memory required for data: 20404
I0922 22:37:34.192677 32462 net.cpp:156] Memory required for data: 20408
I0922 22:37:34.192692 32478 layer_factory.hpp:77] Creating layer reshape_stage_indicator
I0922 22:37:34.192694 32462 layer_factory.hpp:77] Creating layer embedding
I0922 22:37:34.192706 32478 net.cpp:91] Creating Layer reshape_stage_indicator
I0922 22:37:34.192708 32462 net.cpp:91] Creating Layer embedding
I0922 22:37:34.192720 32478 net.cpp:425] reshape_stage_indicator <- stage_indicator
I0922 22:37:34.192723 32462 net.cpp:425] embedding <- input_sentence
I0922 22:37:34.192740 32478 net.cpp:399] reshape_stage_indicator -> reshaped_stage_indicator
I0922 22:37:34.192742 32462 net.cpp:399] embedding -> embedded_input_sentence
I0922 22:37:34.194797 32478 net.cpp:141] Setting up reshape_stage_indicator
I0922 22:37:34.194813 32478 net.cpp:148] Top shape: 1 1 1 (1)
I0922 22:37:34.194818 32478 net.cpp:156] Memory required for data: 20408
I0922 22:37:34.194825 32478 layer_factory.hpp:77] Creating layer embedding
I0922 22:37:34.194840 32478 net.cpp:91] Creating Layer embedding
I0922 22:37:34.194849 32478 net.cpp:425] embedding <- input_sentence
I0922 22:37:34.194864 32478 net.cpp:399] embedding -> embedded_input_sentence
I0922 22:37:34.274008 32458 net.cpp:141] Setting up embed_encoder
I0922 22:37:34.274091 32458 net.cpp:148] Top shape: 1 500 (500)
I0922 22:37:34.274111 32458 net.cpp:156] Memory required for data: 18404
I0922 22:37:34.274154 32458 layer_factory.hpp:77] Creating layer reshape_frames
I0922 22:37:34.274197 32458 net.cpp:91] Creating Layer reshape_frames
I0922 22:37:34.274219 32458 net.cpp:425] reshape_frames <- embedded_in_frames
I0922 22:37:34.274246 32458 net.cpp:399] reshape_frames -> embedded_input_frames
I0922 22:37:34.276188 32458 net.cpp:141] Setting up reshape_frames
I0922 22:37:34.276248 32458 net.cpp:148] Top shape: 1 1 500 (500)
I0922 22:37:34.276264 32458 net.cpp:156] Memory required for data: 20404
I0922 22:37:34.276283 32458 layer_factory.hpp:77] Creating layer reshape_stage_indicator
I0922 22:37:34.276319 32458 net.cpp:91] Creating Layer reshape_stage_indicator
I0922 22:37:34.276338 32458 net.cpp:425] reshape_stage_indicator <- stage_indicator
I0922 22:37:34.276373 32458 net.cpp:399] reshape_stage_indicator -> reshaped_stage_indicator
I0922 22:37:34.282670 32458 net.cpp:141] Setting up reshape_stage_indicator
I0922 22:37:34.282738 32458 net.cpp:148] Top shape: 1 1 1 (1)
I0922 22:37:34.282754 32458 net.cpp:156] Memory required for data: 20408
I0922 22:37:34.282773 32458 layer_factory.hpp:77] Creating layer embedding
I0922 22:37:34.282805 32458 net.cpp:91] Creating Layer embedding
I0922 22:37:34.282825 32458 net.cpp:425] embedding <- input_sentence
I0922 22:37:34.282858 32458 net.cpp:399] embedding -> embedded_input_sentence
I0922 22:37:34.429334 32462 net.cpp:141] Setting up embedding
I0922 22:37:34.429391 32462 net.cpp:148] Top shape: 1 1 500 (500)
I0922 22:37:34.429399 32462 net.cpp:156] Memory required for data: 22408
I0922 22:37:34.429415 32462 layer_factory.hpp:77] Creating layer lstm1
I0922 22:37:34.429445 32462 net.cpp:91] Creating Layer lstm1
I0922 22:37:34.429452 32462 net.cpp:425] lstm1 <- embedded_input_frames
I0922 22:37:34.429461 32462 net.cpp:425] lstm1 <- cont_sentence_input_1_split_0
I0922 22:37:34.429471 32462 net.cpp:399] lstm1 -> lstm1
I0922 22:37:34.429497 32462 recurrent_layer.cpp:20] Initializing recurrent layer: assuming input batch contains 1 timesteps of 1 independent streams.
I0922 22:37:34.429839 32462 net.cpp:49] Initializing net from parameters: 
layer {
  name: "lstm1_"
  type: "Input"
  top: "x"
  top: "cont"
  input_param {
    shape {
      dim: 1
      dim: 1
      dim: 500
    }
    shape {
      dim: 1
      dim: 1
    }
  }
}
layer {
  name: "lstm1_"
  type: "Input"
  top: "c_0"
  top: "h_0"
  input_param {
    shape {
      dim: 1
      dim: 1
      dim: 1000
    }
    shape {
      dim: 1
      dim: 1
      dim: 1000
    }
  }
}
layer {
  name: "lstm1_cont_slice"
  type: "Slice"
  bottom: "cont"
  top: "cont_1"
  slice_param {
    axis: 0
  }
}
layer {
  name: "lstm1_x_transform"
  type: "InnerProduct"
  bottom: "x"
  top: "W_xc_x"
  param {
    name: "W_xc"
  }
  param {
    name: "b_c"
  }
  propagate_down: true
  inner_product_param {
    num_output: 4000
    bias_term: true
    weight_filler {
      type: "uniform"
      min: -0.08
      max: 0.08
    }
    bias_filler {
      type: "constant"
      value: 0
    }
    axis: 2
  }
}
layer {
  name: "lstm1_W_xc_x_slice"
  type: "Slice"
  bottom: "W_xc_x"
  top: "W_xc_x_1"
  slice_param {
    axis: 0
  }
}
layer {
  name: "lstm1_h_conted_0"
  type: "Scale"
  bottom: "h_0"
  bottom: "cont_1"
  top: "h_conted_0"
  scale_param {
    axis: 0
  }
}
layer {
  name: "lstm1_transform_1"
  type: "InnerProduct"
  bottom: "h_conted_0"
  top: "W_hc_h_0"
  param {
    name: "W_hc"
  }
  inner_product_param {
    num_output: 4000
    bias_term: false
    weight_filler {
      type: "uniform"
      min: -0.08
      max: 0.08
    }
    axis: 2
  }
}
layer {
  name: "lstm1_gate_input_1"
  type: "Eltwise"
  bottom: "W_hc_h_0"
  bottom: "W_xc_x_1"
  top: "gate_input_1"
  eltwise_param {
    operation: SUM
  }
}
layer {
  name: "lstm1_unit_1"
  type: "LSTMUnit"
  bottom: "c_0"
  bottom: "gate_input_1"
  bottom: "cont_1"
  top: "c_1"
  top: "h_1"
}
layer {
  name: "lstm1_"
  type: "Split"
  bottom: "c_1"
  top: "c_T"
}
layer {
  name: "lstm1_h_concat"
  type: "Concat"
  bottom: "h_1"
  top: "h"
  concat_param {
    axis: 0
  }
}
layer {
  name: "h_pseudoloss"
  type: "Reduction"
  bottom: "h"
  top: "h_pseudoloss"
  loss_weight: 1
}
I0922 22:37:34.429926 32462 layer_factory.hpp:77] Creating layer lstm1_
I0922 22:37:34.429937 32462 net.cpp:91] Creating Layer lstm1_
I0922 22:37:34.429944 32462 net.cpp:399] lstm1_ -> x
I0922 22:37:34.429955 32462 net.cpp:399] lstm1_ -> cont
I0922 22:37:34.430827 32462 net.cpp:141] Setting up lstm1_
I0922 22:37:34.430845 32462 net.cpp:148] Top shape: 1 1 500 (500)
I0922 22:37:34.430852 32462 net.cpp:148] Top shape: 1 1 (1)
I0922 22:37:34.430856 32462 net.cpp:156] Memory required for data: 2004
I0922 22:37:34.430861 32462 layer_factory.hpp:77] Creating layer lstm1_
I0922 22:37:34.430872 32462 net.cpp:91] Creating Layer lstm1_
I0922 22:37:34.430881 32462 net.cpp:399] lstm1_ -> c_0
I0922 22:37:34.430893 32462 net.cpp:399] lstm1_ -> h_0
I0922 22:37:34.432502 32462 net.cpp:141] Setting up lstm1_
I0922 22:37:34.432520 32462 net.cpp:148] Top shape: 1 1 1000 (1000)
I0922 22:37:34.432526 32462 net.cpp:148] Top shape: 1 1 1000 (1000)
I0922 22:37:34.432530 32462 net.cpp:156] Memory required for data: 10004
I0922 22:37:34.432535 32462 layer_factory.hpp:77] Creating layer lstm1_cont_slice
I0922 22:37:34.432545 32462 net.cpp:91] Creating Layer lstm1_cont_slice
I0922 22:37:34.432551 32462 net.cpp:425] lstm1_cont_slice <- cont
I0922 22:37:34.432559 32462 net.cpp:399] lstm1_cont_slice -> cont_1
I0922 22:37:34.434449 32462 net.cpp:141] Setting up lstm1_cont_slice
I0922 22:37:34.434463 32462 net.cpp:148] Top shape: 1 1 (1)
I0922 22:37:34.434468 32462 net.cpp:156] Memory required for data: 10008
I0922 22:37:34.434471 32462 layer_factory.hpp:77] Creating layer cont_1_lstm1_cont_slice_0_split
I0922 22:37:34.434483 32462 net.cpp:91] Creating Layer cont_1_lstm1_cont_slice_0_split
I0922 22:37:34.434487 32462 net.cpp:425] cont_1_lstm1_cont_slice_0_split <- cont_1
I0922 22:37:34.434494 32462 net.cpp:399] cont_1_lstm1_cont_slice_0_split -> cont_1_lstm1_cont_slice_0_split_0
I0922 22:37:34.434504 32462 net.cpp:399] cont_1_lstm1_cont_slice_0_split -> cont_1_lstm1_cont_slice_0_split_1
I0922 22:37:34.434738 32462 net.cpp:141] Setting up cont_1_lstm1_cont_slice_0_split
I0922 22:37:34.434749 32462 net.cpp:148] Top shape: 1 1 (1)
I0922 22:37:34.434754 32462 net.cpp:148] Top shape: 1 1 (1)
I0922 22:37:34.434759 32462 net.cpp:156] Memory required for data: 10016
I0922 22:37:34.434763 32462 layer_factory.hpp:77] Creating layer lstm1_x_transform
I0922 22:37:34.434779 32462 net.cpp:91] Creating Layer lstm1_x_transform
I0922 22:37:34.434784 32462 net.cpp:425] lstm1_x_transform <- x
I0922 22:37:34.434793 32462 net.cpp:399] lstm1_x_transform -> W_xc_x
I0922 22:37:34.471063 32478 net.cpp:141] Setting up embedding
I0922 22:37:34.471115 32478 net.cpp:148] Top shape: 1 1 500 (500)
I0922 22:37:34.471122 32478 net.cpp:156] Memory required for data: 22408
I0922 22:37:34.471139 32478 layer_factory.hpp:77] Creating layer lstm1
I0922 22:37:34.471158 32478 net.cpp:91] Creating Layer lstm1
I0922 22:37:34.471166 32478 net.cpp:425] lstm1 <- embedded_input_frames
I0922 22:37:34.471175 32478 net.cpp:425] lstm1 <- cont_sentence_input_1_split_0
I0922 22:37:34.471166 32462 net.cpp:141] Setting up lstm1_x_transform
I0922 22:37:34.471185 32478 net.cpp:399] lstm1 -> lstm1
I0922 22:37:34.471216 32462 net.cpp:148] Top shape: 1 1 4000 (4000)
I0922 22:37:34.471222 32478 recurrent_layer.cpp:20] Initializing recurrent layer: assuming input batch contains 1 timesteps of 1 independent streams.
I0922 22:37:34.471227 32462 net.cpp:156] Memory required for data: 26016
I0922 22:37:34.471259 32462 layer_factory.hpp:77] Creating layer lstm1_W_xc_x_slice
I0922 22:37:34.471289 32462 net.cpp:91] Creating Layer lstm1_W_xc_x_slice
I0922 22:37:34.471302 32462 net.cpp:425] lstm1_W_xc_x_slice <- W_xc_x
I0922 22:37:34.471319 32462 net.cpp:399] lstm1_W_xc_x_slice -> W_xc_x_1
I0922 22:37:34.471492 32478 net.cpp:49] Initializing net from parameters: 
layer {
  name: "lstm1_"
  type: "Input"
  top: "x"
  top: "cont"
  input_param {
    shape {
      dim: 1
      dim: 1
      dim: 500
    }
    shape {
      dim: 1
      dim: 1
    }
  }
}
layer {
  name: "lstm1_"
  type: "Input"
  top: "c_0"
  top: "h_0"
  input_param {
    shape {
      dim: 1
      dim: 1
      dim: 1000
    }
    shape {
      dim: 1
      dim: 1
      dim: 1000
    }
  }
}
layer {
  name: "lstm1_cont_slice"
  type: "Slice"
  bottom: "cont"
  top: "cont_1"
  slice_param {
    axis: 0
  }
}
layer {
  name: "lstm1_x_transform"
  type: "InnerProduct"
  bottom: "x"
  top: "W_xc_x"
  param {
    name: "W_xc"
  }
  param {
    name: "b_c"
  }
  propagate_down: true
  inner_product_param {
    num_output: 4000
    bias_term: true
    weight_filler {
      type: "uniform"
      min: -0.08
      max: 0.08
    }
    bias_filler {
      type: "constant"
      value: 0
    }
    axis: 2
  }
}
layer {
  name: "lstm1_W_xc_x_slice"
  type: "Slice"
  bottom: "W_xc_x"
  top: "W_xc_x_1"
  slice_param {
    axis: 0
  }
}
layer {
  name: "lstm1_h_conted_0"
  type: "Scale"
  bottom: "h_0"
  bottom: "cont_1"
  top: "h_conted_0"
  scale_param {
    axis: 0
  }
}
layer {
  name: "lstm1_transform_1"
  type: "InnerProduct"
  bottom: "h_conted_0"
  top: "W_hc_h_0"
  param {
    name: "W_hc"
  }
  inner_product_param {
    num_output: 4000
    bias_term: false
    weight_filler {
      type: "uniform"
      min: -0.08
      max: 0.08
    }
    axis: 2
  }
}
layer {
  name: "lstm1_gate_input_1"
  type: "Eltwise"
  bottom: "W_hc_h_0"
  bottom: "W_xc_x_1"
  top: "gate_input_1"
  eltwise_param {
    operation: SUM
  }
}
layer {
  name: "lstm1_unit_1"
  type: "LSTMUnit"
  bottom: "c_0"
  bottom: "gate_input_1"
  bottom: "cont_1"
  top: "c_1"
  top: "h_1"
}
layer {
  name: "lstm1_"
  type: "Split"
  bottom: "c_1"
  top: "c_T"
}
layer {
  name: "lstm1_h_concat"
  type: "Concat"
  bottom: "h_1"
  top: "h"
  concat_param {
    axis: 0
  }
}
layer {
  name: "h_pseudoloss"
  type: "Reduction"
  bottom: "h"
  top: "h_pseudoloss"
  loss_weight: 1
}
I0922 22:37:34.471577 32478 layer_factory.hpp:77] Creating layer lstm1_
I0922 22:37:34.471590 32478 net.cpp:91] Creating Layer lstm1_
I0922 22:37:34.471596 32478 net.cpp:399] lstm1_ -> x
I0922 22:37:34.471607 32478 net.cpp:399] lstm1_ -> cont
I0922 22:37:34.474370 32462 net.cpp:141] Setting up lstm1_W_xc_x_slice
I0922 22:37:34.474390 32462 net.cpp:148] Top shape: 1 1 4000 (4000)
I0922 22:37:34.474396 32462 net.cpp:156] Memory required for data: 42016
I0922 22:37:34.474402 32462 layer_factory.hpp:77] Creating layer lstm1_h_conted_0
I0922 22:37:34.474436 32462 net.cpp:91] Creating Layer lstm1_h_conted_0
I0922 22:37:34.474443 32462 net.cpp:425] lstm1_h_conted_0 <- h_0
I0922 22:37:34.474452 32462 net.cpp:425] lstm1_h_conted_0 <- cont_1_lstm1_cont_slice_0_split_0
I0922 22:37:34.474460 32462 net.cpp:399] lstm1_h_conted_0 -> h_conted_0
I0922 22:37:34.474462 32478 net.cpp:141] Setting up lstm1_
I0922 22:37:34.474480 32478 net.cpp:148] Top shape: 1 1 500 (500)
I0922 22:37:34.474488 32478 net.cpp:148] Top shape: 1 1 (1)
I0922 22:37:34.474493 32478 net.cpp:156] Memory required for data: 2004
I0922 22:37:34.474498 32478 layer_factory.hpp:77] Creating layer lstm1_
I0922 22:37:34.474509 32478 net.cpp:91] Creating Layer lstm1_
I0922 22:37:34.474515 32478 net.cpp:399] lstm1_ -> c_0
I0922 22:37:34.474527 32478 net.cpp:399] lstm1_ -> h_0
I0922 22:37:34.479756 32478 net.cpp:141] Setting up lstm1_
I0922 22:37:34.479787 32478 net.cpp:148] Top shape: 1 1 1000 (1000)
I0922 22:37:34.479795 32478 net.cpp:148] Top shape: 1 1 1000 (1000)
I0922 22:37:34.479799 32478 net.cpp:156] Memory required for data: 10004
I0922 22:37:34.479806 32478 layer_factory.hpp:77] Creating layer lstm1_cont_slice
I0922 22:37:34.479821 32478 net.cpp:91] Creating Layer lstm1_cont_slice
I0922 22:37:34.479828 32478 net.cpp:425] lstm1_cont_slice <- cont
I0922 22:37:34.479837 32478 net.cpp:399] lstm1_cont_slice -> cont_1
I0922 22:37:34.479878 32462 net.cpp:141] Setting up lstm1_h_conted_0
I0922 22:37:34.479899 32462 net.cpp:148] Top shape: 1 1 1000 (1000)
I0922 22:37:34.479904 32462 net.cpp:156] Memory required for data: 46016
I0922 22:37:34.479912 32462 layer_factory.hpp:77] Creating layer lstm1_transform_1
I0922 22:37:34.479915 32478 net.cpp:141] Setting up lstm1_cont_slice
I0922 22:37:34.479928 32478 net.cpp:148] Top shape: 1 1 (1)
I0922 22:37:34.479933 32462 net.cpp:91] Creating Layer lstm1_transform_1
I0922 22:37:34.479933 32478 net.cpp:156] Memory required for data: 10008
I0922 22:37:34.479943 32462 net.cpp:425] lstm1_transform_1 <- h_conted_0
I0922 22:37:34.479948 32478 layer_factory.hpp:77] Creating layer cont_1_lstm1_cont_slice_0_split
I0922 22:37:34.479954 32462 net.cpp:399] lstm1_transform_1 -> W_hc_h_0
I0922 22:37:34.479959 32478 net.cpp:91] Creating Layer cont_1_lstm1_cont_slice_0_split
I0922 22:37:34.479964 32478 net.cpp:425] cont_1_lstm1_cont_slice_0_split <- cont_1
I0922 22:37:34.479971 32478 net.cpp:399] cont_1_lstm1_cont_slice_0_split -> cont_1_lstm1_cont_slice_0_split_0
I0922 22:37:34.479980 32478 net.cpp:399] cont_1_lstm1_cont_slice_0_split -> cont_1_lstm1_cont_slice_0_split_1
I0922 22:37:34.490195 32478 net.cpp:141] Setting up cont_1_lstm1_cont_slice_0_split
I0922 22:37:34.490252 32478 net.cpp:148] Top shape: 1 1 (1)
I0922 22:37:34.490264 32478 net.cpp:148] Top shape: 1 1 (1)
I0922 22:37:34.490272 32478 net.cpp:156] Memory required for data: 10016
I0922 22:37:34.490285 32478 layer_factory.hpp:77] Creating layer lstm1_x_transform
I0922 22:37:34.490316 32478 net.cpp:91] Creating Layer lstm1_x_transform
I0922 22:37:34.490329 32478 net.cpp:425] lstm1_x_transform <- x
I0922 22:37:34.490348 32478 net.cpp:399] lstm1_x_transform -> W_xc_x
I0922 22:37:34.521075 32478 net.cpp:141] Setting up lstm1_x_transform
I0922 22:37:34.521131 32478 net.cpp:148] Top shape: 1 1 4000 (4000)
I0922 22:37:34.521143 32478 net.cpp:156] Memory required for data: 26016
I0922 22:37:34.521170 32478 layer_factory.hpp:77] Creating layer lstm1_W_xc_x_slice
I0922 22:37:34.521189 32478 net.cpp:91] Creating Layer lstm1_W_xc_x_slice
I0922 22:37:34.521205 32478 net.cpp:425] lstm1_W_xc_x_slice <- W_xc_x
I0922 22:37:34.521220 32478 net.cpp:399] lstm1_W_xc_x_slice -> W_xc_x_1
I0922 22:37:34.521473 32478 net.cpp:141] Setting up lstm1_W_xc_x_slice
I0922 22:37:34.521492 32478 net.cpp:148] Top shape: 1 1 4000 (4000)
I0922 22:37:34.521500 32478 net.cpp:156] Memory required for data: 42016
I0922 22:37:34.521508 32478 layer_factory.hpp:77] Creating layer lstm1_h_conted_0
I0922 22:37:34.521523 32478 net.cpp:91] Creating Layer lstm1_h_conted_0
I0922 22:37:34.521533 32478 net.cpp:425] lstm1_h_conted_0 <- h_0
I0922 22:37:34.521543 32478 net.cpp:425] lstm1_h_conted_0 <- cont_1_lstm1_cont_slice_0_split_0
I0922 22:37:34.521561 32478 net.cpp:399] lstm1_h_conted_0 -> h_conted_0
I0922 22:37:34.525712 32478 net.cpp:141] Setting up lstm1_h_conted_0
I0922 22:37:34.525744 32478 net.cpp:148] Top shape: 1 1 1000 (1000)
I0922 22:37:34.525753 32478 net.cpp:156] Memory required for data: 46016
I0922 22:37:34.525763 32478 layer_factory.hpp:77] Creating layer lstm1_transform_1
I0922 22:37:34.525782 32478 net.cpp:91] Creating Layer lstm1_transform_1
I0922 22:37:34.525792 32478 net.cpp:425] lstm1_transform_1 <- h_conted_0
I0922 22:37:34.525809 32478 net.cpp:399] lstm1_transform_1 -> W_hc_h_0
I0922 22:37:34.526139 32462 net.cpp:141] Setting up lstm1_transform_1
I0922 22:37:34.526180 32462 net.cpp:148] Top shape: 1 1 4000 (4000)
I0922 22:37:34.526185 32462 net.cpp:156] Memory required for data: 62016
I0922 22:37:34.526206 32462 layer_factory.hpp:77] Creating layer lstm1_gate_input_1
I0922 22:37:34.526231 32462 net.cpp:91] Creating Layer lstm1_gate_input_1
I0922 22:37:34.526239 32462 net.cpp:425] lstm1_gate_input_1 <- W_hc_h_0
I0922 22:37:34.526247 32462 net.cpp:425] lstm1_gate_input_1 <- W_xc_x_1
I0922 22:37:34.526257 32462 net.cpp:399] lstm1_gate_input_1 -> gate_input_1
I0922 22:37:34.533618 32462 net.cpp:141] Setting up lstm1_gate_input_1
I0922 22:37:34.533644 32462 net.cpp:148] Top shape: 1 1 4000 (4000)
I0922 22:37:34.533650 32462 net.cpp:156] Memory required for data: 78016
I0922 22:37:34.533656 32462 layer_factory.hpp:77] Creating layer lstm1_unit_1
I0922 22:37:34.533679 32462 net.cpp:91] Creating Layer lstm1_unit_1
I0922 22:37:34.533685 32462 net.cpp:425] lstm1_unit_1 <- c_0
I0922 22:37:34.533694 32462 net.cpp:425] lstm1_unit_1 <- gate_input_1
I0922 22:37:34.533699 32462 net.cpp:425] lstm1_unit_1 <- cont_1_lstm1_cont_slice_0_split_1
I0922 22:37:34.533709 32462 net.cpp:399] lstm1_unit_1 -> c_1
I0922 22:37:34.533720 32462 net.cpp:399] lstm1_unit_1 -> h_1
I0922 22:37:34.533726 32458 net.cpp:141] Setting up embedding
I0922 22:37:34.533774 32458 net.cpp:148] Top shape: 1 1 500 (500)
I0922 22:37:34.533785 32458 net.cpp:156] Memory required for data: 22408
I0922 22:37:34.533809 32458 layer_factory.hpp:77] Creating layer lstm1
I0922 22:37:34.533838 32458 net.cpp:91] Creating Layer lstm1
I0922 22:37:34.533849 32458 net.cpp:425] lstm1 <- embedded_input_frames
I0922 22:37:34.533864 32458 net.cpp:425] lstm1 <- cont_sentence_input_1_split_0
I0922 22:37:34.533884 32458 net.cpp:399] lstm1 -> lstm1
I0922 22:37:34.533908 32458 recurrent_layer.cpp:20] Initializing recurrent layer: assuming input batch contains 1 timesteps of 1 independent streams.
I0922 22:37:34.534353 32458 net.cpp:49] Initializing net from parameters: 
layer {
  name: "lstm1_"
  type: "Input"
  top: "x"
  top: "cont"
  input_param {
    shape {
      dim: 1
      dim: 1
      dim: 500
    }
    shape {
      dim: 1
      dim: 1
    }
  }
}
layer {
  name: "lstm1_"
  type: "Input"
  top: "c_0"
  top: "h_0"
  input_param {
    shape {
      dim: 1
      dim: 1
      dim: 1000
    }
    shape {
      dim: 1
      dim: 1
      dim: 1000
    }
  }
}
layer {
  name: "lstm1_cont_slice"
  type: "Slice"
  bottom: "cont"
  top: "cont_1"
  slice_param {
    axis: 0
  }
}
layer {
  name: "lstm1_x_transform"
  type: "InnerProduct"
  bottom: "x"
  top: "W_xc_x"
  param {
    name: "W_xc"
  }
  param {
    name: "b_c"
  }
  propagate_down: true
  inner_product_param {
    num_output: 4000
    bias_term: true
    weight_filler {
      type: "uniform"
      min: -0.08
      max: 0.08
    }
    bias_filler {
      type: "constant"
      value: 0
    }
    axis: 2
  }
}
layer {
  name: "lstm1_W_xc_x_slice"
  type: "Slice"
  bottom: "W_xc_x"
  top: "W_xc_x_1"
  slice_param {
    axis: 0
  }
}
layer {
  name: "lstm1_h_conted_0"
  type: "Scale"
  bottom: "h_0"
  bottom: "cont_1"
  top: "h_conted_0"
  scale_param {
    axis: 0
  }
}
layer {
  name: "lstm1_transform_1"
  type: "InnerProduct"
  bottom: "h_conted_0"
  top: "W_hc_h_0"
  param {
    name: "W_hc"
  }
  inner_product_param {
    num_output: 4000
    bias_term: false
    weight_filler {
      type: "uniform"
      min: -0.08
      max: 0.08
    }
    axis: 2
  }
}
layer {
  name: "lstm1_gate_input_1"
  type: "Eltwise"
  bottom: "W_hc_h_0"
  bottom: "W_xc_x_1"
  top: "gate_input_1"
  eltwise_param {
    operation: SUM
  }
}
layer {
  name: "lstm1_unit_1"
  type: "LSTMUnit"
  bottom: "c_0"
  bottom: "gate_input_1"
  bottom: "cont_1"
  top: "c_1"
  top: "h_1"
}
layer {
  name: "lstm1_"
  type: "Split"
  bottom: "c_1"
  top: "c_T"
}
layer {
  name: "lstm1_h_concat"
  type: "Concat"
  bottom: "h_1"
  top: "h"
  concat_param {
    axis: 0
  }
}
layer {
  name: "h_pseudoloss"
  type: "Reduction"
  bottom: "h"
  top: "h_pseudoloss"
  loss_weight: 1
}
I0922 22:37:34.534507 32458 layer_factory.hpp:77] Creating layer lstm1_
I0922 22:37:34.534528 32458 net.cpp:91] Creating Layer lstm1_
I0922 22:37:34.534539 32458 net.cpp:399] lstm1_ -> x
I0922 22:37:34.534559 32458 net.cpp:399] lstm1_ -> cont
I0922 22:37:34.539465 32462 net.cpp:141] Setting up lstm1_unit_1
I0922 22:37:34.539487 32462 net.cpp:148] Top shape: 1 1 1000 (1000)
I0922 22:37:34.539495 32462 net.cpp:148] Top shape: 1 1 1000 (1000)
I0922 22:37:34.539500 32462 net.cpp:156] Memory required for data: 86016
I0922 22:37:34.539506 32462 layer_factory.hpp:77] Creating layer lstm1_
I0922 22:37:34.539517 32462 net.cpp:91] Creating Layer lstm1_
I0922 22:37:34.539523 32462 net.cpp:425] lstm1_ <- c_1
I0922 22:37:34.539537 32462 net.cpp:399] lstm1_ -> c_T
I0922 22:37:34.539600 32458 net.cpp:141] Setting up lstm1_
I0922 22:37:34.539643 32462 net.cpp:141] Setting up lstm1_
I0922 22:37:34.539643 32458 net.cpp:148] Top shape: 1 1 500 (500)
I0922 22:37:34.539659 32462 net.cpp:148] Top shape: 1 1 1000 (1000)
I0922 22:37:34.539675 32462 net.cpp:156] Memory required for data: 90016
I0922 22:37:34.539676 32458 net.cpp:148] Top shape: 1 1 (1)
I0922 22:37:34.539681 32462 layer_factory.hpp:77] Creating layer lstm1_h_concat
I0922 22:37:34.539687 32458 net.cpp:156] Memory required for data: 2004
I0922 22:37:34.539695 32462 net.cpp:91] Creating Layer lstm1_h_concat
I0922 22:37:34.539700 32462 net.cpp:425] lstm1_h_concat <- h_1
I0922 22:37:34.539701 32458 layer_factory.hpp:77] Creating layer lstm1_
I0922 22:37:34.539722 32462 net.cpp:399] lstm1_h_concat -> h
I0922 22:37:34.539729 32458 net.cpp:91] Creating Layer lstm1_
I0922 22:37:34.539750 32458 net.cpp:399] lstm1_ -> c_0
I0922 22:37:34.539777 32458 net.cpp:399] lstm1_ -> h_0
I0922 22:37:34.542866 32458 net.cpp:141] Setting up lstm1_
I0922 22:37:34.542884 32458 net.cpp:148] Top shape: 1 1 1000 (1000)
I0922 22:37:34.542891 32458 net.cpp:148] Top shape: 1 1 1000 (1000)
I0922 22:37:34.542896 32458 net.cpp:156] Memory required for data: 10004
I0922 22:37:34.542901 32458 layer_factory.hpp:77] Creating layer lstm1_cont_slice
I0922 22:37:34.542912 32458 net.cpp:91] Creating Layer lstm1_cont_slice
I0922 22:37:34.542918 32458 net.cpp:425] lstm1_cont_slice <- cont
I0922 22:37:34.542929 32458 net.cpp:399] lstm1_cont_slice -> cont_1
I0922 22:37:34.542927 32462 net.cpp:141] Setting up lstm1_h_concat
I0922 22:37:34.542948 32462 net.cpp:148] Top shape: 1 1 1000 (1000)
I0922 22:37:34.542954 32462 net.cpp:156] Memory required for data: 94016
I0922 22:37:34.542960 32462 layer_factory.hpp:77] Creating layer h_pseudoloss
I0922 22:37:34.542980 32462 net.cpp:91] Creating Layer h_pseudoloss
I0922 22:37:34.542986 32462 net.cpp:425] h_pseudoloss <- h
I0922 22:37:34.542986 32458 net.cpp:141] Setting up lstm1_cont_slice
I0922 22:37:34.542996 32462 net.cpp:399] h_pseudoloss -> h_pseudoloss
I0922 22:37:34.542999 32458 net.cpp:148] Top shape: 1 1 (1)
I0922 22:37:34.543004 32458 net.cpp:156] Memory required for data: 10008
I0922 22:37:34.543009 32458 layer_factory.hpp:77] Creating layer cont_1_lstm1_cont_slice_0_split
I0922 22:37:34.543030 32458 net.cpp:91] Creating Layer cont_1_lstm1_cont_slice_0_split
I0922 22:37:34.543037 32458 net.cpp:425] cont_1_lstm1_cont_slice_0_split <- cont_1
I0922 22:37:34.543045 32458 net.cpp:399] cont_1_lstm1_cont_slice_0_split -> cont_1_lstm1_cont_slice_0_split_0
I0922 22:37:34.543054 32458 net.cpp:399] cont_1_lstm1_cont_slice_0_split -> cont_1_lstm1_cont_slice_0_split_1
I0922 22:37:34.543129 32458 net.cpp:141] Setting up cont_1_lstm1_cont_slice_0_split
I0922 22:37:34.543139 32458 net.cpp:148] Top shape: 1 1 (1)
I0922 22:37:34.543145 32458 net.cpp:148] Top shape: 1 1 (1)
I0922 22:37:34.543150 32458 net.cpp:156] Memory required for data: 10016
I0922 22:37:34.543154 32458 layer_factory.hpp:77] Creating layer lstm1_x_transform
I0922 22:37:34.543169 32458 net.cpp:91] Creating Layer lstm1_x_transform
I0922 22:37:34.543174 32458 net.cpp:425] lstm1_x_transform <- x
I0922 22:37:34.543185 32458 net.cpp:399] lstm1_x_transform -> W_xc_x
I0922 22:37:34.543382 32462 net.cpp:141] Setting up h_pseudoloss
…
I0922 22:37:34.543516 32462 net.cpp:219] lstm1_ does not need backward computation.
I0922 22:37:34.543520 32462 net.cpp:261] This network produces output c_T
I0922 22:37:34.543525 32462 net.cpp:261] This network produces output h_pseudoloss
I0922 22:37:34.543545 32462 net.cpp:274] Network initialization done.
I0922 22:37:34.543617 32462 recurrent_layer.cpp:150] Adding parameter 0: W_xc
I0922 22:37:34.543624 32462 recurrent_layer.cpp:150] Adding parameter 1: b_c
I0922 22:37:34.543629 32462 recurrent_layer.cpp:150] Adding parameter 2: W_hc
I0922 22:37:34.555325 32462 net.cpp:141] Setting up lstm1
I0922 22:37:34.555377 32462 net.cpp:148] Top shape: 1 1 1000 (1000)
I0922 22:37:34.555390 32462 net.cpp:156] Memory required for data: 26408
I0922 22:37:34.555433 32462 layer_factory.hpp:77] Creating layer concat
I0922 22:37:34.555462 32462 net.cpp:91] Creating Layer concat
I0922 22:37:34.555477 32462 net.cpp:425] concat <- lstm1
I0922 22:37:34.555493 32462 net.cpp:425] concat <- embedded_input_sentence
I0922 22:37:34.555505 32462 net.cpp:425] concat <- reshaped_stage_indicator
I0922 22:37:34.555522 32462 net.cpp:399] concat -> lstm1_video_sequence
I0922 22:37:34.557642 32462 net.cpp:141] Setting up concat
I0922 22:37:34.557669 32462 net.cpp:148] Top shape: 1 1 1501 (1501)
I0922 22:37:34.557680 32462 net.cpp:156] Memory required for data: 32412
I0922 22:37:34.557690 32462 layer_factory.hpp:77] Creating layer lstm2
I0922 22:37:34.557718 32462 net.cpp:91] Creating Layer lstm2
I0922 22:37:34.557730 32462 net.cpp:425] lstm2 <- lstm1_video_sequence
I0922 22:37:34.557745 32462 net.cpp:425] lstm2 <- cont_sentence_input_1_split_1
I0922 22:37:34.557762 32462 net.cpp:399] lstm2 -> lstm2
I0922 22:37:34.557788 32462 recurrent_layer.cpp:20] Initializing recurrent layer: assuming input batch contains 1 timesteps of 1 independent streams.
I0922 22:37:34.558326 32462 net.cpp:49] Initializing net from parameters: 
layer {
  name: "lstm2_"
  type: "Input"
  top: "x"
  top: "cont"
  input_param {
    shape {
      dim: 1
      dim: 1
      dim: 1501
    }
    shape {
      dim: 1
      dim: 1
    }
  }
}
layer {
  name: "lstm2_"
  type: "Input"
  top: "c_0"
  top: "h_0"
  input_param {
    shape {
      dim: 1
      dim: 1
      dim: 1000
    }
    shape {
      dim: 1
      dim: 1
      dim: 1000
    }
  }
}
layer {
  name: "lstm2_cont_slice"
  type: "Slice"
  bottom: "cont"
  top: "cont_1"
  slice_param {
    axis: 0
  }
}
layer {
  name: "lstm2_x_transform"
  type: "InnerProduct"
  bottom: "x"
  top: "W_xc_x"
  param {
    name: "W_xc"
  }
  param {
    name: "b_c"
  }
  propagate_down: true
  inner_product_param {
    num_output: 4000
    bias_term: true
    weight_filler {
      type: "uniform"
      min: -0.08
      max: 0.08
    }
    bias_filler {
      type: "constant"
      value: 0
    }
    axis: 2
  }
}
layer {
  name: "lstm2_W_xc_x_slice"
  type: "Slice"
  bottom: "W_xc_x"
  top: "W_xc_x_1"
  slice_param {
    axis: 0
  }
}
layer {
  name: "lstm2_h_conted_0"
  type: "Scale"
  bottom: "h_0"
  bottom: "cont_1"
  top: "h_conted_0"
  scale_param {
    axis: 0
  }
}
layer {
  name: "lstm2_transform_1"
  type: "InnerProduct"
  bottom: "h_conted_0"
  top: "W_hc_h_0"
  param {
    name: "W_hc"
  }
  inner_product_param {
    num_output: 4000
    bias_term: false
    weight_filler {
      type: "uniform"
      min: -0.08
      max: 0.08
    }
    axis: 2
  }
}
layer {
  name: "lstm2_gate_input_1"
  type: "Eltwise"
  bottom: "W_hc_h_0"
  bottom: "W_xc_x_1"
  top: "gate_input_1"
  eltwise_param {
    operation: SUM
  }
}
layer {
  name: "lstm2_unit_1"
  type: "LSTMUnit"
  bottom: "c_0"
  bottom: "gate_input_1"
  bottom: "cont_1"
  top: "c_1"
  top: "h_1"
}
layer {
  name: "lstm2_"
  type: "Split"
  bottom: "c_1"
  top: "c_T"
}
layer {
  name: "lstm2_h_concat"
  type: "Concat"
  bottom: "h_1"
  top: "h"
  concat_param {
    axis: 0
  }
}
layer {
  name: "h_pseudoloss"
  type: "Reduction"
  bottom: "h"
  top: "h_pseudoloss"
  loss_weight: 1
}
I0922 22:37:34.558501 32462 layer_factory.hpp:77] Creating layer lstm2_
I0922 22:37:34.558524 32462 net.cpp:91] Creating Layer lstm2_
I0922 22:37:34.558538 32462 net.cpp:399] lstm2_ -> x
I0922 22:37:34.558605 32462 net.cpp:399] lstm2_ -> cont
I0922 22:37:34.562638 32462 net.cpp:141] Setting up lstm2_
I0922 22:37:34.562666 32462 net.cpp:148] Top shape: 1 1 1501 (1501)
I0922 22:37:34.562674 32462 net.cpp:148] Top shape: 1 1 (1)
I0922 22:37:34.562680 32462 net.cpp:156] Memory required for data: 6008
I0922 22:37:34.562688 32462 layer_factory.hpp:77] Creating layer lstm2_
I0922 22:37:34.562713 32462 net.cpp:91] Creating Layer lstm2_
I0922 22:37:34.562722 32462 net.cpp:399] lstm2_ -> c_0
I0922 22:37:34.562738 32462 net.cpp:399] lstm2_ -> h_0
I0922 22:37:34.563102 32462 net.cpp:141] Setting up lstm2_
I0922 22:37:34.563119 32462 net.cpp:148] Top shape: 1 1 1000 (1000)
I0922 22:37:34.563127 32462 net.cpp:148] Top shape: 1 1 1000 (1000)
I0922 22:37:34.563132 32462 net.cpp:156] Memory required for data: 14008
I0922 22:37:34.563136 32462 layer_factory.hpp:77] Creating layer lstm2_cont_slice
I0922 22:37:34.563149 32462 net.cpp:91] Creating Layer lstm2_cont_slice
I0922 22:37:34.563156 32462 net.cpp:425] lstm2_cont_slice <- cont
I0922 22:37:34.563164 32462 net.cpp:399] lstm2_cont_slice -> cont_1
I0922 22:37:34.563266 32462 net.cpp:141] Setting up lstm2_cont_slice
I0922 22:37:34.563278 32462 net.cpp:148] Top shape: 1 1 (1)
I0922 22:37:34.563284 32462 net.cpp:156] Memory required for data: 14012
I0922 22:37:34.563289 32462 layer_factory.hpp:77] Creating layer cont_1_lstm2_cont_slice_0_split
I0922 22:37:34.563299 32462 net.cpp:91] Creating Layer cont_1_lstm2_cont_slice_0_split
I0922 22:37:34.563305 32462 net.cpp:425] cont_1_lstm2_cont_slice_0_split <- cont_1
I0922 22:37:34.563316 32462 net.cpp:399] cont_1_lstm2_cont_slice_0_split -> cont_1_lstm2_cont_slice_0_split_0
I0922 22:37:34.563326 32462 net.cpp:399] cont_1_lstm2_cont_slice_0_split -> cont_1_lstm2_cont_slice_0_split_1
I0922 22:37:34.563423 32462 net.cpp:141] Setting up cont_1_lstm2_cont_slice_0_split
I0922 22:37:34.563438 32462 net.cpp:148] Top shape: 1 1 (1)
I0922 22:37:34.563446 32462 net.cpp:148] Top shape: 1 1 (1)
I0922 22:37:34.563451 32462 net.cpp:156] Memory required for data: 14020
I0922 22:37:34.563455 32462 layer_factory.hpp:77] Creating layer lstm2_x_transform
I0922 22:37:34.563472 32462 net.cpp:91] Creating Layer lstm2_x_transform
I0922 22:37:34.563477 32462 net.cpp:425] lstm2_x_transform <- x
I0922 22:37:34.563490 32462 net.cpp:399] lstm2_x_transform -> W_xc_x
I0922 22:37:34.577409 32478 net.cpp:141] Setting up lstm1_transform_1
I0922 22:37:34.577461 32478 net.cpp:148] Top shape: 1 1 4000 (4000)
I0922 22:37:34.577469 32478 net.cpp:156] Memory required for data: 62016
I0922 22:37:34.577491 32478 layer_factory.hpp:77] Creating layer lstm1_gate_input_1
I0922 22:37:34.577512 32458 net.cpp:141] Setting up lstm1_x_transform
I0922 22:37:34.577527 32478 net.cpp:91] Creating Layer lstm1_gate_input_1
I0922 22:37:34.577530 32458 net.cpp:148] Top shape: 1 1 4000 (4000)
I0922 22:37:34.577543 32458 net.cpp:156] Memory required for data: 26016
I0922 22:37:34.577543 32478 net.cpp:425] lstm1_gate_input_1 <- W_hc_h_0
I0922 22:37:34.577556 32478 net.cpp:425] lstm1_gate_input_1 <- W_xc_x_1
I0922 22:37:34.577558 32458 layer_factory.hpp:77] Creating layer lstm1_W_xc_x_slice
I0922 22:37:34.577572 32478 net.cpp:399] lstm1_gate_input_1 -> gate_input_1
I0922 22:37:34.577575 32458 net.cpp:91] Creating Layer lstm1_W_xc_x_slice
I0922 22:37:34.577587 32458 net.cpp:425] lstm1_W_xc_x_slice <- W_xc_x
I0922 22:37:34.577595 32458 net.cpp:399] lstm1_W_xc_x_slice -> W_xc_x_1
I0922 22:37:34.577647 32478 net.cpp:141] Setting up lstm1_gate_input_1
I0922 22:37:34.577661 32478 net.cpp:148] Top shape: 1 1 4000 (4000)
I0922 22:37:34.577664 32478 net.cpp:156] Memory required for data: 78016
I0922 22:37:34.577672 32478 layer_factory.hpp:77] Creating layer lstm1_unit_1
I0922 22:37:34.577677 32458 net.cpp:141] Setting up lstm1_W_xc_x_slice
I0922 22:37:34.577689 32458 net.cpp:148] Top shape: 1 1 4000 (4000)
I0922 22:37:34.577688 32478 net.cpp:91] Creating Layer lstm1_unit_1
I0922 22:37:34.577694 32458 net.cpp:156] Memory required for data: 42016
I0922 22:37:34.577699 32458 layer_factory.hpp:77] Creating layer lstm1_h_conted_0
I0922 22:37:34.577698 32478 net.cpp:425] lstm1_unit_1 <- c_0
I0922 22:37:34.577714 32458 net.cpp:91] Creating Layer lstm1_h_conted_0
I0922 22:37:34.577720 32458 net.cpp:425] lstm1_h_conted_0 <- h_0
I0922 22:37:34.577718 32478 net.cpp:425] lstm1_unit_1 <- gate_input_1
I0922 22:37:34.577726 32458 net.cpp:425] lstm1_h_conted_0 <- cont_1_lstm1_cont_slice_0_split_0
I0922 22:37:34.577730 32478 net.cpp:425] lstm1_unit_1 <- cont_1_lstm1_cont_slice_0_split_1
I0922 22:37:34.577734 32458 net.cpp:399] lstm1_h_conted_0 -> h_conted_0
I0922 22:37:34.577744 32478 net.cpp:399] lstm1_unit_1 -> c_1
I0922 22:37:34.577759 32478 net.cpp:399] lstm1_unit_1 -> h_1
I0922 22:37:34.578089 32458 net.cpp:141] Setting up lstm1_h_conted_0
I0922 22:37:34.578101 32458 net.cpp:148] Top shape: 1 1 1000 (1000)
I0922 22:37:34.578105 32458 net.cpp:156] Memory required for data: 46016
I0922 22:37:34.578110 32458 layer_factory.hpp:77] Creating layer lstm1_transform_1
I0922 22:37:34.578122 32458 net.cpp:91] Creating Layer lstm1_transform_1
I0922 22:37:34.578119 32478 net.cpp:141] Setting up lstm1_unit_1
I0922 22:37:34.578128 32458 net.cpp:425] lstm1_transform_1 <- h_conted_0
I0922 22:37:34.578137 32458 net.cpp:399] lstm1_transform_1 -> W_hc_h_0
I0922 22:37:34.578140 32478 net.cpp:148] Top shape: 1 1 1000 (1000)
I0922 22:37:34.578150 32478 net.cpp:148] Top shape: 1 1 1000 (1000)
I0922 22:37:34.578158 32478 net.cpp:156] Memory required for data: 86016
I0922 22:37:34.578167 32478 layer_factory.hpp:77] Creating layer lstm1_
I0922 22:37:34.578184 32478 net.cpp:91] Creating Layer lstm1_
I0922 22:37:34.578192 32478 net.cpp:425] lstm1_ <- c_1
I0922 22:37:34.578205 32478 net.cpp:399] lstm1_ -> c_T
I0922 22:37:34.586606 32456 net.cpp:141] Setting up conv1
I0922 22:37:34.586642 32478 net.cpp:141] Setting up lstm1_
I0922 22:37:34.586665 32456 net.cpp:148] Top shape: 10 96 55 55 (2904000)
I0922 22:37:34.586665 32478 net.cpp:148] Top shape: 1 1 1000 (1000)
I0922 22:37:34.586679 32456 net.cpp:156] Memory required for data: 17799480
I0922 22:37:34.586683 32478 net.cpp:156] Memory required for data: 90016
I0922 22:37:34.586694 32478 layer_factory.hpp:77] Creating layer lstm1_h_concat
I0922 22:37:34.586709 32456 layer_factory.hpp:77] Creating layer relu1
I0922 22:37:34.586730 32456 net.cpp:91] Creating Layer relu1
I0922 22:37:34.586740 32456 net.cpp:425] relu1 <- conv1
I0922 22:37:34.586747 32478 net.cpp:91] Creating Layer lstm1_h_concat
I0922 22:37:34.586756 32456 net.cpp:386] relu1 -> conv1 (in-place)
I0922 22:37:34.586760 32478 net.cpp:425] lstm1_h_concat <- h_1
I0922 22:37:34.586778 32478 net.cpp:399] lstm1_h_concat -> h
I0922 22:37:34.587317 32478 net.cpp:141] Setting up lstm1_h_concat
I0922 22:37:34.587337 32478 net.cpp:148] Top shape: 1 1 1000 (1000)
I0922 22:37:34.587343 32478 net.cpp:156] Memory required for data: 94016
I0922 22:37:34.587357 32478 layer_factory.hpp:77] Creating layer h_pseudoloss
I0922 22:37:34.587371 32478 net.cpp:91] Creating Layer h_pseudoloss
I0922 22:37:34.587378 32478 net.cpp:425] h_pseudoloss <- h
I0922 22:37:34.587396 32478 net.cpp:399] h_pseudoloss -> h_pseudoloss
I0922 22:37:34.587568 32478 net.cpp:141] Setting up h_pseudoloss
I0922 22:37:34.587584 32478 net.cpp:148] Top shape: (1)
I0922 22:37:34.587596 32478 net.cpp:151]     with loss weight 1
I0922 22:37:34.587620 32456 net.cpp:141] Setting up relu1
I0922 22:37:34.587625 32478 net.cpp:156] Memory required for data: 94020
I0922 22:37:34.587642 32456 net.cpp:148] Top shape: 10 96 55 55 (2904000)
I0922 22:37:34.587642 32478 net.cpp:217] h_pseudoloss needs backward computation.
I0922 22:37:34.587654 32456 net.cpp:156] Memory required for data: 29415480
I0922 22:37:34.587658 32478 net.cpp:217] lstm1_h_concat needs backward computation.
I0922 22:37:34.587663 32456 layer_factory.hpp:77] Creating layer pool1
I0922 22:37:34.587668 32478 net.cpp:219] lstm1_ does not need backward computation.
…
I0922 22:37:34.587736 32478 net.cpp:219] cont_1_lstm1_cont_slice_0_split does not need backward computation.
I0922 22:37:34.587745 32478 net.cpp:219] lstm1_cont_slice does not need backward computation.
I0922 22:37:34.587754 32478 net.cpp:219] lstm1_ does not need backward computation.
I0922 22:37:34.587761 32478 net.cpp:219] lstm1_ does not need backward computation.
I0922 22:37:34.587767 32478 net.cpp:261] This network produces output c_T
I0922 22:37:34.587774 32478 net.cpp:261] This network produces output h_pseudoloss
I0922 22:37:34.587802 32478 net.cpp:274] Network initialization done.
I0922 22:37:34.587810 32456 net.cpp:141] Setting up pool1
I0922 22:37:34.587827 32456 net.cpp:148] Top shape: 10 96 27 27 (699840)
I0922 22:37:34.587834 32456 net.cpp:156] Memory required for data: 32214840
I0922 22:37:34.587842 32456 layer_factory.hpp:77] Creating layer norm1
I0922 22:37:34.587867 32456 net.cpp:91] Creating Layer norm1
I0922 22:37:34.587869 32478 recurrent_layer.cpp:150] Adding parameter 0: W_xc
I0922 22:37:34.587875 32456 net.cpp:425] norm1 <- pool1
I0922 22:37:34.587880 32478 recurrent_layer.cpp:150] Adding parameter 1: b_c
I0922 22:37:34.587888 32456 net.cpp:399] norm1 -> norm1
I0922 22:37:34.587888 32478 recurrent_layer.cpp:150] Adding parameter 2: W_hc
I0922 22:37:34.588333 32478 net.cpp:141] Setting up lstm1
I0922 22:37:34.588351 32478 net.cpp:148] Top shape: 1 1 1000 (1000)
I0922 22:37:34.588357 32478 net.cpp:156] Memory required for data: 26408
I0922 22:37:34.588379 32478 layer_factory.hpp:77] Creating layer concat
I0922 22:37:34.588392 32478 net.cpp:91] Creating Layer concat
I0922 22:37:34.588402 32478 net.cpp:425] concat <- lstm1
I0922 22:37:34.588412 32478 net.cpp:425] concat <- embedded_input_sentence
I0922 22:37:34.588420 32478 net.cpp:425] concat <- reshaped_stage_indicator
I0922 22:37:34.588431 32478 net.cpp:399] concat -> lstm1_video_sequence
I0922 22:37:34.588438 32456 net.cpp:141] Setting up norm1
I0922 22:37:34.588454 32456 net.cpp:148] Top shape: 10 96 27 27 (699840)
I0922 22:37:34.588464 32456 net.cpp:156] Memory required for data: 35014200
I0922 22:37:34.588471 32456 layer_factory.hpp:77] Creating layer conv2
I0922 22:37:34.588481 32478 net.cpp:141] Setting up concat
I0922 22:37:34.588490 32456 net.cpp:91] Creating Layer conv2
I0922 22:37:34.588500 32456 net.cpp:425] conv2 <- norm1
I0922 22:37:34.588500 32478 net.cpp:148] Top shape: 1 1 1501 (1501)
I0922 22:37:34.588518 32456 net.cpp:399] conv2 -> conv2
I0922 22:37:34.588524 32478 net.cpp:156] Memory required for data: 32412
I0922 22:37:34.588534 32478 layer_factory.hpp:77] Creating layer lstm2
I0922 22:37:34.588551 32478 net.cpp:91] Creating Layer lstm2
I0922 22:37:34.588562 32478 net.cpp:425] lstm2 <- lstm1_video_sequence
I0922 22:37:34.588573 32478 net.cpp:425] lstm2 <- cont_sentence_input_1_split_1
I0922 22:37:34.588587 32478 net.cpp:399] lstm2 -> lstm2
I0922 22:37:34.588603 32478 recurrent_layer.cpp:20] Initializing recurrent layer: assuming input batch contains 1 timesteps of 1 independent streams.
I0922 22:37:34.589491 32478 net.cpp:49] Initializing net from parameters: 
layer {
  name: "lstm2_"
  type: "Input"
  top: "x"
  top: "cont"
  input_param {
    shape {
      dim: 1
      dim: 1
      dim: 1501
    }
    shape {
      dim: 1
      dim: 1
    }
  }
}
layer {
  name: "lstm2_"
  type: "Input"
  top: "c_0"
  top: "h_0"
  input_param {
    shape {
      dim: 1
      dim: 1
      dim: 1000
    }
    shape {
      dim: 1
      dim: 1
      dim: 1000
    }
  }
}
layer {
  name: "lstm2_cont_slice"
  type: "Slice"
  bottom: "cont"
  top: "cont_1"
  slice_param {
    axis: 0
  }
}
layer {
  name: "lstm2_x_transform"
  type: "InnerProduct"
  bottom: "x"
  top: "W_xc_x"
  param {
    name: "W_xc"
  }
  param {
    name: "b_c"
  }
  propagate_down: true
  inner_product_param {
    num_output: 4000
    bias_term: true
    weight_filler {
      type: "uniform"
      min: -0.08
      max: 0.08
    }
    bias_filler {
      type: "constant"
      value: 0
    }
    axis: 2
  }
}
layer {
  name: "lstm2_W_xc_x_slice"
  type: "Slice"
  bottom: "W_xc_x"
  top: "W_xc_x_1"
  slice_param {
    axis: 0
  }
}
layer {
  name: "lstm2_h_conted_0"
  type: "Scale"
  bottom: "h_0"
  bottom: "cont_1"
  top: "h_conted_0"
  scale_param {
    axis: 0
  }
}
layer {
  name: "lstm2_transform_1"
  type: "InnerProduct"
  bottom: "h_conted_0"
  top: "W_hc_h_0"
  param {
    name: "W_hc"
  }
  inner_product_param {
    num_output: 4000
    bias_term: false
    weight_filler {
      type: "uniform"
      min: -0.08
      max: 0.08
    }
    axis: 2
  }
}
layer {
  name: "lstm2_gate_input_1"
  type: "Eltwise"
  bottom: "W_hc_h_0"
  bottom: "W_xc_x_1"
  top: "gate_input_1"
  eltwise_param {
    operation: SUM
  }
}
layer {
  name: "lstm2_unit_1"
  type: "LSTMUnit"
  bottom: "c_0"
  bottom: "gate_input_1"
  bottom: "cont_1"
  top: "c_1"
  top: "h_1"
}
layer {
  name: "lstm2_"
  type: "Split"
  bottom: "c_1"
  top: "c_T"
}
layer {
  name: "lstm2_h_concat"
  type: "Concat"
  bottom: "h_1"
  top: "h"
  concat_param {
    axis: 0
  }
}
layer {
  name: "h_pseudoloss"
  type: "Reduction"
  bottom: "h"
  top: "h_pseudoloss"
  loss_weight: 1
}
I0922 22:37:34.589627 32478 layer_factory.hpp:77] Creating layer lstm2_
I0922 22:37:34.589645 32478 net.cpp:91] Creating Layer lstm2_
I0922 22:37:34.589656 32478 net.cpp:399] lstm2_ -> x
I0922 22:37:34.589673 32478 net.cpp:399] lstm2_ -> cont
I0922 22:37:34.589874 32478 net.cpp:141] Setting up lstm2_
I0922 22:37:34.589890 32478 net.cpp:148] Top shape: 1 1 1501 (1501)
I0922 22:37:34.589901 32478 net.cpp:148] Top shape: 1 1 (1)
I0922 22:37:34.589908 32478 net.cpp:156] Memory required for data: 6008
I0922 22:37:34.589915 32478 layer_factory.hpp:77] Creating layer lstm2_
I0922 22:37:34.589929 32478 net.cpp:91] Creating Layer lstm2_
I0922 22:37:34.589939 32478 net.cpp:399] lstm2_ -> c_0
I0922 22:37:34.589956 32478 net.cpp:399] lstm2_ -> h_0
I0922 22:37:34.590109 32478 net.cpp:141] Setting up lstm2_
I0922 22:37:34.590126 32478 net.cpp:148] Top shape: 1 1 1000 (1000)
I0922 22:37:34.590137 32478 net.cpp:148] Top shape: 1 1 1000 (1000)
I0922 22:37:34.590143 32478 net.cpp:156] Memory required for data: 14008
I0922 22:37:34.590150 32478 layer_factory.hpp:77] Creating layer lstm2_cont_slice
I0922 22:37:34.590163 32478 net.cpp:91] Creating Layer lstm2_cont_slice
I0922 22:37:34.590172 32478 net.cpp:425] lstm2_cont_slice <- cont
I0922 22:37:34.590183 32478 net.cpp:399] lstm2_cont_slice -> cont_1
I0922 22:37:34.590387 32478 net.cpp:141] Setting up lstm2_cont_slice
I0922 22:37:34.590402 32478 net.cpp:148] Top shape: 1 1 (1)
I0922 22:37:34.590409 32478 net.cpp:156] Memory required for data: 14012
I0922 22:37:34.590416 32478 layer_factory.hpp:77] Creating layer cont_1_lstm2_cont_slice_0_split
I0922 22:37:34.590428 32478 net.cpp:91] Creating Layer cont_1_lstm2_cont_slice_0_split
I0922 22:37:34.590436 32478 net.cpp:425] cont_1_lstm2_cont_slice_0_split <- cont_1
I0922 22:37:34.590446 32478 net.cpp:399] cont_1_lstm2_cont_slice_0_split -> cont_1_lstm2_cont_slice_0_split_0
I0922 22:37:34.590459 32478 net.cpp:399] cont_1_lstm2_cont_slice_0_split -> cont_1_lstm2_cont_slice_0_split_1
I0922 22:37:34.590657 32478 net.cpp:141] Setting up cont_1_lstm2_cont_slice_0_split
I0922 22:37:34.590673 32478 net.cpp:148] Top shape: 1 1 (1)
I0922 22:37:34.590683 32478 net.cpp:148] Top shape: 1 1 (1)
I0922 22:37:34.590689 32478 net.cpp:156] Memory required for data: 14020
I0922 22:37:34.590698 32478 layer_factory.hpp:77] Creating layer lstm2_x_transform
I0922 22:37:34.590713 32478 net.cpp:91] Creating Layer lstm2_x_transform
I0922 22:37:34.590720 32478 net.cpp:425] lstm2_x_transform <- x
I0922 22:37:34.590737 32478 net.cpp:399] lstm2_x_transform -> W_xc_x
I0922 22:37:34.607560 32456 net.cpp:141] Setting up conv2
I0922 22:37:34.607619 32456 net.cpp:148] Top shape: 10 256 27 27 (1866240)
I0922 22:37:34.607628 32456 net.cpp:156] Memory required for data: 42479160
I0922 22:37:34.607656 32456 layer_factory.hpp:77] Creating layer relu2
I0922 22:37:34.607678 32456 net.cpp:91] Creating Layer relu2
I0922 22:37:34.607688 32456 net.cpp:425] relu2 <- conv2
I0922 22:37:34.607702 32456 net.cpp:386] relu2 -> conv2 (in-place)
I0922 22:37:34.608270 32456 net.cpp:141] Setting up relu2
I0922 22:37:34.608289 32456 net.cpp:148] Top shape: 10 256 27 27 (1866240)
I0922 22:37:34.608296 32456 net.cpp:156] Memory required for data: 49944120
I0922 22:37:34.608304 32456 layer_factory.hpp:77] Creating layer pool2
I0922 22:37:34.608319 32456 net.cpp:91] Creating Layer pool2
I0922 22:37:34.608328 32456 net.cpp:425] pool2 <- conv2
I0922 22:37:34.608341 32456 net.cpp:399] pool2 -> pool2
I0922 22:37:34.608420 32456 net.cpp:141] Setting up pool2
I0922 22:37:34.608436 32456 net.cpp:148] Top shape: 10 256 13 13 (432640)
I0922 22:37:34.608444 32456 net.cpp:156] Memory required for data: 51674680
I0922 22:37:34.608451 32456 layer_factory.hpp:77] Creating layer norm2
I0922 22:37:34.608469 32456 net.cpp:91] Creating Layer norm2
I0922 22:37:34.608479 32456 net.cpp:425] norm2 <- pool2
I0922 22:37:34.608490 32456 net.cpp:399] norm2 -> norm2
I0922 22:37:34.608862 32456 net.cpp:141] Setting up norm2
I0922 22:37:34.608880 32456 net.cpp:148] Top shape: 10 256 13 13 (432640)
I0922 22:37:34.608888 32456 net.cpp:156] Memory required for data: 53405240
I0922 22:37:34.608896 32456 layer_factory.hpp:77] Creating layer conv3
I0922 22:37:34.608916 32456 net.cpp:91] Creating Layer conv3
I0922 22:37:34.608924 32456 net.cpp:425] conv3 <- norm2
I0922 22:37:34.608937 32456 net.cpp:399] conv3 -> conv3
I0922 22:37:34.613821 32456 net.cpp:141] Setting up conv3
I0922 22:37:34.613870 32456 net.cpp:148] Top shape: 10 384 13 13 (648960)
I0922 22:37:34.613879 32456 net.cpp:156] Memory required for data: 56001080
I0922 22:37:34.613905 32456 layer_factory.hpp:77] Creating layer relu3
I0922 22:37:34.613924 32456 net.cpp:91] Creating Layer relu3
I0922 22:37:34.613934 32456 net.cpp:425] relu3 <- conv3
I0922 22:37:34.613946 32456 net.cpp:386] relu3 -> conv3 (in-place)
I0922 22:37:34.614276 32456 net.cpp:141] Setting up relu3
I0922 22:37:34.614294 32456 net.cpp:148] Top shape: 10 384 13 13 (648960)
I0922 22:37:34.614300 32456 net.cpp:156] Memory required for data: 58596920
I0922 22:37:34.614308 32456 layer_factory.hpp:77] Creating layer conv4
I0922 22:37:34.614329 32456 net.cpp:91] Creating Layer conv4
I0922 22:37:34.614337 32456 net.cpp:425] conv4 <- conv3
I0922 22:37:34.614353 32456 net.cpp:399] conv4 -> conv4
I0922 22:37:34.620376 32456 net.cpp:141] Setting up conv4
I0922 22:37:34.620434 32456 net.cpp:148] Top shape: 10 384 13 13 (648960)
I0922 22:37:34.620445 32456 net.cpp:156] Memory required for data: 61192760
I0922 22:37:34.620465 32456 layer_factory.hpp:77] Creating layer relu4
I0922 22:37:34.620492 32456 net.cpp:91] Creating Layer relu4
I0922 22:37:34.620503 32456 net.cpp:425] relu4 <- conv4
I0922 22:37:34.620515 32456 net.cpp:386] relu4 -> conv4 (in-place)
I0922 22:37:34.621222 32456 net.cpp:141] Setting up relu4
I0922 22:37:34.621239 32456 net.cpp:148] Top shape: 10 384 13 13 (648960)
I0922 22:37:34.621246 32456 net.cpp:156] Memory required for data: 63788600
I0922 22:37:34.621255 32456 layer_factory.hpp:77] Creating layer conv5
I0922 22:37:34.621279 32456 net.cpp:91] Creating Layer conv5
I0922 22:37:34.621286 32456 net.cpp:425] conv5 <- conv4
I0922 22:37:34.621302 32456 net.cpp:399] conv5 -> conv5
I0922 22:37:34.626133 32456 net.cpp:141] Setting up conv5
I0922 22:37:34.626180 32456 net.cpp:148] Top shape: 10 256 13 13 (432640)
I0922 22:37:34.626188 32456 net.cpp:156] Memory required for data: 65519160
I0922 22:37:34.626214 32456 layer_factory.hpp:77] Creating layer relu5
I0922 22:37:34.626229 32456 net.cpp:91] Creating Layer relu5
I0922 22:37:34.626237 32456 net.cpp:425] relu5 <- conv5
I0922 22:37:34.626253 32456 net.cpp:386] relu5 -> conv5 (in-place)
I0922 22:37:34.626842 32462 net.cpp:141] Setting up lstm2_x_transform
I0922 22:37:34.626859 32462 net.cpp:148] Top shape: 1 1 4000 (4000)
I0922 22:37:34.626865 32462 net.cpp:156] Memory required for data: 30020
I0922 22:37:34.626879 32462 layer_factory.hpp:77] Creating layer lstm2_W_xc_x_slice
I0922 22:37:34.626890 32462 net.cpp:91] Creating Layer lstm2_W_xc_x_slice
I0922 22:37:34.626898 32462 net.cpp:425] lstm2_W_xc_x_slice <- W_xc_x
I0922 22:37:34.626906 32462 net.cpp:399] lstm2_W_xc_x_slice -> W_xc_x_1
I0922 22:37:34.626965 32462 net.cpp:141] Setting up lstm2_W_xc_x_slice
I0922 22:37:34.626976 32462 net.cpp:148] Top shape: 1 1 4000 (4000)
I0922 22:37:34.626981 32462 net.cpp:156] Memory required for data: 46020
I0922 22:37:34.626977 32456 net.cpp:141] Setting up relu5
I0922 22:37:34.626987 32462 layer_factory.hpp:77] Creating layer lstm2_h_conted_0
I0922 22:37:34.626996 32456 net.cpp:148] Top shape: 10 256 13 13 (432640)
I0922 22:37:34.626998 32462 net.cpp:91] Creating Layer lstm2_h_conted_0
I0922 22:37:34.627008 32456 net.cpp:156] Memory required for data: 67249720
I0922 22:37:34.627012 32462 net.cpp:425] lstm2_h_conted_0 <- h_0
I0922 22:37:34.627017 32456 layer_factory.hpp:77] Creating layer pool5
I0922 22:37:34.627025 32462 net.cpp:425] lstm2_h_conted_0 <- cont_1_lstm2_cont_slice_0_split_0
I0922 22:37:34.627043 32462 net.cpp:399] lstm2_h_conted_0 -> h_conted_0
I0922 22:37:34.627046 32456 net.cpp:91] Creating Layer pool5
I0922 22:37:34.627056 32456 net.cpp:425] pool5 <- conv5
I0922 22:37:34.627068 32456 net.cpp:399] pool5 -> pool5
I0922 22:37:34.627145 32462 net.cpp:141] Setting up lstm2_h_conted_0
I0922 22:37:34.627156 32462 net.cpp:148] Top shape: 1 1 1000 (1000)
I0922 22:37:34.627164 32462 net.cpp:156] Memory required for data: 50020
I0922 22:37:34.627171 32462 layer_factory.hpp:77] Creating layer lstm2_transform_1
I0922 22:37:34.627190 32462 net.cpp:91] Creating Layer lstm2_transform_1
I0922 22:37:34.627199 32462 net.cpp:425] lstm2_transform_1 <- h_conted_0
I0922 22:37:34.627212 32462 net.cpp:399] lstm2_transform_1 -> W_hc_h_0
I0922 22:37:34.627215 32456 net.cpp:141] Setting up pool5
I0922 22:37:34.627231 32456 net.cpp:148] Top shape: 10 256 6 6 (92160)
I0922 22:37:34.627238 32456 net.cpp:156] Memory required for data: 67618360
I0922 22:37:34.627246 32456 layer_factory.hpp:77] Creating layer fc6
I0922 22:37:34.627264 32456 net.cpp:91] Creating Layer fc6
I0922 22:37:34.627270 32456 net.cpp:425] fc6 <- pool5
I0922 22:37:34.627287 32456 net.cpp:399] fc6 -> fc6
I0922 22:37:34.637163 32458 net.cpp:141] Setting up lstm1_transform_1
I0922 22:37:34.637217 32458 net.cpp:148] Top shape: 1 1 4000 (4000)
I0922 22:37:34.637228 32458 net.cpp:156] Memory required for data: 62016
I0922 22:37:34.637253 32458 layer_factory.hpp:77] Creating layer lstm1_gate_input_1
I0922 22:37:34.637281 32458 net.cpp:91] Creating Layer lstm1_gate_input_1
I0922 22:37:34.637293 32458 net.cpp:425] lstm1_gate_input_1 <- W_hc_h_0
I0922 22:37:34.637305 32458 net.cpp:425] lstm1_gate_input_1 <- W_xc_x_1
I0922 22:37:34.637317 32458 net.cpp:399] lstm1_gate_input_1 -> gate_input_1
I0922 22:37:34.706848 32458 net.cpp:141] Setting up lstm1_gate_input_1
I0922 22:37:34.706909 32458 net.cpp:148] Top shape: 1 1 4000 (4000)
I0922 22:37:34.706921 32458 net.cpp:156] Memory required for data: 78016
I0922 22:37:34.706935 32458 layer_factory.hpp:77] Creating layer lstm1_unit_1
I0922 22:37:34.706956 32458 net.cpp:91] Creating Layer lstm1_unit_1
I0922 22:37:34.706969 32458 net.cpp:425] lstm1_unit_1 <- c_0
I0922 22:37:34.706969 32462 net.cpp:141] Setting up lstm2_transform_1
I0922 22:37:34.706984 32458 net.cpp:425] lstm1_unit_1 <- gate_input_1
I0922 22:37:34.706992 32462 net.cpp:148] Top shape: 1 1 4000 (4000)
I0922 22:37:34.706995 32458 net.cpp:425] lstm1_unit_1 <- cont_1_lstm1_cont_slice_0_split_1
I0922 22:37:34.707001 32462 net.cpp:156] Memory required for data: 66020
I0922 22:37:34.707010 32458 net.cpp:399] lstm1_unit_1 -> c_1
I0922 22:37:34.707036 32462 layer_factory.hpp:77] Creating layer lstm2_gate_input_1
I0922 22:37:34.707057 32462 net.cpp:91] Creating Layer lstm2_gate_input_1
I0922 22:37:34.707068 32462 net.cpp:425] lstm2_gate_input_1 <- W_hc_h_0
I0922 22:37:34.707067 32458 net.cpp:399] lstm1_unit_1 -> h_1
I0922 22:37:34.707080 32462 net.cpp:425] lstm2_gate_input_1 <- W_xc_x_1
I0922 22:37:34.707099 32462 net.cpp:399] lstm2_gate_input_1 -> gate_input_1
I0922 22:37:34.707118 32478 net.cpp:141] Setting up lstm2_x_transform
I0922 22:37:34.707139 32478 net.cpp:148] Top shape: 1 1 4000 (4000)
I0922 22:37:34.707146 32478 net.cpp:156] Memory required for data: 30020
I0922 22:37:34.707165 32478 layer_factory.hpp:77] Creating layer lstm2_W_xc_x_slice
I0922 22:37:34.707181 32478 net.cpp:91] Creating Layer lstm2_W_xc_x_slice
I0922 22:37:34.707190 32478 net.cpp:425] lstm2_W_xc_x_slice <- W_xc_x
I0922 22:37:34.707208 32462 net.cpp:141] Setting up lstm2_gate_input_1
I0922 22:37:34.707211 32478 net.cpp:399] lstm2_W_xc_x_slice -> W_xc_x_1
I0922 22:37:34.707238 32462 net.cpp:148] Top shape: 1 1 4000 (4000)
I0922 22:37:34.707247 32462 net.cpp:156] Memory required for data: 82020
I0922 22:37:34.707255 32462 layer_factory.hpp:77] Creating layer lstm2_unit_1
I0922 22:37:34.707267 32462 net.cpp:91] Creating Layer lstm2_unit_1
I0922 22:37:34.707274 32462 net.cpp:425] lstm2_unit_1 <- c_0
I0922 22:37:34.707284 32462 net.cpp:425] lstm2_unit_1 <- gate_input_1
I0922 22:37:34.707288 32478 net.cpp:141] Setting up lstm2_W_xc_x_slice
I0922 22:37:34.707293 32462 net.cpp:425] lstm2_unit_1 <- cont_1_lstm2_cont_slice_0_split_1
I0922 22:37:34.707304 32478 net.cpp:148] Top shape: 1 1 4000 (4000)
I0922 22:37:34.707304 32462 net.cpp:399] lstm2_unit_1 -> c_1
I0922 22:37:34.707324 32478 net.cpp:156] Memory required for data: 46020
I0922 22:37:34.707331 32478 layer_factory.hpp:77] Creating layer lstm2_h_conted_0
I0922 22:37:34.707336 32462 net.cpp:399] lstm2_unit_1 -> h_1
I0922 22:37:34.707346 32478 net.cpp:91] Creating Layer lstm2_h_conted_0
I0922 22:37:34.707356 32478 net.cpp:425] lstm2_h_conted_0 <- h_0
I0922 22:37:34.707365 32478 net.cpp:425] lstm2_h_conted_0 <- cont_1_lstm2_cont_slice_0_split_0
I0922 22:37:34.707376 32478 net.cpp:399] lstm2_h_conted_0 -> h_conted_0
I0922 22:37:34.707455 32462 net.cpp:141] Setting up lstm2_unit_1
I0922 22:37:34.707471 32462 net.cpp:148] Top shape: 1 1 1000 (1000)
I0922 22:37:34.707480 32462 net.cpp:148] Top shape: 1 1 1000 (1000)
I0922 22:37:34.707487 32462 net.cpp:156] Memory required for data: 90020
I0922 22:37:34.707495 32462 layer_factory.hpp:77] Creating layer lstm2_
I0922 22:37:34.707507 32462 net.cpp:91] Creating Layer lstm2_
I0922 22:37:34.707515 32462 net.cpp:425] lstm2_ <- c_1
I0922 22:37:34.707525 32462 net.cpp:399] lstm2_ -> c_T
I0922 22:37:34.707584 32478 net.cpp:141] Setting up lstm2_h_conted_0
I0922 22:37:34.707599 32478 net.cpp:148] Top shape: 1 1 1000 (1000)
I0922 22:37:34.707607 32478 net.cpp:156] Memory required for data: 50020
I0922 22:37:34.707615 32478 layer_factory.hpp:77] Creating layer lstm2_transform_1
I0922 22:37:34.707615 32462 net.cpp:141] Setting up lstm2_
I0922 22:37:34.707631 32462 net.cpp:148] Top shape: 1 1 1000 (1000)
I0922 22:37:34.707631 32478 net.cpp:91] Creating Layer lstm2_transform_1
I0922 22:37:34.707638 32462 net.cpp:156] Memory required for data: 94020
I0922 22:37:34.707641 32478 net.cpp:425] lstm2_transform_1 <- h_conted_0
I0922 22:37:34.707646 32462 layer_factory.hpp:77] Creating layer lstm2_h_concat
I0922 22:37:34.707660 32478 net.cpp:399] lstm2_transform_1 -> W_hc_h_0
I0922 22:37:34.707669 32462 net.cpp:91] Creating Layer lstm2_h_concat
I0922 22:37:34.707679 32462 net.cpp:425] lstm2_h_concat <- h_1
I0922 22:37:34.707690 32462 net.cpp:399] lstm2_h_concat -> h
I0922 22:37:34.707772 32462 net.cpp:141] Setting up lstm2_h_concat
I0922 22:37:34.707785 32462 net.cpp:148] Top shape: 1 1 1000 (1000)
I0922 22:37:34.707792 32462 net.cpp:156] Memory required for data: 98020
I0922 22:37:34.707800 32462 layer_factory.hpp:77] Creating layer h_pseudoloss
I0922 22:37:34.707813 32462 net.cpp:91] Creating Layer h_pseudoloss
I0922 22:37:34.707820 32462 net.cpp:425] h_pseudoloss <- h
I0922 22:37:34.707861 32462 net.cpp:399] h_pseudoloss -> h_pseudoloss
I0922 22:37:34.718050 32458 net.cpp:141] Setting up lstm1_unit_1
I0922 22:37:34.718049 32462 net.cpp:141] Setting up h_pseudoloss
I0922 22:37:34.718113 32458 net.cpp:148] Top shape: 1 1 1000 (1000)
I0922 22:37:34.718114 32462 net.cpp:148] Top shape: (1)
I0922 22:37:34.718132 32458 net.cpp:148] Top shape: 1 1 1000 (1000)
I0922 22:37:34.718140 32458 net.cpp:156] Memory required for data: 86016
I0922 22:37:34.718132 32462 net.cpp:151]     with loss weight 1
I0922 22:37:34.718153 32458 layer_factory.hpp:77] Creating layer lstm1_
I0922 22:37:34.718160 32462 net.cpp:156] Memory required for data: 98024
I0922 22:37:34.718169 32462 net.cpp:217] h_pseudoloss needs backward computation.
I0922 22:37:34.718179 32462 net.cpp:217] lstm2_h_concat needs backward computation.
…
I0922 22:37:34.718861 32458 net.cpp:219] lstm1_ does not need backward computation.
I0922 22:37:34.718868 32458 net.cpp:261] This network produces output c_T
I0922 22:37:34.718875 32458 net.cpp:261] This network produces output h_pseudoloss
I0922 22:37:34.718897 32458 net.cpp:274] Network initialization done.
I0922 22:37:34.718963 32458 recurrent_layer.cpp:150] Adding parameter 0: W_xc
I0922 22:37:34.718976 32458 recurrent_layer.cpp:150] Adding parameter 1: b_c
I0922 22:37:34.718986 32458 recurrent_layer.cpp:150] Adding parameter 2: W_hc
I0922 22:37:34.805994 32478 net.cpp:141] Setting up lstm2_transform_1
I0922 22:37:34.806047 32478 net.cpp:148] Top shape: 1 1 4000 (4000)
I0922 22:37:34.806053 32478 net.cpp:156] Memory required for data: 66020
I0922 22:37:34.806071 32478 layer_factory.hpp:77] Creating layer lstm2_gate_input_1
I0922 22:37:34.806089 32478 net.cpp:91] Creating Layer lstm2_gate_input_1
I0922 22:37:34.806097 32478 net.cpp:425] lstm2_gate_input_1 <- W_hc_h_0
I0922 22:37:34.806104 32478 net.cpp:425] lstm2_gate_input_1 <- W_xc_x_1
I0922 22:37:34.806116 32478 net.cpp:399] lstm2_gate_input_1 -> gate_input_1
I0922 22:37:34.806174 32456 net.cpp:141] Setting up fc6
I0922 22:37:34.806193 32456 net.cpp:148] Top shape: 10 4096 (40960)
I0922 22:37:34.806198 32456 net.cpp:156] Memory required for data: 67782200
I0922 22:37:34.806207 32478 net.cpp:141] Setting up lstm2_gate_input_1
I0922 22:37:34.806210 32456 layer_factory.hpp:77] Creating layer relu6
I0922 22:37:34.806221 32478 net.cpp:148] Top shape: 1 1 4000 (4000)
I0922 22:37:34.806226 32478 net.cpp:156] Memory required for data: 82020
I0922 22:37:34.806231 32456 net.cpp:91] Creating Layer relu6
I0922 22:37:34.806231 32478 layer_factory.hpp:77] Creating layer lstm2_unit_1
I0922 22:37:34.806241 32456 net.cpp:425] relu6 <- fc6
I0922 22:37:34.806248 32478 net.cpp:91] Creating Layer lstm2_unit_1
I0922 22:37:34.806248 32456 net.cpp:386] relu6 -> fc6 (in-place)
I0922 22:37:34.806257 32478 net.cpp:425] lstm2_unit_1 <- c_0
I0922 22:37:34.806262 32478 net.cpp:425] lstm2_unit_1 <- gate_input_1
I0922 22:37:34.806268 32478 net.cpp:425] lstm2_unit_1 <- cont_1_lstm2_cont_slice_0_split_1
I0922 22:37:34.806275 32478 net.cpp:399] lstm2_unit_1 -> c_1
I0922 22:37:34.806288 32478 net.cpp:399] lstm2_unit_1 -> h_1
I0922 22:37:34.806295 32458 net.cpp:141] Setting up lstm1
I0922 22:37:34.806334 32458 net.cpp:148] Top shape: 1 1 1000 (1000)
I0922 22:37:34.806350 32458 net.cpp:156] Memory required for data: 26408
I0922 22:37:34.806390 32458 layer_factory.hpp:77] Creating layer concat
I0922 22:37:34.806416 32458 net.cpp:91] Creating Layer concat
I0922 22:37:34.806434 32458 net.cpp:425] concat <- lstm1
I0922 22:37:34.806454 32458 net.cpp:425] concat <- embedded_input_sentence
I0922 22:37:34.806473 32458 net.cpp:425] concat <- reshaped_stage_indicator
I0922 22:37:34.806495 32458 net.cpp:399] concat -> lstm1_video_sequence
I0922 22:37:34.806532 32478 net.cpp:141] Setting up lstm2_unit_1
I0922 22:37:34.806545 32478 net.cpp:148] Top shape: 1 1 1000 (1000)
I0922 22:37:34.806550 32478 net.cpp:148] Top shape: 1 1 1000 (1000)
I0922 22:37:34.806555 32478 net.cpp:156] Memory required for data: 90020
I0922 22:37:34.806560 32478 layer_factory.hpp:77] Creating layer lstm2_
I0922 22:37:34.806567 32478 net.cpp:91] Creating Layer lstm2_
I0922 22:37:34.806572 32478 net.cpp:425] lstm2_ <- c_1
I0922 22:37:34.806579 32478 net.cpp:399] lstm2_ -> c_T
I0922 22:37:34.806602 32458 net.cpp:141] Setting up concat
I0922 22:37:34.806617 32478 net.cpp:141] Setting up lstm2_
I0922 22:37:34.806632 32478 net.cpp:148] Top shape: 1 1 1000 (1000)
I0922 22:37:34.806629 32458 net.cpp:148] Top shape: 1 1 1501 (1501)
I0922 22:37:34.806637 32478 net.cpp:156] Memory required for data: 94020
I0922 22:37:34.806650 32478 layer_factory.hpp:77] Creating layer lstm2_h_concat
I0922 22:37:34.806651 32458 net.cpp:156] Memory required for data: 32412
I0922 22:37:34.806659 32478 net.cpp:91] Creating Layer lstm2_h_concat
I0922 22:37:34.806665 32478 net.cpp:425] lstm2_h_concat <- h_1
I0922 22:37:34.806668 32458 layer_factory.hpp:77] Creating layer lstm2
I0922 22:37:34.806674 32478 net.cpp:399] lstm2_h_concat -> h
I0922 22:37:34.806704 32458 net.cpp:91] Creating Layer lstm2
I0922 22:37:34.806722 32458 net.cpp:425] lstm2 <- lstm1_video_sequence
I0922 22:37:34.806741 32458 net.cpp:425] lstm2 <- cont_sentence_input_1_split_1
I0922 22:37:34.806747 32478 net.cpp:141] Setting up lstm2_h_concat
I0922 22:37:34.806758 32478 net.cpp:148] Top shape: 1 1 1000 (1000)
I0922 22:37:34.806762 32478 net.cpp:156] Memory required for data: 98020
I0922 22:37:34.806767 32478 layer_factory.hpp:77] Creating layer h_pseudoloss
I0922 22:37:34.806766 32458 net.cpp:399] lstm2 -> lstm2
I0922 22:37:34.806807 32458 recurrent_layer.cpp:20] Initializing recurrent layer: assuming input batch contains 1 timesteps of 1 independent streams.
I0922 22:37:34.806818 32478 net.cpp:91] Creating Layer h_pseudoloss
I0922 22:37:34.806825 32478 net.cpp:425] h_pseudoloss <- h
I0922 22:37:34.806833 32478 net.cpp:399] h_pseudoloss -> h_pseudoloss
I0922 22:37:34.806831 32456 net.cpp:141] Setting up relu6
I0922 22:37:34.806845 32456 net.cpp:148] Top shape: 10 4096 (40960)
I0922 22:37:34.806851 32456 net.cpp:156] Memory required for data: 67946040
I0922 22:37:34.806856 32456 layer_factory.hpp:77] Creating layer drop6
I0922 22:37:34.806880 32456 net.cpp:91] Creating Layer drop6
I0922 22:37:34.806886 32456 net.cpp:425] drop6 <- fc6
I0922 22:37:34.806895 32456 net.cpp:386] drop6 -> fc6 (in-place)
I0922 22:37:34.806921 32478 net.cpp:141] Setting up h_pseudoloss
I0922 22:37:34.806932 32478 net.cpp:148] Top shape: (1)
I0922 22:37:34.806936 32478 net.cpp:151]     with loss weight 1
I0922 22:37:34.806951 32478 net.cpp:156] Memory required for data: 98024
I0922 22:37:34.806949 32456 net.cpp:141] Setting up drop6
I0922 22:37:34.806955 32478 net.cpp:217] h_pseudoloss needs backward computation.
I0922 22:37:34.806959 32456 net.cpp:148] Top shape: 10 4096 (40960)
I0922 22:37:34.806960 32478 net.cpp:217] lstm2_h_concat needs backward computation.
I0922 22:37:34.806964 32456 net.cpp:156] Memory required for data: 68109880
I0922 22:37:34.806965 32478 net.cpp:219] lstm2_ does not need backward computation.
I0922 22:37:34.806977 32456 layer_factory.hpp:77] Creating layer fc7
I0922 22:37:34.806982 32478 net.cpp:217] lstm2_unit_1 needs backward computation.
…
I0922 22:37:34.807232 32478 recurrent_layer.cpp:150] Adding parameter 2: W_hc
I0922 22:37:34.807435 32458 net.cpp:49] Initializing net from parameters: 
layer {
  name: "lstm2_"
  type: "Input"
  top: "x"
  top: "cont"
  input_param {
    shape {
      dim: 1
      dim: 1
      dim: 1501
    }
    shape {
      dim: 1
      dim: 1
    }
  }
}
layer {
  name: "lstm2_"
  type: "Input"
  top: "c_0"
  top: "h_0"
  input_param {
    shape {
      dim: 1
      dim: 1
      dim: 1000
    }
    shape {
      dim: 1
      dim: 1
      dim: 1000
    }
  }
}
layer {
  name: "lstm2_cont_slice"
  type: "Slice"
  bottom: "cont"
  top: "cont_1"
  slice_param {
    axis: 0
  }
}
layer {
  name: "lstm2_x_transform"
  type: "InnerProduct"
  bottom: "x"
  top: "W_xc_x"
  param {
    name: "W_xc"
  }
  param {
    name: "b_c"
  }
  propagate_down: true
  inner_product_param {
    num_output: 4000
    bias_term: true
    weight_filler {
      type: "uniform"
      min: -0.08
      max: 0.08
    }
    bias_filler {
      type: "constant"
      value: 0
    }
    axis: 2
  }
}
layer {
  name: "lstm2_W_xc_x_slice"
  type: "Slice"
  bottom: "W_xc_x"
  top: "W_xc_x_1"
  slice_param {
    axis: 0
  }
}
layer {
  name: "lstm2_h_conted_0"
  type: "Scale"
  bottom: "h_0"
  bottom: "cont_1"
  top: "h_conted_0"
  scale_param {
    axis: 0
  }
}
layer {
  name: "lstm2_transform_1"
  type: "InnerProduct"
  bottom: "h_conted_0"
  top: "W_hc_h_0"
  param {
    name: "W_hc"
  }
  inner_product_param {
    num_output: 4000
    bias_term: false
    weight_filler {
      type: "uniform"
      min: -0.08
      max: 0.08
    }
    axis: 2
  }
}
layer {
  name: "lstm2_gate_input_1"
  type: "Eltwise"
  bottom: "W_hc_h_0"
  bottom: "W_xc_x_1"
  top: "gate_input_1"
  eltwise_param {
    operation: SUM
  }
}
layer {
  name: "lstm2_unit_1"
  type: "LSTMUnit"
  bottom: "c_0"
  bottom: "gate_input_1"
  bottom: "cont_1"
  top: "c_1"
  top: "h_1"
}
layer {
  name: "lstm2_"
  type: "Split"
  bottom: "c_1"
  top: "c_T"
}
layer {
  name: "lstm2_h_concat"
  type: "Concat"
  bottom: "h_1"
  top: "h"
  concat_param {
    axis: 0
  }
}
layer {
  name: "h_pseudoloss"
  type: "Reduction"
  bottom: "h"
  top: "h_pseudoloss"
  loss_weight: 1
}
I0922 22:37:34.807641 32458 layer_factory.hpp:77] Creating layer lstm2_
I0922 22:37:34.807673 32458 net.cpp:91] Creating Layer lstm2_
I0922 22:37:34.807695 32458 net.cpp:399] lstm2_ -> x
I0922 22:37:34.807729 32458 net.cpp:399] lstm2_ -> cont
I0922 22:37:34.838750 32458 net.cpp:141] Setting up lstm2_
I0922 22:37:34.838807 32458 net.cpp:148] Top shape: 1 1 1501 (1501)
I0922 22:37:34.838811 32478 net.cpp:141] Setting up lstm2
I0922 22:37:34.838819 32458 net.cpp:148] Top shape: 1 1 (1)
I0922 22:37:34.838835 32458 net.cpp:156] Memory required for data: 6008
I0922 22:37:34.838838 32478 net.cpp:148] Top shape: 1 1 1000 (1000)
I0922 22:37:34.838846 32458 layer_factory.hpp:77] Creating layer lstm2_
I0922 22:37:34.838847 32478 net.cpp:156] Memory required for data: 36412
I0922 22:37:34.838876 32458 net.cpp:91] Creating Layer lstm2_
I0922 22:37:34.838886 32478 layer_factory.hpp:77] Creating layer predict
I0922 22:37:34.838894 32458 net.cpp:399] lstm2_ -> c_0
I0922 22:37:34.838906 32478 net.cpp:91] Creating Layer predict
I0922 22:37:34.838915 32458 net.cpp:399] lstm2_ -> h_0
I0922 22:37:34.838917 32478 net.cpp:425] predict <- lstm2
I0922 22:37:34.838940 32478 net.cpp:399] predict -> predict
I0922 22:37:34.839077 32458 net.cpp:141] Setting up lstm2_
I0922 22:37:34.839095 32458 net.cpp:148] Top shape: 1 1 1000 (1000)
I0922 22:37:34.839104 32458 net.cpp:148] Top shape: 1 1 1000 (1000)
I0922 22:37:34.839112 32458 net.cpp:156] Memory required for data: 14008
I0922 22:37:34.839118 32458 layer_factory.hpp:77] Creating layer lstm2_cont_slice
I0922 22:37:34.839134 32458 net.cpp:91] Creating Layer lstm2_cont_slice
I0922 22:37:34.839143 32458 net.cpp:425] lstm2_cont_slice <- cont
I0922 22:37:34.839154 32458 net.cpp:399] lstm2_cont_slice -> cont_1
I0922 22:37:34.932624 32456 net.cpp:141] Setting up fc7
I0922 22:37:34.932677 32456 net.cpp:148] Top shape: 10 4096 (40960)
I0922 22:37:34.932685 32456 net.cpp:156] Memory required for data: 68273720
I0922 22:37:34.932704 32456 layer_factory.hpp:77] Creating layer relu7
I0922 22:37:34.932723 32456 net.cpp:91] Creating Layer relu7
I0922 22:37:34.932732 32456 net.cpp:425] relu7 <- fc7
I0922 22:37:34.932745 32456 net.cpp:386] relu7 -> fc7 (in-place)
I0922 22:37:34.933480 32456 net.cpp:141] Setting up relu7
I0922 22:37:34.933500 32456 net.cpp:148] Top shape: 10 4096 (40960)
I0922 22:37:34.933509 32456 net.cpp:156] Memory required for data: 68437560
I0922 22:37:34.933517 32456 layer_factory.hpp:77] Creating layer drop7
I0922 22:37:34.933531 32456 net.cpp:91] Creating Layer drop7
I0922 22:37:34.933539 32456 net.cpp:425] drop7 <- fc7
I0922 22:37:34.933549 32456 net.cpp:386] drop7 -> fc7 (in-place)
I0922 22:37:34.933612 32456 net.cpp:141] Setting up drop7
I0922 22:37:34.933625 32456 net.cpp:148] Top shape: 10 4096 (40960)
I0922 22:37:34.933632 32456 net.cpp:156] Memory required for data: 68601400
I0922 22:37:34.933640 32456 layer_factory.hpp:77] Creating layer fc8
I0922 22:37:34.933653 32456 net.cpp:91] Creating Layer fc8
I0922 22:37:34.933660 32456 net.cpp:425] fc8 <- fc7
I0922 22:37:34.933673 32456 net.cpp:399] fc8 -> fc8
I0922 22:37:34.935135 32458 net.cpp:141] Setting up lstm2_cont_slice
I0922 22:37:34.935195 32458 net.cpp:148] Top shape: 1 1 (1)
I0922 22:37:34.935207 32458 net.cpp:156] Memory required for data: 14012
I0922 22:37:34.935222 32458 layer_factory.hpp:77] Creating layer cont_1_lstm2_cont_slice_0_split
I0922 22:37:34.935256 32458 net.cpp:91] Creating Layer cont_1_lstm2_cont_slice_0_split
I0922 22:37:34.935269 32458 net.cpp:425] cont_1_lstm2_cont_slice_0_split <- cont_1
I0922 22:37:34.935286 32458 net.cpp:399] cont_1_lstm2_cont_slice_0_split -> cont_1_lstm2_cont_slice_0_split_0
I0922 22:37:34.935309 32458 net.cpp:399] cont_1_lstm2_cont_slice_0_split -> cont_1_lstm2_cont_slice_0_split_1
I0922 22:37:34.944268 32458 net.cpp:141] Setting up cont_1_lstm2_cont_slice_0_split
I0922 22:37:34.944319 32458 net.cpp:148] Top shape: 1 1 (1)
I0922 22:37:34.944329 32458 net.cpp:148] Top shape: 1 1 (1)
I0922 22:37:34.944334 32458 net.cpp:156] Memory required for data: 14020
I0922 22:37:34.944344 32458 layer_factory.hpp:77] Creating layer lstm2_x_transform
I0922 22:37:34.944380 32458 net.cpp:91] Creating Layer lstm2_x_transform
I0922 22:37:34.944389 32458 net.cpp:425] lstm2_x_transform <- x
I0922 22:37:34.944402 32458 net.cpp:399] lstm2_x_transform -> W_xc_x
I0922 22:37:34.956522 32456 net.cpp:141] Setting up fc8
I0922 22:37:34.956579 32456 net.cpp:148] Top shape: 10 1000 (10000)
I0922 22:37:34.956589 32456 net.cpp:156] Memory required for data: 68641400
I0922 22:37:34.956609 32456 layer_factory.hpp:77] Creating layer prob
I0922 22:37:34.956634 32456 net.cpp:91] Creating Layer prob
I0922 22:37:34.956645 32456 net.cpp:425] prob <- fc8
I0922 22:37:34.956657 32456 net.cpp:399] prob -> prob
I0922 22:37:34.957221 32456 net.cpp:141] Setting up prob
I0922 22:37:34.957240 32456 net.cpp:148] Top shape: 10 1000 (10000)
I0922 22:37:34.957247 32456 net.cpp:156] Memory required for data: 68681400
I0922 22:37:34.957255 32456 net.cpp:219] prob does not need backward computation.
I0922 22:37:34.957263 32456 net.cpp:219] fc8 does not need backward computation.
I0922 22:37:34.957270 32456 net.cpp:219] drop7 does not need backward computation.
I0922 22:37:34.957278 32456 net.cpp:219] relu7 does not need backward computation.
…
I0922 22:37:34.957392 32456 net.cpp:219] norm1 does not need backward computation.
I0922 22:37:34.957399 32456 net.cpp:219] pool1 does not need backward computation.
I0922 22:37:34.957406 32456 net.cpp:219] relu1 does not need backward computation.
I0922 22:37:34.957412 32456 net.cpp:219] conv1 does not need backward computation.
I0922 22:37:34.957419 32456 net.cpp:219] data does not need backward computation.
I0922 22:37:34.957425 32456 net.cpp:261] This network produces output prob
I0922 22:37:34.957454 32456 net.cpp:274] Network initialization done.
I0922 22:37:35.023913 32458 net.cpp:141] Setting up lstm2_x_transform
I0922 22:37:35.023963 32458 net.cpp:148] Top shape: 1 1 4000 (4000)
I0922 22:37:35.023972 32458 net.cpp:156] Memory required for data: 30020
I0922 22:37:35.023998 32458 layer_factory.hpp:77] Creating layer lstm2_W_xc_x_slice
I0922 22:37:35.024019 32458 net.cpp:91] Creating Layer lstm2_W_xc_x_slice
I0922 22:37:35.024026 32458 net.cpp:425] lstm2_W_xc_x_slice <- W_xc_x
I0922 22:37:35.024037 32458 net.cpp:399] lstm2_W_xc_x_slice -> W_xc_x_1
I0922 22:37:35.024097 32458 net.cpp:141] Setting up lstm2_W_xc_x_slice
I0922 22:37:35.024109 32458 net.cpp:148] Top shape: 1 1 4000 (4000)
I0922 22:37:35.024114 32458 net.cpp:156] Memory required for data: 46020
I0922 22:37:35.024121 32458 layer_factory.hpp:77] Creating layer lstm2_h_conted_0
I0922 22:37:35.024133 32458 net.cpp:91] Creating Layer lstm2_h_conted_0
I0922 22:37:35.024139 32458 net.cpp:425] lstm2_h_conted_0 <- h_0
I0922 22:37:35.024147 32458 net.cpp:425] lstm2_h_conted_0 <- cont_1_lstm2_cont_slice_0_split_0
I0922 22:37:35.024155 32458 net.cpp:399] lstm2_h_conted_0 -> h_conted_0
I0922 22:37:35.024273 32458 net.cpp:141] Setting up lstm2_h_conted_0
I0922 22:37:35.024289 32458 net.cpp:148] Top shape: 1 1 1000 (1000)
I0922 22:37:35.024299 32458 net.cpp:156] Memory required for data: 50020
I0922 22:37:35.024308 32458 layer_factory.hpp:77] Creating layer lstm2_transform_1
I0922 22:37:35.024325 32458 net.cpp:91] Creating Layer lstm2_transform_1
I0922 22:37:35.024332 32458 net.cpp:425] lstm2_transform_1 <- h_conted_0
I0922 22:37:35.024340 32458 net.cpp:399] lstm2_transform_1 -> W_hc_h_0
I0922 22:37:35.079733 32458 net.cpp:141] Setting up lstm2_transform_1
I0922 22:37:35.079784 32458 net.cpp:148] Top shape: 1 1 4000 (4000)
I0922 22:37:35.079792 32458 net.cpp:156] Memory required for data: 66020
I0922 22:37:35.079815 32458 layer_factory.hpp:77] Creating layer lstm2_gate_input_1
I0922 22:37:35.079840 32458 net.cpp:91] Creating Layer lstm2_gate_input_1
I0922 22:37:35.079849 32458 net.cpp:425] lstm2_gate_input_1 <- W_hc_h_0
I0922 22:37:35.079859 32458 net.cpp:425] lstm2_gate_input_1 <- W_xc_x_1
I0922 22:37:35.079870 32458 net.cpp:399] lstm2_gate_input_1 -> gate_input_1
I0922 22:37:35.079936 32458 net.cpp:141] Setting up lstm2_gate_input_1
I0922 22:37:35.079951 32458 net.cpp:148] Top shape: 1 1 4000 (4000)
I0922 22:37:35.079957 32458 net.cpp:156] Memory required for data: 82020
I0922 22:37:35.079962 32458 layer_factory.hpp:77] Creating layer lstm2_unit_1
I0922 22:37:35.079972 32458 net.cpp:91] Creating Layer lstm2_unit_1
I0922 22:37:35.079977 32458 net.cpp:425] lstm2_unit_1 <- c_0
I0922 22:37:35.079984 32458 net.cpp:425] lstm2_unit_1 <- gate_input_1
I0922 22:37:35.079991 32458 net.cpp:425] lstm2_unit_1 <- cont_1_lstm2_cont_slice_0_split_1
I0922 22:37:35.079998 32458 net.cpp:399] lstm2_unit_1 -> c_1
I0922 22:37:35.080009 32458 net.cpp:399] lstm2_unit_1 -> h_1
I0922 22:37:35.080087 32458 net.cpp:141] Setting up lstm2_unit_1
I0922 22:37:35.080098 32458 net.cpp:148] Top shape: 1 1 1000 (1000)
I0922 22:37:35.080106 32458 net.cpp:148] Top shape: 1 1 1000 (1000)
I0922 22:37:35.080111 32458 net.cpp:156] Memory required for data: 90020
I0922 22:37:35.080116 32458 layer_factory.hpp:77] Creating layer lstm2_
I0922 22:37:35.080124 32458 net.cpp:91] Creating Layer lstm2_
I0922 22:37:35.080130 32458 net.cpp:425] lstm2_ <- c_1
I0922 22:37:35.080138 32458 net.cpp:399] lstm2_ -> c_T
I0922 22:37:35.080174 32458 net.cpp:141] Setting up lstm2_
I0922 22:37:35.080184 32458 net.cpp:148] Top shape: 1 1 1000 (1000)
I0922 22:37:35.080189 32458 net.cpp:156] Memory required for data: 94020
I0922 22:37:35.080194 32458 layer_factory.hpp:77] Creating layer lstm2_h_concat
I0922 22:37:35.080210 32458 net.cpp:91] Creating Layer lstm2_h_concat
I0922 22:37:35.080216 32458 net.cpp:425] lstm2_h_concat <- h_1
I0922 22:37:35.080226 32458 net.cpp:399] lstm2_h_concat -> h
I0922 22:37:35.080268 32458 net.cpp:141] Setting up lstm2_h_concat
I0922 22:37:35.080278 32458 net.cpp:148] Top shape: 1 1 1000 (1000)
I0922 22:37:35.080283 32458 net.cpp:156] Memory required for data: 98020
I0922 22:37:35.080289 32458 layer_factory.hpp:77] Creating layer h_pseudoloss
I0922 22:37:35.080299 32458 net.cpp:91] Creating Layer h_pseudoloss
I0922 22:37:35.080305 32458 net.cpp:425] h_pseudoloss <- h
I0922 22:37:35.080317 32458 net.cpp:399] h_pseudoloss -> h_pseudoloss
I0922 22:37:35.080453 32458 net.cpp:141] Setting up h_pseudoloss
…
