…
Java HotSpot(TM) 64-Bit Server VM warning: You have loaded library /home/peifeng/work/run/storm102/data/workers/b70feb49-04ce-4a90-ace5-e4a8dbd91d00/tmp/cvld2874607713497373028/libopencv_java310.xine1.so which might have disabled stack guard. The VM will try to fix the stack guard now.
It's highly recommended that you fix the library with 'execstack -c <libfile>', or link it with '-z noexecstack'.
WARNING: Logging before InitGoogleLogging() is written to STDERR
I0924 03:16:48.509184 20697 net.cpp:49] Initializing net from parameters: 
name: "CaffeNet"
state {
  phase: TEST
}
layer {
  name: "data"
  type: "Input"
  top: "data"
  input_param {
    shape {
      dim: 10
      dim: 3
      dim: 227
      dim: 227
    }
  }
}
layer {
  name: "conv1"
  type: "Convolution"
  bottom: "data"
  top: "conv1"
  convolution_param {
    num_output: 96
    kernel_size: 11
    stride: 4
  }
}
layer {
  name: "relu1"
  type: "ReLU"
  bottom: "conv1"
  top: "conv1"
}
layer {
  name: "pool1"
  type: "Pooling"
  bottom: "conv1"
  top: "pool1"
  pooling_param {
    pool: MAX
    kernel_size: 3
    stride: 2
  }
}
layer {
  name: "norm1"
  type: "LRN"
  bottom: "pool1"
  top: "norm1"
  lrn_param {
    local_size: 5
    alpha: 0.0001
    beta: 0.75
  }
}
layer {
  name: "conv2"
  type: "Convolution"
  bottom: "norm1"
  top: "conv2"
  convolution_param {
    num_output: 256
    pad: 2
    kernel_size: 5
    group: 2
  }
}
layer {
  name: "relu2"
  type: "ReLU"
  bottom: "conv2"
  top: "conv2"
}
layer {
  name: "pool2"
  type: "Pooling"
  bottom: "conv2"
  top: "pool2"
  pooling_param {
    pool: MAX
    kernel_size: 3
    stride: 2
  }
}
layer {
  name: "norm2"
  type: "LRN"
  bottom: "pool2"
  top: "norm2"
  lrn_param {
    local_size: 5
    alpha: 0.0001
    beta: 0.75
  }
}
layer {
  name: "conv3"
  type: "Convolution"
  bottom: "norm2"
  top: "conv3"
  convolution_param {
    num_output: 384
    pad: 1
    kernel_size: 3
  }
}
layer {
  name: "relu3"
  type: "ReLU"
  bottom: "conv3"
  top: "conv3"
}
layer {
  name: "conv4"
  type: "Convolution"
  bottom: "conv3"
  top: "conv4"
  convolution_param {
    num_output: 384
    pad: 1
    kernel_size: 3
    group: 2
  }
}
layer {
  name: "relu4"
  type: "ReLU"
  bottom: "conv4"
  top: "conv4"
}
layer {
  name: "conv5"
  type: "Convolution"
  bottom: "conv4"
  top: "conv5"
  convolution_param {
    num_output: 256
    pad: 1
    kernel_size: 3
    group: 2
  }
}
layer {
  name: "relu5"
  type: "ReLU"
  bottom: "conv5"
  top: "conv5"
}
layer {
  name: "pool5"
  type: "Pooling"
  bottom: "conv5"
  top: "pool5"
  pooling_param {
    pool: MAX
    kernel_size: 3
    stride: 2
  }
}
layer {
  name: "fc6"
  type: "InnerProduct"
  bottom: "pool5"
  top: "fc6"
  inner_product_param {
    num_output: 4096
  }
}
layer {
  name: "relu6"
  type: "ReLU"
  bottom: "fc6"
  top: "fc6"
}
layer {
  name: "drop6"
  type: "Dropout"
  bottom: "fc6"
  top: "fc6"
  dropout_param {
    dropout_ratio: 0.5
  }
}
layer {
  name: "fc7"
  type: "InnerProduct"
  bottom: "fc6"
  top: "fc7"
  inner_product_param {
    num_output: 4096
  }
}
layer {
  name: "relu7"
  type: "ReLU"
  bottom: "fc7"
  top: "fc7"
}
layer {
  name: "drop7"
  type: "Dropout"
  bottom: "fc7"
  top: "fc7"
  dropout_param {
    dropout_ratio: 0.5
  }
}
layer {
  name: "fc8"
  type: "InnerProduct"
  bottom: "fc7"
  top: "fc8"
  inner_product_param {
    num_output: 1000
  }
}
layer {
  name: "prob"
  type: "Softmax"
  bottom: "fc8"
  top: "prob"
}
I0924 03:16:48.509099 20703 upgrade_proto.cpp:66] Attempting to upgrade input file specified using deprecated input fields: /home/peifeng/work/run/storm102/data/workers/b70feb49-04ce-4a90-ace5-e4a8dbd91d00/tmp/cvld2874607713497373028/s2vt.words_to_preds.prototxt
I0924 03:16:48.509306 20703 upgrade_proto.cpp:69] Successfully upgraded file specified using deprecated input fields.
W0924 03:16:48.509326 20703 upgrade_proto.cpp:71] Note that future Caffe releases will only support input layers and not input fields.
I0924 03:16:48.509372 20697 layer_factory.hpp:77] Creating layer data
I0924 03:16:48.509400 20697 net.cpp:91] Creating Layer data
I0924 03:16:48.509410 20697 net.cpp:399] data -> data
I0924 03:16:48.509788 20703 net.cpp:49] Initializing net from parameters: 
name: "s2vt:features_to_lstm"
state {
  phase: TEST
}
layer {
  name: "input"
  type: "Input"
  top: "frames_fc7"
  top: "cont_sentence"
  top: "input_sentence"
  top: "stage_indicator"
  input_param {
    shape {
      dim: 1
      dim: 4096
    }
    shape {
      dim: 1
      dim: 1
    }
    shape {
      dim: 1
      dim: 1
    }
    shape {
      dim: 1
      dim: 1
    }
  }
}
layer {
  name: "embed_encoder"
  type: "InnerProduct"
  bottom: "frames_fc7"
  top: "embedded_in_frames"
  param {
    lr_mult: 1
    decay_mult: 1
  }
  param {
    lr_mult: 2
    decay_mult: 0
  }
  inner_product_param {
    num_output: 500
    weight_filler {
      type: "xavier"
    }
    bias_filler {
      type: "constant"
      value: 0.2
    }
  }
}
layer {
  name: "reshape_frames"
  type: "Reshape"
  bottom: "embedded_in_frames"
  top: "embedded_input_frames"
  reshape_param {
    shape {
      dim: 1
      dim: 1
      dim: 500
    }
  }
}
layer {
  name: "reshape_stage_indicator"
  type: "Reshape"
  bottom: "stage_indicator"
  top: "reshaped_stage_indicator"
  reshape_param {
    shape {
      dim: 1
      dim: 1
      dim: 1
    }
  }
}
layer {
  name: "embedding"
  type: "Embed"
  bottom: "input_sentence"
  top: "embedded_input_sentence"
  param {
    lr_mult: 1
  }
  embed_param {
    num_output: 500
    input_dim: 46168
    bias_term: false
    weight_filler {
      type: "uniform"
      min: -0.08
      max: 0.08
    }
  }
}
layer {
  name: "lstm1"
  type: "LSTM"
  bottom: "embedded_input_frames"
  bottom: "cont_sentence"
  top: "lstm1"
  recurrent_param {
    num_output: 1000
    weight_filler {
      type: "uniform"
      min: -0.08
      max: 0.08
    }
    bias_filler {
      type: "constant"
      value: 0
    }
  }
}
layer {
  name: "concat"
  type: "Concat"
  bottom: "lstm1"
  bottom: "embedded_input_sentence"
  bottom: "reshaped_stage_indicator"
  top: "lstm1_video_sequence"
  concat_param {
    concat_dim: 2
  }
}
layer {
  name: "lstm2"
  type: "LSTM"
  bottom: "lstm1_video_sequence"
  bottom: "cont_sentence"
  top: "lstm2"
  recurrent_param {
    num_output: 1000
    weight_filler {
      type: "uniform"
      min: -0.08
      max: 0.08
    }
    bias_filler {
      type: "constant"
      value: 0
    }
  }
}
layer {
  name: "predict"
  type: "InnerProduct"
  bottom: "lstm2"
  top: "predict"
  param {
    lr_mult: 1
    decay_mult: 1
  }
  param {
    lr_mult: 2
    decay_mult: 0
  }
  inner_product_param {
    num_output: 46168
    weight_filler {
      type: "uniform"
      min: -0.08
      max: 0.08
    }
    bias_filler {
      type: "constant"
      value: 0
    }
    axis: 2
  }
}
layer {
  name: "probs"
  type: "Softmax"
  bottom: "predict"
  top: "probs"
  softmax_param {
    axis: 2
  }
}
I0924 03:16:48.509985 20703 layer_factory.hpp:77] Creating layer input
I0924 03:16:48.510002 20703 net.cpp:91] Creating Layer input
I0924 03:16:48.510012 20703 net.cpp:399] input -> frames_fc7
I0924 03:16:48.510028 20703 net.cpp:399] input -> cont_sentence
I0924 03:16:48.510046 20703 net.cpp:399] input -> input_sentence
I0924 03:16:48.510061 20703 net.cpp:399] input -> stage_indicator
I0924 03:16:48.514339 20695 upgrade_proto.cpp:66] Attempting to upgrade input file specified using deprecated input fields: /home/peifeng/work/run/storm102/data/workers/b70feb49-04ce-4a90-ace5-e4a8dbd91d00/tmp/cvld2874607713497373028/s2vt.words_to_preds.prototxt
I0924 03:16:48.514369 20695 upgrade_proto.cpp:69] Successfully upgraded file specified using deprecated input fields.
W0924 03:16:48.514377 20695 upgrade_proto.cpp:71] Note that future Caffe releases will only support input layers and not input fields.
I0924 03:16:48.514719 20695 net.cpp:49] Initializing net from parameters: 
name: "s2vt:features_to_lstm"
state {
  phase: TEST
}
layer {
  name: "input"
  type: "Input"
  top: "frames_fc7"
  top: "cont_sentence"
  top: "input_sentence"
  top: "stage_indicator"
  input_param {
    shape {
      dim: 1
      dim: 4096
    }
    shape {
      dim: 1
      dim: 1
    }
    shape {
      dim: 1
      dim: 1
    }
    shape {
      dim: 1
      dim: 1
    }
  }
}
layer {
  name: "embed_encoder"
  type: "InnerProduct"
  bottom: "frames_fc7"
  top: "embedded_in_frames"
  param {
    lr_mult: 1
    decay_mult: 1
  }
  param {
    lr_mult: 2
    decay_mult: 0
  }
  inner_product_param {
    num_output: 500
    weight_filler {
      type: "xavier"
    }
    bias_filler {
      type: "constant"
      value: 0.2
    }
  }
}
layer {
  name: "reshape_frames"
  type: "Reshape"
  bottom: "embedded_in_frames"
  top: "embedded_input_frames"
  reshape_param {
    shape {
      dim: 1
      dim: 1
      dim: 500
    }
  }
}
layer {
  name: "reshape_stage_indicator"
  type: "Reshape"
  bottom: "stage_indicator"
  top: "reshaped_stage_indicator"
  reshape_param {
    shape {
      dim: 1
      dim: 1
      dim: 1
    }
  }
}
layer {
  name: "embedding"
  type: "Embed"
  bottom: "input_sentence"
  top: "embedded_input_sentence"
  param {
    lr_mult: 1
  }
  embed_param {
    num_output: 500
    input_dim: 46168
    bias_term: false
    weight_filler {
      type: "uniform"
      min: -0.08
      max: 0.08
    }
  }
}
layer {
  name: "lstm1"
  type: "LSTM"
  bottom: "embedded_input_frames"
  bottom: "cont_sentence"
  top: "lstm1"
  recurrent_param {
    num_output: 1000
    weight_filler {
      type: "uniform"
      min: -0.08
      max: 0.08
    }
    bias_filler {
      type: "constant"
      value: 0
    }
  }
}
layer {
  name: "concat"
  type: "Concat"
  bottom: "lstm1"
  bottom: "embedded_input_sentence"
  bottom: "reshaped_stage_indicator"
  top: "lstm1_video_sequence"
  concat_param {
    concat_dim: 2
  }
}
layer {
  name: "lstm2"
  type: "LSTM"
  bottom: "lstm1_video_sequence"
  bottom: "cont_sentence"
  top: "lstm2"
  recurrent_param {
    num_output: 1000
    weight_filler {
      type: "uniform"
      min: -0.08
      max: 0.08
    }
    bias_filler {
      type: "constant"
      value: 0
    }
  }
}
layer {
  name: "predict"
  type: "InnerProduct"
  bottom: "lstm2"
  top: "predict"
  param {
    lr_mult: 1
    decay_mult: 1
  }
  param {
    lr_mult: 2
    decay_mult: 0
  }
  inner_product_param {
    num_output: 46168
    weight_filler {
      type: "uniform"
      min: -0.08
      max: 0.08
    }
    bias_filler {
      type: "constant"
      value: 0
    }
    axis: 2
  }
}
layer {
  name: "probs"
  type: "Softmax"
  bottom: "predict"
  top: "probs"
  softmax_param {
    axis: 2
  }
}
I0924 03:16:48.514839 20695 layer_factory.hpp:77] Creating layer input
I0924 03:16:48.514858 20695 net.cpp:91] Creating Layer input
I0924 03:16:48.514869 20695 net.cpp:399] input -> frames_fc7
I0924 03:16:48.514890 20695 net.cpp:399] input -> cont_sentence
I0924 03:16:48.514906 20695 net.cpp:399] input -> input_sentence
I0924 03:16:48.514921 20695 net.cpp:399] input -> stage_indicator
…
W0924 03:16:48.515672 20685 upgrade_proto.cpp:71] Note that future Caffe releases will only support input layers and not input fields.
I0924 03:16:48.515655 20689 net.cpp:49] Initializing net from parameters: 
name: "s2vt:features_to_lstm"
state {
  phase: TEST
}
layer {
  name: "input"
  type: "Input"
  top: "frames_fc7"
  top: "cont_sentence"
  top: "input_sentence"
  top: "stage_indicator"
  input_param {
    shape {
      dim: 1
      dim: 4096
    }
    shape {
      dim: 1
      dim: 1
    }
    shape {
      dim: 1
      dim: 1
    }
    shape {
      dim: 1
      dim: 1
    }
  }
}
layer {
  name: "embed_encoder"
  type: "InnerProduct"
  bottom: "frames_fc7"
  top: "embedded_in_frames"
  param {
    lr_mult: 1
    decay_mult: 1
  }
  param {
    lr_mult: 2
    decay_mult: 0
  }
  inner_product_param {
    num_output: 500
    weight_filler {
      type: "xavier"
    }
    bias_filler {
      type: "constant"
      value: 0.2
    }
  }
}
layer {
  name: "reshape_frames"
  type: "Reshape"
  bottom: "embedded_in_frames"
  top: "embedded_input_frames"
  reshape_param {
    shape {
      dim: 1
      dim: 1
      dim: 500
    }
  }
}
layer {
  name: "reshape_stage_indicator"
  type: "Reshape"
  bottom: "stage_indicator"
  top: "reshaped_stage_indicator"
  reshape_param {
    shape {
      dim: 1
      dim: 1
      dim: 1
    }
  }
}
layer {
  name: "embedding"
  type: "Embed"
  bottom: "input_sentence"
  top: "embedded_input_sentence"
  param {
    lr_mult: 1
  }
  embed_param {
    num_output: 500
    input_dim: 46168
    bias_term: false
    weight_filler {
      type: "uniform"
      min: -0.08
      max: 0.08
    }
  }
}
layer {
  name: "lstm1"
  type: "LSTM"
  bottom: "embedded_input_frames"
  bottom: "cont_sentence"
  top: "lstm1"
  recurrent_param {
    num_output: 1000
    weight_filler {
      type: "uniform"
      min: -0.08
      max: 0.08
    }
    bias_filler {
      type: "constant"
      value: 0
    }
  }
}
layer {
  name: "concat"
  type: "Concat"
  bottom: "lstm1"
  bottom: "embedded_input_sentence"
  bottom: "reshaped_stage_indicator"
  top: "lstm1_video_sequence"
  concat_param {
    concat_dim: 2
  }
}
layer {
  name: "lstm2"
  type: "LSTM"
  bottom: "lstm1_video_sequence"
  bottom: "cont_sentence"
  top: "lstm2"
  recurrent_param {
    num_output: 1000
    weight_filler {
      type: "uniform"
      min: -0.08
      max: 0.08
    }
    bias_filler {
      type: "constant"
      value: 0
    }
  }
}
layer {
  name: "predict"
  type: "InnerProduct"
  bottom: "lstm2"
  top: "predict"
  param {
    lr_mult: 1
    decay_mult: 1
  }
  param {
    lr_mult: 2
    decay_mult: 0
  }
  inner_product_param {
    num_output: 46168
    weight_filler {
      type: "uniform"
      min: -0.08
      max: 0.08
    }
    bias_filler {
      type: "constant"
      value: 0
    }
    axis: 2
  }
}
layer {
  name: "probs"
  type: "Softmax"
  bottom: "predict"
  top: "probs"
  softmax_param {
    axis: 2
  }
}
I0924 03:16:48.515682 20691 upgrade_proto.cpp:66] Attempting to upgrade input file specified using deprecated input fields: /home/peifeng/work/run/storm102/data/workers/b70feb49-04ce-4a90-ace5-e4a8dbd91d00/tmp/cvld2874607713497373028/s2vt.words_to_preds.prototxt
I0924 03:16:48.515707 20691 upgrade_proto.cpp:69] Successfully upgraded file specified using deprecated input fields.
I0924 03:16:48.515712 20723 net.cpp:49] Initializing net from parameters: 
name: "s2vt:features_to_lstm"
state {
  phase: TEST
}
layer {
  name: "input"
  type: "Input"
  top: "frames_fc7"
  top: "cont_sentence"
  top: "input_sentence"
  top: "stage_indicator"
  input_param {
    shape {
      dim: 1
      dim: 4096
    }
    shape {
      dim: 1
      dim: 1
    }
    shape {
      dim: 1
      dim: 1
    }
    shape {
      dim: 1
      dim: 1
    }
  }
}
layer {
  name: "embed_encoder"
  type: "InnerProduct"
  bottom: "frames_fc7"
  top: "embedded_in_frames"
  param {
    lr_mult: 1
    decay_mult: 1
  }
  param {
    lr_mult: 2
    decay_mult: 0
  }
  inner_product_param {
    num_output: 500
    weight_filler {
      type: "xavier"
    }
    bias_filler {
      type: "constant"
      value: 0.2
    }
  }
}
layer {
  name: "reshape_frames"
  type: "Reshape"
  bottom: "embedded_in_frames"
  top: "embedded_input_frames"
  reshape_param {
    shape {
      dim: 1
      dim: 1
      dim: 500
    }
  }
}
layer {
  name: "reshape_stage_indicator"
  type: "Reshape"
  bottom: "stage_indicator"
  top: "reshaped_stage_indicator"
  reshape_param {
    shape {
      dim: 1
      dim: 1
      dim: 1
    }
  }
}
layer {
  name: "embedding"
  type: "Embed"
  bottom: "input_sentence"
  top: "embedded_input_sentence"
  param {
    lr_mult: 1
  }
  embed_param {
    num_output: 500
    input_dim: 46168
    bias_term: false
    weight_filler {
      type: "uniform"
      min: -0.08
      max: 0.08
    }
  }
}
layer {
  name: "lstm1"
  type: "LSTM"
  bottom: "embedded_input_frames"
  bottom: "cont_sentence"
  top: "lstm1"
  recurrent_param {
    num_output: 1000
    weight_filler {
      type: "uniform"
      min: -0.08
      max: 0.08
    }
    bias_filler {
      type: "constant"
      value: 0
    }
  }
}
layer {
  name: "concat"
  type: "Concat"
  bottom: "lstm1"
  bottom: "embedded_input_sentence"
  bottom: "reshaped_stage_indicator"
  top: "lstm1_video_sequence"
  concat_param {
    concat_dim: 2
  }
}
layer {
  name: "lstm2"
  type: "LSTM"
  bottom: "lstm1_video_sequence"
  bottom: "cont_sentence"
  top: "lstm2"
  recurrent_param {
    num_output: 1000
    weight_filler {
      type: "uniform"
      min: -0.08
      max: 0.08
    }
    bias_filler {
      type: "constant"
      value: 0
    }
  }
}
layer {
  name: "predict"
  type: "InnerProduct"
  bottom: "lstm2"
  top: "predict"
  param {
    lr_mult: 1
    decay_mult: 1
  }
  param {
    lr_mult: 2
    decay_mult: 0
  }
  inner_product_param {
    num_output: 46168
    weight_filler {
      type: "uniform"
      min: -0.08
      max: 0.08
    }
    bias_filler {
      type: "constant"
      value: 0
    }
    axis: 2
  }
}
layer {
  name: "probs"
  type: "Softmax"
  bottom: "predict"
  top: "probs"
  softmax_param {
    axis: 2
  }
}
I0924 03:16:48.515769 20689 layer_factory.hpp:77] Creating layer input
I0924 03:16:48.515785 20689 net.cpp:91] Creating Layer input
I0924 03:16:48.515794 20689 net.cpp:399] input -> frames_fc7
I0924 03:16:48.515808 20723 layer_factory.hpp:77] Creating layer input
I0924 03:16:48.515820 20689 net.cpp:399] input -> cont_sentence
I0924 03:16:48.515823 20723 net.cpp:91] Creating Layer input
I0924 03:16:48.515836 20723 net.cpp:399] input -> frames_fc7
I0924 03:16:48.515841 20689 net.cpp:399] input -> input_sentence
I0924 03:16:48.515852 20689 net.cpp:399] input -> stage_indicator
I0924 03:16:48.515854 20723 net.cpp:399] input -> cont_sentence
I0924 03:16:48.515867 20723 net.cpp:399] input -> input_sentence
I0924 03:16:48.515877 20723 net.cpp:399] input -> stage_indicator
I0924 03:16:48.516012 20685 net.cpp:49] Initializing net from parameters: 
name: "s2vt:features_to_lstm"
state {
  phase: TEST
}
layer {
  name: "input"
  type: "Input"
  top: "frames_fc7"
  top: "cont_sentence"
  top: "input_sentence"
  top: "stage_indicator"
  input_param {
    shape {
      dim: 1
      dim: 4096
    }
    shape {
      dim: 1
      dim: 1
    }
    shape {
      dim: 1
      dim: 1
    }
    shape {
      dim: 1
      dim: 1
    }
  }
}
layer {
  name: "embed_encoder"
  type: "InnerProduct"
  bottom: "frames_fc7"
  top: "embedded_in_frames"
  param {
    lr_mult: 1
    decay_mult: 1
  }
  param {
    lr_mult: 2
    decay_mult: 0
  }
  inner_product_param {
    num_output: 500
    weight_filler {
      type: "xavier"
    }
    bias_filler {
      type: "constant"
      value: 0.2
    }
  }
}
layer {
  name: "reshape_frames"
  type: "Reshape"
  bottom: "embedded_in_frames"
  top: "embedded_input_frames"
  reshape_param {
    shape {
      dim: 1
      dim: 1
      dim: 500
    }
  }
}
layer {
  name: "reshape_stage_indicator"
  type: "Reshape"
  bottom: "stage_indicator"
  top: "reshaped_stage_indicator"
  reshape_param {
    shape {
      dim: 1
      dim: 1
      dim: 1
    }
  }
}
layer {
  name: "embedding"
  type: "Embed"
  bottom: "input_sentence"
  top: "embedded_input_sentence"
  param {
    lr_mult: 1
  }
  embed_param {
    num_output: 500
    input_dim: 46168
    bias_term: false
    weight_filler {
      type: "uniform"
      min: -0.08
      max: 0.08
    }
  }
}
layer {
  name: "lstm1"
  type: "LSTM"
  bottom: "embedded_input_frames"
  bottom: "cont_sentence"
  top: "lstm1"
  recurrent_param {
    num_output: 1000
    weight_filler {
      type: "uniform"
      min: -0.08
      max: 0.08
    }
    bias_filler {
      type: "constant"
      value: 0
    }
  }
}
layer {
  name: "concat"
  type: "Concat"
  bottom: "lstm1"
  bottom: "embedded_input_sentence"
  bottom: "reshaped_stage_indicator"
  top: "lstm1_video_sequence"
  concat_param {
    concat_dim: 2
  }
}
layer {
  name: "lstm2"
  type: "LSTM"
  bottom: "lstm1_video_sequence"
  bottom: "cont_sentence"
  top: "lstm2"
  recurrent_param {
    num_output: 1000
    weight_filler {
      type: "uniform"
      min: -0.08
      max: 0.08
    }
    bias_filler {
      type: "constant"
      value: 0
    }
  }
}
layer {
  name: "predict"
  type: "InnerProduct"
  bottom: "lstm2"
  top: "predict"
  param {
    lr_mult: 1
    decay_mult: 1
  }
  param {
    lr_mult: 2
    decay_mult: 0
  }
  inner_product_param {
    num_output: 46168
    weight_filler {
      type: "uniform"
      min: -0.08
      max: 0.08
    }
    bias_filler {
      type: "constant"
      value: 0
    }
    axis: 2
  }
}
layer {
  name: "probs"
  type: "Softmax"
  bottom: "predict"
  top: "probs"
  softmax_param {
    axis: 2
  }
}
I0924 03:16:48.516134 20685 layer_factory.hpp:77] Creating layer input
I0924 03:16:48.516151 20685 net.cpp:91] Creating Layer input
I0924 03:16:48.516162 20685 net.cpp:399] input -> frames_fc7
I0924 03:16:48.516180 20685 net.cpp:399] input -> cont_sentence
I0924 03:16:48.516198 20685 net.cpp:399] input -> input_sentence
I0924 03:16:48.516213 20685 net.cpp:399] input -> stage_indicator
…
W0924 03:16:48.515713 20691 upgrade_proto.cpp:71] Note that future Caffe releases will only support input layers and not input fields.
I0924 03:16:48.517650 20691 net.cpp:49] Initializing net from parameters: 
name: "s2vt:features_to_lstm"
state {
  phase: TEST
}
layer {
  name: "input"
  type: "Input"
  top: "frames_fc7"
  top: "cont_sentence"
  top: "input_sentence"
  top: "stage_indicator"
  input_param {
    shape {
      dim: 1
      dim: 4096
    }
    shape {
      dim: 1
      dim: 1
    }
    shape {
      dim: 1
      dim: 1
    }
    shape {
      dim: 1
      dim: 1
    }
  }
}
layer {
  name: "embed_encoder"
  type: "InnerProduct"
  bottom: "frames_fc7"
  top: "embedded_in_frames"
  param {
    lr_mult: 1
    decay_mult: 1
  }
  param {
    lr_mult: 2
    decay_mult: 0
  }
  inner_product_param {
    num_output: 500
    weight_filler {
      type: "xavier"
    }
    bias_filler {
      type: "constant"
      value: 0.2
    }
  }
}
layer {
  name: "reshape_frames"
  type: "Reshape"
  bottom: "embedded_in_frames"
  top: "embedded_input_frames"
  reshape_param {
    shape {
      dim: 1
      dim: 1
      dim: 500
    }
  }
}
layer {
  name: "reshape_stage_indicator"
  type: "Reshape"
  bottom: "stage_indicator"
  top: "reshaped_stage_indicator"
  reshape_param {
    shape {
      dim: 1
      dim: 1
      dim: 1
    }
  }
}
layer {
  name: "embedding"
  type: "Embed"
  bottom: "input_sentence"
  top: "embedded_input_sentence"
  param {
    lr_mult: 1
  }
  embed_param {
    num_output: 500
    input_dim: 46168
    bias_term: false
    weight_filler {
      type: "uniform"
      min: -0.08
      max: 0.08
    }
  }
}
layer {
  name: "lstm1"
  type: "LSTM"
  bottom: "embedded_input_frames"
  bottom: "cont_sentence"
  top: "lstm1"
  recurrent_param {
    num_output: 1000
    weight_filler {
      type: "uniform"
      min: -0.08
      max: 0.08
    }
    bias_filler {
      type: "constant"
      value: 0
    }
  }
}
layer {
  name: "concat"
  type: "Concat"
  bottom: "lstm1"
  bottom: "embedded_input_sentence"
  bottom: "reshaped_stage_indicator"
  top: "lstm1_video_sequence"
  concat_param {
    concat_dim: 2
  }
}
layer {
  name: "lstm2"
  type: "LSTM"
  bottom: "lstm1_video_sequence"
  bottom: "cont_sentence"
  top: "lstm2"
  recurrent_param {
    num_output: 1000
    weight_filler {
      type: "uniform"
      min: -0.08
      max: 0.08
    }
    bias_filler {
      type: "constant"
      value: 0
    }
  }
}
layer {
  name: "predict"
  type: "InnerProduct"
  bottom: "lstm2"
  top: "predict"
  param {
    lr_mult: 1
    decay_mult: 1
  }
  param {
    lr_mult: 2
    decay_mult: 0
  }
  inner_product_param {
    num_output: 46168
    weight_filler {
      type: "uniform"
      min: -0.08
      max: 0.08
    }
    bias_filler {
      type: "constant"
      value: 0
    }
    axis: 2
  }
}
layer {
  name: "probs"
  type: "Softmax"
  bottom: "predict"
  top: "probs"
  softmax_param {
    axis: 2
  }
}
I0924 03:16:48.517762 20691 layer_factory.hpp:77] Creating layer input
I0924 03:16:48.517779 20691 net.cpp:91] Creating Layer input
I0924 03:16:48.517791 20691 net.cpp:399] input -> frames_fc7
I0924 03:16:48.517809 20691 net.cpp:399] input -> cont_sentence
I0924 03:16:48.517825 20691 net.cpp:399] input -> input_sentence
I0924 03:16:48.517840 20691 net.cpp:399] input -> stage_indicator
I0924 03:16:48.517973 20729 net.cpp:49] Initializing net from parameters: 
name: "s2vt:features_to_lstm"
state {
  phase: TEST
}
layer {
  name: "input"
  type: "Input"
  top: "frames_fc7"
  top: "cont_sentence"
  top: "input_sentence"
  top: "stage_indicator"
  input_param {
    shape {
      dim: 1
      dim: 4096
    }
    shape {
      dim: 1
      dim: 1
    }
    shape {
      dim: 1
      dim: 1
    }
    shape {
      dim: 1
      dim: 1
    }
  }
}
layer {
  name: "embed_encoder"
  type: "InnerProduct"
  bottom: "frames_fc7"
  top: "embedded_in_frames"
  param {
    lr_mult: 1
    decay_mult: 1
  }
  param {
    lr_mult: 2
    decay_mult: 0
  }
  inner_product_param {
    num_output: 500
    weight_filler {
      type: "xavier"
    }
    bias_filler {
      type: "constant"
      value: 0.2
    }
  }
}
layer {
  name: "reshape_frames"
  type: "Reshape"
  bottom: "embedded_in_frames"
  top: "embedded_input_frames"
  reshape_param {
    shape {
      dim: 1
      dim: 1
      dim: 500
    }
  }
}
layer {
  name: "reshape_stage_indicator"
  type: "Reshape"
  bottom: "stage_indicator"
  top: "reshaped_stage_indicator"
  reshape_param {
    shape {
      dim: 1
      dim: 1
      dim: 1
    }
  }
}
layer {
  name: "embedding"
  type: "Embed"
  bottom: "input_sentence"
  top: "embedded_input_sentence"
  param {
    lr_mult: 1
  }
  embed_param {
    num_output: 500
    input_dim: 46168
    bias_term: false
    weight_filler {
      type: "uniform"
      min: -0.08
      max: 0.08
    }
  }
}
layer {
  name: "lstm1"
  type: "LSTM"
  bottom: "embedded_input_frames"
  bottom: "cont_sentence"
  top: "lstm1"
  recurrent_param {
    num_output: 1000
    weight_filler {
      type: "uniform"
      min: -0.08
      max: 0.08
    }
    bias_filler {
      type: "constant"
      value: 0
    }
  }
}
layer {
  name: "concat"
  type: "Concat"
  bottom: "lstm1"
  bottom: "embedded_input_sentence"
  bottom: "reshaped_stage_indicator"
  top: "lstm1_video_sequence"
  concat_param {
    concat_dim: 2
  }
}
layer {
  name: "lstm2"
  type: "LSTM"
  bottom: "lstm1_video_sequence"
  bottom: "cont_sentence"
  top: "lstm2"
  recurrent_param {
    num_output: 1000
    weight_filler {
      type: "uniform"
      min: -0.08
      max: 0.08
    }
    bias_filler {
      type: "constant"
      value: 0
    }
  }
}
layer {
  name: "predict"
  type: "InnerProduct"
  bottom: "lstm2"
  top: "predict"
  param {
    lr_mult: 1
    decay_mult: 1
  }
  param {
    lr_mult: 2
    decay_mult: 0
  }
  inner_product_param {
    num_output: 46168
    weight_filler {
      type: "uniform"
      min: -0.08
      max: 0.08
    }
    bias_filler {
      type: "constant"
      value: 0
    }
    axis: 2
  }
}
layer {
  name: "probs"
  type: "Softmax"
  bottom: "predict"
  top: "probs"
  softmax_param {
    axis: 2
  }
}
I0924 03:16:48.518138 20729 layer_factory.hpp:77] Creating layer input
I0924 03:16:48.518156 20729 net.cpp:91] Creating Layer input
I0924 03:16:48.518167 20729 net.cpp:399] input -> frames_fc7
I0924 03:16:48.518182 20729 net.cpp:399] input -> cont_sentence
I0924 03:16:48.518198 20729 net.cpp:399] input -> input_sentence
I0924 03:16:48.518213 20729 net.cpp:399] input -> stage_indicator
I0924 03:16:49.253870 20697 net.cpp:141] Setting up data
I0924 03:16:49.254029 20697 net.cpp:148] Top shape: 10 3 227 227 (1545870)
I0924 03:16:49.254045 20697 net.cpp:156] Memory required for data: 6183480
I0924 03:16:49.254081 20697 layer_factory.hpp:77] Creating layer conv1
I0924 03:16:49.254113 20695 net.cpp:141] Setting up input
I0924 03:16:49.254111 20703 net.cpp:141] Setting up input
I0924 03:16:49.254134 20695 net.cpp:148] Top shape: 1 4096 (4096)
I0924 03:16:49.254137 20697 net.cpp:91] Creating Layer conv1
I0924 03:16:49.254144 20695 net.cpp:148] Top shape: 1 1 (1)
I0924 03:16:49.254148 20703 net.cpp:148] Top shape: 1 4096 (4096)
I0924 03:16:49.254154 20697 net.cpp:425] conv1 <- data
I0924 03:16:49.254150 20695 net.cpp:148] Top shape: 1 1 (1)
I0924 03:16:49.254163 20703 net.cpp:148] Top shape: 1 1 (1)
I0924 03:16:49.254181 20695 net.cpp:148] Top shape: 1 1 (1)
I0924 03:16:49.254184 20697 net.cpp:399] conv1 -> conv1
I0924 03:16:49.254187 20703 net.cpp:148] Top shape: 1 1 (1)
I0924 03:16:49.254186 20695 net.cpp:156] Memory required for data: 16396
I0924 03:16:49.254199 20703 net.cpp:148] Top shape: 1 1 (1)
I0924 03:16:49.254204 20695 layer_factory.hpp:77] Creating layer cont_sentence_input_1_split
I0924 03:16:49.254205 20703 net.cpp:156] Memory required for data: 16396
I0924 03:16:49.254228 20703 layer_factory.hpp:77] Creating layer cont_sentence_input_1_split
I0924 03:16:49.254230 20695 net.cpp:91] Creating Layer cont_sentence_input_1_split
I0924 03:16:49.254245 20695 net.cpp:425] cont_sentence_input_1_split <- cont_sentence
I0924 03:16:49.254452 20703 net.cpp:91] Creating Layer cont_sentence_input_1_split
I0924 03:16:49.254465 20703 net.cpp:425] cont_sentence_input_1_split <- cont_sentence
I0924 03:16:49.254477 20703 net.cpp:399] cont_sentence_input_1_split -> cont_sentence_input_1_split_0
I0924 03:16:49.254493 20703 net.cpp:399] cont_sentence_input_1_split -> cont_sentence_input_1_split_1
I0924 03:16:49.254271 20695 net.cpp:399] cont_sentence_input_1_split -> cont_sentence_input_1_split_0
I0924 03:16:49.254535 20695 net.cpp:399] cont_sentence_input_1_split -> cont_sentence_input_1_split_1
I0924 03:16:49.254626 20695 net.cpp:141] Setting up cont_sentence_input_1_split
I0924 03:16:49.254642 20695 net.cpp:148] Top shape: 1 1 (1)
I0924 03:16:49.254653 20695 net.cpp:148] Top shape: 1 1 (1)
I0924 03:16:49.254660 20695 net.cpp:156] Memory required for data: 16404
I0924 03:16:49.254668 20695 layer_factory.hpp:77] Creating layer embed_encoder
I0924 03:16:49.254729 20695 net.cpp:91] Creating Layer embed_encoder
I0924 03:16:49.254740 20695 net.cpp:425] embed_encoder <- frames_fc7
I0924 03:16:49.254753 20695 net.cpp:399] embed_encoder -> embedded_in_frames
I0924 03:16:49.262354 20685 net.cpp:141] Setting up input
I0924 03:16:49.262405 20685 net.cpp:148] Top shape: 1 4096 (4096)
I0924 03:16:49.262418 20685 net.cpp:148] Top shape: 1 1 (1)
I0924 03:16:49.262428 20685 net.cpp:148] Top shape: 1 1 (1)
I0924 03:16:49.262437 20685 net.cpp:148] Top shape: 1 1 (1)
I0924 03:16:49.262444 20685 net.cpp:156] Memory required for data: 16396
I0924 03:16:49.262456 20685 layer_factory.hpp:77] Creating layer cont_sentence_input_1_split
I0924 03:16:49.262478 20685 net.cpp:91] Creating Layer cont_sentence_input_1_split
I0924 03:16:49.262487 20685 net.cpp:425] cont_sentence_input_1_split <- cont_sentence
I0924 03:16:49.262504 20685 net.cpp:399] cont_sentence_input_1_split -> cont_sentence_input_1_split_0
I0924 03:16:49.262523 20685 net.cpp:399] cont_sentence_input_1_split -> cont_sentence_input_1_split_1
I0924 03:16:49.262589 20685 net.cpp:141] Setting up cont_sentence_input_1_split
I0924 03:16:49.262624 20685 net.cpp:148] Top shape: 1 1 (1)
I0924 03:16:49.262634 20685 net.cpp:148] Top shape: 1 1 (1)
I0924 03:16:49.262642 20685 net.cpp:156] Memory required for data: 16404
I0924 03:16:49.262650 20685 layer_factory.hpp:77] Creating layer embed_encoder
I0924 03:16:49.262671 20685 net.cpp:91] Creating Layer embed_encoder
I0924 03:16:49.262681 20685 net.cpp:425] embed_encoder <- frames_fc7
I0924 03:16:49.262696 20685 net.cpp:399] embed_encoder -> embedded_in_frames
I0924 03:16:49.268077 20729 net.cpp:141] Setting up input
I0924 03:16:49.268126 20729 net.cpp:148] Top shape: 1 4096 (4096)
I0924 03:16:49.268139 20729 net.cpp:148] Top shape: 1 1 (1)
I0924 03:16:49.268149 20729 net.cpp:148] Top shape: 1 1 (1)
I0924 03:16:49.268157 20729 net.cpp:148] Top shape: 1 1 (1)
I0924 03:16:49.268163 20729 net.cpp:156] Memory required for data: 16396
I0924 03:16:49.268177 20729 layer_factory.hpp:77] Creating layer cont_sentence_input_1_split
I0924 03:16:49.268213 20729 net.cpp:91] Creating Layer cont_sentence_input_1_split
I0924 03:16:49.268224 20729 net.cpp:425] cont_sentence_input_1_split <- cont_sentence
I0924 03:16:49.268239 20729 net.cpp:399] cont_sentence_input_1_split -> cont_sentence_input_1_split_0
I0924 03:16:49.268260 20729 net.cpp:399] cont_sentence_input_1_split -> cont_sentence_input_1_split_1
I0924 03:16:49.268344 20729 net.cpp:141] Setting up cont_sentence_input_1_split
I0924 03:16:49.268359 20729 net.cpp:148] Top shape: 1 1 (1)
I0924 03:16:49.268370 20729 net.cpp:148] Top shape: 1 1 (1)
I0924 03:16:49.268378 20729 net.cpp:156] Memory required for data: 16404
I0924 03:16:49.268384 20729 layer_factory.hpp:77] Creating layer embed_encoder
I0924 03:16:49.268406 20729 net.cpp:91] Creating Layer embed_encoder
I0924 03:16:49.268414 20729 net.cpp:425] embed_encoder <- frames_fc7
I0924 03:16:49.268430 20729 net.cpp:399] embed_encoder -> embedded_in_frames
I0924 03:16:49.274679 20703 net.cpp:141] Setting up cont_sentence_input_1_split
I0924 03:16:49.274737 20703 net.cpp:148] Top shape: 1 1 (1)
I0924 03:16:49.274750 20703 net.cpp:148] Top shape: 1 1 (1)
I0924 03:16:49.274756 20703 net.cpp:156] Memory required for data: 16404
I0924 03:16:49.274770 20703 layer_factory.hpp:77] Creating layer embed_encoder
I0924 03:16:49.274802 20703 net.cpp:91] Creating Layer embed_encoder
I0924 03:16:49.274814 20703 net.cpp:425] embed_encoder <- frames_fc7
I0924 03:16:49.274829 20703 net.cpp:399] embed_encoder -> embedded_in_frames
I0924 03:16:49.279158 20691 net.cpp:141] Setting up input
I0924 03:16:49.279191 20689 net.cpp:141] Setting up input
I0924 03:16:49.279213 20691 net.cpp:148] Top shape: 1 4096 (4096)
I0924 03:16:49.279213 20689 net.cpp:148] Top shape: 1 4096 (4096)
I0924 03:16:49.279247 20691 net.cpp:148] Top shape: 1 1 (1)
I0924 03:16:49.279250 20689 net.cpp:148] Top shape: 1 1 (1)
I0924 03:16:49.279258 20691 net.cpp:148] Top shape: 1 1 (1)
I0924 03:16:49.279264 20689 net.cpp:148] Top shape: 1 1 (1)
I0924 03:16:49.279270 20691 net.cpp:148] Top shape: 1 1 (1)
I0924 03:16:49.279275 20689 net.cpp:148] Top shape: 1 1 (1)
I0924 03:16:49.279278 20691 net.cpp:156] Memory required for data: 16396
I0924 03:16:49.279284 20689 net.cpp:156] Memory required for data: 16396
I0924 03:16:49.279294 20691 layer_factory.hpp:77] Creating layer cont_sentence_input_1_split
I0924 03:16:49.279294 20689 layer_factory.hpp:77] Creating layer cont_sentence_input_1_split
I0924 03:16:49.279276 20723 net.cpp:141] Setting up input
I0924 03:16:49.279320 20691 net.cpp:91] Creating Layer cont_sentence_input_1_split
I0924 03:16:49.279326 20689 net.cpp:91] Creating Layer cont_sentence_input_1_split
I0924 03:16:49.279330 20691 net.cpp:425] cont_sentence_input_1_split <- cont_sentence
I0924 03:16:49.279333 20723 net.cpp:148] Top shape: 1 4096 (4096)
I0924 03:16:49.279345 20691 net.cpp:399] cont_sentence_input_1_split -> cont_sentence_input_1_split_0
I0924 03:16:49.279336 20689 net.cpp:425] cont_sentence_input_1_split <- cont_sentence
I0924 03:16:49.279356 20723 net.cpp:148] Top shape: 1 1 (1)
I0924 03:16:49.279363 20689 net.cpp:399] cont_sentence_input_1_split -> cont_sentence_input_1_split_0
I0924 03:16:49.279366 20723 net.cpp:148] Top shape: 1 1 (1)
I0924 03:16:49.279366 20691 net.cpp:399] cont_sentence_input_1_split -> cont_sentence_input_1_split_1
I0924 03:16:49.279384 20723 net.cpp:148] Top shape: 1 1 (1)
I0924 03:16:49.279392 20723 net.cpp:156] Memory required for data: 16396
I0924 03:16:49.279429 20689 net.cpp:399] cont_sentence_input_1_split -> cont_sentence_input_1_split_1
I0924 03:16:49.279460 20723 layer_factory.hpp:77] Creating layer cont_sentence_input_1_split
I0924 03:16:49.279500 20723 net.cpp:91] Creating Layer cont_sentence_input_1_split
I0924 03:16:49.279512 20723 net.cpp:425] cont_sentence_input_1_split <- cont_sentence
I0924 03:16:49.279527 20723 net.cpp:399] cont_sentence_input_1_split -> cont_sentence_input_1_split_0
I0924 03:16:49.279573 20723 net.cpp:399] cont_sentence_input_1_split -> cont_sentence_input_1_split_1
I0924 03:16:49.290884 20691 net.cpp:141] Setting up cont_sentence_input_1_split
I0924 03:16:49.290937 20691 net.cpp:148] Top shape: 1 1 (1)
I0924 03:16:49.290951 20691 net.cpp:148] Top shape: 1 1 (1)
I0924 03:16:49.290958 20691 net.cpp:156] Memory required for data: 16404
I0924 03:16:49.290974 20691 layer_factory.hpp:77] Creating layer embed_encoder
I0924 03:16:49.291007 20691 net.cpp:91] Creating Layer embed_encoder
I0924 03:16:49.291020 20691 net.cpp:425] embed_encoder <- frames_fc7
I0924 03:16:49.291039 20691 net.cpp:399] embed_encoder -> embedded_in_frames
I0924 03:16:49.299214 20723 net.cpp:141] Setting up cont_sentence_input_1_split
I0924 03:16:49.299255 20689 net.cpp:141] Setting up cont_sentence_input_1_split
I0924 03:16:49.299288 20689 net.cpp:148] Top shape: 1 1 (1)
I0924 03:16:49.299302 20689 net.cpp:148] Top shape: 1 1 (1)
I0924 03:16:49.299302 20723 net.cpp:148] Top shape: 1 1 (1)
I0924 03:16:49.299311 20689 net.cpp:156] Memory required for data: 16404
I0924 03:16:49.299322 20723 net.cpp:148] Top shape: 1 1 (1)
I0924 03:16:49.299324 20689 layer_factory.hpp:77] Creating layer embed_encoder
I0924 03:16:49.299341 20723 net.cpp:156] Memory required for data: 16404
I0924 03:16:49.299356 20723 layer_factory.hpp:77] Creating layer embed_encoder
I0924 03:16:49.299377 20723 net.cpp:91] Creating Layer embed_encoder
I0924 03:16:49.299391 20723 net.cpp:425] embed_encoder <- frames_fc7
I0924 03:16:49.299422 20689 net.cpp:91] Creating Layer embed_encoder
I0924 03:16:49.299429 20723 net.cpp:399] embed_encoder -> embedded_in_frames
I0924 03:16:49.299438 20689 net.cpp:425] embed_encoder <- frames_fc7
I0924 03:16:49.299458 20689 net.cpp:399] embed_encoder -> embedded_in_frames
I0924 03:16:49.313158 20685 net.cpp:141] Setting up embed_encoder
I0924 03:16:49.313959 20685 net.cpp:148] Top shape: 1 500 (500)
I0924 03:16:49.314337 20685 net.cpp:156] Memory required for data: 18404
I0924 03:16:49.314546 20685 layer_factory.hpp:77] Creating layer reshape_frames
I0924 03:16:49.314837 20685 net.cpp:91] Creating Layer reshape_frames
I0924 03:16:49.315034 20685 net.cpp:425] reshape_frames <- embedded_in_frames
I0924 03:16:49.315301 20685 net.cpp:399] reshape_frames -> embedded_input_frames
I0924 03:16:49.321969 20695 net.cpp:141] Setting up embed_encoder
I0924 03:16:49.322010 20703 net.cpp:141] Setting up embed_encoder
I0924 03:16:49.322093 20729 net.cpp:141] Setting up embed_encoder
I0924 03:16:49.322206 20685 net.cpp:141] Setting up reshape_frames
I0924 03:16:49.322589 20695 net.cpp:148] Top shape: 1 500 (500)
I0924 03:16:49.322746 20703 net.cpp:148] Top shape: 1 500 (500)
I0924 03:16:49.323246 20703 net.cpp:156] Memory required for data: 18404
I0924 03:16:49.323287 20703 layer_factory.hpp:77] Creating layer reshape_frames
I0924 03:16:49.323037 20685 net.cpp:148] Top shape: 1 1 500 (500)
I0924 03:16:49.323376 20685 net.cpp:156] Memory required for data: 20404
I0924 03:16:49.323390 20685 layer_factory.hpp:77] Creating layer reshape_stage_indicator
I0924 03:16:49.323417 20685 net.cpp:91] Creating Layer reshape_stage_indicator
I0924 03:16:49.323432 20685 net.cpp:425] reshape_stage_indicator <- stage_indicator
I0924 03:16:49.323453 20685 net.cpp:399] reshape_stage_indicator -> reshaped_stage_indicator
I0924 03:16:49.323509 20703 net.cpp:91] Creating Layer reshape_frames
I0924 03:16:49.323523 20703 net.cpp:425] reshape_frames <- embedded_in_frames
I0924 03:16:49.323537 20703 net.cpp:399] reshape_frames -> embedded_input_frames
I0924 03:16:49.322906 20729 net.cpp:148] Top shape: 1 500 (500)
I0924 03:16:49.324594 20729 net.cpp:156] Memory required for data: 18404
I0924 03:16:49.324627 20729 layer_factory.hpp:77] Creating layer reshape_frames
I0924 03:16:49.324658 20729 net.cpp:91] Creating Layer reshape_frames
I0924 03:16:49.324674 20729 net.cpp:425] reshape_frames <- embedded_in_frames
I0924 03:16:49.324692 20729 net.cpp:399] reshape_frames -> embedded_input_frames
I0924 03:16:49.323235 20695 net.cpp:156] Memory required for data: 18404
I0924 03:16:49.324791 20695 layer_factory.hpp:77] Creating layer reshape_frames
I0924 03:16:49.324826 20695 net.cpp:91] Creating Layer reshape_frames
I0924 03:16:49.324841 20695 net.cpp:425] reshape_frames <- embedded_in_frames
I0924 03:16:49.324857 20695 net.cpp:399] reshape_frames -> embedded_input_frames
I0924 03:16:49.330029 20685 net.cpp:141] Setting up reshape_stage_indicator
I0924 03:16:49.330059 20703 net.cpp:141] Setting up reshape_frames
I0924 03:16:49.330067 20685 net.cpp:148] Top shape: 1 1 1 (1)
I0924 03:16:49.330075 20703 net.cpp:148] Top shape: 1 1 500 (500)
I0924 03:16:49.330076 20685 net.cpp:156] Memory required for data: 20408
I0924 03:16:49.330083 20703 net.cpp:156] Memory required for data: 20404
I0924 03:16:49.330086 20685 layer_factory.hpp:77] Creating layer embedding
I0924 03:16:49.330092 20703 layer_factory.hpp:77] Creating layer reshape_stage_indicator
I0924 03:16:49.330101 20729 net.cpp:141] Setting up reshape_frames
I0924 03:16:49.330127 20729 net.cpp:148] Top shape: 1 1 500 (500)
I0924 03:16:49.330133 20729 net.cpp:156] Memory required for data: 20404
I0924 03:16:49.330140 20729 layer_factory.hpp:77] Creating layer reshape_stage_indicator
I0924 03:16:49.330158 20729 net.cpp:91] Creating Layer reshape_stage_indicator
I0924 03:16:49.330166 20729 net.cpp:425] reshape_stage_indicator <- stage_indicator
I0924 03:16:49.330165 20695 net.cpp:141] Setting up reshape_frames
I0924 03:16:49.330176 20729 net.cpp:399] reshape_stage_indicator -> reshaped_stage_indicator
I0924 03:16:49.330183 20695 net.cpp:148] Top shape: 1 1 500 (500)
I0924 03:16:49.330191 20695 net.cpp:156] Memory required for data: 20404
I0924 03:16:49.330202 20695 layer_factory.hpp:77] Creating layer reshape_stage_indicator
I0924 03:16:49.330220 20695 net.cpp:91] Creating Layer reshape_stage_indicator
I0924 03:16:49.330230 20695 net.cpp:425] reshape_stage_indicator <- stage_indicator
I0924 03:16:49.330250 20695 net.cpp:399] reshape_stage_indicator -> reshaped_stage_indicator
I0924 03:16:49.330108 20703 net.cpp:91] Creating Layer reshape_stage_indicator
I0924 03:16:49.330286 20703 net.cpp:425] reshape_stage_indicator <- stage_indicator
I0924 03:16:49.330312 20703 net.cpp:399] reshape_stage_indicator -> reshaped_stage_indicator
I0924 03:16:49.330380 20695 net.cpp:141] Setting up reshape_stage_indicator
I0924 03:16:49.330397 20695 net.cpp:148] Top shape: 1 1 1 (1)
I0924 03:16:49.330405 20695 net.cpp:156] Memory required for data: 20408
I0924 03:16:49.330413 20695 layer_factory.hpp:77] Creating layer embedding
I0924 03:16:49.330413 20729 net.cpp:141] Setting up reshape_stage_indicator
I0924 03:16:49.330443 20729 net.cpp:148] Top shape: 1 1 1 (1)
I0924 03:16:49.330443 20695 net.cpp:91] Creating Layer embedding
I0924 03:16:49.330457 20729 net.cpp:156] Memory required for data: 20408
I0924 03:16:49.330461 20695 net.cpp:425] embedding <- input_sentence
I0924 03:16:49.330466 20729 layer_factory.hpp:77] Creating layer embedding
I0924 03:16:49.330478 20695 net.cpp:399] embedding -> embedded_input_sentence
I0924 03:16:49.330487 20729 net.cpp:91] Creating Layer embedding
I0924 03:16:49.330497 20729 net.cpp:425] embedding <- input_sentence
I0924 03:16:49.330510 20729 net.cpp:399] embedding -> embedded_input_sentence
I0924 03:16:49.330622 20703 net.cpp:141] Setting up reshape_stage_indicator
I0924 03:16:49.330643 20703 net.cpp:148] Top shape: 1 1 1 (1)
I0924 03:16:49.330653 20703 net.cpp:156] Memory required for data: 20408
I0924 03:16:49.330682 20703 layer_factory.hpp:77] Creating layer embedding
I0924 03:16:49.330703 20703 net.cpp:91] Creating Layer embedding
I0924 03:16:49.330713 20703 net.cpp:425] embedding <- input_sentence
I0924 03:16:49.330737 20703 net.cpp:399] embedding -> embedded_input_sentence
I0924 03:16:49.330108 20685 net.cpp:91] Creating Layer embedding
I0924 03:16:49.333897 20685 net.cpp:425] embedding <- input_sentence
I0924 03:16:49.333935 20685 net.cpp:399] embedding -> embedded_input_sentence
I0924 03:16:49.415470 20691 net.cpp:141] Setting up embed_encoder
I0924 03:16:49.415539 20691 net.cpp:148] Top shape: 1 500 (500)
I0924 03:16:49.415549 20691 net.cpp:156] Memory required for data: 18404
I0924 03:16:49.415578 20691 layer_factory.hpp:77] Creating layer reshape_frames
I0924 03:16:49.415604 20691 net.cpp:91] Creating Layer reshape_frames
I0924 03:16:49.415616 20691 net.cpp:425] reshape_frames <- embedded_in_frames
I0924 03:16:49.415632 20691 net.cpp:399] reshape_frames -> embedded_input_frames
I0924 03:16:49.415793 20691 net.cpp:141] Setting up reshape_frames
I0924 03:16:49.415809 20691 net.cpp:148] Top shape: 1 1 500 (500)
I0924 03:16:49.415817 20691 net.cpp:156] Memory required for data: 20404
I0924 03:16:49.415824 20691 layer_factory.hpp:77] Creating layer reshape_stage_indicator
I0924 03:16:49.415841 20691 net.cpp:91] Creating Layer reshape_stage_indicator
I0924 03:16:49.415850 20691 net.cpp:425] reshape_stage_indicator <- stage_indicator
I0924 03:16:49.415863 20691 net.cpp:399] reshape_stage_indicator -> reshaped_stage_indicator
I0924 03:16:49.415920 20691 net.cpp:141] Setting up reshape_stage_indicator
I0924 03:16:49.415935 20691 net.cpp:148] Top shape: 1 1 1 (1)
I0924 03:16:49.415942 20691 net.cpp:156] Memory required for data: 20408
I0924 03:16:49.415949 20691 layer_factory.hpp:77] Creating layer embedding
I0924 03:16:49.415967 20691 net.cpp:91] Creating Layer embedding
I0924 03:16:49.415976 20691 net.cpp:425] embedding <- input_sentence
I0924 03:16:49.415988 20691 net.cpp:399] embedding -> embedded_input_sentence
I0924 03:16:49.514149 20689 net.cpp:141] Setting up embed_encoder
I0924 03:16:49.514204 20689 net.cpp:148] Top shape: 1 500 (500)
I0924 03:16:49.514214 20689 net.cpp:156] Memory required for data: 18404
I0924 03:16:49.514240 20689 layer_factory.hpp:77] Creating layer reshape_frames
I0924 03:16:49.514263 20689 net.cpp:91] Creating Layer reshape_frames
I0924 03:16:49.514273 20689 net.cpp:425] reshape_frames <- embedded_in_frames
I0924 03:16:49.514292 20689 net.cpp:399] reshape_frames -> embedded_input_frames
I0924 03:16:49.514351 20689 net.cpp:141] Setting up reshape_frames
I0924 03:16:49.514365 20689 net.cpp:148] Top shape: 1 1 500 (500)
I0924 03:16:49.514374 20689 net.cpp:156] Memory required for data: 20404
I0924 03:16:49.514380 20689 layer_factory.hpp:77] Creating layer reshape_stage_indicator
I0924 03:16:49.514397 20689 net.cpp:91] Creating Layer reshape_stage_indicator
I0924 03:16:49.514406 20689 net.cpp:425] reshape_stage_indicator <- stage_indicator
I0924 03:16:49.514418 20689 net.cpp:399] reshape_stage_indicator -> reshaped_stage_indicator
I0924 03:16:49.514472 20689 net.cpp:141] Setting up reshape_stage_indicator
I0924 03:16:49.514485 20689 net.cpp:148] Top shape: 1 1 1 (1)
I0924 03:16:49.514492 20689 net.cpp:156] Memory required for data: 20408
I0924 03:16:49.514502 20689 layer_factory.hpp:77] Creating layer embedding
I0924 03:16:49.514518 20689 net.cpp:91] Creating Layer embedding
I0924 03:16:49.514526 20689 net.cpp:425] embedding <- input_sentence
I0924 03:16:49.514539 20689 net.cpp:399] embedding -> embedded_input_sentence
I0924 03:16:49.620573 20723 net.cpp:141] Setting up embed_encoder
I0924 03:16:49.620647 20723 net.cpp:148] Top shape: 1 500 (500)
I0924 03:16:49.620666 20723 net.cpp:156] Memory required for data: 18404
I0924 03:16:49.620731 20723 layer_factory.hpp:77] Creating layer reshape_frames
I0924 03:16:49.620790 20723 net.cpp:91] Creating Layer reshape_frames
I0924 03:16:49.620836 20723 net.cpp:425] reshape_frames <- embedded_in_frames
I0924 03:16:49.620863 20723 net.cpp:399] reshape_frames -> embedded_input_frames
I0924 03:16:49.620965 20723 net.cpp:141] Setting up reshape_frames
I0924 03:16:49.620991 20723 net.cpp:148] Top shape: 1 1 500 (500)
I0924 03:16:49.621004 20723 net.cpp:156] Memory required for data: 20404
I0924 03:16:49.621021 20723 layer_factory.hpp:77] Creating layer reshape_stage_indicator
I0924 03:16:49.621068 20723 net.cpp:91] Creating Layer reshape_stage_indicator
I0924 03:16:49.621088 20723 net.cpp:425] reshape_stage_indicator <- stage_indicator
I0924 03:16:49.621114 20723 net.cpp:399] reshape_stage_indicator -> reshaped_stage_indicator
I0924 03:16:49.621206 20723 net.cpp:141] Setting up reshape_stage_indicator
I0924 03:16:49.621233 20723 net.cpp:148] Top shape: 1 1 1 (1)
I0924 03:16:49.621249 20723 net.cpp:156] Memory required for data: 20408
I0924 03:16:49.621263 20723 layer_factory.hpp:77] Creating layer embedding
I0924 03:16:49.621315 20723 net.cpp:91] Creating Layer embedding
I0924 03:16:49.621335 20723 net.cpp:425] embedding <- input_sentence
I0924 03:16:49.621384 20723 net.cpp:399] embedding -> embedded_input_sentence
I0924 03:16:49.676385 20685 net.cpp:141] Setting up embedding
I0924 03:16:49.676455 20685 net.cpp:148] Top shape: 1 1 500 (500)
I0924 03:16:49.676465 20685 net.cpp:156] Memory required for data: 22408
I0924 03:16:49.676492 20685 layer_factory.hpp:77] Creating layer lstm1
I0924 03:16:49.676534 20685 net.cpp:91] Creating Layer lstm1
I0924 03:16:49.676549 20685 net.cpp:425] lstm1 <- embedded_input_frames
I0924 03:16:49.676565 20685 net.cpp:425] lstm1 <- cont_sentence_input_1_split_0
I0924 03:16:49.676583 20685 net.cpp:399] lstm1 -> lstm1
I0924 03:16:49.676650 20685 recurrent_layer.cpp:20] Initializing recurrent layer: assuming input batch contains 1 timesteps of 1 independent streams.
I0924 03:16:49.677382 20685 net.cpp:49] Initializing net from parameters: 
layer {
  name: "lstm1_"
  type: "Input"
  top: "x"
  top: "cont"
  input_param {
    shape {
      dim: 1
      dim: 1
      dim: 500
    }
    shape {
      dim: 1
      dim: 1
    }
  }
}
layer {
  name: "lstm1_"
  type: "Input"
  top: "c_0"
  top: "h_0"
  input_param {
    shape {
      dim: 1
      dim: 1
      dim: 1000
    }
    shape {
      dim: 1
      dim: 1
      dim: 1000
    }
  }
}
layer {
  name: "lstm1_cont_slice"
  type: "Slice"
  bottom: "cont"
  top: "cont_1"
  slice_param {
    axis: 0
  }
}
layer {
  name: "lstm1_x_transform"
  type: "InnerProduct"
  bottom: "x"
  top: "W_xc_x"
  param {
    name: "W_xc"
  }
  param {
    name: "b_c"
  }
  propagate_down: true
  inner_product_param {
    num_output: 4000
    bias_term: true
    weight_filler {
      type: "uniform"
      min: -0.08
      max: 0.08
    }
    bias_filler {
      type: "constant"
      value: 0
    }
    axis: 2
  }
}
layer {
  name: "lstm1_W_xc_x_slice"
  type: "Slice"
  bottom: "W_xc_x"
  top: "W_xc_x_1"
  slice_param {
    axis: 0
  }
}
layer {
  name: "lstm1_h_conted_0"
  type: "Scale"
  bottom: "h_0"
  bottom: "cont_1"
  top: "h_conted_0"
  scale_param {
    axis: 0
  }
}
layer {
  name: "lstm1_transform_1"
  type: "InnerProduct"
  bottom: "h_conted_0"
  top: "W_hc_h_0"
  param {
    name: "W_hc"
  }
  inner_product_param {
    num_output: 4000
    bias_term: false
    weight_filler {
      type: "uniform"
      min: -0.08
      max: 0.08
    }
    axis: 2
  }
}
layer {
  name: "lstm1_gate_input_1"
  type: "Eltwise"
  bottom: "W_hc_h_0"
  bottom: "W_xc_x_1"
  top: "gate_input_1"
  eltwise_param {
    operation: SUM
  }
}
layer {
  name: "lstm1_unit_1"
  type: "LSTMUnit"
  bottom: "c_0"
  bottom: "gate_input_1"
  bottom: "cont_1"
  top: "c_1"
  top: "h_1"
}
layer {
  name: "lstm1_"
  type: "Split"
  bottom: "c_1"
  top: "c_T"
}
layer {
  name: "lstm1_h_concat"
  type: "Concat"
  bottom: "h_1"
  top: "h"
  concat_param {
    axis: 0
  }
}
layer {
  name: "h_pseudoloss"
  type: "Reduction"
  bottom: "h"
  top: "h_pseudoloss"
  loss_weight: 1
}
I0924 03:16:49.677556 20685 layer_factory.hpp:77] Creating layer lstm1_
I0924 03:16:49.677582 20685 net.cpp:91] Creating Layer lstm1_
I0924 03:16:49.677597 20685 net.cpp:399] lstm1_ -> x
I0924 03:16:49.677618 20685 net.cpp:399] lstm1_ -> cont
I0924 03:16:49.677762 20685 net.cpp:141] Setting up lstm1_
I0924 03:16:49.677783 20685 net.cpp:148] Top shape: 1 1 500 (500)
I0924 03:16:49.677796 20685 net.cpp:148] Top shape: 1 1 (1)
I0924 03:16:49.677803 20685 net.cpp:156] Memory required for data: 2004
I0924 03:16:49.677814 20685 layer_factory.hpp:77] Creating layer lstm1_
I0924 03:16:49.677835 20685 net.cpp:91] Creating Layer lstm1_
I0924 03:16:49.677847 20685 net.cpp:399] lstm1_ -> c_0
I0924 03:16:49.677865 20685 net.cpp:399] lstm1_ -> h_0
I0924 03:16:49.677952 20685 net.cpp:141] Setting up lstm1_
I0924 03:16:49.677968 20685 net.cpp:148] Top shape: 1 1 1000 (1000)
I0924 03:16:49.677980 20685 net.cpp:148] Top shape: 1 1 1000 (1000)
I0924 03:16:49.677989 20685 net.cpp:156] Memory required for data: 10004
I0924 03:16:49.677997 20685 layer_factory.hpp:77] Creating layer lstm1_cont_slice
I0924 03:16:49.678014 20685 net.cpp:91] Creating Layer lstm1_cont_slice
I0924 03:16:49.678025 20685 net.cpp:425] lstm1_cont_slice <- cont
I0924 03:16:49.678059 20685 net.cpp:399] lstm1_cont_slice -> cont_1
I0924 03:16:49.678119 20685 net.cpp:141] Setting up lstm1_cont_slice
I0924 03:16:49.678143 20685 net.cpp:148] Top shape: 1 1 (1)
I0924 03:16:49.678153 20685 net.cpp:156] Memory required for data: 10008
I0924 03:16:49.678160 20685 layer_factory.hpp:77] Creating layer cont_1_lstm1_cont_slice_0_split
I0924 03:16:49.678174 20685 net.cpp:91] Creating Layer cont_1_lstm1_cont_slice_0_split
I0924 03:16:49.678184 20685 net.cpp:425] cont_1_lstm1_cont_slice_0_split <- cont_1
I0924 03:16:49.678197 20685 net.cpp:399] cont_1_lstm1_cont_slice_0_split -> cont_1_lstm1_cont_slice_0_split_0
I0924 03:16:49.678213 20685 net.cpp:399] cont_1_lstm1_cont_slice_0_split -> cont_1_lstm1_cont_slice_0_split_1
I0924 03:16:49.678299 20685 net.cpp:141] Setting up cont_1_lstm1_cont_slice_0_split
I0924 03:16:49.678318 20685 net.cpp:148] Top shape: 1 1 (1)
I0924 03:16:49.678329 20685 net.cpp:148] Top shape: 1 1 (1)
I0924 03:16:49.678338 20685 net.cpp:156] Memory required for data: 10016
I0924 03:16:49.678346 20685 layer_factory.hpp:77] Creating layer lstm1_x_transform
I0924 03:16:49.678369 20685 net.cpp:91] Creating Layer lstm1_x_transform
I0924 03:16:49.678381 20685 net.cpp:425] lstm1_x_transform <- x
I0924 03:16:49.678397 20685 net.cpp:399] lstm1_x_transform -> W_xc_x
I0924 03:16:49.684412 20695 net.cpp:141] Setting up embedding
I0924 03:16:49.684469 20695 net.cpp:148] Top shape: 1 1 500 (500)
I0924 03:16:49.684480 20695 net.cpp:156] Memory required for data: 22408
I0924 03:16:49.684509 20695 layer_factory.hpp:77] Creating layer lstm1
I0924 03:16:49.684542 20695 net.cpp:91] Creating Layer lstm1
I0924 03:16:49.684556 20695 net.cpp:425] lstm1 <- embedded_input_frames
I0924 03:16:49.684572 20695 net.cpp:425] lstm1 <- cont_sentence_input_1_split_0
I0924 03:16:49.684592 20695 net.cpp:399] lstm1 -> lstm1
I0924 03:16:49.684618 20695 recurrent_layer.cpp:20] Initializing recurrent layer: assuming input batch contains 1 timesteps of 1 independent streams.
I0924 03:16:49.685109 20695 net.cpp:49] Initializing net from parameters: 
layer {
  name: "lstm1_"
  type: "Input"
  top: "x"
  top: "cont"
  input_param {
    shape {
      dim: 1
      dim: 1
      dim: 500
    }
    shape {
      dim: 1
      dim: 1
    }
  }
}
layer {
  name: "lstm1_"
  type: "Input"
  top: "c_0"
  top: "h_0"
  input_param {
    shape {
      dim: 1
      dim: 1
      dim: 1000
    }
    shape {
      dim: 1
      dim: 1
      dim: 1000
    }
  }
}
layer {
  name: "lstm1_cont_slice"
  type: "Slice"
  bottom: "cont"
  top: "cont_1"
  slice_param {
    axis: 0
  }
}
layer {
  name: "lstm1_x_transform"
  type: "InnerProduct"
  bottom: "x"
  top: "W_xc_x"
  param {
    name: "W_xc"
  }
  param {
    name: "b_c"
  }
  propagate_down: true
  inner_product_param {
    num_output: 4000
    bias_term: true
    weight_filler {
      type: "uniform"
      min: -0.08
      max: 0.08
    }
    bias_filler {
      type: "constant"
      value: 0
    }
    axis: 2
  }
}
layer {
  name: "lstm1_W_xc_x_slice"
  type: "Slice"
  bottom: "W_xc_x"
  top: "W_xc_x_1"
  slice_param {
    axis: 0
  }
}
layer {
  name: "lstm1_h_conted_0"
  type: "Scale"
  bottom: "h_0"
  bottom: "cont_1"
  top: "h_conted_0"
  scale_param {
    axis: 0
  }
}
layer {
  name: "lstm1_transform_1"
  type: "InnerProduct"
  bottom: "h_conted_0"
  top: "W_hc_h_0"
  param {
    name: "W_hc"
  }
  inner_product_param {
    num_output: 4000
    bias_term: false
    weight_filler {
      type: "uniform"
      min: -0.08
      max: 0.08
    }
    axis: 2
  }
}
layer {
  name: "lstm1_gate_input_1"
  type: "Eltwise"
  bottom: "W_hc_h_0"
  bottom: "W_xc_x_1"
  top: "gate_input_1"
  eltwise_param {
    operation: SUM
  }
}
layer {
  name: "lstm1_unit_1"
  type: "LSTMUnit"
  bottom: "c_0"
  bottom: "gate_input_1"
  bottom: "cont_1"
  top: "c_1"
  top: "h_1"
}
layer {
  name: "lstm1_"
  type: "Split"
  bottom: "c_1"
  top: "c_T"
}
layer {
  name: "lstm1_h_concat"
  type: "Concat"
  bottom: "h_1"
  top: "h"
  concat_param {
    axis: 0
  }
}
layer {
  name: "h_pseudoloss"
  type: "Reduction"
  bottom: "h"
  top: "h_pseudoloss"
  loss_weight: 1
}
I0924 03:16:49.685273 20695 layer_factory.hpp:77] Creating layer lstm1_
I0924 03:16:49.685297 20695 net.cpp:91] Creating Layer lstm1_
I0924 03:16:49.685312 20695 net.cpp:399] lstm1_ -> x
I0924 03:16:49.685335 20695 net.cpp:399] lstm1_ -> cont
I0924 03:16:49.691553 20695 net.cpp:141] Setting up lstm1_
I0924 03:16:49.691602 20695 net.cpp:148] Top shape: 1 1 500 (500)
I0924 03:16:49.691617 20695 net.cpp:148] Top shape: 1 1 (1)
I0924 03:16:49.691627 20695 net.cpp:156] Memory required for data: 2004
I0924 03:16:49.691640 20695 layer_factory.hpp:77] Creating layer lstm1_
I0924 03:16:49.691671 20695 net.cpp:91] Creating Layer lstm1_
I0924 03:16:49.691695 20695 net.cpp:399] lstm1_ -> c_0
I0924 03:16:49.691725 20695 net.cpp:399] lstm1_ -> h_0
I0924 03:16:49.691823 20695 net.cpp:141] Setting up lstm1_
I0924 03:16:49.691840 20695 net.cpp:148] Top shape: 1 1 1000 (1000)
I0924 03:16:49.691853 20695 net.cpp:148] Top shape: 1 1 1000 (1000)
I0924 03:16:49.691860 20695 net.cpp:156] Memory required for data: 10004
I0924 03:16:49.691869 20695 layer_factory.hpp:77] Creating layer lstm1_cont_slice
I0924 03:16:49.691887 20695 net.cpp:91] Creating Layer lstm1_cont_slice
I0924 03:16:49.691898 20695 net.cpp:425] lstm1_cont_slice <- cont
I0924 03:16:49.691923 20695 net.cpp:399] lstm1_cont_slice -> cont_1
I0924 03:16:49.691979 20695 net.cpp:141] Setting up lstm1_cont_slice
I0924 03:16:49.691995 20695 net.cpp:148] Top shape: 1 1 (1)
I0924 03:16:49.692003 20695 net.cpp:156] Memory required for data: 10008
I0924 03:16:49.692013 20695 layer_factory.hpp:77] Creating layer cont_1_lstm1_cont_slice_0_split
I0924 03:16:49.692031 20695 net.cpp:91] Creating Layer cont_1_lstm1_cont_slice_0_split
I0924 03:16:49.692042 20695 net.cpp:425] cont_1_lstm1_cont_slice_0_split <- cont_1
I0924 03:16:49.692055 20695 net.cpp:399] cont_1_lstm1_cont_slice_0_split -> cont_1_lstm1_cont_slice_0_split_0
I0924 03:16:49.692075 20695 net.cpp:399] cont_1_lstm1_cont_slice_0_split -> cont_1_lstm1_cont_slice_0_split_1
I0924 03:16:49.692155 20695 net.cpp:141] Setting up cont_1_lstm1_cont_slice_0_split
I0924 03:16:49.692172 20695 net.cpp:148] Top shape: 1 1 (1)
I0924 03:16:49.692183 20695 net.cpp:148] Top shape: 1 1 (1)
I0924 03:16:49.692191 20695 net.cpp:156] Memory required for data: 10016
I0924 03:16:49.692200 20695 layer_factory.hpp:77] Creating layer lstm1_x_transform
I0924 03:16:49.692222 20695 net.cpp:91] Creating Layer lstm1_x_transform
I0924 03:16:49.692232 20695 net.cpp:425] lstm1_x_transform <- x
I0924 03:16:49.692235 20691 net.cpp:141] Setting up embedding
I0924 03:16:49.692250 20695 net.cpp:399] lstm1_x_transform -> W_xc_x
I0924 03:16:49.692257 20691 net.cpp:148] Top shape: 1 1 500 (500)
I0924 03:16:49.692265 20691 net.cpp:156] Memory required for data: 22408
I0924 03:16:49.692287 20691 layer_factory.hpp:77] Creating layer lstm1
I0924 03:16:49.692307 20691 net.cpp:91] Creating Layer lstm1
I0924 03:16:49.692317 20691 net.cpp:425] lstm1 <- embedded_input_frames
I0924 03:16:49.692327 20691 net.cpp:425] lstm1 <- cont_sentence_input_1_split_0
I0924 03:16:49.692340 20691 net.cpp:399] lstm1 -> lstm1
I0924 03:16:49.692358 20691 recurrent_layer.cpp:20] Initializing recurrent layer: assuming input batch contains 1 timesteps of 1 independent streams.
I0924 03:16:49.692845 20691 net.cpp:49] Initializing net from parameters: 
layer {
  name: "lstm1_"
  type: "Input"
  top: "x"
  top: "cont"
  input_param {
    shape {
      dim: 1
      dim: 1
      dim: 500
    }
    shape {
      dim: 1
      dim: 1
    }
  }
}
layer {
  name: "lstm1_"
  type: "Input"
  top: "c_0"
  top: "h_0"
  input_param {
    shape {
      dim: 1
      dim: 1
      dim: 1000
    }
    shape {
      dim: 1
      dim: 1
      dim: 1000
    }
  }
}
layer {
  name: "lstm1_cont_slice"
  type: "Slice"
  bottom: "cont"
  top: "cont_1"
  slice_param {
    axis: 0
  }
}
layer {
  name: "lstm1_x_transform"
  type: "InnerProduct"
  bottom: "x"
  top: "W_xc_x"
  param {
    name: "W_xc"
  }
  param {
    name: "b_c"
  }
  propagate_down: true
  inner_product_param {
    num_output: 4000
    bias_term: true
    weight_filler {
      type: "uniform"
      min: -0.08
      max: 0.08
    }
    bias_filler {
      type: "constant"
      value: 0
    }
    axis: 2
  }
}
layer {
  name: "lstm1_W_xc_x_slice"
  type: "Slice"
  bottom: "W_xc_x"
  top: "W_xc_x_1"
  slice_param {
    axis: 0
  }
}
layer {
  name: "lstm1_h_conted_0"
  type: "Scale"
  bottom: "h_0"
  bottom: "cont_1"
  top: "h_conted_0"
  scale_param {
    axis: 0
  }
}
layer {
  name: "lstm1_transform_1"
  type: "InnerProduct"
  bottom: "h_conted_0"
  top: "W_hc_h_0"
  param {
    name: "W_hc"
  }
  inner_product_param {
    num_output: 4000
    bias_term: false
    weight_filler {
      type: "uniform"
      min: -0.08
      max: 0.08
    }
    axis: 2
  }
}
layer {
  name: "lstm1_gate_input_1"
  type: "Eltwise"
  bottom: "W_hc_h_0"
  bottom: "W_xc_x_1"
  top: "gate_input_1"
  eltwise_param {
    operation: SUM
  }
}
layer {
  name: "lstm1_unit_1"
  type: "LSTMUnit"
  bottom: "c_0"
  bottom: "gate_input_1"
  bottom: "cont_1"
  top: "c_1"
  top: "h_1"
}
layer {
  name: "lstm1_"
  type: "Split"
  bottom: "c_1"
  top: "c_T"
}
layer {
  name: "lstm1_h_concat"
  type: "Concat"
  bottom: "h_1"
  top: "h"
  concat_param {
    axis: 0
  }
}
layer {
  name: "h_pseudoloss"
  type: "Reduction"
  bottom: "h"
  top: "h_pseudoloss"
  loss_weight: 1
}
I0924 03:16:49.692972 20691 layer_factory.hpp:77] Creating layer lstm1_
I0924 03:16:49.692988 20691 net.cpp:91] Creating Layer lstm1_
I0924 03:16:49.692998 20691 net.cpp:399] lstm1_ -> x
I0924 03:16:49.693014 20691 net.cpp:399] lstm1_ -> cont
I0924 03:16:49.698065 20691 net.cpp:141] Setting up lstm1_
I0924 03:16:49.698109 20691 net.cpp:148] Top shape: 1 1 500 (500)
I0924 03:16:49.698120 20691 net.cpp:148] Top shape: 1 1 (1)
I0924 03:16:49.698127 20691 net.cpp:156] Memory required for data: 2004
I0924 03:16:49.698140 20691 layer_factory.hpp:77] Creating layer lstm1_
I0924 03:16:49.698175 20691 net.cpp:91] Creating Layer lstm1_
I0924 03:16:49.698189 20691 net.cpp:399] lstm1_ -> c_0
I0924 03:16:49.698212 20691 net.cpp:399] lstm1_ -> h_0
I0924 03:16:49.700083 20691 net.cpp:141] Setting up lstm1_
I0924 03:16:49.700124 20691 net.cpp:148] Top shape: 1 1 1000 (1000)
I0924 03:16:49.700134 20691 net.cpp:148] Top shape: 1 1 1000 (1000)
I0924 03:16:49.700141 20691 net.cpp:156] Memory required for data: 10004
I0924 03:16:49.700152 20691 layer_factory.hpp:77] Creating layer lstm1_cont_slice
I0924 03:16:49.700173 20691 net.cpp:91] Creating Layer lstm1_cont_slice
I0924 03:16:49.700183 20691 net.cpp:425] lstm1_cont_slice <- cont
I0924 03:16:49.700201 20691 net.cpp:399] lstm1_cont_slice -> cont_1
I0924 03:16:49.700408 20691 net.cpp:141] Setting up lstm1_cont_slice
I0924 03:16:49.700423 20691 net.cpp:148] Top shape: 1 1 (1)
I0924 03:16:49.700430 20691 net.cpp:156] Memory required for data: 10008
I0924 03:16:49.700438 20691 layer_factory.hpp:77] Creating layer cont_1_lstm1_cont_slice_0_split
I0924 03:16:49.700450 20691 net.cpp:91] Creating Layer cont_1_lstm1_cont_slice_0_split
I0924 03:16:49.700459 20691 net.cpp:425] cont_1_lstm1_cont_slice_0_split <- cont_1
I0924 03:16:49.700469 20691 net.cpp:399] cont_1_lstm1_cont_slice_0_split -> cont_1_lstm1_cont_slice_0_split_0
I0924 03:16:49.700486 20691 net.cpp:399] cont_1_lstm1_cont_slice_0_split -> cont_1_lstm1_cont_slice_0_split_1
I0924 03:16:49.700709 20691 net.cpp:141] Setting up cont_1_lstm1_cont_slice_0_split
I0924 03:16:49.700726 20691 net.cpp:148] Top shape: 1 1 (1)
I0924 03:16:49.700734 20691 net.cpp:148] Top shape: 1 1 (1)
I0924 03:16:49.700742 20691 net.cpp:156] Memory required for data: 10016
I0924 03:16:49.700749 20691 layer_factory.hpp:77] Creating layer lstm1_x_transform
I0924 03:16:49.700773 20691 net.cpp:91] Creating Layer lstm1_x_transform
I0924 03:16:49.700781 20691 net.cpp:425] lstm1_x_transform <- x
I0924 03:16:49.700794 20691 net.cpp:399] lstm1_x_transform -> W_xc_x
I0924 03:16:49.707649 20685 net.cpp:141] Setting up lstm1_x_transform
I0924 03:16:49.707696 20685 net.cpp:148] Top shape: 1 1 4000 (4000)
I0924 03:16:49.707701 20685 net.cpp:156] Memory required for data: 26016
I0924 03:16:49.707729 20685 layer_factory.hpp:77] Creating layer lstm1_W_xc_x_slice
I0924 03:16:49.707747 20685 net.cpp:91] Creating Layer lstm1_W_xc_x_slice
I0924 03:16:49.707754 20685 net.cpp:425] lstm1_W_xc_x_slice <- W_xc_x
I0924 03:16:49.707763 20685 net.cpp:399] lstm1_W_xc_x_slice -> W_xc_x_1
I0924 03:16:49.707830 20685 net.cpp:141] Setting up lstm1_W_xc_x_slice
I0924 03:16:49.707840 20685 net.cpp:148] Top shape: 1 1 4000 (4000)
I0924 03:16:49.707844 20685 net.cpp:156] Memory required for data: 42016
I0924 03:16:49.707849 20685 layer_factory.hpp:77] Creating layer lstm1_h_conted_0
I0924 03:16:49.707872 20685 net.cpp:91] Creating Layer lstm1_h_conted_0
I0924 03:16:49.707878 20685 net.cpp:425] lstm1_h_conted_0 <- h_0
I0924 03:16:49.707885 20685 net.cpp:425] lstm1_h_conted_0 <- cont_1_lstm1_cont_slice_0_split_0
I0924 03:16:49.707892 20685 net.cpp:399] lstm1_h_conted_0 -> h_conted_0
I0924 03:16:49.713119 20685 net.cpp:141] Setting up lstm1_h_conted_0
I0924 03:16:49.713157 20685 net.cpp:148] Top shape: 1 1 1000 (1000)
I0924 03:16:49.713163 20685 net.cpp:156] Memory required for data: 46016
I0924 03:16:49.713171 20685 layer_factory.hpp:77] Creating layer lstm1_transform_1
I0924 03:16:49.713191 20685 net.cpp:91] Creating Layer lstm1_transform_1
I0924 03:16:49.713197 20685 net.cpp:425] lstm1_transform_1 <- h_conted_0
I0924 03:16:49.713208 20685 net.cpp:399] lstm1_transform_1 -> W_hc_h_0
I0924 03:16:49.723336 20695 net.cpp:141] Setting up lstm1_x_transform
I0924 03:16:49.723387 20695 net.cpp:148] Top shape: 1 1 4000 (4000)
I0924 03:16:49.723398 20695 net.cpp:156] Memory required for data: 26016
I0924 03:16:49.723428 20695 layer_factory.hpp:77] Creating layer lstm1_W_xc_x_slice
I0924 03:16:49.723453 20695 net.cpp:91] Creating Layer lstm1_W_xc_x_slice
I0924 03:16:49.723464 20695 net.cpp:425] lstm1_W_xc_x_slice <- W_xc_x
I0924 03:16:49.723481 20695 net.cpp:399] lstm1_W_xc_x_slice -> W_xc_x_1
I0924 03:16:49.723891 20695 net.cpp:141] Setting up lstm1_W_xc_x_slice
I0924 03:16:49.723909 20695 net.cpp:148] Top shape: 1 1 4000 (4000)
I0924 03:16:49.723918 20695 net.cpp:156] Memory required for data: 42016
I0924 03:16:49.723928 20695 layer_factory.hpp:77] Creating layer lstm1_h_conted_0
I0924 03:16:49.723945 20695 net.cpp:91] Creating Layer lstm1_h_conted_0
I0924 03:16:49.723955 20695 net.cpp:425] lstm1_h_conted_0 <- h_0
I0924 03:16:49.723966 20695 net.cpp:425] lstm1_h_conted_0 <- cont_1_lstm1_cont_slice_0_split_0
I0924 03:16:49.723980 20695 net.cpp:399] lstm1_h_conted_0 -> h_conted_0
I0924 03:16:49.728273 20695 net.cpp:141] Setting up lstm1_h_conted_0
I0924 03:16:49.728320 20695 net.cpp:148] Top shape: 1 1 1000 (1000)
I0924 03:16:49.728332 20695 net.cpp:156] Memory required for data: 46016
I0924 03:16:49.728345 20695 layer_factory.hpp:77] Creating layer lstm1_transform_1
I0924 03:16:49.728374 20695 net.cpp:91] Creating Layer lstm1_transform_1
I0924 03:16:49.728385 20695 net.cpp:425] lstm1_transform_1 <- h_conted_0
I0924 03:16:49.728405 20695 net.cpp:399] lstm1_transform_1 -> W_hc_h_0
I0924 03:16:49.731662 20691 net.cpp:141] Setting up lstm1_x_transform
I0924 03:16:49.731714 20691 net.cpp:148] Top shape: 1 1 4000 (4000)
I0924 03:16:49.731725 20691 net.cpp:156] Memory required for data: 26016
I0924 03:16:49.731753 20691 layer_factory.hpp:77] Creating layer lstm1_W_xc_x_slice
I0924 03:16:49.731783 20691 net.cpp:91] Creating Layer lstm1_W_xc_x_slice
I0924 03:16:49.731797 20691 net.cpp:425] lstm1_W_xc_x_slice <- W_xc_x
I0924 03:16:49.731815 20691 net.cpp:399] lstm1_W_xc_x_slice -> W_xc_x_1
I0924 03:16:49.750578 20691 net.cpp:141] Setting up lstm1_W_xc_x_slice
I0924 03:16:49.750666 20691 net.cpp:148] Top shape: 1 1 4000 (4000)
I0924 03:16:49.750684 20691 net.cpp:156] Memory required for data: 42016
I0924 03:16:49.750705 20691 layer_factory.hpp:77] Creating layer lstm1_h_conted_0
I0924 03:16:49.750740 20691 net.cpp:91] Creating Layer lstm1_h_conted_0
I0924 03:16:49.750757 20691 net.cpp:425] lstm1_h_conted_0 <- h_0
I0924 03:16:49.750778 20691 net.cpp:425] lstm1_h_conted_0 <- cont_1_lstm1_cont_slice_0_split_0
I0924 03:16:49.750813 20691 net.cpp:399] lstm1_h_conted_0 -> h_conted_0
I0924 03:16:49.750880 20703 net.cpp:141] Setting up embedding
I0924 03:16:49.750943 20703 net.cpp:148] Top shape: 1 1 500 (500)
I0924 03:16:49.750952 20703 net.cpp:156] Memory required for data: 22408
I0924 03:16:49.750988 20703 layer_factory.hpp:77] Creating layer lstm1
I0924 03:16:49.751044 20703 net.cpp:91] Creating Layer lstm1
I0924 03:16:49.751055 20703 net.cpp:425] lstm1 <- embedded_input_frames
I0924 03:16:49.751066 20703 net.cpp:425] lstm1 <- cont_sentence_input_1_split_0
I0924 03:16:49.751083 20703 net.cpp:399] lstm1 -> lstm1
I0924 03:16:49.751104 20703 recurrent_layer.cpp:20] Initializing recurrent layer: assuming input batch contains 1 timesteps of 1 independent streams.
I0924 03:16:49.751162 20691 net.cpp:141] Setting up lstm1_h_conted_0
I0924 03:16:49.751179 20691 net.cpp:148] Top shape: 1 1 1000 (1000)
I0924 03:16:49.751188 20691 net.cpp:156] Memory required for data: 46016
I0924 03:16:49.751196 20691 layer_factory.hpp:77] Creating layer lstm1_transform_1
I0924 03:16:49.751224 20691 net.cpp:91] Creating Layer lstm1_transform_1
I0924 03:16:49.751240 20691 net.cpp:425] lstm1_transform_1 <- h_conted_0
I0924 03:16:49.751263 20691 net.cpp:399] lstm1_transform_1 -> W_hc_h_0
I0924 03:16:49.752996 20703 net.cpp:49] Initializing net from parameters: 
layer {
  name: "lstm1_"
  type: "Input"
  top: "x"
  top: "cont"
  input_param {
    shape {
      dim: 1
      dim: 1
      dim: 500
    }
    shape {
      dim: 1
      dim: 1
    }
  }
}
layer {
  name: "lstm1_"
  type: "Input"
  top: "c_0"
  top: "h_0"
  input_param {
    shape {
      dim: 1
      dim: 1
      dim: 1000
    }
    shape {
      dim: 1
      dim: 1
      dim: 1000
    }
  }
}
layer {
  name: "lstm1_cont_slice"
  type: "Slice"
  bottom: "cont"
  top: "cont_1"
  slice_param {
    axis: 0
  }
}
layer {
  name: "lstm1_x_transform"
  type: "InnerProduct"
  bottom: "x"
  top: "W_xc_x"
  param {
    name: "W_xc"
  }
  param {
    name: "b_c"
  }
  propagate_down: true
  inner_product_param {
    num_output: 4000
    bias_term: true
    weight_filler {
      type: "uniform"
      min: -0.08
      max: 0.08
    }
    bias_filler {
      type: "constant"
      value: 0
    }
    axis: 2
  }
}
layer {
  name: "lstm1_W_xc_x_slice"
  type: "Slice"
  bottom: "W_xc_x"
  top: "W_xc_x_1"
  slice_param {
    axis: 0
  }
}
layer {
  name: "lstm1_h_conted_0"
  type: "Scale"
  bottom: "h_0"
  bottom: "cont_1"
  top: "h_conted_0"
  scale_param {
    axis: 0
  }
}
layer {
  name: "lstm1_transform_1"
  type: "InnerProduct"
  bottom: "h_conted_0"
  top: "W_hc_h_0"
  param {
    name: "W_hc"
  }
  inner_product_param {
    num_output: 4000
    bias_term: false
    weight_filler {
      type: "uniform"
      min: -0.08
      max: 0.08
    }
    axis: 2
  }
}
layer {
  name: "lstm1_gate_input_1"
  type: "Eltwise"
  bottom: "W_hc_h_0"
  bottom: "W_xc_x_1"
  top: "gate_input_1"
  eltwise_param {
    operation: SUM
  }
}
layer {
  name: "lstm1_unit_1"
  type: "LSTMUnit"
  bottom: "c_0"
  bottom: "gate_input_1"
  bottom: "cont_1"
  top: "c_1"
  top: "h_1"
}
layer {
  name: "lstm1_"
  type: "Split"
  bottom: "c_1"
  top: "c_T"
}
layer {
  name: "lstm1_h_concat"
  type: "Concat"
  bottom: "h_1"
  top: "h"
  concat_param {
    axis: 0
  }
}
layer {
  name: "h_pseudoloss"
  type: "Reduction"
  bottom: "h"
  top: "h_pseudoloss"
  loss_weight: 1
}
I0924 03:16:49.753131 20703 layer_factory.hpp:77] Creating layer lstm1_
I0924 03:16:49.753149 20703 net.cpp:91] Creating Layer lstm1_
I0924 03:16:49.753159 20703 net.cpp:399] lstm1_ -> x
I0924 03:16:49.753175 20703 net.cpp:399] lstm1_ -> cont
I0924 03:16:49.766625 20703 net.cpp:141] Setting up lstm1_
I0924 03:16:49.766672 20703 net.cpp:148] Top shape: 1 1 500 (500)
I0924 03:16:49.766682 20703 net.cpp:148] Top shape: 1 1 (1)
I0924 03:16:49.766690 20703 net.cpp:156] Memory required for data: 2004
I0924 03:16:49.766701 20703 layer_factory.hpp:77] Creating layer lstm1_
I0924 03:16:49.766728 20703 net.cpp:91] Creating Layer lstm1_
I0924 03:16:49.766748 20703 net.cpp:399] lstm1_ -> c_0
I0924 03:16:49.766774 20703 net.cpp:399] lstm1_ -> h_0
I0924 03:16:49.776150 20685 net.cpp:141] Setting up lstm1_transform_1
I0924 03:16:49.776208 20685 net.cpp:148] Top shape: 1 1 4000 (4000)
I0924 03:16:49.776221 20685 net.cpp:156] Memory required for data: 62016
I0924 03:16:49.776254 20685 layer_factory.hpp:77] Creating layer lstm1_gate_input_1
I0924 03:16:49.776283 20703 net.cpp:141] Setting up lstm1_
I0924 03:16:49.776301 20685 net.cpp:91] Creating Layer lstm1_gate_input_1
I0924 03:16:49.776307 20703 net.cpp:148] Top shape: 1 1 1000 (1000)
I0924 03:16:49.776317 20685 net.cpp:425] lstm1_gate_input_1 <- W_hc_h_0
I0924 03:16:49.776320 20703 net.cpp:148] Top shape: 1 1 1000 (1000)
I0924 03:16:49.776329 20703 net.cpp:156] Memory required for data: 10004
I0924 03:16:49.776331 20685 net.cpp:425] lstm1_gate_input_1 <- W_xc_x_1
I0924 03:16:49.776338 20703 layer_factory.hpp:77] Creating layer lstm1_cont_slice
I0924 03:16:49.776348 20685 net.cpp:399] lstm1_gate_input_1 -> gate_input_1
I0924 03:16:49.776358 20703 net.cpp:91] Creating Layer lstm1_cont_slice
I0924 03:16:49.776368 20703 net.cpp:425] lstm1_cont_slice <- cont
I0924 03:16:49.776386 20703 net.cpp:399] lstm1_cont_slice -> cont_1
I0924 03:16:49.778861 20685 net.cpp:141] Setting up lstm1_gate_input_1
I0924 03:16:49.778885 20703 net.cpp:141] Setting up lstm1_cont_slice
I0924 03:16:49.778921 20685 net.cpp:148] Top shape: 1 1 4000 (4000)
I0924 03:16:49.778921 20703 net.cpp:148] Top shape: 1 1 (1)
I0924 03:16:49.778941 20685 net.cpp:156] Memory required for data: 78016
I0924 03:16:49.778946 20703 net.cpp:156] Memory required for data: 10008
I0924 03:16:49.778954 20685 layer_factory.hpp:77] Creating layer lstm1_unit_1
I0924 03:16:49.778956 20703 layer_factory.hpp:77] Creating layer cont_1_lstm1_cont_slice_0_split
I0924 03:16:49.779016 20685 net.cpp:91] Creating Layer lstm1_unit_1
I0924 03:16:49.779031 20703 net.cpp:91] Creating Layer cont_1_lstm1_cont_slice_0_split
I0924 03:16:49.779043 20703 net.cpp:425] cont_1_lstm1_cont_slice_0_split <- cont_1
I0924 03:16:49.779043 20685 net.cpp:425] lstm1_unit_1 <- c_0
I0924 03:16:49.779068 20703 net.cpp:399] cont_1_lstm1_cont_slice_0_split -> cont_1_lstm1_cont_slice_0_split_0
I0924 03:16:49.779070 20685 net.cpp:425] lstm1_unit_1 <- gate_input_1
I0924 03:16:49.779078 20685 net.cpp:425] lstm1_unit_1 <- cont_1_lstm1_cont_slice_0_split_1
I0924 03:16:49.779088 20685 net.cpp:399] lstm1_unit_1 -> c_1
I0924 03:16:49.779088 20703 net.cpp:399] cont_1_lstm1_cont_slice_0_split -> cont_1_lstm1_cont_slice_0_split_1
I0924 03:16:49.779099 20685 net.cpp:399] lstm1_unit_1 -> h_1
I0924 03:16:49.781764 20703 net.cpp:141] Setting up cont_1_lstm1_cont_slice_0_split
I0924 03:16:49.781805 20703 net.cpp:148] Top shape: 1 1 (1)
I0924 03:16:49.781816 20703 net.cpp:148] Top shape: 1 1 (1)
I0924 03:16:49.781823 20703 net.cpp:156] Memory required for data: 10016
I0924 03:16:49.781832 20703 layer_factory.hpp:77] Creating layer lstm1_x_transform
I0924 03:16:49.781860 20703 net.cpp:91] Creating Layer lstm1_x_transform
I0924 03:16:49.781872 20703 net.cpp:425] lstm1_x_transform <- x
I0924 03:16:49.781888 20703 net.cpp:399] lstm1_x_transform -> W_xc_x
I0924 03:16:49.787242 20685 net.cpp:141] Setting up lstm1_unit_1
I0924 03:16:49.787303 20685 net.cpp:148] Top shape: 1 1 1000 (1000)
I0924 03:16:49.787317 20685 net.cpp:148] Top shape: 1 1 1000 (1000)
I0924 03:16:49.787327 20685 net.cpp:156] Memory required for data: 86016
I0924 03:16:49.787340 20685 layer_factory.hpp:77] Creating layer lstm1_
I0924 03:16:49.787369 20685 net.cpp:91] Creating Layer lstm1_
I0924 03:16:49.787381 20685 net.cpp:425] lstm1_ <- c_1
I0924 03:16:49.787401 20685 net.cpp:399] lstm1_ -> c_T
I0924 03:16:49.788383 20685 net.cpp:141] Setting up lstm1_
I0924 03:16:49.788411 20685 net.cpp:148] Top shape: 1 1 1000 (1000)
I0924 03:16:49.788420 20685 net.cpp:156] Memory required for data: 90016
I0924 03:16:49.788430 20685 layer_factory.hpp:77] Creating layer lstm1_h_concat
I0924 03:16:49.788449 20685 net.cpp:91] Creating Layer lstm1_h_concat
I0924 03:16:49.788458 20685 net.cpp:425] lstm1_h_concat <- h_1
I0924 03:16:49.788477 20685 net.cpp:399] lstm1_h_concat -> h
I0924 03:16:49.789921 20685 net.cpp:141] Setting up lstm1_h_concat
I0924 03:16:49.789942 20685 net.cpp:148] Top shape: 1 1 1000 (1000)
I0924 03:16:49.789949 20685 net.cpp:156] Memory required for data: 94016
I0924 03:16:49.789958 20685 layer_factory.hpp:77] Creating layer h_pseudoloss
I0924 03:16:49.789979 20685 net.cpp:91] Creating Layer h_pseudoloss
I0924 03:16:49.789988 20685 net.cpp:425] h_pseudoloss <- h
I0924 03:16:49.790000 20685 net.cpp:399] h_pseudoloss -> h_pseudoloss
I0924 03:16:49.790813 20685 net.cpp:141] Setting up h_pseudoloss
…
I0924 03:16:49.791059 20685 net.cpp:219] lstm1_ does not need backward computation.
I0924 03:16:49.791069 20685 net.cpp:261] This network produces output c_T
I0924 03:16:49.791084 20685 net.cpp:261] This network produces output h_pseudoloss
I0924 03:16:49.791120 20685 net.cpp:274] Network initialization done.
I0924 03:16:49.791256 20685 recurrent_layer.cpp:150] Adding parameter 0: W_xc
I0924 03:16:49.791275 20685 recurrent_layer.cpp:150] Adding parameter 1: b_c
I0924 03:16:49.791290 20685 recurrent_layer.cpp:150] Adding parameter 2: W_hc
I0924 03:16:49.792398 20685 net.cpp:141] Setting up lstm1
I0924 03:16:49.792418 20685 net.cpp:148] Top shape: 1 1 1000 (1000)
I0924 03:16:49.792428 20685 net.cpp:156] Memory required for data: 26408
I0924 03:16:49.792454 20685 layer_factory.hpp:77] Creating layer concat
I0924 03:16:49.792474 20685 net.cpp:91] Creating Layer concat
I0924 03:16:49.792485 20685 net.cpp:425] concat <- lstm1
I0924 03:16:49.792496 20685 net.cpp:425] concat <- embedded_input_sentence
I0924 03:16:49.792506 20685 net.cpp:425] concat <- reshaped_stage_indicator
I0924 03:16:49.792518 20685 net.cpp:399] concat -> lstm1_video_sequence
I0924 03:16:49.794612 20685 net.cpp:141] Setting up concat
I0924 03:16:49.794634 20685 net.cpp:148] Top shape: 1 1 1501 (1501)
I0924 03:16:49.794641 20685 net.cpp:156] Memory required for data: 32412
I0924 03:16:49.794649 20685 layer_factory.hpp:77] Creating layer lstm2
I0924 03:16:49.794672 20685 net.cpp:91] Creating Layer lstm2
I0924 03:16:49.794682 20685 net.cpp:425] lstm2 <- lstm1_video_sequence
I0924 03:16:49.794692 20685 net.cpp:425] lstm2 <- cont_sentence_input_1_split_1
I0924 03:16:49.794703 20685 net.cpp:399] lstm2 -> lstm2
I0924 03:16:49.794721 20685 recurrent_layer.cpp:20] Initializing recurrent layer: assuming input batch contains 1 timesteps of 1 independent streams.
I0924 03:16:49.795125 20685 net.cpp:49] Initializing net from parameters: 
layer {
  name: "lstm2_"
  type: "Input"
  top: "x"
  top: "cont"
  input_param {
    shape {
      dim: 1
      dim: 1
      dim: 1501
    }
    shape {
      dim: 1
      dim: 1
    }
  }
}
layer {
  name: "lstm2_"
  type: "Input"
  top: "c_0"
  top: "h_0"
  input_param {
    shape {
      dim: 1
      dim: 1
      dim: 1000
    }
    shape {
      dim: 1
      dim: 1
      dim: 1000
    }
  }
}
layer {
  name: "lstm2_cont_slice"
  type: "Slice"
  bottom: "cont"
  top: "cont_1"
  slice_param {
    axis: 0
  }
}
layer {
  name: "lstm2_x_transform"
  type: "InnerProduct"
  bottom: "x"
  top: "W_xc_x"
  param {
    name: "W_xc"
  }
  param {
    name: "b_c"
  }
  propagate_down: true
  inner_product_param {
    num_output: 4000
    bias_term: true
    weight_filler {
      type: "uniform"
      min: -0.08
      max: 0.08
    }
    bias_filler {
      type: "constant"
      value: 0
    }
    axis: 2
  }
}
layer {
  name: "lstm2_W_xc_x_slice"
  type: "Slice"
  bottom: "W_xc_x"
  top: "W_xc_x_1"
  slice_param {
    axis: 0
  }
}
layer {
  name: "lstm2_h_conted_0"
  type: "Scale"
  bottom: "h_0"
  bottom: "cont_1"
  top: "h_conted_0"
  scale_param {
    axis: 0
  }
}
layer {
  name: "lstm2_transform_1"
  type: "InnerProduct"
  bottom: "h_conted_0"
  top: "W_hc_h_0"
  param {
    name: "W_hc"
  }
  inner_product_param {
    num_output: 4000
    bias_term: false
    weight_filler {
      type: "uniform"
      min: -0.08
      max: 0.08
    }
    axis: 2
  }
}
layer {
  name: "lstm2_gate_input_1"
  type: "Eltwise"
  bottom: "W_hc_h_0"
  bottom: "W_xc_x_1"
  top: "gate_input_1"
  eltwise_param {
    operation: SUM
  }
}
layer {
  name: "lstm2_unit_1"
  type: "LSTMUnit"
  bottom: "c_0"
  bottom: "gate_input_1"
  bottom: "cont_1"
  top: "c_1"
  top: "h_1"
}
layer {
  name: "lstm2_"
  type: "Split"
  bottom: "c_1"
  top: "c_T"
}
layer {
  name: "lstm2_h_concat"
  type: "Concat"
  bottom: "h_1"
  top: "h"
  concat_param {
    axis: 0
  }
}
layer {
  name: "h_pseudoloss"
  type: "Reduction"
  bottom: "h"
  top: "h_pseudoloss"
  loss_weight: 1
}
I0924 03:16:49.795256 20685 layer_factory.hpp:77] Creating layer lstm2_
I0924 03:16:49.795274 20685 net.cpp:91] Creating Layer lstm2_
I0924 03:16:49.795284 20685 net.cpp:399] lstm2_ -> x
I0924 03:16:49.795300 20685 net.cpp:399] lstm2_ -> cont
I0924 03:16:49.795382 20685 net.cpp:141] Setting up lstm2_
I0924 03:16:49.795397 20685 net.cpp:148] Top shape: 1 1 1501 (1501)
I0924 03:16:49.795408 20685 net.cpp:148] Top shape: 1 1 (1)
I0924 03:16:49.795413 20685 net.cpp:156] Memory required for data: 6008
I0924 03:16:49.795421 20685 layer_factory.hpp:77] Creating layer lstm2_
I0924 03:16:49.795435 20685 net.cpp:91] Creating Layer lstm2_
I0924 03:16:49.795447 20685 net.cpp:399] lstm2_ -> c_0
I0924 03:16:49.795464 20685 net.cpp:399] lstm2_ -> h_0
I0924 03:16:49.795542 20685 net.cpp:141] Setting up lstm2_
I0924 03:16:49.795555 20685 net.cpp:148] Top shape: 1 1 1000 (1000)
I0924 03:16:49.795565 20685 net.cpp:148] Top shape: 1 1 1000 (1000)
I0924 03:16:49.795572 20685 net.cpp:156] Memory required for data: 14008
I0924 03:16:49.795579 20685 layer_factory.hpp:77] Creating layer lstm2_cont_slice
I0924 03:16:49.795593 20685 net.cpp:91] Creating Layer lstm2_cont_slice
I0924 03:16:49.795599 20685 net.cpp:425] lstm2_cont_slice <- cont
I0924 03:16:49.795611 20685 net.cpp:399] lstm2_cont_slice -> cont_1
I0924 03:16:49.795660 20685 net.cpp:141] Setting up lstm2_cont_slice
I0924 03:16:49.795673 20685 net.cpp:148] Top shape: 1 1 (1)
I0924 03:16:49.795680 20685 net.cpp:156] Memory required for data: 14012
I0924 03:16:49.795687 20685 layer_factory.hpp:77] Creating layer cont_1_lstm2_cont_slice_0_split
I0924 03:16:49.795701 20685 net.cpp:91] Creating Layer cont_1_lstm2_cont_slice_0_split
I0924 03:16:49.795709 20685 net.cpp:425] cont_1_lstm2_cont_slice_0_split <- cont_1
I0924 03:16:49.795718 20685 net.cpp:399] cont_1_lstm2_cont_slice_0_split -> cont_1_lstm2_cont_slice_0_split_0
I0924 03:16:49.795730 20685 net.cpp:399] cont_1_lstm2_cont_slice_0_split -> cont_1_lstm2_cont_slice_0_split_1
I0924 03:16:49.795794 20685 net.cpp:141] Setting up cont_1_lstm2_cont_slice_0_split
I0924 03:16:49.795805 20685 net.cpp:148] Top shape: 1 1 (1)
I0924 03:16:49.795815 20685 net.cpp:148] Top shape: 1 1 (1)
I0924 03:16:49.795821 20685 net.cpp:156] Memory required for data: 14020
I0924 03:16:49.795830 20685 layer_factory.hpp:77] Creating layer lstm2_x_transform
I0924 03:16:49.795843 20685 net.cpp:91] Creating Layer lstm2_x_transform
I0924 03:16:49.795850 20685 net.cpp:425] lstm2_x_transform <- x
I0924 03:16:49.795867 20685 net.cpp:399] lstm2_x_transform -> W_xc_x
I0924 03:16:49.810322 20695 net.cpp:141] Setting up lstm1_transform_1
I0924 03:16:49.810374 20695 net.cpp:148] Top shape: 1 1 4000 (4000)
I0924 03:16:49.810384 20695 net.cpp:156] Memory required for data: 62016
I0924 03:16:49.810395 20689 net.cpp:141] Setting up embedding
I0924 03:16:49.810408 20695 layer_factory.hpp:77] Creating layer lstm1_gate_input_1
I0924 03:16:49.810417 20689 net.cpp:148] Top shape: 1 1 500 (500)
I0924 03:16:49.810427 20689 net.cpp:156] Memory required for data: 22408
I0924 03:16:49.810436 20695 net.cpp:91] Creating Layer lstm1_gate_input_1
I0924 03:16:49.810446 20689 layer_factory.hpp:77] Creating layer lstm1
I0924 03:16:49.810446 20695 net.cpp:425] lstm1_gate_input_1 <- W_hc_h_0
I0924 03:16:49.810480 20695 net.cpp:425] lstm1_gate_input_1 <- W_xc_x_1
I0924 03:16:49.810484 20689 net.cpp:91] Creating Layer lstm1
I0924 03:16:49.810493 20695 net.cpp:399] lstm1_gate_input_1 -> gate_input_1
I0924 03:16:49.810497 20689 net.cpp:425] lstm1 <- embedded_input_frames
I0924 03:16:49.810508 20689 net.cpp:425] lstm1 <- cont_sentence_input_1_split_0
I0924 03:16:49.810524 20689 net.cpp:399] lstm1 -> lstm1
I0924 03:16:49.810544 20689 recurrent_layer.cpp:20] Initializing recurrent layer: assuming input batch contains 1 timesteps of 1 independent streams.
I0924 03:16:49.810562 20695 net.cpp:141] Setting up lstm1_gate_input_1
I0924 03:16:49.810575 20695 net.cpp:148] Top shape: 1 1 4000 (4000)
I0924 03:16:49.810582 20695 net.cpp:156] Memory required for data: 78016
I0924 03:16:49.810590 20695 layer_factory.hpp:77] Creating layer lstm1_unit_1
I0924 03:16:49.810619 20695 net.cpp:91] Creating Layer lstm1_unit_1
I0924 03:16:49.810628 20695 net.cpp:425] lstm1_unit_1 <- c_0
I0924 03:16:49.810637 20695 net.cpp:425] lstm1_unit_1 <- gate_input_1
I0924 03:16:49.810645 20695 net.cpp:425] lstm1_unit_1 <- cont_1_lstm1_cont_slice_0_split_1
I0924 03:16:49.810657 20695 net.cpp:399] lstm1_unit_1 -> c_1
I0924 03:16:49.810669 20695 net.cpp:399] lstm1_unit_1 -> h_1
I0924 03:16:49.810761 20695 net.cpp:141] Setting up lstm1_unit_1
I0924 03:16:49.810775 20695 net.cpp:148] Top shape: 1 1 1000 (1000)
I0924 03:16:49.810784 20695 net.cpp:148] Top shape: 1 1 1000 (1000)
I0924 03:16:49.810791 20695 net.cpp:156] Memory required for data: 86016
I0924 03:16:49.810798 20695 layer_factory.hpp:77] Creating layer lstm1_
I0924 03:16:49.810811 20695 net.cpp:91] Creating Layer lstm1_
I0924 03:16:49.810818 20695 net.cpp:425] lstm1_ <- c_1
I0924 03:16:49.810828 20695 net.cpp:399] lstm1_ -> c_T
I0924 03:16:49.810869 20695 net.cpp:141] Setting up lstm1_
I0924 03:16:49.810881 20695 net.cpp:148] Top shape: 1 1 1000 (1000)
I0924 03:16:49.810889 20695 net.cpp:156] Memory required for data: 90016
I0924 03:16:49.810895 20695 layer_factory.hpp:77] Creating layer lstm1_h_concat
I0924 03:16:49.810912 20695 net.cpp:91] Creating Layer lstm1_h_concat
I0924 03:16:49.810920 20695 net.cpp:425] lstm1_h_concat <- h_1
I0924 03:16:49.810931 20695 net.cpp:399] lstm1_h_concat -> h
I0924 03:16:49.810983 20695 net.cpp:141] Setting up lstm1_h_concat
I0924 03:16:49.810995 20695 net.cpp:148] Top shape: 1 1 1000 (1000)
I0924 03:16:49.811002 20695 net.cpp:156] Memory required for data: 94016
I0924 03:16:49.811012 20695 layer_factory.hpp:77] Creating layer h_pseudoloss
I0924 03:16:49.811023 20695 net.cpp:91] Creating Layer h_pseudoloss
I0924 03:16:49.811031 20695 net.cpp:425] h_pseudoloss <- h
I0924 03:16:49.811034 20689 net.cpp:49] Initializing net from parameters: 
layer {
  name: "lstm1_"
  type: "Input"
  top: "x"
  top: "cont"
  input_param {
    shape {
      dim: 1
      dim: 1
      dim: 500
    }
    shape {
      dim: 1
      dim: 1
    }
  }
}
layer {
  name: "lstm1_"
  type: "Input"
  top: "c_0"
  top: "h_0"
  input_param {
    shape {
      dim: 1
      dim: 1
      dim: 1000
    }
    shape {
      dim: 1
      dim: 1
      dim: 1000
    }
  }
}
layer {
  name: "lstm1_cont_slice"
  type: "Slice"
  bottom: "cont"
  top: "cont_1"
  slice_param {
    axis: 0
  }
}
layer {
  name: "lstm1_x_transform"
  type: "InnerProduct"
  bottom: "x"
  top: "W_xc_x"
  param {
    name: "W_xc"
  }
  param {
    name: "b_c"
  }
  propagate_down: true
  inner_product_param {
    num_output: 4000
    bias_term: true
    weight_filler {
      type: "uniform"
      min: -0.08
      max: 0.08
    }
    bias_filler {
      type: "constant"
      value: 0
    }
    axis: 2
  }
}
layer {
  name: "lstm1_W_xc_x_slice"
  type: "Slice"
  bottom: "W_xc_x"
  top: "W_xc_x_1"
  slice_param {
    axis: 0
  }
}
layer {
  name: "lstm1_h_conted_0"
  type: "Scale"
  bottom: "h_0"
  bottom: "cont_1"
  top: "h_conted_0"
  scale_param {
    axis: 0
  }
}
layer {
  name: "lstm1_transform_1"
  type: "InnerProduct"
  bottom: "h_conted_0"
  top: "W_hc_h_0"
  param {
    name: "W_hc"
  }
  inner_product_param {
    num_output: 4000
    bias_term: false
    weight_filler {
      type: "uniform"
      min: -0.08
      max: 0.08
    }
    axis: 2
  }
}
layer {
  name: "lstm1_gate_input_1"
  type: "Eltwise"
  bottom: "W_hc_h_0"
  bottom: "W_xc_x_1"
  top: "gate_input_1"
  eltwise_param {
    operation: SUM
  }
}
layer {
  name: "lstm1_unit_1"
  type: "LSTMUnit"
  bottom: "c_0"
  bottom: "gate_input_1"
  bottom: "cont_1"
  top: "c_1"
  top: "h_1"
}
layer {
  name: "lstm1_"
  type: "Split"
  bottom: "c_1"
  top: "c_T"
}
layer {
  name: "lstm1_h_concat"
  type: "Concat"
  bottom: "h_1"
  top: "h"
  concat_param {
    axis: 0
  }
}
layer {
  name: "h_pseudoloss"
  type: "Reduction"
  bottom: "h"
  top: "h_pseudoloss"
  loss_weight: 1
}
I0924 03:16:49.811045 20695 net.cpp:399] h_pseudoloss -> h_pseudoloss
I0924 03:16:49.811167 20695 net.cpp:141] Setting up h_pseudoloss
I0924 03:16:49.811177 20689 layer_factory.hpp:77] Creating layer lstm1_
I0924 03:16:49.811183 20695 net.cpp:148] Top shape: (1)
I0924 03:16:49.811197 20689 net.cpp:91] Creating Layer lstm1_
I0924 03:16:49.811192 20695 net.cpp:151]     with loss weight 1
…
I0924 03:16:49.811365 20695 net.cpp:219] lstm1_ does not need backward computation.
I0924 03:16:49.811396 20695 net.cpp:261] This network produces output c_T
I0924 03:16:49.811405 20695 net.cpp:261] This network produces output h_pseudoloss
I0924 03:16:49.811431 20695 net.cpp:274] Network initialization done.
I0924 03:16:49.811491 20695 recurrent_layer.cpp:150] Adding parameter 0: W_xc
I0924 03:16:49.811501 20695 recurrent_layer.cpp:150] Adding parameter 1: b_c
I0924 03:16:49.811508 20695 recurrent_layer.cpp:150] Adding parameter 2: W_hc
I0924 03:16:49.811640 20695 net.cpp:141] Setting up lstm1
I0924 03:16:49.811655 20695 net.cpp:148] Top shape: 1 1 1000 (1000)
I0924 03:16:49.811662 20695 net.cpp:156] Memory required for data: 26408
I0924 03:16:49.811682 20695 layer_factory.hpp:77] Creating layer concat
I0924 03:16:49.811695 20695 net.cpp:91] Creating Layer concat
I0924 03:16:49.811704 20695 net.cpp:425] concat <- lstm1
I0924 03:16:49.811714 20695 net.cpp:425] concat <- embedded_input_sentence
I0924 03:16:49.811723 20695 net.cpp:425] concat <- reshaped_stage_indicator
I0924 03:16:49.811734 20695 net.cpp:399] concat -> lstm1_video_sequence
I0924 03:16:49.811779 20695 net.cpp:141] Setting up concat
I0924 03:16:49.811791 20695 net.cpp:148] Top shape: 1 1 1501 (1501)
I0924 03:16:49.811799 20695 net.cpp:156] Memory required for data: 32412
I0924 03:16:49.811806 20695 layer_factory.hpp:77] Creating layer lstm2
I0924 03:16:49.811821 20695 net.cpp:91] Creating Layer lstm2
I0924 03:16:49.811830 20695 net.cpp:425] lstm2 <- lstm1_video_sequence
I0924 03:16:49.811838 20695 net.cpp:425] lstm2 <- cont_sentence_input_1_split_1
I0924 03:16:49.811851 20695 net.cpp:399] lstm2 -> lstm2
I0924 03:16:49.811863 20695 recurrent_layer.cpp:20] Initializing recurrent layer: assuming input batch contains 1 timesteps of 1 independent streams.
I0924 03:16:49.812170 20695 net.cpp:49] Initializing net from parameters: 
layer {
  name: "lstm2_"
  type: "Input"
  top: "x"
  top: "cont"
  input_param {
    shape {
      dim: 1
      dim: 1
      dim: 1501
    }
    shape {
      dim: 1
      dim: 1
    }
  }
}
layer {
  name: "lstm2_"
  type: "Input"
  top: "c_0"
  top: "h_0"
  input_param {
    shape {
      dim: 1
      dim: 1
      dim: 1000
    }
    shape {
      dim: 1
      dim: 1
      dim: 1000
    }
  }
}
layer {
  name: "lstm2_cont_slice"
  type: "Slice"
  bottom: "cont"
  top: "cont_1"
  slice_param {
    axis: 0
  }
}
layer {
  name: "lstm2_x_transform"
  type: "InnerProduct"
  bottom: "x"
  top: "W_xc_x"
  param {
    name: "W_xc"
  }
  param {
    name: "b_c"
  }
  propagate_down: true
  inner_product_param {
    num_output: 4000
    bias_term: true
    weight_filler {
      type: "uniform"
      min: -0.08
      max: 0.08
    }
    bias_filler {
      type: "constant"
      value: 0
    }
    axis: 2
  }
}
layer {
  name: "lstm2_W_xc_x_slice"
  type: "Slice"
  bottom: "W_xc_x"
  top: "W_xc_x_1"
  slice_param {
    axis: 0
  }
}
layer {
  name: "lstm2_h_conted_0"
  type: "Scale"
  bottom: "h_0"
  bottom: "cont_1"
  top: "h_conted_0"
  scale_param {
    axis: 0
  }
}
layer {
  name: "lstm2_transform_1"
  type: "InnerProduct"
  bottom: "h_conted_0"
  top: "W_hc_h_0"
  param {
    name: "W_hc"
  }
  inner_product_param {
    num_output: 4000
    bias_term: false
    weight_filler {
      type: "uniform"
      min: -0.08
      max: 0.08
    }
    axis: 2
  }
}
layer {
  name: "lstm2_gate_input_1"
  type: "Eltwise"
  bottom: "W_hc_h_0"
  bottom: "W_xc_x_1"
  top: "gate_input_1"
  eltwise_param {
    operation: SUM
  }
}
layer {
  name: "lstm2_unit_1"
  type: "LSTMUnit"
  bottom: "c_0"
  bottom: "gate_input_1"
  bottom: "cont_1"
  top: "c_1"
  top: "h_1"
}
layer {
  name: "lstm2_"
  type: "Split"
  bottom: "c_1"
  top: "c_T"
}
layer {
  name: "lstm2_h_concat"
  type: "Concat"
  bottom: "h_1"
  top: "h"
  concat_param {
    axis: 0
  }
}
layer {
  name: "h_pseudoloss"
  type: "Reduction"
  bottom: "h"
  top: "h_pseudoloss"
  loss_weight: 1
}
I0924 03:16:49.812283 20695 layer_factory.hpp:77] Creating layer lstm2_
I0924 03:16:49.812300 20695 net.cpp:91] Creating Layer lstm2_
I0924 03:16:49.812311 20695 net.cpp:399] lstm2_ -> x
I0924 03:16:49.812327 20695 net.cpp:399] lstm2_ -> cont
I0924 03:16:49.812400 20695 net.cpp:141] Setting up lstm2_
I0924 03:16:49.812415 20695 net.cpp:148] Top shape: 1 1 1501 (1501)
I0924 03:16:49.812425 20695 net.cpp:148] Top shape: 1 1 (1)
I0924 03:16:49.812433 20695 net.cpp:156] Memory required for data: 6008
I0924 03:16:49.812440 20695 layer_factory.hpp:77] Creating layer lstm2_
I0924 03:16:49.812453 20695 net.cpp:91] Creating Layer lstm2_
I0924 03:16:49.812463 20695 net.cpp:399] lstm2_ -> c_0
I0924 03:16:49.812479 20695 net.cpp:399] lstm2_ -> h_0
I0924 03:16:49.812547 20695 net.cpp:141] Setting up lstm2_
I0924 03:16:49.812561 20695 net.cpp:148] Top shape: 1 1 1000 (1000)
I0924 03:16:49.812572 20695 net.cpp:148] Top shape: 1 1 1000 (1000)
I0924 03:16:49.812578 20695 net.cpp:156] Memory required for data: 14008
I0924 03:16:49.812587 20695 layer_factory.hpp:77] Creating layer lstm2_cont_slice
I0924 03:16:49.812598 20695 net.cpp:91] Creating Layer lstm2_cont_slice
I0924 03:16:49.812608 20695 net.cpp:425] lstm2_cont_slice <- cont
I0924 03:16:49.812621 20695 net.cpp:399] lstm2_cont_slice -> cont_1
I0924 03:16:49.812665 20695 net.cpp:141] Setting up lstm2_cont_slice
I0924 03:16:49.812679 20695 net.cpp:148] Top shape: 1 1 (1)
I0924 03:16:49.812685 20695 net.cpp:156] Memory required for data: 14012
I0924 03:16:49.812693 20695 layer_factory.hpp:77] Creating layer cont_1_lstm2_cont_slice_0_split
I0924 03:16:49.812705 20695 net.cpp:91] Creating Layer cont_1_lstm2_cont_slice_0_split
I0924 03:16:49.812711 20695 net.cpp:425] cont_1_lstm2_cont_slice_0_split <- cont_1
I0924 03:16:49.812722 20695 net.cpp:399] cont_1_lstm2_cont_slice_0_split -> cont_1_lstm2_cont_slice_0_split_0
I0924 03:16:49.812734 20695 net.cpp:399] cont_1_lstm2_cont_slice_0_split -> cont_1_lstm2_cont_slice_0_split_1
I0924 03:16:49.812801 20695 net.cpp:141] Setting up cont_1_lstm2_cont_slice_0_split
I0924 03:16:49.812813 20695 net.cpp:148] Top shape: 1 1 (1)
I0924 03:16:49.812824 20695 net.cpp:148] Top shape: 1 1 (1)
I0924 03:16:49.812830 20695 net.cpp:156] Memory required for data: 14020
I0924 03:16:49.812839 20695 layer_factory.hpp:77] Creating layer lstm2_x_transform
I0924 03:16:49.812855 20695 net.cpp:91] Creating Layer lstm2_x_transform
I0924 03:16:49.812863 20695 net.cpp:425] lstm2_x_transform <- x
I0924 03:16:49.812876 20695 net.cpp:399] lstm2_x_transform -> W_xc_x
I0924 03:16:49.811364 20689 net.cpp:141] Setting up lstm1_
I0924 03:16:49.826231 20689 net.cpp:148] Top shape: 1 1 500 (500)
I0924 03:16:49.826256 20689 net.cpp:148] Top shape: 1 1 (1)
I0924 03:16:49.826262 20689 net.cpp:156] Memory required for data: 2004
I0924 03:16:49.826274 20689 layer_factory.hpp:77] Creating layer lstm1_
I0924 03:16:49.826304 20689 net.cpp:91] Creating Layer lstm1_
I0924 03:16:49.826324 20689 net.cpp:399] lstm1_ -> c_0
I0924 03:16:49.826349 20689 net.cpp:399] lstm1_ -> h_0
I0924 03:16:49.828673 20691 net.cpp:141] Setting up lstm1_transform_1
I0924 03:16:49.828737 20691 net.cpp:148] Top shape: 1 1 4000 (4000)
I0924 03:16:49.828747 20691 net.cpp:156] Memory required for data: 62016
I0924 03:16:49.828788 20691 layer_factory.hpp:77] Creating layer lstm1_gate_input_1
I0924 03:16:49.828821 20691 net.cpp:91] Creating Layer lstm1_gate_input_1
I0924 03:16:49.828846 20691 net.cpp:425] lstm1_gate_input_1 <- W_hc_h_0
I0924 03:16:49.828858 20691 net.cpp:425] lstm1_gate_input_1 <- W_xc_x_1
I0924 03:16:49.828876 20691 net.cpp:399] lstm1_gate_input_1 -> gate_input_1
I0924 03:16:49.828920 20703 net.cpp:141] Setting up lstm1_x_transform
I0924 03:16:49.828940 20703 net.cpp:148] Top shape: 1 1 4000 (4000)
I0924 03:16:49.828953 20703 net.cpp:156] Memory required for data: 26016
I0924 03:16:49.828963 20691 net.cpp:141] Setting up lstm1_gate_input_1
I0924 03:16:49.828971 20703 layer_factory.hpp:77] Creating layer lstm1_W_xc_x_slice
I0924 03:16:49.828979 20691 net.cpp:148] Top shape: 1 1 4000 (4000)
I0924 03:16:49.828986 20691 net.cpp:156] Memory required for data: 78016
I0924 03:16:49.828989 20703 net.cpp:91] Creating Layer lstm1_W_xc_x_slice
I0924 03:16:49.828994 20691 layer_factory.hpp:77] Creating layer lstm1_unit_1
I0924 03:16:49.828999 20703 net.cpp:425] lstm1_W_xc_x_slice <- W_xc_x
I0924 03:16:49.829028 20703 net.cpp:399] lstm1_W_xc_x_slice -> W_xc_x_1
I0924 03:16:49.829030 20691 net.cpp:91] Creating Layer lstm1_unit_1
I0924 03:16:49.829042 20691 net.cpp:425] lstm1_unit_1 <- c_0
I0924 03:16:49.829053 20691 net.cpp:425] lstm1_unit_1 <- gate_input_1
I0924 03:16:49.829077 20691 net.cpp:425] lstm1_unit_1 <- cont_1_lstm1_cont_slice_0_split_1
I0924 03:16:49.829089 20691 net.cpp:399] lstm1_unit_1 -> c_1
I0924 03:16:49.829104 20691 net.cpp:399] lstm1_unit_1 -> h_1
I0924 03:16:49.829107 20703 net.cpp:141] Setting up lstm1_W_xc_x_slice
I0924 03:16:49.829123 20703 net.cpp:148] Top shape: 1 1 4000 (4000)
I0924 03:16:49.829130 20703 net.cpp:156] Memory required for data: 42016
I0924 03:16:49.829138 20703 layer_factory.hpp:77] Creating layer lstm1_h_conted_0
I0924 03:16:49.829154 20703 net.cpp:91] Creating Layer lstm1_h_conted_0
I0924 03:16:49.829161 20703 net.cpp:425] lstm1_h_conted_0 <- h_0
I0924 03:16:49.829171 20703 net.cpp:425] lstm1_h_conted_0 <- cont_1_lstm1_cont_slice_0_split_0
I0924 03:16:49.829183 20703 net.cpp:399] lstm1_h_conted_0 -> h_conted_0
I0924 03:16:49.829267 20691 net.cpp:141] Setting up lstm1_unit_1
I0924 03:16:49.829283 20691 net.cpp:148] Top shape: 1 1 1000 (1000)
I0924 03:16:49.829326 20691 net.cpp:148] Top shape: 1 1 1000 (1000)
I0924 03:16:49.829336 20691 net.cpp:156] Memory required for data: 86016
I0924 03:16:49.829344 20691 layer_factory.hpp:77] Creating layer lstm1_
I0924 03:16:49.829370 20691 net.cpp:91] Creating Layer lstm1_
I0924 03:16:49.829378 20691 net.cpp:425] lstm1_ <- c_1
I0924 03:16:49.829396 20691 net.cpp:399] lstm1_ -> c_T
I0924 03:16:49.829454 20703 net.cpp:141] Setting up lstm1_h_conted_0
I0924 03:16:49.829469 20703 net.cpp:148] Top shape: 1 1 1000 (1000)
I0924 03:16:49.829476 20703 net.cpp:156] Memory required for data: 46016
I0924 03:16:49.829484 20703 layer_factory.hpp:77] Creating layer lstm1_transform_1
I0924 03:16:49.829496 20691 net.cpp:141] Setting up lstm1_
I0924 03:16:49.829501 20703 net.cpp:91] Creating Layer lstm1_transform_1
I0924 03:16:49.829510 20703 net.cpp:425] lstm1_transform_1 <- h_conted_0
I0924 03:16:49.829512 20691 net.cpp:148] Top shape: 1 1 1000 (1000)
I0924 03:16:49.829520 20691 net.cpp:156] Memory required for data: 90016
I0924 03:16:49.829524 20703 net.cpp:399] lstm1_transform_1 -> W_hc_h_0
I0924 03:16:49.829540 20691 layer_factory.hpp:77] Creating layer lstm1_h_concat
I0924 03:16:49.829558 20691 net.cpp:91] Creating Layer lstm1_h_concat
I0924 03:16:49.829567 20691 net.cpp:425] lstm1_h_concat <- h_1
I0924 03:16:49.829578 20691 net.cpp:399] lstm1_h_concat -> h
I0924 03:16:49.829675 20691 net.cpp:141] Setting up lstm1_h_concat
I0924 03:16:49.829690 20691 net.cpp:148] Top shape: 1 1 1000 (1000)
I0924 03:16:49.829697 20691 net.cpp:156] Memory required for data: 94016
I0924 03:16:49.829705 20691 layer_factory.hpp:77] Creating layer h_pseudoloss
I0924 03:16:49.829730 20691 net.cpp:91] Creating Layer h_pseudoloss
I0924 03:16:49.829740 20691 net.cpp:425] h_pseudoloss <- h
I0924 03:16:49.829751 20691 net.cpp:399] h_pseudoloss -> h_pseudoloss
I0924 03:16:49.851110 20689 net.cpp:141] Setting up lstm1_
I0924 03:16:49.851161 20689 net.cpp:148] Top shape: 1 1 1000 (1000)
I0924 03:16:49.851172 20689 net.cpp:148] Top shape: 1 1 1000 (1000)
I0924 03:16:49.851179 20689 net.cpp:156] Memory required for data: 10004
I0924 03:16:49.851191 20689 layer_factory.hpp:77] Creating layer lstm1_cont_slice
I0924 03:16:49.851217 20689 net.cpp:91] Creating Layer lstm1_cont_slice
I0924 03:16:49.851227 20689 net.cpp:425] lstm1_cont_slice <- cont
I0924 03:16:49.851239 20689 net.cpp:399] lstm1_cont_slice -> cont_1
I0924 03:16:49.851300 20689 net.cpp:141] Setting up lstm1_cont_slice
I0924 03:16:49.851313 20689 net.cpp:148] Top shape: 1 1 (1)
I0924 03:16:49.851320 20689 net.cpp:156] Memory required for data: 10008
I0924 03:16:49.851326 20689 layer_factory.hpp:77] Creating layer cont_1_lstm1_cont_slice_0_split
I0924 03:16:49.851339 20689 net.cpp:91] Creating Layer cont_1_lstm1_cont_slice_0_split
I0924 03:16:49.851346 20689 net.cpp:425] cont_1_lstm1_cont_slice_0_split <- cont_1
I0924 03:16:49.851359 20689 net.cpp:399] cont_1_lstm1_cont_slice_0_split -> cont_1_lstm1_cont_slice_0_split_0
I0924 03:16:49.851372 20689 net.cpp:399] cont_1_lstm1_cont_slice_0_split -> cont_1_lstm1_cont_slice_0_split_1
I0924 03:16:49.851438 20689 net.cpp:141] Setting up cont_1_lstm1_cont_slice_0_split
I0924 03:16:49.851451 20689 net.cpp:148] Top shape: 1 1 (1)
I0924 03:16:49.851460 20689 net.cpp:148] Top shape: 1 1 (1)
I0924 03:16:49.851467 20689 net.cpp:156] Memory required for data: 10016
I0924 03:16:49.851475 20689 layer_factory.hpp:77] Creating layer lstm1_x_transform
I0924 03:16:49.851503 20689 net.cpp:91] Creating Layer lstm1_x_transform
I0924 03:16:49.851511 20689 net.cpp:425] lstm1_x_transform <- x
I0924 03:16:49.851523 20689 net.cpp:399] lstm1_x_transform -> W_xc_x
I0924 03:16:49.867168 20729 net.cpp:141] Setting up embedding
I0924 03:16:49.867226 20729 net.cpp:148] Top shape: 1 1 500 (500)
I0924 03:16:49.867238 20729 net.cpp:156] Memory required for data: 22408
I0924 03:16:49.867269 20729 layer_factory.hpp:77] Creating layer lstm1
I0924 03:16:49.867303 20729 net.cpp:91] Creating Layer lstm1
I0924 03:16:49.867317 20729 net.cpp:425] lstm1 <- embedded_input_frames
I0924 03:16:49.867331 20729 net.cpp:425] lstm1 <- cont_sentence_input_1_split_0
I0924 03:16:49.867354 20729 net.cpp:399] lstm1 -> lstm1
…
I0924 03:16:49.867696 20691 recurrent_layer.cpp:150] Adding parameter 2: W_hc
I0924 03:16:49.867905 20729 net.cpp:49] Initializing net from parameters: 
layer {
  name: "lstm1_"
  type: "Input"
  top: "x"
  top: "cont"
  input_param {
    shape {
      dim: 1
      dim: 1
      dim: 500
    }
    shape {
      dim: 1
      dim: 1
    }
  }
}
layer {
  name: "lstm1_"
  type: "Input"
  top: "c_0"
  top: "h_0"
  input_param {
    shape {
      dim: 1
      dim: 1
      dim: 1000
    }
    shape {
      dim: 1
      dim: 1
      dim: 1000
    }
  }
}
layer {
  name: "lstm1_cont_slice"
  type: "Slice"
  bottom: "cont"
  top: "cont_1"
  slice_param {
    axis: 0
  }
}
layer {
  name: "lstm1_x_transform"
  type: "InnerProduct"
  bottom: "x"
  top: "W_xc_x"
  param {
    name: "W_xc"
  }
  param {
    name: "b_c"
  }
  propagate_down: true
  inner_product_param {
    num_output: 4000
    bias_term: true
    weight_filler {
      type: "uniform"
      min: -0.08
      max: 0.08
    }
    bias_filler {
      type: "constant"
      value: 0
    }
    axis: 2
  }
}
layer {
  name: "lstm1_W_xc_x_slice"
  type: "Slice"
  bottom: "W_xc_x"
  top: "W_xc_x_1"
  slice_param {
    axis: 0
  }
}
layer {
  name: "lstm1_h_conted_0"
  type: "Scale"
  bottom: "h_0"
  bottom: "cont_1"
  top: "h_conted_0"
  scale_param {
    axis: 0
  }
}
layer {
  name: "lstm1_transform_1"
  type: "InnerProduct"
  bottom: "h_conted_0"
  top: "W_hc_h_0"
  param {
    name: "W_hc"
  }
  inner_product_param {
    num_output: 4000
    bias_term: false
    weight_filler {
      type: "uniform"
      min: -0.08
      max: 0.08
    }
    axis: 2
  }
}
layer {
  name: "lstm1_gate_input_1"
  type: "Eltwise"
  bottom: "W_hc_h_0"
  bottom: "W_xc_x_1"
  top: "gate_input_1"
  eltwise_param {
    operation: SUM
  }
}
layer {
  name: "lstm1_unit_1"
  type: "LSTMUnit"
  bottom: "c_0"
  bottom: "gate_input_1"
  bottom: "cont_1"
  top: "c_1"
  top: "h_1"
}
layer {
  name: "lstm1_"
  type: "Split"
  bottom: "c_1"
  top: "c_T"
}
layer {
  name: "lstm1_h_concat"
  type: "Concat"
  bottom: "h_1"
  top: "h"
  concat_param {
    axis: 0
  }
}
layer {
  name: "h_pseudoloss"
  type: "Reduction"
  bottom: "h"
  top: "h_pseudoloss"
  loss_weight: 1
}
I0924 03:16:49.868041 20729 layer_factory.hpp:77] Creating layer lstm1_
I0924 03:16:49.868062 20729 net.cpp:91] Creating Layer lstm1_
I0924 03:16:49.868072 20729 net.cpp:399] lstm1_ -> x
I0924 03:16:49.868090 20729 net.cpp:399] lstm1_ -> cont
I0924 03:16:49.868710 20691 net.cpp:141] Setting up lstm1
I0924 03:16:49.868726 20691 net.cpp:148] Top shape: 1 1 1000 (1000)
I0924 03:16:49.868733 20691 net.cpp:156] Memory required for data: 26408
I0924 03:16:49.868754 20691 layer_factory.hpp:77] Creating layer concat
I0924 03:16:49.868762 20729 net.cpp:141] Setting up lstm1_
I0924 03:16:49.868769 20691 net.cpp:91] Creating Layer concat
I0924 03:16:49.868779 20729 net.cpp:148] Top shape: 1 1 500 (500)
I0924 03:16:49.868785 20691 net.cpp:425] concat <- lstm1
I0924 03:16:49.868790 20729 net.cpp:148] Top shape: 1 1 (1)
I0924 03:16:49.868795 20691 net.cpp:425] concat <- embedded_input_sentence
I0924 03:16:49.868798 20729 net.cpp:156] Memory required for data: 2004
I0924 03:16:49.868805 20691 net.cpp:425] concat <- reshaped_stage_indicator
I0924 03:16:49.868806 20729 layer_factory.hpp:77] Creating layer lstm1_
I0924 03:16:49.868818 20691 net.cpp:399] concat -> lstm1_video_sequence
I0924 03:16:49.868821 20729 net.cpp:91] Creating Layer lstm1_
I0924 03:16:49.868835 20729 net.cpp:399] lstm1_ -> c_0
I0924 03:16:49.868852 20729 net.cpp:399] lstm1_ -> h_0
I0924 03:16:49.869257 20691 net.cpp:141] Setting up concat
I0924 03:16:49.869273 20691 net.cpp:148] Top shape: 1 1 1501 (1501)
I0924 03:16:49.869280 20691 net.cpp:156] Memory required for data: 32412
I0924 03:16:49.869288 20691 layer_factory.hpp:77] Creating layer lstm2
I0924 03:16:49.869305 20691 net.cpp:91] Creating Layer lstm2
I0924 03:16:49.869313 20691 net.cpp:425] lstm2 <- lstm1_video_sequence
I0924 03:16:49.869323 20691 net.cpp:425] lstm2 <- cont_sentence_input_1_split_1
I0924 03:16:49.869331 20729 net.cpp:141] Setting up lstm1_
I0924 03:16:49.869335 20691 net.cpp:399] lstm2 -> lstm2
I0924 03:16:49.869357 20729 net.cpp:148] Top shape: 1 1 1000 (1000)
I0924 03:16:49.869364 20691 recurrent_layer.cpp:20] Initializing recurrent layer: assuming input batch contains 1 timesteps of 1 independent streams.
I0924 03:16:49.869369 20729 net.cpp:148] Top shape: 1 1 1000 (1000)
I0924 03:16:49.869376 20729 net.cpp:156] Memory required for data: 10004
I0924 03:16:49.869385 20729 layer_factory.hpp:77] Creating layer lstm1_cont_slice
I0924 03:16:49.869397 20729 net.cpp:91] Creating Layer lstm1_cont_slice
I0924 03:16:49.869405 20729 net.cpp:425] lstm1_cont_slice <- cont
I0924 03:16:49.869417 20729 net.cpp:399] lstm1_cont_slice -> cont_1
I0924 03:16:49.869681 20691 net.cpp:49] Initializing net from parameters: 
layer {
  name: "lstm2_"
  type: "Input"
  top: "x"
  top: "cont"
  input_param {
    shape {
      dim: 1
      dim: 1
      dim: 1501
    }
    shape {
      dim: 1
      dim: 1
    }
  }
}
layer {
  name: "lstm2_"
  type: "Input"
  top: "c_0"
  top: "h_0"
  input_param {
    shape {
      dim: 1
      dim: 1
      dim: 1000
    }
    shape {
      dim: 1
      dim: 1
      dim: 1000
    }
  }
}
layer {
  name: "lstm2_cont_slice"
  type: "Slice"
  bottom: "cont"
  top: "cont_1"
  slice_param {
    axis: 0
  }
}
layer {
  name: "lstm2_x_transform"
  type: "InnerProduct"
  bottom: "x"
  top: "W_xc_x"
  param {
    name: "W_xc"
  }
  param {
    name: "b_c"
  }
  propagate_down: true
  inner_product_param {
    num_output: 4000
    bias_term: true
    weight_filler {
      type: "uniform"
      min: -0.08
      max: 0.08
    }
    bias_filler {
      type: "constant"
      value: 0
    }
    axis: 2
  }
}
layer {
  name: "lstm2_W_xc_x_slice"
  type: "Slice"
  bottom: "W_xc_x"
  top: "W_xc_x_1"
  slice_param {
    axis: 0
  }
}
layer {
  name: "lstm2_h_conted_0"
  type: "Scale"
  bottom: "h_0"
  bottom: "cont_1"
  top: "h_conted_0"
  scale_param {
    axis: 0
  }
}
layer {
  name: "lstm2_transform_1"
  type: "InnerProduct"
  bottom: "h_conted_0"
  top: "W_hc_h_0"
  param {
    name: "W_hc"
  }
  inner_product_param {
    num_output: 4000
    bias_term: false
    weight_filler {
      type: "uniform"
      min: -0.08
      max: 0.08
    }
    axis: 2
  }
}
layer {
  name: "lstm2_gate_input_1"
  type: "Eltwise"
  bottom: "W_hc_h_0"
  bottom: "W_xc_x_1"
  top: "gate_input_1"
  eltwise_param {
    operation: SUM
  }
}
layer {
  name: "lstm2_unit_1"
  type: "LSTMUnit"
  bottom: "c_0"
  bottom: "gate_input_1"
  bottom: "cont_1"
  top: "c_1"
  top: "h_1"
}
layer {
  name: "lstm2_"
  type: "Split"
  bottom: "c_1"
  top: "c_T"
}
layer {
  name: "lstm2_h_concat"
  type: "Concat"
  bottom: "h_1"
  top: "h"
  concat_param {
    axis: 0
  }
}
layer {
  name: "h_pseudoloss"
  type: "Reduction"
  bottom: "h"
  top: "h_pseudoloss"
  loss_weight: 1
}
I0924 03:16:49.869804 20691 layer_factory.hpp:77] Creating layer lstm2_
I0924 03:16:49.869822 20691 net.cpp:91] Creating Layer lstm2_
I0924 03:16:49.869832 20691 net.cpp:399] lstm2_ -> x
I0924 03:16:49.869848 20691 net.cpp:399] lstm2_ -> cont
I0924 03:16:49.870636 20729 net.cpp:141] Setting up lstm1_cont_slice
I0924 03:16:49.870654 20729 net.cpp:148] Top shape: 1 1 (1)
I0924 03:16:49.870662 20729 net.cpp:156] Memory required for data: 10008
I0924 03:16:49.870669 20729 layer_factory.hpp:77] Creating layer cont_1_lstm1_cont_slice_0_split
I0924 03:16:49.870687 20729 net.cpp:91] Creating Layer cont_1_lstm1_cont_slice_0_split
I0924 03:16:49.870695 20729 net.cpp:425] cont_1_lstm1_cont_slice_0_split <- cont_1
I0924 03:16:49.870707 20729 net.cpp:399] cont_1_lstm1_cont_slice_0_split -> cont_1_lstm1_cont_slice_0_split_0
I0924 03:16:49.870709 20691 net.cpp:141] Setting up lstm2_
I0924 03:16:49.870720 20729 net.cpp:399] cont_1_lstm1_cont_slice_0_split -> cont_1_lstm1_cont_slice_0_split_1
I0924 03:16:49.870726 20691 net.cpp:148] Top shape: 1 1 1501 (1501)
I0924 03:16:49.870736 20691 net.cpp:148] Top shape: 1 1 (1)
I0924 03:16:49.870744 20691 net.cpp:156] Memory required for data: 6008
I0924 03:16:49.870753 20691 layer_factory.hpp:77] Creating layer lstm2_
I0924 03:16:49.870770 20691 net.cpp:91] Creating Layer lstm2_
I0924 03:16:49.870782 20691 net.cpp:399] lstm2_ -> c_0
I0924 03:16:49.870798 20691 net.cpp:399] lstm2_ -> h_0
I0924 03:16:49.871084 20691 net.cpp:141] Setting up lstm2_
I0924 03:16:49.871100 20691 net.cpp:148] Top shape: 1 1 1000 (1000)
I0924 03:16:49.871110 20691 net.cpp:148] Top shape: 1 1 1000 (1000)
I0924 03:16:49.871117 20691 net.cpp:156] Memory required for data: 14008
I0924 03:16:49.871125 20691 layer_factory.hpp:77] Creating layer lstm2_cont_slice
I0924 03:16:49.871127 20729 net.cpp:141] Setting up cont_1_lstm1_cont_slice_0_split
I0924 03:16:49.871139 20691 net.cpp:91] Creating Layer lstm2_cont_slice
I0924 03:16:49.871145 20729 net.cpp:148] Top shape: 1 1 (1)
I0924 03:16:49.871146 20691 net.cpp:425] lstm2_cont_slice <- cont
I0924 03:16:49.871162 20729 net.cpp:148] Top shape: 1 1 (1)
I0924 03:16:49.871168 20691 net.cpp:399] lstm2_cont_slice -> cont_1
I0924 03:16:49.871170 20729 net.cpp:156] Memory required for data: 10016
I0924 03:16:49.871179 20729 layer_factory.hpp:77] Creating layer lstm1_x_transform
I0924 03:16:49.871194 20729 net.cpp:91] Creating Layer lstm1_x_transform
I0924 03:16:49.871202 20729 net.cpp:425] lstm1_x_transform <- x
I0924 03:16:49.871219 20729 net.cpp:399] lstm1_x_transform -> W_xc_x
I0924 03:16:49.876420 20685 net.cpp:141] Setting up lstm2_x_transform
I0924 03:16:49.876461 20685 net.cpp:148] Top shape: 1 1 4000 (4000)
I0924 03:16:49.876468 20685 net.cpp:156] Memory required for data: 30020
I0924 03:16:49.876490 20685 layer_factory.hpp:77] Creating layer lstm2_W_xc_x_slice
I0924 03:16:49.876508 20685 net.cpp:91] Creating Layer lstm2_W_xc_x_slice
I0924 03:16:49.876518 20685 net.cpp:425] lstm2_W_xc_x_slice <- W_xc_x
I0924 03:16:49.876533 20685 net.cpp:399] lstm2_W_xc_x_slice -> W_xc_x_1
I0924 03:16:49.876587 20685 net.cpp:141] Setting up lstm2_W_xc_x_slice
I0924 03:16:49.876608 20685 net.cpp:148] Top shape: 1 1 4000 (4000)
I0924 03:16:49.876616 20685 net.cpp:156] Memory required for data: 46020
I0924 03:16:49.876622 20685 layer_factory.hpp:77] Creating layer lstm2_h_conted_0
I0924 03:16:49.876636 20685 net.cpp:91] Creating Layer lstm2_h_conted_0
I0924 03:16:49.876644 20685 net.cpp:425] lstm2_h_conted_0 <- h_0
I0924 03:16:49.876653 20685 net.cpp:425] lstm2_h_conted_0 <- cont_1_lstm2_cont_slice_0_split_0
I0924 03:16:49.876664 20685 net.cpp:399] lstm2_h_conted_0 -> h_conted_0
I0924 03:16:49.876794 20685 net.cpp:141] Setting up lstm2_h_conted_0
I0924 03:16:49.876808 20685 net.cpp:148] Top shape: 1 1 1000 (1000)
I0924 03:16:49.876814 20685 net.cpp:156] Memory required for data: 50020
I0924 03:16:49.876822 20685 layer_factory.hpp:77] Creating layer lstm2_transform_1
I0924 03:16:49.876838 20685 net.cpp:91] Creating Layer lstm2_transform_1
I0924 03:16:49.876845 20685 net.cpp:425] lstm2_transform_1 <- h_conted_0
I0924 03:16:49.876862 20685 net.cpp:399] lstm2_transform_1 -> W_hc_h_0
I0924 03:16:49.891299 20689 net.cpp:141] Setting up lstm1_x_transform
I0924 03:16:49.891342 20689 net.cpp:148] Top shape: 1 1 4000 (4000)
I0924 03:16:49.891350 20689 net.cpp:156] Memory required for data: 26016
I0924 03:16:49.891379 20689 layer_factory.hpp:77] Creating layer lstm1_W_xc_x_slice
I0924 03:16:49.891401 20689 net.cpp:91] Creating Layer lstm1_W_xc_x_slice
I0924 03:16:49.891409 20689 net.cpp:425] lstm1_W_xc_x_slice <- W_xc_x
I0924 03:16:49.891422 20689 net.cpp:399] lstm1_W_xc_x_slice -> W_xc_x_1
I0924 03:16:49.891480 20689 net.cpp:141] Setting up lstm1_W_xc_x_slice
I0924 03:16:49.891494 20689 net.cpp:148] Top shape: 1 1 4000 (4000)
I0924 03:16:49.891500 20689 net.cpp:156] Memory required for data: 42016
I0924 03:16:49.891508 20689 layer_factory.hpp:77] Creating layer lstm1_h_conted_0
I0924 03:16:49.891526 20689 net.cpp:91] Creating Layer lstm1_h_conted_0
I0924 03:16:49.891535 20689 net.cpp:425] lstm1_h_conted_0 <- h_0
I0924 03:16:49.891543 20689 net.cpp:425] lstm1_h_conted_0 <- cont_1_lstm1_cont_slice_0_split_0
I0924 03:16:49.891554 20689 net.cpp:399] lstm1_h_conted_0 -> h_conted_0
I0924 03:16:49.891690 20689 net.cpp:141] Setting up lstm1_h_conted_0
I0924 03:16:49.891705 20689 net.cpp:148] Top shape: 1 1 1000 (1000)
I0924 03:16:49.891711 20689 net.cpp:156] Memory required for data: 46016
I0924 03:16:49.891718 20689 layer_factory.hpp:77] Creating layer lstm1_transform_1
I0924 03:16:49.891736 20689 net.cpp:91] Creating Layer lstm1_transform_1
I0924 03:16:49.891743 20689 net.cpp:425] lstm1_transform_1 <- h_conted_0
I0924 03:16:49.891755 20689 net.cpp:399] lstm1_transform_1 -> W_hc_h_0
I0924 03:16:49.902930 20703 net.cpp:141] Setting up lstm1_transform_1
I0924 03:16:49.902983 20703 net.cpp:148] Top shape: 1 1 4000 (4000)
I0924 03:16:49.902993 20703 net.cpp:156] Memory required for data: 62016
I0924 03:16:49.903023 20703 layer_factory.hpp:77] Creating layer lstm1_gate_input_1
I0924 03:16:49.903056 20703 net.cpp:91] Creating Layer lstm1_gate_input_1
I0924 03:16:49.903067 20703 net.cpp:425] lstm1_gate_input_1 <- W_hc_h_0
I0924 03:16:49.903079 20703 net.cpp:425] lstm1_gate_input_1 <- W_xc_x_1
I0924 03:16:49.903091 20703 net.cpp:399] lstm1_gate_input_1 -> gate_input_1
I0924 03:16:49.903177 20703 net.cpp:141] Setting up lstm1_gate_input_1
I0924 03:16:49.903192 20703 net.cpp:148] Top shape: 1 1 4000 (4000)
I0924 03:16:49.903198 20703 net.cpp:156] Memory required for data: 78016
I0924 03:16:49.903206 20703 layer_factory.hpp:77] Creating layer lstm1_unit_1
I0924 03:16:49.903218 20703 net.cpp:91] Creating Layer lstm1_unit_1
I0924 03:16:49.903226 20703 net.cpp:425] lstm1_unit_1 <- c_0
I0924 03:16:49.903235 20703 net.cpp:425] lstm1_unit_1 <- gate_input_1
I0924 03:16:49.903244 20703 net.cpp:425] lstm1_unit_1 <- cont_1_lstm1_cont_slice_0_split_1
I0924 03:16:49.903254 20703 net.cpp:399] lstm1_unit_1 -> c_1
I0924 03:16:49.903268 20703 net.cpp:399] lstm1_unit_1 -> h_1
I0924 03:16:49.903367 20703 net.cpp:141] Setting up lstm1_unit_1
I0924 03:16:49.903381 20703 net.cpp:148] Top shape: 1 1 1000 (1000)
I0924 03:16:49.903390 20703 net.cpp:148] Top shape: 1 1 1000 (1000)
I0924 03:16:49.903398 20703 net.cpp:156] Memory required for data: 86016
I0924 03:16:49.903405 20703 layer_factory.hpp:77] Creating layer lstm1_
I0924 03:16:49.903421 20703 net.cpp:91] Creating Layer lstm1_
I0924 03:16:49.903429 20703 net.cpp:425] lstm1_ <- c_1
I0924 03:16:49.903440 20703 net.cpp:399] lstm1_ -> c_T
I0924 03:16:49.903486 20703 net.cpp:141] Setting up lstm1_
I0924 03:16:49.903497 20703 net.cpp:148] Top shape: 1 1 1000 (1000)
I0924 03:16:49.903506 20703 net.cpp:156] Memory required for data: 90016
I0924 03:16:49.903513 20703 layer_factory.hpp:77] Creating layer lstm1_h_concat
I0924 03:16:49.903527 20703 net.cpp:91] Creating Layer lstm1_h_concat
I0924 03:16:49.903533 20703 net.cpp:425] lstm1_h_concat <- h_1
I0924 03:16:49.903549 20703 net.cpp:399] lstm1_h_concat -> h
I0924 03:16:49.903604 20703 net.cpp:141] Setting up lstm1_h_concat
I0924 03:16:49.903619 20703 net.cpp:148] Top shape: 1 1 1000 (1000)
I0924 03:16:49.903625 20703 net.cpp:156] Memory required for data: 94016
I0924 03:16:49.903633 20703 layer_factory.hpp:77] Creating layer h_pseudoloss
I0924 03:16:49.903646 20703 net.cpp:91] Creating Layer h_pseudoloss
I0924 03:16:49.903653 20703 net.cpp:425] h_pseudoloss <- h
I0924 03:16:49.903663 20703 net.cpp:399] h_pseudoloss -> h_pseudoloss
I0924 03:16:49.903795 20703 net.cpp:141] Setting up h_pseudoloss
…
I0924 03:16:49.903949 20703 net.cpp:219] lstm1_ does not need backward computation.
I0924 03:16:49.903954 20703 net.cpp:261] This network produces output c_T
I0924 03:16:49.903962 20703 net.cpp:261] This network produces output h_pseudoloss
I0924 03:16:49.903985 20703 net.cpp:274] Network initialization done.
I0924 03:16:49.904049 20703 recurrent_layer.cpp:150] Adding parameter 0: W_xc
I0924 03:16:49.904060 20703 recurrent_layer.cpp:150] Adding parameter 1: b_c
I0924 03:16:49.904068 20703 recurrent_layer.cpp:150] Adding parameter 2: W_hc
I0924 03:16:49.904208 20703 net.cpp:141] Setting up lstm1
I0924 03:16:49.904223 20703 net.cpp:148] Top shape: 1 1 1000 (1000)
I0924 03:16:49.904230 20703 net.cpp:156] Memory required for data: 26408
I0924 03:16:49.904250 20703 layer_factory.hpp:77] Creating layer concat
I0924 03:16:49.904287 20703 net.cpp:91] Creating Layer concat
I0924 03:16:49.904296 20703 net.cpp:425] concat <- lstm1
I0924 03:16:49.904306 20703 net.cpp:425] concat <- embedded_input_sentence
I0924 03:16:49.904314 20703 net.cpp:425] concat <- reshaped_stage_indicator
I0924 03:16:49.904325 20703 net.cpp:399] concat -> lstm1_video_sequence
I0924 03:16:49.904371 20703 net.cpp:141] Setting up concat
I0924 03:16:49.904384 20703 net.cpp:148] Top shape: 1 1 1501 (1501)
I0924 03:16:49.904392 20703 net.cpp:156] Memory required for data: 32412
I0924 03:16:49.904398 20703 layer_factory.hpp:77] Creating layer lstm2
I0924 03:16:49.904415 20703 net.cpp:91] Creating Layer lstm2
I0924 03:16:49.904423 20703 net.cpp:425] lstm2 <- lstm1_video_sequence
I0924 03:16:49.904433 20703 net.cpp:425] lstm2 <- cont_sentence_input_1_split_1
I0924 03:16:49.904443 20703 net.cpp:399] lstm2 -> lstm2
I0924 03:16:49.904458 20703 recurrent_layer.cpp:20] Initializing recurrent layer: assuming input batch contains 1 timesteps of 1 independent streams.
I0924 03:16:49.904845 20703 net.cpp:49] Initializing net from parameters: 
layer {
  name: "lstm2_"
  type: "Input"
  top: "x"
  top: "cont"
  input_param {
    shape {
      dim: 1
      dim: 1
      dim: 1501
    }
    shape {
      dim: 1
      dim: 1
    }
  }
}
layer {
  name: "lstm2_"
  type: "Input"
  top: "c_0"
  top: "h_0"
  input_param {
    shape {
      dim: 1
      dim: 1
      dim: 1000
    }
    shape {
      dim: 1
      dim: 1
      dim: 1000
    }
  }
}
layer {
  name: "lstm2_cont_slice"
  type: "Slice"
  bottom: "cont"
  top: "cont_1"
  slice_param {
    axis: 0
  }
}
layer {
  name: "lstm2_x_transform"
  type: "InnerProduct"
  bottom: "x"
  top: "W_xc_x"
  param {
    name: "W_xc"
  }
  param {
    name: "b_c"
  }
  propagate_down: true
  inner_product_param {
    num_output: 4000
    bias_term: true
    weight_filler {
      type: "uniform"
      min: -0.08
      max: 0.08
    }
    bias_filler {
      type: "constant"
      value: 0
    }
    axis: 2
  }
}
layer {
  name: "lstm2_W_xc_x_slice"
  type: "Slice"
  bottom: "W_xc_x"
  top: "W_xc_x_1"
  slice_param {
    axis: 0
  }
}
layer {
  name: "lstm2_h_conted_0"
  type: "Scale"
  bottom: "h_0"
  bottom: "cont_1"
  top: "h_conted_0"
  scale_param {
    axis: 0
  }
}
layer {
  name: "lstm2_transform_1"
  type: "InnerProduct"
  bottom: "h_conted_0"
  top: "W_hc_h_0"
  param {
    name: "W_hc"
  }
  inner_product_param {
    num_output: 4000
    bias_term: false
    weight_filler {
      type: "uniform"
      min: -0.08
      max: 0.08
    }
    axis: 2
  }
}
layer {
  name: "lstm2_gate_input_1"
  type: "Eltwise"
  bottom: "W_hc_h_0"
  bottom: "W_xc_x_1"
  top: "gate_input_1"
  eltwise_param {
    operation: SUM
  }
}
layer {
  name: "lstm2_unit_1"
  type: "LSTMUnit"
  bottom: "c_0"
  bottom: "gate_input_1"
  bottom: "cont_1"
  top: "c_1"
  top: "h_1"
}
layer {
  name: "lstm2_"
  type: "Split"
  bottom: "c_1"
  top: "c_T"
}
layer {
  name: "lstm2_h_concat"
  type: "Concat"
  bottom: "h_1"
  top: "h"
  concat_param {
    axis: 0
  }
}
layer {
  name: "h_pseudoloss"
  type: "Reduction"
  bottom: "h"
  top: "h_pseudoloss"
  loss_weight: 1
}
I0924 03:16:49.904978 20703 layer_factory.hpp:77] Creating layer lstm2_
I0924 03:16:49.904995 20703 net.cpp:91] Creating Layer lstm2_
I0924 03:16:49.905005 20703 net.cpp:399] lstm2_ -> x
I0924 03:16:49.905021 20703 net.cpp:399] lstm2_ -> cont
I0924 03:16:49.905105 20703 net.cpp:141] Setting up lstm2_
I0924 03:16:49.905120 20703 net.cpp:148] Top shape: 1 1 1501 (1501)
I0924 03:16:49.905130 20703 net.cpp:148] Top shape: 1 1 (1)
I0924 03:16:49.905138 20703 net.cpp:156] Memory required for data: 6008
I0924 03:16:49.905145 20703 layer_factory.hpp:77] Creating layer lstm2_
I0924 03:16:49.905158 20703 net.cpp:91] Creating Layer lstm2_
I0924 03:16:49.905172 20703 net.cpp:399] lstm2_ -> c_0
I0924 03:16:49.905187 20703 net.cpp:399] lstm2_ -> h_0
I0924 03:16:49.905267 20703 net.cpp:141] Setting up lstm2_
I0924 03:16:49.905282 20703 net.cpp:148] Top shape: 1 1 1000 (1000)
I0924 03:16:49.905292 20703 net.cpp:148] Top shape: 1 1 1000 (1000)
I0924 03:16:49.905297 20703 net.cpp:156] Memory required for data: 14008
I0924 03:16:49.905305 20703 layer_factory.hpp:77] Creating layer lstm2_cont_slice
I0924 03:16:49.905318 20703 net.cpp:91] Creating Layer lstm2_cont_slice
I0924 03:16:49.905325 20703 net.cpp:425] lstm2_cont_slice <- cont
I0924 03:16:49.905336 20703 net.cpp:399] lstm2_cont_slice -> cont_1
I0924 03:16:49.905387 20703 net.cpp:141] Setting up lstm2_cont_slice
I0924 03:16:49.905400 20703 net.cpp:148] Top shape: 1 1 (1)
I0924 03:16:49.905407 20703 net.cpp:156] Memory required for data: 14012
I0924 03:16:49.905414 20703 layer_factory.hpp:77] Creating layer cont_1_lstm2_cont_slice_0_split
I0924 03:16:49.905427 20703 net.cpp:91] Creating Layer cont_1_lstm2_cont_slice_0_split
I0924 03:16:49.905436 20703 net.cpp:425] cont_1_lstm2_cont_slice_0_split <- cont_1
I0924 03:16:49.905445 20703 net.cpp:399] cont_1_lstm2_cont_slice_0_split -> cont_1_lstm2_cont_slice_0_split_0
I0924 03:16:49.905457 20703 net.cpp:399] cont_1_lstm2_cont_slice_0_split -> cont_1_lstm2_cont_slice_0_split_1
I0924 03:16:49.905527 20703 net.cpp:141] Setting up cont_1_lstm2_cont_slice_0_split
I0924 03:16:49.905539 20703 net.cpp:148] Top shape: 1 1 (1)
I0924 03:16:49.905550 20703 net.cpp:148] Top shape: 1 1 (1)
I0924 03:16:49.905556 20703 net.cpp:156] Memory required for data: 14020
I0924 03:16:49.905563 20703 layer_factory.hpp:77] Creating layer lstm2_x_transform
I0924 03:16:49.905582 20703 net.cpp:91] Creating Layer lstm2_x_transform
I0924 03:16:49.905591 20703 net.cpp:425] lstm2_x_transform <- x
I0924 03:16:49.905602 20703 net.cpp:399] lstm2_x_transform -> W_xc_x
I0924 03:16:49.917001 20691 net.cpp:141] Setting up lstm2_cont_slice
I0924 03:16:49.917042 20691 net.cpp:148] Top shape: 1 1 (1)
I0924 03:16:49.917050 20691 net.cpp:156] Memory required for data: 14012
I0924 03:16:49.917062 20691 layer_factory.hpp:77] Creating layer cont_1_lstm2_cont_slice_0_split
I0924 03:16:49.917083 20691 net.cpp:91] Creating Layer cont_1_lstm2_cont_slice_0_split
I0924 03:16:49.917091 20691 net.cpp:425] cont_1_lstm2_cont_slice_0_split <- cont_1
I0924 03:16:49.917109 20691 net.cpp:399] cont_1_lstm2_cont_slice_0_split -> cont_1_lstm2_cont_slice_0_split_0
I0924 03:16:49.917126 20691 net.cpp:399] cont_1_lstm2_cont_slice_0_split -> cont_1_lstm2_cont_slice_0_split_1
I0924 03:16:49.917151 20723 net.cpp:141] Setting up embedding
I0924 03:16:49.917174 20723 net.cpp:148] Top shape: 1 1 500 (500)
I0924 03:16:49.917183 20723 net.cpp:156] Memory required for data: 22408
I0924 03:16:49.917204 20723 layer_factory.hpp:77] Creating layer lstm1
I0924 03:16:49.917242 20723 net.cpp:91] Creating Layer lstm1
I0924 03:16:49.917254 20723 net.cpp:425] lstm1 <- embedded_input_frames
I0924 03:16:49.917265 20723 net.cpp:425] lstm1 <- cont_sentence_input_1_split_0
I0924 03:16:49.917300 20723 net.cpp:399] lstm1 -> lstm1
I0924 03:16:49.917306 20729 net.cpp:141] Setting up lstm1_x_transform
I0924 03:16:49.917320 20723 recurrent_layer.cpp:20] Initializing recurrent layer: assuming input batch contains 1 timesteps of 1 independent streams.
I0924 03:16:49.917326 20729 net.cpp:148] Top shape: 1 1 4000 (4000)
I0924 03:16:49.917335 20729 net.cpp:156] Memory required for data: 26016
I0924 03:16:49.917353 20729 layer_factory.hpp:77] Creating layer lstm1_W_xc_x_slice
I0924 03:16:49.917368 20729 net.cpp:91] Creating Layer lstm1_W_xc_x_slice
I0924 03:16:49.917387 20729 net.cpp:425] lstm1_W_xc_x_slice <- W_xc_x
I0924 03:16:49.917399 20729 net.cpp:399] lstm1_W_xc_x_slice -> W_xc_x_1
I0924 03:16:49.917457 20729 net.cpp:141] Setting up lstm1_W_xc_x_slice
I0924 03:16:49.917470 20729 net.cpp:148] Top shape: 1 1 4000 (4000)
I0924 03:16:49.917477 20729 net.cpp:156] Memory required for data: 42016
I0924 03:16:49.917484 20729 layer_factory.hpp:77] Creating layer lstm1_h_conted_0
I0924 03:16:49.917502 20729 net.cpp:91] Creating Layer lstm1_h_conted_0
I0924 03:16:49.917515 20729 net.cpp:425] lstm1_h_conted_0 <- h_0
I0924 03:16:49.917524 20729 net.cpp:425] lstm1_h_conted_0 <- cont_1_lstm1_cont_slice_0_split_0
I0924 03:16:49.917536 20729 net.cpp:399] lstm1_h_conted_0 -> h_conted_0
I0924 03:16:49.917706 20729 net.cpp:141] Setting up lstm1_h_conted_0
I0924 03:16:49.917723 20729 net.cpp:148] Top shape: 1 1 1000 (1000)
I0924 03:16:49.917732 20729 net.cpp:156] Memory required for data: 46016
I0924 03:16:49.917742 20729 layer_factory.hpp:77] Creating layer lstm1_transform_1
I0924 03:16:49.917762 20729 net.cpp:91] Creating Layer lstm1_transform_1
I0924 03:16:49.917773 20729 net.cpp:425] lstm1_transform_1 <- h_conted_0
I0924 03:16:49.917794 20729 net.cpp:399] lstm1_transform_1 -> W_hc_h_0
I0924 03:16:49.917783 20723 net.cpp:49] Initializing net from parameters: 
layer {
  name: "lstm1_"
  type: "Input"
  top: "x"
  top: "cont"
  input_param {
    shape {
      dim: 1
      dim: 1
      dim: 500
    }
    shape {
      dim: 1
      dim: 1
    }
  }
}
layer {
  name: "lstm1_"
  type: "Input"
  top: "c_0"
  top: "h_0"
  input_param {
    shape {
      dim: 1
      dim: 1
      dim: 1000
    }
    shape {
      dim: 1
      dim: 1
      dim: 1000
    }
  }
}
layer {
  name: "lstm1_cont_slice"
  type: "Slice"
  bottom: "cont"
  top: "cont_1"
  slice_param {
    axis: 0
  }
}
layer {
  name: "lstm1_x_transform"
  type: "InnerProduct"
  bottom: "x"
  top: "W_xc_x"
  param {
    name: "W_xc"
  }
  param {
    name: "b_c"
  }
  propagate_down: true
  inner_product_param {
    num_output: 4000
    bias_term: true
    weight_filler {
      type: "uniform"
      min: -0.08
      max: 0.08
    }
    bias_filler {
      type: "constant"
      value: 0
    }
    axis: 2
  }
}
layer {
  name: "lstm1_W_xc_x_slice"
  type: "Slice"
  bottom: "W_xc_x"
  top: "W_xc_x_1"
  slice_param {
    axis: 0
  }
}
layer {
  name: "lstm1_h_conted_0"
  type: "Scale"
  bottom: "h_0"
  bottom: "cont_1"
  top: "h_conted_0"
  scale_param {
    axis: 0
  }
}
layer {
  name: "lstm1_transform_1"
  type: "InnerProduct"
  bottom: "h_conted_0"
  top: "W_hc_h_0"
  param {
    name: "W_hc"
  }
  inner_product_param {
    num_output: 4000
    bias_term: false
    weight_filler {
      type: "uniform"
      min: -0.08
      max: 0.08
    }
    axis: 2
  }
}
layer {
  name: "lstm1_gate_input_1"
  type: "Eltwise"
  bottom: "W_hc_h_0"
  bottom: "W_xc_x_1"
  top: "gate_input_1"
  eltwise_param {
    operation: SUM
  }
}
layer {
  name: "lstm1_unit_1"
  type: "LSTMUnit"
  bottom: "c_0"
  bottom: "gate_input_1"
  bottom: "cont_1"
  top: "c_1"
  top: "h_1"
}
layer {
  name: "lstm1_"
  type: "Split"
  bottom: "c_1"
  top: "c_T"
}
layer {
  name: "lstm1_h_concat"
  type: "Concat"
  bottom: "h_1"
  top: "h"
  concat_param {
    axis: 0
  }
}
layer {
  name: "h_pseudoloss"
  type: "Reduction"
  bottom: "h"
  top: "h_pseudoloss"
  loss_weight: 1
}
I0924 03:16:49.917981 20723 layer_factory.hpp:77] Creating layer lstm1_
I0924 03:16:49.918002 20723 net.cpp:91] Creating Layer lstm1_
I0924 03:16:49.918014 20723 net.cpp:399] lstm1_ -> x
I0924 03:16:49.918030 20723 net.cpp:399] lstm1_ -> cont
I0924 03:16:49.933387 20695 net.cpp:141] Setting up lstm2_x_transform
I0924 03:16:49.933440 20695 net.cpp:148] Top shape: 1 1 4000 (4000)
I0924 03:16:49.933454 20695 net.cpp:156] Memory required for data: 30020
I0924 03:16:49.933487 20695 layer_factory.hpp:77] Creating layer lstm2_W_xc_x_slice
I0924 03:16:49.933514 20695 net.cpp:91] Creating Layer lstm2_W_xc_x_slice
I0924 03:16:49.933528 20695 net.cpp:425] lstm2_W_xc_x_slice <- W_xc_x
I0924 03:16:49.933552 20695 net.cpp:399] lstm2_W_xc_x_slice -> W_xc_x_1
I0924 03:16:49.933625 20695 net.cpp:141] Setting up lstm2_W_xc_x_slice
I0924 03:16:49.933645 20695 net.cpp:148] Top shape: 1 1 4000 (4000)
I0924 03:16:49.933653 20695 net.cpp:156] Memory required for data: 46020
I0924 03:16:49.933663 20695 layer_factory.hpp:77] Creating layer lstm2_h_conted_0
I0924 03:16:49.933681 20695 net.cpp:91] Creating Layer lstm2_h_conted_0
I0924 03:16:49.933692 20695 net.cpp:425] lstm2_h_conted_0 <- h_0
I0924 03:16:49.933704 20695 net.cpp:425] lstm2_h_conted_0 <- cont_1_lstm2_cont_slice_0_split_0
I0924 03:16:49.933724 20695 net.cpp:399] lstm2_h_conted_0 -> h_conted_0
I0924 03:16:49.933907 20695 net.cpp:141] Setting up lstm2_h_conted_0
I0924 03:16:49.933923 20695 net.cpp:148] Top shape: 1 1 1000 (1000)
I0924 03:16:49.933933 20695 net.cpp:156] Memory required for data: 50020
I0924 03:16:49.933943 20695 layer_factory.hpp:77] Creating layer lstm2_transform_1
I0924 03:16:49.933969 20695 net.cpp:91] Creating Layer lstm2_transform_1
I0924 03:16:49.933980 20695 net.cpp:425] lstm2_transform_1 <- h_conted_0
I0924 03:16:49.933997 20695 net.cpp:399] lstm2_transform_1 -> W_hc_h_0
I0924 03:16:49.951248 20691 net.cpp:141] Setting up cont_1_lstm2_cont_slice_0_split
I0924 03:16:49.951300 20691 net.cpp:148] Top shape: 1 1 (1)
I0924 03:16:49.951311 20691 net.cpp:148] Top shape: 1 1 (1)
I0924 03:16:49.951319 20691 net.cpp:156] Memory required for data: 14020
I0924 03:16:49.951331 20691 layer_factory.hpp:77] Creating layer lstm2_x_transform
I0924 03:16:49.951364 20691 net.cpp:91] Creating Layer lstm2_x_transform
I0924 03:16:49.951375 20691 net.cpp:425] lstm2_x_transform <- x
I0924 03:16:49.951395 20691 net.cpp:399] lstm2_x_transform -> W_xc_x
I0924 03:16:49.966456 20723 net.cpp:141] Setting up lstm1_
I0924 03:16:49.966511 20723 net.cpp:148] Top shape: 1 1 500 (500)
I0924 03:16:49.966526 20723 net.cpp:148] Top shape: 1 1 (1)
I0924 03:16:49.966533 20723 net.cpp:156] Memory required for data: 2004
I0924 03:16:49.966545 20723 layer_factory.hpp:77] Creating layer lstm1_
I0924 03:16:49.966619 20723 net.cpp:91] Creating Layer lstm1_
I0924 03:16:49.966639 20723 net.cpp:399] lstm1_ -> c_0
I0924 03:16:49.966681 20723 net.cpp:399] lstm1_ -> h_0
I0924 03:16:49.966758 20685 net.cpp:141] Setting up lstm2_transform_1
I0924 03:16:49.966799 20685 net.cpp:148] Top shape: 1 1 4000 (4000)
I0924 03:16:49.966807 20685 net.cpp:156] Memory required for data: 66020
I0924 03:16:49.966833 20685 layer_factory.hpp:77] Creating layer lstm2_gate_input_1
I0924 03:16:49.966841 20689 net.cpp:141] Setting up lstm1_transform_1
I0924 03:16:49.966863 20685 net.cpp:91] Creating Layer lstm2_gate_input_1
I0924 03:16:49.966873 20689 net.cpp:148] Top shape: 1 1 4000 (4000)
I0924 03:16:49.966876 20685 net.cpp:425] lstm2_gate_input_1 <- W_hc_h_0
I0924 03:16:49.966904 20689 net.cpp:156] Memory required for data: 62016
I0924 03:16:49.966927 20685 net.cpp:425] lstm2_gate_input_1 <- W_xc_x_1
I0924 03:16:49.966941 20689 layer_factory.hpp:77] Creating layer lstm1_gate_input_1
I0924 03:16:49.966943 20685 net.cpp:399] lstm2_gate_input_1 -> gate_input_1
I0924 03:16:49.966980 20689 net.cpp:91] Creating Layer lstm1_gate_input_1
I0924 03:16:49.966995 20689 net.cpp:425] lstm1_gate_input_1 <- W_hc_h_0
I0924 03:16:49.967005 20689 net.cpp:425] lstm1_gate_input_1 <- W_xc_x_1
I0924 03:16:49.967018 20689 net.cpp:399] lstm1_gate_input_1 -> gate_input_1
I0924 03:16:49.967059 20685 net.cpp:141] Setting up lstm2_gate_input_1
I0924 03:16:49.967075 20685 net.cpp:148] Top shape: 1 1 4000 (4000)
I0924 03:16:49.967083 20685 net.cpp:156] Memory required for data: 82020
I0924 03:16:49.967092 20685 layer_factory.hpp:77] Creating layer lstm2_unit_1
I0924 03:16:49.967106 20685 net.cpp:91] Creating Layer lstm2_unit_1
I0924 03:16:49.967115 20685 net.cpp:425] lstm2_unit_1 <- c_0
I0924 03:16:49.967126 20685 net.cpp:425] lstm2_unit_1 <- gate_input_1
I0924 03:16:49.967134 20685 net.cpp:425] lstm2_unit_1 <- cont_1_lstm2_cont_slice_0_split_1
I0924 03:16:49.967151 20685 net.cpp:399] lstm2_unit_1 -> c_1
I0924 03:16:49.967166 20685 net.cpp:399] lstm2_unit_1 -> h_1
I0924 03:16:49.967291 20689 net.cpp:141] Setting up lstm1_gate_input_1
I0924 03:16:49.967309 20689 net.cpp:148] Top shape: 1 1 4000 (4000)
I0924 03:16:49.967317 20689 net.cpp:156] Memory required for data: 78016
I0924 03:16:49.967325 20689 layer_factory.hpp:77] Creating layer lstm1_unit_1
I0924 03:16:49.967342 20689 net.cpp:91] Creating Layer lstm1_unit_1
I0924 03:16:49.967344 20723 net.cpp:141] Setting up lstm1_
I0924 03:16:49.967352 20689 net.cpp:425] lstm1_unit_1 <- c_0
I0924 03:16:49.967361 20723 net.cpp:148] Top shape: 1 1 1000 (1000)
I0924 03:16:49.967363 20689 net.cpp:425] lstm1_unit_1 <- gate_input_1
I0924 03:16:49.967372 20723 net.cpp:148] Top shape: 1 1 1000 (1000)
I0924 03:16:49.967375 20689 net.cpp:425] lstm1_unit_1 <- cont_1_lstm1_cont_slice_0_split_1
I0924 03:16:49.967380 20723 net.cpp:156] Memory required for data: 10004
I0924 03:16:49.967386 20689 net.cpp:399] lstm1_unit_1 -> c_1
I0924 03:16:49.967387 20723 layer_factory.hpp:77] Creating layer lstm1_cont_slice
I0924 03:16:49.967420 20689 net.cpp:399] lstm1_unit_1 -> h_1
I0924 03:16:49.967437 20723 net.cpp:91] Creating Layer lstm1_cont_slice
I0924 03:16:49.967448 20723 net.cpp:425] lstm1_cont_slice <- cont
I0924 03:16:49.967460 20723 net.cpp:399] lstm1_cont_slice -> cont_1
I0924 03:16:49.967468 20685 net.cpp:141] Setting up lstm2_unit_1
I0924 03:16:49.967484 20685 net.cpp:148] Top shape: 1 1 1000 (1000)
I0924 03:16:49.967494 20685 net.cpp:148] Top shape: 1 1 1000 (1000)
I0924 03:16:49.967501 20685 net.cpp:156] Memory required for data: 90020
I0924 03:16:49.967509 20685 layer_factory.hpp:77] Creating layer lstm2_
I0924 03:16:49.967521 20685 net.cpp:91] Creating Layer lstm2_
I0924 03:16:49.967528 20685 net.cpp:425] lstm2_ <- c_1
I0924 03:16:49.967540 20685 net.cpp:399] lstm2_ -> c_T
I0924 03:16:49.967552 20723 net.cpp:141] Setting up lstm1_cont_slice
I0924 03:16:49.967568 20723 net.cpp:148] Top shape: 1 1 (1)
I0924 03:16:49.967576 20723 net.cpp:156] Memory required for data: 10008
I0924 03:16:49.967583 20723 layer_factory.hpp:77] Creating layer cont_1_lstm1_cont_slice_0_split
I0924 03:16:49.967595 20723 net.cpp:91] Creating Layer cont_1_lstm1_cont_slice_0_split
I0924 03:16:49.967603 20723 net.cpp:425] cont_1_lstm1_cont_slice_0_split <- cont_1
I0924 03:16:49.967615 20723 net.cpp:399] cont_1_lstm1_cont_slice_0_split -> cont_1_lstm1_cont_slice_0_split_0
I0924 03:16:49.967658 20723 net.cpp:399] cont_1_lstm1_cont_slice_0_split -> cont_1_lstm1_cont_slice_0_split_1
I0924 03:16:49.967699 20689 net.cpp:141] Setting up lstm1_unit_1
I0924 03:16:49.967716 20689 net.cpp:148] Top shape: 1 1 1000 (1000)
I0924 03:16:49.967728 20689 net.cpp:148] Top shape: 1 1 1000 (1000)
I0924 03:16:49.967736 20689 net.cpp:156] Memory required for data: 86016
I0924 03:16:49.967744 20689 layer_factory.hpp:77] Creating layer lstm1_
I0924 03:16:49.967763 20689 net.cpp:91] Creating Layer lstm1_
I0924 03:16:49.967774 20689 net.cpp:425] lstm1_ <- c_1
I0924 03:16:49.967775 20685 net.cpp:141] Setting up lstm2_
I0924 03:16:49.967788 20689 net.cpp:399] lstm1_ -> c_T
I0924 03:16:49.967792 20685 net.cpp:148] Top shape: 1 1 1000 (1000)
I0924 03:16:49.967814 20685 net.cpp:156] Memory required for data: 94020
I0924 03:16:49.967823 20685 layer_factory.hpp:77] Creating layer lstm2_h_concat
I0924 03:16:49.967839 20685 net.cpp:91] Creating Layer lstm2_h_concat
I0924 03:16:49.967847 20685 net.cpp:425] lstm2_h_concat <- h_1
I0924 03:16:49.967862 20685 net.cpp:399] lstm2_h_concat -> h
I0924 03:16:49.967880 20689 net.cpp:141] Setting up lstm1_
I0924 03:16:49.967895 20689 net.cpp:148] Top shape: 1 1 1000 (1000)
I0924 03:16:49.967905 20689 net.cpp:156] Memory required for data: 90016
I0924 03:16:49.967912 20689 layer_factory.hpp:77] Creating layer lstm1_h_concat
I0924 03:16:49.967928 20689 net.cpp:91] Creating Layer lstm1_h_concat
I0924 03:16:49.967938 20689 net.cpp:425] lstm1_h_concat <- h_1
I0924 03:16:49.967938 20685 net.cpp:141] Setting up lstm2_h_concat
I0924 03:16:49.967954 20685 net.cpp:148] Top shape: 1 1 1000 (1000)
I0924 03:16:49.967957 20689 net.cpp:399] lstm1_h_concat -> h
I0924 03:16:49.967963 20685 net.cpp:156] Memory required for data: 98020
I0924 03:16:49.967972 20685 layer_factory.hpp:77] Creating layer h_pseudoloss
I0924 03:16:49.967134 20729 net.cpp:141] Setting up lstm1_transform_1
I0924 03:16:49.967989 20685 net.cpp:91] Creating Layer h_pseudoloss
I0924 03:16:49.967998 20685 net.cpp:425] h_pseudoloss <- h
I0924 03:16:49.968010 20685 net.cpp:399] h_pseudoloss -> h_pseudoloss
I0924 03:16:49.968014 20723 net.cpp:141] Setting up cont_1_lstm1_cont_slice_0_split
I0924 03:16:49.968031 20723 net.cpp:148] Top shape: 1 1 (1)
I0924 03:16:49.968041 20723 net.cpp:148] Top shape: 1 1 (1)
I0924 03:16:49.968049 20723 net.cpp:156] Memory required for data: 10016
I0924 03:16:49.968055 20723 layer_factory.hpp:77] Creating layer lstm1_x_transform
I0924 03:16:49.968076 20689 net.cpp:141] Setting up lstm1_h_concat
I0924 03:16:49.968091 20689 net.cpp:148] Top shape: 1 1 1000 (1000)
I0924 03:16:49.968092 20723 net.cpp:91] Creating Layer lstm1_x_transform
I0924 03:16:49.968099 20689 net.cpp:156] Memory required for data: 94016
I0924 03:16:49.968104 20723 net.cpp:425] lstm1_x_transform <- x
I0924 03:16:49.968107 20689 layer_factory.hpp:77] Creating layer h_pseudoloss
I0924 03:16:49.968123 20689 net.cpp:91] Creating Layer h_pseudoloss
I0924 03:16:49.968133 20723 net.cpp:399] lstm1_x_transform -> W_xc_x
I0924 03:16:49.968134 20689 net.cpp:425] h_pseudoloss <- h
I0924 03:16:49.968163 20689 net.cpp:399] h_pseudoloss -> h_pseudoloss
I0924 03:16:49.968147 20729 net.cpp:148] Top shape: 1 1 4000 (4000)
I0924 03:16:49.968202 20729 net.cpp:156] Memory required for data: 62016
I0924 03:16:49.968228 20729 layer_factory.hpp:77] Creating layer lstm1_gate_input_1
I0924 03:16:49.968273 20685 net.cpp:141] Setting up h_pseudoloss
I0924 03:16:49.968291 20685 net.cpp:148] Top shape: (1)
I0924 03:16:49.968298 20685 net.cpp:151]     with loss weight 1
I0924 03:16:49.968322 20685 net.cpp:156] Memory required for data: 98024
…
I0924 03:16:49.974429 20689 net.cpp:219] lstm1_ does not need backward computation.
I0924 03:16:49.974436 20689 net.cpp:261] This network produces output c_T
I0924 03:16:49.974443 20689 net.cpp:261] This network produces output h_pseudoloss
I0924 03:16:49.974467 20689 net.cpp:274] Network initialization done.
I0924 03:16:49.974534 20689 recurrent_layer.cpp:150] Adding parameter 0: W_xc
I0924 03:16:49.974545 20689 recurrent_layer.cpp:150] Adding parameter 1: b_c
I0924 03:16:49.974552 20689 recurrent_layer.cpp:150] Adding parameter 2: W_hc
I0924 03:16:49.979183 20685 net.cpp:141] Setting up lstm2
I0924 03:16:49.979231 20685 net.cpp:148] Top shape: 1 1 1000 (1000)
I0924 03:16:49.979239 20685 net.cpp:156] Memory required for data: 36412
I0924 03:16:49.979274 20685 layer_factory.hpp:77] Creating layer predict
I0924 03:16:49.979300 20685 net.cpp:91] Creating Layer predict
I0924 03:16:49.979311 20685 net.cpp:425] predict <- lstm2
I0924 03:16:49.979327 20685 net.cpp:399] predict -> predict
I0924 03:16:49.979377 20703 net.cpp:141] Setting up lstm2_x_transform
I0924 03:16:49.979398 20703 net.cpp:148] Top shape: 1 1 4000 (4000)
I0924 03:16:49.979405 20703 net.cpp:156] Memory required for data: 30020
I0924 03:16:49.979423 20703 layer_factory.hpp:77] Creating layer lstm2_W_xc_x_slice
I0924 03:16:49.979439 20703 net.cpp:91] Creating Layer lstm2_W_xc_x_slice
I0924 03:16:49.979449 20703 net.cpp:425] lstm2_W_xc_x_slice <- W_xc_x
I0924 03:16:49.979442 20729 net.cpp:141] Setting up lstm1_unit_1
I0924 03:16:49.979467 20703 net.cpp:399] lstm2_W_xc_x_slice -> W_xc_x_1
I0924 03:16:49.979482 20729 net.cpp:148] Top shape: 1 1 1000 (1000)
I0924 03:16:49.979482 20689 net.cpp:141] Setting up lstm1
I0924 03:16:49.979496 20729 net.cpp:148] Top shape: 1 1 1000 (1000)
I0924 03:16:49.979503 20689 net.cpp:148] Top shape: 1 1 1000 (1000)
I0924 03:16:49.979504 20729 net.cpp:156] Memory required for data: 86016
I0924 03:16:49.979526 20689 net.cpp:156] Memory required for data: 26408
I0924 03:16:49.979537 20729 layer_factory.hpp:77] Creating layer lstm1_
I0924 03:16:49.979552 20689 layer_factory.hpp:77] Creating layer concat
I0924 03:16:49.979557 20729 net.cpp:91] Creating Layer lstm1_
I0924 03:16:49.979568 20729 net.cpp:425] lstm1_ <- c_1
I0924 03:16:49.979583 20729 net.cpp:399] lstm1_ -> c_T
I0924 03:16:49.979583 20703 net.cpp:141] Setting up lstm2_W_xc_x_slice
I0924 03:16:49.979619 20703 net.cpp:148] Top shape: 1 1 4000 (4000)
I0924 03:16:49.979626 20703 net.cpp:156] Memory required for data: 46020
I0924 03:16:49.979635 20703 layer_factory.hpp:77] Creating layer lstm2_h_conted_0
I0924 03:16:49.979643 20689 net.cpp:91] Creating Layer concat
I0924 03:16:49.979650 20703 net.cpp:91] Creating Layer lstm2_h_conted_0
I0924 03:16:49.979673 20689 net.cpp:425] concat <- lstm1
I0924 03:16:49.979674 20729 net.cpp:141] Setting up lstm1_
I0924 03:16:49.979688 20689 net.cpp:425] concat <- embedded_input_sentence
I0924 03:16:49.979677 20703 net.cpp:425] lstm2_h_conted_0 <- h_0
I0924 03:16:49.979698 20729 net.cpp:148] Top shape: 1 1 1000 (1000)
I0924 03:16:49.979706 20703 net.cpp:425] lstm2_h_conted_0 <- cont_1_lstm2_cont_slice_0_split_0
I0924 03:16:49.979699 20689 net.cpp:425] concat <- reshaped_stage_indicator
I0924 03:16:49.979724 20703 net.cpp:399] lstm2_h_conted_0 -> h_conted_0
I0924 03:16:49.979739 20689 net.cpp:399] concat -> lstm1_video_sequence
I0924 03:16:49.979727 20729 net.cpp:156] Memory required for data: 90016
I0924 03:16:49.979756 20729 layer_factory.hpp:77] Creating layer lstm1_h_concat
I0924 03:16:49.979769 20729 net.cpp:91] Creating Layer lstm1_h_concat
I0924 03:16:49.979778 20729 net.cpp:425] lstm1_h_concat <- h_1
I0924 03:16:49.979792 20729 net.cpp:399] lstm1_h_concat -> h
I0924 03:16:50.059736 20729 net.cpp:141] Setting up lstm1_h_concat
I0924 03:16:50.059789 20729 net.cpp:148] Top shape: 1 1 1000 (1000)
I0924 03:16:50.059795 20729 net.cpp:156] Memory required for data: 94016
I0924 03:16:50.059805 20729 layer_factory.hpp:77] Creating layer h_pseudoloss
I0924 03:16:50.059823 20689 net.cpp:141] Setting up concat
I0924 03:16:50.059834 20729 net.cpp:91] Creating Layer h_pseudoloss
I0924 03:16:50.059864 20729 net.cpp:425] h_pseudoloss <- h
I0924 03:16:50.059865 20689 net.cpp:148] Top shape: 1 1 1501 (1501)
I0924 03:16:50.059876 20729 net.cpp:399] h_pseudoloss -> h_pseudoloss
I0924 03:16:50.059877 20689 net.cpp:156] Memory required for data: 32412
I0924 03:16:50.059890 20689 layer_factory.hpp:77] Creating layer lstm2
I0924 03:16:50.059917 20689 net.cpp:91] Creating Layer lstm2
I0924 03:16:50.059929 20689 net.cpp:425] lstm2 <- lstm1_video_sequence
I0924 03:16:50.059942 20689 net.cpp:425] lstm2 <- cont_sentence_input_1_split_1
I0924 03:16:50.059959 20689 net.cpp:399] lstm2 -> lstm2
I0924 03:16:50.059984 20689 recurrent_layer.cpp:20] Initializing recurrent layer: assuming input batch contains 1 timesteps of 1 independent streams.
I0924 03:16:50.060439 20689 net.cpp:49] Initializing net from parameters: 
layer {
  name: "lstm2_"
  type: "Input"
  top: "x"
  top: "cont"
  input_param {
    shape {
      dim: 1
      dim: 1
      dim: 1501
    }
    shape {
      dim: 1
      dim: 1
    }
  }
}
layer {
  name: "lstm2_"
  type: "Input"
  top: "c_0"
  top: "h_0"
  input_param {
    shape {
      dim: 1
      dim: 1
      dim: 1000
    }
    shape {
      dim: 1
      dim: 1
      dim: 1000
    }
  }
}
layer {
  name: "lstm2_cont_slice"
  type: "Slice"
  bottom: "cont"
  top: "cont_1"
  slice_param {
    axis: 0
  }
}
layer {
  name: "lstm2_x_transform"
  type: "InnerProduct"
  bottom: "x"
  top: "W_xc_x"
  param {
    name: "W_xc"
  }
  param {
    name: "b_c"
  }
  propagate_down: true
  inner_product_param {
    num_output: 4000
    bias_term: true
    weight_filler {
      type: "uniform"
      min: -0.08
      max: 0.08
    }
    bias_filler {
      type: "constant"
      value: 0
    }
    axis: 2
  }
}
layer {
  name: "lstm2_W_xc_x_slice"
  type: "Slice"
  bottom: "W_xc_x"
  top: "W_xc_x_1"
  slice_param {
    axis: 0
  }
}
layer {
  name: "lstm2_h_conted_0"
  type: "Scale"
  bottom: "h_0"
  bottom: "cont_1"
  top: "h_conted_0"
  scale_param {
    axis: 0
  }
}
layer {
  name: "lstm2_transform_1"
  type: "InnerProduct"
  bottom: "h_conted_0"
  top: "W_hc_h_0"
  param {
    name: "W_hc"
  }
  inner_product_param {
    num_output: 4000
    bias_term: false
    weight_filler {
      type: "uniform"
      min: -0.08
      max: 0.08
    }
    axis: 2
  }
}
layer {
  name: "lstm2_gate_input_1"
  type: "Eltwise"
  bottom: "W_hc_h_0"
  bottom: "W_xc_x_1"
  top: "gate_input_1"
  eltwise_param {
    operation: SUM
  }
}
layer {
  name: "lstm2_unit_1"
  type: "LSTMUnit"
  bottom: "c_0"
  bottom: "gate_input_1"
  bottom: "cont_1"
  top: "c_1"
  top: "h_1"
}
layer {
  name: "lstm2_"
  type: "Split"
  bottom: "c_1"
  top: "c_T"
}
layer {
  name: "lstm2_h_concat"
  type: "Concat"
  bottom: "h_1"
  top: "h"
  concat_param {
    axis: 0
  }
}
layer {
  name: "h_pseudoloss"
  type: "Reduction"
  bottom: "h"
  top: "h_pseudoloss"
  loss_weight: 1
}
I0924 03:16:50.060560 20689 layer_factory.hpp:77] Creating layer lstm2_
I0924 03:16:50.060576 20689 net.cpp:91] Creating Layer lstm2_
I0924 03:16:50.060586 20689 net.cpp:399] lstm2_ -> x
I0924 03:16:50.060601 20689 net.cpp:399] lstm2_ -> cont
…
I0924 03:18:18.150740 21011 net.cpp:425] h_pseudoloss <- h
I0924 03:18:18.150746 21011 net.cpp:399] h_pseudoloss -> h_pseudoloss
I0924 03:18:18.150776 21039 net.cpp:141] Setting up lstm2_h_concat
I0924 03:18:18.150790 21039 net.cpp:148] Top shape: 1 1 1000 (1000)
I0924 03:18:18.150794 21039 net.cpp:156] Memory required for data: 98020
I0924 03:18:18.150799 21039 layer_factory.hpp:77] Creating layer h_pseudoloss
I0924 03:18:18.150807 21039 net.cpp:91] Creating Layer h_pseudoloss
I0924 03:18:18.150812 21039 net.cpp:425] h_pseudoloss <- h
I0924 03:18:18.150820 21039 net.cpp:399] h_pseudoloss -> h_pseudoloss
I0924 03:18:18.155650 21007 net.cpp:141] Setting up lstm2_x_transform
I0924 03:18:18.155702 21007 net.cpp:148] Top shape: 1 1 4000 (4000)
I0924 03:18:18.155709 21007 net.cpp:156] Memory required for data: 30020
I0924 03:18:18.155731 21007 layer_factory.hpp:77] Creating layer lstm2_W_xc_x_slice
I0924 03:18:18.155781 21007 net.cpp:91] Creating Layer lstm2_W_xc_x_slice
I0924 03:18:18.155791 21007 net.cpp:425] lstm2_W_xc_x_slice <- W_xc_x
I0924 03:18:18.155802 21007 net.cpp:399] lstm2_W_xc_x_slice -> W_xc_x_1
I0924 03:18:18.155796 21005 net.cpp:141] Setting up lstm2_x_transform
I0924 03:18:18.155830 21005 net.cpp:148] Top shape: 1 1 4000 (4000)
I0924 03:18:18.155836 21005 net.cpp:156] Memory required for data: 30020
I0924 03:18:18.155858 21005 layer_factory.hpp:77] Creating layer lstm2_W_xc_x_slice
I0924 03:18:18.155872 21005 net.cpp:91] Creating Layer lstm2_W_xc_x_slice
I0924 03:18:18.155870 21039 net.cpp:141] Setting up h_pseudoloss
I0924 03:18:18.155879 21005 net.cpp:425] lstm2_W_xc_x_slice <- W_xc_x
I0924 03:18:18.155890 21005 net.cpp:399] lstm2_W_xc_x_slice -> W_xc_x_1
I0924 03:18:18.155892 21039 net.cpp:148] Top shape: (1)
I0924 03:18:18.155902 21039 net.cpp:151]     with loss weight 1
I0924 03:18:18.155937 21039 net.cpp:156] Memory required for data: 98024
I0924 03:18:18.155946 21039 net.cpp:217] h_pseudoloss needs backward computation.
I0924 03:18:18.155952 21039 net.cpp:217] lstm2_h_concat needs backward computation.
I0924 03:18:18.155961 21039 net.cpp:219] lstm2_ does not need backward computation.
I0924 03:18:18.155969 21039 net.cpp:217] lstm2_unit_1 needs backward computation.
I0924 03:18:18.155980 21039 net.cpp:217] lstm2_gate_input_1 needs backward computation.
I0924 03:18:18.155989 21039 net.cpp:217] lstm2_transform_1 needs backward computation.
I0924 03:18:18.155999 21039 net.cpp:219] lstm2_h_conted_0 does not need backward computation.
I0924 03:18:18.156005 21007 net.cpp:141] Setting up lstm2_W_xc_x_slice
I0924 03:18:18.156009 21039 net.cpp:217] lstm2_W_xc_x_slice needs backward computation.
I0924 03:18:18.156033 21007 net.cpp:148] Top shape: 1 1 4000 (4000)
I0924 03:18:18.156034 21039 net.cpp:217] lstm2_x_transform needs backward computation.
I0924 03:18:18.156042 21007 net.cpp:156] Memory required for data: 46020
I0924 03:18:18.156049 21039 net.cpp:219] cont_1_lstm2_cont_slice_0_split does not need backward computation.
I0924 03:18:18.156050 21007 layer_factory.hpp:77] Creating layer lstm2_h_conted_0
I0924 03:18:18.156057 21039 net.cpp:219] lstm2_cont_slice does not need backward computation.
…
I0924 03:18:18.156400 21011 net.cpp:219] lstm1_ does not need backward computation.
I0924 03:18:18.156404 21011 net.cpp:261] This network produces output c_T
I0924 03:18:18.156409 21011 net.cpp:261] This network produces output h_pseudoloss
I0924 03:18:18.156422 21011 net.cpp:274] Network initialization done.
I0924 03:18:18.156466 21011 recurrent_layer.cpp:150] Adding parameter 0: W_xc
I0924 03:18:18.156472 21011 recurrent_layer.cpp:150] Adding parameter 1: b_c
I0924 03:18:18.156476 21011 recurrent_layer.cpp:150] Adding parameter 2: W_hc
I0924 03:18:18.158885 21005 net.cpp:141] Setting up lstm2_W_xc_x_slice
I0924 03:18:18.158900 21005 net.cpp:148] Top shape: 1 1 4000 (4000)
I0924 03:18:18.158905 21005 net.cpp:156] Memory required for data: 46020
I0924 03:18:18.158910 21005 layer_factory.hpp:77] Creating layer lstm2_h_conted_0
I0924 03:18:18.158921 21005 net.cpp:91] Creating Layer lstm2_h_conted_0
I0924 03:18:18.158926 21005 net.cpp:425] lstm2_h_conted_0 <- h_0
I0924 03:18:18.158933 21005 net.cpp:425] lstm2_h_conted_0 <- cont_1_lstm2_cont_slice_0_split_0
I0924 03:18:18.158941 21005 net.cpp:399] lstm2_h_conted_0 -> h_conted_0
I0924 03:18:18.159301 21005 net.cpp:141] Setting up lstm2_h_conted_0
I0924 03:18:18.159313 21005 net.cpp:148] Top shape: 1 1 1000 (1000)
I0924 03:18:18.159318 21005 net.cpp:156] Memory required for data: 50020
I0924 03:18:18.159323 21005 layer_factory.hpp:77] Creating layer lstm2_transform_1
I0924 03:18:18.159338 21005 net.cpp:91] Creating Layer lstm2_transform_1
I0924 03:18:18.159343 21005 net.cpp:425] lstm2_transform_1 <- h_conted_0
I0924 03:18:18.159354 21005 net.cpp:399] lstm2_transform_1 -> W_hc_h_0
I0924 03:18:18.159418 21011 net.cpp:141] Setting up lstm1
I0924 03:18:18.159446 21039 net.cpp:141] Setting up lstm2
I0924 03:18:18.159464 21039 net.cpp:148] Top shape: 1 1 1000 (1000)
I0924 03:18:18.159464 21011 net.cpp:148] Top shape: 1 1 1000 (1000)
I0924 03:18:18.159487 21039 net.cpp:156] Memory required for data: 36412
I0924 03:18:18.159492 21011 net.cpp:156] Memory required for data: 26408
I0924 03:18:18.159514 21039 layer_factory.hpp:77] Creating layer predict
I0924 03:18:18.159515 21011 layer_factory.hpp:77] Creating layer concat
I0924 03:18:18.159543 21011 net.cpp:91] Creating Layer concat
I0924 03:18:18.159562 21011 net.cpp:425] concat <- lstm1
I0924 03:18:18.159576 21011 net.cpp:425] concat <- embedded_input_sentence
I0924 03:18:18.159587 21011 net.cpp:425] concat <- reshaped_stage_indicator
I0924 03:18:18.159544 21039 net.cpp:91] Creating Layer predict
I0924 03:18:18.159601 21011 net.cpp:399] concat -> lstm1_video_sequence
I0924 03:18:18.159607 21039 net.cpp:425] predict <- lstm2
I0924 03:18:18.159621 21039 net.cpp:399] predict -> predict
I0924 03:18:18.170341 21007 net.cpp:141] Setting up lstm2_h_conted_0
I0924 03:18:18.170383 21011 net.cpp:141] Setting up concat
I0924 03:18:18.170406 21011 net.cpp:148] Top shape: 1 1 1501 (1501)
I0924 03:18:18.170406 21007 net.cpp:148] Top shape: 1 1 1000 (1000)
I0924 03:18:18.170423 21011 net.cpp:156] Memory required for data: 32412
I0924 03:18:18.170428 21007 net.cpp:156] Memory required for data: 50020
I0924 03:18:18.170439 21007 layer_factory.hpp:77] Creating layer lstm2_transform_1
I0924 03:18:18.170439 21011 layer_factory.hpp:77] Creating layer lstm2
I0924 03:18:18.170505 21007 net.cpp:91] Creating Layer lstm2_transform_1
I0924 03:18:18.170506 21011 net.cpp:91] Creating Layer lstm2
I0924 03:18:18.170522 21007 net.cpp:425] lstm2_transform_1 <- h_conted_0
I0924 03:18:18.170523 21011 net.cpp:425] lstm2 <- lstm1_video_sequence
I0924 03:18:18.170541 21011 net.cpp:425] lstm2 <- cont_sentence_input_1_split_1
I0924 03:18:18.170547 21007 net.cpp:399] lstm2_transform_1 -> W_hc_h_0
I0924 03:18:18.170558 21011 net.cpp:399] lstm2 -> lstm2
I0924 03:18:18.170575 21011 recurrent_layer.cpp:20] Initializing recurrent layer: assuming input batch contains 1 timesteps of 1 independent streams.
I0924 03:18:18.170917 21011 net.cpp:49] Initializing net from parameters: 
layer {
  name: "lstm2_"
  type: "Input"
  top: "x"
  top: "cont"
  input_param {
    shape {
      dim: 1
      dim: 1
      dim: 1501
    }
    shape {
      dim: 1
      dim: 1
    }
  }
}
layer {
  name: "lstm2_"
  type: "Input"
  top: "c_0"
  top: "h_0"
  input_param {
    shape {
      dim: 1
      dim: 1
      dim: 1000
    }
    shape {
      dim: 1
      dim: 1
      dim: 1000
    }
  }
}
layer {
  name: "lstm2_cont_slice"
  type: "Slice"
  bottom: "cont"
  top: "cont_1"
  slice_param {
    axis: 0
  }
}
layer {
  name: "lstm2_x_transform"
  type: "InnerProduct"
  bottom: "x"
  top: "W_xc_x"
  param {
    name: "W_xc"
  }
  param {
    name: "b_c"
  }
  propagate_down: true
  inner_product_param {
    num_output: 4000
    bias_term: true
    weight_filler {
      type: "uniform"
      min: -0.08
      max: 0.08
    }
    bias_filler {
      type: "constant"
      value: 0
    }
    axis: 2
  }
}
layer {
  name: "lstm2_W_xc_x_slice"
  type: "Slice"
  bottom: "W_xc_x"
  top: "W_xc_x_1"
  slice_param {
    axis: 0
  }
}
layer {
  name: "lstm2_h_conted_0"
  type: "Scale"
  bottom: "h_0"
  bottom: "cont_1"
  top: "h_conted_0"
  scale_param {
    axis: 0
  }
}
layer {
  name: "lstm2_transform_1"
  type: "InnerProduct"
  bottom: "h_conted_0"
  top: "W_hc_h_0"
  param {
    name: "W_hc"
  }
  inner_product_param {
    num_output: 4000
    bias_term: false
    weight_filler {
      type: "uniform"
      min: -0.08
      max: 0.08
    }
    axis: 2
  }
}
layer {
  name: "lstm2_gate_input_1"
  type: "Eltwise"
  bottom: "W_hc_h_0"
  bottom: "W_xc_x_1"
  top: "gate_input_1"
  eltwise_param {
    operation: SUM
  }
}
layer {
  name: "lstm2_unit_1"
  type: "LSTMUnit"
  bottom: "c_0"
  bottom: "gate_input_1"
  bottom: "cont_1"
  top: "c_1"
  top: "h_1"
}
layer {
  name: "lstm2_"
  type: "Split"
  bottom: "c_1"
  top: "c_T"
}
layer {
  name: "lstm2_h_concat"
  type: "Concat"
  bottom: "h_1"
  top: "h"
  concat_param {
    axis: 0
  }
}
layer {
  name: "h_pseudoloss"
  type: "Reduction"
  bottom: "h"
  top: "h_pseudoloss"
  loss_weight: 1
}
I0924 03:18:18.171027 21011 layer_factory.hpp:77] Creating layer lstm2_
I0924 03:18:18.171041 21011 net.cpp:91] Creating Layer lstm2_
I0924 03:18:18.171047 21011 net.cpp:399] lstm2_ -> x
I0924 03:18:18.171061 21011 net.cpp:399] lstm2_ -> cont
I0924 03:18:18.266106 21011 net.cpp:141] Setting up lstm2_
I0924 03:18:18.266157 21011 net.cpp:148] Top shape: 1 1 1501 (1501)
I0924 03:18:18.266170 21011 net.cpp:148] Top shape: 1 1 (1)
I0924 03:18:18.266177 21011 net.cpp:156] Memory required for data: 6008
I0924 03:18:18.266191 21011 layer_factory.hpp:77] Creating layer lstm2_
I0924 03:18:18.266207 21005 net.cpp:141] Setting up lstm2_transform_1
I0924 03:18:18.266219 21011 net.cpp:91] Creating Layer lstm2_
I0924 03:18:18.266252 21005 net.cpp:148] Top shape: 1 1 4000 (4000)
I0924 03:18:18.266258 21005 net.cpp:156] Memory required for data: 66020
I0924 03:18:18.266260 21011 net.cpp:399] lstm2_ -> c_0
I0924 03:18:18.266280 21005 layer_factory.hpp:77] Creating layer lstm2_gate_input_1
I0924 03:18:18.266289 21011 net.cpp:399] lstm2_ -> h_0
I0924 03:18:18.266295 21045 net.cpp:141] Setting up lstm2_transform_1
I0924 03:18:18.266302 21005 net.cpp:91] Creating Layer lstm2_gate_input_1
I0924 03:18:18.266325 21005 net.cpp:425] lstm2_gate_input_1 <- W_hc_h_0
I0924 03:18:18.266356 21005 net.cpp:425] lstm2_gate_input_1 <- W_xc_x_1
I0924 03:18:18.266325 21045 net.cpp:148] Top shape: 1 1 4000 (4000)
I0924 03:18:18.266369 21005 net.cpp:399] lstm2_gate_input_1 -> gate_input_1
I0924 03:18:18.266376 21045 net.cpp:156] Memory required for data: 66020
I0924 03:18:18.266381 21011 net.cpp:141] Setting up lstm2_
I0924 03:18:18.266397 21045 layer_factory.hpp:77] Creating layer lstm2_gate_input_1
I0924 03:18:18.266399 21011 net.cpp:148] Top shape: 1 1 1000 (1000)
I0924 03:18:18.266425 21011 net.cpp:148] Top shape: 1 1 1000 (1000)
I0924 03:18:18.266433 21011 net.cpp:156] Memory required for data: 14008
I0924 03:18:18.266443 21011 layer_factory.hpp:77] Creating layer lstm2_cont_slice
I0924 03:18:18.266445 21045 net.cpp:91] Creating Layer lstm2_gate_input_1
I0924 03:18:18.266458 21045 net.cpp:425] lstm2_gate_input_1 <- W_hc_h_0
I0924 03:18:18.266443 21005 net.cpp:141] Setting up lstm2_gate_input_1
I0924 03:18:18.266470 21045 net.cpp:425] lstm2_gate_input_1 <- W_xc_x_1
I0924 03:18:18.266472 21011 net.cpp:91] Creating Layer lstm2_cont_slice
I0924 03:18:18.266474 21005 net.cpp:148] Top shape: 1 1 4000 (4000)
I0924 03:18:18.266492 21011 net.cpp:425] lstm2_cont_slice <- cont
I0924 03:18:18.266508 21005 net.cpp:156] Memory required for data: 82020
I0924 03:18:18.266507 21011 net.cpp:399] lstm2_cont_slice -> cont_1
I0924 03:18:18.266515 21005 layer_factory.hpp:77] Creating layer lstm2_unit_1
I0924 03:18:18.266525 21005 net.cpp:91] Creating Layer lstm2_unit_1
I0924 03:18:18.266530 21005 net.cpp:425] lstm2_unit_1 <- c_0
I0924 03:18:18.266536 21005 net.cpp:425] lstm2_unit_1 <- gate_input_1
I0924 03:18:18.266542 21005 net.cpp:425] lstm2_unit_1 <- cont_1_lstm2_cont_slice_0_split_1
I0924 03:18:18.266484 21045 net.cpp:399] lstm2_gate_input_1 -> gate_input_1
I0924 03:18:18.266553 21005 net.cpp:399] lstm2_unit_1 -> c_1
I0924 03:18:18.266562 21005 net.cpp:399] lstm2_unit_1 -> h_1
I0924 03:18:18.266609 21011 net.cpp:141] Setting up lstm2_cont_slice
I0924 03:18:18.266633 21011 net.cpp:148] Top shape: 1 1 (1)
I0924 03:18:18.266640 21011 net.cpp:156] Memory required for data: 14012
I0924 03:18:18.266651 21011 layer_factory.hpp:77] Creating layer cont_1_lstm2_cont_slice_0_split
I0924 03:18:18.266669 21011 net.cpp:91] Creating Layer cont_1_lstm2_cont_slice_0_split
I0924 03:18:18.266685 21011 net.cpp:425] cont_1_lstm2_cont_slice_0_split <- cont_1
I0924 03:18:18.266702 21011 net.cpp:399] cont_1_lstm2_cont_slice_0_split -> cont_1_lstm2_cont_slice_0_split_0
I0924 03:18:18.266727 21011 net.cpp:399] cont_1_lstm2_cont_slice_0_split -> cont_1_lstm2_cont_slice_0_split_1
I0924 03:18:18.278903 21045 net.cpp:141] Setting up lstm2_gate_input_1
I0924 03:18:18.278960 21045 net.cpp:148] Top shape: 1 1 4000 (4000)
I0924 03:18:18.278971 21045 net.cpp:156] Memory required for data: 82020
I0924 03:18:18.278985 21045 layer_factory.hpp:77] Creating layer lstm2_unit_1
I0924 03:18:18.279006 21045 net.cpp:91] Creating Layer lstm2_unit_1
I0924 03:18:18.279017 21045 net.cpp:425] lstm2_unit_1 <- c_0
I0924 03:18:18.279033 21045 net.cpp:425] lstm2_unit_1 <- gate_input_1
I0924 03:18:18.279043 21045 net.cpp:425] lstm2_unit_1 <- cont_1_lstm2_cont_slice_0_split_1
I0924 03:18:18.279094 21045 net.cpp:399] lstm2_unit_1 -> c_1
I0924 03:18:18.279117 21045 net.cpp:399] lstm2_unit_1 -> h_1
I0924 03:18:18.291790 21005 net.cpp:141] Setting up lstm2_unit_1
I0924 03:18:18.292002 21011 net.cpp:141] Setting up cont_1_lstm2_cont_slice_0_split
I0924 03:18:18.292197 21045 net.cpp:141] Setting up lstm2_unit_1
I0924 03:18:18.292348 21011 net.cpp:148] Top shape: 1 1 (1)
I0924 03:18:18.292327 21005 net.cpp:148] Top shape: 1 1 1000 (1000)
I0924 03:18:18.292362 21011 net.cpp:148] Top shape: 1 1 (1)
I0924 03:18:18.292363 21045 net.cpp:148] Top shape: 1 1 1000 (1000)
I0924 03:18:18.292371 21011 net.cpp:156] Memory required for data: 14020
I0924 03:18:18.292373 21005 net.cpp:148] Top shape: 1 1 1000 (1000)
I0924 03:18:18.292384 21011 layer_factory.hpp:77] Creating layer lstm2_x_transform
I0924 03:18:18.292377 21045 net.cpp:148] Top shape: 1 1 1000 (1000)
I0924 03:18:18.292392 21005 net.cpp:156] Memory required for data: 90020
I0924 03:18:18.292400 21045 net.cpp:156] Memory required for data: 90020
I0924 03:18:18.292407 21005 layer_factory.hpp:77] Creating layer lstm2_
I0924 03:18:18.292410 21045 layer_factory.hpp:77] Creating layer lstm2_
I0924 03:18:18.292418 21011 net.cpp:91] Creating Layer lstm2_x_transform
I0924 03:18:18.292424 21045 net.cpp:91] Creating Layer lstm2_
I0924 03:18:18.292428 21005 net.cpp:91] Creating Layer lstm2_
I0924 03:18:18.292433 21045 net.cpp:425] lstm2_ <- c_1
I0924 03:18:18.292448 21005 net.cpp:425] lstm2_ <- c_1
I0924 03:18:18.292453 21045 net.cpp:399] lstm2_ -> c_T
I0924 03:18:18.292466 21005 net.cpp:399] lstm2_ -> c_T
I0924 03:18:18.293218 21045 net.cpp:141] Setting up lstm2_
I0924 03:18:18.293242 21045 net.cpp:148] Top shape: 1 1 1000 (1000)
I0924 03:18:18.293251 21045 net.cpp:156] Memory required for data: 94020
I0924 03:18:18.293258 21045 layer_factory.hpp:77] Creating layer lstm2_h_concat
I0924 03:18:18.293272 21045 net.cpp:91] Creating Layer lstm2_h_concat
I0924 03:18:18.293279 21045 net.cpp:425] lstm2_h_concat <- h_1
I0924 03:18:18.293287 21005 net.cpp:141] Setting up lstm2_
I0924 03:18:18.293294 21045 net.cpp:399] lstm2_h_concat -> h
I0924 03:18:18.293308 21005 net.cpp:148] Top shape: 1 1 1000 (1000)
I0924 03:18:18.293316 21005 net.cpp:156] Memory required for data: 94020
I0924 03:18:18.293324 21005 layer_factory.hpp:77] Creating layer lstm2_h_concat
I0924 03:18:18.293341 21005 net.cpp:91] Creating Layer lstm2_h_concat
I0924 03:18:18.293350 21005 net.cpp:425] lstm2_h_concat <- h_1
I0924 03:18:18.293367 21005 net.cpp:399] lstm2_h_concat -> h
I0924 03:18:18.293371 21045 net.cpp:141] Setting up lstm2_h_concat
I0924 03:18:18.293387 21045 net.cpp:148] Top shape: 1 1 1000 (1000)
I0924 03:18:18.293395 21045 net.cpp:156] Memory required for data: 98020
I0924 03:18:18.293402 21045 layer_factory.hpp:77] Creating layer h_pseudoloss
I0924 03:18:18.293447 21045 net.cpp:91] Creating Layer h_pseudoloss
I0924 03:18:18.293457 21045 net.cpp:425] h_pseudoloss <- h
I0924 03:18:18.293467 21045 net.cpp:399] h_pseudoloss -> h_pseudoloss
I0924 03:18:18.292429 21011 net.cpp:425] lstm2_x_transform <- x
I0924 03:18:18.295213 21011 net.cpp:399] lstm2_x_transform -> W_xc_x
I0924 03:18:18.316431 21005 net.cpp:141] Setting up lstm2_h_concat
I0924 03:18:18.316483 21005 net.cpp:148] Top shape: 1 1 1000 (1000)
I0924 03:18:18.316488 21005 net.cpp:156] Memory required for data: 98020
I0924 03:18:18.316498 21005 layer_factory.hpp:77] Creating layer h_pseudoloss
I0924 03:18:18.316526 21005 net.cpp:91] Creating Layer h_pseudoloss
I0924 03:18:18.316534 21005 net.cpp:425] h_pseudoloss <- h
I0924 03:18:18.316548 21005 net.cpp:399] h_pseudoloss -> h_pseudoloss
I0924 03:18:18.331176 21045 net.cpp:141] Setting up h_pseudoloss
…
I0924 03:18:18.331795 21005 net.cpp:219] lstm2_ does not need backward computation.
I0924 03:18:18.331802 21005 net.cpp:261] This network produces output c_T
I0924 03:18:18.331812 21005 net.cpp:261] This network produces output h_pseudoloss
I0924 03:18:18.331825 21045 recurrent_layer.cpp:150] Adding parameter 0: W_xc
I0924 03:18:18.331842 21005 net.cpp:274] Network initialization done.
I0924 03:18:18.331845 21045 recurrent_layer.cpp:150] Adding parameter 1: b_c
I0924 03:18:18.331859 21045 recurrent_layer.cpp:150] Adding parameter 2: W_hc
I0924 03:18:18.331884 21007 net.cpp:141] Setting up lstm2_unit_1
I0924 03:18:18.331897 21007 net.cpp:148] Top shape: 1 1 1000 (1000)
I0924 03:18:18.331907 21007 net.cpp:148] Top shape: 1 1 1000 (1000)
I0924 03:18:18.331914 21007 net.cpp:156] Memory required for data: 90020
I0924 03:18:18.331915 21005 recurrent_layer.cpp:150] Adding parameter 0: W_xc
I0924 03:18:18.331921 21007 layer_factory.hpp:77] Creating layer lstm2_
I0924 03:18:18.331925 21005 recurrent_layer.cpp:150] Adding parameter 1: b_c
I0924 03:18:18.331934 21005 recurrent_layer.cpp:150] Adding parameter 2: W_hc
I0924 03:18:18.331934 21007 net.cpp:91] Creating Layer lstm2_
I0924 03:18:18.331944 21007 net.cpp:425] lstm2_ <- c_1
I0924 03:18:18.331959 21007 net.cpp:399] lstm2_ -> c_T
I0924 03:18:18.332123 21005 net.cpp:141] Setting up lstm2
I0924 03:18:18.332137 21005 net.cpp:148] Top shape: 1 1 1000 (1000)
I0924 03:18:18.332141 21005 net.cpp:156] Memory required for data: 36412
I0924 03:18:18.332159 21005 layer_factory.hpp:77] Creating layer predict
I0924 03:18:18.332178 21005 net.cpp:91] Creating Layer predict
I0924 03:18:18.332185 21005 net.cpp:425] predict <- lstm2
I0924 03:18:18.332193 21005 net.cpp:399] predict -> predict
I0924 03:18:18.410249 21007 net.cpp:141] Setting up lstm2_
I0924 03:18:18.410302 21007 net.cpp:148] Top shape: 1 1 1000 (1000)
I0924 03:18:18.410311 21007 net.cpp:156] Memory required for data: 94020
I0924 03:18:18.410322 21007 layer_factory.hpp:77] Creating layer lstm2_h_concat
I0924 03:18:18.410342 21007 net.cpp:91] Creating Layer lstm2_h_concat
I0924 03:18:18.410353 21007 net.cpp:425] lstm2_h_concat <- h_1
I0924 03:18:18.410368 21007 net.cpp:399] lstm2_h_concat -> h
I0924 03:18:18.417960 21007 net.cpp:141] Setting up lstm2_h_concat
I0924 03:18:18.418015 21007 net.cpp:148] Top shape: 1 1 1000 (1000)
I0924 03:18:18.418025 21007 net.cpp:156] Memory required for data: 98020
I0924 03:18:18.418032 21045 net.cpp:141] Setting up lstm2
I0924 03:18:18.418035 21007 layer_factory.hpp:77] Creating layer h_pseudoloss
I0924 03:18:18.418056 21045 net.cpp:148] Top shape: 1 1 1000 (1000)
I0924 03:18:18.418063 21045 net.cpp:156] Memory required for data: 36412
I0924 03:18:18.418067 21007 net.cpp:91] Creating Layer h_pseudoloss
I0924 03:18:18.418077 21007 net.cpp:425] h_pseudoloss <- h
I0924 03:18:18.418088 21045 layer_factory.hpp:77] Creating layer predict
I0924 03:18:18.418092 21007 net.cpp:399] h_pseudoloss -> h_pseudoloss
I0924 03:18:18.418107 21045 net.cpp:91] Creating Layer predict
…
I0924 03:18:18.508726 21007 net.cpp:219] cont_1_lstm2_cont_slice_0_split does not need backward computation.
I0924 03:18:18.508735 21007 net.cpp:219] lstm2_cont_slice does not need backward computation.
I0924 03:18:18.508745 21007 net.cpp:219] lstm2_ does not need backward computation.
I0924 03:18:18.508752 21007 net.cpp:219] lstm2_ does not need backward computation.
I0924 03:18:18.508757 21007 net.cpp:261] This network produces output c_T
I0924 03:18:18.508767 21007 net.cpp:261] This network produces output h_pseudoloss
I0924 03:18:18.508774 21001 net.cpp:141] Setting up predict
I0924 03:18:18.508790 21007 net.cpp:274] Network initialization done.
I0924 03:18:18.508797 21001 net.cpp:148] Top shape: 1 1 46168 (46168)
I0924 03:18:18.508807 21001 net.cpp:156] Memory required for data: 221084
I0924 03:18:18.508827 21001 layer_factory.hpp:77] Creating layer probs
I0924 03:18:18.508848 21001 net.cpp:91] Creating Layer probs
I0924 03:18:18.508857 21007 recurrent_layer.cpp:150] Adding parameter 0: W_xc
I0924 03:18:18.508858 21001 net.cpp:425] probs <- predict
I0924 03:18:18.508877 21007 recurrent_layer.cpp:150] Adding parameter 1: b_c
I0924 03:18:18.508893 21007 recurrent_layer.cpp:150] Adding parameter 2: W_hc
I0924 03:18:18.508898 21001 net.cpp:399] probs -> probs
I0924 03:18:18.508970 21011 net.cpp:141] Setting up lstm2_x_transform
I0924 03:18:18.508991 21011 net.cpp:148] Top shape: 1 1 4000 (4000)
I0924 03:18:18.508999 21011 net.cpp:156] Memory required for data: 30020
I0924 03:18:18.509019 21011 layer_factory.hpp:77] Creating layer lstm2_W_xc_x_slice
I0924 03:18:18.509033 21011 net.cpp:91] Creating Layer lstm2_W_xc_x_slice
I0924 03:18:18.509042 21011 net.cpp:425] lstm2_W_xc_x_slice <- W_xc_x
I0924 03:18:18.509060 21011 net.cpp:399] lstm2_W_xc_x_slice -> W_xc_x_1
I0924 03:18:18.510028 21007 net.cpp:141] Setting up lstm2
I0924 03:18:18.510048 21007 net.cpp:148] Top shape: 1 1 1000 (1000)
I0924 03:18:18.510053 21007 net.cpp:156] Memory required for data: 36412
I0924 03:18:18.510071 21007 layer_factory.hpp:77] Creating layer predict
I0924 03:18:18.510092 21007 net.cpp:91] Creating Layer predict
I0924 03:18:18.510100 21007 net.cpp:425] predict <- lstm2
I0924 03:18:18.510112 21007 net.cpp:399] predict -> predict
I0924 03:18:18.510116 21011 net.cpp:141] Setting up lstm2_W_xc_x_slice
I0924 03:18:18.510135 21011 net.cpp:148] Top shape: 1 1 4000 (4000)
I0924 03:18:18.510143 21011 net.cpp:156] Memory required for data: 46020
I0924 03:18:18.510151 21011 layer_factory.hpp:77] Creating layer lstm2_h_conted_0
I0924 03:18:18.510166 21011 net.cpp:91] Creating Layer lstm2_h_conted_0
I0924 03:18:18.510175 21011 net.cpp:425] lstm2_h_conted_0 <- h_0
I0924 03:18:18.510185 21011 net.cpp:425] lstm2_h_conted_0 <- cont_1_lstm2_cont_slice_0_split_0
I0924 03:18:18.510202 21011 net.cpp:399] lstm2_h_conted_0 -> h_conted_0
I0924 03:18:18.602504 21011 net.cpp:141] Setting up lstm2_h_conted_0
I0924 03:18:18.602560 21011 net.cpp:148] Top shape: 1 1 1000 (1000)
I0924 03:18:18.602569 21011 net.cpp:156] Memory required for data: 50020
I0924 03:18:18.602581 21011 layer_factory.hpp:77] Creating layer lstm2_transform_1
I0924 03:18:18.602620 21011 net.cpp:91] Creating Layer lstm2_transform_1
I0924 03:18:18.602632 21011 net.cpp:425] lstm2_transform_1 <- h_conted_0
I0924 03:18:18.602655 21011 net.cpp:399] lstm2_transform_1 -> W_hc_h_0
I0924 03:18:18.614579 21019 net.cpp:141] Setting up predict
I0924 03:18:18.615072 21019 net.cpp:148] Top shape: 1 1 46168 (46168)
I0924 03:18:18.615236 21019 net.cpp:156] Memory required for data: 221084
I0924 03:18:18.615267 21019 layer_factory.hpp:77] Creating layer probs
I0924 03:18:18.615296 21019 net.cpp:91] Creating Layer probs
I0924 03:18:18.615310 21019 net.cpp:425] probs <- predict
I0924 03:18:18.615329 21019 net.cpp:399] probs -> probs
I0924 03:18:18.654413 21011 net.cpp:141] Setting up lstm2_transform_1
I0924 03:18:18.654489 21011 net.cpp:148] Top shape: 1 1 4000 (4000)
I0924 03:18:18.654502 21011 net.cpp:156] Memory required for data: 66020
I0924 03:18:18.654539 21011 layer_factory.hpp:77] Creating layer lstm2_gate_input_1
I0924 03:18:18.654582 21011 net.cpp:91] Creating Layer lstm2_gate_input_1
I0924 03:18:18.654615 21011 net.cpp:425] lstm2_gate_input_1 <- W_hc_h_0
I0924 03:18:18.654634 21011 net.cpp:425] lstm2_gate_input_1 <- W_xc_x_1
I0924 03:18:18.654652 21011 net.cpp:399] lstm2_gate_input_1 -> gate_input_1
I0924 03:18:18.660413 21011 net.cpp:141] Setting up lstm2_gate_input_1
I0924 03:18:18.660516 21039 net.cpp:141] Setting up predict
I0924 03:18:18.660830 21011 net.cpp:148] Top shape: 1 1 4000 (4000)
I0924 03:18:18.660943 21039 net.cpp:148] Top shape: 1 1 46168 (46168)
I0924 03:18:18.661054 21011 net.cpp:156] Memory required for data: 82020
I0924 03:18:18.661212 21039 net.cpp:156] Memory required for data: 221084
I0924 03:18:18.661326 21011 layer_factory.hpp:77] Creating layer lstm2_unit_1
I0924 03:18:18.661442 21039 layer_factory.hpp:77] Creating layer probs
I0924 03:18:18.661546 21011 net.cpp:91] Creating Layer lstm2_unit_1
I0924 03:18:18.661648 21039 net.cpp:91] Creating Layer probs
I0924 03:18:18.661744 21011 net.cpp:425] lstm2_unit_1 <- c_0
I0924 03:18:18.661936 21011 net.cpp:425] lstm2_unit_1 <- gate_input_1
I0924 03:18:18.661953 21011 net.cpp:425] lstm2_unit_1 <- cont_1_lstm2_cont_slice_0_split_1
I0924 03:18:18.661976 21011 net.cpp:399] lstm2_unit_1 -> c_1
I0924 03:18:18.662000 21011 net.cpp:399] lstm2_unit_1 -> h_1
I0924 03:18:18.661911 21039 net.cpp:425] probs <- predict
I0924 03:18:18.662436 21039 net.cpp:399] probs -> probs
I0924 03:18:18.665798 21011 net.cpp:141] Setting up lstm2_unit_1
I0924 03:18:18.665824 21011 net.cpp:148] Top shape: 1 1 1000 (1000)
I0924 03:18:18.665837 21011 net.cpp:148] Top shape: 1 1 1000 (1000)
I0924 03:18:18.665845 21011 net.cpp:156] Memory required for data: 90020
I0924 03:18:18.665855 21011 layer_factory.hpp:77] Creating layer lstm2_
I0924 03:18:18.665870 21011 net.cpp:91] Creating Layer lstm2_
I0924 03:18:18.665880 21011 net.cpp:425] lstm2_ <- c_1
I0924 03:18:18.665894 21011 net.cpp:399] lstm2_ -> c_T
I0924 03:18:18.667199 21011 net.cpp:141] Setting up lstm2_
I0924 03:18:18.667218 21011 net.cpp:148] Top shape: 1 1 1000 (1000)
I0924 03:18:18.667228 21011 net.cpp:156] Memory required for data: 94020
I0924 03:18:18.667238 21011 layer_factory.hpp:77] Creating layer lstm2_h_concat
I0924 03:18:18.667254 21011 net.cpp:91] Creating Layer lstm2_h_concat
I0924 03:18:18.667264 21011 net.cpp:425] lstm2_h_concat <- h_1
I0924 03:18:18.667279 21011 net.cpp:399] lstm2_h_concat -> h
I0924 03:18:18.667482 21011 net.cpp:141] Setting up lstm2_h_concat
I0924 03:18:18.667500 21011 net.cpp:148] Top shape: 1 1 1000 (1000)
I0924 03:18:18.667510 21011 net.cpp:156] Memory required for data: 98020
I0924 03:18:18.667520 21011 layer_factory.hpp:77] Creating layer h_pseudoloss
I0924 03:18:18.667534 21011 net.cpp:91] Creating Layer h_pseudoloss
I0924 03:18:18.667544 21011 net.cpp:425] h_pseudoloss <- h
I0924 03:18:18.667558 21011 net.cpp:399] h_pseudoloss -> h_pseudoloss
I0924 03:18:18.673557 21011 net.cpp:141] Setting up h_pseudoloss
…
I0924 03:18:18.673781 21011 net.cpp:219] lstm2_ does not need backward computation.
I0924 03:18:18.673787 21011 net.cpp:261] This network produces output c_T
I0924 03:18:18.673796 21011 net.cpp:261] This network produces output h_pseudoloss
I0924 03:18:18.673821 21011 net.cpp:274] Network initialization done.
I0924 03:18:18.673902 21011 recurrent_layer.cpp:150] Adding parameter 0: W_xc
I0924 03:18:18.673915 21011 recurrent_layer.cpp:150] Adding parameter 1: b_c
I0924 03:18:18.673931 21011 recurrent_layer.cpp:150] Adding parameter 2: W_hc
I0924 03:18:18.675259 21011 net.cpp:141] Setting up lstm2
I0924 03:18:18.675433 21011 net.cpp:148] Top shape: 1 1 1000 (1000)
I0924 03:18:18.675446 21011 net.cpp:156] Memory required for data: 36412
I0924 03:18:18.675472 21011 layer_factory.hpp:77] Creating layer predict
I0924 03:18:18.675496 21011 net.cpp:91] Creating Layer predict
I0924 03:18:18.675510 21011 net.cpp:425] predict <- lstm2
I0924 03:18:18.675526 21011 net.cpp:399] predict -> predict
I0924 03:18:18.776602 21005 net.cpp:141] Setting up predict
I0924 03:18:18.776664 21005 net.cpp:148] Top shape: 1 1 46168 (46168)
I0924 03:18:18.776674 21005 net.cpp:156] Memory required for data: 221084
I0924 03:18:18.776697 21005 layer_factory.hpp:77] Creating layer probs
I0924 03:18:18.776724 21005 net.cpp:91] Creating Layer probs
I0924 03:18:18.776736 21005 net.cpp:425] probs <- predict
I0924 03:18:18.776756 21005 net.cpp:399] probs -> probs
I0924 03:18:18.852828 21039 net.cpp:141] Setting up probs
I0924 03:18:18.852880 21039 net.cpp:148] Top shape: 1 1 46168 (46168)
I0924 03:18:18.852888 21039 net.cpp:156] Memory required for data: 405756
I0924 03:18:18.852900 21039 net.cpp:219] probs does not need backward computation.
I0924 03:18:18.852910 21039 net.cpp:219] predict does not need backward computation.
I0924 03:18:18.852918 21039 net.cpp:219] lstm2 does not need backward computation.
I0924 03:18:18.852928 21039 net.cpp:219] concat does not need backward computation.
I0924 03:18:18.852937 21039 net.cpp:219] lstm1 does not need backward computation.
I0924 03:18:18.852947 21039 net.cpp:219] embedding does not need backward computation.
I0924 03:18:18.852957 21039 net.cpp:219] reshape_stage_indicator does not need backward computation.
I0924 03:18:18.852967 21039 net.cpp:219] reshape_frames does not need backward computation.
I0924 03:18:18.852977 21039 net.cpp:219] embed_encoder does not need backward computation.
I0924 03:18:18.852985 21039 net.cpp:219] cont_sentence_input_1_split does not need backward computation.
I0924 03:18:18.852996 21039 net.cpp:219] input does not need backward computation.
I0924 03:18:18.853004 21039 net.cpp:261] This network produces output probs
I0924 03:18:18.853035 21039 net.cpp:274] Network initialization done.
I0924 03:18:18.867645 21005 net.cpp:141] Setting up probs
I0924 03:18:18.867700 21005 net.cpp:148] Top shape: 1 1 46168 (46168)
I0924 03:18:18.867712 21005 net.cpp:156] Memory required for data: 405756
I0924 03:18:18.867723 21005 net.cpp:219] probs does not need backward computation.
I0924 03:18:18.867734 21005 net.cpp:219] predict does not need backward computation.
I0924 03:18:18.867743 21005 net.cpp:219] lstm2 does not need backward computation.
I0924 03:18:18.867753 21005 net.cpp:219] concat does not need backward computation.
I0924 03:18:18.867763 21005 net.cpp:219] lstm1 does not need backward computation.
I0924 03:18:18.867774 21005 net.cpp:219] embedding does not need backward computation.
I0924 03:18:18.867781 21005 net.cpp:219] reshape_stage_indicator does not need backward computation.
I0924 03:18:18.867790 21005 net.cpp:219] reshape_frames does not need backward computation.
I0924 03:18:18.867799 21005 net.cpp:219] embed_encoder does not need backward computation.
I0924 03:18:18.867808 21005 net.cpp:219] cont_sentence_input_1_split does not need backward computation.
I0924 03:18:18.867818 21005 net.cpp:219] input does not need backward computation.
I0924 03:18:18.867825 21005 net.cpp:261] This network produces output probs
I0924 03:18:18.867853 21005 net.cpp:274] Network initialization done.
I0924 03:18:18.871739 21001 net.cpp:141] Setting up probs
I0924 03:18:18.871796 21001 net.cpp:148] Top shape: 1 1 46168 (46168)
I0924 03:18:18.871806 21001 net.cpp:156] Memory required for data: 405756
I0924 03:18:18.871819 21001 net.cpp:219] probs does not need backward computation.
I0924 03:18:18.871829 21001 net.cpp:219] predict does not need backward computation.
I0924 03:18:18.871837 21001 net.cpp:219] lstm2 does not need backward computation.
I0924 03:18:18.871846 21001 net.cpp:219] concat does not need backward computation.
I0924 03:18:18.871856 21001 net.cpp:219] lstm1 does not need backward computation.
I0924 03:18:18.871924 21001 net.cpp:219] embedding does not need backward computation.
I0924 03:18:18.871937 21001 net.cpp:219] reshape_stage_indicator does not need backward computation.
I0924 03:18:18.871945 21001 net.cpp:219] reshape_frames does not need backward computation.
I0924 03:18:18.871953 21001 net.cpp:219] embed_encoder does not need backward computation.
I0924 03:18:18.871961 21001 net.cpp:219] cont_sentence_input_1_split does not need backward computation.
I0924 03:18:18.871971 21001 net.cpp:219] input does not need backward computation.
I0924 03:18:18.871979 21001 net.cpp:261] This network produces output probs
I0924 03:18:18.872005 21001 net.cpp:274] Network initialization done.
I0924 03:18:18.872167 21019 net.cpp:141] Setting up probs
I0924 03:18:18.872184 21019 net.cpp:148] Top shape: 1 1 46168 (46168)
I0924 03:18:18.872192 21019 net.cpp:156] Memory required for data: 405756
I0924 03:18:18.872200 21019 net.cpp:219] probs does not need backward computation.
I0924 03:18:18.872208 21019 net.cpp:219] predict does not need backward computation.
I0924 03:18:18.872216 21019 net.cpp:219] lstm2 does not need backward computation.
I0924 03:18:18.872225 21019 net.cpp:219] concat does not need backward computation.
I0924 03:18:18.872236 21019 net.cpp:219] lstm1 does not need backward computation.
I0924 03:18:18.872246 21019 net.cpp:219] embedding does not need backward computation.
I0924 03:18:18.872251 21019 net.cpp:219] reshape_stage_indicator does not need backward computation.
I0924 03:18:18.872256 21019 net.cpp:219] reshape_frames does not need backward computation.
I0924 03:18:18.872262 21019 net.cpp:219] embed_encoder does not need backward computation.
I0924 03:18:18.872268 21019 net.cpp:219] cont_sentence_input_1_split does not need backward computation.
I0924 03:18:18.872277 21019 net.cpp:219] input does not need backward computation.
I0924 03:18:18.872285 21019 net.cpp:261] This network produces output probs
I0924 03:18:18.872306 21019 net.cpp:274] Network initialization done.
I0924 03:18:18.877372 21013 net.cpp:141] Setting up conv1
I0924 03:18:18.877450 21013 net.cpp:148] Top shape: 10 96 55 55 (2904000)
I0924 03:18:18.877457 21013 net.cpp:156] Memory required for data: 17799480
I0924 03:18:18.877480 21013 layer_factory.hpp:77] Creating layer relu1
I0924 03:18:18.877497 21013 net.cpp:91] Creating Layer relu1
I0924 03:18:18.877503 21013 net.cpp:425] relu1 <- conv1
I0924 03:18:18.877511 21013 net.cpp:386] relu1 -> conv1 (in-place)
I0924 03:18:18.878414 21013 net.cpp:141] Setting up relu1
I0924 03:18:18.878438 21013 net.cpp:148] Top shape: 10 96 55 55 (2904000)
I0924 03:18:18.878446 21013 net.cpp:156] Memory required for data: 29415480
I0924 03:18:18.878454 21013 layer_factory.hpp:77] Creating layer pool1
I0924 03:18:18.878480 21013 net.cpp:91] Creating Layer pool1
I0924 03:18:18.878490 21013 net.cpp:425] pool1 <- conv1
I0924 03:18:18.878500 21013 net.cpp:399] pool1 -> pool1
I0924 03:18:18.878775 21013 net.cpp:141] Setting up pool1
I0924 03:18:18.878803 21013 net.cpp:148] Top shape: 10 96 27 27 (699840)
I0924 03:18:18.878813 21013 net.cpp:156] Memory required for data: 32214840
I0924 03:18:18.878823 21013 layer_factory.hpp:77] Creating layer norm1
I0924 03:18:18.878859 21013 net.cpp:91] Creating Layer norm1
I0924 03:18:18.878872 21013 net.cpp:425] norm1 <- pool1
I0924 03:18:18.879410 21013 net.cpp:399] norm1 -> norm1
I0924 03:18:18.880867 21013 net.cpp:141] Setting up norm1
I0924 03:18:18.880908 21013 net.cpp:148] Top shape: 10 96 27 27 (699840)
I0924 03:18:18.880918 21013 net.cpp:156] Memory required for data: 35014200
I0924 03:18:18.880931 21013 layer_factory.hpp:77] Creating layer conv2
I0924 03:18:18.881002 21013 net.cpp:91] Creating Layer conv2
I0924 03:18:18.881021 21013 net.cpp:425] conv2 <- norm1
I0924 03:18:18.881042 21013 net.cpp:399] conv2 -> conv2
I0924 03:18:18.920684 21045 net.cpp:141] Setting up predict
I0924 03:18:18.920738 21045 net.cpp:148] Top shape: 1 1 46168 (46168)
I0924 03:18:18.920747 21045 net.cpp:156] Memory required for data: 221084
I0924 03:18:18.920768 21045 layer_factory.hpp:77] Creating layer probs
I0924 03:18:18.920799 21045 net.cpp:91] Creating Layer probs
I0924 03:18:18.920809 21045 net.cpp:425] probs <- predict
I0924 03:18:18.920822 21045 net.cpp:399] probs -> probs
I0924 03:18:18.923110 21045 net.cpp:141] Setting up probs
I0924 03:18:18.923162 21045 net.cpp:148] Top shape: 1 1 46168 (46168)
I0924 03:18:18.923171 21045 net.cpp:156] Memory required for data: 405756
I0924 03:18:18.923183 21045 net.cpp:219] probs does not need backward computation.
I0924 03:18:18.923193 21045 net.cpp:219] predict does not need backward computation.
I0924 03:18:18.923202 21045 net.cpp:219] lstm2 does not need backward computation.
I0924 03:18:18.923212 21045 net.cpp:219] concat does not need backward computation.
I0924 03:18:18.923220 21045 net.cpp:219] lstm1 does not need backward computation.
I0924 03:18:18.923230 21045 net.cpp:219] embedding does not need backward computation.
I0924 03:18:18.923238 21045 net.cpp:219] reshape_stage_indicator does not need backward computation.
I0924 03:18:18.923246 21045 net.cpp:219] reshape_frames does not need backward computation.
I0924 03:18:18.923254 21045 net.cpp:219] embed_encoder does not need backward computation.
I0924 03:18:18.923261 21045 net.cpp:219] cont_sentence_input_1_split does not need backward computation.
I0924 03:18:18.923270 21045 net.cpp:219] input does not need backward computation.
I0924 03:18:18.923276 21045 net.cpp:261] This network produces output probs
I0924 03:18:18.923625 21045 net.cpp:274] Network initialization done.
I0924 03:18:18.930188 21013 net.cpp:141] Setting up conv2
I0924 03:18:18.930243 21013 net.cpp:148] Top shape: 10 256 27 27 (1866240)
I0924 03:18:18.930253 21013 net.cpp:156] Memory required for data: 42479160
I0924 03:18:18.930279 21013 layer_factory.hpp:77] Creating layer relu2
I0924 03:18:18.930299 21013 net.cpp:91] Creating Layer relu2
I0924 03:18:18.930308 21013 net.cpp:425] relu2 <- conv2
I0924 03:18:18.930320 21013 net.cpp:386] relu2 -> conv2 (in-place)
I0924 03:18:18.931628 21013 net.cpp:141] Setting up relu2
I0924 03:18:18.931668 21013 net.cpp:148] Top shape: 10 256 27 27 (1866240)
I0924 03:18:18.931677 21013 net.cpp:156] Memory required for data: 49944120
I0924 03:18:18.931687 21013 layer_factory.hpp:77] Creating layer pool2
I0924 03:18:18.931710 21013 net.cpp:91] Creating Layer pool2
I0924 03:18:18.931720 21013 net.cpp:425] pool2 <- conv2
I0924 03:18:18.931732 21013 net.cpp:399] pool2 -> pool2
I0924 03:18:18.932131 21013 net.cpp:141] Setting up pool2
I0924 03:18:18.932152 21013 net.cpp:148] Top shape: 10 256 13 13 (432640)
I0924 03:18:18.932158 21013 net.cpp:156] Memory required for data: 51674680
I0924 03:18:18.932171 21013 layer_factory.hpp:77] Creating layer norm2
I0924 03:18:18.932647 21013 net.cpp:91] Creating Layer norm2
I0924 03:18:18.932662 21013 net.cpp:425] norm2 <- pool2
I0924 03:18:18.932675 21013 net.cpp:399] norm2 -> norm2
I0924 03:18:18.934839 21013 net.cpp:141] Setting up norm2
I0924 03:18:18.934895 21013 net.cpp:148] Top shape: 10 256 13 13 (432640)
I0924 03:18:18.934903 21013 net.cpp:156] Memory required for data: 53405240
I0924 03:18:18.934914 21013 layer_factory.hpp:77] Creating layer conv3
I0924 03:18:18.935468 21013 net.cpp:91] Creating Layer conv3
I0924 03:18:18.935487 21013 net.cpp:425] conv3 <- norm2
I0924 03:18:18.935508 21013 net.cpp:399] conv3 -> conv3
I0924 03:18:18.959542 21013 net.cpp:141] Setting up conv3
I0924 03:18:18.959614 21013 net.cpp:148] Top shape: 10 384 13 13 (648960)
I0924 03:18:18.959625 21013 net.cpp:156] Memory required for data: 56001080
I0924 03:18:18.960762 21013 layer_factory.hpp:77] Creating layer relu3
I0924 03:18:18.960830 21013 net.cpp:91] Creating Layer relu3
I0924 03:18:18.960842 21013 net.cpp:425] relu3 <- conv3
I0924 03:18:18.960857 21013 net.cpp:386] relu3 -> conv3 (in-place)
I0924 03:18:18.962033 21013 net.cpp:141] Setting up relu3
I0924 03:18:18.962095 21013 net.cpp:148] Top shape: 10 384 13 13 (648960)
I0924 03:18:18.962105 21013 net.cpp:156] Memory required for data: 58596920
I0924 03:18:18.962119 21013 layer_factory.hpp:77] Creating layer conv4
I0924 03:18:18.962183 21013 net.cpp:91] Creating Layer conv4
I0924 03:18:18.962196 21013 net.cpp:425] conv4 <- conv3
I0924 03:18:18.962214 21013 net.cpp:399] conv4 -> conv4
I0924 03:18:18.971070 21007 net.cpp:141] Setting up predict
I0924 03:18:18.971115 21007 net.cpp:148] Top shape: 1 1 46168 (46168)
I0924 03:18:18.971122 21007 net.cpp:156] Memory required for data: 221084
I0924 03:18:18.971135 21007 layer_factory.hpp:77] Creating layer probs
I0924 03:18:18.971153 21007 net.cpp:91] Creating Layer probs
I0924 03:18:18.971160 21007 net.cpp:425] probs <- predict
I0924 03:18:18.971171 21007 net.cpp:399] probs -> probs
I0924 03:18:18.971797 21007 net.cpp:141] Setting up probs
I0924 03:18:18.971817 21007 net.cpp:148] Top shape: 1 1 46168 (46168)
I0924 03:18:18.971822 21007 net.cpp:156] Memory required for data: 405756
I0924 03:18:18.971827 21007 net.cpp:219] probs does not need backward computation.
I0924 03:18:18.971832 21007 net.cpp:219] predict does not need backward computation.
I0924 03:18:18.971837 21007 net.cpp:219] lstm2 does not need backward computation.
I0924 03:18:18.971843 21007 net.cpp:219] concat does not need backward computation.
I0924 03:18:18.971848 21007 net.cpp:219] lstm1 does not need backward computation.
I0924 03:18:18.971854 21007 net.cpp:219] embedding does not need backward computation.
I0924 03:18:18.971859 21007 net.cpp:219] reshape_stage_indicator does not need backward computation.
I0924 03:18:18.971865 21007 net.cpp:219] reshape_frames does not need backward computation.
I0924 03:18:18.971869 21007 net.cpp:219] embed_encoder does not need backward computation.
I0924 03:18:18.971874 21007 net.cpp:219] cont_sentence_input_1_split does not need backward computation.
I0924 03:18:18.971880 21007 net.cpp:219] input does not need backward computation.
I0924 03:18:18.971884 21007 net.cpp:261] This network produces output probs
I0924 03:18:18.971899 21007 net.cpp:274] Network initialization done.
I0924 03:18:18.987123 21013 net.cpp:141] Setting up conv4
I0924 03:18:18.987187 21013 net.cpp:148] Top shape: 10 384 13 13 (648960)
I0924 03:18:18.987197 21013 net.cpp:156] Memory required for data: 61192760
I0924 03:18:18.987294 21013 layer_factory.hpp:77] Creating layer relu4
I0924 03:18:18.987352 21013 net.cpp:91] Creating Layer relu4
I0924 03:18:18.987370 21013 net.cpp:425] relu4 <- conv4
I0924 03:18:18.988656 21013 net.cpp:386] relu4 -> conv4 (in-place)
I0924 03:18:19.000129 21013 net.cpp:141] Setting up relu4
I0924 03:18:19.000205 21013 net.cpp:148] Top shape: 10 384 13 13 (648960)
I0924 03:18:19.000217 21013 net.cpp:156] Memory required for data: 63788600
I0924 03:18:19.000234 21013 layer_factory.hpp:77] Creating layer conv5
I0924 03:18:19.000291 21013 net.cpp:91] Creating Layer conv5
I0924 03:18:19.000305 21013 net.cpp:425] conv5 <- conv4
I0924 03:18:19.000321 21013 net.cpp:399] conv5 -> conv5
I0924 03:18:19.079469 21013 net.cpp:141] Setting up conv5
I0924 03:18:19.079526 21013 net.cpp:148] Top shape: 10 256 13 13 (432640)
I0924 03:18:19.079533 21013 net.cpp:156] Memory required for data: 65519160
I0924 03:18:19.079565 21013 layer_factory.hpp:77] Creating layer relu5
I0924 03:18:19.079589 21013 net.cpp:91] Creating Layer relu5
I0924 03:18:19.079597 21013 net.cpp:425] relu5 <- conv5
I0924 03:18:19.079625 21013 net.cpp:386] relu5 -> conv5 (in-place)
I0924 03:18:19.080550 21013 net.cpp:141] Setting up relu5
I0924 03:18:19.080585 21013 net.cpp:148] Top shape: 10 256 13 13 (432640)
I0924 03:18:19.080590 21013 net.cpp:156] Memory required for data: 67249720
I0924 03:18:19.080597 21013 layer_factory.hpp:77] Creating layer pool5
I0924 03:18:19.080615 21013 net.cpp:91] Creating Layer pool5
I0924 03:18:19.080621 21013 net.cpp:425] pool5 <- conv5
I0924 03:18:19.080659 21013 net.cpp:399] pool5 -> pool5
I0924 03:18:19.080826 21013 net.cpp:141] Setting up pool5
I0924 03:18:19.080844 21013 net.cpp:148] Top shape: 10 256 6 6 (92160)
I0924 03:18:19.080852 21013 net.cpp:156] Memory required for data: 67618360
I0924 03:18:19.080860 21013 layer_factory.hpp:77] Creating layer fc6
I0924 03:18:19.081413 21013 net.cpp:91] Creating Layer fc6
I0924 03:18:19.081434 21013 net.cpp:425] fc6 <- pool5
I0924 03:18:19.081449 21013 net.cpp:399] fc6 -> fc6
I0924 03:18:19.177410 21011 net.cpp:141] Setting up predict
I0924 03:18:19.177522 21011 net.cpp:148] Top shape: 1 1 46168 (46168)
I0924 03:18:19.177532 21011 net.cpp:156] Memory required for data: 221084
I0924 03:18:19.177562 21011 layer_factory.hpp:77] Creating layer probs
I0924 03:18:19.177606 21011 net.cpp:91] Creating Layer probs
I0924 03:18:19.177623 21011 net.cpp:425] probs <- predict
I0924 03:18:19.177644 21011 net.cpp:399] probs -> probs
I0924 03:18:19.178910 21011 net.cpp:141] Setting up probs
I0924 03:18:19.178982 21011 net.cpp:148] Top shape: 1 1 46168 (46168)
I0924 03:18:19.178993 21011 net.cpp:156] Memory required for data: 405756
I0924 03:18:19.179013 21011 net.cpp:219] probs does not need backward computation.
I0924 03:18:19.179029 21011 net.cpp:219] predict does not need backward computation.
I0924 03:18:19.179042 21011 net.cpp:219] lstm2 does not need backward computation.
I0924 03:18:19.179056 21011 net.cpp:219] concat does not need backward computation.
I0924 03:18:19.179071 21011 net.cpp:219] lstm1 does not need backward computation.
I0924 03:18:19.179085 21011 net.cpp:219] embedding does not need backward computation.
I0924 03:18:19.179096 21011 net.cpp:219] reshape_stage_indicator does not need backward computation.
I0924 03:18:19.179108 21011 net.cpp:219] reshape_frames does not need backward computation.
I0924 03:18:19.179117 21011 net.cpp:219] embed_encoder does not need backward computation.
I0924 03:18:19.179126 21011 net.cpp:219] cont_sentence_input_1_split does not need backward computation.
I0924 03:18:19.179136 21011 net.cpp:219] input does not need backward computation.
I0924 03:18:19.179143 21011 net.cpp:261] This network produces output probs
I0924 03:18:19.179181 21011 net.cpp:274] Network initialization done.
I0924 03:18:19.219045 21013 net.cpp:141] Setting up fc6
I0924 03:18:19.219100 21013 net.cpp:148] Top shape: 10 4096 (40960)
I0924 03:18:19.219106 21013 net.cpp:156] Memory required for data: 67782200
I0924 03:18:19.219121 21013 layer_factory.hpp:77] Creating layer relu6
I0924 03:18:19.219141 21013 net.cpp:91] Creating Layer relu6
I0924 03:18:19.219148 21013 net.cpp:425] relu6 <- fc6
I0924 03:18:19.219646 21013 net.cpp:386] relu6 -> fc6 (in-place)
I0924 03:18:19.221288 21013 net.cpp:141] Setting up relu6
I0924 03:18:19.221325 21013 net.cpp:148] Top shape: 10 4096 (40960)
I0924 03:18:19.221333 21013 net.cpp:156] Memory required for data: 67946040
I0924 03:18:19.221339 21013 layer_factory.hpp:77] Creating layer drop6
I0924 03:18:19.221817 21013 net.cpp:91] Creating Layer drop6
I0924 03:18:19.221829 21013 net.cpp:425] drop6 <- fc6
I0924 03:18:19.221840 21013 net.cpp:386] drop6 -> fc6 (in-place)
I0924 03:18:19.221957 21013 net.cpp:141] Setting up drop6
I0924 03:18:19.221967 21013 net.cpp:148] Top shape: 10 4096 (40960)
I0924 03:18:19.221972 21013 net.cpp:156] Memory required for data: 68109880
I0924 03:18:19.221976 21013 layer_factory.hpp:77] Creating layer fc7
I0924 03:18:19.221987 21013 net.cpp:91] Creating Layer fc7
I0924 03:18:19.221992 21013 net.cpp:425] fc7 <- fc6
I0924 03:18:19.222299 21013 net.cpp:399] fc7 -> fc7
I0924 03:18:19.282380 21013 net.cpp:141] Setting up fc7
I0924 03:18:19.282439 21013 net.cpp:148] Top shape: 10 4096 (40960)
I0924 03:18:19.282447 21013 net.cpp:156] Memory required for data: 68273720
I0924 03:18:19.282467 21013 layer_factory.hpp:77] Creating layer relu7
I0924 03:18:19.282495 21013 net.cpp:91] Creating Layer relu7
I0924 03:18:19.282503 21013 net.cpp:425] relu7 <- fc7
I0924 03:18:19.282518 21013 net.cpp:386] relu7 -> fc7 (in-place)
I0924 03:18:19.288673 21013 net.cpp:141] Setting up relu7
I0924 03:18:19.288718 21013 net.cpp:148] Top shape: 10 4096 (40960)
I0924 03:18:19.288727 21013 net.cpp:156] Memory required for data: 68437560
I0924 03:18:19.288740 21013 layer_factory.hpp:77] Creating layer drop7
I0924 03:18:19.290227 21013 net.cpp:91] Creating Layer drop7
I0924 03:18:19.290249 21013 net.cpp:425] drop7 <- fc7
I0924 03:18:19.290268 21013 net.cpp:386] drop7 -> fc7 (in-place)
I0924 03:18:19.290411 21013 net.cpp:141] Setting up drop7
I0924 03:18:19.290426 21013 net.cpp:148] Top shape: 10 4096 (40960)
I0924 03:18:19.290432 21013 net.cpp:156] Memory required for data: 68601400
I0924 03:18:19.290439 21013 layer_factory.hpp:77] Creating layer fc8
I0924 03:18:19.290753 21013 net.cpp:91] Creating Layer fc8
I0924 03:18:19.290765 21013 net.cpp:425] fc8 <- fc7
I0924 03:18:19.290776 21013 net.cpp:399] fc8 -> fc8
I0924 03:18:19.307405 21013 net.cpp:141] Setting up fc8
I0924 03:18:19.307461 21013 net.cpp:148] Top shape: 10 1000 (10000)
I0924 03:18:19.307467 21013 net.cpp:156] Memory required for data: 68641400
I0924 03:18:19.307482 21013 layer_factory.hpp:77] Creating layer prob
I0924 03:18:19.307502 21013 net.cpp:91] Creating Layer prob
I0924 03:18:19.307508 21013 net.cpp:425] prob <- fc8
I0924 03:18:19.307518 21013 net.cpp:399] prob -> prob
I0924 03:18:19.310324 21013 net.cpp:141] Setting up prob
I0924 03:18:19.310384 21013 net.cpp:148] Top shape: 10 1000 (10000)
I0924 03:18:19.310396 21013 net.cpp:156] Memory required for data: 68681400
I0924 03:18:19.310410 21013 net.cpp:219] prob does not need backward computation.
I0924 03:18:19.310420 21013 net.cpp:219] fc8 does not need backward computation.
I0924 03:18:19.310428 21013 net.cpp:219] drop7 does not need backward computation.
I0924 03:18:19.310436 21013 net.cpp:219] relu7 does not need backward computation.
…
