…
Java HotSpot(TM) 64-Bit Server VM warning: You have loaded library /home/peifeng/work/run/storm102/data/workers/fe1319ab-c564-40fb-910d-5432692df604/tmp/cvld2242110586431194541/libopencv_java310.xine1.so which might have disabled stack guard. The VM will try to fix the stack guard now.
It's highly recommended that you fix the library with 'execstack -c <libfile>', or link it with '-z noexecstack'.
WARNING: Logging before InitGoogleLogging() is written to STDERR
I0915 12:39:32.359345 11367 net.cpp:49] Initializing net from parameters: 
name: "GoogleNet"
state {
  phase: TEST
}
layer {
  name: "data"
  type: "Input"
  top: "data"
  input_param {
    shape {
      dim: 10
      dim: 3
      dim: 224
      dim: 224
    }
  }
}
layer {
  name: "conv1/7x7_s2"
  type: "Convolution"
  bottom: "data"
  top: "conv1/7x7_s2"
  param {
    lr_mult: 1
    decay_mult: 1
  }
  param {
    lr_mult: 2
    decay_mult: 0
  }
  convolution_param {
    num_output: 64
    pad: 3
    kernel_size: 7
    stride: 2
    weight_filler {
      type: "xavier"
      std: 0.1
    }
    bias_filler {
      type: "constant"
      value: 0.2
    }
  }
}
layer {
  name: "conv1/relu_7x7"
  type: "ReLU"
  bottom: "conv1/7x7_s2"
  top: "conv1/7x7_s2"
}
layer {
  name: "pool1/3x3_s2"
  type: "Pooling"
  bottom: "conv1/7x7_s2"
  top: "pool1/3x3_s2"
  pooling_param {
    pool: MAX
    kernel_size: 3
    stride: 2
  }
}
layer {
  name: "pool1/norm1"
  type: "LRN"
  bottom: "pool1/3x3_s2"
  top: "pool1/norm1"
  lrn_param {
    local_size: 5
    alpha: 0.0001
    beta: 0.75
  }
}
layer {
  name: "conv2/3x3_reduce"
  type: "Convolution"
  bottom: "pool1/norm1"
  top: "conv2/3x3_reduce"
  param {
    lr_mult: 1
    decay_mult: 1
  }
  param {
    lr_mult: 2
    decay_mult: 0
  }
  convolution_param {
    num_output: 64
    kernel_size: 1
    weight_filler {
      type: "xavier"
      std: 0.1
    }
    bias_filler {
      type: "constant"
      value: 0.2
    }
  }
}
layer {
  name: "conv2/relu_3x3_reduce"
  type: "ReLU"
  bottom: "conv2/3x3_reduce"
  top: "conv2/3x3_reduce"
}
layer {
  name: "conv2/3x3"
  type: "Convolution"
  bottom: "conv2/3x3_reduce"
  top: "conv2/3x3"
  param {
    lr_mult: 1
    decay_mult: 1
  }
  param {
    lr_mult: 2
    decay_mult: 0
  }
  convolution_param {
    num_output: 192
    pad: 1
    kernel_size: 3
    weight_filler {
      type: "xavier"
      std: 0.03
    }
    bias_filler {
      type: "constant"
      value: 0.2
    }
  }
}
layer {
  name: "conv2/relu_3x3"
  type: "ReLU"
  bottom: "conv2/3x3"
  top: "conv2/3x3"
}
layer {
  name: "conv2/norm2"
  type: "LRN"
  bottom: "conv2/3x3"
  top: "conv2/norm2"
  lrn_param {
    local_size: 5
    alpha: 0.0001
    beta: 0.75
  }
}
layer {
  name: "pool2/3x3_s2"
  type: "Pooling"
  bottom: "conv2/norm2"
  top: "pool2/3x3_s2"
  pooling_param {
    pool: MAX
    kernel_size: 3
    stride: 2
  }
}
layer {
  name: "inception_3a/1x1"
  type: "Convolution"
  bottom: "pool2/3x3_s2"
  top: "inception_3a/1x1"
  param {
    lr_mult: 1
    decay_mult: 1
  }
  param {
    lr_mult: 2
    decay_mult: 0
  }
  convolution_param {
    num_output: 64
    kernel_size: 1
    weight_filler {
      type: "xavier"
      std: 0.03
    }
    bias_filler {
      type: "constant"
      value: 0.2
    }
  }
}
layer {
  name: "inception_3a/relu_1x1"
  type: "ReLU"
  bottom: "inception_3a/1x1"
  top: "inception_3a/1x1"
}
layer {
  name: "inception_3a/3x3_reduce"
  type: "Convolution"
  bottom: "pool2/3x3_s2"
  top: "inception_3a/3x3_reduce"
  param {
    lr_mult: 1
    decay_mult: 1
  }
  param {
    lr_mult: 2
    decay_mult: 0
  }
  convolution_param {
    num_output: 96
    kernel_size: 1
    weight_filler {
      type: "xavier"
      std: 0.09
    }
    bias_filler {
      type: "constant"
      value: 0.2
    }
  }
}
layer {
  name: "inception_3a/relu_3x3_reduce"
  type: "ReLU"
  bottom: "inception_3a/3x3_reduce"
  top: "inception_3a/3x3_reduce"
}
layer {
  name: "inception_3a/3x3"
  type: "Convolution"
  bottom: "inception_3a/3x3_reduce"
  top: "inception_3a/3x3"
  param {
    lr_mult: 1
    decay_mult: 1
  }
  param {
    lr_mult: 2
    decay_mult: 0
  }
  convolution_param {
    num_output: 128
    pad: 1
    kernel_size: 3
    weight_filler {
      type: "xavier"
      std: 0.03
    }
    bias_filler {
      type: "constant"
      value: 0.2
    }
  }
}
layer {
  name: "inception_3a/relu_3x3"
  type: "ReLU"
  bottom: "inception_3a/3x3"
  top: "inception_3a/3x3"
}
layer {
  name: "inception_3a/5x5_reduce"
  type: "Convolution"
  bottom: "pool2/3x3_s2"
  top: "inception_3a/5x5_reduce"
  param {
    lr_mult: 1
    decay_mult: 1
  }
  param {
    lr_mult: 2
    decay_mult: 0
  }
  convolution_param {
    num_output: 16
    kernel_size: 1
    weight_filler {
      type: "xavier"
      std: 0.2
    }
    bias_filler {
      type: "constant"
      value: 0.2
    }
  }
}
layer {
  name: "inception_3a/relu_5x5_reduce"
  type: "ReLU"
  bottom: "inception_3a/5x5_reduce"
  top: "inception_3a/5x5_reduce"
}
layer {
  name: "inception_3a/5x5"
  type: "Convolution"
  bottom: "inception_3a/5x5_reduce"
  top: "inception_3a/5x5"
  param {
    lr_mult: 1
    decay_mult: 1
  }
  param {
    lr_mult: 2
    decay_mult: 0
  }
  convolution_param {
    num_output: 32
    pad: 2
    kernel_size: 5
    weight_filler {
      type: "xavier"
      std: 0.03
    }
    bias_filler {
      type: "constant"
      value: 0.2
    }
  }
}
layer {
  name: "inception_3a/relu_5x5"
  type: "ReLU"
  bottom: "inception_3a/5x5"
  top: "inception_3a/5x5"
}
layer {
  name: "inception_3a/pool"
  type: "Pooling"
  bottom: "pool2/3x3_s2"
  top: "inception_3a/pool"
  pooling_param {
    pool: MAX
    kernel_size: 3
    stride: 1
    pad: 1
  }
}
layer {
  name: "inception_3a/pool_proj"
  type: "Convolution"
  bottom: "inception_3a/pool"
  top: "inception_3a/pool_proj"
  param {
    lr_mult: 1
    decay_mult: 1
  }
  param {
    lr_mult: 2
    decay_mult: 0
  }
  convolution_param {
    num_output: 32
    kernel_size: 1
    weight_filler {
      type: "xavier"
      std: 0.1
    }
    bias_filler {
      type: "constant"
      value: 0.2
    }
  }
}
layer {
  name: "inception_3a/relu_pool_proj"
  type: "ReLU"
  bottom: "inception_3a/pool_proj"
  top: "inception_3a/pool_proj"
}
layer {
  name: "inception_3a/output"
  type: "Concat"
  bottom: "inception_3a/1x1"
  bottom: "inception_3a/3x3"
  bottom: "inception_3a/5x5"
  bottom: "inception_3a/pool_proj"
  top: "inception_3a/output"
}
layer {
  name: "inception_3b/1x1"
  type: "Convolution"
  bottom: "inception_3a/output"
  top: "inception_3b/1x1"
  param {
    lr_mult: 1
    decay_mult: 1
  }
  param {
    lr_mult: 2
    decay_mult: 0
  }
  convolution_param {
    num_output: 128
    kernel_size: 1
    weight_filler {
      type: "xavier"
      std: 0.03
    }
    bias_filler {
      type: "constant"
      value: 0.2
    }
  }
}
layer {
  name: "inception_3b/relu_1x1"
  type: "ReLU"
  bottom: "inception_3b/1x1"
  top: "inception_3b/1x1"
}
layer {
  name: "inception_3b/3x3_reduce"
  type: "Convolution"
  bottom: "inception_3a/output"
  top: "inception_3b/3x3_reduce"
  param {
    lr_mult: 1
    decay_mult: 1
  }
  param {
    lr_mult: 2
    decay_mult: 0
  }
  convolution_param {
    num_output: 128
    kernel_size: 1
    weight_filler {
      type: "xavier"
      std: 0.09
    }
    bias_filler {
      type: "constant"
      value: 0.2
    }
  }
}
layer {
  name: "inception_3b/relu_3x3_reduce"
  type: "ReLU"
  bottom: "inception_3b/3x3_reduce"
  top: "inception_3b/3x3_reduce"
}
layer {
  name: "inception_3b/3x3"
  type: "Convolution"
  bottom: "inception_3b/3x3_reduce"
  top: "inception_3b/3x3"
  param {
    lr_mult: 1
    decay_mult: 1
  }
  param {
    lr_mult: 2
    decay_mult: 0
  }
  convolution_param {
    num_output: 192
    pad: 1
    kernel_size: 3
    weight_filler {
      type: "xavier"
      std: 0.03
    }
    bias_filler {
      type: "constant"
      value: 0.2
    }
  }
}
layer {
  name: "inception_3b/relu_3x3"
  type: "ReLU"
  bottom: "inception_3b/3x3"
  top: "inception_3b/3x3"
}
layer {
  name: "inception_3b/5x5_reduce"
  type: "Convolution"
  bottom: "inception_3a/output"
  top: "inception_3b/5x5_reduce"
  param {
    lr_mult: 1
    decay_mult: 1
  }
  param {
    lr_mult: 2
    decay_mult: 0
  }
  convolution_param {
    num_output: 32
    kernel_size: 1
    weight_filler {
      type: "xavier"
      std: 0.2
    }
    bias_filler {
      type: "constant"
      value: 0.2
    }
  }
}
layer {
  name: "inception_3b/relu_5x5_reduce"
  type: "ReLU"
  bottom: "inception_3b/5x5_reduce"
  top: "inception_3b/5x5_reduce"
}
layer {
  name: "inception_3b/5x5"
  type: "Convolution"
  bottom: "inception_3b/5x5_reduce"
  top: "inception_3b/5x5"
  param {
    lr_mult: 1
    decay_mult: 1
  }
  param {
    lr_mult: 2
    decay_mult: 0
  }
  convolution_param {
    num_output: 96
    pad: 2
    kernel_size: 5
    weight_filler {
      type: "xavier"
      std: 0.03
    }
    bias_filler {
      type: "constant"
      value: 0.2
    }
  }
}
layer {
  name: "inception_3b/relu_5x5"
  type: "ReLU"
  bottom: "inception_3b/5x5"
  top: "inception_3b/5x5"
}
layer {
  name: "inception_3b/pool"
  type: "Pooling"
  bottom: "inception_3a/output"
  top: "inception_3b/pool"
  pooling_param {
    pool: MAX
    kernel_size: 3
    stride: 1
    pad: 1
  }
}
layer {
  name: "inception_3b/pool_proj"
  type: "Convolution"
  bottom: "inception_3b/pool"
  top: "inception_3b/pool_proj"
  param {
    lr_mult: 1
    decay_mult: 1
  }
  param {
    lr_mult: 2
    decay_mult: 0
  }
  convolution_param {
    num_output: 64
    kernel_size: 1
    weight_filler {
      type: "xavier"
      std: 0.1
    }
    bias_filler {
      type: "constant"
      value: 0.2
    }
  }
}
layer {
  name: "inception_3b/relu_pool_proj"
  type: "ReLU"
  bottom: "inception_3b/pool_proj"
  top: "inception_3b/pool_proj"
}
layer {
  name: "inception_3b/output"
  type: "Concat"
  bottom: "inception_3b/1x1"
  bottom: "inception_3b/3x3"
  bottom: "inception_3b/5x5"
  bottom: "inception_3b/pool_proj"
  top: "inception_3b/output"
}
layer {
  name: "pool3/3x3_s2"
  type: "Pooling"
  bottom: "inception_3b/output"
  top: "pool3/3x3_s2"
  pooling_param {
    pool: MAX
    kernel_size: 3
    stride: 2
  }
}
layer {
  name: "inception_4a/1x1"
  type: "Convolution"
  bottom: "pool3/3x3_s2"
  top: "inception_4a/1x1"
  param {
    lr_mult: 1
    decay_mult: 1
  }
  param {
    lr_mult: 2
    decay_mult: 0
  }
  convolution_param {
    num_output: 192
    kernel_size: 1
    weight_filler {
      type: "xavier"
      std: 0.03
    }
    bias_filler {
      type: "constant"
      value: 0.2
    }
  }
}
layer {
  name: "inception_4a/relu_1x1"
  type: "ReLU"
  bottom: "inception_4a/1x1"
  top: "inception_4a/1x1"
}
layer {
  name: "inception_4a/3x3_reduce"
  type: "Convolution"
  bottom: "pool3/3x3_s2"
  top: "inception_4a/3x3_reduce"
  param {
    lr_mult: 1
    decay_mult: 1
  }
  param {
    lr_mult: 2
    decay_mult: 0
  }
  convolution_param {
    num_output: 96
    kernel_size: 1
    weight_filler {
      type: "xavier"
      std: 0.09
    }
    bias_filler {
      type: "constant"
      value: 0.2
    }
  }
}
layer {
  name: "inception_4a/relu_3x3_reduce"
  type: "ReLU"
  bottom: "inception_4a/3x3_reduce"
  top: "inception_4a/3x3_reduce"
}
layer {
  name: "inception_4a/3x3"
  type: "Convolution"
  bottom: "inception_4a/3x3_reduce"
  top: "inception_4a/3x3"
  param {
    lr_mult: 1
    decay_mult: 1
  }
  param {
    lr_mult: 2
    decay_mult: 0
  }
  convolution_param {
    num_output: 208
    pad: 1
    kernel_size: 3
    weight_filler {
      type: "xavier"
      std: 0.03
    }
    bias_filler {
      type: "constant"
      value: 0.2
    }
  }
}
layer {
  name: "inception_4a/relu_3x3"
  type: "ReLU"
  bottom: "inception_4a/3x3"
  top: "inception_4a/3x3"
}
layer {
  name: "inception_4a/5x5_reduce"
  type: "Convolution"
  bottom: "pool3/3x3_s2"
  top: "inception_4a/5x5_reduce"
  param {
    lr_mult: 1
    decay_mult: 1
  }
  param {
    lr_mult: 2
    decay_mult: 0
  }
  convolution_param {
    num_output: 16
    kernel_size: 1
    weight_filler {
      type: "xavier"
      std: 0.2
    }
    bias_filler {
      type: "constant"
      value: 0.2
    }
  }
}
layer {
  name: "inception_4a/relu_5x5_reduce"
  type: "ReLU"
  bottom: "inception_4a/5x5_reduce"
  top: "inception_4a/5x5_reduce"
}
layer {
  name: "inception_4a/5x5"
  type: "Convolution"
  bottom: "inception_4a/5x5_reduce"
  top: "inception_4a/5x5"
  param {
    lr_mult: 1
    decay_mult: 1
  }
  param {
    lr_mult: 2
    decay_mult: 0
  }
  convolution_param {
    num_output: 48
    pad: 2
    kernel_size: 5
    weight_filler {
      type: "xavier"
      std: 0.03
    }
    bias_filler {
      type: "constant"
      value: 0.2
    }
  }
}
layer {
  name: "inception_4a/relu_5x5"
  type: "ReLU"
  bottom: "inception_4a/5x5"
  top: "inception_4a/5x5"
}
layer {
  name: "inception_4a/pool"
  type: "Pooling"
  bottom: "pool3/3x3_s2"
  top: "inception_4a/pool"
  pooling_param {
    pool: MAX
    kernel_size: 3
    stride: 1
    pad: 1
  }
}
layer {
  name: "inception_4a/pool_proj"
  type: "Convolution"
  bottom: "inception_4a/pool"
  top: "inception_4a/pool_proj"
  param {
    lr_mult: 1
    decay_mult: 1
  }
  param {
    lr_mult: 2
    decay_mult: 0
  }
  convolution_param {
    num_output: 64
    kernel_size: 1
    weight_filler {
      type: "xavier"
      std: 0.1
    }
    bias_filler {
      type: "constant"
      value: 0.2
    }
  }
}
layer {
  name: "inception_4a/relu_pool_proj"
  type: "ReLU"
  bottom: "inception_4a/pool_proj"
  top: "inception_4a/pool_proj"
}
layer {
  name: "inception_4a/output"
  type: "Concat"
  bottom: "inception_4a/1x1"
  bottom: "inception_4a/3x3"
  bottom: "inception_4a/5x5"
  bottom: "inception_4a/pool_proj"
  top: "inception_4a/output"
}
layer {
  name: "inception_4b/1x1"
  type: "Convolution"
  bottom: "inception_4a/output"
  top: "inception_4b/1x1"
  param {
    lr_mult: 1
    decay_mult: 1
  }
  param {
    lr_mult: 2
    decay_mult: 0
  }
  convolution_param {
    num_output: 160
    kernel_size: 1
    weight_filler {
      type: "xavier"
      std: 0.03
    }
    bias_filler {
      type: "constant"
      value: 0.2
    }
  }
}
layer {
  name: "inception_4b/relu_1x1"
  type: "ReLU"
  bottom: "inception_4b/1x1"
  top: "inception_4b/1x1"
}
layer {
  name: "inception_4b/3x3_reduce"
  type: "Convolution"
  bottom: "inception_4a/output"
  top: "inception_4b/3x3_reduce"
  param {
    lr_mult: 1
    decay_mult: 1
  }
  param {
    lr_mult: 2
    decay_mult: 0
  }
  convolution_param {
    num_output: 112
    kernel_size: 1
    weight_filler {
      type: "xavier"
      std: 0.09
    }
    bias_filler {
      type: "constant"
      value: 0.2
    }
  }
}
layer {
  name: "inception_4b/relu_3x3_reduce"
  type: "ReLU"
  bottom: "inception_4b/3x3_reduce"
  top: "inception_4b/3x3_reduce"
}
layer {
  name: "inception_4b/3x3"
  type: "Convolution"
  bottom: "inception_4b/3x3_reduce"
  top: "inception_4b/3x3"
  param {
    lr_mult: 1
    decay_mult: 1
  }
  param {
    lr_mult: 2
    decay_mult: 0
  }
  convolution_param {
    num_output: 224
    pad: 1
    kernel_size: 3
    weight_filler {
      type: "xavier"
      std: 0.03
    }
    bias_filler {
      type: "constant"
      value: 0.2
    }
  }
}
layer {
  name: "inception_4b/relu_3x3"
  type: "ReLU"
  bottom: "inception_4b/3x3"
  top: "inception_4b/3x3"
}
layer {
  name: "inception_4b/5x5_reduce"
  type: "Convolution"
  bottom: "inception_4a/output"
  top: "inception_4b/5x5_reduce"
  param {
    lr_mult: 1
    decay_mult: 1
  }
  param {
    lr_mult: 2
    decay_mult: 0
  }
  convolution_param {
    num_output: 24
    kernel_size: 1
    weight_filler {
      type: "xavier"
      std: 0.2
    }
    bias_filler {
      type: "constant"
      value: 0.2
    }
  }
}
layer {
  name: "inception_4b/relu_5x5_reduce"
  type: "ReLU"
  bottom: "inception_4b/5x5_reduce"
  top: "inception_4b/5x5_reduce"
}
layer {
  name: "inception_4b/5x5"
  type: "Convolution"
  bottom: "inception_4b/5x5_reduce"
  top: "inception_4b/5x5"
  param {
    lr_mult: 1
    decay_mult: 1
  }
  param {
    lr_mult: 2
    decay_mult: 0
  }
  convolution_param {
    num_output: 64
    pad: 2
    kernel_size: 5
    weight_filler {
      type: "xavier"
      std: 0.03
    }
    bias_filler {
      type: "constant"
      value: 0.2
    }
  }
}
layer {
  name: "inception_4b/relu_5x5"
  type: "ReLU"
  bottom: "inception_4b/5x5"
  top: "inception_4b/5x5"
}
layer {
  name: "inception_4b/pool"
  type: "Pooling"
  bottom: "inception_4a/output"
  top: "inception_4b/pool"
  pooling_param {
    pool: MAX
    kernel_size: 3
    stride: 1
    pad: 1
  }
}
layer {
  name: "inception_4b/pool_proj"
  type: "Convolution"
  bottom: "inception_4b/pool"
  top: "inception_4b/pool_proj"
  param {
    lr_mult: 1
    decay_mult: 1
  }
  param {
    lr_mult: 2
    decay_mult: 0
  }
  convolution_param {
    num_output: 64
    kernel_size: 1
    weight_filler {
      type: "xavier"
      std: 0.1
    }
    bias_filler {
      type: "constant"
      value: 0.2
    }
  }
}
layer {
  name: "inception_4b/relu_pool_proj"
  type: "ReLU"
  bottom: "inception_4b/pool_proj"
  top: "inception_4b/pool_proj"
}
layer {
  name: "inception_4b/output"
  type: "Concat"
  bottom: "inception_4b/1x1"
  bottom: "inception_4b/3x3"
  bottom: "inception_4b/5x5"
  bottom: "inception_4b/pool_proj"
  top: "inception_4b/output"
}
layer {
  name: "inception_4c/1x1"
  type: "Convolution"
  bottom: "inception_4b/output"
  top: "inception_4c/1x1"
  param {
    lr_mult: 1
    decay_mult: 1
  }
  param {
    lr_mult: 2
    decay_mult: 0
  }
  convolution_param {
    num_output: 128
    kernel_size: 1
    weight_filler {
      type: "xavier"
      std: 0.03
    }
    bias_filler {
      type: "constant"
      value: 0.2
    }
  }
}
layer {
  name: "inception_4c/relu_1x1"
  type: "ReLU"
  bottom: "inception_4c/1x1"
  top: "inception_4c/1x1"
}
layer {
  name: "inception_4c/3x3_reduce"
  type: "Convolution"
  bottom: "inception_4b/output"
  top: "inception_4c/3x3_reduce"
  param {
    lr_mult: 1
    decay_mult: 1
  }
  param {
    lr_mult: 2
    decay_mult: 0
  }
  convolution_param {
    num_output: 128
    kernel_size: 1
    weight_filler {
      type: "xavier"
      std: 0.09
    }
    bias_filler {
      type: "constant"
      value: 0.2
    }
  }
}
layer {
  name: "inception_4c/relu_3x3_reduce"
  type: "ReLU"
  bottom: "inception_4c/3x3_reduce"
  top: "inception_4c/3x3_reduce"
}
layer {
  name: "inception_4c/3x3"
  type: "Convolution"
  bottom: "inception_4c/3x3_reduce"
  top: "inception_4c/3x3"
  param {
    lr_mult: 1
    decay_mult: 1
  }
  param {
    lr_mult: 2
    decay_mult: 0
  }
  convolution_param {
    num_output: 256
    pad: 1
    kernel_size: 3
    weight_filler {
      type: "xavier"
      std: 0.03
    }
    bias_filler {
      type: "constant"
      value: 0.2
    }
  }
}
layer {
  name: "inception_4c/relu_3x3"
  type: "ReLU"
  bottom: "inception_4c/3x3"
  top: "inception_4c/3x3"
}
layer {
  name: "inception_4c/5x5_reduce"
  type: "Convolution"
  bottom: "inception_4b/output"
  top: "inception_4c/5x5_reduce"
  param {
    lr_mult: 1
    decay_mult: 1
  }
  param {
    lr_mult: 2
    decay_mult: 0
  }
  convolution_param {
    num_output: 24
    kernel_size: 1
    weight_filler {
      type: "xavier"
      std: 0.2
    }
    bias_filler {
      type: "constant"
      value: 0.2
    }
  }
}
layer {
  name: "inception_4c/relu_5x5_reduce"
  type: "ReLU"
  bottom: "inception_4c/5x5_reduce"
  top: "inception_4c/5x5_reduce"
}
layer {
  name: "inception_4c/5x5"
  type: "Convolution"
  bottom: "inception_4c/5x5_reduce"
  top: "inception_4c/5x5"
  param {
    lr_mult: 1
    decay_mult: 1
  }
  param {
    lr_mult: 2
    decay_mult: 0
  }
  convolution_param {
    num_output: 64
    pad: 2
    kernel_size: 5
    weight_filler {
      type: "xavier"
      std: 0.03
    }
    bias_filler {
      type: "constant"
      value: 0.2
    }
  }
}
layer {
  name: "inception_4c/relu_5x5"
  type: "ReLU"
  bottom: "inception_4c/5x5"
  top: "inception_4c/5x5"
}
layer {
  name: "inception_4c/pool"
  type: "Pooling"
  bottom: "inception_4b/output"
  top: "inception_4c/pool"
  pooling_param {
    pool: MAX
    kernel_size: 3
    stride: 1
    pad: 1
  }
}
layer {
  name: "inception_4c/pool_proj"
  type: "Convolution"
  bottom: "inception_4c/pool"
  top: "inception_4c/pool_proj"
  param {
    lr_mult: 1
    decay_mult: 1
  }
  param {
    lr_mult: 2
    decay_mult: 0
  }
  convolution_param {
    num_output: 64
    kernel_size: 1
    weight_filler {
      type: "xavier"
      std: 0.1
    }
    bias_filler {
      type: "constant"
      value: 0.2
    }
  }
}
layer {
  name: "inception_4c/relu_pool_proj"
  type: "ReLU"
  bottom: "inception_4c/pool_proj"
  top: "inception_4c/pool_proj"
}
layer {
  name: "inception_4c/output"
  type: "Concat"
  bottom: "inception_4c/1x1"
  bottom: "inception_4c/3x3"
  bottom: "inception_4c/5x5"
  bottom: "inception_4c/pool_proj"
  top: "inception_4c/output"
}
layer {
  name: "inception_4d/1x1"
  type: "Convolution"
  bottom: "inception_4c/output"
  top: "inception_4d/1x1"
  param {
    lr_mult: 1
    decay_mult: 1
  }
  param {
    lr_mult: 2
    decay_mult: 0
  }
  convolution_param {
    num_output: 112
    kernel_size: 1
    weight_filler {
      type: "xavier"
      std: 0.03
    }
    bias_filler {
      type: "constant"
      value: 0.2
    }
  }
}
layer {
  name: "inception_4d/relu_1x1"
  type: "ReLU"
  bottom: "inception_4d/1x1"
  top: "inception_4d/1x1"
}
layer {
  name: "inception_4d/3x3_reduce"
  type: "Convolution"
  bottom: "inception_4c/output"
  top: "inception_4d/3x3_reduce"
  param {
    lr_mult: 1
    decay_mult: 1
  }
  param {
    lr_mult: 2
    decay_mult: 0
  }
  convolution_param {
    num_output: 144
    kernel_size: 1
    weight_filler {
      type: "xavier"
      std: 0.09
    }
    bias_filler {
      type: "constant"
      value: 0.2
    }
  }
}
layer {
  name: "inception_4d/relu_3x3_reduce"
  type: "ReLU"
  bottom: "inception_4d/3x3_reduce"
  top: "inception_4d/3x3_reduce"
}
layer {
  name: "inception_4d/3x3"
  type: "Convolution"
  bottom: "inception_4d/3x3_reduce"
  top: "inception_4d/3x3"
  param {
    lr_mult: 1
    decay_mult: 1
  }
  param {
    lr_mult: 2
    decay_mult: 0
  }
  convolution_param {
    num_output: 288
    pad: 1
    kernel_size: 3
    weight_filler {
      type: "xavier"
      std: 0.03
    }
    bias_filler {
      type: "constant"
      value: 0.2
    }
  }
}
layer {
  name: "inception_4d/relu_3x3"
  type: "ReLU"
  bottom: "inception_4d/3x3"
  top: "inception_4d/3x3"
}
layer {
  name: "inception_4d/5x5_reduce"
  type: "Convolution"
  bottom: "inception_4c/output"
  top: "inception_4d/5x5_reduce"
  param {
    lr_mult: 1
    decay_mult: 1
  }
  param {
    lr_mult: 2
    decay_mult: 0
  }
  convolution_param {
    num_output: 32
    kernel_size: 1
    weight_filler {
      type: "xavier"
      std: 0.2
    }
    bias_filler {
      type: "constant"
      value: 0.2
    }
  }
}
layer {
  name: "inception_4d/relu_5x5_reduce"
  type: "ReLU"
  bottom: "inception_4d/5x5_reduce"
  top: "inception_4d/5x5_reduce"
}
layer {
  name: "inception_4d/5x5"
  type: "Convolution"
  bottom: "inception_4d/5x5_reduce"
  top: "inception_4d/5x5"
  param {
    lr_mult: 1
    decay_mult: 1
  }
  param {
    lr_mult: 2
    decay_mult: 0
  }
  convolution_param {
    num_output: 64
    pad: 2
    kernel_size: 5
    weight_filler {
      type: "xavier"
      std: 0.03
    }
    bias_filler {
      type: "constant"
      value: 0.2
    }
  }
}
layer {
  name: "inception_4d/relu_5x5"
  type: "ReLU"
  bottom: "inception_4d/5x5"
  top: "inception_4d/5x5"
}
layer {
  name: "inception_4d/pool"
  type: "Pooling"
  bottom: "inception_4c/output"
  top: "inception_4d/pool"
  pooling_param {
    pool: MAX
    kernel_size: 3
    stride: 1
    pad: 1
  }
}
layer {
  name: "inception_4d/pool_proj"
  type: "Convolution"
  bottom: "inception_4d/pool"
  top: "inception_4d/pool_proj"
  param {
    lr_mult: 1
    decay_mult: 1
  }
  param {
    lr_mult: 2
    decay_mult: 0
  }
  convolution_param {
    num_output: 64
    kernel_size: 1
    weight_filler {
      type: "xavier"
      std: 0.1
    }
    bias_filler {
      type: "constant"
      value: 0.2
    }
  }
}
layer {
  name: "inception_4d/relu_pool_proj"
  type: "ReLU"
  bottom: "inception_4d/pool_proj"
  top: "inception_4d/pool_proj"
}
layer {
  name: "inception_4d/output"
  type: "Concat"
  bottom: "inception_4d/1x1"
  bottom: "inception_4d/3x3"
  bottom: "inception_4d/5x5"
  bottom: "inception_4d/pool_proj"
  top: "inception_4d/output"
}
layer {
  name: "inception_4e/1x1"
  type: "Convolution"
  bottom: "inception_4d/output"
  top: "inception_4e/1x1"
  param {
    lr_mult: 1
    decay_mult: 1
  }
  param {
    lr_mult: 2
    decay_mult: 0
  }
  convolution_param {
    num_output: 256
    kernel_size: 1
    weight_filler {
      type: "xavier"
      std: 0.03
    }
    bias_filler {
      type: "constant"
      value: 0.2
    }
  }
}
layer {
  name: "inception_4e/relu_1x1"
  type: "ReLU"
  bottom: "inception_4e/1x1"
  top: "inception_4e/1x1"
}
layer {
  name: "inception_4e/3x3_reduce"
  type: "Convolution"
  bottom: "inception_4d/output"
  top: "inception_4e/3x3_reduce"
  param {
    lr_mult: 1
    decay_mult: 1
  }
  param {
    lr_mult: 2
    decay_mult: 0
  }
  convolution_param {
    num_output: 160
    kernel_size: 1
    weight_filler {
      type: "xavier"
      std: 0.09
    }
    bias_filler {
      type: "constant"
      value: 0.2
    }
  }
}
layer {
  name: "inception_4e/relu_3x3_reduce"
  type: "ReLU"
  bottom: "inception_4e/3x3_reduce"
  top: "inception_4e/3x3_reduce"
}
layer {
  name: "inception_4e/3x3"
  type: "Convolution"
  bottom: "inception_4e/3x3_reduce"
  top: "inception_4e/3x3"
  param {
    lr_mult: 1
    decay_mult: 1
  }
  param {
    lr_mult: 2
    decay_mult: 0
  }
  convolution_param {
    num_output: 320
    pad: 1
    kernel_size: 3
    weight_filler {
      type: "xavier"
      std: 0.03
    }
    bias_filler {
      type: "constant"
      value: 0.2
    }
  }
}
layer {
  name: "inception_4e/relu_3x3"
  type: "ReLU"
  bottom: "inception_4e/3x3"
  top: "inception_4e/3x3"
}
layer {
  name: "inception_4e/5x5_reduce"
  type: "Convolution"
  bottom: "inception_4d/output"
  top: "inception_4e/5x5_reduce"
  param {
    lr_mult: 1
    decay_mult: 1
  }
  param {
    lr_mult: 2
    decay_mult: 0
  }
  convolution_param {
    num_output: 32
    kernel_size: 1
    weight_filler {
      type: "xavier"
      std: 0.2
    }
    bias_filler {
      type: "constant"
      value: 0.2
    }
  }
}
layer {
  name: "inception_4e/relu_5x5_reduce"
  type: "ReLU"
  bottom: "inception_4e/5x5_reduce"
  top: "inception_4e/5x5_reduce"
}
layer {
  name: "inception_4e/5x5"
  type: "Convolution"
  bottom: "inception_4e/5x5_reduce"
  top: "inception_4e/5x5"
  param {
    lr_mult: 1
    decay_mult: 1
  }
  param {
    lr_mult: 2
    decay_mult: 0
  }
  convolution_param {
    num_output: 128
    pad: 2
    kernel_size: 5
    weight_filler {
      type: "xavier"
      std: 0.03
    }
    bias_filler {
      type: "constant"
      value: 0.2
    }
  }
}
layer {
  name: "inception_4e/relu_5x5"
  type: "ReLU"
  bottom: "inception_4e/5x5"
  top: "inception_4e/5x5"
}
layer {
  name: "inception_4e/pool"
  type: "Pooling"
  bottom: "inception_4d/output"
  top: "inception_4e/pool"
  pooling_param {
    pool: MAX
    kernel_size: 3
    stride: 1
    pad: 1
  }
}
layer {
  name: "inception_4e/pool_proj"
  type: "Convolution"
  bottom: "inception_4e/pool"
  top: "inception_4e/pool_proj"
  param {
    lr_mult: 1
    decay_mult: 1
  }
  param {
    lr_mult: 2
    decay_mult: 0
  }
  convolution_param {
    num_output: 128
    kernel_size: 1
    weight_filler {
      type: "xavier"
      std: 0.1
    }
    bias_filler {
      type: "constant"
      value: 0.2
    }
  }
}
layer {
  name: "inception_4e/relu_pool_proj"
  type: "ReLU"
  bottom: "inception_4e/pool_proj"
  top: "inception_4e/pool_proj"
}
layer {
  name: "inception_4e/output"
  type: "Concat"
  bottom: "inception_4e/1x1"
  bottom: "inception_4e/3x3"
  bottom: "inception_4e/5x5"
  bottom: "inception_4e/pool_proj"
  top: "inception_4e/output"
}
layer {
  name: "pool4/3x3_s2"
  type: "Pooling"
  bottom: "inception_4e/output"
  top: "pool4/3x3_s2"
  pooling_param {
    pool: MAX
    kernel_size: 3
    stride: 2
  }
}
layer {
  name: "inception_5a/1x1"
  type: "Convolution"
  bottom: "pool4/3x3_s2"
  top: "inception_5a/1x1"
  param {
    lr_mult: 1
    decay_mult: 1
  }
  param {
    lr_mult: 2
    decay_mult: 0
  }
  convolution_param {
    num_output: 256
    kernel_size: 1
    weight_filler {
      type: "xavier"
      std: 0.03
    }
    bias_filler {
      type: "constant"
      value: 0.2
    }
  }
}
layer {
  name: "inception_5a/relu_1x1"
  type: "ReLU"
  bottom: "inception_5a/1x1"
  top: "inception_5a/1x1"
}
layer {
  name: "inception_5a/3x3_reduce"
  type: "Convolution"
  bottom: "pool4/3x3_s2"
  top: "inception_5a/3x3_reduce"
  param {
    lr_mult: 1
    decay_mult: 1
  }
  param {
    lr_mult: 2
    decay_mult: 0
  }
  convolution_param {
    num_output: 160
    kernel_size: 1
    weight_filler {
      type: "xavier"
      std: 0.09
    }
    bias_filler {
      type: "constant"
      value: 0.2
    }
  }
}
layer {
  name: "inception_5a/relu_3x3_reduce"
  type: "ReLU"
  bottom: "inception_5a/3x3_reduce"
  top: "inception_5a/3x3_reduce"
}
layer {
  name: "inception_5a/3x3"
  type: "Convolution"
  bottom: "inception_5a/3x3_reduce"
  top: "inception_5a/3x3"
  param {
    lr_mult: 1
    decay_mult: 1
  }
  param {
    lr_mult: 2
    decay_mult: 0
  }
  convolution_param {
    num_output: 320
    pad: 1
    kernel_size: 3
    weight_filler {
      type: "xavier"
      std: 0.03
    }
    bias_filler {
      type: "constant"
      value: 0.2
    }
  }
}
layer {
  name: "inception_5a/relu_3x3"
  type: "ReLU"
  bottom: "inception_5a/3x3"
  top: "inception_5a/3x3"
}
layer {
  name: "inception_5a/5x5_reduce"
  type: "Convolution"
  bottom: "pool4/3x3_s2"
  top: "inception_5a/5x5_reduce"
  param {
    lr_mult: 1
    decay_mult: 1
  }
  param {
    lr_mult: 2
    decay_mult: 0
  }
  convolution_param {
    num_output: 32
    kernel_size: 1
    weight_filler {
      type: "xavier"
      std: 0.2
    }
    bias_filler {
      type: "constant"
      value: 0.2
    }
I0915 12:39:32.360226 11367 layer_factory.hpp:77] Creating layer data
I0915 12:39:32.360255 11367 net.cpp:91] Creating Layer data
I0915 12:39:32.360265 11367 net.cpp:399] data -> data
I0915 12:39:32.850319 11367 net.cpp:141] Setting up data
I0915 12:39:32.850396 11367 net.cpp:148] Top shape: 10 3 224 224 (1505280)
I0915 12:39:32.850404 11367 net.cpp:156] Memory required for data: 6021120
I0915 12:39:32.850424 11367 layer_factory.hpp:77] Creating layer conv1/7x7_s2
I0915 12:39:32.850456 11367 net.cpp:91] Creating Layer conv1/7x7_s2
I0915 12:39:32.850466 11367 net.cpp:425] conv1/7x7_s2 <- data
I0915 12:39:32.850478 11367 net.cpp:399] conv1/7x7_s2 -> conv1/7x7_s2
I0915 12:39:33.024731 11367 net.cpp:141] Setting up conv1/7x7_s2
I0915 12:39:33.024780 11367 net.cpp:148] Top shape: 10 64 112 112 (8028160)
I0915 12:39:33.024785 11367 net.cpp:156] Memory required for data: 38133760
I0915 12:39:33.024812 11367 layer_factory.hpp:77] Creating layer conv1/relu_7x7
I0915 12:39:33.024833 11367 net.cpp:91] Creating Layer conv1/relu_7x7
I0915 12:39:33.024839 11367 net.cpp:425] conv1/relu_7x7 <- conv1/7x7_s2
I0915 12:39:33.024847 11367 net.cpp:386] conv1/relu_7x7 -> conv1/7x7_s2 (in-place)
I0915 12:39:33.025257 11367 net.cpp:141] Setting up conv1/relu_7x7
I0915 12:39:33.025269 11367 net.cpp:148] Top shape: 10 64 112 112 (8028160)
I0915 12:39:33.025274 11367 net.cpp:156] Memory required for data: 70246400
I0915 12:39:33.025279 11367 layer_factory.hpp:77] Creating layer pool1/3x3_s2
I0915 12:39:33.025295 11367 net.cpp:91] Creating Layer pool1/3x3_s2
I0915 12:39:33.025300 11367 net.cpp:425] pool1/3x3_s2 <- conv1/7x7_s2
I0915 12:39:33.025307 11367 net.cpp:399] pool1/3x3_s2 -> pool1/3x3_s2
I0915 12:39:33.025382 11367 net.cpp:141] Setting up pool1/3x3_s2
I0915 12:39:33.025393 11367 net.cpp:148] Top shape: 10 64 56 56 (2007040)
I0915 12:39:33.025396 11367 net.cpp:156] Memory required for data: 78274560
I0915 12:39:33.025400 11367 layer_factory.hpp:77] Creating layer pool1/norm1
I0915 12:39:33.025419 11367 net.cpp:91] Creating Layer pool1/norm1
I0915 12:39:33.025424 11367 net.cpp:425] pool1/norm1 <- pool1/3x3_s2
I0915 12:39:33.025430 11367 net.cpp:399] pool1/norm1 -> pool1/norm1
I0915 12:39:33.025688 11367 net.cpp:141] Setting up pool1/norm1
I0915 12:39:33.025699 11367 net.cpp:148] Top shape: 10 64 56 56 (2007040)
I0915 12:39:33.025703 11367 net.cpp:156] Memory required for data: 86302720
I0915 12:39:33.025708 11367 layer_factory.hpp:77] Creating layer conv2/3x3_reduce
I0915 12:39:33.025729 11367 net.cpp:91] Creating Layer conv2/3x3_reduce
I0915 12:39:33.025734 11367 net.cpp:425] conv2/3x3_reduce <- pool1/norm1
I0915 12:39:33.025741 11367 net.cpp:399] conv2/3x3_reduce -> conv2/3x3_reduce
I0915 12:39:33.027750 11367 net.cpp:141] Setting up conv2/3x3_reduce
I0915 12:39:33.027765 11367 net.cpp:148] Top shape: 10 64 56 56 (2007040)
I0915 12:39:33.027770 11367 net.cpp:156] Memory required for data: 94330880
I0915 12:39:33.027781 11367 layer_factory.hpp:77] Creating layer conv2/relu_3x3_reduce
I0915 12:39:33.027788 11367 net.cpp:91] Creating Layer conv2/relu_3x3_reduce
I0915 12:39:33.027793 11367 net.cpp:425] conv2/relu_3x3_reduce <- conv2/3x3_reduce
I0915 12:39:33.027802 11367 net.cpp:386] conv2/relu_3x3_reduce -> conv2/3x3_reduce (in-place)
I0915 12:39:33.028193 11367 net.cpp:141] Setting up conv2/relu_3x3_reduce
I0915 12:39:33.028205 11367 net.cpp:148] Top shape: 10 64 56 56 (2007040)
I0915 12:39:33.028210 11367 net.cpp:156] Memory required for data: 102359040
I0915 12:39:33.028214 11367 layer_factory.hpp:77] Creating layer conv2/3x3
I0915 12:39:33.028229 11367 net.cpp:91] Creating Layer conv2/3x3
I0915 12:39:33.028234 11367 net.cpp:425] conv2/3x3 <- conv2/3x3_reduce
I0915 12:39:33.028244 11367 net.cpp:399] conv2/3x3 -> conv2/3x3
I0915 12:39:33.031277 11367 net.cpp:141] Setting up conv2/3x3
I0915 12:39:33.031296 11367 net.cpp:148] Top shape: 10 192 56 56 (6021120)
I0915 12:39:33.031307 11367 net.cpp:156] Memory required for data: 126443520
I0915 12:39:33.031318 11367 layer_factory.hpp:77] Creating layer conv2/relu_3x3
I0915 12:39:33.031327 11367 net.cpp:91] Creating Layer conv2/relu_3x3
I0915 12:39:33.031332 11367 net.cpp:425] conv2/relu_3x3 <- conv2/3x3
I0915 12:39:33.031338 11367 net.cpp:386] conv2/relu_3x3 -> conv2/3x3 (in-place)
I0915 12:39:33.031559 11367 net.cpp:141] Setting up conv2/relu_3x3
I0915 12:39:33.031570 11367 net.cpp:148] Top shape: 10 192 56 56 (6021120)
I0915 12:39:33.031574 11367 net.cpp:156] Memory required for data: 150528000
I0915 12:39:33.031579 11367 layer_factory.hpp:77] Creating layer conv2/norm2
I0915 12:39:33.031589 11367 net.cpp:91] Creating Layer conv2/norm2
I0915 12:39:33.031594 11367 net.cpp:425] conv2/norm2 <- conv2/3x3
I0915 12:39:33.031599 11367 net.cpp:399] conv2/norm2 -> conv2/norm2
I0915 12:39:33.032016 11367 net.cpp:141] Setting up conv2/norm2
I0915 12:39:33.032027 11367 net.cpp:148] Top shape: 10 192 56 56 (6021120)
I0915 12:39:33.032032 11367 net.cpp:156] Memory required for data: 174612480
I0915 12:39:33.032037 11367 layer_factory.hpp:77] Creating layer pool2/3x3_s2
I0915 12:39:33.032044 11367 net.cpp:91] Creating Layer pool2/3x3_s2
I0915 12:39:33.032048 11367 net.cpp:425] pool2/3x3_s2 <- conv2/norm2
I0915 12:39:33.032078 11367 net.cpp:399] pool2/3x3_s2 -> pool2/3x3_s2
I0915 12:39:33.032129 11367 net.cpp:141] Setting up pool2/3x3_s2
I0915 12:39:33.032136 11367 net.cpp:148] Top shape: 10 192 28 28 (1505280)
I0915 12:39:33.032140 11367 net.cpp:156] Memory required for data: 180633600
I0915 12:39:33.032145 11367 layer_factory.hpp:77] Creating layer pool2/3x3_s2_pool2/3x3_s2_0_split
I0915 12:39:33.032166 11367 net.cpp:91] Creating Layer pool2/3x3_s2_pool2/3x3_s2_0_split
I0915 12:39:33.032171 11367 net.cpp:425] pool2/3x3_s2_pool2/3x3_s2_0_split <- pool2/3x3_s2
I0915 12:39:33.032176 11367 net.cpp:399] pool2/3x3_s2_pool2/3x3_s2_0_split -> pool2/3x3_s2_pool2/3x3_s2_0_split_0
I0915 12:39:33.032189 11367 net.cpp:399] pool2/3x3_s2_pool2/3x3_s2_0_split -> pool2/3x3_s2_pool2/3x3_s2_0_split_1
I0915 12:39:33.032197 11367 net.cpp:399] pool2/3x3_s2_pool2/3x3_s2_0_split -> pool2/3x3_s2_pool2/3x3_s2_0_split_2
I0915 12:39:33.032204 11367 net.cpp:399] pool2/3x3_s2_pool2/3x3_s2_0_split -> pool2/3x3_s2_pool2/3x3_s2_0_split_3
I0915 12:39:33.032272 11367 net.cpp:141] Setting up pool2/3x3_s2_pool2/3x3_s2_0_split
I0915 12:39:33.032281 11367 net.cpp:148] Top shape: 10 192 28 28 (1505280)
I0915 12:39:33.032287 11367 net.cpp:148] Top shape: 10 192 28 28 (1505280)
I0915 12:39:33.032292 11367 net.cpp:148] Top shape: 10 192 28 28 (1505280)
I0915 12:39:33.032297 11367 net.cpp:148] Top shape: 10 192 28 28 (1505280)
I0915 12:39:33.032301 11367 net.cpp:156] Memory required for data: 204718080
I0915 12:39:33.032305 11367 layer_factory.hpp:77] Creating layer inception_3a/1x1
I0915 12:39:33.032318 11367 net.cpp:91] Creating Layer inception_3a/1x1
I0915 12:39:33.032323 11367 net.cpp:425] inception_3a/1x1 <- pool2/3x3_s2_pool2/3x3_s2_0_split_0
I0915 12:39:33.032349 11367 net.cpp:399] inception_3a/1x1 -> inception_3a/1x1
I0915 12:39:33.034219 11367 net.cpp:141] Setting up inception_3a/1x1
I0915 12:39:33.034235 11367 net.cpp:148] Top shape: 10 64 28 28 (501760)
I0915 12:39:33.034238 11367 net.cpp:156] Memory required for data: 206725120
I0915 12:39:33.034246 11367 layer_factory.hpp:77] Creating layer inception_3a/relu_1x1
I0915 12:39:33.034256 11367 net.cpp:91] Creating Layer inception_3a/relu_1x1
I0915 12:39:33.034262 11367 net.cpp:425] inception_3a/relu_1x1 <- inception_3a/1x1
I0915 12:39:33.034270 11367 net.cpp:386] inception_3a/relu_1x1 -> inception_3a/1x1 (in-place)
I0915 12:39:33.034639 11367 net.cpp:141] Setting up inception_3a/relu_1x1
I0915 12:39:33.034651 11367 net.cpp:148] Top shape: 10 64 28 28 (501760)
I0915 12:39:33.034656 11367 net.cpp:156] Memory required for data: 208732160
I0915 12:39:33.034659 11367 layer_factory.hpp:77] Creating layer inception_3a/3x3_reduce
I0915 12:39:33.034674 11367 net.cpp:91] Creating Layer inception_3a/3x3_reduce
I0915 12:39:33.034680 11367 net.cpp:425] inception_3a/3x3_reduce <- pool2/3x3_s2_pool2/3x3_s2_0_split_1
I0915 12:39:33.034696 11367 net.cpp:399] inception_3a/3x3_reduce -> inception_3a/3x3_reduce
I0915 12:39:33.037026 11367 net.cpp:141] Setting up inception_3a/3x3_reduce
I0915 12:39:33.037042 11367 net.cpp:148] Top shape: 10 96 28 28 (752640)
I0915 12:39:33.037052 11367 net.cpp:156] Memory required for data: 211742720
I0915 12:39:33.037065 11367 layer_factory.hpp:77] Creating layer inception_3a/relu_3x3_reduce
I0915 12:39:33.037073 11367 net.cpp:91] Creating Layer inception_3a/relu_3x3_reduce
I0915 12:39:33.037078 11367 net.cpp:425] inception_3a/relu_3x3_reduce <- inception_3a/3x3_reduce
I0915 12:39:33.037089 11367 net.cpp:386] inception_3a/relu_3x3_reduce -> inception_3a/3x3_reduce (in-place)
I0915 12:39:33.037336 11367 net.cpp:141] Setting up inception_3a/relu_3x3_reduce
I0915 12:39:33.037349 11367 net.cpp:148] Top shape: 10 96 28 28 (752640)
I0915 12:39:33.037353 11367 net.cpp:156] Memory required for data: 214753280
I0915 12:39:33.037358 11367 layer_factory.hpp:77] Creating layer inception_3a/3x3
I0915 12:39:33.037374 11367 net.cpp:91] Creating Layer inception_3a/3x3
I0915 12:39:33.037379 11367 net.cpp:425] inception_3a/3x3 <- inception_3a/3x3_reduce
I0915 12:39:33.037389 11367 net.cpp:399] inception_3a/3x3 -> inception_3a/3x3
I0915 12:39:33.039423 11367 net.cpp:141] Setting up inception_3a/3x3
I0915 12:39:33.039438 11367 net.cpp:148] Top shape: 10 128 28 28 (1003520)
I0915 12:39:33.039443 11367 net.cpp:156] Memory required for data: 218767360
I0915 12:39:33.039450 11367 layer_factory.hpp:77] Creating layer inception_3a/relu_3x3
I0915 12:39:33.039463 11367 net.cpp:91] Creating Layer inception_3a/relu_3x3
I0915 12:39:33.039469 11367 net.cpp:425] inception_3a/relu_3x3 <- inception_3a/3x3
I0915 12:39:33.039474 11367 net.cpp:386] inception_3a/relu_3x3 -> inception_3a/3x3 (in-place)
I0915 12:39:33.039862 11367 net.cpp:141] Setting up inception_3a/relu_3x3
I0915 12:39:33.039875 11367 net.cpp:148] Top shape: 10 128 28 28 (1003520)
I0915 12:39:33.039878 11367 net.cpp:156] Memory required for data: 222781440
I0915 12:39:33.039883 11367 layer_factory.hpp:77] Creating layer inception_3a/5x5_reduce
I0915 12:39:33.039901 11367 net.cpp:91] Creating Layer inception_3a/5x5_reduce
I0915 12:39:33.039907 11367 net.cpp:425] inception_3a/5x5_reduce <- pool2/3x3_s2_pool2/3x3_s2_0_split_2
I0915 12:39:33.039916 11367 net.cpp:399] inception_3a/5x5_reduce -> inception_3a/5x5_reduce
I0915 12:39:33.041123 11367 net.cpp:141] Setting up inception_3a/5x5_reduce
I0915 12:39:33.041138 11367 net.cpp:148] Top shape: 10 16 28 28 (125440)
I0915 12:39:33.041143 11367 net.cpp:156] Memory required for data: 223283200
I0915 12:39:33.041152 11367 layer_factory.hpp:77] Creating layer inception_3a/relu_5x5_reduce
I0915 12:39:33.041162 11367 net.cpp:91] Creating Layer inception_3a/relu_5x5_reduce
I0915 12:39:33.041169 11367 net.cpp:425] inception_3a/relu_5x5_reduce <- inception_3a/5x5_reduce
I0915 12:39:33.041178 11367 net.cpp:386] inception_3a/relu_5x5_reduce -> inception_3a/5x5_reduce (in-place)
I0915 12:39:33.041550 11367 net.cpp:141] Setting up inception_3a/relu_5x5_reduce
I0915 12:39:33.041563 11367 net.cpp:148] Top shape: 10 16 28 28 (125440)
I0915 12:39:33.041566 11367 net.cpp:156] Memory required for data: 223784960
I0915 12:39:33.041571 11367 layer_factory.hpp:77] Creating layer inception_3a/5x5
I0915 12:39:33.041585 11367 net.cpp:91] Creating Layer inception_3a/5x5
I0915 12:39:33.041590 11367 net.cpp:425] inception_3a/5x5 <- inception_3a/5x5_reduce
I0915 12:39:33.041602 11367 net.cpp:399] inception_3a/5x5 -> inception_3a/5x5
I0915 12:39:33.043536 11367 net.cpp:141] Setting up inception_3a/5x5
I0915 12:39:33.043552 11367 net.cpp:148] Top shape: 10 32 28 28 (250880)
I0915 12:39:33.043557 11367 net.cpp:156] Memory required for data: 224788480
I0915 12:39:33.043566 11367 layer_factory.hpp:77] Creating layer inception_3a/relu_5x5
I0915 12:39:33.043577 11367 net.cpp:91] Creating Layer inception_3a/relu_5x5
I0915 12:39:33.043583 11367 net.cpp:425] inception_3a/relu_5x5 <- inception_3a/5x5
I0915 12:39:33.043589 11367 net.cpp:386] inception_3a/relu_5x5 -> inception_3a/5x5 (in-place)
I0915 12:39:33.043817 11367 net.cpp:141] Setting up inception_3a/relu_5x5
I0915 12:39:33.043828 11367 net.cpp:148] Top shape: 10 32 28 28 (250880)
I0915 12:39:33.043833 11367 net.cpp:156] Memory required for data: 225792000
I0915 12:39:33.043838 11367 layer_factory.hpp:77] Creating layer inception_3a/pool
I0915 12:39:33.043850 11367 net.cpp:91] Creating Layer inception_3a/pool
I0915 12:39:33.043855 11367 net.cpp:425] inception_3a/pool <- pool2/3x3_s2_pool2/3x3_s2_0_split_3
I0915 12:39:33.043864 11367 net.cpp:399] inception_3a/pool -> inception_3a/pool
I0915 12:39:33.043920 11367 net.cpp:141] Setting up inception_3a/pool
I0915 12:39:33.043929 11367 net.cpp:148] Top shape: 10 192 28 28 (1505280)
I0915 12:39:33.043933 11367 net.cpp:156] Memory required for data: 231813120
I0915 12:39:33.043937 11367 layer_factory.hpp:77] Creating layer inception_3a/pool_proj
I0915 12:39:33.043951 11367 net.cpp:91] Creating Layer inception_3a/pool_proj
I0915 12:39:33.043956 11367 net.cpp:425] inception_3a/pool_proj <- inception_3a/pool
I0915 12:39:33.043967 11367 net.cpp:399] inception_3a/pool_proj -> inception_3a/pool_proj
I0915 12:39:33.045636 11367 net.cpp:141] Setting up inception_3a/pool_proj
I0915 12:39:33.045675 11367 net.cpp:148] Top shape: 10 32 28 28 (250880)
I0915 12:39:33.045681 11367 net.cpp:156] Memory required for data: 232816640
I0915 12:39:33.045702 11367 layer_factory.hpp:77] Creating layer inception_3a/relu_pool_proj
I0915 12:39:33.045722 11367 net.cpp:91] Creating Layer inception_3a/relu_pool_proj
I0915 12:39:33.045730 11367 net.cpp:425] inception_3a/relu_pool_proj <- inception_3a/pool_proj
I0915 12:39:33.045739 11367 net.cpp:386] inception_3a/relu_pool_proj -> inception_3a/pool_proj (in-place)
I0915 12:39:33.046180 11367 net.cpp:141] Setting up inception_3a/relu_pool_proj
I0915 12:39:33.046192 11367 net.cpp:148] Top shape: 10 32 28 28 (250880)
I0915 12:39:33.046197 11367 net.cpp:156] Memory required for data: 233820160
I0915 12:39:33.046202 11367 layer_factory.hpp:77] Creating layer inception_3a/output
I0915 12:39:33.046226 11367 net.cpp:91] Creating Layer inception_3a/output
I0915 12:39:33.046231 11367 net.cpp:425] inception_3a/output <- inception_3a/1x1
I0915 12:39:33.046238 11367 net.cpp:425] inception_3a/output <- inception_3a/3x3
I0915 12:39:33.046243 11367 net.cpp:425] inception_3a/output <- inception_3a/5x5
I0915 12:39:33.046248 11367 net.cpp:425] inception_3a/output <- inception_3a/pool_proj
I0915 12:39:33.046254 11367 net.cpp:399] inception_3a/output -> inception_3a/output
I0915 12:39:33.046301 11367 net.cpp:141] Setting up inception_3a/output
I0915 12:39:33.046310 11367 net.cpp:148] Top shape: 10 256 28 28 (2007040)
I0915 12:39:33.046314 11367 net.cpp:156] Memory required for data: 241848320
I0915 12:39:33.046319 11367 layer_factory.hpp:77] Creating layer inception_3a/output_inception_3a/output_0_split
I0915 12:39:33.046329 11367 net.cpp:91] Creating Layer inception_3a/output_inception_3a/output_0_split
I0915 12:39:33.046332 11367 net.cpp:425] inception_3a/output_inception_3a/output_0_split <- inception_3a/output
I0915 12:39:33.046344 11367 net.cpp:399] inception_3a/output_inception_3a/output_0_split -> inception_3a/output_inception_3a/output_0_split_0
I0915 12:39:33.046352 11367 net.cpp:399] inception_3a/output_inception_3a/output_0_split -> inception_3a/output_inception_3a/output_0_split_1
I0915 12:39:33.046360 11367 net.cpp:399] inception_3a/output_inception_3a/output_0_split -> inception_3a/output_inception_3a/output_0_split_2
I0915 12:39:33.046367 11367 net.cpp:399] inception_3a/output_inception_3a/output_0_split -> inception_3a/output_inception_3a/output_0_split_3
I0915 12:39:33.046445 11367 net.cpp:141] Setting up inception_3a/output_inception_3a/output_0_split
I0915 12:39:33.046458 11367 net.cpp:148] Top shape: 10 256 28 28 (2007040)
I0915 12:39:33.046463 11367 net.cpp:148] Top shape: 10 256 28 28 (2007040)
I0915 12:39:33.046468 11367 net.cpp:148] Top shape: 10 256 28 28 (2007040)
I0915 12:39:33.046473 11367 net.cpp:148] Top shape: 10 256 28 28 (2007040)
I0915 12:39:33.046478 11367 net.cpp:156] Memory required for data: 273960960
I0915 12:39:33.046481 11367 layer_factory.hpp:77] Creating layer inception_3b/1x1
I0915 12:39:33.046502 11367 net.cpp:91] Creating Layer inception_3b/1x1
I0915 12:39:33.046507 11367 net.cpp:425] inception_3b/1x1 <- inception_3a/output_inception_3a/output_0_split_0
I0915 12:39:33.046515 11367 net.cpp:399] inception_3b/1x1 -> inception_3b/1x1
I0915 12:39:33.047919 11367 net.cpp:141] Setting up inception_3b/1x1
I0915 12:39:33.047935 11367 net.cpp:148] Top shape: 10 128 28 28 (1003520)
I0915 12:39:33.047940 11367 net.cpp:156] Memory required for data: 277975040
I0915 12:39:33.047950 11367 layer_factory.hpp:77] Creating layer inception_3b/relu_1x1
I0915 12:39:33.047961 11367 net.cpp:91] Creating Layer inception_3b/relu_1x1
I0915 12:39:33.047967 11367 net.cpp:425] inception_3b/relu_1x1 <- inception_3b/1x1
I0915 12:39:33.047981 11367 net.cpp:386] inception_3b/relu_1x1 -> inception_3b/1x1 (in-place)
I0915 12:39:33.048365 11367 net.cpp:141] Setting up inception_3b/relu_1x1
I0915 12:39:33.048378 11367 net.cpp:148] Top shape: 10 128 28 28 (1003520)
I0915 12:39:33.048382 11367 net.cpp:156] Memory required for data: 281989120
I0915 12:39:33.048388 11367 layer_factory.hpp:77] Creating layer inception_3b/3x3_reduce
I0915 12:39:33.048403 11367 net.cpp:91] Creating Layer inception_3b/3x3_reduce
I0915 12:39:33.048408 11367 net.cpp:425] inception_3b/3x3_reduce <- inception_3a/output_inception_3a/output_0_split_1
I0915 12:39:33.048419 11367 net.cpp:399] inception_3b/3x3_reduce -> inception_3b/3x3_reduce
I0915 12:39:33.049996 11367 net.cpp:141] Setting up inception_3b/3x3_reduce
I0915 12:39:33.050012 11367 net.cpp:148] Top shape: 10 128 28 28 (1003520)
I0915 12:39:33.050017 11367 net.cpp:156] Memory required for data: 286003200
I0915 12:39:33.050025 11367 layer_factory.hpp:77] Creating layer inception_3b/relu_3x3_reduce
I0915 12:39:33.050036 11367 net.cpp:91] Creating Layer inception_3b/relu_3x3_reduce
I0915 12:39:33.050042 11367 net.cpp:425] inception_3b/relu_3x3_reduce <- inception_3b/3x3_reduce
I0915 12:39:33.050050 11367 net.cpp:386] inception_3b/relu_3x3_reduce -> inception_3b/3x3_reduce (in-place)
I0915 12:39:33.050272 11367 net.cpp:141] Setting up inception_3b/relu_3x3_reduce
I0915 12:39:33.050283 11367 net.cpp:148] Top shape: 10 128 28 28 (1003520)
I0915 12:39:33.050287 11367 net.cpp:156] Memory required for data: 290017280
I0915 12:39:33.050292 11367 layer_factory.hpp:77] Creating layer inception_3b/3x3
I0915 12:39:33.050307 11367 net.cpp:91] Creating Layer inception_3b/3x3
I0915 12:39:33.050312 11367 net.cpp:425] inception_3b/3x3 <- inception_3b/3x3_reduce
I0915 12:39:33.050323 11367 net.cpp:399] inception_3b/3x3 -> inception_3b/3x3
I0915 12:39:33.053979 11367 net.cpp:141] Setting up inception_3b/3x3
I0915 12:39:33.053997 11367 net.cpp:148] Top shape: 10 192 28 28 (1505280)
I0915 12:39:33.054002 11367 net.cpp:156] Memory required for data: 296038400
I0915 12:39:33.054009 11367 layer_factory.hpp:77] Creating layer inception_3b/relu_3x3
I0915 12:39:33.054028 11367 net.cpp:91] Creating Layer inception_3b/relu_3x3
I0915 12:39:33.054033 11367 net.cpp:425] inception_3b/relu_3x3 <- inception_3b/3x3
I0915 12:39:33.054044 11367 net.cpp:386] inception_3b/relu_3x3 -> inception_3b/3x3 (in-place)
I0915 12:39:33.054431 11367 net.cpp:141] Setting up inception_3b/relu_3x3
I0915 12:39:33.054443 11367 net.cpp:148] Top shape: 10 192 28 28 (1505280)
I0915 12:39:33.054448 11367 net.cpp:156] Memory required for data: 302059520
I0915 12:39:33.054452 11367 layer_factory.hpp:77] Creating layer inception_3b/5x5_reduce
I0915 12:39:33.054467 11367 net.cpp:91] Creating Layer inception_3b/5x5_reduce
I0915 12:39:33.054473 11367 net.cpp:425] inception_3b/5x5_reduce <- inception_3a/output_inception_3a/output_0_split_2
I0915 12:39:33.054481 11367 net.cpp:399] inception_3b/5x5_reduce -> inception_3b/5x5_reduce
I0915 12:39:33.055733 11367 net.cpp:141] Setting up inception_3b/5x5_reduce
I0915 12:39:33.055750 11367 net.cpp:148] Top shape: 10 32 28 28 (250880)
I0915 12:39:33.055755 11367 net.cpp:156] Memory required for data: 303063040
I0915 12:39:33.055763 11367 layer_factory.hpp:77] Creating layer inception_3b/relu_5x5_reduce
I0915 12:39:33.055771 11367 net.cpp:91] Creating Layer inception_3b/relu_5x5_reduce
I0915 12:39:33.055778 11367 net.cpp:425] inception_3b/relu_5x5_reduce <- inception_3b/5x5_reduce
I0915 12:39:33.055786 11367 net.cpp:386] inception_3b/relu_5x5_reduce -> inception_3b/5x5_reduce (in-place)
I0915 12:39:33.056180 11367 net.cpp:141] Setting up inception_3b/relu_5x5_reduce
I0915 12:39:33.056193 11367 net.cpp:148] Top shape: 10 32 28 28 (250880)
I0915 12:39:33.056198 11367 net.cpp:156] Memory required for data: 304066560
I0915 12:39:33.056203 11367 layer_factory.hpp:77] Creating layer inception_3b/5x5
I0915 12:39:33.056221 11367 net.cpp:91] Creating Layer inception_3b/5x5
I0915 12:39:33.056226 11367 net.cpp:425] inception_3b/5x5 <- inception_3b/5x5_reduce
I0915 12:39:33.056238 11367 net.cpp:399] inception_3b/5x5 -> inception_3b/5x5
I0915 12:39:33.058816 11367 net.cpp:141] Setting up inception_3b/5x5
I0915 12:39:33.058833 11367 net.cpp:148] Top shape: 10 96 28 28 (752640)
I0915 12:39:33.058838 11367 net.cpp:156] Memory required for data: 307077120
I0915 12:39:33.058846 11367 layer_factory.hpp:77] Creating layer inception_3b/relu_5x5
I0915 12:39:33.058858 11367 net.cpp:91] Creating Layer inception_3b/relu_5x5
I0915 12:39:33.058864 11367 net.cpp:425] inception_3b/relu_5x5 <- inception_3b/5x5
I0915 12:39:33.058873 11367 net.cpp:386] inception_3b/relu_5x5 -> inception_3b/5x5 (in-place)
I0915 12:39:33.059094 11367 net.cpp:141] Setting up inception_3b/relu_5x5
I0915 12:39:33.059105 11367 net.cpp:148] Top shape: 10 96 28 28 (752640)
I0915 12:39:33.059109 11367 net.cpp:156] Memory required for data: 310087680
I0915 12:39:33.059114 11367 layer_factory.hpp:77] Creating layer inception_3b/pool
I0915 12:39:33.059128 11367 net.cpp:91] Creating Layer inception_3b/pool
I0915 12:39:33.059132 11367 net.cpp:425] inception_3b/pool <- inception_3a/output_inception_3a/output_0_split_3
I0915 12:39:33.059139 11367 net.cpp:399] inception_3b/pool -> inception_3b/pool
I0915 12:39:33.059198 11367 net.cpp:141] Setting up inception_3b/pool
I0915 12:39:33.059207 11367 net.cpp:148] Top shape: 10 256 28 28 (2007040)
I0915 12:39:33.059212 11367 net.cpp:156] Memory required for data: 318115840
I0915 12:39:33.059216 11367 layer_factory.hpp:77] Creating layer inception_3b/pool_proj
I0915 12:39:33.059231 11367 net.cpp:91] Creating Layer inception_3b/pool_proj
I0915 12:39:33.059237 11367 net.cpp:425] inception_3b/pool_proj <- inception_3b/pool
I0915 12:39:33.059247 11367 net.cpp:399] inception_3b/pool_proj -> inception_3b/pool_proj
I0915 12:39:33.060731 11367 net.cpp:141] Setting up inception_3b/pool_proj
I0915 12:39:33.060748 11367 net.cpp:148] Top shape: 10 64 28 28 (501760)
I0915 12:39:33.060753 11367 net.cpp:156] Memory required for data: 320122880
I0915 12:39:33.060761 11367 layer_factory.hpp:77] Creating layer inception_3b/relu_pool_proj
I0915 12:39:33.060772 11367 net.cpp:91] Creating Layer inception_3b/relu_pool_proj
I0915 12:39:33.060778 11367 net.cpp:425] inception_3b/relu_pool_proj <- inception_3b/pool_proj
I0915 12:39:33.060786 11367 net.cpp:386] inception_3b/relu_pool_proj -> inception_3b/pool_proj (in-place)
I0915 12:39:33.061170 11367 net.cpp:141] Setting up inception_3b/relu_pool_proj
I0915 12:39:33.061182 11367 net.cpp:148] Top shape: 10 64 28 28 (501760)
I0915 12:39:33.061187 11367 net.cpp:156] Memory required for data: 322129920
I0915 12:39:33.061192 11367 layer_factory.hpp:77] Creating layer inception_3b/output
I0915 12:39:33.061203 11367 net.cpp:91] Creating Layer inception_3b/output
I0915 12:39:33.061208 11367 net.cpp:425] inception_3b/output <- inception_3b/1x1
I0915 12:39:33.061213 11367 net.cpp:425] inception_3b/output <- inception_3b/3x3
I0915 12:39:33.061218 11367 net.cpp:425] inception_3b/output <- inception_3b/5x5
I0915 12:39:33.061223 11367 net.cpp:425] inception_3b/output <- inception_3b/pool_proj
I0915 12:39:33.061229 11367 net.cpp:399] inception_3b/output -> inception_3b/output
I0915 12:39:33.061269 11367 net.cpp:141] Setting up inception_3b/output
I0915 12:39:33.061278 11367 net.cpp:148] Top shape: 10 480 28 28 (3763200)
I0915 12:39:33.061282 11367 net.cpp:156] Memory required for data: 337182720
I0915 12:39:33.061286 11367 layer_factory.hpp:77] Creating layer pool3/3x3_s2
I0915 12:39:33.061295 11367 net.cpp:91] Creating Layer pool3/3x3_s2
I0915 12:39:33.061300 11367 net.cpp:425] pool3/3x3_s2 <- inception_3b/output
I0915 12:39:33.061308 11367 net.cpp:399] pool3/3x3_s2 -> pool3/3x3_s2
I0915 12:39:33.061367 11367 net.cpp:141] Setting up pool3/3x3_s2
I0915 12:39:33.061375 11367 net.cpp:148] Top shape: 10 480 14 14 (940800)
I0915 12:39:33.061379 11367 net.cpp:156] Memory required for data: 340945920
I0915 12:39:33.061384 11367 layer_factory.hpp:77] Creating layer pool3/3x3_s2_pool3/3x3_s2_0_split
I0915 12:39:33.061393 11367 net.cpp:91] Creating Layer pool3/3x3_s2_pool3/3x3_s2_0_split
I0915 12:39:33.061398 11367 net.cpp:425] pool3/3x3_s2_pool3/3x3_s2_0_split <- pool3/3x3_s2
I0915 12:39:33.061406 11367 net.cpp:399] pool3/3x3_s2_pool3/3x3_s2_0_split -> pool3/3x3_s2_pool3/3x3_s2_0_split_0
I0915 12:39:33.061415 11367 net.cpp:399] pool3/3x3_s2_pool3/3x3_s2_0_split -> pool3/3x3_s2_pool3/3x3_s2_0_split_1
I0915 12:39:33.061422 11367 net.cpp:399] pool3/3x3_s2_pool3/3x3_s2_0_split -> pool3/3x3_s2_pool3/3x3_s2_0_split_2
I0915 12:39:33.061429 11367 net.cpp:399] pool3/3x3_s2_pool3/3x3_s2_0_split -> pool3/3x3_s2_pool3/3x3_s2_0_split_3
I0915 12:39:33.061504 11367 net.cpp:141] Setting up pool3/3x3_s2_pool3/3x3_s2_0_split
I0915 12:39:33.061513 11367 net.cpp:148] Top shape: 10 480 14 14 (940800)
I0915 12:39:33.061518 11367 net.cpp:148] Top shape: 10 480 14 14 (940800)
I0915 12:39:33.061523 11367 net.cpp:148] Top shape: 10 480 14 14 (940800)
I0915 12:39:33.061528 11367 net.cpp:148] Top shape: 10 480 14 14 (940800)
I0915 12:39:33.061532 11367 net.cpp:156] Memory required for data: 355998720
I0915 12:39:33.061537 11367 layer_factory.hpp:77] Creating layer inception_4a/1x1
I0915 12:39:33.061553 11367 net.cpp:91] Creating Layer inception_4a/1x1
I0915 12:39:33.061559 11367 net.cpp:425] inception_4a/1x1 <- pool3/3x3_s2_pool3/3x3_s2_0_split_0
I0915 12:39:33.061568 11367 net.cpp:399] inception_4a/1x1 -> inception_4a/1x1
I0915 12:39:33.063663 11367 net.cpp:141] Setting up inception_4a/1x1
I0915 12:39:33.063683 11367 net.cpp:148] Top shape: 10 192 14 14 (376320)
I0915 12:39:33.063688 11367 net.cpp:156] Memory required for data: 357504000
I0915 12:39:33.063696 11367 layer_factory.hpp:77] Creating layer inception_4a/relu_1x1
I0915 12:39:33.063704 11367 net.cpp:91] Creating Layer inception_4a/relu_1x1
I0915 12:39:33.063710 11367 net.cpp:425] inception_4a/relu_1x1 <- inception_4a/1x1
I0915 12:39:33.063717 11367 net.cpp:386] inception_4a/relu_1x1 -> inception_4a/1x1 (in-place)
I0915 12:39:33.064111 11367 net.cpp:141] Setting up inception_4a/relu_1x1
I0915 12:39:33.064123 11367 net.cpp:148] Top shape: 10 192 14 14 (376320)
I0915 12:39:33.064128 11367 net.cpp:156] Memory required for data: 359009280
I0915 12:39:33.064133 11367 layer_factory.hpp:77] Creating layer inception_4a/3x3_reduce
I0915 12:39:33.064149 11367 net.cpp:91] Creating Layer inception_4a/3x3_reduce
I0915 12:39:33.064155 11367 net.cpp:425] inception_4a/3x3_reduce <- pool3/3x3_s2_pool3/3x3_s2_0_split_1
I0915 12:39:33.064167 11367 net.cpp:399] inception_4a/3x3_reduce -> inception_4a/3x3_reduce
I0915 12:39:33.066459 11367 net.cpp:141] Setting up inception_4a/3x3_reduce
I0915 12:39:33.066478 11367 net.cpp:148] Top shape: 10 96 14 14 (188160)
I0915 12:39:33.066484 11367 net.cpp:156] Memory required for data: 359761920
I0915 12:39:33.066510 11367 layer_factory.hpp:77] Creating layer inception_4a/relu_3x3_reduce
I0915 12:39:33.066524 11367 net.cpp:91] Creating Layer inception_4a/relu_3x3_reduce
I0915 12:39:33.066532 11367 net.cpp:425] inception_4a/relu_3x3_reduce <- inception_4a/3x3_reduce
I0915 12:39:33.066542 11367 net.cpp:386] inception_4a/relu_3x3_reduce -> inception_4a/3x3_reduce (in-place)
I0915 12:39:33.066833 11367 net.cpp:141] Setting up inception_4a/relu_3x3_reduce
I0915 12:39:33.066846 11367 net.cpp:148] Top shape: 10 96 14 14 (188160)
I0915 12:39:33.066854 11367 net.cpp:156] Memory required for data: 360514560
I0915 12:39:33.066860 11367 layer_factory.hpp:77] Creating layer inception_4a/3x3
I0915 12:39:33.066884 11367 net.cpp:91] Creating Layer inception_4a/3x3
I0915 12:39:33.066892 11367 net.cpp:425] inception_4a/3x3 <- inception_4a/3x3_reduce
I0915 12:39:33.066905 11367 net.cpp:399] inception_4a/3x3 -> inception_4a/3x3
I0915 12:39:33.070816 11367 net.cpp:141] Setting up inception_4a/3x3
I0915 12:39:33.070832 11367 net.cpp:148] Top shape: 10 208 14 14 (407680)
I0915 12:39:33.070837 11367 net.cpp:156] Memory required for data: 362145280
I0915 12:39:33.070844 11367 layer_factory.hpp:77] Creating layer inception_4a/relu_3x3
I0915 12:39:33.070857 11367 net.cpp:91] Creating Layer inception_4a/relu_3x3
I0915 12:39:33.070863 11367 net.cpp:425] inception_4a/relu_3x3 <- inception_4a/3x3
I0915 12:39:33.070869 11367 net.cpp:386] inception_4a/relu_3x3 -> inception_4a/3x3 (in-place)
I0915 12:39:33.071267 11367 net.cpp:141] Setting up inception_4a/relu_3x3
I0915 12:39:33.071280 11367 net.cpp:148] Top shape: 10 208 14 14 (407680)
I0915 12:39:33.071285 11367 net.cpp:156] Memory required for data: 363776000
I0915 12:39:33.071290 11367 layer_factory.hpp:77] Creating layer inception_4a/5x5_reduce
I0915 12:39:33.071307 11367 net.cpp:91] Creating Layer inception_4a/5x5_reduce
I0915 12:39:33.071313 11367 net.cpp:425] inception_4a/5x5_reduce <- pool3/3x3_s2_pool3/3x3_s2_0_split_2
I0915 12:39:33.071321 11367 net.cpp:399] inception_4a/5x5_reduce -> inception_4a/5x5_reduce
I0915 12:39:33.072616 11367 net.cpp:141] Setting up inception_4a/5x5_reduce
I0915 12:39:33.072633 11367 net.cpp:148] Top shape: 10 16 14 14 (31360)
I0915 12:39:33.072638 11367 net.cpp:156] Memory required for data: 363901440
I0915 12:39:33.072646 11367 layer_factory.hpp:77] Creating layer inception_4a/relu_5x5_reduce
I0915 12:39:33.072654 11367 net.cpp:91] Creating Layer inception_4a/relu_5x5_reduce
I0915 12:39:33.072660 11367 net.cpp:425] inception_4a/relu_5x5_reduce <- inception_4a/5x5_reduce
I0915 12:39:33.072669 11367 net.cpp:386] inception_4a/relu_5x5_reduce -> inception_4a/5x5_reduce (in-place)
I0915 12:39:33.073052 11367 net.cpp:141] Setting up inception_4a/relu_5x5_reduce
I0915 12:39:33.073065 11367 net.cpp:148] Top shape: 10 16 14 14 (31360)
I0915 12:39:33.073068 11367 net.cpp:156] Memory required for data: 364026880
I0915 12:39:33.073073 11367 layer_factory.hpp:77] Creating layer inception_4a/5x5
I0915 12:39:33.073088 11367 net.cpp:91] Creating Layer inception_4a/5x5
I0915 12:39:33.073093 11367 net.cpp:425] inception_4a/5x5 <- inception_4a/5x5_reduce
I0915 12:39:33.073106 11367 net.cpp:399] inception_4a/5x5 -> inception_4a/5x5
I0915 12:39:33.074615 11367 net.cpp:141] Setting up inception_4a/5x5
I0915 12:39:33.074630 11367 net.cpp:148] Top shape: 10 48 14 14 (94080)
I0915 12:39:33.074635 11367 net.cpp:156] Memory required for data: 364403200
I0915 12:39:33.074643 11367 layer_factory.hpp:77] Creating layer inception_4a/relu_5x5
I0915 12:39:33.074652 11367 net.cpp:91] Creating Layer inception_4a/relu_5x5
I0915 12:39:33.074657 11367 net.cpp:425] inception_4a/relu_5x5 <- inception_4a/5x5
I0915 12:39:33.074666 11367 net.cpp:386] inception_4a/relu_5x5 -> inception_4a/5x5 (in-place)
I0915 12:39:33.074892 11367 net.cpp:141] Setting up inception_4a/relu_5x5
I0915 12:39:33.074903 11367 net.cpp:148] Top shape: 10 48 14 14 (94080)
I0915 12:39:33.074908 11367 net.cpp:156] Memory required for data: 364779520
I0915 12:39:33.074913 11367 layer_factory.hpp:77] Creating layer inception_4a/pool
I0915 12:39:33.074924 11367 net.cpp:91] Creating Layer inception_4a/pool
I0915 12:39:33.074929 11367 net.cpp:425] inception_4a/pool <- pool3/3x3_s2_pool3/3x3_s2_0_split_3
I0915 12:39:33.074936 11367 net.cpp:399] inception_4a/pool -> inception_4a/pool
I0915 12:39:33.074996 11367 net.cpp:141] Setting up inception_4a/pool
I0915 12:39:33.075006 11367 net.cpp:148] Top shape: 10 480 14 14 (940800)
I0915 12:39:33.075009 11367 net.cpp:156] Memory required for data: 368542720
I0915 12:39:33.075014 11367 layer_factory.hpp:77] Creating layer inception_4a/pool_proj
I0915 12:39:33.075028 11367 net.cpp:91] Creating Layer inception_4a/pool_proj
I0915 12:39:33.075034 11367 net.cpp:425] inception_4a/pool_proj <- inception_4a/pool
I0915 12:39:33.075045 11367 net.cpp:399] inception_4a/pool_proj -> inception_4a/pool_proj
I0915 12:39:33.076674 11367 net.cpp:141] Setting up inception_4a/pool_proj
I0915 12:39:33.076691 11367 net.cpp:148] Top shape: 10 64 14 14 (125440)
I0915 12:39:33.076695 11367 net.cpp:156] Memory required for data: 369044480
I0915 12:39:33.076704 11367 layer_factory.hpp:77] Creating layer inception_4a/relu_pool_proj
I0915 12:39:33.076714 11367 net.cpp:91] Creating Layer inception_4a/relu_pool_proj
I0915 12:39:33.076719 11367 net.cpp:425] inception_4a/relu_pool_proj <- inception_4a/pool_proj
I0915 12:39:33.076730 11367 net.cpp:386] inception_4a/relu_pool_proj -> inception_4a/pool_proj (in-place)
I0915 12:39:33.077113 11367 net.cpp:141] Setting up inception_4a/relu_pool_proj
I0915 12:39:33.077126 11367 net.cpp:148] Top shape: 10 64 14 14 (125440)
I0915 12:39:33.077131 11367 net.cpp:156] Memory required for data: 369546240
I0915 12:39:33.077134 11367 layer_factory.hpp:77] Creating layer inception_4a/output
I0915 12:39:33.077142 11367 net.cpp:91] Creating Layer inception_4a/output
I0915 12:39:33.077147 11367 net.cpp:425] inception_4a/output <- inception_4a/1x1
I0915 12:39:33.077153 11367 net.cpp:425] inception_4a/output <- inception_4a/3x3
I0915 12:39:33.077158 11367 net.cpp:425] inception_4a/output <- inception_4a/5x5
I0915 12:39:33.077163 11367 net.cpp:425] inception_4a/output <- inception_4a/pool_proj
I0915 12:39:33.077173 11367 net.cpp:399] inception_4a/output -> inception_4a/output
I0915 12:39:33.077215 11367 net.cpp:141] Setting up inception_4a/output
I0915 12:39:33.077224 11367 net.cpp:148] Top shape: 10 512 14 14 (1003520)
I0915 12:39:33.077229 11367 net.cpp:156] Memory required for data: 373560320
I0915 12:39:33.077234 11367 layer_factory.hpp:77] Creating layer inception_4a/output_inception_4a/output_0_split
I0915 12:39:33.077241 11367 net.cpp:91] Creating Layer inception_4a/output_inception_4a/output_0_split
I0915 12:39:33.077246 11367 net.cpp:425] inception_4a/output_inception_4a/output_0_split <- inception_4a/output
I0915 12:39:33.077255 11367 net.cpp:399] inception_4a/output_inception_4a/output_0_split -> inception_4a/output_inception_4a/output_0_split_0
I0915 12:39:33.077265 11367 net.cpp:399] inception_4a/output_inception_4a/output_0_split -> inception_4a/output_inception_4a/output_0_split_1
I0915 12:39:33.077273 11367 net.cpp:399] inception_4a/output_inception_4a/output_0_split -> inception_4a/output_inception_4a/output_0_split_2
I0915 12:39:33.077280 11367 net.cpp:399] inception_4a/output_inception_4a/output_0_split -> inception_4a/output_inception_4a/output_0_split_3
I0915 12:39:33.077363 11367 net.cpp:141] Setting up inception_4a/output_inception_4a/output_0_split
I0915 12:39:33.077371 11367 net.cpp:148] Top shape: 10 512 14 14 (1003520)
I0915 12:39:33.077378 11367 net.cpp:148] Top shape: 10 512 14 14 (1003520)
I0915 12:39:33.077383 11367 net.cpp:148] Top shape: 10 512 14 14 (1003520)
I0915 12:39:33.077388 11367 net.cpp:148] Top shape: 10 512 14 14 (1003520)
I0915 12:39:33.077390 11367 net.cpp:156] Memory required for data: 389616640
I0915 12:39:33.077395 11367 layer_factory.hpp:77] Creating layer inception_4b/1x1
I0915 12:39:33.077411 11367 net.cpp:91] Creating Layer inception_4b/1x1
I0915 12:39:33.077416 11367 net.cpp:425] inception_4b/1x1 <- inception_4a/output_inception_4a/output_0_split_0
I0915 12:39:33.077425 11367 net.cpp:399] inception_4b/1x1 -> inception_4b/1x1
I0915 12:39:33.079213 11367 net.cpp:141] Setting up inception_4b/1x1
I0915 12:39:33.079241 11367 net.cpp:148] Top shape: 10 160 14 14 (313600)
I0915 12:39:33.079246 11367 net.cpp:156] Memory required for data: 390871040
I0915 12:39:33.079258 11367 layer_factory.hpp:77] Creating layer inception_4b/relu_1x1
I0915 12:39:33.079267 11367 net.cpp:91] Creating Layer inception_4b/relu_1x1
I0915 12:39:33.079273 11367 net.cpp:425] inception_4b/relu_1x1 <- inception_4b/1x1
I0915 12:39:33.079285 11367 net.cpp:386] inception_4b/relu_1x1 -> inception_4b/1x1 (in-place)
I0915 12:39:33.079673 11367 net.cpp:141] Setting up inception_4b/relu_1x1
I0915 12:39:33.079684 11367 net.cpp:148] Top shape: 10 160 14 14 (313600)
I0915 12:39:33.079689 11367 net.cpp:156] Memory required for data: 392125440
I0915 12:39:33.079692 11367 layer_factory.hpp:77] Creating layer inception_4b/3x3_reduce
I0915 12:39:33.079707 11367 net.cpp:91] Creating Layer inception_4b/3x3_reduce
I0915 12:39:33.079713 11367 net.cpp:425] inception_4b/3x3_reduce <- inception_4a/output_inception_4a/output_0_split_1
I0915 12:39:33.079725 11367 net.cpp:399] inception_4b/3x3_reduce -> inception_4b/3x3_reduce
I0915 12:39:33.081552 11367 net.cpp:141] Setting up inception_4b/3x3_reduce
I0915 12:39:33.081581 11367 net.cpp:148] Top shape: 10 112 14 14 (219520)
I0915 12:39:33.081586 11367 net.cpp:156] Memory required for data: 393003520
I0915 12:39:33.081594 11367 layer_factory.hpp:77] Creating layer inception_4b/relu_3x3_reduce
I0915 12:39:33.081605 11367 net.cpp:91] Creating Layer inception_4b/relu_3x3_reduce
I0915 12:39:33.081611 11367 net.cpp:425] inception_4b/relu_3x3_reduce <- inception_4b/3x3_reduce
I0915 12:39:33.081619 11367 net.cpp:386] inception_4b/relu_3x3_reduce -> inception_4b/3x3_reduce (in-place)
I0915 12:39:33.081845 11367 net.cpp:141] Setting up inception_4b/relu_3x3_reduce
I0915 12:39:33.081856 11367 net.cpp:148] Top shape: 10 112 14 14 (219520)
I0915 12:39:33.081861 11367 net.cpp:156] Memory required for data: 393881600
I0915 12:39:33.081864 11367 layer_factory.hpp:77] Creating layer inception_4b/3x3
I0915 12:39:33.081882 11367 net.cpp:91] Creating Layer inception_4b/3x3
I0915 12:39:33.081888 11367 net.cpp:425] inception_4b/3x3 <- inception_4b/3x3_reduce
I0915 12:39:33.081897 11367 net.cpp:399] inception_4b/3x3 -> inception_4b/3x3
I0915 12:39:33.085891 11367 net.cpp:141] Setting up inception_4b/3x3
I0915 12:39:33.085921 11367 net.cpp:148] Top shape: 10 224 14 14 (439040)
I0915 12:39:33.085927 11367 net.cpp:156] Memory required for data: 395637760
I0915 12:39:33.085934 11367 layer_factory.hpp:77] Creating layer inception_4b/relu_3x3
I0915 12:39:33.085942 11367 net.cpp:91] Creating Layer inception_4b/relu_3x3
I0915 12:39:33.085948 11367 net.cpp:425] inception_4b/relu_3x3 <- inception_4b/3x3
I0915 12:39:33.085958 11367 net.cpp:386] inception_4b/relu_3x3 -> inception_4b/3x3 (in-place)
I0915 12:39:33.086369 11367 net.cpp:141] Setting up inception_4b/relu_3x3
I0915 12:39:33.086380 11367 net.cpp:148] Top shape: 10 224 14 14 (439040)
I0915 12:39:33.086385 11367 net.cpp:156] Memory required for data: 397393920
I0915 12:39:33.086390 11367 layer_factory.hpp:77] Creating layer inception_4b/5x5_reduce
I0915 12:39:33.086416 11367 net.cpp:91] Creating Layer inception_4b/5x5_reduce
I0915 12:39:33.086422 11367 net.cpp:425] inception_4b/5x5_reduce <- inception_4a/output_inception_4a/output_0_split_2
I0915 12:39:33.086434 11367 net.cpp:399] inception_4b/5x5_reduce -> inception_4b/5x5_reduce
I0915 12:39:33.087800 11367 net.cpp:141] Setting up inception_4b/5x5_reduce
I0915 12:39:33.087816 11367 net.cpp:148] Top shape: 10 24 14 14 (47040)
I0915 12:39:33.087821 11367 net.cpp:156] Memory required for data: 397582080
I0915 12:39:33.087831 11367 layer_factory.hpp:77] Creating layer inception_4b/relu_5x5_reduce
I0915 12:39:33.087838 11367 net.cpp:91] Creating Layer inception_4b/relu_5x5_reduce
I0915 12:39:33.087844 11367 net.cpp:425] inception_4b/relu_5x5_reduce <- inception_4b/5x5_reduce
I0915 12:39:33.087851 11367 net.cpp:386] inception_4b/relu_5x5_reduce -> inception_4b/5x5_reduce (in-place)
I0915 12:39:33.088256 11367 net.cpp:141] Setting up inception_4b/relu_5x5_reduce
I0915 12:39:33.088269 11367 net.cpp:148] Top shape: 10 24 14 14 (47040)
I0915 12:39:33.088274 11367 net.cpp:156] Memory required for data: 397770240
I0915 12:39:33.088279 11367 layer_factory.hpp:77] Creating layer inception_4b/5x5
I0915 12:39:33.088297 11367 net.cpp:91] Creating Layer inception_4b/5x5
I0915 12:39:33.088304 11367 net.cpp:425] inception_4b/5x5 <- inception_4b/5x5_reduce
I0915 12:39:33.088315 11367 net.cpp:399] inception_4b/5x5 -> inception_4b/5x5
I0915 12:39:33.090646 11367 net.cpp:141] Setting up inception_4b/5x5
I0915 12:39:33.090663 11367 net.cpp:148] Top shape: 10 64 14 14 (125440)
I0915 12:39:33.090668 11367 net.cpp:156] Memory required for data: 398272000
I0915 12:39:33.090677 11367 layer_factory.hpp:77] Creating layer inception_4b/relu_5x5
I0915 12:39:33.090688 11367 net.cpp:91] Creating Layer inception_4b/relu_5x5
I0915 12:39:33.090693 11367 net.cpp:425] inception_4b/relu_5x5 <- inception_4b/5x5
I0915 12:39:33.090700 11367 net.cpp:386] inception_4b/relu_5x5 -> inception_4b/5x5 (in-place)
I0915 12:39:33.090930 11367 net.cpp:141] Setting up inception_4b/relu_5x5
I0915 12:39:33.090941 11367 net.cpp:148] Top shape: 10 64 14 14 (125440)
I0915 12:39:33.090945 11367 net.cpp:156] Memory required for data: 398773760
I0915 12:39:33.090950 11367 layer_factory.hpp:77] Creating layer inception_4b/pool
I0915 12:39:33.090962 11367 net.cpp:91] Creating Layer inception_4b/pool
I0915 12:39:33.090967 11367 net.cpp:425] inception_4b/pool <- inception_4a/output_inception_4a/output_0_split_3
I0915 12:39:33.090977 11367 net.cpp:399] inception_4b/pool -> inception_4b/pool
I0915 12:39:33.091039 11367 net.cpp:141] Setting up inception_4b/pool
I0915 12:39:33.091048 11367 net.cpp:148] Top shape: 10 512 14 14 (1003520)
I0915 12:39:33.091053 11367 net.cpp:156] Memory required for data: 402787840
I0915 12:39:33.091056 11367 layer_factory.hpp:77] Creating layer inception_4b/pool_proj
I0915 12:39:33.091070 11367 net.cpp:91] Creating Layer inception_4b/pool_proj
I0915 12:39:33.091076 11367 net.cpp:425] inception_4b/pool_proj <- inception_4b/pool
I0915 12:39:33.091087 11367 net.cpp:399] inception_4b/pool_proj -> inception_4b/pool_proj
I0915 12:39:33.092701 11367 net.cpp:141] Setting up inception_4b/pool_proj
I0915 12:39:33.092718 11367 net.cpp:148] Top shape: 10 64 14 14 (125440)
I0915 12:39:33.092723 11367 net.cpp:156] Memory required for data: 403289600
I0915 12:39:33.092732 11367 layer_factory.hpp:77] Creating layer inception_4b/relu_pool_proj
I0915 12:39:33.092741 11367 net.cpp:91] Creating Layer inception_4b/relu_pool_proj
I0915 12:39:33.092746 11367 net.cpp:425] inception_4b/relu_pool_proj <- inception_4b/pool_proj
I0915 12:39:33.092756 11367 net.cpp:386] inception_4b/relu_pool_proj -> inception_4b/pool_proj (in-place)
I0915 12:39:33.093154 11367 net.cpp:141] Setting up inception_4b/relu_pool_proj
I0915 12:39:33.093166 11367 net.cpp:148] Top shape: 10 64 14 14 (125440)
I0915 12:39:33.093170 11367 net.cpp:156] Memory required for data: 403791360
I0915 12:39:33.093175 11367 layer_factory.hpp:77] Creating layer inception_4b/output
I0915 12:39:33.093183 11367 net.cpp:91] Creating Layer inception_4b/output
I0915 12:39:33.093189 11367 net.cpp:425] inception_4b/output <- inception_4b/1x1
I0915 12:39:33.093194 11367 net.cpp:425] inception_4b/output <- inception_4b/3x3
I0915 12:39:33.093199 11367 net.cpp:425] inception_4b/output <- inception_4b/5x5
I0915 12:39:33.093204 11367 net.cpp:425] inception_4b/output <- inception_4b/pool_proj
I0915 12:39:33.093214 11367 net.cpp:399] inception_4b/output -> inception_4b/output
I0915 12:39:33.093256 11367 net.cpp:141] Setting up inception_4b/output
I0915 12:39:33.093266 11367 net.cpp:148] Top shape: 10 512 14 14 (1003520)
I0915 12:39:33.093269 11367 net.cpp:156] Memory required for data: 407805440
I0915 12:39:33.093274 11367 layer_factory.hpp:77] Creating layer inception_4b/output_inception_4b/output_0_split
I0915 12:39:33.093282 11367 net.cpp:91] Creating Layer inception_4b/output_inception_4b/output_0_split
I0915 12:39:33.093287 11367 net.cpp:425] inception_4b/output_inception_4b/output_0_split <- inception_4b/output
I0915 12:39:33.093293 11367 net.cpp:399] inception_4b/output_inception_4b/output_0_split -> inception_4b/output_inception_4b/output_0_split_0
I0915 12:39:33.093305 11367 net.cpp:399] inception_4b/output_inception_4b/output_0_split -> inception_4b/output_inception_4b/output_0_split_1
I0915 12:39:33.093313 11367 net.cpp:399] inception_4b/output_inception_4b/output_0_split -> inception_4b/output_inception_4b/output_0_split_2
I0915 12:39:33.093322 11367 net.cpp:399] inception_4b/output_inception_4b/output_0_split -> inception_4b/output_inception_4b/output_0_split_3
I0915 12:39:33.093407 11367 net.cpp:141] Setting up inception_4b/output_inception_4b/output_0_split
I0915 12:39:33.093416 11367 net.cpp:148] Top shape: 10 512 14 14 (1003520)
I0915 12:39:33.093421 11367 net.cpp:148] Top shape: 10 512 14 14 (1003520)
I0915 12:39:33.093426 11367 net.cpp:148] Top shape: 10 512 14 14 (1003520)
I0915 12:39:33.093431 11367 net.cpp:148] Top shape: 10 512 14 14 (1003520)
I0915 12:39:33.093436 11367 net.cpp:156] Memory required for data: 423861760
I0915 12:39:33.093439 11367 layer_factory.hpp:77] Creating layer inception_4c/1x1
I0915 12:39:33.093456 11367 net.cpp:91] Creating Layer inception_4c/1x1
I0915 12:39:33.093461 11367 net.cpp:425] inception_4c/1x1 <- inception_4b/output_inception_4b/output_0_split_0
I0915 12:39:33.093469 11367 net.cpp:399] inception_4c/1x1 -> inception_4c/1x1
I0915 12:39:33.095158 11367 net.cpp:141] Setting up inception_4c/1x1
I0915 12:39:33.095175 11367 net.cpp:148] Top shape: 10 128 14 14 (250880)
I0915 12:39:33.095180 11367 net.cpp:156] Memory required for data: 424865280
I0915 12:39:33.095187 11367 layer_factory.hpp:77] Creating layer inception_4c/relu_1x1
I0915 12:39:33.095196 11367 net.cpp:91] Creating Layer inception_4c/relu_1x1
I0915 12:39:33.095201 11367 net.cpp:425] inception_4c/relu_1x1 <- inception_4c/1x1
I0915 12:39:33.095207 11367 net.cpp:386] inception_4c/relu_1x1 -> inception_4c/1x1 (in-place)
I0915 12:39:33.095600 11367 net.cpp:141] Setting up inception_4c/relu_1x1
I0915 12:39:33.095613 11367 net.cpp:148] Top shape: 10 128 14 14 (250880)
I0915 12:39:33.095616 11367 net.cpp:156] Memory required for data: 425868800
I0915 12:39:33.095621 11367 layer_factory.hpp:77] Creating layer inception_4c/3x3_reduce
I0915 12:39:33.095638 11367 net.cpp:91] Creating Layer inception_4c/3x3_reduce
I0915 12:39:33.095643 11367 net.cpp:425] inception_4c/3x3_reduce <- inception_4b/output_inception_4b/output_0_split_1
I0915 12:39:33.095654 11367 net.cpp:399] inception_4c/3x3_reduce -> inception_4c/3x3_reduce
I0915 12:39:33.097586 11367 net.cpp:141] Setting up inception_4c/3x3_reduce
I0915 12:39:33.097604 11367 net.cpp:148] Top shape: 10 128 14 14 (250880)
I0915 12:39:33.097609 11367 net.cpp:156] Memory required for data: 426872320
I0915 12:39:33.097617 11367 layer_factory.hpp:77] Creating layer inception_4c/relu_3x3_reduce
I0915 12:39:33.097630 11367 net.cpp:91] Creating Layer inception_4c/relu_3x3_reduce
I0915 12:39:33.097635 11367 net.cpp:425] inception_4c/relu_3x3_reduce <- inception_4c/3x3_reduce
I0915 12:39:33.097642 11367 net.cpp:386] inception_4c/relu_3x3_reduce -> inception_4c/3x3_reduce (in-place)
I0915 12:39:33.097873 11367 net.cpp:141] Setting up inception_4c/relu_3x3_reduce
I0915 12:39:33.097884 11367 net.cpp:148] Top shape: 10 128 14 14 (250880)
I0915 12:39:33.097888 11367 net.cpp:156] Memory required for data: 427875840
I0915 12:39:33.097893 11367 layer_factory.hpp:77] Creating layer inception_4c/3x3
I0915 12:39:33.097909 11367 net.cpp:91] Creating Layer inception_4c/3x3
I0915 12:39:33.097914 11367 net.cpp:425] inception_4c/3x3 <- inception_4c/3x3_reduce
I0915 12:39:33.097925 11367 net.cpp:399] inception_4c/3x3 -> inception_4c/3x3
I0915 12:39:33.102224 11367 net.cpp:141] Setting up inception_4c/3x3
I0915 12:39:33.102241 11367 net.cpp:148] Top shape: 10 256 14 14 (501760)
I0915 12:39:33.102258 11367 net.cpp:156] Memory required for data: 429882880
I0915 12:39:33.102267 11367 layer_factory.hpp:77] Creating layer inception_4c/relu_3x3
I0915 12:39:33.102278 11367 net.cpp:91] Creating Layer inception_4c/relu_3x3
I0915 12:39:33.102283 11367 net.cpp:425] inception_4c/relu_3x3 <- inception_4c/3x3
I0915 12:39:33.102290 11367 net.cpp:386] inception_4c/relu_3x3 -> inception_4c/3x3 (in-place)
I0915 12:39:33.102696 11367 net.cpp:141] Setting up inception_4c/relu_3x3
I0915 12:39:33.102708 11367 net.cpp:148] Top shape: 10 256 14 14 (501760)
I0915 12:39:33.102715 11367 net.cpp:156] Memory required for data: 431889920
I0915 12:39:33.102720 11367 layer_factory.hpp:77] Creating layer inception_4c/5x5_reduce
I0915 12:39:33.102732 11367 net.cpp:91] Creating Layer inception_4c/5x5_reduce
I0915 12:39:33.102737 11367 net.cpp:425] inception_4c/5x5_reduce <- inception_4b/output_inception_4b/output_0_split_2
I0915 12:39:33.102749 11367 net.cpp:399] inception_4c/5x5_reduce -> inception_4c/5x5_reduce
I0915 12:39:33.104161 11367 net.cpp:141] Setting up inception_4c/5x5_reduce
I0915 12:39:33.104177 11367 net.cpp:148] Top shape: 10 24 14 14 (47040)
I0915 12:39:33.104182 11367 net.cpp:156] Memory required for data: 432078080
I0915 12:39:33.104190 11367 layer_factory.hpp:77] Creating layer inception_4c/relu_5x5_reduce
I0915 12:39:33.104198 11367 net.cpp:91] Creating Layer inception_4c/relu_5x5_reduce
I0915 12:39:33.104204 11367 net.cpp:425] inception_4c/relu_5x5_reduce <- inception_4c/5x5_reduce
I0915 12:39:33.104214 11367 net.cpp:386] inception_4c/relu_5x5_reduce -> inception_4c/5x5_reduce (in-place)
I0915 12:39:33.104609 11367 net.cpp:141] Setting up inception_4c/relu_5x5_reduce
I0915 12:39:33.104620 11367 net.cpp:148] Top shape: 10 24 14 14 (47040)
I0915 12:39:33.104624 11367 net.cpp:156] Memory required for data: 432266240
I0915 12:39:33.104629 11367 layer_factory.hpp:77] Creating layer inception_4c/5x5
I0915 12:39:33.104645 11367 net.cpp:91] Creating Layer inception_4c/5x5
I0915 12:39:33.104651 11367 net.cpp:425] inception_4c/5x5 <- inception_4c/5x5_reduce
I0915 12:39:33.104661 11367 net.cpp:399] inception_4c/5x5 -> inception_4c/5x5
I0915 12:39:33.106612 11367 net.cpp:141] Setting up inception_4c/5x5
I0915 12:39:33.106629 11367 net.cpp:148] Top shape: 10 64 14 14 (125440)
I0915 12:39:33.106633 11367 net.cpp:156] Memory required for data: 432768000
I0915 12:39:33.106642 11367 layer_factory.hpp:77] Creating layer inception_4c/relu_5x5
I0915 12:39:33.106650 11367 net.cpp:91] Creating Layer inception_4c/relu_5x5
I0915 12:39:33.106657 11367 net.cpp:425] inception_4c/relu_5x5 <- inception_4c/5x5
I0915 12:39:33.106665 11367 net.cpp:386] inception_4c/relu_5x5 -> inception_4c/5x5 (in-place)
I0915 12:39:33.106897 11367 net.cpp:141] Setting up inception_4c/relu_5x5
I0915 12:39:33.106909 11367 net.cpp:148] Top shape: 10 64 14 14 (125440)
I0915 12:39:33.106912 11367 net.cpp:156] Memory required for data: 433269760
I0915 12:39:33.106917 11367 layer_factory.hpp:77] Creating layer inception_4c/pool
I0915 12:39:33.106930 11367 net.cpp:91] Creating Layer inception_4c/pool
I0915 12:39:33.106935 11367 net.cpp:425] inception_4c/pool <- inception_4b/output_inception_4b/output_0_split_3
I0915 12:39:33.106942 11367 net.cpp:399] inception_4c/pool -> inception_4c/pool
I0915 12:39:33.107009 11367 net.cpp:141] Setting up inception_4c/pool
I0915 12:39:33.107018 11367 net.cpp:148] Top shape: 10 512 14 14 (1003520)
I0915 12:39:33.107023 11367 net.cpp:156] Memory required for data: 437283840
I0915 12:39:33.107026 11367 layer_factory.hpp:77] Creating layer inception_4c/pool_proj
I0915 12:39:33.107041 11367 net.cpp:91] Creating Layer inception_4c/pool_proj
I0915 12:39:33.107046 11367 net.cpp:425] inception_4c/pool_proj <- inception_4c/pool
I0915 12:39:33.107058 11367 net.cpp:399] inception_4c/pool_proj -> inception_4c/pool_proj
I0915 12:39:33.109391 11367 net.cpp:141] Setting up inception_4c/pool_proj
I0915 12:39:33.109408 11367 net.cpp:148] Top shape: 10 64 14 14 (125440)
I0915 12:39:33.109413 11367 net.cpp:156] Memory required for data: 437785600
I0915 12:39:33.109439 11367 layer_factory.hpp:77] Creating layer inception_4c/relu_pool_proj
I0915 12:39:33.109449 11367 net.cpp:91] Creating Layer inception_4c/relu_pool_proj
I0915 12:39:33.109455 11367 net.cpp:425] inception_4c/relu_pool_proj <- inception_4c/pool_proj
I0915 12:39:33.109462 11367 net.cpp:386] inception_4c/relu_pool_proj -> inception_4c/pool_proj (in-place)
I0915 12:39:33.109864 11367 net.cpp:141] Setting up inception_4c/relu_pool_proj
I0915 12:39:33.109876 11367 net.cpp:148] Top shape: 10 64 14 14 (125440)
I0915 12:39:33.109880 11367 net.cpp:156] Memory required for data: 438287360
I0915 12:39:33.109885 11367 layer_factory.hpp:77] Creating layer inception_4c/output
I0915 12:39:33.109894 11367 net.cpp:91] Creating Layer inception_4c/output
I0915 12:39:33.109899 11367 net.cpp:425] inception_4c/output <- inception_4c/1x1
I0915 12:39:33.109905 11367 net.cpp:425] inception_4c/output <- inception_4c/3x3
I0915 12:39:33.109910 11367 net.cpp:425] inception_4c/output <- inception_4c/5x5
I0915 12:39:33.109915 11367 net.cpp:425] inception_4c/output <- inception_4c/pool_proj
I0915 12:39:33.109925 11367 net.cpp:399] inception_4c/output -> inception_4c/output
I0915 12:39:33.109966 11367 net.cpp:141] Setting up inception_4c/output
I0915 12:39:33.109979 11367 net.cpp:148] Top shape: 10 512 14 14 (1003520)
I0915 12:39:33.109983 11367 net.cpp:156] Memory required for data: 442301440
I0915 12:39:33.109987 11367 layer_factory.hpp:77] Creating layer inception_4c/output_inception_4c/output_0_split
I0915 12:39:33.109995 11367 net.cpp:91] Creating Layer inception_4c/output_inception_4c/output_0_split
I0915 12:39:33.110000 11367 net.cpp:425] inception_4c/output_inception_4c/output_0_split <- inception_4c/output
I0915 12:39:33.110007 11367 net.cpp:399] inception_4c/output_inception_4c/output_0_split -> inception_4c/output_inception_4c/output_0_split_0
I0915 12:39:33.110014 11367 net.cpp:399] inception_4c/output_inception_4c/output_0_split -> inception_4c/output_inception_4c/output_0_split_1
I0915 12:39:33.110026 11367 net.cpp:399] inception_4c/output_inception_4c/output_0_split -> inception_4c/output_inception_4c/output_0_split_2
I0915 12:39:33.110034 11367 net.cpp:399] inception_4c/output_inception_4c/output_0_split -> inception_4c/output_inception_4c/output_0_split_3
I0915 12:39:33.110122 11367 net.cpp:141] Setting up inception_4c/output_inception_4c/output_0_split
I0915 12:39:33.110131 11367 net.cpp:148] Top shape: 10 512 14 14 (1003520)
I0915 12:39:33.110137 11367 net.cpp:148] Top shape: 10 512 14 14 (1003520)
I0915 12:39:33.110142 11367 net.cpp:148] Top shape: 10 512 14 14 (1003520)
I0915 12:39:33.110147 11367 net.cpp:148] Top shape: 10 512 14 14 (1003520)
I0915 12:39:33.110152 11367 net.cpp:156] Memory required for data: 458357760
I0915 12:39:33.110155 11367 layer_factory.hpp:77] Creating layer inception_4d/1x1
I0915 12:39:33.110170 11367 net.cpp:91] Creating Layer inception_4d/1x1
I0915 12:39:33.110177 11367 net.cpp:425] inception_4d/1x1 <- inception_4c/output_inception_4c/output_0_split_0
I0915 12:39:33.110186 11367 net.cpp:399] inception_4d/1x1 -> inception_4d/1x1
I0915 12:39:33.111835 11367 net.cpp:141] Setting up inception_4d/1x1
I0915 12:39:33.111851 11367 net.cpp:148] Top shape: 10 112 14 14 (219520)
I0915 12:39:33.111855 11367 net.cpp:156] Memory required for data: 459235840
I0915 12:39:33.111865 11367 layer_factory.hpp:77] Creating layer inception_4d/relu_1x1
I0915 12:39:33.111876 11367 net.cpp:91] Creating Layer inception_4d/relu_1x1
I0915 12:39:33.111882 11367 net.cpp:425] inception_4d/relu_1x1 <- inception_4d/1x1
I0915 12:39:33.111889 11367 net.cpp:386] inception_4d/relu_1x1 -> inception_4d/1x1 (in-place)
I0915 12:39:33.112289 11367 net.cpp:141] Setting up inception_4d/relu_1x1
I0915 12:39:33.112301 11367 net.cpp:148] Top shape: 10 112 14 14 (219520)
I0915 12:39:33.112305 11367 net.cpp:156] Memory required for data: 460113920
I0915 12:39:33.112310 11367 layer_factory.hpp:77] Creating layer inception_4d/3x3_reduce
I0915 12:39:33.112329 11367 net.cpp:91] Creating Layer inception_4d/3x3_reduce
I0915 12:39:33.112334 11367 net.cpp:425] inception_4d/3x3_reduce <- inception_4c/output_inception_4c/output_0_split_1
I0915 12:39:33.112344 11367 net.cpp:399] inception_4d/3x3_reduce -> inception_4d/3x3_reduce
I0915 12:39:33.114331 11367 net.cpp:141] Setting up inception_4d/3x3_reduce
I0915 12:39:33.114346 11367 net.cpp:148] Top shape: 10 144 14 14 (282240)
I0915 12:39:33.114351 11367 net.cpp:156] Memory required for data: 461242880
I0915 12:39:33.114359 11367 layer_factory.hpp:77] Creating layer inception_4d/relu_3x3_reduce
I0915 12:39:33.114370 11367 net.cpp:91] Creating Layer inception_4d/relu_3x3_reduce
I0915 12:39:33.114377 11367 net.cpp:425] inception_4d/relu_3x3_reduce <- inception_4d/3x3_reduce
I0915 12:39:33.114382 11367 net.cpp:386] inception_4d/relu_3x3_reduce -> inception_4d/3x3_reduce (in-place)
I0915 12:39:33.114619 11367 net.cpp:141] Setting up inception_4d/relu_3x3_reduce
I0915 12:39:33.114629 11367 net.cpp:148] Top shape: 10 144 14 14 (282240)
I0915 12:39:33.114634 11367 net.cpp:156] Memory required for data: 462371840
I0915 12:39:33.114639 11367 layer_factory.hpp:77] Creating layer inception_4d/3x3
I0915 12:39:33.114655 11367 net.cpp:91] Creating Layer inception_4d/3x3
I0915 12:39:33.114661 11367 net.cpp:425] inception_4d/3x3 <- inception_4d/3x3_reduce
I0915 12:39:33.114670 11367 net.cpp:399] inception_4d/3x3 -> inception_4d/3x3
I0915 12:39:33.119758 11367 net.cpp:141] Setting up inception_4d/3x3
I0915 12:39:33.119776 11367 net.cpp:148] Top shape: 10 288 14 14 (564480)
I0915 12:39:33.119781 11367 net.cpp:156] Memory required for data: 464629760
I0915 12:39:33.119788 11367 layer_factory.hpp:77] Creating layer inception_4d/relu_3x3
I0915 12:39:33.119797 11367 net.cpp:91] Creating Layer inception_4d/relu_3x3
I0915 12:39:33.119803 11367 net.cpp:425] inception_4d/relu_3x3 <- inception_4d/3x3
I0915 12:39:33.119813 11367 net.cpp:386] inception_4d/relu_3x3 -> inception_4d/3x3 (in-place)
I0915 12:39:33.120226 11367 net.cpp:141] Setting up inception_4d/relu_3x3
I0915 12:39:33.120239 11367 net.cpp:148] Top shape: 10 288 14 14 (564480)
I0915 12:39:33.120244 11367 net.cpp:156] Memory required for data: 466887680
I0915 12:39:33.120249 11367 layer_factory.hpp:77] Creating layer inception_4d/5x5_reduce
I0915 12:39:33.120265 11367 net.cpp:91] Creating Layer inception_4d/5x5_reduce
I0915 12:39:33.120271 11367 net.cpp:425] inception_4d/5x5_reduce <- inception_4c/output_inception_4c/output_0_split_2
I0915 12:39:33.120282 11367 net.cpp:399] inception_4d/5x5_reduce -> inception_4d/5x5_reduce
I0915 12:39:33.121690 11367 net.cpp:141] Setting up inception_4d/5x5_reduce
I0915 12:39:33.121706 11367 net.cpp:148] Top shape: 10 32 14 14 (62720)
I0915 12:39:33.121711 11367 net.cpp:156] Memory required for data: 467138560
I0915 12:39:33.121719 11367 layer_factory.hpp:77] Creating layer inception_4d/relu_5x5_reduce
I0915 12:39:33.121731 11367 net.cpp:91] Creating Layer inception_4d/relu_5x5_reduce
I0915 12:39:33.121737 11367 net.cpp:425] inception_4d/relu_5x5_reduce <- inception_4d/5x5_reduce
I0915 12:39:33.121743 11367 net.cpp:386] inception_4d/relu_5x5_reduce -> inception_4d/5x5_reduce (in-place)
I0915 12:39:33.122140 11367 net.cpp:141] Setting up inception_4d/relu_5x5_reduce
I0915 12:39:33.122153 11367 net.cpp:148] Top shape: 10 32 14 14 (62720)
I0915 12:39:33.122156 11367 net.cpp:156] Memory required for data: 467389440
I0915 12:39:33.122161 11367 layer_factory.hpp:77] Creating layer inception_4d/5x5
I0915 12:39:33.122179 11367 net.cpp:91] Creating Layer inception_4d/5x5
I0915 12:39:33.122185 11367 net.cpp:425] inception_4d/5x5 <- inception_4d/5x5_reduce
I0915 12:39:33.122194 11367 net.cpp:399] inception_4d/5x5 -> inception_4d/5x5
I0915 12:39:33.123991 11367 net.cpp:141] Setting up inception_4d/5x5
I0915 12:39:33.124007 11367 net.cpp:148] Top shape: 10 64 14 14 (125440)
I0915 12:39:33.124012 11367 net.cpp:156] Memory required for data: 467891200
I0915 12:39:33.124020 11367 layer_factory.hpp:77] Creating layer inception_4d/relu_5x5
I0915 12:39:33.124028 11367 net.cpp:91] Creating Layer inception_4d/relu_5x5
I0915 12:39:33.124034 11367 net.cpp:425] inception_4d/relu_5x5 <- inception_4d/5x5
I0915 12:39:33.124047 11367 net.cpp:386] inception_4d/relu_5x5 -> inception_4d/5x5 (in-place)
I0915 12:39:33.124290 11367 net.cpp:141] Setting up inception_4d/relu_5x5
I0915 12:39:33.124301 11367 net.cpp:148] Top shape: 10 64 14 14 (125440)
I0915 12:39:33.124305 11367 net.cpp:156] Memory required for data: 468392960
I0915 12:39:33.124310 11367 layer_factory.hpp:77] Creating layer inception_4d/pool
I0915 12:39:33.124322 11367 net.cpp:91] Creating Layer inception_4d/pool
I0915 12:39:33.124328 11367 net.cpp:425] inception_4d/pool <- inception_4c/output_inception_4c/output_0_split_3
I0915 12:39:33.124336 11367 net.cpp:399] inception_4d/pool -> inception_4d/pool
I0915 12:39:33.124402 11367 net.cpp:141] Setting up inception_4d/pool
I0915 12:39:33.124411 11367 net.cpp:148] Top shape: 10 512 14 14 (1003520)
I0915 12:39:33.124415 11367 net.cpp:156] Memory required for data: 472407040
I0915 12:39:33.124420 11367 layer_factory.hpp:77] Creating layer inception_4d/pool_proj
I0915 12:39:33.124434 11367 net.cpp:91] Creating Layer inception_4d/pool_proj
I0915 12:39:33.124440 11367 net.cpp:425] inception_4d/pool_proj <- inception_4d/pool
I0915 12:39:33.124451 11367 net.cpp:399] inception_4d/pool_proj -> inception_4d/pool_proj
I0915 12:39:33.126127 11367 net.cpp:141] Setting up inception_4d/pool_proj
I0915 12:39:33.126143 11367 net.cpp:148] Top shape: 10 64 14 14 (125440)
I0915 12:39:33.126147 11367 net.cpp:156] Memory required for data: 472908800
I0915 12:39:33.126157 11367 layer_factory.hpp:77] Creating layer inception_4d/relu_pool_proj
I0915 12:39:33.126166 11367 net.cpp:91] Creating Layer inception_4d/relu_pool_proj
I0915 12:39:33.126173 11367 net.cpp:425] inception_4d/relu_pool_proj <- inception_4d/pool_proj
I0915 12:39:33.126179 11367 net.cpp:386] inception_4d/relu_pool_proj -> inception_4d/pool_proj (in-place)
I0915 12:39:33.126583 11367 net.cpp:141] Setting up inception_4d/relu_pool_proj
I0915 12:39:33.126597 11367 net.cpp:148] Top shape: 10 64 14 14 (125440)
I0915 12:39:33.126601 11367 net.cpp:156] Memory required for data: 473410560
I0915 12:39:33.126606 11367 layer_factory.hpp:77] Creating layer inception_4d/output
I0915 12:39:33.126616 11367 net.cpp:91] Creating Layer inception_4d/output
I0915 12:39:33.126621 11367 net.cpp:425] inception_4d/output <- inception_4d/1x1
I0915 12:39:33.126626 11367 net.cpp:425] inception_4d/output <- inception_4d/3x3
I0915 12:39:33.126631 11367 net.cpp:425] inception_4d/output <- inception_4d/5x5
I0915 12:39:33.126637 11367 net.cpp:425] inception_4d/output <- inception_4d/pool_proj
I0915 12:39:33.126643 11367 net.cpp:399] inception_4d/output -> inception_4d/output
I0915 12:39:33.126689 11367 net.cpp:141] Setting up inception_4d/output
I0915 12:39:33.126698 11367 net.cpp:148] Top shape: 10 528 14 14 (1034880)
I0915 12:39:33.126703 11367 net.cpp:156] Memory required for data: 477550080
I0915 12:39:33.126708 11367 layer_factory.hpp:77] Creating layer inception_4d/output_inception_4d/output_0_split
I0915 12:39:33.126715 11367 net.cpp:91] Creating Layer inception_4d/output_inception_4d/output_0_split
I0915 12:39:33.126719 11367 net.cpp:425] inception_4d/output_inception_4d/output_0_split <- inception_4d/output
I0915 12:39:33.126729 11367 net.cpp:399] inception_4d/output_inception_4d/output_0_split -> inception_4d/output_inception_4d/output_0_split_0
I0915 12:39:33.126737 11367 net.cpp:399] inception_4d/output_inception_4d/output_0_split -> inception_4d/output_inception_4d/output_0_split_1
I0915 12:39:33.126745 11367 net.cpp:399] inception_4d/output_inception_4d/output_0_split -> inception_4d/output_inception_4d/output_0_split_2
I0915 12:39:33.126752 11367 net.cpp:399] inception_4d/output_inception_4d/output_0_split -> inception_4d/output_inception_4d/output_0_split_3
I0915 12:39:33.126847 11367 net.cpp:141] Setting up inception_4d/output_inception_4d/output_0_split
I0915 12:39:33.126855 11367 net.cpp:148] Top shape: 10 528 14 14 (1034880)
I0915 12:39:33.126862 11367 net.cpp:148] Top shape: 10 528 14 14 (1034880)
I0915 12:39:33.126866 11367 net.cpp:148] Top shape: 10 528 14 14 (1034880)
I0915 12:39:33.126871 11367 net.cpp:148] Top shape: 10 528 14 14 (1034880)
I0915 12:39:33.126874 11367 net.cpp:156] Memory required for data: 494108160
I0915 12:39:33.126879 11367 layer_factory.hpp:77] Creating layer inception_4e/1x1
I0915 12:39:33.126894 11367 net.cpp:91] Creating Layer inception_4e/1x1
I0915 12:39:33.126900 11367 net.cpp:425] inception_4e/1x1 <- inception_4d/output_inception_4d/output_0_split_0
I0915 12:39:33.126912 11367 net.cpp:399] inception_4e/1x1 -> inception_4e/1x1
I0915 12:39:33.130134 11367 net.cpp:141] Setting up inception_4e/1x1
I0915 12:39:33.130151 11367 net.cpp:148] Top shape: 10 256 14 14 (501760)
I0915 12:39:33.130156 11367 net.cpp:156] Memory required for data: 496115200
I0915 12:39:33.130164 11367 layer_factory.hpp:77] Creating layer inception_4e/relu_1x1
I0915 12:39:33.130177 11367 net.cpp:91] Creating Layer inception_4e/relu_1x1
I0915 12:39:33.130182 11367 net.cpp:425] inception_4e/relu_1x1 <- inception_4e/1x1
I0915 12:39:33.130189 11367 net.cpp:386] inception_4e/relu_1x1 -> inception_4e/1x1 (in-place)
I0915 12:39:33.130597 11367 net.cpp:141] Setting up inception_4e/relu_1x1
I0915 12:39:33.130610 11367 net.cpp:148] Top shape: 10 256 14 14 (501760)
I0915 12:39:33.130614 11367 net.cpp:156] Memory required for data: 498122240
I0915 12:39:33.130620 11367 layer_factory.hpp:77] Creating layer inception_4e/3x3_reduce
I0915 12:39:33.130635 11367 net.cpp:91] Creating Layer inception_4e/3x3_reduce
I0915 12:39:33.130640 11367 net.cpp:425] inception_4e/3x3_reduce <- inception_4d/output_inception_4d/output_0_split_1
I0915 12:39:33.130651 11367 net.cpp:399] inception_4e/3x3_reduce -> inception_4e/3x3_reduce
I0915 12:39:33.132736 11367 net.cpp:141] Setting up inception_4e/3x3_reduce
I0915 12:39:33.132752 11367 net.cpp:148] Top shape: 10 160 14 14 (313600)
I0915 12:39:33.132757 11367 net.cpp:156] Memory required for data: 499376640
I0915 12:39:33.132766 11367 layer_factory.hpp:77] Creating layer inception_4e/relu_3x3_reduce
I0915 12:39:33.132774 11367 net.cpp:91] Creating Layer inception_4e/relu_3x3_reduce
I0915 12:39:33.132779 11367 net.cpp:425] inception_4e/relu_3x3_reduce <- inception_4e/3x3_reduce
I0915 12:39:33.132786 11367 net.cpp:386] inception_4e/relu_3x3_reduce -> inception_4e/3x3_reduce (in-place)
I0915 12:39:33.133028 11367 net.cpp:141] Setting up inception_4e/relu_3x3_reduce
I0915 12:39:33.133039 11367 net.cpp:148] Top shape: 10 160 14 14 (313600)
I0915 12:39:33.133044 11367 net.cpp:156] Memory required for data: 500631040
I0915 12:39:33.133049 11367 layer_factory.hpp:77] Creating layer inception_4e/3x3
I0915 12:39:33.133064 11367 net.cpp:91] Creating Layer inception_4e/3x3
I0915 12:39:33.133069 11367 net.cpp:425] inception_4e/3x3 <- inception_4e/3x3_reduce
I0915 12:39:33.133080 11367 net.cpp:399] inception_4e/3x3 -> inception_4e/3x3
I0915 12:39:33.138901 11367 net.cpp:141] Setting up inception_4e/3x3
I0915 12:39:33.138931 11367 net.cpp:148] Top shape: 10 320 14 14 (627200)
I0915 12:39:33.138936 11367 net.cpp:156] Memory required for data: 503139840
I0915 12:39:33.138945 11367 layer_factory.hpp:77] Creating layer inception_4e/relu_3x3
I0915 12:39:33.138954 11367 net.cpp:91] Creating Layer inception_4e/relu_3x3
I0915 12:39:33.138959 11367 net.cpp:425] inception_4e/relu_3x3 <- inception_4e/3x3
I0915 12:39:33.138969 11367 net.cpp:386] inception_4e/relu_3x3 -> inception_4e/3x3 (in-place)
I0915 12:39:33.139389 11367 net.cpp:141] Setting up inception_4e/relu_3x3
I0915 12:39:33.139401 11367 net.cpp:148] Top shape: 10 320 14 14 (627200)
I0915 12:39:33.139406 11367 net.cpp:156] Memory required for data: 505648640
I0915 12:39:33.139410 11367 layer_factory.hpp:77] Creating layer inception_4e/5x5_reduce
I0915 12:39:33.139426 11367 net.cpp:91] Creating Layer inception_4e/5x5_reduce
I0915 12:39:33.139432 11367 net.cpp:425] inception_4e/5x5_reduce <- inception_4d/output_inception_4d/output_0_split_2
I0915 12:39:33.139443 11367 net.cpp:399] inception_4e/5x5_reduce -> inception_4e/5x5_reduce
I0915 12:39:33.140885 11367 net.cpp:141] Setting up inception_4e/5x5_reduce
I0915 12:39:33.140916 11367 net.cpp:148] Top shape: 10 32 14 14 (62720)
I0915 12:39:33.140923 11367 net.cpp:156] Memory required for data: 505899520
I0915 12:39:33.140931 11367 layer_factory.hpp:77] Creating layer inception_4e/relu_5x5_reduce
I0915 12:39:33.140939 11367 net.cpp:91] Creating Layer inception_4e/relu_5x5_reduce
I0915 12:39:33.140945 11367 net.cpp:425] inception_4e/relu_5x5_reduce <- inception_4e/5x5_reduce
I0915 12:39:33.140951 11367 net.cpp:386] inception_4e/relu_5x5_reduce -> inception_4e/5x5_reduce (in-place)
I0915 12:39:33.141355 11367 net.cpp:141] Setting up inception_4e/relu_5x5_reduce
I0915 12:39:33.141368 11367 net.cpp:148] Top shape: 10 32 14 14 (62720)
I0915 12:39:33.141372 11367 net.cpp:156] Memory required for data: 506150400
I0915 12:39:33.141377 11367 layer_factory.hpp:77] Creating layer inception_4e/5x5
I0915 12:39:33.141393 11367 net.cpp:91] Creating Layer inception_4e/5x5
I0915 12:39:33.141399 11367 net.cpp:425] inception_4e/5x5 <- inception_4e/5x5_reduce
I0915 12:39:33.141408 11367 net.cpp:399] inception_4e/5x5 -> inception_4e/5x5
I0915 12:39:33.144301 11367 net.cpp:141] Setting up inception_4e/5x5
I0915 12:39:33.144318 11367 net.cpp:148] Top shape: 10 128 14 14 (250880)
I0915 12:39:33.144323 11367 net.cpp:156] Memory required for data: 507153920
I0915 12:39:33.144331 11367 layer_factory.hpp:77] Creating layer inception_4e/relu_5x5
I0915 12:39:33.144340 11367 net.cpp:91] Creating Layer inception_4e/relu_5x5
I0915 12:39:33.144346 11367 net.cpp:425] inception_4e/relu_5x5 <- inception_4e/5x5
I0915 12:39:33.144356 11367 net.cpp:386] inception_4e/relu_5x5 -> inception_4e/5x5 (in-place)
I0915 12:39:33.144594 11367 net.cpp:141] Setting up inception_4e/relu_5x5
I0915 12:39:33.144605 11367 net.cpp:148] Top shape: 10 128 14 14 (250880)
I0915 12:39:33.144609 11367 net.cpp:156] Memory required for data: 508157440
I0915 12:39:33.144614 11367 layer_factory.hpp:77] Creating layer inception_4e/pool
I0915 12:39:33.144623 11367 net.cpp:91] Creating Layer inception_4e/pool
I0915 12:39:33.144629 11367 net.cpp:425] inception_4e/pool <- inception_4d/output_inception_4d/output_0_split_3
I0915 12:39:33.144635 11367 net.cpp:399] inception_4e/pool -> inception_4e/pool
I0915 12:39:33.144706 11367 net.cpp:141] Setting up inception_4e/pool
I0915 12:39:33.144716 11367 net.cpp:148] Top shape: 10 528 14 14 (1034880)
I0915 12:39:33.144721 11367 net.cpp:156] Memory required for data: 512296960
I0915 12:39:33.144724 11367 layer_factory.hpp:77] Creating layer inception_4e/pool_proj
I0915 12:39:33.144739 11367 net.cpp:91] Creating Layer inception_4e/pool_proj
I0915 12:39:33.144747 11367 net.cpp:425] inception_4e/pool_proj <- inception_4e/pool
I0915 12:39:33.144757 11367 net.cpp:399] inception_4e/pool_proj -> inception_4e/pool_proj
I0915 12:39:33.146702 11367 net.cpp:141] Setting up inception_4e/pool_proj
I0915 12:39:33.146718 11367 net.cpp:148] Top shape: 10 128 14 14 (250880)
I0915 12:39:33.146723 11367 net.cpp:156] Memory required for data: 513300480
I0915 12:39:33.146731 11367 layer_factory.hpp:77] Creating layer inception_4e/relu_pool_proj
I0915 12:39:33.146739 11367 net.cpp:91] Creating Layer inception_4e/relu_pool_proj
I0915 12:39:33.146745 11367 net.cpp:425] inception_4e/relu_pool_proj <- inception_4e/pool_proj
I0915 12:39:33.146754 11367 net.cpp:386] inception_4e/relu_pool_proj -> inception_4e/pool_proj (in-place)
I0915 12:39:33.147166 11367 net.cpp:141] Setting up inception_4e/relu_pool_proj
I0915 12:39:33.147177 11367 net.cpp:148] Top shape: 10 128 14 14 (250880)
I0915 12:39:33.147182 11367 net.cpp:156] Memory required for data: 514304000
I0915 12:39:33.147186 11367 layer_factory.hpp:77] Creating layer inception_4e/output
I0915 12:39:33.147198 11367 net.cpp:91] Creating Layer inception_4e/output
I0915 12:39:33.147203 11367 net.cpp:425] inception_4e/output <- inception_4e/1x1
I0915 12:39:33.147209 11367 net.cpp:425] inception_4e/output <- inception_4e/3x3
I0915 12:39:33.147214 11367 net.cpp:425] inception_4e/output <- inception_4e/5x5
I0915 12:39:33.147219 11367 net.cpp:425] inception_4e/output <- inception_4e/pool_proj
I0915 12:39:33.147225 11367 net.cpp:399] inception_4e/output -> inception_4e/output
I0915 12:39:33.147270 11367 net.cpp:141] Setting up inception_4e/output
I0915 12:39:33.147279 11367 net.cpp:148] Top shape: 10 832 14 14 (1630720)
I0915 12:39:33.147284 11367 net.cpp:156] Memory required for data: 520826880
I0915 12:39:33.147289 11367 layer_factory.hpp:77] Creating layer pool4/3x3_s2
I0915 12:39:33.147301 11367 net.cpp:91] Creating Layer pool4/3x3_s2
I0915 12:39:33.147307 11367 net.cpp:425] pool4/3x3_s2 <- inception_4e/output
I0915 12:39:33.147317 11367 net.cpp:399] pool4/3x3_s2 -> pool4/3x3_s2
I0915 12:39:33.147378 11367 net.cpp:141] Setting up pool4/3x3_s2
I0915 12:39:33.147388 11367 net.cpp:148] Top shape: 10 832 7 7 (407680)
I0915 12:39:33.147392 11367 net.cpp:156] Memory required for data: 522457600
I0915 12:39:33.147397 11367 layer_factory.hpp:77] Creating layer pool4/3x3_s2_pool4/3x3_s2_0_split
I0915 12:39:33.147406 11367 net.cpp:91] Creating Layer pool4/3x3_s2_pool4/3x3_s2_0_split
I0915 12:39:33.147411 11367 net.cpp:425] pool4/3x3_s2_pool4/3x3_s2_0_split <- pool4/3x3_s2
I0915 12:39:33.147418 11367 net.cpp:399] pool4/3x3_s2_pool4/3x3_s2_0_split -> pool4/3x3_s2_pool4/3x3_s2_0_split_0
I0915 12:39:33.147425 11367 net.cpp:399] pool4/3x3_s2_pool4/3x3_s2_0_split -> pool4/3x3_s2_pool4/3x3_s2_0_split_1
I0915 12:39:33.147433 11367 net.cpp:399] pool4/3x3_s2_pool4/3x3_s2_0_split -> pool4/3x3_s2_pool4/3x3_s2_0_split_2
I0915 12:39:33.147440 11367 net.cpp:399] pool4/3x3_s2_pool4/3x3_s2_0_split -> pool4/3x3_s2_pool4/3x3_s2_0_split_3
I0915 12:39:33.147537 11367 net.cpp:141] Setting up pool4/3x3_s2_pool4/3x3_s2_0_split
I0915 12:39:33.147547 11367 net.cpp:148] Top shape: 10 832 7 7 (407680)
I0915 12:39:33.147552 11367 net.cpp:148] Top shape: 10 832 7 7 (407680)
I0915 12:39:33.147557 11367 net.cpp:148] Top shape: 10 832 7 7 (407680)
I0915 12:39:33.147562 11367 net.cpp:148] Top shape: 10 832 7 7 (407680)
I0915 12:39:33.147567 11367 net.cpp:156] Memory required for data: 528980480
I0915 12:39:33.147570 11367 layer_factory.hpp:77] Creating layer inception_5a/1x1
I0915 12:39:33.147585 11367 net.cpp:91] Creating Layer inception_5a/1x1
I0915 12:39:33.147591 11367 net.cpp:425] inception_5a/1x1 <- pool4/3x3_s2_pool4/3x3_s2_0_split_0
I0915 12:39:33.147601 11367 net.cpp:399] inception_5a/1x1 -> inception_5a/1x1
I0915 12:39:33.151175 11367 net.cpp:141] Setting up inception_5a/1x1
I0915 12:39:33.151193 11367 net.cpp:148] Top shape: 10 256 7 7 (125440)
I0915 12:39:33.151198 11367 net.cpp:156] Memory required for data: 529482240
I0915 12:39:33.151207 11367 layer_factory.hpp:77] Creating layer inception_5a/relu_1x1
I0915 12:39:33.151216 11367 net.cpp:91] Creating Layer inception_5a/relu_1x1
I0915 12:39:33.151221 11367 net.cpp:425] inception_5a/relu_1x1 <- inception_5a/1x1
I0915 12:39:33.151232 11367 net.cpp:386] inception_5a/relu_1x1 -> inception_5a/1x1 (in-place)
I0915 12:39:33.151635 11367 net.cpp:141] Setting up inception_5a/relu_1x1
I0915 12:39:33.151648 11367 net.cpp:148] Top shape: 10 256 7 7 (125440)
I0915 12:39:33.151653 11367 net.cpp:156] Memory required for data: 529984000
I0915 12:39:33.151656 11367 layer_factory.hpp:77] Creating layer inception_5a/3x3_reduce
I0915 12:39:33.151671 11367 net.cpp:91] Creating Layer inception_5a/3x3_reduce
I0915 12:39:33.151677 11367 net.cpp:425] inception_5a/3x3_reduce <- pool4/3x3_s2_pool4/3x3_s2_0_split_1
I0915 12:39:33.151690 11367 net.cpp:399] inception_5a/3x3_reduce -> inception_5a/3x3_reduce
I0915 12:39:33.154875 11367 net.cpp:141] Setting up inception_5a/3x3_reduce
I0915 12:39:33.154892 11367 net.cpp:148] Top shape: 10 160 7 7 (78400)
I0915 12:39:33.154897 11367 net.cpp:156] Memory required for data: 530297600
I0915 12:39:33.154906 11367 layer_factory.hpp:77] Creating layer inception_5a/relu_3x3_reduce
I0915 12:39:33.154917 11367 net.cpp:91] Creating Layer inception_5a/relu_3x3_reduce
I0915 12:39:33.154924 11367 net.cpp:425] inception_5a/relu_3x3_reduce <- inception_5a/3x3_reduce
I0915 12:39:33.154932 11367 net.cpp:386] inception_5a/relu_3x3_reduce -> inception_5a/3x3_reduce (in-place)
I0915 12:39:33.155176 11367 net.cpp:141] Setting up inception_5a/relu_3x3_reduce
I0915 12:39:33.155186 11367 net.cpp:148] Top shape: 10 160 7 7 (78400)
I0915 12:39:33.155191 11367 net.cpp:156] Memory required for data: 530611200
I0915 12:39:33.155195 11367 layer_factory.hpp:77] Creating layer inception_5a/3x3
I0915 12:39:33.155211 11367 net.cpp:91] Creating Layer inception_5a/3x3
I0915 12:39:33.155217 11367 net.cpp:425] inception_5a/3x3 <- inception_5a/3x3_reduce
I0915 12:39:33.155228 11367 net.cpp:399] inception_5a/3x3 -> inception_5a/3x3
I0915 12:39:33.161837 11367 net.cpp:141] Setting up inception_5a/3x3
I0915 12:39:33.161855 11367 net.cpp:148] Top shape: 10 320 7 7 (156800)
I0915 12:39:33.161860 11367 net.cpp:156] Memory required for data: 531238400
I0915 12:39:33.161872 11367 layer_factory.hpp:77] Creating layer inception_5a/relu_3x3
I0915 12:39:33.161881 11367 net.cpp:91] Creating Layer inception_5a/relu_3x3
I0915 12:39:33.161887 11367 net.cpp:425] inception_5a/relu_3x3 <- inception_5a/3x3
I0915 12:39:33.161895 11367 net.cpp:386] inception_5a/relu_3x3 -> inception_5a/3x3 (in-place)
I0915 12:39:33.162323 11367 net.cpp:141] Setting up inception_5a/relu_3x3
I0915 12:39:33.162338 11367 net.cpp:148] Top shape: 10 320 7 7 (156800)
I0915 12:39:33.162343 11367 net.cpp:156] Memory required for data: 531865600
I0915 12:39:33.162348 11367 layer_factory.hpp:77] Creating layer inception_5a/5x5_reduce
I0915 12:39:33.162364 11367 net.cpp:91] Creating Layer inception_5a/5x5_reduce
I0915 12:39:33.162370 11367 net.cpp:425] inception_5a/5x5_reduce <- pool4/3x3_s2_pool4/3x3_s2_0_split_2
I0915 12:39:33.162379 11367 net.cpp:399] inception_5a/5x5_reduce -> inception_5a/5x5_reduce
I0915 12:39:33.163920 11367 net.cpp:141] Setting up inception_5a/5x5_reduce
I0915 12:39:33.163938 11367 net.cpp:148] Top shape: 10 32 7 7 (15680)
I0915 12:39:33.163941 11367 net.cpp:156] Memory required for data: 531928320
I0915 12:39:33.163950 11367 layer_factory.hpp:77] Creating layer inception_5a/relu_5x5_reduce
I0915 12:39:33.163961 11367 net.cpp:91] Creating Layer inception_5a/relu_5x5_reduce
I0915 12:39:33.163967 11367 net.cpp:425] inception_5a/relu_5x5_reduce <- inception_5a/5x5_reduce
I0915 12:39:33.163975 11367 net.cpp:386] inception_5a/relu_5x5_reduce -> inception_5a/5x5_reduce (in-place)
I0915 12:39:33.164394 11367 net.cpp:141] Setting up inception_5a/relu_5x5_reduce
I0915 12:39:33.164409 11367 net.cpp:148] Top shape: 10 32 7 7 (15680)
I0915 12:39:33.164413 11367 net.cpp:156] Memory required for data: 531991040
I0915 12:39:33.164418 11367 layer_factory.hpp:77] Creating layer inception_5a/5x5
I0915 12:39:33.164434 11367 net.cpp:91] Creating Layer inception_5a/5x5
I0915 12:39:33.164440 11367 net.cpp:425] inception_5a/5x5 <- inception_5a/5x5_reduce
I0915 12:39:33.164449 11367 net.cpp:399] inception_5a/5x5 -> inception_5a/5x5
I0915 12:39:33.166697 11367 net.cpp:141] Setting up inception_5a/5x5
I0915 12:39:33.166714 11367 net.cpp:148] Top shape: 10 128 7 7 (62720)
I0915 12:39:33.166719 11367 net.cpp:156] Memory required for data: 532241920
I0915 12:39:33.166728 11367 layer_factory.hpp:77] Creating layer inception_5a/relu_5x5
I0915 12:39:33.166762 11367 net.cpp:91] Creating Layer inception_5a/relu_5x5
I0915 12:39:33.166769 11367 net.cpp:425] inception_5a/relu_5x5 <- inception_5a/5x5
I0915 12:39:33.166775 11367 net.cpp:386] inception_5a/relu_5x5 -> inception_5a/5x5 (in-place)
I0915 12:39:33.167013 11367 net.cpp:141] Setting up inception_5a/relu_5x5
I0915 12:39:33.167024 11367 net.cpp:148] Top shape: 10 128 7 7 (62720)
I0915 12:39:33.167028 11367 net.cpp:156] Memory required for data: 532492800
I0915 12:39:33.167034 11367 layer_factory.hpp:77] Creating layer inception_5a/pool
I0915 12:39:33.167047 11367 net.cpp:91] Creating Layer inception_5a/pool
I0915 12:39:33.167053 11367 net.cpp:425] inception_5a/pool <- pool4/3x3_s2_pool4/3x3_s2_0_split_3
I0915 12:39:33.167062 11367 net.cpp:399] inception_5a/pool -> inception_5a/pool
I0915 12:39:33.167134 11367 net.cpp:141] Setting up inception_5a/pool
I0915 12:39:33.167142 11367 net.cpp:148] Top shape: 10 832 7 7 (407680)
I0915 12:39:33.167146 11367 net.cpp:156] Memory required for data: 534123520
I0915 12:39:33.167151 11367 layer_factory.hpp:77] Creating layer inception_5a/pool_proj
I0915 12:39:33.167165 11367 net.cpp:91] Creating Layer inception_5a/pool_proj
I0915 12:39:33.167171 11367 net.cpp:425] inception_5a/pool_proj <- inception_5a/pool
I0915 12:39:33.167181 11367 net.cpp:399] inception_5a/pool_proj -> inception_5a/pool_proj
I0915 12:39:33.170177 11367 net.cpp:141] Setting up inception_5a/pool_proj
I0915 12:39:33.170198 11367 net.cpp:148] Top shape: 10 128 7 7 (62720)
I0915 12:39:33.170203 11367 net.cpp:156] Memory required for data: 534374400
I0915 12:39:33.170212 11367 layer_factory.hpp:77] Creating layer inception_5a/relu_pool_proj
I0915 12:39:33.170222 11367 net.cpp:91] Creating Layer inception_5a/relu_pool_proj
I0915 12:39:33.170228 11367 net.cpp:425] inception_5a/relu_pool_proj <- inception_5a/pool_proj
I0915 12:39:33.170236 11367 net.cpp:386] inception_5a/relu_pool_proj -> inception_5a/pool_proj (in-place)
I0915 12:39:33.170656 11367 net.cpp:141] Setting up inception_5a/relu_pool_proj
I0915 12:39:33.170670 11367 net.cpp:148] Top shape: 10 128 7 7 (62720)
I0915 12:39:33.170673 11367 net.cpp:156] Memory required for data: 534625280
I0915 12:39:33.170678 11367 layer_factory.hpp:77] Creating layer inception_5a/output
I0915 12:39:33.170696 11367 net.cpp:91] Creating Layer inception_5a/output
I0915 12:39:33.170701 11367 net.cpp:425] inception_5a/output <- inception_5a/1x1
I0915 12:39:33.170707 11367 net.cpp:425] inception_5a/output <- inception_5a/3x3
I0915 12:39:33.170712 11367 net.cpp:425] inception_5a/output <- inception_5a/5x5
I0915 12:39:33.170717 11367 net.cpp:425] inception_5a/output <- inception_5a/pool_proj
I0915 12:39:33.170727 11367 net.cpp:399] inception_5a/output -> inception_5a/output
I0915 12:39:33.170773 11367 net.cpp:141] Setting up inception_5a/output
I0915 12:39:33.170783 11367 net.cpp:148] Top shape: 10 832 7 7 (407680)
I0915 12:39:33.170786 11367 net.cpp:156] Memory required for data: 536256000
I0915 12:39:33.170791 11367 layer_factory.hpp:77] Creating layer inception_5a/output_inception_5a/output_0_split
I0915 12:39:33.170804 11367 net.cpp:91] Creating Layer inception_5a/output_inception_5a/output_0_split
I0915 12:39:33.170809 11367 net.cpp:425] inception_5a/output_inception_5a/output_0_split <- inception_5a/output
I0915 12:39:33.170816 11367 net.cpp:399] inception_5a/output_inception_5a/output_0_split -> inception_5a/output_inception_5a/output_0_split_0
I0915 12:39:33.170827 11367 net.cpp:399] inception_5a/output_inception_5a/output_0_split -> inception_5a/output_inception_5a/output_0_split_1
I0915 12:39:33.170835 11367 net.cpp:399] inception_5a/output_inception_5a/output_0_split -> inception_5a/output_inception_5a/output_0_split_2
I0915 12:39:33.170843 11367 net.cpp:399] inception_5a/output_inception_5a/output_0_split -> inception_5a/output_inception_5a/output_0_split_3
I0915 12:39:33.170945 11367 net.cpp:141] Setting up inception_5a/output_inception_5a/output_0_split
I0915 12:39:33.170955 11367 net.cpp:148] Top shape: 10 832 7 7 (407680)
I0915 12:39:33.170960 11367 net.cpp:148] Top shape: 10 832 7 7 (407680)
I0915 12:39:33.170965 11367 net.cpp:148] Top shape: 10 832 7 7 (407680)
I0915 12:39:33.170970 11367 net.cpp:148] Top shape: 10 832 7 7 (407680)
I0915 12:39:33.170974 11367 net.cpp:156] Memory required for data: 542778880
I0915 12:39:33.170979 11367 layer_factory.hpp:77] Creating layer inception_5b/1x1
I0915 12:39:33.170994 11367 net.cpp:91] Creating Layer inception_5b/1x1
I0915 12:39:33.170999 11367 net.cpp:425] inception_5b/1x1 <- inception_5a/output_inception_5a/output_0_split_0
I0915 12:39:33.171010 11367 net.cpp:399] inception_5b/1x1 -> inception_5b/1x1
I0915 12:39:33.175501 11367 net.cpp:141] Setting up inception_5b/1x1
I0915 12:39:33.175518 11367 net.cpp:148] Top shape: 10 384 7 7 (188160)
I0915 12:39:33.175523 11367 net.cpp:156] Memory required for data: 543531520
I0915 12:39:33.175531 11367 layer_factory.hpp:77] Creating layer inception_5b/relu_1x1
I0915 12:39:33.175539 11367 net.cpp:91] Creating Layer inception_5b/relu_1x1
I0915 12:39:33.175545 11367 net.cpp:425] inception_5b/relu_1x1 <- inception_5b/1x1
I0915 12:39:33.175555 11367 net.cpp:386] inception_5b/relu_1x1 -> inception_5b/1x1 (in-place)
I0915 12:39:33.175971 11367 net.cpp:141] Setting up inception_5b/relu_1x1
I0915 12:39:33.175982 11367 net.cpp:148] Top shape: 10 384 7 7 (188160)
I0915 12:39:33.175987 11367 net.cpp:156] Memory required for data: 544284160
I0915 12:39:33.175992 11367 layer_factory.hpp:77] Creating layer inception_5b/3x3_reduce
I0915 12:39:33.176007 11367 net.cpp:91] Creating Layer inception_5b/3x3_reduce
I0915 12:39:33.176013 11367 net.cpp:425] inception_5b/3x3_reduce <- inception_5a/output_inception_5a/output_0_split_1
I0915 12:39:33.176024 11367 net.cpp:399] inception_5b/3x3_reduce -> inception_5b/3x3_reduce
I0915 12:39:33.179436 11367 net.cpp:141] Setting up inception_5b/3x3_reduce
I0915 12:39:33.179455 11367 net.cpp:148] Top shape: 10 192 7 7 (94080)
I0915 12:39:33.179458 11367 net.cpp:156] Memory required for data: 544660480
I0915 12:39:33.179467 11367 layer_factory.hpp:77] Creating layer inception_5b/relu_3x3_reduce
I0915 12:39:33.179476 11367 net.cpp:91] Creating Layer inception_5b/relu_3x3_reduce
I0915 12:39:33.179481 11367 net.cpp:425] inception_5b/relu_3x3_reduce <- inception_5b/3x3_reduce
I0915 12:39:33.179492 11367 net.cpp:386] inception_5b/relu_3x3_reduce -> inception_5b/3x3_reduce (in-place)
I0915 12:39:33.179733 11367 net.cpp:141] Setting up inception_5b/relu_3x3_reduce
I0915 12:39:33.179746 11367 net.cpp:148] Top shape: 10 192 7 7 (94080)
I0915 12:39:33.179751 11367 net.cpp:156] Memory required for data: 545036800
I0915 12:39:33.179755 11367 layer_factory.hpp:77] Creating layer inception_5b/3x3
I0915 12:39:33.179772 11367 net.cpp:91] Creating Layer inception_5b/3x3
I0915 12:39:33.179778 11367 net.cpp:425] inception_5b/3x3 <- inception_5b/3x3_reduce
I0915 12:39:33.179786 11367 net.cpp:399] inception_5b/3x3 -> inception_5b/3x3
I0915 12:39:33.187536 11367 net.cpp:141] Setting up inception_5b/3x3
I0915 12:39:33.187556 11367 net.cpp:148] Top shape: 10 384 7 7 (188160)
I0915 12:39:33.187561 11367 net.cpp:156] Memory required for data: 545789440
I0915 12:39:33.187569 11367 layer_factory.hpp:77] Creating layer inception_5b/relu_3x3
I0915 12:39:33.187578 11367 net.cpp:91] Creating Layer inception_5b/relu_3x3
I0915 12:39:33.187587 11367 net.cpp:425] inception_5b/relu_3x3 <- inception_5b/3x3
I0915 12:39:33.187594 11367 net.cpp:386] inception_5b/relu_3x3 -> inception_5b/3x3 (in-place)
I0915 12:39:33.188022 11367 net.cpp:141] Setting up inception_5b/relu_3x3
I0915 12:39:33.188035 11367 net.cpp:148] Top shape: 10 384 7 7 (188160)
I0915 12:39:33.188038 11367 net.cpp:156] Memory required for data: 546542080
I0915 12:39:33.188043 11367 layer_factory.hpp:77] Creating layer inception_5b/5x5_reduce
I0915 12:39:33.188058 11367 net.cpp:91] Creating Layer inception_5b/5x5_reduce
I0915 12:39:33.188065 11367 net.cpp:425] inception_5b/5x5_reduce <- inception_5a/output_inception_5a/output_0_split_2
I0915 12:39:33.188087 11367 net.cpp:399] inception_5b/5x5_reduce -> inception_5b/5x5_reduce
I0915 12:39:33.189784 11367 net.cpp:141] Setting up inception_5b/5x5_reduce
I0915 12:39:33.189800 11367 net.cpp:148] Top shape: 10 48 7 7 (23520)
I0915 12:39:33.189805 11367 net.cpp:156] Memory required for data: 546636160
I0915 12:39:33.189817 11367 layer_factory.hpp:77] Creating layer inception_5b/relu_5x5_reduce
I0915 12:39:33.189826 11367 net.cpp:91] Creating Layer inception_5b/relu_5x5_reduce
I0915 12:39:33.189834 11367 net.cpp:425] inception_5b/relu_5x5_reduce <- inception_5b/5x5_reduce
I0915 12:39:33.189841 11367 net.cpp:386] inception_5b/relu_5x5_reduce -> inception_5b/5x5_reduce (in-place)
I0915 12:39:33.190251 11367 net.cpp:141] Setting up inception_5b/relu_5x5_reduce
I0915 12:39:33.190263 11367 net.cpp:148] Top shape: 10 48 7 7 (23520)
I0915 12:39:33.190268 11367 net.cpp:156] Memory required for data: 546730240
I0915 12:39:33.190271 11367 layer_factory.hpp:77] Creating layer inception_5b/5x5
I0915 12:39:33.190286 11367 net.cpp:91] Creating Layer inception_5b/5x5
I0915 12:39:33.190292 11367 net.cpp:425] inception_5b/5x5 <- inception_5b/5x5_reduce
I0915 12:39:33.190304 11367 net.cpp:399] inception_5b/5x5 -> inception_5b/5x5
I0915 12:39:33.193272 11367 net.cpp:141] Setting up inception_5b/5x5
I0915 12:39:33.193289 11367 net.cpp:148] Top shape: 10 128 7 7 (62720)
I0915 12:39:33.193295 11367 net.cpp:156] Memory required for data: 546981120
I0915 12:39:33.193302 11367 layer_factory.hpp:77] Creating layer inception_5b/relu_5x5
I0915 12:39:33.193311 11367 net.cpp:91] Creating Layer inception_5b/relu_5x5
I0915 12:39:33.193316 11367 net.cpp:425] inception_5b/relu_5x5 <- inception_5b/5x5
I0915 12:39:33.193323 11367 net.cpp:386] inception_5b/relu_5x5 -> inception_5b/5x5 (in-place)
I0915 12:39:33.193568 11367 net.cpp:141] Setting up inception_5b/relu_5x5
I0915 12:39:33.193579 11367 net.cpp:148] Top shape: 10 128 7 7 (62720)
I0915 12:39:33.193584 11367 net.cpp:156] Memory required for data: 547232000
I0915 12:39:33.193588 11367 layer_factory.hpp:77] Creating layer inception_5b/pool
I0915 12:39:33.193601 11367 net.cpp:91] Creating Layer inception_5b/pool
I0915 12:39:33.193606 11367 net.cpp:425] inception_5b/pool <- inception_5a/output_inception_5a/output_0_split_3
I0915 12:39:33.193614 11367 net.cpp:399] inception_5b/pool -> inception_5b/pool
I0915 12:39:33.193693 11367 net.cpp:141] Setting up inception_5b/pool
I0915 12:39:33.193703 11367 net.cpp:148] Top shape: 10 832 7 7 (407680)
I0915 12:39:33.193707 11367 net.cpp:156] Memory required for data: 548862720
I0915 12:39:33.193711 11367 layer_factory.hpp:77] Creating layer inception_5b/pool_proj
I0915 12:39:33.193729 11367 net.cpp:91] Creating Layer inception_5b/pool_proj
I0915 12:39:33.193735 11367 net.cpp:425] inception_5b/pool_proj <- inception_5b/pool
I0915 12:39:33.193747 11367 net.cpp:399] inception_5b/pool_proj -> inception_5b/pool_proj
I0915 12:39:33.196786 11367 net.cpp:141] Setting up inception_5b/pool_proj
I0915 12:39:33.196804 11367 net.cpp:148] Top shape: 10 128 7 7 (62720)
I0915 12:39:33.196808 11367 net.cpp:156] Memory required for data: 549113600
I0915 12:39:33.196816 11367 layer_factory.hpp:77] Creating layer inception_5b/relu_pool_proj
I0915 12:39:33.196827 11367 net.cpp:91] Creating Layer inception_5b/relu_pool_proj
I0915 12:39:33.196833 11367 net.cpp:425] inception_5b/relu_pool_proj <- inception_5b/pool_proj
I0915 12:39:33.196841 11367 net.cpp:386] inception_5b/relu_pool_proj -> inception_5b/pool_proj (in-place)
I0915 12:39:33.197257 11367 net.cpp:141] Setting up inception_5b/relu_pool_proj
I0915 12:39:33.197276 11367 net.cpp:148] Top shape: 10 128 7 7 (62720)
I0915 12:39:33.197281 11367 net.cpp:156] Memory required for data: 549364480
I0915 12:39:33.197286 11367 layer_factory.hpp:77] Creating layer inception_5b/output
I0915 12:39:33.197298 11367 net.cpp:91] Creating Layer inception_5b/output
I0915 12:39:33.197304 11367 net.cpp:425] inception_5b/output <- inception_5b/1x1
I0915 12:39:33.197309 11367 net.cpp:425] inception_5b/output <- inception_5b/3x3
I0915 12:39:33.197315 11367 net.cpp:425] inception_5b/output <- inception_5b/5x5
I0915 12:39:33.197319 11367 net.cpp:425] inception_5b/output <- inception_5b/pool_proj
I0915 12:39:33.197326 11367 net.cpp:399] inception_5b/output -> inception_5b/output
I0915 12:39:33.197378 11367 net.cpp:141] Setting up inception_5b/output
I0915 12:39:33.197388 11367 net.cpp:148] Top shape: 10 1024 7 7 (501760)
I0915 12:39:33.197392 11367 net.cpp:156] Memory required for data: 551371520
I0915 12:39:33.197396 11367 layer_factory.hpp:77] Creating layer pool5/7x7_s1
I0915 12:39:33.197404 11367 net.cpp:91] Creating Layer pool5/7x7_s1
I0915 12:39:33.197409 11367 net.cpp:425] pool5/7x7_s1 <- inception_5b/output
I0915 12:39:33.197418 11367 net.cpp:399] pool5/7x7_s1 -> pool5/7x7_s1
I0915 12:39:33.197727 11367 net.cpp:141] Setting up pool5/7x7_s1
I0915 12:39:33.197741 11367 net.cpp:148] Top shape: 10 1024 1 1 (10240)
I0915 12:39:33.197746 11367 net.cpp:156] Memory required for data: 551412480
I0915 12:39:33.197751 11367 layer_factory.hpp:77] Creating layer pool5/drop_7x7_s1
I0915 12:39:33.197759 11367 net.cpp:91] Creating Layer pool5/drop_7x7_s1
I0915 12:39:33.197764 11367 net.cpp:425] pool5/drop_7x7_s1 <- pool5/7x7_s1
I0915 12:39:33.197770 11367 net.cpp:386] pool5/drop_7x7_s1 -> pool5/7x7_s1 (in-place)
I0915 12:39:33.197823 11367 net.cpp:141] Setting up pool5/drop_7x7_s1
I0915 12:39:33.197831 11367 net.cpp:148] Top shape: 10 1024 1 1 (10240)
I0915 12:39:33.197835 11367 net.cpp:156] Memory required for data: 551453440
I0915 12:39:33.197840 11367 layer_factory.hpp:77] Creating layer loss3/classifier
I0915 12:39:33.197857 11367 net.cpp:91] Creating Layer loss3/classifier
I0915 12:39:33.197863 11367 net.cpp:425] loss3/classifier <- pool5/7x7_s1
I0915 12:39:33.197870 11367 net.cpp:399] loss3/classifier -> loss3/classifier
I0915 12:39:33.207608 11367 net.cpp:141] Setting up loss3/classifier
I0915 12:39:33.207635 11367 net.cpp:148] Top shape: 10 1000 (10000)
I0915 12:39:33.207640 11367 net.cpp:156] Memory required for data: 551493440
I0915 12:39:33.207650 11367 layer_factory.hpp:77] Creating layer prob
I0915 12:39:33.207665 11367 net.cpp:91] Creating Layer prob
I0915 12:39:33.207672 11367 net.cpp:425] prob <- loss3/classifier
I0915 12:39:33.207680 11367 net.cpp:399] prob -> prob
I0915 12:39:33.208325 11367 net.cpp:141] Setting up prob
I0915 12:39:33.208341 11367 net.cpp:148] Top shape: 10 1000 (10000)
I0915 12:39:33.208346 11367 net.cpp:156] Memory required for data: 551533440
I0915 12:39:33.208351 11367 net.cpp:219] prob does not need backward computation.
I0915 12:39:33.208356 11367 net.cpp:219] loss3/classifier does not need backward computation.
I0915 12:39:33.208361 11367 net.cpp:219] pool5/drop_7x7_s1 does not need backward computation.
I0915 12:39:33.208365 11367 net.cpp:219] pool5/7x7_s1 does not need backward computation.
…
