…
Java HotSpot(TM) 64-Bit Server VM warning: You have loaded library /tmp/cvld3947231336601374205/libopencv_java310.xine1.so which might have disabled stack guard. The VM will try to fix the stack guard now.
It's highly recommended that you fix the library with 'execstack -c <libfile>', or link it with '-z noexecstack'.
WARNING: Logging before InitGoogleLogging() is written to STDERR
I0720 13:44:01.184244 27316 net.cpp:49] Initializing net from parameters: 
name: "CaffeNet"
state {
  phase: TEST
}
layer {
  name: "data"
  type: "Input"
  top: "data"
  input_param {
    shape {
      dim: 10
      dim: 3
      dim: 227
      dim: 227
    }
  }
}
layer {
  name: "conv1"
  type: "Convolution"
  bottom: "data"
  top: "conv1"
  convolution_param {
    num_output: 96
    kernel_size: 11
    stride: 4
  }
}
layer {
  name: "relu1"
  type: "ReLU"
  bottom: "conv1"
  top: "conv1"
}
layer {
  name: "pool1"
  type: "Pooling"
  bottom: "conv1"
  top: "pool1"
  pooling_param {
    pool: MAX
    kernel_size: 3
    stride: 2
  }
}
layer {
  name: "norm1"
  type: "LRN"
  bottom: "pool1"
  top: "norm1"
  lrn_param {
    local_size: 5
    alpha: 0.0001
    beta: 0.75
  }
}
layer {
  name: "conv2"
  type: "Convolution"
  bottom: "norm1"
  top: "conv2"
  convolution_param {
    num_output: 256
    pad: 2
    kernel_size: 5
    group: 2
  }
}
layer {
  name: "relu2"
  type: "ReLU"
  bottom: "conv2"
  top: "conv2"
}
layer {
  name: "pool2"
  type: "Pooling"
  bottom: "conv2"
  top: "pool2"
  pooling_param {
    pool: MAX
    kernel_size: 3
    stride: 2
  }
}
layer {
  name: "norm2"
  type: "LRN"
  bottom: "pool2"
  top: "norm2"
  lrn_param {
    local_size: 5
    alpha: 0.0001
    beta: 0.75
  }
}
layer {
  name: "conv3"
  type: "Convolution"
  bottom: "norm2"
  top: "conv3"
  convolution_param {
    num_output: 384
    pad: 1
    kernel_size: 3
  }
}
layer {
  name: "relu3"
  type: "ReLU"
  bottom: "conv3"
  top: "conv3"
}
layer {
  name: "conv4"
  type: "Convolution"
  bottom: "conv3"
  top: "conv4"
  convolution_param {
    num_output: 384
    pad: 1
    kernel_size: 3
    group: 2
  }
}
layer {
  name: "relu4"
  type: "ReLU"
  bottom: "conv4"
  top: "conv4"
}
layer {
  name: "conv5"
  type: "Convolution"
  bottom: "conv4"
  top: "conv5"
  convolution_param {
    num_output: 256
    pad: 1
    kernel_size: 3
    group: 2
  }
}
layer {
  name: "relu5"
  type: "ReLU"
  bottom: "conv5"
  top: "conv5"
}
layer {
  name: "pool5"
  type: "Pooling"
  bottom: "conv5"
  top: "pool5"
  pooling_param {
    pool: MAX
    kernel_size: 3
    stride: 2
  }
}
layer {
  name: "fc6"
  type: "InnerProduct"
  bottom: "pool5"
  top: "fc6"
  inner_product_param {
    num_output: 4096
  }
}
layer {
  name: "relu6"
  type: "ReLU"
  bottom: "fc6"
  top: "fc6"
}
layer {
  name: "drop6"
  type: "Dropout"
  bottom: "fc6"
  top: "fc6"
  dropout_param {
    dropout_ratio: 0.5
  }
}
layer {
  name: "fc7"
  type: "InnerProduct"
  bottom: "fc6"
  top: "fc7"
  inner_product_param {
    num_output: 4096
  }
}
layer {
  name: "relu7"
  type: "ReLU"
  bottom: "fc7"
  top: "fc7"
}
layer {
  name: "drop7"
  type: "Dropout"
  bottom: "fc7"
  top: "fc7"
  dropout_param {
    dropout_ratio: 0.5
  }
}
layer {
  name: "fc8"
  type: "InnerProduct"
  bottom: "fc7"
  top: "fc8"
  inner_product_param {
    num_output: 1000
  }
}
layer {
  name: "prob"
  type: "Softmax"
  bottom: "fc8"
  top: "prob"
}
I0720 13:44:01.184244 27326 net.cpp:49] Initializing net from parameters: 
name: "CaffeNet"
state {
  phase: TEST
}
layer {
  name: "data"
  type: "Input"
  top: "data"
  input_param {
    shape {
      dim: 10
      dim: 3
      dim: 227
      dim: 227
    }
  }
}
layer {
  name: "conv1"
  type: "Convolution"
  bottom: "data"
  top: "conv1"
  convolution_param {
    num_output: 96
    kernel_size: 11
    stride: 4
  }
}
layer {
  name: "relu1"
  type: "ReLU"
  bottom: "conv1"
  top: "conv1"
}
layer {
  name: "pool1"
  type: "Pooling"
  bottom: "conv1"
  top: "pool1"
  pooling_param {
    pool: MAX
    kernel_size: 3
    stride: 2
  }
}
layer {
  name: "norm1"
  type: "LRN"
  bottom: "pool1"
  top: "norm1"
  lrn_param {
    local_size: 5
    alpha: 0.0001
    beta: 0.75
  }
}
layer {
  name: "conv2"
  type: "Convolution"
  bottom: "norm1"
  top: "conv2"
  convolution_param {
    num_output: 256
    pad: 2
    kernel_size: 5
    group: 2
  }
}
layer {
  name: "relu2"
  type: "ReLU"
  bottom: "conv2"
  top: "conv2"
}
layer {
  name: "pool2"
  type: "Pooling"
  bottom: "conv2"
  top: "pool2"
  pooling_param {
    pool: MAX
    kernel_size: 3
    stride: 2
  }
}
layer {
  name: "norm2"
  type: "LRN"
  bottom: "pool2"
  top: "norm2"
  lrn_param {
    local_size: 5
    alpha: 0.0001
    beta: 0.75
  }
}
layer {
  name: "conv3"
  type: "Convolution"
  bottom: "norm2"
  top: "conv3"
  convolution_param {
    num_output: 384
    pad: 1
    kernel_size: 3
  }
}
layer {
  name: "relu3"
  type: "ReLU"
  bottom: "conv3"
  top: "conv3"
}
layer {
  name: "conv4"
  type: "Convolution"
  bottom: "conv3"
  top: "conv4"
  convolution_param {
    num_output: 384
    pad: 1
    kernel_size: 3
    group: 2
  }
}
layer {
  name: "relu4"
  type: "ReLU"
  bottom: "conv4"
  top: "conv4"
}
layer {
  name: "conv5"
  type: "Convolution"
  bottom: "conv4"
  top: "conv5"
  convolution_param {
    num_output: 256
    pad: 1
    kernel_size: 3
    group: 2
  }
}
layer {
  name: "relu5"
  type: "ReLU"
  bottom: "conv5"
  top: "conv5"
}
layer {
  name: "pool5"
  type: "Pooling"
  bottom: "conv5"
  top: "pool5"
  pooling_param {
    pool: MAX
    kernel_size: 3
    stride: 2
  }
}
layer {
  name: "fc6"
  type: "InnerProduct"
  bottom: "pool5"
  top: "fc6"
  inner_product_param {
    num_output: 4096
  }
}
layer {
  name: "relu6"
  type: "ReLU"
  bottom: "fc6"
  top: "fc6"
}
layer {
  name: "drop6"
  type: "Dropout"
  bottom: "fc6"
  top: "fc6"
  dropout_param {
    dropout_ratio: 0.5
  }
}
layer {
  name: "fc7"
  type: "InnerProduct"
  bottom: "fc6"
  top: "fc7"
  inner_product_param {
    num_output: 4096
  }
}
layer {
  name: "relu7"
  type: "ReLU"
  bottom: "fc7"
  top: "fc7"
}
layer {
  name: "drop7"
  type: "Dropout"
  bottom: "fc7"
  top: "fc7"
  dropout_param {
    dropout_ratio: 0.5
  }
}
layer {
  name: "fc8"
  type: "InnerProduct"
  bottom: "fc7"
  top: "fc8"
  inner_product_param {
    num_output: 1000
  }
}
layer {
  name: "prob"
  type: "Softmax"
  bottom: "fc8"
  top: "prob"
}
I0720 13:44:01.184245 27308 net.cpp:49] Initializing net from parameters: 
name: "CaffeNet"
state {
  phase: TEST
}
layer {
  name: "data"
  type: "Input"
  top: "data"
  input_param {
    shape {
      dim: 10
      dim: 3
      dim: 227
      dim: 227
    }
  }
}
layer {
  name: "conv1"
  type: "Convolution"
  bottom: "data"
  top: "conv1"
  convolution_param {
    num_output: 96
    kernel_size: 11
    stride: 4
  }
}
layer {
  name: "relu1"
  type: "ReLU"
  bottom: "conv1"
  top: "conv1"
}
layer {
  name: "pool1"
  type: "Pooling"
  bottom: "conv1"
  top: "pool1"
  pooling_param {
    pool: MAX
    kernel_size: 3
    stride: 2
  }
}
layer {
  name: "norm1"
  type: "LRN"
  bottom: "pool1"
  top: "norm1"
  lrn_param {
    local_size: 5
    alpha: 0.0001
    beta: 0.75
  }
}
layer {
  name: "conv2"
  type: "Convolution"
  bottom: "norm1"
  top: "conv2"
  convolution_param {
    num_output: 256
    pad: 2
    kernel_size: 5
    group: 2
  }
}
layer {
  name: "relu2"
  type: "ReLU"
  bottom: "conv2"
  top: "conv2"
}
layer {
  name: "pool2"
  type: "Pooling"
  bottom: "conv2"
  top: "pool2"
  pooling_param {
    pool: MAX
    kernel_size: 3
    stride: 2
  }
}
layer {
  name: "norm2"
  type: "LRN"
  bottom: "pool2"
  top: "norm2"
  lrn_param {
    local_size: 5
    alpha: 0.0001
    beta: 0.75
  }
}
layer {
  name: "conv3"
  type: "Convolution"
  bottom: "norm2"
  top: "conv3"
  convolution_param {
    num_output: 384
    pad: 1
    kernel_size: 3
  }
}
layer {
  name: "relu3"
  type: "ReLU"
  bottom: "conv3"
  top: "conv3"
}
layer {
  name: "conv4"
  type: "Convolution"
  bottom: "conv3"
  top: "conv4"
  convolution_param {
    num_output: 384
    pad: 1
    kernel_size: 3
    group: 2
  }
}
layer {
  name: "relu4"
  type: "ReLU"
  bottom: "conv4"
  top: "conv4"
}
layer {
  name: "conv5"
  type: "Convolution"
  bottom: "conv4"
  top: "conv5"
  convolution_param {
    num_output: 256
    pad: 1
    kernel_size: 3
    group: 2
  }
}
layer {
  name: "relu5"
  type: "ReLU"
  bottom: "conv5"
  top: "conv5"
}
layer {
  name: "pool5"
  type: "Pooling"
  bottom: "conv5"
  top: "pool5"
  pooling_param {
    pool: MAX
    kernel_size: 3
    stride: 2
  }
}
layer {
  name: "fc6"
  type: "InnerProduct"
  bottom: "pool5"
  top: "fc6"
  inner_product_param {
    num_output: 4096
  }
}
layer {
  name: "relu6"
  type: "ReLU"
  bottom: "fc6"
  top: "fc6"
}
layer {
  name: "drop6"
  type: "Dropout"
  bottom: "fc6"
  top: "fc6"
  dropout_param {
    dropout_ratio: 0.5
  }
}
layer {
  name: "fc7"
  type: "InnerProduct"
  bottom: "fc6"
  top: "fc7"
  inner_product_param {
    num_output: 4096
  }
}
layer {
  name: "relu7"
  type: "ReLU"
  bottom: "fc7"
  top: "fc7"
}
layer {
  name: "drop7"
  type: "Dropout"
  bottom: "fc7"
  top: "fc7"
  dropout_param {
    dropout_ratio: 0.5
  }
}
layer {
  name: "fc8"
  type: "InnerProduct"
  bottom: "fc7"
  top: "fc8"
  inner_product_param {
    num_output: 1000
  }
}
layer {
  name: "prob"
  type: "Softmax"
  bottom: "fc8"
  top: "prob"
}
I0720 13:44:01.184245 27282 net.cpp:49] Initializing net from parameters: 
name: "CaffeNet"
state {
  phase: TEST
}
layer {
  name: "data"
  type: "Input"
  top: "data"
  input_param {
    shape {
      dim: 10
      dim: 3
      dim: 227
      dim: 227
    }
  }
}
layer {
  name: "conv1"
  type: "Convolution"
  bottom: "data"
  top: "conv1"
  convolution_param {
    num_output: 96
    kernel_size: 11
    stride: 4
  }
}
layer {
  name: "relu1"
  type: "ReLU"
  bottom: "conv1"
  top: "conv1"
}
layer {
  name: "pool1"
  type: "Pooling"
  bottom: "conv1"
  top: "pool1"
  pooling_param {
    pool: MAX
    kernel_size: 3
    stride: 2
  }
}
layer {
  name: "norm1"
  type: "LRN"
  bottom: "pool1"
  top: "norm1"
  lrn_param {
    local_size: 5
    alpha: 0.0001
    beta: 0.75
  }
}
layer {
  name: "conv2"
  type: "Convolution"
  bottom: "norm1"
  top: "conv2"
  convolution_param {
    num_output: 256
    pad: 2
    kernel_size: 5
    group: 2
  }
}
layer {
  name: "relu2"
  type: "ReLU"
  bottom: "conv2"
  top: "conv2"
}
layer {
  name: "pool2"
  type: "Pooling"
  bottom: "conv2"
  top: "pool2"
  pooling_param {
    pool: MAX
    kernel_size: 3
    stride: 2
  }
}
layer {
  name: "norm2"
  type: "LRN"
  bottom: "pool2"
  top: "norm2"
  lrn_param {
    local_size: 5
    alpha: 0.0001
    beta: 0.75
  }
}
layer {
  name: "conv3"
  type: "Convolution"
  bottom: "norm2"
  top: "conv3"
  convolution_param {
    num_output: 384
    pad: 1
    kernel_size: 3
  }
}
layer {
  name: "relu3"
  type: "ReLU"
  bottom: "conv3"
  top: "conv3"
}
layer {
  name: "conv4"
  type: "Convolution"
  bottom: "conv3"
  top: "conv4"
  convolution_param {
    num_output: 384
    pad: 1
    kernel_size: 3
    group: 2
  }
}
layer {
  name: "relu4"
  type: "ReLU"
  bottom: "conv4"
  top: "conv4"
}
layer {
  name: "conv5"
  type: "Convolution"
  bottom: "conv4"
  top: "conv5"
  convolution_param {
    num_output: 256
    pad: 1
    kernel_size: 3
    group: 2
  }
}
layer {
  name: "relu5"
  type: "ReLU"
  bottom: "conv5"
  top: "conv5"
}
layer {
  name: "pool5"
  type: "Pooling"
  bottom: "conv5"
  top: "pool5"
  pooling_param {
    pool: MAX
    kernel_size: 3
    stride: 2
  }
}
layer {
  name: "fc6"
  type: "InnerProduct"
  bottom: "pool5"
  top: "fc6"
  inner_product_param {
    num_output: 4096
  }
}
layer {
  name: "relu6"
  type: "ReLU"
  bottom: "fc6"
  top: "fc6"
}
layer {
  name: "drop6"
  type: "Dropout"
  bottom: "fc6"
  top: "fc6"
  dropout_param {
    dropout_ratio: 0.5
  }
}
layer {
  name: "fc7"
  type: "InnerProduct"
  bottom: "fc6"
  top: "fc7"
  inner_product_param {
    num_output: 4096
  }
}
layer {
  name: "relu7"
  type: "ReLU"
  bottom: "fc7"
  top: "fc7"
}
layer {
  name: "drop7"
  type: "Dropout"
  bottom: "fc7"
  top: "fc7"
  dropout_param {
    dropout_ratio: 0.5
  }
}
layer {
  name: "fc8"
  type: "InnerProduct"
  bottom: "fc7"
  top: "fc8"
  inner_product_param {
    num_output: 1000
  }
}
layer {
  name: "prob"
  type: "Softmax"
  bottom: "fc8"
  top: "prob"
}
I0720 13:44:01.184244 27298 net.cpp:49] Initializing net from parameters: 
name: "CaffeNet"
state {
  phase: TEST
}
layer {
  name: "data"
  type: "Input"
  top: "data"
  input_param {
    shape {
      dim: 10
      dim: 3
      dim: 227
      dim: 227
    }
  }
}
layer {
  name: "conv1"
  type: "Convolution"
  bottom: "data"
  top: "conv1"
  convolution_param {
    num_output: 96
    kernel_size: 11
    stride: 4
  }
}
layer {
  name: "relu1"
  type: "ReLU"
  bottom: "conv1"
  top: "conv1"
}
layer {
  name: "pool1"
  type: "Pooling"
  bottom: "conv1"
  top: "pool1"
  pooling_param {
    pool: MAX
    kernel_size: 3
    stride: 2
  }
}
layer {
  name: "norm1"
  type: "LRN"
  bottom: "pool1"
  top: "norm1"
  lrn_param {
    local_size: 5
    alpha: 0.0001
    beta: 0.75
  }
}
layer {
  name: "conv2"
  type: "Convolution"
  bottom: "norm1"
  top: "conv2"
  convolution_param {
    num_output: 256
    pad: 2
    kernel_size: 5
    group: 2
  }
}
layer {
  name: "relu2"
  type: "ReLU"
  bottom: "conv2"
  top: "conv2"
}
layer {
  name: "pool2"
  type: "Pooling"
  bottom: "conv2"
  top: "pool2"
  pooling_param {
    pool: MAX
    kernel_size: 3
    stride: 2
  }
}
layer {
  name: "norm2"
  type: "LRN"
  bottom: "pool2"
  top: "norm2"
  lrn_param {
    local_size: 5
    alpha: 0.0001
    beta: 0.75
  }
}
layer {
  name: "conv3"
  type: "Convolution"
  bottom: "norm2"
  top: "conv3"
  convolution_param {
    num_output: 384
    pad: 1
    kernel_size: 3
  }
}
layer {
  name: "relu3"
  type: "ReLU"
  bottom: "conv3"
  top: "conv3"
}
layer {
  name: "conv4"
  type: "Convolution"
  bottom: "conv3"
  top: "conv4"
  convolution_param {
    num_output: 384
    pad: 1
    kernel_size: 3
    group: 2
  }
}
layer {
  name: "relu4"
  type: "ReLU"
  bottom: "conv4"
  top: "conv4"
}
layer {
  name: "conv5"
  type: "Convolution"
  bottom: "conv4"
  top: "conv5"
  convolution_param {
    num_output: 256
    pad: 1
    kernel_size: 3
    group: 2
  }
}
layer {
  name: "relu5"
  type: "ReLU"
  bottom: "conv5"
  top: "conv5"
}
layer {
  name: "pool5"
  type: "Pooling"
  bottom: "conv5"
  top: "pool5"
  pooling_param {
    pool: MAX
    kernel_size: 3
    stride: 2
  }
}
layer {
  name: "fc6"
  type: "InnerProduct"
  bottom: "pool5"
  top: "fc6"
  inner_product_param {
    num_output: 4096
  }
}
layer {
  name: "relu6"
  type: "ReLU"
  bottom: "fc6"
  top: "fc6"
}
layer {
  name: "drop6"
  type: "Dropout"
  bottom: "fc6"
  top: "fc6"
  dropout_param {
    dropout_ratio: 0.5
  }
}
layer {
  name: "fc7"
  type: "InnerProduct"
  bottom: "fc6"
  top: "fc7"
  inner_product_param {
    num_output: 4096
  }
}
layer {
  name: "relu7"
  type: "ReLU"
  bottom: "fc7"
  top: "fc7"
}
layer {
  name: "drop7"
  type: "Dropout"
  bottom: "fc7"
  top: "fc7"
  dropout_param {
    dropout_ratio: 0.5
  }
}
layer {
  name: "fc8"
  type: "InnerProduct"
  bottom: "fc7"
  top: "fc8"
  inner_product_param {
    num_output: 1000
  }
}
layer {
  name: "prob"
  type: "Softmax"
  bottom: "fc8"
  top: "prob"
}
I0720 13:44:01.184245 27286 net.cpp:49] Initializing net from parameters: 
name: "CaffeNet"
state {
  phase: TEST
}
layer {
  name: "data"
  type: "Input"
  top: "data"
  input_param {
    shape {
      dim: 10
      dim: 3
      dim: 227
      dim: 227
    }
  }
}
layer {
  name: "conv1"
  type: "Convolution"
  bottom: "data"
  top: "conv1"
  convolution_param {
    num_output: 96
    kernel_size: 11
    stride: 4
  }
}
layer {
  name: "relu1"
  type: "ReLU"
  bottom: "conv1"
  top: "conv1"
}
layer {
  name: "pool1"
  type: "Pooling"
  bottom: "conv1"
  top: "pool1"
  pooling_param {
    pool: MAX
    kernel_size: 3
    stride: 2
  }
}
layer {
  name: "norm1"
  type: "LRN"
  bottom: "pool1"
  top: "norm1"
  lrn_param {
    local_size: 5
    alpha: 0.0001
    beta: 0.75
  }
}
layer {
  name: "conv2"
  type: "Convolution"
  bottom: "norm1"
  top: "conv2"
  convolution_param {
    num_output: 256
    pad: 2
    kernel_size: 5
    group: 2
  }
}
layer {
  name: "relu2"
  type: "ReLU"
  bottom: "conv2"
  top: "conv2"
}
layer {
  name: "pool2"
  type: "Pooling"
  bottom: "conv2"
  top: "pool2"
  pooling_param {
    pool: MAX
    kernel_size: 3
    stride: 2
  }
}
layer {
  name: "norm2"
  type: "LRN"
  bottom: "pool2"
  top: "norm2"
  lrn_param {
    local_size: 5
    alpha: 0.0001
    beta: 0.75
  }
}
layer {
  name: "conv3"
  type: "Convolution"
  bottom: "norm2"
  top: "conv3"
  convolution_param {
    num_output: 384
    pad: 1
    kernel_size: 3
  }
}
layer {
  name: "relu3"
  type: "ReLU"
  bottom: "conv3"
  top: "conv3"
}
layer {
  name: "conv4"
  type: "Convolution"
  bottom: "conv3"
  top: "conv4"
  convolution_param {
    num_output: 384
    pad: 1
    kernel_size: 3
    group: 2
  }
}
layer {
  name: "relu4"
  type: "ReLU"
  bottom: "conv4"
  top: "conv4"
}
layer {
  name: "conv5"
  type: "Convolution"
  bottom: "conv4"
  top: "conv5"
  convolution_param {
    num_output: 256
    pad: 1
    kernel_size: 3
    group: 2
  }
}
layer {
  name: "relu5"
  type: "ReLU"
  bottom: "conv5"
  top: "conv5"
}
layer {
  name: "pool5"
  type: "Pooling"
  bottom: "conv5"
  top: "pool5"
  pooling_param {
    pool: MAX
    kernel_size: 3
    stride: 2
  }
}
layer {
  name: "fc6"
  type: "InnerProduct"
  bottom: "pool5"
  top: "fc6"
  inner_product_param {
    num_output: 4096
  }
}
layer {
  name: "relu6"
  type: "ReLU"
  bottom: "fc6"
  top: "fc6"
}
layer {
  name: "drop6"
  type: "Dropout"
  bottom: "fc6"
  top: "fc6"
  dropout_param {
    dropout_ratio: 0.5
  }
}
layer {
  name: "fc7"
  type: "InnerProduct"
  bottom: "fc6"
  top: "fc7"
  inner_product_param {
    num_output: 4096
  }
}
layer {
  name: "relu7"
  type: "ReLU"
  bottom: "fc7"
  top: "fc7"
}
layer {
  name: "drop7"
  type: "Dropout"
  bottom: "fc7"
  top: "fc7"
  dropout_param {
    dropout_ratio: 0.5
  }
}
layer {
  name: "fc8"
  type: "InnerProduct"
  bottom: "fc7"
  top: "fc8"
  inner_product_param {
    num_output: 1000
  }
}
layer {
  name: "prob"
  type: "Softmax"
  bottom: "fc8"
  top: "prob"
}
I0720 13:44:01.184445 27316 layer_factory.hpp:77] Creating layer data
I0720 13:44:01.184453 27308 layer_factory.hpp:77] Creating layer data
I0720 13:44:01.184453 27282 layer_factory.hpp:77] Creating layer data
I0720 13:44:01.184453 27290 net.cpp:49] Initializing net from parameters: 
name: "CaffeNet"
state {
  phase: TEST
}
layer {
  name: "data"
  type: "Input"
  top: "data"
  input_param {
    shape {
      dim: 10
      dim: 3
      dim: 227
      dim: 227
    }
  }
}
layer {
  name: "conv1"
  type: "Convolution"
  bottom: "data"
  top: "conv1"
  convolution_param {
    num_output: 96
    kernel_size: 11
    stride: 4
  }
}
layer {
  name: "relu1"
  type: "ReLU"
  bottom: "conv1"
  top: "conv1"
}
layer {
  name: "pool1"
  type: "Pooling"
  bottom: "conv1"
  top: "pool1"
  pooling_param {
    pool: MAX
    kernel_size: 3
    stride: 2
  }
}
layer {
  name: "norm1"
  type: "LRN"
  bottom: "pool1"
  top: "norm1"
  lrn_param {
    local_size: 5
    alpha: 0.0001
    beta: 0.75
  }
}
layer {
  name: "conv2"
  type: "Convolution"
  bottom: "norm1"
  top: "conv2"
  convolution_param {
    num_output: 256
    pad: 2
    kernel_size: 5
    group: 2
  }
}
layer {
  name: "relu2"
  type: "ReLU"
  bottom: "conv2"
  top: "conv2"
}
layer {
  name: "pool2"
  type: "Pooling"
  bottom: "conv2"
  top: "pool2"
  pooling_param {
    pool: MAX
    kernel_size: 3
    stride: 2
  }
}
layer {
  name: "norm2"
  type: "LRN"
  bottom: "pool2"
  top: "norm2"
  lrn_param {
    local_size: 5
    alpha: 0.0001
    beta: 0.75
  }
}
layer {
  name: "conv3"
  type: "Convolution"
  bottom: "norm2"
  top: "conv3"
  convolution_param {
    num_output: 384
    pad: 1
    kernel_size: 3
  }
}
layer {
  name: "relu3"
  type: "ReLU"
  bottom: "conv3"
  top: "conv3"
}
layer {
  name: "conv4"
  type: "Convolution"
  bottom: "conv3"
  top: "conv4"
  convolution_param {
    num_output: 384
    pad: 1
    kernel_size: 3
    group: 2
  }
}
layer {
  name: "relu4"
  type: "ReLU"
  bottom: "conv4"
  top: "conv4"
}
layer {
  name: "conv5"
  type: "Convolution"
  bottom: "conv4"
  top: "conv5"
  convolution_param {
    num_output: 256
    pad: 1
    kernel_size: 3
    group: 2
  }
}
layer {
  name: "relu5"
  type: "ReLU"
  bottom: "conv5"
  top: "conv5"
}
layer {
  name: "pool5"
  type: "Pooling"
  bottom: "conv5"
  top: "pool5"
  pooling_param {
    pool: MAX
    kernel_size: 3
    stride: 2
  }
}
layer {
  name: "fc6"
  type: "InnerProduct"
  bottom: "pool5"
  top: "fc6"
  inner_product_param {
    num_output: 4096
  }
}
layer {
  name: "relu6"
  type: "ReLU"
  bottom: "fc6"
  top: "fc6"
}
layer {
  name: "drop6"
  type: "Dropout"
  bottom: "fc6"
  top: "fc6"
  dropout_param {
    dropout_ratio: 0.5
  }
}
layer {
  name: "fc7"
  type: "InnerProduct"
  bottom: "fc6"
  top: "fc7"
  inner_product_param {
    num_output: 4096
  }
}
layer {
  name: "relu7"
  type: "ReLU"
  bottom: "fc7"
  top: "fc7"
}
layer {
  name: "drop7"
  type: "Dropout"
  bottom: "fc7"
  top: "fc7"
  dropout_param {
    dropout_ratio: 0.5
  }
}
layer {
  name: "fc8"
  type: "InnerProduct"
  bottom: "fc7"
  top: "fc8"
  inner_product_param {
    num_output: 1000
  }
}
layer {
  name: "prob"
  type: "Softmax"
  bottom: "fc8"
  top: "prob"
}
I0720 13:44:01.184476 27282 net.cpp:91] Creating Layer data
I0720 13:44:01.184480 27286 layer_factory.hpp:77] Creating layer data
I0720 13:44:01.184473 27316 net.cpp:91] Creating Layer data
I0720 13:44:01.184474 27308 net.cpp:91] Creating Layer data
I0720 13:44:01.184484 27294 net.cpp:49] Initializing net from parameters: 
name: "CaffeNet"
state {
  phase: TEST
}
layer {
  name: "data"
  type: "Input"
  top: "data"
  input_param {
    shape {
      dim: 10
      dim: 3
      dim: 227
      dim: 227
    }
  }
}
layer {
  name: "conv1"
  type: "Convolution"
  bottom: "data"
  top: "conv1"
  convolution_param {
    num_output: 96
    kernel_size: 11
    stride: 4
  }
}
layer {
  name: "relu1"
  type: "ReLU"
  bottom: "conv1"
  top: "conv1"
}
layer {
  name: "pool1"
  type: "Pooling"
  bottom: "conv1"
  top: "pool1"
  pooling_param {
    pool: MAX
    kernel_size: 3
    stride: 2
  }
}
layer {
  name: "norm1"
  type: "LRN"
  bottom: "pool1"
  top: "norm1"
  lrn_param {
    local_size: 5
    alpha: 0.0001
    beta: 0.75
  }
}
layer {
  name: "conv2"
  type: "Convolution"
  bottom: "norm1"
  top: "conv2"
  convolution_param {
    num_output: 256
    pad: 2
    kernel_size: 5
    group: 2
  }
}
layer {
  name: "relu2"
  type: "ReLU"
  bottom: "conv2"
  top: "conv2"
}
layer {
  name: "pool2"
  type: "Pooling"
  bottom: "conv2"
  top: "pool2"
  pooling_param {
    pool: MAX
    kernel_size: 3
    stride: 2
  }
}
layer {
  name: "norm2"
  type: "LRN"
  bottom: "pool2"
  top: "norm2"
  lrn_param {
    local_size: 5
    alpha: 0.0001
    beta: 0.75
  }
}
layer {
  name: "conv3"
  type: "Convolution"
  bottom: "norm2"
  top: "conv3"
  convolution_param {
    num_output: 384
    pad: 1
    kernel_size: 3
  }
}
layer {
  name: "relu3"
  type: "ReLU"
  bottom: "conv3"
  top: "conv3"
}
layer {
  name: "conv4"
  type: "Convolution"
  bottom: "conv3"
  top: "conv4"
  convolution_param {
    num_output: 384
    pad: 1
    kernel_size: 3
    group: 2
  }
}
layer {
  name: "relu4"
  type: "ReLU"
  bottom: "conv4"
  top: "conv4"
}
layer {
  name: "conv5"
  type: "Convolution"
  bottom: "conv4"
  top: "conv5"
  convolution_param {
    num_output: 256
    pad: 1
    kernel_size: 3
    group: 2
  }
}
layer {
  name: "relu5"
  type: "ReLU"
  bottom: "conv5"
  top: "conv5"
}
layer {
  name: "pool5"
  type: "Pooling"
  bottom: "conv5"
  top: "pool5"
  pooling_param {
    pool: MAX
    kernel_size: 3
    stride: 2
  }
}
layer {
  name: "fc6"
  type: "InnerProduct"
  bottom: "pool5"
  top: "fc6"
  inner_product_param {
    num_output: 4096
  }
}
layer {
  name: "relu6"
  type: "ReLU"
  bottom: "fc6"
  top: "fc6"
}
layer {
  name: "drop6"
  type: "Dropout"
  bottom: "fc6"
  top: "fc6"
  dropout_param {
    dropout_ratio: 0.5
  }
}
layer {
  name: "fc7"
  type: "InnerProduct"
  bottom: "fc6"
  top: "fc7"
  inner_product_param {
    num_output: 4096
  }
}
layer {
  name: "relu7"
  type: "ReLU"
  bottom: "fc7"
  top: "fc7"
}
layer {
  name: "drop7"
  type: "Dropout"
  bottom: "fc7"
  top: "fc7"
  dropout_param {
    dropout_ratio: 0.5
  }
}
layer {
  name: "fc8"
  type: "InnerProduct"
  bottom: "fc7"
  top: "fc8"
  inner_product_param {
    num_output: 1000
  }
}
layer {
  name: "prob"
  type: "Softmax"
  bottom: "fc8"
  top: "prob"
}
I0720 13:44:01.184494 27282 net.cpp:399] data -> data
I0720 13:44:01.184504 27308 net.cpp:399] data -> data
I0720 13:44:01.184484 27314 net.cpp:49] Initializing net from parameters: 
name: "CaffeNet"
state {
  phase: TEST
}
layer {
  name: "data"
  type: "Input"
  top: "data"
  input_param {
    shape {
      dim: 10
      dim: 3
      dim: 227
      dim: 227
    }
  }
}
layer {
  name: "conv1"
  type: "Convolution"
  bottom: "data"
  top: "conv1"
  convolution_param {
    num_output: 96
    kernel_size: 11
    stride: 4
  }
}
layer {
  name: "relu1"
  type: "ReLU"
  bottom: "conv1"
  top: "conv1"
}
layer {
  name: "pool1"
  type: "Pooling"
  bottom: "conv1"
  top: "pool1"
  pooling_param {
    pool: MAX
    kernel_size: 3
    stride: 2
  }
}
layer {
  name: "norm1"
  type: "LRN"
  bottom: "pool1"
  top: "norm1"
  lrn_param {
    local_size: 5
    alpha: 0.0001
    beta: 0.75
  }
}
layer {
  name: "conv2"
  type: "Convolution"
  bottom: "norm1"
  top: "conv2"
  convolution_param {
    num_output: 256
    pad: 2
    kernel_size: 5
    group: 2
  }
}
layer {
  name: "relu2"
  type: "ReLU"
  bottom: "conv2"
  top: "conv2"
}
layer {
  name: "pool2"
  type: "Pooling"
  bottom: "conv2"
  top: "pool2"
  pooling_param {
    pool: MAX
    kernel_size: 3
    stride: 2
  }
}
layer {
  name: "norm2"
  type: "LRN"
  bottom: "pool2"
  top: "norm2"
  lrn_param {
    local_size: 5
    alpha: 0.0001
    beta: 0.75
  }
}
layer {
  name: "conv3"
  type: "Convolution"
  bottom: "norm2"
  top: "conv3"
  convolution_param {
    num_output: 384
    pad: 1
    kernel_size: 3
  }
}
layer {
  name: "relu3"
  type: "ReLU"
  bottom: "conv3"
  top: "conv3"
}
layer {
  name: "conv4"
  type: "Convolution"
  bottom: "conv3"
  top: "conv4"
  convolution_param {
    num_output: 384
    pad: 1
    kernel_size: 3
    group: 2
  }
}
layer {
  name: "relu4"
  type: "ReLU"
  bottom: "conv4"
  top: "conv4"
}
layer {
  name: "conv5"
  type: "Convolution"
  bottom: "conv4"
  top: "conv5"
  convolution_param {
    num_output: 256
    pad: 1
    kernel_size: 3
    group: 2
  }
}
layer {
  name: "relu5"
  type: "ReLU"
  bottom: "conv5"
  top: "conv5"
}
layer {
  name: "pool5"
  type: "Pooling"
  bottom: "conv5"
  top: "pool5"
  pooling_param {
    pool: MAX
    kernel_size: 3
    stride: 2
  }
}
layer {
  name: "fc6"
  type: "InnerProduct"
  bottom: "pool5"
  top: "fc6"
  inner_product_param {
    num_output: 4096
  }
}
layer {
  name: "relu6"
  type: "ReLU"
  bottom: "fc6"
  top: "fc6"
}
layer {
  name: "drop6"
  type: "Dropout"
  bottom: "fc6"
  top: "fc6"
  dropout_param {
    dropout_ratio: 0.5
  }
}
layer {
  name: "fc7"
  type: "InnerProduct"
  bottom: "fc6"
  top: "fc7"
  inner_product_param {
    num_output: 4096
  }
}
layer {
  name: "relu7"
  type: "ReLU"
  bottom: "fc7"
  top: "fc7"
}
layer {
  name: "drop7"
  type: "Dropout"
  bottom: "fc7"
  top: "fc7"
  dropout_param {
    dropout_ratio: 0.5
  }
}
layer {
  name: "fc8"
  type: "InnerProduct"
  bottom: "fc7"
  top: "fc8"
  inner_product_param {
    num_output: 1000
  }
}
layer {
  name: "prob"
  type: "Softmax"
  bottom: "fc8"
  top: "prob"
}
I0720 13:44:01.184453 27310 net.cpp:49] Initializing net from parameters: 
name: "CaffeNet"
state {
  phase: TEST
}
layer {
  name: "data"
  type: "Input"
  top: "data"
  input_param {
    shape {
      dim: 10
      dim: 3
      dim: 227
      dim: 227
    }
  }
}
layer {
  name: "conv1"
  type: "Convolution"
  bottom: "data"
  top: "conv1"
  convolution_param {
    num_output: 96
    kernel_size: 11
    stride: 4
  }
}
layer {
  name: "relu1"
  type: "ReLU"
  bottom: "conv1"
  top: "conv1"
}
layer {
  name: "pool1"
  type: "Pooling"
  bottom: "conv1"
  top: "pool1"
  pooling_param {
    pool: MAX
    kernel_size: 3
    stride: 2
  }
}
layer {
  name: "norm1"
  type: "LRN"
  bottom: "pool1"
  top: "norm1"
  lrn_param {
    local_size: 5
    alpha: 0.0001
    beta: 0.75
  }
}
layer {
  name: "conv2"
  type: "Convolution"
  bottom: "norm1"
  top: "conv2"
  convolution_param {
    num_output: 256
    pad: 2
    kernel_size: 5
    group: 2
  }
}
layer {
  name: "relu2"
  type: "ReLU"
  bottom: "conv2"
  top: "conv2"
}
layer {
  name: "pool2"
  type: "Pooling"
  bottom: "conv2"
  top: "pool2"
  pooling_param {
    pool: MAX
    kernel_size: 3
    stride: 2
  }
}
layer {
  name: "norm2"
  type: "LRN"
  bottom: "pool2"
  top: "norm2"
  lrn_param {
    local_size: 5
    alpha: 0.0001
    beta: 0.75
  }
}
layer {
  name: "conv3"
  type: "Convolution"
  bottom: "norm2"
  top: "conv3"
  convolution_param {
    num_output: 384
    pad: 1
    kernel_size: 3
  }
}
layer {
  name: "relu3"
  type: "ReLU"
  bottom: "conv3"
  top: "conv3"
}
layer {
  name: "conv4"
  type: "Convolution"
  bottom: "conv3"
  top: "conv4"
  convolution_param {
    num_output: 384
    pad: 1
    kernel_size: 3
    group: 2
  }
}
layer {
  name: "relu4"
  type: "ReLU"
  bottom: "conv4"
  top: "conv4"
}
layer {
  name: "conv5"
  type: "Convolution"
  bottom: "conv4"
  top: "conv5"
  convolution_param {
    num_output: 256
    pad: 1
    kernel_size: 3
    group: 2
  }
}
layer {
  name: "relu5"
  type: "ReLU"
  bottom: "conv5"
  top: "conv5"
}
layer {
  name: "pool5"
  type: "Pooling"
  bottom: "conv5"
  top: "pool5"
  pooling_param {
    pool: MAX
    kernel_size: 3
    stride: 2
  }
}
layer {
  name: "fc6"
  type: "InnerProduct"
  bottom: "pool5"
  top: "fc6"
  inner_product_param {
    num_output: 4096
  }
}
layer {
  name: "relu6"
  type: "ReLU"
  bottom: "fc6"
  top: "fc6"
}
layer {
  name: "drop6"
  type: "Dropout"
  bottom: "fc6"
  top: "fc6"
  dropout_param {
    dropout_ratio: 0.5
  }
}
layer {
  name: "fc7"
  type: "InnerProduct"
  bottom: "fc6"
  top: "fc7"
  inner_product_param {
    num_output: 4096
  }
}
layer {
  name: "relu7"
  type: "ReLU"
  bottom: "fc7"
  top: "fc7"
}
layer {
  name: "drop7"
  type: "Dropout"
  bottom: "fc7"
  top: "fc7"
  dropout_param {
    dropout_ratio: 0.5
  }
}
layer {
  name: "fc8"
  type: "InnerProduct"
  bottom: "fc7"
  top: "fc8"
  inner_product_param {
    num_output: 1000
  }
}
layer {
  name: "prob"
  type: "Softmax"
  bottom: "fc8"
  top: "prob"
}
I0720 13:44:01.184460 27326 layer_factory.hpp:77] Creating layer data
I0720 13:44:01.184502 27316 net.cpp:399] data -> data
I0720 13:44:01.184497 27286 net.cpp:91] Creating Layer data
I0720 13:44:01.184543 27326 net.cpp:91] Creating Layer data
I0720 13:44:01.184494 27298 layer_factory.hpp:77] Creating layer data
I0720 13:44:01.184554 27286 net.cpp:399] data -> data
I0720 13:44:01.184556 27326 net.cpp:399] data -> data
I0720 13:44:01.184567 27282 net.cpp:141] Setting up data
I0720 13:44:01.184566 27316 net.cpp:141] Setting up data
I0720 13:44:01.184567 27298 net.cpp:91] Creating Layer data
I0720 13:44:01.184566 27308 net.cpp:141] Setting up data
I0720 13:44:01.184594 27298 net.cpp:399] data -> data
I0720 13:44:01.184576 27286 net.cpp:141] Setting up data
I0720 13:44:01.184597 27290 layer_factory.hpp:77] Creating layer data
I0720 13:44:01.184607 27316 net.cpp:148] Top shape: 10 3 227 227 (1545870)
I0720 13:44:01.184589 27326 net.cpp:141] Setting up data
I0720 13:44:01.184607 27282 net.cpp:148] Top shape: 10 3 227 227 (1545870)
I0720 13:44:01.184617 27316 net.cpp:156] Memory required for data: 6183480
I0720 13:44:01.184610 27308 net.cpp:148] Top shape: 10 3 227 227 (1545870)
I0720 13:44:01.184617 27298 net.cpp:141] Setting up data
I0720 13:44:01.184623 27314 layer_factory.hpp:77] Creating layer data
I0720 13:44:01.184634 27308 net.cpp:156] Memory required for data: 6183480
I0720 13:44:01.184634 27310 layer_factory.hpp:77] Creating layer data
I0720 13:44:01.184625 27282 net.cpp:156] Memory required for data: 6183480
I0720 13:44:01.184633 27316 layer_factory.hpp:77] Creating layer conv1
I0720 13:44:01.184650 27314 net.cpp:91] Creating Layer data
I0720 13:44:01.184623 27294 layer_factory.hpp:77] Creating layer data
I0720 13:44:01.184658 27310 net.cpp:91] Creating Layer data
I0720 13:44:01.184620 27290 net.cpp:91] Creating Layer data
I0720 13:44:01.184643 27298 net.cpp:148] Top shape: 10 3 227 227 (1545870)
I0720 13:44:01.184665 27314 net.cpp:399] data -> data
I0720 13:44:01.184646 27308 layer_factory.hpp:77] Creating layer conv1
I0720 13:44:01.184670 27294 net.cpp:91] Creating Layer data
I0720 13:44:01.184677 27298 net.cpp:156] Memory required for data: 6183480
I0720 13:44:01.184679 27290 net.cpp:399] data -> data
I0720 13:44:01.184630 27326 net.cpp:148] Top shape: 10 3 227 227 (1545870)
I0720 13:44:01.184655 27282 layer_factory.hpp:77] Creating layer conv1
I0720 13:44:01.184691 27308 net.cpp:91] Creating Layer conv1
I0720 13:44:01.184612 27286 net.cpp:148] Top shape: 10 3 227 227 (1545870)
I0720 13:44:01.184691 27298 layer_factory.hpp:77] Creating layer conv1
I0720 13:44:01.184671 27310 net.cpp:399] data -> data
I0720 13:44:01.184705 27308 net.cpp:425] conv1 <- data
I0720 13:44:01.184706 27282 net.cpp:91] Creating Layer conv1
I0720 13:44:01.184695 27326 net.cpp:156] Memory required for data: 6183480
I0720 13:44:01.184705 27286 net.cpp:156] Memory required for data: 6183480
I0720 13:44:01.184671 27316 net.cpp:91] Creating Layer conv1
I0720 13:44:01.184689 27294 net.cpp:399] data -> data
I0720 13:44:01.184703 27290 net.cpp:141] Setting up data
I0720 13:44:01.184725 27286 layer_factory.hpp:77] Creating layer conv1
I0720 13:44:01.184727 27316 net.cpp:425] conv1 <- data
I0720 13:44:01.184723 27326 layer_factory.hpp:77] Creating layer conv1
I0720 13:44:01.184722 27310 net.cpp:141] Setting up data
I0720 13:44:01.184716 27298 net.cpp:91] Creating Layer conv1
I0720 13:44:01.184689 27314 net.cpp:141] Setting up data
I0720 13:44:01.184741 27290 net.cpp:148] Top shape: 10 3 227 227 (1545870)
I0720 13:44:01.184743 27316 net.cpp:399] conv1 -> conv1
I0720 13:44:01.184747 27310 net.cpp:148] Top shape: 10 3 227 227 (1545870)
I0720 13:44:01.184749 27326 net.cpp:91] Creating Layer conv1
I0720 13:44:01.184721 27308 net.cpp:399] conv1 -> conv1
I0720 13:44:01.184754 27290 net.cpp:156] Memory required for data: 6183480
I0720 13:44:01.184757 27310 net.cpp:156] Memory required for data: 6183480
I0720 13:44:01.184717 27282 net.cpp:425] conv1 <- data
I0720 13:44:01.184762 27326 net.cpp:425] conv1 <- data
I0720 13:44:01.184756 27314 net.cpp:148] Top shape: 10 3 227 227 (1545870)
I0720 13:44:01.184768 27310 layer_factory.hpp:77] Creating layer conv1
I0720 13:44:01.184768 27290 layer_factory.hpp:77] Creating layer conv1
I0720 13:44:01.184748 27298 net.cpp:425] conv1 <- data
I0720 13:44:01.184742 27286 net.cpp:91] Creating Layer conv1
I0720 13:44:01.184741 27294 net.cpp:141] Setting up data
I0720 13:44:01.184790 27286 net.cpp:425] conv1 <- data
I0720 13:44:01.184787 27310 net.cpp:91] Creating Layer conv1
I0720 13:44:01.184793 27298 net.cpp:399] conv1 -> conv1
I0720 13:44:01.184780 27326 net.cpp:399] conv1 -> conv1
I0720 13:44:01.184801 27286 net.cpp:399] conv1 -> conv1
I0720 13:44:01.184779 27314 net.cpp:156] Memory required for data: 6183480
I0720 13:44:01.184787 27290 net.cpp:91] Creating Layer conv1
I0720 13:44:01.184803 27294 net.cpp:148] Top shape: 10 3 227 227 (1545870)
I0720 13:44:01.184804 27310 net.cpp:425] conv1 <- data
I0720 13:44:01.184775 27282 net.cpp:399] conv1 -> conv1
I0720 13:44:01.184821 27290 net.cpp:425] conv1 <- data
I0720 13:44:01.184821 27294 net.cpp:156] Memory required for data: 6183480
I0720 13:44:01.184831 27310 net.cpp:399] conv1 -> conv1
I0720 13:44:01.184841 27290 net.cpp:399] conv1 -> conv1
I0720 13:44:01.184844 27294 layer_factory.hpp:77] Creating layer conv1
…
W0720 13:44:01.867153 27274 upgrade_proto.cpp:71] Note that future Caffe releases will only support input layers and not input fields.
I0720 13:44:01.867518 27274 net.cpp:49] Initializing net from parameters: 
name: "s2vt:features_to_lstm"
state {
  phase: TEST
}
layer {
  name: "input"
  type: "Input"
  top: "frames_fc7"
  top: "cont_sentence"
  top: "input_sentence"
  top: "stage_indicator"
  input_param {
    shape {
      dim: 1
      dim: 4096
    }
    shape {
      dim: 1
      dim: 1
    }
    shape {
      dim: 1
      dim: 1
    }
    shape {
      dim: 1
      dim: 1
    }
  }
}
layer {
  name: "embed_encoder"
  type: "InnerProduct"
  bottom: "frames_fc7"
  top: "embedded_in_frames"
  param {
    lr_mult: 1
    decay_mult: 1
  }
  param {
    lr_mult: 2
    decay_mult: 0
  }
  inner_product_param {
    num_output: 500
    weight_filler {
      type: "xavier"
    }
    bias_filler {
      type: "constant"
      value: 0.2
    }
  }
}
layer {
  name: "reshape_frames"
  type: "Reshape"
  bottom: "embedded_in_frames"
  top: "embedded_input_frames"
  reshape_param {
    shape {
      dim: 1
      dim: 1
      dim: 500
    }
  }
}
layer {
  name: "reshape_stage_indicator"
  type: "Reshape"
  bottom: "stage_indicator"
  top: "reshaped_stage_indicator"
  reshape_param {
    shape {
      dim: 1
      dim: 1
      dim: 1
    }
  }
}
layer {
  name: "embedding"
  type: "Embed"
  bottom: "input_sentence"
  top: "embedded_input_sentence"
  param {
    lr_mult: 1
  }
  embed_param {
    num_output: 500
    input_dim: 46168
    bias_term: false
    weight_filler {
      type: "uniform"
      min: -0.08
      max: 0.08
    }
  }
}
layer {
  name: "lstm1"
  type: "LSTM"
  bottom: "embedded_input_frames"
  bottom: "cont_sentence"
  top: "lstm1"
  recurrent_param {
    num_output: 1000
    weight_filler {
      type: "uniform"
      min: -0.08
      max: 0.08
    }
    bias_filler {
      type: "constant"
      value: 0
    }
  }
}
layer {
  name: "concat"
  type: "Concat"
  bottom: "lstm1"
  bottom: "embedded_input_sentence"
  bottom: "reshaped_stage_indicator"
  top: "lstm1_video_sequence"
  concat_param {
    concat_dim: 2
  }
}
layer {
  name: "lstm2"
  type: "LSTM"
  bottom: "lstm1_video_sequence"
  bottom: "cont_sentence"
  top: "lstm2"
  recurrent_param {
    num_output: 1000
    weight_filler {
      type: "uniform"
      min: -0.08
      max: 0.08
    }
    bias_filler {
      type: "constant"
      value: 0
    }
  }
}
layer {
  name: "predict"
  type: "InnerProduct"
  bottom: "lstm2"
  top: "predict"
  param {
    lr_mult: 1
    decay_mult: 1
  }
  param {
    lr_mult: 2
    decay_mult: 0
  }
  inner_product_param {
    num_output: 46168
    weight_filler {
      type: "uniform"
      min: -0.08
      max: 0.08
    }
    bias_filler {
      type: "constant"
      value: 0
    }
    axis: 2
  }
}
layer {
  name: "probs"
  type: "Softmax"
  bottom: "predict"
  top: "probs"
  softmax_param {
    axis: 2
  }
}
I0720 13:44:01.867658 27274 layer_factory.hpp:77] Creating layer input
I0720 13:44:01.867679 27274 net.cpp:91] Creating Layer input
I0720 13:44:01.867692 27274 net.cpp:399] input -> frames_fc7
I0720 13:44:01.867717 27274 net.cpp:399] input -> cont_sentence
I0720 13:44:01.867733 27274 net.cpp:399] input -> input_sentence
I0720 13:44:01.867748 27274 net.cpp:399] input -> stage_indicator
I0720 13:44:01.867769 27274 net.cpp:141] Setting up input
I0720 13:44:01.867782 27274 net.cpp:148] Top shape: 1 4096 (4096)
I0720 13:44:01.867794 27274 net.cpp:148] Top shape: 1 1 (1)
I0720 13:44:01.867802 27274 net.cpp:148] Top shape: 1 1 (1)
I0720 13:44:01.867812 27274 net.cpp:148] Top shape: 1 1 (1)
I0720 13:44:01.867818 27274 net.cpp:156] Memory required for data: 16396
I0720 13:44:01.867826 27274 layer_factory.hpp:77] Creating layer cont_sentence_input_1_split
I0720 13:44:01.867856 27274 net.cpp:91] Creating Layer cont_sentence_input_1_split
I0720 13:44:01.867864 27274 net.cpp:425] cont_sentence_input_1_split <- cont_sentence
I0720 13:44:01.867895 27274 net.cpp:399] cont_sentence_input_1_split -> cont_sentence_input_1_split_0
I0720 13:44:01.867910 27274 net.cpp:399] cont_sentence_input_1_split -> cont_sentence_input_1_split_1
I0720 13:44:01.867928 27274 net.cpp:141] Setting up cont_sentence_input_1_split
I0720 13:44:01.867940 27274 net.cpp:148] Top shape: 1 1 (1)
I0720 13:44:01.867949 27274 net.cpp:148] Top shape: 1 1 (1)
I0720 13:44:01.867956 27274 net.cpp:156] Memory required for data: 16404
I0720 13:44:01.867964 27274 layer_factory.hpp:77] Creating layer embed_encoder
I0720 13:44:01.867985 27274 net.cpp:91] Creating Layer embed_encoder
I0720 13:44:01.867995 27274 net.cpp:425] embed_encoder <- frames_fc7
I0720 13:44:01.868010 27274 net.cpp:399] embed_encoder -> embedded_in_frames
I0720 13:44:01.868576 27318 upgrade_proto.cpp:66] Attempting to upgrade input file specified using deprecated input fields: /tmp/cvld3947231336601374205/s2vt.words_to_preds.prototxt
I0720 13:44:01.868597 27318 upgrade_proto.cpp:69] Successfully upgraded file specified using deprecated input fields.
W0720 13:44:01.868607 27318 upgrade_proto.cpp:71] Note that future Caffe releases will only support input layers and not input fields.
I0720 13:44:01.868916 27318 net.cpp:49] Initializing net from parameters: 
name: "s2vt:features_to_lstm"
state {
  phase: TEST
}
layer {
  name: "input"
  type: "Input"
  top: "frames_fc7"
  top: "cont_sentence"
  top: "input_sentence"
  top: "stage_indicator"
  input_param {
    shape {
      dim: 1
      dim: 4096
    }
    shape {
      dim: 1
      dim: 1
    }
    shape {
      dim: 1
      dim: 1
    }
    shape {
      dim: 1
      dim: 1
    }
  }
}
layer {
  name: "embed_encoder"
  type: "InnerProduct"
  bottom: "frames_fc7"
  top: "embedded_in_frames"
  param {
    lr_mult: 1
    decay_mult: 1
  }
  param {
    lr_mult: 2
    decay_mult: 0
  }
  inner_product_param {
    num_output: 500
    weight_filler {
      type: "xavier"
    }
    bias_filler {
      type: "constant"
      value: 0.2
    }
  }
}
layer {
  name: "reshape_frames"
  type: "Reshape"
  bottom: "embedded_in_frames"
  top: "embedded_input_frames"
  reshape_param {
    shape {
      dim: 1
      dim: 1
      dim: 500
    }
  }
}
layer {
  name: "reshape_stage_indicator"
  type: "Reshape"
  bottom: "stage_indicator"
  top: "reshaped_stage_indicator"
  reshape_param {
    shape {
      dim: 1
      dim: 1
      dim: 1
    }
  }
}
layer {
  name: "embedding"
  type: "Embed"
  bottom: "input_sentence"
  top: "embedded_input_sentence"
  param {
    lr_mult: 1
  }
  embed_param {
    num_output: 500
    input_dim: 46168
    bias_term: false
    weight_filler {
      type: "uniform"
      min: -0.08
      max: 0.08
    }
  }
}
layer {
  name: "lstm1"
  type: "LSTM"
  bottom: "embedded_input_frames"
  bottom: "cont_sentence"
  top: "lstm1"
  recurrent_param {
    num_output: 1000
    weight_filler {
      type: "uniform"
      min: -0.08
      max: 0.08
    }
    bias_filler {
      type: "constant"
      value: 0
    }
  }
}
layer {
  name: "concat"
  type: "Concat"
  bottom: "lstm1"
  bottom: "embedded_input_sentence"
  bottom: "reshaped_stage_indicator"
  top: "lstm1_video_sequence"
  concat_param {
    concat_dim: 2
  }
}
layer {
  name: "lstm2"
  type: "LSTM"
  bottom: "lstm1_video_sequence"
  bottom: "cont_sentence"
  top: "lstm2"
  recurrent_param {
    num_output: 1000
    weight_filler {
      type: "uniform"
      min: -0.08
      max: 0.08
    }
    bias_filler {
      type: "constant"
      value: 0
    }
  }
}
layer {
  name: "predict"
  type: "InnerProduct"
  bottom: "lstm2"
  top: "predict"
  param {
    lr_mult: 1
    decay_mult: 1
  }
  param {
    lr_mult: 2
    decay_mult: 0
  }
  inner_product_param {
    num_output: 46168
    weight_filler {
      type: "uniform"
      min: -0.08
      max: 0.08
    }
    bias_filler {
      type: "constant"
      value: 0
    }
    axis: 2
  }
}
layer {
  name: "probs"
  type: "Softmax"
  bottom: "predict"
  top: "probs"
  softmax_param {
    axis: 2
  }
}
I0720 13:44:01.869036 27318 layer_factory.hpp:77] Creating layer input
I0720 13:44:01.869055 27318 net.cpp:91] Creating Layer input
I0720 13:44:01.869067 27318 net.cpp:399] input -> frames_fc7
I0720 13:44:01.869087 27318 net.cpp:399] input -> cont_sentence
I0720 13:44:01.869107 27318 net.cpp:399] input -> input_sentence
I0720 13:44:01.869123 27318 net.cpp:399] input -> stage_indicator
I0720 13:44:01.869141 27318 net.cpp:141] Setting up input
I0720 13:44:01.869155 27318 net.cpp:148] Top shape: 1 4096 (4096)
I0720 13:44:01.869165 27318 net.cpp:148] Top shape: 1 1 (1)
I0720 13:44:01.869176 27318 net.cpp:148] Top shape: 1 1 (1)
I0720 13:44:01.869187 27318 net.cpp:148] Top shape: 1 1 (1)
I0720 13:44:01.869195 27318 net.cpp:156] Memory required for data: 16396
I0720 13:44:01.869204 27318 layer_factory.hpp:77] Creating layer cont_sentence_input_1_split
I0720 13:44:01.869218 27318 net.cpp:91] Creating Layer cont_sentence_input_1_split
I0720 13:44:01.869227 27318 net.cpp:425] cont_sentence_input_1_split <- cont_sentence
I0720 13:44:01.869240 27318 net.cpp:399] cont_sentence_input_1_split -> cont_sentence_input_1_split_0
I0720 13:44:01.869256 27318 net.cpp:399] cont_sentence_input_1_split -> cont_sentence_input_1_split_1
I0720 13:44:01.869272 27318 net.cpp:141] Setting up cont_sentence_input_1_split
I0720 13:44:01.869284 27318 net.cpp:148] Top shape: 1 1 (1)
I0720 13:44:01.869294 27318 net.cpp:148] Top shape: 1 1 (1)
I0720 13:44:01.869302 27318 net.cpp:156] Memory required for data: 16404
I0720 13:44:01.869310 27318 layer_factory.hpp:77] Creating layer embed_encoder
I0720 13:44:01.869328 27318 net.cpp:91] Creating Layer embed_encoder
I0720 13:44:01.869336 27318 net.cpp:425] embed_encoder <- frames_fc7
I0720 13:44:01.869351 27318 net.cpp:399] embed_encoder -> embedded_in_frames
I0720 13:44:01.869968 27300 upgrade_proto.cpp:66] Attempting to upgrade input file specified using deprecated input fields: /tmp/cvld3947231336601374205/s2vt.words_to_preds.prototxt
I0720 13:44:01.869987 27300 upgrade_proto.cpp:69] Successfully upgraded file specified using deprecated input fields.
W0720 13:44:01.869992 27300 upgrade_proto.cpp:71] Note that future Caffe releases will only support input layers and not input fields.
I0720 13:44:01.870169 27300 net.cpp:49] Initializing net from parameters: 
name: "s2vt:features_to_lstm"
state {
  phase: TEST
}
layer {
  name: "input"
  type: "Input"
  top: "frames_fc7"
  top: "cont_sentence"
  top: "input_sentence"
  top: "stage_indicator"
  input_param {
    shape {
      dim: 1
      dim: 4096
    }
    shape {
      dim: 1
      dim: 1
    }
    shape {
      dim: 1
      dim: 1
    }
    shape {
      dim: 1
      dim: 1
    }
  }
}
layer {
  name: "embed_encoder"
  type: "InnerProduct"
  bottom: "frames_fc7"
  top: "embedded_in_frames"
  param {
    lr_mult: 1
    decay_mult: 1
  }
  param {
    lr_mult: 2
    decay_mult: 0
  }
  inner_product_param {
    num_output: 500
    weight_filler {
      type: "xavier"
    }
    bias_filler {
      type: "constant"
      value: 0.2
    }
  }
}
layer {
  name: "reshape_frames"
  type: "Reshape"
  bottom: "embedded_in_frames"
  top: "embedded_input_frames"
  reshape_param {
    shape {
      dim: 1
      dim: 1
      dim: 500
    }
  }
}
layer {
  name: "reshape_stage_indicator"
  type: "Reshape"
  bottom: "stage_indicator"
  top: "reshaped_stage_indicator"
  reshape_param {
    shape {
      dim: 1
      dim: 1
      dim: 1
    }
  }
}
layer {
  name: "embedding"
  type: "Embed"
  bottom: "input_sentence"
  top: "embedded_input_sentence"
  param {
    lr_mult: 1
  }
  embed_param {
    num_output: 500
    input_dim: 46168
    bias_term: false
    weight_filler {
      type: "uniform"
      min: -0.08
      max: 0.08
    }
  }
}
layer {
  name: "lstm1"
  type: "LSTM"
  bottom: "embedded_input_frames"
  bottom: "cont_sentence"
  top: "lstm1"
  recurrent_param {
    num_output: 1000
    weight_filler {
      type: "uniform"
      min: -0.08
      max: 0.08
    }
    bias_filler {
      type: "constant"
      value: 0
    }
  }
}
layer {
  name: "concat"
  type: "Concat"
  bottom: "lstm1"
  bottom: "embedded_input_sentence"
  bottom: "reshaped_stage_indicator"
  top: "lstm1_video_sequence"
  concat_param {
    concat_dim: 2
  }
}
layer {
  name: "lstm2"
  type: "LSTM"
  bottom: "lstm1_video_sequence"
  bottom: "cont_sentence"
  top: "lstm2"
  recurrent_param {
    num_output: 1000
    weight_filler {
      type: "uniform"
      min: -0.08
      max: 0.08
    }
    bias_filler {
      type: "constant"
      value: 0
    }
  }
}
layer {
  name: "predict"
  type: "InnerProduct"
  bottom: "lstm2"
  top: "predict"
  param {
    lr_mult: 1
    decay_mult: 1
  }
  param {
    lr_mult: 2
    decay_mult: 0
  }
  inner_product_param {
    num_output: 46168
    weight_filler {
      type: "uniform"
      min: -0.08
      max: 0.08
    }
    bias_filler {
      type: "constant"
      value: 0
    }
    axis: 2
  }
}
layer {
  name: "probs"
  type: "Softmax"
  bottom: "predict"
  top: "probs"
  softmax_param {
    axis: 2
  }
}
I0720 13:44:01.870246 27300 layer_factory.hpp:77] Creating layer input
I0720 13:44:01.870259 27300 net.cpp:91] Creating Layer input
I0720 13:44:01.870265 27300 net.cpp:399] input -> frames_fc7
I0720 13:44:01.870277 27300 net.cpp:399] input -> cont_sentence
I0720 13:44:01.870288 27300 net.cpp:399] input -> input_sentence
I0720 13:44:01.870298 27300 net.cpp:399] input -> stage_indicator
I0720 13:44:01.870309 27300 net.cpp:141] Setting up input
I0720 13:44:01.870316 27300 net.cpp:148] Top shape: 1 4096 (4096)
I0720 13:44:01.870323 27300 net.cpp:148] Top shape: 1 1 (1)
I0720 13:44:01.870328 27300 net.cpp:148] Top shape: 1 1 (1)
I0720 13:44:01.870333 27300 net.cpp:148] Top shape: 1 1 (1)
I0720 13:44:01.870337 27300 net.cpp:156] Memory required for data: 16396
I0720 13:44:01.870342 27300 layer_factory.hpp:77] Creating layer cont_sentence_input_1_split
I0720 13:44:01.870349 27300 net.cpp:91] Creating Layer cont_sentence_input_1_split
I0720 13:44:01.870354 27300 net.cpp:425] cont_sentence_input_1_split <- cont_sentence
I0720 13:44:01.870362 27300 net.cpp:399] cont_sentence_input_1_split -> cont_sentence_input_1_split_0
I0720 13:44:01.870370 27300 net.cpp:399] cont_sentence_input_1_split -> cont_sentence_input_1_split_1
I0720 13:44:01.870379 27300 net.cpp:141] Setting up cont_sentence_input_1_split
I0720 13:44:01.870389 27300 net.cpp:148] Top shape: 1 1 (1)
I0720 13:44:01.870395 27300 net.cpp:148] Top shape: 1 1 (1)
I0720 13:44:01.870399 27300 net.cpp:156] Memory required for data: 16404
I0720 13:44:01.870404 27300 layer_factory.hpp:77] Creating layer embed_encoder
I0720 13:44:01.870412 27300 net.cpp:91] Creating Layer embed_encoder
I0720 13:44:01.870417 27300 net.cpp:425] embed_encoder <- frames_fc7
I0720 13:44:01.870425 27300 net.cpp:399] embed_encoder -> embedded_in_frames
I0720 13:44:01.870918 27312 upgrade_proto.cpp:66] Attempting to upgrade input file specified using deprecated input fields: /tmp/cvld3947231336601374205/s2vt.words_to_preds.prototxt
…
W0720 13:44:01.871052 27296 upgrade_proto.cpp:71] Note that future Caffe releases will only support input layers and not input fields.
I0720 13:44:01.871122 27312 net.cpp:49] Initializing net from parameters: 
name: "s2vt:features_to_lstm"
state {
  phase: TEST
}
layer {
  name: "input"
  type: "Input"
  top: "frames_fc7"
  top: "cont_sentence"
  top: "input_sentence"
  top: "stage_indicator"
  input_param {
    shape {
      dim: 1
      dim: 4096
    }
    shape {
      dim: 1
      dim: 1
    }
    shape {
      dim: 1
      dim: 1
    }
    shape {
      dim: 1
      dim: 1
    }
  }
}
layer {
  name: "embed_encoder"
  type: "InnerProduct"
  bottom: "frames_fc7"
  top: "embedded_in_frames"
  param {
    lr_mult: 1
    decay_mult: 1
  }
  param {
    lr_mult: 2
    decay_mult: 0
  }
  inner_product_param {
    num_output: 500
    weight_filler {
      type: "xavier"
    }
    bias_filler {
      type: "constant"
      value: 0.2
    }
  }
}
layer {
  name: "reshape_frames"
  type: "Reshape"
  bottom: "embedded_in_frames"
  top: "embedded_input_frames"
  reshape_param {
    shape {
      dim: 1
      dim: 1
      dim: 500
    }
  }
}
layer {
  name: "reshape_stage_indicator"
  type: "Reshape"
  bottom: "stage_indicator"
  top: "reshaped_stage_indicator"
  reshape_param {
    shape {
      dim: 1
      dim: 1
      dim: 1
    }
  }
}
layer {
  name: "embedding"
  type: "Embed"
  bottom: "input_sentence"
  top: "embedded_input_sentence"
  param {
    lr_mult: 1
  }
  embed_param {
    num_output: 500
    input_dim: 46168
    bias_term: false
    weight_filler {
      type: "uniform"
      min: -0.08
      max: 0.08
    }
  }
}
layer {
  name: "lstm1"
  type: "LSTM"
  bottom: "embedded_input_frames"
  bottom: "cont_sentence"
  top: "lstm1"
  recurrent_param {
    num_output: 1000
    weight_filler {
      type: "uniform"
      min: -0.08
      max: 0.08
    }
    bias_filler {
      type: "constant"
      value: 0
    }
  }
}
layer {
  name: "concat"
  type: "Concat"
  bottom: "lstm1"
  bottom: "embedded_input_sentence"
  bottom: "reshaped_stage_indicator"
  top: "lstm1_video_sequence"
  concat_param {
    concat_dim: 2
  }
}
layer {
  name: "lstm2"
  type: "LSTM"
  bottom: "lstm1_video_sequence"
  bottom: "cont_sentence"
  top: "lstm2"
  recurrent_param {
    num_output: 1000
    weight_filler {
      type: "uniform"
      min: -0.08
      max: 0.08
    }
    bias_filler {
      type: "constant"
      value: 0
    }
  }
}
layer {
  name: "predict"
  type: "InnerProduct"
  bottom: "lstm2"
  top: "predict"
  param {
    lr_mult: 1
    decay_mult: 1
  }
  param {
    lr_mult: 2
    decay_mult: 0
  }
  inner_product_param {
    num_output: 46168
    weight_filler {
      type: "uniform"
      min: -0.08
      max: 0.08
    }
    bias_filler {
      type: "constant"
      value: 0
    }
    axis: 2
  }
}
layer {
  name: "probs"
  type: "Softmax"
  bottom: "predict"
  top: "probs"
  softmax_param {
    axis: 2
  }
}
I0720 13:44:01.871146 27280 net.cpp:49] Initializing net from parameters: 
name: "s2vt:features_to_lstm"
state {
  phase: TEST
}
layer {
  name: "input"
  type: "Input"
  top: "frames_fc7"
  top: "cont_sentence"
  top: "input_sentence"
  top: "stage_indicator"
  input_param {
    shape {
      dim: 1
      dim: 4096
    }
    shape {
      dim: 1
      dim: 1
    }
    shape {
      dim: 1
      dim: 1
    }
    shape {
      dim: 1
      dim: 1
    }
  }
}
layer {
  name: "embed_encoder"
  type: "InnerProduct"
  bottom: "frames_fc7"
  top: "embedded_in_frames"
  param {
    lr_mult: 1
    decay_mult: 1
  }
  param {
    lr_mult: 2
    decay_mult: 0
  }
  inner_product_param {
    num_output: 500
    weight_filler {
      type: "xavier"
    }
    bias_filler {
      type: "constant"
      value: 0.2
    }
  }
}
layer {
  name: "reshape_frames"
  type: "Reshape"
  bottom: "embedded_in_frames"
  top: "embedded_input_frames"
  reshape_param {
    shape {
      dim: 1
      dim: 1
      dim: 500
    }
  }
}
layer {
  name: "reshape_stage_indicator"
  type: "Reshape"
  bottom: "stage_indicator"
  top: "reshaped_stage_indicator"
  reshape_param {
    shape {
      dim: 1
      dim: 1
      dim: 1
    }
  }
}
layer {
  name: "embedding"
  type: "Embed"
  bottom: "input_sentence"
  top: "embedded_input_sentence"
  param {
    lr_mult: 1
  }
  embed_param {
    num_output: 500
    input_dim: 46168
    bias_term: false
    weight_filler {
      type: "uniform"
      min: -0.08
      max: 0.08
    }
  }
}
layer {
  name: "lstm1"
  type: "LSTM"
  bottom: "embedded_input_frames"
  bottom: "cont_sentence"
  top: "lstm1"
  recurrent_param {
    num_output: 1000
    weight_filler {
      type: "uniform"
      min: -0.08
      max: 0.08
    }
    bias_filler {
      type: "constant"
      value: 0
    }
  }
}
layer {
  name: "concat"
  type: "Concat"
  bottom: "lstm1"
  bottom: "embedded_input_sentence"
  bottom: "reshaped_stage_indicator"
  top: "lstm1_video_sequence"
  concat_param {
    concat_dim: 2
  }
}
layer {
  name: "lstm2"
  type: "LSTM"
  bottom: "lstm1_video_sequence"
  bottom: "cont_sentence"
  top: "lstm2"
  recurrent_param {
    num_output: 1000
    weight_filler {
      type: "uniform"
      min: -0.08
      max: 0.08
    }
    bias_filler {
      type: "constant"
      value: 0
    }
  }
}
layer {
  name: "predict"
  type: "InnerProduct"
  bottom: "lstm2"
  top: "predict"
  param {
    lr_mult: 1
    decay_mult: 1
  }
  param {
    lr_mult: 2
    decay_mult: 0
  }
  inner_product_param {
    num_output: 46168
    weight_filler {
      type: "uniform"
      min: -0.08
      max: 0.08
    }
    bias_filler {
      type: "constant"
      value: 0
    }
    axis: 2
  }
}
layer {
  name: "probs"
  type: "Softmax"
  bottom: "predict"
  top: "probs"
  softmax_param {
    axis: 2
  }
}
I0720 13:44:01.871199 27312 layer_factory.hpp:77] Creating layer input
I0720 13:44:01.871212 27312 net.cpp:91] Creating Layer input
I0720 13:44:01.871218 27312 net.cpp:399] input -> frames_fc7
I0720 13:44:01.871223 27280 layer_factory.hpp:77] Creating layer input
I0720 13:44:01.871230 27312 net.cpp:399] input -> cont_sentence
I0720 13:44:01.871234 27280 net.cpp:91] Creating Layer input
I0720 13:44:01.871242 27312 net.cpp:399] input -> input_sentence
I0720 13:44:01.871243 27280 net.cpp:399] input -> frames_fc7
I0720 13:44:01.871259 27312 net.cpp:399] input -> stage_indicator
I0720 13:44:01.871265 27280 net.cpp:399] input -> cont_sentence
I0720 13:44:01.871271 27312 net.cpp:141] Setting up input
I0720 13:44:01.871278 27280 net.cpp:399] input -> input_sentence
I0720 13:44:01.871279 27312 net.cpp:148] Top shape: 1 4096 (4096)
I0720 13:44:01.871285 27312 net.cpp:148] Top shape: 1 1 (1)
I0720 13:44:01.871287 27280 net.cpp:399] input -> stage_indicator
I0720 13:44:01.871291 27312 net.cpp:148] Top shape: 1 1 (1)
I0720 13:44:01.871296 27312 net.cpp:148] Top shape: 1 1 (1)
I0720 13:44:01.871300 27280 net.cpp:141] Setting up input
I0720 13:44:01.871300 27312 net.cpp:156] Memory required for data: 16396
I0720 13:44:01.871321 27280 net.cpp:148] Top shape: 1 4096 (4096)
I0720 13:44:01.871325 27312 layer_factory.hpp:77] Creating layer cont_sentence_input_1_split
I0720 13:44:01.871328 27280 net.cpp:148] Top shape: 1 1 (1)
I0720 13:44:01.871335 27312 net.cpp:91] Creating Layer cont_sentence_input_1_split
I0720 13:44:01.871335 27280 net.cpp:148] Top shape: 1 1 (1)
I0720 13:44:01.871342 27312 net.cpp:425] cont_sentence_input_1_split <- cont_sentence
I0720 13:44:01.871346 27280 net.cpp:148] Top shape: 1 1 (1)
I0720 13:44:01.871351 27312 net.cpp:399] cont_sentence_input_1_split -> cont_sentence_input_1_split_0
I0720 13:44:01.871351 27280 net.cpp:156] Memory required for data: 16396
I0720 13:44:01.871352 27296 net.cpp:49] Initializing net from parameters: 
name: "s2vt:features_to_lstm"
state {
  phase: TEST
}
layer {
  name: "input"
  type: "Input"
  top: "frames_fc7"
  top: "cont_sentence"
  top: "input_sentence"
  top: "stage_indicator"
  input_param {
    shape {
      dim: 1
      dim: 4096
    }
    shape {
      dim: 1
      dim: 1
    }
    shape {
      dim: 1
      dim: 1
    }
    shape {
      dim: 1
      dim: 1
    }
  }
}
layer {
  name: "embed_encoder"
  type: "InnerProduct"
  bottom: "frames_fc7"
  top: "embedded_in_frames"
  param {
    lr_mult: 1
    decay_mult: 1
  }
  param {
    lr_mult: 2
    decay_mult: 0
  }
  inner_product_param {
    num_output: 500
    weight_filler {
      type: "xavier"
    }
    bias_filler {
      type: "constant"
      value: 0.2
    }
  }
}
layer {
  name: "reshape_frames"
  type: "Reshape"
  bottom: "embedded_in_frames"
  top: "embedded_input_frames"
  reshape_param {
    shape {
      dim: 1
      dim: 1
      dim: 500
    }
  }
}
layer {
  name: "reshape_stage_indicator"
  type: "Reshape"
  bottom: "stage_indicator"
  top: "reshaped_stage_indicator"
  reshape_param {
    shape {
      dim: 1
      dim: 1
      dim: 1
    }
  }
}
layer {
  name: "embedding"
  type: "Embed"
  bottom: "input_sentence"
  top: "embedded_input_sentence"
  param {
    lr_mult: 1
  }
  embed_param {
    num_output: 500
    input_dim: 46168
    bias_term: false
    weight_filler {
      type: "uniform"
      min: -0.08
      max: 0.08
    }
  }
}
layer {
  name: "lstm1"
  type: "LSTM"
  bottom: "embedded_input_frames"
  bottom: "cont_sentence"
  top: "lstm1"
  recurrent_param {
    num_output: 1000
    weight_filler {
      type: "uniform"
      min: -0.08
      max: 0.08
    }
    bias_filler {
      type: "constant"
      value: 0
    }
  }
}
layer {
  name: "concat"
  type: "Concat"
  bottom: "lstm1"
  bottom: "embedded_input_sentence"
  bottom: "reshaped_stage_indicator"
  top: "lstm1_video_sequence"
  concat_param {
    concat_dim: 2
  }
}
layer {
  name: "lstm2"
  type: "LSTM"
  bottom: "lstm1_video_sequence"
  bottom: "cont_sentence"
  top: "lstm2"
  recurrent_param {
    num_output: 1000
    weight_filler {
      type: "uniform"
      min: -0.08
      max: 0.08
    }
    bias_filler {
      type: "constant"
      value: 0
    }
  }
}
layer {
  name: "predict"
  type: "InnerProduct"
  bottom: "lstm2"
  top: "predict"
  param {
    lr_mult: 1
    decay_mult: 1
  }
  param {
    lr_mult: 2
    decay_mult: 0
  }
  inner_product_param {
    num_output: 46168
    weight_filler {
      type: "uniform"
      min: -0.08
      max: 0.08
    }
    bias_filler {
      type: "constant"
      value: 0
    }
    axis: 2
  }
}
layer {
  name: "probs"
  type: "Softmax"
  bottom: "predict"
  top: "probs"
  softmax_param {
    axis: 2
  }
}
I0720 13:44:01.871362 27312 net.cpp:399] cont_sentence_input_1_split -> cont_sentence_input_1_split_1
I0720 13:44:01.871361 27280 layer_factory.hpp:77] Creating layer cont_sentence_input_1_split
I0720 13:44:01.871372 27312 net.cpp:141] Setting up cont_sentence_input_1_split
I0720 13:44:01.871377 27280 net.cpp:91] Creating Layer cont_sentence_input_1_split
I0720 13:44:01.871381 27312 net.cpp:148] Top shape: 1 1 (1)
I0720 13:44:01.871383 27280 net.cpp:425] cont_sentence_input_1_split <- cont_sentence
I0720 13:44:01.871386 27312 net.cpp:148] Top shape: 1 1 (1)
I0720 13:44:01.871389 27312 net.cpp:156] Memory required for data: 16404
I0720 13:44:01.871392 27280 net.cpp:399] cont_sentence_input_1_split -> cont_sentence_input_1_split_0
I0720 13:44:01.871395 27312 layer_factory.hpp:77] Creating layer embed_encoder
I0720 13:44:01.871402 27280 net.cpp:399] cont_sentence_input_1_split -> cont_sentence_input_1_split_1
I0720 13:44:01.871405 27312 net.cpp:91] Creating Layer embed_encoder
I0720 13:44:01.871410 27312 net.cpp:425] embed_encoder <- frames_fc7
I0720 13:44:01.871412 27280 net.cpp:141] Setting up cont_sentence_input_1_split
I0720 13:44:01.871418 27312 net.cpp:399] embed_encoder -> embedded_in_frames
I0720 13:44:01.871418 27280 net.cpp:148] Top shape: 1 1 (1)
I0720 13:44:01.871430 27280 net.cpp:148] Top shape: 1 1 (1)
I0720 13:44:01.871435 27280 net.cpp:156] Memory required for data: 16404
I0720 13:44:01.871439 27280 layer_factory.hpp:77] Creating layer embed_encoder
I0720 13:44:01.871449 27280 net.cpp:91] Creating Layer embed_encoder
I0720 13:44:01.871454 27280 net.cpp:425] embed_encoder <- frames_fc7
I0720 13:44:01.871462 27280 net.cpp:399] embed_encoder -> embedded_in_frames
I0720 13:44:01.871474 27296 layer_factory.hpp:77] Creating layer input
I0720 13:44:01.871491 27296 net.cpp:91] Creating Layer input
I0720 13:44:01.871503 27296 net.cpp:399] input -> frames_fc7
I0720 13:44:01.871521 27296 net.cpp:399] input -> cont_sentence
I0720 13:44:01.871521 27322 upgrade_proto.cpp:66] Attempting to upgrade input file specified using deprecated input fields: /tmp/cvld3947231336601374205/s2vt.words_to_preds.prototxt
I0720 13:44:01.871541 27296 net.cpp:399] input -> input_sentence
I0720 13:44:01.871541 27322 upgrade_proto.cpp:69] Successfully upgraded file specified using deprecated input fields.
W0720 13:44:01.871570 27322 upgrade_proto.cpp:71] Note that future Caffe releases will only support input layers and not input fields.
I0720 13:44:01.871569 27296 net.cpp:399] input -> stage_indicator
I0720 13:44:01.871619 27296 net.cpp:141] Setting up input
I0720 13:44:01.871634 27296 net.cpp:148] Top shape: 1 4096 (4096)
I0720 13:44:01.871644 27296 net.cpp:148] Top shape: 1 1 (1)
I0720 13:44:01.871652 27296 net.cpp:148] Top shape: 1 1 (1)
I0720 13:44:01.871661 27296 net.cpp:148] Top shape: 1 1 (1)
I0720 13:44:01.871668 27296 net.cpp:156] Memory required for data: 16396
I0720 13:44:01.871676 27296 layer_factory.hpp:77] Creating layer cont_sentence_input_1_split
I0720 13:44:01.871688 27296 net.cpp:91] Creating Layer cont_sentence_input_1_split
I0720 13:44:01.871695 27296 net.cpp:425] cont_sentence_input_1_split <- cont_sentence
I0720 13:44:01.871707 27296 net.cpp:399] cont_sentence_input_1_split -> cont_sentence_input_1_split_0
I0720 13:44:01.871721 27296 net.cpp:399] cont_sentence_input_1_split -> cont_sentence_input_1_split_1
I0720 13:44:01.871734 27296 net.cpp:141] Setting up cont_sentence_input_1_split
I0720 13:44:01.871745 27296 net.cpp:148] Top shape: 1 1 (1)
I0720 13:44:01.871754 27296 net.cpp:148] Top shape: 1 1 (1)
I0720 13:44:01.871762 27296 net.cpp:156] Memory required for data: 16404
I0720 13:44:01.871767 27296 layer_factory.hpp:77] Creating layer embed_encoder
I0720 13:44:01.871781 27296 net.cpp:91] Creating Layer embed_encoder
I0720 13:44:01.871788 27296 net.cpp:425] embed_encoder <- frames_fc7
I0720 13:44:01.871799 27296 net.cpp:399] embed_encoder -> embedded_in_frames
I0720 13:44:01.871907 27322 net.cpp:49] Initializing net from parameters: 
name: "s2vt:features_to_lstm"
state {
  phase: TEST
}
layer {
  name: "input"
  type: "Input"
  top: "frames_fc7"
  top: "cont_sentence"
  top: "input_sentence"
  top: "stage_indicator"
  input_param {
    shape {
      dim: 1
      dim: 4096
    }
    shape {
      dim: 1
      dim: 1
    }
    shape {
      dim: 1
      dim: 1
    }
    shape {
      dim: 1
      dim: 1
    }
  }
}
layer {
  name: "embed_encoder"
  type: "InnerProduct"
  bottom: "frames_fc7"
  top: "embedded_in_frames"
  param {
    lr_mult: 1
    decay_mult: 1
  }
  param {
    lr_mult: 2
    decay_mult: 0
  }
  inner_product_param {
    num_output: 500
    weight_filler {
      type: "xavier"
    }
    bias_filler {
      type: "constant"
      value: 0.2
    }
  }
}
layer {
  name: "reshape_frames"
  type: "Reshape"
  bottom: "embedded_in_frames"
  top: "embedded_input_frames"
  reshape_param {
    shape {
      dim: 1
      dim: 1
      dim: 500
    }
  }
}
layer {
  name: "reshape_stage_indicator"
  type: "Reshape"
  bottom: "stage_indicator"
  top: "reshaped_stage_indicator"
  reshape_param {
    shape {
      dim: 1
      dim: 1
      dim: 1
    }
  }
}
layer {
  name: "embedding"
  type: "Embed"
  bottom: "input_sentence"
  top: "embedded_input_sentence"
  param {
    lr_mult: 1
  }
  embed_param {
    num_output: 500
    input_dim: 46168
    bias_term: false
    weight_filler {
      type: "uniform"
      min: -0.08
      max: 0.08
    }
  }
}
layer {
  name: "lstm1"
  type: "LSTM"
  bottom: "embedded_input_frames"
  bottom: "cont_sentence"
  top: "lstm1"
  recurrent_param {
    num_output: 1000
    weight_filler {
      type: "uniform"
      min: -0.08
      max: 0.08
    }
    bias_filler {
      type: "constant"
      value: 0
    }
  }
}
layer {
  name: "concat"
  type: "Concat"
  bottom: "lstm1"
  bottom: "embedded_input_sentence"
  bottom: "reshaped_stage_indicator"
  top: "lstm1_video_sequence"
  concat_param {
    concat_dim: 2
  }
}
layer {
  name: "lstm2"
  type: "LSTM"
  bottom: "lstm1_video_sequence"
  bottom: "cont_sentence"
  top: "lstm2"
  recurrent_param {
    num_output: 1000
    weight_filler {
      type: "uniform"
      min: -0.08
      max: 0.08
    }
    bias_filler {
      type: "constant"
      value: 0
    }
  }
}
layer {
  name: "predict"
  type: "InnerProduct"
  bottom: "lstm2"
  top: "predict"
  param {
    lr_mult: 1
    decay_mult: 1
  }
  param {
    lr_mult: 2
    decay_mult: 0
  }
  inner_product_param {
    num_output: 46168
    weight_filler {
      type: "uniform"
      min: -0.08
      max: 0.08
    }
    bias_filler {
      type: "constant"
      value: 0
    }
    axis: 2
  }
}
layer {
  name: "probs"
  type: "Softmax"
  bottom: "predict"
  top: "probs"
  softmax_param {
    axis: 2
  }
}
I0720 13:44:01.872045 27322 layer_factory.hpp:77] Creating layer input
I0720 13:44:01.872066 27322 net.cpp:91] Creating Layer input
I0720 13:44:01.872079 27322 net.cpp:399] input -> frames_fc7
I0720 13:44:01.872102 27322 net.cpp:399] input -> cont_sentence
I0720 13:44:01.872123 27322 net.cpp:399] input -> input_sentence
I0720 13:44:01.872141 27322 net.cpp:399] input -> stage_indicator
I0720 13:44:01.872161 27322 net.cpp:141] Setting up input
I0720 13:44:01.872174 27322 net.cpp:148] Top shape: 1 4096 (4096)
I0720 13:44:01.872185 27322 net.cpp:148] Top shape: 1 1 (1)
I0720 13:44:01.872195 27322 net.cpp:148] Top shape: 1 1 (1)
I0720 13:44:01.872203 27322 net.cpp:148] Top shape: 1 1 (1)
I0720 13:44:01.872211 27322 net.cpp:156] Memory required for data: 16396
I0720 13:44:01.872218 27322 layer_factory.hpp:77] Creating layer cont_sentence_input_1_split
I0720 13:44:01.872231 27322 net.cpp:91] Creating Layer cont_sentence_input_1_split
I0720 13:44:01.872239 27322 net.cpp:425] cont_sentence_input_1_split <- cont_sentence
I0720 13:44:01.872251 27322 net.cpp:399] cont_sentence_input_1_split -> cont_sentence_input_1_split_0
I0720 13:44:01.872267 27322 net.cpp:399] cont_sentence_input_1_split -> cont_sentence_input_1_split_1
I0720 13:44:01.872283 27322 net.cpp:141] Setting up cont_sentence_input_1_split
I0720 13:44:01.872297 27322 net.cpp:148] Top shape: 1 1 (1)
I0720 13:44:01.872308 27322 net.cpp:148] Top shape: 1 1 (1)
I0720 13:44:01.872314 27322 net.cpp:156] Memory required for data: 16404
I0720 13:44:01.872323 27322 layer_factory.hpp:77] Creating layer embed_encoder
I0720 13:44:01.872339 27322 net.cpp:91] Creating Layer embed_encoder
I0720 13:44:01.872346 27322 net.cpp:425] embed_encoder <- frames_fc7
I0720 13:44:01.872360 27322 net.cpp:399] embed_encoder -> embedded_in_frames
I0720 13:44:01.872964 27292 upgrade_proto.cpp:66] Attempting to upgrade input file specified using deprecated input fields: /tmp/cvld3947231336601374205/s2vt.words_to_preds.prototxt
…
W0720 13:44:01.873141 27278 upgrade_proto.cpp:71] Note that future Caffe releases will only support input layers and not input fields.
I0720 13:44:01.873155 27292 net.cpp:49] Initializing net from parameters: 
name: "s2vt:features_to_lstm"
state {
  phase: TEST
}
layer {
  name: "input"
  type: "Input"
  top: "frames_fc7"
  top: "cont_sentence"
  top: "input_sentence"
  top: "stage_indicator"
  input_param {
    shape {
      dim: 1
      dim: 4096
    }
    shape {
      dim: 1
      dim: 1
    }
    shape {
      dim: 1
      dim: 1
    }
    shape {
      dim: 1
      dim: 1
    }
  }
}
layer {
  name: "embed_encoder"
  type: "InnerProduct"
  bottom: "frames_fc7"
  top: "embedded_in_frames"
  param {
    lr_mult: 1
    decay_mult: 1
  }
  param {
    lr_mult: 2
    decay_mult: 0
  }
  inner_product_param {
    num_output: 500
    weight_filler {
      type: "xavier"
    }
    bias_filler {
      type: "constant"
      value: 0.2
    }
  }
}
layer {
  name: "reshape_frames"
  type: "Reshape"
  bottom: "embedded_in_frames"
  top: "embedded_input_frames"
  reshape_param {
    shape {
      dim: 1
      dim: 1
      dim: 500
    }
  }
}
layer {
  name: "reshape_stage_indicator"
  type: "Reshape"
  bottom: "stage_indicator"
  top: "reshaped_stage_indicator"
  reshape_param {
    shape {
      dim: 1
      dim: 1
      dim: 1
    }
  }
}
layer {
  name: "embedding"
  type: "Embed"
  bottom: "input_sentence"
  top: "embedded_input_sentence"
  param {
    lr_mult: 1
  }
  embed_param {
    num_output: 500
    input_dim: 46168
    bias_term: false
    weight_filler {
      type: "uniform"
      min: -0.08
      max: 0.08
    }
  }
}
layer {
  name: "lstm1"
  type: "LSTM"
  bottom: "embedded_input_frames"
  bottom: "cont_sentence"
  top: "lstm1"
  recurrent_param {
    num_output: 1000
    weight_filler {
      type: "uniform"
      min: -0.08
      max: 0.08
    }
    bias_filler {
      type: "constant"
      value: 0
    }
  }
}
layer {
  name: "concat"
  type: "Concat"
  bottom: "lstm1"
  bottom: "embedded_input_sentence"
  bottom: "reshaped_stage_indicator"
  top: "lstm1_video_sequence"
  concat_param {
    concat_dim: 2
  }
}
layer {
  name: "lstm2"
  type: "LSTM"
  bottom: "lstm1_video_sequence"
  bottom: "cont_sentence"
  top: "lstm2"
  recurrent_param {
    num_output: 1000
    weight_filler {
      type: "uniform"
      min: -0.08
      max: 0.08
    }
    bias_filler {
      type: "constant"
      value: 0
    }
  }
}
layer {
  name: "predict"
  type: "InnerProduct"
  bottom: "lstm2"
  top: "predict"
  param {
    lr_mult: 1
    decay_mult: 1
  }
  param {
    lr_mult: 2
    decay_mult: 0
  }
  inner_product_param {
    num_output: 46168
    weight_filler {
      type: "uniform"
      min: -0.08
      max: 0.08
    }
    bias_filler {
      type: "constant"
      value: 0
    }
    axis: 2
  }
}
layer {
  name: "probs"
  type: "Softmax"
  bottom: "predict"
  top: "probs"
  softmax_param {
    axis: 2
  }
}
I0720 13:44:01.873230 27292 layer_factory.hpp:77] Creating layer input
I0720 13:44:01.873232 27284 upgrade_proto.cpp:66] Attempting to upgrade input file specified using deprecated input fields: /tmp/cvld3947231336601374205/s2vt.words_to_preds.prototxt
I0720 13:44:01.873241 27292 net.cpp:91] Creating Layer input
I0720 13:44:01.873248 27292 net.cpp:399] input -> frames_fc7
I0720 13:44:01.873253 27284 upgrade_proto.cpp:69] Successfully upgraded file specified using deprecated input fields.
I0720 13:44:01.873260 27292 net.cpp:399] input -> cont_sentence
W0720 13:44:01.873261 27284 upgrade_proto.cpp:71] Note that future Caffe releases will only support input layers and not input fields.
I0720 13:44:01.873270 27292 net.cpp:399] input -> input_sentence
I0720 13:44:01.873281 27292 net.cpp:399] input -> stage_indicator
I0720 13:44:01.873292 27292 net.cpp:141] Setting up input
I0720 13:44:01.873299 27292 net.cpp:148] Top shape: 1 4096 (4096)
I0720 13:44:01.873306 27292 net.cpp:148] Top shape: 1 1 (1)
I0720 13:44:01.873311 27292 net.cpp:148] Top shape: 1 1 (1)
I0720 13:44:01.873316 27292 net.cpp:148] Top shape: 1 1 (1)
I0720 13:44:01.873319 27292 net.cpp:156] Memory required for data: 16396
I0720 13:44:01.873323 27292 layer_factory.hpp:77] Creating layer cont_sentence_input_1_split
I0720 13:44:01.873332 27292 net.cpp:91] Creating Layer cont_sentence_input_1_split
I0720 13:44:01.873337 27292 net.cpp:425] cont_sentence_input_1_split <- cont_sentence
I0720 13:44:01.873343 27292 net.cpp:399] cont_sentence_input_1_split -> cont_sentence_input_1_split_0
I0720 13:44:01.873353 27292 net.cpp:399] cont_sentence_input_1_split -> cont_sentence_input_1_split_1
I0720 13:44:01.873361 27292 net.cpp:141] Setting up cont_sentence_input_1_split
I0720 13:44:01.873368 27292 net.cpp:148] Top shape: 1 1 (1)
I0720 13:44:01.873373 27292 net.cpp:148] Top shape: 1 1 (1)
I0720 13:44:01.873376 27292 net.cpp:156] Memory required for data: 16404
I0720 13:44:01.873380 27292 layer_factory.hpp:77] Creating layer embed_encoder
I0720 13:44:01.873389 27292 net.cpp:91] Creating Layer embed_encoder
I0720 13:44:01.873394 27292 net.cpp:425] embed_encoder <- frames_fc7
I0720 13:44:01.873401 27292 net.cpp:399] embed_encoder -> embedded_in_frames
I0720 13:44:01.873437 27278 net.cpp:49] Initializing net from parameters: 
name: "s2vt:features_to_lstm"
state {
  phase: TEST
}
layer {
  name: "input"
  type: "Input"
  top: "frames_fc7"
  top: "cont_sentence"
  top: "input_sentence"
  top: "stage_indicator"
  input_param {
    shape {
      dim: 1
      dim: 4096
    }
    shape {
      dim: 1
      dim: 1
    }
    shape {
      dim: 1
      dim: 1
    }
    shape {
      dim: 1
      dim: 1
    }
  }
}
layer {
  name: "embed_encoder"
  type: "InnerProduct"
  bottom: "frames_fc7"
  top: "embedded_in_frames"
  param {
    lr_mult: 1
    decay_mult: 1
  }
  param {
    lr_mult: 2
    decay_mult: 0
  }
  inner_product_param {
    num_output: 500
    weight_filler {
      type: "xavier"
    }
    bias_filler {
      type: "constant"
      value: 0.2
    }
  }
}
layer {
  name: "reshape_frames"
  type: "Reshape"
  bottom: "embedded_in_frames"
  top: "embedded_input_frames"
  reshape_param {
    shape {
      dim: 1
      dim: 1
      dim: 500
    }
  }
}
layer {
  name: "reshape_stage_indicator"
  type: "Reshape"
  bottom: "stage_indicator"
  top: "reshaped_stage_indicator"
  reshape_param {
    shape {
      dim: 1
      dim: 1
      dim: 1
    }
  }
}
layer {
  name: "embedding"
  type: "Embed"
  bottom: "input_sentence"
  top: "embedded_input_sentence"
  param {
    lr_mult: 1
  }
  embed_param {
    num_output: 500
    input_dim: 46168
    bias_term: false
    weight_filler {
      type: "uniform"
      min: -0.08
      max: 0.08
    }
  }
}
layer {
  name: "lstm1"
  type: "LSTM"
  bottom: "embedded_input_frames"
  bottom: "cont_sentence"
  top: "lstm1"
  recurrent_param {
    num_output: 1000
    weight_filler {
      type: "uniform"
      min: -0.08
      max: 0.08
    }
    bias_filler {
      type: "constant"
      value: 0
    }
  }
}
layer {
  name: "concat"
  type: "Concat"
  bottom: "lstm1"
  bottom: "embedded_input_sentence"
  bottom: "reshaped_stage_indicator"
  top: "lstm1_video_sequence"
  concat_param {
    concat_dim: 2
  }
}
layer {
  name: "lstm2"
  type: "LSTM"
  bottom: "lstm1_video_sequence"
  bottom: "cont_sentence"
  top: "lstm2"
  recurrent_param {
    num_output: 1000
    weight_filler {
      type: "uniform"
      min: -0.08
      max: 0.08
    }
    bias_filler {
      type: "constant"
      value: 0
    }
  }
}
layer {
  name: "predict"
  type: "InnerProduct"
  bottom: "lstm2"
  top: "predict"
  param {
    lr_mult: 1
    decay_mult: 1
  }
  param {
    lr_mult: 2
    decay_mult: 0
  }
  inner_product_param {
    num_output: 46168
    weight_filler {
      type: "uniform"
      min: -0.08
      max: 0.08
    }
    bias_filler {
      type: "constant"
      value: 0
    }
    axis: 2
  }
}
layer {
  name: "probs"
  type: "Softmax"
  bottom: "predict"
  top: "probs"
  softmax_param {
    axis: 2
  }
}
I0720 13:44:01.873545 27284 net.cpp:49] Initializing net from parameters: 
name: "s2vt:features_to_lstm"
state {
  phase: TEST
}
layer {
  name: "input"
  type: "Input"
  top: "frames_fc7"
  top: "cont_sentence"
  top: "input_sentence"
  top: "stage_indicator"
  input_param {
    shape {
      dim: 1
      dim: 4096
    }
    shape {
      dim: 1
      dim: 1
    }
    shape {
      dim: 1
      dim: 1
    }
    shape {
      dim: 1
      dim: 1
    }
  }
}
layer {
  name: "embed_encoder"
  type: "InnerProduct"
  bottom: "frames_fc7"
  top: "embedded_in_frames"
  param {
    lr_mult: 1
    decay_mult: 1
  }
  param {
    lr_mult: 2
    decay_mult: 0
  }
  inner_product_param {
    num_output: 500
    weight_filler {
      type: "xavier"
    }
    bias_filler {
      type: "constant"
      value: 0.2
    }
  }
}
layer {
  name: "reshape_frames"
  type: "Reshape"
  bottom: "embedded_in_frames"
  top: "embedded_input_frames"
  reshape_param {
    shape {
      dim: 1
      dim: 1
      dim: 500
    }
  }
}
layer {
  name: "reshape_stage_indicator"
  type: "Reshape"
  bottom: "stage_indicator"
  top: "reshaped_stage_indicator"
  reshape_param {
    shape {
      dim: 1
      dim: 1
      dim: 1
    }
  }
}
layer {
  name: "embedding"
  type: "Embed"
  bottom: "input_sentence"
  top: "embedded_input_sentence"
  param {
    lr_mult: 1
  }
  embed_param {
    num_output: 500
    input_dim: 46168
    bias_term: false
    weight_filler {
      type: "uniform"
      min: -0.08
      max: 0.08
    }
  }
}
layer {
  name: "lstm1"
  type: "LSTM"
  bottom: "embedded_input_frames"
  bottom: "cont_sentence"
  top: "lstm1"
  recurrent_param {
    num_output: 1000
    weight_filler {
      type: "uniform"
      min: -0.08
      max: 0.08
    }
    bias_filler {
      type: "constant"
      value: 0
    }
  }
}
layer {
  name: "concat"
  type: "Concat"
  bottom: "lstm1"
  bottom: "embedded_input_sentence"
  bottom: "reshaped_stage_indicator"
  top: "lstm1_video_sequence"
  concat_param {
    concat_dim: 2
  }
}
layer {
  name: "lstm2"
  type: "LSTM"
  bottom: "lstm1_video_sequence"
  bottom: "cont_sentence"
  top: "lstm2"
  recurrent_param {
    num_output: 1000
    weight_filler {
      type: "uniform"
      min: -0.08
      max: 0.08
    }
    bias_filler {
      type: "constant"
      value: 0
    }
  }
}
layer {
  name: "predict"
  type: "InnerProduct"
  bottom: "lstm2"
  top: "predict"
  param {
    lr_mult: 1
    decay_mult: 1
  }
  param {
    lr_mult: 2
    decay_mult: 0
  }
  inner_product_param {
    num_output: 46168
    weight_filler {
      type: "uniform"
      min: -0.08
      max: 0.08
    }
    bias_filler {
      type: "constant"
      value: 0
    }
    axis: 2
  }
}
layer {
  name: "probs"
  type: "Softmax"
  bottom: "predict"
  top: "probs"
  softmax_param {
    axis: 2
  }
}
I0720 13:44:01.873558 27278 layer_factory.hpp:77] Creating layer input
I0720 13:44:01.873572 27278 net.cpp:91] Creating Layer input
I0720 13:44:01.873584 27278 net.cpp:399] input -> frames_fc7
I0720 13:44:01.873603 27278 net.cpp:399] input -> cont_sentence
I0720 13:44:01.873620 27278 net.cpp:399] input -> input_sentence
I0720 13:44:01.873637 27278 net.cpp:399] input -> stage_indicator
I0720 13:44:01.873656 27278 net.cpp:141] Setting up input
I0720 13:44:01.873656 27284 layer_factory.hpp:77] Creating layer input
I0720 13:44:01.873679 27278 net.cpp:148] Top shape: 1 4096 (4096)
I0720 13:44:01.873688 27284 net.cpp:91] Creating Layer input
I0720 13:44:01.873692 27278 net.cpp:148] Top shape: 1 1 (1)
I0720 13:44:01.873714 27278 net.cpp:148] Top shape: 1 1 (1)
I0720 13:44:01.873713 27284 net.cpp:399] input -> frames_fc7
I0720 13:44:01.873725 27278 net.cpp:148] Top shape: 1 1 (1)
I0720 13:44:01.873729 27278 net.cpp:156] Memory required for data: 16396
I0720 13:44:01.873734 27278 layer_factory.hpp:77] Creating layer cont_sentence_input_1_split
I0720 13:44:01.873741 27284 net.cpp:399] input -> cont_sentence
I0720 13:44:01.873745 27278 net.cpp:91] Creating Layer cont_sentence_input_1_split
I0720 13:44:01.873755 27278 net.cpp:425] cont_sentence_input_1_split <- cont_sentence
I0720 13:44:01.873761 27284 net.cpp:399] input -> input_sentence
I0720 13:44:01.873769 27278 net.cpp:399] cont_sentence_input_1_split -> cont_sentence_input_1_split_0
I0720 13:44:01.873781 27278 net.cpp:399] cont_sentence_input_1_split -> cont_sentence_input_1_split_1
I0720 13:44:01.873785 27284 net.cpp:399] input -> stage_indicator
I0720 13:44:01.873792 27278 net.cpp:141] Setting up cont_sentence_input_1_split
I0720 13:44:01.873800 27278 net.cpp:148] Top shape: 1 1 (1)
I0720 13:44:01.873802 27284 net.cpp:141] Setting up input
I0720 13:44:01.873805 27278 net.cpp:148] Top shape: 1 1 (1)
I0720 13:44:01.873809 27278 net.cpp:156] Memory required for data: 16404
I0720 13:44:01.873811 27284 net.cpp:148] Top shape: 1 4096 (4096)
I0720 13:44:01.873813 27278 layer_factory.hpp:77] Creating layer embed_encoder
I0720 13:44:01.873817 27284 net.cpp:148] Top shape: 1 1 (1)
I0720 13:44:01.873822 27284 net.cpp:148] Top shape: 1 1 (1)
I0720 13:44:01.873823 27278 net.cpp:91] Creating Layer embed_encoder
I0720 13:44:01.873827 27284 net.cpp:148] Top shape: 1 1 (1)
I0720 13:44:01.873828 27278 net.cpp:425] embed_encoder <- frames_fc7
I0720 13:44:01.873832 27284 net.cpp:156] Memory required for data: 16396
I0720 13:44:01.873836 27278 net.cpp:399] embed_encoder -> embedded_in_frames
I0720 13:44:01.873837 27284 layer_factory.hpp:77] Creating layer cont_sentence_input_1_split
I0720 13:44:01.873853 27284 net.cpp:91] Creating Layer cont_sentence_input_1_split
I0720 13:44:01.873858 27284 net.cpp:425] cont_sentence_input_1_split <- cont_sentence
I0720 13:44:01.873867 27284 net.cpp:399] cont_sentence_input_1_split -> cont_sentence_input_1_split_0
I0720 13:44:01.873874 27284 net.cpp:399] cont_sentence_input_1_split -> cont_sentence_input_1_split_1
I0720 13:44:01.873883 27284 net.cpp:141] Setting up cont_sentence_input_1_split
I0720 13:44:01.873889 27284 net.cpp:148] Top shape: 1 1 (1)
I0720 13:44:01.873895 27284 net.cpp:148] Top shape: 1 1 (1)
I0720 13:44:01.873899 27284 net.cpp:156] Memory required for data: 16404
I0720 13:44:01.873903 27284 layer_factory.hpp:77] Creating layer embed_encoder
I0720 13:44:01.873913 27284 net.cpp:91] Creating Layer embed_encoder
I0720 13:44:01.873917 27284 net.cpp:425] embed_encoder <- frames_fc7
I0720 13:44:01.873924 27284 net.cpp:399] embed_encoder -> embedded_in_frames
I0720 13:44:01.906052 27280 net.cpp:141] Setting up embed_encoder
I0720 13:44:01.906095 27280 net.cpp:148] Top shape: 1 500 (500)
I0720 13:44:01.906101 27280 net.cpp:156] Memory required for data: 18404
I0720 13:44:01.906126 27280 layer_factory.hpp:77] Creating layer reshape_frames
I0720 13:44:01.906157 27280 net.cpp:91] Creating Layer reshape_frames
I0720 13:44:01.906165 27280 net.cpp:425] reshape_frames <- embedded_in_frames
I0720 13:44:01.906175 27280 net.cpp:399] reshape_frames -> embedded_input_frames
I0720 13:44:01.906201 27280 net.cpp:141] Setting up reshape_frames
I0720 13:44:01.906208 27280 net.cpp:148] Top shape: 1 1 500 (500)
I0720 13:44:01.906213 27280 net.cpp:156] Memory required for data: 20404
I0720 13:44:01.906218 27280 layer_factory.hpp:77] Creating layer reshape_stage_indicator
I0720 13:44:01.906231 27280 net.cpp:91] Creating Layer reshape_stage_indicator
I0720 13:44:01.906237 27280 net.cpp:425] reshape_stage_indicator <- stage_indicator
I0720 13:44:01.906245 27280 net.cpp:399] reshape_stage_indicator -> reshaped_stage_indicator
I0720 13:44:01.906257 27280 net.cpp:141] Setting up reshape_stage_indicator
I0720 13:44:01.906265 27280 net.cpp:148] Top shape: 1 1 1 (1)
I0720 13:44:01.906268 27280 net.cpp:156] Memory required for data: 20408
I0720 13:44:01.906273 27280 layer_factory.hpp:77] Creating layer embedding
I0720 13:44:01.906287 27280 net.cpp:91] Creating Layer embedding
I0720 13:44:01.906292 27280 net.cpp:425] embedding <- input_sentence
I0720 13:44:01.906299 27280 net.cpp:399] embedding -> embedded_input_sentence
I0720 13:44:01.908543 27300 net.cpp:141] Setting up embed_encoder
I0720 13:44:01.908586 27300 net.cpp:148] Top shape: 1 500 (500)
I0720 13:44:01.908591 27300 net.cpp:156] Memory required for data: 18404
I0720 13:44:01.908610 27300 layer_factory.hpp:77] Creating layer reshape_frames
I0720 13:44:01.909086 27300 net.cpp:91] Creating Layer reshape_frames
I0720 13:44:01.909096 27300 net.cpp:425] reshape_frames <- embedded_in_frames
I0720 13:44:01.909108 27300 net.cpp:399] reshape_frames -> embedded_input_frames
I0720 13:44:01.909128 27300 net.cpp:141] Setting up reshape_frames
I0720 13:44:01.909137 27300 net.cpp:148] Top shape: 1 1 500 (500)
I0720 13:44:01.909140 27300 net.cpp:156] Memory required for data: 20404
I0720 13:44:01.909144 27300 layer_factory.hpp:77] Creating layer reshape_stage_indicator
I0720 13:44:01.909157 27300 net.cpp:91] Creating Layer reshape_stage_indicator
I0720 13:44:01.909162 27300 net.cpp:425] reshape_stage_indicator <- stage_indicator
I0720 13:44:01.909169 27300 net.cpp:399] reshape_stage_indicator -> reshaped_stage_indicator
I0720 13:44:01.909180 27300 net.cpp:141] Setting up reshape_stage_indicator
I0720 13:44:01.909188 27300 net.cpp:148] Top shape: 1 1 1 (1)
I0720 13:44:01.909191 27300 net.cpp:156] Memory required for data: 20408
I0720 13:44:01.909195 27300 layer_factory.hpp:77] Creating layer embedding
I0720 13:44:01.909682 27300 net.cpp:91] Creating Layer embedding
I0720 13:44:01.909688 27300 net.cpp:425] embedding <- input_sentence
I0720 13:44:01.909698 27300 net.cpp:399] embedding -> embedded_input_sentence
I0720 13:44:01.910336 27312 net.cpp:141] Setting up embed_encoder
I0720 13:44:01.910337 27278 net.cpp:141] Setting up embed_encoder
I0720 13:44:01.910357 27312 net.cpp:148] Top shape: 1 500 (500)
I0720 13:44:01.910357 27292 net.cpp:141] Setting up embed_encoder
I0720 13:44:01.910377 27312 net.cpp:156] Memory required for data: 18404
I0720 13:44:01.910383 27278 net.cpp:148] Top shape: 1 500 (500)
I0720 13:44:01.910395 27292 net.cpp:148] Top shape: 1 500 (500)
I0720 13:44:01.910403 27278 net.cpp:156] Memory required for data: 18404
I0720 13:44:01.910406 27292 net.cpp:156] Memory required for data: 18404
I0720 13:44:01.910410 27312 layer_factory.hpp:77] Creating layer reshape_frames
I0720 13:44:01.910425 27278 layer_factory.hpp:77] Creating layer reshape_frames
I0720 13:44:01.910429 27312 net.cpp:91] Creating Layer reshape_frames
I0720 13:44:01.910439 27312 net.cpp:425] reshape_frames <- embedded_in_frames
I0720 13:44:01.910444 27278 net.cpp:91] Creating Layer reshape_frames
I0720 13:44:01.910452 27278 net.cpp:425] reshape_frames <- embedded_in_frames
I0720 13:44:01.910452 27312 net.cpp:399] reshape_frames -> embedded_input_frames
I0720 13:44:01.910481 27312 net.cpp:141] Setting up reshape_frames
I0720 13:44:01.910493 27312 net.cpp:148] Top shape: 1 1 500 (500)
I0720 13:44:01.910500 27312 net.cpp:156] Memory required for data: 20404
I0720 13:44:01.910507 27312 layer_factory.hpp:77] Creating layer reshape_stage_indicator
I0720 13:44:01.914755 27278 net.cpp:399] reshape_frames -> embedded_input_frames
I0720 13:44:01.914757 27292 layer_factory.hpp:77] Creating layer reshape_frames
I0720 13:44:01.914757 27312 net.cpp:91] Creating Layer reshape_stage_indicator
I0720 13:44:01.914793 27278 net.cpp:141] Setting up reshape_frames
I0720 13:44:01.914804 27278 net.cpp:148] Top shape: 1 1 500 (500)
I0720 13:44:01.914815 27278 net.cpp:156] Memory required for data: 20404
I0720 13:44:01.914801 27292 net.cpp:91] Creating Layer reshape_frames
I0720 13:44:01.914824 27278 layer_factory.hpp:77] Creating layer reshape_stage_indicator
I0720 13:44:01.914801 27312 net.cpp:425] reshape_stage_indicator <- stage_indicator
I0720 13:44:01.914840 27278 net.cpp:91] Creating Layer reshape_stage_indicator
I0720 13:44:01.914830 27292 net.cpp:425] reshape_frames <- embedded_in_frames
I0720 13:44:01.914855 27312 net.cpp:399] reshape_stage_indicator -> reshaped_stage_indicator
I0720 13:44:01.914849 27278 net.cpp:425] reshape_stage_indicator <- stage_indicator
I0720 13:44:01.914885 27312 net.cpp:141] Setting up reshape_stage_indicator
I0720 13:44:01.914904 27312 net.cpp:148] Top shape: 1 1 1 (1)
I0720 13:44:01.914912 27312 net.cpp:156] Memory required for data: 20408
I0720 13:44:01.914921 27312 layer_factory.hpp:77] Creating layer embedding
I0720 13:44:01.915287 27292 net.cpp:399] reshape_frames -> embedded_input_frames
I0720 13:44:01.915295 27312 net.cpp:91] Creating Layer embedding
I0720 13:44:01.915297 27318 net.cpp:141] Setting up embed_encoder
I0720 13:44:01.915318 27292 net.cpp:141] Setting up reshape_frames
I0720 13:44:01.915283 27296 net.cpp:141] Setting up embed_encoder
I0720 13:44:01.915283 27322 net.cpp:141] Setting up embed_encoder
I0720 13:44:01.915338 27292 net.cpp:148] Top shape: 1 1 500 (500)
I0720 13:44:01.915313 27312 net.cpp:425] embedding <- input_sentence
I0720 13:44:01.915344 27318 net.cpp:148] Top shape: 1 500 (500)
I0720 13:44:01.915351 27292 net.cpp:156] Memory required for data: 20404
I0720 13:44:01.915305 27278 net.cpp:399] reshape_stage_indicator -> reshaped_stage_indicator
I0720 13:44:01.915364 27292 layer_factory.hpp:77] Creating layer reshape_stage_indicator
I0720 13:44:01.915364 27318 net.cpp:156] Memory required for data: 18404
I0720 13:44:01.915369 27312 net.cpp:399] embedding -> embedded_input_sentence
I0720 13:44:01.915346 27296 net.cpp:148] Top shape: 1 500 (500)
I0720 13:44:01.915370 27274 net.cpp:141] Setting up embed_encoder
I0720 13:44:01.915388 27296 net.cpp:156] Memory required for data: 18404
I0720 13:44:01.915352 27322 net.cpp:148] Top shape: 1 500 (500)
I0720 13:44:01.915400 27318 layer_factory.hpp:77] Creating layer reshape_frames
I0720 13:44:01.915385 27292 net.cpp:91] Creating Layer reshape_stage_indicator
I0720 13:44:01.915385 27278 net.cpp:141] Setting up reshape_stage_indicator
I0720 13:44:01.915405 27274 net.cpp:148] Top shape: 1 500 (500)
I0720 13:44:01.915418 27296 layer_factory.hpp:77] Creating layer reshape_frames
I0720 13:44:01.915406 27322 net.cpp:156] Memory required for data: 18404
I0720 13:44:01.915426 27278 net.cpp:148] Top shape: 1 1 1 (1)
I0720 13:44:01.915427 27274 net.cpp:156] Memory required for data: 18404
I0720 13:44:01.915432 27278 net.cpp:156] Memory required for data: 20408
I0720 13:44:01.915422 27292 net.cpp:425] reshape_stage_indicator <- stage_indicator
I0720 13:44:01.915441 27278 layer_factory.hpp:77] Creating layer embedding
I0720 13:44:01.915448 27322 layer_factory.hpp:77] Creating layer reshape_frames
I0720 13:44:01.915452 27274 layer_factory.hpp:77] Creating layer reshape_frames
I0720 13:44:01.915459 27292 net.cpp:399] reshape_stage_indicator -> reshaped_stage_indicator
I0720 13:44:01.915463 27278 net.cpp:91] Creating Layer embedding
I0720 13:44:01.915477 27278 net.cpp:425] embedding <- input_sentence
I0720 13:44:01.915485 27292 net.cpp:141] Setting up reshape_stage_indicator
I0720 13:44:01.915500 27292 net.cpp:148] Top shape: 1 1 1 (1)
I0720 13:44:01.915509 27292 net.cpp:156] Memory required for data: 20408
I0720 13:44:01.915518 27292 layer_factory.hpp:77] Creating layer embedding
I0720 13:44:01.915943 27296 net.cpp:91] Creating Layer reshape_frames
I0720 13:44:01.915947 27274 net.cpp:91] Creating Layer reshape_frames
I0720 13:44:01.915947 27292 net.cpp:91] Creating Layer embedding
I0720 13:44:01.915968 27274 net.cpp:425] reshape_frames <- embedded_in_frames
I0720 13:44:01.915946 27278 net.cpp:399] embedding -> embedded_input_sentence
I0720 13:44:01.915979 27292 net.cpp:425] embedding <- input_sentence
I0720 13:44:01.915956 27318 net.cpp:91] Creating Layer reshape_frames
I0720 13:44:01.915943 27322 net.cpp:91] Creating Layer reshape_frames
I0720 13:44:01.915987 27274 net.cpp:399] reshape_frames -> embedded_input_frames
I0720 13:44:01.916007 27318 net.cpp:425] reshape_frames <- embedded_in_frames
I0720 13:44:01.915966 27296 net.cpp:425] reshape_frames <- embedded_in_frames
I0720 13:44:01.916010 27322 net.cpp:425] reshape_frames <- embedded_in_frames
I0720 13:44:01.916028 27274 net.cpp:141] Setting up reshape_frames
I0720 13:44:01.916033 27318 net.cpp:399] reshape_frames -> embedded_input_frames
I0720 13:44:01.916040 27274 net.cpp:148] Top shape: 1 1 500 (500)
I0720 13:44:01.916038 27296 net.cpp:399] reshape_frames -> embedded_input_frames
I0720 13:44:01.916038 27322 net.cpp:399] reshape_frames -> embedded_input_frames
I0720 13:44:01.916057 27318 net.cpp:141] Setting up reshape_frames
I0720 13:44:01.916049 27274 net.cpp:156] Memory required for data: 20404
I0720 13:44:01.916072 27296 net.cpp:141] Setting up reshape_frames
I0720 13:44:01.916074 27322 net.cpp:141] Setting up reshape_frames
I0720 13:44:01.916079 27274 layer_factory.hpp:77] Creating layer reshape_stage_indicator
I0720 13:44:01.916090 27296 net.cpp:148] Top shape: 1 1 500 (500)
I0720 13:44:01.916090 27322 net.cpp:148] Top shape: 1 1 500 (500)
I0720 13:44:01.916103 27296 net.cpp:156] Memory required for data: 20404
I0720 13:44:01.916079 27318 net.cpp:148] Top shape: 1 1 500 (500)
I0720 13:44:01.916110 27322 net.cpp:156] Memory required for data: 20404
I0720 13:44:01.916112 27296 layer_factory.hpp:77] Creating layer reshape_stage_indicator
I0720 13:44:01.916133 27322 layer_factory.hpp:77] Creating layer reshape_stage_indicator
I0720 13:44:01.916126 27318 net.cpp:156] Memory required for data: 20404
I0720 13:44:01.916151 27318 layer_factory.hpp:77] Creating layer reshape_stage_indicator
…
I0720 13:44:01.916509 27322 net.cpp:425] reshape_stage_indicator <- stage_indicator
I0720 13:44:01.916523 27296 net.cpp:399] reshape_stage_indicator -> reshaped_stage_indicator
I0720 13:44:01.916532 27322 net.cpp:399] reshape_stage_indicator -> reshaped_stage_indicator
I0720 13:44:01.916533 27274 net.cpp:141] Setting up reshape_stage_indicator
I0720 13:44:01.916517 27318 net.cpp:91] Creating Layer reshape_stage_indicator
I0720 13:44:01.916550 27322 net.cpp:141] Setting up reshape_stage_indicator
I0720 13:44:01.916550 27296 net.cpp:141] Setting up reshape_stage_indicator
I0720 13:44:01.916546 27274 net.cpp:148] Top shape: 1 1 1 (1)
I0720 13:44:01.916558 27284 net.cpp:141] Setting up embed_encoder
I0720 13:44:01.916566 27322 net.cpp:148] Top shape: 1 1 1 (1)
I0720 13:44:01.916570 27318 net.cpp:425] reshape_stage_indicator <- stage_indicator
I0720 13:44:01.916574 27274 net.cpp:156] Memory required for data: 20408
I0720 13:44:01.916586 27284 net.cpp:148] Top shape: 1 500 (500)
I0720 13:44:01.916566 27296 net.cpp:148] Top shape: 1 1 1 (1)
I0720 13:44:01.916594 27274 layer_factory.hpp:77] Creating layer embedding
I0720 13:44:01.916599 27284 net.cpp:156] Memory required for data: 18404
I0720 13:44:01.916600 27318 net.cpp:399] reshape_stage_indicator -> reshaped_stage_indicator
I0720 13:44:01.916586 27322 net.cpp:156] Memory required for data: 20408
I0720 13:44:01.916601 27296 net.cpp:156] Memory required for data: 20408
I0720 13:44:01.916617 27322 layer_factory.hpp:77] Creating layer embedding
I0720 13:44:01.916621 27296 layer_factory.hpp:77] Creating layer embedding
I0720 13:44:01.916630 27318 net.cpp:141] Setting up reshape_stage_indicator
I0720 13:44:01.916633 27322 net.cpp:91] Creating Layer embedding
I0720 13:44:01.916645 27322 net.cpp:425] embedding <- input_sentence
I0720 13:44:01.916647 27318 net.cpp:148] Top shape: 1 1 1 (1)
I0720 13:44:01.916658 27318 net.cpp:156] Memory required for data: 20408
I0720 13:44:01.916669 27318 layer_factory.hpp:77] Creating layer embedding
I0720 13:44:01.917167 27274 net.cpp:91] Creating Layer embedding
I0720 13:44:01.917176 27284 layer_factory.hpp:77] Creating layer reshape_frames
I0720 13:44:01.917181 27322 net.cpp:399] embedding -> embedded_input_sentence
I0720 13:44:01.917181 27296 net.cpp:91] Creating Layer embedding
I0720 13:44:01.917191 27284 net.cpp:91] Creating Layer reshape_frames
I0720 13:44:01.917186 27318 net.cpp:91] Creating Layer embedding
I0720 13:44:01.917194 27296 net.cpp:425] embedding <- input_sentence
I0720 13:44:01.917208 27284 net.cpp:425] reshape_frames <- embedded_in_frames
I0720 13:44:01.917181 27274 net.cpp:425] embedding <- input_sentence
I0720 13:44:01.917214 27318 net.cpp:425] embedding <- input_sentence
I0720 13:44:01.917218 27296 net.cpp:399] embedding -> embedded_input_sentence
I0720 13:44:01.917230 27274 net.cpp:399] embedding -> embedded_input_sentence
I0720 13:44:01.917239 27318 net.cpp:399] embedding -> embedded_input_sentence
I0720 13:44:01.917701 27284 net.cpp:399] reshape_frames -> embedded_input_frames
I0720 13:44:01.917718 27284 net.cpp:141] Setting up reshape_frames
I0720 13:44:01.917726 27284 net.cpp:148] Top shape: 1 1 500 (500)
I0720 13:44:01.917731 27284 net.cpp:156] Memory required for data: 20404
I0720 13:44:01.917735 27284 layer_factory.hpp:77] Creating layer reshape_stage_indicator
I0720 13:44:01.917745 27284 net.cpp:91] Creating Layer reshape_stage_indicator
I0720 13:44:01.917750 27284 net.cpp:425] reshape_stage_indicator <- stage_indicator
I0720 13:44:01.917757 27284 net.cpp:399] reshape_stage_indicator -> reshaped_stage_indicator
I0720 13:44:01.917768 27284 net.cpp:141] Setting up reshape_stage_indicator
I0720 13:44:01.917774 27284 net.cpp:148] Top shape: 1 1 1 (1)
I0720 13:44:01.917778 27284 net.cpp:156] Memory required for data: 20408
I0720 13:44:01.917783 27284 layer_factory.hpp:77] Creating layer embedding
I0720 13:44:01.918759 27284 net.cpp:91] Creating Layer embedding
I0720 13:44:01.918787 27284 net.cpp:425] embedding <- input_sentence
I0720 13:44:01.918814 27284 net.cpp:399] embedding -> embedded_input_sentence
I0720 13:44:02.073938 27314 net.cpp:141] Setting up conv1
I0720 13:44:02.073994 27314 net.cpp:148] Top shape: 10 96 55 55 (2904000)
I0720 13:44:02.074003 27314 net.cpp:156] Memory required for data: 17799480
I0720 13:44:02.074035 27314 layer_factory.hpp:77] Creating layer relu1
I0720 13:44:02.074057 27314 net.cpp:91] Creating Layer relu1
I0720 13:44:02.074066 27314 net.cpp:425] relu1 <- conv1
I0720 13:44:02.074085 27314 net.cpp:386] relu1 -> conv1 (in-place)
I0720 13:44:02.075090 27314 net.cpp:141] Setting up relu1
I0720 13:44:02.075110 27314 net.cpp:148] Top shape: 10 96 55 55 (2904000)
I0720 13:44:02.075117 27314 net.cpp:156] Memory required for data: 29415480
I0720 13:44:02.075125 27314 layer_factory.hpp:77] Creating layer pool1
I0720 13:44:02.075145 27314 net.cpp:91] Creating Layer pool1
I0720 13:44:02.075153 27314 net.cpp:425] pool1 <- conv1
I0720 13:44:02.075165 27314 net.cpp:399] pool1 -> pool1
I0720 13:44:02.075197 27314 net.cpp:141] Setting up pool1
I0720 13:44:02.075208 27314 net.cpp:148] Top shape: 10 96 27 27 (699840)
I0720 13:44:02.075214 27314 net.cpp:156] Memory required for data: 32214840
I0720 13:44:02.075222 27314 layer_factory.hpp:77] Creating layer norm1
I0720 13:44:02.075243 27314 net.cpp:91] Creating Layer norm1
I0720 13:44:02.075251 27314 net.cpp:425] norm1 <- pool1
I0720 13:44:02.075263 27314 net.cpp:399] norm1 -> norm1
I0720 13:44:02.075577 27314 net.cpp:141] Setting up norm1
I0720 13:44:02.075593 27314 net.cpp:148] Top shape: 10 96 27 27 (699840)
I0720 13:44:02.075600 27314 net.cpp:156] Memory required for data: 35014200
I0720 13:44:02.075608 27314 layer_factory.hpp:77] Creating layer conv2
I0720 13:44:02.075629 27314 net.cpp:91] Creating Layer conv2
I0720 13:44:02.075637 27314 net.cpp:425] conv2 <- norm1
I0720 13:44:02.075650 27314 net.cpp:399] conv2 -> conv2
I0720 13:44:02.082793 27294 net.cpp:141] Setting up conv1
I0720 13:44:02.082841 27294 net.cpp:148] Top shape: 10 96 55 55 (2904000)
I0720 13:44:02.082850 27294 net.cpp:156] Memory required for data: 17799480
I0720 13:44:02.082878 27294 layer_factory.hpp:77] Creating layer relu1
I0720 13:44:02.082903 27294 net.cpp:91] Creating Layer relu1
I0720 13:44:02.082913 27294 net.cpp:425] relu1 <- conv1
I0720 13:44:02.082924 27294 net.cpp:386] relu1 -> conv1 (in-place)
I0720 13:44:02.083957 27294 net.cpp:141] Setting up relu1
I0720 13:44:02.083976 27294 net.cpp:148] Top shape: 10 96 55 55 (2904000)
I0720 13:44:02.083983 27294 net.cpp:156] Memory required for data: 29415480
I0720 13:44:02.083992 27294 layer_factory.hpp:77] Creating layer pool1
I0720 13:44:02.084008 27294 net.cpp:91] Creating Layer pool1
I0720 13:44:02.084017 27294 net.cpp:425] pool1 <- conv1
I0720 13:44:02.084030 27294 net.cpp:399] pool1 -> pool1
I0720 13:44:02.084051 27294 net.cpp:141] Setting up pool1
I0720 13:44:02.084061 27294 net.cpp:148] Top shape: 10 96 27 27 (699840)
I0720 13:44:02.084069 27294 net.cpp:156] Memory required for data: 32214840
I0720 13:44:02.084074 27294 layer_factory.hpp:77] Creating layer norm1
I0720 13:44:02.084094 27294 net.cpp:91] Creating Layer norm1
I0720 13:44:02.084101 27294 net.cpp:425] norm1 <- pool1
I0720 13:44:02.084110 27294 net.cpp:399] norm1 -> norm1
I0720 13:44:02.084396 27294 net.cpp:141] Setting up norm1
I0720 13:44:02.084411 27294 net.cpp:148] Top shape: 10 96 27 27 (699840)
I0720 13:44:02.084419 27294 net.cpp:156] Memory required for data: 35014200
I0720 13:44:02.084426 27294 layer_factory.hpp:77] Creating layer conv2
I0720 13:44:02.084447 27294 net.cpp:91] Creating Layer conv2
I0720 13:44:02.084455 27294 net.cpp:425] conv2 <- norm1
I0720 13:44:02.084466 27294 net.cpp:399] conv2 -> conv2
I0720 13:44:02.090684 27294 net.cpp:141] Setting up conv2
I0720 13:44:02.092669 27294 net.cpp:148] Top shape: 10 256 27 27 (1866240)
I0720 13:44:02.092677 27294 net.cpp:156] Memory required for data: 42479160
I0720 13:44:02.092710 27294 layer_factory.hpp:77] Creating layer relu2
I0720 13:44:02.092732 27294 net.cpp:91] Creating Layer relu2
I0720 13:44:02.092741 27294 net.cpp:425] relu2 <- conv2
I0720 13:44:02.092756 27294 net.cpp:386] relu2 -> conv2 (in-place)
I0720 13:44:02.096530 27298 net.cpp:141] Setting up conv1
I0720 13:44:02.096568 27298 net.cpp:148] Top shape: 10 96 55 55 (2904000)
I0720 13:44:02.096576 27298 net.cpp:156] Memory required for data: 17799480
I0720 13:44:02.096601 27298 layer_factory.hpp:77] Creating layer relu1
I0720 13:44:02.096621 27298 net.cpp:91] Creating Layer relu1
I0720 13:44:02.096631 27298 net.cpp:425] relu1 <- conv1
I0720 13:44:02.096642 27298 net.cpp:386] relu1 -> conv1 (in-place)
I0720 13:44:02.096949 27298 net.cpp:141] Setting up relu1
I0720 13:44:02.096964 27298 net.cpp:148] Top shape: 10 96 55 55 (2904000)
I0720 13:44:02.096971 27298 net.cpp:156] Memory required for data: 29415480
I0720 13:44:02.096979 27298 layer_factory.hpp:77] Creating layer pool1
I0720 13:44:02.096997 27298 net.cpp:91] Creating Layer pool1
I0720 13:44:02.097004 27298 net.cpp:425] pool1 <- conv1
I0720 13:44:02.097017 27298 net.cpp:399] pool1 -> pool1
I0720 13:44:02.097038 27298 net.cpp:141] Setting up pool1
I0720 13:44:02.097048 27298 net.cpp:148] Top shape: 10 96 27 27 (699840)
I0720 13:44:02.097054 27298 net.cpp:156] Memory required for data: 32214840
I0720 13:44:02.097061 27298 layer_factory.hpp:77] Creating layer norm1
I0720 13:44:02.097079 27298 net.cpp:91] Creating Layer norm1
I0720 13:44:02.097087 27298 net.cpp:425] norm1 <- pool1
I0720 13:44:02.097097 27298 net.cpp:399] norm1 -> norm1
I0720 13:44:02.098152 27298 net.cpp:141] Setting up norm1
I0720 13:44:02.098170 27298 net.cpp:148] Top shape: 10 96 27 27 (699840)
I0720 13:44:02.098177 27298 net.cpp:156] Memory required for data: 35014200
I0720 13:44:02.098186 27298 layer_factory.hpp:77] Creating layer conv2
I0720 13:44:02.098206 27298 net.cpp:91] Creating Layer conv2
I0720 13:44:02.098215 27298 net.cpp:425] conv2 <- norm1
I0720 13:44:02.098225 27298 net.cpp:399] conv2 -> conv2
I0720 13:44:02.103127 27298 net.cpp:141] Setting up conv2
I0720 13:44:02.103165 27298 net.cpp:148] Top shape: 10 256 27 27 (1866240)
I0720 13:44:02.103173 27298 net.cpp:156] Memory required for data: 42479160
I0720 13:44:02.103196 27298 layer_factory.hpp:77] Creating layer relu2
I0720 13:44:02.103216 27298 net.cpp:91] Creating Layer relu2
I0720 13:44:02.103225 27298 net.cpp:425] relu2 <- conv2
I0720 13:44:02.103238 27298 net.cpp:386] relu2 -> conv2 (in-place)
I0720 13:44:02.104270 27298 net.cpp:141] Setting up relu2
I0720 13:44:02.104288 27298 net.cpp:148] Top shape: 10 256 27 27 (1866240)
I0720 13:44:02.104295 27298 net.cpp:156] Memory required for data: 49944120
I0720 13:44:02.104303 27298 layer_factory.hpp:77] Creating layer pool2
I0720 13:44:02.104321 27298 net.cpp:91] Creating Layer pool2
I0720 13:44:02.104329 27298 net.cpp:425] pool2 <- conv2
I0720 13:44:02.104342 27298 net.cpp:399] pool2 -> pool2
I0720 13:44:02.104362 27298 net.cpp:141] Setting up pool2
I0720 13:44:02.104373 27298 net.cpp:148] Top shape: 10 256 13 13 (432640)
I0720 13:44:02.104379 27298 net.cpp:156] Memory required for data: 51674680
I0720 13:44:02.104387 27298 layer_factory.hpp:77] Creating layer norm2
I0720 13:44:02.104403 27298 net.cpp:91] Creating Layer norm2
I0720 13:44:02.104409 27298 net.cpp:425] norm2 <- pool2
I0720 13:44:02.104424 27298 net.cpp:399] norm2 -> norm2
I0720 13:44:02.104720 27298 net.cpp:141] Setting up norm2
I0720 13:44:02.104735 27298 net.cpp:148] Top shape: 10 256 13 13 (432640)
I0720 13:44:02.104743 27298 net.cpp:156] Memory required for data: 53405240
I0720 13:44:02.104750 27298 layer_factory.hpp:77] Creating layer conv3
I0720 13:44:02.104771 27298 net.cpp:91] Creating Layer conv3
I0720 13:44:02.104779 27298 net.cpp:425] conv3 <- norm2
I0720 13:44:02.104792 27298 net.cpp:399] conv3 -> conv3
I0720 13:44:02.109666 27290 net.cpp:141] Setting up conv1
I0720 13:44:02.109712 27290 net.cpp:148] Top shape: 10 96 55 55 (2904000)
I0720 13:44:02.109720 27290 net.cpp:156] Memory required for data: 17799480
I0720 13:44:02.109746 27290 layer_factory.hpp:77] Creating layer relu1
I0720 13:44:02.109767 27290 net.cpp:91] Creating Layer relu1
I0720 13:44:02.109776 27290 net.cpp:425] relu1 <- conv1
I0720 13:44:02.109791 27290 net.cpp:386] relu1 -> conv1 (in-place)
I0720 13:44:02.110824 27290 net.cpp:141] Setting up relu1
I0720 13:44:02.110852 27290 net.cpp:148] Top shape: 10 96 55 55 (2904000)
I0720 13:44:02.110859 27290 net.cpp:156] Memory required for data: 29415480
I0720 13:44:02.110868 27290 layer_factory.hpp:77] Creating layer pool1
I0720 13:44:02.110888 27290 net.cpp:91] Creating Layer pool1
I0720 13:44:02.110898 27290 net.cpp:425] pool1 <- conv1
I0720 13:44:02.110909 27290 net.cpp:399] pool1 -> pool1
I0720 13:44:02.110936 27290 net.cpp:141] Setting up pool1
I0720 13:44:02.110950 27290 net.cpp:148] Top shape: 10 96 27 27 (699840)
I0720 13:44:02.110956 27290 net.cpp:156] Memory required for data: 32214840
I0720 13:44:02.110963 27290 layer_factory.hpp:77] Creating layer norm1
I0720 13:44:02.110980 27290 net.cpp:91] Creating Layer norm1
I0720 13:44:02.110986 27290 net.cpp:425] norm1 <- pool1
I0720 13:44:02.110998 27290 net.cpp:399] norm1 -> norm1
I0720 13:44:02.111320 27290 net.cpp:141] Setting up norm1
I0720 13:44:02.111336 27290 net.cpp:148] Top shape: 10 96 27 27 (699840)
I0720 13:44:02.111343 27290 net.cpp:156] Memory required for data: 35014200
I0720 13:44:02.111351 27290 layer_factory.hpp:77] Creating layer conv2
I0720 13:44:02.111373 27290 net.cpp:91] Creating Layer conv2
I0720 13:44:02.111382 27290 net.cpp:425] conv2 <- norm1
I0720 13:44:02.111392 27290 net.cpp:399] conv2 -> conv2
I0720 13:44:02.119951 27294 net.cpp:141] Setting up relu2
I0720 13:44:02.119999 27294 net.cpp:148] Top shape: 10 256 27 27 (1866240)
I0720 13:44:02.120008 27294 net.cpp:156] Memory required for data: 49944120
I0720 13:44:02.120020 27294 layer_factory.hpp:77] Creating layer pool2
I0720 13:44:02.120048 27294 net.cpp:91] Creating Layer pool2
I0720 13:44:02.120059 27294 net.cpp:425] pool2 <- conv2
I0720 13:44:02.120074 27294 net.cpp:399] pool2 -> pool2
I0720 13:44:02.120098 27294 net.cpp:141] Setting up pool2
I0720 13:44:02.120110 27294 net.cpp:148] Top shape: 10 256 13 13 (432640)
I0720 13:44:02.120116 27294 net.cpp:156] Memory required for data: 51674680
I0720 13:44:02.120122 27294 layer_factory.hpp:77] Creating layer norm2
I0720 13:44:02.120139 27294 net.cpp:91] Creating Layer norm2
I0720 13:44:02.120146 27294 net.cpp:425] norm2 <- pool2
I0720 13:44:02.120160 27294 net.cpp:399] norm2 -> norm2
I0720 13:44:02.121655 27294 net.cpp:141] Setting up norm2
I0720 13:44:02.121677 27294 net.cpp:148] Top shape: 10 256 13 13 (432640)
I0720 13:44:02.121685 27294 net.cpp:156] Memory required for data: 53405240
I0720 13:44:02.121693 27294 layer_factory.hpp:77] Creating layer conv3
I0720 13:44:02.121716 27294 net.cpp:91] Creating Layer conv3
I0720 13:44:02.121724 27294 net.cpp:425] conv3 <- norm2
I0720 13:44:02.121738 27294 net.cpp:399] conv3 -> conv3
I0720 13:44:02.129312 27282 net.cpp:141] Setting up conv1
I0720 13:44:02.129375 27282 net.cpp:148] Top shape: 10 96 55 55 (2904000)
I0720 13:44:02.129384 27282 net.cpp:156] Memory required for data: 17799480
I0720 13:44:02.129413 27282 layer_factory.hpp:77] Creating layer relu1
I0720 13:44:02.129439 27282 net.cpp:91] Creating Layer relu1
I0720 13:44:02.129449 27282 net.cpp:425] relu1 <- conv1
I0720 13:44:02.129461 27282 net.cpp:386] relu1 -> conv1 (in-place)
I0720 13:44:02.130707 27282 net.cpp:141] Setting up relu1
I0720 13:44:02.130728 27282 net.cpp:148] Top shape: 10 96 55 55 (2904000)
I0720 13:44:02.130738 27282 net.cpp:156] Memory required for data: 29415480
I0720 13:44:02.130746 27282 layer_factory.hpp:77] Creating layer pool1
I0720 13:44:02.130761 27282 net.cpp:91] Creating Layer pool1
I0720 13:44:02.130769 27282 net.cpp:425] pool1 <- conv1
I0720 13:44:02.130779 27282 net.cpp:399] pool1 -> pool1
I0720 13:44:02.130801 27282 net.cpp:141] Setting up pool1
I0720 13:44:02.130812 27282 net.cpp:148] Top shape: 10 96 27 27 (699840)
I0720 13:44:02.130820 27282 net.cpp:156] Memory required for data: 32214840
I0720 13:44:02.130825 27282 layer_factory.hpp:77] Creating layer norm1
I0720 13:44:02.130846 27282 net.cpp:91] Creating Layer norm1
I0720 13:44:02.130856 27282 net.cpp:425] norm1 <- pool1
I0720 13:44:02.130867 27282 net.cpp:399] norm1 -> norm1
I0720 13:44:02.131180 27282 net.cpp:141] Setting up norm1
I0720 13:44:02.131196 27282 net.cpp:148] Top shape: 10 96 27 27 (699840)
I0720 13:44:02.131202 27282 net.cpp:156] Memory required for data: 35014200
I0720 13:44:02.131209 27282 layer_factory.hpp:77] Creating layer conv2
I0720 13:44:02.131232 27282 net.cpp:91] Creating Layer conv2
I0720 13:44:02.131239 27282 net.cpp:425] conv2 <- norm1
I0720 13:44:02.131249 27282 net.cpp:399] conv2 -> conv2
I0720 13:44:02.136832 27310 net.cpp:141] Setting up conv1
I0720 13:44:02.136889 27310 net.cpp:148] Top shape: 10 96 55 55 (2904000)
I0720 13:44:02.136899 27310 net.cpp:156] Memory required for data: 17799480
I0720 13:44:02.136926 27310 layer_factory.hpp:77] Creating layer relu1
I0720 13:44:02.136950 27310 net.cpp:91] Creating Layer relu1
I0720 13:44:02.136958 27310 net.cpp:425] relu1 <- conv1
I0720 13:44:02.136970 27310 net.cpp:386] relu1 -> conv1 (in-place)
I0720 13:44:02.137276 27310 net.cpp:141] Setting up relu1
I0720 13:44:02.137291 27310 net.cpp:148] Top shape: 10 96 55 55 (2904000)
I0720 13:44:02.137298 27310 net.cpp:156] Memory required for data: 29415480
I0720 13:44:02.137306 27310 layer_factory.hpp:77] Creating layer pool1
I0720 13:44:02.137322 27310 net.cpp:91] Creating Layer pool1
I0720 13:44:02.137331 27310 net.cpp:425] pool1 <- conv1
I0720 13:44:02.137341 27310 net.cpp:399] pool1 -> pool1
I0720 13:44:02.137362 27310 net.cpp:141] Setting up pool1
I0720 13:44:02.137372 27310 net.cpp:148] Top shape: 10 96 27 27 (699840)
I0720 13:44:02.137378 27310 net.cpp:156] Memory required for data: 32214840
I0720 13:44:02.137384 27310 layer_factory.hpp:77] Creating layer norm1
I0720 13:44:02.137403 27310 net.cpp:91] Creating Layer norm1
I0720 13:44:02.137411 27310 net.cpp:425] norm1 <- pool1
I0720 13:44:02.137423 27310 net.cpp:399] norm1 -> norm1
I0720 13:44:02.138474 27310 net.cpp:141] Setting up norm1
I0720 13:44:02.138495 27310 net.cpp:148] Top shape: 10 96 27 27 (699840)
I0720 13:44:02.138502 27310 net.cpp:156] Memory required for data: 35014200
I0720 13:44:02.138510 27310 layer_factory.hpp:77] Creating layer conv2
I0720 13:44:02.138530 27310 net.cpp:91] Creating Layer conv2
I0720 13:44:02.138537 27310 net.cpp:425] conv2 <- norm1
I0720 13:44:02.138551 27310 net.cpp:399] conv2 -> conv2
I0720 13:44:02.139096 27318 net.cpp:141] Setting up embedding
I0720 13:44:02.139145 27318 net.cpp:148] Top shape: 1 1 500 (500)
I0720 13:44:02.139152 27318 net.cpp:156] Memory required for data: 22408
I0720 13:44:02.139168 27318 layer_factory.hpp:77] Creating layer lstm1
I0720 13:44:02.139186 27318 net.cpp:91] Creating Layer lstm1
I0720 13:44:02.139194 27318 net.cpp:425] lstm1 <- embedded_input_frames
I0720 13:44:02.139201 27318 net.cpp:425] lstm1 <- cont_sentence_input_1_split_0
I0720 13:44:02.139235 27318 net.cpp:399] lstm1 -> lstm1
I0720 13:44:02.139277 27318 recurrent_layer.cpp:20] Initializing recurrent layer: assuming input batch contains 1 timesteps of 1 independent streams.
I0720 13:44:02.139292 27312 net.cpp:141] Setting up embedding
I0720 13:44:02.139312 27312 net.cpp:148] Top shape: 1 1 500 (500)
I0720 13:44:02.139320 27312 net.cpp:156] Memory required for data: 22408
I0720 13:44:02.139336 27312 layer_factory.hpp:77] Creating layer lstm1
I0720 13:44:02.139381 27312 net.cpp:91] Creating Layer lstm1
I0720 13:44:02.139394 27312 net.cpp:425] lstm1 <- embedded_input_frames
I0720 13:44:02.139405 27312 net.cpp:425] lstm1 <- cont_sentence_input_1_split_0
I0720 13:44:02.139422 27312 net.cpp:399] lstm1 -> lstm1
I0720 13:44:02.139437 27312 recurrent_layer.cpp:20] Initializing recurrent layer: assuming input batch contains 1 timesteps of 1 independent streams.
I0720 13:44:02.139675 27318 net.cpp:49] Initializing net from parameters: 
layer {
  name: "lstm1_"
  type: "Input"
  top: "x"
  top: "cont"
  input_param {
    shape {
      dim: 1
      dim: 1
      dim: 500
    }
    shape {
      dim: 1
      dim: 1
    }
  }
}
layer {
  name: "lstm1_"
  type: "Input"
  top: "c_0"
  top: "h_0"
  input_param {
    shape {
      dim: 1
      dim: 1
      dim: 1000
    }
    shape {
      dim: 1
      dim: 1
      dim: 1000
    }
  }
}
layer {
  name: "lstm1_cont_slice"
  type: "Slice"
  bottom: "cont"
  top: "cont_1"
  slice_param {
    axis: 0
  }
}
layer {
  name: "lstm1_x_transform"
  type: "InnerProduct"
  bottom: "x"
  top: "W_xc_x"
  param {
    name: "W_xc"
  }
  param {
    name: "b_c"
  }
  propagate_down: true
  inner_product_param {
    num_output: 4000
    bias_term: true
    weight_filler {
      type: "uniform"
      min: -0.08
      max: 0.08
    }
    bias_filler {
      type: "constant"
      value: 0
    }
    axis: 2
  }
}
layer {
  name: "lstm1_W_xc_x_slice"
  type: "Slice"
  bottom: "W_xc_x"
  top: "W_xc_x_1"
  slice_param {
    axis: 0
  }
}
layer {
  name: "lstm1_h_conted_0"
  type: "Scale"
  bottom: "h_0"
  bottom: "cont_1"
  top: "h_conted_0"
  scale_param {
    axis: 0
  }
}
layer {
  name: "lstm1_transform_1"
  type: "InnerProduct"
  bottom: "h_conted_0"
  top: "W_hc_h_0"
  param {
    name: "W_hc"
  }
  inner_product_param {
    num_output: 4000
    bias_term: false
    weight_filler {
      type: "uniform"
      min: -0.08
      max: 0.08
    }
    axis: 2
  }
}
layer {
  name: "lstm1_gate_input_1"
  type: "Eltwise"
  bottom: "W_hc_h_0"
  bottom: "W_xc_x_1"
  top: "gate_input_1"
  eltwise_param {
    operation: SUM
  }
}
layer {
  name: "lstm1_unit_1"
  type: "LSTMUnit"
  bottom: "c_0"
  bottom: "gate_input_1"
  bottom: "cont_1"
  top: "c_1"
  top: "h_1"
}
layer {
  name: "lstm1_"
  type: "Split"
  bottom: "c_1"
  top: "c_T"
}
layer {
  name: "lstm1_h_concat"
  type: "Concat"
  bottom: "h_1"
  top: "h"
  concat_param {
    axis: 0
  }
}
layer {
  name: "h_pseudoloss"
  type: "Reduction"
  bottom: "h"
  top: "h_pseudoloss"
  loss_weight: 1
}
I0720 13:44:02.139772 27318 layer_factory.hpp:77] Creating layer lstm1_
I0720 13:44:02.139786 27318 net.cpp:91] Creating Layer lstm1_
I0720 13:44:02.139783 27312 net.cpp:49] Initializing net from parameters: 
layer {
  name: "lstm1_"
  type: "Input"
  top: "x"
  top: "cont"
  input_param {
    shape {
      dim: 1
      dim: 1
      dim: 500
    }
    shape {
      dim: 1
      dim: 1
    }
  }
}
layer {
  name: "lstm1_"
  type: "Input"
  top: "c_0"
  top: "h_0"
  input_param {
    shape {
      dim: 1
      dim: 1
      dim: 1000
    }
    shape {
      dim: 1
      dim: 1
      dim: 1000
    }
  }
}
layer {
  name: "lstm1_cont_slice"
  type: "Slice"
  bottom: "cont"
  top: "cont_1"
  slice_param {
    axis: 0
  }
}
layer {
  name: "lstm1_x_transform"
  type: "InnerProduct"
  bottom: "x"
  top: "W_xc_x"
  param {
    name: "W_xc"
  }
  param {
    name: "b_c"
  }
  propagate_down: true
  inner_product_param {
    num_output: 4000
    bias_term: true
    weight_filler {
      type: "uniform"
      min: -0.08
      max: 0.08
    }
    bias_filler {
      type: "constant"
      value: 0
    }
    axis: 2
  }
}
layer {
  name: "lstm1_W_xc_x_slice"
  type: "Slice"
  bottom: "W_xc_x"
  top: "W_xc_x_1"
  slice_param {
    axis: 0
  }
}
layer {
  name: "lstm1_h_conted_0"
  type: "Scale"
  bottom: "h_0"
  bottom: "cont_1"
  top: "h_conted_0"
  scale_param {
    axis: 0
  }
}
layer {
  name: "lstm1_transform_1"
  type: "InnerProduct"
  bottom: "h_conted_0"
  top: "W_hc_h_0"
  param {
    name: "W_hc"
  }
  inner_product_param {
    num_output: 4000
    bias_term: false
    weight_filler {
      type: "uniform"
      min: -0.08
      max: 0.08
    }
    axis: 2
  }
}
layer {
  name: "lstm1_gate_input_1"
  type: "Eltwise"
  bottom: "W_hc_h_0"
  bottom: "W_xc_x_1"
  top: "gate_input_1"
  eltwise_param {
    operation: SUM
  }
}
layer {
  name: "lstm1_unit_1"
  type: "LSTMUnit"
  bottom: "c_0"
  bottom: "gate_input_1"
  bottom: "cont_1"
  top: "c_1"
  top: "h_1"
}
layer {
  name: "lstm1_"
  type: "Split"
  bottom: "c_1"
  top: "c_T"
}
layer {
  name: "lstm1_h_concat"
  type: "Concat"
  bottom: "h_1"
  top: "h"
  concat_param {
    axis: 0
  }
}
layer {
  name: "h_pseudoloss"
  type: "Reduction"
  bottom: "h"
  top: "h_pseudoloss"
  loss_weight: 1
}
I0720 13:44:02.139793 27318 net.cpp:399] lstm1_ -> x
I0720 13:44:02.139817 27318 net.cpp:399] lstm1_ -> cont
I0720 13:44:02.139832 27318 net.cpp:141] Setting up lstm1_
I0720 13:44:02.139839 27318 net.cpp:148] Top shape: 1 1 500 (500)
I0720 13:44:02.139845 27318 net.cpp:148] Top shape: 1 1 (1)
I0720 13:44:02.139849 27318 net.cpp:156] Memory required for data: 2004
I0720 13:44:02.139854 27318 layer_factory.hpp:77] Creating layer lstm1_
I0720 13:44:02.139863 27318 net.cpp:91] Creating Layer lstm1_
I0720 13:44:02.139868 27318 net.cpp:399] lstm1_ -> c_0
I0720 13:44:02.139878 27318 net.cpp:399] lstm1_ -> h_0
I0720 13:44:02.139888 27318 net.cpp:141] Setting up lstm1_
I0720 13:44:02.139894 27318 net.cpp:148] Top shape: 1 1 1000 (1000)
I0720 13:44:02.139899 27318 net.cpp:148] Top shape: 1 1 1000 (1000)
I0720 13:44:02.139904 27318 net.cpp:156] Memory required for data: 10004
I0720 13:44:02.139907 27318 layer_factory.hpp:77] Creating layer lstm1_cont_slice
I0720 13:44:02.139915 27318 net.cpp:91] Creating Layer lstm1_cont_slice
I0720 13:44:02.139919 27318 net.cpp:425] lstm1_cont_slice <- cont
I0720 13:44:02.139926 27318 net.cpp:399] lstm1_cont_slice -> cont_1
I0720 13:44:02.139928 27312 layer_factory.hpp:77] Creating layer lstm1_
I0720 13:44:02.139940 27318 net.cpp:141] Setting up lstm1_cont_slice
I0720 13:44:02.139946 27318 net.cpp:148] Top shape: 1 1 (1)
I0720 13:44:02.139950 27318 net.cpp:156] Memory required for data: 10008
I0720 13:44:02.139950 27312 net.cpp:91] Creating Layer lstm1_
I0720 13:44:02.139955 27318 layer_factory.hpp:77] Creating layer cont_1_lstm1_cont_slice_0_split
I0720 13:44:02.139971 27312 net.cpp:399] lstm1_ -> x
I0720 13:44:02.139976 27318 net.cpp:91] Creating Layer cont_1_lstm1_cont_slice_0_split
I0720 13:44:02.139983 27318 net.cpp:425] cont_1_lstm1_cont_slice_0_split <- cont_1
I0720 13:44:02.139991 27318 net.cpp:399] cont_1_lstm1_cont_slice_0_split -> cont_1_lstm1_cont_slice_0_split_0
I0720 13:44:02.139992 27312 net.cpp:399] lstm1_ -> cont
I0720 13:44:02.139998 27318 net.cpp:399] cont_1_lstm1_cont_slice_0_split -> cont_1_lstm1_cont_slice_0_split_1
I0720 13:44:02.140015 27318 net.cpp:141] Setting up cont_1_lstm1_cont_slice_0_split
I0720 13:44:02.140025 27318 net.cpp:148] Top shape: 1 1 (1)
I0720 13:44:02.140022 27312 net.cpp:141] Setting up lstm1_
I0720 13:44:02.140036 27318 net.cpp:148] Top shape: 1 1 (1)
I0720 13:44:02.140049 27318 net.cpp:156] Memory required for data: 10016
I0720 13:44:02.140054 27318 layer_factory.hpp:77] Creating layer lstm1_x_transform
I0720 13:44:02.140054 27312 net.cpp:148] Top shape: 1 1 500 (500)
I0720 13:44:02.140064 27318 net.cpp:91] Creating Layer lstm1_x_transform
I0720 13:44:02.140069 27318 net.cpp:425] lstm1_x_transform <- x
I0720 13:44:02.140069 27312 net.cpp:148] Top shape: 1 1 (1)
I0720 13:44:02.140080 27312 net.cpp:156] Memory required for data: 2004
I0720 13:44:02.140082 27318 net.cpp:399] lstm1_x_transform -> W_xc_x
I0720 13:44:02.140094 27312 layer_factory.hpp:77] Creating layer lstm1_
I0720 13:44:02.140112 27312 net.cpp:91] Creating Layer lstm1_
I0720 13:44:02.140125 27312 net.cpp:399] lstm1_ -> c_0
I0720 13:44:02.140146 27312 net.cpp:399] lstm1_ -> h_0
I0720 13:44:02.140167 27312 net.cpp:141] Setting up lstm1_
I0720 13:44:02.140182 27312 net.cpp:148] Top shape: 1 1 1000 (1000)
I0720 13:44:02.140194 27312 net.cpp:148] Top shape: 1 1 1000 (1000)
I0720 13:44:02.140203 27312 net.cpp:156] Memory required for data: 10004
I0720 13:44:02.140213 27312 layer_factory.hpp:77] Creating layer lstm1_cont_slice
I0720 13:44:02.140607 27312 net.cpp:91] Creating Layer lstm1_cont_slice
I0720 13:44:02.140621 27312 net.cpp:425] lstm1_cont_slice <- cont
I0720 13:44:02.140636 27312 net.cpp:399] lstm1_cont_slice -> cont_1
I0720 13:44:02.140658 27312 net.cpp:141] Setting up lstm1_cont_slice
I0720 13:44:02.140674 27312 net.cpp:148] Top shape: 1 1 (1)
I0720 13:44:02.140683 27312 net.cpp:156] Memory required for data: 10008
I0720 13:44:02.140693 27312 layer_factory.hpp:77] Creating layer cont_1_lstm1_cont_slice_0_split
I0720 13:44:02.140712 27312 net.cpp:91] Creating Layer cont_1_lstm1_cont_slice_0_split
I0720 13:44:02.140722 27312 net.cpp:425] cont_1_lstm1_cont_slice_0_split <- cont_1
I0720 13:44:02.140735 27312 net.cpp:399] cont_1_lstm1_cont_slice_0_split -> cont_1_lstm1_cont_slice_0_split_0
I0720 13:44:02.140753 27312 net.cpp:399] cont_1_lstm1_cont_slice_0_split -> cont_1_lstm1_cont_slice_0_split_1
I0720 13:44:02.140771 27312 net.cpp:141] Setting up cont_1_lstm1_cont_slice_0_split
I0720 13:44:02.140784 27312 net.cpp:148] Top shape: 1 1 (1)
I0720 13:44:02.140796 27312 net.cpp:148] Top shape: 1 1 (1)
I0720 13:44:02.140805 27312 net.cpp:156] Memory required for data: 10016
I0720 13:44:02.140815 27312 layer_factory.hpp:77] Creating layer lstm1_x_transform
I0720 13:44:02.141208 27312 net.cpp:91] Creating Layer lstm1_x_transform
I0720 13:44:02.141224 27312 net.cpp:425] lstm1_x_transform <- x
I0720 13:44:02.141250 27312 net.cpp:399] lstm1_x_transform -> W_xc_x
I0720 13:44:02.143201 27326 net.cpp:141] Setting up conv1
I0720 13:44:02.143242 27326 net.cpp:148] Top shape: 10 96 55 55 (2904000)
I0720 13:44:02.143251 27326 net.cpp:156] Memory required for data: 17799480
I0720 13:44:02.143276 27326 layer_factory.hpp:77] Creating layer relu1
I0720 13:44:02.143296 27326 net.cpp:91] Creating Layer relu1
I0720 13:44:02.143304 27326 net.cpp:425] relu1 <- conv1
I0720 13:44:02.143319 27326 net.cpp:386] relu1 -> conv1 (in-place)
I0720 13:44:02.145233 27326 net.cpp:141] Setting up relu1
I0720 13:44:02.145258 27326 net.cpp:148] Top shape: 10 96 55 55 (2904000)
I0720 13:44:02.145267 27326 net.cpp:156] Memory required for data: 29415480
I0720 13:44:02.145274 27326 layer_factory.hpp:77] Creating layer pool1
I0720 13:44:02.145292 27326 net.cpp:91] Creating Layer pool1
I0720 13:44:02.145300 27326 net.cpp:425] pool1 <- conv1
I0720 13:44:02.145311 27326 net.cpp:399] pool1 -> pool1
I0720 13:44:02.145334 27326 net.cpp:141] Setting up pool1
I0720 13:44:02.145349 27326 net.cpp:148] Top shape: 10 96 27 27 (699840)
I0720 13:44:02.145355 27326 net.cpp:156] Memory required for data: 32214840
I0720 13:44:02.145362 27326 layer_factory.hpp:77] Creating layer norm1
I0720 13:44:02.145378 27326 net.cpp:91] Creating Layer norm1
I0720 13:44:02.145385 27326 net.cpp:425] norm1 <- pool1
I0720 13:44:02.145397 27326 net.cpp:399] norm1 -> norm1
I0720 13:44:02.145697 27326 net.cpp:141] Setting up norm1
I0720 13:44:02.145712 27326 net.cpp:148] Top shape: 10 96 27 27 (699840)
I0720 13:44:02.145720 27326 net.cpp:156] Memory required for data: 35014200
I0720 13:44:02.145726 27326 layer_factory.hpp:77] Creating layer conv2
I0720 13:44:02.145747 27326 net.cpp:91] Creating Layer conv2
I0720 13:44:02.145756 27326 net.cpp:425] conv2 <- norm1
I0720 13:44:02.145766 27326 net.cpp:399] conv2 -> conv2
I0720 13:44:02.152354 27326 net.cpp:141] Setting up conv2
I0720 13:44:02.152405 27326 net.cpp:148] Top shape: 10 256 27 27 (1866240)
I0720 13:44:02.152413 27326 net.cpp:156] Memory required for data: 42479160
I0720 13:44:02.152438 27326 layer_factory.hpp:77] Creating layer relu2
I0720 13:44:02.152459 27326 net.cpp:91] Creating Layer relu2
I0720 13:44:02.152468 27326 net.cpp:425] relu2 <- conv2
I0720 13:44:02.152479 27326 net.cpp:386] relu2 -> conv2 (in-place)
I0720 13:44:02.152799 27326 net.cpp:141] Setting up relu2
I0720 13:44:02.152817 27326 net.cpp:148] Top shape: 10 256 27 27 (1866240)
I0720 13:44:02.152824 27326 net.cpp:156] Memory required for data: 49944120
I0720 13:44:02.152832 27326 layer_factory.hpp:77] Creating layer pool2
I0720 13:44:02.152845 27326 net.cpp:91] Creating Layer pool2
I0720 13:44:02.152853 27326 net.cpp:425] pool2 <- conv2
I0720 13:44:02.152863 27326 net.cpp:399] pool2 -> pool2
I0720 13:44:02.152884 27326 net.cpp:141] Setting up pool2
I0720 13:44:02.152894 27326 net.cpp:148] Top shape: 10 256 13 13 (432640)
I0720 13:44:02.152899 27326 net.cpp:156] Memory required for data: 51674680
I0720 13:44:02.152906 27326 layer_factory.hpp:77] Creating layer norm2
I0720 13:44:02.152926 27326 net.cpp:91] Creating Layer norm2
I0720 13:44:02.152935 27326 net.cpp:425] norm2 <- pool2
I0720 13:44:02.152945 27326 net.cpp:399] norm2 -> norm2
I0720 13:44:02.155100 27280 net.cpp:141] Setting up embedding
I0720 13:44:02.155143 27280 net.cpp:148] Top shape: 1 1 500 (500)
I0720 13:44:02.155151 27280 net.cpp:156] Memory required for data: 22408
I0720 13:44:02.155174 27280 layer_factory.hpp:77] Creating layer lstm1
I0720 13:44:02.155208 27280 net.cpp:91] Creating Layer lstm1
I0720 13:44:02.155220 27280 net.cpp:425] lstm1 <- embedded_input_frames
I0720 13:44:02.155232 27280 net.cpp:425] lstm1 <- cont_sentence_input_1_split_0
I0720 13:44:02.155252 27280 net.cpp:399] lstm1 -> lstm1
I0720 13:44:02.155273 27280 recurrent_layer.cpp:20] Initializing recurrent layer: assuming input batch contains 1 timesteps of 1 independent streams.
I0720 13:44:02.155683 27280 net.cpp:49] Initializing net from parameters: 
layer {
  name: "lstm1_"
  type: "Input"
  top: "x"
  top: "cont"
  input_param {
    shape {
      dim: 1
      dim: 1
      dim: 500
    }
    shape {
      dim: 1
      dim: 1
    }
  }
}
layer {
  name: "lstm1_"
  type: "Input"
  top: "c_0"
  top: "h_0"
  input_param {
    shape {
      dim: 1
      dim: 1
      dim: 1000
    }
    shape {
      dim: 1
      dim: 1
      dim: 1000
    }
  }
}
layer {
  name: "lstm1_cont_slice"
  type: "Slice"
  bottom: "cont"
  top: "cont_1"
  slice_param {
    axis: 0
  }
}
layer {
  name: "lstm1_x_transform"
  type: "InnerProduct"
  bottom: "x"
  top: "W_xc_x"
  param {
    name: "W_xc"
  }
  param {
    name: "b_c"
  }
  propagate_down: true
  inner_product_param {
    num_output: 4000
    bias_term: true
    weight_filler {
      type: "uniform"
      min: -0.08
      max: 0.08
    }
    bias_filler {
      type: "constant"
      value: 0
    }
    axis: 2
  }
}
layer {
  name: "lstm1_W_xc_x_slice"
  type: "Slice"
  bottom: "W_xc_x"
  top: "W_xc_x_1"
  slice_param {
    axis: 0
  }
}
layer {
  name: "lstm1_h_conted_0"
  type: "Scale"
  bottom: "h_0"
  bottom: "cont_1"
  top: "h_conted_0"
  scale_param {
    axis: 0
  }
}
layer {
  name: "lstm1_transform_1"
  type: "InnerProduct"
  bottom: "h_conted_0"
  top: "W_hc_h_0"
  param {
    name: "W_hc"
  }
  inner_product_param {
    num_output: 4000
    bias_term: false
    weight_filler {
      type: "uniform"
      min: -0.08
      max: 0.08
    }
    axis: 2
  }
}
layer {
  name: "lstm1_gate_input_1"
  type: "Eltwise"
  bottom: "W_hc_h_0"
  bottom: "W_xc_x_1"
  top: "gate_input_1"
  eltwise_param {
    operation: SUM
  }
}
layer {
  name: "lstm1_unit_1"
  type: "LSTMUnit"
  bottom: "c_0"
  bottom: "gate_input_1"
  bottom: "cont_1"
  top: "c_1"
  top: "h_1"
}
layer {
  name: "lstm1_"
  type: "Split"
  bottom: "c_1"
  top: "c_T"
}
layer {
  name: "lstm1_h_concat"
  type: "Concat"
  bottom: "h_1"
  top: "h"
  concat_param {
    axis: 0
  }
}
layer {
  name: "h_pseudoloss"
  type: "Reduction"
  bottom: "h"
  top: "h_pseudoloss"
  loss_weight: 1
}
I0720 13:44:02.155818 27280 layer_factory.hpp:77] Creating layer lstm1_
I0720 13:44:02.155836 27280 net.cpp:91] Creating Layer lstm1_
I0720 13:44:02.155845 27280 net.cpp:399] lstm1_ -> x
I0720 13:44:02.155863 27280 net.cpp:399] lstm1_ -> cont
I0720 13:44:02.155882 27280 net.cpp:141] Setting up lstm1_
I0720 13:44:02.155895 27280 net.cpp:148] Top shape: 1 1 500 (500)
I0720 13:44:02.155905 27280 net.cpp:148] Top shape: 1 1 (1)
I0720 13:44:02.155910 27280 net.cpp:156] Memory required for data: 2004
I0720 13:44:02.155918 27280 layer_factory.hpp:77] Creating layer lstm1_
I0720 13:44:02.155930 27280 net.cpp:91] Creating Layer lstm1_
I0720 13:44:02.155939 27280 net.cpp:399] lstm1_ -> c_0
I0720 13:44:02.155953 27280 net.cpp:399] lstm1_ -> h_0
I0720 13:44:02.155968 27280 net.cpp:141] Setting up lstm1_
I0720 13:44:02.155978 27280 net.cpp:148] Top shape: 1 1 1000 (1000)
I0720 13:44:02.155987 27280 net.cpp:148] Top shape: 1 1 1000 (1000)
I0720 13:44:02.155993 27280 net.cpp:156] Memory required for data: 10004
I0720 13:44:02.156000 27280 layer_factory.hpp:77] Creating layer lstm1_cont_slice
I0720 13:44:02.156018 27280 net.cpp:91] Creating Layer lstm1_cont_slice
I0720 13:44:02.156026 27280 net.cpp:425] lstm1_cont_slice <- cont
I0720 13:44:02.156036 27280 net.cpp:399] lstm1_cont_slice -> cont_1
I0720 13:44:02.156054 27280 net.cpp:141] Setting up lstm1_cont_slice
I0720 13:44:02.156064 27280 net.cpp:148] Top shape: 1 1 (1)
I0720 13:44:02.156070 27280 net.cpp:156] Memory required for data: 10008
I0720 13:44:02.156076 27280 layer_factory.hpp:77] Creating layer cont_1_lstm1_cont_slice_0_split
I0720 13:44:02.156090 27280 net.cpp:91] Creating Layer cont_1_lstm1_cont_slice_0_split
I0720 13:44:02.156098 27280 net.cpp:425] cont_1_lstm1_cont_slice_0_split <- cont_1
I0720 13:44:02.156108 27280 net.cpp:399] cont_1_lstm1_cont_slice_0_split -> cont_1_lstm1_cont_slice_0_split_0
I0720 13:44:02.156119 27280 net.cpp:399] cont_1_lstm1_cont_slice_0_split -> cont_1_lstm1_cont_slice_0_split_1
I0720 13:44:02.156134 27280 net.cpp:141] Setting up cont_1_lstm1_cont_slice_0_split
I0720 13:44:02.156144 27280 net.cpp:148] Top shape: 1 1 (1)
I0720 13:44:02.156152 27280 net.cpp:148] Top shape: 1 1 (1)
I0720 13:44:02.156158 27280 net.cpp:156] Memory required for data: 10016
I0720 13:44:02.156165 27280 layer_factory.hpp:77] Creating layer lstm1_x_transform
I0720 13:44:02.156184 27280 net.cpp:91] Creating Layer lstm1_x_transform
I0720 13:44:02.156193 27280 net.cpp:425] lstm1_x_transform <- x
I0720 13:44:02.156208 27280 net.cpp:399] lstm1_x_transform -> W_xc_x
I0720 13:44:02.157394 27318 net.cpp:141] Setting up lstm1_x_transform
I0720 13:44:02.157424 27318 net.cpp:148] Top shape: 1 1 4000 (4000)
I0720 13:44:02.157429 27318 net.cpp:156] Memory required for data: 26016
I0720 13:44:02.157446 27318 layer_factory.hpp:77] Creating layer lstm1_W_xc_x_slice
I0720 13:44:02.157464 27318 net.cpp:91] Creating Layer lstm1_W_xc_x_slice
I0720 13:44:02.157469 27318 net.cpp:425] lstm1_W_xc_x_slice <- W_xc_x
I0720 13:44:02.157477 27318 net.cpp:399] lstm1_W_xc_x_slice -> W_xc_x_1
I0720 13:44:02.157493 27318 net.cpp:141] Setting up lstm1_W_xc_x_slice
I0720 13:44:02.157500 27318 net.cpp:148] Top shape: 1 1 4000 (4000)
I0720 13:44:02.157505 27318 net.cpp:156] Memory required for data: 42016
I0720 13:44:02.157510 27318 layer_factory.hpp:77] Creating layer lstm1_h_conted_0
I0720 13:44:02.157991 27318 net.cpp:91] Creating Layer lstm1_h_conted_0
I0720 13:44:02.157999 27318 net.cpp:425] lstm1_h_conted_0 <- h_0
I0720 13:44:02.158006 27318 net.cpp:425] lstm1_h_conted_0 <- cont_1_lstm1_cont_slice_0_split_0
I0720 13:44:02.158015 27318 net.cpp:399] lstm1_h_conted_0 -> h_conted_0
I0720 13:44:02.158044 27318 net.cpp:141] Setting up lstm1_h_conted_0
I0720 13:44:02.158052 27318 net.cpp:148] Top shape: 1 1 1000 (1000)
I0720 13:44:02.158056 27318 net.cpp:156] Memory required for data: 46016
I0720 13:44:02.158061 27318 layer_factory.hpp:77] Creating layer lstm1_transform_1
I0720 13:44:02.158072 27318 net.cpp:91] Creating Layer lstm1_transform_1
I0720 13:44:02.158077 27318 net.cpp:425] lstm1_transform_1 <- h_conted_0
I0720 13:44:02.158087 27318 net.cpp:399] lstm1_transform_1 -> W_hc_h_0
I0720 13:44:02.158172 27326 net.cpp:141] Setting up norm2
I0720 13:44:02.158191 27326 net.cpp:148] Top shape: 10 256 13 13 (432640)
I0720 13:44:02.158198 27326 net.cpp:156] Memory required for data: 53405240
I0720 13:44:02.158207 27326 layer_factory.hpp:77] Creating layer conv3
I0720 13:44:02.158226 27326 net.cpp:91] Creating Layer conv3
I0720 13:44:02.158236 27326 net.cpp:425] conv3 <- norm2
I0720 13:44:02.158251 27326 net.cpp:399] conv3 -> conv3
I0720 13:44:02.159916 27308 net.cpp:141] Setting up conv1
I0720 13:44:02.159958 27308 net.cpp:148] Top shape: 10 96 55 55 (2904000)
I0720 13:44:02.159966 27308 net.cpp:156] Memory required for data: 17799480
I0720 13:44:02.159992 27308 layer_factory.hpp:77] Creating layer relu1
I0720 13:44:02.160017 27308 net.cpp:91] Creating Layer relu1
I0720 13:44:02.160027 27308 net.cpp:425] relu1 <- conv1
I0720 13:44:02.160038 27308 net.cpp:386] relu1 -> conv1 (in-place)
I0720 13:44:02.166939 27312 net.cpp:141] Setting up lstm1_x_transform
I0720 13:44:02.166993 27312 net.cpp:148] Top shape: 1 1 4000 (4000)
I0720 13:44:02.167006 27312 net.cpp:156] Memory required for data: 26016
I0720 13:44:02.167042 27312 layer_factory.hpp:77] Creating layer lstm1_W_xc_x_slice
I0720 13:44:02.167076 27312 net.cpp:91] Creating Layer lstm1_W_xc_x_slice
I0720 13:44:02.167091 27312 net.cpp:425] lstm1_W_xc_x_slice <- W_xc_x
I0720 13:44:02.167109 27312 net.cpp:399] lstm1_W_xc_x_slice -> W_xc_x_1
I0720 13:44:02.167147 27312 net.cpp:141] Setting up lstm1_W_xc_x_slice
I0720 13:44:02.167165 27312 net.cpp:148] Top shape: 1 1 4000 (4000)
I0720 13:44:02.167174 27312 net.cpp:156] Memory required for data: 42016
I0720 13:44:02.167184 27312 layer_factory.hpp:77] Creating layer lstm1_h_conted_0
I0720 13:44:02.167201 27312 net.cpp:91] Creating Layer lstm1_h_conted_0
I0720 13:44:02.167212 27312 net.cpp:425] lstm1_h_conted_0 <- h_0
I0720 13:44:02.167224 27312 net.cpp:425] lstm1_h_conted_0 <- cont_1_lstm1_cont_slice_0_split_0
I0720 13:44:02.167238 27312 net.cpp:399] lstm1_h_conted_0 -> h_conted_0
I0720 13:44:02.167273 27312 net.cpp:141] Setting up lstm1_h_conted_0
I0720 13:44:02.167289 27312 net.cpp:148] Top shape: 1 1 1000 (1000)
I0720 13:44:02.167297 27312 net.cpp:156] Memory required for data: 46016
I0720 13:44:02.167306 27312 layer_factory.hpp:77] Creating layer lstm1_transform_1
I0720 13:44:02.167333 27312 net.cpp:91] Creating Layer lstm1_transform_1
I0720 13:44:02.167340 27282 net.cpp:141] Setting up conv2
I0720 13:44:02.167346 27312 net.cpp:425] lstm1_transform_1 <- h_conted_0
I0720 13:44:02.167369 27282 net.cpp:148] Top shape: 10 256 27 27 (1866240)
I0720 13:44:02.167379 27282 net.cpp:156] Memory required for data: 42479160
I0720 13:44:02.167382 27312 net.cpp:399] lstm1_transform_1 -> W_hc_h_0
I0720 13:44:02.167405 27282 layer_factory.hpp:77] Creating layer relu2
I0720 13:44:02.167421 27282 net.cpp:91] Creating Layer relu2
I0720 13:44:02.167431 27282 net.cpp:425] relu2 <- conv2
I0720 13:44:02.167443 27282 net.cpp:386] relu2 -> conv2 (in-place)
I0720 13:44:02.167449 27296 net.cpp:141] Setting up embedding
I0720 13:44:02.167484 27296 net.cpp:148] Top shape: 1 1 500 (500)
I0720 13:44:02.167490 27296 net.cpp:156] Memory required for data: 22408
I0720 13:44:02.167505 27296 layer_factory.hpp:77] Creating layer lstm1
I0720 13:44:02.167522 27296 net.cpp:91] Creating Layer lstm1
I0720 13:44:02.167529 27296 net.cpp:425] lstm1 <- embedded_input_frames
I0720 13:44:02.167538 27296 net.cpp:425] lstm1 <- cont_sentence_input_1_split_0
I0720 13:44:02.167995 27296 net.cpp:399] lstm1 -> lstm1
I0720 13:44:02.168025 27296 recurrent_layer.cpp:20] Initializing recurrent layer: assuming input batch contains 1 timesteps of 1 independent streams.
I0720 13:44:02.168360 27296 net.cpp:49] Initializing net from parameters: 
layer {
  name: "lstm1_"
  type: "Input"
  top: "x"
  top: "cont"
  input_param {
    shape {
      dim: 1
      dim: 1
      dim: 500
    }
    shape {
      dim: 1
      dim: 1
    }
  }
}
layer {
  name: "lstm1_"
  type: "Input"
  top: "c_0"
  top: "h_0"
  input_param {
    shape {
      dim: 1
      dim: 1
      dim: 1000
    }
    shape {
      dim: 1
      dim: 1
      dim: 1000
    }
  }
}
layer {
  name: "lstm1_cont_slice"
  type: "Slice"
  bottom: "cont"
  top: "cont_1"
  slice_param {
    axis: 0
  }
}
layer {
  name: "lstm1_x_transform"
  type: "InnerProduct"
  bottom: "x"
  top: "W_xc_x"
  param {
    name: "W_xc"
  }
  param {
    name: "b_c"
  }
  propagate_down: true
  inner_product_param {
    num_output: 4000
    bias_term: true
    weight_filler {
      type: "uniform"
      min: -0.08
      max: 0.08
    }
    bias_filler {
      type: "constant"
      value: 0
    }
    axis: 2
  }
}
layer {
  name: "lstm1_W_xc_x_slice"
  type: "Slice"
  bottom: "W_xc_x"
  top: "W_xc_x_1"
  slice_param {
    axis: 0
  }
}
layer {
  name: "lstm1_h_conted_0"
  type: "Scale"
  bottom: "h_0"
  bottom: "cont_1"
  top: "h_conted_0"
  scale_param {
    axis: 0
  }
}
layer {
  name: "lstm1_transform_1"
  type: "InnerProduct"
  bottom: "h_conted_0"
  top: "W_hc_h_0"
  param {
    name: "W_hc"
  }
  inner_product_param {
    num_output: 4000
    bias_term: false
    weight_filler {
      type: "uniform"
      min: -0.08
      max: 0.08
    }
    axis: 2
  }
}
layer {
  name: "lstm1_gate_input_1"
  type: "Eltwise"
  bottom: "W_hc_h_0"
  bottom: "W_xc_x_1"
  top: "gate_input_1"
  eltwise_param {
    operation: SUM
  }
}
layer {
  name: "lstm1_unit_1"
  type: "LSTMUnit"
  bottom: "c_0"
  bottom: "gate_input_1"
  bottom: "cont_1"
  top: "c_1"
  top: "h_1"
}
layer {
  name: "lstm1_"
  type: "Split"
  bottom: "c_1"
  top: "c_T"
}
layer {
  name: "lstm1_h_concat"
  type: "Concat"
  bottom: "h_1"
  top: "h"
  concat_param {
    axis: 0
  }
}
layer {
  name: "h_pseudoloss"
  type: "Reduction"
  bottom: "h"
  top: "h_pseudoloss"
  loss_weight: 1
}
I0720 13:44:02.168468 27296 layer_factory.hpp:77] Creating layer lstm1_
I0720 13:44:02.168483 27296 net.cpp:91] Creating Layer lstm1_
I0720 13:44:02.168490 27296 net.cpp:399] lstm1_ -> x
I0720 13:44:02.168503 27296 net.cpp:399] lstm1_ -> cont
I0720 13:44:02.168515 27296 net.cpp:141] Setting up lstm1_
I0720 13:44:02.168524 27296 net.cpp:148] Top shape: 1 1 500 (500)
I0720 13:44:02.168529 27296 net.cpp:148] Top shape: 1 1 (1)
I0720 13:44:02.168534 27296 net.cpp:156] Memory required for data: 2004
I0720 13:44:02.168539 27296 layer_factory.hpp:77] Creating layer lstm1_
I0720 13:44:02.168545 27296 net.cpp:91] Creating Layer lstm1_
I0720 13:44:02.168552 27296 net.cpp:399] lstm1_ -> c_0
I0720 13:44:02.168561 27296 net.cpp:399] lstm1_ -> h_0
I0720 13:44:02.168571 27296 net.cpp:141] Setting up lstm1_
I0720 13:44:02.168577 27296 net.cpp:148] Top shape: 1 1 1000 (1000)
I0720 13:44:02.168583 27296 net.cpp:148] Top shape: 1 1 1000 (1000)
I0720 13:44:02.168587 27296 net.cpp:156] Memory required for data: 10004
I0720 13:44:02.168591 27296 layer_factory.hpp:77] Creating layer lstm1_cont_slice
I0720 13:44:02.168598 27296 net.cpp:91] Creating Layer lstm1_cont_slice
I0720 13:44:02.168603 27296 net.cpp:425] lstm1_cont_slice <- cont
I0720 13:44:02.168611 27296 net.cpp:399] lstm1_cont_slice -> cont_1
I0720 13:44:02.168622 27296 net.cpp:141] Setting up lstm1_cont_slice
I0720 13:44:02.168628 27296 net.cpp:148] Top shape: 1 1 (1)
I0720 13:44:02.168632 27296 net.cpp:156] Memory required for data: 10008
I0720 13:44:02.168637 27296 layer_factory.hpp:77] Creating layer cont_1_lstm1_cont_slice_0_split
I0720 13:44:02.168658 27296 net.cpp:91] Creating Layer cont_1_lstm1_cont_slice_0_split
I0720 13:44:02.168664 27296 net.cpp:425] cont_1_lstm1_cont_slice_0_split <- cont_1
I0720 13:44:02.168671 27296 net.cpp:399] cont_1_lstm1_cont_slice_0_split -> cont_1_lstm1_cont_slice_0_split_0
I0720 13:44:02.168679 27296 net.cpp:399] cont_1_lstm1_cont_slice_0_split -> cont_1_lstm1_cont_slice_0_split_1
I0720 13:44:02.168689 27296 net.cpp:141] Setting up cont_1_lstm1_cont_slice_0_split
I0720 13:44:02.168699 27296 net.cpp:148] Top shape: 1 1 (1)
I0720 13:44:02.168704 27296 net.cpp:148] Top shape: 1 1 (1)
I0720 13:44:02.168709 27296 net.cpp:156] Memory required for data: 10016
I0720 13:44:02.168712 27296 layer_factory.hpp:77] Creating layer lstm1_x_transform
I0720 13:44:02.168721 27296 net.cpp:91] Creating Layer lstm1_x_transform
I0720 13:44:02.168726 27296 net.cpp:425] lstm1_x_transform <- x
I0720 13:44:02.168741 27296 net.cpp:399] lstm1_x_transform -> W_xc_x
I0720 13:44:02.170778 27316 net.cpp:141] Setting up conv1
I0720 13:44:02.170819 27316 net.cpp:148] Top shape: 10 96 55 55 (2904000)
I0720 13:44:02.170826 27316 net.cpp:156] Memory required for data: 17799480
I0720 13:44:02.170853 27316 layer_factory.hpp:77] Creating layer relu1
I0720 13:44:02.170874 27316 net.cpp:91] Creating Layer relu1
I0720 13:44:02.170883 27316 net.cpp:425] relu1 <- conv1
I0720 13:44:02.170897 27316 net.cpp:386] relu1 -> conv1 (in-place)
I0720 13:44:02.172523 27316 net.cpp:141] Setting up relu1
I0720 13:44:02.172546 27316 net.cpp:148] Top shape: 10 96 55 55 (2904000)
I0720 13:44:02.172554 27316 net.cpp:156] Memory required for data: 29415480
I0720 13:44:02.172562 27316 layer_factory.hpp:77] Creating layer pool1
I0720 13:44:02.172577 27316 net.cpp:91] Creating Layer pool1
I0720 13:44:02.172585 27316 net.cpp:425] pool1 <- conv1
I0720 13:44:02.172598 27316 net.cpp:399] pool1 -> pool1
I0720 13:44:02.172621 27316 net.cpp:141] Setting up pool1
I0720 13:44:02.172632 27316 net.cpp:148] Top shape: 10 96 27 27 (699840)
I0720 13:44:02.172638 27316 net.cpp:156] Memory required for data: 32214840
I0720 13:44:02.172646 27316 layer_factory.hpp:77] Creating layer norm1
I0720 13:44:02.172664 27316 net.cpp:91] Creating Layer norm1
I0720 13:44:02.172672 27316 net.cpp:425] norm1 <- pool1
I0720 13:44:02.172683 27316 net.cpp:399] norm1 -> norm1
I0720 13:44:02.172992 27316 net.cpp:141] Setting up norm1
I0720 13:44:02.173007 27316 net.cpp:148] Top shape: 10 96 27 27 (699840)
I0720 13:44:02.173014 27316 net.cpp:156] Memory required for data: 35014200
I0720 13:44:02.173027 27316 layer_factory.hpp:77] Creating layer conv2
I0720 13:44:02.173048 27316 net.cpp:91] Creating Layer conv2
I0720 13:44:02.173056 27316 net.cpp:425] conv2 <- norm1
I0720 13:44:02.173071 27316 net.cpp:399] conv2 -> conv2
I0720 13:44:02.173745 27280 net.cpp:141] Setting up lstm1_x_transform
I0720 13:44:02.173760 27280 net.cpp:148] Top shape: 1 1 4000 (4000)
I0720 13:44:02.173765 27280 net.cpp:156] Memory required for data: 26016
I0720 13:44:02.173777 27280 layer_factory.hpp:77] Creating layer lstm1_W_xc_x_slice
I0720 13:44:02.173800 27280 net.cpp:91] Creating Layer lstm1_W_xc_x_slice
I0720 13:44:02.173807 27280 net.cpp:425] lstm1_W_xc_x_slice <- W_xc_x
I0720 13:44:02.173815 27280 net.cpp:399] lstm1_W_xc_x_slice -> W_xc_x_1
I0720 13:44:02.173836 27280 net.cpp:141] Setting up lstm1_W_xc_x_slice
I0720 13:44:02.173845 27280 net.cpp:148] Top shape: 1 1 4000 (4000)
I0720 13:44:02.173848 27280 net.cpp:156] Memory required for data: 42016
I0720 13:44:02.173853 27280 layer_factory.hpp:77] Creating layer lstm1_h_conted_0
I0720 13:44:02.173862 27280 net.cpp:91] Creating Layer lstm1_h_conted_0
I0720 13:44:02.173867 27280 net.cpp:425] lstm1_h_conted_0 <- h_0
I0720 13:44:02.173873 27280 net.cpp:425] lstm1_h_conted_0 <- cont_1_lstm1_cont_slice_0_split_0
I0720 13:44:02.173879 27280 net.cpp:399] lstm1_h_conted_0 -> h_conted_0
I0720 13:44:02.173902 27280 net.cpp:141] Setting up lstm1_h_conted_0
I0720 13:44:02.173908 27280 net.cpp:148] Top shape: 1 1 1000 (1000)
I0720 13:44:02.173913 27280 net.cpp:156] Memory required for data: 46016
I0720 13:44:02.173916 27280 layer_factory.hpp:77] Creating layer lstm1_transform_1
I0720 13:44:02.173928 27280 net.cpp:91] Creating Layer lstm1_transform_1
I0720 13:44:02.173931 27280 net.cpp:425] lstm1_transform_1 <- h_conted_0
I0720 13:44:02.173941 27280 net.cpp:399] lstm1_transform_1 -> W_hc_h_0
I0720 13:44:02.173945 27294 net.cpp:141] Setting up conv3
I0720 13:44:02.173962 27294 net.cpp:148] Top shape: 10 384 13 13 (648960)
I0720 13:44:02.173969 27294 net.cpp:156] Memory required for data: 56001080
I0720 13:44:02.173988 27294 layer_factory.hpp:77] Creating layer relu3
I0720 13:44:02.174005 27294 net.cpp:91] Creating Layer relu3
I0720 13:44:02.174013 27294 net.cpp:425] relu3 <- conv3
I0720 13:44:02.174023 27294 net.cpp:386] relu3 -> conv3 (in-place)
I0720 13:44:02.175751 27294 net.cpp:141] Setting up relu3
I0720 13:44:02.175783 27294 net.cpp:148] Top shape: 10 384 13 13 (648960)
I0720 13:44:02.175791 27294 net.cpp:156] Memory required for data: 58596920
I0720 13:44:02.175801 27294 layer_factory.hpp:77] Creating layer conv4
I0720 13:44:02.175825 27294 net.cpp:91] Creating Layer conv4
I0720 13:44:02.175834 27294 net.cpp:425] conv4 <- conv3
I0720 13:44:02.175848 27294 net.cpp:399] conv4 -> conv4
I0720 13:44:02.176059 27292 net.cpp:141] Setting up embedding
I0720 13:44:02.176093 27292 net.cpp:148] Top shape: 1 1 500 (500)
I0720 13:44:02.176100 27292 net.cpp:156] Memory required for data: 22408
I0720 13:44:02.176113 27292 layer_factory.hpp:77] Creating layer lstm1
I0720 13:44:02.176131 27292 net.cpp:91] Creating Layer lstm1
I0720 13:44:02.176138 27292 net.cpp:425] lstm1 <- embedded_input_frames
I0720 13:44:02.176146 27292 net.cpp:425] lstm1 <- cont_sentence_input_1_split_0
I0720 13:44:02.176539 27292 net.cpp:399] lstm1 -> lstm1
I0720 13:44:02.176568 27292 recurrent_layer.cpp:20] Initializing recurrent layer: assuming input batch contains 1 timesteps of 1 independent streams.
I0720 13:44:02.177124 27292 net.cpp:49] Initializing net from parameters: 
layer {
  name: "lstm1_"
  type: "Input"
  top: "x"
  top: "cont"
  input_param {
    shape {
      dim: 1
      dim: 1
      dim: 500
    }
    shape {
      dim: 1
      dim: 1
    }
  }
}
layer {
  name: "lstm1_"
  type: "Input"
  top: "c_0"
  top: "h_0"
  input_param {
    shape {
      dim: 1
      dim: 1
      dim: 1000
    }
    shape {
      dim: 1
      dim: 1
      dim: 1000
    }
  }
}
layer {
  name: "lstm1_cont_slice"
  type: "Slice"
  bottom: "cont"
  top: "cont_1"
  slice_param {
    axis: 0
  }
}
layer {
  name: "lstm1_x_transform"
  type: "InnerProduct"
  bottom: "x"
  top: "W_xc_x"
  param {
    name: "W_xc"
  }
  param {
    name: "b_c"
  }
  propagate_down: true
  inner_product_param {
    num_output: 4000
…
I0720 13:44:02.819007 27310 net.cpp:148] Top shape: 10 4096 (40960)
I0720 13:44:02.819011 27310 net.cpp:156] Memory required for data: 68109880
I0720 13:44:02.819016 27310 layer_factory.hpp:77] Creating layer fc7
I0720 13:44:02.819517 27310 net.cpp:91] Creating Layer fc7
I0720 13:44:02.819528 27310 net.cpp:425] fc7 <- fc6
I0720 13:44:02.819537 27310 net.cpp:399] fc7 -> fc7
I0720 13:44:02.823323 27294 net.cpp:141] Setting up fc8
I0720 13:44:02.823375 27294 net.cpp:148] Top shape: 10 1000 (10000)
I0720 13:44:02.823384 27294 net.cpp:156] Memory required for data: 68641400
I0720 13:44:02.823405 27294 layer_factory.hpp:77] Creating layer prob
I0720 13:44:02.823426 27294 net.cpp:91] Creating Layer prob
I0720 13:44:02.823436 27294 net.cpp:425] prob <- fc8
I0720 13:44:02.823992 27294 net.cpp:399] prob -> prob
I0720 13:44:02.828783 27294 net.cpp:141] Setting up prob
I0720 13:44:02.828838 27294 net.cpp:148] Top shape: 10 1000 (10000)
I0720 13:44:02.828847 27294 net.cpp:156] Memory required for data: 68681400
I0720 13:44:02.828860 27294 net.cpp:219] prob does not need backward computation.
I0720 13:44:02.828871 27294 net.cpp:219] fc8 does not need backward computation.
I0720 13:44:02.828879 27294 net.cpp:219] drop7 does not need backward computation.
I0720 13:44:02.828886 27294 net.cpp:219] relu7 does not need backward computation.
…
I0720 13:44:02.829001 27294 net.cpp:219] norm1 does not need backward computation.
I0720 13:44:02.829008 27294 net.cpp:219] pool1 does not need backward computation.
I0720 13:44:02.829015 27294 net.cpp:219] relu1 does not need backward computation.
I0720 13:44:02.829021 27294 net.cpp:219] conv1 does not need backward computation.
I0720 13:44:02.829028 27294 net.cpp:219] data does not need backward computation.
I0720 13:44:02.829035 27294 net.cpp:261] This network produces output prob
I0720 13:44:02.829437 27294 net.cpp:274] Network initialization done.
I0720 13:44:02.834200 27280 net.cpp:141] Setting up predict
I0720 13:44:02.834264 27280 net.cpp:148] Top shape: 1 1 46168 (46168)
I0720 13:44:02.834271 27280 net.cpp:156] Memory required for data: 221084
I0720 13:44:02.834295 27280 layer_factory.hpp:77] Creating layer probs
I0720 13:44:02.834321 27280 net.cpp:91] Creating Layer probs
I0720 13:44:02.834331 27280 net.cpp:425] probs <- predict
I0720 13:44:02.834348 27280 net.cpp:399] probs -> probs
I0720 13:44:02.839172 27278 net.cpp:141] Setting up predict
I0720 13:44:02.839231 27278 net.cpp:148] Top shape: 1 1 46168 (46168)
I0720 13:44:02.839241 27278 net.cpp:156] Memory required for data: 221084
I0720 13:44:02.839267 27278 layer_factory.hpp:77] Creating layer probs
I0720 13:44:02.839293 27278 net.cpp:91] Creating Layer probs
I0720 13:44:02.839305 27278 net.cpp:425] probs <- predict
I0720 13:44:02.839323 27278 net.cpp:399] probs -> probs
I0720 13:44:02.849844 27290 net.cpp:141] Setting up fc7
I0720 13:44:02.849903 27290 net.cpp:148] Top shape: 10 4096 (40960)
I0720 13:44:02.849912 27290 net.cpp:156] Memory required for data: 68273720
I0720 13:44:02.849934 27290 layer_factory.hpp:77] Creating layer relu7
I0720 13:44:02.850332 27290 net.cpp:91] Creating Layer relu7
I0720 13:44:02.850333 27326 net.cpp:141] Setting up fc6
I0720 13:44:02.850350 27290 net.cpp:425] relu7 <- fc7
I0720 13:44:02.850394 27326 net.cpp:148] Top shape: 10 4096 (40960)
I0720 13:44:02.850400 27290 net.cpp:386] relu7 -> fc7 (in-place)
I0720 13:44:02.850405 27326 net.cpp:156] Memory required for data: 67782200
I0720 13:44:02.850431 27326 layer_factory.hpp:77] Creating layer relu6
I0720 13:44:02.850888 27284 net.cpp:141] Setting up predict
I0720 13:44:02.850898 27326 net.cpp:91] Creating Layer relu6
I0720 13:44:02.850911 27284 net.cpp:148] Top shape: 1 1 46168 (46168)
I0720 13:44:02.850932 27284 net.cpp:156] Memory required for data: 221084
I0720 13:44:02.850937 27326 net.cpp:425] relu6 <- fc6
I0720 13:44:02.850945 27284 layer_factory.hpp:77] Creating layer probs
I0720 13:44:02.850958 27284 net.cpp:91] Creating Layer probs
I0720 13:44:02.850960 27326 net.cpp:386] relu6 -> fc6 (in-place)
I0720 13:44:02.850965 27284 net.cpp:425] probs <- predict
I0720 13:44:02.850976 27284 net.cpp:399] probs -> probs
I0720 13:44:02.853142 27308 net.cpp:141] Setting up conv5
I0720 13:44:02.853206 27308 net.cpp:148] Top shape: 10 256 13 13 (432640)
I0720 13:44:02.853217 27308 net.cpp:156] Memory required for data: 65519160
I0720 13:44:02.853250 27308 layer_factory.hpp:77] Creating layer relu5
I0720 13:44:02.853806 27308 net.cpp:91] Creating Layer relu5
I0720 13:44:02.853830 27308 net.cpp:425] relu5 <- conv5
I0720 13:44:02.853849 27308 net.cpp:386] relu5 -> conv5 (in-place)
I0720 13:44:02.854897 27292 net.cpp:141] Setting up predict
I0720 13:44:02.854929 27292 net.cpp:148] Top shape: 1 1 46168 (46168)
I0720 13:44:02.854935 27292 net.cpp:156] Memory required for data: 221084
I0720 13:44:02.854954 27292 layer_factory.hpp:77] Creating layer probs
I0720 13:44:02.854972 27292 net.cpp:91] Creating Layer probs
I0720 13:44:02.854979 27292 net.cpp:425] probs <- predict
I0720 13:44:02.854989 27292 net.cpp:399] probs -> probs
I0720 13:44:02.856010 27310 net.cpp:141] Setting up fc7
I0720 13:44:02.856062 27310 net.cpp:148] Top shape: 10 4096 (40960)
I0720 13:44:02.856071 27310 net.cpp:156] Memory required for data: 68273720
I0720 13:44:02.856093 27310 layer_factory.hpp:77] Creating layer relu7
I0720 13:44:02.856115 27310 net.cpp:91] Creating Layer relu7
I0720 13:44:02.856127 27310 net.cpp:425] relu7 <- fc7
I0720 13:44:02.856578 27310 net.cpp:386] relu7 -> fc7 (in-place)
I0720 13:44:02.864532 27290 net.cpp:141] Setting up relu7
I0720 13:44:02.864590 27290 net.cpp:148] Top shape: 10 4096 (40960)
I0720 13:44:02.864601 27290 net.cpp:156] Memory required for data: 68437560
I0720 13:44:02.864615 27290 layer_factory.hpp:77] Creating layer drop7
I0720 13:44:02.864640 27290 net.cpp:91] Creating Layer drop7
I0720 13:44:02.864651 27290 net.cpp:425] drop7 <- fc7
I0720 13:44:02.864668 27290 net.cpp:386] drop7 -> fc7 (in-place)
I0720 13:44:02.864693 27290 net.cpp:141] Setting up drop7
I0720 13:44:02.864704 27290 net.cpp:148] Top shape: 10 4096 (40960)
I0720 13:44:02.864711 27290 net.cpp:156] Memory required for data: 68601400
I0720 13:44:02.864719 27290 layer_factory.hpp:77] Creating layer fc8
I0720 13:44:02.865314 27278 net.cpp:141] Setting up probs
I0720 13:44:02.865324 27290 net.cpp:91] Creating Layer fc8
I0720 13:44:02.865336 27278 net.cpp:148] Top shape: 1 1 46168 (46168)
I0720 13:44:02.865342 27278 net.cpp:156] Memory required for data: 405756
I0720 13:44:02.865341 27290 net.cpp:425] fc8 <- fc7
I0720 13:44:02.865350 27278 net.cpp:219] probs does not need backward computation.
I0720 13:44:02.865356 27278 net.cpp:219] predict does not need backward computation.
I0720 13:44:02.865362 27278 net.cpp:219] lstm2 does not need backward computation.
I0720 13:44:02.865360 27290 net.cpp:399] fc8 -> fc8
I0720 13:44:02.865370 27278 net.cpp:219] concat does not need backward computation.
I0720 13:44:02.865376 27278 net.cpp:219] lstm1 does not need backward computation.
I0720 13:44:02.865382 27278 net.cpp:219] embedding does not need backward computation.
I0720 13:44:02.865387 27278 net.cpp:219] reshape_stage_indicator does not need backward computation.
I0720 13:44:02.865396 27278 net.cpp:219] reshape_frames does not need backward computation.
I0720 13:44:02.865401 27278 net.cpp:219] embed_encoder does not need backward computation.
I0720 13:44:02.865407 27278 net.cpp:219] cont_sentence_input_1_split does not need backward computation.
I0720 13:44:02.865413 27278 net.cpp:219] input does not need backward computation.
I0720 13:44:02.865417 27278 net.cpp:261] This network produces output probs
I0720 13:44:02.865432 27278 net.cpp:274] Network initialization done.
I0720 13:44:02.870007 27296 net.cpp:141] Setting up probs
I0720 13:44:02.870070 27296 net.cpp:148] Top shape: 1 1 46168 (46168)
I0720 13:44:02.870080 27296 net.cpp:156] Memory required for data: 405756
I0720 13:44:02.870096 27296 net.cpp:219] probs does not need backward computation.
I0720 13:44:02.870108 27296 net.cpp:219] predict does not need backward computation.
I0720 13:44:02.870117 27296 net.cpp:219] lstm2 does not need backward computation.
I0720 13:44:02.870128 27296 net.cpp:219] concat does not need backward computation.
I0720 13:44:02.870138 27296 net.cpp:219] lstm1 does not need backward computation.
I0720 13:44:02.870148 27296 net.cpp:219] embedding does not need backward computation.
I0720 13:44:02.870157 27296 net.cpp:219] reshape_stage_indicator does not need backward computation.
I0720 13:44:02.870170 27296 net.cpp:219] reshape_frames does not need backward computation.
I0720 13:44:02.870179 27296 net.cpp:219] embed_encoder does not need backward computation.
I0720 13:44:02.870189 27296 net.cpp:219] cont_sentence_input_1_split does not need backward computation.
I0720 13:44:02.870199 27296 net.cpp:219] input does not need backward computation.
I0720 13:44:02.870208 27296 net.cpp:261] This network produces output probs
I0720 13:44:02.870231 27296 net.cpp:274] Network initialization done.
I0720 13:44:02.877786 27290 net.cpp:141] Setting up fc8
I0720 13:44:02.877857 27290 net.cpp:148] Top shape: 10 1000 (10000)
I0720 13:44:02.877867 27290 net.cpp:156] Memory required for data: 68641400
I0720 13:44:02.877892 27290 layer_factory.hpp:77] Creating layer prob
I0720 13:44:02.877915 27290 net.cpp:91] Creating Layer prob
I0720 13:44:02.877928 27290 net.cpp:425] prob <- fc8
I0720 13:44:02.878633 27290 net.cpp:399] prob -> prob
I0720 13:44:02.883060 27280 net.cpp:141] Setting up probs
I0720 13:44:02.883129 27280 net.cpp:148] Top shape: 1 1 46168 (46168)
I0720 13:44:02.883136 27280 net.cpp:156] Memory required for data: 405756
I0720 13:44:02.883149 27280 net.cpp:219] probs does not need backward computation.
I0720 13:44:02.883158 27280 net.cpp:219] predict does not need backward computation.
I0720 13:44:02.883165 27280 net.cpp:219] lstm2 does not need backward computation.
I0720 13:44:02.883172 27280 net.cpp:219] concat does not need backward computation.
I0720 13:44:02.883178 27280 net.cpp:219] lstm1 does not need backward computation.
I0720 13:44:02.883185 27280 net.cpp:219] embedding does not need backward computation.
I0720 13:44:02.883189 27280 net.cpp:219] reshape_stage_indicator does not need backward computation.
I0720 13:44:02.883196 27280 net.cpp:219] reshape_frames does not need backward computation.
I0720 13:44:02.883206 27280 net.cpp:219] embed_encoder does not need backward computation.
I0720 13:44:02.883218 27280 net.cpp:219] cont_sentence_input_1_split does not need backward computation.
I0720 13:44:02.883224 27280 net.cpp:219] input does not need backward computation.
I0720 13:44:02.883229 27280 net.cpp:261] This network produces output probs
I0720 13:44:02.883250 27280 net.cpp:274] Network initialization done.
I0720 13:44:02.884971 27298 net.cpp:141] Setting up fc6
I0720 13:44:02.885028 27298 net.cpp:148] Top shape: 10 4096 (40960)
I0720 13:44:02.885035 27298 net.cpp:156] Memory required for data: 67782200
I0720 13:44:02.885053 27298 layer_factory.hpp:77] Creating layer relu6
I0720 13:44:02.885073 27298 net.cpp:91] Creating Layer relu6
I0720 13:44:02.885082 27298 net.cpp:425] relu6 <- fc6
I0720 13:44:02.885102 27298 net.cpp:386] relu6 -> fc6 (in-place)
I0720 13:44:02.887562 27310 net.cpp:141] Setting up relu7
I0720 13:44:02.887619 27310 net.cpp:148] Top shape: 10 4096 (40960)
I0720 13:44:02.887629 27310 net.cpp:156] Memory required for data: 68437560
I0720 13:44:02.887642 27310 layer_factory.hpp:77] Creating layer drop7
I0720 13:44:02.888088 27310 net.cpp:91] Creating Layer drop7
I0720 13:44:02.888108 27310 net.cpp:425] drop7 <- fc7
I0720 13:44:02.888128 27310 net.cpp:386] drop7 -> fc7 (in-place)
I0720 13:44:02.888155 27310 net.cpp:141] Setting up drop7
I0720 13:44:02.888169 27310 net.cpp:148] Top shape: 10 4096 (40960)
I0720 13:44:02.888177 27310 net.cpp:156] Memory required for data: 68601400
I0720 13:44:02.888186 27310 layer_factory.hpp:77] Creating layer fc8
I0720 13:44:02.888211 27310 net.cpp:91] Creating Layer fc8
I0720 13:44:02.888221 27310 net.cpp:425] fc8 <- fc7
I0720 13:44:02.888236 27310 net.cpp:399] fc8 -> fc8
I0720 13:44:02.889871 27282 net.cpp:141] Setting up conv5
I0720 13:44:02.889935 27282 net.cpp:148] Top shape: 10 256 13 13 (432640)
I0720 13:44:02.889945 27282 net.cpp:156] Memory required for data: 65519160
I0720 13:44:02.889984 27282 layer_factory.hpp:77] Creating layer relu5
I0720 13:44:02.890008 27282 net.cpp:91] Creating Layer relu5
I0720 13:44:02.890019 27282 net.cpp:425] relu5 <- conv5
I0720 13:44:02.890034 27282 net.cpp:386] relu5 -> conv5 (in-place)
I0720 13:44:02.891803 27274 net.cpp:141] Setting up predict
I0720 13:44:02.891855 27274 net.cpp:148] Top shape: 1 1 46168 (46168)
I0720 13:44:02.891861 27274 net.cpp:156] Memory required for data: 221084
I0720 13:44:02.891877 27274 layer_factory.hpp:77] Creating layer probs
I0720 13:44:02.891897 27274 net.cpp:91] Creating Layer probs
I0720 13:44:02.891906 27274 net.cpp:425] probs <- predict
I0720 13:44:02.891917 27274 net.cpp:399] probs -> probs
I0720 13:44:02.896517 27326 net.cpp:141] Setting up relu6
I0720 13:44:02.896574 27326 net.cpp:148] Top shape: 10 4096 (40960)
I0720 13:44:02.896585 27326 net.cpp:156] Memory required for data: 67946040
I0720 13:44:02.896595 27326 layer_factory.hpp:77] Creating layer drop6
I0720 13:44:02.896615 27326 net.cpp:91] Creating Layer drop6
I0720 13:44:02.896623 27326 net.cpp:425] drop6 <- fc6
I0720 13:44:02.897258 27326 net.cpp:386] drop6 -> fc6 (in-place)
I0720 13:44:02.897284 27326 net.cpp:141] Setting up drop6
I0720 13:44:02.897291 27326 net.cpp:148] Top shape: 10 4096 (40960)
I0720 13:44:02.897295 27326 net.cpp:156] Memory required for data: 68109880
I0720 13:44:02.897300 27326 layer_factory.hpp:77] Creating layer fc7
I0720 13:44:02.897312 27326 net.cpp:91] Creating Layer fc7
I0720 13:44:02.897317 27326 net.cpp:425] fc7 <- fc6
I0720 13:44:02.897330 27326 net.cpp:399] fc7 -> fc7
I0720 13:44:02.898814 27310 net.cpp:141] Setting up fc8
I0720 13:44:02.898867 27310 net.cpp:148] Top shape: 10 1000 (10000)
I0720 13:44:02.898874 27310 net.cpp:156] Memory required for data: 68641400
I0720 13:44:02.898890 27310 layer_factory.hpp:77] Creating layer prob
I0720 13:44:02.899991 27310 net.cpp:91] Creating Layer prob
I0720 13:44:02.900027 27310 net.cpp:425] prob <- fc8
I0720 13:44:02.900557 27310 net.cpp:399] prob -> prob
I0720 13:44:02.900555 27298 net.cpp:141] Setting up relu6
I0720 13:44:02.900612 27298 net.cpp:148] Top shape: 10 4096 (40960)
I0720 13:44:02.900624 27298 net.cpp:156] Memory required for data: 67946040
I0720 13:44:02.900640 27298 layer_factory.hpp:77] Creating layer drop6
I0720 13:44:02.901108 27298 net.cpp:91] Creating Layer drop6
I0720 13:44:02.901132 27298 net.cpp:425] drop6 <- fc6
I0720 13:44:02.901150 27298 net.cpp:386] drop6 -> fc6 (in-place)
I0720 13:44:02.901175 27298 net.cpp:141] Setting up drop6
I0720 13:44:02.901191 27298 net.cpp:148] Top shape: 10 4096 (40960)
I0720 13:44:02.901199 27298 net.cpp:156] Memory required for data: 68109880
I0720 13:44:02.901207 27298 layer_factory.hpp:77] Creating layer fc7
I0720 13:44:02.901222 27298 net.cpp:91] Creating Layer fc7
I0720 13:44:02.901231 27298 net.cpp:425] fc7 <- fc6
I0720 13:44:02.901240 27298 net.cpp:399] fc7 -> fc7
I0720 13:44:02.904861 27282 net.cpp:141] Setting up relu5
I0720 13:44:02.905426 27282 net.cpp:148] Top shape: 10 256 13 13 (432640)
I0720 13:44:02.905446 27282 net.cpp:156] Memory required for data: 67249720
I0720 13:44:02.905462 27282 layer_factory.hpp:77] Creating layer pool5
I0720 13:44:02.905489 27282 net.cpp:91] Creating Layer pool5
I0720 13:44:02.905501 27282 net.cpp:425] pool5 <- conv5
I0720 13:44:02.905519 27282 net.cpp:399] pool5 -> pool5
I0720 13:44:02.905547 27282 net.cpp:141] Setting up pool5
I0720 13:44:02.905555 27282 net.cpp:148] Top shape: 10 256 6 6 (92160)
I0720 13:44:02.905560 27282 net.cpp:156] Memory required for data: 67618360
I0720 13:44:02.905565 27282 layer_factory.hpp:77] Creating layer fc6
I0720 13:44:02.906074 27282 net.cpp:91] Creating Layer fc6
I0720 13:44:02.906101 27282 net.cpp:425] fc6 <- pool5
I0720 13:44:02.906123 27282 net.cpp:399] fc6 -> fc6
I0720 13:44:02.924731 27308 net.cpp:141] Setting up relu5
I0720 13:44:02.924799 27308 net.cpp:148] Top shape: 10 256 13 13 (432640)
I0720 13:44:02.924811 27308 net.cpp:156] Memory required for data: 67249720
I0720 13:44:02.924826 27308 layer_factory.hpp:77] Creating layer pool5
I0720 13:44:02.924859 27308 net.cpp:91] Creating Layer pool5
I0720 13:44:02.924873 27308 net.cpp:425] pool5 <- conv5
I0720 13:44:02.924892 27308 net.cpp:399] pool5 -> pool5
I0720 13:44:02.924926 27308 net.cpp:141] Setting up pool5
I0720 13:44:02.924940 27308 net.cpp:148] Top shape: 10 256 6 6 (92160)
I0720 13:44:02.924948 27308 net.cpp:156] Memory required for data: 67618360
I0720 13:44:02.924957 27308 layer_factory.hpp:77] Creating layer fc6
I0720 13:44:02.925997 27308 net.cpp:91] Creating Layer fc6
I0720 13:44:02.926053 27308 net.cpp:425] fc6 <- pool5
I0720 13:44:02.926084 27308 net.cpp:399] fc6 -> fc6
I0720 13:44:02.931025 27290 net.cpp:141] Setting up prob
I0720 13:44:02.931025 27274 net.cpp:141] Setting up probs
I0720 13:44:02.931753 27274 net.cpp:148] Top shape: 1 1 46168 (46168)
I0720 13:44:02.931766 27274 net.cpp:156] Memory required for data: 405756
I0720 13:44:02.931757 27290 net.cpp:148] Top shape: 10 1000 (10000)
I0720 13:44:02.931782 27274 net.cpp:219] probs does not need backward computation.
I0720 13:44:02.931785 27290 net.cpp:156] Memory required for data: 68681400
I0720 13:44:02.931794 27274 net.cpp:219] predict does not need backward computation.
I0720 13:44:02.931800 27290 net.cpp:219] prob does not need backward computation.
I0720 13:44:02.931803 27274 net.cpp:219] lstm2 does not need backward computation.
…
I0720 13:44:02.932049 27290 net.cpp:219] pool1 does not need backward computation.
I0720 13:44:02.932060 27290 net.cpp:219] relu1 does not need backward computation.
I0720 13:44:02.932071 27290 net.cpp:219] conv1 does not need backward computation.
I0720 13:44:02.932081 27290 net.cpp:219] data does not need backward computation.
I0720 13:44:02.932090 27290 net.cpp:261] This network produces output prob
I0720 13:44:02.932776 27274 net.cpp:274] Network initialization done.
I0720 13:44:02.932801 27290 net.cpp:274] Network initialization done.
I0720 13:44:02.939422 27292 net.cpp:141] Setting up probs
I0720 13:44:02.939510 27292 net.cpp:148] Top shape: 1 1 46168 (46168)
I0720 13:44:02.939532 27292 net.cpp:156] Memory required for data: 405756
I0720 13:44:02.939555 27292 net.cpp:219] probs does not need backward computation.
I0720 13:44:02.939576 27292 net.cpp:219] predict does not need backward computation.
I0720 13:44:02.939595 27292 net.cpp:219] lstm2 does not need backward computation.
I0720 13:44:02.939613 27292 net.cpp:219] concat does not need backward computation.
I0720 13:44:02.939631 27292 net.cpp:219] lstm1 does not need backward computation.
I0720 13:44:02.939648 27292 net.cpp:219] embedding does not need backward computation.
I0720 13:44:02.939663 27292 net.cpp:219] reshape_stage_indicator does not need backward computation.
I0720 13:44:02.939688 27292 net.cpp:219] reshape_frames does not need backward computation.
I0720 13:44:02.939704 27292 net.cpp:219] embed_encoder does not need backward computation.
I0720 13:44:02.939720 27292 net.cpp:219] cont_sentence_input_1_split does not need backward computation.
I0720 13:44:02.939736 27292 net.cpp:219] input does not need backward computation.
I0720 13:44:02.939749 27292 net.cpp:261] This network produces output probs
I0720 13:44:02.939787 27292 net.cpp:274] Network initialization done.
I0720 13:44:02.943100 27326 net.cpp:141] Setting up fc7
I0720 13:44:02.943167 27326 net.cpp:148] Top shape: 10 4096 (40960)
I0720 13:44:02.943177 27326 net.cpp:156] Memory required for data: 68273720
I0720 13:44:02.943204 27326 layer_factory.hpp:77] Creating layer relu7
I0720 13:44:02.943753 27326 net.cpp:91] Creating Layer relu7
I0720 13:44:02.943873 27326 net.cpp:425] relu7 <- fc7
I0720 13:44:02.943893 27326 net.cpp:386] relu7 -> fc7 (in-place)
I0720 13:44:02.954530 27284 net.cpp:141] Setting up probs
I0720 13:44:02.955001 27284 net.cpp:148] Top shape: 1 1 46168 (46168)
I0720 13:44:02.955018 27284 net.cpp:156] Memory required for data: 405756
I0720 13:44:02.955027 27284 net.cpp:219] probs does not need backward computation.
I0720 13:44:02.955036 27284 net.cpp:219] predict does not need backward computation.
I0720 13:44:02.955042 27284 net.cpp:219] lstm2 does not need backward computation.
I0720 13:44:02.955049 27284 net.cpp:219] concat does not need backward computation.
I0720 13:44:02.955054 27284 net.cpp:219] lstm1 does not need backward computation.
I0720 13:44:02.955061 27284 net.cpp:219] embedding does not need backward computation.
I0720 13:44:02.955066 27284 net.cpp:219] reshape_stage_indicator does not need backward computation.
I0720 13:44:02.955070 27284 net.cpp:219] reshape_frames does not need backward computation.
I0720 13:44:02.955075 27284 net.cpp:219] embed_encoder does not need backward computation.
I0720 13:44:02.955080 27284 net.cpp:219] cont_sentence_input_1_split does not need backward computation.
I0720 13:44:02.955085 27284 net.cpp:219] input does not need backward computation.
I0720 13:44:02.955090 27284 net.cpp:261] This network produces output probs
I0720 13:44:02.956390 27284 net.cpp:274] Network initialization done.
I0720 13:44:02.956390 27300 net.cpp:141] Setting up predict
I0720 13:44:02.956472 27300 net.cpp:148] Top shape: 1 1 46168 (46168)
I0720 13:44:02.956481 27300 net.cpp:156] Memory required for data: 221084
I0720 13:44:02.956506 27300 layer_factory.hpp:77] Creating layer probs
I0720 13:44:02.956532 27300 net.cpp:91] Creating Layer probs
I0720 13:44:02.956544 27300 net.cpp:425] probs <- predict
I0720 13:44:02.956562 27300 net.cpp:399] probs -> probs
I0720 13:44:02.959257 27298 net.cpp:141] Setting up fc7
I0720 13:44:02.959331 27298 net.cpp:148] Top shape: 10 4096 (40960)
I0720 13:44:02.959350 27298 net.cpp:156] Memory required for data: 68273720
I0720 13:44:02.959378 27298 layer_factory.hpp:77] Creating layer relu7
I0720 13:44:02.959401 27298 net.cpp:91] Creating Layer relu7
I0720 13:44:02.959415 27298 net.cpp:425] relu7 <- fc7
I0720 13:44:02.959436 27298 net.cpp:386] relu7 -> fc7 (in-place)
I0720 13:44:02.965476 27310 net.cpp:141] Setting up prob
I0720 13:44:02.965558 27310 net.cpp:148] Top shape: 10 1000 (10000)
I0720 13:44:02.965572 27310 net.cpp:156] Memory required for data: 68681400
I0720 13:44:02.965590 27310 net.cpp:219] prob does not need backward computation.
I0720 13:44:02.965601 27310 net.cpp:219] fc8 does not need backward computation.
I0720 13:44:02.965611 27310 net.cpp:219] drop7 does not need backward computation.
I0720 13:44:02.965620 27310 net.cpp:219] relu7 does not need backward computation.
…
I0720 13:44:02.965754 27310 net.cpp:219] norm1 does not need backward computation.
I0720 13:44:02.965764 27310 net.cpp:219] pool1 does not need backward computation.
I0720 13:44:02.965772 27310 net.cpp:219] relu1 does not need backward computation.
I0720 13:44:02.965780 27310 net.cpp:219] conv1 does not need backward computation.
I0720 13:44:02.965790 27310 net.cpp:219] data does not need backward computation.
I0720 13:44:02.965796 27310 net.cpp:261] This network produces output prob
I0720 13:44:02.966503 27310 net.cpp:274] Network initialization done.
I0720 13:44:02.972622 27322 net.cpp:141] Setting up predict
I0720 13:44:02.972697 27322 net.cpp:148] Top shape: 1 1 46168 (46168)
I0720 13:44:02.972707 27322 net.cpp:156] Memory required for data: 221084
I0720 13:44:02.972738 27322 layer_factory.hpp:77] Creating layer probs
I0720 13:44:02.972765 27322 net.cpp:91] Creating Layer probs
I0720 13:44:02.972779 27322 net.cpp:425] probs <- predict
I0720 13:44:02.972795 27322 net.cpp:399] probs -> probs
I0720 13:44:02.974107 27298 net.cpp:141] Setting up relu7
I0720 13:44:02.974180 27298 net.cpp:148] Top shape: 10 4096 (40960)
I0720 13:44:02.974189 27298 net.cpp:156] Memory required for data: 68437560
I0720 13:44:02.974200 27298 layer_factory.hpp:77] Creating layer drop7
I0720 13:44:02.974812 27286 net.cpp:141] Setting up conv4
I0720 13:44:02.974881 27286 net.cpp:148] Top shape: 10 384 13 13 (648960)
I0720 13:44:02.974894 27286 net.cpp:156] Memory required for data: 61192760
I0720 13:44:02.974921 27286 layer_factory.hpp:77] Creating layer relu4
I0720 13:44:02.974812 27298 net.cpp:91] Creating Layer drop7
I0720 13:44:02.975224 27298 net.cpp:425] drop7 <- fc7
I0720 13:44:02.975250 27298 net.cpp:386] drop7 -> fc7 (in-place)
I0720 13:44:02.975286 27298 net.cpp:141] Setting up drop7
I0720 13:44:02.975303 27298 net.cpp:148] Top shape: 10 4096 (40960)
I0720 13:44:02.975312 27298 net.cpp:156] Memory required for data: 68601400
I0720 13:44:02.975323 27298 layer_factory.hpp:77] Creating layer fc8
I0720 13:44:02.975644 27286 net.cpp:91] Creating Layer relu4
I0720 13:44:02.975651 27298 net.cpp:91] Creating Layer fc8
I0720 13:44:02.975675 27286 net.cpp:425] relu4 <- conv4
I0720 13:44:02.975679 27298 net.cpp:425] fc8 <- fc7
I0720 13:44:02.975693 27286 net.cpp:386] relu4 -> conv4 (in-place)
I0720 13:44:02.975695 27298 net.cpp:399] fc8 -> fc8
I0720 13:44:02.988836 27286 net.cpp:141] Setting up relu4
I0720 13:44:02.988912 27286 net.cpp:148] Top shape: 10 384 13 13 (648960)
I0720 13:44:02.988924 27286 net.cpp:156] Memory required for data: 63788600
I0720 13:44:02.988940 27286 layer_factory.hpp:77] Creating layer conv5
I0720 13:44:02.989563 27286 net.cpp:91] Creating Layer conv5
I0720 13:44:02.989609 27286 net.cpp:425] conv5 <- conv4
I0720 13:44:02.990165 27316 net.cpp:141] Setting up conv5
I0720 13:44:02.990190 27286 net.cpp:399] conv5 -> conv5
I0720 13:44:02.990206 27316 net.cpp:148] Top shape: 10 256 13 13 (432640)
I0720 13:44:02.990216 27316 net.cpp:156] Memory required for data: 65519160
I0720 13:44:02.990254 27316 layer_factory.hpp:77] Creating layer relu5
I0720 13:44:02.990277 27316 net.cpp:91] Creating Layer relu5
I0720 13:44:02.990289 27316 net.cpp:425] relu5 <- conv5
I0720 13:44:02.990305 27316 net.cpp:386] relu5 -> conv5 (in-place)
I0720 13:44:02.993568 27322 net.cpp:141] Setting up probs
I0720 13:44:02.993640 27322 net.cpp:148] Top shape: 1 1 46168 (46168)
I0720 13:44:02.993650 27322 net.cpp:156] Memory required for data: 405756
I0720 13:44:02.993664 27322 net.cpp:219] probs does not need backward computation.
I0720 13:44:02.993677 27322 net.cpp:219] predict does not need backward computation.
I0720 13:44:02.993687 27322 net.cpp:219] lstm2 does not need backward computation.
I0720 13:44:02.993695 27322 net.cpp:219] concat does not need backward computation.
I0720 13:44:02.993705 27322 net.cpp:219] lstm1 does not need backward computation.
I0720 13:44:02.993715 27322 net.cpp:219] embedding does not need backward computation.
I0720 13:44:02.993722 27322 net.cpp:219] reshape_stage_indicator does not need backward computation.
I0720 13:44:02.993731 27322 net.cpp:219] reshape_frames does not need backward computation.
I0720 13:44:02.993738 27322 net.cpp:219] embed_encoder does not need backward computation.
I0720 13:44:02.993748 27322 net.cpp:219] cont_sentence_input_1_split does not need backward computation.
I0720 13:44:02.993758 27322 net.cpp:219] input does not need backward computation.
I0720 13:44:02.993765 27322 net.cpp:261] This network produces output probs
I0720 13:44:02.993788 27322 net.cpp:274] Network initialization done.
I0720 13:44:02.996021 27326 net.cpp:141] Setting up relu7
I0720 13:44:02.996116 27326 net.cpp:148] Top shape: 10 4096 (40960)
I0720 13:44:02.996129 27326 net.cpp:156] Memory required for data: 68437560
I0720 13:44:02.996146 27326 layer_factory.hpp:77] Creating layer drop7
I0720 13:44:02.996178 27326 net.cpp:91] Creating Layer drop7
I0720 13:44:02.996192 27326 net.cpp:425] drop7 <- fc7
I0720 13:44:02.998126 27326 net.cpp:386] drop7 -> fc7 (in-place)
I0720 13:44:02.998239 27326 net.cpp:141] Setting up drop7
I0720 13:44:02.998263 27326 net.cpp:148] Top shape: 10 4096 (40960)
I0720 13:44:02.998275 27326 net.cpp:156] Memory required for data: 68601400
I0720 13:44:02.998289 27326 layer_factory.hpp:77] Creating layer fc8
I0720 13:44:02.998317 27326 net.cpp:91] Creating Layer fc8
I0720 13:44:02.998329 27326 net.cpp:425] fc8 <- fc7
I0720 13:44:02.998745 27326 net.cpp:399] fc8 -> fc8
I0720 13:44:03.001260 27298 net.cpp:141] Setting up fc8
I0720 13:44:03.001338 27298 net.cpp:148] Top shape: 10 1000 (10000)
I0720 13:44:03.001351 27298 net.cpp:156] Memory required for data: 68641400
I0720 13:44:03.001382 27298 layer_factory.hpp:77] Creating layer prob
I0720 13:44:03.001411 27298 net.cpp:91] Creating Layer prob
I0720 13:44:03.001425 27298 net.cpp:425] prob <- fc8
I0720 13:44:03.002835 27298 net.cpp:399] prob -> prob
I0720 13:44:03.016026 27316 net.cpp:141] Setting up relu5
I0720 13:44:03.016115 27316 net.cpp:148] Top shape: 10 256 13 13 (432640)
I0720 13:44:03.016127 27316 net.cpp:156] Memory required for data: 67249720
I0720 13:44:03.016145 27316 layer_factory.hpp:77] Creating layer pool5
I0720 13:44:03.016181 27316 net.cpp:91] Creating Layer pool5
I0720 13:44:03.016196 27316 net.cpp:425] pool5 <- conv5
I0720 13:44:03.017918 27316 net.cpp:399] pool5 -> pool5
I0720 13:44:03.018039 27316 net.cpp:141] Setting up pool5
I0720 13:44:03.018069 27316 net.cpp:148] Top shape: 10 256 6 6 (92160)
I0720 13:44:03.018079 27316 net.cpp:156] Memory required for data: 67618360
I0720 13:44:03.018095 27316 layer_factory.hpp:77] Creating layer fc6
I0720 13:44:03.019446 27316 net.cpp:91] Creating Layer fc6
I0720 13:44:03.019516 27316 net.cpp:425] fc6 <- pool5
I0720 13:44:03.019554 27316 net.cpp:399] fc6 -> fc6
I0720 13:44:03.019634 27300 net.cpp:141] Setting up probs
I0720 13:44:03.019703 27300 net.cpp:148] Top shape: 1 1 46168 (46168)
I0720 13:44:03.019716 27300 net.cpp:156] Memory required for data: 405756
I0720 13:44:03.019734 27300 net.cpp:219] probs does not need backward computation.
I0720 13:44:03.019749 27300 net.cpp:219] predict does not need backward computation.
I0720 13:44:03.019762 27300 net.cpp:219] lstm2 does not need backward computation.
I0720 13:44:03.019773 27300 net.cpp:219] concat does not need backward computation.
I0720 13:44:03.019785 27300 net.cpp:219] lstm1 does not need backward computation.
I0720 13:44:03.019799 27300 net.cpp:219] embedding does not need backward computation.
I0720 13:44:03.019810 27300 net.cpp:219] reshape_stage_indicator does not need backward computation.
I0720 13:44:03.019822 27300 net.cpp:219] reshape_frames does not need backward computation.
I0720 13:44:03.019834 27300 net.cpp:219] embed_encoder does not need backward computation.
I0720 13:44:03.019845 27300 net.cpp:219] cont_sentence_input_1_split does not need backward computation.
I0720 13:44:03.019858 27300 net.cpp:219] input does not need backward computation.
I0720 13:44:03.019867 27300 net.cpp:261] This network produces output probs
I0720 13:44:03.027911 27300 net.cpp:274] Network initialization done.
I0720 13:44:03.035048 27282 net.cpp:141] Setting up fc6
I0720 13:44:03.035118 27282 net.cpp:148] Top shape: 10 4096 (40960)
I0720 13:44:03.035130 27282 net.cpp:156] Memory required for data: 67782200
I0720 13:44:03.035161 27282 layer_factory.hpp:77] Creating layer relu6
I0720 13:44:03.035830 27282 net.cpp:91] Creating Layer relu6
I0720 13:44:03.035856 27282 net.cpp:425] relu6 <- fc6
I0720 13:44:03.035874 27282 net.cpp:386] relu6 -> fc6 (in-place)
I0720 13:44:03.047004 27326 net.cpp:141] Setting up fc8
I0720 13:44:03.047080 27326 net.cpp:148] Top shape: 10 1000 (10000)
I0720 13:44:03.047094 27326 net.cpp:156] Memory required for data: 68641400
I0720 13:44:03.047125 27326 layer_factory.hpp:77] Creating layer prob
I0720 13:44:03.047933 27282 net.cpp:141] Setting up relu6
I0720 13:44:03.047968 27282 net.cpp:148] Top shape: 10 4096 (40960)
I0720 13:44:03.047976 27282 net.cpp:156] Memory required for data: 67946040
I0720 13:44:03.047982 27282 layer_factory.hpp:77] Creating layer drop6
I0720 13:44:03.048019 27298 net.cpp:141] Setting up prob
I0720 13:44:03.048039 27298 net.cpp:148] Top shape: 10 1000 (10000)
I0720 13:44:03.048045 27298 net.cpp:156] Memory required for data: 68681400
I0720 13:44:03.048051 27298 net.cpp:219] prob does not need backward computation.
I0720 13:44:03.048058 27298 net.cpp:219] fc8 does not need backward computation.
I0720 13:44:03.048063 27298 net.cpp:219] drop7 does not need backward computation.
I0720 13:44:03.048068 27298 net.cpp:219] relu7 does not need backward computation.
…
I0720 13:44:03.108834 27314 upgrade_proto.cpp:43] Attempting to upgrade input file specified using deprecated transformation parameters: /tmp/cvld3947231336601374205/bvlc_reference_caffenet.caffemodel
I0720 13:44:03.108937 27314 upgrade_proto.cpp:46] Successfully upgraded file specified using deprecated data transformation parameters.
W0720 13:44:03.108955 27314 upgrade_proto.cpp:48] Note that future Caffe releases will only support transform_param messages for transformation fields.
I0720 13:44:03.108968 27314 upgrade_proto.cpp:52] Attempting to upgrade input file specified using deprecated V1LayerParameter: /tmp/cvld3947231336601374205/bvlc_reference_caffenet.caffemodel
I0720 13:44:03.113647 27308 net.cpp:141] Setting up relu6
I0720 13:44:03.113723 27308 net.cpp:148] Top shape: 10 4096 (40960)
I0720 13:44:03.113734 27308 net.cpp:156] Memory required for data: 67946040
I0720 13:44:03.113749 27308 layer_factory.hpp:77] Creating layer drop6
I0720 13:44:03.113775 27308 net.cpp:91] Creating Layer drop6
I0720 13:44:03.113783 27308 net.cpp:425] drop6 <- fc6
I0720 13:44:03.114866 27308 net.cpp:386] drop6 -> fc6 (in-place)
I0720 13:44:03.114955 27308 net.cpp:141] Setting up drop6
I0720 13:44:03.114977 27308 net.cpp:148] Top shape: 10 4096 (40960)
I0720 13:44:03.114986 27308 net.cpp:156] Memory required for data: 68109880
I0720 13:44:03.114998 27308 layer_factory.hpp:77] Creating layer fc7
I0720 13:44:03.115022 27308 net.cpp:91] Creating Layer fc7
I0720 13:44:03.115032 27308 net.cpp:425] fc7 <- fc6
I0720 13:44:03.115051 27308 net.cpp:399] fc7 -> fc7
I0720 13:44:03.119372 27286 net.cpp:141] Setting up conv5
I0720 13:44:03.119472 27286 net.cpp:148] Top shape: 10 256 13 13 (432640)
I0720 13:44:03.119491 27286 net.cpp:156] Memory required for data: 65519160
I0720 13:44:03.119554 27286 layer_factory.hpp:77] Creating layer relu5
I0720 13:44:03.120770 27286 net.cpp:91] Creating Layer relu5
I0720 13:44:03.120854 27286 net.cpp:425] relu5 <- conv5
I0720 13:44:03.120901 27286 net.cpp:386] relu5 -> conv5 (in-place)
I0720 13:44:03.129853 27282 net.cpp:141] Setting up fc7
I0720 13:44:03.130355 27282 net.cpp:148] Top shape: 10 4096 (40960)
I0720 13:44:03.130516 27282 net.cpp:156] Memory required for data: 68273720
I0720 13:44:03.130647 27282 layer_factory.hpp:77] Creating layer relu7
I0720 13:44:03.130798 27282 net.cpp:91] Creating Layer relu7
I0720 13:44:03.130909 27282 net.cpp:425] relu7 <- fc7
I0720 13:44:03.131052 27282 net.cpp:386] relu7 -> fc7 (in-place)
I0720 13:44:03.132673 27286 net.cpp:141] Setting up relu5
I0720 13:44:03.132766 27286 net.cpp:148] Top shape: 10 256 13 13 (432640)
I0720 13:44:03.132776 27286 net.cpp:156] Memory required for data: 67249720
I0720 13:44:03.132793 27286 layer_factory.hpp:77] Creating layer pool5
I0720 13:44:03.135438 27286 net.cpp:91] Creating Layer pool5
I0720 13:44:03.135929 27286 net.cpp:425] pool5 <- conv5
I0720 13:44:03.135964 27286 net.cpp:399] pool5 -> pool5
I0720 13:44:03.136867 27286 net.cpp:141] Setting up pool5
I0720 13:44:03.136945 27286 net.cpp:148] Top shape: 10 256 6 6 (92160)
I0720 13:44:03.136955 27286 net.cpp:156] Memory required for data: 67618360
I0720 13:44:03.136971 27286 layer_factory.hpp:77] Creating layer fc6
I0720 13:44:03.137011 27286 net.cpp:91] Creating Layer fc6
I0720 13:44:03.137024 27286 net.cpp:425] fc6 <- pool5
I0720 13:44:03.138751 27286 net.cpp:399] fc6 -> fc6
I0720 13:44:03.138883 27282 net.cpp:141] Setting up relu7
I0720 13:44:03.138911 27282 net.cpp:148] Top shape: 10 4096 (40960)
I0720 13:44:03.138917 27282 net.cpp:156] Memory required for data: 68437560
I0720 13:44:03.138928 27282 layer_factory.hpp:77] Creating layer drop7
I0720 13:44:03.142187 27282 net.cpp:91] Creating Layer drop7
I0720 13:44:03.142892 27282 net.cpp:425] drop7 <- fc7
I0720 13:44:03.143081 27282 net.cpp:386] drop7 -> fc7 (in-place)
I0720 13:44:03.143280 27282 net.cpp:141] Setting up drop7
I0720 13:44:03.143404 27282 net.cpp:148] Top shape: 10 4096 (40960)
I0720 13:44:03.143519 27282 net.cpp:156] Memory required for data: 68601400
I0720 13:44:03.143648 27282 layer_factory.hpp:77] Creating layer fc8
I0720 13:44:03.143787 27282 net.cpp:91] Creating Layer fc8
I0720 13:44:03.143913 27282 net.cpp:425] fc8 <- fc7
I0720 13:44:03.145128 27282 net.cpp:399] fc8 -> fc8
I0720 13:44:03.170884 27282 net.cpp:141] Setting up fc8
I0720 13:44:03.171591 27282 net.cpp:148] Top shape: 10 1000 (10000)
I0720 13:44:03.171762 27282 net.cpp:156] Memory required for data: 68641400
I0720 13:44:03.171973 27282 layer_factory.hpp:77] Creating layer prob
I0720 13:44:03.172278 27282 net.cpp:91] Creating Layer prob
I0720 13:44:03.172432 27282 net.cpp:425] prob <- fc8
I0720 13:44:03.172590 27282 net.cpp:399] prob -> prob
I0720 13:44:03.182585 27282 net.cpp:141] Setting up prob
I0720 13:44:03.182711 27282 net.cpp:148] Top shape: 10 1000 (10000)
I0720 13:44:03.182731 27282 net.cpp:156] Memory required for data: 68681400
I0720 13:44:03.182755 27282 net.cpp:219] prob does not need backward computation.
I0720 13:44:03.182772 27282 net.cpp:219] fc8 does not need backward computation.
I0720 13:44:03.182783 27282 net.cpp:219] drop7 does not need backward computation.
I0720 13:44:03.182795 27282 net.cpp:219] relu7 does not need backward computation.
…
I0720 13:44:03.182989 27282 net.cpp:219] norm1 does not need backward computation.
I0720 13:44:03.183002 27282 net.cpp:219] pool1 does not need backward computation.
I0720 13:44:03.183015 27282 net.cpp:219] relu1 does not need backward computation.
I0720 13:44:03.183027 27282 net.cpp:219] conv1 does not need backward computation.
I0720 13:44:03.183038 27282 net.cpp:219] data does not need backward computation.
I0720 13:44:03.183048 27282 net.cpp:261] This network produces output prob
I0720 13:44:03.185927 27282 net.cpp:274] Network initialization done.
I0720 13:44:03.196619 27316 net.cpp:141] Setting up fc6
I0720 13:44:03.197314 27316 net.cpp:148] Top shape: 10 4096 (40960)
I0720 13:44:03.197491 27316 net.cpp:156] Memory required for data: 67782200
I0720 13:44:03.197631 27316 layer_factory.hpp:77] Creating layer relu6
I0720 13:44:03.198163 27316 net.cpp:91] Creating Layer relu6
I0720 13:44:03.198459 27316 net.cpp:425] relu6 <- fc6
I0720 13:44:03.198587 27316 net.cpp:386] relu6 -> fc6 (in-place)
I0720 13:44:03.211169 27316 net.cpp:141] Setting up relu6
I0720 13:44:03.214911 27316 net.cpp:148] Top shape: 10 4096 (40960)
I0720 13:44:03.214975 27316 net.cpp:156] Memory required for data: 67946040
I0720 13:44:03.214989 27316 layer_factory.hpp:77] Creating layer drop6
I0720 13:44:03.215014 27316 net.cpp:91] Creating Layer drop6
I0720 13:44:03.215023 27316 net.cpp:425] drop6 <- fc6
I0720 13:44:03.218773 27316 net.cpp:386] drop6 -> fc6 (in-place)
I0720 13:44:03.219162 27316 net.cpp:141] Setting up drop6
I0720 13:44:03.219336 27316 net.cpp:148] Top shape: 10 4096 (40960)
I0720 13:44:03.219455 27316 net.cpp:156] Memory required for data: 68109880
I0720 13:44:03.219475 27316 layer_factory.hpp:77] Creating layer fc7
I0720 13:44:03.219493 27316 net.cpp:91] Creating Layer fc7
I0720 13:44:03.219499 27316 net.cpp:425] fc7 <- fc6
I0720 13:44:03.219511 27316 net.cpp:399] fc7 -> fc7
I0720 13:44:03.220880 27308 net.cpp:141] Setting up fc7
I0720 13:44:03.221302 27308 net.cpp:148] Top shape: 10 4096 (40960)
I0720 13:44:03.221315 27308 net.cpp:156] Memory required for data: 68273720
I0720 13:44:03.221336 27308 layer_factory.hpp:77] Creating layer relu7
I0720 13:44:03.225738 27308 net.cpp:91] Creating Layer relu7
I0720 13:44:03.226111 27308 net.cpp:425] relu7 <- fc7
I0720 13:44:03.226263 27308 net.cpp:386] relu7 -> fc7 (in-place)
I0720 13:44:03.231151 27308 net.cpp:141] Setting up relu7
I0720 13:44:03.231248 27308 net.cpp:148] Top shape: 10 4096 (40960)
I0720 13:44:03.231261 27308 net.cpp:156] Memory required for data: 68437560
I0720 13:44:03.231281 27308 layer_factory.hpp:77] Creating layer drop7
I0720 13:44:03.231312 27308 net.cpp:91] Creating Layer drop7
I0720 13:44:03.231326 27308 net.cpp:425] drop7 <- fc7
I0720 13:44:03.231348 27308 net.cpp:386] drop7 -> fc7 (in-place)
I0720 13:44:03.231381 27308 net.cpp:141] Setting up drop7
I0720 13:44:03.231395 27308 net.cpp:148] Top shape: 10 4096 (40960)
I0720 13:44:03.231405 27308 net.cpp:156] Memory required for data: 68601400
I0720 13:44:03.231415 27308 layer_factory.hpp:77] Creating layer fc8
I0720 13:44:03.234541 27308 net.cpp:91] Creating Layer fc8
I0720 13:44:03.234599 27308 net.cpp:425] fc8 <- fc7
I0720 13:44:03.234623 27308 net.cpp:399] fc8 -> fc8
I0720 13:44:03.255797 27308 net.cpp:141] Setting up fc8
I0720 13:44:03.256387 27308 net.cpp:148] Top shape: 10 1000 (10000)
I0720 13:44:03.256543 27308 net.cpp:156] Memory required for data: 68641400
I0720 13:44:03.256693 27308 layer_factory.hpp:77] Creating layer prob
I0720 13:44:03.256817 27308 net.cpp:91] Creating Layer prob
I0720 13:44:03.256930 27308 net.cpp:425] prob <- fc8
I0720 13:44:03.258173 27308 net.cpp:399] prob -> prob
I0720 13:44:03.278555 27308 net.cpp:141] Setting up prob
I0720 13:44:03.279882 27308 net.cpp:148] Top shape: 10 1000 (10000)
I0720 13:44:03.280484 27308 net.cpp:156] Memory required for data: 68681400
I0720 13:44:03.280737 27308 net.cpp:219] prob does not need backward computation.
I0720 13:44:03.280920 27308 net.cpp:219] fc8 does not need backward computation.
I0720 13:44:03.281096 27308 net.cpp:219] drop7 does not need backward computation.
I0720 13:44:03.281344 27308 net.cpp:219] relu7 does not need backward computation.
…
I0720 13:44:03.294534 27294 upgrade_proto.cpp:43] Attempting to upgrade input file specified using deprecated transformation parameters: /tmp/cvld3947231336601374205/bvlc_reference_caffenet.caffemodel
I0720 13:44:03.294667 27294 upgrade_proto.cpp:46] Successfully upgraded file specified using deprecated data transformation parameters.
W0720 13:44:03.294730 27294 upgrade_proto.cpp:48] Note that future Caffe releases will only support transform_param messages for transformation fields.
I0720 13:44:03.294750 27294 upgrade_proto.cpp:52] Attempting to upgrade input file specified using deprecated V1LayerParameter: /tmp/cvld3947231336601374205/bvlc_reference_caffenet.caffemodel
I0720 13:44:03.314893 27316 net.cpp:141] Setting up fc7
I0720 13:44:03.315743 27316 net.cpp:148] Top shape: 10 4096 (40960)
I0720 13:44:03.315975 27316 net.cpp:156] Memory required for data: 68273720
I0720 13:44:03.316278 27316 layer_factory.hpp:77] Creating layer relu7
I0720 13:44:03.316467 27316 net.cpp:91] Creating Layer relu7
I0720 13:44:03.316603 27316 net.cpp:425] relu7 <- fc7
I0720 13:44:03.316773 27316 net.cpp:386] relu7 -> fc7 (in-place)
I0720 13:44:03.321827 27316 net.cpp:141] Setting up relu7
I0720 13:44:03.322659 27316 net.cpp:148] Top shape: 10 4096 (40960)
I0720 13:44:03.322897 27316 net.cpp:156] Memory required for data: 68437560
I0720 13:44:03.323045 27316 layer_factory.hpp:77] Creating layer drop7
I0720 13:44:03.323880 27316 net.cpp:91] Creating Layer drop7
I0720 13:44:03.324604 27316 net.cpp:425] drop7 <- fc7
I0720 13:44:03.325500 27316 net.cpp:386] drop7 -> fc7 (in-place)
I0720 13:44:03.326264 27316 net.cpp:141] Setting up drop7
I0720 13:44:03.326565 27316 net.cpp:148] Top shape: 10 4096 (40960)
I0720 13:44:03.326719 27316 net.cpp:156] Memory required for data: 68601400
I0720 13:44:03.326864 27316 layer_factory.hpp:77] Creating layer fc8
I0720 13:44:03.327033 27316 net.cpp:91] Creating Layer fc8
I0720 13:44:03.327266 27316 net.cpp:425] fc8 <- fc7
I0720 13:44:03.327401 27316 net.cpp:399] fc8 -> fc8
I0720 13:44:03.339413 27286 net.cpp:141] Setting up fc6
I0720 13:44:03.339529 27286 net.cpp:148] Top shape: 10 4096 (40960)
I0720 13:44:03.339545 27286 net.cpp:156] Memory required for data: 67782200
I0720 13:44:03.339586 27286 layer_factory.hpp:77] Creating layer relu6
I0720 13:44:03.339624 27286 net.cpp:91] Creating Layer relu6
I0720 13:44:03.339639 27286 net.cpp:425] relu6 <- fc6
I0720 13:44:03.339660 27286 net.cpp:386] relu6 -> fc6 (in-place)
I0720 13:44:03.346578 27316 net.cpp:141] Setting up fc8
I0720 13:44:03.347241 27316 net.cpp:148] Top shape: 10 1000 (10000)
I0720 13:44:03.347440 27316 net.cpp:156] Memory required for data: 68641400
I0720 13:44:03.347599 27316 layer_factory.hpp:77] Creating layer prob
I0720 13:44:03.348274 27316 net.cpp:91] Creating Layer prob
I0720 13:44:03.348690 27316 net.cpp:425] prob <- fc8
I0720 13:44:03.348865 27316 net.cpp:399] prob -> prob
I0720 13:44:03.350153 27286 net.cpp:141] Setting up relu6
I0720 13:44:03.351974 27286 net.cpp:148] Top shape: 10 4096 (40960)
I0720 13:44:03.352634 27286 net.cpp:156] Memory required for data: 67946040
I0720 13:44:03.352815 27286 layer_factory.hpp:77] Creating layer drop6
I0720 13:44:03.352934 27316 net.cpp:141] Setting up prob
I0720 13:44:03.352982 27286 net.cpp:91] Creating Layer drop6
I0720 13:44:03.358852 27316 net.cpp:148] Top shape: 10 1000 (10000)
I0720 13:44:03.358853 27286 net.cpp:425] drop6 <- fc6
I0720 13:44:03.358913 27316 net.cpp:156] Memory required for data: 68681400
I0720 13:44:03.358953 27316 net.cpp:219] prob does not need backward computation.
I0720 13:44:03.358969 27316 net.cpp:219] fc8 does not need backward computation.
I0720 13:44:03.358979 27316 net.cpp:219] drop7 does not need backward computation.
I0720 13:44:03.358976 27286 net.cpp:386] drop6 -> fc6 (in-place)
I0720 13:44:03.358989 27316 net.cpp:219] relu7 does not need backward computation.
I0720 13:44:03.358996 27316 net.cpp:219] fc7 does not need backward computation.
I0720 13:44:03.359004 27316 net.cpp:219] drop6 does not need backward computation.
I0720 13:44:03.359011 27316 net.cpp:219] relu6 does not need backward computation.
I0720 13:44:03.359019 27316 net.cpp:219] fc6 does not need backward computation.
I0720 13:44:03.359027 27316 net.cpp:219] pool5 does not need backward computation.
I0720 13:44:03.359027 27286 net.cpp:141] Setting up drop6
I0720 13:44:03.359050 27316 net.cpp:219] relu5 does not need backward computation.
I0720 13:44:03.359072 27316 net.cpp:219] conv5 does not need backward computation.
I0720 13:44:03.359077 27286 net.cpp:148] Top shape: 10 4096 (40960)
I0720 13:44:03.359081 27316 net.cpp:219] relu4 does not need backward computation.
I0720 13:44:03.359098 27286 net.cpp:156] Memory required for data: 68109880
I0720 13:44:03.359103 27316 net.cpp:219] conv4 does not need backward computation.
I0720 13:44:03.359114 27316 net.cpp:219] relu3 does not need backward computation.
I0720 13:44:03.359114 27286 layer_factory.hpp:77] Creating layer fc7
…
I0720 13:44:03.359207 27316 net.cpp:261] This network produces output prob
I0720 13:44:03.359769 27316 net.cpp:274] Network initialization done.
I0720 13:44:03.359762 27286 net.cpp:91] Creating Layer fc7
I0720 13:44:03.359813 27286 net.cpp:425] fc7 <- fc6
I0720 13:44:03.359840 27286 net.cpp:399] fc7 -> fc7
I0720 13:44:03.415421 27318 net.cpp:752] Ignoring source layer data
I0720 13:44:03.415478 27318 net.cpp:752] Ignoring source layer cont_sentence_data_0_split
I0720 13:44:03.415488 27318 net.cpp:752] Ignoring source layer reshape_stg_indicator
I0720 13:44:03.435948 27286 net.cpp:141] Setting up fc7
I0720 13:44:03.436058 27286 net.cpp:148] Top shape: 10 4096 (40960)
I0720 13:44:03.436074 27286 net.cpp:156] Memory required for data: 68273720
I0720 13:44:03.436112 27286 layer_factory.hpp:77] Creating layer relu7
I0720 13:44:03.436149 27286 net.cpp:91] Creating Layer relu7
I0720 13:44:03.436167 27286 net.cpp:425] relu7 <- fc7
I0720 13:44:03.441021 27286 net.cpp:386] relu7 -> fc7 (in-place)
I0720 13:44:03.450901 27286 net.cpp:141] Setting up relu7
I0720 13:44:03.450997 27286 net.cpp:148] Top shape: 10 4096 (40960)
I0720 13:44:03.451012 27286 net.cpp:156] Memory required for data: 68437560
I0720 13:44:03.451035 27286 layer_factory.hpp:77] Creating layer drop7
I0720 13:44:03.451071 27286 net.cpp:91] Creating Layer drop7
I0720 13:44:03.451089 27286 net.cpp:425] drop7 <- fc7
I0720 13:44:03.454874 27286 net.cpp:386] drop7 -> fc7 (in-place)
I0720 13:44:03.455026 27286 net.cpp:141] Setting up drop7
I0720 13:44:03.455055 27286 net.cpp:148] Top shape: 10 4096 (40960)
I0720 13:44:03.455066 27286 net.cpp:156] Memory required for data: 68601400
I0720 13:44:03.455085 27286 layer_factory.hpp:77] Creating layer fc8
I0720 13:44:03.455119 27286 net.cpp:91] Creating Layer fc8
I0720 13:44:03.455130 27286 net.cpp:425] fc8 <- fc7
I0720 13:44:03.455154 27286 net.cpp:399] fc8 -> fc8
I0720 13:44:03.486613 27286 net.cpp:141] Setting up fc8
I0720 13:44:03.486775 27286 net.cpp:148] Top shape: 10 1000 (10000)
I0720 13:44:03.486789 27286 net.cpp:156] Memory required for data: 68641400
I0720 13:44:03.486836 27286 layer_factory.hpp:77] Creating layer prob
I0720 13:44:03.487726 27286 net.cpp:91] Creating Layer prob
I0720 13:44:03.487800 27286 net.cpp:425] prob <- fc8
I0720 13:44:03.487839 27286 net.cpp:399] prob -> prob
I0720 13:44:03.490967 27310 upgrade_proto.cpp:43] Attempting to upgrade input file specified using deprecated transformation parameters: /tmp/cvld3947231336601374205/bvlc_reference_caffenet.caffemodel
I0720 13:44:03.490969 27286 net.cpp:141] Setting up prob
I0720 13:44:03.491727 27286 net.cpp:148] Top shape: 10 1000 (10000)
I0720 13:44:03.491750 27286 net.cpp:156] Memory required for data: 68681400
I0720 13:44:03.491770 27286 net.cpp:219] prob does not need backward computation.
I0720 13:44:03.491783 27286 net.cpp:219] fc8 does not need backward computation.
I0720 13:44:03.491793 27286 net.cpp:219] drop7 does not need backward computation.
I0720 13:44:03.491801 27286 net.cpp:219] relu7 does not need backward computation.
…
