…
Java HotSpot(TM) 64-Bit Server VM warning: You have loaded library /tmp/cvld7444740734281419686/libopencv_java310.xine1.so which might have disabled stack guard. The VM will try to fix the stack guard now.
It's highly recommended that you fix the library with 'execstack -c <libfile>', or link it with '-z noexecstack'.
WARNING: Logging before InitGoogleLogging() is written to STDERR
I0721 12:37:52.171484 10171 net.cpp:49] Initializing net from parameters: 
name: "CaffeNet"
state {
  phase: TEST
}
layer {
  name: "data"
  type: "Input"
  top: "data"
  input_param {
    shape {
      dim: 10
      dim: 3
      dim: 227
      dim: 227
    }
  }
}
layer {
  name: "conv1"
  type: "Convolution"
  bottom: "data"
  top: "conv1"
  convolution_param {
    num_output: 96
    kernel_size: 11
    stride: 4
  }
}
layer {
  name: "relu1"
  type: "ReLU"
  bottom: "conv1"
  top: "conv1"
}
layer {
  name: "pool1"
  type: "Pooling"
  bottom: "conv1"
  top: "pool1"
  pooling_param {
    pool: MAX
    kernel_size: 3
    stride: 2
  }
}
layer {
  name: "norm1"
  type: "LRN"
  bottom: "pool1"
  top: "norm1"
  lrn_param {
    local_size: 5
    alpha: 0.0001
    beta: 0.75
  }
}
layer {
  name: "conv2"
  type: "Convolution"
  bottom: "norm1"
  top: "conv2"
  convolution_param {
    num_output: 256
    pad: 2
    kernel_size: 5
    group: 2
  }
}
layer {
  name: "relu2"
  type: "ReLU"
  bottom: "conv2"
  top: "conv2"
}
layer {
  name: "pool2"
  type: "Pooling"
  bottom: "conv2"
  top: "pool2"
  pooling_param {
    pool: MAX
    kernel_size: 3
    stride: 2
  }
}
layer {
  name: "norm2"
  type: "LRN"
  bottom: "pool2"
  top: "norm2"
  lrn_param {
    local_size: 5
    alpha: 0.0001
    beta: 0.75
  }
}
layer {
  name: "conv3"
  type: "Convolution"
  bottom: "norm2"
  top: "conv3"
  convolution_param {
    num_output: 384
    pad: 1
    kernel_size: 3
  }
}
layer {
  name: "relu3"
  type: "ReLU"
  bottom: "conv3"
  top: "conv3"
}
layer {
  name: "conv4"
  type: "Convolution"
  bottom: "conv3"
  top: "conv4"
  convolution_param {
    num_output: 384
    pad: 1
    kernel_size: 3
    group: 2
  }
}
layer {
  name: "relu4"
  type: "ReLU"
  bottom: "conv4"
  top: "conv4"
}
layer {
  name: "conv5"
  type: "Convolution"
  bottom: "conv4"
  top: "conv5"
  convolution_param {
    num_output: 256
    pad: 1
    kernel_size: 3
    group: 2
  }
}
layer {
  name: "relu5"
  type: "ReLU"
  bottom: "conv5"
  top: "conv5"
}
layer {
  name: "pool5"
  type: "Pooling"
  bottom: "conv5"
  top: "pool5"
  pooling_param {
    pool: MAX
    kernel_size: 3
    stride: 2
  }
}
layer {
  name: "fc6"
  type: "InnerProduct"
  bottom: "pool5"
  top: "fc6"
  inner_product_param {
    num_output: 4096
  }
}
layer {
  name: "relu6"
  type: "ReLU"
  bottom: "fc6"
  top: "fc6"
}
layer {
  name: "drop6"
  type: "Dropout"
  bottom: "fc6"
  top: "fc6"
  dropout_param {
    dropout_ratio: 0.5
  }
}
layer {
  name: "fc7"
  type: "InnerProduct"
  bottom: "fc6"
  top: "fc7"
  inner_product_param {
    num_output: 4096
  }
}
layer {
  name: "relu7"
  type: "ReLU"
  bottom: "fc7"
  top: "fc7"
}
layer {
  name: "drop7"
  type: "Dropout"
  bottom: "fc7"
  top: "fc7"
  dropout_param {
    dropout_ratio: 0.5
  }
}
layer {
  name: "fc8"
  type: "InnerProduct"
  bottom: "fc7"
  top: "fc8"
  inner_product_param {
    num_output: 1000
  }
}
layer {
  name: "prob"
  type: "Softmax"
  bottom: "fc8"
  top: "prob"
}
I0721 12:37:52.171659 10171 layer_factory.hpp:77] Creating layer data
I0721 12:37:52.171680 10171 net.cpp:91] Creating Layer data
I0721 12:37:52.171690 10171 net.cpp:399] data -> data
I0721 12:37:52.212698 10163 upgrade_proto.cpp:66] Attempting to upgrade input file specified using deprecated input fields: /tmp/cvld7444740734281419686/s2vt.words_to_preds.prototxt
I0721 12:37:52.212784 10163 upgrade_proto.cpp:69] Successfully upgraded file specified using deprecated input fields.
W0721 12:37:52.212798 10163 upgrade_proto.cpp:71] Note that future Caffe releases will only support input layers and not input fields.
I0721 12:37:52.213207 10163 net.cpp:49] Initializing net from parameters: 
name: "s2vt:features_to_lstm"
state {
  phase: TEST
}
layer {
  name: "input"
  type: "Input"
  top: "frames_fc7"
  top: "cont_sentence"
  top: "input_sentence"
  top: "stage_indicator"
  input_param {
    shape {
      dim: 1
      dim: 4096
    }
    shape {
      dim: 1
      dim: 1
    }
    shape {
      dim: 1
      dim: 1
    }
    shape {
      dim: 1
      dim: 1
    }
  }
}
layer {
  name: "embed_encoder"
  type: "InnerProduct"
  bottom: "frames_fc7"
  top: "embedded_in_frames"
  param {
    lr_mult: 1
    decay_mult: 1
  }
  param {
    lr_mult: 2
    decay_mult: 0
  }
  inner_product_param {
    num_output: 500
    weight_filler {
      type: "xavier"
    }
    bias_filler {
      type: "constant"
      value: 0.2
    }
  }
}
layer {
  name: "reshape_frames"
  type: "Reshape"
  bottom: "embedded_in_frames"
  top: "embedded_input_frames"
  reshape_param {
    shape {
      dim: 1
      dim: 1
      dim: 500
    }
  }
}
layer {
  name: "reshape_stage_indicator"
  type: "Reshape"
  bottom: "stage_indicator"
  top: "reshaped_stage_indicator"
  reshape_param {
    shape {
      dim: 1
      dim: 1
      dim: 1
    }
  }
}
layer {
  name: "embedding"
  type: "Embed"
  bottom: "input_sentence"
  top: "embedded_input_sentence"
  param {
    lr_mult: 1
  }
  embed_param {
    num_output: 500
    input_dim: 46168
    bias_term: false
    weight_filler {
      type: "uniform"
      min: -0.08
      max: 0.08
    }
  }
}
layer {
  name: "lstm1"
  type: "LSTM"
  bottom: "embedded_input_frames"
  bottom: "cont_sentence"
  top: "lstm1"
  recurrent_param {
    num_output: 1000
    weight_filler {
      type: "uniform"
      min: -0.08
      max: 0.08
    }
    bias_filler {
      type: "constant"
      value: 0
    }
  }
}
layer {
  name: "concat"
  type: "Concat"
  bottom: "lstm1"
  bottom: "embedded_input_sentence"
  bottom: "reshaped_stage_indicator"
  top: "lstm1_video_sequence"
  concat_param {
    concat_dim: 2
  }
}
layer {
  name: "lstm2"
  type: "LSTM"
  bottom: "lstm1_video_sequence"
  bottom: "cont_sentence"
  top: "lstm2"
  recurrent_param {
    num_output: 1000
    weight_filler {
      type: "uniform"
      min: -0.08
      max: 0.08
    }
    bias_filler {
      type: "constant"
      value: 0
    }
  }
}
layer {
  name: "predict"
  type: "InnerProduct"
  bottom: "lstm2"
  top: "predict"
  param {
    lr_mult: 1
    decay_mult: 1
  }
  param {
    lr_mult: 2
    decay_mult: 0
  }
  inner_product_param {
    num_output: 46168
    weight_filler {
      type: "uniform"
      min: -0.08
      max: 0.08
    }
    bias_filler {
      type: "constant"
      value: 0
    }
    axis: 2
  }
}
layer {
  name: "probs"
  type: "Softmax"
  bottom: "predict"
  top: "probs"
  softmax_param {
    axis: 2
  }
}
I0721 12:37:52.213392 10163 layer_factory.hpp:77] Creating layer input
I0721 12:37:52.213433 10163 net.cpp:91] Creating Layer input
I0721 12:37:52.213449 10163 net.cpp:399] input -> frames_fc7
I0721 12:37:52.213480 10163 net.cpp:399] input -> cont_sentence
I0721 12:37:52.213512 10163 net.cpp:399] input -> input_sentence
I0721 12:37:52.213526 10163 net.cpp:399] input -> stage_indicator
I0721 12:37:52.238216 10159 upgrade_proto.cpp:66] Attempting to upgrade input file specified using deprecated input fields: /tmp/cvld7444740734281419686/s2vt.words_to_preds.prototxt
I0721 12:37:52.238260 10159 upgrade_proto.cpp:69] Successfully upgraded file specified using deprecated input fields.
W0721 12:37:52.238270 10159 upgrade_proto.cpp:71] Note that future Caffe releases will only support input layers and not input fields.
I0721 12:37:52.238504 10177 net.cpp:49] Initializing net from parameters: 
name: "CaffeNet"
state {
  phase: TEST
}
layer {
  name: "data"
  type: "Input"
  top: "data"
  input_param {
    shape {
      dim: 10
      dim: 3
      dim: 227
      dim: 227
    }
  }
}
layer {
  name: "conv1"
  type: "Convolution"
  bottom: "data"
  top: "conv1"
  convolution_param {
    num_output: 96
    kernel_size: 11
    stride: 4
  }
}
layer {
  name: "relu1"
  type: "ReLU"
  bottom: "conv1"
  top: "conv1"
}
layer {
  name: "pool1"
  type: "Pooling"
  bottom: "conv1"
  top: "pool1"
  pooling_param {
    pool: MAX
    kernel_size: 3
    stride: 2
  }
}
layer {
  name: "norm1"
  type: "LRN"
  bottom: "pool1"
  top: "norm1"
  lrn_param {
    local_size: 5
    alpha: 0.0001
    beta: 0.75
  }
}
layer {
  name: "conv2"
  type: "Convolution"
  bottom: "norm1"
  top: "conv2"
  convolution_param {
    num_output: 256
    pad: 2
    kernel_size: 5
    group: 2
  }
}
layer {
  name: "relu2"
  type: "ReLU"
  bottom: "conv2"
  top: "conv2"
}
layer {
  name: "pool2"
  type: "Pooling"
  bottom: "conv2"
  top: "pool2"
  pooling_param {
    pool: MAX
    kernel_size: 3
    stride: 2
  }
}
layer {
  name: "norm2"
  type: "LRN"
  bottom: "pool2"
  top: "norm2"
  lrn_param {
    local_size: 5
    alpha: 0.0001
    beta: 0.75
  }
}
layer {
  name: "conv3"
  type: "Convolution"
  bottom: "norm2"
  top: "conv3"
  convolution_param {
    num_output: 384
    pad: 1
    kernel_size: 3
  }
}
layer {
  name: "relu3"
  type: "ReLU"
  bottom: "conv3"
  top: "conv3"
}
layer {
  name: "conv4"
  type: "Convolution"
  bottom: "conv3"
  top: "conv4"
  convolution_param {
    num_output: 384
    pad: 1
    kernel_size: 3
    group: 2
  }
}
layer {
  name: "relu4"
  type: "ReLU"
  bottom: "conv4"
  top: "conv4"
}
layer {
  name: "conv5"
  type: "Convolution"
  bottom: "conv4"
  top: "conv5"
  convolution_param {
    num_output: 256
    pad: 1
    kernel_size: 3
    group: 2
  }
}
layer {
  name: "relu5"
  type: "ReLU"
  bottom: "conv5"
  top: "conv5"
}
layer {
  name: "pool5"
  type: "Pooling"
  bottom: "conv5"
  top: "pool5"
  pooling_param {
    pool: MAX
    kernel_size: 3
    stride: 2
  }
}
layer {
  name: "fc6"
  type: "InnerProduct"
  bottom: "pool5"
  top: "fc6"
  inner_product_param {
    num_output: 4096
  }
}
layer {
  name: "relu6"
  type: "ReLU"
  bottom: "fc6"
  top: "fc6"
}
layer {
  name: "drop6"
  type: "Dropout"
  bottom: "fc6"
  top: "fc6"
  dropout_param {
    dropout_ratio: 0.5
  }
}
layer {
  name: "fc7"
  type: "InnerProduct"
  bottom: "fc6"
  top: "fc7"
  inner_product_param {
    num_output: 4096
  }
}
layer {
  name: "relu7"
  type: "ReLU"
  bottom: "fc7"
  top: "fc7"
}
layer {
  name: "drop7"
  type: "Dropout"
  bottom: "fc7"
  top: "fc7"
  dropout_param {
    dropout_ratio: 0.5
  }
}
layer {
  name: "fc8"
  type: "InnerProduct"
  bottom: "fc7"
  top: "fc8"
  inner_product_param {
    num_output: 1000
  }
}
layer {
  name: "prob"
  type: "Softmax"
  bottom: "fc8"
  top: "prob"
}
I0721 12:37:52.238672 10177 layer_factory.hpp:77] Creating layer data
I0721 12:37:52.238679 10159 net.cpp:49] Initializing net from parameters: 
name: "s2vt:features_to_lstm"
state {
  phase: TEST
}
layer {
  name: "input"
  type: "Input"
  top: "frames_fc7"
  top: "cont_sentence"
  top: "input_sentence"
  top: "stage_indicator"
  input_param {
    shape {
      dim: 1
      dim: 4096
    }
    shape {
      dim: 1
      dim: 1
    }
    shape {
      dim: 1
      dim: 1
    }
    shape {
      dim: 1
      dim: 1
    }
  }
}
layer {
  name: "embed_encoder"
  type: "InnerProduct"
  bottom: "frames_fc7"
  top: "embedded_in_frames"
  param {
    lr_mult: 1
    decay_mult: 1
  }
  param {
    lr_mult: 2
    decay_mult: 0
  }
  inner_product_param {
    num_output: 500
    weight_filler {
      type: "xavier"
    }
    bias_filler {
      type: "constant"
      value: 0.2
    }
  }
}
layer {
  name: "reshape_frames"
  type: "Reshape"
  bottom: "embedded_in_frames"
  top: "embedded_input_frames"
  reshape_param {
    shape {
      dim: 1
      dim: 1
      dim: 500
    }
  }
}
layer {
  name: "reshape_stage_indicator"
  type: "Reshape"
  bottom: "stage_indicator"
  top: "reshaped_stage_indicator"
  reshape_param {
    shape {
      dim: 1
      dim: 1
      dim: 1
    }
  }
}
layer {
  name: "embedding"
  type: "Embed"
  bottom: "input_sentence"
  top: "embedded_input_sentence"
  param {
    lr_mult: 1
  }
  embed_param {
    num_output: 500
    input_dim: 46168
    bias_term: false
    weight_filler {
      type: "uniform"
      min: -0.08
      max: 0.08
    }
  }
}
layer {
  name: "lstm1"
  type: "LSTM"
  bottom: "embedded_input_frames"
  bottom: "cont_sentence"
  top: "lstm1"
  recurrent_param {
    num_output: 1000
    weight_filler {
      type: "uniform"
      min: -0.08
      max: 0.08
    }
    bias_filler {
      type: "constant"
      value: 0
    }
  }
}
layer {
  name: "concat"
  type: "Concat"
  bottom: "lstm1"
  bottom: "embedded_input_sentence"
  bottom: "reshaped_stage_indicator"
  top: "lstm1_video_sequence"
  concat_param {
    concat_dim: 2
  }
}
layer {
  name: "lstm2"
  type: "LSTM"
  bottom: "lstm1_video_sequence"
  bottom: "cont_sentence"
  top: "lstm2"
  recurrent_param {
    num_output: 1000
    weight_filler {
      type: "uniform"
      min: -0.08
      max: 0.08
    }
    bias_filler {
      type: "constant"
      value: 0
    }
  }
}
layer {
  name: "predict"
  type: "InnerProduct"
  bottom: "lstm2"
  top: "predict"
  param {
    lr_mult: 1
    decay_mult: 1
  }
  param {
    lr_mult: 2
    decay_mult: 0
  }
  inner_product_param {
    num_output: 46168
    weight_filler {
      type: "uniform"
      min: -0.08
      max: 0.08
    }
    bias_filler {
      type: "constant"
      value: 0
    }
    axis: 2
  }
}
layer {
  name: "probs"
  type: "Softmax"
  bottom: "predict"
  top: "probs"
  softmax_param {
    axis: 2
  }
}
I0721 12:37:52.238701 10177 net.cpp:91] Creating Layer data
I0721 12:37:52.238723 10177 net.cpp:399] data -> data
I0721 12:37:52.238847 10159 layer_factory.hpp:77] Creating layer input
I0721 12:37:52.238870 10159 net.cpp:91] Creating Layer input
I0721 12:37:52.238884 10159 net.cpp:399] input -> frames_fc7
I0721 12:37:52.238909 10159 net.cpp:399] input -> cont_sentence
I0721 12:37:52.238926 10159 net.cpp:399] input -> input_sentence
I0721 12:37:52.238946 10159 net.cpp:399] input -> stage_indicator
I0721 12:37:53.101660 10171 net.cpp:141] Setting up data
I0721 12:37:53.101723 10171 net.cpp:148] Top shape: 10 3 227 227 (1545870)
I0721 12:37:53.101729 10171 net.cpp:156] Memory required for data: 6183480
I0721 12:37:53.101748 10171 layer_factory.hpp:77] Creating layer conv1
I0721 12:37:53.101774 10171 net.cpp:91] Creating Layer conv1
I0721 12:37:53.101783 10171 net.cpp:425] conv1 <- data
I0721 12:37:53.101795 10171 net.cpp:399] conv1 -> conv1
I0721 12:37:53.101992 10163 net.cpp:141] Setting up input
I0721 12:37:53.102010 10163 net.cpp:148] Top shape: 1 4096 (4096)
I0721 12:37:53.102017 10163 net.cpp:148] Top shape: 1 1 (1)
I0721 12:37:53.102022 10163 net.cpp:148] Top shape: 1 1 (1)
I0721 12:37:53.102028 10163 net.cpp:148] Top shape: 1 1 (1)
I0721 12:37:53.102032 10163 net.cpp:156] Memory required for data: 16396
I0721 12:37:53.102041 10163 layer_factory.hpp:77] Creating layer cont_sentence_input_1_split
I0721 12:37:53.102058 10163 net.cpp:91] Creating Layer cont_sentence_input_1_split
I0721 12:37:53.102064 10163 net.cpp:425] cont_sentence_input_1_split <- cont_sentence
I0721 12:37:53.102087 10163 net.cpp:399] cont_sentence_input_1_split -> cont_sentence_input_1_split_0
I0721 12:37:53.102097 10163 net.cpp:399] cont_sentence_input_1_split -> cont_sentence_input_1_split_1
I0721 12:37:53.102216 10163 net.cpp:141] Setting up cont_sentence_input_1_split
I0721 12:37:53.102227 10163 net.cpp:148] Top shape: 1 1 (1)
I0721 12:37:53.102233 10163 net.cpp:148] Top shape: 1 1 (1)
I0721 12:37:53.102237 10163 net.cpp:156] Memory required for data: 16404
I0721 12:37:53.102241 10163 layer_factory.hpp:77] Creating layer embed_encoder
I0721 12:37:53.102259 10163 net.cpp:91] Creating Layer embed_encoder
I0721 12:37:53.102264 10163 net.cpp:425] embed_encoder <- frames_fc7
I0721 12:37:53.102273 10163 net.cpp:399] embed_encoder -> embedded_in_frames
I0721 12:37:53.144392 10163 net.cpp:141] Setting up embed_encoder
I0721 12:37:53.144433 10163 net.cpp:148] Top shape: 1 500 (500)
I0721 12:37:53.144439 10163 net.cpp:156] Memory required for data: 18404
I0721 12:37:53.144462 10163 layer_factory.hpp:77] Creating layer reshape_frames
I0721 12:37:53.144490 10163 net.cpp:91] Creating Layer reshape_frames
I0721 12:37:53.144497 10163 net.cpp:425] reshape_frames <- embedded_in_frames
I0721 12:37:53.144508 10163 net.cpp:399] reshape_frames -> embedded_input_frames
I0721 12:37:53.160475 10163 net.cpp:141] Setting up reshape_frames
I0721 12:37:53.160513 10163 net.cpp:148] Top shape: 1 1 500 (500)
I0721 12:37:53.160518 10163 net.cpp:156] Memory required for data: 20404
I0721 12:37:53.160526 10163 layer_factory.hpp:77] Creating layer reshape_stage_indicator
I0721 12:37:53.160547 10163 net.cpp:91] Creating Layer reshape_stage_indicator
I0721 12:37:53.160552 10163 net.cpp:425] reshape_stage_indicator <- stage_indicator
I0721 12:37:53.160565 10163 net.cpp:399] reshape_stage_indicator -> reshaped_stage_indicator
I0721 12:37:53.161375 10163 net.cpp:141] Setting up reshape_stage_indicator
I0721 12:37:53.161392 10163 net.cpp:148] Top shape: 1 1 1 (1)
I0721 12:37:53.161397 10163 net.cpp:156] Memory required for data: 20408
I0721 12:37:53.161402 10163 layer_factory.hpp:77] Creating layer embedding
I0721 12:37:53.161415 10163 net.cpp:91] Creating Layer embedding
I0721 12:37:53.161420 10163 net.cpp:425] embedding <- input_sentence
I0721 12:37:53.161430 10163 net.cpp:399] embedding -> embedded_input_sentence
I0721 12:37:53.232322 10177 net.cpp:141] Setting up data
I0721 12:37:53.232367 10177 net.cpp:148] Top shape: 10 3 227 227 (1545870)
I0721 12:37:53.232375 10177 net.cpp:156] Memory required for data: 6183480
I0721 12:37:53.232388 10177 layer_factory.hpp:77] Creating layer conv1
I0721 12:37:53.232414 10177 net.cpp:91] Creating Layer conv1
I0721 12:37:53.232421 10177 net.cpp:425] conv1 <- data
I0721 12:37:53.232434 10177 net.cpp:399] conv1 -> conv1
I0721 12:37:53.238503 10159 net.cpp:141] Setting up input
I0721 12:37:53.238535 10159 net.cpp:148] Top shape: 1 4096 (4096)
I0721 12:37:53.238543 10159 net.cpp:148] Top shape: 1 1 (1)
I0721 12:37:53.238548 10159 net.cpp:148] Top shape: 1 1 (1)
I0721 12:37:53.238554 10159 net.cpp:148] Top shape: 1 1 (1)
I0721 12:37:53.238557 10159 net.cpp:156] Memory required for data: 16396
I0721 12:37:53.238564 10159 layer_factory.hpp:77] Creating layer cont_sentence_input_1_split
I0721 12:37:53.238579 10159 net.cpp:91] Creating Layer cont_sentence_input_1_split
I0721 12:37:53.238584 10159 net.cpp:425] cont_sentence_input_1_split <- cont_sentence
I0721 12:37:53.238595 10159 net.cpp:399] cont_sentence_input_1_split -> cont_sentence_input_1_split_0
I0721 12:37:53.238605 10159 net.cpp:399] cont_sentence_input_1_split -> cont_sentence_input_1_split_1
I0721 12:37:53.238749 10159 net.cpp:141] Setting up cont_sentence_input_1_split
I0721 12:37:53.238761 10159 net.cpp:148] Top shape: 1 1 (1)
I0721 12:37:53.238766 10159 net.cpp:148] Top shape: 1 1 (1)
I0721 12:37:53.238770 10159 net.cpp:156] Memory required for data: 16404
I0721 12:37:53.238775 10159 layer_factory.hpp:77] Creating layer embed_encoder
I0721 12:37:53.238790 10159 net.cpp:91] Creating Layer embed_encoder
I0721 12:37:53.238795 10159 net.cpp:425] embed_encoder <- frames_fc7
I0721 12:37:53.238804 10159 net.cpp:399] embed_encoder -> embedded_in_frames
I0721 12:37:53.292501 10159 net.cpp:141] Setting up embed_encoder
I0721 12:37:53.292546 10159 net.cpp:148] Top shape: 1 500 (500)
I0721 12:37:53.292552 10159 net.cpp:156] Memory required for data: 18404
I0721 12:37:53.292573 10159 layer_factory.hpp:77] Creating layer reshape_frames
I0721 12:37:53.292592 10159 net.cpp:91] Creating Layer reshape_frames
I0721 12:37:53.292599 10159 net.cpp:425] reshape_frames <- embedded_in_frames
I0721 12:37:53.292611 10159 net.cpp:399] reshape_frames -> embedded_input_frames
I0721 12:37:53.298313 10159 net.cpp:141] Setting up reshape_frames
I0721 12:37:53.298343 10159 net.cpp:148] Top shape: 1 1 500 (500)
I0721 12:37:53.298348 10159 net.cpp:156] Memory required for data: 20404
I0721 12:37:53.298354 10159 layer_factory.hpp:77] Creating layer reshape_stage_indicator
I0721 12:37:53.298369 10159 net.cpp:91] Creating Layer reshape_stage_indicator
I0721 12:37:53.298375 10159 net.cpp:425] reshape_stage_indicator <- stage_indicator
I0721 12:37:53.298389 10159 net.cpp:399] reshape_stage_indicator -> reshaped_stage_indicator
I0721 12:37:53.317579 10159 net.cpp:141] Setting up reshape_stage_indicator
I0721 12:37:53.317623 10159 net.cpp:148] Top shape: 1 1 1 (1)
I0721 12:37:53.317628 10159 net.cpp:156] Memory required for data: 20408
I0721 12:37:53.317637 10159 layer_factory.hpp:77] Creating layer embedding
I0721 12:37:53.317662 10159 net.cpp:91] Creating Layer embedding
I0721 12:37:53.317668 10159 net.cpp:425] embedding <- input_sentence
I0721 12:37:53.317680 10159 net.cpp:399] embedding -> embedded_input_sentence
I0721 12:37:53.387809 10163 net.cpp:141] Setting up embedding
I0721 12:37:53.387850 10163 net.cpp:148] Top shape: 1 1 500 (500)
I0721 12:37:53.387856 10163 net.cpp:156] Memory required for data: 22408
I0721 12:37:53.387871 10163 layer_factory.hpp:77] Creating layer lstm1
I0721 12:37:53.387893 10163 net.cpp:91] Creating Layer lstm1
I0721 12:37:53.387900 10163 net.cpp:425] lstm1 <- embedded_input_frames
I0721 12:37:53.387909 10163 net.cpp:425] lstm1 <- cont_sentence_input_1_split_0
I0721 12:37:53.387919 10163 net.cpp:399] lstm1 -> lstm1
I0721 12:37:53.387959 10163 recurrent_layer.cpp:20] Initializing recurrent layer: assuming input batch contains 1 timesteps of 1 independent streams.
I0721 12:37:53.388304 10163 net.cpp:49] Initializing net from parameters: 
layer {
  name: "lstm1_"
  type: "Input"
  top: "x"
  top: "cont"
  input_param {
    shape {
      dim: 1
      dim: 1
      dim: 500
    }
    shape {
      dim: 1
      dim: 1
    }
  }
}
layer {
  name: "lstm1_"
  type: "Input"
  top: "c_0"
  top: "h_0"
  input_param {
    shape {
      dim: 1
      dim: 1
      dim: 1000
    }
    shape {
      dim: 1
      dim: 1
      dim: 1000
    }
  }
}
layer {
  name: "lstm1_cont_slice"
  type: "Slice"
  bottom: "cont"
  top: "cont_1"
  slice_param {
    axis: 0
  }
}
layer {
  name: "lstm1_x_transform"
  type: "InnerProduct"
  bottom: "x"
  top: "W_xc_x"
  param {
    name: "W_xc"
  }
  param {
    name: "b_c"
  }
  propagate_down: true
  inner_product_param {
    num_output: 4000
    bias_term: true
    weight_filler {
      type: "uniform"
      min: -0.08
      max: 0.08
    }
    bias_filler {
      type: "constant"
      value: 0
    }
    axis: 2
  }
}
layer {
  name: "lstm1_W_xc_x_slice"
  type: "Slice"
  bottom: "W_xc_x"
  top: "W_xc_x_1"
  slice_param {
    axis: 0
  }
}
layer {
  name: "lstm1_h_conted_0"
  type: "Scale"
  bottom: "h_0"
  bottom: "cont_1"
  top: "h_conted_0"
  scale_param {
    axis: 0
  }
}
layer {
  name: "lstm1_transform_1"
  type: "InnerProduct"
  bottom: "h_conted_0"
  top: "W_hc_h_0"
  param {
    name: "W_hc"
  }
  inner_product_param {
    num_output: 4000
    bias_term: false
    weight_filler {
      type: "uniform"
      min: -0.08
      max: 0.08
    }
    axis: 2
  }
}
layer {
  name: "lstm1_gate_input_1"
  type: "Eltwise"
  bottom: "W_hc_h_0"
  bottom: "W_xc_x_1"
  top: "gate_input_1"
  eltwise_param {
    operation: SUM
  }
}
layer {
  name: "lstm1_unit_1"
  type: "LSTMUnit"
  bottom: "c_0"
  bottom: "gate_input_1"
  bottom: "cont_1"
  top: "c_1"
  top: "h_1"
}
layer {
  name: "lstm1_"
  type: "Split"
  bottom: "c_1"
  top: "c_T"
}
layer {
  name: "lstm1_h_concat"
  type: "Concat"
  bottom: "h_1"
  top: "h"
  concat_param {
    axis: 0
  }
}
layer {
  name: "h_pseudoloss"
  type: "Reduction"
  bottom: "h"
  top: "h_pseudoloss"
  loss_weight: 1
}
I0721 12:37:53.388393 10163 layer_factory.hpp:77] Creating layer lstm1_
I0721 12:37:53.388406 10163 net.cpp:91] Creating Layer lstm1_
I0721 12:37:53.388411 10163 net.cpp:399] lstm1_ -> x
I0721 12:37:53.388422 10163 net.cpp:399] lstm1_ -> cont
I0721 12:37:53.392863 10163 net.cpp:141] Setting up lstm1_
I0721 12:37:53.392885 10163 net.cpp:148] Top shape: 1 1 500 (500)
I0721 12:37:53.392892 10163 net.cpp:148] Top shape: 1 1 (1)
I0721 12:37:53.392896 10163 net.cpp:156] Memory required for data: 2004
I0721 12:37:53.392904 10163 layer_factory.hpp:77] Creating layer lstm1_
I0721 12:37:53.392915 10163 net.cpp:91] Creating Layer lstm1_
I0721 12:37:53.392925 10163 net.cpp:399] lstm1_ -> c_0
I0721 12:37:53.392936 10163 net.cpp:399] lstm1_ -> h_0
I0721 12:37:53.398927 10163 net.cpp:141] Setting up lstm1_
I0721 12:37:53.398955 10163 net.cpp:148] Top shape: 1 1 1000 (1000)
I0721 12:37:53.398962 10163 net.cpp:148] Top shape: 1 1 1000 (1000)
I0721 12:37:53.398967 10163 net.cpp:156] Memory required for data: 10004
I0721 12:37:53.398972 10163 layer_factory.hpp:77] Creating layer lstm1_cont_slice
I0721 12:37:53.398985 10163 net.cpp:91] Creating Layer lstm1_cont_slice
I0721 12:37:53.398991 10163 net.cpp:425] lstm1_cont_slice <- cont
I0721 12:37:53.399003 10163 net.cpp:399] lstm1_cont_slice -> cont_1
I0721 12:37:53.402127 10163 net.cpp:141] Setting up lstm1_cont_slice
I0721 12:37:53.402158 10163 net.cpp:148] Top shape: 1 1 (1)
I0721 12:37:53.402168 10163 net.cpp:156] Memory required for data: 10008
I0721 12:37:53.402179 10163 layer_factory.hpp:77] Creating layer cont_1_lstm1_cont_slice_0_split
I0721 12:37:53.402199 10163 net.cpp:91] Creating Layer cont_1_lstm1_cont_slice_0_split
I0721 12:37:53.402209 10163 net.cpp:425] cont_1_lstm1_cont_slice_0_split <- cont_1
I0721 12:37:53.402221 10163 net.cpp:399] cont_1_lstm1_cont_slice_0_split -> cont_1_lstm1_cont_slice_0_split_0
I0721 12:37:53.402236 10163 net.cpp:399] cont_1_lstm1_cont_slice_0_split -> cont_1_lstm1_cont_slice_0_split_1
I0721 12:37:53.422595 10163 net.cpp:141] Setting up cont_1_lstm1_cont_slice_0_split
I0721 12:37:53.422643 10163 net.cpp:148] Top shape: 1 1 (1)
I0721 12:37:53.422655 10163 net.cpp:148] Top shape: 1 1 (1)
I0721 12:37:53.422663 10163 net.cpp:156] Memory required for data: 10016
I0721 12:37:53.422675 10163 layer_factory.hpp:77] Creating layer lstm1_x_transform
I0721 12:37:53.422719 10163 net.cpp:91] Creating Layer lstm1_x_transform
I0721 12:37:53.422730 10163 net.cpp:425] lstm1_x_transform <- x
I0721 12:37:53.422744 10163 net.cpp:399] lstm1_x_transform -> W_xc_x
I0721 12:37:53.474198 10163 net.cpp:141] Setting up lstm1_x_transform
I0721 12:37:53.474251 10163 net.cpp:148] Top shape: 1 1 4000 (4000)
I0721 12:37:53.474262 10163 net.cpp:156] Memory required for data: 26016
I0721 12:37:53.474297 10163 layer_factory.hpp:77] Creating layer lstm1_W_xc_x_slice
I0721 12:37:53.474324 10163 net.cpp:91] Creating Layer lstm1_W_xc_x_slice
I0721 12:37:53.474331 10163 net.cpp:425] lstm1_W_xc_x_slice <- W_xc_x
I0721 12:37:53.474341 10163 net.cpp:399] lstm1_W_xc_x_slice -> W_xc_x_1
I0721 12:37:53.481209 10163 net.cpp:141] Setting up lstm1_W_xc_x_slice
I0721 12:37:53.481250 10163 net.cpp:148] Top shape: 1 1 4000 (4000)
I0721 12:37:53.481258 10163 net.cpp:156] Memory required for data: 42016
I0721 12:37:53.481269 10163 layer_factory.hpp:77] Creating layer lstm1_h_conted_0
I0721 12:37:53.481294 10163 net.cpp:91] Creating Layer lstm1_h_conted_0
I0721 12:37:53.481303 10163 net.cpp:425] lstm1_h_conted_0 <- h_0
I0721 12:37:53.481317 10163 net.cpp:425] lstm1_h_conted_0 <- cont_1_lstm1_cont_slice_0_split_0
I0721 12:37:53.481328 10163 net.cpp:399] lstm1_h_conted_0 -> h_conted_0
I0721 12:37:53.489240 10163 net.cpp:141] Setting up lstm1_h_conted_0
I0721 12:37:53.489285 10163 net.cpp:148] Top shape: 1 1 1000 (1000)
I0721 12:37:53.489295 10163 net.cpp:156] Memory required for data: 46016
I0721 12:37:53.489307 10163 layer_factory.hpp:77] Creating layer lstm1_transform_1
I0721 12:37:53.489336 10163 net.cpp:91] Creating Layer lstm1_transform_1
I0721 12:37:53.489347 10163 net.cpp:425] lstm1_transform_1 <- h_conted_0
I0721 12:37:53.489368 10163 net.cpp:399] lstm1_transform_1 -> W_hc_h_0
I0721 12:37:53.541223 10163 net.cpp:141] Setting up lstm1_transform_1
I0721 12:37:53.541275 10163 net.cpp:148] Top shape: 1 1 4000 (4000)
I0721 12:37:53.541285 10163 net.cpp:156] Memory required for data: 62016
I0721 12:37:53.541312 10163 layer_factory.hpp:77] Creating layer lstm1_gate_input_1
I0721 12:37:53.541338 10163 net.cpp:91] Creating Layer lstm1_gate_input_1
I0721 12:37:53.541348 10163 net.cpp:425] lstm1_gate_input_1 <- W_hc_h_0
I0721 12:37:53.541360 10163 net.cpp:425] lstm1_gate_input_1 <- W_xc_x_1
I0721 12:37:53.541373 10163 net.cpp:399] lstm1_gate_input_1 -> gate_input_1
I0721 12:37:53.546314 10163 net.cpp:141] Setting up lstm1_gate_input_1
I0721 12:37:53.546339 10163 net.cpp:148] Top shape: 1 1 4000 (4000)
I0721 12:37:53.546344 10163 net.cpp:156] Memory required for data: 78016
I0721 12:37:53.546350 10163 layer_factory.hpp:77] Creating layer lstm1_unit_1
I0721 12:37:53.546375 10163 net.cpp:91] Creating Layer lstm1_unit_1
I0721 12:37:53.546386 10163 net.cpp:425] lstm1_unit_1 <- c_0
I0721 12:37:53.546396 10163 net.cpp:425] lstm1_unit_1 <- gate_input_1
I0721 12:37:53.546404 10163 net.cpp:425] lstm1_unit_1 <- cont_1_lstm1_cont_slice_0_split_1
I0721 12:37:53.546416 10163 net.cpp:399] lstm1_unit_1 -> c_1
I0721 12:37:53.546430 10163 net.cpp:399] lstm1_unit_1 -> h_1
I0721 12:37:53.548648 10159 net.cpp:141] Setting up embedding
I0721 12:37:53.548668 10159 net.cpp:148] Top shape: 1 1 500 (500)
I0721 12:37:53.548673 10159 net.cpp:156] Memory required for data: 22408
I0721 12:37:53.548689 10159 layer_factory.hpp:77] Creating layer lstm1
I0721 12:37:53.548703 10159 net.cpp:91] Creating Layer lstm1
I0721 12:37:53.548710 10159 net.cpp:425] lstm1 <- embedded_input_frames
I0721 12:37:53.548717 10159 net.cpp:425] lstm1 <- cont_sentence_input_1_split_0
I0721 12:37:53.548724 10159 net.cpp:399] lstm1 -> lstm1
I0721 12:37:53.548734 10159 recurrent_layer.cpp:20] Initializing recurrent layer: assuming input batch contains 1 timesteps of 1 independent streams.
I0721 12:37:53.548987 10159 net.cpp:49] Initializing net from parameters: 
layer {
  name: "lstm1_"
  type: "Input"
  top: "x"
  top: "cont"
  input_param {
    shape {
      dim: 1
      dim: 1
      dim: 500
    }
    shape {
      dim: 1
      dim: 1
    }
  }
}
layer {
  name: "lstm1_"
  type: "Input"
  top: "c_0"
  top: "h_0"
  input_param {
    shape {
      dim: 1
      dim: 1
      dim: 1000
    }
    shape {
      dim: 1
      dim: 1
      dim: 1000
    }
  }
}
layer {
  name: "lstm1_cont_slice"
  type: "Slice"
  bottom: "cont"
  top: "cont_1"
  slice_param {
    axis: 0
  }
}
layer {
  name: "lstm1_x_transform"
  type: "InnerProduct"
  bottom: "x"
  top: "W_xc_x"
  param {
    name: "W_xc"
  }
  param {
    name: "b_c"
  }
  propagate_down: true
  inner_product_param {
    num_output: 4000
    bias_term: true
    weight_filler {
      type: "uniform"
      min: -0.08
      max: 0.08
    }
    bias_filler {
      type: "constant"
      value: 0
    }
    axis: 2
  }
}
layer {
  name: "lstm1_W_xc_x_slice"
  type: "Slice"
  bottom: "W_xc_x"
  top: "W_xc_x_1"
  slice_param {
    axis: 0
  }
}
layer {
  name: "lstm1_h_conted_0"
  type: "Scale"
  bottom: "h_0"
  bottom: "cont_1"
  top: "h_conted_0"
  scale_param {
    axis: 0
  }
}
layer {
  name: "lstm1_transform_1"
  type: "InnerProduct"
  bottom: "h_conted_0"
  top: "W_hc_h_0"
  param {
    name: "W_hc"
  }
  inner_product_param {
    num_output: 4000
    bias_term: false
    weight_filler {
      type: "uniform"
      min: -0.08
      max: 0.08
    }
    axis: 2
  }
}
layer {
  name: "lstm1_gate_input_1"
  type: "Eltwise"
  bottom: "W_hc_h_0"
  bottom: "W_xc_x_1"
  top: "gate_input_1"
  eltwise_param {
    operation: SUM
  }
}
layer {
  name: "lstm1_unit_1"
  type: "LSTMUnit"
  bottom: "c_0"
  bottom: "gate_input_1"
  bottom: "cont_1"
  top: "c_1"
  top: "h_1"
}
layer {
  name: "lstm1_"
  type: "Split"
  bottom: "c_1"
  top: "c_T"
}
layer {
  name: "lstm1_h_concat"
  type: "Concat"
  bottom: "h_1"
  top: "h"
  concat_param {
    axis: 0
  }
}
layer {
  name: "h_pseudoloss"
  type: "Reduction"
  bottom: "h"
  top: "h_pseudoloss"
  loss_weight: 1
}
I0721 12:37:53.549073 10159 layer_factory.hpp:77] Creating layer lstm1_
I0721 12:37:53.549084 10159 net.cpp:91] Creating Layer lstm1_
I0721 12:37:53.549090 10159 net.cpp:399] lstm1_ -> x
I0721 12:37:53.549100 10159 net.cpp:399] lstm1_ -> cont
I0721 12:37:53.553797 10163 net.cpp:141] Setting up lstm1_unit_1
I0721 12:37:53.553822 10163 net.cpp:148] Top shape: 1 1 1000 (1000)
I0721 12:37:53.553833 10163 net.cpp:148] Top shape: 1 1 1000 (1000)
I0721 12:37:53.553840 10163 net.cpp:156] Memory required for data: 86016
I0721 12:37:53.553849 10163 layer_factory.hpp:77] Creating layer lstm1_
I0721 12:37:53.553869 10163 net.cpp:91] Creating Layer lstm1_
I0721 12:37:53.553877 10163 net.cpp:425] lstm1_ <- c_1
I0721 12:37:53.553890 10163 net.cpp:399] lstm1_ -> c_T
I0721 12:37:53.554003 10159 net.cpp:141] Setting up lstm1_
I0721 12:37:53.554019 10159 net.cpp:148] Top shape: 1 1 500 (500)
I0721 12:37:53.554025 10159 net.cpp:148] Top shape: 1 1 (1)
I0721 12:37:53.554029 10159 net.cpp:156] Memory required for data: 2004
I0721 12:37:53.554034 10159 layer_factory.hpp:77] Creating layer lstm1_
I0721 12:37:53.554051 10159 net.cpp:91] Creating Layer lstm1_
I0721 12:37:53.554060 10159 net.cpp:399] lstm1_ -> c_0
I0721 12:37:53.554071 10159 net.cpp:399] lstm1_ -> h_0
I0721 12:37:53.554540 10163 net.cpp:141] Setting up lstm1_
I0721 12:37:53.554553 10163 net.cpp:148] Top shape: 1 1 1000 (1000)
I0721 12:37:53.554558 10163 net.cpp:156] Memory required for data: 90016
I0721 12:37:53.554563 10163 layer_factory.hpp:77] Creating layer lstm1_h_concat
I0721 12:37:53.554571 10163 net.cpp:91] Creating Layer lstm1_h_concat
I0721 12:37:53.554576 10163 net.cpp:425] lstm1_h_concat <- h_1
I0721 12:37:53.554585 10163 net.cpp:399] lstm1_h_concat -> h
I0721 12:37:53.555533 10163 net.cpp:141] Setting up lstm1_h_concat
I0721 12:37:53.555547 10163 net.cpp:148] Top shape: 1 1 1000 (1000)
I0721 12:37:53.555552 10163 net.cpp:156] Memory required for data: 94016
I0721 12:37:53.555557 10163 layer_factory.hpp:77] Creating layer h_pseudoloss
I0721 12:37:53.555572 10163 net.cpp:91] Creating Layer h_pseudoloss
I0721 12:37:53.555583 10163 net.cpp:425] h_pseudoloss <- h
I0721 12:37:53.555594 10163 net.cpp:399] h_pseudoloss -> h_pseudoloss
I0721 12:37:53.557363 10159 net.cpp:141] Setting up lstm1_
I0721 12:37:53.557380 10159 net.cpp:148] Top shape: 1 1 1000 (1000)
I0721 12:37:53.557386 10159 net.cpp:148] Top shape: 1 1 1000 (1000)
I0721 12:37:53.557390 10159 net.cpp:156] Memory required for data: 10004
I0721 12:37:53.557395 10159 layer_factory.hpp:77] Creating layer lstm1_cont_slice
I0721 12:37:53.557407 10159 net.cpp:91] Creating Layer lstm1_cont_slice
I0721 12:37:53.557412 10159 net.cpp:425] lstm1_cont_slice <- cont
I0721 12:37:53.557420 10159 net.cpp:399] lstm1_cont_slice -> cont_1
I0721 12:37:53.561983 10159 net.cpp:141] Setting up lstm1_cont_slice
I0721 12:37:53.562007 10159 net.cpp:148] Top shape: 1 1 (1)
I0721 12:37:53.562012 10159 net.cpp:156] Memory required for data: 10008
I0721 12:37:53.562019 10159 layer_factory.hpp:77] Creating layer cont_1_lstm1_cont_slice_0_split
I0721 12:37:53.562028 10159 net.cpp:91] Creating Layer cont_1_lstm1_cont_slice_0_split
I0721 12:37:53.562034 10159 net.cpp:425] cont_1_lstm1_cont_slice_0_split <- cont_1
I0721 12:37:53.562041 10159 net.cpp:399] cont_1_lstm1_cont_slice_0_split -> cont_1_lstm1_cont_slice_0_split_0
…
I0721 12:37:53.566604 10163 net.cpp:219] lstm1_ does not need backward computation.
I0721 12:37:53.566612 10163 net.cpp:261] This network produces output c_T
I0721 12:37:53.566618 10163 net.cpp:261] This network produces output h_pseudoloss
I0721 12:37:53.566650 10163 net.cpp:274] Network initialization done.
I0721 12:37:53.566756 10163 recurrent_layer.cpp:150] Adding parameter 0: W_xc
I0721 12:37:53.566768 10163 recurrent_layer.cpp:150] Adding parameter 1: b_c
I0721 12:37:53.566776 10163 recurrent_layer.cpp:150] Adding parameter 2: W_hc
I0721 12:37:53.568596 10159 net.cpp:141] Setting up cont_1_lstm1_cont_slice_0_split
I0721 12:37:53.568614 10159 net.cpp:148] Top shape: 1 1 (1)
I0721 12:37:53.568621 10159 net.cpp:148] Top shape: 1 1 (1)
I0721 12:37:53.568625 10159 net.cpp:156] Memory required for data: 10016
I0721 12:37:53.568630 10159 layer_factory.hpp:77] Creating layer lstm1_x_transform
I0721 12:37:53.568650 10159 net.cpp:91] Creating Layer lstm1_x_transform
I0721 12:37:53.568656 10159 net.cpp:425] lstm1_x_transform <- x
I0721 12:37:53.568665 10159 net.cpp:399] lstm1_x_transform -> W_xc_x
I0721 12:37:53.583803 10163 net.cpp:141] Setting up lstm1
I0721 12:37:53.583863 10163 net.cpp:148] Top shape: 1 1 1000 (1000)
I0721 12:37:53.583873 10163 net.cpp:156] Memory required for data: 26408
I0721 12:37:53.583905 10163 layer_factory.hpp:77] Creating layer concat
I0721 12:37:53.583927 10163 net.cpp:91] Creating Layer concat
I0721 12:37:53.583937 10163 net.cpp:425] concat <- lstm1
I0721 12:37:53.583950 10163 net.cpp:425] concat <- embedded_input_sentence
I0721 12:37:53.583962 10163 net.cpp:425] concat <- reshaped_stage_indicator
I0721 12:37:53.583976 10163 net.cpp:399] concat -> lstm1_video_sequence
I0721 12:37:53.587574 10163 net.cpp:141] Setting up concat
I0721 12:37:53.587600 10163 net.cpp:148] Top shape: 1 1 1501 (1501)
I0721 12:37:53.587610 10163 net.cpp:156] Memory required for data: 32412
I0721 12:37:53.587620 10163 layer_factory.hpp:77] Creating layer lstm2
I0721 12:37:53.587646 10163 net.cpp:91] Creating Layer lstm2
I0721 12:37:53.587656 10163 net.cpp:425] lstm2 <- lstm1_video_sequence
I0721 12:37:53.587666 10163 net.cpp:425] lstm2 <- cont_sentence_input_1_split_1
I0721 12:37:53.587680 10163 net.cpp:399] lstm2 -> lstm2
I0721 12:37:53.587699 10163 recurrent_layer.cpp:20] Initializing recurrent layer: assuming input batch contains 1 timesteps of 1 independent streams.
I0721 12:37:53.588084 10163 net.cpp:49] Initializing net from parameters: 
layer {
  name: "lstm2_"
  type: "Input"
  top: "x"
  top: "cont"
  input_param {
    shape {
      dim: 1
      dim: 1
      dim: 1501
    }
    shape {
      dim: 1
      dim: 1
    }
  }
}
layer {
  name: "lstm2_"
  type: "Input"
  top: "c_0"
  top: "h_0"
  input_param {
    shape {
      dim: 1
      dim: 1
      dim: 1000
    }
    shape {
      dim: 1
      dim: 1
      dim: 1000
    }
  }
}
layer {
  name: "lstm2_cont_slice"
  type: "Slice"
  bottom: "cont"
  top: "cont_1"
  slice_param {
    axis: 0
  }
}
layer {
  name: "lstm2_x_transform"
  type: "InnerProduct"
  bottom: "x"
  top: "W_xc_x"
  param {
    name: "W_xc"
  }
  param {
    name: "b_c"
  }
  propagate_down: true
  inner_product_param {
    num_output: 4000
    bias_term: true
    weight_filler {
      type: "uniform"
      min: -0.08
      max: 0.08
    }
    bias_filler {
      type: "constant"
      value: 0
    }
    axis: 2
  }
}
layer {
  name: "lstm2_W_xc_x_slice"
  type: "Slice"
  bottom: "W_xc_x"
  top: "W_xc_x_1"
  slice_param {
    axis: 0
  }
}
layer {
  name: "lstm2_h_conted_0"
  type: "Scale"
  bottom: "h_0"
  bottom: "cont_1"
  top: "h_conted_0"
  scale_param {
    axis: 0
  }
}
layer {
  name: "lstm2_transform_1"
  type: "InnerProduct"
  bottom: "h_conted_0"
  top: "W_hc_h_0"
  param {
    name: "W_hc"
  }
  inner_product_param {
    num_output: 4000
    bias_term: false
    weight_filler {
      type: "uniform"
      min: -0.08
      max: 0.08
    }
    axis: 2
  }
}
layer {
  name: "lstm2_gate_input_1"
  type: "Eltwise"
  bottom: "W_hc_h_0"
  bottom: "W_xc_x_1"
  top: "gate_input_1"
  eltwise_param {
    operation: SUM
  }
}
layer {
  name: "lstm2_unit_1"
  type: "LSTMUnit"
  bottom: "c_0"
  bottom: "gate_input_1"
  bottom: "cont_1"
  top: "c_1"
  top: "h_1"
}
layer {
  name: "lstm2_"
  type: "Split"
  bottom: "c_1"
  top: "c_T"
}
layer {
  name: "lstm2_h_concat"
  type: "Concat"
  bottom: "h_1"
  top: "h"
  concat_param {
    axis: 0
  }
}
layer {
  name: "h_pseudoloss"
  type: "Reduction"
  bottom: "h"
  top: "h_pseudoloss"
  loss_weight: 1
}
I0721 12:37:53.588212 10163 layer_factory.hpp:77] Creating layer lstm2_
I0721 12:37:53.588228 10163 net.cpp:91] Creating Layer lstm2_
I0721 12:37:53.588239 10163 net.cpp:399] lstm2_ -> x
I0721 12:37:53.588258 10163 net.cpp:399] lstm2_ -> cont
I0721 12:37:53.593521 10163 net.cpp:141] Setting up lstm2_
I0721 12:37:53.593554 10163 net.cpp:148] Top shape: 1 1 1501 (1501)
I0721 12:37:53.593565 10163 net.cpp:148] Top shape: 1 1 (1)
I0721 12:37:53.593574 10163 net.cpp:156] Memory required for data: 6008
I0721 12:37:53.593585 10163 layer_factory.hpp:77] Creating layer lstm2_
I0721 12:37:53.593605 10163 net.cpp:91] Creating Layer lstm2_
I0721 12:37:53.593621 10163 net.cpp:399] lstm2_ -> c_0
I0721 12:37:53.593639 10163 net.cpp:399] lstm2_ -> h_0
I0721 12:37:53.601250 10163 net.cpp:141] Setting up lstm2_
I0721 12:37:53.601291 10163 net.cpp:148] Top shape: 1 1 1000 (1000)
I0721 12:37:53.601301 10163 net.cpp:148] Top shape: 1 1 1000 (1000)
I0721 12:37:53.601307 10163 net.cpp:156] Memory required for data: 14008
I0721 12:37:53.601318 10163 layer_factory.hpp:77] Creating layer lstm2_cont_slice
I0721 12:37:53.601341 10163 net.cpp:91] Creating Layer lstm2_cont_slice
I0721 12:37:53.601351 10163 net.cpp:425] lstm2_cont_slice <- cont
I0721 12:37:53.601368 10163 net.cpp:399] lstm2_cont_slice -> cont_1
I0721 12:37:53.613217 10163 net.cpp:141] Setting up lstm2_cont_slice
I0721 12:37:53.613263 10163 net.cpp:148] Top shape: 1 1 (1)
I0721 12:37:53.613275 10163 net.cpp:156] Memory required for data: 14012
I0721 12:37:53.613286 10163 layer_factory.hpp:77] Creating layer cont_1_lstm2_cont_slice_0_split
I0721 12:37:53.613312 10163 net.cpp:91] Creating Layer cont_1_lstm2_cont_slice_0_split
I0721 12:37:53.613324 10163 net.cpp:425] cont_1_lstm2_cont_slice_0_split <- cont_1
I0721 12:37:53.613338 10163 net.cpp:399] cont_1_lstm2_cont_slice_0_split -> cont_1_lstm2_cont_slice_0_split_0
I0721 12:37:53.613354 10163 net.cpp:399] cont_1_lstm2_cont_slice_0_split -> cont_1_lstm2_cont_slice_0_split_1
I0721 12:37:53.618338 10163 net.cpp:141] Setting up cont_1_lstm2_cont_slice_0_split
I0721 12:37:53.618366 10163 net.cpp:148] Top shape: 1 1 (1)
I0721 12:37:53.618372 10163 net.cpp:148] Top shape: 1 1 (1)
I0721 12:37:53.618377 10163 net.cpp:156] Memory required for data: 14020
I0721 12:37:53.618383 10163 layer_factory.hpp:77] Creating layer lstm2_x_transform
I0721 12:37:53.618403 10163 net.cpp:91] Creating Layer lstm2_x_transform
I0721 12:37:53.618409 10163 net.cpp:425] lstm2_x_transform <- x
I0721 12:37:53.618419 10163 net.cpp:399] lstm2_x_transform -> W_xc_x
I0721 12:37:53.634322 10159 net.cpp:141] Setting up lstm1_x_transform
I0721 12:37:53.634369 10159 net.cpp:148] Top shape: 1 1 4000 (4000)
I0721 12:37:53.634376 10159 net.cpp:156] Memory required for data: 26016
I0721 12:37:53.634400 10159 layer_factory.hpp:77] Creating layer lstm1_W_xc_x_slice
I0721 12:37:53.634418 10159 net.cpp:91] Creating Layer lstm1_W_xc_x_slice
I0721 12:37:53.634423 10159 net.cpp:425] lstm1_W_xc_x_slice <- W_xc_x
I0721 12:37:53.634433 10159 net.cpp:399] lstm1_W_xc_x_slice -> W_xc_x_1
I0721 12:37:53.639438 10159 net.cpp:141] Setting up lstm1_W_xc_x_slice
I0721 12:37:53.639463 10159 net.cpp:148] Top shape: 1 1 4000 (4000)
I0721 12:37:53.639469 10159 net.cpp:156] Memory required for data: 42016
I0721 12:37:53.639475 10159 layer_factory.hpp:77] Creating layer lstm1_h_conted_0
I0721 12:37:53.639487 10159 net.cpp:91] Creating Layer lstm1_h_conted_0
I0721 12:37:53.639492 10159 net.cpp:425] lstm1_h_conted_0 <- h_0
I0721 12:37:53.639497 10159 net.cpp:425] lstm1_h_conted_0 <- cont_1_lstm1_cont_slice_0_split_0
I0721 12:37:53.639504 10159 net.cpp:399] lstm1_h_conted_0 -> h_conted_0
I0721 12:37:53.650074 10159 net.cpp:141] Setting up lstm1_h_conted_0
I0721 12:37:53.650118 10159 net.cpp:148] Top shape: 1 1 1000 (1000)
I0721 12:37:53.650123 10159 net.cpp:156] Memory required for data: 46016
I0721 12:37:53.650132 10159 layer_factory.hpp:77] Creating layer lstm1_transform_1
I0721 12:37:53.650154 10159 net.cpp:91] Creating Layer lstm1_transform_1
I0721 12:37:53.650161 10159 net.cpp:425] lstm1_transform_1 <- h_conted_0
I0721 12:37:53.650172 10159 net.cpp:399] lstm1_transform_1 -> W_hc_h_0
I0721 12:37:53.651942 10171 net.cpp:141] Setting up conv1
I0721 12:37:53.651976 10171 net.cpp:148] Top shape: 10 96 55 55 (2904000)
I0721 12:37:53.651988 10171 net.cpp:156] Memory required for data: 17799480
I0721 12:37:53.652020 10171 layer_factory.hpp:77] Creating layer relu1
I0721 12:37:53.652042 10171 net.cpp:91] Creating Layer relu1
I0721 12:37:53.652053 10171 net.cpp:425] relu1 <- conv1
I0721 12:37:53.652066 10171 net.cpp:386] relu1 -> conv1 (in-place)
I0721 12:37:53.653409 10171 net.cpp:141] Setting up relu1
I0721 12:37:53.653431 10171 net.cpp:148] Top shape: 10 96 55 55 (2904000)
I0721 12:37:53.653441 10171 net.cpp:156] Memory required for data: 29415480
I0721 12:37:53.653451 10171 layer_factory.hpp:77] Creating layer pool1
I0721 12:37:53.653475 10171 net.cpp:91] Creating Layer pool1
I0721 12:37:53.653486 10171 net.cpp:425] pool1 <- conv1
I0721 12:37:53.653501 10171 net.cpp:399] pool1 -> pool1
I0721 12:37:53.660387 10171 net.cpp:141] Setting up pool1
I0721 12:37:53.660432 10171 net.cpp:148] Top shape: 10 96 27 27 (699840)
I0721 12:37:53.660441 10171 net.cpp:156] Memory required for data: 32214840
I0721 12:37:53.660452 10171 layer_factory.hpp:77] Creating layer norm1
I0721 12:37:53.660485 10171 net.cpp:91] Creating Layer norm1
I0721 12:37:53.660496 10171 net.cpp:425] norm1 <- pool1
I0721 12:37:53.660511 10171 net.cpp:399] norm1 -> norm1
I0721 12:37:53.664428 10171 net.cpp:141] Setting up norm1
I0721 12:37:53.664474 10171 net.cpp:148] Top shape: 10 96 27 27 (699840)
I0721 12:37:53.664484 10171 net.cpp:156] Memory required for data: 35014200
I0721 12:37:53.664496 10171 layer_factory.hpp:77] Creating layer conv2
I0721 12:37:53.664523 10171 net.cpp:91] Creating Layer conv2
I0721 12:37:53.664535 10171 net.cpp:425] conv2 <- norm1
I0721 12:37:53.664551 10171 net.cpp:399] conv2 -> conv2
I0721 12:37:53.683153 10177 net.cpp:141] Setting up conv1
I0721 12:37:53.683200 10177 net.cpp:148] Top shape: 10 96 55 55 (2904000)
I0721 12:37:53.683207 10177 net.cpp:156] Memory required for data: 17799480
I0721 12:37:53.683228 10177 layer_factory.hpp:77] Creating layer relu1
I0721 12:37:53.683243 10177 net.cpp:91] Creating Layer relu1
I0721 12:37:53.683249 10177 net.cpp:425] relu1 <- conv1
I0721 12:37:53.683257 10177 net.cpp:386] relu1 -> conv1 (in-place)
I0721 12:37:53.684608 10177 net.cpp:141] Setting up relu1
I0721 12:37:53.684630 10177 net.cpp:148] Top shape: 10 96 55 55 (2904000)
I0721 12:37:53.684636 10177 net.cpp:156] Memory required for data: 29415480
I0721 12:37:53.684644 10177 layer_factory.hpp:77] Creating layer pool1
I0721 12:37:53.684655 10177 net.cpp:91] Creating Layer pool1
I0721 12:37:53.684661 10177 net.cpp:425] pool1 <- conv1
I0721 12:37:53.684669 10177 net.cpp:399] pool1 -> pool1
I0721 12:37:53.685354 10177 net.cpp:141] Setting up pool1
I0721 12:37:53.685374 10177 net.cpp:148] Top shape: 10 96 27 27 (699840)
I0721 12:37:53.685379 10177 net.cpp:156] Memory required for data: 32214840
I0721 12:37:53.685385 10177 layer_factory.hpp:77] Creating layer norm1
I0721 12:37:53.685398 10177 net.cpp:91] Creating Layer norm1
I0721 12:37:53.685403 10177 net.cpp:425] norm1 <- pool1
I0721 12:37:53.685411 10177 net.cpp:399] norm1 -> norm1
I0721 12:37:53.686372 10163 net.cpp:141] Setting up lstm2_x_transform
I0721 12:37:53.686391 10163 net.cpp:148] Top shape: 1 1 4000 (4000)
I0721 12:37:53.686396 10163 net.cpp:156] Memory required for data: 30020
I0721 12:37:53.686409 10163 layer_factory.hpp:77] Creating layer lstm2_W_xc_x_slice
I0721 12:37:53.686420 10163 net.cpp:91] Creating Layer lstm2_W_xc_x_slice
I0721 12:37:53.686426 10163 net.cpp:425] lstm2_W_xc_x_slice <- W_xc_x
I0721 12:37:53.686434 10163 net.cpp:399] lstm2_W_xc_x_slice -> W_xc_x_1
I0721 12:37:53.687794 10163 net.cpp:141] Setting up lstm2_W_xc_x_slice
I0721 12:37:53.687808 10163 net.cpp:148] Top shape: 1 1 4000 (4000)
I0721 12:37:53.687813 10163 net.cpp:156] Memory required for data: 46020
I0721 12:37:53.687818 10163 layer_factory.hpp:77] Creating layer lstm2_h_conted_0
I0721 12:37:53.687827 10163 net.cpp:91] Creating Layer lstm2_h_conted_0
I0721 12:37:53.687825 10177 net.cpp:141] Setting up norm1
I0721 12:37:53.687834 10163 net.cpp:425] lstm2_h_conted_0 <- h_0
I0721 12:37:53.687839 10163 net.cpp:425] lstm2_h_conted_0 <- cont_1_lstm2_cont_slice_0_split_0
I0721 12:37:53.687840 10177 net.cpp:148] Top shape: 10 96 27 27 (699840)
I0721 12:37:53.687849 10163 net.cpp:399] lstm2_h_conted_0 -> h_conted_0
I0721 12:37:53.687850 10177 net.cpp:156] Memory required for data: 35014200
I0721 12:37:53.687857 10177 layer_factory.hpp:77] Creating layer conv2
I0721 12:37:53.687871 10177 net.cpp:91] Creating Layer conv2
I0721 12:37:53.687876 10177 net.cpp:425] conv2 <- norm1
I0721 12:37:53.687885 10177 net.cpp:399] conv2 -> conv2
I0721 12:37:53.688246 10163 net.cpp:141] Setting up lstm2_h_conted_0
I0721 12:37:53.688257 10163 net.cpp:148] Top shape: 1 1 1000 (1000)
I0721 12:37:53.688261 10163 net.cpp:156] Memory required for data: 50020
I0721 12:37:53.688266 10163 layer_factory.hpp:77] Creating layer lstm2_transform_1
I0721 12:37:53.688279 10163 net.cpp:91] Creating Layer lstm2_transform_1
I0721 12:37:53.688284 10163 net.cpp:425] lstm2_transform_1 <- h_conted_0
I0721 12:37:53.688292 10163 net.cpp:399] lstm2_transform_1 -> W_hc_h_0
I0721 12:37:53.696418 10159 net.cpp:141] Setting up lstm1_transform_1
I0721 12:37:53.696456 10159 net.cpp:148] Top shape: 1 1 4000 (4000)
I0721 12:37:53.696462 10159 net.cpp:156] Memory required for data: 62016
I0721 12:37:53.696480 10159 layer_factory.hpp:77] Creating layer lstm1_gate_input_1
I0721 12:37:53.696496 10159 net.cpp:91] Creating Layer lstm1_gate_input_1
I0721 12:37:53.696502 10159 net.cpp:425] lstm1_gate_input_1 <- W_hc_h_0
I0721 12:37:53.696509 10159 net.cpp:425] lstm1_gate_input_1 <- W_xc_x_1
I0721 12:37:53.696517 10159 net.cpp:399] lstm1_gate_input_1 -> gate_input_1
I0721 12:37:53.697890 10159 net.cpp:141] Setting up lstm1_gate_input_1
I0721 12:37:53.697911 10159 net.cpp:148] Top shape: 1 1 4000 (4000)
I0721 12:37:53.697916 10159 net.cpp:156] Memory required for data: 78016
I0721 12:37:53.697921 10159 layer_factory.hpp:77] Creating layer lstm1_unit_1
I0721 12:37:53.697931 10159 net.cpp:91] Creating Layer lstm1_unit_1
I0721 12:37:53.697935 10159 net.cpp:425] lstm1_unit_1 <- c_0
I0721 12:37:53.697942 10159 net.cpp:425] lstm1_unit_1 <- gate_input_1
I0721 12:37:53.697947 10159 net.cpp:425] lstm1_unit_1 <- cont_1_lstm1_cont_slice_0_split_1
I0721 12:37:53.697953 10159 net.cpp:399] lstm1_unit_1 -> c_1
I0721 12:37:53.697962 10159 net.cpp:399] lstm1_unit_1 -> h_1
I0721 12:37:53.700985 10159 net.cpp:141] Setting up lstm1_unit_1
I0721 12:37:53.701022 10159 net.cpp:148] Top shape: 1 1 1000 (1000)
I0721 12:37:53.701030 10159 net.cpp:148] Top shape: 1 1 1000 (1000)
I0721 12:37:53.701033 10159 net.cpp:156] Memory required for data: 86016
I0721 12:37:53.701040 10159 layer_factory.hpp:77] Creating layer lstm1_
I0721 12:37:53.701053 10159 net.cpp:91] Creating Layer lstm1_
I0721 12:37:53.701058 10159 net.cpp:425] lstm1_ <- c_1
I0721 12:37:53.701067 10159 net.cpp:399] lstm1_ -> c_T
I0721 12:37:53.701207 10159 net.cpp:141] Setting up lstm1_
I0721 12:37:53.701218 10159 net.cpp:148] Top shape: 1 1 1000 (1000)
I0721 12:37:53.701222 10159 net.cpp:156] Memory required for data: 90016
I0721 12:37:53.701227 10159 layer_factory.hpp:77] Creating layer lstm1_h_concat
I0721 12:37:53.701236 10159 net.cpp:91] Creating Layer lstm1_h_concat
I0721 12:37:53.701241 10159 net.cpp:425] lstm1_h_concat <- h_1
I0721 12:37:53.701251 10159 net.cpp:399] lstm1_h_concat -> h
I0721 12:37:53.701452 10159 net.cpp:141] Setting up lstm1_h_concat
I0721 12:37:53.701463 10159 net.cpp:148] Top shape: 1 1 1000 (1000)
I0721 12:37:53.701467 10159 net.cpp:156] Memory required for data: 94016
I0721 12:37:53.701472 10159 layer_factory.hpp:77] Creating layer h_pseudoloss
I0721 12:37:53.701480 10159 net.cpp:91] Creating Layer h_pseudoloss
I0721 12:37:53.701485 10159 net.cpp:425] h_pseudoloss <- h
I0721 12:37:53.701494 10159 net.cpp:399] h_pseudoloss -> h_pseudoloss
I0721 12:37:53.701513 10171 net.cpp:141] Setting up conv2
I0721 12:37:53.701539 10171 net.cpp:148] Top shape: 10 256 27 27 (1866240)
I0721 12:37:53.701550 10171 net.cpp:156] Memory required for data: 42479160
I0721 12:37:53.701576 10171 layer_factory.hpp:77] Creating layer relu2
I0721 12:37:53.701602 10171 net.cpp:91] Creating Layer relu2
I0721 12:37:53.701614 10171 net.cpp:425] relu2 <- conv2
I0721 12:37:53.701628 10171 net.cpp:386] relu2 -> conv2 (in-place)
I0721 12:37:53.701822 10159 net.cpp:141] Setting up h_pseudoloss
…
I0721 12:37:53.701925 10159 net.cpp:219] lstm1_ does not need backward computation.
I0721 12:37:53.701928 10159 net.cpp:261] This network produces output c_T
I0721 12:37:53.701932 10159 net.cpp:261] This network produces output h_pseudoloss
I0721 12:37:53.701949 10159 net.cpp:274] Network initialization done.
I0721 12:37:53.701994 10159 recurrent_layer.cpp:150] Adding parameter 0: W_xc
I0721 12:37:53.702000 10159 recurrent_layer.cpp:150] Adding parameter 1: b_c
I0721 12:37:53.702005 10159 recurrent_layer.cpp:150] Adding parameter 2: W_hc
I0721 12:37:53.703802 10159 net.cpp:141] Setting up lstm1
I0721 12:37:53.703814 10159 net.cpp:148] Top shape: 1 1 1000 (1000)
I0721 12:37:53.703819 10159 net.cpp:156] Memory required for data: 26408
I0721 12:37:53.703833 10159 layer_factory.hpp:77] Creating layer concat
I0721 12:37:53.703843 10159 net.cpp:91] Creating Layer concat
I0721 12:37:53.703850 10159 net.cpp:425] concat <- lstm1
I0721 12:37:53.703855 10159 net.cpp:425] concat <- embedded_input_sentence
I0721 12:37:53.703860 10159 net.cpp:425] concat <- reshaped_stage_indicator
I0721 12:37:53.703866 10159 net.cpp:399] concat -> lstm1_video_sequence
I0721 12:37:53.703944 10171 net.cpp:141] Setting up relu2
I0721 12:37:53.703963 10159 net.cpp:141] Setting up concat
I0721 12:37:53.703965 10171 net.cpp:148] Top shape: 10 256 27 27 (1866240)
I0721 12:37:53.703974 10159 net.cpp:148] Top shape: 1 1 1501 (1501)
I0721 12:37:53.703977 10159 net.cpp:156] Memory required for data: 32412
I0721 12:37:53.703977 10171 net.cpp:156] Memory required for data: 49944120
I0721 12:37:53.703984 10159 layer_factory.hpp:77] Creating layer lstm2
I0721 12:37:53.703989 10171 layer_factory.hpp:77] Creating layer pool2
I0721 12:37:53.703996 10159 net.cpp:91] Creating Layer lstm2
I0721 12:37:53.704001 10159 net.cpp:425] lstm2 <- lstm1_video_sequence
I0721 12:37:53.704006 10171 net.cpp:91] Creating Layer pool2
I0721 12:37:53.704006 10159 net.cpp:425] lstm2 <- cont_sentence_input_1_split_1
I0721 12:37:53.704025 10171 net.cpp:425] pool2 <- conv2
I0721 12:37:53.704030 10159 net.cpp:399] lstm2 -> lstm2
I0721 12:37:53.704041 10159 recurrent_layer.cpp:20] Initializing recurrent layer: assuming input batch contains 1 timesteps of 1 independent streams.
I0721 12:37:53.704041 10171 net.cpp:399] pool2 -> pool2
I0721 12:37:53.704715 10159 net.cpp:49] Initializing net from parameters: 
layer {
  name: "lstm2_"
  type: "Input"
  top: "x"
  top: "cont"
  input_param {
    shape {
      dim: 1
      dim: 1
      dim: 1501
    }
    shape {
      dim: 1
      dim: 1
    }
  }
}
layer {
  name: "lstm2_"
  type: "Input"
  top: "c_0"
  top: "h_0"
  input_param {
    shape {
      dim: 1
      dim: 1
      dim: 1000
    }
    shape {
      dim: 1
      dim: 1
      dim: 1000
    }
  }
}
layer {
  name: "lstm2_cont_slice"
  type: "Slice"
  bottom: "cont"
  top: "cont_1"
  slice_param {
    axis: 0
  }
}
layer {
  name: "lstm2_x_transform"
  type: "InnerProduct"
  bottom: "x"
  top: "W_xc_x"
  param {
    name: "W_xc"
  }
  param {
    name: "b_c"
  }
  propagate_down: true
  inner_product_param {
    num_output: 4000
    bias_term: true
    weight_filler {
      type: "uniform"
      min: -0.08
      max: 0.08
    }
    bias_filler {
      type: "constant"
      value: 0
    }
    axis: 2
  }
}
layer {
  name: "lstm2_W_xc_x_slice"
  type: "Slice"
  bottom: "W_xc_x"
  top: "W_xc_x_1"
  slice_param {
    axis: 0
  }
}
layer {
  name: "lstm2_h_conted_0"
  type: "Scale"
  bottom: "h_0"
  bottom: "cont_1"
  top: "h_conted_0"
  scale_param {
    axis: 0
  }
}
layer {
  name: "lstm2_transform_1"
  type: "InnerProduct"
  bottom: "h_conted_0"
  top: "W_hc_h_0"
  param {
    name: "W_hc"
  }
  inner_product_param {
    num_output: 4000
    bias_term: false
    weight_filler {
      type: "uniform"
      min: -0.08
      max: 0.08
    }
    axis: 2
  }
}
layer {
  name: "lstm2_gate_input_1"
  type: "Eltwise"
  bottom: "W_hc_h_0"
  bottom: "W_xc_x_1"
  top: "gate_input_1"
  eltwise_param {
    operation: SUM
  }
}
layer {
  name: "lstm2_unit_1"
  type: "LSTMUnit"
  bottom: "c_0"
  bottom: "gate_input_1"
  bottom: "cont_1"
  top: "c_1"
  top: "h_1"
}
layer {
  name: "lstm2_"
  type: "Split"
  bottom: "c_1"
  top: "c_T"
}
layer {
  name: "lstm2_h_concat"
  type: "Concat"
  bottom: "h_1"
  top: "h"
  concat_param {
    axis: 0
  }
}
layer {
  name: "h_pseudoloss"
  type: "Reduction"
  bottom: "h"
  top: "h_pseudoloss"
  loss_weight: 1
}
I0721 12:37:53.704802 10159 layer_factory.hpp:77] Creating layer lstm2_
I0721 12:37:53.704813 10159 net.cpp:91] Creating Layer lstm2_
I0721 12:37:53.704818 10159 net.cpp:399] lstm2_ -> x
I0721 12:37:53.704828 10159 net.cpp:399] lstm2_ -> cont
I0721 12:37:53.704912 10171 net.cpp:141] Setting up pool2
I0721 12:37:53.704933 10171 net.cpp:148] Top shape: 10 256 13 13 (432640)
I0721 12:37:53.704943 10171 net.cpp:156] Memory required for data: 51674680
I0721 12:37:53.704952 10171 layer_factory.hpp:77] Creating layer norm2
I0721 12:37:53.704977 10159 net.cpp:141] Setting up lstm2_
I0721 12:37:53.704977 10171 net.cpp:91] Creating Layer norm2
I0721 12:37:53.704993 10159 net.cpp:148] Top shape: 1 1 1501 (1501)
I0721 12:37:53.704998 10159 net.cpp:148] Top shape: 1 1 (1)
I0721 12:37:53.704998 10171 net.cpp:425] norm2 <- pool2
I0721 12:37:53.705003 10159 net.cpp:156] Memory required for data: 6008
I0721 12:37:53.705014 10159 layer_factory.hpp:77] Creating layer lstm2_
I0721 12:37:53.705020 10171 net.cpp:399] norm2 -> norm2
I0721 12:37:53.705024 10159 net.cpp:91] Creating Layer lstm2_
I0721 12:37:53.705039 10159 net.cpp:399] lstm2_ -> c_0
I0721 12:37:53.705050 10159 net.cpp:399] lstm2_ -> h_0
I0721 12:37:53.705938 10159 net.cpp:141] Setting up lstm2_
I0721 12:37:53.705950 10159 net.cpp:148] Top shape: 1 1 1000 (1000)
I0721 12:37:53.705955 10159 net.cpp:148] Top shape: 1 1 1000 (1000)
I0721 12:37:53.705960 10159 net.cpp:156] Memory required for data: 14008
I0721 12:37:53.705963 10159 layer_factory.hpp:77] Creating layer lstm2_cont_slice
I0721 12:37:53.705971 10159 net.cpp:91] Creating Layer lstm2_cont_slice
I0721 12:37:53.705976 10159 net.cpp:425] lstm2_cont_slice <- cont
I0721 12:37:53.705986 10159 net.cpp:399] lstm2_cont_slice -> cont_1
I0721 12:37:53.705992 10171 net.cpp:141] Setting up norm2
I0721 12:37:53.706012 10171 net.cpp:148] Top shape: 10 256 13 13 (432640)
I0721 12:37:53.706023 10171 net.cpp:156] Memory required for data: 53405240
I0721 12:37:53.706032 10171 layer_factory.hpp:77] Creating layer conv3
I0721 12:37:53.706054 10171 net.cpp:91] Creating Layer conv3
I0721 12:37:53.706063 10159 net.cpp:141] Setting up lstm2_cont_slice
I0721 12:37:53.706066 10171 net.cpp:425] conv3 <- norm2
I0721 12:37:53.706079 10159 net.cpp:148] Top shape: 1 1 (1)
I0721 12:37:53.706084 10159 net.cpp:156] Memory required for data: 14012
I0721 12:37:53.706087 10159 layer_factory.hpp:77] Creating layer cont_1_lstm2_cont_slice_0_split
I0721 12:37:53.706091 10171 net.cpp:399] conv3 -> conv3
I0721 12:37:53.706097 10159 net.cpp:91] Creating Layer cont_1_lstm2_cont_slice_0_split
I0721 12:37:53.706102 10159 net.cpp:425] cont_1_lstm2_cont_slice_0_split <- cont_1
I0721 12:37:53.706109 10159 net.cpp:399] cont_1_lstm2_cont_slice_0_split -> cont_1_lstm2_cont_slice_0_split_0
I0721 12:37:53.706116 10159 net.cpp:399] cont_1_lstm2_cont_slice_0_split -> cont_1_lstm2_cont_slice_0_split_1
I0721 12:37:53.706409 10159 net.cpp:141] Setting up cont_1_lstm2_cont_slice_0_split
I0721 12:37:53.706419 10159 net.cpp:148] Top shape: 1 1 (1)
I0721 12:37:53.706425 10159 net.cpp:148] Top shape: 1 1 (1)
I0721 12:37:53.706429 10159 net.cpp:156] Memory required for data: 14020
I0721 12:37:53.706434 10159 layer_factory.hpp:77] Creating layer lstm2_x_transform
I0721 12:37:53.706447 10159 net.cpp:91] Creating Layer lstm2_x_transform
I0721 12:37:53.706451 10159 net.cpp:425] lstm2_x_transform <- x
I0721 12:37:53.706459 10159 net.cpp:399] lstm2_x_transform -> W_xc_x
I0721 12:37:53.724110 10177 net.cpp:141] Setting up conv2
I0721 12:37:53.724160 10177 net.cpp:148] Top shape: 10 256 27 27 (1866240)
I0721 12:37:53.724166 10177 net.cpp:156] Memory required for data: 42479160
I0721 12:37:53.724189 10177 layer_factory.hpp:77] Creating layer relu2
I0721 12:37:53.724212 10177 net.cpp:91] Creating Layer relu2
I0721 12:37:53.724220 10177 net.cpp:425] relu2 <- conv2
I0721 12:37:53.724227 10177 net.cpp:386] relu2 -> conv2 (in-place)
I0721 12:37:53.725754 10177 net.cpp:141] Setting up relu2
I0721 12:37:53.725775 10177 net.cpp:148] Top shape: 10 256 27 27 (1866240)
I0721 12:37:53.725780 10177 net.cpp:156] Memory required for data: 49944120
I0721 12:37:53.725786 10177 layer_factory.hpp:77] Creating layer pool2
I0721 12:37:53.725800 10177 net.cpp:91] Creating Layer pool2
I0721 12:37:53.725805 10177 net.cpp:425] pool2 <- conv2
I0721 12:37:53.725814 10177 net.cpp:399] pool2 -> pool2
I0721 12:37:53.726716 10177 net.cpp:141] Setting up pool2
I0721 12:37:53.726734 10177 net.cpp:148] Top shape: 10 256 13 13 (432640)
I0721 12:37:53.726740 10177 net.cpp:156] Memory required for data: 51674680
I0721 12:37:53.726748 10177 layer_factory.hpp:77] Creating layer norm2
I0721 12:37:53.726763 10177 net.cpp:91] Creating Layer norm2
I0721 12:37:53.726768 10177 net.cpp:425] norm2 <- pool2
I0721 12:37:53.726775 10177 net.cpp:399] norm2 -> norm2
I0721 12:37:53.727252 10177 net.cpp:141] Setting up norm2
I0721 12:37:53.727265 10177 net.cpp:148] Top shape: 10 256 13 13 (432640)
I0721 12:37:53.727269 10177 net.cpp:156] Memory required for data: 53405240
I0721 12:37:53.727274 10177 layer_factory.hpp:77] Creating layer conv3
I0721 12:37:53.727288 10177 net.cpp:91] Creating Layer conv3
I0721 12:37:53.727293 10177 net.cpp:425] conv3 <- norm2
I0721 12:37:53.727301 10177 net.cpp:399] conv3 -> conv3
I0721 12:37:53.730873 10163 net.cpp:141] Setting up lstm2_transform_1
I0721 12:37:53.730898 10163 net.cpp:148] Top shape: 1 1 4000 (4000)
I0721 12:37:53.730903 10163 net.cpp:156] Memory required for data: 66020
I0721 12:37:53.730916 10163 layer_factory.hpp:77] Creating layer lstm2_gate_input_1
I0721 12:37:53.730931 10163 net.cpp:91] Creating Layer lstm2_gate_input_1
I0721 12:37:53.730937 10163 net.cpp:425] lstm2_gate_input_1 <- W_hc_h_0
I0721 12:37:53.730942 10163 net.cpp:425] lstm2_gate_input_1 <- W_xc_x_1
I0721 12:37:53.730950 10163 net.cpp:399] lstm2_gate_input_1 -> gate_input_1
I0721 12:37:53.732081 10163 net.cpp:141] Setting up lstm2_gate_input_1
I0721 12:37:53.732100 10163 net.cpp:148] Top shape: 1 1 4000 (4000)
I0721 12:37:53.732105 10163 net.cpp:156] Memory required for data: 82020
I0721 12:37:53.732110 10163 layer_factory.hpp:77] Creating layer lstm2_unit_1
I0721 12:37:53.732122 10163 net.cpp:91] Creating Layer lstm2_unit_1
I0721 12:37:53.732127 10163 net.cpp:425] lstm2_unit_1 <- c_0
I0721 12:37:53.732134 10163 net.cpp:425] lstm2_unit_1 <- gate_input_1
I0721 12:37:53.732139 10163 net.cpp:425] lstm2_unit_1 <- cont_1_lstm2_cont_slice_0_split_1
I0721 12:37:53.732146 10163 net.cpp:399] lstm2_unit_1 -> c_1
I0721 12:37:53.732154 10163 net.cpp:399] lstm2_unit_1 -> h_1
I0721 12:37:53.732324 10171 net.cpp:141] Setting up conv3
I0721 12:37:53.732347 10171 net.cpp:148] Top shape: 10 384 13 13 (648960)
I0721 12:37:53.732358 10171 net.cpp:156] Memory required for data: 56001080
I0721 12:37:53.732360 10163 net.cpp:141] Setting up lstm2_unit_1
I0721 12:37:53.732372 10163 net.cpp:148] Top shape: 1 1 1000 (1000)
I0721 12:37:53.732378 10163 net.cpp:148] Top shape: 1 1 1000 (1000)
I0721 12:37:53.732383 10163 net.cpp:156] Memory required for data: 90020
I0721 12:37:53.732386 10163 layer_factory.hpp:77] Creating layer lstm2_
I0721 12:37:53.732384 10171 layer_factory.hpp:77] Creating layer relu3
I0721 12:37:53.732395 10163 net.cpp:91] Creating Layer lstm2_
I0721 12:37:53.732400 10163 net.cpp:425] lstm2_ <- c_1
I0721 12:37:53.732404 10171 net.cpp:91] Creating Layer relu3
I0721 12:37:53.732408 10163 net.cpp:399] lstm2_ -> c_T
I0721 12:37:53.732420 10171 net.cpp:425] relu3 <- conv3
I0721 12:37:53.732436 10171 net.cpp:386] relu3 -> conv3 (in-place)
I0721 12:37:53.732468 10163 net.cpp:141] Setting up lstm2_
I0721 12:37:53.732477 10163 net.cpp:148] Top shape: 1 1 1000 (1000)
I0721 12:37:53.732482 10163 net.cpp:156] Memory required for data: 94020
I0721 12:37:53.732486 10163 layer_factory.hpp:77] Creating layer lstm2_h_concat
I0721 12:37:53.732496 10163 net.cpp:91] Creating Layer lstm2_h_concat
I0721 12:37:53.732499 10163 net.cpp:425] lstm2_h_concat <- h_1
I0721 12:37:53.732508 10163 net.cpp:399] lstm2_h_concat -> h
I0721 12:37:53.732795 10163 net.cpp:141] Setting up lstm2_h_concat
I0721 12:37:53.732805 10163 net.cpp:148] Top shape: 1 1 1000 (1000)
I0721 12:37:53.732808 10163 net.cpp:156] Memory required for data: 98020
I0721 12:37:53.732813 10163 layer_factory.hpp:77] Creating layer h_pseudoloss
I0721 12:37:53.732821 10163 net.cpp:91] Creating Layer h_pseudoloss
I0721 12:37:53.732825 10163 net.cpp:425] h_pseudoloss <- h
I0721 12:37:53.732831 10163 net.cpp:399] h_pseudoloss -> h_pseudoloss
I0721 12:37:53.734822 10163 net.cpp:141] Setting up h_pseudoloss
I0721 12:37:53.734835 10163 net.cpp:148] Top shape: (1)
I0721 12:37:53.734843 10171 net.cpp:141] Setting up relu3
I0721 12:37:53.734839 10163 net.cpp:151]     with loss weight 1
I0721 12:37:53.734861 10163 net.cpp:156] Memory required for data: 98024
I0721 12:37:53.734866 10163 net.cpp:217] h_pseudoloss needs backward computation.
I0721 12:37:53.734863 10171 net.cpp:148] Top shape: 10 384 13 13 (648960)
I0721 12:37:53.734875 10163 net.cpp:217] lstm2_h_concat needs backward computation.
I0721 12:37:53.734886 10163 net.cpp:219] lstm2_ does not need backward computation.
I0721 12:37:53.734887 10171 net.cpp:156] Memory required for data: 58596920
I0721 12:37:53.734891 10163 net.cpp:217] lstm2_unit_1 needs backward computation.
I0721 12:37:53.734904 10163 net.cpp:217] lstm2_gate_input_1 needs backward computation.
…
I0721 12:37:53.734959 10171 net.cpp:399] conv4 -> conv4
I0721 12:37:53.734962 10163 net.cpp:261] This network produces output c_T
I0721 12:37:53.734977 10163 net.cpp:261] This network produces output h_pseudoloss
I0721 12:37:53.734997 10163 net.cpp:274] Network initialization done.
I0721 12:37:53.735043 10163 recurrent_layer.cpp:150] Adding parameter 0: W_xc
I0721 12:37:53.735049 10163 recurrent_layer.cpp:150] Adding parameter 1: b_c
I0721 12:37:53.735052 10163 recurrent_layer.cpp:150] Adding parameter 2: W_hc
I0721 12:37:53.735311 10163 net.cpp:141] Setting up lstm2
I0721 12:37:53.735321 10163 net.cpp:148] Top shape: 1 1 1000 (1000)
I0721 12:37:53.735327 10163 net.cpp:156] Memory required for data: 36412
I0721 12:37:53.735339 10163 layer_factory.hpp:77] Creating layer predict
I0721 12:37:53.735352 10163 net.cpp:91] Creating Layer predict
I0721 12:37:53.735357 10163 net.cpp:425] predict <- lstm2
I0721 12:37:53.735363 10163 net.cpp:399] predict -> predict
I0721 12:37:53.822269 10159 net.cpp:141] Setting up lstm2_x_transform
I0721 12:37:53.822332 10159 net.cpp:148] Top shape: 1 1 4000 (4000)
I0721 12:37:53.822337 10159 net.cpp:156] Memory required for data: 30020
I0721 12:37:53.822345 10177 net.cpp:141] Setting up conv3
I0721 12:37:53.822363 10159 layer_factory.hpp:77] Creating layer lstm2_W_xc_x_slice
I0721 12:37:53.822365 10177 net.cpp:148] Top shape: 10 384 13 13 (648960)
I0721 12:37:53.822371 10177 net.cpp:156] Memory required for data: 56001080
I0721 12:37:53.822381 10159 net.cpp:91] Creating Layer lstm2_W_xc_x_slice
I0721 12:37:53.822387 10159 net.cpp:425] lstm2_W_xc_x_slice <- W_xc_x
I0721 12:37:53.822388 10177 layer_factory.hpp:77] Creating layer relu3
I0721 12:37:53.822397 10159 net.cpp:399] lstm2_W_xc_x_slice -> W_xc_x_1
I0721 12:37:53.822408 10177 net.cpp:91] Creating Layer relu3
I0721 12:37:53.822414 10177 net.cpp:425] relu3 <- conv3
I0721 12:37:53.822422 10177 net.cpp:386] relu3 -> conv3 (in-place)
I0721 12:37:53.822489 10159 net.cpp:141] Setting up lstm2_W_xc_x_slice
I0721 12:37:53.822499 10159 net.cpp:148] Top shape: 1 1 4000 (4000)
I0721 12:37:53.822504 10159 net.cpp:156] Memory required for data: 46020
I0721 12:37:53.822509 10159 layer_factory.hpp:77] Creating layer lstm2_h_conted_0
I0721 12:37:53.822518 10159 net.cpp:91] Creating Layer lstm2_h_conted_0
I0721 12:37:53.822523 10159 net.cpp:425] lstm2_h_conted_0 <- h_0
I0721 12:37:53.822530 10159 net.cpp:425] lstm2_h_conted_0 <- cont_1_lstm2_cont_slice_0_split_0
I0721 12:37:53.822536 10159 net.cpp:399] lstm2_h_conted_0 -> h_conted_0
I0721 12:37:53.824318 10177 net.cpp:141] Setting up relu3
I0721 12:37:53.824347 10177 net.cpp:148] Top shape: 10 384 13 13 (648960)
I0721 12:37:53.824353 10177 net.cpp:156] Memory required for data: 58596920
I0721 12:37:53.824359 10177 layer_factory.hpp:77] Creating layer conv4
I0721 12:37:53.824376 10177 net.cpp:91] Creating Layer conv4
I0721 12:37:53.824383 10177 net.cpp:425] conv4 <- conv3
I0721 12:37:53.824393 10177 net.cpp:399] conv4 -> conv4
I0721 12:37:53.824564 10159 net.cpp:141] Setting up lstm2_h_conted_0
I0721 12:37:53.824584 10159 net.cpp:148] Top shape: 1 1 1000 (1000)
I0721 12:37:53.824589 10159 net.cpp:156] Memory required for data: 50020
I0721 12:37:53.824594 10159 layer_factory.hpp:77] Creating layer lstm2_transform_1
I0721 12:37:53.824606 10159 net.cpp:91] Creating Layer lstm2_transform_1
I0721 12:37:53.824612 10159 net.cpp:425] lstm2_transform_1 <- h_conted_0
I0721 12:37:53.824623 10159 net.cpp:399] lstm2_transform_1 -> W_hc_h_0
I0721 12:37:53.838881 10171 net.cpp:141] Setting up conv4
I0721 12:37:53.838932 10171 net.cpp:148] Top shape: 10 384 13 13 (648960)
I0721 12:37:53.838937 10171 net.cpp:156] Memory required for data: 61192760
I0721 12:37:53.838953 10171 layer_factory.hpp:77] Creating layer relu4
I0721 12:37:53.838968 10171 net.cpp:91] Creating Layer relu4
I0721 12:37:53.838976 10171 net.cpp:425] relu4 <- conv4
I0721 12:37:53.838985 10171 net.cpp:386] relu4 -> conv4 (in-place)
I0721 12:37:53.842787 10171 net.cpp:141] Setting up relu4
I0721 12:37:53.842828 10171 net.cpp:148] Top shape: 10 384 13 13 (648960)
I0721 12:37:53.842834 10171 net.cpp:156] Memory required for data: 63788600
I0721 12:37:53.842852 10171 layer_factory.hpp:77] Creating layer conv5
I0721 12:37:53.842872 10171 net.cpp:91] Creating Layer conv5
I0721 12:37:53.842880 10171 net.cpp:425] conv5 <- conv4
I0721 12:37:53.842890 10171 net.cpp:399] conv5 -> conv5
I0721 12:37:53.848892 10177 net.cpp:141] Setting up conv4
I0721 12:37:53.848932 10177 net.cpp:148] Top shape: 10 384 13 13 (648960)
I0721 12:37:53.848938 10177 net.cpp:156] Memory required for data: 61192760
I0721 12:37:53.848958 10177 layer_factory.hpp:77] Creating layer relu4
I0721 12:37:53.848970 10177 net.cpp:91] Creating Layer relu4
I0721 12:37:53.848976 10177 net.cpp:425] relu4 <- conv4
I0721 12:37:53.848985 10177 net.cpp:386] relu4 -> conv4 (in-place)
I0721 12:37:53.850929 10177 net.cpp:141] Setting up relu4
I0721 12:37:53.850951 10177 net.cpp:148] Top shape: 10 384 13 13 (648960)
I0721 12:37:53.850956 10177 net.cpp:156] Memory required for data: 63788600
I0721 12:37:53.850962 10177 layer_factory.hpp:77] Creating layer conv5
I0721 12:37:53.850981 10177 net.cpp:91] Creating Layer conv5
I0721 12:37:53.850986 10177 net.cpp:425] conv5 <- conv4
I0721 12:37:53.850996 10177 net.cpp:399] conv5 -> conv5
I0721 12:37:53.856844 10171 net.cpp:141] Setting up conv5
I0721 12:37:53.856881 10171 net.cpp:148] Top shape: 10 256 13 13 (432640)
I0721 12:37:53.856889 10171 net.cpp:156] Memory required for data: 65519160
I0721 12:37:53.856906 10171 layer_factory.hpp:77] Creating layer relu5
I0721 12:37:53.856920 10171 net.cpp:91] Creating Layer relu5
I0721 12:37:53.856925 10171 net.cpp:425] relu5 <- conv5
I0721 12:37:53.856937 10171 net.cpp:386] relu5 -> conv5 (in-place)
I0721 12:37:53.858199 10171 net.cpp:141] Setting up relu5
I0721 12:37:53.858217 10171 net.cpp:148] Top shape: 10 256 13 13 (432640)
I0721 12:37:53.858222 10171 net.cpp:156] Memory required for data: 67249720
I0721 12:37:53.858227 10171 layer_factory.hpp:77] Creating layer pool5
I0721 12:37:53.858237 10171 net.cpp:91] Creating Layer pool5
I0721 12:37:53.858242 10171 net.cpp:425] pool5 <- conv5
I0721 12:37:53.858253 10171 net.cpp:399] pool5 -> pool5
I0721 12:37:53.858392 10171 net.cpp:141] Setting up pool5
I0721 12:37:53.858403 10171 net.cpp:148] Top shape: 10 256 6 6 (92160)
I0721 12:37:53.858407 10171 net.cpp:156] Memory required for data: 67618360
I0721 12:37:53.858412 10171 layer_factory.hpp:77] Creating layer fc6
I0721 12:37:53.858428 10171 net.cpp:91] Creating Layer fc6
I0721 12:37:53.858433 10171 net.cpp:425] fc6 <- pool5
I0721 12:37:53.858439 10171 net.cpp:399] fc6 -> fc6
I0721 12:37:53.922649 10159 net.cpp:141] Setting up lstm2_transform_1
I0721 12:37:53.922708 10159 net.cpp:148] Top shape: 1 1 4000 (4000)
I0721 12:37:53.922713 10159 net.cpp:156] Memory required for data: 66020
I0721 12:37:53.922734 10159 layer_factory.hpp:77] Creating layer lstm2_gate_input_1
I0721 12:37:53.922755 10159 net.cpp:91] Creating Layer lstm2_gate_input_1
I0721 12:37:53.922761 10159 net.cpp:425] lstm2_gate_input_1 <- W_hc_h_0
I0721 12:37:53.922770 10159 net.cpp:425] lstm2_gate_input_1 <- W_xc_x_1
I0721 12:37:53.922777 10159 net.cpp:399] lstm2_gate_input_1 -> gate_input_1
I0721 12:37:53.926455 10159 net.cpp:141] Setting up lstm2_gate_input_1
I0721 12:37:53.926476 10159 net.cpp:148] Top shape: 1 1 4000 (4000)
I0721 12:37:53.926484 10159 net.cpp:156] Memory required for data: 82020
I0721 12:37:53.926493 10159 layer_factory.hpp:77] Creating layer lstm2_unit_1
I0721 12:37:53.926508 10159 net.cpp:91] Creating Layer lstm2_unit_1
I0721 12:37:53.926517 10159 net.cpp:425] lstm2_unit_1 <- c_0
I0721 12:37:53.926528 10159 net.cpp:425] lstm2_unit_1 <- gate_input_1
I0721 12:37:53.926537 10159 net.cpp:425] lstm2_unit_1 <- cont_1_lstm2_cont_slice_0_split_1
I0721 12:37:53.926553 10159 net.cpp:399] lstm2_unit_1 -> c_1
I0721 12:37:53.926569 10159 net.cpp:399] lstm2_unit_1 -> h_1
I0721 12:37:53.928359 10159 net.cpp:141] Setting up lstm2_unit_1
I0721 12:37:53.928398 10159 net.cpp:148] Top shape: 1 1 1000 (1000)
I0721 12:37:53.928411 10159 net.cpp:148] Top shape: 1 1 1000 (1000)
I0721 12:37:53.928418 10159 net.cpp:156] Memory required for data: 90020
I0721 12:37:53.928429 10159 layer_factory.hpp:77] Creating layer lstm2_
I0721 12:37:53.928449 10159 net.cpp:91] Creating Layer lstm2_
I0721 12:37:53.928458 10159 net.cpp:425] lstm2_ <- c_1
I0721 12:37:53.928478 10159 net.cpp:399] lstm2_ -> c_T
I0721 12:37:53.930102 10159 net.cpp:141] Setting up lstm2_
I0721 12:37:53.930136 10159 net.cpp:148] Top shape: 1 1 1000 (1000)
I0721 12:37:53.930145 10159 net.cpp:156] Memory required for data: 94020
I0721 12:37:53.930157 10159 layer_factory.hpp:77] Creating layer lstm2_h_concat
I0721 12:37:53.930182 10159 net.cpp:91] Creating Layer lstm2_h_concat
I0721 12:37:53.930193 10159 net.cpp:425] lstm2_h_concat <- h_1
I0721 12:37:53.930207 10159 net.cpp:399] lstm2_h_concat -> h
I0721 12:37:53.930337 10159 net.cpp:141] Setting up lstm2_h_concat
I0721 12:37:53.930353 10159 net.cpp:148] Top shape: 1 1 1000 (1000)
I0721 12:37:53.930361 10159 net.cpp:156] Memory required for data: 98020
I0721 12:37:53.930369 10159 layer_factory.hpp:77] Creating layer h_pseudoloss
I0721 12:37:53.930389 10159 net.cpp:91] Creating Layer h_pseudoloss
I0721 12:37:53.930400 10159 net.cpp:425] h_pseudoloss <- h
I0721 12:37:53.930413 10159 net.cpp:399] h_pseudoloss -> h_pseudoloss
I0721 12:37:53.930661 10159 net.cpp:141] Setting up h_pseudoloss
…
I0721 12:37:53.930809 10159 net.cpp:217] lstm2_W_xc_x_slice needs backward computation.
I0721 12:37:53.930819 10159 net.cpp:217] lstm2_x_transform needs backward computation.
I0721 12:37:53.930829 10159 net.cpp:219] cont_1_lstm2_cont_slice_0_split does not need backward computation.
I0721 12:37:53.930838 10159 net.cpp:219] lstm2_cont_slice does not need backward computation.
I0721 12:37:53.930847 10159 net.cpp:219] lstm2_ does not need backward computation.
I0721 12:37:53.930845 10177 net.cpp:141] Setting up conv5
I0721 12:37:53.930861 10159 net.cpp:219] lstm2_ does not need backward computation.
I0721 12:37:53.930877 10177 net.cpp:148] Top shape: 10 256 13 13 (432640)
I0721 12:37:53.930881 10159 net.cpp:261] This network produces output c_T
I0721 12:37:53.930884 10177 net.cpp:156] Memory required for data: 65519160
I0721 12:37:53.930896 10159 net.cpp:261] This network produces output h_pseudoloss
I0721 12:37:53.930912 10177 layer_factory.hpp:77] Creating layer relu5
I0721 12:37:53.930922 10177 net.cpp:91] Creating Layer relu5
I0721 12:37:53.930928 10177 net.cpp:425] relu5 <- conv5
I0721 12:37:53.930929 10159 net.cpp:274] Network initialization done.
I0721 12:37:53.930934 10177 net.cpp:386] relu5 -> conv5 (in-place)
I0721 12:37:53.931015 10159 recurrent_layer.cpp:150] Adding parameter 0: W_xc
I0721 12:37:53.931028 10159 recurrent_layer.cpp:150] Adding parameter 1: b_c
I0721 12:37:53.931037 10159 recurrent_layer.cpp:150] Adding parameter 2: W_hc
I0721 12:37:53.933444 10177 net.cpp:141] Setting up relu5
I0721 12:37:53.933450 10159 net.cpp:141] Setting up lstm2
I0721 12:37:53.933482 10177 net.cpp:148] Top shape: 10 256 13 13 (432640)
I0721 12:37:53.933488 10177 net.cpp:156] Memory required for data: 67249720
I0721 12:37:53.933487 10159 net.cpp:148] Top shape: 1 1 1000 (1000)
I0721 12:37:53.933496 10177 layer_factory.hpp:77] Creating layer pool5
I0721 12:37:53.933498 10159 net.cpp:156] Memory required for data: 36412
I0721 12:37:53.933512 10177 net.cpp:91] Creating Layer pool5
I0721 12:37:53.933518 10177 net.cpp:425] pool5 <- conv5
I0721 12:37:53.933527 10177 net.cpp:399] pool5 -> pool5
I0721 12:37:53.933528 10159 layer_factory.hpp:77] Creating layer predict
I0721 12:37:53.933550 10159 net.cpp:91] Creating Layer predict
I0721 12:37:53.933563 10159 net.cpp:425] predict <- lstm2
I0721 12:37:53.933578 10159 net.cpp:399] predict -> predict
I0721 12:37:53.933707 10177 net.cpp:141] Setting up pool5
I0721 12:37:53.933722 10177 net.cpp:148] Top shape: 10 256 6 6 (92160)
I0721 12:37:53.933725 10177 net.cpp:156] Memory required for data: 67618360
I0721 12:37:53.933730 10177 layer_factory.hpp:77] Creating layer fc6
I0721 12:37:53.933779 10177 net.cpp:91] Creating Layer fc6
I0721 12:37:53.933784 10177 net.cpp:425] fc6 <- pool5
I0721 12:37:53.933791 10177 net.cpp:399] fc6 -> fc6
I0721 12:37:54.089308 10171 net.cpp:141] Setting up fc6
I0721 12:37:54.089356 10171 net.cpp:148] Top shape: 10 4096 (40960)
I0721 12:37:54.089361 10171 net.cpp:156] Memory required for data: 67782200
I0721 12:37:54.089381 10171 layer_factory.hpp:77] Creating layer relu6
I0721 12:37:54.089402 10171 net.cpp:91] Creating Layer relu6
I0721 12:37:54.089409 10171 net.cpp:425] relu6 <- fc6
I0721 12:37:54.089418 10171 net.cpp:386] relu6 -> fc6 (in-place)
I0721 12:37:54.089758 10171 net.cpp:141] Setting up relu6
I0721 12:37:54.089769 10171 net.cpp:148] Top shape: 10 4096 (40960)
I0721 12:37:54.089774 10171 net.cpp:156] Memory required for data: 67946040
I0721 12:37:54.089778 10171 layer_factory.hpp:77] Creating layer drop6
I0721 12:37:54.089788 10171 net.cpp:91] Creating Layer drop6
I0721 12:37:54.089792 10171 net.cpp:425] drop6 <- fc6
I0721 12:37:54.089805 10171 net.cpp:386] drop6 -> fc6 (in-place)
I0721 12:37:54.089902 10171 net.cpp:141] Setting up drop6
I0721 12:37:54.089911 10171 net.cpp:148] Top shape: 10 4096 (40960)
I0721 12:37:54.089915 10171 net.cpp:156] Memory required for data: 68109880
I0721 12:37:54.089920 10171 layer_factory.hpp:77] Creating layer fc7
I0721 12:37:54.089934 10171 net.cpp:91] Creating Layer fc7
I0721 12:37:54.089939 10171 net.cpp:425] fc7 <- fc6
I0721 12:37:54.089946 10171 net.cpp:399] fc7 -> fc7
I0721 12:37:54.128345 10177 net.cpp:141] Setting up fc6
I0721 12:37:54.128396 10177 net.cpp:148] Top shape: 10 4096 (40960)
I0721 12:37:54.128401 10177 net.cpp:156] Memory required for data: 67782200
I0721 12:37:54.128415 10177 layer_factory.hpp:77] Creating layer relu6
I0721 12:37:54.128435 10177 net.cpp:91] Creating Layer relu6
I0721 12:37:54.128443 10177 net.cpp:425] relu6 <- fc6
I0721 12:37:54.128455 10177 net.cpp:386] relu6 -> fc6 (in-place)
I0721 12:37:54.128803 10177 net.cpp:141] Setting up relu6
I0721 12:37:54.128823 10177 net.cpp:148] Top shape: 10 4096 (40960)
I0721 12:37:54.128830 10177 net.cpp:156] Memory required for data: 67946040
I0721 12:37:54.128839 10177 layer_factory.hpp:77] Creating layer drop6
I0721 12:37:54.128851 10177 net.cpp:91] Creating Layer drop6
I0721 12:37:54.128856 10177 net.cpp:425] drop6 <- fc6
I0721 12:37:54.128862 10177 net.cpp:386] drop6 -> fc6 (in-place)
I0721 12:37:54.128928 10177 net.cpp:141] Setting up drop6
I0721 12:37:54.128938 10177 net.cpp:148] Top shape: 10 4096 (40960)
I0721 12:37:54.128942 10177 net.cpp:156] Memory required for data: 68109880
I0721 12:37:54.128947 10177 layer_factory.hpp:77] Creating layer fc7
I0721 12:37:54.128957 10177 net.cpp:91] Creating Layer fc7
I0721 12:37:54.128960 10177 net.cpp:425] fc7 <- fc6
I0721 12:37:54.128970 10177 net.cpp:399] fc7 -> fc7
I0721 12:37:54.161151 10171 net.cpp:141] Setting up fc7
I0721 12:37:54.161200 10171 net.cpp:148] Top shape: 10 4096 (40960)
I0721 12:37:54.161206 10171 net.cpp:156] Memory required for data: 68273720
I0721 12:37:54.161219 10171 layer_factory.hpp:77] Creating layer relu7
I0721 12:37:54.161234 10171 net.cpp:91] Creating Layer relu7
I0721 12:37:54.161240 10171 net.cpp:425] relu7 <- fc7
I0721 12:37:54.161249 10171 net.cpp:386] relu7 -> fc7 (in-place)
I0721 12:37:54.162703 10171 net.cpp:141] Setting up relu7
I0721 12:37:54.162734 10171 net.cpp:148] Top shape: 10 4096 (40960)
I0721 12:37:54.162740 10171 net.cpp:156] Memory required for data: 68437560
I0721 12:37:54.162747 10171 layer_factory.hpp:77] Creating layer drop7
I0721 12:37:54.162761 10171 net.cpp:91] Creating Layer drop7
I0721 12:37:54.162766 10171 net.cpp:425] drop7 <- fc7
I0721 12:37:54.162778 10171 net.cpp:386] drop7 -> fc7 (in-place)
I0721 12:37:54.162878 10171 net.cpp:141] Setting up drop7
I0721 12:37:54.162888 10171 net.cpp:148] Top shape: 10 4096 (40960)
I0721 12:37:54.162891 10171 net.cpp:156] Memory required for data: 68601400
I0721 12:37:54.162896 10171 layer_factory.hpp:77] Creating layer fc8
I0721 12:37:54.162911 10171 net.cpp:91] Creating Layer fc8
I0721 12:37:54.162916 10171 net.cpp:425] fc8 <- fc7
I0721 12:37:54.162927 10171 net.cpp:399] fc8 -> fc8
I0721 12:37:54.172891 10163 net.cpp:141] Setting up predict
I0721 12:37:54.172945 10163 net.cpp:148] Top shape: 1 1 46168 (46168)
I0721 12:37:54.172950 10163 net.cpp:156] Memory required for data: 221084
I0721 12:37:54.172965 10163 layer_factory.hpp:77] Creating layer probs
I0721 12:37:54.172982 10163 net.cpp:91] Creating Layer probs
I0721 12:37:54.172988 10163 net.cpp:425] probs <- predict
I0721 12:37:54.172998 10163 net.cpp:399] probs -> probs
I0721 12:37:54.173599 10163 net.cpp:141] Setting up probs
I0721 12:37:54.173617 10163 net.cpp:148] Top shape: 1 1 46168 (46168)
I0721 12:37:54.173621 10163 net.cpp:156] Memory required for data: 405756
I0721 12:37:54.173627 10163 net.cpp:219] probs does not need backward computation.
I0721 12:37:54.173632 10163 net.cpp:219] predict does not need backward computation.
I0721 12:37:54.173637 10163 net.cpp:219] lstm2 does not need backward computation.
I0721 12:37:54.173643 10163 net.cpp:219] concat does not need backward computation.
I0721 12:37:54.173648 10163 net.cpp:219] lstm1 does not need backward computation.
I0721 12:37:54.173655 10163 net.cpp:219] embedding does not need backward computation.
I0721 12:37:54.173658 10163 net.cpp:219] reshape_stage_indicator does not need backward computation.
I0721 12:37:54.173663 10163 net.cpp:219] reshape_frames does not need backward computation.
I0721 12:37:54.173667 10163 net.cpp:219] embed_encoder does not need backward computation.
I0721 12:37:54.173672 10163 net.cpp:219] cont_sentence_input_1_split does not need backward computation.
I0721 12:37:54.173677 10163 net.cpp:219] input does not need backward computation.
I0721 12:37:54.173681 10163 net.cpp:261] This network produces output probs
I0721 12:37:54.173702 10163 net.cpp:274] Network initialization done.
I0721 12:37:54.177321 10171 net.cpp:141] Setting up fc8
I0721 12:37:54.177364 10171 net.cpp:148] Top shape: 10 1000 (10000)
I0721 12:37:54.177371 10171 net.cpp:156] Memory required for data: 68641400
I0721 12:37:54.177384 10171 layer_factory.hpp:77] Creating layer prob
I0721 12:37:54.177399 10171 net.cpp:91] Creating Layer prob
I0721 12:37:54.177405 10171 net.cpp:425] prob <- fc8
I0721 12:37:54.177414 10171 net.cpp:399] prob -> prob
I0721 12:37:54.179467 10171 net.cpp:141] Setting up prob
I0721 12:37:54.179508 10171 net.cpp:148] Top shape: 10 1000 (10000)
I0721 12:37:54.179514 10171 net.cpp:156] Memory required for data: 68681400
I0721 12:37:54.179522 10171 net.cpp:219] prob does not need backward computation.
I0721 12:37:54.179529 10171 net.cpp:219] fc8 does not need backward computation.
I0721 12:37:54.179533 10171 net.cpp:219] drop7 does not need backward computation.
I0721 12:37:54.179538 10171 net.cpp:219] relu7 does not need backward computation.
…
I0721 12:37:54.179603 10171 net.cpp:219] norm1 does not need backward computation.
I0721 12:37:54.179607 10171 net.cpp:219] pool1 does not need backward computation.
I0721 12:37:54.179612 10171 net.cpp:219] relu1 does not need backward computation.
I0721 12:37:54.179615 10171 net.cpp:219] conv1 does not need backward computation.
I0721 12:37:54.179620 10171 net.cpp:219] data does not need backward computation.
I0721 12:37:54.179623 10171 net.cpp:261] This network produces output prob
I0721 12:37:54.179643 10171 net.cpp:274] Network initialization done.
I0721 12:37:54.179705 10177 net.cpp:141] Setting up fc7
I0721 12:37:54.179723 10177 net.cpp:148] Top shape: 10 4096 (40960)
I0721 12:37:54.179726 10177 net.cpp:156] Memory required for data: 68273720
I0721 12:37:54.179738 10177 layer_factory.hpp:77] Creating layer relu7
I0721 12:37:54.179752 10177 net.cpp:91] Creating Layer relu7
I0721 12:37:54.179759 10177 net.cpp:425] relu7 <- fc7
I0721 12:37:54.179765 10177 net.cpp:386] relu7 -> fc7 (in-place)
I0721 12:37:54.181427 10177 net.cpp:141] Setting up relu7
I0721 12:37:54.181459 10177 net.cpp:148] Top shape: 10 4096 (40960)
I0721 12:37:54.181464 10177 net.cpp:156] Memory required for data: 68437560
I0721 12:37:54.181473 10177 layer_factory.hpp:77] Creating layer drop7
I0721 12:37:54.181490 10177 net.cpp:91] Creating Layer drop7
I0721 12:37:54.181500 10177 net.cpp:425] drop7 <- fc7
I0721 12:37:54.181514 10177 net.cpp:386] drop7 -> fc7 (in-place)
I0721 12:37:54.181632 10177 net.cpp:141] Setting up drop7
I0721 12:37:54.181643 10177 net.cpp:148] Top shape: 10 4096 (40960)
I0721 12:37:54.181646 10177 net.cpp:156] Memory required for data: 68601400
I0721 12:37:54.181651 10177 layer_factory.hpp:77] Creating layer fc8
I0721 12:37:54.181661 10177 net.cpp:91] Creating Layer fc8
I0721 12:37:54.181665 10177 net.cpp:425] fc8 <- fc7
I0721 12:37:54.181673 10177 net.cpp:399] fc8 -> fc8
I0721 12:37:54.196125 10177 net.cpp:141] Setting up fc8
I0721 12:37:54.196163 10177 net.cpp:148] Top shape: 10 1000 (10000)
I0721 12:37:54.196169 10177 net.cpp:156] Memory required for data: 68641400
I0721 12:37:54.196182 10177 layer_factory.hpp:77] Creating layer prob
I0721 12:37:54.196197 10177 net.cpp:91] Creating Layer prob
I0721 12:37:54.196202 10177 net.cpp:425] prob <- fc8
I0721 12:37:54.196211 10177 net.cpp:399] prob -> prob
I0721 12:37:54.198698 10177 net.cpp:141] Setting up prob
I0721 12:37:54.198743 10177 net.cpp:148] Top shape: 10 1000 (10000)
I0721 12:37:54.198750 10177 net.cpp:156] Memory required for data: 68681400
I0721 12:37:54.198756 10177 net.cpp:219] prob does not need backward computation.
I0721 12:37:54.198762 10177 net.cpp:219] fc8 does not need backward computation.
I0721 12:37:54.198767 10177 net.cpp:219] drop7 does not need backward computation.
I0721 12:37:54.198771 10177 net.cpp:219] relu7 does not need backward computation.
…
