…
Java HotSpot(TM) 64-Bit Server VM warning: You have loaded library /tmp/cvld8871657692846150495/libopencv_java310.xine1.so which might have disabled stack guard. The VM will try to fix the stack guard now.
It's highly recommended that you fix the library with 'execstack -c <libfile>', or link it with '-z noexecstack'.
WARNING: Logging before InitGoogleLogging() is written to STDERR
I0802 07:31:43.940433 13355 net.cpp:49] Initializing net from parameters: 
name: "CaffeNet"
state {
  phase: TEST
}
layer {
  name: "data"
  type: "Input"
  top: "data"
  input_param {
    shape {
      dim: 10
      dim: 3
      dim: 227
      dim: 227
    }
  }
}
layer {
  name: "conv1"
  type: "Convolution"
  bottom: "data"
  top: "conv1"
  convolution_param {
    num_output: 96
    kernel_size: 11
    stride: 4
  }
}
layer {
  name: "relu1"
  type: "ReLU"
  bottom: "conv1"
  top: "conv1"
}
layer {
  name: "pool1"
  type: "Pooling"
  bottom: "conv1"
  top: "pool1"
  pooling_param {
    pool: MAX
    kernel_size: 3
    stride: 2
  }
}
layer {
  name: "norm1"
  type: "LRN"
  bottom: "pool1"
  top: "norm1"
  lrn_param {
    local_size: 5
    alpha: 0.0001
    beta: 0.75
  }
}
layer {
  name: "conv2"
  type: "Convolution"
  bottom: "norm1"
  top: "conv2"
  convolution_param {
    num_output: 256
    pad: 2
    kernel_size: 5
    group: 2
  }
}
layer {
  name: "relu2"
  type: "ReLU"
  bottom: "conv2"
  top: "conv2"
}
layer {
  name: "pool2"
  type: "Pooling"
  bottom: "conv2"
  top: "pool2"
  pooling_param {
    pool: MAX
    kernel_size: 3
    stride: 2
  }
}
layer {
  name: "norm2"
  type: "LRN"
  bottom: "pool2"
  top: "norm2"
  lrn_param {
    local_size: 5
    alpha: 0.0001
    beta: 0.75
  }
}
layer {
  name: "conv3"
  type: "Convolution"
  bottom: "norm2"
  top: "conv3"
  convolution_param {
    num_output: 384
    pad: 1
    kernel_size: 3
  }
}
layer {
  name: "relu3"
  type: "ReLU"
  bottom: "conv3"
  top: "conv3"
}
layer {
  name: "conv4"
  type: "Convolution"
  bottom: "conv3"
  top: "conv4"
  convolution_param {
    num_output: 384
    pad: 1
    kernel_size: 3
    group: 2
  }
}
layer {
  name: "relu4"
  type: "ReLU"
  bottom: "conv4"
  top: "conv4"
}
layer {
  name: "conv5"
  type: "Convolution"
  bottom: "conv4"
  top: "conv5"
  convolution_param {
    num_output: 256
    pad: 1
    kernel_size: 3
    group: 2
  }
}
layer {
  name: "relu5"
  type: "ReLU"
  bottom: "conv5"
  top: "conv5"
}
layer {
  name: "pool5"
  type: "Pooling"
  bottom: "conv5"
  top: "pool5"
  pooling_param {
    pool: MAX
    kernel_size: 3
    stride: 2
  }
}
layer {
  name: "fc6"
  type: "InnerProduct"
  bottom: "pool5"
  top: "fc6"
  inner_product_param {
    num_output: 4096
  }
}
layer {
  name: "relu6"
  type: "ReLU"
  bottom: "fc6"
  top: "fc6"
}
layer {
  name: "drop6"
  type: "Dropout"
  bottom: "fc6"
  top: "fc6"
  dropout_param {
    dropout_ratio: 0.5
  }
}
layer {
  name: "fc7"
  type: "InnerProduct"
  bottom: "fc6"
  top: "fc7"
  inner_product_param {
    num_output: 4096
  }
}
layer {
  name: "relu7"
  type: "ReLU"
  bottom: "fc7"
  top: "fc7"
}
layer {
  name: "drop7"
  type: "Dropout"
  bottom: "fc7"
  top: "fc7"
  dropout_param {
    dropout_ratio: 0.5
  }
}
layer {
  name: "fc8"
  type: "InnerProduct"
  bottom: "fc7"
  top: "fc8"
  inner_product_param {
    num_output: 1000
  }
}
layer {
  name: "prob"
  type: "Softmax"
  bottom: "fc8"
  top: "prob"
}
I0802 07:31:43.940639 13355 layer_factory.hpp:77] Creating layer data
I0802 07:31:43.940667 13355 net.cpp:91] Creating Layer data
I0802 07:31:43.940680 13355 net.cpp:399] data -> data
I0802 07:31:44.421577 13355 net.cpp:141] Setting up data
I0802 07:31:44.421694 13355 net.cpp:148] Top shape: 10 3 227 227 (1545870)
I0802 07:31:44.421702 13355 net.cpp:156] Memory required for data: 6183480
I0802 07:31:44.421725 13355 layer_factory.hpp:77] Creating layer conv1
I0802 07:31:44.421759 13355 net.cpp:91] Creating Layer conv1
I0802 07:31:44.421769 13355 net.cpp:425] conv1 <- data
I0802 07:31:44.421789 13355 net.cpp:399] conv1 -> conv1
I0802 07:31:44.626797 13345 upgrade_proto.cpp:66] Attempting to upgrade input file specified using deprecated input fields: /tmp/cvld8871657692846150495/s2vt.words_to_preds.prototxt
I0802 07:31:44.626852 13345 upgrade_proto.cpp:69] Successfully upgraded file specified using deprecated input fields.
W0802 07:31:44.626860 13345 upgrade_proto.cpp:71] Note that future Caffe releases will only support input layers and not input fields.
I0802 07:31:44.627060 13355 net.cpp:141] Setting up conv1
I0802 07:31:44.627100 13355 net.cpp:148] Top shape: 10 96 55 55 (2904000)
I0802 07:31:44.627107 13355 net.cpp:156] Memory required for data: 17799480
I0802 07:31:44.627137 13355 layer_factory.hpp:77] Creating layer relu1
I0802 07:31:44.627137 13345 net.cpp:49] Initializing net from parameters: 
name: "s2vt:features_to_lstm"
state {
  phase: TEST
}
layer {
  name: "input"
  type: "Input"
  top: "frames_fc7"
  top: "cont_sentence"
  top: "input_sentence"
  top: "stage_indicator"
  input_param {
    shape {
      dim: 1
      dim: 4096
    }
    shape {
      dim: 1
      dim: 1
    }
    shape {
      dim: 1
      dim: 1
    }
    shape {
      dim: 1
      dim: 1
    }
  }
}
layer {
  name: "embed_encoder"
  type: "InnerProduct"
  bottom: "frames_fc7"
  top: "embedded_in_frames"
  param {
    lr_mult: 1
    decay_mult: 1
  }
  param {
    lr_mult: 2
    decay_mult: 0
  }
  inner_product_param {
    num_output: 500
    weight_filler {
      type: "xavier"
    }
    bias_filler {
      type: "constant"
      value: 0.2
    }
  }
}
layer {
  name: "reshape_frames"
  type: "Reshape"
  bottom: "embedded_in_frames"
  top: "embedded_input_frames"
  reshape_param {
    shape {
      dim: 1
      dim: 1
      dim: 500
    }
  }
}
layer {
  name: "reshape_stage_indicator"
  type: "Reshape"
  bottom: "stage_indicator"
  top: "reshaped_stage_indicator"
  reshape_param {
    shape {
      dim: 1
      dim: 1
      dim: 1
    }
  }
}
layer {
  name: "embedding"
  type: "Embed"
  bottom: "input_sentence"
  top: "embedded_input_sentence"
  param {
    lr_mult: 1
  }
  embed_param {
    num_output: 500
    input_dim: 46168
    bias_term: false
    weight_filler {
      type: "uniform"
      min: -0.08
      max: 0.08
    }
  }
}
layer {
  name: "lstm1"
  type: "LSTM"
  bottom: "embedded_input_frames"
  bottom: "cont_sentence"
  top: "lstm1"
  recurrent_param {
    num_output: 1000
    weight_filler {
      type: "uniform"
      min: -0.08
      max: 0.08
    }
    bias_filler {
      type: "constant"
      value: 0
    }
  }
}
layer {
  name: "concat"
  type: "Concat"
  bottom: "lstm1"
  bottom: "embedded_input_sentence"
  bottom: "reshaped_stage_indicator"
  top: "lstm1_video_sequence"
  concat_param {
    concat_dim: 2
  }
}
layer {
  name: "lstm2"
  type: "LSTM"
  bottom: "lstm1_video_sequence"
  bottom: "cont_sentence"
  top: "lstm2"
  recurrent_param {
    num_output: 1000
    weight_filler {
      type: "uniform"
      min: -0.08
      max: 0.08
    }
    bias_filler {
      type: "constant"
      value: 0
    }
  }
}
layer {
  name: "predict"
  type: "InnerProduct"
  bottom: "lstm2"
  top: "predict"
  param {
    lr_mult: 1
    decay_mult: 1
  }
  param {
    lr_mult: 2
    decay_mult: 0
  }
  inner_product_param {
    num_output: 46168
    weight_filler {
      type: "uniform"
      min: -0.08
      max: 0.08
    }
    bias_filler {
      type: "constant"
      value: 0
    }
    axis: 2
  }
}
layer {
  name: "probs"
  type: "Softmax"
  bottom: "predict"
  top: "probs"
  softmax_param {
    axis: 2
  }
}
I0802 07:31:44.627157 13355 net.cpp:91] Creating Layer relu1
I0802 07:31:44.627166 13355 net.cpp:425] relu1 <- conv1
I0802 07:31:44.627174 13355 net.cpp:386] relu1 -> conv1 (in-place)
I0802 07:31:44.627307 13345 layer_factory.hpp:77] Creating layer input
I0802 07:31:44.627336 13345 net.cpp:91] Creating Layer input
I0802 07:31:44.627351 13345 net.cpp:399] input -> frames_fc7
I0802 07:31:44.627377 13345 net.cpp:399] input -> cont_sentence
I0802 07:31:44.627398 13345 net.cpp:399] input -> input_sentence
I0802 07:31:44.627411 13345 net.cpp:399] input -> stage_indicator
I0802 07:31:44.627748 13345 net.cpp:141] Setting up input
I0802 07:31:44.627764 13345 net.cpp:148] Top shape: 1 4096 (4096)
I0802 07:31:44.627773 13345 net.cpp:148] Top shape: 1 1 (1)
I0802 07:31:44.627779 13345 net.cpp:148] Top shape: 1 1 (1)
I0802 07:31:44.627785 13345 net.cpp:148] Top shape: 1 1 (1)
I0802 07:31:44.627789 13345 net.cpp:156] Memory required for data: 16396
I0802 07:31:44.627795 13345 layer_factory.hpp:77] Creating layer cont_sentence_input_1_split
I0802 07:31:44.627816 13345 net.cpp:91] Creating Layer cont_sentence_input_1_split
I0802 07:31:44.627822 13345 net.cpp:425] cont_sentence_input_1_split <- cont_sentence
I0802 07:31:44.627821 13355 net.cpp:141] Setting up relu1
I0802 07:31:44.627836 13355 net.cpp:148] Top shape: 10 96 55 55 (2904000)
I0802 07:31:44.627842 13355 net.cpp:156] Memory required for data: 29415480
I0802 07:31:44.627848 13345 net.cpp:399] cont_sentence_input_1_split -> cont_sentence_input_1_split_0
I0802 07:31:44.627848 13355 layer_factory.hpp:77] Creating layer pool1
I0802 07:31:44.627863 13345 net.cpp:399] cont_sentence_input_1_split -> cont_sentence_input_1_split_1
I0802 07:31:44.627872 13355 net.cpp:91] Creating Layer pool1
I0802 07:31:44.627881 13355 net.cpp:425] pool1 <- conv1
I0802 07:31:44.627888 13355 net.cpp:399] pool1 -> pool1
I0802 07:31:44.627938 13345 net.cpp:141] Setting up cont_sentence_input_1_split
I0802 07:31:44.627950 13345 net.cpp:148] Top shape: 1 1 (1)
I0802 07:31:44.627956 13345 net.cpp:148] Top shape: 1 1 (1)
I0802 07:31:44.627961 13345 net.cpp:156] Memory required for data: 16404
I0802 07:31:44.627967 13345 layer_factory.hpp:77] Creating layer embed_encoder
I0802 07:31:44.627985 13345 net.cpp:91] Creating Layer embed_encoder
I0802 07:31:44.627990 13345 net.cpp:425] embed_encoder <- frames_fc7
I0802 07:31:44.628001 13355 net.cpp:141] Setting up pool1
I0802 07:31:44.628002 13345 net.cpp:399] embed_encoder -> embedded_in_frames
I0802 07:31:44.628026 13355 net.cpp:148] Top shape: 10 96 27 27 (699840)
I0802 07:31:44.628031 13355 net.cpp:156] Memory required for data: 32214840
I0802 07:31:44.628036 13355 layer_factory.hpp:77] Creating layer norm1
I0802 07:31:44.628056 13355 net.cpp:91] Creating Layer norm1
I0802 07:31:44.628060 13355 net.cpp:425] norm1 <- pool1
I0802 07:31:44.628068 13355 net.cpp:399] norm1 -> norm1
I0802 07:31:44.634243 13355 net.cpp:141] Setting up norm1
I0802 07:31:44.634258 13355 net.cpp:148] Top shape: 10 96 27 27 (699840)
I0802 07:31:44.634263 13355 net.cpp:156] Memory required for data: 35014200
I0802 07:31:44.634268 13355 layer_factory.hpp:77] Creating layer conv2
I0802 07:31:44.634285 13355 net.cpp:91] Creating Layer conv2
I0802 07:31:44.634291 13355 net.cpp:425] conv2 <- norm1
I0802 07:31:44.634299 13355 net.cpp:399] conv2 -> conv2
I0802 07:31:44.638159 13355 net.cpp:141] Setting up conv2
I0802 07:31:44.638176 13355 net.cpp:148] Top shape: 10 256 27 27 (1866240)
I0802 07:31:44.638181 13355 net.cpp:156] Memory required for data: 42479160
I0802 07:31:44.638195 13355 layer_factory.hpp:77] Creating layer relu2
I0802 07:31:44.638205 13355 net.cpp:91] Creating Layer relu2
I0802 07:31:44.638211 13355 net.cpp:425] relu2 <- conv2
I0802 07:31:44.638217 13355 net.cpp:386] relu2 -> conv2 (in-place)
I0802 07:31:44.638648 13355 net.cpp:141] Setting up relu2
I0802 07:31:44.638660 13355 net.cpp:148] Top shape: 10 256 27 27 (1866240)
I0802 07:31:44.638666 13355 net.cpp:156] Memory required for data: 49944120
I0802 07:31:44.638671 13355 layer_factory.hpp:77] Creating layer pool2
I0802 07:31:44.638681 13355 net.cpp:91] Creating Layer pool2
I0802 07:31:44.638687 13355 net.cpp:425] pool2 <- conv2
I0802 07:31:44.638695 13355 net.cpp:399] pool2 -> pool2
I0802 07:31:44.638746 13355 net.cpp:141] Setting up pool2
I0802 07:31:44.638756 13355 net.cpp:148] Top shape: 10 256 13 13 (432640)
I0802 07:31:44.638761 13355 net.cpp:156] Memory required for data: 51674680
I0802 07:31:44.638764 13355 layer_factory.hpp:77] Creating layer norm2
I0802 07:31:44.638775 13355 net.cpp:91] Creating Layer norm2
I0802 07:31:44.638780 13355 net.cpp:425] norm2 <- pool2
I0802 07:31:44.638788 13355 net.cpp:399] norm2 -> norm2
I0802 07:31:44.639021 13355 net.cpp:141] Setting up norm2
I0802 07:31:44.639032 13355 net.cpp:148] Top shape: 10 256 13 13 (432640)
I0802 07:31:44.639037 13355 net.cpp:156] Memory required for data: 53405240
I0802 07:31:44.639042 13355 layer_factory.hpp:77] Creating layer conv3
I0802 07:31:44.639055 13355 net.cpp:91] Creating Layer conv3
I0802 07:31:44.639060 13355 net.cpp:425] conv3 <- norm2
I0802 07:31:44.639068 13355 net.cpp:399] conv3 -> conv3
I0802 07:31:44.642722 13355 net.cpp:141] Setting up conv3
I0802 07:31:44.642737 13355 net.cpp:148] Top shape: 10 384 13 13 (648960)
I0802 07:31:44.642742 13355 net.cpp:156] Memory required for data: 56001080
I0802 07:31:44.642755 13355 layer_factory.hpp:77] Creating layer relu3
I0802 07:31:44.642768 13355 net.cpp:91] Creating Layer relu3
I0802 07:31:44.642774 13355 net.cpp:425] relu3 <- conv3
I0802 07:31:44.642781 13355 net.cpp:386] relu3 -> conv3 (in-place)
I0802 07:31:44.643223 13355 net.cpp:141] Setting up relu3
I0802 07:31:44.643235 13355 net.cpp:148] Top shape: 10 384 13 13 (648960)
I0802 07:31:44.643239 13355 net.cpp:156] Memory required for data: 58596920
I0802 07:31:44.643244 13355 layer_factory.hpp:77] Creating layer conv4
I0802 07:31:44.643260 13355 net.cpp:91] Creating Layer conv4
I0802 07:31:44.643265 13355 net.cpp:425] conv4 <- conv3
I0802 07:31:44.643275 13355 net.cpp:399] conv4 -> conv4
I0802 07:31:44.647267 13355 net.cpp:141] Setting up conv4
I0802 07:31:44.647284 13355 net.cpp:148] Top shape: 10 384 13 13 (648960)
I0802 07:31:44.647289 13355 net.cpp:156] Memory required for data: 61192760
I0802 07:31:44.647300 13355 layer_factory.hpp:77] Creating layer relu4
I0802 07:31:44.647308 13355 net.cpp:91] Creating Layer relu4
I0802 07:31:44.647313 13355 net.cpp:425] relu4 <- conv4
I0802 07:31:44.647320 13355 net.cpp:386] relu4 -> conv4 (in-place)
I0802 07:31:44.647766 13355 net.cpp:141] Setting up relu4
I0802 07:31:44.647778 13355 net.cpp:148] Top shape: 10 384 13 13 (648960)
I0802 07:31:44.647783 13355 net.cpp:156] Memory required for data: 63788600
I0802 07:31:44.647789 13355 layer_factory.hpp:77] Creating layer conv5
I0802 07:31:44.647804 13355 net.cpp:91] Creating Layer conv5
I0802 07:31:44.647809 13355 net.cpp:425] conv5 <- conv4
I0802 07:31:44.647816 13355 net.cpp:399] conv5 -> conv5
I0802 07:31:44.651684 13355 net.cpp:141] Setting up conv5
I0802 07:31:44.651700 13355 net.cpp:148] Top shape: 10 256 13 13 (432640)
I0802 07:31:44.651706 13355 net.cpp:156] Memory required for data: 65519160
I0802 07:31:44.651718 13355 layer_factory.hpp:77] Creating layer relu5
I0802 07:31:44.651727 13355 net.cpp:91] Creating Layer relu5
I0802 07:31:44.651732 13355 net.cpp:425] relu5 <- conv5
I0802 07:31:44.651738 13355 net.cpp:386] relu5 -> conv5 (in-place)
I0802 07:31:44.652197 13355 net.cpp:141] Setting up relu5
I0802 07:31:44.652210 13355 net.cpp:148] Top shape: 10 256 13 13 (432640)
I0802 07:31:44.652215 13355 net.cpp:156] Memory required for data: 67249720
I0802 07:31:44.652220 13355 layer_factory.hpp:77] Creating layer pool5
I0802 07:31:44.652230 13355 net.cpp:91] Creating Layer pool5
I0802 07:31:44.652235 13355 net.cpp:425] pool5 <- conv5
I0802 07:31:44.652245 13355 net.cpp:399] pool5 -> pool5
I0802 07:31:44.652302 13355 net.cpp:141] Setting up pool5
I0802 07:31:44.652312 13355 net.cpp:148] Top shape: 10 256 6 6 (92160)
I0802 07:31:44.652317 13355 net.cpp:156] Memory required for data: 67618360
I0802 07:31:44.652321 13355 layer_factory.hpp:77] Creating layer fc6
I0802 07:31:44.652339 13355 net.cpp:91] Creating Layer fc6
I0802 07:31:44.652344 13355 net.cpp:425] fc6 <- pool5
I0802 07:31:44.652354 13355 net.cpp:399] fc6 -> fc6
I0802 07:31:44.714275 13345 net.cpp:141] Setting up embed_encoder
I0802 07:31:44.714329 13345 net.cpp:148] Top shape: 1 500 (500)
I0802 07:31:44.714336 13345 net.cpp:156] Memory required for data: 18404
I0802 07:31:44.714361 13345 layer_factory.hpp:77] Creating layer reshape_frames
I0802 07:31:44.714397 13345 net.cpp:91] Creating Layer reshape_frames
I0802 07:31:44.714406 13345 net.cpp:425] reshape_frames <- embedded_in_frames
I0802 07:31:44.714418 13345 net.cpp:399] reshape_frames -> embedded_input_frames
I0802 07:31:44.714485 13345 net.cpp:141] Setting up reshape_frames
I0802 07:31:44.714494 13345 net.cpp:148] Top shape: 1 1 500 (500)
I0802 07:31:44.714499 13345 net.cpp:156] Memory required for data: 20404
I0802 07:31:44.714504 13345 layer_factory.hpp:77] Creating layer reshape_stage_indicator
I0802 07:31:44.714517 13345 net.cpp:91] Creating Layer reshape_stage_indicator
I0802 07:31:44.714522 13345 net.cpp:425] reshape_stage_indicator <- stage_indicator
I0802 07:31:44.714530 13345 net.cpp:399] reshape_stage_indicator -> reshaped_stage_indicator
I0802 07:31:44.714571 13345 net.cpp:141] Setting up reshape_stage_indicator
I0802 07:31:44.714581 13345 net.cpp:148] Top shape: 1 1 1 (1)
I0802 07:31:44.714586 13345 net.cpp:156] Memory required for data: 20408
I0802 07:31:44.714591 13345 layer_factory.hpp:77] Creating layer embedding
I0802 07:31:44.714603 13345 net.cpp:91] Creating Layer embedding
I0802 07:31:44.714608 13345 net.cpp:425] embedding <- input_sentence
I0802 07:31:44.714618 13345 net.cpp:399] embedding -> embedded_input_sentence
I0802 07:31:44.755992 13355 net.cpp:141] Setting up fc6
I0802 07:31:44.756052 13355 net.cpp:148] Top shape: 10 4096 (40960)
I0802 07:31:44.756058 13355 net.cpp:156] Memory required for data: 67782200
I0802 07:31:44.756074 13355 layer_factory.hpp:77] Creating layer relu6
I0802 07:31:44.756093 13355 net.cpp:91] Creating Layer relu6
I0802 07:31:44.756099 13355 net.cpp:425] relu6 <- fc6
I0802 07:31:44.756114 13355 net.cpp:386] relu6 -> fc6 (in-place)
I0802 07:31:44.756445 13355 net.cpp:141] Setting up relu6
I0802 07:31:44.756456 13355 net.cpp:148] Top shape: 10 4096 (40960)
I0802 07:31:44.756461 13355 net.cpp:156] Memory required for data: 67946040
I0802 07:31:44.756466 13355 layer_factory.hpp:77] Creating layer drop6
I0802 07:31:44.756477 13355 net.cpp:91] Creating Layer drop6
I0802 07:31:44.756482 13355 net.cpp:425] drop6 <- fc6
I0802 07:31:44.756489 13355 net.cpp:386] drop6 -> fc6 (in-place)
I0802 07:31:44.756541 13355 net.cpp:141] Setting up drop6
I0802 07:31:44.756551 13355 net.cpp:148] Top shape: 10 4096 (40960)
I0802 07:31:44.756556 13355 net.cpp:156] Memory required for data: 68109880
I0802 07:31:44.756561 13355 layer_factory.hpp:77] Creating layer fc7
I0802 07:31:44.756573 13355 net.cpp:91] Creating Layer fc7
I0802 07:31:44.756578 13355 net.cpp:425] fc7 <- fc6
I0802 07:31:44.756585 13355 net.cpp:399] fc7 -> fc7
I0802 07:31:44.802024 13355 net.cpp:141] Setting up fc7
I0802 07:31:44.802069 13355 net.cpp:148] Top shape: 10 4096 (40960)
I0802 07:31:44.802075 13355 net.cpp:156] Memory required for data: 68273720
I0802 07:31:44.802091 13355 layer_factory.hpp:77] Creating layer relu7
I0802 07:31:44.802114 13355 net.cpp:91] Creating Layer relu7
I0802 07:31:44.802122 13355 net.cpp:425] relu7 <- fc7
I0802 07:31:44.802131 13355 net.cpp:386] relu7 -> fc7 (in-place)
I0802 07:31:44.802908 13355 net.cpp:141] Setting up relu7
I0802 07:31:44.802920 13355 net.cpp:148] Top shape: 10 4096 (40960)
I0802 07:31:44.802925 13355 net.cpp:156] Memory required for data: 68437560
I0802 07:31:44.802930 13355 layer_factory.hpp:77] Creating layer drop7
I0802 07:31:44.802944 13355 net.cpp:91] Creating Layer drop7
I0802 07:31:44.802950 13355 net.cpp:425] drop7 <- fc7
I0802 07:31:44.802959 13355 net.cpp:386] drop7 -> fc7 (in-place)
I0802 07:31:44.802997 13355 net.cpp:141] Setting up drop7
I0802 07:31:44.803005 13355 net.cpp:148] Top shape: 10 4096 (40960)
I0802 07:31:44.803009 13355 net.cpp:156] Memory required for data: 68601400
I0802 07:31:44.803014 13355 layer_factory.hpp:77] Creating layer fc8
I0802 07:31:44.803030 13355 net.cpp:91] Creating Layer fc8
I0802 07:31:44.803035 13355 net.cpp:425] fc8 <- fc7
I0802 07:31:44.803041 13355 net.cpp:399] fc8 -> fc8
I0802 07:31:44.816540 13355 net.cpp:141] Setting up fc8
I0802 07:31:44.816591 13355 net.cpp:148] Top shape: 10 1000 (10000)
I0802 07:31:44.816598 13355 net.cpp:156] Memory required for data: 68641400
I0802 07:31:44.816617 13355 layer_factory.hpp:77] Creating layer prob
I0802 07:31:44.816633 13355 net.cpp:91] Creating Layer prob
I0802 07:31:44.816640 13355 net.cpp:425] prob <- fc8
I0802 07:31:44.816651 13355 net.cpp:399] prob -> prob
I0802 07:31:44.817155 13355 net.cpp:141] Setting up prob
I0802 07:31:44.817168 13355 net.cpp:148] Top shape: 10 1000 (10000)
I0802 07:31:44.817174 13355 net.cpp:156] Memory required for data: 68681400
I0802 07:31:44.817180 13355 net.cpp:219] prob does not need backward computation.
I0802 07:31:44.817185 13355 net.cpp:219] fc8 does not need backward computation.
I0802 07:31:44.817191 13355 net.cpp:219] drop7 does not need backward computation.
I0802 07:31:44.817196 13355 net.cpp:219] relu7 does not need backward computation.
…
I0802 07:31:44.817287 13355 net.cpp:219] norm1 does not need backward computation.
I0802 07:31:44.817292 13355 net.cpp:219] pool1 does not need backward computation.
I0802 07:31:44.817298 13355 net.cpp:219] relu1 does not need backward computation.
I0802 07:31:44.817303 13355 net.cpp:219] conv1 does not need backward computation.
I0802 07:31:44.817308 13355 net.cpp:219] data does not need backward computation.
I0802 07:31:44.817312 13355 net.cpp:261] This network produces output prob
I0802 07:31:44.817335 13355 net.cpp:274] Network initialization done.
I0802 07:31:44.944176 13345 net.cpp:141] Setting up embedding
I0802 07:31:44.944233 13345 net.cpp:148] Top shape: 1 1 500 (500)
I0802 07:31:44.944239 13345 net.cpp:156] Memory required for data: 22408
I0802 07:31:44.944259 13345 layer_factory.hpp:77] Creating layer lstm1
I0802 07:31:44.944283 13345 net.cpp:91] Creating Layer lstm1
I0802 07:31:44.944291 13345 net.cpp:425] lstm1 <- embedded_input_frames
I0802 07:31:44.944301 13345 net.cpp:425] lstm1 <- cont_sentence_input_1_split_0
I0802 07:31:44.944313 13345 net.cpp:399] lstm1 -> lstm1
I0802 07:31:44.944344 13345 recurrent_layer.cpp:20] Initializing recurrent layer: assuming input batch contains 1 timesteps of 1 independent streams.
I0802 07:31:44.944746 13345 net.cpp:49] Initializing net from parameters: 
layer {
  name: "lstm1_"
  type: "Input"
  top: "x"
  top: "cont"
  input_param {
    shape {
      dim: 1
      dim: 1
      dim: 500
    }
    shape {
      dim: 1
      dim: 1
    }
  }
}
layer {
  name: "lstm1_"
  type: "Input"
  top: "c_0"
  top: "h_0"
  input_param {
    shape {
      dim: 1
      dim: 1
      dim: 1000
    }
    shape {
      dim: 1
      dim: 1
      dim: 1000
    }
  }
}
layer {
  name: "lstm1_cont_slice"
  type: "Slice"
  bottom: "cont"
  top: "cont_1"
  slice_param {
    axis: 0
  }
}
layer {
  name: "lstm1_x_transform"
  type: "InnerProduct"
  bottom: "x"
  top: "W_xc_x"
  param {
    name: "W_xc"
  }
  param {
    name: "b_c"
  }
  propagate_down: true
  inner_product_param {
    num_output: 4000
    bias_term: true
    weight_filler {
      type: "uniform"
      min: -0.08
      max: 0.08
    }
    bias_filler {
      type: "constant"
      value: 0
    }
    axis: 2
  }
}
layer {
  name: "lstm1_W_xc_x_slice"
  type: "Slice"
  bottom: "W_xc_x"
  top: "W_xc_x_1"
  slice_param {
    axis: 0
  }
}
layer {
  name: "lstm1_h_conted_0"
  type: "Scale"
  bottom: "h_0"
  bottom: "cont_1"
  top: "h_conted_0"
  scale_param {
    axis: 0
  }
}
layer {
  name: "lstm1_transform_1"
  type: "InnerProduct"
  bottom: "h_conted_0"
  top: "W_hc_h_0"
  param {
    name: "W_hc"
  }
  inner_product_param {
    num_output: 4000
    bias_term: false
    weight_filler {
      type: "uniform"
      min: -0.08
      max: 0.08
    }
    axis: 2
  }
}
layer {
  name: "lstm1_gate_input_1"
  type: "Eltwise"
  bottom: "W_hc_h_0"
  bottom: "W_xc_x_1"
  top: "gate_input_1"
  eltwise_param {
    operation: SUM
  }
}
layer {
  name: "lstm1_unit_1"
  type: "LSTMUnit"
  bottom: "c_0"
  bottom: "gate_input_1"
  bottom: "cont_1"
  top: "c_1"
  top: "h_1"
}
layer {
  name: "lstm1_"
  type: "Split"
  bottom: "c_1"
  top: "c_T"
}
layer {
  name: "lstm1_h_concat"
  type: "Concat"
  bottom: "h_1"
  top: "h"
  concat_param {
    axis: 0
  }
}
layer {
  name: "h_pseudoloss"
  type: "Reduction"
  bottom: "h"
  top: "h_pseudoloss"
  loss_weight: 1
}
I0802 07:31:44.944842 13345 layer_factory.hpp:77] Creating layer lstm1_
I0802 07:31:44.944855 13345 net.cpp:91] Creating Layer lstm1_
I0802 07:31:44.944862 13345 net.cpp:399] lstm1_ -> x
I0802 07:31:44.944874 13345 net.cpp:399] lstm1_ -> cont
I0802 07:31:44.944936 13345 net.cpp:141] Setting up lstm1_
I0802 07:31:44.944947 13345 net.cpp:148] Top shape: 1 1 500 (500)
I0802 07:31:44.944952 13345 net.cpp:148] Top shape: 1 1 (1)
I0802 07:31:44.944957 13345 net.cpp:156] Memory required for data: 2004
I0802 07:31:44.944962 13345 layer_factory.hpp:77] Creating layer lstm1_
I0802 07:31:44.944970 13345 net.cpp:91] Creating Layer lstm1_
I0802 07:31:44.944979 13345 net.cpp:399] lstm1_ -> c_0
I0802 07:31:44.944989 13345 net.cpp:399] lstm1_ -> h_0
I0802 07:31:44.945040 13345 net.cpp:141] Setting up lstm1_
I0802 07:31:44.945050 13345 net.cpp:148] Top shape: 1 1 1000 (1000)
I0802 07:31:44.945055 13345 net.cpp:148] Top shape: 1 1 1000 (1000)
I0802 07:31:44.945060 13345 net.cpp:156] Memory required for data: 10004
I0802 07:31:44.945063 13345 layer_factory.hpp:77] Creating layer lstm1_cont_slice
I0802 07:31:44.945072 13345 net.cpp:91] Creating Layer lstm1_cont_slice
I0802 07:31:44.945077 13345 net.cpp:425] lstm1_cont_slice <- cont
I0802 07:31:44.945086 13345 net.cpp:399] lstm1_cont_slice -> cont_1
I0802 07:31:44.945121 13345 net.cpp:141] Setting up lstm1_cont_slice
I0802 07:31:44.945129 13345 net.cpp:148] Top shape: 1 1 (1)
I0802 07:31:44.945134 13345 net.cpp:156] Memory required for data: 10008
I0802 07:31:44.945138 13345 layer_factory.hpp:77] Creating layer cont_1_lstm1_cont_slice_0_split
I0802 07:31:44.945153 13345 net.cpp:91] Creating Layer cont_1_lstm1_cont_slice_0_split
I0802 07:31:44.945158 13345 net.cpp:425] cont_1_lstm1_cont_slice_0_split <- cont_1
I0802 07:31:44.945164 13345 net.cpp:399] cont_1_lstm1_cont_slice_0_split -> cont_1_lstm1_cont_slice_0_split_0
I0802 07:31:44.945176 13345 net.cpp:399] cont_1_lstm1_cont_slice_0_split -> cont_1_lstm1_cont_slice_0_split_1
I0802 07:31:44.945222 13345 net.cpp:141] Setting up cont_1_lstm1_cont_slice_0_split
I0802 07:31:44.945231 13345 net.cpp:148] Top shape: 1 1 (1)
I0802 07:31:44.945237 13345 net.cpp:148] Top shape: 1 1 (1)
I0802 07:31:44.945241 13345 net.cpp:156] Memory required for data: 10016
I0802 07:31:44.945245 13345 layer_factory.hpp:77] Creating layer lstm1_x_transform
I0802 07:31:44.945255 13345 net.cpp:91] Creating Layer lstm1_x_transform
I0802 07:31:44.945261 13345 net.cpp:425] lstm1_x_transform <- x
I0802 07:31:44.945267 13345 net.cpp:399] lstm1_x_transform -> W_xc_x
I0802 07:31:44.965142 13345 net.cpp:141] Setting up lstm1_x_transform
I0802 07:31:44.965188 13345 net.cpp:148] Top shape: 1 1 4000 (4000)
I0802 07:31:44.965193 13345 net.cpp:156] Memory required for data: 26016
I0802 07:31:44.965219 13345 layer_factory.hpp:77] Creating layer lstm1_W_xc_x_slice
I0802 07:31:44.965240 13345 net.cpp:91] Creating Layer lstm1_W_xc_x_slice
I0802 07:31:44.965247 13345 net.cpp:425] lstm1_W_xc_x_slice <- W_xc_x
I0802 07:31:44.965257 13345 net.cpp:399] lstm1_W_xc_x_slice -> W_xc_x_1
I0802 07:31:44.965303 13345 net.cpp:141] Setting up lstm1_W_xc_x_slice
I0802 07:31:44.965313 13345 net.cpp:148] Top shape: 1 1 4000 (4000)
I0802 07:31:44.965317 13345 net.cpp:156] Memory required for data: 42016
I0802 07:31:44.965322 13345 layer_factory.hpp:77] Creating layer lstm1_h_conted_0
I0802 07:31:44.965335 13345 net.cpp:91] Creating Layer lstm1_h_conted_0
I0802 07:31:44.965342 13345 net.cpp:425] lstm1_h_conted_0 <- h_0
I0802 07:31:44.965348 13345 net.cpp:425] lstm1_h_conted_0 <- cont_1_lstm1_cont_slice_0_split_0
I0802 07:31:44.965353 13345 net.cpp:399] lstm1_h_conted_0 -> h_conted_0
I0802 07:31:44.965457 13345 net.cpp:141] Setting up lstm1_h_conted_0
I0802 07:31:44.965467 13345 net.cpp:148] Top shape: 1 1 1000 (1000)
I0802 07:31:44.965471 13345 net.cpp:156] Memory required for data: 46016
I0802 07:31:44.965476 13345 layer_factory.hpp:77] Creating layer lstm1_transform_1
I0802 07:31:44.965492 13345 net.cpp:91] Creating Layer lstm1_transform_1
I0802 07:31:44.965497 13345 net.cpp:425] lstm1_transform_1 <- h_conted_0
I0802 07:31:44.965505 13345 net.cpp:399] lstm1_transform_1 -> W_hc_h_0
I0802 07:31:45.004058 13345 net.cpp:141] Setting up lstm1_transform_1
I0802 07:31:45.004106 13345 net.cpp:148] Top shape: 1 1 4000 (4000)
I0802 07:31:45.004111 13345 net.cpp:156] Memory required for data: 62016
I0802 07:31:45.004133 13345 layer_factory.hpp:77] Creating layer lstm1_gate_input_1
I0802 07:31:45.004158 13345 net.cpp:91] Creating Layer lstm1_gate_input_1
I0802 07:31:45.004165 13345 net.cpp:425] lstm1_gate_input_1 <- W_hc_h_0
I0802 07:31:45.004175 13345 net.cpp:425] lstm1_gate_input_1 <- W_xc_x_1
I0802 07:31:45.004184 13345 net.cpp:399] lstm1_gate_input_1 -> gate_input_1
I0802 07:31:45.004243 13345 net.cpp:141] Setting up lstm1_gate_input_1
I0802 07:31:45.004252 13345 net.cpp:148] Top shape: 1 1 4000 (4000)
I0802 07:31:45.004256 13345 net.cpp:156] Memory required for data: 78016
I0802 07:31:45.004261 13345 layer_factory.hpp:77] Creating layer lstm1_unit_1
I0802 07:31:45.004271 13345 net.cpp:91] Creating Layer lstm1_unit_1
I0802 07:31:45.004274 13345 net.cpp:425] lstm1_unit_1 <- c_0
I0802 07:31:45.004281 13345 net.cpp:425] lstm1_unit_1 <- gate_input_1
I0802 07:31:45.004287 13345 net.cpp:425] lstm1_unit_1 <- cont_1_lstm1_cont_slice_0_split_1
I0802 07:31:45.004293 13345 net.cpp:399] lstm1_unit_1 -> c_1
I0802 07:31:45.004302 13345 net.cpp:399] lstm1_unit_1 -> h_1
I0802 07:31:45.004362 13345 net.cpp:141] Setting up lstm1_unit_1
I0802 07:31:45.004371 13345 net.cpp:148] Top shape: 1 1 1000 (1000)
I0802 07:31:45.004377 13345 net.cpp:148] Top shape: 1 1 1000 (1000)
I0802 07:31:45.004381 13345 net.cpp:156] Memory required for data: 86016
I0802 07:31:45.004386 13345 layer_factory.hpp:77] Creating layer lstm1_
I0802 07:31:45.004397 13345 net.cpp:91] Creating Layer lstm1_
I0802 07:31:45.004402 13345 net.cpp:425] lstm1_ <- c_1
I0802 07:31:45.004410 13345 net.cpp:399] lstm1_ -> c_T
I0802 07:31:45.004439 13345 net.cpp:141] Setting up lstm1_
I0802 07:31:45.004447 13345 net.cpp:148] Top shape: 1 1 1000 (1000)
I0802 07:31:45.004451 13345 net.cpp:156] Memory required for data: 90016
I0802 07:31:45.004456 13345 layer_factory.hpp:77] Creating layer lstm1_h_concat
I0802 07:31:45.004477 13345 net.cpp:91] Creating Layer lstm1_h_concat
I0802 07:31:45.004482 13345 net.cpp:425] lstm1_h_concat <- h_1
I0802 07:31:45.004492 13345 net.cpp:399] lstm1_h_concat -> h
I0802 07:31:45.004526 13345 net.cpp:141] Setting up lstm1_h_concat
I0802 07:31:45.004535 13345 net.cpp:148] Top shape: 1 1 1000 (1000)
I0802 07:31:45.004539 13345 net.cpp:156] Memory required for data: 94016
I0802 07:31:45.004544 13345 layer_factory.hpp:77] Creating layer h_pseudoloss
I0802 07:31:45.004559 13345 net.cpp:91] Creating Layer h_pseudoloss
I0802 07:31:45.004564 13345 net.cpp:425] h_pseudoloss <- h
I0802 07:31:45.004570 13345 net.cpp:399] h_pseudoloss -> h_pseudoloss
I0802 07:31:45.004662 13345 net.cpp:141] Setting up h_pseudoloss
…
I0802 07:31:45.004786 13345 net.cpp:219] lstm1_ does not need backward computation.
I0802 07:31:45.004791 13345 net.cpp:261] This network produces output c_T
I0802 07:31:45.004796 13345 net.cpp:261] This network produces output h_pseudoloss
I0802 07:31:45.004808 13345 net.cpp:274] Network initialization done.
I0802 07:31:45.004863 13345 recurrent_layer.cpp:150] Adding parameter 0: W_xc
I0802 07:31:45.004870 13345 recurrent_layer.cpp:150] Adding parameter 1: b_c
I0802 07:31:45.004875 13345 recurrent_layer.cpp:150] Adding parameter 2: W_hc
I0802 07:31:45.004978 13345 net.cpp:141] Setting up lstm1
I0802 07:31:45.004990 13345 net.cpp:148] Top shape: 1 1 1000 (1000)
I0802 07:31:45.004995 13345 net.cpp:156] Memory required for data: 26408
I0802 07:31:45.005007 13345 layer_factory.hpp:77] Creating layer concat
I0802 07:31:45.005017 13345 net.cpp:91] Creating Layer concat
I0802 07:31:45.005023 13345 net.cpp:425] concat <- lstm1
I0802 07:31:45.005029 13345 net.cpp:425] concat <- embedded_input_sentence
I0802 07:31:45.005035 13345 net.cpp:425] concat <- reshaped_stage_indicator
I0802 07:31:45.005041 13345 net.cpp:399] concat -> lstm1_video_sequence
I0802 07:31:45.005074 13345 net.cpp:141] Setting up concat
I0802 07:31:45.005084 13345 net.cpp:148] Top shape: 1 1 1501 (1501)
I0802 07:31:45.005087 13345 net.cpp:156] Memory required for data: 32412
I0802 07:31:45.005092 13345 layer_factory.hpp:77] Creating layer lstm2
I0802 07:31:45.005105 13345 net.cpp:91] Creating Layer lstm2
I0802 07:31:45.005110 13345 net.cpp:425] lstm2 <- lstm1_video_sequence
I0802 07:31:45.005117 13345 net.cpp:425] lstm2 <- cont_sentence_input_1_split_1
I0802 07:31:45.005123 13345 net.cpp:399] lstm2 -> lstm2
I0802 07:31:45.005134 13345 recurrent_layer.cpp:20] Initializing recurrent layer: assuming input batch contains 1 timesteps of 1 independent streams.
I0802 07:31:45.005411 13345 net.cpp:49] Initializing net from parameters: 
layer {
  name: "lstm2_"
  type: "Input"
  top: "x"
  top: "cont"
  input_param {
    shape {
      dim: 1
      dim: 1
      dim: 1501
    }
    shape {
      dim: 1
      dim: 1
    }
  }
}
layer {
  name: "lstm2_"
  type: "Input"
  top: "c_0"
  top: "h_0"
  input_param {
    shape {
      dim: 1
      dim: 1
      dim: 1000
    }
    shape {
      dim: 1
      dim: 1
      dim: 1000
    }
  }
}
layer {
  name: "lstm2_cont_slice"
  type: "Slice"
  bottom: "cont"
  top: "cont_1"
  slice_param {
    axis: 0
  }
}
layer {
  name: "lstm2_x_transform"
  type: "InnerProduct"
  bottom: "x"
  top: "W_xc_x"
  param {
    name: "W_xc"
  }
  param {
    name: "b_c"
  }
  propagate_down: true
  inner_product_param {
    num_output: 4000
    bias_term: true
    weight_filler {
      type: "uniform"
      min: -0.08
      max: 0.08
    }
    bias_filler {
      type: "constant"
      value: 0
    }
    axis: 2
  }
}
layer {
  name: "lstm2_W_xc_x_slice"
  type: "Slice"
  bottom: "W_xc_x"
  top: "W_xc_x_1"
  slice_param {
    axis: 0
  }
}
layer {
  name: "lstm2_h_conted_0"
  type: "Scale"
  bottom: "h_0"
  bottom: "cont_1"
  top: "h_conted_0"
  scale_param {
    axis: 0
  }
}
layer {
  name: "lstm2_transform_1"
  type: "InnerProduct"
  bottom: "h_conted_0"
  top: "W_hc_h_0"
  param {
    name: "W_hc"
  }
  inner_product_param {
    num_output: 4000
    bias_term: false
    weight_filler {
      type: "uniform"
      min: -0.08
      max: 0.08
    }
    axis: 2
  }
}
layer {
  name: "lstm2_gate_input_1"
  type: "Eltwise"
  bottom: "W_hc_h_0"
  bottom: "W_xc_x_1"
  top: "gate_input_1"
  eltwise_param {
    operation: SUM
  }
}
layer {
  name: "lstm2_unit_1"
  type: "LSTMUnit"
  bottom: "c_0"
  bottom: "gate_input_1"
  bottom: "cont_1"
  top: "c_1"
  top: "h_1"
}
layer {
  name: "lstm2_"
  type: "Split"
  bottom: "c_1"
  top: "c_T"
}
layer {
  name: "lstm2_h_concat"
  type: "Concat"
  bottom: "h_1"
  top: "h"
  concat_param {
    axis: 0
  }
}
layer {
  name: "h_pseudoloss"
  type: "Reduction"
  bottom: "h"
  top: "h_pseudoloss"
  loss_weight: 1
}
I0802 07:31:45.005497 13345 layer_factory.hpp:77] Creating layer lstm2_
I0802 07:31:45.005509 13345 net.cpp:91] Creating Layer lstm2_
I0802 07:31:45.005517 13345 net.cpp:399] lstm2_ -> x
I0802 07:31:45.005527 13345 net.cpp:399] lstm2_ -> cont
I0802 07:31:45.005584 13345 net.cpp:141] Setting up lstm2_
I0802 07:31:45.005594 13345 net.cpp:148] Top shape: 1 1 1501 (1501)
I0802 07:31:45.005600 13345 net.cpp:148] Top shape: 1 1 (1)
I0802 07:31:45.005604 13345 net.cpp:156] Memory required for data: 6008
I0802 07:31:45.005609 13345 layer_factory.hpp:77] Creating layer lstm2_
I0802 07:31:45.005619 13345 net.cpp:91] Creating Layer lstm2_
I0802 07:31:45.005626 13345 net.cpp:399] lstm2_ -> c_0
I0802 07:31:45.005636 13345 net.cpp:399] lstm2_ -> h_0
I0802 07:31:45.005686 13345 net.cpp:141] Setting up lstm2_
I0802 07:31:45.005695 13345 net.cpp:148] Top shape: 1 1 1000 (1000)
I0802 07:31:45.005702 13345 net.cpp:148] Top shape: 1 1 1000 (1000)
I0802 07:31:45.005705 13345 net.cpp:156] Memory required for data: 14008
I0802 07:31:45.005709 13345 layer_factory.hpp:77] Creating layer lstm2_cont_slice
I0802 07:31:45.005718 13345 net.cpp:91] Creating Layer lstm2_cont_slice
I0802 07:31:45.005722 13345 net.cpp:425] lstm2_cont_slice <- cont
I0802 07:31:45.005729 13345 net.cpp:399] lstm2_cont_slice -> cont_1
I0802 07:31:45.005764 13345 net.cpp:141] Setting up lstm2_cont_slice
I0802 07:31:45.005774 13345 net.cpp:148] Top shape: 1 1 (1)
I0802 07:31:45.005777 13345 net.cpp:156] Memory required for data: 14012
I0802 07:31:45.005782 13345 layer_factory.hpp:77] Creating layer cont_1_lstm2_cont_slice_0_split
I0802 07:31:45.005791 13345 net.cpp:91] Creating Layer cont_1_lstm2_cont_slice_0_split
I0802 07:31:45.005795 13345 net.cpp:425] cont_1_lstm2_cont_slice_0_split <- cont_1
I0802 07:31:45.005802 13345 net.cpp:399] cont_1_lstm2_cont_slice_0_split -> cont_1_lstm2_cont_slice_0_split_0
I0802 07:31:45.005810 13345 net.cpp:399] cont_1_lstm2_cont_slice_0_split -> cont_1_lstm2_cont_slice_0_split_1
I0802 07:31:45.005857 13345 net.cpp:141] Setting up cont_1_lstm2_cont_slice_0_split
I0802 07:31:45.005866 13345 net.cpp:148] Top shape: 1 1 (1)
I0802 07:31:45.005872 13345 net.cpp:148] Top shape: 1 1 (1)
I0802 07:31:45.005875 13345 net.cpp:156] Memory required for data: 14020
I0802 07:31:45.005879 13345 layer_factory.hpp:77] Creating layer lstm2_x_transform
I0802 07:31:45.005889 13345 net.cpp:91] Creating Layer lstm2_x_transform
I0802 07:31:45.005894 13345 net.cpp:425] lstm2_x_transform <- x
I0802 07:31:45.005904 13345 net.cpp:399] lstm2_x_transform -> W_xc_x
I0802 07:31:45.067701 13355 upgrade_proto.cpp:43] Attempting to upgrade input file specified using deprecated transformation parameters: /tmp/cvld8871657692846150495/bvlc_reference_caffenet.caffemodel
I0802 07:31:45.067749 13355 upgrade_proto.cpp:46] Successfully upgraded file specified using deprecated data transformation parameters.
W0802 07:31:45.067754 13355 upgrade_proto.cpp:48] Note that future Caffe releases will only support transform_param messages for transformation fields.
I0802 07:31:45.067759 13355 upgrade_proto.cpp:52] Attempting to upgrade input file specified using deprecated V1LayerParameter: /tmp/cvld8871657692846150495/bvlc_reference_caffenet.caffemodel
I0802 07:31:45.071890 13345 net.cpp:141] Setting up lstm2_x_transform
I0802 07:31:45.071936 13345 net.cpp:148] Top shape: 1 1 4000 (4000)
I0802 07:31:45.071943 13345 net.cpp:156] Memory required for data: 30020
I0802 07:31:45.071964 13345 layer_factory.hpp:77] Creating layer lstm2_W_xc_x_slice
I0802 07:31:45.071982 13345 net.cpp:91] Creating Layer lstm2_W_xc_x_slice
I0802 07:31:45.071990 13345 net.cpp:425] lstm2_W_xc_x_slice <- W_xc_x
I0802 07:31:45.072012 13345 net.cpp:399] lstm2_W_xc_x_slice -> W_xc_x_1
I0802 07:31:45.072063 13345 net.cpp:141] Setting up lstm2_W_xc_x_slice
I0802 07:31:45.072077 13345 net.cpp:148] Top shape: 1 1 4000 (4000)
I0802 07:31:45.072082 13345 net.cpp:156] Memory required for data: 46020
I0802 07:31:45.072087 13345 layer_factory.hpp:77] Creating layer lstm2_h_conted_0
I0802 07:31:45.072098 13345 net.cpp:91] Creating Layer lstm2_h_conted_0
I0802 07:31:45.072104 13345 net.cpp:425] lstm2_h_conted_0 <- h_0
I0802 07:31:45.072111 13345 net.cpp:425] lstm2_h_conted_0 <- cont_1_lstm2_cont_slice_0_split_0
I0802 07:31:45.072125 13345 net.cpp:399] lstm2_h_conted_0 -> h_conted_0
I0802 07:31:45.072237 13345 net.cpp:141] Setting up lstm2_h_conted_0
I0802 07:31:45.072248 13345 net.cpp:148] Top shape: 1 1 1000 (1000)
I0802 07:31:45.072253 13345 net.cpp:156] Memory required for data: 50020
I0802 07:31:45.072258 13345 layer_factory.hpp:77] Creating layer lstm2_transform_1
I0802 07:31:45.072273 13345 net.cpp:91] Creating Layer lstm2_transform_1
I0802 07:31:45.072278 13345 net.cpp:425] lstm2_transform_1 <- h_conted_0
I0802 07:31:45.072290 13345 net.cpp:399] lstm2_transform_1 -> W_hc_h_0
I0802 07:31:45.119384 13345 net.cpp:141] Setting up lstm2_transform_1
I0802 07:31:45.119439 13345 net.cpp:148] Top shape: 1 1 4000 (4000)
I0802 07:31:45.119446 13345 net.cpp:156] Memory required for data: 66020
I0802 07:31:45.119467 13345 layer_factory.hpp:77] Creating layer lstm2_gate_input_1
I0802 07:31:45.119491 13345 net.cpp:91] Creating Layer lstm2_gate_input_1
I0802 07:31:45.119500 13345 net.cpp:425] lstm2_gate_input_1 <- W_hc_h_0
I0802 07:31:45.119509 13345 net.cpp:425] lstm2_gate_input_1 <- W_xc_x_1
I0802 07:31:45.119518 13345 net.cpp:399] lstm2_gate_input_1 -> gate_input_1
I0802 07:31:45.119576 13345 net.cpp:141] Setting up lstm2_gate_input_1
I0802 07:31:45.119586 13345 net.cpp:148] Top shape: 1 1 4000 (4000)
I0802 07:31:45.119592 13345 net.cpp:156] Memory required for data: 82020
I0802 07:31:45.119597 13345 layer_factory.hpp:77] Creating layer lstm2_unit_1
I0802 07:31:45.119608 13345 net.cpp:91] Creating Layer lstm2_unit_1
I0802 07:31:45.119613 13345 net.cpp:425] lstm2_unit_1 <- c_0
I0802 07:31:45.119621 13345 net.cpp:425] lstm2_unit_1 <- gate_input_1
I0802 07:31:45.119626 13345 net.cpp:425] lstm2_unit_1 <- cont_1_lstm2_cont_slice_0_split_1
I0802 07:31:45.119637 13345 net.cpp:399] lstm2_unit_1 -> c_1
I0802 07:31:45.119647 13345 net.cpp:399] lstm2_unit_1 -> h_1
I0802 07:31:45.119719 13345 net.cpp:141] Setting up lstm2_unit_1
I0802 07:31:45.119729 13345 net.cpp:148] Top shape: 1 1 1000 (1000)
I0802 07:31:45.119735 13345 net.cpp:148] Top shape: 1 1 1000 (1000)
I0802 07:31:45.119740 13345 net.cpp:156] Memory required for data: 90020
I0802 07:31:45.119745 13345 layer_factory.hpp:77] Creating layer lstm2_
I0802 07:31:45.119755 13345 net.cpp:91] Creating Layer lstm2_
I0802 07:31:45.119760 13345 net.cpp:425] lstm2_ <- c_1
I0802 07:31:45.119766 13345 net.cpp:399] lstm2_ -> c_T
I0802 07:31:45.119803 13345 net.cpp:141] Setting up lstm2_
I0802 07:31:45.119813 13345 net.cpp:148] Top shape: 1 1 1000 (1000)
I0802 07:31:45.119818 13345 net.cpp:156] Memory required for data: 94020
I0802 07:31:45.119823 13345 layer_factory.hpp:77] Creating layer lstm2_h_concat
I0802 07:31:45.119834 13345 net.cpp:91] Creating Layer lstm2_h_concat
I0802 07:31:45.119840 13345 net.cpp:425] lstm2_h_concat <- h_1
I0802 07:31:45.119848 13345 net.cpp:399] lstm2_h_concat -> h
I0802 07:31:45.119897 13345 net.cpp:141] Setting up lstm2_h_concat
I0802 07:31:45.119907 13345 net.cpp:148] Top shape: 1 1 1000 (1000)
I0802 07:31:45.119912 13345 net.cpp:156] Memory required for data: 98020
I0802 07:31:45.119917 13345 layer_factory.hpp:77] Creating layer h_pseudoloss
I0802 07:31:45.119928 13345 net.cpp:91] Creating Layer h_pseudoloss
I0802 07:31:45.119933 13345 net.cpp:425] h_pseudoloss <- h
I0802 07:31:45.119940 13345 net.cpp:399] h_pseudoloss -> h_pseudoloss
I0802 07:31:45.120048 13345 net.cpp:141] Setting up h_pseudoloss
…
