…
2016-08-02 07:31:44.648 STDERR [INFO] I0802 07:31:44.627336 13345 net.cpp:91] Creating Layer input
2016-08-02 07:31:44.648 STDERR [INFO] I0802 07:31:44.627351 13345 net.cpp:399] input -> frames_fc7
2016-08-02 07:31:44.649 STDERR [INFO] I0802 07:31:44.627377 13345 net.cpp:399] input -> cont_sentence
2016-08-02 07:31:44.649 STDERR [INFO] I0802 07:31:44.627398 13345 net.cpp:399] input -> input_sentence
2016-08-02 07:31:44.649 STDERR [INFO] I0802 07:31:44.627411 13345 net.cpp:399] input -> stage_indicator
2016-08-02 07:31:44.649 STDERR [INFO] I0802 07:31:44.627748 13345 net.cpp:141] Setting up input
2016-08-02 07:31:44.649 STDERR [INFO] I0802 07:31:44.627764 13345 net.cpp:148] Top shape: 1 4096 (4096)
2016-08-02 07:31:44.649 STDERR [INFO] I0802 07:31:44.627773 13345 net.cpp:148] Top shape: 1 1 (1)
2016-08-02 07:31:44.649 STDERR [INFO] I0802 07:31:44.627779 13345 net.cpp:148] Top shape: 1 1 (1)
2016-08-02 07:31:44.649 STDERR [INFO] I0802 07:31:44.627785 13345 net.cpp:148] Top shape: 1 1 (1)
2016-08-02 07:31:44.649 STDERR [INFO] I0802 07:31:44.627789 13345 net.cpp:156] Memory required for data: 16396
2016-08-02 07:31:44.649 STDERR [INFO] I0802 07:31:44.627795 13345 layer_factory.hpp:77] Creating layer cont_sentence_input_1_split
2016-08-02 07:31:44.649 STDERR [INFO] I0802 07:31:44.627816 13345 net.cpp:91] Creating Layer cont_sentence_input_1_split
2016-08-02 07:31:44.650 STDERR [INFO] I0802 07:31:44.627822 13345 net.cpp:425] cont_sentence_input_1_split <- cont_sentence
2016-08-02 07:31:44.650 STDERR [INFO] I0802 07:31:44.627821 13355 net.cpp:141] Setting up relu1
2016-08-02 07:31:44.650 STDERR [INFO] I0802 07:31:44.627836 13355 net.cpp:148] Top shape: 10 96 55 55 (2904000)
2016-08-02 07:31:44.650 STDERR [INFO] I0802 07:31:44.627842 13355 net.cpp:156] Memory required for data: 29415480
2016-08-02 07:31:44.650 STDERR [INFO] I0802 07:31:44.627848 13345 net.cpp:399] cont_sentence_input_1_split -> cont_sentence_input_1_split_0
2016-08-02 07:31:44.650 STDERR [INFO] I0802 07:31:44.627848 13355 layer_factory.hpp:77] Creating layer pool1
2016-08-02 07:31:44.650 STDERR [INFO] I0802 07:31:44.627863 13345 net.cpp:399] cont_sentence_input_1_split -> cont_sentence_input_1_split_1
2016-08-02 07:31:44.650 STDERR [INFO] I0802 07:31:44.627872 13355 net.cpp:91] Creating Layer pool1
2016-08-02 07:31:44.650 STDERR [INFO] I0802 07:31:44.627881 13355 net.cpp:425] pool1 <- conv1
2016-08-02 07:31:44.650 STDERR [INFO] I0802 07:31:44.627888 13355 net.cpp:399] pool1 -> pool1
2016-08-02 07:31:44.651 STDERR [INFO] I0802 07:31:44.627938 13345 net.cpp:141] Setting up cont_sentence_input_1_split
2016-08-02 07:31:44.651 STDERR [INFO] I0802 07:31:44.627950 13345 net.cpp:148] Top shape: 1 1 (1)
2016-08-02 07:31:44.651 STDERR [INFO] I0802 07:31:44.627956 13345 net.cpp:148] Top shape: 1 1 (1)
2016-08-02 07:31:44.651 STDERR [INFO] I0802 07:31:44.627961 13345 net.cpp:156] Memory required for data: 16404
2016-08-02 07:31:44.651 STDERR [INFO] I0802 07:31:44.627967 13345 layer_factory.hpp:77] Creating layer embed_encoder
2016-08-02 07:31:44.651 STDERR [INFO] I0802 07:31:44.627985 13345 net.cpp:91] Creating Layer embed_encoder
2016-08-02 07:31:44.651 STDERR [INFO] I0802 07:31:44.627990 13345 net.cpp:425] embed_encoder <- frames_fc7
2016-08-02 07:31:44.652 STDERR [INFO] I0802 07:31:44.628001 13355 net.cpp:141] Setting up pool1
2016-08-02 07:31:44.652 STDERR [INFO] I0802 07:31:44.628002 13345 net.cpp:399] embed_encoder -> embedded_in_frames
2016-08-02 07:31:44.652 STDERR [INFO] I0802 07:31:44.628026 13355 net.cpp:148] Top shape: 10 96 27 27 (699840)
2016-08-02 07:31:44.652 STDERR [INFO] I0802 07:31:44.628031 13355 net.cpp:156] Memory required for data: 32214840
2016-08-02 07:31:44.653 STDERR [INFO] I0802 07:31:44.628036 13355 layer_factory.hpp:77] Creating layer norm1
2016-08-02 07:31:44.653 STDERR [INFO] I0802 07:31:44.628056 13355 net.cpp:91] Creating Layer norm1
2016-08-02 07:31:44.653 STDERR [INFO] I0802 07:31:44.628060 13355 net.cpp:425] norm1 <- pool1
2016-08-02 07:31:44.653 STDERR [INFO] I0802 07:31:44.628068 13355 net.cpp:399] norm1 -> norm1
2016-08-02 07:31:44.653 STDERR [INFO] I0802 07:31:44.634243 13355 net.cpp:141] Setting up norm1
2016-08-02 07:31:44.653 STDERR [INFO] I0802 07:31:44.634258 13355 net.cpp:148] Top shape: 10 96 27 27 (699840)
2016-08-02 07:31:44.653 STDERR [INFO] I0802 07:31:44.634263 13355 net.cpp:156] Memory required for data: 35014200
2016-08-02 07:31:44.653 STDERR [INFO] I0802 07:31:44.634268 13355 layer_factory.hpp:77] Creating layer conv2
2016-08-02 07:31:44.653 STDERR [INFO] I0802 07:31:44.634285 13355 net.cpp:91] Creating Layer conv2
2016-08-02 07:31:44.653 STDERR [INFO] I0802 07:31:44.634291 13355 net.cpp:425] conv2 <- norm1
2016-08-02 07:31:44.653 STDERR [INFO] I0802 07:31:44.634299 13355 net.cpp:399] conv2 -> conv2
2016-08-02 07:31:44.653 STDERR [INFO] I0802 07:31:44.638159 13355 net.cpp:141] Setting up conv2
2016-08-02 07:31:44.654 STDERR [INFO] I0802 07:31:44.638176 13355 net.cpp:148] Top shape: 10 256 27 27 (1866240)
2016-08-02 07:31:44.654 STDERR [INFO] I0802 07:31:44.638181 13355 net.cpp:156] Memory required for data: 42479160
2016-08-02 07:31:44.654 STDERR [INFO] I0802 07:31:44.638195 13355 layer_factory.hpp:77] Creating layer relu2
2016-08-02 07:31:44.654 STDERR [INFO] I0802 07:31:44.638205 13355 net.cpp:91] Creating Layer relu2
2016-08-02 07:31:44.654 STDERR [INFO] I0802 07:31:44.638211 13355 net.cpp:425] relu2 <- conv2
2016-08-02 07:31:44.654 STDERR [INFO] I0802 07:31:44.638217 13355 net.cpp:386] relu2 -> conv2 (in-place)
2016-08-02 07:31:44.654 STDERR [INFO] I0802 07:31:44.638648 13355 net.cpp:141] Setting up relu2
2016-08-02 07:31:44.654 STDERR [INFO] I0802 07:31:44.638660 13355 net.cpp:148] Top shape: 10 256 27 27 (1866240)
2016-08-02 07:31:44.654 STDERR [INFO] I0802 07:31:44.638666 13355 net.cpp:156] Memory required for data: 49944120
2016-08-02 07:31:44.654 STDERR [INFO] I0802 07:31:44.638671 13355 layer_factory.hpp:77] Creating layer pool2
2016-08-02 07:31:44.654 STDERR [INFO] I0802 07:31:44.638681 13355 net.cpp:91] Creating Layer pool2
2016-08-02 07:31:44.654 STDERR [INFO] I0802 07:31:44.638687 13355 net.cpp:425] pool2 <- conv2
2016-08-02 07:31:44.655 STDERR [INFO] I0802 07:31:44.638695 13355 net.cpp:399] pool2 -> pool2
2016-08-02 07:31:44.655 STDERR [INFO] I0802 07:31:44.638746 13355 net.cpp:141] Setting up pool2
2016-08-02 07:31:44.655 STDERR [INFO] I0802 07:31:44.638756 13355 net.cpp:148] Top shape: 10 256 13 13 (432640)
2016-08-02 07:31:44.655 STDERR [INFO] I0802 07:31:44.638761 13355 net.cpp:156] Memory required for data: 51674680
2016-08-02 07:31:44.655 STDERR [INFO] I0802 07:31:44.638764 13355 layer_factory.hpp:77] Creating layer norm2
2016-08-02 07:31:44.655 STDERR [INFO] I0802 07:31:44.638775 13355 net.cpp:91] Creating Layer norm2
2016-08-02 07:31:44.655 STDERR [INFO] I0802 07:31:44.638780 13355 net.cpp:425] norm2 <- pool2
2016-08-02 07:31:44.655 STDERR [INFO] I0802 07:31:44.638788 13355 net.cpp:399] norm2 -> norm2
2016-08-02 07:31:44.655 STDERR [INFO] I0802 07:31:44.639021 13355 net.cpp:141] Setting up norm2
2016-08-02 07:31:44.655 STDERR [INFO] I0802 07:31:44.639032 13355 net.cpp:148] Top shape: 10 256 13 13 (432640)
2016-08-02 07:31:44.655 STDERR [INFO] I0802 07:31:44.639037 13355 net.cpp:156] Memory required for data: 53405240
2016-08-02 07:31:44.656 STDERR [INFO] I0802 07:31:44.639042 13355 layer_factory.hpp:77] Creating layer conv3
2016-08-02 07:31:44.656 STDERR [INFO] I0802 07:31:44.639055 13355 net.cpp:91] Creating Layer conv3
2016-08-02 07:31:44.656 STDERR [INFO] I0802 07:31:44.639060 13355 net.cpp:425] conv3 <- norm2
2016-08-02 07:31:44.656 STDERR [INFO] I0802 07:31:44.639068 13355 net.cpp:399] conv3 -> conv3
2016-08-02 07:31:44.656 STDERR [INFO] I0802 07:31:44.642722 13355 net.cpp:141] Setting up conv3
2016-08-02 07:31:44.656 STDERR [INFO] I0802 07:31:44.642737 13355 net.cpp:148] Top shape: 10 384 13 13 (648960)
2016-08-02 07:31:44.656 STDERR [INFO] I0802 07:31:44.642742 13355 net.cpp:156] Memory required for data: 56001080
2016-08-02 07:31:44.656 STDERR [INFO] I0802 07:31:44.642755 13355 layer_factory.hpp:77] Creating layer relu3
2016-08-02 07:31:44.656 STDERR [INFO] I0802 07:31:44.642768 13355 net.cpp:91] Creating Layer relu3
2016-08-02 07:31:44.656 STDERR [INFO] I0802 07:31:44.642774 13355 net.cpp:425] relu3 <- conv3
2016-08-02 07:31:44.656 STDERR [INFO] I0802 07:31:44.642781 13355 net.cpp:386] relu3 -> conv3 (in-place)
2016-08-02 07:31:44.656 STDERR [INFO] I0802 07:31:44.643223 13355 net.cpp:141] Setting up relu3
2016-08-02 07:31:44.657 STDERR [INFO] I0802 07:31:44.643235 13355 net.cpp:148] Top shape: 10 384 13 13 (648960)
2016-08-02 07:31:44.657 STDERR [INFO] I0802 07:31:44.643239 13355 net.cpp:156] Memory required for data: 58596920
2016-08-02 07:31:44.657 STDERR [INFO] I0802 07:31:44.643244 13355 layer_factory.hpp:77] Creating layer conv4
2016-08-02 07:31:44.657 STDERR [INFO] I0802 07:31:44.643260 13355 net.cpp:91] Creating Layer conv4
2016-08-02 07:31:44.657 STDERR [INFO] I0802 07:31:44.643265 13355 net.cpp:425] conv4 <- conv3
2016-08-02 07:31:44.657 STDERR [INFO] I0802 07:31:44.643275 13355 net.cpp:399] conv4 -> conv4
2016-08-02 07:31:44.657 STDERR [INFO] I0802 07:31:44.647267 13355 net.cpp:141] Setting up conv4
2016-08-02 07:31:44.657 STDERR [INFO] I0802 07:31:44.647284 13355 net.cpp:148] Top shape: 10 384 13 13 (648960)
2016-08-02 07:31:44.657 STDERR [INFO] I0802 07:31:44.647289 13355 net.cpp:156] Memory required for data: 61192760
2016-08-02 07:31:44.657 STDERR [INFO] I0802 07:31:44.647300 13355 layer_factory.hpp:77] Creating layer relu4
2016-08-02 07:31:44.657 STDERR [INFO] I0802 07:31:44.647308 13355 net.cpp:91] Creating Layer relu4
2016-08-02 07:31:44.657 STDERR [INFO] I0802 07:31:44.647313 13355 net.cpp:425] relu4 <- conv4
2016-08-02 07:31:44.658 STDERR [INFO] I0802 07:31:44.647320 13355 net.cpp:386] relu4 -> conv4 (in-place)
2016-08-02 07:31:44.658 STDERR [INFO] I0802 07:31:44.647766 13355 net.cpp:141] Setting up relu4
2016-08-02 07:31:44.658 STDERR [INFO] I0802 07:31:44.647778 13355 net.cpp:148] Top shape: 10 384 13 13 (648960)
2016-08-02 07:31:44.658 STDERR [INFO] I0802 07:31:44.647783 13355 net.cpp:156] Memory required for data: 63788600
2016-08-02 07:31:44.658 STDERR [INFO] I0802 07:31:44.647789 13355 layer_factory.hpp:77] Creating layer conv5
2016-08-02 07:31:44.658 STDERR [INFO] I0802 07:31:44.647804 13355 net.cpp:91] Creating Layer conv5
2016-08-02 07:31:44.658 STDERR [INFO] I0802 07:31:44.647809 13355 net.cpp:425] conv5 <- conv4
2016-08-02 07:31:44.658 STDERR [INFO] I0802 07:31:44.647816 13355 net.cpp:399] conv5 -> conv5
2016-08-02 07:31:44.658 STDERR [INFO] I0802 07:31:44.651684 13355 net.cpp:141] Setting up conv5
2016-08-02 07:31:44.659 STDERR [INFO] I0802 07:31:44.651700 13355 net.cpp:148] Top shape: 10 256 13 13 (432640)
2016-08-02 07:31:44.659 STDERR [INFO] I0802 07:31:44.651706 13355 net.cpp:156] Memory required for data: 65519160
2016-08-02 07:31:44.659 STDERR [INFO] I0802 07:31:44.651718 13355 layer_factory.hpp:77] Creating layer relu5
2016-08-02 07:31:44.659 STDERR [INFO] I0802 07:31:44.651727 13355 net.cpp:91] Creating Layer relu5
2016-08-02 07:31:44.659 STDERR [INFO] I0802 07:31:44.651732 13355 net.cpp:425] relu5 <- conv5
2016-08-02 07:31:44.659 STDERR [INFO] I0802 07:31:44.651738 13355 net.cpp:386] relu5 -> conv5 (in-place)
2016-08-02 07:31:44.659 STDERR [INFO] I0802 07:31:44.652197 13355 net.cpp:141] Setting up relu5
2016-08-02 07:31:44.659 STDERR [INFO] I0802 07:31:44.652210 13355 net.cpp:148] Top shape: 10 256 13 13 (432640)
2016-08-02 07:31:44.659 STDERR [INFO] I0802 07:31:44.652215 13355 net.cpp:156] Memory required for data: 67249720
2016-08-02 07:31:44.659 STDERR [INFO] I0802 07:31:44.652220 13355 layer_factory.hpp:77] Creating layer pool5
2016-08-02 07:31:44.659 STDERR [INFO] I0802 07:31:44.652230 13355 net.cpp:91] Creating Layer pool5
2016-08-02 07:31:44.659 STDERR [INFO] I0802 07:31:44.652235 13355 net.cpp:425] pool5 <- conv5
2016-08-02 07:31:44.660 STDERR [INFO] I0802 07:31:44.652245 13355 net.cpp:399] pool5 -> pool5
2016-08-02 07:31:44.660 STDERR [INFO] I0802 07:31:44.652302 13355 net.cpp:141] Setting up pool5
2016-08-02 07:31:44.660 STDERR [INFO] I0802 07:31:44.652312 13355 net.cpp:148] Top shape: 10 256 6 6 (92160)
2016-08-02 07:31:44.660 STDERR [INFO] I0802 07:31:44.652317 13355 net.cpp:156] Memory required for data: 67618360
2016-08-02 07:31:44.660 STDERR [INFO] I0802 07:31:44.652321 13355 layer_factory.hpp:77] Creating layer fc6
2016-08-02 07:31:44.660 STDERR [INFO] I0802 07:31:44.652339 13355 net.cpp:91] Creating Layer fc6
2016-08-02 07:31:44.660 STDERR [INFO] I0802 07:31:44.652344 13355 net.cpp:425] fc6 <- pool5
2016-08-02 07:31:44.660 STDERR [INFO] I0802 07:31:44.652354 13355 net.cpp:399] fc6 -> fc6
2016-08-02 07:31:44.714 STDERR [INFO] I0802 07:31:44.714275 13345 net.cpp:141] Setting up embed_encoder
2016-08-02 07:31:44.714 STDERR [INFO] I0802 07:31:44.714329 13345 net.cpp:148] Top shape: 1 500 (500)
2016-08-02 07:31:44.714 STDERR [INFO] I0802 07:31:44.714336 13345 net.cpp:156] Memory required for data: 18404
2016-08-02 07:31:44.715 STDERR [INFO] I0802 07:31:44.714361 13345 layer_factory.hpp:77] Creating layer reshape_frames
2016-08-02 07:31:44.715 STDERR [INFO] I0802 07:31:44.714397 13345 net.cpp:91] Creating Layer reshape_frames
2016-08-02 07:31:44.715 STDERR [INFO] I0802 07:31:44.714406 13345 net.cpp:425] reshape_frames <- embedded_in_frames
2016-08-02 07:31:44.715 STDERR [INFO] I0802 07:31:44.714418 13345 net.cpp:399] reshape_frames -> embedded_input_frames
2016-08-02 07:31:44.715 STDERR [INFO] I0802 07:31:44.714485 13345 net.cpp:141] Setting up reshape_frames
2016-08-02 07:31:44.715 STDERR [INFO] I0802 07:31:44.714494 13345 net.cpp:148] Top shape: 1 1 500 (500)
2016-08-02 07:31:44.715 STDERR [INFO] I0802 07:31:44.714499 13345 net.cpp:156] Memory required for data: 20404
2016-08-02 07:31:44.715 STDERR [INFO] I0802 07:31:44.714504 13345 layer_factory.hpp:77] Creating layer reshape_stage_indicator
2016-08-02 07:31:44.715 STDERR [INFO] I0802 07:31:44.714517 13345 net.cpp:91] Creating Layer reshape_stage_indicator
2016-08-02 07:31:44.715 STDERR [INFO] I0802 07:31:44.714522 13345 net.cpp:425] reshape_stage_indicator <- stage_indicator
2016-08-02 07:31:44.715 STDERR [INFO] I0802 07:31:44.714530 13345 net.cpp:399] reshape_stage_indicator -> reshaped_stage_indicator
2016-08-02 07:31:44.715 STDERR [INFO] I0802 07:31:44.714571 13345 net.cpp:141] Setting up reshape_stage_indicator
2016-08-02 07:31:44.716 STDERR [INFO] I0802 07:31:44.714581 13345 net.cpp:148] Top shape: 1 1 1 (1)
2016-08-02 07:31:44.716 STDERR [INFO] I0802 07:31:44.714586 13345 net.cpp:156] Memory required for data: 20408
2016-08-02 07:31:44.716 STDERR [INFO] I0802 07:31:44.714591 13345 layer_factory.hpp:77] Creating layer embedding
2016-08-02 07:31:44.716 STDERR [INFO] I0802 07:31:44.714603 13345 net.cpp:91] Creating Layer embedding
2016-08-02 07:31:44.716 STDERR [INFO] I0802 07:31:44.714608 13345 net.cpp:425] embedding <- input_sentence
2016-08-02 07:31:44.716 STDERR [INFO] I0802 07:31:44.714618 13345 net.cpp:399] embedding -> embedded_input_sentence
2016-08-02 07:31:44.756 STDERR [INFO] I0802 07:31:44.755992 13355 net.cpp:141] Setting up fc6
2016-08-02 07:31:44.756 STDERR [INFO] I0802 07:31:44.756052 13355 net.cpp:148] Top shape: 10 4096 (40960)
2016-08-02 07:31:44.756 STDERR [INFO] I0802 07:31:44.756058 13355 net.cpp:156] Memory required for data: 67782200
2016-08-02 07:31:44.756 STDERR [INFO] I0802 07:31:44.756074 13355 layer_factory.hpp:77] Creating layer relu6
2016-08-02 07:31:44.756 STDERR [INFO] I0802 07:31:44.756093 13355 net.cpp:91] Creating Layer relu6
2016-08-02 07:31:44.756 STDERR [INFO] I0802 07:31:44.756099 13355 net.cpp:425] relu6 <- fc6
2016-08-02 07:31:44.756 STDERR [INFO] I0802 07:31:44.756114 13355 net.cpp:386] relu6 -> fc6 (in-place)
2016-08-02 07:31:44.757 STDERR [INFO] I0802 07:31:44.756445 13355 net.cpp:141] Setting up relu6
2016-08-02 07:31:44.757 STDERR [INFO] I0802 07:31:44.756456 13355 net.cpp:148] Top shape: 10 4096 (40960)
2016-08-02 07:31:44.757 STDERR [INFO] I0802 07:31:44.756461 13355 net.cpp:156] Memory required for data: 67946040
2016-08-02 07:31:44.757 STDERR [INFO] I0802 07:31:44.756466 13355 layer_factory.hpp:77] Creating layer drop6
2016-08-02 07:31:44.757 STDERR [INFO] I0802 07:31:44.756477 13355 net.cpp:91] Creating Layer drop6
2016-08-02 07:31:44.757 STDERR [INFO] I0802 07:31:44.756482 13355 net.cpp:425] drop6 <- fc6
2016-08-02 07:31:44.757 STDERR [INFO] I0802 07:31:44.756489 13355 net.cpp:386] drop6 -> fc6 (in-place)
2016-08-02 07:31:44.757 STDERR [INFO] I0802 07:31:44.756541 13355 net.cpp:141] Setting up drop6
2016-08-02 07:31:44.757 STDERR [INFO] I0802 07:31:44.756551 13355 net.cpp:148] Top shape: 10 4096 (40960)
2016-08-02 07:31:44.757 STDERR [INFO] I0802 07:31:44.756556 13355 net.cpp:156] Memory required for data: 68109880
2016-08-02 07:31:44.757 STDERR [INFO] I0802 07:31:44.756561 13355 layer_factory.hpp:77] Creating layer fc7
2016-08-02 07:31:44.757 STDERR [INFO] I0802 07:31:44.756573 13355 net.cpp:91] Creating Layer fc7
2016-08-02 07:31:44.757 STDERR [INFO] I0802 07:31:44.756578 13355 net.cpp:425] fc7 <- fc6
2016-08-02 07:31:44.758 STDERR [INFO] I0802 07:31:44.756585 13355 net.cpp:399] fc7 -> fc7
2016-08-02 07:31:44.800 n.t.s.f.RefreshingImageFetcher$ImageReader [INFO] [Timing] RequestID: 0 StreamID: home_peifeng_work_data_frame_320x240_jpg SequenceNr: 128 Entering queue: 1470137504800
2016-08-02 07:31:44.800 n.t.s.f.RefreshingImageFetcher$ImageReader [INFO] [Timing] RequestID: 0 StreamID: home_peifeng_work_data_frame_320x240_jpg SequenceNr: 129 Entering queue: 1470137504800
2016-08-02 07:31:44.800 n.t.s.f.RefreshingImageFetcher$ImageReader [INFO] [Timing] RequestID: 0 StreamID: home_peifeng_work_data_frame_320x240_jpg SequenceNr: 130 Entering queue: 1470137504800
2016-08-02 07:31:44.800 n.t.s.f.RefreshingImageFetcher$ImageReader [INFO] [Timing] RequestID: 0 StreamID: home_peifeng_work_data_frame_320x240_jpg SequenceNr: 131 Entering queue: 1470137504800
2016-08-02 07:31:44.802 STDERR [INFO] I0802 07:31:44.802024 13355 net.cpp:141] Setting up fc7
2016-08-02 07:31:44.802 STDERR [INFO] I0802 07:31:44.802069 13355 net.cpp:148] Top shape: 10 4096 (40960)
2016-08-02 07:31:44.802 STDERR [INFO] I0802 07:31:44.802075 13355 net.cpp:156] Memory required for data: 68273720
2016-08-02 07:31:44.802 STDERR [INFO] I0802 07:31:44.802091 13355 layer_factory.hpp:77] Creating layer relu7
2016-08-02 07:31:44.802 STDERR [INFO] I0802 07:31:44.802114 13355 net.cpp:91] Creating Layer relu7
2016-08-02 07:31:44.802 STDERR [INFO] I0802 07:31:44.802122 13355 net.cpp:425] relu7 <- fc7
2016-08-02 07:31:44.802 STDERR [INFO] I0802 07:31:44.802131 13355 net.cpp:386] relu7 -> fc7 (in-place)
2016-08-02 07:31:44.802 STDERR [INFO] I0802 07:31:44.802908 13355 net.cpp:141] Setting up relu7
2016-08-02 07:31:44.803 STDERR [INFO] I0802 07:31:44.802920 13355 net.cpp:148] Top shape: 10 4096 (40960)
2016-08-02 07:31:44.803 STDERR [INFO] I0802 07:31:44.802925 13355 net.cpp:156] Memory required for data: 68437560
2016-08-02 07:31:44.803 STDERR [INFO] I0802 07:31:44.802930 13355 layer_factory.hpp:77] Creating layer drop7
2016-08-02 07:31:44.803 STDERR [INFO] I0802 07:31:44.802944 13355 net.cpp:91] Creating Layer drop7
2016-08-02 07:31:44.803 STDERR [INFO] I0802 07:31:44.802950 13355 net.cpp:425] drop7 <- fc7
2016-08-02 07:31:44.803 STDERR [INFO] I0802 07:31:44.802959 13355 net.cpp:386] drop7 -> fc7 (in-place)
2016-08-02 07:31:44.803 STDERR [INFO] I0802 07:31:44.802997 13355 net.cpp:141] Setting up drop7
2016-08-02 07:31:44.803 STDERR [INFO] I0802 07:31:44.803005 13355 net.cpp:148] Top shape: 10 4096 (40960)
2016-08-02 07:31:44.803 STDERR [INFO] I0802 07:31:44.803009 13355 net.cpp:156] Memory required for data: 68601400
2016-08-02 07:31:44.803 STDERR [INFO] I0802 07:31:44.803014 13355 layer_factory.hpp:77] Creating layer fc8
2016-08-02 07:31:44.803 STDERR [INFO] I0802 07:31:44.803030 13355 net.cpp:91] Creating Layer fc8
2016-08-02 07:31:44.803 n.t.s.s.CVParticleSpout [INFO] [Timing] RequestID: 0 StreamID: home_peifeng_work_data_frame_320x240_jpg SequenceNr: 128 Leaving fetcher: 1470137504803 Size: 8702
…
2016-08-02 07:31:44.956 STDERR [INFO] }
2016-08-02 07:31:44.957 STDERR [INFO] I0802 07:31:44.944842 13345 layer_factory.hpp:77] Creating layer lstm1_
2016-08-02 07:31:44.957 STDERR [INFO] I0802 07:31:44.944855 13345 net.cpp:91] Creating Layer lstm1_
2016-08-02 07:31:44.957 STDERR [INFO] I0802 07:31:44.944862 13345 net.cpp:399] lstm1_ -> x
2016-08-02 07:31:44.957 STDERR [INFO] I0802 07:31:44.944874 13345 net.cpp:399] lstm1_ -> cont
2016-08-02 07:31:44.957 STDERR [INFO] I0802 07:31:44.944936 13345 net.cpp:141] Setting up lstm1_
2016-08-02 07:31:44.957 STDERR [INFO] I0802 07:31:44.944947 13345 net.cpp:148] Top shape: 1 1 500 (500)
2016-08-02 07:31:44.957 STDERR [INFO] I0802 07:31:44.944952 13345 net.cpp:148] Top shape: 1 1 (1)
2016-08-02 07:31:44.957 STDERR [INFO] I0802 07:31:44.944957 13345 net.cpp:156] Memory required for data: 2004
2016-08-02 07:31:44.957 STDERR [INFO] I0802 07:31:44.944962 13345 layer_factory.hpp:77] Creating layer lstm1_
2016-08-02 07:31:44.957 STDERR [INFO] I0802 07:31:44.944970 13345 net.cpp:91] Creating Layer lstm1_
2016-08-02 07:31:44.957 STDERR [INFO] I0802 07:31:44.944979 13345 net.cpp:399] lstm1_ -> c_0
2016-08-02 07:31:44.957 STDERR [INFO] I0802 07:31:44.944989 13345 net.cpp:399] lstm1_ -> h_0
2016-08-02 07:31:44.957 STDERR [INFO] I0802 07:31:44.945040 13345 net.cpp:141] Setting up lstm1_
2016-08-02 07:31:44.958 STDERR [INFO] I0802 07:31:44.945050 13345 net.cpp:148] Top shape: 1 1 1000 (1000)
2016-08-02 07:31:44.958 STDERR [INFO] I0802 07:31:44.945055 13345 net.cpp:148] Top shape: 1 1 1000 (1000)
2016-08-02 07:31:44.958 STDERR [INFO] I0802 07:31:44.945060 13345 net.cpp:156] Memory required for data: 10004
2016-08-02 07:31:44.958 STDERR [INFO] I0802 07:31:44.945063 13345 layer_factory.hpp:77] Creating layer lstm1_cont_slice
2016-08-02 07:31:44.958 STDERR [INFO] I0802 07:31:44.945072 13345 net.cpp:91] Creating Layer lstm1_cont_slice
2016-08-02 07:31:44.958 STDERR [INFO] I0802 07:31:44.945077 13345 net.cpp:425] lstm1_cont_slice <- cont
2016-08-02 07:31:44.958 STDERR [INFO] I0802 07:31:44.945086 13345 net.cpp:399] lstm1_cont_slice -> cont_1
2016-08-02 07:31:44.958 STDERR [INFO] I0802 07:31:44.945121 13345 net.cpp:141] Setting up lstm1_cont_slice
2016-08-02 07:31:44.958 STDERR [INFO] I0802 07:31:44.945129 13345 net.cpp:148] Top shape: 1 1 (1)
2016-08-02 07:31:44.958 STDERR [INFO] I0802 07:31:44.945134 13345 net.cpp:156] Memory required for data: 10008
2016-08-02 07:31:44.958 STDERR [INFO] I0802 07:31:44.945138 13345 layer_factory.hpp:77] Creating layer cont_1_lstm1_cont_slice_0_split
2016-08-02 07:31:44.958 STDERR [INFO] I0802 07:31:44.945153 13345 net.cpp:91] Creating Layer cont_1_lstm1_cont_slice_0_split
2016-08-02 07:31:44.958 STDERR [INFO] I0802 07:31:44.945158 13345 net.cpp:425] cont_1_lstm1_cont_slice_0_split <- cont_1
2016-08-02 07:31:44.959 STDERR [INFO] I0802 07:31:44.945164 13345 net.cpp:399] cont_1_lstm1_cont_slice_0_split -> cont_1_lstm1_cont_slice_0_split_0
2016-08-02 07:31:44.959 STDERR [INFO] I0802 07:31:44.945176 13345 net.cpp:399] cont_1_lstm1_cont_slice_0_split -> cont_1_lstm1_cont_slice_0_split_1
2016-08-02 07:31:44.959 STDERR [INFO] I0802 07:31:44.945222 13345 net.cpp:141] Setting up cont_1_lstm1_cont_slice_0_split
2016-08-02 07:31:44.959 STDERR [INFO] I0802 07:31:44.945231 13345 net.cpp:148] Top shape: 1 1 (1)
2016-08-02 07:31:44.959 STDERR [INFO] I0802 07:31:44.945237 13345 net.cpp:148] Top shape: 1 1 (1)
2016-08-02 07:31:44.959 STDERR [INFO] I0802 07:31:44.945241 13345 net.cpp:156] Memory required for data: 10016
2016-08-02 07:31:44.959 STDERR [INFO] I0802 07:31:44.945245 13345 layer_factory.hpp:77] Creating layer lstm1_x_transform
2016-08-02 07:31:44.959 STDERR [INFO] I0802 07:31:44.945255 13345 net.cpp:91] Creating Layer lstm1_x_transform
2016-08-02 07:31:44.959 STDERR [INFO] I0802 07:31:44.945261 13345 net.cpp:425] lstm1_x_transform <- x
2016-08-02 07:31:44.959 STDERR [INFO] I0802 07:31:44.945267 13345 net.cpp:399] lstm1_x_transform -> W_xc_x
2016-08-02 07:31:44.965 STDERR [INFO] I0802 07:31:44.965142 13345 net.cpp:141] Setting up lstm1_x_transform
2016-08-02 07:31:44.965 STDERR [INFO] I0802 07:31:44.965188 13345 net.cpp:148] Top shape: 1 1 4000 (4000)
2016-08-02 07:31:44.965 STDERR [INFO] I0802 07:31:44.965193 13345 net.cpp:156] Memory required for data: 26016
2016-08-02 07:31:44.965 STDERR [INFO] I0802 07:31:44.965219 13345 layer_factory.hpp:77] Creating layer lstm1_W_xc_x_slice
2016-08-02 07:31:44.965 STDERR [INFO] I0802 07:31:44.965240 13345 net.cpp:91] Creating Layer lstm1_W_xc_x_slice
2016-08-02 07:31:44.966 STDERR [INFO] I0802 07:31:44.965247 13345 net.cpp:425] lstm1_W_xc_x_slice <- W_xc_x
2016-08-02 07:31:44.966 STDERR [INFO] I0802 07:31:44.965257 13345 net.cpp:399] lstm1_W_xc_x_slice -> W_xc_x_1
2016-08-02 07:31:44.966 STDERR [INFO] I0802 07:31:44.965303 13345 net.cpp:141] Setting up lstm1_W_xc_x_slice
2016-08-02 07:31:44.966 STDERR [INFO] I0802 07:31:44.965313 13345 net.cpp:148] Top shape: 1 1 4000 (4000)
2016-08-02 07:31:44.966 STDERR [INFO] I0802 07:31:44.965317 13345 net.cpp:156] Memory required for data: 42016
2016-08-02 07:31:44.966 STDERR [INFO] I0802 07:31:44.965322 13345 layer_factory.hpp:77] Creating layer lstm1_h_conted_0
2016-08-02 07:31:44.966 STDERR [INFO] I0802 07:31:44.965335 13345 net.cpp:91] Creating Layer lstm1_h_conted_0
2016-08-02 07:31:44.966 STDERR [INFO] I0802 07:31:44.965342 13345 net.cpp:425] lstm1_h_conted_0 <- h_0
2016-08-02 07:31:44.966 STDERR [INFO] I0802 07:31:44.965348 13345 net.cpp:425] lstm1_h_conted_0 <- cont_1_lstm1_cont_slice_0_split_0
2016-08-02 07:31:44.966 STDERR [INFO] I0802 07:31:44.965353 13345 net.cpp:399] lstm1_h_conted_0 -> h_conted_0
2016-08-02 07:31:44.966 STDERR [INFO] I0802 07:31:44.965457 13345 net.cpp:141] Setting up lstm1_h_conted_0
2016-08-02 07:31:44.967 STDERR [INFO] I0802 07:31:44.965467 13345 net.cpp:148] Top shape: 1 1 1000 (1000)
2016-08-02 07:31:44.967 STDERR [INFO] I0802 07:31:44.965471 13345 net.cpp:156] Memory required for data: 46016
2016-08-02 07:31:44.967 STDERR [INFO] I0802 07:31:44.965476 13345 layer_factory.hpp:77] Creating layer lstm1_transform_1
2016-08-02 07:31:44.967 STDERR [INFO] I0802 07:31:44.965492 13345 net.cpp:91] Creating Layer lstm1_transform_1
2016-08-02 07:31:44.967 STDERR [INFO] I0802 07:31:44.965497 13345 net.cpp:425] lstm1_transform_1 <- h_conted_0
…
2016-08-02 07:31:45.000 n.t.s.f.RefreshingImageFetcher$ImageReader [INFO] [Timing] RequestID: 0 StreamID: home_peifeng_work_data_frame_320x240_jpg SequenceNr: 135 Entering queue: 1470137505000
2016-08-02 07:31:45.004 n.t.s.s.CVParticleSpout [INFO] [Timing] RequestID: 0 StreamID: home_peifeng_work_data_frame_320x240_jpg SequenceNr: 132 Leaving fetcher: 1470137505004 Size: 8702
2016-08-02 07:31:45.004 n.t.s.b.CVParticleBolt [INFO] [Timing] RequestID: 0 StreamID: home_peifeng_work_data_frame_320x240_jpg SequenceNr: 132 Entering scale: 1470137505004
2016-08-02 07:31:45.004 STDERR [INFO] I0802 07:31:45.004058 13345 net.cpp:141] Setting up lstm1_transform_1
2016-08-02 07:31:45.004 STDERR [INFO] I0802 07:31:45.004106 13345 net.cpp:148] Top shape: 1 1 4000 (4000)
2016-08-02 07:31:45.005 STDERR [INFO] I0802 07:31:45.004111 13345 net.cpp:156] Memory required for data: 62016
2016-08-02 07:31:45.005 STDERR [INFO] I0802 07:31:45.004133 13345 layer_factory.hpp:77] Creating layer lstm1_gate_input_1
2016-08-02 07:31:45.005 STDERR [INFO] I0802 07:31:45.004158 13345 net.cpp:91] Creating Layer lstm1_gate_input_1
2016-08-02 07:31:45.005 STDERR [INFO] I0802 07:31:45.004165 13345 net.cpp:425] lstm1_gate_input_1 <- W_hc_h_0
2016-08-02 07:31:45.005 STDERR [INFO] I0802 07:31:45.004175 13345 net.cpp:425] lstm1_gate_input_1 <- W_xc_x_1
2016-08-02 07:31:45.005 STDERR [INFO] I0802 07:31:45.004184 13345 net.cpp:399] lstm1_gate_input_1 -> gate_input_1
2016-08-02 07:31:45.006 STDERR [INFO] I0802 07:31:45.004243 13345 net.cpp:141] Setting up lstm1_gate_input_1
2016-08-02 07:31:45.006 STDERR [INFO] I0802 07:31:45.004252 13345 net.cpp:148] Top shape: 1 1 4000 (4000)
2016-08-02 07:31:45.006 STDERR [INFO] I0802 07:31:45.004256 13345 net.cpp:156] Memory required for data: 78016
2016-08-02 07:31:45.006 STDERR [INFO] I0802 07:31:45.004261 13345 layer_factory.hpp:77] Creating layer lstm1_unit_1
2016-08-02 07:31:45.006 STDERR [INFO] I0802 07:31:45.004271 13345 net.cpp:91] Creating Layer lstm1_unit_1
2016-08-02 07:31:45.006 STDERR [INFO] I0802 07:31:45.004274 13345 net.cpp:425] lstm1_unit_1 <- c_0
2016-08-02 07:31:45.006 STDERR [INFO] I0802 07:31:45.004281 13345 net.cpp:425] lstm1_unit_1 <- gate_input_1
2016-08-02 07:31:45.006 STDERR [INFO] I0802 07:31:45.004287 13345 net.cpp:425] lstm1_unit_1 <- cont_1_lstm1_cont_slice_0_split_1
2016-08-02 07:31:45.006 STDERR [INFO] I0802 07:31:45.004293 13345 net.cpp:399] lstm1_unit_1 -> c_1
2016-08-02 07:31:45.006 STDERR [INFO] I0802 07:31:45.004302 13345 net.cpp:399] lstm1_unit_1 -> h_1
2016-08-02 07:31:45.007 STDERR [INFO] I0802 07:31:45.004362 13345 net.cpp:141] Setting up lstm1_unit_1
2016-08-02 07:31:45.007 STDERR [INFO] I0802 07:31:45.004371 13345 net.cpp:148] Top shape: 1 1 1000 (1000)
2016-08-02 07:31:45.007 STDERR [INFO] I0802 07:31:45.004377 13345 net.cpp:148] Top shape: 1 1 1000 (1000)
2016-08-02 07:31:45.007 STDERR [INFO] I0802 07:31:45.004381 13345 net.cpp:156] Memory required for data: 86016
2016-08-02 07:31:45.007 STDERR [INFO] I0802 07:31:45.004386 13345 layer_factory.hpp:77] Creating layer lstm1_
2016-08-02 07:31:45.007 STDERR [INFO] I0802 07:31:45.004397 13345 net.cpp:91] Creating Layer lstm1_
2016-08-02 07:31:45.007 STDERR [INFO] I0802 07:31:45.004402 13345 net.cpp:425] lstm1_ <- c_1
2016-08-02 07:31:45.007 STDERR [INFO] I0802 07:31:45.004410 13345 net.cpp:399] lstm1_ -> c_T
2016-08-02 07:31:45.007 STDERR [INFO] I0802 07:31:45.004439 13345 net.cpp:141] Setting up lstm1_
2016-08-02 07:31:45.007 STDERR [INFO] I0802 07:31:45.004447 13345 net.cpp:148] Top shape: 1 1 1000 (1000)
2016-08-02 07:31:45.007 STDERR [INFO] I0802 07:31:45.004451 13345 net.cpp:156] Memory required for data: 90016
2016-08-02 07:31:45.008 STDERR [INFO] I0802 07:31:45.004456 13345 layer_factory.hpp:77] Creating layer lstm1_h_concat
2016-08-02 07:31:45.008 STDERR [INFO] I0802 07:31:45.004477 13345 net.cpp:91] Creating Layer lstm1_h_concat
2016-08-02 07:31:45.008 STDERR [INFO] I0802 07:31:45.004482 13345 net.cpp:425] lstm1_h_concat <- h_1
2016-08-02 07:31:45.008 STDERR [INFO] I0802 07:31:45.004492 13345 net.cpp:399] lstm1_h_concat -> h
2016-08-02 07:31:45.008 STDERR [INFO] I0802 07:31:45.004526 13345 net.cpp:141] Setting up lstm1_h_concat
2016-08-02 07:31:45.008 STDERR [INFO] I0802 07:31:45.004535 13345 net.cpp:148] Top shape: 1 1 1000 (1000)
2016-08-02 07:31:45.008 STDERR [INFO] I0802 07:31:45.004539 13345 net.cpp:156] Memory required for data: 94016
2016-08-02 07:31:45.008 STDERR [INFO] I0802 07:31:45.004544 13345 layer_factory.hpp:77] Creating layer h_pseudoloss
2016-08-02 07:31:45.008 STDERR [INFO] I0802 07:31:45.004559 13345 net.cpp:91] Creating Layer h_pseudoloss
2016-08-02 07:31:45.008 STDERR [INFO] I0802 07:31:45.004564 13345 net.cpp:425] h_pseudoloss <- h
…
2016-08-02 07:31:45.025 STDERR [INFO] }
2016-08-02 07:31:45.025 STDERR [INFO] I0802 07:31:45.005497 13345 layer_factory.hpp:77] Creating layer lstm2_
2016-08-02 07:31:45.025 STDERR [INFO] I0802 07:31:45.005509 13345 net.cpp:91] Creating Layer lstm2_
2016-08-02 07:31:45.025 STDERR [INFO] I0802 07:31:45.005517 13345 net.cpp:399] lstm2_ -> x
2016-08-02 07:31:45.025 STDERR [INFO] I0802 07:31:45.005527 13345 net.cpp:399] lstm2_ -> cont
2016-08-02 07:31:45.025 STDERR [INFO] I0802 07:31:45.005584 13345 net.cpp:141] Setting up lstm2_
2016-08-02 07:31:45.025 STDERR [INFO] I0802 07:31:45.005594 13345 net.cpp:148] Top shape: 1 1 1501 (1501)
2016-08-02 07:31:45.025 STDERR [INFO] I0802 07:31:45.005600 13345 net.cpp:148] Top shape: 1 1 (1)
2016-08-02 07:31:45.025 STDERR [INFO] I0802 07:31:45.005604 13345 net.cpp:156] Memory required for data: 6008
2016-08-02 07:31:45.026 STDERR [INFO] I0802 07:31:45.005609 13345 layer_factory.hpp:77] Creating layer lstm2_
2016-08-02 07:31:45.026 STDERR [INFO] I0802 07:31:45.005619 13345 net.cpp:91] Creating Layer lstm2_
2016-08-02 07:31:45.026 STDERR [INFO] I0802 07:31:45.005626 13345 net.cpp:399] lstm2_ -> c_0
2016-08-02 07:31:45.026 STDERR [INFO] I0802 07:31:45.005636 13345 net.cpp:399] lstm2_ -> h_0
2016-08-02 07:31:45.026 STDERR [INFO] I0802 07:31:45.005686 13345 net.cpp:141] Setting up lstm2_
2016-08-02 07:31:45.026 STDERR [INFO] I0802 07:31:45.005695 13345 net.cpp:148] Top shape: 1 1 1000 (1000)
2016-08-02 07:31:45.026 STDERR [INFO] I0802 07:31:45.005702 13345 net.cpp:148] Top shape: 1 1 1000 (1000)
2016-08-02 07:31:45.027 STDERR [INFO] I0802 07:31:45.005705 13345 net.cpp:156] Memory required for data: 14008
2016-08-02 07:31:45.027 STDERR [INFO] I0802 07:31:45.005709 13345 layer_factory.hpp:77] Creating layer lstm2_cont_slice
2016-08-02 07:31:45.027 STDERR [INFO] I0802 07:31:45.005718 13345 net.cpp:91] Creating Layer lstm2_cont_slice
2016-08-02 07:31:45.027 STDERR [INFO] I0802 07:31:45.005722 13345 net.cpp:425] lstm2_cont_slice <- cont
2016-08-02 07:31:45.027 STDERR [INFO] I0802 07:31:45.005729 13345 net.cpp:399] lstm2_cont_slice -> cont_1
2016-08-02 07:31:45.027 STDERR [INFO] I0802 07:31:45.005764 13345 net.cpp:141] Setting up lstm2_cont_slice
2016-08-02 07:31:45.027 STDERR [INFO] I0802 07:31:45.005774 13345 net.cpp:148] Top shape: 1 1 (1)
2016-08-02 07:31:45.028 STDERR [INFO] I0802 07:31:45.005777 13345 net.cpp:156] Memory required for data: 14012
2016-08-02 07:31:45.028 STDERR [INFO] I0802 07:31:45.005782 13345 layer_factory.hpp:77] Creating layer cont_1_lstm2_cont_slice_0_split
2016-08-02 07:31:45.028 STDERR [INFO] I0802 07:31:45.005791 13345 net.cpp:91] Creating Layer cont_1_lstm2_cont_slice_0_split
2016-08-02 07:31:45.028 STDERR [INFO] I0802 07:31:45.005795 13345 net.cpp:425] cont_1_lstm2_cont_slice_0_split <- cont_1
2016-08-02 07:31:45.028 STDERR [INFO] I0802 07:31:45.005802 13345 net.cpp:399] cont_1_lstm2_cont_slice_0_split -> cont_1_lstm2_cont_slice_0_split_0
2016-08-02 07:31:45.028 STDERR [INFO] I0802 07:31:45.005810 13345 net.cpp:399] cont_1_lstm2_cont_slice_0_split -> cont_1_lstm2_cont_slice_0_split_1
2016-08-02 07:31:45.028 STDERR [INFO] I0802 07:31:45.005857 13345 net.cpp:141] Setting up cont_1_lstm2_cont_slice_0_split
2016-08-02 07:31:45.028 STDERR [INFO] I0802 07:31:45.005866 13345 net.cpp:148] Top shape: 1 1 (1)
2016-08-02 07:31:45.029 STDERR [INFO] I0802 07:31:45.005872 13345 net.cpp:148] Top shape: 1 1 (1)
2016-08-02 07:31:45.029 STDERR [INFO] I0802 07:31:45.005875 13345 net.cpp:156] Memory required for data: 14020
2016-08-02 07:31:45.029 STDERR [INFO] I0802 07:31:45.005879 13345 layer_factory.hpp:77] Creating layer lstm2_x_transform
2016-08-02 07:31:45.029 STDERR [INFO] I0802 07:31:45.005889 13345 net.cpp:91] Creating Layer lstm2_x_transform
2016-08-02 07:31:45.029 STDERR [INFO] I0802 07:31:45.005894 13345 net.cpp:425] lstm2_x_transform <- x
…
2016-08-02 07:31:45.068 STDERR [INFO] W0802 07:31:45.067754 13355 upgrade_proto.cpp:48] Note that future Caffe releases will only support transform_param messages for transformation fields.
2016-08-02 07:31:45.068 STDERR [INFO] I0802 07:31:45.067759 13355 upgrade_proto.cpp:52] Attempting to upgrade input file specified using deprecated V1LayerParameter: /tmp/cvld8871657692846150495/bvlc_reference_caffenet.caffemodel
2016-08-02 07:31:45.072 STDERR [INFO] I0802 07:31:45.071890 13345 net.cpp:141] Setting up lstm2_x_transform
2016-08-02 07:31:45.072 STDERR [INFO] I0802 07:31:45.071936 13345 net.cpp:148] Top shape: 1 1 4000 (4000)
2016-08-02 07:31:45.072 STDERR [INFO] I0802 07:31:45.071943 13345 net.cpp:156] Memory required for data: 30020
2016-08-02 07:31:45.072 STDERR [INFO] I0802 07:31:45.071964 13345 layer_factory.hpp:77] Creating layer lstm2_W_xc_x_slice
2016-08-02 07:31:45.072 STDERR [INFO] I0802 07:31:45.071982 13345 net.cpp:91] Creating Layer lstm2_W_xc_x_slice
2016-08-02 07:31:45.072 STDERR [INFO] I0802 07:31:45.071990 13345 net.cpp:425] lstm2_W_xc_x_slice <- W_xc_x
2016-08-02 07:31:45.072 STDERR [INFO] I0802 07:31:45.072012 13345 net.cpp:399] lstm2_W_xc_x_slice -> W_xc_x_1
2016-08-02 07:31:45.072 STDERR [INFO] I0802 07:31:45.072063 13345 net.cpp:141] Setting up lstm2_W_xc_x_slice
2016-08-02 07:31:45.072 STDERR [INFO] I0802 07:31:45.072077 13345 net.cpp:148] Top shape: 1 1 4000 (4000)
2016-08-02 07:31:45.073 STDERR [INFO] I0802 07:31:45.072082 13345 net.cpp:156] Memory required for data: 46020
2016-08-02 07:31:45.073 STDERR [INFO] I0802 07:31:45.072087 13345 layer_factory.hpp:77] Creating layer lstm2_h_conted_0
2016-08-02 07:31:45.073 STDERR [INFO] I0802 07:31:45.072098 13345 net.cpp:91] Creating Layer lstm2_h_conted_0
2016-08-02 07:31:45.073 STDERR [INFO] I0802 07:31:45.072104 13345 net.cpp:425] lstm2_h_conted_0 <- h_0
2016-08-02 07:31:45.073 STDERR [INFO] I0802 07:31:45.072111 13345 net.cpp:425] lstm2_h_conted_0 <- cont_1_lstm2_cont_slice_0_split_0
2016-08-02 07:31:45.073 STDERR [INFO] I0802 07:31:45.072125 13345 net.cpp:399] lstm2_h_conted_0 -> h_conted_0
2016-08-02 07:31:45.073 STDERR [INFO] I0802 07:31:45.072237 13345 net.cpp:141] Setting up lstm2_h_conted_0
2016-08-02 07:31:45.073 STDERR [INFO] I0802 07:31:45.072248 13345 net.cpp:148] Top shape: 1 1 1000 (1000)
2016-08-02 07:31:45.073 STDERR [INFO] I0802 07:31:45.072253 13345 net.cpp:156] Memory required for data: 50020
2016-08-02 07:31:45.073 STDERR [INFO] I0802 07:31:45.072258 13345 layer_factory.hpp:77] Creating layer lstm2_transform_1
2016-08-02 07:31:45.073 STDERR [INFO] I0802 07:31:45.072273 13345 net.cpp:91] Creating Layer lstm2_transform_1
2016-08-02 07:31:45.073 STDERR [INFO] I0802 07:31:45.072278 13345 net.cpp:425] lstm2_transform_1 <- h_conted_0
2016-08-02 07:31:45.074 STDERR [INFO] I0802 07:31:45.072290 13345 net.cpp:399] lstm2_transform_1 -> W_hc_h_0
2016-08-02 07:31:45.119 STDERR [INFO] I0802 07:31:45.119384 13345 net.cpp:141] Setting up lstm2_transform_1
2016-08-02 07:31:45.120 STDERR [INFO] I0802 07:31:45.119439 13345 net.cpp:148] Top shape: 1 1 4000 (4000)
2016-08-02 07:31:45.120 STDERR [INFO] I0802 07:31:45.119446 13345 net.cpp:156] Memory required for data: 66020
2016-08-02 07:31:45.120 STDERR [INFO] I0802 07:31:45.119467 13345 layer_factory.hpp:77] Creating layer lstm2_gate_input_1
2016-08-02 07:31:45.120 STDERR [INFO] I0802 07:31:45.119491 13345 net.cpp:91] Creating Layer lstm2_gate_input_1
2016-08-02 07:31:45.120 STDERR [INFO] I0802 07:31:45.119500 13345 net.cpp:425] lstm2_gate_input_1 <- W_hc_h_0
2016-08-02 07:31:45.120 STDERR [INFO] I0802 07:31:45.119509 13345 net.cpp:425] lstm2_gate_input_1 <- W_xc_x_1
2016-08-02 07:31:45.120 STDERR [INFO] I0802 07:31:45.119518 13345 net.cpp:399] lstm2_gate_input_1 -> gate_input_1
2016-08-02 07:31:45.120 STDERR [INFO] I0802 07:31:45.119576 13345 net.cpp:141] Setting up lstm2_gate_input_1
2016-08-02 07:31:45.120 STDERR [INFO] I0802 07:31:45.119586 13345 net.cpp:148] Top shape: 1 1 4000 (4000)
2016-08-02 07:31:45.120 STDERR [INFO] I0802 07:31:45.119592 13345 net.cpp:156] Memory required for data: 82020
2016-08-02 07:31:45.120 STDERR [INFO] I0802 07:31:45.119597 13345 layer_factory.hpp:77] Creating layer lstm2_unit_1
2016-08-02 07:31:45.121 STDERR [INFO] I0802 07:31:45.119608 13345 net.cpp:91] Creating Layer lstm2_unit_1
2016-08-02 07:31:45.121 STDERR [INFO] I0802 07:31:45.119613 13345 net.cpp:425] lstm2_unit_1 <- c_0
2016-08-02 07:31:45.121 STDERR [INFO] I0802 07:31:45.119621 13345 net.cpp:425] lstm2_unit_1 <- gate_input_1
2016-08-02 07:31:45.121 STDERR [INFO] I0802 07:31:45.119626 13345 net.cpp:425] lstm2_unit_1 <- cont_1_lstm2_cont_slice_0_split_1
2016-08-02 07:31:45.121 STDERR [INFO] I0802 07:31:45.119637 13345 net.cpp:399] lstm2_unit_1 -> c_1
2016-08-02 07:31:45.121 STDERR [INFO] I0802 07:31:45.119647 13345 net.cpp:399] lstm2_unit_1 -> h_1
2016-08-02 07:31:45.121 STDERR [INFO] I0802 07:31:45.119719 13345 net.cpp:141] Setting up lstm2_unit_1
2016-08-02 07:31:45.121 STDERR [INFO] I0802 07:31:45.119729 13345 net.cpp:148] Top shape: 1 1 1000 (1000)
2016-08-02 07:31:45.121 STDERR [INFO] I0802 07:31:45.119735 13345 net.cpp:148] Top shape: 1 1 1000 (1000)
2016-08-02 07:31:45.122 STDERR [INFO] I0802 07:31:45.119740 13345 net.cpp:156] Memory required for data: 90020
2016-08-02 07:31:45.122 STDERR [INFO] I0802 07:31:45.119745 13345 layer_factory.hpp:77] Creating layer lstm2_
2016-08-02 07:31:45.122 STDERR [INFO] I0802 07:31:45.119755 13345 net.cpp:91] Creating Layer lstm2_
2016-08-02 07:31:45.122 STDERR [INFO] I0802 07:31:45.119760 13345 net.cpp:425] lstm2_ <- c_1
2016-08-02 07:31:45.122 STDERR [INFO] I0802 07:31:45.119766 13345 net.cpp:399] lstm2_ -> c_T
2016-08-02 07:31:45.122 STDERR [INFO] I0802 07:31:45.119803 13345 net.cpp:141] Setting up lstm2_
2016-08-02 07:31:45.122 STDERR [INFO] I0802 07:31:45.119813 13345 net.cpp:148] Top shape: 1 1 1000 (1000)
2016-08-02 07:31:45.122 STDERR [INFO] I0802 07:31:45.119818 13345 net.cpp:156] Memory required for data: 94020
2016-08-02 07:31:45.122 STDERR [INFO] I0802 07:31:45.119823 13345 layer_factory.hpp:77] Creating layer lstm2_h_concat
2016-08-02 07:31:45.122 STDERR [INFO] I0802 07:31:45.119834 13345 net.cpp:91] Creating Layer lstm2_h_concat
2016-08-02 07:31:45.122 STDERR [INFO] I0802 07:31:45.119840 13345 net.cpp:425] lstm2_h_concat <- h_1
2016-08-02 07:31:45.122 STDERR [INFO] I0802 07:31:45.119848 13345 net.cpp:399] lstm2_h_concat -> h
2016-08-02 07:31:45.123 STDERR [INFO] I0802 07:31:45.119897 13345 net.cpp:141] Setting up lstm2_h_concat
2016-08-02 07:31:45.123 STDERR [INFO] I0802 07:31:45.119907 13345 net.cpp:148] Top shape: 1 1 1000 (1000)
2016-08-02 07:31:45.123 STDERR [INFO] I0802 07:31:45.119912 13345 net.cpp:156] Memory required for data: 98020
2016-08-02 07:31:45.123 STDERR [INFO] I0802 07:31:45.119917 13345 layer_factory.hpp:77] Creating layer h_pseudoloss
2016-08-02 07:31:45.123 STDERR [INFO] I0802 07:31:45.119928 13345 net.cpp:91] Creating Layer h_pseudoloss
2016-08-02 07:31:45.123 STDERR [INFO] I0802 07:31:45.119933 13345 net.cpp:425] h_pseudoloss <- h
…
