…
Java HotSpot(TM) 64-Bit Server VM warning: You have loaded library /tmp/cvld2885283975510263764/libopencv_java310.xine1.so which might have disabled stack guard. The VM will try to fix the stack guard now.
It's highly recommended that you fix the library with 'execstack -c <libfile>', or link it with '-z noexecstack'.
WARNING: Logging before InitGoogleLogging() is written to STDERR
I0801 00:44:41.309284 10338 net.cpp:49] Initializing net from parameters: 
name: "CaffeNet"
state {
  phase: TEST
}
layer {
  name: "data"
  type: "Input"
  top: "data"
  input_param {
    shape {
      dim: 10
      dim: 3
      dim: 227
      dim: 227
    }
  }
}
layer {
  name: "conv1"
  type: "Convolution"
  bottom: "data"
  top: "conv1"
  convolution_param {
    num_output: 96
    kernel_size: 11
    stride: 4
  }
}
layer {
  name: "relu1"
  type: "ReLU"
  bottom: "conv1"
  top: "conv1"
}
layer {
  name: "pool1"
  type: "Pooling"
  bottom: "conv1"
  top: "pool1"
  pooling_param {
    pool: MAX
    kernel_size: 3
    stride: 2
  }
}
layer {
  name: "norm1"
  type: "LRN"
  bottom: "pool1"
  top: "norm1"
  lrn_param {
    local_size: 5
    alpha: 0.0001
    beta: 0.75
  }
}
layer {
  name: "conv2"
  type: "Convolution"
  bottom: "norm1"
  top: "conv2"
  convolution_param {
    num_output: 256
    pad: 2
    kernel_size: 5
    group: 2
  }
}
layer {
  name: "relu2"
  type: "ReLU"
  bottom: "conv2"
  top: "conv2"
}
layer {
  name: "pool2"
  type: "Pooling"
  bottom: "conv2"
  top: "pool2"
  pooling_param {
    pool: MAX
    kernel_size: 3
    stride: 2
  }
}
layer {
  name: "norm2"
  type: "LRN"
  bottom: "pool2"
  top: "norm2"
  lrn_param {
    local_size: 5
    alpha: 0.0001
    beta: 0.75
  }
}
layer {
  name: "conv3"
  type: "Convolution"
  bottom: "norm2"
  top: "conv3"
  convolution_param {
    num_output: 384
    pad: 1
    kernel_size: 3
  }
}
layer {
  name: "relu3"
  type: "ReLU"
  bottom: "conv3"
  top: "conv3"
}
layer {
  name: "conv4"
  type: "Convolution"
  bottom: "conv3"
  top: "conv4"
  convolution_param {
    num_output: 384
    pad: 1
    kernel_size: 3
    group: 2
  }
}
layer {
  name: "relu4"
  type: "ReLU"
  bottom: "conv4"
  top: "conv4"
}
layer {
  name: "conv5"
  type: "Convolution"
  bottom: "conv4"
  top: "conv5"
  convolution_param {
    num_output: 256
    pad: 1
    kernel_size: 3
    group: 2
  }
}
layer {
  name: "relu5"
  type: "ReLU"
  bottom: "conv5"
  top: "conv5"
}
layer {
  name: "pool5"
  type: "Pooling"
  bottom: "conv5"
  top: "pool5"
  pooling_param {
    pool: MAX
    kernel_size: 3
    stride: 2
  }
}
layer {
  name: "fc6"
  type: "InnerProduct"
  bottom: "pool5"
  top: "fc6"
  inner_product_param {
    num_output: 4096
  }
}
layer {
  name: "relu6"
  type: "ReLU"
  bottom: "fc6"
  top: "fc6"
}
layer {
  name: "drop6"
  type: "Dropout"
  bottom: "fc6"
  top: "fc6"
  dropout_param {
    dropout_ratio: 0.5
  }
}
layer {
  name: "fc7"
  type: "InnerProduct"
  bottom: "fc6"
  top: "fc7"
  inner_product_param {
    num_output: 4096
  }
}
layer {
  name: "relu7"
  type: "ReLU"
  bottom: "fc7"
  top: "fc7"
}
layer {
  name: "drop7"
  type: "Dropout"
  bottom: "fc7"
  top: "fc7"
  dropout_param {
    dropout_ratio: 0.5
  }
}
layer {
  name: "fc8"
  type: "InnerProduct"
  bottom: "fc7"
  top: "fc8"
  inner_product_param {
    num_output: 1000
  }
}
layer {
  name: "prob"
  type: "Softmax"
  bottom: "fc8"
  top: "prob"
}
I0801 00:44:41.309492 10338 layer_factory.hpp:77] Creating layer data
I0801 00:44:41.309519 10338 net.cpp:91] Creating Layer data
I0801 00:44:41.309528 10338 net.cpp:399] data -> data
I0801 00:44:41.754330 10338 net.cpp:141] Setting up data
I0801 00:44:41.754453 10338 net.cpp:148] Top shape: 10 3 227 227 (1545870)
I0801 00:44:41.754461 10338 net.cpp:156] Memory required for data: 6183480
I0801 00:44:41.754480 10338 layer_factory.hpp:77] Creating layer conv1
I0801 00:44:41.754525 10338 net.cpp:91] Creating Layer conv1
I0801 00:44:41.754535 10338 net.cpp:425] conv1 <- data
I0801 00:44:41.754550 10338 net.cpp:399] conv1 -> conv1
I0801 00:44:41.890503 10328 upgrade_proto.cpp:66] Attempting to upgrade input file specified using deprecated input fields: /tmp/cvld2885283975510263764/s2vt.words_to_preds.prototxt
I0801 00:44:41.890570 10328 upgrade_proto.cpp:69] Successfully upgraded file specified using deprecated input fields.
W0801 00:44:41.890579 10328 upgrade_proto.cpp:71] Note that future Caffe releases will only support input layers and not input fields.
I0801 00:44:41.890830 10328 net.cpp:49] Initializing net from parameters: 
name: "s2vt:features_to_lstm"
state {
  phase: TEST
}
layer {
  name: "input"
  type: "Input"
  top: "frames_fc7"
  top: "cont_sentence"
  top: "input_sentence"
  top: "stage_indicator"
  input_param {
    shape {
      dim: 1
      dim: 4096
    }
    shape {
      dim: 1
      dim: 1
    }
    shape {
      dim: 1
      dim: 1
    }
    shape {
      dim: 1
      dim: 1
    }
  }
}
layer {
  name: "embed_encoder"
  type: "InnerProduct"
  bottom: "frames_fc7"
  top: "embedded_in_frames"
  param {
    lr_mult: 1
    decay_mult: 1
  }
  param {
    lr_mult: 2
    decay_mult: 0
  }
  inner_product_param {
    num_output: 500
    weight_filler {
      type: "xavier"
    }
    bias_filler {
      type: "constant"
      value: 0.2
    }
  }
}
layer {
  name: "reshape_frames"
  type: "Reshape"
  bottom: "embedded_in_frames"
  top: "embedded_input_frames"
  reshape_param {
    shape {
      dim: 1
      dim: 1
      dim: 500
    }
  }
}
layer {
  name: "reshape_stage_indicator"
  type: "Reshape"
  bottom: "stage_indicator"
  top: "reshaped_stage_indicator"
  reshape_param {
    shape {
      dim: 1
      dim: 1
      dim: 1
    }
  }
}
layer {
  name: "embedding"
  type: "Embed"
  bottom: "input_sentence"
  top: "embedded_input_sentence"
  param {
    lr_mult: 1
  }
  embed_param {
    num_output: 500
    input_dim: 46168
    bias_term: false
    weight_filler {
      type: "uniform"
      min: -0.08
      max: 0.08
    }
  }
}
layer {
  name: "lstm1"
  type: "LSTM"
  bottom: "embedded_input_frames"
  bottom: "cont_sentence"
  top: "lstm1"
  recurrent_param {
    num_output: 1000
    weight_filler {
      type: "uniform"
      min: -0.08
      max: 0.08
    }
    bias_filler {
      type: "constant"
      value: 0
    }
  }
}
layer {
  name: "concat"
  type: "Concat"
  bottom: "lstm1"
  bottom: "embedded_input_sentence"
  bottom: "reshaped_stage_indicator"
  top: "lstm1_video_sequence"
  concat_param {
    concat_dim: 2
  }
}
layer {
  name: "lstm2"
  type: "LSTM"
  bottom: "lstm1_video_sequence"
  bottom: "cont_sentence"
  top: "lstm2"
  recurrent_param {
    num_output: 1000
    weight_filler {
      type: "uniform"
      min: -0.08
      max: 0.08
    }
    bias_filler {
      type: "constant"
      value: 0
    }
  }
}
layer {
  name: "predict"
  type: "InnerProduct"
  bottom: "lstm2"
  top: "predict"
  param {
    lr_mult: 1
    decay_mult: 1
  }
  param {
    lr_mult: 2
    decay_mult: 0
  }
  inner_product_param {
    num_output: 46168
    weight_filler {
      type: "uniform"
      min: -0.08
      max: 0.08
    }
    bias_filler {
      type: "constant"
      value: 0
    }
    axis: 2
  }
}
layer {
  name: "probs"
  type: "Softmax"
  bottom: "predict"
  top: "probs"
  softmax_param {
    axis: 2
  }
}
I0801 00:44:41.890928 10328 layer_factory.hpp:77] Creating layer input
I0801 00:44:41.890944 10328 net.cpp:91] Creating Layer input
I0801 00:44:41.890954 10328 net.cpp:399] input -> frames_fc7
I0801 00:44:41.890980 10328 net.cpp:399] input -> cont_sentence
I0801 00:44:41.890990 10328 net.cpp:399] input -> input_sentence
I0801 00:44:41.891000 10328 net.cpp:399] input -> stage_indicator
I0801 00:44:41.891314 10328 net.cpp:141] Setting up input
I0801 00:44:41.891330 10328 net.cpp:148] Top shape: 1 4096 (4096)
I0801 00:44:41.891336 10328 net.cpp:148] Top shape: 1 1 (1)
I0801 00:44:41.891341 10328 net.cpp:148] Top shape: 1 1 (1)
I0801 00:44:41.891347 10328 net.cpp:148] Top shape: 1 1 (1)
I0801 00:44:41.891351 10328 net.cpp:156] Memory required for data: 16396
I0801 00:44:41.891357 10328 layer_factory.hpp:77] Creating layer cont_sentence_input_1_split
I0801 00:44:41.891376 10328 net.cpp:91] Creating Layer cont_sentence_input_1_split
I0801 00:44:41.891382 10328 net.cpp:425] cont_sentence_input_1_split <- cont_sentence
I0801 00:44:41.891402 10328 net.cpp:399] cont_sentence_input_1_split -> cont_sentence_input_1_split_0
I0801 00:44:41.891412 10328 net.cpp:399] cont_sentence_input_1_split -> cont_sentence_input_1_split_1
I0801 00:44:41.892787 10328 net.cpp:141] Setting up cont_sentence_input_1_split
I0801 00:44:41.892807 10328 net.cpp:148] Top shape: 1 1 (1)
I0801 00:44:41.892813 10328 net.cpp:148] Top shape: 1 1 (1)
I0801 00:44:41.892822 10328 net.cpp:156] Memory required for data: 16404
I0801 00:44:41.892827 10328 layer_factory.hpp:77] Creating layer embed_encoder
I0801 00:44:41.892843 10328 net.cpp:91] Creating Layer embed_encoder
I0801 00:44:41.892849 10328 net.cpp:425] embed_encoder <- frames_fc7
I0801 00:44:41.892858 10328 net.cpp:399] embed_encoder -> embedded_in_frames
I0801 00:44:41.916715 10328 net.cpp:141] Setting up embed_encoder
I0801 00:44:41.916756 10328 net.cpp:148] Top shape: 1 500 (500)
I0801 00:44:41.916762 10328 net.cpp:156] Memory required for data: 18404
I0801 00:44:41.916782 10328 layer_factory.hpp:77] Creating layer reshape_frames
I0801 00:44:41.916801 10328 net.cpp:91] Creating Layer reshape_frames
I0801 00:44:41.916807 10328 net.cpp:425] reshape_frames <- embedded_in_frames
I0801 00:44:41.916818 10328 net.cpp:399] reshape_frames -> embedded_input_frames
I0801 00:44:41.917726 10328 net.cpp:141] Setting up reshape_frames
I0801 00:44:41.917745 10328 net.cpp:148] Top shape: 1 1 500 (500)
I0801 00:44:41.917752 10328 net.cpp:156] Memory required for data: 20404
I0801 00:44:41.917757 10328 layer_factory.hpp:77] Creating layer reshape_stage_indicator
I0801 00:44:41.917768 10328 net.cpp:91] Creating Layer reshape_stage_indicator
I0801 00:44:41.917773 10328 net.cpp:425] reshape_stage_indicator <- stage_indicator
I0801 00:44:41.917788 10328 net.cpp:399] reshape_stage_indicator -> reshaped_stage_indicator
I0801 00:44:41.919270 10328 net.cpp:141] Setting up reshape_stage_indicator
I0801 00:44:41.919302 10328 net.cpp:148] Top shape: 1 1 1 (1)
I0801 00:44:41.919307 10328 net.cpp:156] Memory required for data: 20408
I0801 00:44:41.919312 10328 layer_factory.hpp:77] Creating layer embedding
I0801 00:44:41.919324 10328 net.cpp:91] Creating Layer embedding
I0801 00:44:41.919329 10328 net.cpp:425] embedding <- input_sentence
I0801 00:44:41.919350 10328 net.cpp:399] embedding -> embedded_input_sentence
I0801 00:44:42.005136 10338 net.cpp:141] Setting up conv1
I0801 00:44:42.005194 10338 net.cpp:148] Top shape: 10 96 55 55 (2904000)
I0801 00:44:42.005201 10338 net.cpp:156] Memory required for data: 17799480
I0801 00:44:42.005225 10338 layer_factory.hpp:77] Creating layer relu1
I0801 00:44:42.005244 10338 net.cpp:91] Creating Layer relu1
I0801 00:44:42.005251 10338 net.cpp:425] relu1 <- conv1
I0801 00:44:42.005260 10338 net.cpp:386] relu1 -> conv1 (in-place)
I0801 00:44:42.005686 10338 net.cpp:141] Setting up relu1
I0801 00:44:42.005698 10338 net.cpp:148] Top shape: 10 96 55 55 (2904000)
I0801 00:44:42.005703 10338 net.cpp:156] Memory required for data: 29415480
I0801 00:44:42.005709 10338 layer_factory.hpp:77] Creating layer pool1
I0801 00:44:42.005722 10338 net.cpp:91] Creating Layer pool1
I0801 00:44:42.005728 10338 net.cpp:425] pool1 <- conv1
I0801 00:44:42.005735 10338 net.cpp:399] pool1 -> pool1
I0801 00:44:42.005800 10338 net.cpp:141] Setting up pool1
I0801 00:44:42.005810 10338 net.cpp:148] Top shape: 10 96 27 27 (699840)
I0801 00:44:42.005815 10338 net.cpp:156] Memory required for data: 32214840
I0801 00:44:42.005820 10338 layer_factory.hpp:77] Creating layer norm1
I0801 00:44:42.005837 10338 net.cpp:91] Creating Layer norm1
I0801 00:44:42.005842 10338 net.cpp:425] norm1 <- pool1
I0801 00:44:42.005849 10338 net.cpp:399] norm1 -> norm1
I0801 00:44:42.006314 10338 net.cpp:141] Setting up norm1
I0801 00:44:42.006327 10338 net.cpp:148] Top shape: 10 96 27 27 (699840)
I0801 00:44:42.006332 10338 net.cpp:156] Memory required for data: 35014200
I0801 00:44:42.006337 10338 layer_factory.hpp:77] Creating layer conv2
I0801 00:44:42.006355 10338 net.cpp:91] Creating Layer conv2
I0801 00:44:42.006359 10338 net.cpp:425] conv2 <- norm1
I0801 00:44:42.006366 10338 net.cpp:399] conv2 -> conv2
I0801 00:44:42.010284 10338 net.cpp:141] Setting up conv2
I0801 00:44:42.010332 10338 net.cpp:148] Top shape: 10 256 27 27 (1866240)
I0801 00:44:42.010342 10338 net.cpp:156] Memory required for data: 42479160
I0801 00:44:42.010375 10338 layer_factory.hpp:77] Creating layer relu2
I0801 00:44:42.010406 10338 net.cpp:91] Creating Layer relu2
I0801 00:44:42.010417 10338 net.cpp:425] relu2 <- conv2
I0801 00:44:42.010435 10338 net.cpp:386] relu2 -> conv2 (in-place)
I0801 00:44:42.011287 10338 net.cpp:141] Setting up relu2
I0801 00:44:42.011307 10338 net.cpp:148] Top shape: 10 256 27 27 (1866240)
I0801 00:44:42.011317 10338 net.cpp:156] Memory required for data: 49944120
I0801 00:44:42.011327 10338 layer_factory.hpp:77] Creating layer pool2
I0801 00:44:42.011353 10338 net.cpp:91] Creating Layer pool2
I0801 00:44:42.011366 10338 net.cpp:425] pool2 <- conv2
I0801 00:44:42.011380 10338 net.cpp:399] pool2 -> pool2
I0801 00:44:42.011479 10338 net.cpp:141] Setting up pool2
I0801 00:44:42.011502 10338 net.cpp:148] Top shape: 10 256 13 13 (432640)
I0801 00:44:42.011512 10338 net.cpp:156] Memory required for data: 51674680
I0801 00:44:42.011520 10338 layer_factory.hpp:77] Creating layer norm2
I0801 00:44:42.011540 10338 net.cpp:91] Creating Layer norm2
I0801 00:44:42.011553 10338 net.cpp:425] norm2 <- pool2
I0801 00:44:42.011574 10338 net.cpp:399] norm2 -> norm2
I0801 00:44:42.012027 10338 net.cpp:141] Setting up norm2
I0801 00:44:42.012050 10338 net.cpp:148] Top shape: 10 256 13 13 (432640)
I0801 00:44:42.012060 10338 net.cpp:156] Memory required for data: 53405240
I0801 00:44:42.012070 10338 layer_factory.hpp:77] Creating layer conv3
I0801 00:44:42.012091 10338 net.cpp:91] Creating Layer conv3
I0801 00:44:42.012104 10338 net.cpp:425] conv3 <- norm2
I0801 00:44:42.012125 10338 net.cpp:399] conv3 -> conv3
I0801 00:44:42.017240 10338 net.cpp:141] Setting up conv3
I0801 00:44:42.017274 10338 net.cpp:148] Top shape: 10 384 13 13 (648960)
I0801 00:44:42.017284 10338 net.cpp:156] Memory required for data: 56001080
I0801 00:44:42.017316 10338 layer_factory.hpp:77] Creating layer relu3
I0801 00:44:42.017339 10338 net.cpp:91] Creating Layer relu3
I0801 00:44:42.017350 10338 net.cpp:425] relu3 <- conv3
I0801 00:44:42.017367 10338 net.cpp:386] relu3 -> conv3 (in-place)
I0801 00:44:42.018031 10338 net.cpp:141] Setting up relu3
I0801 00:44:42.018051 10338 net.cpp:148] Top shape: 10 384 13 13 (648960)
I0801 00:44:42.018061 10338 net.cpp:156] Memory required for data: 58596920
I0801 00:44:42.018071 10338 layer_factory.hpp:77] Creating layer conv4
I0801 00:44:42.018096 10338 net.cpp:91] Creating Layer conv4
I0801 00:44:42.018110 10338 net.cpp:425] conv4 <- conv3
I0801 00:44:42.018123 10338 net.cpp:399] conv4 -> conv4
I0801 00:44:42.022729 10338 net.cpp:141] Setting up conv4
I0801 00:44:42.022753 10338 net.cpp:148] Top shape: 10 384 13 13 (648960)
I0801 00:44:42.022763 10338 net.cpp:156] Memory required for data: 61192760
I0801 00:44:42.022780 10338 layer_factory.hpp:77] Creating layer relu4
I0801 00:44:42.022794 10338 net.cpp:91] Creating Layer relu4
I0801 00:44:42.022804 10338 net.cpp:425] relu4 <- conv4
I0801 00:44:42.022824 10338 net.cpp:386] relu4 -> conv4 (in-place)
I0801 00:44:42.023524 10338 net.cpp:141] Setting up relu4
I0801 00:44:42.023545 10338 net.cpp:148] Top shape: 10 384 13 13 (648960)
I0801 00:44:42.023555 10338 net.cpp:156] Memory required for data: 63788600
I0801 00:44:42.023564 10338 layer_factory.hpp:77] Creating layer conv5
I0801 00:44:42.023588 10338 net.cpp:91] Creating Layer conv5
I0801 00:44:42.023602 10338 net.cpp:425] conv5 <- conv4
I0801 00:44:42.023620 10338 net.cpp:399] conv5 -> conv5
I0801 00:44:42.028395 10338 net.cpp:141] Setting up conv5
I0801 00:44:42.028417 10338 net.cpp:148] Top shape: 10 256 13 13 (432640)
I0801 00:44:42.028427 10338 net.cpp:156] Memory required for data: 65519160
I0801 00:44:42.028450 10338 layer_factory.hpp:77] Creating layer relu5
I0801 00:44:42.028465 10338 net.cpp:91] Creating Layer relu5
I0801 00:44:42.028475 10338 net.cpp:425] relu5 <- conv5
I0801 00:44:42.028493 10338 net.cpp:386] relu5 -> conv5 (in-place)
I0801 00:44:42.029224 10338 net.cpp:141] Setting up relu5
I0801 00:44:42.029244 10338 net.cpp:148] Top shape: 10 256 13 13 (432640)
I0801 00:44:42.029255 10338 net.cpp:156] Memory required for data: 67249720
I0801 00:44:42.029264 10338 layer_factory.hpp:77] Creating layer pool5
I0801 00:44:42.029289 10338 net.cpp:91] Creating Layer pool5
I0801 00:44:42.029300 10338 net.cpp:425] pool5 <- conv5
I0801 00:44:42.029315 10338 net.cpp:399] pool5 -> pool5
I0801 00:44:42.029420 10338 net.cpp:141] Setting up pool5
I0801 00:44:42.029438 10338 net.cpp:148] Top shape: 10 256 6 6 (92160)
I0801 00:44:42.029448 10338 net.cpp:156] Memory required for data: 67618360
I0801 00:44:42.029458 10338 layer_factory.hpp:77] Creating layer fc6
I0801 00:44:42.029482 10338 net.cpp:91] Creating Layer fc6
I0801 00:44:42.029495 10338 net.cpp:425] fc6 <- pool5
I0801 00:44:42.029510 10338 net.cpp:399] fc6 -> fc6
I0801 00:44:42.128623 10338 net.cpp:141] Setting up fc6
I0801 00:44:42.128680 10338 net.cpp:148] Top shape: 10 4096 (40960)
I0801 00:44:42.128690 10338 net.cpp:156] Memory required for data: 67782200
I0801 00:44:42.128710 10338 layer_factory.hpp:77] Creating layer relu6
I0801 00:44:42.128747 10338 net.cpp:91] Creating Layer relu6
I0801 00:44:42.128758 10338 net.cpp:425] relu6 <- fc6
I0801 00:44:42.128772 10338 net.cpp:386] relu6 -> fc6 (in-place)
I0801 00:44:42.129215 10338 net.cpp:141] Setting up relu6
I0801 00:44:42.129235 10338 net.cpp:148] Top shape: 10 4096 (40960)
I0801 00:44:42.129243 10338 net.cpp:156] Memory required for data: 67946040
I0801 00:44:42.129254 10338 layer_factory.hpp:77] Creating layer drop6
I0801 00:44:42.129283 10338 net.cpp:91] Creating Layer drop6
I0801 00:44:42.129294 10338 net.cpp:425] drop6 <- fc6
I0801 00:44:42.129313 10338 net.cpp:386] drop6 -> fc6 (in-place)
I0801 00:44:42.129390 10338 net.cpp:141] Setting up drop6
I0801 00:44:42.129406 10338 net.cpp:148] Top shape: 10 4096 (40960)
I0801 00:44:42.129415 10338 net.cpp:156] Memory required for data: 68109880
I0801 00:44:42.129426 10338 layer_factory.hpp:77] Creating layer fc7
I0801 00:44:42.129442 10338 net.cpp:91] Creating Layer fc7
I0801 00:44:42.129452 10338 net.cpp:425] fc7 <- fc6
I0801 00:44:42.129465 10338 net.cpp:399] fc7 -> fc7
I0801 00:44:42.158347 10328 net.cpp:141] Setting up embedding
I0801 00:44:42.158399 10328 net.cpp:148] Top shape: 1 1 500 (500)
I0801 00:44:42.158404 10328 net.cpp:156] Memory required for data: 22408
I0801 00:44:42.158426 10328 layer_factory.hpp:77] Creating layer lstm1
I0801 00:44:42.158445 10328 net.cpp:91] Creating Layer lstm1
I0801 00:44:42.158453 10328 net.cpp:425] lstm1 <- embedded_input_frames
I0801 00:44:42.158463 10328 net.cpp:425] lstm1 <- cont_sentence_input_1_split_0
I0801 00:44:42.158474 10328 net.cpp:399] lstm1 -> lstm1
I0801 00:44:42.158501 10328 recurrent_layer.cpp:20] Initializing recurrent layer: assuming input batch contains 1 timesteps of 1 independent streams.
I0801 00:44:42.158854 10328 net.cpp:49] Initializing net from parameters: 
layer {
  name: "lstm1_"
  type: "Input"
  top: "x"
  top: "cont"
  input_param {
    shape {
      dim: 1
      dim: 1
      dim: 500
    }
    shape {
      dim: 1
      dim: 1
    }
  }
}
layer {
  name: "lstm1_"
  type: "Input"
  top: "c_0"
  top: "h_0"
  input_param {
    shape {
      dim: 1
      dim: 1
      dim: 1000
    }
    shape {
      dim: 1
      dim: 1
      dim: 1000
    }
  }
}
layer {
  name: "lstm1_cont_slice"
  type: "Slice"
  bottom: "cont"
  top: "cont_1"
  slice_param {
    axis: 0
  }
}
layer {
  name: "lstm1_x_transform"
  type: "InnerProduct"
  bottom: "x"
  top: "W_xc_x"
  param {
    name: "W_xc"
  }
  param {
    name: "b_c"
  }
  propagate_down: true
  inner_product_param {
    num_output: 4000
    bias_term: true
    weight_filler {
      type: "uniform"
      min: -0.08
      max: 0.08
    }
    bias_filler {
      type: "constant"
      value: 0
    }
    axis: 2
  }
}
layer {
  name: "lstm1_W_xc_x_slice"
  type: "Slice"
  bottom: "W_xc_x"
  top: "W_xc_x_1"
  slice_param {
    axis: 0
  }
}
layer {
  name: "lstm1_h_conted_0"
  type: "Scale"
  bottom: "h_0"
  bottom: "cont_1"
  top: "h_conted_0"
  scale_param {
    axis: 0
  }
}
layer {
  name: "lstm1_transform_1"
  type: "InnerProduct"
  bottom: "h_conted_0"
  top: "W_hc_h_0"
  param {
    name: "W_hc"
  }
  inner_product_param {
    num_output: 4000
    bias_term: false
    weight_filler {
      type: "uniform"
      min: -0.08
      max: 0.08
    }
    axis: 2
  }
}
layer {
  name: "lstm1_gate_input_1"
  type: "Eltwise"
  bottom: "W_hc_h_0"
  bottom: "W_xc_x_1"
  top: "gate_input_1"
  eltwise_param {
    operation: SUM
  }
}
layer {
  name: "lstm1_unit_1"
  type: "LSTMUnit"
  bottom: "c_0"
  bottom: "gate_input_1"
  bottom: "cont_1"
  top: "c_1"
  top: "h_1"
}
layer {
  name: "lstm1_"
  type: "Split"
  bottom: "c_1"
  top: "c_T"
}
layer {
  name: "lstm1_h_concat"
  type: "Concat"
  bottom: "h_1"
  top: "h"
  concat_param {
    axis: 0
  }
}
layer {
  name: "h_pseudoloss"
  type: "Reduction"
  bottom: "h"
  top: "h_pseudoloss"
  loss_weight: 1
}
I0801 00:44:42.158946 10328 layer_factory.hpp:77] Creating layer lstm1_
I0801 00:44:42.158959 10328 net.cpp:91] Creating Layer lstm1_
I0801 00:44:42.158967 10328 net.cpp:399] lstm1_ -> x
I0801 00:44:42.158977 10328 net.cpp:399] lstm1_ -> cont
I0801 00:44:42.159045 10328 net.cpp:141] Setting up lstm1_
I0801 00:44:42.159055 10328 net.cpp:148] Top shape: 1 1 500 (500)
I0801 00:44:42.159062 10328 net.cpp:148] Top shape: 1 1 (1)
I0801 00:44:42.159066 10328 net.cpp:156] Memory required for data: 2004
I0801 00:44:42.159071 10328 layer_factory.hpp:77] Creating layer lstm1_
I0801 00:44:42.159080 10328 net.cpp:91] Creating Layer lstm1_
I0801 00:44:42.159090 10328 net.cpp:399] lstm1_ -> c_0
I0801 00:44:42.159099 10328 net.cpp:399] lstm1_ -> h_0
I0801 00:44:42.159150 10328 net.cpp:141] Setting up lstm1_
I0801 00:44:42.159159 10328 net.cpp:148] Top shape: 1 1 1000 (1000)
I0801 00:44:42.159165 10328 net.cpp:148] Top shape: 1 1 1000 (1000)
I0801 00:44:42.159169 10328 net.cpp:156] Memory required for data: 10004
I0801 00:44:42.159174 10328 layer_factory.hpp:77] Creating layer lstm1_cont_slice
I0801 00:44:42.159186 10328 net.cpp:91] Creating Layer lstm1_cont_slice
I0801 00:44:42.159191 10328 net.cpp:425] lstm1_cont_slice <- cont
I0801 00:44:42.159198 10328 net.cpp:399] lstm1_cont_slice -> cont_1
I0801 00:44:42.159235 10328 net.cpp:141] Setting up lstm1_cont_slice
I0801 00:44:42.159243 10328 net.cpp:148] Top shape: 1 1 (1)
I0801 00:44:42.159248 10328 net.cpp:156] Memory required for data: 10008
I0801 00:44:42.159252 10328 layer_factory.hpp:77] Creating layer cont_1_lstm1_cont_slice_0_split
I0801 00:44:42.159260 10328 net.cpp:91] Creating Layer cont_1_lstm1_cont_slice_0_split
I0801 00:44:42.159265 10328 net.cpp:425] cont_1_lstm1_cont_slice_0_split <- cont_1
I0801 00:44:42.159274 10328 net.cpp:399] cont_1_lstm1_cont_slice_0_split -> cont_1_lstm1_cont_slice_0_split_0
I0801 00:44:42.159282 10328 net.cpp:399] cont_1_lstm1_cont_slice_0_split -> cont_1_lstm1_cont_slice_0_split_1
I0801 00:44:42.159332 10328 net.cpp:141] Setting up cont_1_lstm1_cont_slice_0_split
I0801 00:44:42.159339 10328 net.cpp:148] Top shape: 1 1 (1)
I0801 00:44:42.159345 10328 net.cpp:148] Top shape: 1 1 (1)
I0801 00:44:42.159349 10328 net.cpp:156] Memory required for data: 10016
I0801 00:44:42.159354 10328 layer_factory.hpp:77] Creating layer lstm1_x_transform
I0801 00:44:42.159364 10328 net.cpp:91] Creating Layer lstm1_x_transform
I0801 00:44:42.159369 10328 net.cpp:425] lstm1_x_transform <- x
I0801 00:44:42.159376 10328 net.cpp:399] lstm1_x_transform -> W_xc_x
I0801 00:44:42.176743 10338 net.cpp:141] Setting up fc7
I0801 00:44:42.176798 10338 net.cpp:148] Top shape: 10 4096 (40960)
I0801 00:44:42.176805 10338 net.cpp:156] Memory required for data: 68273720
I0801 00:44:42.176818 10338 layer_factory.hpp:77] Creating layer relu7
I0801 00:44:42.176838 10338 net.cpp:91] Creating Layer relu7
I0801 00:44:42.176846 10338 net.cpp:425] relu7 <- fc7
I0801 00:44:42.176853 10338 net.cpp:386] relu7 -> fc7 (in-place)
I0801 00:44:42.177600 10338 net.cpp:141] Setting up relu7
I0801 00:44:42.177618 10338 net.cpp:148] Top shape: 10 4096 (40960)
I0801 00:44:42.177623 10338 net.cpp:156] Memory required for data: 68437560
I0801 00:44:42.177628 10338 layer_factory.hpp:77] Creating layer drop7
I0801 00:44:42.177652 10338 net.cpp:91] Creating Layer drop7
I0801 00:44:42.177659 10338 net.cpp:425] drop7 <- fc7
I0801 00:44:42.177667 10338 net.cpp:386] drop7 -> fc7 (in-place)
I0801 00:44:42.177706 10338 net.cpp:141] Setting up drop7
I0801 00:44:42.177714 10338 net.cpp:148] Top shape: 10 4096 (40960)
I0801 00:44:42.177719 10338 net.cpp:156] Memory required for data: 68601400
I0801 00:44:42.177724 10338 layer_factory.hpp:77] Creating layer fc8
I0801 00:44:42.177738 10338 net.cpp:91] Creating Layer fc8
I0801 00:44:42.177743 10338 net.cpp:425] fc8 <- fc7
I0801 00:44:42.177750 10338 net.cpp:399] fc8 -> fc8
I0801 00:44:42.185169 10328 net.cpp:141] Setting up lstm1_x_transform
I0801 00:44:42.185228 10328 net.cpp:148] Top shape: 1 1 4000 (4000)
I0801 00:44:42.185235 10328 net.cpp:156] Memory required for data: 26016
I0801 00:44:42.185255 10328 layer_factory.hpp:77] Creating layer lstm1_W_xc_x_slice
I0801 00:44:42.185273 10328 net.cpp:91] Creating Layer lstm1_W_xc_x_slice
I0801 00:44:42.185281 10328 net.cpp:425] lstm1_W_xc_x_slice <- W_xc_x
I0801 00:44:42.185291 10328 net.cpp:399] lstm1_W_xc_x_slice -> W_xc_x_1
I0801 00:44:42.185334 10328 net.cpp:141] Setting up lstm1_W_xc_x_slice
I0801 00:44:42.185344 10328 net.cpp:148] Top shape: 1 1 4000 (4000)
I0801 00:44:42.185349 10328 net.cpp:156] Memory required for data: 42016
I0801 00:44:42.185353 10328 layer_factory.hpp:77] Creating layer lstm1_h_conted_0
I0801 00:44:42.185364 10328 net.cpp:91] Creating Layer lstm1_h_conted_0
I0801 00:44:42.185369 10328 net.cpp:425] lstm1_h_conted_0 <- h_0
I0801 00:44:42.185379 10328 net.cpp:425] lstm1_h_conted_0 <- cont_1_lstm1_cont_slice_0_split_0
I0801 00:44:42.185386 10328 net.cpp:399] lstm1_h_conted_0 -> h_conted_0
I0801 00:44:42.185478 10328 net.cpp:141] Setting up lstm1_h_conted_0
I0801 00:44:42.185487 10328 net.cpp:148] Top shape: 1 1 1000 (1000)
I0801 00:44:42.185492 10328 net.cpp:156] Memory required for data: 46016
I0801 00:44:42.185497 10328 layer_factory.hpp:77] Creating layer lstm1_transform_1
I0801 00:44:42.185513 10328 net.cpp:91] Creating Layer lstm1_transform_1
I0801 00:44:42.185518 10328 net.cpp:425] lstm1_transform_1 <- h_conted_0
I0801 00:44:42.185526 10328 net.cpp:399] lstm1_transform_1 -> W_hc_h_0
I0801 00:44:42.193224 10338 net.cpp:141] Setting up fc8
I0801 00:44:42.193279 10338 net.cpp:148] Top shape: 10 1000 (10000)
I0801 00:44:42.193284 10338 net.cpp:156] Memory required for data: 68641400
I0801 00:44:42.193300 10338 layer_factory.hpp:77] Creating layer prob
I0801 00:44:42.193316 10338 net.cpp:91] Creating Layer prob
I0801 00:44:42.193323 10338 net.cpp:425] prob <- fc8
I0801 00:44:42.193339 10338 net.cpp:399] prob -> prob
I0801 00:44:42.193747 10338 net.cpp:141] Setting up prob
I0801 00:44:42.193759 10338 net.cpp:148] Top shape: 10 1000 (10000)
I0801 00:44:42.193764 10338 net.cpp:156] Memory required for data: 68681400
I0801 00:44:42.193769 10338 net.cpp:219] prob does not need backward computation.
I0801 00:44:42.193774 10338 net.cpp:219] fc8 does not need backward computation.
I0801 00:44:42.193779 10338 net.cpp:219] drop7 does not need backward computation.
I0801 00:44:42.193783 10338 net.cpp:219] relu7 does not need backward computation.
…
I0801 00:44:42.193856 10338 net.cpp:219] norm1 does not need backward computation.
I0801 00:44:42.193861 10338 net.cpp:219] pool1 does not need backward computation.
I0801 00:44:42.193866 10338 net.cpp:219] relu1 does not need backward computation.
I0801 00:44:42.193869 10338 net.cpp:219] conv1 does not need backward computation.
I0801 00:44:42.193873 10338 net.cpp:219] data does not need backward computation.
I0801 00:44:42.193877 10338 net.cpp:261] This network produces output prob
I0801 00:44:42.193898 10338 net.cpp:274] Network initialization done.
I0801 00:44:42.224628 10328 net.cpp:141] Setting up lstm1_transform_1
I0801 00:44:42.224671 10328 net.cpp:148] Top shape: 1 1 4000 (4000)
I0801 00:44:42.224676 10328 net.cpp:156] Memory required for data: 62016
I0801 00:44:42.224694 10328 layer_factory.hpp:77] Creating layer lstm1_gate_input_1
I0801 00:44:42.224715 10328 net.cpp:91] Creating Layer lstm1_gate_input_1
I0801 00:44:42.224722 10328 net.cpp:425] lstm1_gate_input_1 <- W_hc_h_0
I0801 00:44:42.224731 10328 net.cpp:425] lstm1_gate_input_1 <- W_xc_x_1
I0801 00:44:42.224738 10328 net.cpp:399] lstm1_gate_input_1 -> gate_input_1
I0801 00:44:42.224791 10328 net.cpp:141] Setting up lstm1_gate_input_1
I0801 00:44:42.224800 10328 net.cpp:148] Top shape: 1 1 4000 (4000)
I0801 00:44:42.224804 10328 net.cpp:156] Memory required for data: 78016
I0801 00:44:42.224809 10328 layer_factory.hpp:77] Creating layer lstm1_unit_1
I0801 00:44:42.224818 10328 net.cpp:91] Creating Layer lstm1_unit_1
I0801 00:44:42.224822 10328 net.cpp:425] lstm1_unit_1 <- c_0
I0801 00:44:42.224828 10328 net.cpp:425] lstm1_unit_1 <- gate_input_1
I0801 00:44:42.224833 10328 net.cpp:425] lstm1_unit_1 <- cont_1_lstm1_cont_slice_0_split_1
I0801 00:44:42.224843 10328 net.cpp:399] lstm1_unit_1 -> c_1
I0801 00:44:42.224851 10328 net.cpp:399] lstm1_unit_1 -> h_1
I0801 00:44:42.224911 10328 net.cpp:141] Setting up lstm1_unit_1
I0801 00:44:42.224920 10328 net.cpp:148] Top shape: 1 1 1000 (1000)
I0801 00:44:42.224925 10328 net.cpp:148] Top shape: 1 1 1000 (1000)
I0801 00:44:42.224930 10328 net.cpp:156] Memory required for data: 86016
I0801 00:44:42.224934 10328 layer_factory.hpp:77] Creating layer lstm1_
I0801 00:44:42.224942 10328 net.cpp:91] Creating Layer lstm1_
I0801 00:44:42.224947 10328 net.cpp:425] lstm1_ <- c_1
I0801 00:44:42.224953 10328 net.cpp:399] lstm1_ -> c_T
I0801 00:44:42.224985 10328 net.cpp:141] Setting up lstm1_
I0801 00:44:42.224993 10328 net.cpp:148] Top shape: 1 1 1000 (1000)
I0801 00:44:42.224998 10328 net.cpp:156] Memory required for data: 90016
I0801 00:44:42.225003 10328 layer_factory.hpp:77] Creating layer lstm1_h_concat
I0801 00:44:42.225013 10328 net.cpp:91] Creating Layer lstm1_h_concat
I0801 00:44:42.225016 10328 net.cpp:425] lstm1_h_concat <- h_1
I0801 00:44:42.225023 10328 net.cpp:399] lstm1_h_concat -> h
I0801 00:44:42.225070 10328 net.cpp:141] Setting up lstm1_h_concat
I0801 00:44:42.225080 10328 net.cpp:148] Top shape: 1 1 1000 (1000)
I0801 00:44:42.225085 10328 net.cpp:156] Memory required for data: 94016
I0801 00:44:42.225088 10328 layer_factory.hpp:77] Creating layer h_pseudoloss
I0801 00:44:42.225107 10328 net.cpp:91] Creating Layer h_pseudoloss
I0801 00:44:42.225112 10328 net.cpp:425] h_pseudoloss <- h
I0801 00:44:42.225119 10328 net.cpp:399] h_pseudoloss -> h_pseudoloss
I0801 00:44:42.225208 10328 net.cpp:141] Setting up h_pseudoloss
…
I0801 00:44:42.225327 10328 net.cpp:219] lstm1_ does not need backward computation.
I0801 00:44:42.225329 10328 net.cpp:261] This network produces output c_T
I0801 00:44:42.225334 10328 net.cpp:261] This network produces output h_pseudoloss
I0801 00:44:42.225348 10328 net.cpp:274] Network initialization done.
I0801 00:44:42.225411 10328 recurrent_layer.cpp:150] Adding parameter 0: W_xc
I0801 00:44:42.225417 10328 recurrent_layer.cpp:150] Adding parameter 1: b_c
I0801 00:44:42.225422 10328 recurrent_layer.cpp:150] Adding parameter 2: W_hc
I0801 00:44:42.225525 10328 net.cpp:141] Setting up lstm1
I0801 00:44:42.225536 10328 net.cpp:148] Top shape: 1 1 1000 (1000)
I0801 00:44:42.225540 10328 net.cpp:156] Memory required for data: 26408
I0801 00:44:42.225553 10328 layer_factory.hpp:77] Creating layer concat
I0801 00:44:42.225561 10328 net.cpp:91] Creating Layer concat
I0801 00:44:42.225567 10328 net.cpp:425] concat <- lstm1
I0801 00:44:42.225574 10328 net.cpp:425] concat <- embedded_input_sentence
I0801 00:44:42.225579 10328 net.cpp:425] concat <- reshaped_stage_indicator
I0801 00:44:42.225585 10328 net.cpp:399] concat -> lstm1_video_sequence
I0801 00:44:42.225616 10328 net.cpp:141] Setting up concat
I0801 00:44:42.225625 10328 net.cpp:148] Top shape: 1 1 1501 (1501)
I0801 00:44:42.225630 10328 net.cpp:156] Memory required for data: 32412
I0801 00:44:42.225636 10328 layer_factory.hpp:77] Creating layer lstm2
I0801 00:44:42.225646 10328 net.cpp:91] Creating Layer lstm2
I0801 00:44:42.225651 10328 net.cpp:425] lstm2 <- lstm1_video_sequence
I0801 00:44:42.225657 10328 net.cpp:425] lstm2 <- cont_sentence_input_1_split_1
I0801 00:44:42.225664 10328 net.cpp:399] lstm2 -> lstm2
I0801 00:44:42.225674 10328 recurrent_layer.cpp:20] Initializing recurrent layer: assuming input batch contains 1 timesteps of 1 independent streams.
I0801 00:44:42.225899 10328 net.cpp:49] Initializing net from parameters: 
layer {
  name: "lstm2_"
  type: "Input"
  top: "x"
  top: "cont"
  input_param {
    shape {
      dim: 1
      dim: 1
      dim: 1501
    }
    shape {
      dim: 1
      dim: 1
    }
  }
}
layer {
  name: "lstm2_"
  type: "Input"
  top: "c_0"
  top: "h_0"
  input_param {
    shape {
      dim: 1
      dim: 1
      dim: 1000
    }
    shape {
      dim: 1
      dim: 1
      dim: 1000
    }
  }
}
layer {
  name: "lstm2_cont_slice"
  type: "Slice"
  bottom: "cont"
  top: "cont_1"
  slice_param {
    axis: 0
  }
}
layer {
  name: "lstm2_x_transform"
  type: "InnerProduct"
  bottom: "x"
  top: "W_xc_x"
  param {
    name: "W_xc"
  }
  param {
    name: "b_c"
  }
  propagate_down: true
  inner_product_param {
    num_output: 4000
    bias_term: true
    weight_filler {
      type: "uniform"
      min: -0.08
      max: 0.08
    }
    bias_filler {
      type: "constant"
      value: 0
    }
    axis: 2
  }
}
layer {
  name: "lstm2_W_xc_x_slice"
  type: "Slice"
  bottom: "W_xc_x"
  top: "W_xc_x_1"
  slice_param {
    axis: 0
  }
}
layer {
  name: "lstm2_h_conted_0"
  type: "Scale"
  bottom: "h_0"
  bottom: "cont_1"
  top: "h_conted_0"
  scale_param {
    axis: 0
  }
}
layer {
  name: "lstm2_transform_1"
  type: "InnerProduct"
  bottom: "h_conted_0"
  top: "W_hc_h_0"
  param {
    name: "W_hc"
  }
  inner_product_param {
    num_output: 4000
    bias_term: false
    weight_filler {
      type: "uniform"
      min: -0.08
      max: 0.08
    }
    axis: 2
  }
}
layer {
  name: "lstm2_gate_input_1"
  type: "Eltwise"
  bottom: "W_hc_h_0"
  bottom: "W_xc_x_1"
  top: "gate_input_1"
  eltwise_param {
    operation: SUM
  }
}
layer {
  name: "lstm2_unit_1"
  type: "LSTMUnit"
  bottom: "c_0"
  bottom: "gate_input_1"
  bottom: "cont_1"
  top: "c_1"
  top: "h_1"
}
layer {
  name: "lstm2_"
  type: "Split"
  bottom: "c_1"
  top: "c_T"
}
layer {
  name: "lstm2_h_concat"
  type: "Concat"
  bottom: "h_1"
  top: "h"
  concat_param {
    axis: 0
  }
}
layer {
  name: "h_pseudoloss"
  type: "Reduction"
  bottom: "h"
  top: "h_pseudoloss"
  loss_weight: 1
}
I0801 00:44:42.225980 10328 layer_factory.hpp:77] Creating layer lstm2_
I0801 00:44:42.225992 10328 net.cpp:91] Creating Layer lstm2_
I0801 00:44:42.225998 10328 net.cpp:399] lstm2_ -> x
I0801 00:44:42.226008 10328 net.cpp:399] lstm2_ -> cont
I0801 00:44:42.226059 10328 net.cpp:141] Setting up lstm2_
I0801 00:44:42.226068 10328 net.cpp:148] Top shape: 1 1 1501 (1501)
I0801 00:44:42.226074 10328 net.cpp:148] Top shape: 1 1 (1)
I0801 00:44:42.226078 10328 net.cpp:156] Memory required for data: 6008
I0801 00:44:42.226083 10328 layer_factory.hpp:77] Creating layer lstm2_
I0801 00:44:42.226091 10328 net.cpp:91] Creating Layer lstm2_
I0801 00:44:42.226100 10328 net.cpp:399] lstm2_ -> c_0
I0801 00:44:42.226109 10328 net.cpp:399] lstm2_ -> h_0
I0801 00:44:42.226171 10328 net.cpp:141] Setting up lstm2_
I0801 00:44:42.226179 10328 net.cpp:148] Top shape: 1 1 1000 (1000)
I0801 00:44:42.226186 10328 net.cpp:148] Top shape: 1 1 1000 (1000)
I0801 00:44:42.226191 10328 net.cpp:156] Memory required for data: 14008
I0801 00:44:42.226194 10328 layer_factory.hpp:77] Creating layer lstm2_cont_slice
I0801 00:44:42.226203 10328 net.cpp:91] Creating Layer lstm2_cont_slice
I0801 00:44:42.226208 10328 net.cpp:425] lstm2_cont_slice <- cont
I0801 00:44:42.226215 10328 net.cpp:399] lstm2_cont_slice -> cont_1
I0801 00:44:42.226246 10328 net.cpp:141] Setting up lstm2_cont_slice
I0801 00:44:42.226255 10328 net.cpp:148] Top shape: 1 1 (1)
I0801 00:44:42.226261 10328 net.cpp:156] Memory required for data: 14012
I0801 00:44:42.226265 10328 layer_factory.hpp:77] Creating layer cont_1_lstm2_cont_slice_0_split
I0801 00:44:42.226279 10328 net.cpp:91] Creating Layer cont_1_lstm2_cont_slice_0_split
I0801 00:44:42.226284 10328 net.cpp:425] cont_1_lstm2_cont_slice_0_split <- cont_1
I0801 00:44:42.226290 10328 net.cpp:399] cont_1_lstm2_cont_slice_0_split -> cont_1_lstm2_cont_slice_0_split_0
I0801 00:44:42.226299 10328 net.cpp:399] cont_1_lstm2_cont_slice_0_split -> cont_1_lstm2_cont_slice_0_split_1
I0801 00:44:42.226344 10328 net.cpp:141] Setting up cont_1_lstm2_cont_slice_0_split
I0801 00:44:42.226352 10328 net.cpp:148] Top shape: 1 1 (1)
I0801 00:44:42.226358 10328 net.cpp:148] Top shape: 1 1 (1)
I0801 00:44:42.226362 10328 net.cpp:156] Memory required for data: 14020
I0801 00:44:42.226367 10328 layer_factory.hpp:77] Creating layer lstm2_x_transform
I0801 00:44:42.226379 10328 net.cpp:91] Creating Layer lstm2_x_transform
I0801 00:44:42.226384 10328 net.cpp:425] lstm2_x_transform <- x
I0801 00:44:42.226392 10328 net.cpp:399] lstm2_x_transform -> W_xc_x
I0801 00:44:42.281412 10328 net.cpp:141] Setting up lstm2_x_transform
I0801 00:44:42.281471 10328 net.cpp:148] Top shape: 1 1 4000 (4000)
I0801 00:44:42.281479 10328 net.cpp:156] Memory required for data: 30020
I0801 00:44:42.281499 10328 layer_factory.hpp:77] Creating layer lstm2_W_xc_x_slice
I0801 00:44:42.281528 10328 net.cpp:91] Creating Layer lstm2_W_xc_x_slice
I0801 00:44:42.281534 10328 net.cpp:425] lstm2_W_xc_x_slice <- W_xc_x
I0801 00:44:42.281544 10328 net.cpp:399] lstm2_W_xc_x_slice -> W_xc_x_1
I0801 00:44:42.281590 10328 net.cpp:141] Setting up lstm2_W_xc_x_slice
I0801 00:44:42.281600 10328 net.cpp:148] Top shape: 1 1 4000 (4000)
I0801 00:44:42.281605 10328 net.cpp:156] Memory required for data: 46020
I0801 00:44:42.281610 10328 layer_factory.hpp:77] Creating layer lstm2_h_conted_0
I0801 00:44:42.281620 10328 net.cpp:91] Creating Layer lstm2_h_conted_0
I0801 00:44:42.281625 10328 net.cpp:425] lstm2_h_conted_0 <- h_0
I0801 00:44:42.281631 10328 net.cpp:425] lstm2_h_conted_0 <- cont_1_lstm2_cont_slice_0_split_0
I0801 00:44:42.281638 10328 net.cpp:399] lstm2_h_conted_0 -> h_conted_0
I0801 00:44:42.281729 10328 net.cpp:141] Setting up lstm2_h_conted_0
I0801 00:44:42.281738 10328 net.cpp:148] Top shape: 1 1 1000 (1000)
I0801 00:44:42.281744 10328 net.cpp:156] Memory required for data: 50020
I0801 00:44:42.281747 10328 layer_factory.hpp:77] Creating layer lstm2_transform_1
I0801 00:44:42.281760 10328 net.cpp:91] Creating Layer lstm2_transform_1
I0801 00:44:42.281765 10328 net.cpp:425] lstm2_transform_1 <- h_conted_0
I0801 00:44:42.281774 10328 net.cpp:399] lstm2_transform_1 -> W_hc_h_0
I0801 00:44:42.319389 10328 net.cpp:141] Setting up lstm2_transform_1
I0801 00:44:42.319447 10328 net.cpp:148] Top shape: 1 1 4000 (4000)
I0801 00:44:42.319453 10328 net.cpp:156] Memory required for data: 66020
I0801 00:44:42.319471 10328 layer_factory.hpp:77] Creating layer lstm2_gate_input_1
I0801 00:44:42.319489 10328 net.cpp:91] Creating Layer lstm2_gate_input_1
I0801 00:44:42.319494 10328 net.cpp:425] lstm2_gate_input_1 <- W_hc_h_0
I0801 00:44:42.319504 10328 net.cpp:425] lstm2_gate_input_1 <- W_xc_x_1
I0801 00:44:42.319510 10328 net.cpp:399] lstm2_gate_input_1 -> gate_input_1
I0801 00:44:42.319557 10328 net.cpp:141] Setting up lstm2_gate_input_1
I0801 00:44:42.319566 10328 net.cpp:148] Top shape: 1 1 4000 (4000)
I0801 00:44:42.319571 10328 net.cpp:156] Memory required for data: 82020
I0801 00:44:42.319576 10328 layer_factory.hpp:77] Creating layer lstm2_unit_1
I0801 00:44:42.319586 10328 net.cpp:91] Creating Layer lstm2_unit_1
I0801 00:44:42.319591 10328 net.cpp:425] lstm2_unit_1 <- c_0
I0801 00:44:42.319597 10328 net.cpp:425] lstm2_unit_1 <- gate_input_1
I0801 00:44:42.319602 10328 net.cpp:425] lstm2_unit_1 <- cont_1_lstm2_cont_slice_0_split_1
I0801 00:44:42.319608 10328 net.cpp:399] lstm2_unit_1 -> c_1
I0801 00:44:42.319617 10328 net.cpp:399] lstm2_unit_1 -> h_1
I0801 00:44:42.319676 10328 net.cpp:141] Setting up lstm2_unit_1
I0801 00:44:42.319685 10328 net.cpp:148] Top shape: 1 1 1000 (1000)
I0801 00:44:42.319690 10328 net.cpp:148] Top shape: 1 1 1000 (1000)
I0801 00:44:42.319694 10328 net.cpp:156] Memory required for data: 90020
I0801 00:44:42.319700 10328 layer_factory.hpp:77] Creating layer lstm2_
I0801 00:44:42.319707 10328 net.cpp:91] Creating Layer lstm2_
I0801 00:44:42.319712 10328 net.cpp:425] lstm2_ <- c_1
I0801 00:44:42.319718 10328 net.cpp:399] lstm2_ -> c_T
I0801 00:44:42.319747 10328 net.cpp:141] Setting up lstm2_
I0801 00:44:42.319756 10328 net.cpp:148] Top shape: 1 1 1000 (1000)
I0801 00:44:42.319759 10328 net.cpp:156] Memory required for data: 94020
I0801 00:44:42.319763 10328 layer_factory.hpp:77] Creating layer lstm2_h_concat
I0801 00:44:42.319775 10328 net.cpp:91] Creating Layer lstm2_h_concat
I0801 00:44:42.319780 10328 net.cpp:425] lstm2_h_concat <- h_1
I0801 00:44:42.319787 10328 net.cpp:399] lstm2_h_concat -> h
I0801 00:44:42.319821 10328 net.cpp:141] Setting up lstm2_h_concat
I0801 00:44:42.319829 10328 net.cpp:148] Top shape: 1 1 1000 (1000)
I0801 00:44:42.319833 10328 net.cpp:156] Memory required for data: 98020
I0801 00:44:42.319839 10328 layer_factory.hpp:77] Creating layer h_pseudoloss
I0801 00:44:42.319847 10328 net.cpp:91] Creating Layer h_pseudoloss
I0801 00:44:42.319852 10328 net.cpp:425] h_pseudoloss <- h
I0801 00:44:42.319860 10328 net.cpp:399] h_pseudoloss -> h_pseudoloss
I0801 00:44:42.319942 10328 net.cpp:141] Setting up h_pseudoloss
…
