…
Java HotSpot(TM) 64-Bit Server VM warning: You have loaded library /tmp/cvld3914718419627529275/libopencv_java310.xine1.so which might have disabled stack guard. The VM will try to fix the stack guard now.
It's highly recommended that you fix the library with 'execstack -c <libfile>', or link it with '-z noexecstack'.
WARNING: Logging before InitGoogleLogging() is written to STDERR
I0801 00:37:05.539074  8587 net.cpp:49] Initializing net from parameters: 
name: "CaffeNet"
state {
  phase: TEST
}
layer {
  name: "data"
  type: "Input"
  top: "data"
  input_param {
    shape {
      dim: 10
      dim: 3
      dim: 227
      dim: 227
    }
  }
}
layer {
  name: "conv1"
  type: "Convolution"
  bottom: "data"
  top: "conv1"
  convolution_param {
    num_output: 96
    kernel_size: 11
    stride: 4
  }
}
layer {
  name: "relu1"
  type: "ReLU"
  bottom: "conv1"
  top: "conv1"
}
layer {
  name: "pool1"
  type: "Pooling"
  bottom: "conv1"
  top: "pool1"
  pooling_param {
    pool: MAX
    kernel_size: 3
    stride: 2
  }
}
layer {
  name: "norm1"
  type: "LRN"
  bottom: "pool1"
  top: "norm1"
  lrn_param {
    local_size: 5
    alpha: 0.0001
    beta: 0.75
  }
}
layer {
  name: "conv2"
  type: "Convolution"
  bottom: "norm1"
  top: "conv2"
  convolution_param {
    num_output: 256
    pad: 2
    kernel_size: 5
    group: 2
  }
}
layer {
  name: "relu2"
  type: "ReLU"
  bottom: "conv2"
  top: "conv2"
}
layer {
  name: "pool2"
  type: "Pooling"
  bottom: "conv2"
  top: "pool2"
  pooling_param {
    pool: MAX
    kernel_size: 3
    stride: 2
  }
}
layer {
  name: "norm2"
  type: "LRN"
  bottom: "pool2"
  top: "norm2"
  lrn_param {
    local_size: 5
    alpha: 0.0001
    beta: 0.75
  }
}
layer {
  name: "conv3"
  type: "Convolution"
  bottom: "norm2"
  top: "conv3"
  convolution_param {
    num_output: 384
    pad: 1
    kernel_size: 3
  }
}
layer {
  name: "relu3"
  type: "ReLU"
  bottom: "conv3"
  top: "conv3"
}
layer {
  name: "conv4"
  type: "Convolution"
  bottom: "conv3"
  top: "conv4"
  convolution_param {
    num_output: 384
    pad: 1
    kernel_size: 3
    group: 2
  }
}
layer {
  name: "relu4"
  type: "ReLU"
  bottom: "conv4"
  top: "conv4"
}
layer {
  name: "conv5"
  type: "Convolution"
  bottom: "conv4"
  top: "conv5"
  convolution_param {
    num_output: 256
    pad: 1
    kernel_size: 3
    group: 2
  }
}
layer {
  name: "relu5"
  type: "ReLU"
  bottom: "conv5"
  top: "conv5"
}
layer {
  name: "pool5"
  type: "Pooling"
  bottom: "conv5"
  top: "pool5"
  pooling_param {
    pool: MAX
    kernel_size: 3
    stride: 2
  }
}
layer {
  name: "fc6"
  type: "InnerProduct"
  bottom: "pool5"
  top: "fc6"
  inner_product_param {
    num_output: 4096
  }
}
layer {
  name: "relu6"
  type: "ReLU"
  bottom: "fc6"
  top: "fc6"
}
layer {
  name: "drop6"
  type: "Dropout"
  bottom: "fc6"
  top: "fc6"
  dropout_param {
    dropout_ratio: 0.5
  }
}
layer {
  name: "fc7"
  type: "InnerProduct"
  bottom: "fc6"
  top: "fc7"
  inner_product_param {
    num_output: 4096
  }
}
layer {
  name: "relu7"
  type: "ReLU"
  bottom: "fc7"
  top: "fc7"
}
layer {
  name: "drop7"
  type: "Dropout"
  bottom: "fc7"
  top: "fc7"
  dropout_param {
    dropout_ratio: 0.5
  }
}
layer {
  name: "fc8"
  type: "InnerProduct"
  bottom: "fc7"
  top: "fc8"
  inner_product_param {
    num_output: 1000
  }
}
layer {
  name: "prob"
  type: "Softmax"
  bottom: "fc8"
  top: "prob"
}
I0801 00:37:05.539288  8587 layer_factory.hpp:77] Creating layer data
I0801 00:37:05.539316  8587 net.cpp:91] Creating Layer data
I0801 00:37:05.539327  8587 net.cpp:399] data -> data
I0801 00:37:06.070816  8587 net.cpp:141] Setting up data
I0801 00:37:06.070919  8587 net.cpp:148] Top shape: 10 3 227 227 (1545870)
I0801 00:37:06.070926  8587 net.cpp:156] Memory required for data: 6183480
I0801 00:37:06.070946  8587 layer_factory.hpp:77] Creating layer conv1
I0801 00:37:06.070981  8587 net.cpp:91] Creating Layer conv1
I0801 00:37:06.070991  8587 net.cpp:425] conv1 <- data
I0801 00:37:06.071005  8587 net.cpp:399] conv1 -> conv1
I0801 00:37:06.166183  8577 upgrade_proto.cpp:66] Attempting to upgrade input file specified using deprecated input fields: /tmp/cvld3914718419627529275/s2vt.words_to_preds.prototxt
I0801 00:37:06.166246  8577 upgrade_proto.cpp:69] Successfully upgraded file specified using deprecated input fields.
W0801 00:37:06.166255  8577 upgrade_proto.cpp:71] Note that future Caffe releases will only support input layers and not input fields.
I0801 00:37:06.166558  8577 net.cpp:49] Initializing net from parameters: 
name: "s2vt:features_to_lstm"
state {
  phase: TEST
}
layer {
  name: "input"
  type: "Input"
  top: "frames_fc7"
  top: "cont_sentence"
  top: "input_sentence"
  top: "stage_indicator"
  input_param {
    shape {
      dim: 1
      dim: 4096
    }
    shape {
      dim: 1
      dim: 1
    }
    shape {
      dim: 1
      dim: 1
    }
    shape {
      dim: 1
      dim: 1
    }
  }
}
layer {
  name: "embed_encoder"
  type: "InnerProduct"
  bottom: "frames_fc7"
  top: "embedded_in_frames"
  param {
    lr_mult: 1
    decay_mult: 1
  }
  param {
    lr_mult: 2
    decay_mult: 0
  }
  inner_product_param {
    num_output: 500
    weight_filler {
      type: "xavier"
    }
    bias_filler {
      type: "constant"
      value: 0.2
    }
  }
}
layer {
  name: "reshape_frames"
  type: "Reshape"
  bottom: "embedded_in_frames"
  top: "embedded_input_frames"
  reshape_param {
    shape {
      dim: 1
      dim: 1
      dim: 500
    }
  }
}
layer {
  name: "reshape_stage_indicator"
  type: "Reshape"
  bottom: "stage_indicator"
  top: "reshaped_stage_indicator"
  reshape_param {
    shape {
      dim: 1
      dim: 1
      dim: 1
    }
  }
}
layer {
  name: "embedding"
  type: "Embed"
  bottom: "input_sentence"
  top: "embedded_input_sentence"
  param {
    lr_mult: 1
  }
  embed_param {
    num_output: 500
    input_dim: 46168
    bias_term: false
    weight_filler {
      type: "uniform"
      min: -0.08
      max: 0.08
    }
  }
}
layer {
  name: "lstm1"
  type: "LSTM"
  bottom: "embedded_input_frames"
  bottom: "cont_sentence"
  top: "lstm1"
  recurrent_param {
    num_output: 1000
    weight_filler {
      type: "uniform"
      min: -0.08
      max: 0.08
    }
    bias_filler {
      type: "constant"
      value: 0
    }
  }
}
layer {
  name: "concat"
  type: "Concat"
  bottom: "lstm1"
  bottom: "embedded_input_sentence"
  bottom: "reshaped_stage_indicator"
  top: "lstm1_video_sequence"
  concat_param {
    concat_dim: 2
  }
}
layer {
  name: "lstm2"
  type: "LSTM"
  bottom: "lstm1_video_sequence"
  bottom: "cont_sentence"
  top: "lstm2"
  recurrent_param {
    num_output: 1000
    weight_filler {
      type: "uniform"
      min: -0.08
      max: 0.08
    }
    bias_filler {
      type: "constant"
      value: 0
    }
  }
}
layer {
  name: "predict"
  type: "InnerProduct"
  bottom: "lstm2"
  top: "predict"
  param {
    lr_mult: 1
    decay_mult: 1
  }
  param {
    lr_mult: 2
    decay_mult: 0
  }
  inner_product_param {
    num_output: 46168
    weight_filler {
      type: "uniform"
      min: -0.08
      max: 0.08
    }
    bias_filler {
      type: "constant"
      value: 0
    }
    axis: 2
  }
}
layer {
  name: "probs"
  type: "Softmax"
  bottom: "predict"
  top: "probs"
  softmax_param {
    axis: 2
  }
}
I0801 00:37:06.166674  8577 layer_factory.hpp:77] Creating layer input
I0801 00:37:06.166692  8577 net.cpp:91] Creating Layer input
I0801 00:37:06.166702  8577 net.cpp:399] input -> frames_fc7
I0801 00:37:06.166723  8577 net.cpp:399] input -> cont_sentence
I0801 00:37:06.166735  8577 net.cpp:399] input -> input_sentence
I0801 00:37:06.166746  8577 net.cpp:399] input -> stage_indicator
I0801 00:37:06.167021  8577 net.cpp:141] Setting up input
I0801 00:37:06.167037  8577 net.cpp:148] Top shape: 1 4096 (4096)
I0801 00:37:06.167044  8577 net.cpp:148] Top shape: 1 1 (1)
I0801 00:37:06.167050  8577 net.cpp:148] Top shape: 1 1 (1)
I0801 00:37:06.167057  8577 net.cpp:148] Top shape: 1 1 (1)
I0801 00:37:06.167060  8577 net.cpp:156] Memory required for data: 16396
I0801 00:37:06.167068  8577 layer_factory.hpp:77] Creating layer cont_sentence_input_1_split
I0801 00:37:06.167089  8577 net.cpp:91] Creating Layer cont_sentence_input_1_split
I0801 00:37:06.167095  8577 net.cpp:425] cont_sentence_input_1_split <- cont_sentence
I0801 00:37:06.167117  8577 net.cpp:399] cont_sentence_input_1_split -> cont_sentence_input_1_split_0
I0801 00:37:06.167130  8577 net.cpp:399] cont_sentence_input_1_split -> cont_sentence_input_1_split_1
I0801 00:37:06.171684  8577 net.cpp:141] Setting up cont_sentence_input_1_split
I0801 00:37:06.171705  8577 net.cpp:148] Top shape: 1 1 (1)
I0801 00:37:06.171713  8577 net.cpp:148] Top shape: 1 1 (1)
I0801 00:37:06.171718  8577 net.cpp:156] Memory required for data: 16404
I0801 00:37:06.171725  8577 layer_factory.hpp:77] Creating layer embed_encoder
I0801 00:37:06.171746  8577 net.cpp:91] Creating Layer embed_encoder
I0801 00:37:06.171751  8577 net.cpp:425] embed_encoder <- frames_fc7
I0801 00:37:06.171761  8577 net.cpp:399] embed_encoder -> embedded_in_frames
I0801 00:37:06.201227  8577 net.cpp:141] Setting up embed_encoder
I0801 00:37:06.201275  8577 net.cpp:148] Top shape: 1 500 (500)
I0801 00:37:06.201282  8577 net.cpp:156] Memory required for data: 18404
I0801 00:37:06.201314  8577 layer_factory.hpp:77] Creating layer reshape_frames
I0801 00:37:06.201349  8577 net.cpp:91] Creating Layer reshape_frames
I0801 00:37:06.201359  8577 net.cpp:425] reshape_frames <- embedded_in_frames
I0801 00:37:06.201371  8577 net.cpp:399] reshape_frames -> embedded_input_frames
I0801 00:37:06.201452  8577 net.cpp:141] Setting up reshape_frames
I0801 00:37:06.201464  8577 net.cpp:148] Top shape: 1 1 500 (500)
I0801 00:37:06.201469  8577 net.cpp:156] Memory required for data: 20404
I0801 00:37:06.201474  8577 layer_factory.hpp:77] Creating layer reshape_stage_indicator
I0801 00:37:06.201486  8577 net.cpp:91] Creating Layer reshape_stage_indicator
I0801 00:37:06.201493  8577 net.cpp:425] reshape_stage_indicator <- stage_indicator
I0801 00:37:06.201505  8577 net.cpp:399] reshape_stage_indicator -> reshaped_stage_indicator
I0801 00:37:06.202702  8577 net.cpp:141] Setting up reshape_stage_indicator
I0801 00:37:06.202723  8577 net.cpp:148] Top shape: 1 1 1 (1)
I0801 00:37:06.202728  8577 net.cpp:156] Memory required for data: 20408
I0801 00:37:06.202733  8577 layer_factory.hpp:77] Creating layer embedding
I0801 00:37:06.202752  8577 net.cpp:91] Creating Layer embedding
I0801 00:37:06.202759  8577 net.cpp:425] embedding <- input_sentence
I0801 00:37:06.202769  8577 net.cpp:399] embedding -> embedded_input_sentence
I0801 00:37:06.362412  8587 net.cpp:141] Setting up conv1
I0801 00:37:06.362464  8587 net.cpp:148] Top shape: 10 96 55 55 (2904000)
I0801 00:37:06.362471  8587 net.cpp:156] Memory required for data: 17799480
I0801 00:37:06.362498  8587 layer_factory.hpp:77] Creating layer relu1
I0801 00:37:06.362515  8587 net.cpp:91] Creating Layer relu1
I0801 00:37:06.362522  8587 net.cpp:425] relu1 <- conv1
I0801 00:37:06.362530  8587 net.cpp:386] relu1 -> conv1 (in-place)
I0801 00:37:06.363034  8587 net.cpp:141] Setting up relu1
I0801 00:37:06.363047  8587 net.cpp:148] Top shape: 10 96 55 55 (2904000)
I0801 00:37:06.363054  8587 net.cpp:156] Memory required for data: 29415480
I0801 00:37:06.363059  8587 layer_factory.hpp:77] Creating layer pool1
I0801 00:37:06.363071  8587 net.cpp:91] Creating Layer pool1
I0801 00:37:06.363077  8587 net.cpp:425] pool1 <- conv1
I0801 00:37:06.363090  8587 net.cpp:399] pool1 -> pool1
I0801 00:37:06.363165  8587 net.cpp:141] Setting up pool1
I0801 00:37:06.363176  8587 net.cpp:148] Top shape: 10 96 27 27 (699840)
I0801 00:37:06.363181  8587 net.cpp:156] Memory required for data: 32214840
I0801 00:37:06.363188  8587 layer_factory.hpp:77] Creating layer norm1
I0801 00:37:06.363210  8587 net.cpp:91] Creating Layer norm1
I0801 00:37:06.363216  8587 net.cpp:425] norm1 <- pool1
I0801 00:37:06.363226  8587 net.cpp:399] norm1 -> norm1
I0801 00:37:06.363775  8587 net.cpp:141] Setting up norm1
I0801 00:37:06.363790  8587 net.cpp:148] Top shape: 10 96 27 27 (699840)
I0801 00:37:06.363795  8587 net.cpp:156] Memory required for data: 35014200
I0801 00:37:06.363801  8587 layer_factory.hpp:77] Creating layer conv2
I0801 00:37:06.363819  8587 net.cpp:91] Creating Layer conv2
I0801 00:37:06.363826  8587 net.cpp:425] conv2 <- norm1
I0801 00:37:06.363833  8587 net.cpp:399] conv2 -> conv2
I0801 00:37:06.367480  8587 net.cpp:141] Setting up conv2
I0801 00:37:06.367501  8587 net.cpp:148] Top shape: 10 256 27 27 (1866240)
I0801 00:37:06.367507  8587 net.cpp:156] Memory required for data: 42479160
I0801 00:37:06.367521  8587 layer_factory.hpp:77] Creating layer relu2
I0801 00:37:06.367530  8587 net.cpp:91] Creating Layer relu2
I0801 00:37:06.367535  8587 net.cpp:425] relu2 <- conv2
I0801 00:37:06.367543  8587 net.cpp:386] relu2 -> conv2 (in-place)
I0801 00:37:06.368047  8587 net.cpp:141] Setting up relu2
I0801 00:37:06.368062  8587 net.cpp:148] Top shape: 10 256 27 27 (1866240)
I0801 00:37:06.368067  8587 net.cpp:156] Memory required for data: 49944120
I0801 00:37:06.368072  8587 layer_factory.hpp:77] Creating layer pool2
I0801 00:37:06.368083  8587 net.cpp:91] Creating Layer pool2
I0801 00:37:06.368088  8587 net.cpp:425] pool2 <- conv2
I0801 00:37:06.368099  8587 net.cpp:399] pool2 -> pool2
I0801 00:37:06.368160  8587 net.cpp:141] Setting up pool2
I0801 00:37:06.368170  8587 net.cpp:148] Top shape: 10 256 13 13 (432640)
I0801 00:37:06.368175  8587 net.cpp:156] Memory required for data: 51674680
I0801 00:37:06.368180  8587 layer_factory.hpp:77] Creating layer norm2
I0801 00:37:06.368196  8587 net.cpp:91] Creating Layer norm2
I0801 00:37:06.368201  8587 net.cpp:425] norm2 <- pool2
I0801 00:37:06.368209  8587 net.cpp:399] norm2 -> norm2
I0801 00:37:06.368494  8587 net.cpp:141] Setting up norm2
I0801 00:37:06.368505  8587 net.cpp:148] Top shape: 10 256 13 13 (432640)
I0801 00:37:06.368510  8587 net.cpp:156] Memory required for data: 53405240
I0801 00:37:06.368516  8587 layer_factory.hpp:77] Creating layer conv3
I0801 00:37:06.368532  8587 net.cpp:91] Creating Layer conv3
I0801 00:37:06.368538  8587 net.cpp:425] conv3 <- norm2
I0801 00:37:06.368546  8587 net.cpp:399] conv3 -> conv3
I0801 00:37:06.372628  8587 net.cpp:141] Setting up conv3
I0801 00:37:06.372653  8587 net.cpp:148] Top shape: 10 384 13 13 (648960)
I0801 00:37:06.372658  8587 net.cpp:156] Memory required for data: 56001080
I0801 00:37:06.372673  8587 layer_factory.hpp:77] Creating layer relu3
I0801 00:37:06.372684  8587 net.cpp:91] Creating Layer relu3
I0801 00:37:06.372689  8587 net.cpp:425] relu3 <- conv3
I0801 00:37:06.372696  8587 net.cpp:386] relu3 -> conv3 (in-place)
I0801 00:37:06.373188  8587 net.cpp:141] Setting up relu3
I0801 00:37:06.373201  8587 net.cpp:148] Top shape: 10 384 13 13 (648960)
I0801 00:37:06.373206  8587 net.cpp:156] Memory required for data: 58596920
I0801 00:37:06.373212  8587 layer_factory.hpp:77] Creating layer conv4
I0801 00:37:06.373229  8587 net.cpp:91] Creating Layer conv4
I0801 00:37:06.373234  8587 net.cpp:425] conv4 <- conv3
I0801 00:37:06.373242  8587 net.cpp:399] conv4 -> conv4
I0801 00:37:06.377712  8587 net.cpp:141] Setting up conv4
I0801 00:37:06.377733  8587 net.cpp:148] Top shape: 10 384 13 13 (648960)
I0801 00:37:06.377739  8587 net.cpp:156] Memory required for data: 61192760
I0801 00:37:06.377749  8587 layer_factory.hpp:77] Creating layer relu4
I0801 00:37:06.377759  8587 net.cpp:91] Creating Layer relu4
I0801 00:37:06.377764  8587 net.cpp:425] relu4 <- conv4
I0801 00:37:06.377776  8587 net.cpp:386] relu4 -> conv4 (in-place)
I0801 00:37:06.378262  8587 net.cpp:141] Setting up relu4
I0801 00:37:06.378275  8587 net.cpp:148] Top shape: 10 384 13 13 (648960)
I0801 00:37:06.378280  8587 net.cpp:156] Memory required for data: 63788600
I0801 00:37:06.378286  8587 layer_factory.hpp:77] Creating layer conv5
I0801 00:37:06.378300  8587 net.cpp:91] Creating Layer conv5
I0801 00:37:06.378306  8587 net.cpp:425] conv5 <- conv4
I0801 00:37:06.378314  8587 net.cpp:399] conv5 -> conv5
I0801 00:37:06.382643  8587 net.cpp:141] Setting up conv5
I0801 00:37:06.382663  8587 net.cpp:148] Top shape: 10 256 13 13 (432640)
I0801 00:37:06.382668  8587 net.cpp:156] Memory required for data: 65519160
I0801 00:37:06.382683  8587 layer_factory.hpp:77] Creating layer relu5
I0801 00:37:06.382691  8587 net.cpp:91] Creating Layer relu5
I0801 00:37:06.382696  8587 net.cpp:425] relu5 <- conv5
I0801 00:37:06.382707  8587 net.cpp:386] relu5 -> conv5 (in-place)
I0801 00:37:06.383205  8587 net.cpp:141] Setting up relu5
I0801 00:37:06.383219  8587 net.cpp:148] Top shape: 10 256 13 13 (432640)
I0801 00:37:06.383224  8587 net.cpp:156] Memory required for data: 67249720
I0801 00:37:06.383230  8587 layer_factory.hpp:77] Creating layer pool5
I0801 00:37:06.383244  8587 net.cpp:91] Creating Layer pool5
I0801 00:37:06.383249  8587 net.cpp:425] pool5 <- conv5
I0801 00:37:06.383257  8587 net.cpp:399] pool5 -> pool5
I0801 00:37:06.383323  8587 net.cpp:141] Setting up pool5
I0801 00:37:06.383334  8587 net.cpp:148] Top shape: 10 256 6 6 (92160)
I0801 00:37:06.383339  8587 net.cpp:156] Memory required for data: 67618360
I0801 00:37:06.383344  8587 layer_factory.hpp:77] Creating layer fc6
I0801 00:37:06.383357  8587 net.cpp:91] Creating Layer fc6
I0801 00:37:06.383361  8587 net.cpp:425] fc6 <- pool5
I0801 00:37:06.383373  8587 net.cpp:399] fc6 -> fc6
I0801 00:37:06.453315  8577 net.cpp:141] Setting up embedding
I0801 00:37:06.453379  8577 net.cpp:148] Top shape: 1 1 500 (500)
I0801 00:37:06.453385  8577 net.cpp:156] Memory required for data: 22408
I0801 00:37:06.453408  8577 layer_factory.hpp:77] Creating layer lstm1
I0801 00:37:06.453435  8577 net.cpp:91] Creating Layer lstm1
I0801 00:37:06.453445  8577 net.cpp:425] lstm1 <- embedded_input_frames
I0801 00:37:06.453455  8577 net.cpp:425] lstm1 <- cont_sentence_input_1_split_0
I0801 00:37:06.453469  8577 net.cpp:399] lstm1 -> lstm1
I0801 00:37:06.453514  8577 recurrent_layer.cpp:20] Initializing recurrent layer: assuming input batch contains 1 timesteps of 1 independent streams.
I0801 00:37:06.453958  8577 net.cpp:49] Initializing net from parameters: 
layer {
  name: "lstm1_"
  type: "Input"
  top: "x"
  top: "cont"
  input_param {
    shape {
      dim: 1
      dim: 1
      dim: 500
    }
    shape {
      dim: 1
      dim: 1
    }
  }
}
layer {
  name: "lstm1_"
  type: "Input"
  top: "c_0"
  top: "h_0"
  input_param {
    shape {
      dim: 1
      dim: 1
      dim: 1000
    }
    shape {
      dim: 1
      dim: 1
      dim: 1000
    }
  }
}
layer {
  name: "lstm1_cont_slice"
  type: "Slice"
  bottom: "cont"
  top: "cont_1"
  slice_param {
    axis: 0
  }
}
layer {
  name: "lstm1_x_transform"
  type: "InnerProduct"
  bottom: "x"
  top: "W_xc_x"
  param {
    name: "W_xc"
  }
  param {
    name: "b_c"
  }
  propagate_down: true
  inner_product_param {
    num_output: 4000
    bias_term: true
    weight_filler {
      type: "uniform"
      min: -0.08
      max: 0.08
    }
    bias_filler {
      type: "constant"
      value: 0
    }
    axis: 2
  }
}
layer {
  name: "lstm1_W_xc_x_slice"
  type: "Slice"
  bottom: "W_xc_x"
  top: "W_xc_x_1"
  slice_param {
    axis: 0
  }
}
layer {
  name: "lstm1_h_conted_0"
  type: "Scale"
  bottom: "h_0"
  bottom: "cont_1"
  top: "h_conted_0"
  scale_param {
    axis: 0
  }
}
layer {
  name: "lstm1_transform_1"
  type: "InnerProduct"
  bottom: "h_conted_0"
  top: "W_hc_h_0"
  param {
    name: "W_hc"
  }
  inner_product_param {
    num_output: 4000
    bias_term: false
    weight_filler {
      type: "uniform"
      min: -0.08
      max: 0.08
    }
    axis: 2
  }
}
layer {
  name: "lstm1_gate_input_1"
  type: "Eltwise"
  bottom: "W_hc_h_0"
  bottom: "W_xc_x_1"
  top: "gate_input_1"
  eltwise_param {
    operation: SUM
  }
}
layer {
  name: "lstm1_unit_1"
  type: "LSTMUnit"
  bottom: "c_0"
  bottom: "gate_input_1"
  bottom: "cont_1"
  top: "c_1"
  top: "h_1"
}
layer {
  name: "lstm1_"
  type: "Split"
  bottom: "c_1"
  top: "c_T"
}
layer {
  name: "lstm1_h_concat"
  type: "Concat"
  bottom: "h_1"
  top: "h"
  concat_param {
    axis: 0
  }
}
layer {
  name: "h_pseudoloss"
  type: "Reduction"
  bottom: "h"
  top: "h_pseudoloss"
  loss_weight: 1
}
I0801 00:37:06.454064  8577 layer_factory.hpp:77] Creating layer lstm1_
I0801 00:37:06.454079  8577 net.cpp:91] Creating Layer lstm1_
I0801 00:37:06.454087  8577 net.cpp:399] lstm1_ -> x
I0801 00:37:06.454100  8577 net.cpp:399] lstm1_ -> cont
I0801 00:37:06.454176  8577 net.cpp:141] Setting up lstm1_
I0801 00:37:06.454188  8577 net.cpp:148] Top shape: 1 1 500 (500)
I0801 00:37:06.454195  8577 net.cpp:148] Top shape: 1 1 (1)
I0801 00:37:06.454200  8577 net.cpp:156] Memory required for data: 2004
I0801 00:37:06.454205  8577 layer_factory.hpp:77] Creating layer lstm1_
I0801 00:37:06.454216  8577 net.cpp:91] Creating Layer lstm1_
I0801 00:37:06.454224  8577 net.cpp:399] lstm1_ -> c_0
I0801 00:37:06.454236  8577 net.cpp:399] lstm1_ -> h_0
I0801 00:37:06.454290  8577 net.cpp:141] Setting up lstm1_
I0801 00:37:06.454300  8577 net.cpp:148] Top shape: 1 1 1000 (1000)
I0801 00:37:06.454306  8577 net.cpp:148] Top shape: 1 1 1000 (1000)
I0801 00:37:06.454311  8577 net.cpp:156] Memory required for data: 10004
I0801 00:37:06.454316  8577 layer_factory.hpp:77] Creating layer lstm1_cont_slice
I0801 00:37:06.454326  8577 net.cpp:91] Creating Layer lstm1_cont_slice
I0801 00:37:06.454331  8577 net.cpp:425] lstm1_cont_slice <- cont
I0801 00:37:06.454339  8577 net.cpp:399] lstm1_cont_slice -> cont_1
I0801 00:37:06.454382  8577 net.cpp:141] Setting up lstm1_cont_slice
I0801 00:37:06.454396  8577 net.cpp:148] Top shape: 1 1 (1)
I0801 00:37:06.454401  8577 net.cpp:156] Memory required for data: 10008
I0801 00:37:06.454406  8577 layer_factory.hpp:77] Creating layer cont_1_lstm1_cont_slice_0_split
I0801 00:37:06.454414  8577 net.cpp:91] Creating Layer cont_1_lstm1_cont_slice_0_split
I0801 00:37:06.454421  8577 net.cpp:425] cont_1_lstm1_cont_slice_0_split <- cont_1
I0801 00:37:06.454427  8577 net.cpp:399] cont_1_lstm1_cont_slice_0_split -> cont_1_lstm1_cont_slice_0_split_0
I0801 00:37:06.454437  8577 net.cpp:399] cont_1_lstm1_cont_slice_0_split -> cont_1_lstm1_cont_slice_0_split_1
I0801 00:37:06.454490  8577 net.cpp:141] Setting up cont_1_lstm1_cont_slice_0_split
I0801 00:37:06.454500  8577 net.cpp:148] Top shape: 1 1 (1)
I0801 00:37:06.454506  8577 net.cpp:148] Top shape: 1 1 (1)
I0801 00:37:06.454511  8577 net.cpp:156] Memory required for data: 10016
I0801 00:37:06.454515  8577 layer_factory.hpp:77] Creating layer lstm1_x_transform
I0801 00:37:06.454530  8577 net.cpp:91] Creating Layer lstm1_x_transform
I0801 00:37:06.454535  8577 net.cpp:425] lstm1_x_transform <- x
I0801 00:37:06.454543  8577 net.cpp:399] lstm1_x_transform -> W_xc_x
I0801 00:37:06.475811  8577 net.cpp:141] Setting up lstm1_x_transform
I0801 00:37:06.475847  8577 net.cpp:148] Top shape: 1 1 4000 (4000)
I0801 00:37:06.475852  8577 net.cpp:156] Memory required for data: 26016
I0801 00:37:06.475869  8577 layer_factory.hpp:77] Creating layer lstm1_W_xc_x_slice
I0801 00:37:06.475883  8577 net.cpp:91] Creating Layer lstm1_W_xc_x_slice
I0801 00:37:06.475889  8577 net.cpp:425] lstm1_W_xc_x_slice <- W_xc_x
I0801 00:37:06.475901  8577 net.cpp:399] lstm1_W_xc_x_slice -> W_xc_x_1
I0801 00:37:06.475944  8577 net.cpp:141] Setting up lstm1_W_xc_x_slice
I0801 00:37:06.475955  8577 net.cpp:148] Top shape: 1 1 4000 (4000)
I0801 00:37:06.475958  8577 net.cpp:156] Memory required for data: 42016
I0801 00:37:06.475963  8577 layer_factory.hpp:77] Creating layer lstm1_h_conted_0
I0801 00:37:06.475973  8577 net.cpp:91] Creating Layer lstm1_h_conted_0
I0801 00:37:06.475980  8577 net.cpp:425] lstm1_h_conted_0 <- h_0
I0801 00:37:06.475986  8577 net.cpp:425] lstm1_h_conted_0 <- cont_1_lstm1_cont_slice_0_split_0
I0801 00:37:06.475992  8577 net.cpp:399] lstm1_h_conted_0 -> h_conted_0
I0801 00:37:06.476091  8577 net.cpp:141] Setting up lstm1_h_conted_0
I0801 00:37:06.476102  8577 net.cpp:148] Top shape: 1 1 1000 (1000)
I0801 00:37:06.476107  8577 net.cpp:156] Memory required for data: 46016
I0801 00:37:06.476112  8577 layer_factory.hpp:77] Creating layer lstm1_transform_1
I0801 00:37:06.476124  8577 net.cpp:91] Creating Layer lstm1_transform_1
I0801 00:37:06.476128  8577 net.cpp:425] lstm1_transform_1 <- h_conted_0
I0801 00:37:06.476140  8577 net.cpp:399] lstm1_transform_1 -> W_hc_h_0
I0801 00:37:06.494441  8587 net.cpp:141] Setting up fc6
I0801 00:37:06.494493  8587 net.cpp:148] Top shape: 10 4096 (40960)
I0801 00:37:06.494498  8587 net.cpp:156] Memory required for data: 67782200
I0801 00:37:06.494514  8587 layer_factory.hpp:77] Creating layer relu6
I0801 00:37:06.494530  8587 net.cpp:91] Creating Layer relu6
I0801 00:37:06.494537  8587 net.cpp:425] relu6 <- fc6
I0801 00:37:06.494547  8587 net.cpp:386] relu6 -> fc6 (in-place)
I0801 00:37:06.494904  8587 net.cpp:141] Setting up relu6
I0801 00:37:06.494916  8587 net.cpp:148] Top shape: 10 4096 (40960)
I0801 00:37:06.494922  8587 net.cpp:156] Memory required for data: 67946040
I0801 00:37:06.494927  8587 layer_factory.hpp:77] Creating layer drop6
I0801 00:37:06.494941  8587 net.cpp:91] Creating Layer drop6
I0801 00:37:06.494947  8587 net.cpp:425] drop6 <- fc6
I0801 00:37:06.494956  8587 net.cpp:386] drop6 -> fc6 (in-place)
I0801 00:37:06.495007  8587 net.cpp:141] Setting up drop6
I0801 00:37:06.495015  8587 net.cpp:148] Top shape: 10 4096 (40960)
I0801 00:37:06.495020  8587 net.cpp:156] Memory required for data: 68109880
I0801 00:37:06.495025  8587 layer_factory.hpp:77] Creating layer fc7
I0801 00:37:06.495041  8587 net.cpp:91] Creating Layer fc7
I0801 00:37:06.495046  8587 net.cpp:425] fc7 <- fc6
I0801 00:37:06.495056  8587 net.cpp:399] fc7 -> fc7
I0801 00:37:06.526589  8577 net.cpp:141] Setting up lstm1_transform_1
I0801 00:37:06.526649  8577 net.cpp:148] Top shape: 1 1 4000 (4000)
I0801 00:37:06.526656  8577 net.cpp:156] Memory required for data: 62016
I0801 00:37:06.526684  8577 layer_factory.hpp:77] Creating layer lstm1_gate_input_1
I0801 00:37:06.526710  8577 net.cpp:91] Creating Layer lstm1_gate_input_1
I0801 00:37:06.526717  8577 net.cpp:425] lstm1_gate_input_1 <- W_hc_h_0
I0801 00:37:06.526727  8577 net.cpp:425] lstm1_gate_input_1 <- W_xc_x_1
I0801 00:37:06.526739  8577 net.cpp:399] lstm1_gate_input_1 -> gate_input_1
I0801 00:37:06.526808  8577 net.cpp:141] Setting up lstm1_gate_input_1
I0801 00:37:06.526818  8577 net.cpp:148] Top shape: 1 1 4000 (4000)
I0801 00:37:06.526823  8577 net.cpp:156] Memory required for data: 78016
I0801 00:37:06.526829  8577 layer_factory.hpp:77] Creating layer lstm1_unit_1
I0801 00:37:06.526839  8577 net.cpp:91] Creating Layer lstm1_unit_1
I0801 00:37:06.526844  8577 net.cpp:425] lstm1_unit_1 <- c_0
I0801 00:37:06.526850  8577 net.cpp:425] lstm1_unit_1 <- gate_input_1
I0801 00:37:06.526856  8577 net.cpp:425] lstm1_unit_1 <- cont_1_lstm1_cont_slice_0_split_1
I0801 00:37:06.526865  8577 net.cpp:399] lstm1_unit_1 -> c_1
I0801 00:37:06.526876  8577 net.cpp:399] lstm1_unit_1 -> h_1
I0801 00:37:06.526947  8577 net.cpp:141] Setting up lstm1_unit_1
I0801 00:37:06.526957  8577 net.cpp:148] Top shape: 1 1 1000 (1000)
I0801 00:37:06.526963  8577 net.cpp:148] Top shape: 1 1 1000 (1000)
I0801 00:37:06.526968  8577 net.cpp:156] Memory required for data: 86016
I0801 00:37:06.526973  8577 layer_factory.hpp:77] Creating layer lstm1_
I0801 00:37:06.526983  8577 net.cpp:91] Creating Layer lstm1_
I0801 00:37:06.526988  8577 net.cpp:425] lstm1_ <- c_1
I0801 00:37:06.526995  8577 net.cpp:399] lstm1_ -> c_T
I0801 00:37:06.527031  8577 net.cpp:141] Setting up lstm1_
I0801 00:37:06.527041  8577 net.cpp:148] Top shape: 1 1 1000 (1000)
I0801 00:37:06.527046  8577 net.cpp:156] Memory required for data: 90016
I0801 00:37:06.527051  8577 layer_factory.hpp:77] Creating layer lstm1_h_concat
I0801 00:37:06.527073  8577 net.cpp:91] Creating Layer lstm1_h_concat
I0801 00:37:06.527079  8577 net.cpp:425] lstm1_h_concat <- h_1
I0801 00:37:06.527091  8577 net.cpp:399] lstm1_h_concat -> h
I0801 00:37:06.527132  8577 net.cpp:141] Setting up lstm1_h_concat
I0801 00:37:06.527140  8577 net.cpp:148] Top shape: 1 1 1000 (1000)
I0801 00:37:06.527145  8577 net.cpp:156] Memory required for data: 94016
I0801 00:37:06.527150  8577 layer_factory.hpp:77] Creating layer h_pseudoloss
I0801 00:37:06.527169  8577 net.cpp:91] Creating Layer h_pseudoloss
I0801 00:37:06.527175  8577 net.cpp:425] h_pseudoloss <- h
I0801 00:37:06.527182  8577 net.cpp:399] h_pseudoloss -> h_pseudoloss
I0801 00:37:06.527289  8577 net.cpp:141] Setting up h_pseudoloss
…
I0801 00:37:06.527422  8577 net.cpp:219] lstm1_ does not need backward computation.
I0801 00:37:06.527426  8577 net.cpp:261] This network produces output c_T
I0801 00:37:06.527432  8577 net.cpp:261] This network produces output h_pseudoloss
I0801 00:37:06.527453  8577 net.cpp:274] Network initialization done.
I0801 00:37:06.527520  8577 recurrent_layer.cpp:150] Adding parameter 0: W_xc
I0801 00:37:06.527528  8577 recurrent_layer.cpp:150] Adding parameter 1: b_c
I0801 00:37:06.527532  8577 recurrent_layer.cpp:150] Adding parameter 2: W_hc
I0801 00:37:06.527667  8577 net.cpp:141] Setting up lstm1
I0801 00:37:06.527683  8577 net.cpp:148] Top shape: 1 1 1000 (1000)
I0801 00:37:06.527688  8577 net.cpp:156] Memory required for data: 26408
I0801 00:37:06.527703  8577 layer_factory.hpp:77] Creating layer concat
I0801 00:37:06.527712  8577 net.cpp:91] Creating Layer concat
I0801 00:37:06.527719  8577 net.cpp:425] concat <- lstm1
I0801 00:37:06.527726  8577 net.cpp:425] concat <- embedded_input_sentence
I0801 00:37:06.527732  8577 net.cpp:425] concat <- reshaped_stage_indicator
I0801 00:37:06.527740  8577 net.cpp:399] concat -> lstm1_video_sequence
I0801 00:37:06.527776  8577 net.cpp:141] Setting up concat
I0801 00:37:06.527786  8577 net.cpp:148] Top shape: 1 1 1501 (1501)
I0801 00:37:06.527791  8577 net.cpp:156] Memory required for data: 32412
I0801 00:37:06.527796  8577 layer_factory.hpp:77] Creating layer lstm2
I0801 00:37:06.527811  8577 net.cpp:91] Creating Layer lstm2
I0801 00:37:06.527815  8577 net.cpp:425] lstm2 <- lstm1_video_sequence
I0801 00:37:06.527823  8577 net.cpp:425] lstm2 <- cont_sentence_input_1_split_1
I0801 00:37:06.527830  8577 net.cpp:399] lstm2 -> lstm2
I0801 00:37:06.527842  8577 recurrent_layer.cpp:20] Initializing recurrent layer: assuming input batch contains 1 timesteps of 1 independent streams.
I0801 00:37:06.528149  8577 net.cpp:49] Initializing net from parameters: 
layer {
  name: "lstm2_"
  type: "Input"
  top: "x"
  top: "cont"
  input_param {
    shape {
      dim: 1
      dim: 1
      dim: 1501
    }
    shape {
      dim: 1
      dim: 1
    }
  }
}
layer {
  name: "lstm2_"
  type: "Input"
  top: "c_0"
  top: "h_0"
  input_param {
    shape {
      dim: 1
      dim: 1
      dim: 1000
    }
    shape {
      dim: 1
      dim: 1
      dim: 1000
    }
  }
}
layer {
  name: "lstm2_cont_slice"
  type: "Slice"
  bottom: "cont"
  top: "cont_1"
  slice_param {
    axis: 0
  }
}
layer {
  name: "lstm2_x_transform"
  type: "InnerProduct"
  bottom: "x"
  top: "W_xc_x"
  param {
    name: "W_xc"
  }
  param {
    name: "b_c"
  }
  propagate_down: true
  inner_product_param {
    num_output: 4000
    bias_term: true
    weight_filler {
      type: "uniform"
      min: -0.08
      max: 0.08
    }
    bias_filler {
      type: "constant"
      value: 0
    }
    axis: 2
  }
}
layer {
  name: "lstm2_W_xc_x_slice"
  type: "Slice"
  bottom: "W_xc_x"
  top: "W_xc_x_1"
  slice_param {
    axis: 0
  }
}
layer {
  name: "lstm2_h_conted_0"
  type: "Scale"
  bottom: "h_0"
  bottom: "cont_1"
  top: "h_conted_0"
  scale_param {
    axis: 0
  }
}
layer {
  name: "lstm2_transform_1"
  type: "InnerProduct"
  bottom: "h_conted_0"
  top: "W_hc_h_0"
  param {
    name: "W_hc"
  }
  inner_product_param {
    num_output: 4000
    bias_term: false
    weight_filler {
      type: "uniform"
      min: -0.08
      max: 0.08
    }
    axis: 2
  }
}
layer {
  name: "lstm2_gate_input_1"
  type: "Eltwise"
  bottom: "W_hc_h_0"
  bottom: "W_xc_x_1"
  top: "gate_input_1"
  eltwise_param {
    operation: SUM
  }
}
layer {
  name: "lstm2_unit_1"
  type: "LSTMUnit"
  bottom: "c_0"
  bottom: "gate_input_1"
  bottom: "cont_1"
  top: "c_1"
  top: "h_1"
}
layer {
  name: "lstm2_"
  type: "Split"
  bottom: "c_1"
  top: "c_T"
}
layer {
  name: "lstm2_h_concat"
  type: "Concat"
  bottom: "h_1"
  top: "h"
  concat_param {
    axis: 0
  }
}
layer {
  name: "h_pseudoloss"
  type: "Reduction"
  bottom: "h"
  top: "h_pseudoloss"
  loss_weight: 1
}
I0801 00:37:06.528251  8577 layer_factory.hpp:77] Creating layer lstm2_
I0801 00:37:06.528271  8577 net.cpp:91] Creating Layer lstm2_
I0801 00:37:06.528285  8577 net.cpp:399] lstm2_ -> x
I0801 00:37:06.528302  8577 net.cpp:399] lstm2_ -> cont
I0801 00:37:06.528362  8577 net.cpp:141] Setting up lstm2_
I0801 00:37:06.528373  8577 net.cpp:148] Top shape: 1 1 1501 (1501)
I0801 00:37:06.528379  8577 net.cpp:148] Top shape: 1 1 (1)
I0801 00:37:06.528383  8577 net.cpp:156] Memory required for data: 6008
I0801 00:37:06.528388  8577 layer_factory.hpp:77] Creating layer lstm2_
I0801 00:37:06.528398  8577 net.cpp:91] Creating Layer lstm2_
I0801 00:37:06.528410  8577 net.cpp:399] lstm2_ -> c_0
I0801 00:37:06.528421  8577 net.cpp:399] lstm2_ -> h_0
I0801 00:37:06.528470  8577 net.cpp:141] Setting up lstm2_
I0801 00:37:06.528478  8577 net.cpp:148] Top shape: 1 1 1000 (1000)
I0801 00:37:06.528486  8577 net.cpp:148] Top shape: 1 1 1000 (1000)
I0801 00:37:06.528489  8577 net.cpp:156] Memory required for data: 14008
I0801 00:37:06.528493  8577 layer_factory.hpp:77] Creating layer lstm2_cont_slice
I0801 00:37:06.528506  8577 net.cpp:91] Creating Layer lstm2_cont_slice
I0801 00:37:06.528512  8577 net.cpp:425] lstm2_cont_slice <- cont
I0801 00:37:06.528519  8577 net.cpp:399] lstm2_cont_slice -> cont_1
I0801 00:37:06.528554  8577 net.cpp:141] Setting up lstm2_cont_slice
I0801 00:37:06.528564  8577 net.cpp:148] Top shape: 1 1 (1)
I0801 00:37:06.528569  8577 net.cpp:156] Memory required for data: 14012
I0801 00:37:06.528574  8577 layer_factory.hpp:77] Creating layer cont_1_lstm2_cont_slice_0_split
I0801 00:37:06.528581  8577 net.cpp:91] Creating Layer cont_1_lstm2_cont_slice_0_split
I0801 00:37:06.528586  8577 net.cpp:425] cont_1_lstm2_cont_slice_0_split <- cont_1
I0801 00:37:06.528596  8577 net.cpp:399] cont_1_lstm2_cont_slice_0_split -> cont_1_lstm2_cont_slice_0_split_0
I0801 00:37:06.528605  8577 net.cpp:399] cont_1_lstm2_cont_slice_0_split -> cont_1_lstm2_cont_slice_0_split_1
I0801 00:37:06.528671  8577 net.cpp:141] Setting up cont_1_lstm2_cont_slice_0_split
I0801 00:37:06.528683  8577 net.cpp:148] Top shape: 1 1 (1)
I0801 00:37:06.528689  8577 net.cpp:148] Top shape: 1 1 (1)
I0801 00:37:06.528693  8577 net.cpp:156] Memory required for data: 14020
I0801 00:37:06.528698  8577 layer_factory.hpp:77] Creating layer lstm2_x_transform
I0801 00:37:06.528712  8577 net.cpp:91] Creating Layer lstm2_x_transform
I0801 00:37:06.528718  8577 net.cpp:425] lstm2_x_transform <- x
I0801 00:37:06.528726  8577 net.cpp:399] lstm2_x_transform -> W_xc_x
I0801 00:37:06.544896  8587 net.cpp:141] Setting up fc7
I0801 00:37:06.544944  8587 net.cpp:148] Top shape: 10 4096 (40960)
I0801 00:37:06.544950  8587 net.cpp:156] Memory required for data: 68273720
I0801 00:37:06.544965  8587 layer_factory.hpp:77] Creating layer relu7
I0801 00:37:06.544982  8587 net.cpp:91] Creating Layer relu7
I0801 00:37:06.544991  8587 net.cpp:425] relu7 <- fc7
I0801 00:37:06.545004  8587 net.cpp:386] relu7 -> fc7 (in-place)
I0801 00:37:06.545856  8587 net.cpp:141] Setting up relu7
I0801 00:37:06.545871  8587 net.cpp:148] Top shape: 10 4096 (40960)
I0801 00:37:06.545876  8587 net.cpp:156] Memory required for data: 68437560
I0801 00:37:06.545882  8587 layer_factory.hpp:77] Creating layer drop7
I0801 00:37:06.545894  8587 net.cpp:91] Creating Layer drop7
I0801 00:37:06.545899  8587 net.cpp:425] drop7 <- fc7
I0801 00:37:06.545912  8587 net.cpp:386] drop7 -> fc7 (in-place)
I0801 00:37:06.545958  8587 net.cpp:141] Setting up drop7
I0801 00:37:06.545966  8587 net.cpp:148] Top shape: 10 4096 (40960)
I0801 00:37:06.545971  8587 net.cpp:156] Memory required for data: 68601400
I0801 00:37:06.545976  8587 layer_factory.hpp:77] Creating layer fc8
I0801 00:37:06.545987  8587 net.cpp:91] Creating Layer fc8
I0801 00:37:06.545992  8587 net.cpp:425] fc8 <- fc7
I0801 00:37:06.546000  8587 net.cpp:399] fc8 -> fc8
I0801 00:37:06.558943  8587 net.cpp:141] Setting up fc8
I0801 00:37:06.558993  8587 net.cpp:148] Top shape: 10 1000 (10000)
I0801 00:37:06.559000  8587 net.cpp:156] Memory required for data: 68641400
I0801 00:37:06.559015  8587 layer_factory.hpp:77] Creating layer prob
I0801 00:37:06.559034  8587 net.cpp:91] Creating Layer prob
I0801 00:37:06.559042  8587 net.cpp:425] prob <- fc8
I0801 00:37:06.559052  8587 net.cpp:399] prob -> prob
I0801 00:37:06.559509  8587 net.cpp:141] Setting up prob
I0801 00:37:06.559521  8587 net.cpp:148] Top shape: 10 1000 (10000)
I0801 00:37:06.559526  8587 net.cpp:156] Memory required for data: 68681400
I0801 00:37:06.559532  8587 net.cpp:219] prob does not need backward computation.
I0801 00:37:06.559538  8587 net.cpp:219] fc8 does not need backward computation.
I0801 00:37:06.559543  8587 net.cpp:219] drop7 does not need backward computation.
I0801 00:37:06.559548  8587 net.cpp:219] relu7 does not need backward computation.
…
I0801 00:37:06.559628  8587 net.cpp:219] norm1 does not need backward computation.
I0801 00:37:06.559633  8587 net.cpp:219] pool1 does not need backward computation.
I0801 00:37:06.559638  8587 net.cpp:219] relu1 does not need backward computation.
I0801 00:37:06.559643  8587 net.cpp:219] conv1 does not need backward computation.
I0801 00:37:06.559648  8587 net.cpp:219] data does not need backward computation.
I0801 00:37:06.559651  8587 net.cpp:261] This network produces output prob
I0801 00:37:06.559674  8587 net.cpp:274] Network initialization done.
I0801 00:37:06.592712  8577 net.cpp:141] Setting up lstm2_x_transform
I0801 00:37:06.592768  8577 net.cpp:148] Top shape: 1 1 4000 (4000)
I0801 00:37:06.592774  8577 net.cpp:156] Memory required for data: 30020
I0801 00:37:06.592800  8577 layer_factory.hpp:77] Creating layer lstm2_W_xc_x_slice
I0801 00:37:06.592824  8577 net.cpp:91] Creating Layer lstm2_W_xc_x_slice
I0801 00:37:06.592833  8577 net.cpp:425] lstm2_W_xc_x_slice <- W_xc_x
I0801 00:37:06.592844  8577 net.cpp:399] lstm2_W_xc_x_slice -> W_xc_x_1
I0801 00:37:06.592895  8577 net.cpp:141] Setting up lstm2_W_xc_x_slice
I0801 00:37:06.592906  8577 net.cpp:148] Top shape: 1 1 4000 (4000)
I0801 00:37:06.592911  8577 net.cpp:156] Memory required for data: 46020
I0801 00:37:06.592916  8577 layer_factory.hpp:77] Creating layer lstm2_h_conted_0
I0801 00:37:06.592929  8577 net.cpp:91] Creating Layer lstm2_h_conted_0
I0801 00:37:06.592936  8577 net.cpp:425] lstm2_h_conted_0 <- h_0
I0801 00:37:06.592941  8577 net.cpp:425] lstm2_h_conted_0 <- cont_1_lstm2_cont_slice_0_split_0
I0801 00:37:06.592952  8577 net.cpp:399] lstm2_h_conted_0 -> h_conted_0
I0801 00:37:06.593060  8577 net.cpp:141] Setting up lstm2_h_conted_0
I0801 00:37:06.593070  8577 net.cpp:148] Top shape: 1 1 1000 (1000)
I0801 00:37:06.593075  8577 net.cpp:156] Memory required for data: 50020
I0801 00:37:06.593080  8577 layer_factory.hpp:77] Creating layer lstm2_transform_1
I0801 00:37:06.593097  8577 net.cpp:91] Creating Layer lstm2_transform_1
I0801 00:37:06.593103  8577 net.cpp:425] lstm2_transform_1 <- h_conted_0
I0801 00:37:06.593112  8577 net.cpp:399] lstm2_transform_1 -> W_hc_h_0
I0801 00:37:06.636135  8577 net.cpp:141] Setting up lstm2_transform_1
I0801 00:37:06.636196  8577 net.cpp:148] Top shape: 1 1 4000 (4000)
I0801 00:37:06.636204  8577 net.cpp:156] Memory required for data: 66020
I0801 00:37:06.636229  8577 layer_factory.hpp:77] Creating layer lstm2_gate_input_1
I0801 00:37:06.636255  8577 net.cpp:91] Creating Layer lstm2_gate_input_1
I0801 00:37:06.636265  8577 net.cpp:425] lstm2_gate_input_1 <- W_hc_h_0
I0801 00:37:06.636274  8577 net.cpp:425] lstm2_gate_input_1 <- W_xc_x_1
I0801 00:37:06.636283  8577 net.cpp:399] lstm2_gate_input_1 -> gate_input_1
I0801 00:37:06.636339  8577 net.cpp:141] Setting up lstm2_gate_input_1
I0801 00:37:06.636350  8577 net.cpp:148] Top shape: 1 1 4000 (4000)
I0801 00:37:06.636354  8577 net.cpp:156] Memory required for data: 82020
I0801 00:37:06.636359  8577 layer_factory.hpp:77] Creating layer lstm2_unit_1
I0801 00:37:06.636370  8577 net.cpp:91] Creating Layer lstm2_unit_1
I0801 00:37:06.636375  8577 net.cpp:425] lstm2_unit_1 <- c_0
I0801 00:37:06.636382  8577 net.cpp:425] lstm2_unit_1 <- gate_input_1
I0801 00:37:06.636387  8577 net.cpp:425] lstm2_unit_1 <- cont_1_lstm2_cont_slice_0_split_1
I0801 00:37:06.636399  8577 net.cpp:399] lstm2_unit_1 -> c_1
I0801 00:37:06.636409  8577 net.cpp:399] lstm2_unit_1 -> h_1
I0801 00:37:06.636477  8577 net.cpp:141] Setting up lstm2_unit_1
I0801 00:37:06.636488  8577 net.cpp:148] Top shape: 1 1 1000 (1000)
I0801 00:37:06.636494  8577 net.cpp:148] Top shape: 1 1 1000 (1000)
I0801 00:37:06.636499  8577 net.cpp:156] Memory required for data: 90020
I0801 00:37:06.636504  8577 layer_factory.hpp:77] Creating layer lstm2_
I0801 00:37:06.636514  8577 net.cpp:91] Creating Layer lstm2_
I0801 00:37:06.636518  8577 net.cpp:425] lstm2_ <- c_1
I0801 00:37:06.636526  8577 net.cpp:399] lstm2_ -> c_T
I0801 00:37:06.636564  8577 net.cpp:141] Setting up lstm2_
I0801 00:37:06.636572  8577 net.cpp:148] Top shape: 1 1 1000 (1000)
I0801 00:37:06.636577  8577 net.cpp:156] Memory required for data: 94020
I0801 00:37:06.636582  8577 layer_factory.hpp:77] Creating layer lstm2_h_concat
I0801 00:37:06.636595  8577 net.cpp:91] Creating Layer lstm2_h_concat
I0801 00:37:06.636600  8577 net.cpp:425] lstm2_h_concat <- h_1
I0801 00:37:06.636607  8577 net.cpp:399] lstm2_h_concat -> h
I0801 00:37:06.636656  8577 net.cpp:141] Setting up lstm2_h_concat
I0801 00:37:06.636665  8577 net.cpp:148] Top shape: 1 1 1000 (1000)
I0801 00:37:06.636669  8577 net.cpp:156] Memory required for data: 98020
I0801 00:37:06.636674  8577 layer_factory.hpp:77] Creating layer h_pseudoloss
I0801 00:37:06.636685  8577 net.cpp:91] Creating Layer h_pseudoloss
I0801 00:37:06.636690  8577 net.cpp:425] h_pseudoloss <- h
I0801 00:37:06.636698  8577 net.cpp:399] h_pseudoloss -> h_pseudoloss
I0801 00:37:06.636801  8577 net.cpp:141] Setting up h_pseudoloss
…
