…
2016-08-01 02:34:33.612 n.t.s.b.CVParticleBolt [INFO] [Timing] RequestID: 0 StreamID: home/peifeng/work/data/frame.320x240.jpg SequenceNr: 93 Entering scale: 1470033273612
2016-08-01 02:34:33.617 n.t.s.b.CVParticleBolt [INFO] [Timing] RequestID: 0 StreamID: home/peifeng/work/data/frame.320x240.jpg SequenceNr: 93 Leaving scale: 1470033273617 Size: 3530
2016-08-01 02:34:33.618 n.t.s.b.CVParticleBolt [INFO] [Timing] RequestID: 0 StreamID: home/peifeng/work/data/frame.320x240.jpg SequenceNr: 92 Leaving scale: 1470033273618 Size: 3530
2016-08-01 02:34:33.732 STDERR [INFO] I0801 02:34:33.731878 30299 net.cpp:141] Setting up data
2016-08-01 02:34:33.732 STDERR [INFO] I0801 02:34:33.731966 30299 net.cpp:148] Top shape: 10 3 227 227 (1545870)
2016-08-01 02:34:33.732 STDERR [INFO] I0801 02:34:33.731972 30289 net.cpp:141] Setting up input
2016-08-01 02:34:33.732 STDERR [INFO] I0801 02:34:33.731974 30299 net.cpp:156] Memory required for data: 6183480
2016-08-01 02:34:33.732 STDERR [INFO] I0801 02:34:33.732000 30289 net.cpp:148] Top shape: 1 4096 (4096)
2016-08-01 02:34:33.732 STDERR [INFO] I0801 02:34:33.732020 30289 net.cpp:148] Top shape: 1 1 (1)
2016-08-01 02:34:33.732 STDERR [INFO] I0801 02:34:33.732023 30299 layer_factory.hpp:77] Creating layer conv1
2016-08-01 02:34:33.733 STDERR [INFO] I0801 02:34:33.732028 30289 net.cpp:148] Top shape: 1 1 (1)
2016-08-01 02:34:33.733 STDERR [INFO] I0801 02:34:33.732035 30289 net.cpp:148] Top shape: 1 1 (1)
2016-08-01 02:34:33.733 STDERR [INFO] I0801 02:34:33.732040 30289 net.cpp:156] Memory required for data: 16396
2016-08-01 02:34:33.733 STDERR [INFO] I0801 02:34:33.732049 30289 layer_factory.hpp:77] Creating layer cont_sentence_input_1_split
2016-08-01 02:34:33.733 STDERR [INFO] I0801 02:34:33.732055 30299 net.cpp:91] Creating Layer conv1
2016-08-01 02:34:33.733 STDERR [INFO] I0801 02:34:33.732066 30299 net.cpp:425] conv1 <- data
2016-08-01 02:34:33.733 STDERR [INFO] I0801 02:34:33.732070 30289 net.cpp:91] Creating Layer cont_sentence_input_1_split
2016-08-01 02:34:33.733 STDERR [INFO] I0801 02:34:33.732077 30289 net.cpp:425] cont_sentence_input_1_split <- cont_sentence
2016-08-01 02:34:33.733 STDERR [INFO] I0801 02:34:33.732079 30299 net.cpp:399] conv1 -> conv1
2016-08-01 02:34:33.733 STDERR [INFO] I0801 02:34:33.732103 30289 net.cpp:399] cont_sentence_input_1_split -> cont_sentence_input_1_split_0
2016-08-01 02:34:33.733 STDERR [INFO] I0801 02:34:33.732116 30289 net.cpp:399] cont_sentence_input_1_split -> cont_sentence_input_1_split_1
2016-08-01 02:34:33.734 STDERR [INFO] I0801 02:34:33.732314 30289 net.cpp:141] Setting up cont_sentence_input_1_split
2016-08-01 02:34:33.734 STDERR [INFO] I0801 02:34:33.732327 30289 net.cpp:148] Top shape: 1 1 (1)
2016-08-01 02:34:33.734 STDERR [INFO] I0801 02:34:33.732334 30289 net.cpp:148] Top shape: 1 1 (1)
2016-08-01 02:34:33.734 STDERR [INFO] I0801 02:34:33.732339 30289 net.cpp:156] Memory required for data: 16404
2016-08-01 02:34:33.734 STDERR [INFO] I0801 02:34:33.732344 30289 layer_factory.hpp:77] Creating layer embed_encoder
2016-08-01 02:34:33.734 STDERR [INFO] I0801 02:34:33.732360 30289 net.cpp:91] Creating Layer embed_encoder
2016-08-01 02:34:33.734 STDERR [INFO] I0801 02:34:33.732365 30289 net.cpp:425] embed_encoder <- frames_fc7
2016-08-01 02:34:33.734 STDERR [INFO] I0801 02:34:33.732375 30289 net.cpp:399] embed_encoder -> embedded_in_frames
2016-08-01 02:34:33.760 STDERR [INFO] I0801 02:34:33.759928 30289 net.cpp:141] Setting up embed_encoder
2016-08-01 02:34:33.760 STDERR [INFO] I0801 02:34:33.759974 30289 net.cpp:148] Top shape: 1 500 (500)
2016-08-01 02:34:33.760 STDERR [INFO] I0801 02:34:33.759980 30289 net.cpp:156] Memory required for data: 18404
2016-08-01 02:34:33.760 STDERR [INFO] I0801 02:34:33.760046 30289 layer_factory.hpp:77] Creating layer reshape_frames
2016-08-01 02:34:33.760 STDERR [INFO] I0801 02:34:33.760074 30289 net.cpp:91] Creating Layer reshape_frames
2016-08-01 02:34:33.760 STDERR [INFO] I0801 02:34:33.760082 30289 net.cpp:425] reshape_frames <- embedded_in_frames
2016-08-01 02:34:33.761 STDERR [INFO] I0801 02:34:33.760097 30289 net.cpp:399] reshape_frames -> embedded_input_frames
2016-08-01 02:34:33.761 STDERR [INFO] I0801 02:34:33.760233 30289 net.cpp:141] Setting up reshape_frames
2016-08-01 02:34:33.761 STDERR [INFO] I0801 02:34:33.760246 30289 net.cpp:148] Top shape: 1 1 500 (500)
2016-08-01 02:34:33.761 STDERR [INFO] I0801 02:34:33.760251 30289 net.cpp:156] Memory required for data: 20404
2016-08-01 02:34:33.761 STDERR [INFO] I0801 02:34:33.760257 30289 layer_factory.hpp:77] Creating layer reshape_stage_indicator
2016-08-01 02:34:33.761 STDERR [INFO] I0801 02:34:33.760273 30289 net.cpp:91] Creating Layer reshape_stage_indicator
2016-08-01 02:34:33.761 STDERR [INFO] I0801 02:34:33.760280 30289 net.cpp:425] reshape_stage_indicator <- stage_indicator
2016-08-01 02:34:33.761 STDERR [INFO] I0801 02:34:33.760293 30289 net.cpp:399] reshape_stage_indicator -> reshaped_stage_indicator
2016-08-01 02:34:33.761 STDERR [INFO] I0801 02:34:33.760448 30289 net.cpp:141] Setting up reshape_stage_indicator
2016-08-01 02:34:33.761 STDERR [INFO] I0801 02:34:33.760462 30289 net.cpp:148] Top shape: 1 1 1 (1)
2016-08-01 02:34:33.762 STDERR [INFO] I0801 02:34:33.760465 30289 net.cpp:156] Memory required for data: 20408
2016-08-01 02:34:33.762 STDERR [INFO] I0801 02:34:33.760473 30289 layer_factory.hpp:77] Creating layer embedding
2016-08-01 02:34:33.762 STDERR [INFO] I0801 02:34:33.760493 30289 net.cpp:91] Creating Layer embedding
2016-08-01 02:34:33.762 STDERR [INFO] I0801 02:34:33.760499 30289 net.cpp:425] embedding <- input_sentence
…
2016-08-01 02:34:34.000 n.t.s.f.RefreshingImageFetcher$ImageReader [INFO] [Timing] RequestID: 0 StreamID: home/peifeng/work/data/frame.320x240.jpg SequenceNr: 99 Entering queue: 1470033274000
2016-08-01 02:34:34.000 n.t.s.f.RefreshingImageFetcher$ImageReader [INFO] [Timing] RequestID: 0 StreamID: home/peifeng/work/data/frame.320x240.jpg SequenceNr: 100 Entering queue: 1470033274000
2016-08-01 02:34:34.000 n.t.s.f.RefreshingImageFetcher$ImageReader [INFO] [Timing] RequestID: 0 StreamID: home/peifeng/work/data/frame.320x240.jpg SequenceNr: 101 Entering queue: 1470033274000
2016-08-01 02:34:34.002 STDERR [INFO] I0801 02:34:34.002763 30299 net.cpp:141] Setting up conv1
2016-08-01 02:34:34.003 STDERR [INFO] I0801 02:34:34.002812 30299 net.cpp:148] Top shape: 10 96 55 55 (2904000)
2016-08-01 02:34:34.003 STDERR [INFO] I0801 02:34:34.002820 30299 net.cpp:156] Memory required for data: 17799480
2016-08-01 02:34:34.003 STDERR [INFO] I0801 02:34:34.002842 30299 layer_factory.hpp:77] Creating layer relu1
2016-08-01 02:34:34.003 STDERR [INFO] I0801 02:34:34.002859 30299 net.cpp:91] Creating Layer relu1
2016-08-01 02:34:34.003 STDERR [INFO] I0801 02:34:34.002867 30299 net.cpp:425] relu1 <- conv1
2016-08-01 02:34:34.003 STDERR [INFO] I0801 02:34:34.002876 30299 net.cpp:386] relu1 -> conv1 (in-place)
2016-08-01 02:34:34.003 STDERR [INFO] I0801 02:34:34.003356 30299 net.cpp:141] Setting up relu1
2016-08-01 02:34:34.004 STDERR [INFO] I0801 02:34:34.003371 30299 net.cpp:148] Top shape: 10 96 55 55 (2904000)
2016-08-01 02:34:34.004 n.t.s.b.CVParticleBolt [INFO] [Timing] RequestID: 0 StreamID: home/peifeng/work/data/frame.320x240.jpg SequenceNr: 98 Entering scale: 1470033274004
2016-08-01 02:34:34.004 n.t.s.s.CVParticleSpout [INFO] [Timing] RequestID: 0 StreamID: home/peifeng/work/data/frame.320x240.jpg SequenceNr: 98 Leaving fetcher: 1470033274004 Size: 8702
2016-08-01 02:34:34.004 STDERR [INFO] I0801 02:34:34.003377 30299 net.cpp:156] Memory required for data: 29415480
2016-08-01 02:34:34.004 STDERR [INFO] I0801 02:34:34.003383 30299 layer_factory.hpp:77] Creating layer pool1
2016-08-01 02:34:34.004 STDERR [INFO] I0801 02:34:34.003396 30299 net.cpp:91] Creating Layer pool1
2016-08-01 02:34:34.004 STDERR [INFO] I0801 02:34:34.003402 30299 net.cpp:425] pool1 <- conv1
2016-08-01 02:34:34.004 STDERR [INFO] I0801 02:34:34.003410 30299 net.cpp:399] pool1 -> pool1
2016-08-01 02:34:34.004 STDERR [INFO] I0801 02:34:34.003480 30299 net.cpp:141] Setting up pool1
2016-08-01 02:34:34.004 STDERR [INFO] I0801 02:34:34.003492 30299 net.cpp:148] Top shape: 10 96 27 27 (699840)
2016-08-01 02:34:34.005 STDERR [INFO] I0801 02:34:34.003497 30299 net.cpp:156] Memory required for data: 32214840
2016-08-01 02:34:34.005 STDERR [INFO] I0801 02:34:34.003504 30299 layer_factory.hpp:77] Creating layer norm1
2016-08-01 02:34:34.005 STDERR [INFO] I0801 02:34:34.003520 30299 net.cpp:91] Creating Layer norm1
2016-08-01 02:34:34.005 STDERR [INFO] I0801 02:34:34.003525 30299 net.cpp:425] norm1 <- pool1
2016-08-01 02:34:34.005 STDERR [INFO] I0801 02:34:34.003533 30299 net.cpp:399] norm1 -> norm1
2016-08-01 02:34:34.005 STDERR [INFO] I0801 02:34:34.004071 30299 net.cpp:141] Setting up norm1
2016-08-01 02:34:34.006 STDERR [INFO] I0801 02:34:34.004093 30299 net.cpp:148] Top shape: 10 96 27 27 (699840)
2016-08-01 02:34:34.006 STDERR [INFO] I0801 02:34:34.004102 30299 net.cpp:156] Memory required for data: 35014200
2016-08-01 02:34:34.006 STDERR [INFO] I0801 02:34:34.004118 30299 layer_factory.hpp:77] Creating layer conv2
2016-08-01 02:34:34.006 STDERR [INFO] I0801 02:34:34.004138 30299 net.cpp:91] Creating Layer conv2
2016-08-01 02:34:34.006 STDERR [INFO] I0801 02:34:34.004145 30299 net.cpp:425] conv2 <- norm1
2016-08-01 02:34:34.006 STDERR [INFO] I0801 02:34:34.004153 30299 net.cpp:399] conv2 -> conv2
2016-08-01 02:34:34.007 STDERR [INFO] I0801 02:34:34.007659 30299 net.cpp:141] Setting up conv2
2016-08-01 02:34:34.008 STDERR [INFO] I0801 02:34:34.007691 30299 net.cpp:148] Top shape: 10 256 27 27 (1866240)
2016-08-01 02:34:34.008 STDERR [INFO] I0801 02:34:34.007697 30299 net.cpp:156] Memory required for data: 42479160
2016-08-01 02:34:34.008 STDERR [INFO] I0801 02:34:34.007714 30299 layer_factory.hpp:77] Creating layer relu2
2016-08-01 02:34:34.008 STDERR [INFO] I0801 02:34:34.007726 30299 net.cpp:91] Creating Layer relu2
2016-08-01 02:34:34.008 STDERR [INFO] I0801 02:34:34.007733 30299 net.cpp:425] relu2 <- conv2
2016-08-01 02:34:34.008 STDERR [INFO] I0801 02:34:34.007741 30299 net.cpp:386] relu2 -> conv2 (in-place)
2016-08-01 02:34:34.008 STDERR [INFO] I0801 02:34:34.008216 30289 net.cpp:141] Setting up embedding
2016-08-01 02:34:34.008 STDERR [INFO] I0801 02:34:34.008236 30289 net.cpp:148] Top shape: 1 1 500 (500)
2016-08-01 02:34:34.008 STDERR [INFO] I0801 02:34:34.008241 30289 net.cpp:156] Memory required for data: 22408
2016-08-01 02:34:34.008 STDERR [INFO] I0801 02:34:34.008255 30289 layer_factory.hpp:77] Creating layer lstm1
2016-08-01 02:34:34.009 STDERR [INFO] I0801 02:34:34.008270 30289 net.cpp:91] Creating Layer lstm1
2016-08-01 02:34:34.009 n.t.s.b.CVParticleBolt [INFO] [Timing] RequestID: 0 StreamID: home/peifeng/work/data/frame.320x240.jpg SequenceNr: 99 Entering scale: 1470033274009
2016-08-01 02:34:34.009 n.t.s.s.CVParticleSpout [INFO] [Timing] RequestID: 0 StreamID: home/peifeng/work/data/frame.320x240.jpg SequenceNr: 99 Leaving fetcher: 1470033274009 Size: 8702
2016-08-01 02:34:34.009 STDERR [INFO] I0801 02:34:34.008277 30289 net.cpp:425] lstm1 <- embedded_input_frames
2016-08-01 02:34:34.009 STDERR [INFO] I0801 02:34:34.008285 30289 net.cpp:425] lstm1 <- cont_sentence_input_1_split_0
2016-08-01 02:34:34.009 STDERR [INFO] I0801 02:34:34.008297 30289 net.cpp:399] lstm1 -> lstm1
2016-08-01 02:34:34.009 STDERR [INFO] I0801 02:34:34.008302 30299 net.cpp:141] Setting up relu2
2016-08-01 02:34:34.009 STDERR [INFO] I0801 02:34:34.008317 30289 recurrent_layer.cpp:20] Initializing recurrent layer: assuming input batch contains 1 timesteps of 1 independent streams.
2016-08-01 02:34:34.009 STDERR [INFO] I0801 02:34:34.008318 30299 net.cpp:148] Top shape: 10 256 27 27 (1866240)
2016-08-01 02:34:34.009 STDERR [INFO] I0801 02:34:34.008334 30299 net.cpp:156] Memory required for data: 49944120
2016-08-01 02:34:34.009 STDERR [INFO] I0801 02:34:34.008340 30299 layer_factory.hpp:77] Creating layer pool2
2016-08-01 02:34:34.009 STDERR [INFO] I0801 02:34:34.008355 30299 net.cpp:91] Creating Layer pool2
2016-08-01 02:34:34.010 STDERR [INFO] I0801 02:34:34.008361 30299 net.cpp:425] pool2 <- conv2
2016-08-01 02:34:34.010 STDERR [INFO] I0801 02:34:34.008370 30299 net.cpp:399] pool2 -> pool2
2016-08-01 02:34:34.010 STDERR [INFO] I0801 02:34:34.008431 30299 net.cpp:141] Setting up pool2
2016-08-01 02:34:34.010 STDERR [INFO] I0801 02:34:34.008442 30299 net.cpp:148] Top shape: 10 256 13 13 (432640)
2016-08-01 02:34:34.010 STDERR [INFO] I0801 02:34:34.008447 30299 net.cpp:156] Memory required for data: 51674680
2016-08-01 02:34:34.010 STDERR [INFO] I0801 02:34:34.008452 30299 layer_factory.hpp:77] Creating layer norm2
2016-08-01 02:34:34.010 STDERR [INFO] I0801 02:34:34.008466 30299 net.cpp:91] Creating Layer norm2
2016-08-01 02:34:34.010 STDERR [INFO] I0801 02:34:34.008471 30299 net.cpp:425] norm2 <- pool2
…
2016-08-01 02:34:34.023 STDERR [INFO]   }
2016-08-01 02:34:34.023 STDERR [INFO] }
2016-08-01 02:34:34.023 STDERR [INFO] layer {
2016-08-01 02:34:34.023 STDERR [INFO]   name: "h_pseudoloss"
2016-08-01 02:34:34.024 STDERR [INFO]   type: "Reduction"
2016-08-01 02:34:34.024 STDERR [INFO]   bottom: "h"
2016-08-01 02:34:34.024 STDERR [INFO]   top: "h_pseudoloss"
2016-08-01 02:34:34.024 STDERR [INFO]   loss_weight: 1
2016-08-01 02:34:34.024 STDERR [INFO] }
2016-08-01 02:34:34.024 STDERR [INFO] I0801 02:34:34.008752 30299 net.cpp:141] Setting up norm2
2016-08-01 02:34:34.024 STDERR [INFO] I0801 02:34:34.008766 30299 net.cpp:148] Top shape: 10 256 13 13 (432640)
2016-08-01 02:34:34.024 STDERR [INFO] I0801 02:34:34.008772 30299 net.cpp:156] Memory required for data: 53405240
2016-08-01 02:34:34.024 STDERR [INFO] I0801 02:34:34.008780 30299 layer_factory.hpp:77] Creating layer conv3
2016-08-01 02:34:34.024 STDERR [INFO] I0801 02:34:34.008795 30299 net.cpp:91] Creating Layer conv3
2016-08-01 02:34:34.024 STDERR [INFO] I0801 02:34:34.008801 30299 net.cpp:425] conv3 <- norm2
2016-08-01 02:34:34.025 STDERR [INFO] I0801 02:34:34.008810 30299 net.cpp:399] conv3 -> conv3
2016-08-01 02:34:34.025 STDERR [INFO] I0801 02:34:34.008824 30289 layer_factory.hpp:77] Creating layer lstm1_
2016-08-01 02:34:34.025 STDERR [INFO] I0801 02:34:34.008838 30289 net.cpp:91] Creating Layer lstm1_
2016-08-01 02:34:34.025 STDERR [INFO] I0801 02:34:34.008846 30289 net.cpp:399] lstm1_ -> x
2016-08-01 02:34:34.025 STDERR [INFO] I0801 02:34:34.008858 30289 net.cpp:399] lstm1_ -> cont
2016-08-01 02:34:34.025 STDERR [INFO] I0801 02:34:34.009073 30289 net.cpp:141] Setting up lstm1_
2016-08-01 02:34:34.025 STDERR [INFO] I0801 02:34:34.009093 30289 net.cpp:148] Top shape: 1 1 500 (500)
2016-08-01 02:34:34.025 STDERR [INFO] I0801 02:34:34.009104 30289 net.cpp:148] Top shape: 1 1 (1)
2016-08-01 02:34:34.025 STDERR [INFO] I0801 02:34:34.009114 30289 net.cpp:156] Memory required for data: 2004
2016-08-01 02:34:34.025 STDERR [INFO] I0801 02:34:34.009124 30289 layer_factory.hpp:77] Creating layer lstm1_
2016-08-01 02:34:34.025 STDERR [INFO] I0801 02:34:34.009140 30289 net.cpp:91] Creating Layer lstm1_
2016-08-01 02:34:34.026 STDERR [INFO] I0801 02:34:34.010726 30289 net.cpp:399] lstm1_ -> c_0
2016-08-01 02:34:34.026 STDERR [INFO] I0801 02:34:34.010763 30289 net.cpp:399] lstm1_ -> h_0
2016-08-01 02:34:34.026 STDERR [INFO] I0801 02:34:34.011287 30289 net.cpp:141] Setting up lstm1_
2016-08-01 02:34:34.026 STDERR [INFO] I0801 02:34:34.011308 30289 net.cpp:148] Top shape: 1 1 1000 (1000)
2016-08-01 02:34:34.026 STDERR [INFO] I0801 02:34:34.011320 30289 net.cpp:148] Top shape: 1 1 1000 (1000)
2016-08-01 02:34:34.026 STDERR [INFO] I0801 02:34:34.011328 30289 net.cpp:156] Memory required for data: 10004
2016-08-01 02:34:34.026 STDERR [INFO] I0801 02:34:34.011338 30289 layer_factory.hpp:77] Creating layer lstm1_cont_slice
2016-08-01 02:34:34.026 STDERR [INFO] I0801 02:34:34.011354 30289 net.cpp:91] Creating Layer lstm1_cont_slice
2016-08-01 02:34:34.026 STDERR [INFO] I0801 02:34:34.011363 30289 net.cpp:425] lstm1_cont_slice <- cont
2016-08-01 02:34:34.026 STDERR [INFO] I0801 02:34:34.011380 30289 net.cpp:399] lstm1_cont_slice -> cont_1
2016-08-01 02:34:34.027 STDERR [INFO] I0801 02:34:34.011435 30289 net.cpp:141] Setting up lstm1_cont_slice
2016-08-01 02:34:34.027 STDERR [INFO] I0801 02:34:34.011453 30289 net.cpp:148] Top shape: 1 1 (1)
2016-08-01 02:34:34.027 STDERR [INFO] I0801 02:34:34.011461 30289 net.cpp:156] Memory required for data: 10008
2016-08-01 02:34:34.027 STDERR [INFO] I0801 02:34:34.011471 30289 layer_factory.hpp:77] Creating layer cont_1_lstm1_cont_slice_0_split
2016-08-01 02:34:34.027 STDERR [INFO] I0801 02:34:34.011490 30289 net.cpp:91] Creating Layer cont_1_lstm1_cont_slice_0_split
2016-08-01 02:34:34.027 STDERR [INFO] I0801 02:34:34.011500 30289 net.cpp:425] cont_1_lstm1_cont_slice_0_split <- cont_1
2016-08-01 02:34:34.027 STDERR [INFO] I0801 02:34:34.011513 30289 net.cpp:399] cont_1_lstm1_cont_slice_0_split -> cont_1_lstm1_cont_slice_0_split_0
2016-08-01 02:34:34.027 STDERR [INFO] I0801 02:34:34.011531 30289 net.cpp:399] cont_1_lstm1_cont_slice_0_split -> cont_1_lstm1_cont_slice_0_split_1
2016-08-01 02:34:34.027 STDERR [INFO] I0801 02:34:34.011610 30289 net.cpp:141] Setting up cont_1_lstm1_cont_slice_0_split
2016-08-01 02:34:34.027 STDERR [INFO] I0801 02:34:34.011626 30289 net.cpp:148] Top shape: 1 1 (1)
2016-08-01 02:34:34.027 STDERR [INFO] I0801 02:34:34.011639 30289 net.cpp:148] Top shape: 1 1 (1)
2016-08-01 02:34:34.028 STDERR [INFO] I0801 02:34:34.011647 30289 net.cpp:156] Memory required for data: 10016
2016-08-01 02:34:34.028 STDERR [INFO] I0801 02:34:34.011656 30289 layer_factory.hpp:77] Creating layer lstm1_x_transform
2016-08-01 02:34:34.028 STDERR [INFO] I0801 02:34:34.011675 30289 net.cpp:91] Creating Layer lstm1_x_transform
2016-08-01 02:34:34.028 STDERR [INFO] I0801 02:34:34.011684 30289 net.cpp:425] lstm1_x_transform <- x
2016-08-01 02:34:34.028 STDERR [INFO] I0801 02:34:34.011699 30289 net.cpp:399] lstm1_x_transform -> W_xc_x
2016-08-01 02:34:34.028 STDERR [INFO] I0801 02:34:34.019134 30299 net.cpp:141] Setting up conv3
2016-08-01 02:34:34.028 STDERR [INFO] I0801 02:34:34.019177 30299 net.cpp:148] Top shape: 10 384 13 13 (648960)
2016-08-01 02:34:34.028 STDERR [INFO] I0801 02:34:34.019184 30299 net.cpp:156] Memory required for data: 56001080
2016-08-01 02:34:34.028 STDERR [INFO] I0801 02:34:34.019209 30299 layer_factory.hpp:77] Creating layer relu3
2016-08-01 02:34:34.028 STDERR [INFO] I0801 02:34:34.019225 30299 net.cpp:91] Creating Layer relu3
2016-08-01 02:34:34.028 STDERR [INFO] I0801 02:34:34.019232 30299 net.cpp:425] relu3 <- conv3
2016-08-01 02:34:34.028 STDERR [INFO] I0801 02:34:34.019244 30299 net.cpp:386] relu3 -> conv3 (in-place)
2016-08-01 02:34:34.029 STDERR [INFO] I0801 02:34:34.019764 30299 net.cpp:141] Setting up relu3
2016-08-01 02:34:34.029 STDERR [INFO] I0801 02:34:34.019779 30299 net.cpp:148] Top shape: 10 384 13 13 (648960)
2016-08-01 02:34:34.029 STDERR [INFO] I0801 02:34:34.019785 30299 net.cpp:156] Memory required for data: 58596920
2016-08-01 02:34:34.029 STDERR [INFO] I0801 02:34:34.019791 30299 layer_factory.hpp:77] Creating layer conv4
2016-08-01 02:34:34.029 STDERR [INFO] I0801 02:34:34.019809 30299 net.cpp:91] Creating Layer conv4
2016-08-01 02:34:34.029 STDERR [INFO] I0801 02:34:34.019814 30299 net.cpp:425] conv4 <- conv3
2016-08-01 02:34:34.029 STDERR [INFO] I0801 02:34:34.019824 30299 net.cpp:399] conv4 -> conv4
2016-08-01 02:34:34.029 STDERR [INFO] I0801 02:34:34.025878 30299 net.cpp:141] Setting up conv4
2016-08-01 02:34:34.029 STDERR [INFO] I0801 02:34:34.025923 30299 net.cpp:148] Top shape: 10 384 13 13 (648960)
2016-08-01 02:34:34.029 STDERR [INFO] I0801 02:34:34.025934 30299 net.cpp:156] Memory required for data: 61192760
2016-08-01 02:34:34.029 STDERR [INFO] I0801 02:34:34.025955 30299 layer_factory.hpp:77] Creating layer relu4
2016-08-01 02:34:34.029 STDERR [INFO] I0801 02:34:34.025981 30299 net.cpp:91] Creating Layer relu4
2016-08-01 02:34:34.030 STDERR [INFO] I0801 02:34:34.025993 30299 net.cpp:425] relu4 <- conv4
2016-08-01 02:34:34.030 STDERR [INFO] I0801 02:34:34.026008 30299 net.cpp:386] relu4 -> conv4 (in-place)
2016-08-01 02:34:34.030 STDERR [INFO] I0801 02:34:34.026710 30299 net.cpp:141] Setting up relu4
2016-08-01 02:34:34.030 STDERR [INFO] I0801 02:34:34.026733 30299 net.cpp:148] Top shape: 10 384 13 13 (648960)
2016-08-01 02:34:34.030 STDERR [INFO] I0801 02:34:34.026743 30299 net.cpp:156] Memory required for data: 63788600
2016-08-01 02:34:34.030 STDERR [INFO] I0801 02:34:34.026753 30299 layer_factory.hpp:77] Creating layer conv5
2016-08-01 02:34:34.030 STDERR [INFO] I0801 02:34:34.026788 30299 net.cpp:91] Creating Layer conv5
2016-08-01 02:34:34.030 STDERR [INFO] I0801 02:34:34.026803 30299 net.cpp:425] conv5 <- conv4
2016-08-01 02:34:34.030 STDERR [INFO] I0801 02:34:34.026819 30299 net.cpp:399] conv5 -> conv5
2016-08-01 02:34:34.033 STDERR [INFO] I0801 02:34:34.033397 30299 net.cpp:141] Setting up conv5
2016-08-01 02:34:34.034 STDERR [INFO] I0801 02:34:34.033429 30299 net.cpp:148] Top shape: 10 256 13 13 (432640)
2016-08-01 02:34:34.034 STDERR [INFO] I0801 02:34:34.033439 30299 net.cpp:156] Memory required for data: 65519160
2016-08-01 02:34:34.034 STDERR [INFO] I0801 02:34:34.033464 30299 layer_factory.hpp:77] Creating layer relu5
2016-08-01 02:34:34.034 STDERR [INFO] I0801 02:34:34.033489 30299 net.cpp:91] Creating Layer relu5
2016-08-01 02:34:34.034 STDERR [INFO] I0801 02:34:34.033500 30299 net.cpp:425] relu5 <- conv5
2016-08-01 02:34:34.034 STDERR [INFO] I0801 02:34:34.033514 30299 net.cpp:386] relu5 -> conv5 (in-place)
2016-08-01 02:34:34.034 STDERR [INFO] I0801 02:34:34.034230 30299 net.cpp:141] Setting up relu5
2016-08-01 02:34:34.034 STDERR [INFO] I0801 02:34:34.034251 30299 net.cpp:148] Top shape: 10 256 13 13 (432640)
2016-08-01 02:34:34.035 STDERR [INFO] I0801 02:34:34.034260 30299 net.cpp:156] Memory required for data: 67249720
2016-08-01 02:34:34.035 STDERR [INFO] I0801 02:34:34.034271 30299 layer_factory.hpp:77] Creating layer pool5
2016-08-01 02:34:34.035 STDERR [INFO] I0801 02:34:34.034293 30299 net.cpp:91] Creating Layer pool5
2016-08-01 02:34:34.035 STDERR [INFO] I0801 02:34:34.034304 30299 net.cpp:425] pool5 <- conv5
2016-08-01 02:34:34.035 STDERR [INFO] I0801 02:34:34.034322 30299 net.cpp:399] pool5 -> pool5
2016-08-01 02:34:34.035 STDERR [INFO] I0801 02:34:34.034423 30299 net.cpp:141] Setting up pool5
2016-08-01 02:34:34.035 STDERR [INFO] I0801 02:34:34.034440 30299 net.cpp:148] Top shape: 10 256 6 6 (92160)
2016-08-01 02:34:34.035 STDERR [INFO] I0801 02:34:34.034448 30299 net.cpp:156] Memory required for data: 67618360
2016-08-01 02:34:34.035 STDERR [INFO] I0801 02:34:34.034458 30299 layer_factory.hpp:77] Creating layer fc6
2016-08-01 02:34:34.035 STDERR [INFO] I0801 02:34:34.034482 30299 net.cpp:91] Creating Layer fc6
2016-08-01 02:34:34.035 STDERR [INFO] I0801 02:34:34.034492 30299 net.cpp:425] fc6 <- pool5
2016-08-01 02:34:34.035 STDERR [INFO] I0801 02:34:34.034505 30299 net.cpp:399] fc6 -> fc6
2016-08-01 02:34:34.106 STDERR [INFO] I0801 02:34:34.105952 30289 net.cpp:141] Setting up lstm1_x_transform
2016-08-01 02:34:34.106 STDERR [INFO] I0801 02:34:34.106006 30289 net.cpp:148] Top shape: 1 1 4000 (4000)
2016-08-01 02:34:34.106 STDERR [INFO] I0801 02:34:34.106012 30289 net.cpp:156] Memory required for data: 26016
2016-08-01 02:34:34.106 STDERR [INFO] I0801 02:34:34.106035 30289 layer_factory.hpp:77] Creating layer lstm1_W_xc_x_slice
2016-08-01 02:34:34.106 STDERR [INFO] I0801 02:34:34.106052 30289 net.cpp:91] Creating Layer lstm1_W_xc_x_slice
2016-08-01 02:34:34.106 STDERR [INFO] I0801 02:34:34.106060 30289 net.cpp:425] lstm1_W_xc_x_slice <- W_xc_x
2016-08-01 02:34:34.106 STDERR [INFO] I0801 02:34:34.106070 30289 net.cpp:399] lstm1_W_xc_x_slice -> W_xc_x_1
2016-08-01 02:34:34.107 STDERR [INFO] I0801 02:34:34.106124 30289 net.cpp:141] Setting up lstm1_W_xc_x_slice
2016-08-01 02:34:34.107 STDERR [INFO] I0801 02:34:34.106137 30289 net.cpp:148] Top shape: 1 1 4000 (4000)
2016-08-01 02:34:34.107 STDERR [INFO] I0801 02:34:34.106142 30289 net.cpp:156] Memory required for data: 42016
2016-08-01 02:34:34.107 STDERR [INFO] I0801 02:34:34.106147 30289 layer_factory.hpp:77] Creating layer lstm1_h_conted_0
2016-08-01 02:34:34.107 STDERR [INFO] I0801 02:34:34.106158 30289 net.cpp:91] Creating Layer lstm1_h_conted_0
2016-08-01 02:34:34.107 STDERR [INFO] I0801 02:34:34.106163 30289 net.cpp:425] lstm1_h_conted_0 <- h_0
2016-08-01 02:34:34.107 STDERR [INFO] I0801 02:34:34.106169 30289 net.cpp:425] lstm1_h_conted_0 <- cont_1_lstm1_cont_slice_0_split_0
2016-08-01 02:34:34.107 STDERR [INFO] I0801 02:34:34.106178 30289 net.cpp:399] lstm1_h_conted_0 -> h_conted_0
2016-08-01 02:34:34.107 STDERR [INFO] I0801 02:34:34.106279 30289 net.cpp:141] Setting up lstm1_h_conted_0
2016-08-01 02:34:34.107 STDERR [INFO] I0801 02:34:34.106290 30289 net.cpp:148] Top shape: 1 1 1000 (1000)
2016-08-01 02:34:34.108 STDERR [INFO] I0801 02:34:34.106295 30289 net.cpp:156] Memory required for data: 46016
2016-08-01 02:34:34.108 STDERR [INFO] I0801 02:34:34.106300 30289 layer_factory.hpp:77] Creating layer lstm1_transform_1
2016-08-01 02:34:34.108 STDERR [INFO] I0801 02:34:34.106313 30289 net.cpp:91] Creating Layer lstm1_transform_1
2016-08-01 02:34:34.108 STDERR [INFO] I0801 02:34:34.106319 30289 net.cpp:425] lstm1_transform_1 <- h_conted_0
2016-08-01 02:34:34.108 STDERR [INFO] I0801 02:34:34.106328 30289 net.cpp:399] lstm1_transform_1 -> W_hc_h_0
2016-08-01 02:34:34.147 STDERR [INFO] I0801 02:34:34.147539 30299 net.cpp:141] Setting up fc6
2016-08-01 02:34:34.148 STDERR [INFO] I0801 02:34:34.147589 30299 net.cpp:148] Top shape: 10 4096 (40960)
2016-08-01 02:34:34.148 STDERR [INFO] I0801 02:34:34.147596 30299 net.cpp:156] Memory required for data: 67782200
2016-08-01 02:34:34.148 STDERR [INFO] I0801 02:34:34.147611 30299 layer_factory.hpp:77] Creating layer relu6
2016-08-01 02:34:34.148 STDERR [INFO] I0801 02:34:34.147636 30299 net.cpp:91] Creating Layer relu6
2016-08-01 02:34:34.148 STDERR [INFO] I0801 02:34:34.147644 30299 net.cpp:425] relu6 <- fc6
2016-08-01 02:34:34.148 STDERR [INFO] I0801 02:34:34.147655 30299 net.cpp:386] relu6 -> fc6 (in-place)
2016-08-01 02:34:34.148 STDERR [INFO] I0801 02:34:34.148105 30299 net.cpp:141] Setting up relu6
2016-08-01 02:34:34.149 STDERR [INFO] I0801 02:34:34.148119 30299 net.cpp:148] Top shape: 10 4096 (40960)
2016-08-01 02:34:34.149 STDERR [INFO] I0801 02:34:34.148125 30299 net.cpp:156] Memory required for data: 67946040
2016-08-01 02:34:34.149 STDERR [INFO] I0801 02:34:34.148133 30299 layer_factory.hpp:77] Creating layer drop6
2016-08-01 02:34:34.149 STDERR [INFO] I0801 02:34:34.148151 30299 net.cpp:91] Creating Layer drop6
2016-08-01 02:34:34.149 STDERR [INFO] I0801 02:34:34.148162 30299 net.cpp:425] drop6 <- fc6
2016-08-01 02:34:34.149 STDERR [INFO] I0801 02:34:34.148175 30299 net.cpp:386] drop6 -> fc6 (in-place)
2016-08-01 02:34:34.149 STDERR [INFO] I0801 02:34:34.148249 30299 net.cpp:141] Setting up drop6
2016-08-01 02:34:34.149 STDERR [INFO] I0801 02:34:34.148260 30299 net.cpp:148] Top shape: 10 4096 (40960)
2016-08-01 02:34:34.149 STDERR [INFO] I0801 02:34:34.148265 30299 net.cpp:156] Memory required for data: 68109880
2016-08-01 02:34:34.149 STDERR [INFO] I0801 02:34:34.148270 30299 layer_factory.hpp:77] Creating layer fc7
2016-08-01 02:34:34.149 STDERR [INFO] I0801 02:34:34.148283 30299 net.cpp:91] Creating Layer fc7
2016-08-01 02:34:34.149 STDERR [INFO] I0801 02:34:34.148289 30299 net.cpp:425] fc7 <- fc6
2016-08-01 02:34:34.150 STDERR [INFO] I0801 02:34:34.148301 30299 net.cpp:399] fc7 -> fc7
2016-08-01 02:34:34.179 STDERR [INFO] I0801 02:34:34.179292 30289 net.cpp:141] Setting up lstm1_transform_1
2016-08-01 02:34:34.180 STDERR [INFO] I0801 02:34:34.179347 30289 net.cpp:148] Top shape: 1 1 4000 (4000)
2016-08-01 02:34:34.180 STDERR [INFO] I0801 02:34:34.179352 30289 net.cpp:156] Memory required for data: 62016
2016-08-01 02:34:34.180 STDERR [INFO] I0801 02:34:34.179376 30289 layer_factory.hpp:77] Creating layer lstm1_gate_input_1
2016-08-01 02:34:34.180 STDERR [INFO] I0801 02:34:34.179397 30289 net.cpp:91] Creating Layer lstm1_gate_input_1
2016-08-01 02:34:34.180 STDERR [INFO] I0801 02:34:34.179404 30289 net.cpp:425] lstm1_gate_input_1 <- W_hc_h_0
2016-08-01 02:34:34.180 STDERR [INFO] I0801 02:34:34.179414 30289 net.cpp:425] lstm1_gate_input_1 <- W_xc_x_1
2016-08-01 02:34:34.180 STDERR [INFO] I0801 02:34:34.179426 30289 net.cpp:399] lstm1_gate_input_1 -> gate_input_1
2016-08-01 02:34:34.181 STDERR [INFO] I0801 02:34:34.179496 30289 net.cpp:141] Setting up lstm1_gate_input_1
2016-08-01 02:34:34.181 STDERR [INFO] I0801 02:34:34.179507 30289 net.cpp:148] Top shape: 1 1 4000 (4000)
2016-08-01 02:34:34.181 STDERR [INFO] I0801 02:34:34.179512 30289 net.cpp:156] Memory required for data: 78016
2016-08-01 02:34:34.181 STDERR [INFO] I0801 02:34:34.179517 30289 layer_factory.hpp:77] Creating layer lstm1_unit_1
2016-08-01 02:34:34.181 STDERR [INFO] I0801 02:34:34.179533 30289 net.cpp:91] Creating Layer lstm1_unit_1
2016-08-01 02:34:34.181 STDERR [INFO] I0801 02:34:34.179539 30289 net.cpp:425] lstm1_unit_1 <- c_0
2016-08-01 02:34:34.181 STDERR [INFO] I0801 02:34:34.179546 30289 net.cpp:425] lstm1_unit_1 <- gate_input_1
2016-08-01 02:34:34.181 STDERR [INFO] I0801 02:34:34.179553 30289 net.cpp:425] lstm1_unit_1 <- cont_1_lstm1_cont_slice_0_split_1
2016-08-01 02:34:34.181 STDERR [INFO] I0801 02:34:34.179560 30289 net.cpp:399] lstm1_unit_1 -> c_1
2016-08-01 02:34:34.181 STDERR [INFO] I0801 02:34:34.179570 30289 net.cpp:399] lstm1_unit_1 -> h_1
2016-08-01 02:34:34.182 STDERR [INFO] I0801 02:34:34.179657 30289 net.cpp:141] Setting up lstm1_unit_1
2016-08-01 02:34:34.182 STDERR [INFO] I0801 02:34:34.179675 30289 net.cpp:148] Top shape: 1 1 1000 (1000)
2016-08-01 02:34:34.182 STDERR [INFO] I0801 02:34:34.179684 30289 net.cpp:148] Top shape: 1 1 1000 (1000)
2016-08-01 02:34:34.182 STDERR [INFO] I0801 02:34:34.179689 30289 net.cpp:156] Memory required for data: 86016
2016-08-01 02:34:34.182 STDERR [INFO] I0801 02:34:34.179694 30289 layer_factory.hpp:77] Creating layer lstm1_
2016-08-01 02:34:34.182 STDERR [INFO] I0801 02:34:34.179704 30289 net.cpp:91] Creating Layer lstm1_
2016-08-01 02:34:34.182 STDERR [INFO] I0801 02:34:34.179709 30289 net.cpp:425] lstm1_ <- c_1
2016-08-01 02:34:34.182 STDERR [INFO] I0801 02:34:34.179723 30289 net.cpp:399] lstm1_ -> c_T
2016-08-01 02:34:34.182 STDERR [INFO] I0801 02:34:34.179760 30289 net.cpp:141] Setting up lstm1_
2016-08-01 02:34:34.182 STDERR [INFO] I0801 02:34:34.179770 30289 net.cpp:148] Top shape: 1 1 1000 (1000)
2016-08-01 02:34:34.182 STDERR [INFO] I0801 02:34:34.179775 30289 net.cpp:156] Memory required for data: 90016
2016-08-01 02:34:34.182 STDERR [INFO] I0801 02:34:34.179780 30289 layer_factory.hpp:77] Creating layer lstm1_h_concat
2016-08-01 02:34:34.183 STDERR [INFO] I0801 02:34:34.179798 30289 net.cpp:91] Creating Layer lstm1_h_concat
2016-08-01 02:34:34.183 STDERR [INFO] I0801 02:34:34.179803 30289 net.cpp:425] lstm1_h_concat <- h_1
2016-08-01 02:34:34.183 STDERR [INFO] I0801 02:34:34.179811 30289 net.cpp:399] lstm1_h_concat -> h
2016-08-01 02:34:34.183 STDERR [INFO] I0801 02:34:34.179855 30289 net.cpp:141] Setting up lstm1_h_concat
2016-08-01 02:34:34.183 STDERR [INFO] I0801 02:34:34.179865 30289 net.cpp:148] Top shape: 1 1 1000 (1000)
2016-08-01 02:34:34.183 STDERR [INFO] I0801 02:34:34.179870 30289 net.cpp:156] Memory required for data: 94016
2016-08-01 02:34:34.183 STDERR [INFO] I0801 02:34:34.179875 30289 layer_factory.hpp:77] Creating layer h_pseudoloss
2016-08-01 02:34:34.183 STDERR [INFO] I0801 02:34:34.179884 30289 net.cpp:91] Creating Layer h_pseudoloss
2016-08-01 02:34:34.183 STDERR [INFO] I0801 02:34:34.179889 30289 net.cpp:425] h_pseudoloss <- h
…
2016-08-01 02:34:34.200 STDERR [INFO] }
2016-08-01 02:34:34.200 STDERR [INFO] I0801 02:34:34.180949 30289 layer_factory.hpp:77] Creating layer lstm2_
2016-08-01 02:34:34.200 STDERR [INFO] I0801 02:34:34.180963 30289 net.cpp:91] Creating Layer lstm2_
2016-08-01 02:34:34.200 STDERR [INFO] I0801 02:34:34.180969 30289 net.cpp:399] lstm2_ -> x
2016-08-01 02:34:34.200 STDERR [INFO] I0801 02:34:34.180981 30289 net.cpp:399] lstm2_ -> cont
2016-08-01 02:34:34.200 STDERR [INFO] I0801 02:34:34.181043 30289 net.cpp:141] Setting up lstm2_
2016-08-01 02:34:34.200 STDERR [INFO] I0801 02:34:34.181054 30289 net.cpp:148] Top shape: 1 1 1501 (1501)
2016-08-01 02:34:34.200 STDERR [INFO] I0801 02:34:34.181061 30289 net.cpp:148] Top shape: 1 1 (1)
2016-08-01 02:34:34.201 STDERR [INFO] I0801 02:34:34.181066 30289 net.cpp:156] Memory required for data: 6008
2016-08-01 02:34:34.201 STDERR [INFO] I0801 02:34:34.181071 30289 layer_factory.hpp:77] Creating layer lstm2_
2016-08-01 02:34:34.201 STDERR [INFO] I0801 02:34:34.181085 30289 net.cpp:91] Creating Layer lstm2_
2016-08-01 02:34:34.201 STDERR [INFO] I0801 02:34:34.181093 30289 net.cpp:399] lstm2_ -> c_0
2016-08-01 02:34:34.201 STDERR [INFO] I0801 02:34:34.181104 30289 net.cpp:399] lstm2_ -> h_0
2016-08-01 02:34:34.201 STDERR [INFO] I0801 02:34:34.181165 30289 net.cpp:141] Setting up lstm2_
2016-08-01 02:34:34.201 STDERR [INFO] I0801 02:34:34.181176 30289 net.cpp:148] Top shape: 1 1 1000 (1000)
2016-08-01 02:34:34.202 STDERR [INFO] I0801 02:34:34.181182 30289 net.cpp:148] Top shape: 1 1 1000 (1000)
2016-08-01 02:34:34.202 STDERR [INFO] I0801 02:34:34.181187 30289 net.cpp:156] Memory required for data: 14008
2016-08-01 02:34:34.202 STDERR [INFO] I0801 02:34:34.181192 30289 layer_factory.hpp:77] Creating layer lstm2_cont_slice
2016-08-01 02:34:34.202 STDERR [INFO] I0801 02:34:34.181202 30289 net.cpp:91] Creating Layer lstm2_cont_slice
2016-08-01 02:34:34.202 STDERR [INFO] I0801 02:34:34.181207 30289 net.cpp:425] lstm2_cont_slice <- cont
2016-08-01 02:34:34.202 STDERR [INFO] I0801 02:34:34.181215 30289 net.cpp:399] lstm2_cont_slice -> cont_1
2016-08-01 02:34:34.202 STDERR [INFO] I0801 02:34:34.181257 30289 net.cpp:141] Setting up lstm2_cont_slice
2016-08-01 02:34:34.202 STDERR [INFO] I0801 02:34:34.181267 30289 net.cpp:148] Top shape: 1 1 (1)
2016-08-01 02:34:34.202 STDERR [INFO] I0801 02:34:34.181272 30289 net.cpp:156] Memory required for data: 14012
2016-08-01 02:34:34.202 STDERR [INFO] I0801 02:34:34.181277 30289 layer_factory.hpp:77] Creating layer cont_1_lstm2_cont_slice_0_split
2016-08-01 02:34:34.202 STDERR [INFO] I0801 02:34:34.181285 30289 net.cpp:91] Creating Layer cont_1_lstm2_cont_slice_0_split
2016-08-01 02:34:34.203 STDERR [INFO] I0801 02:34:34.181290 30289 net.cpp:425] cont_1_lstm2_cont_slice_0_split <- cont_1
2016-08-01 02:34:34.203 STDERR [INFO] I0801 02:34:34.181300 30289 net.cpp:399] cont_1_lstm2_cont_slice_0_split -> cont_1_lstm2_cont_slice_0_split_0
2016-08-01 02:34:34.203 STDERR [INFO] I0801 02:34:34.181309 30289 net.cpp:399] cont_1_lstm2_cont_slice_0_split -> cont_1_lstm2_cont_slice_0_split_1
2016-08-01 02:34:34.203 STDERR [INFO] I0801 02:34:34.181365 30289 net.cpp:141] Setting up cont_1_lstm2_cont_slice_0_split
2016-08-01 02:34:34.203 STDERR [INFO] I0801 02:34:34.181375 30289 net.cpp:148] Top shape: 1 1 (1)
2016-08-01 02:34:34.203 STDERR [INFO] I0801 02:34:34.181380 30289 net.cpp:148] Top shape: 1 1 (1)
2016-08-01 02:34:34.203 STDERR [INFO] I0801 02:34:34.181385 30289 net.cpp:156] Memory required for data: 14020
2016-08-01 02:34:34.203 STDERR [INFO] I0801 02:34:34.181390 30289 layer_factory.hpp:77] Creating layer lstm2_x_transform
2016-08-01 02:34:34.203 STDERR [INFO] I0801 02:34:34.181401 30289 net.cpp:91] Creating Layer lstm2_x_transform
2016-08-01 02:34:34.203 STDERR [INFO] I0801 02:34:34.181406 30289 net.cpp:425] lstm2_x_transform <- x
2016-08-01 02:34:34.203 STDERR [INFO] I0801 02:34:34.181417 30289 net.cpp:399] lstm2_x_transform -> W_xc_x
2016-08-01 02:34:34.204 STDERR [INFO] I0801 02:34:34.198166 30299 net.cpp:141] Setting up fc7
2016-08-01 02:34:34.204 STDERR [INFO] I0801 02:34:34.198207 30299 net.cpp:148] Top shape: 10 4096 (40960)
2016-08-01 02:34:34.204 STDERR [INFO] I0801 02:34:34.198213 30299 net.cpp:156] Memory required for data: 68273720
2016-08-01 02:34:34.204 STDERR [INFO] I0801 02:34:34.198227 30299 layer_factory.hpp:77] Creating layer relu7
2016-08-01 02:34:34.204 STDERR [INFO] I0801 02:34:34.198245 30299 net.cpp:91] Creating Layer relu7
2016-08-01 02:34:34.204 STDERR [INFO] I0801 02:34:34.198251 30299 net.cpp:425] relu7 <- fc7
2016-08-01 02:34:34.204 n.t.s.b.CVParticleBolt [INFO] [Timing] RequestID: 0 StreamID: home/peifeng/work/data/frame.320x240.jpg SequenceNr: 102 Entering scale: 1470033274204
2016-08-01 02:34:34.204 STDERR [INFO] I0801 02:34:34.198261 30299 net.cpp:386] relu7 -> fc7 (in-place)
2016-08-01 02:34:34.204 STDERR [INFO] I0801 02:34:34.199038 30299 net.cpp:141] Setting up relu7
2016-08-01 02:34:34.204 STDERR [INFO] I0801 02:34:34.199056 30299 net.cpp:148] Top shape: 10 4096 (40960)
2016-08-01 02:34:34.204 STDERR [INFO] I0801 02:34:34.199061 30299 net.cpp:156] Memory required for data: 68437560
2016-08-01 02:34:34.204 STDERR [INFO] I0801 02:34:34.199067 30299 layer_factory.hpp:77] Creating layer drop7
2016-08-01 02:34:34.205 n.t.s.s.CVParticleSpout [INFO] [Timing] RequestID: 0 StreamID: home/peifeng/work/data/frame.320x240.jpg SequenceNr: 102 Leaving fetcher: 1470033274204 Size: 8702
2016-08-01 02:34:34.205 STDERR [INFO] I0801 02:34:34.199077 30299 net.cpp:91] Creating Layer drop7
2016-08-01 02:34:34.205 STDERR [INFO] I0801 02:34:34.199084 30299 net.cpp:425] drop7 <- fc7
2016-08-01 02:34:34.205 STDERR [INFO] I0801 02:34:34.199090 30299 net.cpp:386] drop7 -> fc7 (in-place)
2016-08-01 02:34:34.205 STDERR [INFO] I0801 02:34:34.199141 30299 net.cpp:141] Setting up drop7
2016-08-01 02:34:34.205 STDERR [INFO] I0801 02:34:34.199151 30299 net.cpp:148] Top shape: 10 4096 (40960)
2016-08-01 02:34:34.205 STDERR [INFO] I0801 02:34:34.199156 30299 net.cpp:156] Memory required for data: 68601400
2016-08-01 02:34:34.205 STDERR [INFO] I0801 02:34:34.199160 30299 layer_factory.hpp:77] Creating layer fc8
2016-08-01 02:34:34.205 STDERR [INFO] I0801 02:34:34.199173 30299 net.cpp:91] Creating Layer fc8
2016-08-01 02:34:34.205 STDERR [INFO] I0801 02:34:34.199179 30299 net.cpp:425] fc8 <- fc7
2016-08-01 02:34:34.205 STDERR [INFO] I0801 02:34:34.199187 30299 net.cpp:399] fc8 -> fc8
2016-08-01 02:34:34.208 n.t.s.s.CVParticleSpout [INFO] [Timing] RequestID: 0 StreamID: home/peifeng/work/data/frame.320x240.jpg SequenceNr: 103 Leaving fetcher: 1470033274208 Size: 8702
2016-08-01 02:34:34.208 n.t.s.b.CVParticleBolt [INFO] [Timing] RequestID: 0 StreamID: home/peifeng/work/data/frame.320x240.jpg SequenceNr: 103 Entering scale: 1470033274208
2016-08-01 02:34:34.211 n.t.s.s.CVParticleSpout [INFO] [Timing] RequestID: 0 StreamID: home/peifeng/work/data/frame.320x240.jpg SequenceNr: 104 Leaving fetcher: 1470033274211 Size: 8702
2016-08-01 02:34:34.211 n.t.s.b.CVParticleBolt [INFO] [Timing] RequestID: 0 StreamID: home/peifeng/work/data/frame.320x240.jpg SequenceNr: 104 Entering scale: 1470033274211
2016-08-01 02:34:34.212 STDERR [INFO] I0801 02:34:34.212044 30299 net.cpp:141] Setting up fc8
2016-08-01 02:34:34.212 STDERR [INFO] I0801 02:34:34.212085 30299 net.cpp:148] Top shape: 10 1000 (10000)
2016-08-01 02:34:34.212 STDERR [INFO] I0801 02:34:34.212092 30299 net.cpp:156] Memory required for data: 68641400
2016-08-01 02:34:34.212 STDERR [INFO] I0801 02:34:34.212106 30299 layer_factory.hpp:77] Creating layer prob
2016-08-01 02:34:34.212 STDERR [INFO] I0801 02:34:34.212131 30299 net.cpp:91] Creating Layer prob
2016-08-01 02:34:34.212 STDERR [INFO] I0801 02:34:34.212139 30299 net.cpp:425] prob <- fc8
2016-08-01 02:34:34.212 STDERR [INFO] I0801 02:34:34.212152 30299 net.cpp:399] prob -> prob
2016-08-01 02:34:34.213 n.t.s.b.CVParticleBolt [INFO] [Timing] RequestID: 0 StreamID: home/peifeng/work/data/frame.320x240.jpg SequenceNr: 103 Leaving scale: 1470033274213 Size: 3530
2016-08-01 02:34:34.213 STDERR [INFO] I0801 02:34:34.212591 30299 net.cpp:141] Setting up prob
2016-08-01 02:34:34.213 STDERR [INFO] I0801 02:34:34.212605 30299 net.cpp:148] Top shape: 10 1000 (10000)
2016-08-01 02:34:34.213 STDERR [INFO] I0801 02:34:34.212610 30299 net.cpp:156] Memory required for data: 68681400
2016-08-01 02:34:34.213 STDERR [INFO] I0801 02:34:34.212616 30299 net.cpp:219] prob does not need backward computation.
2016-08-01 02:34:34.213 STDERR [INFO] I0801 02:34:34.212622 30299 net.cpp:219] fc8 does not need backward computation.
2016-08-01 02:34:34.213 STDERR [INFO] I0801 02:34:34.212627 30299 net.cpp:219] drop7 does not need backward computation.
…
2016-08-01 02:34:34.215 STDERR [INFO] I0801 02:34:34.212752 30299 net.cpp:274] Network initialization done.
2016-08-01 02:34:34.216 n.t.s.b.CVParticleBolt [INFO] [Timing] RequestID: 0 StreamID: home/peifeng/work/data/frame.320x240.jpg SequenceNr: 104 Leaving scale: 1470033274216 Size: 3530
2016-08-01 02:34:34.219 n.t.s.b.CVParticleBolt [INFO] [Timing] RequestID: 0 StreamID: home/peifeng/work/data/frame.320x240.jpg SequenceNr: 105 Leaving scale: 1470033274219 Size: 3530
2016-08-01 02:34:34.249 STDERR [INFO] I0801 02:34:34.249617 30289 net.cpp:141] Setting up lstm2_x_transform
2016-08-01 02:34:34.250 STDERR [INFO] I0801 02:34:34.249665 30289 net.cpp:148] Top shape: 1 1 4000 (4000)
2016-08-01 02:34:34.250 STDERR [INFO] I0801 02:34:34.249671 30289 net.cpp:156] Memory required for data: 30020
2016-08-01 02:34:34.250 STDERR [INFO] I0801 02:34:34.249692 30289 layer_factory.hpp:77] Creating layer lstm2_W_xc_x_slice
2016-08-01 02:34:34.250 STDERR [INFO] I0801 02:34:34.249708 30289 net.cpp:91] Creating Layer lstm2_W_xc_x_slice
2016-08-01 02:34:34.250 STDERR [INFO] I0801 02:34:34.249716 30289 net.cpp:425] lstm2_W_xc_x_slice <- W_xc_x
2016-08-01 02:34:34.250 STDERR [INFO] I0801 02:34:34.249725 30289 net.cpp:399] lstm2_W_xc_x_slice -> W_xc_x_1
2016-08-01 02:34:34.250 STDERR [INFO] I0801 02:34:34.249781 30289 net.cpp:141] Setting up lstm2_W_xc_x_slice
2016-08-01 02:34:34.250 STDERR [INFO] I0801 02:34:34.249794 30289 net.cpp:148] Top shape: 1 1 4000 (4000)
2016-08-01 02:34:34.250 STDERR [INFO] I0801 02:34:34.249799 30289 net.cpp:156] Memory required for data: 46020
2016-08-01 02:34:34.251 STDERR [INFO] I0801 02:34:34.249804 30289 layer_factory.hpp:77] Creating layer lstm2_h_conted_0
2016-08-01 02:34:34.251 STDERR [INFO] I0801 02:34:34.249814 30289 net.cpp:91] Creating Layer lstm2_h_conted_0
2016-08-01 02:34:34.251 STDERR [INFO] I0801 02:34:34.249819 30289 net.cpp:425] lstm2_h_conted_0 <- h_0
2016-08-01 02:34:34.251 STDERR [INFO] I0801 02:34:34.249826 30289 net.cpp:425] lstm2_h_conted_0 <- cont_1_lstm2_cont_slice_0_split_0
2016-08-01 02:34:34.251 STDERR [INFO] I0801 02:34:34.249835 30289 net.cpp:399] lstm2_h_conted_0 -> h_conted_0
2016-08-01 02:34:34.251 STDERR [INFO] I0801 02:34:34.250407 30289 net.cpp:141] Setting up lstm2_h_conted_0
2016-08-01 02:34:34.251 STDERR [INFO] I0801 02:34:34.250427 30289 net.cpp:148] Top shape: 1 1 1000 (1000)
2016-08-01 02:34:34.251 STDERR [INFO] I0801 02:34:34.250433 30289 net.cpp:156] Memory required for data: 50020
2016-08-01 02:34:34.251 STDERR [INFO] I0801 02:34:34.250439 30289 layer_factory.hpp:77] Creating layer lstm2_transform_1
2016-08-01 02:34:34.251 STDERR [INFO] I0801 02:34:34.250453 30289 net.cpp:91] Creating Layer lstm2_transform_1
2016-08-01 02:34:34.251 STDERR [INFO] I0801 02:34:34.250459 30289 net.cpp:425] lstm2_transform_1 <- h_conted_0
2016-08-01 02:34:34.251 STDERR [INFO] I0801 02:34:34.250469 30289 net.cpp:399] lstm2_transform_1 -> W_hc_h_0
2016-08-01 02:34:34.293 STDERR [INFO] I0801 02:34:34.293189 30289 net.cpp:141] Setting up lstm2_transform_1
2016-08-01 02:34:34.293 STDERR [INFO] I0801 02:34:34.293236 30289 net.cpp:148] Top shape: 1 1 4000 (4000)
2016-08-01 02:34:34.293 STDERR [INFO] I0801 02:34:34.293241 30289 net.cpp:156] Memory required for data: 66020
2016-08-01 02:34:34.293 STDERR [INFO] I0801 02:34:34.293261 30289 layer_factory.hpp:77] Creating layer lstm2_gate_input_1
2016-08-01 02:34:34.293 STDERR [INFO] I0801 02:34:34.293282 30289 net.cpp:91] Creating Layer lstm2_gate_input_1
2016-08-01 02:34:34.294 STDERR [INFO] I0801 02:34:34.293290 30289 net.cpp:425] lstm2_gate_input_1 <- W_hc_h_0
2016-08-01 02:34:34.294 STDERR [INFO] I0801 02:34:34.293299 30289 net.cpp:425] lstm2_gate_input_1 <- W_xc_x_1
2016-08-01 02:34:34.294 STDERR [INFO] I0801 02:34:34.293308 30289 net.cpp:399] lstm2_gate_input_1 -> gate_input_1
2016-08-01 02:34:34.294 STDERR [INFO] I0801 02:34:34.293366 30289 net.cpp:141] Setting up lstm2_gate_input_1
2016-08-01 02:34:34.294 STDERR [INFO] I0801 02:34:34.293376 30289 net.cpp:148] Top shape: 1 1 4000 (4000)
2016-08-01 02:34:34.294 STDERR [INFO] I0801 02:34:34.293381 30289 net.cpp:156] Memory required for data: 82020
2016-08-01 02:34:34.294 STDERR [INFO] I0801 02:34:34.293386 30289 layer_factory.hpp:77] Creating layer lstm2_unit_1
2016-08-01 02:34:34.294 STDERR [INFO] I0801 02:34:34.293400 30289 net.cpp:91] Creating Layer lstm2_unit_1
2016-08-01 02:34:34.295 STDERR [INFO] I0801 02:34:34.293404 30289 net.cpp:425] lstm2_unit_1 <- c_0
2016-08-01 02:34:34.295 STDERR [INFO] I0801 02:34:34.293411 30289 net.cpp:425] lstm2_unit_1 <- gate_input_1
2016-08-01 02:34:34.295 STDERR [INFO] I0801 02:34:34.293417 30289 net.cpp:425] lstm2_unit_1 <- cont_1_lstm2_cont_slice_0_split_1
2016-08-01 02:34:34.295 STDERR [INFO] I0801 02:34:34.293424 30289 net.cpp:399] lstm2_unit_1 -> c_1
2016-08-01 02:34:34.295 STDERR [INFO] I0801 02:34:34.293433 30289 net.cpp:399] lstm2_unit_1 -> h_1
2016-08-01 02:34:34.295 STDERR [INFO] I0801 02:34:34.293505 30289 net.cpp:141] Setting up lstm2_unit_1
2016-08-01 02:34:34.295 STDERR [INFO] I0801 02:34:34.293516 30289 net.cpp:148] Top shape: 1 1 1000 (1000)
2016-08-01 02:34:34.295 STDERR [INFO] I0801 02:34:34.293524 30289 net.cpp:148] Top shape: 1 1 1000 (1000)
2016-08-01 02:34:34.295 STDERR [INFO] I0801 02:34:34.293527 30289 net.cpp:156] Memory required for data: 90020
2016-08-01 02:34:34.295 STDERR [INFO] I0801 02:34:34.293532 30289 layer_factory.hpp:77] Creating layer lstm2_
2016-08-01 02:34:34.295 STDERR [INFO] I0801 02:34:34.293545 30289 net.cpp:91] Creating Layer lstm2_
2016-08-01 02:34:34.295 STDERR [INFO] I0801 02:34:34.293550 30289 net.cpp:425] lstm2_ <- c_1
2016-08-01 02:34:34.296 STDERR [INFO] I0801 02:34:34.293557 30289 net.cpp:399] lstm2_ -> c_T
2016-08-01 02:34:34.296 STDERR [INFO] I0801 02:34:34.293592 30289 net.cpp:141] Setting up lstm2_
2016-08-01 02:34:34.296 STDERR [INFO] I0801 02:34:34.293601 30289 net.cpp:148] Top shape: 1 1 1000 (1000)
2016-08-01 02:34:34.296 STDERR [INFO] I0801 02:34:34.293606 30289 net.cpp:156] Memory required for data: 94020
2016-08-01 02:34:34.296 STDERR [INFO] I0801 02:34:34.293612 30289 layer_factory.hpp:77] Creating layer lstm2_h_concat
2016-08-01 02:34:34.296 STDERR [INFO] I0801 02:34:34.293622 30289 net.cpp:91] Creating Layer lstm2_h_concat
2016-08-01 02:34:34.296 STDERR [INFO] I0801 02:34:34.293627 30289 net.cpp:425] lstm2_h_concat <- h_1
2016-08-01 02:34:34.296 STDERR [INFO] I0801 02:34:34.293638 30289 net.cpp:399] lstm2_h_concat -> h
2016-08-01 02:34:34.296 STDERR [INFO] I0801 02:34:34.293679 30289 net.cpp:141] Setting up lstm2_h_concat
2016-08-01 02:34:34.296 STDERR [INFO] I0801 02:34:34.293689 30289 net.cpp:148] Top shape: 1 1 1000 (1000)
2016-08-01 02:34:34.297 STDERR [INFO] I0801 02:34:34.293694 30289 net.cpp:156] Memory required for data: 98020
2016-08-01 02:34:34.297 STDERR [INFO] I0801 02:34:34.293699 30289 layer_factory.hpp:77] Creating layer h_pseudoloss
2016-08-01 02:34:34.297 STDERR [INFO] I0801 02:34:34.293709 30289 net.cpp:91] Creating Layer h_pseudoloss
2016-08-01 02:34:34.297 STDERR [INFO] I0801 02:34:34.293714 30289 net.cpp:425] h_pseudoloss <- h
…
