…
W0801 02:34:33.091097 30289 upgrade_proto.cpp:71] Note that future Caffe releases will only support input layers and not input fields.
I0801 02:34:33.091349 30289 net.cpp:49] Initializing net from parameters: 
name: "s2vt:features_to_lstm"
state {
  phase: TEST
}
layer {
  name: "input"
  type: "Input"
  top: "frames_fc7"
  top: "cont_sentence"
  top: "input_sentence"
  top: "stage_indicator"
  input_param {
    shape {
      dim: 1
      dim: 4096
    }
    shape {
      dim: 1
      dim: 1
    }
    shape {
      dim: 1
      dim: 1
    }
    shape {
      dim: 1
      dim: 1
    }
  }
}
layer {
  name: "embed_encoder"
  type: "InnerProduct"
  bottom: "frames_fc7"
  top: "embedded_in_frames"
  param {
    lr_mult: 1
    decay_mult: 1
  }
  param {
    lr_mult: 2
    decay_mult: 0
  }
  inner_product_param {
    num_output: 500
    weight_filler {
      type: "xavier"
    }
    bias_filler {
      type: "constant"
      value: 0.2
    }
  }
}
layer {
  name: "reshape_frames"
  type: "Reshape"
  bottom: "embedded_in_frames"
  top: "embedded_input_frames"
  reshape_param {
    shape {
      dim: 1
      dim: 1
      dim: 500
    }
  }
}
layer {
  name: "reshape_stage_indicator"
  type: "Reshape"
  bottom: "stage_indicator"
  top: "reshaped_stage_indicator"
  reshape_param {
    shape {
      dim: 1
      dim: 1
      dim: 1
    }
  }
}
layer {
  name: "embedding"
  type: "Embed"
  bottom: "input_sentence"
  top: "embedded_input_sentence"
  param {
    lr_mult: 1
  }
  embed_param {
    num_output: 500
    input_dim: 46168
    bias_term: false
    weight_filler {
      type: "uniform"
      min: -0.08
      max: 0.08
    }
  }
}
layer {
  name: "lstm1"
  type: "LSTM"
  bottom: "embedded_input_frames"
  bottom: "cont_sentence"
  top: "lstm1"
  recurrent_param {
    num_output: 1000
    weight_filler {
      type: "uniform"
      min: -0.08
      max: 0.08
    }
    bias_filler {
      type: "constant"
      value: 0
    }
  }
}
layer {
  name: "concat"
  type: "Concat"
  bottom: "lstm1"
  bottom: "embedded_input_sentence"
  bottom: "reshaped_stage_indicator"
  top: "lstm1_video_sequence"
  concat_param {
    concat_dim: 2
  }
}
layer {
  name: "lstm2"
  type: "LSTM"
  bottom: "lstm1_video_sequence"
  bottom: "cont_sentence"
  top: "lstm2"
  recurrent_param {
    num_output: 1000
    weight_filler {
      type: "uniform"
      min: -0.08
      max: 0.08
    }
    bias_filler {
      type: "constant"
      value: 0
    }
  }
}
layer {
  name: "predict"
  type: "InnerProduct"
  bottom: "lstm2"
  top: "predict"
  param {
    lr_mult: 1
    decay_mult: 1
  }
  param {
    lr_mult: 2
    decay_mult: 0
  }
  inner_product_param {
    num_output: 46168
    weight_filler {
      type: "uniform"
      min: -0.08
      max: 0.08
    }
    bias_filler {
      type: "constant"
      value: 0
    }
    axis: 2
  }
}
layer {
  name: "probs"
  type: "Softmax"
  bottom: "predict"
  top: "probs"
  softmax_param {
    axis: 2
  }
}
I0801 02:34:33.091343 30299 net.cpp:49] Initializing net from parameters: 
name: "CaffeNet"
state {
  phase: TEST
}
layer {
  name: "data"
  type: "Input"
  top: "data"
  input_param {
    shape {
      dim: 10
      dim: 3
      dim: 227
      dim: 227
    }
  }
}
layer {
  name: "conv1"
  type: "Convolution"
  bottom: "data"
  top: "conv1"
  convolution_param {
    num_output: 96
    kernel_size: 11
    stride: 4
  }
}
layer {
  name: "relu1"
  type: "ReLU"
  bottom: "conv1"
  top: "conv1"
}
layer {
  name: "pool1"
  type: "Pooling"
  bottom: "conv1"
  top: "pool1"
  pooling_param {
    pool: MAX
    kernel_size: 3
    stride: 2
  }
}
layer {
  name: "norm1"
  type: "LRN"
  bottom: "pool1"
  top: "norm1"
  lrn_param {
    local_size: 5
    alpha: 0.0001
    beta: 0.75
  }
}
layer {
  name: "conv2"
  type: "Convolution"
  bottom: "norm1"
  top: "conv2"
  convolution_param {
    num_output: 256
    pad: 2
    kernel_size: 5
    group: 2
  }
}
layer {
  name: "relu2"
  type: "ReLU"
  bottom: "conv2"
  top: "conv2"
}
layer {
  name: "pool2"
  type: "Pooling"
  bottom: "conv2"
  top: "pool2"
  pooling_param {
    pool: MAX
    kernel_size: 3
    stride: 2
  }
}
layer {
  name: "norm2"
  type: "LRN"
  bottom: "pool2"
  top: "norm2"
  lrn_param {
    local_size: 5
    alpha: 0.0001
    beta: 0.75
  }
}
layer {
  name: "conv3"
  type: "Convolution"
  bottom: "norm2"
  top: "conv3"
  convolution_param {
    num_output: 384
    pad: 1
    kernel_size: 3
  }
}
layer {
  name: "relu3"
  type: "ReLU"
  bottom: "conv3"
  top: "conv3"
}
layer {
  name: "conv4"
  type: "Convolution"
  bottom: "conv3"
  top: "conv4"
  convolution_param {
    num_output: 384
    pad: 1
    kernel_size: 3
    group: 2
  }
}
layer {
  name: "relu4"
  type: "ReLU"
  bottom: "conv4"
  top: "conv4"
}
layer {
  name: "conv5"
  type: "Convolution"
  bottom: "conv4"
  top: "conv5"
  convolution_param {
    num_output: 256
    pad: 1
    kernel_size: 3
    group: 2
  }
}
layer {
  name: "relu5"
  type: "ReLU"
  bottom: "conv5"
  top: "conv5"
}
layer {
  name: "pool5"
  type: "Pooling"
  bottom: "conv5"
  top: "pool5"
  pooling_param {
    pool: MAX
    kernel_size: 3
    stride: 2
  }
}
layer {
  name: "fc6"
  type: "InnerProduct"
  bottom: "pool5"
  top: "fc6"
  inner_product_param {
    num_output: 4096
  }
}
layer {
  name: "relu6"
  type: "ReLU"
  bottom: "fc6"
  top: "fc6"
}
layer {
  name: "drop6"
  type: "Dropout"
  bottom: "fc6"
  top: "fc6"
  dropout_param {
    dropout_ratio: 0.5
  }
}
layer {
  name: "fc7"
  type: "InnerProduct"
  bottom: "fc6"
  top: "fc7"
  inner_product_param {
    num_output: 4096
  }
}
layer {
  name: "relu7"
  type: "ReLU"
  bottom: "fc7"
  top: "fc7"
}
layer {
  name: "drop7"
  type: "Dropout"
  bottom: "fc7"
  top: "fc7"
  dropout_param {
    dropout_ratio: 0.5
  }
}
layer {
  name: "fc8"
  type: "InnerProduct"
  bottom: "fc7"
  top: "fc8"
  inner_product_param {
    num_output: 1000
  }
}
layer {
  name: "prob"
  type: "Softmax"
  bottom: "fc8"
  top: "prob"
}
I0801 02:34:33.091475 30299 layer_factory.hpp:77] Creating layer data
I0801 02:34:33.091487 30289 layer_factory.hpp:77] Creating layer input
I0801 02:34:33.091501 30299 net.cpp:91] Creating Layer data
I0801 02:34:33.091501 30289 net.cpp:91] Creating Layer input
I0801 02:34:33.091518 30299 net.cpp:399] data -> data
I0801 02:34:33.091521 30289 net.cpp:399] input -> frames_fc7
I0801 02:34:33.091558 30289 net.cpp:399] input -> cont_sentence
I0801 02:34:33.091572 30289 net.cpp:399] input -> input_sentence
I0801 02:34:33.091584 30289 net.cpp:399] input -> stage_indicator
I0801 02:34:33.731878 30299 net.cpp:141] Setting up data
I0801 02:34:33.731966 30299 net.cpp:148] Top shape: 10 3 227 227 (1545870)
I0801 02:34:33.731972 30289 net.cpp:141] Setting up input
I0801 02:34:33.731974 30299 net.cpp:156] Memory required for data: 6183480
I0801 02:34:33.732000 30289 net.cpp:148] Top shape: 1 4096 (4096)
I0801 02:34:33.732020 30289 net.cpp:148] Top shape: 1 1 (1)
I0801 02:34:33.732023 30299 layer_factory.hpp:77] Creating layer conv1
I0801 02:34:33.732028 30289 net.cpp:148] Top shape: 1 1 (1)
I0801 02:34:33.732035 30289 net.cpp:148] Top shape: 1 1 (1)
I0801 02:34:33.732040 30289 net.cpp:156] Memory required for data: 16396
I0801 02:34:33.732049 30289 layer_factory.hpp:77] Creating layer cont_sentence_input_1_split
I0801 02:34:33.732055 30299 net.cpp:91] Creating Layer conv1
I0801 02:34:33.732066 30299 net.cpp:425] conv1 <- data
I0801 02:34:33.732070 30289 net.cpp:91] Creating Layer cont_sentence_input_1_split
I0801 02:34:33.732077 30289 net.cpp:425] cont_sentence_input_1_split <- cont_sentence
I0801 02:34:33.732079 30299 net.cpp:399] conv1 -> conv1
I0801 02:34:33.732103 30289 net.cpp:399] cont_sentence_input_1_split -> cont_sentence_input_1_split_0
I0801 02:34:33.732116 30289 net.cpp:399] cont_sentence_input_1_split -> cont_sentence_input_1_split_1
I0801 02:34:33.732314 30289 net.cpp:141] Setting up cont_sentence_input_1_split
I0801 02:34:33.732327 30289 net.cpp:148] Top shape: 1 1 (1)
I0801 02:34:33.732334 30289 net.cpp:148] Top shape: 1 1 (1)
I0801 02:34:33.732339 30289 net.cpp:156] Memory required for data: 16404
I0801 02:34:33.732344 30289 layer_factory.hpp:77] Creating layer embed_encoder
I0801 02:34:33.732360 30289 net.cpp:91] Creating Layer embed_encoder
I0801 02:34:33.732365 30289 net.cpp:425] embed_encoder <- frames_fc7
I0801 02:34:33.732375 30289 net.cpp:399] embed_encoder -> embedded_in_frames
I0801 02:34:33.759928 30289 net.cpp:141] Setting up embed_encoder
I0801 02:34:33.759974 30289 net.cpp:148] Top shape: 1 500 (500)
I0801 02:34:33.759980 30289 net.cpp:156] Memory required for data: 18404
I0801 02:34:33.760046 30289 layer_factory.hpp:77] Creating layer reshape_frames
I0801 02:34:33.760074 30289 net.cpp:91] Creating Layer reshape_frames
I0801 02:34:33.760082 30289 net.cpp:425] reshape_frames <- embedded_in_frames
I0801 02:34:33.760097 30289 net.cpp:399] reshape_frames -> embedded_input_frames
I0801 02:34:33.760233 30289 net.cpp:141] Setting up reshape_frames
I0801 02:34:33.760246 30289 net.cpp:148] Top shape: 1 1 500 (500)
I0801 02:34:33.760251 30289 net.cpp:156] Memory required for data: 20404
I0801 02:34:33.760257 30289 layer_factory.hpp:77] Creating layer reshape_stage_indicator
I0801 02:34:33.760273 30289 net.cpp:91] Creating Layer reshape_stage_indicator
I0801 02:34:33.760280 30289 net.cpp:425] reshape_stage_indicator <- stage_indicator
I0801 02:34:33.760293 30289 net.cpp:399] reshape_stage_indicator -> reshaped_stage_indicator
I0801 02:34:33.760448 30289 net.cpp:141] Setting up reshape_stage_indicator
I0801 02:34:33.760462 30289 net.cpp:148] Top shape: 1 1 1 (1)
I0801 02:34:33.760465 30289 net.cpp:156] Memory required for data: 20408
I0801 02:34:33.760473 30289 layer_factory.hpp:77] Creating layer embedding
I0801 02:34:33.760493 30289 net.cpp:91] Creating Layer embedding
I0801 02:34:33.760499 30289 net.cpp:425] embedding <- input_sentence
I0801 02:34:33.760507 30289 net.cpp:399] embedding -> embedded_input_sentence
I0801 02:34:34.002763 30299 net.cpp:141] Setting up conv1
I0801 02:34:34.002812 30299 net.cpp:148] Top shape: 10 96 55 55 (2904000)
I0801 02:34:34.002820 30299 net.cpp:156] Memory required for data: 17799480
I0801 02:34:34.002842 30299 layer_factory.hpp:77] Creating layer relu1
I0801 02:34:34.002859 30299 net.cpp:91] Creating Layer relu1
I0801 02:34:34.002867 30299 net.cpp:425] relu1 <- conv1
I0801 02:34:34.002876 30299 net.cpp:386] relu1 -> conv1 (in-place)
I0801 02:34:34.003356 30299 net.cpp:141] Setting up relu1
I0801 02:34:34.003371 30299 net.cpp:148] Top shape: 10 96 55 55 (2904000)
I0801 02:34:34.003377 30299 net.cpp:156] Memory required for data: 29415480
I0801 02:34:34.003383 30299 layer_factory.hpp:77] Creating layer pool1
I0801 02:34:34.003396 30299 net.cpp:91] Creating Layer pool1
I0801 02:34:34.003402 30299 net.cpp:425] pool1 <- conv1
I0801 02:34:34.003410 30299 net.cpp:399] pool1 -> pool1
I0801 02:34:34.003480 30299 net.cpp:141] Setting up pool1
I0801 02:34:34.003492 30299 net.cpp:148] Top shape: 10 96 27 27 (699840)
I0801 02:34:34.003497 30299 net.cpp:156] Memory required for data: 32214840
I0801 02:34:34.003504 30299 layer_factory.hpp:77] Creating layer norm1
I0801 02:34:34.003520 30299 net.cpp:91] Creating Layer norm1
I0801 02:34:34.003525 30299 net.cpp:425] norm1 <- pool1
I0801 02:34:34.003533 30299 net.cpp:399] norm1 -> norm1
I0801 02:34:34.004071 30299 net.cpp:141] Setting up norm1
I0801 02:34:34.004093 30299 net.cpp:148] Top shape: 10 96 27 27 (699840)
I0801 02:34:34.004102 30299 net.cpp:156] Memory required for data: 35014200
I0801 02:34:34.004118 30299 layer_factory.hpp:77] Creating layer conv2
I0801 02:34:34.004138 30299 net.cpp:91] Creating Layer conv2
I0801 02:34:34.004145 30299 net.cpp:425] conv2 <- norm1
I0801 02:34:34.004153 30299 net.cpp:399] conv2 -> conv2
I0801 02:34:34.007659 30299 net.cpp:141] Setting up conv2
I0801 02:34:34.007691 30299 net.cpp:148] Top shape: 10 256 27 27 (1866240)
I0801 02:34:34.007697 30299 net.cpp:156] Memory required for data: 42479160
I0801 02:34:34.007714 30299 layer_factory.hpp:77] Creating layer relu2
I0801 02:34:34.007726 30299 net.cpp:91] Creating Layer relu2
I0801 02:34:34.007733 30299 net.cpp:425] relu2 <- conv2
I0801 02:34:34.007741 30299 net.cpp:386] relu2 -> conv2 (in-place)
I0801 02:34:34.008216 30289 net.cpp:141] Setting up embedding
I0801 02:34:34.008236 30289 net.cpp:148] Top shape: 1 1 500 (500)
I0801 02:34:34.008241 30289 net.cpp:156] Memory required for data: 22408
I0801 02:34:34.008255 30289 layer_factory.hpp:77] Creating layer lstm1
I0801 02:34:34.008270 30289 net.cpp:91] Creating Layer lstm1
I0801 02:34:34.008277 30289 net.cpp:425] lstm1 <- embedded_input_frames
I0801 02:34:34.008285 30289 net.cpp:425] lstm1 <- cont_sentence_input_1_split_0
I0801 02:34:34.008297 30289 net.cpp:399] lstm1 -> lstm1
I0801 02:34:34.008302 30299 net.cpp:141] Setting up relu2
I0801 02:34:34.008317 30289 recurrent_layer.cpp:20] Initializing recurrent layer: assuming input batch contains 1 timesteps of 1 independent streams.
I0801 02:34:34.008318 30299 net.cpp:148] Top shape: 10 256 27 27 (1866240)
I0801 02:34:34.008334 30299 net.cpp:156] Memory required for data: 49944120
I0801 02:34:34.008340 30299 layer_factory.hpp:77] Creating layer pool2
I0801 02:34:34.008355 30299 net.cpp:91] Creating Layer pool2
I0801 02:34:34.008361 30299 net.cpp:425] pool2 <- conv2
I0801 02:34:34.008370 30299 net.cpp:399] pool2 -> pool2
I0801 02:34:34.008431 30299 net.cpp:141] Setting up pool2
I0801 02:34:34.008442 30299 net.cpp:148] Top shape: 10 256 13 13 (432640)
I0801 02:34:34.008447 30299 net.cpp:156] Memory required for data: 51674680
I0801 02:34:34.008452 30299 layer_factory.hpp:77] Creating layer norm2
I0801 02:34:34.008466 30299 net.cpp:91] Creating Layer norm2
I0801 02:34:34.008471 30299 net.cpp:425] norm2 <- pool2
I0801 02:34:34.008479 30299 net.cpp:399] norm2 -> norm2
I0801 02:34:34.008720 30289 net.cpp:49] Initializing net from parameters: 
layer {
  name: "lstm1_"
  type: "Input"
  top: "x"
  top: "cont"
  input_param {
    shape {
      dim: 1
      dim: 1
      dim: 500
    }
    shape {
      dim: 1
      dim: 1
    }
  }
}
layer {
  name: "lstm1_"
  type: "Input"
  top: "c_0"
  top: "h_0"
  input_param {
    shape {
      dim: 1
      dim: 1
      dim: 1000
    }
    shape {
      dim: 1
      dim: 1
      dim: 1000
    }
  }
}
layer {
  name: "lstm1_cont_slice"
  type: "Slice"
  bottom: "cont"
  top: "cont_1"
  slice_param {
    axis: 0
  }
}
layer {
  name: "lstm1_x_transform"
  type: "InnerProduct"
  bottom: "x"
  top: "W_xc_x"
  param {
    name: "W_xc"
  }
  param {
    name: "b_c"
  }
  propagate_down: true
  inner_product_param {
    num_output: 4000
    bias_term: true
    weight_filler {
      type: "uniform"
      min: -0.08
      max: 0.08
    }
    bias_filler {
      type: "constant"
      value: 0
    }
    axis: 2
  }
}
layer {
  name: "lstm1_W_xc_x_slice"
  type: "Slice"
  bottom: "W_xc_x"
  top: "W_xc_x_1"
  slice_param {
    axis: 0
  }
}
layer {
  name: "lstm1_h_conted_0"
  type: "Scale"
  bottom: "h_0"
  bottom: "cont_1"
  top: "h_conted_0"
  scale_param {
    axis: 0
  }
}
layer {
  name: "lstm1_transform_1"
  type: "InnerProduct"
  bottom: "h_conted_0"
  top: "W_hc_h_0"
  param {
    name: "W_hc"
  }
  inner_product_param {
    num_output: 4000
    bias_term: false
    weight_filler {
      type: "uniform"
      min: -0.08
      max: 0.08
    }
    axis: 2
  }
}
layer {
  name: "lstm1_gate_input_1"
  type: "Eltwise"
  bottom: "W_hc_h_0"
  bottom: "W_xc_x_1"
  top: "gate_input_1"
  eltwise_param {
    operation: SUM
  }
}
layer {
  name: "lstm1_unit_1"
  type: "LSTMUnit"
  bottom: "c_0"
  bottom: "gate_input_1"
  bottom: "cont_1"
  top: "c_1"
  top: "h_1"
}
layer {
  name: "lstm1_"
  type: "Split"
  bottom: "c_1"
  top: "c_T"
}
layer {
  name: "lstm1_h_concat"
  type: "Concat"
  bottom: "h_1"
  top: "h"
  concat_param {
    axis: 0
  }
}
layer {
  name: "h_pseudoloss"
  type: "Reduction"
  bottom: "h"
  top: "h_pseudoloss"
  loss_weight: 1
}
I0801 02:34:34.008752 30299 net.cpp:141] Setting up norm2
I0801 02:34:34.008766 30299 net.cpp:148] Top shape: 10 256 13 13 (432640)
I0801 02:34:34.008772 30299 net.cpp:156] Memory required for data: 53405240
I0801 02:34:34.008780 30299 layer_factory.hpp:77] Creating layer conv3
I0801 02:34:34.008795 30299 net.cpp:91] Creating Layer conv3
I0801 02:34:34.008801 30299 net.cpp:425] conv3 <- norm2
I0801 02:34:34.008810 30299 net.cpp:399] conv3 -> conv3
I0801 02:34:34.008824 30289 layer_factory.hpp:77] Creating layer lstm1_
I0801 02:34:34.008838 30289 net.cpp:91] Creating Layer lstm1_
I0801 02:34:34.008846 30289 net.cpp:399] lstm1_ -> x
I0801 02:34:34.008858 30289 net.cpp:399] lstm1_ -> cont
I0801 02:34:34.009073 30289 net.cpp:141] Setting up lstm1_
I0801 02:34:34.009093 30289 net.cpp:148] Top shape: 1 1 500 (500)
I0801 02:34:34.009104 30289 net.cpp:148] Top shape: 1 1 (1)
I0801 02:34:34.009114 30289 net.cpp:156] Memory required for data: 2004
I0801 02:34:34.009124 30289 layer_factory.hpp:77] Creating layer lstm1_
I0801 02:34:34.009140 30289 net.cpp:91] Creating Layer lstm1_
I0801 02:34:34.010726 30289 net.cpp:399] lstm1_ -> c_0
I0801 02:34:34.010763 30289 net.cpp:399] lstm1_ -> h_0
I0801 02:34:34.011287 30289 net.cpp:141] Setting up lstm1_
I0801 02:34:34.011308 30289 net.cpp:148] Top shape: 1 1 1000 (1000)
I0801 02:34:34.011320 30289 net.cpp:148] Top shape: 1 1 1000 (1000)
I0801 02:34:34.011328 30289 net.cpp:156] Memory required for data: 10004
I0801 02:34:34.011338 30289 layer_factory.hpp:77] Creating layer lstm1_cont_slice
I0801 02:34:34.011354 30289 net.cpp:91] Creating Layer lstm1_cont_slice
I0801 02:34:34.011363 30289 net.cpp:425] lstm1_cont_slice <- cont
I0801 02:34:34.011380 30289 net.cpp:399] lstm1_cont_slice -> cont_1
I0801 02:34:34.011435 30289 net.cpp:141] Setting up lstm1_cont_slice
I0801 02:34:34.011453 30289 net.cpp:148] Top shape: 1 1 (1)
I0801 02:34:34.011461 30289 net.cpp:156] Memory required for data: 10008
I0801 02:34:34.011471 30289 layer_factory.hpp:77] Creating layer cont_1_lstm1_cont_slice_0_split
I0801 02:34:34.011490 30289 net.cpp:91] Creating Layer cont_1_lstm1_cont_slice_0_split
I0801 02:34:34.011500 30289 net.cpp:425] cont_1_lstm1_cont_slice_0_split <- cont_1
I0801 02:34:34.011513 30289 net.cpp:399] cont_1_lstm1_cont_slice_0_split -> cont_1_lstm1_cont_slice_0_split_0
I0801 02:34:34.011531 30289 net.cpp:399] cont_1_lstm1_cont_slice_0_split -> cont_1_lstm1_cont_slice_0_split_1
I0801 02:34:34.011610 30289 net.cpp:141] Setting up cont_1_lstm1_cont_slice_0_split
I0801 02:34:34.011626 30289 net.cpp:148] Top shape: 1 1 (1)
I0801 02:34:34.011639 30289 net.cpp:148] Top shape: 1 1 (1)
I0801 02:34:34.011647 30289 net.cpp:156] Memory required for data: 10016
I0801 02:34:34.011656 30289 layer_factory.hpp:77] Creating layer lstm1_x_transform
I0801 02:34:34.011675 30289 net.cpp:91] Creating Layer lstm1_x_transform
I0801 02:34:34.011684 30289 net.cpp:425] lstm1_x_transform <- x
I0801 02:34:34.011699 30289 net.cpp:399] lstm1_x_transform -> W_xc_x
I0801 02:34:34.019134 30299 net.cpp:141] Setting up conv3
I0801 02:34:34.019177 30299 net.cpp:148] Top shape: 10 384 13 13 (648960)
I0801 02:34:34.019184 30299 net.cpp:156] Memory required for data: 56001080
I0801 02:34:34.019209 30299 layer_factory.hpp:77] Creating layer relu3
I0801 02:34:34.019225 30299 net.cpp:91] Creating Layer relu3
I0801 02:34:34.019232 30299 net.cpp:425] relu3 <- conv3
I0801 02:34:34.019244 30299 net.cpp:386] relu3 -> conv3 (in-place)
I0801 02:34:34.019764 30299 net.cpp:141] Setting up relu3
I0801 02:34:34.019779 30299 net.cpp:148] Top shape: 10 384 13 13 (648960)
I0801 02:34:34.019785 30299 net.cpp:156] Memory required for data: 58596920
I0801 02:34:34.019791 30299 layer_factory.hpp:77] Creating layer conv4
I0801 02:34:34.019809 30299 net.cpp:91] Creating Layer conv4
I0801 02:34:34.019814 30299 net.cpp:425] conv4 <- conv3
I0801 02:34:34.019824 30299 net.cpp:399] conv4 -> conv4
I0801 02:34:34.025878 30299 net.cpp:141] Setting up conv4
I0801 02:34:34.025923 30299 net.cpp:148] Top shape: 10 384 13 13 (648960)
I0801 02:34:34.025934 30299 net.cpp:156] Memory required for data: 61192760
I0801 02:34:34.025955 30299 layer_factory.hpp:77] Creating layer relu4
I0801 02:34:34.025981 30299 net.cpp:91] Creating Layer relu4
I0801 02:34:34.025993 30299 net.cpp:425] relu4 <- conv4
I0801 02:34:34.026008 30299 net.cpp:386] relu4 -> conv4 (in-place)
I0801 02:34:34.026710 30299 net.cpp:141] Setting up relu4
I0801 02:34:34.026733 30299 net.cpp:148] Top shape: 10 384 13 13 (648960)
I0801 02:34:34.026743 30299 net.cpp:156] Memory required for data: 63788600
I0801 02:34:34.026753 30299 layer_factory.hpp:77] Creating layer conv5
I0801 02:34:34.026788 30299 net.cpp:91] Creating Layer conv5
I0801 02:34:34.026803 30299 net.cpp:425] conv5 <- conv4
I0801 02:34:34.026819 30299 net.cpp:399] conv5 -> conv5
I0801 02:34:34.033397 30299 net.cpp:141] Setting up conv5
I0801 02:34:34.033429 30299 net.cpp:148] Top shape: 10 256 13 13 (432640)
I0801 02:34:34.033439 30299 net.cpp:156] Memory required for data: 65519160
I0801 02:34:34.033464 30299 layer_factory.hpp:77] Creating layer relu5
I0801 02:34:34.033489 30299 net.cpp:91] Creating Layer relu5
I0801 02:34:34.033500 30299 net.cpp:425] relu5 <- conv5
I0801 02:34:34.033514 30299 net.cpp:386] relu5 -> conv5 (in-place)
I0801 02:34:34.034230 30299 net.cpp:141] Setting up relu5
I0801 02:34:34.034251 30299 net.cpp:148] Top shape: 10 256 13 13 (432640)
I0801 02:34:34.034260 30299 net.cpp:156] Memory required for data: 67249720
I0801 02:34:34.034271 30299 layer_factory.hpp:77] Creating layer pool5
I0801 02:34:34.034293 30299 net.cpp:91] Creating Layer pool5
I0801 02:34:34.034304 30299 net.cpp:425] pool5 <- conv5
I0801 02:34:34.034322 30299 net.cpp:399] pool5 -> pool5
I0801 02:34:34.034423 30299 net.cpp:141] Setting up pool5
I0801 02:34:34.034440 30299 net.cpp:148] Top shape: 10 256 6 6 (92160)
I0801 02:34:34.034448 30299 net.cpp:156] Memory required for data: 67618360
I0801 02:34:34.034458 30299 layer_factory.hpp:77] Creating layer fc6
I0801 02:34:34.034482 30299 net.cpp:91] Creating Layer fc6
I0801 02:34:34.034492 30299 net.cpp:425] fc6 <- pool5
I0801 02:34:34.034505 30299 net.cpp:399] fc6 -> fc6
I0801 02:34:34.105952 30289 net.cpp:141] Setting up lstm1_x_transform
I0801 02:34:34.106006 30289 net.cpp:148] Top shape: 1 1 4000 (4000)
I0801 02:34:34.106012 30289 net.cpp:156] Memory required for data: 26016
I0801 02:34:34.106035 30289 layer_factory.hpp:77] Creating layer lstm1_W_xc_x_slice
I0801 02:34:34.106052 30289 net.cpp:91] Creating Layer lstm1_W_xc_x_slice
I0801 02:34:34.106060 30289 net.cpp:425] lstm1_W_xc_x_slice <- W_xc_x
I0801 02:34:34.106070 30289 net.cpp:399] lstm1_W_xc_x_slice -> W_xc_x_1
I0801 02:34:34.106124 30289 net.cpp:141] Setting up lstm1_W_xc_x_slice
I0801 02:34:34.106137 30289 net.cpp:148] Top shape: 1 1 4000 (4000)
I0801 02:34:34.106142 30289 net.cpp:156] Memory required for data: 42016
I0801 02:34:34.106147 30289 layer_factory.hpp:77] Creating layer lstm1_h_conted_0
I0801 02:34:34.106158 30289 net.cpp:91] Creating Layer lstm1_h_conted_0
I0801 02:34:34.106163 30289 net.cpp:425] lstm1_h_conted_0 <- h_0
I0801 02:34:34.106169 30289 net.cpp:425] lstm1_h_conted_0 <- cont_1_lstm1_cont_slice_0_split_0
I0801 02:34:34.106178 30289 net.cpp:399] lstm1_h_conted_0 -> h_conted_0
I0801 02:34:34.106279 30289 net.cpp:141] Setting up lstm1_h_conted_0
I0801 02:34:34.106290 30289 net.cpp:148] Top shape: 1 1 1000 (1000)
I0801 02:34:34.106295 30289 net.cpp:156] Memory required for data: 46016
I0801 02:34:34.106300 30289 layer_factory.hpp:77] Creating layer lstm1_transform_1
I0801 02:34:34.106313 30289 net.cpp:91] Creating Layer lstm1_transform_1
I0801 02:34:34.106319 30289 net.cpp:425] lstm1_transform_1 <- h_conted_0
I0801 02:34:34.106328 30289 net.cpp:399] lstm1_transform_1 -> W_hc_h_0
I0801 02:34:34.147539 30299 net.cpp:141] Setting up fc6
I0801 02:34:34.147589 30299 net.cpp:148] Top shape: 10 4096 (40960)
I0801 02:34:34.147596 30299 net.cpp:156] Memory required for data: 67782200
I0801 02:34:34.147611 30299 layer_factory.hpp:77] Creating layer relu6
I0801 02:34:34.147636 30299 net.cpp:91] Creating Layer relu6
I0801 02:34:34.147644 30299 net.cpp:425] relu6 <- fc6
I0801 02:34:34.147655 30299 net.cpp:386] relu6 -> fc6 (in-place)
I0801 02:34:34.148105 30299 net.cpp:141] Setting up relu6
I0801 02:34:34.148119 30299 net.cpp:148] Top shape: 10 4096 (40960)
I0801 02:34:34.148125 30299 net.cpp:156] Memory required for data: 67946040
I0801 02:34:34.148133 30299 layer_factory.hpp:77] Creating layer drop6
I0801 02:34:34.148151 30299 net.cpp:91] Creating Layer drop6
I0801 02:34:34.148162 30299 net.cpp:425] drop6 <- fc6
I0801 02:34:34.148175 30299 net.cpp:386] drop6 -> fc6 (in-place)
I0801 02:34:34.148249 30299 net.cpp:141] Setting up drop6
I0801 02:34:34.148260 30299 net.cpp:148] Top shape: 10 4096 (40960)
I0801 02:34:34.148265 30299 net.cpp:156] Memory required for data: 68109880
I0801 02:34:34.148270 30299 layer_factory.hpp:77] Creating layer fc7
I0801 02:34:34.148283 30299 net.cpp:91] Creating Layer fc7
I0801 02:34:34.148289 30299 net.cpp:425] fc7 <- fc6
I0801 02:34:34.148301 30299 net.cpp:399] fc7 -> fc7
I0801 02:34:34.179292 30289 net.cpp:141] Setting up lstm1_transform_1
I0801 02:34:34.179347 30289 net.cpp:148] Top shape: 1 1 4000 (4000)
I0801 02:34:34.179352 30289 net.cpp:156] Memory required for data: 62016
I0801 02:34:34.179376 30289 layer_factory.hpp:77] Creating layer lstm1_gate_input_1
I0801 02:34:34.179397 30289 net.cpp:91] Creating Layer lstm1_gate_input_1
I0801 02:34:34.179404 30289 net.cpp:425] lstm1_gate_input_1 <- W_hc_h_0
I0801 02:34:34.179414 30289 net.cpp:425] lstm1_gate_input_1 <- W_xc_x_1
I0801 02:34:34.179426 30289 net.cpp:399] lstm1_gate_input_1 -> gate_input_1
I0801 02:34:34.179496 30289 net.cpp:141] Setting up lstm1_gate_input_1
I0801 02:34:34.179507 30289 net.cpp:148] Top shape: 1 1 4000 (4000)
I0801 02:34:34.179512 30289 net.cpp:156] Memory required for data: 78016
I0801 02:34:34.179517 30289 layer_factory.hpp:77] Creating layer lstm1_unit_1
I0801 02:34:34.179533 30289 net.cpp:91] Creating Layer lstm1_unit_1
I0801 02:34:34.179539 30289 net.cpp:425] lstm1_unit_1 <- c_0
I0801 02:34:34.179546 30289 net.cpp:425] lstm1_unit_1 <- gate_input_1
I0801 02:34:34.179553 30289 net.cpp:425] lstm1_unit_1 <- cont_1_lstm1_cont_slice_0_split_1
I0801 02:34:34.179560 30289 net.cpp:399] lstm1_unit_1 -> c_1
I0801 02:34:34.179570 30289 net.cpp:399] lstm1_unit_1 -> h_1
I0801 02:34:34.179657 30289 net.cpp:141] Setting up lstm1_unit_1
I0801 02:34:34.179675 30289 net.cpp:148] Top shape: 1 1 1000 (1000)
I0801 02:34:34.179684 30289 net.cpp:148] Top shape: 1 1 1000 (1000)
I0801 02:34:34.179689 30289 net.cpp:156] Memory required for data: 86016
I0801 02:34:34.179694 30289 layer_factory.hpp:77] Creating layer lstm1_
I0801 02:34:34.179704 30289 net.cpp:91] Creating Layer lstm1_
I0801 02:34:34.179709 30289 net.cpp:425] lstm1_ <- c_1
I0801 02:34:34.179723 30289 net.cpp:399] lstm1_ -> c_T
I0801 02:34:34.179760 30289 net.cpp:141] Setting up lstm1_
I0801 02:34:34.179770 30289 net.cpp:148] Top shape: 1 1 1000 (1000)
I0801 02:34:34.179775 30289 net.cpp:156] Memory required for data: 90016
I0801 02:34:34.179780 30289 layer_factory.hpp:77] Creating layer lstm1_h_concat
I0801 02:34:34.179798 30289 net.cpp:91] Creating Layer lstm1_h_concat
I0801 02:34:34.179803 30289 net.cpp:425] lstm1_h_concat <- h_1
I0801 02:34:34.179811 30289 net.cpp:399] lstm1_h_concat -> h
I0801 02:34:34.179855 30289 net.cpp:141] Setting up lstm1_h_concat
I0801 02:34:34.179865 30289 net.cpp:148] Top shape: 1 1 1000 (1000)
I0801 02:34:34.179870 30289 net.cpp:156] Memory required for data: 94016
I0801 02:34:34.179875 30289 layer_factory.hpp:77] Creating layer h_pseudoloss
I0801 02:34:34.179884 30289 net.cpp:91] Creating Layer h_pseudoloss
I0801 02:34:34.179889 30289 net.cpp:425] h_pseudoloss <- h
I0801 02:34:34.179898 30289 net.cpp:399] h_pseudoloss -> h_pseudoloss
I0801 02:34:34.179997 30289 net.cpp:141] Setting up h_pseudoloss
…
I0801 02:34:34.180151 30289 net.cpp:219] lstm1_ does not need backward computation.
I0801 02:34:34.180155 30289 net.cpp:261] This network produces output c_T
I0801 02:34:34.180160 30289 net.cpp:261] This network produces output h_pseudoloss
I0801 02:34:34.180178 30289 net.cpp:274] Network initialization done.
I0801 02:34:34.180253 30289 recurrent_layer.cpp:150] Adding parameter 0: W_xc
I0801 02:34:34.180263 30289 recurrent_layer.cpp:150] Adding parameter 1: b_c
I0801 02:34:34.180268 30289 recurrent_layer.cpp:150] Adding parameter 2: W_hc
I0801 02:34:34.180387 30289 net.cpp:141] Setting up lstm1
I0801 02:34:34.180402 30289 net.cpp:148] Top shape: 1 1 1000 (1000)
I0801 02:34:34.180407 30289 net.cpp:156] Memory required for data: 26408
I0801 02:34:34.180421 30289 layer_factory.hpp:77] Creating layer concat
I0801 02:34:34.180431 30289 net.cpp:91] Creating Layer concat
I0801 02:34:34.180438 30289 net.cpp:425] concat <- lstm1
I0801 02:34:34.180445 30289 net.cpp:425] concat <- embedded_input_sentence
I0801 02:34:34.180450 30289 net.cpp:425] concat <- reshaped_stage_indicator
I0801 02:34:34.180457 30289 net.cpp:399] concat -> lstm1_video_sequence
I0801 02:34:34.180498 30289 net.cpp:141] Setting up concat
I0801 02:34:34.180508 30289 net.cpp:148] Top shape: 1 1 1501 (1501)
I0801 02:34:34.180513 30289 net.cpp:156] Memory required for data: 32412
I0801 02:34:34.180519 30289 layer_factory.hpp:77] Creating layer lstm2
I0801 02:34:34.180532 30289 net.cpp:91] Creating Layer lstm2
I0801 02:34:34.180538 30289 net.cpp:425] lstm2 <- lstm1_video_sequence
I0801 02:34:34.180546 30289 net.cpp:425] lstm2 <- cont_sentence_input_1_split_1
I0801 02:34:34.180552 30289 net.cpp:399] lstm2 -> lstm2
I0801 02:34:34.180563 30289 recurrent_layer.cpp:20] Initializing recurrent layer: assuming input batch contains 1 timesteps of 1 independent streams.
I0801 02:34:34.180850 30289 net.cpp:49] Initializing net from parameters: 
layer {
  name: "lstm2_"
  type: "Input"
  top: "x"
  top: "cont"
  input_param {
    shape {
      dim: 1
      dim: 1
      dim: 1501
    }
    shape {
      dim: 1
      dim: 1
    }
  }
}
layer {
  name: "lstm2_"
  type: "Input"
  top: "c_0"
  top: "h_0"
  input_param {
    shape {
      dim: 1
      dim: 1
      dim: 1000
    }
    shape {
      dim: 1
      dim: 1
      dim: 1000
    }
  }
}
layer {
  name: "lstm2_cont_slice"
  type: "Slice"
  bottom: "cont"
  top: "cont_1"
  slice_param {
    axis: 0
  }
}
layer {
  name: "lstm2_x_transform"
  type: "InnerProduct"
  bottom: "x"
  top: "W_xc_x"
  param {
    name: "W_xc"
  }
  param {
    name: "b_c"
  }
  propagate_down: true
  inner_product_param {
    num_output: 4000
    bias_term: true
    weight_filler {
      type: "uniform"
      min: -0.08
      max: 0.08
    }
    bias_filler {
      type: "constant"
      value: 0
    }
    axis: 2
  }
}
layer {
  name: "lstm2_W_xc_x_slice"
  type: "Slice"
  bottom: "W_xc_x"
  top: "W_xc_x_1"
  slice_param {
    axis: 0
  }
}
layer {
  name: "lstm2_h_conted_0"
  type: "Scale"
  bottom: "h_0"
  bottom: "cont_1"
  top: "h_conted_0"
  scale_param {
    axis: 0
  }
}
layer {
  name: "lstm2_transform_1"
  type: "InnerProduct"
  bottom: "h_conted_0"
  top: "W_hc_h_0"
  param {
    name: "W_hc"
  }
  inner_product_param {
    num_output: 4000
    bias_term: false
    weight_filler {
      type: "uniform"
      min: -0.08
      max: 0.08
    }
    axis: 2
  }
}
layer {
  name: "lstm2_gate_input_1"
  type: "Eltwise"
  bottom: "W_hc_h_0"
  bottom: "W_xc_x_1"
  top: "gate_input_1"
  eltwise_param {
    operation: SUM
  }
}
layer {
  name: "lstm2_unit_1"
  type: "LSTMUnit"
  bottom: "c_0"
  bottom: "gate_input_1"
  bottom: "cont_1"
  top: "c_1"
  top: "h_1"
}
layer {
  name: "lstm2_"
  type: "Split"
  bottom: "c_1"
  top: "c_T"
}
layer {
  name: "lstm2_h_concat"
  type: "Concat"
  bottom: "h_1"
  top: "h"
  concat_param {
    axis: 0
  }
}
layer {
  name: "h_pseudoloss"
  type: "Reduction"
  bottom: "h"
  top: "h_pseudoloss"
  loss_weight: 1
}
I0801 02:34:34.180949 30289 layer_factory.hpp:77] Creating layer lstm2_
I0801 02:34:34.180963 30289 net.cpp:91] Creating Layer lstm2_
I0801 02:34:34.180969 30289 net.cpp:399] lstm2_ -> x
I0801 02:34:34.180981 30289 net.cpp:399] lstm2_ -> cont
I0801 02:34:34.181043 30289 net.cpp:141] Setting up lstm2_
I0801 02:34:34.181054 30289 net.cpp:148] Top shape: 1 1 1501 (1501)
I0801 02:34:34.181061 30289 net.cpp:148] Top shape: 1 1 (1)
I0801 02:34:34.181066 30289 net.cpp:156] Memory required for data: 6008
I0801 02:34:34.181071 30289 layer_factory.hpp:77] Creating layer lstm2_
I0801 02:34:34.181085 30289 net.cpp:91] Creating Layer lstm2_
I0801 02:34:34.181093 30289 net.cpp:399] lstm2_ -> c_0
I0801 02:34:34.181104 30289 net.cpp:399] lstm2_ -> h_0
I0801 02:34:34.181165 30289 net.cpp:141] Setting up lstm2_
I0801 02:34:34.181176 30289 net.cpp:148] Top shape: 1 1 1000 (1000)
I0801 02:34:34.181182 30289 net.cpp:148] Top shape: 1 1 1000 (1000)
I0801 02:34:34.181187 30289 net.cpp:156] Memory required for data: 14008
I0801 02:34:34.181192 30289 layer_factory.hpp:77] Creating layer lstm2_cont_slice
I0801 02:34:34.181202 30289 net.cpp:91] Creating Layer lstm2_cont_slice
I0801 02:34:34.181207 30289 net.cpp:425] lstm2_cont_slice <- cont
I0801 02:34:34.181215 30289 net.cpp:399] lstm2_cont_slice -> cont_1
I0801 02:34:34.181257 30289 net.cpp:141] Setting up lstm2_cont_slice
I0801 02:34:34.181267 30289 net.cpp:148] Top shape: 1 1 (1)
I0801 02:34:34.181272 30289 net.cpp:156] Memory required for data: 14012
I0801 02:34:34.181277 30289 layer_factory.hpp:77] Creating layer cont_1_lstm2_cont_slice_0_split
I0801 02:34:34.181285 30289 net.cpp:91] Creating Layer cont_1_lstm2_cont_slice_0_split
I0801 02:34:34.181290 30289 net.cpp:425] cont_1_lstm2_cont_slice_0_split <- cont_1
I0801 02:34:34.181300 30289 net.cpp:399] cont_1_lstm2_cont_slice_0_split -> cont_1_lstm2_cont_slice_0_split_0
I0801 02:34:34.181309 30289 net.cpp:399] cont_1_lstm2_cont_slice_0_split -> cont_1_lstm2_cont_slice_0_split_1
I0801 02:34:34.181365 30289 net.cpp:141] Setting up cont_1_lstm2_cont_slice_0_split
I0801 02:34:34.181375 30289 net.cpp:148] Top shape: 1 1 (1)
I0801 02:34:34.181380 30289 net.cpp:148] Top shape: 1 1 (1)
I0801 02:34:34.181385 30289 net.cpp:156] Memory required for data: 14020
I0801 02:34:34.181390 30289 layer_factory.hpp:77] Creating layer lstm2_x_transform
I0801 02:34:34.181401 30289 net.cpp:91] Creating Layer lstm2_x_transform
I0801 02:34:34.181406 30289 net.cpp:425] lstm2_x_transform <- x
I0801 02:34:34.181417 30289 net.cpp:399] lstm2_x_transform -> W_xc_x
I0801 02:34:34.198166 30299 net.cpp:141] Setting up fc7
I0801 02:34:34.198207 30299 net.cpp:148] Top shape: 10 4096 (40960)
I0801 02:34:34.198213 30299 net.cpp:156] Memory required for data: 68273720
I0801 02:34:34.198227 30299 layer_factory.hpp:77] Creating layer relu7
I0801 02:34:34.198245 30299 net.cpp:91] Creating Layer relu7
I0801 02:34:34.198251 30299 net.cpp:425] relu7 <- fc7
I0801 02:34:34.198261 30299 net.cpp:386] relu7 -> fc7 (in-place)
I0801 02:34:34.199038 30299 net.cpp:141] Setting up relu7
I0801 02:34:34.199056 30299 net.cpp:148] Top shape: 10 4096 (40960)
I0801 02:34:34.199061 30299 net.cpp:156] Memory required for data: 68437560
I0801 02:34:34.199067 30299 layer_factory.hpp:77] Creating layer drop7
I0801 02:34:34.199077 30299 net.cpp:91] Creating Layer drop7
I0801 02:34:34.199084 30299 net.cpp:425] drop7 <- fc7
I0801 02:34:34.199090 30299 net.cpp:386] drop7 -> fc7 (in-place)
I0801 02:34:34.199141 30299 net.cpp:141] Setting up drop7
I0801 02:34:34.199151 30299 net.cpp:148] Top shape: 10 4096 (40960)
I0801 02:34:34.199156 30299 net.cpp:156] Memory required for data: 68601400
I0801 02:34:34.199160 30299 layer_factory.hpp:77] Creating layer fc8
I0801 02:34:34.199173 30299 net.cpp:91] Creating Layer fc8
I0801 02:34:34.199179 30299 net.cpp:425] fc8 <- fc7
I0801 02:34:34.199187 30299 net.cpp:399] fc8 -> fc8
I0801 02:34:34.212044 30299 net.cpp:141] Setting up fc8
I0801 02:34:34.212085 30299 net.cpp:148] Top shape: 10 1000 (10000)
I0801 02:34:34.212092 30299 net.cpp:156] Memory required for data: 68641400
I0801 02:34:34.212106 30299 layer_factory.hpp:77] Creating layer prob
I0801 02:34:34.212131 30299 net.cpp:91] Creating Layer prob
I0801 02:34:34.212139 30299 net.cpp:425] prob <- fc8
I0801 02:34:34.212152 30299 net.cpp:399] prob -> prob
I0801 02:34:34.212591 30299 net.cpp:141] Setting up prob
I0801 02:34:34.212605 30299 net.cpp:148] Top shape: 10 1000 (10000)
I0801 02:34:34.212610 30299 net.cpp:156] Memory required for data: 68681400
I0801 02:34:34.212616 30299 net.cpp:219] prob does not need backward computation.
I0801 02:34:34.212622 30299 net.cpp:219] fc8 does not need backward computation.
I0801 02:34:34.212627 30299 net.cpp:219] drop7 does not need backward computation.
I0801 02:34:34.212632 30299 net.cpp:219] relu7 does not need backward computation.
…
I0801 02:34:34.212707 30299 net.cpp:219] norm1 does not need backward computation.
I0801 02:34:34.212713 30299 net.cpp:219] pool1 does not need backward computation.
I0801 02:34:34.212718 30299 net.cpp:219] relu1 does not need backward computation.
I0801 02:34:34.212721 30299 net.cpp:219] conv1 does not need backward computation.
I0801 02:34:34.212726 30299 net.cpp:219] data does not need backward computation.
I0801 02:34:34.212730 30299 net.cpp:261] This network produces output prob
I0801 02:34:34.212752 30299 net.cpp:274] Network initialization done.
I0801 02:34:34.249617 30289 net.cpp:141] Setting up lstm2_x_transform
I0801 02:34:34.249665 30289 net.cpp:148] Top shape: 1 1 4000 (4000)
I0801 02:34:34.249671 30289 net.cpp:156] Memory required for data: 30020
I0801 02:34:34.249692 30289 layer_factory.hpp:77] Creating layer lstm2_W_xc_x_slice
I0801 02:34:34.249708 30289 net.cpp:91] Creating Layer lstm2_W_xc_x_slice
I0801 02:34:34.249716 30289 net.cpp:425] lstm2_W_xc_x_slice <- W_xc_x
I0801 02:34:34.249725 30289 net.cpp:399] lstm2_W_xc_x_slice -> W_xc_x_1
I0801 02:34:34.249781 30289 net.cpp:141] Setting up lstm2_W_xc_x_slice
I0801 02:34:34.249794 30289 net.cpp:148] Top shape: 1 1 4000 (4000)
I0801 02:34:34.249799 30289 net.cpp:156] Memory required for data: 46020
I0801 02:34:34.249804 30289 layer_factory.hpp:77] Creating layer lstm2_h_conted_0
I0801 02:34:34.249814 30289 net.cpp:91] Creating Layer lstm2_h_conted_0
I0801 02:34:34.249819 30289 net.cpp:425] lstm2_h_conted_0 <- h_0
I0801 02:34:34.249826 30289 net.cpp:425] lstm2_h_conted_0 <- cont_1_lstm2_cont_slice_0_split_0
I0801 02:34:34.249835 30289 net.cpp:399] lstm2_h_conted_0 -> h_conted_0
I0801 02:34:34.250407 30289 net.cpp:141] Setting up lstm2_h_conted_0
I0801 02:34:34.250427 30289 net.cpp:148] Top shape: 1 1 1000 (1000)
I0801 02:34:34.250433 30289 net.cpp:156] Memory required for data: 50020
I0801 02:34:34.250439 30289 layer_factory.hpp:77] Creating layer lstm2_transform_1
I0801 02:34:34.250453 30289 net.cpp:91] Creating Layer lstm2_transform_1
I0801 02:34:34.250459 30289 net.cpp:425] lstm2_transform_1 <- h_conted_0
I0801 02:34:34.250469 30289 net.cpp:399] lstm2_transform_1 -> W_hc_h_0
I0801 02:34:34.293189 30289 net.cpp:141] Setting up lstm2_transform_1
I0801 02:34:34.293236 30289 net.cpp:148] Top shape: 1 1 4000 (4000)
I0801 02:34:34.293241 30289 net.cpp:156] Memory required for data: 66020
I0801 02:34:34.293261 30289 layer_factory.hpp:77] Creating layer lstm2_gate_input_1
I0801 02:34:34.293282 30289 net.cpp:91] Creating Layer lstm2_gate_input_1
I0801 02:34:34.293290 30289 net.cpp:425] lstm2_gate_input_1 <- W_hc_h_0
I0801 02:34:34.293299 30289 net.cpp:425] lstm2_gate_input_1 <- W_xc_x_1
I0801 02:34:34.293308 30289 net.cpp:399] lstm2_gate_input_1 -> gate_input_1
I0801 02:34:34.293366 30289 net.cpp:141] Setting up lstm2_gate_input_1
I0801 02:34:34.293376 30289 net.cpp:148] Top shape: 1 1 4000 (4000)
I0801 02:34:34.293381 30289 net.cpp:156] Memory required for data: 82020
I0801 02:34:34.293386 30289 layer_factory.hpp:77] Creating layer lstm2_unit_1
I0801 02:34:34.293400 30289 net.cpp:91] Creating Layer lstm2_unit_1
I0801 02:34:34.293404 30289 net.cpp:425] lstm2_unit_1 <- c_0
I0801 02:34:34.293411 30289 net.cpp:425] lstm2_unit_1 <- gate_input_1
I0801 02:34:34.293417 30289 net.cpp:425] lstm2_unit_1 <- cont_1_lstm2_cont_slice_0_split_1
I0801 02:34:34.293424 30289 net.cpp:399] lstm2_unit_1 -> c_1
I0801 02:34:34.293433 30289 net.cpp:399] lstm2_unit_1 -> h_1
I0801 02:34:34.293505 30289 net.cpp:141] Setting up lstm2_unit_1
I0801 02:34:34.293516 30289 net.cpp:148] Top shape: 1 1 1000 (1000)
I0801 02:34:34.293524 30289 net.cpp:148] Top shape: 1 1 1000 (1000)
I0801 02:34:34.293527 30289 net.cpp:156] Memory required for data: 90020
I0801 02:34:34.293532 30289 layer_factory.hpp:77] Creating layer lstm2_
I0801 02:34:34.293545 30289 net.cpp:91] Creating Layer lstm2_
I0801 02:34:34.293550 30289 net.cpp:425] lstm2_ <- c_1
I0801 02:34:34.293557 30289 net.cpp:399] lstm2_ -> c_T
I0801 02:34:34.293592 30289 net.cpp:141] Setting up lstm2_
I0801 02:34:34.293601 30289 net.cpp:148] Top shape: 1 1 1000 (1000)
I0801 02:34:34.293606 30289 net.cpp:156] Memory required for data: 94020
I0801 02:34:34.293612 30289 layer_factory.hpp:77] Creating layer lstm2_h_concat
I0801 02:34:34.293622 30289 net.cpp:91] Creating Layer lstm2_h_concat
I0801 02:34:34.293627 30289 net.cpp:425] lstm2_h_concat <- h_1
I0801 02:34:34.293638 30289 net.cpp:399] lstm2_h_concat -> h
I0801 02:34:34.293679 30289 net.cpp:141] Setting up lstm2_h_concat
I0801 02:34:34.293689 30289 net.cpp:148] Top shape: 1 1 1000 (1000)
I0801 02:34:34.293694 30289 net.cpp:156] Memory required for data: 98020
I0801 02:34:34.293699 30289 layer_factory.hpp:77] Creating layer h_pseudoloss
I0801 02:34:34.293709 30289 net.cpp:91] Creating Layer h_pseudoloss
I0801 02:34:34.293714 30289 net.cpp:425] h_pseudoloss <- h
I0801 02:34:34.293720 30289 net.cpp:399] h_pseudoloss -> h_pseudoloss
I0801 02:34:34.293815 30289 net.cpp:141] Setting up h_pseudoloss
…
