…
W0925 22:33:47.988457  2276 upgrade_proto.cpp:71] Note that future Caffe releases will only support input layers and not input fields.
I0925 22:33:47.988872  2320 net.cpp:49] Initializing net from parameters: 
name: "s2vt:features_to_lstm"
state {
  phase: TEST
}
layer {
  name: "input"
  type: "Input"
  top: "frames_fc7"
  top: "cont_sentence"
  top: "input_sentence"
  top: "stage_indicator"
  input_param {
    shape {
      dim: 1
      dim: 4096
    }
    shape {
      dim: 1
      dim: 1
    }
    shape {
      dim: 1
      dim: 1
    }
    shape {
      dim: 1
      dim: 1
    }
  }
}
layer {
  name: "embed_encoder"
  type: "InnerProduct"
  bottom: "frames_fc7"
  top: "embedded_in_frames"
  param {
    lr_mult: 1
    decay_mult: 1
  }
  param {
    lr_mult: 2
    decay_mult: 0
  }
  inner_product_param {
    num_output: 500
    weight_filler {
      type: "xavier"
    }
    bias_filler {
      type: "constant"
      value: 0.2
    }
  }
}
layer {
  name: "reshape_frames"
  type: "Reshape"
  bottom: "embedded_in_frames"
  top: "embedded_input_frames"
  reshape_param {
    shape {
      dim: 1
      dim: 1
      dim: 500
    }
  }
}
layer {
  name: "reshape_stage_indicator"
  type: "Reshape"
  bottom: "stage_indicator"
  top: "reshaped_stage_indicator"
  reshape_param {
    shape {
      dim: 1
      dim: 1
      dim: 1
    }
  }
}
layer {
  name: "embedding"
  type: "Embed"
  bottom: "input_sentence"
  top: "embedded_input_sentence"
  param {
    lr_mult: 1
  }
  embed_param {
    num_output: 500
    input_dim: 46168
    bias_term: false
    weight_filler {
      type: "uniform"
      min: -0.08
      max: 0.08
    }
  }
}
layer {
  name: "lstm1"
  type: "LSTM"
  bottom: "embedded_input_frames"
  bottom: "cont_sentence"
  top: "lstm1"
  recurrent_param {
    num_output: 1000
    weight_filler {
      type: "uniform"
      min: -0.08
      max: 0.08
    }
    bias_filler {
      type: "constant"
      value: 0
    }
  }
}
layer {
  name: "concat"
  type: "Concat"
  bottom: "lstm1"
  bottom: "embedded_input_sentence"
  bottom: "reshaped_stage_indicator"
  top: "lstm1_video_sequence"
  concat_param {
    concat_dim: 2
  }
}
layer {
  name: "lstm2"
  type: "LSTM"
  bottom: "lstm1_video_sequence"
  bottom: "cont_sentence"
  top: "lstm2"
  recurrent_param {
    num_output: 1000
    weight_filler {
      type: "uniform"
      min: -0.08
      max: 0.08
    }
    bias_filler {
      type: "constant"
      value: 0
    }
  }
}
layer {
  name: "predict"
  type: "InnerProduct"
  bottom: "lstm2"
  top: "predict"
  param {
    lr_mult: 1
    decay_mult: 1
  }
  param {
    lr_mult: 2
    decay_mult: 0
  }
  inner_product_param {
    num_output: 46168
    weight_filler {
      type: "uniform"
      min: -0.08
      max: 0.08
    }
    bias_filler {
      type: "constant"
      value: 0
    }
    axis: 2
  }
}
layer {
  name: "probs"
  type: "Softmax"
  bottom: "predict"
  top: "probs"
  softmax_param {
    axis: 2
  }
}
I0925 22:33:47.988873  2288 net.cpp:49] Initializing net from parameters: 
name: "CaffeNet"
state {
  phase: TEST
}
layer {
  name: "data"
  type: "Input"
  top: "data"
  input_param {
    shape {
      dim: 10
      dim: 3
      dim: 227
      dim: 227
    }
  }
}
layer {
  name: "conv1"
  type: "Convolution"
  bottom: "data"
  top: "conv1"
  convolution_param {
    num_output: 96
    kernel_size: 11
    stride: 4
  }
}
layer {
  name: "relu1"
  type: "ReLU"
  bottom: "conv1"
  top: "conv1"
}
layer {
  name: "pool1"
  type: "Pooling"
  bottom: "conv1"
  top: "pool1"
  pooling_param {
    pool: MAX
    kernel_size: 3
    stride: 2
  }
}
layer {
  name: "norm1"
  type: "LRN"
  bottom: "pool1"
  top: "norm1"
  lrn_param {
    local_size: 5
    alpha: 0.0001
    beta: 0.75
  }
}
layer {
  name: "conv2"
  type: "Convolution"
  bottom: "norm1"
  top: "conv2"
  convolution_param {
    num_output: 256
    pad: 2
    kernel_size: 5
    group: 2
  }
}
layer {
  name: "relu2"
  type: "ReLU"
  bottom: "conv2"
  top: "conv2"
}
layer {
  name: "pool2"
  type: "Pooling"
  bottom: "conv2"
  top: "pool2"
  pooling_param {
    pool: MAX
    kernel_size: 3
    stride: 2
  }
}
layer {
  name: "norm2"
  type: "LRN"
  bottom: "pool2"
  top: "norm2"
  lrn_param {
    local_size: 5
    alpha: 0.0001
    beta: 0.75
  }
}
layer {
  name: "conv3"
  type: "Convolution"
  bottom: "norm2"
  top: "conv3"
  convolution_param {
    num_output: 384
    pad: 1
    kernel_size: 3
  }
}
layer {
  name: "relu3"
  type: "ReLU"
  bottom: "conv3"
  top: "conv3"
}
layer {
  name: "conv4"
  type: "Convolution"
  bottom: "conv3"
  top: "conv4"
  convolution_param {
    num_output: 384
    pad: 1
    kernel_size: 3
    group: 2
  }
}
layer {
  name: "relu4"
  type: "ReLU"
  bottom: "conv4"
  top: "conv4"
}
layer {
  name: "conv5"
  type: "Convolution"
  bottom: "conv4"
  top: "conv5"
  convolution_param {
    num_output: 256
    pad: 1
    kernel_size: 3
    group: 2
  }
}
layer {
  name: "relu5"
  type: "ReLU"
  bottom: "conv5"
  top: "conv5"
}
layer {
  name: "pool5"
  type: "Pooling"
  bottom: "conv5"
  top: "pool5"
  pooling_param {
    pool: MAX
    kernel_size: 3
    stride: 2
  }
}
layer {
  name: "fc6"
  type: "InnerProduct"
  bottom: "pool5"
  top: "fc6"
  inner_product_param {
    num_output: 4096
  }
}
layer {
  name: "relu6"
  type: "ReLU"
  bottom: "fc6"
  top: "fc6"
}
layer {
  name: "drop6"
  type: "Dropout"
  bottom: "fc6"
  top: "fc6"
  dropout_param {
    dropout_ratio: 0.5
  }
}
layer {
  name: "fc7"
  type: "InnerProduct"
  bottom: "fc6"
  top: "fc7"
  inner_product_param {
    num_output: 4096
  }
}
layer {
  name: "relu7"
  type: "ReLU"
  bottom: "fc7"
  top: "fc7"
}
layer {
  name: "drop7"
  type: "Dropout"
  bottom: "fc7"
  top: "fc7"
  dropout_param {
    dropout_ratio: 0.5
  }
}
layer {
  name: "fc8"
  type: "InnerProduct"
  bottom: "fc7"
  top: "fc8"
  inner_product_param {
    num_output: 1000
  }
}
layer {
  name: "prob"
  type: "Softmax"
  bottom: "fc8"
  top: "prob"
}
I0925 22:33:47.988895  2286 net.cpp:49] Initializing net from parameters: 
name: "s2vt:features_to_lstm"
state {
  phase: TEST
}
layer {
  name: "input"
  type: "Input"
  top: "frames_fc7"
  top: "cont_sentence"
  top: "input_sentence"
  top: "stage_indicator"
  input_param {
    shape {
      dim: 1
      dim: 4096
    }
    shape {
      dim: 1
      dim: 1
    }
    shape {
      dim: 1
      dim: 1
    }
    shape {
      dim: 1
      dim: 1
    }
  }
}
layer {
  name: "embed_encoder"
  type: "InnerProduct"
  bottom: "frames_fc7"
  top: "embedded_in_frames"
  param {
    lr_mult: 1
    decay_mult: 1
  }
  param {
    lr_mult: 2
    decay_mult: 0
  }
  inner_product_param {
    num_output: 500
    weight_filler {
      type: "xavier"
    }
    bias_filler {
      type: "constant"
      value: 0.2
    }
  }
}
layer {
  name: "reshape_frames"
  type: "Reshape"
  bottom: "embedded_in_frames"
  top: "embedded_input_frames"
  reshape_param {
    shape {
      dim: 1
      dim: 1
      dim: 500
    }
  }
}
layer {
  name: "reshape_stage_indicator"
  type: "Reshape"
  bottom: "stage_indicator"
  top: "reshaped_stage_indicator"
  reshape_param {
    shape {
      dim: 1
      dim: 1
      dim: 1
    }
  }
}
layer {
  name: "embedding"
  type: "Embed"
  bottom: "input_sentence"
  top: "embedded_input_sentence"
  param {
    lr_mult: 1
  }
  embed_param {
    num_output: 500
    input_dim: 46168
    bias_term: false
    weight_filler {
      type: "uniform"
      min: -0.08
      max: 0.08
    }
  }
}
layer {
  name: "lstm1"
  type: "LSTM"
  bottom: "embedded_input_frames"
  bottom: "cont_sentence"
  top: "lstm1"
  recurrent_param {
    num_output: 1000
    weight_filler {
      type: "uniform"
      min: -0.08
      max: 0.08
    }
    bias_filler {
      type: "constant"
      value: 0
    }
  }
}
layer {
  name: "concat"
  type: "Concat"
  bottom: "lstm1"
  bottom: "embedded_input_sentence"
  bottom: "reshaped_stage_indicator"
  top: "lstm1_video_sequence"
  concat_param {
    concat_dim: 2
  }
}
layer {
  name: "lstm2"
  type: "LSTM"
  bottom: "lstm1_video_sequence"
  bottom: "cont_sentence"
  top: "lstm2"
  recurrent_param {
    num_output: 1000
    weight_filler {
      type: "uniform"
      min: -0.08
      max: 0.08
    }
    bias_filler {
      type: "constant"
      value: 0
    }
  }
}
layer {
  name: "predict"
  type: "InnerProduct"
  bottom: "lstm2"
  top: "predict"
  param {
    lr_mult: 1
    decay_mult: 1
  }
  param {
    lr_mult: 2
    decay_mult: 0
  }
  inner_product_param {
    num_output: 46168
    weight_filler {
      type: "uniform"
      min: -0.08
      max: 0.08
    }
    bias_filler {
      type: "constant"
      value: 0
    }
    axis: 2
  }
}
layer {
  name: "probs"
  type: "Softmax"
  bottom: "predict"
  top: "probs"
  softmax_param {
    axis: 2
  }
}
I0925 22:33:47.988905  2314 net.cpp:49] Initializing net from parameters: 
name: "s2vt:features_to_lstm"
state {
  phase: TEST
}
layer {
  name: "input"
  type: "Input"
  top: "frames_fc7"
  top: "cont_sentence"
  top: "input_sentence"
  top: "stage_indicator"
  input_param {
    shape {
      dim: 1
      dim: 4096
    }
    shape {
      dim: 1
      dim: 1
    }
    shape {
      dim: 1
      dim: 1
    }
    shape {
      dim: 1
      dim: 1
    }
  }
}
layer {
  name: "embed_encoder"
  type: "InnerProduct"
  bottom: "frames_fc7"
  top: "embedded_in_frames"
  param {
    lr_mult: 1
    decay_mult: 1
  }
  param {
    lr_mult: 2
    decay_mult: 0
  }
  inner_product_param {
    num_output: 500
    weight_filler {
      type: "xavier"
    }
    bias_filler {
      type: "constant"
      value: 0.2
    }
  }
}
layer {
  name: "reshape_frames"
  type: "Reshape"
  bottom: "embedded_in_frames"
  top: "embedded_input_frames"
  reshape_param {
    shape {
      dim: 1
      dim: 1
      dim: 500
    }
  }
}
layer {
  name: "reshape_stage_indicator"
  type: "Reshape"
  bottom: "stage_indicator"
  top: "reshaped_stage_indicator"
  reshape_param {
    shape {
      dim: 1
      dim: 1
      dim: 1
    }
  }
}
layer {
  name: "embedding"
  type: "Embed"
  bottom: "input_sentence"
  top: "embedded_input_sentence"
  param {
    lr_mult: 1
  }
  embed_param {
    num_output: 500
    input_dim: 46168
    bias_term: false
    weight_filler {
      type: "uniform"
      min: -0.08
      max: 0.08
    }
  }
}
layer {
  name: "lstm1"
  type: "LSTM"
  bottom: "embedded_input_frames"
  bottom: "cont_sentence"
  top: "lstm1"
  recurrent_param {
    num_output: 1000
    weight_filler {
      type: "uniform"
      min: -0.08
      max: 0.08
    }
    bias_filler {
      type: "constant"
      value: 0
    }
  }
}
layer {
  name: "concat"
  type: "Concat"
  bottom: "lstm1"
  bottom: "embedded_input_sentence"
  bottom: "reshaped_stage_indicator"
  top: "lstm1_video_sequence"
  concat_param {
    concat_dim: 2
  }
}
layer {
  name: "lstm2"
  type: "LSTM"
  bottom: "lstm1_video_sequence"
  bottom: "cont_sentence"
  top: "lstm2"
  recurrent_param {
    num_output: 1000
    weight_filler {
      type: "uniform"
      min: -0.08
      max: 0.08
    }
    bias_filler {
      type: "constant"
      value: 0
    }
  }
}
layer {
  name: "predict"
  type: "InnerProduct"
  bottom: "lstm2"
  top: "predict"
  param {
    lr_mult: 1
    decay_mult: 1
  }
  param {
    lr_mult: 2
    decay_mult: 0
  }
  inner_product_param {
    num_output: 46168
    weight_filler {
      type: "uniform"
      min: -0.08
      max: 0.08
    }
    bias_filler {
      type: "constant"
      value: 0
    }
    axis: 2
  }
}
layer {
  name: "probs"
  type: "Softmax"
  bottom: "predict"
  top: "probs"
  softmax_param {
    axis: 2
  }
}
I0925 22:33:47.988905  2276 net.cpp:49] Initializing net from parameters: 
name: "s2vt:features_to_lstm"
state {
  phase: TEST
}
layer {
  name: "input"
  type: "Input"
  top: "frames_fc7"
  top: "cont_sentence"
  top: "input_sentence"
  top: "stage_indicator"
  input_param {
    shape {
      dim: 1
      dim: 4096
    }
    shape {
      dim: 1
      dim: 1
    }
    shape {
      dim: 1
      dim: 1
    }
    shape {
      dim: 1
      dim: 1
    }
  }
}
layer {
  name: "embed_encoder"
  type: "InnerProduct"
  bottom: "frames_fc7"
  top: "embedded_in_frames"
  param {
    lr_mult: 1
    decay_mult: 1
  }
  param {
    lr_mult: 2
    decay_mult: 0
  }
  inner_product_param {
    num_output: 500
    weight_filler {
      type: "xavier"
    }
    bias_filler {
      type: "constant"
      value: 0.2
    }
  }
}
layer {
  name: "reshape_frames"
  type: "Reshape"
  bottom: "embedded_in_frames"
  top: "embedded_input_frames"
  reshape_param {
    shape {
      dim: 1
      dim: 1
      dim: 500
    }
  }
}
layer {
  name: "reshape_stage_indicator"
  type: "Reshape"
  bottom: "stage_indicator"
  top: "reshaped_stage_indicator"
  reshape_param {
    shape {
      dim: 1
      dim: 1
      dim: 1
    }
  }
}
layer {
  name: "embedding"
  type: "Embed"
  bottom: "input_sentence"
  top: "embedded_input_sentence"
  param {
    lr_mult: 1
  }
  embed_param {
    num_output: 500
    input_dim: 46168
    bias_term: false
    weight_filler {
      type: "uniform"
      min: -0.08
      max: 0.08
    }
  }
}
layer {
  name: "lstm1"
  type: "LSTM"
  bottom: "embedded_input_frames"
  bottom: "cont_sentence"
  top: "lstm1"
  recurrent_param {
    num_output: 1000
    weight_filler {
      type: "uniform"
      min: -0.08
      max: 0.08
    }
    bias_filler {
      type: "constant"
      value: 0
    }
  }
}
layer {
  name: "concat"
  type: "Concat"
  bottom: "lstm1"
  bottom: "embedded_input_sentence"
  bottom: "reshaped_stage_indicator"
  top: "lstm1_video_sequence"
  concat_param {
    concat_dim: 2
  }
}
layer {
  name: "lstm2"
  type: "LSTM"
  bottom: "lstm1_video_sequence"
  bottom: "cont_sentence"
  top: "lstm2"
  recurrent_param {
    num_output: 1000
    weight_filler {
      type: "uniform"
      min: -0.08
      max: 0.08
    }
    bias_filler {
      type: "constant"
      value: 0
    }
  }
}
layer {
  name: "predict"
  type: "InnerProduct"
  bottom: "lstm2"
  top: "predict"
  param {
    lr_mult: 1
    decay_mult: 1
  }
  param {
    lr_mult: 2
    decay_mult: 0
  }
  inner_product_param {
    num_output: 46168
    weight_filler {
      type: "uniform"
      min: -0.08
      max: 0.08
    }
    bias_filler {
      type: "constant"
      value: 0
    }
    axis: 2
  }
}
layer {
  name: "probs"
  type: "Softmax"
  bottom: "predict"
  top: "probs"
  softmax_param {
    axis: 2
  }
}
I0925 22:33:47.988929  2282 net.cpp:49] Initializing net from parameters: 
name: "s2vt:features_to_lstm"
state {
  phase: TEST
}
layer {
  name: "input"
  type: "Input"
  top: "frames_fc7"
  top: "cont_sentence"
  top: "input_sentence"
  top: "stage_indicator"
  input_param {
    shape {
      dim: 1
      dim: 4096
    }
    shape {
      dim: 1
      dim: 1
    }
    shape {
      dim: 1
      dim: 1
    }
    shape {
      dim: 1
      dim: 1
    }
  }
}
layer {
  name: "embed_encoder"
  type: "InnerProduct"
  bottom: "frames_fc7"
  top: "embedded_in_frames"
  param {
    lr_mult: 1
    decay_mult: 1
  }
  param {
    lr_mult: 2
    decay_mult: 0
  }
  inner_product_param {
    num_output: 500
    weight_filler {
      type: "xavier"
    }
    bias_filler {
      type: "constant"
      value: 0.2
    }
  }
}
layer {
  name: "reshape_frames"
  type: "Reshape"
  bottom: "embedded_in_frames"
  top: "embedded_input_frames"
  reshape_param {
    shape {
      dim: 1
      dim: 1
      dim: 500
    }
  }
}
layer {
  name: "reshape_stage_indicator"
  type: "Reshape"
  bottom: "stage_indicator"
  top: "reshaped_stage_indicator"
  reshape_param {
    shape {
      dim: 1
      dim: 1
      dim: 1
    }
  }
}
layer {
  name: "embedding"
  type: "Embed"
  bottom: "input_sentence"
  top: "embedded_input_sentence"
  param {
    lr_mult: 1
  }
  embed_param {
    num_output: 500
    input_dim: 46168
    bias_term: false
    weight_filler {
      type: "uniform"
      min: -0.08
      max: 0.08
    }
  }
}
layer {
  name: "lstm1"
  type: "LSTM"
  bottom: "embedded_input_frames"
  bottom: "cont_sentence"
  top: "lstm1"
  recurrent_param {
    num_output: 1000
    weight_filler {
      type: "uniform"
      min: -0.08
      max: 0.08
    }
    bias_filler {
      type: "constant"
      value: 0
    }
  }
}
layer {
  name: "concat"
  type: "Concat"
  bottom: "lstm1"
  bottom: "embedded_input_sentence"
  bottom: "reshaped_stage_indicator"
  top: "lstm1_video_sequence"
  concat_param {
    concat_dim: 2
  }
}
layer {
  name: "lstm2"
  type: "LSTM"
  bottom: "lstm1_video_sequence"
  bottom: "cont_sentence"
  top: "lstm2"
  recurrent_param {
    num_output: 1000
    weight_filler {
      type: "uniform"
      min: -0.08
      max: 0.08
    }
    bias_filler {
      type: "constant"
      value: 0
    }
  }
}
layer {
  name: "predict"
  type: "InnerProduct"
  bottom: "lstm2"
  top: "predict"
  param {
    lr_mult: 1
    decay_mult: 1
  }
  param {
    lr_mult: 2
    decay_mult: 0
  }
  inner_product_param {
    num_output: 46168
    weight_filler {
      type: "uniform"
      min: -0.08
      max: 0.08
    }
    bias_filler {
      type: "constant"
      value: 0
    }
    axis: 2
  }
}
layer {
  name: "probs"
  type: "Softmax"
  bottom: "predict"
  top: "probs"
  softmax_param {
    axis: 2
  }
}
I0925 22:33:47.988895  2280 net.cpp:49] Initializing net from parameters: 
name: "s2vt:features_to_lstm"
state {
  phase: TEST
}
layer {
  name: "input"
  type: "Input"
  top: "frames_fc7"
  top: "cont_sentence"
  top: "input_sentence"
  top: "stage_indicator"
  input_param {
    shape {
      dim: 1
      dim: 4096
    }
    shape {
      dim: 1
      dim: 1
    }
    shape {
      dim: 1
      dim: 1
    }
    shape {
      dim: 1
      dim: 1
    }
  }
}
layer {
  name: "embed_encoder"
  type: "InnerProduct"
  bottom: "frames_fc7"
  top: "embedded_in_frames"
  param {
    lr_mult: 1
    decay_mult: 1
  }
  param {
    lr_mult: 2
    decay_mult: 0
  }
  inner_product_param {
    num_output: 500
    weight_filler {
      type: "xavier"
    }
    bias_filler {
      type: "constant"
      value: 0.2
    }
  }
}
layer {
  name: "reshape_frames"
  type: "Reshape"
  bottom: "embedded_in_frames"
  top: "embedded_input_frames"
  reshape_param {
    shape {
      dim: 1
      dim: 1
      dim: 500
    }
  }
}
layer {
  name: "reshape_stage_indicator"
  type: "Reshape"
  bottom: "stage_indicator"
  top: "reshaped_stage_indicator"
  reshape_param {
    shape {
      dim: 1
      dim: 1
      dim: 1
    }
  }
}
layer {
  name: "embedding"
  type: "Embed"
  bottom: "input_sentence"
  top: "embedded_input_sentence"
  param {
    lr_mult: 1
  }
  embed_param {
    num_output: 500
    input_dim: 46168
    bias_term: false
    weight_filler {
      type: "uniform"
      min: -0.08
      max: 0.08
    }
  }
}
layer {
  name: "lstm1"
  type: "LSTM"
  bottom: "embedded_input_frames"
  bottom: "cont_sentence"
  top: "lstm1"
  recurrent_param {
    num_output: 1000
    weight_filler {
      type: "uniform"
      min: -0.08
      max: 0.08
    }
    bias_filler {
      type: "constant"
      value: 0
    }
  }
}
layer {
  name: "concat"
  type: "Concat"
  bottom: "lstm1"
  bottom: "embedded_input_sentence"
  bottom: "reshaped_stage_indicator"
  top: "lstm1_video_sequence"
  concat_param {
    concat_dim: 2
  }
}
layer {
  name: "lstm2"
  type: "LSTM"
  bottom: "lstm1_video_sequence"
  bottom: "cont_sentence"
  top: "lstm2"
  recurrent_param {
    num_output: 1000
    weight_filler {
      type: "uniform"
      min: -0.08
      max: 0.08
    }
    bias_filler {
      type: "constant"
      value: 0
    }
  }
}
layer {
  name: "predict"
  type: "InnerProduct"
  bottom: "lstm2"
  top: "predict"
  param {
    lr_mult: 1
    decay_mult: 1
  }
  param {
    lr_mult: 2
    decay_mult: 0
  }
  inner_product_param {
    num_output: 46168
    weight_filler {
      type: "uniform"
      min: -0.08
      max: 0.08
    }
    bias_filler {
      type: "constant"
      value: 0
    }
    axis: 2
  }
}
layer {
  name: "probs"
  type: "Softmax"
  bottom: "predict"
  top: "probs"
  softmax_param {
    axis: 2
  }
}
I0925 22:33:47.988958  2294 net.cpp:49] Initializing net from parameters: 
name: "s2vt:features_to_lstm"
state {
  phase: TEST
}
layer {
  name: "input"
  type: "Input"
  top: "frames_fc7"
  top: "cont_sentence"
  top: "input_sentence"
  top: "stage_indicator"
  input_param {
    shape {
      dim: 1
      dim: 4096
    }
    shape {
      dim: 1
      dim: 1
    }
    shape {
      dim: 1
      dim: 1
    }
    shape {
      dim: 1
      dim: 1
    }
  }
}
layer {
  name: "embed_encoder"
  type: "InnerProduct"
  bottom: "frames_fc7"
  top: "embedded_in_frames"
  param {
    lr_mult: 1
    decay_mult: 1
  }
  param {
    lr_mult: 2
    decay_mult: 0
  }
  inner_product_param {
    num_output: 500
    weight_filler {
      type: "xavier"
    }
    bias_filler {
      type: "constant"
      value: 0.2
    }
  }
}
layer {
  name: "reshape_frames"
  type: "Reshape"
  bottom: "embedded_in_frames"
  top: "embedded_input_frames"
  reshape_param {
    shape {
      dim: 1
      dim: 1
      dim: 500
    }
  }
}
layer {
  name: "reshape_stage_indicator"
  type: "Reshape"
  bottom: "stage_indicator"
  top: "reshaped_stage_indicator"
  reshape_param {
    shape {
      dim: 1
      dim: 1
      dim: 1
    }
  }
}
layer {
  name: "embedding"
  type: "Embed"
  bottom: "input_sentence"
  top: "embedded_input_sentence"
  param {
    lr_mult: 1
  }
  embed_param {
    num_output: 500
    input_dim: 46168
    bias_term: false
    weight_filler {
      type: "uniform"
      min: -0.08
      max: 0.08
    }
  }
}
layer {
  name: "lstm1"
  type: "LSTM"
  bottom: "embedded_input_frames"
  bottom: "cont_sentence"
  top: "lstm1"
  recurrent_param {
    num_output: 1000
    weight_filler {
      type: "uniform"
      min: -0.08
      max: 0.08
    }
    bias_filler {
      type: "constant"
      value: 0
    }
  }
}
layer {
  name: "concat"
  type: "Concat"
  bottom: "lstm1"
  bottom: "embedded_input_sentence"
  bottom: "reshaped_stage_indicator"
  top: "lstm1_video_sequence"
  concat_param {
    concat_dim: 2
  }
}
layer {
  name: "lstm2"
  type: "LSTM"
  bottom: "lstm1_video_sequence"
  bottom: "cont_sentence"
  top: "lstm2"
  recurrent_param {
    num_output: 1000
    weight_filler {
      type: "uniform"
      min: -0.08
      max: 0.08
    }
    bias_filler {
      type: "constant"
      value: 0
    }
  }
}
layer {
  name: "predict"
  type: "InnerProduct"
  bottom: "lstm2"
  top: "predict"
  param {
    lr_mult: 1
    decay_mult: 1
  }
  param {
    lr_mult: 2
    decay_mult: 0
  }
  inner_product_param {
    num_output: 46168
    weight_filler {
      type: "uniform"
      min: -0.08
      max: 0.08
    }
    bias_filler {
      type: "constant"
      value: 0
    }
    axis: 2
  }
}
layer {
  name: "probs"
  type: "Softmax"
  bottom: "predict"
  top: "probs"
  softmax_param {
    axis: 2
  }
}
I0925 22:33:47.989020  2288 layer_factory.hpp:77] Creating layer data
I0925 22:33:47.989042  2320 layer_factory.hpp:77] Creating layer input
I0925 22:33:47.989048  2286 layer_factory.hpp:77] Creating layer input
I0925 22:33:47.989058  2320 net.cpp:91] Creating Layer input
I0925 22:33:47.989050  2288 net.cpp:91] Creating Layer data
I0925 22:33:47.989048  2276 layer_factory.hpp:77] Creating layer input
…
I0925 22:33:47.989241  2282 net.cpp:399] input -> input_sentence
I0925 22:33:47.989233  2286 net.cpp:399] input -> stage_indicator
I0925 22:33:47.989265  2282 net.cpp:399] input -> stage_indicator
I0925 22:33:47.989234  2294 net.cpp:399] input -> cont_sentence
I0925 22:33:47.989208  2314 net.cpp:399] input -> input_sentence
I0925 22:33:47.989289  2294 net.cpp:399] input -> input_sentence
I0925 22:33:47.989296  2314 net.cpp:399] input -> stage_indicator
I0925 22:33:47.989306  2294 net.cpp:399] input -> stage_indicator
I0925 22:33:48.693289  2288 net.cpp:141] Setting up data
I0925 22:33:48.693375  2288 net.cpp:148] Top shape: 10 3 227 227 (1545870)
I0925 22:33:48.693383  2288 net.cpp:156] Memory required for data: 6183480
I0925 22:33:48.693405  2288 layer_factory.hpp:77] Creating layer conv1
I0925 22:33:48.693404  2282 net.cpp:141] Setting up input
I0925 22:33:48.693449  2282 net.cpp:148] Top shape: 1 4096 (4096)
I0925 22:33:48.693459  2282 net.cpp:148] Top shape: 1 1 (1)
I0925 22:33:48.693470  2282 net.cpp:148] Top shape: 1 1 (1)
I0925 22:33:48.693457  2288 net.cpp:91] Creating Layer conv1
I0925 22:33:48.693480  2282 net.cpp:148] Top shape: 1 1 (1)
I0925 22:33:48.693492  2288 net.cpp:425] conv1 <- data
I0925 22:33:48.693493  2282 net.cpp:156] Memory required for data: 16396
I0925 22:33:48.693505  2320 net.cpp:141] Setting up input
I0925 22:33:48.693511  2282 layer_factory.hpp:77] Creating layer cont_sentence_input_1_split
I0925 22:33:48.693527  2320 net.cpp:148] Top shape: 1 4096 (4096)
I0925 22:33:48.693512  2288 net.cpp:399] conv1 -> conv1
I0925 22:33:48.693536  2320 net.cpp:148] Top shape: 1 1 (1)
I0925 22:33:48.693542  2320 net.cpp:148] Top shape: 1 1 (1)
I0925 22:33:48.693548  2320 net.cpp:148] Top shape: 1 1 (1)
I0925 22:33:48.693553  2320 net.cpp:156] Memory required for data: 16396
I0925 22:33:48.693557  2282 net.cpp:91] Creating Layer cont_sentence_input_1_split
I0925 22:33:48.693560  2320 layer_factory.hpp:77] Creating layer cont_sentence_input_1_split
I0925 22:33:48.693564  2282 net.cpp:425] cont_sentence_input_1_split <- cont_sentence
I0925 22:33:48.693573  2320 net.cpp:91] Creating Layer cont_sentence_input_1_split
I0925 22:33:48.693580  2320 net.cpp:425] cont_sentence_input_1_split <- cont_sentence
I0925 22:33:48.693596  2320 net.cpp:399] cont_sentence_input_1_split -> cont_sentence_input_1_split_0
I0925 22:33:48.693596  2282 net.cpp:399] cont_sentence_input_1_split -> cont_sentence_input_1_split_0
I0925 22:33:48.693613  2320 net.cpp:399] cont_sentence_input_1_split -> cont_sentence_input_1_split_1
I0925 22:33:48.693621  2282 net.cpp:399] cont_sentence_input_1_split -> cont_sentence_input_1_split_1
I0925 22:33:48.693667  2320 net.cpp:141] Setting up cont_sentence_input_1_split
I0925 22:33:48.693678  2320 net.cpp:148] Top shape: 1 1 (1)
I0925 22:33:48.693684  2320 net.cpp:148] Top shape: 1 1 (1)
I0925 22:33:48.693689  2320 net.cpp:156] Memory required for data: 16404
I0925 22:33:48.693694  2320 layer_factory.hpp:77] Creating layer embed_encoder
I0925 22:33:48.693696  2286 net.cpp:141] Setting up input
I0925 22:33:48.693714  2286 net.cpp:148] Top shape: 1 4096 (4096)
I0925 22:33:48.693718  2320 net.cpp:91] Creating Layer embed_encoder
I0925 22:33:48.693722  2286 net.cpp:148] Top shape: 1 1 (1)
I0925 22:33:48.693725  2320 net.cpp:425] embed_encoder <- frames_fc7
I0925 22:33:48.693729  2286 net.cpp:148] Top shape: 1 1 (1)
I0925 22:33:48.693734  2320 net.cpp:399] embed_encoder -> embedded_in_frames
I0925 22:33:48.693735  2286 net.cpp:148] Top shape: 1 1 (1)
I0925 22:33:48.693747  2286 net.cpp:156] Memory required for data: 16396
I0925 22:33:48.693753  2286 layer_factory.hpp:77] Creating layer cont_sentence_input_1_split
I0925 22:33:48.693765  2286 net.cpp:91] Creating Layer cont_sentence_input_1_split
I0925 22:33:48.693775  2286 net.cpp:425] cont_sentence_input_1_split <- cont_sentence
I0925 22:33:48.693786  2286 net.cpp:399] cont_sentence_input_1_split -> cont_sentence_input_1_split_0
I0925 22:33:48.693797  2286 net.cpp:399] cont_sentence_input_1_split -> cont_sentence_input_1_split_1
I0925 22:33:48.699362  2282 net.cpp:141] Setting up cont_sentence_input_1_split
I0925 22:33:48.699390  2282 net.cpp:148] Top shape: 1 1 (1)
I0925 22:33:48.699398  2282 net.cpp:148] Top shape: 1 1 (1)
I0925 22:33:48.699401  2282 net.cpp:156] Memory required for data: 16404
I0925 22:33:48.699407  2282 layer_factory.hpp:77] Creating layer embed_encoder
I0925 22:33:48.699425  2282 net.cpp:91] Creating Layer embed_encoder
I0925 22:33:48.699431  2282 net.cpp:425] embed_encoder <- frames_fc7
I0925 22:33:48.699442  2282 net.cpp:399] embed_encoder -> embedded_in_frames
I0925 22:33:48.699558  2286 net.cpp:141] Setting up cont_sentence_input_1_split
I0925 22:33:48.699586  2286 net.cpp:148] Top shape: 1 1 (1)
I0925 22:33:48.699594  2286 net.cpp:148] Top shape: 1 1 (1)
I0925 22:33:48.699599  2286 net.cpp:156] Memory required for data: 16404
I0925 22:33:48.699606  2286 layer_factory.hpp:77] Creating layer embed_encoder
I0925 22:33:48.699622  2286 net.cpp:91] Creating Layer embed_encoder
I0925 22:33:48.699630  2286 net.cpp:425] embed_encoder <- frames_fc7
I0925 22:33:48.699640  2286 net.cpp:399] embed_encoder -> embedded_in_frames
I0925 22:33:48.700412  2280 net.cpp:141] Setting up input
I0925 22:33:48.700433  2280 net.cpp:148] Top shape: 1 4096 (4096)
I0925 22:33:48.700440  2280 net.cpp:148] Top shape: 1 1 (1)
I0925 22:33:48.700446  2280 net.cpp:148] Top shape: 1 1 (1)
I0925 22:33:48.700451  2280 net.cpp:148] Top shape: 1 1 (1)
I0925 22:33:48.700455  2280 net.cpp:156] Memory required for data: 16396
I0925 22:33:48.700461  2280 layer_factory.hpp:77] Creating layer cont_sentence_input_1_split
I0925 22:33:48.700472  2280 net.cpp:91] Creating Layer cont_sentence_input_1_split
I0925 22:33:48.700479  2280 net.cpp:425] cont_sentence_input_1_split <- cont_sentence
I0925 22:33:48.700489  2280 net.cpp:399] cont_sentence_input_1_split -> cont_sentence_input_1_split_0
I0925 22:33:48.700500  2280 net.cpp:399] cont_sentence_input_1_split -> cont_sentence_input_1_split_1
I0925 22:33:48.700548  2276 net.cpp:141] Setting up input
I0925 22:33:48.700570  2276 net.cpp:148] Top shape: 1 4096 (4096)
I0925 22:33:48.700578  2276 net.cpp:148] Top shape: 1 1 (1)
I0925 22:33:48.700584  2276 net.cpp:148] Top shape: 1 1 (1)
I0925 22:33:48.700590  2276 net.cpp:148] Top shape: 1 1 (1)
I0925 22:33:48.700594  2276 net.cpp:156] Memory required for data: 16396
I0925 22:33:48.700600  2276 layer_factory.hpp:77] Creating layer cont_sentence_input_1_split
I0925 22:33:48.700615  2276 net.cpp:91] Creating Layer cont_sentence_input_1_split
I0925 22:33:48.700621  2276 net.cpp:425] cont_sentence_input_1_split <- cont_sentence
I0925 22:33:48.700629  2276 net.cpp:399] cont_sentence_input_1_split -> cont_sentence_input_1_split_0
I0925 22:33:48.700640  2276 net.cpp:399] cont_sentence_input_1_split -> cont_sentence_input_1_split_1
I0925 22:33:48.705351  2280 net.cpp:141] Setting up cont_sentence_input_1_split
I0925 22:33:48.705484  2280 net.cpp:148] Top shape: 1 1 (1)
I0925 22:33:48.705498  2280 net.cpp:148] Top shape: 1 1 (1)
I0925 22:33:48.705515  2280 net.cpp:156] Memory required for data: 16404
I0925 22:33:48.705555  2280 layer_factory.hpp:77] Creating layer embed_encoder
I0925 22:33:48.705338  2294 net.cpp:141] Setting up input
I0925 22:33:48.705641  2280 net.cpp:91] Creating Layer embed_encoder
I0925 22:33:48.705721  2280 net.cpp:425] embed_encoder <- frames_fc7
I0925 22:33:48.705726  2276 net.cpp:141] Setting up cont_sentence_input_1_split
I0925 22:33:48.705727  2294 net.cpp:148] Top shape: 1 4096 (4096)
I0925 22:33:48.705770  2280 net.cpp:399] embed_encoder -> embedded_in_frames
I0925 22:33:48.705787  2294 net.cpp:148] Top shape: 1 1 (1)
I0925 22:33:48.705777  2276 net.cpp:148] Top shape: 1 1 (1)
I0925 22:33:48.705811  2294 net.cpp:148] Top shape: 1 1 (1)
I0925 22:33:48.705837  2276 net.cpp:148] Top shape: 1 1 (1)
I0925 22:33:48.705852  2276 net.cpp:156] Memory required for data: 16404
I0925 22:33:48.705855  2294 net.cpp:148] Top shape: 1 1 (1)
I0925 22:33:48.705867  2276 layer_factory.hpp:77] Creating layer embed_encoder
I0925 22:33:48.705873  2294 net.cpp:156] Memory required for data: 16396
I0925 22:33:48.705893  2276 net.cpp:91] Creating Layer embed_encoder
I0925 22:33:48.705919  2276 net.cpp:425] embed_encoder <- frames_fc7
I0925 22:33:48.705894  2294 layer_factory.hpp:77] Creating layer cont_sentence_input_1_split
I0925 22:33:48.705935  2276 net.cpp:399] embed_encoder -> embedded_in_frames
I0925 22:33:48.705963  2294 net.cpp:91] Creating Layer cont_sentence_input_1_split
I0925 22:33:48.705983  2294 net.cpp:425] cont_sentence_input_1_split <- cont_sentence
I0925 22:33:48.706002  2294 net.cpp:399] cont_sentence_input_1_split -> cont_sentence_input_1_split_0
I0925 22:33:48.706025  2294 net.cpp:399] cont_sentence_input_1_split -> cont_sentence_input_1_split_1
I0925 22:33:48.711627  2314 net.cpp:141] Setting up input
I0925 22:33:48.711671  2314 net.cpp:148] Top shape: 1 4096 (4096)
I0925 22:33:48.711679  2314 net.cpp:148] Top shape: 1 1 (1)
I0925 22:33:48.711686  2314 net.cpp:148] Top shape: 1 1 (1)
I0925 22:33:48.711691  2314 net.cpp:148] Top shape: 1 1 (1)
I0925 22:33:48.711696  2314 net.cpp:156] Memory required for data: 16396
I0925 22:33:48.711704  2314 layer_factory.hpp:77] Creating layer cont_sentence_input_1_split
I0925 22:33:48.711724  2314 net.cpp:91] Creating Layer cont_sentence_input_1_split
I0925 22:33:48.711732  2314 net.cpp:425] cont_sentence_input_1_split <- cont_sentence
I0925 22:33:48.711742  2314 net.cpp:399] cont_sentence_input_1_split -> cont_sentence_input_1_split_0
I0925 22:33:48.711755  2314 net.cpp:399] cont_sentence_input_1_split -> cont_sentence_input_1_split_1
I0925 22:33:48.720592  2294 net.cpp:141] Setting up cont_sentence_input_1_split
I0925 22:33:48.720650  2294 net.cpp:148] Top shape: 1 1 (1)
I0925 22:33:48.720661  2294 net.cpp:148] Top shape: 1 1 (1)
I0925 22:33:48.720669  2294 net.cpp:156] Memory required for data: 16404
I0925 22:33:48.720684  2294 layer_factory.hpp:77] Creating layer embed_encoder
I0925 22:33:48.720733  2294 net.cpp:91] Creating Layer embed_encoder
I0925 22:33:48.720746  2294 net.cpp:425] embed_encoder <- frames_fc7
I0925 22:33:48.720765  2294 net.cpp:399] embed_encoder -> embedded_in_frames
I0925 22:33:48.726431  2314 net.cpp:141] Setting up cont_sentence_input_1_split
I0925 22:33:48.726490  2314 net.cpp:148] Top shape: 1 1 (1)
I0925 22:33:48.726501  2314 net.cpp:148] Top shape: 1 1 (1)
I0925 22:33:48.726510  2314 net.cpp:156] Memory required for data: 16404
I0925 22:33:48.726523  2314 layer_factory.hpp:77] Creating layer embed_encoder
I0925 22:33:48.726565  2314 net.cpp:91] Creating Layer embed_encoder
I0925 22:33:48.726578  2314 net.cpp:425] embed_encoder <- frames_fc7
I0925 22:33:48.726613  2314 net.cpp:399] embed_encoder -> embedded_in_frames
I0925 22:33:48.727814  2320 net.cpp:141] Setting up embed_encoder
I0925 22:33:48.727865  2320 net.cpp:148] Top shape: 1 500 (500)
I0925 22:33:48.727875  2320 net.cpp:156] Memory required for data: 18404
I0925 22:33:48.727913  2320 layer_factory.hpp:77] Creating layer reshape_frames
I0925 22:33:48.727954  2320 net.cpp:91] Creating Layer reshape_frames
I0925 22:33:48.727967  2320 net.cpp:425] reshape_frames <- embedded_in_frames
I0925 22:33:48.727982  2320 net.cpp:399] reshape_frames -> embedded_input_frames
I0925 22:33:48.732650  2282 net.cpp:141] Setting up embed_encoder
I0925 22:33:48.732704  2282 net.cpp:148] Top shape: 1 500 (500)
I0925 22:33:48.732714  2282 net.cpp:156] Memory required for data: 18404
I0925 22:33:48.732743  2282 layer_factory.hpp:77] Creating layer reshape_frames
I0925 22:33:48.732772  2282 net.cpp:91] Creating Layer reshape_frames
I0925 22:33:48.732785  2282 net.cpp:425] reshape_frames <- embedded_in_frames
I0925 22:33:48.732802  2282 net.cpp:399] reshape_frames -> embedded_input_frames
I0925 22:33:48.732883  2282 net.cpp:141] Setting up reshape_frames
I0925 22:33:48.732898  2282 net.cpp:148] Top shape: 1 1 500 (500)
I0925 22:33:48.732908  2282 net.cpp:156] Memory required for data: 20404
I0925 22:33:48.732916  2282 layer_factory.hpp:77] Creating layer reshape_stage_indicator
I0925 22:33:48.732933  2282 net.cpp:91] Creating Layer reshape_stage_indicator
I0925 22:33:48.732942  2282 net.cpp:425] reshape_stage_indicator <- stage_indicator
I0925 22:33:48.732955  2282 net.cpp:399] reshape_stage_indicator -> reshaped_stage_indicator
I0925 22:33:48.733012  2282 net.cpp:141] Setting up reshape_stage_indicator
I0925 22:33:48.733029  2282 net.cpp:148] Top shape: 1 1 1 (1)
I0925 22:33:48.733037  2282 net.cpp:156] Memory required for data: 20408
I0925 22:33:48.733045  2282 layer_factory.hpp:77] Creating layer embedding
I0925 22:33:48.733064  2282 net.cpp:91] Creating Layer embedding
I0925 22:33:48.733073  2282 net.cpp:425] embedding <- input_sentence
I0925 22:33:48.733088  2282 net.cpp:399] embedding -> embedded_input_sentence
I0925 22:33:48.776412  2320 net.cpp:141] Setting up reshape_frames
I0925 22:33:48.776478  2320 net.cpp:148] Top shape: 1 1 500 (500)
I0925 22:33:48.776489  2320 net.cpp:156] Memory required for data: 20404
I0925 22:33:48.776504  2320 layer_factory.hpp:77] Creating layer reshape_stage_indicator
I0925 22:33:48.776536  2320 net.cpp:91] Creating Layer reshape_stage_indicator
I0925 22:33:48.776551  2320 net.cpp:425] reshape_stage_indicator <- stage_indicator
I0925 22:33:48.776573  2320 net.cpp:399] reshape_stage_indicator -> reshaped_stage_indicator
I0925 22:33:48.776659  2320 net.cpp:141] Setting up reshape_stage_indicator
I0925 22:33:48.776677  2320 net.cpp:148] Top shape: 1 1 1 (1)
I0925 22:33:48.776686  2320 net.cpp:156] Memory required for data: 20408
I0925 22:33:48.776695  2320 layer_factory.hpp:77] Creating layer embedding
I0925 22:33:48.776715  2320 net.cpp:91] Creating Layer embedding
I0925 22:33:48.776726  2320 net.cpp:425] embedding <- input_sentence
I0925 22:33:48.776741  2320 net.cpp:399] embedding -> embedded_input_sentence
I0925 22:33:48.821743  2280 net.cpp:141] Setting up embed_encoder
I0925 22:33:48.821827  2280 net.cpp:148] Top shape: 1 500 (500)
I0925 22:33:48.821837  2280 net.cpp:156] Memory required for data: 18404
I0925 22:33:48.821877  2280 layer_factory.hpp:77] Creating layer reshape_frames
I0925 22:33:48.821915  2280 net.cpp:91] Creating Layer reshape_frames
I0925 22:33:48.821928  2280 net.cpp:425] reshape_frames <- embedded_in_frames
I0925 22:33:48.821945  2280 net.cpp:399] reshape_frames -> embedded_input_frames
I0925 22:33:48.822010  2280 net.cpp:141] Setting up reshape_frames
I0925 22:33:48.822023  2280 net.cpp:148] Top shape: 1 1 500 (500)
I0925 22:33:48.822031  2280 net.cpp:156] Memory required for data: 20404
I0925 22:33:48.822037  2280 layer_factory.hpp:77] Creating layer reshape_stage_indicator
I0925 22:33:48.822057  2280 net.cpp:91] Creating Layer reshape_stage_indicator
I0925 22:33:48.822064  2280 net.cpp:425] reshape_stage_indicator <- stage_indicator
I0925 22:33:48.822077  2280 net.cpp:399] reshape_stage_indicator -> reshaped_stage_indicator
I0925 22:33:48.822134  2280 net.cpp:141] Setting up reshape_stage_indicator
I0925 22:33:48.822147  2280 net.cpp:148] Top shape: 1 1 1 (1)
I0925 22:33:48.822154  2280 net.cpp:156] Memory required for data: 20408
I0925 22:33:48.822161  2280 layer_factory.hpp:77] Creating layer embedding
I0925 22:33:48.822181  2280 net.cpp:91] Creating Layer embedding
I0925 22:33:48.822190  2280 net.cpp:425] embedding <- input_sentence
I0925 22:33:48.822203  2280 net.cpp:399] embedding -> embedded_input_sentence
I0925 22:33:48.871562  2276 net.cpp:141] Setting up embed_encoder
I0925 22:33:48.871618  2276 net.cpp:148] Top shape: 1 500 (500)
I0925 22:33:48.871625  2276 net.cpp:156] Memory required for data: 18404
I0925 22:33:48.871652  2276 layer_factory.hpp:77] Creating layer reshape_frames
I0925 22:33:48.871680  2276 net.cpp:91] Creating Layer reshape_frames
I0925 22:33:48.871690  2276 net.cpp:425] reshape_frames <- embedded_in_frames
I0925 22:33:48.871701  2276 net.cpp:399] reshape_frames -> embedded_input_frames
I0925 22:33:48.871773  2276 net.cpp:141] Setting up reshape_frames
I0925 22:33:48.871783  2276 net.cpp:148] Top shape: 1 1 500 (500)
I0925 22:33:48.871788  2276 net.cpp:156] Memory required for data: 20404
I0925 22:33:48.871793  2276 layer_factory.hpp:77] Creating layer reshape_stage_indicator
I0925 22:33:48.871803  2276 net.cpp:91] Creating Layer reshape_stage_indicator
I0925 22:33:48.871809  2276 net.cpp:425] reshape_stage_indicator <- stage_indicator
I0925 22:33:48.871816  2276 net.cpp:399] reshape_stage_indicator -> reshaped_stage_indicator
I0925 22:33:48.871853  2276 net.cpp:141] Setting up reshape_stage_indicator
I0925 22:33:48.871863  2276 net.cpp:148] Top shape: 1 1 1 (1)
I0925 22:33:48.871867  2276 net.cpp:156] Memory required for data: 20408
I0925 22:33:48.871872  2276 layer_factory.hpp:77] Creating layer embedding
I0925 22:33:48.871891  2276 net.cpp:91] Creating Layer embedding
I0925 22:33:48.871897  2276 net.cpp:425] embedding <- input_sentence
I0925 22:33:48.871906  2276 net.cpp:399] embedding -> embedded_input_sentence
I0925 22:33:48.912963  2286 net.cpp:141] Setting up embed_encoder
I0925 22:33:48.913022  2286 net.cpp:148] Top shape: 1 500 (500)
I0925 22:33:48.913031  2286 net.cpp:156] Memory required for data: 18404
I0925 22:33:48.913066  2286 layer_factory.hpp:77] Creating layer reshape_frames
I0925 22:33:48.913167  2286 net.cpp:91] Creating Layer reshape_frames
I0925 22:33:48.913184  2286 net.cpp:425] reshape_frames <- embedded_in_frames
I0925 22:33:48.913206  2286 net.cpp:399] reshape_frames -> embedded_input_frames
I0925 22:33:48.914643  2314 net.cpp:141] Setting up embed_encoder
I0925 22:33:48.914683  2314 net.cpp:148] Top shape: 1 500 (500)
I0925 22:33:48.914690  2314 net.cpp:156] Memory required for data: 18404
I0925 22:33:48.914710  2314 layer_factory.hpp:77] Creating layer reshape_frames
I0925 22:33:48.914731  2314 net.cpp:91] Creating Layer reshape_frames
I0925 22:33:48.914739  2314 net.cpp:425] reshape_frames <- embedded_in_frames
I0925 22:33:48.914749  2314 net.cpp:399] reshape_frames -> embedded_input_frames
I0925 22:33:48.914794  2314 net.cpp:141] Setting up reshape_frames
I0925 22:33:48.914804  2314 net.cpp:148] Top shape: 1 1 500 (500)
I0925 22:33:48.914808  2314 net.cpp:156] Memory required for data: 20404
I0925 22:33:48.914813  2314 layer_factory.hpp:77] Creating layer reshape_stage_indicator
I0925 22:33:48.914824  2314 net.cpp:91] Creating Layer reshape_stage_indicator
I0925 22:33:48.914829  2314 net.cpp:425] reshape_stage_indicator <- stage_indicator
I0925 22:33:48.914837  2314 net.cpp:399] reshape_stage_indicator -> reshaped_stage_indicator
I0925 22:33:48.914875  2314 net.cpp:141] Setting up reshape_stage_indicator
I0925 22:33:48.914883  2314 net.cpp:148] Top shape: 1 1 1 (1)
I0925 22:33:48.914887  2314 net.cpp:156] Memory required for data: 20408
I0925 22:33:48.914893  2314 layer_factory.hpp:77] Creating layer embedding
I0925 22:33:48.914909  2314 net.cpp:91] Creating Layer embedding
I0925 22:33:48.914914  2314 net.cpp:425] embedding <- input_sentence
I0925 22:33:48.914923  2314 net.cpp:399] embedding -> embedded_input_sentence
I0925 22:33:48.959974  2286 net.cpp:141] Setting up reshape_frames
I0925 22:33:48.960089  2286 net.cpp:148] Top shape: 1 1 500 (500)
I0925 22:33:48.960106  2286 net.cpp:156] Memory required for data: 20404
I0925 22:33:48.960125  2286 layer_factory.hpp:77] Creating layer reshape_stage_indicator
I0925 22:33:48.960175  2286 net.cpp:91] Creating Layer reshape_stage_indicator
I0925 22:33:48.960193  2286 net.cpp:425] reshape_stage_indicator <- stage_indicator
I0925 22:33:48.960222  2286 net.cpp:399] reshape_stage_indicator -> reshaped_stage_indicator
I0925 22:33:48.960938  2282 net.cpp:141] Setting up embedding
I0925 22:33:48.961006  2286 net.cpp:141] Setting up reshape_stage_indicator
I0925 22:33:48.961025  2282 net.cpp:148] Top shape: 1 1 500 (500)
I0925 22:33:48.961038  2286 net.cpp:148] Top shape: 1 1 1 (1)
I0925 22:33:48.961043  2282 net.cpp:156] Memory required for data: 22408
I0925 22:33:48.961051  2286 net.cpp:156] Memory required for data: 20408
I0925 22:33:48.961066  2286 layer_factory.hpp:77] Creating layer embedding
I0925 22:33:48.961088  2282 layer_factory.hpp:77] Creating layer lstm1
I0925 22:33:48.961094  2286 net.cpp:91] Creating Layer embedding
I0925 22:33:48.961109  2286 net.cpp:425] embedding <- input_sentence
I0925 22:33:48.961129  2286 net.cpp:399] embedding -> embedded_input_sentence
I0925 22:33:48.961143  2294 net.cpp:141] Setting up embed_encoder
I0925 22:33:48.961153  2282 net.cpp:91] Creating Layer lstm1
I0925 22:33:48.961206  2294 net.cpp:148] Top shape: 1 500 (500)
I0925 22:33:48.961208  2282 net.cpp:425] lstm1 <- embedded_input_frames
I0925 22:33:48.961232  2294 net.cpp:156] Memory required for data: 18404
I0925 22:33:48.961246  2282 net.cpp:425] lstm1 <- cont_sentence_input_1_split_0
I0925 22:33:48.961262  2294 layer_factory.hpp:77] Creating layer reshape_frames
I0925 22:33:48.961273  2282 net.cpp:399] lstm1 -> lstm1
I0925 22:33:48.961329  2282 recurrent_layer.cpp:20] Initializing recurrent layer: assuming input batch contains 1 timesteps of 1 independent streams.
I0925 22:33:48.961341  2294 net.cpp:91] Creating Layer reshape_frames
I0925 22:33:48.961359  2294 net.cpp:425] reshape_frames <- embedded_in_frames
I0925 22:33:48.961375  2294 net.cpp:399] reshape_frames -> embedded_input_frames
I0925 22:33:48.962028  2282 net.cpp:49] Initializing net from parameters: 
layer {
  name: "lstm1_"
  type: "Input"
  top: "x"
  top: "cont"
  input_param {
    shape {
      dim: 1
      dim: 1
      dim: 500
    }
    shape {
      dim: 1
      dim: 1
    }
  }
}
layer {
  name: "lstm1_"
  type: "Input"
  top: "c_0"
  top: "h_0"
  input_param {
    shape {
      dim: 1
      dim: 1
      dim: 1000
    }
    shape {
      dim: 1
      dim: 1
      dim: 1000
    }
  }
}
layer {
  name: "lstm1_cont_slice"
  type: "Slice"
  bottom: "cont"
  top: "cont_1"
  slice_param {
    axis: 0
  }
}
layer {
  name: "lstm1_x_transform"
  type: "InnerProduct"
  bottom: "x"
  top: "W_xc_x"
  param {
    name: "W_xc"
  }
  param {
    name: "b_c"
  }
  propagate_down: true
  inner_product_param {
    num_output: 4000
    bias_term: true
    weight_filler {
      type: "uniform"
      min: -0.08
      max: 0.08
    }
    bias_filler {
      type: "constant"
      value: 0
    }
    axis: 2
  }
}
layer {
  name: "lstm1_W_xc_x_slice"
  type: "Slice"
  bottom: "W_xc_x"
  top: "W_xc_x_1"
  slice_param {
    axis: 0
  }
}
layer {
  name: "lstm1_h_conted_0"
  type: "Scale"
  bottom: "h_0"
  bottom: "cont_1"
  top: "h_conted_0"
  scale_param {
    axis: 0
  }
}
layer {
  name: "lstm1_transform_1"
  type: "InnerProduct"
  bottom: "h_conted_0"
  top: "W_hc_h_0"
  param {
    name: "W_hc"
  }
  inner_product_param {
    num_output: 4000
    bias_term: false
    weight_filler {
      type: "uniform"
      min: -0.08
      max: 0.08
    }
    axis: 2
  }
}
layer {
  name: "lstm1_gate_input_1"
  type: "Eltwise"
  bottom: "W_hc_h_0"
  bottom: "W_xc_x_1"
  top: "gate_input_1"
  eltwise_param {
    operation: SUM
  }
}
layer {
  name: "lstm1_unit_1"
  type: "LSTMUnit"
  bottom: "c_0"
  bottom: "gate_input_1"
  bottom: "cont_1"
  top: "c_1"
  top: "h_1"
}
layer {
  name: "lstm1_"
  type: "Split"
  bottom: "c_1"
  top: "c_T"
}
layer {
  name: "lstm1_h_concat"
  type: "Concat"
  bottom: "h_1"
  top: "h"
  concat_param {
    axis: 0
  }
}
layer {
  name: "h_pseudoloss"
  type: "Reduction"
  bottom: "h"
  top: "h_pseudoloss"
  loss_weight: 1
}
I0925 22:33:48.962198  2282 layer_factory.hpp:77] Creating layer lstm1_
I0925 22:33:48.962224  2282 net.cpp:91] Creating Layer lstm1_
I0925 22:33:48.962239  2282 net.cpp:399] lstm1_ -> x
I0925 22:33:48.962263  2282 net.cpp:399] lstm1_ -> cont
I0925 22:33:48.965064  2294 net.cpp:141] Setting up reshape_frames
I0925 22:33:48.965097  2294 net.cpp:148] Top shape: 1 1 500 (500)
I0925 22:33:48.965106  2294 net.cpp:156] Memory required for data: 20404
I0925 22:33:48.965116  2294 layer_factory.hpp:77] Creating layer reshape_stage_indicator
I0925 22:33:48.965137  2294 net.cpp:91] Creating Layer reshape_stage_indicator
I0925 22:33:48.965149  2294 net.cpp:425] reshape_stage_indicator <- stage_indicator
I0925 22:33:48.965163  2294 net.cpp:399] reshape_stage_indicator -> reshaped_stage_indicator
I0925 22:33:48.965234  2294 net.cpp:141] Setting up reshape_stage_indicator
I0925 22:33:48.965252  2294 net.cpp:148] Top shape: 1 1 1 (1)
I0925 22:33:48.965260  2294 net.cpp:156] Memory required for data: 20408
I0925 22:33:48.965268  2294 layer_factory.hpp:77] Creating layer embedding
I0925 22:33:48.965312  2294 net.cpp:91] Creating Layer embedding
I0925 22:33:48.965328  2294 net.cpp:425] embedding <- input_sentence
I0925 22:33:48.965349  2294 net.cpp:399] embedding -> embedded_input_sentence
I0925 22:33:49.025960  2320 net.cpp:141] Setting up embedding
I0925 22:33:49.026018  2320 net.cpp:148] Top shape: 1 1 500 (500)
I0925 22:33:49.026031  2320 net.cpp:156] Memory required for data: 22408
I0925 22:33:49.026060  2320 layer_factory.hpp:77] Creating layer lstm1
I0925 22:33:49.026089  2320 net.cpp:91] Creating Layer lstm1
I0925 22:33:49.026103  2320 net.cpp:425] lstm1 <- embedded_input_frames
I0925 22:33:49.026118  2320 net.cpp:425] lstm1 <- cont_sentence_input_1_split_0
I0925 22:33:49.026134  2320 net.cpp:399] lstm1 -> lstm1
I0925 22:33:49.026160  2320 recurrent_layer.cpp:20] Initializing recurrent layer: assuming input batch contains 1 timesteps of 1 independent streams.
I0925 22:33:49.026558  2320 net.cpp:49] Initializing net from parameters: 
layer {
  name: "lstm1_"
  type: "Input"
  top: "x"
  top: "cont"
  input_param {
    shape {
      dim: 1
      dim: 1
      dim: 500
    }
    shape {
      dim: 1
      dim: 1
    }
  }
}
layer {
  name: "lstm1_"
  type: "Input"
  top: "c_0"
  top: "h_0"
  input_param {
    shape {
      dim: 1
      dim: 1
      dim: 1000
    }
    shape {
      dim: 1
      dim: 1
      dim: 1000
    }
  }
}
layer {
  name: "lstm1_cont_slice"
  type: "Slice"
  bottom: "cont"
  top: "cont_1"
  slice_param {
    axis: 0
  }
}
layer {
  name: "lstm1_x_transform"
  type: "InnerProduct"
  bottom: "x"
  top: "W_xc_x"
  param {
    name: "W_xc"
  }
  param {
    name: "b_c"
  }
  propagate_down: true
  inner_product_param {
    num_output: 4000
    bias_term: true
    weight_filler {
      type: "uniform"
      min: -0.08
      max: 0.08
    }
    bias_filler {
      type: "constant"
      value: 0
    }
    axis: 2
  }
}
layer {
  name: "lstm1_W_xc_x_slice"
  type: "Slice"
  bottom: "W_xc_x"
  top: "W_xc_x_1"
  slice_param {
    axis: 0
  }
}
layer {
  name: "lstm1_h_conted_0"
  type: "Scale"
  bottom: "h_0"
  bottom: "cont_1"
  top: "h_conted_0"
  scale_param {
    axis: 0
  }
}
layer {
  name: "lstm1_transform_1"
  type: "InnerProduct"
  bottom: "h_conted_0"
  top: "W_hc_h_0"
  param {
    name: "W_hc"
  }
  inner_product_param {
    num_output: 4000
    bias_term: false
    weight_filler {
      type: "uniform"
      min: -0.08
      max: 0.08
    }
    axis: 2
  }
}
layer {
  name: "lstm1_gate_input_1"
  type: "Eltwise"
  bottom: "W_hc_h_0"
  bottom: "W_xc_x_1"
  top: "gate_input_1"
  eltwise_param {
    operation: SUM
  }
}
layer {
  name: "lstm1_unit_1"
  type: "LSTMUnit"
  bottom: "c_0"
  bottom: "gate_input_1"
  bottom: "cont_1"
  top: "c_1"
  top: "h_1"
}
layer {
  name: "lstm1_"
  type: "Split"
  bottom: "c_1"
  top: "c_T"
}
layer {
  name: "lstm1_h_concat"
  type: "Concat"
  bottom: "h_1"
  top: "h"
  concat_param {
    axis: 0
  }
}
layer {
  name: "h_pseudoloss"
  type: "Reduction"
  bottom: "h"
  top: "h_pseudoloss"
  loss_weight: 1
}
I0925 22:33:49.026698  2320 layer_factory.hpp:77] Creating layer lstm1_
I0925 22:33:49.026717  2320 net.cpp:91] Creating Layer lstm1_
I0925 22:33:49.026727  2320 net.cpp:399] lstm1_ -> x
I0925 22:33:49.026744  2320 net.cpp:399] lstm1_ -> cont
I0925 22:33:49.068677  2282 net.cpp:141] Setting up lstm1_
I0925 22:33:49.068759  2282 net.cpp:148] Top shape: 1 1 500 (500)
I0925 22:33:49.068784  2282 net.cpp:148] Top shape: 1 1 (1)
I0925 22:33:49.068794  2282 net.cpp:156] Memory required for data: 2004
I0925 22:33:49.068809  2282 layer_factory.hpp:77] Creating layer lstm1_
I0925 22:33:49.068841  2282 net.cpp:91] Creating Layer lstm1_
I0925 22:33:49.068862  2282 net.cpp:399] lstm1_ -> c_0
I0925 22:33:49.068892  2282 net.cpp:399] lstm1_ -> h_0
I0925 22:33:49.069005  2282 net.cpp:141] Setting up lstm1_
I0925 22:33:49.069026  2282 net.cpp:148] Top shape: 1 1 1000 (1000)
I0925 22:33:49.069039  2282 net.cpp:148] Top shape: 1 1 1000 (1000)
I0925 22:33:49.069049  2282 net.cpp:156] Memory required for data: 10004
I0925 22:33:49.069061  2282 layer_factory.hpp:77] Creating layer lstm1_cont_slice
I0925 22:33:49.069079  2282 net.cpp:91] Creating Layer lstm1_cont_slice
I0925 22:33:49.069090  2282 net.cpp:425] lstm1_cont_slice <- cont
I0925 22:33:49.069108  2282 net.cpp:399] lstm1_cont_slice -> cont_1
I0925 22:33:49.069170  2282 net.cpp:141] Setting up lstm1_cont_slice
I0925 22:33:49.069195  2282 net.cpp:148] Top shape: 1 1 (1)
I0925 22:33:49.069205  2282 net.cpp:156] Memory required for data: 10008
I0925 22:33:49.069216  2282 layer_factory.hpp:77] Creating layer cont_1_lstm1_cont_slice_0_split
I0925 22:33:49.069231  2282 net.cpp:91] Creating Layer cont_1_lstm1_cont_slice_0_split
I0925 22:33:49.069242  2282 net.cpp:425] cont_1_lstm1_cont_slice_0_split <- cont_1
I0925 22:33:49.069254  2282 net.cpp:399] cont_1_lstm1_cont_slice_0_split -> cont_1_lstm1_cont_slice_0_split_0
I0925 22:33:49.069272  2282 net.cpp:399] cont_1_lstm1_cont_slice_0_split -> cont_1_lstm1_cont_slice_0_split_1
I0925 22:33:49.069371  2282 net.cpp:141] Setting up cont_1_lstm1_cont_slice_0_split
I0925 22:33:49.069391  2282 net.cpp:148] Top shape: 1 1 (1)
I0925 22:33:49.069403  2282 net.cpp:148] Top shape: 1 1 (1)
I0925 22:33:49.069413  2282 net.cpp:156] Memory required for data: 10016
I0925 22:33:49.069425  2282 layer_factory.hpp:77] Creating layer lstm1_x_transform
I0925 22:33:49.069456  2282 net.cpp:91] Creating Layer lstm1_x_transform
I0925 22:33:49.069470  2282 net.cpp:425] lstm1_x_transform <- x
I0925 22:33:49.069489  2282 net.cpp:399] lstm1_x_transform -> W_xc_x
I0925 22:33:49.085789  2280 net.cpp:141] Setting up embedding
I0925 22:33:49.085842  2280 net.cpp:148] Top shape: 1 1 500 (500)
I0925 22:33:49.085851  2280 net.cpp:156] Memory required for data: 22408
I0925 22:33:49.085876  2280 layer_factory.hpp:77] Creating layer lstm1
I0925 22:33:49.085911  2280 net.cpp:91] Creating Layer lstm1
I0925 22:33:49.085903  2320 net.cpp:141] Setting up lstm1_
I0925 22:33:49.085923  2280 net.cpp:425] lstm1 <- embedded_input_frames
I0925 22:33:49.085973  2320 net.cpp:148] Top shape: 1 1 500 (500)
I0925 22:33:49.085978  2280 net.cpp:425] lstm1 <- cont_sentence_input_1_split_0
I0925 22:33:49.085990  2320 net.cpp:148] Top shape: 1 1 (1)
I0925 22:33:49.086001  2320 net.cpp:156] Memory required for data: 2004
I0925 22:33:49.086002  2280 net.cpp:399] lstm1 -> lstm1
I0925 22:33:49.086021  2320 layer_factory.hpp:77] Creating layer lstm1_
I0925 22:33:49.086043  2280 recurrent_layer.cpp:20] Initializing recurrent layer: assuming input batch contains 1 timesteps of 1 independent streams.
I0925 22:33:49.086052  2320 net.cpp:91] Creating Layer lstm1_
I0925 22:33:49.086069  2320 net.cpp:399] lstm1_ -> c_0
I0925 22:33:49.086099  2320 net.cpp:399] lstm1_ -> h_0
I0925 22:33:49.086231  2320 net.cpp:141] Setting up lstm1_
I0925 22:33:49.086256  2320 net.cpp:148] Top shape: 1 1 1000 (1000)
I0925 22:33:49.086266  2320 net.cpp:148] Top shape: 1 1 1000 (1000)
I0925 22:33:49.086273  2320 net.cpp:156] Memory required for data: 10004
I0925 22:33:49.086282  2320 layer_factory.hpp:77] Creating layer lstm1_cont_slice
I0925 22:33:49.086298  2320 net.cpp:91] Creating Layer lstm1_cont_slice
I0925 22:33:49.086307  2320 net.cpp:425] lstm1_cont_slice <- cont
I0925 22:33:49.086319  2320 net.cpp:399] lstm1_cont_slice -> cont_1
I0925 22:33:49.086370  2320 net.cpp:141] Setting up lstm1_cont_slice
I0925 22:33:49.086385  2320 net.cpp:148] Top shape: 1 1 (1)
I0925 22:33:49.086392  2320 net.cpp:156] Memory required for data: 10008
I0925 22:33:49.086400  2320 layer_factory.hpp:77] Creating layer cont_1_lstm1_cont_slice_0_split
I0925 22:33:49.086406  2280 net.cpp:49] Initializing net from parameters: 
layer {
  name: "lstm1_"
  type: "Input"
  top: "x"
  top: "cont"
  input_param {
    shape {
      dim: 1
      dim: 1
      dim: 500
    }
    shape {
      dim: 1
      dim: 1
    }
  }
}
layer {
  name: "lstm1_"
  type: "Input"
  top: "c_0"
  top: "h_0"
  input_param {
    shape {
      dim: 1
      dim: 1
      dim: 1000
    }
    shape {
      dim: 1
      dim: 1
      dim: 1000
    }
  }
}
layer {
  name: "lstm1_cont_slice"
  type: "Slice"
  bottom: "cont"
  top: "cont_1"
  slice_param {
    axis: 0
  }
}
layer {
  name: "lstm1_x_transform"
  type: "InnerProduct"
  bottom: "x"
  top: "W_xc_x"
  param {
    name: "W_xc"
  }
  param {
    name: "b_c"
  }
  propagate_down: true
  inner_product_param {
    num_output: 4000
    bias_term: true
    weight_filler {
      type: "uniform"
      min: -0.08
      max: 0.08
    }
    bias_filler {
      type: "constant"
      value: 0
    }
    axis: 2
  }
}
layer {
  name: "lstm1_W_xc_x_slice"
  type: "Slice"
  bottom: "W_xc_x"
  top: "W_xc_x_1"
  slice_param {
    axis: 0
  }
}
layer {
  name: "lstm1_h_conted_0"
  type: "Scale"
  bottom: "h_0"
  bottom: "cont_1"
  top: "h_conted_0"
  scale_param {
    axis: 0
  }
}
layer {
  name: "lstm1_transform_1"
  type: "InnerProduct"
  bottom: "h_conted_0"
  top: "W_hc_h_0"
  param {
    name: "W_hc"
  }
  inner_product_param {
    num_output: 4000
    bias_term: false
    weight_filler {
      type: "uniform"
      min: -0.08
      max: 0.08
    }
    axis: 2
  }
}
layer {
  name: "lstm1_gate_input_1"
  type: "Eltwise"
  bottom: "W_hc_h_0"
  bottom: "W_xc_x_1"
  top: "gate_input_1"
  eltwise_param {
    operation: SUM
  }
}
layer {
  name: "lstm1_unit_1"
  type: "LSTMUnit"
  bottom: "c_0"
  bottom: "gate_input_1"
  bottom: "cont_1"
  top: "c_1"
  top: "h_1"
}
layer {
  name: "lstm1_"
  type: "Split"
  bottom: "c_1"
  top: "c_T"
}
layer {
  name: "lstm1_h_concat"
  type: "Concat"
  bottom: "h_1"
  top: "h"
  concat_param {
    axis: 0
  }
}
layer {
  name: "h_pseudoloss"
  type: "Reduction"
  bottom: "h"
  top: "h_pseudoloss"
  loss_weight: 1
}
I0925 22:33:49.086412  2320 net.cpp:91] Creating Layer cont_1_lstm1_cont_slice_0_split
I0925 22:33:49.086524  2320 net.cpp:425] cont_1_lstm1_cont_slice_0_split <- cont_1
I0925 22:33:49.086537  2320 net.cpp:399] cont_1_lstm1_cont_slice_0_split -> cont_1_lstm1_cont_slice_0_split_0
I0925 22:33:49.086552  2320 net.cpp:399] cont_1_lstm1_cont_slice_0_split -> cont_1_lstm1_cont_slice_0_split_1
I0925 22:33:49.086622  2280 layer_factory.hpp:77] Creating layer lstm1_
I0925 22:33:49.086653  2280 net.cpp:91] Creating Layer lstm1_
I0925 22:33:49.086663  2280 net.cpp:399] lstm1_ -> x
I0925 22:33:49.086681  2280 net.cpp:399] lstm1_ -> cont
I0925 22:33:49.091141  2320 net.cpp:141] Setting up cont_1_lstm1_cont_slice_0_split
I0925 22:33:49.091176  2320 net.cpp:148] Top shape: 1 1 (1)
I0925 22:33:49.091187  2320 net.cpp:148] Top shape: 1 1 (1)
I0925 22:33:49.091194  2320 net.cpp:156] Memory required for data: 10016
I0925 22:33:49.091203  2320 layer_factory.hpp:77] Creating layer lstm1_x_transform
I0925 22:33:49.091228  2320 net.cpp:91] Creating Layer lstm1_x_transform
I0925 22:33:49.091238  2320 net.cpp:425] lstm1_x_transform <- x
I0925 22:33:49.091254  2320 net.cpp:399] lstm1_x_transform -> W_xc_x
I0925 22:33:49.091361  2280 net.cpp:141] Setting up lstm1_
I0925 22:33:49.091377  2280 net.cpp:148] Top shape: 1 1 500 (500)
I0925 22:33:49.091387  2280 net.cpp:148] Top shape: 1 1 (1)
I0925 22:33:49.091397  2280 net.cpp:156] Memory required for data: 2004
I0925 22:33:49.091405  2280 layer_factory.hpp:77] Creating layer lstm1_
I0925 22:33:49.091431  2280 net.cpp:91] Creating Layer lstm1_
I0925 22:33:49.091445  2280 net.cpp:399] lstm1_ -> c_0
I0925 22:33:49.091470  2280 net.cpp:399] lstm1_ -> h_0
I0925 22:33:49.101558  2280 net.cpp:141] Setting up lstm1_
I0925 22:33:49.101606  2280 net.cpp:148] Top shape: 1 1 1000 (1000)
I0925 22:33:49.101614  2280 net.cpp:148] Top shape: 1 1 1000 (1000)
I0925 22:33:49.101619  2280 net.cpp:156] Memory required for data: 10004
I0925 22:33:49.101627  2280 layer_factory.hpp:77] Creating layer lstm1_cont_slice
I0925 22:33:49.101652  2280 net.cpp:91] Creating Layer lstm1_cont_slice
I0925 22:33:49.101660  2280 net.cpp:425] lstm1_cont_slice <- cont
I0925 22:33:49.101671  2280 net.cpp:399] lstm1_cont_slice -> cont_1
I0925 22:33:49.101745  2280 net.cpp:141] Setting up lstm1_cont_slice
I0925 22:33:49.101757  2280 net.cpp:148] Top shape: 1 1 (1)
I0925 22:33:49.101760  2280 net.cpp:156] Memory required for data: 10008
I0925 22:33:49.101766  2280 layer_factory.hpp:77] Creating layer cont_1_lstm1_cont_slice_0_split
I0925 22:33:49.101775  2280 net.cpp:91] Creating Layer cont_1_lstm1_cont_slice_0_split
I0925 22:33:49.101780  2280 net.cpp:425] cont_1_lstm1_cont_slice_0_split <- cont_1
I0925 22:33:49.101789  2280 net.cpp:399] cont_1_lstm1_cont_slice_0_split -> cont_1_lstm1_cont_slice_0_split_0
I0925 22:33:49.101799  2280 net.cpp:399] cont_1_lstm1_cont_slice_0_split -> cont_1_lstm1_cont_slice_0_split_1
I0925 22:33:49.104192  2280 net.cpp:141] Setting up cont_1_lstm1_cont_slice_0_split
I0925 22:33:49.104221  2280 net.cpp:148] Top shape: 1 1 (1)
I0925 22:33:49.104228  2280 net.cpp:148] Top shape: 1 1 (1)
I0925 22:33:49.104235  2280 net.cpp:156] Memory required for data: 10016
I0925 22:33:49.104245  2280 layer_factory.hpp:77] Creating layer lstm1_x_transform
I0925 22:33:49.104275  2280 net.cpp:91] Creating Layer lstm1_x_transform
I0925 22:33:49.104282  2280 net.cpp:425] lstm1_x_transform <- x
I0925 22:33:49.104295  2280 net.cpp:399] lstm1_x_transform -> W_xc_x
I0925 22:33:49.113500  2276 net.cpp:141] Setting up embedding
I0925 22:33:49.113553  2276 net.cpp:148] Top shape: 1 1 500 (500)
I0925 22:33:49.113560  2276 net.cpp:156] Memory required for data: 22408
I0925 22:33:49.113586  2276 layer_factory.hpp:77] Creating layer lstm1
I0925 22:33:49.113615  2276 net.cpp:91] Creating Layer lstm1
I0925 22:33:49.113626  2276 net.cpp:425] lstm1 <- embedded_input_frames
I0925 22:33:49.113639  2276 net.cpp:425] lstm1 <- cont_sentence_input_1_split_0
I0925 22:33:49.113695  2276 net.cpp:399] lstm1 -> lstm1
I0925 22:33:49.113723  2276 recurrent_layer.cpp:20] Initializing recurrent layer: assuming input batch contains 1 timesteps of 1 independent streams.
I0925 22:33:49.114145  2276 net.cpp:49] Initializing net from parameters: 
layer {
  name: "lstm1_"
  type: "Input"
  top: "x"
  top: "cont"
  input_param {
    shape {
      dim: 1
      dim: 1
      dim: 500
    }
    shape {
      dim: 1
      dim: 1
    }
  }
}
layer {
  name: "lstm1_"
  type: "Input"
  top: "c_0"
  top: "h_0"
  input_param {
    shape {
      dim: 1
      dim: 1
      dim: 1000
    }
    shape {
      dim: 1
      dim: 1
      dim: 1000
    }
  }
}
layer {
  name: "lstm1_cont_slice"
  type: "Slice"
  bottom: "cont"
  top: "cont_1"
  slice_param {
    axis: 0
  }
}
layer {
  name: "lstm1_x_transform"
  type: "InnerProduct"
  bottom: "x"
  top: "W_xc_x"
  param {
    name: "W_xc"
  }
  param {
    name: "b_c"
  }
  propagate_down: true
  inner_product_param {
    num_output: 4000
    bias_term: true
    weight_filler {
      type: "uniform"
      min: -0.08
      max: 0.08
    }
    bias_filler {
      type: "constant"
      value: 0
    }
    axis: 2
  }
}
layer {
  name: "lstm1_W_xc_x_slice"
  type: "Slice"
  bottom: "W_xc_x"
  top: "W_xc_x_1"
  slice_param {
    axis: 0
  }
}
layer {
  name: "lstm1_h_conted_0"
  type: "Scale"
  bottom: "h_0"
  bottom: "cont_1"
  top: "h_conted_0"
  scale_param {
    axis: 0
  }
}
layer {
  name: "lstm1_transform_1"
  type: "InnerProduct"
  bottom: "h_conted_0"
  top: "W_hc_h_0"
  param {
    name: "W_hc"
  }
  inner_product_param {
    num_output: 4000
    bias_term: false
    weight_filler {
      type: "uniform"
      min: -0.08
      max: 0.08
    }
    axis: 2
  }
}
layer {
  name: "lstm1_gate_input_1"
  type: "Eltwise"
  bottom: "W_hc_h_0"
  bottom: "W_xc_x_1"
  top: "gate_input_1"
  eltwise_param {
    operation: SUM
  }
}
layer {
  name: "lstm1_unit_1"
  type: "LSTMUnit"
  bottom: "c_0"
  bottom: "gate_input_1"
  bottom: "cont_1"
  top: "c_1"
  top: "h_1"
}
layer {
  name: "lstm1_"
  type: "Split"
  bottom: "c_1"
  top: "c_T"
}
layer {
  name: "lstm1_h_concat"
  type: "Concat"
  bottom: "h_1"
  top: "h"
  concat_param {
    axis: 0
  }
}
layer {
  name: "h_pseudoloss"
  type: "Reduction"
  bottom: "h"
  top: "h_pseudoloss"
  loss_weight: 1
}
I0925 22:33:49.114279  2276 layer_factory.hpp:77] Creating layer lstm1_
I0925 22:33:49.114297  2276 net.cpp:91] Creating Layer lstm1_
I0925 22:33:49.114307  2276 net.cpp:399] lstm1_ -> x
I0925 22:33:49.114323  2276 net.cpp:399] lstm1_ -> cont
I0925 22:33:49.114840  2276 net.cpp:141] Setting up lstm1_
I0925 22:33:49.114857  2276 net.cpp:148] Top shape: 1 1 500 (500)
I0925 22:33:49.114867  2276 net.cpp:148] Top shape: 1 1 (1)
I0925 22:33:49.114874  2276 net.cpp:156] Memory required for data: 2004
I0925 22:33:49.114882  2276 layer_factory.hpp:77] Creating layer lstm1_
I0925 22:33:49.114895  2276 net.cpp:91] Creating Layer lstm1_
I0925 22:33:49.114908  2276 net.cpp:399] lstm1_ -> c_0
I0925 22:33:49.114923  2276 net.cpp:399] lstm1_ -> h_0
I0925 22:33:49.114950  2282 net.cpp:141] Setting up lstm1_x_transform
I0925 22:33:49.114987  2282 net.cpp:148] Top shape: 1 1 4000 (4000)
I0925 22:33:49.114994  2282 net.cpp:156] Memory required for data: 26016
I0925 22:33:49.115013  2282 layer_factory.hpp:77] Creating layer lstm1_W_xc_x_slice
I0925 22:33:49.115031  2282 net.cpp:91] Creating Layer lstm1_W_xc_x_slice
I0925 22:33:49.115034  2276 net.cpp:141] Setting up lstm1_
I0925 22:33:49.115038  2282 net.cpp:425] lstm1_W_xc_x_slice <- W_xc_x
I0925 22:33:49.115054  2276 net.cpp:148] Top shape: 1 1 1000 (1000)
I0925 22:33:49.115062  2282 net.cpp:399] lstm1_W_xc_x_slice -> W_xc_x_1
I0925 22:33:49.115067  2276 net.cpp:148] Top shape: 1 1 1000 (1000)
I0925 22:33:49.115073  2276 net.cpp:156] Memory required for data: 10004
I0925 22:33:49.115080  2276 layer_factory.hpp:77] Creating layer lstm1_cont_slice
I0925 22:33:49.115092  2276 net.cpp:91] Creating Layer lstm1_cont_slice
I0925 22:33:49.115100  2276 net.cpp:425] lstm1_cont_slice <- cont
I0925 22:33:49.115110  2276 net.cpp:399] lstm1_cont_slice -> cont_1
I0925 22:33:49.115123  2282 net.cpp:141] Setting up lstm1_W_xc_x_slice
I0925 22:33:49.115133  2282 net.cpp:148] Top shape: 1 1 4000 (4000)
I0925 22:33:49.115137  2282 net.cpp:156] Memory required for data: 42016
I0925 22:33:49.115144  2282 layer_factory.hpp:77] Creating layer lstm1_h_conted_0
I0925 22:33:49.115167  2282 net.cpp:91] Creating Layer lstm1_h_conted_0
I0925 22:33:49.115173  2282 net.cpp:425] lstm1_h_conted_0 <- h_0
I0925 22:33:49.115180  2282 net.cpp:425] lstm1_h_conted_0 <- cont_1_lstm1_cont_slice_0_split_0
I0925 22:33:49.115178  2276 net.cpp:141] Setting up lstm1_cont_slice
I0925 22:33:49.115187  2282 net.cpp:399] lstm1_h_conted_0 -> h_conted_0
I0925 22:33:49.115193  2276 net.cpp:148] Top shape: 1 1 (1)
I0925 22:33:49.115201  2276 net.cpp:156] Memory required for data: 10008
I0925 22:33:49.115208  2276 layer_factory.hpp:77] Creating layer cont_1_lstm1_cont_slice_0_split
I0925 22:33:49.115223  2276 net.cpp:91] Creating Layer cont_1_lstm1_cont_slice_0_split
I0925 22:33:49.115231  2276 net.cpp:425] cont_1_lstm1_cont_slice_0_split <- cont_1
I0925 22:33:49.115242  2276 net.cpp:399] cont_1_lstm1_cont_slice_0_split -> cont_1_lstm1_cont_slice_0_split_0
I0925 22:33:49.115253  2276 net.cpp:399] cont_1_lstm1_cont_slice_0_split -> cont_1_lstm1_cont_slice_0_split_1
I0925 22:33:49.115342  2276 net.cpp:141] Setting up cont_1_lstm1_cont_slice_0_split
I0925 22:33:49.115356  2276 net.cpp:148] Top shape: 1 1 (1)
I0925 22:33:49.115365  2276 net.cpp:148] Top shape: 1 1 (1)
I0925 22:33:49.115372  2276 net.cpp:156] Memory required for data: 10016
I0925 22:33:49.115381  2276 layer_factory.hpp:77] Creating layer lstm1_x_transform
I0925 22:33:49.115394  2276 net.cpp:91] Creating Layer lstm1_x_transform
I0925 22:33:49.115402  2276 net.cpp:425] lstm1_x_transform <- x
I0925 22:33:49.115417  2276 net.cpp:399] lstm1_x_transform -> W_xc_x
I0925 22:33:49.115437  2282 net.cpp:141] Setting up lstm1_h_conted_0
I0925 22:33:49.115450  2282 net.cpp:148] Top shape: 1 1 1000 (1000)
I0925 22:33:49.115454  2282 net.cpp:156] Memory required for data: 46016
I0925 22:33:49.115460  2282 layer_factory.hpp:77] Creating layer lstm1_transform_1
I0925 22:33:49.115476  2282 net.cpp:91] Creating Layer lstm1_transform_1
I0925 22:33:49.115483  2282 net.cpp:425] lstm1_transform_1 <- h_conted_0
I0925 22:33:49.115490  2282 net.cpp:399] lstm1_transform_1 -> W_hc_h_0
I0925 22:33:49.134799  2320 net.cpp:141] Setting up lstm1_x_transform
I0925 22:33:49.134851  2320 net.cpp:148] Top shape: 1 1 4000 (4000)
I0925 22:33:49.134865  2320 net.cpp:156] Memory required for data: 26016
I0925 22:33:49.134896  2320 layer_factory.hpp:77] Creating layer lstm1_W_xc_x_slice
I0925 22:33:49.134919  2320 net.cpp:91] Creating Layer lstm1_W_xc_x_slice
I0925 22:33:49.134932  2320 net.cpp:425] lstm1_W_xc_x_slice <- W_xc_x
I0925 22:33:49.134948  2320 net.cpp:399] lstm1_W_xc_x_slice -> W_xc_x_1
I0925 22:33:49.140028  2320 net.cpp:141] Setting up lstm1_W_xc_x_slice
I0925 22:33:49.140082  2320 net.cpp:148] Top shape: 1 1 4000 (4000)
I0925 22:33:49.140095  2320 net.cpp:156] Memory required for data: 42016
I0925 22:33:49.140110  2320 layer_factory.hpp:77] Creating layer lstm1_h_conted_0
I0925 22:33:49.140132  2320 net.cpp:91] Creating Layer lstm1_h_conted_0
I0925 22:33:49.140146  2320 net.cpp:425] lstm1_h_conted_0 <- h_0
I0925 22:33:49.140161  2320 net.cpp:425] lstm1_h_conted_0 <- cont_1_lstm1_cont_slice_0_split_0
I0925 22:33:49.140172  2320 net.cpp:399] lstm1_h_conted_0 -> h_conted_0
I0925 22:33:49.140314  2280 net.cpp:141] Setting up lstm1_x_transform
I0925 22:33:49.140353  2280 net.cpp:148] Top shape: 1 1 4000 (4000)
I0925 22:33:49.140359  2280 net.cpp:156] Memory required for data: 26016
I0925 22:33:49.140383  2280 layer_factory.hpp:77] Creating layer lstm1_W_xc_x_slice
I0925 22:33:49.140398  2280 net.cpp:91] Creating Layer lstm1_W_xc_x_slice
I0925 22:33:49.140406  2280 net.cpp:425] lstm1_W_xc_x_slice <- W_xc_x
I0925 22:33:49.140416  2280 net.cpp:399] lstm1_W_xc_x_slice -> W_xc_x_1
I0925 22:33:49.140694  2280 net.cpp:141] Setting up lstm1_W_xc_x_slice
I0925 22:33:49.140707  2280 net.cpp:148] Top shape: 1 1 4000 (4000)
I0925 22:33:49.140710  2280 net.cpp:156] Memory required for data: 42016
I0925 22:33:49.140717  2280 layer_factory.hpp:77] Creating layer lstm1_h_conted_0
I0925 22:33:49.140727  2280 net.cpp:91] Creating Layer lstm1_h_conted_0
I0925 22:33:49.140733  2280 net.cpp:425] lstm1_h_conted_0 <- h_0
I0925 22:33:49.140739  2280 net.cpp:425] lstm1_h_conted_0 <- cont_1_lstm1_cont_slice_0_split_0
I0925 22:33:49.140746  2280 net.cpp:399] lstm1_h_conted_0 -> h_conted_0
I0925 22:33:49.140787  2320 net.cpp:141] Setting up lstm1_h_conted_0
I0925 22:33:49.140807  2320 net.cpp:148] Top shape: 1 1 1000 (1000)
I0925 22:33:49.140817  2320 net.cpp:156] Memory required for data: 46016
I0925 22:33:49.140825  2320 layer_factory.hpp:77] Creating layer lstm1_transform_1
I0925 22:33:49.140843  2320 net.cpp:91] Creating Layer lstm1_transform_1
I0925 22:33:49.140852  2320 net.cpp:425] lstm1_transform_1 <- h_conted_0
I0925 22:33:49.140869  2320 net.cpp:399] lstm1_transform_1 -> W_hc_h_0
I0925 22:33:49.154465  2314 net.cpp:141] Setting up embedding
I0925 22:33:49.154547  2314 net.cpp:148] Top shape: 1 1 500 (500)
I0925 22:33:49.154567  2314 net.cpp:156] Memory required for data: 22408
I0925 22:33:49.154608  2280 net.cpp:141] Setting up lstm1_h_conted_0
I0925 22:33:49.154701  2280 net.cpp:148] Top shape: 1 1 1000 (1000)
I0925 22:33:49.154713  2280 net.cpp:156] Memory required for data: 46016
I0925 22:33:49.154722  2280 layer_factory.hpp:77] Creating layer lstm1_transform_1
I0925 22:33:49.154732  2276 net.cpp:141] Setting up lstm1_x_transform
I0925 22:33:49.154742  2280 net.cpp:91] Creating Layer lstm1_transform_1
I0925 22:33:49.154760  2276 net.cpp:148] Top shape: 1 1 4000 (4000)
I0925 22:33:49.154760  2280 net.cpp:425] lstm1_transform_1 <- h_conted_0
I0925 22:33:49.154778  2276 net.cpp:156] Memory required for data: 26016
I0925 22:33:49.154790  2280 net.cpp:399] lstm1_transform_1 -> W_hc_h_0
I0925 22:33:49.154801  2276 layer_factory.hpp:77] Creating layer lstm1_W_xc_x_slice
I0925 22:33:49.154819  2276 net.cpp:91] Creating Layer lstm1_W_xc_x_slice
I0925 22:33:49.154829  2276 net.cpp:425] lstm1_W_xc_x_slice <- W_xc_x
…
I0925 22:33:49.155140  2314 recurrent_layer.cpp:20] Initializing recurrent layer: assuming input batch contains 1 timesteps of 1 independent streams.
I0925 22:33:49.161859  2314 net.cpp:49] Initializing net from parameters: 
layer {
  name: "lstm1_"
  type: "Input"
  top: "x"
  top: "cont"
  input_param {
    shape {
      dim: 1
      dim: 1
      dim: 500
    }
    shape {
      dim: 1
      dim: 1
    }
  }
}
layer {
  name: "lstm1_"
  type: "Input"
  top: "c_0"
  top: "h_0"
  input_param {
    shape {
      dim: 1
      dim: 1
      dim: 1000
    }
    shape {
      dim: 1
      dim: 1
      dim: 1000
    }
  }
}
layer {
  name: "lstm1_cont_slice"
  type: "Slice"
  bottom: "cont"
  top: "cont_1"
  slice_param {
    axis: 0
  }
}
layer {
  name: "lstm1_x_transform"
  type: "InnerProduct"
  bottom: "x"
  top: "W_xc_x"
  param {
    name: "W_xc"
  }
  param {
    name: "b_c"
  }
  propagate_down: true
  inner_product_param {
    num_output: 4000
    bias_term: true
    weight_filler {
      type: "uniform"
      min: -0.08
      max: 0.08
    }
    bias_filler {
      type: "constant"
      value: 0
    }
    axis: 2
  }
}
layer {
  name: "lstm1_W_xc_x_slice"
  type: "Slice"
  bottom: "W_xc_x"
  top: "W_xc_x_1"
  slice_param {
    axis: 0
  }
}
layer {
  name: "lstm1_h_conted_0"
  type: "Scale"
  bottom: "h_0"
  bottom: "cont_1"
  top: "h_conted_0"
  scale_param {
    axis: 0
  }
}
layer {
  name: "lstm1_transform_1"
  type: "InnerProduct"
  bottom: "h_conted_0"
  top: "W_hc_h_0"
  param {
    name: "W_hc"
  }
  inner_product_param {
    num_output: 4000
    bias_term: false
    weight_filler {
      type: "uniform"
      min: -0.08
      max: 0.08
    }
    axis: 2
  }
}
layer {
  name: "lstm1_gate_input_1"
  type: "Eltwise"
  bottom: "W_hc_h_0"
  bottom: "W_xc_x_1"
  top: "gate_input_1"
  eltwise_param {
    operation: SUM
  }
}
layer {
  name: "lstm1_unit_1"
  type: "LSTMUnit"
  bottom: "c_0"
  bottom: "gate_input_1"
  bottom: "cont_1"
  top: "c_1"
  top: "h_1"
}
layer {
  name: "lstm1_"
  type: "Split"
  bottom: "c_1"
  top: "c_T"
}
layer {
  name: "lstm1_h_concat"
  type: "Concat"
  bottom: "h_1"
  top: "h"
  concat_param {
    axis: 0
  }
}
layer {
  name: "h_pseudoloss"
  type: "Reduction"
  bottom: "h"
  top: "h_pseudoloss"
  loss_weight: 1
}
I0925 22:33:49.162075  2314 layer_factory.hpp:77] Creating layer lstm1_
I0925 22:33:49.162098  2314 net.cpp:91] Creating Layer lstm1_
I0925 22:33:49.162109  2314 net.cpp:399] lstm1_ -> x
I0925 22:33:49.162133  2314 net.cpp:399] lstm1_ -> cont
I0925 22:33:49.167770  2276 net.cpp:141] Setting up lstm1_W_xc_x_slice
I0925 22:33:49.167842  2276 net.cpp:148] Top shape: 1 1 4000 (4000)
I0925 22:33:49.167861  2276 net.cpp:156] Memory required for data: 42016
I0925 22:33:49.167884  2276 layer_factory.hpp:77] Creating layer lstm1_h_conted_0
I0925 22:33:49.167922  2276 net.cpp:91] Creating Layer lstm1_h_conted_0
I0925 22:33:49.167942  2276 net.cpp:425] lstm1_h_conted_0 <- h_0
I0925 22:33:49.167964  2276 net.cpp:425] lstm1_h_conted_0 <- cont_1_lstm1_cont_slice_0_split_0
I0925 22:33:49.167989  2276 net.cpp:399] lstm1_h_conted_0 -> h_conted_0
I0925 22:33:49.168221  2276 net.cpp:141] Setting up lstm1_h_conted_0
I0925 22:33:49.168241  2276 net.cpp:148] Top shape: 1 1 1000 (1000)
I0925 22:33:49.168251  2276 net.cpp:156] Memory required for data: 46016
I0925 22:33:49.168262  2276 layer_factory.hpp:77] Creating layer lstm1_transform_1
I0925 22:33:49.168287  2276 net.cpp:91] Creating Layer lstm1_transform_1
I0925 22:33:49.168300  2276 net.cpp:425] lstm1_transform_1 <- h_conted_0
I0925 22:33:49.168323  2276 net.cpp:399] lstm1_transform_1 -> W_hc_h_0
I0925 22:33:49.180789  2282 net.cpp:141] Setting up lstm1_transform_1
I0925 22:33:49.180845  2282 net.cpp:148] Top shape: 1 1 4000 (4000)
I0925 22:33:49.180855  2282 net.cpp:156] Memory required for data: 62016
I0925 22:33:49.180879  2282 layer_factory.hpp:77] Creating layer lstm1_gate_input_1
I0925 22:33:49.180877  2314 net.cpp:141] Setting up lstm1_
I0925 22:33:49.180901  2314 net.cpp:148] Top shape: 1 1 500 (500)
I0925 22:33:49.180912  2282 net.cpp:91] Creating Layer lstm1_gate_input_1
I0925 22:33:49.180912  2314 net.cpp:148] Top shape: 1 1 (1)
I0925 22:33:49.180930  2282 net.cpp:425] lstm1_gate_input_1 <- W_hc_h_0
I0925 22:33:49.180933  2314 net.cpp:156] Memory required for data: 2004
I0925 22:33:49.180943  2314 layer_factory.hpp:77] Creating layer lstm1_
I0925 22:33:49.180943  2282 net.cpp:425] lstm1_gate_input_1 <- W_xc_x_1
I0925 22:33:49.180987  2314 net.cpp:91] Creating Layer lstm1_
I0925 22:33:49.180989  2282 net.cpp:399] lstm1_gate_input_1 -> gate_input_1
I0925 22:33:49.181004  2314 net.cpp:399] lstm1_ -> c_0
I0925 22:33:49.181023  2314 net.cpp:399] lstm1_ -> h_0
I0925 22:33:49.194689  2282 net.cpp:141] Setting up lstm1_gate_input_1
I0925 22:33:49.194748  2282 net.cpp:148] Top shape: 1 1 4000 (4000)
I0925 22:33:49.194761  2282 net.cpp:156] Memory required for data: 78016
I0925 22:33:49.194773  2282 layer_factory.hpp:77] Creating layer lstm1_unit_1
I0925 22:33:49.194808  2282 net.cpp:91] Creating Layer lstm1_unit_1
I0925 22:33:49.194820  2282 net.cpp:425] lstm1_unit_1 <- c_0
I0925 22:33:49.194835  2282 net.cpp:425] lstm1_unit_1 <- gate_input_1
I0925 22:33:49.194845  2282 net.cpp:425] lstm1_unit_1 <- cont_1_lstm1_cont_slice_0_split_1
I0925 22:33:49.194859  2282 net.cpp:399] lstm1_unit_1 -> c_1
I0925 22:33:49.194880  2282 net.cpp:399] lstm1_unit_1 -> h_1
I0925 22:33:49.194959  2314 net.cpp:141] Setting up lstm1_
I0925 22:33:49.194983  2314 net.cpp:148] Top shape: 1 1 1000 (1000)
I0925 22:33:49.194993  2314 net.cpp:148] Top shape: 1 1 1000 (1000)
I0925 22:33:49.194999  2314 net.cpp:156] Memory required for data: 10004
I0925 22:33:49.195008  2314 layer_factory.hpp:77] Creating layer lstm1_cont_slice
I0925 22:33:49.195024  2314 net.cpp:91] Creating Layer lstm1_cont_slice
I0925 22:33:49.195032  2314 net.cpp:425] lstm1_cont_slice <- cont
I0925 22:33:49.195044  2314 net.cpp:399] lstm1_cont_slice -> cont_1
I0925 22:33:49.196696  2314 net.cpp:141] Setting up lstm1_cont_slice
I0925 22:33:49.196763  2314 net.cpp:148] Top shape: 1 1 (1)
I0925 22:33:49.196777  2314 net.cpp:156] Memory required for data: 10008
I0925 22:33:49.196789  2282 net.cpp:141] Setting up lstm1_unit_1
I0925 22:33:49.196796  2314 layer_factory.hpp:77] Creating layer cont_1_lstm1_cont_slice_0_split
I0925 22:33:49.196821  2282 net.cpp:148] Top shape: 1 1 1000 (1000)
I0925 22:33:49.196830  2282 net.cpp:148] Top shape: 1 1 1000 (1000)
I0925 22:33:49.196833  2282 net.cpp:156] Memory required for data: 86016
I0925 22:33:49.196841  2282 layer_factory.hpp:77] Creating layer lstm1_
I0925 22:33:49.196852  2282 net.cpp:91] Creating Layer lstm1_
I0925 22:33:49.196852  2314 net.cpp:91] Creating Layer cont_1_lstm1_cont_slice_0_split
I0925 22:33:49.196858  2282 net.cpp:425] lstm1_ <- c_1
I0925 22:33:49.196885  2314 net.cpp:425] cont_1_lstm1_cont_slice_0_split <- cont_1
I0925 22:33:49.196890  2282 net.cpp:399] lstm1_ -> c_T
I0925 22:33:49.196899  2314 net.cpp:399] cont_1_lstm1_cont_slice_0_split -> cont_1_lstm1_cont_slice_0_split_0
I0925 22:33:49.196918  2314 net.cpp:399] cont_1_lstm1_cont_slice_0_split -> cont_1_lstm1_cont_slice_0_split_1
I0925 22:33:49.199904  2282 net.cpp:141] Setting up lstm1_
I0925 22:33:49.199964  2282 net.cpp:148] Top shape: 1 1 1000 (1000)
I0925 22:33:49.199972  2282 net.cpp:156] Memory required for data: 90016
I0925 22:33:49.199985  2282 layer_factory.hpp:77] Creating layer lstm1_h_concat
I0925 22:33:49.199996  2314 net.cpp:141] Setting up cont_1_lstm1_cont_slice_0_split
I0925 22:33:49.200007  2282 net.cpp:91] Creating Layer lstm1_h_concat
I0925 22:33:49.200016  2314 net.cpp:148] Top shape: 1 1 (1)
I0925 22:33:49.200017  2282 net.cpp:425] lstm1_h_concat <- h_1
I0925 22:33:49.200027  2314 net.cpp:148] Top shape: 1 1 (1)
I0925 22:33:49.200034  2314 net.cpp:156] Memory required for data: 10016
I0925 22:33:49.200042  2282 net.cpp:399] lstm1_h_concat -> h
I0925 22:33:49.200042  2314 layer_factory.hpp:77] Creating layer lstm1_x_transform
I0925 22:33:49.200083  2314 net.cpp:91] Creating Layer lstm1_x_transform
I0925 22:33:49.200093  2314 net.cpp:425] lstm1_x_transform <- x
I0925 22:33:49.200110  2314 net.cpp:399] lstm1_x_transform -> W_xc_x
I0925 22:33:49.200121  2282 net.cpp:141] Setting up lstm1_h_concat
I0925 22:33:49.200135  2282 net.cpp:148] Top shape: 1 1 1000 (1000)
I0925 22:33:49.200141  2282 net.cpp:156] Memory required for data: 94016
I0925 22:33:49.200148  2282 layer_factory.hpp:77] Creating layer h_pseudoloss
I0925 22:33:49.200170  2282 net.cpp:91] Creating Layer h_pseudoloss
I0925 22:33:49.200178  2282 net.cpp:425] h_pseudoloss <- h
I0925 22:33:49.200188  2282 net.cpp:399] h_pseudoloss -> h_pseudoloss
I0925 22:33:49.204622  2320 net.cpp:141] Setting up lstm1_transform_1
I0925 22:33:49.204684  2320 net.cpp:148] Top shape: 1 1 4000 (4000)
I0925 22:33:49.204695  2320 net.cpp:156] Memory required for data: 62016
I0925 22:33:49.204725  2320 layer_factory.hpp:77] Creating layer lstm1_gate_input_1
I0925 22:33:49.204738  2282 net.cpp:141] Setting up h_pseudoloss
I0925 22:33:49.204757  2282 net.cpp:148] Top shape: (1)
I0925 22:33:49.204772  2282 net.cpp:151]     with loss weight 1
I0925 22:33:49.204831  2282 net.cpp:156] Memory required for data: 94020
…
I0925 22:33:49.204962  2282 net.cpp:219] lstm1_ does not need backward computation.
I0925 22:33:49.204972  2282 net.cpp:261] This network produces output c_T
I0925 22:33:49.204982  2282 net.cpp:261] This network produces output h_pseudoloss
I0925 22:33:49.205016  2282 net.cpp:274] Network initialization done.
I0925 22:33:49.205123  2282 recurrent_layer.cpp:150] Adding parameter 0: W_xc
I0925 22:33:49.205137  2282 recurrent_layer.cpp:150] Adding parameter 1: b_c
I0925 22:33:49.205145  2282 recurrent_layer.cpp:150] Adding parameter 2: W_hc
I0925 22:33:49.205327  2282 net.cpp:141] Setting up lstm1
I0925 22:33:49.205346  2282 net.cpp:148] Top shape: 1 1 1000 (1000)
I0925 22:33:49.205356  2282 net.cpp:156] Memory required for data: 26408
I0925 22:33:49.205382  2282 layer_factory.hpp:77] Creating layer concat
I0925 22:33:49.205404  2282 net.cpp:91] Creating Layer concat
I0925 22:33:49.205416  2282 net.cpp:425] concat <- lstm1
I0925 22:33:49.205430  2282 net.cpp:425] concat <- embedded_input_sentence
I0925 22:33:49.205443  2282 net.cpp:425] concat <- reshaped_stage_indicator
I0925 22:33:49.205461  2282 net.cpp:399] concat -> lstm1_video_sequence
I0925 22:33:49.205520  2282 net.cpp:141] Setting up concat
I0925 22:33:49.205538  2282 net.cpp:148] Top shape: 1 1 1501 (1501)
I0925 22:33:49.205549  2282 net.cpp:156] Memory required for data: 32412
I0925 22:33:49.205559  2282 layer_factory.hpp:77] Creating layer lstm2
I0925 22:33:49.205582  2282 net.cpp:91] Creating Layer lstm2
I0925 22:33:49.205595  2282 net.cpp:425] lstm2 <- lstm1_video_sequence
I0925 22:33:49.205606  2282 net.cpp:425] lstm2 <- cont_sentence_input_1_split_1
I0925 22:33:49.205622  2282 net.cpp:399] lstm2 -> lstm2
I0925 22:33:49.205643  2282 recurrent_layer.cpp:20] Initializing recurrent layer: assuming input batch contains 1 timesteps of 1 independent streams.
I0925 22:33:49.206099  2282 net.cpp:49] Initializing net from parameters: 
layer {
  name: "lstm2_"
  type: "Input"
  top: "x"
  top: "cont"
  input_param {
    shape {
      dim: 1
      dim: 1
      dim: 1501
    }
    shape {
      dim: 1
      dim: 1
    }
  }
}
layer {
  name: "lstm2_"
  type: "Input"
  top: "c_0"
  top: "h_0"
  input_param {
    shape {
      dim: 1
      dim: 1
      dim: 1000
    }
    shape {
      dim: 1
      dim: 1
      dim: 1000
    }
  }
}
layer {
  name: "lstm2_cont_slice"
  type: "Slice"
  bottom: "cont"
  top: "cont_1"
  slice_param {
    axis: 0
  }
}
layer {
  name: "lstm2_x_transform"
  type: "InnerProduct"
  bottom: "x"
  top: "W_xc_x"
  param {
    name: "W_xc"
  }
  param {
    name: "b_c"
  }
  propagate_down: true
  inner_product_param {
    num_output: 4000
    bias_term: true
    weight_filler {
      type: "uniform"
      min: -0.08
      max: 0.08
    }
    bias_filler {
      type: "constant"
      value: 0
    }
    axis: 2
  }
}
layer {
  name: "lstm2_W_xc_x_slice"
  type: "Slice"
  bottom: "W_xc_x"
  top: "W_xc_x_1"
  slice_param {
    axis: 0
  }
}
layer {
  name: "lstm2_h_conted_0"
  type: "Scale"
  bottom: "h_0"
  bottom: "cont_1"
  top: "h_conted_0"
  scale_param {
    axis: 0
  }
}
layer {
  name: "lstm2_transform_1"
  type: "InnerProduct"
  bottom: "h_conted_0"
  top: "W_hc_h_0"
  param {
    name: "W_hc"
  }
  inner_product_param {
    num_output: 4000
    bias_term: false
    weight_filler {
      type: "uniform"
      min: -0.08
      max: 0.08
    }
    axis: 2
  }
}
layer {
  name: "lstm2_gate_input_1"
  type: "Eltwise"
  bottom: "W_hc_h_0"
  bottom: "W_xc_x_1"
  top: "gate_input_1"
  eltwise_param {
    operation: SUM
  }
}
layer {
  name: "lstm2_unit_1"
  type: "LSTMUnit"
  bottom: "c_0"
  bottom: "gate_input_1"
  bottom: "cont_1"
  top: "c_1"
  top: "h_1"
}
layer {
  name: "lstm2_"
  type: "Split"
  bottom: "c_1"
  top: "c_T"
}
layer {
  name: "lstm2_h_concat"
  type: "Concat"
  bottom: "h_1"
  top: "h"
  concat_param {
    axis: 0
  }
}
layer {
  name: "h_pseudoloss"
  type: "Reduction"
  bottom: "h"
  top: "h_pseudoloss"
  loss_weight: 1
}
I0925 22:33:49.206259  2282 layer_factory.hpp:77] Creating layer lstm2_
I0925 22:33:49.206282  2282 net.cpp:91] Creating Layer lstm2_
I0925 22:33:49.206296  2282 net.cpp:399] lstm2_ -> x
I0925 22:33:49.206317  2282 net.cpp:399] lstm2_ -> cont
I0925 22:33:49.206410  2282 net.cpp:141] Setting up lstm2_
I0925 22:33:49.206429  2282 net.cpp:148] Top shape: 1 1 1501 (1501)
I0925 22:33:49.206445  2282 net.cpp:148] Top shape: 1 1 (1)
I0925 22:33:49.206454  2282 net.cpp:156] Memory required for data: 6008
I0925 22:33:49.206464  2282 layer_factory.hpp:77] Creating layer lstm2_
I0925 22:33:49.206481  2282 net.cpp:91] Creating Layer lstm2_
I0925 22:33:49.206501  2282 net.cpp:399] lstm2_ -> c_0
I0925 22:33:49.206521  2282 net.cpp:399] lstm2_ -> h_0
I0925 22:33:49.206624  2282 net.cpp:141] Setting up lstm2_
I0925 22:33:49.206645  2282 net.cpp:148] Top shape: 1 1 1000 (1000)
I0925 22:33:49.206658  2282 net.cpp:148] Top shape: 1 1 1000 (1000)
I0925 22:33:49.206667  2282 net.cpp:156] Memory required for data: 14008
I0925 22:33:49.206676  2282 layer_factory.hpp:77] Creating layer lstm2_cont_slice
I0925 22:33:49.206692  2282 net.cpp:91] Creating Layer lstm2_cont_slice
I0925 22:33:49.206702  2282 net.cpp:425] lstm2_cont_slice <- cont
I0925 22:33:49.206717  2282 net.cpp:399] lstm2_cont_slice -> cont_1
I0925 22:33:49.206776  2282 net.cpp:141] Setting up lstm2_cont_slice
I0925 22:33:49.206795  2282 net.cpp:148] Top shape: 1 1 (1)
I0925 22:33:49.206804  2282 net.cpp:156] Memory required for data: 14012
I0925 22:33:49.206815  2282 layer_factory.hpp:77] Creating layer cont_1_lstm2_cont_slice_0_split
I0925 22:33:49.206828  2282 net.cpp:91] Creating Layer cont_1_lstm2_cont_slice_0_split
I0925 22:33:49.206848  2282 net.cpp:425] cont_1_lstm2_cont_slice_0_split <- cont_1
I0925 22:33:49.206863  2282 net.cpp:399] cont_1_lstm2_cont_slice_0_split -> cont_1_lstm2_cont_slice_0_split_0
I0925 22:33:49.206881  2282 net.cpp:399] cont_1_lstm2_cont_slice_0_split -> cont_1_lstm2_cont_slice_0_split_1
I0925 22:33:49.206964  2282 net.cpp:141] Setting up cont_1_lstm2_cont_slice_0_split
I0925 22:33:49.206981  2282 net.cpp:148] Top shape: 1 1 (1)
I0925 22:33:49.206995  2282 net.cpp:148] Top shape: 1 1 (1)
I0925 22:33:49.207003  2282 net.cpp:156] Memory required for data: 14020
I0925 22:33:49.207012  2282 layer_factory.hpp:77] Creating layer lstm2_x_transform
I0925 22:33:49.207031  2282 net.cpp:91] Creating Layer lstm2_x_transform
I0925 22:33:49.207041  2282 net.cpp:425] lstm2_x_transform <- x
I0925 22:33:49.207061  2282 net.cpp:399] lstm2_x_transform -> W_xc_x
I0925 22:33:49.204814  2280 net.cpp:141] Setting up lstm1_transform_1
I0925 22:33:49.207269  2280 net.cpp:148] Top shape: 1 1 4000 (4000)
I0925 22:33:49.207279  2280 net.cpp:156] Memory required for data: 62016
I0925 22:33:49.207296  2280 layer_factory.hpp:77] Creating layer lstm1_gate_input_1
I0925 22:33:49.207312  2280 net.cpp:91] Creating Layer lstm1_gate_input_1
I0925 22:33:49.207321  2280 net.cpp:425] lstm1_gate_input_1 <- W_hc_h_0
I0925 22:33:49.207331  2280 net.cpp:425] lstm1_gate_input_1 <- W_xc_x_1
I0925 22:33:49.207348  2280 net.cpp:399] lstm1_gate_input_1 -> gate_input_1
I0925 22:33:49.204756  2320 net.cpp:91] Creating Layer lstm1_gate_input_1
I0925 22:33:49.207414  2320 net.cpp:425] lstm1_gate_input_1 <- W_hc_h_0
I0925 22:33:49.207440  2320 net.cpp:425] lstm1_gate_input_1 <- W_xc_x_1
I0925 22:33:49.207458  2320 net.cpp:399] lstm1_gate_input_1 -> gate_input_1
I0925 22:33:49.223510  2280 net.cpp:141] Setting up lstm1_gate_input_1
I0925 22:33:49.223608  2280 net.cpp:148] Top shape: 1 1 4000 (4000)
I0925 22:33:49.223619  2280 net.cpp:156] Memory required for data: 78016
I0925 22:33:49.223645  2280 layer_factory.hpp:77] Creating layer lstm1_unit_1
I0925 22:33:49.223670  2280 net.cpp:91] Creating Layer lstm1_unit_1
I0925 22:33:49.223681  2280 net.cpp:425] lstm1_unit_1 <- c_0
I0925 22:33:49.223708  2280 net.cpp:425] lstm1_unit_1 <- gate_input_1
I0925 22:33:49.223721  2280 net.cpp:425] lstm1_unit_1 <- cont_1_lstm1_cont_slice_0_split_1
I0925 22:33:49.223736  2280 net.cpp:399] lstm1_unit_1 -> c_1
I0925 22:33:49.223769  2280 net.cpp:399] lstm1_unit_1 -> h_1
I0925 22:33:49.223938  2280 net.cpp:141] Setting up lstm1_unit_1
I0925 22:33:49.223958  2280 net.cpp:148] Top shape: 1 1 1000 (1000)
I0925 22:33:49.223968  2280 net.cpp:148] Top shape: 1 1 1000 (1000)
I0925 22:33:49.223975  2280 net.cpp:156] Memory required for data: 86016
I0925 22:33:49.223996  2280 layer_factory.hpp:77] Creating layer lstm1_
I0925 22:33:49.224011  2280 net.cpp:91] Creating Layer lstm1_
I0925 22:33:49.224020  2280 net.cpp:425] lstm1_ <- c_1
I0925 22:33:49.224031  2280 net.cpp:399] lstm1_ -> c_T
I0925 22:33:49.224097  2280 net.cpp:141] Setting up lstm1_
I0925 22:33:49.224128  2280 net.cpp:148] Top shape: 1 1 1000 (1000)
I0925 22:33:49.224135  2280 net.cpp:156] Memory required for data: 90016
I0925 22:33:49.224144  2280 layer_factory.hpp:77] Creating layer lstm1_h_concat
I0925 22:33:49.224179  2280 net.cpp:91] Creating Layer lstm1_h_concat
I0925 22:33:49.224190  2280 net.cpp:425] lstm1_h_concat <- h_1
I0925 22:33:49.224203  2280 net.cpp:399] lstm1_h_concat -> h
I0925 22:33:49.224285  2280 net.cpp:141] Setting up lstm1_h_concat
I0925 22:33:49.224301  2280 net.cpp:148] Top shape: 1 1 1000 (1000)
I0925 22:33:49.224308  2280 net.cpp:156] Memory required for data: 94016
I0925 22:33:49.224313  2280 layer_factory.hpp:77] Creating layer h_pseudoloss
I0925 22:33:49.224323  2280 net.cpp:91] Creating Layer h_pseudoloss
I0925 22:33:49.224328  2280 net.cpp:425] h_pseudoloss <- h
I0925 22:33:49.224339  2280 net.cpp:399] h_pseudoloss -> h_pseudoloss
I0925 22:33:49.224400  2320 net.cpp:141] Setting up lstm1_gate_input_1
I0925 22:33:49.224442  2320 net.cpp:148] Top shape: 1 1 4000 (4000)
I0925 22:33:49.224452  2320 net.cpp:156] Memory required for data: 78016
I0925 22:33:49.224463  2320 layer_factory.hpp:77] Creating layer lstm1_unit_1
I0925 22:33:49.224485  2320 net.cpp:91] Creating Layer lstm1_unit_1
I0925 22:33:49.224496  2320 net.cpp:425] lstm1_unit_1 <- c_0
I0925 22:33:49.224514  2320 net.cpp:425] lstm1_unit_1 <- gate_input_1
I0925 22:33:49.224516  2294 net.cpp:141] Setting up embedding
I0925 22:33:49.224524  2320 net.cpp:425] lstm1_unit_1 <- cont_1_lstm1_cont_slice_0_split_1
I0925 22:33:49.224537  2294 net.cpp:148] Top shape: 1 1 500 (500)
I0925 22:33:49.224539  2320 net.cpp:399] lstm1_unit_1 -> c_1
I0925 22:33:49.224545  2294 net.cpp:156] Memory required for data: 22408
I0925 22:33:49.224558  2294 layer_factory.hpp:77] Creating layer lstm1
I0925 22:33:49.224560  2320 net.cpp:399] lstm1_unit_1 -> h_1
I0925 22:33:49.224575  2294 net.cpp:91] Creating Layer lstm1
I0925 22:33:49.224583  2294 net.cpp:425] lstm1 <- embedded_input_frames
…
I0925 22:33:49.224727  2280 net.cpp:217] lstm1_gate_input_1 needs backward computation.
I0925 22:33:49.224735  2280 net.cpp:217] lstm1_transform_1 needs backward computation.
I0925 22:33:49.224745  2280 net.cpp:219] lstm1_h_conted_0 does not need backward computation.
I0925 22:33:49.224756  2280 net.cpp:217] lstm1_W_xc_x_slice needs backward computation.
I0925 22:33:49.224766  2280 net.cpp:217] lstm1_x_transform needs backward computation.
I0925 22:33:49.224769  2320 net.cpp:141] Setting up lstm1_unit_1
I0925 22:33:49.224774  2280 net.cpp:219] cont_1_lstm1_cont_slice_0_split does not need backward computation.
I0925 22:33:49.224793  2320 net.cpp:148] Top shape: 1 1 1000 (1000)
I0925 22:33:49.224797  2280 net.cpp:219] lstm1_cont_slice does not need backward computation.
I0925 22:33:49.224805  2320 net.cpp:148] Top shape: 1 1 1000 (1000)
I0925 22:33:49.224809  2280 net.cpp:219] lstm1_ does not need backward computation.
I0925 22:33:49.224814  2320 net.cpp:156] Memory required for data: 86016
I0925 22:33:49.224818  2280 net.cpp:219] lstm1_ does not need backward computation.
I0925 22:33:49.224825  2320 layer_factory.hpp:77] Creating layer lstm1_
I0925 22:33:49.224827  2280 net.cpp:261] This network produces output c_T
I0925 22:33:49.224845  2320 net.cpp:91] Creating Layer lstm1_
I0925 22:33:49.224861  2320 net.cpp:425] lstm1_ <- c_1
I0925 22:33:49.224848  2280 net.cpp:261] This network produces output h_pseudoloss
I0925 22:33:49.224875  2320 net.cpp:399] lstm1_ -> c_T
I0925 22:33:49.224897  2280 net.cpp:274] Network initialization done.
I0925 22:33:49.224989  2280 recurrent_layer.cpp:150] Adding parameter 0: W_xc
I0925 22:33:49.225000  2280 recurrent_layer.cpp:150] Adding parameter 1: b_c
I0925 22:33:49.225008  2280 recurrent_layer.cpp:150] Adding parameter 2: W_hc
I0925 22:33:49.225102  2294 net.cpp:49] Initializing net from parameters: 
layer {
  name: "lstm1_"
  type: "Input"
  top: "x"
  top: "cont"
  input_param {
    shape {
      dim: 1
      dim: 1
      dim: 500
    }
    shape {
      dim: 1
      dim: 1
    }
  }
}
layer {
  name: "lstm1_"
  type: "Input"
  top: "c_0"
  top: "h_0"
  input_param {
    shape {
      dim: 1
      dim: 1
      dim: 1000
    }
    shape {
      dim: 1
      dim: 1
      dim: 1000
    }
  }
}
layer {
  name: "lstm1_cont_slice"
  type: "Slice"
  bottom: "cont"
  top: "cont_1"
  slice_param {
    axis: 0
  }
}
layer {
  name: "lstm1_x_transform"
  type: "InnerProduct"
  bottom: "x"
  top: "W_xc_x"
  param {
    name: "W_xc"
  }
  param {
    name: "b_c"
  }
  propagate_down: true
  inner_product_param {
    num_output: 4000
    bias_term: true
    weight_filler {
      type: "uniform"
      min: -0.08
      max: 0.08
    }
    bias_filler {
      type: "constant"
      value: 0
    }
    axis: 2
  }
}
layer {
  name: "lstm1_W_xc_x_slice"
  type: "Slice"
  bottom: "W_xc_x"
  top: "W_xc_x_1"
  slice_param {
    axis: 0
  }
}
layer {
  name: "lstm1_h_conted_0"
  type: "Scale"
  bottom: "h_0"
  bottom: "cont_1"
  top: "h_conted_0"
  scale_param {
    axis: 0
  }
}
layer {
  name: "lstm1_transform_1"
  type: "InnerProduct"
  bottom: "h_conted_0"
  top: "W_hc_h_0"
  param {
    name: "W_hc"
  }
  inner_product_param {
    num_output: 4000
    bias_term: false
    weight_filler {
      type: "uniform"
      min: -0.08
      max: 0.08
    }
    axis: 2
  }
}
layer {
  name: "lstm1_gate_input_1"
  type: "Eltwise"
  bottom: "W_hc_h_0"
  bottom: "W_xc_x_1"
  top: "gate_input_1"
  eltwise_param {
    operation: SUM
  }
}
layer {
  name: "lstm1_unit_1"
  type: "LSTMUnit"
  bottom: "c_0"
  bottom: "gate_input_1"
  bottom: "cont_1"
  top: "c_1"
  top: "h_1"
}
layer {
  name: "lstm1_"
  type: "Split"
  bottom: "c_1"
  top: "c_T"
}
layer {
  name: "lstm1_h_concat"
  type: "Concat"
  bottom: "h_1"
  top: "h"
  concat_param {
    axis: 0
  }
}
layer {
  name: "h_pseudoloss"
  type: "Reduction"
  bottom: "h"
  top: "h_pseudoloss"
  loss_weight: 1
}
I0925 22:33:49.225270  2294 layer_factory.hpp:77] Creating layer lstm1_
I0925 22:33:49.225291  2294 net.cpp:91] Creating Layer lstm1_
I0925 22:33:49.225303  2294 net.cpp:399] lstm1_ -> x
I0925 22:33:49.225322  2294 net.cpp:399] lstm1_ -> cont
I0925 22:33:49.226202  2320 net.cpp:141] Setting up lstm1_
I0925 22:33:49.226220  2320 net.cpp:148] Top shape: 1 1 1000 (1000)
I0925 22:33:49.226228  2320 net.cpp:156] Memory required for data: 90016
I0925 22:33:49.226238  2320 layer_factory.hpp:77] Creating layer lstm1_h_concat
I0925 22:33:49.226254  2320 net.cpp:91] Creating Layer lstm1_h_concat
I0925 22:33:49.226263  2320 net.cpp:425] lstm1_h_concat <- h_1
I0925 22:33:49.226276  2320 net.cpp:399] lstm1_h_concat -> h
I0925 22:33:49.226488  2320 net.cpp:141] Setting up lstm1_h_concat
I0925 22:33:49.226505  2320 net.cpp:148] Top shape: 1 1 1000 (1000)
I0925 22:33:49.226512  2320 net.cpp:156] Memory required for data: 94016
I0925 22:33:49.226521  2320 layer_factory.hpp:77] Creating layer h_pseudoloss
I0925 22:33:49.226527  2294 net.cpp:141] Setting up lstm1_
I0925 22:33:49.226536  2320 net.cpp:91] Creating Layer h_pseudoloss
I0925 22:33:49.226543  2294 net.cpp:148] Top shape: 1 1 500 (500)
I0925 22:33:49.226546  2320 net.cpp:425] h_pseudoloss <- h
I0925 22:33:49.226552  2294 net.cpp:148] Top shape: 1 1 (1)
I0925 22:33:49.226557  2294 net.cpp:156] Memory required for data: 2004
I0925 22:33:49.226558  2320 net.cpp:399] h_pseudoloss -> h_pseudoloss
I0925 22:33:49.226562  2294 layer_factory.hpp:77] Creating layer lstm1_
I0925 22:33:49.226577  2294 net.cpp:91] Creating Layer lstm1_
I0925 22:33:49.226615  2294 net.cpp:399] lstm1_ -> c_0
I0925 22:33:49.226631  2294 net.cpp:399] lstm1_ -> h_0
I0925 22:33:49.226716  2320 net.cpp:141] Setting up h_pseudoloss
I0925 22:33:49.226733  2320 net.cpp:148] Top shape: (1)
I0925 22:33:49.226742  2320 net.cpp:151]     with loss weight 1
I0925 22:33:49.226758  2320 net.cpp:156] Memory required for data: 94020
I0925 22:33:49.226768  2320 net.cpp:217] h_pseudoloss needs backward computation.
I0925 22:33:49.226775  2320 net.cpp:217] lstm1_h_concat needs backward computation.
I0925 22:33:49.226783  2320 net.cpp:219] lstm1_ does not need backward computation.
I0925 22:33:49.226790  2320 net.cpp:217] lstm1_unit_1 needs backward computation.
I0925 22:33:49.226801  2320 net.cpp:217] lstm1_gate_input_1 needs backward computation.
I0925 22:33:49.226790  2280 net.cpp:141] Setting up lstm1
I0925 22:33:49.226811  2320 net.cpp:217] lstm1_transform_1 needs backward computation.
I0925 22:33:49.226822  2320 net.cpp:219] lstm1_h_conted_0 does not need backward computation.
I0925 22:33:49.226827  2280 net.cpp:148] Top shape: 1 1 1000 (1000)
I0925 22:33:49.226833  2320 net.cpp:217] lstm1_W_xc_x_slice needs backward computation.
I0925 22:33:49.226837  2280 net.cpp:156] Memory required for data: 26408
I0925 22:33:49.226843  2320 net.cpp:217] lstm1_x_transform needs backward computation.
I0925 22:33:49.226853  2320 net.cpp:219] cont_1_lstm1_cont_slice_0_split does not need backward computation.
I0925 22:33:49.226864  2320 net.cpp:219] lstm1_cont_slice does not need backward computation.
I0925 22:33:49.226868  2280 layer_factory.hpp:77] Creating layer concat
I0925 22:33:49.226874  2320 net.cpp:219] lstm1_ does not need backward computation.
I0925 22:33:49.226883  2320 net.cpp:219] lstm1_ does not need backward computation.
I0925 22:33:49.226891  2280 net.cpp:91] Creating Layer concat
I0925 22:33:49.226891  2320 net.cpp:261] This network produces output c_T
I0925 22:33:49.226928  2280 net.cpp:425] concat <- lstm1
I0925 22:33:49.226934  2320 net.cpp:261] This network produces output h_pseudoloss
I0925 22:33:49.226943  2280 net.cpp:425] concat <- embedded_input_sentence
I0925 22:33:49.226955  2320 net.cpp:274] Network initialization done.
I0925 22:33:49.227015  2320 recurrent_layer.cpp:150] Adding parameter 0: W_xc
I0925 22:33:49.227021  2320 recurrent_layer.cpp:150] Adding parameter 1: b_c
I0925 22:33:49.227026  2320 recurrent_layer.cpp:150] Adding parameter 2: W_hc
I0925 22:33:49.227228  2314 net.cpp:141] Setting up lstm1_x_transform
I0925 22:33:49.227248  2314 net.cpp:148] Top shape: 1 1 4000 (4000)
I0925 22:33:49.227255  2314 net.cpp:156] Memory required for data: 26016
I0925 22:33:49.227275  2314 layer_factory.hpp:77] Creating layer lstm1_W_xc_x_slice
I0925 22:33:49.227291  2314 net.cpp:91] Creating Layer lstm1_W_xc_x_slice
I0925 22:33:49.227352  2320 net.cpp:141] Setting up lstm1
I0925 22:33:49.227368  2320 net.cpp:148] Top shape: 1 1 1000 (1000)
I0925 22:33:49.227376  2320 net.cpp:156] Memory required for data: 26408
I0925 22:33:49.227399  2320 layer_factory.hpp:77] Creating layer concat
I0925 22:33:49.227413  2320 net.cpp:91] Creating Layer concat
I0925 22:33:49.227424  2320 net.cpp:425] concat <- lstm1
I0925 22:33:49.227435  2320 net.cpp:425] concat <- embedded_input_sentence
I0925 22:33:49.227447  2320 net.cpp:425] concat <- reshaped_stage_indicator
I0925 22:33:49.227459  2320 net.cpp:399] concat -> lstm1_video_sequence
I0925 22:33:49.227494  2314 net.cpp:425] lstm1_W_xc_x_slice <- W_xc_x
I0925 22:33:49.227519  2314 net.cpp:399] lstm1_W_xc_x_slice -> W_xc_x_1
I0925 22:33:49.226955  2280 net.cpp:425] concat <- reshaped_stage_indicator
I0925 22:33:49.227558  2280 net.cpp:399] concat -> lstm1_video_sequence
I0925 22:33:49.228572  2320 net.cpp:141] Setting up concat
I0925 22:33:49.228593  2320 net.cpp:148] Top shape: 1 1 1501 (1501)
I0925 22:33:49.228602  2320 net.cpp:156] Memory required for data: 32412
I0925 22:33:49.228612  2320 layer_factory.hpp:77] Creating layer lstm2
I0925 22:33:49.228633  2320 net.cpp:91] Creating Layer lstm2
I0925 22:33:49.228644  2320 net.cpp:425] lstm2 <- lstm1_video_sequence
I0925 22:33:49.228655  2320 net.cpp:425] lstm2 <- cont_sentence_input_1_split_1
I0925 22:33:49.228670  2320 net.cpp:399] lstm2 -> lstm2
I0925 22:33:49.228689  2320 recurrent_layer.cpp:20] Initializing recurrent layer: assuming input batch contains 1 timesteps of 1 independent streams.
I0925 22:33:49.228852  2276 net.cpp:141] Setting up lstm1_transform_1
I0925 22:33:49.228874  2276 net.cpp:148] Top shape: 1 1 4000 (4000)
I0925 22:33:49.228883  2276 net.cpp:156] Memory required for data: 62016
I0925 22:33:49.228899  2276 layer_factory.hpp:77] Creating layer lstm1_gate_input_1
I0925 22:33:49.228919  2276 net.cpp:91] Creating Layer lstm1_gate_input_1
I0925 22:33:49.228929  2276 net.cpp:425] lstm1_gate_input_1 <- W_hc_h_0
I0925 22:33:49.228938  2276 net.cpp:425] lstm1_gate_input_1 <- W_xc_x_1
I0925 22:33:49.228950  2276 net.cpp:399] lstm1_gate_input_1 -> gate_input_1
I0925 22:33:49.228994  2280 net.cpp:141] Setting up concat
I0925 22:33:49.229013  2280 net.cpp:148] Top shape: 1 1 1501 (1501)
I0925 22:33:49.229019  2280 net.cpp:156] Memory required for data: 32412
I0925 22:33:49.229027  2280 layer_factory.hpp:77] Creating layer lstm2
I0925 22:33:49.229040  2280 net.cpp:91] Creating Layer lstm2
I0925 22:33:49.229048  2280 net.cpp:425] lstm2 <- lstm1_video_sequence
I0925 22:33:49.229048  2314 net.cpp:141] Setting up lstm1_W_xc_x_slice
I0925 22:33:49.229056  2280 net.cpp:425] lstm2 <- cont_sentence_input_1_split_1
I0925 22:33:49.229074  2314 net.cpp:148] Top shape: 1 1 4000 (4000)
I0925 22:33:49.229075  2280 net.cpp:399] lstm2 -> lstm2
I0925 22:33:49.229086  2314 net.cpp:156] Memory required for data: 42016
I0925 22:33:49.229096  2314 layer_factory.hpp:77] Creating layer lstm1_h_conted_0
I0925 22:33:49.229099  2280 recurrent_layer.cpp:20] Initializing recurrent layer: assuming input batch contains 1 timesteps of 1 independent streams.
I0925 22:33:49.229109  2320 net.cpp:49] Initializing net from parameters: 
layer {
  name: "lstm2_"
  type: "Input"
  top: "x"
  top: "cont"
  input_param {
    shape {
      dim: 1
      dim: 1
      dim: 1501
    }
    shape {
      dim: 1
      dim: 1
    }
  }
}
layer {
  name: "lstm2_"
  type: "Input"
  top: "c_0"
  top: "h_0"
  input_param {
    shape {
      dim: 1
      dim: 1
      dim: 1000
    }
    shape {
      dim: 1
      dim: 1
      dim: 1000
    }
  }
}
layer {
  name: "lstm2_cont_slice"
  type: "Slice"
  bottom: "cont"
  top: "cont_1"
  slice_param {
    axis: 0
  }
}
layer {
  name: "lstm2_x_transform"
  type: "InnerProduct"
  bottom: "x"
  top: "W_xc_x"
  param {
    name: "W_xc"
  }
  param {
    name: "b_c"
  }
  propagate_down: true
  inner_product_param {
    num_output: 4000
    bias_term: true
    weight_filler {
      type: "uniform"
      min: -0.08
      max: 0.08
    }
    bias_filler {
      type: "constant"
      value: 0
    }
    axis: 2
  }
}
layer {
  name: "lstm2_W_xc_x_slice"
  type: "Slice"
  bottom: "W_xc_x"
  top: "W_xc_x_1"
  slice_param {
    axis: 0
  }
}
layer {
  name: "lstm2_h_conted_0"
  type: "Scale"
  bottom: "h_0"
  bottom: "cont_1"
  top: "h_conted_0"
  scale_param {
    axis: 0
  }
}
layer {
  name: "lstm2_transform_1"
  type: "InnerProduct"
  bottom: "h_conted_0"
  top: "W_hc_h_0"
  param {
    name: "W_hc"
  }
  inner_product_param {
    num_output: 4000
    bias_term: false
    weight_filler {
      type: "uniform"
      min: -0.08
      max: 0.08
    }
    axis: 2
  }
}
layer {
  name: "lstm2_gate_input_1"
  type: "Eltwise"
  bottom: "W_hc_h_0"
  bottom: "W_xc_x_1"
  top: "gate_input_1"
  eltwise_param {
    operation: SUM
  }
}
layer {
  name: "lstm2_unit_1"
  type: "LSTMUnit"
  bottom: "c_0"
  bottom: "gate_input_1"
  bottom: "cont_1"
  top: "c_1"
  top: "h_1"
}
layer {
  name: "lstm2_"
  type: "Split"
  bottom: "c_1"
  top: "c_T"
}
layer {
  name: "lstm2_h_concat"
  type: "Concat"
  bottom: "h_1"
  top: "h"
  concat_param {
    axis: 0
  }
}
layer {
  name: "h_pseudoloss"
  type: "Reduction"
  bottom: "h"
  top: "h_pseudoloss"
  loss_weight: 1
}
I0925 22:33:49.229112  2314 net.cpp:91] Creating Layer lstm1_h_conted_0
I0925 22:33:49.229121  2276 net.cpp:141] Setting up lstm1_gate_input_1
I0925 22:33:49.229128  2314 net.cpp:425] lstm1_h_conted_0 <- h_0
I0925 22:33:49.229138  2276 net.cpp:148] Top shape: 1 1 4000 (4000)
I0925 22:33:49.229154  2276 net.cpp:156] Memory required for data: 78016
I0925 22:33:49.229194  2276 layer_factory.hpp:77] Creating layer lstm1_unit_1
I0925 22:33:49.229228  2294 net.cpp:141] Setting up lstm1_
I0925 22:33:49.229241  2320 layer_factory.hpp:77] Creating layer lstm2_
I0925 22:33:49.229140  2314 net.cpp:425] lstm1_h_conted_0 <- cont_1_lstm1_cont_slice_0_split_0
I0925 22:33:49.229245  2276 net.cpp:91] Creating Layer lstm1_unit_1
I0925 22:33:49.229271  2276 net.cpp:425] lstm1_unit_1 <- c_0
I0925 22:33:49.229274  2320 net.cpp:91] Creating Layer lstm2_
I0925 22:33:49.229246  2294 net.cpp:148] Top shape: 1 1 1000 (1000)
I0925 22:33:49.229282  2276 net.cpp:425] lstm1_unit_1 <- gate_input_1
I0925 22:33:49.229297  2294 net.cpp:148] Top shape: 1 1 1000 (1000)
I0925 22:33:49.229303  2276 net.cpp:425] lstm1_unit_1 <- cont_1_lstm1_cont_slice_0_split_1
I0925 22:33:49.229313  2294 net.cpp:156] Memory required for data: 10004
I0925 22:33:49.229295  2320 net.cpp:399] lstm2_ -> x
I0925 22:33:49.229326  2294 layer_factory.hpp:77] Creating layer lstm1_cont_slice
I0925 22:33:49.229356  2320 net.cpp:399] lstm2_ -> cont
I0925 22:33:49.229327  2276 net.cpp:399] lstm1_unit_1 -> c_1
I0925 22:33:49.229364  2294 net.cpp:91] Creating Layer lstm1_cont_slice
I0925 22:33:49.229379  2276 net.cpp:399] lstm1_unit_1 -> h_1
I0925 22:33:49.229275  2314 net.cpp:399] lstm1_h_conted_0 -> h_conted_0
I0925 22:33:49.229406  2280 net.cpp:49] Initializing net from parameters: 
layer {
  name: "lstm2_"
  type: "Input"
  top: "x"
  top: "cont"
  input_param {
    shape {
      dim: 1
      dim: 1
      dim: 1501
    }
    shape {
      dim: 1
      dim: 1
    }
  }
}
layer {
  name: "lstm2_"
  type: "Input"
  top: "c_0"
  top: "h_0"
  input_param {
    shape {
      dim: 1
      dim: 1
      dim: 1000
    }
    shape {
      dim: 1
      dim: 1
      dim: 1000
    }
  }
}
layer {
  name: "lstm2_cont_slice"
  type: "Slice"
  bottom: "cont"
  top: "cont_1"
  slice_param {
    axis: 0
  }
}
layer {
  name: "lstm2_x_transform"
  type: "InnerProduct"
  bottom: "x"
  top: "W_xc_x"
  param {
    name: "W_xc"
  }
  param {
    name: "b_c"
  }
  propagate_down: true
  inner_product_param {
    num_output: 4000
    bias_term: true
    weight_filler {
      type: "uniform"
      min: -0.08
      max: 0.08
    }
    bias_filler {
      type: "constant"
      value: 0
    }
    axis: 2
  }
}
layer {
  name: "lstm2_W_xc_x_slice"
  type: "Slice"
  bottom: "W_xc_x"
  top: "W_xc_x_1"
  slice_param {
    axis: 0
  }
}
layer {
  name: "lstm2_h_conted_0"
  type: "Scale"
  bottom: "h_0"
  bottom: "cont_1"
  top: "h_conted_0"
  scale_param {
    axis: 0
  }
}
layer {
  name: "lstm2_transform_1"
  type: "InnerProduct"
  bottom: "h_conted_0"
  top: "W_hc_h_0"
  param {
    name: "W_hc"
  }
  inner_product_param {
    num_output: 4000
    bias_term: false
    weight_filler {
      type: "uniform"
      min: -0.08
      max: 0.08
    }
    axis: 2
  }
}
layer {
  name: "lstm2_gate_input_1"
  type: "Eltwise"
  bottom: "W_hc_h_0"
  bottom: "W_xc_x_1"
  top: "gate_input_1"
  eltwise_param {
    operation: SUM
  }
}
layer {
  name: "lstm2_unit_1"
  type: "LSTMUnit"
  bottom: "c_0"
  bottom: "gate_input_1"
  bottom: "cont_1"
  top: "c_1"
  top: "h_1"
}
layer {
  name: "lstm2_"
  type: "Split"
  bottom: "c_1"
  top: "c_T"
}
layer {
  name: "lstm2_h_concat"
  type: "Concat"
  bottom: "h_1"
  top: "h"
  concat_param {
    axis: 0
  }
}
layer {
  name: "h_pseudoloss"
  type: "Reduction"
  bottom: "h"
  top: "h_pseudoloss"
  loss_weight: 1
}
I0925 22:33:49.229380  2294 net.cpp:425] lstm1_cont_slice <- cont
I0925 22:33:49.229440  2294 net.cpp:399] lstm1_cont_slice -> cont_1
I0925 22:33:49.229537  2280 layer_factory.hpp:77] Creating layer lstm2_
I0925 22:33:49.229555  2280 net.cpp:91] Creating Layer lstm2_
I0925 22:33:49.229565  2280 net.cpp:399] lstm2_ -> x
I0925 22:33:49.229583  2280 net.cpp:399] lstm2_ -> cont
I0925 22:33:49.231976  2276 net.cpp:141] Setting up lstm1_unit_1
I0925 22:33:49.232007  2276 net.cpp:148] Top shape: 1 1 1000 (1000)
I0925 22:33:49.232018  2276 net.cpp:148] Top shape: 1 1 1000 (1000)
I0925 22:33:49.232025  2276 net.cpp:156] Memory required for data: 86016
I0925 22:33:49.232033  2276 layer_factory.hpp:77] Creating layer lstm1_
I0925 22:33:49.232046  2276 net.cpp:91] Creating Layer lstm1_
I0925 22:33:49.232065  2276 net.cpp:425] lstm1_ <- c_1
I0925 22:33:49.232064  2280 net.cpp:141] Setting up lstm2_
I0925 22:33:49.232077  2276 net.cpp:399] lstm1_ -> c_T
I0925 22:33:49.232084  2280 net.cpp:148] Top shape: 1 1 1501 (1501)
I0925 22:33:49.232095  2280 net.cpp:148] Top shape: 1 1 (1)
I0925 22:33:49.232102  2280 net.cpp:156] Memory required for data: 6008
I0925 22:33:49.232110  2280 layer_factory.hpp:77] Creating layer lstm2_
I0925 22:33:49.232125  2280 net.cpp:91] Creating Layer lstm2_
I0925 22:33:49.232136  2280 net.cpp:399] lstm2_ -> c_0
I0925 22:33:49.232152  2280 net.cpp:399] lstm2_ -> h_0
I0925 22:33:49.232158  2276 net.cpp:141] Setting up lstm1_
I0925 22:33:49.232183  2276 net.cpp:148] Top shape: 1 1 1000 (1000)
I0925 22:33:49.232190  2276 net.cpp:156] Memory required for data: 90016
I0925 22:33:49.232198  2276 layer_factory.hpp:77] Creating layer lstm1_h_concat
I0925 22:33:49.232210  2276 net.cpp:91] Creating Layer lstm1_h_concat
I0925 22:33:49.232231  2276 net.cpp:425] lstm1_h_concat <- h_1
I0925 22:33:49.232240  2280 net.cpp:141] Setting up lstm2_
I0925 22:33:49.232244  2276 net.cpp:399] lstm1_h_concat -> h
I0925 22:33:49.232260  2280 net.cpp:148] Top shape: 1 1 1000 (1000)
I0925 22:33:49.232270  2280 net.cpp:148] Top shape: 1 1 1000 (1000)
I0925 22:33:49.232277  2280 net.cpp:156] Memory required for data: 14008
I0925 22:33:49.232285  2280 layer_factory.hpp:77] Creating layer lstm2_cont_slice
I0925 22:33:49.232296  2280 net.cpp:91] Creating Layer lstm2_cont_slice
I0925 22:33:49.232305  2280 net.cpp:425] lstm2_cont_slice <- cont
I0925 22:33:49.232319  2280 net.cpp:399] lstm2_cont_slice -> cont_1
I0925 22:33:49.232328  2276 net.cpp:141] Setting up lstm1_h_concat
I0925 22:33:49.232352  2276 net.cpp:148] Top shape: 1 1 1000 (1000)
I0925 22:33:49.232359  2276 net.cpp:156] Memory required for data: 94016
I0925 22:33:49.232367  2276 layer_factory.hpp:77] Creating layer h_pseudoloss
I0925 22:33:49.232381  2280 net.cpp:141] Setting up lstm2_cont_slice
I0925 22:33:49.232383  2276 net.cpp:91] Creating Layer h_pseudoloss
I0925 22:33:49.232398  2280 net.cpp:148] Top shape: 1 1 (1)
I0925 22:33:49.232405  2276 net.cpp:425] h_pseudoloss <- h
I0925 22:33:49.232406  2280 net.cpp:156] Memory required for data: 14012
I0925 22:33:49.232424  2276 net.cpp:399] h_pseudoloss -> h_pseudoloss
I0925 22:33:49.232429  2280 layer_factory.hpp:77] Creating layer cont_1_lstm2_cont_slice_0_split
I0925 22:33:49.232442  2280 net.cpp:91] Creating Layer cont_1_lstm2_cont_slice_0_split
I0925 22:33:49.232450  2280 net.cpp:425] cont_1_lstm2_cont_slice_0_split <- cont_1
I0925 22:33:49.232460  2280 net.cpp:399] cont_1_lstm2_cont_slice_0_split -> cont_1_lstm2_cont_slice_0_split_0
I0925 22:33:49.232475  2280 net.cpp:399] cont_1_lstm2_cont_slice_0_split -> cont_1_lstm2_cont_slice_0_split_1
I0925 22:33:49.232601  2276 net.cpp:141] Setting up h_pseudoloss
I0925 22:33:49.232630  2276 net.cpp:148] Top shape: (1)
I0925 22:33:49.232637  2276 net.cpp:151]     with loss weight 1
I0925 22:33:49.232652  2276 net.cpp:156] Memory required for data: 94020
I0925 22:33:49.232661  2276 net.cpp:217] h_pseudoloss needs backward computation.
I0925 22:33:49.232664  2294 net.cpp:141] Setting up lstm1_cont_slice
I0925 22:33:49.232668  2276 net.cpp:217] lstm1_h_concat needs backward computation.
I0925 22:33:49.232689  2294 net.cpp:148] Top shape: 1 1 (1)
I0925 22:33:49.232693  2276 net.cpp:219] lstm1_ does not need backward computation.
I0925 22:33:49.232698  2294 net.cpp:156] Memory required for data: 10008
I0925 22:33:49.232702  2276 net.cpp:217] lstm1_unit_1 needs backward computation.
I0925 22:33:49.232707  2294 layer_factory.hpp:77] Creating layer cont_1_lstm1_cont_slice_0_split
I0925 22:33:49.232712  2276 net.cpp:217] lstm1_gate_input_1 needs backward computation.
I0925 22:33:49.232724  2276 net.cpp:217] lstm1_transform_1 needs backward computation.
I0925 22:33:49.232729  2280 net.cpp:141] Setting up cont_1_lstm2_cont_slice_0_split
I0925 22:33:49.232735  2294 net.cpp:91] Creating Layer cont_1_lstm1_cont_slice_0_split
I0925 22:33:49.232743  2276 net.cpp:219] lstm1_h_conted_0 does not need backward computation.
I0925 22:33:49.232748  2294 net.cpp:425] cont_1_lstm1_cont_slice_0_split <- cont_1
I0925 22:33:49.232760  2294 net.cpp:399] cont_1_lstm1_cont_slice_0_split -> cont_1_lstm1_cont_slice_0_split_0
I0925 22:33:49.232763  2276 net.cpp:217] lstm1_W_xc_x_slice needs backward computation.
I0925 22:33:49.232772  2276 net.cpp:217] lstm1_x_transform needs backward computation.
I0925 22:33:49.232774  2294 net.cpp:399] cont_1_lstm1_cont_slice_0_split -> cont_1_lstm1_cont_slice_0_split_1
I0925 22:33:49.232781  2276 net.cpp:219] cont_1_lstm1_cont_slice_0_split does not need backward computation.
I0925 22:33:49.232745  2280 net.cpp:148] Top shape: 1 1 (1)
I0925 22:33:49.232801  2276 net.cpp:219] lstm1_cont_slice does not need backward computation.
I0925 22:33:49.232811  2276 net.cpp:219] lstm1_ does not need backward computation.
I0925 22:33:49.232811  2280 net.cpp:148] Top shape: 1 1 (1)
I0925 22:33:49.232818  2276 net.cpp:219] lstm1_ does not need backward computation.
I0925 22:33:49.232821  2280 net.cpp:156] Memory required for data: 14020
I0925 22:33:49.232825  2276 net.cpp:261] This network produces output c_T
I0925 22:33:49.232831  2280 layer_factory.hpp:77] Creating layer lstm2_x_transform
I0925 22:33:49.232834  2276 net.cpp:261] This network produces output h_pseudoloss
I0925 22:33:49.232849  2280 net.cpp:91] Creating Layer lstm2_x_transform
I0925 22:33:49.232858  2280 net.cpp:425] lstm2_x_transform <- x
I0925 22:33:49.232868  2294 net.cpp:141] Setting up cont_1_lstm1_cont_slice_0_split
I0925 22:33:49.232889  2294 net.cpp:148] Top shape: 1 1 (1)
I0925 22:33:49.232903  2294 net.cpp:148] Top shape: 1 1 (1)
I0925 22:33:49.232872  2276 net.cpp:274] Network initialization done.
I0925 22:33:49.232910  2294 net.cpp:156] Memory required for data: 10016
I0925 22:33:49.232919  2294 layer_factory.hpp:77] Creating layer lstm1_x_transform
I0925 22:33:49.232939  2294 net.cpp:91] Creating Layer lstm1_x_transform
I0925 22:33:49.232947  2294 net.cpp:425] lstm1_x_transform <- x
I0925 22:33:49.232960  2294 net.cpp:399] lstm1_x_transform -> W_xc_x
I0925 22:33:49.232980  2276 recurrent_layer.cpp:150] Adding parameter 0: W_xc
I0925 22:33:49.232990  2276 recurrent_layer.cpp:150] Adding parameter 1: b_c
I0925 22:33:49.232996  2314 net.cpp:141] Setting up lstm1_h_conted_0
I0925 22:33:49.232998  2276 recurrent_layer.cpp:150] Adding parameter 2: W_hc
I0925 22:33:49.232872  2280 net.cpp:399] lstm2_x_transform -> W_xc_x
I0925 22:33:49.233014  2314 net.cpp:148] Top shape: 1 1 1000 (1000)
I0925 22:33:49.233052  2320 net.cpp:141] Setting up lstm2_
I0925 22:33:49.233059  2314 net.cpp:156] Memory required for data: 46016
I0925 22:33:49.233079  2320 net.cpp:148] Top shape: 1 1 1501 (1501)
I0925 22:33:49.233083  2314 layer_factory.hpp:77] Creating layer lstm1_transform_1
I0925 22:33:49.233093  2320 net.cpp:148] Top shape: 1 1 (1)
I0925 22:33:49.233098  2314 net.cpp:91] Creating Layer lstm1_transform_1
I0925 22:33:49.233103  2320 net.cpp:156] Memory required for data: 6008
I0925 22:33:49.233108  2314 net.cpp:425] lstm1_transform_1 <- h_conted_0
I0925 22:33:49.233114  2320 layer_factory.hpp:77] Creating layer lstm2_
I0925 22:33:49.233126  2314 net.cpp:399] lstm1_transform_1 -> W_hc_h_0
I0925 22:33:49.233132  2320 net.cpp:91] Creating Layer lstm2_
I0925 22:33:49.233146  2320 net.cpp:399] lstm2_ -> c_0
I0925 22:33:49.233165  2320 net.cpp:399] lstm2_ -> h_0
I0925 22:33:49.242846  2276 net.cpp:141] Setting up lstm1
I0925 22:33:49.242909  2276 net.cpp:148] Top shape: 1 1 1000 (1000)
I0925 22:33:49.242919  2276 net.cpp:156] Memory required for data: 26408
I0925 22:33:49.242962  2276 layer_factory.hpp:77] Creating layer concat
I0925 22:33:49.242987  2276 net.cpp:91] Creating Layer concat
I0925 22:33:49.243010  2276 net.cpp:425] concat <- lstm1
I0925 22:33:49.243023  2276 net.cpp:425] concat <- embedded_input_sentence
I0925 22:33:49.243033  2276 net.cpp:425] concat <- reshaped_stage_indicator
I0925 22:33:49.243046  2276 net.cpp:399] concat -> lstm1_video_sequence
I0925 22:33:49.243136  2276 net.cpp:141] Setting up concat
I0925 22:33:49.243151  2276 net.cpp:148] Top shape: 1 1 1501 (1501)
I0925 22:33:49.243157  2276 net.cpp:156] Memory required for data: 32412
I0925 22:33:49.243165  2276 layer_factory.hpp:77] Creating layer lstm2
I0925 22:33:49.243197  2276 net.cpp:91] Creating Layer lstm2
I0925 22:33:49.243206  2276 net.cpp:425] lstm2 <- lstm1_video_sequence
I0925 22:33:49.243214  2276 net.cpp:425] lstm2 <- cont_sentence_input_1_split_1
I0925 22:33:49.243237  2276 net.cpp:399] lstm2 -> lstm2
I0925 22:33:49.243255  2276 recurrent_layer.cpp:20] Initializing recurrent layer: assuming input batch contains 1 timesteps of 1 independent streams.
I0925 22:33:49.243772  2276 net.cpp:49] Initializing net from parameters: 
layer {
  name: "lstm2_"
  type: "Input"
  top: "x"
  top: "cont"
  input_param {
    shape {
      dim: 1
      dim: 1
      dim: 1501
    }
    shape {
      dim: 1
      dim: 1
    }
  }
}
layer {
  name: "lstm2_"
  type: "Input"
  top: "c_0"
  top: "h_0"
  input_param {
    shape {
      dim: 1
      dim: 1
      dim: 1000
    }
    shape {
      dim: 1
      dim: 1
      dim: 1000
    }
  }
}
layer {
  name: "lstm2_cont_slice"
  type: "Slice"
  bottom: "cont"
  top: "cont_1"
  slice_param {
    axis: 0
  }
}
layer {
  name: "lstm2_x_transform"
  type: "InnerProduct"
  bottom: "x"
  top: "W_xc_x"
  param {
    name: "W_xc"
  }
  param {
    name: "b_c"
  }
  propagate_down: true
  inner_product_param {
    num_output: 4000
    bias_term: true
    weight_filler {
      type: "uniform"
      min: -0.08
      max: 0.08
    }
    bias_filler {
      type: "constant"
      value: 0
    }
    axis: 2
  }
}
layer {
  name: "lstm2_W_xc_x_slice"
  type: "Slice"
  bottom: "W_xc_x"
  top: "W_xc_x_1"
  slice_param {
    axis: 0
  }
}
layer {
  name: "lstm2_h_conted_0"
  type: "Scale"
  bottom: "h_0"
  bottom: "cont_1"
  top: "h_conted_0"
  scale_param {
    axis: 0
  }
}
layer {
  name: "lstm2_transform_1"
  type: "InnerProduct"
  bottom: "h_conted_0"
  top: "W_hc_h_0"
  param {
    name: "W_hc"
  }
  inner_product_param {
    num_output: 4000
    bias_term: false
    weight_filler {
      type: "uniform"
      min: -0.08
      max: 0.08
    }
    axis: 2
  }
}
layer {
  name: "lstm2_gate_input_1"
  type: "Eltwise"
  bottom: "W_hc_h_0"
  bottom: "W_xc_x_1"
  top: "gate_input_1"
  eltwise_param {
    operation: SUM
  }
}
layer {
  name: "lstm2_unit_1"
  type: "LSTMUnit"
  bottom: "c_0"
  bottom: "gate_input_1"
  bottom: "cont_1"
  top: "c_1"
  top: "h_1"
}
layer {
  name: "lstm2_"
  type: "Split"
  bottom: "c_1"
  top: "c_T"
}
layer {
  name: "lstm2_h_concat"
  type: "Concat"
  bottom: "h_1"
  top: "h"
  concat_param {
    axis: 0
  }
}
layer {
  name: "h_pseudoloss"
  type: "Reduction"
  bottom: "h"
  top: "h_pseudoloss"
  loss_weight: 1
}
I0925 22:33:49.243938  2276 layer_factory.hpp:77] Creating layer lstm2_
I0925 22:33:49.243968  2276 net.cpp:91] Creating Layer lstm2_
I0925 22:33:49.243980  2276 net.cpp:399] lstm2_ -> x
I0925 22:33:49.243998  2276 net.cpp:399] lstm2_ -> cont
I0925 22:33:49.244105  2276 net.cpp:141] Setting up lstm2_
I0925 22:33:49.244120  2276 net.cpp:148] Top shape: 1 1 1501 (1501)
I0925 22:33:49.244143  2276 net.cpp:148] Top shape: 1 1 (1)
I0925 22:33:49.244150  2276 net.cpp:156] Memory required for data: 6008
I0925 22:33:49.244158  2276 layer_factory.hpp:77] Creating layer lstm2_
I0925 22:33:49.244171  2276 net.cpp:91] Creating Layer lstm2_
I0925 22:33:49.244196  2276 net.cpp:399] lstm2_ -> c_0
I0925 22:33:49.244213  2276 net.cpp:399] lstm2_ -> h_0
I0925 22:33:49.244313  2276 net.cpp:141] Setting up lstm2_
I0925 22:33:49.244328  2276 net.cpp:148] Top shape: 1 1 1000 (1000)
I0925 22:33:49.244336  2276 net.cpp:148] Top shape: 1 1 1000 (1000)
I0925 22:33:49.244344  2276 net.cpp:156] Memory required for data: 14008
I0925 22:33:49.244352  2276 layer_factory.hpp:77] Creating layer lstm2_cont_slice
I0925 22:33:49.244379  2276 net.cpp:91] Creating Layer lstm2_cont_slice
I0925 22:33:49.244388  2276 net.cpp:425] lstm2_cont_slice <- cont
I0925 22:33:49.244400  2276 net.cpp:399] lstm2_cont_slice -> cont_1
I0925 22:33:49.244462  2276 net.cpp:141] Setting up lstm2_cont_slice
I0925 22:33:49.244488  2276 net.cpp:148] Top shape: 1 1 (1)
I0925 22:33:49.244496  2276 net.cpp:156] Memory required for data: 14012
I0925 22:33:49.244503  2276 layer_factory.hpp:77] Creating layer cont_1_lstm2_cont_slice_0_split
I0925 22:33:49.244515  2276 net.cpp:91] Creating Layer cont_1_lstm2_cont_slice_0_split
I0925 22:33:49.244523  2276 net.cpp:425] cont_1_lstm2_cont_slice_0_split <- cont_1
I0925 22:33:49.244549  2276 net.cpp:399] cont_1_lstm2_cont_slice_0_split -> cont_1_lstm2_cont_slice_0_split_0
I0925 22:33:49.244565  2276 net.cpp:399] cont_1_lstm2_cont_slice_0_split -> cont_1_lstm2_cont_slice_0_split_1
I0925 22:33:49.244658  2276 net.cpp:141] Setting up cont_1_lstm2_cont_slice_0_split
I0925 22:33:49.244673  2276 net.cpp:148] Top shape: 1 1 (1)
I0925 22:33:49.244681  2276 net.cpp:148] Top shape: 1 1 (1)
I0925 22:33:49.244688  2276 net.cpp:156] Memory required for data: 14020
I0925 22:33:49.244695  2276 layer_factory.hpp:77] Creating layer lstm2_x_transform
I0925 22:33:49.244724  2276 net.cpp:91] Creating Layer lstm2_x_transform
I0925 22:33:49.244735  2276 net.cpp:425] lstm2_x_transform <- x
I0925 22:33:49.244746  2276 net.cpp:399] lstm2_x_transform -> W_xc_x
I0925 22:33:49.259649  2320 net.cpp:141] Setting up lstm2_
I0925 22:33:49.259709  2320 net.cpp:148] Top shape: 1 1 1000 (1000)
I0925 22:33:49.259727  2320 net.cpp:148] Top shape: 1 1 1000 (1000)
I0925 22:33:49.259737  2320 net.cpp:156] Memory required for data: 14008
I0925 22:33:49.259752  2320 layer_factory.hpp:77] Creating layer lstm2_cont_slice
I0925 22:33:49.259783  2320 net.cpp:91] Creating Layer lstm2_cont_slice
I0925 22:33:49.259796  2320 net.cpp:425] lstm2_cont_slice <- cont
I0925 22:33:49.259817  2320 net.cpp:399] lstm2_cont_slice -> cont_1
I0925 22:33:49.280927  2320 net.cpp:141] Setting up lstm2_cont_slice
I0925 22:33:49.280985  2320 net.cpp:148] Top shape: 1 1 (1)
I0925 22:33:49.280997  2320 net.cpp:156] Memory required for data: 14012
I0925 22:33:49.281018  2320 layer_factory.hpp:77] Creating layer cont_1_lstm2_cont_slice_0_split
I0925 22:33:49.281042  2320 net.cpp:91] Creating Layer cont_1_lstm2_cont_slice_0_split
I0925 22:33:49.281055  2320 net.cpp:425] cont_1_lstm2_cont_slice_0_split <- cont_1
I0925 22:33:49.281075  2320 net.cpp:399] cont_1_lstm2_cont_slice_0_split -> cont_1_lstm2_cont_slice_0_split_0
I0925 22:33:49.281095  2320 net.cpp:399] cont_1_lstm2_cont_slice_0_split -> cont_1_lstm2_cont_slice_0_split_1
I0925 22:33:49.281213  2320 net.cpp:141] Setting up cont_1_lstm2_cont_slice_0_split
I0925 22:33:49.281229  2320 net.cpp:148] Top shape: 1 1 (1)
I0925 22:33:49.281240  2320 net.cpp:148] Top shape: 1 1 (1)
I0925 22:33:49.281247  2320 net.cpp:156] Memory required for data: 14020
I0925 22:33:49.281256  2320 layer_factory.hpp:77] Creating layer lstm2_x_transform
I0925 22:33:49.281281  2320 net.cpp:91] Creating Layer lstm2_x_transform
I0925 22:33:49.281291  2320 net.cpp:425] lstm2_x_transform <- x
I0925 22:33:49.281281  2282 net.cpp:141] Setting up lstm2_x_transform
I0925 22:33:49.281306  2320 net.cpp:399] lstm2_x_transform -> W_xc_x
I0925 22:33:49.281322  2282 net.cpp:148] Top shape: 1 1 4000 (4000)
I0925 22:33:49.281329  2282 net.cpp:156] Memory required for data: 30020
I0925 22:33:49.281358  2282 layer_factory.hpp:77] Creating layer lstm2_W_xc_x_slice
I0925 22:33:49.281381  2282 net.cpp:91] Creating Layer lstm2_W_xc_x_slice
I0925 22:33:49.281394  2282 net.cpp:425] lstm2_W_xc_x_slice <- W_xc_x
I0925 22:33:49.281410  2282 net.cpp:399] lstm2_W_xc_x_slice -> W_xc_x_1
I0925 22:33:49.291713  2282 net.cpp:141] Setting up lstm2_W_xc_x_slice
I0925 22:33:49.291765  2282 net.cpp:148] Top shape: 1 1 4000 (4000)
I0925 22:33:49.291775  2282 net.cpp:156] Memory required for data: 46020
I0925 22:33:49.291788  2282 layer_factory.hpp:77] Creating layer lstm2_h_conted_0
I0925 22:33:49.291811  2282 net.cpp:91] Creating Layer lstm2_h_conted_0
I0925 22:33:49.291822  2282 net.cpp:425] lstm2_h_conted_0 <- h_0
I0925 22:33:49.291836  2282 net.cpp:425] lstm2_h_conted_0 <- cont_1_lstm2_cont_slice_0_split_0
I0925 22:33:49.291852  2282 net.cpp:399] lstm2_h_conted_0 -> h_conted_0
I0925 22:33:49.303792  2286 net.cpp:141] Setting up embedding
I0925 22:33:49.303843  2286 net.cpp:148] Top shape: 1 1 500 (500)
I0925 22:33:49.303851  2286 net.cpp:156] Memory required for data: 22408
I0925 22:33:49.303856  2314 net.cpp:141] Setting up lstm1_transform_1
I0925 22:33:49.303874  2286 layer_factory.hpp:77] Creating layer lstm1
I0925 22:33:49.303881  2314 net.cpp:148] Top shape: 1 1 4000 (4000)
I0925 22:33:49.303894  2314 net.cpp:156] Memory required for data: 62016
I0925 22:33:49.303903  2286 net.cpp:91] Creating Layer lstm1
I0925 22:33:49.303912  2286 net.cpp:425] lstm1 <- embedded_input_frames
I0925 22:33:49.303917  2314 layer_factory.hpp:77] Creating layer lstm1_gate_input_1
I0925 22:33:49.303921  2286 net.cpp:425] lstm1 <- cont_sentence_input_1_split_0
I0925 22:33:49.303949  2286 net.cpp:399] lstm1 -> lstm1
I0925 22:33:49.303958  2314 net.cpp:91] Creating Layer lstm1_gate_input_1
I0925 22:33:49.303969  2286 recurrent_layer.cpp:20] Initializing recurrent layer: assuming input batch contains 1 timesteps of 1 independent streams.
I0925 22:33:49.303974  2314 net.cpp:425] lstm1_gate_input_1 <- W_hc_h_0
I0925 22:33:49.303987  2314 net.cpp:425] lstm1_gate_input_1 <- W_xc_x_1
I0925 22:33:49.304003  2314 net.cpp:399] lstm1_gate_input_1 -> gate_input_1
I0925 22:33:49.304186  2294 net.cpp:141] Setting up lstm1_x_transform
I0925 22:33:49.304226  2294 net.cpp:148] Top shape: 1 1 4000 (4000)
I0925 22:33:49.304235  2294 net.cpp:156] Memory required for data: 26016
I0925 22:33:49.304235  2282 net.cpp:141] Setting up lstm2_h_conted_0
I0925 22:33:49.304256  2282 net.cpp:148] Top shape: 1 1 1000 (1000)
I0925 22:33:49.304260  2294 layer_factory.hpp:77] Creating layer lstm1_W_xc_x_slice
I0925 22:33:49.304265  2282 net.cpp:156] Memory required for data: 50020
I0925 22:33:49.304275  2282 layer_factory.hpp:77] Creating layer lstm2_transform_1
I0925 22:33:49.304278  2294 net.cpp:91] Creating Layer lstm1_W_xc_x_slice
I0925 22:33:49.304288  2294 net.cpp:425] lstm1_W_xc_x_slice <- W_xc_x
I0925 22:33:49.304292  2282 net.cpp:91] Creating Layer lstm2_transform_1
I0925 22:33:49.304303  2282 net.cpp:425] lstm2_transform_1 <- h_conted_0
I0925 22:33:49.304304  2294 net.cpp:399] lstm1_W_xc_x_slice -> W_xc_x_1
I0925 22:33:49.304302  2314 net.cpp:141] Setting up lstm1_gate_input_1
I0925 22:33:49.304325  2286 net.cpp:49] Initializing net from parameters: 
layer {
  name: "lstm1_"
  type: "Input"
  top: "x"
  top: "cont"
  input_param {
    shape {
      dim: 1
      dim: 1
      dim: 500
    }
    shape {
      dim: 1
      dim: 1
    }
  }
}
layer {
  name: "lstm1_"
  type: "Input"
  top: "c_0"
  top: "h_0"
  input_param {
    shape {
      dim: 1
      dim: 1
      dim: 1000
    }
    shape {
      dim: 1
      dim: 1
      dim: 1000
    }
  }
}
layer {
  name: "lstm1_cont_slice"
  type: "Slice"
  bottom: "cont"
  top: "cont_1"
  slice_param {
    axis: 0
  }
}
layer {
  name: "lstm1_x_transform"
  type: "InnerProduct"
  bottom: "x"
  top: "W_xc_x"
  param {
    name: "W_xc"
  }
  param {
    name: "b_c"
  }
  propagate_down: true
  inner_product_param {
    num_output: 4000
    bias_term: true
    weight_filler {
      type: "uniform"
      min: -0.08
      max: 0.08
    }
    bias_filler {
      type: "constant"
      value: 0
    }
    axis: 2
  }
}
layer {
  name: "lstm1_W_xc_x_slice"
  type: "Slice"
  bottom: "W_xc_x"
  top: "W_xc_x_1"
  slice_param {
    axis: 0
  }
}
layer {
  name: "lstm1_h_conted_0"
  type: "Scale"
  bottom: "h_0"
  bottom: "cont_1"
  top: "h_conted_0"
  scale_param {
    axis: 0
  }
}
layer {
  name: "lstm1_transform_1"
  type: "InnerProduct"
  bottom: "h_conted_0"
  top: "W_hc_h_0"
  param {
    name: "W_hc"
  }
  inner_product_param {
    num_output: 4000
    bias_term: false
    weight_filler {
      type: "uniform"
      min: -0.08
      max: 0.08
    }
    axis: 2
  }
}
layer {
  name: "lstm1_gate_input_1"
  type: "Eltwise"
  bottom: "W_hc_h_0"
  bottom: "W_xc_x_1"
  top: "gate_input_1"
  eltwise_param {
    operation: SUM
  }
}
layer {
  name: "lstm1_unit_1"
  type: "LSTMUnit"
  bottom: "c_0"
  bottom: "gate_input_1"
  bottom: "cont_1"
  top: "c_1"
  top: "h_1"
}
layer {
  name: "lstm1_"
  type: "Split"
  bottom: "c_1"
  top: "c_T"
}
layer {
  name: "lstm1_h_concat"
  type: "Concat"
  bottom: "h_1"
  top: "h"
  concat_param {
    axis: 0
  }
}
layer {
  name: "h_pseudoloss"
  type: "Reduction"
  bottom: "h"
  top: "h_pseudoloss"
  loss_weight: 1
}
I0925 22:33:49.304323  2282 net.cpp:399] lstm2_transform_1 -> W_hc_h_0
I0925 22:33:49.304345  2314 net.cpp:148] Top shape: 1 1 4000 (4000)
I0925 22:33:49.304358  2314 net.cpp:156] Memory required for data: 78016
I0925 22:33:49.304368  2314 layer_factory.hpp:77] Creating layer lstm1_unit_1
I0925 22:33:49.304383  2314 net.cpp:91] Creating Layer lstm1_unit_1
I0925 22:33:49.304390  2294 net.cpp:141] Setting up lstm1_W_xc_x_slice
I0925 22:33:49.304394  2314 net.cpp:425] lstm1_unit_1 <- c_0
I0925 22:33:49.304414  2294 net.cpp:148] Top shape: 1 1 4000 (4000)
I0925 22:33:49.304424  2294 net.cpp:156] Memory required for data: 42016
I0925 22:33:49.304425  2314 net.cpp:425] lstm1_unit_1 <- gate_input_1
I0925 22:33:49.304432  2294 layer_factory.hpp:77] Creating layer lstm1_h_conted_0
I0925 22:33:49.304440  2314 net.cpp:425] lstm1_unit_1 <- cont_1_lstm1_cont_slice_0_split_1
I0925 22:33:49.304445  2286 layer_factory.hpp:77] Creating layer lstm1_
I0925 22:33:49.304448  2294 net.cpp:91] Creating Layer lstm1_h_conted_0
I0925 22:33:49.304460  2294 net.cpp:425] lstm1_h_conted_0 <- h_0
I0925 22:33:49.304464  2314 net.cpp:399] lstm1_unit_1 -> c_1
I0925 22:33:49.304461  2286 net.cpp:91] Creating Layer lstm1_
I0925 22:33:49.304483  2294 net.cpp:425] lstm1_h_conted_0 <- cont_1_lstm1_cont_slice_0_split_0
I0925 22:33:49.304486  2314 net.cpp:399] lstm1_unit_1 -> h_1
I0925 22:33:49.304492  2286 net.cpp:399] lstm1_ -> x
I0925 22:33:49.304507  2286 net.cpp:399] lstm1_ -> cont
I0925 22:33:49.304513  2294 net.cpp:399] lstm1_h_conted_0 -> h_conted_0
I0925 22:33:49.304658  2314 net.cpp:141] Setting up lstm1_unit_1
I0925 22:33:49.304677  2314 net.cpp:148] Top shape: 1 1 1000 (1000)
I0925 22:33:49.304690  2314 net.cpp:148] Top shape: 1 1 1000 (1000)
I0925 22:33:49.304700  2314 net.cpp:156] Memory required for data: 86016
I0925 22:33:49.304709  2314 layer_factory.hpp:77] Creating layer lstm1_
I0925 22:33:49.304711  2286 net.cpp:141] Setting up lstm1_
I0925 22:33:49.304724  2286 net.cpp:148] Top shape: 1 1 500 (500)
I0925 22:33:49.304726  2314 net.cpp:91] Creating Layer lstm1_
I0925 22:33:49.304733  2286 net.cpp:148] Top shape: 1 1 (1)
I0925 22:33:49.304738  2286 net.cpp:156] Memory required for data: 2004
I0925 22:33:49.304736  2314 net.cpp:425] lstm1_ <- c_1
I0925 22:33:49.304744  2286 layer_factory.hpp:77] Creating layer lstm1_
I0925 22:33:49.304752  2314 net.cpp:399] lstm1_ -> c_T
I0925 22:33:49.304754  2286 net.cpp:91] Creating Layer lstm1_
I0925 22:33:49.304780  2286 net.cpp:399] lstm1_ -> c_0
I0925 22:33:49.304795  2286 net.cpp:399] lstm1_ -> h_0
I0925 22:33:49.315212  2314 net.cpp:141] Setting up lstm1_
I0925 22:33:49.315270  2314 net.cpp:148] Top shape: 1 1 1000 (1000)
I0925 22:33:49.315284  2314 net.cpp:156] Memory required for data: 90016
I0925 22:33:49.315299  2314 layer_factory.hpp:77] Creating layer lstm1_h_concat
I0925 22:33:49.315335  2314 net.cpp:91] Creating Layer lstm1_h_concat
I0925 22:33:49.315338  2286 net.cpp:141] Setting up lstm1_
I0925 22:33:49.315349  2314 net.cpp:425] lstm1_h_concat <- h_1
I0925 22:33:49.315358  2286 net.cpp:148] Top shape: 1 1 1000 (1000)
I0925 22:33:49.315371  2286 net.cpp:148] Top shape: 1 1 1000 (1000)
I0925 22:33:49.315371  2314 net.cpp:399] lstm1_h_concat -> h
I0925 22:33:49.315377  2286 net.cpp:156] Memory required for data: 10004
I0925 22:33:49.315384  2286 layer_factory.hpp:77] Creating layer lstm1_cont_slice
I0925 22:33:49.315398  2286 net.cpp:91] Creating Layer lstm1_cont_slice
I0925 22:33:49.315403  2286 net.cpp:425] lstm1_cont_slice <- cont
I0925 22:33:49.315415  2286 net.cpp:399] lstm1_cont_slice -> cont_1
I0925 22:33:49.315460  2294 net.cpp:141] Setting up lstm1_h_conted_0
I0925 22:33:49.315484  2286 net.cpp:141] Setting up lstm1_cont_slice
I0925 22:33:49.315500  2286 net.cpp:148] Top shape: 1 1 (1)
I0925 22:33:49.315501  2294 net.cpp:148] Top shape: 1 1 1000 (1000)
I0925 22:33:49.315505  2286 net.cpp:156] Memory required for data: 10008
I0925 22:33:49.315517  2294 net.cpp:156] Memory required for data: 46016
I0925 22:33:49.315523  2286 layer_factory.hpp:77] Creating layer cont_1_lstm1_cont_slice_0_split
I0925 22:33:49.315531  2294 layer_factory.hpp:77] Creating layer lstm1_transform_1
I0925 22:33:49.315536  2314 net.cpp:141] Setting up lstm1_h_concat
I0925 22:33:49.315533  2286 net.cpp:91] Creating Layer cont_1_lstm1_cont_slice_0_split
I0925 22:33:49.315560  2286 net.cpp:425] cont_1_lstm1_cont_slice_0_split <- cont_1
I0925 22:33:49.315562  2314 net.cpp:148] Top shape: 1 1 1000 (1000)
I0925 22:33:49.315569  2286 net.cpp:399] cont_1_lstm1_cont_slice_0_split -> cont_1_lstm1_cont_slice_0_split_0
I0925 22:33:49.315562  2294 net.cpp:91] Creating Layer lstm1_transform_1
I0925 22:33:49.315579  2286 net.cpp:399] cont_1_lstm1_cont_slice_0_split -> cont_1_lstm1_cont_slice_0_split_1
I0925 22:33:49.315587  2294 net.cpp:425] lstm1_transform_1 <- h_conted_0
I0925 22:33:49.315578  2314 net.cpp:156] Memory required for data: 94016
I0925 22:33:49.315603  2314 layer_factory.hpp:77] Creating layer h_pseudoloss
I0925 22:33:49.315609  2294 net.cpp:399] lstm1_transform_1 -> W_hc_h_0
I0925 22:33:49.315630  2314 net.cpp:91] Creating Layer h_pseudoloss
I0925 22:33:49.315644  2314 net.cpp:425] h_pseudoloss <- h
I0925 22:33:49.315659  2314 net.cpp:399] h_pseudoloss -> h_pseudoloss
I0925 22:33:49.318262  2286 net.cpp:141] Setting up cont_1_lstm1_cont_slice_0_split
I0925 22:33:49.318282  2286 net.cpp:148] Top shape: 1 1 (1)
I0925 22:33:49.318292  2286 net.cpp:148] Top shape: 1 1 (1)
I0925 22:33:49.318297  2286 net.cpp:156] Memory required for data: 10016
I0925 22:33:49.318303  2286 layer_factory.hpp:77] Creating layer lstm1_x_transform
I0925 22:33:49.318320  2286 net.cpp:91] Creating Layer lstm1_x_transform
I0925 22:33:49.318326  2286 net.cpp:425] lstm1_x_transform <- x
I0925 22:33:49.318341  2286 net.cpp:399] lstm1_x_transform -> W_xc_x
I0925 22:33:49.322815  2314 net.cpp:141] Setting up h_pseudoloss
…
I0925 22:33:49.323077  2314 net.cpp:261] This network produces output c_T
I0925 22:33:49.323088  2314 net.cpp:261] This network produces output h_pseudoloss
I0925 22:33:49.331603  2314 net.cpp:274] Network initialization done.
I0925 22:33:49.331750  2314 recurrent_layer.cpp:150] Adding parameter 0: W_xc
I0925 22:33:49.331768  2314 recurrent_layer.cpp:150] Adding parameter 1: b_c
I0925 22:33:49.331775  2314 recurrent_layer.cpp:150] Adding parameter 2: W_hc
I0925 22:33:49.333418  2280 net.cpp:141] Setting up lstm2_x_transform
I0925 22:33:49.333461  2314 net.cpp:141] Setting up lstm1
I0925 22:33:49.333472  2280 net.cpp:148] Top shape: 1 1 4000 (4000)
I0925 22:33:49.333484  2314 net.cpp:148] Top shape: 1 1 1000 (1000)
I0925 22:33:49.333483  2280 net.cpp:156] Memory required for data: 30020
I0925 22:33:49.333492  2314 net.cpp:156] Memory required for data: 26408
I0925 22:33:49.333513  2314 layer_factory.hpp:77] Creating layer concat
I0925 22:33:49.333516  2280 layer_factory.hpp:77] Creating layer lstm2_W_xc_x_slice
I0925 22:33:49.333530  2314 net.cpp:91] Creating Layer concat
I0925 22:33:49.333539  2314 net.cpp:425] concat <- lstm1
I0925 22:33:49.333544  2280 net.cpp:91] Creating Layer lstm2_W_xc_x_slice
I0925 22:33:49.333549  2314 net.cpp:425] concat <- embedded_input_sentence
I0925 22:33:49.333555  2314 net.cpp:425] concat <- reshaped_stage_indicator
I0925 22:33:49.333557  2280 net.cpp:425] lstm2_W_xc_x_slice <- W_xc_x
I0925 22:33:49.333564  2314 net.cpp:399] concat -> lstm1_video_sequence
I0925 22:33:49.333573  2280 net.cpp:399] lstm2_W_xc_x_slice -> W_xc_x_1
I0925 22:33:49.333575  2276 net.cpp:141] Setting up lstm2_x_transform
I0925 22:33:49.333598  2276 net.cpp:148] Top shape: 1 1 4000 (4000)
I0925 22:33:49.333606  2276 net.cpp:156] Memory required for data: 30020
I0925 22:33:49.333626  2314 net.cpp:141] Setting up concat
I0925 22:33:49.333626  2276 layer_factory.hpp:77] Creating layer lstm2_W_xc_x_slice
I0925 22:33:49.333648  2314 net.cpp:148] Top shape: 1 1 1501 (1501)
I0925 22:33:49.333654  2314 net.cpp:156] Memory required for data: 32412
I0925 22:33:49.333659  2314 layer_factory.hpp:77] Creating layer lstm2
I0925 22:33:49.333660  2276 net.cpp:91] Creating Layer lstm2_W_xc_x_slice
I0925 22:33:49.333672  2276 net.cpp:425] lstm2_W_xc_x_slice <- W_xc_x
I0925 22:33:49.333674  2314 net.cpp:91] Creating Layer lstm2
I0925 22:33:49.333679  2314 net.cpp:425] lstm2 <- lstm1_video_sequence
I0925 22:33:49.333683  2276 net.cpp:399] lstm2_W_xc_x_slice -> W_xc_x_1
I0925 22:33:49.333683  2280 net.cpp:141] Setting up lstm2_W_xc_x_slice
I0925 22:33:49.333686  2314 net.cpp:425] lstm2 <- cont_sentence_input_1_split_1
I0925 22:33:49.333704  2280 net.cpp:148] Top shape: 1 1 4000 (4000)
I0925 22:33:49.333709  2314 net.cpp:399] lstm2 -> lstm2
I0925 22:33:49.333714  2280 net.cpp:156] Memory required for data: 46020
I0925 22:33:49.333722  2280 layer_factory.hpp:77] Creating layer lstm2_h_conted_0
I0925 22:33:49.333724  2314 recurrent_layer.cpp:20] Initializing recurrent layer: assuming input batch contains 1 timesteps of 1 independent streams.
I0925 22:33:49.333748  2280 net.cpp:91] Creating Layer lstm2_h_conted_0
I0925 22:33:49.333758  2280 net.cpp:425] lstm2_h_conted_0 <- h_0
I0925 22:33:49.333768  2276 net.cpp:141] Setting up lstm2_W_xc_x_slice
I0925 22:33:49.333773  2280 net.cpp:425] lstm2_h_conted_0 <- cont_1_lstm2_cont_slice_0_split_0
I0925 22:33:49.333784  2276 net.cpp:148] Top shape: 1 1 4000 (4000)
I0925 22:33:49.333788  2280 net.cpp:399] lstm2_h_conted_0 -> h_conted_0
I0925 22:33:49.333796  2276 net.cpp:156] Memory required for data: 46020
I0925 22:33:49.333806  2276 layer_factory.hpp:77] Creating layer lstm2_h_conted_0
I0925 22:33:49.333824  2276 net.cpp:91] Creating Layer lstm2_h_conted_0
I0925 22:33:49.333833  2276 net.cpp:425] lstm2_h_conted_0 <- h_0
I0925 22:33:49.333843  2276 net.cpp:425] lstm2_h_conted_0 <- cont_1_lstm2_cont_slice_0_split_0
I0925 22:33:49.333854  2276 net.cpp:399] lstm2_h_conted_0 -> h_conted_0
I0925 22:33:49.333973  2280 net.cpp:141] Setting up lstm2_h_conted_0
I0925 22:33:49.333991  2280 net.cpp:148] Top shape: 1 1 1000 (1000)
I0925 22:33:49.333998  2280 net.cpp:156] Memory required for data: 50020
I0925 22:33:49.334007  2280 layer_factory.hpp:77] Creating layer lstm2_transform_1
I0925 22:33:49.334029  2280 net.cpp:91] Creating Layer lstm2_transform_1
I0925 22:33:49.334038  2280 net.cpp:425] lstm2_transform_1 <- h_conted_0
I0925 22:33:49.334051  2280 net.cpp:399] lstm2_transform_1 -> W_hc_h_0
I0925 22:33:49.334086  2314 net.cpp:49] Initializing net from parameters: 
layer {
  name: "lstm2_"
  type: "Input"
  top: "x"
  top: "cont"
  input_param {
    shape {
      dim: 1
      dim: 1
      dim: 1501
    }
    shape {
      dim: 1
      dim: 1
    }
  }
}
layer {
  name: "lstm2_"
  type: "Input"
  top: "c_0"
  top: "h_0"
  input_param {
    shape {
      dim: 1
      dim: 1
      dim: 1000
    }
    shape {
      dim: 1
      dim: 1
      dim: 1000
    }
  }
}
layer {
  name: "lstm2_cont_slice"
  type: "Slice"
  bottom: "cont"
  top: "cont_1"
  slice_param {
    axis: 0
  }
}
layer {
  name: "lstm2_x_transform"
  type: "InnerProduct"
  bottom: "x"
  top: "W_xc_x"
  param {
    name: "W_xc"
  }
  param {
    name: "b_c"
  }
  propagate_down: true
  inner_product_param {
    num_output: 4000
    bias_term: true
    weight_filler {
      type: "uniform"
      min: -0.08
      max: 0.08
    }
    bias_filler {
      type: "constant"
      value: 0
    }
    axis: 2
  }
}
layer {
  name: "lstm2_W_xc_x_slice"
  type: "Slice"
  bottom: "W_xc_x"
  top: "W_xc_x_1"
  slice_param {
    axis: 0
  }
}
layer {
  name: "lstm2_h_conted_0"
  type: "Scale"
  bottom: "h_0"
  bottom: "cont_1"
  top: "h_conted_0"
  scale_param {
    axis: 0
  }
}
layer {
  name: "lstm2_transform_1"
  type: "InnerProduct"
  bottom: "h_conted_0"
  top: "W_hc_h_0"
  param {
    name: "W_hc"
  }
  inner_product_param {
    num_output: 4000
    bias_term: false
    weight_filler {
      type: "uniform"
      min: -0.08
      max: 0.08
    }
    axis: 2
  }
}
layer {
  name: "lstm2_gate_input_1"
  type: "Eltwise"
  bottom: "W_hc_h_0"
  bottom: "W_xc_x_1"
  top: "gate_input_1"
  eltwise_param {
    operation: SUM
  }
}
layer {
  name: "lstm2_unit_1"
  type: "LSTMUnit"
  bottom: "c_0"
  bottom: "gate_input_1"
  bottom: "cont_1"
  top: "c_1"
  top: "h_1"
}
layer {
  name: "lstm2_"
  type: "Split"
  bottom: "c_1"
  top: "c_T"
}
layer {
  name: "lstm2_h_concat"
  type: "Concat"
  bottom: "h_1"
  top: "h"
  concat_param {
    axis: 0
  }
}
layer {
  name: "h_pseudoloss"
  type: "Reduction"
  bottom: "h"
  top: "h_pseudoloss"
  loss_weight: 1
}
I0925 22:33:49.334211  2314 layer_factory.hpp:77] Creating layer lstm2_
I0925 22:33:49.334213  2276 net.cpp:141] Setting up lstm2_h_conted_0
I0925 22:33:49.334225  2314 net.cpp:91] Creating Layer lstm2_
I0925 22:33:49.334228  2276 net.cpp:148] Top shape: 1 1 1000 (1000)
I0925 22:33:49.334233  2314 net.cpp:399] lstm2_ -> x
I0925 22:33:49.334236  2276 net.cpp:156] Memory required for data: 50020
I0925 22:33:49.334245  2314 net.cpp:399] lstm2_ -> cont
I0925 22:33:49.334245  2276 layer_factory.hpp:77] Creating layer lstm2_transform_1
I0925 22:33:49.334261  2276 net.cpp:91] Creating Layer lstm2_transform_1
I0925 22:33:49.334270  2276 net.cpp:425] lstm2_transform_1 <- h_conted_0
I0925 22:33:49.334282  2276 net.cpp:399] lstm2_transform_1 -> W_hc_h_0
I0925 22:33:49.350643  2314 net.cpp:141] Setting up lstm2_
I0925 22:33:49.350694  2314 net.cpp:148] Top shape: 1 1 1501 (1501)
I0925 22:33:49.350703  2314 net.cpp:148] Top shape: 1 1 (1)
I0925 22:33:49.350708  2314 net.cpp:156] Memory required for data: 6008
I0925 22:33:49.350718  2314 layer_factory.hpp:77] Creating layer lstm2_
I0925 22:33:49.350742  2314 net.cpp:91] Creating Layer lstm2_
I0925 22:33:49.350764  2314 net.cpp:399] lstm2_ -> c_0
I0925 22:33:49.350785  2314 net.cpp:399] lstm2_ -> h_0
I0925 22:33:49.350847  2286 net.cpp:141] Setting up lstm1_x_transform
I0925 22:33:49.350870  2286 net.cpp:148] Top shape: 1 1 4000 (4000)
I0925 22:33:49.350879  2286 net.cpp:156] Memory required for data: 26016
I0925 22:33:49.350900  2286 layer_factory.hpp:77] Creating layer lstm1_W_xc_x_slice
I0925 22:33:49.350924  2286 net.cpp:91] Creating Layer lstm1_W_xc_x_slice
I0925 22:33:49.350936  2286 net.cpp:425] lstm1_W_xc_x_slice <- W_xc_x
I0925 22:33:49.350950  2286 net.cpp:399] lstm1_W_xc_x_slice -> W_xc_x_1
I0925 22:33:49.351013  2286 net.cpp:141] Setting up lstm1_W_xc_x_slice
I0925 22:33:49.351027  2286 net.cpp:148] Top shape: 1 1 4000 (4000)
I0925 22:33:49.351034  2286 net.cpp:156] Memory required for data: 42016
I0925 22:33:49.351042  2286 layer_factory.hpp:77] Creating layer lstm1_h_conted_0
I0925 22:33:49.351058  2286 net.cpp:91] Creating Layer lstm1_h_conted_0
I0925 22:33:49.351066  2286 net.cpp:425] lstm1_h_conted_0 <- h_0
I0925 22:33:49.351076  2286 net.cpp:425] lstm1_h_conted_0 <- cont_1_lstm1_cont_slice_0_split_0
I0925 22:33:49.351092  2286 net.cpp:399] lstm1_h_conted_0 -> h_conted_0
I0925 22:33:49.365254  2314 net.cpp:141] Setting up lstm2_
I0925 22:33:49.365310  2314 net.cpp:148] Top shape: 1 1 1000 (1000)
I0925 22:33:49.365322  2314 net.cpp:148] Top shape: 1 1 1000 (1000)
I0925 22:33:49.365329  2314 net.cpp:156] Memory required for data: 14008
I0925 22:33:49.365341  2314 layer_factory.hpp:77] Creating layer lstm2_cont_slice
I0925 22:33:49.365411  2314 net.cpp:91] Creating Layer lstm2_cont_slice
I0925 22:33:49.365423  2314 net.cpp:425] lstm2_cont_slice <- cont
I0925 22:33:49.365422  2282 net.cpp:141] Setting up lstm2_transform_1
I0925 22:33:49.365463  2314 net.cpp:399] lstm2_cont_slice -> cont_1
I0925 22:33:49.365475  2282 net.cpp:148] Top shape: 1 1 4000 (4000)
I0925 22:33:49.365484  2282 net.cpp:156] Memory required for data: 66020
I0925 22:33:49.365509  2282 layer_factory.hpp:77] Creating layer lstm2_gate_input_1
I0925 22:33:49.365533  2282 net.cpp:91] Creating Layer lstm2_gate_input_1
I0925 22:33:49.365545  2282 net.cpp:425] lstm2_gate_input_1 <- W_hc_h_0
I0925 22:33:49.365548  2314 net.cpp:141] Setting up lstm2_cont_slice
I0925 22:33:49.365556  2282 net.cpp:425] lstm2_gate_input_1 <- W_xc_x_1
I0925 22:33:49.365566  2314 net.cpp:148] Top shape: 1 1 (1)
I0925 22:33:49.365573  2314 net.cpp:156] Memory required for data: 14012
I0925 22:33:49.365574  2282 net.cpp:399] lstm2_gate_input_1 -> gate_input_1
I0925 22:33:49.365581  2314 layer_factory.hpp:77] Creating layer cont_1_lstm2_cont_slice_0_split
I0925 22:33:49.365608  2314 net.cpp:91] Creating Layer cont_1_lstm2_cont_slice_0_split
I0925 22:33:49.365617  2314 net.cpp:425] cont_1_lstm2_cont_slice_0_split <- cont_1
I0925 22:33:49.365628  2314 net.cpp:399] cont_1_lstm2_cont_slice_0_split -> cont_1_lstm2_cont_slice_0_split_0
I0925 22:33:49.365644  2314 net.cpp:399] cont_1_lstm2_cont_slice_0_split -> cont_1_lstm2_cont_slice_0_split_1
I0925 22:33:49.365663  2282 net.cpp:141] Setting up lstm2_gate_input_1
I0925 22:33:49.365676  2282 net.cpp:148] Top shape: 1 1 4000 (4000)
I0925 22:33:49.365684  2282 net.cpp:156] Memory required for data: 82020
I0925 22:33:49.365691  2282 layer_factory.hpp:77] Creating layer lstm2_unit_1
I0925 22:33:49.365705  2282 net.cpp:91] Creating Layer lstm2_unit_1
I0925 22:33:49.365712  2282 net.cpp:425] lstm2_unit_1 <- c_0
I0925 22:33:49.365721  2282 net.cpp:425] lstm2_unit_1 <- gate_input_1
I0925 22:33:49.365731  2282 net.cpp:425] lstm2_unit_1 <- cont_1_lstm2_cont_slice_0_split_1
I0925 22:33:49.365744  2282 net.cpp:399] lstm2_unit_1 -> c_1
I0925 22:33:49.365751  2314 net.cpp:141] Setting up cont_1_lstm2_cont_slice_0_split
I0925 22:33:49.365759  2282 net.cpp:399] lstm2_unit_1 -> h_1
I0925 22:33:49.365767  2314 net.cpp:148] Top shape: 1 1 (1)
I0925 22:33:49.365777  2314 net.cpp:148] Top shape: 1 1 (1)
I0925 22:33:49.365783  2314 net.cpp:156] Memory required for data: 14020
I0925 22:33:49.365792  2314 layer_factory.hpp:77] Creating layer lstm2_x_transform
I0925 22:33:49.365816  2314 net.cpp:91] Creating Layer lstm2_x_transform
I0925 22:33:49.365825  2314 net.cpp:425] lstm2_x_transform <- x
I0925 22:33:49.365839  2314 net.cpp:399] lstm2_x_transform -> W_xc_x
I0925 22:33:49.365881  2282 net.cpp:141] Setting up lstm2_unit_1
I0925 22:33:49.365896  2282 net.cpp:148] Top shape: 1 1 1000 (1000)
I0925 22:33:49.365906  2282 net.cpp:148] Top shape: 1 1 1000 (1000)
I0925 22:33:49.365913  2282 net.cpp:156] Memory required for data: 90020
I0925 22:33:49.365921  2282 layer_factory.hpp:77] Creating layer lstm2_
I0925 22:33:49.365933  2282 net.cpp:91] Creating Layer lstm2_
I0925 22:33:49.365941  2282 net.cpp:425] lstm2_ <- c_1
I0925 22:33:49.365952  2286 net.cpp:141] Setting up lstm1_h_conted_0
I0925 22:33:49.365952  2282 net.cpp:399] lstm2_ -> c_T
I0925 22:33:49.365988  2286 net.cpp:148] Top shape: 1 1 1000 (1000)
…
I0925 22:33:49.674257  2294 layer_factory.hpp:77] Creating layer lstm2_
I0925 22:33:49.674273  2320 layer_factory.hpp:77] Creating layer lstm2_gate_input_1
I0925 22:33:49.674288  2294 net.cpp:91] Creating Layer lstm2_
I0925 22:33:49.674299  2320 net.cpp:91] Creating Layer lstm2_gate_input_1
I0925 22:33:49.674312  2320 net.cpp:425] lstm2_gate_input_1 <- W_hc_h_0
…
I0925 22:33:49.674816  2286 net.cpp:219] lstm1_ does not need backward computation.
I0925 22:33:49.674820  2286 net.cpp:261] This network produces output c_T
I0925 22:33:49.674825  2286 net.cpp:261] This network produces output h_pseudoloss
I0925 22:33:49.674845  2286 net.cpp:274] Network initialization done.
I0925 22:33:49.674907  2286 recurrent_layer.cpp:150] Adding parameter 0: W_xc
I0925 22:33:49.674917  2286 recurrent_layer.cpp:150] Adding parameter 1: b_c
I0925 22:33:49.674922  2286 recurrent_layer.cpp:150] Adding parameter 2: W_hc
I0925 22:33:49.675345  2294 net.cpp:141] Setting up lstm2_
I0925 22:33:49.675367  2294 net.cpp:148] Top shape: 1 1 1000 (1000)
I0925 22:33:49.675379  2294 net.cpp:148] Top shape: 1 1 1000 (1000)
I0925 22:33:49.675389  2294 net.cpp:156] Memory required for data: 14008
I0925 22:33:49.675384  2286 net.cpp:141] Setting up lstm1
I0925 22:33:49.675406  2294 layer_factory.hpp:77] Creating layer lstm2_cont_slice
I0925 22:33:49.675423  2320 net.cpp:141] Setting up lstm2_gate_input_1
I0925 22:33:49.675428  2286 net.cpp:148] Top shape: 1 1 1000 (1000)
I0925 22:33:49.675441  2294 net.cpp:91] Creating Layer lstm2_cont_slice
I0925 22:33:49.675446  2286 net.cpp:156] Memory required for data: 26408
I0925 22:33:49.675456  2294 net.cpp:425] lstm2_cont_slice <- cont
I0925 22:33:49.675448  2320 net.cpp:148] Top shape: 1 1 4000 (4000)
I0925 22:33:49.675469  2320 net.cpp:156] Memory required for data: 82020
I0925 22:33:49.675478  2286 layer_factory.hpp:77] Creating layer concat
I0925 22:33:49.675472  2294 net.cpp:399] lstm2_cont_slice -> cont_1
I0925 22:33:49.675487  2320 layer_factory.hpp:77] Creating layer lstm2_unit_1
I0925 22:33:49.675499  2286 net.cpp:91] Creating Layer concat
I0925 22:33:49.675503  2320 net.cpp:91] Creating Layer lstm2_unit_1
I0925 22:33:49.675510  2286 net.cpp:425] concat <- lstm1
I0925 22:33:49.675518  2320 net.cpp:425] lstm2_unit_1 <- c_0
I0925 22:33:49.675521  2286 net.cpp:425] concat <- embedded_input_sentence
I0925 22:33:49.675530  2286 net.cpp:425] concat <- reshaped_stage_indicator
I0925 22:33:49.675530  2320 net.cpp:425] lstm2_unit_1 <- gate_input_1
I0925 22:33:49.675549  2286 net.cpp:399] concat -> lstm1_video_sequence
I0925 22:33:49.675552  2320 net.cpp:425] lstm2_unit_1 <- cont_1_lstm2_cont_slice_0_split_1
I0925 22:33:49.675565  2320 net.cpp:399] lstm2_unit_1 -> c_1
I0925 22:33:49.675580  2320 net.cpp:399] lstm2_unit_1 -> h_1
I0925 22:33:49.681536  2294 net.cpp:141] Setting up lstm2_cont_slice
I0925 22:33:49.681592  2294 net.cpp:148] Top shape: 1 1 (1)
I0925 22:33:49.681607  2294 net.cpp:156] Memory required for data: 14012
I0925 22:33:49.681622  2294 layer_factory.hpp:77] Creating layer cont_1_lstm2_cont_slice_0_split
I0925 22:33:49.681654  2294 net.cpp:91] Creating Layer cont_1_lstm2_cont_slice_0_split
I0925 22:33:49.681668  2294 net.cpp:425] cont_1_lstm2_cont_slice_0_split <- cont_1
I0925 22:33:49.681687  2294 net.cpp:399] cont_1_lstm2_cont_slice_0_split -> cont_1_lstm2_cont_slice_0_split_0
I0925 22:33:49.681711  2294 net.cpp:399] cont_1_lstm2_cont_slice_0_split -> cont_1_lstm2_cont_slice_0_split_1
I0925 22:33:49.681843  2294 net.cpp:141] Setting up cont_1_lstm2_cont_slice_0_split
I0925 22:33:49.681860  2294 net.cpp:148] Top shape: 1 1 (1)
I0925 22:33:49.681874  2294 net.cpp:148] Top shape: 1 1 (1)
I0925 22:33:49.681884  2294 net.cpp:156] Memory required for data: 14020
I0925 22:33:49.681892  2294 layer_factory.hpp:77] Creating layer lstm2_x_transform
I0925 22:33:49.681923  2294 net.cpp:91] Creating Layer lstm2_x_transform
I0925 22:33:49.681936  2294 net.cpp:425] lstm2_x_transform <- x
I0925 22:33:49.681951  2294 net.cpp:399] lstm2_x_transform -> W_xc_x
I0925 22:33:49.699473  2286 net.cpp:141] Setting up concat
I0925 22:33:49.699542  2286 net.cpp:148] Top shape: 1 1 1501 (1501)
I0925 22:33:49.699555  2286 net.cpp:156] Memory required for data: 32412
I0925 22:33:49.699571  2286 layer_factory.hpp:77] Creating layer lstm2
I0925 22:33:49.699609  2286 net.cpp:91] Creating Layer lstm2
I0925 22:33:49.699625  2286 net.cpp:425] lstm2 <- lstm1_video_sequence
I0925 22:33:49.699642  2286 net.cpp:425] lstm2 <- cont_sentence_input_1_split_1
I0925 22:33:49.699661  2286 net.cpp:399] lstm2 -> lstm2
I0925 22:33:49.699692  2286 recurrent_layer.cpp:20] Initializing recurrent layer: assuming input batch contains 1 timesteps of 1 independent streams.
I0925 22:33:49.699491  2320 net.cpp:141] Setting up lstm2_unit_1
I0925 22:33:49.699815  2320 net.cpp:148] Top shape: 1 1 1000 (1000)
I0925 22:33:49.699829  2320 net.cpp:148] Top shape: 1 1 1000 (1000)
I0925 22:33:49.699837  2320 net.cpp:156] Memory required for data: 90020
I0925 22:33:49.699847  2320 layer_factory.hpp:77] Creating layer lstm2_
I0925 22:33:49.699862  2320 net.cpp:91] Creating Layer lstm2_
I0925 22:33:49.699872  2320 net.cpp:425] lstm2_ <- c_1
I0925 22:33:49.699884  2320 net.cpp:399] lstm2_ -> c_T
I0925 22:33:49.700167  2286 net.cpp:49] Initializing net from parameters: 
layer {
  name: "lstm2_"
  type: "Input"
  top: "x"
  top: "cont"
  input_param {
    shape {
      dim: 1
      dim: 1
      dim: 1501
    }
    shape {
      dim: 1
      dim: 1
    }
  }
}
layer {
  name: "lstm2_"
  type: "Input"
  top: "c_0"
  top: "h_0"
  input_param {
    shape {
      dim: 1
      dim: 1
      dim: 1000
    }
    shape {
      dim: 1
      dim: 1
      dim: 1000
    }
  }
}
layer {
  name: "lstm2_cont_slice"
  type: "Slice"
  bottom: "cont"
  top: "cont_1"
  slice_param {
    axis: 0
  }
}
layer {
  name: "lstm2_x_transform"
  type: "InnerProduct"
  bottom: "x"
  top: "W_xc_x"
  param {
    name: "W_xc"
  }
  param {
    name: "b_c"
  }
  propagate_down: true
  inner_product_param {
    num_output: 4000
    bias_term: true
    weight_filler {
      type: "uniform"
      min: -0.08
      max: 0.08
    }
    bias_filler {
      type: "constant"
      value: 0
    }
    axis: 2
  }
}
layer {
  name: "lstm2_W_xc_x_slice"
  type: "Slice"
  bottom: "W_xc_x"
  top: "W_xc_x_1"
  slice_param {
    axis: 0
  }
}
layer {
  name: "lstm2_h_conted_0"
  type: "Scale"
  bottom: "h_0"
  bottom: "cont_1"
  top: "h_conted_0"
  scale_param {
    axis: 0
  }
}
layer {
  name: "lstm2_transform_1"
  type: "InnerProduct"
  bottom: "h_conted_0"
  top: "W_hc_h_0"
  param {
    name: "W_hc"
  }
  inner_product_param {
    num_output: 4000
    bias_term: false
    weight_filler {
      type: "uniform"
      min: -0.08
      max: 0.08
    }
    axis: 2
  }
}
layer {
  name: "lstm2_gate_input_1"
  type: "Eltwise"
  bottom: "W_hc_h_0"
  bottom: "W_xc_x_1"
  top: "gate_input_1"
  eltwise_param {
    operation: SUM
  }
}
layer {
  name: "lstm2_unit_1"
  type: "LSTMUnit"
  bottom: "c_0"
  bottom: "gate_input_1"
  bottom: "cont_1"
  top: "c_1"
  top: "h_1"
}
layer {
  name: "lstm2_"
  type: "Split"
  bottom: "c_1"
  top: "c_T"
}
layer {
  name: "lstm2_h_concat"
  type: "Concat"
  bottom: "h_1"
  top: "h"
  concat_param {
    axis: 0
  }
}
layer {
  name: "h_pseudoloss"
  type: "Reduction"
  bottom: "h"
  top: "h_pseudoloss"
  loss_weight: 1
}
I0925 22:33:49.700320  2286 layer_factory.hpp:77] Creating layer lstm2_
I0925 22:33:49.700340  2286 net.cpp:91] Creating Layer lstm2_
I0925 22:33:49.700352  2286 net.cpp:399] lstm2_ -> x
I0925 22:33:49.700372  2286 net.cpp:399] lstm2_ -> cont
I0925 22:33:49.702728  2320 net.cpp:141] Setting up lstm2_
I0925 22:33:49.702777  2320 net.cpp:148] Top shape: 1 1 1000 (1000)
I0925 22:33:49.702788  2320 net.cpp:156] Memory required for data: 94020
I0925 22:33:49.702795  2286 net.cpp:141] Setting up lstm2_
I0925 22:33:49.702801  2320 layer_factory.hpp:77] Creating layer lstm2_h_concat
I0925 22:33:49.702811  2286 net.cpp:148] Top shape: 1 1 1501 (1501)
I0925 22:33:49.702821  2286 net.cpp:148] Top shape: 1 1 (1)
I0925 22:33:49.702826  2320 net.cpp:91] Creating Layer lstm2_h_concat
I0925 22:33:49.702828  2286 net.cpp:156] Memory required for data: 6008
I0925 22:33:49.702837  2286 layer_factory.hpp:77] Creating layer lstm2_
I0925 22:33:49.702837  2320 net.cpp:425] lstm2_h_concat <- h_1
I0925 22:33:49.702872  2286 net.cpp:91] Creating Layer lstm2_
I0925 22:33:49.702872  2320 net.cpp:399] lstm2_h_concat -> h
I0925 22:33:49.702893  2286 net.cpp:399] lstm2_ -> c_0
I0925 22:33:49.702915  2286 net.cpp:399] lstm2_ -> h_0
I0925 22:33:49.705103  2320 net.cpp:141] Setting up lstm2_h_concat
I0925 22:33:49.705132  2320 net.cpp:148] Top shape: 1 1 1000 (1000)
I0925 22:33:49.705143  2320 net.cpp:156] Memory required for data: 98020
I0925 22:33:49.705155  2320 layer_factory.hpp:77] Creating layer h_pseudoloss
I0925 22:33:49.705170  2286 net.cpp:141] Setting up lstm2_
I0925 22:33:49.705178  2320 net.cpp:91] Creating Layer h_pseudoloss
I0925 22:33:49.705200  2286 net.cpp:148] Top shape: 1 1 1000 (1000)
I0925 22:33:49.705205  2320 net.cpp:425] h_pseudoloss <- h
I0925 22:33:49.705214  2286 net.cpp:148] Top shape: 1 1 1000 (1000)
I0925 22:33:49.705222  2286 net.cpp:156] Memory required for data: 14008
I0925 22:33:49.705224  2320 net.cpp:399] h_pseudoloss -> h_pseudoloss
I0925 22:33:49.705231  2286 layer_factory.hpp:77] Creating layer lstm2_cont_slice
I0925 22:33:49.705250  2286 net.cpp:91] Creating Layer lstm2_cont_slice
I0925 22:33:49.705260  2286 net.cpp:425] lstm2_cont_slice <- cont
I0925 22:33:49.705272  2286 net.cpp:399] lstm2_cont_slice -> cont_1
I0925 22:33:49.707026  2286 net.cpp:141] Setting up lstm2_cont_slice
I0925 22:33:49.707059  2286 net.cpp:148] Top shape: 1 1 (1)
I0925 22:33:49.707068  2286 net.cpp:156] Memory required for data: 14012
I0925 22:33:49.707077  2286 layer_factory.hpp:77] Creating layer cont_1_lstm2_cont_slice_0_split
I0925 22:33:49.707100  2286 net.cpp:91] Creating Layer cont_1_lstm2_cont_slice_0_split
I0925 22:33:49.707110  2286 net.cpp:425] cont_1_lstm2_cont_slice_0_split <- cont_1
I0925 22:33:49.707126  2286 net.cpp:399] cont_1_lstm2_cont_slice_0_split -> cont_1_lstm2_cont_slice_0_split_0
I0925 22:33:49.707141  2286 net.cpp:399] cont_1_lstm2_cont_slice_0_split -> cont_1_lstm2_cont_slice_0_split_1
I0925 22:33:49.707222  2286 net.cpp:141] Setting up cont_1_lstm2_cont_slice_0_split
I0925 22:33:49.707237  2286 net.cpp:148] Top shape: 1 1 (1)
I0925 22:33:49.707247  2286 net.cpp:148] Top shape: 1 1 (1)
I0925 22:33:49.707253  2286 net.cpp:156] Memory required for data: 14020
I0925 22:33:49.707262  2286 layer_factory.hpp:77] Creating layer lstm2_x_transform
I0925 22:33:49.707285  2286 net.cpp:91] Creating Layer lstm2_x_transform
I0925 22:33:49.707294  2286 net.cpp:425] lstm2_x_transform <- x
I0925 22:33:49.707309  2286 net.cpp:399] lstm2_x_transform -> W_xc_x
I0925 22:33:49.725852  2320 net.cpp:141] Setting up h_pseudoloss
…
I0925 22:33:49.726068  2320 net.cpp:219] lstm2_ does not need backward computation.
I0925 22:33:49.726074  2320 net.cpp:261] This network produces output c_T
I0925 22:33:49.726084  2320 net.cpp:261] This network produces output h_pseudoloss
I0925 22:33:49.726107  2320 net.cpp:274] Network initialization done.
I0925 22:33:49.726186  2320 recurrent_layer.cpp:150] Adding parameter 0: W_xc
I0925 22:33:49.726194  2320 recurrent_layer.cpp:150] Adding parameter 1: b_c
I0925 22:33:49.726202  2320 recurrent_layer.cpp:150] Adding parameter 2: W_hc
I0925 22:33:49.726389  2320 net.cpp:141] Setting up lstm2
I0925 22:33:49.726404  2320 net.cpp:148] Top shape: 1 1 1000 (1000)
I0925 22:33:49.726413  2320 net.cpp:156] Memory required for data: 36412
I0925 22:33:49.726436  2320 layer_factory.hpp:77] Creating layer predict
I0925 22:33:49.726459  2320 net.cpp:91] Creating Layer predict
I0925 22:33:49.726467  2320 net.cpp:425] predict <- lstm2
I0925 22:33:49.726480  2320 net.cpp:399] predict -> predict
I0925 22:33:49.805869  2314 net.cpp:141] Setting up lstm2_transform_1
I0925 22:33:49.805927  2314 net.cpp:148] Top shape: 1 1 4000 (4000)
I0925 22:33:49.805937  2314 net.cpp:156] Memory required for data: 66020
I0925 22:33:49.805968  2314 layer_factory.hpp:77] Creating layer lstm2_gate_input_1
I0925 22:33:49.806004  2314 net.cpp:91] Creating Layer lstm2_gate_input_1
I0925 22:33:49.806016  2314 net.cpp:425] lstm2_gate_input_1 <- W_hc_h_0
I0925 22:33:49.806028  2314 net.cpp:425] lstm2_gate_input_1 <- W_xc_x_1
I0925 22:33:49.806041  2314 net.cpp:399] lstm2_gate_input_1 -> gate_input_1
I0925 22:33:49.806130  2314 net.cpp:141] Setting up lstm2_gate_input_1
I0925 22:33:49.806146  2314 net.cpp:148] Top shape: 1 1 4000 (4000)
I0925 22:33:49.806154  2314 net.cpp:156] Memory required for data: 82020
I0925 22:33:49.806161  2314 layer_factory.hpp:77] Creating layer lstm2_unit_1
I0925 22:33:49.806176  2314 net.cpp:91] Creating Layer lstm2_unit_1
I0925 22:33:49.806185  2314 net.cpp:425] lstm2_unit_1 <- c_0
I0925 22:33:49.806193  2314 net.cpp:425] lstm2_unit_1 <- gate_input_1
I0925 22:33:49.806203  2314 net.cpp:425] lstm2_unit_1 <- cont_1_lstm2_cont_slice_0_split_1
I0925 22:33:49.806215  2314 net.cpp:399] lstm2_unit_1 -> c_1
I0925 22:33:49.806229  2314 net.cpp:399] lstm2_unit_1 -> h_1
I0925 22:33:49.806337  2314 net.cpp:141] Setting up lstm2_unit_1
I0925 22:33:49.806354  2314 net.cpp:148] Top shape: 1 1 1000 (1000)
I0925 22:33:49.806365  2314 net.cpp:148] Top shape: 1 1 1000 (1000)
I0925 22:33:49.806371  2314 net.cpp:156] Memory required for data: 90020
I0925 22:33:49.806380  2314 layer_factory.hpp:77] Creating layer lstm2_
I0925 22:33:49.806394  2314 net.cpp:91] Creating Layer lstm2_
I0925 22:33:49.806402  2314 net.cpp:425] lstm2_ <- c_1
I0925 22:33:49.806411  2314 net.cpp:399] lstm2_ -> c_T
I0925 22:33:49.806448  2314 net.cpp:141] Setting up lstm2_
I0925 22:33:49.806457  2314 net.cpp:148] Top shape: 1 1 1000 (1000)
I0925 22:33:49.806463  2314 net.cpp:156] Memory required for data: 94020
I0925 22:33:49.806468  2314 layer_factory.hpp:77] Creating layer lstm2_h_concat
I0925 22:33:49.806478  2314 net.cpp:91] Creating Layer lstm2_h_concat
I0925 22:33:49.806483  2314 net.cpp:425] lstm2_h_concat <- h_1
I0925 22:33:49.806493  2314 net.cpp:399] lstm2_h_concat -> h
I0925 22:33:49.806535  2314 net.cpp:141] Setting up lstm2_h_concat
I0925 22:33:49.806543  2314 net.cpp:148] Top shape: 1 1 1000 (1000)
I0925 22:33:49.806547  2314 net.cpp:156] Memory required for data: 98020
I0925 22:33:49.806552  2314 layer_factory.hpp:77] Creating layer h_pseudoloss
I0925 22:33:49.806561  2314 net.cpp:91] Creating Layer h_pseudoloss
I0925 22:33:49.806566  2314 net.cpp:425] h_pseudoloss <- h
I0925 22:33:49.806573  2314 net.cpp:399] h_pseudoloss -> h_pseudoloss
I0925 22:33:49.806706  2314 net.cpp:141] Setting up h_pseudoloss
…
I0925 22:33:49.806814  2314 net.cpp:219] lstm2_ does not need backward computation.
I0925 22:33:49.806818  2314 net.cpp:261] This network produces output c_T
I0925 22:33:49.806823  2314 net.cpp:261] This network produces output h_pseudoloss
I0925 22:33:49.806838  2314 net.cpp:274] Network initialization done.
I0925 22:33:49.806893  2314 recurrent_layer.cpp:150] Adding parameter 0: W_xc
I0925 22:33:49.806900  2314 recurrent_layer.cpp:150] Adding parameter 1: b_c
I0925 22:33:49.806905  2314 recurrent_layer.cpp:150] Adding parameter 2: W_hc
I0925 22:33:49.807018  2314 net.cpp:141] Setting up lstm2
I0925 22:33:49.807029  2314 net.cpp:148] Top shape: 1 1 1000 (1000)
I0925 22:33:49.807034  2314 net.cpp:156] Memory required for data: 36412
I0925 22:33:49.807049  2314 layer_factory.hpp:77] Creating layer predict
I0925 22:33:49.807065  2314 net.cpp:91] Creating Layer predict
I0925 22:33:49.807071  2314 net.cpp:425] predict <- lstm2
I0925 22:33:49.807080  2314 net.cpp:399] predict -> predict
I0925 22:33:49.899809  2294 net.cpp:141] Setting up lstm2_x_transform
I0925 22:33:49.899876  2294 net.cpp:148] Top shape: 1 1 4000 (4000)
I0925 22:33:49.899886  2294 net.cpp:156] Memory required for data: 30020
I0925 22:33:49.899915  2294 layer_factory.hpp:77] Creating layer lstm2_W_xc_x_slice
I0925 22:33:49.899941  2294 net.cpp:91] Creating Layer lstm2_W_xc_x_slice
I0925 22:33:49.899952  2294 net.cpp:425] lstm2_W_xc_x_slice <- W_xc_x
I0925 22:33:49.899966  2294 net.cpp:399] lstm2_W_xc_x_slice -> W_xc_x_1
I0925 22:33:49.900296  2286 net.cpp:141] Setting up lstm2_x_transform
I0925 22:33:49.900317  2286 net.cpp:148] Top shape: 1 1 4000 (4000)
I0925 22:33:49.900323  2286 net.cpp:156] Memory required for data: 30020
I0925 22:33:49.900339  2286 layer_factory.hpp:77] Creating layer lstm2_W_xc_x_slice
I0925 22:33:49.900347  2294 net.cpp:141] Setting up lstm2_W_xc_x_slice
I0925 22:33:49.900357  2286 net.cpp:91] Creating Layer lstm2_W_xc_x_slice
I0925 22:33:49.900367  2286 net.cpp:425] lstm2_W_xc_x_slice <- W_xc_x
I0925 22:33:49.900368  2294 net.cpp:148] Top shape: 1 1 4000 (4000)
I0925 22:33:49.900378  2294 net.cpp:156] Memory required for data: 46020
I0925 22:33:49.900380  2286 net.cpp:399] lstm2_W_xc_x_slice -> W_xc_x_1
I0925 22:33:49.900388  2294 layer_factory.hpp:77] Creating layer lstm2_h_conted_0
I0925 22:33:49.900416  2294 net.cpp:91] Creating Layer lstm2_h_conted_0
I0925 22:33:49.900429  2294 net.cpp:425] lstm2_h_conted_0 <- h_0
I0925 22:33:49.900440  2294 net.cpp:425] lstm2_h_conted_0 <- cont_1_lstm2_cont_slice_0_split_0
I0925 22:33:49.900455  2294 net.cpp:399] lstm2_h_conted_0 -> h_conted_0
I0925 22:33:49.900789  2286 net.cpp:141] Setting up lstm2_W_xc_x_slice
I0925 22:33:49.900810  2286 net.cpp:148] Top shape: 1 1 4000 (4000)
I0925 22:33:49.900817  2286 net.cpp:156] Memory required for data: 46020
I0925 22:33:49.900825  2286 layer_factory.hpp:77] Creating layer lstm2_h_conted_0
I0925 22:33:49.900842  2286 net.cpp:91] Creating Layer lstm2_h_conted_0
I0925 22:33:49.900852  2286 net.cpp:425] lstm2_h_conted_0 <- h_0
I0925 22:33:49.900862  2286 net.cpp:425] lstm2_h_conted_0 <- cont_1_lstm2_cont_slice_0_split_0
I0925 22:33:49.900874  2286 net.cpp:399] lstm2_h_conted_0 -> h_conted_0
I0925 22:33:49.901113  2286 net.cpp:141] Setting up lstm2_h_conted_0
I0925 22:33:49.901134  2286 net.cpp:148] Top shape: 1 1 1000 (1000)
I0925 22:33:49.901140  2286 net.cpp:156] Memory required for data: 50020
I0925 22:33:49.901149  2286 layer_factory.hpp:77] Creating layer lstm2_transform_1
I0925 22:33:49.901171  2286 net.cpp:91] Creating Layer lstm2_transform_1
I0925 22:33:49.901183  2286 net.cpp:425] lstm2_transform_1 <- h_conted_0
I0925 22:33:49.901197  2286 net.cpp:399] lstm2_transform_1 -> W_hc_h_0
I0925 22:33:49.911792  2294 net.cpp:141] Setting up lstm2_h_conted_0
I0925 22:33:49.911835  2294 net.cpp:148] Top shape: 1 1 1000 (1000)
I0925 22:33:49.911845  2294 net.cpp:156] Memory required for data: 50020
I0925 22:33:49.911857  2294 layer_factory.hpp:77] Creating layer lstm2_transform_1
I0925 22:33:49.911885  2294 net.cpp:91] Creating Layer lstm2_transform_1
I0925 22:33:49.911898  2294 net.cpp:425] lstm2_transform_1 <- h_conted_0
I0925 22:33:49.911917  2294 net.cpp:399] lstm2_transform_1 -> W_hc_h_0
I0925 22:33:49.928773  2282 net.cpp:141] Setting up predict
I0925 22:33:49.928825  2282 net.cpp:148] Top shape: 1 1 46168 (46168)
I0925 22:33:49.928835  2282 net.cpp:156] Memory required for data: 221084
I0925 22:33:49.928859  2282 layer_factory.hpp:77] Creating layer probs
I0925 22:33:49.928885  2282 net.cpp:91] Creating Layer probs
I0925 22:33:49.928897  2282 net.cpp:425] probs <- predict
I0925 22:33:49.928912  2282 net.cpp:399] probs -> probs
I0925 22:33:49.958247  2286 net.cpp:141] Setting up lstm2_transform_1
I0925 22:33:49.958304  2286 net.cpp:148] Top shape: 1 1 4000 (4000)
I0925 22:33:49.958315  2286 net.cpp:156] Memory required for data: 66020
I0925 22:33:49.958343  2286 layer_factory.hpp:77] Creating layer lstm2_gate_input_1
I0925 22:33:49.958405  2286 net.cpp:91] Creating Layer lstm2_gate_input_1
I0925 22:33:49.958418  2286 net.cpp:425] lstm2_gate_input_1 <- W_hc_h_0
I0925 22:33:49.958431  2286 net.cpp:425] lstm2_gate_input_1 <- W_xc_x_1
I0925 22:33:49.958444  2286 net.cpp:399] lstm2_gate_input_1 -> gate_input_1
I0925 22:33:49.958946  2286 net.cpp:141] Setting up lstm2_gate_input_1
I0925 22:33:49.958963  2286 net.cpp:148] Top shape: 1 1 4000 (4000)
I0925 22:33:49.958971  2286 net.cpp:156] Memory required for data: 82020
I0925 22:33:49.958979  2286 layer_factory.hpp:77] Creating layer lstm2_unit_1
I0925 22:33:49.958997  2286 net.cpp:91] Creating Layer lstm2_unit_1
I0925 22:33:49.959007  2286 net.cpp:425] lstm2_unit_1 <- c_0
I0925 22:33:49.959017  2286 net.cpp:425] lstm2_unit_1 <- gate_input_1
I0925 22:33:49.959025  2286 net.cpp:425] lstm2_unit_1 <- cont_1_lstm2_cont_slice_0_split_1
I0925 22:33:49.959036  2286 net.cpp:399] lstm2_unit_1 -> c_1
I0925 22:33:49.959051  2286 net.cpp:399] lstm2_unit_1 -> h_1
I0925 22:33:49.963984  2286 net.cpp:141] Setting up lstm2_unit_1
I0925 22:33:49.964038  2286 net.cpp:148] Top shape: 1 1 1000 (1000)
I0925 22:33:49.964051  2286 net.cpp:148] Top shape: 1 1 1000 (1000)
I0925 22:33:49.964058  2286 net.cpp:156] Memory required for data: 90020
I0925 22:33:49.964071  2286 layer_factory.hpp:77] Creating layer lstm2_
I0925 22:33:49.964094  2286 net.cpp:91] Creating Layer lstm2_
I0925 22:33:49.964105  2286 net.cpp:425] lstm2_ <- c_1
I0925 22:33:49.964123  2286 net.cpp:399] lstm2_ -> c_T
I0925 22:33:49.964262  2286 net.cpp:141] Setting up lstm2_
I0925 22:33:49.964278  2286 net.cpp:148] Top shape: 1 1 1000 (1000)
I0925 22:33:49.964285  2286 net.cpp:156] Memory required for data: 94020
I0925 22:33:49.964293  2286 layer_factory.hpp:77] Creating layer lstm2_h_concat
I0925 22:33:49.964311  2286 net.cpp:91] Creating Layer lstm2_h_concat
I0925 22:33:49.964321  2286 net.cpp:425] lstm2_h_concat <- h_1
I0925 22:33:49.964332  2286 net.cpp:399] lstm2_h_concat -> h
I0925 22:33:49.965875  2286 net.cpp:141] Setting up lstm2_h_concat
I0925 22:33:49.965899  2286 net.cpp:148] Top shape: 1 1 1000 (1000)
I0925 22:33:49.965908  2286 net.cpp:156] Memory required for data: 98020
I0925 22:33:49.965915  2286 layer_factory.hpp:77] Creating layer h_pseudoloss
I0925 22:33:49.965929  2286 net.cpp:91] Creating Layer h_pseudoloss
I0925 22:33:49.965936  2286 net.cpp:425] h_pseudoloss <- h
I0925 22:33:49.965951  2286 net.cpp:399] h_pseudoloss -> h_pseudoloss
I0925 22:33:49.974535  2294 net.cpp:141] Setting up lstm2_transform_1
I0925 22:33:49.974591  2294 net.cpp:148] Top shape: 1 1 4000 (4000)
I0925 22:33:49.974616  2294 net.cpp:156] Memory required for data: 66020
I0925 22:33:49.974642  2294 layer_factory.hpp:77] Creating layer lstm2_gate_input_1
I0925 22:33:49.974675  2294 net.cpp:91] Creating Layer lstm2_gate_input_1
I0925 22:33:49.974686  2294 net.cpp:425] lstm2_gate_input_1 <- W_hc_h_0
I0925 22:33:49.974700  2294 net.cpp:425] lstm2_gate_input_1 <- W_xc_x_1
I0925 22:33:49.974686  2286 net.cpp:141] Setting up h_pseudoloss
I0925 22:33:49.974714  2294 net.cpp:399] lstm2_gate_input_1 -> gate_input_1
I0925 22:33:49.974731  2286 net.cpp:148] Top shape: (1)
I0925 22:33:49.974741  2286 net.cpp:151]     with loss weight 1
I0925 22:33:49.974766  2286 net.cpp:156] Memory required for data: 98024
I0925 22:33:49.974778  2286 net.cpp:217] h_pseudoloss needs backward computation.
I0925 22:33:49.974789  2286 net.cpp:217] lstm2_h_concat needs backward computation.
I0925 22:33:49.974798  2286 net.cpp:219] lstm2_ does not need backward computation.
I0925 22:33:49.974807  2286 net.cpp:217] lstm2_unit_1 needs backward computation.
I0925 22:33:49.974808  2294 net.cpp:141] Setting up lstm2_gate_input_1
I0925 22:33:49.974817  2286 net.cpp:217] lstm2_gate_input_1 needs backward computation.
I0925 22:33:49.974825  2294 net.cpp:148] Top shape: 1 1 4000 (4000)
I0925 22:33:49.974828  2286 net.cpp:217] lstm2_transform_1 needs backward computation.
I0925 22:33:49.974834  2294 net.cpp:156] Memory required for data: 82020
I0925 22:33:49.974838  2286 net.cpp:219] lstm2_h_conted_0 does not need backward computation.
I0925 22:33:49.974843  2294 layer_factory.hpp:77] Creating layer lstm2_unit_1
I0925 22:33:49.974849  2286 net.cpp:217] lstm2_W_xc_x_slice needs backward computation.
…
I0925 22:33:49.974932  2286 net.cpp:261] This network produces output c_T
I0925 22:33:49.974942  2294 net.cpp:399] lstm2_unit_1 -> h_1
I0925 22:33:49.974943  2286 net.cpp:261] This network produces output h_pseudoloss
I0925 22:33:49.974987  2286 net.cpp:274] Network initialization done.
I0925 22:33:49.975066  2286 recurrent_layer.cpp:150] Adding parameter 0: W_xc
I0925 22:33:49.975078  2286 recurrent_layer.cpp:150] Adding parameter 1: b_c
I0925 22:33:49.975085  2286 recurrent_layer.cpp:150] Adding parameter 2: W_hc
I0925 22:33:49.976814  2294 net.cpp:141] Setting up lstm2_unit_1
I0925 22:33:49.976835  2294 net.cpp:148] Top shape: 1 1 1000 (1000)
I0925 22:33:49.976846  2294 net.cpp:148] Top shape: 1 1 1000 (1000)
I0925 22:33:49.976863  2294 net.cpp:156] Memory required for data: 90020
I0925 22:33:49.976876  2294 layer_factory.hpp:77] Creating layer lstm2_
I0925 22:33:49.976900  2294 net.cpp:91] Creating Layer lstm2_
I0925 22:33:49.976910  2294 net.cpp:425] lstm2_ <- c_1
I0925 22:33:49.976923  2294 net.cpp:399] lstm2_ -> c_T
I0925 22:33:49.987012  2294 net.cpp:141] Setting up lstm2_
I0925 22:33:49.987068  2294 net.cpp:148] Top shape: 1 1 1000 (1000)
I0925 22:33:49.987078  2294 net.cpp:156] Memory required for data: 94020
I0925 22:33:49.987092  2294 layer_factory.hpp:77] Creating layer lstm2_h_concat
I0925 22:33:49.987118  2294 net.cpp:91] Creating Layer lstm2_h_concat
I0925 22:33:49.987128  2294 net.cpp:425] lstm2_h_concat <- h_1
I0925 22:33:49.987149  2286 net.cpp:141] Setting up lstm2
I0925 22:33:49.987205  2286 net.cpp:148] Top shape: 1 1 1000 (1000)
I0925 22:33:49.987215  2286 net.cpp:156] Memory required for data: 36412
I0925 22:33:49.987251  2286 layer_factory.hpp:77] Creating layer predict
I0925 22:33:49.987280  2286 net.cpp:91] Creating Layer predict
I0925 22:33:49.987293  2286 net.cpp:425] predict <- lstm2
I0925 22:33:49.987311  2286 net.cpp:399] predict -> predict
I0925 22:33:49.987151  2294 net.cpp:399] lstm2_h_concat -> h
I0925 22:33:50.077852  2294 net.cpp:141] Setting up lstm2_h_concat
I0925 22:33:50.077951  2294 net.cpp:148] Top shape: 1 1 1000 (1000)
I0925 22:33:50.077973  2294 net.cpp:156] Memory required for data: 98020
I0925 22:33:50.077987  2294 layer_factory.hpp:77] Creating layer h_pseudoloss
I0925 22:33:50.078012  2294 net.cpp:91] Creating Layer h_pseudoloss
I0925 22:33:50.078029  2294 net.cpp:425] h_pseudoloss <- h
I0925 22:33:50.078050  2294 net.cpp:399] h_pseudoloss -> h_pseudoloss
I0925 22:33:50.078168  2280 net.cpp:141] Setting up predict
I0925 22:33:50.078189  2280 net.cpp:148] Top shape: 1 1 46168 (46168)
I0925 22:33:50.078197  2280 net.cpp:156] Memory required for data: 221084
I0925 22:33:50.078215  2280 layer_factory.hpp:77] Creating layer probs
I0925 22:33:50.078233  2280 net.cpp:91] Creating Layer probs
I0925 22:33:50.078243  2280 net.cpp:425] probs <- predict
I0925 22:33:50.078253  2280 net.cpp:399] probs -> probs
I0925 22:33:50.081820  2294 net.cpp:141] Setting up h_pseudoloss
…
I0925 22:33:50.082064  2294 net.cpp:219] lstm2_ does not need backward computation.
I0925 22:33:50.082072  2294 net.cpp:261] This network produces output c_T
I0925 22:33:50.082082  2294 net.cpp:261] This network produces output h_pseudoloss
I0925 22:33:50.082108  2294 net.cpp:274] Network initialization done.
I0925 22:33:50.082206  2294 recurrent_layer.cpp:150] Adding parameter 0: W_xc
I0925 22:33:50.082221  2294 recurrent_layer.cpp:150] Adding parameter 1: b_c
I0925 22:33:50.082228  2294 recurrent_layer.cpp:150] Adding parameter 2: W_hc
I0925 22:33:50.085126  2294 net.cpp:141] Setting up lstm2
I0925 22:33:50.085187  2294 net.cpp:148] Top shape: 1 1 1000 (1000)
I0925 22:33:50.085199  2294 net.cpp:156] Memory required for data: 36412
I0925 22:33:50.085234  2294 layer_factory.hpp:77] Creating layer predict
I0925 22:33:50.085263  2294 net.cpp:91] Creating Layer predict
I0925 22:33:50.085275  2294 net.cpp:425] predict <- lstm2
I0925 22:33:50.085291  2294 net.cpp:399] predict -> predict
I0925 22:33:50.170548  2276 net.cpp:141] Setting up predict
I0925 22:33:50.170578  2320 net.cpp:141] Setting up predict
I0925 22:33:50.170626  2276 net.cpp:148] Top shape: 1 1 46168 (46168)
I0925 22:33:50.170626  2320 net.cpp:148] Top shape: 1 1 46168 (46168)
I0925 22:33:50.170646  2276 net.cpp:156] Memory required for data: 221084
I0925 22:33:50.170651  2320 net.cpp:156] Memory required for data: 221084
I0925 22:33:50.170670  2320 layer_factory.hpp:77] Creating layer probs
I0925 22:33:50.170670  2276 layer_factory.hpp:77] Creating layer probs
I0925 22:33:50.170699  2320 net.cpp:91] Creating Layer probs
I0925 22:33:50.170699  2276 net.cpp:91] Creating Layer probs
I0925 22:33:50.170717  2320 net.cpp:425] probs <- predict
I0925 22:33:50.170717  2276 net.cpp:425] probs <- predict
I0925 22:33:50.170739  2276 net.cpp:399] probs -> probs
I0925 22:33:50.170739  2320 net.cpp:399] probs -> probs
I0925 22:33:50.241729  2276 net.cpp:141] Setting up probs
I0925 22:33:50.241782  2276 net.cpp:148] Top shape: 1 1 46168 (46168)
I0925 22:33:50.241791  2276 net.cpp:156] Memory required for data: 405756
I0925 22:33:50.241801  2276 net.cpp:219] probs does not need backward computation.
I0925 22:33:50.241809  2276 net.cpp:219] predict does not need backward computation.
I0925 22:33:50.241816  2276 net.cpp:219] lstm2 does not need backward computation.
I0925 22:33:50.241822  2276 net.cpp:219] concat does not need backward computation.
I0925 22:33:50.241829  2276 net.cpp:219] lstm1 does not need backward computation.
I0925 22:33:50.241840  2276 net.cpp:219] embedding does not need backward computation.
I0925 22:33:50.241847  2276 net.cpp:219] reshape_stage_indicator does not need backward computation.
I0925 22:33:50.241852  2276 net.cpp:219] reshape_frames does not need backward computation.
I0925 22:33:50.241858  2276 net.cpp:219] embed_encoder does not need backward computation.
I0925 22:33:50.241863  2276 net.cpp:219] cont_sentence_input_1_split does not need backward computation.
I0925 22:33:50.241868  2276 net.cpp:219] input does not need backward computation.
I0925 22:33:50.241871  2276 net.cpp:261] This network produces output probs
I0925 22:33:50.241894  2276 net.cpp:274] Network initialization done.
I0925 22:33:50.242045  2320 net.cpp:141] Setting up probs
I0925 22:33:50.242064  2320 net.cpp:148] Top shape: 1 1 46168 (46168)
I0925 22:33:50.242070  2320 net.cpp:156] Memory required for data: 405756
I0925 22:33:50.242076  2320 net.cpp:219] probs does not need backward computation.
I0925 22:33:50.242082  2320 net.cpp:219] predict does not need backward computation.
I0925 22:33:50.242090  2320 net.cpp:219] lstm2 does not need backward computation.
I0925 22:33:50.242101  2320 net.cpp:219] concat does not need backward computation.
I0925 22:33:50.242112  2320 net.cpp:219] lstm1 does not need backward computation.
I0925 22:33:50.242122  2320 net.cpp:219] embedding does not need backward computation.
I0925 22:33:50.242133  2320 net.cpp:219] reshape_stage_indicator does not need backward computation.
I0925 22:33:50.242142  2320 net.cpp:219] reshape_frames does not need backward computation.
I0925 22:33:50.242151  2320 net.cpp:219] embed_encoder does not need backward computation.
I0925 22:33:50.242156  2320 net.cpp:219] cont_sentence_input_1_split does not need backward computation.
I0925 22:33:50.242162  2320 net.cpp:219] input does not need backward computation.
I0925 22:33:50.242167  2320 net.cpp:261] This network produces output probs
I0925 22:33:50.242185  2320 net.cpp:274] Network initialization done.
I0925 22:33:50.242188  2280 net.cpp:141] Setting up probs
I0925 22:33:50.242209  2280 net.cpp:148] Top shape: 1 1 46168 (46168)
I0925 22:33:50.242216  2280 net.cpp:156] Memory required for data: 405756
I0925 22:33:50.242226  2280 net.cpp:219] probs does not need backward computation.
I0925 22:33:50.242234  2280 net.cpp:219] predict does not need backward computation.
I0925 22:33:50.242243  2280 net.cpp:219] lstm2 does not need backward computation.
I0925 22:33:50.242251  2280 net.cpp:219] concat does not need backward computation.
I0925 22:33:50.242259  2280 net.cpp:219] lstm1 does not need backward computation.
I0925 22:33:50.242269  2280 net.cpp:219] embedding does not need backward computation.
I0925 22:33:50.242276  2280 net.cpp:219] reshape_stage_indicator does not need backward computation.
I0925 22:33:50.242285  2280 net.cpp:219] reshape_frames does not need backward computation.
I0925 22:33:50.242291  2280 net.cpp:219] embed_encoder does not need backward computation.
I0925 22:33:50.242300  2280 net.cpp:219] cont_sentence_input_1_split does not need backward computation.
I0925 22:33:50.242308  2280 net.cpp:219] input does not need backward computation.
I0925 22:33:50.242314  2280 net.cpp:261] This network produces output probs
I0925 22:33:50.242341  2280 net.cpp:274] Network initialization done.
I0925 22:33:50.242785  2282 net.cpp:141] Setting up probs
I0925 22:33:50.242810  2282 net.cpp:148] Top shape: 1 1 46168 (46168)
I0925 22:33:50.242821  2282 net.cpp:156] Memory required for data: 405756
I0925 22:33:50.242833  2282 net.cpp:219] probs does not need backward computation.
I0925 22:33:50.242844  2282 net.cpp:219] predict does not need backward computation.
I0925 22:33:50.242854  2282 net.cpp:219] lstm2 does not need backward computation.
I0925 22:33:50.242866  2282 net.cpp:219] concat does not need backward computation.
I0925 22:33:50.242877  2282 net.cpp:219] lstm1 does not need backward computation.
I0925 22:33:50.242889  2282 net.cpp:219] embedding does not need backward computation.
I0925 22:33:50.242902  2282 net.cpp:219] reshape_stage_indicator does not need backward computation.
I0925 22:33:50.242913  2282 net.cpp:219] reshape_frames does not need backward computation.
I0925 22:33:50.242923  2282 net.cpp:219] embed_encoder does not need backward computation.
I0925 22:33:50.242933  2282 net.cpp:219] cont_sentence_input_1_split does not need backward computation.
I0925 22:33:50.242944  2282 net.cpp:219] input does not need backward computation.
I0925 22:33:50.242952  2282 net.cpp:261] This network produces output probs
I0925 22:33:50.242985  2282 net.cpp:274] Network initialization done.
I0925 22:33:50.243924  2288 net.cpp:141] Setting up conv1
I0925 22:33:50.243948  2288 net.cpp:148] Top shape: 10 96 55 55 (2904000)
I0925 22:33:50.243957  2288 net.cpp:156] Memory required for data: 17799480
I0925 22:33:50.243984  2288 layer_factory.hpp:77] Creating layer relu1
I0925 22:33:50.244012  2288 net.cpp:91] Creating Layer relu1
I0925 22:33:50.244025  2288 net.cpp:425] relu1 <- conv1
I0925 22:33:50.244041  2288 net.cpp:386] relu1 -> conv1 (in-place)
I0925 22:33:50.244583  2288 net.cpp:141] Setting up relu1
I0925 22:33:50.244601  2288 net.cpp:148] Top shape: 10 96 55 55 (2904000)
I0925 22:33:50.244609  2288 net.cpp:156] Memory required for data: 29415480
I0925 22:33:50.244618  2288 layer_factory.hpp:77] Creating layer pool1
I0925 22:33:50.244639  2288 net.cpp:91] Creating Layer pool1
I0925 22:33:50.244676  2288 net.cpp:425] pool1 <- conv1
I0925 22:33:50.244691  2288 net.cpp:399] pool1 -> pool1
I0925 22:33:50.244860  2288 net.cpp:141] Setting up pool1
I0925 22:33:50.244879  2288 net.cpp:148] Top shape: 10 96 27 27 (699840)
I0925 22:33:50.244886  2288 net.cpp:156] Memory required for data: 32214840
I0925 22:33:50.244894  2288 layer_factory.hpp:77] Creating layer norm1
I0925 22:33:50.244923  2288 net.cpp:91] Creating Layer norm1
I0925 22:33:50.244935  2288 net.cpp:425] norm1 <- pool1
I0925 22:33:50.244946  2288 net.cpp:399] norm1 -> norm1
I0925 22:33:50.245883  2288 net.cpp:141] Setting up norm1
I0925 22:33:50.245904  2288 net.cpp:148] Top shape: 10 96 27 27 (699840)
I0925 22:33:50.245913  2288 net.cpp:156] Memory required for data: 35014200
I0925 22:33:50.245921  2288 layer_factory.hpp:77] Creating layer conv2
I0925 22:33:50.245946  2288 net.cpp:91] Creating Layer conv2
I0925 22:33:50.245955  2288 net.cpp:425] conv2 <- norm1
I0925 22:33:50.245972  2288 net.cpp:399] conv2 -> conv2
I0925 22:33:50.251991  2288 net.cpp:141] Setting up conv2
I0925 22:33:50.252038  2288 net.cpp:148] Top shape: 10 256 27 27 (1866240)
I0925 22:33:50.252045  2288 net.cpp:156] Memory required for data: 42479160
I0925 22:33:50.252066  2288 layer_factory.hpp:77] Creating layer relu2
I0925 22:33:50.252086  2288 net.cpp:91] Creating Layer relu2
I0925 22:33:50.252094  2288 net.cpp:425] relu2 <- conv2
I0925 22:33:50.252105  2288 net.cpp:386] relu2 -> conv2 (in-place)
I0925 22:33:50.253454  2288 net.cpp:141] Setting up relu2
I0925 22:33:50.253480  2288 net.cpp:148] Top shape: 10 256 27 27 (1866240)
I0925 22:33:50.253490  2288 net.cpp:156] Memory required for data: 49944120
I0925 22:33:50.253499  2288 layer_factory.hpp:77] Creating layer pool2
I0925 22:33:50.253960  2288 net.cpp:91] Creating Layer pool2
I0925 22:33:50.253976  2288 net.cpp:425] pool2 <- conv2
I0925 22:33:50.253991  2288 net.cpp:399] pool2 -> pool2
I0925 22:33:50.255012  2288 net.cpp:141] Setting up pool2
I0925 22:33:50.255036  2288 net.cpp:148] Top shape: 10 256 13 13 (432640)
I0925 22:33:50.255046  2288 net.cpp:156] Memory required for data: 51674680
I0925 22:33:50.255056  2288 layer_factory.hpp:77] Creating layer norm2
I0925 22:33:50.255081  2288 net.cpp:91] Creating Layer norm2
I0925 22:33:50.255091  2288 net.cpp:425] norm2 <- pool2
I0925 22:33:50.255105  2288 net.cpp:399] norm2 -> norm2
I0925 22:33:50.256937  2288 net.cpp:141] Setting up norm2
I0925 22:33:50.256958  2288 net.cpp:148] Top shape: 10 256 13 13 (432640)
I0925 22:33:50.256968  2288 net.cpp:156] Memory required for data: 53405240
I0925 22:33:50.256978  2288 layer_factory.hpp:77] Creating layer conv3
I0925 22:33:50.257416  2288 net.cpp:91] Creating Layer conv3
I0925 22:33:50.257432  2288 net.cpp:425] conv3 <- norm2
I0925 22:33:50.257447  2288 net.cpp:399] conv3 -> conv3
I0925 22:33:50.275974  2314 net.cpp:141] Setting up predict
I0925 22:33:50.276032  2314 net.cpp:148] Top shape: 1 1 46168 (46168)
I0925 22:33:50.276042  2314 net.cpp:156] Memory required for data: 221084
I0925 22:33:50.276059  2314 layer_factory.hpp:77] Creating layer probs
I0925 22:33:50.276079  2314 net.cpp:91] Creating Layer probs
I0925 22:33:50.276092  2314 net.cpp:425] probs <- predict
I0925 22:33:50.276106  2314 net.cpp:399] probs -> probs
I0925 22:33:50.284451  2314 net.cpp:141] Setting up probs
I0925 22:33:50.284515  2314 net.cpp:148] Top shape: 1 1 46168 (46168)
I0925 22:33:50.284528  2314 net.cpp:156] Memory required for data: 405756
I0925 22:33:50.284541  2314 net.cpp:219] probs does not need backward computation.
I0925 22:33:50.284554  2314 net.cpp:219] predict does not need backward computation.
I0925 22:33:50.284564  2314 net.cpp:219] lstm2 does not need backward computation.
I0925 22:33:50.284574  2314 net.cpp:219] concat does not need backward computation.
I0925 22:33:50.284584  2314 net.cpp:219] lstm1 does not need backward computation.
I0925 22:33:50.284596  2314 net.cpp:219] embedding does not need backward computation.
I0925 22:33:50.284605  2314 net.cpp:219] reshape_stage_indicator does not need backward computation.
I0925 22:33:50.284615  2314 net.cpp:219] reshape_frames does not need backward computation.
I0925 22:33:50.284621  2314 net.cpp:219] embed_encoder does not need backward computation.
I0925 22:33:50.284631  2314 net.cpp:219] cont_sentence_input_1_split does not need backward computation.
I0925 22:33:50.284641  2314 net.cpp:219] input does not need backward computation.
I0925 22:33:50.284648  2314 net.cpp:261] This network produces output probs
I0925 22:33:50.284675  2314 net.cpp:274] Network initialization done.
I0925 22:33:50.285468  2288 net.cpp:141] Setting up conv3
I0925 22:33:50.285529  2288 net.cpp:148] Top shape: 10 384 13 13 (648960)
I0925 22:33:50.285540  2288 net.cpp:156] Memory required for data: 56001080
I0925 22:33:50.285572  2288 layer_factory.hpp:77] Creating layer relu3
I0925 22:33:50.285599  2288 net.cpp:91] Creating Layer relu3
I0925 22:33:50.285610  2288 net.cpp:425] relu3 <- conv3
I0925 22:33:50.285624  2288 net.cpp:386] relu3 -> conv3 (in-place)
I0925 22:33:50.286659  2288 net.cpp:141] Setting up relu3
I0925 22:33:50.286690  2288 net.cpp:148] Top shape: 10 384 13 13 (648960)
I0925 22:33:50.286700  2288 net.cpp:156] Memory required for data: 58596920
I0925 22:33:50.286710  2288 layer_factory.hpp:77] Creating layer conv4
I0925 22:33:50.287196  2288 net.cpp:91] Creating Layer conv4
I0925 22:33:50.287212  2288 net.cpp:425] conv4 <- conv3
I0925 22:33:50.287233  2288 net.cpp:399] conv4 -> conv4
I0925 22:33:50.331910  2288 net.cpp:141] Setting up conv4
I0925 22:33:50.332005  2288 net.cpp:148] Top shape: 10 384 13 13 (648960)
I0925 22:33:50.332017  2288 net.cpp:156] Memory required for data: 61192760
I0925 22:33:50.332041  2288 layer_factory.hpp:77] Creating layer relu4
I0925 22:33:50.332722  2288 net.cpp:91] Creating Layer relu4
I0925 22:33:50.332769  2288 net.cpp:425] relu4 <- conv4
I0925 22:33:50.332803  2288 net.cpp:386] relu4 -> conv4 (in-place)
I0925 22:33:50.333519  2288 net.cpp:141] Setting up relu4
I0925 22:33:50.333565  2288 net.cpp:148] Top shape: 10 384 13 13 (648960)
I0925 22:33:50.333580  2288 net.cpp:156] Memory required for data: 63788600
I0925 22:33:50.333595  2288 layer_factory.hpp:77] Creating layer conv5
I0925 22:33:50.333634  2288 net.cpp:91] Creating Layer conv5
I0925 22:33:50.333648  2288 net.cpp:425] conv5 <- conv4
I0925 22:33:50.333665  2288 net.cpp:399] conv5 -> conv5
I0925 22:33:50.347766  2288 net.cpp:141] Setting up conv5
I0925 22:33:50.347841  2288 net.cpp:148] Top shape: 10 256 13 13 (432640)
I0925 22:33:50.347856  2288 net.cpp:156] Memory required for data: 65519160
I0925 22:33:50.347898  2288 layer_factory.hpp:77] Creating layer relu5
I0925 22:33:50.347942  2288 net.cpp:91] Creating Layer relu5
I0925 22:33:50.347959  2288 net.cpp:425] relu5 <- conv5
I0925 22:33:50.347976  2288 net.cpp:386] relu5 -> conv5 (in-place)
I0925 22:33:50.348623  2288 net.cpp:141] Setting up relu5
I0925 22:33:50.348662  2288 net.cpp:148] Top shape: 10 256 13 13 (432640)
I0925 22:33:50.348673  2288 net.cpp:156] Memory required for data: 67249720
I0925 22:33:50.348685  2288 layer_factory.hpp:77] Creating layer pool5
I0925 22:33:50.348706  2288 net.cpp:91] Creating Layer pool5
I0925 22:33:50.348719  2288 net.cpp:425] pool5 <- conv5
I0925 22:33:50.349324  2288 net.cpp:399] pool5 -> pool5
I0925 22:33:50.349587  2288 net.cpp:141] Setting up pool5
I0925 22:33:50.349618  2288 net.cpp:148] Top shape: 10 256 6 6 (92160)
I0925 22:33:50.349630  2288 net.cpp:156] Memory required for data: 67618360
I0925 22:33:50.349642  2288 layer_factory.hpp:77] Creating layer fc6
I0925 22:33:50.349684  2288 net.cpp:91] Creating Layer fc6
I0925 22:33:50.349696  2288 net.cpp:425] fc6 <- pool5
I0925 22:33:50.349717  2288 net.cpp:399] fc6 -> fc6
I0925 22:33:50.450115  2286 net.cpp:141] Setting up predict
I0925 22:33:50.450182  2286 net.cpp:148] Top shape: 1 1 46168 (46168)
I0925 22:33:50.450192  2286 net.cpp:156] Memory required for data: 221084
I0925 22:33:50.450215  2286 layer_factory.hpp:77] Creating layer probs
I0925 22:33:50.450242  2286 net.cpp:91] Creating Layer probs
I0925 22:33:50.450254  2286 net.cpp:425] probs <- predict
I0925 22:33:50.450274  2286 net.cpp:399] probs -> probs
I0925 22:33:50.452044  2286 net.cpp:141] Setting up probs
I0925 22:33:50.452112  2286 net.cpp:148] Top shape: 1 1 46168 (46168)
I0925 22:33:50.452122  2286 net.cpp:156] Memory required for data: 405756
I0925 22:33:50.452138  2286 net.cpp:219] probs does not need backward computation.
I0925 22:33:50.452150  2286 net.cpp:219] predict does not need backward computation.
I0925 22:33:50.452162  2286 net.cpp:219] lstm2 does not need backward computation.
I0925 22:33:50.452173  2286 net.cpp:219] concat does not need backward computation.
I0925 22:33:50.452183  2286 net.cpp:219] lstm1 does not need backward computation.
I0925 22:33:50.452193  2286 net.cpp:219] embedding does not need backward computation.
I0925 22:33:50.452203  2286 net.cpp:219] reshape_stage_indicator does not need backward computation.
I0925 22:33:50.452211  2286 net.cpp:219] reshape_frames does not need backward computation.
I0925 22:33:50.452221  2286 net.cpp:219] embed_encoder does not need backward computation.
I0925 22:33:50.452229  2286 net.cpp:219] cont_sentence_input_1_split does not need backward computation.
I0925 22:33:50.452237  2286 net.cpp:219] input does not need backward computation.
I0925 22:33:50.452244  2286 net.cpp:261] This network produces output probs
I0925 22:33:50.452271  2286 net.cpp:274] Network initialization done.
I0925 22:33:50.507994  2288 net.cpp:141] Setting up fc6
I0925 22:33:50.508092  2288 net.cpp:148] Top shape: 10 4096 (40960)
I0925 22:33:50.508113  2288 net.cpp:156] Memory required for data: 67782200
I0925 22:33:50.508158  2288 layer_factory.hpp:77] Creating layer relu6
I0925 22:33:50.511710  2288 net.cpp:91] Creating Layer relu6
I0925 22:33:50.511771  2288 net.cpp:425] relu6 <- fc6
I0925 22:33:50.512328  2288 net.cpp:386] relu6 -> fc6 (in-place)
I0925 22:33:50.513288  2288 net.cpp:141] Setting up relu6
I0925 22:33:50.513340  2288 net.cpp:148] Top shape: 10 4096 (40960)
I0925 22:33:50.513352  2288 net.cpp:156] Memory required for data: 67946040
I0925 22:33:50.513366  2288 layer_factory.hpp:77] Creating layer drop6
I0925 22:33:50.513406  2288 net.cpp:91] Creating Layer drop6
I0925 22:33:50.513418  2288 net.cpp:425] drop6 <- fc6
I0925 22:33:50.513437  2288 net.cpp:386] drop6 -> fc6 (in-place)
I0925 22:33:50.513881  2288 net.cpp:141] Setting up drop6
I0925 22:33:50.513906  2288 net.cpp:148] Top shape: 10 4096 (40960)
I0925 22:33:50.513916  2288 net.cpp:156] Memory required for data: 68109880
I0925 22:33:50.513924  2288 layer_factory.hpp:77] Creating layer fc7
I0925 22:33:50.513954  2288 net.cpp:91] Creating Layer fc7
I0925 22:33:50.513965  2288 net.cpp:425] fc7 <- fc6
I0925 22:33:50.513979  2288 net.cpp:399] fc7 -> fc7
I0925 22:33:50.577575  2294 net.cpp:141] Setting up predict
I0925 22:33:50.577649  2294 net.cpp:148] Top shape: 1 1 46168 (46168)
I0925 22:33:50.577661  2294 net.cpp:156] Memory required for data: 221084
I0925 22:33:50.577679  2294 layer_factory.hpp:77] Creating layer probs
I0925 22:33:50.577705  2294 net.cpp:91] Creating Layer probs
I0925 22:33:50.577719  2294 net.cpp:425] probs <- predict
I0925 22:33:50.577733  2294 net.cpp:399] probs -> probs
I0925 22:33:50.578876  2294 net.cpp:141] Setting up probs
I0925 22:33:50.578939  2294 net.cpp:148] Top shape: 1 1 46168 (46168)
I0925 22:33:50.578948  2294 net.cpp:156] Memory required for data: 405756
I0925 22:33:50.578960  2294 net.cpp:219] probs does not need backward computation.
I0925 22:33:50.578969  2294 net.cpp:219] predict does not need backward computation.
I0925 22:33:50.578975  2294 net.cpp:219] lstm2 does not need backward computation.
I0925 22:33:50.578984  2294 net.cpp:219] concat does not need backward computation.
I0925 22:33:50.578995  2294 net.cpp:219] lstm1 does not need backward computation.
I0925 22:33:50.579006  2294 net.cpp:219] embedding does not need backward computation.
I0925 22:33:50.579012  2294 net.cpp:219] reshape_stage_indicator does not need backward computation.
I0925 22:33:50.579018  2294 net.cpp:219] reshape_frames does not need backward computation.
I0925 22:33:50.579025  2294 net.cpp:219] embed_encoder does not need backward computation.
I0925 22:33:50.579030  2294 net.cpp:219] cont_sentence_input_1_split does not need backward computation.
I0925 22:33:50.579036  2294 net.cpp:219] input does not need backward computation.
I0925 22:33:50.579044  2294 net.cpp:261] This network produces output probs
I0925 22:33:50.579068  2294 net.cpp:274] Network initialization done.
I0925 22:33:50.581332  2288 net.cpp:141] Setting up fc7
I0925 22:33:50.581384  2288 net.cpp:148] Top shape: 10 4096 (40960)
I0925 22:33:50.581394  2288 net.cpp:156] Memory required for data: 68273720
I0925 22:33:50.581414  2288 layer_factory.hpp:77] Creating layer relu7
I0925 22:33:50.581437  2288 net.cpp:91] Creating Layer relu7
I0925 22:33:50.581449  2288 net.cpp:425] relu7 <- fc7
I0925 22:33:50.582780  2288 net.cpp:386] relu7 -> fc7 (in-place)
I0925 22:33:50.584746  2288 net.cpp:141] Setting up relu7
I0925 22:33:50.584774  2288 net.cpp:148] Top shape: 10 4096 (40960)
I0925 22:33:50.584781  2288 net.cpp:156] Memory required for data: 68437560
I0925 22:33:50.584790  2288 layer_factory.hpp:77] Creating layer drop7
I0925 22:33:50.584807  2288 net.cpp:91] Creating Layer drop7
I0925 22:33:50.584815  2288 net.cpp:425] drop7 <- fc7
I0925 22:33:50.585551  2288 net.cpp:386] drop7 -> fc7 (in-place)
I0925 22:33:50.585647  2288 net.cpp:141] Setting up drop7
I0925 22:33:50.585667  2288 net.cpp:148] Top shape: 10 4096 (40960)
I0925 22:33:50.585675  2288 net.cpp:156] Memory required for data: 68601400
I0925 22:33:50.585683  2288 layer_factory.hpp:77] Creating layer fc8
I0925 22:33:50.585698  2288 net.cpp:91] Creating Layer fc8
I0925 22:33:50.585705  2288 net.cpp:425] fc8 <- fc7
I0925 22:33:50.585717  2288 net.cpp:399] fc8 -> fc8
I0925 22:33:50.601536  2288 net.cpp:141] Setting up fc8
I0925 22:33:50.601588  2288 net.cpp:148] Top shape: 10 1000 (10000)
I0925 22:33:50.601598  2288 net.cpp:156] Memory required for data: 68641400
I0925 22:33:50.601619  2288 layer_factory.hpp:77] Creating layer prob
I0925 22:33:50.602175  2288 net.cpp:91] Creating Layer prob
I0925 22:33:50.602192  2288 net.cpp:425] prob <- fc8
I0925 22:33:50.602207  2288 net.cpp:399] prob -> prob
I0925 22:33:50.604312  2288 net.cpp:141] Setting up prob
I0925 22:33:50.604337  2288 net.cpp:148] Top shape: 10 1000 (10000)
I0925 22:33:50.604346  2288 net.cpp:156] Memory required for data: 68681400
I0925 22:33:50.604356  2288 net.cpp:219] prob does not need backward computation.
I0925 22:33:50.604363  2288 net.cpp:219] fc8 does not need backward computation.
I0925 22:33:50.604372  2288 net.cpp:219] drop7 does not need backward computation.
I0925 22:33:50.604378  2288 net.cpp:219] relu7 does not need backward computation.
…
