…
W0925 23:29:28.864138  4696 upgrade_proto.cpp:71] Note that future Caffe releases will only support input layers and not input fields.
W0925 23:29:28.864125  4652 upgrade_proto.cpp:71] Note that future Caffe releases will only support input layers and not input fields.
W0925 23:29:28.864123  4648 upgrade_proto.cpp:71] Note that future Caffe releases will only support input layers and not input fields.
I0925 23:29:28.864301  4662 net.cpp:49] Initializing net from parameters: 
name: "CaffeNet"
state {
  phase: TEST
}
layer {
  name: "data"
  type: "Input"
  top: "data"
  input_param {
    shape {
      dim: 10
      dim: 3
      dim: 227
      dim: 227
    }
  }
}
layer {
  name: "conv1"
  type: "Convolution"
  bottom: "data"
  top: "conv1"
  convolution_param {
    num_output: 96
    kernel_size: 11
    stride: 4
  }
}
layer {
  name: "relu1"
  type: "ReLU"
  bottom: "conv1"
  top: "conv1"
}
layer {
  name: "pool1"
  type: "Pooling"
  bottom: "conv1"
  top: "pool1"
  pooling_param {
    pool: MAX
    kernel_size: 3
    stride: 2
  }
}
layer {
  name: "norm1"
  type: "LRN"
  bottom: "pool1"
  top: "norm1"
  lrn_param {
    local_size: 5
    alpha: 0.0001
    beta: 0.75
  }
}
layer {
  name: "conv2"
  type: "Convolution"
  bottom: "norm1"
  top: "conv2"
  convolution_param {
    num_output: 256
    pad: 2
    kernel_size: 5
    group: 2
  }
}
layer {
  name: "relu2"
  type: "ReLU"
  bottom: "conv2"
  top: "conv2"
}
layer {
  name: "pool2"
  type: "Pooling"
  bottom: "conv2"
  top: "pool2"
  pooling_param {
    pool: MAX
    kernel_size: 3
    stride: 2
  }
}
layer {
  name: "norm2"
  type: "LRN"
  bottom: "pool2"
  top: "norm2"
  lrn_param {
    local_size: 5
    alpha: 0.0001
    beta: 0.75
  }
}
layer {
  name: "conv3"
  type: "Convolution"
  bottom: "norm2"
  top: "conv3"
  convolution_param {
    num_output: 384
    pad: 1
    kernel_size: 3
  }
}
layer {
  name: "relu3"
  type: "ReLU"
  bottom: "conv3"
  top: "conv3"
}
layer {
  name: "conv4"
  type: "Convolution"
  bottom: "conv3"
  top: "conv4"
  convolution_param {
    num_output: 384
    pad: 1
    kernel_size: 3
    group: 2
  }
}
layer {
  name: "relu4"
  type: "ReLU"
  bottom: "conv4"
  top: "conv4"
}
layer {
  name: "conv5"
  type: "Convolution"
  bottom: "conv4"
  top: "conv5"
  convolution_param {
    num_output: 256
    pad: 1
    kernel_size: 3
    group: 2
  }
}
layer {
  name: "relu5"
  type: "ReLU"
  bottom: "conv5"
  top: "conv5"
}
layer {
  name: "pool5"
  type: "Pooling"
  bottom: "conv5"
  top: "pool5"
  pooling_param {
    pool: MAX
    kernel_size: 3
    stride: 2
  }
}
layer {
  name: "fc6"
  type: "InnerProduct"
  bottom: "pool5"
  top: "fc6"
  inner_product_param {
    num_output: 4096
  }
}
layer {
  name: "relu6"
  type: "ReLU"
  bottom: "fc6"
  top: "fc6"
}
layer {
  name: "drop6"
  type: "Dropout"
  bottom: "fc6"
  top: "fc6"
  dropout_param {
    dropout_ratio: 0.5
  }
}
layer {
  name: "fc7"
  type: "InnerProduct"
  bottom: "fc6"
  top: "fc7"
  inner_product_param {
    num_output: 4096
  }
}
layer {
  name: "relu7"
  type: "ReLU"
  bottom: "fc7"
  top: "fc7"
}
layer {
  name: "drop7"
  type: "Dropout"
  bottom: "fc7"
  top: "fc7"
  dropout_param {
    dropout_ratio: 0.5
  }
}
layer {
  name: "fc8"
  type: "InnerProduct"
  bottom: "fc7"
  top: "fc8"
  inner_product_param {
    num_output: 1000
  }
}
layer {
  name: "prob"
  type: "Softmax"
  bottom: "fc8"
  top: "prob"
}
I0925 23:29:28.864333  4670 net.cpp:49] Initializing net from parameters: 
name: "s2vt:features_to_lstm"
state {
  phase: TEST
}
layer {
  name: "input"
  type: "Input"
  top: "frames_fc7"
  top: "cont_sentence"
  top: "input_sentence"
  top: "stage_indicator"
  input_param {
    shape {
      dim: 1
      dim: 4096
    }
    shape {
      dim: 1
      dim: 1
    }
    shape {
      dim: 1
      dim: 1
    }
    shape {
      dim: 1
      dim: 1
    }
  }
}
layer {
  name: "embed_encoder"
  type: "InnerProduct"
  bottom: "frames_fc7"
  top: "embedded_in_frames"
  param {
    lr_mult: 1
    decay_mult: 1
  }
  param {
    lr_mult: 2
    decay_mult: 0
  }
  inner_product_param {
    num_output: 500
    weight_filler {
      type: "xavier"
    }
    bias_filler {
      type: "constant"
      value: 0.2
    }
  }
}
layer {
  name: "reshape_frames"
  type: "Reshape"
  bottom: "embedded_in_frames"
  top: "embedded_input_frames"
  reshape_param {
    shape {
      dim: 1
      dim: 1
      dim: 500
    }
  }
}
layer {
  name: "reshape_stage_indicator"
  type: "Reshape"
  bottom: "stage_indicator"
  top: "reshaped_stage_indicator"
  reshape_param {
    shape {
      dim: 1
      dim: 1
      dim: 1
    }
  }
}
layer {
  name: "embedding"
  type: "Embed"
  bottom: "input_sentence"
  top: "embedded_input_sentence"
  param {
    lr_mult: 1
  }
  embed_param {
    num_output: 500
    input_dim: 46168
    bias_term: false
    weight_filler {
      type: "uniform"
      min: -0.08
      max: 0.08
    }
  }
}
layer {
  name: "lstm1"
  type: "LSTM"
  bottom: "embedded_input_frames"
  bottom: "cont_sentence"
  top: "lstm1"
  recurrent_param {
    num_output: 1000
    weight_filler {
      type: "uniform"
      min: -0.08
      max: 0.08
    }
    bias_filler {
      type: "constant"
      value: 0
    }
  }
}
layer {
  name: "concat"
  type: "Concat"
  bottom: "lstm1"
  bottom: "embedded_input_sentence"
  bottom: "reshaped_stage_indicator"
  top: "lstm1_video_sequence"
  concat_param {
    concat_dim: 2
  }
}
layer {
  name: "lstm2"
  type: "LSTM"
  bottom: "lstm1_video_sequence"
  bottom: "cont_sentence"
  top: "lstm2"
  recurrent_param {
    num_output: 1000
    weight_filler {
      type: "uniform"
      min: -0.08
      max: 0.08
    }
    bias_filler {
      type: "constant"
      value: 0
    }
  }
}
layer {
  name: "predict"
  type: "InnerProduct"
  bottom: "lstm2"
  top: "predict"
  param {
    lr_mult: 1
    decay_mult: 1
  }
  param {
    lr_mult: 2
    decay_mult: 0
  }
  inner_product_param {
    num_output: 46168
    weight_filler {
      type: "uniform"
      min: -0.08
      max: 0.08
    }
    bias_filler {
      type: "constant"
      value: 0
    }
    axis: 2
  }
}
layer {
  name: "probs"
  type: "Softmax"
  bottom: "predict"
  top: "probs"
  softmax_param {
    axis: 2
  }
}
I0925 23:29:28.864343  4656 net.cpp:49] Initializing net from parameters: 
name: "s2vt:features_to_lstm"
state {
  phase: TEST
}
layer {
  name: "input"
  type: "Input"
  top: "frames_fc7"
  top: "cont_sentence"
  top: "input_sentence"
  top: "stage_indicator"
  input_param {
    shape {
      dim: 1
      dim: 4096
    }
    shape {
      dim: 1
      dim: 1
    }
    shape {
      dim: 1
      dim: 1
    }
    shape {
      dim: 1
      dim: 1
    }
  }
}
layer {
  name: "embed_encoder"
  type: "InnerProduct"
  bottom: "frames_fc7"
  top: "embedded_in_frames"
  param {
    lr_mult: 1
    decay_mult: 1
  }
  param {
    lr_mult: 2
    decay_mult: 0
  }
  inner_product_param {
    num_output: 500
    weight_filler {
      type: "xavier"
    }
    bias_filler {
      type: "constant"
      value: 0.2
    }
  }
}
layer {
  name: "reshape_frames"
  type: "Reshape"
  bottom: "embedded_in_frames"
  top: "embedded_input_frames"
  reshape_param {
    shape {
      dim: 1
      dim: 1
      dim: 500
    }
  }
}
layer {
  name: "reshape_stage_indicator"
  type: "Reshape"
  bottom: "stage_indicator"
  top: "reshaped_stage_indicator"
  reshape_param {
    shape {
      dim: 1
      dim: 1
      dim: 1
    }
  }
}
layer {
  name: "embedding"
  type: "Embed"
  bottom: "input_sentence"
  top: "embedded_input_sentence"
  param {
    lr_mult: 1
  }
  embed_param {
    num_output: 500
    input_dim: 46168
    bias_term: false
    weight_filler {
      type: "uniform"
      min: -0.08
      max: 0.08
    }
  }
}
layer {
  name: "lstm1"
  type: "LSTM"
  bottom: "embedded_input_frames"
  bottom: "cont_sentence"
  top: "lstm1"
  recurrent_param {
    num_output: 1000
    weight_filler {
      type: "uniform"
      min: -0.08
      max: 0.08
    }
    bias_filler {
      type: "constant"
      value: 0
    }
  }
}
layer {
  name: "concat"
  type: "Concat"
  bottom: "lstm1"
  bottom: "embedded_input_sentence"
  bottom: "reshaped_stage_indicator"
  top: "lstm1_video_sequence"
  concat_param {
    concat_dim: 2
  }
}
layer {
  name: "lstm2"
  type: "LSTM"
  bottom: "lstm1_video_sequence"
  bottom: "cont_sentence"
  top: "lstm2"
  recurrent_param {
    num_output: 1000
    weight_filler {
      type: "uniform"
      min: -0.08
      max: 0.08
    }
    bias_filler {
      type: "constant"
      value: 0
    }
  }
}
layer {
  name: "predict"
  type: "InnerProduct"
  bottom: "lstm2"
  top: "predict"
  param {
    lr_mult: 1
    decay_mult: 1
  }
  param {
    lr_mult: 2
    decay_mult: 0
  }
  inner_product_param {
    num_output: 46168
    weight_filler {
      type: "uniform"
      min: -0.08
      max: 0.08
    }
    bias_filler {
      type: "constant"
      value: 0
    }
    axis: 2
  }
}
layer {
  name: "probs"
  type: "Softmax"
  bottom: "predict"
  top: "probs"
  softmax_param {
    axis: 2
  }
}
I0925 23:29:28.864346  4660 net.cpp:49] Initializing net from parameters: 
name: "s2vt:features_to_lstm"
state {
  phase: TEST
}
layer {
  name: "input"
  type: "Input"
  top: "frames_fc7"
  top: "cont_sentence"
  top: "input_sentence"
  top: "stage_indicator"
  input_param {
    shape {
      dim: 1
      dim: 4096
    }
    shape {
      dim: 1
      dim: 1
    }
    shape {
      dim: 1
      dim: 1
    }
    shape {
      dim: 1
      dim: 1
    }
  }
}
layer {
  name: "embed_encoder"
  type: "InnerProduct"
  bottom: "frames_fc7"
  top: "embedded_in_frames"
  param {
    lr_mult: 1
    decay_mult: 1
  }
  param {
    lr_mult: 2
    decay_mult: 0
  }
  inner_product_param {
    num_output: 500
    weight_filler {
      type: "xavier"
    }
    bias_filler {
      type: "constant"
      value: 0.2
    }
  }
}
layer {
  name: "reshape_frames"
  type: "Reshape"
  bottom: "embedded_in_frames"
  top: "embedded_input_frames"
  reshape_param {
    shape {
      dim: 1
      dim: 1
      dim: 500
    }
  }
}
layer {
  name: "reshape_stage_indicator"
  type: "Reshape"
  bottom: "stage_indicator"
  top: "reshaped_stage_indicator"
  reshape_param {
    shape {
      dim: 1
      dim: 1
      dim: 1
    }
  }
}
layer {
  name: "embedding"
  type: "Embed"
  bottom: "input_sentence"
  top: "embedded_input_sentence"
  param {
    lr_mult: 1
  }
  embed_param {
    num_output: 500
    input_dim: 46168
    bias_term: false
    weight_filler {
      type: "uniform"
      min: -0.08
      max: 0.08
    }
  }
}
layer {
  name: "lstm1"
  type: "LSTM"
  bottom: "embedded_input_frames"
  bottom: "cont_sentence"
  top: "lstm1"
  recurrent_param {
    num_output: 1000
    weight_filler {
      type: "uniform"
      min: -0.08
      max: 0.08
    }
    bias_filler {
      type: "constant"
      value: 0
    }
  }
}
layer {
  name: "concat"
  type: "Concat"
  bottom: "lstm1"
  bottom: "embedded_input_sentence"
  bottom: "reshaped_stage_indicator"
  top: "lstm1_video_sequence"
  concat_param {
    concat_dim: 2
  }
}
layer {
  name: "lstm2"
  type: "LSTM"
  bottom: "lstm1_video_sequence"
  bottom: "cont_sentence"
  top: "lstm2"
  recurrent_param {
    num_output: 1000
    weight_filler {
      type: "uniform"
      min: -0.08
      max: 0.08
    }
    bias_filler {
      type: "constant"
      value: 0
    }
  }
}
layer {
  name: "predict"
  type: "InnerProduct"
  bottom: "lstm2"
  top: "predict"
  param {
    lr_mult: 1
    decay_mult: 1
  }
  param {
    lr_mult: 2
    decay_mult: 0
  }
  inner_product_param {
    num_output: 46168
    weight_filler {
      type: "uniform"
      min: -0.08
      max: 0.08
    }
    bias_filler {
      type: "constant"
      value: 0
    }
    axis: 2
  }
}
layer {
  name: "probs"
  type: "Softmax"
  bottom: "predict"
  top: "probs"
  softmax_param {
    axis: 2
  }
}
I0925 23:29:28.864372  4676 net.cpp:49] Initializing net from parameters: 
name: "s2vt:features_to_lstm"
state {
  phase: TEST
}
layer {
  name: "input"
  type: "Input"
  top: "frames_fc7"
  top: "cont_sentence"
  top: "input_sentence"
  top: "stage_indicator"
  input_param {
    shape {
      dim: 1
      dim: 4096
    }
    shape {
      dim: 1
      dim: 1
    }
    shape {
      dim: 1
      dim: 1
    }
    shape {
      dim: 1
      dim: 1
    }
  }
}
layer {
  name: "embed_encoder"
  type: "InnerProduct"
  bottom: "frames_fc7"
  top: "embedded_in_frames"
  param {
    lr_mult: 1
    decay_mult: 1
  }
  param {
    lr_mult: 2
    decay_mult: 0
  }
  inner_product_param {
    num_output: 500
    weight_filler {
      type: "xavier"
    }
    bias_filler {
      type: "constant"
      value: 0.2
    }
  }
}
layer {
  name: "reshape_frames"
  type: "Reshape"
  bottom: "embedded_in_frames"
  top: "embedded_input_frames"
  reshape_param {
    shape {
      dim: 1
      dim: 1
      dim: 500
    }
  }
}
layer {
  name: "reshape_stage_indicator"
  type: "Reshape"
  bottom: "stage_indicator"
  top: "reshaped_stage_indicator"
  reshape_param {
    shape {
      dim: 1
      dim: 1
      dim: 1
    }
  }
}
layer {
  name: "embedding"
  type: "Embed"
  bottom: "input_sentence"
  top: "embedded_input_sentence"
  param {
    lr_mult: 1
  }
  embed_param {
    num_output: 500
    input_dim: 46168
    bias_term: false
    weight_filler {
      type: "uniform"
      min: -0.08
      max: 0.08
    }
  }
}
layer {
  name: "lstm1"
  type: "LSTM"
  bottom: "embedded_input_frames"
  bottom: "cont_sentence"
  top: "lstm1"
  recurrent_param {
    num_output: 1000
    weight_filler {
      type: "uniform"
      min: -0.08
      max: 0.08
    }
    bias_filler {
      type: "constant"
      value: 0
    }
  }
}
layer {
  name: "concat"
  type: "Concat"
  bottom: "lstm1"
  bottom: "embedded_input_sentence"
  bottom: "reshaped_stage_indicator"
  top: "lstm1_video_sequence"
  concat_param {
    concat_dim: 2
  }
}
layer {
  name: "lstm2"
  type: "LSTM"
  bottom: "lstm1_video_sequence"
  bottom: "cont_sentence"
  top: "lstm2"
  recurrent_param {
    num_output: 1000
    weight_filler {
      type: "uniform"
      min: -0.08
      max: 0.08
    }
    bias_filler {
      type: "constant"
      value: 0
    }
  }
}
layer {
  name: "predict"
  type: "InnerProduct"
  bottom: "lstm2"
  top: "predict"
  param {
    lr_mult: 1
    decay_mult: 1
  }
  param {
    lr_mult: 2
    decay_mult: 0
  }
  inner_product_param {
    num_output: 46168
    weight_filler {
      type: "uniform"
      min: -0.08
      max: 0.08
    }
    bias_filler {
      type: "constant"
      value: 0
    }
    axis: 2
  }
}
layer {
  name: "probs"
  type: "Softmax"
  bottom: "predict"
  top: "probs"
  softmax_param {
    axis: 2
  }
}
I0925 23:29:28.864449  4682 net.cpp:49] Initializing net from parameters: 
name: "s2vt:features_to_lstm"
state {
  phase: TEST
}
layer {
  name: "input"
  type: "Input"
  top: "frames_fc7"
  top: "cont_sentence"
  top: "input_sentence"
  top: "stage_indicator"
  input_param {
    shape {
      dim: 1
      dim: 4096
    }
    shape {
      dim: 1
      dim: 1
    }
    shape {
      dim: 1
      dim: 1
    }
    shape {
      dim: 1
      dim: 1
    }
  }
}
layer {
  name: "embed_encoder"
  type: "InnerProduct"
  bottom: "frames_fc7"
  top: "embedded_in_frames"
  param {
    lr_mult: 1
    decay_mult: 1
  }
  param {
    lr_mult: 2
    decay_mult: 0
  }
  inner_product_param {
    num_output: 500
    weight_filler {
      type: "xavier"
    }
    bias_filler {
      type: "constant"
      value: 0.2
    }
  }
}
layer {
  name: "reshape_frames"
  type: "Reshape"
  bottom: "embedded_in_frames"
  top: "embedded_input_frames"
  reshape_param {
    shape {
      dim: 1
      dim: 1
      dim: 500
    }
  }
}
layer {
  name: "reshape_stage_indicator"
  type: "Reshape"
  bottom: "stage_indicator"
  top: "reshaped_stage_indicator"
  reshape_param {
    shape {
      dim: 1
      dim: 1
      dim: 1
    }
  }
}
layer {
  name: "embedding"
  type: "Embed"
  bottom: "input_sentence"
  top: "embedded_input_sentence"
  param {
    lr_mult: 1
  }
  embed_param {
    num_output: 500
    input_dim: 46168
    bias_term: false
    weight_filler {
      type: "uniform"
      min: -0.08
      max: 0.08
    }
  }
}
layer {
  name: "lstm1"
  type: "LSTM"
  bottom: "embedded_input_frames"
  bottom: "cont_sentence"
  top: "lstm1"
  recurrent_param {
    num_output: 1000
    weight_filler {
      type: "uniform"
      min: -0.08
      max: 0.08
    }
    bias_filler {
      type: "constant"
      value: 0
    }
  }
}
layer {
  name: "concat"
  type: "Concat"
  bottom: "lstm1"
  bottom: "embedded_input_sentence"
  bottom: "reshaped_stage_indicator"
  top: "lstm1_video_sequence"
  concat_param {
    concat_dim: 2
  }
}
layer {
  name: "lstm2"
  type: "LSTM"
  bottom: "lstm1_video_sequence"
  bottom: "cont_sentence"
  top: "lstm2"
  recurrent_param {
    num_output: 1000
    weight_filler {
      type: "uniform"
      min: -0.08
      max: 0.08
    }
    bias_filler {
      type: "constant"
      value: 0
    }
  }
}
layer {
  name: "predict"
  type: "InnerProduct"
  bottom: "lstm2"
  top: "predict"
  param {
    lr_mult: 1
    decay_mult: 1
  }
  param {
    lr_mult: 2
    decay_mult: 0
  }
  inner_product_param {
    num_output: 46168
    weight_filler {
      type: "uniform"
      min: -0.08
      max: 0.08
    }
    bias_filler {
      type: "constant"
      value: 0
    }
    axis: 2
  }
}
layer {
  name: "probs"
  type: "Softmax"
  bottom: "predict"
  top: "probs"
  softmax_param {
    axis: 2
  }
}
I0925 23:29:28.864470  4656 layer_factory.hpp:77] Creating layer input
I0925 23:29:28.864472  4670 layer_factory.hpp:77] Creating layer input
I0925 23:29:28.864455  4662 layer_factory.hpp:77] Creating layer data
I0925 23:29:28.864471  4660 layer_factory.hpp:77] Creating layer input
I0925 23:29:28.864495  4676 layer_factory.hpp:77] Creating layer input
I0925 23:29:28.864498  4652 net.cpp:49] Initializing net from parameters: 
name: "s2vt:features_to_lstm"
state {
  phase: TEST
}
layer {
  name: "input"
  type: "Input"
  top: "frames_fc7"
  top: "cont_sentence"
  top: "input_sentence"
  top: "stage_indicator"
  input_param {
    shape {
      dim: 1
      dim: 4096
    }
    shape {
      dim: 1
      dim: 1
    }
    shape {
      dim: 1
      dim: 1
    }
    shape {
      dim: 1
      dim: 1
    }
  }
}
layer {
  name: "embed_encoder"
  type: "InnerProduct"
  bottom: "frames_fc7"
  top: "embedded_in_frames"
  param {
    lr_mult: 1
    decay_mult: 1
  }
  param {
    lr_mult: 2
    decay_mult: 0
  }
  inner_product_param {
    num_output: 500
    weight_filler {
      type: "xavier"
    }
    bias_filler {
      type: "constant"
      value: 0.2
    }
  }
}
layer {
  name: "reshape_frames"
  type: "Reshape"
  bottom: "embedded_in_frames"
  top: "embedded_input_frames"
  reshape_param {
    shape {
      dim: 1
      dim: 1
      dim: 500
    }
  }
}
layer {
  name: "reshape_stage_indicator"
  type: "Reshape"
  bottom: "stage_indicator"
  top: "reshaped_stage_indicator"
  reshape_param {
    shape {
      dim: 1
      dim: 1
      dim: 1
    }
  }
}
layer {
  name: "embedding"
  type: "Embed"
  bottom: "input_sentence"
  top: "embedded_input_sentence"
  param {
    lr_mult: 1
  }
  embed_param {
    num_output: 500
    input_dim: 46168
    bias_term: false
    weight_filler {
      type: "uniform"
      min: -0.08
      max: 0.08
    }
  }
}
layer {
  name: "lstm1"
  type: "LSTM"
  bottom: "embedded_input_frames"
  bottom: "cont_sentence"
  top: "lstm1"
  recurrent_param {
    num_output: 1000
    weight_filler {
      type: "uniform"
      min: -0.08
      max: 0.08
    }
    bias_filler {
      type: "constant"
      value: 0
    }
  }
}
layer {
  name: "concat"
  type: "Concat"
  bottom: "lstm1"
  bottom: "embedded_input_sentence"
  bottom: "reshaped_stage_indicator"
  top: "lstm1_video_sequence"
  concat_param {
    concat_dim: 2
  }
}
layer {
  name: "lstm2"
  type: "LSTM"
  bottom: "lstm1_video_sequence"
  bottom: "cont_sentence"
  top: "lstm2"
  recurrent_param {
    num_output: 1000
    weight_filler {
      type: "uniform"
      min: -0.08
      max: 0.08
    }
    bias_filler {
      type: "constant"
      value: 0
    }
  }
}
layer {
  name: "predict"
  type: "InnerProduct"
  bottom: "lstm2"
  top: "predict"
  param {
    lr_mult: 1
    decay_mult: 1
  }
  param {
    lr_mult: 2
    decay_mult: 0
  }
  inner_product_param {
    num_output: 46168
    weight_filler {
      type: "uniform"
      min: -0.08
      max: 0.08
    }
    bias_filler {
      type: "constant"
      value: 0
    }
    axis: 2
  }
}
layer {
  name: "probs"
  type: "Softmax"
  bottom: "predict"
  top: "probs"
  softmax_param {
    axis: 2
  }
}
I0925 23:29:28.864511  4662 net.cpp:91] Creating Layer data
I0925 23:29:28.864517  4676 net.cpp:91] Creating Layer input
I0925 23:29:28.864508  4656 net.cpp:91] Creating Layer input
I0925 23:29:28.864511  4660 net.cpp:91] Creating Layer input
I0925 23:29:28.864490  4648 net.cpp:49] Initializing net from parameters: 
name: "s2vt:features_to_lstm"
state {
  phase: TEST
}
layer {
  name: "input"
  type: "Input"
  top: "frames_fc7"
  top: "cont_sentence"
  top: "input_sentence"
  top: "stage_indicator"
  input_param {
    shape {
      dim: 1
      dim: 4096
    }
    shape {
      dim: 1
      dim: 1
    }
    shape {
      dim: 1
      dim: 1
    }
    shape {
      dim: 1
      dim: 1
    }
  }
}
layer {
  name: "embed_encoder"
  type: "InnerProduct"
  bottom: "frames_fc7"
  top: "embedded_in_frames"
  param {
    lr_mult: 1
    decay_mult: 1
  }
  param {
    lr_mult: 2
    decay_mult: 0
  }
  inner_product_param {
    num_output: 500
    weight_filler {
      type: "xavier"
    }
    bias_filler {
      type: "constant"
      value: 0.2
    }
  }
}
layer {
  name: "reshape_frames"
  type: "Reshape"
  bottom: "embedded_in_frames"
  top: "embedded_input_frames"
  reshape_param {
    shape {
      dim: 1
      dim: 1
      dim: 500
    }
  }
}
layer {
  name: "reshape_stage_indicator"
  type: "Reshape"
  bottom: "stage_indicator"
  top: "reshaped_stage_indicator"
  reshape_param {
    shape {
      dim: 1
      dim: 1
      dim: 1
    }
  }
}
layer {
  name: "embedding"
  type: "Embed"
  bottom: "input_sentence"
  top: "embedded_input_sentence"
  param {
    lr_mult: 1
  }
  embed_param {
    num_output: 500
    input_dim: 46168
    bias_term: false
    weight_filler {
      type: "uniform"
      min: -0.08
      max: 0.08
    }
  }
}
layer {
  name: "lstm1"
  type: "LSTM"
  bottom: "embedded_input_frames"
  bottom: "cont_sentence"
  top: "lstm1"
  recurrent_param {
    num_output: 1000
    weight_filler {
      type: "uniform"
      min: -0.08
      max: 0.08
    }
    bias_filler {
      type: "constant"
      value: 0
    }
  }
}
layer {
  name: "concat"
  type: "Concat"
  bottom: "lstm1"
  bottom: "embedded_input_sentence"
  bottom: "reshaped_stage_indicator"
  top: "lstm1_video_sequence"
  concat_param {
    concat_dim: 2
  }
}
layer {
  name: "lstm2"
  type: "LSTM"
  bottom: "lstm1_video_sequence"
  bottom: "cont_sentence"
  top: "lstm2"
  recurrent_param {
    num_output: 1000
    weight_filler {
      type: "uniform"
      min: -0.08
      max: 0.08
    }
    bias_filler {
      type: "constant"
      value: 0
    }
  }
}
layer {
  name: "predict"
  type: "InnerProduct"
  bottom: "lstm2"
  top: "predict"
  param {
    lr_mult: 1
    decay_mult: 1
  }
  param {
    lr_mult: 2
    decay_mult: 0
  }
  inner_product_param {
    num_output: 46168
    weight_filler {
      type: "uniform"
      min: -0.08
      max: 0.08
    }
    bias_filler {
      type: "constant"
      value: 0
    }
    axis: 2
  }
}
layer {
  name: "probs"
  type: "Softmax"
  bottom: "predict"
  top: "probs"
  softmax_param {
    axis: 2
  }
}
I0925 23:29:28.864538  4676 net.cpp:399] input -> frames_fc7
I0925 23:29:28.864542  4660 net.cpp:399] input -> frames_fc7
I0925 23:29:28.864508  4670 net.cpp:91] Creating Layer input
I0925 23:29:28.864519  4696 net.cpp:49] Initializing net from parameters: 
name: "s2vt:features_to_lstm"
state {
  phase: TEST
}
layer {
  name: "input"
  type: "Input"
  top: "frames_fc7"
  top: "cont_sentence"
  top: "input_sentence"
  top: "stage_indicator"
  input_param {
    shape {
      dim: 1
      dim: 4096
    }
    shape {
      dim: 1
      dim: 1
    }
    shape {
      dim: 1
      dim: 1
    }
    shape {
      dim: 1
      dim: 1
    }
  }
}
layer {
  name: "embed_encoder"
  type: "InnerProduct"
  bottom: "frames_fc7"
  top: "embedded_in_frames"
  param {
    lr_mult: 1
    decay_mult: 1
  }
  param {
    lr_mult: 2
    decay_mult: 0
  }
  inner_product_param {
    num_output: 500
    weight_filler {
      type: "xavier"
    }
    bias_filler {
      type: "constant"
      value: 0.2
    }
  }
}
layer {
  name: "reshape_frames"
  type: "Reshape"
  bottom: "embedded_in_frames"
  top: "embedded_input_frames"
  reshape_param {
    shape {
      dim: 1
      dim: 1
      dim: 500
    }
  }
}
layer {
  name: "reshape_stage_indicator"
  type: "Reshape"
  bottom: "stage_indicator"
  top: "reshaped_stage_indicator"
  reshape_param {
    shape {
      dim: 1
      dim: 1
      dim: 1
    }
  }
}
layer {
  name: "embedding"
  type: "Embed"
  bottom: "input_sentence"
  top: "embedded_input_sentence"
  param {
    lr_mult: 1
  }
  embed_param {
    num_output: 500
    input_dim: 46168
    bias_term: false
    weight_filler {
      type: "uniform"
      min: -0.08
      max: 0.08
    }
  }
}
layer {
  name: "lstm1"
  type: "LSTM"
  bottom: "embedded_input_frames"
  bottom: "cont_sentence"
  top: "lstm1"
  recurrent_param {
    num_output: 1000
    weight_filler {
      type: "uniform"
      min: -0.08
      max: 0.08
    }
    bias_filler {
      type: "constant"
      value: 0
    }
  }
}
layer {
  name: "concat"
  type: "Concat"
  bottom: "lstm1"
  bottom: "embedded_input_sentence"
  bottom: "reshaped_stage_indicator"
  top: "lstm1_video_sequence"
  concat_param {
    concat_dim: 2
  }
}
layer {
  name: "lstm2"
  type: "LSTM"
  bottom: "lstm1_video_sequence"
  bottom: "cont_sentence"
  top: "lstm2"
  recurrent_param {
    num_output: 1000
    weight_filler {
      type: "uniform"
      min: -0.08
      max: 0.08
    }
    bias_filler {
      type: "constant"
      value: 0
    }
  }
}
layer {
  name: "predict"
  type: "InnerProduct"
  bottom: "lstm2"
  top: "predict"
  param {
    lr_mult: 1
    decay_mult: 1
  }
  param {
    lr_mult: 2
    decay_mult: 0
  }
  inner_product_param {
    num_output: 46168
    weight_filler {
      type: "uniform"
      min: -0.08
      max: 0.08
    }
    bias_filler {
      type: "constant"
      value: 0
    }
    axis: 2
  }
}
layer {
  name: "probs"
  type: "Softmax"
  bottom: "predict"
  top: "probs"
  softmax_param {
    axis: 2
  }
}
I0925 23:29:28.864537  4662 net.cpp:399] data -> data
I0925 23:29:28.864538  4656 net.cpp:399] input -> frames_fc7
I0925 23:29:28.864562  4670 net.cpp:399] input -> frames_fc7
I0925 23:29:28.864583  4676 net.cpp:399] input -> cont_sentence
I0925 23:29:28.864585  4670 net.cpp:399] input -> cont_sentence
I0925 23:29:28.864583  4682 layer_factory.hpp:77] Creating layer input
…
W0925 23:29:28.864110  4704 upgrade_proto.cpp:71] Note that future Caffe releases will only support input layers and not input fields.
I0925 23:29:28.864964  4708 net.cpp:49] Initializing net from parameters: 
name: "s2vt:features_to_lstm"
state {
  phase: TEST
}
layer {
  name: "input"
  type: "Input"
  top: "frames_fc7"
  top: "cont_sentence"
  top: "input_sentence"
  top: "stage_indicator"
  input_param {
    shape {
      dim: 1
      dim: 4096
    }
    shape {
      dim: 1
      dim: 1
    }
    shape {
      dim: 1
      dim: 1
    }
    shape {
      dim: 1
      dim: 1
    }
  }
}
layer {
  name: "embed_encoder"
  type: "InnerProduct"
  bottom: "frames_fc7"
  top: "embedded_in_frames"
  param {
    lr_mult: 1
    decay_mult: 1
  }
  param {
    lr_mult: 2
    decay_mult: 0
  }
  inner_product_param {
    num_output: 500
    weight_filler {
      type: "xavier"
    }
    bias_filler {
      type: "constant"
      value: 0.2
    }
  }
}
layer {
  name: "reshape_frames"
  type: "Reshape"
  bottom: "embedded_in_frames"
  top: "embedded_input_frames"
  reshape_param {
    shape {
      dim: 1
      dim: 1
      dim: 500
    }
  }
}
layer {
  name: "reshape_stage_indicator"
  type: "Reshape"
  bottom: "stage_indicator"
  top: "reshaped_stage_indicator"
  reshape_param {
    shape {
      dim: 1
      dim: 1
      dim: 1
    }
  }
}
layer {
  name: "embedding"
  type: "Embed"
  bottom: "input_sentence"
  top: "embedded_input_sentence"
  param {
    lr_mult: 1
  }
  embed_param {
    num_output: 500
    input_dim: 46168
    bias_term: false
    weight_filler {
      type: "uniform"
      min: -0.08
      max: 0.08
    }
  }
}
layer {
  name: "lstm1"
  type: "LSTM"
  bottom: "embedded_input_frames"
  bottom: "cont_sentence"
  top: "lstm1"
  recurrent_param {
    num_output: 1000
    weight_filler {
      type: "uniform"
      min: -0.08
      max: 0.08
    }
    bias_filler {
      type: "constant"
      value: 0
    }
  }
}
layer {
  name: "concat"
  type: "Concat"
  bottom: "lstm1"
  bottom: "embedded_input_sentence"
  bottom: "reshaped_stage_indicator"
  top: "lstm1_video_sequence"
  concat_param {
    concat_dim: 2
  }
}
layer {
  name: "lstm2"
  type: "LSTM"
  bottom: "lstm1_video_sequence"
  bottom: "cont_sentence"
  top: "lstm2"
  recurrent_param {
    num_output: 1000
    weight_filler {
      type: "uniform"
      min: -0.08
      max: 0.08
    }
    bias_filler {
      type: "constant"
      value: 0
    }
  }
}
layer {
  name: "predict"
  type: "InnerProduct"
  bottom: "lstm2"
  top: "predict"
  param {
    lr_mult: 1
    decay_mult: 1
  }
  param {
    lr_mult: 2
    decay_mult: 0
  }
  inner_product_param {
    num_output: 46168
    weight_filler {
      type: "uniform"
      min: -0.08
      max: 0.08
    }
    bias_filler {
      type: "constant"
      value: 0
    }
    axis: 2
  }
}
layer {
  name: "probs"
  type: "Softmax"
  bottom: "predict"
  top: "probs"
  softmax_param {
    axis: 2
  }
}
I0925 23:29:28.865084  4708 layer_factory.hpp:77] Creating layer input
I0925 23:29:28.865104  4708 net.cpp:91] Creating Layer input
I0925 23:29:28.865113  4708 net.cpp:399] input -> frames_fc7
I0925 23:29:28.865125  4708 net.cpp:399] input -> cont_sentence
I0925 23:29:28.865136  4708 net.cpp:399] input -> input_sentence
I0925 23:29:28.865146  4708 net.cpp:399] input -> stage_indicator
I0925 23:29:28.865147  4704 net.cpp:49] Initializing net from parameters: 
name: "s2vt:features_to_lstm"
state {
  phase: TEST
}
layer {
  name: "input"
  type: "Input"
  top: "frames_fc7"
  top: "cont_sentence"
  top: "input_sentence"
  top: "stage_indicator"
  input_param {
    shape {
      dim: 1
      dim: 4096
    }
    shape {
      dim: 1
      dim: 1
    }
    shape {
      dim: 1
      dim: 1
    }
    shape {
      dim: 1
      dim: 1
    }
  }
}
layer {
  name: "embed_encoder"
  type: "InnerProduct"
  bottom: "frames_fc7"
  top: "embedded_in_frames"
  param {
    lr_mult: 1
    decay_mult: 1
  }
  param {
    lr_mult: 2
    decay_mult: 0
  }
  inner_product_param {
    num_output: 500
    weight_filler {
      type: "xavier"
    }
    bias_filler {
      type: "constant"
      value: 0.2
    }
  }
}
layer {
  name: "reshape_frames"
  type: "Reshape"
  bottom: "embedded_in_frames"
  top: "embedded_input_frames"
  reshape_param {
    shape {
      dim: 1
      dim: 1
      dim: 500
    }
  }
}
layer {
  name: "reshape_stage_indicator"
  type: "Reshape"
  bottom: "stage_indicator"
  top: "reshaped_stage_indicator"
  reshape_param {
    shape {
      dim: 1
      dim: 1
      dim: 1
    }
  }
}
layer {
  name: "embedding"
  type: "Embed"
  bottom: "input_sentence"
  top: "embedded_input_sentence"
  param {
    lr_mult: 1
  }
  embed_param {
    num_output: 500
    input_dim: 46168
    bias_term: false
    weight_filler {
      type: "uniform"
      min: -0.08
      max: 0.08
    }
  }
}
layer {
  name: "lstm1"
  type: "LSTM"
  bottom: "embedded_input_frames"
  bottom: "cont_sentence"
  top: "lstm1"
  recurrent_param {
    num_output: 1000
    weight_filler {
      type: "uniform"
      min: -0.08
      max: 0.08
    }
    bias_filler {
      type: "constant"
      value: 0
    }
  }
}
layer {
  name: "concat"
  type: "Concat"
  bottom: "lstm1"
  bottom: "embedded_input_sentence"
  bottom: "reshaped_stage_indicator"
  top: "lstm1_video_sequence"
  concat_param {
    concat_dim: 2
  }
}
layer {
  name: "lstm2"
  type: "LSTM"
  bottom: "lstm1_video_sequence"
  bottom: "cont_sentence"
  top: "lstm2"
  recurrent_param {
    num_output: 1000
    weight_filler {
      type: "uniform"
      min: -0.08
      max: 0.08
    }
    bias_filler {
      type: "constant"
      value: 0
    }
  }
}
layer {
  name: "predict"
  type: "InnerProduct"
  bottom: "lstm2"
  top: "predict"
  param {
    lr_mult: 1
    decay_mult: 1
  }
  param {
    lr_mult: 2
    decay_mult: 0
  }
  inner_product_param {
    num_output: 46168
    weight_filler {
      type: "uniform"
      min: -0.08
      max: 0.08
    }
    bias_filler {
      type: "constant"
      value: 0
    }
    axis: 2
  }
}
layer {
  name: "probs"
  type: "Softmax"
  bottom: "predict"
  top: "probs"
  softmax_param {
    axis: 2
  }
}
I0925 23:29:28.865226  4704 layer_factory.hpp:77] Creating layer input
I0925 23:29:28.865237  4704 net.cpp:91] Creating Layer input
I0925 23:29:28.865245  4704 net.cpp:399] input -> frames_fc7
I0925 23:29:28.865257  4704 net.cpp:399] input -> cont_sentence
I0925 23:29:28.865268  4704 net.cpp:399] input -> input_sentence
I0925 23:29:28.865278  4704 net.cpp:399] input -> stage_indicator
I0925 23:29:29.780021  4662 net.cpp:141] Setting up data
I0925 23:29:29.780195  4670 net.cpp:141] Setting up input
I0925 23:29:29.780241  4670 net.cpp:148] Top shape: 1 4096 (4096)
I0925 23:29:29.780242  4662 net.cpp:148] Top shape: 10 3 227 227 (1545870)
I0925 23:29:29.780264  4670 net.cpp:148] Top shape: 1 1 (1)
I0925 23:29:29.780274  4670 net.cpp:148] Top shape: 1 1 (1)
I0925 23:29:29.780267  4662 net.cpp:156] Memory required for data: 6183480
I0925 23:29:29.780285  4670 net.cpp:148] Top shape: 1 1 (1)
I0925 23:29:29.780293  4670 net.cpp:156] Memory required for data: 16396
I0925 23:29:29.780313  4670 layer_factory.hpp:77] Creating layer cont_sentence_input_1_split
I0925 23:29:29.780313  4662 layer_factory.hpp:77] Creating layer conv1
I0925 23:29:29.780390  4670 net.cpp:91] Creating Layer cont_sentence_input_1_split
I0925 23:29:29.780393  4662 net.cpp:91] Creating Layer conv1
I0925 23:29:29.780408  4662 net.cpp:425] conv1 <- data
I0925 23:29:29.780441  4662 net.cpp:399] conv1 -> conv1
I0925 23:29:29.780566  4660 net.cpp:141] Setting up input
I0925 23:29:29.780586  4660 net.cpp:148] Top shape: 1 4096 (4096)
I0925 23:29:29.780596  4660 net.cpp:148] Top shape: 1 1 (1)
I0925 23:29:29.780606  4660 net.cpp:148] Top shape: 1 1 (1)
I0925 23:29:29.780616  4660 net.cpp:148] Top shape: 1 1 (1)
I0925 23:29:29.780622  4660 net.cpp:156] Memory required for data: 16396
I0925 23:29:29.780633  4660 layer_factory.hpp:77] Creating layer cont_sentence_input_1_split
I0925 23:29:29.780648  4660 net.cpp:91] Creating Layer cont_sentence_input_1_split
I0925 23:29:29.780658  4660 net.cpp:425] cont_sentence_input_1_split <- cont_sentence
I0925 23:29:29.780686  4660 net.cpp:399] cont_sentence_input_1_split -> cont_sentence_input_1_split_0
I0925 23:29:29.780740  4660 net.cpp:399] cont_sentence_input_1_split -> cont_sentence_input_1_split_1
I0925 23:29:29.780817  4660 net.cpp:141] Setting up cont_sentence_input_1_split
I0925 23:29:29.780836  4660 net.cpp:148] Top shape: 1 1 (1)
I0925 23:29:29.780848  4660 net.cpp:148] Top shape: 1 1 (1)
I0925 23:29:29.780854  4660 net.cpp:156] Memory required for data: 16404
I0925 23:29:29.780864  4660 layer_factory.hpp:77] Creating layer embed_encoder
I0925 23:29:29.780900  4660 net.cpp:91] Creating Layer embed_encoder
I0925 23:29:29.780910  4660 net.cpp:425] embed_encoder <- frames_fc7
I0925 23:29:29.780927  4660 net.cpp:399] embed_encoder -> embedded_in_frames
I0925 23:29:29.780408  4670 net.cpp:425] cont_sentence_input_1_split <- cont_sentence
I0925 23:29:29.780987  4670 net.cpp:399] cont_sentence_input_1_split -> cont_sentence_input_1_split_0
I0925 23:29:29.781013  4670 net.cpp:399] cont_sentence_input_1_split -> cont_sentence_input_1_split_1
I0925 23:29:29.781280  4682 net.cpp:141] Setting up input
I0925 23:29:29.781332  4682 net.cpp:148] Top shape: 1 4096 (4096)
I0925 23:29:29.781344  4682 net.cpp:148] Top shape: 1 1 (1)
I0925 23:29:29.781358  4682 net.cpp:148] Top shape: 1 1 (1)
I0925 23:29:29.781366  4682 net.cpp:148] Top shape: 1 1 (1)
I0925 23:29:29.781373  4682 net.cpp:156] Memory required for data: 16396
I0925 23:29:29.781395  4682 layer_factory.hpp:77] Creating layer cont_sentence_input_1_split
I0925 23:29:29.781420  4682 net.cpp:91] Creating Layer cont_sentence_input_1_split
I0925 23:29:29.781430  4682 net.cpp:425] cont_sentence_input_1_split <- cont_sentence
I0925 23:29:29.781445  4682 net.cpp:399] cont_sentence_input_1_split -> cont_sentence_input_1_split_0
I0925 23:29:29.781471  4682 net.cpp:399] cont_sentence_input_1_split -> cont_sentence_input_1_split_1
I0925 23:29:29.781487  4696 net.cpp:141] Setting up input
I0925 23:29:29.781512  4696 net.cpp:148] Top shape: 1 4096 (4096)
I0925 23:29:29.781527  4696 net.cpp:148] Top shape: 1 1 (1)
I0925 23:29:29.781538  4696 net.cpp:148] Top shape: 1 1 (1)
I0925 23:29:29.781548  4696 net.cpp:148] Top shape: 1 1 (1)
I0925 23:29:29.781556  4696 net.cpp:156] Memory required for data: 16396
I0925 23:29:29.781569  4696 layer_factory.hpp:77] Creating layer cont_sentence_input_1_split
I0925 23:29:29.781581  4696 net.cpp:91] Creating Layer cont_sentence_input_1_split
I0925 23:29:29.781589  4696 net.cpp:425] cont_sentence_input_1_split <- cont_sentence
I0925 23:29:29.781613  4696 net.cpp:399] cont_sentence_input_1_split -> cont_sentence_input_1_split_0
I0925 23:29:29.781632  4696 net.cpp:399] cont_sentence_input_1_split -> cont_sentence_input_1_split_1
I0925 23:29:29.781806  4676 net.cpp:141] Setting up input
I0925 23:29:29.781831  4676 net.cpp:148] Top shape: 1 4096 (4096)
I0925 23:29:29.781843  4676 net.cpp:148] Top shape: 1 1 (1)
I0925 23:29:29.781854  4676 net.cpp:148] Top shape: 1 1 (1)
I0925 23:29:29.781863  4676 net.cpp:148] Top shape: 1 1 (1)
I0925 23:29:29.781872  4676 net.cpp:156] Memory required for data: 16396
I0925 23:29:29.781875  4652 net.cpp:141] Setting up input
I0925 23:29:29.781882  4676 layer_factory.hpp:77] Creating layer cont_sentence_input_1_split
I0925 23:29:29.781890  4652 net.cpp:148] Top shape: 1 4096 (4096)
I0925 23:29:29.781898  4652 net.cpp:148] Top shape: 1 1 (1)
I0925 23:29:29.781908  4652 net.cpp:148] Top shape: 1 1 (1)
I0925 23:29:29.781909  4676 net.cpp:91] Creating Layer cont_sentence_input_1_split
I0925 23:29:29.781919  4652 net.cpp:148] Top shape: 1 1 (1)
I0925 23:29:29.781924  4652 net.cpp:156] Memory required for data: 16396
I0925 23:29:29.781927  4676 net.cpp:425] cont_sentence_input_1_split <- cont_sentence
I0925 23:29:29.781931  4652 layer_factory.hpp:77] Creating layer cont_sentence_input_1_split
I0925 23:29:29.781939  4682 net.cpp:141] Setting up cont_sentence_input_1_split
I0925 23:29:29.781944  4676 net.cpp:399] cont_sentence_input_1_split -> cont_sentence_input_1_split_0
I0925 23:29:29.781942  4652 net.cpp:91] Creating Layer cont_sentence_input_1_split
I0925 23:29:29.781967  4676 net.cpp:399] cont_sentence_input_1_split -> cont_sentence_input_1_split_1
I0925 23:29:29.781960  4682 net.cpp:148] Top shape: 1 1 (1)
I0925 23:29:29.781977  4652 net.cpp:425] cont_sentence_input_1_split <- cont_sentence
I0925 23:29:29.781981  4682 net.cpp:148] Top shape: 1 1 (1)
I0925 23:29:29.781997  4682 net.cpp:156] Memory required for data: 16404
I0925 23:29:29.782001  4652 net.cpp:399] cont_sentence_input_1_split -> cont_sentence_input_1_split_0
I0925 23:29:29.782007  4682 layer_factory.hpp:77] Creating layer embed_encoder
I0925 23:29:29.782018  4652 net.cpp:399] cont_sentence_input_1_split -> cont_sentence_input_1_split_1
I0925 23:29:29.782034  4682 net.cpp:91] Creating Layer embed_encoder
I0925 23:29:29.782043  4682 net.cpp:425] embed_encoder <- frames_fc7
I0925 23:29:29.782066  4676 net.cpp:141] Setting up cont_sentence_input_1_split
I0925 23:29:29.782066  4682 net.cpp:399] embed_encoder -> embedded_in_frames
I0925 23:29:29.782083  4676 net.cpp:148] Top shape: 1 1 (1)
I0925 23:29:29.782094  4676 net.cpp:148] Top shape: 1 1 (1)
I0925 23:29:29.782100  4676 net.cpp:156] Memory required for data: 16404
I0925 23:29:29.782109  4676 layer_factory.hpp:77] Creating layer embed_encoder
I0925 23:29:29.782148  4676 net.cpp:91] Creating Layer embed_encoder
I0925 23:29:29.782158  4676 net.cpp:425] embed_encoder <- frames_fc7
I0925 23:29:29.782171  4676 net.cpp:399] embed_encoder -> embedded_in_frames
I0925 23:29:29.782263  4656 net.cpp:141] Setting up input
I0925 23:29:29.782289  4656 net.cpp:148] Top shape: 1 4096 (4096)
I0925 23:29:29.782300  4656 net.cpp:148] Top shape: 1 1 (1)
I0925 23:29:29.782310  4656 net.cpp:148] Top shape: 1 1 (1)
I0925 23:29:29.782320  4656 net.cpp:148] Top shape: 1 1 (1)
I0925 23:29:29.782327  4656 net.cpp:156] Memory required for data: 16396
I0925 23:29:29.782340  4656 layer_factory.hpp:77] Creating layer cont_sentence_input_1_split
I0925 23:29:29.782358  4656 net.cpp:91] Creating Layer cont_sentence_input_1_split
I0925 23:29:29.782361  4704 net.cpp:141] Setting up input
I0925 23:29:29.782367  4656 net.cpp:425] cont_sentence_input_1_split <- cont_sentence
I0925 23:29:29.782377  4704 net.cpp:148] Top shape: 1 4096 (4096)
I0925 23:29:29.782382  4656 net.cpp:399] cont_sentence_input_1_split -> cont_sentence_input_1_split_0
I0925 23:29:29.782384  4704 net.cpp:148] Top shape: 1 1 (1)
I0925 23:29:29.782405  4704 net.cpp:148] Top shape: 1 1 (1)
I0925 23:29:29.782407  4656 net.cpp:399] cont_sentence_input_1_split -> cont_sentence_input_1_split_1
I0925 23:29:29.782413  4704 net.cpp:148] Top shape: 1 1 (1)
I0925 23:29:29.782418  4704 net.cpp:156] Memory required for data: 16396
I0925 23:29:29.782424  4704 layer_factory.hpp:77] Creating layer cont_sentence_input_1_split
I0925 23:29:29.782436  4704 net.cpp:91] Creating Layer cont_sentence_input_1_split
I0925 23:29:29.782447  4704 net.cpp:425] cont_sentence_input_1_split <- cont_sentence
I0925 23:29:29.782464  4704 net.cpp:399] cont_sentence_input_1_split -> cont_sentence_input_1_split_0
I0925 23:29:29.782479  4704 net.cpp:399] cont_sentence_input_1_split -> cont_sentence_input_1_split_1
I0925 23:29:29.788015  4652 net.cpp:141] Setting up cont_sentence_input_1_split
I0925 23:29:29.788060  4652 net.cpp:148] Top shape: 1 1 (1)
I0925 23:29:29.788069  4652 net.cpp:148] Top shape: 1 1 (1)
I0925 23:29:29.788074  4652 net.cpp:156] Memory required for data: 16404
I0925 23:29:29.788084  4652 layer_factory.hpp:77] Creating layer embed_encoder
I0925 23:29:29.788110  4652 net.cpp:91] Creating Layer embed_encoder
I0925 23:29:29.788117  4652 net.cpp:425] embed_encoder <- frames_fc7
I0925 23:29:29.788131  4652 net.cpp:399] embed_encoder -> embedded_in_frames
I0925 23:29:29.793593  4696 net.cpp:141] Setting up cont_sentence_input_1_split
I0925 23:29:29.793644  4696 net.cpp:148] Top shape: 1 1 (1)
I0925 23:29:29.793654  4696 net.cpp:148] Top shape: 1 1 (1)
I0925 23:29:29.793660  4696 net.cpp:156] Memory required for data: 16404
I0925 23:29:29.793673  4696 layer_factory.hpp:77] Creating layer embed_encoder
I0925 23:29:29.793730  4696 net.cpp:91] Creating Layer embed_encoder
I0925 23:29:29.793742  4696 net.cpp:425] embed_encoder <- frames_fc7
I0925 23:29:29.793761  4696 net.cpp:399] embed_encoder -> embedded_in_frames
I0925 23:29:29.799188  4704 net.cpp:141] Setting up cont_sentence_input_1_split
I0925 23:29:29.799247  4704 net.cpp:148] Top shape: 1 1 (1)
I0925 23:29:29.799262  4704 net.cpp:148] Top shape: 1 1 (1)
I0925 23:29:29.799270  4704 net.cpp:156] Memory required for data: 16404
I0925 23:29:29.799285  4704 layer_factory.hpp:77] Creating layer embed_encoder
I0925 23:29:29.799319  4704 net.cpp:91] Creating Layer embed_encoder
I0925 23:29:29.799331  4704 net.cpp:425] embed_encoder <- frames_fc7
I0925 23:29:29.799352  4704 net.cpp:399] embed_encoder -> embedded_in_frames
I0925 23:29:29.803964  4670 net.cpp:141] Setting up cont_sentence_input_1_split
I0925 23:29:29.804016  4670 net.cpp:148] Top shape: 1 1 (1)
I0925 23:29:29.804024  4670 net.cpp:148] Top shape: 1 1 (1)
I0925 23:29:29.804030  4670 net.cpp:156] Memory required for data: 16404
I0925 23:29:29.804041  4670 layer_factory.hpp:77] Creating layer embed_encoder
I0925 23:29:29.804072  4670 net.cpp:91] Creating Layer embed_encoder
I0925 23:29:29.804081  4670 net.cpp:425] embed_encoder <- frames_fc7
I0925 23:29:29.804098  4670 net.cpp:399] embed_encoder -> embedded_in_frames
I0925 23:29:29.804076  4648 net.cpp:141] Setting up input
I0925 23:29:29.804136  4648 net.cpp:148] Top shape: 1 4096 (4096)
I0925 23:29:29.804153  4656 net.cpp:141] Setting up cont_sentence_input_1_split
I0925 23:29:29.804193  4656 net.cpp:148] Top shape: 1 1 (1)
I0925 23:29:29.804210  4656 net.cpp:148] Top shape: 1 1 (1)
I0925 23:29:29.804219  4656 net.cpp:156] Memory required for data: 16404
I0925 23:29:29.804157  4648 net.cpp:148] Top shape: 1 1 (1)
I0925 23:29:29.804239  4656 layer_factory.hpp:77] Creating layer embed_encoder
I0925 23:29:29.804276  4648 net.cpp:148] Top shape: 1 1 (1)
I0925 23:29:29.804292  4656 net.cpp:91] Creating Layer embed_encoder
I0925 23:29:29.804298  4648 net.cpp:148] Top shape: 1 1 (1)
I0925 23:29:29.804304  4656 net.cpp:425] embed_encoder <- frames_fc7
I0925 23:29:29.804311  4648 net.cpp:156] Memory required for data: 16396
I0925 23:29:29.804324  4656 net.cpp:399] embed_encoder -> embedded_in_frames
I0925 23:29:29.804327  4648 layer_factory.hpp:77] Creating layer cont_sentence_input_1_split
I0925 23:29:29.804358  4648 net.cpp:91] Creating Layer cont_sentence_input_1_split
I0925 23:29:29.804378  4648 net.cpp:425] cont_sentence_input_1_split <- cont_sentence
I0925 23:29:29.804400  4648 net.cpp:399] cont_sentence_input_1_split -> cont_sentence_input_1_split_0
I0925 23:29:29.804436  4648 net.cpp:399] cont_sentence_input_1_split -> cont_sentence_input_1_split_1
I0925 23:29:29.822273  4708 net.cpp:141] Setting up input
I0925 23:29:29.822365  4708 net.cpp:148] Top shape: 1 4096 (4096)
I0925 23:29:29.822378  4708 net.cpp:148] Top shape: 1 1 (1)
I0925 23:29:29.822387  4708 net.cpp:148] Top shape: 1 1 (1)
I0925 23:29:29.822397  4708 net.cpp:148] Top shape: 1 1 (1)
I0925 23:29:29.822404  4708 net.cpp:156] Memory required for data: 16396
I0925 23:29:29.822415  4708 layer_factory.hpp:77] Creating layer cont_sentence_input_1_split
I0925 23:29:29.822459  4708 net.cpp:91] Creating Layer cont_sentence_input_1_split
I0925 23:29:29.822480  4708 net.cpp:425] cont_sentence_input_1_split <- cont_sentence
I0925 23:29:29.822499  4708 net.cpp:399] cont_sentence_input_1_split -> cont_sentence_input_1_split_0
I0925 23:29:29.822518  4708 net.cpp:399] cont_sentence_input_1_split -> cont_sentence_input_1_split_1
I0925 23:29:29.827527  4648 net.cpp:141] Setting up cont_sentence_input_1_split
I0925 23:29:29.827595  4648 net.cpp:148] Top shape: 1 1 (1)
I0925 23:29:29.827613  4648 net.cpp:148] Top shape: 1 1 (1)
I0925 23:29:29.827623  4648 net.cpp:156] Memory required for data: 16404
I0925 23:29:29.827641  4648 layer_factory.hpp:77] Creating layer embed_encoder
I0925 23:29:29.827677  4648 net.cpp:91] Creating Layer embed_encoder
I0925 23:29:29.827695  4648 net.cpp:425] embed_encoder <- frames_fc7
I0925 23:29:29.827728  4648 net.cpp:399] embed_encoder -> embedded_in_frames
I0925 23:29:29.833565  4682 net.cpp:141] Setting up embed_encoder
I0925 23:29:29.833623  4682 net.cpp:148] Top shape: 1 500 (500)
I0925 23:29:29.833633  4682 net.cpp:156] Memory required for data: 18404
I0925 23:29:29.833681  4682 layer_factory.hpp:77] Creating layer reshape_frames
I0925 23:29:29.833734  4682 net.cpp:91] Creating Layer reshape_frames
I0925 23:29:29.833746  4682 net.cpp:425] reshape_frames <- embedded_in_frames
I0925 23:29:29.833761  4682 net.cpp:399] reshape_frames -> embedded_input_frames
I0925 23:29:29.841791  4708 net.cpp:141] Setting up cont_sentence_input_1_split
I0925 23:29:29.841779  4682 net.cpp:141] Setting up reshape_frames
I0925 23:29:29.841840  4682 net.cpp:148] Top shape: 1 1 500 (500)
I0925 23:29:29.841840  4708 net.cpp:148] Top shape: 1 1 (1)
I0925 23:29:29.841864  4708 net.cpp:148] Top shape: 1 1 (1)
I0925 23:29:29.841866  4682 net.cpp:156] Memory required for data: 20404
I0925 23:29:29.841872  4708 net.cpp:156] Memory required for data: 16404
I0925 23:29:29.841881  4682 layer_factory.hpp:77] Creating layer reshape_stage_indicator
I0925 23:29:29.841883  4708 layer_factory.hpp:77] Creating layer embed_encoder
I0925 23:29:29.841917  4708 net.cpp:91] Creating Layer embed_encoder
I0925 23:29:29.841922  4682 net.cpp:91] Creating Layer reshape_stage_indicator
I0925 23:29:29.841928  4708 net.cpp:425] embed_encoder <- frames_fc7
I0925 23:29:29.841938  4682 net.cpp:425] reshape_stage_indicator <- stage_indicator
I0925 23:29:29.841948  4708 net.cpp:399] embed_encoder -> embedded_in_frames
I0925 23:29:29.841953  4682 net.cpp:399] reshape_stage_indicator -> reshaped_stage_indicator
I0925 23:29:29.842245  4660 net.cpp:141] Setting up embed_encoder
I0925 23:29:29.842262  4660 net.cpp:148] Top shape: 1 500 (500)
I0925 23:29:29.842270  4660 net.cpp:156] Memory required for data: 18404
I0925 23:29:29.842296  4660 layer_factory.hpp:77] Creating layer reshape_frames
I0925 23:29:29.842315  4660 net.cpp:91] Creating Layer reshape_frames
I0925 23:29:29.842326  4660 net.cpp:425] reshape_frames <- embedded_in_frames
I0925 23:29:29.842344  4660 net.cpp:399] reshape_frames -> embedded_input_frames
I0925 23:29:29.848422  4660 net.cpp:141] Setting up reshape_frames
I0925 23:29:29.848455  4682 net.cpp:141] Setting up reshape_stage_indicator
I0925 23:29:29.848474  4660 net.cpp:148] Top shape: 1 1 500 (500)
I0925 23:29:29.848479  4682 net.cpp:148] Top shape: 1 1 1 (1)
I0925 23:29:29.848485  4660 net.cpp:156] Memory required for data: 20404
I0925 23:29:29.848486  4682 net.cpp:156] Memory required for data: 20408
I0925 23:29:29.848507  4682 layer_factory.hpp:77] Creating layer embedding
I0925 23:29:29.848505  4660 layer_factory.hpp:77] Creating layer reshape_stage_indicator
I0925 23:29:29.848534  4682 net.cpp:91] Creating Layer embedding
I0925 23:29:29.848539  4660 net.cpp:91] Creating Layer reshape_stage_indicator
I0925 23:29:29.848546  4682 net.cpp:425] embedding <- input_sentence
I0925 23:29:29.848551  4660 net.cpp:425] reshape_stage_indicator <- stage_indicator
I0925 23:29:29.848562  4682 net.cpp:399] embedding -> embedded_input_sentence
I0925 23:29:29.848567  4660 net.cpp:399] reshape_stage_indicator -> reshaped_stage_indicator
I0925 23:29:29.848628  4676 net.cpp:141] Setting up embed_encoder
I0925 23:29:29.848649  4676 net.cpp:148] Top shape: 1 500 (500)
I0925 23:29:29.848649  4704 net.cpp:141] Setting up embed_encoder
I0925 23:29:29.848660  4676 net.cpp:156] Memory required for data: 18404
I0925 23:29:29.848670  4704 net.cpp:148] Top shape: 1 500 (500)
I0925 23:29:29.848680  4704 net.cpp:156] Memory required for data: 18404
I0925 23:29:29.848685  4676 layer_factory.hpp:77] Creating layer reshape_frames
I0925 23:29:29.848706  4704 layer_factory.hpp:77] Creating layer reshape_frames
I0925 23:29:29.848718  4676 net.cpp:91] Creating Layer reshape_frames
I0925 23:29:29.848726  4704 net.cpp:91] Creating Layer reshape_frames
I0925 23:29:29.848731  4676 net.cpp:425] reshape_frames <- embedded_in_frames
I0925 23:29:29.848737  4704 net.cpp:425] reshape_frames <- embedded_in_frames
I0925 23:29:29.848744  4676 net.cpp:399] reshape_frames -> embedded_input_frames
I0925 23:29:29.848757  4704 net.cpp:399] reshape_frames -> embedded_input_frames
I0925 23:29:29.848806  4676 net.cpp:141] Setting up reshape_frames
I0925 23:29:29.848821  4676 net.cpp:148] Top shape: 1 1 500 (500)
I0925 23:29:29.848829  4676 net.cpp:156] Memory required for data: 20404
I0925 23:29:29.848837  4676 layer_factory.hpp:77] Creating layer reshape_stage_indicator
I0925 23:29:29.848852  4676 net.cpp:91] Creating Layer reshape_stage_indicator
I0925 23:29:29.848860  4676 net.cpp:425] reshape_stage_indicator <- stage_indicator
I0925 23:29:29.848872  4660 net.cpp:141] Setting up reshape_stage_indicator
I0925 23:29:29.848891  4660 net.cpp:148] Top shape: 1 1 1 (1)
I0925 23:29:29.848901  4660 net.cpp:156] Memory required for data: 20408
I0925 23:29:29.848944  4676 net.cpp:399] reshape_stage_indicator -> reshaped_stage_indicator
I0925 23:29:29.848964  4660 layer_factory.hpp:77] Creating layer embedding
I0925 23:29:29.848984  4660 net.cpp:91] Creating Layer embedding
I0925 23:29:29.848995  4660 net.cpp:425] embedding <- input_sentence
I0925 23:29:29.849019  4660 net.cpp:399] embedding -> embedded_input_sentence
I0925 23:29:29.849179  4704 net.cpp:141] Setting up reshape_frames
I0925 23:29:29.849198  4704 net.cpp:148] Top shape: 1 1 500 (500)
I0925 23:29:29.849207  4704 net.cpp:156] Memory required for data: 20404
I0925 23:29:29.849215  4704 layer_factory.hpp:77] Creating layer reshape_stage_indicator
I0925 23:29:29.850780  4704 net.cpp:91] Creating Layer reshape_stage_indicator
I0925 23:29:29.850802  4704 net.cpp:425] reshape_stage_indicator <- stage_indicator
I0925 23:29:29.850821  4704 net.cpp:399] reshape_stage_indicator -> reshaped_stage_indicator
I0925 23:29:29.891899  4652 net.cpp:141] Setting up embed_encoder
I0925 23:29:29.891955  4652 net.cpp:148] Top shape: 1 500 (500)
I0925 23:29:29.891963  4652 net.cpp:156] Memory required for data: 18404
I0925 23:29:29.891960  4670 net.cpp:141] Setting up embed_encoder
I0925 23:29:29.891980  4670 net.cpp:148] Top shape: 1 500 (500)
I0925 23:29:29.891986  4670 net.cpp:156] Memory required for data: 18404
I0925 23:29:29.891995  4652 layer_factory.hpp:77] Creating layer reshape_frames
I0925 23:29:29.892004  4670 layer_factory.hpp:77] Creating layer reshape_frames
I0925 23:29:29.892009  4676 net.cpp:141] Setting up reshape_stage_indicator
I0925 23:29:29.892022  4670 net.cpp:91] Creating Layer reshape_frames
I0925 23:29:29.892024  4652 net.cpp:91] Creating Layer reshape_frames
I0925 23:29:29.892029  4676 net.cpp:148] Top shape: 1 1 1 (1)
I0925 23:29:29.892035  4676 net.cpp:156] Memory required for data: 20408
I0925 23:29:29.892035  4652 net.cpp:425] reshape_frames <- embedded_in_frames
I0925 23:29:29.892051  4652 net.cpp:399] reshape_frames -> embedded_input_frames
I0925 23:29:29.892033  4670 net.cpp:425] reshape_frames <- embedded_in_frames
I0925 23:29:29.892066  4676 layer_factory.hpp:77] Creating layer embedding
I0925 23:29:29.892081  4670 net.cpp:399] reshape_frames -> embedded_input_frames
I0925 23:29:29.892084  4676 net.cpp:91] Creating Layer embedding
I0925 23:29:29.892094  4676 net.cpp:425] embedding <- input_sentence
I0925 23:29:29.892110  4676 net.cpp:399] embedding -> embedded_input_sentence
I0925 23:29:29.945307  4704 net.cpp:141] Setting up reshape_stage_indicator
I0925 23:29:29.945371  4704 net.cpp:148] Top shape: 1 1 1 (1)
I0925 23:29:29.945382  4704 net.cpp:156] Memory required for data: 20408
I0925 23:29:29.945396  4704 layer_factory.hpp:77] Creating layer embedding
I0925 23:29:29.945422  4704 net.cpp:91] Creating Layer embedding
I0925 23:29:29.945435  4704 net.cpp:425] embedding <- input_sentence
I0925 23:29:29.945454  4704 net.cpp:399] embedding -> embedded_input_sentence
I0925 23:29:29.945505  4696 net.cpp:141] Setting up embed_encoder
I0925 23:29:29.945525  4696 net.cpp:148] Top shape: 1 500 (500)
I0925 23:29:29.945533  4696 net.cpp:156] Memory required for data: 18404
I0925 23:29:29.945557  4696 layer_factory.hpp:77] Creating layer reshape_frames
I0925 23:29:29.945653  4696 net.cpp:91] Creating Layer reshape_frames
I0925 23:29:29.945668  4696 net.cpp:425] reshape_frames <- embedded_in_frames
I0925 23:29:29.945683  4696 net.cpp:399] reshape_frames -> embedded_input_frames
I0925 23:29:29.990573  4652 net.cpp:141] Setting up reshape_frames
I0925 23:29:29.990672  4652 net.cpp:148] Top shape: 1 1 500 (500)
I0925 23:29:29.990684  4652 net.cpp:156] Memory required for data: 20404
I0925 23:29:29.990711  4652 layer_factory.hpp:77] Creating layer reshape_stage_indicator
I0925 23:29:29.990772  4652 net.cpp:91] Creating Layer reshape_stage_indicator
I0925 23:29:29.990789  4652 net.cpp:425] reshape_stage_indicator <- stage_indicator
I0925 23:29:29.990818  4652 net.cpp:399] reshape_stage_indicator -> reshaped_stage_indicator
I0925 23:29:30.035001  4696 net.cpp:141] Setting up reshape_frames
I0925 23:29:30.035042  4670 net.cpp:141] Setting up reshape_frames
I0925 23:29:30.035060  4670 net.cpp:148] Top shape: 1 1 500 (500)
I0925 23:29:30.035061  4696 net.cpp:148] Top shape: 1 1 500 (500)
I0925 23:29:30.035084  4670 net.cpp:156] Memory required for data: 20404
I0925 23:29:30.035086  4696 net.cpp:156] Memory required for data: 20404
I0925 23:29:30.035109  4696 layer_factory.hpp:77] Creating layer reshape_stage_indicator
I0925 23:29:30.035104  4670 layer_factory.hpp:77] Creating layer reshape_stage_indicator
I0925 23:29:30.035159  4696 net.cpp:91] Creating Layer reshape_stage_indicator
I0925 23:29:30.035142  4656 net.cpp:141] Setting up embed_encoder
I0925 23:29:30.035172  4696 net.cpp:425] reshape_stage_indicator <- stage_indicator
I0925 23:29:30.035183  4656 net.cpp:148] Top shape: 1 500 (500)
I0925 23:29:30.035187  4696 net.cpp:399] reshape_stage_indicator -> reshaped_stage_indicator
I0925 23:29:30.035200  4656 net.cpp:156] Memory required for data: 18404
I0925 23:29:30.035203  4670 net.cpp:91] Creating Layer reshape_stage_indicator
I0925 23:29:30.035229  4670 net.cpp:425] reshape_stage_indicator <- stage_indicator
I0925 23:29:30.035234  4656 layer_factory.hpp:77] Creating layer reshape_frames
I0925 23:29:30.035251  4670 net.cpp:399] reshape_stage_indicator -> reshaped_stage_indicator
I0925 23:29:30.035256  4656 net.cpp:91] Creating Layer reshape_frames
I0925 23:29:30.035256  4696 net.cpp:141] Setting up reshape_stage_indicator
I0925 23:29:30.035274  4656 net.cpp:425] reshape_frames <- embedded_in_frames
I0925 23:29:30.035281  4696 net.cpp:148] Top shape: 1 1 1 (1)
I0925 23:29:30.035289  4696 net.cpp:156] Memory required for data: 20408
I0925 23:29:30.035291  4656 net.cpp:399] reshape_frames -> embedded_input_frames
I0925 23:29:30.035293  4696 layer_factory.hpp:77] Creating layer embedding
I0925 23:29:30.035315  4696 net.cpp:91] Creating Layer embedding
I0925 23:29:30.035321  4696 net.cpp:425] embedding <- input_sentence
I0925 23:29:30.035343  4696 net.cpp:399] embedding -> embedded_input_sentence
I0925 23:29:30.035559  4670 net.cpp:141] Setting up reshape_stage_indicator
I0925 23:29:30.035585  4670 net.cpp:148] Top shape: 1 1 1 (1)
I0925 23:29:30.035595  4670 net.cpp:156] Memory required for data: 20408
I0925 23:29:30.035606  4670 layer_factory.hpp:77] Creating layer embedding
I0925 23:29:30.035626  4670 net.cpp:91] Creating Layer embedding
I0925 23:29:30.035636  4670 net.cpp:425] embedding <- input_sentence
I0925 23:29:30.035651  4670 net.cpp:399] embedding -> embedded_input_sentence
I0925 23:29:30.084782  4656 net.cpp:141] Setting up reshape_frames
I0925 23:29:30.084858  4652 net.cpp:141] Setting up reshape_stage_indicator
I0925 23:29:30.084882  4656 net.cpp:148] Top shape: 1 1 500 (500)
I0925 23:29:30.084892  4652 net.cpp:148] Top shape: 1 1 1 (1)
I0925 23:29:30.084897  4656 net.cpp:156] Memory required for data: 20404
I0925 23:29:30.084903  4652 net.cpp:156] Memory required for data: 20408
I0925 23:29:30.084918  4652 layer_factory.hpp:77] Creating layer embedding
I0925 23:29:30.084923  4656 layer_factory.hpp:77] Creating layer reshape_stage_indicator
I0925 23:29:30.084967  4652 net.cpp:91] Creating Layer embedding
I0925 23:29:30.084982  4656 net.cpp:91] Creating Layer reshape_stage_indicator
I0925 23:29:30.084987  4652 net.cpp:425] embedding <- input_sentence
I0925 23:29:30.084998  4656 net.cpp:425] reshape_stage_indicator <- stage_indicator
I0925 23:29:30.085017  4656 net.cpp:399] reshape_stage_indicator -> reshaped_stage_indicator
I0925 23:29:30.085029  4652 net.cpp:399] embedding -> embedded_input_sentence
I0925 23:29:30.085124  4656 net.cpp:141] Setting up reshape_stage_indicator
I0925 23:29:30.085144  4656 net.cpp:148] Top shape: 1 1 1 (1)
I0925 23:29:30.085151  4656 net.cpp:156] Memory required for data: 20408
I0925 23:29:30.085161  4656 layer_factory.hpp:77] Creating layer embedding
I0925 23:29:30.085186  4656 net.cpp:91] Creating Layer embedding
I0925 23:29:30.085201  4656 net.cpp:425] embedding <- input_sentence
I0925 23:29:30.085219  4656 net.cpp:399] embedding -> embedded_input_sentence
I0925 23:29:30.085438  4682 net.cpp:141] Setting up embedding
I0925 23:29:30.085470  4682 net.cpp:148] Top shape: 1 1 500 (500)
I0925 23:29:30.085482  4682 net.cpp:156] Memory required for data: 22408
I0925 23:29:30.085512  4682 layer_factory.hpp:77] Creating layer lstm1
I0925 23:29:30.085546  4682 net.cpp:91] Creating Layer lstm1
I0925 23:29:30.085562  4682 net.cpp:425] lstm1 <- embedded_input_frames
I0925 23:29:30.085578  4682 net.cpp:425] lstm1 <- cont_sentence_input_1_split_0
I0925 23:29:30.085597  4682 net.cpp:399] lstm1 -> lstm1
I0925 23:29:30.086797  4682 recurrent_layer.cpp:20] Initializing recurrent layer: assuming input batch contains 1 timesteps of 1 independent streams.
I0925 23:29:30.087811  4682 net.cpp:49] Initializing net from parameters: 
layer {
  name: "lstm1_"
  type: "Input"
  top: "x"
  top: "cont"
  input_param {
    shape {
      dim: 1
      dim: 1
      dim: 500
    }
    shape {
      dim: 1
      dim: 1
    }
  }
}
layer {
  name: "lstm1_"
  type: "Input"
  top: "c_0"
  top: "h_0"
  input_param {
    shape {
      dim: 1
      dim: 1
      dim: 1000
    }
    shape {
      dim: 1
      dim: 1
      dim: 1000
    }
  }
}
layer {
  name: "lstm1_cont_slice"
  type: "Slice"
  bottom: "cont"
  top: "cont_1"
  slice_param {
    axis: 0
  }
}
layer {
  name: "lstm1_x_transform"
  type: "InnerProduct"
  bottom: "x"
  top: "W_xc_x"
  param {
    name: "W_xc"
  }
  param {
    name: "b_c"
  }
  propagate_down: true
  inner_product_param {
    num_output: 4000
    bias_term: true
    weight_filler {
      type: "uniform"
      min: -0.08
      max: 0.08
    }
    bias_filler {
      type: "constant"
      value: 0
    }
    axis: 2
  }
}
layer {
  name: "lstm1_W_xc_x_slice"
  type: "Slice"
  bottom: "W_xc_x"
  top: "W_xc_x_1"
  slice_param {
    axis: 0
  }
}
layer {
  name: "lstm1_h_conted_0"
  type: "Scale"
  bottom: "h_0"
  bottom: "cont_1"
  top: "h_conted_0"
  scale_param {
    axis: 0
  }
}
layer {
  name: "lstm1_transform_1"
  type: "InnerProduct"
  bottom: "h_conted_0"
  top: "W_hc_h_0"
  param {
    name: "W_hc"
  }
  inner_product_param {
    num_output: 4000
    bias_term: false
    weight_filler {
      type: "uniform"
      min: -0.08
      max: 0.08
    }
    axis: 2
  }
}
layer {
  name: "lstm1_gate_input_1"
  type: "Eltwise"
  bottom: "W_hc_h_0"
  bottom: "W_xc_x_1"
  top: "gate_input_1"
  eltwise_param {
    operation: SUM
  }
}
layer {
  name: "lstm1_unit_1"
  type: "LSTMUnit"
  bottom: "c_0"
  bottom: "gate_input_1"
  bottom: "cont_1"
  top: "c_1"
  top: "h_1"
}
layer {
  name: "lstm1_"
  type: "Split"
  bottom: "c_1"
  top: "c_T"
}
layer {
  name: "lstm1_h_concat"
  type: "Concat"
  bottom: "h_1"
  top: "h"
  concat_param {
    axis: 0
  }
}
layer {
  name: "h_pseudoloss"
  type: "Reduction"
  bottom: "h"
  top: "h_pseudoloss"
  loss_weight: 1
}
I0925 23:29:30.088030  4682 layer_factory.hpp:77] Creating layer lstm1_
I0925 23:29:30.088070  4682 net.cpp:91] Creating Layer lstm1_
I0925 23:29:30.088088  4682 net.cpp:399] lstm1_ -> x
I0925 23:29:30.088132  4682 net.cpp:399] lstm1_ -> cont
I0925 23:29:30.138671  4648 net.cpp:141] Setting up embed_encoder
I0925 23:29:30.138733  4648 net.cpp:148] Top shape: 1 500 (500)
I0925 23:29:30.138743  4648 net.cpp:156] Memory required for data: 18404
I0925 23:29:30.138772  4648 layer_factory.hpp:77] Creating layer reshape_frames
I0925 23:29:30.138797  4648 net.cpp:91] Creating Layer reshape_frames
I0925 23:29:30.138809  4648 net.cpp:425] reshape_frames <- embedded_in_frames
I0925 23:29:30.138826  4648 net.cpp:399] reshape_frames -> embedded_input_frames
I0925 23:29:30.235321  4708 net.cpp:141] Setting up embed_encoder
I0925 23:29:30.235363  4660 net.cpp:141] Setting up embedding
I0925 23:29:30.235375  4708 net.cpp:148] Top shape: 1 500 (500)
I0925 23:29:30.235381  4660 net.cpp:148] Top shape: 1 1 500 (500)
I0925 23:29:30.235384  4708 net.cpp:156] Memory required for data: 18404
I0925 23:29:30.235388  4660 net.cpp:156] Memory required for data: 22408
I0925 23:29:30.235417  4660 layer_factory.hpp:77] Creating layer lstm1
I0925 23:29:30.235424  4708 layer_factory.hpp:77] Creating layer reshape_frames
I0925 23:29:30.235441  4660 net.cpp:91] Creating Layer lstm1
I0925 23:29:30.235443  4708 net.cpp:91] Creating Layer reshape_frames
I0925 23:29:30.235450  4660 net.cpp:425] lstm1 <- embedded_input_frames
I0925 23:29:30.235453  4708 net.cpp:425] reshape_frames <- embedded_in_frames
I0925 23:29:30.235460  4660 net.cpp:425] lstm1 <- cont_sentence_input_1_split_0
I0925 23:29:30.235471  4660 net.cpp:399] lstm1 -> lstm1
I0925 23:29:30.235481  4708 net.cpp:399] reshape_frames -> embedded_input_frames
I0925 23:29:30.235493  4660 recurrent_layer.cpp:20] Initializing recurrent layer: assuming input batch contains 1 timesteps of 1 independent streams.
I0925 23:29:30.235541  4708 net.cpp:141] Setting up reshape_frames
I0925 23:29:30.235556  4708 net.cpp:148] Top shape: 1 1 500 (500)
I0925 23:29:30.235563  4708 net.cpp:156] Memory required for data: 20404
I0925 23:29:30.235571  4708 layer_factory.hpp:77] Creating layer reshape_stage_indicator
I0925 23:29:30.235610  4708 net.cpp:91] Creating Layer reshape_stage_indicator
I0925 23:29:30.235618  4708 net.cpp:425] reshape_stage_indicator <- stage_indicator
I0925 23:29:30.235631  4708 net.cpp:399] reshape_stage_indicator -> reshaped_stage_indicator
I0925 23:29:30.235692  4708 net.cpp:141] Setting up reshape_stage_indicator
I0925 23:29:30.235707  4708 net.cpp:148] Top shape: 1 1 1 (1)
I0925 23:29:30.235715  4708 net.cpp:156] Memory required for data: 20408
I0925 23:29:30.235723  4708 layer_factory.hpp:77] Creating layer embedding
I0925 23:29:30.235751  4708 net.cpp:91] Creating Layer embedding
I0925 23:29:30.235759  4708 net.cpp:425] embedding <- input_sentence
I0925 23:29:30.235771  4708 net.cpp:399] embedding -> embedded_input_sentence
I0925 23:29:30.235798  4660 net.cpp:49] Initializing net from parameters: 
layer {
  name: "lstm1_"
  type: "Input"
  top: "x"
  top: "cont"
  input_param {
    shape {
      dim: 1
      dim: 1
      dim: 500
    }
    shape {
      dim: 1
      dim: 1
    }
  }
}
layer {
  name: "lstm1_"
  type: "Input"
  top: "c_0"
  top: "h_0"
  input_param {
    shape {
      dim: 1
      dim: 1
      dim: 1000
    }
    shape {
      dim: 1
      dim: 1
      dim: 1000
    }
  }
}
layer {
  name: "lstm1_cont_slice"
  type: "Slice"
  bottom: "cont"
  top: "cont_1"
  slice_param {
    axis: 0
  }
}
layer {
  name: "lstm1_x_transform"
  type: "InnerProduct"
  bottom: "x"
  top: "W_xc_x"
  param {
    name: "W_xc"
  }
  param {
    name: "b_c"
  }
  propagate_down: true
  inner_product_param {
    num_output: 4000
    bias_term: true
    weight_filler {
      type: "uniform"
      min: -0.08
      max: 0.08
    }
    bias_filler {
      type: "constant"
      value: 0
    }
    axis: 2
  }
}
layer {
  name: "lstm1_W_xc_x_slice"
  type: "Slice"
  bottom: "W_xc_x"
  top: "W_xc_x_1"
  slice_param {
    axis: 0
  }
}
layer {
  name: "lstm1_h_conted_0"
  type: "Scale"
  bottom: "h_0"
  bottom: "cont_1"
  top: "h_conted_0"
  scale_param {
    axis: 0
  }
}
layer {
  name: "lstm1_transform_1"
  type: "InnerProduct"
  bottom: "h_conted_0"
  top: "W_hc_h_0"
  param {
    name: "W_hc"
  }
  inner_product_param {
    num_output: 4000
    bias_term: false
    weight_filler {
      type: "uniform"
      min: -0.08
      max: 0.08
    }
    axis: 2
  }
}
layer {
  name: "lstm1_gate_input_1"
  type: "Eltwise"
  bottom: "W_hc_h_0"
  bottom: "W_xc_x_1"
  top: "gate_input_1"
  eltwise_param {
    operation: SUM
  }
}
layer {
  name: "lstm1_unit_1"
  type: "LSTMUnit"
  bottom: "c_0"
  bottom: "gate_input_1"
  bottom: "cont_1"
  top: "c_1"
  top: "h_1"
}
layer {
  name: "lstm1_"
  type: "Split"
  bottom: "c_1"
  top: "c_T"
}
layer {
  name: "lstm1_h_concat"
  type: "Concat"
  bottom: "h_1"
  top: "h"
  concat_param {
    axis: 0
  }
}
layer {
  name: "h_pseudoloss"
  type: "Reduction"
  bottom: "h"
  top: "h_pseudoloss"
  loss_weight: 1
}
I0925 23:29:30.235941  4660 layer_factory.hpp:77] Creating layer lstm1_
I0925 23:29:30.235956  4660 net.cpp:91] Creating Layer lstm1_
I0925 23:29:30.235962  4660 net.cpp:399] lstm1_ -> x
I0925 23:29:30.235975  4660 net.cpp:399] lstm1_ -> cont
I0925 23:29:30.289664  4682 net.cpp:141] Setting up lstm1_
I0925 23:29:30.289721  4682 net.cpp:148] Top shape: 1 1 500 (500)
I0925 23:29:30.289736  4682 net.cpp:148] Top shape: 1 1 (1)
I0925 23:29:30.289743  4682 net.cpp:156] Memory required for data: 2004
I0925 23:29:30.289741  4648 net.cpp:141] Setting up reshape_frames
I0925 23:29:30.289757  4682 layer_factory.hpp:77] Creating layer lstm1_
I0925 23:29:30.289762  4648 net.cpp:148] Top shape: 1 1 500 (500)
I0925 23:29:30.289770  4648 net.cpp:156] Memory required for data: 20404
I0925 23:29:30.289778  4648 layer_factory.hpp:77] Creating layer reshape_stage_indicator
I0925 23:29:30.289783  4682 net.cpp:91] Creating Layer lstm1_
I0925 23:29:30.289798  4682 net.cpp:399] lstm1_ -> c_0
I0925 23:29:30.289800  4648 net.cpp:91] Creating Layer reshape_stage_indicator
I0925 23:29:30.289811  4648 net.cpp:425] reshape_stage_indicator <- stage_indicator
I0925 23:29:30.289824  4648 net.cpp:399] reshape_stage_indicator -> reshaped_stage_indicator
I0925 23:29:30.289825  4682 net.cpp:399] lstm1_ -> h_0
I0925 23:29:30.289839  4660 net.cpp:141] Setting up lstm1_
I0925 23:29:30.289862  4660 net.cpp:148] Top shape: 1 1 500 (500)
I0925 23:29:30.289875  4660 net.cpp:148] Top shape: 1 1 (1)
I0925 23:29:30.289881  4660 net.cpp:156] Memory required for data: 2004
I0925 23:29:30.289891  4660 layer_factory.hpp:77] Creating layer lstm1_
I0925 23:29:30.289907  4660 net.cpp:91] Creating Layer lstm1_
I0925 23:29:30.289918  4682 net.cpp:141] Setting up lstm1_
I0925 23:29:30.289927  4660 net.cpp:399] lstm1_ -> c_0
I0925 23:29:30.289935  4682 net.cpp:148] Top shape: 1 1 1000 (1000)
I0925 23:29:30.289947  4682 net.cpp:148] Top shape: 1 1 1000 (1000)
I0925 23:29:30.289947  4660 net.cpp:399] lstm1_ -> h_0
I0925 23:29:30.289954  4682 net.cpp:156] Memory required for data: 10004
I0925 23:29:30.289963  4682 layer_factory.hpp:77] Creating layer lstm1_cont_slice
I0925 23:29:30.289979  4682 net.cpp:91] Creating Layer lstm1_cont_slice
I0925 23:29:30.289978  4648 net.cpp:141] Setting up reshape_stage_indicator
I0925 23:29:30.289995  4682 net.cpp:425] lstm1_cont_slice <- cont
I0925 23:29:30.290005  4648 net.cpp:148] Top shape: 1 1 1 (1)
I0925 23:29:30.290009  4682 net.cpp:399] lstm1_cont_slice -> cont_1
I0925 23:29:30.290012  4648 net.cpp:156] Memory required for data: 20408
I0925 23:29:30.290020  4648 layer_factory.hpp:77] Creating layer embedding
I0925 23:29:30.290038  4648 net.cpp:91] Creating Layer embedding
I0925 23:29:30.290035  4660 net.cpp:141] Setting up lstm1_
I0925 23:29:30.290046  4648 net.cpp:425] embedding <- input_sentence
I0925 23:29:30.290066  4660 net.cpp:148] Top shape: 1 1 1000 (1000)
I0925 23:29:30.290071  4648 net.cpp:399] embedding -> embedded_input_sentence
I0925 23:29:30.290071  4682 net.cpp:141] Setting up lstm1_cont_slice
I0925 23:29:30.290084  4660 net.cpp:148] Top shape: 1 1 1000 (1000)
I0925 23:29:30.290087  4682 net.cpp:148] Top shape: 1 1 (1)
I0925 23:29:30.290092  4660 net.cpp:156] Memory required for data: 10004
I0925 23:29:30.290096  4682 net.cpp:156] Memory required for data: 10008
I0925 23:29:30.290104  4682 layer_factory.hpp:77] Creating layer cont_1_lstm1_cont_slice_0_split
I0925 23:29:30.290101  4660 layer_factory.hpp:77] Creating layer lstm1_cont_slice
I0925 23:29:30.290117  4682 net.cpp:91] Creating Layer cont_1_lstm1_cont_slice_0_split
I0925 23:29:30.290125  4682 net.cpp:425] cont_1_lstm1_cont_slice_0_split <- cont_1
I0925 23:29:30.290127  4660 net.cpp:91] Creating Layer lstm1_cont_slice
I0925 23:29:30.290139  4682 net.cpp:399] cont_1_lstm1_cont_slice_0_split -> cont_1_lstm1_cont_slice_0_split_0
I0925 23:29:30.290136  4660 net.cpp:425] lstm1_cont_slice <- cont
I0925 23:29:30.290153  4682 net.cpp:399] cont_1_lstm1_cont_slice_0_split -> cont_1_lstm1_cont_slice_0_split_1
I0925 23:29:30.290154  4660 net.cpp:399] lstm1_cont_slice -> cont_1
I0925 23:29:30.290185  4704 net.cpp:141] Setting up embedding
I0925 23:29:30.290230  4704 net.cpp:148] Top shape: 1 1 500 (500)
I0925 23:29:30.290241  4704 net.cpp:156] Memory required for data: 22408
I0925 23:29:30.290269  4704 layer_factory.hpp:77] Creating layer lstm1
I0925 23:29:30.290297  4704 net.cpp:91] Creating Layer lstm1
I0925 23:29:30.290309  4704 net.cpp:425] lstm1 <- embedded_input_frames
I0925 23:29:30.290323  4704 net.cpp:425] lstm1 <- cont_sentence_input_1_split_0
I0925 23:29:30.290338  4704 net.cpp:399] lstm1 -> lstm1
I0925 23:29:30.290364  4704 recurrent_layer.cpp:20] Initializing recurrent layer: assuming input batch contains 1 timesteps of 1 independent streams.
I0925 23:29:30.290814  4704 net.cpp:49] Initializing net from parameters: 
layer {
  name: "lstm1_"
  type: "Input"
  top: "x"
  top: "cont"
  input_param {
    shape {
      dim: 1
      dim: 1
      dim: 500
    }
    shape {
      dim: 1
      dim: 1
    }
  }
}
layer {
  name: "lstm1_"
  type: "Input"
  top: "c_0"
  top: "h_0"
  input_param {
    shape {
      dim: 1
      dim: 1
      dim: 1000
    }
    shape {
      dim: 1
      dim: 1
      dim: 1000
    }
  }
}
layer {
  name: "lstm1_cont_slice"
  type: "Slice"
  bottom: "cont"
  top: "cont_1"
  slice_param {
    axis: 0
  }
}
layer {
  name: "lstm1_x_transform"
  type: "InnerProduct"
  bottom: "x"
  top: "W_xc_x"
  param {
    name: "W_xc"
  }
  param {
    name: "b_c"
  }
  propagate_down: true
  inner_product_param {
    num_output: 4000
    bias_term: true
    weight_filler {
      type: "uniform"
      min: -0.08
      max: 0.08
    }
    bias_filler {
      type: "constant"
      value: 0
    }
    axis: 2
  }
}
layer {
  name: "lstm1_W_xc_x_slice"
  type: "Slice"
  bottom: "W_xc_x"
  top: "W_xc_x_1"
  slice_param {
    axis: 0
  }
}
layer {
  name: "lstm1_h_conted_0"
  type: "Scale"
  bottom: "h_0"
  bottom: "cont_1"
  top: "h_conted_0"
  scale_param {
    axis: 0
  }
}
layer {
  name: "lstm1_transform_1"
  type: "InnerProduct"
  bottom: "h_conted_0"
  top: "W_hc_h_0"
  param {
    name: "W_hc"
  }
  inner_product_param {
    num_output: 4000
    bias_term: false
    weight_filler {
      type: "uniform"
      min: -0.08
      max: 0.08
    }
    axis: 2
  }
}
layer {
  name: "lstm1_gate_input_1"
  type: "Eltwise"
  bottom: "W_hc_h_0"
  bottom: "W_xc_x_1"
  top: "gate_input_1"
  eltwise_param {
    operation: SUM
  }
}
layer {
  name: "lstm1_unit_1"
  type: "LSTMUnit"
  bottom: "c_0"
  bottom: "gate_input_1"
  bottom: "cont_1"
  top: "c_1"
  top: "h_1"
}
layer {
  name: "lstm1_"
  type: "Split"
  bottom: "c_1"
  top: "c_T"
}
layer {
  name: "lstm1_h_concat"
  type: "Concat"
  bottom: "h_1"
  top: "h"
  concat_param {
    axis: 0
  }
}
layer {
  name: "h_pseudoloss"
  type: "Reduction"
  bottom: "h"
  top: "h_pseudoloss"
  loss_weight: 1
}
I0925 23:29:30.290959  4704 layer_factory.hpp:77] Creating layer lstm1_
I0925 23:29:30.290977  4704 net.cpp:91] Creating Layer lstm1_
I0925 23:29:30.290988  4704 net.cpp:399] lstm1_ -> x
I0925 23:29:30.291007  4704 net.cpp:399] lstm1_ -> cont
I0925 23:29:30.293421  4660 net.cpp:141] Setting up lstm1_cont_slice
I0925 23:29:30.293479  4660 net.cpp:148] Top shape: 1 1 (1)
I0925 23:29:30.293488  4660 net.cpp:156] Memory required for data: 10008
I0925 23:29:30.293500  4660 layer_factory.hpp:77] Creating layer cont_1_lstm1_cont_slice_0_split
I0925 23:29:30.293524  4660 net.cpp:91] Creating Layer cont_1_lstm1_cont_slice_0_split
I0925 23:29:30.293535  4660 net.cpp:425] cont_1_lstm1_cont_slice_0_split <- cont_1
I0925 23:29:30.293560  4660 net.cpp:399] cont_1_lstm1_cont_slice_0_split -> cont_1_lstm1_cont_slice_0_split_0
I0925 23:29:30.293578  4660 net.cpp:399] cont_1_lstm1_cont_slice_0_split -> cont_1_lstm1_cont_slice_0_split_1
I0925 23:29:30.352772  4682 net.cpp:141] Setting up cont_1_lstm1_cont_slice_0_split
I0925 23:29:30.352838  4682 net.cpp:148] Top shape: 1 1 (1)
I0925 23:29:30.352849  4682 net.cpp:148] Top shape: 1 1 (1)
I0925 23:29:30.352856  4682 net.cpp:156] Memory required for data: 10016
I0925 23:29:30.352869  4682 layer_factory.hpp:77] Creating layer lstm1_x_transform
I0925 23:29:30.352900  4682 net.cpp:91] Creating Layer lstm1_x_transform
I0925 23:29:30.352910  4682 net.cpp:425] lstm1_x_transform <- x
I0925 23:29:30.352928  4682 net.cpp:399] lstm1_x_transform -> W_xc_x
I0925 23:29:30.352974  4660 net.cpp:141] Setting up cont_1_lstm1_cont_slice_0_split
I0925 23:29:30.353004  4660 net.cpp:148] Top shape: 1 1 (1)
I0925 23:29:30.353015  4660 net.cpp:148] Top shape: 1 1 (1)
I0925 23:29:30.353021  4660 net.cpp:156] Memory required for data: 10016
I0925 23:29:30.353032  4660 layer_factory.hpp:77] Creating layer lstm1_x_transform
I0925 23:29:30.353050  4660 net.cpp:91] Creating Layer lstm1_x_transform
I0925 23:29:30.353060  4660 net.cpp:425] lstm1_x_transform <- x
I0925 23:29:30.353075  4660 net.cpp:399] lstm1_x_transform -> W_xc_x
I0925 23:29:30.353085  4696 net.cpp:141] Setting up embedding
I0925 23:29:30.353106  4696 net.cpp:148] Top shape: 1 1 500 (500)
I0925 23:29:30.353114  4696 net.cpp:156] Memory required for data: 22408
I0925 23:29:30.353133  4696 layer_factory.hpp:77] Creating layer lstm1
I0925 23:29:30.353134  4652 net.cpp:141] Setting up embedding
I0925 23:29:30.353158  4652 net.cpp:148] Top shape: 1 1 500 (500)
I0925 23:29:30.353166  4652 net.cpp:156] Memory required for data: 22408
I0925 23:29:30.353165  4696 net.cpp:91] Creating Layer lstm1
I0925 23:29:30.353191  4704 net.cpp:141] Setting up lstm1_
I0925 23:29:30.353210  4696 net.cpp:425] lstm1 <- embedded_input_frames
I0925 23:29:30.353211  4652 layer_factory.hpp:77] Creating layer lstm1
I0925 23:29:30.353250  4696 net.cpp:425] lstm1 <- cont_sentence_input_1_split_0
I0925 23:29:30.353255  4704 net.cpp:148] Top shape: 1 1 500 (500)
I0925 23:29:30.353263  4696 net.cpp:399] lstm1 -> lstm1
I0925 23:29:30.353271  4704 net.cpp:148] Top shape: 1 1 (1)
I0925 23:29:30.353278  4704 net.cpp:156] Memory required for data: 2004
I0925 23:29:30.353262  4652 net.cpp:91] Creating Layer lstm1
I0925 23:29:30.353299  4704 layer_factory.hpp:77] Creating layer lstm1_
I0925 23:29:30.353293  4696 recurrent_layer.cpp:20] Initializing recurrent layer: assuming input batch contains 1 timesteps of 1 independent streams.
I0925 23:29:30.353310  4652 net.cpp:425] lstm1 <- embedded_input_frames
I0925 23:29:30.353322  4652 net.cpp:425] lstm1 <- cont_sentence_input_1_split_0
I0925 23:29:30.353329  4704 net.cpp:91] Creating Layer lstm1_
I0925 23:29:30.353335  4652 net.cpp:399] lstm1 -> lstm1
I0925 23:29:30.353343  4704 net.cpp:399] lstm1_ -> c_0
I0925 23:29:30.353351  4652 recurrent_layer.cpp:20] Initializing recurrent layer: assuming input batch contains 1 timesteps of 1 independent streams.
I0925 23:29:30.353371  4704 net.cpp:399] lstm1_ -> h_0
I0925 23:29:30.353730  4652 net.cpp:49] Initializing net from parameters: 
layer {
  name: "lstm1_"
  type: "Input"
  top: "x"
  top: "cont"
  input_param {
    shape {
      dim: 1
      dim: 1
      dim: 500
    }
    shape {
      dim: 1
      dim: 1
    }
  }
}
layer {
  name: "lstm1_"
  type: "Input"
  top: "c_0"
  top: "h_0"
  input_param {
    shape {
      dim: 1
      dim: 1
      dim: 1000
    }
    shape {
      dim: 1
      dim: 1
      dim: 1000
    }
  }
}
layer {
  name: "lstm1_cont_slice"
  type: "Slice"
  bottom: "cont"
  top: "cont_1"
  slice_param {
    axis: 0
  }
}
layer {
  name: "lstm1_x_transform"
  type: "InnerProduct"
  bottom: "x"
  top: "W_xc_x"
  param {
    name: "W_xc"
  }
  param {
    name: "b_c"
  }
  propagate_down: true
  inner_product_param {
    num_output: 4000
    bias_term: true
    weight_filler {
      type: "uniform"
      min: -0.08
      max: 0.08
    }
    bias_filler {
      type: "constant"
      value: 0
    }
    axis: 2
  }
}
layer {
  name: "lstm1_W_xc_x_slice"
  type: "Slice"
  bottom: "W_xc_x"
  top: "W_xc_x_1"
  slice_param {
    axis: 0
  }
}
layer {
  name: "lstm1_h_conted_0"
  type: "Scale"
  bottom: "h_0"
  bottom: "cont_1"
  top: "h_conted_0"
  scale_param {
    axis: 0
  }
}
layer {
  name: "lstm1_transform_1"
  type: "InnerProduct"
  bottom: "h_conted_0"
  top: "W_hc_h_0"
  param {
    name: "W_hc"
  }
  inner_product_param {
    num_output: 4000
    bias_term: false
    weight_filler {
      type: "uniform"
      min: -0.08
      max: 0.08
    }
    axis: 2
  }
}
layer {
  name: "lstm1_gate_input_1"
  type: "Eltwise"
  bottom: "W_hc_h_0"
  bottom: "W_xc_x_1"
  top: "gate_input_1"
  eltwise_param {
    operation: SUM
  }
}
layer {
  name: "lstm1_unit_1"
  type: "LSTMUnit"
  bottom: "c_0"
  bottom: "gate_input_1"
  bottom: "cont_1"
  top: "c_1"
  top: "h_1"
}
layer {
  name: "lstm1_"
  type: "Split"
  bottom: "c_1"
  top: "c_T"
}
layer {
  name: "lstm1_h_concat"
  type: "Concat"
  bottom: "h_1"
  top: "h"
  concat_param {
    axis: 0
  }
}
layer {
  name: "h_pseudoloss"
  type: "Reduction"
  bottom: "h"
  top: "h_pseudoloss"
  loss_weight: 1
}
I0925 23:29:30.353760  4696 net.cpp:49] Initializing net from parameters: 
layer {
  name: "lstm1_"
  type: "Input"
  top: "x"
  top: "cont"
  input_param {
    shape {
      dim: 1
      dim: 1
      dim: 500
    }
    shape {
      dim: 1
      dim: 1
    }
  }
}
layer {
  name: "lstm1_"
  type: "Input"
  top: "c_0"
  top: "h_0"
  input_param {
    shape {
      dim: 1
      dim: 1
      dim: 1000
    }
    shape {
      dim: 1
      dim: 1
      dim: 1000
    }
  }
}
layer {
  name: "lstm1_cont_slice"
  type: "Slice"
  bottom: "cont"
  top: "cont_1"
  slice_param {
    axis: 0
  }
}
layer {
  name: "lstm1_x_transform"
  type: "InnerProduct"
  bottom: "x"
  top: "W_xc_x"
  param {
    name: "W_xc"
  }
  param {
    name: "b_c"
  }
  propagate_down: true
  inner_product_param {
    num_output: 4000
    bias_term: true
    weight_filler {
      type: "uniform"
      min: -0.08
      max: 0.08
    }
    bias_filler {
      type: "constant"
      value: 0
    }
    axis: 2
  }
}
layer {
  name: "lstm1_W_xc_x_slice"
  type: "Slice"
  bottom: "W_xc_x"
  top: "W_xc_x_1"
  slice_param {
    axis: 0
  }
}
layer {
  name: "lstm1_h_conted_0"
  type: "Scale"
  bottom: "h_0"
  bottom: "cont_1"
  top: "h_conted_0"
  scale_param {
    axis: 0
  }
}
layer {
  name: "lstm1_transform_1"
  type: "InnerProduct"
  bottom: "h_conted_0"
  top: "W_hc_h_0"
  param {
    name: "W_hc"
  }
  inner_product_param {
    num_output: 4000
    bias_term: false
    weight_filler {
      type: "uniform"
      min: -0.08
      max: 0.08
    }
    axis: 2
  }
}
layer {
  name: "lstm1_gate_input_1"
  type: "Eltwise"
  bottom: "W_hc_h_0"
  bottom: "W_xc_x_1"
  top: "gate_input_1"
  eltwise_param {
    operation: SUM
  }
}
layer {
  name: "lstm1_unit_1"
  type: "LSTMUnit"
  bottom: "c_0"
  bottom: "gate_input_1"
  bottom: "cont_1"
  top: "c_1"
  top: "h_1"
}
layer {
  name: "lstm1_"
  type: "Split"
  bottom: "c_1"
  top: "c_T"
}
layer {
  name: "lstm1_h_concat"
  type: "Concat"
  bottom: "h_1"
  top: "h"
  concat_param {
    axis: 0
  }
}
layer {
  name: "h_pseudoloss"
  type: "Reduction"
  bottom: "h"
  top: "h_pseudoloss"
  loss_weight: 1
}
I0925 23:29:30.353863  4652 layer_factory.hpp:77] Creating layer lstm1_
I0925 23:29:30.353878  4652 net.cpp:91] Creating Layer lstm1_
I0925 23:29:30.353888  4652 net.cpp:399] lstm1_ -> x
I0925 23:29:30.353906  4652 net.cpp:399] lstm1_ -> cont
I0925 23:29:30.353926  4696 layer_factory.hpp:77] Creating layer lstm1_
I0925 23:29:30.353943  4696 net.cpp:91] Creating Layer lstm1_
I0925 23:29:30.353955  4696 net.cpp:399] lstm1_ -> x
I0925 23:29:30.353971  4696 net.cpp:399] lstm1_ -> cont
I0925 23:29:30.358175  4676 net.cpp:141] Setting up embedding
I0925 23:29:30.358237  4676 net.cpp:148] Top shape: 1 1 500 (500)
I0925 23:29:30.358247  4676 net.cpp:156] Memory required for data: 22408
I0925 23:29:30.358278  4676 layer_factory.hpp:77] Creating layer lstm1
I0925 23:29:30.358309  4676 net.cpp:91] Creating Layer lstm1
I0925 23:29:30.358321  4676 net.cpp:425] lstm1 <- embedded_input_frames
I0925 23:29:30.358336  4676 net.cpp:425] lstm1 <- cont_sentence_input_1_split_0
I0925 23:29:30.358366  4676 net.cpp:399] lstm1 -> lstm1
I0925 23:29:30.358395  4676 recurrent_layer.cpp:20] Initializing recurrent layer: assuming input batch contains 1 timesteps of 1 independent streams.
I0925 23:29:30.358924  4676 net.cpp:49] Initializing net from parameters: 
layer {
  name: "lstm1_"
  type: "Input"
  top: "x"
  top: "cont"
  input_param {
    shape {
      dim: 1
      dim: 1
      dim: 500
    }
    shape {
      dim: 1
      dim: 1
    }
  }
}
layer {
  name: "lstm1_"
  type: "Input"
  top: "c_0"
  top: "h_0"
  input_param {
    shape {
      dim: 1
      dim: 1
      dim: 1000
    }
    shape {
      dim: 1
      dim: 1
      dim: 1000
    }
  }
}
layer {
  name: "lstm1_cont_slice"
  type: "Slice"
  bottom: "cont"
  top: "cont_1"
  slice_param {
    axis: 0
  }
}
layer {
  name: "lstm1_x_transform"
  type: "InnerProduct"
  bottom: "x"
  top: "W_xc_x"
  param {
    name: "W_xc"
  }
  param {
    name: "b_c"
  }
  propagate_down: true
  inner_product_param {
    num_output: 4000
    bias_term: true
    weight_filler {
      type: "uniform"
      min: -0.08
      max: 0.08
    }
    bias_filler {
      type: "constant"
      value: 0
    }
    axis: 2
  }
}
layer {
  name: "lstm1_W_xc_x_slice"
  type: "Slice"
  bottom: "W_xc_x"
  top: "W_xc_x_1"
  slice_param {
    axis: 0
  }
}
layer {
  name: "lstm1_h_conted_0"
  type: "Scale"
  bottom: "h_0"
  bottom: "cont_1"
  top: "h_conted_0"
  scale_param {
    axis: 0
  }
}
layer {
  name: "lstm1_transform_1"
  type: "InnerProduct"
  bottom: "h_conted_0"
  top: "W_hc_h_0"
  param {
    name: "W_hc"
  }
  inner_product_param {
    num_output: 4000
    bias_term: false
    weight_filler {
      type: "uniform"
      min: -0.08
      max: 0.08
    }
    axis: 2
  }
}
layer {
  name: "lstm1_gate_input_1"
  type: "Eltwise"
  bottom: "W_hc_h_0"
  bottom: "W_xc_x_1"
  top: "gate_input_1"
  eltwise_param {
    operation: SUM
  }
}
layer {
  name: "lstm1_unit_1"
  type: "LSTMUnit"
  bottom: "c_0"
  bottom: "gate_input_1"
  bottom: "cont_1"
  top: "c_1"
  top: "h_1"
}
layer {
  name: "lstm1_"
  type: "Split"
  bottom: "c_1"
  top: "c_T"
}
layer {
  name: "lstm1_h_concat"
  type: "Concat"
  bottom: "h_1"
  top: "h"
  concat_param {
    axis: 0
  }
}
layer {
  name: "h_pseudoloss"
  type: "Reduction"
  bottom: "h"
  top: "h_pseudoloss"
  loss_weight: 1
}
I0925 23:29:30.359149  4676 layer_factory.hpp:77] Creating layer lstm1_
I0925 23:29:30.359174  4676 net.cpp:91] Creating Layer lstm1_
I0925 23:29:30.359187  4676 net.cpp:399] lstm1_ -> x
I0925 23:29:30.359211  4676 net.cpp:399] lstm1_ -> cont
I0925 23:29:30.363575  4696 net.cpp:141] Setting up lstm1_
I0925 23:29:30.363621  4696 net.cpp:148] Top shape: 1 1 500 (500)
I0925 23:29:30.363633  4696 net.cpp:148] Top shape: 1 1 (1)
I0925 23:29:30.363641  4696 net.cpp:156] Memory required for data: 2004
I0925 23:29:30.363653  4696 layer_factory.hpp:77] Creating layer lstm1_
I0925 23:29:30.363718  4696 net.cpp:91] Creating Layer lstm1_
I0925 23:29:30.363732  4696 net.cpp:399] lstm1_ -> c_0
I0925 23:29:30.363757  4696 net.cpp:399] lstm1_ -> h_0
I0925 23:29:30.363807  4652 net.cpp:141] Setting up lstm1_
I0925 23:29:30.363831  4652 net.cpp:148] Top shape: 1 1 500 (500)
I0925 23:29:30.363842  4652 net.cpp:148] Top shape: 1 1 (1)
I0925 23:29:30.363849  4652 net.cpp:156] Memory required for data: 2004
I0925 23:29:30.363858  4652 layer_factory.hpp:77] Creating layer lstm1_
I0925 23:29:30.363883  4652 net.cpp:91] Creating Layer lstm1_
I0925 23:29:30.363894  4652 net.cpp:399] lstm1_ -> c_0
I0925 23:29:30.363919  4652 net.cpp:399] lstm1_ -> h_0
I0925 23:29:30.363914  4704 net.cpp:141] Setting up lstm1_
I0925 23:29:30.363960  4704 net.cpp:148] Top shape: 1 1 1000 (1000)
I0925 23:29:30.363972  4704 net.cpp:148] Top shape: 1 1 1000 (1000)
I0925 23:29:30.363981  4704 net.cpp:156] Memory required for data: 10004
I0925 23:29:30.363991  4704 layer_factory.hpp:77] Creating layer lstm1_cont_slice
I0925 23:29:30.364009  4676 net.cpp:141] Setting up lstm1_
I0925 23:29:30.364019  4704 net.cpp:91] Creating Layer lstm1_cont_slice
I0925 23:29:30.364053  4704 net.cpp:425] lstm1_cont_slice <- cont
I0925 23:29:30.364056  4676 net.cpp:148] Top shape: 1 1 500 (500)
I0925 23:29:30.364073  4704 net.cpp:399] lstm1_cont_slice -> cont_1
I0925 23:29:30.364081  4676 net.cpp:148] Top shape: 1 1 (1)
I0925 23:29:30.364097  4696 net.cpp:141] Setting up lstm1_
I0925 23:29:30.364099  4676 net.cpp:156] Memory required for data: 2004
I0925 23:29:30.364125  4696 net.cpp:148] Top shape: 1 1 1000 (1000)
I0925 23:29:30.364136  4696 net.cpp:148] Top shape: 1 1 1000 (1000)
I0925 23:29:30.364135  4676 layer_factory.hpp:77] Creating layer lstm1_
I0925 23:29:30.364143  4696 net.cpp:156] Memory required for data: 10004
I0925 23:29:30.364151  4696 layer_factory.hpp:77] Creating layer lstm1_cont_slice
I0925 23:29:30.364158  4652 net.cpp:141] Setting up lstm1_
I0925 23:29:30.364163  4676 net.cpp:91] Creating Layer lstm1_
I0925 23:29:30.364174  4652 net.cpp:148] Top shape: 1 1 1000 (1000)
I0925 23:29:30.364186  4652 net.cpp:148] Top shape: 1 1 1000 (1000)
I0925 23:29:30.364166  4696 net.cpp:91] Creating Layer lstm1_cont_slice
I0925 23:29:30.364202  4652 net.cpp:156] Memory required for data: 10004
I0925 23:29:30.364210  4696 net.cpp:425] lstm1_cont_slice <- cont
I0925 23:29:30.364220  4704 net.cpp:141] Setting up lstm1_cont_slice
I0925 23:29:30.364212  4652 layer_factory.hpp:77] Creating layer lstm1_cont_slice
I0925 23:29:30.364226  4676 net.cpp:399] lstm1_ -> c_0
I0925 23:29:30.364239  4704 net.cpp:148] Top shape: 1 1 (1)
I0925 23:29:30.364249  4704 net.cpp:156] Memory required for data: 10008
I0925 23:29:30.364253  4696 net.cpp:399] lstm1_cont_slice -> cont_1
I0925 23:29:30.364249  4652 net.cpp:91] Creating Layer lstm1_cont_slice
I0925 23:29:30.364271  4704 layer_factory.hpp:77] Creating layer cont_1_lstm1_cont_slice_0_split
I0925 23:29:30.364266  4676 net.cpp:399] lstm1_ -> h_0
I0925 23:29:30.364289  4704 net.cpp:91] Creating Layer cont_1_lstm1_cont_slice_0_split
I0925 23:29:30.364289  4652 net.cpp:425] lstm1_cont_slice <- cont
I0925 23:29:30.364306  4704 net.cpp:425] cont_1_lstm1_cont_slice_0_split <- cont_1
I0925 23:29:30.364320  4652 net.cpp:399] lstm1_cont_slice -> cont_1
I0925 23:29:30.364320  4704 net.cpp:399] cont_1_lstm1_cont_slice_0_split -> cont_1_lstm1_cont_slice_0_split_0
I0925 23:29:30.364351  4704 net.cpp:399] cont_1_lstm1_cont_slice_0_split -> cont_1_lstm1_cont_slice_0_split_1
I0925 23:29:30.367276  4652 net.cpp:141] Setting up lstm1_cont_slice
I0925 23:29:30.367301  4652 net.cpp:148] Top shape: 1 1 (1)
I0925 23:29:30.367310  4652 net.cpp:156] Memory required for data: 10008
I0925 23:29:30.367318  4652 layer_factory.hpp:77] Creating layer cont_1_lstm1_cont_slice_0_split
I0925 23:29:30.367332  4652 net.cpp:91] Creating Layer cont_1_lstm1_cont_slice_0_split
I0925 23:29:30.367341  4652 net.cpp:425] cont_1_lstm1_cont_slice_0_split <- cont_1
I0925 23:29:30.367355  4652 net.cpp:399] cont_1_lstm1_cont_slice_0_split -> cont_1_lstm1_cont_slice_0_split_0
I0925 23:29:30.367370  4652 net.cpp:399] cont_1_lstm1_cont_slice_0_split -> cont_1_lstm1_cont_slice_0_split_1
I0925 23:29:30.367398  4696 net.cpp:141] Setting up lstm1_cont_slice
I0925 23:29:30.367413  4696 net.cpp:148] Top shape: 1 1 (1)
I0925 23:29:30.367421  4696 net.cpp:156] Memory required for data: 10008
I0925 23:29:30.367429  4696 layer_factory.hpp:77] Creating layer cont_1_lstm1_cont_slice_0_split
I0925 23:29:30.367444  4652 net.cpp:141] Setting up cont_1_lstm1_cont_slice_0_split
I0925 23:29:30.367460  4696 net.cpp:91] Creating Layer cont_1_lstm1_cont_slice_0_split
I0925 23:29:30.367460  4652 net.cpp:148] Top shape: 1 1 (1)
I0925 23:29:30.367475  4696 net.cpp:425] cont_1_lstm1_cont_slice_0_split <- cont_1
I0925 23:29:30.367481  4652 net.cpp:148] Top shape: 1 1 (1)
I0925 23:29:30.367488  4696 net.cpp:399] cont_1_lstm1_cont_slice_0_split -> cont_1_lstm1_cont_slice_0_split_0
I0925 23:29:30.367489  4652 net.cpp:156] Memory required for data: 10016
I0925 23:29:30.367507  4652 layer_factory.hpp:77] Creating layer lstm1_x_transform
I0925 23:29:30.367507  4696 net.cpp:399] cont_1_lstm1_cont_slice_0_split -> cont_1_lstm1_cont_slice_0_split_1
I0925 23:29:30.367539  4652 net.cpp:91] Creating Layer lstm1_x_transform
I0925 23:29:30.367549  4652 net.cpp:425] lstm1_x_transform <- x
I0925 23:29:30.367565  4652 net.cpp:399] lstm1_x_transform -> W_xc_x
I0925 23:29:30.367610  4696 net.cpp:141] Setting up cont_1_lstm1_cont_slice_0_split
I0925 23:29:30.367624  4696 net.cpp:148] Top shape: 1 1 (1)
I0925 23:29:30.367633  4696 net.cpp:148] Top shape: 1 1 (1)
I0925 23:29:30.367640  4696 net.cpp:156] Memory required for data: 10016
I0925 23:29:30.367648  4696 layer_factory.hpp:77] Creating layer lstm1_x_transform
I0925 23:29:30.367678  4696 net.cpp:91] Creating Layer lstm1_x_transform
I0925 23:29:30.367687  4696 net.cpp:425] lstm1_x_transform <- x
I0925 23:29:30.367700  4696 net.cpp:399] lstm1_x_transform -> W_xc_x
I0925 23:29:30.373019  4676 net.cpp:141] Setting up lstm1_
I0925 23:29:30.373070  4676 net.cpp:148] Top shape: 1 1 1000 (1000)
I0925 23:29:30.373081  4676 net.cpp:148] Top shape: 1 1 1000 (1000)
I0925 23:29:30.373090  4676 net.cpp:156] Memory required for data: 10004
I0925 23:29:30.373101  4676 layer_factory.hpp:77] Creating layer lstm1_cont_slice
I0925 23:29:30.373117  4704 net.cpp:141] Setting up cont_1_lstm1_cont_slice_0_split
I0925 23:29:30.373158  4676 net.cpp:91] Creating Layer lstm1_cont_slice
I0925 23:29:30.373164  4704 net.cpp:148] Top shape: 1 1 (1)
I0925 23:29:30.373170  4676 net.cpp:425] lstm1_cont_slice <- cont
I0925 23:29:30.373178  4704 net.cpp:148] Top shape: 1 1 (1)
I0925 23:29:30.373188  4704 net.cpp:156] Memory required for data: 10016
I0925 23:29:30.373190  4676 net.cpp:399] lstm1_cont_slice -> cont_1
I0925 23:29:30.373200  4704 layer_factory.hpp:77] Creating layer lstm1_x_transform
I0925 23:29:30.373239  4704 net.cpp:91] Creating Layer lstm1_x_transform
I0925 23:29:30.373251  4704 net.cpp:425] lstm1_x_transform <- x
I0925 23:29:30.373271  4704 net.cpp:399] lstm1_x_transform -> W_xc_x
I0925 23:29:30.378722  4676 net.cpp:141] Setting up lstm1_cont_slice
I0925 23:29:30.378773  4676 net.cpp:148] Top shape: 1 1 (1)
I0925 23:29:30.378782  4676 net.cpp:156] Memory required for data: 10008
I0925 23:29:30.378794  4676 layer_factory.hpp:77] Creating layer cont_1_lstm1_cont_slice_0_split
I0925 23:29:30.378816  4676 net.cpp:91] Creating Layer cont_1_lstm1_cont_slice_0_split
I0925 23:29:30.378826  4676 net.cpp:425] cont_1_lstm1_cont_slice_0_split <- cont_1
I0925 23:29:30.378886  4676 net.cpp:399] cont_1_lstm1_cont_slice_0_split -> cont_1_lstm1_cont_slice_0_split_0
I0925 23:29:30.378907  4676 net.cpp:399] cont_1_lstm1_cont_slice_0_split -> cont_1_lstm1_cont_slice_0_split_1
I0925 23:29:30.383980  4676 net.cpp:141] Setting up cont_1_lstm1_cont_slice_0_split
I0925 23:29:30.384027  4676 net.cpp:148] Top shape: 1 1 (1)
I0925 23:29:30.384039  4676 net.cpp:148] Top shape: 1 1 (1)
I0925 23:29:30.384047  4676 net.cpp:156] Memory required for data: 10016
I0925 23:29:30.384057  4676 layer_factory.hpp:77] Creating layer lstm1_x_transform
I0925 23:29:30.384124  4676 net.cpp:91] Creating Layer lstm1_x_transform
I0925 23:29:30.384137  4676 net.cpp:425] lstm1_x_transform <- x
I0925 23:29:30.384157  4676 net.cpp:399] lstm1_x_transform -> W_xc_x
I0925 23:29:30.413357  4656 net.cpp:141] Setting up embedding
I0925 23:29:30.413408  4656 net.cpp:148] Top shape: 1 1 500 (500)
I0925 23:29:30.413425  4656 net.cpp:156] Memory required for data: 22408
I0925 23:29:30.413451  4656 layer_factory.hpp:77] Creating layer lstm1
I0925 23:29:30.413476  4656 net.cpp:91] Creating Layer lstm1
I0925 23:29:30.413488  4656 net.cpp:425] lstm1 <- embedded_input_frames
I0925 23:29:30.413501  4656 net.cpp:425] lstm1 <- cont_sentence_input_1_split_0
I0925 23:29:30.413518  4656 net.cpp:399] lstm1 -> lstm1
I0925 23:29:30.413540  4656 recurrent_layer.cpp:20] Initializing recurrent layer: assuming input batch contains 1 timesteps of 1 independent streams.
I0925 23:29:30.413759  4660 net.cpp:141] Setting up lstm1_x_transform
I0925 23:29:30.413780  4660 net.cpp:148] Top shape: 1 1 4000 (4000)
I0925 23:29:30.413789  4660 net.cpp:156] Memory required for data: 26016
I0925 23:29:30.413808  4660 layer_factory.hpp:77] Creating layer lstm1_W_xc_x_slice
I0925 23:29:30.413822  4660 net.cpp:91] Creating Layer lstm1_W_xc_x_slice
I0925 23:29:30.413830  4660 net.cpp:425] lstm1_W_xc_x_slice <- W_xc_x
I0925 23:29:30.413842  4660 net.cpp:399] lstm1_W_xc_x_slice -> W_xc_x_1
I0925 23:29:30.413977  4656 net.cpp:49] Initializing net from parameters: 
layer {
  name: "lstm1_"
  type: "Input"
  top: "x"
  top: "cont"
  input_param {
    shape {
      dim: 1
      dim: 1
      dim: 500
    }
    shape {
      dim: 1
      dim: 1
    }
  }
}
layer {
  name: "lstm1_"
  type: "Input"
  top: "c_0"
  top: "h_0"
  input_param {
    shape {
      dim: 1
      dim: 1
      dim: 1000
    }
    shape {
      dim: 1
      dim: 1
      dim: 1000
    }
  }
}
layer {
  name: "lstm1_cont_slice"
  type: "Slice"
  bottom: "cont"
  top: "cont_1"
  slice_param {
    axis: 0
  }
}
layer {
  name: "lstm1_x_transform"
  type: "InnerProduct"
  bottom: "x"
  top: "W_xc_x"
  param {
    name: "W_xc"
  }
  param {
    name: "b_c"
  }
  propagate_down: true
  inner_product_param {
    num_output: 4000
    bias_term: true
    weight_filler {
      type: "uniform"
      min: -0.08
      max: 0.08
    }
    bias_filler {
      type: "constant"
      value: 0
    }
    axis: 2
  }
}
layer {
  name: "lstm1_W_xc_x_slice"
  type: "Slice"
  bottom: "W_xc_x"
  top: "W_xc_x_1"
  slice_param {
    axis: 0
  }
}
layer {
  name: "lstm1_h_conted_0"
  type: "Scale"
  bottom: "h_0"
  bottom: "cont_1"
  top: "h_conted_0"
  scale_param {
    axis: 0
  }
}
layer {
  name: "lstm1_transform_1"
  type: "InnerProduct"
  bottom: "h_conted_0"
  top: "W_hc_h_0"
  param {
    name: "W_hc"
  }
  inner_product_param {
    num_output: 4000
    bias_term: false
    weight_filler {
      type: "uniform"
      min: -0.08
      max: 0.08
    }
    axis: 2
  }
}
layer {
  name: "lstm1_gate_input_1"
  type: "Eltwise"
  bottom: "W_hc_h_0"
  bottom: "W_xc_x_1"
  top: "gate_input_1"
  eltwise_param {
    operation: SUM
  }
}
layer {
  name: "lstm1_unit_1"
  type: "LSTMUnit"
  bottom: "c_0"
  bottom: "gate_input_1"
  bottom: "cont_1"
  top: "c_1"
  top: "h_1"
}
layer {
  name: "lstm1_"
  type: "Split"
  bottom: "c_1"
  top: "c_T"
}
layer {
  name: "lstm1_h_concat"
  type: "Concat"
  bottom: "h_1"
  top: "h"
  concat_param {
    axis: 0
  }
}
layer {
  name: "h_pseudoloss"
  type: "Reduction"
  bottom: "h"
  top: "h_pseudoloss"
  loss_weight: 1
}
I0925 23:29:30.414094  4660 net.cpp:141] Setting up lstm1_W_xc_x_slice
I0925 23:29:30.414113  4660 net.cpp:148] Top shape: 1 1 4000 (4000)
I0925 23:29:30.414119  4660 net.cpp:156] Memory required for data: 42016
I0925 23:29:30.414122  4656 layer_factory.hpp:77] Creating layer lstm1_
I0925 23:29:30.414126  4660 layer_factory.hpp:77] Creating layer lstm1_h_conted_0
I0925 23:29:30.414156  4656 net.cpp:91] Creating Layer lstm1_
I0925 23:29:30.414168  4656 net.cpp:399] lstm1_ -> x
I0925 23:29:30.414172  4660 net.cpp:91] Creating Layer lstm1_h_conted_0
I0925 23:29:30.414181  4660 net.cpp:425] lstm1_h_conted_0 <- h_0
I0925 23:29:30.414186  4656 net.cpp:399] lstm1_ -> cont
I0925 23:29:30.414191  4660 net.cpp:425] lstm1_h_conted_0 <- cont_1_lstm1_cont_slice_0_split_0
I0925 23:29:30.414202  4660 net.cpp:399] lstm1_h_conted_0 -> h_conted_0
I0925 23:29:30.414300  4656 net.cpp:141] Setting up lstm1_
I0925 23:29:30.414316  4656 net.cpp:148] Top shape: 1 1 500 (500)
I0925 23:29:30.414326  4656 net.cpp:148] Top shape: 1 1 (1)
I0925 23:29:30.414333  4656 net.cpp:156] Memory required for data: 2004
I0925 23:29:30.414341  4656 layer_factory.hpp:77] Creating layer lstm1_
I0925 23:29:30.414358  4656 net.cpp:91] Creating Layer lstm1_
I0925 23:29:30.414371  4656 net.cpp:399] lstm1_ -> c_0
I0925 23:29:30.414386  4682 net.cpp:141] Setting up lstm1_x_transform
I0925 23:29:30.414391  4656 net.cpp:399] lstm1_ -> h_0
I0925 23:29:30.414417  4682 net.cpp:148] Top shape: 1 1 4000 (4000)
I0925 23:29:30.414424  4682 net.cpp:156] Memory required for data: 26016
I0925 23:29:30.414438  4682 layer_factory.hpp:77] Creating layer lstm1_W_xc_x_slice
I0925 23:29:30.414448  4682 net.cpp:91] Creating Layer lstm1_W_xc_x_slice
I0925 23:29:30.414454  4682 net.cpp:425] lstm1_W_xc_x_slice <- W_xc_x
I0925 23:29:30.414463  4682 net.cpp:399] lstm1_W_xc_x_slice -> W_xc_x_1
I0925 23:29:30.414504  4656 net.cpp:141] Setting up lstm1_
I0925 23:29:30.414520  4656 net.cpp:148] Top shape: 1 1 1000 (1000)
I0925 23:29:30.414530  4656 net.cpp:148] Top shape: 1 1 1000 (1000)
I0925 23:29:30.414536  4656 net.cpp:156] Memory required for data: 10004
I0925 23:29:30.414543  4656 layer_factory.hpp:77] Creating layer lstm1_cont_slice
I0925 23:29:30.414559  4656 net.cpp:91] Creating Layer lstm1_cont_slice
I0925 23:29:30.414568  4656 net.cpp:425] lstm1_cont_slice <- cont
I0925 23:29:30.414579  4656 net.cpp:399] lstm1_cont_slice -> cont_1
I0925 23:29:30.414661  4656 net.cpp:141] Setting up lstm1_cont_slice
I0925 23:29:30.414679  4656 net.cpp:148] Top shape: 1 1 (1)
I0925 23:29:30.414686  4656 net.cpp:156] Memory required for data: 10008
I0925 23:29:30.414693  4656 layer_factory.hpp:77] Creating layer cont_1_lstm1_cont_slice_0_split
I0925 23:29:30.414705  4656 net.cpp:91] Creating Layer cont_1_lstm1_cont_slice_0_split
I0925 23:29:30.414712  4656 net.cpp:425] cont_1_lstm1_cont_slice_0_split <- cont_1
I0925 23:29:30.414718  4682 net.cpp:141] Setting up lstm1_W_xc_x_slice
I0925 23:29:30.414726  4656 net.cpp:399] cont_1_lstm1_cont_slice_0_split -> cont_1_lstm1_cont_slice_0_split_0
I0925 23:29:30.414732  4682 net.cpp:148] Top shape: 1 1 4000 (4000)
I0925 23:29:30.414737  4682 net.cpp:156] Memory required for data: 42016
I0925 23:29:30.414741  4656 net.cpp:399] cont_1_lstm1_cont_slice_0_split -> cont_1_lstm1_cont_slice_0_split_1
I0925 23:29:30.414742  4682 layer_factory.hpp:77] Creating layer lstm1_h_conted_0
I0925 23:29:30.414763  4682 net.cpp:91] Creating Layer lstm1_h_conted_0
I0925 23:29:30.414769  4682 net.cpp:425] lstm1_h_conted_0 <- h_0
I0925 23:29:30.414777  4682 net.cpp:425] lstm1_h_conted_0 <- cont_1_lstm1_cont_slice_0_split_0
I0925 23:29:30.414784  4682 net.cpp:399] lstm1_h_conted_0 -> h_conted_0
I0925 23:29:30.414980  4656 net.cpp:141] Setting up cont_1_lstm1_cont_slice_0_split
I0925 23:29:30.414995  4656 net.cpp:148] Top shape: 1 1 (1)
I0925 23:29:30.415010  4656 net.cpp:148] Top shape: 1 1 (1)
I0925 23:29:30.415017  4656 net.cpp:156] Memory required for data: 10016
I0925 23:29:30.415024  4656 layer_factory.hpp:77] Creating layer lstm1_x_transform
I0925 23:29:30.415040  4656 net.cpp:91] Creating Layer lstm1_x_transform
I0925 23:29:30.415047  4656 net.cpp:425] lstm1_x_transform <- x
I0925 23:29:30.415062  4656 net.cpp:399] lstm1_x_transform -> W_xc_x
I0925 23:29:30.415176  4682 net.cpp:141] Setting up lstm1_h_conted_0
I0925 23:29:30.415189  4682 net.cpp:148] Top shape: 1 1 1000 (1000)
I0925 23:29:30.415194  4682 net.cpp:156] Memory required for data: 46016
I0925 23:29:30.415199  4682 layer_factory.hpp:77] Creating layer lstm1_transform_1
I0925 23:29:30.415210  4682 net.cpp:91] Creating Layer lstm1_transform_1
I0925 23:29:30.415215  4682 net.cpp:425] lstm1_transform_1 <- h_conted_0
I0925 23:29:30.415225  4682 net.cpp:399] lstm1_transform_1 -> W_hc_h_0
I0925 23:29:30.422894  4660 net.cpp:141] Setting up lstm1_h_conted_0
I0925 23:29:30.422894  4676 net.cpp:141] Setting up lstm1_x_transform
I0925 23:29:30.422963  4660 net.cpp:148] Top shape: 1 1 1000 (1000)
I0925 23:29:30.422973  4660 net.cpp:156] Memory required for data: 46016
I0925 23:29:30.422984  4660 layer_factory.hpp:77] Creating layer lstm1_transform_1
I0925 23:29:30.422981  4676 net.cpp:148] Top shape: 1 1 4000 (4000)
I0925 23:29:30.423001  4676 net.cpp:156] Memory required for data: 26016
I0925 23:29:30.423008  4660 net.cpp:91] Creating Layer lstm1_transform_1
I0925 23:29:30.423019  4660 net.cpp:425] lstm1_transform_1 <- h_conted_0
I0925 23:29:30.423033  4660 net.cpp:399] lstm1_transform_1 -> W_hc_h_0
I0925 23:29:30.423066  4676 layer_factory.hpp:77] Creating layer lstm1_W_xc_x_slice
I0925 23:29:30.423097  4676 net.cpp:91] Creating Layer lstm1_W_xc_x_slice
I0925 23:29:30.423115  4676 net.cpp:425] lstm1_W_xc_x_slice <- W_xc_x
I0925 23:29:30.423140  4676 net.cpp:399] lstm1_W_xc_x_slice -> W_xc_x_1
I0925 23:29:30.423429  4652 net.cpp:141] Setting up lstm1_x_transform
I0925 23:29:30.423452  4652 net.cpp:148] Top shape: 1 1 4000 (4000)
I0925 23:29:30.423461  4652 net.cpp:156] Memory required for data: 26016
I0925 23:29:30.423480  4652 layer_factory.hpp:77] Creating layer lstm1_W_xc_x_slice
I0925 23:29:30.423496  4652 net.cpp:91] Creating Layer lstm1_W_xc_x_slice
I0925 23:29:30.423506  4652 net.cpp:425] lstm1_W_xc_x_slice <- W_xc_x
I0925 23:29:30.423519  4652 net.cpp:399] lstm1_W_xc_x_slice -> W_xc_x_1
I0925 23:29:30.429354  4676 net.cpp:141] Setting up lstm1_W_xc_x_slice
I0925 23:29:30.429399  4676 net.cpp:148] Top shape: 1 1 4000 (4000)
I0925 23:29:30.429407  4676 net.cpp:156] Memory required for data: 42016
I0925 23:29:30.429419  4676 layer_factory.hpp:77] Creating layer lstm1_h_conted_0
I0925 23:29:30.429435  4652 net.cpp:141] Setting up lstm1_W_xc_x_slice
I0925 23:29:30.429461  4652 net.cpp:148] Top shape: 1 1 4000 (4000)
I0925 23:29:30.429468  4676 net.cpp:91] Creating Layer lstm1_h_conted_0
I0925 23:29:30.429472  4652 net.cpp:156] Memory required for data: 42016
I0925 23:29:30.429481  4676 net.cpp:425] lstm1_h_conted_0 <- h_0
I0925 23:29:30.429482  4652 layer_factory.hpp:77] Creating layer lstm1_h_conted_0
I0925 23:29:30.429498  4652 net.cpp:91] Creating Layer lstm1_h_conted_0
I0925 23:29:30.429510  4652 net.cpp:425] lstm1_h_conted_0 <- h_0
I0925 23:29:30.429492  4676 net.cpp:425] lstm1_h_conted_0 <- cont_1_lstm1_cont_slice_0_split_0
I0925 23:29:30.429522  4652 net.cpp:425] lstm1_h_conted_0 <- cont_1_lstm1_cont_slice_0_split_0
I0925 23:29:30.429533  4676 net.cpp:399] lstm1_h_conted_0 -> h_conted_0
I0925 23:29:30.429536  4652 net.cpp:399] lstm1_h_conted_0 -> h_conted_0
I0925 23:29:30.446589  4704 net.cpp:141] Setting up lstm1_x_transform
I0925 23:29:30.446665  4704 net.cpp:148] Top shape: 1 1 4000 (4000)
I0925 23:29:30.446676  4704 net.cpp:156] Memory required for data: 26016
I0925 23:29:30.446686  4670 net.cpp:141] Setting up embedding
I0925 23:29:30.446707  4670 net.cpp:148] Top shape: 1 1 500 (500)
I0925 23:29:30.446710  4704 layer_factory.hpp:77] Creating layer lstm1_W_xc_x_slice
I0925 23:29:30.446714  4670 net.cpp:156] Memory required for data: 22408
I0925 23:29:30.446737  4670 layer_factory.hpp:77] Creating layer lstm1
I0925 23:29:30.446738  4704 net.cpp:91] Creating Layer lstm1_W_xc_x_slice
I0925 23:29:30.446750  4704 net.cpp:425] lstm1_W_xc_x_slice <- W_xc_x
I0925 23:29:30.446759  4670 net.cpp:91] Creating Layer lstm1
I0925 23:29:30.446766  4704 net.cpp:399] lstm1_W_xc_x_slice -> W_xc_x_1
I0925 23:29:30.446771  4670 net.cpp:425] lstm1 <- embedded_input_frames
I0925 23:29:30.446781  4670 net.cpp:425] lstm1 <- cont_sentence_input_1_split_0
I0925 23:29:30.446794  4670 net.cpp:399] lstm1 -> lstm1
I0925 23:29:30.446815  4670 recurrent_layer.cpp:20] Initializing recurrent layer: assuming input batch contains 1 timesteps of 1 independent streams.
I0925 23:29:30.446933  4696 net.cpp:141] Setting up lstm1_x_transform
I0925 23:29:30.446975  4696 net.cpp:148] Top shape: 1 1 4000 (4000)
I0925 23:29:30.446985  4696 net.cpp:156] Memory required for data: 26016
I0925 23:29:30.447013  4696 layer_factory.hpp:77] Creating layer lstm1_W_xc_x_slice
I0925 23:29:30.447034  4696 net.cpp:91] Creating Layer lstm1_W_xc_x_slice
I0925 23:29:30.447044  4696 net.cpp:425] lstm1_W_xc_x_slice <- W_xc_x
I0925 23:29:30.447059  4696 net.cpp:399] lstm1_W_xc_x_slice -> W_xc_x_1
I0925 23:29:30.447055  4652 net.cpp:141] Setting up lstm1_h_conted_0
I0925 23:29:30.447093  4652 net.cpp:148] Top shape: 1 1 1000 (1000)
I0925 23:29:30.447103  4652 net.cpp:156] Memory required for data: 46016
I0925 23:29:30.447111  4652 layer_factory.hpp:77] Creating layer lstm1_transform_1
I0925 23:29:30.447131  4652 net.cpp:91] Creating Layer lstm1_transform_1
I0925 23:29:30.447142  4652 net.cpp:425] lstm1_transform_1 <- h_conted_0
I0925 23:29:30.447159  4652 net.cpp:399] lstm1_transform_1 -> W_hc_h_0
I0925 23:29:30.447769  4676 net.cpp:141] Setting up lstm1_h_conted_0
I0925 23:29:30.447793  4676 net.cpp:148] Top shape: 1 1 1000 (1000)
I0925 23:29:30.447800  4676 net.cpp:156] Memory required for data: 46016
I0925 23:29:30.447809  4676 layer_factory.hpp:77] Creating layer lstm1_transform_1
I0925 23:29:30.447825  4676 net.cpp:91] Creating Layer lstm1_transform_1
I0925 23:29:30.447836  4676 net.cpp:425] lstm1_transform_1 <- h_conted_0
I0925 23:29:30.447851  4676 net.cpp:399] lstm1_transform_1 -> W_hc_h_0
I0925 23:29:30.447896  4696 net.cpp:141] Setting up lstm1_W_xc_x_slice
I0925 23:29:30.447914  4696 net.cpp:148] Top shape: 1 1 4000 (4000)
I0925 23:29:30.447923  4696 net.cpp:156] Memory required for data: 42016
I0925 23:29:30.447932  4696 layer_factory.hpp:77] Creating layer lstm1_h_conted_0
I0925 23:29:30.447947  4696 net.cpp:91] Creating Layer lstm1_h_conted_0
I0925 23:29:30.447955  4696 net.cpp:425] lstm1_h_conted_0 <- h_0
I0925 23:29:30.447965  4696 net.cpp:425] lstm1_h_conted_0 <- cont_1_lstm1_cont_slice_0_split_0
I0925 23:29:30.447978  4696 net.cpp:399] lstm1_h_conted_0 -> h_conted_0
I0925 23:29:30.458973  4670 net.cpp:49] Initializing net from parameters: 
layer {
  name: "lstm1_"
  type: "Input"
  top: "x"
  top: "cont"
  input_param {
    shape {
      dim: 1
      dim: 1
      dim: 500
    }
    shape {
      dim: 1
      dim: 1
    }
  }
}
layer {
  name: "lstm1_"
  type: "Input"
  top: "c_0"
  top: "h_0"
  input_param {
    shape {
      dim: 1
      dim: 1
      dim: 1000
    }
    shape {
      dim: 1
      dim: 1
      dim: 1000
    }
  }
}
layer {
  name: "lstm1_cont_slice"
  type: "Slice"
  bottom: "cont"
  top: "cont_1"
  slice_param {
    axis: 0
  }
}
layer {
  name: "lstm1_x_transform"
  type: "InnerProduct"
  bottom: "x"
  top: "W_xc_x"
  param {
    name: "W_xc"
  }
  param {
    name: "b_c"
  }
  propagate_down: true
  inner_product_param {
    num_output: 4000
    bias_term: true
    weight_filler {
      type: "uniform"
      min: -0.08
      max: 0.08
    }
    bias_filler {
      type: "constant"
      value: 0
    }
    axis: 2
  }
}
layer {
  name: "lstm1_W_xc_x_slice"
  type: "Slice"
  bottom: "W_xc_x"
  top: "W_xc_x_1"
  slice_param {
    axis: 0
  }
}
layer {
  name: "lstm1_h_conted_0"
  type: "Scale"
  bottom: "h_0"
  bottom: "cont_1"
  top: "h_conted_0"
  scale_param {
    axis: 0
  }
}
layer {
  name: "lstm1_transform_1"
  type: "InnerProduct"
  bottom: "h_conted_0"
  top: "W_hc_h_0"
  param {
    name: "W_hc"
  }
  inner_product_param {
    num_output: 4000
    bias_term: false
    weight_filler {
      type: "uniform"
      min: -0.08
      max: 0.08
    }
    axis: 2
  }
}
layer {
  name: "lstm1_gate_input_1"
  type: "Eltwise"
  bottom: "W_hc_h_0"
  bottom: "W_xc_x_1"
  top: "gate_input_1"
  eltwise_param {
    operation: SUM
  }
}
layer {
  name: "lstm1_unit_1"
  type: "LSTMUnit"
  bottom: "c_0"
  bottom: "gate_input_1"
  bottom: "cont_1"
  top: "c_1"
  top: "h_1"
}
layer {
  name: "lstm1_"
  type: "Split"
  bottom: "c_1"
  top: "c_T"
}
layer {
  name: "lstm1_h_concat"
  type: "Concat"
  bottom: "h_1"
  top: "h"
  concat_param {
    axis: 0
  }
}
layer {
  name: "h_pseudoloss"
  type: "Reduction"
  bottom: "h"
  top: "h_pseudoloss"
  loss_weight: 1
}
I0925 23:29:30.463210  4670 layer_factory.hpp:77] Creating layer lstm1_
I0925 23:29:30.463248  4670 net.cpp:91] Creating Layer lstm1_
I0925 23:29:30.463260  4670 net.cpp:399] lstm1_ -> x
I0925 23:29:30.463285  4670 net.cpp:399] lstm1_ -> cont
I0925 23:29:30.469228  4704 net.cpp:141] Setting up lstm1_W_xc_x_slice
I0925 23:29:30.469292  4704 net.cpp:148] Top shape: 1 1 4000 (4000)
I0925 23:29:30.469305  4704 net.cpp:156] Memory required for data: 42016
I0925 23:29:30.469321  4704 layer_factory.hpp:77] Creating layer lstm1_h_conted_0
I0925 23:29:30.469350  4704 net.cpp:91] Creating Layer lstm1_h_conted_0
I0925 23:29:30.469364  4704 net.cpp:425] lstm1_h_conted_0 <- h_0
I0925 23:29:30.469386  4704 net.cpp:425] lstm1_h_conted_0 <- cont_1_lstm1_cont_slice_0_split_0
I0925 23:29:30.469403  4704 net.cpp:399] lstm1_h_conted_0 -> h_conted_0
I0925 23:29:30.469638  4704 net.cpp:141] Setting up lstm1_h_conted_0
I0925 23:29:30.469655  4704 net.cpp:148] Top shape: 1 1 1000 (1000)
I0925 23:29:30.469665  4704 net.cpp:156] Memory required for data: 46016
I0925 23:29:30.469673  4704 layer_factory.hpp:77] Creating layer lstm1_transform_1
I0925 23:29:30.469699  4704 net.cpp:91] Creating Layer lstm1_transform_1
I0925 23:29:30.469712  4704 net.cpp:425] lstm1_transform_1 <- h_conted_0
I0925 23:29:30.469729  4704 net.cpp:399] lstm1_transform_1 -> W_hc_h_0
I0925 23:29:30.498247  4696 net.cpp:141] Setting up lstm1_h_conted_0
I0925 23:29:30.498328  4696 net.cpp:148] Top shape: 1 1 1000 (1000)
I0925 23:29:30.498347  4696 net.cpp:156] Memory required for data: 46016
I0925 23:29:30.498366  4696 layer_factory.hpp:77] Creating layer lstm1_transform_1
I0925 23:29:30.498405  4696 net.cpp:91] Creating Layer lstm1_transform_1
I0925 23:29:30.498427  4696 net.cpp:425] lstm1_transform_1 <- h_conted_0
I0925 23:29:30.498458  4696 net.cpp:399] lstm1_transform_1 -> W_hc_h_0
I0925 23:29:30.508942  4660 net.cpp:141] Setting up lstm1_transform_1
I0925 23:29:30.508992  4660 net.cpp:148] Top shape: 1 1 4000 (4000)
I0925 23:29:30.509001  4660 net.cpp:156] Memory required for data: 62016
I0925 23:29:30.509027  4660 layer_factory.hpp:77] Creating layer lstm1_gate_input_1
I0925 23:29:30.509052  4660 net.cpp:91] Creating Layer lstm1_gate_input_1
I0925 23:29:30.509062  4660 net.cpp:425] lstm1_gate_input_1 <- W_hc_h_0
I0925 23:29:30.509073  4660 net.cpp:425] lstm1_gate_input_1 <- W_xc_x_1
I0925 23:29:30.509088  4660 net.cpp:399] lstm1_gate_input_1 -> gate_input_1
I0925 23:29:30.509179  4660 net.cpp:141] Setting up lstm1_gate_input_1
I0925 23:29:30.509197  4660 net.cpp:148] Top shape: 1 1 4000 (4000)
I0925 23:29:30.509204  4660 net.cpp:156] Memory required for data: 78016
I0925 23:29:30.509212  4660 layer_factory.hpp:77] Creating layer lstm1_unit_1
I0925 23:29:30.509237  4660 net.cpp:91] Creating Layer lstm1_unit_1
I0925 23:29:30.509244  4660 net.cpp:425] lstm1_unit_1 <- c_0
I0925 23:29:30.509253  4660 net.cpp:425] lstm1_unit_1 <- gate_input_1
I0925 23:29:30.509263  4660 net.cpp:425] lstm1_unit_1 <- cont_1_lstm1_cont_slice_0_split_1
I0925 23:29:30.509273  4660 net.cpp:399] lstm1_unit_1 -> c_1
I0925 23:29:30.509286  4660 net.cpp:399] lstm1_unit_1 -> h_1
I0925 23:29:30.509382  4660 net.cpp:141] Setting up lstm1_unit_1
I0925 23:29:30.509395  4660 net.cpp:148] Top shape: 1 1 1000 (1000)
I0925 23:29:30.509405  4660 net.cpp:148] Top shape: 1 1 1000 (1000)
I0925 23:29:30.509413  4660 net.cpp:156] Memory required for data: 86016
I0925 23:29:30.509419  4660 layer_factory.hpp:77] Creating layer lstm1_
I0925 23:29:30.509431  4660 net.cpp:91] Creating Layer lstm1_
I0925 23:29:30.509438  4660 net.cpp:425] lstm1_ <- c_1
I0925 23:29:30.509449  4660 net.cpp:399] lstm1_ -> c_T
I0925 23:29:30.509493  4660 net.cpp:141] Setting up lstm1_
I0925 23:29:30.509505  4660 net.cpp:148] Top shape: 1 1 1000 (1000)
I0925 23:29:30.509512  4660 net.cpp:156] Memory required for data: 90016
I0925 23:29:30.509519  4660 layer_factory.hpp:77] Creating layer lstm1_h_concat
I0925 23:29:30.509537  4660 net.cpp:91] Creating Layer lstm1_h_concat
I0925 23:29:30.509546  4660 net.cpp:425] lstm1_h_concat <- h_1
I0925 23:29:30.509559  4660 net.cpp:399] lstm1_h_concat -> h
I0925 23:29:30.509645  4682 net.cpp:141] Setting up lstm1_transform_1
I0925 23:29:30.509670  4682 net.cpp:148] Top shape: 1 1 4000 (4000)
I0925 23:29:30.509680  4682 net.cpp:156] Memory required for data: 62016
I0925 23:29:30.509703  4682 layer_factory.hpp:77] Creating layer lstm1_gate_input_1
I0925 23:29:30.509724  4682 net.cpp:91] Creating Layer lstm1_gate_input_1
I0925 23:29:30.509726  4652 net.cpp:141] Setting up lstm1_transform_1
I0925 23:29:30.509737  4682 net.cpp:425] lstm1_gate_input_1 <- W_hc_h_0
I0925 23:29:30.509747  4682 net.cpp:425] lstm1_gate_input_1 <- W_xc_x_1
I0925 23:29:30.509747  4652 net.cpp:148] Top shape: 1 1 4000 (4000)
I0925 23:29:30.509759  4652 net.cpp:156] Memory required for data: 62016
I0925 23:29:30.509763  4682 net.cpp:399] lstm1_gate_input_1 -> gate_input_1
I0925 23:29:30.509778  4652 layer_factory.hpp:77] Creating layer lstm1_gate_input_1
I0925 23:29:30.509784  4708 net.cpp:141] Setting up embedding
I0925 23:29:30.509795  4652 net.cpp:91] Creating Layer lstm1_gate_input_1
I0925 23:29:30.509805  4652 net.cpp:425] lstm1_gate_input_1 <- W_hc_h_0
I0925 23:29:30.509807  4670 net.cpp:141] Setting up lstm1_
I0925 23:29:30.509815  4652 net.cpp:425] lstm1_gate_input_1 <- W_xc_x_1
I0925 23:29:30.509806  4708 net.cpp:148] Top shape: 1 1 500 (500)
I0925 23:29:30.509830  4670 net.cpp:148] Top shape: 1 1 500 (500)
I0925 23:29:30.509835  4652 net.cpp:399] lstm1_gate_input_1 -> gate_input_1
I0925 23:29:30.509831  4708 net.cpp:156] Memory required for data: 22408
I0925 23:29:30.509852  4660 net.cpp:141] Setting up lstm1_h_concat
I0925 23:29:30.509856  4670 net.cpp:148] Top shape: 1 1 (1)
I0925 23:29:30.509871  4708 layer_factory.hpp:77] Creating layer lstm1
I0925 23:29:30.509876  4660 net.cpp:148] Top shape: 1 1 1000 (1000)
I0925 23:29:30.509879  4670 net.cpp:156] Memory required for data: 2004
I0925 23:29:30.509886  4660 net.cpp:156] Memory required for data: 94016
I0925 23:29:30.509891  4670 layer_factory.hpp:77] Creating layer lstm1_
I0925 23:29:30.509893  4660 layer_factory.hpp:77] Creating layer h_pseudoloss
I0925 23:29:30.509891  4708 net.cpp:91] Creating Layer lstm1
I0925 23:29:30.509913  4708 net.cpp:425] lstm1 <- embedded_input_frames
I0925 23:29:30.509922  4670 net.cpp:91] Creating Layer lstm1_
I0925 23:29:30.509933  4670 net.cpp:399] lstm1_ -> c_0
I0925 23:29:30.509914  4660 net.cpp:91] Creating Layer h_pseudoloss
I0925 23:29:30.509954  4670 net.cpp:399] lstm1_ -> h_0
I0925 23:29:30.509958  4660 net.cpp:425] h_pseudoloss <- h
I0925 23:29:30.509941  4708 net.cpp:425] lstm1 <- cont_sentence_input_1_split_0
I0925 23:29:30.509975  4660 net.cpp:399] h_pseudoloss -> h_pseudoloss
I0925 23:29:30.509989  4708 net.cpp:399] lstm1 -> lstm1
I0925 23:29:30.510010  4708 recurrent_layer.cpp:20] Initializing recurrent layer: assuming input batch contains 1 timesteps of 1 independent streams.
I0925 23:29:30.510076  4682 net.cpp:141] Setting up lstm1_gate_input_1
I0925 23:29:30.510094  4682 net.cpp:148] Top shape: 1 1 4000 (4000)
I0925 23:29:30.510103  4682 net.cpp:156] Memory required for data: 78016
I0925 23:29:30.510112  4682 layer_factory.hpp:77] Creating layer lstm1_unit_1
I0925 23:29:30.510125  4682 net.cpp:91] Creating Layer lstm1_unit_1
I0925 23:29:30.510134  4682 net.cpp:425] lstm1_unit_1 <- c_0
I0925 23:29:30.510144  4682 net.cpp:425] lstm1_unit_1 <- gate_input_1
I0925 23:29:30.510275  4656 net.cpp:141] Setting up lstm1_x_transform
I0925 23:29:30.510291  4656 net.cpp:148] Top shape: 1 1 4000 (4000)
I0925 23:29:30.510299  4656 net.cpp:156] Memory required for data: 26016
I0925 23:29:30.510318  4656 layer_factory.hpp:77] Creating layer lstm1_W_xc_x_slice
I0925 23:29:30.510330  4656 net.cpp:91] Creating Layer lstm1_W_xc_x_slice
I0925 23:29:30.510339  4656 net.cpp:425] lstm1_W_xc_x_slice <- W_xc_x
I0925 23:29:30.510349  4670 net.cpp:141] Setting up lstm1_
I0925 23:29:30.510154  4682 net.cpp:425] lstm1_unit_1 <- cont_1_lstm1_cont_slice_0_split_1
I0925 23:29:30.510351  4656 net.cpp:399] lstm1_W_xc_x_slice -> W_xc_x_1
I0925 23:29:30.510373  4670 net.cpp:148] Top shape: 1 1 1000 (1000)
I0925 23:29:30.510383  4670 net.cpp:148] Top shape: 1 1 1000 (1000)
I0925 23:29:30.510390  4670 net.cpp:156] Memory required for data: 10004
I0925 23:29:30.510398  4670 layer_factory.hpp:77] Creating layer lstm1_cont_slice
I0925 23:29:30.510406  4682 net.cpp:399] lstm1_unit_1 -> c_1
I0925 23:29:30.510412  4670 net.cpp:91] Creating Layer lstm1_cont_slice
I0925 23:29:30.510421  4670 net.cpp:425] lstm1_cont_slice <- cont
I0925 23:29:30.510426  4660 net.cpp:141] Setting up h_pseudoloss
I0925 23:29:30.510443  4660 net.cpp:148] Top shape: (1)
I0925 23:29:30.510424  4682 net.cpp:399] lstm1_unit_1 -> h_1
I0925 23:29:30.510525  4670 net.cpp:399] lstm1_cont_slice -> cont_1
I0925 23:29:30.510531  4656 net.cpp:141] Setting up lstm1_W_xc_x_slice
I0925 23:29:30.510547  4656 net.cpp:148] Top shape: 1 1 4000 (4000)
I0925 23:29:30.510550  4652 net.cpp:141] Setting up lstm1_gate_input_1
I0925 23:29:30.510452  4660 net.cpp:151]     with loss weight 1
I0925 23:29:30.510566  4656 net.cpp:156] Memory required for data: 42016
I0925 23:29:30.510572  4652 net.cpp:148] Top shape: 1 1 4000 (4000)
I0925 23:29:30.510572  4660 net.cpp:156] Memory required for data: 94020
I0925 23:29:30.510576  4656 layer_factory.hpp:77] Creating layer lstm1_h_conted_0
I0925 23:29:30.510574  4708 net.cpp:49] Initializing net from parameters: 
layer {
  name: "lstm1_"
  type: "Input"
  top: "x"
  top: "cont"
  input_param {
    shape {
      dim: 1
      dim: 1
      dim: 500
    }
    shape {
      dim: 1
      dim: 1
    }
  }
}
layer {
  name: "lstm1_"
  type: "Input"
  top: "c_0"
  top: "h_0"
  input_param {
    shape {
      dim: 1
      dim: 1
      dim: 1000
    }
    shape {
      dim: 1
      dim: 1
      dim: 1000
    }
  }
}
layer {
  name: "lstm1_cont_slice"
  type: "Slice"
  bottom: "cont"
  top: "cont_1"
  slice_param {
    axis: 0
  }
}
layer {
  name: "lstm1_x_transform"
  type: "InnerProduct"
  bottom: "x"
  top: "W_xc_x"
  param {
    name: "W_xc"
  }
  param {
    name: "b_c"
  }
  propagate_down: true
  inner_product_param {
    num_output: 4000
    bias_term: true
    weight_filler {
      type: "uniform"
      min: -0.08
      max: 0.08
    }
    bias_filler {
      type: "constant"
      value: 0
    }
    axis: 2
  }
}
layer {
  name: "lstm1_W_xc_x_slice"
  type: "Slice"
  bottom: "W_xc_x"
  top: "W_xc_x_1"
  slice_param {
    axis: 0
  }
}
layer {
  name: "lstm1_h_conted_0"
  type: "Scale"
  bottom: "h_0"
  bottom: "cont_1"
  top: "h_conted_0"
  scale_param {
    axis: 0
  }
}
layer {
  name: "lstm1_transform_1"
  type: "InnerProduct"
  bottom: "h_conted_0"
  top: "W_hc_h_0"
  param {
    name: "W_hc"
  }
  inner_product_param {
    num_output: 4000
    bias_term: false
    weight_filler {
      type: "uniform"
      min: -0.08
      max: 0.08
    }
    axis: 2
  }
}
layer {
  name: "lstm1_gate_input_1"
  type: "Eltwise"
  bottom: "W_hc_h_0"
  bottom: "W_xc_x_1"
  top: "gate_input_1"
  eltwise_param {
    operation: SUM
  }
}
layer {
  name: "lstm1_unit_1"
  type: "LSTMUnit"
  bottom: "c_0"
  bottom: "gate_input_1"
  bottom: "cont_1"
  top: "c_1"
  top: "h_1"
}
layer {
  name: "lstm1_"
  type: "Split"
  bottom: "c_1"
  top: "c_T"
}
layer {
  name: "lstm1_h_concat"
  type: "Concat"
  bottom: "h_1"
  top: "h"
  concat_param {
    axis: 0
  }
}
layer {
  name: "h_pseudoloss"
  type: "Reduction"
  bottom: "h"
  top: "h_pseudoloss"
  loss_weight: 1
}
I0925 23:29:30.510591  4656 net.cpp:91] Creating Layer lstm1_h_conted_0
I0925 23:29:30.510592  4670 net.cpp:141] Setting up lstm1_cont_slice
I0925 23:29:30.510617  4656 net.cpp:425] lstm1_h_conted_0 <- h_0
I0925 23:29:30.510623  4670 net.cpp:148] Top shape: 1 1 (1)
I0925 23:29:30.510632  4670 net.cpp:156] Memory required for data: 10008
I0925 23:29:30.510633  4656 net.cpp:425] lstm1_h_conted_0 <- cont_1_lstm1_cont_slice_0_split_0
I0925 23:29:30.510639  4670 layer_factory.hpp:77] Creating layer cont_1_lstm1_cont_slice_0_split
I0925 23:29:30.510653  4656 net.cpp:399] lstm1_h_conted_0 -> h_conted_0
I0925 23:29:30.510745  4708 layer_factory.hpp:77] Creating layer lstm1_
I0925 23:29:30.510758  4708 net.cpp:91] Creating Layer lstm1_
I0925 23:29:30.510766  4708 net.cpp:399] lstm1_ -> x
I0925 23:29:30.510777  4708 net.cpp:399] lstm1_ -> cont
I0925 23:29:30.510809  4656 net.cpp:141] Setting up lstm1_h_conted_0
I0925 23:29:30.510825  4656 net.cpp:148] Top shape: 1 1 1000 (1000)
I0925 23:29:30.510833  4656 net.cpp:156] Memory required for data: 46016
I0925 23:29:30.510841  4656 layer_factory.hpp:77] Creating layer lstm1_transform_1
I0925 23:29:30.510862  4656 net.cpp:91] Creating Layer lstm1_transform_1
I0925 23:29:30.510871  4656 net.cpp:425] lstm1_transform_1 <- h_conted_0
I0925 23:29:30.510884  4708 net.cpp:141] Setting up lstm1_
I0925 23:29:30.510901  4708 net.cpp:148] Top shape: 1 1 500 (500)
I0925 23:29:30.510908  4708 net.cpp:148] Top shape: 1 1 (1)
I0925 23:29:30.510913  4708 net.cpp:156] Memory required for data: 2004
I0925 23:29:30.510918  4708 layer_factory.hpp:77] Creating layer lstm1_
I0925 23:29:30.510928  4708 net.cpp:91] Creating Layer lstm1_
I0925 23:29:30.510949  4708 net.cpp:399] lstm1_ -> c_0
I0925 23:29:30.510963  4708 net.cpp:399] lstm1_ -> h_0
I0925 23:29:30.510654  4670 net.cpp:91] Creating Layer cont_1_lstm1_cont_slice_0_split
I0925 23:29:30.510996  4670 net.cpp:425] cont_1_lstm1_cont_slice_0_split <- cont_1
I0925 23:29:30.511013  4670 net.cpp:399] cont_1_lstm1_cont_slice_0_split -> cont_1_lstm1_cont_slice_0_split_0
I0925 23:29:30.511029  4670 net.cpp:399] cont_1_lstm1_cont_slice_0_split -> cont_1_lstm1_cont_slice_0_split_1
I0925 23:29:30.510885  4656 net.cpp:399] lstm1_transform_1 -> W_hc_h_0
I0925 23:29:30.511056  4708 net.cpp:141] Setting up lstm1_
I0925 23:29:30.511070  4708 net.cpp:148] Top shape: 1 1 1000 (1000)
I0925 23:29:30.511077  4708 net.cpp:148] Top shape: 1 1 1000 (1000)
I0925 23:29:30.511082  4708 net.cpp:156] Memory required for data: 10004
I0925 23:29:30.511088  4708 layer_factory.hpp:77] Creating layer lstm1_cont_slice
I0925 23:29:30.511111  4708 net.cpp:91] Creating Layer lstm1_cont_slice
I0925 23:29:30.511116  4708 net.cpp:425] lstm1_cont_slice <- cont
I0925 23:29:30.511126  4708 net.cpp:399] lstm1_cont_slice -> cont_1
I0925 23:29:30.510583  4660 net.cpp:217] h_pseudoloss needs backward computation.
…
I0925 23:29:30.521543  4682 net.cpp:219] lstm1_ does not need backward computation.
I0925 23:29:30.521546  4682 net.cpp:261] This network produces output c_T
I0925 23:29:30.521551  4682 net.cpp:261] This network produces output h_pseudoloss
I0925 23:29:30.521569  4682 net.cpp:274] Network initialization done.
I0925 23:29:30.521625  4682 recurrent_layer.cpp:150] Adding parameter 0: W_xc
I0925 23:29:30.521632  4682 recurrent_layer.cpp:150] Adding parameter 1: b_c
I0925 23:29:30.521636  4682 recurrent_layer.cpp:150] Adding parameter 2: W_hc
I0925 23:29:30.521751  4682 net.cpp:141] Setting up lstm1
I0925 23:29:30.521766  4682 net.cpp:148] Top shape: 1 1 1000 (1000)
I0925 23:29:30.521771  4682 net.cpp:156] Memory required for data: 26408
I0925 23:29:30.521788  4682 layer_factory.hpp:77] Creating layer concat
I0925 23:29:30.521798  4682 net.cpp:91] Creating Layer concat
I0925 23:29:30.521806  4682 net.cpp:425] concat <- lstm1
I0925 23:29:30.521813  4682 net.cpp:425] concat <- embedded_input_sentence
I0925 23:29:30.521819  4682 net.cpp:425] concat <- reshaped_stage_indicator
I0925 23:29:30.521826  4682 net.cpp:399] concat -> lstm1_video_sequence
I0925 23:29:30.521862  4682 net.cpp:141] Setting up concat
I0925 23:29:30.521870  4682 net.cpp:148] Top shape: 1 1 1501 (1501)
I0925 23:29:30.521874  4682 net.cpp:156] Memory required for data: 32412
I0925 23:29:30.521879  4682 layer_factory.hpp:77] Creating layer lstm2
I0925 23:29:30.521894  4682 net.cpp:91] Creating Layer lstm2
I0925 23:29:30.521900  4682 net.cpp:425] lstm2 <- lstm1_video_sequence
I0925 23:29:30.521906  4682 net.cpp:425] lstm2 <- cont_sentence_input_1_split_1
I0925 23:29:30.521914  4682 net.cpp:399] lstm2 -> lstm2
I0925 23:29:30.521925  4682 recurrent_layer.cpp:20] Initializing recurrent layer: assuming input batch contains 1 timesteps of 1 independent streams.
I0925 23:29:30.522244  4682 net.cpp:49] Initializing net from parameters: 
layer {
  name: "lstm2_"
  type: "Input"
  top: "x"
  top: "cont"
  input_param {
    shape {
      dim: 1
      dim: 1
      dim: 1501
    }
    shape {
      dim: 1
      dim: 1
    }
  }
}
layer {
  name: "lstm2_"
  type: "Input"
  top: "c_0"
  top: "h_0"
  input_param {
    shape {
      dim: 1
      dim: 1
      dim: 1000
    }
    shape {
      dim: 1
      dim: 1
      dim: 1000
    }
  }
}
layer {
  name: "lstm2_cont_slice"
  type: "Slice"
  bottom: "cont"
  top: "cont_1"
  slice_param {
    axis: 0
  }
}
layer {
  name: "lstm2_x_transform"
  type: "InnerProduct"
  bottom: "x"
  top: "W_xc_x"
  param {
    name: "W_xc"
  }
  param {
    name: "b_c"
  }
  propagate_down: true
  inner_product_param {
    num_output: 4000
    bias_term: true
    weight_filler {
      type: "uniform"
      min: -0.08
      max: 0.08
    }
    bias_filler {
      type: "constant"
      value: 0
    }
    axis: 2
  }
}
layer {
  name: "lstm2_W_xc_x_slice"
  type: "Slice"
  bottom: "W_xc_x"
  top: "W_xc_x_1"
  slice_param {
    axis: 0
  }
}
layer {
  name: "lstm2_h_conted_0"
  type: "Scale"
  bottom: "h_0"
  bottom: "cont_1"
  top: "h_conted_0"
  scale_param {
    axis: 0
  }
}
layer {
  name: "lstm2_transform_1"
  type: "InnerProduct"
  bottom: "h_conted_0"
  top: "W_hc_h_0"
  param {
    name: "W_hc"
  }
  inner_product_param {
    num_output: 4000
    bias_term: false
    weight_filler {
      type: "uniform"
      min: -0.08
      max: 0.08
    }
    axis: 2
  }
}
layer {
  name: "lstm2_gate_input_1"
  type: "Eltwise"
  bottom: "W_hc_h_0"
  bottom: "W_xc_x_1"
  top: "gate_input_1"
  eltwise_param {
    operation: SUM
  }
}
layer {
  name: "lstm2_unit_1"
  type: "LSTMUnit"
  bottom: "c_0"
  bottom: "gate_input_1"
  bottom: "cont_1"
  top: "c_1"
  top: "h_1"
}
layer {
  name: "lstm2_"
  type: "Split"
  bottom: "c_1"
  top: "c_T"
}
layer {
  name: "lstm2_h_concat"
  type: "Concat"
  bottom: "h_1"
  top: "h"
  concat_param {
    axis: 0
  }
}
layer {
  name: "h_pseudoloss"
  type: "Reduction"
  bottom: "h"
  top: "h_pseudoloss"
  loss_weight: 1
}
I0925 23:29:30.522266  4660 net.cpp:141] Setting up lstm1
I0925 23:29:30.522284  4660 net.cpp:148] Top shape: 1 1 1000 (1000)
I0925 23:29:30.522292  4660 net.cpp:156] Memory required for data: 26408
I0925 23:29:30.522315  4660 layer_factory.hpp:77] Creating layer concat
I0925 23:29:30.522336  4660 net.cpp:91] Creating Layer concat
I0925 23:29:30.522347  4660 net.cpp:425] concat <- lstm1
I0925 23:29:30.522358  4660 net.cpp:425] concat <- embedded_input_sentence
I0925 23:29:30.522368  4660 net.cpp:425] concat <- reshaped_stage_indicator
I0925 23:29:30.522380  4660 net.cpp:399] concat -> lstm1_video_sequence
I0925 23:29:30.522384  4682 layer_factory.hpp:77] Creating layer lstm2_
I0925 23:29:30.522400  4682 net.cpp:91] Creating Layer lstm2_
I0925 23:29:30.522413  4682 net.cpp:399] lstm2_ -> x
I0925 23:29:30.522431  4682 net.cpp:399] lstm2_ -> cont
I0925 23:29:30.522434  4660 net.cpp:141] Setting up concat
I0925 23:29:30.522446  4660 net.cpp:148] Top shape: 1 1 1501 (1501)
I0925 23:29:30.522455  4660 net.cpp:156] Memory required for data: 32412
I0925 23:29:30.522464  4660 layer_factory.hpp:77] Creating layer lstm2
I0925 23:29:30.522481  4660 net.cpp:91] Creating Layer lstm2
I0925 23:29:30.522491  4660 net.cpp:425] lstm2 <- lstm1_video_sequence
I0925 23:29:30.522501  4660 net.cpp:425] lstm2 <- cont_sentence_input_1_split_1
I0925 23:29:30.522510  4682 net.cpp:141] Setting up lstm2_
I0925 23:29:30.522514  4660 net.cpp:399] lstm2 -> lstm2
I0925 23:29:30.522523  4682 net.cpp:148] Top shape: 1 1 1501 (1501)
I0925 23:29:30.522531  4660 recurrent_layer.cpp:20] Initializing recurrent layer: assuming input batch contains 1 timesteps of 1 independent streams.
I0925 23:29:30.522534  4682 net.cpp:148] Top shape: 1 1 (1)
I0925 23:29:30.522542  4682 net.cpp:156] Memory required for data: 6008
I0925 23:29:30.522550  4682 layer_factory.hpp:77] Creating layer lstm2_
I0925 23:29:30.522564  4682 net.cpp:91] Creating Layer lstm2_
I0925 23:29:30.522579  4682 net.cpp:399] lstm2_ -> c_0
I0925 23:29:30.522608  4682 net.cpp:399] lstm2_ -> h_0
I0925 23:29:30.522696  4682 net.cpp:141] Setting up lstm2_
I0925 23:29:30.522712  4682 net.cpp:148] Top shape: 1 1 1000 (1000)
I0925 23:29:30.522724  4682 net.cpp:148] Top shape: 1 1 1000 (1000)
I0925 23:29:30.522733  4682 net.cpp:156] Memory required for data: 14008
I0925 23:29:30.522742  4682 layer_factory.hpp:77] Creating layer lstm2_cont_slice
I0925 23:29:30.522758  4682 net.cpp:91] Creating Layer lstm2_cont_slice
I0925 23:29:30.522766  4682 net.cpp:425] lstm2_cont_slice <- cont
I0925 23:29:30.522780  4682 net.cpp:399] lstm2_cont_slice -> cont_1
I0925 23:29:30.522840  4682 net.cpp:141] Setting up lstm2_cont_slice
I0925 23:29:30.522856  4682 net.cpp:148] Top shape: 1 1 (1)
I0925 23:29:30.522864  4682 net.cpp:156] Memory required for data: 14012
I0925 23:29:30.522864  4660 net.cpp:49] Initializing net from parameters: 
layer {
  name: "lstm2_"
  type: "Input"
  top: "x"
  top: "cont"
  input_param {
    shape {
      dim: 1
      dim: 1
      dim: 1501
    }
    shape {
      dim: 1
      dim: 1
    }
  }
}
layer {
  name: "lstm2_"
  type: "Input"
  top: "c_0"
  top: "h_0"
  input_param {
    shape {
      dim: 1
      dim: 1
      dim: 1000
    }
    shape {
      dim: 1
      dim: 1
      dim: 1000
    }
  }
}
layer {
  name: "lstm2_cont_slice"
  type: "Slice"
  bottom: "cont"
  top: "cont_1"
  slice_param {
    axis: 0
  }
}
layer {
  name: "lstm2_x_transform"
  type: "InnerProduct"
  bottom: "x"
  top: "W_xc_x"
  param {
    name: "W_xc"
  }
  param {
    name: "b_c"
  }
  propagate_down: true
  inner_product_param {
    num_output: 4000
    bias_term: true
    weight_filler {
      type: "uniform"
      min: -0.08
      max: 0.08
    }
    bias_filler {
      type: "constant"
      value: 0
    }
    axis: 2
  }
}
layer {
  name: "lstm2_W_xc_x_slice"
  type: "Slice"
  bottom: "W_xc_x"
  top: "W_xc_x_1"
  slice_param {
    axis: 0
  }
}
layer {
  name: "lstm2_h_conted_0"
  type: "Scale"
  bottom: "h_0"
  bottom: "cont_1"
  top: "h_conted_0"
  scale_param {
    axis: 0
  }
}
layer {
  name: "lstm2_transform_1"
  type: "InnerProduct"
  bottom: "h_conted_0"
  top: "W_hc_h_0"
  param {
    name: "W_hc"
  }
  inner_product_param {
    num_output: 4000
    bias_term: false
    weight_filler {
      type: "uniform"
      min: -0.08
      max: 0.08
    }
    axis: 2
  }
}
layer {
  name: "lstm2_gate_input_1"
  type: "Eltwise"
  bottom: "W_hc_h_0"
  bottom: "W_xc_x_1"
  top: "gate_input_1"
  eltwise_param {
    operation: SUM
  }
}
layer {
  name: "lstm2_unit_1"
  type: "LSTMUnit"
  bottom: "c_0"
  bottom: "gate_input_1"
  bottom: "cont_1"
  top: "c_1"
  top: "h_1"
}
layer {
  name: "lstm2_"
  type: "Split"
  bottom: "c_1"
  top: "c_T"
}
layer {
  name: "lstm2_h_concat"
  type: "Concat"
  bottom: "h_1"
  top: "h"
  concat_param {
    axis: 0
  }
}
layer {
  name: "h_pseudoloss"
  type: "Reduction"
  bottom: "h"
  top: "h_pseudoloss"
  loss_weight: 1
}
I0925 23:29:30.522874  4682 layer_factory.hpp:77] Creating layer cont_1_lstm2_cont_slice_0_split
I0925 23:29:30.522887  4682 net.cpp:91] Creating Layer cont_1_lstm2_cont_slice_0_split
I0925 23:29:30.522897  4682 net.cpp:425] cont_1_lstm2_cont_slice_0_split <- cont_1
I0925 23:29:30.522910  4682 net.cpp:399] cont_1_lstm2_cont_slice_0_split -> cont_1_lstm2_cont_slice_0_split_0
I0925 23:29:30.522925  4682 net.cpp:399] cont_1_lstm2_cont_slice_0_split -> cont_1_lstm2_cont_slice_0_split_1
I0925 23:29:30.522989  4660 layer_factory.hpp:77] Creating layer lstm2_
I0925 23:29:30.523006  4660 net.cpp:91] Creating Layer lstm2_
I0925 23:29:30.523032  4660 net.cpp:399] lstm2_ -> x
I0925 23:29:30.523064  4660 net.cpp:399] lstm2_ -> cont
I0925 23:29:30.523228  4660 net.cpp:141] Setting up lstm2_
I0925 23:29:30.523257  4660 net.cpp:148] Top shape: 1 1 1501 (1501)
I0925 23:29:30.523277  4660 net.cpp:148] Top shape: 1 1 (1)
I0925 23:29:30.523291  4660 net.cpp:156] Memory required for data: 6008
I0925 23:29:30.523308  4660 layer_factory.hpp:77] Creating layer lstm2_
I0925 23:29:30.523334  4660 net.cpp:91] Creating Layer lstm2_
I0925 23:29:30.523360  4660 net.cpp:399] lstm2_ -> c_0
I0925 23:29:30.523399  4660 net.cpp:399] lstm2_ -> h_0
I0925 23:29:30.523543  4660 net.cpp:141] Setting up lstm2_
I0925 23:29:30.523572  4660 net.cpp:148] Top shape: 1 1 1000 (1000)
I0925 23:29:30.523592  4660 net.cpp:148] Top shape: 1 1 1000 (1000)
I0925 23:29:30.523607  4660 net.cpp:156] Memory required for data: 14008
I0925 23:29:30.523622  4660 layer_factory.hpp:77] Creating layer lstm2_cont_slice
I0925 23:29:30.523646  4660 net.cpp:91] Creating Layer lstm2_cont_slice
I0925 23:29:30.523663  4660 net.cpp:425] lstm2_cont_slice <- cont
I0925 23:29:30.523691  4660 net.cpp:399] lstm2_cont_slice -> cont_1
I0925 23:29:30.523787  4660 net.cpp:141] Setting up lstm2_cont_slice
I0925 23:29:30.523815  4660 net.cpp:148] Top shape: 1 1 (1)
I0925 23:29:30.523830  4660 net.cpp:156] Memory required for data: 14012
I0925 23:29:30.523844  4660 layer_factory.hpp:77] Creating layer cont_1_lstm2_cont_slice_0_split
I0925 23:29:30.523865  4660 net.cpp:91] Creating Layer cont_1_lstm2_cont_slice_0_split
I0925 23:29:30.523880  4660 net.cpp:425] cont_1_lstm2_cont_slice_0_split <- cont_1
I0925 23:29:30.523908  4660 net.cpp:399] cont_1_lstm2_cont_slice_0_split -> cont_1_lstm2_cont_slice_0_split_0
I0925 23:29:30.523937  4660 net.cpp:399] cont_1_lstm2_cont_slice_0_split -> cont_1_lstm2_cont_slice_0_split_1
I0925 23:29:30.524078  4660 net.cpp:141] Setting up cont_1_lstm2_cont_slice_0_split
I0925 23:29:30.524106  4660 net.cpp:148] Top shape: 1 1 (1)
I0925 23:29:30.524124  4660 net.cpp:148] Top shape: 1 1 (1)
I0925 23:29:30.524139  4660 net.cpp:156] Memory required for data: 14020
I0925 23:29:30.524153  4660 layer_factory.hpp:77] Creating layer lstm2_x_transform
I0925 23:29:30.524190  4660 net.cpp:91] Creating Layer lstm2_x_transform
I0925 23:29:30.524207  4660 net.cpp:425] lstm2_x_transform <- x
I0925 23:29:30.524235  4660 net.cpp:399] lstm2_x_transform -> W_xc_x
I0925 23:29:30.523006  4682 net.cpp:141] Setting up cont_1_lstm2_cont_slice_0_split
I0925 23:29:30.530762  4682 net.cpp:148] Top shape: 1 1 (1)
I0925 23:29:30.530786  4682 net.cpp:148] Top shape: 1 1 (1)
I0925 23:29:30.530793  4682 net.cpp:156] Memory required for data: 14020
I0925 23:29:30.530805  4682 layer_factory.hpp:77] Creating layer lstm2_x_transform
I0925 23:29:30.530836  4682 net.cpp:91] Creating Layer lstm2_x_transform
I0925 23:29:30.530849  4682 net.cpp:425] lstm2_x_transform <- x
I0925 23:29:30.530877  4682 net.cpp:399] lstm2_x_transform -> W_xc_x
I0925 23:29:30.549218  4670 net.cpp:141] Setting up cont_1_lstm1_cont_slice_0_split
I0925 23:29:30.549279  4670 net.cpp:148] Top shape: 1 1 (1)
I0925 23:29:30.549278  4652 net.cpp:141] Setting up lstm1_unit_1
I0925 23:29:30.549302  4670 net.cpp:148] Top shape: 1 1 (1)
I0925 23:29:30.549307  4652 net.cpp:148] Top shape: 1 1 1000 (1000)
I0925 23:29:30.549310  4670 net.cpp:156] Memory required for data: 10016
I0925 23:29:30.549319  4652 net.cpp:148] Top shape: 1 1 1000 (1000)
I0925 23:29:30.549322  4670 layer_factory.hpp:77] Creating layer lstm1_x_transform
I0925 23:29:30.549325  4652 net.cpp:156] Memory required for data: 86016
I0925 23:29:30.549334  4652 layer_factory.hpp:77] Creating layer lstm1_
I0925 23:29:30.549350  4652 net.cpp:91] Creating Layer lstm1_
I0925 23:29:30.549360  4652 net.cpp:425] lstm1_ <- c_1
I0925 23:29:30.549363  4670 net.cpp:91] Creating Layer lstm1_x_transform
I0925 23:29:30.549373  4670 net.cpp:425] lstm1_x_transform <- x
I0925 23:29:30.549378  4652 net.cpp:399] lstm1_ -> c_T
I0925 23:29:30.549387  4670 net.cpp:399] lstm1_x_transform -> W_xc_x
I0925 23:29:30.549445  4652 net.cpp:141] Setting up lstm1_
I0925 23:29:30.549458  4652 net.cpp:148] Top shape: 1 1 1000 (1000)
I0925 23:29:30.549463  4652 net.cpp:156] Memory required for data: 90016
I0925 23:29:30.549468  4652 layer_factory.hpp:77] Creating layer lstm1_h_concat
I0925 23:29:30.549484  4652 net.cpp:91] Creating Layer lstm1_h_concat
I0925 23:29:30.549489  4652 net.cpp:425] lstm1_h_concat <- h_1
I0925 23:29:30.549497  4652 net.cpp:399] lstm1_h_concat -> h
I0925 23:29:30.549540  4652 net.cpp:141] Setting up lstm1_h_concat
I0925 23:29:30.549549  4652 net.cpp:148] Top shape: 1 1 1000 (1000)
I0925 23:29:30.549553  4652 net.cpp:156] Memory required for data: 94016
I0925 23:29:30.549558  4652 layer_factory.hpp:77] Creating layer h_pseudoloss
I0925 23:29:30.549568  4652 net.cpp:91] Creating Layer h_pseudoloss
I0925 23:29:30.549573  4652 net.cpp:425] h_pseudoloss <- h
I0925 23:29:30.549583  4652 net.cpp:399] h_pseudoloss -> h_pseudoloss
I0925 23:29:30.549688  4652 net.cpp:141] Setting up h_pseudoloss
…
I0925 23:29:30.549794  4652 net.cpp:219] lstm1_ does not need backward computation.
I0925 23:29:30.549798  4652 net.cpp:261] This network produces output c_T
I0925 23:29:30.549803  4652 net.cpp:261] This network produces output h_pseudoloss
I0925 23:29:30.549821  4652 net.cpp:274] Network initialization done.
I0925 23:29:30.549875  4652 recurrent_layer.cpp:150] Adding parameter 0: W_xc
I0925 23:29:30.549881  4652 recurrent_layer.cpp:150] Adding parameter 1: b_c
I0925 23:29:30.549886  4652 recurrent_layer.cpp:150] Adding parameter 2: W_hc
I0925 23:29:30.549993  4652 net.cpp:141] Setting up lstm1
I0925 23:29:30.550004  4652 net.cpp:148] Top shape: 1 1 1000 (1000)
I0925 23:29:30.550009  4652 net.cpp:156] Memory required for data: 26408
I0925 23:29:30.550024  4652 layer_factory.hpp:77] Creating layer concat
I0925 23:29:30.550034  4652 net.cpp:91] Creating Layer concat
I0925 23:29:30.550041  4652 net.cpp:425] concat <- lstm1
I0925 23:29:30.550048  4652 net.cpp:425] concat <- embedded_input_sentence
I0925 23:29:30.550055  4652 net.cpp:425] concat <- reshaped_stage_indicator
I0925 23:29:30.550061  4652 net.cpp:399] concat -> lstm1_video_sequence
I0925 23:29:30.550096  4652 net.cpp:141] Setting up concat
I0925 23:29:30.550106  4652 net.cpp:148] Top shape: 1 1 1501 (1501)
I0925 23:29:30.550110  4652 net.cpp:156] Memory required for data: 32412
I0925 23:29:30.550115  4652 layer_factory.hpp:77] Creating layer lstm2
I0925 23:29:30.550130  4652 net.cpp:91] Creating Layer lstm2
I0925 23:29:30.550137  4652 net.cpp:425] lstm2 <- lstm1_video_sequence
I0925 23:29:30.550143  4652 net.cpp:425] lstm2 <- cont_sentence_input_1_split_1
I0925 23:29:30.550150  4652 net.cpp:399] lstm2 -> lstm2
I0925 23:29:30.550165  4652 recurrent_layer.cpp:20] Initializing recurrent layer: assuming input batch contains 1 timesteps of 1 independent streams.
I0925 23:29:30.550444  4652 net.cpp:49] Initializing net from parameters: 
layer {
  name: "lstm2_"
  type: "Input"
  top: "x"
  top: "cont"
  input_param {
    shape {
      dim: 1
      dim: 1
      dim: 1501
    }
    shape {
      dim: 1
      dim: 1
    }
  }
}
layer {
  name: "lstm2_"
  type: "Input"
  top: "c_0"
  top: "h_0"
  input_param {
    shape {
      dim: 1
      dim: 1
      dim: 1000
    }
    shape {
      dim: 1
      dim: 1
      dim: 1000
    }
  }
}
layer {
  name: "lstm2_cont_slice"
  type: "Slice"
  bottom: "cont"
  top: "cont_1"
  slice_param {
    axis: 0
  }
}
layer {
  name: "lstm2_x_transform"
  type: "InnerProduct"
  bottom: "x"
  top: "W_xc_x"
  param {
    name: "W_xc"
  }
  param {
    name: "b_c"
  }
  propagate_down: true
  inner_product_param {
    num_output: 4000
    bias_term: true
    weight_filler {
      type: "uniform"
      min: -0.08
      max: 0.08
    }
    bias_filler {
      type: "constant"
      value: 0
    }
    axis: 2
  }
}
layer {
  name: "lstm2_W_xc_x_slice"
  type: "Slice"
  bottom: "W_xc_x"
  top: "W_xc_x_1"
  slice_param {
    axis: 0
  }
}
layer {
  name: "lstm2_h_conted_0"
  type: "Scale"
  bottom: "h_0"
  bottom: "cont_1"
  top: "h_conted_0"
  scale_param {
    axis: 0
  }
}
layer {
  name: "lstm2_transform_1"
  type: "InnerProduct"
  bottom: "h_conted_0"
  top: "W_hc_h_0"
  param {
    name: "W_hc"
  }
  inner_product_param {
    num_output: 4000
    bias_term: false
    weight_filler {
      type: "uniform"
      min: -0.08
      max: 0.08
    }
    axis: 2
  }
}
layer {
  name: "lstm2_gate_input_1"
  type: "Eltwise"
  bottom: "W_hc_h_0"
  bottom: "W_xc_x_1"
  top: "gate_input_1"
  eltwise_param {
    operation: SUM
  }
}
layer {
  name: "lstm2_unit_1"
  type: "LSTMUnit"
  bottom: "c_0"
  bottom: "gate_input_1"
  bottom: "cont_1"
  top: "c_1"
  top: "h_1"
}
layer {
  name: "lstm2_"
  type: "Split"
  bottom: "c_1"
  top: "c_T"
}
layer {
  name: "lstm2_h_concat"
  type: "Concat"
  bottom: "h_1"
  top: "h"
  concat_param {
    axis: 0
  }
}
layer {
  name: "h_pseudoloss"
  type: "Reduction"
  bottom: "h"
  top: "h_pseudoloss"
  loss_weight: 1
}
I0925 23:29:30.550537  4652 layer_factory.hpp:77] Creating layer lstm2_
I0925 23:29:30.550549  4652 net.cpp:91] Creating Layer lstm2_
I0925 23:29:30.550555  4652 net.cpp:399] lstm2_ -> x
I0925 23:29:30.550566  4652 net.cpp:399] lstm2_ -> cont
I0925 23:29:30.550640  4652 net.cpp:141] Setting up lstm2_
I0925 23:29:30.550660  4652 net.cpp:148] Top shape: 1 1 1501 (1501)
I0925 23:29:30.550668  4652 net.cpp:148] Top shape: 1 1 (1)
I0925 23:29:30.550671  4652 net.cpp:156] Memory required for data: 6008
I0925 23:29:30.550676  4652 layer_factory.hpp:77] Creating layer lstm2_
I0925 23:29:30.550685  4652 net.cpp:91] Creating Layer lstm2_
I0925 23:29:30.550693  4652 net.cpp:399] lstm2_ -> c_0
I0925 23:29:30.550703  4652 net.cpp:399] lstm2_ -> h_0
I0925 23:29:30.550753  4652 net.cpp:141] Setting up lstm2_
I0925 23:29:30.550763  4652 net.cpp:148] Top shape: 1 1 1000 (1000)
I0925 23:29:30.550770  4652 net.cpp:148] Top shape: 1 1 1000 (1000)
I0925 23:29:30.550773  4652 net.cpp:156] Memory required for data: 14008
I0925 23:29:30.550778  4652 layer_factory.hpp:77] Creating layer lstm2_cont_slice
I0925 23:29:30.550787  4652 net.cpp:91] Creating Layer lstm2_cont_slice
I0925 23:29:30.550792  4652 net.cpp:425] lstm2_cont_slice <- cont
I0925 23:29:30.550801  4652 net.cpp:399] lstm2_cont_slice -> cont_1
I0925 23:29:30.550835  4652 net.cpp:141] Setting up lstm2_cont_slice
I0925 23:29:30.550843  4652 net.cpp:148] Top shape: 1 1 (1)
I0925 23:29:30.550848  4652 net.cpp:156] Memory required for data: 14012
I0925 23:29:30.550853  4652 layer_factory.hpp:77] Creating layer cont_1_lstm2_cont_slice_0_split
I0925 23:29:30.550859  4652 net.cpp:91] Creating Layer cont_1_lstm2_cont_slice_0_split
I0925 23:29:30.550864  4652 net.cpp:425] cont_1_lstm2_cont_slice_0_split <- cont_1
I0925 23:29:30.550871  4652 net.cpp:399] cont_1_lstm2_cont_slice_0_split -> cont_1_lstm2_cont_slice_0_split_0
I0925 23:29:30.550884  4652 net.cpp:399] cont_1_lstm2_cont_slice_0_split -> cont_1_lstm2_cont_slice_0_split_1
I0925 23:29:30.550931  4652 net.cpp:141] Setting up cont_1_lstm2_cont_slice_0_split
I0925 23:29:30.550940  4652 net.cpp:148] Top shape: 1 1 (1)
I0925 23:29:30.550946  4652 net.cpp:148] Top shape: 1 1 (1)
I0925 23:29:30.550951  4652 net.cpp:156] Memory required for data: 14020
I0925 23:29:30.550956  4652 layer_factory.hpp:77] Creating layer lstm2_x_transform
I0925 23:29:30.550968  4652 net.cpp:91] Creating Layer lstm2_x_transform
I0925 23:29:30.550973  4652 net.cpp:425] lstm2_x_transform <- x
I0925 23:29:30.550981  4652 net.cpp:399] lstm2_x_transform -> W_xc_x
I0925 23:29:30.563164  4704 net.cpp:141] Setting up lstm1_transform_1
I0925 23:29:30.563217  4704 net.cpp:148] Top shape: 1 1 4000 (4000)
I0925 23:29:30.563227  4704 net.cpp:156] Memory required for data: 62016
I0925 23:29:30.563261  4704 layer_factory.hpp:77] Creating layer lstm1_gate_input_1
I0925 23:29:30.563297  4704 net.cpp:91] Creating Layer lstm1_gate_input_1
I0925 23:29:30.563310  4704 net.cpp:425] lstm1_gate_input_1 <- W_hc_h_0
I0925 23:29:30.563298  4676 net.cpp:141] Setting up lstm1_transform_1
I0925 23:29:30.563323  4704 net.cpp:425] lstm1_gate_input_1 <- W_xc_x_1
I0925 23:29:30.563341  4704 net.cpp:399] lstm1_gate_input_1 -> gate_input_1
I0925 23:29:30.563344  4676 net.cpp:148] Top shape: 1 1 4000 (4000)
I0925 23:29:30.563359  4676 net.cpp:156] Memory required for data: 62016
I0925 23:29:30.563388  4676 layer_factory.hpp:77] Creating layer lstm1_gate_input_1
I0925 23:29:30.563436  4704 net.cpp:141] Setting up lstm1_gate_input_1
I0925 23:29:30.563442  4676 net.cpp:91] Creating Layer lstm1_gate_input_1
I0925 23:29:30.563454  4704 net.cpp:148] Top shape: 1 1 4000 (4000)
I0925 23:29:30.563460  4676 net.cpp:425] lstm1_gate_input_1 <- W_hc_h_0
I0925 23:29:30.563463  4704 net.cpp:156] Memory required for data: 78016
I0925 23:29:30.563488  4676 net.cpp:425] lstm1_gate_input_1 <- W_xc_x_1
I0925 23:29:30.563491  4704 layer_factory.hpp:77] Creating layer lstm1_unit_1
I0925 23:29:30.563515  4676 net.cpp:399] lstm1_gate_input_1 -> gate_input_1
I0925 23:29:30.563525  4704 net.cpp:91] Creating Layer lstm1_unit_1
I0925 23:29:30.563531  4696 net.cpp:141] Setting up lstm1_transform_1
I0925 23:29:30.563536  4704 net.cpp:425] lstm1_unit_1 <- c_0
…
I0925 23:29:31.113596  4676 net.cpp:148] Top shape: 1 1 1000 (1000)
I0925 23:29:31.113600  4682 net.cpp:217] lstm2_gate_input_1 needs backward computation.
I0925 23:29:31.113606  4676 net.cpp:156] Memory required for data: 90020
I0925 23:29:31.113610  4682 net.cpp:217] lstm2_transform_1 needs backward computation.
I0925 23:29:31.113615  4676 layer_factory.hpp:77] Creating layer lstm2_
I0925 23:29:31.113620  4682 net.cpp:219] lstm2_h_conted_0 does not need backward computation.
I0925 23:29:31.113628  4676 net.cpp:91] Creating Layer lstm2_
I0925 23:29:31.113629  4682 net.cpp:217] lstm2_W_xc_x_slice needs backward computation.
I0925 23:29:31.113651  4682 net.cpp:217] lstm2_x_transform needs backward computation.
I0925 23:29:31.113646  4670 net.cpp:141] Setting up cont_1_lstm2_cont_slice_0_split
I0925 23:29:31.113646  4676 net.cpp:425] lstm2_ <- c_1
I0925 23:29:31.113661  4682 net.cpp:219] cont_1_lstm2_cont_slice_0_split does not need backward computation.
I0925 23:29:31.113688  4676 net.cpp:399] lstm2_ -> c_T
I0925 23:29:31.113694  4682 net.cpp:219] lstm2_cont_slice does not need backward computation.
I0925 23:29:31.113670  4670 net.cpp:148] Top shape: 1 1 (1)
I0925 23:29:31.113735  4682 net.cpp:219] lstm2_ does not need backward computation.
I0925 23:29:31.113698  4656 net.cpp:141] Setting up lstm2_
I0925 23:29:31.113747  4670 net.cpp:148] Top shape: 1 1 (1)
I0925 23:29:31.113745  4682 net.cpp:219] lstm2_ does not need backward computation.
I0925 23:29:31.113756  4670 net.cpp:156] Memory required for data: 14020
I0925 23:29:31.113761  4682 net.cpp:261] This network produces output c_T
I0925 23:29:31.113765  4670 layer_factory.hpp:77] Creating layer lstm2_x_transform
I0925 23:29:31.113767  4656 net.cpp:148] Top shape: 1 1 1000 (1000)
I0925 23:29:31.113771  4682 net.cpp:261] This network produces output h_pseudoloss
I0925 23:29:31.113785  4656 net.cpp:156] Memory required for data: 94020
I0925 23:29:31.113786  4676 net.cpp:141] Setting up lstm2_
I0925 23:29:31.113793  4656 layer_factory.hpp:77] Creating layer lstm2_h_concat
I0925 23:29:31.113795  4670 net.cpp:91] Creating Layer lstm2_x_transform
I0925 23:29:31.113803  4656 net.cpp:91] Creating Layer lstm2_h_concat
I0925 23:29:31.113804  4676 net.cpp:148] Top shape: 1 1 1000 (1000)
I0925 23:29:31.113811  4656 net.cpp:425] lstm2_h_concat <- h_1
I0925 23:29:31.113806  4682 net.cpp:274] Network initialization done.
I0925 23:29:31.113806  4670 net.cpp:425] lstm2_x_transform <- x
I0925 23:29:31.113824  4656 net.cpp:399] lstm2_h_concat -> h
I0925 23:29:31.113818  4676 net.cpp:156] Memory required for data: 94020
I0925 23:29:31.113842  4670 net.cpp:399] lstm2_x_transform -> W_xc_x
I0925 23:29:31.113843  4676 layer_factory.hpp:77] Creating layer lstm2_h_concat
I0925 23:29:31.113872  4676 net.cpp:91] Creating Layer lstm2_h_concat
I0925 23:29:31.113878  4676 net.cpp:425] lstm2_h_concat <- h_1
I0925 23:29:31.113886  4676 net.cpp:399] lstm2_h_concat -> h
I0925 23:29:31.113885  4682 recurrent_layer.cpp:150] Adding parameter 0: W_xc
I0925 23:29:31.113895  4682 recurrent_layer.cpp:150] Adding parameter 1: b_c
I0925 23:29:31.113903  4682 recurrent_layer.cpp:150] Adding parameter 2: W_hc
I0925 23:29:31.148459  4656 net.cpp:141] Setting up lstm2_h_concat
I0925 23:29:31.148526  4656 net.cpp:148] Top shape: 1 1 1000 (1000)
I0925 23:29:31.148540  4656 net.cpp:156] Memory required for data: 98020
I0925 23:29:31.148555  4656 layer_factory.hpp:77] Creating layer h_pseudoloss
I0925 23:29:31.148582  4656 net.cpp:91] Creating Layer h_pseudoloss
I0925 23:29:31.148594  4656 net.cpp:425] h_pseudoloss <- h
I0925 23:29:31.148615  4656 net.cpp:399] h_pseudoloss -> h_pseudoloss
I0925 23:29:31.161047  4676 net.cpp:141] Setting up lstm2_h_concat
I0925 23:29:31.161101  4676 net.cpp:148] Top shape: 1 1 1000 (1000)
I0925 23:29:31.161108  4676 net.cpp:156] Memory required for data: 98020
I0925 23:29:31.161114  4676 layer_factory.hpp:77] Creating layer h_pseudoloss
I0925 23:29:31.161129  4676 net.cpp:91] Creating Layer h_pseudoloss
I0925 23:29:31.161137  4676 net.cpp:425] h_pseudoloss <- h
I0925 23:29:31.161152  4676 net.cpp:399] h_pseudoloss -> h_pseudoloss
I0925 23:29:31.161170  4696 net.cpp:141] Setting up lstm2_transform_1
I0925 23:29:31.161188  4696 net.cpp:148] Top shape: 1 1 4000 (4000)
I0925 23:29:31.161193  4696 net.cpp:156] Memory required for data: 66020
I0925 23:29:31.161207  4696 layer_factory.hpp:77] Creating layer lstm2_gate_input_1
I0925 23:29:31.161222  4696 net.cpp:91] Creating Layer lstm2_gate_input_1
I0925 23:29:31.161222  4648 net.cpp:141] Setting up lstm2_transform_1
I0925 23:29:31.161228  4696 net.cpp:425] lstm2_gate_input_1 <- W_hc_h_0
I0925 23:29:31.161243  4648 net.cpp:148] Top shape: 1 1 4000 (4000)
I0925 23:29:31.161247  4696 net.cpp:425] lstm2_gate_input_1 <- W_xc_x_1
I0925 23:29:31.161248  4648 net.cpp:156] Memory required for data: 66020
I0925 23:29:31.161259  4696 net.cpp:399] lstm2_gate_input_1 -> gate_input_1
I0925 23:29:31.161262  4648 layer_factory.hpp:77] Creating layer lstm2_gate_input_1
I0925 23:29:31.161273  4648 net.cpp:91] Creating Layer lstm2_gate_input_1
I0925 23:29:31.161279  4648 net.cpp:425] lstm2_gate_input_1 <- W_hc_h_0
I0925 23:29:31.161285  4648 net.cpp:425] lstm2_gate_input_1 <- W_xc_x_1
I0925 23:29:31.161283  4682 net.cpp:141] Setting up lstm2
I0925 23:29:31.161296  4648 net.cpp:399] lstm2_gate_input_1 -> gate_input_1
I0925 23:29:31.161303  4682 net.cpp:148] Top shape: 1 1 1000 (1000)
I0925 23:29:31.161311  4682 net.cpp:156] Memory required for data: 36412
I0925 23:29:31.161316  4696 net.cpp:141] Setting up lstm2_gate_input_1
I0925 23:29:31.161330  4696 net.cpp:148] Top shape: 1 1 4000 (4000)
I0925 23:29:31.161334  4696 net.cpp:156] Memory required for data: 82020
I0925 23:29:31.161335  4682 layer_factory.hpp:77] Creating layer predict
I0925 23:29:31.161340  4696 layer_factory.hpp:77] Creating layer lstm2_unit_1
I0925 23:29:31.161345  4648 net.cpp:141] Setting up lstm2_gate_input_1
I0925 23:29:31.161353  4682 net.cpp:91] Creating Layer predict
I0925 23:29:31.161350  4696 net.cpp:91] Creating Layer lstm2_unit_1
I0925 23:29:31.161363  4696 net.cpp:425] lstm2_unit_1 <- c_0
I0925 23:29:31.161363  4682 net.cpp:425] predict <- lstm2
I0925 23:29:31.161370  4696 net.cpp:425] lstm2_unit_1 <- gate_input_1
I0925 23:29:31.161370  4648 net.cpp:148] Top shape: 1 1 4000 (4000)
I0925 23:29:31.161376  4696 net.cpp:425] lstm2_unit_1 <- cont_1_lstm2_cont_slice_0_split_1
I0925 23:29:31.161376  4682 net.cpp:399] predict -> predict
I0925 23:29:31.161378  4648 net.cpp:156] Memory required for data: 82020
I0925 23:29:31.161383  4696 net.cpp:399] lstm2_unit_1 -> c_1
I0925 23:29:31.161387  4648 layer_factory.hpp:77] Creating layer lstm2_unit_1
I0925 23:29:31.161396  4696 net.cpp:399] lstm2_unit_1 -> h_1
…
I0925 23:29:31.245128  4696 net.cpp:399] lstm2_ -> c_T
I0925 23:29:31.245131  4656 net.cpp:219] lstm2_ does not need backward computation.
I0925 23:29:31.245141  4656 net.cpp:219] lstm2_ does not need backward computation.
I0925 23:29:31.245147  4656 net.cpp:261] This network produces output c_T
I0925 23:29:31.245148  4676 net.cpp:274] Network initialization done.
I0925 23:29:31.245157  4656 net.cpp:261] This network produces output h_pseudoloss
I0925 23:29:31.245183  4656 net.cpp:274] Network initialization done.
I0925 23:29:31.245198  4696 net.cpp:141] Setting up lstm2_
I0925 23:29:31.245213  4696 net.cpp:148] Top shape: 1 1 1000 (1000)
I0925 23:29:31.245219  4696 net.cpp:156] Memory required for data: 94020
I0925 23:29:31.245228  4696 layer_factory.hpp:77] Creating layer lstm2_h_concat
I0925 23:29:31.245229  4676 recurrent_layer.cpp:150] Adding parameter 0: W_xc
I0925 23:29:31.245240  4676 recurrent_layer.cpp:150] Adding parameter 1: b_c
I0925 23:29:31.245244  4696 net.cpp:91] Creating Layer lstm2_h_concat
I0925 23:29:31.245249  4676 recurrent_layer.cpp:150] Adding parameter 2: W_hc
I0925 23:29:31.245252  4696 net.cpp:425] lstm2_h_concat <- h_1
I0925 23:29:31.245249  4656 recurrent_layer.cpp:150] Adding parameter 0: W_xc
I0925 23:29:31.245270  4656 recurrent_layer.cpp:150] Adding parameter 1: b_c
I0925 23:29:31.245271  4696 net.cpp:399] lstm2_h_concat -> h
I0925 23:29:31.245285  4656 recurrent_layer.cpp:150] Adding parameter 2: W_hc
I0925 23:29:31.245468  4708 net.cpp:141] Setting up lstm2_x_transform
I0925 23:29:31.245486  4708 net.cpp:148] Top shape: 1 1 4000 (4000)
I0925 23:29:31.245492  4708 net.cpp:156] Memory required for data: 30020
I0925 23:29:31.245512  4708 layer_factory.hpp:77] Creating layer lstm2_W_xc_x_slice
I0925 23:29:31.245530  4708 net.cpp:91] Creating Layer lstm2_W_xc_x_slice
I0925 23:29:31.245539  4708 net.cpp:425] lstm2_W_xc_x_slice <- W_xc_x
I0925 23:29:31.245551  4708 net.cpp:399] lstm2_W_xc_x_slice -> W_xc_x_1
I0925 23:29:31.245659  4696 net.cpp:141] Setting up lstm2_h_concat
I0925 23:29:31.245707  4696 net.cpp:148] Top shape: 1 1 1000 (1000)
I0925 23:29:31.245718  4696 net.cpp:156] Memory required for data: 98020
I0925 23:29:31.245728  4696 layer_factory.hpp:77] Creating layer h_pseudoloss
I0925 23:29:31.245745  4696 net.cpp:91] Creating Layer h_pseudoloss
I0925 23:29:31.245754  4696 net.cpp:425] h_pseudoloss <- h
I0925 23:29:31.245765  4696 net.cpp:399] h_pseudoloss -> h_pseudoloss
I0925 23:29:31.245815  4648 net.cpp:141] Setting up lstm2_unit_1
I0925 23:29:31.245836  4648 net.cpp:148] Top shape: 1 1 1000 (1000)
I0925 23:29:31.245847  4648 net.cpp:148] Top shape: 1 1 1000 (1000)
I0925 23:29:31.245856  4648 net.cpp:156] Memory required for data: 90020
I0925 23:29:31.245864  4648 layer_factory.hpp:77] Creating layer lstm2_
I0925 23:29:31.245877  4648 net.cpp:91] Creating Layer lstm2_
I0925 23:29:31.245877  4676 net.cpp:141] Setting up lstm2
I0925 23:29:31.245887  4648 net.cpp:425] lstm2_ <- c_1
I0925 23:29:31.245899  4676 net.cpp:148] Top shape: 1 1 1000 (1000)
I0925 23:29:31.245900  4648 net.cpp:399] lstm2_ -> c_T
I0925 23:29:31.245923  4676 net.cpp:156] Memory required for data: 36412
I0925 23:29:31.245952  4676 layer_factory.hpp:77] Creating layer predict
I0925 23:29:31.245975  4676 net.cpp:91] Creating Layer predict
I0925 23:29:31.245977  4648 net.cpp:141] Setting up lstm2_
I0925 23:29:31.246001  4676 net.cpp:425] predict <- lstm2
I0925 23:29:31.246009  4648 net.cpp:148] Top shape: 1 1 1000 (1000)
I0925 23:29:31.246017  4648 net.cpp:156] Memory required for data: 94020
I0925 23:29:31.246019  4676 net.cpp:399] predict -> predict
I0925 23:29:31.246026  4648 layer_factory.hpp:77] Creating layer lstm2_h_concat
I0925 23:29:31.246043  4648 net.cpp:91] Creating Layer lstm2_h_concat
I0925 23:29:31.246053  4648 net.cpp:425] lstm2_h_concat <- h_1
I0925 23:29:31.246065  4648 net.cpp:399] lstm2_h_concat -> h
I0925 23:29:31.246139  4648 net.cpp:141] Setting up lstm2_h_concat
I0925 23:29:31.246152  4648 net.cpp:148] Top shape: 1 1 1000 (1000)
I0925 23:29:31.246160  4648 net.cpp:156] Memory required for data: 98020
I0925 23:29:31.246168  4648 layer_factory.hpp:77] Creating layer h_pseudoloss
I0925 23:29:31.246181  4648 net.cpp:91] Creating Layer h_pseudoloss
I0925 23:29:31.246187  4648 net.cpp:425] h_pseudoloss <- h
I0925 23:29:31.246202  4648 net.cpp:399] h_pseudoloss -> h_pseudoloss
I0925 23:29:31.246346  4648 net.cpp:141] Setting up h_pseudoloss
…
I0925 23:29:31.246948  4696 net.cpp:219] lstm2_ does not need backward computation.
I0925 23:29:31.246955  4696 net.cpp:261] This network produces output c_T
I0925 23:29:31.246963  4696 net.cpp:261] This network produces output h_pseudoloss
I0925 23:29:31.247010  4696 net.cpp:274] Network initialization done.
I0925 23:29:31.247081  4696 recurrent_layer.cpp:150] Adding parameter 0: W_xc
I0925 23:29:31.247092  4696 recurrent_layer.cpp:150] Adding parameter 1: b_c
I0925 23:29:31.247098  4696 recurrent_layer.cpp:150] Adding parameter 2: W_hc
I0925 23:29:31.331957  4648 net.cpp:141] Setting up lstm2
I0925 23:29:31.332054  4648 net.cpp:148] Top shape: 1 1 1000 (1000)
I0925 23:29:31.332064  4648 net.cpp:156] Memory required for data: 36412
I0925 23:29:31.332105  4648 layer_factory.hpp:77] Creating layer predict
I0925 23:29:31.332139  4648 net.cpp:91] Creating Layer predict
I0925 23:29:31.332151  4648 net.cpp:425] predict <- lstm2
I0925 23:29:31.332168  4648 net.cpp:399] predict -> predict
I0925 23:29:31.419402  4670 net.cpp:141] Setting up lstm2_x_transform
I0925 23:29:31.419457  4670 net.cpp:148] Top shape: 1 1 4000 (4000)
I0925 23:29:31.419466  4670 net.cpp:156] Memory required for data: 30020
I0925 23:29:31.419495  4670 layer_factory.hpp:77] Creating layer lstm2_W_xc_x_slice
I0925 23:29:31.419517  4670 net.cpp:91] Creating Layer lstm2_W_xc_x_slice
I0925 23:29:31.419526  4670 net.cpp:425] lstm2_W_xc_x_slice <- W_xc_x
I0925 23:29:31.419540  4670 net.cpp:399] lstm2_W_xc_x_slice -> W_xc_x_1
I0925 23:29:31.419616  4670 net.cpp:141] Setting up lstm2_W_xc_x_slice
I0925 23:29:31.419632  4670 net.cpp:148] Top shape: 1 1 4000 (4000)
I0925 23:29:31.419639  4670 net.cpp:156] Memory required for data: 46020
I0925 23:29:31.419646  4670 layer_factory.hpp:77] Creating layer lstm2_h_conted_0
I0925 23:29:31.419661  4670 net.cpp:91] Creating Layer lstm2_h_conted_0
I0925 23:29:31.419668  4670 net.cpp:425] lstm2_h_conted_0 <- h_0
I0925 23:29:31.419684  4670 net.cpp:425] lstm2_h_conted_0 <- cont_1_lstm2_cont_slice_0_split_0
I0925 23:29:31.419697  4670 net.cpp:399] lstm2_h_conted_0 -> h_conted_0
I0925 23:29:31.419857  4670 net.cpp:141] Setting up lstm2_h_conted_0
I0925 23:29:31.419872  4670 net.cpp:148] Top shape: 1 1 1000 (1000)
I0925 23:29:31.419878  4670 net.cpp:156] Memory required for data: 50020
I0925 23:29:31.419885  4670 layer_factory.hpp:77] Creating layer lstm2_transform_1
I0925 23:29:31.419903  4670 net.cpp:91] Creating Layer lstm2_transform_1
I0925 23:29:31.419910  4670 net.cpp:425] lstm2_transform_1 <- h_conted_0
I0925 23:29:31.419924  4670 net.cpp:399] lstm2_transform_1 -> W_hc_h_0
I0925 23:29:31.431767  4652 net.cpp:141] Setting up predict
I0925 23:29:31.431825  4652 net.cpp:148] Top shape: 1 1 46168 (46168)
I0925 23:29:31.431835  4652 net.cpp:156] Memory required for data: 221084
I0925 23:29:31.431860  4652 layer_factory.hpp:77] Creating layer probs
I0925 23:29:31.431861  4696 net.cpp:141] Setting up lstm2
I0925 23:29:31.431890  4652 net.cpp:91] Creating Layer probs
I0925 23:29:31.431902  4652 net.cpp:425] probs <- predict
I0925 23:29:31.431910  4696 net.cpp:148] Top shape: 1 1 1000 (1000)
I0925 23:29:31.431917  4652 net.cpp:399] probs -> probs
I0925 23:29:31.431921  4696 net.cpp:156] Memory required for data: 36412
I0925 23:29:31.431957  4696 layer_factory.hpp:77] Creating layer predict
I0925 23:29:31.431983  4696 net.cpp:91] Creating Layer predict
I0925 23:29:31.431996  4696 net.cpp:425] predict <- lstm2
I0925 23:29:31.432013  4696 net.cpp:399] predict -> predict
I0925 23:29:31.626390  4708 net.cpp:141] Setting up lstm2_h_conted_0
I0925 23:29:31.626444  4708 net.cpp:148] Top shape: 1 1 1000 (1000)
I0925 23:29:31.626451  4708 net.cpp:156] Memory required for data: 50020
I0925 23:29:31.626462  4708 layer_factory.hpp:77] Creating layer lstm2_transform_1
I0925 23:29:31.629990  4708 net.cpp:91] Creating Layer lstm2_transform_1
I0925 23:29:31.630053  4708 net.cpp:425] lstm2_transform_1 <- h_conted_0
I0925 23:29:31.630071  4708 net.cpp:399] lstm2_transform_1 -> W_hc_h_0
I0925 23:29:31.630655  4660 net.cpp:141] Setting up predict
I0925 23:29:31.630694  4660 net.cpp:148] Top shape: 1 1 46168 (46168)
I0925 23:29:31.630703  4660 net.cpp:156] Memory required for data: 221084
I0925 23:29:31.630731  4660 layer_factory.hpp:77] Creating layer probs
I0925 23:29:31.630764  4660 net.cpp:91] Creating Layer probs
I0925 23:29:31.630784  4660 net.cpp:425] probs <- predict
I0925 23:29:31.630802  4660 net.cpp:399] probs -> probs
I0925 23:29:31.637740  4670 net.cpp:141] Setting up lstm2_transform_1
I0925 23:29:31.637840  4670 net.cpp:148] Top shape: 1 1 4000 (4000)
I0925 23:29:31.637851  4670 net.cpp:156] Memory required for data: 66020
I0925 23:29:31.637930  4670 layer_factory.hpp:77] Creating layer lstm2_gate_input_1
I0925 23:29:31.637990  4670 net.cpp:91] Creating Layer lstm2_gate_input_1
I0925 23:29:31.638005  4670 net.cpp:425] lstm2_gate_input_1 <- W_hc_h_0
I0925 23:29:31.638018  4670 net.cpp:425] lstm2_gate_input_1 <- W_xc_x_1
I0925 23:29:31.638034  4670 net.cpp:399] lstm2_gate_input_1 -> gate_input_1
I0925 23:29:31.660802  4670 net.cpp:141] Setting up lstm2_gate_input_1
I0925 23:29:31.660861  4670 net.cpp:148] Top shape: 1 1 4000 (4000)
I0925 23:29:31.660868  4670 net.cpp:156] Memory required for data: 82020
I0925 23:29:31.660877  4670 layer_factory.hpp:77] Creating layer lstm2_unit_1
I0925 23:29:31.661856  4670 net.cpp:91] Creating Layer lstm2_unit_1
I0925 23:29:31.661880  4670 net.cpp:425] lstm2_unit_1 <- c_0
I0925 23:29:31.661896  4670 net.cpp:425] lstm2_unit_1 <- gate_input_1
I0925 23:29:31.661907  4670 net.cpp:425] lstm2_unit_1 <- cont_1_lstm2_cont_slice_0_split_1
I0925 23:29:31.661921  4670 net.cpp:399] lstm2_unit_1 -> c_1
I0925 23:29:31.661943  4670 net.cpp:399] lstm2_unit_1 -> h_1
I0925 23:29:31.671911  4704 net.cpp:141] Setting up predict
I0925 23:29:31.671973  4704 net.cpp:148] Top shape: 1 1 46168 (46168)
I0925 23:29:31.671983  4704 net.cpp:156] Memory required for data: 221084
I0925 23:29:31.671988  4682 net.cpp:141] Setting up predict
I0925 23:29:31.672037  4682 net.cpp:148] Top shape: 1 1 46168 (46168)
I0925 23:29:31.672047  4682 net.cpp:156] Memory required for data: 221084
I0925 23:29:31.672047  4704 layer_factory.hpp:77] Creating layer probs
I0925 23:29:31.672086  4682 layer_factory.hpp:77] Creating layer probs
I0925 23:29:31.672111  4682 net.cpp:91] Creating Layer probs
I0925 23:29:31.672113  4704 net.cpp:91] Creating Layer probs
I0925 23:29:31.672124  4682 net.cpp:425] probs <- predict
I0925 23:29:31.672142  4682 net.cpp:399] probs -> probs
I0925 23:29:31.672145  4704 net.cpp:425] probs <- predict
I0925 23:29:31.672166  4704 net.cpp:399] probs -> probs
I0925 23:29:31.672653  4670 net.cpp:141] Setting up lstm2_unit_1
I0925 23:29:31.672674  4670 net.cpp:148] Top shape: 1 1 1000 (1000)
I0925 23:29:31.672684  4670 net.cpp:148] Top shape: 1 1 1000 (1000)
I0925 23:29:31.672693  4670 net.cpp:156] Memory required for data: 90020
I0925 23:29:31.672700  4670 layer_factory.hpp:77] Creating layer lstm2_
I0925 23:29:31.672714  4670 net.cpp:91] Creating Layer lstm2_
I0925 23:29:31.672724  4670 net.cpp:425] lstm2_ <- c_1
I0925 23:29:31.672751  4670 net.cpp:399] lstm2_ -> c_T
I0925 23:29:31.672828  4670 net.cpp:141] Setting up lstm2_
I0925 23:29:31.672843  4670 net.cpp:148] Top shape: 1 1 1000 (1000)
I0925 23:29:31.672852  4670 net.cpp:156] Memory required for data: 94020
I0925 23:29:31.672859  4670 layer_factory.hpp:77] Creating layer lstm2_h_concat
I0925 23:29:31.672893  4670 net.cpp:91] Creating Layer lstm2_h_concat
I0925 23:29:31.672901  4670 net.cpp:425] lstm2_h_concat <- h_1
I0925 23:29:31.672914  4670 net.cpp:399] lstm2_h_concat -> h
I0925 23:29:31.672981  4670 net.cpp:141] Setting up lstm2_h_concat
I0925 23:29:31.672996  4670 net.cpp:148] Top shape: 1 1 1000 (1000)
I0925 23:29:31.673002  4670 net.cpp:156] Memory required for data: 98020
I0925 23:29:31.673010  4670 layer_factory.hpp:77] Creating layer h_pseudoloss
I0925 23:29:31.673032  4670 net.cpp:91] Creating Layer h_pseudoloss
I0925 23:29:31.673040  4670 net.cpp:425] h_pseudoloss <- h
I0925 23:29:31.673072  4670 net.cpp:399] h_pseudoloss -> h_pseudoloss
I0925 23:29:31.673418  4670 net.cpp:141] Setting up h_pseudoloss
…
I0925 23:29:31.673588  4670 net.cpp:219] lstm2_ does not need backward computation.
I0925 23:29:31.673594  4670 net.cpp:261] This network produces output c_T
I0925 23:29:31.673601  4670 net.cpp:261] This network produces output h_pseudoloss
I0925 23:29:31.673630  4670 net.cpp:274] Network initialization done.
I0925 23:29:31.673816  4670 recurrent_layer.cpp:150] Adding parameter 0: W_xc
I0925 23:29:31.673828  4670 recurrent_layer.cpp:150] Adding parameter 1: b_c
I0925 23:29:31.673836  4670 recurrent_layer.cpp:150] Adding parameter 2: W_hc
I0925 23:29:31.674180  4670 net.cpp:141] Setting up lstm2
I0925 23:29:31.674196  4670 net.cpp:148] Top shape: 1 1 1000 (1000)
I0925 23:29:31.674201  4670 net.cpp:156] Memory required for data: 36412
I0925 23:29:31.674218  4670 layer_factory.hpp:77] Creating layer predict
I0925 23:29:31.674239  4670 net.cpp:91] Creating Layer predict
I0925 23:29:31.674253  4670 net.cpp:425] predict <- lstm2
I0925 23:29:31.674263  4670 net.cpp:399] predict -> predict
I0925 23:29:31.765902  4676 net.cpp:141] Setting up predict
I0925 23:29:31.765957  4676 net.cpp:148] Top shape: 1 1 46168 (46168)
I0925 23:29:31.765966  4676 net.cpp:156] Memory required for data: 221084
I0925 23:29:31.765983  4676 layer_factory.hpp:77] Creating layer probs
I0925 23:29:31.766001  4676 net.cpp:91] Creating Layer probs
I0925 23:29:31.766010  4676 net.cpp:425] probs <- predict
I0925 23:29:31.766022  4676 net.cpp:399] probs -> probs
I0925 23:29:31.767487  4708 net.cpp:141] Setting up lstm2_transform_1
I0925 23:29:31.767508  4708 net.cpp:148] Top shape: 1 1 4000 (4000)
I0925 23:29:31.767513  4708 net.cpp:156] Memory required for data: 66020
I0925 23:29:31.767532  4708 layer_factory.hpp:77] Creating layer lstm2_gate_input_1
I0925 23:29:31.767567  4708 net.cpp:91] Creating Layer lstm2_gate_input_1
I0925 23:29:31.767580  4708 net.cpp:425] lstm2_gate_input_1 <- W_hc_h_0
I0925 23:29:31.767592  4708 net.cpp:425] lstm2_gate_input_1 <- W_xc_x_1
I0925 23:29:31.767607  4708 net.cpp:399] lstm2_gate_input_1 -> gate_input_1
I0925 23:29:31.768180  4708 net.cpp:141] Setting up lstm2_gate_input_1
I0925 23:29:31.768195  4708 net.cpp:148] Top shape: 1 1 4000 (4000)
I0925 23:29:31.768199  4708 net.cpp:156] Memory required for data: 82020
I0925 23:29:31.768205  4708 layer_factory.hpp:77] Creating layer lstm2_unit_1
I0925 23:29:31.768218  4708 net.cpp:91] Creating Layer lstm2_unit_1
I0925 23:29:31.768223  4708 net.cpp:425] lstm2_unit_1 <- c_0
I0925 23:29:31.768229  4708 net.cpp:425] lstm2_unit_1 <- gate_input_1
I0925 23:29:31.768234  4708 net.cpp:425] lstm2_unit_1 <- cont_1_lstm2_cont_slice_0_split_1
I0925 23:29:31.768241  4708 net.cpp:399] lstm2_unit_1 -> c_1
I0925 23:29:31.768250  4708 net.cpp:399] lstm2_unit_1 -> h_1
I0925 23:29:31.779103  4708 net.cpp:141] Setting up lstm2_unit_1
I0925 23:29:31.779551  4708 net.cpp:148] Top shape: 1 1 1000 (1000)
I0925 23:29:31.779706  4708 net.cpp:148] Top shape: 1 1 1000 (1000)
I0925 23:29:31.779837  4708 net.cpp:156] Memory required for data: 90020
I0925 23:29:31.779973  4708 layer_factory.hpp:77] Creating layer lstm2_
I0925 23:29:31.780103  4708 net.cpp:91] Creating Layer lstm2_
I0925 23:29:31.780261  4708 net.cpp:425] lstm2_ <- c_1
I0925 23:29:31.780390  4708 net.cpp:399] lstm2_ -> c_T
I0925 23:29:31.783366  4708 net.cpp:141] Setting up lstm2_
I0925 23:29:31.783602  4708 net.cpp:148] Top shape: 1 1 1000 (1000)
I0925 23:29:31.783725  4708 net.cpp:156] Memory required for data: 94020
I0925 23:29:31.783844  4708 layer_factory.hpp:77] Creating layer lstm2_h_concat
I0925 23:29:31.783974  4708 net.cpp:91] Creating Layer lstm2_h_concat
I0925 23:29:31.784128  4708 net.cpp:425] lstm2_h_concat <- h_1
I0925 23:29:31.784250  4708 net.cpp:399] lstm2_h_concat -> h
I0925 23:29:31.804941  4708 net.cpp:141] Setting up lstm2_h_concat
I0925 23:29:31.805392  4708 net.cpp:148] Top shape: 1 1 1000 (1000)
I0925 23:29:31.805506  4708 net.cpp:156] Memory required for data: 98020
I0925 23:29:31.805621  4708 layer_factory.hpp:77] Creating layer h_pseudoloss
I0925 23:29:31.805649  4708 net.cpp:91] Creating Layer h_pseudoloss
I0925 23:29:31.805661  4708 net.cpp:425] h_pseudoloss <- h
I0925 23:29:31.805678  4708 net.cpp:399] h_pseudoloss -> h_pseudoloss
I0925 23:29:31.808193  4708 net.cpp:141] Setting up h_pseudoloss
…
I0925 23:29:31.808430  4708 net.cpp:219] lstm2_ does not need backward computation.
I0925 23:29:31.808439  4708 net.cpp:261] This network produces output c_T
I0925 23:29:31.808447  4708 net.cpp:261] This network produces output h_pseudoloss
I0925 23:29:31.808477  4708 net.cpp:274] Network initialization done.
I0925 23:29:31.808580  4708 recurrent_layer.cpp:150] Adding parameter 0: W_xc
I0925 23:29:31.808591  4708 recurrent_layer.cpp:150] Adding parameter 1: b_c
I0925 23:29:31.808599  4708 recurrent_layer.cpp:150] Adding parameter 2: W_hc
I0925 23:29:31.808820  4708 net.cpp:141] Setting up lstm2
I0925 23:29:31.808841  4708 net.cpp:148] Top shape: 1 1 1000 (1000)
I0925 23:29:31.808850  4708 net.cpp:156] Memory required for data: 36412
I0925 23:29:31.808878  4708 layer_factory.hpp:77] Creating layer predict
I0925 23:29:31.808898  4708 net.cpp:91] Creating Layer predict
I0925 23:29:31.808910  4708 net.cpp:425] predict <- lstm2
I0925 23:29:31.808924  4708 net.cpp:399] predict -> predict
I0925 23:29:31.903791  4656 net.cpp:141] Setting up predict
I0925 23:29:31.904222  4656 net.cpp:148] Top shape: 1 1 46168 (46168)
I0925 23:29:31.904388  4656 net.cpp:156] Memory required for data: 221084
I0925 23:29:31.904541  4656 layer_factory.hpp:77] Creating layer probs
I0925 23:29:31.904676  4656 net.cpp:91] Creating Layer probs
I0925 23:29:31.904795  4656 net.cpp:425] probs <- predict
I0925 23:29:31.904922  4656 net.cpp:399] probs -> probs
I0925 23:29:32.023018  4648 net.cpp:141] Setting up predict
I0925 23:29:32.023082  4648 net.cpp:148] Top shape: 1 1 46168 (46168)
I0925 23:29:32.023092  4648 net.cpp:156] Memory required for data: 221084
I0925 23:29:32.023114  4648 layer_factory.hpp:77] Creating layer probs
I0925 23:29:32.023136  4648 net.cpp:91] Creating Layer probs
I0925 23:29:32.023150  4648 net.cpp:425] probs <- predict
I0925 23:29:32.023166  4648 net.cpp:399] probs -> probs
I0925 23:29:32.023190  4696 net.cpp:141] Setting up predict
I0925 23:29:32.023238  4696 net.cpp:148] Top shape: 1 1 46168 (46168)
I0925 23:29:32.023247  4696 net.cpp:156] Memory required for data: 221084
I0925 23:29:32.023272  4696 layer_factory.hpp:77] Creating layer probs
I0925 23:29:32.023294  4696 net.cpp:91] Creating Layer probs
I0925 23:29:32.023321  4696 net.cpp:425] probs <- predict
I0925 23:29:32.023337  4696 net.cpp:399] probs -> probs
I0925 23:29:32.119206  4660 net.cpp:141] Setting up probs
I0925 23:29:32.119263  4660 net.cpp:148] Top shape: 1 1 46168 (46168)
I0925 23:29:32.119273  4660 net.cpp:156] Memory required for data: 405756
I0925 23:29:32.119287  4660 net.cpp:219] probs does not need backward computation.
I0925 23:29:32.119298  4660 net.cpp:219] predict does not need backward computation.
I0925 23:29:32.119313  4660 net.cpp:219] lstm2 does not need backward computation.
I0925 23:29:32.119323  4660 net.cpp:219] concat does not need backward computation.
I0925 23:29:32.119333  4660 net.cpp:219] lstm1 does not need backward computation.
I0925 23:29:32.119343  4660 net.cpp:219] embedding does not need backward computation.
I0925 23:29:32.119350  4660 net.cpp:219] reshape_stage_indicator does not need backward computation.
I0925 23:29:32.119359  4660 net.cpp:219] reshape_frames does not need backward computation.
I0925 23:29:32.119366  4660 net.cpp:219] embed_encoder does not need backward computation.
I0925 23:29:32.119374  4660 net.cpp:219] cont_sentence_input_1_split does not need backward computation.
I0925 23:29:32.119384  4660 net.cpp:219] input does not need backward computation.
I0925 23:29:32.119390  4660 net.cpp:261] This network produces output probs
I0925 23:29:32.119415  4660 net.cpp:274] Network initialization done.
I0925 23:29:32.128877  4648 net.cpp:141] Setting up probs
I0925 23:29:32.128928  4648 net.cpp:148] Top shape: 1 1 46168 (46168)
I0925 23:29:32.128939  4648 net.cpp:156] Memory required for data: 405756
I0925 23:29:32.128952  4648 net.cpp:219] probs does not need backward computation.
I0925 23:29:32.128964  4648 net.cpp:219] predict does not need backward computation.
I0925 23:29:32.128978  4648 net.cpp:219] lstm2 does not need backward computation.
I0925 23:29:32.128988  4648 net.cpp:219] concat does not need backward computation.
I0925 23:29:32.128998  4648 net.cpp:219] lstm1 does not need backward computation.
I0925 23:29:32.129010  4648 net.cpp:219] embedding does not need backward computation.
I0925 23:29:32.129022  4648 net.cpp:219] reshape_stage_indicator does not need backward computation.
I0925 23:29:32.129032  4648 net.cpp:219] reshape_frames does not need backward computation.
I0925 23:29:32.129041  4648 net.cpp:219] embed_encoder does not need backward computation.
I0925 23:29:32.129053  4648 net.cpp:219] cont_sentence_input_1_split does not need backward computation.
I0925 23:29:32.129065  4648 net.cpp:219] input does not need backward computation.
I0925 23:29:32.129072  4648 net.cpp:261] This network produces output probs
I0925 23:29:32.129103  4648 net.cpp:274] Network initialization done.
I0925 23:29:32.129580  4656 net.cpp:141] Setting up probs
I0925 23:29:32.129600  4656 net.cpp:148] Top shape: 1 1 46168 (46168)
I0925 23:29:32.129608  4656 net.cpp:156] Memory required for data: 405756
I0925 23:29:32.129618  4656 net.cpp:219] probs does not need backward computation.
I0925 23:29:32.129629  4656 net.cpp:219] predict does not need backward computation.
I0925 23:29:32.129642  4656 net.cpp:219] lstm2 does not need backward computation.
I0925 23:29:32.129653  4656 net.cpp:219] concat does not need backward computation.
I0925 23:29:32.129664  4656 net.cpp:219] lstm1 does not need backward computation.
I0925 23:29:32.129676  4656 net.cpp:219] embedding does not need backward computation.
I0925 23:29:32.129686  4656 net.cpp:219] reshape_stage_indicator does not need backward computation.
I0925 23:29:32.129695  4656 net.cpp:219] reshape_frames does not need backward computation.
I0925 23:29:32.129705  4656 net.cpp:219] embed_encoder does not need backward computation.
I0925 23:29:32.129720  4656 net.cpp:219] cont_sentence_input_1_split does not need backward computation.
I0925 23:29:32.129732  4656 net.cpp:219] input does not need backward computation.
I0925 23:29:32.129741  4656 net.cpp:261] This network produces output probs
I0925 23:29:32.129766  4656 net.cpp:274] Network initialization done.
I0925 23:29:32.131891  4682 net.cpp:141] Setting up probs
I0925 23:29:32.131916  4682 net.cpp:148] Top shape: 1 1 46168 (46168)
I0925 23:29:32.131927  4682 net.cpp:156] Memory required for data: 405756
I0925 23:29:32.131935  4682 net.cpp:219] probs does not need backward computation.
I0925 23:29:32.131945  4682 net.cpp:219] predict does not need backward computation.
I0925 23:29:32.131953  4682 net.cpp:219] lstm2 does not need backward computation.
I0925 23:29:32.131963  4682 net.cpp:219] concat does not need backward computation.
I0925 23:29:32.131973  4682 net.cpp:219] lstm1 does not need backward computation.
I0925 23:29:32.131983  4682 net.cpp:219] embedding does not need backward computation.
I0925 23:29:32.131994  4682 net.cpp:219] reshape_stage_indicator does not need backward computation.
I0925 23:29:32.132002  4682 net.cpp:219] reshape_frames does not need backward computation.
I0925 23:29:32.132011  4682 net.cpp:219] embed_encoder does not need backward computation.
I0925 23:29:32.132020  4682 net.cpp:219] cont_sentence_input_1_split does not need backward computation.
I0925 23:29:32.132032  4682 net.cpp:219] input does not need backward computation.
I0925 23:29:32.132037  4682 net.cpp:261] This network produces output probs
I0925 23:29:32.132056  4682 net.cpp:274] Network initialization done.
I0925 23:29:32.133687  4704 net.cpp:141] Setting up probs
I0925 23:29:32.133734  4704 net.cpp:148] Top shape: 1 1 46168 (46168)
I0925 23:29:32.133744  4704 net.cpp:156] Memory required for data: 405756
I0925 23:29:32.133754  4704 net.cpp:219] probs does not need backward computation.
I0925 23:29:32.133764  4704 net.cpp:219] predict does not need backward computation.
I0925 23:29:32.133787  4704 net.cpp:219] lstm2 does not need backward computation.
I0925 23:29:32.133812  4704 net.cpp:219] concat does not need backward computation.
I0925 23:29:32.133823  4704 net.cpp:219] lstm1 does not need backward computation.
I0925 23:29:32.133833  4704 net.cpp:219] embedding does not need backward computation.
I0925 23:29:32.133841  4704 net.cpp:219] reshape_stage_indicator does not need backward computation.
I0925 23:29:32.133849  4704 net.cpp:219] reshape_frames does not need backward computation.
I0925 23:29:32.133858  4704 net.cpp:219] embed_encoder does not need backward computation.
I0925 23:29:32.133867  4704 net.cpp:219] cont_sentence_input_1_split does not need backward computation.
I0925 23:29:32.133877  4704 net.cpp:219] input does not need backward computation.
I0925 23:29:32.133883  4704 net.cpp:261] This network produces output probs
I0925 23:29:32.133910  4704 net.cpp:274] Network initialization done.
I0925 23:29:32.135035  4676 net.cpp:141] Setting up probs
I0925 23:29:32.135058  4676 net.cpp:148] Top shape: 1 1 46168 (46168)
I0925 23:29:32.135066  4676 net.cpp:156] Memory required for data: 405756
I0925 23:29:32.135074  4676 net.cpp:219] probs does not need backward computation.
I0925 23:29:32.135082  4676 net.cpp:219] predict does not need backward computation.
I0925 23:29:32.135092  4676 net.cpp:219] lstm2 does not need backward computation.
I0925 23:29:32.135102  4676 net.cpp:219] concat does not need backward computation.
I0925 23:29:32.135113  4676 net.cpp:219] lstm1 does not need backward computation.
I0925 23:29:32.135121  4676 net.cpp:219] embedding does not need backward computation.
I0925 23:29:32.135129  4676 net.cpp:219] reshape_stage_indicator does not need backward computation.
I0925 23:29:32.135138  4676 net.cpp:219] reshape_frames does not need backward computation.
I0925 23:29:32.135145  4676 net.cpp:219] embed_encoder does not need backward computation.
I0925 23:29:32.135171  4676 net.cpp:219] cont_sentence_input_1_split does not need backward computation.
I0925 23:29:32.135182  4676 net.cpp:219] input does not need backward computation.
I0925 23:29:32.135190  4676 net.cpp:261] This network produces output probs
I0925 23:29:32.135213  4676 net.cpp:274] Network initialization done.
I0925 23:29:32.138284  4696 net.cpp:141] Setting up probs
I0925 23:29:32.138324  4696 net.cpp:148] Top shape: 1 1 46168 (46168)
I0925 23:29:32.138332  4696 net.cpp:156] Memory required for data: 405756
I0925 23:29:32.138342  4696 net.cpp:219] probs does not need backward computation.
I0925 23:29:32.138352  4696 net.cpp:219] predict does not need backward computation.
I0925 23:29:32.138362  4696 net.cpp:219] lstm2 does not need backward computation.
I0925 23:29:32.138372  4696 net.cpp:219] concat does not need backward computation.
I0925 23:29:32.138382  4696 net.cpp:219] lstm1 does not need backward computation.
I0925 23:29:32.138392  4696 net.cpp:219] embedding does not need backward computation.
I0925 23:29:32.138401  4696 net.cpp:219] reshape_stage_indicator does not need backward computation.
I0925 23:29:32.138407  4696 net.cpp:219] reshape_frames does not need backward computation.
I0925 23:29:32.138416  4696 net.cpp:219] embed_encoder does not need backward computation.
I0925 23:29:32.138424  4696 net.cpp:219] cont_sentence_input_1_split does not need backward computation.
I0925 23:29:32.138434  4696 net.cpp:219] input does not need backward computation.
I0925 23:29:32.138440  4696 net.cpp:261] This network produces output probs
I0925 23:29:32.138468  4696 net.cpp:274] Network initialization done.
I0925 23:29:32.138547  4652 net.cpp:141] Setting up probs
I0925 23:29:32.138578  4652 net.cpp:148] Top shape: 1 1 46168 (46168)
I0925 23:29:32.138588  4652 net.cpp:156] Memory required for data: 405756
I0925 23:29:32.138609  4652 net.cpp:219] probs does not need backward computation.
I0925 23:29:32.138623  4652 net.cpp:219] predict does not need backward computation.
I0925 23:29:32.138636  4652 net.cpp:219] lstm2 does not need backward computation.
I0925 23:29:32.138646  4652 net.cpp:219] concat does not need backward computation.
I0925 23:29:32.138658  4652 net.cpp:219] lstm1 does not need backward computation.
I0925 23:29:32.138707  4652 net.cpp:219] embedding does not need backward computation.
I0925 23:29:32.138726  4652 net.cpp:219] reshape_stage_indicator does not need backward computation.
I0925 23:29:32.138743  4652 net.cpp:219] reshape_frames does not need backward computation.
I0925 23:29:32.138757  4652 net.cpp:219] embed_encoder does not need backward computation.
I0925 23:29:32.138775  4652 net.cpp:219] cont_sentence_input_1_split does not need backward computation.
I0925 23:29:32.138790  4652 net.cpp:219] input does not need backward computation.
I0925 23:29:32.138802  4652 net.cpp:261] This network produces output probs
I0925 23:29:32.138829  4652 net.cpp:274] Network initialization done.
I0925 23:29:32.147394  4662 net.cpp:141] Setting up conv1
I0925 23:29:32.147450  4662 net.cpp:148] Top shape: 10 96 55 55 (2904000)
I0925 23:29:32.147460  4662 net.cpp:156] Memory required for data: 17799480
I0925 23:29:32.150792  4662 layer_factory.hpp:77] Creating layer relu1
I0925 23:29:32.151350  4662 net.cpp:91] Creating Layer relu1
I0925 23:29:32.151362  4662 net.cpp:425] relu1 <- conv1
I0925 23:29:32.151374  4662 net.cpp:386] relu1 -> conv1 (in-place)
I0925 23:29:32.152932  4662 net.cpp:141] Setting up relu1
I0925 23:29:32.152956  4662 net.cpp:148] Top shape: 10 96 55 55 (2904000)
I0925 23:29:32.152964  4662 net.cpp:156] Memory required for data: 29415480
I0925 23:29:32.152976  4662 layer_factory.hpp:77] Creating layer pool1
I0925 23:29:32.152994  4662 net.cpp:91] Creating Layer pool1
I0925 23:29:32.153002  4662 net.cpp:425] pool1 <- conv1
I0925 23:29:32.153014  4662 net.cpp:399] pool1 -> pool1
I0925 23:29:32.153183  4662 net.cpp:141] Setting up pool1
I0925 23:29:32.153199  4662 net.cpp:148] Top shape: 10 96 27 27 (699840)
I0925 23:29:32.153206  4662 net.cpp:156] Memory required for data: 32214840
I0925 23:29:32.153213  4662 layer_factory.hpp:77] Creating layer norm1
I0925 23:29:32.153239  4662 net.cpp:91] Creating Layer norm1
I0925 23:29:32.153245  4662 net.cpp:425] norm1 <- pool1
I0925 23:29:32.153256  4662 net.cpp:399] norm1 -> norm1
I0925 23:29:32.153971  4662 net.cpp:141] Setting up norm1
I0925 23:29:32.153993  4662 net.cpp:148] Top shape: 10 96 27 27 (699840)
I0925 23:29:32.154001  4662 net.cpp:156] Memory required for data: 35014200
I0925 23:29:32.154009  4662 layer_factory.hpp:77] Creating layer conv2
I0925 23:29:32.154029  4662 net.cpp:91] Creating Layer conv2
I0925 23:29:32.154037  4662 net.cpp:425] conv2 <- norm1
I0925 23:29:32.154049  4662 net.cpp:399] conv2 -> conv2
I0925 23:29:32.185081  4662 net.cpp:141] Setting up conv2
I0925 23:29:32.185142  4662 net.cpp:148] Top shape: 10 256 27 27 (1866240)
I0925 23:29:32.185150  4662 net.cpp:156] Memory required for data: 42479160
I0925 23:29:32.185184  4662 layer_factory.hpp:77] Creating layer relu2
I0925 23:29:32.185209  4662 net.cpp:91] Creating Layer relu2
I0925 23:29:32.185219  4662 net.cpp:425] relu2 <- conv2
I0925 23:29:32.185230  4662 net.cpp:386] relu2 -> conv2 (in-place)
I0925 23:29:32.187654  4662 net.cpp:141] Setting up relu2
I0925 23:29:32.187712  4662 net.cpp:148] Top shape: 10 256 27 27 (1866240)
I0925 23:29:32.187721  4662 net.cpp:156] Memory required for data: 49944120
I0925 23:29:32.187765  4662 layer_factory.hpp:77] Creating layer pool2
I0925 23:29:32.187805  4662 net.cpp:91] Creating Layer pool2
I0925 23:29:32.187815  4662 net.cpp:425] pool2 <- conv2
I0925 23:29:32.187830  4662 net.cpp:399] pool2 -> pool2
I0925 23:29:32.188701  4662 net.cpp:141] Setting up pool2
I0925 23:29:32.188741  4662 net.cpp:148] Top shape: 10 256 13 13 (432640)
I0925 23:29:32.188748  4662 net.cpp:156] Memory required for data: 51674680
I0925 23:29:32.188760  4662 layer_factory.hpp:77] Creating layer norm2
I0925 23:29:32.189754  4662 net.cpp:91] Creating Layer norm2
I0925 23:29:32.189786  4662 net.cpp:425] norm2 <- pool2
I0925 23:29:32.189810  4662 net.cpp:399] norm2 -> norm2
I0925 23:29:32.200027  4662 net.cpp:141] Setting up norm2
I0925 23:29:32.200099  4662 net.cpp:148] Top shape: 10 256 13 13 (432640)
I0925 23:29:32.200109  4662 net.cpp:156] Memory required for data: 53405240
I0925 23:29:32.200121  4662 layer_factory.hpp:77] Creating layer conv3
I0925 23:29:32.200156  4662 net.cpp:91] Creating Layer conv3
I0925 23:29:32.200166  4662 net.cpp:425] conv3 <- norm2
I0925 23:29:32.200182  4662 net.cpp:399] conv3 -> conv3
I0925 23:29:32.252950  4670 net.cpp:141] Setting up predict
I0925 23:29:32.253011  4670 net.cpp:148] Top shape: 1 1 46168 (46168)
I0925 23:29:32.253020  4670 net.cpp:156] Memory required for data: 221084
I0925 23:29:32.253034  4670 layer_factory.hpp:77] Creating layer probs
I0925 23:29:32.253054  4670 net.cpp:91] Creating Layer probs
I0925 23:29:32.253062  4670 net.cpp:425] probs <- predict
I0925 23:29:32.253073  4670 net.cpp:399] probs -> probs
I0925 23:29:32.253233  4662 net.cpp:141] Setting up conv3
I0925 23:29:32.253253  4662 net.cpp:148] Top shape: 10 384 13 13 (648960)
I0925 23:29:32.253259  4662 net.cpp:156] Memory required for data: 56001080
I0925 23:29:32.253276  4662 layer_factory.hpp:77] Creating layer relu3
I0925 23:29:32.253290  4662 net.cpp:91] Creating Layer relu3
I0925 23:29:32.253298  4662 net.cpp:425] relu3 <- conv3
I0925 23:29:32.253304  4662 net.cpp:386] relu3 -> conv3 (in-place)
I0925 23:29:32.254904  4662 net.cpp:141] Setting up relu3
I0925 23:29:32.254904  4670 net.cpp:141] Setting up probs
I0925 23:29:32.254937  4662 net.cpp:148] Top shape: 10 384 13 13 (648960)
I0925 23:29:32.254940  4670 net.cpp:148] Top shape: 1 1 46168 (46168)
I0925 23:29:32.254943  4662 net.cpp:156] Memory required for data: 58596920
I0925 23:29:32.254946  4670 net.cpp:156] Memory required for data: 405756
I0925 23:29:32.254951  4662 layer_factory.hpp:77] Creating layer conv4
I0925 23:29:32.254953  4670 net.cpp:219] probs does not need backward computation.
I0925 23:29:32.254959  4670 net.cpp:219] predict does not need backward computation.
…
I0925 23:29:32.255007  4670 net.cpp:219] cont_sentence_input_1_split does not need backward computation.
I0925 23:29:32.255537  4670 net.cpp:219] input does not need backward computation.
I0925 23:29:32.255542  4670 net.cpp:261] This network produces output probs
I0925 23:29:32.255538  4662 net.cpp:91] Creating Layer conv4
I0925 23:29:32.255558  4662 net.cpp:425] conv4 <- conv3
I0925 23:29:32.255564  4670 net.cpp:274] Network initialization done.
I0925 23:29:32.255573  4662 net.cpp:399] conv4 -> conv4
I0925 23:29:32.323566  4708 net.cpp:141] Setting up predict
I0925 23:29:32.323658  4708 net.cpp:148] Top shape: 1 1 46168 (46168)
I0925 23:29:32.323679  4708 net.cpp:156] Memory required for data: 221084
I0925 23:29:32.323725  4708 layer_factory.hpp:77] Creating layer probs
I0925 23:29:32.323770  4708 net.cpp:91] Creating Layer probs
I0925 23:29:32.323794  4708 net.cpp:425] probs <- predict
I0925 23:29:32.323824  4708 net.cpp:399] probs -> probs
I0925 23:29:32.330766  4708 net.cpp:141] Setting up probs
I0925 23:29:32.330829  4708 net.cpp:148] Top shape: 1 1 46168 (46168)
I0925 23:29:32.330839  4708 net.cpp:156] Memory required for data: 405756
I0925 23:29:32.330854  4708 net.cpp:219] probs does not need backward computation.
I0925 23:29:32.330867  4708 net.cpp:219] predict does not need backward computation.
I0925 23:29:32.330876  4708 net.cpp:219] lstm2 does not need backward computation.
I0925 23:29:32.330886  4708 net.cpp:219] concat does not need backward computation.
I0925 23:29:32.330899  4708 net.cpp:219] lstm1 does not need backward computation.
I0925 23:29:32.330909  4708 net.cpp:219] embedding does not need backward computation.
I0925 23:29:32.330915  4708 net.cpp:219] reshape_stage_indicator does not need backward computation.
I0925 23:29:32.330921  4708 net.cpp:219] reshape_frames does not need backward computation.
I0925 23:29:32.330927  4708 net.cpp:219] embed_encoder does not need backward computation.
I0925 23:29:32.332604  4708 net.cpp:219] cont_sentence_input_1_split does not need backward computation.
I0925 23:29:32.334095  4708 net.cpp:219] input does not need backward computation.
I0925 23:29:32.334724  4708 net.cpp:261] This network produces output probs
I0925 23:29:32.334949  4708 net.cpp:274] Network initialization done.
I0925 23:29:32.364815  4662 net.cpp:141] Setting up conv4
I0925 23:29:32.364912  4662 net.cpp:148] Top shape: 10 384 13 13 (648960)
I0925 23:29:32.364924  4662 net.cpp:156] Memory required for data: 61192760
I0925 23:29:32.364959  4662 layer_factory.hpp:77] Creating layer relu4
I0925 23:29:32.364991  4662 net.cpp:91] Creating Layer relu4
I0925 23:29:32.365005  4662 net.cpp:425] relu4 <- conv4
I0925 23:29:32.365025  4662 net.cpp:386] relu4 -> conv4 (in-place)
I0925 23:29:32.371378  4662 net.cpp:141] Setting up relu4
I0925 23:29:32.371479  4662 net.cpp:148] Top shape: 10 384 13 13 (648960)
I0925 23:29:32.371495  4662 net.cpp:156] Memory required for data: 63788600
I0925 23:29:32.371515  4662 layer_factory.hpp:77] Creating layer conv5
I0925 23:29:32.373880  4662 net.cpp:91] Creating Layer conv5
I0925 23:29:32.373926  4662 net.cpp:425] conv5 <- conv4
I0925 23:29:32.375643  4662 net.cpp:399] conv5 -> conv5
I0925 23:29:32.447494  4662 net.cpp:141] Setting up conv5
I0925 23:29:32.447561  4662 net.cpp:148] Top shape: 10 256 13 13 (432640)
I0925 23:29:32.447571  4662 net.cpp:156] Memory required for data: 65519160
I0925 23:29:32.447612  4662 layer_factory.hpp:77] Creating layer relu5
I0925 23:29:32.448043  4662 net.cpp:91] Creating Layer relu5
I0925 23:29:32.448060  4662 net.cpp:425] relu5 <- conv5
I0925 23:29:32.448073  4662 net.cpp:386] relu5 -> conv5 (in-place)
I0925 23:29:32.450014  4662 net.cpp:141] Setting up relu5
I0925 23:29:32.450059  4662 net.cpp:148] Top shape: 10 256 13 13 (432640)
I0925 23:29:32.450069  4662 net.cpp:156] Memory required for data: 67249720
I0925 23:29:32.450081  4662 layer_factory.hpp:77] Creating layer pool5
I0925 23:29:32.450146  4662 net.cpp:91] Creating Layer pool5
I0925 23:29:32.450160  4662 net.cpp:425] pool5 <- conv5
I0925 23:29:32.450176  4662 net.cpp:399] pool5 -> pool5
I0925 23:29:32.451135  4662 net.cpp:141] Setting up pool5
I0925 23:29:32.451159  4662 net.cpp:148] Top shape: 10 256 6 6 (92160)
I0925 23:29:32.451167  4662 net.cpp:156] Memory required for data: 67618360
I0925 23:29:32.451177  4662 layer_factory.hpp:77] Creating layer fc6
I0925 23:29:32.451681  4662 net.cpp:91] Creating Layer fc6
I0925 23:29:32.451696  4662 net.cpp:425] fc6 <- pool5
I0925 23:29:32.451711  4662 net.cpp:399] fc6 -> fc6
I0925 23:29:32.569985  4662 net.cpp:141] Setting up fc6
I0925 23:29:32.570040  4662 net.cpp:148] Top shape: 10 4096 (40960)
I0925 23:29:32.570047  4662 net.cpp:156] Memory required for data: 67782200
I0925 23:29:32.570066  4662 layer_factory.hpp:77] Creating layer relu6
I0925 23:29:32.570087  4662 net.cpp:91] Creating Layer relu6
I0925 23:29:32.570097  4662 net.cpp:425] relu6 <- fc6
I0925 23:29:32.571406  4662 net.cpp:386] relu6 -> fc6 (in-place)
I0925 23:29:32.572224  4662 net.cpp:141] Setting up relu6
I0925 23:29:32.572240  4662 net.cpp:148] Top shape: 10 4096 (40960)
I0925 23:29:32.572247  4662 net.cpp:156] Memory required for data: 67946040
I0925 23:29:32.572252  4662 layer_factory.hpp:77] Creating layer drop6
I0925 23:29:32.572264  4662 net.cpp:91] Creating Layer drop6
I0925 23:29:32.572270  4662 net.cpp:425] drop6 <- fc6
I0925 23:29:32.572281  4662 net.cpp:386] drop6 -> fc6 (in-place)
I0925 23:29:32.572371  4662 net.cpp:141] Setting up drop6
I0925 23:29:32.572386  4662 net.cpp:148] Top shape: 10 4096 (40960)
I0925 23:29:32.572391  4662 net.cpp:156] Memory required for data: 68109880
I0925 23:29:32.572397  4662 layer_factory.hpp:77] Creating layer fc7
I0925 23:29:32.572408  4662 net.cpp:91] Creating Layer fc7
I0925 23:29:32.572413  4662 net.cpp:425] fc7 <- fc6
I0925 23:29:32.572422  4662 net.cpp:399] fc7 -> fc7
I0925 23:29:32.629539  4662 net.cpp:141] Setting up fc7
I0925 23:29:32.629592  4662 net.cpp:148] Top shape: 10 4096 (40960)
I0925 23:29:32.629601  4662 net.cpp:156] Memory required for data: 68273720
I0925 23:29:32.629623  4662 layer_factory.hpp:77] Creating layer relu7
I0925 23:29:32.631124  4662 net.cpp:91] Creating Layer relu7
I0925 23:29:32.631158  4662 net.cpp:425] relu7 <- fc7
I0925 23:29:32.631181  4662 net.cpp:386] relu7 -> fc7 (in-place)
I0925 23:29:32.633566  4662 net.cpp:141] Setting up relu7
I0925 23:29:32.633625  4662 net.cpp:148] Top shape: 10 4096 (40960)
I0925 23:29:32.633635  4662 net.cpp:156] Memory required for data: 68437560
I0925 23:29:32.633649  4662 layer_factory.hpp:77] Creating layer drop7
I0925 23:29:32.633676  4662 net.cpp:91] Creating Layer drop7
I0925 23:29:32.633687  4662 net.cpp:425] drop7 <- fc7
I0925 23:29:32.633702  4662 net.cpp:386] drop7 -> fc7 (in-place)
I0925 23:29:32.636957  4662 net.cpp:141] Setting up drop7
I0925 23:29:32.637023  4662 net.cpp:148] Top shape: 10 4096 (40960)
I0925 23:29:32.637037  4662 net.cpp:156] Memory required for data: 68601400
I0925 23:29:32.637054  4662 layer_factory.hpp:77] Creating layer fc8
I0925 23:29:32.637091  4662 net.cpp:91] Creating Layer fc8
I0925 23:29:32.637105  4662 net.cpp:425] fc8 <- fc7
I0925 23:29:32.637126  4662 net.cpp:399] fc8 -> fc8
I0925 23:29:32.652020  4662 net.cpp:141] Setting up fc8
I0925 23:29:32.652070  4662 net.cpp:148] Top shape: 10 1000 (10000)
I0925 23:29:32.652076  4662 net.cpp:156] Memory required for data: 68641400
I0925 23:29:32.652092  4662 layer_factory.hpp:77] Creating layer prob
I0925 23:29:32.652663  4662 net.cpp:91] Creating Layer prob
I0925 23:29:32.652676  4662 net.cpp:425] prob <- fc8
I0925 23:29:32.652691  4662 net.cpp:399] prob -> prob
I0925 23:29:32.656571  4662 net.cpp:141] Setting up prob
I0925 23:29:32.656625  4662 net.cpp:148] Top shape: 10 1000 (10000)
I0925 23:29:32.656631  4662 net.cpp:156] Memory required for data: 68681400
I0925 23:29:32.656641  4662 net.cpp:219] prob does not need backward computation.
I0925 23:29:32.656649  4662 net.cpp:219] fc8 does not need backward computation.
I0925 23:29:32.656654  4662 net.cpp:219] drop7 does not need backward computation.
I0925 23:29:32.656659  4662 net.cpp:219] relu7 does not need backward computation.
…
