…
Java HotSpot(TM) 64-Bit Server VM warning: You have loaded library /tmp/cvld1860553288165420338/libopencv_java310.xine1.so which might have disabled stack guard. The VM will try to fix the stack guard now.
It's highly recommended that you fix the library with 'execstack -c <libfile>', or link it with '-z noexecstack'.
WARNING: Logging before InitGoogleLogging() is written to STDERR
I0802 07:54:46.617439 25706 net.cpp:49] Initializing net from parameters: 
name: "CaffeNet"
state {
  phase: TEST
}
layer {
  name: "data"
  type: "Input"
  top: "data"
  input_param {
    shape {
      dim: 10
      dim: 3
      dim: 227
      dim: 227
    }
  }
}
layer {
  name: "conv1"
  type: "Convolution"
  bottom: "data"
  top: "conv1"
  convolution_param {
    num_output: 96
    kernel_size: 11
    stride: 4
  }
}
layer {
  name: "relu1"
  type: "ReLU"
  bottom: "conv1"
  top: "conv1"
}
layer {
  name: "pool1"
  type: "Pooling"
  bottom: "conv1"
  top: "pool1"
  pooling_param {
    pool: MAX
    kernel_size: 3
    stride: 2
  }
}
layer {
  name: "norm1"
  type: "LRN"
  bottom: "pool1"
  top: "norm1"
  lrn_param {
    local_size: 5
    alpha: 0.0001
    beta: 0.75
  }
}
layer {
  name: "conv2"
  type: "Convolution"
  bottom: "norm1"
  top: "conv2"
  convolution_param {
    num_output: 256
    pad: 2
    kernel_size: 5
    group: 2
  }
}
layer {
  name: "relu2"
  type: "ReLU"
  bottom: "conv2"
  top: "conv2"
}
layer {
  name: "pool2"
  type: "Pooling"
  bottom: "conv2"
  top: "pool2"
  pooling_param {
    pool: MAX
    kernel_size: 3
    stride: 2
  }
}
layer {
  name: "norm2"
  type: "LRN"
  bottom: "pool2"
  top: "norm2"
  lrn_param {
    local_size: 5
    alpha: 0.0001
    beta: 0.75
  }
}
layer {
  name: "conv3"
  type: "Convolution"
  bottom: "norm2"
  top: "conv3"
  convolution_param {
    num_output: 384
    pad: 1
    kernel_size: 3
  }
}
layer {
  name: "relu3"
  type: "ReLU"
  bottom: "conv3"
  top: "conv3"
}
layer {
  name: "conv4"
  type: "Convolution"
  bottom: "conv3"
  top: "conv4"
  convolution_param {
    num_output: 384
    pad: 1
    kernel_size: 3
    group: 2
  }
}
layer {
  name: "relu4"
  type: "ReLU"
  bottom: "conv4"
  top: "conv4"
}
layer {
  name: "conv5"
  type: "Convolution"
  bottom: "conv4"
  top: "conv5"
  convolution_param {
    num_output: 256
    pad: 1
    kernel_size: 3
    group: 2
  }
}
layer {
  name: "relu5"
  type: "ReLU"
  bottom: "conv5"
  top: "conv5"
}
layer {
  name: "pool5"
  type: "Pooling"
  bottom: "conv5"
  top: "pool5"
  pooling_param {
    pool: MAX
    kernel_size: 3
    stride: 2
  }
}
layer {
  name: "fc6"
  type: "InnerProduct"
  bottom: "pool5"
  top: "fc6"
  inner_product_param {
    num_output: 4096
  }
}
layer {
  name: "relu6"
  type: "ReLU"
  bottom: "fc6"
  top: "fc6"
}
layer {
  name: "drop6"
  type: "Dropout"
  bottom: "fc6"
  top: "fc6"
  dropout_param {
    dropout_ratio: 0.5
  }
}
layer {
  name: "fc7"
  type: "InnerProduct"
  bottom: "fc6"
  top: "fc7"
  inner_product_param {
    num_output: 4096
  }
}
layer {
  name: "relu7"
  type: "ReLU"
  bottom: "fc7"
  top: "fc7"
}
layer {
  name: "drop7"
  type: "Dropout"
  bottom: "fc7"
  top: "fc7"
  dropout_param {
    dropout_ratio: 0.5
  }
}
layer {
  name: "fc8"
  type: "InnerProduct"
  bottom: "fc7"
  top: "fc8"
  inner_product_param {
    num_output: 1000
  }
}
layer {
  name: "prob"
  type: "Softmax"
  bottom: "fc8"
  top: "prob"
}
I0802 07:54:46.617653 25706 layer_factory.hpp:77] Creating layer data
I0802 07:54:46.617683 25706 net.cpp:91] Creating Layer data
I0802 07:54:46.617696 25706 net.cpp:399] data -> data
I0802 07:54:47.196682 25706 net.cpp:141] Setting up data
I0802 07:54:47.196789 25706 net.cpp:148] Top shape: 10 3 227 227 (1545870)
I0802 07:54:47.196797 25706 net.cpp:156] Memory required for data: 6183480
I0802 07:54:47.196820 25706 layer_factory.hpp:77] Creating layer conv1
I0802 07:54:47.196853 25706 net.cpp:91] Creating Layer conv1
I0802 07:54:47.196863 25706 net.cpp:425] conv1 <- data
I0802 07:54:47.196880 25706 net.cpp:399] conv1 -> conv1
I0802 07:54:47.326160 25696 upgrade_proto.cpp:66] Attempting to upgrade input file specified using deprecated input fields: /tmp/cvld1860553288165420338/s2vt.words_to_preds.prototxt
I0802 07:54:47.326217 25696 upgrade_proto.cpp:69] Successfully upgraded file specified using deprecated input fields.
W0802 07:54:47.326226 25696 upgrade_proto.cpp:71] Note that future Caffe releases will only support input layers and not input fields.
I0802 07:54:47.326503 25696 net.cpp:49] Initializing net from parameters: 
name: "s2vt:features_to_lstm"
state {
  phase: TEST
}
layer {
  name: "input"
  type: "Input"
  top: "frames_fc7"
  top: "cont_sentence"
  top: "input_sentence"
  top: "stage_indicator"
  input_param {
    shape {
      dim: 1
      dim: 4096
    }
    shape {
      dim: 1
      dim: 1
    }
    shape {
      dim: 1
      dim: 1
    }
    shape {
      dim: 1
      dim: 1
    }
  }
}
layer {
  name: "embed_encoder"
  type: "InnerProduct"
  bottom: "frames_fc7"
  top: "embedded_in_frames"
  param {
    lr_mult: 1
    decay_mult: 1
  }
  param {
    lr_mult: 2
    decay_mult: 0
  }
  inner_product_param {
    num_output: 500
    weight_filler {
      type: "xavier"
    }
    bias_filler {
      type: "constant"
      value: 0.2
    }
  }
}
layer {
  name: "reshape_frames"
  type: "Reshape"
  bottom: "embedded_in_frames"
  top: "embedded_input_frames"
  reshape_param {
    shape {
      dim: 1
      dim: 1
      dim: 500
    }
  }
}
layer {
  name: "reshape_stage_indicator"
  type: "Reshape"
  bottom: "stage_indicator"
  top: "reshaped_stage_indicator"
  reshape_param {
    shape {
      dim: 1
      dim: 1
      dim: 1
    }
  }
}
layer {
  name: "embedding"
  type: "Embed"
  bottom: "input_sentence"
  top: "embedded_input_sentence"
  param {
    lr_mult: 1
  }
  embed_param {
    num_output: 500
    input_dim: 46168
    bias_term: false
    weight_filler {
      type: "uniform"
      min: -0.08
      max: 0.08
    }
  }
}
layer {
  name: "lstm1"
  type: "LSTM"
  bottom: "embedded_input_frames"
  bottom: "cont_sentence"
  top: "lstm1"
  recurrent_param {
    num_output: 1000
    weight_filler {
      type: "uniform"
      min: -0.08
      max: 0.08
    }
    bias_filler {
      type: "constant"
      value: 0
    }
  }
}
layer {
  name: "concat"
  type: "Concat"
  bottom: "lstm1"
  bottom: "embedded_input_sentence"
  bottom: "reshaped_stage_indicator"
  top: "lstm1_video_sequence"
  concat_param {
    concat_dim: 2
  }
}
layer {
  name: "lstm2"
  type: "LSTM"
  bottom: "lstm1_video_sequence"
  bottom: "cont_sentence"
  top: "lstm2"
  recurrent_param {
    num_output: 1000
    weight_filler {
      type: "uniform"
      min: -0.08
      max: 0.08
    }
    bias_filler {
      type: "constant"
      value: 0
    }
  }
}
layer {
  name: "predict"
  type: "InnerProduct"
  bottom: "lstm2"
  top: "predict"
  param {
    lr_mult: 1
    decay_mult: 1
  }
  param {
    lr_mult: 2
    decay_mult: 0
  }
  inner_product_param {
    num_output: 46168
    weight_filler {
      type: "uniform"
      min: -0.08
      max: 0.08
    }
    bias_filler {
      type: "constant"
      value: 0
    }
    axis: 2
  }
}
layer {
  name: "probs"
  type: "Softmax"
  bottom: "predict"
  top: "probs"
  softmax_param {
    axis: 2
  }
}
I0802 07:54:47.326613 25696 layer_factory.hpp:77] Creating layer input
I0802 07:54:47.326632 25696 net.cpp:91] Creating Layer input
I0802 07:54:47.326642 25696 net.cpp:399] input -> frames_fc7
I0802 07:54:47.326660 25696 net.cpp:399] input -> cont_sentence
I0802 07:54:47.326673 25696 net.cpp:399] input -> input_sentence
I0802 07:54:47.326683 25696 net.cpp:399] input -> stage_indicator
I0802 07:54:47.329670 25696 net.cpp:141] Setting up input
I0802 07:54:47.329699 25696 net.cpp:148] Top shape: 1 4096 (4096)
I0802 07:54:47.329712 25696 net.cpp:148] Top shape: 1 1 (1)
I0802 07:54:47.329725 25696 net.cpp:148] Top shape: 1 1 (1)
I0802 07:54:47.329736 25696 net.cpp:148] Top shape: 1 1 (1)
I0802 07:54:47.329744 25696 net.cpp:156] Memory required for data: 16396
I0802 07:54:47.329756 25696 layer_factory.hpp:77] Creating layer cont_sentence_input_1_split
I0802 07:54:47.329785 25696 net.cpp:91] Creating Layer cont_sentence_input_1_split
I0802 07:54:47.329797 25696 net.cpp:425] cont_sentence_input_1_split <- cont_sentence
I0802 07:54:47.329831 25696 net.cpp:399] cont_sentence_input_1_split -> cont_sentence_input_1_split_0
I0802 07:54:47.329856 25696 net.cpp:399] cont_sentence_input_1_split -> cont_sentence_input_1_split_1
I0802 07:54:47.330111 25696 net.cpp:141] Setting up cont_sentence_input_1_split
I0802 07:54:47.330132 25696 net.cpp:148] Top shape: 1 1 (1)
I0802 07:54:47.330140 25696 net.cpp:148] Top shape: 1 1 (1)
I0802 07:54:47.330145 25696 net.cpp:156] Memory required for data: 16404
I0802 07:54:47.330150 25696 layer_factory.hpp:77] Creating layer embed_encoder
I0802 07:54:47.330166 25696 net.cpp:91] Creating Layer embed_encoder
I0802 07:54:47.330173 25696 net.cpp:425] embed_encoder <- frames_fc7
I0802 07:54:47.330183 25696 net.cpp:399] embed_encoder -> embedded_in_frames
I0802 07:54:47.355028 25696 net.cpp:141] Setting up embed_encoder
I0802 07:54:47.355075 25696 net.cpp:148] Top shape: 1 500 (500)
I0802 07:54:47.355082 25696 net.cpp:156] Memory required for data: 18404
I0802 07:54:47.355113 25696 layer_factory.hpp:77] Creating layer reshape_frames
I0802 07:54:47.355141 25696 net.cpp:91] Creating Layer reshape_frames
I0802 07:54:47.355150 25696 net.cpp:425] reshape_frames <- embedded_in_frames
I0802 07:54:47.355164 25696 net.cpp:399] reshape_frames -> embedded_input_frames
I0802 07:54:47.355227 25696 net.cpp:141] Setting up reshape_frames
I0802 07:54:47.355238 25696 net.cpp:148] Top shape: 1 1 500 (500)
I0802 07:54:47.355243 25696 net.cpp:156] Memory required for data: 20404
I0802 07:54:47.355249 25696 layer_factory.hpp:77] Creating layer reshape_stage_indicator
I0802 07:54:47.355262 25696 net.cpp:91] Creating Layer reshape_stage_indicator
I0802 07:54:47.355268 25696 net.cpp:425] reshape_stage_indicator <- stage_indicator
I0802 07:54:47.355290 25696 net.cpp:399] reshape_stage_indicator -> reshaped_stage_indicator
I0802 07:54:47.359107 25696 net.cpp:141] Setting up reshape_stage_indicator
I0802 07:54:47.359128 25696 net.cpp:148] Top shape: 1 1 1 (1)
I0802 07:54:47.359134 25696 net.cpp:156] Memory required for data: 20408
I0802 07:54:47.359141 25696 layer_factory.hpp:77] Creating layer embedding
I0802 07:54:47.359156 25696 net.cpp:91] Creating Layer embedding
I0802 07:54:47.359163 25696 net.cpp:425] embedding <- input_sentence
I0802 07:54:47.359179 25696 net.cpp:399] embedding -> embedded_input_sentence
I0802 07:54:47.479130 25706 net.cpp:141] Setting up conv1
I0802 07:54:47.479203 25706 net.cpp:148] Top shape: 10 96 55 55 (2904000)
I0802 07:54:47.479212 25706 net.cpp:156] Memory required for data: 17799480
I0802 07:54:47.479249 25706 layer_factory.hpp:77] Creating layer relu1
I0802 07:54:47.479321 25706 net.cpp:91] Creating Layer relu1
I0802 07:54:47.479329 25706 net.cpp:425] relu1 <- conv1
I0802 07:54:47.479338 25706 net.cpp:386] relu1 -> conv1 (in-place)
I0802 07:54:47.479835 25706 net.cpp:141] Setting up relu1
I0802 07:54:47.479851 25706 net.cpp:148] Top shape: 10 96 55 55 (2904000)
I0802 07:54:47.479856 25706 net.cpp:156] Memory required for data: 29415480
I0802 07:54:47.479862 25706 layer_factory.hpp:77] Creating layer pool1
I0802 07:54:47.479897 25706 net.cpp:91] Creating Layer pool1
I0802 07:54:47.479904 25706 net.cpp:425] pool1 <- conv1
I0802 07:54:47.479918 25706 net.cpp:399] pool1 -> pool1
I0802 07:54:47.479996 25706 net.cpp:141] Setting up pool1
I0802 07:54:47.480016 25706 net.cpp:148] Top shape: 10 96 27 27 (699840)
I0802 07:54:47.480022 25706 net.cpp:156] Memory required for data: 32214840
I0802 07:54:47.480027 25706 layer_factory.hpp:77] Creating layer norm1
I0802 07:54:47.480060 25706 net.cpp:91] Creating Layer norm1
I0802 07:54:47.480068 25706 net.cpp:425] norm1 <- pool1
I0802 07:54:47.480079 25706 net.cpp:399] norm1 -> norm1
I0802 07:54:47.480625 25706 net.cpp:141] Setting up norm1
I0802 07:54:47.480640 25706 net.cpp:148] Top shape: 10 96 27 27 (699840)
I0802 07:54:47.480646 25706 net.cpp:156] Memory required for data: 35014200
I0802 07:54:47.480653 25706 layer_factory.hpp:77] Creating layer conv2
I0802 07:54:47.480681 25706 net.cpp:91] Creating Layer conv2
I0802 07:54:47.480689 25706 net.cpp:425] conv2 <- norm1
I0802 07:54:47.480697 25706 net.cpp:399] conv2 -> conv2
I0802 07:54:47.484452 25706 net.cpp:141] Setting up conv2
I0802 07:54:47.484473 25706 net.cpp:148] Top shape: 10 256 27 27 (1866240)
I0802 07:54:47.484479 25706 net.cpp:156] Memory required for data: 42479160
I0802 07:54:47.484496 25706 layer_factory.hpp:77] Creating layer relu2
I0802 07:54:47.484508 25706 net.cpp:91] Creating Layer relu2
I0802 07:54:47.484514 25706 net.cpp:425] relu2 <- conv2
I0802 07:54:47.484526 25706 net.cpp:386] relu2 -> conv2 (in-place)
I0802 07:54:47.485029 25706 net.cpp:141] Setting up relu2
I0802 07:54:47.485044 25706 net.cpp:148] Top shape: 10 256 27 27 (1866240)
I0802 07:54:47.485050 25706 net.cpp:156] Memory required for data: 49944120
I0802 07:54:47.485056 25706 layer_factory.hpp:77] Creating layer pool2
I0802 07:54:47.485071 25706 net.cpp:91] Creating Layer pool2
I0802 07:54:47.485079 25706 net.cpp:425] pool2 <- conv2
I0802 07:54:47.485086 25706 net.cpp:399] pool2 -> pool2
I0802 07:54:47.485152 25706 net.cpp:141] Setting up pool2
I0802 07:54:47.485162 25706 net.cpp:148] Top shape: 10 256 13 13 (432640)
I0802 07:54:47.485167 25706 net.cpp:156] Memory required for data: 51674680
I0802 07:54:47.485173 25706 layer_factory.hpp:77] Creating layer norm2
I0802 07:54:47.485186 25706 net.cpp:91] Creating Layer norm2
I0802 07:54:47.485193 25706 net.cpp:425] norm2 <- pool2
I0802 07:54:47.485200 25706 net.cpp:399] norm2 -> norm2
I0802 07:54:47.485489 25706 net.cpp:141] Setting up norm2
I0802 07:54:47.485507 25706 net.cpp:148] Top shape: 10 256 13 13 (432640)
I0802 07:54:47.485512 25706 net.cpp:156] Memory required for data: 53405240
I0802 07:54:47.485518 25706 layer_factory.hpp:77] Creating layer conv3
I0802 07:54:47.485532 25706 net.cpp:91] Creating Layer conv3
I0802 07:54:47.485538 25706 net.cpp:425] conv3 <- norm2
I0802 07:54:47.485546 25706 net.cpp:399] conv3 -> conv3
I0802 07:54:47.489742 25706 net.cpp:141] Setting up conv3
I0802 07:54:47.489766 25706 net.cpp:148] Top shape: 10 384 13 13 (648960)
I0802 07:54:47.489773 25706 net.cpp:156] Memory required for data: 56001080
I0802 07:54:47.489786 25706 layer_factory.hpp:77] Creating layer relu3
I0802 07:54:47.489800 25706 net.cpp:91] Creating Layer relu3
I0802 07:54:47.489806 25706 net.cpp:425] relu3 <- conv3
I0802 07:54:47.489816 25706 net.cpp:386] relu3 -> conv3 (in-place)
I0802 07:54:47.490305 25706 net.cpp:141] Setting up relu3
I0802 07:54:47.490320 25706 net.cpp:148] Top shape: 10 384 13 13 (648960)
I0802 07:54:47.490326 25706 net.cpp:156] Memory required for data: 58596920
I0802 07:54:47.490332 25706 layer_factory.hpp:77] Creating layer conv4
I0802 07:54:47.490348 25706 net.cpp:91] Creating Layer conv4
I0802 07:54:47.490355 25706 net.cpp:425] conv4 <- conv3
I0802 07:54:47.490363 25706 net.cpp:399] conv4 -> conv4
I0802 07:54:47.494949 25706 net.cpp:141] Setting up conv4
I0802 07:54:47.494976 25706 net.cpp:148] Top shape: 10 384 13 13 (648960)
I0802 07:54:47.494982 25706 net.cpp:156] Memory required for data: 61192760
I0802 07:54:47.494992 25706 layer_factory.hpp:77] Creating layer relu4
I0802 07:54:47.495005 25706 net.cpp:91] Creating Layer relu4
I0802 07:54:47.495012 25706 net.cpp:425] relu4 <- conv4
I0802 07:54:47.495020 25706 net.cpp:386] relu4 -> conv4 (in-place)
I0802 07:54:47.495514 25706 net.cpp:141] Setting up relu4
I0802 07:54:47.495529 25706 net.cpp:148] Top shape: 10 384 13 13 (648960)
I0802 07:54:47.495534 25706 net.cpp:156] Memory required for data: 63788600
I0802 07:54:47.495540 25706 layer_factory.hpp:77] Creating layer conv5
I0802 07:54:47.495558 25706 net.cpp:91] Creating Layer conv5
I0802 07:54:47.495565 25706 net.cpp:425] conv5 <- conv4
I0802 07:54:47.495578 25706 net.cpp:399] conv5 -> conv5
I0802 07:54:47.500077 25706 net.cpp:141] Setting up conv5
I0802 07:54:47.500098 25706 net.cpp:148] Top shape: 10 256 13 13 (432640)
I0802 07:54:47.500105 25706 net.cpp:156] Memory required for data: 65519160
I0802 07:54:47.500120 25706 layer_factory.hpp:77] Creating layer relu5
I0802 07:54:47.500134 25706 net.cpp:91] Creating Layer relu5
I0802 07:54:47.500140 25706 net.cpp:425] relu5 <- conv5
I0802 07:54:47.500149 25706 net.cpp:386] relu5 -> conv5 (in-place)
I0802 07:54:47.500663 25706 net.cpp:141] Setting up relu5
I0802 07:54:47.500677 25706 net.cpp:148] Top shape: 10 256 13 13 (432640)
I0802 07:54:47.500685 25706 net.cpp:156] Memory required for data: 67249720
I0802 07:54:47.500692 25706 layer_factory.hpp:77] Creating layer pool5
I0802 07:54:47.500706 25706 net.cpp:91] Creating Layer pool5
I0802 07:54:47.500712 25706 net.cpp:425] pool5 <- conv5
I0802 07:54:47.500721 25706 net.cpp:399] pool5 -> pool5
I0802 07:54:47.500792 25706 net.cpp:141] Setting up pool5
I0802 07:54:47.500804 25706 net.cpp:148] Top shape: 10 256 6 6 (92160)
I0802 07:54:47.500809 25706 net.cpp:156] Memory required for data: 67618360
I0802 07:54:47.500814 25706 layer_factory.hpp:77] Creating layer fc6
I0802 07:54:47.500833 25706 net.cpp:91] Creating Layer fc6
I0802 07:54:47.500838 25706 net.cpp:425] fc6 <- pool5
I0802 07:54:47.500846 25706 net.cpp:399] fc6 -> fc6
I0802 07:54:47.613931 25706 net.cpp:141] Setting up fc6
I0802 07:54:47.613981 25706 net.cpp:148] Top shape: 10 4096 (40960)
I0802 07:54:47.613988 25706 net.cpp:156] Memory required for data: 67782200
I0802 07:54:47.614004 25706 layer_factory.hpp:77] Creating layer relu6
I0802 07:54:47.614020 25706 net.cpp:91] Creating Layer relu6
I0802 07:54:47.614027 25706 net.cpp:425] relu6 <- fc6
I0802 07:54:47.614037 25706 net.cpp:386] relu6 -> fc6 (in-place)
I0802 07:54:47.614403 25706 net.cpp:141] Setting up relu6
I0802 07:54:47.614416 25706 net.cpp:148] Top shape: 10 4096 (40960)
I0802 07:54:47.614423 25706 net.cpp:156] Memory required for data: 67946040
I0802 07:54:47.614430 25706 layer_factory.hpp:77] Creating layer drop6
I0802 07:54:47.614447 25706 net.cpp:91] Creating Layer drop6
I0802 07:54:47.614454 25706 net.cpp:425] drop6 <- fc6
I0802 07:54:47.614461 25706 net.cpp:386] drop6 -> fc6 (in-place)
I0802 07:54:47.614526 25706 net.cpp:141] Setting up drop6
I0802 07:54:47.614537 25706 net.cpp:148] Top shape: 10 4096 (40960)
I0802 07:54:47.614542 25706 net.cpp:156] Memory required for data: 68109880
I0802 07:54:47.614548 25706 layer_factory.hpp:77] Creating layer fc7
I0802 07:54:47.614560 25706 net.cpp:91] Creating Layer fc7
I0802 07:54:47.614565 25706 net.cpp:425] fc7 <- fc6
I0802 07:54:47.614576 25706 net.cpp:399] fc7 -> fc7
I0802 07:54:47.647199 25696 net.cpp:141] Setting up embedding
I0802 07:54:47.647260 25696 net.cpp:148] Top shape: 1 1 500 (500)
I0802 07:54:47.647269 25696 net.cpp:156] Memory required for data: 22408
I0802 07:54:47.647297 25696 layer_factory.hpp:77] Creating layer lstm1
I0802 07:54:47.647326 25696 net.cpp:91] Creating Layer lstm1
I0802 07:54:47.647338 25696 net.cpp:425] lstm1 <- embedded_input_frames
I0802 07:54:47.647351 25696 net.cpp:425] lstm1 <- cont_sentence_input_1_split_0
I0802 07:54:47.647364 25696 net.cpp:399] lstm1 -> lstm1
I0802 07:54:47.647415 25696 recurrent_layer.cpp:20] Initializing recurrent layer: assuming input batch contains 1 timesteps of 1 independent streams.
I0802 07:54:47.647877 25696 net.cpp:49] Initializing net from parameters: 
layer {
  name: "lstm1_"
  type: "Input"
  top: "x"
  top: "cont"
  input_param {
    shape {
      dim: 1
      dim: 1
      dim: 500
    }
    shape {
      dim: 1
      dim: 1
    }
  }
}
layer {
  name: "lstm1_"
  type: "Input"
  top: "c_0"
  top: "h_0"
  input_param {
    shape {
      dim: 1
      dim: 1
      dim: 1000
    }
    shape {
      dim: 1
      dim: 1
      dim: 1000
    }
  }
}
layer {
  name: "lstm1_cont_slice"
  type: "Slice"
  bottom: "cont"
  top: "cont_1"
  slice_param {
    axis: 0
  }
}
layer {
  name: "lstm1_x_transform"
  type: "InnerProduct"
  bottom: "x"
  top: "W_xc_x"
  param {
    name: "W_xc"
  }
  param {
    name: "b_c"
  }
  propagate_down: true
  inner_product_param {
    num_output: 4000
    bias_term: true
    weight_filler {
      type: "uniform"
      min: -0.08
      max: 0.08
    }
    bias_filler {
      type: "constant"
      value: 0
    }
    axis: 2
  }
}
layer {
  name: "lstm1_W_xc_x_slice"
  type: "Slice"
  bottom: "W_xc_x"
  top: "W_xc_x_1"
  slice_param {
    axis: 0
  }
}
layer {
  name: "lstm1_h_conted_0"
  type: "Scale"
  bottom: "h_0"
  bottom: "cont_1"
  top: "h_conted_0"
  scale_param {
    axis: 0
  }
}
layer {
  name: "lstm1_transform_1"
  type: "InnerProduct"
  bottom: "h_conted_0"
  top: "W_hc_h_0"
  param {
    name: "W_hc"
  }
  inner_product_param {
    num_output: 4000
    bias_term: false
    weight_filler {
      type: "uniform"
      min: -0.08
      max: 0.08
    }
    axis: 2
  }
}
layer {
  name: "lstm1_gate_input_1"
  type: "Eltwise"
  bottom: "W_hc_h_0"
  bottom: "W_xc_x_1"
  top: "gate_input_1"
  eltwise_param {
    operation: SUM
  }
}
layer {
  name: "lstm1_unit_1"
  type: "LSTMUnit"
  bottom: "c_0"
  bottom: "gate_input_1"
  bottom: "cont_1"
  top: "c_1"
  top: "h_1"
}
layer {
  name: "lstm1_"
  type: "Split"
  bottom: "c_1"
  top: "c_T"
}
layer {
  name: "lstm1_h_concat"
  type: "Concat"
  bottom: "h_1"
  top: "h"
  concat_param {
    axis: 0
  }
}
layer {
  name: "h_pseudoloss"
  type: "Reduction"
  bottom: "h"
  top: "h_pseudoloss"
  loss_weight: 1
}
I0802 07:54:47.647982 25696 layer_factory.hpp:77] Creating layer lstm1_
I0802 07:54:47.647999 25696 net.cpp:91] Creating Layer lstm1_
I0802 07:54:47.648020 25696 net.cpp:399] lstm1_ -> x
I0802 07:54:47.648042 25696 net.cpp:399] lstm1_ -> cont
I0802 07:54:47.648135 25696 net.cpp:141] Setting up lstm1_
I0802 07:54:47.648149 25696 net.cpp:148] Top shape: 1 1 500 (500)
I0802 07:54:47.648156 25696 net.cpp:148] Top shape: 1 1 (1)
I0802 07:54:47.648161 25696 net.cpp:156] Memory required for data: 2004
I0802 07:54:47.648167 25696 layer_factory.hpp:77] Creating layer lstm1_
I0802 07:54:47.648177 25696 net.cpp:91] Creating Layer lstm1_
I0802 07:54:47.648190 25696 net.cpp:399] lstm1_ -> c_0
I0802 07:54:47.648201 25696 net.cpp:399] lstm1_ -> h_0
I0802 07:54:47.648260 25696 net.cpp:141] Setting up lstm1_
I0802 07:54:47.648272 25696 net.cpp:148] Top shape: 1 1 1000 (1000)
I0802 07:54:47.648278 25696 net.cpp:148] Top shape: 1 1 1000 (1000)
I0802 07:54:47.648283 25696 net.cpp:156] Memory required for data: 10004
I0802 07:54:47.648288 25696 layer_factory.hpp:77] Creating layer lstm1_cont_slice
I0802 07:54:47.648298 25696 net.cpp:91] Creating Layer lstm1_cont_slice
I0802 07:54:47.648303 25696 net.cpp:425] lstm1_cont_slice <- cont
I0802 07:54:47.648314 25696 net.cpp:399] lstm1_cont_slice -> cont_1
I0802 07:54:47.648355 25696 net.cpp:141] Setting up lstm1_cont_slice
I0802 07:54:47.648371 25696 net.cpp:148] Top shape: 1 1 (1)
I0802 07:54:47.648381 25696 net.cpp:156] Memory required for data: 10008
I0802 07:54:47.648391 25696 layer_factory.hpp:77] Creating layer cont_1_lstm1_cont_slice_0_split
I0802 07:54:47.648407 25696 net.cpp:91] Creating Layer cont_1_lstm1_cont_slice_0_split
I0802 07:54:47.648413 25696 net.cpp:425] cont_1_lstm1_cont_slice_0_split <- cont_1
I0802 07:54:47.648422 25696 net.cpp:399] cont_1_lstm1_cont_slice_0_split -> cont_1_lstm1_cont_slice_0_split_0
I0802 07:54:47.648433 25696 net.cpp:399] cont_1_lstm1_cont_slice_0_split -> cont_1_lstm1_cont_slice_0_split_1
I0802 07:54:47.648494 25696 net.cpp:141] Setting up cont_1_lstm1_cont_slice_0_split
I0802 07:54:47.648504 25696 net.cpp:148] Top shape: 1 1 (1)
I0802 07:54:47.648510 25696 net.cpp:148] Top shape: 1 1 (1)
I0802 07:54:47.648515 25696 net.cpp:156] Memory required for data: 10016
I0802 07:54:47.648520 25696 layer_factory.hpp:77] Creating layer lstm1_x_transform
I0802 07:54:47.648532 25696 net.cpp:91] Creating Layer lstm1_x_transform
I0802 07:54:47.648538 25696 net.cpp:425] lstm1_x_transform <- x
I0802 07:54:47.648547 25696 net.cpp:399] lstm1_x_transform -> W_xc_x
I0802 07:54:47.666016 25706 net.cpp:141] Setting up fc7
I0802 07:54:47.666064 25706 net.cpp:148] Top shape: 10 4096 (40960)
I0802 07:54:47.666070 25706 net.cpp:156] Memory required for data: 68273720
I0802 07:54:47.666086 25706 layer_factory.hpp:77] Creating layer relu7
I0802 07:54:47.666106 25706 net.cpp:91] Creating Layer relu7
I0802 07:54:47.666113 25706 net.cpp:425] relu7 <- fc7
I0802 07:54:47.666123 25706 net.cpp:386] relu7 -> fc7 (in-place)
I0802 07:54:47.666965 25706 net.cpp:141] Setting up relu7
I0802 07:54:47.666983 25706 net.cpp:148] Top shape: 10 4096 (40960)
I0802 07:54:47.666990 25706 net.cpp:156] Memory required for data: 68437560
I0802 07:54:47.666996 25706 layer_factory.hpp:77] Creating layer drop7
I0802 07:54:47.667006 25706 net.cpp:91] Creating Layer drop7
I0802 07:54:47.667012 25706 net.cpp:425] drop7 <- fc7
I0802 07:54:47.667024 25706 net.cpp:386] drop7 -> fc7 (in-place)
I0802 07:54:47.667068 25706 net.cpp:141] Setting up drop7
I0802 07:54:47.667083 25706 net.cpp:148] Top shape: 10 4096 (40960)
I0802 07:54:47.667088 25706 net.cpp:156] Memory required for data: 68601400
I0802 07:54:47.667094 25706 layer_factory.hpp:77] Creating layer fc8
I0802 07:54:47.667104 25706 net.cpp:91] Creating Layer fc8
I0802 07:54:47.667110 25706 net.cpp:425] fc8 <- fc7
I0802 07:54:47.667119 25706 net.cpp:399] fc8 -> fc8
I0802 07:54:47.675550 25696 net.cpp:141] Setting up lstm1_x_transform
I0802 07:54:47.675604 25696 net.cpp:148] Top shape: 1 1 4000 (4000)
I0802 07:54:47.675612 25696 net.cpp:156] Memory required for data: 26016
I0802 07:54:47.675634 25696 layer_factory.hpp:77] Creating layer lstm1_W_xc_x_slice
I0802 07:54:47.675657 25696 net.cpp:91] Creating Layer lstm1_W_xc_x_slice
I0802 07:54:47.675667 25696 net.cpp:425] lstm1_W_xc_x_slice <- W_xc_x
I0802 07:54:47.675678 25696 net.cpp:399] lstm1_W_xc_x_slice -> W_xc_x_1
I0802 07:54:47.675726 25696 net.cpp:141] Setting up lstm1_W_xc_x_slice
I0802 07:54:47.675739 25696 net.cpp:148] Top shape: 1 1 4000 (4000)
I0802 07:54:47.675743 25696 net.cpp:156] Memory required for data: 42016
I0802 07:54:47.675750 25696 layer_factory.hpp:77] Creating layer lstm1_h_conted_0
I0802 07:54:47.675763 25696 net.cpp:91] Creating Layer lstm1_h_conted_0
I0802 07:54:47.675770 25696 net.cpp:425] lstm1_h_conted_0 <- h_0
I0802 07:54:47.675777 25696 net.cpp:425] lstm1_h_conted_0 <- cont_1_lstm1_cont_slice_0_split_0
I0802 07:54:47.675786 25696 net.cpp:399] lstm1_h_conted_0 -> h_conted_0
I0802 07:54:47.675886 25696 net.cpp:141] Setting up lstm1_h_conted_0
I0802 07:54:47.675897 25696 net.cpp:148] Top shape: 1 1 1000 (1000)
I0802 07:54:47.675902 25696 net.cpp:156] Memory required for data: 46016
I0802 07:54:47.675909 25696 layer_factory.hpp:77] Creating layer lstm1_transform_1
I0802 07:54:47.675925 25696 net.cpp:91] Creating Layer lstm1_transform_1
I0802 07:54:47.675930 25696 net.cpp:425] lstm1_transform_1 <- h_conted_0
I0802 07:54:47.675940 25696 net.cpp:399] lstm1_transform_1 -> W_hc_h_0
I0802 07:54:47.684506 25706 net.cpp:141] Setting up fc8
I0802 07:54:47.684564 25706 net.cpp:148] Top shape: 10 1000 (10000)
I0802 07:54:47.684571 25706 net.cpp:156] Memory required for data: 68641400
I0802 07:54:47.684588 25706 layer_factory.hpp:77] Creating layer prob
I0802 07:54:47.684612 25706 net.cpp:91] Creating Layer prob
I0802 07:54:47.684620 25706 net.cpp:425] prob <- fc8
I0802 07:54:47.684631 25706 net.cpp:399] prob -> prob
I0802 07:54:47.685097 25706 net.cpp:141] Setting up prob
I0802 07:54:47.685111 25706 net.cpp:148] Top shape: 10 1000 (10000)
I0802 07:54:47.685117 25706 net.cpp:156] Memory required for data: 68681400
I0802 07:54:47.685123 25706 net.cpp:219] prob does not need backward computation.
I0802 07:54:47.685129 25706 net.cpp:219] fc8 does not need backward computation.
I0802 07:54:47.685135 25706 net.cpp:219] drop7 does not need backward computation.
I0802 07:54:47.685140 25706 net.cpp:219] relu7 does not need backward computation.
…
I0802 07:54:47.685225 25706 net.cpp:219] norm1 does not need backward computation.
I0802 07:54:47.685231 25706 net.cpp:219] pool1 does not need backward computation.
I0802 07:54:47.685236 25706 net.cpp:219] relu1 does not need backward computation.
I0802 07:54:47.685242 25706 net.cpp:219] conv1 does not need backward computation.
I0802 07:54:47.685247 25706 net.cpp:219] data does not need backward computation.
I0802 07:54:47.685251 25706 net.cpp:261] This network produces output prob
I0802 07:54:47.685278 25706 net.cpp:274] Network initialization done.
I0802 07:54:47.719133 25696 net.cpp:141] Setting up lstm1_transform_1
I0802 07:54:47.719188 25696 net.cpp:148] Top shape: 1 1 4000 (4000)
I0802 07:54:47.719194 25696 net.cpp:156] Memory required for data: 62016
I0802 07:54:47.719216 25696 layer_factory.hpp:77] Creating layer lstm1_gate_input_1
I0802 07:54:47.719239 25696 net.cpp:91] Creating Layer lstm1_gate_input_1
I0802 07:54:47.719249 25696 net.cpp:425] lstm1_gate_input_1 <- W_hc_h_0
I0802 07:54:47.719257 25696 net.cpp:425] lstm1_gate_input_1 <- W_xc_x_1
I0802 07:54:47.719265 25696 net.cpp:399] lstm1_gate_input_1 -> gate_input_1
I0802 07:54:47.719328 25696 net.cpp:141] Setting up lstm1_gate_input_1
I0802 07:54:47.719339 25696 net.cpp:148] Top shape: 1 1 4000 (4000)
I0802 07:54:47.719344 25696 net.cpp:156] Memory required for data: 78016
I0802 07:54:47.719349 25696 layer_factory.hpp:77] Creating layer lstm1_unit_1
I0802 07:54:47.719362 25696 net.cpp:91] Creating Layer lstm1_unit_1
I0802 07:54:47.719369 25696 net.cpp:425] lstm1_unit_1 <- c_0
I0802 07:54:47.719377 25696 net.cpp:425] lstm1_unit_1 <- gate_input_1
I0802 07:54:47.719383 25696 net.cpp:425] lstm1_unit_1 <- cont_1_lstm1_cont_slice_0_split_1
I0802 07:54:47.719389 25696 net.cpp:399] lstm1_unit_1 -> c_1
I0802 07:54:47.719399 25696 net.cpp:399] lstm1_unit_1 -> h_1
I0802 07:54:47.719470 25696 net.cpp:141] Setting up lstm1_unit_1
I0802 07:54:47.719481 25696 net.cpp:148] Top shape: 1 1 1000 (1000)
I0802 07:54:47.719488 25696 net.cpp:148] Top shape: 1 1 1000 (1000)
I0802 07:54:47.719493 25696 net.cpp:156] Memory required for data: 86016
I0802 07:54:47.719498 25696 layer_factory.hpp:77] Creating layer lstm1_
I0802 07:54:47.719507 25696 net.cpp:91] Creating Layer lstm1_
I0802 07:54:47.719513 25696 net.cpp:425] lstm1_ <- c_1
I0802 07:54:47.719521 25696 net.cpp:399] lstm1_ -> c_T
I0802 07:54:47.719559 25696 net.cpp:141] Setting up lstm1_
I0802 07:54:47.719569 25696 net.cpp:148] Top shape: 1 1 1000 (1000)
I0802 07:54:47.719574 25696 net.cpp:156] Memory required for data: 90016
I0802 07:54:47.719579 25696 layer_factory.hpp:77] Creating layer lstm1_h_concat
I0802 07:54:47.719599 25696 net.cpp:91] Creating Layer lstm1_h_concat
I0802 07:54:47.719604 25696 net.cpp:425] lstm1_h_concat <- h_1
I0802 07:54:47.719612 25696 net.cpp:399] lstm1_h_concat -> h
I0802 07:54:47.719655 25696 net.cpp:141] Setting up lstm1_h_concat
I0802 07:54:47.719666 25696 net.cpp:148] Top shape: 1 1 1000 (1000)
I0802 07:54:47.719671 25696 net.cpp:156] Memory required for data: 94016
I0802 07:54:47.719676 25696 layer_factory.hpp:77] Creating layer h_pseudoloss
I0802 07:54:47.719686 25696 net.cpp:91] Creating Layer h_pseudoloss
I0802 07:54:47.719691 25696 net.cpp:425] h_pseudoloss <- h
I0802 07:54:47.719698 25696 net.cpp:399] h_pseudoloss -> h_pseudoloss
I0802 07:54:47.719795 25696 net.cpp:141] Setting up h_pseudoloss
…
I0802 07:54:47.719938 25696 net.cpp:219] lstm1_ does not need backward computation.
I0802 07:54:47.719943 25696 net.cpp:261] This network produces output c_T
I0802 07:54:47.719947 25696 net.cpp:261] This network produces output h_pseudoloss
I0802 07:54:47.719964 25696 net.cpp:274] Network initialization done.
I0802 07:54:47.720034 25696 recurrent_layer.cpp:150] Adding parameter 0: W_xc
I0802 07:54:47.720047 25696 recurrent_layer.cpp:150] Adding parameter 1: b_c
I0802 07:54:47.720057 25696 recurrent_layer.cpp:150] Adding parameter 2: W_hc
I0802 07:54:47.720180 25696 net.cpp:141] Setting up lstm1
I0802 07:54:47.720193 25696 net.cpp:148] Top shape: 1 1 1000 (1000)
I0802 07:54:47.720199 25696 net.cpp:156] Memory required for data: 26408
I0802 07:54:47.720213 25696 layer_factory.hpp:77] Creating layer concat
I0802 07:54:47.720227 25696 net.cpp:91] Creating Layer concat
I0802 07:54:47.720234 25696 net.cpp:425] concat <- lstm1
I0802 07:54:47.720243 25696 net.cpp:425] concat <- embedded_input_sentence
I0802 07:54:47.720249 25696 net.cpp:425] concat <- reshaped_stage_indicator
I0802 07:54:47.720257 25696 net.cpp:399] concat -> lstm1_video_sequence
I0802 07:54:47.720296 25696 net.cpp:141] Setting up concat
I0802 07:54:47.720306 25696 net.cpp:148] Top shape: 1 1 1501 (1501)
I0802 07:54:47.720311 25696 net.cpp:156] Memory required for data: 32412
I0802 07:54:47.720317 25696 layer_factory.hpp:77] Creating layer lstm2
I0802 07:54:47.720330 25696 net.cpp:91] Creating Layer lstm2
I0802 07:54:47.720336 25696 net.cpp:425] lstm2 <- lstm1_video_sequence
I0802 07:54:47.720343 25696 net.cpp:425] lstm2 <- cont_sentence_input_1_split_1
I0802 07:54:47.720351 25696 net.cpp:399] lstm2 -> lstm2
I0802 07:54:47.720363 25696 recurrent_layer.cpp:20] Initializing recurrent layer: assuming input batch contains 1 timesteps of 1 independent streams.
I0802 07:54:47.720656 25696 net.cpp:49] Initializing net from parameters: 
layer {
  name: "lstm2_"
  type: "Input"
  top: "x"
  top: "cont"
  input_param {
    shape {
      dim: 1
      dim: 1
      dim: 1501
    }
    shape {
      dim: 1
      dim: 1
    }
  }
}
layer {
  name: "lstm2_"
  type: "Input"
  top: "c_0"
  top: "h_0"
  input_param {
    shape {
      dim: 1
      dim: 1
      dim: 1000
    }
    shape {
      dim: 1
      dim: 1
      dim: 1000
    }
  }
}
layer {
  name: "lstm2_cont_slice"
  type: "Slice"
  bottom: "cont"
  top: "cont_1"
  slice_param {
    axis: 0
  }
}
layer {
  name: "lstm2_x_transform"
  type: "InnerProduct"
  bottom: "x"
  top: "W_xc_x"
  param {
    name: "W_xc"
  }
  param {
    name: "b_c"
  }
  propagate_down: true
  inner_product_param {
    num_output: 4000
    bias_term: true
    weight_filler {
      type: "uniform"
      min: -0.08
      max: 0.08
    }
    bias_filler {
      type: "constant"
      value: 0
    }
    axis: 2
  }
}
layer {
  name: "lstm2_W_xc_x_slice"
  type: "Slice"
  bottom: "W_xc_x"
  top: "W_xc_x_1"
  slice_param {
    axis: 0
  }
}
layer {
  name: "lstm2_h_conted_0"
  type: "Scale"
  bottom: "h_0"
  bottom: "cont_1"
  top: "h_conted_0"
  scale_param {
    axis: 0
  }
}
layer {
  name: "lstm2_transform_1"
  type: "InnerProduct"
  bottom: "h_conted_0"
  top: "W_hc_h_0"
  param {
    name: "W_hc"
  }
  inner_product_param {
    num_output: 4000
    bias_term: false
    weight_filler {
      type: "uniform"
      min: -0.08
      max: 0.08
    }
    axis: 2
  }
}
layer {
  name: "lstm2_gate_input_1"
  type: "Eltwise"
  bottom: "W_hc_h_0"
  bottom: "W_xc_x_1"
  top: "gate_input_1"
  eltwise_param {
    operation: SUM
  }
}
layer {
  name: "lstm2_unit_1"
  type: "LSTMUnit"
  bottom: "c_0"
  bottom: "gate_input_1"
  bottom: "cont_1"
  top: "c_1"
  top: "h_1"
}
layer {
  name: "lstm2_"
  type: "Split"
  bottom: "c_1"
  top: "c_T"
}
layer {
  name: "lstm2_h_concat"
  type: "Concat"
  bottom: "h_1"
  top: "h"
  concat_param {
    axis: 0
  }
}
layer {
  name: "h_pseudoloss"
  type: "Reduction"
  bottom: "h"
  top: "h_pseudoloss"
  loss_weight: 1
}
I0802 07:54:47.720753 25696 layer_factory.hpp:77] Creating layer lstm2_
I0802 07:54:47.720767 25696 net.cpp:91] Creating Layer lstm2_
I0802 07:54:47.720775 25696 net.cpp:399] lstm2_ -> x
I0802 07:54:47.720788 25696 net.cpp:399] lstm2_ -> cont
I0802 07:54:47.720850 25696 net.cpp:141] Setting up lstm2_
I0802 07:54:47.720861 25696 net.cpp:148] Top shape: 1 1 1501 (1501)
I0802 07:54:47.720868 25696 net.cpp:148] Top shape: 1 1 (1)
I0802 07:54:47.720873 25696 net.cpp:156] Memory required for data: 6008
I0802 07:54:47.720880 25696 layer_factory.hpp:77] Creating layer lstm2_
I0802 07:54:47.720892 25696 net.cpp:91] Creating Layer lstm2_
I0802 07:54:47.720901 25696 net.cpp:399] lstm2_ -> c_0
I0802 07:54:47.720911 25696 net.cpp:399] lstm2_ -> h_0
I0802 07:54:47.720968 25696 net.cpp:141] Setting up lstm2_
I0802 07:54:47.720978 25696 net.cpp:148] Top shape: 1 1 1000 (1000)
I0802 07:54:47.720984 25696 net.cpp:148] Top shape: 1 1 1000 (1000)
I0802 07:54:47.720988 25696 net.cpp:156] Memory required for data: 14008
I0802 07:54:47.720994 25696 layer_factory.hpp:77] Creating layer lstm2_cont_slice
I0802 07:54:47.721004 25696 net.cpp:91] Creating Layer lstm2_cont_slice
I0802 07:54:47.721009 25696 net.cpp:425] lstm2_cont_slice <- cont
I0802 07:54:47.721017 25696 net.cpp:399] lstm2_cont_slice -> cont_1
I0802 07:54:47.721053 25696 net.cpp:141] Setting up lstm2_cont_slice
I0802 07:54:47.721065 25696 net.cpp:148] Top shape: 1 1 (1)
I0802 07:54:47.721070 25696 net.cpp:156] Memory required for data: 14012
I0802 07:54:47.721074 25696 layer_factory.hpp:77] Creating layer cont_1_lstm2_cont_slice_0_split
I0802 07:54:47.721086 25696 net.cpp:91] Creating Layer cont_1_lstm2_cont_slice_0_split
I0802 07:54:47.721091 25696 net.cpp:425] cont_1_lstm2_cont_slice_0_split <- cont_1
I0802 07:54:47.721098 25696 net.cpp:399] cont_1_lstm2_cont_slice_0_split -> cont_1_lstm2_cont_slice_0_split_0
I0802 07:54:47.721110 25696 net.cpp:399] cont_1_lstm2_cont_slice_0_split -> cont_1_lstm2_cont_slice_0_split_1
I0802 07:54:47.721161 25696 net.cpp:141] Setting up cont_1_lstm2_cont_slice_0_split
I0802 07:54:47.721171 25696 net.cpp:148] Top shape: 1 1 (1)
I0802 07:54:47.721179 25696 net.cpp:148] Top shape: 1 1 (1)
I0802 07:54:47.721182 25696 net.cpp:156] Memory required for data: 14020
I0802 07:54:47.721187 25696 layer_factory.hpp:77] Creating layer lstm2_x_transform
I0802 07:54:47.721201 25696 net.cpp:91] Creating Layer lstm2_x_transform
I0802 07:54:47.721207 25696 net.cpp:425] lstm2_x_transform <- x
I0802 07:54:47.721218 25696 net.cpp:399] lstm2_x_transform -> W_xc_x
I0802 07:54:47.785635 25696 net.cpp:141] Setting up lstm2_x_transform
I0802 07:54:47.785691 25696 net.cpp:148] Top shape: 1 1 4000 (4000)
I0802 07:54:47.785698 25696 net.cpp:156] Memory required for data: 30020
I0802 07:54:47.785722 25696 layer_factory.hpp:77] Creating layer lstm2_W_xc_x_slice
I0802 07:54:47.785739 25696 net.cpp:91] Creating Layer lstm2_W_xc_x_slice
I0802 07:54:47.785748 25696 net.cpp:425] lstm2_W_xc_x_slice <- W_xc_x
I0802 07:54:47.785758 25696 net.cpp:399] lstm2_W_xc_x_slice -> W_xc_x_1
I0802 07:54:47.785817 25696 net.cpp:141] Setting up lstm2_W_xc_x_slice
I0802 07:54:47.785830 25696 net.cpp:148] Top shape: 1 1 4000 (4000)
I0802 07:54:47.785835 25696 net.cpp:156] Memory required for data: 46020
I0802 07:54:47.785840 25696 layer_factory.hpp:77] Creating layer lstm2_h_conted_0
I0802 07:54:47.785852 25696 net.cpp:91] Creating Layer lstm2_h_conted_0
I0802 07:54:47.785858 25696 net.cpp:425] lstm2_h_conted_0 <- h_0
I0802 07:54:47.785866 25696 net.cpp:425] lstm2_h_conted_0 <- cont_1_lstm2_cont_slice_0_split_0
I0802 07:54:47.785873 25696 net.cpp:399] lstm2_h_conted_0 -> h_conted_0
I0802 07:54:47.785976 25696 net.cpp:141] Setting up lstm2_h_conted_0
I0802 07:54:47.785986 25696 net.cpp:148] Top shape: 1 1 1000 (1000)
I0802 07:54:47.785991 25696 net.cpp:156] Memory required for data: 50020
I0802 07:54:47.785997 25696 layer_factory.hpp:77] Creating layer lstm2_transform_1
I0802 07:54:47.786011 25696 net.cpp:91] Creating Layer lstm2_transform_1
I0802 07:54:47.786017 25696 net.cpp:425] lstm2_transform_1 <- h_conted_0
I0802 07:54:47.786026 25696 net.cpp:399] lstm2_transform_1 -> W_hc_h_0
I0802 07:54:47.829660 25696 net.cpp:141] Setting up lstm2_transform_1
I0802 07:54:47.829717 25696 net.cpp:148] Top shape: 1 1 4000 (4000)
I0802 07:54:47.829725 25696 net.cpp:156] Memory required for data: 66020
I0802 07:54:47.829746 25696 layer_factory.hpp:77] Creating layer lstm2_gate_input_1
I0802 07:54:47.829766 25696 net.cpp:91] Creating Layer lstm2_gate_input_1
I0802 07:54:47.829773 25696 net.cpp:425] lstm2_gate_input_1 <- W_hc_h_0
I0802 07:54:47.829783 25696 net.cpp:425] lstm2_gate_input_1 <- W_xc_x_1
I0802 07:54:47.829795 25696 net.cpp:399] lstm2_gate_input_1 -> gate_input_1
I0802 07:54:47.829850 25696 net.cpp:141] Setting up lstm2_gate_input_1
I0802 07:54:47.829864 25696 net.cpp:148] Top shape: 1 1 4000 (4000)
I0802 07:54:47.829869 25696 net.cpp:156] Memory required for data: 82020
I0802 07:54:47.829874 25696 layer_factory.hpp:77] Creating layer lstm2_unit_1
I0802 07:54:47.829885 25696 net.cpp:91] Creating Layer lstm2_unit_1
I0802 07:54:47.829890 25696 net.cpp:425] lstm2_unit_1 <- c_0
I0802 07:54:47.829897 25696 net.cpp:425] lstm2_unit_1 <- gate_input_1
I0802 07:54:47.829903 25696 net.cpp:425] lstm2_unit_1 <- cont_1_lstm2_cont_slice_0_split_1
I0802 07:54:47.829911 25696 net.cpp:399] lstm2_unit_1 -> c_1
I0802 07:54:47.829921 25696 net.cpp:399] lstm2_unit_1 -> h_1
I0802 07:54:47.829991 25696 net.cpp:141] Setting up lstm2_unit_1
I0802 07:54:47.830001 25696 net.cpp:148] Top shape: 1 1 1000 (1000)
I0802 07:54:47.830008 25696 net.cpp:148] Top shape: 1 1 1000 (1000)
I0802 07:54:47.830013 25696 net.cpp:156] Memory required for data: 90020
I0802 07:54:47.830019 25696 layer_factory.hpp:77] Creating layer lstm2_
I0802 07:54:47.830029 25696 net.cpp:91] Creating Layer lstm2_
I0802 07:54:47.830034 25696 net.cpp:425] lstm2_ <- c_1
I0802 07:54:47.830041 25696 net.cpp:399] lstm2_ -> c_T
I0802 07:54:47.830076 25696 net.cpp:141] Setting up lstm2_
I0802 07:54:47.830086 25696 net.cpp:148] Top shape: 1 1 1000 (1000)
I0802 07:54:47.830091 25696 net.cpp:156] Memory required for data: 94020
I0802 07:54:47.830096 25696 layer_factory.hpp:77] Creating layer lstm2_h_concat
I0802 07:54:47.830111 25696 net.cpp:91] Creating Layer lstm2_h_concat
I0802 07:54:47.830116 25696 net.cpp:425] lstm2_h_concat <- h_1
I0802 07:54:47.830127 25696 net.cpp:399] lstm2_h_concat -> h
I0802 07:54:47.830164 25696 net.cpp:141] Setting up lstm2_h_concat
I0802 07:54:47.830174 25696 net.cpp:148] Top shape: 1 1 1000 (1000)
I0802 07:54:47.830179 25696 net.cpp:156] Memory required for data: 98020
I0802 07:54:47.830184 25696 layer_factory.hpp:77] Creating layer h_pseudoloss
I0802 07:54:47.830198 25696 net.cpp:91] Creating Layer h_pseudoloss
I0802 07:54:47.830204 25696 net.cpp:425] h_pseudoloss <- h
I0802 07:54:47.830211 25696 net.cpp:399] h_pseudoloss -> h_pseudoloss
I0802 07:54:47.830317 25696 net.cpp:141] Setting up h_pseudoloss
…
