…
W0924 02:58:28.423183 10560 upgrade_proto.cpp:71] Note that future Caffe releases will only support input layers and not input fields.
I0924 02:58:28.423218 10562 upgrade_proto.cpp:69] Successfully upgraded file specified using deprecated input fields.
W0924 02:58:28.423228 10562 upgrade_proto.cpp:71] Note that future Caffe releases will only support input layers and not input fields.
I0924 02:58:28.423326 10584 net.cpp:49] Initializing net from parameters: 
name: "CaffeNet"
state {
  phase: TEST
}
layer {
  name: "data"
  type: "Input"
  top: "data"
  input_param {
    shape {
      dim: 10
      dim: 3
      dim: 227
      dim: 227
    }
  }
}
layer {
  name: "conv1"
  type: "Convolution"
  bottom: "data"
  top: "conv1"
  convolution_param {
    num_output: 96
    kernel_size: 11
    stride: 4
  }
}
layer {
  name: "relu1"
  type: "ReLU"
  bottom: "conv1"
  top: "conv1"
}
layer {
  name: "pool1"
  type: "Pooling"
  bottom: "conv1"
  top: "pool1"
  pooling_param {
    pool: MAX
    kernel_size: 3
    stride: 2
  }
}
layer {
  name: "norm1"
  type: "LRN"
  bottom: "pool1"
  top: "norm1"
  lrn_param {
    local_size: 5
    alpha: 0.0001
    beta: 0.75
  }
}
layer {
  name: "conv2"
  type: "Convolution"
  bottom: "norm1"
  top: "conv2"
  convolution_param {
    num_output: 256
    pad: 2
    kernel_size: 5
    group: 2
  }
}
layer {
  name: "relu2"
  type: "ReLU"
  bottom: "conv2"
  top: "conv2"
}
layer {
  name: "pool2"
  type: "Pooling"
  bottom: "conv2"
  top: "pool2"
  pooling_param {
    pool: MAX
    kernel_size: 3
    stride: 2
  }
}
layer {
  name: "norm2"
  type: "LRN"
  bottom: "pool2"
  top: "norm2"
  lrn_param {
    local_size: 5
    alpha: 0.0001
    beta: 0.75
  }
}
layer {
  name: "conv3"
  type: "Convolution"
  bottom: "norm2"
  top: "conv3"
  convolution_param {
    num_output: 384
    pad: 1
    kernel_size: 3
  }
}
layer {
  name: "relu3"
  type: "ReLU"
  bottom: "conv3"
  top: "conv3"
}
layer {
  name: "conv4"
  type: "Convolution"
  bottom: "conv3"
  top: "conv4"
  convolution_param {
    num_output: 384
    pad: 1
    kernel_size: 3
    group: 2
  }
}
layer {
  name: "relu4"
  type: "ReLU"
  bottom: "conv4"
  top: "conv4"
}
layer {
  name: "conv5"
  type: "Convolution"
  bottom: "conv4"
  top: "conv5"
  convolution_param {
    num_output: 256
    pad: 1
    kernel_size: 3
    group: 2
  }
}
layer {
  name: "relu5"
  type: "ReLU"
  bottom: "conv5"
  top: "conv5"
}
layer {
  name: "pool5"
  type: "Pooling"
  bottom: "conv5"
  top: "pool5"
  pooling_param {
    pool: MAX
    kernel_size: 3
    stride: 2
  }
}
layer {
  name: "fc6"
  type: "InnerProduct"
  bottom: "pool5"
  top: "fc6"
  inner_product_param {
    num_output: 4096
  }
}
layer {
  name: "relu6"
  type: "ReLU"
  bottom: "fc6"
  top: "fc6"
}
layer {
  name: "drop6"
  type: "Dropout"
  bottom: "fc6"
  top: "fc6"
  dropout_param {
    dropout_ratio: 0.5
  }
}
layer {
  name: "fc7"
  type: "InnerProduct"
  bottom: "fc6"
  top: "fc7"
  inner_product_param {
    num_output: 4096
  }
}
layer {
  name: "relu7"
  type: "ReLU"
  bottom: "fc7"
  top: "fc7"
}
layer {
  name: "drop7"
  type: "Dropout"
  bottom: "fc7"
  top: "fc7"
  dropout_param {
    dropout_ratio: 0.5
  }
}
layer {
  name: "fc8"
  type: "InnerProduct"
  bottom: "fc7"
  top: "fc8"
  inner_product_param {
    num_output: 1000
  }
}
layer {
  name: "prob"
  type: "Softmax"
  bottom: "fc8"
  top: "prob"
}
I0924 02:58:28.423414 10592 net.cpp:49] Initializing net from parameters: 
name: "s2vt:features_to_lstm"
state {
  phase: TEST
}
layer {
  name: "input"
  type: "Input"
  top: "frames_fc7"
  top: "cont_sentence"
  top: "input_sentence"
  top: "stage_indicator"
  input_param {
    shape {
      dim: 1
      dim: 4096
    }
    shape {
      dim: 1
      dim: 1
    }
    shape {
      dim: 1
      dim: 1
    }
    shape {
      dim: 1
      dim: 1
    }
  }
}
layer {
  name: "embed_encoder"
  type: "InnerProduct"
  bottom: "frames_fc7"
  top: "embedded_in_frames"
  param {
    lr_mult: 1
    decay_mult: 1
  }
  param {
    lr_mult: 2
    decay_mult: 0
  }
  inner_product_param {
    num_output: 500
    weight_filler {
      type: "xavier"
    }
    bias_filler {
      type: "constant"
      value: 0.2
    }
  }
}
layer {
  name: "reshape_frames"
  type: "Reshape"
  bottom: "embedded_in_frames"
  top: "embedded_input_frames"
  reshape_param {
    shape {
      dim: 1
      dim: 1
      dim: 500
    }
  }
}
layer {
  name: "reshape_stage_indicator"
  type: "Reshape"
  bottom: "stage_indicator"
  top: "reshaped_stage_indicator"
  reshape_param {
    shape {
      dim: 1
      dim: 1
      dim: 1
    }
  }
}
layer {
  name: "embedding"
  type: "Embed"
  bottom: "input_sentence"
  top: "embedded_input_sentence"
  param {
    lr_mult: 1
  }
  embed_param {
    num_output: 500
    input_dim: 46168
    bias_term: false
    weight_filler {
      type: "uniform"
      min: -0.08
      max: 0.08
    }
  }
}
layer {
  name: "lstm1"
  type: "LSTM"
  bottom: "embedded_input_frames"
  bottom: "cont_sentence"
  top: "lstm1"
  recurrent_param {
    num_output: 1000
    weight_filler {
      type: "uniform"
      min: -0.08
      max: 0.08
    }
    bias_filler {
      type: "constant"
      value: 0
    }
  }
}
layer {
  name: "concat"
  type: "Concat"
  bottom: "lstm1"
  bottom: "embedded_input_sentence"
  bottom: "reshaped_stage_indicator"
  top: "lstm1_video_sequence"
  concat_param {
    concat_dim: 2
  }
}
layer {
  name: "lstm2"
  type: "LSTM"
  bottom: "lstm1_video_sequence"
  bottom: "cont_sentence"
  top: "lstm2"
  recurrent_param {
    num_output: 1000
    weight_filler {
      type: "uniform"
      min: -0.08
      max: 0.08
    }
    bias_filler {
      type: "constant"
      value: 0
    }
  }
}
layer {
  name: "predict"
  type: "InnerProduct"
  bottom: "lstm2"
  top: "predict"
  param {
    lr_mult: 1
    decay_mult: 1
  }
  param {
    lr_mult: 2
    decay_mult: 0
  }
  inner_product_param {
    num_output: 46168
    weight_filler {
      type: "uniform"
      min: -0.08
      max: 0.08
    }
    bias_filler {
      type: "constant"
      value: 0
    }
    axis: 2
  }
}
layer {
  name: "probs"
  type: "Softmax"
  bottom: "predict"
  top: "probs"
  softmax_param {
    axis: 2
  }
}
I0924 02:58:28.423430 10568 net.cpp:49] Initializing net from parameters: 
name: "s2vt:features_to_lstm"
state {
  phase: TEST
}
layer {
  name: "input"
  type: "Input"
  top: "frames_fc7"
  top: "cont_sentence"
  top: "input_sentence"
  top: "stage_indicator"
  input_param {
    shape {
      dim: 1
      dim: 4096
    }
    shape {
      dim: 1
      dim: 1
    }
    shape {
      dim: 1
      dim: 1
    }
    shape {
      dim: 1
      dim: 1
    }
  }
}
layer {
  name: "embed_encoder"
  type: "InnerProduct"
  bottom: "frames_fc7"
  top: "embedded_in_frames"
  param {
    lr_mult: 1
    decay_mult: 1
  }
  param {
    lr_mult: 2
    decay_mult: 0
  }
  inner_product_param {
    num_output: 500
    weight_filler {
      type: "xavier"
    }
    bias_filler {
      type: "constant"
      value: 0.2
    }
  }
}
layer {
  name: "reshape_frames"
  type: "Reshape"
  bottom: "embedded_in_frames"
  top: "embedded_input_frames"
  reshape_param {
    shape {
      dim: 1
      dim: 1
      dim: 500
    }
  }
}
layer {
  name: "reshape_stage_indicator"
  type: "Reshape"
  bottom: "stage_indicator"
  top: "reshaped_stage_indicator"
  reshape_param {
    shape {
      dim: 1
      dim: 1
      dim: 1
    }
  }
}
layer {
  name: "embedding"
  type: "Embed"
  bottom: "input_sentence"
  top: "embedded_input_sentence"
  param {
    lr_mult: 1
  }
  embed_param {
    num_output: 500
    input_dim: 46168
    bias_term: false
    weight_filler {
      type: "uniform"
      min: -0.08
      max: 0.08
    }
  }
}
layer {
  name: "lstm1"
  type: "LSTM"
  bottom: "embedded_input_frames"
  bottom: "cont_sentence"
  top: "lstm1"
  recurrent_param {
    num_output: 1000
    weight_filler {
      type: "uniform"
      min: -0.08
      max: 0.08
    }
    bias_filler {
      type: "constant"
      value: 0
    }
  }
}
layer {
  name: "concat"
  type: "Concat"
  bottom: "lstm1"
  bottom: "embedded_input_sentence"
  bottom: "reshaped_stage_indicator"
  top: "lstm1_video_sequence"
  concat_param {
    concat_dim: 2
  }
}
layer {
  name: "lstm2"
  type: "LSTM"
  bottom: "lstm1_video_sequence"
  bottom: "cont_sentence"
  top: "lstm2"
  recurrent_param {
    num_output: 1000
    weight_filler {
      type: "uniform"
      min: -0.08
      max: 0.08
    }
    bias_filler {
      type: "constant"
      value: 0
    }
  }
}
layer {
  name: "predict"
  type: "InnerProduct"
  bottom: "lstm2"
  top: "predict"
  param {
    lr_mult: 1
    decay_mult: 1
  }
  param {
    lr_mult: 2
    decay_mult: 0
  }
  inner_product_param {
    num_output: 46168
    weight_filler {
      type: "uniform"
      min: -0.08
      max: 0.08
    }
    bias_filler {
      type: "constant"
      value: 0
    }
    axis: 2
  }
}
layer {
  name: "probs"
  type: "Softmax"
  bottom: "predict"
  top: "probs"
  softmax_param {
    axis: 2
  }
}
I0924 02:58:28.423430 10586 net.cpp:49] Initializing net from parameters: 
name: "s2vt:features_to_lstm"
state {
  phase: TEST
}
layer {
  name: "input"
  type: "Input"
  top: "frames_fc7"
  top: "cont_sentence"
  top: "input_sentence"
  top: "stage_indicator"
  input_param {
    shape {
      dim: 1
      dim: 4096
    }
    shape {
      dim: 1
      dim: 1
    }
    shape {
      dim: 1
      dim: 1
    }
    shape {
      dim: 1
      dim: 1
    }
  }
}
layer {
  name: "embed_encoder"
  type: "InnerProduct"
  bottom: "frames_fc7"
  top: "embedded_in_frames"
  param {
    lr_mult: 1
    decay_mult: 1
  }
  param {
    lr_mult: 2
    decay_mult: 0
  }
  inner_product_param {
    num_output: 500
    weight_filler {
      type: "xavier"
    }
    bias_filler {
      type: "constant"
      value: 0.2
    }
  }
}
layer {
  name: "reshape_frames"
  type: "Reshape"
  bottom: "embedded_in_frames"
  top: "embedded_input_frames"
  reshape_param {
    shape {
      dim: 1
      dim: 1
      dim: 500
    }
  }
}
layer {
  name: "reshape_stage_indicator"
  type: "Reshape"
  bottom: "stage_indicator"
  top: "reshaped_stage_indicator"
  reshape_param {
    shape {
      dim: 1
      dim: 1
      dim: 1
    }
  }
}
layer {
  name: "embedding"
  type: "Embed"
  bottom: "input_sentence"
  top: "embedded_input_sentence"
  param {
    lr_mult: 1
  }
  embed_param {
    num_output: 500
    input_dim: 46168
    bias_term: false
    weight_filler {
      type: "uniform"
      min: -0.08
      max: 0.08
    }
  }
}
layer {
  name: "lstm1"
  type: "LSTM"
  bottom: "embedded_input_frames"
  bottom: "cont_sentence"
  top: "lstm1"
  recurrent_param {
    num_output: 1000
    weight_filler {
      type: "uniform"
      min: -0.08
      max: 0.08
    }
    bias_filler {
      type: "constant"
      value: 0
    }
  }
}
layer {
  name: "concat"
  type: "Concat"
  bottom: "lstm1"
  bottom: "embedded_input_sentence"
  bottom: "reshaped_stage_indicator"
  top: "lstm1_video_sequence"
  concat_param {
    concat_dim: 2
  }
}
layer {
  name: "lstm2"
  type: "LSTM"
  bottom: "lstm1_video_sequence"
  bottom: "cont_sentence"
  top: "lstm2"
  recurrent_param {
    num_output: 1000
    weight_filler {
      type: "uniform"
      min: -0.08
      max: 0.08
    }
    bias_filler {
      type: "constant"
      value: 0
    }
  }
}
layer {
  name: "predict"
  type: "InnerProduct"
  bottom: "lstm2"
  top: "predict"
  param {
    lr_mult: 1
    decay_mult: 1
  }
  param {
    lr_mult: 2
    decay_mult: 0
  }
  inner_product_param {
    num_output: 46168
    weight_filler {
      type: "uniform"
      min: -0.08
      max: 0.08
    }
    bias_filler {
      type: "constant"
      value: 0
    }
    axis: 2
  }
}
layer {
  name: "probs"
  type: "Softmax"
  bottom: "predict"
  top: "probs"
  softmax_param {
    axis: 2
  }
}
I0924 02:58:28.423458 10584 layer_factory.hpp:77] Creating layer data
I0924 02:58:28.423442 10558 net.cpp:49] Initializing net from parameters: 
name: "s2vt:features_to_lstm"
state {
  phase: TEST
}
layer {
  name: "input"
  type: "Input"
  top: "frames_fc7"
  top: "cont_sentence"
  top: "input_sentence"
  top: "stage_indicator"
  input_param {
    shape {
      dim: 1
      dim: 4096
    }
    shape {
      dim: 1
      dim: 1
    }
    shape {
      dim: 1
      dim: 1
    }
    shape {
      dim: 1
      dim: 1
    }
  }
}
layer {
  name: "embed_encoder"
  type: "InnerProduct"
  bottom: "frames_fc7"
  top: "embedded_in_frames"
  param {
    lr_mult: 1
    decay_mult: 1
  }
  param {
    lr_mult: 2
    decay_mult: 0
  }
  inner_product_param {
    num_output: 500
    weight_filler {
      type: "xavier"
    }
    bias_filler {
      type: "constant"
      value: 0.2
    }
  }
}
layer {
  name: "reshape_frames"
  type: "Reshape"
  bottom: "embedded_in_frames"
  top: "embedded_input_frames"
  reshape_param {
    shape {
      dim: 1
      dim: 1
      dim: 500
    }
  }
}
layer {
  name: "reshape_stage_indicator"
  type: "Reshape"
  bottom: "stage_indicator"
  top: "reshaped_stage_indicator"
  reshape_param {
    shape {
      dim: 1
      dim: 1
      dim: 1
    }
  }
}
layer {
  name: "embedding"
  type: "Embed"
  bottom: "input_sentence"
  top: "embedded_input_sentence"
  param {
    lr_mult: 1
  }
  embed_param {
    num_output: 500
    input_dim: 46168
    bias_term: false
    weight_filler {
      type: "uniform"
      min: -0.08
      max: 0.08
    }
  }
}
layer {
  name: "lstm1"
  type: "LSTM"
  bottom: "embedded_input_frames"
  bottom: "cont_sentence"
  top: "lstm1"
  recurrent_param {
    num_output: 1000
    weight_filler {
      type: "uniform"
      min: -0.08
      max: 0.08
    }
    bias_filler {
      type: "constant"
      value: 0
    }
  }
}
layer {
  name: "concat"
  type: "Concat"
  bottom: "lstm1"
  bottom: "embedded_input_sentence"
  bottom: "reshaped_stage_indicator"
  top: "lstm1_video_sequence"
  concat_param {
    concat_dim: 2
  }
}
layer {
  name: "lstm2"
  type: "LSTM"
  bottom: "lstm1_video_sequence"
  bottom: "cont_sentence"
  top: "lstm2"
  recurrent_param {
    num_output: 1000
    weight_filler {
      type: "uniform"
      min: -0.08
      max: 0.08
    }
    bias_filler {
      type: "constant"
      value: 0
    }
  }
}
layer {
  name: "predict"
  type: "InnerProduct"
  bottom: "lstm2"
  top: "predict"
  param {
    lr_mult: 1
    decay_mult: 1
  }
  param {
    lr_mult: 2
    decay_mult: 0
  }
  inner_product_param {
    num_output: 46168
    weight_filler {
      type: "uniform"
      min: -0.08
      max: 0.08
    }
    bias_filler {
      type: "constant"
      value: 0
    }
    axis: 2
  }
}
layer {
  name: "probs"
  type: "Softmax"
  bottom: "predict"
  top: "probs"
  softmax_param {
    axis: 2
  }
}
I0924 02:58:28.423486 10584 net.cpp:91] Creating Layer data
I0924 02:58:28.423497 10584 net.cpp:399] data -> data
I0924 02:58:28.423519 10592 layer_factory.hpp:77] Creating layer input
I0924 02:58:28.423532 10586 layer_factory.hpp:77] Creating layer input
I0924 02:58:28.423528 10560 net.cpp:49] Initializing net from parameters: 
name: "s2vt:features_to_lstm"
state {
  phase: TEST
}
layer {
  name: "input"
  type: "Input"
  top: "frames_fc7"
  top: "cont_sentence"
  top: "input_sentence"
  top: "stage_indicator"
  input_param {
    shape {
      dim: 1
      dim: 4096
    }
    shape {
      dim: 1
      dim: 1
    }
    shape {
      dim: 1
      dim: 1
    }
    shape {
      dim: 1
      dim: 1
    }
  }
}
layer {
  name: "embed_encoder"
  type: "InnerProduct"
  bottom: "frames_fc7"
  top: "embedded_in_frames"
  param {
    lr_mult: 1
    decay_mult: 1
  }
  param {
    lr_mult: 2
    decay_mult: 0
  }
  inner_product_param {
    num_output: 500
    weight_filler {
      type: "xavier"
    }
    bias_filler {
      type: "constant"
      value: 0.2
    }
  }
}
layer {
  name: "reshape_frames"
  type: "Reshape"
  bottom: "embedded_in_frames"
  top: "embedded_input_frames"
  reshape_param {
    shape {
      dim: 1
      dim: 1
      dim: 500
    }
  }
}
layer {
  name: "reshape_stage_indicator"
  type: "Reshape"
  bottom: "stage_indicator"
  top: "reshaped_stage_indicator"
  reshape_param {
    shape {
      dim: 1
      dim: 1
      dim: 1
    }
  }
}
layer {
  name: "embedding"
  type: "Embed"
  bottom: "input_sentence"
  top: "embedded_input_sentence"
  param {
    lr_mult: 1
  }
  embed_param {
    num_output: 500
    input_dim: 46168
    bias_term: false
    weight_filler {
      type: "uniform"
      min: -0.08
      max: 0.08
    }
  }
}
layer {
  name: "lstm1"
  type: "LSTM"
  bottom: "embedded_input_frames"
  bottom: "cont_sentence"
  top: "lstm1"
  recurrent_param {
    num_output: 1000
    weight_filler {
      type: "uniform"
      min: -0.08
      max: 0.08
    }
    bias_filler {
      type: "constant"
      value: 0
    }
  }
}
layer {
  name: "concat"
  type: "Concat"
  bottom: "lstm1"
  bottom: "embedded_input_sentence"
  bottom: "reshaped_stage_indicator"
  top: "lstm1_video_sequence"
  concat_param {
    concat_dim: 2
  }
}
layer {
  name: "lstm2"
  type: "LSTM"
  bottom: "lstm1_video_sequence"
  bottom: "cont_sentence"
  top: "lstm2"
  recurrent_param {
    num_output: 1000
    weight_filler {
      type: "uniform"
      min: -0.08
      max: 0.08
    }
    bias_filler {
      type: "constant"
      value: 0
    }
  }
}
layer {
  name: "predict"
  type: "InnerProduct"
  bottom: "lstm2"
  top: "predict"
  param {
    lr_mult: 1
    decay_mult: 1
  }
  param {
    lr_mult: 2
    decay_mult: 0
  }
  inner_product_param {
    num_output: 46168
    weight_filler {
      type: "uniform"
      min: -0.08
      max: 0.08
    }
    bias_filler {
      type: "constant"
      value: 0
    }
    axis: 2
  }
}
layer {
  name: "probs"
  type: "Softmax"
  bottom: "predict"
  top: "probs"
  softmax_param {
    axis: 2
  }
}
I0924 02:58:28.423533 10592 net.cpp:91] Creating Layer input
I0924 02:58:28.423552 10586 net.cpp:91] Creating Layer input
I0924 02:58:28.423528 10568 layer_factory.hpp:77] Creating layer input
I0924 02:58:28.423562 10586 net.cpp:399] input -> frames_fc7
I0924 02:58:28.423555 10592 net.cpp:399] input -> frames_fc7
I0924 02:58:28.423547 10562 net.cpp:49] Initializing net from parameters: 
name: "s2vt:features_to_lstm"
state {
  phase: TEST
}
layer {
  name: "input"
  type: "Input"
  top: "frames_fc7"
  top: "cont_sentence"
  top: "input_sentence"
  top: "stage_indicator"
  input_param {
    shape {
      dim: 1
      dim: 4096
    }
    shape {
      dim: 1
      dim: 1
    }
    shape {
      dim: 1
      dim: 1
    }
    shape {
      dim: 1
      dim: 1
    }
  }
}
layer {
  name: "embed_encoder"
  type: "InnerProduct"
  bottom: "frames_fc7"
  top: "embedded_in_frames"
  param {
    lr_mult: 1
    decay_mult: 1
  }
  param {
    lr_mult: 2
    decay_mult: 0
  }
  inner_product_param {
    num_output: 500
    weight_filler {
      type: "xavier"
    }
    bias_filler {
      type: "constant"
      value: 0.2
    }
  }
}
layer {
  name: "reshape_frames"
  type: "Reshape"
  bottom: "embedded_in_frames"
  top: "embedded_input_frames"
  reshape_param {
    shape {
      dim: 1
      dim: 1
      dim: 500
    }
  }
}
layer {
  name: "reshape_stage_indicator"
  type: "Reshape"
  bottom: "stage_indicator"
  top: "reshaped_stage_indicator"
  reshape_param {
    shape {
      dim: 1
      dim: 1
      dim: 1
    }
  }
}
layer {
  name: "embedding"
  type: "Embed"
  bottom: "input_sentence"
  top: "embedded_input_sentence"
  param {
    lr_mult: 1
  }
  embed_param {
    num_output: 500
    input_dim: 46168
    bias_term: false
    weight_filler {
      type: "uniform"
      min: -0.08
      max: 0.08
    }
  }
}
layer {
  name: "lstm1"
  type: "LSTM"
  bottom: "embedded_input_frames"
  bottom: "cont_sentence"
  top: "lstm1"
  recurrent_param {
    num_output: 1000
    weight_filler {
      type: "uniform"
      min: -0.08
      max: 0.08
    }
    bias_filler {
      type: "constant"
      value: 0
    }
  }
}
layer {
  name: "concat"
  type: "Concat"
  bottom: "lstm1"
  bottom: "embedded_input_sentence"
  bottom: "reshaped_stage_indicator"
  top: "lstm1_video_sequence"
  concat_param {
    concat_dim: 2
  }
}
layer {
  name: "lstm2"
  type: "LSTM"
  bottom: "lstm1_video_sequence"
  bottom: "cont_sentence"
  top: "lstm2"
  recurrent_param {
    num_output: 1000
    weight_filler {
      type: "uniform"
      min: -0.08
      max: 0.08
    }
    bias_filler {
      type: "constant"
      value: 0
    }
  }
}
layer {
  name: "predict"
  type: "InnerProduct"
  bottom: "lstm2"
  top: "predict"
  param {
    lr_mult: 1
    decay_mult: 1
  }
  param {
    lr_mult: 2
    decay_mult: 0
  }
  inner_product_param {
    num_output: 46168
    weight_filler {
      type: "uniform"
      min: -0.08
      max: 0.08
    }
    bias_filler {
      type: "constant"
      value: 0
    }
    axis: 2
  }
}
layer {
  name: "probs"
  type: "Softmax"
  bottom: "predict"
  top: "probs"
  softmax_param {
    axis: 2
  }
}
I0924 02:58:28.423575 10568 net.cpp:91] Creating Layer input
I0924 02:58:28.423566 10558 layer_factory.hpp:77] Creating layer input
I0924 02:58:28.423588 10568 net.cpp:399] input -> frames_fc7
I0924 02:58:28.423588 10592 net.cpp:399] input -> cont_sentence
I0924 02:58:28.423578 10586 net.cpp:399] input -> cont_sentence
I0924 02:58:28.423604 10558 net.cpp:91] Creating Layer input
…
I0924 02:58:28.423712 10560 net.cpp:399] input -> frames_fc7
I0924 02:58:28.423722 10562 net.cpp:399] input -> frames_fc7
I0924 02:58:28.423732 10560 net.cpp:399] input -> cont_sentence
I0924 02:58:28.423739 10562 net.cpp:399] input -> cont_sentence
I0924 02:58:28.423750 10560 net.cpp:399] input -> input_sentence
I0924 02:58:28.423756 10562 net.cpp:399] input -> input_sentence
I0924 02:58:28.423768 10560 net.cpp:399] input -> stage_indicator
I0924 02:58:28.423774 10562 net.cpp:399] input -> stage_indicator
I0924 02:58:29.103875 10584 net.cpp:141] Setting up data
I0924 02:58:29.103960 10584 net.cpp:148] Top shape: 10 3 227 227 (1545870)
I0924 02:58:29.103972 10584 net.cpp:156] Memory required for data: 6183480
I0924 02:58:29.103981 10586 net.cpp:141] Setting up input
I0924 02:58:29.103998 10584 layer_factory.hpp:77] Creating layer conv1
I0924 02:58:29.104006 10586 net.cpp:148] Top shape: 1 4096 (4096)
I0924 02:58:29.104019 10586 net.cpp:148] Top shape: 1 1 (1)
I0924 02:58:29.104032 10586 net.cpp:148] Top shape: 1 1 (1)
I0924 02:58:29.104035 10584 net.cpp:91] Creating Layer conv1
I0924 02:58:29.104043 10586 net.cpp:148] Top shape: 1 1 (1)
I0924 02:58:29.104049 10584 net.cpp:425] conv1 <- data
I0924 02:58:29.104050 10586 net.cpp:156] Memory required for data: 16396
I0924 02:58:29.104063 10586 layer_factory.hpp:77] Creating layer cont_sentence_input_1_split
I0924 02:58:29.104069 10584 net.cpp:399] conv1 -> conv1
I0924 02:58:29.104095 10586 net.cpp:91] Creating Layer cont_sentence_input_1_split
I0924 02:58:29.104109 10586 net.cpp:425] cont_sentence_input_1_split <- cont_sentence
I0924 02:58:29.104138 10586 net.cpp:399] cont_sentence_input_1_split -> cont_sentence_input_1_split_0
I0924 02:58:29.104158 10586 net.cpp:399] cont_sentence_input_1_split -> cont_sentence_input_1_split_1
I0924 02:58:29.104353 10586 net.cpp:141] Setting up cont_sentence_input_1_split
I0924 02:58:29.104372 10586 net.cpp:148] Top shape: 1 1 (1)
I0924 02:58:29.104382 10586 net.cpp:148] Top shape: 1 1 (1)
I0924 02:58:29.104389 10586 net.cpp:156] Memory required for data: 16404
I0924 02:58:29.104399 10586 layer_factory.hpp:77] Creating layer embed_encoder
I0924 02:58:29.104429 10586 net.cpp:91] Creating Layer embed_encoder
I0924 02:58:29.104439 10586 net.cpp:425] embed_encoder <- frames_fc7
I0924 02:58:29.104449 10586 net.cpp:399] embed_encoder -> embedded_in_frames
I0924 02:58:29.109300 10568 net.cpp:141] Setting up input
I0924 02:58:29.109344 10568 net.cpp:148] Top shape: 1 4096 (4096)
I0924 02:58:29.109356 10568 net.cpp:148] Top shape: 1 1 (1)
I0924 02:58:29.109366 10568 net.cpp:148] Top shape: 1 1 (1)
I0924 02:58:29.109375 10568 net.cpp:148] Top shape: 1 1 (1)
I0924 02:58:29.109383 10568 net.cpp:156] Memory required for data: 16396
I0924 02:58:29.109395 10568 layer_factory.hpp:77] Creating layer cont_sentence_input_1_split
I0924 02:58:29.109383 10562 net.cpp:141] Setting up input
I0924 02:58:29.109414 10568 net.cpp:91] Creating Layer cont_sentence_input_1_split
I0924 02:58:29.109426 10562 net.cpp:148] Top shape: 1 4096 (4096)
I0924 02:58:29.109426 10568 net.cpp:425] cont_sentence_input_1_split <- cont_sentence
I0924 02:58:29.109436 10562 net.cpp:148] Top shape: 1 1 (1)
I0924 02:58:29.109442 10562 net.cpp:148] Top shape: 1 1 (1)
I0924 02:58:29.109443 10568 net.cpp:399] cont_sentence_input_1_split -> cont_sentence_input_1_split_0
I0924 02:58:29.109448 10562 net.cpp:148] Top shape: 1 1 (1)
I0924 02:58:29.109453 10562 net.cpp:156] Memory required for data: 16396
I0924 02:58:29.109464 10568 net.cpp:399] cont_sentence_input_1_split -> cont_sentence_input_1_split_1
I0924 02:58:29.109465 10562 layer_factory.hpp:77] Creating layer cont_sentence_input_1_split
I0924 02:58:29.109486 10560 net.cpp:141] Setting up input
I0924 02:58:29.109503 10562 net.cpp:91] Creating Layer cont_sentence_input_1_split
I0924 02:58:29.109509 10562 net.cpp:425] cont_sentence_input_1_split <- cont_sentence
I0924 02:58:29.109509 10560 net.cpp:148] Top shape: 1 4096 (4096)
I0924 02:58:29.109521 10562 net.cpp:399] cont_sentence_input_1_split -> cont_sentence_input_1_split_0
I0924 02:58:29.109524 10560 net.cpp:148] Top shape: 1 1 (1)
I0924 02:58:29.109535 10562 net.cpp:399] cont_sentence_input_1_split -> cont_sentence_input_1_split_1
I0924 02:58:29.109534 10560 net.cpp:148] Top shape: 1 1 (1)
I0924 02:58:29.109555 10568 net.cpp:141] Setting up cont_sentence_input_1_split
I0924 02:58:29.109558 10560 net.cpp:148] Top shape: 1 1 (1)
I0924 02:58:29.109581 10568 net.cpp:148] Top shape: 1 1 (1)
I0924 02:58:29.109586 10560 net.cpp:156] Memory required for data: 16396
I0924 02:58:29.109592 10568 net.cpp:148] Top shape: 1 1 (1)
I0924 02:58:29.109597 10560 layer_factory.hpp:77] Creating layer cont_sentence_input_1_split
I0924 02:58:29.109601 10568 net.cpp:156] Memory required for data: 16404
I0924 02:58:29.109611 10568 layer_factory.hpp:77] Creating layer embed_encoder
I0924 02:58:29.109614 10560 net.cpp:91] Creating Layer cont_sentence_input_1_split
I0924 02:58:29.109623 10560 net.cpp:425] cont_sentence_input_1_split <- cont_sentence
I0924 02:58:29.109628 10568 net.cpp:91] Creating Layer embed_encoder
I0924 02:58:29.109637 10560 net.cpp:399] cont_sentence_input_1_split -> cont_sentence_input_1_split_0
I0924 02:58:29.109644 10558 net.cpp:141] Setting up input
I0924 02:58:29.109637 10568 net.cpp:425] embed_encoder <- frames_fc7
I0924 02:58:29.109658 10558 net.cpp:148] Top shape: 1 4096 (4096)
I0924 02:58:29.109663 10560 net.cpp:399] cont_sentence_input_1_split -> cont_sentence_input_1_split_1
I0924 02:58:29.109666 10558 net.cpp:148] Top shape: 1 1 (1)
I0924 02:58:29.109671 10558 net.cpp:148] Top shape: 1 1 (1)
I0924 02:58:29.109678 10558 net.cpp:148] Top shape: 1 1 (1)
I0924 02:58:29.109683 10558 net.cpp:156] Memory required for data: 16396
I0924 02:58:29.109678 10568 net.cpp:399] embed_encoder -> embedded_in_frames
I0924 02:58:29.109694 10558 layer_factory.hpp:77] Creating layer cont_sentence_input_1_split
I0924 02:58:29.109714 10558 net.cpp:91] Creating Layer cont_sentence_input_1_split
I0924 02:58:29.109719 10558 net.cpp:425] cont_sentence_input_1_split <- cont_sentence
I0924 02:58:29.109727 10558 net.cpp:399] cont_sentence_input_1_split -> cont_sentence_input_1_split_0
I0924 02:58:29.109738 10558 net.cpp:399] cont_sentence_input_1_split -> cont_sentence_input_1_split_1
I0924 02:58:29.109738 10560 net.cpp:141] Setting up cont_sentence_input_1_split
I0924 02:58:29.109753 10560 net.cpp:148] Top shape: 1 1 (1)
I0924 02:58:29.109764 10560 net.cpp:148] Top shape: 1 1 (1)
I0924 02:58:29.109772 10560 net.cpp:156] Memory required for data: 16404
I0924 02:58:29.109781 10560 layer_factory.hpp:77] Creating layer embed_encoder
I0924 02:58:29.109799 10560 net.cpp:91] Creating Layer embed_encoder
I0924 02:58:29.109807 10560 net.cpp:425] embed_encoder <- frames_fc7
I0924 02:58:29.109822 10560 net.cpp:399] embed_encoder -> embedded_in_frames
I0924 02:58:29.109818 10592 net.cpp:141] Setting up input
I0924 02:58:29.109850 10592 net.cpp:148] Top shape: 1 4096 (4096)
I0924 02:58:29.109863 10592 net.cpp:148] Top shape: 1 1 (1)
I0924 02:58:29.109870 10592 net.cpp:148] Top shape: 1 1 (1)
I0924 02:58:29.109876 10592 net.cpp:148] Top shape: 1 1 (1)
I0924 02:58:29.109880 10592 net.cpp:156] Memory required for data: 16396
I0924 02:58:29.109885 10592 layer_factory.hpp:77] Creating layer cont_sentence_input_1_split
I0924 02:58:29.109899 10592 net.cpp:91] Creating Layer cont_sentence_input_1_split
I0924 02:58:29.109908 10592 net.cpp:425] cont_sentence_input_1_split <- cont_sentence
I0924 02:58:29.109920 10592 net.cpp:399] cont_sentence_input_1_split -> cont_sentence_input_1_split_0
I0924 02:58:29.109920 10562 net.cpp:141] Setting up cont_sentence_input_1_split
I0924 02:58:29.109930 10592 net.cpp:399] cont_sentence_input_1_split -> cont_sentence_input_1_split_1
I0924 02:58:29.109940 10562 net.cpp:148] Top shape: 1 1 (1)
I0924 02:58:29.109951 10562 net.cpp:148] Top shape: 1 1 (1)
I0924 02:58:29.109958 10562 net.cpp:156] Memory required for data: 16404
I0924 02:58:29.109967 10562 layer_factory.hpp:77] Creating layer embed_encoder
I0924 02:58:29.109973 10558 net.cpp:141] Setting up cont_sentence_input_1_split
I0924 02:58:29.109987 10558 net.cpp:148] Top shape: 1 1 (1)
I0924 02:58:29.109992 10562 net.cpp:91] Creating Layer embed_encoder
I0924 02:58:29.109998 10558 net.cpp:148] Top shape: 1 1 (1)
I0924 02:58:29.110002 10562 net.cpp:425] embed_encoder <- frames_fc7
I0924 02:58:29.110005 10558 net.cpp:156] Memory required for data: 16404
I0924 02:58:29.110013 10558 layer_factory.hpp:77] Creating layer embed_encoder
I0924 02:58:29.110015 10562 net.cpp:399] embed_encoder -> embedded_in_frames
I0924 02:58:29.110029 10558 net.cpp:91] Creating Layer embed_encoder
I0924 02:58:29.110038 10558 net.cpp:425] embed_encoder <- frames_fc7
I0924 02:58:29.110052 10558 net.cpp:399] embed_encoder -> embedded_in_frames
I0924 02:58:29.124863 10592 net.cpp:141] Setting up cont_sentence_input_1_split
I0924 02:58:29.124915 10592 net.cpp:148] Top shape: 1 1 (1)
I0924 02:58:29.124927 10592 net.cpp:148] Top shape: 1 1 (1)
I0924 02:58:29.124934 10592 net.cpp:156] Memory required for data: 16404
I0924 02:58:29.124945 10592 layer_factory.hpp:77] Creating layer embed_encoder
I0924 02:58:29.124974 10592 net.cpp:91] Creating Layer embed_encoder
I0924 02:58:29.124984 10592 net.cpp:425] embed_encoder <- frames_fc7
I0924 02:58:29.124999 10592 net.cpp:399] embed_encoder -> embedded_in_frames
I0924 02:58:29.136014 10586 net.cpp:141] Setting up embed_encoder
I0924 02:58:29.136067 10586 net.cpp:148] Top shape: 1 500 (500)
I0924 02:58:29.136076 10586 net.cpp:156] Memory required for data: 18404
I0924 02:58:29.136114 10586 layer_factory.hpp:77] Creating layer reshape_frames
I0924 02:58:29.136155 10586 net.cpp:91] Creating Layer reshape_frames
I0924 02:58:29.136168 10586 net.cpp:425] reshape_frames <- embedded_in_frames
I0924 02:58:29.136184 10586 net.cpp:399] reshape_frames -> embedded_input_frames
I0924 02:58:29.136255 10586 net.cpp:141] Setting up reshape_frames
I0924 02:58:29.136271 10586 net.cpp:148] Top shape: 1 1 500 (500)
I0924 02:58:29.136279 10586 net.cpp:156] Memory required for data: 20404
I0924 02:58:29.136287 10586 layer_factory.hpp:77] Creating layer reshape_stage_indicator
I0924 02:58:29.136306 10586 net.cpp:91] Creating Layer reshape_stage_indicator
I0924 02:58:29.136314 10586 net.cpp:425] reshape_stage_indicator <- stage_indicator
I0924 02:58:29.136328 10586 net.cpp:399] reshape_stage_indicator -> reshaped_stage_indicator
I0924 02:58:29.136382 10586 net.cpp:141] Setting up reshape_stage_indicator
I0924 02:58:29.136396 10586 net.cpp:148] Top shape: 1 1 1 (1)
I0924 02:58:29.136404 10586 net.cpp:156] Memory required for data: 20408
I0924 02:58:29.136411 10586 layer_factory.hpp:77] Creating layer embedding
I0924 02:58:29.136430 10586 net.cpp:91] Creating Layer embedding
I0924 02:58:29.136437 10586 net.cpp:425] embedding <- input_sentence
I0924 02:58:29.136451 10586 net.cpp:399] embedding -> embedded_input_sentence
I0924 02:58:29.180040 10558 net.cpp:141] Setting up embed_encoder
I0924 02:58:29.180091 10558 net.cpp:148] Top shape: 1 500 (500)
I0924 02:58:29.180099 10558 net.cpp:156] Memory required for data: 18404
I0924 02:58:29.180127 10558 layer_factory.hpp:77] Creating layer reshape_frames
I0924 02:58:29.180151 10558 net.cpp:91] Creating Layer reshape_frames
I0924 02:58:29.180142 10568 net.cpp:141] Setting up embed_encoder
I0924 02:58:29.180160 10558 net.cpp:425] reshape_frames <- embedded_in_frames
I0924 02:58:29.180186 10568 net.cpp:148] Top shape: 1 500 (500)
I0924 02:58:29.180191 10558 net.cpp:399] reshape_frames -> embedded_input_frames
I0924 02:58:29.180196 10568 net.cpp:156] Memory required for data: 18404
I0924 02:58:29.180224 10568 layer_factory.hpp:77] Creating layer reshape_frames
I0924 02:58:29.180246 10568 net.cpp:91] Creating Layer reshape_frames
I0924 02:58:29.180260 10568 net.cpp:425] reshape_frames <- embedded_in_frames
I0924 02:58:29.180268 10558 net.cpp:141] Setting up reshape_frames
I0924 02:58:29.180275 10568 net.cpp:399] reshape_frames -> embedded_input_frames
I0924 02:58:29.180280 10558 net.cpp:148] Top shape: 1 1 500 (500)
I0924 02:58:29.180285 10558 net.cpp:156] Memory required for data: 20404
I0924 02:58:29.180290 10558 layer_factory.hpp:77] Creating layer reshape_stage_indicator
I0924 02:58:29.180310 10558 net.cpp:91] Creating Layer reshape_stage_indicator
I0924 02:58:29.180316 10558 net.cpp:425] reshape_stage_indicator <- stage_indicator
I0924 02:58:29.180327 10558 net.cpp:399] reshape_stage_indicator -> reshaped_stage_indicator
I0924 02:58:29.180336 10562 net.cpp:141] Setting up embed_encoder
I0924 02:58:29.180361 10562 net.cpp:148] Top shape: 1 500 (500)
I0924 02:58:29.180369 10562 net.cpp:156] Memory required for data: 18404
I0924 02:58:29.180389 10562 layer_factory.hpp:77] Creating layer reshape_frames
I0924 02:58:29.180404 10562 net.cpp:91] Creating Layer reshape_frames
I0924 02:58:29.180414 10562 net.cpp:425] reshape_frames <- embedded_in_frames
I0924 02:58:29.180433 10562 net.cpp:399] reshape_frames -> embedded_input_frames
I0924 02:58:29.181468 10558 net.cpp:141] Setting up reshape_stage_indicator
I0924 02:58:29.181488 10558 net.cpp:148] Top shape: 1 1 1 (1)
I0924 02:58:29.181496 10558 net.cpp:156] Memory required for data: 20408
I0924 02:58:29.181505 10558 layer_factory.hpp:77] Creating layer embedding
I0924 02:58:29.181529 10558 net.cpp:91] Creating Layer embedding
I0924 02:58:29.181540 10558 net.cpp:425] embedding <- input_sentence
I0924 02:58:29.181548 10560 net.cpp:141] Setting up embed_encoder
I0924 02:58:29.181553 10558 net.cpp:399] embedding -> embedded_input_sentence
I0924 02:58:29.181565 10560 net.cpp:148] Top shape: 1 500 (500)
I0924 02:58:29.181573 10560 net.cpp:156] Memory required for data: 18404
I0924 02:58:29.181593 10560 layer_factory.hpp:77] Creating layer reshape_frames
I0924 02:58:29.181610 10560 net.cpp:91] Creating Layer reshape_frames
I0924 02:58:29.181620 10560 net.cpp:425] reshape_frames <- embedded_in_frames
I0924 02:58:29.181634 10560 net.cpp:399] reshape_frames -> embedded_input_frames
I0924 02:58:29.222033 10562 net.cpp:141] Setting up reshape_frames
I0924 02:58:29.222117 10562 net.cpp:148] Top shape: 1 1 500 (500)
I0924 02:58:29.222128 10562 net.cpp:156] Memory required for data: 20404
I0924 02:58:29.222146 10562 layer_factory.hpp:77] Creating layer reshape_stage_indicator
I0924 02:58:29.222189 10562 net.cpp:91] Creating Layer reshape_stage_indicator
I0924 02:58:29.222203 10562 net.cpp:425] reshape_stage_indicator <- stage_indicator
I0924 02:58:29.222226 10562 net.cpp:399] reshape_stage_indicator -> reshaped_stage_indicator
I0924 02:58:29.227432 10568 net.cpp:141] Setting up reshape_frames
I0924 02:58:29.228135 10568 net.cpp:148] Top shape: 1 1 500 (500)
I0924 02:58:29.228379 10568 net.cpp:156] Memory required for data: 20404
I0924 02:58:29.228540 10568 layer_factory.hpp:77] Creating layer reshape_stage_indicator
I0924 02:58:29.228745 10568 net.cpp:91] Creating Layer reshape_stage_indicator
I0924 02:58:29.228904 10568 net.cpp:425] reshape_stage_indicator <- stage_indicator
I0924 02:58:29.229100 10568 net.cpp:399] reshape_stage_indicator -> reshaped_stage_indicator
I0924 02:58:29.227649 10592 net.cpp:141] Setting up embed_encoder
I0924 02:58:29.229399 10592 net.cpp:148] Top shape: 1 500 (500)
I0924 02:58:29.229413 10592 net.cpp:156] Memory required for data: 18404
I0924 02:58:29.227919 10562 net.cpp:141] Setting up reshape_stage_indicator
I0924 02:58:29.229434 10592 layer_factory.hpp:77] Creating layer reshape_frames
I0924 02:58:29.229449 10592 net.cpp:91] Creating Layer reshape_frames
I0924 02:58:29.229454 10562 net.cpp:148] Top shape: 1 1 1 (1)
I0924 02:58:29.229472 10562 net.cpp:156] Memory required for data: 20408
I0924 02:58:29.229485 10562 layer_factory.hpp:77] Creating layer embedding
I0924 02:58:29.229508 10562 net.cpp:91] Creating Layer embedding
I0924 02:58:29.229519 10562 net.cpp:425] embedding <- input_sentence
I0924 02:58:29.229535 10562 net.cpp:399] embedding -> embedded_input_sentence
I0924 02:58:29.227843 10560 net.cpp:141] Setting up reshape_frames
I0924 02:58:29.229583 10560 net.cpp:148] Top shape: 1 1 500 (500)
I0924 02:58:29.229591 10560 net.cpp:156] Memory required for data: 20404
I0924 02:58:29.229598 10560 layer_factory.hpp:77] Creating layer reshape_stage_indicator
I0924 02:58:29.229457 10592 net.cpp:425] reshape_frames <- embedded_in_frames
I0924 02:58:29.229616 10560 net.cpp:91] Creating Layer reshape_stage_indicator
I0924 02:58:29.229625 10560 net.cpp:425] reshape_stage_indicator <- stage_indicator
I0924 02:58:29.229629 10592 net.cpp:399] reshape_frames -> embedded_input_frames
I0924 02:58:29.229636 10560 net.cpp:399] reshape_stage_indicator -> reshaped_stage_indicator
I0924 02:58:29.236701 10592 net.cpp:141] Setting up reshape_frames
I0924 02:58:29.236747 10592 net.cpp:148] Top shape: 1 1 500 (500)
I0924 02:58:29.236757 10592 net.cpp:156] Memory required for data: 20404
I0924 02:58:29.236769 10592 layer_factory.hpp:77] Creating layer reshape_stage_indicator
I0924 02:58:29.236794 10592 net.cpp:91] Creating Layer reshape_stage_indicator
I0924 02:58:29.236804 10592 net.cpp:425] reshape_stage_indicator <- stage_indicator
I0924 02:58:29.236821 10592 net.cpp:399] reshape_stage_indicator -> reshaped_stage_indicator
I0924 02:58:29.236893 10592 net.cpp:141] Setting up reshape_stage_indicator
I0924 02:58:29.236912 10592 net.cpp:148] Top shape: 1 1 1 (1)
I0924 02:58:29.236920 10592 net.cpp:156] Memory required for data: 20408
I0924 02:58:29.236929 10592 layer_factory.hpp:77] Creating layer embedding
I0924 02:58:29.236948 10592 net.cpp:91] Creating Layer embedding
I0924 02:58:29.236956 10592 net.cpp:425] embedding <- input_sentence
I0924 02:58:29.236969 10592 net.cpp:399] embedding -> embedded_input_sentence
I0924 02:58:29.285363 10560 net.cpp:141] Setting up reshape_stage_indicator
I0924 02:58:29.285429 10560 net.cpp:148] Top shape: 1 1 1 (1)
I0924 02:58:29.285440 10560 net.cpp:156] Memory required for data: 20408
I0924 02:58:29.285454 10560 layer_factory.hpp:77] Creating layer embedding
I0924 02:58:29.285483 10560 net.cpp:91] Creating Layer embedding
I0924 02:58:29.285495 10560 net.cpp:425] embedding <- input_sentence
I0924 02:58:29.285513 10560 net.cpp:399] embedding -> embedded_input_sentence
I0924 02:58:29.300456 10568 net.cpp:141] Setting up reshape_stage_indicator
I0924 02:58:29.300513 10568 net.cpp:148] Top shape: 1 1 1 (1)
I0924 02:58:29.300523 10568 net.cpp:156] Memory required for data: 20408
I0924 02:58:29.300535 10568 layer_factory.hpp:77] Creating layer embedding
I0924 02:58:29.300565 10568 net.cpp:91] Creating Layer embedding
I0924 02:58:29.300576 10568 net.cpp:425] embedding <- input_sentence
I0924 02:58:29.300596 10568 net.cpp:399] embedding -> embedded_input_sentence
I0924 02:58:29.457013 10558 net.cpp:141] Setting up embedding
I0924 02:58:29.457062 10558 net.cpp:148] Top shape: 1 1 500 (500)
I0924 02:58:29.457068 10558 net.cpp:156] Memory required for data: 22408
I0924 02:58:29.457089 10558 layer_factory.hpp:77] Creating layer lstm1
I0924 02:58:29.457111 10558 net.cpp:91] Creating Layer lstm1
I0924 02:58:29.457118 10558 net.cpp:425] lstm1 <- embedded_input_frames
I0924 02:58:29.457129 10558 net.cpp:425] lstm1 <- cont_sentence_input_1_split_0
I0924 02:58:29.457149 10558 net.cpp:399] lstm1 -> lstm1
I0924 02:58:29.457196 10558 recurrent_layer.cpp:20] Initializing recurrent layer: assuming input batch contains 1 timesteps of 1 independent streams.
I0924 02:58:29.457578 10558 net.cpp:49] Initializing net from parameters: 
layer {
  name: "lstm1_"
  type: "Input"
  top: "x"
  top: "cont"
  input_param {
    shape {
      dim: 1
      dim: 1
      dim: 500
    }
    shape {
      dim: 1
      dim: 1
    }
  }
}
layer {
  name: "lstm1_"
  type: "Input"
  top: "c_0"
  top: "h_0"
  input_param {
    shape {
      dim: 1
      dim: 1
      dim: 1000
    }
    shape {
      dim: 1
      dim: 1
      dim: 1000
    }
  }
}
layer {
  name: "lstm1_cont_slice"
  type: "Slice"
  bottom: "cont"
  top: "cont_1"
  slice_param {
    axis: 0
  }
}
layer {
  name: "lstm1_x_transform"
  type: "InnerProduct"
  bottom: "x"
  top: "W_xc_x"
  param {
    name: "W_xc"
  }
  param {
    name: "b_c"
  }
  propagate_down: true
  inner_product_param {
    num_output: 4000
    bias_term: true
    weight_filler {
      type: "uniform"
      min: -0.08
      max: 0.08
    }
    bias_filler {
      type: "constant"
      value: 0
    }
    axis: 2
  }
}
layer {
  name: "lstm1_W_xc_x_slice"
  type: "Slice"
  bottom: "W_xc_x"
  top: "W_xc_x_1"
  slice_param {
    axis: 0
  }
}
layer {
  name: "lstm1_h_conted_0"
  type: "Scale"
  bottom: "h_0"
  bottom: "cont_1"
  top: "h_conted_0"
  scale_param {
    axis: 0
  }
}
layer {
  name: "lstm1_transform_1"
  type: "InnerProduct"
  bottom: "h_conted_0"
  top: "W_hc_h_0"
  param {
    name: "W_hc"
  }
  inner_product_param {
    num_output: 4000
    bias_term: false
    weight_filler {
      type: "uniform"
      min: -0.08
      max: 0.08
    }
    axis: 2
  }
}
layer {
  name: "lstm1_gate_input_1"
  type: "Eltwise"
  bottom: "W_hc_h_0"
  bottom: "W_xc_x_1"
  top: "gate_input_1"
  eltwise_param {
    operation: SUM
  }
}
layer {
  name: "lstm1_unit_1"
  type: "LSTMUnit"
  bottom: "c_0"
  bottom: "gate_input_1"
  bottom: "cont_1"
  top: "c_1"
  top: "h_1"
}
layer {
  name: "lstm1_"
  type: "Split"
  bottom: "c_1"
  top: "c_T"
}
layer {
  name: "lstm1_h_concat"
  type: "Concat"
  bottom: "h_1"
  top: "h"
  concat_param {
    axis: 0
  }
}
layer {
  name: "h_pseudoloss"
  type: "Reduction"
  bottom: "h"
  top: "h_pseudoloss"
  loss_weight: 1
}
I0924 02:58:29.457675 10558 layer_factory.hpp:77] Creating layer lstm1_
I0924 02:58:29.457689 10558 net.cpp:91] Creating Layer lstm1_
I0924 02:58:29.457695 10558 net.cpp:399] lstm1_ -> x
I0924 02:58:29.457707 10558 net.cpp:399] lstm1_ -> cont
I0924 02:58:29.457777 10558 net.cpp:141] Setting up lstm1_
I0924 02:58:29.457787 10558 net.cpp:148] Top shape: 1 1 500 (500)
I0924 02:58:29.457792 10558 net.cpp:148] Top shape: 1 1 (1)
I0924 02:58:29.457797 10558 net.cpp:156] Memory required for data: 2004
I0924 02:58:29.457801 10558 layer_factory.hpp:77] Creating layer lstm1_
I0924 02:58:29.457809 10558 net.cpp:91] Creating Layer lstm1_
I0924 02:58:29.457818 10558 net.cpp:399] lstm1_ -> c_0
I0924 02:58:29.457828 10558 net.cpp:399] lstm1_ -> h_0
I0924 02:58:29.457876 10558 net.cpp:141] Setting up lstm1_
I0924 02:58:29.457885 10558 net.cpp:148] Top shape: 1 1 1000 (1000)
I0924 02:58:29.457890 10558 net.cpp:148] Top shape: 1 1 1000 (1000)
I0924 02:58:29.457895 10558 net.cpp:156] Memory required for data: 10004
I0924 02:58:29.457900 10558 layer_factory.hpp:77] Creating layer lstm1_cont_slice
I0924 02:58:29.457908 10558 net.cpp:91] Creating Layer lstm1_cont_slice
I0924 02:58:29.457913 10558 net.cpp:425] lstm1_cont_slice <- cont
I0924 02:58:29.457921 10558 net.cpp:399] lstm1_cont_slice -> cont_1
I0924 02:58:29.457960 10558 net.cpp:141] Setting up lstm1_cont_slice
I0924 02:58:29.457969 10558 net.cpp:148] Top shape: 1 1 (1)
I0924 02:58:29.457973 10558 net.cpp:156] Memory required for data: 10008
I0924 02:58:29.457978 10558 layer_factory.hpp:77] Creating layer cont_1_lstm1_cont_slice_0_split
I0924 02:58:29.457990 10558 net.cpp:91] Creating Layer cont_1_lstm1_cont_slice_0_split
I0924 02:58:29.457995 10558 net.cpp:425] cont_1_lstm1_cont_slice_0_split <- cont_1
I0924 02:58:29.458003 10558 net.cpp:399] cont_1_lstm1_cont_slice_0_split -> cont_1_lstm1_cont_slice_0_split_0
I0924 02:58:29.458011 10558 net.cpp:399] cont_1_lstm1_cont_slice_0_split -> cont_1_lstm1_cont_slice_0_split_1
I0924 02:58:29.458073 10586 net.cpp:141] Setting up embedding
I0924 02:58:29.458115 10586 net.cpp:148] Top shape: 1 1 500 (500)
I0924 02:58:29.458124 10586 net.cpp:156] Memory required for data: 22408
I0924 02:58:29.458155 10586 layer_factory.hpp:77] Creating layer lstm1
I0924 02:58:29.458180 10586 net.cpp:91] Creating Layer lstm1
I0924 02:58:29.458192 10586 net.cpp:425] lstm1 <- embedded_input_frames
I0924 02:58:29.458205 10586 net.cpp:425] lstm1 <- cont_sentence_input_1_split_0
I0924 02:58:29.458222 10586 net.cpp:399] lstm1 -> lstm1
I0924 02:58:29.458246 10586 recurrent_layer.cpp:20] Initializing recurrent layer: assuming input batch contains 1 timesteps of 1 independent streams.
I0924 02:58:29.458665 10586 net.cpp:49] Initializing net from parameters: 
layer {
  name: "lstm1_"
  type: "Input"
  top: "x"
  top: "cont"
  input_param {
    shape {
      dim: 1
      dim: 1
      dim: 500
    }
    shape {
      dim: 1
      dim: 1
    }
  }
}
layer {
  name: "lstm1_"
  type: "Input"
  top: "c_0"
  top: "h_0"
  input_param {
    shape {
      dim: 1
      dim: 1
      dim: 1000
    }
    shape {
      dim: 1
      dim: 1
      dim: 1000
    }
  }
}
layer {
  name: "lstm1_cont_slice"
  type: "Slice"
  bottom: "cont"
  top: "cont_1"
  slice_param {
    axis: 0
  }
}
layer {
  name: "lstm1_x_transform"
  type: "InnerProduct"
  bottom: "x"
  top: "W_xc_x"
  param {
    name: "W_xc"
  }
  param {
    name: "b_c"
  }
  propagate_down: true
  inner_product_param {
    num_output: 4000
    bias_term: true
    weight_filler {
      type: "uniform"
      min: -0.08
      max: 0.08
    }
    bias_filler {
      type: "constant"
      value: 0
    }
    axis: 2
  }
}
layer {
  name: "lstm1_W_xc_x_slice"
  type: "Slice"
  bottom: "W_xc_x"
  top: "W_xc_x_1"
  slice_param {
    axis: 0
  }
}
layer {
  name: "lstm1_h_conted_0"
  type: "Scale"
  bottom: "h_0"
  bottom: "cont_1"
  top: "h_conted_0"
  scale_param {
    axis: 0
  }
}
layer {
  name: "lstm1_transform_1"
  type: "InnerProduct"
  bottom: "h_conted_0"
  top: "W_hc_h_0"
  param {
    name: "W_hc"
  }
  inner_product_param {
    num_output: 4000
    bias_term: false
    weight_filler {
      type: "uniform"
      min: -0.08
      max: 0.08
    }
    axis: 2
  }
}
layer {
  name: "lstm1_gate_input_1"
  type: "Eltwise"
  bottom: "W_hc_h_0"
  bottom: "W_xc_x_1"
  top: "gate_input_1"
  eltwise_param {
    operation: SUM
  }
}
layer {
  name: "lstm1_unit_1"
  type: "LSTMUnit"
  bottom: "c_0"
  bottom: "gate_input_1"
  bottom: "cont_1"
  top: "c_1"
  top: "h_1"
}
layer {
  name: "lstm1_"
  type: "Split"
  bottom: "c_1"
  top: "c_T"
}
layer {
  name: "lstm1_h_concat"
  type: "Concat"
  bottom: "h_1"
  top: "h"
  concat_param {
    axis: 0
  }
}
layer {
  name: "h_pseudoloss"
  type: "Reduction"
  bottom: "h"
  top: "h_pseudoloss"
  loss_weight: 1
}
I0924 02:58:29.458806 10586 layer_factory.hpp:77] Creating layer lstm1_
I0924 02:58:29.458827 10586 net.cpp:91] Creating Layer lstm1_
I0924 02:58:29.458837 10586 net.cpp:399] lstm1_ -> x
I0924 02:58:29.458853 10586 net.cpp:399] lstm1_ -> cont
I0924 02:58:29.465782 10586 net.cpp:141] Setting up lstm1_
I0924 02:58:29.465829 10586 net.cpp:148] Top shape: 1 1 500 (500)
I0924 02:58:29.465842 10586 net.cpp:148] Top shape: 1 1 (1)
I0924 02:58:29.465849 10586 net.cpp:156] Memory required for data: 2004
I0924 02:58:29.465847 10558 net.cpp:141] Setting up cont_1_lstm1_cont_slice_0_split
I0924 02:58:29.465883 10586 layer_factory.hpp:77] Creating layer lstm1_
I0924 02:58:29.465905 10558 net.cpp:148] Top shape: 1 1 (1)
I0924 02:58:29.465914 10558 net.cpp:148] Top shape: 1 1 (1)
I0924 02:58:29.465919 10558 net.cpp:156] Memory required for data: 10016
I0924 02:58:29.465926 10558 layer_factory.hpp:77] Creating layer lstm1_x_transform
I0924 02:58:29.465934 10586 net.cpp:91] Creating Layer lstm1_
I0924 02:58:29.465950 10586 net.cpp:399] lstm1_ -> c_0
I0924 02:58:29.465955 10558 net.cpp:91] Creating Layer lstm1_x_transform
I0924 02:58:29.465963 10558 net.cpp:425] lstm1_x_transform <- x
I0924 02:58:29.465975 10558 net.cpp:399] lstm1_x_transform -> W_xc_x
I0924 02:58:29.465975 10586 net.cpp:399] lstm1_ -> h_0
I0924 02:58:29.466737 10586 net.cpp:141] Setting up lstm1_
I0924 02:58:29.466758 10586 net.cpp:148] Top shape: 1 1 1000 (1000)
I0924 02:58:29.466770 10586 net.cpp:148] Top shape: 1 1 1000 (1000)
I0924 02:58:29.466778 10586 net.cpp:156] Memory required for data: 10004
I0924 02:58:29.466784 10586 layer_factory.hpp:77] Creating layer lstm1_cont_slice
I0924 02:58:29.466801 10586 net.cpp:91] Creating Layer lstm1_cont_slice
I0924 02:58:29.466810 10586 net.cpp:425] lstm1_cont_slice <- cont
I0924 02:58:29.466822 10586 net.cpp:399] lstm1_cont_slice -> cont_1
I0924 02:58:29.472283 10586 net.cpp:141] Setting up lstm1_cont_slice
I0924 02:58:29.472332 10586 net.cpp:148] Top shape: 1 1 (1)
I0924 02:58:29.472342 10586 net.cpp:156] Memory required for data: 10008
I0924 02:58:29.472350 10586 layer_factory.hpp:77] Creating layer cont_1_lstm1_cont_slice_0_split
I0924 02:58:29.472368 10586 net.cpp:91] Creating Layer cont_1_lstm1_cont_slice_0_split
I0924 02:58:29.472374 10586 net.cpp:425] cont_1_lstm1_cont_slice_0_split <- cont_1
I0924 02:58:29.472388 10586 net.cpp:399] cont_1_lstm1_cont_slice_0_split -> cont_1_lstm1_cont_slice_0_split_0
I0924 02:58:29.472401 10586 net.cpp:399] cont_1_lstm1_cont_slice_0_split -> cont_1_lstm1_cont_slice_0_split_1
I0924 02:58:29.477291 10586 net.cpp:141] Setting up cont_1_lstm1_cont_slice_0_split
I0924 02:58:29.477319 10586 net.cpp:148] Top shape: 1 1 (1)
I0924 02:58:29.477325 10586 net.cpp:148] Top shape: 1 1 (1)
I0924 02:58:29.477330 10586 net.cpp:156] Memory required for data: 10016
I0924 02:58:29.477344 10586 layer_factory.hpp:77] Creating layer lstm1_x_transform
I0924 02:58:29.477370 10586 net.cpp:91] Creating Layer lstm1_x_transform
I0924 02:58:29.477377 10586 net.cpp:425] lstm1_x_transform <- x
I0924 02:58:29.477392 10586 net.cpp:399] lstm1_x_transform -> W_xc_x
I0924 02:58:29.484829 10592 net.cpp:141] Setting up embedding
I0924 02:58:29.484856 10592 net.cpp:148] Top shape: 1 1 500 (500)
I0924 02:58:29.484861 10592 net.cpp:156] Memory required for data: 22408
I0924 02:58:29.484875 10592 layer_factory.hpp:77] Creating layer lstm1
I0924 02:58:29.484894 10592 net.cpp:91] Creating Layer lstm1
I0924 02:58:29.484904 10592 net.cpp:425] lstm1 <- embedded_input_frames
I0924 02:58:29.484915 10592 net.cpp:425] lstm1 <- cont_sentence_input_1_split_0
I0924 02:58:29.484925 10592 net.cpp:399] lstm1 -> lstm1
I0924 02:58:29.484938 10592 recurrent_layer.cpp:20] Initializing recurrent layer: assuming input batch contains 1 timesteps of 1 independent streams.
I0924 02:58:29.485234 10592 net.cpp:49] Initializing net from parameters: 
layer {
  name: "lstm1_"
  type: "Input"
  top: "x"
  top: "cont"
  input_param {
    shape {
      dim: 1
      dim: 1
      dim: 500
    }
    shape {
      dim: 1
      dim: 1
    }
  }
}
layer {
  name: "lstm1_"
  type: "Input"
  top: "c_0"
  top: "h_0"
  input_param {
    shape {
      dim: 1
      dim: 1
      dim: 1000
    }
    shape {
      dim: 1
      dim: 1
      dim: 1000
    }
  }
}
layer {
  name: "lstm1_cont_slice"
  type: "Slice"
  bottom: "cont"
  top: "cont_1"
  slice_param {
    axis: 0
  }
}
layer {
  name: "lstm1_x_transform"
  type: "InnerProduct"
  bottom: "x"
  top: "W_xc_x"
  param {
    name: "W_xc"
  }
  param {
    name: "b_c"
  }
  propagate_down: true
  inner_product_param {
    num_output: 4000
    bias_term: true
    weight_filler {
      type: "uniform"
      min: -0.08
      max: 0.08
    }
    bias_filler {
      type: "constant"
      value: 0
    }
    axis: 2
  }
}
layer {
  name: "lstm1_W_xc_x_slice"
  type: "Slice"
  bottom: "W_xc_x"
  top: "W_xc_x_1"
  slice_param {
    axis: 0
  }
}
layer {
  name: "lstm1_h_conted_0"
  type: "Scale"
  bottom: "h_0"
  bottom: "cont_1"
  top: "h_conted_0"
  scale_param {
    axis: 0
  }
}
layer {
  name: "lstm1_transform_1"
  type: "InnerProduct"
  bottom: "h_conted_0"
  top: "W_hc_h_0"
  param {
    name: "W_hc"
  }
  inner_product_param {
    num_output: 4000
    bias_term: false
    weight_filler {
      type: "uniform"
      min: -0.08
      max: 0.08
    }
    axis: 2
  }
}
layer {
  name: "lstm1_gate_input_1"
  type: "Eltwise"
  bottom: "W_hc_h_0"
  bottom: "W_xc_x_1"
  top: "gate_input_1"
  eltwise_param {
    operation: SUM
  }
}
layer {
  name: "lstm1_unit_1"
  type: "LSTMUnit"
  bottom: "c_0"
  bottom: "gate_input_1"
  bottom: "cont_1"
  top: "c_1"
  top: "h_1"
}
layer {
  name: "lstm1_"
  type: "Split"
  bottom: "c_1"
  top: "c_T"
}
layer {
  name: "lstm1_h_concat"
  type: "Concat"
  bottom: "h_1"
  top: "h"
  concat_param {
    axis: 0
  }
}
layer {
  name: "h_pseudoloss"
  type: "Reduction"
  bottom: "h"
  top: "h_pseudoloss"
  loss_weight: 1
}
I0924 02:58:29.485327 10592 layer_factory.hpp:77] Creating layer lstm1_
I0924 02:58:29.485339 10592 net.cpp:91] Creating Layer lstm1_
I0924 02:58:29.485347 10592 net.cpp:399] lstm1_ -> x
I0924 02:58:29.485358 10592 net.cpp:399] lstm1_ -> cont
I0924 02:58:29.489048 10592 net.cpp:141] Setting up lstm1_
I0924 02:58:29.489096 10592 net.cpp:148] Top shape: 1 1 500 (500)
I0924 02:58:29.489109 10592 net.cpp:148] Top shape: 1 1 (1)
I0924 02:58:29.489116 10592 net.cpp:156] Memory required for data: 2004
I0924 02:58:29.489130 10592 layer_factory.hpp:77] Creating layer lstm1_
I0924 02:58:29.489156 10592 net.cpp:91] Creating Layer lstm1_
I0924 02:58:29.489176 10592 net.cpp:399] lstm1_ -> c_0
I0924 02:58:29.489203 10592 net.cpp:399] lstm1_ -> h_0
I0924 02:58:29.489311 10592 net.cpp:141] Setting up lstm1_
I0924 02:58:29.489327 10592 net.cpp:148] Top shape: 1 1 1000 (1000)
I0924 02:58:29.489338 10592 net.cpp:148] Top shape: 1 1 1000 (1000)
I0924 02:58:29.489346 10592 net.cpp:156] Memory required for data: 10004
I0924 02:58:29.489354 10592 layer_factory.hpp:77] Creating layer lstm1_cont_slice
I0924 02:58:29.489369 10592 net.cpp:91] Creating Layer lstm1_cont_slice
I0924 02:58:29.489377 10592 net.cpp:425] lstm1_cont_slice <- cont
I0924 02:58:29.489393 10592 net.cpp:399] lstm1_cont_slice -> cont_1
I0924 02:58:29.489465 10592 net.cpp:141] Setting up lstm1_cont_slice
I0924 02:58:29.489518 10592 net.cpp:148] Top shape: 1 1 (1)
I0924 02:58:29.489526 10592 net.cpp:156] Memory required for data: 10008
I0924 02:58:29.489533 10592 layer_factory.hpp:77] Creating layer cont_1_lstm1_cont_slice_0_split
I0924 02:58:29.489549 10592 net.cpp:91] Creating Layer cont_1_lstm1_cont_slice_0_split
I0924 02:58:29.489559 10592 net.cpp:425] cont_1_lstm1_cont_slice_0_split <- cont_1
I0924 02:58:29.489570 10592 net.cpp:399] cont_1_lstm1_cont_slice_0_split -> cont_1_lstm1_cont_slice_0_split_0
I0924 02:58:29.489584 10592 net.cpp:399] cont_1_lstm1_cont_slice_0_split -> cont_1_lstm1_cont_slice_0_split_1
I0924 02:58:29.489666 10592 net.cpp:141] Setting up cont_1_lstm1_cont_slice_0_split
I0924 02:58:29.489681 10592 net.cpp:148] Top shape: 1 1 (1)
I0924 02:58:29.489691 10592 net.cpp:148] Top shape: 1 1 (1)
I0924 02:58:29.489697 10592 net.cpp:156] Memory required for data: 10016
I0924 02:58:29.489706 10592 layer_factory.hpp:77] Creating layer lstm1_x_transform
I0924 02:58:29.489725 10592 net.cpp:91] Creating Layer lstm1_x_transform
I0924 02:58:29.489733 10592 net.cpp:425] lstm1_x_transform <- x
I0924 02:58:29.489748 10592 net.cpp:399] lstm1_x_transform -> W_xc_x
I0924 02:58:29.500955 10558 net.cpp:141] Setting up lstm1_x_transform
I0924 02:58:29.501000 10558 net.cpp:148] Top shape: 1 1 4000 (4000)
I0924 02:58:29.501008 10558 net.cpp:156] Memory required for data: 26016
I0924 02:58:29.501034 10558 layer_factory.hpp:77] Creating layer lstm1_W_xc_x_slice
I0924 02:58:29.501055 10558 net.cpp:91] Creating Layer lstm1_W_xc_x_slice
I0924 02:58:29.501062 10558 net.cpp:425] lstm1_W_xc_x_slice <- W_xc_x
I0924 02:58:29.501073 10558 net.cpp:399] lstm1_W_xc_x_slice -> W_xc_x_1
I0924 02:58:29.501121 10558 net.cpp:141] Setting up lstm1_W_xc_x_slice
I0924 02:58:29.501130 10558 net.cpp:148] Top shape: 1 1 4000 (4000)
I0924 02:58:29.501134 10558 net.cpp:156] Memory required for data: 42016
I0924 02:58:29.501139 10558 layer_factory.hpp:77] Creating layer lstm1_h_conted_0
I0924 02:58:29.501162 10558 net.cpp:91] Creating Layer lstm1_h_conted_0
I0924 02:58:29.501168 10558 net.cpp:425] lstm1_h_conted_0 <- h_0
I0924 02:58:29.501173 10558 net.cpp:425] lstm1_h_conted_0 <- cont_1_lstm1_cont_slice_0_split_0
I0924 02:58:29.501180 10558 net.cpp:399] lstm1_h_conted_0 -> h_conted_0
I0924 02:58:29.503792 10558 net.cpp:141] Setting up lstm1_h_conted_0
I0924 02:58:29.503814 10558 net.cpp:148] Top shape: 1 1 1000 (1000)
I0924 02:58:29.503819 10558 net.cpp:156] Memory required for data: 46016
I0924 02:58:29.503825 10558 layer_factory.hpp:77] Creating layer lstm1_transform_1
I0924 02:58:29.503844 10558 net.cpp:91] Creating Layer lstm1_transform_1
I0924 02:58:29.503850 10558 net.cpp:425] lstm1_transform_1 <- h_conted_0
I0924 02:58:29.503859 10558 net.cpp:399] lstm1_transform_1 -> W_hc_h_0
I0924 02:58:29.522130 10586 net.cpp:141] Setting up lstm1_x_transform
I0924 02:58:29.522181 10586 net.cpp:148] Top shape: 1 1 4000 (4000)
I0924 02:58:29.522186 10586 net.cpp:156] Memory required for data: 26016
I0924 02:58:29.522208 10586 layer_factory.hpp:77] Creating layer lstm1_W_xc_x_slice
I0924 02:58:29.522227 10586 net.cpp:91] Creating Layer lstm1_W_xc_x_slice
I0924 02:58:29.522233 10586 net.cpp:425] lstm1_W_xc_x_slice <- W_xc_x
I0924 02:58:29.522243 10586 net.cpp:399] lstm1_W_xc_x_slice -> W_xc_x_1
I0924 02:58:29.522245 10592 net.cpp:141] Setting up lstm1_x_transform
I0924 02:58:29.522270 10592 net.cpp:148] Top shape: 1 1 4000 (4000)
I0924 02:58:29.522280 10592 net.cpp:156] Memory required for data: 26016
I0924 02:58:29.522292 10586 net.cpp:141] Setting up lstm1_W_xc_x_slice
I0924 02:58:29.522303 10586 net.cpp:148] Top shape: 1 1 4000 (4000)
I0924 02:58:29.522301 10592 layer_factory.hpp:77] Creating layer lstm1_W_xc_x_slice
I0924 02:58:29.522307 10586 net.cpp:156] Memory required for data: 42016
I0924 02:58:29.522313 10586 layer_factory.hpp:77] Creating layer lstm1_h_conted_0
I0924 02:58:29.522320 10592 net.cpp:91] Creating Layer lstm1_W_xc_x_slice
I0924 02:58:29.522325 10586 net.cpp:91] Creating Layer lstm1_h_conted_0
I0924 02:58:29.522330 10586 net.cpp:425] lstm1_h_conted_0 <- h_0
I0924 02:58:29.522330 10592 net.cpp:425] lstm1_W_xc_x_slice <- W_xc_x
I0924 02:58:29.522336 10586 net.cpp:425] lstm1_h_conted_0 <- cont_1_lstm1_cont_slice_0_split_0
I0924 02:58:29.522343 10586 net.cpp:399] lstm1_h_conted_0 -> h_conted_0
I0924 02:58:29.522346 10592 net.cpp:399] lstm1_W_xc_x_slice -> W_xc_x_1
I0924 02:58:29.524210 10592 net.cpp:141] Setting up lstm1_W_xc_x_slice
I0924 02:58:29.524235 10592 net.cpp:148] Top shape: 1 1 4000 (4000)
I0924 02:58:29.524245 10592 net.cpp:156] Memory required for data: 42016
I0924 02:58:29.524253 10592 layer_factory.hpp:77] Creating layer lstm1_h_conted_0
I0924 02:58:29.524268 10592 net.cpp:91] Creating Layer lstm1_h_conted_0
I0924 02:58:29.524278 10592 net.cpp:425] lstm1_h_conted_0 <- h_0
I0924 02:58:29.524289 10592 net.cpp:425] lstm1_h_conted_0 <- cont_1_lstm1_cont_slice_0_split_0
I0924 02:58:29.524302 10592 net.cpp:399] lstm1_h_conted_0 -> h_conted_0
I0924 02:58:29.524345 10586 net.cpp:141] Setting up lstm1_h_conted_0
I0924 02:58:29.524363 10586 net.cpp:148] Top shape: 1 1 1000 (1000)
I0924 02:58:29.524371 10586 net.cpp:156] Memory required for data: 46016
I0924 02:58:29.524379 10586 layer_factory.hpp:77] Creating layer lstm1_transform_1
I0924 02:58:29.524399 10586 net.cpp:91] Creating Layer lstm1_transform_1
I0924 02:58:29.524410 10586 net.cpp:425] lstm1_transform_1 <- h_conted_0
I0924 02:58:29.524428 10586 net.cpp:399] lstm1_transform_1 -> W_hc_h_0
I0924 02:58:29.524515 10592 net.cpp:141] Setting up lstm1_h_conted_0
I0924 02:58:29.524533 10592 net.cpp:148] Top shape: 1 1 1000 (1000)
I0924 02:58:29.524540 10592 net.cpp:156] Memory required for data: 46016
I0924 02:58:29.524549 10592 layer_factory.hpp:77] Creating layer lstm1_transform_1
I0924 02:58:29.524562 10592 net.cpp:91] Creating Layer lstm1_transform_1
I0924 02:58:29.524569 10592 net.cpp:425] lstm1_transform_1 <- h_conted_0
I0924 02:58:29.524582 10592 net.cpp:399] lstm1_transform_1 -> W_hc_h_0
I0924 02:58:29.549280 10562 net.cpp:141] Setting up embedding
I0924 02:58:29.549337 10562 net.cpp:148] Top shape: 1 1 500 (500)
I0924 02:58:29.549347 10562 net.cpp:156] Memory required for data: 22408
I0924 02:58:29.549372 10562 layer_factory.hpp:77] Creating layer lstm1
I0924 02:58:29.549407 10562 net.cpp:91] Creating Layer lstm1
I0924 02:58:29.549419 10562 net.cpp:425] lstm1 <- embedded_input_frames
I0924 02:58:29.549434 10562 net.cpp:425] lstm1 <- cont_sentence_input_1_split_0
I0924 02:58:29.549451 10562 net.cpp:399] lstm1 -> lstm1
I0924 02:58:29.549479 10562 recurrent_layer.cpp:20] Initializing recurrent layer: assuming input batch contains 1 timesteps of 1 independent streams.
I0924 02:58:29.549947 10562 net.cpp:49] Initializing net from parameters: 
layer {
  name: "lstm1_"
  type: "Input"
  top: "x"
  top: "cont"
  input_param {
    shape {
      dim: 1
      dim: 1
      dim: 500
    }
    shape {
      dim: 1
      dim: 1
    }
  }
}
layer {
  name: "lstm1_"
  type: "Input"
  top: "c_0"
  top: "h_0"
  input_param {
    shape {
      dim: 1
      dim: 1
      dim: 1000
    }
    shape {
      dim: 1
      dim: 1
      dim: 1000
    }
  }
}
layer {
  name: "lstm1_cont_slice"
  type: "Slice"
  bottom: "cont"
  top: "cont_1"
  slice_param {
    axis: 0
  }
}
layer {
  name: "lstm1_x_transform"
  type: "InnerProduct"
  bottom: "x"
  top: "W_xc_x"
  param {
    name: "W_xc"
  }
  param {
    name: "b_c"
  }
  propagate_down: true
  inner_product_param {
    num_output: 4000
    bias_term: true
    weight_filler {
      type: "uniform"
      min: -0.08
      max: 0.08
    }
    bias_filler {
      type: "constant"
      value: 0
    }
    axis: 2
  }
}
layer {
  name: "lstm1_W_xc_x_slice"
  type: "Slice"
  bottom: "W_xc_x"
  top: "W_xc_x_1"
  slice_param {
    axis: 0
  }
}
layer {
  name: "lstm1_h_conted_0"
  type: "Scale"
  bottom: "h_0"
  bottom: "cont_1"
  top: "h_conted_0"
  scale_param {
    axis: 0
  }
}
layer {
  name: "lstm1_transform_1"
  type: "InnerProduct"
  bottom: "h_conted_0"
  top: "W_hc_h_0"
  param {
    name: "W_hc"
  }
  inner_product_param {
    num_output: 4000
    bias_term: false
    weight_filler {
      type: "uniform"
      min: -0.08
      max: 0.08
    }
    axis: 2
  }
}
layer {
  name: "lstm1_gate_input_1"
  type: "Eltwise"
  bottom: "W_hc_h_0"
  bottom: "W_xc_x_1"
  top: "gate_input_1"
  eltwise_param {
    operation: SUM
  }
}
layer {
  name: "lstm1_unit_1"
  type: "LSTMUnit"
  bottom: "c_0"
  bottom: "gate_input_1"
  bottom: "cont_1"
  top: "c_1"
  top: "h_1"
}
layer {
  name: "lstm1_"
  type: "Split"
  bottom: "c_1"
  top: "c_T"
}
layer {
  name: "lstm1_h_concat"
  type: "Concat"
  bottom: "h_1"
  top: "h"
  concat_param {
    axis: 0
  }
}
layer {
  name: "h_pseudoloss"
  type: "Reduction"
  bottom: "h"
  top: "h_pseudoloss"
  loss_weight: 1
}
I0924 02:58:29.550109 10562 layer_factory.hpp:77] Creating layer lstm1_
I0924 02:58:29.550134 10562 net.cpp:91] Creating Layer lstm1_
I0924 02:58:29.550149 10562 net.cpp:399] lstm1_ -> x
I0924 02:58:29.550173 10562 net.cpp:399] lstm1_ -> cont
I0924 02:58:29.556087 10562 net.cpp:141] Setting up lstm1_
I0924 02:58:29.556157 10562 net.cpp:148] Top shape: 1 1 500 (500)
I0924 02:58:29.556174 10562 net.cpp:148] Top shape: 1 1 (1)
I0924 02:58:29.558645 10562 net.cpp:156] Memory required for data: 2004
I0924 02:58:29.558672 10562 layer_factory.hpp:77] Creating layer lstm1_
I0924 02:58:29.558709 10562 net.cpp:91] Creating Layer lstm1_
I0924 02:58:29.558728 10562 net.cpp:399] lstm1_ -> c_0
I0924 02:58:29.558770 10562 net.cpp:399] lstm1_ -> h_0
I0924 02:58:29.559589 10562 net.cpp:141] Setting up lstm1_
I0924 02:58:29.559612 10562 net.cpp:148] Top shape: 1 1 1000 (1000)
I0924 02:58:29.559626 10562 net.cpp:148] Top shape: 1 1 1000 (1000)
I0924 02:58:29.559635 10562 net.cpp:156] Memory required for data: 10004
I0924 02:58:29.559645 10562 layer_factory.hpp:77] Creating layer lstm1_cont_slice
I0924 02:58:29.559664 10562 net.cpp:91] Creating Layer lstm1_cont_slice
I0924 02:58:29.559676 10562 net.cpp:425] lstm1_cont_slice <- cont
I0924 02:58:29.559700 10562 net.cpp:399] lstm1_cont_slice -> cont_1
I0924 02:58:29.559871 10562 net.cpp:141] Setting up lstm1_cont_slice
I0924 02:58:29.559890 10562 net.cpp:148] Top shape: 1 1 (1)
I0924 02:58:29.559900 10562 net.cpp:156] Memory required for data: 10008
I0924 02:58:29.559908 10562 layer_factory.hpp:77] Creating layer cont_1_lstm1_cont_slice_0_split
I0924 02:58:29.559923 10562 net.cpp:91] Creating Layer cont_1_lstm1_cont_slice_0_split
I0924 02:58:29.559934 10562 net.cpp:425] cont_1_lstm1_cont_slice_0_split <- cont_1
I0924 02:58:29.559950 10562 net.cpp:399] cont_1_lstm1_cont_slice_0_split -> cont_1_lstm1_cont_slice_0_split_0
I0924 02:58:29.559973 10562 net.cpp:399] cont_1_lstm1_cont_slice_0_split -> cont_1_lstm1_cont_slice_0_split_1
I0924 02:58:29.562042 10558 net.cpp:141] Setting up lstm1_transform_1
I0924 02:58:29.562064 10558 net.cpp:148] Top shape: 1 1 4000 (4000)
I0924 02:58:29.562072 10558 net.cpp:156] Memory required for data: 62016
I0924 02:58:29.562091 10558 layer_factory.hpp:77] Creating layer lstm1_gate_input_1
I0924 02:58:29.562114 10558 net.cpp:91] Creating Layer lstm1_gate_input_1
I0924 02:58:29.562116 10562 net.cpp:141] Setting up cont_1_lstm1_cont_slice_0_split
I0924 02:58:29.562124 10558 net.cpp:425] lstm1_gate_input_1 <- W_hc_h_0
I0924 02:58:29.562135 10558 net.cpp:425] lstm1_gate_input_1 <- W_xc_x_1
I0924 02:58:29.562137 10562 net.cpp:148] Top shape: 1 1 (1)
I0924 02:58:29.562149 10558 net.cpp:399] lstm1_gate_input_1 -> gate_input_1
I0924 02:58:29.562151 10562 net.cpp:148] Top shape: 1 1 (1)
I0924 02:58:29.562160 10562 net.cpp:156] Memory required for data: 10016
I0924 02:58:29.562170 10562 layer_factory.hpp:77] Creating layer lstm1_x_transform
I0924 02:58:29.562201 10562 net.cpp:91] Creating Layer lstm1_x_transform
I0924 02:58:29.562212 10562 net.cpp:425] lstm1_x_transform <- x
I0924 02:58:29.562214 10558 net.cpp:141] Setting up lstm1_gate_input_1
I0924 02:58:29.562229 10558 net.cpp:148] Top shape: 1 1 4000 (4000)
I0924 02:58:29.562230 10562 net.cpp:399] lstm1_x_transform -> W_xc_x
I0924 02:58:29.562237 10558 net.cpp:156] Memory required for data: 78016
I0924 02:58:29.562244 10558 layer_factory.hpp:77] Creating layer lstm1_unit_1
I0924 02:58:29.562275 10558 net.cpp:91] Creating Layer lstm1_unit_1
I0924 02:58:29.562284 10558 net.cpp:425] lstm1_unit_1 <- c_0
I0924 02:58:29.562294 10558 net.cpp:425] lstm1_unit_1 <- gate_input_1
I0924 02:58:29.562302 10558 net.cpp:425] lstm1_unit_1 <- cont_1_lstm1_cont_slice_0_split_1
I0924 02:58:29.562314 10558 net.cpp:399] lstm1_unit_1 -> c_1
I0924 02:58:29.562330 10558 net.cpp:399] lstm1_unit_1 -> h_1
I0924 02:58:29.568450 10558 net.cpp:141] Setting up lstm1_unit_1
I0924 02:58:29.568495 10558 net.cpp:148] Top shape: 1 1 1000 (1000)
I0924 02:58:29.568501 10558 net.cpp:148] Top shape: 1 1 1000 (1000)
I0924 02:58:29.568506 10558 net.cpp:156] Memory required for data: 86016
I0924 02:58:29.568516 10558 layer_factory.hpp:77] Creating layer lstm1_
I0924 02:58:29.568531 10558 net.cpp:91] Creating Layer lstm1_
I0924 02:58:29.568538 10558 net.cpp:425] lstm1_ <- c_1
I0924 02:58:29.568554 10558 net.cpp:399] lstm1_ -> c_T
I0924 02:58:29.568856 10558 net.cpp:141] Setting up lstm1_
I0924 02:58:29.568866 10558 net.cpp:148] Top shape: 1 1 1000 (1000)
I0924 02:58:29.568869 10558 net.cpp:156] Memory required for data: 90016
I0924 02:58:29.568874 10558 layer_factory.hpp:77] Creating layer lstm1_h_concat
I0924 02:58:29.568886 10558 net.cpp:91] Creating Layer lstm1_h_concat
I0924 02:58:29.568891 10558 net.cpp:425] lstm1_h_concat <- h_1
I0924 02:58:29.568902 10558 net.cpp:399] lstm1_h_concat -> h
I0924 02:58:29.576624 10558 net.cpp:141] Setting up lstm1_h_concat
I0924 02:58:29.576675 10558 net.cpp:148] Top shape: 1 1 1000 (1000)
I0924 02:58:29.576683 10558 net.cpp:156] Memory required for data: 94016
I0924 02:58:29.576692 10558 layer_factory.hpp:77] Creating layer h_pseudoloss
I0924 02:58:29.576724 10558 net.cpp:91] Creating Layer h_pseudoloss
I0924 02:58:29.576733 10558 net.cpp:425] h_pseudoloss <- h
I0924 02:58:29.576746 10558 net.cpp:399] h_pseudoloss -> h_pseudoloss
I0924 02:58:29.576745 10586 net.cpp:141] Setting up lstm1_transform_1
I0924 02:58:29.576798 10586 net.cpp:148] Top shape: 1 1 4000 (4000)
I0924 02:58:29.576810 10586 net.cpp:156] Memory required for data: 62016
I0924 02:58:29.576839 10586 layer_factory.hpp:77] Creating layer lstm1_gate_input_1
I0924 02:58:29.576866 10586 net.cpp:91] Creating Layer lstm1_gate_input_1
I0924 02:58:29.576880 10586 net.cpp:425] lstm1_gate_input_1 <- W_hc_h_0
I0924 02:58:29.576895 10586 net.cpp:425] lstm1_gate_input_1 <- W_xc_x_1
I0924 02:58:29.576917 10586 net.cpp:399] lstm1_gate_input_1 -> gate_input_1
…
I0924 02:58:29.577124 10558 net.cpp:219] cont_1_lstm1_cont_slice_0_split does not need backward computation.
I0924 02:58:29.577133 10558 net.cpp:219] lstm1_cont_slice does not need backward computation.
I0924 02:58:29.577139 10558 net.cpp:219] lstm1_ does not need backward computation.
I0924 02:58:29.577144 10558 net.cpp:219] lstm1_ does not need backward computation.
I0924 02:58:29.577142 10586 net.cpp:141] Setting up lstm1_gate_input_1
I0924 02:58:29.577148 10558 net.cpp:261] This network produces output c_T
I0924 02:58:29.577170 10558 net.cpp:261] This network produces output h_pseudoloss
I0924 02:58:29.577170 10586 net.cpp:148] Top shape: 1 1 4000 (4000)
I0924 02:58:29.577183 10586 net.cpp:156] Memory required for data: 78016
I0924 02:58:29.577193 10586 layer_factory.hpp:77] Creating layer lstm1_unit_1
I0924 02:58:29.577198 10558 net.cpp:274] Network initialization done.
I0924 02:58:29.577214 10586 net.cpp:91] Creating Layer lstm1_unit_1
I0924 02:58:29.577225 10586 net.cpp:425] lstm1_unit_1 <- c_0
I0924 02:58:29.577236 10586 net.cpp:425] lstm1_unit_1 <- gate_input_1
I0924 02:58:29.577246 10586 net.cpp:425] lstm1_unit_1 <- cont_1_lstm1_cont_slice_0_split_1
I0924 02:58:29.577257 10586 net.cpp:399] lstm1_unit_1 -> c_1
I0924 02:58:29.577273 10558 recurrent_layer.cpp:150] Adding parameter 0: W_xc
I0924 02:58:29.577283 10558 recurrent_layer.cpp:150] Adding parameter 1: b_c
I0924 02:58:29.577280 10586 net.cpp:399] lstm1_unit_1 -> h_1
I0924 02:58:29.577288 10558 recurrent_layer.cpp:150] Adding parameter 2: W_hc
I0924 02:58:29.577574 10558 net.cpp:141] Setting up lstm1
I0924 02:58:29.577590 10558 net.cpp:148] Top shape: 1 1 1000 (1000)
I0924 02:58:29.577600 10558 net.cpp:156] Memory required for data: 26408
I0924 02:58:29.577615 10558 layer_factory.hpp:77] Creating layer concat
I0924 02:58:29.577627 10558 net.cpp:91] Creating Layer concat
I0924 02:58:29.577633 10558 net.cpp:425] concat <- lstm1
I0924 02:58:29.577641 10558 net.cpp:425] concat <- embedded_input_sentence
I0924 02:58:29.577651 10558 net.cpp:425] concat <- reshaped_stage_indicator
I0924 02:58:29.577657 10586 net.cpp:141] Setting up lstm1_unit_1
I0924 02:58:29.577663 10558 net.cpp:399] concat -> lstm1_video_sequence
I0924 02:58:29.577682 10586 net.cpp:148] Top shape: 1 1 1000 (1000)
I0924 02:58:29.577694 10586 net.cpp:148] Top shape: 1 1 1000 (1000)
I0924 02:58:29.577702 10586 net.cpp:156] Memory required for data: 86016
I0924 02:58:29.577711 10586 layer_factory.hpp:77] Creating layer lstm1_
I0924 02:58:29.577726 10586 net.cpp:91] Creating Layer lstm1_
I0924 02:58:29.577733 10558 net.cpp:141] Setting up concat
I0924 02:58:29.577736 10586 net.cpp:425] lstm1_ <- c_1
I0924 02:58:29.577745 10558 net.cpp:148] Top shape: 1 1 1501 (1501)
I0924 02:58:29.577750 10558 net.cpp:156] Memory required for data: 32412
I0924 02:58:29.577751 10586 net.cpp:399] lstm1_ -> c_T
I0924 02:58:29.577755 10558 layer_factory.hpp:77] Creating layer lstm2
I0924 02:58:29.577787 10558 net.cpp:91] Creating Layer lstm2
I0924 02:58:29.577795 10558 net.cpp:425] lstm2 <- lstm1_video_sequence
I0924 02:58:29.577800 10558 net.cpp:425] lstm2 <- cont_sentence_input_1_split_1
I0924 02:58:29.577807 10558 net.cpp:399] lstm2 -> lstm2
I0924 02:58:29.577819 10558 recurrent_layer.cpp:20] Initializing recurrent layer: assuming input batch contains 1 timesteps of 1 independent streams.
I0924 02:58:29.577832 10586 net.cpp:141] Setting up lstm1_
I0924 02:58:29.577848 10586 net.cpp:148] Top shape: 1 1 1000 (1000)
I0924 02:58:29.577857 10586 net.cpp:156] Memory required for data: 90016
I0924 02:58:29.577865 10586 layer_factory.hpp:77] Creating layer lstm1_h_concat
I0924 02:58:29.577880 10586 net.cpp:91] Creating Layer lstm1_h_concat
I0924 02:58:29.577889 10586 net.cpp:425] lstm1_h_concat <- h_1
I0924 02:58:29.577905 10586 net.cpp:399] lstm1_h_concat -> h
I0924 02:58:29.577965 10586 net.cpp:141] Setting up lstm1_h_concat
I0924 02:58:29.577980 10586 net.cpp:148] Top shape: 1 1 1000 (1000)
I0924 02:58:29.577988 10586 net.cpp:156] Memory required for data: 94016
I0924 02:58:29.577997 10586 layer_factory.hpp:77] Creating layer h_pseudoloss
I0924 02:58:29.578016 10586 net.cpp:91] Creating Layer h_pseudoloss
I0924 02:58:29.578024 10586 net.cpp:425] h_pseudoloss <- h
I0924 02:58:29.578037 10586 net.cpp:399] h_pseudoloss -> h_pseudoloss
I0924 02:58:29.578135 10558 net.cpp:49] Initializing net from parameters: 
layer {
  name: "lstm2_"
  type: "Input"
  top: "x"
  top: "cont"
  input_param {
    shape {
      dim: 1
      dim: 1
      dim: 1501
    }
    shape {
      dim: 1
      dim: 1
    }
  }
}
layer {
  name: "lstm2_"
  type: "Input"
  top: "c_0"
  top: "h_0"
  input_param {
    shape {
      dim: 1
      dim: 1
      dim: 1000
    }
    shape {
      dim: 1
      dim: 1
      dim: 1000
    }
  }
}
layer {
  name: "lstm2_cont_slice"
  type: "Slice"
  bottom: "cont"
  top: "cont_1"
  slice_param {
    axis: 0
  }
}
layer {
  name: "lstm2_x_transform"
  type: "InnerProduct"
  bottom: "x"
  top: "W_xc_x"
  param {
    name: "W_xc"
  }
  param {
    name: "b_c"
  }
  propagate_down: true
  inner_product_param {
    num_output: 4000
    bias_term: true
    weight_filler {
      type: "uniform"
      min: -0.08
      max: 0.08
    }
    bias_filler {
      type: "constant"
      value: 0
    }
    axis: 2
  }
}
layer {
  name: "lstm2_W_xc_x_slice"
  type: "Slice"
  bottom: "W_xc_x"
  top: "W_xc_x_1"
  slice_param {
    axis: 0
  }
}
layer {
  name: "lstm2_h_conted_0"
  type: "Scale"
  bottom: "h_0"
  bottom: "cont_1"
  top: "h_conted_0"
  scale_param {
    axis: 0
  }
}
layer {
  name: "lstm2_transform_1"
  type: "InnerProduct"
  bottom: "h_conted_0"
  top: "W_hc_h_0"
  param {
    name: "W_hc"
  }
  inner_product_param {
    num_output: 4000
    bias_term: false
    weight_filler {
      type: "uniform"
      min: -0.08
      max: 0.08
    }
    axis: 2
  }
}
layer {
  name: "lstm2_gate_input_1"
  type: "Eltwise"
  bottom: "W_hc_h_0"
  bottom: "W_xc_x_1"
  top: "gate_input_1"
  eltwise_param {
    operation: SUM
  }
}
layer {
  name: "lstm2_unit_1"
  type: "LSTMUnit"
  bottom: "c_0"
  bottom: "gate_input_1"
  bottom: "cont_1"
  top: "c_1"
  top: "h_1"
}
layer {
  name: "lstm2_"
  type: "Split"
  bottom: "c_1"
  top: "c_T"
}
layer {
  name: "lstm2_h_concat"
  type: "Concat"
  bottom: "h_1"
  top: "h"
  concat_param {
    axis: 0
  }
}
layer {
  name: "h_pseudoloss"
  type: "Reduction"
  bottom: "h"
  top: "h_pseudoloss"
  loss_weight: 1
}
I0924 02:58:29.578245 10558 layer_factory.hpp:77] Creating layer lstm2_
I0924 02:58:29.578265 10558 net.cpp:91] Creating Layer lstm2_
I0924 02:58:29.578274 10558 net.cpp:399] lstm2_ -> x
I0924 02:58:29.578285 10558 net.cpp:399] lstm2_ -> cont
I0924 02:58:29.578284 10586 net.cpp:141] Setting up h_pseudoloss
I0924 02:58:29.578302 10586 net.cpp:148] Top shape: (1)
…
I0924 02:58:29.578379 10586 net.cpp:217] lstm1_gate_input_1 needs backward computation.
I0924 02:58:29.578388 10586 net.cpp:217] lstm1_transform_1 needs backward computation.
I0924 02:58:29.578398 10586 net.cpp:219] lstm1_h_conted_0 does not need backward computation.
I0924 02:58:29.578408 10586 net.cpp:217] lstm1_W_xc_x_slice needs backward computation.
I0924 02:58:29.578418 10586 net.cpp:217] lstm1_x_transform needs backward computation.
I0924 02:58:29.578425 10558 net.cpp:141] Setting up lstm2_
I0924 02:58:29.578428 10586 net.cpp:219] cont_1_lstm1_cont_slice_0_split does not need backward computation.
I0924 02:58:29.578444 10558 net.cpp:148] Top shape: 1 1 1501 (1501)
I0924 02:58:29.578454 10558 net.cpp:148] Top shape: 1 1 (1)
I0924 02:58:29.578454 10586 net.cpp:219] lstm1_cont_slice does not need backward computation.
I0924 02:58:29.578457 10558 net.cpp:156] Memory required for data: 6008
I0924 02:58:29.578470 10586 net.cpp:219] lstm1_ does not need backward computation.
I0924 02:58:29.578475 10558 layer_factory.hpp:77] Creating layer lstm2_
I0924 02:58:29.578480 10586 net.cpp:219] lstm1_ does not need backward computation.
I0924 02:58:29.578490 10586 net.cpp:261] This network produces output c_T
I0924 02:58:29.578495 10558 net.cpp:91] Creating Layer lstm2_
I0924 02:58:29.578500 10586 net.cpp:261] This network produces output h_pseudoloss
I0924 02:58:29.578506 10558 net.cpp:399] lstm2_ -> c_0
I0924 02:58:29.578518 10558 net.cpp:399] lstm2_ -> h_0
I0924 02:58:29.578528 10586 net.cpp:274] Network initialization done.
I0924 02:58:29.578619 10586 recurrent_layer.cpp:150] Adding parameter 0: W_xc
I0924 02:58:29.578634 10586 recurrent_layer.cpp:150] Adding parameter 1: b_c
I0924 02:58:29.578642 10586 recurrent_layer.cpp:150] Adding parameter 2: W_hc
I0924 02:58:29.578776 10558 net.cpp:141] Setting up lstm2_
I0924 02:58:29.578817 10558 net.cpp:148] Top shape: 1 1 1000 (1000)
I0924 02:58:29.578830 10558 net.cpp:148] Top shape: 1 1 1000 (1000)
I0924 02:58:29.578836 10558 net.cpp:156] Memory required for data: 14008
I0924 02:58:29.578845 10558 layer_factory.hpp:77] Creating layer lstm2_cont_slice
I0924 02:58:29.578861 10558 net.cpp:91] Creating Layer lstm2_cont_slice
I0924 02:58:29.578871 10558 net.cpp:425] lstm2_cont_slice <- cont
I0924 02:58:29.578882 10558 net.cpp:399] lstm2_cont_slice -> cont_1
I0924 02:58:29.579711 10558 net.cpp:141] Setting up lstm2_cont_slice
I0924 02:58:29.579735 10558 net.cpp:148] Top shape: 1 1 (1)
I0924 02:58:29.579741 10558 net.cpp:156] Memory required for data: 14012
I0924 02:58:29.579746 10558 layer_factory.hpp:77] Creating layer cont_1_lstm2_cont_slice_0_split
I0924 02:58:29.579754 10558 net.cpp:91] Creating Layer cont_1_lstm2_cont_slice_0_split
I0924 02:58:29.579758 10558 net.cpp:425] cont_1_lstm2_cont_slice_0_split <- cont_1
I0924 02:58:29.579769 10558 net.cpp:399] cont_1_lstm2_cont_slice_0_split -> cont_1_lstm2_cont_slice_0_split_0
I0924 02:58:29.579780 10558 net.cpp:399] cont_1_lstm2_cont_slice_0_split -> cont_1_lstm2_cont_slice_0_split_1
I0924 02:58:29.582854 10586 net.cpp:141] Setting up lstm1
I0924 02:58:29.582890 10586 net.cpp:148] Top shape: 1 1 1000 (1000)
I0924 02:58:29.582897 10586 net.cpp:156] Memory required for data: 26408
I0924 02:58:29.582913 10558 net.cpp:141] Setting up cont_1_lstm2_cont_slice_0_split
I0924 02:58:29.582924 10586 layer_factory.hpp:77] Creating layer concat
I0924 02:58:29.582936 10558 net.cpp:148] Top shape: 1 1 (1)
I0924 02:58:29.582942 10558 net.cpp:148] Top shape: 1 1 (1)
I0924 02:58:29.582947 10558 net.cpp:156] Memory required for data: 14020
I0924 02:58:29.582945 10586 net.cpp:91] Creating Layer concat
I0924 02:58:29.582953 10558 layer_factory.hpp:77] Creating layer lstm2_x_transform
I0924 02:58:29.582958 10586 net.cpp:425] concat <- lstm1
I0924 02:58:29.582968 10558 net.cpp:91] Creating Layer lstm2_x_transform
I0924 02:58:29.582970 10586 net.cpp:425] concat <- embedded_input_sentence
I0924 02:58:29.582978 10558 net.cpp:425] lstm2_x_transform <- x
I0924 02:58:29.582981 10586 net.cpp:425] concat <- reshaped_stage_indicator
I0924 02:58:29.582994 10586 net.cpp:399] concat -> lstm1_video_sequence
I0924 02:58:29.582998 10558 net.cpp:399] lstm2_x_transform -> W_xc_x
I0924 02:58:29.599524 10592 net.cpp:141] Setting up lstm1_transform_1
I0924 02:58:29.599573 10592 net.cpp:148] Top shape: 1 1 4000 (4000)
I0924 02:58:29.599581 10592 net.cpp:156] Memory required for data: 62016
I0924 02:58:29.599607 10592 layer_factory.hpp:77] Creating layer lstm1_gate_input_1
I0924 02:58:29.599638 10592 net.cpp:91] Creating Layer lstm1_gate_input_1
I0924 02:58:29.599647 10592 net.cpp:425] lstm1_gate_input_1 <- W_hc_h_0
I0924 02:58:29.599658 10592 net.cpp:425] lstm1_gate_input_1 <- W_xc_x_1
I0924 02:58:29.599673 10592 net.cpp:399] lstm1_gate_input_1 -> gate_input_1
I0924 02:58:29.599977 10592 net.cpp:141] Setting up lstm1_gate_input_1
I0924 02:58:29.599988 10592 net.cpp:148] Top shape: 1 1 4000 (4000)
I0924 02:58:29.599992 10592 net.cpp:156] Memory required for data: 78016
I0924 02:58:29.599997 10592 layer_factory.hpp:77] Creating layer lstm1_unit_1
I0924 02:58:29.600008 10592 net.cpp:91] Creating Layer lstm1_unit_1
I0924 02:58:29.600013 10592 net.cpp:425] lstm1_unit_1 <- c_0
I0924 02:58:29.600018 10592 net.cpp:425] lstm1_unit_1 <- gate_input_1
I0924 02:58:29.600024 10592 net.cpp:425] lstm1_unit_1 <- cont_1_lstm1_cont_slice_0_split_1
I0924 02:58:29.600031 10592 net.cpp:399] lstm1_unit_1 -> c_1
I0924 02:58:29.600040 10592 net.cpp:399] lstm1_unit_1 -> h_1
I0924 02:58:29.600041 10586 net.cpp:141] Setting up concat
I0924 02:58:29.600067 10586 net.cpp:148] Top shape: 1 1 1501 (1501)
I0924 02:58:29.600077 10586 net.cpp:156] Memory required for data: 32412
I0924 02:58:29.600088 10586 layer_factory.hpp:77] Creating layer lstm2
I0924 02:58:29.600114 10586 net.cpp:91] Creating Layer lstm2
I0924 02:58:29.600127 10586 net.cpp:425] lstm2 <- lstm1_video_sequence
I0924 02:58:29.600139 10586 net.cpp:425] lstm2 <- cont_sentence_input_1_split_1
I0924 02:58:29.600155 10586 net.cpp:399] lstm2 -> lstm2
I0924 02:58:29.600178 10586 recurrent_layer.cpp:20] Initializing recurrent layer: assuming input batch contains 1 timesteps of 1 independent streams.
I0924 02:58:29.600165 10562 net.cpp:141] Setting up lstm1_x_transform
I0924 02:58:29.600213 10562 net.cpp:148] Top shape: 1 1 4000 (4000)
I0924 02:58:29.600225 10562 net.cpp:156] Memory required for data: 26016
I0924 02:58:29.600231 10592 net.cpp:141] Setting up lstm1_unit_1
I0924 02:58:29.600244 10592 net.cpp:148] Top shape: 1 1 1000 (1000)
I0924 02:58:29.600250 10592 net.cpp:148] Top shape: 1 1 1000 (1000)
I0924 02:58:29.600255 10592 net.cpp:156] Memory required for data: 86016
I0924 02:58:29.600260 10592 layer_factory.hpp:77] Creating layer lstm1_
I0924 02:58:29.600256 10562 layer_factory.hpp:77] Creating layer lstm1_W_xc_x_slice
I0924 02:58:29.600272 10592 net.cpp:91] Creating Layer lstm1_
I0924 02:58:29.600277 10592 net.cpp:425] lstm1_ <- c_1
I0924 02:58:29.600286 10592 net.cpp:399] lstm1_ -> c_T
I0924 02:58:29.600316 10562 net.cpp:91] Creating Layer lstm1_W_xc_x_slice
I0924 02:58:29.600332 10562 net.cpp:425] lstm1_W_xc_x_slice <- W_xc_x
I0924 02:58:29.600349 10562 net.cpp:399] lstm1_W_xc_x_slice -> W_xc_x_1
I0924 02:58:29.600639 10586 net.cpp:49] Initializing net from parameters: 
layer {
  name: "lstm2_"
  type: "Input"
  top: "x"
  top: "cont"
  input_param {
    shape {
      dim: 1
      dim: 1
      dim: 1501
    }
    shape {
      dim: 1
      dim: 1
    }
  }
}
layer {
  name: "lstm2_"
  type: "Input"
  top: "c_0"
  top: "h_0"
  input_param {
    shape {
      dim: 1
      dim: 1
      dim: 1000
    }
    shape {
      dim: 1
      dim: 1
      dim: 1000
    }
  }
}
layer {
  name: "lstm2_cont_slice"
  type: "Slice"
  bottom: "cont"
  top: "cont_1"
  slice_param {
    axis: 0
  }
}
layer {
  name: "lstm2_x_transform"
  type: "InnerProduct"
  bottom: "x"
  top: "W_xc_x"
  param {
    name: "W_xc"
  }
  param {
    name: "b_c"
  }
  propagate_down: true
  inner_product_param {
    num_output: 4000
    bias_term: true
    weight_filler {
      type: "uniform"
      min: -0.08
      max: 0.08
    }
    bias_filler {
      type: "constant"
      value: 0
    }
    axis: 2
  }
}
layer {
  name: "lstm2_W_xc_x_slice"
  type: "Slice"
  bottom: "W_xc_x"
  top: "W_xc_x_1"
  slice_param {
    axis: 0
  }
}
layer {
  name: "lstm2_h_conted_0"
  type: "Scale"
  bottom: "h_0"
  bottom: "cont_1"
  top: "h_conted_0"
  scale_param {
    axis: 0
  }
}
layer {
  name: "lstm2_transform_1"
  type: "InnerProduct"
  bottom: "h_conted_0"
  top: "W_hc_h_0"
  param {
    name: "W_hc"
  }
  inner_product_param {
    num_output: 4000
    bias_term: false
    weight_filler {
      type: "uniform"
      min: -0.08
      max: 0.08
    }
    axis: 2
  }
}
layer {
  name: "lstm2_gate_input_1"
  type: "Eltwise"
  bottom: "W_hc_h_0"
  bottom: "W_xc_x_1"
  top: "gate_input_1"
  eltwise_param {
    operation: SUM
  }
}
layer {
  name: "lstm2_unit_1"
  type: "LSTMUnit"
  bottom: "c_0"
  bottom: "gate_input_1"
  bottom: "cont_1"
  top: "c_1"
  top: "h_1"
}
layer {
  name: "lstm2_"
  type: "Split"
  bottom: "c_1"
  top: "c_T"
}
layer {
  name: "lstm2_h_concat"
  type: "Concat"
  bottom: "h_1"
  top: "h"
  concat_param {
    axis: 0
  }
}
layer {
  name: "h_pseudoloss"
  type: "Reduction"
  bottom: "h"
  top: "h_pseudoloss"
  loss_weight: 1
}
I0924 02:58:29.600787 10586 layer_factory.hpp:77] Creating layer lstm2_
I0924 02:58:29.600808 10586 net.cpp:91] Creating Layer lstm2_
I0924 02:58:29.600821 10586 net.cpp:399] lstm2_ -> x
I0924 02:58:29.600839 10586 net.cpp:399] lstm2_ -> cont
I0924 02:58:29.601925 10592 net.cpp:141] Setting up lstm1_
I0924 02:58:29.601936 10592 net.cpp:148] Top shape: 1 1 1000 (1000)
I0924 02:58:29.601940 10592 net.cpp:156] Memory required for data: 90016
I0924 02:58:29.601945 10592 layer_factory.hpp:77] Creating layer lstm1_h_concat
I0924 02:58:29.601954 10592 net.cpp:91] Creating Layer lstm1_h_concat
I0924 02:58:29.601959 10592 net.cpp:425] lstm1_h_concat <- h_1
I0924 02:58:29.601969 10592 net.cpp:399] lstm1_h_concat -> h
I0924 02:58:29.601999 10562 net.cpp:141] Setting up lstm1_W_xc_x_slice
I0924 02:58:29.602021 10562 net.cpp:148] Top shape: 1 1 4000 (4000)
I0924 02:58:29.602032 10562 net.cpp:156] Memory required for data: 42016
I0924 02:58:29.602042 10562 layer_factory.hpp:77] Creating layer lstm1_h_conted_0
I0924 02:58:29.602074 10562 net.cpp:91] Creating Layer lstm1_h_conted_0
I0924 02:58:29.602088 10562 net.cpp:425] lstm1_h_conted_0 <- h_0
I0924 02:58:29.602093 10586 net.cpp:141] Setting up lstm2_
I0924 02:58:29.602102 10562 net.cpp:425] lstm1_h_conted_0 <- cont_1_lstm1_cont_slice_0_split_0
I0924 02:58:29.602113 10586 net.cpp:148] Top shape: 1 1 1501 (1501)
I0924 02:58:29.602120 10586 net.cpp:148] Top shape: 1 1 (1)
I0924 02:58:29.602133 10586 net.cpp:156] Memory required for data: 6008
I0924 02:58:29.602118 10562 net.cpp:399] lstm1_h_conted_0 -> h_conted_0
I0924 02:58:29.602138 10586 layer_factory.hpp:77] Creating layer lstm2_
I0924 02:58:29.602164 10586 net.cpp:91] Creating Layer lstm2_
I0924 02:58:29.602176 10586 net.cpp:399] lstm2_ -> c_0
I0924 02:58:29.602190 10586 net.cpp:399] lstm2_ -> h_0
I0924 02:58:29.602268 10592 net.cpp:141] Setting up lstm1_h_concat
I0924 02:58:29.602278 10592 net.cpp:148] Top shape: 1 1 1000 (1000)
I0924 02:58:29.602283 10592 net.cpp:156] Memory required for data: 94016
I0924 02:58:29.602288 10592 layer_factory.hpp:77] Creating layer h_pseudoloss
I0924 02:58:29.602296 10592 net.cpp:91] Creating Layer h_pseudoloss
I0924 02:58:29.602301 10592 net.cpp:425] h_pseudoloss <- h
I0924 02:58:29.602308 10592 net.cpp:399] h_pseudoloss -> h_pseudoloss
I0924 02:58:29.602447 10586 net.cpp:141] Setting up lstm2_
I0924 02:58:29.602458 10586 net.cpp:148] Top shape: 1 1 1000 (1000)
I0924 02:58:29.602463 10586 net.cpp:148] Top shape: 1 1 1000 (1000)
I0924 02:58:29.602468 10586 net.cpp:156] Memory required for data: 14008
I0924 02:58:29.602473 10586 layer_factory.hpp:77] Creating layer lstm2_cont_slice
I0924 02:58:29.602485 10586 net.cpp:91] Creating Layer lstm2_cont_slice
I0924 02:58:29.602490 10586 net.cpp:425] lstm2_cont_slice <- cont
I0924 02:58:29.602499 10586 net.cpp:399] lstm2_cont_slice -> cont_1
I0924 02:58:29.602566 10592 net.cpp:141] Setting up h_pseudoloss
…
I0924 02:58:29.602669 10592 net.cpp:219] lstm1_ does not need backward computation.
I0924 02:58:29.602672 10592 net.cpp:261] This network produces output c_T
I0924 02:58:29.602679 10592 net.cpp:261] This network produces output h_pseudoloss
I0924 02:58:29.602701 10592 net.cpp:274] Network initialization done.
I0924 02:58:29.602757 10592 recurrent_layer.cpp:150] Adding parameter 0: W_xc
I0924 02:58:29.602767 10592 recurrent_layer.cpp:150] Adding parameter 1: b_c
I0924 02:58:29.602774 10592 recurrent_layer.cpp:150] Adding parameter 2: W_hc
I0924 02:58:29.602901 10592 net.cpp:141] Setting up lstm1
I0924 02:58:29.602916 10592 net.cpp:148] Top shape: 1 1 1000 (1000)
I0924 02:58:29.602923 10592 net.cpp:156] Memory required for data: 26408
I0924 02:58:29.602942 10592 layer_factory.hpp:77] Creating layer concat
I0924 02:58:29.602955 10592 net.cpp:91] Creating Layer concat
I0924 02:58:29.602964 10592 net.cpp:425] concat <- lstm1
I0924 02:58:29.602973 10592 net.cpp:425] concat <- embedded_input_sentence
I0924 02:58:29.602982 10592 net.cpp:425] concat <- reshaped_stage_indicator
I0924 02:58:29.602991 10592 net.cpp:399] concat -> lstm1_video_sequence
I0924 02:58:29.603036 10592 net.cpp:141] Setting up concat
I0924 02:58:29.603049 10592 net.cpp:148] Top shape: 1 1 1501 (1501)
I0924 02:58:29.603056 10592 net.cpp:156] Memory required for data: 32412
I0924 02:58:29.603065 10592 layer_factory.hpp:77] Creating layer lstm2
I0924 02:58:29.603081 10592 net.cpp:91] Creating Layer lstm2
I0924 02:58:29.603091 10592 net.cpp:425] lstm2 <- lstm1_video_sequence
I0924 02:58:29.603101 10592 net.cpp:425] lstm2 <- cont_sentence_input_1_split_1
I0924 02:58:29.603111 10592 net.cpp:399] lstm2 -> lstm2
I0924 02:58:29.603126 10592 recurrent_layer.cpp:20] Initializing recurrent layer: assuming input batch contains 1 timesteps of 1 independent streams.
I0924 02:58:29.603469 10592 net.cpp:49] Initializing net from parameters: 
layer {
  name: "lstm2_"
  type: "Input"
  top: "x"
  top: "cont"
  input_param {
    shape {
      dim: 1
      dim: 1
      dim: 1501
    }
    shape {
      dim: 1
      dim: 1
    }
  }
}
layer {
  name: "lstm2_"
  type: "Input"
  top: "c_0"
  top: "h_0"
  input_param {
    shape {
      dim: 1
      dim: 1
      dim: 1000
    }
    shape {
      dim: 1
      dim: 1
      dim: 1000
    }
  }
}
layer {
  name: "lstm2_cont_slice"
  type: "Slice"
  bottom: "cont"
  top: "cont_1"
  slice_param {
    axis: 0
  }
}
layer {
  name: "lstm2_x_transform"
  type: "InnerProduct"
  bottom: "x"
  top: "W_xc_x"
  param {
    name: "W_xc"
  }
  param {
    name: "b_c"
  }
  propagate_down: true
  inner_product_param {
    num_output: 4000
    bias_term: true
    weight_filler {
      type: "uniform"
      min: -0.08
      max: 0.08
    }
    bias_filler {
      type: "constant"
      value: 0
    }
    axis: 2
  }
}
layer {
  name: "lstm2_W_xc_x_slice"
  type: "Slice"
  bottom: "W_xc_x"
  top: "W_xc_x_1"
  slice_param {
    axis: 0
  }
}
layer {
  name: "lstm2_h_conted_0"
  type: "Scale"
  bottom: "h_0"
  bottom: "cont_1"
  top: "h_conted_0"
  scale_param {
    axis: 0
  }
}
layer {
  name: "lstm2_transform_1"
  type: "InnerProduct"
  bottom: "h_conted_0"
  top: "W_hc_h_0"
  param {
    name: "W_hc"
  }
  inner_product_param {
    num_output: 4000
    bias_term: false
    weight_filler {
      type: "uniform"
      min: -0.08
      max: 0.08
    }
    axis: 2
  }
}
layer {
  name: "lstm2_gate_input_1"
  type: "Eltwise"
  bottom: "W_hc_h_0"
  bottom: "W_xc_x_1"
  top: "gate_input_1"
  eltwise_param {
    operation: SUM
  }
}
layer {
  name: "lstm2_unit_1"
  type: "LSTMUnit"
  bottom: "c_0"
  bottom: "gate_input_1"
  bottom: "cont_1"
  top: "c_1"
  top: "h_1"
}
layer {
  name: "lstm2_"
  type: "Split"
  bottom: "c_1"
  top: "c_T"
}
layer {
  name: "lstm2_h_concat"
  type: "Concat"
  bottom: "h_1"
  top: "h"
  concat_param {
    axis: 0
  }
}
layer {
  name: "h_pseudoloss"
  type: "Reduction"
  bottom: "h"
  top: "h_pseudoloss"
  loss_weight: 1
}
I0924 02:58:29.603612 10592 layer_factory.hpp:77] Creating layer lstm2_
I0924 02:58:29.603634 10592 net.cpp:91] Creating Layer lstm2_
I0924 02:58:29.603648 10592 net.cpp:399] lstm2_ -> x
I0924 02:58:29.603668 10592 net.cpp:399] lstm2_ -> cont
I0924 02:58:29.603770 10592 net.cpp:141] Setting up lstm2_
I0924 02:58:29.603790 10592 net.cpp:148] Top shape: 1 1 1501 (1501)
I0924 02:58:29.603802 10592 net.cpp:148] Top shape: 1 1 (1)
I0924 02:58:29.603811 10592 net.cpp:156] Memory required for data: 6008
I0924 02:58:29.603821 10592 layer_factory.hpp:77] Creating layer lstm2_
I0924 02:58:29.603837 10592 net.cpp:91] Creating Layer lstm2_
I0924 02:58:29.603854 10592 net.cpp:399] lstm2_ -> c_0
I0924 02:58:29.603874 10592 net.cpp:399] lstm2_ -> h_0
I0924 02:58:29.603968 10592 net.cpp:141] Setting up lstm2_
I0924 02:58:29.603991 10592 net.cpp:148] Top shape: 1 1 1000 (1000)
I0924 02:58:29.604006 10592 net.cpp:148] Top shape: 1 1 1000 (1000)
I0924 02:58:29.604015 10592 net.cpp:156] Memory required for data: 14008
I0924 02:58:29.604027 10592 layer_factory.hpp:77] Creating layer lstm2_cont_slice
I0924 02:58:29.604045 10592 net.cpp:91] Creating Layer lstm2_cont_slice
I0924 02:58:29.604058 10592 net.cpp:425] lstm2_cont_slice <- cont
I0924 02:58:29.604074 10592 net.cpp:399] lstm2_cont_slice -> cont_1
I0924 02:58:29.604140 10592 net.cpp:141] Setting up lstm2_cont_slice
I0924 02:58:29.604157 10592 net.cpp:148] Top shape: 1 1 (1)
I0924 02:58:29.604166 10592 net.cpp:156] Memory required for data: 14012
I0924 02:58:29.604176 10592 layer_factory.hpp:77] Creating layer cont_1_lstm2_cont_slice_0_split
I0924 02:58:29.604198 10592 net.cpp:91] Creating Layer cont_1_lstm2_cont_slice_0_split
I0924 02:58:29.604208 10592 net.cpp:425] cont_1_lstm2_cont_slice_0_split <- cont_1
I0924 02:58:29.604221 10592 net.cpp:399] cont_1_lstm2_cont_slice_0_split -> cont_1_lstm2_cont_slice_0_split_0
I0924 02:58:29.604238 10592 net.cpp:399] cont_1_lstm2_cont_slice_0_split -> cont_1_lstm2_cont_slice_0_split_1
I0924 02:58:29.604331 10592 net.cpp:141] Setting up cont_1_lstm2_cont_slice_0_split
I0924 02:58:29.604347 10592 net.cpp:148] Top shape: 1 1 (1)
I0924 02:58:29.604358 10592 net.cpp:148] Top shape: 1 1 (1)
I0924 02:58:29.604367 10592 net.cpp:156] Memory required for data: 14020
I0924 02:58:29.604377 10592 layer_factory.hpp:77] Creating layer lstm2_x_transform
I0924 02:58:29.604398 10592 net.cpp:91] Creating Layer lstm2_x_transform
I0924 02:58:29.604408 10592 net.cpp:425] lstm2_x_transform <- x
I0924 02:58:29.604424 10592 net.cpp:399] lstm2_x_transform -> W_xc_x
I0924 02:58:29.619477 10586 net.cpp:141] Setting up lstm2_cont_slice
I0924 02:58:29.619524 10586 net.cpp:148] Top shape: 1 1 (1)
I0924 02:58:29.619531 10586 net.cpp:156] Memory required for data: 14012
I0924 02:58:29.619542 10586 layer_factory.hpp:77] Creating layer cont_1_lstm2_cont_slice_0_split
I0924 02:58:29.619562 10586 net.cpp:91] Creating Layer cont_1_lstm2_cont_slice_0_split
I0924 02:58:29.619572 10586 net.cpp:425] cont_1_lstm2_cont_slice_0_split <- cont_1
I0924 02:58:29.619596 10586 net.cpp:399] cont_1_lstm2_cont_slice_0_split -> cont_1_lstm2_cont_slice_0_split_0
I0924 02:58:29.619613 10586 net.cpp:399] cont_1_lstm2_cont_slice_0_split -> cont_1_lstm2_cont_slice_0_split_1
I0924 02:58:29.624363 10562 net.cpp:141] Setting up lstm1_h_conted_0
I0924 02:58:29.624394 10586 net.cpp:141] Setting up cont_1_lstm2_cont_slice_0_split
I0924 02:58:29.624418 10562 net.cpp:148] Top shape: 1 1 1000 (1000)
I0924 02:58:29.624433 10562 net.cpp:156] Memory required for data: 46016
I0924 02:58:29.624436 10586 net.cpp:148] Top shape: 1 1 (1)
I0924 02:58:29.624447 10586 net.cpp:148] Top shape: 1 1 (1)
I0924 02:58:29.624449 10562 layer_factory.hpp:77] Creating layer lstm1_transform_1
I0924 02:58:29.624454 10586 net.cpp:156] Memory required for data: 14020
I0924 02:58:29.624466 10586 layer_factory.hpp:77] Creating layer lstm2_x_transform
I0924 02:58:29.624495 10562 net.cpp:91] Creating Layer lstm1_transform_1
I0924 02:58:29.624496 10586 net.cpp:91] Creating Layer lstm2_x_transform
I0924 02:58:29.624526 10562 net.cpp:425] lstm1_transform_1 <- h_conted_0
I0924 02:58:29.624531 10586 net.cpp:425] lstm2_x_transform <- x
I0924 02:58:29.624549 10586 net.cpp:399] lstm2_x_transform -> W_xc_x
I0924 02:58:29.624552 10562 net.cpp:399] lstm1_transform_1 -> W_hc_h_0
I0924 02:58:29.640249 10560 net.cpp:141] Setting up embedding
I0924 02:58:29.640301 10560 net.cpp:148] Top shape: 1 1 500 (500)
I0924 02:58:29.640308 10560 net.cpp:156] Memory required for data: 22408
I0924 02:58:29.640331 10560 layer_factory.hpp:77] Creating layer lstm1
I0924 02:58:29.640355 10560 net.cpp:91] Creating Layer lstm1
I0924 02:58:29.640364 10560 net.cpp:425] lstm1 <- embedded_input_frames
I0924 02:58:29.640373 10560 net.cpp:425] lstm1 <- cont_sentence_input_1_split_0
I0924 02:58:29.640383 10560 net.cpp:399] lstm1 -> lstm1
I0924 02:58:29.640409 10560 recurrent_layer.cpp:20] Initializing recurrent layer: assuming input batch contains 1 timesteps of 1 independent streams.
I0924 02:58:29.640758 10560 net.cpp:49] Initializing net from parameters: 
layer {
  name: "lstm1_"
  type: "Input"
  top: "x"
  top: "cont"
  input_param {
    shape {
      dim: 1
      dim: 1
      dim: 500
    }
    shape {
      dim: 1
      dim: 1
    }
  }
}
layer {
  name: "lstm1_"
  type: "Input"
  top: "c_0"
  top: "h_0"
  input_param {
    shape {
      dim: 1
      dim: 1
      dim: 1000
    }
    shape {
      dim: 1
      dim: 1
      dim: 1000
    }
  }
}
layer {
  name: "lstm1_cont_slice"
  type: "Slice"
  bottom: "cont"
  top: "cont_1"
  slice_param {
    axis: 0
  }
}
layer {
  name: "lstm1_x_transform"
  type: "InnerProduct"
  bottom: "x"
  top: "W_xc_x"
  param {
    name: "W_xc"
  }
  param {
    name: "b_c"
  }
  propagate_down: true
  inner_product_param {
    num_output: 4000
    bias_term: true
    weight_filler {
      type: "uniform"
      min: -0.08
      max: 0.08
    }
    bias_filler {
      type: "constant"
      value: 0
    }
    axis: 2
  }
}
layer {
  name: "lstm1_W_xc_x_slice"
  type: "Slice"
  bottom: "W_xc_x"
  top: "W_xc_x_1"
  slice_param {
    axis: 0
  }
}
layer {
  name: "lstm1_h_conted_0"
  type: "Scale"
  bottom: "h_0"
  bottom: "cont_1"
  top: "h_conted_0"
  scale_param {
    axis: 0
  }
}
layer {
  name: "lstm1_transform_1"
  type: "InnerProduct"
  bottom: "h_conted_0"
  top: "W_hc_h_0"
  param {
    name: "W_hc"
  }
  inner_product_param {
    num_output: 4000
    bias_term: false
    weight_filler {
      type: "uniform"
      min: -0.08
      max: 0.08
    }
    axis: 2
  }
}
layer {
  name: "lstm1_gate_input_1"
  type: "Eltwise"
  bottom: "W_hc_h_0"
  bottom: "W_xc_x_1"
  top: "gate_input_1"
  eltwise_param {
    operation: SUM
  }
}
layer {
  name: "lstm1_unit_1"
  type: "LSTMUnit"
  bottom: "c_0"
  bottom: "gate_input_1"
  bottom: "cont_1"
  top: "c_1"
  top: "h_1"
}
layer {
  name: "lstm1_"
  type: "Split"
  bottom: "c_1"
  top: "c_T"
}
layer {
  name: "lstm1_h_concat"
  type: "Concat"
  bottom: "h_1"
  top: "h"
  concat_param {
    axis: 0
  }
}
layer {
  name: "h_pseudoloss"
  type: "Reduction"
  bottom: "h"
  top: "h_pseudoloss"
  loss_weight: 1
}
I0924 02:58:29.640873 10560 layer_factory.hpp:77] Creating layer lstm1_
I0924 02:58:29.640889 10560 net.cpp:91] Creating Layer lstm1_
I0924 02:58:29.640897 10560 net.cpp:399] lstm1_ -> x
I0924 02:58:29.640908 10560 net.cpp:399] lstm1_ -> cont
I0924 02:58:29.650935 10560 net.cpp:141] Setting up lstm1_
I0924 02:58:29.650985 10560 net.cpp:148] Top shape: 1 1 500 (500)
I0924 02:58:29.650992 10560 net.cpp:148] Top shape: 1 1 (1)
I0924 02:58:29.651000 10560 net.cpp:156] Memory required for data: 2004
I0924 02:58:29.651015 10560 layer_factory.hpp:77] Creating layer lstm1_
I0924 02:58:29.651041 10560 net.cpp:91] Creating Layer lstm1_
I0924 02:58:29.651057 10560 net.cpp:399] lstm1_ -> c_0
I0924 02:58:29.651084 10560 net.cpp:399] lstm1_ -> h_0
I0924 02:58:29.652685 10560 net.cpp:141] Setting up lstm1_
I0924 02:58:29.652724 10560 net.cpp:148] Top shape: 1 1 1000 (1000)
I0924 02:58:29.652734 10560 net.cpp:148] Top shape: 1 1 1000 (1000)
I0924 02:58:29.652741 10560 net.cpp:156] Memory required for data: 10004
I0924 02:58:29.652753 10560 layer_factory.hpp:77] Creating layer lstm1_cont_slice
I0924 02:58:29.652779 10560 net.cpp:91] Creating Layer lstm1_cont_slice
I0924 02:58:29.652791 10560 net.cpp:425] lstm1_cont_slice <- cont
I0924 02:58:29.652804 10560 net.cpp:399] lstm1_cont_slice -> cont_1
I0924 02:58:29.656641 10560 net.cpp:141] Setting up lstm1_cont_slice
I0924 02:58:29.656672 10560 net.cpp:148] Top shape: 1 1 (1)
I0924 02:58:29.656677 10560 net.cpp:156] Memory required for data: 10008
I0924 02:58:29.656683 10560 layer_factory.hpp:77] Creating layer cont_1_lstm1_cont_slice_0_split
I0924 02:58:29.656703 10560 net.cpp:91] Creating Layer cont_1_lstm1_cont_slice_0_split
I0924 02:58:29.656713 10560 net.cpp:425] cont_1_lstm1_cont_slice_0_split <- cont_1
I0924 02:58:29.656723 10560 net.cpp:399] cont_1_lstm1_cont_slice_0_split -> cont_1_lstm1_cont_slice_0_split_0
I0924 02:58:29.656733 10560 net.cpp:399] cont_1_lstm1_cont_slice_0_split -> cont_1_lstm1_cont_slice_0_split_1
I0924 02:58:29.657321 10560 net.cpp:141] Setting up cont_1_lstm1_cont_slice_0_split
I0924 02:58:29.657354 10560 net.cpp:148] Top shape: 1 1 (1)
I0924 02:58:29.657367 10560 net.cpp:148] Top shape: 1 1 (1)
I0924 02:58:29.657377 10560 net.cpp:156] Memory required for data: 10016
I0924 02:58:29.657382 10560 layer_factory.hpp:77] Creating layer lstm1_x_transform
I0924 02:58:29.657399 10560 net.cpp:91] Creating Layer lstm1_x_transform
I0924 02:58:29.657404 10560 net.cpp:425] lstm1_x_transform <- x
I0924 02:58:29.657413 10560 net.cpp:399] lstm1_x_transform -> W_xc_x
I0924 02:58:29.690070 10562 net.cpp:141] Setting up lstm1_transform_1
I0924 02:58:29.690125 10562 net.cpp:148] Top shape: 1 1 4000 (4000)
I0924 02:58:29.690136 10562 net.cpp:156] Memory required for data: 62016
I0924 02:58:29.690167 10562 layer_factory.hpp:77] Creating layer lstm1_gate_input_1
I0924 02:58:29.690194 10562 net.cpp:91] Creating Layer lstm1_gate_input_1
I0924 02:58:29.690204 10562 net.cpp:425] lstm1_gate_input_1 <- W_hc_h_0
I0924 02:58:29.690217 10562 net.cpp:425] lstm1_gate_input_1 <- W_xc_x_1
I0924 02:58:29.690234 10562 net.cpp:399] lstm1_gate_input_1 -> gate_input_1
I0924 02:58:29.690428 10562 net.cpp:141] Setting up lstm1_gate_input_1
I0924 02:58:29.690444 10562 net.cpp:148] Top shape: 1 1 4000 (4000)
I0924 02:58:29.690454 10562 net.cpp:156] Memory required for data: 78016
I0924 02:58:29.690461 10562 layer_factory.hpp:77] Creating layer lstm1_unit_1
I0924 02:58:29.690480 10562 net.cpp:91] Creating Layer lstm1_unit_1
I0924 02:58:29.690490 10562 net.cpp:425] lstm1_unit_1 <- c_0
I0924 02:58:29.690500 10562 net.cpp:425] lstm1_unit_1 <- gate_input_1
I0924 02:58:29.690507 10562 net.cpp:425] lstm1_unit_1 <- cont_1_lstm1_cont_slice_0_split_1
I0924 02:58:29.690517 10562 net.cpp:399] lstm1_unit_1 -> c_1
I0924 02:58:29.690531 10562 net.cpp:399] lstm1_unit_1 -> h_1
I0924 02:58:29.690557 10560 net.cpp:141] Setting up lstm1_x_transform
I0924 02:58:29.690577 10560 net.cpp:148] Top shape: 1 1 4000 (4000)
I0924 02:58:29.690582 10560 net.cpp:156] Memory required for data: 26016
I0924 02:58:29.690605 10560 layer_factory.hpp:77] Creating layer lstm1_W_xc_x_slice
I0924 02:58:29.690618 10560 net.cpp:91] Creating Layer lstm1_W_xc_x_slice
I0924 02:58:29.690624 10560 net.cpp:425] lstm1_W_xc_x_slice <- W_xc_x
I0924 02:58:29.690634 10560 net.cpp:399] lstm1_W_xc_x_slice -> W_xc_x_1
I0924 02:58:29.690665 10558 net.cpp:141] Setting up lstm2_x_transform
I0924 02:58:29.690682 10558 net.cpp:148] Top shape: 1 1 4000 (4000)
I0924 02:58:29.690687 10560 net.cpp:141] Setting up lstm1_W_xc_x_slice
I0924 02:58:29.690691 10558 net.cpp:156] Memory required for data: 30020
I0924 02:58:29.690698 10560 net.cpp:148] Top shape: 1 1 4000 (4000)
I0924 02:58:29.690702 10560 net.cpp:156] Memory required for data: 42016
I0924 02:58:29.690707 10560 layer_factory.hpp:77] Creating layer lstm1_h_conted_0
I0924 02:58:29.690709 10558 layer_factory.hpp:77] Creating layer lstm2_W_xc_x_slice
I0924 02:58:29.690718 10560 net.cpp:91] Creating Layer lstm1_h_conted_0
I0924 02:58:29.690723 10560 net.cpp:425] lstm1_h_conted_0 <- h_0
I0924 02:58:29.690722 10558 net.cpp:91] Creating Layer lstm2_W_xc_x_slice
I0924 02:58:29.690729 10560 net.cpp:425] lstm1_h_conted_0 <- cont_1_lstm1_cont_slice_0_split_0
I0924 02:58:29.690732 10558 net.cpp:425] lstm2_W_xc_x_slice <- W_xc_x
I0924 02:58:29.690737 10560 net.cpp:399] lstm1_h_conted_0 -> h_conted_0
I0924 02:58:29.690742 10558 net.cpp:399] lstm2_W_xc_x_slice -> W_xc_x_1
I0924 02:58:29.694531 10558 net.cpp:141] Setting up lstm2_W_xc_x_slice
I0924 02:58:29.694588 10558 net.cpp:148] Top shape: 1 1 4000 (4000)
I0924 02:58:29.694608 10558 net.cpp:156] Memory required for data: 46020
I0924 02:58:29.694622 10558 layer_factory.hpp:77] Creating layer lstm2_h_conted_0
I0924 02:58:29.694643 10558 net.cpp:91] Creating Layer lstm2_h_conted_0
I0924 02:58:29.694651 10558 net.cpp:425] lstm2_h_conted_0 <- h_0
I0924 02:58:29.694661 10558 net.cpp:425] lstm2_h_conted_0 <- cont_1_lstm2_cont_slice_0_split_0
I0924 02:58:29.694670 10558 net.cpp:399] lstm2_h_conted_0 -> h_conted_0
I0924 02:58:29.694829 10568 net.cpp:141] Setting up embedding
I0924 02:58:29.694821 10592 net.cpp:141] Setting up lstm2_x_transform
I0924 02:58:29.694882 10568 net.cpp:148] Top shape: 1 1 500 (500)
I0924 02:58:29.694890 10568 net.cpp:156] Memory required for data: 22408
I0924 02:58:29.694900 10592 net.cpp:148] Top shape: 1 1 4000 (4000)
I0924 02:58:29.694907 10568 layer_factory.hpp:77] Creating layer lstm1
I0924 02:58:29.694912 10592 net.cpp:156] Memory required for data: 30020
I0924 02:58:29.694928 10568 net.cpp:91] Creating Layer lstm1
I0924 02:58:29.694937 10568 net.cpp:425] lstm1 <- embedded_input_frames
I0924 02:58:29.694948 10568 net.cpp:425] lstm1 <- cont_sentence_input_1_split_0
I0924 02:58:29.694991 10568 net.cpp:399] lstm1 -> lstm1
I0924 02:58:29.694999 10558 net.cpp:141] Setting up lstm2_h_conted_0
I0924 02:58:29.695011 10568 recurrent_layer.cpp:20] Initializing recurrent layer: assuming input batch contains 1 timesteps of 1 independent streams.
I0924 02:58:29.695014 10558 net.cpp:148] Top shape: 1 1 1000 (1000)
I0924 02:58:29.695020 10558 net.cpp:156] Memory required for data: 50020
I0924 02:58:29.695025 10558 layer_factory.hpp:77] Creating layer lstm2_transform_1
I0924 02:58:29.695042 10558 net.cpp:91] Creating Layer lstm2_transform_1
I0924 02:58:29.695047 10558 net.cpp:425] lstm2_transform_1 <- h_conted_0
I0924 02:58:29.695060 10558 net.cpp:399] lstm2_transform_1 -> W_hc_h_0
I0924 02:58:29.694944 10592 layer_factory.hpp:77] Creating layer lstm2_W_xc_x_slice
I0924 02:58:29.696964 10592 net.cpp:91] Creating Layer lstm2_W_xc_x_slice
I0924 02:58:29.696974 10592 net.cpp:425] lstm2_W_xc_x_slice <- W_xc_x
I0924 02:58:29.701699 10592 net.cpp:399] lstm2_W_xc_x_slice -> W_xc_x_1
I0924 02:58:29.701720 10568 net.cpp:49] Initializing net from parameters: 
layer {
  name: "lstm1_"
  type: "Input"
  top: "x"
  top: "cont"
  input_param {
    shape {
      dim: 1
      dim: 1
      dim: 500
    }
    shape {
      dim: 1
      dim: 1
    }
  }
}
layer {
  name: "lstm1_"
  type: "Input"
  top: "c_0"
  top: "h_0"
  input_param {
    shape {
      dim: 1
      dim: 1
      dim: 1000
    }
    shape {
      dim: 1
      dim: 1
      dim: 1000
    }
  }
}
layer {
  name: "lstm1_cont_slice"
  type: "Slice"
  bottom: "cont"
  top: "cont_1"
  slice_param {
    axis: 0
  }
}
layer {
  name: "lstm1_x_transform"
  type: "InnerProduct"
  bottom: "x"
  top: "W_xc_x"
  param {
    name: "W_xc"
  }
  param {
    name: "b_c"
  }
  propagate_down: true
  inner_product_param {
    num_output: 4000
    bias_term: true
    weight_filler {
      type: "uniform"
      min: -0.08
      max: 0.08
    }
    bias_filler {
      type: "constant"
      value: 0
    }
    axis: 2
  }
}
layer {
  name: "lstm1_W_xc_x_slice"
  type: "Slice"
  bottom: "W_xc_x"
  top: "W_xc_x_1"
  slice_param {
    axis: 0
  }
}
layer {
  name: "lstm1_h_conted_0"
  type: "Scale"
  bottom: "h_0"
  bottom: "cont_1"
  top: "h_conted_0"
  scale_param {
    axis: 0
  }
}
layer {
  name: "lstm1_transform_1"
  type: "InnerProduct"
  bottom: "h_conted_0"
  top: "W_hc_h_0"
  param {
    name: "W_hc"
  }
  inner_product_param {
    num_output: 4000
    bias_term: false
    weight_filler {
      type: "uniform"
      min: -0.08
      max: 0.08
    }
    axis: 2
  }
}
layer {
  name: "lstm1_gate_input_1"
  type: "Eltwise"
  bottom: "W_hc_h_0"
  bottom: "W_xc_x_1"
  top: "gate_input_1"
  eltwise_param {
    operation: SUM
  }
}
layer {
  name: "lstm1_unit_1"
  type: "LSTMUnit"
  bottom: "c_0"
  bottom: "gate_input_1"
  bottom: "cont_1"
  top: "c_1"
  top: "h_1"
}
layer {
  name: "lstm1_"
  type: "Split"
  bottom: "c_1"
  top: "c_T"
}
layer {
  name: "lstm1_h_concat"
  type: "Concat"
  bottom: "h_1"
  top: "h"
  concat_param {
    axis: 0
  }
}
layer {
  name: "h_pseudoloss"
  type: "Reduction"
  bottom: "h"
  top: "h_pseudoloss"
  loss_weight: 1
}
I0924 02:58:29.701882 10568 layer_factory.hpp:77] Creating layer lstm1_
I0924 02:58:29.701913 10568 net.cpp:91] Creating Layer lstm1_
I0924 02:58:29.701934 10568 net.cpp:399] lstm1_ -> x
I0924 02:58:29.701963 10568 net.cpp:399] lstm1_ -> cont
I0924 02:58:29.702880 10562 net.cpp:141] Setting up lstm1_unit_1
I0924 02:58:29.702924 10562 net.cpp:148] Top shape: 1 1 1000 (1000)
I0924 02:58:29.702935 10562 net.cpp:148] Top shape: 1 1 1000 (1000)
I0924 02:58:29.702942 10562 net.cpp:156] Memory required for data: 86016
I0924 02:58:29.702955 10562 layer_factory.hpp:77] Creating layer lstm1_
I0924 02:58:29.702973 10562 net.cpp:91] Creating Layer lstm1_
I0924 02:58:29.702983 10562 net.cpp:425] lstm1_ <- c_1
I0924 02:58:29.703006 10562 net.cpp:399] lstm1_ -> c_T
I0924 02:58:29.703070 10562 net.cpp:141] Setting up lstm1_
I0924 02:58:29.703084 10562 net.cpp:148] Top shape: 1 1 1000 (1000)
I0924 02:58:29.703091 10562 net.cpp:156] Memory required for data: 90016
I0924 02:58:29.703099 10562 layer_factory.hpp:77] Creating layer lstm1_h_concat
I0924 02:58:29.703114 10562 net.cpp:91] Creating Layer lstm1_h_concat
I0924 02:58:29.703121 10562 net.cpp:425] lstm1_h_concat <- h_1
I0924 02:58:29.703132 10562 net.cpp:399] lstm1_h_concat -> h
I0924 02:58:29.703188 10562 net.cpp:141] Setting up lstm1_h_concat
I0924 02:58:29.703202 10562 net.cpp:148] Top shape: 1 1 1000 (1000)
I0924 02:58:29.703207 10562 net.cpp:156] Memory required for data: 94016
I0924 02:58:29.703215 10562 layer_factory.hpp:77] Creating layer h_pseudoloss
I0924 02:58:29.703228 10562 net.cpp:91] Creating Layer h_pseudoloss
I0924 02:58:29.703235 10562 net.cpp:425] h_pseudoloss <- h
I0924 02:58:29.703245 10562 net.cpp:399] h_pseudoloss -> h_pseudoloss
I0924 02:58:29.703367 10562 net.cpp:141] Setting up h_pseudoloss
…
I0924 02:58:29.703522 10562 net.cpp:219] lstm1_ does not need backward computation.
I0924 02:58:29.703528 10562 net.cpp:261] This network produces output c_T
I0924 02:58:29.703536 10562 net.cpp:261] This network produces output h_pseudoloss
I0924 02:58:29.703559 10562 net.cpp:274] Network initialization done.
I0924 02:58:29.703630 10562 recurrent_layer.cpp:150] Adding parameter 0: W_xc
I0924 02:58:29.703641 10562 recurrent_layer.cpp:150] Adding parameter 1: b_c
I0924 02:58:29.703649 10562 recurrent_layer.cpp:150] Adding parameter 2: W_hc
I0924 02:58:29.703796 10562 net.cpp:141] Setting up lstm1
I0924 02:58:29.703812 10562 net.cpp:148] Top shape: 1 1 1000 (1000)
I0924 02:58:29.703820 10562 net.cpp:156] Memory required for data: 26408
I0924 02:58:29.703843 10562 layer_factory.hpp:77] Creating layer concat
I0924 02:58:29.703856 10562 net.cpp:91] Creating Layer concat
I0924 02:58:29.703866 10562 net.cpp:425] concat <- lstm1
I0924 02:58:29.703876 10562 net.cpp:425] concat <- embedded_input_sentence
I0924 02:58:29.703886 10562 net.cpp:425] concat <- reshaped_stage_indicator
I0924 02:58:29.703898 10562 net.cpp:399] concat -> lstm1_video_sequence
I0924 02:58:29.703948 10562 net.cpp:141] Setting up concat
I0924 02:58:29.703961 10562 net.cpp:148] Top shape: 1 1 1501 (1501)
I0924 02:58:29.703969 10562 net.cpp:156] Memory required for data: 32412
I0924 02:58:29.703976 10562 layer_factory.hpp:77] Creating layer lstm2
I0924 02:58:29.703995 10562 net.cpp:91] Creating Layer lstm2
I0924 02:58:29.704005 10562 net.cpp:425] lstm2 <- lstm1_video_sequence
I0924 02:58:29.704013 10562 net.cpp:425] lstm2 <- cont_sentence_input_1_split_1
I0924 02:58:29.704025 10562 net.cpp:399] lstm2 -> lstm2
I0924 02:58:29.704042 10562 recurrent_layer.cpp:20] Initializing recurrent layer: assuming input batch contains 1 timesteps of 1 independent streams.
I0924 02:58:29.704443 10562 net.cpp:49] Initializing net from parameters: 
layer {
  name: "lstm2_"
  type: "Input"
  top: "x"
  top: "cont"
  input_param {
    shape {
      dim: 1
      dim: 1
      dim: 1501
    }
    shape {
      dim: 1
      dim: 1
    }
  }
}
layer {
  name: "lstm2_"
  type: "Input"
  top: "c_0"
  top: "h_0"
  input_param {
    shape {
      dim: 1
      dim: 1
      dim: 1000
    }
    shape {
      dim: 1
      dim: 1
      dim: 1000
    }
  }
}
layer {
  name: "lstm2_cont_slice"
  type: "Slice"
  bottom: "cont"
  top: "cont_1"
  slice_param {
    axis: 0
  }
}
layer {
  name: "lstm2_x_transform"
  type: "InnerProduct"
  bottom: "x"
  top: "W_xc_x"
  param {
    name: "W_xc"
  }
  param {
    name: "b_c"
  }
  propagate_down: true
  inner_product_param {
    num_output: 4000
    bias_term: true
    weight_filler {
      type: "uniform"
      min: -0.08
      max: 0.08
    }
    bias_filler {
      type: "constant"
      value: 0
    }
    axis: 2
  }
}
layer {
  name: "lstm2_W_xc_x_slice"
  type: "Slice"
  bottom: "W_xc_x"
  top: "W_xc_x_1"
  slice_param {
    axis: 0
  }
}
layer {
  name: "lstm2_h_conted_0"
  type: "Scale"
  bottom: "h_0"
  bottom: "cont_1"
  top: "h_conted_0"
  scale_param {
    axis: 0
  }
}
layer {
  name: "lstm2_transform_1"
  type: "InnerProduct"
  bottom: "h_conted_0"
  top: "W_hc_h_0"
  param {
    name: "W_hc"
  }
  inner_product_param {
    num_output: 4000
    bias_term: false
    weight_filler {
      type: "uniform"
      min: -0.08
      max: 0.08
    }
    axis: 2
  }
}
layer {
  name: "lstm2_gate_input_1"
  type: "Eltwise"
  bottom: "W_hc_h_0"
  bottom: "W_xc_x_1"
  top: "gate_input_1"
  eltwise_param {
    operation: SUM
  }
}
layer {
  name: "lstm2_unit_1"
  type: "LSTMUnit"
  bottom: "c_0"
  bottom: "gate_input_1"
  bottom: "cont_1"
  top: "c_1"
  top: "h_1"
}
layer {
  name: "lstm2_"
  type: "Split"
  bottom: "c_1"
  top: "c_T"
}
layer {
  name: "lstm2_h_concat"
  type: "Concat"
  bottom: "h_1"
  top: "h"
  concat_param {
    axis: 0
  }
}
layer {
  name: "h_pseudoloss"
  type: "Reduction"
  bottom: "h"
  top: "h_pseudoloss"
  loss_weight: 1
}
I0924 02:58:29.704586 10562 layer_factory.hpp:77] Creating layer lstm2_
I0924 02:58:29.704605 10562 net.cpp:91] Creating Layer lstm2_
I0924 02:58:29.704617 10562 net.cpp:399] lstm2_ -> x
I0924 02:58:29.704634 10562 net.cpp:399] lstm2_ -> cont
I0924 02:58:29.704713 10562 net.cpp:141] Setting up lstm2_
I0924 02:58:29.704728 10562 net.cpp:148] Top shape: 1 1 1501 (1501)
I0924 02:58:29.704738 10562 net.cpp:148] Top shape: 1 1 (1)
I0924 02:58:29.704746 10562 net.cpp:156] Memory required for data: 6008
I0924 02:58:29.704756 10562 layer_factory.hpp:77] Creating layer lstm2_
I0924 02:58:29.704777 10562 net.cpp:91] Creating Layer lstm2_
I0924 02:58:29.704789 10562 net.cpp:399] lstm2_ -> c_0
I0924 02:58:29.704807 10562 net.cpp:399] lstm2_ -> h_0
I0924 02:58:29.704901 10562 net.cpp:141] Setting up lstm2_
I0924 02:58:29.704918 10562 net.cpp:148] Top shape: 1 1 1000 (1000)
I0924 02:58:29.704929 10562 net.cpp:148] Top shape: 1 1 1000 (1000)
I0924 02:58:29.704936 10562 net.cpp:156] Memory required for data: 14008
I0924 02:58:29.704944 10562 layer_factory.hpp:77] Creating layer lstm2_cont_slice
I0924 02:58:29.704958 10562 net.cpp:91] Creating Layer lstm2_cont_slice
I0924 02:58:29.704972 10562 net.cpp:425] lstm2_cont_slice <- cont
I0924 02:58:29.704988 10562 net.cpp:399] lstm2_cont_slice -> cont_1
I0924 02:58:29.705051 10562 net.cpp:141] Setting up lstm2_cont_slice
I0924 02:58:29.705066 10562 net.cpp:148] Top shape: 1 1 (1)
I0924 02:58:29.705075 10562 net.cpp:156] Memory required for data: 14012
I0924 02:58:29.705082 10562 layer_factory.hpp:77] Creating layer cont_1_lstm2_cont_slice_0_split
I0924 02:58:29.705093 10562 net.cpp:91] Creating Layer cont_1_lstm2_cont_slice_0_split
I0924 02:58:29.705101 10562 net.cpp:425] cont_1_lstm2_cont_slice_0_split <- cont_1
I0924 02:58:29.705117 10562 net.cpp:399] cont_1_lstm2_cont_slice_0_split -> cont_1_lstm2_cont_slice_0_split_0
I0924 02:58:29.705132 10562 net.cpp:399] cont_1_lstm2_cont_slice_0_split -> cont_1_lstm2_cont_slice_0_split_1
I0924 02:58:29.705206 10562 net.cpp:141] Setting up cont_1_lstm2_cont_slice_0_split
I0924 02:58:29.705224 10562 net.cpp:148] Top shape: 1 1 (1)
I0924 02:58:29.705235 10562 net.cpp:148] Top shape: 1 1 (1)
I0924 02:58:29.705242 10562 net.cpp:156] Memory required for data: 14020
I0924 02:58:29.705250 10562 layer_factory.hpp:77] Creating layer lstm2_x_transform
I0924 02:58:29.705268 10562 net.cpp:91] Creating Layer lstm2_x_transform
I0924 02:58:29.705277 10562 net.cpp:425] lstm2_x_transform <- x
I0924 02:58:29.705296 10562 net.cpp:399] lstm2_x_transform -> W_xc_x
I0924 02:58:29.705317 10592 net.cpp:141] Setting up lstm2_W_xc_x_slice
I0924 02:58:29.705337 10592 net.cpp:148] Top shape: 1 1 4000 (4000)
I0924 02:58:29.705344 10592 net.cpp:156] Memory required for data: 46020
I0924 02:58:29.705353 10592 layer_factory.hpp:77] Creating layer lstm2_h_conted_0
I0924 02:58:29.705369 10592 net.cpp:91] Creating Layer lstm2_h_conted_0
I0924 02:58:29.705379 10592 net.cpp:425] lstm2_h_conted_0 <- h_0
I0924 02:58:29.705390 10592 net.cpp:425] lstm2_h_conted_0 <- cont_1_lstm2_cont_slice_0_split_0
I0924 02:58:29.705404 10592 net.cpp:399] lstm2_h_conted_0 -> h_conted_0
I0924 02:58:29.705482 10560 net.cpp:141] Setting up lstm1_h_conted_0
I0924 02:58:29.705502 10560 net.cpp:148] Top shape: 1 1 1000 (1000)
I0924 02:58:29.705509 10560 net.cpp:156] Memory required for data: 46016
I0924 02:58:29.705518 10560 layer_factory.hpp:77] Creating layer lstm1_transform_1
I0924 02:58:29.705531 10560 net.cpp:91] Creating Layer lstm1_transform_1
I0924 02:58:29.705540 10560 net.cpp:425] lstm1_transform_1 <- h_conted_0
I0924 02:58:29.705554 10560 net.cpp:399] lstm1_transform_1 -> W_hc_h_0
I0924 02:58:29.705590 10568 net.cpp:141] Setting up lstm1_
I0924 02:58:29.705617 10568 net.cpp:148] Top shape: 1 1 500 (500)
I0924 02:58:29.705629 10568 net.cpp:148] Top shape: 1 1 (1)
I0924 02:58:29.705636 10568 net.cpp:156] Memory required for data: 2004
I0924 02:58:29.705646 10568 layer_factory.hpp:77] Creating layer lstm1_
I0924 02:58:29.705665 10568 net.cpp:91] Creating Layer lstm1_
I0924 02:58:29.705678 10568 net.cpp:399] lstm1_ -> c_0
I0924 02:58:29.705696 10568 net.cpp:399] lstm1_ -> h_0
I0924 02:58:29.715844 10568 net.cpp:141] Setting up lstm1_
I0924 02:58:29.715891 10568 net.cpp:148] Top shape: 1 1 1000 (1000)
I0924 02:58:29.715903 10568 net.cpp:148] Top shape: 1 1 1000 (1000)
I0924 02:58:29.715910 10568 net.cpp:156] Memory required for data: 10004
I0924 02:58:29.715922 10568 layer_factory.hpp:77] Creating layer lstm1_cont_slice
I0924 02:58:29.715945 10568 net.cpp:91] Creating Layer lstm1_cont_slice
I0924 02:58:29.715955 10568 net.cpp:425] lstm1_cont_slice <- cont
I0924 02:58:29.728615 10568 net.cpp:399] lstm1_cont_slice -> cont_1
I0924 02:58:29.730383 10586 net.cpp:141] Setting up lstm2_x_transform
I0924 02:58:29.730407 10586 net.cpp:148] Top shape: 1 1 4000 (4000)
I0924 02:58:29.730413 10586 net.cpp:156] Memory required for data: 30020
I0924 02:58:29.730429 10586 layer_factory.hpp:77] Creating layer lstm2_W_xc_x_slice
I0924 02:58:29.730433 10568 net.cpp:141] Setting up lstm1_cont_slice
I0924 02:58:29.730449 10586 net.cpp:91] Creating Layer lstm2_W_xc_x_slice
I0924 02:58:29.730450 10568 net.cpp:148] Top shape: 1 1 (1)
I0924 02:58:29.730456 10586 net.cpp:425] lstm2_W_xc_x_slice <- W_xc_x
I0924 02:58:29.730459 10568 net.cpp:156] Memory required for data: 10008
I0924 02:58:29.730466 10586 net.cpp:399] lstm2_W_xc_x_slice -> W_xc_x_1
I0924 02:58:29.730469 10568 layer_factory.hpp:77] Creating layer cont_1_lstm1_cont_slice_0_split
I0924 02:58:29.730482 10568 net.cpp:91] Creating Layer cont_1_lstm1_cont_slice_0_split
I0924 02:58:29.730490 10568 net.cpp:425] cont_1_lstm1_cont_slice_0_split <- cont_1
I0924 02:58:29.730501 10568 net.cpp:399] cont_1_lstm1_cont_slice_0_split -> cont_1_lstm1_cont_slice_0_split_0
I0924 02:58:29.730515 10568 net.cpp:399] cont_1_lstm1_cont_slice_0_split -> cont_1_lstm1_cont_slice_0_split_1
I0924 02:58:29.730559 10586 net.cpp:141] Setting up lstm2_W_xc_x_slice
I0924 02:58:29.730571 10586 net.cpp:148] Top shape: 1 1 4000 (4000)
I0924 02:58:29.730574 10586 net.cpp:156] Memory required for data: 46020
I0924 02:58:29.730579 10586 layer_factory.hpp:77] Creating layer lstm2_h_conted_0
I0924 02:58:29.730608 10586 net.cpp:91] Creating Layer lstm2_h_conted_0
I0924 02:58:29.730621 10586 net.cpp:425] lstm2_h_conted_0 <- h_0
I0924 02:58:29.730631 10586 net.cpp:425] lstm2_h_conted_0 <- cont_1_lstm2_cont_slice_0_split_0
I0924 02:58:29.730643 10586 net.cpp:399] lstm2_h_conted_0 -> h_conted_0
I0924 02:58:29.730656 10592 net.cpp:141] Setting up lstm2_h_conted_0
I0924 02:58:29.730701 10592 net.cpp:148] Top shape: 1 1 1000 (1000)
I0924 02:58:29.730710 10592 net.cpp:156] Memory required for data: 50020
I0924 02:58:29.730723 10592 layer_factory.hpp:77] Creating layer lstm2_transform_1
I0924 02:58:29.730739 10568 net.cpp:141] Setting up cont_1_lstm1_cont_slice_0_split
I0924 02:58:29.730752 10592 net.cpp:91] Creating Layer lstm2_transform_1
I0924 02:58:29.730756 10568 net.cpp:148] Top shape: 1 1 (1)
I0924 02:58:29.730768 10568 net.cpp:148] Top shape: 1 1 (1)
I0924 02:58:29.730767 10592 net.cpp:425] lstm2_transform_1 <- h_conted_0
I0924 02:58:29.730787 10568 net.cpp:156] Memory required for data: 10016
I0924 02:58:29.730816 10568 layer_factory.hpp:77] Creating layer lstm1_x_transform
I0924 02:58:29.730824 10592 net.cpp:399] lstm2_transform_1 -> W_hc_h_0
I0924 02:58:29.730847 10568 net.cpp:91] Creating Layer lstm1_x_transform
I0924 02:58:29.730850 10586 net.cpp:141] Setting up lstm2_h_conted_0
I0924 02:58:29.730857 10568 net.cpp:425] lstm1_x_transform <- x
I0924 02:58:29.730861 10586 net.cpp:148] Top shape: 1 1 1000 (1000)
I0924 02:58:29.730866 10586 net.cpp:156] Memory required for data: 50020
I0924 02:58:29.730871 10586 layer_factory.hpp:77] Creating layer lstm2_transform_1
I0924 02:58:29.730880 10568 net.cpp:399] lstm1_x_transform -> W_xc_x
I0924 02:58:29.730885 10586 net.cpp:91] Creating Layer lstm2_transform_1
I0924 02:58:29.730891 10586 net.cpp:425] lstm2_transform_1 <- h_conted_0
I0924 02:58:29.730900 10586 net.cpp:399] lstm2_transform_1 -> W_hc_h_0
I0924 02:58:29.769428 10558 net.cpp:141] Setting up lstm2_transform_1
I0924 02:58:29.769491 10558 net.cpp:148] Top shape: 1 1 4000 (4000)
I0924 02:58:29.769489 10560 net.cpp:141] Setting up lstm1_transform_1
I0924 02:58:29.769513 10558 net.cpp:156] Memory required for data: 66020
I0924 02:58:29.769538 10560 net.cpp:148] Top shape: 1 1 4000 (4000)
I0924 02:58:29.769544 10560 net.cpp:156] Memory required for data: 62016
I0924 02:58:29.769569 10560 layer_factory.hpp:77] Creating layer lstm1_gate_input_1
I0924 02:58:29.769570 10558 layer_factory.hpp:77] Creating layer lstm2_gate_input_1
I0924 02:58:29.769600 10560 net.cpp:91] Creating Layer lstm1_gate_input_1
I0924 02:58:29.769603 10558 net.cpp:91] Creating Layer lstm2_gate_input_1
I0924 02:58:29.769609 10560 net.cpp:425] lstm1_gate_input_1 <- W_hc_h_0
I0924 02:58:29.769613 10558 net.cpp:425] lstm2_gate_input_1 <- W_hc_h_0
I0924 02:58:29.769620 10560 net.cpp:425] lstm1_gate_input_1 <- W_xc_x_1
I0924 02:58:29.769625 10558 net.cpp:425] lstm2_gate_input_1 <- W_xc_x_1
I0924 02:58:29.769629 10560 net.cpp:399] lstm1_gate_input_1 -> gate_input_1
I0924 02:58:29.769646 10558 net.cpp:399] lstm2_gate_input_1 -> gate_input_1
I0924 02:58:29.773530 10560 net.cpp:141] Setting up lstm1_gate_input_1
I0924 02:58:29.773582 10560 net.cpp:148] Top shape: 1 1 4000 (4000)
I0924 02:58:29.773591 10560 net.cpp:156] Memory required for data: 78016
I0924 02:58:29.773602 10560 layer_factory.hpp:77] Creating layer lstm1_unit_1
I0924 02:58:29.773622 10560 net.cpp:91] Creating Layer lstm1_unit_1
I0924 02:58:29.773632 10560 net.cpp:425] lstm1_unit_1 <- c_0
I0924 02:58:29.773645 10560 net.cpp:425] lstm1_unit_1 <- gate_input_1
I0924 02:58:29.773653 10560 net.cpp:425] lstm1_unit_1 <- cont_1_lstm1_cont_slice_0_split_1
I0924 02:58:29.773664 10560 net.cpp:399] lstm1_unit_1 -> c_1
I0924 02:58:29.773682 10560 net.cpp:399] lstm1_unit_1 -> h_1
I0924 02:58:29.773811 10560 net.cpp:141] Setting up lstm1_unit_1
I0924 02:58:29.773824 10560 net.cpp:148] Top shape: 1 1 1000 (1000)
I0924 02:58:29.773833 10560 net.cpp:148] Top shape: 1 1 1000 (1000)
I0924 02:58:29.773840 10560 net.cpp:156] Memory required for data: 86016
I0924 02:58:29.773847 10560 layer_factory.hpp:77] Creating layer lstm1_
I0924 02:58:29.773860 10560 net.cpp:91] Creating Layer lstm1_
I0924 02:58:29.773869 10560 net.cpp:425] lstm1_ <- c_1
I0924 02:58:29.773879 10560 net.cpp:399] lstm1_ -> c_T
I0924 02:58:29.773918 10568 net.cpp:141] Setting up lstm1_x_transform
I0924 02:58:29.773941 10560 net.cpp:141] Setting up lstm1_
I0924 02:58:29.773990 10568 net.cpp:148] Top shape: 1 1 4000 (4000)
I0924 02:58:29.774006 10560 net.cpp:148] Top shape: 1 1 1000 (1000)
I0924 02:58:29.774011 10568 net.cpp:156] Memory required for data: 26016
I0924 02:58:29.774015 10560 net.cpp:156] Memory required for data: 90016
I0924 02:58:29.774024 10560 layer_factory.hpp:77] Creating layer lstm1_h_concat
I0924 02:58:29.774037 10560 net.cpp:91] Creating Layer lstm1_h_concat
I0924 02:58:29.774037 10568 layer_factory.hpp:77] Creating layer lstm1_W_xc_x_slice
I0924 02:58:29.774045 10560 net.cpp:425] lstm1_h_concat <- h_1
I0924 02:58:29.774057 10568 net.cpp:91] Creating Layer lstm1_W_xc_x_slice
I0924 02:58:29.774065 10560 net.cpp:399] lstm1_h_concat -> h
I0924 02:58:29.774068 10568 net.cpp:425] lstm1_W_xc_x_slice <- W_xc_x
I0924 02:58:29.774086 10568 net.cpp:399] lstm1_W_xc_x_slice -> W_xc_x_1
I0924 02:58:29.774267 10558 net.cpp:141] Setting up lstm2_gate_input_1
I0924 02:58:29.774286 10558 net.cpp:148] Top shape: 1 1 4000 (4000)
I0924 02:58:29.774292 10558 net.cpp:156] Memory required for data: 82020
I0924 02:58:29.774302 10558 layer_factory.hpp:77] Creating layer lstm2_unit_1
I0924 02:58:29.774315 10558 net.cpp:91] Creating Layer lstm2_unit_1
I0924 02:58:29.774315 10560 net.cpp:141] Setting up lstm1_h_concat
I0924 02:58:29.774324 10558 net.cpp:425] lstm2_unit_1 <- c_0
I0924 02:58:29.774340 10560 net.cpp:148] Top shape: 1 1 1000 (1000)
I0924 02:58:29.774346 10560 net.cpp:156] Memory required for data: 94016
I0924 02:58:29.774344 10558 net.cpp:425] lstm2_unit_1 <- gate_input_1
I0924 02:58:29.774355 10560 layer_factory.hpp:77] Creating layer h_pseudoloss
I0924 02:58:29.774363 10558 net.cpp:425] lstm2_unit_1 <- cont_1_lstm2_cont_slice_0_split_1
I0924 02:58:29.774368 10560 net.cpp:91] Creating Layer h_pseudoloss
I0924 02:58:29.774365 10568 net.cpp:141] Setting up lstm1_W_xc_x_slice
I0924 02:58:29.774371 10558 net.cpp:399] lstm2_unit_1 -> c_1
I0924 02:58:29.774389 10568 net.cpp:148] Top shape: 1 1 4000 (4000)
I0924 02:58:29.774374 10560 net.cpp:425] h_pseudoloss <- h
I0924 02:58:29.774395 10568 net.cpp:156] Memory required for data: 42016
I0924 02:58:29.774404 10558 net.cpp:399] lstm2_unit_1 -> h_1
I0924 02:58:29.774405 10568 layer_factory.hpp:77] Creating layer lstm1_h_conted_0
I0924 02:58:29.774405 10560 net.cpp:399] h_pseudoloss -> h_pseudoloss
I0924 02:58:29.774425 10568 net.cpp:91] Creating Layer lstm1_h_conted_0
I0924 02:58:29.774432 10568 net.cpp:425] lstm1_h_conted_0 <- h_0
I0924 02:58:29.774440 10568 net.cpp:425] lstm1_h_conted_0 <- cont_1_lstm1_cont_slice_0_split_0
I0924 02:58:29.774456 10568 net.cpp:399] lstm1_h_conted_0 -> h_conted_0
I0924 02:58:29.774735 10568 net.cpp:141] Setting up lstm1_h_conted_0
I0924 02:58:29.774749 10568 net.cpp:148] Top shape: 1 1 1000 (1000)
I0924 02:58:29.774752 10568 net.cpp:156] Memory required for data: 46016
I0924 02:58:29.774757 10568 layer_factory.hpp:77] Creating layer lstm1_transform_1
I0924 02:58:29.774773 10568 net.cpp:91] Creating Layer lstm1_transform_1
I0924 02:58:29.774778 10568 net.cpp:425] lstm1_transform_1 <- h_conted_0
I0924 02:58:29.774787 10568 net.cpp:399] lstm1_transform_1 -> W_hc_h_0
I0924 02:58:29.774847 10560 net.cpp:141] Setting up h_pseudoloss
…
I0924 02:58:29.782711 10558 net.cpp:219] lstm2_ does not need backward computation.
I0924 02:58:29.782713 10558 net.cpp:261] This network produces output c_T
I0924 02:58:29.782718 10558 net.cpp:261] This network produces output h_pseudoloss
I0924 02:58:29.782737 10558 net.cpp:274] Network initialization done.
I0924 02:58:29.782785 10558 recurrent_layer.cpp:150] Adding parameter 0: W_xc
I0924 02:58:29.782793 10558 recurrent_layer.cpp:150] Adding parameter 1: b_c
I0924 02:58:29.782796 10558 recurrent_layer.cpp:150] Adding parameter 2: W_hc
I0924 02:58:29.782909 10558 net.cpp:141] Setting up lstm2
I0924 02:58:29.782920 10558 net.cpp:148] Top shape: 1 1 1000 (1000)
I0924 02:58:29.782924 10558 net.cpp:156] Memory required for data: 36412
I0924 02:58:29.782940 10558 layer_factory.hpp:77] Creating layer predict
I0924 02:58:29.782955 10558 net.cpp:91] Creating Layer predict
I0924 02:58:29.782961 10558 net.cpp:425] predict <- lstm2
I0924 02:58:29.782968 10558 net.cpp:399] predict -> predict
I0924 02:58:29.795418 10562 net.cpp:141] Setting up lstm2_x_transform
I0924 02:58:29.795477 10562 net.cpp:148] Top shape: 1 1 4000 (4000)
I0924 02:58:29.795490 10562 net.cpp:156] Memory required for data: 30020
I0924 02:58:29.795523 10562 layer_factory.hpp:77] Creating layer lstm2_W_xc_x_slice
I0924 02:58:29.795549 10562 net.cpp:91] Creating Layer lstm2_W_xc_x_slice
I0924 02:58:29.795563 10562 net.cpp:425] lstm2_W_xc_x_slice <- W_xc_x
I0924 02:58:29.795581 10562 net.cpp:399] lstm2_W_xc_x_slice -> W_xc_x_1
I0924 02:58:29.795665 10562 net.cpp:141] Setting up lstm2_W_xc_x_slice
I0924 02:58:29.795683 10562 net.cpp:148] Top shape: 1 1 4000 (4000)
I0924 02:58:29.795693 10562 net.cpp:156] Memory required for data: 46020
I0924 02:58:29.795702 10562 layer_factory.hpp:77] Creating layer lstm2_h_conted_0
I0924 02:58:29.795719 10562 net.cpp:91] Creating Layer lstm2_h_conted_0
I0924 02:58:29.795729 10562 net.cpp:425] lstm2_h_conted_0 <- h_0
I0924 02:58:29.795740 10562 net.cpp:425] lstm2_h_conted_0 <- cont_1_lstm2_cont_slice_0_split_0
I0924 02:58:29.795753 10562 net.cpp:399] lstm2_h_conted_0 -> h_conted_0
I0924 02:58:29.795922 10562 net.cpp:141] Setting up lstm2_h_conted_0
I0924 02:58:29.795941 10562 net.cpp:148] Top shape: 1 1 1000 (1000)
I0924 02:58:29.795950 10562 net.cpp:156] Memory required for data: 50020
I0924 02:58:29.795960 10562 layer_factory.hpp:77] Creating layer lstm2_transform_1
I0924 02:58:29.795981 10562 net.cpp:91] Creating Layer lstm2_transform_1
I0924 02:58:29.795991 10562 net.cpp:425] lstm2_transform_1 <- h_conted_0
I0924 02:58:29.796012 10562 net.cpp:399] lstm2_transform_1 -> W_hc_h_0
I0924 02:58:29.891667 10560 net.cpp:141] Setting up lstm1
I0924 02:58:29.891721 10560 net.cpp:148] Top shape: 1 1 1000 (1000)
I0924 02:58:29.891728 10560 net.cpp:156] Memory required for data: 26408
I0924 02:58:29.891752 10560 layer_factory.hpp:77] Creating layer concat
I0924 02:58:29.891772 10560 net.cpp:91] Creating Layer concat
I0924 02:58:29.891779 10560 net.cpp:425] concat <- lstm1
I0924 02:58:29.891788 10560 net.cpp:425] concat <- embedded_input_sentence
I0924 02:58:29.891794 10560 net.cpp:425] concat <- reshaped_stage_indicator
I0924 02:58:29.891803 10560 net.cpp:399] concat -> lstm1_video_sequence
I0924 02:58:29.891808 10586 net.cpp:141] Setting up lstm2_transform_1
I0924 02:58:29.891849 10586 net.cpp:148] Top shape: 1 1 4000 (4000)
I0924 02:58:29.891855 10586 net.cpp:156] Memory required for data: 66020
I0924 02:58:29.891875 10586 layer_factory.hpp:77] Creating layer lstm2_gate_input_1
I0924 02:58:29.891877 10592 net.cpp:141] Setting up lstm2_transform_1
I0924 02:58:29.891897 10586 net.cpp:91] Creating Layer lstm2_gate_input_1
I0924 02:58:29.891901 10592 net.cpp:148] Top shape: 1 1 4000 (4000)
I0924 02:58:29.891906 10586 net.cpp:425] lstm2_gate_input_1 <- W_hc_h_0
I0924 02:58:29.891911 10592 net.cpp:156] Memory required for data: 66020
I0924 02:58:29.891913 10586 net.cpp:425] lstm2_gate_input_1 <- W_xc_x_1
I0924 02:58:29.891923 10586 net.cpp:399] lstm2_gate_input_1 -> gate_input_1
I0924 02:58:29.891930 10592 layer_factory.hpp:77] Creating layer lstm2_gate_input_1
I0924 02:58:29.891944 10568 net.cpp:141] Setting up lstm1_transform_1
I0924 02:58:29.891957 10592 net.cpp:91] Creating Layer lstm2_gate_input_1
I0924 02:58:29.891963 10568 net.cpp:148] Top shape: 1 1 4000 (4000)
I0924 02:58:29.891969 10568 net.cpp:156] Memory required for data: 62016
I0924 02:58:29.891968 10592 net.cpp:425] lstm2_gate_input_1 <- W_hc_h_0
I0924 02:58:29.891983 10568 layer_factory.hpp:77] Creating layer lstm1_gate_input_1
I0924 02:58:29.891981 10592 net.cpp:425] lstm2_gate_input_1 <- W_xc_x_1
I0924 02:58:29.892011 10592 net.cpp:399] lstm2_gate_input_1 -> gate_input_1
I0924 02:58:29.892020 10568 net.cpp:91] Creating Layer lstm1_gate_input_1
I0924 02:58:29.892029 10568 net.cpp:425] lstm1_gate_input_1 <- W_hc_h_0
I0924 02:58:29.892036 10568 net.cpp:425] lstm1_gate_input_1 <- W_xc_x_1
I0924 02:58:29.892037 10562 net.cpp:141] Setting up lstm2_transform_1
I0924 02:58:29.892047 10568 net.cpp:399] lstm1_gate_input_1 -> gate_input_1
I0924 02:58:29.892065 10562 net.cpp:148] Top shape: 1 1 4000 (4000)
I0924 02:58:29.892066 10560 net.cpp:141] Setting up concat
I0924 02:58:29.892081 10562 net.cpp:156] Memory required for data: 66020
I0924 02:58:29.892087 10560 net.cpp:148] Top shape: 1 1 1501 (1501)
I0924 02:58:29.892092 10560 net.cpp:156] Memory required for data: 32412
I0924 02:58:29.892097 10560 layer_factory.hpp:77] Creating layer lstm2
I0924 02:58:29.892096 10562 layer_factory.hpp:77] Creating layer lstm2_gate_input_1
I0924 02:58:29.892113 10560 net.cpp:91] Creating Layer lstm2
I0924 02:58:29.892114 10562 net.cpp:91] Creating Layer lstm2_gate_input_1
I0924 02:58:29.892115 10586 net.cpp:141] Setting up lstm2_gate_input_1
I0924 02:58:29.892125 10562 net.cpp:425] lstm2_gate_input_1 <- W_hc_h_0
I0924 02:58:29.892119 10560 net.cpp:425] lstm2 <- lstm1_video_sequence
I0924 02:58:29.892134 10586 net.cpp:148] Top shape: 1 1 4000 (4000)
I0924 02:58:29.892137 10562 net.cpp:425] lstm2_gate_input_1 <- W_xc_x_1
I0924 02:58:29.892139 10560 net.cpp:425] lstm2 <- cont_sentence_input_1_split_1
I0924 02:58:29.892141 10586 net.cpp:156] Memory required for data: 82020
I0924 02:58:29.892148 10586 layer_factory.hpp:77] Creating layer lstm2_unit_1
I0924 02:58:29.892149 10560 net.cpp:399] lstm2 -> lstm2
I0924 02:58:29.892156 10562 net.cpp:399] lstm2_gate_input_1 -> gate_input_1
I0924 02:58:29.892163 10560 recurrent_layer.cpp:20] Initializing recurrent layer: assuming input batch contains 1 timesteps of 1 independent streams.
I0924 02:58:29.892160 10586 net.cpp:91] Creating Layer lstm2_unit_1
I0924 02:58:29.892177 10586 net.cpp:425] lstm2_unit_1 <- c_0
I0924 02:58:29.892184 10586 net.cpp:425] lstm2_unit_1 <- gate_input_1
I0924 02:58:29.892190 10586 net.cpp:425] lstm2_unit_1 <- cont_1_lstm2_cont_slice_0_split_1
I0924 02:58:29.892189 10592 net.cpp:141] Setting up lstm2_gate_input_1
I0924 02:58:29.892199 10586 net.cpp:399] lstm2_unit_1 -> c_1
I0924 02:58:29.892206 10592 net.cpp:148] Top shape: 1 1 4000 (4000)
I0924 02:58:29.892210 10586 net.cpp:399] lstm2_unit_1 -> h_1
I0924 02:58:29.892220 10592 net.cpp:156] Memory required for data: 82020
I0924 02:58:29.892230 10592 layer_factory.hpp:77] Creating layer lstm2_unit_1
I0924 02:58:29.892230 10562 net.cpp:141] Setting up lstm2_gate_input_1
I0924 02:58:29.892244 10592 net.cpp:91] Creating Layer lstm2_unit_1
I0924 02:58:29.892251 10562 net.cpp:148] Top shape: 1 1 4000 (4000)
I0924 02:58:29.892253 10592 net.cpp:425] lstm2_unit_1 <- c_0
I0924 02:58:29.892258 10562 net.cpp:156] Memory required for data: 82020
I0924 02:58:29.892264 10592 net.cpp:425] lstm2_unit_1 <- gate_input_1
I0924 02:58:29.892266 10562 layer_factory.hpp:77] Creating layer lstm2_unit_1
I0924 02:58:29.892274 10592 net.cpp:425] lstm2_unit_1 <- cont_1_lstm2_cont_slice_0_split_1
I0924 02:58:29.892279 10562 net.cpp:91] Creating Layer lstm2_unit_1
I0924 02:58:29.892287 10562 net.cpp:425] lstm2_unit_1 <- c_0
I0924 02:58:29.892289 10592 net.cpp:399] lstm2_unit_1 -> c_1
I0924 02:58:29.892297 10562 net.cpp:425] lstm2_unit_1 <- gate_input_1
I0924 02:58:29.892305 10562 net.cpp:425] lstm2_unit_1 <- cont_1_lstm2_cont_slice_0_split_1
I0924 02:58:29.892305 10592 net.cpp:399] lstm2_unit_1 -> h_1
I0924 02:58:29.892315 10568 net.cpp:141] Setting up lstm1_gate_input_1
I0924 02:58:29.892334 10568 net.cpp:148] Top shape: 1 1 4000 (4000)
I0924 02:58:29.892343 10568 net.cpp:156] Memory required for data: 78016
I0924 02:58:29.892316 10562 net.cpp:399] lstm2_unit_1 -> c_1
I0924 02:58:29.892349 10568 layer_factory.hpp:77] Creating layer lstm1_unit_1
I0924 02:58:29.892369 10562 net.cpp:399] lstm2_unit_1 -> h_1
I0924 02:58:29.892372 10568 net.cpp:91] Creating Layer lstm1_unit_1
I0924 02:58:29.892387 10568 net.cpp:425] lstm1_unit_1 <- c_0
I0924 02:58:29.892386 10586 net.cpp:141] Setting up lstm2_unit_1
I0924 02:58:29.892395 10568 net.cpp:425] lstm1_unit_1 <- gate_input_1
I0924 02:58:29.892400 10568 net.cpp:425] lstm1_unit_1 <- cont_1_lstm1_cont_slice_0_split_1
I0924 02:58:29.892402 10586 net.cpp:148] Top shape: 1 1 1000 (1000)
I0924 02:58:29.892406 10568 net.cpp:399] lstm1_unit_1 -> c_1
I0924 02:58:29.892410 10586 net.cpp:148] Top shape: 1 1 1000 (1000)
I0924 02:58:29.892413 10586 net.cpp:156] Memory required for data: 90020
I0924 02:58:29.892416 10568 net.cpp:399] lstm1_unit_1 -> h_1
I0924 02:58:29.892418 10586 layer_factory.hpp:77] Creating layer lstm2_
I0924 02:58:29.892431 10586 net.cpp:91] Creating Layer lstm2_
I0924 02:58:29.892436 10586 net.cpp:425] lstm2_ <- c_1
I0924 02:58:29.892444 10586 net.cpp:399] lstm2_ -> c_T
I0924 02:58:29.892458 10560 net.cpp:49] Initializing net from parameters: 
layer {
  name: "lstm2_"
  type: "Input"
  top: "x"
  top: "cont"
  input_param {
    shape {
      dim: 1
      dim: 1
      dim: 1501
    }
    shape {
      dim: 1
      dim: 1
    }
  }
}
layer {
  name: "lstm2_"
  type: "Input"
  top: "c_0"
  top: "h_0"
  input_param {
    shape {
      dim: 1
      dim: 1
      dim: 1000
    }
    shape {
      dim: 1
      dim: 1
      dim: 1000
    }
  }
}
layer {
  name: "lstm2_cont_slice"
  type: "Slice"
  bottom: "cont"
  top: "cont_1"
  slice_param {
    axis: 0
  }
}
layer {
  name: "lstm2_x_transform"
  type: "InnerProduct"
  bottom: "x"
  top: "W_xc_x"
  param {
    name: "W_xc"
  }
  param {
    name: "b_c"
  }
  propagate_down: true
  inner_product_param {
    num_output: 4000
    bias_term: true
    weight_filler {
      type: "uniform"
      min: -0.08
      max: 0.08
    }
    bias_filler {
      type: "constant"
      value: 0
    }
    axis: 2
  }
}
layer {
  name: "lstm2_W_xc_x_slice"
  type: "Slice"
  bottom: "W_xc_x"
  top: "W_xc_x_1"
  slice_param {
    axis: 0
  }
}
layer {
  name: "lstm2_h_conted_0"
  type: "Scale"
  bottom: "h_0"
  bottom: "cont_1"
  top: "h_conted_0"
  scale_param {
    axis: 0
  }
}
layer {
  name: "lstm2_transform_1"
  type: "InnerProduct"
  bottom: "h_conted_0"
  top: "W_hc_h_0"
  param {
    name: "W_hc"
  }
  inner_product_param {
    num_output: 4000
    bias_term: false
    weight_filler {
      type: "uniform"
      min: -0.08
      max: 0.08
    }
    axis: 2
  }
}
layer {
  name: "lstm2_gate_input_1"
  type: "Eltwise"
  bottom: "W_hc_h_0"
  bottom: "W_xc_x_1"
  top: "gate_input_1"
  eltwise_param {
    operation: SUM
  }
}
layer {
  name: "lstm2_unit_1"
  type: "LSTMUnit"
  bottom: "c_0"
  bottom: "gate_input_1"
  bottom: "cont_1"
  top: "c_1"
  top: "h_1"
}
layer {
  name: "lstm2_"
  type: "Split"
  bottom: "c_1"
  top: "c_T"
}
layer {
  name: "lstm2_h_concat"
  type: "Concat"
  bottom: "h_1"
  top: "h"
  concat_param {
    axis: 0
  }
}
layer {
  name: "h_pseudoloss"
  type: "Reduction"
  bottom: "h"
  top: "h_pseudoloss"
  loss_weight: 1
}
I0924 02:58:29.892518 10592 net.cpp:141] Setting up lstm2_unit_1
I0924 02:58:29.892535 10592 net.cpp:148] Top shape: 1 1 1000 (1000)
I0924 02:58:29.892545 10592 net.cpp:148] Top shape: 1 1 1000 (1000)
I0924 02:58:29.892552 10592 net.cpp:156] Memory required for data: 90020
I0924 02:58:29.892554 10560 layer_factory.hpp:77] Creating layer lstm2_
I0924 02:58:29.892566 10592 layer_factory.hpp:77] Creating layer lstm2_
I0924 02:58:29.892575 10560 net.cpp:91] Creating Layer lstm2_
I0924 02:58:29.892581 10560 net.cpp:399] lstm2_ -> x
I0924 02:58:29.892580 10592 net.cpp:91] Creating Layer lstm2_
I0924 02:58:29.892599 10560 net.cpp:399] lstm2_ -> cont
I0924 02:58:29.892598 10592 net.cpp:425] lstm2_ <- c_1
I0924 02:58:29.892619 10592 net.cpp:399] lstm2_ -> c_T
I0924 02:58:29.892700 10586 net.cpp:141] Setting up lstm2_
I0924 02:58:29.892717 10586 net.cpp:148] Top shape: 1 1 1000 (1000)
I0924 02:58:29.892725 10586 net.cpp:156] Memory required for data: 94020
I0924 02:58:29.892734 10586 layer_factory.hpp:77] Creating layer lstm2_h_concat
I0924 02:58:29.892747 10586 net.cpp:91] Creating Layer lstm2_h_concat
I0924 02:58:29.892756 10586 net.cpp:425] lstm2_h_concat <- h_1
I0924 02:58:29.892772 10586 net.cpp:399] lstm2_h_concat -> h
I0924 02:58:29.893209 10560 net.cpp:141] Setting up lstm2_
I0924 02:58:29.893221 10560 net.cpp:148] Top shape: 1 1 1501 (1501)
I0924 02:58:29.893229 10560 net.cpp:148] Top shape: 1 1 (1)
I0924 02:58:29.893232 10560 net.cpp:156] Memory required for data: 6008
I0924 02:58:29.893237 10560 layer_factory.hpp:77] Creating layer lstm2_
I0924 02:58:29.893246 10560 net.cpp:91] Creating Layer lstm2_
I0924 02:58:29.893259 10560 net.cpp:399] lstm2_ -> c_0
I0924 02:58:29.893270 10560 net.cpp:399] lstm2_ -> h_0
I0924 02:58:29.893267 10592 net.cpp:141] Setting up lstm2_
I0924 02:58:29.893285 10592 net.cpp:148] Top shape: 1 1 1000 (1000)
I0924 02:58:29.893293 10592 net.cpp:156] Memory required for data: 94020
I0924 02:58:29.893301 10592 layer_factory.hpp:77] Creating layer lstm2_h_concat
I0924 02:58:29.893316 10592 net.cpp:91] Creating Layer lstm2_h_concat
I0924 02:58:29.893326 10592 net.cpp:425] lstm2_h_concat <- h_1
I0924 02:58:29.893328 10560 net.cpp:141] Setting up lstm2_
I0924 02:58:29.893338 10560 net.cpp:148] Top shape: 1 1 1000 (1000)
I0924 02:58:29.893338 10592 net.cpp:399] lstm2_h_concat -> h
I0924 02:58:29.893347 10560 net.cpp:148] Top shape: 1 1 1000 (1000)
I0924 02:58:29.893352 10560 net.cpp:156] Memory required for data: 14008
I0924 02:58:29.893355 10560 layer_factory.hpp:77] Creating layer lstm2_cont_slice
I0924 02:58:29.893365 10560 net.cpp:91] Creating Layer lstm2_cont_slice
I0924 02:58:29.893370 10560 net.cpp:425] lstm2_cont_slice <- cont
I0924 02:58:29.893378 10560 net.cpp:399] lstm2_cont_slice -> cont_1
I0924 02:58:29.893451 10568 net.cpp:141] Setting up lstm1_unit_1
I0924 02:58:29.893470 10568 net.cpp:148] Top shape: 1 1 1000 (1000)
I0924 02:58:29.893476 10568 net.cpp:148] Top shape: 1 1 1000 (1000)
I0924 02:58:29.893481 10568 net.cpp:156] Memory required for data: 86016
I0924 02:58:29.893479 10586 net.cpp:141] Setting up lstm2_h_concat
I0924 02:58:29.893486 10568 layer_factory.hpp:77] Creating layer lstm1_
I0924 02:58:29.893502 10586 net.cpp:148] Top shape: 1 1 1000 (1000)
I0924 02:58:29.893504 10568 net.cpp:91] Creating Layer lstm1_
I0924 02:58:29.893515 10586 net.cpp:156] Memory required for data: 98020
I0924 02:58:29.893520 10568 net.cpp:425] lstm1_ <- c_1
I0924 02:58:29.893524 10586 layer_factory.hpp:77] Creating layer h_pseudoloss
I0924 02:58:29.893530 10568 net.cpp:399] lstm1_ -> c_T
I0924 02:58:29.893539 10586 net.cpp:91] Creating Layer h_pseudoloss
I0924 02:58:29.893549 10586 net.cpp:425] h_pseudoloss <- h
I0924 02:58:29.893561 10586 net.cpp:399] h_pseudoloss -> h_pseudoloss
I0924 02:58:29.897258 10562 net.cpp:141] Setting up lstm2_unit_1
I0924 02:58:29.897294 10592 net.cpp:141] Setting up lstm2_h_concat
I0924 02:58:29.897308 10562 net.cpp:148] Top shape: 1 1 1000 (1000)
I0924 02:58:29.897316 10592 net.cpp:148] Top shape: 1 1 1000 (1000)
I0924 02:58:29.897323 10562 net.cpp:148] Top shape: 1 1 1000 (1000)
I0924 02:58:29.897327 10592 net.cpp:156] Memory required for data: 98020
I0924 02:58:29.897332 10562 net.cpp:156] Memory required for data: 90020
I0924 02:58:29.897341 10592 layer_factory.hpp:77] Creating layer h_pseudoloss
I0924 02:58:29.897342 10562 layer_factory.hpp:77] Creating layer lstm2_
I0924 02:58:29.897368 10568 net.cpp:141] Setting up lstm1_
I0924 02:58:29.897377 10592 net.cpp:91] Creating Layer h_pseudoloss
I0924 02:58:29.897377 10562 net.cpp:91] Creating Layer lstm2_
I0924 02:58:29.897397 10592 net.cpp:425] h_pseudoloss <- h
I0924 02:58:29.897390 10568 net.cpp:148] Top shape: 1 1 1000 (1000)
I0924 02:58:29.897405 10562 net.cpp:425] lstm2_ <- c_1
I0924 02:58:29.897408 10568 net.cpp:156] Memory required for data: 90016
I0924 02:58:29.897418 10592 net.cpp:399] h_pseudoloss -> h_pseudoloss
I0924 02:58:29.897424 10568 layer_factory.hpp:77] Creating layer lstm1_h_concat
I0924 02:58:29.897424 10562 net.cpp:399] lstm2_ -> c_T
I0924 02:58:29.897435 10568 net.cpp:91] Creating Layer lstm1_h_concat
I0924 02:58:29.897441 10568 net.cpp:425] lstm1_h_concat <- h_1
I0924 02:58:29.897450 10568 net.cpp:399] lstm1_h_concat -> h
I0924 02:58:29.897456 10560 net.cpp:141] Setting up lstm2_cont_slice
I0924 02:58:29.897476 10560 net.cpp:148] Top shape: 1 1 (1)
I0924 02:58:29.897480 10560 net.cpp:156] Memory required for data: 14012
I0924 02:58:29.897486 10560 layer_factory.hpp:77] Creating layer cont_1_lstm2_cont_slice_0_split
I0924 02:58:29.897493 10560 net.cpp:91] Creating Layer cont_1_lstm2_cont_slice_0_split
I0924 02:58:29.897500 10560 net.cpp:425] cont_1_lstm2_cont_slice_0_split <- cont_1
I0924 02:58:29.897506 10560 net.cpp:399] cont_1_lstm2_cont_slice_0_split -> cont_1_lstm2_cont_slice_0_split_0
I0924 02:58:29.897516 10560 net.cpp:399] cont_1_lstm2_cont_slice_0_split -> cont_1_lstm2_cont_slice_0_split_1
I0924 02:58:29.897512 10562 net.cpp:141] Setting up lstm2_
I0924 02:58:29.897531 10562 net.cpp:148] Top shape: 1 1 1000 (1000)
I0924 02:58:29.897541 10562 net.cpp:156] Memory required for data: 94020
I0924 02:58:29.897550 10562 layer_factory.hpp:77] Creating layer lstm2_h_concat
I0924 02:58:29.897572 10562 net.cpp:91] Creating Layer lstm2_h_concat
I0924 02:58:29.897583 10562 net.cpp:425] lstm2_h_concat <- h_1
I0924 02:58:29.897598 10562 net.cpp:399] lstm2_h_concat -> h
I0924 02:58:29.897663 10586 net.cpp:141] Setting up h_pseudoloss
I0924 02:58:29.897680 10586 net.cpp:148] Top shape: (1)
I0924 02:58:29.897685 10586 net.cpp:151]     with loss weight 1
I0924 02:58:29.897701 10586 net.cpp:156] Memory required for data: 98024
I0924 02:58:29.897706 10586 net.cpp:217] h_pseudoloss needs backward computation.
I0924 02:58:29.897711 10586 net.cpp:217] lstm2_h_concat needs backward computation.
I0924 02:58:29.897716 10586 net.cpp:219] lstm2_ does not need backward computation.
I0924 02:58:29.897722 10586 net.cpp:217] lstm2_unit_1 needs backward computation.
I0924 02:58:29.897724 10560 net.cpp:141] Setting up cont_1_lstm2_cont_slice_0_split
I0924 02:58:29.897728 10586 net.cpp:217] lstm2_gate_input_1 needs backward computation.
I0924 02:58:29.897740 10560 net.cpp:148] Top shape: 1 1 (1)
I0924 02:58:29.897750 10586 net.cpp:217] lstm2_transform_1 needs backward computation.
I0924 02:58:29.897761 10560 net.cpp:148] Top shape: 1 1 (1)
I0924 02:58:29.897769 10586 net.cpp:219] lstm2_h_conted_0 does not need backward computation.
I0924 02:58:29.897775 10562 net.cpp:141] Setting up lstm2_h_concat
I0924 02:58:29.897778 10560 net.cpp:156] Memory required for data: 14020
I0924 02:58:29.897788 10586 net.cpp:217] lstm2_W_xc_x_slice needs backward computation.
I0924 02:58:29.897791 10560 layer_factory.hpp:77] Creating layer lstm2_x_transform
I0924 02:58:29.897794 10586 net.cpp:217] lstm2_x_transform needs backward computation.
I0924 02:58:29.897795 10562 net.cpp:148] Top shape: 1 1 1000 (1000)
I0924 02:58:29.897800 10586 net.cpp:219] cont_1_lstm2_cont_slice_0_split does not need backward computation.
I0924 02:58:29.897806 10586 net.cpp:219] lstm2_cont_slice does not need backward computation.
I0924 02:58:29.897806 10562 net.cpp:156] Memory required for data: 98020
I0924 02:58:29.897812 10560 net.cpp:91] Creating Layer lstm2_x_transform
I0924 02:58:29.897815 10586 net.cpp:219] lstm2_ does not need backward computation.
I0924 02:58:29.897817 10562 layer_factory.hpp:77] Creating layer h_pseudoloss
I0924 02:58:29.897825 10568 net.cpp:141] Setting up lstm1_h_concat
I0924 02:58:29.897825 10586 net.cpp:219] lstm2_ does not need backward computation.
I0924 02:58:29.897840 10568 net.cpp:148] Top shape: 1 1 1000 (1000)
I0924 02:58:29.897819 10560 net.cpp:425] lstm2_x_transform <- x
I0924 02:58:29.897846 10586 net.cpp:261] This network produces output c_T
I0924 02:58:29.897845 10568 net.cpp:156] Memory required for data: 94016
I0924 02:58:29.897858 10586 net.cpp:261] This network produces output h_pseudoloss
I0924 02:58:29.897861 10568 layer_factory.hpp:77] Creating layer h_pseudoloss
I0924 02:58:29.897860 10560 net.cpp:399] lstm2_x_transform -> W_xc_x
…
I0924 02:58:29.910411 10562 net.cpp:219] lstm2_ does not need backward computation.
I0924 02:58:29.910418 10562 net.cpp:261] This network produces output c_T
I0924 02:58:29.910426 10562 net.cpp:261] This network produces output h_pseudoloss
I0924 02:58:29.984179 10562 net.cpp:274] Network initialization done.
I0924 02:58:29.984324 10562 recurrent_layer.cpp:150] Adding parameter 0: W_xc
I0924 02:58:29.984339 10562 recurrent_layer.cpp:150] Adding parameter 1: b_c
I0924 02:58:29.984346 10562 recurrent_layer.cpp:150] Adding parameter 2: W_hc
I0924 02:58:29.990725 10568 net.cpp:141] Setting up lstm1
I0924 02:58:29.990773 10568 net.cpp:148] Top shape: 1 1 1000 (1000)
I0924 02:58:29.990780 10568 net.cpp:156] Memory required for data: 26408
I0924 02:58:29.990803 10568 layer_factory.hpp:77] Creating layer concat
I0924 02:58:29.990819 10568 net.cpp:91] Creating Layer concat
I0924 02:58:29.990826 10568 net.cpp:425] concat <- lstm1
I0924 02:58:29.990835 10568 net.cpp:425] concat <- embedded_input_sentence
I0924 02:58:29.990841 10568 net.cpp:425] concat <- reshaped_stage_indicator
I0924 02:58:29.990849 10568 net.cpp:399] concat -> lstm1_video_sequence
I0924 02:58:30.069890 10568 net.cpp:141] Setting up concat
I0924 02:58:30.069943 10568 net.cpp:148] Top shape: 1 1 1501 (1501)
I0924 02:58:30.069949 10568 net.cpp:156] Memory required for data: 32412
I0924 02:58:30.069957 10568 layer_factory.hpp:77] Creating layer lstm2
I0924 02:58:30.069979 10568 net.cpp:91] Creating Layer lstm2
I0924 02:58:30.069988 10568 net.cpp:425] lstm2 <- lstm1_video_sequence
I0924 02:58:30.069998 10568 net.cpp:425] lstm2 <- cont_sentence_input_1_split_1
I0924 02:58:30.070008 10568 net.cpp:399] lstm2 -> lstm2
I0924 02:58:30.070026 10568 recurrent_layer.cpp:20] Initializing recurrent layer: assuming input batch contains 1 timesteps of 1 independent streams.
I0924 02:58:30.070080 10560 net.cpp:141] Setting up lstm2_x_transform
I0924 02:58:30.070122 10560 net.cpp:148] Top shape: 1 1 4000 (4000)
I0924 02:58:30.070127 10560 net.cpp:156] Memory required for data: 30020
I0924 02:58:30.070149 10560 layer_factory.hpp:77] Creating layer lstm2_W_xc_x_slice
I0924 02:58:30.070154 10562 net.cpp:141] Setting up lstm2
I0924 02:58:30.070166 10560 net.cpp:91] Creating Layer lstm2_W_xc_x_slice
I0924 02:58:30.070173 10562 net.cpp:148] Top shape: 1 1 1000 (1000)
I0924 02:58:30.070174 10560 net.cpp:425] lstm2_W_xc_x_slice <- W_xc_x
I0924 02:58:30.070186 10562 net.cpp:156] Memory required for data: 36412
I0924 02:58:30.070204 10560 net.cpp:399] lstm2_W_xc_x_slice -> W_xc_x_1
I0924 02:58:30.070221 10562 layer_factory.hpp:77] Creating layer predict
I0924 02:58:30.070237 10562 net.cpp:91] Creating Layer predict
I0924 02:58:30.070245 10562 net.cpp:425] predict <- lstm2
I0924 02:58:30.070255 10562 net.cpp:399] predict -> predict
I0924 02:58:30.070322 10568 net.cpp:49] Initializing net from parameters: 
layer {
  name: "lstm2_"
  type: "Input"
  top: "x"
  top: "cont"
  input_param {
    shape {
      dim: 1
      dim: 1
      dim: 1501
    }
    shape {
      dim: 1
      dim: 1
    }
  }
}
layer {
  name: "lstm2_"
  type: "Input"
  top: "c_0"
  top: "h_0"
  input_param {
    shape {
      dim: 1
      dim: 1
      dim: 1000
    }
    shape {
      dim: 1
      dim: 1
      dim: 1000
    }
  }
}
layer {
  name: "lstm2_cont_slice"
  type: "Slice"
  bottom: "cont"
  top: "cont_1"
  slice_param {
    axis: 0
  }
}
layer {
  name: "lstm2_x_transform"
  type: "InnerProduct"
  bottom: "x"
  top: "W_xc_x"
  param {
    name: "W_xc"
  }
  param {
    name: "b_c"
  }
  propagate_down: true
  inner_product_param {
    num_output: 4000
    bias_term: true
    weight_filler {
      type: "uniform"
      min: -0.08
      max: 0.08
    }
    bias_filler {
      type: "constant"
      value: 0
    }
    axis: 2
  }
}
layer {
  name: "lstm2_W_xc_x_slice"
  type: "Slice"
  bottom: "W_xc_x"
  top: "W_xc_x_1"
  slice_param {
    axis: 0
  }
}
layer {
  name: "lstm2_h_conted_0"
  type: "Scale"
  bottom: "h_0"
  bottom: "cont_1"
  top: "h_conted_0"
  scale_param {
    axis: 0
  }
}
layer {
  name: "lstm2_transform_1"
  type: "InnerProduct"
  bottom: "h_conted_0"
  top: "W_hc_h_0"
  param {
    name: "W_hc"
  }
  inner_product_param {
    num_output: 4000
    bias_term: false
    weight_filler {
      type: "uniform"
      min: -0.08
      max: 0.08
    }
    axis: 2
  }
}
layer {
  name: "lstm2_gate_input_1"
  type: "Eltwise"
  bottom: "W_hc_h_0"
  bottom: "W_xc_x_1"
  top: "gate_input_1"
  eltwise_param {
    operation: SUM
  }
}
layer {
  name: "lstm2_unit_1"
  type: "LSTMUnit"
  bottom: "c_0"
  bottom: "gate_input_1"
  bottom: "cont_1"
  top: "c_1"
  top: "h_1"
}
layer {
  name: "lstm2_"
  type: "Split"
  bottom: "c_1"
  top: "c_T"
}
layer {
  name: "lstm2_h_concat"
  type: "Concat"
  bottom: "h_1"
  top: "h"
  concat_param {
    axis: 0
  }
}
layer {
  name: "h_pseudoloss"
  type: "Reduction"
  bottom: "h"
  top: "h_pseudoloss"
  loss_weight: 1
}
I0924 02:58:30.070415 10568 layer_factory.hpp:77] Creating layer lstm2_
I0924 02:58:30.070426 10568 net.cpp:91] Creating Layer lstm2_
I0924 02:58:30.070433 10568 net.cpp:399] lstm2_ -> x
I0924 02:58:30.070446 10568 net.cpp:399] lstm2_ -> cont
I0924 02:58:30.075017 10560 net.cpp:141] Setting up lstm2_W_xc_x_slice
I0924 02:58:30.075065 10560 net.cpp:148] Top shape: 1 1 4000 (4000)
I0924 02:58:30.075070 10560 net.cpp:156] Memory required for data: 46020
I0924 02:58:30.075078 10560 layer_factory.hpp:77] Creating layer lstm2_h_conted_0
I0924 02:58:30.075096 10560 net.cpp:91] Creating Layer lstm2_h_conted_0
I0924 02:58:30.075103 10560 net.cpp:425] lstm2_h_conted_0 <- h_0
I0924 02:58:30.075112 10560 net.cpp:425] lstm2_h_conted_0 <- cont_1_lstm2_cont_slice_0_split_0
I0924 02:58:30.075130 10560 net.cpp:399] lstm2_h_conted_0 -> h_conted_0
I0924 02:58:30.152988 10568 net.cpp:141] Setting up lstm2_
I0924 02:58:30.153040 10568 net.cpp:148] Top shape: 1 1 1501 (1501)
I0924 02:58:30.153048 10568 net.cpp:148] Top shape: 1 1 (1)
I0924 02:58:30.153053 10568 net.cpp:156] Memory required for data: 6008
I0924 02:58:30.153061 10568 layer_factory.hpp:77] Creating layer lstm2_
I0924 02:58:30.153069 10560 net.cpp:141] Setting up lstm2_h_conted_0
I0924 02:58:30.153087 10560 net.cpp:148] Top shape: 1 1 1000 (1000)
I0924 02:58:30.153092 10560 net.cpp:156] Memory required for data: 50020
I0924 02:58:30.153098 10560 layer_factory.hpp:77] Creating layer lstm2_transform_1
I0924 02:58:30.153100 10568 net.cpp:91] Creating Layer lstm2_
I0924 02:58:30.153110 10568 net.cpp:399] lstm2_ -> c_0
I0924 02:58:30.153113 10560 net.cpp:91] Creating Layer lstm2_transform_1
I0924 02:58:30.153121 10560 net.cpp:425] lstm2_transform_1 <- h_conted_0
I0924 02:58:30.153129 10568 net.cpp:399] lstm2_ -> h_0
I0924 02:58:30.153134 10560 net.cpp:399] lstm2_transform_1 -> W_hc_h_0
I0924 02:58:30.163161 10568 net.cpp:141] Setting up lstm2_
I0924 02:58:30.163216 10568 net.cpp:148] Top shape: 1 1 1000 (1000)
I0924 02:58:30.163223 10568 net.cpp:148] Top shape: 1 1 1000 (1000)
I0924 02:58:30.163228 10568 net.cpp:156] Memory required for data: 14008
I0924 02:58:30.163238 10568 layer_factory.hpp:77] Creating layer lstm2_cont_slice
I0924 02:58:30.163259 10568 net.cpp:91] Creating Layer lstm2_cont_slice
I0924 02:58:30.163265 10568 net.cpp:425] lstm2_cont_slice <- cont
I0924 02:58:30.163277 10568 net.cpp:399] lstm2_cont_slice -> cont_1
I0924 02:58:30.165817 10568 net.cpp:141] Setting up lstm2_cont_slice
I0924 02:58:30.165868 10568 net.cpp:148] Top shape: 1 1 (1)
I0924 02:58:30.165874 10568 net.cpp:156] Memory required for data: 14012
I0924 02:58:30.165882 10568 layer_factory.hpp:77] Creating layer cont_1_lstm2_cont_slice_0_split
I0924 02:58:30.165917 10568 net.cpp:91] Creating Layer cont_1_lstm2_cont_slice_0_split
I0924 02:58:30.165926 10568 net.cpp:425] cont_1_lstm2_cont_slice_0_split <- cont_1
I0924 02:58:30.165937 10568 net.cpp:399] cont_1_lstm2_cont_slice_0_split -> cont_1_lstm2_cont_slice_0_split_0
I0924 02:58:30.165972 10568 net.cpp:399] cont_1_lstm2_cont_slice_0_split -> cont_1_lstm2_cont_slice_0_split_1
I0924 02:58:30.168997 10568 net.cpp:141] Setting up cont_1_lstm2_cont_slice_0_split
I0924 02:58:30.169049 10568 net.cpp:148] Top shape: 1 1 (1)
I0924 02:58:30.169055 10568 net.cpp:148] Top shape: 1 1 (1)
I0924 02:58:30.169059 10568 net.cpp:156] Memory required for data: 14020
I0924 02:58:30.169069 10568 layer_factory.hpp:77] Creating layer lstm2_x_transform
I0924 02:58:30.169096 10568 net.cpp:91] Creating Layer lstm2_x_transform
I0924 02:58:30.169103 10568 net.cpp:425] lstm2_x_transform <- x
I0924 02:58:30.169123 10568 net.cpp:399] lstm2_x_transform -> W_xc_x
I0924 02:58:30.201571 10560 net.cpp:141] Setting up lstm2_transform_1
I0924 02:58:30.201622 10560 net.cpp:148] Top shape: 1 1 4000 (4000)
I0924 02:58:30.201627 10560 net.cpp:156] Memory required for data: 66020
I0924 02:58:30.201648 10560 layer_factory.hpp:77] Creating layer lstm2_gate_input_1
I0924 02:58:30.201671 10560 net.cpp:91] Creating Layer lstm2_gate_input_1
I0924 02:58:30.201678 10560 net.cpp:425] lstm2_gate_input_1 <- W_hc_h_0
I0924 02:58:30.201688 10560 net.cpp:425] lstm2_gate_input_1 <- W_xc_x_1
I0924 02:58:30.201695 10560 net.cpp:399] lstm2_gate_input_1 -> gate_input_1
I0924 02:58:30.201759 10560 net.cpp:141] Setting up lstm2_gate_input_1
I0924 02:58:30.201768 10560 net.cpp:148] Top shape: 1 1 4000 (4000)
I0924 02:58:30.201772 10560 net.cpp:156] Memory required for data: 82020
I0924 02:58:30.201777 10560 layer_factory.hpp:77] Creating layer lstm2_unit_1
I0924 02:58:30.201786 10560 net.cpp:91] Creating Layer lstm2_unit_1
I0924 02:58:30.201792 10560 net.cpp:425] lstm2_unit_1 <- c_0
I0924 02:58:30.201797 10560 net.cpp:425] lstm2_unit_1 <- gate_input_1
I0924 02:58:30.201802 10560 net.cpp:425] lstm2_unit_1 <- cont_1_lstm2_cont_slice_0_split_1
I0924 02:58:30.201812 10560 net.cpp:399] lstm2_unit_1 -> c_1
I0924 02:58:30.201822 10560 net.cpp:399] lstm2_unit_1 -> h_1
I0924 02:58:30.201897 10560 net.cpp:141] Setting up lstm2_unit_1
I0924 02:58:30.201906 10560 net.cpp:148] Top shape: 1 1 1000 (1000)
I0924 02:58:30.201912 10560 net.cpp:148] Top shape: 1 1 1000 (1000)
I0924 02:58:30.201916 10560 net.cpp:156] Memory required for data: 90020
I0924 02:58:30.201921 10560 layer_factory.hpp:77] Creating layer lstm2_
I0924 02:58:30.201930 10560 net.cpp:91] Creating Layer lstm2_
I0924 02:58:30.201934 10560 net.cpp:425] lstm2_ <- c_1
I0924 02:58:30.201942 10560 net.cpp:399] lstm2_ -> c_T
I0924 02:58:30.201982 10560 net.cpp:141] Setting up lstm2_
I0924 02:58:30.201990 10560 net.cpp:148] Top shape: 1 1 1000 (1000)
I0924 02:58:30.201995 10560 net.cpp:156] Memory required for data: 94020
I0924 02:58:30.202000 10560 layer_factory.hpp:77] Creating layer lstm2_h_concat
I0924 02:58:30.202010 10560 net.cpp:91] Creating Layer lstm2_h_concat
I0924 02:58:30.202015 10560 net.cpp:425] lstm2_h_concat <- h_1
I0924 02:58:30.202023 10560 net.cpp:399] lstm2_h_concat -> h
I0924 02:58:30.202302 10560 net.cpp:141] Setting up lstm2_h_concat
I0924 02:58:30.202312 10560 net.cpp:148] Top shape: 1 1 1000 (1000)
I0924 02:58:30.202317 10560 net.cpp:156] Memory required for data: 98020
I0924 02:58:30.202322 10560 layer_factory.hpp:77] Creating layer h_pseudoloss
I0924 02:58:30.202332 10560 net.cpp:91] Creating Layer h_pseudoloss
I0924 02:58:30.202337 10560 net.cpp:425] h_pseudoloss <- h
I0924 02:58:30.202343 10560 net.cpp:399] h_pseudoloss -> h_pseudoloss
I0924 02:58:30.205724 10560 net.cpp:141] Setting up h_pseudoloss
…
I0924 02:58:30.205837 10560 net.cpp:219] lstm2_ does not need backward computation.
I0924 02:58:30.205840 10560 net.cpp:261] This network produces output c_T
I0924 02:58:30.205845 10560 net.cpp:261] This network produces output h_pseudoloss
I0924 02:58:30.205862 10560 net.cpp:274] Network initialization done.
I0924 02:58:30.205919 10560 recurrent_layer.cpp:150] Adding parameter 0: W_xc
I0924 02:58:30.205925 10560 recurrent_layer.cpp:150] Adding parameter 1: b_c
I0924 02:58:30.205930 10560 recurrent_layer.cpp:150] Adding parameter 2: W_hc
I0924 02:58:30.212486 10560 net.cpp:141] Setting up lstm2
I0924 02:58:30.212533 10560 net.cpp:148] Top shape: 1 1 1000 (1000)
I0924 02:58:30.212539 10560 net.cpp:156] Memory required for data: 36412
I0924 02:58:30.212560 10560 layer_factory.hpp:77] Creating layer predict
I0924 02:58:30.212581 10560 net.cpp:91] Creating Layer predict
I0924 02:58:30.212589 10560 net.cpp:425] predict <- lstm2
I0924 02:58:30.212599 10560 net.cpp:399] predict -> predict
I0924 02:58:30.301681 10558 net.cpp:141] Setting up predict
I0924 02:58:30.301730 10558 net.cpp:148] Top shape: 1 1 46168 (46168)
I0924 02:58:30.301736 10558 net.cpp:156] Memory required for data: 221084
I0924 02:58:30.301753 10558 layer_factory.hpp:77] Creating layer probs
I0924 02:58:30.301771 10558 net.cpp:91] Creating Layer probs
I0924 02:58:30.301779 10558 net.cpp:425] probs <- predict
I0924 02:58:30.301789 10558 net.cpp:399] probs -> probs
I0924 02:58:30.301800 10568 net.cpp:141] Setting up lstm2_x_transform
I0924 02:58:30.301841 10568 net.cpp:148] Top shape: 1 1 4000 (4000)
I0924 02:58:30.301846 10568 net.cpp:156] Memory required for data: 30020
I0924 02:58:30.301868 10568 layer_factory.hpp:77] Creating layer lstm2_W_xc_x_slice
I0924 02:58:30.301884 10568 net.cpp:91] Creating Layer lstm2_W_xc_x_slice
I0924 02:58:30.301892 10568 net.cpp:425] lstm2_W_xc_x_slice <- W_xc_x
I0924 02:58:30.301900 10568 net.cpp:399] lstm2_W_xc_x_slice -> W_xc_x_1
I0924 02:58:30.305531 10568 net.cpp:141] Setting up lstm2_W_xc_x_slice
I0924 02:58:30.305575 10568 net.cpp:148] Top shape: 1 1 4000 (4000)
I0924 02:58:30.305582 10568 net.cpp:156] Memory required for data: 46020
I0924 02:58:30.305589 10568 layer_factory.hpp:77] Creating layer lstm2_h_conted_0
I0924 02:58:30.305608 10568 net.cpp:91] Creating Layer lstm2_h_conted_0
I0924 02:58:30.305614 10568 net.cpp:425] lstm2_h_conted_0 <- h_0
I0924 02:58:30.305624 10568 net.cpp:425] lstm2_h_conted_0 <- cont_1_lstm2_cont_slice_0_split_0
I0924 02:58:30.305632 10568 net.cpp:399] lstm2_h_conted_0 -> h_conted_0
I0924 02:58:30.311419 10568 net.cpp:141] Setting up lstm2_h_conted_0
I0924 02:58:30.311468 10568 net.cpp:148] Top shape: 1 1 1000 (1000)
I0924 02:58:30.311475 10568 net.cpp:156] Memory required for data: 50020
I0924 02:58:30.311483 10568 layer_factory.hpp:77] Creating layer lstm2_transform_1
I0924 02:58:30.311504 10568 net.cpp:91] Creating Layer lstm2_transform_1
I0924 02:58:30.311512 10568 net.cpp:425] lstm2_transform_1 <- h_conted_0
I0924 02:58:30.311524 10568 net.cpp:399] lstm2_transform_1 -> W_hc_h_0
I0924 02:58:30.343184 10558 net.cpp:141] Setting up probs
I0924 02:58:30.343232 10558 net.cpp:148] Top shape: 1 1 46168 (46168)
I0924 02:58:30.343238 10558 net.cpp:156] Memory required for data: 405756
I0924 02:58:30.343248 10558 net.cpp:219] probs does not need backward computation.
I0924 02:58:30.343255 10558 net.cpp:219] predict does not need backward computation.
I0924 02:58:30.343261 10558 net.cpp:219] lstm2 does not need backward computation.
I0924 02:58:30.343267 10558 net.cpp:219] concat does not need backward computation.
I0924 02:58:30.343272 10558 net.cpp:219] lstm1 does not need backward computation.
I0924 02:58:30.343278 10558 net.cpp:219] embedding does not need backward computation.
I0924 02:58:30.343283 10558 net.cpp:219] reshape_stage_indicator does not need backward computation.
I0924 02:58:30.343288 10558 net.cpp:219] reshape_frames does not need backward computation.
I0924 02:58:30.343293 10558 net.cpp:219] embed_encoder does not need backward computation.
I0924 02:58:30.343298 10558 net.cpp:219] cont_sentence_input_1_split does not need backward computation.
I0924 02:58:30.343304 10558 net.cpp:219] input does not need backward computation.
I0924 02:58:30.343308 10558 net.cpp:261] This network produces output probs
I0924 02:58:30.343325 10558 net.cpp:274] Network initialization done.
I0924 02:58:30.344501 10584 net.cpp:141] Setting up conv1
I0924 02:58:30.344543 10584 net.cpp:148] Top shape: 10 96 55 55 (2904000)
I0924 02:58:30.344552 10584 net.cpp:156] Memory required for data: 17799480
I0924 02:58:30.344578 10584 layer_factory.hpp:77] Creating layer relu1
I0924 02:58:30.344599 10584 net.cpp:91] Creating Layer relu1
I0924 02:58:30.344609 10584 net.cpp:425] relu1 <- conv1
I0924 02:58:30.344620 10584 net.cpp:386] relu1 -> conv1 (in-place)
I0924 02:58:30.344980 10584 net.cpp:141] Setting up relu1
I0924 02:58:30.344995 10584 net.cpp:148] Top shape: 10 96 55 55 (2904000)
I0924 02:58:30.345002 10584 net.cpp:156] Memory required for data: 29415480
I0924 02:58:30.345010 10584 layer_factory.hpp:77] Creating layer pool1
I0924 02:58:30.345032 10584 net.cpp:91] Creating Layer pool1
I0924 02:58:30.345041 10584 net.cpp:425] pool1 <- conv1
I0924 02:58:30.345054 10584 net.cpp:399] pool1 -> pool1
I0924 02:58:30.345154 10584 net.cpp:141] Setting up pool1
I0924 02:58:30.345168 10584 net.cpp:148] Top shape: 10 96 27 27 (699840)
I0924 02:58:30.345175 10584 net.cpp:156] Memory required for data: 32214840
I0924 02:58:30.345182 10584 layer_factory.hpp:77] Creating layer norm1
I0924 02:58:30.345207 10584 net.cpp:91] Creating Layer norm1
I0924 02:58:30.345216 10584 net.cpp:425] norm1 <- pool1
I0924 02:58:30.345226 10584 net.cpp:399] norm1 -> norm1
I0924 02:58:30.345816 10584 net.cpp:141] Setting up norm1
I0924 02:58:30.345835 10584 net.cpp:148] Top shape: 10 96 27 27 (699840)
I0924 02:58:30.345842 10584 net.cpp:156] Memory required for data: 35014200
I0924 02:58:30.345850 10584 layer_factory.hpp:77] Creating layer conv2
I0924 02:58:30.345870 10584 net.cpp:91] Creating Layer conv2
I0924 02:58:30.345878 10584 net.cpp:425] conv2 <- norm1
I0924 02:58:30.345892 10584 net.cpp:399] conv2 -> conv2
I0924 02:58:30.350286 10568 net.cpp:141] Setting up lstm2_transform_1
I0924 02:58:30.350323 10568 net.cpp:148] Top shape: 1 1 4000 (4000)
I0924 02:58:30.350333 10568 net.cpp:156] Memory required for data: 66020
I0924 02:58:30.350350 10568 layer_factory.hpp:77] Creating layer lstm2_gate_input_1
I0924 02:58:30.350371 10568 net.cpp:91] Creating Layer lstm2_gate_input_1
I0924 02:58:30.350378 10568 net.cpp:425] lstm2_gate_input_1 <- W_hc_h_0
I0924 02:58:30.350385 10568 net.cpp:425] lstm2_gate_input_1 <- W_xc_x_1
I0924 02:58:30.350394 10568 net.cpp:399] lstm2_gate_input_1 -> gate_input_1
I0924 02:58:30.350482 10568 net.cpp:141] Setting up lstm2_gate_input_1
I0924 02:58:30.350494 10568 net.cpp:148] Top shape: 1 1 4000 (4000)
I0924 02:58:30.350498 10568 net.cpp:156] Memory required for data: 82020
I0924 02:58:30.350503 10568 layer_factory.hpp:77] Creating layer lstm2_unit_1
I0924 02:58:30.350514 10568 net.cpp:91] Creating Layer lstm2_unit_1
I0924 02:58:30.350519 10568 net.cpp:425] lstm2_unit_1 <- c_0
I0924 02:58:30.350525 10568 net.cpp:425] lstm2_unit_1 <- gate_input_1
I0924 02:58:30.350531 10568 net.cpp:425] lstm2_unit_1 <- cont_1_lstm2_cont_slice_0_split_1
I0924 02:58:30.350538 10568 net.cpp:399] lstm2_unit_1 -> c_1
I0924 02:58:30.350546 10568 net.cpp:399] lstm2_unit_1 -> h_1
I0924 02:58:30.350692 10584 net.cpp:141] Setting up conv2
I0924 02:58:30.350713 10584 net.cpp:148] Top shape: 10 256 27 27 (1866240)
I0924 02:58:30.350718 10568 net.cpp:141] Setting up lstm2_unit_1
I0924 02:58:30.350720 10584 net.cpp:156] Memory required for data: 42479160
I0924 02:58:30.350734 10568 net.cpp:148] Top shape: 1 1 1000 (1000)
I0924 02:58:30.350741 10568 net.cpp:148] Top shape: 1 1 1000 (1000)
I0924 02:58:30.350745 10568 net.cpp:156] Memory required for data: 90020
I0924 02:58:30.350750 10568 layer_factory.hpp:77] Creating layer lstm2_
I0924 02:58:30.350749 10584 layer_factory.hpp:77] Creating layer relu2
I0924 02:58:30.350764 10568 net.cpp:91] Creating Layer lstm2_
I0924 02:58:30.350769 10568 net.cpp:425] lstm2_ <- c_1
I0924 02:58:30.350770 10584 net.cpp:91] Creating Layer relu2
I0924 02:58:30.350777 10568 net.cpp:399] lstm2_ -> c_T
I0924 02:58:30.350780 10584 net.cpp:425] relu2 <- conv2
I0924 02:58:30.350790 10584 net.cpp:386] relu2 -> conv2 (in-place)
I0924 02:58:30.350816 10568 net.cpp:141] Setting up lstm2_
I0924 02:58:30.350826 10568 net.cpp:148] Top shape: 1 1 1000 (1000)
I0924 02:58:30.350829 10568 net.cpp:156] Memory required for data: 94020
I0924 02:58:30.350834 10568 layer_factory.hpp:77] Creating layer lstm2_h_concat
I0924 02:58:30.350843 10568 net.cpp:91] Creating Layer lstm2_h_concat
I0924 02:58:30.350848 10568 net.cpp:425] lstm2_h_concat <- h_1
I0924 02:58:30.350868 10568 net.cpp:399] lstm2_h_concat -> h
I0924 02:58:30.351078 10568 net.cpp:141] Setting up lstm2_h_concat
I0924 02:58:30.351089 10568 net.cpp:148] Top shape: 1 1 1000 (1000)
I0924 02:58:30.351094 10568 net.cpp:156] Memory required for data: 98020
I0924 02:58:30.351099 10568 layer_factory.hpp:77] Creating layer h_pseudoloss
I0924 02:58:30.351106 10568 net.cpp:91] Creating Layer h_pseudoloss
I0924 02:58:30.351111 10568 net.cpp:425] h_pseudoloss <- h
I0924 02:58:30.351119 10568 net.cpp:399] h_pseudoloss -> h_pseudoloss
I0924 02:58:30.351253 10568 net.cpp:141] Setting up h_pseudoloss
I0924 02:58:30.351264 10568 net.cpp:148] Top shape: (1)
I0924 02:58:30.351269 10568 net.cpp:151]     with loss weight 1
I0924 02:58:30.351289 10568 net.cpp:156] Memory required for data: 98024
I0924 02:58:30.351294 10568 net.cpp:217] h_pseudoloss needs backward computation.
I0924 02:58:30.351300 10568 net.cpp:217] lstm2_h_concat needs backward computation.
I0924 02:58:30.351305 10568 net.cpp:219] lstm2_ does not need backward computation.
I0924 02:58:30.351308 10568 net.cpp:217] lstm2_unit_1 needs backward computation.
I0924 02:58:30.351307 10584 net.cpp:141] Setting up relu2
I0924 02:58:30.351315 10568 net.cpp:217] lstm2_gate_input_1 needs backward computation.
I0924 02:58:30.351328 10568 net.cpp:217] lstm2_transform_1 needs backward computation.
I0924 02:58:30.351328 10584 net.cpp:148] Top shape: 10 256 27 27 (1866240)
I0924 02:58:30.351333 10568 net.cpp:219] lstm2_h_conted_0 does not need backward computation.
I0924 02:58:30.351336 10584 net.cpp:156] Memory required for data: 49944120
I0924 02:58:30.351342 10568 net.cpp:217] lstm2_W_xc_x_slice needs backward computation.
I0924 02:58:30.351346 10584 layer_factory.hpp:77] Creating layer pool2
I0924 02:58:30.351347 10568 net.cpp:217] lstm2_x_transform needs backward computation.
…
I0924 02:58:30.351389 10584 net.cpp:399] pool2 -> pool2
I0924 02:58:30.351394 10568 net.cpp:261] This network produces output c_T
I0924 02:58:30.351404 10568 net.cpp:261] This network produces output h_pseudoloss
I0924 02:58:30.351421 10568 net.cpp:274] Network initialization done.
I0924 02:58:30.351467 10568 recurrent_layer.cpp:150] Adding parameter 0: W_xc
I0924 02:58:30.351475 10568 recurrent_layer.cpp:150] Adding parameter 1: b_c
I0924 02:58:30.351478 10568 recurrent_layer.cpp:150] Adding parameter 2: W_hc
I0924 02:58:30.351480 10584 net.cpp:141] Setting up pool2
I0924 02:58:30.351495 10584 net.cpp:148] Top shape: 10 256 13 13 (432640)
I0924 02:58:30.351501 10584 net.cpp:156] Memory required for data: 51674680
I0924 02:58:30.351510 10584 layer_factory.hpp:77] Creating layer norm2
I0924 02:58:30.351531 10584 net.cpp:91] Creating Layer norm2
I0924 02:58:30.351538 10584 net.cpp:425] norm2 <- pool2
I0924 02:58:30.351552 10584 net.cpp:399] norm2 -> norm2
I0924 02:58:30.351599 10568 net.cpp:141] Setting up lstm2
I0924 02:58:30.351611 10568 net.cpp:148] Top shape: 1 1 1000 (1000)
I0924 02:58:30.351615 10568 net.cpp:156] Memory required for data: 36412
I0924 02:58:30.351629 10568 layer_factory.hpp:77] Creating layer predict
I0924 02:58:30.351641 10568 net.cpp:91] Creating Layer predict
I0924 02:58:30.351647 10568 net.cpp:425] predict <- lstm2
I0924 02:58:30.351655 10568 net.cpp:399] predict -> predict
I0924 02:58:30.432009 10592 net.cpp:141] Setting up predict
I0924 02:58:30.432060 10592 net.cpp:148] Top shape: 1 1 46168 (46168)
I0924 02:58:30.432066 10592 net.cpp:156] Memory required for data: 221084
I0924 02:58:30.432083 10592 layer_factory.hpp:77] Creating layer probs
I0924 02:58:30.432103 10592 net.cpp:91] Creating Layer probs
I0924 02:58:30.432111 10592 net.cpp:425] probs <- predict
I0924 02:58:30.432122 10592 net.cpp:399] probs -> probs
I0924 02:58:30.432132 10586 net.cpp:141] Setting up predict
I0924 02:58:30.432181 10586 net.cpp:148] Top shape: 1 1 46168 (46168)
I0924 02:58:30.432189 10586 net.cpp:156] Memory required for data: 221084
I0924 02:58:30.432204 10586 layer_factory.hpp:77] Creating layer probs
I0924 02:58:30.432224 10586 net.cpp:91] Creating Layer probs
I0924 02:58:30.432235 10586 net.cpp:425] probs <- predict
I0924 02:58:30.432247 10586 net.cpp:399] probs -> probs
I0924 02:58:30.433334 10584 net.cpp:141] Setting up norm2
I0924 02:58:30.433364 10584 net.cpp:148] Top shape: 10 256 13 13 (432640)
I0924 02:58:30.433373 10584 net.cpp:156] Memory required for data: 53405240
I0924 02:58:30.433384 10584 layer_factory.hpp:77] Creating layer conv3
I0924 02:58:30.433406 10584 net.cpp:91] Creating Layer conv3
I0924 02:58:30.433413 10584 net.cpp:425] conv3 <- norm2
I0924 02:58:30.433428 10584 net.cpp:399] conv3 -> conv3
I0924 02:58:30.434439 10592 net.cpp:141] Setting up probs
I0924 02:58:30.434458 10592 net.cpp:148] Top shape: 1 1 46168 (46168)
I0924 02:58:30.434463 10592 net.cpp:156] Memory required for data: 405756
I0924 02:58:30.434470 10592 net.cpp:219] probs does not need backward computation.
I0924 02:58:30.434475 10592 net.cpp:219] predict does not need backward computation.
I0924 02:58:30.434480 10592 net.cpp:219] lstm2 does not need backward computation.
I0924 02:58:30.434486 10592 net.cpp:219] concat does not need backward computation.
I0924 02:58:30.434492 10592 net.cpp:219] lstm1 does not need backward computation.
I0924 02:58:30.434499 10592 net.cpp:219] embedding does not need backward computation.
I0924 02:58:30.434504 10592 net.cpp:219] reshape_stage_indicator does not need backward computation.
I0924 02:58:30.434509 10592 net.cpp:219] reshape_frames does not need backward computation.
I0924 02:58:30.434514 10592 net.cpp:219] embed_encoder does not need backward computation.
I0924 02:58:30.434518 10592 net.cpp:219] cont_sentence_input_1_split does not need backward computation.
I0924 02:58:30.434525 10592 net.cpp:219] input does not need backward computation.
I0924 02:58:30.434530 10592 net.cpp:261] This network produces output probs
I0924 02:58:30.434522 10586 net.cpp:141] Setting up probs
I0924 02:58:30.434546 10592 net.cpp:274] Network initialization done.
I0924 02:58:30.434552 10586 net.cpp:148] Top shape: 1 1 46168 (46168)
I0924 02:58:30.434562 10586 net.cpp:156] Memory required for data: 405756
I0924 02:58:30.434572 10586 net.cpp:219] probs does not need backward computation.
I0924 02:58:30.434583 10586 net.cpp:219] predict does not need backward computation.
I0924 02:58:30.434592 10586 net.cpp:219] lstm2 does not need backward computation.
I0924 02:58:30.434633 10586 net.cpp:219] concat does not need backward computation.
I0924 02:58:30.434648 10586 net.cpp:219] lstm1 does not need backward computation.
I0924 02:58:30.434660 10586 net.cpp:219] embedding does not need backward computation.
I0924 02:58:30.434669 10586 net.cpp:219] reshape_stage_indicator does not need backward computation.
I0924 02:58:30.434679 10586 net.cpp:219] reshape_frames does not need backward computation.
I0924 02:58:30.434689 10586 net.cpp:219] embed_encoder does not need backward computation.
I0924 02:58:30.434700 10586 net.cpp:219] cont_sentence_input_1_split does not need backward computation.
I0924 02:58:30.434715 10586 net.cpp:219] input does not need backward computation.
I0924 02:58:30.434723 10586 net.cpp:261] This network produces output probs
I0924 02:58:30.434765 10586 net.cpp:274] Network initialization done.
I0924 02:58:30.442504 10584 net.cpp:141] Setting up conv3
I0924 02:58:30.442579 10584 net.cpp:148] Top shape: 10 384 13 13 (648960)
I0924 02:58:30.442610 10584 net.cpp:156] Memory required for data: 56001080
I0924 02:58:30.442659 10584 layer_factory.hpp:77] Creating layer relu3
I0924 02:58:30.442703 10584 net.cpp:91] Creating Layer relu3
I0924 02:58:30.442723 10584 net.cpp:425] relu3 <- conv3
I0924 02:58:30.442746 10584 net.cpp:386] relu3 -> conv3 (in-place)
I0924 02:58:30.443821 10584 net.cpp:141] Setting up relu3
I0924 02:58:30.443856 10584 net.cpp:148] Top shape: 10 384 13 13 (648960)
I0924 02:58:30.443866 10584 net.cpp:156] Memory required for data: 58596920
I0924 02:58:30.443878 10584 layer_factory.hpp:77] Creating layer conv4
I0924 02:58:30.443913 10584 net.cpp:91] Creating Layer conv4
I0924 02:58:30.443928 10584 net.cpp:425] conv4 <- conv3
I0924 02:58:30.443944 10584 net.cpp:399] conv4 -> conv4
I0924 02:58:30.475033 10584 net.cpp:141] Setting up conv4
I0924 02:58:30.475088 10584 net.cpp:148] Top shape: 10 384 13 13 (648960)
I0924 02:58:30.475098 10584 net.cpp:156] Memory required for data: 61192760
I0924 02:58:30.475119 10584 layer_factory.hpp:77] Creating layer relu4
I0924 02:58:30.475498 10584 net.cpp:91] Creating Layer relu4
I0924 02:58:30.475517 10584 net.cpp:425] relu4 <- conv4
I0924 02:58:30.475533 10584 net.cpp:386] relu4 -> conv4 (in-place)
I0924 02:58:30.476416 10584 net.cpp:141] Setting up relu4
I0924 02:58:30.476433 10584 net.cpp:148] Top shape: 10 384 13 13 (648960)
I0924 02:58:30.476443 10584 net.cpp:156] Memory required for data: 63788600
I0924 02:58:30.476451 10584 layer_factory.hpp:77] Creating layer conv5
I0924 02:58:30.476933 10584 net.cpp:91] Creating Layer conv5
I0924 02:58:30.476944 10584 net.cpp:425] conv5 <- conv4
I0924 02:58:30.476958 10584 net.cpp:399] conv5 -> conv5
I0924 02:58:30.489732 10584 net.cpp:141] Setting up conv5
I0924 02:58:30.489787 10584 net.cpp:148] Top shape: 10 256 13 13 (432640)
I0924 02:58:30.489797 10584 net.cpp:156] Memory required for data: 65519160
I0924 02:58:30.489825 10584 layer_factory.hpp:77] Creating layer relu5
I0924 02:58:30.489853 10584 net.cpp:91] Creating Layer relu5
I0924 02:58:30.489866 10584 net.cpp:425] relu5 <- conv5
I0924 02:58:30.489878 10584 net.cpp:386] relu5 -> conv5 (in-place)
I0924 02:58:30.490267 10584 net.cpp:141] Setting up relu5
I0924 02:58:30.490286 10584 net.cpp:148] Top shape: 10 256 13 13 (432640)
I0924 02:58:30.490294 10584 net.cpp:156] Memory required for data: 67249720
I0924 02:58:30.490304 10584 layer_factory.hpp:77] Creating layer pool5
I0924 02:58:30.490320 10584 net.cpp:91] Creating Layer pool5
I0924 02:58:30.490329 10584 net.cpp:425] pool5 <- conv5
I0924 02:58:30.490356 10584 net.cpp:399] pool5 -> pool5
I0924 02:58:30.490458 10584 net.cpp:141] Setting up pool5
I0924 02:58:30.490474 10584 net.cpp:148] Top shape: 10 256 6 6 (92160)
I0924 02:58:30.490483 10584 net.cpp:156] Memory required for data: 67618360
I0924 02:58:30.490490 10584 layer_factory.hpp:77] Creating layer fc6
I0924 02:58:30.490521 10584 net.cpp:91] Creating Layer fc6
I0924 02:58:30.490531 10584 net.cpp:425] fc6 <- pool5
I0924 02:58:30.490546 10584 net.cpp:399] fc6 -> fc6
I0924 02:58:30.568887 10562 net.cpp:141] Setting up predict
I0924 02:58:30.568940 10562 net.cpp:148] Top shape: 1 1 46168 (46168)
I0924 02:58:30.568946 10562 net.cpp:156] Memory required for data: 221084
I0924 02:58:30.568961 10562 layer_factory.hpp:77] Creating layer probs
I0924 02:58:30.568981 10562 net.cpp:91] Creating Layer probs
I0924 02:58:30.568989 10562 net.cpp:425] probs <- predict
I0924 02:58:30.569001 10562 net.cpp:399] probs -> probs
I0924 02:58:30.569820 10562 net.cpp:141] Setting up probs
I0924 02:58:30.569835 10562 net.cpp:148] Top shape: 1 1 46168 (46168)
I0924 02:58:30.569839 10562 net.cpp:156] Memory required for data: 405756
I0924 02:58:30.569846 10562 net.cpp:219] probs does not need backward computation.
I0924 02:58:30.569851 10562 net.cpp:219] predict does not need backward computation.
I0924 02:58:30.569856 10562 net.cpp:219] lstm2 does not need backward computation.
I0924 02:58:30.569862 10562 net.cpp:219] concat does not need backward computation.
I0924 02:58:30.569869 10562 net.cpp:219] lstm1 does not need backward computation.
I0924 02:58:30.569875 10562 net.cpp:219] embedding does not need backward computation.
I0924 02:58:30.569878 10562 net.cpp:219] reshape_stage_indicator does not need backward computation.
I0924 02:58:30.569883 10562 net.cpp:219] reshape_frames does not need backward computation.
I0924 02:58:30.569888 10562 net.cpp:219] embed_encoder does not need backward computation.
I0924 02:58:30.569892 10562 net.cpp:219] cont_sentence_input_1_split does not need backward computation.
I0924 02:58:30.569897 10562 net.cpp:219] input does not need backward computation.
I0924 02:58:30.569901 10562 net.cpp:261] This network produces output probs
I0924 02:58:30.569917 10562 net.cpp:274] Network initialization done.
I0924 02:58:30.609073 10584 net.cpp:141] Setting up fc6
I0924 02:58:30.609122 10584 net.cpp:148] Top shape: 10 4096 (40960)
I0924 02:58:30.609127 10584 net.cpp:156] Memory required for data: 67782200
I0924 02:58:30.609143 10584 layer_factory.hpp:77] Creating layer relu6
I0924 02:58:30.609160 10584 net.cpp:91] Creating Layer relu6
I0924 02:58:30.609166 10584 net.cpp:425] relu6 <- fc6
I0924 02:58:30.609179 10584 net.cpp:386] relu6 -> fc6 (in-place)
I0924 02:58:30.609937 10584 net.cpp:141] Setting up relu6
I0924 02:58:30.609964 10584 net.cpp:148] Top shape: 10 4096 (40960)
I0924 02:58:30.609972 10584 net.cpp:156] Memory required for data: 67946040
I0924 02:58:30.609977 10584 layer_factory.hpp:77] Creating layer drop6
I0924 02:58:30.609988 10584 net.cpp:91] Creating Layer drop6
I0924 02:58:30.609993 10584 net.cpp:425] drop6 <- fc6
I0924 02:58:30.610000 10584 net.cpp:386] drop6 -> fc6 (in-place)
I0924 02:58:30.610069 10584 net.cpp:141] Setting up drop6
I0924 02:58:30.610079 10584 net.cpp:148] Top shape: 10 4096 (40960)
I0924 02:58:30.610082 10584 net.cpp:156] Memory required for data: 68109880
I0924 02:58:30.610087 10584 layer_factory.hpp:77] Creating layer fc7
I0924 02:58:30.610100 10584 net.cpp:91] Creating Layer fc7
I0924 02:58:30.610105 10584 net.cpp:425] fc7 <- fc6
I0924 02:58:30.610112 10584 net.cpp:399] fc7 -> fc7
I0924 02:58:30.650535 10560 net.cpp:141] Setting up predict
I0924 02:58:30.650590 10560 net.cpp:148] Top shape: 1 1 46168 (46168)
I0924 02:58:30.650609 10560 net.cpp:156] Memory required for data: 221084
I0924 02:58:30.650625 10560 layer_factory.hpp:77] Creating layer probs
I0924 02:58:30.650645 10560 net.cpp:91] Creating Layer probs
I0924 02:58:30.650655 10560 net.cpp:425] probs <- predict
I0924 02:58:30.650665 10560 net.cpp:399] probs -> probs
I0924 02:58:30.652242 10560 net.cpp:141] Setting up probs
I0924 02:58:30.652256 10560 net.cpp:148] Top shape: 1 1 46168 (46168)
I0924 02:58:30.652261 10560 net.cpp:156] Memory required for data: 405756
I0924 02:58:30.652267 10560 net.cpp:219] probs does not need backward computation.
I0924 02:58:30.652272 10560 net.cpp:219] predict does not need backward computation.
I0924 02:58:30.652277 10560 net.cpp:219] lstm2 does not need backward computation.
I0924 02:58:30.652283 10560 net.cpp:219] concat does not need backward computation.
I0924 02:58:30.652289 10560 net.cpp:219] lstm1 does not need backward computation.
I0924 02:58:30.652295 10560 net.cpp:219] embedding does not need backward computation.
I0924 02:58:30.652302 10560 net.cpp:219] reshape_stage_indicator does not need backward computation.
I0924 02:58:30.652307 10560 net.cpp:219] reshape_frames does not need backward computation.
I0924 02:58:30.652310 10560 net.cpp:219] embed_encoder does not need backward computation.
I0924 02:58:30.652315 10560 net.cpp:219] cont_sentence_input_1_split does not need backward computation.
I0924 02:58:30.652321 10560 net.cpp:219] input does not need backward computation.
I0924 02:58:30.652325 10560 net.cpp:261] This network produces output probs
I0924 02:58:30.652343 10560 net.cpp:274] Network initialization done.
I0924 02:58:30.659693 10584 net.cpp:141] Setting up fc7
I0924 02:58:30.659744 10584 net.cpp:148] Top shape: 10 4096 (40960)
I0924 02:58:30.659749 10584 net.cpp:156] Memory required for data: 68273720
I0924 02:58:30.659766 10584 layer_factory.hpp:77] Creating layer relu7
I0924 02:58:30.659785 10584 net.cpp:91] Creating Layer relu7
I0924 02:58:30.659792 10584 net.cpp:425] relu7 <- fc7
I0924 02:58:30.659806 10584 net.cpp:386] relu7 -> fc7 (in-place)
I0924 02:58:30.660537 10584 net.cpp:141] Setting up relu7
I0924 02:58:30.660549 10584 net.cpp:148] Top shape: 10 4096 (40960)
I0924 02:58:30.660554 10584 net.cpp:156] Memory required for data: 68437560
I0924 02:58:30.660559 10584 layer_factory.hpp:77] Creating layer drop7
I0924 02:58:30.660573 10584 net.cpp:91] Creating Layer drop7
I0924 02:58:30.660578 10584 net.cpp:425] drop7 <- fc7
I0924 02:58:30.660585 10584 net.cpp:386] drop7 -> fc7 (in-place)
I0924 02:58:30.660650 10584 net.cpp:141] Setting up drop7
I0924 02:58:30.660658 10584 net.cpp:148] Top shape: 10 4096 (40960)
I0924 02:58:30.660662 10584 net.cpp:156] Memory required for data: 68601400
I0924 02:58:30.660667 10584 layer_factory.hpp:77] Creating layer fc8
I0924 02:58:30.660677 10584 net.cpp:91] Creating Layer fc8
I0924 02:58:30.660682 10584 net.cpp:425] fc8 <- fc7
I0924 02:58:30.660692 10584 net.cpp:399] fc8 -> fc8
I0924 02:58:30.674238 10584 net.cpp:141] Setting up fc8
I0924 02:58:30.674285 10584 net.cpp:148] Top shape: 10 1000 (10000)
I0924 02:58:30.674291 10584 net.cpp:156] Memory required for data: 68641400
I0924 02:58:30.786281 10568 net.cpp:141] Setting up predict
I0924 02:58:30.820633 10592 net.cpp:752] Ignoring source layer data
I0924 02:58:30.822690 10586 net.cpp:752] Ignoring source layer data
I0924 02:58:33.681605 10592 net.cpp:752] Ignoring source layer cont_sentence_data_0_split
I0924 02:58:30.923530 10562 net.cpp:752] Ignoring source layer data
I0924 02:58:33.681648 10592 net.cpp:752] Ignoring source layer reshape_stg_indicator
I0924 02:58:33.681529 10568 net.cpp:148] Top shape: 1 1 46168 (46168)
I0924 02:58:33.681699 10562 net.cpp:752] Ignoring source layer cont_sentence_data_0_split
I0924 02:58:33.681715 10562 net.cpp:752] Ignoring source layer reshape_stg_indicator
I0924 02:58:33.681715 10568 net.cpp:156] Memory required for data: 221084
I0924 02:58:33.681763 10586 net.cpp:752] Ignoring source layer cont_sentence_data_0_split
I0924 02:58:33.681766 10568 layer_factory.hpp:77] Creating layer probs
I0924 02:58:33.681782 10586 net.cpp:752] Ignoring source layer reshape_stg_indicator
I0924 02:58:33.681900 10568 net.cpp:91] Creating Layer probs
I0924 02:58:33.681937 10568 net.cpp:425] probs <- predict
I0924 02:58:33.681972 10568 net.cpp:399] probs -> probs
I0924 02:58:33.681509 10584 layer_factory.hpp:77] Creating layer prob
I0924 02:58:33.683456 10584 net.cpp:91] Creating Layer prob
I0924 02:58:33.683487 10584 net.cpp:425] prob <- fc8
I0924 02:58:30.976272 10560 net.cpp:752] Ignoring source layer data
I0924 02:58:33.683575 10584 net.cpp:399] prob -> prob
I0924 02:58:33.683768 10560 net.cpp:752] Ignoring source layer cont_sentence_data_0_split
I0924 02:58:33.683806 10560 net.cpp:752] Ignoring source layer reshape_stg_indicator
I0924 02:58:33.690526 10584 net.cpp:141] Setting up prob
I0924 02:58:33.690584 10584 net.cpp:148] Top shape: 10 1000 (10000)
I0924 02:58:33.690592 10584 net.cpp:156] Memory required for data: 68681400
I0924 02:58:33.690618 10584 net.cpp:219] prob does not need backward computation.
I0924 02:58:33.690628 10584 net.cpp:219] fc8 does not need backward computation.
I0924 02:58:33.690634 10584 net.cpp:219] drop7 does not need backward computation.
I0924 02:58:33.690639 10584 net.cpp:219] relu7 does not need backward computation.
…
