…
Java HotSpot(TM) 64-Bit Server VM warning: You have loaded library /tmp/cvld4446619875775885039/libopencv_java310.xine1.so which might have disabled stack guard. The VM will try to fix the stack guard now.
It's highly recommended that you fix the library with 'execstack -c <libfile>', or link it with '-z noexecstack'.
WARNING: Logging before InitGoogleLogging() is written to STDERR
I0731 22:50:18.261503 15704 net.cpp:49] Initializing net from parameters: 
name: "CaffeNet"
state {
  phase: TEST
}
layer {
  name: "data"
  type: "Input"
  top: "data"
  input_param {
    shape {
      dim: 10
      dim: 3
      dim: 227
      dim: 227
    }
  }
}
layer {
  name: "conv1"
  type: "Convolution"
  bottom: "data"
  top: "conv1"
  convolution_param {
    num_output: 96
    kernel_size: 11
    stride: 4
  }
}
layer {
  name: "relu1"
  type: "ReLU"
  bottom: "conv1"
  top: "conv1"
}
layer {
  name: "pool1"
  type: "Pooling"
  bottom: "conv1"
  top: "pool1"
  pooling_param {
    pool: MAX
    kernel_size: 3
    stride: 2
  }
}
layer {
  name: "norm1"
  type: "LRN"
  bottom: "pool1"
  top: "norm1"
  lrn_param {
    local_size: 5
    alpha: 0.0001
    beta: 0.75
  }
}
layer {
  name: "conv2"
  type: "Convolution"
  bottom: "norm1"
  top: "conv2"
  convolution_param {
    num_output: 256
    pad: 2
    kernel_size: 5
    group: 2
  }
}
layer {
  name: "relu2"
  type: "ReLU"
  bottom: "conv2"
  top: "conv2"
}
layer {
  name: "pool2"
  type: "Pooling"
  bottom: "conv2"
  top: "pool2"
  pooling_param {
    pool: MAX
    kernel_size: 3
    stride: 2
  }
}
layer {
  name: "norm2"
  type: "LRN"
  bottom: "pool2"
  top: "norm2"
  lrn_param {
    local_size: 5
    alpha: 0.0001
    beta: 0.75
  }
}
layer {
  name: "conv3"
  type: "Convolution"
  bottom: "norm2"
  top: "conv3"
  convolution_param {
    num_output: 384
    pad: 1
    kernel_size: 3
  }
}
layer {
  name: "relu3"
  type: "ReLU"
  bottom: "conv3"
  top: "conv3"
}
layer {
  name: "conv4"
  type: "Convolution"
  bottom: "conv3"
  top: "conv4"
  convolution_param {
    num_output: 384
    pad: 1
    kernel_size: 3
    group: 2
  }
}
layer {
  name: "relu4"
  type: "ReLU"
  bottom: "conv4"
  top: "conv4"
}
layer {
  name: "conv5"
  type: "Convolution"
  bottom: "conv4"
  top: "conv5"
  convolution_param {
    num_output: 256
    pad: 1
    kernel_size: 3
    group: 2
  }
}
layer {
  name: "relu5"
  type: "ReLU"
  bottom: "conv5"
  top: "conv5"
}
layer {
  name: "pool5"
  type: "Pooling"
  bottom: "conv5"
  top: "pool5"
  pooling_param {
    pool: MAX
    kernel_size: 3
    stride: 2
  }
}
layer {
  name: "fc6"
  type: "InnerProduct"
  bottom: "pool5"
  top: "fc6"
  inner_product_param {
    num_output: 4096
  }
}
layer {
  name: "relu6"
  type: "ReLU"
  bottom: "fc6"
  top: "fc6"
}
layer {
  name: "drop6"
  type: "Dropout"
  bottom: "fc6"
  top: "fc6"
  dropout_param {
    dropout_ratio: 0.5
  }
}
layer {
  name: "fc7"
  type: "InnerProduct"
  bottom: "fc6"
  top: "fc7"
  inner_product_param {
    num_output: 4096
  }
}
layer {
  name: "relu7"
  type: "ReLU"
  bottom: "fc7"
  top: "fc7"
}
layer {
  name: "drop7"
  type: "Dropout"
  bottom: "fc7"
  top: "fc7"
  dropout_param {
    dropout_ratio: 0.5
  }
}
layer {
  name: "fc8"
  type: "InnerProduct"
  bottom: "fc7"
  top: "fc8"
  inner_product_param {
    num_output: 1000
  }
}
layer {
  name: "prob"
  type: "Softmax"
  bottom: "fc8"
  top: "prob"
}
I0731 22:50:18.261694 15704 layer_factory.hpp:77] Creating layer data
I0731 22:50:18.261718 15704 net.cpp:91] Creating Layer data
I0731 22:50:18.261728 15704 net.cpp:399] data -> data
I0731 22:50:18.756258 15704 net.cpp:141] Setting up data
I0731 22:50:18.756361 15704 net.cpp:148] Top shape: 10 3 227 227 (1545870)
I0731 22:50:18.756367 15704 net.cpp:156] Memory required for data: 6183480
I0731 22:50:18.756384 15704 layer_factory.hpp:77] Creating layer conv1
I0731 22:50:18.756412 15704 net.cpp:91] Creating Layer conv1
I0731 22:50:18.756420 15704 net.cpp:425] conv1 <- data
I0731 22:50:18.756433 15704 net.cpp:399] conv1 -> conv1
I0731 22:50:18.985152 15704 net.cpp:141] Setting up conv1
I0731 22:50:18.985209 15704 net.cpp:148] Top shape: 10 96 55 55 (2904000)
I0731 22:50:18.985216 15704 net.cpp:156] Memory required for data: 17799480
I0731 22:50:18.985250 15704 layer_factory.hpp:77] Creating layer relu1
I0731 22:50:18.985272 15704 net.cpp:91] Creating Layer relu1
I0731 22:50:18.985280 15704 net.cpp:425] relu1 <- conv1
I0731 22:50:18.985290 15704 net.cpp:386] relu1 -> conv1 (in-place)
I0731 22:50:18.985796 15704 net.cpp:141] Setting up relu1
I0731 22:50:18.985811 15704 net.cpp:148] Top shape: 10 96 55 55 (2904000)
I0731 22:50:18.985817 15704 net.cpp:156] Memory required for data: 29415480
I0731 22:50:18.985822 15704 layer_factory.hpp:77] Creating layer pool1
I0731 22:50:18.985836 15704 net.cpp:91] Creating Layer pool1
I0731 22:50:18.985841 15704 net.cpp:425] pool1 <- conv1
I0731 22:50:18.985849 15704 net.cpp:399] pool1 -> pool1
I0731 22:50:18.985929 15704 net.cpp:141] Setting up pool1
I0731 22:50:18.985941 15704 net.cpp:148] Top shape: 10 96 27 27 (699840)
I0731 22:50:18.985946 15704 net.cpp:156] Memory required for data: 32214840
I0731 22:50:18.985952 15704 layer_factory.hpp:77] Creating layer norm1
I0731 22:50:18.985970 15704 net.cpp:91] Creating Layer norm1
I0731 22:50:18.985975 15704 net.cpp:425] norm1 <- pool1
I0731 22:50:18.985983 15704 net.cpp:399] norm1 -> norm1
I0731 22:50:18.986536 15704 net.cpp:141] Setting up norm1
I0731 22:50:18.986552 15704 net.cpp:148] Top shape: 10 96 27 27 (699840)
I0731 22:50:18.986557 15704 net.cpp:156] Memory required for data: 35014200
I0731 22:50:18.986562 15704 layer_factory.hpp:77] Creating layer conv2
I0731 22:50:18.986583 15704 net.cpp:91] Creating Layer conv2
I0731 22:50:18.986588 15704 net.cpp:425] conv2 <- norm1
I0731 22:50:18.986596 15704 net.cpp:399] conv2 -> conv2
I0731 22:50:18.991087 15704 net.cpp:141] Setting up conv2
I0731 22:50:18.991106 15704 net.cpp:148] Top shape: 10 256 27 27 (1866240)
I0731 22:50:18.991111 15704 net.cpp:156] Memory required for data: 42479160
I0731 22:50:18.991127 15704 layer_factory.hpp:77] Creating layer relu2
I0731 22:50:18.991137 15704 net.cpp:91] Creating Layer relu2
I0731 22:50:18.991142 15704 net.cpp:425] relu2 <- conv2
I0731 22:50:18.991153 15704 net.cpp:386] relu2 -> conv2 (in-place)
I0731 22:50:18.991659 15704 net.cpp:141] Setting up relu2
I0731 22:50:18.991673 15704 net.cpp:148] Top shape: 10 256 27 27 (1866240)
I0731 22:50:18.991678 15704 net.cpp:156] Memory required for data: 49944120
I0731 22:50:18.991684 15704 layer_factory.hpp:77] Creating layer pool2
I0731 22:50:18.991698 15704 net.cpp:91] Creating Layer pool2
I0731 22:50:18.991703 15704 net.cpp:425] pool2 <- conv2
I0731 22:50:18.991710 15704 net.cpp:399] pool2 -> pool2
I0731 22:50:18.991775 15704 net.cpp:141] Setting up pool2
I0731 22:50:18.991786 15704 net.cpp:148] Top shape: 10 256 13 13 (432640)
I0731 22:50:18.991791 15704 net.cpp:156] Memory required for data: 51674680
I0731 22:50:18.991796 15704 layer_factory.hpp:77] Creating layer norm2
I0731 22:50:18.991806 15704 net.cpp:91] Creating Layer norm2
I0731 22:50:18.991811 15704 net.cpp:425] norm2 <- pool2
I0731 22:50:18.991822 15704 net.cpp:399] norm2 -> norm2
I0731 22:50:18.992113 15704 net.cpp:141] Setting up norm2
I0731 22:50:18.992128 15704 net.cpp:148] Top shape: 10 256 13 13 (432640)
I0731 22:50:18.992135 15704 net.cpp:156] Memory required for data: 53405240
I0731 22:50:18.992139 15704 layer_factory.hpp:77] Creating layer conv3
I0731 22:50:18.992151 15704 net.cpp:91] Creating Layer conv3
I0731 22:50:18.992156 15704 net.cpp:425] conv3 <- norm2
I0731 22:50:18.992167 15704 net.cpp:399] conv3 -> conv3
I0731 22:50:18.996645 15704 net.cpp:141] Setting up conv3
I0731 22:50:18.996662 15704 net.cpp:148] Top shape: 10 384 13 13 (648960)
I0731 22:50:18.996668 15704 net.cpp:156] Memory required for data: 56001080
I0731 22:50:18.996681 15704 layer_factory.hpp:77] Creating layer relu3
I0731 22:50:18.996695 15704 net.cpp:91] Creating Layer relu3
I0731 22:50:18.996701 15704 net.cpp:425] relu3 <- conv3
I0731 22:50:18.996708 15704 net.cpp:386] relu3 -> conv3 (in-place)
I0731 22:50:18.997200 15704 net.cpp:141] Setting up relu3
I0731 22:50:18.997216 15704 net.cpp:148] Top shape: 10 384 13 13 (648960)
I0731 22:50:18.997222 15704 net.cpp:156] Memory required for data: 58596920
I0731 22:50:18.997228 15704 layer_factory.hpp:77] Creating layer conv4
I0731 22:50:18.997242 15704 net.cpp:91] Creating Layer conv4
I0731 22:50:18.997248 15704 net.cpp:425] conv4 <- conv3
I0731 22:50:18.997256 15704 net.cpp:399] conv4 -> conv4
I0731 22:50:19.001770 15704 net.cpp:141] Setting up conv4
I0731 22:50:19.001787 15704 net.cpp:148] Top shape: 10 384 13 13 (648960)
I0731 22:50:19.001793 15704 net.cpp:156] Memory required for data: 61192760
I0731 22:50:19.001803 15704 layer_factory.hpp:77] Creating layer relu4
I0731 22:50:19.001813 15704 net.cpp:91] Creating Layer relu4
I0731 22:50:19.001819 15704 net.cpp:425] relu4 <- conv4
I0731 22:50:19.001830 15704 net.cpp:386] relu4 -> conv4 (in-place)
I0731 22:50:19.002324 15704 net.cpp:141] Setting up relu4
I0731 22:50:19.002338 15704 net.cpp:148] Top shape: 10 384 13 13 (648960)
I0731 22:50:19.002343 15704 net.cpp:156] Memory required for data: 63788600
I0731 22:50:19.002349 15704 layer_factory.hpp:77] Creating layer conv5
I0731 22:50:19.002367 15704 net.cpp:91] Creating Layer conv5
I0731 22:50:19.002373 15704 net.cpp:425] conv5 <- conv4
I0731 22:50:19.002384 15704 net.cpp:399] conv5 -> conv5
I0731 22:50:19.006811 15704 net.cpp:141] Setting up conv5
I0731 22:50:19.006827 15704 net.cpp:148] Top shape: 10 256 13 13 (432640)
I0731 22:50:19.006834 15704 net.cpp:156] Memory required for data: 65519160
I0731 22:50:19.006846 15704 layer_factory.hpp:77] Creating layer relu5
I0731 22:50:19.006856 15704 net.cpp:91] Creating Layer relu5
I0731 22:50:19.006861 15704 net.cpp:425] relu5 <- conv5
I0731 22:50:19.006872 15704 net.cpp:386] relu5 -> conv5 (in-place)
I0731 22:50:19.007385 15704 net.cpp:141] Setting up relu5
I0731 22:50:19.007400 15704 net.cpp:148] Top shape: 10 256 13 13 (432640)
I0731 22:50:19.007405 15704 net.cpp:156] Memory required for data: 67249720
I0731 22:50:19.007411 15704 layer_factory.hpp:77] Creating layer pool5
I0731 22:50:19.007424 15704 net.cpp:91] Creating Layer pool5
I0731 22:50:19.007431 15704 net.cpp:425] pool5 <- conv5
I0731 22:50:19.007437 15704 net.cpp:399] pool5 -> pool5
I0731 22:50:19.007506 15704 net.cpp:141] Setting up pool5
I0731 22:50:19.007517 15704 net.cpp:148] Top shape: 10 256 6 6 (92160)
I0731 22:50:19.007521 15704 net.cpp:156] Memory required for data: 67618360
I0731 22:50:19.007526 15704 layer_factory.hpp:77] Creating layer fc6
I0731 22:50:19.007551 15704 net.cpp:91] Creating Layer fc6
I0731 22:50:19.007557 15704 net.cpp:425] fc6 <- pool5
I0731 22:50:19.007565 15704 net.cpp:399] fc6 -> fc6
I0731 22:50:19.121848 15704 net.cpp:141] Setting up fc6
I0731 22:50:19.121901 15704 net.cpp:148] Top shape: 10 4096 (40960)
I0731 22:50:19.121906 15704 net.cpp:156] Memory required for data: 67782200
I0731 22:50:19.121923 15704 layer_factory.hpp:77] Creating layer relu6
I0731 22:50:19.121948 15704 net.cpp:91] Creating Layer relu6
I0731 22:50:19.121956 15704 net.cpp:425] relu6 <- fc6
I0731 22:50:19.121968 15704 net.cpp:386] relu6 -> fc6 (in-place)
I0731 22:50:19.122341 15704 net.cpp:141] Setting up relu6
I0731 22:50:19.122354 15704 net.cpp:148] Top shape: 10 4096 (40960)
I0731 22:50:19.122359 15704 net.cpp:156] Memory required for data: 67946040
I0731 22:50:19.122364 15704 layer_factory.hpp:77] Creating layer drop6
I0731 22:50:19.122390 15704 net.cpp:91] Creating Layer drop6
I0731 22:50:19.122395 15704 net.cpp:425] drop6 <- fc6
I0731 22:50:19.122411 15704 net.cpp:386] drop6 -> fc6 (in-place)
I0731 22:50:19.122465 15704 net.cpp:141] Setting up drop6
I0731 22:50:19.122478 15704 net.cpp:148] Top shape: 10 4096 (40960)
I0731 22:50:19.122483 15704 net.cpp:156] Memory required for data: 68109880
I0731 22:50:19.122488 15704 layer_factory.hpp:77] Creating layer fc7
I0731 22:50:19.122499 15704 net.cpp:91] Creating Layer fc7
I0731 22:50:19.122504 15704 net.cpp:425] fc7 <- fc6
I0731 22:50:19.122511 15704 net.cpp:399] fc7 -> fc7
I0731 22:50:19.174144 15704 net.cpp:141] Setting up fc7
I0731 22:50:19.174196 15704 net.cpp:148] Top shape: 10 4096 (40960)
I0731 22:50:19.174202 15704 net.cpp:156] Memory required for data: 68273720
I0731 22:50:19.174221 15704 layer_factory.hpp:77] Creating layer relu7
I0731 22:50:19.174244 15704 net.cpp:91] Creating Layer relu7
I0731 22:50:19.174253 15704 net.cpp:425] relu7 <- fc7
I0731 22:50:19.174264 15704 net.cpp:386] relu7 -> fc7 (in-place)
I0731 22:50:19.175168 15704 net.cpp:141] Setting up relu7
I0731 22:50:19.175184 15704 net.cpp:148] Top shape: 10 4096 (40960)
I0731 22:50:19.175189 15704 net.cpp:156] Memory required for data: 68437560
I0731 22:50:19.175194 15704 layer_factory.hpp:77] Creating layer drop7
I0731 22:50:19.175215 15704 net.cpp:91] Creating Layer drop7
I0731 22:50:19.175220 15704 net.cpp:425] drop7 <- fc7
I0731 22:50:19.175230 15704 net.cpp:386] drop7 -> fc7 (in-place)
I0731 22:50:19.175273 15704 net.cpp:141] Setting up drop7
I0731 22:50:19.175282 15704 net.cpp:148] Top shape: 10 4096 (40960)
I0731 22:50:19.175287 15704 net.cpp:156] Memory required for data: 68601400
I0731 22:50:19.175292 15704 layer_factory.hpp:77] Creating layer fc8
I0731 22:50:19.175312 15704 net.cpp:91] Creating Layer fc8
I0731 22:50:19.175318 15704 net.cpp:425] fc8 <- fc7
I0731 22:50:19.175326 15704 net.cpp:399] fc8 -> fc8
I0731 22:50:19.188055 15704 net.cpp:141] Setting up fc8
I0731 22:50:19.188108 15704 net.cpp:148] Top shape: 10 1000 (10000)
I0731 22:50:19.188114 15704 net.cpp:156] Memory required for data: 68641400
I0731 22:50:19.188132 15704 layer_factory.hpp:77] Creating layer prob
I0731 22:50:19.188155 15704 net.cpp:91] Creating Layer prob
I0731 22:50:19.188163 15704 net.cpp:425] prob <- fc8
I0731 22:50:19.188175 15704 net.cpp:399] prob -> prob
I0731 22:50:19.188664 15704 net.cpp:141] Setting up prob
I0731 22:50:19.188678 15704 net.cpp:148] Top shape: 10 1000 (10000)
I0731 22:50:19.188683 15704 net.cpp:156] Memory required for data: 68681400
I0731 22:50:19.188688 15704 net.cpp:219] prob does not need backward computation.
I0731 22:50:19.188694 15704 net.cpp:219] fc8 does not need backward computation.
I0731 22:50:19.188699 15704 net.cpp:219] drop7 does not need backward computation.
I0731 22:50:19.188704 15704 net.cpp:219] relu7 does not need backward computation.
…
W0731 22:50:27.932363 15694 upgrade_proto.cpp:71] Note that future Caffe releases will only support input layers and not input fields.
I0731 22:50:27.932842 15694 net.cpp:49] Initializing net from parameters: 
name: "s2vt:features_to_lstm"
state {
  phase: TEST
}
layer {
  name: "input"
  type: "Input"
  top: "frames_fc7"
  top: "cont_sentence"
  top: "input_sentence"
  top: "stage_indicator"
  input_param {
    shape {
      dim: 1
      dim: 4096
    }
    shape {
      dim: 1
      dim: 1
    }
    shape {
      dim: 1
      dim: 1
    }
    shape {
      dim: 1
      dim: 1
    }
  }
}
layer {
  name: "embed_encoder"
  type: "InnerProduct"
  bottom: "frames_fc7"
  top: "embedded_in_frames"
  param {
    lr_mult: 1
    decay_mult: 1
  }
  param {
    lr_mult: 2
    decay_mult: 0
  }
  inner_product_param {
    num_output: 500
    weight_filler {
      type: "xavier"
    }
    bias_filler {
      type: "constant"
      value: 0.2
    }
  }
}
layer {
  name: "reshape_frames"
  type: "Reshape"
  bottom: "embedded_in_frames"
  top: "embedded_input_frames"
  reshape_param {
    shape {
      dim: 1
      dim: 1
      dim: 500
    }
  }
}
layer {
  name: "reshape_stage_indicator"
  type: "Reshape"
  bottom: "stage_indicator"
  top: "reshaped_stage_indicator"
  reshape_param {
    shape {
      dim: 1
      dim: 1
      dim: 1
    }
  }
}
layer {
  name: "embedding"
  type: "Embed"
  bottom: "input_sentence"
  top: "embedded_input_sentence"
  param {
    lr_mult: 1
  }
  embed_param {
    num_output: 500
    input_dim: 46168
    bias_term: false
    weight_filler {
      type: "uniform"
      min: -0.08
      max: 0.08
    }
  }
}
layer {
  name: "lstm1"
  type: "LSTM"
  bottom: "embedded_input_frames"
  bottom: "cont_sentence"
  top: "lstm1"
  recurrent_param {
    num_output: 1000
    weight_filler {
      type: "uniform"
      min: -0.08
      max: 0.08
    }
    bias_filler {
      type: "constant"
      value: 0
    }
  }
}
layer {
  name: "concat"
  type: "Concat"
  bottom: "lstm1"
  bottom: "embedded_input_sentence"
  bottom: "reshaped_stage_indicator"
  top: "lstm1_video_sequence"
  concat_param {
    concat_dim: 2
  }
}
layer {
  name: "lstm2"
  type: "LSTM"
  bottom: "lstm1_video_sequence"
  bottom: "cont_sentence"
  top: "lstm2"
  recurrent_param {
    num_output: 1000
    weight_filler {
      type: "uniform"
      min: -0.08
      max: 0.08
    }
    bias_filler {
      type: "constant"
      value: 0
    }
  }
}
layer {
  name: "predict"
  type: "InnerProduct"
  bottom: "lstm2"
  top: "predict"
  param {
    lr_mult: 1
    decay_mult: 1
  }
  param {
    lr_mult: 2
    decay_mult: 0
  }
  inner_product_param {
    num_output: 46168
    weight_filler {
      type: "uniform"
      min: -0.08
      max: 0.08
    }
    bias_filler {
      type: "constant"
      value: 0
    }
    axis: 2
  }
}
layer {
  name: "probs"
  type: "Softmax"
  bottom: "predict"
  top: "probs"
  softmax_param {
    axis: 2
  }
}
I0731 22:50:27.933033 15694 layer_factory.hpp:77] Creating layer input
I0731 22:50:27.933073 15694 net.cpp:91] Creating Layer input
I0731 22:50:27.933092 15694 net.cpp:399] input -> frames_fc7
I0731 22:50:27.933125 15694 net.cpp:399] input -> cont_sentence
I0731 22:50:27.933151 15694 net.cpp:399] input -> input_sentence
I0731 22:50:27.933174 15694 net.cpp:399] input -> stage_indicator
I0731 22:50:27.933554 15694 net.cpp:141] Setting up input
I0731 22:50:27.933578 15694 net.cpp:148] Top shape: 1 4096 (4096)
I0731 22:50:27.933591 15694 net.cpp:148] Top shape: 1 1 (1)
I0731 22:50:27.933603 15694 net.cpp:148] Top shape: 1 1 (1)
I0731 22:50:27.933614 15694 net.cpp:148] Top shape: 1 1 (1)
I0731 22:50:27.933620 15694 net.cpp:156] Memory required for data: 16396
I0731 22:50:27.933630 15694 layer_factory.hpp:77] Creating layer cont_sentence_input_1_split
I0731 22:50:27.933660 15694 net.cpp:91] Creating Layer cont_sentence_input_1_split
I0731 22:50:27.933670 15694 net.cpp:425] cont_sentence_input_1_split <- cont_sentence
I0731 22:50:27.933701 15694 net.cpp:399] cont_sentence_input_1_split -> cont_sentence_input_1_split_0
I0731 22:50:27.933723 15694 net.cpp:399] cont_sentence_input_1_split -> cont_sentence_input_1_split_1
I0731 22:50:27.933820 15694 net.cpp:141] Setting up cont_sentence_input_1_split
I0731 22:50:27.933841 15694 net.cpp:148] Top shape: 1 1 (1)
I0731 22:50:27.933856 15694 net.cpp:148] Top shape: 1 1 (1)
I0731 22:50:27.933866 15694 net.cpp:156] Memory required for data: 16404
I0731 22:50:27.933876 15694 layer_factory.hpp:77] Creating layer embed_encoder
I0731 22:50:27.933902 15694 net.cpp:91] Creating Layer embed_encoder
I0731 22:50:27.933915 15694 net.cpp:425] embed_encoder <- frames_fc7
I0731 22:50:27.933934 15694 net.cpp:399] embed_encoder -> embedded_in_frames
I0731 22:50:27.969545 15694 net.cpp:141] Setting up embed_encoder
I0731 22:50:27.969599 15694 net.cpp:148] Top shape: 1 500 (500)
I0731 22:50:27.969609 15694 net.cpp:156] Memory required for data: 18404
I0731 22:50:27.969640 15694 layer_factory.hpp:77] Creating layer reshape_frames
I0731 22:50:27.969669 15694 net.cpp:91] Creating Layer reshape_frames
I0731 22:50:27.969682 15694 net.cpp:425] reshape_frames <- embedded_in_frames
I0731 22:50:27.969701 15694 net.cpp:399] reshape_frames -> embedded_input_frames
I0731 22:50:27.969789 15694 net.cpp:141] Setting up reshape_frames
I0731 22:50:27.969806 15694 net.cpp:148] Top shape: 1 1 500 (500)
I0731 22:50:27.969813 15694 net.cpp:156] Memory required for data: 20404
I0731 22:50:27.969822 15694 layer_factory.hpp:77] Creating layer reshape_stage_indicator
I0731 22:50:27.969841 15694 net.cpp:91] Creating Layer reshape_stage_indicator
I0731 22:50:27.969851 15694 net.cpp:425] reshape_stage_indicator <- stage_indicator
I0731 22:50:27.969868 15694 net.cpp:399] reshape_stage_indicator -> reshaped_stage_indicator
I0731 22:50:27.969944 15694 net.cpp:141] Setting up reshape_stage_indicator
I0731 22:50:27.969961 15694 net.cpp:148] Top shape: 1 1 1 (1)
I0731 22:50:27.969969 15694 net.cpp:156] Memory required for data: 20408
I0731 22:50:27.969979 15694 layer_factory.hpp:77] Creating layer embedding
I0731 22:50:27.970002 15694 net.cpp:91] Creating Layer embedding
I0731 22:50:27.970013 15694 net.cpp:425] embedding <- input_sentence
I0731 22:50:27.970029 15694 net.cpp:399] embedding -> embedded_input_sentence
I0731 22:50:28.156673 15704 upgrade_proto.cpp:43] Attempting to upgrade input file specified using deprecated transformation parameters: /tmp/cvld4446619875775885039/bvlc_reference_caffenet.caffemodel
I0731 22:50:28.156723 15704 upgrade_proto.cpp:46] Successfully upgraded file specified using deprecated data transformation parameters.
W0731 22:50:28.156728 15704 upgrade_proto.cpp:48] Note that future Caffe releases will only support transform_param messages for transformation fields.
I0731 22:50:28.156733 15704 upgrade_proto.cpp:52] Attempting to upgrade input file specified using deprecated V1LayerParameter: /tmp/cvld4446619875775885039/bvlc_reference_caffenet.caffemodel
I0731 22:50:28.227654 15694 net.cpp:141] Setting up embedding
I0731 22:50:28.227708 15694 net.cpp:148] Top shape: 1 1 500 (500)
I0731 22:50:28.227715 15694 net.cpp:156] Memory required for data: 22408
I0731 22:50:28.227737 15694 layer_factory.hpp:77] Creating layer lstm1
I0731 22:50:28.227761 15694 net.cpp:91] Creating Layer lstm1
I0731 22:50:28.227771 15694 net.cpp:425] lstm1 <- embedded_input_frames
I0731 22:50:28.227782 15694 net.cpp:425] lstm1 <- cont_sentence_input_1_split_0
I0731 22:50:28.227794 15694 net.cpp:399] lstm1 -> lstm1
I0731 22:50:28.227835 15694 recurrent_layer.cpp:20] Initializing recurrent layer: assuming input batch contains 1 timesteps of 1 independent streams.
I0731 22:50:28.228312 15694 net.cpp:49] Initializing net from parameters: 
layer {
  name: "lstm1_"
  type: "Input"
  top: "x"
  top: "cont"
  input_param {
    shape {
      dim: 1
      dim: 1
      dim: 500
    }
    shape {
      dim: 1
      dim: 1
    }
  }
}
layer {
  name: "lstm1_"
  type: "Input"
  top: "c_0"
  top: "h_0"
  input_param {
    shape {
      dim: 1
      dim: 1
      dim: 1000
    }
    shape {
      dim: 1
      dim: 1
      dim: 1000
    }
  }
}
layer {
  name: "lstm1_cont_slice"
  type: "Slice"
  bottom: "cont"
  top: "cont_1"
  slice_param {
    axis: 0
  }
}
layer {
  name: "lstm1_x_transform"
  type: "InnerProduct"
  bottom: "x"
  top: "W_xc_x"
  param {
    name: "W_xc"
  }
  param {
    name: "b_c"
  }
  propagate_down: true
  inner_product_param {
    num_output: 4000
    bias_term: true
    weight_filler {
      type: "uniform"
      min: -0.08
      max: 0.08
    }
    bias_filler {
      type: "constant"
      value: 0
    }
    axis: 2
  }
}
layer {
  name: "lstm1_W_xc_x_slice"
  type: "Slice"
  bottom: "W_xc_x"
  top: "W_xc_x_1"
  slice_param {
    axis: 0
  }
}
layer {
  name: "lstm1_h_conted_0"
  type: "Scale"
  bottom: "h_0"
  bottom: "cont_1"
  top: "h_conted_0"
  scale_param {
    axis: 0
  }
}
layer {
  name: "lstm1_transform_1"
  type: "InnerProduct"
  bottom: "h_conted_0"
  top: "W_hc_h_0"
  param {
    name: "W_hc"
  }
  inner_product_param {
    num_output: 4000
    bias_term: false
    weight_filler {
      type: "uniform"
      min: -0.08
      max: 0.08
    }
    axis: 2
  }
}
layer {
  name: "lstm1_gate_input_1"
  type: "Eltwise"
  bottom: "W_hc_h_0"
  bottom: "W_xc_x_1"
  top: "gate_input_1"
  eltwise_param {
    operation: SUM
  }
}
layer {
  name: "lstm1_unit_1"
  type: "LSTMUnit"
  bottom: "c_0"
  bottom: "gate_input_1"
  bottom: "cont_1"
  top: "c_1"
  top: "h_1"
}
layer {
  name: "lstm1_"
  type: "Split"
  bottom: "c_1"
  top: "c_T"
}
layer {
  name: "lstm1_h_concat"
  type: "Concat"
  bottom: "h_1"
  top: "h"
  concat_param {
    axis: 0
  }
}
layer {
  name: "h_pseudoloss"
  type: "Reduction"
  bottom: "h"
  top: "h_pseudoloss"
  loss_weight: 1
}
I0731 22:50:28.228418 15694 layer_factory.hpp:77] Creating layer lstm1_
I0731 22:50:28.228432 15694 net.cpp:91] Creating Layer lstm1_
I0731 22:50:28.228440 15694 net.cpp:399] lstm1_ -> x
I0731 22:50:28.228452 15694 net.cpp:399] lstm1_ -> cont
I0731 22:50:28.228523 15694 net.cpp:141] Setting up lstm1_
I0731 22:50:28.228534 15694 net.cpp:148] Top shape: 1 1 500 (500)
I0731 22:50:28.228540 15694 net.cpp:148] Top shape: 1 1 (1)
I0731 22:50:28.228545 15694 net.cpp:156] Memory required for data: 2004
I0731 22:50:28.228550 15694 layer_factory.hpp:77] Creating layer lstm1_
I0731 22:50:28.228559 15694 net.cpp:91] Creating Layer lstm1_
I0731 22:50:28.228569 15694 net.cpp:399] lstm1_ -> c_0
I0731 22:50:28.228580 15694 net.cpp:399] lstm1_ -> h_0
I0731 22:50:28.228636 15694 net.cpp:141] Setting up lstm1_
I0731 22:50:28.228646 15694 net.cpp:148] Top shape: 1 1 1000 (1000)
I0731 22:50:28.228652 15694 net.cpp:148] Top shape: 1 1 1000 (1000)
I0731 22:50:28.228657 15694 net.cpp:156] Memory required for data: 10004
I0731 22:50:28.228662 15694 layer_factory.hpp:77] Creating layer lstm1_cont_slice
I0731 22:50:28.228674 15694 net.cpp:91] Creating Layer lstm1_cont_slice
I0731 22:50:28.228679 15694 net.cpp:425] lstm1_cont_slice <- cont
I0731 22:50:28.228689 15694 net.cpp:399] lstm1_cont_slice -> cont_1
I0731 22:50:28.228727 15694 net.cpp:141] Setting up lstm1_cont_slice
I0731 22:50:28.228737 15694 net.cpp:148] Top shape: 1 1 (1)
I0731 22:50:28.228742 15694 net.cpp:156] Memory required for data: 10008
I0731 22:50:28.228747 15694 layer_factory.hpp:77] Creating layer cont_1_lstm1_cont_slice_0_split
I0731 22:50:28.228759 15694 net.cpp:91] Creating Layer cont_1_lstm1_cont_slice_0_split
I0731 22:50:28.228763 15694 net.cpp:425] cont_1_lstm1_cont_slice_0_split <- cont_1
I0731 22:50:28.228771 15694 net.cpp:399] cont_1_lstm1_cont_slice_0_split -> cont_1_lstm1_cont_slice_0_split_0
I0731 22:50:28.228780 15694 net.cpp:399] cont_1_lstm1_cont_slice_0_split -> cont_1_lstm1_cont_slice_0_split_1
I0731 22:50:28.228835 15694 net.cpp:141] Setting up cont_1_lstm1_cont_slice_0_split
I0731 22:50:28.228844 15694 net.cpp:148] Top shape: 1 1 (1)
I0731 22:50:28.228850 15694 net.cpp:148] Top shape: 1 1 (1)
I0731 22:50:28.228855 15694 net.cpp:156] Memory required for data: 10016
I0731 22:50:28.228860 15694 layer_factory.hpp:77] Creating layer lstm1_x_transform
I0731 22:50:28.228870 15694 net.cpp:91] Creating Layer lstm1_x_transform
I0731 22:50:28.228875 15694 net.cpp:425] lstm1_x_transform <- x
I0731 22:50:28.228883 15694 net.cpp:399] lstm1_x_transform -> W_xc_x
I0731 22:50:28.250977 15694 net.cpp:141] Setting up lstm1_x_transform
I0731 22:50:28.251024 15694 net.cpp:148] Top shape: 1 1 4000 (4000)
I0731 22:50:28.251031 15694 net.cpp:156] Memory required for data: 26016
I0731 22:50:28.251057 15694 layer_factory.hpp:77] Creating layer lstm1_W_xc_x_slice
I0731 22:50:28.251075 15694 net.cpp:91] Creating Layer lstm1_W_xc_x_slice
I0731 22:50:28.251082 15694 net.cpp:425] lstm1_W_xc_x_slice <- W_xc_x
I0731 22:50:28.251093 15694 net.cpp:399] lstm1_W_xc_x_slice -> W_xc_x_1
I0731 22:50:28.251142 15694 net.cpp:141] Setting up lstm1_W_xc_x_slice
I0731 22:50:28.251152 15694 net.cpp:148] Top shape: 1 1 4000 (4000)
I0731 22:50:28.251157 15694 net.cpp:156] Memory required for data: 42016
I0731 22:50:28.251162 15694 layer_factory.hpp:77] Creating layer lstm1_h_conted_0
I0731 22:50:28.251175 15694 net.cpp:91] Creating Layer lstm1_h_conted_0
I0731 22:50:28.251181 15694 net.cpp:425] lstm1_h_conted_0 <- h_0
I0731 22:50:28.251188 15694 net.cpp:425] lstm1_h_conted_0 <- cont_1_lstm1_cont_slice_0_split_0
I0731 22:50:28.251195 15694 net.cpp:399] lstm1_h_conted_0 -> h_conted_0
I0731 22:50:28.251404 15694 net.cpp:141] Setting up lstm1_h_conted_0
I0731 22:50:28.251416 15694 net.cpp:148] Top shape: 1 1 1000 (1000)
I0731 22:50:28.251421 15694 net.cpp:156] Memory required for data: 46016
I0731 22:50:28.251427 15694 layer_factory.hpp:77] Creating layer lstm1_transform_1
I0731 22:50:28.251441 15694 net.cpp:91] Creating Layer lstm1_transform_1
I0731 22:50:28.251446 15694 net.cpp:425] lstm1_transform_1 <- h_conted_0
I0731 22:50:28.251454 15694 net.cpp:399] lstm1_transform_1 -> W_hc_h_0
I0731 22:50:28.293823 15694 net.cpp:141] Setting up lstm1_transform_1
I0731 22:50:28.293881 15694 net.cpp:148] Top shape: 1 1 4000 (4000)
I0731 22:50:28.293887 15694 net.cpp:156] Memory required for data: 62016
I0731 22:50:28.293911 15694 layer_factory.hpp:77] Creating layer lstm1_gate_input_1
I0731 22:50:28.293939 15694 net.cpp:91] Creating Layer lstm1_gate_input_1
I0731 22:50:28.293947 15694 net.cpp:425] lstm1_gate_input_1 <- W_hc_h_0
I0731 22:50:28.293956 15694 net.cpp:425] lstm1_gate_input_1 <- W_xc_x_1
I0731 22:50:28.293964 15694 net.cpp:399] lstm1_gate_input_1 -> gate_input_1
I0731 22:50:28.294034 15694 net.cpp:141] Setting up lstm1_gate_input_1
I0731 22:50:28.294044 15694 net.cpp:148] Top shape: 1 1 4000 (4000)
I0731 22:50:28.294049 15694 net.cpp:156] Memory required for data: 78016
I0731 22:50:28.294054 15694 layer_factory.hpp:77] Creating layer lstm1_unit_1
I0731 22:50:28.294064 15694 net.cpp:91] Creating Layer lstm1_unit_1
I0731 22:50:28.294070 15694 net.cpp:425] lstm1_unit_1 <- c_0
I0731 22:50:28.294075 15694 net.cpp:425] lstm1_unit_1 <- gate_input_1
I0731 22:50:28.294081 15694 net.cpp:425] lstm1_unit_1 <- cont_1_lstm1_cont_slice_0_split_1
I0731 22:50:28.294088 15694 net.cpp:399] lstm1_unit_1 -> c_1
I0731 22:50:28.294098 15694 net.cpp:399] lstm1_unit_1 -> h_1
I0731 22:50:28.294168 15694 net.cpp:141] Setting up lstm1_unit_1
I0731 22:50:28.294178 15694 net.cpp:148] Top shape: 1 1 1000 (1000)
I0731 22:50:28.294184 15694 net.cpp:148] Top shape: 1 1 1000 (1000)
I0731 22:50:28.294188 15694 net.cpp:156] Memory required for data: 86016
I0731 22:50:28.294194 15694 layer_factory.hpp:77] Creating layer lstm1_
I0731 22:50:28.294206 15694 net.cpp:91] Creating Layer lstm1_
I0731 22:50:28.294211 15694 net.cpp:425] lstm1_ <- c_1
I0731 22:50:28.294219 15694 net.cpp:399] lstm1_ -> c_T
I0731 22:50:28.294252 15694 net.cpp:141] Setting up lstm1_
I0731 22:50:28.294261 15694 net.cpp:148] Top shape: 1 1 1000 (1000)
I0731 22:50:28.294266 15694 net.cpp:156] Memory required for data: 90016
I0731 22:50:28.294271 15694 layer_factory.hpp:77] Creating layer lstm1_h_concat
I0731 22:50:28.294282 15694 net.cpp:91] Creating Layer lstm1_h_concat
I0731 22:50:28.294287 15694 net.cpp:425] lstm1_h_concat <- h_1
I0731 22:50:28.294297 15694 net.cpp:399] lstm1_h_concat -> h
I0731 22:50:28.294348 15694 net.cpp:141] Setting up lstm1_h_concat
I0731 22:50:28.294358 15694 net.cpp:148] Top shape: 1 1 1000 (1000)
I0731 22:50:28.294363 15694 net.cpp:156] Memory required for data: 94016
I0731 22:50:28.294368 15694 layer_factory.hpp:77] Creating layer h_pseudoloss
I0731 22:50:28.294384 15694 net.cpp:91] Creating Layer h_pseudoloss
I0731 22:50:28.294389 15694 net.cpp:425] h_pseudoloss <- h
I0731 22:50:28.294396 15694 net.cpp:399] h_pseudoloss -> h_pseudoloss
I0731 22:50:28.294494 15694 net.cpp:141] Setting up h_pseudoloss
…
I0731 22:50:28.294628 15694 net.cpp:219] lstm1_ does not need backward computation.
I0731 22:50:28.294632 15694 net.cpp:261] This network produces output c_T
I0731 22:50:28.294637 15694 net.cpp:261] This network produces output h_pseudoloss
I0731 22:50:28.294652 15694 net.cpp:274] Network initialization done.
I0731 22:50:28.294713 15694 recurrent_layer.cpp:150] Adding parameter 0: W_xc
I0731 22:50:28.294720 15694 recurrent_layer.cpp:150] Adding parameter 1: b_c
I0731 22:50:28.294725 15694 recurrent_layer.cpp:150] Adding parameter 2: W_hc
I0731 22:50:28.294849 15694 net.cpp:141] Setting up lstm1
I0731 22:50:28.294867 15694 net.cpp:148] Top shape: 1 1 1000 (1000)
I0731 22:50:28.294872 15694 net.cpp:156] Memory required for data: 26408
I0731 22:50:28.294888 15694 layer_factory.hpp:77] Creating layer concat
I0731 22:50:28.294898 15694 net.cpp:91] Creating Layer concat
I0731 22:50:28.294904 15694 net.cpp:425] concat <- lstm1
I0731 22:50:28.294912 15694 net.cpp:425] concat <- embedded_input_sentence
I0731 22:50:28.294924 15694 net.cpp:425] concat <- reshaped_stage_indicator
I0731 22:50:28.294935 15694 net.cpp:399] concat -> lstm1_video_sequence
I0731 22:50:28.294981 15694 net.cpp:141] Setting up concat
I0731 22:50:28.294991 15694 net.cpp:148] Top shape: 1 1 1501 (1501)
I0731 22:50:28.294996 15694 net.cpp:156] Memory required for data: 32412
I0731 22:50:28.295001 15694 layer_factory.hpp:77] Creating layer lstm2
I0731 22:50:28.295017 15694 net.cpp:91] Creating Layer lstm2
I0731 22:50:28.295022 15694 net.cpp:425] lstm2 <- lstm1_video_sequence
I0731 22:50:28.295028 15694 net.cpp:425] lstm2 <- cont_sentence_input_1_split_1
I0731 22:50:28.295037 15694 net.cpp:399] lstm2 -> lstm2
I0731 22:50:28.295049 15694 recurrent_layer.cpp:20] Initializing recurrent layer: assuming input batch contains 1 timesteps of 1 independent streams.
I0731 22:50:28.295346 15694 net.cpp:49] Initializing net from parameters: 
layer {
  name: "lstm2_"
  type: "Input"
  top: "x"
  top: "cont"
  input_param {
    shape {
      dim: 1
      dim: 1
      dim: 1501
    }
    shape {
      dim: 1
      dim: 1
    }
  }
}
layer {
  name: "lstm2_"
  type: "Input"
  top: "c_0"
  top: "h_0"
  input_param {
    shape {
      dim: 1
      dim: 1
      dim: 1000
    }
    shape {
      dim: 1
      dim: 1
      dim: 1000
    }
  }
}
layer {
  name: "lstm2_cont_slice"
  type: "Slice"
  bottom: "cont"
  top: "cont_1"
  slice_param {
    axis: 0
  }
}
layer {
  name: "lstm2_x_transform"
  type: "InnerProduct"
  bottom: "x"
  top: "W_xc_x"
  param {
    name: "W_xc"
  }
  param {
    name: "b_c"
  }
  propagate_down: true
  inner_product_param {
    num_output: 4000
    bias_term: true
    weight_filler {
      type: "uniform"
      min: -0.08
      max: 0.08
    }
    bias_filler {
      type: "constant"
      value: 0
    }
    axis: 2
  }
}
layer {
  name: "lstm2_W_xc_x_slice"
  type: "Slice"
  bottom: "W_xc_x"
  top: "W_xc_x_1"
  slice_param {
    axis: 0
  }
}
layer {
  name: "lstm2_h_conted_0"
  type: "Scale"
  bottom: "h_0"
  bottom: "cont_1"
  top: "h_conted_0"
  scale_param {
    axis: 0
  }
}
layer {
  name: "lstm2_transform_1"
  type: "InnerProduct"
  bottom: "h_conted_0"
  top: "W_hc_h_0"
  param {
    name: "W_hc"
  }
  inner_product_param {
    num_output: 4000
    bias_term: false
    weight_filler {
      type: "uniform"
      min: -0.08
      max: 0.08
    }
    axis: 2
  }
}
layer {
  name: "lstm2_gate_input_1"
  type: "Eltwise"
  bottom: "W_hc_h_0"
  bottom: "W_xc_x_1"
  top: "gate_input_1"
  eltwise_param {
    operation: SUM
  }
}
layer {
  name: "lstm2_unit_1"
  type: "LSTMUnit"
  bottom: "c_0"
  bottom: "gate_input_1"
  bottom: "cont_1"
  top: "c_1"
  top: "h_1"
}
layer {
  name: "lstm2_"
  type: "Split"
  bottom: "c_1"
  top: "c_T"
}
layer {
  name: "lstm2_h_concat"
  type: "Concat"
  bottom: "h_1"
  top: "h"
  concat_param {
    axis: 0
  }
}
layer {
  name: "h_pseudoloss"
  type: "Reduction"
  bottom: "h"
  top: "h_pseudoloss"
  loss_weight: 1
}
I0731 22:50:28.295442 15694 layer_factory.hpp:77] Creating layer lstm2_
I0731 22:50:28.295455 15694 net.cpp:91] Creating Layer lstm2_
I0731 22:50:28.295462 15694 net.cpp:399] lstm2_ -> x
I0731 22:50:28.295474 15694 net.cpp:399] lstm2_ -> cont
I0731 22:50:28.295536 15694 net.cpp:141] Setting up lstm2_
I0731 22:50:28.295547 15694 net.cpp:148] Top shape: 1 1 1501 (1501)
I0731 22:50:28.295552 15694 net.cpp:148] Top shape: 1 1 (1)
I0731 22:50:28.295557 15694 net.cpp:156] Memory required for data: 6008
I0731 22:50:28.295562 15694 layer_factory.hpp:77] Creating layer lstm2_
I0731 22:50:28.295572 15694 net.cpp:91] Creating Layer lstm2_
I0731 22:50:28.295580 15694 net.cpp:399] lstm2_ -> c_0
I0731 22:50:28.295590 15694 net.cpp:399] lstm2_ -> h_0
I0731 22:50:28.295646 15694 net.cpp:141] Setting up lstm2_
I0731 22:50:28.295656 15694 net.cpp:148] Top shape: 1 1 1000 (1000)
I0731 22:50:28.295662 15694 net.cpp:148] Top shape: 1 1 1000 (1000)
I0731 22:50:28.295666 15694 net.cpp:156] Memory required for data: 14008
I0731 22:50:28.295671 15694 layer_factory.hpp:77] Creating layer lstm2_cont_slice
I0731 22:50:28.295680 15694 net.cpp:91] Creating Layer lstm2_cont_slice
I0731 22:50:28.295684 15694 net.cpp:425] lstm2_cont_slice <- cont
I0731 22:50:28.295692 15694 net.cpp:399] lstm2_cont_slice -> cont_1
I0731 22:50:28.295732 15694 net.cpp:141] Setting up lstm2_cont_slice
I0731 22:50:28.295740 15694 net.cpp:148] Top shape: 1 1 (1)
I0731 22:50:28.295748 15694 net.cpp:156] Memory required for data: 14012
I0731 22:50:28.295753 15694 layer_factory.hpp:77] Creating layer cont_1_lstm2_cont_slice_0_split
I0731 22:50:28.295759 15694 net.cpp:91] Creating Layer cont_1_lstm2_cont_slice_0_split
I0731 22:50:28.295764 15694 net.cpp:425] cont_1_lstm2_cont_slice_0_split <- cont_1
I0731 22:50:28.295771 15694 net.cpp:399] cont_1_lstm2_cont_slice_0_split -> cont_1_lstm2_cont_slice_0_split_0
I0731 22:50:28.295779 15694 net.cpp:399] cont_1_lstm2_cont_slice_0_split -> cont_1_lstm2_cont_slice_0_split_1
I0731 22:50:28.295832 15694 net.cpp:141] Setting up cont_1_lstm2_cont_slice_0_split
I0731 22:50:28.295841 15694 net.cpp:148] Top shape: 1 1 (1)
I0731 22:50:28.295847 15694 net.cpp:148] Top shape: 1 1 (1)
I0731 22:50:28.295852 15694 net.cpp:156] Memory required for data: 14020
I0731 22:50:28.295856 15694 layer_factory.hpp:77] Creating layer lstm2_x_transform
I0731 22:50:28.295871 15694 net.cpp:91] Creating Layer lstm2_x_transform
I0731 22:50:28.295876 15694 net.cpp:425] lstm2_x_transform <- x
I0731 22:50:28.295883 15694 net.cpp:399] lstm2_x_transform -> W_xc_x
I0731 22:50:28.359809 15694 net.cpp:141] Setting up lstm2_x_transform
I0731 22:50:28.359869 15694 net.cpp:148] Top shape: 1 1 4000 (4000)
I0731 22:50:28.359876 15694 net.cpp:156] Memory required for data: 30020
I0731 22:50:28.359902 15694 layer_factory.hpp:77] Creating layer lstm2_W_xc_x_slice
I0731 22:50:28.359922 15694 net.cpp:91] Creating Layer lstm2_W_xc_x_slice
I0731 22:50:28.359930 15694 net.cpp:425] lstm2_W_xc_x_slice <- W_xc_x
I0731 22:50:28.359944 15694 net.cpp:399] lstm2_W_xc_x_slice -> W_xc_x_1
I0731 22:50:28.359995 15694 net.cpp:141] Setting up lstm2_W_xc_x_slice
I0731 22:50:28.360016 15694 net.cpp:148] Top shape: 1 1 4000 (4000)
I0731 22:50:28.360021 15694 net.cpp:156] Memory required for data: 46020
I0731 22:50:28.360026 15694 layer_factory.hpp:77] Creating layer lstm2_h_conted_0
I0731 22:50:28.360038 15694 net.cpp:91] Creating Layer lstm2_h_conted_0
I0731 22:50:28.360044 15694 net.cpp:425] lstm2_h_conted_0 <- h_0
I0731 22:50:28.360050 15694 net.cpp:425] lstm2_h_conted_0 <- cont_1_lstm2_cont_slice_0_split_0
I0731 22:50:28.360060 15694 net.cpp:399] lstm2_h_conted_0 -> h_conted_0
I0731 22:50:28.360167 15694 net.cpp:141] Setting up lstm2_h_conted_0
I0731 22:50:28.360177 15694 net.cpp:148] Top shape: 1 1 1000 (1000)
I0731 22:50:28.360183 15694 net.cpp:156] Memory required for data: 50020
I0731 22:50:28.360188 15694 layer_factory.hpp:77] Creating layer lstm2_transform_1
I0731 22:50:28.360203 15694 net.cpp:91] Creating Layer lstm2_transform_1
I0731 22:50:28.360209 15694 net.cpp:425] lstm2_transform_1 <- h_conted_0
I0731 22:50:28.360219 15694 net.cpp:399] lstm2_transform_1 -> W_hc_h_0
I0731 22:50:28.403451 15694 net.cpp:141] Setting up lstm2_transform_1
I0731 22:50:28.403502 15694 net.cpp:148] Top shape: 1 1 4000 (4000)
I0731 22:50:28.403509 15694 net.cpp:156] Memory required for data: 66020
I0731 22:50:28.403532 15694 layer_factory.hpp:77] Creating layer lstm2_gate_input_1
I0731 22:50:28.403555 15694 net.cpp:91] Creating Layer lstm2_gate_input_1
I0731 22:50:28.403564 15694 net.cpp:425] lstm2_gate_input_1 <- W_hc_h_0
I0731 22:50:28.403573 15694 net.cpp:425] lstm2_gate_input_1 <- W_xc_x_1
I0731 22:50:28.403583 15694 net.cpp:399] lstm2_gate_input_1 -> gate_input_1
I0731 22:50:28.403640 15694 net.cpp:141] Setting up lstm2_gate_input_1
I0731 22:50:28.403648 15694 net.cpp:148] Top shape: 1 1 4000 (4000)
I0731 22:50:28.403653 15694 net.cpp:156] Memory required for data: 82020
I0731 22:50:28.403658 15694 layer_factory.hpp:77] Creating layer lstm2_unit_1
I0731 22:50:28.403672 15694 net.cpp:91] Creating Layer lstm2_unit_1
I0731 22:50:28.403677 15694 net.cpp:425] lstm2_unit_1 <- c_0
I0731 22:50:28.403684 15694 net.cpp:425] lstm2_unit_1 <- gate_input_1
I0731 22:50:28.403690 15694 net.cpp:425] lstm2_unit_1 <- cont_1_lstm2_cont_slice_0_split_1
I0731 22:50:28.403697 15694 net.cpp:399] lstm2_unit_1 -> c_1
I0731 22:50:28.403707 15694 net.cpp:399] lstm2_unit_1 -> h_1
I0731 22:50:28.403782 15694 net.cpp:141] Setting up lstm2_unit_1
I0731 22:50:28.403794 15694 net.cpp:148] Top shape: 1 1 1000 (1000)
I0731 22:50:28.403800 15694 net.cpp:148] Top shape: 1 1 1000 (1000)
I0731 22:50:28.403803 15694 net.cpp:156] Memory required for data: 90020
I0731 22:50:28.403808 15694 layer_factory.hpp:77] Creating layer lstm2_
I0731 22:50:28.403818 15694 net.cpp:91] Creating Layer lstm2_
I0731 22:50:28.403822 15694 net.cpp:425] lstm2_ <- c_1
I0731 22:50:28.403831 15694 net.cpp:399] lstm2_ -> c_T
I0731 22:50:28.403869 15694 net.cpp:141] Setting up lstm2_
I0731 22:50:28.403879 15694 net.cpp:148] Top shape: 1 1 1000 (1000)
I0731 22:50:28.403883 15694 net.cpp:156] Memory required for data: 94020
I0731 22:50:28.403888 15694 layer_factory.hpp:77] Creating layer lstm2_h_concat
I0731 22:50:28.403899 15694 net.cpp:91] Creating Layer lstm2_h_concat
I0731 22:50:28.403904 15694 net.cpp:425] lstm2_h_concat <- h_1
I0731 22:50:28.403911 15694 net.cpp:399] lstm2_h_concat -> h
I0731 22:50:28.403954 15694 net.cpp:141] Setting up lstm2_h_concat
I0731 22:50:28.403962 15694 net.cpp:148] Top shape: 1 1 1000 (1000)
I0731 22:50:28.403967 15694 net.cpp:156] Memory required for data: 98020
I0731 22:50:28.403972 15694 layer_factory.hpp:77] Creating layer h_pseudoloss
I0731 22:50:28.403982 15694 net.cpp:91] Creating Layer h_pseudoloss
I0731 22:50:28.403987 15694 net.cpp:425] h_pseudoloss <- h
I0731 22:50:28.403995 15694 net.cpp:399] h_pseudoloss -> h_pseudoloss
I0731 22:50:28.404109 15694 net.cpp:141] Setting up h_pseudoloss
…
