…
Java HotSpot(TM) 64-Bit Server VM warning: You have loaded library /tmp/cvld3858342058489127648/libopencv_java310.xine1.so which might have disabled stack guard. The VM will try to fix the stack guard now.
It's highly recommended that you fix the library with 'execstack -c <libfile>', or link it with '-z noexecstack'.
WARNING: Logging before InitGoogleLogging() is written to STDERR
I0802 07:48:31.790536 22183 net.cpp:49] Initializing net from parameters: 
name: "CaffeNet"
state {
  phase: TEST
}
layer {
  name: "data"
  type: "Input"
  top: "data"
  input_param {
    shape {
      dim: 10
      dim: 3
      dim: 227
      dim: 227
    }
  }
}
layer {
  name: "conv1"
  type: "Convolution"
  bottom: "data"
  top: "conv1"
  convolution_param {
    num_output: 96
    kernel_size: 11
    stride: 4
  }
}
layer {
  name: "relu1"
  type: "ReLU"
  bottom: "conv1"
  top: "conv1"
}
layer {
  name: "pool1"
  type: "Pooling"
  bottom: "conv1"
  top: "pool1"
  pooling_param {
    pool: MAX
    kernel_size: 3
    stride: 2
  }
}
layer {
  name: "norm1"
  type: "LRN"
  bottom: "pool1"
  top: "norm1"
  lrn_param {
    local_size: 5
    alpha: 0.0001
    beta: 0.75
  }
}
layer {
  name: "conv2"
  type: "Convolution"
  bottom: "norm1"
  top: "conv2"
  convolution_param {
    num_output: 256
    pad: 2
    kernel_size: 5
    group: 2
  }
}
layer {
  name: "relu2"
  type: "ReLU"
  bottom: "conv2"
  top: "conv2"
}
layer {
  name: "pool2"
  type: "Pooling"
  bottom: "conv2"
  top: "pool2"
  pooling_param {
    pool: MAX
    kernel_size: 3
    stride: 2
  }
}
layer {
  name: "norm2"
  type: "LRN"
  bottom: "pool2"
  top: "norm2"
  lrn_param {
    local_size: 5
    alpha: 0.0001
    beta: 0.75
  }
}
layer {
  name: "conv3"
  type: "Convolution"
  bottom: "norm2"
  top: "conv3"
  convolution_param {
    num_output: 384
    pad: 1
    kernel_size: 3
  }
}
layer {
  name: "relu3"
  type: "ReLU"
  bottom: "conv3"
  top: "conv3"
}
layer {
  name: "conv4"
  type: "Convolution"
  bottom: "conv3"
  top: "conv4"
  convolution_param {
    num_output: 384
    pad: 1
    kernel_size: 3
    group: 2
  }
}
layer {
  name: "relu4"
  type: "ReLU"
  bottom: "conv4"
  top: "conv4"
}
layer {
  name: "conv5"
  type: "Convolution"
  bottom: "conv4"
  top: "conv5"
  convolution_param {
    num_output: 256
    pad: 1
    kernel_size: 3
    group: 2
  }
}
layer {
  name: "relu5"
  type: "ReLU"
  bottom: "conv5"
  top: "conv5"
}
layer {
  name: "pool5"
  type: "Pooling"
  bottom: "conv5"
  top: "pool5"
  pooling_param {
    pool: MAX
    kernel_size: 3
    stride: 2
  }
}
layer {
  name: "fc6"
  type: "InnerProduct"
  bottom: "pool5"
  top: "fc6"
  inner_product_param {
    num_output: 4096
  }
}
layer {
  name: "relu6"
  type: "ReLU"
  bottom: "fc6"
  top: "fc6"
}
layer {
  name: "drop6"
  type: "Dropout"
  bottom: "fc6"
  top: "fc6"
  dropout_param {
    dropout_ratio: 0.5
  }
}
layer {
  name: "fc7"
  type: "InnerProduct"
  bottom: "fc6"
  top: "fc7"
  inner_product_param {
    num_output: 4096
  }
}
layer {
  name: "relu7"
  type: "ReLU"
  bottom: "fc7"
  top: "fc7"
}
layer {
  name: "drop7"
  type: "Dropout"
  bottom: "fc7"
  top: "fc7"
  dropout_param {
    dropout_ratio: 0.5
  }
}
layer {
  name: "fc8"
  type: "InnerProduct"
  bottom: "fc7"
  top: "fc8"
  inner_product_param {
    num_output: 1000
  }
}
layer {
  name: "prob"
  type: "Softmax"
  bottom: "fc8"
  top: "prob"
}
I0802 07:48:31.790753 22183 layer_factory.hpp:77] Creating layer data
I0802 07:48:31.790781 22183 net.cpp:91] Creating Layer data
I0802 07:48:31.790792 22183 net.cpp:399] data -> data
I0802 07:48:32.249897 22183 net.cpp:141] Setting up data
I0802 07:48:32.249994 22183 net.cpp:148] Top shape: 10 3 227 227 (1545870)
I0802 07:48:32.250002 22183 net.cpp:156] Memory required for data: 6183480
I0802 07:48:32.250020 22183 layer_factory.hpp:77] Creating layer conv1
I0802 07:48:32.250046 22183 net.cpp:91] Creating Layer conv1
I0802 07:48:32.250056 22183 net.cpp:425] conv1 <- data
I0802 07:48:32.250068 22183 net.cpp:399] conv1 -> conv1
I0802 07:48:32.434581 22183 net.cpp:141] Setting up conv1
I0802 07:48:32.434640 22183 net.cpp:148] Top shape: 10 96 55 55 (2904000)
I0802 07:48:32.434648 22183 net.cpp:156] Memory required for data: 17799480
I0802 07:48:32.434674 22183 layer_factory.hpp:77] Creating layer relu1
I0802 07:48:32.434689 22183 net.cpp:91] Creating Layer relu1
I0802 07:48:32.434695 22183 net.cpp:425] relu1 <- conv1
I0802 07:48:32.434703 22183 net.cpp:386] relu1 -> conv1 (in-place)
I0802 07:48:32.435109 22183 net.cpp:141] Setting up relu1
I0802 07:48:32.435122 22183 net.cpp:148] Top shape: 10 96 55 55 (2904000)
I0802 07:48:32.435127 22183 net.cpp:156] Memory required for data: 29415480
I0802 07:48:32.435132 22183 layer_factory.hpp:77] Creating layer pool1
I0802 07:48:32.435144 22183 net.cpp:91] Creating Layer pool1
I0802 07:48:32.435148 22183 net.cpp:425] pool1 <- conv1
I0802 07:48:32.435156 22183 net.cpp:399] pool1 -> pool1
I0802 07:48:32.435225 22183 net.cpp:141] Setting up pool1
I0802 07:48:32.435235 22183 net.cpp:148] Top shape: 10 96 27 27 (699840)
I0802 07:48:32.435238 22183 net.cpp:156] Memory required for data: 32214840
I0802 07:48:32.435243 22183 layer_factory.hpp:77] Creating layer norm1
I0802 07:48:32.435258 22183 net.cpp:91] Creating Layer norm1
I0802 07:48:32.435263 22183 net.cpp:425] norm1 <- pool1
I0802 07:48:32.435269 22183 net.cpp:399] norm1 -> norm1
I0802 07:48:32.435727 22183 net.cpp:141] Setting up norm1
I0802 07:48:32.435739 22183 net.cpp:148] Top shape: 10 96 27 27 (699840)
I0802 07:48:32.435745 22183 net.cpp:156] Memory required for data: 35014200
I0802 07:48:32.435750 22183 layer_factory.hpp:77] Creating layer conv2
I0802 07:48:32.435765 22183 net.cpp:91] Creating Layer conv2
I0802 07:48:32.435770 22183 net.cpp:425] conv2 <- norm1
I0802 07:48:32.435778 22183 net.cpp:399] conv2 -> conv2
I0802 07:48:32.439507 22183 net.cpp:141] Setting up conv2
I0802 07:48:32.439527 22183 net.cpp:148] Top shape: 10 256 27 27 (1866240)
I0802 07:48:32.439532 22183 net.cpp:156] Memory required for data: 42479160
I0802 07:48:32.439561 22183 layer_factory.hpp:77] Creating layer relu2
I0802 07:48:32.439570 22183 net.cpp:91] Creating Layer relu2
I0802 07:48:32.439574 22183 net.cpp:425] relu2 <- conv2
I0802 07:48:32.439584 22183 net.cpp:386] relu2 -> conv2 (in-place)
I0802 07:48:32.439999 22183 net.cpp:141] Setting up relu2
I0802 07:48:32.440031 22183 net.cpp:148] Top shape: 10 256 27 27 (1866240)
I0802 07:48:32.440037 22183 net.cpp:156] Memory required for data: 49944120
I0802 07:48:32.440042 22183 layer_factory.hpp:77] Creating layer pool2
I0802 07:48:32.440053 22183 net.cpp:91] Creating Layer pool2
I0802 07:48:32.440058 22183 net.cpp:425] pool2 <- conv2
I0802 07:48:32.440065 22183 net.cpp:399] pool2 -> pool2
I0802 07:48:32.440121 22183 net.cpp:141] Setting up pool2
I0802 07:48:32.440130 22183 net.cpp:148] Top shape: 10 256 13 13 (432640)
I0802 07:48:32.440135 22183 net.cpp:156] Memory required for data: 51674680
I0802 07:48:32.440140 22183 layer_factory.hpp:77] Creating layer norm2
I0802 07:48:32.440148 22183 net.cpp:91] Creating Layer norm2
I0802 07:48:32.440153 22183 net.cpp:425] norm2 <- pool2
I0802 07:48:32.440162 22183 net.cpp:399] norm2 -> norm2
I0802 07:48:32.440417 22183 net.cpp:141] Setting up norm2
I0802 07:48:32.440430 22183 net.cpp:148] Top shape: 10 256 13 13 (432640)
I0802 07:48:32.440435 22183 net.cpp:156] Memory required for data: 53405240
I0802 07:48:32.440439 22183 layer_factory.hpp:77] Creating layer conv3
I0802 07:48:32.440449 22183 net.cpp:91] Creating Layer conv3
I0802 07:48:32.440454 22183 net.cpp:425] conv3 <- norm2
I0802 07:48:32.440464 22183 net.cpp:399] conv3 -> conv3
I0802 07:48:32.443981 22183 net.cpp:141] Setting up conv3
I0802 07:48:32.443997 22183 net.cpp:148] Top shape: 10 384 13 13 (648960)
I0802 07:48:32.444022 22183 net.cpp:156] Memory required for data: 56001080
I0802 07:48:32.444041 22183 layer_factory.hpp:77] Creating layer relu3
I0802 07:48:32.444049 22183 net.cpp:91] Creating Layer relu3
I0802 07:48:32.444054 22183 net.cpp:425] relu3 <- conv3
I0802 07:48:32.444062 22183 net.cpp:386] relu3 -> conv3 (in-place)
I0802 07:48:32.444514 22183 net.cpp:141] Setting up relu3
I0802 07:48:32.444525 22183 net.cpp:148] Top shape: 10 384 13 13 (648960)
I0802 07:48:32.444530 22183 net.cpp:156] Memory required for data: 58596920
I0802 07:48:32.444535 22183 layer_factory.hpp:77] Creating layer conv4
I0802 07:48:32.444550 22183 net.cpp:91] Creating Layer conv4
I0802 07:48:32.444553 22183 net.cpp:425] conv4 <- conv3
I0802 07:48:32.444561 22183 net.cpp:399] conv4 -> conv4
I0802 07:48:32.448374 22183 net.cpp:141] Setting up conv4
I0802 07:48:32.448391 22183 net.cpp:148] Top shape: 10 384 13 13 (648960)
I0802 07:48:32.448396 22183 net.cpp:156] Memory required for data: 61192760
I0802 07:48:32.448418 22183 layer_factory.hpp:77] Creating layer relu4
I0802 07:48:32.448426 22183 net.cpp:91] Creating Layer relu4
I0802 07:48:32.448431 22183 net.cpp:425] relu4 <- conv4
I0802 07:48:32.448441 22183 net.cpp:386] relu4 -> conv4 (in-place)
I0802 07:48:32.448856 22183 net.cpp:141] Setting up relu4
I0802 07:48:32.448868 22183 net.cpp:148] Top shape: 10 384 13 13 (648960)
I0802 07:48:32.448873 22183 net.cpp:156] Memory required for data: 63788600
I0802 07:48:32.448879 22183 layer_factory.hpp:77] Creating layer conv5
I0802 07:48:32.448891 22183 net.cpp:91] Creating Layer conv5
I0802 07:48:32.448896 22183 net.cpp:425] conv5 <- conv4
I0802 07:48:32.448906 22183 net.cpp:399] conv5 -> conv5
I0802 07:48:32.452566 22183 net.cpp:141] Setting up conv5
I0802 07:48:32.452584 22183 net.cpp:148] Top shape: 10 256 13 13 (432640)
I0802 07:48:32.452589 22183 net.cpp:156] Memory required for data: 65519160
I0802 07:48:32.452613 22183 layer_factory.hpp:77] Creating layer relu5
I0802 07:48:32.452622 22183 net.cpp:91] Creating Layer relu5
I0802 07:48:32.452626 22183 net.cpp:425] relu5 <- conv5
I0802 07:48:32.452636 22183 net.cpp:386] relu5 -> conv5 (in-place)
I0802 07:48:32.453063 22183 net.cpp:141] Setting up relu5
I0802 07:48:32.453076 22183 net.cpp:148] Top shape: 10 256 13 13 (432640)
I0802 07:48:32.453080 22183 net.cpp:156] Memory required for data: 67249720
I0802 07:48:32.453085 22183 layer_factory.hpp:77] Creating layer pool5
I0802 07:48:32.453097 22183 net.cpp:91] Creating Layer pool5
I0802 07:48:32.453102 22183 net.cpp:425] pool5 <- conv5
I0802 07:48:32.453109 22183 net.cpp:399] pool5 -> pool5
I0802 07:48:32.453168 22183 net.cpp:141] Setting up pool5
I0802 07:48:32.453177 22183 net.cpp:148] Top shape: 10 256 6 6 (92160)
I0802 07:48:32.453181 22183 net.cpp:156] Memory required for data: 67618360
I0802 07:48:32.453186 22183 layer_factory.hpp:77] Creating layer fc6
I0802 07:48:32.453205 22183 net.cpp:91] Creating Layer fc6
I0802 07:48:32.453210 22183 net.cpp:425] fc6 <- pool5
I0802 07:48:32.453217 22183 net.cpp:399] fc6 -> fc6
I0802 07:48:32.551692 22183 net.cpp:141] Setting up fc6
I0802 07:48:32.551749 22183 net.cpp:148] Top shape: 10 4096 (40960)
I0802 07:48:32.551755 22183 net.cpp:156] Memory required for data: 67782200
I0802 07:48:32.551770 22183 layer_factory.hpp:77] Creating layer relu6
I0802 07:48:32.551789 22183 net.cpp:91] Creating Layer relu6
I0802 07:48:32.551795 22183 net.cpp:425] relu6 <- fc6
I0802 07:48:32.551803 22183 net.cpp:386] relu6 -> fc6 (in-place)
I0802 07:48:32.552134 22183 net.cpp:141] Setting up relu6
I0802 07:48:32.552145 22183 net.cpp:148] Top shape: 10 4096 (40960)
I0802 07:48:32.552150 22183 net.cpp:156] Memory required for data: 67946040
I0802 07:48:32.552155 22183 layer_factory.hpp:77] Creating layer drop6
I0802 07:48:32.552165 22183 net.cpp:91] Creating Layer drop6
I0802 07:48:32.552170 22183 net.cpp:425] drop6 <- fc6
I0802 07:48:32.552180 22183 net.cpp:386] drop6 -> fc6 (in-place)
I0802 07:48:32.552229 22183 net.cpp:141] Setting up drop6
I0802 07:48:32.552237 22183 net.cpp:148] Top shape: 10 4096 (40960)
I0802 07:48:32.552242 22183 net.cpp:156] Memory required for data: 68109880
I0802 07:48:32.552247 22183 layer_factory.hpp:77] Creating layer fc7
I0802 07:48:32.552258 22183 net.cpp:91] Creating Layer fc7
I0802 07:48:32.552261 22183 net.cpp:425] fc7 <- fc6
I0802 07:48:32.552268 22183 net.cpp:399] fc7 -> fc7
I0802 07:48:32.596587 22183 net.cpp:141] Setting up fc7
I0802 07:48:32.596647 22183 net.cpp:148] Top shape: 10 4096 (40960)
I0802 07:48:32.596653 22183 net.cpp:156] Memory required for data: 68273720
I0802 07:48:32.596668 22183 layer_factory.hpp:77] Creating layer relu7
I0802 07:48:32.596685 22183 net.cpp:91] Creating Layer relu7
I0802 07:48:32.596693 22183 net.cpp:425] relu7 <- fc7
I0802 07:48:32.596701 22183 net.cpp:386] relu7 -> fc7 (in-place)
I0802 07:48:32.597468 22183 net.cpp:141] Setting up relu7
I0802 07:48:32.597486 22183 net.cpp:148] Top shape: 10 4096 (40960)
I0802 07:48:32.597491 22183 net.cpp:156] Memory required for data: 68437560
I0802 07:48:32.597496 22183 layer_factory.hpp:77] Creating layer drop7
I0802 07:48:32.597506 22183 net.cpp:91] Creating Layer drop7
I0802 07:48:32.597509 22183 net.cpp:425] drop7 <- fc7
I0802 07:48:32.597518 22183 net.cpp:386] drop7 -> fc7 (in-place)
I0802 07:48:32.597555 22183 net.cpp:141] Setting up drop7
I0802 07:48:32.597563 22183 net.cpp:148] Top shape: 10 4096 (40960)
I0802 07:48:32.597568 22183 net.cpp:156] Memory required for data: 68601400
I0802 07:48:32.597573 22183 layer_factory.hpp:77] Creating layer fc8
I0802 07:48:32.597586 22183 net.cpp:91] Creating Layer fc8
I0802 07:48:32.597591 22183 net.cpp:425] fc8 <- fc7
I0802 07:48:32.597599 22183 net.cpp:399] fc8 -> fc8
I0802 07:48:32.609257 22183 net.cpp:141] Setting up fc8
I0802 07:48:32.609302 22183 net.cpp:148] Top shape: 10 1000 (10000)
I0802 07:48:32.609308 22183 net.cpp:156] Memory required for data: 68641400
I0802 07:48:32.609323 22183 layer_factory.hpp:77] Creating layer prob
I0802 07:48:32.609338 22183 net.cpp:91] Creating Layer prob
I0802 07:48:32.609345 22183 net.cpp:425] prob <- fc8
I0802 07:48:32.609354 22183 net.cpp:399] prob -> prob
I0802 07:48:32.609764 22183 net.cpp:141] Setting up prob
I0802 07:48:32.609776 22183 net.cpp:148] Top shape: 10 1000 (10000)
I0802 07:48:32.609781 22183 net.cpp:156] Memory required for data: 68681400
I0802 07:48:32.609786 22183 net.cpp:219] prob does not need backward computation.
I0802 07:48:32.609791 22183 net.cpp:219] fc8 does not need backward computation.
I0802 07:48:32.609796 22183 net.cpp:219] drop7 does not need backward computation.
I0802 07:48:32.609799 22183 net.cpp:219] relu7 does not need backward computation.
…
W0802 07:48:32.616695 22173 upgrade_proto.cpp:71] Note that future Caffe releases will only support input layers and not input fields.
I0802 07:48:32.616981 22173 net.cpp:49] Initializing net from parameters: 
name: "s2vt:features_to_lstm"
state {
  phase: TEST
}
layer {
  name: "input"
  type: "Input"
  top: "frames_fc7"
  top: "cont_sentence"
  top: "input_sentence"
  top: "stage_indicator"
  input_param {
    shape {
      dim: 1
      dim: 4096
    }
    shape {
      dim: 1
      dim: 1
    }
    shape {
      dim: 1
      dim: 1
    }
    shape {
      dim: 1
      dim: 1
    }
  }
}
layer {
  name: "embed_encoder"
  type: "InnerProduct"
  bottom: "frames_fc7"
  top: "embedded_in_frames"
  param {
    lr_mult: 1
    decay_mult: 1
  }
  param {
    lr_mult: 2
    decay_mult: 0
  }
  inner_product_param {
    num_output: 500
    weight_filler {
      type: "xavier"
    }
    bias_filler {
      type: "constant"
      value: 0.2
    }
  }
}
layer {
  name: "reshape_frames"
  type: "Reshape"
  bottom: "embedded_in_frames"
  top: "embedded_input_frames"
  reshape_param {
    shape {
      dim: 1
      dim: 1
      dim: 500
    }
  }
}
layer {
  name: "reshape_stage_indicator"
  type: "Reshape"
  bottom: "stage_indicator"
  top: "reshaped_stage_indicator"
  reshape_param {
    shape {
      dim: 1
      dim: 1
      dim: 1
    }
  }
}
layer {
  name: "embedding"
  type: "Embed"
  bottom: "input_sentence"
  top: "embedded_input_sentence"
  param {
    lr_mult: 1
  }
  embed_param {
    num_output: 500
    input_dim: 46168
    bias_term: false
    weight_filler {
      type: "uniform"
      min: -0.08
      max: 0.08
    }
  }
}
layer {
  name: "lstm1"
  type: "LSTM"
  bottom: "embedded_input_frames"
  bottom: "cont_sentence"
  top: "lstm1"
  recurrent_param {
    num_output: 1000
    weight_filler {
      type: "uniform"
      min: -0.08
      max: 0.08
    }
    bias_filler {
      type: "constant"
      value: 0
    }
  }
}
layer {
  name: "concat"
  type: "Concat"
  bottom: "lstm1"
  bottom: "embedded_input_sentence"
  bottom: "reshaped_stage_indicator"
  top: "lstm1_video_sequence"
  concat_param {
    concat_dim: 2
  }
}
layer {
  name: "lstm2"
  type: "LSTM"
  bottom: "lstm1_video_sequence"
  bottom: "cont_sentence"
  top: "lstm2"
  recurrent_param {
    num_output: 1000
    weight_filler {
      type: "uniform"
      min: -0.08
      max: 0.08
    }
    bias_filler {
      type: "constant"
      value: 0
    }
  }
}
layer {
  name: "predict"
  type: "InnerProduct"
  bottom: "lstm2"
  top: "predict"
  param {
    lr_mult: 1
    decay_mult: 1
  }
  param {
    lr_mult: 2
    decay_mult: 0
  }
  inner_product_param {
    num_output: 46168
    weight_filler {
      type: "uniform"
      min: -0.08
      max: 0.08
    }
    bias_filler {
      type: "constant"
      value: 0
    }
    axis: 2
  }
}
layer {
  name: "probs"
  type: "Softmax"
  bottom: "predict"
  top: "probs"
  softmax_param {
    axis: 2
  }
}
I0802 07:48:32.617099 22173 layer_factory.hpp:77] Creating layer input
I0802 07:48:32.617125 22173 net.cpp:91] Creating Layer input
I0802 07:48:32.617135 22173 net.cpp:399] input -> frames_fc7
I0802 07:48:32.617154 22173 net.cpp:399] input -> cont_sentence
I0802 07:48:32.617166 22173 net.cpp:399] input -> input_sentence
I0802 07:48:32.617178 22173 net.cpp:399] input -> stage_indicator
I0802 07:48:32.617310 22173 net.cpp:141] Setting up input
I0802 07:48:32.617323 22173 net.cpp:148] Top shape: 1 4096 (4096)
I0802 07:48:32.617331 22173 net.cpp:148] Top shape: 1 1 (1)
I0802 07:48:32.617336 22173 net.cpp:148] Top shape: 1 1 (1)
I0802 07:48:32.617343 22173 net.cpp:148] Top shape: 1 1 (1)
I0802 07:48:32.617347 22173 net.cpp:156] Memory required for data: 16396
I0802 07:48:32.617354 22173 layer_factory.hpp:77] Creating layer cont_sentence_input_1_split
I0802 07:48:32.617374 22173 net.cpp:91] Creating Layer cont_sentence_input_1_split
I0802 07:48:32.617380 22173 net.cpp:425] cont_sentence_input_1_split <- cont_sentence
I0802 07:48:32.617399 22173 net.cpp:399] cont_sentence_input_1_split -> cont_sentence_input_1_split_0
I0802 07:48:32.617411 22173 net.cpp:399] cont_sentence_input_1_split -> cont_sentence_input_1_split_1
I0802 07:48:32.617467 22173 net.cpp:141] Setting up cont_sentence_input_1_split
I0802 07:48:32.617477 22173 net.cpp:148] Top shape: 1 1 (1)
I0802 07:48:32.617483 22173 net.cpp:148] Top shape: 1 1 (1)
I0802 07:48:32.617488 22173 net.cpp:156] Memory required for data: 16404
I0802 07:48:32.617493 22173 layer_factory.hpp:77] Creating layer embed_encoder
I0802 07:48:32.617506 22173 net.cpp:91] Creating Layer embed_encoder
I0802 07:48:32.617511 22173 net.cpp:425] embed_encoder <- frames_fc7
I0802 07:48:32.617522 22173 net.cpp:399] embed_encoder -> embedded_in_frames
I0802 07:48:32.640655 22173 net.cpp:141] Setting up embed_encoder
I0802 07:48:32.640703 22173 net.cpp:148] Top shape: 1 500 (500)
I0802 07:48:32.640709 22173 net.cpp:156] Memory required for data: 18404
I0802 07:48:32.640733 22173 layer_factory.hpp:77] Creating layer reshape_frames
I0802 07:48:32.640755 22173 net.cpp:91] Creating Layer reshape_frames
I0802 07:48:32.640764 22173 net.cpp:425] reshape_frames <- embedded_in_frames
I0802 07:48:32.640776 22173 net.cpp:399] reshape_frames -> embedded_input_frames
I0802 07:48:32.640856 22173 net.cpp:141] Setting up reshape_frames
I0802 07:48:32.640867 22173 net.cpp:148] Top shape: 1 1 500 (500)
I0802 07:48:32.640872 22173 net.cpp:156] Memory required for data: 20404
I0802 07:48:32.640877 22173 layer_factory.hpp:77] Creating layer reshape_stage_indicator
I0802 07:48:32.640889 22173 net.cpp:91] Creating Layer reshape_stage_indicator
I0802 07:48:32.640895 22173 net.cpp:425] reshape_stage_indicator <- stage_indicator
I0802 07:48:32.640904 22173 net.cpp:399] reshape_stage_indicator -> reshaped_stage_indicator
I0802 07:48:32.640951 22173 net.cpp:141] Setting up reshape_stage_indicator
I0802 07:48:32.640962 22173 net.cpp:148] Top shape: 1 1 1 (1)
I0802 07:48:32.640967 22173 net.cpp:156] Memory required for data: 20408
I0802 07:48:32.640972 22173 layer_factory.hpp:77] Creating layer embedding
I0802 07:48:32.640986 22173 net.cpp:91] Creating Layer embedding
I0802 07:48:32.640992 22173 net.cpp:425] embedding <- input_sentence
I0802 07:48:32.641001 22173 net.cpp:399] embedding -> embedded_input_sentence
I0802 07:48:32.828519 22183 upgrade_proto.cpp:43] Attempting to upgrade input file specified using deprecated transformation parameters: /tmp/cvld3858342058489127648/bvlc_reference_caffenet.caffemodel
I0802 07:48:32.828560 22183 upgrade_proto.cpp:46] Successfully upgraded file specified using deprecated data transformation parameters.
W0802 07:48:32.828567 22183 upgrade_proto.cpp:48] Note that future Caffe releases will only support transform_param messages for transformation fields.
I0802 07:48:32.828570 22183 upgrade_proto.cpp:52] Attempting to upgrade input file specified using deprecated V1LayerParameter: /tmp/cvld3858342058489127648/bvlc_reference_caffenet.caffemodel
I0802 07:48:32.883383 22173 net.cpp:141] Setting up embedding
I0802 07:48:32.883442 22173 net.cpp:148] Top shape: 1 1 500 (500)
I0802 07:48:32.883448 22173 net.cpp:156] Memory required for data: 22408
I0802 07:48:32.883468 22173 layer_factory.hpp:77] Creating layer lstm1
I0802 07:48:32.883493 22173 net.cpp:91] Creating Layer lstm1
I0802 07:48:32.883502 22173 net.cpp:425] lstm1 <- embedded_input_frames
I0802 07:48:32.883512 22173 net.cpp:425] lstm1 <- cont_sentence_input_1_split_0
I0802 07:48:32.883522 22173 net.cpp:399] lstm1 -> lstm1
I0802 07:48:32.883564 22173 recurrent_layer.cpp:20] Initializing recurrent layer: assuming input batch contains 1 timesteps of 1 independent streams.
I0802 07:48:32.883963 22173 net.cpp:49] Initializing net from parameters: 
layer {
  name: "lstm1_"
  type: "Input"
  top: "x"
  top: "cont"
  input_param {
    shape {
      dim: 1
      dim: 1
      dim: 500
    }
    shape {
      dim: 1
      dim: 1
    }
  }
}
layer {
  name: "lstm1_"
  type: "Input"
  top: "c_0"
  top: "h_0"
  input_param {
    shape {
      dim: 1
      dim: 1
      dim: 1000
    }
    shape {
      dim: 1
      dim: 1
      dim: 1000
    }
  }
}
layer {
  name: "lstm1_cont_slice"
  type: "Slice"
  bottom: "cont"
  top: "cont_1"
  slice_param {
    axis: 0
  }
}
layer {
  name: "lstm1_x_transform"
  type: "InnerProduct"
  bottom: "x"
  top: "W_xc_x"
  param {
    name: "W_xc"
  }
  param {
    name: "b_c"
  }
  propagate_down: true
  inner_product_param {
    num_output: 4000
    bias_term: true
    weight_filler {
      type: "uniform"
      min: -0.08
      max: 0.08
    }
    bias_filler {
      type: "constant"
      value: 0
    }
    axis: 2
  }
}
layer {
  name: "lstm1_W_xc_x_slice"
  type: "Slice"
  bottom: "W_xc_x"
  top: "W_xc_x_1"
  slice_param {
    axis: 0
  }
}
layer {
  name: "lstm1_h_conted_0"
  type: "Scale"
  bottom: "h_0"
  bottom: "cont_1"
  top: "h_conted_0"
  scale_param {
    axis: 0
  }
}
layer {
  name: "lstm1_transform_1"
  type: "InnerProduct"
  bottom: "h_conted_0"
  top: "W_hc_h_0"
  param {
    name: "W_hc"
  }
  inner_product_param {
    num_output: 4000
    bias_term: false
    weight_filler {
      type: "uniform"
      min: -0.08
      max: 0.08
    }
    axis: 2
  }
}
layer {
  name: "lstm1_gate_input_1"
  type: "Eltwise"
  bottom: "W_hc_h_0"
  bottom: "W_xc_x_1"
  top: "gate_input_1"
  eltwise_param {
    operation: SUM
  }
}
layer {
  name: "lstm1_unit_1"
  type: "LSTMUnit"
  bottom: "c_0"
  bottom: "gate_input_1"
  bottom: "cont_1"
  top: "c_1"
  top: "h_1"
}
layer {
  name: "lstm1_"
  type: "Split"
  bottom: "c_1"
  top: "c_T"
}
layer {
  name: "lstm1_h_concat"
  type: "Concat"
  bottom: "h_1"
  top: "h"
  concat_param {
    axis: 0
  }
}
layer {
  name: "h_pseudoloss"
  type: "Reduction"
  bottom: "h"
  top: "h_pseudoloss"
  loss_weight: 1
}
I0802 07:48:32.884074 22173 layer_factory.hpp:77] Creating layer lstm1_
I0802 07:48:32.884089 22173 net.cpp:91] Creating Layer lstm1_
I0802 07:48:32.884096 22173 net.cpp:399] lstm1_ -> x
I0802 07:48:32.884109 22173 net.cpp:399] lstm1_ -> cont
I0802 07:48:32.884181 22173 net.cpp:141] Setting up lstm1_
I0802 07:48:32.884196 22173 net.cpp:148] Top shape: 1 1 500 (500)
I0802 07:48:32.884202 22173 net.cpp:148] Top shape: 1 1 (1)
I0802 07:48:32.884207 22173 net.cpp:156] Memory required for data: 2004
I0802 07:48:32.884213 22173 layer_factory.hpp:77] Creating layer lstm1_
I0802 07:48:32.884222 22173 net.cpp:91] Creating Layer lstm1_
I0802 07:48:32.884229 22173 net.cpp:399] lstm1_ -> c_0
I0802 07:48:32.884243 22173 net.cpp:399] lstm1_ -> h_0
I0802 07:48:32.884299 22173 net.cpp:141] Setting up lstm1_
I0802 07:48:32.884308 22173 net.cpp:148] Top shape: 1 1 1000 (1000)
I0802 07:48:32.884315 22173 net.cpp:148] Top shape: 1 1 1000 (1000)
I0802 07:48:32.884320 22173 net.cpp:156] Memory required for data: 10004
I0802 07:48:32.884325 22173 layer_factory.hpp:77] Creating layer lstm1_cont_slice
I0802 07:48:32.884335 22173 net.cpp:91] Creating Layer lstm1_cont_slice
I0802 07:48:32.884340 22173 net.cpp:425] lstm1_cont_slice <- cont
I0802 07:48:32.884351 22173 net.cpp:399] lstm1_cont_slice -> cont_1
I0802 07:48:32.884393 22173 net.cpp:141] Setting up lstm1_cont_slice
I0802 07:48:32.884403 22173 net.cpp:148] Top shape: 1 1 (1)
I0802 07:48:32.884409 22173 net.cpp:156] Memory required for data: 10008
I0802 07:48:32.884414 22173 layer_factory.hpp:77] Creating layer cont_1_lstm1_cont_slice_0_split
I0802 07:48:32.884423 22173 net.cpp:91] Creating Layer cont_1_lstm1_cont_slice_0_split
I0802 07:48:32.884428 22173 net.cpp:425] cont_1_lstm1_cont_slice_0_split <- cont_1
I0802 07:48:32.884438 22173 net.cpp:399] cont_1_lstm1_cont_slice_0_split -> cont_1_lstm1_cont_slice_0_split_0
I0802 07:48:32.884449 22173 net.cpp:399] cont_1_lstm1_cont_slice_0_split -> cont_1_lstm1_cont_slice_0_split_1
I0802 07:48:32.884501 22173 net.cpp:141] Setting up cont_1_lstm1_cont_slice_0_split
I0802 07:48:32.884511 22173 net.cpp:148] Top shape: 1 1 (1)
I0802 07:48:32.884517 22173 net.cpp:148] Top shape: 1 1 (1)
I0802 07:48:32.884522 22173 net.cpp:156] Memory required for data: 10016
I0802 07:48:32.884527 22173 layer_factory.hpp:77] Creating layer lstm1_x_transform
I0802 07:48:32.884541 22173 net.cpp:91] Creating Layer lstm1_x_transform
I0802 07:48:32.884546 22173 net.cpp:425] lstm1_x_transform <- x
I0802 07:48:32.884554 22173 net.cpp:399] lstm1_x_transform -> W_xc_x
I0802 07:48:32.908072 22173 net.cpp:141] Setting up lstm1_x_transform
I0802 07:48:32.908133 22173 net.cpp:148] Top shape: 1 1 4000 (4000)
I0802 07:48:32.908144 22173 net.cpp:156] Memory required for data: 26016
I0802 07:48:32.908179 22173 layer_factory.hpp:77] Creating layer lstm1_W_xc_x_slice
I0802 07:48:32.908211 22173 net.cpp:91] Creating Layer lstm1_W_xc_x_slice
I0802 07:48:32.908226 22173 net.cpp:425] lstm1_W_xc_x_slice <- W_xc_x
I0802 07:48:32.908243 22173 net.cpp:399] lstm1_W_xc_x_slice -> W_xc_x_1
I0802 07:48:32.908320 22173 net.cpp:141] Setting up lstm1_W_xc_x_slice
I0802 07:48:32.908340 22173 net.cpp:148] Top shape: 1 1 4000 (4000)
I0802 07:48:32.908349 22173 net.cpp:156] Memory required for data: 42016
I0802 07:48:32.908359 22173 layer_factory.hpp:77] Creating layer lstm1_h_conted_0
I0802 07:48:32.908376 22173 net.cpp:91] Creating Layer lstm1_h_conted_0
I0802 07:48:32.908386 22173 net.cpp:425] lstm1_h_conted_0 <- h_0
I0802 07:48:32.908397 22173 net.cpp:425] lstm1_h_conted_0 <- cont_1_lstm1_cont_slice_0_split_0
I0802 07:48:32.908416 22173 net.cpp:399] lstm1_h_conted_0 -> h_conted_0
I0802 07:48:32.908596 22173 net.cpp:141] Setting up lstm1_h_conted_0
I0802 07:48:32.908615 22173 net.cpp:148] Top shape: 1 1 1000 (1000)
I0802 07:48:32.908623 22173 net.cpp:156] Memory required for data: 46016
I0802 07:48:32.908633 22173 layer_factory.hpp:77] Creating layer lstm1_transform_1
I0802 07:48:32.908659 22173 net.cpp:91] Creating Layer lstm1_transform_1
I0802 07:48:32.908669 22173 net.cpp:425] lstm1_transform_1 <- h_conted_0
I0802 07:48:32.908684 22173 net.cpp:399] lstm1_transform_1 -> W_hc_h_0
I0802 07:48:32.952880 22173 net.cpp:141] Setting up lstm1_transform_1
I0802 07:48:32.952937 22173 net.cpp:148] Top shape: 1 1 4000 (4000)
I0802 07:48:32.952944 22173 net.cpp:156] Memory required for data: 62016
I0802 07:48:32.952966 22173 layer_factory.hpp:77] Creating layer lstm1_gate_input_1
I0802 07:48:32.952992 22173 net.cpp:91] Creating Layer lstm1_gate_input_1
I0802 07:48:32.953001 22173 net.cpp:425] lstm1_gate_input_1 <- W_hc_h_0
I0802 07:48:32.953011 22173 net.cpp:425] lstm1_gate_input_1 <- W_xc_x_1
I0802 07:48:32.953022 22173 net.cpp:399] lstm1_gate_input_1 -> gate_input_1
I0802 07:48:32.953085 22173 net.cpp:141] Setting up lstm1_gate_input_1
I0802 07:48:32.953096 22173 net.cpp:148] Top shape: 1 1 4000 (4000)
I0802 07:48:32.953101 22173 net.cpp:156] Memory required for data: 78016
I0802 07:48:32.953106 22173 layer_factory.hpp:77] Creating layer lstm1_unit_1
I0802 07:48:32.953119 22173 net.cpp:91] Creating Layer lstm1_unit_1
I0802 07:48:32.953125 22173 net.cpp:425] lstm1_unit_1 <- c_0
I0802 07:48:32.953132 22173 net.cpp:425] lstm1_unit_1 <- gate_input_1
I0802 07:48:32.953137 22173 net.cpp:425] lstm1_unit_1 <- cont_1_lstm1_cont_slice_0_split_1
I0802 07:48:32.953145 22173 net.cpp:399] lstm1_unit_1 -> c_1
I0802 07:48:32.953155 22173 net.cpp:399] lstm1_unit_1 -> h_1
I0802 07:48:32.953225 22173 net.cpp:141] Setting up lstm1_unit_1
I0802 07:48:32.953235 22173 net.cpp:148] Top shape: 1 1 1000 (1000)
I0802 07:48:32.953243 22173 net.cpp:148] Top shape: 1 1 1000 (1000)
I0802 07:48:32.953246 22173 net.cpp:156] Memory required for data: 86016
I0802 07:48:32.953253 22173 layer_factory.hpp:77] Creating layer lstm1_
I0802 07:48:32.953261 22173 net.cpp:91] Creating Layer lstm1_
I0802 07:48:32.953266 22173 net.cpp:425] lstm1_ <- c_1
I0802 07:48:32.953276 22173 net.cpp:399] lstm1_ -> c_T
I0802 07:48:32.953311 22173 net.cpp:141] Setting up lstm1_
I0802 07:48:32.953320 22173 net.cpp:148] Top shape: 1 1 1000 (1000)
I0802 07:48:32.953325 22173 net.cpp:156] Memory required for data: 90016
I0802 07:48:32.953330 22173 layer_factory.hpp:77] Creating layer lstm1_h_concat
I0802 07:48:32.953341 22173 net.cpp:91] Creating Layer lstm1_h_concat
I0802 07:48:32.953346 22173 net.cpp:425] lstm1_h_concat <- h_1
I0802 07:48:32.953353 22173 net.cpp:399] lstm1_h_concat -> h
I0802 07:48:32.953404 22173 net.cpp:141] Setting up lstm1_h_concat
I0802 07:48:32.953414 22173 net.cpp:148] Top shape: 1 1 1000 (1000)
I0802 07:48:32.953418 22173 net.cpp:156] Memory required for data: 94016
I0802 07:48:32.953423 22173 layer_factory.hpp:77] Creating layer h_pseudoloss
I0802 07:48:32.953440 22173 net.cpp:91] Creating Layer h_pseudoloss
I0802 07:48:32.953445 22173 net.cpp:425] h_pseudoloss <- h
I0802 07:48:32.953454 22173 net.cpp:399] h_pseudoloss -> h_pseudoloss
I0802 07:48:32.953555 22173 net.cpp:141] Setting up h_pseudoloss
…
I0802 07:48:32.953687 22173 net.cpp:219] lstm1_ does not need backward computation.
I0802 07:48:32.953691 22173 net.cpp:261] This network produces output c_T
I0802 07:48:32.953696 22173 net.cpp:261] This network produces output h_pseudoloss
I0802 07:48:32.953712 22173 net.cpp:274] Network initialization done.
I0802 07:48:32.953773 22173 recurrent_layer.cpp:150] Adding parameter 0: W_xc
I0802 07:48:32.953779 22173 recurrent_layer.cpp:150] Adding parameter 1: b_c
I0802 07:48:32.953783 22173 recurrent_layer.cpp:150] Adding parameter 2: W_hc
I0802 07:48:32.953917 22173 net.cpp:141] Setting up lstm1
I0802 07:48:32.953932 22173 net.cpp:148] Top shape: 1 1 1000 (1000)
I0802 07:48:32.953936 22173 net.cpp:156] Memory required for data: 26408
I0802 07:48:32.953951 22173 layer_factory.hpp:77] Creating layer concat
I0802 07:48:32.953961 22173 net.cpp:91] Creating Layer concat
I0802 07:48:32.953969 22173 net.cpp:425] concat <- lstm1
I0802 07:48:32.953975 22173 net.cpp:425] concat <- embedded_input_sentence
I0802 07:48:32.953981 22173 net.cpp:425] concat <- reshaped_stage_indicator
I0802 07:48:32.953989 22173 net.cpp:399] concat -> lstm1_video_sequence
I0802 07:48:32.954027 22173 net.cpp:141] Setting up concat
I0802 07:48:32.954037 22173 net.cpp:148] Top shape: 1 1 1501 (1501)
I0802 07:48:32.954042 22173 net.cpp:156] Memory required for data: 32412
I0802 07:48:32.954047 22173 layer_factory.hpp:77] Creating layer lstm2
I0802 07:48:32.954061 22173 net.cpp:91] Creating Layer lstm2
I0802 07:48:32.954066 22173 net.cpp:425] lstm2 <- lstm1_video_sequence
I0802 07:48:32.954073 22173 net.cpp:425] lstm2 <- cont_sentence_input_1_split_1
I0802 07:48:32.954080 22173 net.cpp:399] lstm2 -> lstm2
I0802 07:48:32.954092 22173 recurrent_layer.cpp:20] Initializing recurrent layer: assuming input batch contains 1 timesteps of 1 independent streams.
I0802 07:48:32.954365 22173 net.cpp:49] Initializing net from parameters: 
layer {
  name: "lstm2_"
  type: "Input"
  top: "x"
  top: "cont"
  input_param {
    shape {
      dim: 1
      dim: 1
      dim: 1501
    }
    shape {
      dim: 1
      dim: 1
    }
  }
}
layer {
  name: "lstm2_"
  type: "Input"
  top: "c_0"
  top: "h_0"
  input_param {
    shape {
      dim: 1
      dim: 1
      dim: 1000
    }
    shape {
      dim: 1
      dim: 1
      dim: 1000
    }
  }
}
layer {
  name: "lstm2_cont_slice"
  type: "Slice"
  bottom: "cont"
  top: "cont_1"
  slice_param {
    axis: 0
  }
}
layer {
  name: "lstm2_x_transform"
  type: "InnerProduct"
  bottom: "x"
  top: "W_xc_x"
  param {
    name: "W_xc"
  }
  param {
    name: "b_c"
  }
  propagate_down: true
  inner_product_param {
    num_output: 4000
    bias_term: true
    weight_filler {
      type: "uniform"
      min: -0.08
      max: 0.08
    }
    bias_filler {
      type: "constant"
      value: 0
    }
    axis: 2
  }
}
layer {
  name: "lstm2_W_xc_x_slice"
  type: "Slice"
  bottom: "W_xc_x"
  top: "W_xc_x_1"
  slice_param {
    axis: 0
  }
}
layer {
  name: "lstm2_h_conted_0"
  type: "Scale"
  bottom: "h_0"
  bottom: "cont_1"
  top: "h_conted_0"
  scale_param {
    axis: 0
  }
}
layer {
  name: "lstm2_transform_1"
  type: "InnerProduct"
  bottom: "h_conted_0"
  top: "W_hc_h_0"
  param {
    name: "W_hc"
  }
  inner_product_param {
    num_output: 4000
    bias_term: false
    weight_filler {
      type: "uniform"
      min: -0.08
      max: 0.08
    }
    axis: 2
  }
}
layer {
  name: "lstm2_gate_input_1"
  type: "Eltwise"
  bottom: "W_hc_h_0"
  bottom: "W_xc_x_1"
  top: "gate_input_1"
  eltwise_param {
    operation: SUM
  }
}
layer {
  name: "lstm2_unit_1"
  type: "LSTMUnit"
  bottom: "c_0"
  bottom: "gate_input_1"
  bottom: "cont_1"
  top: "c_1"
  top: "h_1"
}
layer {
  name: "lstm2_"
  type: "Split"
  bottom: "c_1"
  top: "c_T"
}
layer {
  name: "lstm2_h_concat"
  type: "Concat"
  bottom: "h_1"
  top: "h"
  concat_param {
    axis: 0
  }
}
layer {
  name: "h_pseudoloss"
  type: "Reduction"
  bottom: "h"
  top: "h_pseudoloss"
  loss_weight: 1
}
I0802 07:48:32.954463 22173 layer_factory.hpp:77] Creating layer lstm2_
I0802 07:48:32.954475 22173 net.cpp:91] Creating Layer lstm2_
I0802 07:48:32.954483 22173 net.cpp:399] lstm2_ -> x
I0802 07:48:32.954494 22173 net.cpp:399] lstm2_ -> cont
I0802 07:48:32.954555 22173 net.cpp:141] Setting up lstm2_
I0802 07:48:32.954566 22173 net.cpp:148] Top shape: 1 1 1501 (1501)
I0802 07:48:32.954572 22173 net.cpp:148] Top shape: 1 1 (1)
I0802 07:48:32.954577 22173 net.cpp:156] Memory required for data: 6008
I0802 07:48:32.954582 22173 layer_factory.hpp:77] Creating layer lstm2_
I0802 07:48:32.954596 22173 net.cpp:91] Creating Layer lstm2_
I0802 07:48:32.954602 22173 net.cpp:399] lstm2_ -> c_0
I0802 07:48:32.954613 22173 net.cpp:399] lstm2_ -> h_0
I0802 07:48:32.954668 22173 net.cpp:141] Setting up lstm2_
I0802 07:48:32.954679 22173 net.cpp:148] Top shape: 1 1 1000 (1000)
I0802 07:48:32.954684 22173 net.cpp:148] Top shape: 1 1 1000 (1000)
I0802 07:48:32.954689 22173 net.cpp:156] Memory required for data: 14008
I0802 07:48:32.954694 22173 layer_factory.hpp:77] Creating layer lstm2_cont_slice
I0802 07:48:32.954702 22173 net.cpp:91] Creating Layer lstm2_cont_slice
I0802 07:48:32.954708 22173 net.cpp:425] lstm2_cont_slice <- cont
I0802 07:48:32.954716 22173 net.cpp:399] lstm2_cont_slice -> cont_1
I0802 07:48:32.954757 22173 net.cpp:141] Setting up lstm2_cont_slice
I0802 07:48:32.954767 22173 net.cpp:148] Top shape: 1 1 (1)
I0802 07:48:32.954772 22173 net.cpp:156] Memory required for data: 14012
I0802 07:48:32.954777 22173 layer_factory.hpp:77] Creating layer cont_1_lstm2_cont_slice_0_split
I0802 07:48:32.954783 22173 net.cpp:91] Creating Layer cont_1_lstm2_cont_slice_0_split
I0802 07:48:32.954789 22173 net.cpp:425] cont_1_lstm2_cont_slice_0_split <- cont_1
I0802 07:48:32.954798 22173 net.cpp:399] cont_1_lstm2_cont_slice_0_split -> cont_1_lstm2_cont_slice_0_split_0
I0802 07:48:32.954807 22173 net.cpp:399] cont_1_lstm2_cont_slice_0_split -> cont_1_lstm2_cont_slice_0_split_1
I0802 07:48:32.954859 22173 net.cpp:141] Setting up cont_1_lstm2_cont_slice_0_split
I0802 07:48:32.954871 22173 net.cpp:148] Top shape: 1 1 (1)
I0802 07:48:32.954877 22173 net.cpp:148] Top shape: 1 1 (1)
I0802 07:48:32.954882 22173 net.cpp:156] Memory required for data: 14020
I0802 07:48:32.954887 22173 layer_factory.hpp:77] Creating layer lstm2_x_transform
I0802 07:48:32.954897 22173 net.cpp:91] Creating Layer lstm2_x_transform
I0802 07:48:32.954903 22173 net.cpp:425] lstm2_x_transform <- x
I0802 07:48:32.954913 22173 net.cpp:399] lstm2_x_transform -> W_xc_x
I0802 07:48:33.038501 22173 net.cpp:141] Setting up lstm2_x_transform
I0802 07:48:33.038558 22173 net.cpp:148] Top shape: 1 1 4000 (4000)
I0802 07:48:33.038565 22173 net.cpp:156] Memory required for data: 30020
I0802 07:48:33.038594 22173 layer_factory.hpp:77] Creating layer lstm2_W_xc_x_slice
I0802 07:48:33.038612 22173 net.cpp:91] Creating Layer lstm2_W_xc_x_slice
I0802 07:48:33.038620 22173 net.cpp:425] lstm2_W_xc_x_slice <- W_xc_x
I0802 07:48:33.038631 22173 net.cpp:399] lstm2_W_xc_x_slice -> W_xc_x_1
I0802 07:48:33.038687 22173 net.cpp:141] Setting up lstm2_W_xc_x_slice
I0802 07:48:33.038698 22173 net.cpp:148] Top shape: 1 1 4000 (4000)
I0802 07:48:33.038703 22173 net.cpp:156] Memory required for data: 46020
I0802 07:48:33.038708 22173 layer_factory.hpp:77] Creating layer lstm2_h_conted_0
I0802 07:48:33.038720 22173 net.cpp:91] Creating Layer lstm2_h_conted_0
I0802 07:48:33.038725 22173 net.cpp:425] lstm2_h_conted_0 <- h_0
I0802 07:48:33.038733 22173 net.cpp:425] lstm2_h_conted_0 <- cont_1_lstm2_cont_slice_0_split_0
I0802 07:48:33.038740 22173 net.cpp:399] lstm2_h_conted_0 -> h_conted_0
I0802 07:48:33.038846 22173 net.cpp:141] Setting up lstm2_h_conted_0
I0802 07:48:33.038856 22173 net.cpp:148] Top shape: 1 1 1000 (1000)
I0802 07:48:33.038861 22173 net.cpp:156] Memory required for data: 50020
I0802 07:48:33.038866 22173 layer_factory.hpp:77] Creating layer lstm2_transform_1
I0802 07:48:33.038882 22173 net.cpp:91] Creating Layer lstm2_transform_1
I0802 07:48:33.038887 22173 net.cpp:425] lstm2_transform_1 <- h_conted_0
I0802 07:48:33.038902 22173 net.cpp:399] lstm2_transform_1 -> W_hc_h_0
I0802 07:48:33.083214 22173 net.cpp:141] Setting up lstm2_transform_1
I0802 07:48:33.083267 22173 net.cpp:148] Top shape: 1 1 4000 (4000)
I0802 07:48:33.083274 22173 net.cpp:156] Memory required for data: 66020
I0802 07:48:33.083299 22173 layer_factory.hpp:77] Creating layer lstm2_gate_input_1
I0802 07:48:33.083322 22173 net.cpp:91] Creating Layer lstm2_gate_input_1
I0802 07:48:33.083329 22173 net.cpp:425] lstm2_gate_input_1 <- W_hc_h_0
I0802 07:48:33.083339 22173 net.cpp:425] lstm2_gate_input_1 <- W_xc_x_1
I0802 07:48:33.083353 22173 net.cpp:399] lstm2_gate_input_1 -> gate_input_1
I0802 07:48:33.083410 22173 net.cpp:141] Setting up lstm2_gate_input_1
I0802 07:48:33.083420 22173 net.cpp:148] Top shape: 1 1 4000 (4000)
I0802 07:48:33.083425 22173 net.cpp:156] Memory required for data: 82020
I0802 07:48:33.083430 22173 layer_factory.hpp:77] Creating layer lstm2_unit_1
I0802 07:48:33.083439 22173 net.cpp:91] Creating Layer lstm2_unit_1
I0802 07:48:33.083444 22173 net.cpp:425] lstm2_unit_1 <- c_0
I0802 07:48:33.083451 22173 net.cpp:425] lstm2_unit_1 <- gate_input_1
I0802 07:48:33.083457 22173 net.cpp:425] lstm2_unit_1 <- cont_1_lstm2_cont_slice_0_split_1
I0802 07:48:33.083465 22173 net.cpp:399] lstm2_unit_1 -> c_1
I0802 07:48:33.083477 22173 net.cpp:399] lstm2_unit_1 -> h_1
I0802 07:48:33.083546 22173 net.cpp:141] Setting up lstm2_unit_1
I0802 07:48:33.083556 22173 net.cpp:148] Top shape: 1 1 1000 (1000)
I0802 07:48:33.083564 22173 net.cpp:148] Top shape: 1 1 1000 (1000)
I0802 07:48:33.083567 22173 net.cpp:156] Memory required for data: 90020
I0802 07:48:33.083573 22173 layer_factory.hpp:77] Creating layer lstm2_
I0802 07:48:33.083582 22173 net.cpp:91] Creating Layer lstm2_
I0802 07:48:33.083587 22173 net.cpp:425] lstm2_ <- c_1
I0802 07:48:33.083595 22173 net.cpp:399] lstm2_ -> c_T
I0802 07:48:33.083631 22173 net.cpp:141] Setting up lstm2_
I0802 07:48:33.083642 22173 net.cpp:148] Top shape: 1 1 1000 (1000)
I0802 07:48:33.083645 22173 net.cpp:156] Memory required for data: 94020
I0802 07:48:33.083650 22173 layer_factory.hpp:77] Creating layer lstm2_h_concat
I0802 07:48:33.083662 22173 net.cpp:91] Creating Layer lstm2_h_concat
I0802 07:48:33.083667 22173 net.cpp:425] lstm2_h_concat <- h_1
I0802 07:48:33.083676 22173 net.cpp:399] lstm2_h_concat -> h
I0802 07:48:33.083715 22173 net.cpp:141] Setting up lstm2_h_concat
I0802 07:48:33.083724 22173 net.cpp:148] Top shape: 1 1 1000 (1000)
I0802 07:48:33.083729 22173 net.cpp:156] Memory required for data: 98020
I0802 07:48:33.083734 22173 layer_factory.hpp:77] Creating layer h_pseudoloss
I0802 07:48:33.083746 22173 net.cpp:91] Creating Layer h_pseudoloss
I0802 07:48:33.083751 22173 net.cpp:425] h_pseudoloss <- h
I0802 07:48:33.083760 22173 net.cpp:399] h_pseudoloss -> h_pseudoloss
I0802 07:48:33.083858 22173 net.cpp:141] Setting up h_pseudoloss
…
