…
W0925 22:56:01.719032 15695 upgrade_proto.cpp:71] Note that future Caffe releases will only support input layers and not input fields.
I0925 22:56:01.719074 15721 net.cpp:49] Initializing net from parameters: 
name: "s2vt:features_to_lstm"
state {
  phase: TEST
}
layer {
  name: "input"
  type: "Input"
  top: "frames_fc7"
  top: "cont_sentence"
  top: "input_sentence"
  top: "stage_indicator"
  input_param {
    shape {
      dim: 1
      dim: 4096
    }
    shape {
      dim: 1
      dim: 1
    }
    shape {
      dim: 1
      dim: 1
    }
    shape {
      dim: 1
      dim: 1
    }
  }
}
layer {
  name: "embed_encoder"
  type: "InnerProduct"
  bottom: "frames_fc7"
  top: "embedded_in_frames"
  param {
    lr_mult: 1
    decay_mult: 1
  }
  param {
    lr_mult: 2
    decay_mult: 0
  }
  inner_product_param {
    num_output: 500
    weight_filler {
      type: "xavier"
    }
    bias_filler {
      type: "constant"
      value: 0.2
    }
  }
}
layer {
  name: "reshape_frames"
  type: "Reshape"
  bottom: "embedded_in_frames"
  top: "embedded_input_frames"
  reshape_param {
    shape {
      dim: 1
      dim: 1
      dim: 500
    }
  }
}
layer {
  name: "reshape_stage_indicator"
  type: "Reshape"
  bottom: "stage_indicator"
  top: "reshaped_stage_indicator"
  reshape_param {
    shape {
      dim: 1
      dim: 1
      dim: 1
    }
  }
}
layer {
  name: "embedding"
  type: "Embed"
  bottom: "input_sentence"
  top: "embedded_input_sentence"
  param {
    lr_mult: 1
  }
  embed_param {
    num_output: 500
    input_dim: 46168
    bias_term: false
    weight_filler {
      type: "uniform"
      min: -0.08
      max: 0.08
    }
  }
}
layer {
  name: "lstm1"
  type: "LSTM"
  bottom: "embedded_input_frames"
  bottom: "cont_sentence"
  top: "lstm1"
  recurrent_param {
    num_output: 1000
    weight_filler {
      type: "uniform"
      min: -0.08
      max: 0.08
    }
    bias_filler {
      type: "constant"
      value: 0
    }
  }
}
layer {
  name: "concat"
  type: "Concat"
  bottom: "lstm1"
  bottom: "embedded_input_sentence"
  bottom: "reshaped_stage_indicator"
  top: "lstm1_video_sequence"
  concat_param {
    concat_dim: 2
  }
}
layer {
  name: "lstm2"
  type: "LSTM"
  bottom: "lstm1_video_sequence"
  bottom: "cont_sentence"
  top: "lstm2"
  recurrent_param {
    num_output: 1000
    weight_filler {
      type: "uniform"
      min: -0.08
      max: 0.08
    }
    bias_filler {
      type: "constant"
      value: 0
    }
  }
}
layer {
  name: "predict"
  type: "InnerProduct"
  bottom: "lstm2"
  top: "predict"
  param {
    lr_mult: 1
    decay_mult: 1
  }
  param {
    lr_mult: 2
    decay_mult: 0
  }
  inner_product_param {
    num_output: 46168
    weight_filler {
      type: "uniform"
      min: -0.08
      max: 0.08
    }
    bias_filler {
      type: "constant"
      value: 0
    }
    axis: 2
  }
}
layer {
  name: "probs"
  type: "Softmax"
  bottom: "predict"
  top: "probs"
  softmax_param {
    axis: 2
  }
}
I0925 22:56:01.719074 15713 net.cpp:49] Initializing net from parameters: 
name: "CaffeNet"
state {
  phase: TEST
}
layer {
  name: "data"
  type: "Input"
  top: "data"
  input_param {
    shape {
      dim: 10
      dim: 3
      dim: 227
      dim: 227
    }
  }
}
layer {
  name: "conv1"
  type: "Convolution"
  bottom: "data"
  top: "conv1"
  convolution_param {
    num_output: 96
    kernel_size: 11
    stride: 4
  }
}
layer {
  name: "relu1"
  type: "ReLU"
  bottom: "conv1"
  top: "conv1"
}
layer {
  name: "pool1"
  type: "Pooling"
  bottom: "conv1"
  top: "pool1"
  pooling_param {
    pool: MAX
    kernel_size: 3
    stride: 2
  }
}
layer {
  name: "norm1"
  type: "LRN"
  bottom: "pool1"
  top: "norm1"
  lrn_param {
    local_size: 5
    alpha: 0.0001
    beta: 0.75
  }
}
layer {
  name: "conv2"
  type: "Convolution"
  bottom: "norm1"
  top: "conv2"
  convolution_param {
    num_output: 256
    pad: 2
    kernel_size: 5
    group: 2
  }
}
layer {
  name: "relu2"
  type: "ReLU"
  bottom: "conv2"
  top: "conv2"
}
layer {
  name: "pool2"
  type: "Pooling"
  bottom: "conv2"
  top: "pool2"
  pooling_param {
    pool: MAX
    kernel_size: 3
    stride: 2
  }
}
layer {
  name: "norm2"
  type: "LRN"
  bottom: "pool2"
  top: "norm2"
  lrn_param {
    local_size: 5
    alpha: 0.0001
    beta: 0.75
  }
}
layer {
  name: "conv3"
  type: "Convolution"
  bottom: "norm2"
  top: "conv3"
  convolution_param {
    num_output: 384
    pad: 1
    kernel_size: 3
  }
}
layer {
  name: "relu3"
  type: "ReLU"
  bottom: "conv3"
  top: "conv3"
}
layer {
  name: "conv4"
  type: "Convolution"
  bottom: "conv3"
  top: "conv4"
  convolution_param {
    num_output: 384
    pad: 1
    kernel_size: 3
    group: 2
  }
}
layer {
  name: "relu4"
  type: "ReLU"
  bottom: "conv4"
  top: "conv4"
}
layer {
  name: "conv5"
  type: "Convolution"
  bottom: "conv4"
  top: "conv5"
  convolution_param {
    num_output: 256
    pad: 1
    kernel_size: 3
    group: 2
  }
}
layer {
  name: "relu5"
  type: "ReLU"
  bottom: "conv5"
  top: "conv5"
}
layer {
  name: "pool5"
  type: "Pooling"
  bottom: "conv5"
  top: "pool5"
  pooling_param {
    pool: MAX
    kernel_size: 3
    stride: 2
  }
}
layer {
  name: "fc6"
  type: "InnerProduct"
  bottom: "pool5"
  top: "fc6"
  inner_product_param {
    num_output: 4096
  }
}
layer {
  name: "relu6"
  type: "ReLU"
  bottom: "fc6"
  top: "fc6"
}
layer {
  name: "drop6"
  type: "Dropout"
  bottom: "fc6"
  top: "fc6"
  dropout_param {
    dropout_ratio: 0.5
  }
}
layer {
  name: "fc7"
  type: "InnerProduct"
  bottom: "fc6"
  top: "fc7"
  inner_product_param {
    num_output: 4096
  }
}
layer {
  name: "relu7"
  type: "ReLU"
  bottom: "fc7"
  top: "fc7"
}
layer {
  name: "drop7"
  type: "Dropout"
  bottom: "fc7"
  top: "fc7"
  dropout_param {
    dropout_ratio: 0.5
  }
}
layer {
  name: "fc8"
  type: "InnerProduct"
  bottom: "fc7"
  top: "fc8"
  inner_product_param {
    num_output: 1000
  }
}
layer {
  name: "prob"
  type: "Softmax"
  bottom: "fc8"
  top: "prob"
}
I0925 22:56:01.719122 15679 net.cpp:49] Initializing net from parameters: 
name: "s2vt:features_to_lstm"
state {
  phase: TEST
}
layer {
  name: "input"
  type: "Input"
  top: "frames_fc7"
  top: "cont_sentence"
  top: "input_sentence"
  top: "stage_indicator"
  input_param {
    shape {
      dim: 1
      dim: 4096
    }
    shape {
      dim: 1
      dim: 1
    }
    shape {
      dim: 1
      dim: 1
    }
    shape {
      dim: 1
      dim: 1
    }
  }
}
layer {
  name: "embed_encoder"
  type: "InnerProduct"
  bottom: "frames_fc7"
  top: "embedded_in_frames"
  param {
    lr_mult: 1
    decay_mult: 1
  }
  param {
    lr_mult: 2
    decay_mult: 0
  }
  inner_product_param {
    num_output: 500
    weight_filler {
      type: "xavier"
    }
    bias_filler {
      type: "constant"
      value: 0.2
    }
  }
}
layer {
  name: "reshape_frames"
  type: "Reshape"
  bottom: "embedded_in_frames"
  top: "embedded_input_frames"
  reshape_param {
    shape {
      dim: 1
      dim: 1
      dim: 500
    }
  }
}
layer {
  name: "reshape_stage_indicator"
  type: "Reshape"
  bottom: "stage_indicator"
  top: "reshaped_stage_indicator"
  reshape_param {
    shape {
      dim: 1
      dim: 1
      dim: 1
    }
  }
}
layer {
  name: "embedding"
  type: "Embed"
  bottom: "input_sentence"
  top: "embedded_input_sentence"
  param {
    lr_mult: 1
  }
  embed_param {
    num_output: 500
    input_dim: 46168
    bias_term: false
    weight_filler {
      type: "uniform"
      min: -0.08
      max: 0.08
    }
  }
}
layer {
  name: "lstm1"
  type: "LSTM"
  bottom: "embedded_input_frames"
  bottom: "cont_sentence"
  top: "lstm1"
  recurrent_param {
    num_output: 1000
    weight_filler {
      type: "uniform"
      min: -0.08
      max: 0.08
    }
    bias_filler {
      type: "constant"
      value: 0
    }
  }
}
layer {
  name: "concat"
  type: "Concat"
  bottom: "lstm1"
  bottom: "embedded_input_sentence"
  bottom: "reshaped_stage_indicator"
  top: "lstm1_video_sequence"
  concat_param {
    concat_dim: 2
  }
}
layer {
  name: "lstm2"
  type: "LSTM"
  bottom: "lstm1_video_sequence"
  bottom: "cont_sentence"
  top: "lstm2"
  recurrent_param {
    num_output: 1000
    weight_filler {
      type: "uniform"
      min: -0.08
      max: 0.08
    }
    bias_filler {
      type: "constant"
      value: 0
    }
  }
}
layer {
  name: "predict"
  type: "InnerProduct"
  bottom: "lstm2"
  top: "predict"
  param {
    lr_mult: 1
    decay_mult: 1
  }
  param {
    lr_mult: 2
    decay_mult: 0
  }
  inner_product_param {
    num_output: 46168
    weight_filler {
      type: "uniform"
      min: -0.08
      max: 0.08
    }
    bias_filler {
      type: "constant"
      value: 0
    }
    axis: 2
  }
}
layer {
  name: "probs"
  type: "Softmax"
  bottom: "predict"
  top: "probs"
  softmax_param {
    axis: 2
  }
}
I0925 22:56:01.719199 15721 layer_factory.hpp:77] Creating layer input
I0925 22:56:01.719202 15713 layer_factory.hpp:77] Creating layer data
I0925 22:56:01.719195 15711 net.cpp:49] Initializing net from parameters: 
name: "s2vt:features_to_lstm"
state {
  phase: TEST
}
layer {
  name: "input"
  type: "Input"
  top: "frames_fc7"
  top: "cont_sentence"
  top: "input_sentence"
  top: "stage_indicator"
  input_param {
    shape {
      dim: 1
      dim: 4096
    }
    shape {
      dim: 1
      dim: 1
    }
    shape {
      dim: 1
      dim: 1
    }
    shape {
      dim: 1
      dim: 1
    }
  }
}
layer {
  name: "embed_encoder"
  type: "InnerProduct"
  bottom: "frames_fc7"
  top: "embedded_in_frames"
  param {
    lr_mult: 1
    decay_mult: 1
  }
  param {
    lr_mult: 2
    decay_mult: 0
  }
  inner_product_param {
    num_output: 500
    weight_filler {
      type: "xavier"
    }
    bias_filler {
      type: "constant"
      value: 0.2
    }
  }
}
layer {
  name: "reshape_frames"
  type: "Reshape"
  bottom: "embedded_in_frames"
  top: "embedded_input_frames"
  reshape_param {
    shape {
      dim: 1
      dim: 1
      dim: 500
    }
  }
}
layer {
  name: "reshape_stage_indicator"
  type: "Reshape"
  bottom: "stage_indicator"
  top: "reshaped_stage_indicator"
  reshape_param {
    shape {
      dim: 1
      dim: 1
      dim: 1
    }
  }
}
layer {
  name: "embedding"
  type: "Embed"
  bottom: "input_sentence"
  top: "embedded_input_sentence"
  param {
    lr_mult: 1
  }
  embed_param {
    num_output: 500
    input_dim: 46168
    bias_term: false
    weight_filler {
      type: "uniform"
      min: -0.08
      max: 0.08
    }
  }
}
layer {
  name: "lstm1"
  type: "LSTM"
  bottom: "embedded_input_frames"
  bottom: "cont_sentence"
  top: "lstm1"
  recurrent_param {
    num_output: 1000
    weight_filler {
      type: "uniform"
      min: -0.08
      max: 0.08
    }
    bias_filler {
      type: "constant"
      value: 0
    }
  }
}
layer {
  name: "concat"
  type: "Concat"
  bottom: "lstm1"
  bottom: "embedded_input_sentence"
  bottom: "reshaped_stage_indicator"
  top: "lstm1_video_sequence"
  concat_param {
    concat_dim: 2
  }
}
layer {
  name: "lstm2"
  type: "LSTM"
  bottom: "lstm1_video_sequence"
  bottom: "cont_sentence"
  top: "lstm2"
  recurrent_param {
    num_output: 1000
    weight_filler {
      type: "uniform"
      min: -0.08
      max: 0.08
    }
    bias_filler {
      type: "constant"
      value: 0
    }
  }
}
layer {
  name: "predict"
  type: "InnerProduct"
  bottom: "lstm2"
  top: "predict"
  param {
    lr_mult: 1
    decay_mult: 1
  }
  param {
    lr_mult: 2
    decay_mult: 0
  }
  inner_product_param {
    num_output: 46168
    weight_filler {
      type: "uniform"
      min: -0.08
      max: 0.08
    }
    bias_filler {
      type: "constant"
      value: 0
    }
    axis: 2
  }
}
layer {
  name: "probs"
  type: "Softmax"
  bottom: "predict"
  top: "probs"
  softmax_param {
    axis: 2
  }
}
I0925 22:56:01.719223 15679 layer_factory.hpp:77] Creating layer input
I0925 22:56:01.719231 15721 net.cpp:91] Creating Layer input
I0925 22:56:01.719231 15713 net.cpp:91] Creating Layer data
I0925 22:56:01.719240 15679 net.cpp:91] Creating Layer input
I0925 22:56:01.719246 15721 net.cpp:399] input -> frames_fc7
I0925 22:56:01.719249 15713 net.cpp:399] data -> data
I0925 22:56:01.719251 15679 net.cpp:399] input -> frames_fc7
I0925 22:56:01.719250 15673 net.cpp:49] Initializing net from parameters: 
name: "s2vt:features_to_lstm"
state {
  phase: TEST
}
layer {
  name: "input"
  type: "Input"
  top: "frames_fc7"
  top: "cont_sentence"
  top: "input_sentence"
  top: "stage_indicator"
  input_param {
    shape {
      dim: 1
      dim: 4096
    }
    shape {
      dim: 1
      dim: 1
    }
    shape {
      dim: 1
      dim: 1
    }
    shape {
      dim: 1
      dim: 1
    }
  }
}
layer {
  name: "embed_encoder"
  type: "InnerProduct"
  bottom: "frames_fc7"
  top: "embedded_in_frames"
  param {
    lr_mult: 1
    decay_mult: 1
  }
  param {
    lr_mult: 2
    decay_mult: 0
  }
  inner_product_param {
    num_output: 500
    weight_filler {
      type: "xavier"
    }
    bias_filler {
      type: "constant"
      value: 0.2
    }
  }
}
layer {
  name: "reshape_frames"
  type: "Reshape"
  bottom: "embedded_in_frames"
  top: "embedded_input_frames"
  reshape_param {
    shape {
      dim: 1
      dim: 1
      dim: 500
    }
  }
}
layer {
  name: "reshape_stage_indicator"
  type: "Reshape"
  bottom: "stage_indicator"
  top: "reshaped_stage_indicator"
  reshape_param {
    shape {
      dim: 1
      dim: 1
      dim: 1
    }
  }
}
layer {
  name: "embedding"
  type: "Embed"
  bottom: "input_sentence"
  top: "embedded_input_sentence"
  param {
    lr_mult: 1
  }
  embed_param {
    num_output: 500
    input_dim: 46168
    bias_term: false
    weight_filler {
      type: "uniform"
      min: -0.08
      max: 0.08
    }
  }
}
layer {
  name: "lstm1"
  type: "LSTM"
  bottom: "embedded_input_frames"
  bottom: "cont_sentence"
  top: "lstm1"
  recurrent_param {
    num_output: 1000
    weight_filler {
      type: "uniform"
      min: -0.08
      max: 0.08
    }
    bias_filler {
      type: "constant"
      value: 0
    }
  }
}
layer {
  name: "concat"
  type: "Concat"
  bottom: "lstm1"
  bottom: "embedded_input_sentence"
  bottom: "reshaped_stage_indicator"
  top: "lstm1_video_sequence"
  concat_param {
    concat_dim: 2
  }
}
layer {
  name: "lstm2"
  type: "LSTM"
  bottom: "lstm1_video_sequence"
  bottom: "cont_sentence"
  top: "lstm2"
  recurrent_param {
    num_output: 1000
    weight_filler {
      type: "uniform"
      min: -0.08
      max: 0.08
    }
    bias_filler {
      type: "constant"
      value: 0
    }
  }
}
layer {
  name: "predict"
  type: "InnerProduct"
  bottom: "lstm2"
  top: "predict"
  param {
    lr_mult: 1
    decay_mult: 1
  }
  param {
    lr_mult: 2
    decay_mult: 0
  }
  inner_product_param {
    num_output: 46168
    weight_filler {
      type: "uniform"
      min: -0.08
      max: 0.08
    }
    bias_filler {
      type: "constant"
      value: 0
    }
    axis: 2
  }
}
layer {
  name: "probs"
  type: "Softmax"
  bottom: "predict"
  top: "probs"
  softmax_param {
    axis: 2
  }
}
I0925 22:56:01.719251 15691 net.cpp:49] Initializing net from parameters: 
name: "s2vt:features_to_lstm"
state {
  phase: TEST
}
layer {
  name: "input"
  type: "Input"
  top: "frames_fc7"
  top: "cont_sentence"
  top: "input_sentence"
  top: "stage_indicator"
  input_param {
    shape {
      dim: 1
      dim: 4096
    }
    shape {
      dim: 1
      dim: 1
    }
    shape {
      dim: 1
      dim: 1
    }
    shape {
      dim: 1
      dim: 1
    }
  }
}
layer {
  name: "embed_encoder"
  type: "InnerProduct"
  bottom: "frames_fc7"
  top: "embedded_in_frames"
  param {
    lr_mult: 1
    decay_mult: 1
  }
  param {
    lr_mult: 2
    decay_mult: 0
  }
  inner_product_param {
    num_output: 500
    weight_filler {
      type: "xavier"
    }
    bias_filler {
      type: "constant"
      value: 0.2
    }
  }
}
layer {
  name: "reshape_frames"
  type: "Reshape"
  bottom: "embedded_in_frames"
  top: "embedded_input_frames"
  reshape_param {
    shape {
      dim: 1
      dim: 1
      dim: 500
    }
  }
}
layer {
  name: "reshape_stage_indicator"
  type: "Reshape"
  bottom: "stage_indicator"
  top: "reshaped_stage_indicator"
  reshape_param {
    shape {
      dim: 1
      dim: 1
      dim: 1
    }
  }
}
layer {
  name: "embedding"
  type: "Embed"
  bottom: "input_sentence"
  top: "embedded_input_sentence"
  param {
    lr_mult: 1
  }
  embed_param {
    num_output: 500
    input_dim: 46168
    bias_term: false
    weight_filler {
      type: "uniform"
      min: -0.08
      max: 0.08
    }
  }
}
layer {
  name: "lstm1"
  type: "LSTM"
  bottom: "embedded_input_frames"
  bottom: "cont_sentence"
  top: "lstm1"
  recurrent_param {
    num_output: 1000
    weight_filler {
      type: "uniform"
      min: -0.08
      max: 0.08
    }
    bias_filler {
      type: "constant"
      value: 0
    }
  }
}
layer {
  name: "concat"
  type: "Concat"
  bottom: "lstm1"
  bottom: "embedded_input_sentence"
  bottom: "reshaped_stage_indicator"
  top: "lstm1_video_sequence"
  concat_param {
    concat_dim: 2
  }
}
layer {
  name: "lstm2"
  type: "LSTM"
  bottom: "lstm1_video_sequence"
  bottom: "cont_sentence"
  top: "lstm2"
  recurrent_param {
    num_output: 1000
    weight_filler {
      type: "uniform"
      min: -0.08
      max: 0.08
    }
    bias_filler {
      type: "constant"
      value: 0
    }
  }
}
layer {
  name: "predict"
  type: "InnerProduct"
  bottom: "lstm2"
  top: "predict"
  param {
    lr_mult: 1
    decay_mult: 1
  }
  param {
    lr_mult: 2
    decay_mult: 0
  }
  inner_product_param {
    num_output: 46168
    weight_filler {
      type: "uniform"
      min: -0.08
      max: 0.08
    }
    bias_filler {
      type: "constant"
      value: 0
    }
    axis: 2
  }
}
layer {
  name: "probs"
  type: "Softmax"
  bottom: "predict"
  top: "probs"
  softmax_param {
    axis: 2
  }
}
I0925 22:56:01.719264 15683 net.cpp:49] Initializing net from parameters: 
name: "s2vt:features_to_lstm"
state {
  phase: TEST
}
layer {
  name: "input"
  type: "Input"
  top: "frames_fc7"
  top: "cont_sentence"
  top: "input_sentence"
  top: "stage_indicator"
  input_param {
    shape {
      dim: 1
      dim: 4096
    }
    shape {
      dim: 1
      dim: 1
    }
    shape {
      dim: 1
      dim: 1
    }
    shape {
      dim: 1
      dim: 1
    }
  }
}
layer {
  name: "embed_encoder"
  type: "InnerProduct"
  bottom: "frames_fc7"
  top: "embedded_in_frames"
  param {
    lr_mult: 1
    decay_mult: 1
  }
  param {
    lr_mult: 2
    decay_mult: 0
  }
  inner_product_param {
    num_output: 500
    weight_filler {
      type: "xavier"
    }
    bias_filler {
      type: "constant"
      value: 0.2
    }
  }
}
layer {
  name: "reshape_frames"
  type: "Reshape"
  bottom: "embedded_in_frames"
  top: "embedded_input_frames"
  reshape_param {
    shape {
      dim: 1
      dim: 1
      dim: 500
    }
  }
}
layer {
  name: "reshape_stage_indicator"
  type: "Reshape"
  bottom: "stage_indicator"
  top: "reshaped_stage_indicator"
  reshape_param {
    shape {
      dim: 1
      dim: 1
      dim: 1
    }
  }
}
layer {
  name: "embedding"
  type: "Embed"
  bottom: "input_sentence"
  top: "embedded_input_sentence"
  param {
    lr_mult: 1
  }
  embed_param {
    num_output: 500
    input_dim: 46168
    bias_term: false
    weight_filler {
      type: "uniform"
      min: -0.08
      max: 0.08
    }
  }
}
layer {
  name: "lstm1"
  type: "LSTM"
  bottom: "embedded_input_frames"
  bottom: "cont_sentence"
  top: "lstm1"
  recurrent_param {
    num_output: 1000
    weight_filler {
      type: "uniform"
      min: -0.08
      max: 0.08
    }
    bias_filler {
      type: "constant"
      value: 0
    }
  }
}
layer {
  name: "concat"
  type: "Concat"
  bottom: "lstm1"
  bottom: "embedded_input_sentence"
  bottom: "reshaped_stage_indicator"
  top: "lstm1_video_sequence"
  concat_param {
    concat_dim: 2
  }
}
layer {
  name: "lstm2"
  type: "LSTM"
  bottom: "lstm1_video_sequence"
  bottom: "cont_sentence"
  top: "lstm2"
  recurrent_param {
    num_output: 1000
    weight_filler {
      type: "uniform"
      min: -0.08
      max: 0.08
    }
    bias_filler {
      type: "constant"
      value: 0
    }
  }
}
layer {
  name: "predict"
  type: "InnerProduct"
  bottom: "lstm2"
  top: "predict"
  param {
    lr_mult: 1
    decay_mult: 1
  }
  param {
    lr_mult: 2
    decay_mult: 0
  }
  inner_product_param {
    num_output: 46168
    weight_filler {
      type: "uniform"
      min: -0.08
      max: 0.08
    }
    bias_filler {
      type: "constant"
      value: 0
    }
    axis: 2
  }
}
layer {
  name: "probs"
  type: "Softmax"
  bottom: "predict"
  top: "probs"
  softmax_param {
    axis: 2
  }
}
I0925 22:56:01.719282 15721 net.cpp:399] input -> cont_sentence
I0925 22:56:01.719264 15677 net.cpp:49] Initializing net from parameters: 
name: "s2vt:features_to_lstm"
state {
  phase: TEST
}
layer {
  name: "input"
  type: "Input"
  top: "frames_fc7"
  top: "cont_sentence"
  top: "input_sentence"
  top: "stage_indicator"
  input_param {
    shape {
      dim: 1
      dim: 4096
    }
    shape {
      dim: 1
      dim: 1
    }
    shape {
      dim: 1
      dim: 1
    }
    shape {
      dim: 1
      dim: 1
    }
  }
}
layer {
  name: "embed_encoder"
  type: "InnerProduct"
  bottom: "frames_fc7"
  top: "embedded_in_frames"
  param {
    lr_mult: 1
    decay_mult: 1
  }
  param {
    lr_mult: 2
    decay_mult: 0
  }
  inner_product_param {
    num_output: 500
    weight_filler {
      type: "xavier"
    }
    bias_filler {
      type: "constant"
      value: 0.2
    }
  }
}
layer {
  name: "reshape_frames"
  type: "Reshape"
  bottom: "embedded_in_frames"
  top: "embedded_input_frames"
  reshape_param {
    shape {
      dim: 1
      dim: 1
      dim: 500
    }
  }
}
layer {
  name: "reshape_stage_indicator"
  type: "Reshape"
  bottom: "stage_indicator"
  top: "reshaped_stage_indicator"
  reshape_param {
    shape {
      dim: 1
      dim: 1
      dim: 1
    }
  }
}
layer {
  name: "embedding"
  type: "Embed"
  bottom: "input_sentence"
  top: "embedded_input_sentence"
  param {
    lr_mult: 1
  }
  embed_param {
    num_output: 500
    input_dim: 46168
    bias_term: false
    weight_filler {
      type: "uniform"
      min: -0.08
      max: 0.08
    }
  }
}
layer {
  name: "lstm1"
  type: "LSTM"
  bottom: "embedded_input_frames"
  bottom: "cont_sentence"
  top: "lstm1"
  recurrent_param {
    num_output: 1000
    weight_filler {
      type: "uniform"
      min: -0.08
      max: 0.08
    }
    bias_filler {
      type: "constant"
      value: 0
    }
  }
}
layer {
  name: "concat"
  type: "Concat"
  bottom: "lstm1"
  bottom: "embedded_input_sentence"
  bottom: "reshaped_stage_indicator"
  top: "lstm1_video_sequence"
  concat_param {
    concat_dim: 2
  }
}
layer {
  name: "lstm2"
  type: "LSTM"
  bottom: "lstm1_video_sequence"
  bottom: "cont_sentence"
  top: "lstm2"
  recurrent_param {
    num_output: 1000
    weight_filler {
      type: "uniform"
      min: -0.08
      max: 0.08
    }
    bias_filler {
      type: "constant"
      value: 0
    }
  }
}
layer {
  name: "predict"
  type: "InnerProduct"
  bottom: "lstm2"
  top: "predict"
  param {
    lr_mult: 1
    decay_mult: 1
  }
  param {
    lr_mult: 2
    decay_mult: 0
  }
  inner_product_param {
    num_output: 46168
    weight_filler {
      type: "uniform"
      min: -0.08
      max: 0.08
    }
    bias_filler {
      type: "constant"
      value: 0
    }
    axis: 2
  }
}
layer {
  name: "probs"
  type: "Softmax"
  bottom: "predict"
  top: "probs"
  softmax_param {
    axis: 2
  }
}
I0925 22:56:01.719298 15721 net.cpp:399] input -> input_sentence
I0925 22:56:01.719290 15679 net.cpp:399] input -> cont_sentence
I0925 22:56:01.719310 15721 net.cpp:399] input -> stage_indicator
I0925 22:56:01.719321 15679 net.cpp:399] input -> input_sentence
I0925 22:56:01.719336 15679 net.cpp:399] input -> stage_indicator
I0925 22:56:01.719343 15711 layer_factory.hpp:77] Creating layer input
I0925 22:56:01.719367 15711 net.cpp:91] Creating Layer input
I0925 22:56:01.719379 15673 layer_factory.hpp:77] Creating layer input
I0925 22:56:01.719383 15691 layer_factory.hpp:77] Creating layer input
I0925 22:56:01.719383 15711 net.cpp:399] input -> frames_fc7
I0925 22:56:01.719406 15673 net.cpp:91] Creating Layer input
I0925 22:56:01.719403 15683 layer_factory.hpp:77] Creating layer input
I0925 22:56:01.719403 15677 layer_factory.hpp:77] Creating layer input
I0925 22:56:01.719403 15695 net.cpp:49] Initializing net from parameters: 
name: "s2vt:features_to_lstm"
state {
  phase: TEST
}
layer {
  name: "input"
  type: "Input"
  top: "frames_fc7"
  top: "cont_sentence"
  top: "input_sentence"
  top: "stage_indicator"
  input_param {
    shape {
      dim: 1
      dim: 4096
    }
    shape {
      dim: 1
      dim: 1
    }
    shape {
      dim: 1
      dim: 1
    }
    shape {
      dim: 1
      dim: 1
    }
  }
}
layer {
  name: "embed_encoder"
  type: "InnerProduct"
  bottom: "frames_fc7"
  top: "embedded_in_frames"
  param {
    lr_mult: 1
    decay_mult: 1
  }
  param {
    lr_mult: 2
    decay_mult: 0
  }
  inner_product_param {
    num_output: 500
    weight_filler {
      type: "xavier"
    }
    bias_filler {
      type: "constant"
      value: 0.2
    }
  }
}
layer {
  name: "reshape_frames"
  type: "Reshape"
  bottom: "embedded_in_frames"
  top: "embedded_input_frames"
  reshape_param {
    shape {
      dim: 1
      dim: 1
      dim: 500
    }
  }
}
layer {
  name: "reshape_stage_indicator"
  type: "Reshape"
  bottom: "stage_indicator"
  top: "reshaped_stage_indicator"
  reshape_param {
    shape {
      dim: 1
      dim: 1
      dim: 1
    }
  }
}
layer {
  name: "embedding"
  type: "Embed"
  bottom: "input_sentence"
  top: "embedded_input_sentence"
  param {
    lr_mult: 1
  }
  embed_param {
    num_output: 500
    input_dim: 46168
    bias_term: false
    weight_filler {
      type: "uniform"
      min: -0.08
      max: 0.08
    }
  }
}
layer {
  name: "lstm1"
  type: "LSTM"
  bottom: "embedded_input_frames"
  bottom: "cont_sentence"
  top: "lstm1"
  recurrent_param {
    num_output: 1000
    weight_filler {
      type: "uniform"
      min: -0.08
      max: 0.08
    }
    bias_filler {
      type: "constant"
      value: 0
    }
  }
}
layer {
  name: "concat"
  type: "Concat"
  bottom: "lstm1"
  bottom: "embedded_input_sentence"
  bottom: "reshaped_stage_indicator"
  top: "lstm1_video_sequence"
  concat_param {
    concat_dim: 2
  }
}
layer {
  name: "lstm2"
  type: "LSTM"
  bottom: "lstm1_video_sequence"
  bottom: "cont_sentence"
  top: "lstm2"
  recurrent_param {
    num_output: 1000
    weight_filler {
      type: "uniform"
      min: -0.08
      max: 0.08
    }
    bias_filler {
      type: "constant"
      value: 0
    }
  }
}
layer {
  name: "predict"
  type: "InnerProduct"
  bottom: "lstm2"
  top: "predict"
  param {
    lr_mult: 1
    decay_mult: 1
  }
  param {
    lr_mult: 2
    decay_mult: 0
  }
  inner_product_param {
    num_output: 46168
    weight_filler {
      type: "uniform"
      min: -0.08
      max: 0.08
    }
    bias_filler {
      type: "constant"
      value: 0
    }
    axis: 2
  }
}
layer {
  name: "probs"
  type: "Softmax"
  bottom: "predict"
  top: "probs"
  softmax_param {
    axis: 2
  }
}
I0925 22:56:01.719429 15711 net.cpp:399] input -> cont_sentence
I0925 22:56:01.719435 15683 net.cpp:91] Creating Layer input
I0925 22:56:01.719435 15677 net.cpp:91] Creating Layer input
I0925 22:56:01.719413 15691 net.cpp:91] Creating Layer input
I0925 22:56:01.719424 15673 net.cpp:399] input -> frames_fc7
I0925 22:56:01.719467 15677 net.cpp:399] input -> frames_fc7
…
I0925 22:56:01.719563 15677 net.cpp:399] input -> stage_indicator
I0925 22:56:01.719568 15683 net.cpp:399] input -> stage_indicator
I0925 22:56:01.719588 15695 layer_factory.hpp:77] Creating layer input
I0925 22:56:01.719614 15695 net.cpp:91] Creating Layer input
I0925 22:56:01.719630 15695 net.cpp:399] input -> frames_fc7
I0925 22:56:01.719655 15695 net.cpp:399] input -> cont_sentence
I0925 22:56:01.719681 15695 net.cpp:399] input -> input_sentence
I0925 22:56:01.719702 15695 net.cpp:399] input -> stage_indicator
I0925 22:56:02.536131 15713 net.cpp:141] Setting up data
I0925 22:56:02.536222 15713 net.cpp:148] Top shape: 10 3 227 227 (1545870)
I0925 22:56:02.536233 15713 net.cpp:156] Memory required for data: 6183480
I0925 22:56:02.536263 15713 layer_factory.hpp:77] Creating layer conv1
I0925 22:56:02.536304 15713 net.cpp:91] Creating Layer conv1
I0925 22:56:02.536316 15713 net.cpp:425] conv1 <- data
I0925 22:56:02.536334 15713 net.cpp:399] conv1 -> conv1
I0925 22:56:02.536461 15677 net.cpp:141] Setting up input
I0925 22:56:02.536481 15677 net.cpp:148] Top shape: 1 4096 (4096)
I0925 22:56:02.536489 15677 net.cpp:148] Top shape: 1 1 (1)
I0925 22:56:02.536494 15677 net.cpp:148] Top shape: 1 1 (1)
I0925 22:56:02.536500 15677 net.cpp:148] Top shape: 1 1 (1)
I0925 22:56:02.536504 15677 net.cpp:156] Memory required for data: 16396
I0925 22:56:02.536512 15677 layer_factory.hpp:77] Creating layer cont_sentence_input_1_split
I0925 22:56:02.536540 15677 net.cpp:91] Creating Layer cont_sentence_input_1_split
I0925 22:56:02.536552 15677 net.cpp:425] cont_sentence_input_1_split <- cont_sentence
I0925 22:56:02.536573 15677 net.cpp:399] cont_sentence_input_1_split -> cont_sentence_input_1_split_0
I0925 22:56:02.536586 15677 net.cpp:399] cont_sentence_input_1_split -> cont_sentence_input_1_split_1
I0925 22:56:02.536656 15677 net.cpp:141] Setting up cont_sentence_input_1_split
I0925 22:56:02.536669 15677 net.cpp:148] Top shape: 1 1 (1)
I0925 22:56:02.536674 15677 net.cpp:148] Top shape: 1 1 (1)
I0925 22:56:02.536684 15677 net.cpp:156] Memory required for data: 16404
I0925 22:56:02.536692 15677 layer_factory.hpp:77] Creating layer embed_encoder
I0925 22:56:02.536713 15677 net.cpp:91] Creating Layer embed_encoder
I0925 22:56:02.536720 15677 net.cpp:425] embed_encoder <- frames_fc7
I0925 22:56:02.536731 15677 net.cpp:399] embed_encoder -> embedded_in_frames
I0925 22:56:02.537017 15721 net.cpp:141] Setting up input
I0925 22:56:02.537040 15721 net.cpp:148] Top shape: 1 4096 (4096)
I0925 22:56:02.537053 15721 net.cpp:148] Top shape: 1 1 (1)
I0925 22:56:02.537060 15721 net.cpp:148] Top shape: 1 1 (1)
I0925 22:56:02.537065 15721 net.cpp:148] Top shape: 1 1 (1)
I0925 22:56:02.537060 15711 net.cpp:141] Setting up input
I0925 22:56:02.537070 15721 net.cpp:156] Memory required for data: 16396
I0925 22:56:02.537088 15711 net.cpp:148] Top shape: 1 4096 (4096)
I0925 22:56:02.537093 15721 layer_factory.hpp:77] Creating layer cont_sentence_input_1_split
I0925 22:56:02.537099 15711 net.cpp:148] Top shape: 1 1 (1)
I0925 22:56:02.537111 15711 net.cpp:148] Top shape: 1 1 (1)
I0925 22:56:02.537111 15721 net.cpp:91] Creating Layer cont_sentence_input_1_split
I0925 22:56:02.537119 15711 net.cpp:148] Top shape: 1 1 (1)
I0925 22:56:02.537122 15721 net.cpp:425] cont_sentence_input_1_split <- cont_sentence
I0925 22:56:02.537127 15711 net.cpp:156] Memory required for data: 16396
I0925 22:56:02.537137 15711 layer_factory.hpp:77] Creating layer cont_sentence_input_1_split
I0925 22:56:02.537137 15673 net.cpp:141] Setting up input
I0925 22:56:02.537145 15721 net.cpp:399] cont_sentence_input_1_split -> cont_sentence_input_1_split_0
I0925 22:56:02.537152 15711 net.cpp:91] Creating Layer cont_sentence_input_1_split
I0925 22:56:02.537163 15721 net.cpp:399] cont_sentence_input_1_split -> cont_sentence_input_1_split_1
I0925 22:56:02.537169 15711 net.cpp:425] cont_sentence_input_1_split <- cont_sentence
I0925 22:56:02.537153 15673 net.cpp:148] Top shape: 1 4096 (4096)
I0925 22:56:02.537183 15711 net.cpp:399] cont_sentence_input_1_split -> cont_sentence_input_1_split_0
I0925 22:56:02.537170 15691 net.cpp:141] Setting up input
I0925 22:56:02.537194 15673 net.cpp:148] Top shape: 1 1 (1)
I0925 22:56:02.537204 15711 net.cpp:399] cont_sentence_input_1_split -> cont_sentence_input_1_split_1
I0925 22:56:02.537214 15691 net.cpp:148] Top shape: 1 4096 (4096)
I0925 22:56:02.537227 15673 net.cpp:148] Top shape: 1 1 (1)
I0925 22:56:02.537248 15691 net.cpp:148] Top shape: 1 1 (1)
I0925 22:56:02.537252 15673 net.cpp:148] Top shape: 1 1 (1)
I0925 22:56:02.537261 15691 net.cpp:148] Top shape: 1 1 (1)
I0925 22:56:02.537262 15673 net.cpp:156] Memory required for data: 16396
I0925 22:56:02.537271 15691 net.cpp:148] Top shape: 1 1 (1)
I0925 22:56:02.537263 15721 net.cpp:141] Setting up cont_sentence_input_1_split
I0925 22:56:02.537278 15691 net.cpp:156] Memory required for data: 16396
I0925 22:56:02.537278 15673 layer_factory.hpp:77] Creating layer cont_sentence_input_1_split
I0925 22:56:02.537286 15721 net.cpp:148] Top shape: 1 1 (1)
I0925 22:56:02.537288 15691 layer_factory.hpp:77] Creating layer cont_sentence_input_1_split
I0925 22:56:02.537297 15721 net.cpp:148] Top shape: 1 1 (1)
I0925 22:56:02.537302 15673 net.cpp:91] Creating Layer cont_sentence_input_1_split
I0925 22:56:02.537303 15691 net.cpp:91] Creating Layer cont_sentence_input_1_split
I0925 22:56:02.537310 15673 net.cpp:425] cont_sentence_input_1_split <- cont_sentence
I0925 22:56:02.537305 15721 net.cpp:156] Memory required for data: 16404
I0925 22:56:02.537319 15691 net.cpp:425] cont_sentence_input_1_split <- cont_sentence
I0925 22:56:02.537322 15721 layer_factory.hpp:77] Creating layer embed_encoder
I0925 22:56:02.537324 15673 net.cpp:399] cont_sentence_input_1_split -> cont_sentence_input_1_split_0
I0925 22:56:02.537350 15691 net.cpp:399] cont_sentence_input_1_split -> cont_sentence_input_1_split_0
I0925 22:56:02.537348 15673 net.cpp:399] cont_sentence_input_1_split -> cont_sentence_input_1_split_1
I0925 22:56:02.537348 15721 net.cpp:91] Creating Layer embed_encoder
I0925 22:56:02.537350 15679 net.cpp:141] Setting up input
I0925 22:56:02.537366 15721 net.cpp:425] embed_encoder <- frames_fc7
I0925 22:56:02.537369 15691 net.cpp:399] cont_sentence_input_1_split -> cont_sentence_input_1_split_1
I0925 22:56:02.537396 15679 net.cpp:148] Top shape: 1 4096 (4096)
I0925 22:56:02.537400 15721 net.cpp:399] embed_encoder -> embedded_in_frames
I0925 22:56:02.537410 15679 net.cpp:148] Top shape: 1 1 (1)
I0925 22:56:02.537416 15683 net.cpp:141] Setting up input
I0925 22:56:02.537423 15679 net.cpp:148] Top shape: 1 1 (1)
I0925 22:56:02.537441 15683 net.cpp:148] Top shape: 1 4096 (4096)
I0925 22:56:02.537449 15679 net.cpp:148] Top shape: 1 1 (1)
I0925 22:56:02.537453 15683 net.cpp:148] Top shape: 1 1 (1)
I0925 22:56:02.537458 15679 net.cpp:156] Memory required for data: 16396
I0925 22:56:02.537467 15683 net.cpp:148] Top shape: 1 1 (1)
I0925 22:56:02.537472 15679 layer_factory.hpp:77] Creating layer cont_sentence_input_1_split
I0925 22:56:02.537478 15683 net.cpp:148] Top shape: 1 1 (1)
I0925 22:56:02.537487 15683 net.cpp:156] Memory required for data: 16396
I0925 22:56:02.537497 15683 layer_factory.hpp:77] Creating layer cont_sentence_input_1_split
I0925 22:56:02.537497 15679 net.cpp:91] Creating Layer cont_sentence_input_1_split
I0925 22:56:02.537509 15679 net.cpp:425] cont_sentence_input_1_split <- cont_sentence
I0925 22:56:02.537524 15679 net.cpp:399] cont_sentence_input_1_split -> cont_sentence_input_1_split_0
I0925 22:56:02.537529 15683 net.cpp:91] Creating Layer cont_sentence_input_1_split
I0925 22:56:02.537542 15683 net.cpp:425] cont_sentence_input_1_split <- cont_sentence
I0925 22:56:02.537544 15679 net.cpp:399] cont_sentence_input_1_split -> cont_sentence_input_1_split_1
I0925 22:56:02.537564 15683 net.cpp:399] cont_sentence_input_1_split -> cont_sentence_input_1_split_0
I0925 22:56:02.537586 15683 net.cpp:399] cont_sentence_input_1_split -> cont_sentence_input_1_split_1
I0925 22:56:02.541990 15673 net.cpp:141] Setting up cont_sentence_input_1_split
I0925 22:56:02.542042 15673 net.cpp:148] Top shape: 1 1 (1)
I0925 22:56:02.542063 15673 net.cpp:148] Top shape: 1 1 (1)
I0925 22:56:02.542076 15673 net.cpp:156] Memory required for data: 16404
I0925 22:56:02.542091 15673 layer_factory.hpp:77] Creating layer embed_encoder
I0925 22:56:02.542125 15673 net.cpp:91] Creating Layer embed_encoder
I0925 22:56:02.542145 15673 net.cpp:425] embed_encoder <- frames_fc7
I0925 22:56:02.542171 15673 net.cpp:399] embed_encoder -> embedded_in_frames
I0925 22:56:02.546917 15691 net.cpp:141] Setting up cont_sentence_input_1_split
I0925 22:56:02.546941 15711 net.cpp:141] Setting up cont_sentence_input_1_split
I0925 22:56:02.546973 15691 net.cpp:148] Top shape: 1 1 (1)
I0925 22:56:02.546974 15711 net.cpp:148] Top shape: 1 1 (1)
I0925 22:56:02.546993 15691 net.cpp:148] Top shape: 1 1 (1)
I0925 22:56:02.546998 15711 net.cpp:148] Top shape: 1 1 (1)
I0925 22:56:02.547001 15691 net.cpp:156] Memory required for data: 16404
I0925 22:56:02.547008 15711 net.cpp:156] Memory required for data: 16404
I0925 22:56:02.547014 15691 layer_factory.hpp:77] Creating layer embed_encoder
I0925 22:56:02.547018 15711 layer_factory.hpp:77] Creating layer embed_encoder
I0925 22:56:02.547047 15711 net.cpp:91] Creating Layer embed_encoder
I0925 22:56:02.547041 15679 net.cpp:141] Setting up cont_sentence_input_1_split
I0925 22:56:02.547058 15691 net.cpp:91] Creating Layer embed_encoder
I0925 22:56:02.547055 15711 net.cpp:425] embed_encoder <- frames_fc7
I0925 22:56:02.547075 15691 net.cpp:425] embed_encoder <- frames_fc7
I0925 22:56:02.547081 15679 net.cpp:148] Top shape: 1 1 (1)
I0925 22:56:02.547086 15711 net.cpp:399] embed_encoder -> embedded_in_frames
I0925 22:56:02.547093 15691 net.cpp:399] embed_encoder -> embedded_in_frames
I0925 22:56:02.547093 15679 net.cpp:148] Top shape: 1 1 (1)
I0925 22:56:02.547127 15679 net.cpp:156] Memory required for data: 16404
I0925 22:56:02.547139 15679 layer_factory.hpp:77] Creating layer embed_encoder
I0925 22:56:02.547164 15679 net.cpp:91] Creating Layer embed_encoder
I0925 22:56:02.547174 15679 net.cpp:425] embed_encoder <- frames_fc7
I0925 22:56:02.547191 15679 net.cpp:399] embed_encoder -> embedded_in_frames
I0925 22:56:02.551640 15695 net.cpp:141] Setting up input
I0925 22:56:02.551702 15695 net.cpp:148] Top shape: 1 4096 (4096)
I0925 22:56:02.551719 15695 net.cpp:148] Top shape: 1 1 (1)
I0925 22:56:02.551735 15695 net.cpp:148] Top shape: 1 1 (1)
I0925 22:56:02.551749 15695 net.cpp:148] Top shape: 1 1 (1)
I0925 22:56:02.551759 15695 net.cpp:156] Memory required for data: 16396
I0925 22:56:02.551750 15683 net.cpp:141] Setting up cont_sentence_input_1_split
I0925 22:56:02.551777 15695 layer_factory.hpp:77] Creating layer cont_sentence_input_1_split
I0925 22:56:02.551808 15683 net.cpp:148] Top shape: 1 1 (1)
I0925 22:56:02.551812 15695 net.cpp:91] Creating Layer cont_sentence_input_1_split
I0925 22:56:02.551844 15683 net.cpp:148] Top shape: 1 1 (1)
I0925 22:56:02.551853 15695 net.cpp:425] cont_sentence_input_1_split <- cont_sentence
I0925 22:56:02.551861 15683 net.cpp:156] Memory required for data: 16404
I0925 22:56:02.551877 15695 net.cpp:399] cont_sentence_input_1_split -> cont_sentence_input_1_split_0
I0925 22:56:02.551879 15683 layer_factory.hpp:77] Creating layer embed_encoder
I0925 22:56:02.551924 15695 net.cpp:399] cont_sentence_input_1_split -> cont_sentence_input_1_split_1
I0925 22:56:02.551990 15683 net.cpp:91] Creating Layer embed_encoder
I0925 22:56:02.552012 15683 net.cpp:425] embed_encoder <- frames_fc7
I0925 22:56:02.552039 15683 net.cpp:399] embed_encoder -> embedded_in_frames
I0925 22:56:02.573300 15695 net.cpp:141] Setting up cont_sentence_input_1_split
I0925 22:56:02.573351 15695 net.cpp:148] Top shape: 1 1 (1)
I0925 22:56:02.573361 15695 net.cpp:148] Top shape: 1 1 (1)
I0925 22:56:02.573366 15695 net.cpp:156] Memory required for data: 16404
I0925 22:56:02.573375 15695 layer_factory.hpp:77] Creating layer embed_encoder
I0925 22:56:02.573403 15695 net.cpp:91] Creating Layer embed_encoder
I0925 22:56:02.573411 15695 net.cpp:425] embed_encoder <- frames_fc7
I0925 22:56:02.573423 15695 net.cpp:399] embed_encoder -> embedded_in_frames
I0925 22:56:02.574324 15677 net.cpp:141] Setting up embed_encoder
I0925 22:56:02.574363 15677 net.cpp:148] Top shape: 1 500 (500)
I0925 22:56:02.574369 15677 net.cpp:156] Memory required for data: 18404
I0925 22:56:02.574394 15677 layer_factory.hpp:77] Creating layer reshape_frames
I0925 22:56:02.574420 15677 net.cpp:91] Creating Layer reshape_frames
I0925 22:56:02.574431 15677 net.cpp:425] reshape_frames <- embedded_in_frames
I0925 22:56:02.574445 15677 net.cpp:399] reshape_frames -> embedded_input_frames
I0925 22:56:02.595295 15677 net.cpp:141] Setting up reshape_frames
I0925 22:56:02.595345 15677 net.cpp:148] Top shape: 1 1 500 (500)
I0925 22:56:02.595353 15677 net.cpp:156] Memory required for data: 20404
I0925 22:56:02.595368 15677 layer_factory.hpp:77] Creating layer reshape_stage_indicator
I0925 22:56:02.595393 15677 net.cpp:91] Creating Layer reshape_stage_indicator
I0925 22:56:02.595407 15677 net.cpp:425] reshape_stage_indicator <- stage_indicator
I0925 22:56:02.595422 15677 net.cpp:399] reshape_stage_indicator -> reshaped_stage_indicator
I0925 22:56:02.595496 15677 net.cpp:141] Setting up reshape_stage_indicator
I0925 22:56:02.595512 15677 net.cpp:148] Top shape: 1 1 1 (1)
I0925 22:56:02.595520 15677 net.cpp:156] Memory required for data: 20408
I0925 22:56:02.595527 15677 layer_factory.hpp:77] Creating layer embedding
I0925 22:56:02.595546 15677 net.cpp:91] Creating Layer embedding
I0925 22:56:02.595554 15677 net.cpp:425] embedding <- input_sentence
I0925 22:56:02.595567 15677 net.cpp:399] embedding -> embedded_input_sentence
I0925 22:56:02.643409 15673 net.cpp:141] Setting up embed_encoder
I0925 22:56:02.643465 15673 net.cpp:148] Top shape: 1 500 (500)
I0925 22:56:02.643476 15673 net.cpp:156] Memory required for data: 18404
I0925 22:56:02.643507 15673 layer_factory.hpp:77] Creating layer reshape_frames
I0925 22:56:02.643532 15673 net.cpp:91] Creating Layer reshape_frames
I0925 22:56:02.643544 15673 net.cpp:425] reshape_frames <- embedded_in_frames
I0925 22:56:02.643560 15673 net.cpp:399] reshape_frames -> embedded_input_frames
I0925 22:56:02.644340 15673 net.cpp:141] Setting up reshape_frames
I0925 22:56:02.644345 15721 net.cpp:141] Setting up embed_encoder
I0925 22:56:02.644363 15673 net.cpp:148] Top shape: 1 1 500 (500)
I0925 22:56:02.644373 15673 net.cpp:156] Memory required for data: 20404
I0925 22:56:02.644381 15721 net.cpp:148] Top shape: 1 500 (500)
I0925 22:56:02.644407 15721 net.cpp:156] Memory required for data: 18404
I0925 22:56:02.644445 15721 layer_factory.hpp:77] Creating layer reshape_frames
I0925 22:56:02.644466 15679 net.cpp:141] Setting up embed_encoder
I0925 22:56:02.644492 15691 net.cpp:141] Setting up embed_encoder
I0925 22:56:02.644513 15679 net.cpp:148] Top shape: 1 500 (500)
I0925 22:56:02.644520 15679 net.cpp:156] Memory required for data: 18404
I0925 22:56:02.644518 15691 net.cpp:148] Top shape: 1 500 (500)
I0925 22:56:02.644549 15691 net.cpp:156] Memory required for data: 18404
I0925 22:56:02.644552 15679 layer_factory.hpp:77] Creating layer reshape_frames
I0925 22:56:02.644573 15679 net.cpp:91] Creating Layer reshape_frames
I0925 22:56:02.644582 15679 net.cpp:425] reshape_frames <- embedded_in_frames
I0925 22:56:02.644593 15679 net.cpp:399] reshape_frames -> embedded_input_frames
I0925 22:56:02.644600 15691 layer_factory.hpp:77] Creating layer reshape_frames
I0925 22:56:02.644620 15691 net.cpp:91] Creating Layer reshape_frames
I0925 22:56:02.644632 15691 net.cpp:425] reshape_frames <- embedded_in_frames
I0925 22:56:02.644664 15691 net.cpp:399] reshape_frames -> embedded_input_frames
I0925 22:56:02.644749 15691 net.cpp:141] Setting up reshape_frames
I0925 22:56:02.644765 15691 net.cpp:148] Top shape: 1 1 500 (500)
I0925 22:56:02.644776 15691 net.cpp:156] Memory required for data: 20404
I0925 22:56:02.644778 15679 net.cpp:141] Setting up reshape_frames
I0925 22:56:02.644788 15691 layer_factory.hpp:77] Creating layer reshape_stage_indicator
I0925 22:56:02.644790 15679 net.cpp:148] Top shape: 1 1 500 (500)
I0925 22:56:02.644809 15679 net.cpp:156] Memory required for data: 20404
I0925 22:56:02.644815 15679 layer_factory.hpp:77] Creating layer reshape_stage_indicator
I0925 22:56:02.644841 15679 net.cpp:91] Creating Layer reshape_stage_indicator
I0925 22:56:02.644842 15683 net.cpp:141] Setting up embed_encoder
I0925 22:56:02.644855 15679 net.cpp:425] reshape_stage_indicator <- stage_indicator
I0925 22:56:02.644840 15691 net.cpp:91] Creating Layer reshape_stage_indicator
I0925 22:56:02.644870 15679 net.cpp:399] reshape_stage_indicator -> reshaped_stage_indicator
I0925 22:56:02.644875 15683 net.cpp:148] Top shape: 1 500 (500)
I0925 22:56:02.644879 15691 net.cpp:425] reshape_stage_indicator <- stage_indicator
I0925 22:56:02.644886 15683 net.cpp:156] Memory required for data: 18404
I0925 22:56:02.644881 15711 net.cpp:141] Setting up embed_encoder
I0925 22:56:02.644899 15691 net.cpp:399] reshape_stage_indicator -> reshaped_stage_indicator
I0925 22:56:02.644914 15711 net.cpp:148] Top shape: 1 500 (500)
I0925 22:56:02.644915 15683 layer_factory.hpp:77] Creating layer reshape_frames
I0925 22:56:02.644938 15711 net.cpp:156] Memory required for data: 18404
I0925 22:56:02.644919 15679 net.cpp:141] Setting up reshape_stage_indicator
I0925 22:56:02.644961 15679 net.cpp:148] Top shape: 1 1 1 (1)
I0925 22:56:02.644965 15711 layer_factory.hpp:77] Creating layer reshape_frames
I0925 22:56:02.644978 15679 net.cpp:156] Memory required for data: 20408
I0925 22:56:02.644984 15691 net.cpp:141] Setting up reshape_stage_indicator
I0925 22:56:02.644989 15711 net.cpp:91] Creating Layer reshape_frames
I0925 22:56:02.644959 15683 net.cpp:91] Creating Layer reshape_frames
I0925 22:56:02.645006 15711 net.cpp:425] reshape_frames <- embedded_in_frames
I0925 22:56:02.644992 15679 layer_factory.hpp:77] Creating layer embedding
I0925 22:56:02.645016 15683 net.cpp:425] reshape_frames <- embedded_in_frames
I0925 22:56:02.645001 15691 net.cpp:148] Top shape: 1 1 1 (1)
I0925 22:56:02.645030 15711 net.cpp:399] reshape_frames -> embedded_input_frames
I0925 22:56:02.645035 15683 net.cpp:399] reshape_frames -> embedded_input_frames
I0925 22:56:02.645040 15691 net.cpp:156] Memory required for data: 20408
I0925 22:56:02.645045 15679 net.cpp:91] Creating Layer embedding
I0925 22:56:02.645053 15679 net.cpp:425] embedding <- input_sentence
I0925 22:56:02.645051 15691 layer_factory.hpp:77] Creating layer embedding
I0925 22:56:02.645062 15679 net.cpp:399] embedding -> embedded_input_sentence
I0925 22:56:02.645071 15691 net.cpp:91] Creating Layer embedding
I0925 22:56:02.645081 15691 net.cpp:425] embedding <- input_sentence
I0925 22:56:02.645110 15711 net.cpp:141] Setting up reshape_frames
I0925 22:56:02.645113 15691 net.cpp:399] embedding -> embedded_input_sentence
I0925 22:56:02.645131 15711 net.cpp:148] Top shape: 1 1 500 (500)
I0925 22:56:02.645143 15711 net.cpp:156] Memory required for data: 20404
I0925 22:56:02.645151 15711 layer_factory.hpp:77] Creating layer reshape_stage_indicator
I0925 22:56:02.645149 15683 net.cpp:141] Setting up reshape_frames
I0925 22:56:02.645174 15711 net.cpp:91] Creating Layer reshape_stage_indicator
I0925 22:56:02.645176 15683 net.cpp:148] Top shape: 1 1 500 (500)
I0925 22:56:02.645184 15711 net.cpp:425] reshape_stage_indicator <- stage_indicator
I0925 22:56:02.645185 15683 net.cpp:156] Memory required for data: 20404
I0925 22:56:02.645202 15683 layer_factory.hpp:77] Creating layer reshape_stage_indicator
I0925 22:56:02.645206 15711 net.cpp:399] reshape_stage_indicator -> reshaped_stage_indicator
I0925 22:56:02.645221 15683 net.cpp:91] Creating Layer reshape_stage_indicator
I0925 22:56:02.645231 15683 net.cpp:425] reshape_stage_indicator <- stage_indicator
I0925 22:56:02.645247 15683 net.cpp:399] reshape_stage_indicator -> reshaped_stage_indicator
I0925 22:56:02.644476 15721 net.cpp:91] Creating Layer reshape_frames
I0925 22:56:02.645839 15721 net.cpp:425] reshape_frames <- embedded_in_frames
I0925 22:56:02.644383 15673 layer_factory.hpp:77] Creating layer reshape_stage_indicator
I0925 22:56:02.647150 15673 net.cpp:91] Creating Layer reshape_stage_indicator
I0925 22:56:02.647179 15673 net.cpp:425] reshape_stage_indicator <- stage_indicator
I0925 22:56:02.647208 15673 net.cpp:399] reshape_stage_indicator -> reshaped_stage_indicator
I0925 22:56:02.647506 15721 net.cpp:399] reshape_frames -> embedded_input_frames
I0925 22:56:02.688812 15711 net.cpp:141] Setting up reshape_stage_indicator
I0925 22:56:02.688913 15711 net.cpp:148] Top shape: 1 1 1 (1)
I0925 22:56:02.688928 15711 net.cpp:156] Memory required for data: 20408
I0925 22:56:02.688944 15711 layer_factory.hpp:77] Creating layer embedding
I0925 22:56:02.688979 15711 net.cpp:91] Creating Layer embedding
I0925 22:56:02.688997 15711 net.cpp:425] embedding <- input_sentence
I0925 22:56:02.689054 15711 net.cpp:399] embedding -> embedded_input_sentence
I0925 22:56:02.732128 15683 net.cpp:141] Setting up reshape_stage_indicator
I0925 22:56:02.732164 15673 net.cpp:141] Setting up reshape_stage_indicator
I0925 22:56:02.732182 15683 net.cpp:148] Top shape: 1 1 1 (1)
I0925 22:56:02.732188 15673 net.cpp:148] Top shape: 1 1 1 (1)
I0925 22:56:02.732192 15683 net.cpp:156] Memory required for data: 20408
I0925 22:56:02.732197 15673 net.cpp:156] Memory required for data: 20408
I0925 22:56:02.732204 15683 layer_factory.hpp:77] Creating layer embedding
I0925 22:56:02.732205 15673 layer_factory.hpp:77] Creating layer embedding
I0925 22:56:02.732228 15673 net.cpp:91] Creating Layer embedding
I0925 22:56:02.732228 15683 net.cpp:91] Creating Layer embedding
I0925 22:56:02.732239 15673 net.cpp:425] embedding <- input_sentence
I0925 22:56:02.732273 15673 net.cpp:399] embedding -> embedded_input_sentence
I0925 22:56:02.732305 15721 net.cpp:141] Setting up reshape_frames
I0925 22:56:02.732321 15721 net.cpp:148] Top shape: 1 1 500 (500)
I0925 22:56:02.732328 15721 net.cpp:156] Memory required for data: 20404
I0925 22:56:02.732336 15721 layer_factory.hpp:77] Creating layer reshape_stage_indicator
I0925 22:56:02.732355 15721 net.cpp:91] Creating Layer reshape_stage_indicator
I0925 22:56:02.732364 15721 net.cpp:425] reshape_stage_indicator <- stage_indicator
I0925 22:56:02.732378 15721 net.cpp:399] reshape_stage_indicator -> reshaped_stage_indicator
I0925 22:56:02.732239 15683 net.cpp:425] embedding <- input_sentence
I0925 22:56:02.732442 15683 net.cpp:399] embedding -> embedded_input_sentence
I0925 22:56:02.781409 15721 net.cpp:141] Setting up reshape_stage_indicator
I0925 22:56:02.781502 15721 net.cpp:148] Top shape: 1 1 1 (1)
I0925 22:56:02.781523 15721 net.cpp:156] Memory required for data: 20408
I0925 22:56:02.781544 15721 layer_factory.hpp:77] Creating layer embedding
I0925 22:56:02.781587 15721 net.cpp:91] Creating Layer embedding
I0925 22:56:02.781615 15721 net.cpp:425] embedding <- input_sentence
I0925 22:56:02.781644 15721 net.cpp:399] embedding -> embedded_input_sentence
I0925 22:56:02.835970 15695 net.cpp:141] Setting up embed_encoder
I0925 22:56:02.836554 15695 net.cpp:148] Top shape: 1 500 (500)
I0925 22:56:02.836745 15695 net.cpp:156] Memory required for data: 18404
I0925 22:56:02.837018 15695 layer_factory.hpp:77] Creating layer reshape_frames
I0925 22:56:02.837270 15695 net.cpp:91] Creating Layer reshape_frames
I0925 22:56:02.837421 15695 net.cpp:425] reshape_frames <- embedded_in_frames
I0925 22:56:02.837573 15695 net.cpp:399] reshape_frames -> embedded_input_frames
I0925 22:56:02.933019 15695 net.cpp:141] Setting up reshape_frames
I0925 22:56:02.933099 15695 net.cpp:148] Top shape: 1 1 500 (500)
I0925 22:56:02.933109 15695 net.cpp:156] Memory required for data: 20404
I0925 22:56:02.933128 15695 layer_factory.hpp:77] Creating layer reshape_stage_indicator
I0925 22:56:02.933131 15677 net.cpp:141] Setting up embedding
I0925 22:56:02.933176 15677 net.cpp:148] Top shape: 1 1 500 (500)
I0925 22:56:02.933174 15695 net.cpp:91] Creating Layer reshape_stage_indicator
I0925 22:56:02.933183 15677 net.cpp:156] Memory required for data: 22408
I0925 22:56:02.933192 15695 net.cpp:425] reshape_stage_indicator <- stage_indicator
I0925 22:56:02.933209 15677 layer_factory.hpp:77] Creating layer lstm1
I0925 22:56:02.933215 15695 net.cpp:399] reshape_stage_indicator -> reshaped_stage_indicator
I0925 22:56:02.933236 15677 net.cpp:91] Creating Layer lstm1
I0925 22:56:02.933246 15677 net.cpp:425] lstm1 <- embedded_input_frames
I0925 22:56:02.933254 15677 net.cpp:425] lstm1 <- cont_sentence_input_1_split_0
I0925 22:56:02.933264 15677 net.cpp:399] lstm1 -> lstm1
I0925 22:56:02.933333 15677 recurrent_layer.cpp:20] Initializing recurrent layer: assuming input batch contains 1 timesteps of 1 independent streams.
I0925 22:56:02.933348 15695 net.cpp:141] Setting up reshape_stage_indicator
I0925 22:56:02.933367 15695 net.cpp:148] Top shape: 1 1 1 (1)
I0925 22:56:02.933375 15695 net.cpp:156] Memory required for data: 20408
I0925 22:56:02.933383 15695 layer_factory.hpp:77] Creating layer embedding
I0925 22:56:02.933409 15695 net.cpp:91] Creating Layer embedding
I0925 22:56:02.933418 15695 net.cpp:425] embedding <- input_sentence
I0925 22:56:02.933434 15695 net.cpp:399] embedding -> embedded_input_sentence
I0925 22:56:02.970805 15677 net.cpp:49] Initializing net from parameters: 
layer {
  name: "lstm1_"
  type: "Input"
  top: "x"
  top: "cont"
  input_param {
    shape {
      dim: 1
      dim: 1
      dim: 500
    }
    shape {
      dim: 1
      dim: 1
    }
  }
}
layer {
  name: "lstm1_"
  type: "Input"
  top: "c_0"
  top: "h_0"
  input_param {
    shape {
      dim: 1
      dim: 1
      dim: 1000
    }
    shape {
      dim: 1
      dim: 1
      dim: 1000
    }
  }
}
layer {
  name: "lstm1_cont_slice"
  type: "Slice"
  bottom: "cont"
  top: "cont_1"
  slice_param {
    axis: 0
  }
}
layer {
  name: "lstm1_x_transform"
  type: "InnerProduct"
  bottom: "x"
  top: "W_xc_x"
  param {
    name: "W_xc"
  }
  param {
    name: "b_c"
  }
  propagate_down: true
  inner_product_param {
    num_output: 4000
    bias_term: true
    weight_filler {
      type: "uniform"
      min: -0.08
      max: 0.08
    }
    bias_filler {
      type: "constant"
      value: 0
    }
    axis: 2
  }
}
layer {
  name: "lstm1_W_xc_x_slice"
  type: "Slice"
  bottom: "W_xc_x"
  top: "W_xc_x_1"
  slice_param {
    axis: 0
  }
}
layer {
  name: "lstm1_h_conted_0"
  type: "Scale"
  bottom: "h_0"
  bottom: "cont_1"
  top: "h_conted_0"
  scale_param {
    axis: 0
  }
}
layer {
  name: "lstm1_transform_1"
  type: "InnerProduct"
  bottom: "h_conted_0"
  top: "W_hc_h_0"
  param {
    name: "W_hc"
  }
  inner_product_param {
    num_output: 4000
    bias_term: false
    weight_filler {
      type: "uniform"
      min: -0.08
      max: 0.08
    }
    axis: 2
  }
}
layer {
  name: "lstm1_gate_input_1"
  type: "Eltwise"
  bottom: "W_hc_h_0"
  bottom: "W_xc_x_1"
  top: "gate_input_1"
  eltwise_param {
    operation: SUM
  }
}
layer {
  name: "lstm1_unit_1"
  type: "LSTMUnit"
  bottom: "c_0"
  bottom: "gate_input_1"
  bottom: "cont_1"
  top: "c_1"
  top: "h_1"
}
layer {
  name: "lstm1_"
  type: "Split"
  bottom: "c_1"
  top: "c_T"
}
layer {
  name: "lstm1_h_concat"
  type: "Concat"
  bottom: "h_1"
  top: "h"
  concat_param {
    axis: 0
  }
}
layer {
  name: "h_pseudoloss"
  type: "Reduction"
  bottom: "h"
  top: "h_pseudoloss"
  loss_weight: 1
}
I0925 22:56:02.970968 15677 layer_factory.hpp:77] Creating layer lstm1_
I0925 22:56:02.970984 15677 net.cpp:91] Creating Layer lstm1_
I0925 22:56:02.970991 15677 net.cpp:399] lstm1_ -> x
I0925 22:56:02.971009 15677 net.cpp:399] lstm1_ -> cont
I0925 22:56:02.976233 15679 net.cpp:141] Setting up embedding
I0925 22:56:02.976290 15679 net.cpp:148] Top shape: 1 1 500 (500)
I0925 22:56:02.976300 15679 net.cpp:156] Memory required for data: 22408
I0925 22:56:02.976332 15679 layer_factory.hpp:77] Creating layer lstm1
I0925 22:56:02.976368 15679 net.cpp:91] Creating Layer lstm1
I0925 22:56:02.976382 15679 net.cpp:425] lstm1 <- embedded_input_frames
I0925 22:56:02.976397 15679 net.cpp:425] lstm1 <- cont_sentence_input_1_split_0
I0925 22:56:02.976414 15679 net.cpp:399] lstm1 -> lstm1
I0925 22:56:02.976441 15679 recurrent_layer.cpp:20] Initializing recurrent layer: assuming input batch contains 1 timesteps of 1 independent streams.
I0925 22:56:02.976904 15679 net.cpp:49] Initializing net from parameters: 
layer {
  name: "lstm1_"
  type: "Input"
  top: "x"
  top: "cont"
  input_param {
    shape {
      dim: 1
      dim: 1
      dim: 500
    }
    shape {
      dim: 1
      dim: 1
    }
  }
}
layer {
  name: "lstm1_"
  type: "Input"
  top: "c_0"
  top: "h_0"
  input_param {
    shape {
      dim: 1
      dim: 1
      dim: 1000
    }
    shape {
      dim: 1
      dim: 1
      dim: 1000
    }
  }
}
layer {
  name: "lstm1_cont_slice"
  type: "Slice"
  bottom: "cont"
  top: "cont_1"
  slice_param {
    axis: 0
  }
}
layer {
  name: "lstm1_x_transform"
  type: "InnerProduct"
  bottom: "x"
  top: "W_xc_x"
  param {
    name: "W_xc"
  }
  param {
    name: "b_c"
  }
  propagate_down: true
  inner_product_param {
    num_output: 4000
    bias_term: true
    weight_filler {
      type: "uniform"
      min: -0.08
      max: 0.08
    }
    bias_filler {
      type: "constant"
      value: 0
    }
    axis: 2
  }
}
layer {
  name: "lstm1_W_xc_x_slice"
  type: "Slice"
  bottom: "W_xc_x"
  top: "W_xc_x_1"
  slice_param {
    axis: 0
  }
}
layer {
  name: "lstm1_h_conted_0"
  type: "Scale"
  bottom: "h_0"
  bottom: "cont_1"
  top: "h_conted_0"
  scale_param {
    axis: 0
  }
}
layer {
  name: "lstm1_transform_1"
  type: "InnerProduct"
  bottom: "h_conted_0"
  top: "W_hc_h_0"
  param {
    name: "W_hc"
  }
  inner_product_param {
    num_output: 4000
    bias_term: false
    weight_filler {
      type: "uniform"
      min: -0.08
      max: 0.08
    }
    axis: 2
  }
}
layer {
  name: "lstm1_gate_input_1"
  type: "Eltwise"
  bottom: "W_hc_h_0"
  bottom: "W_xc_x_1"
  top: "gate_input_1"
  eltwise_param {
    operation: SUM
  }
}
layer {
  name: "lstm1_unit_1"
  type: "LSTMUnit"
  bottom: "c_0"
  bottom: "gate_input_1"
  bottom: "cont_1"
  top: "c_1"
  top: "h_1"
}
layer {
  name: "lstm1_"
  type: "Split"
  bottom: "c_1"
  top: "c_T"
}
layer {
  name: "lstm1_h_concat"
  type: "Concat"
  bottom: "h_1"
  top: "h"
  concat_param {
    axis: 0
  }
}
layer {
  name: "h_pseudoloss"
  type: "Reduction"
  bottom: "h"
  top: "h_pseudoloss"
  loss_weight: 1
}
I0925 22:56:02.977051 15679 layer_factory.hpp:77] Creating layer lstm1_
I0925 22:56:02.977072 15679 net.cpp:91] Creating Layer lstm1_
I0925 22:56:02.977082 15679 net.cpp:399] lstm1_ -> x
I0925 22:56:02.977102 15679 net.cpp:399] lstm1_ -> cont
I0925 22:56:02.977241 15679 net.cpp:141] Setting up lstm1_
I0925 22:56:02.977259 15679 net.cpp:148] Top shape: 1 1 500 (500)
I0925 22:56:02.977272 15679 net.cpp:148] Top shape: 1 1 (1)
I0925 22:56:02.977280 15679 net.cpp:156] Memory required for data: 2004
I0925 22:56:02.977288 15679 layer_factory.hpp:77] Creating layer lstm1_
I0925 22:56:02.977303 15679 net.cpp:91] Creating Layer lstm1_
I0925 22:56:02.977316 15679 net.cpp:399] lstm1_ -> c_0
I0925 22:56:02.977331 15679 net.cpp:399] lstm1_ -> h_0
I0925 22:56:02.977411 15679 net.cpp:141] Setting up lstm1_
I0925 22:56:02.977429 15679 net.cpp:148] Top shape: 1 1 1000 (1000)
I0925 22:56:02.977439 15679 net.cpp:148] Top shape: 1 1 1000 (1000)
I0925 22:56:02.977447 15679 net.cpp:156] Memory required for data: 10004
I0925 22:56:02.977454 15679 layer_factory.hpp:77] Creating layer lstm1_cont_slice
I0925 22:56:02.977468 15679 net.cpp:91] Creating Layer lstm1_cont_slice
I0925 22:56:02.977476 15679 net.cpp:425] lstm1_cont_slice <- cont
I0925 22:56:02.977489 15679 net.cpp:399] lstm1_cont_slice -> cont_1
I0925 22:56:02.977542 15679 net.cpp:141] Setting up lstm1_cont_slice
I0925 22:56:02.977557 15679 net.cpp:148] Top shape: 1 1 (1)
I0925 22:56:02.977565 15679 net.cpp:156] Memory required for data: 10008
I0925 22:56:02.977571 15679 layer_factory.hpp:77] Creating layer cont_1_lstm1_cont_slice_0_split
I0925 22:56:02.977583 15679 net.cpp:91] Creating Layer cont_1_lstm1_cont_slice_0_split
I0925 22:56:02.977593 15679 net.cpp:425] cont_1_lstm1_cont_slice_0_split <- cont_1
I0925 22:56:02.977604 15679 net.cpp:399] cont_1_lstm1_cont_slice_0_split -> cont_1_lstm1_cont_slice_0_split_0
I0925 22:56:02.977617 15679 net.cpp:399] cont_1_lstm1_cont_slice_0_split -> cont_1_lstm1_cont_slice_0_split_1
I0925 22:56:02.977685 15679 net.cpp:141] Setting up cont_1_lstm1_cont_slice_0_split
I0925 22:56:02.977699 15679 net.cpp:148] Top shape: 1 1 (1)
I0925 22:56:02.977710 15679 net.cpp:148] Top shape: 1 1 (1)
I0925 22:56:02.977716 15679 net.cpp:156] Memory required for data: 10016
I0925 22:56:02.977722 15679 layer_factory.hpp:77] Creating layer lstm1_x_transform
I0925 22:56:02.977740 15679 net.cpp:91] Creating Layer lstm1_x_transform
I0925 22:56:02.977747 15679 net.cpp:425] lstm1_x_transform <- x
I0925 22:56:02.977763 15679 net.cpp:399] lstm1_x_transform -> W_xc_x
I0925 22:56:02.983726 15677 net.cpp:141] Setting up lstm1_
I0925 22:56:02.983778 15677 net.cpp:148] Top shape: 1 1 500 (500)
I0925 22:56:02.983795 15677 net.cpp:148] Top shape: 1 1 (1)
I0925 22:56:02.983805 15677 net.cpp:156] Memory required for data: 2004
I0925 22:56:02.983819 15677 layer_factory.hpp:77] Creating layer lstm1_
I0925 22:56:02.983861 15677 net.cpp:91] Creating Layer lstm1_
I0925 22:56:02.983878 15677 net.cpp:399] lstm1_ -> c_0
I0925 22:56:02.983906 15677 net.cpp:399] lstm1_ -> h_0
I0925 22:56:02.984040 15677 net.cpp:141] Setting up lstm1_
I0925 22:56:02.984060 15677 net.cpp:148] Top shape: 1 1 1000 (1000)
I0925 22:56:02.984072 15677 net.cpp:148] Top shape: 1 1 1000 (1000)
I0925 22:56:02.984081 15677 net.cpp:156] Memory required for data: 10004
I0925 22:56:02.984091 15677 layer_factory.hpp:77] Creating layer lstm1_cont_slice
I0925 22:56:02.984107 15677 net.cpp:91] Creating Layer lstm1_cont_slice
I0925 22:56:02.984118 15677 net.cpp:425] lstm1_cont_slice <- cont
I0925 22:56:02.984177 15677 net.cpp:399] lstm1_cont_slice -> cont_1
I0925 22:56:02.998445 15677 net.cpp:141] Setting up lstm1_cont_slice
I0925 22:56:02.998495 15677 net.cpp:148] Top shape: 1 1 (1)
I0925 22:56:02.998503 15677 net.cpp:156] Memory required for data: 10008
I0925 22:56:02.998510 15677 layer_factory.hpp:77] Creating layer cont_1_lstm1_cont_slice_0_split
I0925 22:56:02.998531 15677 net.cpp:91] Creating Layer cont_1_lstm1_cont_slice_0_split
I0925 22:56:02.998540 15677 net.cpp:425] cont_1_lstm1_cont_slice_0_split <- cont_1
I0925 22:56:02.998550 15677 net.cpp:399] cont_1_lstm1_cont_slice_0_split -> cont_1_lstm1_cont_slice_0_split_0
I0925 22:56:02.998610 15677 net.cpp:399] cont_1_lstm1_cont_slice_0_split -> cont_1_lstm1_cont_slice_0_split_1
I0925 22:56:02.998591 15691 net.cpp:141] Setting up embedding
I0925 22:56:02.998636 15673 net.cpp:141] Setting up embedding
I0925 22:56:02.998679 15673 net.cpp:148] Top shape: 1 1 500 (500)
I0925 22:56:02.998692 15673 net.cpp:156] Memory required for data: 22408
I0925 22:56:02.998721 15673 layer_factory.hpp:77] Creating layer lstm1
I0925 22:56:02.998731 15677 net.cpp:141] Setting up cont_1_lstm1_cont_slice_0_split
I0925 22:56:02.998745 15673 net.cpp:91] Creating Layer lstm1
I0925 22:56:02.998747 15677 net.cpp:148] Top shape: 1 1 (1)
I0925 22:56:02.998762 15673 net.cpp:425] lstm1 <- embedded_input_frames
I0925 22:56:02.998769 15677 net.cpp:148] Top shape: 1 1 (1)
I0925 22:56:02.998775 15673 net.cpp:425] lstm1 <- cont_sentence_input_1_split_0
I0925 22:56:02.998776 15677 net.cpp:156] Memory required for data: 10016
I0925 22:56:02.998795 15673 net.cpp:399] lstm1 -> lstm1
I0925 22:56:02.998795 15677 layer_factory.hpp:77] Creating layer lstm1_x_transform
I0925 22:56:02.998817 15673 recurrent_layer.cpp:20] Initializing recurrent layer: assuming input batch contains 1 timesteps of 1 independent streams.
I0925 22:56:02.998644 15691 net.cpp:148] Top shape: 1 1 500 (500)
I0925 22:56:02.998847 15677 net.cpp:91] Creating Layer lstm1_x_transform
I0925 22:56:02.998850 15691 net.cpp:156] Memory required for data: 22408
I0925 22:56:02.998859 15677 net.cpp:425] lstm1_x_transform <- x
I0925 22:56:02.998875 15677 net.cpp:399] lstm1_x_transform -> W_xc_x
I0925 22:56:02.998881 15691 layer_factory.hpp:77] Creating layer lstm1
I0925 22:56:02.998922 15691 net.cpp:91] Creating Layer lstm1
I0925 22:56:02.998934 15691 net.cpp:425] lstm1 <- embedded_input_frames
I0925 22:56:02.998946 15691 net.cpp:425] lstm1 <- cont_sentence_input_1_split_0
I0925 22:56:02.998960 15691 net.cpp:399] lstm1 -> lstm1
I0925 22:56:02.998981 15691 recurrent_layer.cpp:20] Initializing recurrent layer: assuming input batch contains 1 timesteps of 1 independent streams.
I0925 22:56:02.999424 15673 net.cpp:49] Initializing net from parameters: 
layer {
  name: "lstm1_"
  type: "Input"
  top: "x"
  top: "cont"
  input_param {
    shape {
      dim: 1
      dim: 1
      dim: 500
    }
    shape {
      dim: 1
      dim: 1
    }
  }
}
layer {
  name: "lstm1_"
  type: "Input"
  top: "c_0"
  top: "h_0"
  input_param {
    shape {
      dim: 1
      dim: 1
      dim: 1000
    }
    shape {
      dim: 1
      dim: 1
      dim: 1000
    }
  }
}
layer {
  name: "lstm1_cont_slice"
  type: "Slice"
  bottom: "cont"
  top: "cont_1"
  slice_param {
    axis: 0
  }
}
layer {
  name: "lstm1_x_transform"
  type: "InnerProduct"
  bottom: "x"
  top: "W_xc_x"
  param {
    name: "W_xc"
  }
  param {
    name: "b_c"
  }
  propagate_down: true
  inner_product_param {
    num_output: 4000
    bias_term: true
    weight_filler {
      type: "uniform"
      min: -0.08
      max: 0.08
    }
    bias_filler {
      type: "constant"
      value: 0
    }
    axis: 2
  }
}
layer {
  name: "lstm1_W_xc_x_slice"
  type: "Slice"
  bottom: "W_xc_x"
  top: "W_xc_x_1"
  slice_param {
    axis: 0
  }
}
layer {
  name: "lstm1_h_conted_0"
  type: "Scale"
  bottom: "h_0"
  bottom: "cont_1"
  top: "h_conted_0"
  scale_param {
    axis: 0
  }
}
layer {
  name: "lstm1_transform_1"
  type: "InnerProduct"
  bottom: "h_conted_0"
  top: "W_hc_h_0"
  param {
    name: "W_hc"
  }
  inner_product_param {
    num_output: 4000
    bias_term: false
    weight_filler {
      type: "uniform"
      min: -0.08
      max: 0.08
    }
    axis: 2
  }
}
layer {
  name: "lstm1_gate_input_1"
  type: "Eltwise"
  bottom: "W_hc_h_0"
  bottom: "W_xc_x_1"
  top: "gate_input_1"
  eltwise_param {
    operation: SUM
  }
}
layer {
  name: "lstm1_unit_1"
  type: "LSTMUnit"
  bottom: "c_0"
  bottom: "gate_input_1"
  bottom: "cont_1"
  top: "c_1"
  top: "h_1"
}
layer {
  name: "lstm1_"
  type: "Split"
  bottom: "c_1"
  top: "c_T"
}
layer {
  name: "lstm1_h_concat"
  type: "Concat"
  bottom: "h_1"
  top: "h"
  concat_param {
    axis: 0
  }
}
layer {
  name: "h_pseudoloss"
  type: "Reduction"
  bottom: "h"
  top: "h_pseudoloss"
  loss_weight: 1
}
I0925 22:56:02.999629 15673 layer_factory.hpp:77] Creating layer lstm1_
I0925 22:56:02.999647 15673 net.cpp:91] Creating Layer lstm1_
I0925 22:56:02.999660 15673 net.cpp:399] lstm1_ -> x
I0925 22:56:02.999681 15673 net.cpp:399] lstm1_ -> cont
I0925 22:56:02.999753 15691 net.cpp:49] Initializing net from parameters: 
layer {
  name: "lstm1_"
  type: "Input"
  top: "x"
  top: "cont"
  input_param {
    shape {
      dim: 1
      dim: 1
      dim: 500
    }
    shape {
      dim: 1
      dim: 1
    }
  }
}
layer {
  name: "lstm1_"
  type: "Input"
  top: "c_0"
  top: "h_0"
  input_param {
    shape {
      dim: 1
      dim: 1
      dim: 1000
    }
    shape {
      dim: 1
      dim: 1
      dim: 1000
    }
  }
}
layer {
  name: "lstm1_cont_slice"
  type: "Slice"
  bottom: "cont"
  top: "cont_1"
  slice_param {
    axis: 0
  }
}
layer {
  name: "lstm1_x_transform"
  type: "InnerProduct"
  bottom: "x"
  top: "W_xc_x"
  param {
    name: "W_xc"
  }
  param {
    name: "b_c"
  }
  propagate_down: true
  inner_product_param {
    num_output: 4000
    bias_term: true
    weight_filler {
      type: "uniform"
      min: -0.08
      max: 0.08
    }
    bias_filler {
      type: "constant"
      value: 0
    }
    axis: 2
  }
}
layer {
  name: "lstm1_W_xc_x_slice"
  type: "Slice"
  bottom: "W_xc_x"
  top: "W_xc_x_1"
  slice_param {
    axis: 0
  }
}
layer {
  name: "lstm1_h_conted_0"
  type: "Scale"
  bottom: "h_0"
  bottom: "cont_1"
  top: "h_conted_0"
  scale_param {
    axis: 0
  }
}
layer {
  name: "lstm1_transform_1"
  type: "InnerProduct"
  bottom: "h_conted_0"
  top: "W_hc_h_0"
  param {
    name: "W_hc"
  }
  inner_product_param {
    num_output: 4000
    bias_term: false
    weight_filler {
      type: "uniform"
      min: -0.08
      max: 0.08
    }
    axis: 2
  }
}
layer {
  name: "lstm1_gate_input_1"
  type: "Eltwise"
  bottom: "W_hc_h_0"
  bottom: "W_xc_x_1"
  top: "gate_input_1"
  eltwise_param {
    operation: SUM
  }
}
layer {
  name: "lstm1_unit_1"
  type: "LSTMUnit"
  bottom: "c_0"
  bottom: "gate_input_1"
  bottom: "cont_1"
  top: "c_1"
  top: "h_1"
}
layer {
  name: "lstm1_"
  type: "Split"
  bottom: "c_1"
  top: "c_T"
}
layer {
  name: "lstm1_h_concat"
  type: "Concat"
  bottom: "h_1"
  top: "h"
  concat_param {
    axis: 0
  }
}
layer {
  name: "h_pseudoloss"
  type: "Reduction"
  bottom: "h"
  top: "h_pseudoloss"
  loss_weight: 1
}
I0925 22:56:03.000072 15691 layer_factory.hpp:77] Creating layer lstm1_
I0925 22:56:03.000092 15691 net.cpp:91] Creating Layer lstm1_
I0925 22:56:03.000102 15691 net.cpp:399] lstm1_ -> x
I0925 22:56:03.000119 15691 net.cpp:399] lstm1_ -> cont
I0925 22:56:03.006862 15691 net.cpp:141] Setting up lstm1_
I0925 22:56:03.006911 15691 net.cpp:148] Top shape: 1 1 500 (500)
I0925 22:56:03.006922 15691 net.cpp:148] Top shape: 1 1 (1)
I0925 22:56:03.006928 15691 net.cpp:156] Memory required for data: 2004
I0925 22:56:03.006940 15691 layer_factory.hpp:77] Creating layer lstm1_
I0925 22:56:03.009663 15673 net.cpp:141] Setting up lstm1_
I0925 22:56:03.009673 15691 net.cpp:91] Creating Layer lstm1_
I0925 22:56:03.009708 15673 net.cpp:148] Top shape: 1 1 500 (500)
I0925 22:56:03.009716 15691 net.cpp:399] lstm1_ -> c_0
I0925 22:56:03.009723 15673 net.cpp:148] Top shape: 1 1 (1)
I0925 22:56:03.009732 15673 net.cpp:156] Memory required for data: 2004
I0925 22:56:03.009742 15673 layer_factory.hpp:77] Creating layer lstm1_
I0925 22:56:03.009744 15691 net.cpp:399] lstm1_ -> h_0
I0925 22:56:03.009763 15673 net.cpp:91] Creating Layer lstm1_
I0925 22:56:03.009781 15673 net.cpp:399] lstm1_ -> c_0
I0925 22:56:03.009804 15673 net.cpp:399] lstm1_ -> h_0
I0925 22:56:03.011122 15673 net.cpp:141] Setting up lstm1_
I0925 22:56:03.011148 15691 net.cpp:141] Setting up lstm1_
I0925 22:56:03.011152 15673 net.cpp:148] Top shape: 1 1 1000 (1000)
I0925 22:56:03.011168 15691 net.cpp:148] Top shape: 1 1 1000 (1000)
I0925 22:56:03.011173 15673 net.cpp:148] Top shape: 1 1 1000 (1000)
I0925 22:56:03.011179 15691 net.cpp:148] Top shape: 1 1 1000 (1000)
I0925 22:56:03.011186 15691 net.cpp:156] Memory required for data: 10004
I0925 22:56:03.011179 15673 net.cpp:156] Memory required for data: 10004
I0925 22:56:03.011194 15691 layer_factory.hpp:77] Creating layer lstm1_cont_slice
I0925 22:56:03.011199 15673 layer_factory.hpp:77] Creating layer lstm1_cont_slice
I0925 22:56:03.011211 15691 net.cpp:91] Creating Layer lstm1_cont_slice
I0925 22:56:03.011214 15673 net.cpp:91] Creating Layer lstm1_cont_slice
I0925 22:56:03.011221 15691 net.cpp:425] lstm1_cont_slice <- cont
I0925 22:56:03.011222 15673 net.cpp:425] lstm1_cont_slice <- cont
I0925 22:56:03.011239 15691 net.cpp:399] lstm1_cont_slice -> cont_1
I0925 22:56:03.011253 15673 net.cpp:399] lstm1_cont_slice -> cont_1
I0925 22:56:03.011320 15679 net.cpp:141] Setting up lstm1_x_transform
I0925 22:56:03.011361 15679 net.cpp:148] Top shape: 1 1 4000 (4000)
I0925 22:56:03.011363 15691 net.cpp:141] Setting up lstm1_cont_slice
I0925 22:56:03.011370 15679 net.cpp:156] Memory required for data: 26016
I0925 22:56:03.011379 15691 net.cpp:148] Top shape: 1 1 (1)
I0925 22:56:03.011386 15691 net.cpp:156] Memory required for data: 10008
I0925 22:56:03.011394 15691 layer_factory.hpp:77] Creating layer cont_1_lstm1_cont_slice_0_split
I0925 22:56:03.011399 15679 layer_factory.hpp:77] Creating layer lstm1_W_xc_x_slice
I0925 22:56:03.011406 15691 net.cpp:91] Creating Layer cont_1_lstm1_cont_slice_0_split
I0925 22:56:03.011415 15691 net.cpp:425] cont_1_lstm1_cont_slice_0_split <- cont_1
I0925 22:56:03.011427 15691 net.cpp:399] cont_1_lstm1_cont_slice_0_split -> cont_1_lstm1_cont_slice_0_split_0
I0925 22:56:03.011426 15679 net.cpp:91] Creating Layer lstm1_W_xc_x_slice
I0925 22:56:03.011448 15691 net.cpp:399] cont_1_lstm1_cont_slice_0_split -> cont_1_lstm1_cont_slice_0_split_1
I0925 22:56:03.011456 15679 net.cpp:425] lstm1_W_xc_x_slice <- W_xc_x
I0925 22:56:03.011471 15679 net.cpp:399] lstm1_W_xc_x_slice -> W_xc_x_1
I0925 22:56:03.016782 15673 net.cpp:141] Setting up lstm1_cont_slice
I0925 22:56:03.016834 15691 net.cpp:141] Setting up cont_1_lstm1_cont_slice_0_split
I0925 22:56:03.016839 15673 net.cpp:148] Top shape: 1 1 (1)
I0925 22:56:03.016856 15691 net.cpp:148] Top shape: 1 1 (1)
I0925 22:56:03.016866 15691 net.cpp:148] Top shape: 1 1 (1)
I0925 22:56:03.016868 15673 net.cpp:156] Memory required for data: 10008
I0925 22:56:03.016873 15691 net.cpp:156] Memory required for data: 10016
I0925 22:56:03.016881 15691 layer_factory.hpp:77] Creating layer lstm1_x_transform
I0925 22:56:03.016881 15673 layer_factory.hpp:77] Creating layer cont_1_lstm1_cont_slice_0_split
I0925 22:56:03.016912 15691 net.cpp:91] Creating Layer lstm1_x_transform
I0925 22:56:03.016909 15673 net.cpp:91] Creating Layer cont_1_lstm1_cont_slice_0_split
I0925 22:56:03.016937 15673 net.cpp:425] cont_1_lstm1_cont_slice_0_split <- cont_1
I0925 22:56:03.016955 15673 net.cpp:399] cont_1_lstm1_cont_slice_0_split -> cont_1_lstm1_cont_slice_0_split_0
I0925 22:56:03.016971 15679 net.cpp:141] Setting up lstm1_W_xc_x_slice
I0925 22:56:03.016986 15679 net.cpp:148] Top shape: 1 1 4000 (4000)
I0925 22:56:03.016984 15673 net.cpp:399] cont_1_lstm1_cont_slice_0_split -> cont_1_lstm1_cont_slice_0_split_1
I0925 22:56:03.016996 15679 net.cpp:156] Memory required for data: 42016
I0925 22:56:03.017005 15679 layer_factory.hpp:77] Creating layer lstm1_h_conted_0
I0925 22:56:03.017021 15679 net.cpp:91] Creating Layer lstm1_h_conted_0
I0925 22:56:03.017030 15679 net.cpp:425] lstm1_h_conted_0 <- h_0
I0925 22:56:03.017046 15679 net.cpp:425] lstm1_h_conted_0 <- cont_1_lstm1_cont_slice_0_split_0
I0925 22:56:03.017058 15679 net.cpp:399] lstm1_h_conted_0 -> h_conted_0
I0925 22:56:03.016922 15691 net.cpp:425] lstm1_x_transform <- x
I0925 22:56:03.017141 15691 net.cpp:399] lstm1_x_transform -> W_xc_x
I0925 22:56:03.017164 15711 net.cpp:141] Setting up embedding
I0925 22:56:03.017189 15711 net.cpp:148] Top shape: 1 1 500 (500)
I0925 22:56:03.017199 15711 net.cpp:156] Memory required for data: 22408
I0925 22:56:03.017204 15673 net.cpp:141] Setting up cont_1_lstm1_cont_slice_0_split
I0925 22:56:03.017216 15673 net.cpp:148] Top shape: 1 1 (1)
I0925 22:56:03.017221 15711 layer_factory.hpp:77] Creating layer lstm1
I0925 22:56:03.017226 15673 net.cpp:148] Top shape: 1 1 (1)
I0925 22:56:03.017235 15673 net.cpp:156] Memory required for data: 10016
I0925 22:56:03.017240 15711 net.cpp:91] Creating Layer lstm1
I0925 22:56:03.017242 15673 layer_factory.hpp:77] Creating layer lstm1_x_transform
I0925 22:56:03.017249 15711 net.cpp:425] lstm1 <- embedded_input_frames
I0925 22:56:03.017259 15711 net.cpp:425] lstm1 <- cont_sentence_input_1_split_0
I0925 22:56:03.017259 15673 net.cpp:91] Creating Layer lstm1_x_transform
I0925 22:56:03.017287 15673 net.cpp:425] lstm1_x_transform <- x
I0925 22:56:03.017309 15711 net.cpp:399] lstm1 -> lstm1
I0925 22:56:03.017309 15673 net.cpp:399] lstm1_x_transform -> W_xc_x
I0925 22:56:03.017348 15711 recurrent_layer.cpp:20] Initializing recurrent layer: assuming input batch contains 1 timesteps of 1 independent streams.
I0925 22:56:03.017621 15711 net.cpp:49] Initializing net from parameters: 
layer {
  name: "lstm1_"
  type: "Input"
  top: "x"
  top: "cont"
  input_param {
    shape {
      dim: 1
      dim: 1
      dim: 500
    }
    shape {
      dim: 1
      dim: 1
    }
  }
}
layer {
  name: "lstm1_"
  type: "Input"
  top: "c_0"
  top: "h_0"
  input_param {
    shape {
      dim: 1
      dim: 1
      dim: 1000
    }
    shape {
      dim: 1
      dim: 1
      dim: 1000
    }
  }
}
layer {
  name: "lstm1_cont_slice"
  type: "Slice"
  bottom: "cont"
  top: "cont_1"
  slice_param {
    axis: 0
  }
}
layer {
  name: "lstm1_x_transform"
  type: "InnerProduct"
  bottom: "x"
  top: "W_xc_x"
  param {
    name: "W_xc"
  }
  param {
    name: "b_c"
  }
  propagate_down: true
  inner_product_param {
    num_output: 4000
    bias_term: true
    weight_filler {
      type: "uniform"
      min: -0.08
      max: 0.08
    }
    bias_filler {
      type: "constant"
      value: 0
    }
    axis: 2
  }
}
layer {
  name: "lstm1_W_xc_x_slice"
  type: "Slice"
  bottom: "W_xc_x"
  top: "W_xc_x_1"
  slice_param {
    axis: 0
  }
}
layer {
  name: "lstm1_h_conted_0"
  type: "Scale"
  bottom: "h_0"
  bottom: "cont_1"
  top: "h_conted_0"
  scale_param {
    axis: 0
  }
}
layer {
  name: "lstm1_transform_1"
  type: "InnerProduct"
  bottom: "h_conted_0"
  top: "W_hc_h_0"
  param {
    name: "W_hc"
  }
  inner_product_param {
    num_output: 4000
    bias_term: false
    weight_filler {
      type: "uniform"
      min: -0.08
      max: 0.08
    }
    axis: 2
  }
}
layer {
  name: "lstm1_gate_input_1"
  type: "Eltwise"
  bottom: "W_hc_h_0"
  bottom: "W_xc_x_1"
  top: "gate_input_1"
  eltwise_param {
    operation: SUM
  }
}
layer {
  name: "lstm1_unit_1"
  type: "LSTMUnit"
  bottom: "c_0"
  bottom: "gate_input_1"
  bottom: "cont_1"
  top: "c_1"
  top: "h_1"
}
layer {
  name: "lstm1_"
  type: "Split"
  bottom: "c_1"
  top: "c_T"
}
layer {
  name: "lstm1_h_concat"
  type: "Concat"
  bottom: "h_1"
  top: "h"
  concat_param {
    axis: 0
  }
}
layer {
  name: "h_pseudoloss"
  type: "Reduction"
  bottom: "h"
  top: "h_pseudoloss"
  loss_weight: 1
}
I0925 22:56:03.017709 15711 layer_factory.hpp:77] Creating layer lstm1_
I0925 22:56:03.017720 15711 net.cpp:91] Creating Layer lstm1_
I0925 22:56:03.017726 15711 net.cpp:399] lstm1_ -> x
I0925 22:56:03.017737 15711 net.cpp:399] lstm1_ -> cont
I0925 22:56:03.028558 15679 net.cpp:141] Setting up lstm1_h_conted_0
I0925 22:56:03.028614 15679 net.cpp:148] Top shape: 1 1 1000 (1000)
I0925 22:56:03.028622 15679 net.cpp:156] Memory required for data: 46016
I0925 22:56:03.028636 15679 layer_factory.hpp:77] Creating layer lstm1_transform_1
I0925 22:56:03.028673 15679 net.cpp:91] Creating Layer lstm1_transform_1
I0925 22:56:03.028684 15679 net.cpp:425] lstm1_transform_1 <- h_conted_0
I0925 22:56:03.028704 15679 net.cpp:399] lstm1_transform_1 -> W_hc_h_0
I0925 22:56:03.028832 15677 net.cpp:141] Setting up lstm1_x_transform
I0925 22:56:03.028882 15677 net.cpp:148] Top shape: 1 1 4000 (4000)
I0925 22:56:03.028892 15677 net.cpp:156] Memory required for data: 26016
I0925 22:56:03.028920 15677 layer_factory.hpp:77] Creating layer lstm1_W_xc_x_slice
I0925 22:56:03.038971 15677 net.cpp:91] Creating Layer lstm1_W_xc_x_slice
I0925 22:56:03.039019 15677 net.cpp:425] lstm1_W_xc_x_slice <- W_xc_x
I0925 22:56:03.039042 15677 net.cpp:399] lstm1_W_xc_x_slice -> W_xc_x_1
I0925 22:56:03.046272 15711 net.cpp:141] Setting up lstm1_
I0925 22:56:03.046286 15677 net.cpp:141] Setting up lstm1_W_xc_x_slice
I0925 22:56:03.046334 15711 net.cpp:148] Top shape: 1 1 500 (500)
I0925 22:56:03.046334 15677 net.cpp:148] Top shape: 1 1 4000 (4000)
I0925 22:56:03.046350 15677 net.cpp:156] Memory required for data: 42016
I0925 22:56:03.046351 15711 net.cpp:148] Top shape: 1 1 (1)
I0925 22:56:03.046366 15711 net.cpp:156] Memory required for data: 2004
I0925 22:56:03.046368 15677 layer_factory.hpp:77] Creating layer lstm1_h_conted_0
I0925 22:56:03.046376 15711 layer_factory.hpp:77] Creating layer lstm1_
I0925 22:56:03.046396 15677 net.cpp:91] Creating Layer lstm1_h_conted_0
I0925 22:56:03.046401 15711 net.cpp:91] Creating Layer lstm1_
I0925 22:56:03.046407 15677 net.cpp:425] lstm1_h_conted_0 <- h_0
I0925 22:56:03.046422 15677 net.cpp:425] lstm1_h_conted_0 <- cont_1_lstm1_cont_slice_0_split_0
I0925 22:56:03.046422 15711 net.cpp:399] lstm1_ -> c_0
I0925 22:56:03.046496 15677 net.cpp:399] lstm1_h_conted_0 -> h_conted_0
I0925 22:56:03.046507 15711 net.cpp:399] lstm1_ -> h_0
I0925 22:56:03.046739 15677 net.cpp:141] Setting up lstm1_h_conted_0
I0925 22:56:03.046761 15677 net.cpp:148] Top shape: 1 1 1000 (1000)
I0925 22:56:03.046769 15677 net.cpp:156] Memory required for data: 46016
I0925 22:56:03.046780 15677 layer_factory.hpp:77] Creating layer lstm1_transform_1
I0925 22:56:03.046800 15677 net.cpp:91] Creating Layer lstm1_transform_1
I0925 22:56:03.046808 15677 net.cpp:425] lstm1_transform_1 <- h_conted_0
I0925 22:56:03.046805 15691 net.cpp:141] Setting up lstm1_x_transform
I0925 22:56:03.046818 15677 net.cpp:399] lstm1_transform_1 -> W_hc_h_0
I0925 22:56:03.046820 15691 net.cpp:148] Top shape: 1 1 4000 (4000)
I0925 22:56:03.046826 15691 net.cpp:156] Memory required for data: 26016
I0925 22:56:03.046841 15691 layer_factory.hpp:77] Creating layer lstm1_W_xc_x_slice
I0925 22:56:03.046852 15691 net.cpp:91] Creating Layer lstm1_W_xc_x_slice
I0925 22:56:03.046861 15691 net.cpp:425] lstm1_W_xc_x_slice <- W_xc_x
I0925 22:56:03.046875 15691 net.cpp:399] lstm1_W_xc_x_slice -> W_xc_x_1
I0925 22:56:03.046907 15711 net.cpp:141] Setting up lstm1_
I0925 22:56:03.046926 15711 net.cpp:148] Top shape: 1 1 1000 (1000)
I0925 22:56:03.046933 15711 net.cpp:148] Top shape: 1 1 1000 (1000)
I0925 22:56:03.046937 15711 net.cpp:156] Memory required for data: 10004
I0925 22:56:03.046942 15711 layer_factory.hpp:77] Creating layer lstm1_cont_slice
I0925 22:56:03.046957 15711 net.cpp:91] Creating Layer lstm1_cont_slice
I0925 22:56:03.046963 15711 net.cpp:425] lstm1_cont_slice <- cont
I0925 22:56:03.046972 15711 net.cpp:399] lstm1_cont_slice -> cont_1
I0925 22:56:03.054664 15691 net.cpp:141] Setting up lstm1_W_xc_x_slice
I0925 22:56:03.054733 15691 net.cpp:148] Top shape: 1 1 4000 (4000)
I0925 22:56:03.054745 15691 net.cpp:156] Memory required for data: 42016
I0925 22:56:03.054759 15691 layer_factory.hpp:77] Creating layer lstm1_h_conted_0
I0925 22:56:03.054790 15691 net.cpp:91] Creating Layer lstm1_h_conted_0
I0925 22:56:03.054805 15691 net.cpp:425] lstm1_h_conted_0 <- h_0
I0925 22:56:03.054821 15691 net.cpp:425] lstm1_h_conted_0 <- cont_1_lstm1_cont_slice_0_split_0
I0925 22:56:03.054837 15691 net.cpp:399] lstm1_h_conted_0 -> h_conted_0
I0925 22:56:03.057451 15711 net.cpp:141] Setting up lstm1_cont_slice
I0925 22:56:03.057503 15711 net.cpp:148] Top shape: 1 1 (1)
I0925 22:56:03.057513 15711 net.cpp:156] Memory required for data: 10008
I0925 22:56:03.057523 15711 layer_factory.hpp:77] Creating layer cont_1_lstm1_cont_slice_0_split
I0925 22:56:03.057550 15711 net.cpp:91] Creating Layer cont_1_lstm1_cont_slice_0_split
I0925 22:56:03.057561 15711 net.cpp:425] cont_1_lstm1_cont_slice_0_split <- cont_1
I0925 22:56:03.057565 15673 net.cpp:141] Setting up lstm1_x_transform
I0925 22:56:03.057575 15711 net.cpp:399] cont_1_lstm1_cont_slice_0_split -> cont_1_lstm1_cont_slice_0_split_0
I0925 22:56:03.057585 15673 net.cpp:148] Top shape: 1 1 4000 (4000)
I0925 22:56:03.057592 15711 net.cpp:399] cont_1_lstm1_cont_slice_0_split -> cont_1_lstm1_cont_slice_0_split_1
I0925 22:56:03.057593 15673 net.cpp:156] Memory required for data: 26016
I0925 22:56:03.057634 15673 layer_factory.hpp:77] Creating layer lstm1_W_xc_x_slice
I0925 22:56:03.057651 15673 net.cpp:91] Creating Layer lstm1_W_xc_x_slice
I0925 22:56:03.057658 15673 net.cpp:425] lstm1_W_xc_x_slice <- W_xc_x
I0925 22:56:03.057674 15673 net.cpp:399] lstm1_W_xc_x_slice -> W_xc_x_1
I0925 22:56:03.057818 15691 net.cpp:141] Setting up lstm1_h_conted_0
I0925 22:56:03.057862 15691 net.cpp:148] Top shape: 1 1 1000 (1000)
I0925 22:56:03.057867 15673 net.cpp:141] Setting up lstm1_W_xc_x_slice
I0925 22:56:03.057871 15691 net.cpp:156] Memory required for data: 46016
I0925 22:56:03.057883 15673 net.cpp:148] Top shape: 1 1 4000 (4000)
I0925 22:56:03.057885 15691 layer_factory.hpp:77] Creating layer lstm1_transform_1
I0925 22:56:03.057893 15673 net.cpp:156] Memory required for data: 42016
I0925 22:56:03.057903 15673 layer_factory.hpp:77] Creating layer lstm1_h_conted_0
I0925 22:56:03.057917 15673 net.cpp:91] Creating Layer lstm1_h_conted_0
I0925 22:56:03.057917 15691 net.cpp:91] Creating Layer lstm1_transform_1
I0925 22:56:03.057925 15673 net.cpp:425] lstm1_h_conted_0 <- h_0
I0925 22:56:03.057931 15691 net.cpp:425] lstm1_transform_1 <- h_conted_0
I0925 22:56:03.057936 15673 net.cpp:425] lstm1_h_conted_0 <- cont_1_lstm1_cont_slice_0_split_0
I0925 22:56:03.057948 15673 net.cpp:399] lstm1_h_conted_0 -> h_conted_0
I0925 22:56:03.057951 15691 net.cpp:399] lstm1_transform_1 -> W_hc_h_0
I0925 22:56:03.067158 15711 net.cpp:141] Setting up cont_1_lstm1_cont_slice_0_split
I0925 22:56:03.067210 15711 net.cpp:148] Top shape: 1 1 (1)
I0925 22:56:03.067221 15711 net.cpp:148] Top shape: 1 1 (1)
I0925 22:56:03.067229 15711 net.cpp:156] Memory required for data: 10016
I0925 22:56:03.067240 15711 layer_factory.hpp:77] Creating layer lstm1_x_transform
I0925 22:56:03.067267 15711 net.cpp:91] Creating Layer lstm1_x_transform
I0925 22:56:03.067277 15711 net.cpp:425] lstm1_x_transform <- x
I0925 22:56:03.067294 15711 net.cpp:399] lstm1_x_transform -> W_xc_x
I0925 22:56:03.077905 15673 net.cpp:141] Setting up lstm1_h_conted_0
I0925 22:56:03.077958 15673 net.cpp:148] Top shape: 1 1 1000 (1000)
I0925 22:56:03.077967 15673 net.cpp:156] Memory required for data: 46016
I0925 22:56:03.077977 15673 layer_factory.hpp:77] Creating layer lstm1_transform_1
I0925 22:56:03.077998 15673 net.cpp:91] Creating Layer lstm1_transform_1
I0925 22:56:03.078008 15673 net.cpp:425] lstm1_transform_1 <- h_conted_0
I0925 22:56:03.078027 15673 net.cpp:399] lstm1_transform_1 -> W_hc_h_0
I0925 22:56:03.100198 15677 net.cpp:141] Setting up lstm1_transform_1
I0925 22:56:03.100261 15677 net.cpp:148] Top shape: 1 1 4000 (4000)
I0925 22:56:03.100256 15679 net.cpp:141] Setting up lstm1_transform_1
I0925 22:56:03.100283 15677 net.cpp:156] Memory required for data: 62016
I0925 22:56:03.100313 15679 net.cpp:148] Top shape: 1 1 4000 (4000)
I0925 22:56:03.100323 15679 net.cpp:156] Memory required for data: 62016
I0925 22:56:03.100325 15677 layer_factory.hpp:77] Creating layer lstm1_gate_input_1
I0925 22:56:03.100343 15679 layer_factory.hpp:77] Creating layer lstm1_gate_input_1
I0925 22:56:03.100394 15679 net.cpp:91] Creating Layer lstm1_gate_input_1
I0925 22:56:03.100392 15677 net.cpp:91] Creating Layer lstm1_gate_input_1
I0925 22:56:03.100414 15679 net.cpp:425] lstm1_gate_input_1 <- W_hc_h_0
I0925 22:56:03.100422 15679 net.cpp:425] lstm1_gate_input_1 <- W_xc_x_1
I0925 22:56:03.100421 15677 net.cpp:425] lstm1_gate_input_1 <- W_hc_h_0
I0925 22:56:03.100435 15679 net.cpp:399] lstm1_gate_input_1 -> gate_input_1
I0925 22:56:03.100435 15677 net.cpp:425] lstm1_gate_input_1 <- W_xc_x_1
I0925 22:56:03.100455 15677 net.cpp:399] lstm1_gate_input_1 -> gate_input_1
I0925 22:56:03.104488 15679 net.cpp:141] Setting up lstm1_gate_input_1
I0925 22:56:03.104511 15679 net.cpp:148] Top shape: 1 1 4000 (4000)
I0925 22:56:03.104517 15679 net.cpp:156] Memory required for data: 78016
I0925 22:56:03.104522 15679 layer_factory.hpp:77] Creating layer lstm1_unit_1
I0925 22:56:03.104537 15677 net.cpp:141] Setting up lstm1_gate_input_1
I0925 22:56:03.104552 15679 net.cpp:91] Creating Layer lstm1_unit_1
I0925 22:56:03.104555 15677 net.cpp:148] Top shape: 1 1 4000 (4000)
I0925 22:56:03.104562 15679 net.cpp:425] lstm1_unit_1 <- c_0
I0925 22:56:03.104563 15677 net.cpp:156] Memory required for data: 78016
I0925 22:56:03.104583 15679 net.cpp:425] lstm1_unit_1 <- gate_input_1
I0925 22:56:03.104583 15677 layer_factory.hpp:77] Creating layer lstm1_unit_1
I0925 22:56:03.104598 15679 net.cpp:425] lstm1_unit_1 <- cont_1_lstm1_cont_slice_0_split_1
I0925 22:56:03.104610 15677 net.cpp:91] Creating Layer lstm1_unit_1
I0925 22:56:03.104611 15679 net.cpp:399] lstm1_unit_1 -> c_1
I0925 22:56:03.104625 15677 net.cpp:425] lstm1_unit_1 <- c_0
I0925 22:56:03.104636 15677 net.cpp:425] lstm1_unit_1 <- gate_input_1
I0925 22:56:03.104641 15679 net.cpp:399] lstm1_unit_1 -> h_1
I0925 22:56:03.104645 15677 net.cpp:425] lstm1_unit_1 <- cont_1_lstm1_cont_slice_0_split_1
I0925 22:56:03.104656 15677 net.cpp:399] lstm1_unit_1 -> c_1
I0925 22:56:03.104671 15677 net.cpp:399] lstm1_unit_1 -> h_1
I0925 22:56:03.104674 15711 net.cpp:141] Setting up lstm1_x_transform
I0925 22:56:03.104693 15711 net.cpp:148] Top shape: 1 1 4000 (4000)
I0925 22:56:03.104703 15711 net.cpp:156] Memory required for data: 26016
I0925 22:56:03.104719 15711 layer_factory.hpp:77] Creating layer lstm1_W_xc_x_slice
I0925 22:56:03.104730 15711 net.cpp:91] Creating Layer lstm1_W_xc_x_slice
I0925 22:56:03.104737 15711 net.cpp:425] lstm1_W_xc_x_slice <- W_xc_x
I0925 22:56:03.104748 15711 net.cpp:399] lstm1_W_xc_x_slice -> W_xc_x_1
I0925 22:56:03.104815 15679 net.cpp:141] Setting up lstm1_unit_1
I0925 22:56:03.104828 15679 net.cpp:148] Top shape: 1 1 1000 (1000)
I0925 22:56:03.104835 15679 net.cpp:148] Top shape: 1 1 1000 (1000)
I0925 22:56:03.104840 15679 net.cpp:156] Memory required for data: 86016
I0925 22:56:03.104848 15679 layer_factory.hpp:77] Creating layer lstm1_
I0925 22:56:03.104862 15679 net.cpp:91] Creating Layer lstm1_
I0925 22:56:03.104871 15679 net.cpp:425] lstm1_ <- c_1
I0925 22:56:03.104887 15679 net.cpp:399] lstm1_ -> c_T
I0925 22:56:03.104892 15711 net.cpp:141] Setting up lstm1_W_xc_x_slice
I0925 22:56:03.104905 15711 net.cpp:148] Top shape: 1 1 4000 (4000)
I0925 22:56:03.104913 15711 net.cpp:156] Memory required for data: 42016
I0925 22:56:03.104923 15711 layer_factory.hpp:77] Creating layer lstm1_h_conted_0
I0925 22:56:03.104948 15711 net.cpp:91] Creating Layer lstm1_h_conted_0
I0925 22:56:03.104946 15677 net.cpp:141] Setting up lstm1_unit_1
I0925 22:56:03.104967 15711 net.cpp:425] lstm1_h_conted_0 <- h_0
I0925 22:56:03.104975 15677 net.cpp:148] Top shape: 1 1 1000 (1000)
I0925 22:56:03.104979 15711 net.cpp:425] lstm1_h_conted_0 <- cont_1_lstm1_cont_slice_0_split_0
I0925 22:56:03.104986 15677 net.cpp:148] Top shape: 1 1 1000 (1000)
I0925 22:56:03.104992 15711 net.cpp:399] lstm1_h_conted_0 -> h_conted_0
I0925 22:56:03.104985 15679 net.cpp:141] Setting up lstm1_
I0925 22:56:03.105003 15677 net.cpp:156] Memory required for data: 86016
I0925 22:56:03.105011 15677 layer_factory.hpp:77] Creating layer lstm1_
I0925 22:56:03.105015 15679 net.cpp:148] Top shape: 1 1 1000 (1000)
I0925 22:56:03.105023 15677 net.cpp:91] Creating Layer lstm1_
I0925 22:56:03.105024 15679 net.cpp:156] Memory required for data: 90016
I0925 22:56:03.105041 15677 net.cpp:425] lstm1_ <- c_1
I0925 22:56:03.105049 15679 layer_factory.hpp:77] Creating layer lstm1_h_concat
I0925 22:56:03.105057 15677 net.cpp:399] lstm1_ -> c_T
I0925 22:56:03.105067 15679 net.cpp:91] Creating Layer lstm1_h_concat
I0925 22:56:03.105077 15679 net.cpp:425] lstm1_h_concat <- h_1
I0925 22:56:03.105089 15679 net.cpp:399] lstm1_h_concat -> h
I0925 22:56:03.105141 15677 net.cpp:141] Setting up lstm1_
I0925 22:56:03.105155 15677 net.cpp:148] Top shape: 1 1 1000 (1000)
I0925 22:56:03.105162 15677 net.cpp:156] Memory required for data: 90016
I0925 22:56:03.105170 15677 layer_factory.hpp:77] Creating layer lstm1_h_concat
I0925 22:56:03.105182 15677 net.cpp:91] Creating Layer lstm1_h_concat
I0925 22:56:03.105190 15677 net.cpp:425] lstm1_h_concat <- h_1
I0925 22:56:03.105201 15677 net.cpp:399] lstm1_h_concat -> h
I0925 22:56:03.105206 15711 net.cpp:141] Setting up lstm1_h_conted_0
I0925 22:56:03.105223 15711 net.cpp:148] Top shape: 1 1 1000 (1000)
I0925 22:56:03.105232 15711 net.cpp:156] Memory required for data: 46016
I0925 22:56:03.105240 15711 layer_factory.hpp:77] Creating layer lstm1_transform_1
I0925 22:56:03.105240 15679 net.cpp:141] Setting up lstm1_h_concat
I0925 22:56:03.105267 15711 net.cpp:91] Creating Layer lstm1_transform_1
I0925 22:56:03.105267 15679 net.cpp:148] Top shape: 1 1 1000 (1000)
I0925 22:56:03.105286 15711 net.cpp:425] lstm1_transform_1 <- h_conted_0
I0925 22:56:03.105290 15679 net.cpp:156] Memory required for data: 94016
I0925 22:56:03.105290 15677 net.cpp:141] Setting up lstm1_h_concat
I0925 22:56:03.105298 15679 layer_factory.hpp:77] Creating layer h_pseudoloss
I0925 22:56:03.105301 15711 net.cpp:399] lstm1_transform_1 -> W_hc_h_0
I0925 22:56:03.105305 15677 net.cpp:148] Top shape: 1 1 1000 (1000)
I0925 22:56:03.105312 15677 net.cpp:156] Memory required for data: 94016
I0925 22:56:03.105319 15679 net.cpp:91] Creating Layer h_pseudoloss
I0925 22:56:03.105319 15677 layer_factory.hpp:77] Creating layer h_pseudoloss
I0925 22:56:03.105340 15679 net.cpp:425] h_pseudoloss <- h
I0925 22:56:03.105347 15677 net.cpp:91] Creating Layer h_pseudoloss
I0925 22:56:03.105350 15679 net.cpp:399] h_pseudoloss -> h_pseudoloss
…
I0925 22:56:03.117961 15677 net.cpp:219] lstm1_ does not need backward computation.
I0925 22:56:03.117967 15677 net.cpp:261] This network produces output c_T
I0925 22:56:03.117976 15677 net.cpp:261] This network produces output h_pseudoloss
I0925 22:56:03.118005 15677 net.cpp:274] Network initialization done.
I0925 22:56:03.118086 15677 recurrent_layer.cpp:150] Adding parameter 0: W_xc
I0925 22:56:03.118096 15677 recurrent_layer.cpp:150] Adding parameter 1: b_c
I0925 22:56:03.118103 15677 recurrent_layer.cpp:150] Adding parameter 2: W_hc
I0925 22:56:03.118264 15677 net.cpp:141] Setting up lstm1
I0925 22:56:03.118280 15677 net.cpp:148] Top shape: 1 1 1000 (1000)
I0925 22:56:03.118288 15677 net.cpp:156] Memory required for data: 26408
I0925 22:56:03.118307 15677 layer_factory.hpp:77] Creating layer concat
I0925 22:56:03.118326 15677 net.cpp:91] Creating Layer concat
I0925 22:56:03.118335 15677 net.cpp:425] concat <- lstm1
I0925 22:56:03.118345 15677 net.cpp:425] concat <- embedded_input_sentence
I0925 22:56:03.118355 15677 net.cpp:425] concat <- reshaped_stage_indicator
I0925 22:56:03.118365 15677 net.cpp:399] concat -> lstm1_video_sequence
I0925 22:56:03.118418 15677 net.cpp:141] Setting up concat
I0925 22:56:03.118432 15677 net.cpp:148] Top shape: 1 1 1501 (1501)
I0925 22:56:03.118438 15677 net.cpp:156] Memory required for data: 32412
I0925 22:56:03.118445 15677 layer_factory.hpp:77] Creating layer lstm2
I0925 22:56:03.118463 15677 net.cpp:91] Creating Layer lstm2
I0925 22:56:03.118470 15677 net.cpp:425] lstm2 <- lstm1_video_sequence
I0925 22:56:03.118479 15677 net.cpp:425] lstm2 <- cont_sentence_input_1_split_1
I0925 22:56:03.118490 15677 net.cpp:399] lstm2 -> lstm2
I0925 22:56:03.118505 15677 recurrent_layer.cpp:20] Initializing recurrent layer: assuming input batch contains 1 timesteps of 1 independent streams.
I0925 22:56:03.118882 15677 net.cpp:49] Initializing net from parameters: 
layer {
  name: "lstm2_"
  type: "Input"
  top: "x"
  top: "cont"
  input_param {
    shape {
      dim: 1
      dim: 1
      dim: 1501
    }
    shape {
      dim: 1
      dim: 1
    }
  }
}
layer {
  name: "lstm2_"
  type: "Input"
  top: "c_0"
  top: "h_0"
  input_param {
    shape {
      dim: 1
      dim: 1
      dim: 1000
    }
    shape {
      dim: 1
      dim: 1
      dim: 1000
    }
  }
}
layer {
  name: "lstm2_cont_slice"
  type: "Slice"
  bottom: "cont"
  top: "cont_1"
  slice_param {
    axis: 0
  }
}
layer {
  name: "lstm2_x_transform"
  type: "InnerProduct"
  bottom: "x"
  top: "W_xc_x"
  param {
    name: "W_xc"
  }
  param {
    name: "b_c"
  }
  propagate_down: true
  inner_product_param {
    num_output: 4000
    bias_term: true
    weight_filler {
      type: "uniform"
      min: -0.08
      max: 0.08
    }
    bias_filler {
      type: "constant"
      value: 0
    }
    axis: 2
  }
}
layer {
  name: "lstm2_W_xc_x_slice"
  type: "Slice"
  bottom: "W_xc_x"
  top: "W_xc_x_1"
  slice_param {
    axis: 0
  }
}
layer {
  name: "lstm2_h_conted_0"
  type: "Scale"
  bottom: "h_0"
  bottom: "cont_1"
  top: "h_conted_0"
  scale_param {
    axis: 0
  }
}
layer {
  name: "lstm2_transform_1"
  type: "InnerProduct"
  bottom: "h_conted_0"
  top: "W_hc_h_0"
  param {
    name: "W_hc"
  }
  inner_product_param {
    num_output: 4000
    bias_term: false
    weight_filler {
      type: "uniform"
      min: -0.08
      max: 0.08
    }
    axis: 2
  }
}
layer {
  name: "lstm2_gate_input_1"
  type: "Eltwise"
  bottom: "W_hc_h_0"
  bottom: "W_xc_x_1"
  top: "gate_input_1"
  eltwise_param {
    operation: SUM
  }
}
layer {
  name: "lstm2_unit_1"
  type: "LSTMUnit"
  bottom: "c_0"
  bottom: "gate_input_1"
  bottom: "cont_1"
  top: "c_1"
  top: "h_1"
}
layer {
  name: "lstm2_"
  type: "Split"
  bottom: "c_1"
  top: "c_T"
}
layer {
  name: "lstm2_h_concat"
  type: "Concat"
  bottom: "h_1"
  top: "h"
  concat_param {
    axis: 0
  }
}
layer {
  name: "h_pseudoloss"
  type: "Reduction"
  bottom: "h"
  top: "h_pseudoloss"
  loss_weight: 1
}
I0925 22:56:03.119011 15677 layer_factory.hpp:77] Creating layer lstm2_
I0925 22:56:03.119029 15677 net.cpp:91] Creating Layer lstm2_
I0925 22:56:03.119037 15677 net.cpp:399] lstm2_ -> x
I0925 22:56:03.119053 15677 net.cpp:399] lstm2_ -> cont
I0925 22:56:03.119128 15677 net.cpp:141] Setting up lstm2_
I0925 22:56:03.119143 15677 net.cpp:148] Top shape: 1 1 1501 (1501)
I0925 22:56:03.119151 15677 net.cpp:148] Top shape: 1 1 (1)
I0925 22:56:03.119158 15677 net.cpp:156] Memory required for data: 6008
I0925 22:56:03.119165 15677 layer_factory.hpp:77] Creating layer lstm2_
I0925 22:56:03.119184 15677 net.cpp:91] Creating Layer lstm2_
I0925 22:56:03.119194 15677 net.cpp:399] lstm2_ -> c_0
I0925 22:56:03.119207 15677 net.cpp:399] lstm2_ -> h_0
I0925 22:56:03.119283 15677 net.cpp:141] Setting up lstm2_
I0925 22:56:03.119297 15677 net.cpp:148] Top shape: 1 1 1000 (1000)
I0925 22:56:03.119307 15677 net.cpp:148] Top shape: 1 1 1000 (1000)
I0925 22:56:03.119313 15677 net.cpp:156] Memory required for data: 14008
I0925 22:56:03.119319 15677 layer_factory.hpp:77] Creating layer lstm2_cont_slice
I0925 22:56:03.119331 15677 net.cpp:91] Creating Layer lstm2_cont_slice
I0925 22:56:03.119338 15677 net.cpp:425] lstm2_cont_slice <- cont
I0925 22:56:03.119349 15677 net.cpp:399] lstm2_cont_slice -> cont_1
I0925 22:56:03.119403 15677 net.cpp:141] Setting up lstm2_cont_slice
I0925 22:56:03.119416 15677 net.cpp:148] Top shape: 1 1 (1)
I0925 22:56:03.119423 15677 net.cpp:156] Memory required for data: 14012
I0925 22:56:03.119431 15677 layer_factory.hpp:77] Creating layer cont_1_lstm2_cont_slice_0_split
I0925 22:56:03.119441 15677 net.cpp:91] Creating Layer cont_1_lstm2_cont_slice_0_split
I0925 22:56:03.119448 15677 net.cpp:425] cont_1_lstm2_cont_slice_0_split <- cont_1
I0925 22:56:03.119462 15677 net.cpp:399] cont_1_lstm2_cont_slice_0_split -> cont_1_lstm2_cont_slice_0_split_0
I0925 22:56:03.119473 15677 net.cpp:399] cont_1_lstm2_cont_slice_0_split -> cont_1_lstm2_cont_slice_0_split_1
I0925 22:56:03.119539 15677 net.cpp:141] Setting up cont_1_lstm2_cont_slice_0_split
I0925 22:56:03.119550 15677 net.cpp:148] Top shape: 1 1 (1)
I0925 22:56:03.119560 15677 net.cpp:148] Top shape: 1 1 (1)
I0925 22:56:03.119566 15677 net.cpp:156] Memory required for data: 14020
I0925 22:56:03.119573 15677 layer_factory.hpp:77] Creating layer lstm2_x_transform
I0925 22:56:03.119590 15677 net.cpp:91] Creating Layer lstm2_x_transform
I0925 22:56:03.119598 15677 net.cpp:425] lstm2_x_transform <- x
I0925 22:56:03.119614 15677 net.cpp:399] lstm2_x_transform -> W_xc_x
I0925 22:56:03.132812 15691 net.cpp:141] Setting up lstm1_transform_1
I0925 22:56:03.132858 15691 net.cpp:148] Top shape: 1 1 4000 (4000)
I0925 22:56:03.132866 15691 net.cpp:156] Memory required for data: 62016
I0925 22:56:03.132892 15691 layer_factory.hpp:77] Creating layer lstm1_gate_input_1
I0925 22:56:03.132892 15673 net.cpp:141] Setting up lstm1_transform_1
I0925 22:56:03.132915 15691 net.cpp:91] Creating Layer lstm1_gate_input_1
I0925 22:56:03.132917 15679 net.cpp:141] Setting up h_pseudoloss
I0925 22:56:03.132926 15691 net.cpp:425] lstm1_gate_input_1 <- W_hc_h_0
I0925 22:56:03.132937 15679 net.cpp:148] Top shape: (1)
I0925 22:56:03.132925 15673 net.cpp:148] Top shape: 1 1 4000 (4000)
I0925 22:56:03.132959 15691 net.cpp:425] lstm1_gate_input_1 <- W_xc_x_1
I0925 22:56:03.132956 15679 net.cpp:151]     with loss weight 1
I0925 22:56:03.132974 15679 net.cpp:156] Memory required for data: 94020
I0925 22:56:03.132972 15673 net.cpp:156] Memory required for data: 62016
I0925 22:56:03.132982 15679 net.cpp:217] h_pseudoloss needs backward computation.
I0925 22:56:03.132977 15691 net.cpp:399] lstm1_gate_input_1 -> gate_input_1
…
I0925 22:56:03.133131 15679 net.cpp:261] This network produces output c_T
I0925 22:56:03.133149 15679 net.cpp:261] This network produces output h_pseudoloss
I0925 22:56:03.133157 15673 net.cpp:399] lstm1_gate_input_1 -> gate_input_1
I0925 22:56:03.133168 15679 net.cpp:274] Network initialization done.
I0925 22:56:03.133230 15679 recurrent_layer.cpp:150] Adding parameter 0: W_xc
I0925 22:56:03.133237 15679 recurrent_layer.cpp:150] Adding parameter 1: b_c
I0925 22:56:03.133242 15679 recurrent_layer.cpp:150] Adding parameter 2: W_hc
I0925 22:56:03.137362 15691 net.cpp:141] Setting up lstm1_gate_input_1
I0925 22:56:03.137409 15691 net.cpp:148] Top shape: 1 1 4000 (4000)
I0925 22:56:03.137416 15691 net.cpp:156] Memory required for data: 78016
I0925 22:56:03.137428 15691 layer_factory.hpp:77] Creating layer lstm1_unit_1
I0925 22:56:03.137446 15691 net.cpp:91] Creating Layer lstm1_unit_1
I0925 22:56:03.137455 15691 net.cpp:425] lstm1_unit_1 <- c_0
I0925 22:56:03.137468 15691 net.cpp:425] lstm1_unit_1 <- gate_input_1
I0925 22:56:03.137476 15691 net.cpp:425] lstm1_unit_1 <- cont_1_lstm1_cont_slice_0_split_1
I0925 22:56:03.137483 15673 net.cpp:141] Setting up lstm1_gate_input_1
I0925 22:56:03.137488 15691 net.cpp:399] lstm1_unit_1 -> c_1
I0925 22:56:03.137506 15673 net.cpp:148] Top shape: 1 1 4000 (4000)
I0925 22:56:03.137513 15673 net.cpp:156] Memory required for data: 78016
I0925 22:56:03.137517 15691 net.cpp:399] lstm1_unit_1 -> h_1
I0925 22:56:03.137521 15673 layer_factory.hpp:77] Creating layer lstm1_unit_1
I0925 22:56:03.137534 15673 net.cpp:91] Creating Layer lstm1_unit_1
I0925 22:56:03.137543 15673 net.cpp:425] lstm1_unit_1 <- c_0
I0925 22:56:03.137553 15673 net.cpp:425] lstm1_unit_1 <- gate_input_1
I0925 22:56:03.137562 15673 net.cpp:425] lstm1_unit_1 <- cont_1_lstm1_cont_slice_0_split_1
I0925 22:56:03.137575 15673 net.cpp:399] lstm1_unit_1 -> c_1
I0925 22:56:03.137588 15673 net.cpp:399] lstm1_unit_1 -> h_1
I0925 22:56:03.137609 15679 net.cpp:141] Setting up lstm1
I0925 22:56:03.137626 15679 net.cpp:148] Top shape: 1 1 1000 (1000)
I0925 22:56:03.137631 15679 net.cpp:156] Memory required for data: 26408
I0925 22:56:03.137648 15679 layer_factory.hpp:77] Creating layer concat
I0925 22:56:03.137660 15679 net.cpp:91] Creating Layer concat
I0925 22:56:03.137667 15679 net.cpp:425] concat <- lstm1
I0925 22:56:03.137675 15679 net.cpp:425] concat <- embedded_input_sentence
I0925 22:56:03.137681 15679 net.cpp:425] concat <- reshaped_stage_indicator
I0925 22:56:03.137687 15679 net.cpp:399] concat -> lstm1_video_sequence
I0925 22:56:03.137748 15673 net.cpp:141] Setting up lstm1_unit_1
I0925 22:56:03.137761 15673 net.cpp:148] Top shape: 1 1 1000 (1000)
I0925 22:56:03.137771 15673 net.cpp:148] Top shape: 1 1 1000 (1000)
I0925 22:56:03.137776 15679 net.cpp:141] Setting up concat
I0925 22:56:03.137778 15673 net.cpp:156] Memory required for data: 86016
I0925 22:56:03.137790 15679 net.cpp:148] Top shape: 1 1 1501 (1501)
I0925 22:56:03.137795 15679 net.cpp:156] Memory required for data: 32412
I0925 22:56:03.137794 15673 layer_factory.hpp:77] Creating layer lstm1_
I0925 22:56:03.137801 15679 layer_factory.hpp:77] Creating layer lstm2
I0925 22:56:03.137807 15673 net.cpp:91] Creating Layer lstm1_
I0925 22:56:03.137815 15673 net.cpp:425] lstm1_ <- c_1
I0925 22:56:03.137820 15691 net.cpp:141] Setting up lstm1_unit_1
I0925 22:56:03.137825 15673 net.cpp:399] lstm1_ -> c_T
I0925 22:56:03.137850 15691 net.cpp:148] Top shape: 1 1 1000 (1000)
I0925 22:56:03.137859 15691 net.cpp:148] Top shape: 1 1 1000 (1000)
I0925 22:56:03.137866 15691 net.cpp:156] Memory required for data: 86016
I0925 22:56:03.137874 15691 layer_factory.hpp:77] Creating layer lstm1_
I0925 22:56:03.137872 15679 net.cpp:91] Creating Layer lstm2
I0925 22:56:03.137899 15691 net.cpp:91] Creating Layer lstm1_
I0925 22:56:03.137908 15691 net.cpp:425] lstm1_ <- c_1
I0925 22:56:03.137912 15679 net.cpp:425] lstm2 <- lstm1_video_sequence
I0925 22:56:03.137919 15691 net.cpp:399] lstm1_ -> c_T
I0925 22:56:03.137923 15679 net.cpp:425] lstm2 <- cont_sentence_input_1_split_1
I0925 22:56:03.137938 15679 net.cpp:399] lstm2 -> lstm2
I0925 22:56:03.137959 15679 recurrent_layer.cpp:20] Initializing recurrent layer: assuming input batch contains 1 timesteps of 1 independent streams.
I0925 22:56:03.138254 15679 net.cpp:49] Initializing net from parameters: 
layer {
  name: "lstm2_"
  type: "Input"
  top: "x"
  top: "cont"
  input_param {
    shape {
      dim: 1
      dim: 1
      dim: 1501
    }
    shape {
      dim: 1
      dim: 1
    }
  }
}
layer {
  name: "lstm2_"
  type: "Input"
  top: "c_0"
  top: "h_0"
  input_param {
    shape {
      dim: 1
      dim: 1
      dim: 1000
    }
    shape {
      dim: 1
      dim: 1
      dim: 1000
    }
  }
}
layer {
  name: "lstm2_cont_slice"
  type: "Slice"
  bottom: "cont"
  top: "cont_1"
  slice_param {
    axis: 0
  }
}
layer {
  name: "lstm2_x_transform"
  type: "InnerProduct"
  bottom: "x"
  top: "W_xc_x"
  param {
    name: "W_xc"
  }
  param {
    name: "b_c"
  }
  propagate_down: true
  inner_product_param {
    num_output: 4000
    bias_term: true
    weight_filler {
      type: "uniform"
      min: -0.08
      max: 0.08
    }
    bias_filler {
      type: "constant"
      value: 0
    }
    axis: 2
  }
}
layer {
  name: "lstm2_W_xc_x_slice"
  type: "Slice"
  bottom: "W_xc_x"
  top: "W_xc_x_1"
  slice_param {
    axis: 0
  }
}
layer {
  name: "lstm2_h_conted_0"
  type: "Scale"
  bottom: "h_0"
  bottom: "cont_1"
  top: "h_conted_0"
  scale_param {
    axis: 0
  }
}
layer {
  name: "lstm2_transform_1"
  type: "InnerProduct"
  bottom: "h_conted_0"
  top: "W_hc_h_0"
  param {
    name: "W_hc"
  }
  inner_product_param {
    num_output: 4000
    bias_term: false
    weight_filler {
      type: "uniform"
      min: -0.08
      max: 0.08
    }
    axis: 2
  }
}
layer {
  name: "lstm2_gate_input_1"
  type: "Eltwise"
  bottom: "W_hc_h_0"
  bottom: "W_xc_x_1"
  top: "gate_input_1"
  eltwise_param {
    operation: SUM
  }
}
layer {
  name: "lstm2_unit_1"
  type: "LSTMUnit"
  bottom: "c_0"
  bottom: "gate_input_1"
  bottom: "cont_1"
  top: "c_1"
  top: "h_1"
}
layer {
  name: "lstm2_"
  type: "Split"
  bottom: "c_1"
  top: "c_T"
}
layer {
  name: "lstm2_h_concat"
  type: "Concat"
  bottom: "h_1"
  top: "h"
  concat_param {
    axis: 0
  }
}
layer {
  name: "h_pseudoloss"
  type: "Reduction"
  bottom: "h"
  top: "h_pseudoloss"
  loss_weight: 1
}
I0925 22:56:03.138355 15679 layer_factory.hpp:77] Creating layer lstm2_
I0925 22:56:03.138368 15679 net.cpp:91] Creating Layer lstm2_
I0925 22:56:03.138375 15679 net.cpp:399] lstm2_ -> x
I0925 22:56:03.138386 15679 net.cpp:399] lstm2_ -> cont
I0925 22:56:03.140379 15673 net.cpp:141] Setting up lstm1_
I0925 22:56:03.140405 15673 net.cpp:148] Top shape: 1 1 1000 (1000)
I0925 22:56:03.140413 15673 net.cpp:156] Memory required for data: 90016
I0925 22:56:03.140414 15691 net.cpp:141] Setting up lstm1_
I0925 22:56:03.140419 15673 layer_factory.hpp:77] Creating layer lstm1_h_concat
I0925 22:56:03.140444 15691 net.cpp:148] Top shape: 1 1 1000 (1000)
I0925 22:56:03.140451 15691 net.cpp:156] Memory required for data: 90016
I0925 22:56:03.140450 15673 net.cpp:91] Creating Layer lstm1_h_concat
I0925 22:56:03.140470 15691 layer_factory.hpp:77] Creating layer lstm1_h_concat
I0925 22:56:03.140473 15673 net.cpp:425] lstm1_h_concat <- h_1
I0925 22:56:03.140486 15673 net.cpp:399] lstm1_h_concat -> h
I0925 22:56:03.140487 15691 net.cpp:91] Creating Layer lstm1_h_concat
I0925 22:56:03.140496 15691 net.cpp:425] lstm1_h_concat <- h_1
I0925 22:56:03.140506 15691 net.cpp:399] lstm1_h_concat -> h
I0925 22:56:03.140557 15673 net.cpp:141] Setting up lstm1_h_concat
I0925 22:56:03.140569 15673 net.cpp:148] Top shape: 1 1 1000 (1000)
I0925 22:56:03.140576 15673 net.cpp:156] Memory required for data: 94016
I0925 22:56:03.140583 15673 layer_factory.hpp:77] Creating layer h_pseudoloss
I0925 22:56:03.140599 15673 net.cpp:91] Creating Layer h_pseudoloss
I0925 22:56:03.140604 15679 net.cpp:141] Setting up lstm2_
I0925 22:56:03.140609 15673 net.cpp:425] h_pseudoloss <- h
I0925 22:56:03.140630 15679 net.cpp:148] Top shape: 1 1 1501 (1501)
I0925 22:56:03.140636 15679 net.cpp:148] Top shape: 1 1 (1)
I0925 22:56:03.140638 15673 net.cpp:399] h_pseudoloss -> h_pseudoloss
I0925 22:56:03.140641 15679 net.cpp:156] Memory required for data: 6008
I0925 22:56:03.140660 15691 net.cpp:141] Setting up lstm1_h_concat
I0925 22:56:03.140661 15679 layer_factory.hpp:77] Creating layer lstm2_
I0925 22:56:03.140684 15691 net.cpp:148] Top shape: 1 1 1000 (1000)
I0925 22:56:03.140693 15691 net.cpp:156] Memory required for data: 94016
I0925 22:56:03.140697 15679 net.cpp:91] Creating Layer lstm2_
I0925 22:56:03.140700 15691 layer_factory.hpp:77] Creating layer h_pseudoloss
I0925 22:56:03.140705 15679 net.cpp:399] lstm2_ -> c_0
I0925 22:56:03.140713 15691 net.cpp:91] Creating Layer h_pseudoloss
I0925 22:56:03.140717 15679 net.cpp:399] lstm2_ -> h_0
I0925 22:56:03.140722 15691 net.cpp:425] h_pseudoloss <- h
I0925 22:56:03.140738 15691 net.cpp:399] h_pseudoloss -> h_pseudoloss
I0925 22:56:03.140794 15673 net.cpp:141] Setting up h_pseudoloss
I0925 22:56:03.140808 15673 net.cpp:148] Top shape: (1)
I0925 22:56:03.140815 15673 net.cpp:151]     with loss weight 1
I0925 22:56:03.140832 15673 net.cpp:156] Memory required for data: 94020
I0925 22:56:03.140841 15673 net.cpp:217] h_pseudoloss needs backward computation.
I0925 22:56:03.140847 15673 net.cpp:217] lstm1_h_concat needs backward computation.
I0925 22:56:03.140854 15673 net.cpp:219] lstm1_ does not need backward computation.
I0925 22:56:03.140861 15673 net.cpp:217] lstm1_unit_1 needs backward computation.
I0925 22:56:03.140867 15679 net.cpp:141] Setting up lstm2_
I0925 22:56:03.140872 15673 net.cpp:217] lstm1_gate_input_1 needs backward computation.
I0925 22:56:03.140880 15679 net.cpp:148] Top shape: 1 1 1000 (1000)
I0925 22:56:03.140880 15673 net.cpp:217] lstm1_transform_1 needs backward computation.
I0925 22:56:03.140887 15679 net.cpp:148] Top shape: 1 1 1000 (1000)
I0925 22:56:03.140889 15673 net.cpp:219] lstm1_h_conted_0 does not need backward computation.
I0925 22:56:03.140892 15679 net.cpp:156] Memory required for data: 14008
I0925 22:56:03.140904 15673 net.cpp:217] lstm1_W_xc_x_slice needs backward computation.
I0925 22:56:03.140908 15679 layer_factory.hpp:77] Creating layer lstm2_cont_slice
I0925 22:56:03.140915 15673 net.cpp:217] lstm1_x_transform needs backward computation.
…
I0925 22:56:03.141161 15691 net.cpp:219] lstm1_ does not need backward computation.
I0925 22:56:03.141167 15691 net.cpp:261] This network produces output c_T
I0925 22:56:03.141175 15691 net.cpp:261] This network produces output h_pseudoloss
I0925 22:56:03.141199 15691 net.cpp:274] Network initialization done.
I0925 22:56:03.141261 15691 recurrent_layer.cpp:150] Adding parameter 0: W_xc
I0925 22:56:03.141270 15691 recurrent_layer.cpp:150] Adding parameter 1: b_c
I0925 22:56:03.141278 15691 recurrent_layer.cpp:150] Adding parameter 2: W_hc
I0925 22:56:03.147514 15679 net.cpp:141] Setting up cont_1_lstm2_cont_slice_0_split
I0925 22:56:03.147543 15679 net.cpp:148] Top shape: 1 1 (1)
I0925 22:56:03.147552 15679 net.cpp:148] Top shape: 1 1 (1)
I0925 22:56:03.147557 15679 net.cpp:156] Memory required for data: 14020
I0925 22:56:03.147563 15679 layer_factory.hpp:77] Creating layer lstm2_x_transform
I0925 22:56:03.147584 15679 net.cpp:91] Creating Layer lstm2_x_transform
I0925 22:56:03.147591 15679 net.cpp:425] lstm2_x_transform <- x
I0925 22:56:03.147584 15721 net.cpp:141] Setting up embedding
I0925 22:56:03.147611 15679 net.cpp:399] lstm2_x_transform -> W_xc_x
I0925 22:56:03.147645 15721 net.cpp:148] Top shape: 1 1 500 (500)
I0925 22:56:03.147656 15721 net.cpp:156] Memory required for data: 22408
I0925 22:56:03.147680 15721 layer_factory.hpp:77] Creating layer lstm1
I0925 22:56:03.147701 15721 net.cpp:91] Creating Layer lstm1
I0925 22:56:03.147716 15721 net.cpp:425] lstm1 <- embedded_input_frames
I0925 22:56:03.147724 15721 net.cpp:425] lstm1 <- cont_sentence_input_1_split_0
I0925 22:56:03.147737 15721 net.cpp:399] lstm1 -> lstm1
I0925 22:56:03.147753 15721 recurrent_layer.cpp:20] Initializing recurrent layer: assuming input batch contains 1 timesteps of 1 independent streams.
I0925 22:56:03.157377 15721 net.cpp:49] Initializing net from parameters: 
layer {
  name: "lstm1_"
  type: "Input"
  top: "x"
  top: "cont"
  input_param {
    shape {
      dim: 1
      dim: 1
      dim: 500
    }
    shape {
      dim: 1
      dim: 1
    }
  }
}
layer {
  name: "lstm1_"
  type: "Input"
  top: "c_0"
  top: "h_0"
  input_param {
    shape {
      dim: 1
      dim: 1
      dim: 1000
    }
    shape {
      dim: 1
      dim: 1
      dim: 1000
    }
  }
}
layer {
  name: "lstm1_cont_slice"
  type: "Slice"
  bottom: "cont"
  top: "cont_1"
  slice_param {
    axis: 0
  }
}
layer {
  name: "lstm1_x_transform"
  type: "InnerProduct"
  bottom: "x"
  top: "W_xc_x"
  param {
    name: "W_xc"
  }
  param {
    name: "b_c"
  }
  propagate_down: true
  inner_product_param {
    num_output: 4000
    bias_term: true
    weight_filler {
      type: "uniform"
      min: -0.08
      max: 0.08
    }
    bias_filler {
      type: "constant"
      value: 0
    }
    axis: 2
  }
}
layer {
  name: "lstm1_W_xc_x_slice"
  type: "Slice"
  bottom: "W_xc_x"
  top: "W_xc_x_1"
  slice_param {
    axis: 0
  }
}
layer {
  name: "lstm1_h_conted_0"
  type: "Scale"
  bottom: "h_0"
  bottom: "cont_1"
  top: "h_conted_0"
  scale_param {
    axis: 0
  }
}
layer {
  name: "lstm1_transform_1"
  type: "InnerProduct"
  bottom: "h_conted_0"
  top: "W_hc_h_0"
  param {
    name: "W_hc"
  }
  inner_product_param {
    num_output: 4000
    bias_term: false
    weight_filler {
      type: "uniform"
      min: -0.08
      max: 0.08
    }
    axis: 2
  }
}
layer {
  name: "lstm1_gate_input_1"
  type: "Eltwise"
  bottom: "W_hc_h_0"
  bottom: "W_xc_x_1"
  top: "gate_input_1"
  eltwise_param {
    operation: SUM
  }
}
layer {
  name: "lstm1_unit_1"
  type: "LSTMUnit"
  bottom: "c_0"
  bottom: "gate_input_1"
  bottom: "cont_1"
  top: "c_1"
  top: "h_1"
}
layer {
  name: "lstm1_"
  type: "Split"
  bottom: "c_1"
  top: "c_T"
}
layer {
  name: "lstm1_h_concat"
  type: "Concat"
  bottom: "h_1"
  top: "h"
  concat_param {
    axis: 0
  }
}
layer {
  name: "h_pseudoloss"
  type: "Reduction"
  bottom: "h"
  top: "h_pseudoloss"
  loss_weight: 1
}
I0925 22:56:03.157552 15721 layer_factory.hpp:77] Creating layer lstm1_
I0925 22:56:03.157568 15721 net.cpp:91] Creating Layer lstm1_
I0925 22:56:03.157575 15721 net.cpp:399] lstm1_ -> x
I0925 22:56:03.157591 15721 net.cpp:399] lstm1_ -> cont
I0925 22:56:03.158552 15673 net.cpp:141] Setting up lstm1
I0925 22:56:03.158571 15673 net.cpp:148] Top shape: 1 1 1000 (1000)
I0925 22:56:03.158577 15673 net.cpp:156] Memory required for data: 26408
I0925 22:56:03.158613 15673 layer_factory.hpp:77] Creating layer concat
I0925 22:56:03.158628 15673 net.cpp:91] Creating Layer concat
I0925 22:56:03.158638 15673 net.cpp:425] concat <- lstm1
I0925 22:56:03.158648 15673 net.cpp:425] concat <- embedded_input_sentence
I0925 22:56:03.158656 15673 net.cpp:425] concat <- reshaped_stage_indicator
I0925 22:56:03.158668 15673 net.cpp:399] concat -> lstm1_video_sequence
I0925 22:56:03.158742 15721 net.cpp:141] Setting up lstm1_
I0925 22:56:03.158761 15721 net.cpp:148] Top shape: 1 1 500 (500)
I0925 22:56:03.158767 15721 net.cpp:148] Top shape: 1 1 (1)
I0925 22:56:03.158771 15721 net.cpp:156] Memory required for data: 2004
I0925 22:56:03.158777 15721 layer_factory.hpp:77] Creating layer lstm1_
I0925 22:56:03.158783 15673 net.cpp:141] Setting up concat
I0925 22:56:03.158792 15721 net.cpp:91] Creating Layer lstm1_
I0925 22:56:03.158798 15673 net.cpp:148] Top shape: 1 1 1501 (1501)
I0925 22:56:03.158805 15673 net.cpp:156] Memory required for data: 32412
I0925 22:56:03.158812 15673 layer_factory.hpp:77] Creating layer lstm2
I0925 22:56:03.158813 15721 net.cpp:399] lstm1_ -> c_0
I0925 22:56:03.158833 15721 net.cpp:399] lstm1_ -> h_0
I0925 22:56:03.158836 15673 net.cpp:91] Creating Layer lstm2
I0925 22:56:03.158833 15691 net.cpp:141] Setting up lstm1
I0925 22:56:03.158854 15673 net.cpp:425] lstm2 <- lstm1_video_sequence
I0925 22:56:03.158864 15673 net.cpp:425] lstm2 <- cont_sentence_input_1_split_1
I0925 22:56:03.158867 15691 net.cpp:148] Top shape: 1 1 1000 (1000)
I0925 22:56:03.158877 15691 net.cpp:156] Memory required for data: 26408
I0925 22:56:03.158877 15673 net.cpp:399] lstm2 -> lstm2
I0925 22:56:03.158903 15673 recurrent_layer.cpp:20] Initializing recurrent layer: assuming input batch contains 1 timesteps of 1 independent streams.
I0925 22:56:03.158908 15691 layer_factory.hpp:77] Creating layer concat
I0925 22:56:03.158926 15691 net.cpp:91] Creating Layer concat
I0925 22:56:03.158926 15721 net.cpp:141] Setting up lstm1_
I0925 22:56:03.158942 15691 net.cpp:425] concat <- lstm1
I0925 22:56:03.158949 15721 net.cpp:148] Top shape: 1 1 1000 (1000)
I0925 22:56:03.158954 15691 net.cpp:425] concat <- embedded_input_sentence
I0925 22:56:03.158960 15721 net.cpp:148] Top shape: 1 1 1000 (1000)
I0925 22:56:03.158964 15691 net.cpp:425] concat <- reshaped_stage_indicator
I0925 22:56:03.158967 15721 net.cpp:156] Memory required for data: 10004
I0925 22:56:03.158975 15721 layer_factory.hpp:77] Creating layer lstm1_cont_slice
I0925 22:56:03.158975 15691 net.cpp:399] concat -> lstm1_video_sequence
I0925 22:56:03.159000 15721 net.cpp:91] Creating Layer lstm1_cont_slice
I0925 22:56:03.159011 15721 net.cpp:425] lstm1_cont_slice <- cont
I0925 22:56:03.159021 15721 net.cpp:399] lstm1_cont_slice -> cont_1
I0925 22:56:03.159235 15673 net.cpp:49] Initializing net from parameters: 
layer {
  name: "lstm2_"
  type: "Input"
  top: "x"
  top: "cont"
  input_param {
    shape {
      dim: 1
      dim: 1
      dim: 1501
    }
    shape {
      dim: 1
      dim: 1
    }
  }
}
layer {
  name: "lstm2_"
  type: "Input"
  top: "c_0"
  top: "h_0"
  input_param {
    shape {
      dim: 1
      dim: 1
      dim: 1000
    }
    shape {
      dim: 1
      dim: 1
      dim: 1000
    }
  }
}
layer {
  name: "lstm2_cont_slice"
  type: "Slice"
  bottom: "cont"
  top: "cont_1"
  slice_param {
    axis: 0
  }
}
layer {
  name: "lstm2_x_transform"
  type: "InnerProduct"
  bottom: "x"
  top: "W_xc_x"
  param {
    name: "W_xc"
  }
  param {
    name: "b_c"
  }
  propagate_down: true
  inner_product_param {
    num_output: 4000
    bias_term: true
    weight_filler {
      type: "uniform"
      min: -0.08
      max: 0.08
    }
    bias_filler {
      type: "constant"
      value: 0
    }
    axis: 2
  }
}
layer {
  name: "lstm2_W_xc_x_slice"
  type: "Slice"
  bottom: "W_xc_x"
  top: "W_xc_x_1"
  slice_param {
    axis: 0
  }
}
layer {
  name: "lstm2_h_conted_0"
  type: "Scale"
  bottom: "h_0"
  bottom: "cont_1"
  top: "h_conted_0"
  scale_param {
    axis: 0
  }
}
layer {
  name: "lstm2_transform_1"
  type: "InnerProduct"
  bottom: "h_conted_0"
  top: "W_hc_h_0"
  param {
    name: "W_hc"
  }
  inner_product_param {
    num_output: 4000
    bias_term: false
    weight_filler {
      type: "uniform"
      min: -0.08
      max: 0.08
    }
    axis: 2
  }
}
layer {
  name: "lstm2_gate_input_1"
  type: "Eltwise"
  bottom: "W_hc_h_0"
  bottom: "W_xc_x_1"
  top: "gate_input_1"
  eltwise_param {
    operation: SUM
  }
}
layer {
  name: "lstm2_unit_1"
  type: "LSTMUnit"
  bottom: "c_0"
  bottom: "gate_input_1"
  bottom: "cont_1"
  top: "c_1"
  top: "h_1"
}
layer {
  name: "lstm2_"
  type: "Split"
  bottom: "c_1"
  top: "c_T"
}
layer {
  name: "lstm2_h_concat"
  type: "Concat"
  bottom: "h_1"
  top: "h"
  concat_param {
    axis: 0
  }
}
layer {
  name: "h_pseudoloss"
  type: "Reduction"
  bottom: "h"
  top: "h_pseudoloss"
  loss_weight: 1
}
I0925 22:56:03.159353 15673 layer_factory.hpp:77] Creating layer lstm2_
I0925 22:56:03.159368 15673 net.cpp:91] Creating Layer lstm2_
I0925 22:56:03.159378 15673 net.cpp:399] lstm2_ -> x
I0925 22:56:03.159392 15673 net.cpp:399] lstm2_ -> cont
I0925 22:56:03.160050 15691 net.cpp:141] Setting up concat
I0925 22:56:03.160073 15691 net.cpp:148] Top shape: 1 1 1501 (1501)
I0925 22:56:03.160081 15691 net.cpp:156] Memory required for data: 32412
I0925 22:56:03.160090 15691 layer_factory.hpp:77] Creating layer lstm2
I0925 22:56:03.160090 15721 net.cpp:141] Setting up lstm1_cont_slice
I0925 22:56:03.160106 15721 net.cpp:148] Top shape: 1 1 (1)
I0925 22:56:03.160115 15721 net.cpp:156] Memory required for data: 10008
I0925 22:56:03.160121 15721 layer_factory.hpp:77] Creating layer cont_1_lstm1_cont_slice_0_split
I0925 22:56:03.160125 15691 net.cpp:91] Creating Layer lstm2
I0925 22:56:03.160133 15721 net.cpp:91] Creating Layer cont_1_lstm1_cont_slice_0_split
I0925 22:56:03.160135 15691 net.cpp:425] lstm2 <- lstm1_video_sequence
I0925 22:56:03.160141 15721 net.cpp:425] cont_1_lstm1_cont_slice_0_split <- cont_1
I0925 22:56:03.160145 15691 net.cpp:425] lstm2 <- cont_sentence_input_1_split_1
I0925 22:56:03.160158 15691 net.cpp:399] lstm2 -> lstm2
I0925 22:56:03.160161 15721 net.cpp:399] cont_1_lstm1_cont_slice_0_split -> cont_1_lstm1_cont_slice_0_split_0
I0925 22:56:03.160183 15721 net.cpp:399] cont_1_lstm1_cont_slice_0_split -> cont_1_lstm1_cont_slice_0_split_1
I0925 22:56:03.160183 15691 recurrent_layer.cpp:20] Initializing recurrent layer: assuming input batch contains 1 timesteps of 1 independent streams.
I0925 22:56:03.160292 15673 net.cpp:141] Setting up lstm2_
I0925 22:56:03.160307 15673 net.cpp:148] Top shape: 1 1 1501 (1501)
I0925 22:56:03.160317 15673 net.cpp:148] Top shape: 1 1 (1)
I0925 22:56:03.160325 15673 net.cpp:156] Memory required for data: 6008
I0925 22:56:03.160331 15673 layer_factory.hpp:77] Creating layer lstm2_
I0925 22:56:03.160346 15673 net.cpp:91] Creating Layer lstm2_
I0925 22:56:03.160361 15673 net.cpp:399] lstm2_ -> c_0
I0925 22:56:03.160375 15673 net.cpp:399] lstm2_ -> h_0
I0925 22:56:03.160444 15691 net.cpp:49] Initializing net from parameters: 
layer {
  name: "lstm2_"
  type: "Input"
  top: "x"
  top: "cont"
  input_param {
    shape {
      dim: 1
      dim: 1
      dim: 1501
    }
    shape {
      dim: 1
      dim: 1
    }
  }
}
layer {
  name: "lstm2_"
  type: "Input"
  top: "c_0"
  top: "h_0"
  input_param {
    shape {
      dim: 1
      dim: 1
      dim: 1000
    }
    shape {
      dim: 1
      dim: 1
      dim: 1000
    }
  }
}
layer {
  name: "lstm2_cont_slice"
  type: "Slice"
  bottom: "cont"
  top: "cont_1"
  slice_param {
    axis: 0
  }
}
layer {
  name: "lstm2_x_transform"
  type: "InnerProduct"
  bottom: "x"
  top: "W_xc_x"
  param {
    name: "W_xc"
  }
  param {
    name: "b_c"
  }
  propagate_down: true
  inner_product_param {
    num_output: 4000
    bias_term: true
    weight_filler {
      type: "uniform"
      min: -0.08
      max: 0.08
    }
    bias_filler {
      type: "constant"
      value: 0
    }
    axis: 2
  }
}
layer {
  name: "lstm2_W_xc_x_slice"
  type: "Slice"
  bottom: "W_xc_x"
  top: "W_xc_x_1"
  slice_param {
    axis: 0
  }
}
layer {
  name: "lstm2_h_conted_0"
  type: "Scale"
  bottom: "h_0"
  bottom: "cont_1"
  top: "h_conted_0"
  scale_param {
    axis: 0
  }
}
layer {
  name: "lstm2_transform_1"
  type: "InnerProduct"
  bottom: "h_conted_0"
  top: "W_hc_h_0"
  param {
    name: "W_hc"
  }
  inner_product_param {
    num_output: 4000
    bias_term: false
    weight_filler {
      type: "uniform"
      min: -0.08
      max: 0.08
    }
    axis: 2
  }
}
layer {
  name: "lstm2_gate_input_1"
  type: "Eltwise"
  bottom: "W_hc_h_0"
  bottom: "W_xc_x_1"
  top: "gate_input_1"
  eltwise_param {
    operation: SUM
  }
}
layer {
  name: "lstm2_unit_1"
  type: "LSTMUnit"
  bottom: "c_0"
  bottom: "gate_input_1"
  bottom: "cont_1"
  top: "c_1"
  top: "h_1"
}
layer {
  name: "lstm2_"
  type: "Split"
  bottom: "c_1"
  top: "c_T"
}
layer {
  name: "lstm2_h_concat"
  type: "Concat"
  bottom: "h_1"
  top: "h"
  concat_param {
    axis: 0
  }
}
layer {
  name: "h_pseudoloss"
  type: "Reduction"
  bottom: "h"
  top: "h_pseudoloss"
  loss_weight: 1
}
I0925 22:56:03.160528 15691 layer_factory.hpp:77] Creating layer lstm2_
I0925 22:56:03.160538 15691 net.cpp:91] Creating Layer lstm2_
I0925 22:56:03.160544 15691 net.cpp:399] lstm2_ -> x
I0925 22:56:03.160555 15691 net.cpp:399] lstm2_ -> cont
I0925 22:56:03.169054 15673 net.cpp:141] Setting up lstm2_
I0925 22:56:03.169095 15721 net.cpp:141] Setting up cont_1_lstm1_cont_slice_0_split
I0925 22:56:03.169100 15673 net.cpp:148] Top shape: 1 1 1000 (1000)
I0925 22:56:03.169117 15721 net.cpp:148] Top shape: 1 1 (1)
I0925 22:56:03.169121 15673 net.cpp:148] Top shape: 1 1 1000 (1000)
I0925 22:56:03.169124 15721 net.cpp:148] Top shape: 1 1 (1)
I0925 22:56:03.169134 15673 net.cpp:156] Memory required for data: 14008
I0925 22:56:03.169137 15721 net.cpp:156] Memory required for data: 10016
I0925 22:56:03.169144 15721 layer_factory.hpp:77] Creating layer lstm1_x_transform
I0925 22:56:03.169144 15673 layer_factory.hpp:77] Creating layer lstm2_cont_slice
I0925 22:56:03.169160 15711 net.cpp:141] Setting up lstm1_transform_1
I0925 22:56:03.169168 15673 net.cpp:91] Creating Layer lstm2_cont_slice
I0925 22:56:03.169179 15721 net.cpp:91] Creating Layer lstm1_x_transform
I0925 22:56:03.169188 15711 net.cpp:148] Top shape: 1 1 4000 (4000)
I0925 22:56:03.169191 15721 net.cpp:425] lstm1_x_transform <- x
I0925 22:56:03.169189 15673 net.cpp:425] lstm2_cont_slice <- cont
I0925 22:56:03.169201 15711 net.cpp:156] Memory required for data: 62016
I0925 22:56:03.169211 15673 net.cpp:399] lstm2_cont_slice -> cont_1
I0925 22:56:03.169211 15721 net.cpp:399] lstm1_x_transform -> W_xc_x
I0925 22:56:03.169221 15711 layer_factory.hpp:77] Creating layer lstm1_gate_input_1
I0925 22:56:03.169260 15711 net.cpp:91] Creating Layer lstm1_gate_input_1
I0925 22:56:03.169266 15691 net.cpp:141] Setting up lstm2_
I0925 22:56:03.169272 15711 net.cpp:425] lstm1_gate_input_1 <- W_hc_h_0
I0925 22:56:03.169289 15691 net.cpp:148] Top shape: 1 1 1501 (1501)
I0925 22:56:03.169297 15691 net.cpp:148] Top shape: 1 1 (1)
I0925 22:56:03.169306 15691 net.cpp:156] Memory required for data: 6008
I0925 22:56:03.169296 15711 net.cpp:425] lstm1_gate_input_1 <- W_xc_x_1
I0925 22:56:03.169312 15691 layer_factory.hpp:77] Creating layer lstm2_
I0925 22:56:03.169322 15711 net.cpp:399] lstm1_gate_input_1 -> gate_input_1
I0925 22:56:03.169323 15673 net.cpp:141] Setting up lstm2_cont_slice
I0925 22:56:03.169330 15691 net.cpp:91] Creating Layer lstm2_
I0925 22:56:03.169348 15673 net.cpp:148] Top shape: 1 1 (1)
I0925 22:56:03.169354 15691 net.cpp:399] lstm2_ -> c_0
I0925 22:56:03.169355 15673 net.cpp:156] Memory required for data: 14012
I0925 22:56:03.169378 15673 layer_factory.hpp:77] Creating layer cont_1_lstm2_cont_slice_0_split
I0925 22:56:03.169384 15691 net.cpp:399] lstm2_ -> h_0
I0925 22:56:03.169394 15673 net.cpp:91] Creating Layer cont_1_lstm2_cont_slice_0_split
I0925 22:56:03.169402 15673 net.cpp:425] cont_1_lstm2_cont_slice_0_split <- cont_1
I0925 22:56:03.169404 15711 net.cpp:141] Setting up lstm1_gate_input_1
I0925 22:56:03.169414 15673 net.cpp:399] cont_1_lstm2_cont_slice_0_split -> cont_1_lstm2_cont_slice_0_split_0
I0925 22:56:03.169420 15711 net.cpp:148] Top shape: 1 1 4000 (4000)
I0925 22:56:03.169426 15673 net.cpp:399] cont_1_lstm2_cont_slice_0_split -> cont_1_lstm2_cont_slice_0_split_1
I0925 22:56:03.169427 15711 net.cpp:156] Memory required for data: 78016
I0925 22:56:03.169446 15711 layer_factory.hpp:77] Creating layer lstm1_unit_1
I0925 22:56:03.169461 15711 net.cpp:91] Creating Layer lstm1_unit_1
I0925 22:56:03.169464 15691 net.cpp:141] Setting up lstm2_
I0925 22:56:03.169468 15711 net.cpp:425] lstm1_unit_1 <- c_0
I0925 22:56:03.169486 15691 net.cpp:148] Top shape: 1 1 1000 (1000)
I0925 22:56:03.169489 15711 net.cpp:425] lstm1_unit_1 <- gate_input_1
I0925 22:56:03.169497 15691 net.cpp:148] Top shape: 1 1 1000 (1000)
I0925 22:56:03.169500 15711 net.cpp:425] lstm1_unit_1 <- cont_1_lstm1_cont_slice_0_split_1
I0925 22:56:03.169503 15691 net.cpp:156] Memory required for data: 14008
I0925 22:56:03.169512 15691 layer_factory.hpp:77] Creating layer lstm2_cont_slice
I0925 22:56:03.169512 15711 net.cpp:399] lstm1_unit_1 -> c_1
I0925 22:56:03.169525 15691 net.cpp:91] Creating Layer lstm2_cont_slice
I0925 22:56:03.169529 15711 net.cpp:399] lstm1_unit_1 -> h_1
I0925 22:56:03.169534 15691 net.cpp:425] lstm2_cont_slice <- cont
I0925 22:56:03.169551 15691 net.cpp:399] lstm2_cont_slice -> cont_1
I0925 22:56:03.173518 15673 net.cpp:141] Setting up cont_1_lstm2_cont_slice_0_split
I0925 22:56:03.173560 15673 net.cpp:148] Top shape: 1 1 (1)
I0925 22:56:03.173570 15673 net.cpp:148] Top shape: 1 1 (1)
I0925 22:56:03.173578 15673 net.cpp:156] Memory required for data: 14020
I0925 22:56:03.173588 15673 layer_factory.hpp:77] Creating layer lstm2_x_transform
I0925 22:56:03.173602 15691 net.cpp:141] Setting up lstm2_cont_slice
I0925 22:56:03.173615 15673 net.cpp:91] Creating Layer lstm2_x_transform
I0925 22:56:03.173638 15673 net.cpp:425] lstm2_x_transform <- x
I0925 22:56:03.173645 15691 net.cpp:148] Top shape: 1 1 (1)
I0925 22:56:03.173655 15673 net.cpp:399] lstm2_x_transform -> W_xc_x
I0925 22:56:03.173660 15691 net.cpp:156] Memory required for data: 14012
I0925 22:56:03.173676 15691 layer_factory.hpp:77] Creating layer cont_1_lstm2_cont_slice_0_split
I0925 22:56:03.173698 15691 net.cpp:91] Creating Layer cont_1_lstm2_cont_slice_0_split
I0925 22:56:03.173713 15691 net.cpp:425] cont_1_lstm2_cont_slice_0_split <- cont_1
I0925 22:56:03.173734 15691 net.cpp:399] cont_1_lstm2_cont_slice_0_split -> cont_1_lstm2_cont_slice_0_split_0
I0925 22:56:03.173734 15711 net.cpp:141] Setting up lstm1_unit_1
I0925 22:56:03.173769 15711 net.cpp:148] Top shape: 1 1 1000 (1000)
I0925 22:56:03.173780 15711 net.cpp:148] Top shape: 1 1 1000 (1000)
I0925 22:56:03.173777 15691 net.cpp:399] cont_1_lstm2_cont_slice_0_split -> cont_1_lstm2_cont_slice_0_split_1
I0925 22:56:03.173797 15711 net.cpp:156] Memory required for data: 86016
I0925 22:56:03.173822 15711 layer_factory.hpp:77] Creating layer lstm1_
I0925 22:56:03.173868 15711 net.cpp:91] Creating Layer lstm1_
I0925 22:56:03.173880 15711 net.cpp:425] lstm1_ <- c_1
I0925 22:56:03.173892 15711 net.cpp:399] lstm1_ -> c_T
I0925 22:56:03.187337 15711 net.cpp:141] Setting up lstm1_
I0925 22:56:03.187388 15711 net.cpp:148] Top shape: 1 1 1000 (1000)
I0925 22:56:03.187398 15711 net.cpp:156] Memory required for data: 90016
I0925 22:56:03.187410 15711 layer_factory.hpp:77] Creating layer lstm1_h_concat
I0925 22:56:03.187433 15711 net.cpp:91] Creating Layer lstm1_h_concat
I0925 22:56:03.187443 15711 net.cpp:425] lstm1_h_concat <- h_1
I0925 22:56:03.187465 15711 net.cpp:399] lstm1_h_concat -> h
I0925 22:56:03.187539 15695 net.cpp:141] Setting up embedding
I0925 22:56:03.187587 15695 net.cpp:148] Top shape: 1 1 500 (500)
I0925 22:56:03.187594 15695 net.cpp:156] Memory required for data: 22408
I0925 22:56:03.187615 15695 layer_factory.hpp:77] Creating layer lstm1
I0925 22:56:03.187609 15683 net.cpp:141] Setting up embedding
I0925 22:56:03.187636 15683 net.cpp:148] Top shape: 1 1 500 (500)
I0925 22:56:03.187638 15695 net.cpp:91] Creating Layer lstm1
I0925 22:56:03.187644 15683 net.cpp:156] Memory required for data: 22408
I0925 22:56:03.187647 15695 net.cpp:425] lstm1 <- embedded_input_frames
I0925 22:56:03.187656 15695 net.cpp:425] lstm1 <- cont_sentence_input_1_split_0
I0925 22:56:03.187661 15683 layer_factory.hpp:77] Creating layer lstm1
I0925 22:56:03.187666 15691 net.cpp:141] Setting up cont_1_lstm2_cont_slice_0_split
I0925 22:56:03.187677 15683 net.cpp:91] Creating Layer lstm1
I0925 22:56:03.187695 15691 net.cpp:148] Top shape: 1 1 (1)
I0925 22:56:03.187666 15695 net.cpp:399] lstm1 -> lstm1
I0925 22:56:03.187700 15683 net.cpp:425] lstm1 <- embedded_input_frames
I0925 22:56:03.187705 15691 net.cpp:148] Top shape: 1 1 (1)
I0925 22:56:03.187710 15683 net.cpp:425] lstm1 <- cont_sentence_input_1_split_0
I0925 22:56:03.187712 15691 net.cpp:156] Memory required for data: 14020
I0925 22:56:03.187719 15683 net.cpp:399] lstm1 -> lstm1
I0925 22:56:03.187721 15695 recurrent_layer.cpp:20] Initializing recurrent layer: assuming input batch contains 1 timesteps of 1 independent streams.
I0925 22:56:03.187733 15683 recurrent_layer.cpp:20] Initializing recurrent layer: assuming input batch contains 1 timesteps of 1 independent streams.
I0925 22:56:03.187721 15691 layer_factory.hpp:77] Creating layer lstm2_x_transform
I0925 22:56:03.187763 15691 net.cpp:91] Creating Layer lstm2_x_transform
I0925 22:56:03.187773 15691 net.cpp:425] lstm2_x_transform <- x
I0925 22:56:03.187786 15691 net.cpp:399] lstm2_x_transform -> W_xc_x
I0925 22:56:03.187793 15711 net.cpp:141] Setting up lstm1_h_concat
I0925 22:56:03.187809 15711 net.cpp:148] Top shape: 1 1 1000 (1000)
I0925 22:56:03.187816 15711 net.cpp:156] Memory required for data: 94016
I0925 22:56:03.187824 15711 layer_factory.hpp:77] Creating layer h_pseudoloss
I0925 22:56:03.187837 15711 net.cpp:91] Creating Layer h_pseudoloss
I0925 22:56:03.187845 15711 net.cpp:425] h_pseudoloss <- h
I0925 22:56:03.187856 15711 net.cpp:399] h_pseudoloss -> h_pseudoloss
I0925 22:56:03.188050 15683 net.cpp:49] Initializing net from parameters: 
layer {
  name: "lstm1_"
  type: "Input"
  top: "x"
  top: "cont"
  input_param {
    shape {
      dim: 1
      dim: 1
      dim: 500
    }
    shape {
      dim: 1
      dim: 1
    }
  }
}
layer {
  name: "lstm1_"
  type: "Input"
  top: "c_0"
  top: "h_0"
  input_param {
    shape {
      dim: 1
      dim: 1
      dim: 1000
    }
    shape {
      dim: 1
      dim: 1
      dim: 1000
    }
  }
}
layer {
  name: "lstm1_cont_slice"
  type: "Slice"
  bottom: "cont"
  top: "cont_1"
  slice_param {
    axis: 0
  }
}
layer {
  name: "lstm1_x_transform"
  type: "InnerProduct"
  bottom: "x"
  top: "W_xc_x"
  param {
    name: "W_xc"
  }
  param {
    name: "b_c"
  }
  propagate_down: true
  inner_product_param {
    num_output: 4000
    bias_term: true
    weight_filler {
      type: "uniform"
      min: -0.08
      max: 0.08
    }
    bias_filler {
      type: "constant"
      value: 0
    }
    axis: 2
  }
}
layer {
  name: "lstm1_W_xc_x_slice"
  type: "Slice"
  bottom: "W_xc_x"
  top: "W_xc_x_1"
  slice_param {
    axis: 0
  }
}
layer {
  name: "lstm1_h_conted_0"
  type: "Scale"
  bottom: "h_0"
  bottom: "cont_1"
  top: "h_conted_0"
  scale_param {
    axis: 0
  }
}
layer {
  name: "lstm1_transform_1"
  type: "InnerProduct"
  bottom: "h_conted_0"
  top: "W_hc_h_0"
  param {
    name: "W_hc"
  }
  inner_product_param {
    num_output: 4000
    bias_term: false
    weight_filler {
      type: "uniform"
      min: -0.08
      max: 0.08
    }
    axis: 2
  }
}
layer {
  name: "lstm1_gate_input_1"
  type: "Eltwise"
  bottom: "W_hc_h_0"
  bottom: "W_xc_x_1"
  top: "gate_input_1"
  eltwise_param {
    operation: SUM
  }
}
layer {
  name: "lstm1_unit_1"
  type: "LSTMUnit"
  bottom: "c_0"
  bottom: "gate_input_1"
  bottom: "cont_1"
  top: "c_1"
  top: "h_1"
}
layer {
  name: "lstm1_"
  type: "Split"
  bottom: "c_1"
  top: "c_T"
}
layer {
  name: "lstm1_h_concat"
  type: "Concat"
  bottom: "h_1"
  top: "h"
  concat_param {
    axis: 0
  }
}
layer {
  name: "h_pseudoloss"
  type: "Reduction"
  bottom: "h"
  top: "h_pseudoloss"
  loss_weight: 1
}
I0925 22:56:03.188056 15695 net.cpp:49] Initializing net from parameters: 
layer {
  name: "lstm1_"
  type: "Input"
  top: "x"
  top: "cont"
  input_param {
    shape {
      dim: 1
      dim: 1
      dim: 500
    }
    shape {
      dim: 1
      dim: 1
    }
  }
}
layer {
  name: "lstm1_"
  type: "Input"
  top: "c_0"
  top: "h_0"
  input_param {
    shape {
      dim: 1
      dim: 1
      dim: 1000
    }
    shape {
      dim: 1
      dim: 1
      dim: 1000
    }
  }
}
layer {
  name: "lstm1_cont_slice"
  type: "Slice"
  bottom: "cont"
  top: "cont_1"
  slice_param {
    axis: 0
  }
}
layer {
  name: "lstm1_x_transform"
  type: "InnerProduct"
  bottom: "x"
  top: "W_xc_x"
  param {
    name: "W_xc"
  }
  param {
    name: "b_c"
  }
  propagate_down: true
  inner_product_param {
    num_output: 4000
    bias_term: true
    weight_filler {
      type: "uniform"
      min: -0.08
      max: 0.08
    }
    bias_filler {
      type: "constant"
      value: 0
    }
    axis: 2
  }
}
layer {
  name: "lstm1_W_xc_x_slice"
  type: "Slice"
  bottom: "W_xc_x"
  top: "W_xc_x_1"
  slice_param {
    axis: 0
  }
}
layer {
  name: "lstm1_h_conted_0"
  type: "Scale"
  bottom: "h_0"
  bottom: "cont_1"
  top: "h_conted_0"
  scale_param {
    axis: 0
  }
}
layer {
  name: "lstm1_transform_1"
  type: "InnerProduct"
  bottom: "h_conted_0"
  top: "W_hc_h_0"
  param {
    name: "W_hc"
  }
  inner_product_param {
    num_output: 4000
    bias_term: false
    weight_filler {
      type: "uniform"
      min: -0.08
      max: 0.08
    }
    axis: 2
  }
}
layer {
  name: "lstm1_gate_input_1"
  type: "Eltwise"
  bottom: "W_hc_h_0"
  bottom: "W_xc_x_1"
  top: "gate_input_1"
  eltwise_param {
    operation: SUM
  }
}
layer {
  name: "lstm1_unit_1"
  type: "LSTMUnit"
  bottom: "c_0"
  bottom: "gate_input_1"
  bottom: "cont_1"
  top: "c_1"
  top: "h_1"
}
layer {
  name: "lstm1_"
  type: "Split"
  bottom: "c_1"
  top: "c_T"
}
layer {
  name: "lstm1_h_concat"
  type: "Concat"
  bottom: "h_1"
  top: "h"
  concat_param {
    axis: 0
  }
}
layer {
  name: "h_pseudoloss"
  type: "Reduction"
  bottom: "h"
  top: "h_pseudoloss"
  loss_weight: 1
}
I0925 22:56:03.188175 15683 layer_factory.hpp:77] Creating layer lstm1_
I0925 22:56:03.188184 15695 layer_factory.hpp:77] Creating layer lstm1_
I0925 22:56:03.188192 15683 net.cpp:91] Creating Layer lstm1_
I0925 22:56:03.188200 15695 net.cpp:91] Creating Layer lstm1_
I0925 22:56:03.188201 15683 net.cpp:399] lstm1_ -> x
I0925 22:56:03.188208 15695 net.cpp:399] lstm1_ -> x
I0925 22:56:03.188215 15683 net.cpp:399] lstm1_ -> cont
I0925 22:56:03.188220 15695 net.cpp:399] lstm1_ -> cont
I0925 22:56:03.199282 15677 net.cpp:141] Setting up lstm2_x_transform
I0925 22:56:03.199282 15711 net.cpp:141] Setting up h_pseudoloss
I0925 22:56:03.199340 15677 net.cpp:148] Top shape: 1 1 4000 (4000)
I0925 22:56:03.199344 15711 net.cpp:148] Top shape: (1)
I0925 22:56:03.199348 15677 net.cpp:156] Memory required for data: 30020
I0925 22:56:03.199353 15711 net.cpp:151]     with loss weight 1
I0925 22:56:03.199376 15677 layer_factory.hpp:77] Creating layer lstm2_W_xc_x_slice
I0925 22:56:03.199379 15711 net.cpp:156] Memory required for data: 94020
I0925 22:56:03.199390 15711 net.cpp:217] h_pseudoloss needs backward computation.
…
I0925 22:56:03.199499 15711 net.cpp:219] lstm1_ does not need backward computation.
I0925 22:56:03.199506 15711 net.cpp:261] This network produces output c_T
I0925 22:56:03.199514 15711 net.cpp:261] This network produces output h_pseudoloss
I0925 22:56:03.199537 15711 net.cpp:274] Network initialization done.
I0925 22:56:03.199609 15711 recurrent_layer.cpp:150] Adding parameter 0: W_xc
I0925 22:56:03.199620 15711 recurrent_layer.cpp:150] Adding parameter 1: b_c
I0925 22:56:03.199626 15711 recurrent_layer.cpp:150] Adding parameter 2: W_hc
I0925 22:56:03.199646 15695 net.cpp:141] Setting up lstm1_
I0925 22:56:03.199692 15695 net.cpp:148] Top shape: 1 1 500 (500)
I0925 22:56:03.199705 15677 net.cpp:141] Setting up lstm2_W_xc_x_slice
I0925 22:56:03.199707 15695 net.cpp:148] Top shape: 1 1 (1)
I0925 22:56:03.199733 15677 net.cpp:148] Top shape: 1 1 4000 (4000)
I0925 22:56:03.199739 15695 net.cpp:156] Memory required for data: 2004
I0925 22:56:03.199743 15677 net.cpp:156] Memory required for data: 46020
I0925 22:56:03.199769 15695 layer_factory.hpp:77] Creating layer lstm1_
I0925 22:56:03.199774 15677 layer_factory.hpp:77] Creating layer lstm2_h_conted_0
I0925 22:56:03.199789 15677 net.cpp:91] Creating Layer lstm2_h_conted_0
I0925 22:56:03.199796 15677 net.cpp:425] lstm2_h_conted_0 <- h_0
I0925 22:56:03.199800 15695 net.cpp:91] Creating Layer lstm1_
I0925 22:56:03.199806 15677 net.cpp:425] lstm2_h_conted_0 <- cont_1_lstm2_cont_slice_0_split_0
I0925 22:56:03.199818 15677 net.cpp:399] lstm2_h_conted_0 -> h_conted_0
I0925 22:56:03.199818 15695 net.cpp:399] lstm1_ -> c_0
I0925 22:56:03.199846 15695 net.cpp:399] lstm1_ -> h_0
I0925 22:56:03.202607 15695 net.cpp:141] Setting up lstm1_
I0925 22:56:03.202628 15695 net.cpp:148] Top shape: 1 1 1000 (1000)
I0925 22:56:03.202639 15695 net.cpp:148] Top shape: 1 1 1000 (1000)
I0925 22:56:03.202646 15695 net.cpp:156] Memory required for data: 10004
I0925 22:56:03.202653 15695 layer_factory.hpp:77] Creating layer lstm1_cont_slice
I0925 22:56:03.202671 15695 net.cpp:91] Creating Layer lstm1_cont_slice
I0925 22:56:03.202679 15695 net.cpp:425] lstm1_cont_slice <- cont
I0925 22:56:03.202695 15695 net.cpp:399] lstm1_cont_slice -> cont_1
I0925 22:56:03.202752 15695 net.cpp:141] Setting up lstm1_cont_slice
I0925 22:56:03.202767 15695 net.cpp:148] Top shape: 1 1 (1)
I0925 22:56:03.202775 15695 net.cpp:156] Memory required for data: 10008
I0925 22:56:03.202783 15695 layer_factory.hpp:77] Creating layer cont_1_lstm1_cont_slice_0_split
I0925 22:56:03.202798 15695 net.cpp:91] Creating Layer cont_1_lstm1_cont_slice_0_split
I0925 22:56:03.202806 15695 net.cpp:425] cont_1_lstm1_cont_slice_0_split <- cont_1
I0925 22:56:03.202817 15695 net.cpp:399] cont_1_lstm1_cont_slice_0_split -> cont_1_lstm1_cont_slice_0_split_0
I0925 22:56:03.202832 15695 net.cpp:399] cont_1_lstm1_cont_slice_0_split -> cont_1_lstm1_cont_slice_0_split_1
I0925 22:56:03.202914 15695 net.cpp:141] Setting up cont_1_lstm1_cont_slice_0_split
I0925 22:56:03.202929 15695 net.cpp:148] Top shape: 1 1 (1)
I0925 22:56:03.202939 15695 net.cpp:148] Top shape: 1 1 (1)
I0925 22:56:03.202945 15695 net.cpp:156] Memory required for data: 10016
I0925 22:56:03.202953 15695 layer_factory.hpp:77] Creating layer lstm1_x_transform
I0925 22:56:03.202973 15695 net.cpp:91] Creating Layer lstm1_x_transform
I0925 22:56:03.202981 15695 net.cpp:425] lstm1_x_transform <- x
I0925 22:56:03.202994 15695 net.cpp:399] lstm1_x_transform -> W_xc_x
I0925 22:56:03.208679 15711 net.cpp:141] Setting up lstm1
I0925 22:56:03.208726 15711 net.cpp:148] Top shape: 1 1 1000 (1000)
I0925 22:56:03.208734 15711 net.cpp:156] Memory required for data: 26408
I0925 22:56:03.208761 15711 layer_factory.hpp:77] Creating layer concat
I0925 22:56:03.208781 15711 net.cpp:91] Creating Layer concat
I0925 22:56:03.208792 15711 net.cpp:425] concat <- lstm1
I0925 22:56:03.208803 15711 net.cpp:425] concat <- embedded_input_sentence
I0925 22:56:03.208812 15711 net.cpp:425] concat <- reshaped_stage_indicator
I0925 22:56:03.208824 15711 net.cpp:399] concat -> lstm1_video_sequence
I0925 22:56:03.208887 15711 net.cpp:141] Setting up concat
I0925 22:56:03.208901 15711 net.cpp:148] Top shape: 1 1 1501 (1501)
I0925 22:56:03.208909 15711 net.cpp:156] Memory required for data: 32412
I0925 22:56:03.208916 15711 layer_factory.hpp:77] Creating layer lstm2
I0925 22:56:03.208943 15711 net.cpp:91] Creating Layer lstm2
I0925 22:56:03.208952 15711 net.cpp:425] lstm2 <- lstm1_video_sequence
I0925 22:56:03.208961 15711 net.cpp:425] lstm2 <- cont_sentence_input_1_split_1
I0925 22:56:03.208974 15711 net.cpp:399] lstm2 -> lstm2
I0925 22:56:03.208989 15711 recurrent_layer.cpp:20] Initializing recurrent layer: assuming input batch contains 1 timesteps of 1 independent streams.
I0925 22:56:03.209370 15711 net.cpp:49] Initializing net from parameters: 
layer {
  name: "lstm2_"
  type: "Input"
  top: "x"
  top: "cont"
  input_param {
    shape {
      dim: 1
      dim: 1
      dim: 1501
    }
    shape {
      dim: 1
      dim: 1
    }
  }
}
layer {
  name: "lstm2_"
  type: "Input"
  top: "c_0"
  top: "h_0"
  input_param {
    shape {
      dim: 1
      dim: 1
      dim: 1000
    }
    shape {
      dim: 1
      dim: 1
      dim: 1000
    }
  }
}
layer {
  name: "lstm2_cont_slice"
  type: "Slice"
  bottom: "cont"
  top: "cont_1"
  slice_param {
    axis: 0
  }
}
layer {
  name: "lstm2_x_transform"
  type: "InnerProduct"
  bottom: "x"
  top: "W_xc_x"
  param {
    name: "W_xc"
  }
  param {
    name: "b_c"
  }
  propagate_down: true
  inner_product_param {
    num_output: 4000
    bias_term: true
    weight_filler {
      type: "uniform"
      min: -0.08
      max: 0.08
    }
    bias_filler {
      type: "constant"
      value: 0
    }
    axis: 2
  }
}
layer {
  name: "lstm2_W_xc_x_slice"
  type: "Slice"
  bottom: "W_xc_x"
  top: "W_xc_x_1"
  slice_param {
    axis: 0
  }
}
layer {
  name: "lstm2_h_conted_0"
  type: "Scale"
  bottom: "h_0"
  bottom: "cont_1"
  top: "h_conted_0"
  scale_param {
    axis: 0
  }
}
layer {
  name: "lstm2_transform_1"
  type: "InnerProduct"
  bottom: "h_conted_0"
  top: "W_hc_h_0"
  param {
    name: "W_hc"
  }
  inner_product_param {
    num_output: 4000
    bias_term: false
    weight_filler {
      type: "uniform"
      min: -0.08
      max: 0.08
    }
    axis: 2
  }
}
layer {
  name: "lstm2_gate_input_1"
  type: "Eltwise"
  bottom: "W_hc_h_0"
  bottom: "W_xc_x_1"
  top: "gate_input_1"
  eltwise_param {
    operation: SUM
  }
}
layer {
  name: "lstm2_unit_1"
  type: "LSTMUnit"
  bottom: "c_0"
  bottom: "gate_input_1"
  bottom: "cont_1"
  top: "c_1"
  top: "h_1"
}
layer {
  name: "lstm2_"
  type: "Split"
  bottom: "c_1"
  top: "c_T"
}
layer {
  name: "lstm2_h_concat"
  type: "Concat"
  bottom: "h_1"
  top: "h"
  concat_param {
    axis: 0
  }
}
layer {
  name: "h_pseudoloss"
  type: "Reduction"
  bottom: "h"
  top: "h_pseudoloss"
  loss_weight: 1
}
I0925 22:56:03.209498 15711 layer_factory.hpp:77] Creating layer lstm2_
I0925 22:56:03.209516 15711 net.cpp:91] Creating Layer lstm2_
I0925 22:56:03.209525 15711 net.cpp:399] lstm2_ -> x
I0925 22:56:03.209543 15711 net.cpp:399] lstm2_ -> cont
I0925 22:56:03.209627 15711 net.cpp:141] Setting up lstm2_
I0925 22:56:03.209642 15711 net.cpp:148] Top shape: 1 1 1501 (1501)
I0925 22:56:03.209653 15711 net.cpp:148] Top shape: 1 1 (1)
I0925 22:56:03.209659 15711 net.cpp:156] Memory required for data: 6008
I0925 22:56:03.209666 15711 layer_factory.hpp:77] Creating layer lstm2_
I0925 22:56:03.209681 15711 net.cpp:91] Creating Layer lstm2_
I0925 22:56:03.209695 15711 net.cpp:399] lstm2_ -> c_0
I0925 22:56:03.209712 15711 net.cpp:399] lstm2_ -> h_0
I0925 22:56:03.209786 15711 net.cpp:141] Setting up lstm2_
I0925 22:56:03.209800 15711 net.cpp:148] Top shape: 1 1 1000 (1000)
I0925 22:56:03.209810 15711 net.cpp:148] Top shape: 1 1 1000 (1000)
I0925 22:56:03.209817 15711 net.cpp:156] Memory required for data: 14008
I0925 22:56:03.209825 15711 layer_factory.hpp:77] Creating layer lstm2_cont_slice
I0925 22:56:03.209837 15711 net.cpp:91] Creating Layer lstm2_cont_slice
I0925 22:56:03.209846 15711 net.cpp:425] lstm2_cont_slice <- cont
I0925 22:56:03.209856 15711 net.cpp:399] lstm2_cont_slice -> cont_1
I0925 22:56:03.209911 15711 net.cpp:141] Setting up lstm2_cont_slice
I0925 22:56:03.209925 15711 net.cpp:148] Top shape: 1 1 (1)
I0925 22:56:03.209931 15711 net.cpp:156] Memory required for data: 14012
I0925 22:56:03.209939 15711 layer_factory.hpp:77] Creating layer cont_1_lstm2_cont_slice_0_split
I0925 22:56:03.209954 15711 net.cpp:91] Creating Layer cont_1_lstm2_cont_slice_0_split
I0925 22:56:03.209962 15711 net.cpp:425] cont_1_lstm2_cont_slice_0_split <- cont_1
I0925 22:56:03.209975 15711 net.cpp:399] cont_1_lstm2_cont_slice_0_split -> cont_1_lstm2_cont_slice_0_split_0
I0925 22:56:03.209987 15711 net.cpp:399] cont_1_lstm2_cont_slice_0_split -> cont_1_lstm2_cont_slice_0_split_1
I0925 22:56:03.210065 15711 net.cpp:141] Setting up cont_1_lstm2_cont_slice_0_split
I0925 22:56:03.210081 15711 net.cpp:148] Top shape: 1 1 (1)
I0925 22:56:03.210091 15711 net.cpp:148] Top shape: 1 1 (1)
I0925 22:56:03.210098 15711 net.cpp:156] Memory required for data: 14020
I0925 22:56:03.210106 15711 layer_factory.hpp:77] Creating layer lstm2_x_transform
I0925 22:56:03.210124 15711 net.cpp:91] Creating Layer lstm2_x_transform
I0925 22:56:03.210134 15711 net.cpp:425] lstm2_x_transform <- x
I0925 22:56:03.210146 15711 net.cpp:399] lstm2_x_transform -> W_xc_x
I0925 22:56:03.221174 15721 net.cpp:141] Setting up lstm1_x_transform
I0925 22:56:03.221228 15721 net.cpp:148] Top shape: 1 1 4000 (4000)
I0925 22:56:03.221241 15721 net.cpp:156] Memory required for data: 26016
I0925 22:56:03.221276 15721 layer_factory.hpp:77] Creating layer lstm1_W_xc_x_slice
I0925 22:56:03.221307 15721 net.cpp:91] Creating Layer lstm1_W_xc_x_slice
I0925 22:56:03.221321 15721 net.cpp:425] lstm1_W_xc_x_slice <- W_xc_x
I0925 22:56:03.221338 15721 net.cpp:399] lstm1_W_xc_x_slice -> W_xc_x_1
I0925 22:56:03.221429 15721 net.cpp:141] Setting up lstm1_W_xc_x_slice
I0925 22:56:03.221448 15721 net.cpp:148] Top shape: 1 1 4000 (4000)
I0925 22:56:03.221457 15721 net.cpp:156] Memory required for data: 42016
I0925 22:56:03.221467 15721 layer_factory.hpp:77] Creating layer lstm1_h_conted_0
I0925 22:56:03.221490 15721 net.cpp:91] Creating Layer lstm1_h_conted_0
I0925 22:56:03.221503 15721 net.cpp:425] lstm1_h_conted_0 <- h_0
I0925 22:56:03.221514 15721 net.cpp:425] lstm1_h_conted_0 <- cont_1_lstm1_cont_slice_0_split_0
I0925 22:56:03.221529 15721 net.cpp:399] lstm1_h_conted_0 -> h_conted_0
I0925 22:56:03.221727 15721 net.cpp:141] Setting up lstm1_h_conted_0
I0925 22:56:03.221746 15721 net.cpp:148] Top shape: 1 1 1000 (1000)
I0925 22:56:03.221755 15721 net.cpp:156] Memory required for data: 46016
I0925 22:56:03.221765 15721 layer_factory.hpp:77] Creating layer lstm1_transform_1
I0925 22:56:03.221784 15721 net.cpp:91] Creating Layer lstm1_transform_1
…
I0925 22:57:41.689731 16142 net.cpp:148] Top shape: 1 1 1000 (1000)
I0925 22:57:41.689738 16142 net.cpp:148] Top shape: 1 1 1000 (1000)
I0925 22:57:41.689743 16142 net.cpp:156] Memory required for data: 90020
I0925 22:57:41.689749 16142 layer_factory.hpp:77] Creating layer lstm2_
I0925 22:57:41.689757 16142 net.cpp:91] Creating Layer lstm2_
I0925 22:57:41.689764 16142 net.cpp:425] lstm2_ <- c_1
I0925 22:57:41.689771 16142 net.cpp:399] lstm2_ -> c_T
I0925 22:57:41.689774 16136 net.cpp:141] Setting up lstm2_h_concat
I0925 22:57:41.689796 16136 net.cpp:148] Top shape: 1 1 1000 (1000)
I0925 22:57:41.689805 16136 net.cpp:156] Memory required for data: 98020
I0925 22:57:41.689815 16136 layer_factory.hpp:77] Creating layer h_pseudoloss
I0925 22:57:41.689827 16142 net.cpp:141] Setting up lstm2_
I0925 22:57:41.689831 16136 net.cpp:91] Creating Layer h_pseudoloss
I0925 22:57:41.689870 16138 net.cpp:141] Setting up lstm2_
I0925 22:57:41.689877 16136 net.cpp:425] h_pseudoloss <- h
I0925 22:57:41.689890 16138 net.cpp:148] Top shape: 1 1 1000 (1000)
I0925 22:57:41.689893 16136 net.cpp:399] h_pseudoloss -> h_pseudoloss
I0925 22:57:41.689904 16138 net.cpp:148] Top shape: 1 1 1000 (1000)
I0925 22:57:41.689904 16142 net.cpp:148] Top shape: 1 1 1000 (1000)
I0925 22:57:41.689929 16138 net.cpp:156] Memory required for data: 14008
I0925 22:57:41.689939 16142 net.cpp:156] Memory required for data: 94020
I0925 22:57:41.689940 16138 layer_factory.hpp:77] Creating layer lstm2_cont_slice
I0925 22:57:41.689961 16142 layer_factory.hpp:77] Creating layer lstm2_h_concat
I0925 22:57:41.689973 16138 net.cpp:91] Creating Layer lstm2_cont_slice
I0925 22:57:41.689975 16142 net.cpp:91] Creating Layer lstm2_h_concat
I0925 22:57:41.689996 16138 net.cpp:425] lstm2_cont_slice <- cont
I0925 22:57:41.689998 16142 net.cpp:425] lstm2_h_concat <- h_1
I0925 22:57:41.690033 16150 net.cpp:141] Setting up lstm2_unit_1
I0925 22:57:41.690026 16138 net.cpp:399] lstm2_cont_slice -> cont_1
I0925 22:57:41.690026 16142 net.cpp:399] lstm2_h_concat -> h
I0925 22:57:41.690065 16150 net.cpp:148] Top shape: 1 1 1000 (1000)
I0925 22:57:41.690083 16150 net.cpp:148] Top shape: 1 1 1000 (1000)
I0925 22:57:41.690091 16150 net.cpp:156] Memory required for data: 90020
I0925 22:57:41.690100 16150 layer_factory.hpp:77] Creating layer lstm2_
I0925 22:57:41.690114 16150 net.cpp:91] Creating Layer lstm2_
I0925 22:57:41.690126 16150 net.cpp:425] lstm2_ <- c_1
I0925 22:57:41.690131 16138 net.cpp:141] Setting up lstm2_cont_slice
I0925 22:57:41.690140 16150 net.cpp:399] lstm2_ -> c_T
I0925 22:57:41.690155 16138 net.cpp:148] Top shape: 1 1 (1)
I0925 22:57:41.690165 16138 net.cpp:156] Memory required for data: 14012
I0925 22:57:41.690172 16142 net.cpp:141] Setting up lstm2_h_concat
I0925 22:57:41.690174 16138 layer_factory.hpp:77] Creating layer cont_1_lstm2_cont_slice_0_split
I0925 22:57:41.690201 16142 net.cpp:148] Top shape: 1 1 1000 (1000)
I0925 22:57:41.690208 16138 net.cpp:91] Creating Layer cont_1_lstm2_cont_slice_0_split
I0925 22:57:41.690209 16142 net.cpp:156] Memory required for data: 98020
I0925 22:57:41.690225 16138 net.cpp:425] cont_1_lstm2_cont_slice_0_split <- cont_1
I0925 22:57:41.690229 16142 layer_factory.hpp:77] Creating layer h_pseudoloss
I0925 22:57:41.690225 16150 net.cpp:141] Setting up lstm2_
I0925 22:57:41.690259 16142 net.cpp:91] Creating Layer h_pseudoloss
I0925 22:57:41.690263 16138 net.cpp:399] cont_1_lstm2_cont_slice_0_split -> cont_1_lstm2_cont_slice_0_split_0
I0925 22:57:41.690268 16150 net.cpp:148] Top shape: 1 1 1000 (1000)
I0925 22:57:41.690282 16138 net.cpp:399] cont_1_lstm2_cont_slice_0_split -> cont_1_lstm2_cont_slice_0_split_1
I0925 22:57:41.690270 16142 net.cpp:425] h_pseudoloss <- h
I0925 22:57:41.690292 16150 net.cpp:156] Memory required for data: 94020
I0925 22:57:41.690300 16150 layer_factory.hpp:77] Creating layer lstm2_h_concat
I0925 22:57:41.690301 16142 net.cpp:399] h_pseudoloss -> h_pseudoloss
I0925 22:57:41.690310 16150 net.cpp:91] Creating Layer lstm2_h_concat
I0925 22:57:41.690316 16150 net.cpp:425] lstm2_h_concat <- h_1
I0925 22:57:41.690330 16150 net.cpp:399] lstm2_h_concat -> h
I0925 22:57:41.690359 16136 net.cpp:141] Setting up h_pseudoloss
I0925 22:57:41.690379 16136 net.cpp:148] Top shape: (1)
I0925 22:57:41.690387 16150 net.cpp:141] Setting up lstm2_h_concat
I0925 22:57:41.690397 16150 net.cpp:148] Top shape: 1 1 1000 (1000)
I0925 22:57:41.690402 16150 net.cpp:156] Memory required for data: 98020
I0925 22:57:41.690389 16136 net.cpp:151]     with loss weight 1
I0925 22:57:41.690409 16150 layer_factory.hpp:77] Creating layer h_pseudoloss
I0925 22:57:41.690433 16136 net.cpp:156] Memory required for data: 98024
I0925 22:57:41.690446 16136 net.cpp:217] h_pseudoloss needs backward computation.
I0925 22:57:41.690455 16150 net.cpp:91] Creating Layer h_pseudoloss
I0925 22:57:41.690459 16136 net.cpp:217] lstm2_h_concat needs backward computation.
I0925 22:57:41.690490 16150 net.cpp:425] h_pseudoloss <- h
I0925 22:57:41.690510 16136 net.cpp:219] lstm2_ does not need backward computation.
I0925 22:57:41.690524 16136 net.cpp:217] lstm2_unit_1 needs backward computation.
I0925 22:57:41.690529 16150 net.cpp:399] h_pseudoloss -> h_pseudoloss
I0925 22:57:41.690538 16136 net.cpp:217] lstm2_gate_input_1 needs backward computation.
I0925 22:57:41.690536 16138 net.cpp:141] Setting up cont_1_lstm2_cont_slice_0_split
I0925 22:57:41.690557 16136 net.cpp:217] lstm2_transform_1 needs backward computation.
I0925 22:57:41.690568 16138 net.cpp:148] Top shape: 1 1 (1)
I0925 22:57:41.690572 16136 net.cpp:219] lstm2_h_conted_0 does not need backward computation.
I0925 22:57:41.690582 16138 net.cpp:148] Top shape: 1 1 (1)
I0925 22:57:41.690585 16136 net.cpp:217] lstm2_W_xc_x_slice needs backward computation.
I0925 22:57:41.690593 16138 net.cpp:156] Memory required for data: 14020
I0925 22:57:41.690610 16142 net.cpp:141] Setting up h_pseudoloss
I0925 22:57:41.690618 16138 layer_factory.hpp:77] Creating layer lstm2_x_transform
I0925 22:57:41.690628 16142 net.cpp:148] Top shape: (1)
I0925 22:57:41.690635 16142 net.cpp:151]     with loss weight 1
…
I0925 22:57:41.691422 16150 net.cpp:219] lstm2_ does not need backward computation.
I0925 22:57:41.691426 16150 net.cpp:261] This network produces output c_T
I0925 22:57:41.691432 16150 net.cpp:261] This network produces output h_pseudoloss
I0925 22:57:41.691452 16150 net.cpp:274] Network initialization done.
I0925 22:57:41.691500 16150 recurrent_layer.cpp:150] Adding parameter 0: W_xc
I0925 22:57:41.691506 16150 recurrent_layer.cpp:150] Adding parameter 1: b_c
I0925 22:57:41.691511 16150 recurrent_layer.cpp:150] Adding parameter 2: W_hc
I0925 22:57:41.696112 16154 net.cpp:141] Setting up lstm1_transform_1
I0925 22:57:41.696154 16154 net.cpp:148] Top shape: 1 1 4000 (4000)
I0925 22:57:41.696166 16154 net.cpp:156] Memory required for data: 62016
I0925 22:57:41.696190 16154 layer_factory.hpp:77] Creating layer lstm1_gate_input_1
I0925 22:57:41.696220 16154 net.cpp:91] Creating Layer lstm1_gate_input_1
I0925 22:57:41.696234 16154 net.cpp:425] lstm1_gate_input_1 <- W_hc_h_0
I0925 22:57:41.696245 16154 net.cpp:425] lstm1_gate_input_1 <- W_xc_x_1
I0925 22:57:41.696256 16154 net.cpp:399] lstm1_gate_input_1 -> gate_input_1
I0925 22:57:41.696286 16142 net.cpp:141] Setting up lstm2
I0925 22:57:41.696310 16142 net.cpp:148] Top shape: 1 1 1000 (1000)
I0925 22:57:41.696316 16142 net.cpp:156] Memory required for data: 36412
I0925 22:57:41.696332 16142 layer_factory.hpp:77] Creating layer predict
I0925 22:57:41.696346 16142 net.cpp:91] Creating Layer predict
I0925 22:57:41.696343 16154 net.cpp:141] Setting up lstm1_gate_input_1
I0925 22:57:41.696352 16142 net.cpp:425] predict <- lstm2
I0925 22:57:41.696362 16154 net.cpp:148] Top shape: 1 1 4000 (4000)
I0925 22:57:41.696368 16154 net.cpp:156] Memory required for data: 78016
I0925 22:57:41.696369 16142 net.cpp:399] predict -> predict
I0925 22:57:41.696374 16154 layer_factory.hpp:77] Creating layer lstm1_unit_1
I0925 22:57:41.696386 16154 net.cpp:91] Creating Layer lstm1_unit_1
I0925 22:57:41.696393 16154 net.cpp:425] lstm1_unit_1 <- c_0
I0925 22:57:41.696400 16154 net.cpp:425] lstm1_unit_1 <- gate_input_1
I0925 22:57:41.696413 16154 net.cpp:425] lstm1_unit_1 <- cont_1_lstm1_cont_slice_0_split_1
I0925 22:57:41.696429 16154 net.cpp:399] lstm1_unit_1 -> c_1
I0925 22:57:41.696441 16154 net.cpp:399] lstm1_unit_1 -> h_1
I0925 22:57:41.696463 16136 net.cpp:141] Setting up lstm2
I0925 22:57:41.696485 16136 net.cpp:148] Top shape: 1 1 1000 (1000)
I0925 22:57:41.696491 16136 net.cpp:156] Memory required for data: 36412
I0925 22:57:41.696507 16136 layer_factory.hpp:77] Creating layer predict
I0925 22:57:41.696519 16136 net.cpp:91] Creating Layer predict
I0925 22:57:41.696527 16136 net.cpp:425] predict <- lstm2
I0925 22:57:41.696535 16136 net.cpp:399] predict -> predict
I0925 22:57:41.696576 16154 net.cpp:141] Setting up lstm1_unit_1
I0925 22:57:41.696596 16154 net.cpp:148] Top shape: 1 1 1000 (1000)
I0925 22:57:41.696606 16154 net.cpp:148] Top shape: 1 1 1000 (1000)
I0925 22:57:41.696611 16154 net.cpp:156] Memory required for data: 86016
I0925 22:57:41.696617 16154 layer_factory.hpp:77] Creating layer lstm1_
I0925 22:57:41.696627 16154 net.cpp:91] Creating Layer lstm1_
I0925 22:57:41.696633 16154 net.cpp:425] lstm1_ <- c_1
I0925 22:57:41.696643 16154 net.cpp:399] lstm1_ -> c_T
I0925 22:57:41.786766 16150 net.cpp:141] Setting up lstm2
I0925 22:57:41.786818 16150 net.cpp:148] Top shape: 1 1 1000 (1000)
I0925 22:57:41.786824 16150 net.cpp:156] Memory required for data: 36412
I0925 22:57:41.786849 16150 layer_factory.hpp:77] Creating layer predict
I0925 22:57:41.786873 16150 net.cpp:91] Creating Layer predict
I0925 22:57:41.786864 16154 net.cpp:141] Setting up lstm1_
I0925 22:57:41.786882 16150 net.cpp:425] predict <- lstm2
I0925 22:57:41.786914 16154 net.cpp:148] Top shape: 1 1 1000 (1000)
I0925 22:57:41.786921 16150 net.cpp:399] predict -> predict
I0925 22:57:41.786924 16154 net.cpp:156] Memory required for data: 90016
I0925 22:57:41.786934 16154 layer_factory.hpp:77] Creating layer lstm1_h_concat
I0925 22:57:41.786954 16154 net.cpp:91] Creating Layer lstm1_h_concat
I0925 22:57:41.786968 16154 net.cpp:425] lstm1_h_concat <- h_1
I0925 22:57:41.786993 16154 net.cpp:399] lstm1_h_concat -> h
I0925 22:57:41.875924 16170 net.cpp:141] Setting up lstm2_transform_1
I0925 22:57:41.876446 16170 net.cpp:148] Top shape: 1 1 4000 (4000)
I0925 22:57:41.876464 16170 net.cpp:156] Memory required for data: 66020
I0925 22:57:41.876497 16170 layer_factory.hpp:77] Creating layer lstm2_gate_input_1
I0925 22:57:41.876533 16170 net.cpp:91] Creating Layer lstm2_gate_input_1
I0925 22:57:41.876546 16170 net.cpp:425] lstm2_gate_input_1 <- W_hc_h_0
I0925 22:57:41.876561 16170 net.cpp:425] lstm2_gate_input_1 <- W_xc_x_1
I0925 22:57:41.876576 16170 net.cpp:399] lstm2_gate_input_1 -> gate_input_1
I0925 22:57:41.896363 16154 net.cpp:141] Setting up lstm1_h_concat
I0925 22:57:41.896420 16154 net.cpp:148] Top shape: 1 1 1000 (1000)
I0925 22:57:41.896426 16154 net.cpp:156] Memory required for data: 94016
I0925 22:57:41.896436 16154 layer_factory.hpp:77] Creating layer h_pseudoloss
I0925 22:57:41.896469 16154 net.cpp:91] Creating Layer h_pseudoloss
I0925 22:57:41.896481 16154 net.cpp:425] h_pseudoloss <- h
I0925 22:57:41.896494 16154 net.cpp:399] h_pseudoloss -> h_pseudoloss
I0925 22:57:41.896600 16180 net.cpp:141] Setting up lstm2_x_transform
I0925 22:57:41.896626 16180 net.cpp:148] Top shape: 1 1 4000 (4000)
I0925 22:57:41.896637 16180 net.cpp:156] Memory required for data: 30020
I0925 22:57:41.896663 16180 layer_factory.hpp:77] Creating layer lstm2_W_xc_x_slice
I0925 22:57:41.896682 16180 net.cpp:91] Creating Layer lstm2_W_xc_x_slice
I0925 22:57:41.896693 16180 net.cpp:425] lstm2_W_xc_x_slice <- W_xc_x
I0925 22:57:41.896708 16180 net.cpp:399] lstm2_W_xc_x_slice -> W_xc_x_1
I0925 22:57:41.900265 16154 net.cpp:141] Setting up h_pseudoloss
…
I0925 22:57:41.900394 16154 net.cpp:219] lstm1_ does not need backward computation.
I0925 22:57:41.900398 16154 net.cpp:261] This network produces output c_T
I0925 22:57:41.900405 16154 net.cpp:261] This network produces output h_pseudoloss
I0925 22:57:41.900429 16154 net.cpp:274] Network initialization done.
I0925 22:57:41.900495 16154 recurrent_layer.cpp:150] Adding parameter 0: W_xc
I0925 22:57:41.900502 16154 recurrent_layer.cpp:150] Adding parameter 1: b_c
I0925 22:57:41.900507 16154 recurrent_layer.cpp:150] Adding parameter 2: W_hc
I0925 22:57:41.989176 16180 net.cpp:141] Setting up lstm2_W_xc_x_slice
I0925 22:57:41.989239 16180 net.cpp:148] Top shape: 1 1 4000 (4000)
I0925 22:57:41.989241 16170 net.cpp:141] Setting up lstm2_gate_input_1
I0925 22:57:41.989248 16180 net.cpp:156] Memory required for data: 46020
I0925 22:57:41.989270 16170 net.cpp:148] Top shape: 1 1 4000 (4000)
I0925 22:57:41.989274 16180 layer_factory.hpp:77] Creating layer lstm2_h_conted_0
I0925 22:57:41.989281 16170 net.cpp:156] Memory required for data: 82020
I0925 22:57:41.989291 16170 layer_factory.hpp:77] Creating layer lstm2_unit_1
I0925 22:57:41.989300 16180 net.cpp:91] Creating Layer lstm2_h_conted_0
I0925 22:57:41.989310 16180 net.cpp:425] lstm2_h_conted_0 <- h_0
I0925 22:57:41.989307 16170 net.cpp:91] Creating Layer lstm2_unit_1
I0925 22:57:41.989328 16180 net.cpp:425] lstm2_h_conted_0 <- cont_1_lstm2_cont_slice_0_split_0
I0925 22:57:41.989332 16170 net.cpp:425] lstm2_unit_1 <- c_0
I0925 22:57:41.989339 16180 net.cpp:399] lstm2_h_conted_0 -> h_conted_0
I0925 22:57:41.989346 16170 net.cpp:425] lstm2_unit_1 <- gate_input_1
I0925 22:57:41.989357 16170 net.cpp:425] lstm2_unit_1 <- cont_1_lstm2_cont_slice_0_split_1
I0925 22:57:41.989377 16170 net.cpp:399] lstm2_unit_1 -> c_1
I0925 22:57:41.989395 16170 net.cpp:399] lstm2_unit_1 -> h_1
I0925 22:57:41.989706 16154 net.cpp:141] Setting up lstm1
I0925 22:57:41.989727 16154 net.cpp:148] Top shape: 1 1 1000 (1000)
I0925 22:57:41.989734 16154 net.cpp:156] Memory required for data: 26408
I0925 22:57:41.989758 16154 layer_factory.hpp:77] Creating layer concat
I0925 22:57:41.989771 16154 net.cpp:91] Creating Layer concat
I0925 22:57:41.989779 16154 net.cpp:425] concat <- lstm1
I0925 22:57:41.989789 16154 net.cpp:425] concat <- embedded_input_sentence
I0925 22:57:41.989795 16154 net.cpp:425] concat <- reshaped_stage_indicator
I0925 22:57:41.989804 16154 net.cpp:399] concat -> lstm1_video_sequence
I0925 22:57:41.989882 16180 net.cpp:141] Setting up lstm2_h_conted_0
I0925 22:57:41.989897 16180 net.cpp:148] Top shape: 1 1 1000 (1000)
I0925 22:57:41.989902 16180 net.cpp:156] Memory required for data: 50020
I0925 22:57:41.989908 16180 layer_factory.hpp:77] Creating layer lstm2_transform_1
I0925 22:57:41.989924 16180 net.cpp:91] Creating Layer lstm2_transform_1
I0925 22:57:41.989930 16180 net.cpp:425] lstm2_transform_1 <- h_conted_0
I0925 22:57:41.989940 16180 net.cpp:399] lstm2_transform_1 -> W_hc_h_0
I0925 22:57:41.990049 16138 net.cpp:141] Setting up lstm2_x_transform
I0925 22:57:41.990098 16138 net.cpp:148] Top shape: 1 1 4000 (4000)
I0925 22:57:41.990108 16138 net.cpp:156] Memory required for data: 30020
I0925 22:57:41.990109 16170 net.cpp:141] Setting up lstm2_unit_1
I0925 22:57:41.990130 16170 net.cpp:148] Top shape: 1 1 1000 (1000)
I0925 22:57:41.990137 16138 layer_factory.hpp:77] Creating layer lstm2_W_xc_x_slice
I0925 22:57:41.990144 16170 net.cpp:148] Top shape: 1 1 1000 (1000)
I0925 22:57:41.990149 16154 net.cpp:141] Setting up concat
I0925 22:57:41.990160 16138 net.cpp:91] Creating Layer lstm2_W_xc_x_slice
I0925 22:57:41.990169 16154 net.cpp:148] Top shape: 1 1 1501 (1501)
I0925 22:57:41.990175 16154 net.cpp:156] Memory required for data: 32412
I0925 22:57:41.990178 16138 net.cpp:425] lstm2_W_xc_x_slice <- W_xc_x
I0925 22:57:41.990152 16170 net.cpp:156] Memory required for data: 90020
I0925 22:57:41.990185 16154 layer_factory.hpp:77] Creating layer lstm2
I0925 22:57:41.990192 16170 layer_factory.hpp:77] Creating layer lstm2_
I0925 22:57:41.990202 16154 net.cpp:91] Creating Layer lstm2
…
I0925 22:57:41.990248 16154 recurrent_layer.cpp:20] Initializing recurrent layer: assuming input batch contains 1 timesteps of 1 independent streams.
I0925 22:57:41.997464 16154 net.cpp:49] Initializing net from parameters: 
layer {
  name: "lstm2_"
  type: "Input"
  top: "x"
  top: "cont"
  input_param {
    shape {
      dim: 1
      dim: 1
      dim: 1501
    }
    shape {
      dim: 1
      dim: 1
    }
  }
}
layer {
  name: "lstm2_"
  type: "Input"
  top: "c_0"
  top: "h_0"
  input_param {
    shape {
      dim: 1
      dim: 1
      dim: 1000
    }
    shape {
      dim: 1
      dim: 1
      dim: 1000
    }
  }
}
layer {
  name: "lstm2_cont_slice"
  type: "Slice"
  bottom: "cont"
  top: "cont_1"
  slice_param {
    axis: 0
  }
}
layer {
  name: "lstm2_x_transform"
  type: "InnerProduct"
  bottom: "x"
  top: "W_xc_x"
  param {
    name: "W_xc"
  }
  param {
    name: "b_c"
  }
  propagate_down: true
  inner_product_param {
    num_output: 4000
    bias_term: true
    weight_filler {
      type: "uniform"
      min: -0.08
      max: 0.08
    }
    bias_filler {
      type: "constant"
      value: 0
    }
    axis: 2
  }
}
layer {
  name: "lstm2_W_xc_x_slice"
  type: "Slice"
  bottom: "W_xc_x"
  top: "W_xc_x_1"
  slice_param {
    axis: 0
  }
}
layer {
  name: "lstm2_h_conted_0"
  type: "Scale"
  bottom: "h_0"
  bottom: "cont_1"
  top: "h_conted_0"
  scale_param {
    axis: 0
  }
}
layer {
  name: "lstm2_transform_1"
  type: "InnerProduct"
  bottom: "h_conted_0"
  top: "W_hc_h_0"
  param {
    name: "W_hc"
  }
  inner_product_param {
    num_output: 4000
    bias_term: false
    weight_filler {
      type: "uniform"
      min: -0.08
      max: 0.08
    }
    axis: 2
  }
}
layer {
  name: "lstm2_gate_input_1"
  type: "Eltwise"
  bottom: "W_hc_h_0"
  bottom: "W_xc_x_1"
  top: "gate_input_1"
  eltwise_param {
    operation: SUM
  }
}
layer {
  name: "lstm2_unit_1"
  type: "LSTMUnit"
  bottom: "c_0"
  bottom: "gate_input_1"
  bottom: "cont_1"
  top: "c_1"
  top: "h_1"
}
layer {
  name: "lstm2_"
  type: "Split"
  bottom: "c_1"
  top: "c_T"
}
layer {
  name: "lstm2_h_concat"
  type: "Concat"
  bottom: "h_1"
  top: "h"
  concat_param {
    axis: 0
  }
}
layer {
  name: "h_pseudoloss"
  type: "Reduction"
  bottom: "h"
  top: "h_pseudoloss"
  loss_weight: 1
}
I0925 22:57:41.997705 16154 layer_factory.hpp:77] Creating layer lstm2_
I0925 22:57:41.997727 16154 net.cpp:91] Creating Layer lstm2_
I0925 22:57:41.997736 16154 net.cpp:399] lstm2_ -> x
I0925 22:57:41.997759 16154 net.cpp:399] lstm2_ -> cont
I0925 22:57:41.998670 16138 net.cpp:141] Setting up lstm2_W_xc_x_slice
I0925 22:57:41.998718 16138 net.cpp:148] Top shape: 1 1 4000 (4000)
I0925 22:57:41.998728 16138 net.cpp:156] Memory required for data: 46020
I0925 22:57:41.998739 16138 layer_factory.hpp:77] Creating layer lstm2_h_conted_0
I0925 22:57:41.998764 16138 net.cpp:91] Creating Layer lstm2_h_conted_0
I0925 22:57:41.998775 16138 net.cpp:425] lstm2_h_conted_0 <- h_0
I0925 22:57:41.998777 16170 net.cpp:141] Setting up lstm2_
I0925 22:57:41.998790 16138 net.cpp:425] lstm2_h_conted_0 <- cont_1_lstm2_cont_slice_0_split_0
I0925 22:57:41.998803 16170 net.cpp:148] Top shape: 1 1 1000 (1000)
I0925 22:57:41.998814 16170 net.cpp:156] Memory required for data: 94020
I0925 22:57:41.998816 16138 net.cpp:399] lstm2_h_conted_0 -> h_conted_0
I0925 22:57:41.998826 16170 layer_factory.hpp:77] Creating layer lstm2_h_concat
I0925 22:57:41.998838 16154 net.cpp:141] Setting up lstm2_
I0925 22:57:41.998843 16170 net.cpp:91] Creating Layer lstm2_h_concat
I0925 22:57:41.998853 16154 net.cpp:148] Top shape: 1 1 1501 (1501)
I0925 22:57:41.998854 16170 net.cpp:425] lstm2_h_concat <- h_1
I0925 22:57:41.998860 16154 net.cpp:148] Top shape: 1 1 (1)
I0925 22:57:41.998865 16154 net.cpp:156] Memory required for data: 6008
I0925 22:57:41.998869 16170 net.cpp:399] lstm2_h_concat -> h
I0925 22:57:41.998872 16154 layer_factory.hpp:77] Creating layer lstm2_
I0925 22:57:41.998894 16154 net.cpp:91] Creating Layer lstm2_
I0925 22:57:41.998909 16154 net.cpp:399] lstm2_ -> c_0
I0925 22:57:41.998924 16154 net.cpp:399] lstm2_ -> h_0
I0925 22:57:41.999061 16138 net.cpp:141] Setting up lstm2_h_conted_0
I0925 22:57:41.999079 16138 net.cpp:148] Top shape: 1 1 1000 (1000)
I0925 22:57:41.999088 16138 net.cpp:156] Memory required for data: 50020
I0925 22:57:41.999095 16138 layer_factory.hpp:77] Creating layer lstm2_transform_1
I0925 22:57:41.999116 16138 net.cpp:91] Creating Layer lstm2_transform_1
I0925 22:57:41.999125 16138 net.cpp:425] lstm2_transform_1 <- h_conted_0
I0925 22:57:41.999142 16138 net.cpp:399] lstm2_transform_1 -> W_hc_h_0
I0925 22:57:41.999182 16170 net.cpp:141] Setting up lstm2_h_concat
I0925 22:57:41.999202 16170 net.cpp:148] Top shape: 1 1 1000 (1000)
I0925 22:57:41.999210 16170 net.cpp:156] Memory required for data: 98020
I0925 22:57:41.999219 16170 layer_factory.hpp:77] Creating layer h_pseudoloss
I0925 22:57:41.999235 16170 net.cpp:91] Creating Layer h_pseudoloss
I0925 22:57:41.999244 16170 net.cpp:425] h_pseudoloss <- h
I0925 22:57:41.999258 16170 net.cpp:399] h_pseudoloss -> h_pseudoloss
I0925 22:57:41.999286 16154 net.cpp:141] Setting up lstm2_
I0925 22:57:41.999300 16154 net.cpp:148] Top shape: 1 1 1000 (1000)
I0925 22:57:41.999307 16154 net.cpp:148] Top shape: 1 1 1000 (1000)
I0925 22:57:41.999311 16154 net.cpp:156] Memory required for data: 14008
I0925 22:57:41.999317 16154 layer_factory.hpp:77] Creating layer lstm2_cont_slice
I0925 22:57:41.999336 16154 net.cpp:91] Creating Layer lstm2_cont_slice
I0925 22:57:41.999341 16154 net.cpp:425] lstm2_cont_slice <- cont
I0925 22:57:41.999351 16154 net.cpp:399] lstm2_cont_slice -> cont_1
I0925 22:57:41.999446 16170 net.cpp:141] Setting up h_pseudoloss
…
I0925 22:57:41.999639 16170 net.cpp:219] lstm2_ does not need backward computation.
I0925 22:57:41.999647 16170 net.cpp:261] This network produces output c_T
I0925 22:57:41.999656 16170 net.cpp:261] This network produces output h_pseudoloss
I0925 22:57:41.999685 16170 net.cpp:274] Network initialization done.
I0925 22:57:41.999760 16170 recurrent_layer.cpp:150] Adding parameter 0: W_xc
I0925 22:57:41.999773 16170 recurrent_layer.cpp:150] Adding parameter 1: b_c
I0925 22:57:41.999781 16170 recurrent_layer.cpp:150] Adding parameter 2: W_hc
I0925 22:57:42.007902 16154 net.cpp:141] Setting up lstm2_cont_slice
I0925 22:57:42.007959 16154 net.cpp:148] Top shape: 1 1 (1)
I0925 22:57:42.007972 16154 net.cpp:156] Memory required for data: 14012
I0925 22:57:42.007995 16154 layer_factory.hpp:77] Creating layer cont_1_lstm2_cont_slice_0_split
I0925 22:57:42.008025 16154 net.cpp:91] Creating Layer cont_1_lstm2_cont_slice_0_split
I0925 22:57:42.008039 16154 net.cpp:425] cont_1_lstm2_cont_slice_0_split <- cont_1
I0925 22:57:42.008080 16154 net.cpp:399] cont_1_lstm2_cont_slice_0_split -> cont_1_lstm2_cont_slice_0_split_0
I0925 22:57:42.008103 16154 net.cpp:399] cont_1_lstm2_cont_slice_0_split -> cont_1_lstm2_cont_slice_0_split_1
I0925 22:57:42.009944 16154 net.cpp:141] Setting up cont_1_lstm2_cont_slice_0_split
I0925 22:57:42.009996 16154 net.cpp:148] Top shape: 1 1 (1)
I0925 22:57:42.010012 16154 net.cpp:148] Top shape: 1 1 (1)
I0925 22:57:42.010021 16154 net.cpp:156] Memory required for data: 14020
I0925 22:57:42.010035 16154 layer_factory.hpp:77] Creating layer lstm2_x_transform
I0925 22:57:42.010073 16154 net.cpp:91] Creating Layer lstm2_x_transform
I0925 22:57:42.010087 16154 net.cpp:425] lstm2_x_transform <- x
I0925 22:57:42.010110 16154 net.cpp:399] lstm2_x_transform -> W_xc_x
I0925 22:57:42.010174 16170 net.cpp:141] Setting up lstm2
I0925 22:57:42.010191 16170 net.cpp:148] Top shape: 1 1 1000 (1000)
I0925 22:57:42.010200 16170 net.cpp:156] Memory required for data: 36412
I0925 22:57:42.010232 16170 layer_factory.hpp:77] Creating layer predict
I0925 22:57:42.010252 16170 net.cpp:91] Creating Layer predict
I0925 22:57:42.010264 16170 net.cpp:425] predict <- lstm2
I0925 22:57:42.010282 16170 net.cpp:399] predict -> predict
I0925 22:57:42.121147 16180 net.cpp:141] Setting up lstm2_transform_1
I0925 22:57:42.121204 16180 net.cpp:148] Top shape: 1 1 4000 (4000)
I0925 22:57:42.121212 16180 net.cpp:156] Memory required for data: 66020
I0925 22:57:42.121217 16138 net.cpp:141] Setting up lstm2_transform_1
I0925 22:57:42.121238 16180 layer_factory.hpp:77] Creating layer lstm2_gate_input_1
I0925 22:57:42.121239 16138 net.cpp:148] Top shape: 1 1 4000 (4000)
I0925 22:57:42.121256 16138 net.cpp:156] Memory required for data: 66020
I0925 22:57:42.121273 16138 layer_factory.hpp:77] Creating layer lstm2_gate_input_1
I0925 22:57:42.121270 16180 net.cpp:91] Creating Layer lstm2_gate_input_1
I0925 22:57:42.121296 16138 net.cpp:91] Creating Layer lstm2_gate_input_1
I0925 22:57:42.121296 16180 net.cpp:425] lstm2_gate_input_1 <- W_hc_h_0
I0925 22:57:42.121306 16138 net.cpp:425] lstm2_gate_input_1 <- W_hc_h_0
I0925 22:57:42.121310 16180 net.cpp:425] lstm2_gate_input_1 <- W_xc_x_1
I0925 22:57:42.121315 16138 net.cpp:425] lstm2_gate_input_1 <- W_xc_x_1
I0925 22:57:42.121322 16180 net.cpp:399] lstm2_gate_input_1 -> gate_input_1
I0925 22:57:42.121323 16138 net.cpp:399] lstm2_gate_input_1 -> gate_input_1
I0925 22:57:42.121484 16180 net.cpp:141] Setting up lstm2_gate_input_1
I0925 22:57:42.121497 16180 net.cpp:148] Top shape: 1 1 4000 (4000)
I0925 22:57:42.121502 16180 net.cpp:156] Memory required for data: 82020
I0925 22:57:42.121507 16180 layer_factory.hpp:77] Creating layer lstm2_unit_1
I0925 22:57:42.121521 16180 net.cpp:91] Creating Layer lstm2_unit_1
I0925 22:57:42.121527 16180 net.cpp:425] lstm2_unit_1 <- c_0
I0925 22:57:42.121528 16138 net.cpp:141] Setting up lstm2_gate_input_1
I0925 22:57:42.121536 16180 net.cpp:425] lstm2_unit_1 <- gate_input_1
I0925 22:57:42.121542 16180 net.cpp:425] lstm2_unit_1 <- cont_1_lstm2_cont_slice_0_split_1
I0925 22:57:42.121542 16138 net.cpp:148] Top shape: 1 1 4000 (4000)
I0925 22:57:42.121557 16180 net.cpp:399] lstm2_unit_1 -> c_1
I0925 22:57:42.121557 16138 net.cpp:156] Memory required for data: 82020
I0925 22:57:42.121570 16138 layer_factory.hpp:77] Creating layer lstm2_unit_1
I0925 22:57:42.121572 16180 net.cpp:399] lstm2_unit_1 -> h_1
I0925 22:57:42.121582 16138 net.cpp:91] Creating Layer lstm2_unit_1
I0925 22:57:42.121587 16138 net.cpp:425] lstm2_unit_1 <- c_0
I0925 22:57:42.121595 16138 net.cpp:425] lstm2_unit_1 <- gate_input_1
I0925 22:57:42.121601 16138 net.cpp:425] lstm2_unit_1 <- cont_1_lstm2_cont_slice_0_split_1
I0925 22:57:42.121613 16138 net.cpp:399] lstm2_unit_1 -> c_1
I0925 22:57:42.121624 16138 net.cpp:399] lstm2_unit_1 -> h_1
I0925 22:57:42.121645 16132 net.cpp:141] Setting up predict
I0925 22:57:42.121668 16132 net.cpp:148] Top shape: 1 1 46168 (46168)
I0925 22:57:42.121680 16132 net.cpp:156] Memory required for data: 221084
I0925 22:57:42.121698 16132 layer_factory.hpp:77] Creating layer probs
I0925 22:57:42.121717 16132 net.cpp:91] Creating Layer probs
I0925 22:57:42.121727 16132 net.cpp:425] probs <- predict
I0925 22:57:42.121731 16138 net.cpp:141] Setting up lstm2_unit_1
I0925 22:57:42.121742 16138 net.cpp:148] Top shape: 1 1 1000 (1000)
I0925 22:57:42.121743 16132 net.cpp:399] probs -> probs
I0925 22:57:42.121749 16138 net.cpp:148] Top shape: 1 1 1000 (1000)
I0925 22:57:42.121754 16138 net.cpp:156] Memory required for data: 90020
I0925 22:57:42.121760 16138 layer_factory.hpp:77] Creating layer lstm2_
I0925 22:57:42.121770 16138 net.cpp:91] Creating Layer lstm2_
I0925 22:57:42.121776 16138 net.cpp:425] lstm2_ <- c_1
I0925 22:57:42.121785 16138 net.cpp:399] lstm2_ -> c_T
I0925 22:57:42.121922 16138 net.cpp:141] Setting up lstm2_
I0925 22:57:42.121934 16138 net.cpp:148] Top shape: 1 1 1000 (1000)
I0925 22:57:42.121939 16138 net.cpp:156] Memory required for data: 94020
I0925 22:57:42.121945 16138 layer_factory.hpp:77] Creating layer lstm2_h_concat
I0925 22:57:42.121956 16138 net.cpp:91] Creating Layer lstm2_h_concat
I0925 22:57:42.121963 16138 net.cpp:425] lstm2_h_concat <- h_1
I0925 22:57:42.121971 16138 net.cpp:399] lstm2_h_concat -> h
I0925 22:57:42.122015 16154 net.cpp:141] Setting up lstm2_x_transform
I0925 22:57:42.122035 16154 net.cpp:148] Top shape: 1 1 4000 (4000)
I0925 22:57:42.122040 16180 net.cpp:141] Setting up lstm2_unit_1
I0925 22:57:42.122045 16154 net.cpp:156] Memory required for data: 30020
I0925 22:57:42.122061 16180 net.cpp:148] Top shape: 1 1 1000 (1000)
I0925 22:57:42.122067 16180 net.cpp:148] Top shape: 1 1 1000 (1000)
I0925 22:57:42.122072 16180 net.cpp:156] Memory required for data: 90020
I0925 22:57:42.122078 16180 layer_factory.hpp:77] Creating layer lstm2_
I0925 22:57:42.122081 16154 layer_factory.hpp:77] Creating layer lstm2_W_xc_x_slice
I0925 22:57:42.122087 16180 net.cpp:91] Creating Layer lstm2_
I0925 22:57:42.122093 16180 net.cpp:425] lstm2_ <- c_1
I0925 22:57:42.122097 16138 net.cpp:141] Setting up lstm2_h_concat
I0925 22:57:42.122102 16180 net.cpp:399] lstm2_ -> c_T
I0925 22:57:42.122100 16154 net.cpp:91] Creating Layer lstm2_W_xc_x_slice
I0925 22:57:42.122119 16138 net.cpp:148] Top shape: 1 1 1000 (1000)
I0925 22:57:42.122135 16138 net.cpp:156] Memory required for data: 98020
I0925 22:57:42.122136 16154 net.cpp:425] lstm2_W_xc_x_slice <- W_xc_x
I0925 22:57:42.122141 16138 layer_factory.hpp:77] Creating layer h_pseudoloss
I0925 22:57:42.122150 16154 net.cpp:399] lstm2_W_xc_x_slice -> W_xc_x_1
I0925 22:57:42.122154 16138 net.cpp:91] Creating Layer h_pseudoloss
I0925 22:57:42.122162 16180 net.cpp:141] Setting up lstm2_
I0925 22:57:42.122165 16138 net.cpp:425] h_pseudoloss <- h
I0925 22:57:42.122174 16180 net.cpp:148] Top shape: 1 1 1000 (1000)
I0925 22:57:42.122179 16180 net.cpp:156] Memory required for data: 94020
I0925 22:57:42.122179 16138 net.cpp:399] h_pseudoloss -> h_pseudoloss
I0925 22:57:42.122184 16180 layer_factory.hpp:77] Creating layer lstm2_h_concat
I0925 22:57:42.122197 16180 net.cpp:91] Creating Layer lstm2_h_concat
I0925 22:57:42.122203 16180 net.cpp:425] lstm2_h_concat <- h_1
I0925 22:57:42.122211 16180 net.cpp:399] lstm2_h_concat -> h
I0925 22:57:42.122227 16154 net.cpp:141] Setting up lstm2_W_xc_x_slice
I0925 22:57:42.122246 16154 net.cpp:148] Top shape: 1 1 4000 (4000)
I0925 22:57:42.122252 16154 net.cpp:156] Memory required for data: 46020
I0925 22:57:42.122258 16154 layer_factory.hpp:77] Creating layer lstm2_h_conted_0
I0925 22:57:42.122262 16180 net.cpp:141] Setting up lstm2_h_concat
I0925 22:57:42.122273 16180 net.cpp:148] Top shape: 1 1 1000 (1000)
I0925 22:57:42.122277 16154 net.cpp:91] Creating Layer lstm2_h_conted_0
I0925 22:57:42.122278 16180 net.cpp:156] Memory required for data: 98020
I0925 22:57:42.122283 16154 net.cpp:425] lstm2_h_conted_0 <- h_0
I0925 22:57:42.122284 16180 layer_factory.hpp:77] Creating layer h_pseudoloss
I0925 22:57:42.122297 16154 net.cpp:425] lstm2_h_conted_0 <- cont_1_lstm2_cont_slice_0_split_0
I0925 22:57:42.122303 16180 net.cpp:91] Creating Layer h_pseudoloss
…
I0925 22:57:42.122665 16180 net.cpp:219] lstm2_h_conted_0 does not need backward computation.
I0925 22:57:42.122673 16180 net.cpp:217] lstm2_W_xc_x_slice needs backward computation.
I0925 22:57:42.122678 16180 net.cpp:217] lstm2_x_transform needs backward computation.
I0925 22:57:42.122679 16138 recurrent_layer.cpp:150] Adding parameter 0: W_xc
I0925 22:57:42.122685 16154 net.cpp:141] Setting up lstm2_h_conted_0
I0925 22:57:42.122697 16138 recurrent_layer.cpp:150] Adding parameter 1: b_c
I0925 22:57:42.122684 16180 net.cpp:219] cont_1_lstm2_cont_slice_0_split does not need backward computation.
I0925 22:57:42.122709 16154 net.cpp:148] Top shape: 1 1 1000 (1000)
I0925 22:57:42.122716 16180 net.cpp:219] lstm2_cont_slice does not need backward computation.
I0925 22:57:42.122710 16138 recurrent_layer.cpp:150] Adding parameter 2: W_hc
I0925 22:57:42.122725 16180 net.cpp:219] lstm2_ does not need backward computation.
I0925 22:57:42.122723 16154 net.cpp:156] Memory required for data: 50020
I0925 22:57:42.122736 16180 net.cpp:219] lstm2_ does not need backward computation.
I0925 22:57:42.122750 16154 layer_factory.hpp:77] Creating layer lstm2_transform_1
I0925 22:57:42.122751 16180 net.cpp:261] This network produces output c_T
I0925 22:57:42.122767 16180 net.cpp:261] This network produces output h_pseudoloss
I0925 22:57:42.122776 16154 net.cpp:91] Creating Layer lstm2_transform_1
I0925 22:57:42.122786 16154 net.cpp:425] lstm2_transform_1 <- h_conted_0
I0925 22:57:42.122789 16180 net.cpp:274] Network initialization done.
I0925 22:57:42.122802 16154 net.cpp:399] lstm2_transform_1 -> W_hc_h_0
I0925 22:57:42.122839 16180 recurrent_layer.cpp:150] Adding parameter 0: W_xc
I0925 22:57:42.122846 16180 recurrent_layer.cpp:150] Adding parameter 1: b_c
I0925 22:57:42.122853 16180 recurrent_layer.cpp:150] Adding parameter 2: W_hc
I0925 22:57:42.133967 16180 net.cpp:141] Setting up lstm2
I0925 22:57:42.133993 16138 net.cpp:141] Setting up lstm2
I0925 22:57:42.134022 16180 net.cpp:148] Top shape: 1 1 1000 (1000)
I0925 22:57:42.134024 16138 net.cpp:148] Top shape: 1 1 1000 (1000)
I0925 22:57:42.134028 16180 net.cpp:156] Memory required for data: 36412
I0925 22:57:42.134032 16138 net.cpp:156] Memory required for data: 36412
I0925 22:57:42.134054 16138 layer_factory.hpp:77] Creating layer predict
I0925 22:57:42.134054 16180 layer_factory.hpp:77] Creating layer predict
I0925 22:57:42.134085 16180 net.cpp:91] Creating Layer predict
I0925 22:57:42.134085 16138 net.cpp:91] Creating Layer predict
I0925 22:57:42.134099 16180 net.cpp:425] predict <- lstm2
I0925 22:57:42.134104 16138 net.cpp:425] predict <- lstm2
I0925 22:57:42.134114 16180 net.cpp:399] predict -> predict
I0925 22:57:42.134115 16138 net.cpp:399] predict -> predict
I0925 22:57:42.327316 16154 net.cpp:141] Setting up lstm2_transform_1
I0925 22:57:42.327375 16154 net.cpp:148] Top shape: 1 1 4000 (4000)
I0925 22:57:42.327383 16154 net.cpp:156] Memory required for data: 66020
I0925 22:57:42.327411 16154 layer_factory.hpp:77] Creating layer lstm2_gate_input_1
I0925 22:57:42.327437 16154 net.cpp:91] Creating Layer lstm2_gate_input_1
I0925 22:57:42.327446 16154 net.cpp:425] lstm2_gate_input_1 <- W_hc_h_0
I0925 22:57:42.327456 16154 net.cpp:425] lstm2_gate_input_1 <- W_xc_x_1
I0925 22:57:42.327466 16154 net.cpp:399] lstm2_gate_input_1 -> gate_input_1
I0925 22:57:42.327666 16142 net.cpp:141] Setting up predict
I0925 22:57:42.327703 16142 net.cpp:148] Top shape: 1 1 46168 (46168)
I0925 22:57:42.327709 16142 net.cpp:156] Memory required for data: 221084
I0925 22:57:42.327723 16142 layer_factory.hpp:77] Creating layer probs
I0925 22:57:42.327733 16154 net.cpp:141] Setting up lstm2_gate_input_1
I0925 22:57:42.327739 16142 net.cpp:91] Creating Layer probs
I0925 22:57:42.327746 16142 net.cpp:425] probs <- predict
I0925 22:57:42.327747 16154 net.cpp:148] Top shape: 1 1 4000 (4000)
I0925 22:57:42.327754 16154 net.cpp:156] Memory required for data: 82020
I0925 22:57:42.327756 16142 net.cpp:399] probs -> probs
I0925 22:57:42.327759 16154 layer_factory.hpp:77] Creating layer lstm2_unit_1
I0925 22:57:42.327771 16154 net.cpp:91] Creating Layer lstm2_unit_1
I0925 22:57:42.327777 16154 net.cpp:425] lstm2_unit_1 <- c_0
I0925 22:57:42.327785 16154 net.cpp:425] lstm2_unit_1 <- gate_input_1
I0925 22:57:42.327793 16154 net.cpp:425] lstm2_unit_1 <- cont_1_lstm2_cont_slice_0_split_1
I0925 22:57:42.327807 16154 net.cpp:399] lstm2_unit_1 -> c_1
I0925 22:57:42.327822 16154 net.cpp:399] lstm2_unit_1 -> h_1
I0925 22:57:42.327848 16136 net.cpp:141] Setting up predict
I0925 22:57:42.327867 16136 net.cpp:148] Top shape: 1 1 46168 (46168)
I0925 22:57:42.327872 16136 net.cpp:156] Memory required for data: 221084
I0925 22:57:42.327883 16136 layer_factory.hpp:77] Creating layer probs
I0925 22:57:42.327893 16136 net.cpp:91] Creating Layer probs
I0925 22:57:42.327898 16136 net.cpp:425] probs <- predict
I0925 22:57:42.327906 16136 net.cpp:399] probs -> probs
I0925 22:57:42.327991 16154 net.cpp:141] Setting up lstm2_unit_1
I0925 22:57:42.328008 16154 net.cpp:148] Top shape: 1 1 1000 (1000)
I0925 22:57:42.328022 16154 net.cpp:148] Top shape: 1 1 1000 (1000)
I0925 22:57:42.328028 16154 net.cpp:156] Memory required for data: 90020
I0925 22:57:42.328037 16154 layer_factory.hpp:77] Creating layer lstm2_
I0925 22:57:42.328065 16154 net.cpp:91] Creating Layer lstm2_
I0925 22:57:42.328076 16154 net.cpp:425] lstm2_ <- c_1
I0925 22:57:42.328090 16154 net.cpp:399] lstm2_ -> c_T
I0925 22:57:42.329677 16154 net.cpp:141] Setting up lstm2_
I0925 22:57:42.329715 16154 net.cpp:148] Top shape: 1 1 1000 (1000)
I0925 22:57:42.329725 16154 net.cpp:156] Memory required for data: 94020
I0925 22:57:42.329735 16154 layer_factory.hpp:77] Creating layer lstm2_h_concat
I0925 22:57:42.329756 16154 net.cpp:91] Creating Layer lstm2_h_concat
I0925 22:57:42.329767 16154 net.cpp:425] lstm2_h_concat <- h_1
I0925 22:57:42.329799 16154 net.cpp:399] lstm2_h_concat -> h
I0925 22:57:42.334055 16154 net.cpp:141] Setting up lstm2_h_concat
I0925 22:57:42.334112 16154 net.cpp:148] Top shape: 1 1 1000 (1000)
I0925 22:57:42.334123 16154 net.cpp:156] Memory required for data: 98020
I0925 22:57:42.334136 16154 layer_factory.hpp:77] Creating layer h_pseudoloss
I0925 22:57:42.334161 16154 net.cpp:91] Creating Layer h_pseudoloss
I0925 22:57:42.334172 16154 net.cpp:425] h_pseudoloss <- h
I0925 22:57:42.334192 16154 net.cpp:399] h_pseudoloss -> h_pseudoloss
I0925 22:57:42.336237 16154 net.cpp:141] Setting up h_pseudoloss
…
I0925 22:57:42.336465 16154 net.cpp:219] lstm2_ does not need backward computation.
I0925 22:57:42.336473 16154 net.cpp:261] This network produces output c_T
I0925 22:57:42.336483 16154 net.cpp:261] This network produces output h_pseudoloss
I0925 22:57:42.336513 16154 net.cpp:274] Network initialization done.
I0925 22:57:42.336609 16154 recurrent_layer.cpp:150] Adding parameter 0: W_xc
I0925 22:57:42.336623 16154 recurrent_layer.cpp:150] Adding parameter 1: b_c
I0925 22:57:42.336632 16154 recurrent_layer.cpp:150] Adding parameter 2: W_hc
I0925 22:57:42.337769 16154 net.cpp:141] Setting up lstm2
I0925 22:57:42.337800 16154 net.cpp:148] Top shape: 1 1 1000 (1000)
I0925 22:57:42.337810 16154 net.cpp:156] Memory required for data: 36412
I0925 22:57:42.337841 16154 layer_factory.hpp:77] Creating layer predict
I0925 22:57:42.337870 16154 net.cpp:91] Creating Layer predict
I0925 22:57:42.337882 16154 net.cpp:425] predict <- lstm2
I0925 22:57:42.337898 16154 net.cpp:399] predict -> predict
I0925 22:57:42.427928 16150 net.cpp:141] Setting up predict
I0925 22:57:42.427985 16150 net.cpp:148] Top shape: 1 1 46168 (46168)
I0925 22:57:42.427992 16150 net.cpp:156] Memory required for data: 221084
I0925 22:57:42.428009 16150 layer_factory.hpp:77] Creating layer probs
I0925 22:57:42.428030 16150 net.cpp:91] Creating Layer probs
I0925 22:57:42.428040 16150 net.cpp:425] probs <- predict
I0925 22:57:42.428052 16150 net.cpp:399] probs -> probs
I0925 22:57:42.524894 16170 net.cpp:141] Setting up predict
I0925 22:57:42.524946 16170 net.cpp:148] Top shape: 1 1 46168 (46168)
I0925 22:57:42.524952 16170 net.cpp:156] Memory required for data: 221084
I0925 22:57:42.524969 16170 layer_factory.hpp:77] Creating layer probs
I0925 22:57:42.524991 16170 net.cpp:91] Creating Layer probs
I0925 22:57:42.524998 16170 net.cpp:425] probs <- predict
I0925 22:57:42.525009 16170 net.cpp:399] probs -> probs
I0925 22:57:42.560829 16136 net.cpp:141] Setting up probs
I0925 22:57:42.561388 16136 net.cpp:148] Top shape: 1 1 46168 (46168)
I0925 22:57:42.561583 16136 net.cpp:156] Memory required for data: 405756
I0925 22:57:42.561728 16136 net.cpp:219] probs does not need backward computation.
I0925 22:57:42.561859 16136 net.cpp:219] predict does not need backward computation.
I0925 22:57:42.562083 16136 net.cpp:219] lstm2 does not need backward computation.
I0925 22:57:42.562263 16136 net.cpp:219] concat does not need backward computation.
I0925 22:57:42.562263 16150 net.cpp:141] Setting up probs
I0925 22:57:42.562424 16150 net.cpp:148] Top shape: 1 1 46168 (46168)
I0925 22:57:42.562435 16150 net.cpp:156] Memory required for data: 405756
I0925 22:57:42.562445 16150 net.cpp:219] probs does not need backward computation.
I0925 22:57:42.562456 16150 net.cpp:219] predict does not need backward computation.
I0925 22:57:42.562466 16150 net.cpp:219] lstm2 does not need backward computation.
I0925 22:57:42.562475 16150 net.cpp:219] concat does not need backward computation.
I0925 22:57:42.562484 16150 net.cpp:219] lstm1 does not need backward computation.
I0925 22:57:42.562494 16150 net.cpp:219] embedding does not need backward computation.
I0925 22:57:42.562502 16150 net.cpp:219] reshape_stage_indicator does not need backward computation.
I0925 22:57:42.562510 16150 net.cpp:219] reshape_frames does not need backward computation.
I0925 22:57:42.562518 16150 net.cpp:219] embed_encoder does not need backward computation.
I0925 22:57:42.562526 16150 net.cpp:219] cont_sentence_input_1_split does not need backward computation.
I0925 22:57:42.562536 16150 net.cpp:219] input does not need backward computation.
I0925 22:57:42.562542 16150 net.cpp:261] This network produces output probs
I0925 22:57:42.562569 16150 net.cpp:274] Network initialization done.
I0925 22:57:42.563247 16172 net.cpp:141] Setting up conv1
I0925 22:57:42.563271 16172 net.cpp:148] Top shape: 10 96 55 55 (2904000)
I0925 22:57:42.563282 16172 net.cpp:156] Memory required for data: 17799480
I0925 22:57:42.563307 16172 layer_factory.hpp:77] Creating layer relu1
I0925 22:57:42.563333 16172 net.cpp:91] Creating Layer relu1
I0925 22:57:42.563345 16172 net.cpp:425] relu1 <- conv1
I0925 22:57:42.563359 16172 net.cpp:386] relu1 -> conv1 (in-place)
I0925 22:57:42.565197 16172 net.cpp:141] Setting up relu1
I0925 22:57:42.565222 16172 net.cpp:148] Top shape: 10 96 55 55 (2904000)
I0925 22:57:42.565232 16172 net.cpp:156] Memory required for data: 29415480
I0925 22:57:42.565242 16172 layer_factory.hpp:77] Creating layer pool1
I0925 22:57:42.565248 16170 net.cpp:141] Setting up probs
I0925 22:57:42.565269 16170 net.cpp:148] Top shape: 1 1 46168 (46168)
I0925 22:57:42.565279 16170 net.cpp:156] Memory required for data: 405756
I0925 22:57:42.565290 16170 net.cpp:219] probs does not need backward computation.
I0925 22:57:42.565291 16172 net.cpp:91] Creating Layer pool1
I0925 22:57:42.565300 16170 net.cpp:219] predict does not need backward computation.
I0925 22:57:42.565305 16172 net.cpp:425] pool1 <- conv1
I0925 22:57:42.565312 16170 net.cpp:219] lstm2 does not need backward computation.
I0925 22:57:42.565323 16172 net.cpp:399] pool1 -> pool1
I0925 22:57:42.565342 16136 net.cpp:219] lstm1 does not need backward computation.
I0925 22:57:42.565356 16136 net.cpp:219] embedding does not need backward computation.
I0925 22:57:42.565348 16132 net.cpp:141] Setting up probs
I0925 22:57:42.565366 16136 net.cpp:219] reshape_stage_indicator does not need backward computation.
I0925 22:57:42.565400 16132 net.cpp:148] Top shape: 1 1 46168 (46168)
I0925 22:57:42.565404 16136 net.cpp:219] reshape_frames does not need backward computation.
I0925 22:57:42.565408 16132 net.cpp:156] Memory required for data: 405756
I0925 22:57:42.565443 16132 net.cpp:219] probs does not need backward computation.
I0925 22:57:42.565454 16132 net.cpp:219] predict does not need backward computation.
I0925 22:57:42.565465 16132 net.cpp:219] lstm2 does not need backward computation.
…
I0925 22:57:42.565848 16170 net.cpp:219] input does not need backward computation.
I0925 22:57:42.565855 16170 net.cpp:261] This network produces output probs
I0925 22:57:42.565891 16136 net.cpp:219] embed_encoder does not need backward computation.
I0925 22:57:42.565901 16136 net.cpp:219] cont_sentence_input_1_split does not need backward computation.
I0925 22:57:42.565910 16136 net.cpp:219] input does not need backward computation.
I0925 22:57:42.565918 16136 net.cpp:261] This network produces output probs
I0925 22:57:42.566642 16142 net.cpp:141] Setting up probs
I0925 22:57:42.566665 16142 net.cpp:148] Top shape: 1 1 46168 (46168)
I0925 22:57:42.566674 16142 net.cpp:156] Memory required for data: 405756
I0925 22:57:42.566685 16142 net.cpp:219] probs does not need backward computation.
I0925 22:57:42.566695 16142 net.cpp:219] predict does not need backward computation.
I0925 22:57:42.566704 16142 net.cpp:219] lstm2 does not need backward computation.
I0925 22:57:42.566715 16142 net.cpp:219] concat does not need backward computation.
I0925 22:57:42.566725 16142 net.cpp:219] lstm1 does not need backward computation.
I0925 22:57:42.566735 16142 net.cpp:219] embedding does not need backward computation.
I0925 22:57:42.566743 16142 net.cpp:219] reshape_stage_indicator does not need backward computation.
I0925 22:57:42.566753 16142 net.cpp:219] reshape_frames does not need backward computation.
I0925 22:57:42.566762 16142 net.cpp:219] embed_encoder does not need backward computation.
I0925 22:57:42.566772 16142 net.cpp:219] cont_sentence_input_1_split does not need backward computation.
I0925 22:57:42.566782 16142 net.cpp:219] input does not need backward computation.
I0925 22:57:42.566790 16142 net.cpp:261] This network produces output probs
I0925 22:57:42.567729 16170 net.cpp:274] Network initialization done.
I0925 22:57:42.567805 16136 net.cpp:274] Network initialization done.
I0925 22:57:42.567850 16142 net.cpp:274] Network initialization done.
I0925 22:57:42.567853 16172 net.cpp:141] Setting up pool1
I0925 22:57:42.567889 16172 net.cpp:148] Top shape: 10 96 27 27 (699840)
I0925 22:57:42.567895 16172 net.cpp:156] Memory required for data: 32214840
I0925 22:57:42.567901 16172 layer_factory.hpp:77] Creating layer norm1
I0925 22:57:42.567930 16172 net.cpp:91] Creating Layer norm1
I0925 22:57:42.567936 16172 net.cpp:425] norm1 <- pool1
I0925 22:57:42.567945 16172 net.cpp:399] norm1 -> norm1
I0925 22:57:42.570739 16172 net.cpp:141] Setting up norm1
I0925 22:57:42.570780 16172 net.cpp:148] Top shape: 10 96 27 27 (699840)
I0925 22:57:42.570792 16172 net.cpp:156] Memory required for data: 35014200
I0925 22:57:42.570803 16172 layer_factory.hpp:77] Creating layer conv2
I0925 22:57:42.570829 16172 net.cpp:91] Creating Layer conv2
I0925 22:57:42.570840 16172 net.cpp:425] conv2 <- norm1
I0925 22:57:42.570854 16172 net.cpp:399] conv2 -> conv2
I0925 22:57:42.580714 16172 net.cpp:141] Setting up conv2
I0925 22:57:42.580773 16172 net.cpp:148] Top shape: 10 256 27 27 (1866240)
I0925 22:57:42.580780 16172 net.cpp:156] Memory required for data: 42479160
I0925 22:57:42.580904 16172 layer_factory.hpp:77] Creating layer relu2
I0925 22:57:42.581509 16172 net.cpp:91] Creating Layer relu2
I0925 22:57:42.581537 16172 net.cpp:425] relu2 <- conv2
I0925 22:57:42.581552 16172 net.cpp:386] relu2 -> conv2 (in-place)
I0925 22:57:42.582752 16172 net.cpp:141] Setting up relu2
I0925 22:57:42.582779 16172 net.cpp:148] Top shape: 10 256 27 27 (1866240)
I0925 22:57:42.582785 16172 net.cpp:156] Memory required for data: 49944120
I0925 22:57:42.582792 16172 layer_factory.hpp:77] Creating layer pool2
I0925 22:57:42.582808 16172 net.cpp:91] Creating Layer pool2
I0925 22:57:42.582813 16172 net.cpp:425] pool2 <- conv2
I0925 22:57:42.583328 16172 net.cpp:399] pool2 -> pool2
I0925 22:57:42.583487 16172 net.cpp:141] Setting up pool2
I0925 22:57:42.583501 16172 net.cpp:148] Top shape: 10 256 13 13 (432640)
I0925 22:57:42.583506 16172 net.cpp:156] Memory required for data: 51674680
I0925 22:57:42.583513 16172 layer_factory.hpp:77] Creating layer norm2
I0925 22:57:42.583879 16172 net.cpp:91] Creating Layer norm2
I0925 22:57:42.583907 16172 net.cpp:425] norm2 <- pool2
I0925 22:57:42.583937 16172 net.cpp:399] norm2 -> norm2
I0925 22:57:42.586915 16172 net.cpp:141] Setting up norm2
I0925 22:57:42.586969 16172 net.cpp:148] Top shape: 10 256 13 13 (432640)
I0925 22:57:42.586980 16172 net.cpp:156] Memory required for data: 53405240
I0925 22:57:42.586993 16172 layer_factory.hpp:77] Creating layer conv3
I0925 22:57:42.587033 16172 net.cpp:91] Creating Layer conv3
I0925 22:57:42.587044 16172 net.cpp:425] conv3 <- norm2
I0925 22:57:42.587062 16172 net.cpp:399] conv3 -> conv3
I0925 22:57:42.611426 16172 net.cpp:141] Setting up conv3
I0925 22:57:42.611487 16172 net.cpp:148] Top shape: 10 384 13 13 (648960)
I0925 22:57:42.611498 16172 net.cpp:156] Memory required for data: 56001080
I0925 22:57:42.611539 16172 layer_factory.hpp:77] Creating layer relu3
I0925 22:57:42.611574 16172 net.cpp:91] Creating Layer relu3
I0925 22:57:42.611587 16172 net.cpp:425] relu3 <- conv3
I0925 22:57:42.611603 16172 net.cpp:386] relu3 -> conv3 (in-place)
I0925 22:57:42.612612 16172 net.cpp:141] Setting up relu3
I0925 22:57:42.612644 16172 net.cpp:148] Top shape: 10 384 13 13 (648960)
I0925 22:57:42.612656 16172 net.cpp:156] Memory required for data: 58596920
I0925 22:57:42.612669 16172 layer_factory.hpp:77] Creating layer conv4
I0925 22:57:42.612695 16172 net.cpp:91] Creating Layer conv4
I0925 22:57:42.612709 16172 net.cpp:425] conv4 <- conv3
I0925 22:57:42.612741 16172 net.cpp:399] conv4 -> conv4
I0925 22:57:42.636227 16138 net.cpp:141] Setting up predict
I0925 22:57:42.636294 16138 net.cpp:148] Top shape: 1 1 46168 (46168)
I0925 22:57:42.636306 16138 net.cpp:156] Memory required for data: 221084
I0925 22:57:42.636327 16138 layer_factory.hpp:77] Creating layer probs
I0925 22:57:42.636348 16138 net.cpp:91] Creating Layer probs
I0925 22:57:42.636354 16138 net.cpp:425] probs <- predict
I0925 22:57:42.636364 16138 net.cpp:399] probs -> probs
I0925 22:57:42.639168 16138 net.cpp:141] Setting up probs
I0925 22:57:42.639168 16172 net.cpp:141] Setting up conv4
I0925 22:57:42.639226 16138 net.cpp:148] Top shape: 1 1 46168 (46168)
I0925 22:57:42.639226 16172 net.cpp:148] Top shape: 10 384 13 13 (648960)
I0925 22:57:42.639243 16138 net.cpp:156] Memory required for data: 405756
I0925 22:57:42.639246 16172 net.cpp:156] Memory required for data: 61192760
I0925 22:57:42.639257 16138 net.cpp:219] probs does not need backward computation.
I0925 22:57:42.639266 16172 layer_factory.hpp:77] Creating layer relu4
I0925 22:57:42.639268 16138 net.cpp:219] predict does not need backward computation.
…
