…
W0925 23:53:42.083896  9467 upgrade_proto.cpp:71] Note that future Caffe releases will only support input layers and not input fields.
I0925 23:53:42.084233  9467 net.cpp:49] Initializing net from parameters: 
name: "s2vt:features_to_lstm"
state {
  phase: TEST
}
layer {
  name: "input"
  type: "Input"
  top: "frames_fc7"
  top: "cont_sentence"
  top: "input_sentence"
  top: "stage_indicator"
  input_param {
    shape {
      dim: 1
      dim: 4096
    }
    shape {
      dim: 1
      dim: 1
    }
    shape {
      dim: 1
      dim: 1
    }
    shape {
      dim: 1
      dim: 1
    }
  }
}
layer {
  name: "embed_encoder"
  type: "InnerProduct"
  bottom: "frames_fc7"
  top: "embedded_in_frames"
  param {
    lr_mult: 1
    decay_mult: 1
  }
  param {
    lr_mult: 2
    decay_mult: 0
  }
  inner_product_param {
    num_output: 500
    weight_filler {
      type: "xavier"
    }
    bias_filler {
      type: "constant"
      value: 0.2
    }
  }
}
layer {
  name: "reshape_frames"
  type: "Reshape"
  bottom: "embedded_in_frames"
  top: "embedded_input_frames"
  reshape_param {
    shape {
      dim: 1
      dim: 1
      dim: 500
    }
  }
}
layer {
  name: "reshape_stage_indicator"
  type: "Reshape"
  bottom: "stage_indicator"
  top: "reshaped_stage_indicator"
  reshape_param {
    shape {
      dim: 1
      dim: 1
      dim: 1
    }
  }
}
layer {
  name: "embedding"
  type: "Embed"
  bottom: "input_sentence"
  top: "embedded_input_sentence"
  param {
    lr_mult: 1
  }
  embed_param {
    num_output: 500
    input_dim: 46168
    bias_term: false
    weight_filler {
      type: "uniform"
      min: -0.08
      max: 0.08
    }
  }
}
layer {
  name: "lstm1"
  type: "LSTM"
  bottom: "embedded_input_frames"
  bottom: "cont_sentence"
  top: "lstm1"
  recurrent_param {
    num_output: 1000
    weight_filler {
      type: "uniform"
      min: -0.08
      max: 0.08
    }
    bias_filler {
      type: "constant"
      value: 0
    }
  }
}
layer {
  name: "concat"
  type: "Concat"
  bottom: "lstm1"
  bottom: "embedded_input_sentence"
  bottom: "reshaped_stage_indicator"
  top: "lstm1_video_sequence"
  concat_param {
    concat_dim: 2
  }
}
layer {
  name: "lstm2"
  type: "LSTM"
  bottom: "lstm1_video_sequence"
  bottom: "cont_sentence"
  top: "lstm2"
  recurrent_param {
    num_output: 1000
    weight_filler {
      type: "uniform"
      min: -0.08
      max: 0.08
    }
    bias_filler {
      type: "constant"
      value: 0
    }
  }
}
layer {
  name: "predict"
  type: "InnerProduct"
  bottom: "lstm2"
  top: "predict"
  param {
    lr_mult: 1
    decay_mult: 1
  }
  param {
    lr_mult: 2
    decay_mult: 0
  }
  inner_product_param {
    num_output: 46168
    weight_filler {
      type: "uniform"
      min: -0.08
      max: 0.08
    }
    bias_filler {
      type: "constant"
      value: 0
    }
    axis: 2
  }
}
layer {
  name: "probs"
  type: "Softmax"
  bottom: "predict"
  top: "probs"
  softmax_param {
    axis: 2
  }
}
I0925 23:53:42.084267  9458 net.cpp:49] Initializing net from parameters: 
name: "s2vt:features_to_lstm"
state {
  phase: TEST
}
layer {
  name: "input"
  type: "Input"
  top: "frames_fc7"
  top: "cont_sentence"
  top: "input_sentence"
  top: "stage_indicator"
  input_param {
    shape {
      dim: 1
      dim: 4096
    }
    shape {
      dim: 1
      dim: 1
    }
    shape {
      dim: 1
      dim: 1
    }
    shape {
      dim: 1
      dim: 1
    }
  }
}
layer {
  name: "embed_encoder"
  type: "InnerProduct"
  bottom: "frames_fc7"
  top: "embedded_in_frames"
  param {
    lr_mult: 1
    decay_mult: 1
  }
  param {
    lr_mult: 2
    decay_mult: 0
  }
  inner_product_param {
    num_output: 500
    weight_filler {
      type: "xavier"
    }
    bias_filler {
      type: "constant"
      value: 0.2
    }
  }
}
layer {
  name: "reshape_frames"
  type: "Reshape"
  bottom: "embedded_in_frames"
  top: "embedded_input_frames"
  reshape_param {
    shape {
      dim: 1
      dim: 1
      dim: 500
    }
  }
}
layer {
  name: "reshape_stage_indicator"
  type: "Reshape"
  bottom: "stage_indicator"
  top: "reshaped_stage_indicator"
  reshape_param {
    shape {
      dim: 1
      dim: 1
      dim: 1
    }
  }
}
layer {
  name: "embedding"
  type: "Embed"
  bottom: "input_sentence"
  top: "embedded_input_sentence"
  param {
    lr_mult: 1
  }
  embed_param {
    num_output: 500
    input_dim: 46168
    bias_term: false
    weight_filler {
      type: "uniform"
      min: -0.08
      max: 0.08
    }
  }
}
layer {
  name: "lstm1"
  type: "LSTM"
  bottom: "embedded_input_frames"
  bottom: "cont_sentence"
  top: "lstm1"
  recurrent_param {
    num_output: 1000
    weight_filler {
      type: "uniform"
      min: -0.08
      max: 0.08
    }
    bias_filler {
      type: "constant"
      value: 0
    }
  }
}
layer {
  name: "concat"
  type: "Concat"
  bottom: "lstm1"
  bottom: "embedded_input_sentence"
  bottom: "reshaped_stage_indicator"
  top: "lstm1_video_sequence"
  concat_param {
    concat_dim: 2
  }
}
layer {
  name: "lstm2"
  type: "LSTM"
  bottom: "lstm1_video_sequence"
  bottom: "cont_sentence"
  top: "lstm2"
  recurrent_param {
    num_output: 1000
    weight_filler {
      type: "uniform"
      min: -0.08
      max: 0.08
    }
    bias_filler {
      type: "constant"
      value: 0
    }
  }
}
layer {
  name: "predict"
  type: "InnerProduct"
  bottom: "lstm2"
  top: "predict"
  param {
    lr_mult: 1
    decay_mult: 1
  }
  param {
    lr_mult: 2
    decay_mult: 0
  }
  inner_product_param {
    num_output: 46168
    weight_filler {
      type: "uniform"
      min: -0.08
      max: 0.08
    }
    bias_filler {
      type: "constant"
      value: 0
    }
    axis: 2
  }
}
layer {
  name: "probs"
  type: "Softmax"
  bottom: "predict"
  top: "probs"
  softmax_param {
    axis: 2
  }
}
I0925 23:53:42.084270  9452 net.cpp:49] Initializing net from parameters: 
name: "s2vt:features_to_lstm"
state {
  phase: TEST
}
layer {
  name: "input"
  type: "Input"
  top: "frames_fc7"
  top: "cont_sentence"
  top: "input_sentence"
  top: "stage_indicator"
  input_param {
    shape {
      dim: 1
      dim: 4096
    }
    shape {
      dim: 1
      dim: 1
    }
    shape {
      dim: 1
      dim: 1
    }
    shape {
      dim: 1
      dim: 1
    }
  }
}
layer {
  name: "embed_encoder"
  type: "InnerProduct"
  bottom: "frames_fc7"
  top: "embedded_in_frames"
  param {
    lr_mult: 1
    decay_mult: 1
  }
  param {
    lr_mult: 2
    decay_mult: 0
  }
  inner_product_param {
    num_output: 500
    weight_filler {
      type: "xavier"
    }
    bias_filler {
      type: "constant"
      value: 0.2
    }
  }
}
layer {
  name: "reshape_frames"
  type: "Reshape"
  bottom: "embedded_in_frames"
  top: "embedded_input_frames"
  reshape_param {
    shape {
      dim: 1
      dim: 1
      dim: 500
    }
  }
}
layer {
  name: "reshape_stage_indicator"
  type: "Reshape"
  bottom: "stage_indicator"
  top: "reshaped_stage_indicator"
  reshape_param {
    shape {
      dim: 1
      dim: 1
      dim: 1
    }
  }
}
layer {
  name: "embedding"
  type: "Embed"
  bottom: "input_sentence"
  top: "embedded_input_sentence"
  param {
    lr_mult: 1
  }
  embed_param {
    num_output: 500
    input_dim: 46168
    bias_term: false
    weight_filler {
      type: "uniform"
      min: -0.08
      max: 0.08
    }
  }
}
layer {
  name: "lstm1"
  type: "LSTM"
  bottom: "embedded_input_frames"
  bottom: "cont_sentence"
  top: "lstm1"
  recurrent_param {
    num_output: 1000
    weight_filler {
      type: "uniform"
      min: -0.08
      max: 0.08
    }
    bias_filler {
      type: "constant"
      value: 0
    }
  }
}
layer {
  name: "concat"
  type: "Concat"
  bottom: "lstm1"
  bottom: "embedded_input_sentence"
  bottom: "reshaped_stage_indicator"
  top: "lstm1_video_sequence"
  concat_param {
    concat_dim: 2
  }
}
layer {
  name: "lstm2"
  type: "LSTM"
  bottom: "lstm1_video_sequence"
  bottom: "cont_sentence"
  top: "lstm2"
  recurrent_param {
    num_output: 1000
    weight_filler {
      type: "uniform"
      min: -0.08
      max: 0.08
    }
    bias_filler {
      type: "constant"
      value: 0
    }
  }
}
layer {
  name: "predict"
  type: "InnerProduct"
  bottom: "lstm2"
  top: "predict"
  param {
    lr_mult: 1
    decay_mult: 1
  }
  param {
    lr_mult: 2
    decay_mult: 0
  }
  inner_product_param {
    num_output: 46168
    weight_filler {
      type: "uniform"
      min: -0.08
      max: 0.08
    }
    bias_filler {
      type: "constant"
      value: 0
    }
    axis: 2
  }
}
layer {
  name: "probs"
  type: "Softmax"
  bottom: "predict"
  top: "probs"
  softmax_param {
    axis: 2
  }
}
I0925 23:53:42.084285  9471 net.cpp:49] Initializing net from parameters: 
name: "s2vt:features_to_lstm"
state {
  phase: TEST
}
layer {
  name: "input"
  type: "Input"
  top: "frames_fc7"
  top: "cont_sentence"
  top: "input_sentence"
  top: "stage_indicator"
  input_param {
    shape {
      dim: 1
      dim: 4096
    }
    shape {
      dim: 1
      dim: 1
    }
    shape {
      dim: 1
      dim: 1
    }
    shape {
      dim: 1
      dim: 1
    }
  }
}
layer {
  name: "embed_encoder"
  type: "InnerProduct"
  bottom: "frames_fc7"
  top: "embedded_in_frames"
  param {
    lr_mult: 1
    decay_mult: 1
  }
  param {
    lr_mult: 2
    decay_mult: 0
  }
  inner_product_param {
    num_output: 500
    weight_filler {
      type: "xavier"
    }
    bias_filler {
      type: "constant"
      value: 0.2
    }
  }
}
layer {
  name: "reshape_frames"
  type: "Reshape"
  bottom: "embedded_in_frames"
  top: "embedded_input_frames"
  reshape_param {
    shape {
      dim: 1
      dim: 1
      dim: 500
    }
  }
}
layer {
  name: "reshape_stage_indicator"
  type: "Reshape"
  bottom: "stage_indicator"
  top: "reshaped_stage_indicator"
  reshape_param {
    shape {
      dim: 1
      dim: 1
      dim: 1
    }
  }
}
layer {
  name: "embedding"
  type: "Embed"
  bottom: "input_sentence"
  top: "embedded_input_sentence"
  param {
    lr_mult: 1
  }
  embed_param {
    num_output: 500
    input_dim: 46168
    bias_term: false
    weight_filler {
      type: "uniform"
      min: -0.08
      max: 0.08
    }
  }
}
layer {
  name: "lstm1"
  type: "LSTM"
  bottom: "embedded_input_frames"
  bottom: "cont_sentence"
  top: "lstm1"
  recurrent_param {
    num_output: 1000
    weight_filler {
      type: "uniform"
      min: -0.08
      max: 0.08
    }
    bias_filler {
      type: "constant"
      value: 0
    }
  }
}
layer {
  name: "concat"
  type: "Concat"
  bottom: "lstm1"
  bottom: "embedded_input_sentence"
  bottom: "reshaped_stage_indicator"
  top: "lstm1_video_sequence"
  concat_param {
    concat_dim: 2
  }
}
layer {
  name: "lstm2"
  type: "LSTM"
  bottom: "lstm1_video_sequence"
  bottom: "cont_sentence"
  top: "lstm2"
  recurrent_param {
    num_output: 1000
    weight_filler {
      type: "uniform"
      min: -0.08
      max: 0.08
    }
    bias_filler {
      type: "constant"
      value: 0
    }
  }
}
layer {
  name: "predict"
  type: "InnerProduct"
  bottom: "lstm2"
  top: "predict"
  param {
    lr_mult: 1
    decay_mult: 1
  }
  param {
    lr_mult: 2
    decay_mult: 0
  }
  inner_product_param {
    num_output: 46168
    weight_filler {
      type: "uniform"
      min: -0.08
      max: 0.08
    }
    bias_filler {
      type: "constant"
      value: 0
    }
    axis: 2
  }
}
layer {
  name: "probs"
  type: "Softmax"
  bottom: "predict"
  top: "probs"
  softmax_param {
    axis: 2
  }
}
I0925 23:53:42.084297  9487 net.cpp:49] Initializing net from parameters: 
name: "s2vt:features_to_lstm"
state {
  phase: TEST
}
layer {
  name: "input"
  type: "Input"
  top: "frames_fc7"
  top: "cont_sentence"
  top: "input_sentence"
  top: "stage_indicator"
  input_param {
    shape {
      dim: 1
      dim: 4096
    }
    shape {
      dim: 1
      dim: 1
    }
    shape {
      dim: 1
      dim: 1
    }
    shape {
      dim: 1
      dim: 1
    }
  }
}
layer {
  name: "embed_encoder"
  type: "InnerProduct"
  bottom: "frames_fc7"
  top: "embedded_in_frames"
  param {
    lr_mult: 1
    decay_mult: 1
  }
  param {
    lr_mult: 2
    decay_mult: 0
  }
  inner_product_param {
    num_output: 500
    weight_filler {
      type: "xavier"
    }
    bias_filler {
      type: "constant"
      value: 0.2
    }
  }
}
layer {
  name: "reshape_frames"
  type: "Reshape"
  bottom: "embedded_in_frames"
  top: "embedded_input_frames"
  reshape_param {
    shape {
      dim: 1
      dim: 1
      dim: 500
    }
  }
}
layer {
  name: "reshape_stage_indicator"
  type: "Reshape"
  bottom: "stage_indicator"
  top: "reshaped_stage_indicator"
  reshape_param {
    shape {
      dim: 1
      dim: 1
      dim: 1
    }
  }
}
layer {
  name: "embedding"
  type: "Embed"
  bottom: "input_sentence"
  top: "embedded_input_sentence"
  param {
    lr_mult: 1
  }
  embed_param {
    num_output: 500
    input_dim: 46168
    bias_term: false
    weight_filler {
      type: "uniform"
      min: -0.08
      max: 0.08
    }
  }
}
layer {
  name: "lstm1"
  type: "LSTM"
  bottom: "embedded_input_frames"
  bottom: "cont_sentence"
  top: "lstm1"
  recurrent_param {
    num_output: 1000
    weight_filler {
      type: "uniform"
      min: -0.08
      max: 0.08
    }
    bias_filler {
      type: "constant"
      value: 0
    }
  }
}
layer {
  name: "concat"
  type: "Concat"
  bottom: "lstm1"
  bottom: "embedded_input_sentence"
  bottom: "reshaped_stage_indicator"
  top: "lstm1_video_sequence"
  concat_param {
    concat_dim: 2
  }
}
layer {
  name: "lstm2"
  type: "LSTM"
  bottom: "lstm1_video_sequence"
  bottom: "cont_sentence"
  top: "lstm2"
  recurrent_param {
    num_output: 1000
    weight_filler {
      type: "uniform"
      min: -0.08
      max: 0.08
    }
    bias_filler {
      type: "constant"
      value: 0
    }
  }
}
layer {
  name: "predict"
  type: "InnerProduct"
  bottom: "lstm2"
  top: "predict"
  param {
    lr_mult: 1
    decay_mult: 1
  }
  param {
    lr_mult: 2
    decay_mult: 0
  }
  inner_product_param {
    num_output: 46168
    weight_filler {
      type: "uniform"
      min: -0.08
      max: 0.08
    }
    bias_filler {
      type: "constant"
      value: 0
    }
    axis: 2
  }
}
layer {
  name: "probs"
  type: "Softmax"
  bottom: "predict"
  top: "probs"
  softmax_param {
    axis: 2
  }
}
I0925 23:53:42.083711  9454 upgrade_proto.cpp:66] Attempting to upgrade input file specified using deprecated input fields: /home/peifeng/work/run/storm102/data/workers/74043427-4061-439b-a763-465c1c03598a/tmp/cvld3758032468593239379/s2vt.words_to_preds.prototxt
I0925 23:53:42.084460  9454 upgrade_proto.cpp:69] Successfully upgraded file specified using deprecated input fields.
…
I0925 23:53:42.084677  9458 net.cpp:399] input -> input_sentence
I0925 23:53:42.084738  9458 net.cpp:399] input -> stage_indicator
I0925 23:53:42.084761  9497 net.cpp:49] Initializing net from parameters: 
name: "s2vt:features_to_lstm"
state {
  phase: TEST
}
layer {
  name: "input"
  type: "Input"
  top: "frames_fc7"
  top: "cont_sentence"
  top: "input_sentence"
  top: "stage_indicator"
  input_param {
    shape {
      dim: 1
      dim: 4096
    }
    shape {
      dim: 1
      dim: 1
    }
    shape {
      dim: 1
      dim: 1
    }
    shape {
      dim: 1
      dim: 1
    }
  }
}
layer {
  name: "embed_encoder"
  type: "InnerProduct"
  bottom: "frames_fc7"
  top: "embedded_in_frames"
  param {
    lr_mult: 1
    decay_mult: 1
  }
  param {
    lr_mult: 2
    decay_mult: 0
  }
  inner_product_param {
    num_output: 500
    weight_filler {
      type: "xavier"
    }
    bias_filler {
      type: "constant"
      value: 0.2
    }
  }
}
layer {
  name: "reshape_frames"
  type: "Reshape"
  bottom: "embedded_in_frames"
  top: "embedded_input_frames"
  reshape_param {
    shape {
      dim: 1
      dim: 1
      dim: 500
    }
  }
}
layer {
  name: "reshape_stage_indicator"
  type: "Reshape"
  bottom: "stage_indicator"
  top: "reshaped_stage_indicator"
  reshape_param {
    shape {
      dim: 1
      dim: 1
      dim: 1
    }
  }
}
layer {
  name: "embedding"
  type: "Embed"
  bottom: "input_sentence"
  top: "embedded_input_sentence"
  param {
    lr_mult: 1
  }
  embed_param {
    num_output: 500
    input_dim: 46168
    bias_term: false
    weight_filler {
      type: "uniform"
      min: -0.08
      max: 0.08
    }
  }
}
layer {
  name: "lstm1"
  type: "LSTM"
  bottom: "embedded_input_frames"
  bottom: "cont_sentence"
  top: "lstm1"
  recurrent_param {
    num_output: 1000
    weight_filler {
      type: "uniform"
      min: -0.08
      max: 0.08
    }
    bias_filler {
      type: "constant"
      value: 0
    }
  }
}
layer {
  name: "concat"
  type: "Concat"
  bottom: "lstm1"
  bottom: "embedded_input_sentence"
  bottom: "reshaped_stage_indicator"
  top: "lstm1_video_sequence"
  concat_param {
    concat_dim: 2
  }
}
layer {
  name: "lstm2"
  type: "LSTM"
  bottom: "lstm1_video_sequence"
  bottom: "cont_sentence"
  top: "lstm2"
  recurrent_param {
    num_output: 1000
    weight_filler {
      type: "uniform"
      min: -0.08
      max: 0.08
    }
    bias_filler {
      type: "constant"
      value: 0
    }
  }
}
layer {
  name: "predict"
  type: "InnerProduct"
  bottom: "lstm2"
  top: "predict"
  param {
    lr_mult: 1
    decay_mult: 1
  }
  param {
    lr_mult: 2
    decay_mult: 0
  }
  inner_product_param {
    num_output: 46168
    weight_filler {
      type: "uniform"
      min: -0.08
      max: 0.08
    }
    bias_filler {
      type: "constant"
      value: 0
    }
    axis: 2
  }
}
layer {
  name: "probs"
  type: "Softmax"
  bottom: "predict"
  top: "probs"
  softmax_param {
    axis: 2
  }
}
I0925 23:53:42.084880  9497 layer_factory.hpp:77] Creating layer input
I0925 23:53:42.084898  9497 net.cpp:91] Creating Layer input
I0925 23:53:42.084910  9497 net.cpp:399] input -> frames_fc7
I0925 23:53:42.084904  9454 net.cpp:49] Initializing net from parameters: 
name: "s2vt:features_to_lstm"
state {
  phase: TEST
}
layer {
  name: "input"
  type: "Input"
  top: "frames_fc7"
  top: "cont_sentence"
  top: "input_sentence"
  top: "stage_indicator"
  input_param {
    shape {
      dim: 1
      dim: 4096
    }
    shape {
      dim: 1
      dim: 1
    }
    shape {
      dim: 1
      dim: 1
    }
    shape {
      dim: 1
      dim: 1
    }
  }
}
layer {
  name: "embed_encoder"
  type: "InnerProduct"
  bottom: "frames_fc7"
  top: "embedded_in_frames"
  param {
    lr_mult: 1
    decay_mult: 1
  }
  param {
    lr_mult: 2
    decay_mult: 0
  }
  inner_product_param {
    num_output: 500
    weight_filler {
      type: "xavier"
    }
    bias_filler {
      type: "constant"
      value: 0.2
    }
  }
}
layer {
  name: "reshape_frames"
  type: "Reshape"
  bottom: "embedded_in_frames"
  top: "embedded_input_frames"
  reshape_param {
    shape {
      dim: 1
      dim: 1
      dim: 500
    }
  }
}
layer {
  name: "reshape_stage_indicator"
  type: "Reshape"
  bottom: "stage_indicator"
  top: "reshaped_stage_indicator"
  reshape_param {
    shape {
      dim: 1
      dim: 1
      dim: 1
    }
  }
}
layer {
  name: "embedding"
  type: "Embed"
  bottom: "input_sentence"
  top: "embedded_input_sentence"
  param {
    lr_mult: 1
  }
  embed_param {
    num_output: 500
    input_dim: 46168
    bias_term: false
    weight_filler {
      type: "uniform"
      min: -0.08
      max: 0.08
    }
  }
}
layer {
  name: "lstm1"
  type: "LSTM"
  bottom: "embedded_input_frames"
  bottom: "cont_sentence"
  top: "lstm1"
  recurrent_param {
    num_output: 1000
    weight_filler {
      type: "uniform"
      min: -0.08
      max: 0.08
    }
    bias_filler {
      type: "constant"
      value: 0
    }
  }
}
layer {
  name: "concat"
  type: "Concat"
  bottom: "lstm1"
  bottom: "embedded_input_sentence"
  bottom: "reshaped_stage_indicator"
  top: "lstm1_video_sequence"
  concat_param {
    concat_dim: 2
  }
}
layer {
  name: "lstm2"
  type: "LSTM"
  bottom: "lstm1_video_sequence"
  bottom: "cont_sentence"
  top: "lstm2"
  recurrent_param {
    num_output: 1000
    weight_filler {
      type: "uniform"
      min: -0.08
      max: 0.08
    }
    bias_filler {
      type: "constant"
      value: 0
    }
  }
}
layer {
  name: "predict"
  type: "InnerProduct"
  bottom: "lstm2"
  top: "predict"
  param {
    lr_mult: 1
    decay_mult: 1
  }
  param {
    lr_mult: 2
    decay_mult: 0
  }
  inner_product_param {
    num_output: 46168
    weight_filler {
      type: "uniform"
      min: -0.08
      max: 0.08
    }
    bias_filler {
      type: "constant"
      value: 0
    }
    axis: 2
  }
}
layer {
  name: "probs"
  type: "Softmax"
  bottom: "predict"
  top: "probs"
  softmax_param {
    axis: 2
  }
}
I0925 23:53:42.084930  9497 net.cpp:399] input -> cont_sentence
I0925 23:53:42.084947  9497 net.cpp:399] input -> input_sentence
I0925 23:53:42.084966  9497 net.cpp:399] input -> stage_indicator
I0925 23:53:42.084997  9467 net.cpp:91] Creating Layer input
I0925 23:53:42.085011  9467 net.cpp:399] input -> frames_fc7
I0925 23:53:42.085027  9467 net.cpp:399] input -> cont_sentence
…
I0925 23:53:42.085340  9487 net.cpp:399] input -> input_sentence
I0925 23:53:42.085357  9487 net.cpp:399] input -> stage_indicator
I0925 23:53:42.085718  9448 net.cpp:49] Initializing net from parameters: 
name: "s2vt:features_to_lstm"
state {
  phase: TEST
}
layer {
  name: "input"
  type: "Input"
  top: "frames_fc7"
  top: "cont_sentence"
  top: "input_sentence"
  top: "stage_indicator"
  input_param {
    shape {
      dim: 1
      dim: 4096
    }
    shape {
      dim: 1
      dim: 1
    }
    shape {
      dim: 1
      dim: 1
    }
    shape {
      dim: 1
      dim: 1
    }
  }
}
layer {
  name: "embed_encoder"
  type: "InnerProduct"
  bottom: "frames_fc7"
  top: "embedded_in_frames"
  param {
    lr_mult: 1
    decay_mult: 1
  }
  param {
    lr_mult: 2
    decay_mult: 0
  }
  inner_product_param {
    num_output: 500
    weight_filler {
      type: "xavier"
    }
    bias_filler {
      type: "constant"
      value: 0.2
    }
  }
}
layer {
  name: "reshape_frames"
  type: "Reshape"
  bottom: "embedded_in_frames"
  top: "embedded_input_frames"
  reshape_param {
    shape {
      dim: 1
      dim: 1
      dim: 500
    }
  }
}
layer {
  name: "reshape_stage_indicator"
  type: "Reshape"
  bottom: "stage_indicator"
  top: "reshaped_stage_indicator"
  reshape_param {
    shape {
      dim: 1
      dim: 1
      dim: 1
    }
  }
}
layer {
  name: "embedding"
  type: "Embed"
  bottom: "input_sentence"
  top: "embedded_input_sentence"
  param {
    lr_mult: 1
  }
  embed_param {
    num_output: 500
    input_dim: 46168
    bias_term: false
    weight_filler {
      type: "uniform"
      min: -0.08
      max: 0.08
    }
  }
}
layer {
  name: "lstm1"
  type: "LSTM"
  bottom: "embedded_input_frames"
  bottom: "cont_sentence"
  top: "lstm1"
  recurrent_param {
    num_output: 1000
    weight_filler {
      type: "uniform"
      min: -0.08
      max: 0.08
    }
    bias_filler {
      type: "constant"
      value: 0
    }
  }
}
layer {
  name: "concat"
  type: "Concat"
  bottom: "lstm1"
  bottom: "embedded_input_sentence"
  bottom: "reshaped_stage_indicator"
  top: "lstm1_video_sequence"
  concat_param {
    concat_dim: 2
  }
}
layer {
  name: "lstm2"
  type: "LSTM"
  bottom: "lstm1_video_sequence"
  bottom: "cont_sentence"
  top: "lstm2"
  recurrent_param {
    num_output: 1000
    weight_filler {
      type: "uniform"
      min: -0.08
      max: 0.08
    }
    bias_filler {
      type: "constant"
      value: 0
    }
  }
}
layer {
  name: "predict"
  type: "InnerProduct"
  bottom: "lstm2"
  top: "predict"
  param {
    lr_mult: 1
    decay_mult: 1
  }
  param {
    lr_mult: 2
    decay_mult: 0
  }
  inner_product_param {
    num_output: 46168
    weight_filler {
      type: "uniform"
      min: -0.08
      max: 0.08
    }
    bias_filler {
      type: "constant"
      value: 0
    }
    axis: 2
  }
}
layer {
  name: "probs"
  type: "Softmax"
  bottom: "predict"
  top: "probs"
  softmax_param {
    axis: 2
  }
}
I0925 23:53:42.085748  9489 net.cpp:49] Initializing net from parameters: 
name: "CaffeNet"
state {
  phase: TEST
}
layer {
  name: "data"
  type: "Input"
  top: "data"
  input_param {
    shape {
      dim: 10
      dim: 3
      dim: 227
      dim: 227
    }
  }
}
layer {
  name: "conv1"
  type: "Convolution"
  bottom: "data"
  top: "conv1"
  convolution_param {
    num_output: 96
    kernel_size: 11
    stride: 4
  }
}
layer {
  name: "relu1"
  type: "ReLU"
  bottom: "conv1"
  top: "conv1"
}
layer {
  name: "pool1"
  type: "Pooling"
  bottom: "conv1"
  top: "pool1"
  pooling_param {
    pool: MAX
    kernel_size: 3
    stride: 2
  }
}
layer {
  name: "norm1"
  type: "LRN"
  bottom: "pool1"
  top: "norm1"
  lrn_param {
    local_size: 5
    alpha: 0.0001
    beta: 0.75
  }
}
layer {
  name: "conv2"
  type: "Convolution"
  bottom: "norm1"
  top: "conv2"
  convolution_param {
    num_output: 256
    pad: 2
    kernel_size: 5
    group: 2
  }
}
layer {
  name: "relu2"
  type: "ReLU"
  bottom: "conv2"
  top: "conv2"
}
layer {
  name: "pool2"
  type: "Pooling"
  bottom: "conv2"
  top: "pool2"
  pooling_param {
    pool: MAX
    kernel_size: 3
    stride: 2
  }
}
layer {
  name: "norm2"
  type: "LRN"
  bottom: "pool2"
  top: "norm2"
  lrn_param {
    local_size: 5
    alpha: 0.0001
    beta: 0.75
  }
}
layer {
  name: "conv3"
  type: "Convolution"
  bottom: "norm2"
  top: "conv3"
  convolution_param {
    num_output: 384
    pad: 1
    kernel_size: 3
  }
}
layer {
  name: "relu3"
  type: "ReLU"
  bottom: "conv3"
  top: "conv3"
}
layer {
  name: "conv4"
  type: "Convolution"
  bottom: "conv3"
  top: "conv4"
  convolution_param {
    num_output: 384
    pad: 1
    kernel_size: 3
    group: 2
  }
}
layer {
  name: "relu4"
  type: "ReLU"
  bottom: "conv4"
  top: "conv4"
}
layer {
  name: "conv5"
  type: "Convolution"
  bottom: "conv4"
  top: "conv5"
  convolution_param {
    num_output: 256
    pad: 1
    kernel_size: 3
    group: 2
  }
}
layer {
  name: "relu5"
  type: "ReLU"
  bottom: "conv5"
  top: "conv5"
}
layer {
  name: "pool5"
  type: "Pooling"
  bottom: "conv5"
  top: "pool5"
  pooling_param {
    pool: MAX
    kernel_size: 3
    stride: 2
  }
}
layer {
  name: "fc6"
  type: "InnerProduct"
  bottom: "pool5"
  top: "fc6"
  inner_product_param {
    num_output: 4096
  }
}
layer {
  name: "relu6"
  type: "ReLU"
  bottom: "fc6"
  top: "fc6"
}
layer {
  name: "drop6"
  type: "Dropout"
  bottom: "fc6"
  top: "fc6"
  dropout_param {
    dropout_ratio: 0.5
  }
}
layer {
  name: "fc7"
  type: "InnerProduct"
  bottom: "fc6"
  top: "fc7"
  inner_product_param {
    num_output: 4096
  }
}
layer {
  name: "relu7"
  type: "ReLU"
  bottom: "fc7"
  top: "fc7"
}
layer {
  name: "drop7"
  type: "Dropout"
  bottom: "fc7"
  top: "fc7"
  dropout_param {
    dropout_ratio: 0.5
  }
}
layer {
  name: "fc8"
  type: "InnerProduct"
  bottom: "fc7"
  top: "fc8"
  inner_product_param {
    num_output: 1000
  }
}
layer {
  name: "prob"
  type: "Softmax"
  bottom: "fc8"
  top: "prob"
}
I0925 23:53:42.085876  9448 layer_factory.hpp:77] Creating layer input
I0925 23:53:42.084681  9471 net.cpp:399] input -> stage_indicator
I0925 23:53:42.085907  9448 net.cpp:91] Creating Layer input
I0925 23:53:42.085881  9489 layer_factory.hpp:77] Creating layer data
I0925 23:53:42.085925  9448 net.cpp:399] input -> frames_fc7
I0925 23:53:42.085932  9489 net.cpp:91] Creating Layer data
I0925 23:53:42.085944  9489 net.cpp:399] data -> data
I0925 23:53:42.085945  9448 net.cpp:399] input -> cont_sentence
I0925 23:53:42.085963  9448 net.cpp:399] input -> input_sentence
I0925 23:53:42.085980  9448 net.cpp:399] input -> stage_indicator
I0925 23:53:42.964643  9489 net.cpp:141] Setting up data
I0925 23:53:42.964856  9489 net.cpp:148] Top shape: 10 3 227 227 (1545870)
I0925 23:53:42.964869  9489 net.cpp:156] Memory required for data: 6183480
I0925 23:53:42.964893  9489 layer_factory.hpp:77] Creating layer conv1
I0925 23:53:42.964964  9489 net.cpp:91] Creating Layer conv1
I0925 23:53:42.964970  9497 net.cpp:141] Setting up input
I0925 23:53:42.964999  9497 net.cpp:148] Top shape: 1 4096 (4096)
I0925 23:53:42.965013  9497 net.cpp:148] Top shape: 1 1 (1)
I0925 23:53:42.965020  9497 net.cpp:148] Top shape: 1 1 (1)
I0925 23:53:42.965028  9497 net.cpp:148] Top shape: 1 1 (1)
I0925 23:53:42.964977  9489 net.cpp:425] conv1 <- data
I0925 23:53:42.965034  9497 net.cpp:156] Memory required for data: 16396
I0925 23:53:42.965061  9497 layer_factory.hpp:77] Creating layer cont_sentence_input_1_split
I0925 23:53:42.965075  9489 net.cpp:399] conv1 -> conv1
I0925 23:53:42.965095  9497 net.cpp:91] Creating Layer cont_sentence_input_1_split
I0925 23:53:42.965106  9497 net.cpp:425] cont_sentence_input_1_split <- cont_sentence
I0925 23:53:42.965131  9487 net.cpp:141] Setting up input
I0925 23:53:42.965139  9497 net.cpp:399] cont_sentence_input_1_split -> cont_sentence_input_1_split_0
I0925 23:53:42.965150  9487 net.cpp:148] Top shape: 1 4096 (4096)
I0925 23:53:42.965157  9497 net.cpp:399] cont_sentence_input_1_split -> cont_sentence_input_1_split_1
I0925 23:53:42.965162  9487 net.cpp:148] Top shape: 1 1 (1)
I0925 23:53:42.965173  9487 net.cpp:148] Top shape: 1 1 (1)
I0925 23:53:42.965183  9487 net.cpp:148] Top shape: 1 1 (1)
I0925 23:53:42.965190  9487 net.cpp:156] Memory required for data: 16396
I0925 23:53:42.965201  9487 layer_factory.hpp:77] Creating layer cont_sentence_input_1_split
I0925 23:53:42.965229  9487 net.cpp:91] Creating Layer cont_sentence_input_1_split
I0925 23:53:42.965241  9487 net.cpp:425] cont_sentence_input_1_split <- cont_sentence
I0925 23:53:42.965250  9487 net.cpp:399] cont_sentence_input_1_split -> cont_sentence_input_1_split_0
I0925 23:53:42.965260  9487 net.cpp:399] cont_sentence_input_1_split -> cont_sentence_input_1_split_1
I0925 23:53:42.965273  9452 net.cpp:141] Setting up input
I0925 23:53:42.965297  9452 net.cpp:148] Top shape: 1 4096 (4096)
I0925 23:53:42.965308  9452 net.cpp:148] Top shape: 1 1 (1)
I0925 23:53:42.965318  9452 net.cpp:148] Top shape: 1 1 (1)
I0925 23:53:42.965327  9452 net.cpp:148] Top shape: 1 1 (1)
I0925 23:53:42.965325  9467 net.cpp:141] Setting up input
I0925 23:53:42.965334  9452 net.cpp:156] Memory required for data: 16396
I0925 23:53:42.965353  9467 net.cpp:148] Top shape: 1 4096 (4096)
I0925 23:53:42.965358  9454 net.cpp:141] Setting up input
I0925 23:53:42.965370  9467 net.cpp:148] Top shape: 1 1 (1)
I0925 23:53:42.965354  9452 layer_factory.hpp:77] Creating layer cont_sentence_input_1_split
I0925 23:53:42.965382  9467 net.cpp:148] Top shape: 1 1 (1)
I0925 23:53:42.965384  9454 net.cpp:148] Top shape: 1 4096 (4096)
I0925 23:53:42.965389  9452 net.cpp:91] Creating Layer cont_sentence_input_1_split
I0925 23:53:42.965394  9467 net.cpp:148] Top shape: 1 1 (1)
I0925 23:53:42.965397  9454 net.cpp:148] Top shape: 1 1 (1)
I0925 23:53:42.965401  9467 net.cpp:156] Memory required for data: 16396
I0925 23:53:42.965399  9452 net.cpp:425] cont_sentence_input_1_split <- cont_sentence
I0925 23:53:42.965411  9467 layer_factory.hpp:77] Creating layer cont_sentence_input_1_split
I0925 23:53:42.965415  9454 net.cpp:148] Top shape: 1 1 (1)
I0925 23:53:42.965417  9497 net.cpp:141] Setting up cont_sentence_input_1_split
I0925 23:53:42.965421  9452 net.cpp:399] cont_sentence_input_1_split -> cont_sentence_input_1_split_0
I0925 23:53:42.965426  9467 net.cpp:91] Creating Layer cont_sentence_input_1_split
I0925 23:53:42.965433  9497 net.cpp:148] Top shape: 1 1 (1)
I0925 23:53:42.965438  9452 net.cpp:399] cont_sentence_input_1_split -> cont_sentence_input_1_split_1
I0925 23:53:42.965442  9467 net.cpp:425] cont_sentence_input_1_split <- cont_sentence
I0925 23:53:42.965445  9497 net.cpp:148] Top shape: 1 1 (1)
I0925 23:53:42.965461  9497 net.cpp:156] Memory required for data: 16404
I0925 23:53:42.965461  9467 net.cpp:399] cont_sentence_input_1_split -> cont_sentence_input_1_split_0
I0925 23:53:42.965474  9497 layer_factory.hpp:77] Creating layer embed_encoder
I0925 23:53:42.965487  9467 net.cpp:399] cont_sentence_input_1_split -> cont_sentence_input_1_split_1
I0925 23:53:42.965504  9497 net.cpp:91] Creating Layer embed_encoder
I0925 23:53:42.965515  9497 net.cpp:425] embed_encoder <- frames_fc7
I0925 23:53:42.965426  9454 net.cpp:148] Top shape: 1 1 (1)
I0925 23:53:42.965529  9497 net.cpp:399] embed_encoder -> embedded_in_frames
I0925 23:53:42.965540  9454 net.cpp:156] Memory required for data: 16396
I0925 23:53:42.965554  9454 layer_factory.hpp:77] Creating layer cont_sentence_input_1_split
I0925 23:53:42.965564  9448 net.cpp:141] Setting up input
I0925 23:53:42.965569  9454 net.cpp:91] Creating Layer cont_sentence_input_1_split
I0925 23:53:42.965590  9448 net.cpp:148] Top shape: 1 4096 (4096)
I0925 23:53:42.965591  9454 net.cpp:425] cont_sentence_input_1_split <- cont_sentence
I0925 23:53:42.965607  9448 net.cpp:148] Top shape: 1 1 (1)
I0925 23:53:42.965615  9454 net.cpp:399] cont_sentence_input_1_split -> cont_sentence_input_1_split_0
I0925 23:53:42.965620  9448 net.cpp:148] Top shape: 1 1 (1)
I0925 23:53:42.965629  9448 net.cpp:148] Top shape: 1 1 (1)
I0925 23:53:42.965636  9448 net.cpp:156] Memory required for data: 16396
I0925 23:53:42.965637  9454 net.cpp:399] cont_sentence_input_1_split -> cont_sentence_input_1_split_1
I0925 23:53:42.965646  9448 layer_factory.hpp:77] Creating layer cont_sentence_input_1_split
I0925 23:53:42.965664  9448 net.cpp:91] Creating Layer cont_sentence_input_1_split
I0925 23:53:42.965674  9448 net.cpp:425] cont_sentence_input_1_split <- cont_sentence
I0925 23:53:42.965690  9448 net.cpp:399] cont_sentence_input_1_split -> cont_sentence_input_1_split_0
I0925 23:53:42.965708  9448 net.cpp:399] cont_sentence_input_1_split -> cont_sentence_input_1_split_1
I0925 23:53:42.970078  9458 net.cpp:141] Setting up input
I0925 23:53:42.970126  9458 net.cpp:148] Top shape: 1 4096 (4096)
I0925 23:53:42.970139  9458 net.cpp:148] Top shape: 1 1 (1)
I0925 23:53:42.970150  9458 net.cpp:148] Top shape: 1 1 (1)
I0925 23:53:42.970160  9458 net.cpp:148] Top shape: 1 1 (1)
I0925 23:53:42.970168  9458 net.cpp:156] Memory required for data: 16396
I0925 23:53:42.970162  9452 net.cpp:141] Setting up cont_sentence_input_1_split
I0925 23:53:42.970181  9458 layer_factory.hpp:77] Creating layer cont_sentence_input_1_split
I0925 23:53:42.970199  9452 net.cpp:148] Top shape: 1 1 (1)
I0925 23:53:42.970208  9458 net.cpp:91] Creating Layer cont_sentence_input_1_split
I0925 23:53:42.970211  9452 net.cpp:148] Top shape: 1 1 (1)
I0925 23:53:42.970221  9458 net.cpp:425] cont_sentence_input_1_split <- cont_sentence
I0925 23:53:42.970221  9452 net.cpp:156] Memory required for data: 16404
I0925 23:53:42.970234  9452 layer_factory.hpp:77] Creating layer embed_encoder
I0925 23:53:42.970253  9458 net.cpp:399] cont_sentence_input_1_split -> cont_sentence_input_1_split_0
I0925 23:53:42.970260  9452 net.cpp:91] Creating Layer embed_encoder
I0925 23:53:42.970271  9452 net.cpp:425] embed_encoder <- frames_fc7
I0925 23:53:42.970278  9458 net.cpp:399] cont_sentence_input_1_split -> cont_sentence_input_1_split_1
I0925 23:53:42.970288  9452 net.cpp:399] embed_encoder -> embedded_in_frames
I0925 23:53:42.970367  9467 net.cpp:141] Setting up cont_sentence_input_1_split
I0925 23:53:42.970403  9467 net.cpp:148] Top shape: 1 1 (1)
I0925 23:53:42.970423  9467 net.cpp:148] Top shape: 1 1 (1)
I0925 23:53:42.970435  9467 net.cpp:156] Memory required for data: 16404
I0925 23:53:42.970454  9467 layer_factory.hpp:77] Creating layer embed_encoder
I0925 23:53:42.970487  9467 net.cpp:91] Creating Layer embed_encoder
I0925 23:53:42.970506  9467 net.cpp:425] embed_encoder <- frames_fc7
I0925 23:53:42.970533  9467 net.cpp:399] embed_encoder -> embedded_in_frames
I0925 23:53:42.970515  9471 net.cpp:141] Setting up input
I0925 23:53:42.970564  9471 net.cpp:148] Top shape: 1 4096 (4096)
I0925 23:53:42.970580  9471 net.cpp:148] Top shape: 1 1 (1)
I0925 23:53:42.970603  9471 net.cpp:148] Top shape: 1 1 (1)
I0925 23:53:42.970618  9471 net.cpp:148] Top shape: 1 1 (1)
I0925 23:53:42.970626  9471 net.cpp:156] Memory required for data: 16396
I0925 23:53:42.970636  9471 layer_factory.hpp:77] Creating layer cont_sentence_input_1_split
I0925 23:53:42.970655  9471 net.cpp:91] Creating Layer cont_sentence_input_1_split
I0925 23:53:42.970669  9471 net.cpp:425] cont_sentence_input_1_split <- cont_sentence
I0925 23:53:42.970686  9471 net.cpp:399] cont_sentence_input_1_split -> cont_sentence_input_1_split_0
I0925 23:53:42.970710  9471 net.cpp:399] cont_sentence_input_1_split -> cont_sentence_input_1_split_1
I0925 23:53:42.975150  9448 net.cpp:141] Setting up cont_sentence_input_1_split
I0925 23:53:42.975189  9448 net.cpp:148] Top shape: 1 1 (1)
I0925 23:53:42.975200  9448 net.cpp:148] Top shape: 1 1 (1)
I0925 23:53:42.975208  9448 net.cpp:156] Memory required for data: 16404
I0925 23:53:42.975217  9448 layer_factory.hpp:77] Creating layer embed_encoder
I0925 23:53:42.975246  9448 net.cpp:91] Creating Layer embed_encoder
I0925 23:53:42.975256  9448 net.cpp:425] embed_encoder <- frames_fc7
I0925 23:53:42.975273  9448 net.cpp:399] embed_encoder -> embedded_in_frames
I0925 23:53:42.986726  9454 net.cpp:141] Setting up cont_sentence_input_1_split
I0925 23:53:42.986788  9454 net.cpp:148] Top shape: 1 1 (1)
I0925 23:53:42.986801  9454 net.cpp:148] Top shape: 1 1 (1)
I0925 23:53:42.986809  9454 net.cpp:156] Memory required for data: 16404
I0925 23:53:42.986824  9454 layer_factory.hpp:77] Creating layer embed_encoder
I0925 23:53:42.987418  9487 net.cpp:141] Setting up cont_sentence_input_1_split
I0925 23:53:42.987411  9458 net.cpp:141] Setting up cont_sentence_input_1_split
I0925 23:53:42.987443  9487 net.cpp:148] Top shape: 1 1 (1)
I0925 23:53:42.987457  9487 net.cpp:148] Top shape: 1 1 (1)
I0925 23:53:42.987462  9458 net.cpp:148] Top shape: 1 1 (1)
I0925 23:53:42.987464  9487 net.cpp:156] Memory required for data: 16404
I0925 23:53:42.987475  9487 layer_factory.hpp:77] Creating layer embed_encoder
I0925 23:53:42.987481  9458 net.cpp:148] Top shape: 1 1 (1)
I0925 23:53:42.987488  9458 net.cpp:156] Memory required for data: 16404
I0925 23:53:42.987453  9454 net.cpp:91] Creating Layer embed_encoder
I0925 23:53:42.987496  9458 layer_factory.hpp:77] Creating layer embed_encoder
I0925 23:53:42.987521  9454 net.cpp:425] embed_encoder <- frames_fc7
I0925 23:53:42.988098  9454 net.cpp:399] embed_encoder -> embedded_in_frames
I0925 23:53:42.988178  9487 net.cpp:91] Creating Layer embed_encoder
I0925 23:53:42.988200  9487 net.cpp:425] embed_encoder <- frames_fc7
I0925 23:53:42.988220  9487 net.cpp:399] embed_encoder -> embedded_in_frames
I0925 23:53:42.988752  9458 net.cpp:91] Creating Layer embed_encoder
I0925 23:53:42.988770  9458 net.cpp:425] embed_encoder <- frames_fc7
I0925 23:53:42.988782  9458 net.cpp:399] embed_encoder -> embedded_in_frames
I0925 23:53:42.989034  9471 net.cpp:141] Setting up cont_sentence_input_1_split
I0925 23:53:42.989054  9471 net.cpp:148] Top shape: 1 1 (1)
I0925 23:53:42.989063  9471 net.cpp:148] Top shape: 1 1 (1)
I0925 23:53:42.989068  9471 net.cpp:156] Memory required for data: 16404
I0925 23:53:42.989092  9471 layer_factory.hpp:77] Creating layer embed_encoder
I0925 23:53:42.989137  9471 net.cpp:91] Creating Layer embed_encoder
I0925 23:53:42.989146  9471 net.cpp:425] embed_encoder <- frames_fc7
I0925 23:53:42.989157  9471 net.cpp:399] embed_encoder -> embedded_in_frames
I0925 23:53:43.011189  9497 net.cpp:141] Setting up embed_encoder
I0925 23:53:43.011245  9497 net.cpp:148] Top shape: 1 500 (500)
I0925 23:53:43.011255  9497 net.cpp:156] Memory required for data: 18404
I0925 23:53:43.011291  9497 layer_factory.hpp:77] Creating layer reshape_frames
I0925 23:53:43.011329  9497 net.cpp:91] Creating Layer reshape_frames
I0925 23:53:43.011339  9497 net.cpp:425] reshape_frames <- embedded_in_frames
I0925 23:53:43.011358  9497 net.cpp:399] reshape_frames -> embedded_input_frames
I0925 23:53:43.011430  9497 net.cpp:141] Setting up reshape_frames
I0925 23:53:43.011445  9497 net.cpp:148] Top shape: 1 1 500 (500)
I0925 23:53:43.011451  9497 net.cpp:156] Memory required for data: 20404
I0925 23:53:43.011459  9497 layer_factory.hpp:77] Creating layer reshape_stage_indicator
I0925 23:53:43.011476  9497 net.cpp:91] Creating Layer reshape_stage_indicator
I0925 23:53:43.011484  9497 net.cpp:425] reshape_stage_indicator <- stage_indicator
I0925 23:53:43.011497  9497 net.cpp:399] reshape_stage_indicator -> reshaped_stage_indicator
I0925 23:53:43.011548  9497 net.cpp:141] Setting up reshape_stage_indicator
I0925 23:53:43.011561  9497 net.cpp:148] Top shape: 1 1 1 (1)
I0925 23:53:43.011569  9497 net.cpp:156] Memory required for data: 20408
I0925 23:53:43.011577  9497 layer_factory.hpp:77] Creating layer embedding
I0925 23:53:43.011626  9497 net.cpp:91] Creating Layer embedding
I0925 23:53:43.011634  9497 net.cpp:425] embedding <- input_sentence
I0925 23:53:43.011646  9497 net.cpp:399] embedding -> embedded_input_sentence
I0925 23:53:43.057958  9448 net.cpp:141] Setting up embed_encoder
I0925 23:53:43.058046  9448 net.cpp:148] Top shape: 1 500 (500)
I0925 23:53:43.058059  9448 net.cpp:156] Memory required for data: 18404
I0925 23:53:43.058107  9448 layer_factory.hpp:77] Creating layer reshape_frames
I0925 23:53:43.058148  9448 net.cpp:91] Creating Layer reshape_frames
I0925 23:53:43.058163  9448 net.cpp:425] reshape_frames <- embedded_in_frames
I0925 23:53:43.058189  9448 net.cpp:399] reshape_frames -> embedded_input_frames
I0925 23:53:43.058293  9448 net.cpp:141] Setting up reshape_frames
I0925 23:53:43.058318  9448 net.cpp:148] Top shape: 1 1 500 (500)
I0925 23:53:43.058333  9448 net.cpp:156] Memory required for data: 20404
I0925 23:53:43.058347  9448 layer_factory.hpp:77] Creating layer reshape_stage_indicator
I0925 23:53:43.058377  9448 net.cpp:91] Creating Layer reshape_stage_indicator
I0925 23:53:43.058393  9448 net.cpp:425] reshape_stage_indicator <- stage_indicator
I0925 23:53:43.058418  9448 net.cpp:399] reshape_stage_indicator -> reshaped_stage_indicator
I0925 23:53:43.058478  9448 net.cpp:141] Setting up reshape_stage_indicator
I0925 23:53:43.058496  9448 net.cpp:148] Top shape: 1 1 1 (1)
I0925 23:53:43.058507  9448 net.cpp:156] Memory required for data: 20408
I0925 23:53:43.058518  9448 layer_factory.hpp:77] Creating layer embedding
I0925 23:53:43.058550  9448 net.cpp:91] Creating Layer embedding
I0925 23:53:43.058563  9448 net.cpp:425] embedding <- input_sentence
I0925 23:53:43.058583  9448 net.cpp:399] embedding -> embedded_input_sentence
I0925 23:53:43.104017  9452 net.cpp:141] Setting up embed_encoder
I0925 23:53:43.104082  9452 net.cpp:148] Top shape: 1 500 (500)
I0925 23:53:43.104094  9452 net.cpp:156] Memory required for data: 18404
I0925 23:53:43.104123  9452 layer_factory.hpp:77] Creating layer reshape_frames
I0925 23:53:43.104154  9452 net.cpp:91] Creating Layer reshape_frames
I0925 23:53:43.104162  9452 net.cpp:425] reshape_frames <- embedded_in_frames
I0925 23:53:43.104173  9452 net.cpp:399] reshape_frames -> embedded_input_frames
I0925 23:53:43.104252  9452 net.cpp:141] Setting up reshape_frames
I0925 23:53:43.104262  9452 net.cpp:148] Top shape: 1 1 500 (500)
I0925 23:53:43.104266  9452 net.cpp:156] Memory required for data: 20404
I0925 23:53:43.104271  9452 layer_factory.hpp:77] Creating layer reshape_stage_indicator
I0925 23:53:43.105213  9452 net.cpp:91] Creating Layer reshape_stage_indicator
I0925 23:53:43.105237  9452 net.cpp:425] reshape_stage_indicator <- stage_indicator
I0925 23:53:43.105258  9452 net.cpp:399] reshape_stage_indicator -> reshaped_stage_indicator
I0925 23:53:43.105446  9487 net.cpp:141] Setting up embed_encoder
I0925 23:53:43.105465  9487 net.cpp:148] Top shape: 1 500 (500)
I0925 23:53:43.105473  9487 net.cpp:156] Memory required for data: 18404
I0925 23:53:43.105496  9487 layer_factory.hpp:77] Creating layer reshape_frames
I0925 23:53:43.105530  9487 net.cpp:91] Creating Layer reshape_frames
I0925 23:53:43.105542  9487 net.cpp:425] reshape_frames <- embedded_in_frames
I0925 23:53:43.105557  9487 net.cpp:399] reshape_frames -> embedded_input_frames
I0925 23:53:43.105612  9487 net.cpp:141] Setting up reshape_frames
I0925 23:53:43.105629  9487 net.cpp:148] Top shape: 1 1 500 (500)
I0925 23:53:43.105638  9487 net.cpp:156] Memory required for data: 20404
I0925 23:53:43.105645  9487 layer_factory.hpp:77] Creating layer reshape_stage_indicator
I0925 23:53:43.105662  9487 net.cpp:91] Creating Layer reshape_stage_indicator
I0925 23:53:43.105671  9487 net.cpp:425] reshape_stage_indicator <- stage_indicator
I0925 23:53:43.105705  9487 net.cpp:399] reshape_stage_indicator -> reshaped_stage_indicator
I0925 23:53:43.105759  9487 net.cpp:141] Setting up reshape_stage_indicator
I0925 23:53:43.105778  9487 net.cpp:148] Top shape: 1 1 1 (1)
I0925 23:53:43.105785  9487 net.cpp:156] Memory required for data: 20408
I0925 23:53:43.105797  9487 layer_factory.hpp:77] Creating layer embedding
I0925 23:53:43.105813  9487 net.cpp:91] Creating Layer embedding
I0925 23:53:43.105823  9487 net.cpp:425] embedding <- input_sentence
I0925 23:53:43.105852  9487 net.cpp:399] embedding -> embedded_input_sentence
I0925 23:53:43.159042  9452 net.cpp:141] Setting up reshape_stage_indicator
I0925 23:53:43.159096  9452 net.cpp:148] Top shape: 1 1 1 (1)
I0925 23:53:43.159106  9452 net.cpp:156] Memory required for data: 20408
I0925 23:53:43.159122  9452 layer_factory.hpp:77] Creating layer embedding
I0925 23:53:43.159155  9452 net.cpp:91] Creating Layer embedding
I0925 23:53:43.159167  9452 net.cpp:425] embedding <- input_sentence
I0925 23:53:43.159185  9452 net.cpp:399] embedding -> embedded_input_sentence
I0925 23:53:43.164760  9471 net.cpp:141] Setting up embed_encoder
I0925 23:53:43.164805  9471 net.cpp:148] Top shape: 1 500 (500)
I0925 23:53:43.164811  9471 net.cpp:156] Memory required for data: 18404
I0925 23:53:43.164832  9471 layer_factory.hpp:77] Creating layer reshape_frames
I0925 23:53:43.164850  9471 net.cpp:91] Creating Layer reshape_frames
I0925 23:53:43.164858  9471 net.cpp:425] reshape_frames <- embedded_in_frames
I0925 23:53:43.164880  9471 net.cpp:399] reshape_frames -> embedded_input_frames
I0925 23:53:43.165065  9458 net.cpp:141] Setting up embed_encoder
I0925 23:53:43.165104  9458 net.cpp:148] Top shape: 1 500 (500)
I0925 23:53:43.165110  9458 net.cpp:156] Memory required for data: 18404
I0925 23:53:43.165132  9458 layer_factory.hpp:77] Creating layer reshape_frames
I0925 23:53:43.165148  9458 net.cpp:91] Creating Layer reshape_frames
I0925 23:53:43.165155  9458 net.cpp:425] reshape_frames <- embedded_in_frames
I0925 23:53:43.165169  9458 net.cpp:399] reshape_frames -> embedded_input_frames
I0925 23:53:43.222820  9471 net.cpp:141] Setting up reshape_frames
I0925 23:53:43.222877  9471 net.cpp:148] Top shape: 1 1 500 (500)
I0925 23:53:43.222887  9471 net.cpp:156] Memory required for data: 20404
I0925 23:53:43.222901  9471 layer_factory.hpp:77] Creating layer reshape_stage_indicator
I0925 23:53:43.222947  9471 net.cpp:91] Creating Layer reshape_stage_indicator
I0925 23:53:43.222959  9471 net.cpp:425] reshape_stage_indicator <- stage_indicator
I0925 23:53:43.222960  9458 net.cpp:141] Setting up reshape_frames
I0925 23:53:43.223013  9458 net.cpp:148] Top shape: 1 1 500 (500)
I0925 23:53:43.223023  9458 net.cpp:156] Memory required for data: 20404
I0925 23:53:43.223037  9458 layer_factory.hpp:77] Creating layer reshape_stage_indicator
I0925 23:53:43.223067  9458 net.cpp:91] Creating Layer reshape_stage_indicator
I0925 23:53:43.223078  9458 net.cpp:425] reshape_stage_indicator <- stage_indicator
I0925 23:53:43.223095  9458 net.cpp:399] reshape_stage_indicator -> reshaped_stage_indicator
I0925 23:53:43.223170  9458 net.cpp:141] Setting up reshape_stage_indicator
I0925 23:53:43.223184  9458 net.cpp:148] Top shape: 1 1 1 (1)
I0925 23:53:43.223192  9458 net.cpp:156] Memory required for data: 20408
I0925 23:53:43.223201  9458 layer_factory.hpp:77] Creating layer embedding
I0925 23:53:43.223220  9458 net.cpp:91] Creating Layer embedding
I0925 23:53:43.223228  9458 net.cpp:425] embedding <- input_sentence
I0925 23:53:43.223242  9458 net.cpp:399] embedding -> embedded_input_sentence
I0925 23:53:43.222977  9471 net.cpp:399] reshape_stage_indicator -> reshaped_stage_indicator
I0925 23:53:43.266240  9467 net.cpp:141] Setting up embed_encoder
I0925 23:53:43.266305  9467 net.cpp:148] Top shape: 1 500 (500)
I0925 23:53:43.266316  9467 net.cpp:156] Memory required for data: 18404
I0925 23:53:43.266327  9471 net.cpp:141] Setting up reshape_stage_indicator
I0925 23:53:43.266353  9467 layer_factory.hpp:77] Creating layer reshape_frames
I0925 23:53:43.266367  9471 net.cpp:148] Top shape: 1 1 1 (1)
I0925 23:53:43.266353  9454 net.cpp:141] Setting up embed_encoder
I0925 23:53:43.266377  9471 net.cpp:156] Memory required for data: 20408
I0925 23:53:43.266393  9467 net.cpp:91] Creating Layer reshape_frames
I0925 23:53:43.266396  9454 net.cpp:148] Top shape: 1 500 (500)
I0925 23:53:43.266407  9467 net.cpp:425] reshape_frames <- embedded_in_frames
I0925 23:53:43.266410  9454 net.cpp:156] Memory required for data: 18404
I0925 23:53:43.266398  9471 layer_factory.hpp:77] Creating layer embedding
I0925 23:53:43.266428  9467 net.cpp:399] reshape_frames -> embedded_input_frames
I0925 23:53:43.266430  9454 layer_factory.hpp:77] Creating layer reshape_frames
I0925 23:53:43.266441  9471 net.cpp:91] Creating Layer embedding
I0925 23:53:43.266450  9471 net.cpp:425] embedding <- input_sentence
I0925 23:53:43.266456  9454 net.cpp:91] Creating Layer reshape_frames
I0925 23:53:43.266463  9471 net.cpp:399] embedding -> embedded_input_sentence
I0925 23:53:43.266469  9454 net.cpp:425] reshape_frames <- embedded_in_frames
I0925 23:53:43.266485  9454 net.cpp:399] reshape_frames -> embedded_input_frames
I0925 23:53:43.272126  9454 net.cpp:141] Setting up reshape_frames
I0925 23:53:43.272172  9454 net.cpp:148] Top shape: 1 1 500 (500)
I0925 23:53:43.272181  9454 net.cpp:156] Memory required for data: 20404
I0925 23:53:43.272193  9454 layer_factory.hpp:77] Creating layer reshape_stage_indicator
I0925 23:53:43.272225  9454 net.cpp:91] Creating Layer reshape_stage_indicator
I0925 23:53:43.272236  9454 net.cpp:425] reshape_stage_indicator <- stage_indicator
I0925 23:53:43.272254  9454 net.cpp:399] reshape_stage_indicator -> reshaped_stage_indicator
I0925 23:53:43.272328  9454 net.cpp:141] Setting up reshape_stage_indicator
I0925 23:53:43.272342  9454 net.cpp:148] Top shape: 1 1 1 (1)
I0925 23:53:43.272351  9454 net.cpp:156] Memory required for data: 20408
I0925 23:53:43.272357  9454 layer_factory.hpp:77] Creating layer embedding
I0925 23:53:43.272377  9454 net.cpp:91] Creating Layer embedding
I0925 23:53:43.272385  9454 net.cpp:425] embedding <- input_sentence
I0925 23:53:43.272399  9454 net.cpp:399] embedding -> embedded_input_sentence
I0925 23:53:43.357105  9467 net.cpp:141] Setting up reshape_frames
I0925 23:53:43.357146  9448 net.cpp:141] Setting up embedding
I0925 23:53:43.357157  9467 net.cpp:148] Top shape: 1 1 500 (500)
I0925 23:53:43.357164  9448 net.cpp:148] Top shape: 1 1 500 (500)
I0925 23:53:43.357169  9448 net.cpp:156] Memory required for data: 22408
I0925 23:53:43.357168  9467 net.cpp:156] Memory required for data: 20404
I0925 23:53:43.357190  9467 layer_factory.hpp:77] Creating layer reshape_stage_indicator
I0925 23:53:43.357194  9448 layer_factory.hpp:77] Creating layer lstm1
I0925 23:53:43.357199  9497 net.cpp:141] Setting up embedding
I0925 23:53:43.357218  9497 net.cpp:148] Top shape: 1 1 500 (500)
I0925 23:53:43.357221  9448 net.cpp:91] Creating Layer lstm1
I0925 23:53:43.357223  9497 net.cpp:156] Memory required for data: 22408
I0925 23:53:43.357235  9448 net.cpp:425] lstm1 <- embedded_input_frames
I0925 23:53:43.357221  9467 net.cpp:91] Creating Layer reshape_stage_indicator
I0925 23:53:43.357244  9448 net.cpp:425] lstm1 <- cont_sentence_input_1_split_0
I0925 23:53:43.357246  9497 layer_factory.hpp:77] Creating layer lstm1
…
I0925 23:53:43.357296  9497 recurrent_layer.cpp:20] Initializing recurrent layer: assuming input batch contains 1 timesteps of 1 independent streams.
I0925 23:53:43.357702  9497 net.cpp:49] Initializing net from parameters: 
layer {
  name: "lstm1_"
  type: "Input"
  top: "x"
  top: "cont"
  input_param {
    shape {
      dim: 1
      dim: 1
      dim: 500
    }
    shape {
      dim: 1
      dim: 1
    }
  }
}
layer {
  name: "lstm1_"
  type: "Input"
  top: "c_0"
  top: "h_0"
  input_param {
    shape {
      dim: 1
      dim: 1
      dim: 1000
    }
    shape {
      dim: 1
      dim: 1
      dim: 1000
    }
  }
}
layer {
  name: "lstm1_cont_slice"
  type: "Slice"
  bottom: "cont"
  top: "cont_1"
  slice_param {
    axis: 0
  }
}
layer {
  name: "lstm1_x_transform"
  type: "InnerProduct"
  bottom: "x"
  top: "W_xc_x"
  param {
    name: "W_xc"
  }
  param {
    name: "b_c"
  }
  propagate_down: true
  inner_product_param {
    num_output: 4000
    bias_term: true
    weight_filler {
      type: "uniform"
      min: -0.08
      max: 0.08
    }
    bias_filler {
      type: "constant"
      value: 0
    }
    axis: 2
  }
}
layer {
  name: "lstm1_W_xc_x_slice"
  type: "Slice"
  bottom: "W_xc_x"
  top: "W_xc_x_1"
  slice_param {
    axis: 0
  }
}
layer {
  name: "lstm1_h_conted_0"
  type: "Scale"
  bottom: "h_0"
  bottom: "cont_1"
  top: "h_conted_0"
  scale_param {
    axis: 0
  }
}
layer {
  name: "lstm1_transform_1"
  type: "InnerProduct"
  bottom: "h_conted_0"
  top: "W_hc_h_0"
  param {
    name: "W_hc"
  }
  inner_product_param {
    num_output: 4000
    bias_term: false
    weight_filler {
      type: "uniform"
      min: -0.08
      max: 0.08
    }
    axis: 2
  }
}
layer {
  name: "lstm1_gate_input_1"
  type: "Eltwise"
  bottom: "W_hc_h_0"
  bottom: "W_xc_x_1"
  top: "gate_input_1"
  eltwise_param {
    operation: SUM
  }
}
layer {
  name: "lstm1_unit_1"
  type: "LSTMUnit"
  bottom: "c_0"
  bottom: "gate_input_1"
  bottom: "cont_1"
  top: "c_1"
  top: "h_1"
}
layer {
  name: "lstm1_"
  type: "Split"
  bottom: "c_1"
  top: "c_T"
}
layer {
  name: "lstm1_h_concat"
  type: "Concat"
  bottom: "h_1"
  top: "h"
  concat_param {
    axis: 0
  }
}
layer {
  name: "h_pseudoloss"
  type: "Reduction"
  bottom: "h"
  top: "h_pseudoloss"
  loss_weight: 1
}
I0925 23:53:43.357703  9448 net.cpp:49] Initializing net from parameters: 
layer {
  name: "lstm1_"
  type: "Input"
  top: "x"
  top: "cont"
  input_param {
    shape {
      dim: 1
      dim: 1
      dim: 500
    }
    shape {
      dim: 1
      dim: 1
    }
  }
}
layer {
  name: "lstm1_"
  type: "Input"
  top: "c_0"
  top: "h_0"
  input_param {
    shape {
      dim: 1
      dim: 1
      dim: 1000
    }
    shape {
      dim: 1
      dim: 1
      dim: 1000
    }
  }
}
layer {
  name: "lstm1_cont_slice"
  type: "Slice"
  bottom: "cont"
  top: "cont_1"
  slice_param {
    axis: 0
  }
}
layer {
  name: "lstm1_x_transform"
  type: "InnerProduct"
  bottom: "x"
  top: "W_xc_x"
  param {
    name: "W_xc"
  }
  param {
    name: "b_c"
  }
  propagate_down: true
  inner_product_param {
    num_output: 4000
    bias_term: true
    weight_filler {
      type: "uniform"
      min: -0.08
      max: 0.08
    }
    bias_filler {
      type: "constant"
      value: 0
    }
    axis: 2
  }
}
layer {
  name: "lstm1_W_xc_x_slice"
  type: "Slice"
  bottom: "W_xc_x"
  top: "W_xc_x_1"
  slice_param {
    axis: 0
  }
}
layer {
  name: "lstm1_h_conted_0"
  type: "Scale"
  bottom: "h_0"
  bottom: "cont_1"
  top: "h_conted_0"
  scale_param {
    axis: 0
  }
}
layer {
  name: "lstm1_transform_1"
  type: "InnerProduct"
  bottom: "h_conted_0"
  top: "W_hc_h_0"
  param {
    name: "W_hc"
  }
  inner_product_param {
    num_output: 4000
    bias_term: false
    weight_filler {
      type: "uniform"
      min: -0.08
      max: 0.08
    }
    axis: 2
  }
}
layer {
  name: "lstm1_gate_input_1"
  type: "Eltwise"
  bottom: "W_hc_h_0"
  bottom: "W_xc_x_1"
  top: "gate_input_1"
  eltwise_param {
    operation: SUM
  }
}
layer {
  name: "lstm1_unit_1"
  type: "LSTMUnit"
  bottom: "c_0"
  bottom: "gate_input_1"
  bottom: "cont_1"
  top: "c_1"
  top: "h_1"
}
layer {
  name: "lstm1_"
  type: "Split"
  bottom: "c_1"
  top: "c_T"
}
layer {
  name: "lstm1_h_concat"
  type: "Concat"
  bottom: "h_1"
  top: "h"
  concat_param {
    axis: 0
  }
}
layer {
  name: "h_pseudoloss"
  type: "Reduction"
  bottom: "h"
  top: "h_pseudoloss"
  loss_weight: 1
}
I0925 23:53:43.357805  9448 layer_factory.hpp:77] Creating layer lstm1_
I0925 23:53:43.357807  9497 layer_factory.hpp:77] Creating layer lstm1_
I0925 23:53:43.357825  9448 net.cpp:91] Creating Layer lstm1_
I0925 23:53:43.357830  9497 net.cpp:91] Creating Layer lstm1_
I0925 23:53:43.357831  9448 net.cpp:399] lstm1_ -> x
I0925 23:53:43.357841  9497 net.cpp:399] lstm1_ -> x
I0925 23:53:43.357851  9448 net.cpp:399] lstm1_ -> cont
I0925 23:53:43.357853  9497 net.cpp:399] lstm1_ -> cont
I0925 23:53:43.360569  9467 net.cpp:141] Setting up reshape_stage_indicator
I0925 23:53:43.360585  9467 net.cpp:148] Top shape: 1 1 1 (1)
I0925 23:53:43.360590  9467 net.cpp:156] Memory required for data: 20408
I0925 23:53:43.360595  9467 layer_factory.hpp:77] Creating layer embedding
I0925 23:53:43.360607  9467 net.cpp:91] Creating Layer embedding
I0925 23:53:43.360613  9467 net.cpp:425] embedding <- input_sentence
I0925 23:53:43.360615  9497 net.cpp:141] Setting up lstm1_
I0925 23:53:43.360621  9467 net.cpp:399] embedding -> embedded_input_sentence
I0925 23:53:43.360625  9497 net.cpp:148] Top shape: 1 1 500 (500)
I0925 23:53:43.360632  9497 net.cpp:148] Top shape: 1 1 (1)
I0925 23:53:43.360636  9497 net.cpp:156] Memory required for data: 2004
I0925 23:53:43.360641  9497 layer_factory.hpp:77] Creating layer lstm1_
I0925 23:53:43.360651  9497 net.cpp:91] Creating Layer lstm1_
I0925 23:53:43.360662  9497 net.cpp:399] lstm1_ -> c_0
I0925 23:53:43.360673  9497 net.cpp:399] lstm1_ -> h_0
I0925 23:53:43.360833  9487 net.cpp:141] Setting up embedding
I0925 23:53:43.360878  9487 net.cpp:148] Top shape: 1 1 500 (500)
I0925 23:53:43.360883  9487 net.cpp:156] Memory required for data: 22408
I0925 23:53:43.360903  9487 layer_factory.hpp:77] Creating layer lstm1
I0925 23:53:43.360924  9487 net.cpp:91] Creating Layer lstm1
I0925 23:53:43.360931  9487 net.cpp:425] lstm1 <- embedded_input_frames
I0925 23:53:43.360940  9487 net.cpp:425] lstm1 <- cont_sentence_input_1_split_0
I0925 23:53:43.360954  9487 net.cpp:399] lstm1 -> lstm1
I0925 23:53:43.360972  9487 recurrent_layer.cpp:20] Initializing recurrent layer: assuming input batch contains 1 timesteps of 1 independent streams.
I0925 23:53:43.361271  9487 net.cpp:49] Initializing net from parameters: 
layer {
  name: "lstm1_"
  type: "Input"
  top: "x"
  top: "cont"
  input_param {
    shape {
      dim: 1
      dim: 1
      dim: 500
    }
    shape {
      dim: 1
      dim: 1
    }
  }
}
layer {
  name: "lstm1_"
  type: "Input"
  top: "c_0"
  top: "h_0"
  input_param {
    shape {
      dim: 1
      dim: 1
      dim: 1000
    }
    shape {
      dim: 1
      dim: 1
      dim: 1000
    }
  }
}
layer {
  name: "lstm1_cont_slice"
  type: "Slice"
  bottom: "cont"
  top: "cont_1"
  slice_param {
    axis: 0
  }
}
layer {
  name: "lstm1_x_transform"
  type: "InnerProduct"
  bottom: "x"
  top: "W_xc_x"
  param {
    name: "W_xc"
  }
  param {
    name: "b_c"
  }
  propagate_down: true
  inner_product_param {
    num_output: 4000
    bias_term: true
    weight_filler {
      type: "uniform"
      min: -0.08
      max: 0.08
    }
    bias_filler {
      type: "constant"
      value: 0
    }
    axis: 2
  }
}
layer {
  name: "lstm1_W_xc_x_slice"
  type: "Slice"
  bottom: "W_xc_x"
  top: "W_xc_x_1"
  slice_param {
    axis: 0
  }
}
layer {
  name: "lstm1_h_conted_0"
  type: "Scale"
  bottom: "h_0"
  bottom: "cont_1"
  top: "h_conted_0"
  scale_param {
    axis: 0
  }
}
layer {
  name: "lstm1_transform_1"
  type: "InnerProduct"
  bottom: "h_conted_0"
  top: "W_hc_h_0"
  param {
    name: "W_hc"
  }
  inner_product_param {
    num_output: 4000
    bias_term: false
    weight_filler {
      type: "uniform"
      min: -0.08
      max: 0.08
    }
    axis: 2
  }
}
layer {
  name: "lstm1_gate_input_1"
  type: "Eltwise"
  bottom: "W_hc_h_0"
  bottom: "W_xc_x_1"
  top: "gate_input_1"
  eltwise_param {
    operation: SUM
  }
}
layer {
  name: "lstm1_unit_1"
  type: "LSTMUnit"
  bottom: "c_0"
  bottom: "gate_input_1"
  bottom: "cont_1"
  top: "c_1"
  top: "h_1"
}
layer {
  name: "lstm1_"
  type: "Split"
  bottom: "c_1"
  top: "c_T"
}
layer {
  name: "lstm1_h_concat"
  type: "Concat"
  bottom: "h_1"
  top: "h"
  concat_param {
    axis: 0
  }
}
layer {
  name: "h_pseudoloss"
  type: "Reduction"
  bottom: "h"
  top: "h_pseudoloss"
  loss_weight: 1
}
I0925 23:53:43.361367  9487 layer_factory.hpp:77] Creating layer lstm1_
I0925 23:53:43.361379  9487 net.cpp:91] Creating Layer lstm1_
I0925 23:53:43.361385  9487 net.cpp:399] lstm1_ -> x
I0925 23:53:43.361397  9487 net.cpp:399] lstm1_ -> cont
I0925 23:53:43.400867  9497 net.cpp:141] Setting up lstm1_
I0925 23:53:43.400916  9497 net.cpp:148] Top shape: 1 1 1000 (1000)
I0925 23:53:43.400928  9497 net.cpp:148] Top shape: 1 1 1000 (1000)
I0925 23:53:43.400935  9497 net.cpp:156] Memory required for data: 10004
I0925 23:53:43.400945  9497 layer_factory.hpp:77] Creating layer lstm1_cont_slice
I0925 23:53:43.400972  9497 net.cpp:91] Creating Layer lstm1_cont_slice
I0925 23:53:43.400980  9497 net.cpp:425] lstm1_cont_slice <- cont
I0925 23:53:43.400997  9497 net.cpp:399] lstm1_cont_slice -> cont_1
I0925 23:53:43.401010  9487 net.cpp:141] Setting up lstm1_
I0925 23:53:43.401054  9487 net.cpp:148] Top shape: 1 1 500 (500)
I0925 23:53:43.401062  9487 net.cpp:148] Top shape: 1 1 (1)
I0925 23:53:43.401067  9487 net.cpp:156] Memory required for data: 2004
I0925 23:53:43.401075  9487 layer_factory.hpp:77] Creating layer lstm1_
I0925 23:53:43.401082  9448 net.cpp:141] Setting up lstm1_
I0925 23:53:43.401096  9487 net.cpp:91] Creating Layer lstm1_
I0925 23:53:43.401108  9448 net.cpp:148] Top shape: 1 1 500 (500)
I0925 23:53:43.401115  9487 net.cpp:399] lstm1_ -> c_0
I0925 23:53:43.401118  9448 net.cpp:148] Top shape: 1 1 (1)
I0925 23:53:43.401124  9448 net.cpp:156] Memory required for data: 2004
I0925 23:53:43.401129  9448 layer_factory.hpp:77] Creating layer lstm1_
I0925 23:53:43.401135  9487 net.cpp:399] lstm1_ -> h_0
I0925 23:53:43.401132  9452 net.cpp:141] Setting up embedding
I0925 23:53:43.401144  9448 net.cpp:91] Creating Layer lstm1_
I0925 23:53:43.401157  9452 net.cpp:148] Top shape: 1 1 500 (500)
I0925 23:53:43.401159  9448 net.cpp:399] lstm1_ -> c_0
I0925 23:53:43.401160  9497 net.cpp:141] Setting up lstm1_cont_slice
I0925 23:53:43.401163  9452 net.cpp:156] Memory required for data: 22408
I0925 23:53:43.401176  9448 net.cpp:399] lstm1_ -> h_0
I0925 23:53:43.401176  9497 net.cpp:148] Top shape: 1 1 (1)
I0925 23:53:43.401188  9452 layer_factory.hpp:77] Creating layer lstm1
I0925 23:53:43.401190  9497 net.cpp:156] Memory required for data: 10008
I0925 23:53:43.401201  9497 layer_factory.hpp:77] Creating layer cont_1_lstm1_cont_slice_0_split
I0925 23:53:43.401212  9497 net.cpp:91] Creating Layer cont_1_lstm1_cont_slice_0_split
I0925 23:53:43.401216  9452 net.cpp:91] Creating Layer lstm1
I0925 23:53:43.401221  9497 net.cpp:425] cont_1_lstm1_cont_slice_0_split <- cont_1
I0925 23:53:43.401223  9487 net.cpp:141] Setting up lstm1_
I0925 23:53:43.401223  9452 net.cpp:425] lstm1 <- embedded_input_frames
I0925 23:53:43.401235  9487 net.cpp:148] Top shape: 1 1 1000 (1000)
I0925 23:53:43.401237  9452 net.cpp:425] lstm1 <- cont_sentence_input_1_split_0
I0925 23:53:43.401238  9497 net.cpp:399] cont_1_lstm1_cont_slice_0_split -> cont_1_lstm1_cont_slice_0_split_0
I0925 23:53:43.401242  9487 net.cpp:148] Top shape: 1 1 1000 (1000)
I0925 23:53:43.401247  9487 net.cpp:156] Memory required for data: 10004
I0925 23:53:43.401250  9452 net.cpp:399] lstm1 -> lstm1
I0925 23:53:43.401254  9487 layer_factory.hpp:77] Creating layer lstm1_cont_slice
I0925 23:53:43.401250  9497 net.cpp:399] cont_1_lstm1_cont_slice_0_split -> cont_1_lstm1_cont_slice_0_split_1
I0925 23:53:43.401265  9487 net.cpp:91] Creating Layer lstm1_cont_slice
I0925 23:53:43.401269  9452 recurrent_layer.cpp:20] Initializing recurrent layer: assuming input batch contains 1 timesteps of 1 independent streams.
I0925 23:53:43.401271  9487 net.cpp:425] lstm1_cont_slice <- cont
I0925 23:53:43.401283  9448 net.cpp:141] Setting up lstm1_
I0925 23:53:43.401295  9487 net.cpp:399] lstm1_cont_slice -> cont_1
I0925 23:53:43.401296  9448 net.cpp:148] Top shape: 1 1 1000 (1000)
I0925 23:53:43.401312  9448 net.cpp:148] Top shape: 1 1 1000 (1000)
I0925 23:53:43.401317  9448 net.cpp:156] Memory required for data: 10004
I0925 23:53:43.401322  9448 layer_factory.hpp:77] Creating layer lstm1_cont_slice
I0925 23:53:43.401335  9448 net.cpp:91] Creating Layer lstm1_cont_slice
I0925 23:53:43.401340  9448 net.cpp:425] lstm1_cont_slice <- cont
I0925 23:53:43.401347  9448 net.cpp:399] lstm1_cont_slice -> cont_1
I0925 23:53:43.401361  9497 net.cpp:141] Setting up cont_1_lstm1_cont_slice_0_split
I0925 23:53:43.401373  9497 net.cpp:148] Top shape: 1 1 (1)
I0925 23:53:43.401379  9497 net.cpp:148] Top shape: 1 1 (1)
I0925 23:53:43.401386  9497 net.cpp:156] Memory required for data: 10016
I0925 23:53:43.401391  9448 net.cpp:141] Setting up lstm1_cont_slice
I0925 23:53:43.401393  9497 layer_factory.hpp:77] Creating layer lstm1_x_transform
I0925 23:53:43.401401  9448 net.cpp:148] Top shape: 1 1 (1)
I0925 23:53:43.401406  9448 net.cpp:156] Memory required for data: 10008
I0925 23:53:43.401410  9448 layer_factory.hpp:77] Creating layer cont_1_lstm1_cont_slice_0_split
I0925 23:53:43.401413  9497 net.cpp:91] Creating Layer lstm1_x_transform
I0925 23:53:43.401417  9448 net.cpp:91] Creating Layer cont_1_lstm1_cont_slice_0_split
I0925 23:53:43.401420  9497 net.cpp:425] lstm1_x_transform <- x
I0925 23:53:43.401422  9448 net.cpp:425] cont_1_lstm1_cont_slice_0_split <- cont_1
I0925 23:53:43.401429  9497 net.cpp:399] lstm1_x_transform -> W_xc_x
I0925 23:53:43.401434  9448 net.cpp:399] cont_1_lstm1_cont_slice_0_split -> cont_1_lstm1_cont_slice_0_split_0
I0925 23:53:43.401443  9448 net.cpp:399] cont_1_lstm1_cont_slice_0_split -> cont_1_lstm1_cont_slice_0_split_1
I0925 23:53:43.401444  9487 net.cpp:141] Setting up lstm1_cont_slice
I0925 23:53:43.401455  9487 net.cpp:148] Top shape: 1 1 (1)
I0925 23:53:43.401460  9487 net.cpp:156] Memory required for data: 10008
I0925 23:53:43.401466  9487 layer_factory.hpp:77] Creating layer cont_1_lstm1_cont_slice_0_split
I0925 23:53:43.401484  9487 net.cpp:91] Creating Layer cont_1_lstm1_cont_slice_0_split
I0925 23:53:43.401489  9487 net.cpp:425] cont_1_lstm1_cont_slice_0_split <- cont_1
I0925 23:53:43.401496  9487 net.cpp:399] cont_1_lstm1_cont_slice_0_split -> cont_1_lstm1_cont_slice_0_split_0
I0925 23:53:43.401504  9487 net.cpp:399] cont_1_lstm1_cont_slice_0_split -> cont_1_lstm1_cont_slice_0_split_1
I0925 23:53:43.401576  9487 net.cpp:141] Setting up cont_1_lstm1_cont_slice_0_split
I0925 23:53:43.401585  9487 net.cpp:148] Top shape: 1 1 (1)
I0925 23:53:43.401592  9487 net.cpp:148] Top shape: 1 1 (1)
I0925 23:53:43.401587  9452 net.cpp:49] Initializing net from parameters: 
layer {
  name: "lstm1_"
  type: "Input"
  top: "x"
  top: "cont"
  input_param {
    shape {
      dim: 1
      dim: 1
      dim: 500
    }
    shape {
      dim: 1
      dim: 1
    }
  }
}
layer {
  name: "lstm1_"
  type: "Input"
  top: "c_0"
  top: "h_0"
  input_param {
    shape {
      dim: 1
      dim: 1
      dim: 1000
    }
    shape {
      dim: 1
      dim: 1
      dim: 1000
    }
  }
}
layer {
  name: "lstm1_cont_slice"
  type: "Slice"
  bottom: "cont"
  top: "cont_1"
  slice_param {
    axis: 0
  }
}
layer {
  name: "lstm1_x_transform"
  type: "InnerProduct"
  bottom: "x"
  top: "W_xc_x"
  param {
    name: "W_xc"
  }
  param {
    name: "b_c"
  }
  propagate_down: true
  inner_product_param {
    num_output: 4000
    bias_term: true
    weight_filler {
      type: "uniform"
      min: -0.08
      max: 0.08
    }
    bias_filler {
      type: "constant"
      value: 0
    }
    axis: 2
  }
}
layer {
  name: "lstm1_W_xc_x_slice"
  type: "Slice"
  bottom: "W_xc_x"
  top: "W_xc_x_1"
  slice_param {
    axis: 0
  }
}
layer {
  name: "lstm1_h_conted_0"
  type: "Scale"
  bottom: "h_0"
  bottom: "cont_1"
  top: "h_conted_0"
  scale_param {
    axis: 0
  }
}
layer {
  name: "lstm1_transform_1"
  type: "InnerProduct"
  bottom: "h_conted_0"
  top: "W_hc_h_0"
  param {
    name: "W_hc"
  }
  inner_product_param {
    num_output: 4000
    bias_term: false
    weight_filler {
      type: "uniform"
      min: -0.08
      max: 0.08
    }
    axis: 2
  }
}
layer {
  name: "lstm1_gate_input_1"
  type: "Eltwise"
  bottom: "W_hc_h_0"
  bottom: "W_xc_x_1"
  top: "gate_input_1"
  eltwise_param {
    operation: SUM
  }
}
layer {
  name: "lstm1_unit_1"
  type: "LSTMUnit"
  bottom: "c_0"
  bottom: "gate_input_1"
  bottom: "cont_1"
  top: "c_1"
  top: "h_1"
}
layer {
  name: "lstm1_"
  type: "Split"
  bottom: "c_1"
  top: "c_T"
}
layer {
  name: "lstm1_h_concat"
  type: "Concat"
  bottom: "h_1"
  top: "h"
  concat_param {
    axis: 0
  }
}
layer {
  name: "h_pseudoloss"
  type: "Reduction"
  bottom: "h"
  top: "h_pseudoloss"
  loss_weight: 1
}
I0925 23:53:43.401598  9487 net.cpp:156] Memory required for data: 10016
I0925 23:53:43.401604  9487 layer_factory.hpp:77] Creating layer lstm1_x_transform
I0925 23:53:43.401618  9487 net.cpp:91] Creating Layer lstm1_x_transform
I0925 23:53:43.401623  9487 net.cpp:425] lstm1_x_transform <- x
I0925 23:53:43.401630  9487 net.cpp:399] lstm1_x_transform -> W_xc_x
I0925 23:53:43.401644  9448 net.cpp:141] Setting up cont_1_lstm1_cont_slice_0_split
I0925 23:53:43.401659  9448 net.cpp:148] Top shape: 1 1 (1)
I0925 23:53:43.401666  9448 net.cpp:148] Top shape: 1 1 (1)
I0925 23:53:43.401670  9448 net.cpp:156] Memory required for data: 10016
I0925 23:53:43.401675  9448 layer_factory.hpp:77] Creating layer lstm1_x_transform
I0925 23:53:43.401690  9448 net.cpp:91] Creating Layer lstm1_x_transform
I0925 23:53:43.401695  9448 net.cpp:425] lstm1_x_transform <- x
I0925 23:53:43.401700  9452 layer_factory.hpp:77] Creating layer lstm1_
I0925 23:53:43.401705  9448 net.cpp:399] lstm1_x_transform -> W_xc_x
I0925 23:53:43.401711  9452 net.cpp:91] Creating Layer lstm1_
I0925 23:53:43.401717  9452 net.cpp:399] lstm1_ -> x
I0925 23:53:43.401729  9452 net.cpp:399] lstm1_ -> cont
I0925 23:53:43.410347  9452 net.cpp:141] Setting up lstm1_
I0925 23:53:43.410398  9452 net.cpp:148] Top shape: 1 1 500 (500)
I0925 23:53:43.410408  9452 net.cpp:148] Top shape: 1 1 (1)
I0925 23:53:43.410413  9452 net.cpp:156] Memory required for data: 2004
I0925 23:53:43.410423  9452 layer_factory.hpp:77] Creating layer lstm1_
I0925 23:53:43.410444  9452 net.cpp:91] Creating Layer lstm1_
I0925 23:53:43.410475  9452 net.cpp:399] lstm1_ -> c_0
I0925 23:53:43.410498  9452 net.cpp:399] lstm1_ -> h_0
I0925 23:53:43.414717  9452 net.cpp:141] Setting up lstm1_
I0925 23:53:43.414772  9452 net.cpp:148] Top shape: 1 1 1000 (1000)
I0925 23:53:43.414779  9452 net.cpp:148] Top shape: 1 1 1000 (1000)
I0925 23:53:43.414783  9452 net.cpp:156] Memory required for data: 10004
I0925 23:53:43.414793  9452 layer_factory.hpp:77] Creating layer lstm1_cont_slice
I0925 23:53:43.414814  9452 net.cpp:91] Creating Layer lstm1_cont_slice
I0925 23:53:43.414821  9452 net.cpp:425] lstm1_cont_slice <- cont
I0925 23:53:43.414832  9452 net.cpp:399] lstm1_cont_slice -> cont_1
I0925 23:53:43.422485  9452 net.cpp:141] Setting up lstm1_cont_slice
I0925 23:53:43.422533  9452 net.cpp:148] Top shape: 1 1 (1)
I0925 23:53:43.422539  9452 net.cpp:156] Memory required for data: 10008
I0925 23:53:43.422549  9452 layer_factory.hpp:77] Creating layer cont_1_lstm1_cont_slice_0_split
I0925 23:53:43.422564  9452 net.cpp:91] Creating Layer cont_1_lstm1_cont_slice_0_split
I0925 23:53:43.422574  9452 net.cpp:425] cont_1_lstm1_cont_slice_0_split <- cont_1
I0925 23:53:43.422585  9452 net.cpp:399] cont_1_lstm1_cont_slice_0_split -> cont_1_lstm1_cont_slice_0_split_0
I0925 23:53:43.422608  9452 net.cpp:399] cont_1_lstm1_cont_slice_0_split -> cont_1_lstm1_cont_slice_0_split_1
I0925 23:53:43.423524  9497 net.cpp:141] Setting up lstm1_x_transform
I0925 23:53:43.423542  9497 net.cpp:148] Top shape: 1 1 4000 (4000)
I0925 23:53:43.423549  9497 net.cpp:156] Memory required for data: 26016
I0925 23:53:43.423557  9452 net.cpp:141] Setting up cont_1_lstm1_cont_slice_0_split
I0925 23:53:43.423570  9497 layer_factory.hpp:77] Creating layer lstm1_W_xc_x_slice
I0925 23:53:43.423574  9452 net.cpp:148] Top shape: 1 1 (1)
I0925 23:53:43.423581  9452 net.cpp:148] Top shape: 1 1 (1)
I0925 23:53:43.423583  9497 net.cpp:91] Creating Layer lstm1_W_xc_x_slice
I0925 23:53:43.423585  9452 net.cpp:156] Memory required for data: 10016
I0925 23:53:43.423589  9497 net.cpp:425] lstm1_W_xc_x_slice <- W_xc_x
I0925 23:53:43.423591  9452 layer_factory.hpp:77] Creating layer lstm1_x_transform
I0925 23:53:43.423599  9497 net.cpp:399] lstm1_W_xc_x_slice -> W_xc_x_1
I0925 23:53:43.423609  9452 net.cpp:91] Creating Layer lstm1_x_transform
I0925 23:53:43.423615  9452 net.cpp:425] lstm1_x_transform <- x
I0925 23:53:43.423627  9452 net.cpp:399] lstm1_x_transform -> W_xc_x
I0925 23:53:43.423653  9497 net.cpp:141] Setting up lstm1_W_xc_x_slice
I0925 23:53:43.423667  9497 net.cpp:148] Top shape: 1 1 4000 (4000)
I0925 23:53:43.423676  9497 net.cpp:156] Memory required for data: 42016
I0925 23:53:43.423683  9497 layer_factory.hpp:77] Creating layer lstm1_h_conted_0
I0925 23:53:43.423702  9497 net.cpp:91] Creating Layer lstm1_h_conted_0
I0925 23:53:43.423708  9497 net.cpp:425] lstm1_h_conted_0 <- h_0
I0925 23:53:43.423714  9497 net.cpp:425] lstm1_h_conted_0 <- cont_1_lstm1_cont_slice_0_split_0
I0925 23:53:43.423723  9497 net.cpp:399] lstm1_h_conted_0 -> h_conted_0
I0925 23:53:43.431371  9487 net.cpp:141] Setting up lstm1_x_transform
I0925 23:53:43.431421  9487 net.cpp:148] Top shape: 1 1 4000 (4000)
I0925 23:53:43.431427  9487 net.cpp:156] Memory required for data: 26016
I0925 23:53:43.431422  9497 net.cpp:141] Setting up lstm1_h_conted_0
I0925 23:53:43.431448  9487 layer_factory.hpp:77] Creating layer lstm1_W_xc_x_slice
I0925 23:53:43.431458  9497 net.cpp:148] Top shape: 1 1 1000 (1000)
I0925 23:53:43.431463  9497 net.cpp:156] Memory required for data: 46016
I0925 23:53:43.431466  9487 net.cpp:91] Creating Layer lstm1_W_xc_x_slice
I0925 23:53:43.431471  9497 layer_factory.hpp:77] Creating layer lstm1_transform_1
I0925 23:53:43.431474  9487 net.cpp:425] lstm1_W_xc_x_slice <- W_xc_x
I0925 23:53:43.431499  9487 net.cpp:399] lstm1_W_xc_x_slice -> W_xc_x_1
I0925 23:53:43.431500  9497 net.cpp:91] Creating Layer lstm1_transform_1
I0925 23:53:43.431509  9497 net.cpp:425] lstm1_transform_1 <- h_conted_0
I0925 23:53:43.431521  9497 net.cpp:399] lstm1_transform_1 -> W_hc_h_0
I0925 23:53:43.431531  9448 net.cpp:141] Setting up lstm1_x_transform
I0925 23:53:43.431551  9448 net.cpp:148] Top shape: 1 1 4000 (4000)
I0925 23:53:43.431556  9448 net.cpp:156] Memory required for data: 26016
I0925 23:53:43.431572  9448 layer_factory.hpp:77] Creating layer lstm1_W_xc_x_slice
I0925 23:53:43.431583  9487 net.cpp:141] Setting up lstm1_W_xc_x_slice
I0925 23:53:43.431586  9448 net.cpp:91] Creating Layer lstm1_W_xc_x_slice
I0925 23:53:43.431601  9487 net.cpp:148] Top shape: 1 1 4000 (4000)
I0925 23:53:43.431604  9448 net.cpp:425] lstm1_W_xc_x_slice <- W_xc_x
I0925 23:53:43.431605  9487 net.cpp:156] Memory required for data: 42016
I0925 23:53:43.431612  9487 layer_factory.hpp:77] Creating layer lstm1_h_conted_0
I0925 23:53:43.431614  9448 net.cpp:399] lstm1_W_xc_x_slice -> W_xc_x_1
I0925 23:53:43.431623  9487 net.cpp:91] Creating Layer lstm1_h_conted_0
I0925 23:53:43.431628  9487 net.cpp:425] lstm1_h_conted_0 <- h_0
I0925 23:53:43.431635  9487 net.cpp:425] lstm1_h_conted_0 <- cont_1_lstm1_cont_slice_0_split_0
I0925 23:53:43.431643  9487 net.cpp:399] lstm1_h_conted_0 -> h_conted_0
I0925 23:53:43.431663  9448 net.cpp:141] Setting up lstm1_W_xc_x_slice
I0925 23:53:43.431674  9448 net.cpp:148] Top shape: 1 1 4000 (4000)
I0925 23:53:43.431677  9448 net.cpp:156] Memory required for data: 42016
I0925 23:53:43.431684  9448 layer_factory.hpp:77] Creating layer lstm1_h_conted_0
I0925 23:53:43.431696  9448 net.cpp:91] Creating Layer lstm1_h_conted_0
I0925 23:53:43.431701  9448 net.cpp:425] lstm1_h_conted_0 <- h_0
I0925 23:53:43.431709  9448 net.cpp:425] lstm1_h_conted_0 <- cont_1_lstm1_cont_slice_0_split_0
I0925 23:53:43.431715  9448 net.cpp:399] lstm1_h_conted_0 -> h_conted_0
I0925 23:53:43.431841  9448 net.cpp:141] Setting up lstm1_h_conted_0
I0925 23:53:43.431851  9448 net.cpp:148] Top shape: 1 1 1000 (1000)
I0925 23:53:43.431856  9448 net.cpp:156] Memory required for data: 46016
I0925 23:53:43.431861  9448 layer_factory.hpp:77] Creating layer lstm1_transform_1
I0925 23:53:43.431875  9448 net.cpp:91] Creating Layer lstm1_transform_1
I0925 23:53:43.431881  9448 net.cpp:425] lstm1_transform_1 <- h_conted_0
I0925 23:53:43.431890  9448 net.cpp:399] lstm1_transform_1 -> W_hc_h_0
I0925 23:53:43.431890  9487 net.cpp:141] Setting up lstm1_h_conted_0
I0925 23:53:43.431910  9487 net.cpp:148] Top shape: 1 1 1000 (1000)
I0925 23:53:43.431917  9487 net.cpp:156] Memory required for data: 46016
I0925 23:53:43.431926  9487 layer_factory.hpp:77] Creating layer lstm1_transform_1
I0925 23:53:43.431941  9487 net.cpp:91] Creating Layer lstm1_transform_1
I0925 23:53:43.431951  9487 net.cpp:425] lstm1_transform_1 <- h_conted_0
I0925 23:53:43.431967  9487 net.cpp:399] lstm1_transform_1 -> W_hc_h_0
I0925 23:53:43.457332  9458 net.cpp:141] Setting up embedding
I0925 23:53:43.457384  9458 net.cpp:148] Top shape: 1 1 500 (500)
I0925 23:53:43.457391  9458 net.cpp:156] Memory required for data: 22408
I0925 23:53:43.457412  9458 layer_factory.hpp:77] Creating layer lstm1
I0925 23:53:43.457432  9458 net.cpp:91] Creating Layer lstm1
I0925 23:53:43.457440  9458 net.cpp:425] lstm1 <- embedded_input_frames
I0925 23:53:43.457449  9458 net.cpp:425] lstm1 <- cont_sentence_input_1_split_0
I0925 23:53:43.457460  9458 net.cpp:399] lstm1 -> lstm1
I0925 23:53:43.457479  9458 recurrent_layer.cpp:20] Initializing recurrent layer: assuming input batch contains 1 timesteps of 1 independent streams.
I0925 23:53:43.457712  9452 net.cpp:141] Setting up lstm1_x_transform
I0925 23:53:43.457731  9452 net.cpp:148] Top shape: 1 1 4000 (4000)
I0925 23:53:43.457736  9452 net.cpp:156] Memory required for data: 26016
I0925 23:53:43.457749  9452 layer_factory.hpp:77] Creating layer lstm1_W_xc_x_slice
I0925 23:53:43.457761  9452 net.cpp:91] Creating Layer lstm1_W_xc_x_slice
I0925 23:53:43.457767  9452 net.cpp:425] lstm1_W_xc_x_slice <- W_xc_x
I0925 23:53:43.457775  9452 net.cpp:399] lstm1_W_xc_x_slice -> W_xc_x_1
I0925 23:53:43.457813  9458 net.cpp:49] Initializing net from parameters: 
layer {
  name: "lstm1_"
  type: "Input"
  top: "x"
  top: "cont"
  input_param {
    shape {
      dim: 1
      dim: 1
      dim: 500
    }
    shape {
      dim: 1
      dim: 1
    }
  }
}
layer {
  name: "lstm1_"
  type: "Input"
  top: "c_0"
  top: "h_0"
  input_param {
    shape {
      dim: 1
      dim: 1
      dim: 1000
    }
    shape {
      dim: 1
      dim: 1
      dim: 1000
    }
  }
}
layer {
  name: "lstm1_cont_slice"
  type: "Slice"
  bottom: "cont"
  top: "cont_1"
  slice_param {
    axis: 0
  }
}
layer {
  name: "lstm1_x_transform"
  type: "InnerProduct"
  bottom: "x"
  top: "W_xc_x"
  param {
    name: "W_xc"
  }
  param {
    name: "b_c"
  }
  propagate_down: true
  inner_product_param {
    num_output: 4000
    bias_term: true
    weight_filler {
      type: "uniform"
      min: -0.08
      max: 0.08
    }
    bias_filler {
      type: "constant"
      value: 0
    }
    axis: 2
  }
}
layer {
  name: "lstm1_W_xc_x_slice"
  type: "Slice"
  bottom: "W_xc_x"
  top: "W_xc_x_1"
  slice_param {
    axis: 0
  }
}
layer {
  name: "lstm1_h_conted_0"
  type: "Scale"
  bottom: "h_0"
  bottom: "cont_1"
  top: "h_conted_0"
  scale_param {
    axis: 0
  }
}
layer {
  name: "lstm1_transform_1"
  type: "InnerProduct"
  bottom: "h_conted_0"
  top: "W_hc_h_0"
  param {
    name: "W_hc"
  }
  inner_product_param {
    num_output: 4000
    bias_term: false
    weight_filler {
      type: "uniform"
      min: -0.08
      max: 0.08
    }
    axis: 2
  }
}
layer {
  name: "lstm1_gate_input_1"
  type: "Eltwise"
  bottom: "W_hc_h_0"
  bottom: "W_xc_x_1"
  top: "gate_input_1"
  eltwise_param {
    operation: SUM
  }
}
layer {
  name: "lstm1_unit_1"
  type: "LSTMUnit"
  bottom: "c_0"
  bottom: "gate_input_1"
  bottom: "cont_1"
  top: "c_1"
  top: "h_1"
}
layer {
  name: "lstm1_"
  type: "Split"
  bottom: "c_1"
  top: "c_T"
}
layer {
  name: "lstm1_h_concat"
  type: "Concat"
  bottom: "h_1"
  top: "h"
  concat_param {
    axis: 0
  }
}
layer {
  name: "h_pseudoloss"
  type: "Reduction"
  bottom: "h"
  top: "h_pseudoloss"
  loss_weight: 1
}
I0925 23:53:43.457911  9458 layer_factory.hpp:77] Creating layer lstm1_
I0925 23:53:43.457922  9458 net.cpp:91] Creating Layer lstm1_
I0925 23:53:43.457929  9458 net.cpp:399] lstm1_ -> x
I0925 23:53:43.457940  9458 net.cpp:399] lstm1_ -> cont
I0925 23:53:43.458117  9452 net.cpp:141] Setting up lstm1_W_xc_x_slice
I0925 23:53:43.458128  9452 net.cpp:148] Top shape: 1 1 4000 (4000)
I0925 23:53:43.458133  9452 net.cpp:156] Memory required for data: 42016
I0925 23:53:43.458138  9452 layer_factory.hpp:77] Creating layer lstm1_h_conted_0
I0925 23:53:43.458149  9452 net.cpp:91] Creating Layer lstm1_h_conted_0
I0925 23:53:43.458154  9452 net.cpp:425] lstm1_h_conted_0 <- h_0
I0925 23:53:43.458161  9452 net.cpp:425] lstm1_h_conted_0 <- cont_1_lstm1_cont_slice_0_split_0
I0925 23:53:43.458164  9458 net.cpp:141] Setting up lstm1_
I0925 23:53:43.458168  9452 net.cpp:399] lstm1_h_conted_0 -> h_conted_0
I0925 23:53:43.458176  9458 net.cpp:148] Top shape: 1 1 500 (500)
I0925 23:53:43.458184  9458 net.cpp:148] Top shape: 1 1 (1)
I0925 23:53:43.458187  9458 net.cpp:156] Memory required for data: 2004
I0925 23:53:43.458192  9458 layer_factory.hpp:77] Creating layer lstm1_
I0925 23:53:43.458202  9458 net.cpp:91] Creating Layer lstm1_
I0925 23:53:43.458211  9458 net.cpp:399] lstm1_ -> c_0
I0925 23:53:43.458222  9458 net.cpp:399] lstm1_ -> h_0
I0925 23:53:43.463815  9452 net.cpp:141] Setting up lstm1_h_conted_0
I0925 23:53:43.463822  9458 net.cpp:141] Setting up lstm1_
I0925 23:53:43.463876  9452 net.cpp:148] Top shape: 1 1 1000 (1000)
I0925 23:53:43.463878  9458 net.cpp:148] Top shape: 1 1 1000 (1000)
I0925 23:53:43.463882  9452 net.cpp:156] Memory required for data: 46016
I0925 23:53:43.463886  9458 net.cpp:148] Top shape: 1 1 1000 (1000)
I0925 23:53:43.463891  9452 layer_factory.hpp:77] Creating layer lstm1_transform_1
I0925 23:53:43.463892  9458 net.cpp:156] Memory required for data: 10004
I0925 23:53:43.463904  9458 layer_factory.hpp:77] Creating layer lstm1_cont_slice
I0925 23:53:43.463917  9452 net.cpp:91] Creating Layer lstm1_transform_1
I0925 23:53:43.463922  9458 net.cpp:91] Creating Layer lstm1_cont_slice
I0925 23:53:43.463923  9452 net.cpp:425] lstm1_transform_1 <- h_conted_0
I0925 23:53:43.463927  9458 net.cpp:425] lstm1_cont_slice <- cont
I0925 23:53:43.463937  9458 net.cpp:399] lstm1_cont_slice -> cont_1
I0925 23:53:43.463940  9452 net.cpp:399] lstm1_transform_1 -> W_hc_h_0
I0925 23:53:43.464123  9458 net.cpp:141] Setting up lstm1_cont_slice
I0925 23:53:43.464133  9458 net.cpp:148] Top shape: 1 1 (1)
I0925 23:53:43.464138  9458 net.cpp:156] Memory required for data: 10008
I0925 23:53:43.464143  9458 layer_factory.hpp:77] Creating layer cont_1_lstm1_cont_slice_0_split
I0925 23:53:43.464160  9458 net.cpp:91] Creating Layer cont_1_lstm1_cont_slice_0_split
I0925 23:53:43.464165  9458 net.cpp:425] cont_1_lstm1_cont_slice_0_split <- cont_1
I0925 23:53:43.464175  9458 net.cpp:399] cont_1_lstm1_cont_slice_0_split -> cont_1_lstm1_cont_slice_0_split_0
I0925 23:53:43.464184  9458 net.cpp:399] cont_1_lstm1_cont_slice_0_split -> cont_1_lstm1_cont_slice_0_split_1
I0925 23:53:43.471886  9458 net.cpp:141] Setting up cont_1_lstm1_cont_slice_0_split
I0925 23:53:43.471933  9458 net.cpp:148] Top shape: 1 1 (1)
I0925 23:53:43.471945  9458 net.cpp:148] Top shape: 1 1 (1)
I0925 23:53:43.471953  9458 net.cpp:156] Memory required for data: 10016
I0925 23:53:43.471964  9458 layer_factory.hpp:77] Creating layer lstm1_x_transform
I0925 23:53:43.471997  9458 net.cpp:91] Creating Layer lstm1_x_transform
I0925 23:53:43.472008  9458 net.cpp:425] lstm1_x_transform <- x
I0925 23:53:43.472026  9458 net.cpp:399] lstm1_x_transform -> W_xc_x
I0925 23:53:43.481474  9448 net.cpp:141] Setting up lstm1_transform_1
I0925 23:53:43.481534  9448 net.cpp:148] Top shape: 1 1 4000 (4000)
I0925 23:53:43.481540  9448 net.cpp:156] Memory required for data: 62016
I0925 23:53:43.481561  9448 layer_factory.hpp:77] Creating layer lstm1_gate_input_1
I0925 23:53:43.481582  9448 net.cpp:91] Creating Layer lstm1_gate_input_1
I0925 23:53:43.481590  9448 net.cpp:425] lstm1_gate_input_1 <- W_hc_h_0
I0925 23:53:43.481598  9448 net.cpp:425] lstm1_gate_input_1 <- W_xc_x_1
I0925 23:53:43.481609  9448 net.cpp:399] lstm1_gate_input_1 -> gate_input_1
I0925 23:53:43.485772  9448 net.cpp:141] Setting up lstm1_gate_input_1
I0925 23:53:43.485813  9448 net.cpp:148] Top shape: 1 1 4000 (4000)
I0925 23:53:43.485818  9448 net.cpp:156] Memory required for data: 78016
I0925 23:53:43.485815  9497 net.cpp:141] Setting up lstm1_transform_1
I0925 23:53:43.485828  9448 layer_factory.hpp:77] Creating layer lstm1_unit_1
I0925 23:53:43.485834  9497 net.cpp:148] Top shape: 1 1 4000 (4000)
I0925 23:53:43.485842  9497 net.cpp:156] Memory required for data: 62016
I0925 23:53:43.485855  9448 net.cpp:91] Creating Layer lstm1_unit_1
I0925 23:53:43.485862  9448 net.cpp:425] lstm1_unit_1 <- c_0
I0925 23:53:43.485862  9497 layer_factory.hpp:77] Creating layer lstm1_gate_input_1
I0925 23:53:43.485872  9448 net.cpp:425] lstm1_unit_1 <- gate_input_1
I0925 23:53:43.485877  9448 net.cpp:425] lstm1_unit_1 <- cont_1_lstm1_cont_slice_0_split_1
I0925 23:53:43.485879  9497 net.cpp:91] Creating Layer lstm1_gate_input_1
I0925 23:53:43.485884  9448 net.cpp:399] lstm1_unit_1 -> c_1
I0925 23:53:43.485888  9497 net.cpp:425] lstm1_gate_input_1 <- W_hc_h_0
I0925 23:53:43.485898  9448 net.cpp:399] lstm1_unit_1 -> h_1
I0925 23:53:43.485899  9497 net.cpp:425] lstm1_gate_input_1 <- W_xc_x_1
I0925 23:53:43.485913  9497 net.cpp:399] lstm1_gate_input_1 -> gate_input_1
I0925 23:53:43.486217  9497 net.cpp:141] Setting up lstm1_gate_input_1
I0925 23:53:43.486235  9497 net.cpp:148] Top shape: 1 1 4000 (4000)
I0925 23:53:43.486243  9497 net.cpp:156] Memory required for data: 78016
I0925 23:53:43.486249  9497 layer_factory.hpp:77] Creating layer lstm1_unit_1
I0925 23:53:43.486263  9497 net.cpp:91] Creating Layer lstm1_unit_1
I0925 23:53:43.486269  9497 net.cpp:425] lstm1_unit_1 <- c_0
I0925 23:53:43.486273  9448 net.cpp:141] Setting up lstm1_unit_1
I0925 23:53:43.486279  9497 net.cpp:425] lstm1_unit_1 <- gate_input_1
I0925 23:53:43.486289  9497 net.cpp:425] lstm1_unit_1 <- cont_1_lstm1_cont_slice_0_split_1
I0925 23:53:43.486291  9448 net.cpp:148] Top shape: 1 1 1000 (1000)
I0925 23:53:43.486299  9497 net.cpp:399] lstm1_unit_1 -> c_1
I0925 23:53:43.486301  9448 net.cpp:148] Top shape: 1 1 1000 (1000)
I0925 23:53:43.486307  9448 net.cpp:156] Memory required for data: 86016
I0925 23:53:43.486312  9448 layer_factory.hpp:77] Creating layer lstm1_
I0925 23:53:43.486313  9497 net.cpp:399] lstm1_unit_1 -> h_1
I0925 23:53:43.486322  9448 net.cpp:91] Creating Layer lstm1_
I0925 23:53:43.486327  9448 net.cpp:425] lstm1_ <- c_1
I0925 23:53:43.486337  9448 net.cpp:399] lstm1_ -> c_T
I0925 23:53:43.486420  9448 net.cpp:141] Setting up lstm1_
I0925 23:53:43.486431  9448 net.cpp:148] Top shape: 1 1 1000 (1000)
I0925 23:53:43.486435  9448 net.cpp:156] Memory required for data: 90016
I0925 23:53:43.486440  9448 layer_factory.hpp:77] Creating layer lstm1_h_concat
I0925 23:53:43.486450  9448 net.cpp:91] Creating Layer lstm1_h_concat
I0925 23:53:43.486455  9448 net.cpp:425] lstm1_h_concat <- h_1
I0925 23:53:43.486462  9448 net.cpp:399] lstm1_h_concat -> h
I0925 23:53:43.486495  9497 net.cpp:141] Setting up lstm1_unit_1
I0925 23:53:43.486510  9497 net.cpp:148] Top shape: 1 1 1000 (1000)
I0925 23:53:43.486520  9497 net.cpp:148] Top shape: 1 1 1000 (1000)
I0925 23:53:43.486526  9497 net.cpp:156] Memory required for data: 86016
I0925 23:53:43.486532  9448 net.cpp:141] Setting up lstm1_h_concat
I0925 23:53:43.486533  9497 layer_factory.hpp:77] Creating layer lstm1_
I0925 23:53:43.486546  9448 net.cpp:148] Top shape: 1 1 1000 (1000)
I0925 23:53:43.486552  9448 net.cpp:156] Memory required for data: 94016
I0925 23:53:43.486553  9497 net.cpp:91] Creating Layer lstm1_
I0925 23:53:43.486557  9448 layer_factory.hpp:77] Creating layer h_pseudoloss
I0925 23:53:43.486567  9497 net.cpp:425] lstm1_ <- c_1
I0925 23:53:43.486577  9497 net.cpp:399] lstm1_ -> c_T
I0925 23:53:43.486580  9448 net.cpp:91] Creating Layer h_pseudoloss
I0925 23:53:43.486585  9448 net.cpp:425] h_pseudoloss <- h
I0925 23:53:43.486593  9448 net.cpp:399] h_pseudoloss -> h_pseudoloss
I0925 23:53:43.486877  9497 net.cpp:141] Setting up lstm1_
I0925 23:53:43.486893  9497 net.cpp:148] Top shape: 1 1 1000 (1000)
I0925 23:53:43.486901  9497 net.cpp:156] Memory required for data: 90016
I0925 23:53:43.486907  9497 layer_factory.hpp:77] Creating layer lstm1_h_concat
I0925 23:53:43.486922  9497 net.cpp:91] Creating Layer lstm1_h_concat
I0925 23:53:43.486930  9497 net.cpp:425] lstm1_h_concat <- h_1
I0925 23:53:43.486943  9497 net.cpp:399] lstm1_h_concat -> h
I0925 23:53:43.487231  9448 net.cpp:141] Setting up h_pseudoloss
I0925 23:53:43.487246  9448 net.cpp:148] Top shape: (1)
I0925 23:53:43.487269  9497 net.cpp:141] Setting up lstm1_h_concat
I0925 23:53:43.487284  9497 net.cpp:148] Top shape: 1 1 1000 (1000)
I0925 23:53:43.487251  9448 net.cpp:151]     with loss weight 1
I0925 23:53:43.487292  9497 net.cpp:156] Memory required for data: 94016
I0925 23:53:43.487293  9448 net.cpp:156] Memory required for data: 94020
I0925 23:53:43.487303  9497 layer_factory.hpp:77] Creating layer h_pseudoloss
I0925 23:53:43.487308  9448 net.cpp:217] h_pseudoloss needs backward computation.
I0925 23:53:43.487313  9448 net.cpp:217] lstm1_h_concat needs backward computation.
…
I0925 23:53:43.488740  9497 net.cpp:219] lstm1_ does not need backward computation.
I0925 23:53:43.488746  9497 net.cpp:261] This network produces output c_T
I0925 23:53:43.488754  9497 net.cpp:261] This network produces output h_pseudoloss
I0925 23:53:43.488778  9497 net.cpp:274] Network initialization done.
I0925 23:53:43.488833  9497 recurrent_layer.cpp:150] Adding parameter 0: W_xc
I0925 23:53:43.488842  9497 recurrent_layer.cpp:150] Adding parameter 1: b_c
I0925 23:53:43.488849  9497 recurrent_layer.cpp:150] Adding parameter 2: W_hc
I0925 23:53:43.493083  9448 net.cpp:141] Setting up concat
I0925 23:53:43.493113  9448 net.cpp:148] Top shape: 1 1 1501 (1501)
I0925 23:53:43.493119  9448 net.cpp:156] Memory required for data: 32412
I0925 23:53:43.493126  9448 layer_factory.hpp:77] Creating layer lstm2
I0925 23:53:43.493146  9448 net.cpp:91] Creating Layer lstm2
I0925 23:53:43.493157  9448 net.cpp:425] lstm2 <- lstm1_video_sequence
I0925 23:53:43.493173  9448 net.cpp:425] lstm2 <- cont_sentence_input_1_split_1
I0925 23:53:43.493185  9448 net.cpp:399] lstm2 -> lstm2
I0925 23:53:43.493201  9448 recurrent_layer.cpp:20] Initializing recurrent layer: assuming input batch contains 1 timesteps of 1 independent streams.
I0925 23:53:43.493237  9497 net.cpp:141] Setting up lstm1
I0925 23:53:43.493254  9497 net.cpp:148] Top shape: 1 1 1000 (1000)
I0925 23:53:43.493261  9497 net.cpp:156] Memory required for data: 26408
I0925 23:53:43.493283  9497 layer_factory.hpp:77] Creating layer concat
I0925 23:53:43.493299  9497 net.cpp:91] Creating Layer concat
I0925 23:53:43.493307  9497 net.cpp:425] concat <- lstm1
I0925 23:53:43.493317  9497 net.cpp:425] concat <- embedded_input_sentence
I0925 23:53:43.493325  9497 net.cpp:425] concat <- reshaped_stage_indicator
I0925 23:53:43.493336  9497 net.cpp:399] concat -> lstm1_video_sequence
I0925 23:53:43.493505  9448 net.cpp:49] Initializing net from parameters: 
layer {
  name: "lstm2_"
  type: "Input"
  top: "x"
  top: "cont"
  input_param {
    shape {
      dim: 1
      dim: 1
      dim: 1501
    }
    shape {
      dim: 1
      dim: 1
    }
  }
}
layer {
  name: "lstm2_"
  type: "Input"
  top: "c_0"
  top: "h_0"
  input_param {
    shape {
      dim: 1
      dim: 1
      dim: 1000
    }
    shape {
      dim: 1
      dim: 1
      dim: 1000
    }
  }
}
layer {
  name: "lstm2_cont_slice"
  type: "Slice"
  bottom: "cont"
  top: "cont_1"
  slice_param {
    axis: 0
  }
}
layer {
  name: "lstm2_x_transform"
  type: "InnerProduct"
  bottom: "x"
  top: "W_xc_x"
  param {
    name: "W_xc"
  }
  param {
    name: "b_c"
  }
  propagate_down: true
  inner_product_param {
    num_output: 4000
    bias_term: true
    weight_filler {
      type: "uniform"
      min: -0.08
      max: 0.08
    }
    bias_filler {
      type: "constant"
      value: 0
    }
    axis: 2
  }
}
layer {
  name: "lstm2_W_xc_x_slice"
  type: "Slice"
  bottom: "W_xc_x"
  top: "W_xc_x_1"
  slice_param {
    axis: 0
  }
}
layer {
  name: "lstm2_h_conted_0"
  type: "Scale"
  bottom: "h_0"
  bottom: "cont_1"
  top: "h_conted_0"
  scale_param {
    axis: 0
  }
}
layer {
  name: "lstm2_transform_1"
  type: "InnerProduct"
  bottom: "h_conted_0"
  top: "W_hc_h_0"
  param {
    name: "W_hc"
  }
  inner_product_param {
    num_output: 4000
    bias_term: false
    weight_filler {
      type: "uniform"
      min: -0.08
      max: 0.08
    }
    axis: 2
  }
}
layer {
  name: "lstm2_gate_input_1"
  type: "Eltwise"
  bottom: "W_hc_h_0"
  bottom: "W_xc_x_1"
  top: "gate_input_1"
  eltwise_param {
    operation: SUM
  }
}
layer {
  name: "lstm2_unit_1"
  type: "LSTMUnit"
  bottom: "c_0"
  bottom: "gate_input_1"
  bottom: "cont_1"
  top: "c_1"
  top: "h_1"
}
layer {
  name: "lstm2_"
  type: "Split"
  bottom: "c_1"
  top: "c_T"
}
layer {
  name: "lstm2_h_concat"
  type: "Concat"
  bottom: "h_1"
  top: "h"
  concat_param {
    axis: 0
  }
}
layer {
  name: "h_pseudoloss"
  type: "Reduction"
  bottom: "h"
  top: "h_pseudoloss"
  loss_weight: 1
}
I0925 23:53:43.493597  9448 layer_factory.hpp:77] Creating layer lstm2_
I0925 23:53:43.493608  9448 net.cpp:91] Creating Layer lstm2_
I0925 23:53:43.493614  9448 net.cpp:399] lstm2_ -> x
I0925 23:53:43.493625  9448 net.cpp:399] lstm2_ -> cont
I0925 23:53:43.502635  9497 net.cpp:141] Setting up concat
I0925 23:53:43.502671  9497 net.cpp:148] Top shape: 1 1 1501 (1501)
I0925 23:53:43.502686  9497 net.cpp:156] Memory required for data: 32412
I0925 23:53:43.502693  9497 layer_factory.hpp:77] Creating layer lstm2
I0925 23:53:43.502715  9497 net.cpp:91] Creating Layer lstm2
I0925 23:53:43.502722  9497 net.cpp:425] lstm2 <- lstm1_video_sequence
I0925 23:53:43.502720  9448 net.cpp:141] Setting up lstm2_
I0925 23:53:43.502732  9497 net.cpp:425] lstm2 <- cont_sentence_input_1_split_1
I0925 23:53:43.502740  9448 net.cpp:148] Top shape: 1 1 1501 (1501)
I0925 23:53:43.502742  9497 net.cpp:399] lstm2 -> lstm2
I0925 23:53:43.502754  9448 net.cpp:148] Top shape: 1 1 (1)
I0925 23:53:43.502759  9448 net.cpp:156] Memory required for data: 6008
I0925 23:53:43.502768  9448 layer_factory.hpp:77] Creating layer lstm2_
I0925 23:53:43.502770  9497 recurrent_layer.cpp:20] Initializing recurrent layer: assuming input batch contains 1 timesteps of 1 independent streams.
I0925 23:53:43.502787  9448 net.cpp:91] Creating Layer lstm2_
I0925 23:53:43.502795  9448 net.cpp:399] lstm2_ -> c_0
I0925 23:53:43.502809  9448 net.cpp:399] lstm2_ -> h_0
I0925 23:53:43.502856  9454 net.cpp:141] Setting up embedding
I0925 23:53:43.502876  9454 net.cpp:148] Top shape: 1 1 500 (500)
I0925 23:53:43.502882  9454 net.cpp:156] Memory required for data: 22408
I0925 23:53:43.502895  9454 layer_factory.hpp:77] Creating layer lstm1
I0925 23:53:43.502910  9454 net.cpp:91] Creating Layer lstm1
I0925 23:53:43.502918  9454 net.cpp:425] lstm1 <- embedded_input_frames
I0925 23:53:43.502920  9487 net.cpp:141] Setting up lstm1_transform_1
I0925 23:53:43.502925  9454 net.cpp:425] lstm1 <- cont_sentence_input_1_split_0
I0925 23:53:43.502951  9487 net.cpp:148] Top shape: 1 1 4000 (4000)
I0925 23:53:43.502959  9454 net.cpp:399] lstm1 -> lstm1
I0925 23:53:43.502960  9487 net.cpp:156] Memory required for data: 62016
I0925 23:53:43.502971  9454 recurrent_layer.cpp:20] Initializing recurrent layer: assuming input batch contains 1 timesteps of 1 independent streams.
I0925 23:53:43.502979  9487 layer_factory.hpp:77] Creating layer lstm1_gate_input_1
I0925 23:53:43.503000  9487 net.cpp:91] Creating Layer lstm1_gate_input_1
I0925 23:53:43.503010  9487 net.cpp:425] lstm1_gate_input_1 <- W_hc_h_0
I0925 23:53:43.503021  9487 net.cpp:425] lstm1_gate_input_1 <- W_xc_x_1
I0925 23:53:43.503033  9487 net.cpp:399] lstm1_gate_input_1 -> gate_input_1
I0925 23:53:43.503082  9452 net.cpp:141] Setting up lstm1_transform_1
I0925 23:53:43.503099  9452 net.cpp:148] Top shape: 1 1 4000 (4000)
I0925 23:53:43.503104  9452 net.cpp:156] Memory required for data: 62016
I0925 23:53:43.503114  9448 net.cpp:141] Setting up lstm2_
I0925 23:53:43.503118  9452 layer_factory.hpp:77] Creating layer lstm1_gate_input_1
I0925 23:53:43.503134  9448 net.cpp:148] Top shape: 1 1 1000 (1000)
I0925 23:53:43.503134  9497 net.cpp:49] Initializing net from parameters: 
layer {
  name: "lstm2_"
  type: "Input"
  top: "x"
  top: "cont"
  input_param {
    shape {
      dim: 1
      dim: 1
      dim: 1501
    }
    shape {
      dim: 1
      dim: 1
    }
  }
}
layer {
  name: "lstm2_"
  type: "Input"
  top: "c_0"
  top: "h_0"
  input_param {
    shape {
      dim: 1
      dim: 1
      dim: 1000
    }
    shape {
      dim: 1
      dim: 1
      dim: 1000
    }
  }
}
layer {
  name: "lstm2_cont_slice"
  type: "Slice"
  bottom: "cont"
  top: "cont_1"
  slice_param {
    axis: 0
  }
}
layer {
  name: "lstm2_x_transform"
  type: "InnerProduct"
  bottom: "x"
  top: "W_xc_x"
  param {
    name: "W_xc"
  }
  param {
    name: "b_c"
  }
  propagate_down: true
  inner_product_param {
    num_output: 4000
    bias_term: true
    weight_filler {
      type: "uniform"
      min: -0.08
      max: 0.08
    }
    bias_filler {
      type: "constant"
      value: 0
    }
    axis: 2
  }
}
layer {
  name: "lstm2_W_xc_x_slice"
  type: "Slice"
  bottom: "W_xc_x"
  top: "W_xc_x_1"
  slice_param {
    axis: 0
  }
}
layer {
  name: "lstm2_h_conted_0"
  type: "Scale"
  bottom: "h_0"
  bottom: "cont_1"
  top: "h_conted_0"
  scale_param {
    axis: 0
  }
}
layer {
  name: "lstm2_transform_1"
  type: "InnerProduct"
  bottom: "h_conted_0"
  top: "W_hc_h_0"
  param {
    name: "W_hc"
  }
  inner_product_param {
    num_output: 4000
    bias_term: false
    weight_filler {
      type: "uniform"
      min: -0.08
      max: 0.08
    }
    axis: 2
  }
}
layer {
  name: "lstm2_gate_input_1"
  type: "Eltwise"
  bottom: "W_hc_h_0"
  bottom: "W_xc_x_1"
  top: "gate_input_1"
  eltwise_param {
    operation: SUM
  }
}
layer {
  name: "lstm2_unit_1"
  type: "LSTMUnit"
  bottom: "c_0"
  bottom: "gate_input_1"
  bottom: "cont_1"
  top: "c_1"
  top: "h_1"
}
layer {
  name: "lstm2_"
  type: "Split"
  bottom: "c_1"
  top: "c_T"
}
layer {
  name: "lstm2_h_concat"
  type: "Concat"
  bottom: "h_1"
  top: "h"
  concat_param {
    axis: 0
  }
}
layer {
  name: "h_pseudoloss"
  type: "Reduction"
  bottom: "h"
  top: "h_pseudoloss"
  loss_weight: 1
}
I0925 23:53:43.503136  9452 net.cpp:91] Creating Layer lstm1_gate_input_1
I0925 23:53:43.503151  9448 net.cpp:148] Top shape: 1 1 1000 (1000)
I0925 23:53:43.503154  9452 net.cpp:425] lstm1_gate_input_1 <- W_hc_h_0
I0925 23:53:43.503159  9448 net.cpp:156] Memory required for data: 14008
I0925 23:53:43.503163  9448 layer_factory.hpp:77] Creating layer lstm2_cont_slice
I0925 23:53:43.503166  9452 net.cpp:425] lstm1_gate_input_1 <- W_xc_x_1
I0925 23:53:43.503173  9448 net.cpp:91] Creating Layer lstm2_cont_slice
I0925 23:53:43.503175  9452 net.cpp:399] lstm1_gate_input_1 -> gate_input_1
I0925 23:53:43.503180  9448 net.cpp:425] lstm2_cont_slice <- cont
I0925 23:53:43.503187  9448 net.cpp:399] lstm2_cont_slice -> cont_1
I0925 23:53:43.503195  9458 net.cpp:141] Setting up lstm1_x_transform
I0925 23:53:43.503216  9458 net.cpp:148] Top shape: 1 1 4000 (4000)
I0925 23:53:43.503222  9458 net.cpp:156] Memory required for data: 26016
I0925 23:53:43.503238  9458 layer_factory.hpp:77] Creating layer lstm1_W_xc_x_slice
I0925 23:53:43.503237  9454 net.cpp:49] Initializing net from parameters: 
layer {
  name: "lstm1_"
  type: "Input"
  top: "x"
  top: "cont"
  input_param {
    shape {
      dim: 1
      dim: 1
      dim: 500
    }
    shape {
      dim: 1
      dim: 1
    }
  }
}
layer {
  name: "lstm1_"
  type: "Input"
  top: "c_0"
  top: "h_0"
  input_param {
    shape {
      dim: 1
      dim: 1
      dim: 1000
    }
    shape {
      dim: 1
      dim: 1
      dim: 1000
    }
  }
}
layer {
  name: "lstm1_cont_slice"
  type: "Slice"
  bottom: "cont"
  top: "cont_1"
  slice_param {
    axis: 0
  }
}
layer {
  name: "lstm1_x_transform"
  type: "InnerProduct"
  bottom: "x"
  top: "W_xc_x"
  param {
    name: "W_xc"
  }
  param {
    name: "b_c"
  }
  propagate_down: true
  inner_product_param {
    num_output: 4000
    bias_term: true
    weight_filler {
      type: "uniform"
      min: -0.08
      max: 0.08
    }
    bias_filler {
      type: "constant"
      value: 0
    }
    axis: 2
  }
}
layer {
  name: "lstm1_W_xc_x_slice"
  type: "Slice"
  bottom: "W_xc_x"
  top: "W_xc_x_1"
  slice_param {
    axis: 0
  }
}
layer {
  name: "lstm1_h_conted_0"
  type: "Scale"
  bottom: "h_0"
  bottom: "cont_1"
  top: "h_conted_0"
  scale_param {
    axis: 0
  }
}
layer {
  name: "lstm1_transform_1"
  type: "InnerProduct"
  bottom: "h_conted_0"
  top: "W_hc_h_0"
  param {
    name: "W_hc"
  }
  inner_product_param {
    num_output: 4000
    bias_term: false
    weight_filler {
      type: "uniform"
      min: -0.08
      max: 0.08
    }
    axis: 2
  }
}
layer {
  name: "lstm1_gate_input_1"
  type: "Eltwise"
  bottom: "W_hc_h_0"
  bottom: "W_xc_x_1"
  top: "gate_input_1"
  eltwise_param {
    operation: SUM
  }
}
layer {
  name: "lstm1_unit_1"
  type: "LSTMUnit"
  bottom: "c_0"
  bottom: "gate_input_1"
  bottom: "cont_1"
  top: "c_1"
  top: "h_1"
}
layer {
  name: "lstm1_"
  type: "Split"
  bottom: "c_1"
  top: "c_T"
}
layer {
  name: "lstm1_h_concat"
  type: "Concat"
  bottom: "h_1"
  top: "h"
  concat_param {
    axis: 0
  }
}
layer {
  name: "h_pseudoloss"
  type: "Reduction"
  bottom: "h"
  top: "h_pseudoloss"
  loss_weight: 1
}
I0925 23:53:43.503252  9458 net.cpp:91] Creating Layer lstm1_W_xc_x_slice
I0925 23:53:43.503238  9487 net.cpp:141] Setting up lstm1_gate_input_1
I0925 23:53:43.503262  9497 layer_factory.hpp:77] Creating layer lstm2_
I0925 23:53:43.503260  9458 net.cpp:425] lstm1_W_xc_x_slice <- W_xc_x
I0925 23:53:43.503278  9452 net.cpp:141] Setting up lstm1_gate_input_1
I0925 23:53:43.503284  9458 net.cpp:399] lstm1_W_xc_x_slice -> W_xc_x_1
I0925 23:53:43.503279  9487 net.cpp:148] Top shape: 1 1 4000 (4000)
I0925 23:53:43.503293  9452 net.cpp:148] Top shape: 1 1 4000 (4000)
I0925 23:53:43.503279  9497 net.cpp:91] Creating Layer lstm2_
I0925 23:53:43.503298  9452 net.cpp:156] Memory required for data: 78016
I0925 23:53:43.503298  9487 net.cpp:156] Memory required for data: 78016
I0925 23:53:43.503304  9452 layer_factory.hpp:77] Creating layer lstm1_unit_1
I0925 23:53:43.503306  9497 net.cpp:399] lstm2_ -> x
I0925 23:53:43.503312  9452 net.cpp:91] Creating Layer lstm1_unit_1
I0925 23:53:43.503307  9487 layer_factory.hpp:77] Creating layer lstm1_unit_1
I0925 23:53:43.503321  9448 net.cpp:141] Setting up lstm2_cont_slice
I0925 23:53:43.503319  9452 net.cpp:425] lstm1_unit_1 <- c_0
I0925 23:53:43.503332  9454 layer_factory.hpp:77] Creating layer lstm1_
I0925 23:53:43.503332  9487 net.cpp:91] Creating Layer lstm1_unit_1
I0925 23:53:43.503329  9497 net.cpp:399] lstm2_ -> cont
I0925 23:53:43.503345  9454 net.cpp:91] Creating Layer lstm1_
I0925 23:53:43.503337  9448 net.cpp:148] Top shape: 1 1 (1)
I0925 23:53:43.503348  9487 net.cpp:425] lstm1_unit_1 <- c_0
I0925 23:53:43.503352  9448 net.cpp:156] Memory required for data: 14012
I0925 23:53:43.503355  9454 net.cpp:399] lstm1_ -> x
I0925 23:53:43.503350  9458 net.cpp:141] Setting up lstm1_W_xc_x_slice
I0925 23:53:43.503363  9448 layer_factory.hpp:77] Creating layer cont_1_lstm2_cont_slice_0_split
I0925 23:53:43.503345  9452 net.cpp:425] lstm1_unit_1 <- gate_input_1
I0925 23:53:43.503367  9454 net.cpp:399] lstm1_ -> cont
I0925 23:53:43.940984  9454 net.cpp:141] Setting up lstm1_
I0925 23:53:43.941014  9454 net.cpp:148] Top shape: 1 1 500 (500)
I0925 23:53:43.941026  9454 net.cpp:148] Top shape: 1 1 (1)
I0925 23:53:43.941040  9454 net.cpp:156] Memory required for data: 2004
I0925 23:53:43.941056  9454 layer_factory.hpp:77] Creating layer lstm1_
I0925 23:53:43.532330  9471 net.cpp:141] Setting up embedding
I0925 23:53:43.941089  9471 net.cpp:148] Top shape: 1 1 500 (500)
I0925 23:53:43.941094  9454 net.cpp:91] Creating Layer lstm1_
I0925 23:53:43.941103  9471 net.cpp:156] Memory required for data: 22408
I0925 23:53:43.941112  9454 net.cpp:399] lstm1_ -> c_0
I0925 23:53:43.941129  9454 net.cpp:399] lstm1_ -> h_0
I0925 23:53:43.941181  9471 layer_factory.hpp:77] Creating layer lstm1
I0925 23:53:43.941207  9454 net.cpp:141] Setting up lstm1_
I0925 23:53:43.941242  9454 net.cpp:148] Top shape: 1 1 1000 (1000)
I0925 23:53:43.941251  9454 net.cpp:148] Top shape: 1 1 1000 (1000)
I0925 23:53:43.941256  9454 net.cpp:156] Memory required for data: 10004
I0925 23:53:43.941254  9471 net.cpp:91] Creating Layer lstm1
I0925 23:53:43.941262  9454 layer_factory.hpp:77] Creating layer lstm1_cont_slice
I0925 23:53:43.941273  9471 net.cpp:425] lstm1 <- embedded_input_frames
I0925 23:53:43.941282  9454 net.cpp:91] Creating Layer lstm1_cont_slice
I0925 23:53:43.941289  9454 net.cpp:425] lstm1_cont_slice <- cont
I0925 23:53:43.941293  9471 net.cpp:425] lstm1 <- cont_sentence_input_1_split_0
I0925 23:53:43.941298  9454 net.cpp:399] lstm1_cont_slice -> cont_1
I0925 23:53:43.941313  9471 net.cpp:399] lstm1 -> lstm1
I0925 23:53:43.941345  9471 recurrent_layer.cpp:20] Initializing recurrent layer: assuming input batch contains 1 timesteps of 1 independent streams.
I0925 23:53:43.941352  9454 net.cpp:141] Setting up lstm1_cont_slice
I0925 23:53:43.941365  9454 net.cpp:148] Top shape: 1 1 (1)
I0925 23:53:43.941370  9454 net.cpp:156] Memory required for data: 10008
I0925 23:53:43.941375  9454 layer_factory.hpp:77] Creating layer cont_1_lstm1_cont_slice_0_split
I0925 23:53:43.941385  9454 net.cpp:91] Creating Layer cont_1_lstm1_cont_slice_0_split
I0925 23:53:43.941398  9454 net.cpp:425] cont_1_lstm1_cont_slice_0_split <- cont_1
I0925 23:53:43.941408  9454 net.cpp:399] cont_1_lstm1_cont_slice_0_split -> cont_1_lstm1_cont_slice_0_split_0
I0925 23:53:43.941417  9454 net.cpp:399] cont_1_lstm1_cont_slice_0_split -> cont_1_lstm1_cont_slice_0_split_1
I0925 23:53:43.503372  9458 net.cpp:148] Top shape: 1 1 4000 (4000)
I0925 23:53:43.941491  9454 net.cpp:141] Setting up cont_1_lstm1_cont_slice_0_split
I0925 23:53:43.503374  9452 net.cpp:425] lstm1_unit_1 <- cont_1_lstm1_cont_slice_0_split_1
I0925 23:53:43.660310  9489 net.cpp:141] Setting up conv1
I0925 23:53:43.941506  9454 net.cpp:148] Top shape: 1 1 (1)
I0925 23:53:43.503365  9487 net.cpp:425] lstm1_unit_1 <- gate_input_1
I0925 23:53:43.941596  9489 net.cpp:148] Top shape: 10 96 55 55 (2904000)
I0925 23:53:43.941609  9489 net.cpp:156] Memory required for data: 17799480
I0925 23:53:43.941620  9487 net.cpp:425] lstm1_unit_1 <- cont_1_lstm1_cont_slice_0_split_1
I0925 23:53:43.941642  9487 net.cpp:399] lstm1_unit_1 -> c_1
I0925 23:53:43.941660  9487 net.cpp:399] lstm1_unit_1 -> h_1
I0925 23:53:43.941591  9454 net.cpp:148] Top shape: 1 1 (1)
I0925 23:53:43.941944  9454 net.cpp:156] Memory required for data: 10016
I0925 23:53:43.941958  9454 layer_factory.hpp:77] Creating layer lstm1_x_transform
I0925 23:53:43.503437  9497 net.cpp:141] Setting up lstm2_
I0925 23:53:43.941982  9454 net.cpp:91] Creating Layer lstm1_x_transform
I0925 23:53:43.941994  9454 net.cpp:425] lstm1_x_transform <- x
I0925 23:53:43.941998  9497 net.cpp:148] Top shape: 1 1 1501 (1501)
I0925 23:53:43.942010  9497 net.cpp:148] Top shape: 1 1 (1)
I0925 23:53:43.942015  9497 net.cpp:156] Memory required for data: 6008
I0925 23:53:43.942021  9497 layer_factory.hpp:77] Creating layer lstm2_
I0925 23:53:43.942035  9497 net.cpp:91] Creating Layer lstm2_
I0925 23:53:43.941506  9458 net.cpp:156] Memory required for data: 42016
I0925 23:53:43.942044  9497 net.cpp:399] lstm2_ -> c_0
I0925 23:53:43.600968  9467 net.cpp:141] Setting up embedding
I0925 23:53:43.942073  9458 layer_factory.hpp:77] Creating layer lstm1_h_conted_0
I0925 23:53:43.942083  9467 net.cpp:148] Top shape: 1 1 500 (500)
I0925 23:53:43.942085  9497 net.cpp:399] lstm2_ -> h_0
I0925 23:53:43.942090  9467 net.cpp:156] Memory required for data: 22408
I0925 23:53:43.942102  9467 layer_factory.hpp:77] Creating layer lstm1
I0925 23:53:43.942178  9458 net.cpp:91] Creating Layer lstm1_h_conted_0
I0925 23:53:43.942179  9497 net.cpp:141] Setting up lstm2_
I0925 23:53:43.942201  9458 net.cpp:425] lstm1_h_conted_0 <- h_0
I0925 23:53:43.942178  9452 net.cpp:399] lstm1_unit_1 -> c_1
I0925 23:53:43.942216  9458 net.cpp:425] lstm1_h_conted_0 <- cont_1_lstm1_cont_slice_0_split_0
I0925 23:53:43.942210  9497 net.cpp:148] Top shape: 1 1 1000 (1000)
I0925 23:53:43.942234  9452 net.cpp:399] lstm1_unit_1 -> h_1
I0925 23:53:43.942236  9458 net.cpp:399] lstm1_h_conted_0 -> h_conted_0
I0925 23:53:43.942237  9497 net.cpp:148] Top shape: 1 1 1000 (1000)
I0925 23:53:43.942275  9497 net.cpp:156] Memory required for data: 14008
I0925 23:53:43.942286  9497 layer_factory.hpp:77] Creating layer lstm2_cont_slice
I0925 23:53:43.942299  9497 net.cpp:91] Creating Layer lstm2_cont_slice
I0925 23:53:43.942306  9497 net.cpp:425] lstm2_cont_slice <- cont
I0925 23:53:43.942319  9497 net.cpp:399] lstm2_cont_slice -> cont_1
I0925 23:53:43.942415  9489 layer_factory.hpp:77] Creating layer relu1
I0925 23:53:43.942445  9489 net.cpp:91] Creating Layer relu1
I0925 23:53:43.942458  9489 net.cpp:425] relu1 <- conv1
I0925 23:53:43.942473  9489 net.cpp:386] relu1 -> conv1 (in-place)
I0925 23:53:43.942481  9458 net.cpp:141] Setting up lstm1_h_conted_0
I0925 23:53:43.942484  9471 net.cpp:49] Initializing net from parameters: 
layer {
  name: "lstm1_"
  type: "Input"
  top: "x"
  top: "cont"
  input_param {
    shape {
      dim: 1
      dim: 1
      dim: 500
    }
    shape {
      dim: 1
      dim: 1
    }
  }
}
layer {
  name: "lstm1_"
  type: "Input"
  top: "c_0"
  top: "h_0"
  input_param {
    shape {
      dim: 1
      dim: 1
      dim: 1000
    }
    shape {
      dim: 1
      dim: 1
      dim: 1000
    }
  }
}
layer {
  name: "lstm1_cont_slice"
  type: "Slice"
  bottom: "cont"
  top: "cont_1"
  slice_param {
    axis: 0
  }
}
layer {
  name: "lstm1_x_transform"
  type: "InnerProduct"
  bottom: "x"
  top: "W_xc_x"
  param {
    name: "W_xc"
  }
  param {
    name: "b_c"
  }
  propagate_down: true
  inner_product_param {
    num_output: 4000
    bias_term: true
    weight_filler {
      type: "uniform"
      min: -0.08
      max: 0.08
    }
    bias_filler {
      type: "constant"
      value: 0
    }
    axis: 2
  }
}
layer {
  name: "lstm1_W_xc_x_slice"
  type: "Slice"
  bottom: "W_xc_x"
  top: "W_xc_x_1"
  slice_param {
    axis: 0
  }
}
layer {
  name: "lstm1_h_conted_0"
  type: "Scale"
  bottom: "h_0"
  bottom: "cont_1"
  top: "h_conted_0"
  scale_param {
    axis: 0
  }
}
layer {
  name: "lstm1_transform_1"
  type: "InnerProduct"
  bottom: "h_conted_0"
  top: "W_hc_h_0"
  param {
    name: "W_hc"
  }
  inner_product_param {
    num_output: 4000
    bias_term: false
    weight_filler {
      type: "uniform"
      min: -0.08
      max: 0.08
    }
    axis: 2
  }
}
layer {
  name: "lstm1_gate_input_1"
  type: "Eltwise"
  bottom: "W_hc_h_0"
  bottom: "W_xc_x_1"
  top: "gate_input_1"
  eltwise_param {
    operation: SUM
  }
}
layer {
  name: "lstm1_unit_1"
  type: "LSTMUnit"
  bottom: "c_0"
  bottom: "gate_input_1"
  bottom: "cont_1"
  top: "c_1"
  top: "h_1"
}
layer {
  name: "lstm1_"
  type: "Split"
  bottom: "c_1"
  top: "c_T"
}
layer {
  name: "lstm1_h_concat"
  type: "Concat"
  bottom: "h_1"
  top: "h"
  concat_param {
    axis: 0
  }
}
layer {
  name: "h_pseudoloss"
  type: "Reduction"
  bottom: "h"
  top: "h_pseudoloss"
  loss_weight: 1
}
I0925 23:53:43.942509  9497 net.cpp:141] Setting up lstm2_cont_slice
I0925 23:53:43.942523  9497 net.cpp:148] Top shape: 1 1 (1)
I0925 23:53:43.942643  9467 net.cpp:91] Creating Layer lstm1
I0925 23:53:43.942694  9471 layer_factory.hpp:77] Creating layer lstm1_
I0925 23:53:43.971079  9497 net.cpp:156] Memory required for data: 14012
I0925 23:53:43.943255  9487 net.cpp:141] Setting up lstm1_unit_1
I0925 23:53:43.971110  9497 layer_factory.hpp:77] Creating layer cont_1_lstm2_cont_slice_0_split
I0925 23:53:43.943652  9452 net.cpp:141] Setting up lstm1_unit_1
I0925 23:53:43.944032  9489 net.cpp:141] Setting up relu1
I0925 23:53:43.943279  9454 net.cpp:399] lstm1_x_transform -> W_xc_x
I0925 23:53:43.971173  9452 net.cpp:148] Top shape: 1 1 1000 (1000)
I0925 23:53:43.971180  9489 net.cpp:148] Top shape: 10 96 55 55 (2904000)
I0925 23:53:43.971135  9471 net.cpp:91] Creating Layer lstm1_
I0925 23:53:43.971195  9489 net.cpp:156] Memory required for data: 29415480
I0925 23:53:43.971148  9497 net.cpp:91] Creating Layer cont_1_lstm2_cont_slice_0_split
I0925 23:53:43.971206  9471 net.cpp:399] lstm1_ -> x
I0925 23:53:43.971210  9489 layer_factory.hpp:77] Creating layer pool1
I0925 23:53:43.971195  9452 net.cpp:148] Top shape: 1 1 1000 (1000)
I0925 23:53:43.971220  9497 net.cpp:425] cont_1_lstm2_cont_slice_0_split <- cont_1
I0925 23:53:43.971227  9452 net.cpp:156] Memory required for data: 86016
I0925 23:53:43.971232  9471 net.cpp:399] lstm1_ -> cont
I0925 23:53:43.971242  9489 net.cpp:91] Creating Layer pool1
I0925 23:53:43.971240  9497 net.cpp:399] cont_1_lstm2_cont_slice_0_split -> cont_1_lstm2_cont_slice_0_split_0
I0925 23:53:43.942497  9458 net.cpp:148] Top shape: 1 1 1000 (1000)
I0925 23:53:43.971108  9467 net.cpp:425] lstm1 <- embedded_input_frames
I0925 23:53:43.971240  9452 layer_factory.hpp:77] Creating layer lstm1_
I0925 23:53:43.971274  9497 net.cpp:399] cont_1_lstm2_cont_slice_0_split -> cont_1_lstm2_cont_slice_0_split_1
I0925 23:53:43.971273  9458 net.cpp:156] Memory required for data: 46016
I0925 23:53:43.971254  9489 net.cpp:425] pool1 <- conv1
I0925 23:53:43.971292  9458 layer_factory.hpp:77] Creating layer lstm1_transform_1
I0925 23:53:43.971292  9452 net.cpp:91] Creating Layer lstm1_
I0925 23:53:43.971302  9489 net.cpp:399] pool1 -> pool1
I0925 23:53:43.971318  9458 net.cpp:91] Creating Layer lstm1_transform_1
I0925 23:53:43.971318  9452 net.cpp:425] lstm1_ <- c_1
I0925 23:53:43.971333  9458 net.cpp:425] lstm1_transform_1 <- h_conted_0
I0925 23:53:43.971341  9452 net.cpp:399] lstm1_ -> c_T
I0925 23:53:43.971348  9458 net.cpp:399] lstm1_transform_1 -> W_hc_h_0
I0925 23:53:43.971312  9467 net.cpp:425] lstm1 <- cont_sentence_input_1_split_0
I0925 23:53:43.971374  9467 net.cpp:399] lstm1 -> lstm1
I0925 23:53:43.971393  9467 recurrent_layer.cpp:20] Initializing recurrent layer: assuming input batch contains 1 timesteps of 1 independent streams.
I0925 23:53:43.971146  9487 net.cpp:148] Top shape: 1 1 1000 (1000)
I0925 23:53:43.971619  9487 net.cpp:148] Top shape: 1 1 1000 (1000)
I0925 23:53:43.971631  9487 net.cpp:156] Memory required for data: 86016
I0925 23:53:43.971640  9487 layer_factory.hpp:77] Creating layer lstm1_
I0925 23:53:43.971659  9487 net.cpp:91] Creating Layer lstm1_
I0925 23:53:43.971670  9487 net.cpp:425] lstm1_ <- c_1
I0925 23:53:43.971683  9487 net.cpp:399] lstm1_ -> c_T
I0925 23:53:43.971822  9467 net.cpp:49] Initializing net from parameters: 
layer {
  name: "lstm1_"
  type: "Input"
  top: "x"
  top: "cont"
  input_param {
    shape {
      dim: 1
      dim: 1
      dim: 500
    }
    shape {
      dim: 1
      dim: 1
    }
  }
}
layer {
  name: "lstm1_"
  type: "Input"
  top: "c_0"
  top: "h_0"
  input_param {
    shape {
      dim: 1
      dim: 1
      dim: 1000
    }
    shape {
      dim: 1
      dim: 1
      dim: 1000
    }
  }
}
layer {
  name: "lstm1_cont_slice"
  type: "Slice"
  bottom: "cont"
  top: "cont_1"
  slice_param {
    axis: 0
  }
}
layer {
  name: "lstm1_x_transform"
  type: "InnerProduct"
  bottom: "x"
  top: "W_xc_x"
  param {
    name: "W_xc"
  }
  param {
    name: "b_c"
  }
  propagate_down: true
  inner_product_param {
    num_output: 4000
    bias_term: true
    weight_filler {
      type: "uniform"
      min: -0.08
      max: 0.08
    }
    bias_filler {
      type: "constant"
      value: 0
    }
    axis: 2
  }
}
layer {
  name: "lstm1_W_xc_x_slice"
  type: "Slice"
  bottom: "W_xc_x"
  top: "W_xc_x_1"
  slice_param {
    axis: 0
  }
}
layer {
  name: "lstm1_h_conted_0"
  type: "Scale"
  bottom: "h_0"
  bottom: "cont_1"
  top: "h_conted_0"
  scale_param {
    axis: 0
  }
}
layer {
  name: "lstm1_transform_1"
  type: "InnerProduct"
  bottom: "h_conted_0"
  top: "W_hc_h_0"
  param {
    name: "W_hc"
  }
  inner_product_param {
    num_output: 4000
    bias_term: false
    weight_filler {
      type: "uniform"
      min: -0.08
      max: 0.08
    }
    axis: 2
  }
}
layer {
  name: "lstm1_gate_input_1"
  type: "Eltwise"
  bottom: "W_hc_h_0"
  bottom: "W_xc_x_1"
  top: "gate_input_1"
  eltwise_param {
    operation: SUM
  }
}
layer {
  name: "lstm1_unit_1"
  type: "LSTMUnit"
  bottom: "c_0"
  bottom: "gate_input_1"
  bottom: "cont_1"
  top: "c_1"
  top: "h_1"
}
layer {
  name: "lstm1_"
  type: "Split"
  bottom: "c_1"
  top: "c_T"
}
layer {
  name: "lstm1_h_concat"
  type: "Concat"
  bottom: "h_1"
  top: "h"
  concat_param {
    axis: 0
  }
}
layer {
  name: "h_pseudoloss"
  type: "Reduction"
  bottom: "h"
  top: "h_pseudoloss"
  loss_weight: 1
}
I0925 23:53:43.971968  9467 layer_factory.hpp:77] Creating layer lstm1_
I0925 23:53:43.971987  9467 net.cpp:91] Creating Layer lstm1_
I0925 23:53:43.971999  9467 net.cpp:399] lstm1_ -> x
I0925 23:53:43.972018  9467 net.cpp:399] lstm1_ -> cont
I0925 23:53:43.976984  9497 net.cpp:141] Setting up cont_1_lstm2_cont_slice_0_split
I0925 23:53:43.977008  9497 net.cpp:148] Top shape: 1 1 (1)
I0925 23:53:43.977015  9497 net.cpp:148] Top shape: 1 1 (1)
I0925 23:53:43.977020  9497 net.cpp:156] Memory required for data: 14020
I0925 23:53:43.977025  9497 layer_factory.hpp:77] Creating layer lstm2_x_transform
I0925 23:53:43.977047  9497 net.cpp:91] Creating Layer lstm2_x_transform
I0925 23:53:43.977054  9497 net.cpp:425] lstm2_x_transform <- x
I0925 23:53:43.977064  9497 net.cpp:399] lstm2_x_transform -> W_xc_x
I0925 23:53:43.977110  9452 net.cpp:141] Setting up lstm1_
I0925 23:53:43.977151  9452 net.cpp:148] Top shape: 1 1 1000 (1000)
I0925 23:53:43.977161  9452 net.cpp:156] Memory required for data: 90016
I0925 23:53:43.977172  9452 layer_factory.hpp:77] Creating layer lstm1_h_concat
I0925 23:53:43.977192  9452 net.cpp:91] Creating Layer lstm1_h_concat
I0925 23:53:43.977203  9452 net.cpp:425] lstm1_h_concat <- h_1
I0925 23:53:43.977244  9452 net.cpp:399] lstm1_h_concat -> h
I0925 23:53:43.503372  9448 net.cpp:91] Creating Layer cont_1_lstm2_cont_slice_0_split
I0925 23:53:43.977761  9448 net.cpp:425] cont_1_lstm2_cont_slice_0_split <- cont_1
I0925 23:53:43.977787  9448 net.cpp:399] cont_1_lstm2_cont_slice_0_split -> cont_1_lstm2_cont_slice_0_split_0
I0925 23:53:43.977803  9448 net.cpp:399] cont_1_lstm2_cont_slice_0_split -> cont_1_lstm2_cont_slice_0_split_1
I0925 23:53:43.987056  9487 net.cpp:141] Setting up lstm1_
I0925 23:53:43.987102  9487 net.cpp:148] Top shape: 1 1 1000 (1000)
I0925 23:53:43.987112  9487 net.cpp:156] Memory required for data: 90016
I0925 23:53:43.987124  9487 layer_factory.hpp:77] Creating layer lstm1_h_concat
I0925 23:53:43.987141  9467 net.cpp:141] Setting up lstm1_
I0925 23:53:43.987146  9487 net.cpp:91] Creating Layer lstm1_h_concat
I0925 23:53:43.987355  9452 net.cpp:141] Setting up lstm1_h_concat
I0925 23:53:43.988775  9467 net.cpp:148] Top shape: 1 1 500 (500)
I0925 23:53:43.988785  9487 net.cpp:425] lstm1_h_concat <- h_1
I0925 23:53:43.988796  9467 net.cpp:148] Top shape: 1 1 (1)
I0925 23:53:43.987486  9489 net.cpp:141] Setting up pool1
I0925 23:53:43.988807  9452 net.cpp:148] Top shape: 1 1 1000 (1000)
I0925 23:53:43.988803  9467 net.cpp:156] Memory required for data: 2004
I0925 23:53:43.988821  9452 net.cpp:156] Memory required for data: 94016
I0925 23:53:43.988826  9489 net.cpp:148] Top shape: 10 96 27 27 (699840)
I0925 23:53:43.988829  9487 net.cpp:399] lstm1_h_concat -> h
I0925 23:53:43.988829  9467 layer_factory.hpp:77] Creating layer lstm1_
I0925 23:53:43.988840  9489 net.cpp:156] Memory required for data: 32214840
I0925 23:53:43.988833  9452 layer_factory.hpp:77] Creating layer h_pseudoloss
I0925 23:53:43.988852  9489 layer_factory.hpp:77] Creating layer norm1
I0925 23:53:43.988867  9467 net.cpp:91] Creating Layer lstm1_
I0925 23:53:43.988876  9467 net.cpp:399] lstm1_ -> c_0
I0925 23:53:43.988893  9467 net.cpp:399] lstm1_ -> h_0
I0925 23:53:43.997838  9452 net.cpp:91] Creating Layer h_pseudoloss
I0925 23:53:43.997889  9452 net.cpp:425] h_pseudoloss <- h
I0925 23:53:43.997881  9489 net.cpp:91] Creating Layer norm1
I0925 23:53:43.997912  9489 net.cpp:425] norm1 <- pool1
I0925 23:53:43.997916  9452 net.cpp:399] h_pseudoloss -> h_pseudoloss
I0925 23:53:43.997931  9489 net.cpp:399] norm1 -> norm1
I0925 23:53:43.999122  9448 net.cpp:141] Setting up cont_1_lstm2_cont_slice_0_split
I0925 23:53:43.999153  9448 net.cpp:148] Top shape: 1 1 (1)
I0925 23:53:43.999164  9448 net.cpp:148] Top shape: 1 1 (1)
I0925 23:53:43.999172  9448 net.cpp:156] Memory required for data: 14020
I0925 23:53:43.999178  9471 net.cpp:141] Setting up lstm1_
I0925 23:53:43.999183  9448 layer_factory.hpp:77] Creating layer lstm2_x_transform
I0925 23:53:43.999210  9471 net.cpp:148] Top shape: 1 1 500 (500)
I0925 23:53:43.999219  9448 net.cpp:91] Creating Layer lstm2_x_transform
I0925 23:53:43.999222  9471 net.cpp:148] Top shape: 1 1 (1)
I0925 23:53:43.999238  9448 net.cpp:425] lstm2_x_transform <- x
I0925 23:53:43.999244  9471 net.cpp:156] Memory required for data: 2004
I0925 23:53:43.999256  9448 net.cpp:399] lstm2_x_transform -> W_xc_x
I0925 23:53:43.999240  9487 net.cpp:141] Setting up lstm1_h_concat
I0925 23:53:43.999267  9471 layer_factory.hpp:77] Creating layer lstm1_
I0925 23:53:43.999280  9487 net.cpp:148] Top shape: 1 1 1000 (1000)
I0925 23:53:43.999287  9471 net.cpp:91] Creating Layer lstm1_
I0925 23:53:43.999289  9487 net.cpp:156] Memory required for data: 94016
I0925 23:53:43.999310  9471 net.cpp:399] lstm1_ -> c_0
I0925 23:53:43.999315  9487 layer_factory.hpp:77] Creating layer h_pseudoloss
I0925 23:53:43.999330  9487 net.cpp:91] Creating Layer h_pseudoloss
I0925 23:53:43.999333  9471 net.cpp:399] lstm1_ -> h_0
I0925 23:53:43.999339  9487 net.cpp:425] h_pseudoloss <- h
I0925 23:53:43.999353  9487 net.cpp:399] h_pseudoloss -> h_pseudoloss
I0925 23:53:44.014323  9467 net.cpp:141] Setting up lstm1_
I0925 23:53:44.014370  9467 net.cpp:148] Top shape: 1 1 1000 (1000)
I0925 23:53:44.014379  9467 net.cpp:148] Top shape: 1 1 1000 (1000)
I0925 23:53:44.014382  9467 net.cpp:156] Memory required for data: 10004
I0925 23:53:44.014392  9467 layer_factory.hpp:77] Creating layer lstm1_cont_slice
I0925 23:53:44.014415  9467 net.cpp:91] Creating Layer lstm1_cont_slice
I0925 23:53:44.014421  9467 net.cpp:425] lstm1_cont_slice <- cont
I0925 23:53:44.014436  9467 net.cpp:399] lstm1_cont_slice -> cont_1
I0925 23:53:44.014493  9471 net.cpp:141] Setting up lstm1_
I0925 23:53:44.014524  9467 net.cpp:141] Setting up lstm1_cont_slice
I0925 23:53:44.014535  9467 net.cpp:148] Top shape: 1 1 (1)
I0925 23:53:44.014536  9471 net.cpp:148] Top shape: 1 1 1000 (1000)
I0925 23:53:44.014540  9467 net.cpp:156] Memory required for data: 10008
I0925 23:53:44.014547  9467 layer_factory.hpp:77] Creating layer cont_1_lstm1_cont_slice_0_split
I0925 23:53:44.014550  9471 net.cpp:148] Top shape: 1 1 1000 (1000)
I0925 23:53:44.014556  9467 net.cpp:91] Creating Layer cont_1_lstm1_cont_slice_0_split
I0925 23:53:44.014560  9471 net.cpp:156] Memory required for data: 10004
I0925 23:53:44.014564  9467 net.cpp:425] cont_1_lstm1_cont_slice_0_split <- cont_1
I0925 23:53:44.014583  9471 layer_factory.hpp:77] Creating layer lstm1_cont_slice
I0925 23:53:44.014631  9471 net.cpp:91] Creating Layer lstm1_cont_slice
I0925 23:53:44.014629  9467 net.cpp:399] cont_1_lstm1_cont_slice_0_split -> cont_1_lstm1_cont_slice_0_split_0
I0925 23:53:44.014647  9471 net.cpp:425] lstm1_cont_slice <- cont
I0925 23:53:44.014663  9467 net.cpp:399] cont_1_lstm1_cont_slice_0_split -> cont_1_lstm1_cont_slice_0_split_1
I0925 23:53:44.014668  9471 net.cpp:399] lstm1_cont_slice -> cont_1
I0925 23:53:44.014734  9452 net.cpp:141] Setting up h_pseudoloss
I0925 23:53:44.014757  9452 net.cpp:148] Top shape: (1)
I0925 23:53:44.014765  9471 net.cpp:141] Setting up lstm1_cont_slice
I0925 23:53:44.014781  9471 net.cpp:148] Top shape: 1 1 (1)
I0925 23:53:44.014765  9452 net.cpp:151]     with loss weight 1
I0925 23:53:44.014797  9471 net.cpp:156] Memory required for data: 10008
I0925 23:53:44.014812  9452 net.cpp:156] Memory required for data: 94020
I0925 23:53:44.014817  9471 layer_factory.hpp:77] Creating layer cont_1_lstm1_cont_slice_0_split
I0925 23:53:44.014823  9452 net.cpp:217] h_pseudoloss needs backward computation.
I0925 23:53:44.014830  9452 net.cpp:217] lstm1_h_concat needs backward computation.
…
I0925 23:53:44.015157  9487 net.cpp:219] lstm1_h_conted_0 does not need backward computation.
I0925 23:53:44.015172  9487 net.cpp:217] lstm1_W_xc_x_slice needs backward computation.
I0925 23:53:44.015180  9487 net.cpp:217] lstm1_x_transform needs backward computation.
I0925 23:53:44.015189  9487 net.cpp:219] cont_1_lstm1_cont_slice_0_split does not need backward computation.
I0925 23:53:44.015200  9487 net.cpp:219] lstm1_cont_slice does not need backward computation.
I0925 23:53:44.015211  9487 net.cpp:219] lstm1_ does not need backward computation.
I0925 23:53:44.015219  9452 net.cpp:141] Setting up lstm1
I0925 23:53:44.015236  9452 net.cpp:148] Top shape: 1 1 1000 (1000)
I0925 23:53:44.015241  9452 net.cpp:156] Memory required for data: 26408
I0925 23:53:44.015219  9487 net.cpp:219] lstm1_ does not need backward computation.
I0925 23:53:44.015256  9487 net.cpp:261] This network produces output c_T
I0925 23:53:44.015259  9452 layer_factory.hpp:77] Creating layer concat
I0925 23:53:44.015272  9487 net.cpp:261] This network produces output h_pseudoloss
I0925 23:53:44.015300  9487 net.cpp:274] Network initialization done.
I0925 23:53:44.015336  9452 net.cpp:91] Creating Layer concat
I0925 23:53:44.015354  9452 net.cpp:425] concat <- lstm1
I0925 23:53:44.015367  9452 net.cpp:425] concat <- embedded_input_sentence
I0925 23:53:44.015377  9452 net.cpp:425] concat <- reshaped_stage_indicator
I0925 23:53:44.015379  9487 recurrent_layer.cpp:150] Adding parameter 0: W_xc
I0925 23:53:44.015389  9452 net.cpp:399] concat -> lstm1_video_sequence
I0925 23:53:44.015391  9487 recurrent_layer.cpp:150] Adding parameter 1: b_c
I0925 23:53:44.015399  9487 recurrent_layer.cpp:150] Adding parameter 2: W_hc
I0925 23:53:44.015473  9452 net.cpp:141] Setting up concat
I0925 23:53:44.015488  9452 net.cpp:148] Top shape: 1 1 1501 (1501)
I0925 23:53:44.015496  9452 net.cpp:156] Memory required for data: 32412
I0925 23:53:44.015504  9452 layer_factory.hpp:77] Creating layer lstm2
I0925 23:53:44.015524  9452 net.cpp:91] Creating Layer lstm2
I0925 23:53:44.015532  9452 net.cpp:425] lstm2 <- lstm1_video_sequence
I0925 23:53:44.015542  9452 net.cpp:425] lstm2 <- cont_sentence_input_1_split_1
I0925 23:53:44.015555  9452 net.cpp:399] lstm2 -> lstm2
I0925 23:53:44.015573  9452 recurrent_layer.cpp:20] Initializing recurrent layer: assuming input batch contains 1 timesteps of 1 independent streams.
I0925 23:53:44.015616  9467 net.cpp:141] Setting up cont_1_lstm1_cont_slice_0_split
I0925 23:53:44.015635  9467 net.cpp:148] Top shape: 1 1 (1)
I0925 23:53:44.015646  9467 net.cpp:148] Top shape: 1 1 (1)
I0925 23:53:44.015652  9467 net.cpp:156] Memory required for data: 10016
I0925 23:53:44.015661  9467 layer_factory.hpp:77] Creating layer lstm1_x_transform
I0925 23:53:44.015693  9467 net.cpp:91] Creating Layer lstm1_x_transform
I0925 23:53:44.015702  9467 net.cpp:425] lstm1_x_transform <- x
I0925 23:53:44.015717  9467 net.cpp:399] lstm1_x_transform -> W_xc_x
I0925 23:53:44.015815  9471 net.cpp:141] Setting up cont_1_lstm1_cont_slice_0_split
I0925 23:53:44.015836  9471 net.cpp:148] Top shape: 1 1 (1)
I0925 23:53:44.015846  9471 net.cpp:148] Top shape: 1 1 (1)
I0925 23:53:44.015853  9471 net.cpp:156] Memory required for data: 10016
I0925 23:53:44.015862  9471 layer_factory.hpp:77] Creating layer lstm1_x_transform
I0925 23:53:44.015885  9471 net.cpp:91] Creating Layer lstm1_x_transform
I0925 23:53:44.015897  9471 net.cpp:425] lstm1_x_transform <- x
I0925 23:53:44.015911  9471 net.cpp:399] lstm1_x_transform -> W_xc_x
I0925 23:53:44.015993  9487 net.cpp:141] Setting up lstm1
I0925 23:53:44.016012  9487 net.cpp:148] Top shape: 1 1 1000 (1000)
I0925 23:53:44.016013  9452 net.cpp:49] Initializing net from parameters: 
layer {
  name: "lstm2_"
  type: "Input"
  top: "x"
  top: "cont"
  input_param {
    shape {
      dim: 1
      dim: 1
      dim: 1501
    }
    shape {
      dim: 1
      dim: 1
    }
  }
}
layer {
  name: "lstm2_"
  type: "Input"
  top: "c_0"
  top: "h_0"
  input_param {
    shape {
      dim: 1
      dim: 1
      dim: 1000
    }
    shape {
      dim: 1
      dim: 1
      dim: 1000
    }
  }
}
layer {
  name: "lstm2_cont_slice"
  type: "Slice"
  bottom: "cont"
  top: "cont_1"
  slice_param {
    axis: 0
  }
}
layer {
  name: "lstm2_x_transform"
  type: "InnerProduct"
  bottom: "x"
  top: "W_xc_x"
  param {
    name: "W_xc"
  }
  param {
    name: "b_c"
  }
  propagate_down: true
  inner_product_param {
    num_output: 4000
    bias_term: true
    weight_filler {
      type: "uniform"
      min: -0.08
      max: 0.08
    }
    bias_filler {
      type: "constant"
      value: 0
    }
    axis: 2
  }
}
layer {
  name: "lstm2_W_xc_x_slice"
  type: "Slice"
  bottom: "W_xc_x"
  top: "W_xc_x_1"
  slice_param {
    axis: 0
  }
}
layer {
  name: "lstm2_h_conted_0"
  type: "Scale"
  bottom: "h_0"
  bottom: "cont_1"
  top: "h_conted_0"
  scale_param {
    axis: 0
  }
}
layer {
  name: "lstm2_transform_1"
  type: "InnerProduct"
  bottom: "h_conted_0"
  top: "W_hc_h_0"
  param {
    name: "W_hc"
  }
  inner_product_param {
    num_output: 4000
    bias_term: false
    weight_filler {
      type: "uniform"
      min: -0.08
      max: 0.08
    }
    axis: 2
  }
}
layer {
  name: "lstm2_gate_input_1"
  type: "Eltwise"
  bottom: "W_hc_h_0"
  bottom: "W_xc_x_1"
  top: "gate_input_1"
  eltwise_param {
    operation: SUM
  }
}
layer {
  name: "lstm2_unit_1"
  type: "LSTMUnit"
  bottom: "c_0"
  bottom: "gate_input_1"
  bottom: "cont_1"
  top: "c_1"
  top: "h_1"
}
layer {
  name: "lstm2_"
  type: "Split"
  bottom: "c_1"
  top: "c_T"
}
layer {
  name: "lstm2_h_concat"
  type: "Concat"
  bottom: "h_1"
  top: "h"
  concat_param {
    axis: 0
  }
}
layer {
  name: "h_pseudoloss"
  type: "Reduction"
  bottom: "h"
  top: "h_pseudoloss"
  loss_weight: 1
}
I0925 23:53:44.016021  9487 net.cpp:156] Memory required for data: 26408
I0925 23:53:44.016067  9487 layer_factory.hpp:77] Creating layer concat
I0925 23:53:44.016086  9487 net.cpp:91] Creating Layer concat
I0925 23:53:44.016098  9487 net.cpp:425] concat <- lstm1
I0925 23:53:44.016109  9487 net.cpp:425] concat <- embedded_input_sentence
I0925 23:53:44.016118  9487 net.cpp:425] concat <- reshaped_stage_indicator
I0925 23:53:44.016130  9487 net.cpp:399] concat -> lstm1_video_sequence
I0925 23:53:44.016216  9452 layer_factory.hpp:77] Creating layer lstm2_
I0925 23:53:44.016237  9452 net.cpp:91] Creating Layer lstm2_
I0925 23:53:44.016247  9452 net.cpp:399] lstm2_ -> x
I0925 23:53:44.016263  9452 net.cpp:399] lstm2_ -> cont
I0925 23:53:44.022028  9487 net.cpp:141] Setting up concat
I0925 23:53:44.022078  9487 net.cpp:148] Top shape: 1 1 1501 (1501)
I0925 23:53:44.022089  9487 net.cpp:156] Memory required for data: 32412
I0925 23:53:44.022100  9487 layer_factory.hpp:77] Creating layer lstm2
I0925 23:53:44.022131  9487 net.cpp:91] Creating Layer lstm2
I0925 23:53:44.022145  9487 net.cpp:425] lstm2 <- lstm1_video_sequence
I0925 23:53:44.022159  9487 net.cpp:425] lstm2 <- cont_sentence_input_1_split_1
I0925 23:53:44.022174  9487 net.cpp:399] lstm2 -> lstm2
I0925 23:53:44.022199  9487 recurrent_layer.cpp:20] Initializing recurrent layer: assuming input batch contains 1 timesteps of 1 independent streams.
I0925 23:53:44.022572  9489 net.cpp:141] Setting up norm1
I0925 23:53:44.022593  9489 net.cpp:148] Top shape: 10 96 27 27 (699840)
I0925 23:53:44.022616  9489 net.cpp:156] Memory required for data: 35014200
I0925 23:53:44.022626  9489 layer_factory.hpp:77] Creating layer conv2
I0925 23:53:44.022647  9489 net.cpp:91] Creating Layer conv2
I0925 23:53:44.022657  9489 net.cpp:425] conv2 <- norm1
I0925 23:53:44.022655  9487 net.cpp:49] Initializing net from parameters: 
layer {
  name: "lstm2_"
  type: "Input"
  top: "x"
  top: "cont"
  input_param {
    shape {
      dim: 1
      dim: 1
      dim: 1501
    }
    shape {
      dim: 1
      dim: 1
    }
  }
}
layer {
  name: "lstm2_"
  type: "Input"
  top: "c_0"
  top: "h_0"
  input_param {
    shape {
      dim: 1
      dim: 1
      dim: 1000
    }
    shape {
      dim: 1
      dim: 1
      dim: 1000
    }
  }
}
layer {
  name: "lstm2_cont_slice"
  type: "Slice"
  bottom: "cont"
  top: "cont_1"
  slice_param {
    axis: 0
  }
}
layer {
  name: "lstm2_x_transform"
  type: "InnerProduct"
  bottom: "x"
  top: "W_xc_x"
  param {
    name: "W_xc"
  }
  param {
    name: "b_c"
  }
  propagate_down: true
  inner_product_param {
    num_output: 4000
    bias_term: true
    weight_filler {
      type: "uniform"
      min: -0.08
      max: 0.08
    }
    bias_filler {
      type: "constant"
      value: 0
    }
    axis: 2
  }
}
layer {
  name: "lstm2_W_xc_x_slice"
  type: "Slice"
  bottom: "W_xc_x"
  top: "W_xc_x_1"
  slice_param {
    axis: 0
  }
}
layer {
  name: "lstm2_h_conted_0"
  type: "Scale"
  bottom: "h_0"
  bottom: "cont_1"
  top: "h_conted_0"
  scale_param {
    axis: 0
  }
}
layer {
  name: "lstm2_transform_1"
  type: "InnerProduct"
  bottom: "h_conted_0"
  top: "W_hc_h_0"
  param {
    name: "W_hc"
  }
  inner_product_param {
    num_output: 4000
    bias_term: false
    weight_filler {
      type: "uniform"
      min: -0.08
      max: 0.08
    }
    axis: 2
  }
}
layer {
  name: "lstm2_gate_input_1"
  type: "Eltwise"
  bottom: "W_hc_h_0"
  bottom: "W_xc_x_1"
  top: "gate_input_1"
  eltwise_param {
    operation: SUM
  }
}
layer {
  name: "lstm2_unit_1"
  type: "LSTMUnit"
  bottom: "c_0"
  bottom: "gate_input_1"
  bottom: "cont_1"
  top: "c_1"
  top: "h_1"
}
layer {
  name: "lstm2_"
  type: "Split"
  bottom: "c_1"
  top: "c_T"
}
layer {
  name: "lstm2_h_concat"
  type: "Concat"
  bottom: "h_1"
  top: "h"
  concat_param {
    axis: 0
  }
}
layer {
  name: "h_pseudoloss"
  type: "Reduction"
  bottom: "h"
  top: "h_pseudoloss"
  loss_weight: 1
}
I0925 23:53:44.022672  9489 net.cpp:399] conv2 -> conv2
I0925 23:53:44.023459  9487 layer_factory.hpp:77] Creating layer lstm2_
I0925 23:53:44.023480  9487 net.cpp:91] Creating Layer lstm2_
I0925 23:53:44.023491  9487 net.cpp:399] lstm2_ -> x
I0925 23:53:44.023509  9487 net.cpp:399] lstm2_ -> cont
I0925 23:53:44.022769  9454 net.cpp:141] Setting up lstm1_x_transform
I0925 23:53:44.023597  9454 net.cpp:148] Top shape: 1 1 4000 (4000)
I0925 23:53:44.023607  9454 net.cpp:156] Memory required for data: 26016
I0925 23:53:44.023627  9454 layer_factory.hpp:77] Creating layer lstm1_W_xc_x_slice
I0925 23:53:44.023643  9454 net.cpp:91] Creating Layer lstm1_W_xc_x_slice
I0925 23:53:44.023653  9454 net.cpp:425] lstm1_W_xc_x_slice <- W_xc_x
I0925 23:53:44.023665  9454 net.cpp:399] lstm1_W_xc_x_slice -> W_xc_x_1
I0925 23:53:44.027941  9452 net.cpp:141] Setting up lstm2_
I0925 23:53:44.027981  9452 net.cpp:148] Top shape: 1 1 1501 (1501)
I0925 23:53:44.027992  9452 net.cpp:148] Top shape: 1 1 (1)
I0925 23:53:44.027999  9452 net.cpp:156] Memory required for data: 6008
I0925 23:53:44.028009  9452 layer_factory.hpp:77] Creating layer lstm2_
I0925 23:53:44.028031  9452 net.cpp:91] Creating Layer lstm2_
I0925 23:53:44.028142  9452 net.cpp:399] lstm2_ -> c_0
I0925 23:53:44.028146  9454 net.cpp:141] Setting up lstm1_W_xc_x_slice
I0925 23:53:44.028168  9452 net.cpp:399] lstm2_ -> h_0
I0925 23:53:44.028398  9454 net.cpp:148] Top shape: 1 1 4000 (4000)
I0925 23:53:44.028411  9454 net.cpp:156] Memory required for data: 42016
I0925 23:53:44.028420  9454 layer_factory.hpp:77] Creating layer lstm1_h_conted_0
I0925 23:53:44.028437  9454 net.cpp:91] Creating Layer lstm1_h_conted_0
I0925 23:53:44.028448  9454 net.cpp:425] lstm1_h_conted_0 <- h_0
I0925 23:53:44.028460  9454 net.cpp:425] lstm1_h_conted_0 <- cont_1_lstm1_cont_slice_0_split_0
I0925 23:53:44.028475  9454 net.cpp:399] lstm1_h_conted_0 -> h_conted_0
I0925 23:53:44.028170  9487 net.cpp:141] Setting up lstm2_
I0925 23:53:44.028527  9487 net.cpp:148] Top shape: 1 1 1501 (1501)
I0925 23:53:44.028540  9487 net.cpp:148] Top shape: 1 1 (1)
I0925 23:53:44.028549  9487 net.cpp:156] Memory required for data: 6008
I0925 23:53:44.028559  9487 layer_factory.hpp:77] Creating layer lstm2_
I0925 23:53:44.028578  9487 net.cpp:91] Creating Layer lstm2_
I0925 23:53:44.028596  9487 net.cpp:399] lstm2_ -> c_0
I0925 23:53:44.028615  9487 net.cpp:399] lstm2_ -> h_0
I0925 23:53:44.029489  9452 net.cpp:141] Setting up lstm2_
I0925 23:53:44.029505  9452 net.cpp:148] Top shape: 1 1 1000 (1000)
I0925 23:53:44.029515  9452 net.cpp:148] Top shape: 1 1 1000 (1000)
I0925 23:53:44.029521  9452 net.cpp:156] Memory required for data: 14008
I0925 23:53:44.029530  9452 layer_factory.hpp:77] Creating layer lstm2_cont_slice
I0925 23:53:44.029556  9452 net.cpp:91] Creating Layer lstm2_cont_slice
I0925 23:53:44.029564  9452 net.cpp:425] lstm2_cont_slice <- cont
I0925 23:53:44.029577  9452 net.cpp:399] lstm2_cont_slice -> cont_1
I0925 23:53:44.029608  9487 net.cpp:141] Setting up lstm2_
I0925 23:53:44.029623  9487 net.cpp:148] Top shape: 1 1 1000 (1000)
I0925 23:53:44.029629  9487 net.cpp:148] Top shape: 1 1 1000 (1000)
I0925 23:53:44.029636  9487 net.cpp:156] Memory required for data: 14008
I0925 23:53:44.029638  9452 net.cpp:141] Setting up lstm2_cont_slice
I0925 23:53:44.029645  9487 layer_factory.hpp:77] Creating layer lstm2_cont_slice
I0925 23:53:44.029651  9452 net.cpp:148] Top shape: 1 1 (1)
I0925 23:53:44.029659  9452 net.cpp:156] Memory required for data: 14012
I0925 23:53:44.029661  9487 net.cpp:91] Creating Layer lstm2_cont_slice
I0925 23:53:44.029666  9452 layer_factory.hpp:77] Creating layer cont_1_lstm2_cont_slice_0_split
I0925 23:53:44.029670  9487 net.cpp:425] lstm2_cont_slice <- cont
I0925 23:53:44.029680  9452 net.cpp:91] Creating Layer cont_1_lstm2_cont_slice_0_split
I0925 23:53:44.029685  9487 net.cpp:399] lstm2_cont_slice -> cont_1
I0925 23:53:44.029687  9452 net.cpp:425] cont_1_lstm2_cont_slice_0_split <- cont_1
I0925 23:53:44.029728  9452 net.cpp:399] cont_1_lstm2_cont_slice_0_split -> cont_1_lstm2_cont_slice_0_split_0
I0925 23:53:44.029743  9452 net.cpp:399] cont_1_lstm2_cont_slice_0_split -> cont_1_lstm2_cont_slice_0_split_1
I0925 23:53:44.029753  9487 net.cpp:141] Setting up lstm2_cont_slice
I0925 23:53:44.029770  9487 net.cpp:148] Top shape: 1 1 (1)
I0925 23:53:44.029779  9487 net.cpp:156] Memory required for data: 14012
I0925 23:53:44.029788  9487 layer_factory.hpp:77] Creating layer cont_1_lstm2_cont_slice_0_split
I0925 23:53:44.029801  9487 net.cpp:91] Creating Layer cont_1_lstm2_cont_slice_0_split
I0925 23:53:44.029814  9487 net.cpp:425] cont_1_lstm2_cont_slice_0_split <- cont_1
I0925 23:53:44.029824  9487 net.cpp:399] cont_1_lstm2_cont_slice_0_split -> cont_1_lstm2_cont_slice_0_split_0
I0925 23:53:44.029839  9487 net.cpp:399] cont_1_lstm2_cont_slice_0_split -> cont_1_lstm2_cont_slice_0_split_1
I0925 23:53:44.030411  9452 net.cpp:141] Setting up cont_1_lstm2_cont_slice_0_split
I0925 23:53:44.030426  9452 net.cpp:148] Top shape: 1 1 (1)
I0925 23:53:44.030436  9452 net.cpp:148] Top shape: 1 1 (1)
I0925 23:53:44.030442  9452 net.cpp:156] Memory required for data: 14020
I0925 23:53:44.030450  9452 layer_factory.hpp:77] Creating layer lstm2_x_transform
I0925 23:53:44.030452  9487 net.cpp:141] Setting up cont_1_lstm2_cont_slice_0_split
I0925 23:53:44.030470  9487 net.cpp:148] Top shape: 1 1 (1)
I0925 23:53:44.030477  9452 net.cpp:91] Creating Layer lstm2_x_transform
I0925 23:53:44.030480  9487 net.cpp:148] Top shape: 1 1 (1)
I0925 23:53:44.030484  9452 net.cpp:425] lstm2_x_transform <- x
I0925 23:53:44.030489  9487 net.cpp:156] Memory required for data: 14020
I0925 23:53:44.030498  9487 layer_factory.hpp:77] Creating layer lstm2_x_transform
I0925 23:53:44.030498  9452 net.cpp:399] lstm2_x_transform -> W_xc_x
I0925 23:53:44.030515  9487 net.cpp:91] Creating Layer lstm2_x_transform
I0925 23:53:44.030525  9487 net.cpp:425] lstm2_x_transform <- x
I0925 23:53:44.030541  9487 net.cpp:399] lstm2_x_transform -> W_xc_x
I0925 23:53:44.057301  9458 net.cpp:141] Setting up lstm1_transform_1
I0925 23:53:44.057364  9458 net.cpp:148] Top shape: 1 1 4000 (4000)
I0925 23:53:44.057375  9458 net.cpp:156] Memory required for data: 62016
I0925 23:53:44.057415  9458 layer_factory.hpp:77] Creating layer lstm1_gate_input_1
I0925 23:53:44.057448  9458 net.cpp:91] Creating Layer lstm1_gate_input_1
I0925 23:53:44.057468  9458 net.cpp:425] lstm1_gate_input_1 <- W_hc_h_0
I0925 23:53:44.057482  9458 net.cpp:425] lstm1_gate_input_1 <- W_xc_x_1
I0925 23:53:44.057495  9458 net.cpp:399] lstm1_gate_input_1 -> gate_input_1
I0925 23:53:44.057495  9467 net.cpp:141] Setting up lstm1_x_transform
I0925 23:53:44.057534  9467 net.cpp:148] Top shape: 1 1 4000 (4000)
I0925 23:53:44.057540  9467 net.cpp:156] Memory required for data: 26016
I0925 23:53:44.057560  9467 layer_factory.hpp:77] Creating layer lstm1_W_xc_x_slice
I0925 23:53:44.057577  9467 net.cpp:91] Creating Layer lstm1_W_xc_x_slice
I0925 23:53:44.057585  9467 net.cpp:425] lstm1_W_xc_x_slice <- W_xc_x
I0925 23:53:44.057597  9467 net.cpp:399] lstm1_W_xc_x_slice -> W_xc_x_1
I0925 23:53:44.057607  9458 net.cpp:141] Setting up lstm1_gate_input_1
I0925 23:53:44.057623  9458 net.cpp:148] Top shape: 1 1 4000 (4000)
I0925 23:53:44.057641  9458 net.cpp:156] Memory required for data: 78016
I0925 23:53:44.057651  9458 layer_factory.hpp:77] Creating layer lstm1_unit_1
I0925 23:53:44.057657  9467 net.cpp:141] Setting up lstm1_W_xc_x_slice
I0925 23:53:44.057663  9458 net.cpp:91] Creating Layer lstm1_unit_1
I0925 23:53:44.057669  9467 net.cpp:148] Top shape: 1 1 4000 (4000)
I0925 23:53:44.057672  9458 net.cpp:425] lstm1_unit_1 <- c_0
I0925 23:53:44.057674  9467 net.cpp:156] Memory required for data: 42016
I0925 23:53:44.057703  9467 layer_factory.hpp:77] Creating layer lstm1_h_conted_0
I0925 23:53:44.057708  9458 net.cpp:425] lstm1_unit_1 <- gate_input_1
I0925 23:53:44.057715  9467 net.cpp:91] Creating Layer lstm1_h_conted_0
I0925 23:53:44.057718  9458 net.cpp:425] lstm1_unit_1 <- cont_1_lstm1_cont_slice_0_split_1
I0925 23:53:44.057721  9467 net.cpp:425] lstm1_h_conted_0 <- h_0
I0925 23:53:44.057729  9467 net.cpp:425] lstm1_h_conted_0 <- cont_1_lstm1_cont_slice_0_split_0
I0925 23:53:44.057732  9458 net.cpp:399] lstm1_unit_1 -> c_1
I0925 23:53:44.057740  9467 net.cpp:399] lstm1_h_conted_0 -> h_conted_0
I0925 23:53:44.057747  9458 net.cpp:399] lstm1_unit_1 -> h_1
I0925 23:53:44.057875  9467 net.cpp:141] Setting up lstm1_h_conted_0
I0925 23:53:44.057886  9467 net.cpp:148] Top shape: 1 1 1000 (1000)
I0925 23:53:44.057891  9467 net.cpp:156] Memory required for data: 46016
I0925 23:53:44.057896  9467 layer_factory.hpp:77] Creating layer lstm1_transform_1
I0925 23:53:44.057914  9467 net.cpp:91] Creating Layer lstm1_transform_1
I0925 23:53:44.057919  9467 net.cpp:425] lstm1_transform_1 <- h_conted_0
I0925 23:53:44.057927  9467 net.cpp:399] lstm1_transform_1 -> W_hc_h_0
I0925 23:53:44.058007  9454 net.cpp:141] Setting up lstm1_h_conted_0
I0925 23:53:44.058043  9454 net.cpp:148] Top shape: 1 1 1000 (1000)
I0925 23:53:44.058058  9454 net.cpp:156] Memory required for data: 46016
I0925 23:53:44.058074  9454 layer_factory.hpp:77] Creating layer lstm1_transform_1
I0925 23:53:44.058245  9454 net.cpp:91] Creating Layer lstm1_transform_1
I0925 23:53:44.058267  9454 net.cpp:425] lstm1_transform_1 <- h_conted_0
I0925 23:53:44.058301  9454 net.cpp:399] lstm1_transform_1 -> W_hc_h_0
I0925 23:53:44.071116  9497 net.cpp:141] Setting up lstm2_x_transform
I0925 23:53:44.071163  9497 net.cpp:148] Top shape: 1 1 4000 (4000)
I0925 23:53:44.071172  9497 net.cpp:156] Memory required for data: 30020
I0925 23:53:44.071200  9497 layer_factory.hpp:77] Creating layer lstm2_W_xc_x_slice
I0925 23:53:44.071225  9497 net.cpp:91] Creating Layer lstm2_W_xc_x_slice
I0925 23:53:44.071235  9497 net.cpp:425] lstm2_W_xc_x_slice <- W_xc_x
I0925 23:53:44.071251  9497 net.cpp:399] lstm2_W_xc_x_slice -> W_xc_x_1
I0925 23:53:44.071316  9497 net.cpp:141] Setting up lstm2_W_xc_x_slice
I0925 23:53:44.071331  9497 net.cpp:148] Top shape: 1 1 4000 (4000)
I0925 23:53:44.071339  9497 net.cpp:156] Memory required for data: 46020
I0925 23:53:44.071347  9497 layer_factory.hpp:77] Creating layer lstm2_h_conted_0
I0925 23:53:44.071367  9497 net.cpp:91] Creating Layer lstm2_h_conted_0
I0925 23:53:44.071375  9497 net.cpp:425] lstm2_h_conted_0 <- h_0
I0925 23:53:44.071386  9497 net.cpp:425] lstm2_h_conted_0 <- cont_1_lstm2_cont_slice_0_split_0
I0925 23:53:44.071398  9497 net.cpp:399] lstm2_h_conted_0 -> h_conted_0
I0925 23:53:44.071553  9497 net.cpp:141] Setting up lstm2_h_conted_0
I0925 23:53:44.071568  9497 net.cpp:148] Top shape: 1 1 1000 (1000)
I0925 23:53:44.071575  9497 net.cpp:156] Memory required for data: 50020
I0925 23:53:44.071583  9497 layer_factory.hpp:77] Creating layer lstm2_transform_1
I0925 23:53:44.071604  9497 net.cpp:91] Creating Layer lstm2_transform_1
I0925 23:53:44.071614  9497 net.cpp:425] lstm2_transform_1 <- h_conted_0
I0925 23:53:44.071626  9497 net.cpp:399] lstm2_transform_1 -> W_hc_h_0
I0925 23:53:44.080643  9458 net.cpp:141] Setting up lstm1_unit_1
I0925 23:53:44.080695  9458 net.cpp:148] Top shape: 1 1 1000 (1000)
I0925 23:53:44.080708  9458 net.cpp:148] Top shape: 1 1 1000 (1000)
I0925 23:53:44.080715  9458 net.cpp:156] Memory required for data: 86016
I0925 23:53:44.080729  9458 layer_factory.hpp:77] Creating layer lstm1_
I0925 23:53:44.080749  9471 net.cpp:141] Setting up lstm1_x_transform
I0925 23:53:44.080755  9458 net.cpp:91] Creating Layer lstm1_
I0925 23:53:44.080780  9471 net.cpp:148] Top shape: 1 1 4000 (4000)
I0925 23:53:44.080781  9458 net.cpp:425] lstm1_ <- c_1
I0925 23:53:44.080796  9471 net.cpp:156] Memory required for data: 26016
I0925 23:53:44.080809  9458 net.cpp:399] lstm1_ -> c_T
I0925 23:53:44.080821  9471 layer_factory.hpp:77] Creating layer lstm1_W_xc_x_slice
I0925 23:53:44.080842  9471 net.cpp:91] Creating Layer lstm1_W_xc_x_slice
I0925 23:53:44.080852  9471 net.cpp:425] lstm1_W_xc_x_slice <- W_xc_x
I0925 23:53:44.080867  9471 net.cpp:399] lstm1_W_xc_x_slice -> W_xc_x_1
I0925 23:53:44.080878  9458 net.cpp:141] Setting up lstm1_
I0925 23:53:44.080894  9458 net.cpp:148] Top shape: 1 1 1000 (1000)
I0925 23:53:44.080901  9458 net.cpp:156] Memory required for data: 90016
I0925 23:53:44.080909  9458 layer_factory.hpp:77] Creating layer lstm1_h_concat
I0925 23:53:44.080924  9458 net.cpp:91] Creating Layer lstm1_h_concat
I0925 23:53:44.080932  9458 net.cpp:425] lstm1_h_concat <- h_1
I0925 23:53:44.080930  9471 net.cpp:141] Setting up lstm1_W_xc_x_slice
I0925 23:53:44.080958  9458 net.cpp:399] lstm1_h_concat -> h
I0925 23:53:44.080961  9471 net.cpp:148] Top shape: 1 1 4000 (4000)
I0925 23:53:44.080977  9471 net.cpp:156] Memory required for data: 42016
I0925 23:53:44.080986  9471 layer_factory.hpp:77] Creating layer lstm1_h_conted_0
I0925 23:53:44.081010  9471 net.cpp:91] Creating Layer lstm1_h_conted_0
I0925 23:53:44.081019  9471 net.cpp:425] lstm1_h_conted_0 <- h_0
I0925 23:53:44.081029  9471 net.cpp:425] lstm1_h_conted_0 <- cont_1_lstm1_cont_slice_0_split_0
I0925 23:53:44.081042  9471 net.cpp:399] lstm1_h_conted_0 -> h_conted_0
I0925 23:53:44.081267  9448 net.cpp:141] Setting up lstm2_x_transform
I0925 23:53:44.081310  9448 net.cpp:148] Top shape: 1 1 4000 (4000)
I0925 23:53:44.081320  9448 net.cpp:156] Memory required for data: 30020
I0925 23:53:44.081346  9448 layer_factory.hpp:77] Creating layer lstm2_W_xc_x_slice
I0925 23:53:44.081365  9448 net.cpp:91] Creating Layer lstm2_W_xc_x_slice
I0925 23:53:44.081375  9448 net.cpp:425] lstm2_W_xc_x_slice <- W_xc_x
I0925 23:53:44.081389  9448 net.cpp:399] lstm2_W_xc_x_slice -> W_xc_x_1
I0925 23:53:44.081459  9448 net.cpp:141] Setting up lstm2_W_xc_x_slice
I0925 23:53:44.081475  9448 net.cpp:148] Top shape: 1 1 4000 (4000)
I0925 23:53:44.081482  9448 net.cpp:156] Memory required for data: 46020
I0925 23:53:44.081490  9448 layer_factory.hpp:77] Creating layer lstm2_h_conted_0
I0925 23:53:44.081504  9448 net.cpp:91] Creating Layer lstm2_h_conted_0
I0925 23:53:44.081513  9448 net.cpp:425] lstm2_h_conted_0 <- h_0
I0925 23:53:44.081578  9448 net.cpp:425] lstm2_h_conted_0 <- cont_1_lstm2_cont_slice_0_split_0
I0925 23:53:44.081596  9448 net.cpp:399] lstm2_h_conted_0 -> h_conted_0
…
I0925 23:53:44.276895  9467 net.cpp:148] Top shape: 1 1 4000 (4000)
I0925 23:53:44.276903  9467 net.cpp:156] Memory required for data: 46020
I0925 23:53:44.276912  9467 layer_factory.hpp:77] Creating layer lstm2_h_conted_0
I0925 23:53:44.276917  9452 net.cpp:141] Setting up lstm2_h_concat
I0925 23:53:44.276929  9467 net.cpp:91] Creating Layer lstm2_h_conted_0
I0925 23:53:44.276934  9452 net.cpp:148] Top shape: 1 1 1000 (1000)
I0925 23:53:44.276939  9467 net.cpp:425] lstm2_h_conted_0 <- h_0
I0925 23:53:44.276943  9452 net.cpp:156] Memory required for data: 98020
I0925 23:53:44.276952  9467 net.cpp:425] lstm2_h_conted_0 <- cont_1_lstm2_cont_slice_0_split_0
I0925 23:53:44.276954  9452 layer_factory.hpp:77] Creating layer h_pseudoloss
I0925 23:53:44.276968  9467 net.cpp:399] lstm2_h_conted_0 -> h_conted_0
I0925 23:53:44.276971  9452 net.cpp:91] Creating Layer h_pseudoloss
I0925 23:53:44.276980  9452 net.cpp:425] h_pseudoloss <- h
I0925 23:53:44.276993  9452 net.cpp:399] h_pseudoloss -> h_pseudoloss
I0925 23:53:44.277014  9497 net.cpp:141] Setting up lstm2
I0925 23:53:44.277050  9497 net.cpp:148] Top shape: 1 1 1000 (1000)
I0925 23:53:44.277061  9497 net.cpp:156] Memory required for data: 36412
I0925 23:53:44.277092  9497 layer_factory.hpp:77] Creating layer predict
I0925 23:53:44.277132  9497 net.cpp:91] Creating Layer predict
I0925 23:53:44.277143  9471 net.cpp:49] Initializing net from parameters: 
layer {
  name: "lstm2_"
  type: "Input"
  top: "x"
  top: "cont"
  input_param {
    shape {
      dim: 1
      dim: 1
      dim: 1501
    }
    shape {
      dim: 1
      dim: 1
    }
  }
}
layer {
  name: "lstm2_"
  type: "Input"
  top: "c_0"
  top: "h_0"
  input_param {
    shape {
      dim: 1
      dim: 1
      dim: 1000
    }
    shape {
      dim: 1
      dim: 1
      dim: 1000
    }
  }
}
layer {
  name: "lstm2_cont_slice"
  type: "Slice"
  bottom: "cont"
  top: "cont_1"
  slice_param {
    axis: 0
  }
}
layer {
  name: "lstm2_x_transform"
  type: "InnerProduct"
  bottom: "x"
  top: "W_xc_x"
  param {
    name: "W_xc"
  }
  param {
    name: "b_c"
  }
  propagate_down: true
  inner_product_param {
    num_output: 4000
    bias_term: true
    weight_filler {
      type: "uniform"
      min: -0.08
      max: 0.08
    }
    bias_filler {
      type: "constant"
      value: 0
    }
    axis: 2
  }
}
layer {
  name: "lstm2_W_xc_x_slice"
  type: "Slice"
  bottom: "W_xc_x"
  top: "W_xc_x_1"
  slice_param {
    axis: 0
  }
}
layer {
  name: "lstm2_h_conted_0"
  type: "Scale"
  bottom: "h_0"
  bottom: "cont_1"
  top: "h_conted_0"
  scale_param {
    axis: 0
  }
}
layer {
  name: "lstm2_transform_1"
  type: "InnerProduct"
  bottom: "h_conted_0"
  top: "W_hc_h_0"
  param {
    name: "W_hc"
  }
  inner_product_param {
    num_output: 4000
    bias_term: false
    weight_filler {
      type: "uniform"
      min: -0.08
      max: 0.08
    }
    axis: 2
  }
}
layer {
  name: "lstm2_gate_input_1"
  type: "Eltwise"
  bottom: "W_hc_h_0"
  bottom: "W_xc_x_1"
  top: "gate_input_1"
  eltwise_param {
    operation: SUM
  }
}
layer {
  name: "lstm2_unit_1"
  type: "LSTMUnit"
  bottom: "c_0"
  bottom: "gate_input_1"
  bottom: "cont_1"
  top: "c_1"
  top: "h_1"
}
layer {
  name: "lstm2_"
  type: "Split"
  bottom: "c_1"
  top: "c_T"
}
layer {
  name: "lstm2_h_concat"
  type: "Concat"
  bottom: "h_1"
  top: "h"
  concat_param {
    axis: 0
  }
}
layer {
  name: "h_pseudoloss"
  type: "Reduction"
  bottom: "h"
  top: "h_pseudoloss"
  loss_weight: 1
}
I0925 23:53:44.277149  9497 net.cpp:425] predict <- lstm2
I0925 23:53:44.277175  9497 net.cpp:399] predict -> predict
I0925 23:53:44.277240  9471 layer_factory.hpp:77] Creating layer lstm2_
I0925 23:53:44.277241  9467 net.cpp:141] Setting up lstm2_h_conted_0
I0925 23:53:44.277253  9471 net.cpp:91] Creating Layer lstm2_
I0925 23:53:44.277287  9471 net.cpp:399] lstm2_ -> x
I0925 23:53:44.277288  9467 net.cpp:148] Top shape: 1 1 1000 (1000)
I0925 23:53:44.277298  9471 net.cpp:399] lstm2_ -> cont
I0925 23:53:44.277304  9467 net.cpp:156] Memory required for data: 50020
I0925 23:53:44.277320  9467 layer_factory.hpp:77] Creating layer lstm2_transform_1
I0925 23:53:44.277359  9467 net.cpp:91] Creating Layer lstm2_transform_1
I0925 23:53:44.277379  9467 net.cpp:425] lstm2_transform_1 <- h_conted_0
I0925 23:53:44.277405  9467 net.cpp:399] lstm2_transform_1 -> W_hc_h_0
I0925 23:53:44.277451  9452 net.cpp:141] Setting up h_pseudoloss
I0925 23:53:44.277469  9452 net.cpp:148] Top shape: (1)
I0925 23:53:44.277477  9452 net.cpp:151]     with loss weight 1
I0925 23:53:44.277490  9452 net.cpp:156] Memory required for data: 98024
I0925 23:53:44.277498  9452 net.cpp:217] h_pseudoloss needs backward computation.
I0925 23:53:44.277506  9452 net.cpp:217] lstm2_h_concat needs backward computation.
I0925 23:53:44.277513  9452 net.cpp:219] lstm2_ does not need backward computation.
I0925 23:53:44.277520  9452 net.cpp:217] lstm2_unit_1 needs backward computation.
I0925 23:53:44.277530  9452 net.cpp:217] lstm2_gate_input_1 needs backward computation.
I0925 23:53:44.277537  9471 net.cpp:141] Setting up lstm2_
I0925 23:53:44.277539  9452 net.cpp:217] lstm2_transform_1 needs backward computation.
I0925 23:53:44.277555  9471 net.cpp:148] Top shape: 1 1 1501 (1501)
I0925 23:53:44.277559  9452 net.cpp:219] lstm2_h_conted_0 does not need backward computation.
I0925 23:53:44.277562  9471 net.cpp:148] Top shape: 1 1 (1)
I0925 23:53:44.277581  9471 net.cpp:156] Memory required for data: 6008
I0925 23:53:44.277581  9452 net.cpp:217] lstm2_W_xc_x_slice needs backward computation.
I0925 23:53:44.277595  9471 layer_factory.hpp:77] Creating layer lstm2_
I0925 23:53:44.277602  9452 net.cpp:217] lstm2_x_transform needs backward computation.
I0925 23:53:44.277609  9471 net.cpp:91] Creating Layer lstm2_
I0925 23:53:44.277611  9452 net.cpp:219] cont_1_lstm2_cont_slice_0_split does not need backward computation.
…
I0925 23:53:44.373067  9487 net.cpp:219] lstm2_ does not need backward computation.
I0925 23:53:44.373076  9487 net.cpp:261] This network produces output c_T
I0925 23:53:44.373090  9487 net.cpp:261] This network produces output h_pseudoloss
I0925 23:53:44.373126  9487 net.cpp:274] Network initialization done.
I0925 23:53:44.373340  9487 recurrent_layer.cpp:150] Adding parameter 0: W_xc
I0925 23:53:44.373361  9487 recurrent_layer.cpp:150] Adding parameter 1: b_c
I0925 23:53:44.373390  9487 recurrent_layer.cpp:150] Adding parameter 2: W_hc
I0925 23:53:44.373950  9487 net.cpp:141] Setting up lstm2
I0925 23:53:44.373994  9487 net.cpp:148] Top shape: 1 1 1000 (1000)
I0925 23:53:44.374006  9487 net.cpp:156] Memory required for data: 36412
I0925 23:53:44.374050  9487 layer_factory.hpp:77] Creating layer predict
I0925 23:53:44.374099  9487 net.cpp:91] Creating Layer predict
I0925 23:53:44.374128  9487 net.cpp:425] predict <- lstm2
I0925 23:53:44.374150  9487 net.cpp:399] predict -> predict
I0925 23:53:44.458652  9458 net.cpp:141] Setting up lstm2_x_transform
I0925 23:53:44.458730  9458 net.cpp:148] Top shape: 1 1 4000 (4000)
I0925 23:53:44.458741  9458 net.cpp:156] Memory required for data: 30020
I0925 23:53:44.458775  9458 layer_factory.hpp:77] Creating layer lstm2_W_xc_x_slice
I0925 23:53:44.458801  9458 net.cpp:91] Creating Layer lstm2_W_xc_x_slice
I0925 23:53:44.458825  9458 net.cpp:425] lstm2_W_xc_x_slice <- W_xc_x
I0925 23:53:44.458840  9458 net.cpp:399] lstm2_W_xc_x_slice -> W_xc_x_1
I0925 23:53:44.458910  9458 net.cpp:141] Setting up lstm2_W_xc_x_slice
I0925 23:53:44.458925  9458 net.cpp:148] Top shape: 1 1 4000 (4000)
I0925 23:53:44.458932  9458 net.cpp:156] Memory required for data: 46020
I0925 23:53:44.458940  9458 layer_factory.hpp:77] Creating layer lstm2_h_conted_0
I0925 23:53:44.458973  9458 net.cpp:91] Creating Layer lstm2_h_conted_0
I0925 23:53:44.458982  9458 net.cpp:425] lstm2_h_conted_0 <- h_0
I0925 23:53:44.458992  9458 net.cpp:425] lstm2_h_conted_0 <- cont_1_lstm2_cont_slice_0_split_0
I0925 23:53:44.459003  9458 net.cpp:399] lstm2_h_conted_0 -> h_conted_0
I0925 23:53:44.459161  9458 net.cpp:141] Setting up lstm2_h_conted_0
I0925 23:53:44.459188  9458 net.cpp:148] Top shape: 1 1 1000 (1000)
I0925 23:53:44.459197  9458 net.cpp:156] Memory required for data: 50020
I0925 23:53:44.459203  9458 layer_factory.hpp:77] Creating layer lstm2_transform_1
I0925 23:53:44.459221  9458 net.cpp:91] Creating Layer lstm2_transform_1
I0925 23:53:44.459229  9458 net.cpp:425] lstm2_transform_1 <- h_conted_0
I0925 23:53:44.459244  9458 net.cpp:399] lstm2_transform_1 -> W_hc_h_0
I0925 23:53:44.473780  9471 net.cpp:141] Setting up lstm2_
I0925 23:53:44.473847  9471 net.cpp:148] Top shape: 1 1 1000 (1000)
I0925 23:53:44.473860  9471 net.cpp:148] Top shape: 1 1 1000 (1000)
I0925 23:53:44.473868  9471 net.cpp:156] Memory required for data: 14008
I0925 23:53:44.473884  9471 layer_factory.hpp:77] Creating layer lstm2_cont_slice
I0925 23:53:44.473949  9471 net.cpp:91] Creating Layer lstm2_cont_slice
I0925 23:53:44.473961  9471 net.cpp:425] lstm2_cont_slice <- cont
I0925 23:53:44.473978  9471 net.cpp:399] lstm2_cont_slice -> cont_1
I0925 23:53:44.485265  9452 net.cpp:141] Setting up lstm2
I0925 23:53:44.485327  9452 net.cpp:148] Top shape: 1 1 1000 (1000)
I0925 23:53:44.485337  9452 net.cpp:156] Memory required for data: 36412
I0925 23:53:44.485376  9452 layer_factory.hpp:77] Creating layer predict
I0925 23:53:44.485405  9452 net.cpp:91] Creating Layer predict
I0925 23:53:44.485417  9452 net.cpp:425] predict <- lstm2
I0925 23:53:44.485432  9452 net.cpp:399] predict -> predict
I0925 23:53:44.485549  9471 net.cpp:141] Setting up lstm2_cont_slice
I0925 23:53:44.485568  9471 net.cpp:148] Top shape: 1 1 (1)
I0925 23:53:44.485574  9471 net.cpp:156] Memory required for data: 14012
I0925 23:53:44.485584  9471 layer_factory.hpp:77] Creating layer cont_1_lstm2_cont_slice_0_split
I0925 23:53:44.485596  9471 net.cpp:91] Creating Layer cont_1_lstm2_cont_slice_0_split
I0925 23:53:44.485605  9471 net.cpp:425] cont_1_lstm2_cont_slice_0_split <- cont_1
I0925 23:53:44.485610  9454 net.cpp:141] Setting up lstm1
I0925 23:53:44.485638  9454 net.cpp:148] Top shape: 1 1 1000 (1000)
I0925 23:53:44.485647  9454 net.cpp:156] Memory required for data: 26408
I0925 23:53:44.485672  9454 layer_factory.hpp:77] Creating layer concat
I0925 23:53:44.485620  9471 net.cpp:399] cont_1_lstm2_cont_slice_0_split -> cont_1_lstm2_cont_slice_0_split_0
I0925 23:53:44.485697  9471 net.cpp:399] cont_1_lstm2_cont_slice_0_split -> cont_1_lstm2_cont_slice_0_split_1
I0925 23:53:44.485698  9454 net.cpp:91] Creating Layer concat
I0925 23:53:44.485726  9454 net.cpp:425] concat <- lstm1
I0925 23:53:44.485739  9454 net.cpp:425] concat <- embedded_input_sentence
I0925 23:53:44.485749  9454 net.cpp:425] concat <- reshaped_stage_indicator
I0925 23:53:44.485760  9454 net.cpp:399] concat -> lstm1_video_sequence
I0925 23:53:44.485829  9454 net.cpp:141] Setting up concat
I0925 23:53:44.485843  9454 net.cpp:148] Top shape: 1 1 1501 (1501)
I0925 23:53:44.485851  9454 net.cpp:156] Memory required for data: 32412
I0925 23:53:44.485858  9454 layer_factory.hpp:77] Creating layer lstm2
I0925 23:53:44.485880  9454 net.cpp:91] Creating Layer lstm2
I0925 23:53:44.485888  9454 net.cpp:425] lstm2 <- lstm1_video_sequence
I0925 23:53:44.485898  9454 net.cpp:425] lstm2 <- cont_sentence_input_1_split_1
I0925 23:53:44.485909  9454 net.cpp:399] lstm2 -> lstm2
I0925 23:53:44.485925  9454 recurrent_layer.cpp:20] Initializing recurrent layer: assuming input batch contains 1 timesteps of 1 independent streams.
I0925 23:53:44.485987  9471 net.cpp:141] Setting up cont_1_lstm2_cont_slice_0_split
I0925 23:53:44.486007  9471 net.cpp:148] Top shape: 1 1 (1)
I0925 23:53:44.486019  9471 net.cpp:148] Top shape: 1 1 (1)
I0925 23:53:44.486027  9471 net.cpp:156] Memory required for data: 14020
I0925 23:53:44.486035  9471 layer_factory.hpp:77] Creating layer lstm2_x_transform
I0925 23:53:44.486057  9471 net.cpp:91] Creating Layer lstm2_x_transform
I0925 23:53:44.486066  9471 net.cpp:425] lstm2_x_transform <- x
I0925 23:53:44.486083  9471 net.cpp:399] lstm2_x_transform -> W_xc_x
I0925 23:53:44.486606  9454 net.cpp:49] Initializing net from parameters: 
layer {
  name: "lstm2_"
  type: "Input"
  top: "x"
  top: "cont"
  input_param {
    shape {
      dim: 1
      dim: 1
      dim: 1501
    }
    shape {
      dim: 1
      dim: 1
    }
  }
}
layer {
  name: "lstm2_"
  type: "Input"
  top: "c_0"
  top: "h_0"
  input_param {
    shape {
      dim: 1
      dim: 1
      dim: 1000
    }
    shape {
      dim: 1
      dim: 1
      dim: 1000
    }
  }
}
layer {
  name: "lstm2_cont_slice"
  type: "Slice"
  bottom: "cont"
  top: "cont_1"
  slice_param {
    axis: 0
  }
}
layer {
  name: "lstm2_x_transform"
  type: "InnerProduct"
  bottom: "x"
  top: "W_xc_x"
  param {
    name: "W_xc"
  }
  param {
    name: "b_c"
  }
  propagate_down: true
  inner_product_param {
    num_output: 4000
    bias_term: true
    weight_filler {
      type: "uniform"
      min: -0.08
      max: 0.08
    }
    bias_filler {
      type: "constant"
      value: 0
    }
    axis: 2
  }
}
layer {
  name: "lstm2_W_xc_x_slice"
  type: "Slice"
  bottom: "W_xc_x"
  top: "W_xc_x_1"
  slice_param {
    axis: 0
  }
}
layer {
  name: "lstm2_h_conted_0"
  type: "Scale"
  bottom: "h_0"
  bottom: "cont_1"
  top: "h_conted_0"
  scale_param {
    axis: 0
  }
}
layer {
  name: "lstm2_transform_1"
  type: "InnerProduct"
  bottom: "h_conted_0"
  top: "W_hc_h_0"
  param {
    name: "W_hc"
  }
  inner_product_param {
    num_output: 4000
    bias_term: false
    weight_filler {
      type: "uniform"
      min: -0.08
      max: 0.08
    }
    axis: 2
  }
}
layer {
  name: "lstm2_gate_input_1"
  type: "Eltwise"
  bottom: "W_hc_h_0"
  bottom: "W_xc_x_1"
  top: "gate_input_1"
  eltwise_param {
    operation: SUM
  }
}
layer {
  name: "lstm2_unit_1"
  type: "LSTMUnit"
  bottom: "c_0"
  bottom: "gate_input_1"
  bottom: "cont_1"
  top: "c_1"
  top: "h_1"
}
layer {
  name: "lstm2_"
  type: "Split"
  bottom: "c_1"
  top: "c_T"
}
layer {
  name: "lstm2_h_concat"
  type: "Concat"
  bottom: "h_1"
  top: "h"
  concat_param {
    axis: 0
  }
}
layer {
  name: "h_pseudoloss"
  type: "Reduction"
  bottom: "h"
  top: "h_pseudoloss"
  loss_weight: 1
}
I0925 23:53:44.486785  9454 layer_factory.hpp:77] Creating layer lstm2_
I0925 23:53:44.486809  9454 net.cpp:91] Creating Layer lstm2_
I0925 23:53:44.486822  9454 net.cpp:399] lstm2_ -> x
I0925 23:53:44.486847  9454 net.cpp:399] lstm2_ -> cont
I0925 23:53:44.588238  9489 net.cpp:141] Setting up conv4
I0925 23:53:44.588304  9489 net.cpp:148] Top shape: 10 384 13 13 (648960)
I0925 23:53:44.588312  9489 net.cpp:156] Memory required for data: 61192760
I0925 23:53:44.588335  9489 layer_factory.hpp:77] Creating layer relu4
I0925 23:53:44.588361  9489 net.cpp:91] Creating Layer relu4
I0925 23:53:44.588373  9489 net.cpp:425] relu4 <- conv4
I0925 23:53:44.588387  9489 net.cpp:386] relu4 -> conv4 (in-place)
I0925 23:53:44.588922  9489 net.cpp:141] Setting up relu4
I0925 23:53:44.588939  9489 net.cpp:148] Top shape: 10 384 13 13 (648960)
I0925 23:53:44.588946  9489 net.cpp:156] Memory required for data: 63788600
I0925 23:53:44.588954  9489 layer_factory.hpp:77] Creating layer conv5
I0925 23:53:44.588975  9489 net.cpp:91] Creating Layer conv5
I0925 23:53:44.588982  9489 net.cpp:425] conv5 <- conv4
I0925 23:53:44.588999  9489 net.cpp:399] conv5 -> conv5
I0925 23:53:44.594104  9489 net.cpp:141] Setting up conv5
I0925 23:53:44.594156  9489 net.cpp:148] Top shape: 10 256 13 13 (432640)
I0925 23:53:44.594166  9489 net.cpp:156] Memory required for data: 65519160
I0925 23:53:44.594197  9489 layer_factory.hpp:77] Creating layer relu5
I0925 23:53:44.594219  9489 net.cpp:91] Creating Layer relu5
I0925 23:53:44.594228  9489 net.cpp:425] relu5 <- conv5
I0925 23:53:44.594241  9489 net.cpp:386] relu5 -> conv5 (in-place)
I0925 23:53:44.597085  9489 net.cpp:141] Setting up relu5
I0925 23:53:44.597389  9489 net.cpp:148] Top shape: 10 256 13 13 (432640)
I0925 23:53:44.597540  9489 net.cpp:156] Memory required for data: 67249720
I0925 23:53:44.597672  9489 layer_factory.hpp:77] Creating layer pool5
I0925 23:53:44.597806  9489 net.cpp:91] Creating Layer pool5
I0925 23:53:44.597931  9489 net.cpp:425] pool5 <- conv5
I0925 23:53:44.598054  9489 net.cpp:399] pool5 -> pool5
I0925 23:53:44.598392  9489 net.cpp:141] Setting up pool5
I0925 23:53:44.598548  9489 net.cpp:148] Top shape: 10 256 6 6 (92160)
I0925 23:53:44.598698  9489 net.cpp:156] Memory required for data: 67618360
I0925 23:53:44.598814  9489 layer_factory.hpp:77] Creating layer fc6
I0925 23:53:44.598954  9489 net.cpp:91] Creating Layer fc6
I0925 23:53:44.599071  9489 net.cpp:425] fc6 <- pool5
I0925 23:53:44.599241  9489 net.cpp:399] fc6 -> fc6
I0925 23:53:44.671425  9467 net.cpp:141] Setting up lstm2_transform_1
I0925 23:53:44.671489  9467 net.cpp:148] Top shape: 1 1 4000 (4000)
I0925 23:53:44.671500  9467 net.cpp:156] Memory required for data: 66020
I0925 23:53:44.671535  9467 layer_factory.hpp:77] Creating layer lstm2_gate_input_1
I0925 23:53:44.671530  9454 net.cpp:141] Setting up lstm2_
I0925 23:53:44.671568  9454 net.cpp:148] Top shape: 1 1 1501 (1501)
I0925 23:53:44.671576  9454 net.cpp:148] Top shape: 1 1 (1)
I0925 23:53:44.671592  9454 net.cpp:156] Memory required for data: 6008
I0925 23:53:44.671602  9454 layer_factory.hpp:77] Creating layer lstm2_
I0925 23:53:44.671624  9454 net.cpp:91] Creating Layer lstm2_
I0925 23:53:44.671639  9454 net.cpp:399] lstm2_ -> c_0
I0925 23:53:44.671659  9454 net.cpp:399] lstm2_ -> h_0
I0925 23:53:44.671855  9454 net.cpp:141] Setting up lstm2_
I0925 23:53:44.671878  9454 net.cpp:148] Top shape: 1 1 1000 (1000)
I0925 23:53:44.671888  9454 net.cpp:148] Top shape: 1 1 1000 (1000)
I0925 23:53:44.671895  9454 net.cpp:156] Memory required for data: 14008
I0925 23:53:44.671903  9454 layer_factory.hpp:77] Creating layer lstm2_cont_slice
I0925 23:53:44.671926  9454 net.cpp:91] Creating Layer lstm2_cont_slice
I0925 23:53:44.671936  9454 net.cpp:425] lstm2_cont_slice <- cont
I0925 23:53:44.671950  9454 net.cpp:399] lstm2_cont_slice -> cont_1
I0925 23:53:44.672019  9454 net.cpp:141] Setting up lstm2_cont_slice
I0925 23:53:44.672034  9454 net.cpp:148] Top shape: 1 1 (1)
I0925 23:53:44.672041  9454 net.cpp:156] Memory required for data: 14012
I0925 23:53:44.672049  9454 layer_factory.hpp:77] Creating layer cont_1_lstm2_cont_slice_0_split
I0925 23:53:44.672062  9454 net.cpp:91] Creating Layer cont_1_lstm2_cont_slice_0_split
I0925 23:53:44.672070  9454 net.cpp:425] cont_1_lstm2_cont_slice_0_split <- cont_1
I0925 23:53:44.672086  9454 net.cpp:399] cont_1_lstm2_cont_slice_0_split -> cont_1_lstm2_cont_slice_0_split_0
I0925 23:53:44.672099  9454 net.cpp:399] cont_1_lstm2_cont_slice_0_split -> cont_1_lstm2_cont_slice_0_split_1
I0925 23:53:44.672188  9454 net.cpp:141] Setting up cont_1_lstm2_cont_slice_0_split
I0925 23:53:44.672202  9454 net.cpp:148] Top shape: 1 1 (1)
I0925 23:53:44.672212  9454 net.cpp:148] Top shape: 1 1 (1)
I0925 23:53:44.672219  9454 net.cpp:156] Memory required for data: 14020
I0925 23:53:44.672226  9454 layer_factory.hpp:77] Creating layer lstm2_x_transform
I0925 23:53:44.672250  9454 net.cpp:91] Creating Layer lstm2_x_transform
I0925 23:53:44.672260  9454 net.cpp:425] lstm2_x_transform <- x
I0925 23:53:44.672272  9454 net.cpp:399] lstm2_x_transform -> W_xc_x
I0925 23:53:44.671574  9467 net.cpp:91] Creating Layer lstm2_gate_input_1
I0925 23:53:44.674687  9467 net.cpp:425] lstm2_gate_input_1 <- W_hc_h_0
I0925 23:53:44.674715  9467 net.cpp:425] lstm2_gate_input_1 <- W_xc_x_1
I0925 23:53:44.674741  9467 net.cpp:399] lstm2_gate_input_1 -> gate_input_1
I0925 23:53:44.684682  9458 net.cpp:141] Setting up lstm2_transform_1
I0925 23:53:44.684741  9458 net.cpp:148] Top shape: 1 1 4000 (4000)
I0925 23:53:44.684751  9458 net.cpp:156] Memory required for data: 66020
I0925 23:53:44.684778  9458 layer_factory.hpp:77] Creating layer lstm2_gate_input_1
I0925 23:53:44.684815  9458 net.cpp:91] Creating Layer lstm2_gate_input_1
I0925 23:53:44.684829  9458 net.cpp:425] lstm2_gate_input_1 <- W_hc_h_0
I0925 23:53:44.684842  9458 net.cpp:425] lstm2_gate_input_1 <- W_xc_x_1
I0925 23:53:44.684854  9467 net.cpp:141] Setting up lstm2_gate_input_1
I0925 23:53:44.684859  9458 net.cpp:399] lstm2_gate_input_1 -> gate_input_1
I0925 23:53:44.684872  9467 net.cpp:148] Top shape: 1 1 4000 (4000)
I0925 23:53:44.684880  9467 net.cpp:156] Memory required for data: 82020
I0925 23:53:44.684888  9467 layer_factory.hpp:77] Creating layer lstm2_unit_1
I0925 23:53:44.684911  9467 net.cpp:91] Creating Layer lstm2_unit_1
I0925 23:53:44.684921  9467 net.cpp:425] lstm2_unit_1 <- c_0
I0925 23:53:44.684931  9467 net.cpp:425] lstm2_unit_1 <- gate_input_1
I0925 23:53:44.684940  9467 net.cpp:425] lstm2_unit_1 <- cont_1_lstm2_cont_slice_0_split_1
I0925 23:53:44.684952  9467 net.cpp:399] lstm2_unit_1 -> c_1
I0925 23:53:44.684969  9467 net.cpp:399] lstm2_unit_1 -> h_1
I0925 23:53:44.685256  9471 net.cpp:141] Setting up lstm2_x_transform
I0925 23:53:44.685312  9471 net.cpp:148] Top shape: 1 1 4000 (4000)
I0925 23:53:44.685331  9471 net.cpp:156] Memory required for data: 30020
I0925 23:53:44.685366  9471 layer_factory.hpp:77] Creating layer lstm2_W_xc_x_slice
I0925 23:53:44.685395  9471 net.cpp:91] Creating Layer lstm2_W_xc_x_slice
I0925 23:53:44.685411  9471 net.cpp:425] lstm2_W_xc_x_slice <- W_xc_x
I0925 23:53:44.685433  9471 net.cpp:399] lstm2_W_xc_x_slice -> W_xc_x_1
I0925 23:53:44.685555  9471 net.cpp:141] Setting up lstm2_W_xc_x_slice
I0925 23:53:44.685582  9471 net.cpp:148] Top shape: 1 1 4000 (4000)
I0925 23:53:44.685597  9471 net.cpp:156] Memory required for data: 46020
I0925 23:53:44.685611  9471 layer_factory.hpp:77] Creating layer lstm2_h_conted_0
I0925 23:53:44.685637  9471 net.cpp:91] Creating Layer lstm2_h_conted_0
I0925 23:53:44.685653  9471 net.cpp:425] lstm2_h_conted_0 <- h_0
I0925 23:53:44.685672  9471 net.cpp:425] lstm2_h_conted_0 <- cont_1_lstm2_cont_slice_0_split_0
I0925 23:53:44.685693  9471 net.cpp:399] lstm2_h_conted_0 -> h_conted_0
I0925 23:53:44.686022  9471 net.cpp:141] Setting up lstm2_h_conted_0
I0925 23:53:44.686048  9471 net.cpp:148] Top shape: 1 1 1000 (1000)
I0925 23:53:44.686061  9471 net.cpp:156] Memory required for data: 50020
I0925 23:53:44.686075  9471 layer_factory.hpp:77] Creating layer lstm2_transform_1
I0925 23:53:44.686131  9471 net.cpp:91] Creating Layer lstm2_transform_1
I0925 23:53:44.686151  9471 net.cpp:425] lstm2_transform_1 <- h_conted_0
I0925 23:53:44.686180  9471 net.cpp:399] lstm2_transform_1 -> W_hc_h_0
I0925 23:53:44.700125  9458 net.cpp:141] Setting up lstm2_gate_input_1
I0925 23:53:44.700191  9458 net.cpp:148] Top shape: 1 1 4000 (4000)
I0925 23:53:44.700201  9458 net.cpp:156] Memory required for data: 82020
I0925 23:53:44.700214  9458 layer_factory.hpp:77] Creating layer lstm2_unit_1
I0925 23:53:44.700239  9458 net.cpp:91] Creating Layer lstm2_unit_1
I0925 23:53:44.700250  9458 net.cpp:425] lstm2_unit_1 <- c_0
I0925 23:53:44.700263  9467 net.cpp:141] Setting up lstm2_unit_1
I0925 23:53:44.700289  9467 net.cpp:148] Top shape: 1 1 1000 (1000)
I0925 23:53:44.700299  9467 net.cpp:148] Top shape: 1 1 1000 (1000)
I0925 23:53:44.700309  9467 net.cpp:156] Memory required for data: 90020
I0925 23:53:44.700317  9467 layer_factory.hpp:77] Creating layer lstm2_
I0925 23:53:44.700320  9448 net.cpp:141] Setting up predict
I0925 23:53:44.700332  9467 net.cpp:91] Creating Layer lstm2_
I0925 23:53:44.700356  9467 net.cpp:425] lstm2_ <- c_1
I0925 23:53:44.700358  9448 net.cpp:148] Top shape: 1 1 46168 (46168)
I0925 23:53:44.700367  9448 net.cpp:156] Memory required for data: 221084
I0925 23:53:44.700373  9467 net.cpp:399] lstm2_ -> c_T
I0925 23:53:44.700388  9448 layer_factory.hpp:77] Creating layer probs
I0925 23:53:44.700407  9448 net.cpp:91] Creating Layer probs
I0925 23:53:44.700419  9448 net.cpp:425] probs <- predict
I0925 23:53:44.700433  9448 net.cpp:399] probs -> probs
I0925 23:53:44.700449  9467 net.cpp:141] Setting up lstm2_
I0925 23:53:44.700466  9467 net.cpp:148] Top shape: 1 1 1000 (1000)
I0925 23:53:44.700474  9467 net.cpp:156] Memory required for data: 94020
I0925 23:53:44.700481  9467 layer_factory.hpp:77] Creating layer lstm2_h_concat
I0925 23:53:44.700502  9467 net.cpp:91] Creating Layer lstm2_h_concat
I0925 23:53:44.700512  9467 net.cpp:425] lstm2_h_concat <- h_1
I0925 23:53:44.700525  9467 net.cpp:399] lstm2_h_concat -> h
I0925 23:53:44.700925  9467 net.cpp:141] Setting up lstm2_h_concat
I0925 23:53:44.700945  9467 net.cpp:148] Top shape: 1 1 1000 (1000)
I0925 23:53:44.700955  9467 net.cpp:156] Memory required for data: 98020
I0925 23:53:44.700968  9467 layer_factory.hpp:77] Creating layer h_pseudoloss
I0925 23:53:44.700987  9467 net.cpp:91] Creating Layer h_pseudoloss
I0925 23:53:44.700999  9467 net.cpp:425] h_pseudoloss <- h
I0925 23:53:44.701020  9467 net.cpp:399] h_pseudoloss -> h_pseudoloss
I0925 23:53:44.701289  9467 net.cpp:141] Setting up h_pseudoloss
…
I0925 23:53:44.701712  9448 net.cpp:219] embed_encoder does not need backward computation.
I0925 23:53:44.701719  9467 recurrent_layer.cpp:150] Adding parameter 2: W_hc
I0925 23:53:44.701725  9448 net.cpp:219] cont_sentence_input_1_split does not need backward computation.
I0925 23:53:44.701735  9448 net.cpp:219] input does not need backward computation.
I0925 23:53:44.701741  9448 net.cpp:261] This network produces output probs
I0925 23:53:44.701767  9448 net.cpp:274] Network initialization done.
I0925 23:53:44.701983  9467 net.cpp:141] Setting up lstm2
I0925 23:53:44.702006  9467 net.cpp:148] Top shape: 1 1 1000 (1000)
I0925 23:53:44.702018  9467 net.cpp:156] Memory required for data: 36412
I0925 23:53:44.702071  9467 layer_factory.hpp:77] Creating layer predict
I0925 23:53:44.702101  9467 net.cpp:91] Creating Layer predict
I0925 23:53:44.702165  9467 net.cpp:425] predict <- lstm2
I0925 23:53:44.702188  9467 net.cpp:399] predict -> predict
I0925 23:53:44.700268  9458 net.cpp:425] lstm2_unit_1 <- gate_input_1
I0925 23:53:44.702663  9458 net.cpp:425] lstm2_unit_1 <- cont_1_lstm2_cont_slice_0_split_1
I0925 23:53:44.702687  9458 net.cpp:399] lstm2_unit_1 -> c_1
I0925 23:53:44.702705  9458 net.cpp:399] lstm2_unit_1 -> h_1
I0925 23:53:44.791223  9458 net.cpp:141] Setting up lstm2_unit_1
I0925 23:53:44.791312  9458 net.cpp:148] Top shape: 1 1 1000 (1000)
I0925 23:53:44.791337  9458 net.cpp:148] Top shape: 1 1 1000 (1000)
I0925 23:53:44.791352  9458 net.cpp:156] Memory required for data: 90020
I0925 23:53:44.791371  9458 layer_factory.hpp:77] Creating layer lstm2_
I0925 23:53:44.791404  9458 net.cpp:91] Creating Layer lstm2_
I0925 23:53:44.791424  9458 net.cpp:425] lstm2_ <- c_1
I0925 23:53:44.791451  9458 net.cpp:399] lstm2_ -> c_T
I0925 23:53:44.791568  9458 net.cpp:141] Setting up lstm2_
I0925 23:53:44.791592  9458 net.cpp:148] Top shape: 1 1 1000 (1000)
I0925 23:53:44.791607  9458 net.cpp:156] Memory required for data: 94020
I0925 23:53:44.791622  9458 layer_factory.hpp:77] Creating layer lstm2_h_concat
I0925 23:53:44.791652  9458 net.cpp:91] Creating Layer lstm2_h_concat
I0925 23:53:44.791671  9458 net.cpp:425] lstm2_h_concat <- h_1
I0925 23:53:44.791697  9458 net.cpp:399] lstm2_h_concat -> h
I0925 23:53:44.791812  9458 net.cpp:141] Setting up lstm2_h_concat
I0925 23:53:44.791837  9458 net.cpp:148] Top shape: 1 1 1000 (1000)
I0925 23:53:44.791852  9458 net.cpp:156] Memory required for data: 98020
I0925 23:53:44.791867  9458 layer_factory.hpp:77] Creating layer h_pseudoloss
I0925 23:53:44.791888  9471 net.cpp:141] Setting up lstm2_transform_1
I0925 23:53:44.791910  9471 net.cpp:148] Top shape: 1 1 4000 (4000)
I0925 23:53:44.791910  9458 net.cpp:91] Creating Layer h_pseudoloss
I0925 23:53:44.791946  9458 net.cpp:425] h_pseudoloss <- h
I0925 23:53:44.791971  9458 net.cpp:399] h_pseudoloss -> h_pseudoloss
I0925 23:53:44.792279  9454 net.cpp:141] Setting up lstm2_x_transform
I0925 23:53:44.792318  9454 net.cpp:148] Top shape: 1 1 4000 (4000)
I0925 23:53:44.792325  9454 net.cpp:156] Memory required for data: 30020
I0925 23:53:44.792343  9454 layer_factory.hpp:77] Creating layer lstm2_W_xc_x_slice
I0925 23:53:44.792361  9454 net.cpp:91] Creating Layer lstm2_W_xc_x_slice
I0925 23:53:44.792368  9454 net.cpp:425] lstm2_W_xc_x_slice <- W_xc_x
I0925 23:53:44.792377  9454 net.cpp:399] lstm2_W_xc_x_slice -> W_xc_x_1
I0925 23:53:44.792426  9454 net.cpp:141] Setting up lstm2_W_xc_x_slice
I0925 23:53:44.792438  9454 net.cpp:148] Top shape: 1 1 4000 (4000)
I0925 23:53:44.792441  9454 net.cpp:156] Memory required for data: 46020
I0925 23:53:44.792446  9454 layer_factory.hpp:77] Creating layer lstm2_h_conted_0
I0925 23:53:44.792460  9454 net.cpp:91] Creating Layer lstm2_h_conted_0
I0925 23:53:44.792466  9454 net.cpp:425] lstm2_h_conted_0 <- h_0
I0925 23:53:44.792474  9454 net.cpp:425] lstm2_h_conted_0 <- cont_1_lstm2_cont_slice_0_split_0
I0925 23:53:44.792480  9454 net.cpp:399] lstm2_h_conted_0 -> h_conted_0
I0925 23:53:44.792603  9454 net.cpp:141] Setting up lstm2_h_conted_0
I0925 23:53:44.792614  9454 net.cpp:148] Top shape: 1 1 1000 (1000)
I0925 23:53:44.792619  9454 net.cpp:156] Memory required for data: 50020
I0925 23:53:44.792624  9454 layer_factory.hpp:77] Creating layer lstm2_transform_1
I0925 23:53:44.792639  9454 net.cpp:91] Creating Layer lstm2_transform_1
I0925 23:53:44.792645  9454 net.cpp:425] lstm2_transform_1 <- h_conted_0
I0925 23:53:44.792654  9454 net.cpp:399] lstm2_transform_1 -> W_hc_h_0
I0925 23:53:44.791919  9471 net.cpp:156] Memory required for data: 66020
I0925 23:53:44.801360  9471 layer_factory.hpp:77] Creating layer lstm2_gate_input_1
I0925 23:53:44.801401  9471 net.cpp:91] Creating Layer lstm2_gate_input_1
I0925 23:53:44.801409  9471 net.cpp:425] lstm2_gate_input_1 <- W_hc_h_0
I0925 23:53:44.801419  9471 net.cpp:425] lstm2_gate_input_1 <- W_xc_x_1
I0925 23:53:44.801439  9471 net.cpp:399] lstm2_gate_input_1 -> gate_input_1
I0925 23:53:44.801622  9471 net.cpp:141] Setting up lstm2_gate_input_1
I0925 23:53:44.801637  9471 net.cpp:148] Top shape: 1 1 4000 (4000)
I0925 23:53:44.801642  9471 net.cpp:156] Memory required for data: 82020
I0925 23:53:44.801648  9471 layer_factory.hpp:77] Creating layer lstm2_unit_1
I0925 23:53:44.801658  9471 net.cpp:91] Creating Layer lstm2_unit_1
I0925 23:53:44.801663  9471 net.cpp:425] lstm2_unit_1 <- c_0
I0925 23:53:44.801669  9471 net.cpp:425] lstm2_unit_1 <- gate_input_1
I0925 23:53:44.801674  9471 net.cpp:425] lstm2_unit_1 <- cont_1_lstm2_cont_slice_0_split_1
I0925 23:53:44.801681  9471 net.cpp:399] lstm2_unit_1 -> c_1
I0925 23:53:44.801694  9471 net.cpp:399] lstm2_unit_1 -> h_1
I0925 23:53:44.801779  9458 net.cpp:141] Setting up h_pseudoloss
I0925 23:53:44.801839  9458 net.cpp:148] Top shape: (1)
I0925 23:53:44.801856  9458 net.cpp:151]     with loss weight 1
I0925 23:53:44.801889  9489 net.cpp:141] Setting up fc6
I0925 23:53:44.801905  9489 net.cpp:148] Top shape: 10 4096 (40960)
I0925 23:53:44.801901  9458 net.cpp:156] Memory required for data: 98024
I0925 23:53:44.801911  9489 net.cpp:156] Memory required for data: 67782200
I0925 23:53:44.801925  9489 layer_factory.hpp:77] Creating layer relu6
I0925 23:53:44.801923  9458 net.cpp:217] h_pseudoloss needs backward computation.
I0925 23:53:44.801941  9489 net.cpp:91] Creating Layer relu6
I0925 23:53:44.801942  9458 net.cpp:217] lstm2_h_concat needs backward computation.
I0925 23:53:44.801947  9489 net.cpp:425] relu6 <- fc6
I0925 23:53:44.801946  9471 net.cpp:141] Setting up lstm2_unit_1
I0925 23:53:44.801972  9458 net.cpp:219] lstm2_ does not need backward computation.
I0925 23:53:44.801986  9471 net.cpp:148] Top shape: 1 1 1000 (1000)
I0925 23:53:44.801990  9458 net.cpp:217] lstm2_unit_1 needs backward computation.
I0925 23:53:44.801985  9489 net.cpp:386] relu6 -> fc6 (in-place)
I0925 23:53:44.802011  9458 net.cpp:217] lstm2_gate_input_1 needs backward computation.
I0925 23:53:44.802001  9471 net.cpp:148] Top shape: 1 1 1000 (1000)
I0925 23:53:44.802033  9458 net.cpp:217] lstm2_transform_1 needs backward computation.
I0925 23:53:44.802033  9471 net.cpp:156] Memory required for data: 90020
I0925 23:53:44.802062  9458 net.cpp:219] lstm2_h_conted_0 does not need backward computation.
I0925 23:53:44.802062  9471 layer_factory.hpp:77] Creating layer lstm2_
I0925 23:53:44.802095  9471 net.cpp:91] Creating Layer lstm2_
…
I0925 23:53:44.803978  9471 net.cpp:219] lstm2_ does not need backward computation.
I0925 23:53:44.803983  9471 net.cpp:261] This network produces output c_T
I0925 23:53:44.803988  9471 net.cpp:261] This network produces output h_pseudoloss
I0925 23:53:44.804011  9471 net.cpp:274] Network initialization done.
I0925 23:53:44.804138  9471 recurrent_layer.cpp:150] Adding parameter 0: W_xc
I0925 23:53:44.804147  9471 recurrent_layer.cpp:150] Adding parameter 1: b_c
I0925 23:53:44.804152  9471 recurrent_layer.cpp:150] Adding parameter 2: W_hc
I0925 23:53:44.899794  9489 net.cpp:141] Setting up drop6
I0925 23:53:44.899863  9489 net.cpp:148] Top shape: 10 4096 (40960)
I0925 23:53:44.899875  9489 net.cpp:156] Memory required for data: 68109880
I0925 23:53:44.899889  9489 layer_factory.hpp:77] Creating layer fc7
I0925 23:53:44.899916  9489 net.cpp:91] Creating Layer fc7
I0925 23:53:44.899929  9489 net.cpp:425] fc7 <- fc6
I0925 23:53:44.899945  9489 net.cpp:399] fc7 -> fc7
I0925 23:53:44.899983  9454 net.cpp:141] Setting up lstm2_transform_1
I0925 23:53:44.900022  9454 net.cpp:148] Top shape: 1 1 4000 (4000)
I0925 23:53:44.900027  9454 net.cpp:156] Memory required for data: 66020
I0925 23:53:44.900045  9454 layer_factory.hpp:77] Creating layer lstm2_gate_input_1
I0925 23:53:44.900065  9454 net.cpp:91] Creating Layer lstm2_gate_input_1
I0925 23:53:44.900073  9454 net.cpp:425] lstm2_gate_input_1 <- W_hc_h_0
I0925 23:53:44.900080  9454 net.cpp:425] lstm2_gate_input_1 <- W_xc_x_1
I0925 23:53:44.900104  9454 net.cpp:399] lstm2_gate_input_1 -> gate_input_1
I0925 23:53:44.900259  9454 net.cpp:141] Setting up lstm2_gate_input_1
I0925 23:53:44.900271  9454 net.cpp:148] Top shape: 1 1 4000 (4000)
I0925 23:53:44.900276  9454 net.cpp:156] Memory required for data: 82020
I0925 23:53:44.900281  9454 layer_factory.hpp:77] Creating layer lstm2_unit_1
I0925 23:53:44.900295  9454 net.cpp:91] Creating Layer lstm2_unit_1
I0925 23:53:44.900300  9454 net.cpp:425] lstm2_unit_1 <- c_0
I0925 23:53:44.900306  9454 net.cpp:425] lstm2_unit_1 <- gate_input_1
I0925 23:53:44.900312  9454 net.cpp:425] lstm2_unit_1 <- cont_1_lstm2_cont_slice_0_split_1
I0925 23:53:44.900318  9454 net.cpp:399] lstm2_unit_1 -> c_1
I0925 23:53:44.900327  9454 net.cpp:399] lstm2_unit_1 -> h_1
I0925 23:53:44.949322  9471 net.cpp:141] Setting up lstm2
I0925 23:53:44.949445  9471 net.cpp:148] Top shape: 1 1 1000 (1000)
I0925 23:53:44.949463  9471 net.cpp:156] Memory required for data: 36412
I0925 23:53:44.949589  9487 net.cpp:141] Setting up predict
I0925 23:53:44.949616  9454 net.cpp:141] Setting up lstm2_unit_1
I0925 23:53:44.949626  9487 net.cpp:148] Top shape: 1 1 46168 (46168)
I0925 23:53:44.949633  9487 net.cpp:156] Memory required for data: 221084
I0925 23:53:44.949636  9454 net.cpp:148] Top shape: 1 1 1000 (1000)
I0925 23:53:44.949630  9471 layer_factory.hpp:77] Creating layer predict
I0925 23:53:44.949645  9454 net.cpp:148] Top shape: 1 1 1000 (1000)
I0925 23:53:44.949651  9487 layer_factory.hpp:77] Creating layer probs
I0925 23:53:44.949651  9454 net.cpp:156] Memory required for data: 90020
I0925 23:53:44.949666  9454 layer_factory.hpp:77] Creating layer lstm2_
I0925 23:53:44.949674  9487 net.cpp:91] Creating Layer probs
I0925 23:53:44.949676  9454 net.cpp:91] Creating Layer lstm2_
I0925 23:53:44.949683  9487 net.cpp:425] probs <- predict
I0925 23:53:44.949683  9454 net.cpp:425] lstm2_ <- c_1
I0925 23:53:44.949697  9487 net.cpp:399] probs -> probs
I0925 23:53:44.949717  9454 net.cpp:399] lstm2_ -> c_T
I0925 23:53:44.949683  9471 net.cpp:91] Creating Layer predict
I0925 23:53:44.949780  9471 net.cpp:425] predict <- lstm2
I0925 23:53:44.949815  9471 net.cpp:399] predict -> predict
I0925 23:53:45.037820  9454 net.cpp:141] Setting up lstm2_
I0925 23:53:45.037868  9454 net.cpp:148] Top shape: 1 1 1000 (1000)
I0925 23:53:45.037875  9454 net.cpp:156] Memory required for data: 94020
I0925 23:53:45.037885  9454 layer_factory.hpp:77] Creating layer lstm2_h_concat
I0925 23:53:45.037904  9454 net.cpp:91] Creating Layer lstm2_h_concat
I0925 23:53:45.037911  9454 net.cpp:425] lstm2_h_concat <- h_1
I0925 23:53:45.037924  9454 net.cpp:399] lstm2_h_concat -> h
I0925 23:53:45.038306  9452 net.cpp:141] Setting up predict
I0925 23:53:45.038352  9452 net.cpp:148] Top shape: 1 1 46168 (46168)
I0925 23:53:45.038363  9452 net.cpp:156] Memory required for data: 221084
I0925 23:53:45.038386  9452 layer_factory.hpp:77] Creating layer probs
I0925 23:53:45.038414  9452 net.cpp:91] Creating Layer probs
I0925 23:53:45.038424  9452 net.cpp:425] probs <- predict
I0925 23:53:45.038441  9452 net.cpp:399] probs -> probs
I0925 23:53:45.040977  9452 net.cpp:141] Setting up probs
I0925 23:53:45.041038  9452 net.cpp:148] Top shape: 1 1 46168 (46168)
I0925 23:53:45.041049  9452 net.cpp:156] Memory required for data: 405756
I0925 23:53:45.041064  9452 net.cpp:219] probs does not need backward computation.
I0925 23:53:45.041076  9452 net.cpp:219] predict does not need backward computation.
I0925 23:53:45.041086  9452 net.cpp:219] lstm2 does not need backward computation.
I0925 23:53:45.041096  9452 net.cpp:219] concat does not need backward computation.
I0925 23:53:45.041107  9452 net.cpp:219] lstm1 does not need backward computation.
I0925 23:53:45.041117  9452 net.cpp:219] embedding does not need backward computation.
I0925 23:53:45.041127  9452 net.cpp:219] reshape_stage_indicator does not need backward computation.
I0925 23:53:45.041137  9452 net.cpp:219] reshape_frames does not need backward computation.
I0925 23:53:45.041131  9454 net.cpp:141] Setting up lstm2_h_concat
I0925 23:53:45.041146  9452 net.cpp:219] embed_encoder does not need backward computation.
I0925 23:53:45.041185  9452 net.cpp:219] cont_sentence_input_1_split does not need backward computation.
I0925 23:53:45.041185  9454 net.cpp:148] Top shape: 1 1 1000 (1000)
I0925 23:53:45.041213  9452 net.cpp:219] input does not need backward computation.
I0925 23:53:45.041218  9454 net.cpp:156] Memory required for data: 98020
I0925 23:53:45.041223  9452 net.cpp:261] This network produces output probs
I0925 23:53:45.041234  9454 layer_factory.hpp:77] Creating layer h_pseudoloss
I0925 23:53:45.041252  9452 net.cpp:274] Network initialization done.
I0925 23:53:45.041263  9454 net.cpp:91] Creating Layer h_pseudoloss
…
I0925 23:53:45.042342  9454 net.cpp:219] lstm2_ does not need backward computation.
I0925 23:53:45.042351  9454 net.cpp:261] This network produces output c_T
I0925 23:53:45.042359  9454 net.cpp:261] This network produces output h_pseudoloss
I0925 23:53:45.042387  9454 net.cpp:274] Network initialization done.
I0925 23:53:45.042481  9454 recurrent_layer.cpp:150] Adding parameter 0: W_xc
I0925 23:53:45.042495  9454 recurrent_layer.cpp:150] Adding parameter 1: b_c
I0925 23:53:45.042503  9454 recurrent_layer.cpp:150] Adding parameter 2: W_hc
I0925 23:53:45.047502  9487 net.cpp:141] Setting up probs
I0925 23:53:45.047559  9487 net.cpp:148] Top shape: 1 1 46168 (46168)
I0925 23:53:45.047567  9487 net.cpp:156] Memory required for data: 405756
I0925 23:53:45.047580  9487 net.cpp:219] probs does not need backward computation.
I0925 23:53:45.047591  9487 net.cpp:219] predict does not need backward computation.
I0925 23:53:45.047601  9487 net.cpp:219] lstm2 does not need backward computation.
I0925 23:53:45.047587  9454 net.cpp:141] Setting up lstm2
I0925 23:53:45.047662  9454 net.cpp:148] Top shape: 1 1 1000 (1000)
I0925 23:53:45.047677  9454 net.cpp:156] Memory required for data: 36412
I0925 23:53:45.047703  9454 layer_factory.hpp:77] Creating layer predict
I0925 23:53:45.047724  9454 net.cpp:91] Creating Layer predict
I0925 23:53:45.047731  9454 net.cpp:425] predict <- lstm2
I0925 23:53:45.047741  9454 net.cpp:399] predict -> predict
I0925 23:53:45.047621  9487 net.cpp:219] concat does not need backward computation.
I0925 23:53:45.047771  9487 net.cpp:219] lstm1 does not need backward computation.
I0925 23:53:45.047781  9487 net.cpp:219] embedding does not need backward computation.
I0925 23:53:45.047790  9487 net.cpp:219] reshape_stage_indicator does not need backward computation.
I0925 23:53:45.047797  9487 net.cpp:219] reshape_frames does not need backward computation.
I0925 23:53:45.047804  9487 net.cpp:219] embed_encoder does not need backward computation.
I0925 23:53:45.047812  9487 net.cpp:219] cont_sentence_input_1_split does not need backward computation.
I0925 23:53:45.047821  9487 net.cpp:219] input does not need backward computation.
I0925 23:53:45.047827  9487 net.cpp:261] This network produces output probs
I0925 23:53:45.047852  9487 net.cpp:274] Network initialization done.
I0925 23:53:45.054725  9497 net.cpp:148] Top shape: 1 1 46168 (46168)
I0925 23:53:45.054747  9497 net.cpp:156] Memory required for data: 221084
I0925 23:53:45.054769  9497 layer_factory.hpp:77] Creating layer probs
I0925 23:53:45.065153  9489 net.cpp:141] Setting up fc7
I0925 23:53:45.065297  9489 net.cpp:148] Top shape: 10 4096 (40960)
I0925 23:53:45.065315  9489 net.cpp:156] Memory required for data: 68273720
I0925 23:53:45.137109  9489 layer_factory.hpp:77] Creating layer relu7
I0925 23:53:45.137109  9497 net.cpp:91] Creating Layer probs
I0925 23:53:45.138118  9489 net.cpp:91] Creating Layer relu7
I0925 23:53:45.138145  9497 net.cpp:425] probs <- predict
I0925 23:53:45.138370  9489 net.cpp:425] relu7 <- fc7
I0925 23:53:45.138387  9497 net.cpp:399] probs -> probs
I0925 23:53:45.138396  9489 net.cpp:386] relu7 -> fc7 (in-place)
I0925 23:53:45.146373  9489 net.cpp:141] Setting up relu7
I0925 23:53:45.146438  9489 net.cpp:148] Top shape: 10 4096 (40960)
I0925 23:53:45.146450  9489 net.cpp:156] Memory required for data: 68437560
I0925 23:53:45.146466  9489 layer_factory.hpp:77] Creating layer drop7
I0925 23:53:45.146492  9489 net.cpp:91] Creating Layer drop7
I0925 23:53:45.146502  9489 net.cpp:425] drop7 <- fc7
I0925 23:53:45.146525  9489 net.cpp:386] drop7 -> fc7 (in-place)
I0925 23:53:45.146745  9489 net.cpp:141] Setting up drop7
I0925 23:53:45.146772  9489 net.cpp:148] Top shape: 10 4096 (40960)
I0925 23:53:45.146781  9489 net.cpp:156] Memory required for data: 68601400
I0925 23:53:45.146791  9489 layer_factory.hpp:77] Creating layer fc8
I0925 23:53:45.146807  9489 net.cpp:91] Creating Layer fc8
I0925 23:53:45.146816  9489 net.cpp:425] fc8 <- fc7
I0925 23:53:45.146829  9489 net.cpp:399] fc8 -> fc8
I0925 23:53:45.163579  9489 net.cpp:141] Setting up fc8
I0925 23:53:45.163653  9489 net.cpp:148] Top shape: 10 1000 (10000)
I0925 23:53:45.163667  9489 net.cpp:156] Memory required for data: 68641400
I0925 23:53:45.163700  9489 layer_factory.hpp:77] Creating layer prob
I0925 23:53:45.163738  9489 net.cpp:91] Creating Layer prob
I0925 23:53:45.163751  9489 net.cpp:425] prob <- fc8
I0925 23:53:45.163770  9489 net.cpp:399] prob -> prob
I0925 23:53:45.172518  9489 net.cpp:141] Setting up prob
I0925 23:53:45.172582  9489 net.cpp:148] Top shape: 10 1000 (10000)
I0925 23:53:45.172592  9489 net.cpp:156] Memory required for data: 68681400
I0925 23:53:45.172610  9489 net.cpp:219] prob does not need backward computation.
I0925 23:53:45.172621  9489 net.cpp:219] fc8 does not need backward computation.
I0925 23:53:45.172631  9489 net.cpp:219] drop7 does not need backward computation.
I0925 23:53:45.172641  9489 net.cpp:219] relu7 does not need backward computation.
…
I0925 23:53:45.172791  9489 net.cpp:219] norm1 does not need backward computation.
I0925 23:53:45.172801  9489 net.cpp:219] pool1 does not need backward computation.
I0925 23:53:45.172809  9489 net.cpp:219] relu1 does not need backward computation.
I0925 23:53:45.172818  9489 net.cpp:219] conv1 does not need backward computation.
I0925 23:53:45.172827  9489 net.cpp:219] data does not need backward computation.
I0925 23:53:45.172834  9489 net.cpp:261] This network produces output prob
I0925 23:53:45.173171  9489 net.cpp:274] Network initialization done.
I0925 23:53:45.175328  9497 net.cpp:141] Setting up probs
I0925 23:53:45.175371  9497 net.cpp:148] Top shape: 1 1 46168 (46168)
I0925 23:53:45.175377  9497 net.cpp:156] Memory required for data: 405756
I0925 23:53:45.175389  9497 net.cpp:219] probs does not need backward computation.
I0925 23:53:45.175395  9497 net.cpp:219] predict does not need backward computation.
I0925 23:53:45.175760  9497 net.cpp:219] lstm2 does not need backward computation.
I0925 23:53:45.175773  9497 net.cpp:219] concat does not need backward computation.
I0925 23:53:45.175783  9497 net.cpp:219] lstm1 does not need backward computation.
I0925 23:53:45.175792  9497 net.cpp:219] embedding does not need backward computation.
I0925 23:53:45.175801  9497 net.cpp:219] reshape_stage_indicator does not need backward computation.
I0925 23:53:45.175809  9497 net.cpp:219] reshape_frames does not need backward computation.
I0925 23:53:45.175817  9497 net.cpp:219] embed_encoder does not need backward computation.
I0925 23:53:45.175825  9497 net.cpp:219] cont_sentence_input_1_split does not need backward computation.
I0925 23:53:45.175834  9497 net.cpp:219] input does not need backward computation.
I0925 23:53:45.175842  9497 net.cpp:261] This network produces output probs
I0925 23:53:45.175874  9497 net.cpp:274] Network initialization done.
I0925 23:53:45.204679  9467 net.cpp:141] Setting up predict
I0925 23:53:45.204737  9467 net.cpp:148] Top shape: 1 1 46168 (46168)
I0925 23:53:45.204744  9467 net.cpp:156] Memory required for data: 221084
I0925 23:53:45.204761  9467 layer_factory.hpp:77] Creating layer probs
I0925 23:53:45.204779  9467 net.cpp:91] Creating Layer probs
I0925 23:53:45.204787  9467 net.cpp:425] probs <- predict
I0925 23:53:45.204797  9467 net.cpp:399] probs -> probs
I0925 23:53:45.207031  9467 net.cpp:141] Setting up probs
I0925 23:53:45.207089  9467 net.cpp:148] Top shape: 1 1 46168 (46168)
I0925 23:53:45.207098  9467 net.cpp:156] Memory required for data: 405756
I0925 23:53:45.207108  9467 net.cpp:219] probs does not need backward computation.
I0925 23:53:45.207116  9467 net.cpp:219] predict does not need backward computation.
I0925 23:53:45.207123  9467 net.cpp:219] lstm2 does not need backward computation.
I0925 23:53:45.207129  9467 net.cpp:219] concat does not need backward computation.
I0925 23:53:45.207135  9467 net.cpp:219] lstm1 does not need backward computation.
I0925 23:53:45.207141  9467 net.cpp:219] embedding does not need backward computation.
I0925 23:53:45.207147  9467 net.cpp:219] reshape_stage_indicator does not need backward computation.
I0925 23:53:45.207152  9467 net.cpp:219] reshape_frames does not need backward computation.
I0925 23:53:45.207157  9467 net.cpp:219] embed_encoder does not need backward computation.
I0925 23:53:45.207162  9467 net.cpp:219] cont_sentence_input_1_split does not need backward computation.
I0925 23:53:45.207168  9467 net.cpp:219] input does not need backward computation.
I0925 23:53:45.207172  9467 net.cpp:261] This network produces output probs
I0925 23:53:45.207191  9467 net.cpp:274] Network initialization done.
I0925 23:53:45.335374  9458 net.cpp:141] Setting up predict
I0925 23:53:45.335433  9458 net.cpp:148] Top shape: 1 1 46168 (46168)
I0925 23:53:45.335439  9458 net.cpp:156] Memory required for data: 221084
I0925 23:53:45.335454  9458 layer_factory.hpp:77] Creating layer probs
I0925 23:53:45.335566  9458 net.cpp:91] Creating Layer probs
I0925 23:53:45.335608  9458 net.cpp:425] probs <- predict
I0925 23:53:45.335626  9458 net.cpp:399] probs -> probs
I0925 23:53:45.336730  9458 net.cpp:141] Setting up probs
I0925 23:53:45.337035  9458 net.cpp:148] Top shape: 1 1 46168 (46168)
I0925 23:53:45.337247  9458 net.cpp:156] Memory required for data: 405756
I0925 23:53:45.337394  9458 net.cpp:219] probs does not need backward computation.
I0925 23:53:45.337513  9458 net.cpp:219] predict does not need backward computation.
I0925 23:53:45.337625  9458 net.cpp:219] lstm2 does not need backward computation.
I0925 23:53:45.337740  9458 net.cpp:219] concat does not need backward computation.
I0925 23:53:45.337858  9458 net.cpp:219] lstm1 does not need backward computation.
I0925 23:53:45.337971  9458 net.cpp:219] embedding does not need backward computation.
I0925 23:53:45.338081  9458 net.cpp:219] reshape_stage_indicator does not need backward computation.
I0925 23:53:45.338263  9458 net.cpp:219] reshape_frames does not need backward computation.
I0925 23:53:45.338376  9458 net.cpp:219] embed_encoder does not need backward computation.
I0925 23:53:45.338486  9458 net.cpp:219] cont_sentence_input_1_split does not need backward computation.
I0925 23:53:45.338609  9458 net.cpp:219] input does not need backward computation.
I0925 23:53:45.338722  9458 net.cpp:261] This network produces output probs
I0925 23:53:45.338852  9458 net.cpp:274] Network initialization done.
I0925 23:53:45.420637  9471 net.cpp:141] Setting up predict
I0925 23:53:45.421114  9471 net.cpp:148] Top shape: 1 1 46168 (46168)
I0925 23:53:45.421288  9471 net.cpp:156] Memory required for data: 221084
I0925 23:53:45.421427  9471 layer_factory.hpp:77] Creating layer probs
I0925 23:53:45.421563  9471 net.cpp:91] Creating Layer probs
I0925 23:53:45.421700  9471 net.cpp:425] probs <- predict
I0925 23:53:45.421826  9471 net.cpp:399] probs -> probs
I0925 23:53:45.422719  9471 net.cpp:141] Setting up probs
I0925 23:53:45.422917  9471 net.cpp:148] Top shape: 1 1 46168 (46168)
I0925 23:53:45.423040  9471 net.cpp:156] Memory required for data: 405756
I0925 23:53:45.423213  9471 net.cpp:219] probs does not need backward computation.
I0925 23:53:45.423336  9471 net.cpp:219] predict does not need backward computation.
I0925 23:53:45.423611  9471 net.cpp:219] lstm2 does not need backward computation.
I0925 23:53:45.423740  9471 net.cpp:219] concat does not need backward computation.
…
