…
I0922 22:33:55.013351 30509 upgrade_proto.cpp:69] Successfully upgraded file specified using deprecated input fields.
W0922 22:33:55.013381 30493 upgrade_proto.cpp:71] Note that future Caffe releases will only support input layers and not input fields.
W0922 22:33:55.013383 30509 upgrade_proto.cpp:71] Note that future Caffe releases will only support input layers and not input fields.
I0922 22:33:55.013597 30487 net.cpp:49] Initializing net from parameters: 
name: "CaffeNet"
state {
  phase: TEST
}
layer {
  name: "data"
  type: "Input"
  top: "data"
  input_param {
    shape {
      dim: 10
      dim: 3
      dim: 227
      dim: 227
    }
  }
}
layer {
  name: "conv1"
  type: "Convolution"
  bottom: "data"
  top: "conv1"
  convolution_param {
    num_output: 96
    kernel_size: 11
    stride: 4
  }
}
layer {
  name: "relu1"
  type: "ReLU"
  bottom: "conv1"
  top: "conv1"
}
layer {
  name: "pool1"
  type: "Pooling"
  bottom: "conv1"
  top: "pool1"
  pooling_param {
    pool: MAX
    kernel_size: 3
    stride: 2
  }
}
layer {
  name: "norm1"
  type: "LRN"
  bottom: "pool1"
  top: "norm1"
  lrn_param {
    local_size: 5
    alpha: 0.0001
    beta: 0.75
  }
}
layer {
  name: "conv2"
  type: "Convolution"
  bottom: "norm1"
  top: "conv2"
  convolution_param {
    num_output: 256
    pad: 2
    kernel_size: 5
    group: 2
  }
}
layer {
  name: "relu2"
  type: "ReLU"
  bottom: "conv2"
  top: "conv2"
}
layer {
  name: "pool2"
  type: "Pooling"
  bottom: "conv2"
  top: "pool2"
  pooling_param {
    pool: MAX
    kernel_size: 3
    stride: 2
  }
}
layer {
  name: "norm2"
  type: "LRN"
  bottom: "pool2"
  top: "norm2"
  lrn_param {
    local_size: 5
    alpha: 0.0001
    beta: 0.75
  }
}
layer {
  name: "conv3"
  type: "Convolution"
  bottom: "norm2"
  top: "conv3"
  convolution_param {
    num_output: 384
    pad: 1
    kernel_size: 3
  }
}
layer {
  name: "relu3"
  type: "ReLU"
  bottom: "conv3"
  top: "conv3"
}
layer {
  name: "conv4"
  type: "Convolution"
  bottom: "conv3"
  top: "conv4"
  convolution_param {
    num_output: 384
    pad: 1
    kernel_size: 3
    group: 2
  }
}
layer {
  name: "relu4"
  type: "ReLU"
  bottom: "conv4"
  top: "conv4"
}
layer {
  name: "conv5"
  type: "Convolution"
  bottom: "conv4"
  top: "conv5"
  convolution_param {
    num_output: 256
    pad: 1
    kernel_size: 3
    group: 2
  }
}
layer {
  name: "relu5"
  type: "ReLU"
  bottom: "conv5"
  top: "conv5"
}
layer {
  name: "pool5"
  type: "Pooling"
  bottom: "conv5"
  top: "pool5"
  pooling_param {
    pool: MAX
    kernel_size: 3
    stride: 2
  }
}
layer {
  name: "fc6"
  type: "InnerProduct"
  bottom: "pool5"
  top: "fc6"
  inner_product_param {
    num_output: 4096
  }
}
layer {
  name: "relu6"
  type: "ReLU"
  bottom: "fc6"
  top: "fc6"
}
layer {
  name: "drop6"
  type: "Dropout"
  bottom: "fc6"
  top: "fc6"
  dropout_param {
    dropout_ratio: 0.5
  }
}
layer {
  name: "fc7"
  type: "InnerProduct"
  bottom: "fc6"
  top: "fc7"
  inner_product_param {
    num_output: 4096
  }
}
layer {
  name: "relu7"
  type: "ReLU"
  bottom: "fc7"
  top: "fc7"
}
layer {
  name: "drop7"
  type: "Dropout"
  bottom: "fc7"
  top: "fc7"
  dropout_param {
    dropout_ratio: 0.5
  }
}
layer {
  name: "fc8"
  type: "InnerProduct"
  bottom: "fc7"
  top: "fc8"
  inner_product_param {
    num_output: 1000
  }
}
layer {
  name: "prob"
  type: "Softmax"
  bottom: "fc8"
  top: "prob"
}
I0922 22:33:55.013594 30489 net.cpp:49] Initializing net from parameters: 
name: "s2vt:features_to_lstm"
state {
  phase: TEST
}
layer {
  name: "input"
  type: "Input"
  top: "frames_fc7"
  top: "cont_sentence"
  top: "input_sentence"
  top: "stage_indicator"
  input_param {
    shape {
      dim: 1
      dim: 4096
    }
    shape {
      dim: 1
      dim: 1
    }
    shape {
      dim: 1
      dim: 1
    }
    shape {
      dim: 1
      dim: 1
    }
  }
}
layer {
  name: "embed_encoder"
  type: "InnerProduct"
  bottom: "frames_fc7"
  top: "embedded_in_frames"
  param {
    lr_mult: 1
    decay_mult: 1
  }
  param {
    lr_mult: 2
    decay_mult: 0
  }
  inner_product_param {
    num_output: 500
    weight_filler {
      type: "xavier"
    }
    bias_filler {
      type: "constant"
      value: 0.2
    }
  }
}
layer {
  name: "reshape_frames"
  type: "Reshape"
  bottom: "embedded_in_frames"
  top: "embedded_input_frames"
  reshape_param {
    shape {
      dim: 1
      dim: 1
      dim: 500
    }
  }
}
layer {
  name: "reshape_stage_indicator"
  type: "Reshape"
  bottom: "stage_indicator"
  top: "reshaped_stage_indicator"
  reshape_param {
    shape {
      dim: 1
      dim: 1
      dim: 1
    }
  }
}
layer {
  name: "embedding"
  type: "Embed"
  bottom: "input_sentence"
  top: "embedded_input_sentence"
  param {
    lr_mult: 1
  }
  embed_param {
    num_output: 500
    input_dim: 46168
    bias_term: false
    weight_filler {
      type: "uniform"
      min: -0.08
      max: 0.08
    }
  }
}
layer {
  name: "lstm1"
  type: "LSTM"
  bottom: "embedded_input_frames"
  bottom: "cont_sentence"
  top: "lstm1"
  recurrent_param {
    num_output: 1000
    weight_filler {
      type: "uniform"
      min: -0.08
      max: 0.08
    }
    bias_filler {
      type: "constant"
      value: 0
    }
  }
}
layer {
  name: "concat"
  type: "Concat"
  bottom: "lstm1"
  bottom: "embedded_input_sentence"
  bottom: "reshaped_stage_indicator"
  top: "lstm1_video_sequence"
  concat_param {
    concat_dim: 2
  }
}
layer {
  name: "lstm2"
  type: "LSTM"
  bottom: "lstm1_video_sequence"
  bottom: "cont_sentence"
  top: "lstm2"
  recurrent_param {
    num_output: 1000
    weight_filler {
      type: "uniform"
      min: -0.08
      max: 0.08
    }
    bias_filler {
      type: "constant"
      value: 0
    }
  }
}
layer {
  name: "predict"
  type: "InnerProduct"
  bottom: "lstm2"
  top: "predict"
  param {
    lr_mult: 1
    decay_mult: 1
  }
  param {
    lr_mult: 2
    decay_mult: 0
  }
  inner_product_param {
    num_output: 46168
    weight_filler {
      type: "uniform"
      min: -0.08
      max: 0.08
    }
    bias_filler {
      type: "constant"
      value: 0
    }
    axis: 2
  }
}
layer {
  name: "probs"
  type: "Softmax"
  bottom: "predict"
  top: "probs"
  softmax_param {
    axis: 2
  }
}
I0922 22:33:55.013679 30493 net.cpp:49] Initializing net from parameters: 
name: "s2vt:features_to_lstm"
state {
  phase: TEST
}
layer {
  name: "input"
  type: "Input"
  top: "frames_fc7"
  top: "cont_sentence"
  top: "input_sentence"
  top: "stage_indicator"
  input_param {
    shape {
      dim: 1
      dim: 4096
    }
    shape {
      dim: 1
      dim: 1
    }
    shape {
      dim: 1
      dim: 1
    }
    shape {
      dim: 1
      dim: 1
    }
  }
}
layer {
  name: "embed_encoder"
  type: "InnerProduct"
  bottom: "frames_fc7"
  top: "embedded_in_frames"
  param {
    lr_mult: 1
    decay_mult: 1
  }
  param {
    lr_mult: 2
    decay_mult: 0
  }
  inner_product_param {
    num_output: 500
    weight_filler {
      type: "xavier"
    }
    bias_filler {
      type: "constant"
      value: 0.2
    }
  }
}
layer {
  name: "reshape_frames"
  type: "Reshape"
  bottom: "embedded_in_frames"
  top: "embedded_input_frames"
  reshape_param {
    shape {
      dim: 1
      dim: 1
      dim: 500
    }
  }
}
layer {
  name: "reshape_stage_indicator"
  type: "Reshape"
  bottom: "stage_indicator"
  top: "reshaped_stage_indicator"
  reshape_param {
    shape {
      dim: 1
      dim: 1
      dim: 1
    }
  }
}
layer {
  name: "embedding"
  type: "Embed"
  bottom: "input_sentence"
  top: "embedded_input_sentence"
  param {
    lr_mult: 1
  }
  embed_param {
    num_output: 500
    input_dim: 46168
    bias_term: false
    weight_filler {
      type: "uniform"
      min: -0.08
      max: 0.08
    }
  }
}
layer {
  name: "lstm1"
  type: "LSTM"
  bottom: "embedded_input_frames"
  bottom: "cont_sentence"
  top: "lstm1"
  recurrent_param {
    num_output: 1000
    weight_filler {
      type: "uniform"
      min: -0.08
      max: 0.08
    }
    bias_filler {
      type: "constant"
      value: 0
    }
  }
}
layer {
  name: "concat"
  type: "Concat"
  bottom: "lstm1"
  bottom: "embedded_input_sentence"
  bottom: "reshaped_stage_indicator"
  top: "lstm1_video_sequence"
  concat_param {
    concat_dim: 2
  }
}
layer {
  name: "lstm2"
  type: "LSTM"
  bottom: "lstm1_video_sequence"
  bottom: "cont_sentence"
  top: "lstm2"
  recurrent_param {
    num_output: 1000
    weight_filler {
      type: "uniform"
      min: -0.08
      max: 0.08
    }
    bias_filler {
      type: "constant"
      value: 0
    }
  }
}
layer {
  name: "predict"
  type: "InnerProduct"
  bottom: "lstm2"
  top: "predict"
  param {
    lr_mult: 1
    decay_mult: 1
  }
  param {
    lr_mult: 2
    decay_mult: 0
  }
  inner_product_param {
    num_output: 46168
    weight_filler {
      type: "uniform"
      min: -0.08
      max: 0.08
    }
    bias_filler {
      type: "constant"
      value: 0
    }
    axis: 2
  }
}
layer {
  name: "probs"
  type: "Softmax"
  bottom: "predict"
  top: "probs"
  softmax_param {
    axis: 2
  }
}
I0922 22:33:55.013679 30509 net.cpp:49] Initializing net from parameters: 
name: "s2vt:features_to_lstm"
state {
  phase: TEST
}
layer {
  name: "input"
  type: "Input"
  top: "frames_fc7"
  top: "cont_sentence"
  top: "input_sentence"
  top: "stage_indicator"
  input_param {
    shape {
      dim: 1
      dim: 4096
    }
    shape {
      dim: 1
      dim: 1
    }
    shape {
      dim: 1
      dim: 1
    }
    shape {
      dim: 1
      dim: 1
    }
  }
}
layer {
  name: "embed_encoder"
  type: "InnerProduct"
  bottom: "frames_fc7"
  top: "embedded_in_frames"
  param {
    lr_mult: 1
    decay_mult: 1
  }
  param {
    lr_mult: 2
    decay_mult: 0
  }
  inner_product_param {
    num_output: 500
    weight_filler {
      type: "xavier"
    }
    bias_filler {
      type: "constant"
      value: 0.2
    }
  }
}
layer {
  name: "reshape_frames"
  type: "Reshape"
  bottom: "embedded_in_frames"
  top: "embedded_input_frames"
  reshape_param {
    shape {
      dim: 1
      dim: 1
      dim: 500
    }
  }
}
layer {
  name: "reshape_stage_indicator"
  type: "Reshape"
  bottom: "stage_indicator"
  top: "reshaped_stage_indicator"
  reshape_param {
    shape {
      dim: 1
      dim: 1
      dim: 1
    }
  }
}
layer {
  name: "embedding"
  type: "Embed"
  bottom: "input_sentence"
  top: "embedded_input_sentence"
  param {
    lr_mult: 1
  }
  embed_param {
    num_output: 500
    input_dim: 46168
    bias_term: false
    weight_filler {
      type: "uniform"
      min: -0.08
      max: 0.08
    }
  }
}
layer {
  name: "lstm1"
  type: "LSTM"
  bottom: "embedded_input_frames"
  bottom: "cont_sentence"
  top: "lstm1"
  recurrent_param {
    num_output: 1000
    weight_filler {
      type: "uniform"
      min: -0.08
      max: 0.08
    }
    bias_filler {
      type: "constant"
      value: 0
    }
  }
}
layer {
  name: "concat"
  type: "Concat"
  bottom: "lstm1"
  bottom: "embedded_input_sentence"
  bottom: "reshaped_stage_indicator"
  top: "lstm1_video_sequence"
  concat_param {
    concat_dim: 2
  }
}
layer {
  name: "lstm2"
  type: "LSTM"
  bottom: "lstm1_video_sequence"
  bottom: "cont_sentence"
  top: "lstm2"
  recurrent_param {
    num_output: 1000
    weight_filler {
      type: "uniform"
      min: -0.08
      max: 0.08
    }
    bias_filler {
      type: "constant"
      value: 0
    }
  }
}
layer {
  name: "predict"
  type: "InnerProduct"
  bottom: "lstm2"
  top: "predict"
  param {
    lr_mult: 1
    decay_mult: 1
  }
  param {
    lr_mult: 2
    decay_mult: 0
  }
  inner_product_param {
    num_output: 46168
    weight_filler {
      type: "uniform"
      min: -0.08
      max: 0.08
    }
    bias_filler {
      type: "constant"
      value: 0
    }
    axis: 2
  }
}
layer {
  name: "probs"
  type: "Softmax"
  bottom: "predict"
  top: "probs"
  softmax_param {
    axis: 2
  }
}
I0922 22:33:55.013725 30487 layer_factory.hpp:77] Creating layer data
I0922 22:33:55.013734 30489 layer_factory.hpp:77] Creating layer input
I0922 22:33:55.013751 30489 net.cpp:91] Creating Layer input
I0922 22:33:55.013751 30487 net.cpp:91] Creating Layer data
I0922 22:33:55.013767 30489 net.cpp:399] input -> frames_fc7
I0922 22:33:55.013768 30487 net.cpp:399] data -> data
…
I0922 22:33:55.013887 30509 net.cpp:399] input -> cont_sentence
I0922 22:33:55.013892 30493 net.cpp:399] input -> cont_sentence
I0922 22:33:55.013907 30493 net.cpp:399] input -> input_sentence
I0922 22:33:55.013909 30509 net.cpp:399] input -> input_sentence
I0922 22:33:55.013937 30493 net.cpp:399] input -> stage_indicator
I0922 22:33:55.013939 30509 net.cpp:399] input -> stage_indicator
I0922 22:33:55.594166 30487 net.cpp:141] Setting up data
I0922 22:33:55.594312 30509 net.cpp:141] Setting up input
I0922 22:33:55.594559 30489 net.cpp:141] Setting up input
I0922 22:33:55.594586 30493 net.cpp:141] Setting up input
I0922 22:33:55.594923 30489 net.cpp:148] Top shape: 1 4096 (4096)
I0922 22:33:55.594936 30493 net.cpp:148] Top shape: 1 4096 (4096)
I0922 22:33:55.594920 30487 net.cpp:148] Top shape: 10 3 227 227 (1545870)
I0922 22:33:55.594954 30493 net.cpp:148] Top shape: 1 1 (1)
I0922 22:33:55.594945 30489 net.cpp:148] Top shape: 1 1 (1)
I0922 22:33:55.594920 30509 net.cpp:148] Top shape: 1 4096 (4096)
I0922 22:33:55.594974 30489 net.cpp:148] Top shape: 1 1 (1)
I0922 22:33:55.594964 30487 net.cpp:156] Memory required for data: 6183480
I0922 22:33:55.594964 30493 net.cpp:148] Top shape: 1 1 (1)
I0922 22:33:55.594985 30489 net.cpp:148] Top shape: 1 1 (1)
I0922 22:33:55.595005 30493 net.cpp:148] Top shape: 1 1 (1)
I0922 22:33:55.595007 30489 net.cpp:156] Memory required for data: 16396
I0922 22:33:55.595005 30487 layer_factory.hpp:77] Creating layer conv1
I0922 22:33:55.595016 30493 net.cpp:156] Memory required for data: 16396
I0922 22:33:55.595031 30489 layer_factory.hpp:77] Creating layer cont_sentence_input_1_split
I0922 22:33:55.595041 30493 layer_factory.hpp:77] Creating layer cont_sentence_input_1_split
I0922 22:33:55.595062 30493 net.cpp:91] Creating Layer cont_sentence_input_1_split
I0922 22:33:55.595065 30487 net.cpp:91] Creating Layer conv1
I0922 22:33:55.595064 30489 net.cpp:91] Creating Layer cont_sentence_input_1_split
I0922 22:33:55.595079 30493 net.cpp:425] cont_sentence_input_1_split <- cont_sentence
I0922 22:33:55.595079 30487 net.cpp:425] conv1 <- data
I0922 22:33:55.595084 30489 net.cpp:425] cont_sentence_input_1_split <- cont_sentence
I0922 22:33:55.595109 30487 net.cpp:399] conv1 -> conv1
I0922 22:33:55.595118 30493 net.cpp:399] cont_sentence_input_1_split -> cont_sentence_input_1_split_0
I0922 22:33:55.595118 30489 net.cpp:399] cont_sentence_input_1_split -> cont_sentence_input_1_split_0
I0922 22:33:55.595134 30493 net.cpp:399] cont_sentence_input_1_split -> cont_sentence_input_1_split_1
I0922 22:33:55.595140 30489 net.cpp:399] cont_sentence_input_1_split -> cont_sentence_input_1_split_1
I0922 22:33:55.594980 30509 net.cpp:148] Top shape: 1 1 (1)
I0922 22:33:55.595197 30509 net.cpp:148] Top shape: 1 1 (1)
I0922 22:33:55.595204 30509 net.cpp:148] Top shape: 1 1 (1)
I0922 22:33:55.595208 30509 net.cpp:156] Memory required for data: 16396
I0922 22:33:55.595214 30509 layer_factory.hpp:77] Creating layer cont_sentence_input_1_split
I0922 22:33:55.595229 30509 net.cpp:91] Creating Layer cont_sentence_input_1_split
I0922 22:33:55.595239 30509 net.cpp:425] cont_sentence_input_1_split <- cont_sentence
I0922 22:33:55.595257 30509 net.cpp:399] cont_sentence_input_1_split -> cont_sentence_input_1_split_0
I0922 22:33:55.595274 30509 net.cpp:399] cont_sentence_input_1_split -> cont_sentence_input_1_split_1
I0922 22:33:55.595355 30489 net.cpp:141] Setting up cont_sentence_input_1_split
I0922 22:33:55.595371 30489 net.cpp:148] Top shape: 1 1 (1)
I0922 22:33:55.595381 30489 net.cpp:148] Top shape: 1 1 (1)
I0922 22:33:55.595388 30489 net.cpp:156] Memory required for data: 16404
I0922 22:33:55.595396 30489 layer_factory.hpp:77] Creating layer embed_encoder
I0922 22:33:55.595407 30509 net.cpp:141] Setting up cont_sentence_input_1_split
I0922 22:33:55.595427 30509 net.cpp:148] Top shape: 1 1 (1)
I0922 22:33:55.595429 30489 net.cpp:91] Creating Layer embed_encoder
I0922 22:33:55.595437 30509 net.cpp:148] Top shape: 1 1 (1)
I0922 22:33:55.595439 30489 net.cpp:425] embed_encoder <- frames_fc7
I0922 22:33:55.595444 30509 net.cpp:156] Memory required for data: 16404
I0922 22:33:55.595453 30509 layer_factory.hpp:77] Creating layer embed_encoder
I0922 22:33:55.595453 30489 net.cpp:399] embed_encoder -> embedded_in_frames
I0922 22:33:55.595471 30509 net.cpp:91] Creating Layer embed_encoder
I0922 22:33:55.595481 30509 net.cpp:425] embed_encoder <- frames_fc7
I0922 22:33:55.595500 30509 net.cpp:399] embed_encoder -> embedded_in_frames
I0922 22:33:55.606710 30493 net.cpp:141] Setting up cont_sentence_input_1_split
I0922 22:33:55.606784 30493 net.cpp:148] Top shape: 1 1 (1)
I0922 22:33:55.606803 30493 net.cpp:148] Top shape: 1 1 (1)
I0922 22:33:55.606815 30493 net.cpp:156] Memory required for data: 16404
I0922 22:33:55.606833 30493 layer_factory.hpp:77] Creating layer embed_encoder
I0922 22:33:55.606875 30493 net.cpp:91] Creating Layer embed_encoder
I0922 22:33:55.606894 30493 net.cpp:425] embed_encoder <- frames_fc7
I0922 22:33:55.606919 30493 net.cpp:399] embed_encoder -> embedded_in_frames
I0922 22:33:55.624184 30509 net.cpp:141] Setting up embed_encoder
I0922 22:33:55.624228 30509 net.cpp:148] Top shape: 1 500 (500)
I0922 22:33:55.624234 30509 net.cpp:156] Memory required for data: 18404
I0922 22:33:55.624264 30509 layer_factory.hpp:77] Creating layer reshape_frames
I0922 22:33:55.624299 30509 net.cpp:91] Creating Layer reshape_frames
I0922 22:33:55.624308 30509 net.cpp:425] reshape_frames <- embedded_in_frames
I0922 22:33:55.624320 30509 net.cpp:399] reshape_frames -> embedded_input_frames
I0922 22:33:55.624388 30509 net.cpp:141] Setting up reshape_frames
I0922 22:33:55.624398 30509 net.cpp:148] Top shape: 1 1 500 (500)
I0922 22:33:55.624402 30509 net.cpp:156] Memory required for data: 20404
I0922 22:33:55.624408 30509 layer_factory.hpp:77] Creating layer reshape_stage_indicator
I0922 22:33:55.624429 30509 net.cpp:91] Creating Layer reshape_stage_indicator
I0922 22:33:55.624436 30509 net.cpp:425] reshape_stage_indicator <- stage_indicator
I0922 22:33:55.624445 30509 net.cpp:399] reshape_stage_indicator -> reshaped_stage_indicator
I0922 22:33:55.626531 30509 net.cpp:141] Setting up reshape_stage_indicator
I0922 22:33:55.626557 30509 net.cpp:148] Top shape: 1 1 1 (1)
I0922 22:33:55.626562 30509 net.cpp:156] Memory required for data: 20408
I0922 22:33:55.626569 30509 layer_factory.hpp:77] Creating layer embedding
I0922 22:33:55.626585 30509 net.cpp:91] Creating Layer embedding
I0922 22:33:55.626590 30509 net.cpp:425] embedding <- input_sentence
I0922 22:33:55.626605 30509 net.cpp:399] embedding -> embedded_input_sentence
I0922 22:33:55.676244 30493 net.cpp:141] Setting up embed_encoder
I0922 22:33:55.676304 30493 net.cpp:148] Top shape: 1 500 (500)
I0922 22:33:55.676313 30493 net.cpp:156] Memory required for data: 18404
I0922 22:33:55.676338 30493 layer_factory.hpp:77] Creating layer reshape_frames
I0922 22:33:55.676324 30489 net.cpp:141] Setting up embed_encoder
I0922 22:33:55.676364 30493 net.cpp:91] Creating Layer reshape_frames
I0922 22:33:55.676374 30493 net.cpp:425] reshape_frames <- embedded_in_frames
I0922 22:33:55.676373 30489 net.cpp:148] Top shape: 1 500 (500)
I0922 22:33:55.676393 30493 net.cpp:399] reshape_frames -> embedded_input_frames
I0922 22:33:55.676395 30489 net.cpp:156] Memory required for data: 18404
I0922 22:33:55.676425 30489 layer_factory.hpp:77] Creating layer reshape_frames
I0922 22:33:55.676453 30489 net.cpp:91] Creating Layer reshape_frames
I0922 22:33:55.676465 30489 net.cpp:425] reshape_frames <- embedded_in_frames
I0922 22:33:55.676481 30489 net.cpp:399] reshape_frames -> embedded_input_frames
I0922 22:33:55.680826 30493 net.cpp:141] Setting up reshape_frames
I0922 22:33:55.680851 30493 net.cpp:148] Top shape: 1 1 500 (500)
I0922 22:33:55.680858 30493 net.cpp:156] Memory required for data: 20404
I0922 22:33:55.680866 30493 layer_factory.hpp:77] Creating layer reshape_stage_indicator
I0922 22:33:55.680881 30493 net.cpp:91] Creating Layer reshape_stage_indicator
I0922 22:33:55.680888 30493 net.cpp:425] reshape_stage_indicator <- stage_indicator
I0922 22:33:55.680899 30493 net.cpp:399] reshape_stage_indicator -> reshaped_stage_indicator
I0922 22:33:55.680932 30489 net.cpp:141] Setting up reshape_frames
I0922 22:33:55.680961 30493 net.cpp:141] Setting up reshape_stage_indicator
I0922 22:33:55.680972 30489 net.cpp:148] Top shape: 1 1 500 (500)
I0922 22:33:55.680976 30493 net.cpp:148] Top shape: 1 1 1 (1)
I0922 22:33:55.680989 30489 net.cpp:156] Memory required for data: 20404
I0922 22:33:55.681000 30493 net.cpp:156] Memory required for data: 20408
I0922 22:33:55.681016 30489 layer_factory.hpp:77] Creating layer reshape_stage_indicator
I0922 22:33:55.681020 30493 layer_factory.hpp:77] Creating layer embedding
I0922 22:33:55.681046 30493 net.cpp:91] Creating Layer embedding
I0922 22:33:55.681048 30489 net.cpp:91] Creating Layer reshape_stage_indicator
I0922 22:33:55.681052 30493 net.cpp:425] embedding <- input_sentence
I0922 22:33:55.681059 30489 net.cpp:425] reshape_stage_indicator <- stage_indicator
I0922 22:33:55.681063 30493 net.cpp:399] embedding -> embedded_input_sentence
I0922 22:33:55.681082 30489 net.cpp:399] reshape_stage_indicator -> reshaped_stage_indicator
I0922 22:33:55.681171 30489 net.cpp:141] Setting up reshape_stage_indicator
I0922 22:33:55.681186 30489 net.cpp:148] Top shape: 1 1 1 (1)
I0922 22:33:55.681192 30489 net.cpp:156] Memory required for data: 20408
I0922 22:33:55.681201 30489 layer_factory.hpp:77] Creating layer embedding
I0922 22:33:55.681221 30489 net.cpp:91] Creating Layer embedding
I0922 22:33:55.681227 30489 net.cpp:425] embedding <- input_sentence
I0922 22:33:55.681244 30489 net.cpp:399] embedding -> embedded_input_sentence
I0922 22:33:55.845115 30509 net.cpp:141] Setting up embedding
I0922 22:33:55.845158 30509 net.cpp:148] Top shape: 1 1 500 (500)
I0922 22:33:55.845165 30509 net.cpp:156] Memory required for data: 22408
I0922 22:33:55.845185 30509 layer_factory.hpp:77] Creating layer lstm1
I0922 22:33:55.845217 30509 net.cpp:91] Creating Layer lstm1
I0922 22:33:55.845227 30509 net.cpp:425] lstm1 <- embedded_input_frames
I0922 22:33:55.845235 30509 net.cpp:425] lstm1 <- cont_sentence_input_1_split_0
I0922 22:33:55.845245 30509 net.cpp:399] lstm1 -> lstm1
I0922 22:33:55.845273 30509 recurrent_layer.cpp:20] Initializing recurrent layer: assuming input batch contains 1 timesteps of 1 independent streams.
I0922 22:33:55.845641 30509 net.cpp:49] Initializing net from parameters: 
layer {
  name: "lstm1_"
  type: "Input"
  top: "x"
  top: "cont"
  input_param {
    shape {
      dim: 1
      dim: 1
      dim: 500
    }
    shape {
      dim: 1
      dim: 1
    }
  }
}
layer {
  name: "lstm1_"
  type: "Input"
  top: "c_0"
  top: "h_0"
  input_param {
    shape {
      dim: 1
      dim: 1
      dim: 1000
    }
    shape {
      dim: 1
      dim: 1
      dim: 1000
    }
  }
}
layer {
  name: "lstm1_cont_slice"
  type: "Slice"
  bottom: "cont"
  top: "cont_1"
  slice_param {
    axis: 0
  }
}
layer {
  name: "lstm1_x_transform"
  type: "InnerProduct"
  bottom: "x"
  top: "W_xc_x"
  param {
    name: "W_xc"
  }
  param {
    name: "b_c"
  }
  propagate_down: true
  inner_product_param {
    num_output: 4000
    bias_term: true
    weight_filler {
      type: "uniform"
      min: -0.08
      max: 0.08
    }
    bias_filler {
      type: "constant"
      value: 0
    }
    axis: 2
  }
}
layer {
  name: "lstm1_W_xc_x_slice"
  type: "Slice"
  bottom: "W_xc_x"
  top: "W_xc_x_1"
  slice_param {
    axis: 0
  }
}
layer {
  name: "lstm1_h_conted_0"
  type: "Scale"
  bottom: "h_0"
  bottom: "cont_1"
  top: "h_conted_0"
  scale_param {
    axis: 0
  }
}
layer {
  name: "lstm1_transform_1"
  type: "InnerProduct"
  bottom: "h_conted_0"
  top: "W_hc_h_0"
  param {
    name: "W_hc"
  }
  inner_product_param {
    num_output: 4000
    bias_term: false
    weight_filler {
      type: "uniform"
      min: -0.08
      max: 0.08
    }
    axis: 2
  }
}
layer {
  name: "lstm1_gate_input_1"
  type: "Eltwise"
  bottom: "W_hc_h_0"
  bottom: "W_xc_x_1"
  top: "gate_input_1"
  eltwise_param {
    operation: SUM
  }
}
layer {
  name: "lstm1_unit_1"
  type: "LSTMUnit"
  bottom: "c_0"
  bottom: "gate_input_1"
  bottom: "cont_1"
  top: "c_1"
  top: "h_1"
}
layer {
  name: "lstm1_"
  type: "Split"
  bottom: "c_1"
  top: "c_T"
}
layer {
  name: "lstm1_h_concat"
  type: "Concat"
  bottom: "h_1"
  top: "h"
  concat_param {
    axis: 0
  }
}
layer {
  name: "h_pseudoloss"
  type: "Reduction"
  bottom: "h"
  top: "h_pseudoloss"
  loss_weight: 1
}
I0922 22:33:55.845737 30509 layer_factory.hpp:77] Creating layer lstm1_
I0922 22:33:55.845751 30509 net.cpp:91] Creating Layer lstm1_
I0922 22:33:55.845757 30509 net.cpp:399] lstm1_ -> x
I0922 22:33:55.845768 30509 net.cpp:399] lstm1_ -> cont
I0922 22:33:55.846779 30509 net.cpp:141] Setting up lstm1_
I0922 22:33:55.846796 30509 net.cpp:148] Top shape: 1 1 500 (500)
I0922 22:33:55.846803 30509 net.cpp:148] Top shape: 1 1 (1)
I0922 22:33:55.846807 30509 net.cpp:156] Memory required for data: 2004
I0922 22:33:55.846812 30509 layer_factory.hpp:77] Creating layer lstm1_
I0922 22:33:55.846828 30509 net.cpp:91] Creating Layer lstm1_
I0922 22:33:55.846834 30509 net.cpp:399] lstm1_ -> c_0
I0922 22:33:55.846848 30509 net.cpp:399] lstm1_ -> h_0
I0922 22:33:55.849885 30509 net.cpp:141] Setting up lstm1_
I0922 22:33:55.849923 30509 net.cpp:148] Top shape: 1 1 1000 (1000)
I0922 22:33:55.849931 30509 net.cpp:148] Top shape: 1 1 1000 (1000)
I0922 22:33:55.849934 30509 net.cpp:156] Memory required for data: 10004
I0922 22:33:55.849942 30509 layer_factory.hpp:77] Creating layer lstm1_cont_slice
I0922 22:33:55.849964 30509 net.cpp:91] Creating Layer lstm1_cont_slice
I0922 22:33:55.849972 30509 net.cpp:425] lstm1_cont_slice <- cont
I0922 22:33:55.849982 30509 net.cpp:399] lstm1_cont_slice -> cont_1
I0922 22:33:55.859438 30509 net.cpp:141] Setting up lstm1_cont_slice
I0922 22:33:55.859483 30509 net.cpp:148] Top shape: 1 1 (1)
I0922 22:33:55.859493 30509 net.cpp:156] Memory required for data: 10008
I0922 22:33:55.859505 30509 layer_factory.hpp:77] Creating layer cont_1_lstm1_cont_slice_0_split
I0922 22:33:55.859526 30509 net.cpp:91] Creating Layer cont_1_lstm1_cont_slice_0_split
I0922 22:33:55.859537 30509 net.cpp:425] cont_1_lstm1_cont_slice_0_split <- cont_1
I0922 22:33:55.859556 30509 net.cpp:399] cont_1_lstm1_cont_slice_0_split -> cont_1_lstm1_cont_slice_0_split_0
I0922 22:33:55.859576 30509 net.cpp:399] cont_1_lstm1_cont_slice_0_split -> cont_1_lstm1_cont_slice_0_split_1
I0922 22:33:55.860697 30509 net.cpp:141] Setting up cont_1_lstm1_cont_slice_0_split
I0922 22:33:55.860716 30509 net.cpp:148] Top shape: 1 1 (1)
I0922 22:33:55.860728 30509 net.cpp:148] Top shape: 1 1 (1)
I0922 22:33:55.860734 30509 net.cpp:156] Memory required for data: 10016
I0922 22:33:55.860743 30509 layer_factory.hpp:77] Creating layer lstm1_x_transform
I0922 22:33:55.860770 30509 net.cpp:91] Creating Layer lstm1_x_transform
I0922 22:33:55.860777 30509 net.cpp:425] lstm1_x_transform <- x
I0922 22:33:55.860788 30509 net.cpp:399] lstm1_x_transform -> W_xc_x
I0922 22:33:55.896601 30509 net.cpp:141] Setting up lstm1_x_transform
I0922 22:33:55.896651 30509 net.cpp:148] Top shape: 1 1 4000 (4000)
I0922 22:33:55.896661 30509 net.cpp:156] Memory required for data: 26016
I0922 22:33:55.896695 30509 layer_factory.hpp:77] Creating layer lstm1_W_xc_x_slice
I0922 22:33:55.896720 30509 net.cpp:91] Creating Layer lstm1_W_xc_x_slice
I0922 22:33:55.896731 30509 net.cpp:425] lstm1_W_xc_x_slice <- W_xc_x
I0922 22:33:55.896751 30509 net.cpp:399] lstm1_W_xc_x_slice -> W_xc_x_1
I0922 22:33:55.896822 30509 net.cpp:141] Setting up lstm1_W_xc_x_slice
I0922 22:33:55.896837 30509 net.cpp:148] Top shape: 1 1 4000 (4000)
I0922 22:33:55.896844 30509 net.cpp:156] Memory required for data: 42016
I0922 22:33:55.896852 30509 layer_factory.hpp:77] Creating layer lstm1_h_conted_0
I0922 22:33:55.896879 30509 net.cpp:91] Creating Layer lstm1_h_conted_0
I0922 22:33:55.896889 30509 net.cpp:425] lstm1_h_conted_0 <- h_0
I0922 22:33:55.896899 30509 net.cpp:425] lstm1_h_conted_0 <- cont_1_lstm1_cont_slice_0_split_0
I0922 22:33:55.896916 30509 net.cpp:399] lstm1_h_conted_0 -> h_conted_0
I0922 22:33:55.900496 30509 net.cpp:141] Setting up lstm1_h_conted_0
I0922 22:33:55.900529 30509 net.cpp:148] Top shape: 1 1 1000 (1000)
I0922 22:33:55.900539 30509 net.cpp:156] Memory required for data: 46016
I0922 22:33:55.900549 30509 layer_factory.hpp:77] Creating layer lstm1_transform_1
I0922 22:33:55.900573 30509 net.cpp:91] Creating Layer lstm1_transform_1
I0922 22:33:55.900585 30509 net.cpp:425] lstm1_transform_1 <- h_conted_0
I0922 22:33:55.900607 30509 net.cpp:399] lstm1_transform_1 -> W_hc_h_0
I0922 22:33:55.928454 30493 net.cpp:141] Setting up embedding
I0922 22:33:55.928522 30493 net.cpp:148] Top shape: 1 1 500 (500)
I0922 22:33:55.928534 30493 net.cpp:156] Memory required for data: 22408
I0922 22:33:55.928556 30493 layer_factory.hpp:77] Creating layer lstm1
I0922 22:33:55.928582 30493 net.cpp:91] Creating Layer lstm1
I0922 22:33:55.928594 30493 net.cpp:425] lstm1 <- embedded_input_frames
I0922 22:33:55.928608 30493 net.cpp:425] lstm1 <- cont_sentence_input_1_split_0
I0922 22:33:55.928624 30493 net.cpp:399] lstm1 -> lstm1
I0922 22:33:55.928649 30493 recurrent_layer.cpp:20] Initializing recurrent layer: assuming input batch contains 1 timesteps of 1 independent streams.
I0922 22:33:55.929069 30493 net.cpp:49] Initializing net from parameters: 
layer {
  name: "lstm1_"
  type: "Input"
  top: "x"
  top: "cont"
  input_param {
    shape {
      dim: 1
      dim: 1
      dim: 500
    }
    shape {
      dim: 1
      dim: 1
    }
  }
}
layer {
  name: "lstm1_"
  type: "Input"
  top: "c_0"
  top: "h_0"
  input_param {
    shape {
      dim: 1
      dim: 1
      dim: 1000
    }
    shape {
      dim: 1
      dim: 1
      dim: 1000
    }
  }
}
layer {
  name: "lstm1_cont_slice"
  type: "Slice"
  bottom: "cont"
  top: "cont_1"
  slice_param {
    axis: 0
  }
}
layer {
  name: "lstm1_x_transform"
  type: "InnerProduct"
  bottom: "x"
  top: "W_xc_x"
  param {
    name: "W_xc"
  }
  param {
    name: "b_c"
  }
  propagate_down: true
  inner_product_param {
    num_output: 4000
    bias_term: true
    weight_filler {
      type: "uniform"
      min: -0.08
      max: 0.08
    }
    bias_filler {
      type: "constant"
      value: 0
    }
    axis: 2
  }
}
layer {
  name: "lstm1_W_xc_x_slice"
  type: "Slice"
  bottom: "W_xc_x"
  top: "W_xc_x_1"
  slice_param {
    axis: 0
  }
}
layer {
  name: "lstm1_h_conted_0"
  type: "Scale"
  bottom: "h_0"
  bottom: "cont_1"
  top: "h_conted_0"
  scale_param {
    axis: 0
  }
}
layer {
  name: "lstm1_transform_1"
  type: "InnerProduct"
  bottom: "h_conted_0"
  top: "W_hc_h_0"
  param {
    name: "W_hc"
  }
  inner_product_param {
    num_output: 4000
    bias_term: false
    weight_filler {
      type: "uniform"
      min: -0.08
      max: 0.08
    }
    axis: 2
  }
}
layer {
  name: "lstm1_gate_input_1"
  type: "Eltwise"
  bottom: "W_hc_h_0"
  bottom: "W_xc_x_1"
  top: "gate_input_1"
  eltwise_param {
    operation: SUM
  }
}
layer {
  name: "lstm1_unit_1"
  type: "LSTMUnit"
  bottom: "c_0"
  bottom: "gate_input_1"
  bottom: "cont_1"
  top: "c_1"
  top: "h_1"
}
layer {
  name: "lstm1_"
  type: "Split"
  bottom: "c_1"
  top: "c_T"
}
layer {
  name: "lstm1_h_concat"
  type: "Concat"
  bottom: "h_1"
  top: "h"
  concat_param {
    axis: 0
  }
}
layer {
  name: "h_pseudoloss"
  type: "Reduction"
  bottom: "h"
  top: "h_pseudoloss"
  loss_weight: 1
}
I0922 22:33:55.929204 30493 layer_factory.hpp:77] Creating layer lstm1_
I0922 22:33:55.929224 30493 net.cpp:91] Creating Layer lstm1_
I0922 22:33:55.929234 30493 net.cpp:399] lstm1_ -> x
I0922 22:33:55.929251 30493 net.cpp:399] lstm1_ -> cont
I0922 22:33:55.934240 30493 net.cpp:141] Setting up lstm1_
I0922 22:33:55.934260 30493 net.cpp:148] Top shape: 1 1 500 (500)
I0922 22:33:55.934268 30493 net.cpp:148] Top shape: 1 1 (1)
I0922 22:33:55.934273 30493 net.cpp:156] Memory required for data: 2004
I0922 22:33:55.934279 30493 layer_factory.hpp:77] Creating layer lstm1_
I0922 22:33:55.934296 30493 net.cpp:91] Creating Layer lstm1_
I0922 22:33:55.934304 30493 net.cpp:399] lstm1_ -> c_0
I0922 22:33:55.934317 30493 net.cpp:399] lstm1_ -> h_0
I0922 22:33:55.937904 30493 net.cpp:141] Setting up lstm1_
I0922 22:33:55.937924 30493 net.cpp:148] Top shape: 1 1 1000 (1000)
I0922 22:33:55.937932 30493 net.cpp:148] Top shape: 1 1 1000 (1000)
I0922 22:33:55.937937 30493 net.cpp:156] Memory required for data: 10004
I0922 22:33:55.937942 30493 layer_factory.hpp:77] Creating layer lstm1_cont_slice
I0922 22:33:55.937954 30493 net.cpp:91] Creating Layer lstm1_cont_slice
I0922 22:33:55.937960 30493 net.cpp:425] lstm1_cont_slice <- cont
I0922 22:33:55.937971 30493 net.cpp:399] lstm1_cont_slice -> cont_1
I0922 22:33:55.938179 30493 net.cpp:141] Setting up lstm1_cont_slice
I0922 22:33:55.938195 30493 net.cpp:148] Top shape: 1 1 (1)
I0922 22:33:55.938200 30493 net.cpp:156] Memory required for data: 10008
I0922 22:33:55.938205 30493 layer_factory.hpp:77] Creating layer cont_1_lstm1_cont_slice_0_split
I0922 22:33:55.938215 30493 net.cpp:91] Creating Layer cont_1_lstm1_cont_slice_0_split
I0922 22:33:55.938220 30493 net.cpp:425] cont_1_lstm1_cont_slice_0_split <- cont_1
I0922 22:33:55.938227 30493 net.cpp:399] cont_1_lstm1_cont_slice_0_split -> cont_1_lstm1_cont_slice_0_split_0
I0922 22:33:55.938236 30493 net.cpp:399] cont_1_lstm1_cont_slice_0_split -> cont_1_lstm1_cont_slice_0_split_1
I0922 22:33:55.941925 30493 net.cpp:141] Setting up cont_1_lstm1_cont_slice_0_split
I0922 22:33:55.941944 30493 net.cpp:148] Top shape: 1 1 (1)
I0922 22:33:55.941951 30493 net.cpp:148] Top shape: 1 1 (1)
I0922 22:33:55.941956 30493 net.cpp:156] Memory required for data: 10016
I0922 22:33:55.941962 30493 layer_factory.hpp:77] Creating layer lstm1_x_transform
I0922 22:33:55.941978 30493 net.cpp:91] Creating Layer lstm1_x_transform
I0922 22:33:55.941985 30493 net.cpp:425] lstm1_x_transform <- x
I0922 22:33:55.941994 30493 net.cpp:399] lstm1_x_transform -> W_xc_x
I0922 22:33:55.942313 30509 net.cpp:141] Setting up lstm1_transform_1
I0922 22:33:55.942349 30509 net.cpp:148] Top shape: 1 1 4000 (4000)
I0922 22:33:55.942355 30509 net.cpp:156] Memory required for data: 62016
I0922 22:33:55.942373 30509 layer_factory.hpp:77] Creating layer lstm1_gate_input_1
I0922 22:33:55.942394 30509 net.cpp:91] Creating Layer lstm1_gate_input_1
I0922 22:33:55.942401 30509 net.cpp:425] lstm1_gate_input_1 <- W_hc_h_0
I0922 22:33:55.942409 30509 net.cpp:425] lstm1_gate_input_1 <- W_xc_x_1
I0922 22:33:55.942417 30509 net.cpp:399] lstm1_gate_input_1 -> gate_input_1
I0922 22:33:55.955732 30509 net.cpp:141] Setting up lstm1_gate_input_1
I0922 22:33:55.955792 30509 net.cpp:148] Top shape: 1 1 4000 (4000)
I0922 22:33:55.955803 30509 net.cpp:156] Memory required for data: 78016
I0922 22:33:55.955817 30509 layer_factory.hpp:77] Creating layer lstm1_unit_1
I0922 22:33:55.955843 30509 net.cpp:91] Creating Layer lstm1_unit_1
I0922 22:33:55.955857 30509 net.cpp:425] lstm1_unit_1 <- c_0
I0922 22:33:55.955873 30509 net.cpp:425] lstm1_unit_1 <- gate_input_1
I0922 22:33:55.955883 30509 net.cpp:425] lstm1_unit_1 <- cont_1_lstm1_cont_slice_0_split_1
I0922 22:33:55.955904 30509 net.cpp:399] lstm1_unit_1 -> c_1
I0922 22:33:55.955929 30509 net.cpp:399] lstm1_unit_1 -> h_1
I0922 22:33:55.956323 30509 net.cpp:141] Setting up lstm1_unit_1
I0922 22:33:55.956341 30509 net.cpp:148] Top shape: 1 1 1000 (1000)
I0922 22:33:55.956352 30509 net.cpp:148] Top shape: 1 1 1000 (1000)
I0922 22:33:55.956360 30509 net.cpp:156] Memory required for data: 86016
I0922 22:33:55.956369 30509 layer_factory.hpp:77] Creating layer lstm1_
I0922 22:33:55.956384 30509 net.cpp:91] Creating Layer lstm1_
I0922 22:33:55.956393 30509 net.cpp:425] lstm1_ <- c_1
I0922 22:33:55.956405 30509 net.cpp:399] lstm1_ -> c_T
I0922 22:33:55.966944 30509 net.cpp:141] Setting up lstm1_
I0922 22:33:55.966990 30509 net.cpp:148] Top shape: 1 1 1000 (1000)
I0922 22:33:55.966996 30509 net.cpp:156] Memory required for data: 90016
I0922 22:33:55.967005 30509 layer_factory.hpp:77] Creating layer lstm1_h_concat
I0922 22:33:55.967041 30509 net.cpp:91] Creating Layer lstm1_h_concat
I0922 22:33:55.967051 30509 net.cpp:425] lstm1_h_concat <- h_1
I0922 22:33:55.967069 30509 net.cpp:399] lstm1_h_concat -> h
I0922 22:33:55.967170 30493 net.cpp:141] Setting up lstm1_x_transform
I0922 22:33:55.967208 30493 net.cpp:148] Top shape: 1 1 4000 (4000)
I0922 22:33:55.967216 30493 net.cpp:156] Memory required for data: 26016
I0922 22:33:55.967217 30509 net.cpp:141] Setting up lstm1_h_concat
I0922 22:33:55.967229 30509 net.cpp:148] Top shape: 1 1 1000 (1000)
I0922 22:33:55.967234 30509 net.cpp:156] Memory required for data: 94016
I0922 22:33:55.967237 30493 layer_factory.hpp:77] Creating layer lstm1_W_xc_x_slice
I0922 22:33:55.967239 30509 layer_factory.hpp:77] Creating layer h_pseudoloss
I0922 22:33:55.967257 30493 net.cpp:91] Creating Layer lstm1_W_xc_x_slice
I0922 22:33:55.967265 30493 net.cpp:425] lstm1_W_xc_x_slice <- W_xc_x
I0922 22:33:55.967267 30509 net.cpp:91] Creating Layer h_pseudoloss
I0922 22:33:55.967273 30509 net.cpp:425] h_pseudoloss <- h
I0922 22:33:55.967279 30493 net.cpp:399] lstm1_W_xc_x_slice -> W_xc_x_1
I0922 22:33:55.967281 30509 net.cpp:399] h_pseudoloss -> h_pseudoloss
I0922 22:33:55.967412 30493 net.cpp:141] Setting up lstm1_W_xc_x_slice
I0922 22:33:55.967425 30493 net.cpp:148] Top shape: 1 1 4000 (4000)
I0922 22:33:55.967430 30493 net.cpp:156] Memory required for data: 42016
I0922 22:33:55.967437 30493 layer_factory.hpp:77] Creating layer lstm1_h_conted_0
I0922 22:33:55.967447 30493 net.cpp:91] Creating Layer lstm1_h_conted_0
I0922 22:33:55.967453 30493 net.cpp:425] lstm1_h_conted_0 <- h_0
I0922 22:33:55.967460 30509 net.cpp:141] Setting up h_pseudoloss
I0922 22:33:55.967460 30493 net.cpp:425] lstm1_h_conted_0 <- cont_1_lstm1_cont_slice_0_split_0
…
I0922 22:33:55.967571 30509 net.cpp:219] cont_1_lstm1_cont_slice_0_split does not need backward computation.
I0922 22:33:55.967576 30509 net.cpp:219] lstm1_cont_slice does not need backward computation.
I0922 22:33:55.967583 30509 net.cpp:219] lstm1_ does not need backward computation.
I0922 22:33:55.967588 30509 net.cpp:219] lstm1_ does not need backward computation.
I0922 22:33:55.967592 30509 net.cpp:261] This network produces output c_T
I0922 22:33:55.967597 30509 net.cpp:261] This network produces output h_pseudoloss
I0922 22:33:55.967614 30509 net.cpp:274] Network initialization done.
I0922 22:33:55.967612 30493 net.cpp:141] Setting up lstm1_h_conted_0
I0922 22:33:55.967634 30493 net.cpp:148] Top shape: 1 1 1000 (1000)
I0922 22:33:55.967640 30493 net.cpp:156] Memory required for data: 46016
I0922 22:33:55.967645 30493 layer_factory.hpp:77] Creating layer lstm1_transform_1
I0922 22:33:55.967659 30493 net.cpp:91] Creating Layer lstm1_transform_1
I0922 22:33:55.967665 30493 net.cpp:425] lstm1_transform_1 <- h_conted_0
I0922 22:33:55.967677 30493 net.cpp:399] lstm1_transform_1 -> W_hc_h_0
I0922 22:33:55.967684 30509 recurrent_layer.cpp:150] Adding parameter 0: W_xc
I0922 22:33:55.967691 30509 recurrent_layer.cpp:150] Adding parameter 1: b_c
I0922 22:33:55.967696 30509 recurrent_layer.cpp:150] Adding parameter 2: W_hc
I0922 22:33:55.976006 30489 net.cpp:141] Setting up embedding
I0922 22:33:55.976056 30489 net.cpp:148] Top shape: 1 1 500 (500)
I0922 22:33:55.976066 30489 net.cpp:156] Memory required for data: 22408
I0922 22:33:55.976094 30489 layer_factory.hpp:77] Creating layer lstm1
I0922 22:33:55.976124 30489 net.cpp:91] Creating Layer lstm1
I0922 22:33:55.976135 30489 net.cpp:425] lstm1 <- embedded_input_frames
I0922 22:33:55.976147 30489 net.cpp:425] lstm1 <- cont_sentence_input_1_split_0
I0922 22:33:55.976166 30489 net.cpp:399] lstm1 -> lstm1
I0922 22:33:55.976182 30509 net.cpp:141] Setting up lstm1
I0922 22:33:55.976188 30489 recurrent_layer.cpp:20] Initializing recurrent layer: assuming input batch contains 1 timesteps of 1 independent streams.
I0922 22:33:55.976198 30509 net.cpp:148] Top shape: 1 1 1000 (1000)
I0922 22:33:55.976205 30509 net.cpp:156] Memory required for data: 26408
I0922 22:33:55.976229 30509 layer_factory.hpp:77] Creating layer concat
I0922 22:33:55.976246 30509 net.cpp:91] Creating Layer concat
I0922 22:33:55.976258 30509 net.cpp:425] concat <- lstm1
I0922 22:33:55.976269 30509 net.cpp:425] concat <- embedded_input_sentence
I0922 22:33:55.976279 30509 net.cpp:425] concat <- reshaped_stage_indicator
I0922 22:33:55.976290 30509 net.cpp:399] concat -> lstm1_video_sequence
I0922 22:33:55.976346 30509 net.cpp:141] Setting up concat
I0922 22:33:55.976361 30509 net.cpp:148] Top shape: 1 1 1501 (1501)
I0922 22:33:55.976369 30509 net.cpp:156] Memory required for data: 32412
I0922 22:33:55.976377 30509 layer_factory.hpp:77] Creating layer lstm2
I0922 22:33:55.976392 30509 net.cpp:91] Creating Layer lstm2
I0922 22:33:55.976402 30509 net.cpp:425] lstm2 <- lstm1_video_sequence
I0922 22:33:55.976413 30509 net.cpp:425] lstm2 <- cont_sentence_input_1_split_1
I0922 22:33:55.976425 30509 net.cpp:399] lstm2 -> lstm2
I0922 22:33:55.976441 30509 recurrent_layer.cpp:20] Initializing recurrent layer: assuming input batch contains 1 timesteps of 1 independent streams.
I0922 22:33:55.976639 30489 net.cpp:49] Initializing net from parameters: 
layer {
  name: "lstm1_"
  type: "Input"
  top: "x"
  top: "cont"
  input_param {
    shape {
      dim: 1
      dim: 1
      dim: 500
    }
    shape {
      dim: 1
      dim: 1
    }
  }
}
layer {
  name: "lstm1_"
  type: "Input"
  top: "c_0"
  top: "h_0"
  input_param {
    shape {
      dim: 1
      dim: 1
      dim: 1000
    }
    shape {
      dim: 1
      dim: 1
      dim: 1000
    }
  }
}
layer {
  name: "lstm1_cont_slice"
  type: "Slice"
  bottom: "cont"
  top: "cont_1"
  slice_param {
    axis: 0
  }
}
layer {
  name: "lstm1_x_transform"
  type: "InnerProduct"
  bottom: "x"
  top: "W_xc_x"
  param {
    name: "W_xc"
  }
  param {
    name: "b_c"
  }
  propagate_down: true
  inner_product_param {
    num_output: 4000
    bias_term: true
    weight_filler {
      type: "uniform"
      min: -0.08
      max: 0.08
    }
    bias_filler {
      type: "constant"
      value: 0
    }
    axis: 2
  }
}
layer {
  name: "lstm1_W_xc_x_slice"
  type: "Slice"
  bottom: "W_xc_x"
  top: "W_xc_x_1"
  slice_param {
    axis: 0
  }
}
layer {
  name: "lstm1_h_conted_0"
  type: "Scale"
  bottom: "h_0"
  bottom: "cont_1"
  top: "h_conted_0"
  scale_param {
    axis: 0
  }
}
layer {
  name: "lstm1_transform_1"
  type: "InnerProduct"
  bottom: "h_conted_0"
  top: "W_hc_h_0"
  param {
    name: "W_hc"
  }
  inner_product_param {
    num_output: 4000
    bias_term: false
    weight_filler {
      type: "uniform"
      min: -0.08
      max: 0.08
    }
    axis: 2
  }
}
layer {
  name: "lstm1_gate_input_1"
  type: "Eltwise"
  bottom: "W_hc_h_0"
  bottom: "W_xc_x_1"
  top: "gate_input_1"
  eltwise_param {
    operation: SUM
  }
}
layer {
  name: "lstm1_unit_1"
  type: "LSTMUnit"
  bottom: "c_0"
  bottom: "gate_input_1"
  bottom: "cont_1"
  top: "c_1"
  top: "h_1"
}
layer {
  name: "lstm1_"
  type: "Split"
  bottom: "c_1"
  top: "c_T"
}
layer {
  name: "lstm1_h_concat"
  type: "Concat"
  bottom: "h_1"
  top: "h"
  concat_param {
    axis: 0
  }
}
layer {
  name: "h_pseudoloss"
  type: "Reduction"
  bottom: "h"
  top: "h_pseudoloss"
  loss_weight: 1
}
I0922 22:33:55.976732 30509 net.cpp:49] Initializing net from parameters: 
layer {
  name: "lstm2_"
  type: "Input"
  top: "x"
  top: "cont"
  input_param {
    shape {
      dim: 1
      dim: 1
      dim: 1501
    }
    shape {
      dim: 1
      dim: 1
    }
  }
}
layer {
  name: "lstm2_"
  type: "Input"
  top: "c_0"
  top: "h_0"
  input_param {
    shape {
      dim: 1
      dim: 1
      dim: 1000
    }
    shape {
      dim: 1
      dim: 1
      dim: 1000
    }
  }
}
layer {
  name: "lstm2_cont_slice"
  type: "Slice"
  bottom: "cont"
  top: "cont_1"
  slice_param {
    axis: 0
  }
}
layer {
  name: "lstm2_x_transform"
  type: "InnerProduct"
  bottom: "x"
  top: "W_xc_x"
  param {
    name: "W_xc"
  }
  param {
    name: "b_c"
  }
  propagate_down: true
  inner_product_param {
    num_output: 4000
    bias_term: true
    weight_filler {
      type: "uniform"
      min: -0.08
      max: 0.08
    }
    bias_filler {
      type: "constant"
      value: 0
    }
    axis: 2
  }
}
layer {
  name: "lstm2_W_xc_x_slice"
  type: "Slice"
  bottom: "W_xc_x"
  top: "W_xc_x_1"
  slice_param {
    axis: 0
  }
}
layer {
  name: "lstm2_h_conted_0"
  type: "Scale"
  bottom: "h_0"
  bottom: "cont_1"
  top: "h_conted_0"
  scale_param {
    axis: 0
  }
}
layer {
  name: "lstm2_transform_1"
  type: "InnerProduct"
  bottom: "h_conted_0"
  top: "W_hc_h_0"
  param {
    name: "W_hc"
  }
  inner_product_param {
    num_output: 4000
    bias_term: false
    weight_filler {
      type: "uniform"
      min: -0.08
      max: 0.08
    }
    axis: 2
  }
}
layer {
  name: "lstm2_gate_input_1"
  type: "Eltwise"
  bottom: "W_hc_h_0"
  bottom: "W_xc_x_1"
  top: "gate_input_1"
  eltwise_param {
    operation: SUM
  }
}
layer {
  name: "lstm2_unit_1"
  type: "LSTMUnit"
  bottom: "c_0"
  bottom: "gate_input_1"
  bottom: "cont_1"
  top: "c_1"
  top: "h_1"
}
layer {
  name: "lstm2_"
  type: "Split"
  bottom: "c_1"
  top: "c_T"
}
layer {
  name: "lstm2_h_concat"
  type: "Concat"
  bottom: "h_1"
  top: "h"
  concat_param {
    axis: 0
  }
}
layer {
  name: "h_pseudoloss"
  type: "Reduction"
  bottom: "h"
  top: "h_pseudoloss"
  loss_weight: 1
}
I0922 22:33:55.976785 30489 layer_factory.hpp:77] Creating layer lstm1_
I0922 22:33:55.976804 30489 net.cpp:91] Creating Layer lstm1_
I0922 22:33:55.976815 30489 net.cpp:399] lstm1_ -> x
I0922 22:33:55.976833 30489 net.cpp:399] lstm1_ -> cont
I0922 22:33:55.976846 30509 layer_factory.hpp:77] Creating layer lstm2_
I0922 22:33:55.976863 30509 net.cpp:91] Creating Layer lstm2_
I0922 22:33:55.976873 30509 net.cpp:399] lstm2_ -> x
I0922 22:33:55.976883 30509 net.cpp:399] lstm2_ -> cont
I0922 22:33:55.978878 30509 net.cpp:141] Setting up lstm2_
I0922 22:33:55.978904 30509 net.cpp:148] Top shape: 1 1 1501 (1501)
I0922 22:33:55.978915 30509 net.cpp:148] Top shape: 1 1 (1)
I0922 22:33:55.978915 30489 net.cpp:141] Setting up lstm1_
I0922 22:33:55.978924 30509 net.cpp:156] Memory required for data: 6008
I0922 22:33:55.978930 30489 net.cpp:148] Top shape: 1 1 500 (500)
I0922 22:33:55.978934 30509 layer_factory.hpp:77] Creating layer lstm2_
I0922 22:33:55.978940 30489 net.cpp:148] Top shape: 1 1 (1)
I0922 22:33:55.978947 30489 net.cpp:156] Memory required for data: 2004
I0922 22:33:55.978950 30509 net.cpp:91] Creating Layer lstm2_
I0922 22:33:55.978956 30489 layer_factory.hpp:77] Creating layer lstm1_
I0922 22:33:55.978967 30509 net.cpp:399] lstm2_ -> c_0
I0922 22:33:55.978970 30489 net.cpp:91] Creating Layer lstm1_
I0922 22:33:55.978983 30489 net.cpp:399] lstm1_ -> c_0
I0922 22:33:55.978986 30509 net.cpp:399] lstm2_ -> h_0
I0922 22:33:55.979007 30489 net.cpp:399] lstm1_ -> h_0
I0922 22:33:55.980621 30489 net.cpp:141] Setting up lstm1_
I0922 22:33:55.980644 30489 net.cpp:148] Top shape: 1 1 1000 (1000)
I0922 22:33:55.980656 30489 net.cpp:148] Top shape: 1 1 1000 (1000)
I0922 22:33:55.980657 30509 net.cpp:141] Setting up lstm2_
I0922 22:33:55.980665 30489 net.cpp:156] Memory required for data: 10004
I0922 22:33:55.980671 30509 net.cpp:148] Top shape: 1 1 1000 (1000)
I0922 22:33:55.980674 30489 layer_factory.hpp:77] Creating layer lstm1_cont_slice
I0922 22:33:55.980681 30509 net.cpp:148] Top shape: 1 1 1000 (1000)
I0922 22:33:55.980689 30509 net.cpp:156] Memory required for data: 14008
I0922 22:33:55.980689 30489 net.cpp:91] Creating Layer lstm1_cont_slice
I0922 22:33:55.980700 30509 layer_factory.hpp:77] Creating layer lstm2_cont_slice
I0922 22:33:55.980706 30489 net.cpp:425] lstm1_cont_slice <- cont
I0922 22:33:55.980715 30509 net.cpp:91] Creating Layer lstm2_cont_slice
I0922 22:33:55.980722 30509 net.cpp:425] lstm2_cont_slice <- cont
I0922 22:33:55.980722 30489 net.cpp:399] lstm1_cont_slice -> cont_1
I0922 22:33:55.980737 30509 net.cpp:399] lstm2_cont_slice -> cont_1
I0922 22:33:55.980895 30489 net.cpp:141] Setting up lstm1_cont_slice
I0922 22:33:55.980911 30489 net.cpp:148] Top shape: 1 1 (1)
I0922 22:33:55.980919 30489 net.cpp:156] Memory required for data: 10008
I0922 22:33:55.980922 30509 net.cpp:141] Setting up lstm2_cont_slice
I0922 22:33:55.980928 30489 layer_factory.hpp:77] Creating layer cont_1_lstm1_cont_slice_0_split
I0922 22:33:55.980936 30509 net.cpp:148] Top shape: 1 1 (1)
I0922 22:33:55.980942 30509 net.cpp:156] Memory required for data: 14012
I0922 22:33:55.980945 30489 net.cpp:91] Creating Layer cont_1_lstm1_cont_slice_0_split
I0922 22:33:55.980950 30509 layer_factory.hpp:77] Creating layer cont_1_lstm2_cont_slice_0_split
I0922 22:33:55.980953 30489 net.cpp:425] cont_1_lstm1_cont_slice_0_split <- cont_1
I0922 22:33:55.980963 30489 net.cpp:399] cont_1_lstm1_cont_slice_0_split -> cont_1_lstm1_cont_slice_0_split_0
I0922 22:33:55.980964 30509 net.cpp:91] Creating Layer cont_1_lstm2_cont_slice_0_split
I0922 22:33:55.980980 30509 net.cpp:425] cont_1_lstm2_cont_slice_0_split <- cont_1
I0922 22:33:55.980985 30489 net.cpp:399] cont_1_lstm1_cont_slice_0_split -> cont_1_lstm1_cont_slice_0_split_1
I0922 22:33:55.980993 30509 net.cpp:399] cont_1_lstm2_cont_slice_0_split -> cont_1_lstm2_cont_slice_0_split_0
I0922 22:33:55.981006 30509 net.cpp:399] cont_1_lstm2_cont_slice_0_split -> cont_1_lstm2_cont_slice_0_split_1
I0922 22:33:55.984069 30509 net.cpp:141] Setting up cont_1_lstm2_cont_slice_0_split
I0922 22:33:55.984093 30509 net.cpp:148] Top shape: 1 1 (1)
I0922 22:33:55.984097 30489 net.cpp:141] Setting up cont_1_lstm1_cont_slice_0_split
I0922 22:33:55.984107 30509 net.cpp:148] Top shape: 1 1 (1)
I0922 22:33:55.984109 30489 net.cpp:148] Top shape: 1 1 (1)
I0922 22:33:55.984114 30509 net.cpp:156] Memory required for data: 14020
I0922 22:33:55.984119 30489 net.cpp:148] Top shape: 1 1 (1)
I0922 22:33:55.984123 30509 layer_factory.hpp:77] Creating layer lstm2_x_transform
I0922 22:33:55.984127 30489 net.cpp:156] Memory required for data: 10016
I0922 22:33:55.984134 30489 layer_factory.hpp:77] Creating layer lstm1_x_transform
I0922 22:33:55.984148 30509 net.cpp:91] Creating Layer lstm2_x_transform
I0922 22:33:55.984148 30489 net.cpp:91] Creating Layer lstm1_x_transform
I0922 22:33:55.984163 30509 net.cpp:425] lstm2_x_transform <- x
I0922 22:33:55.984166 30489 net.cpp:425] lstm1_x_transform <- x
I0922 22:33:55.984177 30509 net.cpp:399] lstm2_x_transform -> W_xc_x
I0922 22:33:55.984179 30489 net.cpp:399] lstm1_x_transform -> W_xc_x
I0922 22:33:56.003343 30487 net.cpp:141] Setting up conv1
I0922 22:33:56.003388 30487 net.cpp:148] Top shape: 10 96 55 55 (2904000)
I0922 22:33:56.003396 30487 net.cpp:156] Memory required for data: 17799480
I0922 22:33:56.003418 30487 layer_factory.hpp:77] Creating layer relu1
I0922 22:33:56.003438 30487 net.cpp:91] Creating Layer relu1
I0922 22:33:56.003446 30487 net.cpp:425] relu1 <- conv1
I0922 22:33:56.003454 30487 net.cpp:386] relu1 -> conv1 (in-place)
I0922 22:33:56.003857 30487 net.cpp:141] Setting up relu1
I0922 22:33:56.003872 30487 net.cpp:148] Top shape: 10 96 55 55 (2904000)
I0922 22:33:56.003877 30487 net.cpp:156] Memory required for data: 29415480
I0922 22:33:56.003882 30487 layer_factory.hpp:77] Creating layer pool1
I0922 22:33:56.003896 30487 net.cpp:91] Creating Layer pool1
I0922 22:33:56.003901 30487 net.cpp:425] pool1 <- conv1
I0922 22:33:56.003911 30487 net.cpp:399] pool1 -> pool1
I0922 22:33:56.003985 30487 net.cpp:141] Setting up pool1
I0922 22:33:56.003995 30487 net.cpp:148] Top shape: 10 96 27 27 (699840)
I0922 22:33:56.004000 30487 net.cpp:156] Memory required for data: 32214840
I0922 22:33:56.004005 30487 layer_factory.hpp:77] Creating layer norm1
I0922 22:33:56.004024 30487 net.cpp:91] Creating Layer norm1
I0922 22:33:56.004029 30487 net.cpp:425] norm1 <- pool1
I0922 22:33:56.004036 30487 net.cpp:399] norm1 -> norm1
I0922 22:33:56.004292 30487 net.cpp:141] Setting up norm1
I0922 22:33:56.004305 30487 net.cpp:148] Top shape: 10 96 27 27 (699840)
I0922 22:33:56.004310 30487 net.cpp:156] Memory required for data: 35014200
I0922 22:33:56.004315 30487 layer_factory.hpp:77] Creating layer conv2
I0922 22:33:56.004330 30487 net.cpp:91] Creating Layer conv2
I0922 22:33:56.004335 30487 net.cpp:425] conv2 <- norm1
I0922 22:33:56.004343 30487 net.cpp:399] conv2 -> conv2
I0922 22:33:56.007688 30487 net.cpp:141] Setting up conv2
I0922 22:33:56.007724 30487 net.cpp:148] Top shape: 10 256 27 27 (1866240)
I0922 22:33:56.007730 30487 net.cpp:156] Memory required for data: 42479160
I0922 22:33:56.007753 30487 layer_factory.hpp:77] Creating layer relu2
I0922 22:33:56.007769 30487 net.cpp:91] Creating Layer relu2
I0922 22:33:56.007776 30487 net.cpp:425] relu2 <- conv2
I0922 22:33:56.007786 30487 net.cpp:386] relu2 -> conv2 (in-place)
I0922 22:33:56.008200 30487 net.cpp:141] Setting up relu2
I0922 22:33:56.008213 30487 net.cpp:148] Top shape: 10 256 27 27 (1866240)
I0922 22:33:56.008219 30487 net.cpp:156] Memory required for data: 49944120
I0922 22:33:56.008224 30487 layer_factory.hpp:77] Creating layer pool2
I0922 22:33:56.008234 30487 net.cpp:91] Creating Layer pool2
I0922 22:33:56.008239 30487 net.cpp:425] pool2 <- conv2
I0922 22:33:56.008249 30487 net.cpp:399] pool2 -> pool2
I0922 22:33:56.008308 30487 net.cpp:141] Setting up pool2
I0922 22:33:56.008321 30487 net.cpp:148] Top shape: 10 256 13 13 (432640)
I0922 22:33:56.008325 30487 net.cpp:156] Memory required for data: 51674680
I0922 22:33:56.008329 30487 layer_factory.hpp:77] Creating layer norm2
I0922 22:33:56.008342 30487 net.cpp:91] Creating Layer norm2
I0922 22:33:56.008347 30487 net.cpp:425] norm2 <- pool2
I0922 22:33:56.008358 30487 net.cpp:399] norm2 -> norm2
I0922 22:33:56.008608 30487 net.cpp:141] Setting up norm2
I0922 22:33:56.008620 30487 net.cpp:148] Top shape: 10 256 13 13 (432640)
I0922 22:33:56.008625 30487 net.cpp:156] Memory required for data: 53405240
I0922 22:33:56.008630 30487 layer_factory.hpp:77] Creating layer conv3
I0922 22:33:56.008646 30487 net.cpp:91] Creating Layer conv3
I0922 22:33:56.008651 30487 net.cpp:425] conv3 <- norm2
I0922 22:33:56.008663 30487 net.cpp:399] conv3 -> conv3
I0922 22:33:56.010905 30493 net.cpp:141] Setting up lstm1_transform_1
I0922 22:33:56.010951 30493 net.cpp:148] Top shape: 1 1 4000 (4000)
I0922 22:33:56.010957 30493 net.cpp:156] Memory required for data: 62016
I0922 22:33:56.010977 30493 layer_factory.hpp:77] Creating layer lstm1_gate_input_1
I0922 22:33:56.011000 30493 net.cpp:91] Creating Layer lstm1_gate_input_1
I0922 22:33:56.011008 30493 net.cpp:425] lstm1_gate_input_1 <- W_hc_h_0
I0922 22:33:56.011005 30489 net.cpp:141] Setting up lstm1_x_transform
I0922 22:33:56.011032 30493 net.cpp:425] lstm1_gate_input_1 <- W_xc_x_1
I0922 22:33:56.011054 30489 net.cpp:148] Top shape: 1 1 4000 (4000)
I0922 22:33:56.011056 30493 net.cpp:399] lstm1_gate_input_1 -> gate_input_1
I0922 22:33:56.011066 30489 net.cpp:156] Memory required for data: 26016
I0922 22:33:56.011090 30489 layer_factory.hpp:77] Creating layer lstm1_W_xc_x_slice
I0922 22:33:56.011106 30489 net.cpp:91] Creating Layer lstm1_W_xc_x_slice
I0922 22:33:56.011116 30489 net.cpp:425] lstm1_W_xc_x_slice <- W_xc_x
I0922 22:33:56.011129 30489 net.cpp:399] lstm1_W_xc_x_slice -> W_xc_x_1
I0922 22:33:56.011132 30493 net.cpp:141] Setting up lstm1_gate_input_1
I0922 22:33:56.011143 30493 net.cpp:148] Top shape: 1 1 4000 (4000)
I0922 22:33:56.011147 30493 net.cpp:156] Memory required for data: 78016
I0922 22:33:56.011153 30493 layer_factory.hpp:77] Creating layer lstm1_unit_1
I0922 22:33:56.011163 30493 net.cpp:91] Creating Layer lstm1_unit_1
I0922 22:33:56.011168 30493 net.cpp:425] lstm1_unit_1 <- c_0
I0922 22:33:56.011175 30493 net.cpp:425] lstm1_unit_1 <- gate_input_1
I0922 22:33:56.011181 30493 net.cpp:425] lstm1_unit_1 <- cont_1_lstm1_cont_slice_0_split_1
I0922 22:33:56.011191 30493 net.cpp:399] lstm1_unit_1 -> c_1
I0922 22:33:56.011201 30493 net.cpp:399] lstm1_unit_1 -> h_1
I0922 22:33:56.011209 30489 net.cpp:141] Setting up lstm1_W_xc_x_slice
I0922 22:33:56.011224 30489 net.cpp:148] Top shape: 1 1 4000 (4000)
I0922 22:33:56.011230 30489 net.cpp:156] Memory required for data: 42016
I0922 22:33:56.011237 30489 layer_factory.hpp:77] Creating layer lstm1_h_conted_0
I0922 22:33:56.011252 30489 net.cpp:91] Creating Layer lstm1_h_conted_0
I0922 22:33:56.011260 30489 net.cpp:425] lstm1_h_conted_0 <- h_0
I0922 22:33:56.011270 30489 net.cpp:425] lstm1_h_conted_0 <- cont_1_lstm1_cont_slice_0_split_0
I0922 22:33:56.011279 30489 net.cpp:399] lstm1_h_conted_0 -> h_conted_0
I0922 22:33:56.011389 30493 net.cpp:141] Setting up lstm1_unit_1
I0922 22:33:56.011401 30493 net.cpp:148] Top shape: 1 1 1000 (1000)
I0922 22:33:56.011409 30493 net.cpp:148] Top shape: 1 1 1000 (1000)
I0922 22:33:56.011414 30493 net.cpp:156] Memory required for data: 86016
I0922 22:33:56.011418 30493 layer_factory.hpp:77] Creating layer lstm1_
I0922 22:33:56.011427 30493 net.cpp:91] Creating Layer lstm1_
I0922 22:33:56.011432 30493 net.cpp:425] lstm1_ <- c_1
I0922 22:33:56.011440 30493 net.cpp:399] lstm1_ -> c_T
I0922 22:33:56.011924 30489 net.cpp:141] Setting up lstm1_h_conted_0
I0922 22:33:56.011940 30489 net.cpp:148] Top shape: 1 1 1000 (1000)
I0922 22:33:56.011946 30489 net.cpp:156] Memory required for data: 46016
I0922 22:33:56.011953 30489 layer_factory.hpp:77] Creating layer lstm1_transform_1
I0922 22:33:56.011970 30489 net.cpp:91] Creating Layer lstm1_transform_1
I0922 22:33:56.011975 30493 net.cpp:141] Setting up lstm1_
I0922 22:33:56.011979 30489 net.cpp:425] lstm1_transform_1 <- h_conted_0
I0922 22:33:56.011992 30493 net.cpp:148] Top shape: 1 1 1000 (1000)
I0922 22:33:56.011998 30493 net.cpp:156] Memory required for data: 90016
I0922 22:33:56.012004 30493 layer_factory.hpp:77] Creating layer lstm1_h_concat
I0922 22:33:56.012003 30489 net.cpp:399] lstm1_transform_1 -> W_hc_h_0
I0922 22:33:56.012018 30493 net.cpp:91] Creating Layer lstm1_h_concat
I0922 22:33:56.012024 30493 net.cpp:425] lstm1_h_concat <- h_1
I0922 22:33:56.012032 30493 net.cpp:399] lstm1_h_concat -> h
I0922 22:33:56.022060 30493 net.cpp:141] Setting up lstm1_h_concat
I0922 22:33:56.022112 30493 net.cpp:148] Top shape: 1 1 1000 (1000)
I0922 22:33:56.022122 30493 net.cpp:156] Memory required for data: 94016
I0922 22:33:56.022135 30493 layer_factory.hpp:77] Creating layer h_pseudoloss
I0922 22:33:56.022158 30493 net.cpp:91] Creating Layer h_pseudoloss
I0922 22:33:56.022171 30493 net.cpp:425] h_pseudoloss <- h
I0922 22:33:56.022186 30493 net.cpp:399] h_pseudoloss -> h_pseudoloss
I0922 22:33:56.022604 30493 net.cpp:141] Setting up h_pseudoloss
…
I0922 22:33:56.022794 30493 net.cpp:219] lstm1_ does not need backward computation.
I0922 22:33:56.022800 30493 net.cpp:261] This network produces output c_T
I0922 22:33:56.022809 30493 net.cpp:261] This network produces output h_pseudoloss
I0922 22:33:56.022836 30493 net.cpp:274] Network initialization done.
I0922 22:33:56.022914 30493 recurrent_layer.cpp:150] Adding parameter 0: W_xc
I0922 22:33:56.022925 30493 recurrent_layer.cpp:150] Adding parameter 1: b_c
I0922 22:33:56.022933 30493 recurrent_layer.cpp:150] Adding parameter 2: W_hc
I0922 22:33:56.023227 30493 net.cpp:141] Setting up lstm1
I0922 22:33:56.023248 30493 net.cpp:148] Top shape: 1 1 1000 (1000)
I0922 22:33:56.023258 30493 net.cpp:156] Memory required for data: 26408
I0922 22:33:56.023288 30493 layer_factory.hpp:77] Creating layer concat
I0922 22:33:56.023309 30493 net.cpp:91] Creating Layer concat
I0922 22:33:56.023324 30493 net.cpp:425] concat <- lstm1
I0922 22:33:56.023336 30493 net.cpp:425] concat <- embedded_input_sentence
I0922 22:33:56.023347 30493 net.cpp:425] concat <- reshaped_stage_indicator
I0922 22:33:56.023362 30493 net.cpp:399] concat -> lstm1_video_sequence
I0922 22:33:56.023511 30493 net.cpp:141] Setting up concat
I0922 22:33:56.023532 30493 net.cpp:148] Top shape: 1 1 1501 (1501)
I0922 22:33:56.023542 30493 net.cpp:156] Memory required for data: 32412
I0922 22:33:56.023552 30493 layer_factory.hpp:77] Creating layer lstm2
I0922 22:33:56.023548 30487 net.cpp:141] Setting up conv3
I0922 22:33:56.023576 30493 net.cpp:91] Creating Layer lstm2
I0922 22:33:56.023588 30493 net.cpp:425] lstm2 <- lstm1_video_sequence
I0922 22:33:56.023589 30487 net.cpp:148] Top shape: 10 384 13 13 (648960)
I0922 22:33:56.023603 30493 net.cpp:425] lstm2 <- cont_sentence_input_1_split_1
I0922 22:33:56.023604 30487 net.cpp:156] Memory required for data: 56001080
I0922 22:33:56.023622 30493 net.cpp:399] lstm2 -> lstm2
I0922 22:33:56.023635 30487 layer_factory.hpp:77] Creating layer relu3
I0922 22:33:56.023643 30493 recurrent_layer.cpp:20] Initializing recurrent layer: assuming input batch contains 1 timesteps of 1 independent streams.
I0922 22:33:56.023653 30487 net.cpp:91] Creating Layer relu3
I0922 22:33:56.023660 30487 net.cpp:425] relu3 <- conv3
I0922 22:33:56.023669 30487 net.cpp:386] relu3 -> conv3 (in-place)
I0922 22:33:56.023905 30487 net.cpp:141] Setting up relu3
I0922 22:33:56.023916 30487 net.cpp:148] Top shape: 10 384 13 13 (648960)
I0922 22:33:56.023921 30487 net.cpp:156] Memory required for data: 58596920
I0922 22:33:56.023926 30487 layer_factory.hpp:77] Creating layer conv4
I0922 22:33:56.023943 30487 net.cpp:91] Creating Layer conv4
I0922 22:33:56.023948 30487 net.cpp:425] conv4 <- conv3
I0922 22:33:56.023957 30487 net.cpp:399] conv4 -> conv4
I0922 22:33:56.024071 30493 net.cpp:49] Initializing net from parameters: 
layer {
  name: "lstm2_"
  type: "Input"
  top: "x"
  top: "cont"
  input_param {
    shape {
      dim: 1
      dim: 1
      dim: 1501
    }
    shape {
      dim: 1
      dim: 1
    }
  }
}
layer {
  name: "lstm2_"
  type: "Input"
  top: "c_0"
  top: "h_0"
  input_param {
    shape {
      dim: 1
      dim: 1
      dim: 1000
    }
    shape {
      dim: 1
      dim: 1
      dim: 1000
    }
  }
}
layer {
  name: "lstm2_cont_slice"
  type: "Slice"
  bottom: "cont"
  top: "cont_1"
  slice_param {
    axis: 0
  }
}
layer {
  name: "lstm2_x_transform"
  type: "InnerProduct"
  bottom: "x"
  top: "W_xc_x"
  param {
    name: "W_xc"
  }
  param {
    name: "b_c"
  }
  propagate_down: true
  inner_product_param {
    num_output: 4000
    bias_term: true
    weight_filler {
      type: "uniform"
      min: -0.08
      max: 0.08
    }
    bias_filler {
      type: "constant"
      value: 0
    }
    axis: 2
  }
}
layer {
  name: "lstm2_W_xc_x_slice"
  type: "Slice"
  bottom: "W_xc_x"
  top: "W_xc_x_1"
  slice_param {
    axis: 0
  }
}
layer {
  name: "lstm2_h_conted_0"
  type: "Scale"
  bottom: "h_0"
  bottom: "cont_1"
  top: "h_conted_0"
  scale_param {
    axis: 0
  }
}
layer {
  name: "lstm2_transform_1"
  type: "InnerProduct"
  bottom: "h_conted_0"
  top: "W_hc_h_0"
  param {
    name: "W_hc"
  }
  inner_product_param {
    num_output: 4000
    bias_term: false
    weight_filler {
      type: "uniform"
      min: -0.08
      max: 0.08
    }
    axis: 2
  }
}
layer {
  name: "lstm2_gate_input_1"
  type: "Eltwise"
  bottom: "W_hc_h_0"
  bottom: "W_xc_x_1"
  top: "gate_input_1"
  eltwise_param {
    operation: SUM
  }
}
layer {
  name: "lstm2_unit_1"
  type: "LSTMUnit"
  bottom: "c_0"
  bottom: "gate_input_1"
  bottom: "cont_1"
  top: "c_1"
  top: "h_1"
}
layer {
  name: "lstm2_"
  type: "Split"
  bottom: "c_1"
  top: "c_T"
}
layer {
  name: "lstm2_h_concat"
  type: "Concat"
  bottom: "h_1"
  top: "h"
  concat_param {
    axis: 0
  }
}
layer {
  name: "h_pseudoloss"
  type: "Reduction"
  bottom: "h"
  top: "h_pseudoloss"
  loss_weight: 1
}
I0922 22:33:56.024222 30493 layer_factory.hpp:77] Creating layer lstm2_
I0922 22:33:56.024243 30493 net.cpp:91] Creating Layer lstm2_
I0922 22:33:56.024255 30493 net.cpp:399] lstm2_ -> x
I0922 22:33:56.024274 30493 net.cpp:399] lstm2_ -> cont
I0922 22:33:56.025688 30493 net.cpp:141] Setting up lstm2_
I0922 22:33:56.025708 30493 net.cpp:148] Top shape: 1 1 1501 (1501)
I0922 22:33:56.025719 30493 net.cpp:148] Top shape: 1 1 (1)
I0922 22:33:56.025727 30493 net.cpp:156] Memory required for data: 6008
I0922 22:33:56.025737 30493 layer_factory.hpp:77] Creating layer lstm2_
I0922 22:33:56.025753 30493 net.cpp:91] Creating Layer lstm2_
I0922 22:33:56.025768 30493 net.cpp:399] lstm2_ -> c_0
I0922 22:33:56.025789 30493 net.cpp:399] lstm2_ -> h_0
I0922 22:33:56.025877 30493 net.cpp:141] Setting up lstm2_
I0922 22:33:56.025897 30493 net.cpp:148] Top shape: 1 1 1000 (1000)
I0922 22:33:56.025908 30493 net.cpp:148] Top shape: 1 1 1000 (1000)
I0922 22:33:56.025918 30493 net.cpp:156] Memory required for data: 14008
I0922 22:33:56.025926 30493 layer_factory.hpp:77] Creating layer lstm2_cont_slice
I0922 22:33:56.025940 30493 net.cpp:91] Creating Layer lstm2_cont_slice
I0922 22:33:56.025949 30493 net.cpp:425] lstm2_cont_slice <- cont
I0922 22:33:56.025962 30493 net.cpp:399] lstm2_cont_slice -> cont_1
I0922 22:33:56.026039 30493 net.cpp:141] Setting up lstm2_cont_slice
I0922 22:33:56.026054 30493 net.cpp:148] Top shape: 1 1 (1)
I0922 22:33:56.026062 30493 net.cpp:156] Memory required for data: 14012
I0922 22:33:56.026072 30493 layer_factory.hpp:77] Creating layer cont_1_lstm2_cont_slice_0_split
I0922 22:33:56.026089 30493 net.cpp:91] Creating Layer cont_1_lstm2_cont_slice_0_split
I0922 22:33:56.026099 30493 net.cpp:425] cont_1_lstm2_cont_slice_0_split <- cont_1
I0922 22:33:56.026113 30493 net.cpp:399] cont_1_lstm2_cont_slice_0_split -> cont_1_lstm2_cont_slice_0_split_0
I0922 22:33:56.026126 30493 net.cpp:399] cont_1_lstm2_cont_slice_0_split -> cont_1_lstm2_cont_slice_0_split_1
I0922 22:33:56.026533 30493 net.cpp:141] Setting up cont_1_lstm2_cont_slice_0_split
I0922 22:33:56.026551 30493 net.cpp:148] Top shape: 1 1 (1)
I0922 22:33:56.026561 30493 net.cpp:148] Top shape: 1 1 (1)
I0922 22:33:56.026569 30493 net.cpp:156] Memory required for data: 14020
I0922 22:33:56.026578 30493 layer_factory.hpp:77] Creating layer lstm2_x_transform
I0922 22:33:56.026612 30493 net.cpp:91] Creating Layer lstm2_x_transform
I0922 22:33:56.026623 30493 net.cpp:425] lstm2_x_transform <- x
I0922 22:33:56.026638 30493 net.cpp:399] lstm2_x_transform -> W_xc_x
I0922 22:33:56.045073 30487 net.cpp:141] Setting up conv4
I0922 22:33:56.045115 30487 net.cpp:148] Top shape: 10 384 13 13 (648960)
I0922 22:33:56.045122 30487 net.cpp:156] Memory required for data: 61192760
I0922 22:33:56.045137 30487 layer_factory.hpp:77] Creating layer relu4
I0922 22:33:56.045159 30487 net.cpp:91] Creating Layer relu4
I0922 22:33:56.045167 30487 net.cpp:425] relu4 <- conv4
I0922 22:33:56.045178 30487 net.cpp:386] relu4 -> conv4 (in-place)
I0922 22:33:56.045572 30487 net.cpp:141] Setting up relu4
I0922 22:33:56.045584 30487 net.cpp:148] Top shape: 10 384 13 13 (648960)
I0922 22:33:56.045589 30487 net.cpp:156] Memory required for data: 63788600
I0922 22:33:56.045594 30487 layer_factory.hpp:77] Creating layer conv5
I0922 22:33:56.045615 30487 net.cpp:91] Creating Layer conv5
I0922 22:33:56.045620 30487 net.cpp:425] conv5 <- conv4
I0922 22:33:56.045629 30487 net.cpp:399] conv5 -> conv5
I0922 22:33:56.049175 30487 net.cpp:141] Setting up conv5
I0922 22:33:56.049190 30487 net.cpp:148] Top shape: 10 256 13 13 (432640)
I0922 22:33:56.049196 30487 net.cpp:156] Memory required for data: 65519160
I0922 22:33:56.049211 30487 layer_factory.hpp:77] Creating layer relu5
I0922 22:33:56.049222 30487 net.cpp:91] Creating Layer relu5
I0922 22:33:56.049227 30487 net.cpp:425] relu5 <- conv5
I0922 22:33:56.049233 30487 net.cpp:386] relu5 -> conv5 (in-place)
I0922 22:33:56.049612 30487 net.cpp:141] Setting up relu5
I0922 22:33:56.049625 30487 net.cpp:148] Top shape: 10 256 13 13 (432640)
I0922 22:33:56.049630 30487 net.cpp:156] Memory required for data: 67249720
I0922 22:33:56.049635 30487 layer_factory.hpp:77] Creating layer pool5
I0922 22:33:56.049649 30487 net.cpp:91] Creating Layer pool5
I0922 22:33:56.049654 30487 net.cpp:425] pool5 <- conv5
I0922 22:33:56.049661 30487 net.cpp:399] pool5 -> pool5
I0922 22:33:56.049724 30487 net.cpp:141] Setting up pool5
I0922 22:33:56.049734 30487 net.cpp:148] Top shape: 10 256 6 6 (92160)
I0922 22:33:56.049739 30487 net.cpp:156] Memory required for data: 67618360
I0922 22:33:56.049743 30487 layer_factory.hpp:77] Creating layer fc6
I0922 22:33:56.049757 30487 net.cpp:91] Creating Layer fc6
I0922 22:33:56.049762 30487 net.cpp:425] fc6 <- pool5
I0922 22:33:56.049772 30487 net.cpp:399] fc6 -> fc6
I0922 22:33:56.114768 30489 net.cpp:141] Setting up lstm1_transform_1
I0922 22:33:56.114811 30489 net.cpp:148] Top shape: 1 1 4000 (4000)
I0922 22:33:56.114819 30489 net.cpp:156] Memory required for data: 62016
I0922 22:33:56.114841 30489 layer_factory.hpp:77] Creating layer lstm1_gate_input_1
I0922 22:33:56.114866 30489 net.cpp:91] Creating Layer lstm1_gate_input_1
I0922 22:33:56.114874 30489 net.cpp:425] lstm1_gate_input_1 <- W_hc_h_0
I0922 22:33:56.114881 30489 net.cpp:425] lstm1_gate_input_1 <- W_xc_x_1
I0922 22:33:56.114889 30489 net.cpp:399] lstm1_gate_input_1 -> gate_input_1
I0922 22:33:56.114990 30489 net.cpp:141] Setting up lstm1_gate_input_1
I0922 22:33:56.115005 30489 net.cpp:148] Top shape: 1 1 4000 (4000)
I0922 22:33:56.115010 30489 net.cpp:156] Memory required for data: 78016
I0922 22:33:56.115015 30489 layer_factory.hpp:77] Creating layer lstm1_unit_1
I0922 22:33:56.115036 30489 net.cpp:91] Creating Layer lstm1_unit_1
I0922 22:33:56.115042 30489 net.cpp:425] lstm1_unit_1 <- c_0
I0922 22:33:56.115049 30489 net.cpp:425] lstm1_unit_1 <- gate_input_1
I0922 22:33:56.115054 30489 net.cpp:425] lstm1_unit_1 <- cont_1_lstm1_cont_slice_0_split_1
I0922 22:33:56.115064 30489 net.cpp:399] lstm1_unit_1 -> c_1
I0922 22:33:56.115073 30489 net.cpp:399] lstm1_unit_1 -> h_1
I0922 22:33:56.115219 30493 net.cpp:141] Setting up lstm2_x_transform
I0922 22:33:56.115262 30493 net.cpp:148] Top shape: 1 1 4000 (4000)
I0922 22:33:56.115268 30493 net.cpp:156] Memory required for data: 30020
I0922 22:33:56.115289 30493 layer_factory.hpp:77] Creating layer lstm2_W_xc_x_slice
I0922 22:33:56.115306 30493 net.cpp:91] Creating Layer lstm2_W_xc_x_slice
I0922 22:33:56.115314 30493 net.cpp:425] lstm2_W_xc_x_slice <- W_xc_x
I0922 22:33:56.115322 30493 net.cpp:399] lstm2_W_xc_x_slice -> W_xc_x_1
I0922 22:33:56.115341 30509 net.cpp:141] Setting up lstm2_x_transform
I0922 22:33:56.115360 30509 net.cpp:148] Top shape: 1 1 4000 (4000)
I0922 22:33:56.115365 30509 net.cpp:156] Memory required for data: 30020
I0922 22:33:56.115363 30489 net.cpp:141] Setting up lstm1_unit_1
I0922 22:33:56.115380 30489 net.cpp:148] Top shape: 1 1 1000 (1000)
I0922 22:33:56.115381 30509 layer_factory.hpp:77] Creating layer lstm2_W_xc_x_slice
I0922 22:33:56.115386 30489 net.cpp:148] Top shape: 1 1 1000 (1000)
I0922 22:33:56.115391 30489 net.cpp:156] Memory required for data: 86016
I0922 22:33:56.115393 30509 net.cpp:91] Creating Layer lstm2_W_xc_x_slice
I0922 22:33:56.115396 30489 layer_factory.hpp:77] Creating layer lstm1_
I0922 22:33:56.115399 30509 net.cpp:425] lstm2_W_xc_x_slice <- W_xc_x
I0922 22:33:56.115406 30489 net.cpp:91] Creating Layer lstm1_
I0922 22:33:56.115408 30509 net.cpp:399] lstm2_W_xc_x_slice -> W_xc_x_1
I0922 22:33:56.115411 30489 net.cpp:425] lstm1_ <- c_1
I0922 22:33:56.115419 30489 net.cpp:399] lstm1_ -> c_T
I0922 22:33:56.115417 30493 net.cpp:141] Setting up lstm2_W_xc_x_slice
I0922 22:33:56.115442 30493 net.cpp:148] Top shape: 1 1 4000 (4000)
I0922 22:33:56.115447 30493 net.cpp:156] Memory required for data: 46020
I0922 22:33:56.115453 30493 layer_factory.hpp:77] Creating layer lstm2_h_conted_0
I0922 22:33:56.115464 30493 net.cpp:91] Creating Layer lstm2_h_conted_0
I0922 22:33:56.115470 30493 net.cpp:425] lstm2_h_conted_0 <- h_0
I0922 22:33:56.115475 30509 net.cpp:141] Setting up lstm2_W_xc_x_slice
I0922 22:33:56.115478 30493 net.cpp:425] lstm2_h_conted_0 <- cont_1_lstm2_cont_slice_0_split_0
I0922 22:33:56.115489 30509 net.cpp:148] Top shape: 1 1 4000 (4000)
I0922 22:33:56.115494 30509 net.cpp:156] Memory required for data: 46020
I0922 22:33:56.115495 30493 net.cpp:399] lstm2_h_conted_0 -> h_conted_0
I0922 22:33:56.115499 30509 layer_factory.hpp:77] Creating layer lstm2_h_conted_0
I0922 22:33:56.115499 30489 net.cpp:141] Setting up lstm1_
I0922 22:33:56.115512 30509 net.cpp:91] Creating Layer lstm2_h_conted_0
I0922 22:33:56.115514 30489 net.cpp:148] Top shape: 1 1 1000 (1000)
I0922 22:33:56.115520 30509 net.cpp:425] lstm2_h_conted_0 <- h_0
I0922 22:33:56.115521 30489 net.cpp:156] Memory required for data: 90016
I0922 22:33:56.115526 30509 net.cpp:425] lstm2_h_conted_0 <- cont_1_lstm2_cont_slice_0_split_0
I0922 22:33:56.115526 30489 layer_factory.hpp:77] Creating layer lstm1_h_concat
I0922 22:33:56.115535 30509 net.cpp:399] lstm2_h_conted_0 -> h_conted_0
I0922 22:33:56.115542 30489 net.cpp:91] Creating Layer lstm1_h_concat
I0922 22:33:56.115547 30489 net.cpp:425] lstm1_h_concat <- h_1
I0922 22:33:56.115557 30489 net.cpp:399] lstm1_h_concat -> h
I0922 22:33:56.115654 30509 net.cpp:141] Setting up lstm2_h_conted_0
I0922 22:33:56.115664 30509 net.cpp:148] Top shape: 1 1 1000 (1000)
I0922 22:33:56.115669 30509 net.cpp:156] Memory required for data: 50020
I0922 22:33:56.115674 30509 layer_factory.hpp:77] Creating layer lstm2_transform_1
I0922 22:33:56.115682 30489 net.cpp:141] Setting up lstm1_h_concat
I0922 22:33:56.115695 30489 net.cpp:148] Top shape: 1 1 1000 (1000)
I0922 22:33:56.115696 30509 net.cpp:91] Creating Layer lstm2_transform_1
I0922 22:33:56.115700 30489 net.cpp:156] Memory required for data: 94016
I0922 22:33:56.115701 30509 net.cpp:425] lstm2_transform_1 <- h_conted_0
I0922 22:33:56.115705 30489 layer_factory.hpp:77] Creating layer h_pseudoloss
I0922 22:33:56.115710 30509 net.cpp:399] lstm2_transform_1 -> W_hc_h_0
I0922 22:33:56.115715 30489 net.cpp:91] Creating Layer h_pseudoloss
I0922 22:33:56.115720 30489 net.cpp:425] h_pseudoloss <- h
I0922 22:33:56.115725 30489 net.cpp:399] h_pseudoloss -> h_pseudoloss
I0922 22:33:56.115794 30493 net.cpp:141] Setting up lstm2_h_conted_0
I0922 22:33:56.115808 30493 net.cpp:148] Top shape: 1 1 1000 (1000)
I0922 22:33:56.115813 30493 net.cpp:156] Memory required for data: 50020
I0922 22:33:56.115818 30493 layer_factory.hpp:77] Creating layer lstm2_transform_1
I0922 22:33:56.115831 30493 net.cpp:91] Creating Layer lstm2_transform_1
I0922 22:33:56.115839 30493 net.cpp:425] lstm2_transform_1 <- h_conted_0
I0922 22:33:56.115849 30493 net.cpp:399] lstm2_transform_1 -> W_hc_h_0
I0922 22:33:56.125808 30489 net.cpp:141] Setting up h_pseudoloss
…
I0922 22:33:56.126058 30489 net.cpp:219] lstm1_ does not need backward computation.
I0922 22:33:56.126065 30489 net.cpp:261] This network produces output c_T
I0922 22:33:56.126075 30489 net.cpp:261] This network produces output h_pseudoloss
I0922 22:33:56.126103 30489 net.cpp:274] Network initialization done.
I0922 22:33:56.126185 30489 recurrent_layer.cpp:150] Adding parameter 0: W_xc
I0922 22:33:56.126196 30489 recurrent_layer.cpp:150] Adding parameter 1: b_c
I0922 22:33:56.126204 30489 recurrent_layer.cpp:150] Adding parameter 2: W_hc
I0922 22:33:56.133894 30489 net.cpp:141] Setting up lstm1
I0922 22:33:56.133942 30489 net.cpp:148] Top shape: 1 1 1000 (1000)
I0922 22:33:56.133951 30489 net.cpp:156] Memory required for data: 26408
I0922 22:33:56.133982 30489 layer_factory.hpp:77] Creating layer concat
I0922 22:33:56.134006 30489 net.cpp:91] Creating Layer concat
I0922 22:33:56.134016 30489 net.cpp:425] concat <- lstm1
I0922 22:33:56.134028 30489 net.cpp:425] concat <- embedded_input_sentence
I0922 22:33:56.134038 30489 net.cpp:425] concat <- reshaped_stage_indicator
I0922 22:33:56.134050 30489 net.cpp:399] concat -> lstm1_video_sequence
I0922 22:33:56.134116 30489 net.cpp:141] Setting up concat
I0922 22:33:56.134130 30489 net.cpp:148] Top shape: 1 1 1501 (1501)
I0922 22:33:56.134137 30489 net.cpp:156] Memory required for data: 32412
I0922 22:33:56.134145 30489 layer_factory.hpp:77] Creating layer lstm2
I0922 22:33:56.134166 30489 net.cpp:91] Creating Layer lstm2
I0922 22:33:56.134176 30489 net.cpp:425] lstm2 <- lstm1_video_sequence
I0922 22:33:56.134186 30489 net.cpp:425] lstm2 <- cont_sentence_input_1_split_1
I0922 22:33:56.134197 30489 net.cpp:399] lstm2 -> lstm2
I0922 22:33:56.134214 30489 recurrent_layer.cpp:20] Initializing recurrent layer: assuming input batch contains 1 timesteps of 1 independent streams.
I0922 22:33:56.134623 30489 net.cpp:49] Initializing net from parameters: 
layer {
  name: "lstm2_"
  type: "Input"
  top: "x"
  top: "cont"
  input_param {
    shape {
      dim: 1
      dim: 1
      dim: 1501
    }
    shape {
      dim: 1
      dim: 1
    }
  }
}
layer {
  name: "lstm2_"
  type: "Input"
  top: "c_0"
  top: "h_0"
  input_param {
    shape {
      dim: 1
      dim: 1
      dim: 1000
    }
    shape {
      dim: 1
      dim: 1
      dim: 1000
    }
  }
}
layer {
  name: "lstm2_cont_slice"
  type: "Slice"
  bottom: "cont"
  top: "cont_1"
  slice_param {
    axis: 0
  }
}
layer {
  name: "lstm2_x_transform"
  type: "InnerProduct"
  bottom: "x"
  top: "W_xc_x"
  param {
    name: "W_xc"
  }
  param {
    name: "b_c"
  }
  propagate_down: true
  inner_product_param {
    num_output: 4000
    bias_term: true
    weight_filler {
      type: "uniform"
      min: -0.08
      max: 0.08
    }
    bias_filler {
      type: "constant"
      value: 0
    }
    axis: 2
  }
}
layer {
  name: "lstm2_W_xc_x_slice"
  type: "Slice"
  bottom: "W_xc_x"
  top: "W_xc_x_1"
  slice_param {
    axis: 0
  }
}
layer {
  name: "lstm2_h_conted_0"
  type: "Scale"
  bottom: "h_0"
  bottom: "cont_1"
  top: "h_conted_0"
  scale_param {
    axis: 0
  }
}
layer {
  name: "lstm2_transform_1"
  type: "InnerProduct"
  bottom: "h_conted_0"
  top: "W_hc_h_0"
  param {
    name: "W_hc"
  }
  inner_product_param {
    num_output: 4000
    bias_term: false
    weight_filler {
      type: "uniform"
      min: -0.08
      max: 0.08
    }
    axis: 2
  }
}
layer {
  name: "lstm2_gate_input_1"
  type: "Eltwise"
  bottom: "W_hc_h_0"
  bottom: "W_xc_x_1"
  top: "gate_input_1"
  eltwise_param {
    operation: SUM
  }
}
layer {
  name: "lstm2_unit_1"
  type: "LSTMUnit"
  bottom: "c_0"
  bottom: "gate_input_1"
  bottom: "cont_1"
  top: "c_1"
  top: "h_1"
}
layer {
  name: "lstm2_"
  type: "Split"
  bottom: "c_1"
  top: "c_T"
}
layer {
  name: "lstm2_h_concat"
  type: "Concat"
  bottom: "h_1"
  top: "h"
  concat_param {
    axis: 0
  }
}
layer {
  name: "h_pseudoloss"
  type: "Reduction"
  bottom: "h"
  top: "h_pseudoloss"
  loss_weight: 1
}
I0922 22:33:56.134807 30489 layer_factory.hpp:77] Creating layer lstm2_
I0922 22:33:56.134826 30489 net.cpp:91] Creating Layer lstm2_
I0922 22:33:56.134836 30489 net.cpp:399] lstm2_ -> x
I0922 22:33:56.134853 30489 net.cpp:399] lstm2_ -> cont
I0922 22:33:56.134935 30489 net.cpp:141] Setting up lstm2_
I0922 22:33:56.134949 30489 net.cpp:148] Top shape: 1 1 1501 (1501)
I0922 22:33:56.134959 30489 net.cpp:148] Top shape: 1 1 (1)
I0922 22:33:56.134965 30489 net.cpp:156] Memory required for data: 6008
I0922 22:33:56.134974 30489 layer_factory.hpp:77] Creating layer lstm2_
I0922 22:33:56.134989 30489 net.cpp:91] Creating Layer lstm2_
I0922 22:33:56.135000 30489 net.cpp:399] lstm2_ -> c_0
I0922 22:33:56.135016 30489 net.cpp:399] lstm2_ -> h_0
I0922 22:33:56.135114 30489 net.cpp:141] Setting up lstm2_
I0922 22:33:56.135128 30489 net.cpp:148] Top shape: 1 1 1000 (1000)
I0922 22:33:56.135138 30489 net.cpp:148] Top shape: 1 1 1000 (1000)
I0922 22:33:56.135146 30489 net.cpp:156] Memory required for data: 14008
I0922 22:33:56.135154 30489 layer_factory.hpp:77] Creating layer lstm2_cont_slice
I0922 22:33:56.135170 30489 net.cpp:91] Creating Layer lstm2_cont_slice
I0922 22:33:56.135179 30489 net.cpp:425] lstm2_cont_slice <- cont
I0922 22:33:56.135190 30489 net.cpp:399] lstm2_cont_slice -> cont_1
I0922 22:33:56.135246 30489 net.cpp:141] Setting up lstm2_cont_slice
I0922 22:33:56.135258 30489 net.cpp:148] Top shape: 1 1 (1)
I0922 22:33:56.135265 30489 net.cpp:156] Memory required for data: 14012
I0922 22:33:56.135273 30489 layer_factory.hpp:77] Creating layer cont_1_lstm2_cont_slice_0_split
I0922 22:33:56.135284 30489 net.cpp:91] Creating Layer cont_1_lstm2_cont_slice_0_split
I0922 22:33:56.135293 30489 net.cpp:425] cont_1_lstm2_cont_slice_0_split <- cont_1
I0922 22:33:56.135305 30489 net.cpp:399] cont_1_lstm2_cont_slice_0_split -> cont_1_lstm2_cont_slice_0_split_0
I0922 22:33:56.135318 30489 net.cpp:399] cont_1_lstm2_cont_slice_0_split -> cont_1_lstm2_cont_slice_0_split_1
I0922 22:33:56.135388 30489 net.cpp:141] Setting up cont_1_lstm2_cont_slice_0_split
I0922 22:33:56.135401 30489 net.cpp:148] Top shape: 1 1 (1)
I0922 22:33:56.135409 30489 net.cpp:148] Top shape: 1 1 (1)
I0922 22:33:56.135416 30489 net.cpp:156] Memory required for data: 14020
I0922 22:33:56.135423 30489 layer_factory.hpp:77] Creating layer lstm2_x_transform
I0922 22:33:56.135438 30489 net.cpp:91] Creating Layer lstm2_x_transform
I0922 22:33:56.135445 30489 net.cpp:425] lstm2_x_transform <- x
I0922 22:33:56.135460 30489 net.cpp:399] lstm2_x_transform -> W_xc_x
I0922 22:33:56.154706 30487 net.cpp:141] Setting up fc6
I0922 22:33:56.154748 30487 net.cpp:148] Top shape: 10 4096 (40960)
I0922 22:33:56.154754 30487 net.cpp:156] Memory required for data: 67782200
I0922 22:33:56.154768 30487 layer_factory.hpp:77] Creating layer relu6
I0922 22:33:56.154784 30487 net.cpp:91] Creating Layer relu6
I0922 22:33:56.154791 30487 net.cpp:425] relu6 <- fc6
I0922 22:33:56.154800 30487 net.cpp:386] relu6 -> fc6 (in-place)
I0922 22:33:56.155133 30487 net.cpp:141] Setting up relu6
I0922 22:33:56.155145 30487 net.cpp:148] Top shape: 10 4096 (40960)
I0922 22:33:56.155149 30487 net.cpp:156] Memory required for data: 67946040
I0922 22:33:56.155154 30487 layer_factory.hpp:77] Creating layer drop6
I0922 22:33:56.155174 30487 net.cpp:91] Creating Layer drop6
I0922 22:33:56.155179 30487 net.cpp:425] drop6 <- fc6
I0922 22:33:56.155186 30487 net.cpp:386] drop6 -> fc6 (in-place)
I0922 22:33:56.155236 30487 net.cpp:141] Setting up drop6
I0922 22:33:56.155246 30487 net.cpp:148] Top shape: 10 4096 (40960)
I0922 22:33:56.155249 30487 net.cpp:156] Memory required for data: 68109880
I0922 22:33:56.155254 30487 layer_factory.hpp:77] Creating layer fc7
I0922 22:33:56.155268 30487 net.cpp:91] Creating Layer fc7
I0922 22:33:56.155273 30487 net.cpp:425] fc7 <- fc6
I0922 22:33:56.155280 30487 net.cpp:399] fc7 -> fc7
I0922 22:33:56.184487 30509 net.cpp:141] Setting up lstm2_transform_1
I0922 22:33:56.184542 30509 net.cpp:148] Top shape: 1 1 4000 (4000)
I0922 22:33:56.184551 30509 net.cpp:156] Memory required for data: 66020
I0922 22:33:56.184582 30509 layer_factory.hpp:77] Creating layer lstm2_gate_input_1
I0922 22:33:56.184612 30509 net.cpp:91] Creating Layer lstm2_gate_input_1
I0922 22:33:56.184623 30509 net.cpp:425] lstm2_gate_input_1 <- W_hc_h_0
I0922 22:33:56.184619 30493 net.cpp:141] Setting up lstm2_transform_1
I0922 22:33:56.184638 30509 net.cpp:425] lstm2_gate_input_1 <- W_xc_x_1
I0922 22:33:56.184671 30493 net.cpp:148] Top shape: 1 1 4000 (4000)
I0922 22:33:56.184679 30493 net.cpp:156] Memory required for data: 66020
I0922 22:33:56.184676 30509 net.cpp:399] lstm2_gate_input_1 -> gate_input_1
I0922 22:33:56.184705 30493 layer_factory.hpp:77] Creating layer lstm2_gate_input_1
I0922 22:33:56.184725 30493 net.cpp:91] Creating Layer lstm2_gate_input_1
I0922 22:33:56.184732 30493 net.cpp:425] lstm2_gate_input_1 <- W_hc_h_0
I0922 22:33:56.184741 30493 net.cpp:425] lstm2_gate_input_1 <- W_xc_x_1
I0922 22:33:56.184751 30493 net.cpp:399] lstm2_gate_input_1 -> gate_input_1
I0922 22:33:56.184803 30509 net.cpp:141] Setting up lstm2_gate_input_1
I0922 22:33:56.184819 30509 net.cpp:148] Top shape: 1 1 4000 (4000)
I0922 22:33:56.184828 30509 net.cpp:156] Memory required for data: 82020
I0922 22:33:56.184835 30509 layer_factory.hpp:77] Creating layer lstm2_unit_1
I0922 22:33:56.184852 30493 net.cpp:141] Setting up lstm2_gate_input_1
I0922 22:33:56.184854 30509 net.cpp:91] Creating Layer lstm2_unit_1
I0922 22:33:56.184869 30493 net.cpp:148] Top shape: 1 1 4000 (4000)
I0922 22:33:56.184875 30493 net.cpp:156] Memory required for data: 82020
I0922 22:33:56.184875 30509 net.cpp:425] lstm2_unit_1 <- c_0
I0922 22:33:56.184880 30493 layer_factory.hpp:77] Creating layer lstm2_unit_1
I0922 22:33:56.184887 30509 net.cpp:425] lstm2_unit_1 <- gate_input_1
I0922 22:33:56.184893 30493 net.cpp:91] Creating Layer lstm2_unit_1
I0922 22:33:56.184898 30509 net.cpp:425] lstm2_unit_1 <- cont_1_lstm2_cont_slice_0_split_1
I0922 22:33:56.184900 30493 net.cpp:425] lstm2_unit_1 <- c_0
I0922 22:33:56.184918 30509 net.cpp:399] lstm2_unit_1 -> c_1
I0922 22:33:56.184921 30493 net.cpp:425] lstm2_unit_1 <- gate_input_1
I0922 22:33:56.184943 30493 net.cpp:425] lstm2_unit_1 <- cont_1_lstm2_cont_slice_0_split_1
I0922 22:33:56.184947 30509 net.cpp:399] lstm2_unit_1 -> h_1
I0922 22:33:56.184952 30493 net.cpp:399] lstm2_unit_1 -> c_1
I0922 22:33:56.184963 30493 net.cpp:399] lstm2_unit_1 -> h_1
I0922 22:33:56.185081 30509 net.cpp:141] Setting up lstm2_unit_1
I0922 22:33:56.185096 30509 net.cpp:148] Top shape: 1 1 1000 (1000)
I0922 22:33:56.185106 30509 net.cpp:148] Top shape: 1 1 1000 (1000)
I0922 22:33:56.185114 30509 net.cpp:156] Memory required for data: 90020
I0922 22:33:56.185122 30509 layer_factory.hpp:77] Creating layer lstm2_
I0922 22:33:56.185134 30509 net.cpp:91] Creating Layer lstm2_
I0922 22:33:56.185142 30509 net.cpp:425] lstm2_ <- c_1
I0922 22:33:56.185156 30509 net.cpp:399] lstm2_ -> c_T
I0922 22:33:56.185164 30493 net.cpp:141] Setting up lstm2_unit_1
I0922 22:33:56.185179 30493 net.cpp:148] Top shape: 1 1 1000 (1000)
I0922 22:33:56.185187 30493 net.cpp:148] Top shape: 1 1 1000 (1000)
I0922 22:33:56.185191 30493 net.cpp:156] Memory required for data: 90020
I0922 22:33:56.185197 30493 layer_factory.hpp:77] Creating layer lstm2_
I0922 22:33:56.185206 30493 net.cpp:91] Creating Layer lstm2_
I0922 22:33:56.185212 30493 net.cpp:425] lstm2_ <- c_1
I0922 22:33:56.185220 30493 net.cpp:399] lstm2_ -> c_T
I0922 22:33:56.185225 30509 net.cpp:141] Setting up lstm2_
I0922 22:33:56.185240 30509 net.cpp:148] Top shape: 1 1 1000 (1000)
I0922 22:33:56.185246 30509 net.cpp:156] Memory required for data: 94020
I0922 22:33:56.185255 30509 layer_factory.hpp:77] Creating layer lstm2_h_concat
I0922 22:33:56.185268 30509 net.cpp:91] Creating Layer lstm2_h_concat
I0922 22:33:56.185271 30493 net.cpp:141] Setting up lstm2_
I0922 22:33:56.185276 30509 net.cpp:425] lstm2_h_concat <- h_1
I0922 22:33:56.185282 30493 net.cpp:148] Top shape: 1 1 1000 (1000)
I0922 22:33:56.185288 30493 net.cpp:156] Memory required for data: 94020
I0922 22:33:56.185291 30509 net.cpp:399] lstm2_h_concat -> h
I0922 22:33:56.185293 30493 layer_factory.hpp:77] Creating layer lstm2_h_concat
I0922 22:33:56.185317 30493 net.cpp:91] Creating Layer lstm2_h_concat
I0922 22:33:56.185323 30493 net.cpp:425] lstm2_h_concat <- h_1
I0922 22:33:56.185333 30493 net.cpp:399] lstm2_h_concat -> h
I0922 22:33:56.185372 30509 net.cpp:141] Setting up lstm2_h_concat
I0922 22:33:56.185387 30509 net.cpp:148] Top shape: 1 1 1000 (1000)
I0922 22:33:56.185395 30509 net.cpp:156] Memory required for data: 98020
I0922 22:33:56.185402 30509 layer_factory.hpp:77] Creating layer h_pseudoloss
I0922 22:33:56.185417 30509 net.cpp:91] Creating Layer h_pseudoloss
I0922 22:33:56.185417 30493 net.cpp:141] Setting up lstm2_h_concat
I0922 22:33:56.185431 30509 net.cpp:425] h_pseudoloss <- h
I0922 22:33:56.185446 30493 net.cpp:148] Top shape: 1 1 1000 (1000)
I0922 22:33:56.185451 30493 net.cpp:156] Memory required for data: 98020
I0922 22:33:56.185456 30493 layer_factory.hpp:77] Creating layer h_pseudoloss
I0922 22:33:56.185454 30509 net.cpp:399] h_pseudoloss -> h_pseudoloss
I0922 22:33:56.185470 30493 net.cpp:91] Creating Layer h_pseudoloss
I0922 22:33:56.185477 30493 net.cpp:425] h_pseudoloss <- h
I0922 22:33:56.185489 30493 net.cpp:399] h_pseudoloss -> h_pseudoloss
…
I0922 22:33:56.185993 30493 net.cpp:274] Network initialization done.
I0922 22:33:56.186030 30509 recurrent_layer.cpp:150] Adding parameter 0: W_xc
I0922 22:33:56.186041 30509 recurrent_layer.cpp:150] Adding parameter 1: b_c
I0922 22:33:56.186045 30493 recurrent_layer.cpp:150] Adding parameter 0: W_xc
I0922 22:33:56.186049 30509 recurrent_layer.cpp:150] Adding parameter 2: W_hc
I0922 22:33:56.186053 30493 recurrent_layer.cpp:150] Adding parameter 1: b_c
I0922 22:33:56.186058 30493 recurrent_layer.cpp:150] Adding parameter 2: W_hc
I0922 22:33:56.186259 30509 net.cpp:141] Setting up lstm2
I0922 22:33:56.186275 30509 net.cpp:148] Top shape: 1 1 1000 (1000)
I0922 22:33:56.186282 30509 net.cpp:156] Memory required for data: 36412
I0922 22:33:56.186307 30509 layer_factory.hpp:77] Creating layer predict
I0922 22:33:56.186326 30509 net.cpp:91] Creating Layer predict
I0922 22:33:56.186336 30509 net.cpp:425] predict <- lstm2
I0922 22:33:56.186352 30509 net.cpp:399] predict -> predict
I0922 22:33:56.186358 30493 net.cpp:141] Setting up lstm2
I0922 22:33:56.186372 30493 net.cpp:148] Top shape: 1 1 1000 (1000)
I0922 22:33:56.186378 30493 net.cpp:156] Memory required for data: 36412
I0922 22:33:56.186393 30493 layer_factory.hpp:77] Creating layer predict
I0922 22:33:56.186406 30493 net.cpp:91] Creating Layer predict
I0922 22:33:56.186414 30493 net.cpp:425] predict <- lstm2
I0922 22:33:56.186421 30493 net.cpp:399] predict -> predict
I0922 22:33:56.366255 30487 net.cpp:141] Setting up fc7
I0922 22:33:56.366302 30487 net.cpp:148] Top shape: 10 4096 (40960)
I0922 22:33:56.366310 30487 net.cpp:156] Memory required for data: 68273720
I0922 22:33:56.366308 30489 net.cpp:141] Setting up lstm2_x_transform
I0922 22:33:56.366331 30489 net.cpp:148] Top shape: 1 1 4000 (4000)
I0922 22:33:56.366333 30487 layer_factory.hpp:77] Creating layer relu7
I0922 22:33:56.366339 30489 net.cpp:156] Memory required for data: 30020
I0922 22:33:56.366358 30487 net.cpp:91] Creating Layer relu7
I0922 22:33:56.366364 30489 layer_factory.hpp:77] Creating layer lstm2_W_xc_x_slice
I0922 22:33:56.366369 30487 net.cpp:425] relu7 <- fc7
I0922 22:33:56.366382 30489 net.cpp:91] Creating Layer lstm2_W_xc_x_slice
I0922 22:33:56.366384 30487 net.cpp:386] relu7 -> fc7 (in-place)
I0922 22:33:56.366391 30489 net.cpp:425] lstm2_W_xc_x_slice <- W_xc_x
I0922 22:33:56.366405 30489 net.cpp:399] lstm2_W_xc_x_slice -> W_xc_x_1
I0922 22:33:56.367103 30489 net.cpp:141] Setting up lstm2_W_xc_x_slice
I0922 22:33:56.367121 30489 net.cpp:148] Top shape: 1 1 4000 (4000)
I0922 22:33:56.367130 30489 net.cpp:156] Memory required for data: 46020
I0922 22:33:56.367137 30489 layer_factory.hpp:77] Creating layer lstm2_h_conted_0
I0922 22:33:56.367152 30489 net.cpp:91] Creating Layer lstm2_h_conted_0
I0922 22:33:56.367161 30489 net.cpp:425] lstm2_h_conted_0 <- h_0
I0922 22:33:56.367172 30489 net.cpp:425] lstm2_h_conted_0 <- cont_1_lstm2_cont_slice_0_split_0
I0922 22:33:56.367183 30489 net.cpp:399] lstm2_h_conted_0 -> h_conted_0
I0922 22:33:56.367394 30489 net.cpp:141] Setting up lstm2_h_conted_0
I0922 22:33:56.367410 30489 net.cpp:148] Top shape: 1 1 1000 (1000)
I0922 22:33:56.367418 30489 net.cpp:156] Memory required for data: 50020
I0922 22:33:56.367425 30489 layer_factory.hpp:77] Creating layer lstm2_transform_1
I0922 22:33:56.367442 30489 net.cpp:91] Creating Layer lstm2_transform_1
I0922 22:33:56.367450 30489 net.cpp:425] lstm2_transform_1 <- h_conted_0
I0922 22:33:56.367456 30487 net.cpp:141] Setting up relu7
I0922 22:33:56.367462 30489 net.cpp:399] lstm2_transform_1 -> W_hc_h_0
I0922 22:33:56.367481 30487 net.cpp:148] Top shape: 10 4096 (40960)
I0922 22:33:56.367492 30487 net.cpp:156] Memory required for data: 68437560
I0922 22:33:56.367502 30487 layer_factory.hpp:77] Creating layer drop7
I0922 22:33:56.367518 30487 net.cpp:91] Creating Layer drop7
I0922 22:33:56.367529 30487 net.cpp:425] drop7 <- fc7
I0922 22:33:56.367542 30487 net.cpp:386] drop7 -> fc7 (in-place)
I0922 22:33:56.377215 30487 net.cpp:141] Setting up drop7
I0922 22:33:56.377274 30487 net.cpp:148] Top shape: 10 4096 (40960)
I0922 22:33:56.377285 30487 net.cpp:156] Memory required for data: 68601400
I0922 22:33:56.377300 30487 layer_factory.hpp:77] Creating layer fc8
I0922 22:33:56.377336 30487 net.cpp:91] Creating Layer fc8
I0922 22:33:56.377348 30487 net.cpp:425] fc8 <- fc7
I0922 22:33:56.377367 30487 net.cpp:399] fc8 -> fc8
I0922 22:33:56.389480 30487 net.cpp:141] Setting up fc8
I0922 22:33:56.389528 30487 net.cpp:148] Top shape: 10 1000 (10000)
I0922 22:33:56.389538 30487 net.cpp:156] Memory required for data: 68641400
I0922 22:33:56.389559 30487 layer_factory.hpp:77] Creating layer prob
I0922 22:33:56.389593 30487 net.cpp:91] Creating Layer prob
I0922 22:33:56.389605 30487 net.cpp:425] prob <- fc8
I0922 22:33:56.389626 30487 net.cpp:399] prob -> prob
I0922 22:33:56.390241 30487 net.cpp:141] Setting up prob
I0922 22:33:56.390261 30487 net.cpp:148] Top shape: 10 1000 (10000)
I0922 22:33:56.390270 30487 net.cpp:156] Memory required for data: 68681400
I0922 22:33:56.390280 30487 net.cpp:219] prob does not need backward computation.
I0922 22:33:56.390291 30487 net.cpp:219] fc8 does not need backward computation.
I0922 22:33:56.390300 30487 net.cpp:219] drop7 does not need backward computation.
I0922 22:33:56.390310 30487 net.cpp:219] relu7 does not need backward computation.
…
I0922 22:33:56.390460 30487 net.cpp:219] norm1 does not need backward computation.
I0922 22:33:56.390470 30487 net.cpp:219] pool1 does not need backward computation.
I0922 22:33:56.390478 30487 net.cpp:219] relu1 does not need backward computation.
I0922 22:33:56.390488 30487 net.cpp:219] conv1 does not need backward computation.
I0922 22:33:56.390497 30487 net.cpp:219] data does not need backward computation.
I0922 22:33:56.390506 30487 net.cpp:261] This network produces output prob
I0922 22:33:56.390540 30487 net.cpp:274] Network initialization done.
I0922 22:33:56.421955 30489 net.cpp:141] Setting up lstm2_transform_1
I0922 22:33:56.422006 30489 net.cpp:148] Top shape: 1 1 4000 (4000)
I0922 22:33:56.422015 30489 net.cpp:156] Memory required for data: 66020
I0922 22:33:56.422044 30489 layer_factory.hpp:77] Creating layer lstm2_gate_input_1
I0922 22:33:56.422071 30489 net.cpp:91] Creating Layer lstm2_gate_input_1
I0922 22:33:56.422083 30489 net.cpp:425] lstm2_gate_input_1 <- W_hc_h_0
I0922 22:33:56.422094 30489 net.cpp:425] lstm2_gate_input_1 <- W_xc_x_1
I0922 22:33:56.422111 30489 net.cpp:399] lstm2_gate_input_1 -> gate_input_1
I0922 22:33:56.422183 30489 net.cpp:141] Setting up lstm2_gate_input_1
I0922 22:33:56.422200 30489 net.cpp:148] Top shape: 1 1 4000 (4000)
I0922 22:33:56.422207 30489 net.cpp:156] Memory required for data: 82020
I0922 22:33:56.422215 30489 layer_factory.hpp:77] Creating layer lstm2_unit_1
I0922 22:33:56.422229 30489 net.cpp:91] Creating Layer lstm2_unit_1
I0922 22:33:56.422236 30489 net.cpp:425] lstm2_unit_1 <- c_0
I0922 22:33:56.422245 30489 net.cpp:425] lstm2_unit_1 <- gate_input_1
I0922 22:33:56.422255 30489 net.cpp:425] lstm2_unit_1 <- cont_1_lstm2_cont_slice_0_split_1
I0922 22:33:56.422266 30489 net.cpp:399] lstm2_unit_1 -> c_1
I0922 22:33:56.422279 30489 net.cpp:399] lstm2_unit_1 -> h_1
I0922 22:33:56.422408 30489 net.cpp:141] Setting up lstm2_unit_1
I0922 22:33:56.422423 30489 net.cpp:148] Top shape: 1 1 1000 (1000)
I0922 22:33:56.422435 30489 net.cpp:148] Top shape: 1 1 1000 (1000)
I0922 22:33:56.422441 30489 net.cpp:156] Memory required for data: 90020
I0922 22:33:56.422449 30489 layer_factory.hpp:77] Creating layer lstm2_
I0922 22:33:56.422463 30489 net.cpp:91] Creating Layer lstm2_
I0922 22:33:56.422472 30489 net.cpp:425] lstm2_ <- c_1
I0922 22:33:56.422482 30489 net.cpp:399] lstm2_ -> c_T
I0922 22:33:56.422530 30489 net.cpp:141] Setting up lstm2_
I0922 22:33:56.422544 30489 net.cpp:148] Top shape: 1 1 1000 (1000)
I0922 22:33:56.422552 30489 net.cpp:156] Memory required for data: 94020
I0922 22:33:56.422559 30489 layer_factory.hpp:77] Creating layer lstm2_h_concat
I0922 22:33:56.422577 30489 net.cpp:91] Creating Layer lstm2_h_concat
I0922 22:33:56.422585 30489 net.cpp:425] lstm2_h_concat <- h_1
I0922 22:33:56.422596 30489 net.cpp:399] lstm2_h_concat -> h
I0922 22:33:56.422652 30489 net.cpp:141] Setting up lstm2_h_concat
I0922 22:33:56.422664 30489 net.cpp:148] Top shape: 1 1 1000 (1000)
I0922 22:33:56.422672 30489 net.cpp:156] Memory required for data: 98020
I0922 22:33:56.422679 30489 layer_factory.hpp:77] Creating layer h_pseudoloss
I0922 22:33:56.422693 30489 net.cpp:91] Creating Layer h_pseudoloss
I0922 22:33:56.422701 30489 net.cpp:425] h_pseudoloss <- h
I0922 22:33:56.422715 30489 net.cpp:399] h_pseudoloss -> h_pseudoloss
I0922 22:33:56.422848 30489 net.cpp:141] Setting up h_pseudoloss
…
I0922 22:33:56.423002 30489 net.cpp:219] lstm2_ does not need backward computation.
I0922 22:33:56.423010 30489 net.cpp:261] This network produces output c_T
I0922 22:33:56.423033 30489 net.cpp:261] This network produces output h_pseudoloss
I0922 22:33:56.423063 30489 net.cpp:274] Network initialization done.
I0922 22:33:56.423135 30489 recurrent_layer.cpp:150] Adding parameter 0: W_xc
I0922 22:33:56.423144 30489 recurrent_layer.cpp:150] Adding parameter 1: b_c
I0922 22:33:56.423151 30489 recurrent_layer.cpp:150] Adding parameter 2: W_hc
I0922 22:33:56.423308 30489 net.cpp:141] Setting up lstm2
I0922 22:33:56.423324 30489 net.cpp:148] Top shape: 1 1 1000 (1000)
I0922 22:33:56.423331 30489 net.cpp:156] Memory required for data: 36412
I0922 22:33:56.423353 30489 layer_factory.hpp:77] Creating layer predict
I0922 22:33:56.423372 30489 net.cpp:91] Creating Layer predict
I0922 22:33:56.423382 30489 net.cpp:425] predict <- lstm2
I0922 22:33:56.423396 30489 net.cpp:399] predict -> predict
I0922 22:33:56.614730 30487 upgrade_proto.cpp:43] Attempting to upgrade input file specified using deprecated transformation parameters: /home/peifeng/work/run/storm102/data/workers/38daf705-5602-4a5d-9dd5-f9ad2e3ce8be/tmp/cvld6265989350947366113/bvlc_reference_caffenet.caffemodel
I0922 22:33:56.614773 30487 upgrade_proto.cpp:46] Successfully upgraded file specified using deprecated data transformation parameters.
W0922 22:33:56.614780 30487 upgrade_proto.cpp:48] Note that future Caffe releases will only support transform_param messages for transformation fields.
I0922 22:33:56.614786 30487 upgrade_proto.cpp:52] Attempting to upgrade input file specified using deprecated V1LayerParameter: /home/peifeng/work/run/storm102/data/workers/38daf705-5602-4a5d-9dd5-f9ad2e3ce8be/tmp/cvld6265989350947366113/bvlc_reference_caffenet.caffemodel
I0922 22:33:56.627454 30509 net.cpp:141] Setting up predict
I0922 22:33:56.627498 30509 net.cpp:148] Top shape: 1 1 46168 (46168)
I0922 22:33:56.627504 30509 net.cpp:156] Memory required for data: 221084
I0922 22:33:56.627518 30509 layer_factory.hpp:77] Creating layer probs
I0922 22:33:56.627537 30509 net.cpp:91] Creating Layer probs
I0922 22:33:56.627545 30509 net.cpp:425] probs <- predict
I0922 22:33:56.627555 30509 net.cpp:399] probs -> probs
I0922 22:33:56.628295 30509 net.cpp:141] Setting up probs
I0922 22:33:56.628309 30509 net.cpp:148] Top shape: 1 1 46168 (46168)
I0922 22:33:56.628314 30509 net.cpp:156] Memory required for data: 405756
I0922 22:33:56.628319 30509 net.cpp:219] probs does not need backward computation.
I0922 22:33:56.628324 30509 net.cpp:219] predict does not need backward computation.
I0922 22:33:56.628329 30509 net.cpp:219] lstm2 does not need backward computation.
I0922 22:33:56.628335 30509 net.cpp:219] concat does not need backward computation.
I0922 22:33:56.628341 30509 net.cpp:219] lstm1 does not need backward computation.
I0922 22:33:56.628348 30509 net.cpp:219] embedding does not need backward computation.
I0922 22:33:56.628353 30509 net.cpp:219] reshape_stage_indicator does not need backward computation.
I0922 22:33:56.628360 30509 net.cpp:219] reshape_frames does not need backward computation.
I0922 22:33:56.628363 30509 net.cpp:219] embed_encoder does not need backward computation.
I0922 22:33:56.628370 30509 net.cpp:219] cont_sentence_input_1_split does not need backward computation.
I0922 22:33:56.628374 30509 net.cpp:219] input does not need backward computation.
I0922 22:33:56.628379 30509 net.cpp:261] This network produces output probs
I0922 22:33:56.628396 30509 net.cpp:274] Network initialization done.
I0922 22:33:56.768987 30493 net.cpp:141] Setting up predict
I0922 22:33:56.769042 30493 net.cpp:148] Top shape: 1 1 46168 (46168)
I0922 22:33:56.769049 30493 net.cpp:156] Memory required for data: 221084
I0922 22:33:56.769064 30493 layer_factory.hpp:77] Creating layer probs
I0922 22:33:56.769083 30493 net.cpp:91] Creating Layer probs
I0922 22:33:56.769091 30493 net.cpp:425] probs <- predict
I0922 22:33:56.769103 30493 net.cpp:399] probs -> probs
I0922 22:33:56.769654 30493 net.cpp:141] Setting up probs
I0922 22:33:56.769668 30493 net.cpp:148] Top shape: 1 1 46168 (46168)
I0922 22:33:56.769673 30493 net.cpp:156] Memory required for data: 405756
I0922 22:33:56.769680 30493 net.cpp:219] probs does not need backward computation.
I0922 22:33:56.769685 30493 net.cpp:219] predict does not need backward computation.
I0922 22:33:56.769690 30493 net.cpp:219] lstm2 does not need backward computation.
I0922 22:33:56.769696 30493 net.cpp:219] concat does not need backward computation.
I0922 22:33:56.769703 30493 net.cpp:219] lstm1 does not need backward computation.
I0922 22:33:56.769711 30493 net.cpp:219] embedding does not need backward computation.
I0922 22:33:56.769717 30493 net.cpp:219] reshape_stage_indicator does not need backward computation.
I0922 22:33:56.769723 30493 net.cpp:219] reshape_frames does not need backward computation.
I0922 22:33:56.769728 30493 net.cpp:219] embed_encoder does not need backward computation.
I0922 22:33:56.769733 30493 net.cpp:219] cont_sentence_input_1_split does not need backward computation.
I0922 22:33:56.769739 30493 net.cpp:219] input does not need backward computation.
I0922 22:33:56.769744 30493 net.cpp:261] This network produces output probs
I0922 22:33:56.769764 30493 net.cpp:274] Network initialization done.
I0922 22:33:56.890645 30489 net.cpp:141] Setting up predict
I0922 22:33:56.890699 30489 net.cpp:148] Top shape: 1 1 46168 (46168)
I0922 22:33:56.890705 30489 net.cpp:156] Memory required for data: 221084
I0922 22:33:56.890722 30489 layer_factory.hpp:77] Creating layer probs
I0922 22:33:56.890743 30489 net.cpp:91] Creating Layer probs
I0922 22:33:56.890749 30489 net.cpp:425] probs <- predict
I0922 22:33:56.890760 30489 net.cpp:399] probs -> probs
I0922 22:33:56.891481 30489 net.cpp:141] Setting up probs
I0922 22:33:56.891500 30489 net.cpp:148] Top shape: 1 1 46168 (46168)
I0922 22:33:56.891505 30489 net.cpp:156] Memory required for data: 405756
I0922 22:33:56.891511 30489 net.cpp:219] probs does not need backward computation.
I0922 22:33:56.891517 30489 net.cpp:219] predict does not need backward computation.
I0922 22:33:56.891522 30489 net.cpp:219] lstm2 does not need backward computation.
I0922 22:33:56.891528 30489 net.cpp:219] concat does not need backward computation.
…
