…
W0925 22:37:29.120776  4522 upgrade_proto.cpp:71] Note that future Caffe releases will only support input layers and not input fields.
I0925 22:37:29.120992  4542 net.cpp:49] Initializing net from parameters: 
name: "s2vt:features_to_lstm"
state {
  phase: TEST
}
layer {
  name: "input"
  type: "Input"
  top: "frames_fc7"
  top: "cont_sentence"
  top: "input_sentence"
  top: "stage_indicator"
  input_param {
    shape {
      dim: 1
      dim: 4096
    }
    shape {
      dim: 1
      dim: 1
    }
    shape {
      dim: 1
      dim: 1
    }
    shape {
      dim: 1
      dim: 1
    }
  }
}
layer {
  name: "embed_encoder"
  type: "InnerProduct"
  bottom: "frames_fc7"
  top: "embedded_in_frames"
  param {
    lr_mult: 1
    decay_mult: 1
  }
  param {
    lr_mult: 2
    decay_mult: 0
  }
  inner_product_param {
    num_output: 500
    weight_filler {
      type: "xavier"
    }
    bias_filler {
      type: "constant"
      value: 0.2
    }
  }
}
layer {
  name: "reshape_frames"
  type: "Reshape"
  bottom: "embedded_in_frames"
  top: "embedded_input_frames"
  reshape_param {
    shape {
      dim: 1
      dim: 1
      dim: 500
    }
  }
}
layer {
  name: "reshape_stage_indicator"
  type: "Reshape"
  bottom: "stage_indicator"
  top: "reshaped_stage_indicator"
  reshape_param {
    shape {
      dim: 1
      dim: 1
      dim: 1
    }
  }
}
layer {
  name: "embedding"
  type: "Embed"
  bottom: "input_sentence"
  top: "embedded_input_sentence"
  param {
    lr_mult: 1
  }
  embed_param {
    num_output: 500
    input_dim: 46168
    bias_term: false
    weight_filler {
      type: "uniform"
      min: -0.08
      max: 0.08
    }
  }
}
layer {
  name: "lstm1"
  type: "LSTM"
  bottom: "embedded_input_frames"
  bottom: "cont_sentence"
  top: "lstm1"
  recurrent_param {
    num_output: 1000
    weight_filler {
      type: "uniform"
      min: -0.08
      max: 0.08
    }
    bias_filler {
      type: "constant"
      value: 0
    }
  }
}
layer {
  name: "concat"
  type: "Concat"
  bottom: "lstm1"
  bottom: "embedded_input_sentence"
  bottom: "reshaped_stage_indicator"
  top: "lstm1_video_sequence"
  concat_param {
    concat_dim: 2
  }
}
layer {
  name: "lstm2"
  type: "LSTM"
  bottom: "lstm1_video_sequence"
  bottom: "cont_sentence"
  top: "lstm2"
  recurrent_param {
    num_output: 1000
    weight_filler {
      type: "uniform"
      min: -0.08
      max: 0.08
    }
    bias_filler {
      type: "constant"
      value: 0
    }
  }
}
layer {
  name: "predict"
  type: "InnerProduct"
  bottom: "lstm2"
  top: "predict"
  param {
    lr_mult: 1
    decay_mult: 1
  }
  param {
    lr_mult: 2
    decay_mult: 0
  }
  inner_product_param {
    num_output: 46168
    weight_filler {
      type: "uniform"
      min: -0.08
      max: 0.08
    }
    bias_filler {
      type: "constant"
      value: 0
    }
    axis: 2
  }
}
layer {
  name: "probs"
  type: "Softmax"
  bottom: "predict"
  top: "probs"
  softmax_param {
    axis: 2
  }
}
I0925 22:37:29.121085  4504 net.cpp:49] Initializing net from parameters: 
name: "s2vt:features_to_lstm"
state {
  phase: TEST
}
layer {
  name: "input"
  type: "Input"
  top: "frames_fc7"
  top: "cont_sentence"
  top: "input_sentence"
  top: "stage_indicator"
  input_param {
    shape {
      dim: 1
      dim: 4096
    }
    shape {
      dim: 1
      dim: 1
    }
    shape {
      dim: 1
      dim: 1
    }
    shape {
      dim: 1
      dim: 1
    }
  }
}
layer {
  name: "embed_encoder"
  type: "InnerProduct"
  bottom: "frames_fc7"
  top: "embedded_in_frames"
  param {
    lr_mult: 1
    decay_mult: 1
  }
  param {
    lr_mult: 2
    decay_mult: 0
  }
  inner_product_param {
    num_output: 500
    weight_filler {
      type: "xavier"
    }
    bias_filler {
      type: "constant"
      value: 0.2
    }
  }
}
layer {
  name: "reshape_frames"
  type: "Reshape"
  bottom: "embedded_in_frames"
  top: "embedded_input_frames"
  reshape_param {
    shape {
      dim: 1
      dim: 1
      dim: 500
    }
  }
}
layer {
  name: "reshape_stage_indicator"
  type: "Reshape"
  bottom: "stage_indicator"
  top: "reshaped_stage_indicator"
  reshape_param {
    shape {
      dim: 1
      dim: 1
      dim: 1
    }
  }
}
layer {
  name: "embedding"
  type: "Embed"
  bottom: "input_sentence"
  top: "embedded_input_sentence"
  param {
    lr_mult: 1
  }
  embed_param {
    num_output: 500
    input_dim: 46168
    bias_term: false
    weight_filler {
      type: "uniform"
      min: -0.08
      max: 0.08
    }
  }
}
layer {
  name: "lstm1"
  type: "LSTM"
  bottom: "embedded_input_frames"
  bottom: "cont_sentence"
  top: "lstm1"
  recurrent_param {
    num_output: 1000
    weight_filler {
      type: "uniform"
      min: -0.08
      max: 0.08
    }
    bias_filler {
      type: "constant"
      value: 0
    }
  }
}
layer {
  name: "concat"
  type: "Concat"
  bottom: "lstm1"
  bottom: "embedded_input_sentence"
  bottom: "reshaped_stage_indicator"
  top: "lstm1_video_sequence"
  concat_param {
    concat_dim: 2
  }
}
layer {
  name: "lstm2"
  type: "LSTM"
  bottom: "lstm1_video_sequence"
  bottom: "cont_sentence"
  top: "lstm2"
  recurrent_param {
    num_output: 1000
    weight_filler {
      type: "uniform"
      min: -0.08
      max: 0.08
    }
    bias_filler {
      type: "constant"
      value: 0
    }
  }
}
layer {
  name: "predict"
  type: "InnerProduct"
  bottom: "lstm2"
  top: "predict"
  param {
    lr_mult: 1
    decay_mult: 1
  }
  param {
    lr_mult: 2
    decay_mult: 0
  }
  inner_product_param {
    num_output: 46168
    weight_filler {
      type: "uniform"
      min: -0.08
      max: 0.08
    }
    bias_filler {
      type: "constant"
      value: 0
    }
    axis: 2
  }
}
layer {
  name: "probs"
  type: "Softmax"
  bottom: "predict"
  top: "probs"
  softmax_param {
    axis: 2
  }
}
I0925 22:37:29.121134  4514 net.cpp:49] Initializing net from parameters: 
name: "s2vt:features_to_lstm"
state {
  phase: TEST
}
layer {
  name: "input"
  type: "Input"
  top: "frames_fc7"
  top: "cont_sentence"
  top: "input_sentence"
  top: "stage_indicator"
  input_param {
    shape {
      dim: 1
      dim: 4096
    }
    shape {
      dim: 1
      dim: 1
    }
    shape {
      dim: 1
      dim: 1
    }
    shape {
      dim: 1
      dim: 1
    }
  }
}
layer {
  name: "embed_encoder"
  type: "InnerProduct"
  bottom: "frames_fc7"
  top: "embedded_in_frames"
  param {
    lr_mult: 1
    decay_mult: 1
  }
  param {
    lr_mult: 2
    decay_mult: 0
  }
  inner_product_param {
    num_output: 500
    weight_filler {
      type: "xavier"
    }
    bias_filler {
      type: "constant"
      value: 0.2
    }
  }
}
layer {
  name: "reshape_frames"
  type: "Reshape"
  bottom: "embedded_in_frames"
  top: "embedded_input_frames"
  reshape_param {
    shape {
      dim: 1
      dim: 1
      dim: 500
    }
  }
}
layer {
  name: "reshape_stage_indicator"
  type: "Reshape"
  bottom: "stage_indicator"
  top: "reshaped_stage_indicator"
  reshape_param {
    shape {
      dim: 1
      dim: 1
      dim: 1
    }
  }
}
layer {
  name: "embedding"
  type: "Embed"
  bottom: "input_sentence"
  top: "embedded_input_sentence"
  param {
    lr_mult: 1
  }
  embed_param {
    num_output: 500
    input_dim: 46168
    bias_term: false
    weight_filler {
      type: "uniform"
      min: -0.08
      max: 0.08
    }
  }
}
layer {
  name: "lstm1"
  type: "LSTM"
  bottom: "embedded_input_frames"
  bottom: "cont_sentence"
  top: "lstm1"
  recurrent_param {
    num_output: 1000
    weight_filler {
      type: "uniform"
      min: -0.08
      max: 0.08
    }
    bias_filler {
      type: "constant"
      value: 0
    }
  }
}
layer {
  name: "concat"
  type: "Concat"
  bottom: "lstm1"
  bottom: "embedded_input_sentence"
  bottom: "reshaped_stage_indicator"
  top: "lstm1_video_sequence"
  concat_param {
    concat_dim: 2
  }
}
layer {
  name: "lstm2"
  type: "LSTM"
  bottom: "lstm1_video_sequence"
  bottom: "cont_sentence"
  top: "lstm2"
  recurrent_param {
    num_output: 1000
    weight_filler {
      type: "uniform"
      min: -0.08
      max: 0.08
    }
    bias_filler {
      type: "constant"
      value: 0
    }
  }
}
layer {
  name: "predict"
  type: "InnerProduct"
  bottom: "lstm2"
  top: "predict"
  param {
    lr_mult: 1
    decay_mult: 1
  }
  param {
    lr_mult: 2
    decay_mult: 0
  }
  inner_product_param {
    num_output: 46168
    weight_filler {
      type: "uniform"
      min: -0.08
      max: 0.08
    }
    bias_filler {
      type: "constant"
      value: 0
    }
    axis: 2
  }
}
layer {
  name: "probs"
  type: "Softmax"
  bottom: "predict"
  top: "probs"
  softmax_param {
    axis: 2
  }
}
I0925 22:37:29.121131  4510 net.cpp:49] Initializing net from parameters: 
name: "s2vt:features_to_lstm"
state {
  phase: TEST
}
layer {
  name: "input"
  type: "Input"
  top: "frames_fc7"
  top: "cont_sentence"
  top: "input_sentence"
  top: "stage_indicator"
  input_param {
    shape {
      dim: 1
      dim: 4096
    }
    shape {
      dim: 1
      dim: 1
    }
    shape {
      dim: 1
      dim: 1
    }
    shape {
      dim: 1
      dim: 1
    }
  }
}
layer {
  name: "embed_encoder"
  type: "InnerProduct"
  bottom: "frames_fc7"
  top: "embedded_in_frames"
  param {
    lr_mult: 1
    decay_mult: 1
  }
  param {
    lr_mult: 2
    decay_mult: 0
  }
  inner_product_param {
    num_output: 500
    weight_filler {
      type: "xavier"
    }
    bias_filler {
      type: "constant"
      value: 0.2
    }
  }
}
layer {
  name: "reshape_frames"
  type: "Reshape"
  bottom: "embedded_in_frames"
  top: "embedded_input_frames"
  reshape_param {
    shape {
      dim: 1
      dim: 1
      dim: 500
    }
  }
}
layer {
  name: "reshape_stage_indicator"
  type: "Reshape"
  bottom: "stage_indicator"
  top: "reshaped_stage_indicator"
  reshape_param {
    shape {
      dim: 1
      dim: 1
      dim: 1
    }
  }
}
layer {
  name: "embedding"
  type: "Embed"
  bottom: "input_sentence"
  top: "embedded_input_sentence"
  param {
    lr_mult: 1
  }
  embed_param {
    num_output: 500
    input_dim: 46168
    bias_term: false
    weight_filler {
      type: "uniform"
      min: -0.08
      max: 0.08
    }
  }
}
layer {
  name: "lstm1"
  type: "LSTM"
  bottom: "embedded_input_frames"
  bottom: "cont_sentence"
  top: "lstm1"
  recurrent_param {
    num_output: 1000
    weight_filler {
      type: "uniform"
      min: -0.08
      max: 0.08
    }
    bias_filler {
      type: "constant"
      value: 0
    }
  }
}
layer {
  name: "concat"
  type: "Concat"
  bottom: "lstm1"
  bottom: "embedded_input_sentence"
  bottom: "reshaped_stage_indicator"
  top: "lstm1_video_sequence"
  concat_param {
    concat_dim: 2
  }
}
layer {
  name: "lstm2"
  type: "LSTM"
  bottom: "lstm1_video_sequence"
  bottom: "cont_sentence"
  top: "lstm2"
  recurrent_param {
    num_output: 1000
    weight_filler {
      type: "uniform"
      min: -0.08
      max: 0.08
    }
    bias_filler {
      type: "constant"
      value: 0
    }
  }
}
layer {
  name: "predict"
  type: "InnerProduct"
  bottom: "lstm2"
  top: "predict"
  param {
    lr_mult: 1
    decay_mult: 1
  }
  param {
    lr_mult: 2
    decay_mult: 0
  }
  inner_product_param {
    num_output: 46168
    weight_filler {
      type: "uniform"
      min: -0.08
      max: 0.08
    }
    bias_filler {
      type: "constant"
      value: 0
    }
    axis: 2
  }
}
layer {
  name: "probs"
  type: "Softmax"
  bottom: "predict"
  top: "probs"
  softmax_param {
    axis: 2
  }
}
I0925 22:37:29.121131  4522 net.cpp:49] Initializing net from parameters: 
name: "s2vt:features_to_lstm"
state {
  phase: TEST
}
layer {
  name: "input"
  type: "Input"
  top: "frames_fc7"
  top: "cont_sentence"
  top: "input_sentence"
  top: "stage_indicator"
  input_param {
    shape {
      dim: 1
      dim: 4096
    }
    shape {
      dim: 1
      dim: 1
    }
    shape {
      dim: 1
      dim: 1
    }
    shape {
      dim: 1
      dim: 1
    }
  }
}
layer {
  name: "embed_encoder"
  type: "InnerProduct"
  bottom: "frames_fc7"
  top: "embedded_in_frames"
  param {
    lr_mult: 1
    decay_mult: 1
  }
  param {
    lr_mult: 2
    decay_mult: 0
  }
  inner_product_param {
    num_output: 500
    weight_filler {
      type: "xavier"
    }
    bias_filler {
      type: "constant"
      value: 0.2
    }
  }
}
layer {
  name: "reshape_frames"
  type: "Reshape"
  bottom: "embedded_in_frames"
  top: "embedded_input_frames"
  reshape_param {
    shape {
      dim: 1
      dim: 1
      dim: 500
    }
  }
}
layer {
  name: "reshape_stage_indicator"
  type: "Reshape"
  bottom: "stage_indicator"
  top: "reshaped_stage_indicator"
  reshape_param {
    shape {
      dim: 1
      dim: 1
      dim: 1
    }
  }
}
layer {
  name: "embedding"
  type: "Embed"
  bottom: "input_sentence"
  top: "embedded_input_sentence"
  param {
    lr_mult: 1
  }
  embed_param {
    num_output: 500
    input_dim: 46168
    bias_term: false
    weight_filler {
      type: "uniform"
      min: -0.08
      max: 0.08
    }
  }
}
layer {
  name: "lstm1"
  type: "LSTM"
  bottom: "embedded_input_frames"
  bottom: "cont_sentence"
  top: "lstm1"
  recurrent_param {
    num_output: 1000
    weight_filler {
      type: "uniform"
      min: -0.08
      max: 0.08
    }
    bias_filler {
      type: "constant"
      value: 0
    }
  }
}
layer {
  name: "concat"
  type: "Concat"
  bottom: "lstm1"
  bottom: "embedded_input_sentence"
  bottom: "reshaped_stage_indicator"
  top: "lstm1_video_sequence"
  concat_param {
    concat_dim: 2
  }
}
layer {
  name: "lstm2"
  type: "LSTM"
  bottom: "lstm1_video_sequence"
  bottom: "cont_sentence"
  top: "lstm2"
  recurrent_param {
    num_output: 1000
    weight_filler {
      type: "uniform"
      min: -0.08
      max: 0.08
    }
    bias_filler {
      type: "constant"
      value: 0
    }
  }
}
layer {
  name: "predict"
  type: "InnerProduct"
  bottom: "lstm2"
  top: "predict"
  param {
    lr_mult: 1
    decay_mult: 1
  }
  param {
    lr_mult: 2
    decay_mult: 0
  }
  inner_product_param {
    num_output: 46168
    weight_filler {
      type: "uniform"
      min: -0.08
      max: 0.08
    }
    bias_filler {
      type: "constant"
      value: 0
    }
    axis: 2
  }
}
layer {
  name: "probs"
  type: "Softmax"
  bottom: "predict"
  top: "probs"
  softmax_param {
    axis: 2
  }
}
I0925 22:37:29.121160  4542 layer_factory.hpp:77] Creating layer input
I0925 22:37:29.121196  4542 net.cpp:91] Creating Layer input
I0925 22:37:29.121189  4548 net.cpp:49] Initializing net from parameters: 
name: "s2vt:features_to_lstm"
state {
  phase: TEST
}
layer {
  name: "input"
  type: "Input"
  top: "frames_fc7"
  top: "cont_sentence"
  top: "input_sentence"
  top: "stage_indicator"
  input_param {
    shape {
      dim: 1
      dim: 4096
    }
    shape {
      dim: 1
      dim: 1
    }
    shape {
      dim: 1
      dim: 1
    }
    shape {
      dim: 1
      dim: 1
    }
  }
}
layer {
  name: "embed_encoder"
  type: "InnerProduct"
  bottom: "frames_fc7"
  top: "embedded_in_frames"
  param {
    lr_mult: 1
    decay_mult: 1
  }
  param {
    lr_mult: 2
    decay_mult: 0
  }
  inner_product_param {
    num_output: 500
    weight_filler {
      type: "xavier"
    }
    bias_filler {
      type: "constant"
      value: 0.2
    }
  }
}
layer {
  name: "reshape_frames"
  type: "Reshape"
  bottom: "embedded_in_frames"
  top: "embedded_input_frames"
  reshape_param {
    shape {
      dim: 1
      dim: 1
      dim: 500
    }
  }
}
layer {
  name: "reshape_stage_indicator"
  type: "Reshape"
  bottom: "stage_indicator"
  top: "reshaped_stage_indicator"
  reshape_param {
    shape {
      dim: 1
      dim: 1
      dim: 1
    }
  }
}
layer {
  name: "embedding"
  type: "Embed"
  bottom: "input_sentence"
  top: "embedded_input_sentence"
  param {
    lr_mult: 1
  }
  embed_param {
    num_output: 500
    input_dim: 46168
    bias_term: false
    weight_filler {
      type: "uniform"
      min: -0.08
      max: 0.08
    }
  }
}
layer {
  name: "lstm1"
  type: "LSTM"
  bottom: "embedded_input_frames"
  bottom: "cont_sentence"
  top: "lstm1"
  recurrent_param {
    num_output: 1000
    weight_filler {
      type: "uniform"
      min: -0.08
      max: 0.08
    }
    bias_filler {
      type: "constant"
      value: 0
    }
  }
}
layer {
  name: "concat"
  type: "Concat"
  bottom: "lstm1"
  bottom: "embedded_input_sentence"
  bottom: "reshaped_stage_indicator"
  top: "lstm1_video_sequence"
  concat_param {
    concat_dim: 2
  }
}
layer {
  name: "lstm2"
  type: "LSTM"
  bottom: "lstm1_video_sequence"
  bottom: "cont_sentence"
  top: "lstm2"
  recurrent_param {
    num_output: 1000
    weight_filler {
      type: "uniform"
      min: -0.08
      max: 0.08
    }
    bias_filler {
      type: "constant"
      value: 0
    }
  }
}
layer {
  name: "predict"
  type: "InnerProduct"
  bottom: "lstm2"
  top: "predict"
  param {
    lr_mult: 1
    decay_mult: 1
  }
  param {
    lr_mult: 2
    decay_mult: 0
  }
  inner_product_param {
    num_output: 46168
    weight_filler {
      type: "uniform"
      min: -0.08
      max: 0.08
    }
    bias_filler {
      type: "constant"
      value: 0
    }
    axis: 2
  }
}
layer {
  name: "probs"
  type: "Softmax"
  bottom: "predict"
  top: "probs"
  softmax_param {
    axis: 2
  }
}
I0925 22:37:29.121209  4542 net.cpp:399] input -> frames_fc7
I0925 22:37:29.121189  4508 net.cpp:49] Initializing net from parameters: 
name: "s2vt:features_to_lstm"
state {
  phase: TEST
}
layer {
  name: "input"
  type: "Input"
  top: "frames_fc7"
  top: "cont_sentence"
  top: "input_sentence"
  top: "stage_indicator"
  input_param {
    shape {
      dim: 1
      dim: 4096
    }
    shape {
      dim: 1
      dim: 1
    }
    shape {
      dim: 1
      dim: 1
    }
    shape {
      dim: 1
      dim: 1
    }
  }
}
layer {
  name: "embed_encoder"
  type: "InnerProduct"
  bottom: "frames_fc7"
  top: "embedded_in_frames"
  param {
    lr_mult: 1
    decay_mult: 1
  }
  param {
    lr_mult: 2
    decay_mult: 0
  }
  inner_product_param {
    num_output: 500
    weight_filler {
      type: "xavier"
    }
    bias_filler {
      type: "constant"
      value: 0.2
    }
  }
}
layer {
  name: "reshape_frames"
  type: "Reshape"
  bottom: "embedded_in_frames"
  top: "embedded_input_frames"
  reshape_param {
    shape {
      dim: 1
      dim: 1
      dim: 500
    }
  }
}
layer {
  name: "reshape_stage_indicator"
  type: "Reshape"
  bottom: "stage_indicator"
  top: "reshaped_stage_indicator"
  reshape_param {
    shape {
      dim: 1
      dim: 1
      dim: 1
    }
  }
}
layer {
  name: "embedding"
  type: "Embed"
  bottom: "input_sentence"
  top: "embedded_input_sentence"
  param {
    lr_mult: 1
  }
  embed_param {
    num_output: 500
    input_dim: 46168
    bias_term: false
    weight_filler {
      type: "uniform"
      min: -0.08
      max: 0.08
    }
  }
}
layer {
  name: "lstm1"
  type: "LSTM"
  bottom: "embedded_input_frames"
  bottom: "cont_sentence"
  top: "lstm1"
  recurrent_param {
    num_output: 1000
    weight_filler {
      type: "uniform"
      min: -0.08
      max: 0.08
    }
    bias_filler {
      type: "constant"
      value: 0
    }
  }
}
layer {
  name: "concat"
  type: "Concat"
  bottom: "lstm1"
  bottom: "embedded_input_sentence"
  bottom: "reshaped_stage_indicator"
  top: "lstm1_video_sequence"
  concat_param {
    concat_dim: 2
  }
}
layer {
  name: "lstm2"
  type: "LSTM"
  bottom: "lstm1_video_sequence"
  bottom: "cont_sentence"
  top: "lstm2"
  recurrent_param {
    num_output: 1000
    weight_filler {
      type: "uniform"
      min: -0.08
      max: 0.08
    }
    bias_filler {
      type: "constant"
      value: 0
    }
  }
}
layer {
  name: "predict"
  type: "InnerProduct"
  bottom: "lstm2"
  top: "predict"
  param {
    lr_mult: 1
    decay_mult: 1
  }
  param {
    lr_mult: 2
    decay_mult: 0
  }
  inner_product_param {
    num_output: 46168
    weight_filler {
      type: "uniform"
      min: -0.08
      max: 0.08
    }
    bias_filler {
      type: "constant"
      value: 0
    }
    axis: 2
  }
}
layer {
  name: "probs"
  type: "Softmax"
  bottom: "predict"
  top: "probs"
  softmax_param {
    axis: 2
  }
}
I0925 22:37:29.121230  4504 layer_factory.hpp:77] Creating layer input
I0925 22:37:29.121212  4516 net.cpp:49] Initializing net from parameters: 
name: "CaffeNet"
state {
  phase: TEST
}
layer {
  name: "data"
  type: "Input"
  top: "data"
  input_param {
    shape {
      dim: 10
      dim: 3
      dim: 227
      dim: 227
    }
  }
}
layer {
  name: "conv1"
  type: "Convolution"
  bottom: "data"
  top: "conv1"
  convolution_param {
    num_output: 96
    kernel_size: 11
    stride: 4
  }
}
layer {
  name: "relu1"
  type: "ReLU"
  bottom: "conv1"
  top: "conv1"
}
layer {
  name: "pool1"
  type: "Pooling"
  bottom: "conv1"
  top: "pool1"
  pooling_param {
    pool: MAX
    kernel_size: 3
    stride: 2
  }
}
layer {
  name: "norm1"
  type: "LRN"
  bottom: "pool1"
  top: "norm1"
  lrn_param {
    local_size: 5
    alpha: 0.0001
    beta: 0.75
  }
}
layer {
  name: "conv2"
  type: "Convolution"
  bottom: "norm1"
  top: "conv2"
  convolution_param {
    num_output: 256
    pad: 2
    kernel_size: 5
    group: 2
  }
}
layer {
  name: "relu2"
  type: "ReLU"
  bottom: "conv2"
  top: "conv2"
}
layer {
  name: "pool2"
  type: "Pooling"
  bottom: "conv2"
  top: "pool2"
  pooling_param {
    pool: MAX
    kernel_size: 3
    stride: 2
  }
}
layer {
  name: "norm2"
  type: "LRN"
  bottom: "pool2"
  top: "norm2"
  lrn_param {
    local_size: 5
    alpha: 0.0001
    beta: 0.75
  }
}
layer {
  name: "conv3"
  type: "Convolution"
  bottom: "norm2"
  top: "conv3"
  convolution_param {
    num_output: 384
    pad: 1
    kernel_size: 3
  }
}
layer {
  name: "relu3"
  type: "ReLU"
  bottom: "conv3"
  top: "conv3"
}
layer {
  name: "conv4"
  type: "Convolution"
  bottom: "conv3"
  top: "conv4"
  convolution_param {
    num_output: 384
    pad: 1
    kernel_size: 3
    group: 2
  }
}
layer {
  name: "relu4"
  type: "ReLU"
  bottom: "conv4"
  top: "conv4"
}
layer {
  name: "conv5"
  type: "Convolution"
  bottom: "conv4"
  top: "conv5"
  convolution_param {
    num_output: 256
    pad: 1
    kernel_size: 3
    group: 2
  }
}
layer {
  name: "relu5"
  type: "ReLU"
  bottom: "conv5"
  top: "conv5"
}
layer {
  name: "pool5"
  type: "Pooling"
  bottom: "conv5"
  top: "pool5"
  pooling_param {
    pool: MAX
    kernel_size: 3
    stride: 2
  }
}
layer {
  name: "fc6"
  type: "InnerProduct"
  bottom: "pool5"
  top: "fc6"
  inner_product_param {
    num_output: 4096
  }
}
layer {
  name: "relu6"
  type: "ReLU"
  bottom: "fc6"
  top: "fc6"
}
layer {
  name: "drop6"
  type: "Dropout"
  bottom: "fc6"
  top: "fc6"
  dropout_param {
    dropout_ratio: 0.5
  }
}
layer {
  name: "fc7"
  type: "InnerProduct"
  bottom: "fc6"
  top: "fc7"
  inner_product_param {
    num_output: 4096
  }
}
layer {
  name: "relu7"
  type: "ReLU"
  bottom: "fc7"
  top: "fc7"
}
layer {
  name: "drop7"
  type: "Dropout"
  bottom: "fc7"
  top: "fc7"
  dropout_param {
    dropout_ratio: 0.5
  }
}
layer {
  name: "fc8"
  type: "InnerProduct"
  bottom: "fc7"
  top: "fc8"
  inner_product_param {
    num_output: 1000
  }
}
layer {
  name: "prob"
  type: "Softmax"
  bottom: "fc8"
  top: "prob"
}
I0925 22:37:29.121259  4504 net.cpp:91] Creating Layer input
I0925 22:37:29.121255  4542 net.cpp:399] input -> cont_sentence
I0925 22:37:29.121274  4504 net.cpp:399] input -> frames_fc7
I0925 22:37:29.121292  4542 net.cpp:399] input -> input_sentence
I0925 22:37:29.121294  4510 layer_factory.hpp:77] Creating layer input
I0925 22:37:29.121309  4542 net.cpp:399] input -> stage_indicator
…
I0925 22:37:29.121474  4548 net.cpp:399] input -> cont_sentence
I0925 22:37:29.121469  4522 net.cpp:399] input -> stage_indicator
I0925 22:37:29.121477  4508 net.cpp:399] input -> input_sentence
I0925 22:37:29.121477  4516 net.cpp:399] data -> data
I0925 22:37:29.121495  4548 net.cpp:399] input -> input_sentence
I0925 22:37:29.121477  4514 net.cpp:399] input -> stage_indicator
I0925 22:37:29.121505  4508 net.cpp:399] input -> stage_indicator
I0925 22:37:29.121515  4548 net.cpp:399] input -> stage_indicator
I0925 22:37:30.069947  4516 net.cpp:141] Setting up data
I0925 22:37:30.070129  4516 net.cpp:148] Top shape: 10 3 227 227 (1545870)
I0925 22:37:30.070143  4516 net.cpp:156] Memory required for data: 6183480
I0925 22:37:30.070170  4516 layer_factory.hpp:77] Creating layer conv1
I0925 22:37:30.070165  4504 net.cpp:141] Setting up input
I0925 22:37:30.070205  4504 net.cpp:148] Top shape: 1 4096 (4096)
I0925 22:37:30.070214  4516 net.cpp:91] Creating Layer conv1
I0925 22:37:30.070219  4504 net.cpp:148] Top shape: 1 1 (1)
I0925 22:37:30.070230  4504 net.cpp:148] Top shape: 1 1 (1)
I0925 22:37:30.070230  4516 net.cpp:425] conv1 <- data
I0925 22:37:30.070235  4504 net.cpp:148] Top shape: 1 1 (1)
I0925 22:37:30.070241  4504 net.cpp:156] Memory required for data: 16396
I0925 22:37:30.070250  4504 layer_factory.hpp:77] Creating layer cont_sentence_input_1_split
I0925 22:37:30.070252  4516 net.cpp:399] conv1 -> conv1
I0925 22:37:30.070283  4504 net.cpp:91] Creating Layer cont_sentence_input_1_split
I0925 22:37:30.070292  4504 net.cpp:425] cont_sentence_input_1_split <- cont_sentence
I0925 22:37:30.070327  4504 net.cpp:399] cont_sentence_input_1_split -> cont_sentence_input_1_split_0
I0925 22:37:30.070349  4504 net.cpp:399] cont_sentence_input_1_split -> cont_sentence_input_1_split_1
I0925 22:37:30.070523  4542 net.cpp:141] Setting up input
I0925 22:37:30.070547  4542 net.cpp:148] Top shape: 1 4096 (4096)
I0925 22:37:30.070561  4542 net.cpp:148] Top shape: 1 1 (1)
I0925 22:37:30.070572  4542 net.cpp:148] Top shape: 1 1 (1)
I0925 22:37:30.070583  4542 net.cpp:148] Top shape: 1 1 (1)
I0925 22:37:30.070590  4542 net.cpp:156] Memory required for data: 16396
I0925 22:37:30.070590  4522 net.cpp:141] Setting up input
I0925 22:37:30.070618  4542 layer_factory.hpp:77] Creating layer cont_sentence_input_1_split
I0925 22:37:30.070626  4522 net.cpp:148] Top shape: 1 4096 (4096)
I0925 22:37:30.070636  4522 net.cpp:148] Top shape: 1 1 (1)
I0925 22:37:30.070636  4542 net.cpp:91] Creating Layer cont_sentence_input_1_split
I0925 22:37:30.070652  4522 net.cpp:148] Top shape: 1 1 (1)
I0925 22:37:30.070662  4510 net.cpp:141] Setting up input
I0925 22:37:30.070662  4522 net.cpp:148] Top shape: 1 1 (1)
I0925 22:37:30.070693  4510 net.cpp:148] Top shape: 1 4096 (4096)
I0925 22:37:30.070698  4514 net.cpp:141] Setting up input
I0925 22:37:30.070710  4510 net.cpp:148] Top shape: 1 1 (1)
I0925 22:37:30.070713  4514 net.cpp:148] Top shape: 1 4096 (4096)
I0925 22:37:30.070722  4510 net.cpp:148] Top shape: 1 1 (1)
I0925 22:37:30.070725  4514 net.cpp:148] Top shape: 1 1 (1)
I0925 22:37:30.070734  4510 net.cpp:148] Top shape: 1 1 (1)
I0925 22:37:30.070737  4514 net.cpp:148] Top shape: 1 1 (1)
I0925 22:37:30.070741  4510 net.cpp:156] Memory required for data: 16396
I0925 22:37:30.070693  4522 net.cpp:156] Memory required for data: 16396
I0925 22:37:30.070752  4510 layer_factory.hpp:77] Creating layer cont_sentence_input_1_split
I0925 22:37:30.070755  4522 layer_factory.hpp:77] Creating layer cont_sentence_input_1_split
I0925 22:37:30.070754  4514 net.cpp:148] Top shape: 1 1 (1)
I0925 22:37:30.070770  4522 net.cpp:91] Creating Layer cont_sentence_input_1_split
I0925 22:37:30.070773  4510 net.cpp:91] Creating Layer cont_sentence_input_1_split
I0925 22:37:30.070770  4514 net.cpp:156] Memory required for data: 16396
I0925 22:37:30.070786  4522 net.cpp:425] cont_sentence_input_1_split <- cont_sentence
I0925 22:37:30.070788  4548 net.cpp:141] Setting up input
I0925 22:37:30.070780  4542 net.cpp:425] cont_sentence_input_1_split <- cont_sentence
I0925 22:37:30.070786  4510 net.cpp:425] cont_sentence_input_1_split <- cont_sentence
I0925 22:37:30.070812  4522 net.cpp:399] cont_sentence_input_1_split -> cont_sentence_input_1_split_0
I0925 22:37:30.070790  4514 layer_factory.hpp:77] Creating layer cont_sentence_input_1_split
I0925 22:37:30.070829  4510 net.cpp:399] cont_sentence_input_1_split -> cont_sentence_input_1_split_0
I0925 22:37:30.070834  4522 net.cpp:399] cont_sentence_input_1_split -> cont_sentence_input_1_split_1
I0925 22:37:30.070835  4548 net.cpp:148] Top shape: 1 4096 (4096)
I0925 22:37:30.070830  4514 net.cpp:91] Creating Layer cont_sentence_input_1_split
I0925 22:37:30.070853  4510 net.cpp:399] cont_sentence_input_1_split -> cont_sentence_input_1_split_1
I0925 22:37:30.070858  4514 net.cpp:425] cont_sentence_input_1_split <- cont_sentence
I0925 22:37:30.070855  4548 net.cpp:148] Top shape: 1 1 (1)
I0925 22:37:30.070873  4514 net.cpp:399] cont_sentence_input_1_split -> cont_sentence_input_1_split_0
I0925 22:37:30.070878  4548 net.cpp:148] Top shape: 1 1 (1)
I0925 22:37:30.070888  4548 net.cpp:148] Top shape: 1 1 (1)
I0925 22:37:30.070889  4514 net.cpp:399] cont_sentence_input_1_split -> cont_sentence_input_1_split_1
I0925 22:37:30.070895  4548 net.cpp:156] Memory required for data: 16396
I0925 22:37:30.070905  4548 layer_factory.hpp:77] Creating layer cont_sentence_input_1_split
I0925 22:37:30.070847  4542 net.cpp:399] cont_sentence_input_1_split -> cont_sentence_input_1_split_0
I0925 22:37:30.070919  4548 net.cpp:91] Creating Layer cont_sentence_input_1_split
I0925 22:37:30.070931  4522 net.cpp:141] Setting up cont_sentence_input_1_split
I0925 22:37:30.070927  4548 net.cpp:425] cont_sentence_input_1_split <- cont_sentence
I0925 22:37:30.070927  4542 net.cpp:399] cont_sentence_input_1_split -> cont_sentence_input_1_split_1
I0925 22:37:30.070950  4522 net.cpp:148] Top shape: 1 1 (1)
I0925 22:37:30.070952  4548 net.cpp:399] cont_sentence_input_1_split -> cont_sentence_input_1_split_0
I0925 22:37:30.070968  4522 net.cpp:148] Top shape: 1 1 (1)
I0925 22:37:30.070976  4522 net.cpp:156] Memory required for data: 16404
I0925 22:37:30.070977  4548 net.cpp:399] cont_sentence_input_1_split -> cont_sentence_input_1_split_1
I0925 22:37:30.070737  4508 net.cpp:141] Setting up input
I0925 22:37:30.070981  4522 layer_factory.hpp:77] Creating layer embed_encoder
I0925 22:37:30.070993  4508 net.cpp:148] Top shape: 1 4096 (4096)
I0925 22:37:30.071003  4508 net.cpp:148] Top shape: 1 1 (1)
I0925 22:37:30.071012  4508 net.cpp:148] Top shape: 1 1 (1)
I0925 22:37:30.071019  4522 net.cpp:91] Creating Layer embed_encoder
I0925 22:37:30.071022  4508 net.cpp:148] Top shape: 1 1 (1)
I0925 22:37:30.071035  4522 net.cpp:425] embed_encoder <- frames_fc7
I0925 22:37:30.071038  4508 net.cpp:156] Memory required for data: 16396
I0925 22:37:30.071046  4508 layer_factory.hpp:77] Creating layer cont_sentence_input_1_split
I0925 22:37:30.071054  4504 net.cpp:141] Setting up cont_sentence_input_1_split
I0925 22:37:30.071056  4522 net.cpp:399] embed_encoder -> embedded_in_frames
I0925 22:37:30.071077  4504 net.cpp:148] Top shape: 1 1 (1)
I0925 22:37:30.071089  4504 net.cpp:148] Top shape: 1 1 (1)
I0925 22:37:30.071094  4504 net.cpp:156] Memory required for data: 16404
I0925 22:37:30.071099  4504 layer_factory.hpp:77] Creating layer embed_encoder
I0925 22:37:30.071116  4504 net.cpp:91] Creating Layer embed_encoder
I0925 22:37:30.071123  4504 net.cpp:425] embed_encoder <- frames_fc7
I0925 22:37:30.071138  4504 net.cpp:399] embed_encoder -> embedded_in_frames
I0925 22:37:30.071059  4508 net.cpp:91] Creating Layer cont_sentence_input_1_split
I0925 22:37:30.071167  4508 net.cpp:425] cont_sentence_input_1_split <- cont_sentence
I0925 22:37:30.071195  4508 net.cpp:399] cont_sentence_input_1_split -> cont_sentence_input_1_split_0
I0925 22:37:30.071208  4508 net.cpp:399] cont_sentence_input_1_split -> cont_sentence_input_1_split_1
I0925 22:37:30.071254  4510 net.cpp:141] Setting up cont_sentence_input_1_split
I0925 22:37:30.071271  4510 net.cpp:148] Top shape: 1 1 (1)
I0925 22:37:30.071282  4510 net.cpp:148] Top shape: 1 1 (1)
I0925 22:37:30.071283  4514 net.cpp:141] Setting up cont_sentence_input_1_split
I0925 22:37:30.071290  4510 net.cpp:156] Memory required for data: 16404
I0925 22:37:30.071300  4510 layer_factory.hpp:77] Creating layer embed_encoder
I0925 22:37:30.071302  4514 net.cpp:148] Top shape: 1 1 (1)
I0925 22:37:30.071313  4514 net.cpp:148] Top shape: 1 1 (1)
I0925 22:37:30.071317  4510 net.cpp:91] Creating Layer embed_encoder
I0925 22:37:30.071321  4514 net.cpp:156] Memory required for data: 16404
I0925 22:37:30.071326  4510 net.cpp:425] embed_encoder <- frames_fc7
I0925 22:37:30.071331  4514 layer_factory.hpp:77] Creating layer embed_encoder
I0925 22:37:30.071341  4510 net.cpp:399] embed_encoder -> embedded_in_frames
I0925 22:37:30.071351  4514 net.cpp:91] Creating Layer embed_encoder
I0925 22:37:30.071360  4514 net.cpp:425] embed_encoder <- frames_fc7
I0925 22:37:30.071377  4514 net.cpp:399] embed_encoder -> embedded_in_frames
I0925 22:37:30.077745  4548 net.cpp:141] Setting up cont_sentence_input_1_split
I0925 22:37:30.077792  4548 net.cpp:148] Top shape: 1 1 (1)
I0925 22:37:30.077805  4548 net.cpp:148] Top shape: 1 1 (1)
I0925 22:37:30.077811  4548 net.cpp:156] Memory required for data: 16404
I0925 22:37:30.077822  4548 layer_factory.hpp:77] Creating layer embed_encoder
I0925 22:37:30.077862  4548 net.cpp:91] Creating Layer embed_encoder
I0925 22:37:30.077873  4548 net.cpp:425] embed_encoder <- frames_fc7
I0925 22:37:30.077889  4548 net.cpp:399] embed_encoder -> embedded_in_frames
I0925 22:37:30.099357  4542 net.cpp:141] Setting up cont_sentence_input_1_split
I0925 22:37:30.099413  4542 net.cpp:148] Top shape: 1 1 (1)
I0925 22:37:30.099426  4542 net.cpp:148] Top shape: 1 1 (1)
I0925 22:37:30.099434  4542 net.cpp:156] Memory required for data: 16404
I0925 22:37:30.099447  4542 layer_factory.hpp:77] Creating layer embed_encoder
I0925 22:37:30.099447  4508 net.cpp:141] Setting up cont_sentence_input_1_split
I0925 22:37:30.099480  4542 net.cpp:91] Creating Layer embed_encoder
I0925 22:37:30.099495  4542 net.cpp:425] embed_encoder <- frames_fc7
I0925 22:37:30.099496  4508 net.cpp:148] Top shape: 1 1 (1)
I0925 22:37:30.099509  4508 net.cpp:148] Top shape: 1 1 (1)
I0925 22:37:30.099515  4508 net.cpp:156] Memory required for data: 16404
I0925 22:37:30.099515  4542 net.cpp:399] embed_encoder -> embedded_in_frames
I0925 22:37:30.099532  4508 layer_factory.hpp:77] Creating layer embed_encoder
I0925 22:37:30.099550  4508 net.cpp:91] Creating Layer embed_encoder
I0925 22:37:30.099558  4508 net.cpp:425] embed_encoder <- frames_fc7
I0925 22:37:30.099575  4508 net.cpp:399] embed_encoder -> embedded_in_frames
I0925 22:37:30.111933  4522 net.cpp:141] Setting up embed_encoder
I0925 22:37:30.111980  4522 net.cpp:148] Top shape: 1 500 (500)
I0925 22:37:30.111989  4522 net.cpp:156] Memory required for data: 18404
I0925 22:37:30.112015  4548 net.cpp:141] Setting up embed_encoder
I0925 22:37:30.112027  4522 layer_factory.hpp:77] Creating layer reshape_frames
I0925 22:37:30.112037  4548 net.cpp:148] Top shape: 1 500 (500)
I0925 22:37:30.112046  4548 net.cpp:156] Memory required for data: 18404
I0925 22:37:30.112066  4548 layer_factory.hpp:77] Creating layer reshape_frames
I0925 22:37:30.112066  4522 net.cpp:91] Creating Layer reshape_frames
I0925 22:37:30.112082  4522 net.cpp:425] reshape_frames <- embedded_in_frames
I0925 22:37:30.112097  4548 net.cpp:91] Creating Layer reshape_frames
I0925 22:37:30.112099  4522 net.cpp:399] reshape_frames -> embedded_input_frames
I0925 22:37:30.112107  4548 net.cpp:425] reshape_frames <- embedded_in_frames
I0925 22:37:30.112120  4548 net.cpp:399] reshape_frames -> embedded_input_frames
I0925 22:37:30.112123  4504 net.cpp:141] Setting up embed_encoder
I0925 22:37:30.112164  4504 net.cpp:148] Top shape: 1 500 (500)
I0925 22:37:30.112172  4504 net.cpp:156] Memory required for data: 18404
I0925 22:37:30.112193  4504 layer_factory.hpp:77] Creating layer reshape_frames
I0925 22:37:30.112198  4522 net.cpp:141] Setting up reshape_frames
I0925 22:37:30.112216  4522 net.cpp:148] Top shape: 1 1 500 (500)
I0925 22:37:30.112217  4504 net.cpp:91] Creating Layer reshape_frames
I0925 22:37:30.112241  4548 net.cpp:141] Setting up reshape_frames
I0925 22:37:30.112234  4522 net.cpp:156] Memory required for data: 20404
I0925 22:37:30.112253  4504 net.cpp:425] reshape_frames <- embedded_in_frames
I0925 22:37:30.112257  4548 net.cpp:148] Top shape: 1 1 500 (500)
I0925 22:37:30.112262  4522 layer_factory.hpp:77] Creating layer reshape_stage_indicator
I0925 22:37:30.112270  4504 net.cpp:399] reshape_frames -> embedded_input_frames
I0925 22:37:30.112265  4548 net.cpp:156] Memory required for data: 20404
I0925 22:37:30.112287  4522 net.cpp:91] Creating Layer reshape_stage_indicator
I0925 22:37:30.112293  4548 layer_factory.hpp:77] Creating layer reshape_stage_indicator
I0925 22:37:30.112298  4522 net.cpp:425] reshape_stage_indicator <- stage_indicator
I0925 22:37:30.112308  4548 net.cpp:91] Creating Layer reshape_stage_indicator
I0925 22:37:30.112316  4548 net.cpp:425] reshape_stage_indicator <- stage_indicator
I0925 22:37:30.112316  4522 net.cpp:399] reshape_stage_indicator -> reshaped_stage_indicator
I0925 22:37:30.112329  4548 net.cpp:399] reshape_stage_indicator -> reshaped_stage_indicator
I0925 22:37:30.122685  4504 net.cpp:141] Setting up reshape_frames
I0925 22:37:30.122743  4504 net.cpp:148] Top shape: 1 1 500 (500)
I0925 22:37:30.122750  4504 net.cpp:156] Memory required for data: 20404
I0925 22:37:30.122761  4504 layer_factory.hpp:77] Creating layer reshape_stage_indicator
I0925 22:37:30.122750  4522 net.cpp:141] Setting up reshape_stage_indicator
I0925 22:37:30.122782  4548 net.cpp:141] Setting up reshape_stage_indicator
I0925 22:37:30.122793  4522 net.cpp:148] Top shape: 1 1 1 (1)
I0925 22:37:30.122800  4522 net.cpp:156] Memory required for data: 20408
I0925 22:37:30.122807  4548 net.cpp:148] Top shape: 1 1 1 (1)
I0925 22:37:30.122812  4522 layer_factory.hpp:77] Creating layer embedding
I0925 22:37:30.122789  4504 net.cpp:91] Creating Layer reshape_stage_indicator
I0925 22:37:30.122831  4522 net.cpp:91] Creating Layer embedding
I0925 22:37:30.122818  4548 net.cpp:156] Memory required for data: 20408
I0925 22:37:30.122835  4504 net.cpp:425] reshape_stage_indicator <- stage_indicator
I0925 22:37:30.122839  4522 net.cpp:425] embedding <- input_sentence
I0925 22:37:30.122843  4548 layer_factory.hpp:77] Creating layer embedding
I0925 22:37:30.122858  4504 net.cpp:399] reshape_stage_indicator -> reshaped_stage_indicator
I0925 22:37:30.122858  4522 net.cpp:399] embedding -> embedded_input_sentence
I0925 22:37:30.122889  4548 net.cpp:91] Creating Layer embedding
I0925 22:37:30.122898  4548 net.cpp:425] embedding <- input_sentence
I0925 22:37:30.122911  4548 net.cpp:399] embedding -> embedded_input_sentence
I0925 22:37:30.122942  4504 net.cpp:141] Setting up reshape_stage_indicator
I0925 22:37:30.122953  4504 net.cpp:148] Top shape: 1 1 1 (1)
I0925 22:37:30.122957  4504 net.cpp:156] Memory required for data: 20408
I0925 22:37:30.122963  4504 layer_factory.hpp:77] Creating layer embedding
I0925 22:37:30.122977  4504 net.cpp:91] Creating Layer embedding
I0925 22:37:30.122982  4504 net.cpp:425] embedding <- input_sentence
I0925 22:37:30.122992  4504 net.cpp:399] embedding -> embedded_input_sentence
I0925 22:37:30.123065  4510 net.cpp:141] Setting up embed_encoder
I0925 22:37:30.123085  4510 net.cpp:148] Top shape: 1 500 (500)
I0925 22:37:30.123090  4510 net.cpp:156] Memory required for data: 18404
I0925 22:37:30.123107  4510 layer_factory.hpp:77] Creating layer reshape_frames
I0925 22:37:30.123121  4510 net.cpp:91] Creating Layer reshape_frames
I0925 22:37:30.123128  4510 net.cpp:425] reshape_frames <- embedded_in_frames
I0925 22:37:30.123138  4510 net.cpp:399] reshape_frames -> embedded_input_frames
I0925 22:37:30.217833  4542 net.cpp:141] Setting up embed_encoder
I0925 22:37:30.217898  4542 net.cpp:148] Top shape: 1 500 (500)
I0925 22:37:30.217905  4542 net.cpp:156] Memory required for data: 18404
I0925 22:37:30.217931  4542 layer_factory.hpp:77] Creating layer reshape_frames
I0925 22:37:30.217991  4542 net.cpp:91] Creating Layer reshape_frames
I0925 22:37:30.218004  4542 net.cpp:425] reshape_frames <- embedded_in_frames
I0925 22:37:30.218017  4542 net.cpp:399] reshape_frames -> embedded_input_frames
I0925 22:37:30.260429  4510 net.cpp:141] Setting up reshape_frames
I0925 22:37:30.260488  4510 net.cpp:148] Top shape: 1 1 500 (500)
I0925 22:37:30.260498  4510 net.cpp:156] Memory required for data: 20404
I0925 22:37:30.260510  4510 layer_factory.hpp:77] Creating layer reshape_stage_indicator
I0925 22:37:30.260541  4510 net.cpp:91] Creating Layer reshape_stage_indicator
I0925 22:37:30.260555  4510 net.cpp:425] reshape_stage_indicator <- stage_indicator
I0925 22:37:30.260571  4510 net.cpp:399] reshape_stage_indicator -> reshaped_stage_indicator
I0925 22:37:30.260577  4542 net.cpp:141] Setting up reshape_frames
I0925 22:37:30.260599  4542 net.cpp:148] Top shape: 1 1 500 (500)
I0925 22:37:30.260608  4542 net.cpp:156] Memory required for data: 20404
I0925 22:37:30.260617  4542 layer_factory.hpp:77] Creating layer reshape_stage_indicator
I0925 22:37:30.260635  4542 net.cpp:91] Creating Layer reshape_stage_indicator
I0925 22:37:30.260640  4510 net.cpp:141] Setting up reshape_stage_indicator
I0925 22:37:30.260645  4542 net.cpp:425] reshape_stage_indicator <- stage_indicator
I0925 22:37:30.260658  4510 net.cpp:148] Top shape: 1 1 1 (1)
I0925 22:37:30.260665  4510 net.cpp:156] Memory required for data: 20408
I0925 22:37:30.260668  4542 net.cpp:399] reshape_stage_indicator -> reshaped_stage_indicator
I0925 22:37:30.260673  4510 layer_factory.hpp:77] Creating layer embedding
I0925 22:37:30.260695  4510 net.cpp:91] Creating Layer embedding
I0925 22:37:30.260704  4510 net.cpp:425] embedding <- input_sentence
I0925 22:37:30.260720  4510 net.cpp:399] embedding -> embedded_input_sentence
I0925 22:37:30.260730  4542 net.cpp:141] Setting up reshape_stage_indicator
I0925 22:37:30.260746  4542 net.cpp:148] Top shape: 1 1 1 (1)
I0925 22:37:30.260756  4542 net.cpp:156] Memory required for data: 20408
I0925 22:37:30.260764  4542 layer_factory.hpp:77] Creating layer embedding
I0925 22:37:30.260781  4542 net.cpp:91] Creating Layer embedding
I0925 22:37:30.260788  4542 net.cpp:425] embedding <- input_sentence
I0925 22:37:30.260808  4542 net.cpp:399] embedding -> embedded_input_sentence
I0925 22:37:30.305340  4508 net.cpp:141] Setting up embed_encoder
I0925 22:37:30.305392  4508 net.cpp:148] Top shape: 1 500 (500)
I0925 22:37:30.305400  4508 net.cpp:156] Memory required for data: 18404
I0925 22:37:30.305430  4508 layer_factory.hpp:77] Creating layer reshape_frames
I0925 22:37:30.305464  4508 net.cpp:91] Creating Layer reshape_frames
I0925 22:37:30.305476  4508 net.cpp:425] reshape_frames <- embedded_in_frames
I0925 22:37:30.305491  4508 net.cpp:399] reshape_frames -> embedded_input_frames
I0925 22:37:30.350353  4514 net.cpp:141] Setting up embed_encoder
I0925 22:37:30.350369  4508 net.cpp:141] Setting up reshape_frames
I0925 22:37:30.350409  4514 net.cpp:148] Top shape: 1 500 (500)
I0925 22:37:30.350414  4508 net.cpp:148] Top shape: 1 1 500 (500)
I0925 22:37:30.350420  4514 net.cpp:156] Memory required for data: 18404
I0925 22:37:30.350436  4508 net.cpp:156] Memory required for data: 20404
I0925 22:37:30.350448  4508 layer_factory.hpp:77] Creating layer reshape_stage_indicator
I0925 22:37:30.350466  4514 layer_factory.hpp:77] Creating layer reshape_frames
I0925 22:37:30.350481  4508 net.cpp:91] Creating Layer reshape_stage_indicator
I0925 22:37:30.350484  4514 net.cpp:91] Creating Layer reshape_frames
I0925 22:37:30.350494  4508 net.cpp:425] reshape_stage_indicator <- stage_indicator
I0925 22:37:30.350497  4514 net.cpp:425] reshape_frames <- embedded_in_frames
I0925 22:37:30.350519  4508 net.cpp:399] reshape_stage_indicator -> reshaped_stage_indicator
I0925 22:37:30.350523  4514 net.cpp:399] reshape_frames -> embedded_input_frames
I0925 22:37:30.350414  4522 net.cpp:141] Setting up embedding
I0925 22:37:30.350584  4522 net.cpp:148] Top shape: 1 1 500 (500)
I0925 22:37:30.350607  4522 net.cpp:156] Memory required for data: 22408
I0925 22:37:30.350611  4508 net.cpp:141] Setting up reshape_stage_indicator
I0925 22:37:30.350625  4508 net.cpp:148] Top shape: 1 1 1 (1)
I0925 22:37:30.350628  4522 layer_factory.hpp:77] Creating layer lstm1
I0925 22:37:30.350632  4508 net.cpp:156] Memory required for data: 20408
I0925 22:37:30.350639  4508 layer_factory.hpp:77] Creating layer embedding
I0925 22:37:30.350656  4508 net.cpp:91] Creating Layer embedding
I0925 22:37:30.350672  4508 net.cpp:425] embedding <- input_sentence
I0925 22:37:30.350693  4508 net.cpp:399] embedding -> embedded_input_sentence
I0925 22:37:30.350711  4514 net.cpp:141] Setting up reshape_frames
I0925 22:37:30.350726  4514 net.cpp:148] Top shape: 1 1 500 (500)
I0925 22:37:30.350735  4514 net.cpp:156] Memory required for data: 20404
I0925 22:37:30.350744  4514 layer_factory.hpp:77] Creating layer reshape_stage_indicator
I0925 22:37:30.350759  4514 net.cpp:91] Creating Layer reshape_stage_indicator
I0925 22:37:30.350769  4514 net.cpp:425] reshape_stage_indicator <- stage_indicator
I0925 22:37:30.350781  4514 net.cpp:399] reshape_stage_indicator -> reshaped_stage_indicator
I0925 22:37:30.350656  4522 net.cpp:91] Creating Layer lstm1
I0925 22:37:30.350819  4522 net.cpp:425] lstm1 <- embedded_input_frames
I0925 22:37:30.350832  4522 net.cpp:425] lstm1 <- cont_sentence_input_1_split_0
I0925 22:37:30.350853  4522 net.cpp:399] lstm1 -> lstm1
I0925 22:37:30.350883  4522 recurrent_layer.cpp:20] Initializing recurrent layer: assuming input batch contains 1 timesteps of 1 independent streams.
I0925 22:37:30.351481  4522 net.cpp:49] Initializing net from parameters: 
layer {
  name: "lstm1_"
  type: "Input"
  top: "x"
  top: "cont"
  input_param {
    shape {
      dim: 1
      dim: 1
      dim: 500
    }
    shape {
      dim: 1
      dim: 1
    }
  }
}
layer {
  name: "lstm1_"
  type: "Input"
  top: "c_0"
  top: "h_0"
  input_param {
    shape {
      dim: 1
      dim: 1
      dim: 1000
    }
    shape {
      dim: 1
      dim: 1
      dim: 1000
    }
  }
}
layer {
  name: "lstm1_cont_slice"
  type: "Slice"
  bottom: "cont"
  top: "cont_1"
  slice_param {
    axis: 0
  }
}
layer {
  name: "lstm1_x_transform"
  type: "InnerProduct"
  bottom: "x"
  top: "W_xc_x"
  param {
    name: "W_xc"
  }
  param {
    name: "b_c"
  }
  propagate_down: true
  inner_product_param {
    num_output: 4000
    bias_term: true
    weight_filler {
      type: "uniform"
      min: -0.08
      max: 0.08
    }
    bias_filler {
      type: "constant"
      value: 0
    }
    axis: 2
  }
}
layer {
  name: "lstm1_W_xc_x_slice"
  type: "Slice"
  bottom: "W_xc_x"
  top: "W_xc_x_1"
  slice_param {
    axis: 0
  }
}
layer {
  name: "lstm1_h_conted_0"
  type: "Scale"
  bottom: "h_0"
  bottom: "cont_1"
  top: "h_conted_0"
  scale_param {
    axis: 0
  }
}
layer {
  name: "lstm1_transform_1"
  type: "InnerProduct"
  bottom: "h_conted_0"
  top: "W_hc_h_0"
  param {
    name: "W_hc"
  }
  inner_product_param {
    num_output: 4000
    bias_term: false
    weight_filler {
      type: "uniform"
      min: -0.08
      max: 0.08
    }
    axis: 2
  }
}
layer {
  name: "lstm1_gate_input_1"
  type: "Eltwise"
  bottom: "W_hc_h_0"
  bottom: "W_xc_x_1"
  top: "gate_input_1"
  eltwise_param {
    operation: SUM
  }
}
layer {
  name: "lstm1_unit_1"
  type: "LSTMUnit"
  bottom: "c_0"
  bottom: "gate_input_1"
  bottom: "cont_1"
  top: "c_1"
  top: "h_1"
}
layer {
  name: "lstm1_"
  type: "Split"
  bottom: "c_1"
  top: "c_T"
}
layer {
  name: "lstm1_h_concat"
  type: "Concat"
  bottom: "h_1"
  top: "h"
  concat_param {
    axis: 0
  }
}
layer {
  name: "h_pseudoloss"
  type: "Reduction"
  bottom: "h"
  top: "h_pseudoloss"
  loss_weight: 1
}
I0925 22:37:30.360718  4522 layer_factory.hpp:77] Creating layer lstm1_
I0925 22:37:30.360767  4522 net.cpp:91] Creating Layer lstm1_
I0925 22:37:30.360783  4522 net.cpp:399] lstm1_ -> x
I0925 22:37:30.360811  4522 net.cpp:399] lstm1_ -> cont
I0925 22:37:30.395838  4514 net.cpp:141] Setting up reshape_stage_indicator
I0925 22:37:30.395915  4514 net.cpp:148] Top shape: 1 1 1 (1)
I0925 22:37:30.395933  4514 net.cpp:156] Memory required for data: 20408
I0925 22:37:30.395952  4514 layer_factory.hpp:77] Creating layer embedding
I0925 22:37:30.395988  4514 net.cpp:91] Creating Layer embedding
I0925 22:37:30.396008  4514 net.cpp:425] embedding <- input_sentence
I0925 22:37:30.396037  4514 net.cpp:399] embedding -> embedded_input_sentence
I0925 22:37:30.448104  4522 net.cpp:141] Setting up lstm1_
I0925 22:37:30.448163  4522 net.cpp:148] Top shape: 1 1 500 (500)
I0925 22:37:30.448176  4522 net.cpp:148] Top shape: 1 1 (1)
I0925 22:37:30.448184  4522 net.cpp:156] Memory required for data: 2004
I0925 22:37:30.448195  4522 layer_factory.hpp:77] Creating layer lstm1_
I0925 22:37:30.448228  4522 net.cpp:91] Creating Layer lstm1_
I0925 22:37:30.448251  4522 net.cpp:399] lstm1_ -> c_0
I0925 22:37:30.448281  4522 net.cpp:399] lstm1_ -> h_0
I0925 22:37:30.448353  4522 net.cpp:141] Setting up lstm1_
I0925 22:37:30.448365  4522 net.cpp:148] Top shape: 1 1 1000 (1000)
I0925 22:37:30.448375  4522 net.cpp:148] Top shape: 1 1 1000 (1000)
I0925 22:37:30.448381  4522 net.cpp:156] Memory required for data: 10004
I0925 22:37:30.448390  4522 layer_factory.hpp:77] Creating layer lstm1_cont_slice
I0925 22:37:30.448408  4522 net.cpp:91] Creating Layer lstm1_cont_slice
I0925 22:37:30.448418  4522 net.cpp:425] lstm1_cont_slice <- cont
I0925 22:37:30.448433  4522 net.cpp:399] lstm1_cont_slice -> cont_1
I0925 22:37:30.448482  4522 net.cpp:141] Setting up lstm1_cont_slice
I0925 22:37:30.448494  4522 net.cpp:148] Top shape: 1 1 (1)
I0925 22:37:30.448501  4522 net.cpp:156] Memory required for data: 10008
I0925 22:37:30.448509  4522 layer_factory.hpp:77] Creating layer cont_1_lstm1_cont_slice_0_split
I0925 22:37:30.448528  4522 net.cpp:91] Creating Layer cont_1_lstm1_cont_slice_0_split
I0925 22:37:30.448536  4522 net.cpp:425] cont_1_lstm1_cont_slice_0_split <- cont_1
I0925 22:37:30.448547  4522 net.cpp:399] cont_1_lstm1_cont_slice_0_split -> cont_1_lstm1_cont_slice_0_split_0
I0925 22:37:30.448560  4522 net.cpp:399] cont_1_lstm1_cont_slice_0_split -> cont_1_lstm1_cont_slice_0_split_1
I0925 22:37:30.448627  4522 net.cpp:141] Setting up cont_1_lstm1_cont_slice_0_split
I0925 22:37:30.448640  4522 net.cpp:148] Top shape: 1 1 (1)
I0925 22:37:30.448649  4522 net.cpp:148] Top shape: 1 1 (1)
I0925 22:37:30.448657  4522 net.cpp:156] Memory required for data: 10016
I0925 22:37:30.448665  4522 layer_factory.hpp:77] Creating layer lstm1_x_transform
I0925 22:37:30.448691  4522 net.cpp:91] Creating Layer lstm1_x_transform
I0925 22:37:30.448699  4522 net.cpp:425] lstm1_x_transform <- x
I0925 22:37:30.448714  4522 net.cpp:399] lstm1_x_transform -> W_xc_x
I0925 22:37:30.454715  4548 net.cpp:141] Setting up embedding
I0925 22:37:30.454782  4548 net.cpp:148] Top shape: 1 1 500 (500)
I0925 22:37:30.454793  4548 net.cpp:156] Memory required for data: 22408
I0925 22:37:30.454821  4548 layer_factory.hpp:77] Creating layer lstm1
I0925 22:37:30.454849  4548 net.cpp:91] Creating Layer lstm1
I0925 22:37:30.454860  4548 net.cpp:425] lstm1 <- embedded_input_frames
I0925 22:37:30.454874  4548 net.cpp:425] lstm1 <- cont_sentence_input_1_split_0
I0925 22:37:30.454921  4548 net.cpp:399] lstm1 -> lstm1
I0925 22:37:30.454947  4548 recurrent_layer.cpp:20] Initializing recurrent layer: assuming input batch contains 1 timesteps of 1 independent streams.
I0925 22:37:30.455433  4548 net.cpp:49] Initializing net from parameters: 
layer {
  name: "lstm1_"
  type: "Input"
  top: "x"
  top: "cont"
  input_param {
    shape {
      dim: 1
      dim: 1
      dim: 500
    }
    shape {
      dim: 1
      dim: 1
    }
  }
}
layer {
  name: "lstm1_"
  type: "Input"
  top: "c_0"
  top: "h_0"
  input_param {
    shape {
      dim: 1
      dim: 1
      dim: 1000
    }
    shape {
      dim: 1
      dim: 1
      dim: 1000
    }
  }
}
layer {
  name: "lstm1_cont_slice"
  type: "Slice"
  bottom: "cont"
  top: "cont_1"
  slice_param {
    axis: 0
  }
}
layer {
  name: "lstm1_x_transform"
  type: "InnerProduct"
  bottom: "x"
  top: "W_xc_x"
  param {
    name: "W_xc"
  }
  param {
    name: "b_c"
  }
  propagate_down: true
  inner_product_param {
    num_output: 4000
    bias_term: true
    weight_filler {
      type: "uniform"
      min: -0.08
      max: 0.08
    }
    bias_filler {
      type: "constant"
      value: 0
    }
    axis: 2
  }
}
layer {
  name: "lstm1_W_xc_x_slice"
  type: "Slice"
  bottom: "W_xc_x"
  top: "W_xc_x_1"
  slice_param {
    axis: 0
  }
}
layer {
  name: "lstm1_h_conted_0"
  type: "Scale"
  bottom: "h_0"
  bottom: "cont_1"
  top: "h_conted_0"
  scale_param {
    axis: 0
  }
}
layer {
  name: "lstm1_transform_1"
  type: "InnerProduct"
  bottom: "h_conted_0"
  top: "W_hc_h_0"
  param {
    name: "W_hc"
  }
  inner_product_param {
    num_output: 4000
    bias_term: false
    weight_filler {
      type: "uniform"
      min: -0.08
      max: 0.08
    }
    axis: 2
  }
}
layer {
  name: "lstm1_gate_input_1"
  type: "Eltwise"
  bottom: "W_hc_h_0"
  bottom: "W_xc_x_1"
  top: "gate_input_1"
  eltwise_param {
    operation: SUM
  }
}
layer {
  name: "lstm1_unit_1"
  type: "LSTMUnit"
  bottom: "c_0"
  bottom: "gate_input_1"
  bottom: "cont_1"
  top: "c_1"
  top: "h_1"
}
layer {
  name: "lstm1_"
  type: "Split"
  bottom: "c_1"
  top: "c_T"
}
layer {
  name: "lstm1_h_concat"
  type: "Concat"
  bottom: "h_1"
  top: "h"
  concat_param {
    axis: 0
  }
}
layer {
  name: "h_pseudoloss"
  type: "Reduction"
  bottom: "h"
  top: "h_pseudoloss"
  loss_weight: 1
}
I0925 22:37:30.455587  4548 layer_factory.hpp:77] Creating layer lstm1_
I0925 22:37:30.455610  4548 net.cpp:91] Creating Layer lstm1_
I0925 22:37:30.455622  4548 net.cpp:399] lstm1_ -> x
I0925 22:37:30.455643  4548 net.cpp:399] lstm1_ -> cont
I0925 22:37:30.460549  4548 net.cpp:141] Setting up lstm1_
I0925 22:37:30.460602  4548 net.cpp:148] Top shape: 1 1 500 (500)
I0925 22:37:30.460616  4548 net.cpp:148] Top shape: 1 1 (1)
I0925 22:37:30.460624  4548 net.cpp:156] Memory required for data: 2004
I0925 22:37:30.460638  4548 layer_factory.hpp:77] Creating layer lstm1_
I0925 22:37:30.460664  4548 net.cpp:91] Creating Layer lstm1_
I0925 22:37:30.460682  4548 net.cpp:399] lstm1_ -> c_0
I0925 22:37:30.460708  4548 net.cpp:399] lstm1_ -> h_0
I0925 22:37:30.465211  4548 net.cpp:141] Setting up lstm1_
I0925 22:37:30.465253  4548 net.cpp:148] Top shape: 1 1 1000 (1000)
I0925 22:37:30.465266  4548 net.cpp:148] Top shape: 1 1 1000 (1000)
I0925 22:37:30.465275  4548 net.cpp:156] Memory required for data: 10004
I0925 22:37:30.465286  4548 layer_factory.hpp:77] Creating layer lstm1_cont_slice
I0925 22:37:30.465307  4548 net.cpp:91] Creating Layer lstm1_cont_slice
I0925 22:37:30.465318  4548 net.cpp:425] lstm1_cont_slice <- cont
I0925 22:37:30.465333  4548 net.cpp:399] lstm1_cont_slice -> cont_1
I0925 22:37:30.465397  4548 net.cpp:141] Setting up lstm1_cont_slice
I0925 22:37:30.465414  4548 net.cpp:148] Top shape: 1 1 (1)
I0925 22:37:30.465421  4548 net.cpp:156] Memory required for data: 10008
I0925 22:37:30.465430  4548 layer_factory.hpp:77] Creating layer cont_1_lstm1_cont_slice_0_split
I0925 22:37:30.465446  4548 net.cpp:91] Creating Layer cont_1_lstm1_cont_slice_0_split
I0925 22:37:30.465454  4548 net.cpp:425] cont_1_lstm1_cont_slice_0_split <- cont_1
I0925 22:37:30.465466  4548 net.cpp:399] cont_1_lstm1_cont_slice_0_split -> cont_1_lstm1_cont_slice_0_split_0
I0925 22:37:30.465481  4548 net.cpp:399] cont_1_lstm1_cont_slice_0_split -> cont_1_lstm1_cont_slice_0_split_1
I0925 22:37:30.465847  4548 net.cpp:141] Setting up cont_1_lstm1_cont_slice_0_split
I0925 22:37:30.465864  4548 net.cpp:148] Top shape: 1 1 (1)
I0925 22:37:30.465876  4548 net.cpp:148] Top shape: 1 1 (1)
I0925 22:37:30.465883  4548 net.cpp:156] Memory required for data: 10016
I0925 22:37:30.465893  4548 layer_factory.hpp:77] Creating layer lstm1_x_transform
I0925 22:37:30.465916  4548 net.cpp:91] Creating Layer lstm1_x_transform
I0925 22:37:30.465925  4548 net.cpp:425] lstm1_x_transform <- x
I0925 22:37:30.465939  4548 net.cpp:399] lstm1_x_transform -> W_xc_x
I0925 22:37:30.491338  4510 net.cpp:141] Setting up embedding
I0925 22:37:30.491389  4510 net.cpp:148] Top shape: 1 1 500 (500)
I0925 22:37:30.491399  4510 net.cpp:156] Memory required for data: 22408
I0925 22:37:30.491425  4510 layer_factory.hpp:77] Creating layer lstm1
I0925 22:37:30.491704  4510 net.cpp:91] Creating Layer lstm1
I0925 22:37:30.491724  4510 net.cpp:425] lstm1 <- embedded_input_frames
I0925 22:37:30.491739  4510 net.cpp:425] lstm1 <- cont_sentence_input_1_split_0
I0925 22:37:30.491757  4510 net.cpp:399] lstm1 -> lstm1
I0925 22:37:30.491785  4510 recurrent_layer.cpp:20] Initializing recurrent layer: assuming input batch contains 1 timesteps of 1 independent streams.
I0925 22:37:30.492370  4510 net.cpp:49] Initializing net from parameters: 
layer {
  name: "lstm1_"
  type: "Input"
  top: "x"
  top: "cont"
  input_param {
    shape {
      dim: 1
      dim: 1
      dim: 500
    }
    shape {
      dim: 1
      dim: 1
    }
  }
}
layer {
  name: "lstm1_"
  type: "Input"
  top: "c_0"
  top: "h_0"
  input_param {
    shape {
      dim: 1
      dim: 1
      dim: 1000
    }
    shape {
      dim: 1
      dim: 1
      dim: 1000
    }
  }
}
layer {
  name: "lstm1_cont_slice"
  type: "Slice"
  bottom: "cont"
  top: "cont_1"
  slice_param {
    axis: 0
  }
}
layer {
  name: "lstm1_x_transform"
  type: "InnerProduct"
  bottom: "x"
  top: "W_xc_x"
  param {
    name: "W_xc"
  }
  param {
    name: "b_c"
  }
  propagate_down: true
  inner_product_param {
    num_output: 4000
    bias_term: true
    weight_filler {
      type: "uniform"
      min: -0.08
      max: 0.08
    }
    bias_filler {
      type: "constant"
      value: 0
    }
    axis: 2
  }
}
layer {
  name: "lstm1_W_xc_x_slice"
  type: "Slice"
  bottom: "W_xc_x"
  top: "W_xc_x_1"
  slice_param {
    axis: 0
  }
}
layer {
  name: "lstm1_h_conted_0"
  type: "Scale"
  bottom: "h_0"
  bottom: "cont_1"
  top: "h_conted_0"
  scale_param {
    axis: 0
  }
}
layer {
  name: "lstm1_transform_1"
  type: "InnerProduct"
  bottom: "h_conted_0"
  top: "W_hc_h_0"
  param {
    name: "W_hc"
  }
  inner_product_param {
    num_output: 4000
    bias_term: false
    weight_filler {
      type: "uniform"
      min: -0.08
      max: 0.08
    }
    axis: 2
  }
}
layer {
  name: "lstm1_gate_input_1"
  type: "Eltwise"
  bottom: "W_hc_h_0"
  bottom: "W_xc_x_1"
  top: "gate_input_1"
  eltwise_param {
    operation: SUM
  }
}
layer {
  name: "lstm1_unit_1"
  type: "LSTMUnit"
  bottom: "c_0"
  bottom: "gate_input_1"
  bottom: "cont_1"
  top: "c_1"
  top: "h_1"
}
layer {
  name: "lstm1_"
  type: "Split"
  bottom: "c_1"
  top: "c_T"
}
layer {
  name: "lstm1_h_concat"
  type: "Concat"
  bottom: "h_1"
  top: "h"
  concat_param {
    axis: 0
  }
}
layer {
  name: "h_pseudoloss"
  type: "Reduction"
  bottom: "h"
  top: "h_pseudoloss"
  loss_weight: 1
}
I0925 22:37:30.492527  4510 layer_factory.hpp:77] Creating layer lstm1_
I0925 22:37:30.492554  4510 net.cpp:91] Creating Layer lstm1_
I0925 22:37:30.492569  4510 net.cpp:399] lstm1_ -> x
I0925 22:37:30.492590  4510 net.cpp:399] lstm1_ -> cont
I0925 22:37:30.492677  4548 net.cpp:141] Setting up lstm1_x_transform
I0925 22:37:30.492697  4548 net.cpp:148] Top shape: 1 1 4000 (4000)
I0925 22:37:30.492705  4548 net.cpp:156] Memory required for data: 26016
I0925 22:37:30.492723  4548 layer_factory.hpp:77] Creating layer lstm1_W_xc_x_slice
I0925 22:37:30.492738  4548 net.cpp:91] Creating Layer lstm1_W_xc_x_slice
I0925 22:37:30.492744  4548 net.cpp:425] lstm1_W_xc_x_slice <- W_xc_x
I0925 22:37:30.492753  4548 net.cpp:399] lstm1_W_xc_x_slice -> W_xc_x_1
I0925 22:37:30.492830  4548 net.cpp:141] Setting up lstm1_W_xc_x_slice
I0925 22:37:30.492843  4548 net.cpp:148] Top shape: 1 1 4000 (4000)
I0925 22:37:30.492848  4548 net.cpp:156] Memory required for data: 42016
I0925 22:37:30.492853  4548 layer_factory.hpp:77] Creating layer lstm1_h_conted_0
I0925 22:37:30.492875  4548 net.cpp:91] Creating Layer lstm1_h_conted_0
I0925 22:37:30.492877  4522 net.cpp:141] Setting up lstm1_x_transform
I0925 22:37:30.492885  4548 net.cpp:425] lstm1_h_conted_0 <- h_0
I0925 22:37:30.492895  4548 net.cpp:425] lstm1_h_conted_0 <- cont_1_lstm1_cont_slice_0_split_0
I0925 22:37:30.492898  4522 net.cpp:148] Top shape: 1 1 4000 (4000)
I0925 22:37:30.492903  4548 net.cpp:399] lstm1_h_conted_0 -> h_conted_0
I0925 22:37:30.492908  4522 net.cpp:156] Memory required for data: 26016
I0925 22:37:30.492930  4522 layer_factory.hpp:77] Creating layer lstm1_W_xc_x_slice
I0925 22:37:30.492949  4522 net.cpp:91] Creating Layer lstm1_W_xc_x_slice
I0925 22:37:30.492960  4522 net.cpp:425] lstm1_W_xc_x_slice <- W_xc_x
I0925 22:37:30.492975  4522 net.cpp:399] lstm1_W_xc_x_slice -> W_xc_x_1
I0925 22:37:30.493027  4548 net.cpp:141] Setting up lstm1_h_conted_0
I0925 22:37:30.493044  4548 net.cpp:148] Top shape: 1 1 1000 (1000)
I0925 22:37:30.493052  4548 net.cpp:156] Memory required for data: 46016
I0925 22:37:30.493062  4548 layer_factory.hpp:77] Creating layer lstm1_transform_1
I0925 22:37:30.493078  4548 net.cpp:91] Creating Layer lstm1_transform_1
I0925 22:37:30.493084  4548 net.cpp:425] lstm1_transform_1 <- h_conted_0
I0925 22:37:30.493067  4522 net.cpp:141] Setting up lstm1_W_xc_x_slice
I0925 22:37:30.493093  4548 net.cpp:399] lstm1_transform_1 -> W_hc_h_0
I0925 22:37:30.493104  4522 net.cpp:148] Top shape: 1 1 4000 (4000)
I0925 22:37:30.493115  4522 net.cpp:156] Memory required for data: 42016
I0925 22:37:30.493124  4522 layer_factory.hpp:77] Creating layer lstm1_h_conted_0
I0925 22:37:30.493145  4522 net.cpp:91] Creating Layer lstm1_h_conted_0
I0925 22:37:30.493158  4522 net.cpp:425] lstm1_h_conted_0 <- h_0
I0925 22:37:30.493170  4522 net.cpp:425] lstm1_h_conted_0 <- cont_1_lstm1_cont_slice_0_split_0
I0925 22:37:30.493185  4522 net.cpp:399] lstm1_h_conted_0 -> h_conted_0
I0925 22:37:30.502100  4522 net.cpp:141] Setting up lstm1_h_conted_0
I0925 22:37:30.502149  4522 net.cpp:148] Top shape: 1 1 1000 (1000)
I0925 22:37:30.502157  4522 net.cpp:156] Memory required for data: 46016
I0925 22:37:30.502168  4522 layer_factory.hpp:77] Creating layer lstm1_transform_1
I0925 22:37:30.502192  4522 net.cpp:91] Creating Layer lstm1_transform_1
I0925 22:37:30.502202  4522 net.cpp:425] lstm1_transform_1 <- h_conted_0
I0925 22:37:30.502219  4522 net.cpp:399] lstm1_transform_1 -> W_hc_h_0
I0925 22:37:30.510154  4510 net.cpp:141] Setting up lstm1_
I0925 22:37:30.510203  4510 net.cpp:148] Top shape: 1 1 500 (500)
I0925 22:37:30.510215  4510 net.cpp:148] Top shape: 1 1 (1)
I0925 22:37:30.510222  4510 net.cpp:156] Memory required for data: 2004
I0925 22:37:30.510236  4510 layer_factory.hpp:77] Creating layer lstm1_
I0925 22:37:30.510270  4510 net.cpp:91] Creating Layer lstm1_
I0925 22:37:30.510283  4510 net.cpp:399] lstm1_ -> c_0
I0925 22:37:30.510308  4510 net.cpp:399] lstm1_ -> h_0
I0925 22:37:30.510725  4510 net.cpp:141] Setting up lstm1_
I0925 22:37:30.510741  4510 net.cpp:148] Top shape: 1 1 1000 (1000)
I0925 22:37:30.510751  4510 net.cpp:148] Top shape: 1 1 1000 (1000)
I0925 22:37:30.510759  4510 net.cpp:156] Memory required for data: 10004
I0925 22:37:30.510767  4510 layer_factory.hpp:77] Creating layer lstm1_cont_slice
I0925 22:37:30.510782  4510 net.cpp:91] Creating Layer lstm1_cont_slice
I0925 22:37:30.510792  4510 net.cpp:425] lstm1_cont_slice <- cont
I0925 22:37:30.510809  4510 net.cpp:399] lstm1_cont_slice -> cont_1
I0925 22:37:30.512946  4510 net.cpp:141] Setting up lstm1_cont_slice
I0925 22:37:30.513017  4510 net.cpp:148] Top shape: 1 1 (1)
I0925 22:37:30.513028  4510 net.cpp:156] Memory required for data: 10008
I0925 22:37:30.513041  4510 layer_factory.hpp:77] Creating layer cont_1_lstm1_cont_slice_0_split
I0925 22:37:30.513065  4510 net.cpp:91] Creating Layer cont_1_lstm1_cont_slice_0_split
I0925 22:37:30.513083  4510 net.cpp:425] cont_1_lstm1_cont_slice_0_split <- cont_1
I0925 22:37:30.513100  4510 net.cpp:399] cont_1_lstm1_cont_slice_0_split -> cont_1_lstm1_cont_slice_0_split_0
I0925 22:37:30.513121  4510 net.cpp:399] cont_1_lstm1_cont_slice_0_split -> cont_1_lstm1_cont_slice_0_split_1
I0925 22:37:30.513897  4510 net.cpp:141] Setting up cont_1_lstm1_cont_slice_0_split
I0925 22:37:30.513913  4510 net.cpp:148] Top shape: 1 1 (1)
I0925 22:37:30.513924  4510 net.cpp:148] Top shape: 1 1 (1)
I0925 22:37:30.513931  4510 net.cpp:156] Memory required for data: 10016
I0925 22:37:30.513939  4510 layer_factory.hpp:77] Creating layer lstm1_x_transform
I0925 22:37:30.514037  4510 net.cpp:91] Creating Layer lstm1_x_transform
I0925 22:37:30.514068  4510 net.cpp:425] lstm1_x_transform <- x
I0925 22:37:30.514093  4510 net.cpp:399] lstm1_x_transform -> W_xc_x
I0925 22:37:30.543326  4548 net.cpp:141] Setting up lstm1_transform_1
I0925 22:37:30.543895  4548 net.cpp:148] Top shape: 1 1 4000 (4000)
I0925 22:37:30.544028  4548 net.cpp:156] Memory required for data: 62016
I0925 22:37:30.544231  4548 layer_factory.hpp:77] Creating layer lstm1_gate_input_1
I0925 22:37:30.544921  4548 net.cpp:91] Creating Layer lstm1_gate_input_1
I0925 22:37:30.545070  4548 net.cpp:425] lstm1_gate_input_1 <- W_hc_h_0
I0925 22:37:30.545264  4548 net.cpp:425] lstm1_gate_input_1 <- W_xc_x_1
I0925 22:37:30.545398  4548 net.cpp:399] lstm1_gate_input_1 -> gate_input_1
I0925 22:37:30.546226  4548 net.cpp:141] Setting up lstm1_gate_input_1
I0925 22:37:30.546347  4504 net.cpp:141] Setting up embedding
I0925 22:37:30.546430  4548 net.cpp:148] Top shape: 1 1 4000 (4000)
I0925 22:37:30.546746  4504 net.cpp:148] Top shape: 1 1 500 (500)
I0925 22:37:30.546885  4548 net.cpp:156] Memory required for data: 78016
I0925 22:37:30.547044  4504 net.cpp:156] Memory required for data: 22408
I0925 22:37:30.547201  4548 layer_factory.hpp:77] Creating layer lstm1_unit_1
I0925 22:37:30.547227  4504 layer_factory.hpp:77] Creating layer lstm1
I0925 22:37:30.547229  4548 net.cpp:91] Creating Layer lstm1_unit_1
I0925 22:37:30.547260  4548 net.cpp:425] lstm1_unit_1 <- c_0
…
I0925 22:37:30.547336  4504 recurrent_layer.cpp:20] Initializing recurrent layer: assuming input batch contains 1 timesteps of 1 independent streams.
I0925 22:37:30.547760  4504 net.cpp:49] Initializing net from parameters: 
layer {
  name: "lstm1_"
  type: "Input"
  top: "x"
  top: "cont"
  input_param {
    shape {
      dim: 1
      dim: 1
      dim: 500
    }
    shape {
      dim: 1
      dim: 1
    }
  }
}
layer {
  name: "lstm1_"
  type: "Input"
  top: "c_0"
  top: "h_0"
  input_param {
    shape {
      dim: 1
      dim: 1
      dim: 1000
    }
    shape {
      dim: 1
      dim: 1
      dim: 1000
    }
  }
}
layer {
  name: "lstm1_cont_slice"
  type: "Slice"
  bottom: "cont"
  top: "cont_1"
  slice_param {
    axis: 0
  }
}
layer {
  name: "lstm1_x_transform"
  type: "InnerProduct"
  bottom: "x"
  top: "W_xc_x"
  param {
    name: "W_xc"
  }
  param {
    name: "b_c"
  }
  propagate_down: true
  inner_product_param {
    num_output: 4000
    bias_term: true
    weight_filler {
      type: "uniform"
      min: -0.08
      max: 0.08
    }
    bias_filler {
      type: "constant"
      value: 0
    }
    axis: 2
  }
}
layer {
  name: "lstm1_W_xc_x_slice"
  type: "Slice"
  bottom: "W_xc_x"
  top: "W_xc_x_1"
  slice_param {
    axis: 0
  }
}
layer {
  name: "lstm1_h_conted_0"
  type: "Scale"
  bottom: "h_0"
  bottom: "cont_1"
  top: "h_conted_0"
  scale_param {
    axis: 0
  }
}
layer {
  name: "lstm1_transform_1"
  type: "InnerProduct"
  bottom: "h_conted_0"
  top: "W_hc_h_0"
  param {
    name: "W_hc"
  }
  inner_product_param {
    num_output: 4000
    bias_term: false
    weight_filler {
      type: "uniform"
      min: -0.08
      max: 0.08
    }
    axis: 2
  }
}
layer {
  name: "lstm1_gate_input_1"
  type: "Eltwise"
  bottom: "W_hc_h_0"
  bottom: "W_xc_x_1"
  top: "gate_input_1"
  eltwise_param {
    operation: SUM
  }
}
layer {
  name: "lstm1_unit_1"
  type: "LSTMUnit"
  bottom: "c_0"
  bottom: "gate_input_1"
  bottom: "cont_1"
  top: "c_1"
  top: "h_1"
}
layer {
  name: "lstm1_"
  type: "Split"
  bottom: "c_1"
  top: "c_T"
}
layer {
  name: "lstm1_h_concat"
  type: "Concat"
  bottom: "h_1"
  top: "h"
  concat_param {
    axis: 0
  }
}
layer {
  name: "h_pseudoloss"
  type: "Reduction"
  bottom: "h"
  top: "h_pseudoloss"
  loss_weight: 1
}
I0925 22:37:30.547896  4504 layer_factory.hpp:77] Creating layer lstm1_
I0925 22:37:30.547914  4504 net.cpp:91] Creating Layer lstm1_
I0925 22:37:30.547924  4504 net.cpp:399] lstm1_ -> x
I0925 22:37:30.547942  4504 net.cpp:399] lstm1_ -> cont
I0925 22:37:30.550544  4548 net.cpp:141] Setting up lstm1_unit_1
I0925 22:37:30.550568  4548 net.cpp:148] Top shape: 1 1 1000 (1000)
I0925 22:37:30.550578  4548 net.cpp:148] Top shape: 1 1 1000 (1000)
I0925 22:37:30.550585  4548 net.cpp:156] Memory required for data: 86016
I0925 22:37:30.550609  4548 layer_factory.hpp:77] Creating layer lstm1_
I0925 22:37:30.550628  4548 net.cpp:91] Creating Layer lstm1_
I0925 22:37:30.550637  4548 net.cpp:425] lstm1_ <- c_1
I0925 22:37:30.550652  4548 net.cpp:399] lstm1_ -> c_T
I0925 22:37:30.550662  4504 net.cpp:141] Setting up lstm1_
I0925 22:37:30.550683  4504 net.cpp:148] Top shape: 1 1 500 (500)
I0925 22:37:30.550693  4504 net.cpp:148] Top shape: 1 1 (1)
I0925 22:37:30.550700  4504 net.cpp:156] Memory required for data: 2004
I0925 22:37:30.550709  4504 layer_factory.hpp:77] Creating layer lstm1_
I0925 22:37:30.550724  4504 net.cpp:91] Creating Layer lstm1_
I0925 22:37:30.550729  4548 net.cpp:141] Setting up lstm1_
I0925 22:37:30.550740  4504 net.cpp:399] lstm1_ -> c_0
I0925 22:37:30.550745  4548 net.cpp:148] Top shape: 1 1 1000 (1000)
I0925 22:37:30.550752  4548 net.cpp:156] Memory required for data: 90016
I0925 22:37:30.550760  4504 net.cpp:399] lstm1_ -> h_0
I0925 22:37:30.550760  4548 layer_factory.hpp:77] Creating layer lstm1_h_concat
I0925 22:37:30.550801  4548 net.cpp:91] Creating Layer lstm1_h_concat
I0925 22:37:30.550811  4548 net.cpp:425] lstm1_h_concat <- h_1
I0925 22:37:30.550825  4548 net.cpp:399] lstm1_h_concat -> h
I0925 22:37:30.551936  4504 net.cpp:141] Setting up lstm1_
I0925 22:37:30.551954  4504 net.cpp:148] Top shape: 1 1 1000 (1000)
I0925 22:37:30.551964  4504 net.cpp:148] Top shape: 1 1 1000 (1000)
I0925 22:37:30.551971  4504 net.cpp:156] Memory required for data: 10004
I0925 22:37:30.551978  4504 layer_factory.hpp:77] Creating layer lstm1_cont_slice
I0925 22:37:30.551993  4504 net.cpp:91] Creating Layer lstm1_cont_slice
I0925 22:37:30.552001  4504 net.cpp:425] lstm1_cont_slice <- cont
I0925 22:37:30.552023  4542 net.cpp:141] Setting up embedding
I0925 22:37:30.552029  4504 net.cpp:399] lstm1_cont_slice -> cont_1
I0925 22:37:30.552052  4542 net.cpp:148] Top shape: 1 1 500 (500)
I0925 22:37:30.552052  4548 net.cpp:141] Setting up lstm1_h_concat
I0925 22:37:30.552074  4542 net.cpp:156] Memory required for data: 22408
I0925 22:37:30.552081  4548 net.cpp:148] Top shape: 1 1 1000 (1000)
I0925 22:37:30.552089  4548 net.cpp:156] Memory required for data: 94016
I0925 22:37:30.552096  4548 layer_factory.hpp:77] Creating layer h_pseudoloss
I0925 22:37:30.552099  4542 layer_factory.hpp:77] Creating layer lstm1
I0925 22:37:30.552116  4548 net.cpp:91] Creating Layer h_pseudoloss
I0925 22:37:30.552121  4542 net.cpp:91] Creating Layer lstm1
I0925 22:37:30.552124  4548 net.cpp:425] h_pseudoloss <- h
I0925 22:37:30.552140  4542 net.cpp:425] lstm1 <- embedded_input_frames
I0925 22:37:30.552145  4548 net.cpp:399] h_pseudoloss -> h_pseudoloss
I0925 22:37:30.552155  4542 net.cpp:425] lstm1 <- cont_sentence_input_1_split_0
I0925 22:37:30.552181  4542 net.cpp:399] lstm1 -> lstm1
I0925 22:37:30.552206  4542 recurrent_layer.cpp:20] Initializing recurrent layer: assuming input batch contains 1 timesteps of 1 independent streams.
I0925 22:37:30.552259  4504 net.cpp:141] Setting up lstm1_cont_slice
I0925 22:37:30.552274  4504 net.cpp:148] Top shape: 1 1 (1)
I0925 22:37:30.552281  4504 net.cpp:156] Memory required for data: 10008
I0925 22:37:30.552289  4504 layer_factory.hpp:77] Creating layer cont_1_lstm1_cont_slice_0_split
I0925 22:37:30.552305  4504 net.cpp:91] Creating Layer cont_1_lstm1_cont_slice_0_split
I0925 22:37:30.552314  4504 net.cpp:425] cont_1_lstm1_cont_slice_0_split <- cont_1
I0925 22:37:30.552325  4504 net.cpp:399] cont_1_lstm1_cont_slice_0_split -> cont_1_lstm1_cont_slice_0_split_0
I0925 22:37:30.552340  4504 net.cpp:399] cont_1_lstm1_cont_slice_0_split -> cont_1_lstm1_cont_slice_0_split_1
I0925 22:37:30.552578  4504 net.cpp:141] Setting up cont_1_lstm1_cont_slice_0_split
I0925 22:37:30.552593  4504 net.cpp:148] Top shape: 1 1 (1)
I0925 22:37:30.552603  4504 net.cpp:148] Top shape: 1 1 (1)
I0925 22:37:30.552610  4504 net.cpp:156] Memory required for data: 10016
I0925 22:37:30.552618  4504 layer_factory.hpp:77] Creating layer lstm1_x_transform
I0925 22:37:30.552629  4548 net.cpp:141] Setting up h_pseudoloss
I0925 22:37:30.552639  4504 net.cpp:91] Creating Layer lstm1_x_transform
I0925 22:37:30.552646  4548 net.cpp:148] Top shape: (1)
I0925 22:37:30.552650  4504 net.cpp:425] lstm1_x_transform <- x
…
I0925 22:37:30.552816  4548 net.cpp:261] This network produces output h_pseudoloss
I0925 22:37:30.552814  4542 net.cpp:49] Initializing net from parameters: 
layer {
  name: "lstm1_"
  type: "Input"
  top: "x"
  top: "cont"
  input_param {
    shape {
      dim: 1
      dim: 1
      dim: 500
    }
    shape {
      dim: 1
      dim: 1
    }
  }
}
layer {
  name: "lstm1_"
  type: "Input"
  top: "c_0"
  top: "h_0"
  input_param {
    shape {
      dim: 1
      dim: 1
      dim: 1000
    }
    shape {
      dim: 1
      dim: 1
      dim: 1000
    }
  }
}
layer {
  name: "lstm1_cont_slice"
  type: "Slice"
  bottom: "cont"
  top: "cont_1"
  slice_param {
    axis: 0
  }
}
layer {
  name: "lstm1_x_transform"
  type: "InnerProduct"
  bottom: "x"
  top: "W_xc_x"
  param {
    name: "W_xc"
  }
  param {
    name: "b_c"
  }
  propagate_down: true
  inner_product_param {
    num_output: 4000
    bias_term: true
    weight_filler {
      type: "uniform"
      min: -0.08
      max: 0.08
    }
    bias_filler {
      type: "constant"
      value: 0
    }
    axis: 2
  }
}
layer {
  name: "lstm1_W_xc_x_slice"
  type: "Slice"
  bottom: "W_xc_x"
  top: "W_xc_x_1"
  slice_param {
    axis: 0
  }
}
layer {
  name: "lstm1_h_conted_0"
  type: "Scale"
  bottom: "h_0"
  bottom: "cont_1"
  top: "h_conted_0"
  scale_param {
    axis: 0
  }
}
layer {
  name: "lstm1_transform_1"
  type: "InnerProduct"
  bottom: "h_conted_0"
  top: "W_hc_h_0"
  param {
    name: "W_hc"
  }
  inner_product_param {
    num_output: 4000
    bias_term: false
    weight_filler {
      type: "uniform"
      min: -0.08
      max: 0.08
    }
    axis: 2
  }
}
layer {
  name: "lstm1_gate_input_1"
  type: "Eltwise"
  bottom: "W_hc_h_0"
  bottom: "W_xc_x_1"
  top: "gate_input_1"
  eltwise_param {
    operation: SUM
  }
}
layer {
  name: "lstm1_unit_1"
  type: "LSTMUnit"
  bottom: "c_0"
  bottom: "gate_input_1"
  bottom: "cont_1"
  top: "c_1"
  top: "h_1"
}
layer {
  name: "lstm1_"
  type: "Split"
  bottom: "c_1"
  top: "c_T"
}
layer {
  name: "lstm1_h_concat"
  type: "Concat"
  bottom: "h_1"
  top: "h"
  concat_param {
    axis: 0
  }
}
layer {
  name: "h_pseudoloss"
  type: "Reduction"
  bottom: "h"
  top: "h_pseudoloss"
  loss_weight: 1
}
I0925 22:37:30.552847  4548 net.cpp:274] Network initialization done.
I0925 22:37:30.552922  4548 recurrent_layer.cpp:150] Adding parameter 0: W_xc
I0925 22:37:30.552930  4548 recurrent_layer.cpp:150] Adding parameter 1: b_c
I0925 22:37:30.552938  4548 recurrent_layer.cpp:150] Adding parameter 2: W_hc
I0925 22:37:30.557258  4542 layer_factory.hpp:77] Creating layer lstm1_
I0925 22:37:30.557301  4542 net.cpp:91] Creating Layer lstm1_
I0925 22:37:30.557317  4542 net.cpp:399] lstm1_ -> x
I0925 22:37:30.557340  4542 net.cpp:399] lstm1_ -> cont
I0925 22:37:30.558053  4548 net.cpp:141] Setting up lstm1
I0925 22:37:30.558073  4548 net.cpp:148] Top shape: 1 1 1000 (1000)
I0925 22:37:30.558079  4548 net.cpp:156] Memory required for data: 26408
I0925 22:37:30.558102  4548 layer_factory.hpp:77] Creating layer concat
I0925 22:37:30.558116  4548 net.cpp:91] Creating Layer concat
I0925 22:37:30.558125  4548 net.cpp:425] concat <- lstm1
I0925 22:37:30.558135  4548 net.cpp:425] concat <- embedded_input_sentence
I0925 22:37:30.558145  4548 net.cpp:425] concat <- reshaped_stage_indicator
I0925 22:37:30.558156  4548 net.cpp:399] concat -> lstm1_video_sequence
I0925 22:37:30.558207  4548 net.cpp:141] Setting up concat
I0925 22:37:30.558220  4548 net.cpp:148] Top shape: 1 1 1501 (1501)
I0925 22:37:30.558228  4548 net.cpp:156] Memory required for data: 32412
I0925 22:37:30.558235  4548 layer_factory.hpp:77] Creating layer lstm2
I0925 22:37:30.558251  4548 net.cpp:91] Creating Layer lstm2
I0925 22:37:30.558259  4548 net.cpp:425] lstm2 <- lstm1_video_sequence
I0925 22:37:30.558269  4548 net.cpp:425] lstm2 <- cont_sentence_input_1_split_1
I0925 22:37:30.558280  4548 net.cpp:399] lstm2 -> lstm2
I0925 22:37:30.558295  4548 recurrent_layer.cpp:20] Initializing recurrent layer: assuming input batch contains 1 timesteps of 1 independent streams.
I0925 22:37:30.558665  4548 net.cpp:49] Initializing net from parameters: 
layer {
  name: "lstm2_"
  type: "Input"
  top: "x"
  top: "cont"
  input_param {
    shape {
      dim: 1
      dim: 1
      dim: 1501
    }
    shape {
      dim: 1
      dim: 1
    }
  }
}
layer {
  name: "lstm2_"
  type: "Input"
  top: "c_0"
  top: "h_0"
  input_param {
    shape {
      dim: 1
      dim: 1
      dim: 1000
    }
    shape {
      dim: 1
      dim: 1
      dim: 1000
    }
  }
}
layer {
  name: "lstm2_cont_slice"
  type: "Slice"
  bottom: "cont"
  top: "cont_1"
  slice_param {
    axis: 0
  }
}
layer {
  name: "lstm2_x_transform"
  type: "InnerProduct"
  bottom: "x"
  top: "W_xc_x"
  param {
    name: "W_xc"
  }
  param {
    name: "b_c"
  }
  propagate_down: true
  inner_product_param {
    num_output: 4000
    bias_term: true
    weight_filler {
      type: "uniform"
      min: -0.08
      max: 0.08
    }
    bias_filler {
      type: "constant"
      value: 0
    }
    axis: 2
  }
}
layer {
  name: "lstm2_W_xc_x_slice"
  type: "Slice"
  bottom: "W_xc_x"
  top: "W_xc_x_1"
  slice_param {
    axis: 0
  }
}
layer {
  name: "lstm2_h_conted_0"
  type: "Scale"
  bottom: "h_0"
  bottom: "cont_1"
  top: "h_conted_0"
  scale_param {
    axis: 0
  }
}
layer {
  name: "lstm2_transform_1"
  type: "InnerProduct"
  bottom: "h_conted_0"
  top: "W_hc_h_0"
  param {
    name: "W_hc"
  }
  inner_product_param {
    num_output: 4000
    bias_term: false
    weight_filler {
      type: "uniform"
      min: -0.08
      max: 0.08
    }
    axis: 2
  }
}
layer {
  name: "lstm2_gate_input_1"
  type: "Eltwise"
  bottom: "W_hc_h_0"
  bottom: "W_xc_x_1"
  top: "gate_input_1"
  eltwise_param {
    operation: SUM
  }
}
layer {
  name: "lstm2_unit_1"
  type: "LSTMUnit"
  bottom: "c_0"
  bottom: "gate_input_1"
  bottom: "cont_1"
  top: "c_1"
  top: "h_1"
}
layer {
  name: "lstm2_"
  type: "Split"
  bottom: "c_1"
  top: "c_T"
}
layer {
  name: "lstm2_h_concat"
  type: "Concat"
  bottom: "h_1"
  top: "h"
  concat_param {
    axis: 0
  }
}
layer {
  name: "h_pseudoloss"
  type: "Reduction"
  bottom: "h"
  top: "h_pseudoloss"
  loss_weight: 1
}
I0925 22:37:30.558789  4548 layer_factory.hpp:77] Creating layer lstm2_
I0925 22:37:30.558804  4548 net.cpp:91] Creating Layer lstm2_
I0925 22:37:30.558815  4548 net.cpp:399] lstm2_ -> x
I0925 22:37:30.558830  4548 net.cpp:399] lstm2_ -> cont
I0925 22:37:30.558957  4522 net.cpp:141] Setting up lstm1_transform_1
I0925 22:37:30.558979  4522 net.cpp:148] Top shape: 1 1 4000 (4000)
I0925 22:37:30.558987  4522 net.cpp:156] Memory required for data: 62016
I0925 22:37:30.559005  4522 layer_factory.hpp:77] Creating layer lstm1_gate_input_1
I0925 22:37:30.559026  4522 net.cpp:91] Creating Layer lstm1_gate_input_1
I0925 22:37:30.559031  4548 net.cpp:141] Setting up lstm2_
I0925 22:37:30.559036  4522 net.cpp:425] lstm1_gate_input_1 <- W_hc_h_0
I0925 22:37:30.559046  4548 net.cpp:148] Top shape: 1 1 1501 (1501)
I0925 22:37:30.559047  4522 net.cpp:425] lstm1_gate_input_1 <- W_xc_x_1
I0925 22:37:30.559067  4548 net.cpp:148] Top shape: 1 1 (1)
I0925 22:37:30.559073  4548 net.cpp:156] Memory required for data: 6008
I0925 22:37:30.559075  4522 net.cpp:399] lstm1_gate_input_1 -> gate_input_1
I0925 22:37:30.559082  4548 layer_factory.hpp:77] Creating layer lstm2_
I0925 22:37:30.559098  4548 net.cpp:91] Creating Layer lstm2_
I0925 22:37:30.559109  4548 net.cpp:399] lstm2_ -> c_0
I0925 22:37:30.559125  4548 net.cpp:399] lstm2_ -> h_0
I0925 22:37:30.559998  4522 net.cpp:141] Setting up lstm1_gate_input_1
I0925 22:37:30.560014  4522 net.cpp:148] Top shape: 1 1 4000 (4000)
I0925 22:37:30.560021  4522 net.cpp:156] Memory required for data: 78016
I0925 22:37:30.560029  4522 layer_factory.hpp:77] Creating layer lstm1_unit_1
I0925 22:37:30.560042  4522 net.cpp:91] Creating Layer lstm1_unit_1
I0925 22:37:30.560050  4522 net.cpp:425] lstm1_unit_1 <- c_0
I0925 22:37:30.560060  4522 net.cpp:425] lstm1_unit_1 <- gate_input_1
I0925 22:37:30.560061  4548 net.cpp:141] Setting up lstm2_
I0925 22:37:30.560068  4522 net.cpp:425] lstm1_unit_1 <- cont_1_lstm1_cont_slice_0_split_1
I0925 22:37:30.560077  4548 net.cpp:148] Top shape: 1 1 1000 (1000)
I0925 22:37:30.560080  4522 net.cpp:399] lstm1_unit_1 -> c_1
I0925 22:37:30.560086  4548 net.cpp:148] Top shape: 1 1 1000 (1000)
I0925 22:37:30.560093  4548 net.cpp:156] Memory required for data: 14008
I0925 22:37:30.560094  4522 net.cpp:399] lstm1_unit_1 -> h_1
I0925 22:37:30.560101  4548 layer_factory.hpp:77] Creating layer lstm2_cont_slice
I0925 22:37:30.560114  4548 net.cpp:91] Creating Layer lstm2_cont_slice
I0925 22:37:30.560122  4548 net.cpp:425] lstm2_cont_slice <- cont
I0925 22:37:30.560133  4548 net.cpp:399] lstm2_cont_slice -> cont_1
I0925 22:37:30.560263  4522 net.cpp:141] Setting up lstm1_unit_1
I0925 22:37:30.560279  4522 net.cpp:148] Top shape: 1 1 1000 (1000)
I0925 22:37:30.560289  4522 net.cpp:148] Top shape: 1 1 1000 (1000)
I0925 22:37:30.560297  4522 net.cpp:156] Memory required for data: 86016
I0925 22:37:30.560304  4522 layer_factory.hpp:77] Creating layer lstm1_
I0925 22:37:30.560309  4548 net.cpp:141] Setting up lstm2_cont_slice
I0925 22:37:30.560319  4522 net.cpp:91] Creating Layer lstm1_
I0925 22:37:30.560324  4548 net.cpp:148] Top shape: 1 1 (1)
I0925 22:37:30.560328  4522 net.cpp:425] lstm1_ <- c_1
I0925 22:37:30.560331  4548 net.cpp:156] Memory required for data: 14012
I0925 22:37:30.560338  4548 layer_factory.hpp:77] Creating layer cont_1_lstm2_cont_slice_0_split
I0925 22:37:30.560339  4522 net.cpp:399] lstm1_ -> c_T
I0925 22:37:30.560350  4548 net.cpp:91] Creating Layer cont_1_lstm2_cont_slice_0_split
I0925 22:37:30.560358  4548 net.cpp:425] cont_1_lstm2_cont_slice_0_split <- cont_1
I0925 22:37:30.560408  4522 net.cpp:141] Setting up lstm1_
I0925 22:37:30.560402  4510 net.cpp:141] Setting up lstm1_x_transform
I0925 22:37:30.560431  4522 net.cpp:148] Top shape: 1 1 1000 (1000)
I0925 22:37:30.560403  4548 net.cpp:399] cont_1_lstm2_cont_slice_0_split -> cont_1_lstm2_cont_slice_0_split_0
I0925 22:37:30.560438  4522 net.cpp:156] Memory required for data: 90016
I0925 22:37:30.560443  4510 net.cpp:148] Top shape: 1 1 4000 (4000)
I0925 22:37:30.560447  4522 layer_factory.hpp:77] Creating layer lstm1_h_concat
I0925 22:37:30.560449  4548 net.cpp:399] cont_1_lstm2_cont_slice_0_split -> cont_1_lstm2_cont_slice_0_split_1
I0925 22:37:30.560459  4522 net.cpp:91] Creating Layer lstm1_h_concat
I0925 22:37:30.560451  4510 net.cpp:156] Memory required for data: 26016
I0925 22:37:30.560467  4522 net.cpp:425] lstm1_h_concat <- h_1
I0925 22:37:30.560483  4522 net.cpp:399] lstm1_h_concat -> h
I0925 22:37:30.560484  4510 layer_factory.hpp:77] Creating layer lstm1_W_xc_x_slice
I0925 22:37:30.560498  4510 net.cpp:91] Creating Layer lstm1_W_xc_x_slice
I0925 22:37:30.560508  4510 net.cpp:425] lstm1_W_xc_x_slice <- W_xc_x
I0925 22:37:30.560528  4510 net.cpp:399] lstm1_W_xc_x_slice -> W_xc_x_1
I0925 22:37:30.568986  4548 net.cpp:141] Setting up cont_1_lstm2_cont_slice_0_split
I0925 22:37:30.569016  4542 net.cpp:141] Setting up lstm1_
I0925 22:37:30.569026  4548 net.cpp:148] Top shape: 1 1 (1)
I0925 22:37:30.569037  4548 net.cpp:148] Top shape: 1 1 (1)
I0925 22:37:30.569038  4542 net.cpp:148] Top shape: 1 1 500 (500)
I0925 22:37:30.569044  4548 net.cpp:156] Memory required for data: 14020
I0925 22:37:30.569051  4542 net.cpp:148] Top shape: 1 1 (1)
I0925 22:37:30.569056  4548 layer_factory.hpp:77] Creating layer lstm2_x_transform
I0925 22:37:30.569058  4542 net.cpp:156] Memory required for data: 2004
I0925 22:37:30.569068  4542 layer_factory.hpp:77] Creating layer lstm1_
I0925 22:37:30.569082  4548 net.cpp:91] Creating Layer lstm2_x_transform
I0925 22:37:30.569088  4542 net.cpp:91] Creating Layer lstm1_
I0925 22:37:30.569092  4548 net.cpp:425] lstm2_x_transform <- x
I0925 22:37:30.569133  4542 net.cpp:399] lstm1_ -> c_0
I0925 22:37:30.569135  4548 net.cpp:399] lstm2_x_transform -> W_xc_x
I0925 22:37:30.569162  4510 net.cpp:141] Setting up lstm1_W_xc_x_slice
I0925 22:37:30.569170  4542 net.cpp:399] lstm1_ -> h_0
I0925 22:37:30.569182  4510 net.cpp:148] Top shape: 1 1 4000 (4000)
I0925 22:37:30.569192  4510 net.cpp:156] Memory required for data: 42016
I0925 22:37:30.569200  4510 layer_factory.hpp:77] Creating layer lstm1_h_conted_0
I0925 22:37:30.569216  4510 net.cpp:91] Creating Layer lstm1_h_conted_0
I0925 22:37:30.569226  4510 net.cpp:425] lstm1_h_conted_0 <- h_0
I0925 22:37:30.569236  4510 net.cpp:425] lstm1_h_conted_0 <- cont_1_lstm1_cont_slice_0_split_0
I0925 22:37:30.569306  4510 net.cpp:399] lstm1_h_conted_0 -> h_conted_0
I0925 22:37:30.569306  4542 net.cpp:141] Setting up lstm1_
I0925 22:37:30.569331  4542 net.cpp:148] Top shape: 1 1 1000 (1000)
I0925 22:37:30.569341  4542 net.cpp:148] Top shape: 1 1 1000 (1000)
I0925 22:37:30.569349  4542 net.cpp:156] Memory required for data: 10004
I0925 22:37:30.569356  4542 layer_factory.hpp:77] Creating layer lstm1_cont_slice
I0925 22:37:30.569371  4542 net.cpp:91] Creating Layer lstm1_cont_slice
I0925 22:37:30.569380  4542 net.cpp:425] lstm1_cont_slice <- cont
I0925 22:37:30.569397  4542 net.cpp:399] lstm1_cont_slice -> cont_1
I0925 22:37:30.584324  4542 net.cpp:141] Setting up lstm1_cont_slice
I0925 22:37:30.584370  4542 net.cpp:148] Top shape: 1 1 (1)
I0925 22:37:30.584379  4542 net.cpp:156] Memory required for data: 10008
I0925 22:37:30.584391  4542 layer_factory.hpp:77] Creating layer cont_1_lstm1_cont_slice_0_split
I0925 22:37:30.584426  4542 net.cpp:91] Creating Layer cont_1_lstm1_cont_slice_0_split
I0925 22:37:30.584439  4542 net.cpp:425] cont_1_lstm1_cont_slice_0_split <- cont_1
I0925 22:37:30.584456  4542 net.cpp:399] cont_1_lstm1_cont_slice_0_split -> cont_1_lstm1_cont_slice_0_split_0
I0925 22:37:30.584483  4542 net.cpp:399] cont_1_lstm1_cont_slice_0_split -> cont_1_lstm1_cont_slice_0_split_1
I0925 22:37:30.584589  4542 net.cpp:141] Setting up cont_1_lstm1_cont_slice_0_split
I0925 22:37:30.584609  4542 net.cpp:148] Top shape: 1 1 (1)
I0925 22:37:30.584622  4542 net.cpp:148] Top shape: 1 1 (1)
I0925 22:37:30.584631  4542 net.cpp:156] Memory required for data: 10016
I0925 22:37:30.584641  4542 layer_factory.hpp:77] Creating layer lstm1_x_transform
I0925 22:37:30.584671  4542 net.cpp:91] Creating Layer lstm1_x_transform
I0925 22:37:30.584682  4542 net.cpp:425] lstm1_x_transform <- x
I0925 22:37:30.584700  4542 net.cpp:399] lstm1_x_transform -> W_xc_x
I0925 22:37:30.590934  4522 net.cpp:141] Setting up lstm1_h_concat
I0925 22:37:30.590978  4522 net.cpp:148] Top shape: 1 1 1000 (1000)
I0925 22:37:30.590986  4522 net.cpp:156] Memory required for data: 94016
I0925 22:37:30.590997  4522 layer_factory.hpp:77] Creating layer h_pseudoloss
I0925 22:37:30.591017  4522 net.cpp:91] Creating Layer h_pseudoloss
I0925 22:37:30.591025  4522 net.cpp:425] h_pseudoloss <- h
I0925 22:37:30.591039  4522 net.cpp:399] h_pseudoloss -> h_pseudoloss
I0925 22:37:30.591179  4522 net.cpp:141] Setting up h_pseudoloss
…
I0925 22:37:30.591328  4522 net.cpp:219] lstm1_ does not need backward computation.
I0925 22:37:30.591334  4522 net.cpp:261] This network produces output c_T
I0925 22:37:30.591341  4522 net.cpp:261] This network produces output h_pseudoloss
I0925 22:37:30.591363  4522 net.cpp:274] Network initialization done.
I0925 22:37:30.591428  4522 recurrent_layer.cpp:150] Adding parameter 0: W_xc
I0925 22:37:30.591436  4522 recurrent_layer.cpp:150] Adding parameter 1: b_c
I0925 22:37:30.591444  4522 recurrent_layer.cpp:150] Adding parameter 2: W_hc
I0925 22:37:30.591570  4522 net.cpp:141] Setting up lstm1
I0925 22:37:30.591585  4522 net.cpp:148] Top shape: 1 1 1000 (1000)
I0925 22:37:30.591593  4522 net.cpp:156] Memory required for data: 26408
I0925 22:37:30.591614  4522 layer_factory.hpp:77] Creating layer concat
I0925 22:37:30.591627  4522 net.cpp:91] Creating Layer concat
I0925 22:37:30.591635  4522 net.cpp:425] concat <- lstm1
I0925 22:37:30.591645  4522 net.cpp:425] concat <- embedded_input_sentence
I0925 22:37:30.591653  4522 net.cpp:425] concat <- reshaped_stage_indicator
I0925 22:37:30.591672  4522 net.cpp:399] concat -> lstm1_video_sequence
I0925 22:37:30.591717  4522 net.cpp:141] Setting up concat
I0925 22:37:30.591730  4522 net.cpp:148] Top shape: 1 1 1501 (1501)
I0925 22:37:30.591737  4522 net.cpp:156] Memory required for data: 32412
I0925 22:37:30.591744  4522 layer_factory.hpp:77] Creating layer lstm2
I0925 22:37:30.591761  4522 net.cpp:91] Creating Layer lstm2
I0925 22:37:30.591768  4522 net.cpp:425] lstm2 <- lstm1_video_sequence
I0925 22:37:30.591778  4522 net.cpp:425] lstm2 <- cont_sentence_input_1_split_1
I0925 22:37:30.591789  4522 net.cpp:399] lstm2 -> lstm2
I0925 22:37:30.591804  4522 recurrent_layer.cpp:20] Initializing recurrent layer: assuming input batch contains 1 timesteps of 1 independent streams.
I0925 22:37:30.592152  4522 net.cpp:49] Initializing net from parameters: 
layer {
  name: "lstm2_"
  type: "Input"
  top: "x"
  top: "cont"
  input_param {
    shape {
      dim: 1
      dim: 1
      dim: 1501
    }
    shape {
      dim: 1
      dim: 1
    }
  }
}
layer {
  name: "lstm2_"
  type: "Input"
  top: "c_0"
  top: "h_0"
  input_param {
    shape {
      dim: 1
      dim: 1
      dim: 1000
    }
    shape {
      dim: 1
      dim: 1
      dim: 1000
    }
  }
}
layer {
  name: "lstm2_cont_slice"
  type: "Slice"
  bottom: "cont"
  top: "cont_1"
  slice_param {
    axis: 0
  }
}
layer {
  name: "lstm2_x_transform"
  type: "InnerProduct"
  bottom: "x"
  top: "W_xc_x"
  param {
    name: "W_xc"
  }
  param {
    name: "b_c"
  }
  propagate_down: true
  inner_product_param {
    num_output: 4000
    bias_term: true
    weight_filler {
      type: "uniform"
      min: -0.08
      max: 0.08
    }
    bias_filler {
      type: "constant"
      value: 0
    }
    axis: 2
  }
}
layer {
  name: "lstm2_W_xc_x_slice"
  type: "Slice"
  bottom: "W_xc_x"
  top: "W_xc_x_1"
  slice_param {
    axis: 0
  }
}
layer {
  name: "lstm2_h_conted_0"
  type: "Scale"
  bottom: "h_0"
  bottom: "cont_1"
  top: "h_conted_0"
  scale_param {
    axis: 0
  }
}
layer {
  name: "lstm2_transform_1"
  type: "InnerProduct"
  bottom: "h_conted_0"
  top: "W_hc_h_0"
  param {
    name: "W_hc"
  }
  inner_product_param {
    num_output: 4000
    bias_term: false
    weight_filler {
      type: "uniform"
      min: -0.08
      max: 0.08
    }
    axis: 2
  }
}
layer {
  name: "lstm2_gate_input_1"
  type: "Eltwise"
  bottom: "W_hc_h_0"
  bottom: "W_xc_x_1"
  top: "gate_input_1"
  eltwise_param {
    operation: SUM
  }
}
layer {
  name: "lstm2_unit_1"
  type: "LSTMUnit"
  bottom: "c_0"
  bottom: "gate_input_1"
  bottom: "cont_1"
  top: "c_1"
  top: "h_1"
}
layer {
  name: "lstm2_"
  type: "Split"
  bottom: "c_1"
  top: "c_T"
}
layer {
  name: "lstm2_h_concat"
  type: "Concat"
  bottom: "h_1"
  top: "h"
  concat_param {
    axis: 0
  }
}
layer {
  name: "h_pseudoloss"
  type: "Reduction"
  bottom: "h"
  top: "h_pseudoloss"
  loss_weight: 1
}
I0925 22:37:30.592272  4522 layer_factory.hpp:77] Creating layer lstm2_
I0925 22:37:30.592286  4522 net.cpp:91] Creating Layer lstm2_
I0925 22:37:30.592295  4522 net.cpp:399] lstm2_ -> x
I0925 22:37:30.592310  4522 net.cpp:399] lstm2_ -> cont
I0925 22:37:30.592380  4522 net.cpp:141] Setting up lstm2_
I0925 22:37:30.592393  4522 net.cpp:148] Top shape: 1 1 1501 (1501)
I0925 22:37:30.592402  4522 net.cpp:148] Top shape: 1 1 (1)
I0925 22:37:30.592409  4522 net.cpp:156] Memory required for data: 6008
I0925 22:37:30.592417  4522 layer_factory.hpp:77] Creating layer lstm2_
I0925 22:37:30.592428  4522 net.cpp:91] Creating Layer lstm2_
I0925 22:37:30.592440  4522 net.cpp:399] lstm2_ -> c_0
I0925 22:37:30.592455  4522 net.cpp:399] lstm2_ -> h_0
I0925 22:37:30.592520  4522 net.cpp:141] Setting up lstm2_
I0925 22:37:30.592533  4522 net.cpp:148] Top shape: 1 1 1000 (1000)
I0925 22:37:30.592542  4522 net.cpp:148] Top shape: 1 1 1000 (1000)
I0925 22:37:30.592548  4522 net.cpp:156] Memory required for data: 14008
I0925 22:37:30.592555  4522 layer_factory.hpp:77] Creating layer lstm2_cont_slice
I0925 22:37:30.592567  4522 net.cpp:91] Creating Layer lstm2_cont_slice
I0925 22:37:30.592574  4522 net.cpp:425] lstm2_cont_slice <- cont
I0925 22:37:30.592586  4522 net.cpp:399] lstm2_cont_slice -> cont_1
I0925 22:37:30.592629  4522 net.cpp:141] Setting up lstm2_cont_slice
I0925 22:37:30.592641  4522 net.cpp:148] Top shape: 1 1 (1)
I0925 22:37:30.592648  4522 net.cpp:156] Memory required for data: 14012
I0925 22:37:30.592654  4522 layer_factory.hpp:77] Creating layer cont_1_lstm2_cont_slice_0_split
I0925 22:37:30.592667  4522 net.cpp:91] Creating Layer cont_1_lstm2_cont_slice_0_split
I0925 22:37:30.592674  4522 net.cpp:425] cont_1_lstm2_cont_slice_0_split <- cont_1
I0925 22:37:30.592684  4522 net.cpp:399] cont_1_lstm2_cont_slice_0_split -> cont_1_lstm2_cont_slice_0_split_0
I0925 22:37:30.592696  4522 net.cpp:399] cont_1_lstm2_cont_slice_0_split -> cont_1_lstm2_cont_slice_0_split_1
I0925 22:37:30.592757  4522 net.cpp:141] Setting up cont_1_lstm2_cont_slice_0_split
I0925 22:37:30.592769  4522 net.cpp:148] Top shape: 1 1 (1)
I0925 22:37:30.592778  4522 net.cpp:148] Top shape: 1 1 (1)
I0925 22:37:30.592784  4522 net.cpp:156] Memory required for data: 14020
I0925 22:37:30.592792  4522 layer_factory.hpp:77] Creating layer lstm2_x_transform
I0925 22:37:30.592808  4522 net.cpp:91] Creating Layer lstm2_x_transform
I0925 22:37:30.592814  4522 net.cpp:425] lstm2_x_transform <- x
I0925 22:37:30.592826  4522 net.cpp:399] lstm2_x_transform -> W_xc_x
I0925 22:37:30.592911  4510 net.cpp:141] Setting up lstm1_h_conted_0
I0925 22:37:30.592928  4510 net.cpp:148] Top shape: 1 1 1000 (1000)
I0925 22:37:30.592936  4510 net.cpp:156] Memory required for data: 46016
I0925 22:37:30.592943  4510 layer_factory.hpp:77] Creating layer lstm1_transform_1
I0925 22:37:30.592958  4510 net.cpp:91] Creating Layer lstm1_transform_1
I0925 22:37:30.592967  4510 net.cpp:425] lstm1_transform_1 <- h_conted_0
I0925 22:37:30.592989  4510 net.cpp:399] lstm1_transform_1 -> W_hc_h_0
I0925 22:37:30.617050  4508 net.cpp:141] Setting up embedding
I0925 22:37:30.617100  4508 net.cpp:148] Top shape: 1 1 500 (500)
I0925 22:37:30.617110  4508 net.cpp:156] Memory required for data: 22408
I0925 22:37:30.617132  4508 layer_factory.hpp:77] Creating layer lstm1
I0925 22:37:30.617161  4508 net.cpp:91] Creating Layer lstm1
I0925 22:37:30.617174  4508 net.cpp:425] lstm1 <- embedded_input_frames
I0925 22:37:30.617185  4508 net.cpp:425] lstm1 <- cont_sentence_input_1_split_0
I0925 22:37:30.617199  4508 net.cpp:399] lstm1 -> lstm1
I0925 22:37:30.617223  4508 recurrent_layer.cpp:20] Initializing recurrent layer: assuming input batch contains 1 timesteps of 1 independent streams.
I0925 22:37:30.617633  4508 net.cpp:49] Initializing net from parameters: 
layer {
  name: "lstm1_"
  type: "Input"
  top: "x"
  top: "cont"
  input_param {
    shape {
      dim: 1
      dim: 1
      dim: 500
    }
    shape {
      dim: 1
      dim: 1
    }
  }
}
layer {
  name: "lstm1_"
  type: "Input"
  top: "c_0"
  top: "h_0"
  input_param {
    shape {
      dim: 1
      dim: 1
      dim: 1000
    }
    shape {
      dim: 1
      dim: 1
      dim: 1000
    }
  }
}
layer {
  name: "lstm1_cont_slice"
  type: "Slice"
  bottom: "cont"
  top: "cont_1"
  slice_param {
    axis: 0
  }
}
layer {
  name: "lstm1_x_transform"
  type: "InnerProduct"
  bottom: "x"
  top: "W_xc_x"
  param {
    name: "W_xc"
  }
  param {
    name: "b_c"
  }
  propagate_down: true
  inner_product_param {
    num_output: 4000
    bias_term: true
    weight_filler {
      type: "uniform"
      min: -0.08
      max: 0.08
    }
    bias_filler {
      type: "constant"
      value: 0
    }
    axis: 2
  }
}
layer {
  name: "lstm1_W_xc_x_slice"
  type: "Slice"
  bottom: "W_xc_x"
  top: "W_xc_x_1"
  slice_param {
    axis: 0
  }
}
layer {
  name: "lstm1_h_conted_0"
  type: "Scale"
  bottom: "h_0"
  bottom: "cont_1"
  top: "h_conted_0"
  scale_param {
    axis: 0
  }
}
layer {
  name: "lstm1_transform_1"
  type: "InnerProduct"
  bottom: "h_conted_0"
  top: "W_hc_h_0"
  param {
    name: "W_hc"
  }
  inner_product_param {
    num_output: 4000
    bias_term: false
    weight_filler {
      type: "uniform"
      min: -0.08
      max: 0.08
    }
    axis: 2
  }
}
layer {
  name: "lstm1_gate_input_1"
  type: "Eltwise"
  bottom: "W_hc_h_0"
  bottom: "W_xc_x_1"
  top: "gate_input_1"
  eltwise_param {
    operation: SUM
  }
}
layer {
  name: "lstm1_unit_1"
  type: "LSTMUnit"
  bottom: "c_0"
  bottom: "gate_input_1"
  bottom: "cont_1"
  top: "c_1"
  top: "h_1"
}
layer {
  name: "lstm1_"
  type: "Split"
  bottom: "c_1"
  top: "c_T"
}
layer {
  name: "lstm1_h_concat"
  type: "Concat"
  bottom: "h_1"
  top: "h"
  concat_param {
    axis: 0
  }
}
layer {
  name: "h_pseudoloss"
  type: "Reduction"
  bottom: "h"
  top: "h_pseudoloss"
  loss_weight: 1
}
I0925 22:37:30.617768  4508 layer_factory.hpp:77] Creating layer lstm1_
I0925 22:37:30.617785  4508 net.cpp:91] Creating Layer lstm1_
I0925 22:37:30.617797  4508 net.cpp:399] lstm1_ -> x
I0925 22:37:30.617815  4508 net.cpp:399] lstm1_ -> cont
I0925 22:37:30.625211  4504 net.cpp:141] Setting up lstm1_x_transform
I0925 22:37:30.625260  4504 net.cpp:148] Top shape: 1 1 4000 (4000)
I0925 22:37:30.625273  4504 net.cpp:156] Memory required for data: 26016
I0925 22:37:30.625303  4504 layer_factory.hpp:77] Creating layer lstm1_W_xc_x_slice
I0925 22:37:30.625327  4504 net.cpp:91] Creating Layer lstm1_W_xc_x_slice
I0925 22:37:30.625339  4504 net.cpp:425] lstm1_W_xc_x_slice <- W_xc_x
I0925 22:37:30.625342  4508 net.cpp:141] Setting up lstm1_
I0925 22:37:30.625356  4504 net.cpp:399] lstm1_W_xc_x_slice -> W_xc_x_1
I0925 22:37:30.625362  4508 net.cpp:148] Top shape: 1 1 500 (500)
I0925 22:37:30.625373  4508 net.cpp:148] Top shape: 1 1 (1)
I0925 22:37:30.625380  4508 net.cpp:156] Memory required for data: 2004
I0925 22:37:30.625389  4508 layer_factory.hpp:77] Creating layer lstm1_
I0925 22:37:30.625413  4508 net.cpp:91] Creating Layer lstm1_
I0925 22:37:30.625425  4508 net.cpp:399] lstm1_ -> c_0
I0925 22:37:30.625448  4508 net.cpp:399] lstm1_ -> h_0
I0925 22:37:30.625449  4504 net.cpp:141] Setting up lstm1_W_xc_x_slice
I0925 22:37:30.625468  4504 net.cpp:148] Top shape: 1 1 4000 (4000)
I0925 22:37:30.625476  4504 net.cpp:156] Memory required for data: 42016
I0925 22:37:30.625485  4504 layer_factory.hpp:77] Creating layer lstm1_h_conted_0
I0925 22:37:30.625502  4504 net.cpp:91] Creating Layer lstm1_h_conted_0
I0925 22:37:30.625512  4504 net.cpp:425] lstm1_h_conted_0 <- h_0
I0925 22:37:30.625524  4504 net.cpp:425] lstm1_h_conted_0 <- cont_1_lstm1_cont_slice_0_split_0
I0925 22:37:30.625537  4504 net.cpp:399] lstm1_h_conted_0 -> h_conted_0
I0925 22:37:30.625541  4542 net.cpp:141] Setting up lstm1_x_transform
I0925 22:37:30.625581  4542 net.cpp:148] Top shape: 1 1 4000 (4000)
I0925 22:37:30.625591  4542 net.cpp:156] Memory required for data: 26016
I0925 22:37:30.625618  4542 layer_factory.hpp:77] Creating layer lstm1_W_xc_x_slice
I0925 22:37:30.625639  4542 net.cpp:91] Creating Layer lstm1_W_xc_x_slice
I0925 22:37:30.625648  4542 net.cpp:425] lstm1_W_xc_x_slice <- W_xc_x
I0925 22:37:30.625658  4508 net.cpp:141] Setting up lstm1_
I0925 22:37:30.625663  4542 net.cpp:399] lstm1_W_xc_x_slice -> W_xc_x_1
I0925 22:37:30.625676  4508 net.cpp:148] Top shape: 1 1 1000 (1000)
I0925 22:37:30.625687  4508 net.cpp:148] Top shape: 1 1 1000 (1000)
I0925 22:37:30.625694  4508 net.cpp:156] Memory required for data: 10004
I0925 22:37:30.625702  4508 layer_factory.hpp:77] Creating layer lstm1_cont_slice
I0925 22:37:30.625718  4508 net.cpp:91] Creating Layer lstm1_cont_slice
I0925 22:37:30.625727  4508 net.cpp:425] lstm1_cont_slice <- cont
I0925 22:37:30.625741  4508 net.cpp:399] lstm1_cont_slice -> cont_1
I0925 22:37:30.625803  4542 net.cpp:141] Setting up lstm1_W_xc_x_slice
I0925 22:37:30.625816  4542 net.cpp:148] Top shape: 1 1 4000 (4000)
I0925 22:37:30.625821  4542 net.cpp:156] Memory required for data: 42016
I0925 22:37:30.625828  4542 layer_factory.hpp:77] Creating layer lstm1_h_conted_0
I0925 22:37:30.625838  4542 net.cpp:91] Creating Layer lstm1_h_conted_0
I0925 22:37:30.625844  4542 net.cpp:425] lstm1_h_conted_0 <- h_0
I0925 22:37:30.625851  4542 net.cpp:425] lstm1_h_conted_0 <- cont_1_lstm1_cont_slice_0_split_0
I0925 22:37:30.625861  4542 net.cpp:399] lstm1_h_conted_0 -> h_conted_0
I0925 22:37:30.625923  4504 net.cpp:141] Setting up lstm1_h_conted_0
I0925 22:37:30.625943  4504 net.cpp:148] Top shape: 1 1 1000 (1000)
I0925 22:37:30.625952  4504 net.cpp:156] Memory required for data: 46016
I0925 22:37:30.625957  4508 net.cpp:141] Setting up lstm1_cont_slice
I0925 22:37:30.625962  4504 layer_factory.hpp:77] Creating layer lstm1_transform_1
I0925 22:37:30.625983  4508 net.cpp:148] Top shape: 1 1 (1)
I0925 22:37:30.625991  4508 net.cpp:156] Memory required for data: 10008
I0925 22:37:30.625998  4504 net.cpp:91] Creating Layer lstm1_transform_1
I0925 22:37:30.625999  4508 layer_factory.hpp:77] Creating layer cont_1_lstm1_cont_slice_0_split
I0925 22:37:30.626014  4504 net.cpp:425] lstm1_transform_1 <- h_conted_0
I0925 22:37:30.626022  4508 net.cpp:91] Creating Layer cont_1_lstm1_cont_slice_0_split
I0925 22:37:30.626032  4508 net.cpp:425] cont_1_lstm1_cont_slice_0_split <- cont_1
I0925 22:37:30.626031  4504 net.cpp:399] lstm1_transform_1 -> W_hc_h_0
I0925 22:37:30.626055  4508 net.cpp:399] cont_1_lstm1_cont_slice_0_split -> cont_1_lstm1_cont_slice_0_split_0
I0925 22:37:30.626070  4508 net.cpp:399] cont_1_lstm1_cont_slice_0_split -> cont_1_lstm1_cont_slice_0_split_1
I0925 22:37:30.626109  4542 net.cpp:141] Setting up lstm1_h_conted_0
I0925 22:37:30.626124  4542 net.cpp:148] Top shape: 1 1 1000 (1000)
I0925 22:37:30.626129  4542 net.cpp:156] Memory required for data: 46016
I0925 22:37:30.626134  4542 layer_factory.hpp:77] Creating layer lstm1_transform_1
I0925 22:37:30.626148  4542 net.cpp:91] Creating Layer lstm1_transform_1
I0925 22:37:30.626153  4542 net.cpp:425] lstm1_transform_1 <- h_conted_0
I0925 22:37:30.626163  4542 net.cpp:399] lstm1_transform_1 -> W_hc_h_0
I0925 22:37:30.626284  4508 net.cpp:141] Setting up cont_1_lstm1_cont_slice_0_split
I0925 22:37:30.626301  4508 net.cpp:148] Top shape: 1 1 (1)
I0925 22:37:30.626310  4508 net.cpp:148] Top shape: 1 1 (1)
I0925 22:37:30.626317  4508 net.cpp:156] Memory required for data: 10016
I0925 22:37:30.626325  4508 layer_factory.hpp:77] Creating layer lstm1_x_transform
I0925 22:37:30.626345  4508 net.cpp:91] Creating Layer lstm1_x_transform
I0925 22:37:30.626353  4508 net.cpp:425] lstm1_x_transform <- x
I0925 22:37:30.626369  4508 net.cpp:399] lstm1_x_transform -> W_xc_x
I0925 22:37:30.651916  4548 net.cpp:141] Setting up lstm2_x_transform
I0925 22:37:30.655135  4548 net.cpp:148] Top shape: 1 1 4000 (4000)
I0925 22:37:30.655632  4548 net.cpp:156] Memory required for data: 30020
I0925 22:37:30.655788  4548 layer_factory.hpp:77] Creating layer lstm2_W_xc_x_slice
I0925 22:37:30.655998  4548 net.cpp:91] Creating Layer lstm2_W_xc_x_slice
I0925 22:37:30.656216  4548 net.cpp:425] lstm2_W_xc_x_slice <- W_xc_x
I0925 22:37:30.656384  4548 net.cpp:399] lstm2_W_xc_x_slice -> W_xc_x_1
I0925 22:37:30.656713  4548 net.cpp:141] Setting up lstm2_W_xc_x_slice
I0925 22:37:30.656858  4548 net.cpp:148] Top shape: 1 1 4000 (4000)
I0925 22:37:30.657019  4548 net.cpp:156] Memory required for data: 46020
I0925 22:37:30.657366  4548 layer_factory.hpp:77] Creating layer lstm2_h_conted_0
I0925 22:37:30.657513  4548 net.cpp:91] Creating Layer lstm2_h_conted_0
I0925 22:37:30.657655  4548 net.cpp:425] lstm2_h_conted_0 <- h_0
I0925 22:37:30.657798  4548 net.cpp:425] lstm2_h_conted_0 <- cont_1_lstm2_cont_slice_0_split_0
I0925 22:37:30.657948  4548 net.cpp:399] lstm2_h_conted_0 -> h_conted_0
I0925 22:37:30.659200  4548 net.cpp:141] Setting up lstm2_h_conted_0
I0925 22:37:30.659533  4548 net.cpp:148] Top shape: 1 1 1000 (1000)
I0925 22:37:30.659680  4548 net.cpp:156] Memory required for data: 50020
I0925 22:37:30.659809  4548 layer_factory.hpp:77] Creating layer lstm2_transform_1
I0925 22:37:30.659957  4548 net.cpp:91] Creating Layer lstm2_transform_1
I0925 22:37:30.660094  4548 net.cpp:425] lstm2_transform_1 <- h_conted_0
I0925 22:37:30.660276  4548 net.cpp:399] lstm2_transform_1 -> W_hc_h_0
I0925 22:37:30.672173  4510 net.cpp:141] Setting up lstm1_transform_1
I0925 22:37:30.672696  4510 net.cpp:148] Top shape: 1 1 4000 (4000)
I0925 22:37:30.672442  4508 net.cpp:141] Setting up lstm1_x_transform
I0925 22:37:30.672869  4510 net.cpp:156] Memory required for data: 62016
I0925 22:37:30.673071  4510 layer_factory.hpp:77] Creating layer lstm1_gate_input_1
I0925 22:37:30.672226  4514 net.cpp:141] Setting up embedding
I0925 22:37:30.673143  4514 net.cpp:148] Top shape: 1 1 500 (500)
I0925 22:37:30.673154  4514 net.cpp:156] Memory required for data: 22408
I0925 22:37:30.673174  4514 layer_factory.hpp:77] Creating layer lstm1
I0925 22:37:30.673178  4510 net.cpp:91] Creating Layer lstm1_gate_input_1
I0925 22:37:30.673192  4510 net.cpp:425] lstm1_gate_input_1 <- W_hc_h_0
I0925 22:37:30.673193  4514 net.cpp:91] Creating Layer lstm1
I0925 22:37:30.673203  4514 net.cpp:425] lstm1 <- embedded_input_frames
I0925 22:37:30.673216  4514 net.cpp:425] lstm1 <- cont_sentence_input_1_split_0
I0925 22:37:30.673235  4514 net.cpp:399] lstm1 -> lstm1
I0925 22:37:30.673259  4514 recurrent_layer.cpp:20] Initializing recurrent layer: assuming input batch contains 1 timesteps of 1 independent streams.
I0925 22:37:30.673626  4510 net.cpp:425] lstm1_gate_input_1 <- W_xc_x_1
I0925 22:37:30.673648  4510 net.cpp:399] lstm1_gate_input_1 -> gate_input_1
I0925 22:37:30.673718  4514 net.cpp:49] Initializing net from parameters: 
layer {
  name: "lstm1_"
  type: "Input"
  top: "x"
  top: "cont"
  input_param {
    shape {
      dim: 1
      dim: 1
      dim: 500
    }
    shape {
      dim: 1
      dim: 1
    }
  }
}
layer {
  name: "lstm1_"
  type: "Input"
  top: "c_0"
  top: "h_0"
  input_param {
    shape {
      dim: 1
      dim: 1
      dim: 1000
    }
    shape {
      dim: 1
      dim: 1
      dim: 1000
    }
  }
}
layer {
  name: "lstm1_cont_slice"
  type: "Slice"
  bottom: "cont"
  top: "cont_1"
  slice_param {
    axis: 0
  }
}
layer {
  name: "lstm1_x_transform"
  type: "InnerProduct"
  bottom: "x"
  top: "W_xc_x"
  param {
    name: "W_xc"
  }
  param {
    name: "b_c"
  }
  propagate_down: true
  inner_product_param {
    num_output: 4000
    bias_term: true
    weight_filler {
      type: "uniform"
      min: -0.08
      max: 0.08
    }
    bias_filler {
      type: "constant"
      value: 0
    }
    axis: 2
  }
}
layer {
  name: "lstm1_W_xc_x_slice"
  type: "Slice"
  bottom: "W_xc_x"
  top: "W_xc_x_1"
  slice_param {
    axis: 0
  }
}
layer {
  name: "lstm1_h_conted_0"
  type: "Scale"
  bottom: "h_0"
  bottom: "cont_1"
  top: "h_conted_0"
  scale_param {
    axis: 0
  }
}
layer {
  name: "lstm1_transform_1"
  type: "InnerProduct"
  bottom: "h_conted_0"
  top: "W_hc_h_0"
  param {
    name: "W_hc"
  }
  inner_product_param {
    num_output: 4000
    bias_term: false
    weight_filler {
      type: "uniform"
      min: -0.08
      max: 0.08
    }
    axis: 2
  }
}
layer {
  name: "lstm1_gate_input_1"
  type: "Eltwise"
  bottom: "W_hc_h_0"
  bottom: "W_xc_x_1"
  top: "gate_input_1"
  eltwise_param {
    operation: SUM
  }
}
layer {
  name: "lstm1_unit_1"
  type: "LSTMUnit"
  bottom: "c_0"
  bottom: "gate_input_1"
  bottom: "cont_1"
  top: "c_1"
  top: "h_1"
}
layer {
  name: "lstm1_"
  type: "Split"
  bottom: "c_1"
  top: "c_T"
}
layer {
  name: "lstm1_h_concat"
  type: "Concat"
  bottom: "h_1"
  top: "h"
  concat_param {
    axis: 0
  }
}
layer {
  name: "h_pseudoloss"
  type: "Reduction"
  bottom: "h"
  top: "h_pseudoloss"
  loss_weight: 1
}
I0925 22:37:30.673859  4514 layer_factory.hpp:77] Creating layer lstm1_
I0925 22:37:30.673879  4514 net.cpp:91] Creating Layer lstm1_
I0925 22:37:30.673892  4514 net.cpp:399] lstm1_ -> x
I0925 22:37:30.673909  4514 net.cpp:399] lstm1_ -> cont
I0925 22:37:30.675652  4510 net.cpp:141] Setting up lstm1_gate_input_1
I0925 22:37:30.675678  4510 net.cpp:148] Top shape: 1 1 4000 (4000)
I0925 22:37:30.675688  4510 net.cpp:156] Memory required for data: 78016
I0925 22:37:30.675698  4510 layer_factory.hpp:77] Creating layer lstm1_unit_1
I0925 22:37:30.675714  4510 net.cpp:91] Creating Layer lstm1_unit_1
I0925 22:37:30.675721  4510 net.cpp:425] lstm1_unit_1 <- c_0
I0925 22:37:30.675731  4510 net.cpp:425] lstm1_unit_1 <- gate_input_1
I0925 22:37:30.675740  4510 net.cpp:425] lstm1_unit_1 <- cont_1_lstm1_cont_slice_0_split_1
I0925 22:37:30.675757  4510 net.cpp:399] lstm1_unit_1 -> c_1
I0925 22:37:30.675773  4510 net.cpp:399] lstm1_unit_1 -> h_1
I0925 22:37:30.675868  4514 net.cpp:141] Setting up lstm1_
I0925 22:37:30.675884  4514 net.cpp:148] Top shape: 1 1 500 (500)
I0925 22:37:30.675890  4514 net.cpp:148] Top shape: 1 1 (1)
I0925 22:37:30.675894  4514 net.cpp:156] Memory required for data: 2004
I0925 22:37:30.675900  4514 layer_factory.hpp:77] Creating layer lstm1_
I0925 22:37:30.675930  4514 net.cpp:91] Creating Layer lstm1_
I0925 22:37:30.675951  4514 net.cpp:399] lstm1_ -> c_0
I0925 22:37:30.675987  4514 net.cpp:399] lstm1_ -> h_0
I0925 22:37:30.675987  4510 net.cpp:141] Setting up lstm1_unit_1
I0925 22:37:30.676023  4510 net.cpp:148] Top shape: 1 1 1000 (1000)
I0925 22:37:30.676038  4510 net.cpp:148] Top shape: 1 1 1000 (1000)
I0925 22:37:30.676046  4510 net.cpp:156] Memory required for data: 86016
I0925 22:37:30.676055  4510 layer_factory.hpp:77] Creating layer lstm1_
I0925 22:37:30.676069  4510 net.cpp:91] Creating Layer lstm1_
I0925 22:37:30.676077  4510 net.cpp:425] lstm1_ <- c_1
I0925 22:37:30.676075  4522 net.cpp:141] Setting up lstm2_x_transform
I0925 22:37:30.676090  4510 net.cpp:399] lstm1_ -> c_T
I0925 22:37:30.676096  4522 net.cpp:148] Top shape: 1 1 4000 (4000)
I0925 22:37:30.676105  4522 net.cpp:156] Memory required for data: 30020
I0925 22:37:30.676125  4522 layer_factory.hpp:77] Creating layer lstm2_W_xc_x_slice
I0925 22:37:30.676137  4522 net.cpp:91] Creating Layer lstm2_W_xc_x_slice
I0925 22:37:30.676146  4522 net.cpp:425] lstm2_W_xc_x_slice <- W_xc_x
I0925 22:37:30.676167  4522 net.cpp:399] lstm2_W_xc_x_slice -> W_xc_x_1
I0925 22:37:30.676165  4514 net.cpp:141] Setting up lstm1_
I0925 22:37:30.676194  4514 net.cpp:148] Top shape: 1 1 1000 (1000)
I0925 22:37:30.676205  4514 net.cpp:148] Top shape: 1 1 1000 (1000)
I0925 22:37:30.676214  4514 net.cpp:156] Memory required for data: 10004
I0925 22:37:30.676223  4514 layer_factory.hpp:77] Creating layer lstm1_cont_slice
I0925 22:37:30.676232  4522 net.cpp:141] Setting up lstm2_W_xc_x_slice
I0925 22:37:30.676242  4514 net.cpp:91] Creating Layer lstm1_cont_slice
I0925 22:37:30.676247  4522 net.cpp:148] Top shape: 1 1 4000 (4000)
I0925 22:37:30.676251  4514 net.cpp:425] lstm1_cont_slice <- cont
I0925 22:37:30.676254  4522 net.cpp:156] Memory required for data: 46020
I0925 22:37:30.676262  4522 layer_factory.hpp:77] Creating layer lstm2_h_conted_0
I0925 22:37:30.676270  4514 net.cpp:399] lstm1_cont_slice -> cont_1
I0925 22:37:30.676275  4522 net.cpp:91] Creating Layer lstm2_h_conted_0
I0925 22:37:30.676283  4522 net.cpp:425] lstm2_h_conted_0 <- h_0
I0925 22:37:30.676293  4522 net.cpp:425] lstm2_h_conted_0 <- cont_1_lstm2_cont_slice_0_split_0
I0925 22:37:30.676311  4522 net.cpp:399] lstm2_h_conted_0 -> h_conted_0
I0925 22:37:30.673040  4508 net.cpp:148] Top shape: 1 1 4000 (4000)
I0925 22:37:30.678182  4508 net.cpp:156] Memory required for data: 26016
I0925 22:37:30.678221  4508 layer_factory.hpp:77] Creating layer lstm1_W_xc_x_slice
I0925 22:37:30.678244  4508 net.cpp:91] Creating Layer lstm1_W_xc_x_slice
I0925 22:37:30.678256  4508 net.cpp:425] lstm1_W_xc_x_slice <- W_xc_x
I0925 22:37:30.678272  4508 net.cpp:399] lstm1_W_xc_x_slice -> W_xc_x_1
I0925 22:37:30.680272  4510 net.cpp:141] Setting up lstm1_
I0925 22:37:30.680289  4514 net.cpp:141] Setting up lstm1_cont_slice
I0925 22:37:30.680313  4514 net.cpp:148] Top shape: 1 1 (1)
I0925 22:37:30.680313  4510 net.cpp:148] Top shape: 1 1 1000 (1000)
I0925 22:37:30.680328  4514 net.cpp:156] Memory required for data: 10008
I0925 22:37:30.680333  4510 net.cpp:156] Memory required for data: 90016
I0925 22:37:30.680341  4510 layer_factory.hpp:77] Creating layer lstm1_h_concat
I0925 22:37:30.680341  4514 layer_factory.hpp:77] Creating layer cont_1_lstm1_cont_slice_0_split
I0925 22:37:30.680364  4514 net.cpp:91] Creating Layer cont_1_lstm1_cont_slice_0_split
I0925 22:37:30.680364  4510 net.cpp:91] Creating Layer lstm1_h_concat
I0925 22:37:30.680382  4514 net.cpp:425] cont_1_lstm1_cont_slice_0_split <- cont_1
I0925 22:37:30.680384  4510 net.cpp:425] lstm1_h_concat <- h_1
I0925 22:37:30.680402  4510 net.cpp:399] lstm1_h_concat -> h
I0925 22:37:30.680407  4514 net.cpp:399] cont_1_lstm1_cont_slice_0_split -> cont_1_lstm1_cont_slice_0_split_0
I0925 22:37:30.680421  4514 net.cpp:399] cont_1_lstm1_cont_slice_0_split -> cont_1_lstm1_cont_slice_0_split_1
I0925 22:37:30.680436  4508 net.cpp:141] Setting up lstm1_W_xc_x_slice
I0925 22:37:30.680460  4508 net.cpp:148] Top shape: 1 1 4000 (4000)
I0925 22:37:30.680471  4508 net.cpp:156] Memory required for data: 42016
I0925 22:37:30.680480  4508 layer_factory.hpp:77] Creating layer lstm1_h_conted_0
I0925 22:37:30.680495  4508 net.cpp:91] Creating Layer lstm1_h_conted_0
I0925 22:37:30.680501  4508 net.cpp:425] lstm1_h_conted_0 <- h_0
I0925 22:37:30.680508  4508 net.cpp:425] lstm1_h_conted_0 <- cont_1_lstm1_cont_slice_0_split_0
I0925 22:37:30.680516  4508 net.cpp:399] lstm1_h_conted_0 -> h_conted_0
I0925 22:37:30.680583  4514 net.cpp:141] Setting up cont_1_lstm1_cont_slice_0_split
I0925 22:37:30.680604  4514 net.cpp:148] Top shape: 1 1 (1)
I0925 22:37:30.680616  4514 net.cpp:148] Top shape: 1 1 (1)
I0925 22:37:30.680624  4514 net.cpp:156] Memory required for data: 10016
I0925 22:37:30.680626  4510 net.cpp:141] Setting up lstm1_h_concat
I0925 22:37:30.680634  4514 layer_factory.hpp:77] Creating layer lstm1_x_transform
I0925 22:37:30.680639  4510 net.cpp:148] Top shape: 1 1 1000 (1000)
I0925 22:37:30.680646  4510 net.cpp:156] Memory required for data: 94016
I0925 22:37:30.680655  4510 layer_factory.hpp:77] Creating layer h_pseudoloss
I0925 22:37:30.680655  4514 net.cpp:91] Creating Layer lstm1_x_transform
I0925 22:37:30.680672  4510 net.cpp:91] Creating Layer h_pseudoloss
I0925 22:37:30.680672  4514 net.cpp:425] lstm1_x_transform <- x
I0925 22:37:30.680672  4522 net.cpp:141] Setting up lstm2_h_conted_0
I0925 22:37:30.680692  4510 net.cpp:425] h_pseudoloss <- h
I0925 22:37:30.680696  4514 net.cpp:399] lstm1_x_transform -> W_xc_x
I0925 22:37:30.680702  4522 net.cpp:148] Top shape: 1 1 1000 (1000)
I0925 22:37:30.680704  4510 net.cpp:399] h_pseudoloss -> h_pseudoloss
I0925 22:37:30.680711  4522 net.cpp:156] Memory required for data: 50020
I0925 22:37:30.680718  4522 layer_factory.hpp:77] Creating layer lstm2_transform_1
I0925 22:37:30.680732  4522 net.cpp:91] Creating Layer lstm2_transform_1
I0925 22:37:30.680742  4522 net.cpp:425] lstm2_transform_1 <- h_conted_0
I0925 22:37:30.680757  4522 net.cpp:399] lstm2_transform_1 -> W_hc_h_0
I0925 22:37:30.688079  4542 net.cpp:141] Setting up lstm1_transform_1
I0925 22:37:30.688122  4542 net.cpp:148] Top shape: 1 1 4000 (4000)
I0925 22:37:30.688127  4542 net.cpp:156] Memory required for data: 62016
I0925 22:37:30.688144  4542 layer_factory.hpp:77] Creating layer lstm1_gate_input_1
I0925 22:37:30.688161  4542 net.cpp:91] Creating Layer lstm1_gate_input_1
I0925 22:37:30.688169  4542 net.cpp:425] lstm1_gate_input_1 <- W_hc_h_0
I0925 22:37:30.688175  4542 net.cpp:425] lstm1_gate_input_1 <- W_xc_x_1
I0925 22:37:30.688184  4542 net.cpp:399] lstm1_gate_input_1 -> gate_input_1
I0925 22:37:30.688233  4542 net.cpp:141] Setting up lstm1_gate_input_1
I0925 22:37:30.688242  4542 net.cpp:148] Top shape: 1 1 4000 (4000)
I0925 22:37:30.688247  4542 net.cpp:156] Memory required for data: 78016
I0925 22:37:30.688252  4542 layer_factory.hpp:77] Creating layer lstm1_unit_1
I0925 22:37:30.688263  4542 net.cpp:91] Creating Layer lstm1_unit_1
I0925 22:37:30.688268  4542 net.cpp:425] lstm1_unit_1 <- c_0
I0925 22:37:30.688274  4542 net.cpp:425] lstm1_unit_1 <- gate_input_1
I0925 22:37:30.688280  4542 net.cpp:425] lstm1_unit_1 <- cont_1_lstm1_cont_slice_0_split_1
I0925 22:37:30.688287  4542 net.cpp:399] lstm1_unit_1 -> c_1
I0925 22:37:30.688297  4542 net.cpp:399] lstm1_unit_1 -> h_1
I0925 22:37:30.688359  4542 net.cpp:141] Setting up lstm1_unit_1
I0925 22:37:30.688369  4542 net.cpp:148] Top shape: 1 1 1000 (1000)
I0925 22:37:30.688375  4542 net.cpp:148] Top shape: 1 1 1000 (1000)
I0925 22:37:30.688380  4542 net.cpp:156] Memory required for data: 86016
I0925 22:37:30.688385  4542 layer_factory.hpp:77] Creating layer lstm1_
I0925 22:37:30.688393  4542 net.cpp:91] Creating Layer lstm1_
I0925 22:37:30.688398  4542 net.cpp:425] lstm1_ <- c_1
I0925 22:37:30.688405  4542 net.cpp:399] lstm1_ -> c_T
I0925 22:37:30.688436  4542 net.cpp:141] Setting up lstm1_
I0925 22:37:30.688444  4542 net.cpp:148] Top shape: 1 1 1000 (1000)
I0925 22:37:30.688449  4542 net.cpp:156] Memory required for data: 90016
I0925 22:37:30.688454  4542 layer_factory.hpp:77] Creating layer lstm1_h_concat
I0925 22:37:30.688467  4542 net.cpp:91] Creating Layer lstm1_h_concat
I0925 22:37:30.688473  4542 net.cpp:425] lstm1_h_concat <- h_1
I0925 22:37:30.688482  4542 net.cpp:399] lstm1_h_concat -> h
I0925 22:37:30.688516  4542 net.cpp:141] Setting up lstm1_h_concat
I0925 22:37:30.688524  4542 net.cpp:148] Top shape: 1 1 1000 (1000)
I0925 22:37:30.688529  4542 net.cpp:156] Memory required for data: 94016
I0925 22:37:30.688534  4542 layer_factory.hpp:77] Creating layer h_pseudoloss
I0925 22:37:30.688542  4542 net.cpp:91] Creating Layer h_pseudoloss
I0925 22:37:30.688547  4542 net.cpp:425] h_pseudoloss <- h
I0925 22:37:30.688558  4542 net.cpp:399] h_pseudoloss -> h_pseudoloss
I0925 22:37:30.688644  4542 net.cpp:141] Setting up h_pseudoloss
…
I0925 22:37:30.688751  4542 net.cpp:219] lstm1_ does not need backward computation.
I0925 22:37:30.688756  4542 net.cpp:261] This network produces output c_T
I0925 22:37:30.688761  4542 net.cpp:261] This network produces output h_pseudoloss
I0925 22:37:30.688781  4542 net.cpp:274] Network initialization done.
I0925 22:37:30.688827  4542 recurrent_layer.cpp:150] Adding parameter 0: W_xc
I0925 22:37:30.688832  4542 recurrent_layer.cpp:150] Adding parameter 1: b_c
I0925 22:37:30.688838  4542 recurrent_layer.cpp:150] Adding parameter 2: W_hc
I0925 22:37:30.688933  4542 net.cpp:141] Setting up lstm1
I0925 22:37:30.688944  4542 net.cpp:148] Top shape: 1 1 1000 (1000)
I0925 22:37:30.688949  4542 net.cpp:156] Memory required for data: 26408
I0925 22:37:30.688963  4542 layer_factory.hpp:77] Creating layer concat
I0925 22:37:30.688972  4542 net.cpp:91] Creating Layer concat
I0925 22:37:30.688979  4542 net.cpp:425] concat <- lstm1
I0925 22:37:30.688987  4542 net.cpp:425] concat <- embedded_input_sentence
I0925 22:37:30.688992  4542 net.cpp:425] concat <- reshaped_stage_indicator
I0925 22:37:30.688999  4542 net.cpp:399] concat -> lstm1_video_sequence
I0925 22:37:30.689030  4542 net.cpp:141] Setting up concat
I0925 22:37:30.689039  4542 net.cpp:148] Top shape: 1 1 1501 (1501)
I0925 22:37:30.689044  4542 net.cpp:156] Memory required for data: 32412
I0925 22:37:30.689049  4542 layer_factory.hpp:77] Creating layer lstm2
I0925 22:37:30.689061  4542 net.cpp:91] Creating Layer lstm2
I0925 22:37:30.689066  4542 net.cpp:425] lstm2 <- lstm1_video_sequence
I0925 22:37:30.689074  4542 net.cpp:425] lstm2 <- cont_sentence_input_1_split_1
I0925 22:37:30.689080  4542 net.cpp:399] lstm2 -> lstm2
I0925 22:37:30.689091  4542 recurrent_layer.cpp:20] Initializing recurrent layer: assuming input batch contains 1 timesteps of 1 independent streams.
I0925 22:37:30.689345  4542 net.cpp:49] Initializing net from parameters: 
layer {
  name: "lstm2_"
  type: "Input"
  top: "x"
  top: "cont"
  input_param {
    shape {
      dim: 1
      dim: 1
      dim: 1501
    }
    shape {
      dim: 1
      dim: 1
    }
  }
}
layer {
  name: "lstm2_"
  type: "Input"
  top: "c_0"
  top: "h_0"
  input_param {
    shape {
      dim: 1
      dim: 1
      dim: 1000
    }
    shape {
      dim: 1
      dim: 1
      dim: 1000
    }
  }
}
layer {
  name: "lstm2_cont_slice"
  type: "Slice"
  bottom: "cont"
  top: "cont_1"
  slice_param {
    axis: 0
  }
}
layer {
  name: "lstm2_x_transform"
  type: "InnerProduct"
  bottom: "x"
  top: "W_xc_x"
  param {
    name: "W_xc"
  }
  param {
    name: "b_c"
  }
  propagate_down: true
  inner_product_param {
    num_output: 4000
    bias_term: true
    weight_filler {
      type: "uniform"
      min: -0.08
      max: 0.08
    }
    bias_filler {
      type: "constant"
      value: 0
    }
    axis: 2
  }
}
layer {
  name: "lstm2_W_xc_x_slice"
  type: "Slice"
  bottom: "W_xc_x"
  top: "W_xc_x_1"
  slice_param {
    axis: 0
  }
}
layer {
  name: "lstm2_h_conted_0"
  type: "Scale"
  bottom: "h_0"
  bottom: "cont_1"
  top: "h_conted_0"
  scale_param {
    axis: 0
  }
}
layer {
  name: "lstm2_transform_1"
  type: "InnerProduct"
  bottom: "h_conted_0"
  top: "W_hc_h_0"
  param {
    name: "W_hc"
  }
  inner_product_param {
    num_output: 4000
    bias_term: false
    weight_filler {
      type: "uniform"
      min: -0.08
      max: 0.08
    }
    axis: 2
  }
}
layer {
  name: "lstm2_gate_input_1"
  type: "Eltwise"
  bottom: "W_hc_h_0"
  bottom: "W_xc_x_1"
  top: "gate_input_1"
  eltwise_param {
    operation: SUM
  }
}
layer {
  name: "lstm2_unit_1"
  type: "LSTMUnit"
  bottom: "c_0"
  bottom: "gate_input_1"
  bottom: "cont_1"
  top: "c_1"
  top: "h_1"
}
layer {
  name: "lstm2_"
  type: "Split"
  bottom: "c_1"
  top: "c_T"
}
layer {
  name: "lstm2_h_concat"
  type: "Concat"
  bottom: "h_1"
  top: "h"
  concat_param {
    axis: 0
  }
}
layer {
  name: "h_pseudoloss"
  type: "Reduction"
  bottom: "h"
  top: "h_pseudoloss"
  loss_weight: 1
}
I0925 22:37:30.689431  4542 layer_factory.hpp:77] Creating layer lstm2_
I0925 22:37:30.689443  4542 net.cpp:91] Creating Layer lstm2_
I0925 22:37:30.689450  4542 net.cpp:399] lstm2_ -> x
I0925 22:37:30.689460  4542 net.cpp:399] lstm2_ -> cont
I0925 22:37:30.689512  4542 net.cpp:141] Setting up lstm2_
I0925 22:37:30.689520  4542 net.cpp:148] Top shape: 1 1 1501 (1501)
I0925 22:37:30.689527  4542 net.cpp:148] Top shape: 1 1 (1)
I0925 22:37:30.689532  4542 net.cpp:156] Memory required for data: 6008
I0925 22:37:30.689537  4542 layer_factory.hpp:77] Creating layer lstm2_
I0925 22:37:30.689545  4542 net.cpp:91] Creating Layer lstm2_
I0925 22:37:30.689551  4542 net.cpp:399] lstm2_ -> c_0
I0925 22:37:30.689561  4542 net.cpp:399] lstm2_ -> h_0
I0925 22:37:30.689610  4542 net.cpp:141] Setting up lstm2_
I0925 22:37:30.689620  4542 net.cpp:148] Top shape: 1 1 1000 (1000)
I0925 22:37:30.689626  4542 net.cpp:148] Top shape: 1 1 1000 (1000)
I0925 22:37:30.689630  4542 net.cpp:156] Memory required for data: 14008
I0925 22:37:30.689635  4542 layer_factory.hpp:77] Creating layer lstm2_cont_slice
I0925 22:37:30.689645  4542 net.cpp:91] Creating Layer lstm2_cont_slice
I0925 22:37:30.689649  4542 net.cpp:425] lstm2_cont_slice <- cont
I0925 22:37:30.689659  4542 net.cpp:399] lstm2_cont_slice -> cont_1
I0925 22:37:30.689692  4542 net.cpp:141] Setting up lstm2_cont_slice
I0925 22:37:30.689702  4542 net.cpp:148] Top shape: 1 1 (1)
I0925 22:37:30.689705  4542 net.cpp:156] Memory required for data: 14012
I0925 22:37:30.689710  4542 layer_factory.hpp:77] Creating layer cont_1_lstm2_cont_slice_0_split
I0925 22:37:30.689718  4542 net.cpp:91] Creating Layer cont_1_lstm2_cont_slice_0_split
I0925 22:37:30.689723  4542 net.cpp:425] cont_1_lstm2_cont_slice_0_split <- cont_1
I0925 22:37:30.689728  4542 net.cpp:399] cont_1_lstm2_cont_slice_0_split -> cont_1_lstm2_cont_slice_0_split_0
I0925 22:37:30.689738  4542 net.cpp:399] cont_1_lstm2_cont_slice_0_split -> cont_1_lstm2_cont_slice_0_split_1
I0925 22:37:30.689785  4542 net.cpp:141] Setting up cont_1_lstm2_cont_slice_0_split
I0925 22:37:30.689795  4542 net.cpp:148] Top shape: 1 1 (1)
I0925 22:37:30.689801  4542 net.cpp:148] Top shape: 1 1 (1)
I0925 22:37:30.689805  4542 net.cpp:156] Memory required for data: 14020
I0925 22:37:30.689810  4542 layer_factory.hpp:77] Creating layer lstm2_x_transform
I0925 22:37:30.689824  4542 net.cpp:91] Creating Layer lstm2_x_transform
I0925 22:37:30.689829  4542 net.cpp:425] lstm2_x_transform <- x
I0925 22:37:30.689838  4542 net.cpp:399] lstm2_x_transform -> W_xc_x
I0925 22:37:30.701899  4510 net.cpp:141] Setting up h_pseudoloss
…
I0925 22:37:30.711057  4510 net.cpp:219] lstm1_ does not need backward computation.
I0925 22:37:30.711061  4510 net.cpp:261] This network produces output c_T
I0925 22:37:30.711068  4510 net.cpp:261] This network produces output h_pseudoloss
I0925 22:37:30.711088  4510 net.cpp:274] Network initialization done.
I0925 22:37:30.711151  4510 recurrent_layer.cpp:150] Adding parameter 0: W_xc
I0925 22:37:30.711159  4510 recurrent_layer.cpp:150] Adding parameter 1: b_c
I0925 22:37:30.711164  4510 recurrent_layer.cpp:150] Adding parameter 2: W_hc
I0925 22:37:30.712313  4504 net.cpp:141] Setting up lstm1_transform_1
I0925 22:37:30.712343  4504 net.cpp:148] Top shape: 1 1 4000 (4000)
I0925 22:37:30.712349  4504 net.cpp:156] Memory required for data: 62016
I0925 22:37:30.712366  4504 layer_factory.hpp:77] Creating layer lstm1_gate_input_1
I0925 22:37:30.712384  4504 net.cpp:91] Creating Layer lstm1_gate_input_1
I0925 22:37:30.712393  4504 net.cpp:425] lstm1_gate_input_1 <- W_hc_h_0
I0925 22:37:30.712400  4504 net.cpp:425] lstm1_gate_input_1 <- W_xc_x_1
I0925 22:37:30.712409  4504 net.cpp:399] lstm1_gate_input_1 -> gate_input_1
I0925 22:37:30.712463  4504 net.cpp:141] Setting up lstm1_gate_input_1
I0925 22:37:30.712473  4504 net.cpp:148] Top shape: 1 1 4000 (4000)
I0925 22:37:30.712478  4504 net.cpp:156] Memory required for data: 78016
I0925 22:37:30.712483  4504 layer_factory.hpp:77] Creating layer lstm1_unit_1
I0925 22:37:30.712494  4504 net.cpp:91] Creating Layer lstm1_unit_1
I0925 22:37:30.712501  4504 net.cpp:425] lstm1_unit_1 <- c_0
I0925 22:37:30.712507  4504 net.cpp:425] lstm1_unit_1 <- gate_input_1
I0925 22:37:30.712512  4504 net.cpp:425] lstm1_unit_1 <- cont_1_lstm1_cont_slice_0_split_1
I0925 22:37:30.712519  4504 net.cpp:399] lstm1_unit_1 -> c_1
I0925 22:37:30.712528  4504 net.cpp:399] lstm1_unit_1 -> h_1
I0925 22:37:30.712591  4504 net.cpp:141] Setting up lstm1_unit_1
I0925 22:37:30.712600  4504 net.cpp:148] Top shape: 1 1 1000 (1000)
I0925 22:37:30.712606  4504 net.cpp:148] Top shape: 1 1 1000 (1000)
I0925 22:37:30.712611  4504 net.cpp:156] Memory required for data: 86016
I0925 22:37:30.712616  4504 layer_factory.hpp:77] Creating layer lstm1_
I0925 22:37:30.712625  4504 net.cpp:91] Creating Layer lstm1_
I0925 22:37:30.712630  4504 net.cpp:425] lstm1_ <- c_1
I0925 22:37:30.712636  4504 net.cpp:399] lstm1_ -> c_T
I0925 22:37:30.712667  4504 net.cpp:141] Setting up lstm1_
I0925 22:37:30.712676  4504 net.cpp:148] Top shape: 1 1 1000 (1000)
I0925 22:37:30.712680  4504 net.cpp:156] Memory required for data: 90016
I0925 22:37:30.712685  4504 layer_factory.hpp:77] Creating layer lstm1_h_concat
I0925 22:37:30.712698  4504 net.cpp:91] Creating Layer lstm1_h_concat
I0925 22:37:30.712703  4504 net.cpp:425] lstm1_h_concat <- h_1
I0925 22:37:30.712712  4504 net.cpp:399] lstm1_h_concat -> h
I0925 22:37:30.712746  4504 net.cpp:141] Setting up lstm1_h_concat
I0925 22:37:30.712755  4504 net.cpp:148] Top shape: 1 1 1000 (1000)
I0925 22:37:30.712760  4504 net.cpp:156] Memory required for data: 94016
I0925 22:37:30.712765  4504 layer_factory.hpp:77] Creating layer h_pseudoloss
I0925 22:37:30.712774  4504 net.cpp:91] Creating Layer h_pseudoloss
I0925 22:37:30.712779  4504 net.cpp:425] h_pseudoloss <- h
I0925 22:37:30.712788  4504 net.cpp:399] h_pseudoloss -> h_pseudoloss
I0925 22:37:30.712873  4504 net.cpp:141] Setting up h_pseudoloss
…
I0925 22:37:30.712980  4504 net.cpp:219] lstm1_ does not need backward computation.
I0925 22:37:30.712985  4504 net.cpp:261] This network produces output c_T
I0925 22:37:30.712988  4504 net.cpp:261] This network produces output h_pseudoloss
I0925 22:37:30.713006  4504 net.cpp:274] Network initialization done.
I0925 22:37:30.713054  4504 recurrent_layer.cpp:150] Adding parameter 0: W_xc
I0925 22:37:30.713060  4504 recurrent_layer.cpp:150] Adding parameter 1: b_c
I0925 22:37:30.713065  4504 recurrent_layer.cpp:150] Adding parameter 2: W_hc
I0925 22:37:30.713176  4504 net.cpp:141] Setting up lstm1
I0925 22:37:30.713193  4504 net.cpp:148] Top shape: 1 1 1000 (1000)
I0925 22:37:30.713201  4504 net.cpp:156] Memory required for data: 26408
I0925 22:37:30.713225  4504 layer_factory.hpp:77] Creating layer concat
I0925 22:37:30.713240  4504 net.cpp:91] Creating Layer concat
I0925 22:37:30.713251  4504 net.cpp:425] concat <- lstm1
I0925 22:37:30.713263  4504 net.cpp:425] concat <- embedded_input_sentence
I0925 22:37:30.713273  4504 net.cpp:425] concat <- reshaped_stage_indicator
I0925 22:37:30.713285  4504 net.cpp:399] concat -> lstm1_video_sequence
I0925 22:37:30.713385  4510 net.cpp:141] Setting up lstm1
I0925 22:37:30.713400  4510 net.cpp:148] Top shape: 1 1 1000 (1000)
I0925 22:37:30.713405  4510 net.cpp:156] Memory required for data: 26408
I0925 22:37:30.713419  4510 layer_factory.hpp:77] Creating layer concat
I0925 22:37:30.713429  4510 net.cpp:91] Creating Layer concat
I0925 22:37:30.713435  4510 net.cpp:425] concat <- lstm1
I0925 22:37:30.713441  4510 net.cpp:425] concat <- embedded_input_sentence
I0925 22:37:30.713448  4510 net.cpp:425] concat <- reshaped_stage_indicator
I0925 22:37:30.713454  4510 net.cpp:399] concat -> lstm1_video_sequence
I0925 22:37:30.713488  4510 net.cpp:141] Setting up concat
I0925 22:37:30.713496  4510 net.cpp:148] Top shape: 1 1 1501 (1501)
I0925 22:37:30.713501  4510 net.cpp:156] Memory required for data: 32412
I0925 22:37:30.713506  4510 layer_factory.hpp:77] Creating layer lstm2
I0925 22:37:30.713520  4510 net.cpp:91] Creating Layer lstm2
I0925 22:37:30.713524  4510 net.cpp:425] lstm2 <- lstm1_video_sequence
I0925 22:37:30.713531  4510 net.cpp:425] lstm2 <- cont_sentence_input_1_split_1
I0925 22:37:30.713539  4510 net.cpp:399] lstm2 -> lstm2
I0925 22:37:30.713551  4510 recurrent_layer.cpp:20] Initializing recurrent layer: assuming input batch contains 1 timesteps of 1 independent streams.
I0925 22:37:30.716068  4510 net.cpp:49] Initializing net from parameters: 
layer {
  name: "lstm2_"
  type: "Input"
  top: "x"
  top: "cont"
  input_param {
    shape {
      dim: 1
      dim: 1
      dim: 1501
    }
    shape {
      dim: 1
      dim: 1
    }
  }
}
layer {
  name: "lstm2_"
  type: "Input"
  top: "c_0"
  top: "h_0"
  input_param {
    shape {
      dim: 1
      dim: 1
      dim: 1000
    }
    shape {
      dim: 1
      dim: 1
      dim: 1000
    }
  }
}
layer {
  name: "lstm2_cont_slice"
  type: "Slice"
  bottom: "cont"
  top: "cont_1"
  slice_param {
    axis: 0
  }
}
layer {
  name: "lstm2_x_transform"
  type: "InnerProduct"
  bottom: "x"
  top: "W_xc_x"
  param {
    name: "W_xc"
  }
  param {
    name: "b_c"
  }
  propagate_down: true
  inner_product_param {
    num_output: 4000
    bias_term: true
    weight_filler {
      type: "uniform"
      min: -0.08
      max: 0.08
    }
    bias_filler {
      type: "constant"
      value: 0
    }
    axis: 2
  }
}
layer {
  name: "lstm2_W_xc_x_slice"
  type: "Slice"
  bottom: "W_xc_x"
  top: "W_xc_x_1"
  slice_param {
    axis: 0
  }
}
layer {
  name: "lstm2_h_conted_0"
  type: "Scale"
  bottom: "h_0"
  bottom: "cont_1"
  top: "h_conted_0"
  scale_param {
    axis: 0
  }
}
layer {
  name: "lstm2_transform_1"
  type: "InnerProduct"
  bottom: "h_conted_0"
  top: "W_hc_h_0"
  param {
    name: "W_hc"
  }
  inner_product_param {
    num_output: 4000
    bias_term: false
    weight_filler {
      type: "uniform"
      min: -0.08
      max: 0.08
    }
    axis: 2
  }
}
layer {
  name: "lstm2_gate_input_1"
  type: "Eltwise"
  bottom: "W_hc_h_0"
  bottom: "W_xc_x_1"
  top: "gate_input_1"
  eltwise_param {
    operation: SUM
  }
}
layer {
  name: "lstm2_unit_1"
  type: "LSTMUnit"
  bottom: "c_0"
  bottom: "gate_input_1"
  bottom: "cont_1"
  top: "c_1"
  top: "h_1"
}
layer {
  name: "lstm2_"
  type: "Split"
  bottom: "c_1"
  top: "c_T"
}
layer {
  name: "lstm2_h_concat"
  type: "Concat"
  bottom: "h_1"
  top: "h"
  concat_param {
    axis: 0
  }
}
layer {
  name: "h_pseudoloss"
  type: "Reduction"
  bottom: "h"
  top: "h_pseudoloss"
  loss_weight: 1
}
I0925 22:37:30.716348  4504 net.cpp:141] Setting up concat
I0925 22:37:30.716377  4504 net.cpp:148] Top shape: 1 1 1501 (1501)
I0925 22:37:30.716387  4504 net.cpp:156] Memory required for data: 32412
I0925 22:37:30.716398  4504 layer_factory.hpp:77] Creating layer lstm2
I0925 22:37:30.716419  4504 net.cpp:91] Creating Layer lstm2
I0925 22:37:30.716434  4504 net.cpp:425] lstm2 <- lstm1_video_sequence
I0925 22:37:30.716447  4504 net.cpp:425] lstm2 <- cont_sentence_input_1_split_1
I0925 22:37:30.716461  4504 net.cpp:399] lstm2 -> lstm2
I0925 22:37:30.716482  4504 recurrent_layer.cpp:20] Initializing recurrent layer: assuming input batch contains 1 timesteps of 1 independent streams.
I0925 22:37:30.716506  4514 net.cpp:141] Setting up lstm1_x_transform
I0925 22:37:30.716522  4514 net.cpp:148] Top shape: 1 1 4000 (4000)
I0925 22:37:30.716506  4508 net.cpp:141] Setting up lstm1_h_conted_0
I0925 22:37:30.716538  4514 net.cpp:156] Memory required for data: 26016
I0925 22:37:30.716572  4508 net.cpp:148] Top shape: 1 1 1000 (1000)
I0925 22:37:30.716583  4508 net.cpp:156] Memory required for data: 46016
I0925 22:37:30.716586  4514 layer_factory.hpp:77] Creating layer lstm1_W_xc_x_slice
I0925 22:37:30.716594  4508 layer_factory.hpp:77] Creating layer lstm1_transform_1
I0925 22:37:30.716603  4514 net.cpp:91] Creating Layer lstm1_W_xc_x_slice
I0925 22:37:30.716614  4514 net.cpp:425] lstm1_W_xc_x_slice <- W_xc_x
I0925 22:37:30.716619  4508 net.cpp:91] Creating Layer lstm1_transform_1
I0925 22:37:30.716627  4514 net.cpp:399] lstm1_W_xc_x_slice -> W_xc_x_1
I0925 22:37:30.716631  4508 net.cpp:425] lstm1_transform_1 <- h_conted_0
I0925 22:37:30.716506  4510 layer_factory.hpp:77] Creating layer lstm2_
I0925 22:37:30.716650  4508 net.cpp:399] lstm1_transform_1 -> W_hc_h_0
I0925 22:37:30.716677  4510 net.cpp:91] Creating Layer lstm2_
I0925 22:37:30.716689  4510 net.cpp:399] lstm2_ -> x
I0925 22:37:30.716708  4510 net.cpp:399] lstm2_ -> cont
I0925 22:37:30.716799  4504 net.cpp:49] Initializing net from parameters: 
layer {
  name: "lstm2_"
  type: "Input"
  top: "x"
  top: "cont"
  input_param {
    shape {
      dim: 1
      dim: 1
      dim: 1501
    }
    shape {
      dim: 1
      dim: 1
    }
  }
}
layer {
  name: "lstm2_"
  type: "Input"
  top: "c_0"
  top: "h_0"
  input_param {
    shape {
      dim: 1
      dim: 1
      dim: 1000
    }
    shape {
      dim: 1
      dim: 1
      dim: 1000
    }
  }
}
layer {
  name: "lstm2_cont_slice"
  type: "Slice"
  bottom: "cont"
  top: "cont_1"
  slice_param {
    axis: 0
  }
}
layer {
  name: "lstm2_x_transform"
  type: "InnerProduct"
  bottom: "x"
  top: "W_xc_x"
  param {
    name: "W_xc"
  }
  param {
    name: "b_c"
  }
  propagate_down: true
  inner_product_param {
    num_output: 4000
    bias_term: true
    weight_filler {
      type: "uniform"
      min: -0.08
      max: 0.08
    }
    bias_filler {
      type: "constant"
      value: 0
    }
    axis: 2
  }
}
layer {
  name: "lstm2_W_xc_x_slice"
  type: "Slice"
  bottom: "W_xc_x"
  top: "W_xc_x_1"
  slice_param {
    axis: 0
  }
}
layer {
  name: "lstm2_h_conted_0"
  type: "Scale"
  bottom: "h_0"
  bottom: "cont_1"
  top: "h_conted_0"
  scale_param {
    axis: 0
  }
}
layer {
  name: "lstm2_transform_1"
  type: "InnerProduct"
  bottom: "h_conted_0"
  top: "W_hc_h_0"
  param {
    name: "W_hc"
  }
  inner_product_param {
    num_output: 4000
    bias_term: false
    weight_filler {
      type: "uniform"
      min: -0.08
      max: 0.08
    }
    axis: 2
  }
}
layer {
  name: "lstm2_gate_input_1"
  type: "Eltwise"
  bottom: "W_hc_h_0"
  bottom: "W_xc_x_1"
  top: "gate_input_1"
  eltwise_param {
    operation: SUM
  }
}
layer {
  name: "lstm2_unit_1"
  type: "LSTMUnit"
  bottom: "c_0"
  bottom: "gate_input_1"
  bottom: "cont_1"
  top: "c_1"
  top: "h_1"
}
layer {
  name: "lstm2_"
  type: "Split"
  bottom: "c_1"
  top: "c_T"
}
layer {
  name: "lstm2_h_concat"
  type: "Concat"
  bottom: "h_1"
  top: "h"
  concat_param {
    axis: 0
  }
}
layer {
  name: "h_pseudoloss"
  type: "Reduction"
  bottom: "h"
  top: "h_pseudoloss"
  loss_weight: 1
}
I0925 22:37:30.716881  4504 layer_factory.hpp:77] Creating layer lstm2_
I0925 22:37:30.716892  4504 net.cpp:91] Creating Layer lstm2_
I0925 22:37:30.716899  4504 net.cpp:399] lstm2_ -> x
I0925 22:37:30.716910  4504 net.cpp:399] lstm2_ -> cont
I0925 22:37:30.718454  4514 net.cpp:141] Setting up lstm1_W_xc_x_slice
I0925 22:37:30.718477  4514 net.cpp:148] Top shape: 1 1 4000 (4000)
I0925 22:37:30.718484  4514 net.cpp:156] Memory required for data: 42016
I0925 22:37:30.718492  4514 layer_factory.hpp:77] Creating layer lstm1_h_conted_0
I0925 22:37:30.718514  4514 net.cpp:91] Creating Layer lstm1_h_conted_0
I0925 22:37:30.718523  4514 net.cpp:425] lstm1_h_conted_0 <- h_0
I0925 22:37:30.718534  4514 net.cpp:425] lstm1_h_conted_0 <- cont_1_lstm1_cont_slice_0_split_0
I0925 22:37:30.718546  4514 net.cpp:399] lstm1_h_conted_0 -> h_conted_0
I0925 22:37:30.726137  4510 net.cpp:141] Setting up lstm2_
I0925 22:37:30.726181  4510 net.cpp:148] Top shape: 1 1 1501 (1501)
I0925 22:37:30.726189  4510 net.cpp:148] Top shape: 1 1 (1)
I0925 22:37:30.726193  4510 net.cpp:156] Memory required for data: 6008
I0925 22:37:30.726203  4510 layer_factory.hpp:77] Creating layer lstm2_
I0925 22:37:30.726227  4510 net.cpp:91] Creating Layer lstm2_
I0925 22:37:30.726269  4510 net.cpp:399] lstm2_ -> c_0
I0925 22:37:30.726294  4510 net.cpp:399] lstm2_ -> h_0
I0925 22:37:30.726294  4548 net.cpp:141] Setting up lstm2_transform_1
I0925 22:37:30.726333  4548 net.cpp:148] Top shape: 1 1 4000 (4000)
I0925 22:37:30.726342  4548 net.cpp:156] Memory required for data: 66020
I0925 22:37:30.726366  4548 layer_factory.hpp:77] Creating layer lstm2_gate_input_1
I0925 22:37:30.726387  4548 net.cpp:91] Creating Layer lstm2_gate_input_1
I0925 22:37:30.726398  4548 net.cpp:425] lstm2_gate_input_1 <- W_hc_h_0
I0925 22:37:30.726409  4548 net.cpp:425] lstm2_gate_input_1 <- W_xc_x_1
I0925 22:37:30.726407  4504 net.cpp:141] Setting up lstm2_
I0925 22:37:30.726433  4548 net.cpp:399] lstm2_gate_input_1 -> gate_input_1
I0925 22:37:30.726434  4504 net.cpp:148] Top shape: 1 1 1501 (1501)
I0925 22:37:30.726452  4504 net.cpp:148] Top shape: 1 1 (1)
I0925 22:37:30.726457  4504 net.cpp:156] Memory required for data: 6008
I0925 22:37:30.726464  4504 layer_factory.hpp:77] Creating layer lstm2_
I0925 22:37:30.726480  4504 net.cpp:91] Creating Layer lstm2_
I0925 22:37:30.726487  4504 net.cpp:399] lstm2_ -> c_0
I0925 22:37:30.726501  4504 net.cpp:399] lstm2_ -> h_0
I0925 22:37:30.726547  4514 net.cpp:141] Setting up lstm1_h_conted_0
I0925 22:37:30.726567  4514 net.cpp:148] Top shape: 1 1 1000 (1000)
I0925 22:37:30.726574  4514 net.cpp:156] Memory required for data: 46016
I0925 22:37:30.726583  4514 layer_factory.hpp:77] Creating layer lstm1_transform_1
I0925 22:37:30.726584  4548 net.cpp:141] Setting up lstm2_gate_input_1
I0925 22:37:30.726611  4514 net.cpp:91] Creating Layer lstm1_transform_1
I0925 22:37:30.726615  4548 net.cpp:148] Top shape: 1 1 4000 (4000)
I0925 22:37:30.726622  4514 net.cpp:425] lstm1_transform_1 <- h_conted_0
I0925 22:37:30.726624  4548 net.cpp:156] Memory required for data: 82020
I0925 22:37:30.726632  4548 layer_factory.hpp:77] Creating layer lstm2_unit_1
I0925 22:37:30.726637  4514 net.cpp:399] lstm1_transform_1 -> W_hc_h_0
I0925 22:37:30.726645  4548 net.cpp:91] Creating Layer lstm2_unit_1
I0925 22:37:30.726655  4548 net.cpp:425] lstm2_unit_1 <- c_0
I0925 22:37:30.726663  4548 net.cpp:425] lstm2_unit_1 <- gate_input_1
I0925 22:37:30.726673  4548 net.cpp:425] lstm2_unit_1 <- cont_1_lstm2_cont_slice_0_split_1
I0925 22:37:30.726688  4548 net.cpp:399] lstm2_unit_1 -> c_1
I0925 22:37:30.726691  4510 net.cpp:141] Setting up lstm2_
I0925 22:37:30.726704  4510 net.cpp:148] Top shape: 1 1 1000 (1000)
I0925 22:37:30.726704  4548 net.cpp:399] lstm2_unit_1 -> h_1
I0925 22:37:30.726711  4510 net.cpp:148] Top shape: 1 1 1000 (1000)
I0925 22:37:30.726716  4510 net.cpp:156] Memory required for data: 14008
I0925 22:37:30.726722  4510 layer_factory.hpp:77] Creating layer lstm2_cont_slice
I0925 22:37:30.726734  4510 net.cpp:91] Creating Layer lstm2_cont_slice
I0925 22:37:30.726740  4510 net.cpp:425] lstm2_cont_slice <- cont
I0925 22:37:30.726749  4510 net.cpp:399] lstm2_cont_slice -> cont_1
I0925 22:37:30.726760  4504 net.cpp:141] Setting up lstm2_
I0925 22:37:30.726773  4504 net.cpp:148] Top shape: 1 1 1000 (1000)
I0925 22:37:30.726778  4504 net.cpp:148] Top shape: 1 1 1000 (1000)
I0925 22:37:30.726783  4504 net.cpp:156] Memory required for data: 14008
I0925 22:37:30.726788  4504 layer_factory.hpp:77] Creating layer lstm2_cont_slice
I0925 22:37:30.726799  4504 net.cpp:91] Creating Layer lstm2_cont_slice
I0925 22:37:30.726804  4504 net.cpp:425] lstm2_cont_slice <- cont
I0925 22:37:30.726819  4504 net.cpp:399] lstm2_cont_slice -> cont_1
I0925 22:37:30.726864  4504 net.cpp:141] Setting up lstm2_cont_slice
I0925 22:37:30.726874  4504 net.cpp:148] Top shape: 1 1 (1)
I0925 22:37:30.726878  4504 net.cpp:156] Memory required for data: 14012
I0925 22:37:30.726886  4504 layer_factory.hpp:77] Creating layer cont_1_lstm2_cont_slice_0_split
I0925 22:37:30.726893  4504 net.cpp:91] Creating Layer cont_1_lstm2_cont_slice_0_split
I0925 22:37:30.726898  4504 net.cpp:425] cont_1_lstm2_cont_slice_0_split <- cont_1
I0925 22:37:30.726907  4504 net.cpp:399] cont_1_lstm2_cont_slice_0_split -> cont_1_lstm2_cont_slice_0_split_0
I0925 22:37:30.726914  4504 net.cpp:399] cont_1_lstm2_cont_slice_0_split -> cont_1_lstm2_cont_slice_0_split_1
I0925 22:37:30.726965  4510 net.cpp:141] Setting up lstm2_cont_slice
I0925 22:37:30.726977  4510 net.cpp:148] Top shape: 1 1 (1)
I0925 22:37:30.726981  4510 net.cpp:156] Memory required for data: 14012
I0925 22:37:30.726987  4510 layer_factory.hpp:77] Creating layer cont_1_lstm2_cont_slice_0_split
I0925 22:37:30.727001  4510 net.cpp:91] Creating Layer cont_1_lstm2_cont_slice_0_split
I0925 22:37:30.727007  4510 net.cpp:425] cont_1_lstm2_cont_slice_0_split <- cont_1
I0925 22:37:30.727015  4510 net.cpp:399] cont_1_lstm2_cont_slice_0_split -> cont_1_lstm2_cont_slice_0_split_0
I0925 22:37:30.727025  4510 net.cpp:399] cont_1_lstm2_cont_slice_0_split -> cont_1_lstm2_cont_slice_0_split_1
I0925 22:37:30.727027  4548 net.cpp:141] Setting up lstm2_unit_1
I0925 22:37:30.727044  4548 net.cpp:148] Top shape: 1 1 1000 (1000)
I0925 22:37:30.727054  4548 net.cpp:148] Top shape: 1 1 1000 (1000)
I0925 22:37:30.727061  4548 net.cpp:156] Memory required for data: 90020
I0925 22:37:30.727069  4548 layer_factory.hpp:77] Creating layer lstm2_
I0925 22:37:30.727080  4548 net.cpp:91] Creating Layer lstm2_
I0925 22:37:30.727088  4548 net.cpp:425] lstm2_ <- c_1
I0925 22:37:30.727100  4548 net.cpp:399] lstm2_ -> c_T
I0925 22:37:30.737040  4504 net.cpp:141] Setting up cont_1_lstm2_cont_slice_0_split
I0925 22:37:30.737079  4504 net.cpp:148] Top shape: 1 1 (1)
I0925 22:37:30.737087  4504 net.cpp:148] Top shape: 1 1 (1)
I0925 22:37:30.737092  4504 net.cpp:156] Memory required for data: 14020
I0925 22:37:30.737100  4504 layer_factory.hpp:77] Creating layer lstm2_x_transform
I0925 22:37:30.737097  4548 net.cpp:141] Setting up lstm2_
I0925 22:37:30.737118  4548 net.cpp:148] Top shape: 1 1 1000 (1000)
I0925 22:37:30.737126  4504 net.cpp:91] Creating Layer lstm2_x_transform
I0925 22:37:30.737128  4548 net.cpp:156] Memory required for data: 94020
I0925 22:37:30.737134  4504 net.cpp:425] lstm2_x_transform <- x
I0925 22:37:30.737138  4548 layer_factory.hpp:77] Creating layer lstm2_h_concat
I0925 22:37:30.737148  4504 net.cpp:399] lstm2_x_transform -> W_xc_x
I0925 22:37:30.737154  4548 net.cpp:91] Creating Layer lstm2_h_concat
I0925 22:37:30.737164  4548 net.cpp:425] lstm2_h_concat <- h_1
I0925 22:37:30.737182  4548 net.cpp:399] lstm2_h_concat -> h
I0925 22:37:30.737200  4510 net.cpp:141] Setting up cont_1_lstm2_cont_slice_0_split
I0925 22:37:30.737226  4510 net.cpp:148] Top shape: 1 1 (1)
I0925 22:37:30.737233  4510 net.cpp:148] Top shape: 1 1 (1)
I0925 22:37:30.737238  4510 net.cpp:156] Memory required for data: 14020
I0925 22:37:30.737244  4510 layer_factory.hpp:77] Creating layer lstm2_x_transform
I0925 22:37:30.737263  4510 net.cpp:91] Creating Layer lstm2_x_transform
I0925 22:37:30.737269  4510 net.cpp:425] lstm2_x_transform <- x
I0925 22:37:30.737280  4510 net.cpp:399] lstm2_x_transform -> W_xc_x
I0925 22:37:30.737292  4548 net.cpp:141] Setting up lstm2_h_concat
I0925 22:37:30.737308  4548 net.cpp:148] Top shape: 1 1 1000 (1000)
I0925 22:37:30.737316  4548 net.cpp:156] Memory required for data: 98020
I0925 22:37:30.737325  4548 layer_factory.hpp:77] Creating layer h_pseudoloss
I0925 22:37:30.737349  4548 net.cpp:91] Creating Layer h_pseudoloss
I0925 22:37:30.737359  4548 net.cpp:425] h_pseudoloss <- h
I0925 22:37:30.737370  4548 net.cpp:399] h_pseudoloss -> h_pseudoloss
I0925 22:37:30.764344  4548 net.cpp:141] Setting up h_pseudoloss
…
I0925 22:37:30.764580  4548 net.cpp:219] lstm2_ does not need backward computation.
I0925 22:37:30.764590  4548 net.cpp:261] This network produces output c_T
I0925 22:37:30.764601  4548 net.cpp:261] This network produces output h_pseudoloss
I0925 22:37:30.764633  4548 net.cpp:274] Network initialization done.
I0925 22:37:30.764714  4548 recurrent_layer.cpp:150] Adding parameter 0: W_xc
I0925 22:37:30.764726  4548 recurrent_layer.cpp:150] Adding parameter 1: b_c
I0925 22:37:30.764734  4548 recurrent_layer.cpp:150] Adding parameter 2: W_hc
I0925 22:37:30.764904  4548 net.cpp:141] Setting up lstm2
I0925 22:37:30.764922  4548 net.cpp:148] Top shape: 1 1 1000 (1000)
I0925 22:37:30.764930  4548 net.cpp:156] Memory required for data: 36412
I0925 22:37:30.764957  4548 layer_factory.hpp:77] Creating layer predict
I0925 22:37:30.764986  4548 net.cpp:91] Creating Layer predict
I0925 22:37:30.764999  4548 net.cpp:425] predict <- lstm2
I0925 22:37:30.765017  4548 net.cpp:399] predict -> predict
I0925 22:37:30.849308  4522 net.cpp:141] Setting up lstm2_transform_1
I0925 22:37:30.849354  4522 net.cpp:148] Top shape: 1 1 4000 (4000)
I0925 22:37:30.849360  4522 net.cpp:156] Memory required for data: 66020
I0925 22:37:30.849380  4522 layer_factory.hpp:77] Creating layer lstm2_gate_input_1
I0925 22:37:30.849400  4522 net.cpp:91] Creating Layer lstm2_gate_input_1
I0925 22:37:30.849408  4522 net.cpp:425] lstm2_gate_input_1 <- W_hc_h_0
I0925 22:37:30.849416  4522 net.cpp:425] lstm2_gate_input_1 <- W_xc_x_1
I0925 22:37:30.849424  4522 net.cpp:399] lstm2_gate_input_1 -> gate_input_1
I0925 22:37:30.849489  4508 net.cpp:141] Setting up lstm1_transform_1
I0925 22:37:30.849520  4514 net.cpp:141] Setting up lstm1_transform_1
I0925 22:37:30.849529  4508 net.cpp:148] Top shape: 1 1 4000 (4000)
I0925 22:37:30.849535  4508 net.cpp:156] Memory required for data: 62016
I0925 22:37:30.849539  4514 net.cpp:148] Top shape: 1 1 4000 (4000)
I0925 22:37:30.849547  4514 net.cpp:156] Memory required for data: 62016
I0925 22:37:30.849556  4508 layer_factory.hpp:77] Creating layer lstm1_gate_input_1
I0925 22:37:30.849565  4514 layer_factory.hpp:77] Creating layer lstm1_gate_input_1
I0925 22:37:30.849576  4508 net.cpp:91] Creating Layer lstm1_gate_input_1
I0925 22:37:30.849586  4508 net.cpp:425] lstm1_gate_input_1 <- W_hc_h_0
I0925 22:37:30.849586  4514 net.cpp:91] Creating Layer lstm1_gate_input_1
I0925 22:37:30.849594  4508 net.cpp:425] lstm1_gate_input_1 <- W_xc_x_1
I0925 22:37:30.849598  4514 net.cpp:425] lstm1_gate_input_1 <- W_hc_h_0
I0925 22:37:30.849606  4508 net.cpp:399] lstm1_gate_input_1 -> gate_input_1
I0925 22:37:30.849611  4514 net.cpp:425] lstm1_gate_input_1 <- W_xc_x_1
I0925 22:37:30.849624  4514 net.cpp:399] lstm1_gate_input_1 -> gate_input_1
I0925 22:37:30.849714  4522 net.cpp:141] Setting up lstm2_gate_input_1
I0925 22:37:30.849730  4522 net.cpp:148] Top shape: 1 1 4000 (4000)
I0925 22:37:30.849735  4522 net.cpp:156] Memory required for data: 82020
I0925 22:37:30.849740  4522 layer_factory.hpp:77] Creating layer lstm2_unit_1
I0925 22:37:30.849750  4522 net.cpp:91] Creating Layer lstm2_unit_1
I0925 22:37:30.849755  4522 net.cpp:425] lstm2_unit_1 <- c_0
I0925 22:37:30.849761  4522 net.cpp:425] lstm2_unit_1 <- gate_input_1
…
    shape {
      dim: 1
      dim: 1
      dim: 1000
    }
    shape {
      dim: 1
      dim: 1
      dim: 1000
    }
  }
}
layer {
  name: "lstm2_cont_slice"
  type: "Slice"
  bottom: "cont"
  top: "cont_1"
  slice_param {
    axis: 0
  }
}
layer {
  name: "lstm2_x_transform"
  type: "InnerProduct"
  bottom: "x"
  top: "W_xc_x"
  param {
    name: "W_xc"
  }
  param {
    name: "b_c"
  }
  propagate_down: true
  inner_product_param {
    num_output: 4000
    bias_term: true
    weight_filler {
      type: "uniform"
      min: -0.08
      max: 0.08
    }
    bias_filler {
      type: "constant"
      value: 0
    }
    axis: 2
  }
}
layer {
  name: "lstm2_W_xc_x_slice"
  type: "Slice"
  bottom: "W_xc_x"
  top: "W_xc_x_1"
  slice_param {
    axis: 0
  }
}
layer {
  name: "lstm2_h_conted_0"
  type: "Scale"
  bottom: "h_0"
  bottom: "cont_1"
  top: "h_conted_0"
  scale_param {
    axis: 0
  }
}
layer {
  name: "lstm2_transform_1"
  type: "InnerProduct"
  bottom: "h_conted_0"
  top: "W_hc_h_0"
  param {
    name: "W_hc"
  }
  inner_product_param {
    num_output: 4000
    bias_term: false
    weight_filler {
      type: "uniform"
      min: -0.08
      max: 0.08
    }
    axis: 2
  }
}
layer {
  name: "lstm2_gate_input_1"
  type: "Eltwise"
  bottom: "W_hc_h_0"
  bottom: "W_xc_x_1"
  top: "gate_input_1"
  eltwise_param {
    operation: SUM
  }
}
layer {
  name: "lstm2_unit_1"
  type: "LSTMUnit"
  bottom: "c_0"
  bottom: "gate_input_1"
  bottom: "cont_1"
  top: "c_1"
  top: "h_1"
}
layer {
  name: "lstm2_"
  type: "Split"
  bottom: "c_1"
  top: "c_T"
}
layer {
  name: "lstm2_h_concat"
  type: "Concat"
  bottom: "h_1"
  top: "h"
  concat_param {
    axis: 0
  }
}
layer {
  name: "h_pseudoloss"
  type: "Reduction"
  bottom: "h"
  top: "h_pseudoloss"
  loss_weight: 1
}
I0925 22:37:30.976516  4514 net.cpp:49] Initializing net from parameters: 
layer {
  name: "lstm2_"
  type: "Input"
  top: "x"
  top: "cont"
  input_param {
    shape {
      dim: 1
      dim: 1
      dim: 1501
    }
    shape {
      dim: 1
      dim: 1
    }
  }
}
layer {
  name: "lstm2_"
  type: "Input"
  top: "c_0"
  top: "h_0"
  input_param {
    shape {
      dim: 1
      dim: 1
      dim: 1000
    }
    shape {
      dim: 1
      dim: 1
      dim: 1000
    }
  }
}
layer {
  name: "lstm2_cont_slice"
  type: "Slice"
  bottom: "cont"
  top: "cont_1"
  slice_param {
    axis: 0
  }
}
layer {
  name: "lstm2_x_transform"
  type: "InnerProduct"
  bottom: "x"
  top: "W_xc_x"
  param {
    name: "W_xc"
  }
  param {
    name: "b_c"
  }
  propagate_down: true
  inner_product_param {
    num_output: 4000
    bias_term: true
    weight_filler {
      type: "uniform"
      min: -0.08
      max: 0.08
    }
    bias_filler {
      type: "constant"
      value: 0
    }
    axis: 2
  }
}
layer {
  name: "lstm2_W_xc_x_slice"
  type: "Slice"
  bottom: "W_xc_x"
  top: "W_xc_x_1"
  slice_param {
    axis: 0
  }
}
layer {
  name: "lstm2_h_conted_0"
  type: "Scale"
  bottom: "h_0"
  bottom: "cont_1"
  top: "h_conted_0"
  scale_param {
    axis: 0
  }
}
layer {
  name: "lstm2_transform_1"
  type: "InnerProduct"
  bottom: "h_conted_0"
  top: "W_hc_h_0"
  param {
    name: "W_hc"
  }
  inner_product_param {
    num_output: 4000
    bias_term: false
    weight_filler {
      type: "uniform"
      min: -0.08
      max: 0.08
    }
    axis: 2
  }
}
layer {
  name: "lstm2_gate_input_1"
  type: "Eltwise"
  bottom: "W_hc_h_0"
  bottom: "W_xc_x_1"
  top: "gate_input_1"
  eltwise_param {
    operation: SUM
  }
}
layer {
  name: "lstm2_unit_1"
  type: "LSTMUnit"
  bottom: "c_0"
  bottom: "gate_input_1"
  bottom: "cont_1"
  top: "c_1"
  top: "h_1"
}
layer {
  name: "lstm2_"
  type: "Split"
  bottom: "c_1"
  top: "c_T"
}
layer {
  name: "lstm2_h_concat"
  type: "Concat"
  bottom: "h_1"
  top: "h"
  concat_param {
    axis: 0
  }
}
layer {
  name: "h_pseudoloss"
  type: "Reduction"
  bottom: "h"
  top: "h_pseudoloss"
  loss_weight: 1
}
I0925 22:37:30.976618  4508 layer_factory.hpp:77] Creating layer lstm2_
I0925 22:37:30.976624  4514 layer_factory.hpp:77] Creating layer lstm2_
I0925 22:37:30.976632  4508 net.cpp:91] Creating Layer lstm2_
I0925 22:37:30.976637  4514 net.cpp:91] Creating Layer lstm2_
I0925 22:37:30.976639  4508 net.cpp:399] lstm2_ -> x
I0925 22:37:30.976645  4514 net.cpp:399] lstm2_ -> x
I0925 22:37:30.976651  4508 net.cpp:399] lstm2_ -> cont
I0925 22:37:30.976657  4514 net.cpp:399] lstm2_ -> cont
I0925 22:37:30.977412  4510 net.cpp:141] Setting up lstm2_
I0925 22:37:30.977427  4510 net.cpp:148] Top shape: 1 1 1000 (1000)
I0925 22:37:30.977432  4510 net.cpp:156] Memory required for data: 94020
I0925 22:37:30.977438  4510 layer_factory.hpp:77] Creating layer lstm2_h_concat
I0925 22:37:30.977463  4510 net.cpp:91] Creating Layer lstm2_h_concat
I0925 22:37:30.977465  4542 net.cpp:141] Setting up lstm2_
I0925 22:37:30.977471  4510 net.cpp:425] lstm2_h_concat <- h_1
I0925 22:37:30.977484  4542 net.cpp:148] Top shape: 1 1 1000 (1000)
I0925 22:37:30.977488  4510 net.cpp:399] lstm2_h_concat -> h
I0925 22:37:30.977490  4542 net.cpp:156] Memory required for data: 94020
I0925 22:37:30.977495  4542 layer_factory.hpp:77] Creating layer lstm2_h_concat
I0925 22:37:30.977509  4542 net.cpp:91] Creating Layer lstm2_h_concat
I0925 22:37:30.977519  4542 net.cpp:425] lstm2_h_concat <- h_1
I0925 22:37:30.977532  4542 net.cpp:399] lstm2_h_concat -> h
I0925 22:37:30.977586  4514 net.cpp:141] Setting up lstm2_
I0925 22:37:30.977599  4514 net.cpp:148] Top shape: 1 1 1501 (1501)
I0925 22:37:30.977607  4514 net.cpp:148] Top shape: 1 1 (1)
I0925 22:37:30.977612  4514 net.cpp:156] Memory required for data: 6008
I0925 22:37:30.977617  4514 layer_factory.hpp:77] Creating layer lstm2_
I0925 22:37:30.977627  4514 net.cpp:91] Creating Layer lstm2_
I0925 22:37:30.977636  4514 net.cpp:399] lstm2_ -> c_0
I0925 22:37:30.977648  4514 net.cpp:399] lstm2_ -> h_0
I0925 22:37:30.977663  4504 net.cpp:141] Setting up lstm2_unit_1
I0925 22:37:30.977685  4504 net.cpp:148] Top shape: 1 1 1000 (1000)
I0925 22:37:30.977699  4504 net.cpp:148] Top shape: 1 1 1000 (1000)
I0925 22:37:30.977705  4510 net.cpp:141] Setting up lstm2_h_concat
I0925 22:37:30.977707  4504 net.cpp:156] Memory required for data: 90020
I0925 22:37:30.977717  4510 net.cpp:148] Top shape: 1 1 1000 (1000)
I0925 22:37:30.977720  4504 layer_factory.hpp:77] Creating layer lstm2_
I0925 22:37:30.977723  4510 net.cpp:156] Memory required for data: 98020
I0925 22:37:30.977741  4510 layer_factory.hpp:77] Creating layer h_pseudoloss
I0925 22:37:30.977742  4504 net.cpp:91] Creating Layer lstm2_
I0925 22:37:30.977751  4510 net.cpp:91] Creating Layer h_pseudoloss
I0925 22:37:30.977749  4508 net.cpp:141] Setting up lstm2_
I0925 22:37:30.977757  4510 net.cpp:425] h_pseudoloss <- h
I0925 22:37:30.977756  4504 net.cpp:425] lstm2_ <- c_1
I0925 22:37:30.977780  4510 net.cpp:399] h_pseudoloss -> h_pseudoloss
I0925 22:37:30.977772  4508 net.cpp:148] Top shape: 1 1 1501 (1501)
I0925 22:37:30.977799  4542 net.cpp:141] Setting up lstm2_h_concat
I0925 22:37:30.977805  4508 net.cpp:148] Top shape: 1 1 (1)
I0925 22:37:30.977818  4542 net.cpp:148] Top shape: 1 1 1000 (1000)
I0925 22:37:30.977805  4504 net.cpp:399] lstm2_ -> c_T
I0925 22:37:30.977826  4542 net.cpp:156] Memory required for data: 98020
I0925 22:37:30.977836  4542 layer_factory.hpp:77] Creating layer h_pseudoloss
I0925 22:37:30.977821  4508 net.cpp:156] Memory required for data: 6008
I0925 22:37:30.977846  4542 net.cpp:91] Creating Layer h_pseudoloss
I0925 22:37:30.977849  4508 layer_factory.hpp:77] Creating layer lstm2_
…
I0925 22:37:30.977941  4510 net.cpp:217] h_pseudoloss needs backward computation.
I0925 22:37:30.977946  4510 net.cpp:217] lstm2_h_concat needs backward computation.
I0925 22:37:30.977952  4510 net.cpp:219] lstm2_ does not need backward computation.
I0925 22:37:30.977957  4510 net.cpp:217] lstm2_unit_1 needs backward computation.
I0925 22:37:30.977962  4510 net.cpp:217] lstm2_gate_input_1 needs backward computation.
I0925 22:37:30.977969  4514 net.cpp:141] Setting up lstm2_
I0925 22:37:30.977978  4510 net.cpp:217] lstm2_transform_1 needs backward computation.
I0925 22:37:30.977987  4514 net.cpp:148] Top shape: 1 1 1000 (1000)
I0925 22:37:30.977988  4510 net.cpp:219] lstm2_h_conted_0 does not need backward computation.
I0925 22:37:30.977999  4514 net.cpp:148] Top shape: 1 1 1000 (1000)
I0925 22:37:30.977999  4510 net.cpp:217] lstm2_W_xc_x_slice needs backward computation.
I0925 22:37:30.978013  4514 net.cpp:156] Memory required for data: 14008
I0925 22:37:30.978016  4510 net.cpp:217] lstm2_x_transform needs backward computation.
I0925 22:37:30.978021  4514 layer_factory.hpp:77] Creating layer lstm2_cont_slice
I0925 22:37:30.978024  4510 net.cpp:219] cont_1_lstm2_cont_slice_0_split does not need backward computation.
I0925 22:37:30.978037  4510 net.cpp:219] lstm2_cont_slice does not need backward computation.
I0925 22:37:30.978044  4510 net.cpp:219] lstm2_ does not need backward computation.
I0925 22:37:30.978041  4514 net.cpp:91] Creating Layer lstm2_cont_slice
I0925 22:37:30.978055  4510 net.cpp:219] lstm2_ does not need backward computation.
I0925 22:37:30.978063  4514 net.cpp:425] lstm2_cont_slice <- cont
I0925 22:37:30.978065  4510 net.cpp:261] This network produces output c_T
I0925 22:37:30.978075  4514 net.cpp:399] lstm2_cont_slice -> cont_1
I0925 22:37:30.978075  4510 net.cpp:261] This network produces output h_pseudoloss
I0925 22:37:30.978106  4510 net.cpp:274] Network initialization done.
I0925 22:37:30.978134  4508 net.cpp:141] Setting up lstm2_
I0925 22:37:30.978152  4508 net.cpp:148] Top shape: 1 1 1000 (1000)
I0925 22:37:30.978162  4508 net.cpp:148] Top shape: 1 1 1000 (1000)
I0925 22:37:30.978168  4508 net.cpp:156] Memory required for data: 14008
I0925 22:37:30.978169  4510 recurrent_layer.cpp:150] Adding parameter 0: W_xc
I0925 22:37:30.978176  4508 layer_factory.hpp:77] Creating layer lstm2_cont_slice
I0925 22:37:30.978178  4510 recurrent_layer.cpp:150] Adding parameter 1: b_c
I0925 22:37:30.978194  4510 recurrent_layer.cpp:150] Adding parameter 2: W_hc
I0925 22:37:30.978199  4508 net.cpp:91] Creating Layer lstm2_cont_slice
I0925 22:37:30.978209  4508 net.cpp:425] lstm2_cont_slice <- cont
I0925 22:37:30.978207  4542 net.cpp:141] Setting up h_pseudoloss
I0925 22:37:30.978226  4508 net.cpp:399] lstm2_cont_slice -> cont_1
I0925 22:37:30.978227  4542 net.cpp:148] Top shape: (1)
I0925 22:37:30.978246  4514 net.cpp:141] Setting up lstm2_cont_slice
I0925 22:37:30.978246  4542 net.cpp:151]     with loss weight 1
I0925 22:37:30.978268  4514 net.cpp:148] Top shape: 1 1 (1)
I0925 22:37:30.978269  4542 net.cpp:156] Memory required for data: 98024
I0925 22:37:30.978282  4514 net.cpp:156] Memory required for data: 14012
I0925 22:37:30.978288  4542 net.cpp:217] h_pseudoloss needs backward computation.
I0925 22:37:30.978291  4514 layer_factory.hpp:77] Creating layer cont_1_lstm2_cont_slice_0_split
I0925 22:37:30.978297  4542 net.cpp:217] lstm2_h_concat needs backward computation.
…
I0925 22:37:30.978397  4542 net.cpp:219] lstm2_ does not need backward computation.
I0925 22:37:30.978402  4542 net.cpp:261] This network produces output c_T
I0925 22:37:30.978407  4542 net.cpp:261] This network produces output h_pseudoloss
I0925 22:37:30.978423  4542 net.cpp:274] Network initialization done.
I0925 22:37:30.978472  4542 recurrent_layer.cpp:150] Adding parameter 0: W_xc
I0925 22:37:30.978479  4542 recurrent_layer.cpp:150] Adding parameter 1: b_c
I0925 22:37:30.978484  4542 recurrent_layer.cpp:150] Adding parameter 2: W_hc
I0925 22:37:30.978688  4504 net.cpp:141] Setting up lstm2_
I0925 22:37:30.978709  4504 net.cpp:148] Top shape: 1 1 1000 (1000)
I0925 22:37:30.978719  4504 net.cpp:156] Memory required for data: 94020
I0925 22:37:30.978730  4504 layer_factory.hpp:77] Creating layer lstm2_h_concat
I0925 22:37:30.978747  4504 net.cpp:91] Creating Layer lstm2_h_concat
I0925 22:37:30.978759  4504 net.cpp:425] lstm2_h_concat <- h_1
I0925 22:37:30.978773  4504 net.cpp:399] lstm2_h_concat -> h
I0925 22:37:30.978907  4508 net.cpp:141] Setting up lstm2_cont_slice
I0925 22:37:30.978924  4508 net.cpp:148] Top shape: 1 1 (1)
I0925 22:37:30.978929  4508 net.cpp:156] Memory required for data: 14012
I0925 22:37:30.978930  4542 net.cpp:141] Setting up lstm2
I0925 22:37:30.978935  4508 layer_factory.hpp:77] Creating layer cont_1_lstm2_cont_slice_0_split
I0925 22:37:30.978950  4542 net.cpp:148] Top shape: 1 1 1000 (1000)
I0925 22:37:30.978955  4542 net.cpp:156] Memory required for data: 36412
I0925 22:37:30.978960  4508 net.cpp:91] Creating Layer cont_1_lstm2_cont_slice_0_split
I0925 22:37:30.978970  4508 net.cpp:425] cont_1_lstm2_cont_slice_0_split <- cont_1
I0925 22:37:30.978971  4542 layer_factory.hpp:77] Creating layer predict
I0925 22:37:30.978977  4508 net.cpp:399] cont_1_lstm2_cont_slice_0_split -> cont_1_lstm2_cont_slice_0_split_0
I0925 22:37:30.978986  4542 net.cpp:91] Creating Layer predict
I0925 22:37:30.978991  4508 net.cpp:399] cont_1_lstm2_cont_slice_0_split -> cont_1_lstm2_cont_slice_0_split_1
I0925 22:37:30.978996  4542 net.cpp:425] predict <- lstm2
I0925 22:37:30.979006  4504 net.cpp:141] Setting up lstm2_h_concat
I0925 22:37:30.979012  4542 net.cpp:399] predict -> predict
I0925 22:37:30.979025  4504 net.cpp:148] Top shape: 1 1 1000 (1000)
I0925 22:37:30.979037  4504 net.cpp:156] Memory required for data: 98020
I0925 22:37:30.979046  4504 layer_factory.hpp:77] Creating layer h_pseudoloss
I0925 22:37:30.979059  4514 net.cpp:141] Setting up cont_1_lstm2_cont_slice_0_split
I0925 22:37:30.979063  4504 net.cpp:91] Creating Layer h_pseudoloss
I0925 22:37:30.979073  4514 net.cpp:148] Top shape: 1 1 (1)
I0925 22:37:30.979075  4504 net.cpp:425] h_pseudoloss <- h
I0925 22:37:30.979080  4514 net.cpp:148] Top shape: 1 1 (1)
I0925 22:37:30.979086  4514 net.cpp:156] Memory required for data: 14020
I0925 22:37:30.979091  4504 net.cpp:399] h_pseudoloss -> h_pseudoloss
I0925 22:37:30.979092  4514 layer_factory.hpp:77] Creating layer lstm2_x_transform
I0925 22:37:30.979115  4510 net.cpp:141] Setting up lstm2
I0925 22:37:30.979118  4514 net.cpp:91] Creating Layer lstm2_x_transform
I0925 22:37:30.979135  4514 net.cpp:425] lstm2_x_transform <- x
I0925 22:37:30.979137  4510 net.cpp:148] Top shape: 1 1 1000 (1000)
I0925 22:37:30.979146  4510 net.cpp:156] Memory required for data: 36412
I0925 22:37:30.979151  4514 net.cpp:399] lstm2_x_transform -> W_xc_x
I0925 22:37:30.979169  4510 layer_factory.hpp:77] Creating layer predict
I0925 22:37:30.979182  4510 net.cpp:91] Creating Layer predict
I0925 22:37:30.979192  4510 net.cpp:425] predict <- lstm2
I0925 22:37:30.979199  4510 net.cpp:399] predict -> predict
I0925 22:37:31.065385  4508 net.cpp:141] Setting up cont_1_lstm2_cont_slice_0_split
I0925 22:37:31.065455  4508 net.cpp:148] Top shape: 1 1 (1)
I0925 22:37:31.065464  4508 net.cpp:148] Top shape: 1 1 (1)
I0925 22:37:31.065469  4508 net.cpp:156] Memory required for data: 14020
I0925 22:37:31.065512  4508 layer_factory.hpp:77] Creating layer lstm2_x_transform
I0925 22:37:31.065547  4508 net.cpp:91] Creating Layer lstm2_x_transform
I0925 22:37:31.065556  4508 net.cpp:425] lstm2_x_transform <- x
I0925 22:37:31.065572  4508 net.cpp:399] lstm2_x_transform -> W_xc_x
I0925 22:37:31.084764  4504 net.cpp:141] Setting up h_pseudoloss
…
I0925 22:37:31.085108  4504 net.cpp:261] This network produces output c_T
I0925 22:37:31.085117  4504 net.cpp:261] This network produces output h_pseudoloss
I0925 22:37:31.085160  4504 net.cpp:274] Network initialization done.
I0925 22:37:31.085353  4504 recurrent_layer.cpp:150] Adding parameter 0: W_xc
I0925 22:37:31.085371  4504 recurrent_layer.cpp:150] Adding parameter 1: b_c
I0925 22:37:31.085381  4504 recurrent_layer.cpp:150] Adding parameter 2: W_hc
I0925 22:37:31.202666  4514 net.cpp:141] Setting up lstm2_x_transform
I0925 22:37:31.202780  4504 net.cpp:141] Setting up lstm2
I0925 22:37:31.203119  4514 net.cpp:148] Top shape: 1 1 4000 (4000)
I0925 22:37:31.203132  4514 net.cpp:156] Memory required for data: 30020
I0925 22:37:31.203145  4504 net.cpp:148] Top shape: 1 1 1000 (1000)
I0925 22:37:31.203156  4504 net.cpp:156] Memory required for data: 36412
I0925 22:37:31.203160  4514 layer_factory.hpp:77] Creating layer lstm2_W_xc_x_slice
I0925 22:37:31.203181  4514 net.cpp:91] Creating Layer lstm2_W_xc_x_slice
I0925 22:37:31.203191  4514 net.cpp:425] lstm2_W_xc_x_slice <- W_xc_x
I0925 22:37:31.203197  4504 layer_factory.hpp:77] Creating layer predict
I0925 22:37:31.203209  4514 net.cpp:399] lstm2_W_xc_x_slice -> W_xc_x_1
I0925 22:37:31.203225  4504 net.cpp:91] Creating Layer predict
I0925 22:37:31.203238  4504 net.cpp:425] predict <- lstm2
I0925 22:37:31.203253  4504 net.cpp:399] predict -> predict
I0925 22:37:31.210263  4514 net.cpp:141] Setting up lstm2_W_xc_x_slice
I0925 22:37:31.210840  4514 net.cpp:148] Top shape: 1 1 4000 (4000)
I0925 22:37:31.210979  4514 net.cpp:156] Memory required for data: 46020
I0925 22:37:31.211189  4514 layer_factory.hpp:77] Creating layer lstm2_h_conted_0
I0925 22:37:31.211321  4514 net.cpp:91] Creating Layer lstm2_h_conted_0
I0925 22:37:31.211441  4514 net.cpp:425] lstm2_h_conted_0 <- h_0
I0925 22:37:31.211557  4514 net.cpp:425] lstm2_h_conted_0 <- cont_1_lstm2_cont_slice_0_split_0
I0925 22:37:31.211678  4514 net.cpp:399] lstm2_h_conted_0 -> h_conted_0
I0925 22:37:31.299485  4514 net.cpp:141] Setting up lstm2_h_conted_0
I0925 22:37:31.299567  4508 net.cpp:141] Setting up lstm2_x_transform
I0925 22:37:31.299921  4514 net.cpp:148] Top shape: 1 1 1000 (1000)
I0925 22:37:31.300081  4508 net.cpp:148] Top shape: 1 1 4000 (4000)
I0925 22:37:31.300237  4514 net.cpp:156] Memory required for data: 50020
I0925 22:37:31.300385  4508 net.cpp:156] Memory required for data: 30020
I0925 22:37:31.300503  4514 layer_factory.hpp:77] Creating layer lstm2_transform_1
I0925 22:37:31.300670  4508 layer_factory.hpp:77] Creating layer lstm2_W_xc_x_slice
I0925 22:37:31.300784  4514 net.cpp:91] Creating Layer lstm2_transform_1
I0925 22:37:31.300915  4508 net.cpp:91] Creating Layer lstm2_W_xc_x_slice
I0925 22:37:31.301018  4514 net.cpp:425] lstm2_transform_1 <- h_conted_0
I0925 22:37:31.301254  4508 net.cpp:425] lstm2_W_xc_x_slice <- W_xc_x
I0925 22:37:31.301424  4514 net.cpp:399] lstm2_transform_1 -> W_hc_h_0
I0925 22:37:31.301537  4508 net.cpp:399] lstm2_W_xc_x_slice -> W_xc_x_1
I0925 22:37:31.305718  4508 net.cpp:141] Setting up lstm2_W_xc_x_slice
I0925 22:37:31.305752  4508 net.cpp:148] Top shape: 1 1 4000 (4000)
I0925 22:37:31.305761  4508 net.cpp:156] Memory required for data: 46020
I0925 22:37:31.305771  4508 layer_factory.hpp:77] Creating layer lstm2_h_conted_0
I0925 22:37:31.305793  4508 net.cpp:91] Creating Layer lstm2_h_conted_0
I0925 22:37:31.305802  4508 net.cpp:425] lstm2_h_conted_0 <- h_0
I0925 22:37:31.305815  4508 net.cpp:425] lstm2_h_conted_0 <- cont_1_lstm2_cont_slice_0_split_0
I0925 22:37:31.305835  4508 net.cpp:399] lstm2_h_conted_0 -> h_conted_0
I0925 22:37:31.316189  4508 net.cpp:141] Setting up lstm2_h_conted_0
I0925 22:37:31.316207  4548 net.cpp:141] Setting up predict
I0925 22:37:31.316254  4508 net.cpp:148] Top shape: 1 1 1000 (1000)
I0925 22:37:31.316262  4548 net.cpp:148] Top shape: 1 1 46168 (46168)
I0925 22:37:31.316264  4508 net.cpp:156] Memory required for data: 50020
I0925 22:37:31.316282  4548 net.cpp:156] Memory required for data: 221084
I0925 22:37:31.316308  4548 layer_factory.hpp:77] Creating layer probs
I0925 22:37:31.316313  4508 layer_factory.hpp:77] Creating layer lstm2_transform_1
I0925 22:37:31.316330  4548 net.cpp:91] Creating Layer probs
I0925 22:37:31.316337  4508 net.cpp:91] Creating Layer lstm2_transform_1
I0925 22:37:31.316347  4548 net.cpp:425] probs <- predict
I0925 22:37:31.316349  4508 net.cpp:425] lstm2_transform_1 <- h_conted_0
I0925 22:37:31.316366  4548 net.cpp:399] probs -> probs
I0925 22:37:31.316367  4508 net.cpp:399] lstm2_transform_1 -> W_hc_h_0
I0925 22:37:31.353474  4522 net.cpp:141] Setting up predict
I0925 22:37:31.353528  4522 net.cpp:148] Top shape: 1 1 46168 (46168)
I0925 22:37:31.353544  4522 net.cpp:156] Memory required for data: 221084
I0925 22:37:31.353567  4522 layer_factory.hpp:77] Creating layer probs
I0925 22:37:31.353588  4522 net.cpp:91] Creating Layer probs
I0925 22:37:31.353603  4522 net.cpp:425] probs <- predict
I0925 22:37:31.353620  4522 net.cpp:399] probs -> probs
I0925 22:37:31.357874  4514 net.cpp:141] Setting up lstm2_transform_1
I0925 22:37:31.357926  4514 net.cpp:148] Top shape: 1 1 4000 (4000)
I0925 22:37:31.357938  4514 net.cpp:156] Memory required for data: 66020
I0925 22:37:31.357962  4514 layer_factory.hpp:77] Creating layer lstm2_gate_input_1
I0925 22:37:31.358798  4514 net.cpp:91] Creating Layer lstm2_gate_input_1
I0925 22:37:31.358816  4514 net.cpp:425] lstm2_gate_input_1 <- W_hc_h_0
I0925 22:37:31.358826  4514 net.cpp:425] lstm2_gate_input_1 <- W_xc_x_1
I0925 22:37:31.358836  4514 net.cpp:399] lstm2_gate_input_1 -> gate_input_1
I0925 22:37:31.363572  4514 net.cpp:141] Setting up lstm2_gate_input_1
I0925 22:37:31.363631  4514 net.cpp:148] Top shape: 1 1 4000 (4000)
I0925 22:37:31.363641  4514 net.cpp:156] Memory required for data: 82020
I0925 22:37:31.363658  4514 layer_factory.hpp:77] Creating layer lstm2_unit_1
I0925 22:37:31.363687  4514 net.cpp:91] Creating Layer lstm2_unit_1
I0925 22:37:31.363698  4514 net.cpp:425] lstm2_unit_1 <- c_0
I0925 22:37:31.363709  4514 net.cpp:425] lstm2_unit_1 <- gate_input_1
I0925 22:37:31.363718  4514 net.cpp:425] lstm2_unit_1 <- cont_1_lstm2_cont_slice_0_split_1
I0925 22:37:31.363736  4514 net.cpp:399] lstm2_unit_1 -> c_1
I0925 22:37:31.363760  4514 net.cpp:399] lstm2_unit_1 -> h_1
I0925 22:37:31.363873  4514 net.cpp:141] Setting up lstm2_unit_1
I0925 22:37:31.363886  4514 net.cpp:148] Top shape: 1 1 1000 (1000)
I0925 22:37:31.363895  4514 net.cpp:148] Top shape: 1 1 1000 (1000)
I0925 22:37:31.363903  4514 net.cpp:156] Memory required for data: 90020
I0925 22:37:31.363911  4514 layer_factory.hpp:77] Creating layer lstm2_
I0925 22:37:31.363924  4514 net.cpp:91] Creating Layer lstm2_
I0925 22:37:31.363931  4514 net.cpp:425] lstm2_ <- c_1
I0925 22:37:31.363940  4514 net.cpp:399] lstm2_ -> c_T
I0925 22:37:31.363988  4514 net.cpp:141] Setting up lstm2_
I0925 22:37:31.363999  4514 net.cpp:148] Top shape: 1 1 1000 (1000)
I0925 22:37:31.364004  4514 net.cpp:156] Memory required for data: 94020
I0925 22:37:31.364011  4514 layer_factory.hpp:77] Creating layer lstm2_h_concat
I0925 22:37:31.364029  4514 net.cpp:91] Creating Layer lstm2_h_concat
I0925 22:37:31.364037  4514 net.cpp:425] lstm2_h_concat <- h_1
I0925 22:37:31.364048  4514 net.cpp:399] lstm2_h_concat -> h
I0925 22:37:31.364096  4514 net.cpp:141] Setting up lstm2_h_concat
I0925 22:37:31.364110  4514 net.cpp:148] Top shape: 1 1 1000 (1000)
I0925 22:37:31.364116  4514 net.cpp:156] Memory required for data: 98020
I0925 22:37:31.364121  4514 layer_factory.hpp:77] Creating layer h_pseudoloss
I0925 22:37:31.364138  4514 net.cpp:91] Creating Layer h_pseudoloss
I0925 22:37:31.364148  4514 net.cpp:425] h_pseudoloss <- h
I0925 22:37:31.364157  4514 net.cpp:399] h_pseudoloss -> h_pseudoloss
I0925 22:37:31.364294  4514 net.cpp:141] Setting up h_pseudoloss
…
I0925 22:37:31.364543  4514 net.cpp:219] lstm2_ does not need backward computation.
I0925 22:37:31.364549  4514 net.cpp:261] This network produces output c_T
I0925 22:37:31.364559  4514 net.cpp:261] This network produces output h_pseudoloss
I0925 22:37:31.364593  4514 net.cpp:274] Network initialization done.
I0925 22:37:31.364670  4514 recurrent_layer.cpp:150] Adding parameter 0: W_xc
I0925 22:37:31.364681  4514 recurrent_layer.cpp:150] Adding parameter 1: b_c
I0925 22:37:31.364687  4514 recurrent_layer.cpp:150] Adding parameter 2: W_hc
I0925 22:37:31.378685  4508 net.cpp:141] Setting up lstm2_transform_1
I0925 22:37:31.378741  4508 net.cpp:148] Top shape: 1 1 4000 (4000)
I0925 22:37:31.378751  4508 net.cpp:156] Memory required for data: 66020
I0925 22:37:31.378772  4508 layer_factory.hpp:77] Creating layer lstm2_gate_input_1
I0925 22:37:31.378801  4508 net.cpp:91] Creating Layer lstm2_gate_input_1
I0925 22:37:31.378814  4508 net.cpp:425] lstm2_gate_input_1 <- W_hc_h_0
I0925 22:37:31.378826  4508 net.cpp:425] lstm2_gate_input_1 <- W_xc_x_1
I0925 22:37:31.378844  4508 net.cpp:399] lstm2_gate_input_1 -> gate_input_1
I0925 22:37:31.378854  4514 net.cpp:141] Setting up lstm2
I0925 22:37:31.378872  4514 net.cpp:148] Top shape: 1 1 1000 (1000)
I0925 22:37:31.378880  4514 net.cpp:156] Memory required for data: 36412
I0925 22:37:31.378906  4514 layer_factory.hpp:77] Creating layer predict
I0925 22:37:31.378926  4514 net.cpp:91] Creating Layer predict
I0925 22:37:31.378937  4514 net.cpp:425] predict <- lstm2
I0925 22:37:31.378950  4514 net.cpp:399] predict -> predict
I0925 22:37:31.382210  4508 net.cpp:141] Setting up lstm2_gate_input_1
I0925 22:37:31.382311  4508 net.cpp:148] Top shape: 1 1 4000 (4000)
I0925 22:37:31.382323  4508 net.cpp:156] Memory required for data: 82020
I0925 22:37:31.382331  4508 layer_factory.hpp:77] Creating layer lstm2_unit_1
I0925 22:37:31.382632  4508 net.cpp:91] Creating Layer lstm2_unit_1
I0925 22:37:31.382650  4508 net.cpp:425] lstm2_unit_1 <- c_0
I0925 22:37:31.382664  4508 net.cpp:425] lstm2_unit_1 <- gate_input_1
I0925 22:37:31.382675  4508 net.cpp:425] lstm2_unit_1 <- cont_1_lstm2_cont_slice_0_split_1
I0925 22:37:31.382690  4508 net.cpp:399] lstm2_unit_1 -> c_1
I0925 22:37:31.382709  4508 net.cpp:399] lstm2_unit_1 -> h_1
I0925 22:37:31.464498  4508 net.cpp:141] Setting up lstm2_unit_1
I0925 22:37:31.464550  4542 net.cpp:141] Setting up predict
I0925 22:37:31.464567  4542 net.cpp:148] Top shape: 1 1 46168 (46168)
I0925 22:37:31.464570  4508 net.cpp:148] Top shape: 1 1 1000 (1000)
I0925 22:37:31.464575  4542 net.cpp:156] Memory required for data: 221084
I0925 22:37:31.464601  4508 net.cpp:148] Top shape: 1 1 1000 (1000)
I0925 22:37:31.464606  4542 layer_factory.hpp:77] Creating layer probs
I0925 22:37:31.464622  4508 net.cpp:156] Memory required for data: 90020
I0925 22:37:31.464635  4542 net.cpp:91] Creating Layer probs
I0925 22:37:31.464639  4508 layer_factory.hpp:77] Creating layer lstm2_
I0925 22:37:31.464646  4542 net.cpp:425] probs <- predict
I0925 22:37:31.464669  4542 net.cpp:399] probs -> probs
I0925 22:37:31.464671  4508 net.cpp:91] Creating Layer lstm2_
I0925 22:37:31.464690  4508 net.cpp:425] lstm2_ <- c_1
I0925 22:37:31.464720  4508 net.cpp:399] lstm2_ -> c_T
I0925 22:37:31.469564  4508 net.cpp:141] Setting up lstm2_
I0925 22:37:31.469635  4508 net.cpp:148] Top shape: 1 1 1000 (1000)
I0925 22:37:31.469653  4508 net.cpp:156] Memory required for data: 94020
I0925 22:37:31.469672  4508 layer_factory.hpp:77] Creating layer lstm2_h_concat
I0925 22:37:31.469704  4508 net.cpp:91] Creating Layer lstm2_h_concat
I0925 22:37:31.469723  4508 net.cpp:425] lstm2_h_concat <- h_1
I0925 22:37:31.469751  4508 net.cpp:399] lstm2_h_concat -> h
I0925 22:37:31.470695  4508 net.cpp:141] Setting up lstm2_h_concat
I0925 22:37:31.470734  4508 net.cpp:148] Top shape: 1 1 1000 (1000)
I0925 22:37:31.470751  4508 net.cpp:156] Memory required for data: 98020
I0925 22:37:31.470765  4508 layer_factory.hpp:77] Creating layer h_pseudoloss
I0925 22:37:31.470795  4508 net.cpp:91] Creating Layer h_pseudoloss
I0925 22:37:31.470813  4508 net.cpp:425] h_pseudoloss <- h
I0925 22:37:31.470835  4508 net.cpp:399] h_pseudoloss -> h_pseudoloss
I0925 22:37:31.476444  4508 net.cpp:141] Setting up h_pseudoloss
…
I0925 22:37:31.476790  4508 net.cpp:219] lstm2_ does not need backward computation.
I0925 22:37:31.476802  4508 net.cpp:261] This network produces output c_T
I0925 22:37:31.476819  4508 net.cpp:261] This network produces output h_pseudoloss
I0925 22:37:31.476866  4508 net.cpp:274] Network initialization done.
I0925 22:37:31.476997  4508 recurrent_layer.cpp:150] Adding parameter 0: W_xc
I0925 22:37:31.477017  4508 recurrent_layer.cpp:150] Adding parameter 1: b_c
I0925 22:37:31.477031  4508 recurrent_layer.cpp:150] Adding parameter 2: W_hc
I0925 22:37:31.482818  4508 net.cpp:141] Setting up lstm2
I0925 22:37:31.482925  4508 net.cpp:148] Top shape: 1 1 1000 (1000)
I0925 22:37:31.482944  4508 net.cpp:156] Memory required for data: 36412
I0925 22:37:31.482997  4508 layer_factory.hpp:77] Creating layer predict
I0925 22:37:31.483039  4508 net.cpp:91] Creating Layer predict
I0925 22:37:31.483104  4508 net.cpp:425] predict <- lstm2
I0925 22:37:31.483172  4508 net.cpp:399] predict -> predict
I0925 22:37:31.580548  4510 net.cpp:141] Setting up predict
I0925 22:37:31.580610  4510 net.cpp:148] Top shape: 1 1 46168 (46168)
I0925 22:37:31.580617  4510 net.cpp:156] Memory required for data: 221084
I0925 22:37:31.580631  4510 layer_factory.hpp:77] Creating layer probs
I0925 22:37:31.580651  4510 net.cpp:91] Creating Layer probs
I0925 22:37:31.580658  4510 net.cpp:425] probs <- predict
I0925 22:37:31.580669  4510 net.cpp:399] probs -> probs
I0925 22:37:31.668941  4522 net.cpp:141] Setting up probs
I0925 22:37:31.668994  4522 net.cpp:148] Top shape: 1 1 46168 (46168)
I0925 22:37:31.669004  4522 net.cpp:156] Memory required for data: 405756
I0925 22:37:31.669018  4522 net.cpp:219] probs does not need backward computation.
I0925 22:37:31.669028  4522 net.cpp:219] predict does not need backward computation.
I0925 22:37:31.669039  4522 net.cpp:219] lstm2 does not need backward computation.
I0925 22:37:31.669049  4522 net.cpp:219] concat does not need backward computation.
I0925 22:37:31.669059  4522 net.cpp:219] lstm1 does not need backward computation.
I0925 22:37:31.669069  4522 net.cpp:219] embedding does not need backward computation.
I0925 22:37:31.669080  4522 net.cpp:219] reshape_stage_indicator does not need backward computation.
I0925 22:37:31.669088  4522 net.cpp:219] reshape_frames does not need backward computation.
I0925 22:37:31.669096  4522 net.cpp:219] embed_encoder does not need backward computation.
I0925 22:37:31.669106  4522 net.cpp:219] cont_sentence_input_1_split does not need backward computation.
I0925 22:37:31.669114  4522 net.cpp:219] input does not need backward computation.
I0925 22:37:31.669121  4522 net.cpp:261] This network produces output probs
I0925 22:37:31.669154  4522 net.cpp:274] Network initialization done.
I0925 22:37:31.669190  4548 net.cpp:141] Setting up probs
I0925 22:37:31.669212  4548 net.cpp:148] Top shape: 1 1 46168 (46168)
I0925 22:37:31.669221  4548 net.cpp:156] Memory required for data: 405756
I0925 22:37:31.669231  4548 net.cpp:219] probs does not need backward computation.
I0925 22:37:31.669240  4548 net.cpp:219] predict does not need backward computation.
I0925 22:37:31.669251  4548 net.cpp:219] lstm2 does not need backward computation.
I0925 22:37:31.669261  4548 net.cpp:219] concat does not need backward computation.
I0925 22:37:31.669271  4548 net.cpp:219] lstm1 does not need backward computation.
I0925 22:37:31.669282  4548 net.cpp:219] embedding does not need backward computation.
I0925 22:37:31.669291  4548 net.cpp:219] reshape_stage_indicator does not need backward computation.
I0925 22:37:31.669299  4548 net.cpp:219] reshape_frames does not need backward computation.
I0925 22:37:31.669308  4548 net.cpp:219] embed_encoder does not need backward computation.
I0925 22:37:31.669317  4548 net.cpp:219] cont_sentence_input_1_split does not need backward computation.
I0925 22:37:31.669329  4548 net.cpp:219] input does not need backward computation.
I0925 22:37:31.669337  4548 net.cpp:261] This network produces output probs
I0925 22:37:31.669363  4548 net.cpp:274] Network initialization done.
I0925 22:37:31.671905  4542 net.cpp:141] Setting up probs
I0925 22:37:31.671936  4542 net.cpp:148] Top shape: 1 1 46168 (46168)
I0925 22:37:31.671947  4542 net.cpp:156] Memory required for data: 405756
I0925 22:37:31.671957  4542 net.cpp:219] probs does not need backward computation.
I0925 22:37:31.671969  4542 net.cpp:219] predict does not need backward computation.
I0925 22:37:31.671978  4542 net.cpp:219] lstm2 does not need backward computation.
I0925 22:37:31.671989  4542 net.cpp:219] concat does not need backward computation.
I0925 22:37:31.672003  4542 net.cpp:219] lstm1 does not need backward computation.
I0925 22:37:31.672013  4542 net.cpp:219] embedding does not need backward computation.
I0925 22:37:31.672022  4542 net.cpp:219] reshape_stage_indicator does not need backward computation.
I0925 22:37:31.672031  4542 net.cpp:219] reshape_frames does not need backward computation.
I0925 22:37:31.672042  4542 net.cpp:219] embed_encoder does not need backward computation.
I0925 22:37:31.672051  4542 net.cpp:219] cont_sentence_input_1_split does not need backward computation.
I0925 22:37:31.672065  4542 net.cpp:219] input does not need backward computation.
I0925 22:37:31.672073  4542 net.cpp:261] This network produces output probs
I0925 22:37:31.672096  4542 net.cpp:274] Network initialization done.
I0925 22:37:31.672247  4510 net.cpp:141] Setting up probs
I0925 22:37:31.672267  4510 net.cpp:148] Top shape: 1 1 46168 (46168)
I0925 22:37:31.672276  4510 net.cpp:156] Memory required for data: 405756
I0925 22:37:31.672284  4510 net.cpp:219] probs does not need backward computation.
I0925 22:37:31.672293  4510 net.cpp:219] predict does not need backward computation.
I0925 22:37:31.672302  4510 net.cpp:219] lstm2 does not need backward computation.
I0925 22:37:31.672312  4510 net.cpp:219] concat does not need backward computation.
I0925 22:37:31.672322  4510 net.cpp:219] lstm1 does not need backward computation.
I0925 22:37:31.682472  4510 net.cpp:219] embedding does not need backward computation.
I0925 22:37:31.682518  4510 net.cpp:219] reshape_stage_indicator does not need backward computation.
I0925 22:37:31.682528  4510 net.cpp:219] reshape_frames does not need backward computation.
I0925 22:37:31.682538  4510 net.cpp:219] embed_encoder does not need backward computation.
I0925 22:37:31.682546  4510 net.cpp:219] cont_sentence_input_1_split does not need backward computation.
I0925 22:37:31.682556  4510 net.cpp:219] input does not need backward computation.
I0925 22:37:31.682564  4510 net.cpp:261] This network produces output probs
I0925 22:37:31.683033  4510 net.cpp:274] Network initialization done.
I0925 22:37:31.685541  4516 net.cpp:141] Setting up conv1
I0925 22:37:31.685593  4516 net.cpp:148] Top shape: 10 96 55 55 (2904000)
I0925 22:37:31.685603  4516 net.cpp:156] Memory required for data: 17799480
I0925 22:37:31.685637  4516 layer_factory.hpp:77] Creating layer relu1
I0925 22:37:31.685660  4516 net.cpp:91] Creating Layer relu1
I0925 22:37:31.685670  4516 net.cpp:425] relu1 <- conv1
I0925 22:37:31.685683  4516 net.cpp:386] relu1 -> conv1 (in-place)
I0925 22:37:31.686132  4516 net.cpp:141] Setting up relu1
I0925 22:37:31.686151  4516 net.cpp:148] Top shape: 10 96 55 55 (2904000)
I0925 22:37:31.686161  4516 net.cpp:156] Memory required for data: 29415480
I0925 22:37:31.686169  4516 layer_factory.hpp:77] Creating layer pool1
I0925 22:37:31.686190  4516 net.cpp:91] Creating Layer pool1
I0925 22:37:31.686199  4516 net.cpp:425] pool1 <- conv1
I0925 22:37:31.686213  4516 net.cpp:399] pool1 -> pool1
I0925 22:37:31.686359  4516 net.cpp:141] Setting up pool1
I0925 22:37:31.686375  4516 net.cpp:148] Top shape: 10 96 27 27 (699840)
I0925 22:37:31.686383  4516 net.cpp:156] Memory required for data: 32214840
I0925 22:37:31.686394  4516 layer_factory.hpp:77] Creating layer norm1
I0925 22:37:31.686417  4516 net.cpp:91] Creating Layer norm1
I0925 22:37:31.686427  4516 net.cpp:425] norm1 <- pool1
I0925 22:37:31.686439  4516 net.cpp:399] norm1 -> norm1
I0925 22:37:31.687165  4516 net.cpp:141] Setting up norm1
I0925 22:37:31.687187  4516 net.cpp:148] Top shape: 10 96 27 27 (699840)
I0925 22:37:31.687196  4516 net.cpp:156] Memory required for data: 35014200
I0925 22:37:31.687206  4516 layer_factory.hpp:77] Creating layer conv2
I0925 22:37:31.687228  4516 net.cpp:91] Creating Layer conv2
I0925 22:37:31.687237  4516 net.cpp:425] conv2 <- norm1
I0925 22:37:31.687250  4516 net.cpp:399] conv2 -> conv2
I0925 22:37:31.694875  4504 net.cpp:141] Setting up predict
I0925 22:37:31.694926  4504 net.cpp:148] Top shape: 1 1 46168 (46168)
I0925 22:37:31.694932  4504 net.cpp:156] Memory required for data: 221084
I0925 22:37:31.694950  4504 layer_factory.hpp:77] Creating layer probs
I0925 22:37:31.694972  4504 net.cpp:91] Creating Layer probs
I0925 22:37:31.694979  4504 net.cpp:425] probs <- predict
I0925 22:37:31.694990  4504 net.cpp:399] probs -> probs
I0925 22:37:31.697130  4504 net.cpp:141] Setting up probs
I0925 22:37:31.697160  4504 net.cpp:148] Top shape: 1 1 46168 (46168)
I0925 22:37:31.697166  4504 net.cpp:156] Memory required for data: 405756
I0925 22:37:31.697175  4504 net.cpp:219] probs does not need backward computation.
I0925 22:37:31.697180  4504 net.cpp:219] predict does not need backward computation.
I0925 22:37:31.697185  4504 net.cpp:219] lstm2 does not need backward computation.
I0925 22:37:31.697192  4504 net.cpp:219] concat does not need backward computation.
I0925 22:37:31.697198  4504 net.cpp:219] lstm1 does not need backward computation.
I0925 22:37:31.697204  4504 net.cpp:219] embedding does not need backward computation.
I0925 22:37:31.697211  4504 net.cpp:219] reshape_stage_indicator does not need backward computation.
I0925 22:37:31.697216  4504 net.cpp:219] reshape_frames does not need backward computation.
I0925 22:37:31.697221  4504 net.cpp:219] embed_encoder does not need backward computation.
I0925 22:37:31.697227  4504 net.cpp:219] cont_sentence_input_1_split does not need backward computation.
I0925 22:37:31.697232  4504 net.cpp:219] input does not need backward computation.
I0925 22:37:31.697237  4504 net.cpp:261] This network produces output probs
I0925 22:37:31.697255  4504 net.cpp:274] Network initialization done.
I0925 22:37:31.698442  4516 net.cpp:141] Setting up conv2
I0925 22:37:31.698494  4516 net.cpp:148] Top shape: 10 256 27 27 (1866240)
I0925 22:37:31.698506  4516 net.cpp:156] Memory required for data: 42479160
I0925 22:37:31.698539  4516 layer_factory.hpp:77] Creating layer relu2
I0925 22:37:31.698967  4516 net.cpp:91] Creating Layer relu2
I0925 22:37:31.698999  4516 net.cpp:425] relu2 <- conv2
I0925 22:37:31.699018  4516 net.cpp:386] relu2 -> conv2 (in-place)
I0925 22:37:31.700484  4516 net.cpp:141] Setting up relu2
I0925 22:37:31.700527  4516 net.cpp:148] Top shape: 10 256 27 27 (1866240)
I0925 22:37:31.700537  4516 net.cpp:156] Memory required for data: 49944120
I0925 22:37:31.700549  4516 layer_factory.hpp:77] Creating layer pool2
I0925 22:37:31.700569  4516 net.cpp:91] Creating Layer pool2
I0925 22:37:31.700580  4516 net.cpp:425] pool2 <- conv2
I0925 22:37:31.701026  4516 net.cpp:399] pool2 -> pool2
I0925 22:37:31.701578  4516 net.cpp:141] Setting up pool2
I0925 22:37:31.701602  4516 net.cpp:148] Top shape: 10 256 13 13 (432640)
I0925 22:37:31.701611  4516 net.cpp:156] Memory required for data: 51674680
I0925 22:37:31.701618  4516 layer_factory.hpp:77] Creating layer norm2
I0925 22:37:31.701653  4516 net.cpp:91] Creating Layer norm2
I0925 22:37:31.701663  4516 net.cpp:425] norm2 <- pool2
I0925 22:37:31.701675  4516 net.cpp:399] norm2 -> norm2
I0925 22:37:31.704226  4516 net.cpp:141] Setting up norm2
I0925 22:37:31.704284  4516 net.cpp:148] Top shape: 10 256 13 13 (432640)
I0925 22:37:31.704295  4516 net.cpp:156] Memory required for data: 53405240
I0925 22:37:31.704310  4516 layer_factory.hpp:77] Creating layer conv3
I0925 22:37:31.704345  4516 net.cpp:91] Creating Layer conv3
I0925 22:37:31.704360  4516 net.cpp:425] conv3 <- norm2
I0925 22:37:31.704380  4516 net.cpp:399] conv3 -> conv3
I0925 22:37:31.727279  4516 net.cpp:141] Setting up conv3
I0925 22:37:31.727339  4516 net.cpp:148] Top shape: 10 384 13 13 (648960)
I0925 22:37:31.727349  4516 net.cpp:156] Memory required for data: 56001080
I0925 22:37:31.727380  4516 layer_factory.hpp:77] Creating layer relu3
I0925 22:37:31.727402  4516 net.cpp:91] Creating Layer relu3
I0925 22:37:31.727413  4516 net.cpp:425] relu3 <- conv3
I0925 22:37:31.727426  4516 net.cpp:386] relu3 -> conv3 (in-place)
I0925 22:37:31.730461  4516 net.cpp:141] Setting up relu3
I0925 22:37:31.730523  4516 net.cpp:148] Top shape: 10 384 13 13 (648960)
I0925 22:37:31.730535  4516 net.cpp:156] Memory required for data: 58596920
I0925 22:37:31.730551  4516 layer_factory.hpp:77] Creating layer conv4
I0925 22:37:31.730587  4516 net.cpp:91] Creating Layer conv4
I0925 22:37:31.730615  4516 net.cpp:425] conv4 <- conv3
I0925 22:37:31.730636  4516 net.cpp:399] conv4 -> conv4
I0925 22:37:31.767981  4516 net.cpp:141] Setting up conv4
I0925 22:37:31.768057  4516 net.cpp:148] Top shape: 10 384 13 13 (648960)
I0925 22:37:31.768070  4516 net.cpp:156] Memory required for data: 61192760
I0925 22:37:31.768100  4516 layer_factory.hpp:77] Creating layer relu4
I0925 22:37:31.768136  4516 net.cpp:91] Creating Layer relu4
I0925 22:37:31.768152  4516 net.cpp:425] relu4 <- conv4
I0925 22:37:31.768174  4516 net.cpp:386] relu4 -> conv4 (in-place)
I0925 22:37:31.768821  4516 net.cpp:141] Setting up relu4
I0925 22:37:31.768851  4516 net.cpp:148] Top shape: 10 384 13 13 (648960)
I0925 22:37:31.768860  4516 net.cpp:156] Memory required for data: 63788600
I0925 22:37:31.768875  4516 layer_factory.hpp:77] Creating layer conv5
I0925 22:37:31.768936  4516 net.cpp:91] Creating Layer conv5
I0925 22:37:31.768951  4516 net.cpp:425] conv5 <- conv4
I0925 22:37:31.768972  4516 net.cpp:399] conv5 -> conv5
I0925 22:37:31.777385  4516 net.cpp:141] Setting up conv5
I0925 22:37:31.777439  4516 net.cpp:148] Top shape: 10 256 13 13 (432640)
I0925 22:37:31.777446  4516 net.cpp:156] Memory required for data: 65519160
I0925 22:37:31.777480  4516 layer_factory.hpp:77] Creating layer relu5
I0925 22:37:31.777593  4516 net.cpp:91] Creating Layer relu5
I0925 22:37:31.777637  4516 net.cpp:425] relu5 <- conv5
I0925 22:37:31.777673  4516 net.cpp:386] relu5 -> conv5 (in-place)
I0925 22:37:31.778373  4516 net.cpp:141] Setting up relu5
I0925 22:37:31.778409  4516 net.cpp:148] Top shape: 10 256 13 13 (432640)
I0925 22:37:31.778420  4516 net.cpp:156] Memory required for data: 67249720
I0925 22:37:31.778434  4516 layer_factory.hpp:77] Creating layer pool5
I0925 22:37:31.778462  4516 net.cpp:91] Creating Layer pool5
I0925 22:37:31.778475  4516 net.cpp:425] pool5 <- conv5
I0925 22:37:31.778491  4516 net.cpp:399] pool5 -> pool5
I0925 22:37:31.778703  4516 net.cpp:141] Setting up pool5
I0925 22:37:31.778724  4516 net.cpp:148] Top shape: 10 256 6 6 (92160)
I0925 22:37:31.778733  4516 net.cpp:156] Memory required for data: 67618360
I0925 22:37:31.778743  4516 layer_factory.hpp:77] Creating layer fc6
I0925 22:37:31.778772  4516 net.cpp:91] Creating Layer fc6
I0925 22:37:31.778784  4516 net.cpp:425] fc6 <- pool5
I0925 22:37:31.778800  4516 net.cpp:399] fc6 -> fc6
I0925 22:37:31.866117  4514 net.cpp:141] Setting up predict
I0925 22:37:31.866166  4514 net.cpp:148] Top shape: 1 1 46168 (46168)
I0925 22:37:31.866173  4514 net.cpp:156] Memory required for data: 221084
I0925 22:37:31.866188  4514 layer_factory.hpp:77] Creating layer probs
I0925 22:37:31.866205  4514 net.cpp:91] Creating Layer probs
I0925 22:37:31.866214  4514 net.cpp:425] probs <- predict
I0925 22:37:31.866224  4514 net.cpp:399] probs -> probs
I0925 22:37:31.867120  4514 net.cpp:141] Setting up probs
I0925 22:37:31.867147  4514 net.cpp:148] Top shape: 1 1 46168 (46168)
I0925 22:37:31.867156  4514 net.cpp:156] Memory required for data: 405756
I0925 22:37:31.867166  4514 net.cpp:219] probs does not need backward computation.
I0925 22:37:31.867177  4514 net.cpp:219] predict does not need backward computation.
I0925 22:37:31.867189  4514 net.cpp:219] lstm2 does not need backward computation.
I0925 22:37:31.867203  4514 net.cpp:219] concat does not need backward computation.
I0925 22:37:31.867214  4514 net.cpp:219] lstm1 does not need backward computation.
I0925 22:37:31.867229  4514 net.cpp:219] embedding does not need backward computation.
I0925 22:37:31.867240  4514 net.cpp:219] reshape_stage_indicator does not need backward computation.
I0925 22:37:31.867255  4514 net.cpp:219] reshape_frames does not need backward computation.
I0925 22:37:31.867266  4514 net.cpp:219] embed_encoder does not need backward computation.
I0925 22:37:31.867277  4514 net.cpp:219] cont_sentence_input_1_split does not need backward computation.
I0925 22:37:31.867288  4514 net.cpp:219] input does not need backward computation.
I0925 22:37:31.867298  4514 net.cpp:261] This network produces output probs
I0925 22:37:31.867328  4514 net.cpp:274] Network initialization done.
I0925 22:37:31.922245  4516 net.cpp:141] Setting up fc6
I0925 22:37:31.922328  4516 net.cpp:148] Top shape: 10 4096 (40960)
I0925 22:37:31.922348  4516 net.cpp:156] Memory required for data: 67782200
I0925 22:37:31.922395  4516 layer_factory.hpp:77] Creating layer relu6
I0925 22:37:31.922458  4516 net.cpp:91] Creating Layer relu6
I0925 22:37:31.922482  4516 net.cpp:425] relu6 <- fc6
I0925 22:37:31.922507  4516 net.cpp:386] relu6 -> fc6 (in-place)
I0925 22:37:31.923461  4516 net.cpp:141] Setting up relu6
I0925 22:37:31.923508  4516 net.cpp:148] Top shape: 10 4096 (40960)
I0925 22:37:31.923519  4516 net.cpp:156] Memory required for data: 67946040
I0925 22:37:31.923532  4516 layer_factory.hpp:77] Creating layer drop6
I0925 22:37:31.923568  4516 net.cpp:91] Creating Layer drop6
I0925 22:37:31.923581  4516 net.cpp:425] drop6 <- fc6
I0925 22:37:31.923634  4516 net.cpp:386] drop6 -> fc6 (in-place)
I0925 22:37:31.923796  4516 net.cpp:141] Setting up drop6
I0925 22:37:31.923817  4516 net.cpp:148] Top shape: 10 4096 (40960)
I0925 22:37:31.923833  4516 net.cpp:156] Memory required for data: 68109880
I0925 22:37:31.923843  4516 layer_factory.hpp:77] Creating layer fc7
I0925 22:37:31.923861  4516 net.cpp:91] Creating Layer fc7
I0925 22:37:31.923871  4516 net.cpp:425] fc7 <- fc6
I0925 22:37:31.923883  4516 net.cpp:399] fc7 -> fc7
I0925 22:37:31.961740  4508 net.cpp:141] Setting up predict
I0925 22:37:31.962260  4508 net.cpp:148] Top shape: 1 1 46168 (46168)
I0925 22:37:31.962450  4508 net.cpp:156] Memory required for data: 221084
I0925 22:37:31.962620  4508 layer_factory.hpp:77] Creating layer probs
I0925 22:37:31.962779  4508 net.cpp:91] Creating Layer probs
I0925 22:37:31.962914  4508 net.cpp:425] probs <- predict
I0925 22:37:31.963053  4508 net.cpp:399] probs -> probs
I0925 22:37:31.964577  4508 net.cpp:141] Setting up probs
I0925 22:37:31.964633  4508 net.cpp:148] Top shape: 1 1 46168 (46168)
I0925 22:37:31.964640  4508 net.cpp:156] Memory required for data: 405756
I0925 22:37:31.964653  4508 net.cpp:219] probs does not need backward computation.
I0925 22:37:31.964660  4508 net.cpp:219] predict does not need backward computation.
I0925 22:37:31.964668  4508 net.cpp:219] lstm2 does not need backward computation.
I0925 22:37:31.964674  4508 net.cpp:219] concat does not need backward computation.
I0925 22:37:31.964680  4508 net.cpp:219] lstm1 does not need backward computation.
I0925 22:37:31.964689  4508 net.cpp:219] embedding does not need backward computation.
I0925 22:37:31.964694  4508 net.cpp:219] reshape_stage_indicator does not need backward computation.
I0925 22:37:31.964699  4508 net.cpp:219] reshape_frames does not need backward computation.
I0925 22:37:31.964704  4508 net.cpp:219] embed_encoder does not need backward computation.
I0925 22:37:31.964712  4508 net.cpp:219] cont_sentence_input_1_split does not need backward computation.
I0925 22:37:31.964721  4508 net.cpp:219] input does not need backward computation.
I0925 22:37:31.964725  4508 net.cpp:261] This network produces output probs
I0925 22:37:31.964751  4508 net.cpp:274] Network initialization done.
I0925 22:37:31.993089  4516 net.cpp:141] Setting up fc7
I0925 22:37:31.993160  4516 net.cpp:148] Top shape: 10 4096 (40960)
I0925 22:37:31.993173  4516 net.cpp:156] Memory required for data: 68273720
I0925 22:37:31.993198  4516 layer_factory.hpp:77] Creating layer relu7
I0925 22:37:31.993599  4516 net.cpp:91] Creating Layer relu7
I0925 22:37:31.993616  4516 net.cpp:425] relu7 <- fc7
I0925 22:37:31.993633  4516 net.cpp:386] relu7 -> fc7 (in-place)
I0925 22:37:31.995690  4516 net.cpp:141] Setting up relu7
I0925 22:37:31.995746  4516 net.cpp:148] Top shape: 10 4096 (40960)
I0925 22:37:31.995757  4516 net.cpp:156] Memory required for data: 68437560
I0925 22:37:31.995769  4516 layer_factory.hpp:77] Creating layer drop7
I0925 22:37:31.996501  4516 net.cpp:91] Creating Layer drop7
I0925 22:37:31.996538  4516 net.cpp:425] drop7 <- fc7
I0925 22:37:31.996561  4516 net.cpp:386] drop7 -> fc7 (in-place)
I0925 22:37:31.996830  4516 net.cpp:141] Setting up drop7
I0925 22:37:31.996861  4516 net.cpp:148] Top shape: 10 4096 (40960)
I0925 22:37:31.996872  4516 net.cpp:156] Memory required for data: 68601400
I0925 22:37:31.996886  4516 layer_factory.hpp:77] Creating layer fc8
I0925 22:37:31.996906  4516 net.cpp:91] Creating Layer fc8
I0925 22:37:31.996917  4516 net.cpp:425] fc8 <- fc7
I0925 22:37:31.997277  4516 net.cpp:399] fc8 -> fc8
I0925 22:37:32.018404  4516 net.cpp:141] Setting up fc8
I0925 22:37:32.018466  4516 net.cpp:148] Top shape: 10 1000 (10000)
I0925 22:37:32.018476  4516 net.cpp:156] Memory required for data: 68641400
I0925 22:37:32.018499  4516 layer_factory.hpp:77] Creating layer prob
I0925 22:37:32.018522  4516 net.cpp:91] Creating Layer prob
I0925 22:37:32.018534  4516 net.cpp:425] prob <- fc8
I0925 22:37:32.018554  4516 net.cpp:399] prob -> prob
I0925 22:37:32.020954  4516 net.cpp:141] Setting up prob
I0925 22:37:32.021018  4516 net.cpp:148] Top shape: 10 1000 (10000)
I0925 22:37:32.021029  4516 net.cpp:156] Memory required for data: 68681400
I0925 22:37:32.021045  4516 net.cpp:219] prob does not need backward computation.
I0925 22:37:32.021059  4516 net.cpp:219] fc8 does not need backward computation.
I0925 22:37:32.021070  4516 net.cpp:219] drop7 does not need backward computation.
I0925 22:37:32.021081  4516 net.cpp:219] relu7 does not need backward computation.
…
