…
Java HotSpot(TM) 64-Bit Server VM warning: You have loaded library /tmp/cvld1127658862446673564/libopencv_java310.xine1.so which might have disabled stack guard. The VM will try to fix the stack guard now.
It's highly recommended that you fix the library with 'execstack -c <libfile>', or link it with '-z noexecstack'.
WARNING: Logging before InitGoogleLogging() is written to STDERR
I0731 22:21:01.375457  8662 net.cpp:49] Initializing net from parameters: 
name: "CaffeNet"
state {
  phase: TEST
}
layer {
  name: "data"
  type: "Input"
  top: "data"
  input_param {
    shape {
      dim: 10
      dim: 3
      dim: 227
      dim: 227
    }
  }
}
layer {
  name: "conv1"
  type: "Convolution"
  bottom: "data"
  top: "conv1"
  convolution_param {
    num_output: 96
    kernel_size: 11
    stride: 4
  }
}
layer {
  name: "relu1"
  type: "ReLU"
  bottom: "conv1"
  top: "conv1"
}
layer {
  name: "pool1"
  type: "Pooling"
  bottom: "conv1"
  top: "pool1"
  pooling_param {
    pool: MAX
    kernel_size: 3
    stride: 2
  }
}
layer {
  name: "norm1"
  type: "LRN"
  bottom: "pool1"
  top: "norm1"
  lrn_param {
    local_size: 5
    alpha: 0.0001
    beta: 0.75
  }
}
layer {
  name: "conv2"
  type: "Convolution"
  bottom: "norm1"
  top: "conv2"
  convolution_param {
    num_output: 256
    pad: 2
    kernel_size: 5
    group: 2
  }
}
layer {
  name: "relu2"
  type: "ReLU"
  bottom: "conv2"
  top: "conv2"
}
layer {
  name: "pool2"
  type: "Pooling"
  bottom: "conv2"
  top: "pool2"
  pooling_param {
    pool: MAX
    kernel_size: 3
    stride: 2
  }
}
layer {
  name: "norm2"
  type: "LRN"
  bottom: "pool2"
  top: "norm2"
  lrn_param {
    local_size: 5
    alpha: 0.0001
    beta: 0.75
  }
}
layer {
  name: "conv3"
  type: "Convolution"
  bottom: "norm2"
  top: "conv3"
  convolution_param {
    num_output: 384
    pad: 1
    kernel_size: 3
  }
}
layer {
  name: "relu3"
  type: "ReLU"
  bottom: "conv3"
  top: "conv3"
}
layer {
  name: "conv4"
  type: "Convolution"
  bottom: "conv3"
  top: "conv4"
  convolution_param {
    num_output: 384
    pad: 1
    kernel_size: 3
    group: 2
  }
}
layer {
  name: "relu4"
  type: "ReLU"
  bottom: "conv4"
  top: "conv4"
}
layer {
  name: "conv5"
  type: "Convolution"
  bottom: "conv4"
  top: "conv5"
  convolution_param {
    num_output: 256
    pad: 1
    kernel_size: 3
    group: 2
  }
}
layer {
  name: "relu5"
  type: "ReLU"
  bottom: "conv5"
  top: "conv5"
}
layer {
  name: "pool5"
  type: "Pooling"
  bottom: "conv5"
  top: "pool5"
  pooling_param {
    pool: MAX
    kernel_size: 3
    stride: 2
  }
}
layer {
  name: "fc6"
  type: "InnerProduct"
  bottom: "pool5"
  top: "fc6"
  inner_product_param {
    num_output: 4096
  }
}
layer {
  name: "relu6"
  type: "ReLU"
  bottom: "fc6"
  top: "fc6"
}
layer {
  name: "drop6"
  type: "Dropout"
  bottom: "fc6"
  top: "fc6"
  dropout_param {
    dropout_ratio: 0.5
  }
}
layer {
  name: "fc7"
  type: "InnerProduct"
  bottom: "fc6"
  top: "fc7"
  inner_product_param {
    num_output: 4096
  }
}
layer {
  name: "relu7"
  type: "ReLU"
  bottom: "fc7"
  top: "fc7"
}
layer {
  name: "drop7"
  type: "Dropout"
  bottom: "fc7"
  top: "fc7"
  dropout_param {
    dropout_ratio: 0.5
  }
}
layer {
  name: "fc8"
  type: "InnerProduct"
  bottom: "fc7"
  top: "fc8"
  inner_product_param {
    num_output: 1000
  }
}
layer {
  name: "prob"
  type: "Softmax"
  bottom: "fc8"
  top: "prob"
}
I0731 22:21:01.375676  8662 layer_factory.hpp:77] Creating layer data
I0731 22:21:01.375706  8662 net.cpp:91] Creating Layer data
I0731 22:21:01.375717  8662 net.cpp:399] data -> data
I0731 22:21:01.702883  8652 upgrade_proto.cpp:66] Attempting to upgrade input file specified using deprecated input fields: /tmp/cvld1127658862446673564/s2vt.words_to_preds.prototxt
I0731 22:21:01.702939  8652 upgrade_proto.cpp:69] Successfully upgraded file specified using deprecated input fields.
W0731 22:21:01.702949  8652 upgrade_proto.cpp:71] Note that future Caffe releases will only support input layers and not input fields.
I0731 22:21:01.703210  8652 net.cpp:49] Initializing net from parameters: 
name: "s2vt:features_to_lstm"
state {
  phase: TEST
}
layer {
  name: "input"
  type: "Input"
  top: "frames_fc7"
  top: "cont_sentence"
  top: "input_sentence"
  top: "stage_indicator"
  input_param {
    shape {
      dim: 1
      dim: 4096
    }
    shape {
      dim: 1
      dim: 1
    }
    shape {
      dim: 1
      dim: 1
    }
    shape {
      dim: 1
      dim: 1
    }
  }
}
layer {
  name: "embed_encoder"
  type: "InnerProduct"
  bottom: "frames_fc7"
  top: "embedded_in_frames"
  param {
    lr_mult: 1
    decay_mult: 1
  }
  param {
    lr_mult: 2
    decay_mult: 0
  }
  inner_product_param {
    num_output: 500
    weight_filler {
      type: "xavier"
    }
    bias_filler {
      type: "constant"
      value: 0.2
    }
  }
}
layer {
  name: "reshape_frames"
  type: "Reshape"
  bottom: "embedded_in_frames"
  top: "embedded_input_frames"
  reshape_param {
    shape {
      dim: 1
      dim: 1
      dim: 500
    }
  }
}
layer {
  name: "reshape_stage_indicator"
  type: "Reshape"
  bottom: "stage_indicator"
  top: "reshaped_stage_indicator"
  reshape_param {
    shape {
      dim: 1
      dim: 1
      dim: 1
    }
  }
}
layer {
  name: "embedding"
  type: "Embed"
  bottom: "input_sentence"
  top: "embedded_input_sentence"
  param {
    lr_mult: 1
  }
  embed_param {
    num_output: 500
    input_dim: 46168
    bias_term: false
    weight_filler {
      type: "uniform"
      min: -0.08
      max: 0.08
    }
  }
}
layer {
  name: "lstm1"
  type: "LSTM"
  bottom: "embedded_input_frames"
  bottom: "cont_sentence"
  top: "lstm1"
  recurrent_param {
    num_output: 1000
    weight_filler {
      type: "uniform"
      min: -0.08
      max: 0.08
    }
    bias_filler {
      type: "constant"
      value: 0
    }
  }
}
layer {
  name: "concat"
  type: "Concat"
  bottom: "lstm1"
  bottom: "embedded_input_sentence"
  bottom: "reshaped_stage_indicator"
  top: "lstm1_video_sequence"
  concat_param {
    concat_dim: 2
  }
}
layer {
  name: "lstm2"
  type: "LSTM"
  bottom: "lstm1_video_sequence"
  bottom: "cont_sentence"
  top: "lstm2"
  recurrent_param {
    num_output: 1000
    weight_filler {
      type: "uniform"
      min: -0.08
      max: 0.08
    }
    bias_filler {
      type: "constant"
      value: 0
    }
  }
}
layer {
  name: "predict"
  type: "InnerProduct"
  bottom: "lstm2"
  top: "predict"
  param {
    lr_mult: 1
    decay_mult: 1
  }
  param {
    lr_mult: 2
    decay_mult: 0
  }
  inner_product_param {
    num_output: 46168
    weight_filler {
      type: "uniform"
      min: -0.08
      max: 0.08
    }
    bias_filler {
      type: "constant"
      value: 0
    }
    axis: 2
  }
}
layer {
  name: "probs"
  type: "Softmax"
  bottom: "predict"
  top: "probs"
  softmax_param {
    axis: 2
  }
}
I0731 22:21:01.703344  8652 layer_factory.hpp:77] Creating layer input
I0731 22:21:01.703361  8652 net.cpp:91] Creating Layer input
I0731 22:21:01.703371  8652 net.cpp:399] input -> frames_fc7
I0731 22:21:01.703388  8652 net.cpp:399] input -> cont_sentence
I0731 22:21:01.703403  8652 net.cpp:399] input -> input_sentence
I0731 22:21:01.703415  8652 net.cpp:399] input -> stage_indicator
I0731 22:21:01.871208  8662 net.cpp:141] Setting up data
I0731 22:21:01.871287  8662 net.cpp:148] Top shape: 10 3 227 227 (1545870)
I0731 22:21:01.871294  8662 net.cpp:156] Memory required for data: 6183480
I0731 22:21:01.871320  8662 layer_factory.hpp:77] Creating layer conv1
I0731 22:21:01.871327  8652 net.cpp:141] Setting up input
I0731 22:21:01.871359  8662 net.cpp:91] Creating Layer conv1
I0731 22:21:01.871368  8652 net.cpp:148] Top shape: 1 4096 (4096)
I0731 22:21:01.871376  8662 net.cpp:425] conv1 <- data
I0731 22:21:01.871378  8652 net.cpp:148] Top shape: 1 1 (1)
I0731 22:21:01.871397  8652 net.cpp:148] Top shape: 1 1 (1)
I0731 22:21:01.871404  8652 net.cpp:148] Top shape: 1 1 (1)
I0731 22:21:01.871405  8662 net.cpp:399] conv1 -> conv1
I0731 22:21:01.871409  8652 net.cpp:156] Memory required for data: 16396
I0731 22:21:01.871420  8652 layer_factory.hpp:77] Creating layer cont_sentence_input_1_split
I0731 22:21:01.871448  8652 net.cpp:91] Creating Layer cont_sentence_input_1_split
I0731 22:21:01.871456  8652 net.cpp:425] cont_sentence_input_1_split <- cont_sentence
I0731 22:21:01.871491  8652 net.cpp:399] cont_sentence_input_1_split -> cont_sentence_input_1_split_0
I0731 22:21:01.871507  8652 net.cpp:399] cont_sentence_input_1_split -> cont_sentence_input_1_split_1
I0731 22:21:01.871661  8652 net.cpp:141] Setting up cont_sentence_input_1_split
I0731 22:21:01.871673  8652 net.cpp:148] Top shape: 1 1 (1)
I0731 22:21:01.871680  8652 net.cpp:148] Top shape: 1 1 (1)
I0731 22:21:01.871685  8652 net.cpp:156] Memory required for data: 16404
I0731 22:21:01.871691  8652 layer_factory.hpp:77] Creating layer embed_encoder
I0731 22:21:01.871707  8652 net.cpp:91] Creating Layer embed_encoder
I0731 22:21:01.871713  8652 net.cpp:425] embed_encoder <- frames_fc7
I0731 22:21:01.871722  8652 net.cpp:399] embed_encoder -> embedded_in_frames
I0731 22:21:01.897172  8652 net.cpp:141] Setting up embed_encoder
I0731 22:21:01.897214  8652 net.cpp:148] Top shape: 1 500 (500)
I0731 22:21:01.897222  8652 net.cpp:156] Memory required for data: 18404
I0731 22:21:01.897246  8652 layer_factory.hpp:77] Creating layer reshape_frames
I0731 22:21:01.897271  8652 net.cpp:91] Creating Layer reshape_frames
I0731 22:21:01.897280  8652 net.cpp:425] reshape_frames <- embedded_in_frames
I0731 22:21:01.897292  8652 net.cpp:399] reshape_frames -> embedded_input_frames
I0731 22:21:01.898751  8652 net.cpp:141] Setting up reshape_frames
I0731 22:21:01.898773  8652 net.cpp:148] Top shape: 1 1 500 (500)
I0731 22:21:01.898779  8652 net.cpp:156] Memory required for data: 20404
I0731 22:21:01.898785  8652 layer_factory.hpp:77] Creating layer reshape_stage_indicator
I0731 22:21:01.898798  8652 net.cpp:91] Creating Layer reshape_stage_indicator
I0731 22:21:01.898805  8652 net.cpp:425] reshape_stage_indicator <- stage_indicator
I0731 22:21:01.898823  8652 net.cpp:399] reshape_stage_indicator -> reshaped_stage_indicator
I0731 22:21:01.901948  8652 net.cpp:141] Setting up reshape_stage_indicator
I0731 22:21:01.901970  8652 net.cpp:148] Top shape: 1 1 1 (1)
I0731 22:21:01.901976  8652 net.cpp:156] Memory required for data: 20408
I0731 22:21:01.901983  8652 layer_factory.hpp:77] Creating layer embedding
I0731 22:21:01.901996  8652 net.cpp:91] Creating Layer embedding
I0731 22:21:01.902003  8652 net.cpp:425] embedding <- input_sentence
I0731 22:21:01.902012  8652 net.cpp:399] embedding -> embedded_input_sentence
I0731 22:21:02.127377  8662 net.cpp:141] Setting up conv1
I0731 22:21:02.127432  8662 net.cpp:148] Top shape: 10 96 55 55 (2904000)
I0731 22:21:02.127439  8662 net.cpp:156] Memory required for data: 17799480
I0731 22:21:02.127463  8662 layer_factory.hpp:77] Creating layer relu1
I0731 22:21:02.127482  8662 net.cpp:91] Creating Layer relu1
I0731 22:21:02.127490  8662 net.cpp:425] relu1 <- conv1
I0731 22:21:02.127497  8662 net.cpp:386] relu1 -> conv1 (in-place)
I0731 22:21:02.128015  8662 net.cpp:141] Setting up relu1
I0731 22:21:02.128031  8662 net.cpp:148] Top shape: 10 96 55 55 (2904000)
I0731 22:21:02.128036  8662 net.cpp:156] Memory required for data: 29415480
I0731 22:21:02.128042  8662 layer_factory.hpp:77] Creating layer pool1
I0731 22:21:02.128056  8662 net.cpp:91] Creating Layer pool1
I0731 22:21:02.128062  8662 net.cpp:425] pool1 <- conv1
I0731 22:21:02.128074  8662 net.cpp:399] pool1 -> pool1
I0731 22:21:02.128150  8662 net.cpp:141] Setting up pool1
I0731 22:21:02.128162  8662 net.cpp:148] Top shape: 10 96 27 27 (699840)
I0731 22:21:02.128167  8662 net.cpp:156] Memory required for data: 32214840
I0731 22:21:02.128172  8662 layer_factory.hpp:77] Creating layer norm1
I0731 22:21:02.128195  8662 net.cpp:91] Creating Layer norm1
I0731 22:21:02.128201  8662 net.cpp:425] norm1 <- pool1
I0731 22:21:02.128211  8662 net.cpp:399] norm1 -> norm1
I0731 22:21:02.128742  8662 net.cpp:141] Setting up norm1
I0731 22:21:02.128757  8662 net.cpp:148] Top shape: 10 96 27 27 (699840)
I0731 22:21:02.128763  8662 net.cpp:156] Memory required for data: 35014200
I0731 22:21:02.128768  8662 layer_factory.hpp:77] Creating layer conv2
I0731 22:21:02.128787  8662 net.cpp:91] Creating Layer conv2
I0731 22:21:02.128793  8662 net.cpp:425] conv2 <- norm1
I0731 22:21:02.128803  8662 net.cpp:399] conv2 -> conv2
I0731 22:21:02.132465  8662 net.cpp:141] Setting up conv2
I0731 22:21:02.132488  8662 net.cpp:148] Top shape: 10 256 27 27 (1866240)
I0731 22:21:02.132493  8662 net.cpp:156] Memory required for data: 42479160
I0731 22:21:02.132506  8662 layer_factory.hpp:77] Creating layer relu2
I0731 22:21:02.132517  8662 net.cpp:91] Creating Layer relu2
I0731 22:21:02.132522  8662 net.cpp:425] relu2 <- conv2
I0731 22:21:02.132534  8662 net.cpp:386] relu2 -> conv2 (in-place)
I0731 22:21:02.133030  8662 net.cpp:141] Setting up relu2
I0731 22:21:02.133044  8662 net.cpp:148] Top shape: 10 256 27 27 (1866240)
I0731 22:21:02.133050  8662 net.cpp:156] Memory required for data: 49944120
I0731 22:21:02.133055  8662 layer_factory.hpp:77] Creating layer pool2
I0731 22:21:02.133069  8662 net.cpp:91] Creating Layer pool2
I0731 22:21:02.133075  8662 net.cpp:425] pool2 <- conv2
I0731 22:21:02.133083  8662 net.cpp:399] pool2 -> pool2
I0731 22:21:02.133147  8662 net.cpp:141] Setting up pool2
I0731 22:21:02.133158  8662 net.cpp:148] Top shape: 10 256 13 13 (432640)
I0731 22:21:02.133163  8662 net.cpp:156] Memory required for data: 51674680
I0731 22:21:02.133168  8662 layer_factory.hpp:77] Creating layer norm2
I0731 22:21:02.133183  8662 net.cpp:91] Creating Layer norm2
I0731 22:21:02.133188  8662 net.cpp:425] norm2 <- pool2
I0731 22:21:02.133195  8662 net.cpp:399] norm2 -> norm2
I0731 22:21:02.133481  8662 net.cpp:141] Setting up norm2
I0731 22:21:02.133494  8662 net.cpp:148] Top shape: 10 256 13 13 (432640)
I0731 22:21:02.133499  8662 net.cpp:156] Memory required for data: 53405240
I0731 22:21:02.133505  8662 layer_factory.hpp:77] Creating layer conv3
I0731 22:21:02.133519  8662 net.cpp:91] Creating Layer conv3
I0731 22:21:02.133525  8662 net.cpp:425] conv3 <- norm2
I0731 22:21:02.133534  8662 net.cpp:399] conv3 -> conv3
I0731 22:21:02.137611  8662 net.cpp:141] Setting up conv3
I0731 22:21:02.137632  8662 net.cpp:148] Top shape: 10 384 13 13 (648960)
I0731 22:21:02.137639  8662 net.cpp:156] Memory required for data: 56001080
I0731 22:21:02.137652  8662 layer_factory.hpp:77] Creating layer relu3
I0731 22:21:02.137663  8662 net.cpp:91] Creating Layer relu3
I0731 22:21:02.137668  8662 net.cpp:425] relu3 <- conv3
I0731 22:21:02.137681  8662 net.cpp:386] relu3 -> conv3 (in-place)
I0731 22:21:02.138173  8662 net.cpp:141] Setting up relu3
I0731 22:21:02.138187  8662 net.cpp:148] Top shape: 10 384 13 13 (648960)
I0731 22:21:02.138193  8662 net.cpp:156] Memory required for data: 58596920
I0731 22:21:02.138200  8662 layer_factory.hpp:77] Creating layer conv4
I0731 22:21:02.138216  8662 net.cpp:91] Creating Layer conv4
I0731 22:21:02.138222  8662 net.cpp:425] conv4 <- conv3
I0731 22:21:02.138231  8662 net.cpp:399] conv4 -> conv4
I0731 22:21:02.142810  8662 net.cpp:141] Setting up conv4
I0731 22:21:02.142833  8662 net.cpp:148] Top shape: 10 384 13 13 (648960)
I0731 22:21:02.142839  8662 net.cpp:156] Memory required for data: 61192760
I0731 22:21:02.142850  8662 layer_factory.hpp:77] Creating layer relu4
I0731 22:21:02.142863  8662 net.cpp:91] Creating Layer relu4
I0731 22:21:02.142869  8662 net.cpp:425] relu4 <- conv4
I0731 22:21:02.142877  8662 net.cpp:386] relu4 -> conv4 (in-place)
I0731 22:21:02.142887  8652 net.cpp:141] Setting up embedding
I0731 22:21:02.142905  8652 net.cpp:148] Top shape: 1 1 500 (500)
I0731 22:21:02.142910  8652 net.cpp:156] Memory required for data: 22408
I0731 22:21:02.142925  8652 layer_factory.hpp:77] Creating layer lstm1
I0731 22:21:02.142937  8652 net.cpp:91] Creating Layer lstm1
I0731 22:21:02.142946  8652 net.cpp:425] lstm1 <- embedded_input_frames
I0731 22:21:02.142953  8652 net.cpp:425] lstm1 <- cont_sentence_input_1_split_0
I0731 22:21:02.142966  8652 net.cpp:399] lstm1 -> lstm1
I0731 22:21:02.142987  8652 recurrent_layer.cpp:20] Initializing recurrent layer: assuming input batch contains 1 timesteps of 1 independent streams.
I0731 22:21:02.143359  8652 net.cpp:49] Initializing net from parameters: 
layer {
  name: "lstm1_"
  type: "Input"
  top: "x"
  top: "cont"
  input_param {
    shape {
      dim: 1
      dim: 1
      dim: 500
    }
    shape {
      dim: 1
      dim: 1
    }
  }
}
layer {
  name: "lstm1_"
  type: "Input"
  top: "c_0"
  top: "h_0"
  input_param {
    shape {
      dim: 1
      dim: 1
      dim: 1000
    }
    shape {
      dim: 1
      dim: 1
      dim: 1000
    }
  }
}
layer {
  name: "lstm1_cont_slice"
  type: "Slice"
  bottom: "cont"
  top: "cont_1"
  slice_param {
    axis: 0
  }
}
layer {
  name: "lstm1_x_transform"
  type: "InnerProduct"
  bottom: "x"
  top: "W_xc_x"
  param {
    name: "W_xc"
  }
  param {
    name: "b_c"
  }
  propagate_down: true
  inner_product_param {
    num_output: 4000
    bias_term: true
    weight_filler {
      type: "uniform"
      min: -0.08
      max: 0.08
    }
    bias_filler {
      type: "constant"
      value: 0
    }
    axis: 2
  }
}
layer {
  name: "lstm1_W_xc_x_slice"
  type: "Slice"
  bottom: "W_xc_x"
  top: "W_xc_x_1"
  slice_param {
    axis: 0
  }
}
layer {
  name: "lstm1_h_conted_0"
  type: "Scale"
  bottom: "h_0"
  bottom: "cont_1"
  top: "h_conted_0"
  scale_param {
    axis: 0
  }
}
layer {
  name: "lstm1_transform_1"
  type: "InnerProduct"
  bottom: "h_conted_0"
  top: "W_hc_h_0"
  param {
    name: "W_hc"
  }
  inner_product_param {
    num_output: 4000
    bias_term: false
    weight_filler {
      type: "uniform"
      min: -0.08
      max: 0.08
    }
    axis: 2
  }
}
layer {
  name: "lstm1_gate_input_1"
  type: "Eltwise"
  bottom: "W_hc_h_0"
  bottom: "W_xc_x_1"
  top: "gate_input_1"
  eltwise_param {
    operation: SUM
  }
}
layer {
  name: "lstm1_unit_1"
  type: "LSTMUnit"
  bottom: "c_0"
  bottom: "gate_input_1"
  bottom: "cont_1"
  top: "c_1"
  top: "h_1"
}
layer {
  name: "lstm1_"
  type: "Split"
  bottom: "c_1"
  top: "c_T"
}
layer {
  name: "lstm1_h_concat"
  type: "Concat"
  bottom: "h_1"
  top: "h"
  concat_param {
    axis: 0
  }
}
layer {
  name: "h_pseudoloss"
  type: "Reduction"
  bottom: "h"
  top: "h_pseudoloss"
  loss_weight: 1
}
I0731 22:21:02.143376  8662 net.cpp:141] Setting up relu4
I0731 22:21:02.143391  8662 net.cpp:148] Top shape: 10 384 13 13 (648960)
I0731 22:21:02.143398  8662 net.cpp:156] Memory required for data: 63788600
I0731 22:21:02.143404  8662 layer_factory.hpp:77] Creating layer conv5
I0731 22:21:02.143419  8662 net.cpp:91] Creating Layer conv5
I0731 22:21:02.143424  8662 net.cpp:425] conv5 <- conv4
I0731 22:21:02.143445  8662 net.cpp:399] conv5 -> conv5
I0731 22:21:02.143476  8652 layer_factory.hpp:77] Creating layer lstm1_
I0731 22:21:02.143491  8652 net.cpp:91] Creating Layer lstm1_
I0731 22:21:02.143498  8652 net.cpp:399] lstm1_ -> x
I0731 22:21:02.143512  8652 net.cpp:399] lstm1_ -> cont
I0731 22:21:02.143714  8652 net.cpp:141] Setting up lstm1_
I0731 22:21:02.143728  8652 net.cpp:148] Top shape: 1 1 500 (500)
I0731 22:21:02.143734  8652 net.cpp:148] Top shape: 1 1 (1)
I0731 22:21:02.143739  8652 net.cpp:156] Memory required for data: 2004
I0731 22:21:02.143745  8652 layer_factory.hpp:77] Creating layer lstm1_
I0731 22:21:02.143755  8652 net.cpp:91] Creating Layer lstm1_
I0731 22:21:02.143767  8652 net.cpp:399] lstm1_ -> c_0
I0731 22:21:02.143780  8652 net.cpp:399] lstm1_ -> h_0
I0731 22:21:02.144944  8652 net.cpp:141] Setting up lstm1_
I0731 22:21:02.144958  8652 net.cpp:148] Top shape: 1 1 1000 (1000)
I0731 22:21:02.144964  8652 net.cpp:148] Top shape: 1 1 1000 (1000)
I0731 22:21:02.144968  8652 net.cpp:156] Memory required for data: 10004
I0731 22:21:02.144974  8652 layer_factory.hpp:77] Creating layer lstm1_cont_slice
I0731 22:21:02.144987  8652 net.cpp:91] Creating Layer lstm1_cont_slice
I0731 22:21:02.144994  8652 net.cpp:425] lstm1_cont_slice <- cont
I0731 22:21:02.145004  8652 net.cpp:399] lstm1_cont_slice -> cont_1
I0731 22:21:02.145043  8652 net.cpp:141] Setting up lstm1_cont_slice
I0731 22:21:02.145053  8652 net.cpp:148] Top shape: 1 1 (1)
I0731 22:21:02.145058  8652 net.cpp:156] Memory required for data: 10008
I0731 22:21:02.145063  8652 layer_factory.hpp:77] Creating layer cont_1_lstm1_cont_slice_0_split
I0731 22:21:02.145072  8652 net.cpp:91] Creating Layer cont_1_lstm1_cont_slice_0_split
I0731 22:21:02.145077  8652 net.cpp:425] cont_1_lstm1_cont_slice_0_split <- cont_1
I0731 22:21:02.145088  8652 net.cpp:399] cont_1_lstm1_cont_slice_0_split -> cont_1_lstm1_cont_slice_0_split_0
I0731 22:21:02.145098  8652 net.cpp:399] cont_1_lstm1_cont_slice_0_split -> cont_1_lstm1_cont_slice_0_split_1
I0731 22:21:02.145200  8652 net.cpp:141] Setting up cont_1_lstm1_cont_slice_0_split
I0731 22:21:02.145211  8652 net.cpp:148] Top shape: 1 1 (1)
I0731 22:21:02.145217  8652 net.cpp:148] Top shape: 1 1 (1)
I0731 22:21:02.145222  8652 net.cpp:156] Memory required for data: 10016
I0731 22:21:02.145227  8652 layer_factory.hpp:77] Creating layer lstm1_x_transform
I0731 22:21:02.145239  8652 net.cpp:91] Creating Layer lstm1_x_transform
I0731 22:21:02.145244  8652 net.cpp:425] lstm1_x_transform <- x
I0731 22:21:02.145253  8652 net.cpp:399] lstm1_x_transform -> W_xc_x
I0731 22:21:02.152117  8662 net.cpp:141] Setting up conv5
I0731 22:21:02.152142  8662 net.cpp:148] Top shape: 10 256 13 13 (432640)
I0731 22:21:02.152148  8662 net.cpp:156] Memory required for data: 65519160
I0731 22:21:02.152168  8662 layer_factory.hpp:77] Creating layer relu5
I0731 22:21:02.152179  8662 net.cpp:91] Creating Layer relu5
I0731 22:21:02.152185  8662 net.cpp:425] relu5 <- conv5
I0731 22:21:02.152194  8662 net.cpp:386] relu5 -> conv5 (in-place)
I0731 22:21:02.152714  8662 net.cpp:141] Setting up relu5
I0731 22:21:02.152729  8662 net.cpp:148] Top shape: 10 256 13 13 (432640)
I0731 22:21:02.152734  8662 net.cpp:156] Memory required for data: 67249720
I0731 22:21:02.152740  8662 layer_factory.hpp:77] Creating layer pool5
I0731 22:21:02.152752  8662 net.cpp:91] Creating Layer pool5
I0731 22:21:02.152757  8662 net.cpp:425] pool5 <- conv5
I0731 22:21:02.152765  8662 net.cpp:399] pool5 -> pool5
I0731 22:21:02.152838  8662 net.cpp:141] Setting up pool5
I0731 22:21:02.152849  8662 net.cpp:148] Top shape: 10 256 6 6 (92160)
I0731 22:21:02.152854  8662 net.cpp:156] Memory required for data: 67618360
I0731 22:21:02.152860  8662 layer_factory.hpp:77] Creating layer fc6
I0731 22:21:02.152876  8662 net.cpp:91] Creating Layer fc6
I0731 22:21:02.152882  8662 net.cpp:425] fc6 <- pool5
I0731 22:21:02.152891  8662 net.cpp:399] fc6 -> fc6
I0731 22:21:02.221786  8652 net.cpp:141] Setting up lstm1_x_transform
I0731 22:21:02.221837  8652 net.cpp:148] Top shape: 1 1 4000 (4000)
I0731 22:21:02.221843  8652 net.cpp:156] Memory required for data: 26016
I0731 22:21:02.221868  8652 layer_factory.hpp:77] Creating layer lstm1_W_xc_x_slice
I0731 22:21:02.221887  8652 net.cpp:91] Creating Layer lstm1_W_xc_x_slice
I0731 22:21:02.221894  8652 net.cpp:425] lstm1_W_xc_x_slice <- W_xc_x
I0731 22:21:02.221905  8652 net.cpp:399] lstm1_W_xc_x_slice -> W_xc_x_1
I0731 22:21:02.221963  8652 net.cpp:141] Setting up lstm1_W_xc_x_slice
I0731 22:21:02.221974  8652 net.cpp:148] Top shape: 1 1 4000 (4000)
I0731 22:21:02.221979  8652 net.cpp:156] Memory required for data: 42016
I0731 22:21:02.221985  8652 layer_factory.hpp:77] Creating layer lstm1_h_conted_0
I0731 22:21:02.221999  8652 net.cpp:91] Creating Layer lstm1_h_conted_0
I0731 22:21:02.222007  8652 net.cpp:425] lstm1_h_conted_0 <- h_0
I0731 22:21:02.222013  8652 net.cpp:425] lstm1_h_conted_0 <- cont_1_lstm1_cont_slice_0_split_0
I0731 22:21:02.222021  8652 net.cpp:399] lstm1_h_conted_0 -> h_conted_0
I0731 22:21:02.222121  8652 net.cpp:141] Setting up lstm1_h_conted_0
I0731 22:21:02.222131  8652 net.cpp:148] Top shape: 1 1 1000 (1000)
I0731 22:21:02.222136  8652 net.cpp:156] Memory required for data: 46016
I0731 22:21:02.222141  8652 layer_factory.hpp:77] Creating layer lstm1_transform_1
I0731 22:21:02.222157  8652 net.cpp:91] Creating Layer lstm1_transform_1
I0731 22:21:02.222163  8652 net.cpp:425] lstm1_transform_1 <- h_conted_0
I0731 22:21:02.222173  8652 net.cpp:399] lstm1_transform_1 -> W_hc_h_0
I0731 22:21:02.262626  8662 net.cpp:141] Setting up fc6
I0731 22:21:02.262676  8662 net.cpp:148] Top shape: 10 4096 (40960)
I0731 22:21:02.262682  8662 net.cpp:156] Memory required for data: 67782200
I0731 22:21:02.262697  8662 layer_factory.hpp:77] Creating layer relu6
I0731 22:21:02.262713  8662 net.cpp:91] Creating Layer relu6
I0731 22:21:02.262720  8662 net.cpp:425] relu6 <- fc6
I0731 22:21:02.262734  8662 net.cpp:386] relu6 -> fc6 (in-place)
I0731 22:21:02.263082  8662 net.cpp:141] Setting up relu6
I0731 22:21:02.263098  8662 net.cpp:148] Top shape: 10 4096 (40960)
I0731 22:21:02.263103  8662 net.cpp:156] Memory required for data: 67946040
I0731 22:21:02.263109  8662 layer_factory.hpp:77] Creating layer drop6
I0731 22:21:02.263121  8662 net.cpp:91] Creating Layer drop6
I0731 22:21:02.263126  8662 net.cpp:425] drop6 <- fc6
I0731 22:21:02.263134  8662 net.cpp:386] drop6 -> fc6 (in-place)
I0731 22:21:02.263202  8662 net.cpp:141] Setting up drop6
I0731 22:21:02.263213  8662 net.cpp:148] Top shape: 10 4096 (40960)
I0731 22:21:02.263218  8662 net.cpp:156] Memory required for data: 68109880
I0731 22:21:02.263224  8662 layer_factory.hpp:77] Creating layer fc7
I0731 22:21:02.263239  8662 net.cpp:91] Creating Layer fc7
I0731 22:21:02.263244  8662 net.cpp:425] fc7 <- fc6
I0731 22:21:02.263252  8662 net.cpp:399] fc7 -> fc7
I0731 22:21:02.294438  8652 net.cpp:141] Setting up lstm1_transform_1
I0731 22:21:02.294495  8652 net.cpp:148] Top shape: 1 1 4000 (4000)
I0731 22:21:02.294502  8652 net.cpp:156] Memory required for data: 62016
I0731 22:21:02.294526  8652 layer_factory.hpp:77] Creating layer lstm1_gate_input_1
I0731 22:21:02.294550  8652 net.cpp:91] Creating Layer lstm1_gate_input_1
I0731 22:21:02.294559  8652 net.cpp:425] lstm1_gate_input_1 <- W_hc_h_0
I0731 22:21:02.294569  8652 net.cpp:425] lstm1_gate_input_1 <- W_xc_x_1
I0731 22:21:02.294580  8652 net.cpp:399] lstm1_gate_input_1 -> gate_input_1
I0731 22:21:02.294651  8652 net.cpp:141] Setting up lstm1_gate_input_1
I0731 22:21:02.294661  8652 net.cpp:148] Top shape: 1 1 4000 (4000)
I0731 22:21:02.294667  8652 net.cpp:156] Memory required for data: 78016
I0731 22:21:02.294672  8652 layer_factory.hpp:77] Creating layer lstm1_unit_1
I0731 22:21:02.294685  8652 net.cpp:91] Creating Layer lstm1_unit_1
I0731 22:21:02.294692  8652 net.cpp:425] lstm1_unit_1 <- c_0
I0731 22:21:02.294699  8652 net.cpp:425] lstm1_unit_1 <- gate_input_1
I0731 22:21:02.294705  8652 net.cpp:425] lstm1_unit_1 <- cont_1_lstm1_cont_slice_0_split_1
I0731 22:21:02.294713  8652 net.cpp:399] lstm1_unit_1 -> c_1
I0731 22:21:02.294723  8652 net.cpp:399] lstm1_unit_1 -> h_1
I0731 22:21:02.294795  8652 net.cpp:141] Setting up lstm1_unit_1
I0731 22:21:02.294806  8652 net.cpp:148] Top shape: 1 1 1000 (1000)
I0731 22:21:02.294813  8652 net.cpp:148] Top shape: 1 1 1000 (1000)
I0731 22:21:02.294818  8652 net.cpp:156] Memory required for data: 86016
I0731 22:21:02.294824  8652 layer_factory.hpp:77] Creating layer lstm1_
I0731 22:21:02.294833  8652 net.cpp:91] Creating Layer lstm1_
I0731 22:21:02.294838  8652 net.cpp:425] lstm1_ <- c_1
I0731 22:21:02.294849  8652 net.cpp:399] lstm1_ -> c_T
I0731 22:21:02.294883  8652 net.cpp:141] Setting up lstm1_
I0731 22:21:02.294893  8652 net.cpp:148] Top shape: 1 1 1000 (1000)
I0731 22:21:02.294898  8652 net.cpp:156] Memory required for data: 90016
I0731 22:21:02.294903  8652 layer_factory.hpp:77] Creating layer lstm1_h_concat
I0731 22:21:02.294922  8652 net.cpp:91] Creating Layer lstm1_h_concat
I0731 22:21:02.294927  8652 net.cpp:425] lstm1_h_concat <- h_1
I0731 22:21:02.294935  8652 net.cpp:399] lstm1_h_concat -> h
I0731 22:21:02.294977  8652 net.cpp:141] Setting up lstm1_h_concat
I0731 22:21:02.294988  8652 net.cpp:148] Top shape: 1 1 1000 (1000)
I0731 22:21:02.294992  8652 net.cpp:156] Memory required for data: 94016
I0731 22:21:02.294998  8652 layer_factory.hpp:77] Creating layer h_pseudoloss
I0731 22:21:02.295008  8652 net.cpp:91] Creating Layer h_pseudoloss
I0731 22:21:02.295013  8652 net.cpp:425] h_pseudoloss <- h
I0731 22:21:02.295022  8652 net.cpp:399] h_pseudoloss -> h_pseudoloss
I0731 22:21:02.295119  8652 net.cpp:141] Setting up h_pseudoloss
…
I0731 22:21:02.295267  8652 net.cpp:219] lstm1_ does not need backward computation.
I0731 22:21:02.295271  8652 net.cpp:261] This network produces output c_T
I0731 22:21:02.295276  8652 net.cpp:261] This network produces output h_pseudoloss
I0731 22:21:02.295295  8652 net.cpp:274] Network initialization done.
I0731 22:21:02.295357  8652 recurrent_layer.cpp:150] Adding parameter 0: W_xc
I0731 22:21:02.295366  8652 recurrent_layer.cpp:150] Adding parameter 1: b_c
I0731 22:21:02.295370  8652 recurrent_layer.cpp:150] Adding parameter 2: W_hc
I0731 22:21:02.295492  8652 net.cpp:141] Setting up lstm1
I0731 22:21:02.295506  8652 net.cpp:148] Top shape: 1 1 1000 (1000)
I0731 22:21:02.295511  8652 net.cpp:156] Memory required for data: 26408
I0731 22:21:02.295526  8652 layer_factory.hpp:77] Creating layer concat
I0731 22:21:02.295536  8652 net.cpp:91] Creating Layer concat
I0731 22:21:02.295542  8652 net.cpp:425] concat <- lstm1
I0731 22:21:02.295549  8652 net.cpp:425] concat <- embedded_input_sentence
I0731 22:21:02.295555  8652 net.cpp:425] concat <- reshaped_stage_indicator
I0731 22:21:02.295562  8652 net.cpp:399] concat -> lstm1_video_sequence
I0731 22:21:02.295600  8652 net.cpp:141] Setting up concat
I0731 22:21:02.295610  8652 net.cpp:148] Top shape: 1 1 1501 (1501)
I0731 22:21:02.295615  8652 net.cpp:156] Memory required for data: 32412
I0731 22:21:02.295620  8652 layer_factory.hpp:77] Creating layer lstm2
I0731 22:21:02.295634  8652 net.cpp:91] Creating Layer lstm2
I0731 22:21:02.295639  8652 net.cpp:425] lstm2 <- lstm1_video_sequence
I0731 22:21:02.295646  8652 net.cpp:425] lstm2 <- cont_sentence_input_1_split_1
I0731 22:21:02.295655  8652 net.cpp:399] lstm2 -> lstm2
I0731 22:21:02.295665  8652 recurrent_layer.cpp:20] Initializing recurrent layer: assuming input batch contains 1 timesteps of 1 independent streams.
I0731 22:21:02.295934  8652 net.cpp:49] Initializing net from parameters: 
layer {
  name: "lstm2_"
  type: "Input"
  top: "x"
  top: "cont"
  input_param {
    shape {
      dim: 1
      dim: 1
      dim: 1501
    }
    shape {
      dim: 1
      dim: 1
    }
  }
}
layer {
  name: "lstm2_"
  type: "Input"
  top: "c_0"
  top: "h_0"
  input_param {
    shape {
      dim: 1
      dim: 1
      dim: 1000
    }
    shape {
      dim: 1
      dim: 1
      dim: 1000
    }
  }
}
layer {
  name: "lstm2_cont_slice"
  type: "Slice"
  bottom: "cont"
  top: "cont_1"
  slice_param {
    axis: 0
  }
}
layer {
  name: "lstm2_x_transform"
  type: "InnerProduct"
  bottom: "x"
  top: "W_xc_x"
  param {
    name: "W_xc"
  }
  param {
    name: "b_c"
  }
  propagate_down: true
  inner_product_param {
    num_output: 4000
    bias_term: true
    weight_filler {
      type: "uniform"
      min: -0.08
      max: 0.08
    }
    bias_filler {
      type: "constant"
      value: 0
    }
    axis: 2
  }
}
layer {
  name: "lstm2_W_xc_x_slice"
  type: "Slice"
  bottom: "W_xc_x"
  top: "W_xc_x_1"
  slice_param {
    axis: 0
  }
}
layer {
  name: "lstm2_h_conted_0"
  type: "Scale"
  bottom: "h_0"
  bottom: "cont_1"
  top: "h_conted_0"
  scale_param {
    axis: 0
  }
}
layer {
  name: "lstm2_transform_1"
  type: "InnerProduct"
  bottom: "h_conted_0"
  top: "W_hc_h_0"
  param {
    name: "W_hc"
  }
  inner_product_param {
    num_output: 4000
    bias_term: false
    weight_filler {
      type: "uniform"
      min: -0.08
      max: 0.08
    }
    axis: 2
  }
}
layer {
  name: "lstm2_gate_input_1"
  type: "Eltwise"
  bottom: "W_hc_h_0"
  bottom: "W_xc_x_1"
  top: "gate_input_1"
  eltwise_param {
    operation: SUM
  }
}
layer {
  name: "lstm2_unit_1"
  type: "LSTMUnit"
  bottom: "c_0"
  bottom: "gate_input_1"
  bottom: "cont_1"
  top: "c_1"
  top: "h_1"
}
layer {
  name: "lstm2_"
  type: "Split"
  bottom: "c_1"
  top: "c_T"
}
layer {
  name: "lstm2_h_concat"
  type: "Concat"
  bottom: "h_1"
  top: "h"
  concat_param {
    axis: 0
  }
}
layer {
  name: "h_pseudoloss"
  type: "Reduction"
  bottom: "h"
  top: "h_pseudoloss"
  loss_weight: 1
}
I0731 22:21:02.296052  8652 layer_factory.hpp:77] Creating layer lstm2_
I0731 22:21:02.296068  8652 net.cpp:91] Creating Layer lstm2_
I0731 22:21:02.296075  8652 net.cpp:399] lstm2_ -> x
I0731 22:21:02.296087  8652 net.cpp:399] lstm2_ -> cont
I0731 22:21:02.296147  8652 net.cpp:141] Setting up lstm2_
I0731 22:21:02.296157  8652 net.cpp:148] Top shape: 1 1 1501 (1501)
I0731 22:21:02.296164  8652 net.cpp:148] Top shape: 1 1 (1)
I0731 22:21:02.296169  8652 net.cpp:156] Memory required for data: 6008
I0731 22:21:02.296175  8652 layer_factory.hpp:77] Creating layer lstm2_
I0731 22:21:02.296188  8652 net.cpp:91] Creating Layer lstm2_
I0731 22:21:02.296195  8652 net.cpp:399] lstm2_ -> c_0
I0731 22:21:02.296206  8652 net.cpp:399] lstm2_ -> h_0
I0731 22:21:02.296263  8652 net.cpp:141] Setting up lstm2_
I0731 22:21:02.296274  8652 net.cpp:148] Top shape: 1 1 1000 (1000)
I0731 22:21:02.296280  8652 net.cpp:148] Top shape: 1 1 1000 (1000)
I0731 22:21:02.296285  8652 net.cpp:156] Memory required for data: 14008
I0731 22:21:02.296290  8652 layer_factory.hpp:77] Creating layer lstm2_cont_slice
I0731 22:21:02.296300  8652 net.cpp:91] Creating Layer lstm2_cont_slice
I0731 22:21:02.296305  8652 net.cpp:425] lstm2_cont_slice <- cont
I0731 22:21:02.296314  8652 net.cpp:399] lstm2_cont_slice -> cont_1
I0731 22:21:02.296352  8652 net.cpp:141] Setting up lstm2_cont_slice
I0731 22:21:02.296363  8652 net.cpp:148] Top shape: 1 1 (1)
I0731 22:21:02.296368  8652 net.cpp:156] Memory required for data: 14012
I0731 22:21:02.296373  8652 layer_factory.hpp:77] Creating layer cont_1_lstm2_cont_slice_0_split
I0731 22:21:02.296380  8652 net.cpp:91] Creating Layer cont_1_lstm2_cont_slice_0_split
I0731 22:21:02.296386  8652 net.cpp:425] cont_1_lstm2_cont_slice_0_split <- cont_1
I0731 22:21:02.296396  8652 net.cpp:399] cont_1_lstm2_cont_slice_0_split -> cont_1_lstm2_cont_slice_0_split_0
I0731 22:21:02.296406  8652 net.cpp:399] cont_1_lstm2_cont_slice_0_split -> cont_1_lstm2_cont_slice_0_split_1
I0731 22:21:02.296455  8652 net.cpp:141] Setting up cont_1_lstm2_cont_slice_0_split
I0731 22:21:02.296465  8652 net.cpp:148] Top shape: 1 1 (1)
I0731 22:21:02.296473  8652 net.cpp:148] Top shape: 1 1 (1)
I0731 22:21:02.296476  8652 net.cpp:156] Memory required for data: 14020
I0731 22:21:02.296483  8652 layer_factory.hpp:77] Creating layer lstm2_x_transform
I0731 22:21:02.296495  8652 net.cpp:91] Creating Layer lstm2_x_transform
I0731 22:21:02.296501  8652 net.cpp:425] lstm2_x_transform <- x
I0731 22:21:02.296512  8652 net.cpp:399] lstm2_x_transform -> W_xc_x
I0731 22:21:02.313175  8662 net.cpp:141] Setting up fc7
I0731 22:21:02.313218  8662 net.cpp:148] Top shape: 10 4096 (40960)
I0731 22:21:02.313225  8662 net.cpp:156] Memory required for data: 68273720
I0731 22:21:02.313241  8662 layer_factory.hpp:77] Creating layer relu7
I0731 22:21:02.313259  8662 net.cpp:91] Creating Layer relu7
I0731 22:21:02.313267  8662 net.cpp:425] relu7 <- fc7
I0731 22:21:02.313277  8662 net.cpp:386] relu7 -> fc7 (in-place)
I0731 22:21:02.314088  8662 net.cpp:141] Setting up relu7
I0731 22:21:02.314103  8662 net.cpp:148] Top shape: 10 4096 (40960)
I0731 22:21:02.314110  8662 net.cpp:156] Memory required for data: 68437560
I0731 22:21:02.314116  8662 layer_factory.hpp:77] Creating layer drop7
I0731 22:21:02.314129  8662 net.cpp:91] Creating Layer drop7
I0731 22:21:02.314136  8662 net.cpp:425] drop7 <- fc7
I0731 22:21:02.314143  8662 net.cpp:386] drop7 -> fc7 (in-place)
I0731 22:21:02.314191  8662 net.cpp:141] Setting up drop7
I0731 22:21:02.314201  8662 net.cpp:148] Top shape: 10 4096 (40960)
I0731 22:21:02.314206  8662 net.cpp:156] Memory required for data: 68601400
I0731 22:21:02.314211  8662 layer_factory.hpp:77] Creating layer fc8
I0731 22:21:02.314224  8662 net.cpp:91] Creating Layer fc8
I0731 22:21:02.314229  8662 net.cpp:425] fc8 <- fc7
I0731 22:21:02.314240  8662 net.cpp:399] fc8 -> fc8
I0731 22:21:02.326885  8662 net.cpp:141] Setting up fc8
I0731 22:21:02.326930  8662 net.cpp:148] Top shape: 10 1000 (10000)
I0731 22:21:02.326936  8662 net.cpp:156] Memory required for data: 68641400
I0731 22:21:02.326951  8662 layer_factory.hpp:77] Creating layer prob
I0731 22:21:02.326967  8662 net.cpp:91] Creating Layer prob
I0731 22:21:02.326974  8662 net.cpp:425] prob <- fc8
I0731 22:21:02.326984  8662 net.cpp:399] prob -> prob
I0731 22:21:02.327441  8662 net.cpp:141] Setting up prob
I0731 22:21:02.327457  8662 net.cpp:148] Top shape: 10 1000 (10000)
I0731 22:21:02.327462  8662 net.cpp:156] Memory required for data: 68681400
I0731 22:21:02.327469  8662 net.cpp:219] prob does not need backward computation.
I0731 22:21:02.327476  8662 net.cpp:219] fc8 does not need backward computation.
I0731 22:21:02.327481  8662 net.cpp:219] drop7 does not need backward computation.
I0731 22:21:02.327486  8662 net.cpp:219] relu7 does not need backward computation.
…
I0731 22:21:02.327569  8662 net.cpp:219] norm1 does not need backward computation.
I0731 22:21:02.327574  8662 net.cpp:219] pool1 does not need backward computation.
I0731 22:21:02.327579  8662 net.cpp:219] relu1 does not need backward computation.
I0731 22:21:02.327584  8662 net.cpp:219] conv1 does not need backward computation.
I0731 22:21:02.327590  8662 net.cpp:219] data does not need backward computation.
I0731 22:21:02.327594  8662 net.cpp:261] This network produces output prob
I0731 22:21:02.327615  8662 net.cpp:274] Network initialization done.
I0731 22:21:02.361044  8652 net.cpp:141] Setting up lstm2_x_transform
I0731 22:21:02.361091  8652 net.cpp:148] Top shape: 1 1 4000 (4000)
I0731 22:21:02.361098  8652 net.cpp:156] Memory required for data: 30020
I0731 22:21:02.361119  8652 layer_factory.hpp:77] Creating layer lstm2_W_xc_x_slice
I0731 22:21:02.361135  8652 net.cpp:91] Creating Layer lstm2_W_xc_x_slice
I0731 22:21:02.361143  8652 net.cpp:425] lstm2_W_xc_x_slice <- W_xc_x
I0731 22:21:02.361153  8652 net.cpp:399] lstm2_W_xc_x_slice -> W_xc_x_1
I0731 22:21:02.361201  8652 net.cpp:141] Setting up lstm2_W_xc_x_slice
I0731 22:21:02.361212  8652 net.cpp:148] Top shape: 1 1 4000 (4000)
I0731 22:21:02.361217  8652 net.cpp:156] Memory required for data: 46020
I0731 22:21:02.361222  8652 layer_factory.hpp:77] Creating layer lstm2_h_conted_0
I0731 22:21:02.361237  8652 net.cpp:91] Creating Layer lstm2_h_conted_0
I0731 22:21:02.361243  8652 net.cpp:425] lstm2_h_conted_0 <- h_0
I0731 22:21:02.361249  8652 net.cpp:425] lstm2_h_conted_0 <- cont_1_lstm2_cont_slice_0_split_0
I0731 22:21:02.361258  8652 net.cpp:399] lstm2_h_conted_0 -> h_conted_0
I0731 22:21:02.361363  8652 net.cpp:141] Setting up lstm2_h_conted_0
I0731 22:21:02.361374  8652 net.cpp:148] Top shape: 1 1 1000 (1000)
I0731 22:21:02.361379  8652 net.cpp:156] Memory required for data: 50020
I0731 22:21:02.361384  8652 layer_factory.hpp:77] Creating layer lstm2_transform_1
I0731 22:21:02.361397  8652 net.cpp:91] Creating Layer lstm2_transform_1
I0731 22:21:02.361402  8652 net.cpp:425] lstm2_transform_1 <- h_conted_0
I0731 22:21:02.361412  8652 net.cpp:399] lstm2_transform_1 -> W_hc_h_0
I0731 22:21:02.405078  8652 net.cpp:141] Setting up lstm2_transform_1
I0731 22:21:02.405124  8652 net.cpp:148] Top shape: 1 1 4000 (4000)
I0731 22:21:02.405131  8652 net.cpp:156] Memory required for data: 66020
I0731 22:21:02.405150  8652 layer_factory.hpp:77] Creating layer lstm2_gate_input_1
I0731 22:21:02.405172  8652 net.cpp:91] Creating Layer lstm2_gate_input_1
I0731 22:21:02.405180  8652 net.cpp:425] lstm2_gate_input_1 <- W_hc_h_0
I0731 22:21:02.405189  8652 net.cpp:425] lstm2_gate_input_1 <- W_xc_x_1
I0731 22:21:02.405199  8652 net.cpp:399] lstm2_gate_input_1 -> gate_input_1
I0731 22:21:02.405249  8652 net.cpp:141] Setting up lstm2_gate_input_1
I0731 22:21:02.405259  8652 net.cpp:148] Top shape: 1 1 4000 (4000)
I0731 22:21:02.405264  8652 net.cpp:156] Memory required for data: 82020
I0731 22:21:02.405270  8652 layer_factory.hpp:77] Creating layer lstm2_unit_1
I0731 22:21:02.405283  8652 net.cpp:91] Creating Layer lstm2_unit_1
I0731 22:21:02.405289  8652 net.cpp:425] lstm2_unit_1 <- c_0
I0731 22:21:02.405297  8652 net.cpp:425] lstm2_unit_1 <- gate_input_1
I0731 22:21:02.405303  8652 net.cpp:425] lstm2_unit_1 <- cont_1_lstm2_cont_slice_0_split_1
I0731 22:21:02.405310  8652 net.cpp:399] lstm2_unit_1 -> c_1
I0731 22:21:02.405320  8652 net.cpp:399] lstm2_unit_1 -> h_1
I0731 22:21:02.405390  8652 net.cpp:141] Setting up lstm2_unit_1
I0731 22:21:02.405400  8652 net.cpp:148] Top shape: 1 1 1000 (1000)
I0731 22:21:02.405406  8652 net.cpp:148] Top shape: 1 1 1000 (1000)
I0731 22:21:02.405411  8652 net.cpp:156] Memory required for data: 90020
I0731 22:21:02.405417  8652 layer_factory.hpp:77] Creating layer lstm2_
I0731 22:21:02.405428  8652 net.cpp:91] Creating Layer lstm2_
I0731 22:21:02.405434  8652 net.cpp:425] lstm2_ <- c_1
I0731 22:21:02.405442  8652 net.cpp:399] lstm2_ -> c_T
I0731 22:21:02.405477  8652 net.cpp:141] Setting up lstm2_
I0731 22:21:02.405486  8652 net.cpp:148] Top shape: 1 1 1000 (1000)
I0731 22:21:02.405491  8652 net.cpp:156] Memory required for data: 94020
I0731 22:21:02.405496  8652 layer_factory.hpp:77] Creating layer lstm2_h_concat
I0731 22:21:02.405506  8652 net.cpp:91] Creating Layer lstm2_h_concat
I0731 22:21:02.405511  8652 net.cpp:425] lstm2_h_concat <- h_1
I0731 22:21:02.405524  8652 net.cpp:399] lstm2_h_concat -> h
I0731 22:21:02.405560  8652 net.cpp:141] Setting up lstm2_h_concat
I0731 22:21:02.405570  8652 net.cpp:148] Top shape: 1 1 1000 (1000)
I0731 22:21:02.405575  8652 net.cpp:156] Memory required for data: 98020
I0731 22:21:02.405580  8652 layer_factory.hpp:77] Creating layer h_pseudoloss
I0731 22:21:02.405591  8652 net.cpp:91] Creating Layer h_pseudoloss
I0731 22:21:02.405596  8652 net.cpp:425] h_pseudoloss <- h
I0731 22:21:02.405603  8652 net.cpp:399] h_pseudoloss -> h_pseudoloss
I0731 22:21:02.405699  8652 net.cpp:141] Setting up h_pseudoloss
…
