…
Java HotSpot(TM) 64-Bit Server VM warning: You have loaded library /tmp/cvld7325631314819550693/libopencv_java310.xine1.so which might have disabled stack guard. The VM will try to fix the stack guard now.
It's highly recommended that you fix the library with 'execstack -c <libfile>', or link it with '-z noexecstack'.
WARNING: Logging before InitGoogleLogging() is written to STDERR
I0727 20:17:06.861484 26138 net.cpp:49] Initializing net from parameters: 
name: "GoogleNet"
state {
  phase: TEST
}
layer {
  name: "data"
  type: "Input"
  top: "data"
  input_param {
    shape {
      dim: 10
      dim: 3
      dim: 224
      dim: 224
    }
  }
}
layer {
  name: "conv1/7x7_s2"
  type: "Convolution"
  bottom: "data"
  top: "conv1/7x7_s2"
  param {
    lr_mult: 1
    decay_mult: 1
  }
  param {
    lr_mult: 2
    decay_mult: 0
  }
  convolution_param {
    num_output: 64
    pad: 3
    kernel_size: 7
    stride: 2
    weight_filler {
      type: "xavier"
      std: 0.1
    }
    bias_filler {
      type: "constant"
      value: 0.2
    }
  }
}
layer {
  name: "conv1/relu_7x7"
  type: "ReLU"
  bottom: "conv1/7x7_s2"
  top: "conv1/7x7_s2"
}
layer {
  name: "pool1/3x3_s2"
  type: "Pooling"
  bottom: "conv1/7x7_s2"
  top: "pool1/3x3_s2"
  pooling_param {
    pool: MAX
    kernel_size: 3
    stride: 2
  }
}
layer {
  name: "pool1/norm1"
  type: "LRN"
  bottom: "pool1/3x3_s2"
  top: "pool1/norm1"
  lrn_param {
    local_size: 5
    alpha: 0.0001
    beta: 0.75
  }
}
layer {
  name: "conv2/3x3_reduce"
  type: "Convolution"
  bottom: "pool1/norm1"
  top: "conv2/3x3_reduce"
  param {
    lr_mult: 1
    decay_mult: 1
  }
  param {
    lr_mult: 2
    decay_mult: 0
  }
  convolution_param {
    num_output: 64
    kernel_size: 1
    weight_filler {
      type: "xavier"
      std: 0.1
    }
    bias_filler {
      type: "constant"
      value: 0.2
    }
  }
}
layer {
  name: "conv2/relu_3x3_reduce"
  type: "ReLU"
  bottom: "conv2/3x3_reduce"
  top: "conv2/3x3_reduce"
}
layer {
  name: "conv2/3x3"
  type: "Convolution"
  bottom: "conv2/3x3_reduce"
  top: "conv2/3x3"
  param {
    lr_mult: 1
    decay_mult: 1
  }
  param {
    lr_mult: 2
    decay_mult: 0
  }
  convolution_param {
    num_output: 192
    pad: 1
    kernel_size: 3
    weight_filler {
      type: "xavier"
      std: 0.03
    }
    bias_filler {
      type: "constant"
      value: 0.2
    }
  }
}
layer {
  name: "conv2/relu_3x3"
  type: "ReLU"
  bottom: "conv2/3x3"
  top: "conv2/3x3"
}
layer {
  name: "conv2/norm2"
  type: "LRN"
  bottom: "conv2/3x3"
  top: "conv2/norm2"
  lrn_param {
    local_size: 5
    alpha: 0.0001
    beta: 0.75
  }
}
layer {
  name: "pool2/3x3_s2"
  type: "Pooling"
  bottom: "conv2/norm2"
  top: "pool2/3x3_s2"
  pooling_param {
    pool: MAX
    kernel_size: 3
    stride: 2
  }
}
layer {
  name: "inception_3a/1x1"
  type: "Convolution"
  bottom: "pool2/3x3_s2"
  top: "inception_3a/1x1"
  param {
    lr_mult: 1
    decay_mult: 1
  }
  param {
    lr_mult: 2
    decay_mult: 0
  }
  convolution_param {
    num_output: 64
    kernel_size: 1
    weight_filler {
      type: "xavier"
      std: 0.03
    }
    bias_filler {
      type: "constant"
      value: 0.2
    }
  }
}
layer {
  name: "inception_3a/relu_1x1"
  type: "ReLU"
  bottom: "inception_3a/1x1"
  top: "inception_3a/1x1"
}
layer {
  name: "inception_3a/3x3_reduce"
  type: "Convolution"
  bottom: "pool2/3x3_s2"
  top: "inception_3a/3x3_reduce"
  param {
    lr_mult: 1
    decay_mult: 1
  }
  param {
    lr_mult: 2
    decay_mult: 0
  }
  convolution_param {
    num_output: 96
    kernel_size: 1
    weight_filler {
      type: "xavier"
      std: 0.09
    }
    bias_filler {
      type: "constant"
      value: 0.2
    }
  }
}
layer {
  name: "inception_3a/relu_3x3_reduce"
  type: "ReLU"
  bottom: "inception_3a/3x3_reduce"
  top: "inception_3a/3x3_reduce"
}
layer {
  name: "inception_3a/3x3"
  type: "Convolution"
  bottom: "inception_3a/3x3_reduce"
  top: "inception_3a/3x3"
  param {
    lr_mult: 1
    decay_mult: 1
  }
  param {
    lr_mult: 2
    decay_mult: 0
  }
  convolution_param {
    num_output: 128
    pad: 1
    kernel_size: 3
    weight_filler {
      type: "xavier"
      std: 0.03
    }
    bias_filler {
      type: "constant"
      value: 0.2
    }
  }
}
layer {
  name: "inception_3a/relu_3x3"
  type: "ReLU"
  bottom: "inception_3a/3x3"
  top: "inception_3a/3x3"
}
layer {
  name: "inception_3a/5x5_reduce"
  type: "Convolution"
  bottom: "pool2/3x3_s2"
  top: "inception_3a/5x5_reduce"
  param {
    lr_mult: 1
    decay_mult: 1
  }
  param {
    lr_mult: 2
    decay_mult: 0
  }
  convolution_param {
    num_output: 16
    kernel_size: 1
    weight_filler {
      type: "xavier"
      std: 0.2
    }
    bias_filler {
      type: "constant"
      value: 0.2
    }
  }
}
layer {
  name: "inception_3a/relu_5x5_reduce"
  type: "ReLU"
  bottom: "inception_3a/5x5_reduce"
  top: "inception_3a/5x5_reduce"
}
layer {
  name: "inception_3a/5x5"
  type: "Convolution"
  bottom: "inception_3a/5x5_reduce"
  top: "inception_3a/5x5"
  param {
    lr_mult: 1
    decay_mult: 1
  }
  param {
    lr_mult: 2
    decay_mult: 0
  }
  convolution_param {
    num_output: 32
    pad: 2
    kernel_size: 5
    weight_filler {
      type: "xavier"
      std: 0.03
    }
    bias_filler {
      type: "constant"
      value: 0.2
    }
  }
}
layer {
  name: "inception_3a/relu_5x5"
  type: "ReLU"
  bottom: "inception_3a/5x5"
  top: "inception_3a/5x5"
}
layer {
  name: "inception_3a/pool"
  type: "Pooling"
  bottom: "pool2/3x3_s2"
  top: "inception_3a/pool"
  pooling_param {
    pool: MAX
    kernel_size: 3
    stride: 1
    pad: 1
  }
}
layer {
  name: "inception_3a/pool_proj"
  type: "Convolution"
  bottom: "inception_3a/pool"
  top: "inception_3a/pool_proj"
  param {
    lr_mult: 1
    decay_mult: 1
  }
  param {
    lr_mult: 2
    decay_mult: 0
  }
  convolution_param {
    num_output: 32
    kernel_size: 1
    weight_filler {
      type: "xavier"
      std: 0.1
    }
    bias_filler {
      type: "constant"
      value: 0.2
    }
  }
}
layer {
  name: "inception_3a/relu_pool_proj"
  type: "ReLU"
  bottom: "inception_3a/pool_proj"
  top: "inception_3a/pool_proj"
}
layer {
  name: "inception_3a/output"
  type: "Concat"
  bottom: "inception_3a/1x1"
  bottom: "inception_3a/3x3"
  bottom: "inception_3a/5x5"
  bottom: "inception_3a/pool_proj"
  top: "inception_3a/output"
}
layer {
  name: "inception_3b/1x1"
  type: "Convolution"
  bottom: "inception_3a/output"
  top: "inception_3b/1x1"
  param {
    lr_mult: 1
    decay_mult: 1
  }
  param {
    lr_mult: 2
    decay_mult: 0
  }
  convolution_param {
    num_output: 128
    kernel_size: 1
    weight_filler {
      type: "xavier"
      std: 0.03
    }
    bias_filler {
      type: "constant"
      value: 0.2
    }
  }
}
layer {
  name: "inception_3b/relu_1x1"
  type: "ReLU"
  bottom: "inception_3b/1x1"
  top: "inception_3b/1x1"
}
layer {
  name: "inception_3b/3x3_reduce"
  type: "Convolution"
  bottom: "inception_3a/output"
  top: "inception_3b/3x3_reduce"
  param {
    lr_mult: 1
    decay_mult: 1
  }
  param {
    lr_mult: 2
    decay_mult: 0
  }
  convolution_param {
    num_output: 128
    kernel_size: 1
    weight_filler {
      type: "xavier"
      std: 0.09
    }
    bias_filler {
      type: "constant"
      value: 0.2
    }
  }
}
layer {
  name: "inception_3b/relu_3x3_reduce"
  type: "ReLU"
  bottom: "inception_3b/3x3_reduce"
  top: "inception_3b/3x3_reduce"
}
layer {
  name: "inception_3b/3x3"
  type: "Convolution"
  bottom: "inception_3b/3x3_reduce"
  top: "inception_3b/3x3"
  param {
    lr_mult: 1
    decay_mult: 1
  }
  param {
    lr_mult: 2
    decay_mult: 0
  }
  convolution_param {
    num_output: 192
    pad: 1
    kernel_size: 3
    weight_filler {
      type: "xavier"
      std: 0.03
    }
    bias_filler {
      type: "constant"
      value: 0.2
    }
  }
}
layer {
  name: "inception_3b/relu_3x3"
  type: "ReLU"
  bottom: "inception_3b/3x3"
  top: "inception_3b/3x3"
}
layer {
  name: "inception_3b/5x5_reduce"
  type: "Convolution"
  bottom: "inception_3a/output"
  top: "inception_3b/5x5_reduce"
  param {
    lr_mult: 1
    decay_mult: 1
  }
  param {
    lr_mult: 2
    decay_mult: 0
  }
  convolution_param {
    num_output: 32
    kernel_size: 1
    weight_filler {
      type: "xavier"
      std: 0.2
    }
    bias_filler {
      type: "constant"
      value: 0.2
    }
  }
}
layer {
  name: "inception_3b/relu_5x5_reduce"
  type: "ReLU"
  bottom: "inception_3b/5x5_reduce"
  top: "inception_3b/5x5_reduce"
}
layer {
  name: "inception_3b/5x5"
  type: "Convolution"
  bottom: "inception_3b/5x5_reduce"
  top: "inception_3b/5x5"
  param {
    lr_mult: 1
    decay_mult: 1
  }
  param {
    lr_mult: 2
    decay_mult: 0
  }
  convolution_param {
    num_output: 96
    pad: 2
    kernel_size: 5
    weight_filler {
      type: "xavier"
      std: 0.03
    }
    bias_filler {
      type: "constant"
      value: 0.2
    }
  }
}
layer {
  name: "inception_3b/relu_5x5"
  type: "ReLU"
  bottom: "inception_3b/5x5"
  top: "inception_3b/5x5"
}
layer {
  name: "inception_3b/pool"
  type: "Pooling"
  bottom: "inception_3a/output"
  top: "inception_3b/pool"
  pooling_param {
    pool: MAX
    kernel_size: 3
    stride: 1
    pad: 1
  }
}
layer {
  name: "inception_3b/pool_proj"
  type: "Convolution"
  bottom: "inception_3b/pool"
  top: "inception_3b/pool_proj"
  param {
    lr_mult: 1
    decay_mult: 1
  }
  param {
    lr_mult: 2
    decay_mult: 0
  }
  convolution_param {
    num_output: 64
    kernel_size: 1
    weight_filler {
      type: "xavier"
      std: 0.1
    }
    bias_filler {
      type: "constant"
      value: 0.2
    }
  }
}
layer {
  name: "inception_3b/relu_pool_proj"
  type: "ReLU"
  bottom: "inception_3b/pool_proj"
  top: "inception_3b/pool_proj"
}
layer {
  name: "inception_3b/output"
  type: "Concat"
  bottom: "inception_3b/1x1"
  bottom: "inception_3b/3x3"
  bottom: "inception_3b/5x5"
  bottom: "inception_3b/pool_proj"
  top: "inception_3b/output"
}
layer {
  name: "pool3/3x3_s2"
  type: "Pooling"
  bottom: "inception_3b/output"
  top: "pool3/3x3_s2"
  pooling_param {
    pool: MAX
    kernel_size: 3
    stride: 2
  }
}
layer {
  name: "inception_4a/1x1"
  type: "Convolution"
  bottom: "pool3/3x3_s2"
  top: "inception_4a/1x1"
  param {
    lr_mult: 1
    decay_mult: 1
  }
  param {
    lr_mult: 2
    decay_mult: 0
  }
  convolution_param {
    num_output: 192
    kernel_size: 1
    weight_filler {
      type: "xavier"
      std: 0.03
    }
    bias_filler {
      type: "constant"
      value: 0.2
    }
  }
}
layer {
  name: "inception_4a/relu_1x1"
  type: "ReLU"
  bottom: "inception_4a/1x1"
  top: "inception_4a/1x1"
}
layer {
  name: "inception_4a/3x3_reduce"
  type: "Convolution"
  bottom: "pool3/3x3_s2"
  top: "inception_4a/3x3_reduce"
  param {
    lr_mult: 1
    decay_mult: 1
  }
  param {
    lr_mult: 2
    decay_mult: 0
  }
  convolution_param {
    num_output: 96
    kernel_size: 1
    weight_filler {
      type: "xavier"
      std: 0.09
    }
    bias_filler {
      type: "constant"
      value: 0.2
    }
  }
}
layer {
  name: "inception_4a/relu_3x3_reduce"
  type: "ReLU"
  bottom: "inception_4a/3x3_reduce"
  top: "inception_4a/3x3_reduce"
}
layer {
  name: "inception_4a/3x3"
  type: "Convolution"
  bottom: "inception_4a/3x3_reduce"
  top: "inception_4a/3x3"
  param {
    lr_mult: 1
    decay_mult: 1
  }
  param {
    lr_mult: 2
    decay_mult: 0
  }
  convolution_param {
    num_output: 208
    pad: 1
    kernel_size: 3
    weight_filler {
      type: "xavier"
      std: 0.03
    }
    bias_filler {
      type: "constant"
      value: 0.2
    }
  }
}
layer {
  name: "inception_4a/relu_3x3"
  type: "ReLU"
  bottom: "inception_4a/3x3"
  top: "inception_4a/3x3"
}
layer {
  name: "inception_4a/5x5_reduce"
  type: "Convolution"
  bottom: "pool3/3x3_s2"
  top: "inception_4a/5x5_reduce"
  param {
    lr_mult: 1
    decay_mult: 1
  }
  param {
    lr_mult: 2
    decay_mult: 0
  }
  convolution_param {
    num_output: 16
    kernel_size: 1
    weight_filler {
      type: "xavier"
      std: 0.2
    }
    bias_filler {
      type: "constant"
      value: 0.2
    }
  }
}
layer {
  name: "inception_4a/relu_5x5_reduce"
  type: "ReLU"
  bottom: "inception_4a/5x5_reduce"
  top: "inception_4a/5x5_reduce"
}
layer {
  name: "inception_4a/5x5"
  type: "Convolution"
  bottom: "inception_4a/5x5_reduce"
  top: "inception_4a/5x5"
  param {
    lr_mult: 1
    decay_mult: 1
  }
  param {
    lr_mult: 2
    decay_mult: 0
  }
  convolution_param {
    num_output: 48
    pad: 2
    kernel_size: 5
    weight_filler {
      type: "xavier"
      std: 0.03
    }
    bias_filler {
      type: "constant"
      value: 0.2
    }
  }
}
layer {
  name: "inception_4a/relu_5x5"
  type: "ReLU"
  bottom: "inception_4a/5x5"
  top: "inception_4a/5x5"
}
layer {
  name: "inception_4a/pool"
  type: "Pooling"
  bottom: "pool3/3x3_s2"
  top: "inception_4a/pool"
  pooling_param {
    pool: MAX
    kernel_size: 3
    stride: 1
    pad: 1
  }
}
layer {
  name: "inception_4a/pool_proj"
  type: "Convolution"
  bottom: "inception_4a/pool"
  top: "inception_4a/pool_proj"
  param {
    lr_mult: 1
    decay_mult: 1
  }
  param {
    lr_mult: 2
    decay_mult: 0
  }
  convolution_param {
    num_output: 64
    kernel_size: 1
    weight_filler {
      type: "xavier"
      std: 0.1
    }
    bias_filler {
      type: "constant"
      value: 0.2
    }
  }
}
layer {
  name: "inception_4a/relu_pool_proj"
  type: "ReLU"
  bottom: "inception_4a/pool_proj"
  top: "inception_4a/pool_proj"
}
layer {
  name: "inception_4a/output"
  type: "Concat"
  bottom: "inception_4a/1x1"
  bottom: "inception_4a/3x3"
  bottom: "inception_4a/5x5"
  bottom: "inception_4a/pool_proj"
  top: "inception_4a/output"
}
layer {
  name: "inception_4b/1x1"
  type: "Convolution"
  bottom: "inception_4a/output"
  top: "inception_4b/1x1"
  param {
    lr_mult: 1
    decay_mult: 1
  }
  param {
    lr_mult: 2
    decay_mult: 0
  }
  convolution_param {
    num_output: 160
    kernel_size: 1
    weight_filler {
      type: "xavier"
      std: 0.03
    }
    bias_filler {
      type: "constant"
      value: 0.2
    }
  }
}
layer {
  name: "inception_4b/relu_1x1"
  type: "ReLU"
  bottom: "inception_4b/1x1"
  top: "inception_4b/1x1"
}
layer {
  name: "inception_4b/3x3_reduce"
  type: "Convolution"
  bottom: "inception_4a/output"
  top: "inception_4b/3x3_reduce"
  param {
    lr_mult: 1
    decay_mult: 1
  }
  param {
    lr_mult: 2
    decay_mult: 0
  }
  convolution_param {
    num_output: 112
    kernel_size: 1
    weight_filler {
      type: "xavier"
      std: 0.09
    }
    bias_filler {
      type: "constant"
      value: 0.2
    }
  }
}
layer {
  name: "inception_4b/relu_3x3_reduce"
  type: "ReLU"
  bottom: "inception_4b/3x3_reduce"
  top: "inception_4b/3x3_reduce"
}
layer {
  name: "inception_4b/3x3"
  type: "Convolution"
  bottom: "inception_4b/3x3_reduce"
  top: "inception_4b/3x3"
  param {
    lr_mult: 1
    decay_mult: 1
  }
  param {
    lr_mult: 2
    decay_mult: 0
  }
  convolution_param {
    num_output: 224
    pad: 1
    kernel_size: 3
    weight_filler {
      type: "xavier"
      std: 0.03
    }
    bias_filler {
      type: "constant"
      value: 0.2
    }
  }
}
layer {
  name: "inception_4b/relu_3x3"
  type: "ReLU"
  bottom: "inception_4b/3x3"
  top: "inception_4b/3x3"
}
layer {
  name: "inception_4b/5x5_reduce"
  type: "Convolution"
  bottom: "inception_4a/output"
  top: "inception_4b/5x5_reduce"
  param {
    lr_mult: 1
    decay_mult: 1
  }
  param {
    lr_mult: 2
    decay_mult: 0
  }
  convolution_param {
    num_output: 24
    kernel_size: 1
    weight_filler {
      type: "xavier"
      std: 0.2
    }
    bias_filler {
      type: "constant"
      value: 0.2
    }
  }
}
layer {
  name: "inception_4b/relu_5x5_reduce"
  type: "ReLU"
  bottom: "inception_4b/5x5_reduce"
  top: "inception_4b/5x5_reduce"
}
layer {
  name: "inception_4b/5x5"
  type: "Convolution"
  bottom: "inception_4b/5x5_reduce"
  top: "inception_4b/5x5"
  param {
    lr_mult: 1
    decay_mult: 1
  }
  param {
    lr_mult: 2
    decay_mult: 0
  }
  convolution_param {
    num_output: 64
    pad: 2
    kernel_size: 5
    weight_filler {
      type: "xavier"
      std: 0.03
    }
    bias_filler {
      type: "constant"
      value: 0.2
    }
  }
}
layer {
  name: "inception_4b/relu_5x5"
  type: "ReLU"
  bottom: "inception_4b/5x5"
  top: "inception_4b/5x5"
}
layer {
  name: "inception_4b/pool"
  type: "Pooling"
  bottom: "inception_4a/output"
  top: "inception_4b/pool"
  pooling_param {
    pool: MAX
    kernel_size: 3
    stride: 1
    pad: 1
  }
}
layer {
  name: "inception_4b/pool_proj"
  type: "Convolution"
  bottom: "inception_4b/pool"
  top: "inception_4b/pool_proj"
  param {
    lr_mult: 1
    decay_mult: 1
  }
  param {
    lr_mult: 2
    decay_mult: 0
  }
  convolution_param {
    num_output: 64
    kernel_size: 1
    weight_filler {
      type: "xavier"
      std: 0.1
    }
    bias_filler {
      type: "constant"
      value: 0.2
    }
  }
}
layer {
  name: "inception_4b/relu_pool_proj"
  type: "ReLU"
  bottom: "inception_4b/pool_proj"
  top: "inception_4b/pool_proj"
}
layer {
  name: "inception_4b/output"
  type: "Concat"
  bottom: "inception_4b/1x1"
  bottom: "inception_4b/3x3"
  bottom: "inception_4b/5x5"
  bottom: "inception_4b/pool_proj"
  top: "inception_4b/output"
}
layer {
  name: "inception_4c/1x1"
  type: "Convolution"
  bottom: "inception_4b/output"
  top: "inception_4c/1x1"
  param {
    lr_mult: 1
    decay_mult: 1
  }
  param {
    lr_mult: 2
    decay_mult: 0
  }
  convolution_param {
    num_output: 128
    kernel_size: 1
    weight_filler {
      type: "xavier"
      std: 0.03
    }
    bias_filler {
      type: "constant"
      value: 0.2
    }
  }
}
layer {
  name: "inception_4c/relu_1x1"
  type: "ReLU"
  bottom: "inception_4c/1x1"
  top: "inception_4c/1x1"
}
layer {
  name: "inception_4c/3x3_reduce"
  type: "Convolution"
  bottom: "inception_4b/output"
  top: "inception_4c/3x3_reduce"
  param {
    lr_mult: 1
    decay_mult: 1
  }
  param {
    lr_mult: 2
    decay_mult: 0
  }
  convolution_param {
    num_output: 128
    kernel_size: 1
    weight_filler {
      type: "xavier"
      std: 0.09
    }
    bias_filler {
      type: "constant"
      value: 0.2
    }
  }
}
layer {
  name: "inception_4c/relu_3x3_reduce"
  type: "ReLU"
  bottom: "inception_4c/3x3_reduce"
  top: "inception_4c/3x3_reduce"
}
layer {
  name: "inception_4c/3x3"
  type: "Convolution"
  bottom: "inception_4c/3x3_reduce"
  top: "inception_4c/3x3"
  param {
    lr_mult: 1
    decay_mult: 1
  }
  param {
    lr_mult: 2
    decay_mult: 0
  }
  convolution_param {
    num_output: 256
    pad: 1
    kernel_size: 3
    weight_filler {
      type: "xavier"
      std: 0.03
    }
    bias_filler {
      type: "constant"
      value: 0.2
    }
  }
}
layer {
  name: "inception_4c/relu_3x3"
  type: "ReLU"
  bottom: "inception_4c/3x3"
  top: "inception_4c/3x3"
}
layer {
  name: "inception_4c/5x5_reduce"
  type: "Convolution"
  bottom: "inception_4b/output"
  top: "inception_4c/5x5_reduce"
  param {
    lr_mult: 1
    decay_mult: 1
  }
  param {
    lr_mult: 2
    decay_mult: 0
  }
  convolution_param {
    num_output: 24
    kernel_size: 1
    weight_filler {
      type: "xavier"
      std: 0.2
    }
    bias_filler {
      type: "constant"
      value: 0.2
    }
  }
}
layer {
  name: "inception_4c/relu_5x5_reduce"
  type: "ReLU"
  bottom: "inception_4c/5x5_reduce"
  top: "inception_4c/5x5_reduce"
}
layer {
  name: "inception_4c/5x5"
  type: "Convolution"
  bottom: "inception_4c/5x5_reduce"
  top: "inception_4c/5x5"
  param {
    lr_mult: 1
    decay_mult: 1
  }
  param {
    lr_mult: 2
    decay_mult: 0
  }
  convolution_param {
    num_output: 64
    pad: 2
    kernel_size: 5
    weight_filler {
      type: "xavier"
      std: 0.03
    }
    bias_filler {
      type: "constant"
      value: 0.2
    }
  }
}
layer {
  name: "inception_4c/relu_5x5"
  type: "ReLU"
  bottom: "inception_4c/5x5"
  top: "inception_4c/5x5"
}
layer {
  name: "inception_4c/pool"
  type: "Pooling"
  bottom: "inception_4b/output"
  top: "inception_4c/pool"
  pooling_param {
    pool: MAX
    kernel_size: 3
    stride: 1
    pad: 1
  }
}
layer {
  name: "inception_4c/pool_proj"
  type: "Convolution"
  bottom: "inception_4c/pool"
  top: "inception_4c/pool_proj"
  param {
    lr_mult: 1
    decay_mult: 1
  }
  param {
    lr_mult: 2
    decay_mult: 0
  }
  convolution_param {
    num_output: 64
    kernel_size: 1
    weight_filler {
      type: "xavier"
      std: 0.1
    }
    bias_filler {
      type: "constant"
      value: 0.2
    }
  }
}
layer {
  name: "inception_4c/relu_pool_proj"
  type: "ReLU"
  bottom: "inception_4c/pool_proj"
  top: "inception_4c/pool_proj"
}
layer {
  name: "inception_4c/output"
  type: "Concat"
  bottom: "inception_4c/1x1"
  bottom: "inception_4c/3x3"
  bottom: "inception_4c/5x5"
  bottom: "inception_4c/pool_proj"
  top: "inception_4c/output"
}
layer {
  name: "inception_4d/1x1"
  type: "Convolution"
  bottom: "inception_4c/output"
  top: "inception_4d/1x1"
  param {
    lr_mult: 1
    decay_mult: 1
  }
  param {
    lr_mult: 2
    decay_mult: 0
  }
  convolution_param {
    num_output: 112
    kernel_size: 1
    weight_filler {
      type: "xavier"
      std: 0.03
    }
    bias_filler {
      type: "constant"
      value: 0.2
    }
  }
}
layer {
  name: "inception_4d/relu_1x1"
  type: "ReLU"
  bottom: "inception_4d/1x1"
  top: "inception_4d/1x1"
}
layer {
  name: "inception_4d/3x3_reduce"
  type: "Convolution"
  bottom: "inception_4c/output"
  top: "inception_4d/3x3_reduce"
  param {
    lr_mult: 1
    decay_mult: 1
  }
  param {
    lr_mult: 2
    decay_mult: 0
  }
  convolution_param {
    num_output: 144
    kernel_size: 1
    weight_filler {
      type: "xavier"
      std: 0.09
    }
    bias_filler {
      type: "constant"
      value: 0.2
    }
  }
}
layer {
  name: "inception_4d/relu_3x3_reduce"
  type: "ReLU"
  bottom: "inception_4d/3x3_reduce"
  top: "inception_4d/3x3_reduce"
}
layer {
  name: "inception_4d/3x3"
  type: "Convolution"
  bottom: "inception_4d/3x3_reduce"
  top: "inception_4d/3x3"
  param {
    lr_mult: 1
    decay_mult: 1
  }
  param {
    lr_mult: 2
    decay_mult: 0
  }
  convolution_param {
    num_output: 288
    pad: 1
    kernel_size: 3
    weight_filler {
      type: "xavier"
      std: 0.03
    }
    bias_filler {
      type: "constant"
      value: 0.2
    }
  }
}
layer {
  name: "inception_4d/relu_3x3"
  type: "ReLU"
  bottom: "inception_4d/3x3"
  top: "inception_4d/3x3"
}
layer {
  name: "inception_4d/5x5_reduce"
  type: "Convolution"
  bottom: "inception_4c/output"
  top: "inception_4d/5x5_reduce"
  param {
    lr_mult: 1
    decay_mult: 1
  }
  param {
    lr_mult: 2
    decay_mult: 0
  }
  convolution_param {
    num_output: 32
    kernel_size: 1
    weight_filler {
      type: "xavier"
      std: 0.2
    }
    bias_filler {
      type: "constant"
      value: 0.2
    }
  }
}
layer {
  name: "inception_4d/relu_5x5_reduce"
  type: "ReLU"
  bottom: "inception_4d/5x5_reduce"
  top: "inception_4d/5x5_reduce"
}
layer {
  name: "inception_4d/5x5"
  type: "Convolution"
  bottom: "inception_4d/5x5_reduce"
  top: "inception_4d/5x5"
  param {
    lr_mult: 1
    decay_mult: 1
  }
  param {
    lr_mult: 2
    decay_mult: 0
  }
  convolution_param {
    num_output: 64
    pad: 2
    kernel_size: 5
    weight_filler {
      type: "xavier"
      std: 0.03
    }
    bias_filler {
      type: "constant"
      value: 0.2
    }
  }
}
layer {
  name: "inception_4d/relu_5x5"
  type: "ReLU"
  bottom: "inception_4d/5x5"
  top: "inception_4d/5x5"
}
layer {
  name: "inception_4d/pool"
  type: "Pooling"
  bottom: "inception_4c/output"
  top: "inception_4d/pool"
  pooling_param {
    pool: MAX
    kernel_size: 3
    stride: 1
    pad: 1
  }
}
layer {
  name: "inception_4d/pool_proj"
  type: "Convolution"
  bottom: "inception_4d/pool"
  top: "inception_4d/pool_proj"
  param {
    lr_mult: 1
    decay_mult: 1
  }
  param {
    lr_mult: 2
    decay_mult: 0
  }
  convolution_param {
    num_output: 64
    kernel_size: 1
    weight_filler {
      type: "xavier"
      std: 0.1
    }
    bias_filler {
      type: "constant"
      value: 0.2
    }
  }
}
layer {
  name: "inception_4d/relu_pool_proj"
  type: "ReLU"
  bottom: "inception_4d/pool_proj"
  top: "inception_4d/pool_proj"
}
layer {
  name: "inception_4d/output"
  type: "Concat"
  bottom: "inception_4d/1x1"
  bottom: "inception_4d/3x3"
  bottom: "inception_4d/5x5"
  bottom: "inception_4d/pool_proj"
  top: "inception_4d/output"
}
layer {
  name: "inception_4e/1x1"
  type: "Convolution"
  bottom: "inception_4d/output"
  top: "inception_4e/1x1"
  param {
    lr_mult: 1
    decay_mult: 1
  }
  param {
    lr_mult: 2
    decay_mult: 0
  }
  convolution_param {
    num_output: 256
    kernel_size: 1
    weight_filler {
      type: "xavier"
      std: 0.03
    }
    bias_filler {
      type: "constant"
      value: 0.2
    }
  }
}
layer {
  name: "inception_4e/relu_1x1"
  type: "ReLU"
  bottom: "inception_4e/1x1"
  top: "inception_4e/1x1"
}
layer {
  name: "inception_4e/3x3_reduce"
  type: "Convolution"
  bottom: "inception_4d/output"
  top: "inception_4e/3x3_reduce"
  param {
    lr_mult: 1
    decay_mult: 1
  }
  param {
    lr_mult: 2
    decay_mult: 0
  }
  convolution_param {
    num_output: 160
    kernel_size: 1
    weight_filler {
      type: "xavier"
      std: 0.09
    }
    bias_filler {
      type: "constant"
      value: 0.2
    }
  }
}
layer {
  name: "inception_4e/relu_3x3_reduce"
  type: "ReLU"
  bottom: "inception_4e/3x3_reduce"
  top: "inception_4e/3x3_reduce"
}
layer {
  name: "inception_4e/3x3"
  type: "Convolution"
  bottom: "inception_4e/3x3_reduce"
  top: "inception_4e/3x3"
  param {
    lr_mult: 1
    decay_mult: 1
  }
  param {
    lr_mult: 2
    decay_mult: 0
  }
  convolution_param {
    num_output: 320
    pad: 1
    kernel_size: 3
    weight_filler {
      type: "xavier"
      std: 0.03
    }
    bias_filler {
      type: "constant"
      value: 0.2
    }
  }
}
layer {
  name: "inception_4e/relu_3x3"
  type: "ReLU"
  bottom: "inception_4e/3x3"
  top: "inception_4e/3x3"
}
layer {
  name: "inception_4e/5x5_reduce"
  type: "Convolution"
  bottom: "inception_4d/output"
  top: "inception_4e/5x5_reduce"
  param {
    lr_mult: 1
    decay_mult: 1
  }
  param {
    lr_mult: 2
    decay_mult: 0
  }
  convolution_param {
    num_output: 32
    kernel_size: 1
    weight_filler {
      type: "xavier"
      std: 0.2
    }
    bias_filler {
      type: "constant"
      value: 0.2
    }
  }
}
layer {
  name: "inception_4e/relu_5x5_reduce"
  type: "ReLU"
  bottom: "inception_4e/5x5_reduce"
  top: "inception_4e/5x5_reduce"
}
layer {
  name: "inception_4e/5x5"
  type: "Convolution"
  bottom: "inception_4e/5x5_reduce"
  top: "inception_4e/5x5"
  param {
    lr_mult: 1
    decay_mult: 1
  }
  param {
    lr_mult: 2
    decay_mult: 0
  }
  convolution_param {
    num_output: 128
    pad: 2
    kernel_size: 5
    weight_filler {
      type: "xavier"
      std: 0.03
    }
    bias_filler {
      type: "constant"
      value: 0.2
    }
  }
}
layer {
  name: "inception_4e/relu_5x5"
  type: "ReLU"
  bottom: "inception_4e/5x5"
  top: "inception_4e/5x5"
}
layer {
  name: "inception_4e/pool"
  type: "Pooling"
  bottom: "inception_4d/output"
  top: "inception_4e/pool"
  pooling_param {
    pool: MAX
    kernel_size: 3
    stride: 1
    pad: 1
  }
}
layer {
  name: "inception_4e/pool_proj"
  type: "Convolution"
  bottom: "inception_4e/pool"
  top: "inception_4e/pool_proj"
  param {
    lr_mult: 1
    decay_mult: 1
  }
  param {
    lr_mult: 2
    decay_mult: 0
  }
  convolution_param {
    num_output: 128
    kernel_size: 1
    weight_filler {
      type: "xavier"
      std: 0.1
    }
    bias_filler {
      type: "constant"
      value: 0.2
    }
  }
}
layer {
  name: "inception_4e/relu_pool_proj"
  type: "ReLU"
  bottom: "inception_4e/pool_proj"
  top: "inception_4e/pool_proj"
}
layer {
  name: "inception_4e/output"
  type: "Concat"
  bottom: "inception_4e/1x1"
  bottom: "inception_4e/3x3"
  bottom: "inception_4e/5x5"
  bottom: "inception_4e/pool_proj"
  top: "inception_4e/output"
}
layer {
  name: "pool4/3x3_s2"
  type: "Pooling"
  bottom: "inception_4e/output"
  top: "pool4/3x3_s2"
  pooling_param {
    pool: MAX
    kernel_size: 3
    stride: 2
  }
}
layer {
  name: "inception_5a/1x1"
  type: "Convolution"
  bottom: "pool4/3x3_s2"
  top: "inception_5a/1x1"
  param {
    lr_mult: 1
    decay_mult: 1
  }
  param {
    lr_mult: 2
    decay_mult: 0
  }
  convolution_param {
    num_output: 256
    kernel_size: 1
    weight_filler {
      type: "xavier"
      std: 0.03
    }
    bias_filler {
      type: "constant"
      value: 0.2
    }
  }
}
layer {
  name: "inception_5a/relu_1x1"
  type: "ReLU"
  bottom: "inception_5a/1x1"
  top: "inception_5a/1x1"
}
layer {
  name: "inception_5a/3x3_reduce"
  type: "Convolution"
  bottom: "pool4/3x3_s2"
  top: "inception_5a/3x3_reduce"
  param {
    lr_mult: 1
    decay_mult: 1
  }
  param {
    lr_mult: 2
    decay_mult: 0
  }
  convolution_param {
    num_output: 160
    kernel_size: 1
    weight_filler {
      type: "xavier"
      std: 0.09
    }
    bias_filler {
      type: "constant"
      value: 0.2
    }
  }
}
layer {
  name: "inception_5a/relu_3x3_reduce"
  type: "ReLU"
  bottom: "inception_5a/3x3_reduce"
  top: "inception_5a/3x3_reduce"
}
layer {
  name: "inception_5a/3x3"
  type: "Convolution"
  bottom: "inception_5a/3x3_reduce"
  top: "inception_5a/3x3"
  param {
    lr_mult: 1
    decay_mult: 1
  }
  param {
    lr_mult: 2
    decay_mult: 0
  }
  convolution_param {
    num_output: 320
    pad: 1
    kernel_size: 3
    weight_filler {
      type: "xavier"
      std: 0.03
    }
    bias_filler {
      type: "constant"
      value: 0.2
    }
  }
}
layer {
  name: "inception_5a/relu_3x3"
  type: "ReLU"
  bottom: "inception_5a/3x3"
  top: "inception_5a/3x3"
}
layer {
  name: "inception_5a/5x5_reduce"
  type: "Convolution"
  bottom: "pool4/3x3_s2"
  top: "inception_5a/5x5_reduce"
  param {
    lr_mult: 1
    decay_mult: 1
  }
  param {
    lr_mult: 2
    decay_mult: 0
  }
  convolution_param {
    num_output: 32
    kernel_size: 1
    weight_filler {
      type: "xavier"
      std: 0.2
    }
    bias_filler {
      type: "constant"
      value: 0.2
    }
I0727 20:17:06.862452 26138 layer_factory.hpp:77] Creating layer data
I0727 20:17:06.862479 26138 net.cpp:91] Creating Layer data
I0727 20:17:06.862489 26138 net.cpp:399] data -> data
I0727 20:17:06.875273 26142 net.cpp:49] Initializing net from parameters: 
name: "GoogleNet"
state {
  phase: TEST
}
layer {
  name: "data"
  type: "Input"
  top: "data"
  input_param {
    shape {
      dim: 10
      dim: 3
      dim: 224
      dim: 224
    }
  }
}
layer {
  name: "conv1/7x7_s2"
  type: "Convolution"
  bottom: "data"
  top: "conv1/7x7_s2"
  param {
    lr_mult: 1
    decay_mult: 1
  }
  param {
    lr_mult: 2
    decay_mult: 0
  }
  convolution_param {
    num_output: 64
    pad: 3
    kernel_size: 7
    stride: 2
    weight_filler {
      type: "xavier"
      std: 0.1
    }
    bias_filler {
      type: "constant"
      value: 0.2
    }
  }
}
layer {
  name: "conv1/relu_7x7"
  type: "ReLU"
  bottom: "conv1/7x7_s2"
  top: "conv1/7x7_s2"
}
layer {
  name: "pool1/3x3_s2"
  type: "Pooling"
  bottom: "conv1/7x7_s2"
  top: "pool1/3x3_s2"
  pooling_param {
    pool: MAX
    kernel_size: 3
    stride: 2
  }
}
layer {
  name: "pool1/norm1"
  type: "LRN"
  bottom: "pool1/3x3_s2"
  top: "pool1/norm1"
  lrn_param {
    local_size: 5
    alpha: 0.0001
    beta: 0.75
  }
}
layer {
  name: "conv2/3x3_reduce"
  type: "Convolution"
  bottom: "pool1/norm1"
  top: "conv2/3x3_reduce"
  param {
    lr_mult: 1
    decay_mult: 1
  }
  param {
    lr_mult: 2
    decay_mult: 0
  }
  convolution_param {
    num_output: 64
    kernel_size: 1
    weight_filler {
      type: "xavier"
      std: 0.1
    }
    bias_filler {
      type: "constant"
      value: 0.2
    }
  }
}
layer {
  name: "conv2/relu_3x3_reduce"
  type: "ReLU"
  bottom: "conv2/3x3_reduce"
  top: "conv2/3x3_reduce"
}
layer {
  name: "conv2/3x3"
  type: "Convolution"
  bottom: "conv2/3x3_reduce"
  top: "conv2/3x3"
  param {
    lr_mult: 1
    decay_mult: 1
  }
  param {
    lr_mult: 2
    decay_mult: 0
  }
  convolution_param {
    num_output: 192
    pad: 1
    kernel_size: 3
    weight_filler {
      type: "xavier"
      std: 0.03
    }
    bias_filler {
      type: "constant"
      value: 0.2
    }
  }
}
layer {
  name: "conv2/relu_3x3"
  type: "ReLU"
  bottom: "conv2/3x3"
  top: "conv2/3x3"
}
layer {
  name: "conv2/norm2"
  type: "LRN"
  bottom: "conv2/3x3"
  top: "conv2/norm2"
  lrn_param {
    local_size: 5
    alpha: 0.0001
    beta: 0.75
  }
}
layer {
  name: "pool2/3x3_s2"
  type: "Pooling"
  bottom: "conv2/norm2"
  top: "pool2/3x3_s2"
  pooling_param {
    pool: MAX
    kernel_size: 3
    stride: 2
  }
}
layer {
  name: "inception_3a/1x1"
  type: "Convolution"
  bottom: "pool2/3x3_s2"
  top: "inception_3a/1x1"
  param {
    lr_mult: 1
    decay_mult: 1
  }
  param {
    lr_mult: 2
    decay_mult: 0
  }
  convolution_param {
    num_output: 64
    kernel_size: 1
    weight_filler {
      type: "xavier"
      std: 0.03
    }
    bias_filler {
      type: "constant"
      value: 0.2
    }
  }
}
layer {
  name: "inception_3a/relu_1x1"
  type: "ReLU"
  bottom: "inception_3a/1x1"
  top: "inception_3a/1x1"
}
layer {
  name: "inception_3a/3x3_reduce"
  type: "Convolution"
  bottom: "pool2/3x3_s2"
  top: "inception_3a/3x3_reduce"
  param {
    lr_mult: 1
    decay_mult: 1
  }
  param {
    lr_mult: 2
    decay_mult: 0
  }
  convolution_param {
    num_output: 96
    kernel_size: 1
    weight_filler {
      type: "xavier"
      std: 0.09
    }
    bias_filler {
      type: "constant"
      value: 0.2
    }
  }
}
layer {
  name: "inception_3a/relu_3x3_reduce"
  type: "ReLU"
  bottom: "inception_3a/3x3_reduce"
  top: "inception_3a/3x3_reduce"
}
layer {
  name: "inception_3a/3x3"
  type: "Convolution"
  bottom: "inception_3a/3x3_reduce"
  top: "inception_3a/3x3"
  param {
    lr_mult: 1
    decay_mult: 1
  }
  param {
    lr_mult: 2
    decay_mult: 0
  }
  convolution_param {
    num_output: 128
    pad: 1
    kernel_size: 3
    weight_filler {
      type: "xavier"
      std: 0.03
    }
    bias_filler {
      type: "constant"
      value: 0.2
    }
  }
}
layer {
  name: "inception_3a/relu_3x3"
  type: "ReLU"
  bottom: "inception_3a/3x3"
  top: "inception_3a/3x3"
}
layer {
  name: "inception_3a/5x5_reduce"
  type: "Convolution"
  bottom: "pool2/3x3_s2"
  top: "inception_3a/5x5_reduce"
  param {
    lr_mult: 1
    decay_mult: 1
  }
  param {
    lr_mult: 2
    decay_mult: 0
  }
  convolution_param {
    num_output: 16
    kernel_size: 1
    weight_filler {
      type: "xavier"
      std: 0.2
    }
    bias_filler {
      type: "constant"
      value: 0.2
    }
  }
}
layer {
  name: "inception_3a/relu_5x5_reduce"
  type: "ReLU"
  bottom: "inception_3a/5x5_reduce"
  top: "inception_3a/5x5_reduce"
}
layer {
  name: "inception_3a/5x5"
  type: "Convolution"
  bottom: "inception_3a/5x5_reduce"
  top: "inception_3a/5x5"
  param {
    lr_mult: 1
    decay_mult: 1
  }
  param {
    lr_mult: 2
    decay_mult: 0
  }
  convolution_param {
    num_output: 32
    pad: 2
    kernel_size: 5
    weight_filler {
      type: "xavier"
      std: 0.03
    }
    bias_filler {
      type: "constant"
      value: 0.2
    }
  }
}
layer {
  name: "inception_3a/relu_5x5"
  type: "ReLU"
  bottom: "inception_3a/5x5"
  top: "inception_3a/5x5"
}
layer {
  name: "inception_3a/pool"
  type: "Pooling"
  bottom: "pool2/3x3_s2"
  top: "inception_3a/pool"
  pooling_param {
    pool: MAX
    kernel_size: 3
    stride: 1
    pad: 1
  }
}
layer {
  name: "inception_3a/pool_proj"
  type: "Convolution"
  bottom: "inception_3a/pool"
  top: "inception_3a/pool_proj"
  param {
    lr_mult: 1
    decay_mult: 1
  }
  param {
    lr_mult: 2
    decay_mult: 0
  }
  convolution_param {
    num_output: 32
    kernel_size: 1
    weight_filler {
      type: "xavier"
      std: 0.1
    }
    bias_filler {
      type: "constant"
      value: 0.2
    }
  }
}
layer {
  name: "inception_3a/relu_pool_proj"
  type: "ReLU"
  bottom: "inception_3a/pool_proj"
  top: "inception_3a/pool_proj"
}
layer {
  name: "inception_3a/output"
  type: "Concat"
  bottom: "inception_3a/1x1"
  bottom: "inception_3a/3x3"
  bottom: "inception_3a/5x5"
  bottom: "inception_3a/pool_proj"
  top: "inception_3a/output"
}
layer {
  name: "inception_3b/1x1"
  type: "Convolution"
  bottom: "inception_3a/output"
  top: "inception_3b/1x1"
  param {
    lr_mult: 1
    decay_mult: 1
  }
  param {
    lr_mult: 2
    decay_mult: 0
  }
  convolution_param {
    num_output: 128
    kernel_size: 1
    weight_filler {
      type: "xavier"
      std: 0.03
    }
    bias_filler {
      type: "constant"
      value: 0.2
    }
  }
}
layer {
  name: "inception_3b/relu_1x1"
  type: "ReLU"
  bottom: "inception_3b/1x1"
  top: "inception_3b/1x1"
}
layer {
  name: "inception_3b/3x3_reduce"
  type: "Convolution"
  bottom: "inception_3a/output"
  top: "inception_3b/3x3_reduce"
  param {
    lr_mult: 1
    decay_mult: 1
  }
  param {
    lr_mult: 2
    decay_mult: 0
  }
  convolution_param {
    num_output: 128
    kernel_size: 1
    weight_filler {
      type: "xavier"
      std: 0.09
    }
    bias_filler {
      type: "constant"
      value: 0.2
    }
  }
}
layer {
  name: "inception_3b/relu_3x3_reduce"
  type: "ReLU"
  bottom: "inception_3b/3x3_reduce"
  top: "inception_3b/3x3_reduce"
}
layer {
  name: "inception_3b/3x3"
  type: "Convolution"
  bottom: "inception_3b/3x3_reduce"
  top: "inception_3b/3x3"
  param {
    lr_mult: 1
    decay_mult: 1
  }
  param {
    lr_mult: 2
    decay_mult: 0
  }
  convolution_param {
    num_output: 192
    pad: 1
    kernel_size: 3
    weight_filler {
      type: "xavier"
      std: 0.03
    }
    bias_filler {
      type: "constant"
      value: 0.2
    }
  }
}
layer {
  name: "inception_3b/relu_3x3"
  type: "ReLU"
  bottom: "inception_3b/3x3"
  top: "inception_3b/3x3"
}
layer {
  name: "inception_3b/5x5_reduce"
  type: "Convolution"
  bottom: "inception_3a/output"
  top: "inception_3b/5x5_reduce"
  param {
    lr_mult: 1
    decay_mult: 1
  }
  param {
    lr_mult: 2
    decay_mult: 0
  }
  convolution_param {
    num_output: 32
    kernel_size: 1
    weight_filler {
      type: "xavier"
      std: 0.2
    }
    bias_filler {
      type: "constant"
      value: 0.2
    }
  }
}
layer {
  name: "inception_3b/relu_5x5_reduce"
  type: "ReLU"
  bottom: "inception_3b/5x5_reduce"
  top: "inception_3b/5x5_reduce"
}
layer {
  name: "inception_3b/5x5"
  type: "Convolution"
  bottom: "inception_3b/5x5_reduce"
  top: "inception_3b/5x5"
  param {
    lr_mult: 1
    decay_mult: 1
  }
  param {
    lr_mult: 2
    decay_mult: 0
  }
  convolution_param {
    num_output: 96
    pad: 2
    kernel_size: 5
    weight_filler {
      type: "xavier"
      std: 0.03
    }
    bias_filler {
      type: "constant"
      value: 0.2
    }
  }
}
layer {
  name: "inception_3b/relu_5x5"
  type: "ReLU"
  bottom: "inception_3b/5x5"
  top: "inception_3b/5x5"
}
layer {
  name: "inception_3b/pool"
  type: "Pooling"
  bottom: "inception_3a/output"
  top: "inception_3b/pool"
  pooling_param {
    pool: MAX
    kernel_size: 3
    stride: 1
    pad: 1
  }
}
layer {
  name: "inception_3b/pool_proj"
  type: "Convolution"
  bottom: "inception_3b/pool"
  top: "inception_3b/pool_proj"
  param {
    lr_mult: 1
    decay_mult: 1
  }
  param {
    lr_mult: 2
    decay_mult: 0
  }
  convolution_param {
    num_output: 64
    kernel_size: 1
    weight_filler {
      type: "xavier"
      std: 0.1
    }
    bias_filler {
      type: "constant"
      value: 0.2
    }
  }
}
layer {
  name: "inception_3b/relu_pool_proj"
  type: "ReLU"
  bottom: "inception_3b/pool_proj"
  top: "inception_3b/pool_proj"
}
layer {
  name: "inception_3b/output"
  type: "Concat"
  bottom: "inception_3b/1x1"
  bottom: "inception_3b/3x3"
  bottom: "inception_3b/5x5"
  bottom: "inception_3b/pool_proj"
  top: "inception_3b/output"
}
layer {
  name: "pool3/3x3_s2"
  type: "Pooling"
  bottom: "inception_3b/output"
  top: "pool3/3x3_s2"
  pooling_param {
    pool: MAX
    kernel_size: 3
    stride: 2
  }
}
layer {
  name: "inception_4a/1x1"
  type: "Convolution"
  bottom: "pool3/3x3_s2"
  top: "inception_4a/1x1"
  param {
    lr_mult: 1
    decay_mult: 1
  }
  param {
    lr_mult: 2
    decay_mult: 0
  }
  convolution_param {
    num_output: 192
    kernel_size: 1
    weight_filler {
      type: "xavier"
      std: 0.03
    }
    bias_filler {
      type: "constant"
      value: 0.2
    }
  }
}
layer {
  name: "inception_4a/relu_1x1"
  type: "ReLU"
  bottom: "inception_4a/1x1"
  top: "inception_4a/1x1"
}
layer {
  name: "inception_4a/3x3_reduce"
  type: "Convolution"
  bottom: "pool3/3x3_s2"
  top: "inception_4a/3x3_reduce"
  param {
    lr_mult: 1
    decay_mult: 1
  }
  param {
    lr_mult: 2
    decay_mult: 0
  }
  convolution_param {
    num_output: 96
    kernel_size: 1
    weight_filler {
      type: "xavier"
      std: 0.09
    }
    bias_filler {
      type: "constant"
      value: 0.2
    }
  }
}
layer {
  name: "inception_4a/relu_3x3_reduce"
  type: "ReLU"
  bottom: "inception_4a/3x3_reduce"
  top: "inception_4a/3x3_reduce"
}
layer {
  name: "inception_4a/3x3"
  type: "Convolution"
  bottom: "inception_4a/3x3_reduce"
  top: "inception_4a/3x3"
  param {
    lr_mult: 1
    decay_mult: 1
  }
  param {
    lr_mult: 2
    decay_mult: 0
  }
  convolution_param {
    num_output: 208
    pad: 1
    kernel_size: 3
    weight_filler {
      type: "xavier"
      std: 0.03
    }
    bias_filler {
      type: "constant"
      value: 0.2
    }
  }
}
layer {
  name: "inception_4a/relu_3x3"
  type: "ReLU"
  bottom: "inception_4a/3x3"
  top: "inception_4a/3x3"
}
layer {
  name: "inception_4a/5x5_reduce"
  type: "Convolution"
  bottom: "pool3/3x3_s2"
  top: "inception_4a/5x5_reduce"
  param {
    lr_mult: 1
    decay_mult: 1
  }
  param {
    lr_mult: 2
    decay_mult: 0
  }
  convolution_param {
    num_output: 16
    kernel_size: 1
    weight_filler {
      type: "xavier"
      std: 0.2
    }
    bias_filler {
      type: "constant"
      value: 0.2
    }
  }
}
layer {
  name: "inception_4a/relu_5x5_reduce"
  type: "ReLU"
  bottom: "inception_4a/5x5_reduce"
  top: "inception_4a/5x5_reduce"
}
layer {
  name: "inception_4a/5x5"
  type: "Convolution"
  bottom: "inception_4a/5x5_reduce"
  top: "inception_4a/5x5"
  param {
    lr_mult: 1
    decay_mult: 1
  }
  param {
    lr_mult: 2
    decay_mult: 0
  }
  convolution_param {
    num_output: 48
    pad: 2
    kernel_size: 5
    weight_filler {
      type: "xavier"
      std: 0.03
    }
    bias_filler {
      type: "constant"
      value: 0.2
    }
  }
}
layer {
  name: "inception_4a/relu_5x5"
  type: "ReLU"
  bottom: "inception_4a/5x5"
  top: "inception_4a/5x5"
}
layer {
  name: "inception_4a/pool"
  type: "Pooling"
  bottom: "pool3/3x3_s2"
  top: "inception_4a/pool"
  pooling_param {
    pool: MAX
    kernel_size: 3
    stride: 1
    pad: 1
  }
}
layer {
  name: "inception_4a/pool_proj"
  type: "Convolution"
  bottom: "inception_4a/pool"
  top: "inception_4a/pool_proj"
  param {
    lr_mult: 1
    decay_mult: 1
  }
  param {
    lr_mult: 2
    decay_mult: 0
  }
  convolution_param {
    num_output: 64
    kernel_size: 1
    weight_filler {
      type: "xavier"
      std: 0.1
    }
    bias_filler {
      type: "constant"
      value: 0.2
    }
  }
}
layer {
  name: "inception_4a/relu_pool_proj"
  type: "ReLU"
  bottom: "inception_4a/pool_proj"
  top: "inception_4a/pool_proj"
}
layer {
  name: "inception_4a/output"
  type: "Concat"
  bottom: "inception_4a/1x1"
  bottom: "inception_4a/3x3"
  bottom: "inception_4a/5x5"
  bottom: "inception_4a/pool_proj"
  top: "inception_4a/output"
}
layer {
  name: "inception_4b/1x1"
  type: "Convolution"
  bottom: "inception_4a/output"
  top: "inception_4b/1x1"
  param {
    lr_mult: 1
    decay_mult: 1
  }
  param {
    lr_mult: 2
    decay_mult: 0
  }
  convolution_param {
    num_output: 160
    kernel_size: 1
    weight_filler {
      type: "xavier"
      std: 0.03
    }
    bias_filler {
      type: "constant"
      value: 0.2
    }
  }
}
layer {
  name: "inception_4b/relu_1x1"
  type: "ReLU"
  bottom: "inception_4b/1x1"
  top: "inception_4b/1x1"
}
layer {
  name: "inception_4b/3x3_reduce"
  type: "Convolution"
  bottom: "inception_4a/output"
  top: "inception_4b/3x3_reduce"
  param {
    lr_mult: 1
    decay_mult: 1
  }
  param {
    lr_mult: 2
    decay_mult: 0
  }
  convolution_param {
    num_output: 112
    kernel_size: 1
    weight_filler {
      type: "xavier"
      std: 0.09
    }
    bias_filler {
      type: "constant"
      value: 0.2
    }
  }
}
layer {
  name: "inception_4b/relu_3x3_reduce"
  type: "ReLU"
  bottom: "inception_4b/3x3_reduce"
  top: "inception_4b/3x3_reduce"
}
layer {
  name: "inception_4b/3x3"
  type: "Convolution"
  bottom: "inception_4b/3x3_reduce"
  top: "inception_4b/3x3"
  param {
    lr_mult: 1
    decay_mult: 1
  }
  param {
    lr_mult: 2
    decay_mult: 0
  }
  convolution_param {
    num_output: 224
    pad: 1
    kernel_size: 3
    weight_filler {
      type: "xavier"
      std: 0.03
    }
    bias_filler {
      type: "constant"
      value: 0.2
    }
  }
}
layer {
  name: "inception_4b/relu_3x3"
  type: "ReLU"
  bottom: "inception_4b/3x3"
  top: "inception_4b/3x3"
}
layer {
  name: "inception_4b/5x5_reduce"
  type: "Convolution"
  bottom: "inception_4a/output"
  top: "inception_4b/5x5_reduce"
  param {
    lr_mult: 1
    decay_mult: 1
  }
  param {
    lr_mult: 2
    decay_mult: 0
  }
  convolution_param {
    num_output: 24
    kernel_size: 1
    weight_filler {
      type: "xavier"
      std: 0.2
    }
    bias_filler {
      type: "constant"
      value: 0.2
    }
  }
}
layer {
  name: "inception_4b/relu_5x5_reduce"
  type: "ReLU"
  bottom: "inception_4b/5x5_reduce"
  top: "inception_4b/5x5_reduce"
}
layer {
  name: "inception_4b/5x5"
  type: "Convolution"
  bottom: "inception_4b/5x5_reduce"
  top: "inception_4b/5x5"
  param {
    lr_mult: 1
    decay_mult: 1
  }
  param {
    lr_mult: 2
    decay_mult: 0
  }
  convolution_param {
    num_output: 64
    pad: 2
    kernel_size: 5
    weight_filler {
      type: "xavier"
      std: 0.03
    }
    bias_filler {
      type: "constant"
      value: 0.2
    }
  }
}
layer {
  name: "inception_4b/relu_5x5"
  type: "ReLU"
  bottom: "inception_4b/5x5"
  top: "inception_4b/5x5"
}
layer {
  name: "inception_4b/pool"
  type: "Pooling"
  bottom: "inception_4a/output"
  top: "inception_4b/pool"
  pooling_param {
    pool: MAX
    kernel_size: 3
    stride: 1
    pad: 1
  }
}
layer {
  name: "inception_4b/pool_proj"
  type: "Convolution"
  bottom: "inception_4b/pool"
  top: "inception_4b/pool_proj"
  param {
    lr_mult: 1
    decay_mult: 1
  }
  param {
    lr_mult: 2
    decay_mult: 0
  }
  convolution_param {
    num_output: 64
    kernel_size: 1
    weight_filler {
      type: "xavier"
      std: 0.1
    }
    bias_filler {
      type: "constant"
      value: 0.2
    }
  }
}
layer {
  name: "inception_4b/relu_pool_proj"
  type: "ReLU"
  bottom: "inception_4b/pool_proj"
  top: "inception_4b/pool_proj"
}
layer {
  name: "inception_4b/output"
  type: "Concat"
  bottom: "inception_4b/1x1"
  bottom: "inception_4b/3x3"
  bottom: "inception_4b/5x5"
  bottom: "inception_4b/pool_proj"
  top: "inception_4b/output"
}
layer {
  name: "inception_4c/1x1"
  type: "Convolution"
  bottom: "inception_4b/output"
  top: "inception_4c/1x1"
  param {
    lr_mult: 1
    decay_mult: 1
  }
  param {
    lr_mult: 2
    decay_mult: 0
  }
  convolution_param {
    num_output: 128
    kernel_size: 1
    weight_filler {
      type: "xavier"
      std: 0.03
    }
    bias_filler {
      type: "constant"
      value: 0.2
    }
  }
}
layer {
  name: "inception_4c/relu_1x1"
  type: "ReLU"
  bottom: "inception_4c/1x1"
  top: "inception_4c/1x1"
}
layer {
  name: "inception_4c/3x3_reduce"
  type: "Convolution"
  bottom: "inception_4b/output"
  top: "inception_4c/3x3_reduce"
  param {
    lr_mult: 1
    decay_mult: 1
  }
  param {
    lr_mult: 2
    decay_mult: 0
  }
  convolution_param {
    num_output: 128
    kernel_size: 1
    weight_filler {
      type: "xavier"
      std: 0.09
    }
    bias_filler {
      type: "constant"
      value: 0.2
    }
  }
}
layer {
  name: "inception_4c/relu_3x3_reduce"
  type: "ReLU"
  bottom: "inception_4c/3x3_reduce"
  top: "inception_4c/3x3_reduce"
}
layer {
  name: "inception_4c/3x3"
  type: "Convolution"
  bottom: "inception_4c/3x3_reduce"
  top: "inception_4c/3x3"
  param {
    lr_mult: 1
    decay_mult: 1
  }
  param {
    lr_mult: 2
    decay_mult: 0
  }
  convolution_param {
    num_output: 256
    pad: 1
    kernel_size: 3
    weight_filler {
      type: "xavier"
      std: 0.03
    }
    bias_filler {
      type: "constant"
      value: 0.2
    }
  }
}
layer {
  name: "inception_4c/relu_3x3"
  type: "ReLU"
  bottom: "inception_4c/3x3"
  top: "inception_4c/3x3"
}
layer {
  name: "inception_4c/5x5_reduce"
  type: "Convolution"
  bottom: "inception_4b/output"
  top: "inception_4c/5x5_reduce"
  param {
    lr_mult: 1
    decay_mult: 1
  }
  param {
    lr_mult: 2
    decay_mult: 0
  }
  convolution_param {
    num_output: 24
    kernel_size: 1
    weight_filler {
      type: "xavier"
      std: 0.2
    }
    bias_filler {
      type: "constant"
      value: 0.2
    }
  }
}
layer {
  name: "inception_4c/relu_5x5_reduce"
  type: "ReLU"
  bottom: "inception_4c/5x5_reduce"
  top: "inception_4c/5x5_reduce"
}
layer {
  name: "inception_4c/5x5"
  type: "Convolution"
  bottom: "inception_4c/5x5_reduce"
  top: "inception_4c/5x5"
  param {
    lr_mult: 1
    decay_mult: 1
  }
  param {
    lr_mult: 2
    decay_mult: 0
  }
  convolution_param {
    num_output: 64
    pad: 2
    kernel_size: 5
    weight_filler {
      type: "xavier"
      std: 0.03
    }
    bias_filler {
      type: "constant"
      value: 0.2
    }
  }
}
layer {
  name: "inception_4c/relu_5x5"
  type: "ReLU"
  bottom: "inception_4c/5x5"
  top: "inception_4c/5x5"
}
layer {
  name: "inception_4c/pool"
  type: "Pooling"
  bottom: "inception_4b/output"
  top: "inception_4c/pool"
  pooling_param {
    pool: MAX
    kernel_size: 3
    stride: 1
    pad: 1
  }
}
layer {
  name: "inception_4c/pool_proj"
  type: "Convolution"
  bottom: "inception_4c/pool"
  top: "inception_4c/pool_proj"
  param {
    lr_mult: 1
    decay_mult: 1
  }
  param {
    lr_mult: 2
    decay_mult: 0
  }
  convolution_param {
    num_output: 64
    kernel_size: 1
    weight_filler {
      type: "xavier"
      std: 0.1
    }
    bias_filler {
      type: "constant"
      value: 0.2
    }
  }
}
layer {
  name: "inception_4c/relu_pool_proj"
  type: "ReLU"
  bottom: "inception_4c/pool_proj"
  top: "inception_4c/pool_proj"
}
layer {
  name: "inception_4c/output"
  type: "Concat"
  bottom: "inception_4c/1x1"
  bottom: "inception_4c/3x3"
  bottom: "inception_4c/5x5"
  bottom: "inception_4c/pool_proj"
  top: "inception_4c/output"
}
layer {
  name: "inception_4d/1x1"
  type: "Convolution"
  bottom: "inception_4c/output"
  top: "inception_4d/1x1"
  param {
    lr_mult: 1
    decay_mult: 1
  }
  param {
    lr_mult: 2
    decay_mult: 0
  }
  convolution_param {
    num_output: 112
    kernel_size: 1
    weight_filler {
      type: "xavier"
      std: 0.03
    }
    bias_filler {
      type: "constant"
      value: 0.2
    }
  }
}
layer {
  name: "inception_4d/relu_1x1"
  type: "ReLU"
  bottom: "inception_4d/1x1"
  top: "inception_4d/1x1"
}
layer {
  name: "inception_4d/3x3_reduce"
  type: "Convolution"
  bottom: "inception_4c/output"
  top: "inception_4d/3x3_reduce"
  param {
    lr_mult: 1
    decay_mult: 1
  }
  param {
    lr_mult: 2
    decay_mult: 0
  }
  convolution_param {
    num_output: 144
    kernel_size: 1
    weight_filler {
      type: "xavier"
      std: 0.09
    }
    bias_filler {
      type: "constant"
      value: 0.2
    }
  }
}
layer {
  name: "inception_4d/relu_3x3_reduce"
  type: "ReLU"
  bottom: "inception_4d/3x3_reduce"
  top: "inception_4d/3x3_reduce"
}
layer {
  name: "inception_4d/3x3"
  type: "Convolution"
  bottom: "inception_4d/3x3_reduce"
  top: "inception_4d/3x3"
  param {
    lr_mult: 1
    decay_mult: 1
  }
  param {
    lr_mult: 2
    decay_mult: 0
  }
  convolution_param {
    num_output: 288
    pad: 1
    kernel_size: 3
    weight_filler {
      type: "xavier"
      std: 0.03
    }
    bias_filler {
      type: "constant"
      value: 0.2
    }
  }
}
layer {
  name: "inception_4d/relu_3x3"
  type: "ReLU"
  bottom: "inception_4d/3x3"
  top: "inception_4d/3x3"
}
layer {
  name: "inception_4d/5x5_reduce"
  type: "Convolution"
  bottom: "inception_4c/output"
  top: "inception_4d/5x5_reduce"
  param {
    lr_mult: 1
    decay_mult: 1
  }
  param {
    lr_mult: 2
    decay_mult: 0
  }
  convolution_param {
    num_output: 32
    kernel_size: 1
    weight_filler {
      type: "xavier"
      std: 0.2
    }
    bias_filler {
      type: "constant"
      value: 0.2
    }
  }
}
layer {
  name: "inception_4d/relu_5x5_reduce"
  type: "ReLU"
  bottom: "inception_4d/5x5_reduce"
  top: "inception_4d/5x5_reduce"
}
layer {
  name: "inception_4d/5x5"
  type: "Convolution"
  bottom: "inception_4d/5x5_reduce"
  top: "inception_4d/5x5"
  param {
    lr_mult: 1
    decay_mult: 1
  }
  param {
    lr_mult: 2
    decay_mult: 0
  }
  convolution_param {
    num_output: 64
    pad: 2
    kernel_size: 5
    weight_filler {
      type: "xavier"
      std: 0.03
    }
    bias_filler {
      type: "constant"
      value: 0.2
    }
  }
}
layer {
  name: "inception_4d/relu_5x5"
  type: "ReLU"
  bottom: "inception_4d/5x5"
  top: "inception_4d/5x5"
}
layer {
  name: "inception_4d/pool"
  type: "Pooling"
  bottom: "inception_4c/output"
  top: "inception_4d/pool"
  pooling_param {
    pool: MAX
    kernel_size: 3
    stride: 1
    pad: 1
  }
}
layer {
  name: "inception_4d/pool_proj"
  type: "Convolution"
  bottom: "inception_4d/pool"
  top: "inception_4d/pool_proj"
  param {
    lr_mult: 1
    decay_mult: 1
  }
  param {
    lr_mult: 2
    decay_mult: 0
  }
  convolution_param {
    num_output: 64
    kernel_size: 1
    weight_filler {
      type: "xavier"
      std: 0.1
    }
    bias_filler {
      type: "constant"
      value: 0.2
    }
  }
}
layer {
  name: "inception_4d/relu_pool_proj"
  type: "ReLU"
  bottom: "inception_4d/pool_proj"
  top: "inception_4d/pool_proj"
}
layer {
  name: "inception_4d/output"
  type: "Concat"
  bottom: "inception_4d/1x1"
  bottom: "inception_4d/3x3"
  bottom: "inception_4d/5x5"
  bottom: "inception_4d/pool_proj"
  top: "inception_4d/output"
}
layer {
  name: "inception_4e/1x1"
  type: "Convolution"
  bottom: "inception_4d/output"
  top: "inception_4e/1x1"
  param {
    lr_mult: 1
    decay_mult: 1
  }
  param {
    lr_mult: 2
    decay_mult: 0
  }
  convolution_param {
    num_output: 256
    kernel_size: 1
    weight_filler {
      type: "xavier"
      std: 0.03
    }
    bias_filler {
      type: "constant"
      value: 0.2
    }
  }
}
layer {
  name: "inception_4e/relu_1x1"
  type: "ReLU"
  bottom: "inception_4e/1x1"
  top: "inception_4e/1x1"
}
layer {
  name: "inception_4e/3x3_reduce"
  type: "Convolution"
  bottom: "inception_4d/output"
  top: "inception_4e/3x3_reduce"
  param {
    lr_mult: 1
    decay_mult: 1
  }
  param {
    lr_mult: 2
    decay_mult: 0
  }
  convolution_param {
    num_output: 160
    kernel_size: 1
    weight_filler {
      type: "xavier"
      std: 0.09
    }
    bias_filler {
      type: "constant"
      value: 0.2
    }
  }
}
layer {
  name: "inception_4e/relu_3x3_reduce"
  type: "ReLU"
  bottom: "inception_4e/3x3_reduce"
  top: "inception_4e/3x3_reduce"
}
layer {
  name: "inception_4e/3x3"
  type: "Convolution"
  bottom: "inception_4e/3x3_reduce"
  top: "inception_4e/3x3"
  param {
    lr_mult: 1
    decay_mult: 1
  }
  param {
    lr_mult: 2
    decay_mult: 0
  }
  convolution_param {
    num_output: 320
    pad: 1
    kernel_size: 3
    weight_filler {
      type: "xavier"
      std: 0.03
    }
    bias_filler {
      type: "constant"
      value: 0.2
    }
  }
}
layer {
  name: "inception_4e/relu_3x3"
  type: "ReLU"
  bottom: "inception_4e/3x3"
  top: "inception_4e/3x3"
}
layer {
  name: "inception_4e/5x5_reduce"
  type: "Convolution"
  bottom: "inception_4d/output"
  top: "inception_4e/5x5_reduce"
  param {
    lr_mult: 1
    decay_mult: 1
  }
  param {
    lr_mult: 2
    decay_mult: 0
  }
  convolution_param {
    num_output: 32
    kernel_size: 1
    weight_filler {
      type: "xavier"
      std: 0.2
    }
    bias_filler {
      type: "constant"
      value: 0.2
    }
  }
}
layer {
  name: "inception_4e/relu_5x5_reduce"
  type: "ReLU"
  bottom: "inception_4e/5x5_reduce"
  top: "inception_4e/5x5_reduce"
}
layer {
  name: "inception_4e/5x5"
  type: "Convolution"
  bottom: "inception_4e/5x5_reduce"
  top: "inception_4e/5x5"
  param {
    lr_mult: 1
    decay_mult: 1
  }
  param {
    lr_mult: 2
    decay_mult: 0
  }
  convolution_param {
    num_output: 128
    pad: 2
    kernel_size: 5
    weight_filler {
      type: "xavier"
      std: 0.03
    }
    bias_filler {
      type: "constant"
      value: 0.2
    }
  }
}
layer {
  name: "inception_4e/relu_5x5"
  type: "ReLU"
  bottom: "inception_4e/5x5"
  top: "inception_4e/5x5"
}
layer {
  name: "inception_4e/pool"
  type: "Pooling"
  bottom: "inception_4d/output"
  top: "inception_4e/pool"
  pooling_param {
    pool: MAX
    kernel_size: 3
    stride: 1
    pad: 1
  }
}
layer {
  name: "inception_4e/pool_proj"
  type: "Convolution"
  bottom: "inception_4e/pool"
  top: "inception_4e/pool_proj"
  param {
    lr_mult: 1
    decay_mult: 1
  }
  param {
    lr_mult: 2
    decay_mult: 0
  }
  convolution_param {
    num_output: 128
    kernel_size: 1
    weight_filler {
      type: "xavier"
      std: 0.1
    }
    bias_filler {
      type: "constant"
      value: 0.2
    }
  }
}
layer {
  name: "inception_4e/relu_pool_proj"
  type: "ReLU"
  bottom: "inception_4e/pool_proj"
  top: "inception_4e/pool_proj"
}
layer {
  name: "inception_4e/output"
  type: "Concat"
  bottom: "inception_4e/1x1"
  bottom: "inception_4e/3x3"
  bottom: "inception_4e/5x5"
  bottom: "inception_4e/pool_proj"
  top: "inception_4e/output"
}
layer {
  name: "pool4/3x3_s2"
  type: "Pooling"
  bottom: "inception_4e/output"
  top: "pool4/3x3_s2"
  pooling_param {
    pool: MAX
    kernel_size: 3
    stride: 2
  }
}
layer {
  name: "inception_5a/1x1"
  type: "Convolution"
  bottom: "pool4/3x3_s2"
  top: "inception_5a/1x1"
  param {
    lr_mult: 1
    decay_mult: 1
  }
  param {
    lr_mult: 2
    decay_mult: 0
  }
  convolution_param {
    num_output: 256
    kernel_size: 1
    weight_filler {
      type: "xavier"
      std: 0.03
    }
    bias_filler {
      type: "constant"
      value: 0.2
    }
  }
}
layer {
  name: "inception_5a/relu_1x1"
  type: "ReLU"
  bottom: "inception_5a/1x1"
  top: "inception_5a/1x1"
}
layer {
  name: "inception_5a/3x3_reduce"
  type: "Convolution"
  bottom: "pool4/3x3_s2"
  top: "inception_5a/3x3_reduce"
  param {
    lr_mult: 1
    decay_mult: 1
  }
  param {
    lr_mult: 2
    decay_mult: 0
  }
  convolution_param {
    num_output: 160
    kernel_size: 1
    weight_filler {
      type: "xavier"
      std: 0.09
    }
    bias_filler {
      type: "constant"
      value: 0.2
    }
  }
}
layer {
  name: "inception_5a/relu_3x3_reduce"
  type: "ReLU"
  bottom: "inception_5a/3x3_reduce"
  top: "inception_5a/3x3_reduce"
}
layer {
  name: "inception_5a/3x3"
  type: "Convolution"
  bottom: "inception_5a/3x3_reduce"
  top: "inception_5a/3x3"
  param {
    lr_mult: 1
    decay_mult: 1
  }
  param {
    lr_mult: 2
    decay_mult: 0
  }
  convolution_param {
    num_output: 320
    pad: 1
    kernel_size: 3
    weight_filler {
      type: "xavier"
      std: 0.03
    }
    bias_filler {
      type: "constant"
      value: 0.2
    }
  }
}
layer {
  name: "inception_5a/relu_3x3"
  type: "ReLU"
  bottom: "inception_5a/3x3"
  top: "inception_5a/3x3"
}
layer {
  name: "inception_5a/5x5_reduce"
  type: "Convolution"
  bottom: "pool4/3x3_s2"
  top: "inception_5a/5x5_reduce"
  param {
    lr_mult: 1
    decay_mult: 1
  }
  param {
    lr_mult: 2
    decay_mult: 0
  }
  convolution_param {
    num_output: 32
    kernel_size: 1
    weight_filler {
      type: "xavier"
      std: 0.2
    }
    bias_filler {
      type: "constant"
      value: 0.2
    }
I0727 20:17:06.876035 26142 layer_factory.hpp:77] Creating layer data
I0727 20:17:06.876055 26142 net.cpp:91] Creating Layer data
I0727 20:17:06.876061 26142 net.cpp:399] data -> data
I0727 20:17:07.846019 26138 net.cpp:141] Setting up data
I0727 20:17:07.846093 26138 net.cpp:148] Top shape: 10 3 224 224 (1505280)
I0727 20:17:07.846099 26138 net.cpp:156] Memory required for data: 6021120
I0727 20:17:07.846122 26138 layer_factory.hpp:77] Creating layer conv1/7x7_s2
I0727 20:17:07.846165 26138 net.cpp:91] Creating Layer conv1/7x7_s2
I0727 20:17:07.846174 26138 net.cpp:425] conv1/7x7_s2 <- data
I0727 20:17:07.846189 26138 net.cpp:399] conv1/7x7_s2 -> conv1/7x7_s2
I0727 20:17:07.849136 26142 net.cpp:141] Setting up data
I0727 20:17:07.849177 26142 net.cpp:148] Top shape: 10 3 224 224 (1505280)
I0727 20:17:07.849182 26142 net.cpp:156] Memory required for data: 6021120
I0727 20:17:07.849191 26142 layer_factory.hpp:77] Creating layer conv1/7x7_s2
I0727 20:17:07.849221 26142 net.cpp:91] Creating Layer conv1/7x7_s2
I0727 20:17:07.849227 26142 net.cpp:425] conv1/7x7_s2 <- data
I0727 20:17:07.849237 26142 net.cpp:399] conv1/7x7_s2 -> conv1/7x7_s2
I0727 20:17:08.245635 26138 net.cpp:141] Setting up conv1/7x7_s2
I0727 20:17:08.245685 26138 net.cpp:148] Top shape: 10 64 112 112 (8028160)
I0727 20:17:08.245692 26138 net.cpp:156] Memory required for data: 38133760
I0727 20:17:08.245720 26138 layer_factory.hpp:77] Creating layer conv1/relu_7x7
I0727 20:17:08.245738 26138 net.cpp:91] Creating Layer conv1/relu_7x7
I0727 20:17:08.245744 26138 net.cpp:425] conv1/relu_7x7 <- conv1/7x7_s2
I0727 20:17:08.245753 26138 net.cpp:386] conv1/relu_7x7 -> conv1/7x7_s2 (in-place)
I0727 20:17:08.247326 26138 net.cpp:141] Setting up conv1/relu_7x7
I0727 20:17:08.247344 26142 net.cpp:141] Setting up conv1/7x7_s2
I0727 20:17:08.247352 26138 net.cpp:148] Top shape: 10 64 112 112 (8028160)
I0727 20:17:08.247364 26142 net.cpp:148] Top shape: 10 64 112 112 (8028160)
I0727 20:17:08.247364 26138 net.cpp:156] Memory required for data: 70246400
I0727 20:17:08.247375 26142 net.cpp:156] Memory required for data: 38133760
I0727 20:17:08.247383 26138 layer_factory.hpp:77] Creating layer pool1/3x3_s2
I0727 20:17:08.247390 26142 layer_factory.hpp:77] Creating layer conv1/relu_7x7
I0727 20:17:08.247400 26142 net.cpp:91] Creating Layer conv1/relu_7x7
I0727 20:17:08.247406 26142 net.cpp:425] conv1/relu_7x7 <- conv1/7x7_s2
I0727 20:17:08.247405 26138 net.cpp:91] Creating Layer pool1/3x3_s2
I0727 20:17:08.247413 26142 net.cpp:386] conv1/relu_7x7 -> conv1/7x7_s2 (in-place)
I0727 20:17:08.247416 26138 net.cpp:425] pool1/3x3_s2 <- conv1/7x7_s2
I0727 20:17:08.247431 26138 net.cpp:399] pool1/3x3_s2 -> pool1/3x3_s2
I0727 20:17:08.248203 26138 net.cpp:141] Setting up pool1/3x3_s2
I0727 20:17:08.248226 26138 net.cpp:148] Top shape: 10 64 56 56 (2007040)
I0727 20:17:08.248226 26142 net.cpp:141] Setting up conv1/relu_7x7
I0727 20:17:08.248240 26138 net.cpp:156] Memory required for data: 78274560
I0727 20:17:08.248246 26142 net.cpp:148] Top shape: 10 64 112 112 (8028160)
I0727 20:17:08.248251 26142 net.cpp:156] Memory required for data: 70246400
I0727 20:17:08.248251 26138 layer_factory.hpp:77] Creating layer pool1/norm1
I0727 20:17:08.248257 26142 layer_factory.hpp:77] Creating layer pool1/3x3_s2
I0727 20:17:08.248266 26142 net.cpp:91] Creating Layer pool1/3x3_s2
I0727 20:17:08.248270 26142 net.cpp:425] pool1/3x3_s2 <- conv1/7x7_s2
I0727 20:17:08.248277 26138 net.cpp:91] Creating Layer pool1/norm1
I0727 20:17:08.248278 26142 net.cpp:399] pool1/3x3_s2 -> pool1/3x3_s2
I0727 20:17:08.248296 26138 net.cpp:425] pool1/norm1 <- pool1/3x3_s2
I0727 20:17:08.248311 26138 net.cpp:399] pool1/norm1 -> pool1/norm1
I0727 20:17:08.249241 26142 net.cpp:141] Setting up pool1/3x3_s2
I0727 20:17:08.249254 26142 net.cpp:148] Top shape: 10 64 56 56 (2007040)
I0727 20:17:08.249258 26142 net.cpp:156] Memory required for data: 78274560
I0727 20:17:08.249264 26142 layer_factory.hpp:77] Creating layer pool1/norm1
I0727 20:17:08.249274 26142 net.cpp:91] Creating Layer pool1/norm1
I0727 20:17:08.249279 26142 net.cpp:425] pool1/norm1 <- pool1/3x3_s2
I0727 20:17:08.249285 26142 net.cpp:399] pool1/norm1 -> pool1/norm1
I0727 20:17:08.250072 26138 net.cpp:141] Setting up pool1/norm1
I0727 20:17:08.250094 26138 net.cpp:148] Top shape: 10 64 56 56 (2007040)
I0727 20:17:08.250104 26138 net.cpp:156] Memory required for data: 86302720
I0727 20:17:08.250113 26138 layer_factory.hpp:77] Creating layer conv2/3x3_reduce
I0727 20:17:08.250139 26138 net.cpp:91] Creating Layer conv2/3x3_reduce
I0727 20:17:08.250147 26142 net.cpp:141] Setting up pool1/norm1
I0727 20:17:08.250149 26138 net.cpp:425] conv2/3x3_reduce <- pool1/norm1
I0727 20:17:08.250164 26142 net.cpp:148] Top shape: 10 64 56 56 (2007040)
I0727 20:17:08.250169 26142 net.cpp:156] Memory required for data: 86302720
I0727 20:17:08.250174 26142 layer_factory.hpp:77] Creating layer conv2/3x3_reduce
I0727 20:17:08.250174 26138 net.cpp:399] conv2/3x3_reduce -> conv2/3x3_reduce
I0727 20:17:08.250187 26142 net.cpp:91] Creating Layer conv2/3x3_reduce
I0727 20:17:08.250192 26142 net.cpp:425] conv2/3x3_reduce <- pool1/norm1
I0727 20:17:08.250200 26142 net.cpp:399] conv2/3x3_reduce -> conv2/3x3_reduce
I0727 20:17:08.257005 26142 net.cpp:141] Setting up conv2/3x3_reduce
I0727 20:17:08.257050 26142 net.cpp:148] Top shape: 10 64 56 56 (2007040)
I0727 20:17:08.257056 26142 net.cpp:156] Memory required for data: 94330880
I0727 20:17:08.257079 26142 layer_factory.hpp:77] Creating layer conv2/relu_3x3_reduce
I0727 20:17:08.257094 26142 net.cpp:91] Creating Layer conv2/relu_3x3_reduce
I0727 20:17:08.257100 26142 net.cpp:425] conv2/relu_3x3_reduce <- conv2/3x3_reduce
I0727 20:17:08.257109 26142 net.cpp:386] conv2/relu_3x3_reduce -> conv2/3x3_reduce (in-place)
I0727 20:17:08.257971 26142 net.cpp:141] Setting up conv2/relu_3x3_reduce
I0727 20:17:08.257985 26142 net.cpp:148] Top shape: 10 64 56 56 (2007040)
I0727 20:17:08.257989 26142 net.cpp:156] Memory required for data: 102359040
I0727 20:17:08.257994 26142 layer_factory.hpp:77] Creating layer conv2/3x3
I0727 20:17:08.258015 26142 net.cpp:91] Creating Layer conv2/3x3
I0727 20:17:08.258020 26142 net.cpp:425] conv2/3x3 <- conv2/3x3_reduce
I0727 20:17:08.258023 26138 net.cpp:141] Setting up conv2/3x3_reduce
I0727 20:17:08.258033 26142 net.cpp:399] conv2/3x3 -> conv2/3x3
I0727 20:17:08.258040 26138 net.cpp:148] Top shape: 10 64 56 56 (2007040)
I0727 20:17:08.258045 26138 net.cpp:156] Memory required for data: 94330880
I0727 20:17:08.258059 26138 layer_factory.hpp:77] Creating layer conv2/relu_3x3_reduce
I0727 20:17:08.258067 26138 net.cpp:91] Creating Layer conv2/relu_3x3_reduce
I0727 20:17:08.258072 26138 net.cpp:425] conv2/relu_3x3_reduce <- conv2/3x3_reduce
I0727 20:17:08.258080 26138 net.cpp:386] conv2/relu_3x3_reduce -> conv2/3x3_reduce (in-place)
I0727 20:17:08.259001 26138 net.cpp:141] Setting up conv2/relu_3x3_reduce
I0727 20:17:08.259016 26138 net.cpp:148] Top shape: 10 64 56 56 (2007040)
I0727 20:17:08.259021 26138 net.cpp:156] Memory required for data: 102359040
I0727 20:17:08.259026 26138 layer_factory.hpp:77] Creating layer conv2/3x3
I0727 20:17:08.259052 26138 net.cpp:91] Creating Layer conv2/3x3
I0727 20:17:08.259057 26138 net.cpp:425] conv2/3x3 <- conv2/3x3_reduce
I0727 20:17:08.259088 26138 net.cpp:399] conv2/3x3 -> conv2/3x3
I0727 20:17:08.266058 26142 net.cpp:141] Setting up conv2/3x3
I0727 20:17:08.266089 26142 net.cpp:148] Top shape: 10 192 56 56 (6021120)
I0727 20:17:08.266094 26142 net.cpp:156] Memory required for data: 126443520
I0727 20:17:08.266109 26142 layer_factory.hpp:77] Creating layer conv2/relu_3x3
I0727 20:17:08.266124 26142 net.cpp:91] Creating Layer conv2/relu_3x3
I0727 20:17:08.266129 26142 net.cpp:425] conv2/relu_3x3 <- conv2/3x3
I0727 20:17:08.266140 26142 net.cpp:386] conv2/relu_3x3 -> conv2/3x3 (in-place)
I0727 20:17:08.266484 26142 net.cpp:141] Setting up conv2/relu_3x3
I0727 20:17:08.266497 26142 net.cpp:148] Top shape: 10 192 56 56 (6021120)
I0727 20:17:08.266502 26142 net.cpp:156] Memory required for data: 150528000
I0727 20:17:08.266507 26142 layer_factory.hpp:77] Creating layer conv2/norm2
I0727 20:17:08.266518 26142 net.cpp:91] Creating Layer conv2/norm2
I0727 20:17:08.266522 26142 net.cpp:425] conv2/norm2 <- conv2/3x3
I0727 20:17:08.266532 26142 net.cpp:399] conv2/norm2 -> conv2/norm2
I0727 20:17:08.267220 26138 net.cpp:141] Setting up conv2/3x3
I0727 20:17:08.267236 26138 net.cpp:148] Top shape: 10 192 56 56 (6021120)
I0727 20:17:08.267241 26138 net.cpp:156] Memory required for data: 126443520
I0727 20:17:08.267253 26138 layer_factory.hpp:77] Creating layer conv2/relu_3x3
I0727 20:17:08.267267 26138 net.cpp:91] Creating Layer conv2/relu_3x3
I0727 20:17:08.267272 26138 net.cpp:425] conv2/relu_3x3 <- conv2/3x3
I0727 20:17:08.267282 26138 net.cpp:386] conv2/relu_3x3 -> conv2/3x3 (in-place)
I0727 20:17:08.267514 26138 net.cpp:141] Setting up conv2/relu_3x3
I0727 20:17:08.267525 26138 net.cpp:148] Top shape: 10 192 56 56 (6021120)
I0727 20:17:08.267529 26138 net.cpp:156] Memory required for data: 150528000
I0727 20:17:08.267534 26138 layer_factory.hpp:77] Creating layer conv2/norm2
I0727 20:17:08.267546 26138 net.cpp:91] Creating Layer conv2/norm2
I0727 20:17:08.267551 26138 net.cpp:425] conv2/norm2 <- conv2/3x3
I0727 20:17:08.267557 26138 net.cpp:399] conv2/norm2 -> conv2/norm2
I0727 20:17:08.268363 26142 net.cpp:141] Setting up conv2/norm2
I0727 20:17:08.268381 26142 net.cpp:148] Top shape: 10 192 56 56 (6021120)
I0727 20:17:08.268386 26142 net.cpp:156] Memory required for data: 174612480
I0727 20:17:08.268393 26142 layer_factory.hpp:77] Creating layer pool2/3x3_s2
I0727 20:17:08.268405 26142 net.cpp:91] Creating Layer pool2/3x3_s2
I0727 20:17:08.268410 26142 net.cpp:425] pool2/3x3_s2 <- conv2/norm2
I0727 20:17:08.268419 26142 net.cpp:399] pool2/3x3_s2 -> pool2/3x3_s2
I0727 20:17:08.268507 26138 net.cpp:141] Setting up conv2/norm2
I0727 20:17:08.268520 26138 net.cpp:148] Top shape: 10 192 56 56 (6021120)
I0727 20:17:08.268525 26138 net.cpp:156] Memory required for data: 174612480
I0727 20:17:08.268529 26138 layer_factory.hpp:77] Creating layer pool2/3x3_s2
I0727 20:17:08.268538 26138 net.cpp:91] Creating Layer pool2/3x3_s2
I0727 20:17:08.268543 26138 net.cpp:425] pool2/3x3_s2 <- conv2/norm2
I0727 20:17:08.268553 26138 net.cpp:399] pool2/3x3_s2 -> pool2/3x3_s2
I0727 20:17:08.268559 26142 net.cpp:141] Setting up pool2/3x3_s2
I0727 20:17:08.268569 26142 net.cpp:148] Top shape: 10 192 28 28 (1505280)
I0727 20:17:08.268574 26142 net.cpp:156] Memory required for data: 180633600
I0727 20:17:08.268579 26142 layer_factory.hpp:77] Creating layer pool2/3x3_s2_pool2/3x3_s2_0_split
I0727 20:17:08.268601 26142 net.cpp:91] Creating Layer pool2/3x3_s2_pool2/3x3_s2_0_split
I0727 20:17:08.268605 26142 net.cpp:425] pool2/3x3_s2_pool2/3x3_s2_0_split <- pool2/3x3_s2
I0727 20:17:08.268612 26142 net.cpp:399] pool2/3x3_s2_pool2/3x3_s2_0_split -> pool2/3x3_s2_pool2/3x3_s2_0_split_0
I0727 20:17:08.268621 26142 net.cpp:399] pool2/3x3_s2_pool2/3x3_s2_0_split -> pool2/3x3_s2_pool2/3x3_s2_0_split_1
I0727 20:17:08.268630 26142 net.cpp:399] pool2/3x3_s2_pool2/3x3_s2_0_split -> pool2/3x3_s2_pool2/3x3_s2_0_split_2
I0727 20:17:08.268636 26142 net.cpp:399] pool2/3x3_s2_pool2/3x3_s2_0_split -> pool2/3x3_s2_pool2/3x3_s2_0_split_3
I0727 20:17:08.268637 26138 net.cpp:141] Setting up pool2/3x3_s2
I0727 20:17:08.268647 26138 net.cpp:148] Top shape: 10 192 28 28 (1505280)
I0727 20:17:08.268651 26138 net.cpp:156] Memory required for data: 180633600
I0727 20:17:08.268656 26138 layer_factory.hpp:77] Creating layer pool2/3x3_s2_pool2/3x3_s2_0_split
I0727 20:17:08.268663 26138 net.cpp:91] Creating Layer pool2/3x3_s2_pool2/3x3_s2_0_split
I0727 20:17:08.268667 26138 net.cpp:425] pool2/3x3_s2_pool2/3x3_s2_0_split <- pool2/3x3_s2
I0727 20:17:08.268676 26138 net.cpp:399] pool2/3x3_s2_pool2/3x3_s2_0_split -> pool2/3x3_s2_pool2/3x3_s2_0_split_0
I0727 20:17:08.268687 26138 net.cpp:399] pool2/3x3_s2_pool2/3x3_s2_0_split -> pool2/3x3_s2_pool2/3x3_s2_0_split_1
I0727 20:17:08.268693 26138 net.cpp:399] pool2/3x3_s2_pool2/3x3_s2_0_split -> pool2/3x3_s2_pool2/3x3_s2_0_split_2
I0727 20:17:08.268700 26138 net.cpp:399] pool2/3x3_s2_pool2/3x3_s2_0_split -> pool2/3x3_s2_pool2/3x3_s2_0_split_3
I0727 20:17:08.268821 26142 net.cpp:141] Setting up pool2/3x3_s2_pool2/3x3_s2_0_split
I0727 20:17:08.268836 26142 net.cpp:148] Top shape: 10 192 28 28 (1505280)
I0727 20:17:08.268842 26142 net.cpp:148] Top shape: 10 192 28 28 (1505280)
I0727 20:17:08.268846 26142 net.cpp:148] Top shape: 10 192 28 28 (1505280)
I0727 20:17:08.268851 26142 net.cpp:148] Top shape: 10 192 28 28 (1505280)
I0727 20:17:08.268856 26142 net.cpp:156] Memory required for data: 204718080
I0727 20:17:08.268859 26142 layer_factory.hpp:77] Creating layer inception_3a/1x1
I0727 20:17:08.268882 26142 net.cpp:91] Creating Layer inception_3a/1x1
I0727 20:17:08.268887 26142 net.cpp:425] inception_3a/1x1 <- pool2/3x3_s2_pool2/3x3_s2_0_split_0
I0727 20:17:08.268905 26138 net.cpp:141] Setting up pool2/3x3_s2_pool2/3x3_s2_0_split
I0727 20:17:08.268914 26142 net.cpp:399] inception_3a/1x1 -> inception_3a/1x1
I0727 20:17:08.268918 26138 net.cpp:148] Top shape: 10 192 28 28 (1505280)
I0727 20:17:08.268923 26138 net.cpp:148] Top shape: 10 192 28 28 (1505280)
I0727 20:17:08.268928 26138 net.cpp:148] Top shape: 10 192 28 28 (1505280)
I0727 20:17:08.268932 26138 net.cpp:148] Top shape: 10 192 28 28 (1505280)
I0727 20:17:08.268936 26138 net.cpp:156] Memory required for data: 204718080
I0727 20:17:08.268940 26138 layer_factory.hpp:77] Creating layer inception_3a/1x1
I0727 20:17:08.268965 26138 net.cpp:91] Creating Layer inception_3a/1x1
I0727 20:17:08.268970 26138 net.cpp:425] inception_3a/1x1 <- pool2/3x3_s2_pool2/3x3_s2_0_split_0
I0727 20:17:08.268982 26138 net.cpp:399] inception_3a/1x1 -> inception_3a/1x1
I0727 20:17:08.274524 26142 net.cpp:141] Setting up inception_3a/1x1
I0727 20:17:08.274551 26142 net.cpp:148] Top shape: 10 64 28 28 (501760)
I0727 20:17:08.274556 26142 net.cpp:156] Memory required for data: 206725120
I0727 20:17:08.274567 26142 layer_factory.hpp:77] Creating layer inception_3a/relu_1x1
I0727 20:17:08.274579 26142 net.cpp:91] Creating Layer inception_3a/relu_1x1
I0727 20:17:08.274583 26142 net.cpp:425] inception_3a/relu_1x1 <- inception_3a/1x1
I0727 20:17:08.274595 26142 net.cpp:386] inception_3a/relu_1x1 -> inception_3a/1x1 (in-place)
I0727 20:17:08.275084 26142 net.cpp:141] Setting up inception_3a/relu_1x1
I0727 20:17:08.275099 26142 net.cpp:148] Top shape: 10 64 28 28 (501760)
I0727 20:17:08.275104 26142 net.cpp:156] Memory required for data: 208732160
I0727 20:17:08.275110 26142 layer_factory.hpp:77] Creating layer inception_3a/3x3_reduce
I0727 20:17:08.275128 26142 net.cpp:91] Creating Layer inception_3a/3x3_reduce
I0727 20:17:08.275133 26142 net.cpp:425] inception_3a/3x3_reduce <- pool2/3x3_s2_pool2/3x3_s2_0_split_1
I0727 20:17:08.275142 26142 net.cpp:399] inception_3a/3x3_reduce -> inception_3a/3x3_reduce
I0727 20:17:08.276957 26138 net.cpp:141] Setting up inception_3a/1x1
I0727 20:17:08.276976 26138 net.cpp:148] Top shape: 10 64 28 28 (501760)
I0727 20:17:08.276981 26138 net.cpp:156] Memory required for data: 206725120
I0727 20:17:08.276994 26138 layer_factory.hpp:77] Creating layer inception_3a/relu_1x1
I0727 20:17:08.277004 26138 net.cpp:91] Creating Layer inception_3a/relu_1x1
I0727 20:17:08.277010 26138 net.cpp:425] inception_3a/relu_1x1 <- inception_3a/1x1
I0727 20:17:08.277019 26138 net.cpp:386] inception_3a/relu_1x1 -> inception_3a/1x1 (in-place)
I0727 20:17:08.277844 26138 net.cpp:141] Setting up inception_3a/relu_1x1
I0727 20:17:08.277859 26138 net.cpp:148] Top shape: 10 64 28 28 (501760)
I0727 20:17:08.277863 26138 net.cpp:156] Memory required for data: 208732160
I0727 20:17:08.277868 26138 layer_factory.hpp:77] Creating layer inception_3a/3x3_reduce
I0727 20:17:08.277887 26138 net.cpp:91] Creating Layer inception_3a/3x3_reduce
I0727 20:17:08.277894 26138 net.cpp:425] inception_3a/3x3_reduce <- pool2/3x3_s2_pool2/3x3_s2_0_split_1
I0727 20:17:08.277904 26138 net.cpp:399] inception_3a/3x3_reduce -> inception_3a/3x3_reduce
I0727 20:17:08.283473 26142 net.cpp:141] Setting up inception_3a/3x3_reduce
I0727 20:17:08.283501 26142 net.cpp:148] Top shape: 10 96 28 28 (752640)
I0727 20:17:08.283507 26142 net.cpp:156] Memory required for data: 211742720
I0727 20:17:08.283525 26142 layer_factory.hpp:77] Creating layer inception_3a/relu_3x3_reduce
I0727 20:17:08.283535 26142 net.cpp:91] Creating Layer inception_3a/relu_3x3_reduce
I0727 20:17:08.283541 26142 net.cpp:425] inception_3a/relu_3x3_reduce <- inception_3a/3x3_reduce
I0727 20:17:08.283548 26142 net.cpp:386] inception_3a/relu_3x3_reduce -> inception_3a/3x3_reduce (in-place)
I0727 20:17:08.283829 26142 net.cpp:141] Setting up inception_3a/relu_3x3_reduce
I0727 20:17:08.283841 26142 net.cpp:148] Top shape: 10 96 28 28 (752640)
I0727 20:17:08.283845 26142 net.cpp:156] Memory required for data: 214753280
I0727 20:17:08.283850 26142 layer_factory.hpp:77] Creating layer inception_3a/3x3
I0727 20:17:08.283874 26142 net.cpp:91] Creating Layer inception_3a/3x3
I0727 20:17:08.283879 26142 net.cpp:425] inception_3a/3x3 <- inception_3a/3x3_reduce
I0727 20:17:08.283888 26142 net.cpp:399] inception_3a/3x3 -> inception_3a/3x3
I0727 20:17:08.284986 26138 net.cpp:141] Setting up inception_3a/3x3_reduce
I0727 20:17:08.285004 26138 net.cpp:148] Top shape: 10 96 28 28 (752640)
I0727 20:17:08.285010 26138 net.cpp:156] Memory required for data: 211742720
I0727 20:17:08.285023 26138 layer_factory.hpp:77] Creating layer inception_3a/relu_3x3_reduce
I0727 20:17:08.285035 26138 net.cpp:91] Creating Layer inception_3a/relu_3x3_reduce
I0727 20:17:08.285042 26138 net.cpp:425] inception_3a/relu_3x3_reduce <- inception_3a/3x3_reduce
I0727 20:17:08.285048 26138 net.cpp:386] inception_3a/relu_3x3_reduce -> inception_3a/3x3_reduce (in-place)
I0727 20:17:08.285280 26138 net.cpp:141] Setting up inception_3a/relu_3x3_reduce
I0727 20:17:08.285291 26138 net.cpp:148] Top shape: 10 96 28 28 (752640)
I0727 20:17:08.285295 26138 net.cpp:156] Memory required for data: 214753280
I0727 20:17:08.285300 26138 layer_factory.hpp:77] Creating layer inception_3a/3x3
I0727 20:17:08.285318 26138 net.cpp:91] Creating Layer inception_3a/3x3
I0727 20:17:08.285325 26138 net.cpp:425] inception_3a/3x3 <- inception_3a/3x3_reduce
I0727 20:17:08.285336 26138 net.cpp:399] inception_3a/3x3 -> inception_3a/3x3
I0727 20:17:08.288712 26142 net.cpp:141] Setting up inception_3a/3x3
I0727 20:17:08.288733 26142 net.cpp:148] Top shape: 10 128 28 28 (1003520)
I0727 20:17:08.288738 26142 net.cpp:156] Memory required for data: 218767360
I0727 20:17:08.288748 26142 layer_factory.hpp:77] Creating layer inception_3a/relu_3x3
I0727 20:17:08.288758 26142 net.cpp:91] Creating Layer inception_3a/relu_3x3
I0727 20:17:08.288767 26142 net.cpp:425] inception_3a/relu_3x3 <- inception_3a/3x3
I0727 20:17:08.288774 26142 net.cpp:386] inception_3a/relu_3x3 -> inception_3a/3x3 (in-place)
I0727 20:17:08.289690 26142 net.cpp:141] Setting up inception_3a/relu_3x3
I0727 20:17:08.289705 26142 net.cpp:148] Top shape: 10 128 28 28 (1003520)
I0727 20:17:08.289708 26142 net.cpp:156] Memory required for data: 222781440
I0727 20:17:08.289713 26142 layer_factory.hpp:77] Creating layer inception_3a/5x5_reduce
I0727 20:17:08.289711 26138 net.cpp:141] Setting up inception_3a/3x3
I0727 20:17:08.289726 26138 net.cpp:148] Top shape: 10 128 28 28 (1003520)
I0727 20:17:08.289729 26142 net.cpp:91] Creating Layer inception_3a/5x5_reduce
I0727 20:17:08.289731 26138 net.cpp:156] Memory required for data: 218767360
I0727 20:17:08.289736 26142 net.cpp:425] inception_3a/5x5_reduce <- pool2/3x3_s2_pool2/3x3_s2_0_split_2
I0727 20:17:08.289741 26138 layer_factory.hpp:77] Creating layer inception_3a/relu_3x3
I0727 20:17:08.289748 26142 net.cpp:399] inception_3a/5x5_reduce -> inception_3a/5x5_reduce
I0727 20:17:08.289749 26138 net.cpp:91] Creating Layer inception_3a/relu_3x3
I0727 20:17:08.289762 26138 net.cpp:425] inception_3a/relu_3x3 <- inception_3a/3x3
I0727 20:17:08.289769 26138 net.cpp:386] inception_3a/relu_3x3 -> inception_3a/3x3 (in-place)
I0727 20:17:08.290663 26138 net.cpp:141] Setting up inception_3a/relu_3x3
I0727 20:17:08.290679 26138 net.cpp:148] Top shape: 10 128 28 28 (1003520)
I0727 20:17:08.290684 26138 net.cpp:156] Memory required for data: 222781440
I0727 20:17:08.290696 26138 layer_factory.hpp:77] Creating layer inception_3a/5x5_reduce
I0727 20:17:08.290714 26138 net.cpp:91] Creating Layer inception_3a/5x5_reduce
I0727 20:17:08.290719 26138 net.cpp:425] inception_3a/5x5_reduce <- pool2/3x3_s2_pool2/3x3_s2_0_split_2
I0727 20:17:08.290730 26138 net.cpp:399] inception_3a/5x5_reduce -> inception_3a/5x5_reduce
I0727 20:17:08.293931 26142 net.cpp:141] Setting up inception_3a/5x5_reduce
I0727 20:17:08.293951 26142 net.cpp:148] Top shape: 10 16 28 28 (125440)
I0727 20:17:08.293956 26142 net.cpp:156] Memory required for data: 223283200
I0727 20:17:08.293964 26142 layer_factory.hpp:77] Creating layer inception_3a/relu_5x5_reduce
I0727 20:17:08.293977 26142 net.cpp:91] Creating Layer inception_3a/relu_5x5_reduce
I0727 20:17:08.293982 26142 net.cpp:425] inception_3a/relu_5x5_reduce <- inception_3a/5x5_reduce
I0727 20:17:08.293989 26142 net.cpp:386] inception_3a/relu_5x5_reduce -> inception_3a/5x5_reduce (in-place)
I0727 20:17:08.294276 26138 net.cpp:141] Setting up inception_3a/5x5_reduce
I0727 20:17:08.294291 26138 net.cpp:148] Top shape: 10 16 28 28 (125440)
I0727 20:17:08.294296 26138 net.cpp:156] Memory required for data: 223283200
I0727 20:17:08.294304 26138 layer_factory.hpp:77] Creating layer inception_3a/relu_5x5_reduce
I0727 20:17:08.294307 26142 net.cpp:141] Setting up inception_3a/relu_5x5_reduce
I0727 20:17:08.294312 26138 net.cpp:91] Creating Layer inception_3a/relu_5x5_reduce
I0727 20:17:08.294323 26142 net.cpp:148] Top shape: 10 16 28 28 (125440)
I0727 20:17:08.294325 26138 net.cpp:425] inception_3a/relu_5x5_reduce <- inception_3a/5x5_reduce
I0727 20:17:08.294327 26142 net.cpp:156] Memory required for data: 223784960
I0727 20:17:08.294332 26142 layer_factory.hpp:77] Creating layer inception_3a/5x5
I0727 20:17:08.294337 26138 net.cpp:386] inception_3a/relu_5x5_reduce -> inception_3a/5x5_reduce (in-place)
I0727 20:17:08.294349 26142 net.cpp:91] Creating Layer inception_3a/5x5
I0727 20:17:08.294355 26142 net.cpp:425] inception_3a/5x5 <- inception_3a/5x5_reduce
I0727 20:17:08.294364 26142 net.cpp:399] inception_3a/5x5 -> inception_3a/5x5
I0727 20:17:08.294715 26138 net.cpp:141] Setting up inception_3a/relu_5x5_reduce
I0727 20:17:08.294728 26138 net.cpp:148] Top shape: 10 16 28 28 (125440)
I0727 20:17:08.294734 26138 net.cpp:156] Memory required for data: 223784960
I0727 20:17:08.294737 26138 layer_factory.hpp:77] Creating layer inception_3a/5x5
I0727 20:17:08.294754 26138 net.cpp:91] Creating Layer inception_3a/5x5
I0727 20:17:08.294759 26138 net.cpp:425] inception_3a/5x5 <- inception_3a/5x5_reduce
I0727 20:17:08.294767 26138 net.cpp:399] inception_3a/5x5 -> inception_3a/5x5
I0727 20:17:08.299996 26142 net.cpp:141] Setting up inception_3a/5x5
I0727 20:17:08.300025 26142 net.cpp:148] Top shape: 10 32 28 28 (250880)
I0727 20:17:08.300030 26142 net.cpp:156] Memory required for data: 224788480
I0727 20:17:08.300042 26142 layer_factory.hpp:77] Creating layer inception_3a/relu_5x5
I0727 20:17:08.300057 26142 net.cpp:91] Creating Layer inception_3a/relu_5x5
I0727 20:17:08.300065 26142 net.cpp:425] inception_3a/relu_5x5 <- inception_3a/5x5
I0727 20:17:08.300072 26142 net.cpp:386] inception_3a/relu_5x5 -> inception_3a/5x5 (in-place)
I0727 20:17:08.300417 26142 net.cpp:141] Setting up inception_3a/relu_5x5
I0727 20:17:08.300431 26142 net.cpp:148] Top shape: 10 32 28 28 (250880)
I0727 20:17:08.300434 26142 net.cpp:156] Memory required for data: 225792000
I0727 20:17:08.300439 26142 layer_factory.hpp:77] Creating layer inception_3a/pool
I0727 20:17:08.300451 26142 net.cpp:91] Creating Layer inception_3a/pool
I0727 20:17:08.300456 26142 net.cpp:425] inception_3a/pool <- pool2/3x3_s2_pool2/3x3_s2_0_split_3
I0727 20:17:08.300467 26142 net.cpp:399] inception_3a/pool -> inception_3a/pool
I0727 20:17:08.301170 26138 net.cpp:141] Setting up inception_3a/5x5
I0727 20:17:08.301190 26138 net.cpp:148] Top shape: 10 32 28 28 (250880)
I0727 20:17:08.301195 26138 net.cpp:156] Memory required for data: 224788480
I0727 20:17:08.301200 26142 net.cpp:141] Setting up inception_3a/pool
I0727 20:17:08.301205 26138 layer_factory.hpp:77] Creating layer inception_3a/relu_5x5
I0727 20:17:08.301211 26142 net.cpp:148] Top shape: 10 192 28 28 (1505280)
I0727 20:17:08.301215 26142 net.cpp:156] Memory required for data: 231813120
I0727 20:17:08.301216 26138 net.cpp:91] Creating Layer inception_3a/relu_5x5
I0727 20:17:08.301220 26142 layer_factory.hpp:77] Creating layer inception_3a/pool_proj
I0727 20:17:08.301223 26138 net.cpp:425] inception_3a/relu_5x5 <- inception_3a/5x5
I0727 20:17:08.301231 26138 net.cpp:386] inception_3a/relu_5x5 -> inception_3a/5x5 (in-place)
I0727 20:17:08.301240 26142 net.cpp:91] Creating Layer inception_3a/pool_proj
I0727 20:17:08.301246 26142 net.cpp:425] inception_3a/pool_proj <- inception_3a/pool
I0727 20:17:08.301257 26142 net.cpp:399] inception_3a/pool_proj -> inception_3a/pool_proj
I0727 20:17:08.301614 26138 net.cpp:141] Setting up inception_3a/relu_5x5
I0727 20:17:08.301625 26138 net.cpp:148] Top shape: 10 32 28 28 (250880)
I0727 20:17:08.301630 26138 net.cpp:156] Memory required for data: 225792000
I0727 20:17:08.301635 26138 layer_factory.hpp:77] Creating layer inception_3a/pool
I0727 20:17:08.301646 26138 net.cpp:91] Creating Layer inception_3a/pool
I0727 20:17:08.301651 26138 net.cpp:425] inception_3a/pool <- pool2/3x3_s2_pool2/3x3_s2_0_split_3
I0727 20:17:08.301661 26138 net.cpp:399] inception_3a/pool -> inception_3a/pool
I0727 20:17:08.301826 26138 net.cpp:141] Setting up inception_3a/pool
I0727 20:17:08.301836 26138 net.cpp:148] Top shape: 10 192 28 28 (1505280)
I0727 20:17:08.301841 26138 net.cpp:156] Memory required for data: 231813120
I0727 20:17:08.301846 26138 layer_factory.hpp:77] Creating layer inception_3a/pool_proj
I0727 20:17:08.301862 26138 net.cpp:91] Creating Layer inception_3a/pool_proj
I0727 20:17:08.301868 26138 net.cpp:425] inception_3a/pool_proj <- inception_3a/pool
I0727 20:17:08.301877 26138 net.cpp:399] inception_3a/pool_proj -> inception_3a/pool_proj
I0727 20:17:08.304919 26142 net.cpp:141] Setting up inception_3a/pool_proj
I0727 20:17:08.304941 26142 net.cpp:148] Top shape: 10 32 28 28 (250880)
I0727 20:17:08.304947 26142 net.cpp:156] Memory required for data: 232816640
I0727 20:17:08.304962 26142 layer_factory.hpp:77] Creating layer inception_3a/relu_pool_proj
I0727 20:17:08.304971 26142 net.cpp:91] Creating Layer inception_3a/relu_pool_proj
I0727 20:17:08.304976 26142 net.cpp:425] inception_3a/relu_pool_proj <- inception_3a/pool_proj
I0727 20:17:08.304987 26142 net.cpp:386] inception_3a/relu_pool_proj -> inception_3a/pool_proj (in-place)
I0727 20:17:08.306193 26142 net.cpp:141] Setting up inception_3a/relu_pool_proj
I0727 20:17:08.306210 26142 net.cpp:148] Top shape: 10 32 28 28 (250880)
I0727 20:17:08.306215 26142 net.cpp:156] Memory required for data: 233820160
I0727 20:17:08.306219 26142 layer_factory.hpp:77] Creating layer inception_3a/output
I0727 20:17:08.306238 26142 net.cpp:91] Creating Layer inception_3a/output
I0727 20:17:08.306243 26142 net.cpp:425] inception_3a/output <- inception_3a/1x1
I0727 20:17:08.306251 26142 net.cpp:425] inception_3a/output <- inception_3a/3x3
I0727 20:17:08.306255 26142 net.cpp:425] inception_3a/output <- inception_3a/5x5
I0727 20:17:08.306260 26142 net.cpp:425] inception_3a/output <- inception_3a/pool_proj
I0727 20:17:08.306270 26142 net.cpp:399] inception_3a/output -> inception_3a/output
I0727 20:17:08.306283 26138 net.cpp:141] Setting up inception_3a/pool_proj
I0727 20:17:08.306298 26138 net.cpp:148] Top shape: 10 32 28 28 (250880)
I0727 20:17:08.306303 26138 net.cpp:156] Memory required for data: 232816640
I0727 20:17:08.306319 26138 layer_factory.hpp:77] Creating layer inception_3a/relu_pool_proj
I0727 20:17:08.306329 26138 net.cpp:91] Creating Layer inception_3a/relu_pool_proj
I0727 20:17:08.306334 26138 net.cpp:425] inception_3a/relu_pool_proj <- inception_3a/pool_proj
I0727 20:17:08.306334 26142 net.cpp:141] Setting up inception_3a/output
I0727 20:17:08.306345 26142 net.cpp:148] Top shape: 10 256 28 28 (2007040)
I0727 20:17:08.306345 26138 net.cpp:386] inception_3a/relu_pool_proj -> inception_3a/pool_proj (in-place)
I0727 20:17:08.306349 26142 net.cpp:156] Memory required for data: 241848320
I0727 20:17:08.306354 26142 layer_factory.hpp:77] Creating layer inception_3a/output_inception_3a/output_0_split
I0727 20:17:08.306366 26142 net.cpp:91] Creating Layer inception_3a/output_inception_3a/output_0_split
I0727 20:17:08.306371 26142 net.cpp:425] inception_3a/output_inception_3a/output_0_split <- inception_3a/output
I0727 20:17:08.306378 26142 net.cpp:399] inception_3a/output_inception_3a/output_0_split -> inception_3a/output_inception_3a/output_0_split_0
I0727 20:17:08.306386 26142 net.cpp:399] inception_3a/output_inception_3a/output_0_split -> inception_3a/output_inception_3a/output_0_split_1
I0727 20:17:08.306396 26142 net.cpp:399] inception_3a/output_inception_3a/output_0_split -> inception_3a/output_inception_3a/output_0_split_2
I0727 20:17:08.306403 26142 net.cpp:399] inception_3a/output_inception_3a/output_0_split -> inception_3a/output_inception_3a/output_0_split_3
I0727 20:17:08.307276 26142 net.cpp:141] Setting up inception_3a/output_inception_3a/output_0_split
I0727 20:17:08.307282 26138 net.cpp:141] Setting up inception_3a/relu_pool_proj
I0727 20:17:08.307291 26142 net.cpp:148] Top shape: 10 256 28 28 (2007040)
I0727 20:17:08.307296 26138 net.cpp:148] Top shape: 10 32 28 28 (250880)
I0727 20:17:08.307297 26142 net.cpp:148] Top shape: 10 256 28 28 (2007040)
I0727 20:17:08.307301 26138 net.cpp:156] Memory required for data: 233820160
I0727 20:17:08.307302 26142 net.cpp:148] Top shape: 10 256 28 28 (2007040)
I0727 20:17:08.307306 26138 layer_factory.hpp:77] Creating layer inception_3a/output
I0727 20:17:08.307307 26142 net.cpp:148] Top shape: 10 256 28 28 (2007040)
I0727 20:17:08.307312 26142 net.cpp:156] Memory required for data: 273960960
I0727 20:17:08.307314 26138 net.cpp:91] Creating Layer inception_3a/output
I0727 20:17:08.307315 26142 layer_factory.hpp:77] Creating layer inception_3b/1x1
I0727 20:17:08.307320 26138 net.cpp:425] inception_3a/output <- inception_3a/1x1
I0727 20:17:08.307327 26138 net.cpp:425] inception_3a/output <- inception_3a/3x3
I0727 20:17:08.307332 26138 net.cpp:425] inception_3a/output <- inception_3a/5x5
I0727 20:17:08.307334 26142 net.cpp:91] Creating Layer inception_3b/1x1
I0727 20:17:08.307337 26138 net.cpp:425] inception_3a/output <- inception_3a/pool_proj
I0727 20:17:08.307339 26142 net.cpp:425] inception_3b/1x1 <- inception_3a/output_inception_3a/output_0_split_0
I0727 20:17:08.307348 26138 net.cpp:399] inception_3a/output -> inception_3a/output
I0727 20:17:08.307348 26142 net.cpp:399] inception_3b/1x1 -> inception_3b/1x1
I0727 20:17:08.307430 26138 net.cpp:141] Setting up inception_3a/output
I0727 20:17:08.307440 26138 net.cpp:148] Top shape: 10 256 28 28 (2007040)
I0727 20:17:08.307445 26138 net.cpp:156] Memory required for data: 241848320
I0727 20:17:08.307449 26138 layer_factory.hpp:77] Creating layer inception_3a/output_inception_3a/output_0_split
I0727 20:17:08.307456 26138 net.cpp:91] Creating Layer inception_3a/output_inception_3a/output_0_split
I0727 20:17:08.307461 26138 net.cpp:425] inception_3a/output_inception_3a/output_0_split <- inception_3a/output
I0727 20:17:08.307469 26138 net.cpp:399] inception_3a/output_inception_3a/output_0_split -> inception_3a/output_inception_3a/output_0_split_0
I0727 20:17:08.307478 26138 net.cpp:399] inception_3a/output_inception_3a/output_0_split -> inception_3a/output_inception_3a/output_0_split_1
I0727 20:17:08.307485 26138 net.cpp:399] inception_3a/output_inception_3a/output_0_split -> inception_3a/output_inception_3a/output_0_split_2
I0727 20:17:08.307493 26138 net.cpp:399] inception_3a/output_inception_3a/output_0_split -> inception_3a/output_inception_3a/output_0_split_3
I0727 20:17:08.307801 26138 net.cpp:141] Setting up inception_3a/output_inception_3a/output_0_split
I0727 20:17:08.307811 26138 net.cpp:148] Top shape: 10 256 28 28 (2007040)
I0727 20:17:08.307816 26138 net.cpp:148] Top shape: 10 256 28 28 (2007040)
I0727 20:17:08.307821 26138 net.cpp:148] Top shape: 10 256 28 28 (2007040)
I0727 20:17:08.307826 26138 net.cpp:148] Top shape: 10 256 28 28 (2007040)
I0727 20:17:08.307829 26138 net.cpp:156] Memory required for data: 273960960
I0727 20:17:08.307833 26138 layer_factory.hpp:77] Creating layer inception_3b/1x1
I0727 20:17:08.307848 26138 net.cpp:91] Creating Layer inception_3b/1x1
I0727 20:17:08.307855 26138 net.cpp:425] inception_3b/1x1 <- inception_3a/output_inception_3a/output_0_split_0
I0727 20:17:08.307864 26138 net.cpp:399] inception_3b/1x1 -> inception_3b/1x1
I0727 20:17:08.311055 26142 net.cpp:141] Setting up inception_3b/1x1
I0727 20:17:08.311081 26142 net.cpp:148] Top shape: 10 128 28 28 (1003520)
I0727 20:17:08.311086 26142 net.cpp:156] Memory required for data: 277975040
I0727 20:17:08.311095 26142 layer_factory.hpp:77] Creating layer inception_3b/relu_1x1
I0727 20:17:08.311107 26142 net.cpp:91] Creating Layer inception_3b/relu_1x1
I0727 20:17:08.311113 26142 net.cpp:425] inception_3b/relu_1x1 <- inception_3b/1x1
I0727 20:17:08.311120 26142 net.cpp:386] inception_3b/relu_1x1 -> inception_3b/1x1 (in-place)
I0727 20:17:08.311413 26138 net.cpp:141] Setting up inception_3b/1x1
I0727 20:17:08.311427 26138 net.cpp:148] Top shape: 10 128 28 28 (1003520)
I0727 20:17:08.311432 26138 net.cpp:156] Memory required for data: 277975040
I0727 20:17:08.311440 26138 layer_factory.hpp:77] Creating layer inception_3b/relu_1x1
I0727 20:17:08.311440 26142 net.cpp:141] Setting up inception_3b/relu_1x1
I0727 20:17:08.311450 26138 net.cpp:91] Creating Layer inception_3b/relu_1x1
I0727 20:17:08.311452 26142 net.cpp:148] Top shape: 10 128 28 28 (1003520)
I0727 20:17:08.311456 26138 net.cpp:425] inception_3b/relu_1x1 <- inception_3b/1x1
I0727 20:17:08.311457 26142 net.cpp:156] Memory required for data: 281989120
I0727 20:17:08.311462 26142 layer_factory.hpp:77] Creating layer inception_3b/3x3_reduce
I0727 20:17:08.311466 26138 net.cpp:386] inception_3b/relu_1x1 -> inception_3b/1x1 (in-place)
I0727 20:17:08.311482 26142 net.cpp:91] Creating Layer inception_3b/3x3_reduce
I0727 20:17:08.311488 26142 net.cpp:425] inception_3b/3x3_reduce <- inception_3a/output_inception_3a/output_0_split_1
I0727 20:17:08.311496 26142 net.cpp:399] inception_3b/3x3_reduce -> inception_3b/3x3_reduce
I0727 20:17:08.311812 26138 net.cpp:141] Setting up inception_3b/relu_1x1
I0727 20:17:08.311825 26138 net.cpp:148] Top shape: 10 128 28 28 (1003520)
I0727 20:17:08.311828 26138 net.cpp:156] Memory required for data: 281989120
I0727 20:17:08.311832 26138 layer_factory.hpp:77] Creating layer inception_3b/3x3_reduce
I0727 20:17:08.311847 26138 net.cpp:91] Creating Layer inception_3b/3x3_reduce
I0727 20:17:08.311852 26138 net.cpp:425] inception_3b/3x3_reduce <- inception_3a/output_inception_3a/output_0_split_1
I0727 20:17:08.311864 26138 net.cpp:399] inception_3b/3x3_reduce -> inception_3b/3x3_reduce
I0727 20:17:08.315706 26142 net.cpp:141] Setting up inception_3b/3x3_reduce
I0727 20:17:08.315732 26142 net.cpp:148] Top shape: 10 128 28 28 (1003520)
I0727 20:17:08.315737 26142 net.cpp:156] Memory required for data: 286003200
I0727 20:17:08.315747 26142 layer_factory.hpp:77] Creating layer inception_3b/relu_3x3_reduce
I0727 20:17:08.315757 26142 net.cpp:91] Creating Layer inception_3b/relu_3x3_reduce
I0727 20:17:08.315763 26142 net.cpp:425] inception_3b/relu_3x3_reduce <- inception_3b/3x3_reduce
I0727 20:17:08.315776 26142 net.cpp:386] inception_3b/relu_3x3_reduce -> inception_3b/3x3_reduce (in-place)
I0727 20:17:08.316006 26138 net.cpp:141] Setting up inception_3b/3x3_reduce
I0727 20:17:08.316025 26138 net.cpp:148] Top shape: 10 128 28 28 (1003520)
I0727 20:17:08.316030 26138 net.cpp:156] Memory required for data: 286003200
I0727 20:17:08.316037 26138 layer_factory.hpp:77] Creating layer inception_3b/relu_3x3_reduce
I0727 20:17:08.316046 26138 net.cpp:91] Creating Layer inception_3b/relu_3x3_reduce
I0727 20:17:08.316051 26138 net.cpp:425] inception_3b/relu_3x3_reduce <- inception_3b/3x3_reduce
I0727 20:17:08.316061 26138 net.cpp:386] inception_3b/relu_3x3_reduce -> inception_3b/3x3_reduce (in-place)
I0727 20:17:08.316057 26142 net.cpp:141] Setting up inception_3b/relu_3x3_reduce
I0727 20:17:08.316071 26142 net.cpp:148] Top shape: 10 128 28 28 (1003520)
I0727 20:17:08.316076 26142 net.cpp:156] Memory required for data: 290017280
I0727 20:17:08.316081 26142 layer_factory.hpp:77] Creating layer inception_3b/3x3
I0727 20:17:08.316097 26142 net.cpp:91] Creating Layer inception_3b/3x3
I0727 20:17:08.316103 26142 net.cpp:425] inception_3b/3x3 <- inception_3b/3x3_reduce
I0727 20:17:08.316112 26142 net.cpp:399] inception_3b/3x3 -> inception_3b/3x3
I0727 20:17:08.316402 26138 net.cpp:141] Setting up inception_3b/relu_3x3_reduce
I0727 20:17:08.316413 26138 net.cpp:148] Top shape: 10 128 28 28 (1003520)
I0727 20:17:08.316417 26138 net.cpp:156] Memory required for data: 290017280
I0727 20:17:08.316422 26138 layer_factory.hpp:77] Creating layer inception_3b/3x3
I0727 20:17:08.316439 26138 net.cpp:91] Creating Layer inception_3b/3x3
I0727 20:17:08.316444 26138 net.cpp:425] inception_3b/3x3 <- inception_3b/3x3_reduce
I0727 20:17:08.316453 26138 net.cpp:399] inception_3b/3x3 -> inception_3b/3x3
I0727 20:17:08.323681 26142 net.cpp:141] Setting up inception_3b/3x3
I0727 20:17:08.323704 26142 net.cpp:148] Top shape: 10 192 28 28 (1505280)
I0727 20:17:08.323709 26142 net.cpp:156] Memory required for data: 296038400
I0727 20:17:08.323719 26142 layer_factory.hpp:77] Creating layer inception_3b/relu_3x3
I0727 20:17:08.323736 26142 net.cpp:91] Creating Layer inception_3b/relu_3x3
I0727 20:17:08.323742 26142 net.cpp:425] inception_3b/relu_3x3 <- inception_3b/3x3
I0727 20:17:08.323750 26142 net.cpp:386] inception_3b/relu_3x3 -> inception_3b/3x3 (in-place)
I0727 20:17:08.324640 26142 net.cpp:141] Setting up inception_3b/relu_3x3
I0727 20:17:08.324657 26142 net.cpp:148] Top shape: 10 192 28 28 (1505280)
I0727 20:17:08.324662 26142 net.cpp:156] Memory required for data: 302059520
I0727 20:17:08.324667 26142 layer_factory.hpp:77] Creating layer inception_3b/5x5_reduce
I0727 20:17:08.324684 26142 net.cpp:91] Creating Layer inception_3b/5x5_reduce
I0727 20:17:08.324690 26142 net.cpp:425] inception_3b/5x5_reduce <- inception_3a/output_inception_3a/output_0_split_2
I0727 20:17:08.324700 26142 net.cpp:399] inception_3b/5x5_reduce -> inception_3b/5x5_reduce
I0727 20:17:08.324741 26138 net.cpp:141] Setting up inception_3b/3x3
I0727 20:17:08.324757 26138 net.cpp:148] Top shape: 10 192 28 28 (1505280)
I0727 20:17:08.324761 26138 net.cpp:156] Memory required for data: 296038400
I0727 20:17:08.324770 26138 layer_factory.hpp:77] Creating layer inception_3b/relu_3x3
I0727 20:17:08.324784 26138 net.cpp:91] Creating Layer inception_3b/relu_3x3
I0727 20:17:08.324789 26138 net.cpp:425] inception_3b/relu_3x3 <- inception_3b/3x3
I0727 20:17:08.324800 26138 net.cpp:386] inception_3b/relu_3x3 -> inception_3b/3x3 (in-place)
I0727 20:17:08.325690 26138 net.cpp:141] Setting up inception_3b/relu_3x3
I0727 20:17:08.325705 26138 net.cpp:148] Top shape: 10 192 28 28 (1505280)
I0727 20:17:08.325709 26138 net.cpp:156] Memory required for data: 302059520
I0727 20:17:08.325714 26138 layer_factory.hpp:77] Creating layer inception_3b/5x5_reduce
I0727 20:17:08.325729 26138 net.cpp:91] Creating Layer inception_3b/5x5_reduce
I0727 20:17:08.325736 26138 net.cpp:425] inception_3b/5x5_reduce <- inception_3a/output_inception_3a/output_0_split_2
I0727 20:17:08.325747 26138 net.cpp:399] inception_3b/5x5_reduce -> inception_3b/5x5_reduce
I0727 20:17:08.329265 26142 net.cpp:141] Setting up inception_3b/5x5_reduce
I0727 20:17:08.329288 26142 net.cpp:148] Top shape: 10 32 28 28 (250880)
I0727 20:17:08.329293 26142 net.cpp:156] Memory required for data: 303063040
I0727 20:17:08.329301 26142 layer_factory.hpp:77] Creating layer inception_3b/relu_5x5_reduce
I0727 20:17:08.329311 26142 net.cpp:91] Creating Layer inception_3b/relu_5x5_reduce
I0727 20:17:08.329316 26142 net.cpp:425] inception_3b/relu_5x5_reduce <- inception_3b/5x5_reduce
I0727 20:17:08.329324 26142 net.cpp:386] inception_3b/relu_5x5_reduce -> inception_3b/5x5_reduce (in-place)
I0727 20:17:08.329632 26142 net.cpp:141] Setting up inception_3b/relu_5x5_reduce
I0727 20:17:08.329643 26142 net.cpp:148] Top shape: 10 32 28 28 (250880)
I0727 20:17:08.329648 26142 net.cpp:156] Memory required for data: 304066560
I0727 20:17:08.329653 26142 layer_factory.hpp:77] Creating layer inception_3b/5x5
I0727 20:17:08.329668 26142 net.cpp:91] Creating Layer inception_3b/5x5
I0727 20:17:08.329674 26142 net.cpp:425] inception_3b/5x5 <- inception_3b/5x5_reduce
I0727 20:17:08.329685 26142 net.cpp:399] inception_3b/5x5 -> inception_3b/5x5
I0727 20:17:08.330796 26138 net.cpp:141] Setting up inception_3b/5x5_reduce
I0727 20:17:08.330814 26138 net.cpp:148] Top shape: 10 32 28 28 (250880)
I0727 20:17:08.330819 26138 net.cpp:156] Memory required for data: 303063040
I0727 20:17:08.330828 26138 layer_factory.hpp:77] Creating layer inception_3b/relu_5x5_reduce
I0727 20:17:08.330837 26138 net.cpp:91] Creating Layer inception_3b/relu_5x5_reduce
I0727 20:17:08.330842 26138 net.cpp:425] inception_3b/relu_5x5_reduce <- inception_3b/5x5_reduce
I0727 20:17:08.330853 26138 net.cpp:386] inception_3b/relu_5x5_reduce -> inception_3b/5x5_reduce (in-place)
I0727 20:17:08.331436 26138 net.cpp:141] Setting up inception_3b/relu_5x5_reduce
I0727 20:17:08.331452 26138 net.cpp:148] Top shape: 10 32 28 28 (250880)
I0727 20:17:08.331457 26138 net.cpp:156] Memory required for data: 304066560
I0727 20:17:08.331462 26138 layer_factory.hpp:77] Creating layer inception_3b/5x5
I0727 20:17:08.331478 26138 net.cpp:91] Creating Layer inception_3b/5x5
I0727 20:17:08.331485 26138 net.cpp:425] inception_3b/5x5 <- inception_3b/5x5_reduce
I0727 20:17:08.331493 26138 net.cpp:399] inception_3b/5x5 -> inception_3b/5x5
I0727 20:17:08.339143 26138 net.cpp:141] Setting up inception_3b/5x5
I0727 20:17:08.339133 26142 net.cpp:141] Setting up inception_3b/5x5
I0727 20:17:08.339181 26138 net.cpp:148] Top shape: 10 96 28 28 (752640)
I0727 20:17:08.339189 26138 net.cpp:156] Memory required for data: 307077120
I0727 20:17:08.339186 26142 net.cpp:148] Top shape: 10 96 28 28 (752640)
I0727 20:17:08.339197 26142 net.cpp:156] Memory required for data: 307077120
I0727 20:17:08.339203 26138 layer_factory.hpp:77] Creating layer inception_3b/relu_5x5
I0727 20:17:08.339215 26142 layer_factory.hpp:77] Creating layer inception_3b/relu_5x5
I0727 20:17:08.339223 26138 net.cpp:91] Creating Layer inception_3b/relu_5x5
I0727 20:17:08.339232 26138 net.cpp:425] inception_3b/relu_5x5 <- inception_3b/5x5
I0727 20:17:08.339234 26142 net.cpp:91] Creating Layer inception_3b/relu_5x5
I0727 20:17:08.339243 26138 net.cpp:386] inception_3b/relu_5x5 -> inception_3b/5x5 (in-place)
I0727 20:17:08.339246 26142 net.cpp:425] inception_3b/relu_5x5 <- inception_3b/5x5
I0727 20:17:08.339260 26142 net.cpp:386] inception_3b/relu_5x5 -> inception_3b/5x5 (in-place)
I0727 20:17:08.339576 26138 net.cpp:141] Setting up inception_3b/relu_5x5
I0727 20:17:08.339588 26138 net.cpp:148] Top shape: 10 96 28 28 (752640)
I0727 20:17:08.339592 26138 net.cpp:156] Memory required for data: 310087680
I0727 20:17:08.339597 26138 layer_factory.hpp:77] Creating layer inception_3b/pool
I0727 20:17:08.339610 26138 net.cpp:91] Creating Layer inception_3b/pool
I0727 20:17:08.339617 26138 net.cpp:425] inception_3b/pool <- inception_3a/output_inception_3a/output_0_split_3
I0727 20:17:08.339627 26138 net.cpp:399] inception_3b/pool -> inception_3b/pool
I0727 20:17:08.339743 26142 net.cpp:141] Setting up inception_3b/relu_5x5
I0727 20:17:08.339761 26142 net.cpp:148] Top shape: 10 96 28 28 (752640)
I0727 20:17:08.339761 26138 net.cpp:141] Setting up inception_3b/pool
I0727 20:17:08.339773 26142 net.cpp:156] Memory required for data: 310087680
I0727 20:17:08.339781 26138 net.cpp:148] Top shape: 10 256 28 28 (2007040)
I0727 20:17:08.339786 26138 net.cpp:156] Memory required for data: 318115840
I0727 20:17:08.339783 26142 layer_factory.hpp:77] Creating layer inception_3b/pool
I0727 20:17:08.339794 26138 layer_factory.hpp:77] Creating layer inception_3b/pool_proj
I0727 20:17:08.339808 26142 net.cpp:91] Creating Layer inception_3b/pool
I0727 20:17:08.339819 26142 net.cpp:425] inception_3b/pool <- inception_3a/output_inception_3a/output_0_split_3
I0727 20:17:08.339826 26138 net.cpp:91] Creating Layer inception_3b/pool_proj
I0727 20:17:08.339833 26138 net.cpp:425] inception_3b/pool_proj <- inception_3b/pool
I0727 20:17:08.339836 26142 net.cpp:399] inception_3b/pool -> inception_3b/pool
I0727 20:17:08.339841 26138 net.cpp:399] inception_3b/pool_proj -> inception_3b/pool_proj
I0727 20:17:08.340139 26142 net.cpp:141] Setting up inception_3b/pool
I0727 20:17:08.340155 26142 net.cpp:148] Top shape: 10 256 28 28 (2007040)
I0727 20:17:08.340162 26142 net.cpp:156] Memory required for data: 318115840
I0727 20:17:08.340169 26142 layer_factory.hpp:77] Creating layer inception_3b/pool_proj
I0727 20:17:08.340193 26142 net.cpp:91] Creating Layer inception_3b/pool_proj
I0727 20:17:08.340204 26142 net.cpp:425] inception_3b/pool_proj <- inception_3b/pool
I0727 20:17:08.340219 26142 net.cpp:399] inception_3b/pool_proj -> inception_3b/pool_proj
I0727 20:17:08.345051 26138 net.cpp:141] Setting up inception_3b/pool_proj
I0727 20:17:08.345088 26138 net.cpp:148] Top shape: 10 64 28 28 (501760)
I0727 20:17:08.345094 26138 net.cpp:156] Memory required for data: 320122880
I0727 20:17:08.345104 26138 layer_factory.hpp:77] Creating layer inception_3b/relu_pool_proj
I0727 20:17:08.345115 26138 net.cpp:91] Creating Layer inception_3b/relu_pool_proj
I0727 20:17:08.345123 26138 net.cpp:425] inception_3b/relu_pool_proj <- inception_3b/pool_proj
I0727 20:17:08.345135 26138 net.cpp:386] inception_3b/relu_pool_proj -> inception_3b/pool_proj (in-place)
I0727 20:17:08.346058 26138 net.cpp:141] Setting up inception_3b/relu_pool_proj
I0727 20:17:08.346073 26138 net.cpp:148] Top shape: 10 64 28 28 (501760)
I0727 20:17:08.346078 26138 net.cpp:156] Memory required for data: 322129920
I0727 20:17:08.346083 26138 layer_factory.hpp:77] Creating layer inception_3b/output
I0727 20:17:08.346094 26138 net.cpp:91] Creating Layer inception_3b/output
I0727 20:17:08.346101 26138 net.cpp:425] inception_3b/output <- inception_3b/1x1
I0727 20:17:08.346107 26138 net.cpp:425] inception_3b/output <- inception_3b/3x3
I0727 20:17:08.346112 26138 net.cpp:425] inception_3b/output <- inception_3b/5x5
I0727 20:17:08.346117 26138 net.cpp:425] inception_3b/output <- inception_3b/pool_proj
I0727 20:17:08.346123 26138 net.cpp:399] inception_3b/output -> inception_3b/output
I0727 20:17:08.346179 26142 net.cpp:141] Setting up inception_3b/pool_proj
I0727 20:17:08.346197 26142 net.cpp:148] Top shape: 10 64 28 28 (501760)
I0727 20:17:08.346202 26142 net.cpp:156] Memory required for data: 320122880
I0727 20:17:08.346202 26138 net.cpp:141] Setting up inception_3b/output
I0727 20:17:08.346213 26138 net.cpp:148] Top shape: 10 480 28 28 (3763200)
I0727 20:17:08.346213 26142 layer_factory.hpp:77] Creating layer inception_3b/relu_pool_proj
I0727 20:17:08.346221 26138 net.cpp:156] Memory required for data: 337182720
I0727 20:17:08.346227 26138 layer_factory.hpp:77] Creating layer pool3/3x3_s2
I0727 20:17:08.346230 26142 net.cpp:91] Creating Layer inception_3b/relu_pool_proj
I0727 20:17:08.346236 26142 net.cpp:425] inception_3b/relu_pool_proj <- inception_3b/pool_proj
I0727 20:17:08.346240 26138 net.cpp:91] Creating Layer pool3/3x3_s2
I0727 20:17:08.346245 26142 net.cpp:386] inception_3b/relu_pool_proj -> inception_3b/pool_proj (in-place)
I0727 20:17:08.346246 26138 net.cpp:425] pool3/3x3_s2 <- inception_3b/output
I0727 20:17:08.346253 26138 net.cpp:399] pool3/3x3_s2 -> pool3/3x3_s2
I0727 20:17:08.347097 26138 net.cpp:141] Setting up pool3/3x3_s2
I0727 20:17:08.347111 26138 net.cpp:148] Top shape: 10 480 14 14 (940800)
I0727 20:17:08.347115 26138 net.cpp:156] Memory required for data: 340945920
I0727 20:17:08.347120 26138 layer_factory.hpp:77] Creating layer pool3/3x3_s2_pool3/3x3_s2_0_split
I0727 20:17:08.347128 26138 net.cpp:91] Creating Layer pool3/3x3_s2_pool3/3x3_s2_0_split
I0727 20:17:08.347132 26138 net.cpp:425] pool3/3x3_s2_pool3/3x3_s2_0_split <- pool3/3x3_s2
I0727 20:17:08.347141 26138 net.cpp:399] pool3/3x3_s2_pool3/3x3_s2_0_split -> pool3/3x3_s2_pool3/3x3_s2_0_split_0
I0727 20:17:08.347149 26138 net.cpp:399] pool3/3x3_s2_pool3/3x3_s2_0_split -> pool3/3x3_s2_pool3/3x3_s2_0_split_1
I0727 20:17:08.347157 26138 net.cpp:399] pool3/3x3_s2_pool3/3x3_s2_0_split -> pool3/3x3_s2_pool3/3x3_s2_0_split_2
I0727 20:17:08.347159 26142 net.cpp:141] Setting up inception_3b/relu_pool_proj
I0727 20:17:08.347164 26138 net.cpp:399] pool3/3x3_s2_pool3/3x3_s2_0_split -> pool3/3x3_s2_pool3/3x3_s2_0_split_3
I0727 20:17:08.347177 26142 net.cpp:148] Top shape: 10 64 28 28 (501760)
I0727 20:17:08.347182 26142 net.cpp:156] Memory required for data: 322129920
I0727 20:17:08.347187 26142 layer_factory.hpp:77] Creating layer inception_3b/output
I0727 20:17:08.347195 26142 net.cpp:91] Creating Layer inception_3b/output
I0727 20:17:08.347200 26142 net.cpp:425] inception_3b/output <- inception_3b/1x1
I0727 20:17:08.347208 26142 net.cpp:425] inception_3b/output <- inception_3b/3x3
I0727 20:17:08.347213 26142 net.cpp:425] inception_3b/output <- inception_3b/5x5
I0727 20:17:08.347216 26142 net.cpp:425] inception_3b/output <- inception_3b/pool_proj
I0727 20:17:08.347223 26142 net.cpp:399] inception_3b/output -> inception_3b/output
I0727 20:17:08.347355 26142 net.cpp:141] Setting up inception_3b/output
I0727 20:17:08.347367 26142 net.cpp:148] Top shape: 10 480 28 28 (3763200)
I0727 20:17:08.347371 26142 net.cpp:156] Memory required for data: 337182720
I0727 20:17:08.347375 26142 layer_factory.hpp:77] Creating layer pool3/3x3_s2
I0727 20:17:08.347384 26142 net.cpp:91] Creating Layer pool3/3x3_s2
I0727 20:17:08.347389 26142 net.cpp:425] pool3/3x3_s2 <- inception_3b/output
I0727 20:17:08.347398 26142 net.cpp:399] pool3/3x3_s2 -> pool3/3x3_s2
I0727 20:17:08.347416 26138 net.cpp:141] Setting up pool3/3x3_s2_pool3/3x3_s2_0_split
I0727 20:17:08.347429 26138 net.cpp:148] Top shape: 10 480 14 14 (940800)
I0727 20:17:08.347434 26138 net.cpp:148] Top shape: 10 480 14 14 (940800)
I0727 20:17:08.347439 26138 net.cpp:148] Top shape: 10 480 14 14 (940800)
I0727 20:17:08.347443 26138 net.cpp:148] Top shape: 10 480 14 14 (940800)
I0727 20:17:08.347446 26138 net.cpp:156] Memory required for data: 355998720
I0727 20:17:08.347451 26138 layer_factory.hpp:77] Creating layer inception_4a/1x1
I0727 20:17:08.347470 26138 net.cpp:91] Creating Layer inception_4a/1x1
I0727 20:17:08.347476 26138 net.cpp:425] inception_4a/1x1 <- pool3/3x3_s2_pool3/3x3_s2_0_split_0
I0727 20:17:08.347484 26138 net.cpp:399] inception_4a/1x1 -> inception_4a/1x1
I0727 20:17:08.347498 26142 net.cpp:141] Setting up pool3/3x3_s2
I0727 20:17:08.347508 26142 net.cpp:148] Top shape: 10 480 14 14 (940800)
I0727 20:17:08.347512 26142 net.cpp:156] Memory required for data: 340945920
I0727 20:17:08.347517 26142 layer_factory.hpp:77] Creating layer pool3/3x3_s2_pool3/3x3_s2_0_split
I0727 20:17:08.347524 26142 net.cpp:91] Creating Layer pool3/3x3_s2_pool3/3x3_s2_0_split
I0727 20:17:08.347529 26142 net.cpp:425] pool3/3x3_s2_pool3/3x3_s2_0_split <- pool3/3x3_s2
I0727 20:17:08.347539 26142 net.cpp:399] pool3/3x3_s2_pool3/3x3_s2_0_split -> pool3/3x3_s2_pool3/3x3_s2_0_split_0
I0727 20:17:08.347548 26142 net.cpp:399] pool3/3x3_s2_pool3/3x3_s2_0_split -> pool3/3x3_s2_pool3/3x3_s2_0_split_1
I0727 20:17:08.347555 26142 net.cpp:399] pool3/3x3_s2_pool3/3x3_s2_0_split -> pool3/3x3_s2_pool3/3x3_s2_0_split_2
I0727 20:17:08.347563 26142 net.cpp:399] pool3/3x3_s2_pool3/3x3_s2_0_split -> pool3/3x3_s2_pool3/3x3_s2_0_split_3
I0727 20:17:08.347936 26142 net.cpp:141] Setting up pool3/3x3_s2_pool3/3x3_s2_0_split
I0727 20:17:08.347947 26142 net.cpp:148] Top shape: 10 480 14 14 (940800)
I0727 20:17:08.347952 26142 net.cpp:148] Top shape: 10 480 14 14 (940800)
I0727 20:17:08.347957 26142 net.cpp:148] Top shape: 10 480 14 14 (940800)
I0727 20:17:08.347962 26142 net.cpp:148] Top shape: 10 480 14 14 (940800)
I0727 20:17:08.347966 26142 net.cpp:156] Memory required for data: 355998720
I0727 20:17:08.347970 26142 layer_factory.hpp:77] Creating layer inception_4a/1x1
I0727 20:17:08.347985 26142 net.cpp:91] Creating Layer inception_4a/1x1
I0727 20:17:08.347990 26142 net.cpp:425] inception_4a/1x1 <- pool3/3x3_s2_pool3/3x3_s2_0_split_0
I0727 20:17:08.348001 26142 net.cpp:399] inception_4a/1x1 -> inception_4a/1x1
I0727 20:17:08.353358 26138 net.cpp:141] Setting up inception_4a/1x1
I0727 20:17:08.353394 26138 net.cpp:148] Top shape: 10 192 14 14 (376320)
I0727 20:17:08.353400 26138 net.cpp:156] Memory required for data: 357504000
I0727 20:17:08.353412 26138 layer_factory.hpp:77] Creating layer inception_4a/relu_1x1
I0727 20:17:08.353425 26138 net.cpp:91] Creating Layer inception_4a/relu_1x1
I0727 20:17:08.353432 26138 net.cpp:425] inception_4a/relu_1x1 <- inception_4a/1x1
I0727 20:17:08.353447 26138 net.cpp:386] inception_4a/relu_1x1 -> inception_4a/1x1 (in-place)
I0727 20:17:08.353488 26142 net.cpp:141] Setting up inception_4a/1x1
I0727 20:17:08.353503 26142 net.cpp:148] Top shape: 10 192 14 14 (376320)
I0727 20:17:08.353508 26142 net.cpp:156] Memory required for data: 357504000
I0727 20:17:08.353518 26142 layer_factory.hpp:77] Creating layer inception_4a/relu_1x1
I0727 20:17:08.353530 26142 net.cpp:91] Creating Layer inception_4a/relu_1x1
I0727 20:17:08.353538 26142 net.cpp:425] inception_4a/relu_1x1 <- inception_4a/1x1
I0727 20:17:08.353544 26142 net.cpp:386] inception_4a/relu_1x1 -> inception_4a/1x1 (in-place)
I0727 20:17:08.353762 26138 net.cpp:141] Setting up inception_4a/relu_1x1
I0727 20:17:08.353775 26138 net.cpp:148] Top shape: 10 192 14 14 (376320)
I0727 20:17:08.353778 26138 net.cpp:156] Memory required for data: 359009280
I0727 20:17:08.353783 26138 layer_factory.hpp:77] Creating layer inception_4a/3x3_reduce
I0727 20:17:08.353806 26138 net.cpp:91] Creating Layer inception_4a/3x3_reduce
I0727 20:17:08.353811 26138 net.cpp:425] inception_4a/3x3_reduce <- pool3/3x3_s2_pool3/3x3_s2_0_split_1
I0727 20:17:08.353821 26138 net.cpp:399] inception_4a/3x3_reduce -> inception_4a/3x3_reduce
I0727 20:17:08.353839 26142 net.cpp:141] Setting up inception_4a/relu_1x1
I0727 20:17:08.353852 26142 net.cpp:148] Top shape: 10 192 14 14 (376320)
I0727 20:17:08.353855 26142 net.cpp:156] Memory required for data: 359009280
I0727 20:17:08.353860 26142 layer_factory.hpp:77] Creating layer inception_4a/3x3_reduce
I0727 20:17:08.353876 26142 net.cpp:91] Creating Layer inception_4a/3x3_reduce
I0727 20:17:08.353883 26142 net.cpp:425] inception_4a/3x3_reduce <- pool3/3x3_s2_pool3/3x3_s2_0_split_1
I0727 20:17:08.353893 26142 net.cpp:399] inception_4a/3x3_reduce -> inception_4a/3x3_reduce
I0727 20:17:08.358048 26142 net.cpp:141] Setting up inception_4a/3x3_reduce
I0727 20:17:08.358072 26142 net.cpp:148] Top shape: 10 96 14 14 (188160)
I0727 20:17:08.358080 26142 net.cpp:156] Memory required for data: 359761920
I0727 20:17:08.358099 26142 layer_factory.hpp:77] Creating layer inception_4a/relu_3x3_reduce
I0727 20:17:08.358113 26142 net.cpp:91] Creating Layer inception_4a/relu_3x3_reduce
I0727 20:17:08.358119 26142 net.cpp:425] inception_4a/relu_3x3_reduce <- inception_4a/3x3_reduce
I0727 20:17:08.358126 26142 net.cpp:386] inception_4a/relu_3x3_reduce -> inception_4a/3x3_reduce (in-place)
I0727 20:17:08.358381 26138 net.cpp:141] Setting up inception_4a/3x3_reduce
I0727 20:17:08.358397 26138 net.cpp:148] Top shape: 10 96 14 14 (188160)
I0727 20:17:08.358400 26138 net.cpp:156] Memory required for data: 359761920
I0727 20:17:08.358419 26138 layer_factory.hpp:77] Creating layer inception_4a/relu_3x3_reduce
I0727 20:17:08.358430 26138 net.cpp:91] Creating Layer inception_4a/relu_3x3_reduce
I0727 20:17:08.358436 26138 net.cpp:425] inception_4a/relu_3x3_reduce <- inception_4a/3x3_reduce
I0727 20:17:08.358439 26142 net.cpp:141] Setting up inception_4a/relu_3x3_reduce
I0727 20:17:08.358443 26138 net.cpp:386] inception_4a/relu_3x3_reduce -> inception_4a/3x3_reduce (in-place)
I0727 20:17:08.358454 26142 net.cpp:148] Top shape: 10 96 14 14 (188160)
I0727 20:17:08.358459 26142 net.cpp:156] Memory required for data: 360514560
I0727 20:17:08.358464 26142 layer_factory.hpp:77] Creating layer inception_4a/3x3
I0727 20:17:08.358481 26142 net.cpp:91] Creating Layer inception_4a/3x3
I0727 20:17:08.358487 26142 net.cpp:425] inception_4a/3x3 <- inception_4a/3x3_reduce
I0727 20:17:08.358497 26142 net.cpp:399] inception_4a/3x3 -> inception_4a/3x3
I0727 20:17:08.358810 26138 net.cpp:141] Setting up inception_4a/relu_3x3_reduce
I0727 20:17:08.358822 26138 net.cpp:148] Top shape: 10 96 14 14 (188160)
I0727 20:17:08.358827 26138 net.cpp:156] Memory required for data: 360514560
I0727 20:17:08.358831 26138 layer_factory.hpp:77] Creating layer inception_4a/3x3
I0727 20:17:08.358849 26138 net.cpp:91] Creating Layer inception_4a/3x3
I0727 20:17:08.358855 26138 net.cpp:425] inception_4a/3x3 <- inception_4a/3x3_reduce
I0727 20:17:08.358863 26138 net.cpp:399] inception_4a/3x3 -> inception_4a/3x3
I0727 20:17:08.367008 26142 net.cpp:141] Setting up inception_4a/3x3
I0727 20:17:08.367049 26142 net.cpp:148] Top shape: 10 208 14 14 (407680)
I0727 20:17:08.367055 26142 net.cpp:156] Memory required for data: 362145280
I0727 20:17:08.367069 26142 layer_factory.hpp:77] Creating layer inception_4a/relu_3x3
I0727 20:17:08.367084 26142 net.cpp:91] Creating Layer inception_4a/relu_3x3
I0727 20:17:08.367090 26142 net.cpp:425] inception_4a/relu_3x3 <- inception_4a/3x3
I0727 20:17:08.367100 26142 net.cpp:386] inception_4a/relu_3x3 -> inception_4a/3x3 (in-place)
I0727 20:17:08.368033 26142 net.cpp:141] Setting up inception_4a/relu_3x3
I0727 20:17:08.368049 26142 net.cpp:148] Top shape: 10 208 14 14 (407680)
I0727 20:17:08.368054 26142 net.cpp:156] Memory required for data: 363776000
I0727 20:17:08.368059 26142 layer_factory.hpp:77] Creating layer inception_4a/5x5_reduce
I0727 20:17:08.368080 26142 net.cpp:91] Creating Layer inception_4a/5x5_reduce
I0727 20:17:08.368086 26142 net.cpp:425] inception_4a/5x5_reduce <- pool3/3x3_s2_pool3/3x3_s2_0_split_2
I0727 20:17:08.368098 26142 net.cpp:399] inception_4a/5x5_reduce -> inception_4a/5x5_reduce
I0727 20:17:08.368150 26138 net.cpp:141] Setting up inception_4a/3x3
I0727 20:17:08.368167 26138 net.cpp:148] Top shape: 10 208 14 14 (407680)
I0727 20:17:08.368171 26138 net.cpp:156] Memory required for data: 362145280
I0727 20:17:08.368181 26138 layer_factory.hpp:77] Creating layer inception_4a/relu_3x3
I0727 20:17:08.368193 26138 net.cpp:91] Creating Layer inception_4a/relu_3x3
I0727 20:17:08.368201 26138 net.cpp:425] inception_4a/relu_3x3 <- inception_4a/3x3
I0727 20:17:08.368208 26138 net.cpp:386] inception_4a/relu_3x3 -> inception_4a/3x3 (in-place)
I0727 20:17:08.369140 26138 net.cpp:141] Setting up inception_4a/relu_3x3
I0727 20:17:08.369156 26138 net.cpp:148] Top shape: 10 208 14 14 (407680)
I0727 20:17:08.369161 26138 net.cpp:156] Memory required for data: 363776000
I0727 20:17:08.369166 26138 layer_factory.hpp:77] Creating layer inception_4a/5x5_reduce
I0727 20:17:08.369184 26138 net.cpp:91] Creating Layer inception_4a/5x5_reduce
I0727 20:17:08.369189 26138 net.cpp:425] inception_4a/5x5_reduce <- pool3/3x3_s2_pool3/3x3_s2_0_split_2
I0727 20:17:08.369199 26138 net.cpp:399] inception_4a/5x5_reduce -> inception_4a/5x5_reduce
I0727 20:17:08.379281 26142 net.cpp:141] Setting up inception_4a/5x5_reduce
I0727 20:17:08.379341 26142 net.cpp:148] Top shape: 10 16 14 14 (31360)
I0727 20:17:08.379350 26142 net.cpp:156] Memory required for data: 363901440
I0727 20:17:08.379371 26142 layer_factory.hpp:77] Creating layer inception_4a/relu_5x5_reduce
I0727 20:17:08.379391 26142 net.cpp:91] Creating Layer inception_4a/relu_5x5_reduce
I0727 20:17:08.379402 26142 net.cpp:425] inception_4a/relu_5x5_reduce <- inception_4a/5x5_reduce
I0727 20:17:08.379421 26142 net.cpp:386] inception_4a/relu_5x5_reduce -> inception_4a/5x5_reduce (in-place)
I0727 20:17:08.379879 26142 net.cpp:141] Setting up inception_4a/relu_5x5_reduce
I0727 20:17:08.379899 26142 net.cpp:148] Top shape: 10 16 14 14 (31360)
I0727 20:17:08.379905 26142 net.cpp:156] Memory required for data: 364026880
I0727 20:17:08.379912 26142 layer_factory.hpp:77] Creating layer inception_4a/5x5
I0727 20:17:08.379937 26142 net.cpp:91] Creating Layer inception_4a/5x5
I0727 20:17:08.379945 26142 net.cpp:425] inception_4a/5x5 <- inception_4a/5x5_reduce
I0727 20:17:08.379961 26142 net.cpp:399] inception_4a/5x5 -> inception_4a/5x5
I0727 20:17:08.384289 26142 net.cpp:141] Setting up inception_4a/5x5
I0727 20:17:08.384317 26142 net.cpp:148] Top shape: 10 48 14 14 (94080)
I0727 20:17:08.384326 26142 net.cpp:156] Memory required for data: 364403200
I0727 20:17:08.384341 26142 layer_factory.hpp:77] Creating layer inception_4a/relu_5x5
I0727 20:17:08.384358 26142 net.cpp:91] Creating Layer inception_4a/relu_5x5
I0727 20:17:08.384368 26142 net.cpp:425] inception_4a/relu_5x5 <- inception_4a/5x5
I0727 20:17:08.384379 26142 net.cpp:386] inception_4a/relu_5x5 -> inception_4a/5x5 (in-place)
I0727 20:17:08.384984 26138 net.cpp:141] Setting up inception_4a/5x5_reduce
I0727 20:17:08.385025 26138 net.cpp:148] Top shape: 10 16 14 14 (31360)
I0727 20:17:08.385035 26138 net.cpp:156] Memory required for data: 363901440
I0727 20:17:08.385058 26138 layer_factory.hpp:77] Creating layer inception_4a/relu_5x5_reduce
I0727 20:17:08.385118 26138 net.cpp:91] Creating Layer inception_4a/relu_5x5_reduce
I0727 20:17:08.385133 26138 net.cpp:425] inception_4a/relu_5x5_reduce <- inception_4a/5x5_reduce
I0727 20:17:08.385150 26138 net.cpp:386] inception_4a/relu_5x5_reduce -> inception_4a/5x5_reduce (in-place)
I0727 20:17:08.385607 26138 net.cpp:141] Setting up inception_4a/relu_5x5_reduce
I0727 20:17:08.385622 26138 net.cpp:148] Top shape: 10 16 14 14 (31360)
I0727 20:17:08.385630 26138 net.cpp:156] Memory required for data: 364026880
I0727 20:17:08.385638 26138 layer_factory.hpp:77] Creating layer inception_4a/5x5
I0727 20:17:08.385668 26138 net.cpp:91] Creating Layer inception_4a/5x5
I0727 20:17:08.385679 26138 net.cpp:425] inception_4a/5x5 <- inception_4a/5x5_reduce
I0727 20:17:08.385699 26138 net.cpp:399] inception_4a/5x5 -> inception_4a/5x5
I0727 20:17:08.386474 26142 net.cpp:141] Setting up inception_4a/relu_5x5
I0727 20:17:08.386499 26142 net.cpp:148] Top shape: 10 48 14 14 (94080)
I0727 20:17:08.386507 26142 net.cpp:156] Memory required for data: 364779520
I0727 20:17:08.386515 26142 layer_factory.hpp:77] Creating layer inception_4a/pool
I0727 20:17:08.386529 26142 net.cpp:91] Creating Layer inception_4a/pool
I0727 20:17:08.386538 26142 net.cpp:425] inception_4a/pool <- pool3/3x3_s2_pool3/3x3_s2_0_split_3
I0727 20:17:08.386555 26142 net.cpp:399] inception_4a/pool -> inception_4a/pool
I0727 20:17:08.388424 26142 net.cpp:141] Setting up inception_4a/pool
I0727 20:17:08.388445 26142 net.cpp:148] Top shape: 10 480 14 14 (940800)
I0727 20:17:08.388453 26142 net.cpp:156] Memory required for data: 368542720
I0727 20:17:08.388460 26142 layer_factory.hpp:77] Creating layer inception_4a/pool_proj
I0727 20:17:08.388486 26142 net.cpp:91] Creating Layer inception_4a/pool_proj
I0727 20:17:08.388496 26142 net.cpp:425] inception_4a/pool_proj <- inception_4a/pool
I0727 20:17:08.388512 26142 net.cpp:399] inception_4a/pool_proj -> inception_4a/pool_proj
I0727 20:17:08.391470 26138 net.cpp:141] Setting up inception_4a/5x5
I0727 20:17:08.391513 26138 net.cpp:148] Top shape: 10 48 14 14 (94080)
I0727 20:17:08.391528 26138 net.cpp:156] Memory required for data: 364403200
I0727 20:17:08.391554 26138 layer_factory.hpp:77] Creating layer inception_4a/relu_5x5
I0727 20:17:08.391577 26138 net.cpp:91] Creating Layer inception_4a/relu_5x5
I0727 20:17:08.391592 26138 net.cpp:425] inception_4a/relu_5x5 <- inception_4a/5x5
I0727 20:17:08.391607 26138 net.cpp:386] inception_4a/relu_5x5 -> inception_4a/5x5 (in-place)
I0727 20:17:08.392907 26138 net.cpp:141] Setting up inception_4a/relu_5x5
I0727 20:17:08.392927 26138 net.cpp:148] Top shape: 10 48 14 14 (94080)
I0727 20:17:08.392935 26138 net.cpp:156] Memory required for data: 364779520
I0727 20:17:08.392942 26138 layer_factory.hpp:77] Creating layer inception_4a/pool
I0727 20:17:08.392958 26138 net.cpp:91] Creating Layer inception_4a/pool
I0727 20:17:08.392967 26138 net.cpp:425] inception_4a/pool <- pool3/3x3_s2_pool3/3x3_s2_0_split_3
I0727 20:17:08.392981 26138 net.cpp:399] inception_4a/pool -> inception_4a/pool
I0727 20:17:08.394191 26138 net.cpp:141] Setting up inception_4a/pool
I0727 20:17:08.394210 26138 net.cpp:148] Top shape: 10 480 14 14 (940800)
I0727 20:17:08.394217 26138 net.cpp:156] Memory required for data: 368542720
I0727 20:17:08.394224 26138 layer_factory.hpp:77] Creating layer inception_4a/pool_proj
I0727 20:17:08.394249 26138 net.cpp:91] Creating Layer inception_4a/pool_proj
I0727 20:17:08.394258 26138 net.cpp:425] inception_4a/pool_proj <- inception_4a/pool
I0727 20:17:08.394271 26138 net.cpp:399] inception_4a/pool_proj -> inception_4a/pool_proj
I0727 20:17:08.396375 26142 net.cpp:141] Setting up inception_4a/pool_proj
I0727 20:17:08.396402 26142 net.cpp:148] Top shape: 10 64 14 14 (125440)
I0727 20:17:08.396410 26142 net.cpp:156] Memory required for data: 369044480
I0727 20:17:08.396425 26142 layer_factory.hpp:77] Creating layer inception_4a/relu_pool_proj
I0727 20:17:08.396436 26142 net.cpp:91] Creating Layer inception_4a/relu_pool_proj
I0727 20:17:08.396445 26142 net.cpp:425] inception_4a/relu_pool_proj <- inception_4a/pool_proj
I0727 20:17:08.396459 26142 net.cpp:386] inception_4a/relu_pool_proj -> inception_4a/pool_proj (in-place)
I0727 20:17:08.397392 26142 net.cpp:141] Setting up inception_4a/relu_pool_proj
I0727 20:17:08.397404 26142 net.cpp:148] Top shape: 10 64 14 14 (125440)
I0727 20:17:08.397409 26142 net.cpp:156] Memory required for data: 369546240
I0727 20:17:08.397414 26142 layer_factory.hpp:77] Creating layer inception_4a/output
I0727 20:17:08.397423 26142 net.cpp:91] Creating Layer inception_4a/output
I0727 20:17:08.397428 26142 net.cpp:425] inception_4a/output <- inception_4a/1x1
I0727 20:17:08.397434 26142 net.cpp:425] inception_4a/output <- inception_4a/3x3
I0727 20:17:08.397440 26142 net.cpp:425] inception_4a/output <- inception_4a/5x5
I0727 20:17:08.397445 26142 net.cpp:425] inception_4a/output <- inception_4a/pool_proj
I0727 20:17:08.397455 26142 net.cpp:399] inception_4a/output -> inception_4a/output
I0727 20:17:08.398288 26142 net.cpp:141] Setting up inception_4a/output
I0727 20:17:08.398300 26142 net.cpp:148] Top shape: 10 512 14 14 (1003520)
I0727 20:17:08.398305 26142 net.cpp:156] Memory required for data: 373560320
I0727 20:17:08.398310 26142 layer_factory.hpp:77] Creating layer inception_4a/output_inception_4a/output_0_split
I0727 20:17:08.398325 26142 net.cpp:91] Creating Layer inception_4a/output_inception_4a/output_0_split
I0727 20:17:08.398330 26142 net.cpp:425] inception_4a/output_inception_4a/output_0_split <- inception_4a/output
I0727 20:17:08.398337 26142 net.cpp:399] inception_4a/output_inception_4a/output_0_split -> inception_4a/output_inception_4a/output_0_split_0
I0727 20:17:08.398346 26142 net.cpp:399] inception_4a/output_inception_4a/output_0_split -> inception_4a/output_inception_4a/output_0_split_1
I0727 20:17:08.398356 26142 net.cpp:399] inception_4a/output_inception_4a/output_0_split -> inception_4a/output_inception_4a/output_0_split_2
I0727 20:17:08.398365 26142 net.cpp:399] inception_4a/output_inception_4a/output_0_split -> inception_4a/output_inception_4a/output_0_split_3
I0727 20:17:08.399329 26142 net.cpp:141] Setting up inception_4a/output_inception_4a/output_0_split
I0727 20:17:08.399344 26142 net.cpp:148] Top shape: 10 512 14 14 (1003520)
I0727 20:17:08.399350 26142 net.cpp:148] Top shape: 10 512 14 14 (1003520)
I0727 20:17:08.399355 26142 net.cpp:148] Top shape: 10 512 14 14 (1003520)
I0727 20:17:08.399360 26142 net.cpp:148] Top shape: 10 512 14 14 (1003520)
I0727 20:17:08.399363 26142 net.cpp:156] Memory required for data: 389616640
I0727 20:17:08.399369 26142 layer_factory.hpp:77] Creating layer inception_4b/1x1
I0727 20:17:08.399387 26142 net.cpp:91] Creating Layer inception_4b/1x1
I0727 20:17:08.399394 26142 net.cpp:425] inception_4b/1x1 <- inception_4a/output_inception_4a/output_0_split_0
I0727 20:17:08.399401 26142 net.cpp:399] inception_4b/1x1 -> inception_4b/1x1
I0727 20:17:08.400508 26138 net.cpp:141] Setting up inception_4a/pool_proj
I0727 20:17:08.400532 26138 net.cpp:148] Top shape: 10 64 14 14 (125440)
I0727 20:17:08.400537 26138 net.cpp:156] Memory required for data: 369044480
I0727 20:17:08.400547 26138 layer_factory.hpp:77] Creating layer inception_4a/relu_pool_proj
I0727 20:17:08.400560 26138 net.cpp:91] Creating Layer inception_4a/relu_pool_proj
I0727 20:17:08.400566 26138 net.cpp:425] inception_4a/relu_pool_proj <- inception_4a/pool_proj
I0727 20:17:08.400575 26138 net.cpp:386] inception_4a/relu_pool_proj -> inception_4a/pool_proj (in-place)
I0727 20:17:08.401520 26138 net.cpp:141] Setting up inception_4a/relu_pool_proj
I0727 20:17:08.401537 26138 net.cpp:148] Top shape: 10 64 14 14 (125440)
I0727 20:17:08.401541 26138 net.cpp:156] Memory required for data: 369546240
I0727 20:17:08.401546 26138 layer_factory.hpp:77] Creating layer inception_4a/output
I0727 20:17:08.401556 26138 net.cpp:91] Creating Layer inception_4a/output
I0727 20:17:08.401561 26138 net.cpp:425] inception_4a/output <- inception_4a/1x1
I0727 20:17:08.401568 26138 net.cpp:425] inception_4a/output <- inception_4a/3x3
I0727 20:17:08.401573 26138 net.cpp:425] inception_4a/output <- inception_4a/5x5
I0727 20:17:08.401577 26138 net.cpp:425] inception_4a/output <- inception_4a/pool_proj
I0727 20:17:08.401587 26138 net.cpp:399] inception_4a/output -> inception_4a/output
I0727 20:17:08.401732 26138 net.cpp:141] Setting up inception_4a/output
I0727 20:17:08.401743 26138 net.cpp:148] Top shape: 10 512 14 14 (1003520)
I0727 20:17:08.401747 26138 net.cpp:156] Memory required for data: 373560320
I0727 20:17:08.401752 26138 layer_factory.hpp:77] Creating layer inception_4a/output_inception_4a/output_0_split
I0727 20:17:08.401760 26138 net.cpp:91] Creating Layer inception_4a/output_inception_4a/output_0_split
I0727 20:17:08.401764 26138 net.cpp:425] inception_4a/output_inception_4a/output_0_split <- inception_4a/output
I0727 20:17:08.401773 26138 net.cpp:399] inception_4a/output_inception_4a/output_0_split -> inception_4a/output_inception_4a/output_0_split_0
I0727 20:17:08.401782 26138 net.cpp:399] inception_4a/output_inception_4a/output_0_split -> inception_4a/output_inception_4a/output_0_split_1
I0727 20:17:08.401790 26138 net.cpp:399] inception_4a/output_inception_4a/output_0_split -> inception_4a/output_inception_4a/output_0_split_2
I0727 20:17:08.401798 26138 net.cpp:399] inception_4a/output_inception_4a/output_0_split -> inception_4a/output_inception_4a/output_0_split_3
I0727 20:17:08.403090 26138 net.cpp:141] Setting up inception_4a/output_inception_4a/output_0_split
I0727 20:17:08.403105 26138 net.cpp:148] Top shape: 10 512 14 14 (1003520)
I0727 20:17:08.403110 26138 net.cpp:148] Top shape: 10 512 14 14 (1003520)
I0727 20:17:08.403116 26138 net.cpp:148] Top shape: 10 512 14 14 (1003520)
I0727 20:17:08.403120 26138 net.cpp:148] Top shape: 10 512 14 14 (1003520)
I0727 20:17:08.403125 26138 net.cpp:156] Memory required for data: 389616640
I0727 20:17:08.403129 26138 layer_factory.hpp:77] Creating layer inception_4b/1x1
I0727 20:17:08.403156 26138 net.cpp:91] Creating Layer inception_4b/1x1
I0727 20:17:08.403164 26138 net.cpp:425] inception_4b/1x1 <- inception_4a/output_inception_4a/output_0_split_0
I0727 20:17:08.403172 26138 net.cpp:399] inception_4b/1x1 -> inception_4b/1x1
I0727 20:17:08.404765 26142 net.cpp:141] Setting up inception_4b/1x1
I0727 20:17:08.404798 26142 net.cpp:148] Top shape: 10 160 14 14 (313600)
I0727 20:17:08.404803 26142 net.cpp:156] Memory required for data: 390871040
I0727 20:17:08.404814 26142 layer_factory.hpp:77] Creating layer inception_4b/relu_1x1
I0727 20:17:08.404824 26142 net.cpp:91] Creating Layer inception_4b/relu_1x1
I0727 20:17:08.404830 26142 net.cpp:425] inception_4b/relu_1x1 <- inception_4b/1x1
I0727 20:17:08.404839 26142 net.cpp:386] inception_4b/relu_1x1 -> inception_4b/1x1 (in-place)
I0727 20:17:08.405088 26142 net.cpp:141] Setting up inception_4b/relu_1x1
I0727 20:17:08.405099 26142 net.cpp:148] Top shape: 10 160 14 14 (313600)
I0727 20:17:08.405103 26142 net.cpp:156] Memory required for data: 392125440
I0727 20:17:08.405108 26142 layer_factory.hpp:77] Creating layer inception_4b/3x3_reduce
I0727 20:17:08.405124 26142 net.cpp:91] Creating Layer inception_4b/3x3_reduce
I0727 20:17:08.405130 26142 net.cpp:425] inception_4b/3x3_reduce <- inception_4a/output_inception_4a/output_0_split_1
I0727 20:17:08.405141 26142 net.cpp:399] inception_4b/3x3_reduce -> inception_4b/3x3_reduce
I0727 20:17:08.409688 26138 net.cpp:141] Setting up inception_4b/1x1
I0727 20:17:08.409713 26138 net.cpp:148] Top shape: 10 160 14 14 (313600)
I0727 20:17:08.409718 26138 net.cpp:156] Memory required for data: 390871040
I0727 20:17:08.409726 26138 layer_factory.hpp:77] Creating layer inception_4b/relu_1x1
I0727 20:17:08.409739 26138 net.cpp:91] Creating Layer inception_4b/relu_1x1
I0727 20:17:08.409745 26138 net.cpp:425] inception_4b/relu_1x1 <- inception_4b/1x1
I0727 20:17:08.409752 26138 net.cpp:386] inception_4b/relu_1x1 -> inception_4b/1x1 (in-place)
I0727 20:17:08.410078 26142 net.cpp:141] Setting up inception_4b/3x3_reduce
I0727 20:17:08.410102 26142 net.cpp:148] Top shape: 10 112 14 14 (219520)
I0727 20:17:08.410106 26142 net.cpp:156] Memory required for data: 393003520
I0727 20:17:08.410106 26138 net.cpp:141] Setting up inception_4b/relu_1x1
I0727 20:17:08.410120 26138 net.cpp:148] Top shape: 10 160 14 14 (313600)
I0727 20:17:08.410121 26142 layer_factory.hpp:77] Creating layer inception_4b/relu_3x3_reduce
I0727 20:17:08.410125 26138 net.cpp:156] Memory required for data: 392125440
I0727 20:17:08.410130 26138 layer_factory.hpp:77] Creating layer inception_4b/3x3_reduce
I0727 20:17:08.410136 26142 net.cpp:91] Creating Layer inception_4b/relu_3x3_reduce
I0727 20:17:08.410143 26142 net.cpp:425] inception_4b/relu_3x3_reduce <- inception_4b/3x3_reduce
I0727 20:17:08.410146 26138 net.cpp:91] Creating Layer inception_4b/3x3_reduce
I0727 20:17:08.410153 26138 net.cpp:425] inception_4b/3x3_reduce <- inception_4a/output_inception_4a/output_0_split_1
I0727 20:17:08.410153 26142 net.cpp:386] inception_4b/relu_3x3_reduce -> inception_4b/3x3_reduce (in-place)
I0727 20:17:08.410164 26138 net.cpp:399] inception_4b/3x3_reduce -> inception_4b/3x3_reduce
I0727 20:17:08.410593 26142 net.cpp:141] Setting up inception_4b/relu_3x3_reduce
I0727 20:17:08.410604 26142 net.cpp:148] Top shape: 10 112 14 14 (219520)
I0727 20:17:08.410609 26142 net.cpp:156] Memory required for data: 393881600
I0727 20:17:08.410614 26142 layer_factory.hpp:77] Creating layer inception_4b/3x3
I0727 20:17:08.410631 26142 net.cpp:91] Creating Layer inception_4b/3x3
I0727 20:17:08.410636 26142 net.cpp:425] inception_4b/3x3 <- inception_4b/3x3_reduce
I0727 20:17:08.410646 26142 net.cpp:399] inception_4b/3x3 -> inception_4b/3x3
I0727 20:17:08.418890 26138 net.cpp:141] Setting up inception_4b/3x3_reduce
I0727 20:17:08.418956 26138 net.cpp:148] Top shape: 10 112 14 14 (219520)
I0727 20:17:08.418962 26138 net.cpp:156] Memory required for data: 393003520
I0727 20:17:08.418977 26138 layer_factory.hpp:77] Creating layer inception_4b/relu_3x3_reduce
I0727 20:17:08.418998 26138 net.cpp:91] Creating Layer inception_4b/relu_3x3_reduce
I0727 20:17:08.419006 26138 net.cpp:425] inception_4b/relu_3x3_reduce <- inception_4b/3x3_reduce
I0727 20:17:08.419018 26138 net.cpp:386] inception_4b/relu_3x3_reduce -> inception_4b/3x3_reduce (in-place)
I0727 20:17:08.419387 26138 net.cpp:141] Setting up inception_4b/relu_3x3_reduce
I0727 20:17:08.419399 26138 net.cpp:148] Top shape: 10 112 14 14 (219520)
I0727 20:17:08.419404 26138 net.cpp:156] Memory required for data: 393881600
I0727 20:17:08.419407 26138 layer_factory.hpp:77] Creating layer inception_4b/3x3
I0727 20:17:08.419430 26138 net.cpp:91] Creating Layer inception_4b/3x3
I0727 20:17:08.419436 26138 net.cpp:425] inception_4b/3x3 <- inception_4b/3x3_reduce
I0727 20:17:08.419445 26138 net.cpp:399] inception_4b/3x3 -> inception_4b/3x3
I0727 20:17:08.423144 26142 net.cpp:141] Setting up inception_4b/3x3
I0727 20:17:08.423184 26142 net.cpp:148] Top shape: 10 224 14 14 (439040)
I0727 20:17:08.423189 26142 net.cpp:156] Memory required for data: 395637760
I0727 20:17:08.423202 26142 layer_factory.hpp:77] Creating layer inception_4b/relu_3x3
I0727 20:17:08.423220 26142 net.cpp:91] Creating Layer inception_4b/relu_3x3
I0727 20:17:08.423229 26142 net.cpp:425] inception_4b/relu_3x3 <- inception_4b/3x3
I0727 20:17:08.423238 26142 net.cpp:386] inception_4b/relu_3x3 -> inception_4b/3x3 (in-place)
I0727 20:17:08.424413 26142 net.cpp:141] Setting up inception_4b/relu_3x3
I0727 20:17:08.424428 26142 net.cpp:148] Top shape: 10 224 14 14 (439040)
I0727 20:17:08.424433 26142 net.cpp:156] Memory required for data: 397393920
I0727 20:17:08.424438 26142 layer_factory.hpp:77] Creating layer inception_4b/5x5_reduce
I0727 20:17:08.424471 26142 net.cpp:91] Creating Layer inception_4b/5x5_reduce
I0727 20:17:08.424477 26142 net.cpp:425] inception_4b/5x5_reduce <- inception_4a/output_inception_4a/output_0_split_2
I0727 20:17:08.424490 26142 net.cpp:399] inception_4b/5x5_reduce -> inception_4b/5x5_reduce
I0727 20:17:08.429316 26138 net.cpp:141] Setting up inception_4b/3x3
I0727 20:17:08.429348 26138 net.cpp:148] Top shape: 10 224 14 14 (439040)
I0727 20:17:08.429353 26138 net.cpp:156] Memory required for data: 395637760
I0727 20:17:08.429364 26138 layer_factory.hpp:77] Creating layer inception_4b/relu_3x3
I0727 20:17:08.429378 26138 net.cpp:91] Creating Layer inception_4b/relu_3x3
I0727 20:17:08.429386 26138 net.cpp:425] inception_4b/relu_3x3 <- inception_4b/3x3
I0727 20:17:08.429394 26138 net.cpp:386] inception_4b/relu_3x3 -> inception_4b/3x3 (in-place)
I0727 20:17:08.430524 26138 net.cpp:141] Setting up inception_4b/relu_3x3
I0727 20:17:08.430542 26138 net.cpp:148] Top shape: 10 224 14 14 (439040)
I0727 20:17:08.430547 26138 net.cpp:156] Memory required for data: 397393920
I0727 20:17:08.430553 26138 layer_factory.hpp:77] Creating layer inception_4b/5x5_reduce
I0727 20:17:08.430555 26142 net.cpp:141] Setting up inception_4b/5x5_reduce
I0727 20:17:08.430570 26142 net.cpp:148] Top shape: 10 24 14 14 (47040)
I0727 20:17:08.430575 26142 net.cpp:156] Memory required for data: 397582080
I0727 20:17:08.430586 26142 layer_factory.hpp:77] Creating layer inception_4b/relu_5x5_reduce
I0727 20:17:08.430586 26138 net.cpp:91] Creating Layer inception_4b/5x5_reduce
I0727 20:17:08.430595 26138 net.cpp:425] inception_4b/5x5_reduce <- inception_4a/output_inception_4a/output_0_split_2
I0727 20:17:08.430598 26142 net.cpp:91] Creating Layer inception_4b/relu_5x5_reduce
I0727 20:17:08.430604 26142 net.cpp:425] inception_4b/relu_5x5_reduce <- inception_4b/5x5_reduce
I0727 20:17:08.430605 26138 net.cpp:399] inception_4b/5x5_reduce -> inception_4b/5x5_reduce
I0727 20:17:08.430613 26142 net.cpp:386] inception_4b/relu_5x5_reduce -> inception_4b/5x5_reduce (in-place)
I0727 20:17:08.431004 26142 net.cpp:141] Setting up inception_4b/relu_5x5_reduce
I0727 20:17:08.431015 26142 net.cpp:148] Top shape: 10 24 14 14 (47040)
I0727 20:17:08.431020 26142 net.cpp:156] Memory required for data: 397770240
I0727 20:17:08.431025 26142 layer_factory.hpp:77] Creating layer inception_4b/5x5
I0727 20:17:08.431042 26142 net.cpp:91] Creating Layer inception_4b/5x5
I0727 20:17:08.431048 26142 net.cpp:425] inception_4b/5x5 <- inception_4b/5x5_reduce
I0727 20:17:08.431056 26142 net.cpp:399] inception_4b/5x5 -> inception_4b/5x5
I0727 20:17:08.437137 26138 net.cpp:141] Setting up inception_4b/5x5_reduce
I0727 20:17:08.437175 26138 net.cpp:148] Top shape: 10 24 14 14 (47040)
I0727 20:17:08.437180 26138 net.cpp:156] Memory required for data: 397582080
I0727 20:17:08.437194 26138 layer_factory.hpp:77] Creating layer inception_4b/relu_5x5_reduce
I0727 20:17:08.437208 26138 net.cpp:91] Creating Layer inception_4b/relu_5x5_reduce
I0727 20:17:08.437216 26138 net.cpp:425] inception_4b/relu_5x5_reduce <- inception_4b/5x5_reduce
I0727 20:17:08.437224 26138 net.cpp:386] inception_4b/relu_5x5_reduce -> inception_4b/5x5_reduce (in-place)
I0727 20:17:08.437567 26138 net.cpp:141] Setting up inception_4b/relu_5x5_reduce
I0727 20:17:08.437578 26138 net.cpp:148] Top shape: 10 24 14 14 (47040)
I0727 20:17:08.437583 26138 net.cpp:156] Memory required for data: 397770240
I0727 20:17:08.437587 26138 layer_factory.hpp:77] Creating layer inception_4b/5x5
I0727 20:17:08.437608 26138 net.cpp:91] Creating Layer inception_4b/5x5
I0727 20:17:08.437613 26138 net.cpp:425] inception_4b/5x5 <- inception_4b/5x5_reduce
I0727 20:17:08.437624 26138 net.cpp:399] inception_4b/5x5 -> inception_4b/5x5
I0727 20:17:08.443722 26142 net.cpp:141] Setting up inception_4b/5x5
I0727 20:17:08.443766 26142 net.cpp:148] Top shape: 10 64 14 14 (125440)
I0727 20:17:08.443775 26142 net.cpp:156] Memory required for data: 398272000
I0727 20:17:08.443794 26142 layer_factory.hpp:77] Creating layer inception_4b/relu_5x5
I0727 20:17:08.443812 26142 net.cpp:91] Creating Layer inception_4b/relu_5x5
I0727 20:17:08.443822 26142 net.cpp:425] inception_4b/relu_5x5 <- inception_4b/5x5
I0727 20:17:08.443840 26142 net.cpp:386] inception_4b/relu_5x5 -> inception_4b/5x5 (in-place)
I0727 20:17:08.444380 26142 net.cpp:141] Setting up inception_4b/relu_5x5
I0727 20:17:08.444396 26142 net.cpp:148] Top shape: 10 64 14 14 (125440)
I0727 20:17:08.444403 26142 net.cpp:156] Memory required for data: 398773760
I0727 20:17:08.444411 26142 layer_factory.hpp:77] Creating layer inception_4b/pool
I0727 20:17:08.444427 26142 net.cpp:91] Creating Layer inception_4b/pool
I0727 20:17:08.444435 26142 net.cpp:425] inception_4b/pool <- inception_4a/output_inception_4a/output_0_split_3
I0727 20:17:08.444448 26142 net.cpp:399] inception_4b/pool -> inception_4b/pool
I0727 20:17:08.445092 26142 net.cpp:141] Setting up inception_4b/pool
I0727 20:17:08.445111 26142 net.cpp:148] Top shape: 10 512 14 14 (1003520)
I0727 20:17:08.445117 26142 net.cpp:156] Memory required for data: 402787840
I0727 20:17:08.445124 26142 layer_factory.hpp:77] Creating layer inception_4b/pool_proj
I0727 20:17:08.445149 26142 net.cpp:91] Creating Layer inception_4b/pool_proj
I0727 20:17:08.445159 26142 net.cpp:425] inception_4b/pool_proj <- inception_4b/pool
I0727 20:17:08.445176 26142 net.cpp:399] inception_4b/pool_proj -> inception_4b/pool_proj
I0727 20:17:08.445758 26138 net.cpp:141] Setting up inception_4b/5x5
I0727 20:17:08.445793 26138 net.cpp:148] Top shape: 10 64 14 14 (125440)
I0727 20:17:08.445798 26138 net.cpp:156] Memory required for data: 398272000
I0727 20:17:08.445811 26138 layer_factory.hpp:77] Creating layer inception_4b/relu_5x5
I0727 20:17:08.445827 26138 net.cpp:91] Creating Layer inception_4b/relu_5x5
I0727 20:17:08.445835 26138 net.cpp:425] inception_4b/relu_5x5 <- inception_4b/5x5
I0727 20:17:08.445845 26138 net.cpp:386] inception_4b/relu_5x5 -> inception_4b/5x5 (in-place)
I0727 20:17:08.446303 26138 net.cpp:141] Setting up inception_4b/relu_5x5
I0727 20:17:08.446319 26138 net.cpp:148] Top shape: 10 64 14 14 (125440)
I0727 20:17:08.446323 26138 net.cpp:156] Memory required for data: 398773760
I0727 20:17:08.446329 26138 layer_factory.hpp:77] Creating layer inception_4b/pool
I0727 20:17:08.446338 26138 net.cpp:91] Creating Layer inception_4b/pool
I0727 20:17:08.446344 26138 net.cpp:425] inception_4b/pool <- inception_4a/output_inception_4a/output_0_split_3
I0727 20:17:08.446352 26138 net.cpp:399] inception_4b/pool -> inception_4b/pool
I0727 20:17:08.446483 26138 net.cpp:141] Setting up inception_4b/pool
I0727 20:17:08.446494 26138 net.cpp:148] Top shape: 10 512 14 14 (1003520)
I0727 20:17:08.446498 26138 net.cpp:156] Memory required for data: 402787840
I0727 20:17:08.446502 26138 layer_factory.hpp:77] Creating layer inception_4b/pool_proj
I0727 20:17:08.446521 26138 net.cpp:91] Creating Layer inception_4b/pool_proj
I0727 20:17:08.446527 26138 net.cpp:425] inception_4b/pool_proj <- inception_4b/pool
I0727 20:17:08.446537 26138 net.cpp:399] inception_4b/pool_proj -> inception_4b/pool_proj
I0727 20:17:08.451871 26142 net.cpp:141] Setting up inception_4b/pool_proj
I0727 20:17:08.451897 26142 net.cpp:148] Top shape: 10 64 14 14 (125440)
I0727 20:17:08.451905 26142 net.cpp:156] Memory required for data: 403289600
I0727 20:17:08.451920 26142 layer_factory.hpp:77] Creating layer inception_4b/relu_pool_proj
I0727 20:17:08.451936 26142 net.cpp:91] Creating Layer inception_4b/relu_pool_proj
I0727 20:17:08.451944 26142 net.cpp:425] inception_4b/relu_pool_proj <- inception_4b/pool_proj
I0727 20:17:08.451954 26142 net.cpp:386] inception_4b/relu_pool_proj -> inception_4b/pool_proj (in-place)
I0727 20:17:08.453152 26142 net.cpp:141] Setting up inception_4b/relu_pool_proj
I0727 20:17:08.453173 26142 net.cpp:148] Top shape: 10 64 14 14 (125440)
I0727 20:17:08.453182 26142 net.cpp:156] Memory required for data: 403791360
I0727 20:17:08.453181 26138 net.cpp:141] Setting up inception_4b/pool_proj
I0727 20:17:08.453191 26142 layer_factory.hpp:77] Creating layer inception_4b/output
I0727 20:17:08.453205 26138 net.cpp:148] Top shape: 10 64 14 14 (125440)
I0727 20:17:08.453212 26138 net.cpp:156] Memory required for data: 403289600
I0727 20:17:08.453220 26142 net.cpp:91] Creating Layer inception_4b/output
I0727 20:17:08.453222 26138 layer_factory.hpp:77] Creating layer inception_4b/relu_pool_proj
I0727 20:17:08.453233 26142 net.cpp:425] inception_4b/output <- inception_4b/1x1
I0727 20:17:08.453241 26138 net.cpp:91] Creating Layer inception_4b/relu_pool_proj
I0727 20:17:08.453245 26142 net.cpp:425] inception_4b/output <- inception_4b/3x3
I0727 20:17:08.453248 26138 net.cpp:425] inception_4b/relu_pool_proj <- inception_4b/pool_proj
I0727 20:17:08.453254 26142 net.cpp:425] inception_4b/output <- inception_4b/5x5
I0727 20:17:08.453261 26138 net.cpp:386] inception_4b/relu_pool_proj -> inception_4b/pool_proj (in-place)
I0727 20:17:08.453264 26142 net.cpp:425] inception_4b/output <- inception_4b/pool_proj
I0727 20:17:08.453275 26142 net.cpp:399] inception_4b/output -> inception_4b/output
I0727 20:17:08.454053 26142 net.cpp:141] Setting up inception_4b/output
I0727 20:17:08.454074 26142 net.cpp:148] Top shape: 10 512 14 14 (1003520)
I0727 20:17:08.454082 26142 net.cpp:156] Memory required for data: 407805440
I0727 20:17:08.454089 26142 layer_factory.hpp:77] Creating layer inception_4b/output_inception_4b/output_0_split
I0727 20:17:08.454102 26142 net.cpp:91] Creating Layer inception_4b/output_inception_4b/output_0_split
I0727 20:17:08.454109 26142 net.cpp:425] inception_4b/output_inception_4b/output_0_split <- inception_4b/output
I0727 20:17:08.454120 26142 net.cpp:399] inception_4b/output_inception_4b/output_0_split -> inception_4b/output_inception_4b/output_0_split_0
I0727 20:17:08.454134 26142 net.cpp:399] inception_4b/output_inception_4b/output_0_split -> inception_4b/output_inception_4b/output_0_split_1
I0727 20:17:08.454144 26138 net.cpp:141] Setting up inception_4b/relu_pool_proj
I0727 20:17:08.454149 26142 net.cpp:399] inception_4b/output_inception_4b/output_0_split -> inception_4b/output_inception_4b/output_0_split_2
I0727 20:17:08.454162 26138 net.cpp:148] Top shape: 10 64 14 14 (125440)
I0727 20:17:08.454176 26138 net.cpp:156] Memory required for data: 403791360
I0727 20:17:08.454181 26138 layer_factory.hpp:77] Creating layer inception_4b/output
I0727 20:17:08.454181 26142 net.cpp:399] inception_4b/output_inception_4b/output_0_split -> inception_4b/output_inception_4b/output_0_split_3
I0727 20:17:08.454195 26138 net.cpp:91] Creating Layer inception_4b/output
I0727 20:17:08.454201 26138 net.cpp:425] inception_4b/output <- inception_4b/1x1
I0727 20:17:08.454208 26138 net.cpp:425] inception_4b/output <- inception_4b/3x3
I0727 20:17:08.454213 26138 net.cpp:425] inception_4b/output <- inception_4b/5x5
I0727 20:17:08.454218 26138 net.cpp:425] inception_4b/output <- inception_4b/pool_proj
I0727 20:17:08.454227 26138 net.cpp:399] inception_4b/output -> inception_4b/output
I0727 20:17:08.454370 26138 net.cpp:141] Setting up inception_4b/output
I0727 20:17:08.454380 26138 net.cpp:148] Top shape: 10 512 14 14 (1003520)
I0727 20:17:08.454385 26138 net.cpp:156] Memory required for data: 407805440
I0727 20:17:08.454390 26138 layer_factory.hpp:77] Creating layer inception_4b/output_inception_4b/output_0_split
…
I0727 20:17:08.597553 26138 net.cpp:425] inception_4e/relu_5x5 <- inception_4e/5x5
I0727 20:17:08.597568 26138 net.cpp:386] inception_4e/relu_5x5 -> inception_4e/5x5 (in-place)
I0727 20:17:08.598129 26142 net.cpp:141] Setting up inception_4e/5x5
I0727 20:17:08.598145 26142 net.cpp:148] Top shape: 10 128 14 14 (250880)
I0727 20:17:08.598150 26142 net.cpp:156] Memory required for data: 507153920
I0727 20:17:08.598158 26142 layer_factory.hpp:77] Creating layer inception_4e/relu_5x5
I0727 20:17:08.598177 26142 net.cpp:91] Creating Layer inception_4e/relu_5x5
I0727 20:17:08.598179 26138 net.cpp:141] Setting up inception_4e/relu_5x5
I0727 20:17:08.598186 26142 net.cpp:425] inception_4e/relu_5x5 <- inception_4e/5x5
I0727 20:17:08.598202 26138 net.cpp:148] Top shape: 10 128 14 14 (250880)
I0727 20:17:08.598206 26142 net.cpp:386] inception_4e/relu_5x5 -> inception_4e/5x5 (in-place)
I0727 20:17:08.598217 26138 net.cpp:156] Memory required for data: 508157440
I0727 20:17:08.598227 26138 layer_factory.hpp:77] Creating layer inception_4e/pool
I0727 20:17:08.598247 26138 net.cpp:91] Creating Layer inception_4e/pool
I0727 20:17:08.598260 26138 net.cpp:425] inception_4e/pool <- inception_4d/output_inception_4d/output_0_split_3
I0727 20:17:08.598276 26138 net.cpp:399] inception_4e/pool -> inception_4e/pool
I0727 20:17:08.598570 26138 net.cpp:141] Setting up inception_4e/pool
I0727 20:17:08.598588 26138 net.cpp:148] Top shape: 10 528 14 14 (1034880)
I0727 20:17:08.598592 26142 net.cpp:141] Setting up inception_4e/relu_5x5
I0727 20:17:08.598597 26138 net.cpp:156] Memory required for data: 512296960
I0727 20:17:08.598603 26142 net.cpp:148] Top shape: 10 128 14 14 (250880)
I0727 20:17:08.598608 26142 net.cpp:156] Memory required for data: 508157440
I0727 20:17:08.598606 26138 layer_factory.hpp:77] Creating layer inception_4e/pool_proj
I0727 20:17:08.598613 26142 layer_factory.hpp:77] Creating layer inception_4e/pool
I0727 20:17:08.598630 26142 net.cpp:91] Creating Layer inception_4e/pool
I0727 20:17:08.598636 26142 net.cpp:425] inception_4e/pool <- inception_4d/output_inception_4d/output_0_split_3
I0727 20:17:08.598644 26142 net.cpp:399] inception_4e/pool -> inception_4e/pool
I0727 20:17:08.598645 26138 net.cpp:91] Creating Layer inception_4e/pool_proj
I0727 20:17:08.598659 26138 net.cpp:425] inception_4e/pool_proj <- inception_4e/pool
I0727 20:17:08.598683 26138 net.cpp:399] inception_4e/pool_proj -> inception_4e/pool_proj
I0727 20:17:08.598816 26142 net.cpp:141] Setting up inception_4e/pool
I0727 20:17:08.598827 26142 net.cpp:148] Top shape: 10 528 14 14 (1034880)
I0727 20:17:08.598831 26142 net.cpp:156] Memory required for data: 512296960
I0727 20:17:08.598836 26142 layer_factory.hpp:77] Creating layer inception_4e/pool_proj
I0727 20:17:08.598851 26142 net.cpp:91] Creating Layer inception_4e/pool_proj
I0727 20:17:08.598857 26142 net.cpp:425] inception_4e/pool_proj <- inception_4e/pool
I0727 20:17:08.598868 26142 net.cpp:399] inception_4e/pool_proj -> inception_4e/pool_proj
I0727 20:17:08.604441 26142 net.cpp:141] Setting up inception_4e/pool_proj
I0727 20:17:08.604470 26142 net.cpp:148] Top shape: 10 128 14 14 (250880)
I0727 20:17:08.604475 26142 net.cpp:156] Memory required for data: 513300480
I0727 20:17:08.604485 26142 layer_factory.hpp:77] Creating layer inception_4e/relu_pool_proj
I0727 20:17:08.604496 26142 net.cpp:91] Creating Layer inception_4e/relu_pool_proj
I0727 20:17:08.604503 26142 net.cpp:425] inception_4e/relu_pool_proj <- inception_4e/pool_proj
I0727 20:17:08.604511 26142 net.cpp:386] inception_4e/relu_pool_proj -> inception_4e/pool_proj (in-place)
I0727 20:17:08.605480 26142 net.cpp:141] Setting up inception_4e/relu_pool_proj
I0727 20:17:08.605495 26142 net.cpp:148] Top shape: 10 128 14 14 (250880)
I0727 20:17:08.605500 26142 net.cpp:156] Memory required for data: 514304000
I0727 20:17:08.605505 26142 layer_factory.hpp:77] Creating layer inception_4e/output
I0727 20:17:08.605514 26142 net.cpp:91] Creating Layer inception_4e/output
I0727 20:17:08.605520 26142 net.cpp:425] inception_4e/output <- inception_4e/1x1
I0727 20:17:08.605525 26142 net.cpp:425] inception_4e/output <- inception_4e/3x3
I0727 20:17:08.605530 26142 net.cpp:425] inception_4e/output <- inception_4e/5x5
I0727 20:17:08.605535 26142 net.cpp:425] inception_4e/output <- inception_4e/pool_proj
I0727 20:17:08.605545 26142 net.cpp:399] inception_4e/output -> inception_4e/output
I0727 20:17:08.605674 26142 net.cpp:141] Setting up inception_4e/output
I0727 20:17:08.605684 26142 net.cpp:148] Top shape: 10 832 14 14 (1630720)
I0727 20:17:08.605689 26142 net.cpp:156] Memory required for data: 520826880
I0727 20:17:08.605693 26142 layer_factory.hpp:77] Creating layer pool4/3x3_s2
I0727 20:17:08.605701 26142 net.cpp:91] Creating Layer pool4/3x3_s2
I0727 20:17:08.605706 26142 net.cpp:425] pool4/3x3_s2 <- inception_4e/output
I0727 20:17:08.605720 26142 net.cpp:399] pool4/3x3_s2 -> pool4/3x3_s2
I0727 20:17:08.605725 26138 net.cpp:141] Setting up inception_4e/pool_proj
I0727 20:17:08.605741 26138 net.cpp:148] Top shape: 10 128 14 14 (250880)
I0727 20:17:08.605746 26138 net.cpp:156] Memory required for data: 513300480
I0727 20:17:08.605757 26138 layer_factory.hpp:77] Creating layer inception_4e/relu_pool_proj
I0727 20:17:08.605769 26138 net.cpp:91] Creating Layer inception_4e/relu_pool_proj
I0727 20:17:08.605777 26138 net.cpp:425] inception_4e/relu_pool_proj <- inception_4e/pool_proj
I0727 20:17:08.605783 26138 net.cpp:386] inception_4e/relu_pool_proj -> inception_4e/pool_proj (in-place)
I0727 20:17:08.606535 26142 net.cpp:141] Setting up pool4/3x3_s2
I0727 20:17:08.606554 26142 net.cpp:148] Top shape: 10 832 7 7 (407680)
I0727 20:17:08.606564 26142 net.cpp:156] Memory required for data: 522457600
I0727 20:17:08.606570 26142 layer_factory.hpp:77] Creating layer pool4/3x3_s2_pool4/3x3_s2_0_split
I0727 20:17:08.606580 26142 net.cpp:91] Creating Layer pool4/3x3_s2_pool4/3x3_s2_0_split
I0727 20:17:08.606583 26142 net.cpp:425] pool4/3x3_s2_pool4/3x3_s2_0_split <- pool4/3x3_s2
I0727 20:17:08.606595 26142 net.cpp:399] pool4/3x3_s2_pool4/3x3_s2_0_split -> pool4/3x3_s2_pool4/3x3_s2_0_split_0
I0727 20:17:08.606603 26142 net.cpp:399] pool4/3x3_s2_pool4/3x3_s2_0_split -> pool4/3x3_s2_pool4/3x3_s2_0_split_1
I0727 20:17:08.606611 26142 net.cpp:399] pool4/3x3_s2_pool4/3x3_s2_0_split -> pool4/3x3_s2_pool4/3x3_s2_0_split_2
I0727 20:17:08.606618 26142 net.cpp:399] pool4/3x3_s2_pool4/3x3_s2_0_split -> pool4/3x3_s2_pool4/3x3_s2_0_split_3
I0727 20:17:08.606644 26138 net.cpp:141] Setting up inception_4e/relu_pool_proj
I0727 20:17:08.606657 26138 net.cpp:148] Top shape: 10 128 14 14 (250880)
I0727 20:17:08.606662 26138 net.cpp:156] Memory required for data: 514304000
I0727 20:17:08.606667 26138 layer_factory.hpp:77] Creating layer inception_4e/output
I0727 20:17:08.606683 26138 net.cpp:91] Creating Layer inception_4e/output
I0727 20:17:08.606704 26138 net.cpp:425] inception_4e/output <- inception_4e/1x1
I0727 20:17:08.606716 26138 net.cpp:425] inception_4e/output <- inception_4e/3x3
I0727 20:17:08.606726 26138 net.cpp:425] inception_4e/output <- inception_4e/5x5
I0727 20:17:08.606734 26138 net.cpp:425] inception_4e/output <- inception_4e/pool_proj
I0727 20:17:08.606745 26138 net.cpp:399] inception_4e/output -> inception_4e/output
I0727 20:17:08.606876 26138 net.cpp:141] Setting up inception_4e/output
I0727 20:17:08.606887 26138 net.cpp:148] Top shape: 10 832 14 14 (1630720)
I0727 20:17:08.606891 26138 net.cpp:156] Memory required for data: 520826880
I0727 20:17:08.606896 26138 layer_factory.hpp:77] Creating layer pool4/3x3_s2
I0727 20:17:08.606905 26138 net.cpp:91] Creating Layer pool4/3x3_s2
I0727 20:17:08.606910 26138 net.cpp:425] pool4/3x3_s2 <- inception_4e/output
I0727 20:17:08.606920 26138 net.cpp:399] pool4/3x3_s2 -> pool4/3x3_s2
I0727 20:17:08.606926 26142 net.cpp:141] Setting up pool4/3x3_s2_pool4/3x3_s2_0_split
I0727 20:17:08.606940 26142 net.cpp:148] Top shape: 10 832 7 7 (407680)
I0727 20:17:08.606950 26142 net.cpp:148] Top shape: 10 832 7 7 (407680)
I0727 20:17:08.606959 26142 net.cpp:148] Top shape: 10 832 7 7 (407680)
I0727 20:17:08.606971 26142 net.cpp:148] Top shape: 10 832 7 7 (407680)
I0727 20:17:08.606976 26142 net.cpp:156] Memory required for data: 528980480
I0727 20:17:08.606979 26142 layer_factory.hpp:77] Creating layer inception_5a/1x1
I0727 20:17:08.606994 26142 net.cpp:91] Creating Layer inception_5a/1x1
I0727 20:17:08.607000 26142 net.cpp:425] inception_5a/1x1 <- pool4/3x3_s2_pool4/3x3_s2_0_split_0
I0727 20:17:08.607012 26142 net.cpp:399] inception_5a/1x1 -> inception_5a/1x1
I0727 20:17:08.607056 26138 net.cpp:141] Setting up pool4/3x3_s2
I0727 20:17:08.607067 26138 net.cpp:148] Top shape: 10 832 7 7 (407680)
I0727 20:17:08.607071 26138 net.cpp:156] Memory required for data: 522457600
I0727 20:17:08.607076 26138 layer_factory.hpp:77] Creating layer pool4/3x3_s2_pool4/3x3_s2_0_split
I0727 20:17:08.607084 26138 net.cpp:91] Creating Layer pool4/3x3_s2_pool4/3x3_s2_0_split
I0727 20:17:08.607089 26138 net.cpp:425] pool4/3x3_s2_pool4/3x3_s2_0_split <- pool4/3x3_s2
I0727 20:17:08.607098 26138 net.cpp:399] pool4/3x3_s2_pool4/3x3_s2_0_split -> pool4/3x3_s2_pool4/3x3_s2_0_split_0
I0727 20:17:08.607106 26138 net.cpp:399] pool4/3x3_s2_pool4/3x3_s2_0_split -> pool4/3x3_s2_pool4/3x3_s2_0_split_1
I0727 20:17:08.607115 26138 net.cpp:399] pool4/3x3_s2_pool4/3x3_s2_0_split -> pool4/3x3_s2_pool4/3x3_s2_0_split_2
I0727 20:17:08.607121 26138 net.cpp:399] pool4/3x3_s2_pool4/3x3_s2_0_split -> pool4/3x3_s2_pool4/3x3_s2_0_split_3
I0727 20:17:08.607522 26138 net.cpp:141] Setting up pool4/3x3_s2_pool4/3x3_s2_0_split
I0727 20:17:08.607532 26138 net.cpp:148] Top shape: 10 832 7 7 (407680)
I0727 20:17:08.607537 26138 net.cpp:148] Top shape: 10 832 7 7 (407680)
I0727 20:17:08.607542 26138 net.cpp:148] Top shape: 10 832 7 7 (407680)
I0727 20:17:08.607547 26138 net.cpp:148] Top shape: 10 832 7 7 (407680)
I0727 20:17:08.607552 26138 net.cpp:156] Memory required for data: 528980480
I0727 20:17:08.607555 26138 layer_factory.hpp:77] Creating layer inception_5a/1x1
I0727 20:17:08.607571 26138 net.cpp:91] Creating Layer inception_5a/1x1
I0727 20:17:08.607578 26138 net.cpp:425] inception_5a/1x1 <- pool4/3x3_s2_pool4/3x3_s2_0_split_0
I0727 20:17:08.607586 26138 net.cpp:399] inception_5a/1x1 -> inception_5a/1x1
I0727 20:17:08.614632 26142 net.cpp:141] Setting up inception_5a/1x1
I0727 20:17:08.614660 26142 net.cpp:148] Top shape: 10 256 7 7 (125440)
I0727 20:17:08.614665 26142 net.cpp:156] Memory required for data: 529482240
I0727 20:17:08.614675 26142 layer_factory.hpp:77] Creating layer inception_5a/relu_1x1
I0727 20:17:08.614697 26142 net.cpp:91] Creating Layer inception_5a/relu_1x1
I0727 20:17:08.614706 26142 net.cpp:425] inception_5a/relu_1x1 <- inception_5a/1x1
I0727 20:17:08.614713 26142 net.cpp:386] inception_5a/relu_1x1 -> inception_5a/1x1 (in-place)
I0727 20:17:08.615056 26142 net.cpp:141] Setting up inception_5a/relu_1x1
I0727 20:17:08.615067 26142 net.cpp:148] Top shape: 10 256 7 7 (125440)
I0727 20:17:08.615072 26142 net.cpp:156] Memory required for data: 529984000
I0727 20:17:08.615077 26142 layer_factory.hpp:77] Creating layer inception_5a/3x3_reduce
I0727 20:17:08.615094 26142 net.cpp:91] Creating Layer inception_5a/3x3_reduce
I0727 20:17:08.615102 26142 net.cpp:425] inception_5a/3x3_reduce <- pool4/3x3_s2_pool4/3x3_s2_0_split_1
I0727 20:17:08.615113 26142 net.cpp:399] inception_5a/3x3_reduce -> inception_5a/3x3_reduce
I0727 20:17:08.617775 26138 net.cpp:141] Setting up inception_5a/1x1
I0727 20:17:08.617795 26138 net.cpp:148] Top shape: 10 256 7 7 (125440)
I0727 20:17:08.617802 26138 net.cpp:156] Memory required for data: 529482240
I0727 20:17:08.617813 26138 layer_factory.hpp:77] Creating layer inception_5a/relu_1x1
I0727 20:17:08.617822 26138 net.cpp:91] Creating Layer inception_5a/relu_1x1
I0727 20:17:08.617830 26138 net.cpp:425] inception_5a/relu_1x1 <- inception_5a/1x1
I0727 20:17:08.617836 26138 net.cpp:386] inception_5a/relu_1x1 -> inception_5a/1x1 (in-place)
I0727 20:17:08.618110 26138 net.cpp:141] Setting up inception_5a/relu_1x1
I0727 20:17:08.618121 26138 net.cpp:148] Top shape: 10 256 7 7 (125440)
I0727 20:17:08.618126 26138 net.cpp:156] Memory required for data: 529984000
I0727 20:17:08.618131 26138 layer_factory.hpp:77] Creating layer inception_5a/3x3_reduce
I0727 20:17:08.618146 26138 net.cpp:91] Creating Layer inception_5a/3x3_reduce
I0727 20:17:08.618154 26138 net.cpp:425] inception_5a/3x3_reduce <- pool4/3x3_s2_pool4/3x3_s2_0_split_1
I0727 20:17:08.618165 26138 net.cpp:399] inception_5a/3x3_reduce -> inception_5a/3x3_reduce
I0727 20:17:08.623185 26142 net.cpp:141] Setting up inception_5a/3x3_reduce
I0727 20:17:08.623208 26142 net.cpp:148] Top shape: 10 160 7 7 (78400)
I0727 20:17:08.623214 26142 net.cpp:156] Memory required for data: 530297600
I0727 20:17:08.623224 26142 layer_factory.hpp:77] Creating layer inception_5a/relu_3x3_reduce
I0727 20:17:08.623232 26142 net.cpp:91] Creating Layer inception_5a/relu_3x3_reduce
I0727 20:17:08.623239 26142 net.cpp:425] inception_5a/relu_3x3_reduce <- inception_5a/3x3_reduce
I0727 20:17:08.623245 26142 net.cpp:386] inception_5a/relu_3x3_reduce -> inception_5a/3x3_reduce (in-place)
I0727 20:17:08.623515 26142 net.cpp:141] Setting up inception_5a/relu_3x3_reduce
I0727 20:17:08.623527 26142 net.cpp:148] Top shape: 10 160 7 7 (78400)
I0727 20:17:08.623530 26142 net.cpp:156] Memory required for data: 530611200
I0727 20:17:08.623535 26142 layer_factory.hpp:77] Creating layer inception_5a/3x3
I0727 20:17:08.623550 26142 net.cpp:91] Creating Layer inception_5a/3x3
I0727 20:17:08.623556 26142 net.cpp:425] inception_5a/3x3 <- inception_5a/3x3_reduce
I0727 20:17:08.623567 26142 net.cpp:399] inception_5a/3x3 -> inception_5a/3x3
I0727 20:17:08.626572 26138 net.cpp:141] Setting up inception_5a/3x3_reduce
I0727 20:17:08.626592 26138 net.cpp:148] Top shape: 10 160 7 7 (78400)
I0727 20:17:08.626597 26138 net.cpp:156] Memory required for data: 530297600
I0727 20:17:08.626607 26138 layer_factory.hpp:77] Creating layer inception_5a/relu_3x3_reduce
I0727 20:17:08.626619 26138 net.cpp:91] Creating Layer inception_5a/relu_3x3_reduce
I0727 20:17:08.626626 26138 net.cpp:425] inception_5a/relu_3x3_reduce <- inception_5a/3x3_reduce
I0727 20:17:08.626633 26138 net.cpp:386] inception_5a/relu_3x3_reduce -> inception_5a/3x3_reduce (in-place)
I0727 20:17:08.626940 26138 net.cpp:141] Setting up inception_5a/relu_3x3_reduce
I0727 20:17:08.626952 26138 net.cpp:148] Top shape: 10 160 7 7 (78400)
I0727 20:17:08.626956 26138 net.cpp:156] Memory required for data: 530611200
I0727 20:17:08.626961 26138 layer_factory.hpp:77] Creating layer inception_5a/3x3
I0727 20:17:08.626977 26138 net.cpp:91] Creating Layer inception_5a/3x3
I0727 20:17:08.626983 26138 net.cpp:425] inception_5a/3x3 <- inception_5a/3x3_reduce
I0727 20:17:08.626994 26138 net.cpp:399] inception_5a/3x3 -> inception_5a/3x3
I0727 20:17:08.633851 26142 net.cpp:141] Setting up inception_5a/3x3
I0727 20:17:08.633882 26142 net.cpp:148] Top shape: 10 320 7 7 (156800)
I0727 20:17:08.633888 26142 net.cpp:156] Memory required for data: 531238400
I0727 20:17:08.633898 26142 layer_factory.hpp:77] Creating layer inception_5a/relu_3x3
I0727 20:17:08.633910 26142 net.cpp:91] Creating Layer inception_5a/relu_3x3
I0727 20:17:08.633919 26142 net.cpp:425] inception_5a/relu_3x3 <- inception_5a/3x3
I0727 20:17:08.633930 26142 net.cpp:386] inception_5a/relu_3x3 -> inception_5a/3x3 (in-place)
I0727 20:17:08.635458 26142 net.cpp:141] Setting up inception_5a/relu_3x3
I0727 20:17:08.635474 26142 net.cpp:148] Top shape: 10 320 7 7 (156800)
I0727 20:17:08.635478 26142 net.cpp:156] Memory required for data: 531865600
I0727 20:17:08.635483 26142 layer_factory.hpp:77] Creating layer inception_5a/5x5_reduce
I0727 20:17:08.635504 26142 net.cpp:91] Creating Layer inception_5a/5x5_reduce
I0727 20:17:08.635510 26142 net.cpp:425] inception_5a/5x5_reduce <- pool4/3x3_s2_pool4/3x3_s2_0_split_2
I0727 20:17:08.635520 26142 net.cpp:399] inception_5a/5x5_reduce -> inception_5a/5x5_reduce
I0727 20:17:08.638581 26138 net.cpp:141] Setting up inception_5a/3x3
I0727 20:17:08.638617 26138 net.cpp:148] Top shape: 10 320 7 7 (156800)
I0727 20:17:08.638622 26138 net.cpp:156] Memory required for data: 531238400
I0727 20:17:08.638635 26138 layer_factory.hpp:77] Creating layer inception_5a/relu_3x3
I0727 20:17:08.638649 26138 net.cpp:91] Creating Layer inception_5a/relu_3x3
I0727 20:17:08.638659 26138 net.cpp:425] inception_5a/relu_3x3 <- inception_5a/3x3
I0727 20:17:08.638670 26138 net.cpp:386] inception_5a/relu_3x3 -> inception_5a/3x3 (in-place)
I0727 20:17:08.639780 26138 net.cpp:141] Setting up inception_5a/relu_3x3
I0727 20:17:08.639806 26138 net.cpp:148] Top shape: 10 320 7 7 (156800)
I0727 20:17:08.639816 26138 net.cpp:156] Memory required for data: 531865600
I0727 20:17:08.639827 26138 layer_factory.hpp:77] Creating layer inception_5a/5x5_reduce
I0727 20:17:08.639854 26138 net.cpp:91] Creating Layer inception_5a/5x5_reduce
I0727 20:17:08.639868 26138 net.cpp:425] inception_5a/5x5_reduce <- pool4/3x3_s2_pool4/3x3_s2_0_split_2
I0727 20:17:08.639891 26138 net.cpp:399] inception_5a/5x5_reduce -> inception_5a/5x5_reduce
I0727 20:17:08.642051 26142 net.cpp:141] Setting up inception_5a/5x5_reduce
I0727 20:17:08.642068 26142 net.cpp:148] Top shape: 10 32 7 7 (15680)
I0727 20:17:08.642073 26142 net.cpp:156] Memory required for data: 531928320
I0727 20:17:08.642082 26142 layer_factory.hpp:77] Creating layer inception_5a/relu_5x5_reduce
I0727 20:17:08.642091 26142 net.cpp:91] Creating Layer inception_5a/relu_5x5_reduce
I0727 20:17:08.642096 26142 net.cpp:425] inception_5a/relu_5x5_reduce <- inception_5a/5x5_reduce
I0727 20:17:08.642107 26142 net.cpp:386] inception_5a/relu_5x5_reduce -> inception_5a/5x5_reduce (in-place)
I0727 20:17:08.642441 26142 net.cpp:141] Setting up inception_5a/relu_5x5_reduce
I0727 20:17:08.642457 26142 net.cpp:148] Top shape: 10 32 7 7 (15680)
I0727 20:17:08.642460 26142 net.cpp:156] Memory required for data: 531991040
I0727 20:17:08.642465 26142 layer_factory.hpp:77] Creating layer inception_5a/5x5
I0727 20:17:08.642480 26142 net.cpp:91] Creating Layer inception_5a/5x5
I0727 20:17:08.642487 26142 net.cpp:425] inception_5a/5x5 <- inception_5a/5x5_reduce
I0727 20:17:08.642494 26142 net.cpp:399] inception_5a/5x5 -> inception_5a/5x5
I0727 20:17:08.648180 26138 net.cpp:141] Setting up inception_5a/5x5_reduce
I0727 20:17:08.648217 26138 net.cpp:148] Top shape: 10 32 7 7 (15680)
I0727 20:17:08.648227 26138 net.cpp:156] Memory required for data: 531928320
I0727 20:17:08.648229 26142 net.cpp:141] Setting up inception_5a/5x5
I0727 20:17:08.648246 26142 net.cpp:148] Top shape: 10 128 7 7 (62720)
I0727 20:17:08.648247 26138 layer_factory.hpp:77] Creating layer inception_5a/relu_5x5_reduce
I0727 20:17:08.648250 26142 net.cpp:156] Memory required for data: 532241920
I0727 20:17:08.648269 26142 layer_factory.hpp:77] Creating layer inception_5a/relu_5x5
I0727 20:17:08.648268 26138 net.cpp:91] Creating Layer inception_5a/relu_5x5_reduce
I0727 20:17:08.648294 26138 net.cpp:425] inception_5a/relu_5x5_reduce <- inception_5a/5x5_reduce
I0727 20:17:08.648313 26142 net.cpp:91] Creating Layer inception_5a/relu_5x5
I0727 20:17:08.648321 26142 net.cpp:425] inception_5a/relu_5x5 <- inception_5a/5x5
I0727 20:17:08.648322 26138 net.cpp:386] inception_5a/relu_5x5_reduce -> inception_5a/5x5_reduce (in-place)
I0727 20:17:08.648329 26142 net.cpp:386] inception_5a/relu_5x5 -> inception_5a/5x5 (in-place)
I0727 20:17:08.648802 26142 net.cpp:141] Setting up inception_5a/relu_5x5
I0727 20:17:08.648815 26142 net.cpp:148] Top shape: 10 128 7 7 (62720)
I0727 20:17:08.648820 26142 net.cpp:156] Memory required for data: 532492800
I0727 20:17:08.648826 26142 layer_factory.hpp:77] Creating layer inception_5a/pool
I0727 20:17:08.648835 26142 net.cpp:91] Creating Layer inception_5a/pool
I0727 20:17:08.648841 26142 net.cpp:425] inception_5a/pool <- pool4/3x3_s2_pool4/3x3_s2_0_split_3
I0727 20:17:08.648849 26142 net.cpp:399] inception_5a/pool -> inception_5a/pool
I0727 20:17:08.648998 26138 net.cpp:141] Setting up inception_5a/relu_5x5_reduce
I0727 20:17:08.649016 26138 net.cpp:148] Top shape: 10 32 7 7 (15680)
I0727 20:17:08.649025 26138 net.cpp:156] Memory required for data: 531991040
I0727 20:17:08.649029 26142 net.cpp:141] Setting up inception_5a/pool
I0727 20:17:08.649034 26138 layer_factory.hpp:77] Creating layer inception_5a/5x5
I0727 20:17:08.649042 26142 net.cpp:148] Top shape: 10 832 7 7 (407680)
I0727 20:17:08.649047 26142 net.cpp:156] Memory required for data: 534123520
I0727 20:17:08.649052 26142 layer_factory.hpp:77] Creating layer inception_5a/pool_proj
I0727 20:17:08.649065 26142 net.cpp:91] Creating Layer inception_5a/pool_proj
I0727 20:17:08.649066 26138 net.cpp:91] Creating Layer inception_5a/5x5
I0727 20:17:08.649070 26142 net.cpp:425] inception_5a/pool_proj <- inception_5a/pool
I0727 20:17:08.649082 26138 net.cpp:425] inception_5a/5x5 <- inception_5a/5x5_reduce
I0727 20:17:08.649092 26142 net.cpp:399] inception_5a/pool_proj -> inception_5a/pool_proj
I0727 20:17:08.649099 26138 net.cpp:399] inception_5a/5x5 -> inception_5a/5x5
I0727 20:17:08.656818 26142 net.cpp:141] Setting up inception_5a/pool_proj
I0727 20:17:08.656842 26142 net.cpp:148] Top shape: 10 128 7 7 (62720)
I0727 20:17:08.656847 26142 net.cpp:156] Memory required for data: 534374400
I0727 20:17:08.656857 26142 layer_factory.hpp:77] Creating layer inception_5a/relu_pool_proj
I0727 20:17:08.656865 26142 net.cpp:91] Creating Layer inception_5a/relu_pool_proj
I0727 20:17:08.656872 26142 net.cpp:425] inception_5a/relu_pool_proj <- inception_5a/pool_proj
I0727 20:17:08.656882 26142 net.cpp:386] inception_5a/relu_pool_proj -> inception_5a/pool_proj (in-place)
I0727 20:17:08.658310 26142 net.cpp:141] Setting up inception_5a/relu_pool_proj
I0727 20:17:08.658325 26142 net.cpp:148] Top shape: 10 128 7 7 (62720)
I0727 20:17:08.658330 26142 net.cpp:156] Memory required for data: 534625280
I0727 20:17:08.658334 26142 layer_factory.hpp:77] Creating layer inception_5a/output
I0727 20:17:08.658344 26142 net.cpp:91] Creating Layer inception_5a/output
I0727 20:17:08.658349 26142 net.cpp:425] inception_5a/output <- inception_5a/1x1
I0727 20:17:08.658355 26142 net.cpp:425] inception_5a/output <- inception_5a/3x3
I0727 20:17:08.658360 26142 net.cpp:425] inception_5a/output <- inception_5a/5x5
I0727 20:17:08.658365 26142 net.cpp:425] inception_5a/output <- inception_5a/pool_proj
I0727 20:17:08.658373 26142 net.cpp:399] inception_5a/output -> inception_5a/output
I0727 20:17:08.658495 26138 net.cpp:141] Setting up inception_5a/5x5
I0727 20:17:08.658515 26142 net.cpp:141] Setting up inception_5a/output
I0727 20:17:08.658519 26138 net.cpp:148] Top shape: 10 128 7 7 (62720)
I0727 20:17:08.658530 26142 net.cpp:148] Top shape: 10 832 7 7 (407680)
I0727 20:17:08.658534 26138 net.cpp:156] Memory required for data: 532241920
I0727 20:17:08.658535 26142 net.cpp:156] Memory required for data: 536256000
I0727 20:17:08.658541 26142 layer_factory.hpp:77] Creating layer inception_5a/output_inception_5a/output_0_split
I0727 20:17:08.658545 26138 layer_factory.hpp:77] Creating layer inception_5a/relu_5x5
I0727 20:17:08.658552 26142 net.cpp:91] Creating Layer inception_5a/output_inception_5a/output_0_split
…
I0727 20:17:08.658581 26142 net.cpp:399] inception_5a/output_inception_5a/output_0_split -> inception_5a/output_inception_5a/output_0_split_2
I0727 20:17:08.658586 26138 net.cpp:91] Creating Layer inception_5a/relu_5x5
I0727 20:17:08.658589 26142 net.cpp:399] inception_5a/output_inception_5a/output_0_split -> inception_5a/output_inception_5a/output_0_split_3
I0727 20:17:08.658593 26138 net.cpp:425] inception_5a/relu_5x5 <- inception_5a/5x5
I0727 20:17:08.658601 26138 net.cpp:386] inception_5a/relu_5x5 -> inception_5a/5x5 (in-place)
I0727 20:17:08.659070 26138 net.cpp:141] Setting up inception_5a/relu_5x5
I0727 20:17:08.659081 26138 net.cpp:148] Top shape: 10 128 7 7 (62720)
I0727 20:17:08.659086 26138 net.cpp:156] Memory required for data: 532492800
I0727 20:17:08.659091 26138 layer_factory.hpp:77] Creating layer inception_5a/pool
I0727 20:17:08.659091 26142 net.cpp:141] Setting up inception_5a/output_inception_5a/output_0_split
I0727 20:17:08.659104 26142 net.cpp:148] Top shape: 10 832 7 7 (407680)
I0727 20:17:08.659107 26138 net.cpp:91] Creating Layer inception_5a/pool
I0727 20:17:08.659111 26142 net.cpp:148] Top shape: 10 832 7 7 (407680)
I0727 20:17:08.659116 26138 net.cpp:425] inception_5a/pool <- pool4/3x3_s2_pool4/3x3_s2_0_split_3
I0727 20:17:08.659118 26142 net.cpp:148] Top shape: 10 832 7 7 (407680)
I0727 20:17:08.659123 26142 net.cpp:148] Top shape: 10 832 7 7 (407680)
I0727 20:17:08.659124 26138 net.cpp:399] inception_5a/pool -> inception_5a/pool
I0727 20:17:08.659127 26142 net.cpp:156] Memory required for data: 542778880
I0727 20:17:08.659132 26142 layer_factory.hpp:77] Creating layer inception_5b/1x1
I0727 20:17:08.659152 26142 net.cpp:91] Creating Layer inception_5b/1x1
I0727 20:17:08.659157 26142 net.cpp:425] inception_5b/1x1 <- inception_5a/output_inception_5a/output_0_split_0
I0727 20:17:08.659167 26142 net.cpp:399] inception_5b/1x1 -> inception_5b/1x1
I0727 20:17:08.659415 26138 net.cpp:141] Setting up inception_5a/pool
I0727 20:17:08.659427 26138 net.cpp:148] Top shape: 10 832 7 7 (407680)
I0727 20:17:08.659431 26138 net.cpp:156] Memory required for data: 534123520
I0727 20:17:08.659436 26138 layer_factory.hpp:77] Creating layer inception_5a/pool_proj
I0727 20:17:08.659453 26138 net.cpp:91] Creating Layer inception_5a/pool_proj
I0727 20:17:08.659459 26138 net.cpp:425] inception_5a/pool_proj <- inception_5a/pool
I0727 20:17:08.659471 26138 net.cpp:399] inception_5a/pool_proj -> inception_5a/pool_proj
I0727 20:17:08.667481 26138 net.cpp:141] Setting up inception_5a/pool_proj
I0727 20:17:08.667515 26138 net.cpp:148] Top shape: 10 128 7 7 (62720)
I0727 20:17:08.667521 26138 net.cpp:156] Memory required for data: 534374400
I0727 20:17:08.667531 26138 layer_factory.hpp:77] Creating layer inception_5a/relu_pool_proj
I0727 20:17:08.667542 26138 net.cpp:91] Creating Layer inception_5a/relu_pool_proj
I0727 20:17:08.667551 26138 net.cpp:425] inception_5a/relu_pool_proj <- inception_5a/pool_proj
I0727 20:17:08.667558 26138 net.cpp:386] inception_5a/relu_pool_proj -> inception_5a/pool_proj (in-place)
I0727 20:17:08.668437 26142 net.cpp:141] Setting up inception_5b/1x1
I0727 20:17:08.668457 26142 net.cpp:148] Top shape: 10 384 7 7 (188160)
I0727 20:17:08.668462 26142 net.cpp:156] Memory required for data: 543531520
I0727 20:17:08.668470 26142 layer_factory.hpp:77] Creating layer inception_5b/relu_1x1
I0727 20:17:08.668473 26138 net.cpp:141] Setting up inception_5a/relu_pool_proj
I0727 20:17:08.668479 26142 net.cpp:91] Creating Layer inception_5b/relu_1x1
I0727 20:17:08.668488 26142 net.cpp:425] inception_5b/relu_1x1 <- inception_5b/1x1
I0727 20:17:08.668488 26138 net.cpp:148] Top shape: 10 128 7 7 (62720)
I0727 20:17:08.668499 26142 net.cpp:386] inception_5b/relu_1x1 -> inception_5b/1x1 (in-place)
I0727 20:17:08.668503 26138 net.cpp:156] Memory required for data: 534625280
I0727 20:17:08.668509 26138 layer_factory.hpp:77] Creating layer inception_5a/output
I0727 20:17:08.668519 26138 net.cpp:91] Creating Layer inception_5a/output
I0727 20:17:08.668524 26138 net.cpp:425] inception_5a/output <- inception_5a/1x1
I0727 20:17:08.668531 26138 net.cpp:425] inception_5a/output <- inception_5a/3x3
I0727 20:17:08.668537 26138 net.cpp:425] inception_5a/output <- inception_5a/5x5
I0727 20:17:08.668542 26138 net.cpp:425] inception_5a/output <- inception_5a/pool_proj
I0727 20:17:08.668548 26138 net.cpp:399] inception_5a/output -> inception_5a/output
I0727 20:17:08.668756 26138 net.cpp:141] Setting up inception_5a/output
I0727 20:17:08.668766 26138 net.cpp:148] Top shape: 10 832 7 7 (407680)
I0727 20:17:08.668771 26138 net.cpp:156] Memory required for data: 536256000
I0727 20:17:08.668776 26138 layer_factory.hpp:77] Creating layer inception_5a/output_inception_5a/output_0_split
I0727 20:17:08.668783 26138 net.cpp:91] Creating Layer inception_5a/output_inception_5a/output_0_split
I0727 20:17:08.668788 26138 net.cpp:425] inception_5a/output_inception_5a/output_0_split <- inception_5a/output
I0727 20:17:08.668798 26138 net.cpp:399] inception_5a/output_inception_5a/output_0_split -> inception_5a/output_inception_5a/output_0_split_0
I0727 20:17:08.668808 26138 net.cpp:399] inception_5a/output_inception_5a/output_0_split -> inception_5a/output_inception_5a/output_0_split_1
I0727 20:17:08.668817 26138 net.cpp:399] inception_5a/output_inception_5a/output_0_split -> inception_5a/output_inception_5a/output_0_split_2
I0727 20:17:08.668824 26138 net.cpp:399] inception_5a/output_inception_5a/output_0_split -> inception_5a/output_inception_5a/output_0_split_3
I0727 20:17:08.668862 26142 net.cpp:141] Setting up inception_5b/relu_1x1
I0727 20:17:08.668874 26142 net.cpp:148] Top shape: 10 384 7 7 (188160)
I0727 20:17:08.668879 26142 net.cpp:156] Memory required for data: 544284160
I0727 20:17:08.668884 26142 layer_factory.hpp:77] Creating layer inception_5b/3x3_reduce
I0727 20:17:08.668900 26142 net.cpp:91] Creating Layer inception_5b/3x3_reduce
I0727 20:17:08.668905 26142 net.cpp:425] inception_5b/3x3_reduce <- inception_5a/output_inception_5a/output_0_split_1
I0727 20:17:08.668916 26142 net.cpp:399] inception_5b/3x3_reduce -> inception_5b/3x3_reduce
I0727 20:17:08.669199 26138 net.cpp:141] Setting up inception_5a/output_inception_5a/output_0_split
I0727 20:17:08.669210 26138 net.cpp:148] Top shape: 10 832 7 7 (407680)
I0727 20:17:08.669216 26138 net.cpp:148] Top shape: 10 832 7 7 (407680)
I0727 20:17:08.669221 26138 net.cpp:148] Top shape: 10 832 7 7 (407680)
I0727 20:17:08.669225 26138 net.cpp:148] Top shape: 10 832 7 7 (407680)
I0727 20:17:08.669229 26138 net.cpp:156] Memory required for data: 542778880
I0727 20:17:08.669234 26138 layer_factory.hpp:77] Creating layer inception_5b/1x1
I0727 20:17:08.669252 26138 net.cpp:91] Creating Layer inception_5b/1x1
I0727 20:17:08.669257 26138 net.cpp:425] inception_5b/1x1 <- inception_5a/output_inception_5a/output_0_split_0
I0727 20:17:08.669270 26138 net.cpp:399] inception_5b/1x1 -> inception_5b/1x1
I0727 20:17:08.678359 26142 net.cpp:141] Setting up inception_5b/3x3_reduce
I0727 20:17:08.678397 26142 net.cpp:148] Top shape: 10 192 7 7 (94080)
I0727 20:17:08.678403 26142 net.cpp:156] Memory required for data: 544660480
I0727 20:17:08.678416 26142 layer_factory.hpp:77] Creating layer inception_5b/relu_3x3_reduce
I0727 20:17:08.678429 26142 net.cpp:91] Creating Layer inception_5b/relu_3x3_reduce
I0727 20:17:08.678442 26142 net.cpp:425] inception_5b/relu_3x3_reduce <- inception_5b/3x3_reduce
I0727 20:17:08.678452 26142 net.cpp:386] inception_5b/relu_3x3_reduce -> inception_5b/3x3_reduce (in-place)
I0727 20:17:08.678840 26142 net.cpp:141] Setting up inception_5b/relu_3x3_reduce
I0727 20:17:08.678853 26142 net.cpp:148] Top shape: 10 192 7 7 (94080)
I0727 20:17:08.678858 26142 net.cpp:156] Memory required for data: 545036800
I0727 20:17:08.678861 26142 layer_factory.hpp:77] Creating layer inception_5b/3x3
I0727 20:17:08.678884 26142 net.cpp:91] Creating Layer inception_5b/3x3
I0727 20:17:08.678889 26142 net.cpp:425] inception_5b/3x3 <- inception_5b/3x3_reduce
I0727 20:17:08.678899 26142 net.cpp:399] inception_5b/3x3 -> inception_5b/3x3
I0727 20:17:08.680312 26138 net.cpp:141] Setting up inception_5b/1x1
I0727 20:17:08.680348 26138 net.cpp:148] Top shape: 10 384 7 7 (188160)
I0727 20:17:08.680354 26138 net.cpp:156] Memory required for data: 543531520
I0727 20:17:08.680366 26138 layer_factory.hpp:77] Creating layer inception_5b/relu_1x1
I0727 20:17:08.681329 26138 net.cpp:91] Creating Layer inception_5b/relu_1x1
I0727 20:17:08.681341 26138 net.cpp:425] inception_5b/relu_1x1 <- inception_5b/1x1
I0727 20:17:08.681351 26138 net.cpp:386] inception_5b/relu_1x1 -> inception_5b/1x1 (in-place)
I0727 20:17:08.681632 26138 net.cpp:141] Setting up inception_5b/relu_1x1
I0727 20:17:08.681646 26138 net.cpp:148] Top shape: 10 384 7 7 (188160)
I0727 20:17:08.681650 26138 net.cpp:156] Memory required for data: 544284160
I0727 20:17:08.681655 26138 layer_factory.hpp:77] Creating layer inception_5b/3x3_reduce
I0727 20:17:08.681674 26138 net.cpp:91] Creating Layer inception_5b/3x3_reduce
I0727 20:17:08.681680 26138 net.cpp:425] inception_5b/3x3_reduce <- inception_5a/output_inception_5a/output_0_split_1
I0727 20:17:08.681691 26138 net.cpp:399] inception_5b/3x3_reduce -> inception_5b/3x3_reduce
I0727 20:17:08.690237 26138 net.cpp:141] Setting up inception_5b/3x3_reduce
I0727 20:17:08.690268 26138 net.cpp:148] Top shape: 10 192 7 7 (94080)
I0727 20:17:08.690274 26138 net.cpp:156] Memory required for data: 544660480
I0727 20:17:08.690284 26138 layer_factory.hpp:77] Creating layer inception_5b/relu_3x3_reduce
I0727 20:17:08.690296 26138 net.cpp:91] Creating Layer inception_5b/relu_3x3_reduce
I0727 20:17:08.690304 26138 net.cpp:425] inception_5b/relu_3x3_reduce <- inception_5b/3x3_reduce
I0727 20:17:08.690315 26138 net.cpp:386] inception_5b/relu_3x3_reduce -> inception_5b/3x3_reduce (in-place)
I0727 20:17:08.690753 26138 net.cpp:141] Setting up inception_5b/relu_3x3_reduce
I0727 20:17:08.690768 26138 net.cpp:148] Top shape: 10 192 7 7 (94080)
I0727 20:17:08.690773 26138 net.cpp:156] Memory required for data: 545036800
I0727 20:17:08.690778 26138 layer_factory.hpp:77] Creating layer inception_5b/3x3
I0727 20:17:08.690795 26138 net.cpp:91] Creating Layer inception_5b/3x3
I0727 20:17:08.690800 26138 net.cpp:425] inception_5b/3x3 <- inception_5b/3x3_reduce
I0727 20:17:08.690812 26138 net.cpp:399] inception_5b/3x3 -> inception_5b/3x3
I0727 20:17:08.691397 26142 net.cpp:141] Setting up inception_5b/3x3
I0727 20:17:08.691424 26142 net.cpp:148] Top shape: 10 384 7 7 (188160)
I0727 20:17:08.691429 26142 net.cpp:156] Memory required for data: 545789440
I0727 20:17:08.691440 26142 layer_factory.hpp:77] Creating layer inception_5b/relu_3x3
I0727 20:17:08.691450 26142 net.cpp:91] Creating Layer inception_5b/relu_3x3
I0727 20:17:08.691457 26142 net.cpp:425] inception_5b/relu_3x3 <- inception_5b/3x3
I0727 20:17:08.691465 26142 net.cpp:386] inception_5b/relu_3x3 -> inception_5b/3x3 (in-place)
I0727 20:17:08.692441 26142 net.cpp:141] Setting up inception_5b/relu_3x3
I0727 20:17:08.692456 26142 net.cpp:148] Top shape: 10 384 7 7 (188160)
I0727 20:17:08.692461 26142 net.cpp:156] Memory required for data: 546542080
I0727 20:17:08.692466 26142 layer_factory.hpp:77] Creating layer inception_5b/5x5_reduce
I0727 20:17:08.693464 26142 net.cpp:91] Creating Layer inception_5b/5x5_reduce
I0727 20:17:08.693475 26142 net.cpp:425] inception_5b/5x5_reduce <- inception_5a/output_inception_5a/output_0_split_2
I0727 20:17:08.693487 26142 net.cpp:399] inception_5b/5x5_reduce -> inception_5b/5x5_reduce
I0727 20:17:08.698132 26142 net.cpp:141] Setting up inception_5b/5x5_reduce
I0727 20:17:08.698154 26142 net.cpp:148] Top shape: 10 48 7 7 (23520)
I0727 20:17:08.698159 26142 net.cpp:156] Memory required for data: 546636160
I0727 20:17:08.698168 26142 layer_factory.hpp:77] Creating layer inception_5b/relu_5x5_reduce
I0727 20:17:08.698176 26142 net.cpp:91] Creating Layer inception_5b/relu_5x5_reduce
I0727 20:17:08.698182 26142 net.cpp:425] inception_5b/relu_5x5_reduce <- inception_5b/5x5_reduce
I0727 20:17:08.698189 26142 net.cpp:386] inception_5b/relu_5x5_reduce -> inception_5b/5x5_reduce (in-place)
I0727 20:17:08.698448 26142 net.cpp:141] Setting up inception_5b/relu_5x5_reduce
I0727 20:17:08.698462 26142 net.cpp:148] Top shape: 10 48 7 7 (23520)
I0727 20:17:08.698465 26142 net.cpp:156] Memory required for data: 546730240
I0727 20:17:08.698470 26142 layer_factory.hpp:77] Creating layer inception_5b/5x5
I0727 20:17:08.698484 26142 net.cpp:91] Creating Layer inception_5b/5x5
I0727 20:17:08.698490 26142 net.cpp:425] inception_5b/5x5 <- inception_5b/5x5_reduce
I0727 20:17:08.698498 26142 net.cpp:399] inception_5b/5x5 -> inception_5b/5x5
I0727 20:17:08.707197 26138 net.cpp:141] Setting up inception_5b/3x3
I0727 20:17:08.707255 26142 net.cpp:141] Setting up inception_5b/5x5
I0727 20:17:08.707270 26138 net.cpp:148] Top shape: 10 384 7 7 (188160)
I0727 20:17:08.707283 26138 net.cpp:156] Memory required for data: 545789440
I0727 20:17:08.707283 26142 net.cpp:148] Top shape: 10 128 7 7 (62720)
I0727 20:17:08.707294 26142 net.cpp:156] Memory required for data: 546981120
I0727 20:17:08.707305 26138 layer_factory.hpp:77] Creating layer inception_5b/relu_3x3
I0727 20:17:08.707316 26142 layer_factory.hpp:77] Creating layer inception_5b/relu_5x5
I0727 20:17:08.707351 26138 net.cpp:91] Creating Layer inception_5b/relu_3x3
I0727 20:17:08.707351 26142 net.cpp:91] Creating Layer inception_5b/relu_5x5
I0727 20:17:08.707376 26138 net.cpp:425] inception_5b/relu_3x3 <- inception_5b/3x3
I0727 20:17:08.707381 26142 net.cpp:425] inception_5b/relu_5x5 <- inception_5b/5x5
I0727 20:17:08.707396 26138 net.cpp:386] inception_5b/relu_3x3 -> inception_5b/3x3 (in-place)
I0727 20:17:08.707401 26142 net.cpp:386] inception_5b/relu_5x5 -> inception_5b/5x5 (in-place)
I0727 20:17:08.707973 26142 net.cpp:141] Setting up inception_5b/relu_5x5
I0727 20:17:08.707993 26142 net.cpp:148] Top shape: 10 128 7 7 (62720)
I0727 20:17:08.708001 26142 net.cpp:156] Memory required for data: 547232000
I0727 20:17:08.708010 26142 layer_factory.hpp:77] Creating layer inception_5b/pool
I0727 20:17:08.708027 26142 net.cpp:91] Creating Layer inception_5b/pool
I0727 20:17:08.708039 26142 net.cpp:425] inception_5b/pool <- inception_5a/output_inception_5a/output_0_split_3
I0727 20:17:08.708060 26142 net.cpp:399] inception_5b/pool -> inception_5b/pool
I0727 20:17:08.709429 26142 net.cpp:141] Setting up inception_5b/pool
I0727 20:17:08.709448 26142 net.cpp:148] Top shape: 10 832 7 7 (407680)
I0727 20:17:08.709455 26142 net.cpp:156] Memory required for data: 548862720
I0727 20:17:08.709462 26142 layer_factory.hpp:77] Creating layer inception_5b/pool_proj
I0727 20:17:08.709491 26142 net.cpp:91] Creating Layer inception_5b/pool_proj
I0727 20:17:08.709501 26142 net.cpp:425] inception_5b/pool_proj <- inception_5b/pool
I0727 20:17:08.709516 26142 net.cpp:399] inception_5b/pool_proj -> inception_5b/pool_proj
I0727 20:17:08.709571 26138 net.cpp:141] Setting up inception_5b/relu_3x3
I0727 20:17:08.709591 26138 net.cpp:148] Top shape: 10 384 7 7 (188160)
I0727 20:17:08.709600 26138 net.cpp:156] Memory required for data: 546542080
I0727 20:17:08.709609 26138 layer_factory.hpp:77] Creating layer inception_5b/5x5_reduce
I0727 20:17:08.709640 26138 net.cpp:91] Creating Layer inception_5b/5x5_reduce
I0727 20:17:08.709655 26138 net.cpp:425] inception_5b/5x5_reduce <- inception_5a/output_inception_5a/output_0_split_2
I0727 20:17:08.709674 26138 net.cpp:399] inception_5b/5x5_reduce -> inception_5b/5x5_reduce
I0727 20:17:08.717663 26138 net.cpp:141] Setting up inception_5b/5x5_reduce
I0727 20:17:08.717689 26138 net.cpp:148] Top shape: 10 48 7 7 (23520)
I0727 20:17:08.717699 26138 net.cpp:156] Memory required for data: 546636160
I0727 20:17:08.717715 26138 layer_factory.hpp:77] Creating layer inception_5b/relu_5x5_reduce
I0727 20:17:08.717737 26138 net.cpp:91] Creating Layer inception_5b/relu_5x5_reduce
I0727 20:17:08.717751 26138 net.cpp:425] inception_5b/relu_5x5_reduce <- inception_5b/5x5_reduce
I0727 20:17:08.717766 26138 net.cpp:386] inception_5b/relu_5x5_reduce -> inception_5b/5x5_reduce (in-place)
I0727 20:17:08.718394 26138 net.cpp:141] Setting up inception_5b/relu_5x5_reduce
I0727 20:17:08.718415 26138 net.cpp:148] Top shape: 10 48 7 7 (23520)
I0727 20:17:08.718421 26142 net.cpp:141] Setting up inception_5b/pool_proj
I0727 20:17:08.718425 26138 net.cpp:156] Memory required for data: 546730240
I0727 20:17:08.718441 26142 net.cpp:148] Top shape: 10 128 7 7 (62720)
I0727 20:17:08.718446 26142 net.cpp:156] Memory required for data: 549113600
I0727 20:17:08.718446 26138 layer_factory.hpp:77] Creating layer inception_5b/5x5
I0727 20:17:08.718456 26142 layer_factory.hpp:77] Creating layer inception_5b/relu_pool_proj
I0727 20:17:08.718464 26142 net.cpp:91] Creating Layer inception_5b/relu_pool_proj
I0727 20:17:08.718473 26142 net.cpp:425] inception_5b/relu_pool_proj <- inception_5b/pool_proj
I0727 20:17:08.718480 26142 net.cpp:386] inception_5b/relu_pool_proj -> inception_5b/pool_proj (in-place)
I0727 20:17:08.718477 26138 net.cpp:91] Creating Layer inception_5b/5x5
I0727 20:17:08.718500 26138 net.cpp:425] inception_5b/5x5 <- inception_5b/5x5_reduce
I0727 20:17:08.718519 26138 net.cpp:399] inception_5b/5x5 -> inception_5b/5x5
I0727 20:17:08.719426 26142 net.cpp:141] Setting up inception_5b/relu_pool_proj
I0727 20:17:08.719442 26142 net.cpp:148] Top shape: 10 128 7 7 (62720)
I0727 20:17:08.719447 26142 net.cpp:156] Memory required for data: 549364480
I0727 20:17:08.719451 26142 layer_factory.hpp:77] Creating layer inception_5b/output
I0727 20:17:08.719463 26142 net.cpp:91] Creating Layer inception_5b/output
I0727 20:17:08.719468 26142 net.cpp:425] inception_5b/output <- inception_5b/1x1
I0727 20:17:08.719475 26142 net.cpp:425] inception_5b/output <- inception_5b/3x3
I0727 20:17:08.719480 26142 net.cpp:425] inception_5b/output <- inception_5b/5x5
I0727 20:17:08.719485 26142 net.cpp:425] inception_5b/output <- inception_5b/pool_proj
I0727 20:17:08.719491 26142 net.cpp:399] inception_5b/output -> inception_5b/output
I0727 20:17:08.719629 26142 net.cpp:141] Setting up inception_5b/output
I0727 20:17:08.719638 26142 net.cpp:148] Top shape: 10 1024 7 7 (501760)
I0727 20:17:08.719645 26142 net.cpp:156] Memory required for data: 551371520
I0727 20:17:08.719650 26142 layer_factory.hpp:77] Creating layer pool5/7x7_s1
I0727 20:17:08.719660 26142 net.cpp:91] Creating Layer pool5/7x7_s1
I0727 20:17:08.719665 26142 net.cpp:425] pool5/7x7_s1 <- inception_5b/output
I0727 20:17:08.719671 26142 net.cpp:399] pool5/7x7_s1 -> pool5/7x7_s1
I0727 20:17:08.720227 26142 net.cpp:141] Setting up pool5/7x7_s1
I0727 20:17:08.720239 26142 net.cpp:148] Top shape: 10 1024 1 1 (10240)
I0727 20:17:08.720243 26142 net.cpp:156] Memory required for data: 551412480
I0727 20:17:08.720248 26142 layer_factory.hpp:77] Creating layer pool5/drop_7x7_s1
I0727 20:17:08.720260 26142 net.cpp:91] Creating Layer pool5/drop_7x7_s1
I0727 20:17:08.720265 26142 net.cpp:425] pool5/drop_7x7_s1 <- pool5/7x7_s1
I0727 20:17:08.720273 26142 net.cpp:386] pool5/drop_7x7_s1 -> pool5/7x7_s1 (in-place)
I0727 20:17:08.720356 26142 net.cpp:141] Setting up pool5/drop_7x7_s1
I0727 20:17:08.720366 26142 net.cpp:148] Top shape: 10 1024 1 1 (10240)
I0727 20:17:08.720371 26142 net.cpp:156] Memory required for data: 551453440
I0727 20:17:08.720376 26142 layer_factory.hpp:77] Creating layer loss3/classifier
I0727 20:17:08.720392 26142 net.cpp:91] Creating Layer loss3/classifier
I0727 20:17:08.720402 26142 net.cpp:425] loss3/classifier <- pool5/7x7_s1
I0727 20:17:08.720408 26142 net.cpp:399] loss3/classifier -> loss3/classifier
I0727 20:17:08.726485 26138 net.cpp:141] Setting up inception_5b/5x5
I0727 20:17:08.726518 26138 net.cpp:148] Top shape: 10 128 7 7 (62720)
I0727 20:17:08.726528 26138 net.cpp:156] Memory required for data: 546981120
I0727 20:17:08.726546 26138 layer_factory.hpp:77] Creating layer inception_5b/relu_5x5
I0727 20:17:08.726562 26138 net.cpp:91] Creating Layer inception_5b/relu_5x5
I0727 20:17:08.726572 26138 net.cpp:425] inception_5b/relu_5x5 <- inception_5b/5x5
I0727 20:17:08.726585 26138 net.cpp:386] inception_5b/relu_5x5 -> inception_5b/5x5 (in-place)
I0727 20:17:08.727072 26138 net.cpp:141] Setting up inception_5b/relu_5x5
I0727 20:17:08.727089 26138 net.cpp:148] Top shape: 10 128 7 7 (62720)
I0727 20:17:08.727098 26138 net.cpp:156] Memory required for data: 547232000
I0727 20:17:08.727107 26138 layer_factory.hpp:77] Creating layer inception_5b/pool
I0727 20:17:08.727121 26138 net.cpp:91] Creating Layer inception_5b/pool
I0727 20:17:08.727133 26138 net.cpp:425] inception_5b/pool <- inception_5a/output_inception_5a/output_0_split_3
I0727 20:17:08.727151 26138 net.cpp:399] inception_5b/pool -> inception_5b/pool
I0727 20:17:08.727372 26138 net.cpp:141] Setting up inception_5b/pool
I0727 20:17:08.727390 26138 net.cpp:148] Top shape: 10 832 7 7 (407680)
I0727 20:17:08.727397 26138 net.cpp:156] Memory required for data: 548862720
I0727 20:17:08.727406 26138 layer_factory.hpp:77] Creating layer inception_5b/pool_proj
I0727 20:17:08.727433 26138 net.cpp:91] Creating Layer inception_5b/pool_proj
I0727 20:17:08.727447 26138 net.cpp:425] inception_5b/pool_proj <- inception_5b/pool
I0727 20:17:08.727463 26138 net.cpp:399] inception_5b/pool_proj -> inception_5b/pool_proj
I0727 20:17:08.732743 26142 net.cpp:141] Setting up loss3/classifier
I0727 20:17:08.732776 26142 net.cpp:148] Top shape: 10 1000 (10000)
I0727 20:17:08.732781 26142 net.cpp:156] Memory required for data: 551493440
I0727 20:17:08.732792 26142 layer_factory.hpp:77] Creating layer prob
I0727 20:17:08.732806 26142 net.cpp:91] Creating Layer prob
I0727 20:17:08.732813 26142 net.cpp:425] prob <- loss3/classifier
I0727 20:17:08.732823 26142 net.cpp:399] prob -> prob
I0727 20:17:08.734287 26138 net.cpp:141] Setting up inception_5b/pool_proj
I0727 20:17:08.734308 26138 net.cpp:148] Top shape: 10 128 7 7 (62720)
I0727 20:17:08.734318 26138 net.cpp:156] Memory required for data: 549113600
I0727 20:17:08.734335 26138 layer_factory.hpp:77] Creating layer inception_5b/relu_pool_proj
I0727 20:17:08.734344 26142 net.cpp:141] Setting up prob
I0727 20:17:08.734352 26138 net.cpp:91] Creating Layer inception_5b/relu_pool_proj
I0727 20:17:08.734357 26142 net.cpp:148] Top shape: 10 1000 (10000)
I0727 20:17:08.734364 26142 net.cpp:156] Memory required for data: 551533440
I0727 20:17:08.734367 26138 net.cpp:425] inception_5b/relu_pool_proj <- inception_5b/pool_proj
I0727 20:17:08.734370 26142 net.cpp:219] prob does not need backward computation.
I0727 20:17:08.734385 26142 net.cpp:219] loss3/classifier does not need backward computation.
I0727 20:17:08.734390 26142 net.cpp:219] pool5/drop_7x7_s1 does not need backward computation.
…
I0727 20:17:08.735045 26142 net.cpp:219] pool1/3x3_s2 does not need backward computation.
I0727 20:17:08.735050 26142 net.cpp:219] conv1/relu_7x7 does not need backward computation.
I0727 20:17:08.735054 26142 net.cpp:219] conv1/7x7_s2 does not need backward computation.
I0727 20:17:08.735059 26142 net.cpp:219] data does not need backward computation.
I0727 20:17:08.735062 26142 net.cpp:261] This network produces output prob
I0727 20:17:08.735188 26142 net.cpp:274] Network initialization done.
I0727 20:17:08.735568 26138 net.cpp:141] Setting up inception_5b/relu_pool_proj
I0727 20:17:08.735587 26138 net.cpp:148] Top shape: 10 128 7 7 (62720)
I0727 20:17:08.735596 26138 net.cpp:156] Memory required for data: 549364480
I0727 20:17:08.735605 26138 layer_factory.hpp:77] Creating layer inception_5b/output
I0727 20:17:08.735621 26138 net.cpp:91] Creating Layer inception_5b/output
I0727 20:17:08.735633 26138 net.cpp:425] inception_5b/output <- inception_5b/1x1
I0727 20:17:08.735646 26138 net.cpp:425] inception_5b/output <- inception_5b/3x3
I0727 20:17:08.735658 26138 net.cpp:425] inception_5b/output <- inception_5b/5x5
I0727 20:17:08.735669 26138 net.cpp:425] inception_5b/output <- inception_5b/pool_proj
I0727 20:17:08.735688 26138 net.cpp:399] inception_5b/output -> inception_5b/output
I0727 20:17:08.735821 26138 net.cpp:141] Setting up inception_5b/output
I0727 20:17:08.735838 26138 net.cpp:148] Top shape: 10 1024 7 7 (501760)
I0727 20:17:08.735847 26138 net.cpp:156] Memory required for data: 551371520
I0727 20:17:08.735855 26138 layer_factory.hpp:77] Creating layer pool5/7x7_s1
I0727 20:17:08.735872 26138 net.cpp:91] Creating Layer pool5/7x7_s1
I0727 20:17:08.735882 26138 net.cpp:425] pool5/7x7_s1 <- inception_5b/output
I0727 20:17:08.735908 26138 net.cpp:399] pool5/7x7_s1 -> pool5/7x7_s1
I0727 20:17:08.736480 26138 net.cpp:141] Setting up pool5/7x7_s1
I0727 20:17:08.736502 26138 net.cpp:148] Top shape: 10 1024 1 1 (10240)
I0727 20:17:08.736511 26138 net.cpp:156] Memory required for data: 551412480
I0727 20:17:08.736521 26138 layer_factory.hpp:77] Creating layer pool5/drop_7x7_s1
I0727 20:17:08.736536 26138 net.cpp:91] Creating Layer pool5/drop_7x7_s1
I0727 20:17:08.736547 26138 net.cpp:425] pool5/drop_7x7_s1 <- pool5/7x7_s1
I0727 20:17:08.736559 26138 net.cpp:386] pool5/drop_7x7_s1 -> pool5/7x7_s1 (in-place)
I0727 20:17:08.736676 26138 net.cpp:141] Setting up pool5/drop_7x7_s1
I0727 20:17:08.736692 26138 net.cpp:148] Top shape: 10 1024 1 1 (10240)
I0727 20:17:08.736701 26138 net.cpp:156] Memory required for data: 551453440
I0727 20:17:08.736709 26138 layer_factory.hpp:77] Creating layer loss3/classifier
I0727 20:17:08.736729 26138 net.cpp:91] Creating Layer loss3/classifier
I0727 20:17:08.736739 26138 net.cpp:425] loss3/classifier <- pool5/7x7_s1
I0727 20:17:08.736759 26138 net.cpp:399] loss3/classifier -> loss3/classifier
I0727 20:17:08.751420 26138 net.cpp:141] Setting up loss3/classifier
I0727 20:17:08.751463 26138 net.cpp:148] Top shape: 10 1000 (10000)
I0727 20:17:08.751471 26138 net.cpp:156] Memory required for data: 551493440
I0727 20:17:08.751492 26138 layer_factory.hpp:77] Creating layer prob
I0727 20:17:08.751513 26138 net.cpp:91] Creating Layer prob
I0727 20:17:08.751523 26138 net.cpp:425] prob <- loss3/classifier
I0727 20:17:08.751544 26138 net.cpp:399] prob -> prob
I0727 20:17:08.753545 26138 net.cpp:141] Setting up prob
I0727 20:17:08.753567 26138 net.cpp:148] Top shape: 10 1000 (10000)
I0727 20:17:08.753576 26138 net.cpp:156] Memory required for data: 551533440
I0727 20:17:08.753587 26138 net.cpp:219] prob does not need backward computation.
I0727 20:17:08.753597 26138 net.cpp:219] loss3/classifier does not need backward computation.
I0727 20:17:08.753605 26138 net.cpp:219] pool5/drop_7x7_s1 does not need backward computation.
I0727 20:17:08.753613 26138 net.cpp:219] pool5/7x7_s1 does not need backward computation.
…
