…
I0925 20:57:47.463302 11473 upgrade_proto.cpp:69] Successfully upgraded file specified using deprecated input fields.
W0925 20:57:47.463323 11477 upgrade_proto.cpp:71] Note that future Caffe releases will only support input layers and not input fields.
W0925 20:57:47.463327 11473 upgrade_proto.cpp:71] Note that future Caffe releases will only support input layers and not input fields.
I0925 20:57:47.463526 11483 net.cpp:49] Initializing net from parameters: 
name: "CaffeNet"
state {
  phase: TEST
}
layer {
  name: "data"
  type: "Input"
  top: "data"
  input_param {
    shape {
      dim: 10
      dim: 3
      dim: 227
      dim: 227
    }
  }
}
layer {
  name: "conv1"
  type: "Convolution"
  bottom: "data"
  top: "conv1"
  convolution_param {
    num_output: 96
    kernel_size: 11
    stride: 4
  }
}
layer {
  name: "relu1"
  type: "ReLU"
  bottom: "conv1"
  top: "conv1"
}
layer {
  name: "pool1"
  type: "Pooling"
  bottom: "conv1"
  top: "pool1"
  pooling_param {
    pool: MAX
    kernel_size: 3
    stride: 2
  }
}
layer {
  name: "norm1"
  type: "LRN"
  bottom: "pool1"
  top: "norm1"
  lrn_param {
    local_size: 5
    alpha: 0.0001
    beta: 0.75
  }
}
layer {
  name: "conv2"
  type: "Convolution"
  bottom: "norm1"
  top: "conv2"
  convolution_param {
    num_output: 256
    pad: 2
    kernel_size: 5
    group: 2
  }
}
layer {
  name: "relu2"
  type: "ReLU"
  bottom: "conv2"
  top: "conv2"
}
layer {
  name: "pool2"
  type: "Pooling"
  bottom: "conv2"
  top: "pool2"
  pooling_param {
    pool: MAX
    kernel_size: 3
    stride: 2
  }
}
layer {
  name: "norm2"
  type: "LRN"
  bottom: "pool2"
  top: "norm2"
  lrn_param {
    local_size: 5
    alpha: 0.0001
    beta: 0.75
  }
}
layer {
  name: "conv3"
  type: "Convolution"
  bottom: "norm2"
  top: "conv3"
  convolution_param {
    num_output: 384
    pad: 1
    kernel_size: 3
  }
}
layer {
  name: "relu3"
  type: "ReLU"
  bottom: "conv3"
  top: "conv3"
}
layer {
  name: "conv4"
  type: "Convolution"
  bottom: "conv3"
  top: "conv4"
  convolution_param {
    num_output: 384
    pad: 1
    kernel_size: 3
    group: 2
  }
}
layer {
  name: "relu4"
  type: "ReLU"
  bottom: "conv4"
  top: "conv4"
}
layer {
  name: "conv5"
  type: "Convolution"
  bottom: "conv4"
  top: "conv5"
  convolution_param {
    num_output: 256
    pad: 1
    kernel_size: 3
    group: 2
  }
}
layer {
  name: "relu5"
  type: "ReLU"
  bottom: "conv5"
  top: "conv5"
}
layer {
  name: "pool5"
  type: "Pooling"
  bottom: "conv5"
  top: "pool5"
  pooling_param {
    pool: MAX
    kernel_size: 3
    stride: 2
  }
}
layer {
  name: "fc6"
  type: "InnerProduct"
  bottom: "pool5"
  top: "fc6"
  inner_product_param {
    num_output: 4096
  }
}
layer {
  name: "relu6"
  type: "ReLU"
  bottom: "fc6"
  top: "fc6"
}
layer {
  name: "drop6"
  type: "Dropout"
  bottom: "fc6"
  top: "fc6"
  dropout_param {
    dropout_ratio: 0.5
  }
}
layer {
  name: "fc7"
  type: "InnerProduct"
  bottom: "fc6"
  top: "fc7"
  inner_product_param {
    num_output: 4096
  }
}
layer {
  name: "relu7"
  type: "ReLU"
  bottom: "fc7"
  top: "fc7"
}
layer {
  name: "drop7"
  type: "Dropout"
  bottom: "fc7"
  top: "fc7"
  dropout_param {
    dropout_ratio: 0.5
  }
}
layer {
  name: "fc8"
  type: "InnerProduct"
  bottom: "fc7"
  top: "fc8"
  inner_product_param {
    num_output: 1000
  }
}
layer {
  name: "prob"
  type: "Softmax"
  bottom: "fc8"
  top: "prob"
}
I0925 20:57:47.463593 11473 net.cpp:49] Initializing net from parameters: 
name: "s2vt:features_to_lstm"
state {
  phase: TEST
}
layer {
  name: "input"
  type: "Input"
  top: "frames_fc7"
  top: "cont_sentence"
  top: "input_sentence"
  top: "stage_indicator"
  input_param {
    shape {
      dim: 1
      dim: 4096
    }
    shape {
      dim: 1
      dim: 1
    }
    shape {
      dim: 1
      dim: 1
    }
    shape {
      dim: 1
      dim: 1
    }
  }
}
layer {
  name: "embed_encoder"
  type: "InnerProduct"
  bottom: "frames_fc7"
  top: "embedded_in_frames"
  param {
    lr_mult: 1
    decay_mult: 1
  }
  param {
    lr_mult: 2
    decay_mult: 0
  }
  inner_product_param {
    num_output: 500
    weight_filler {
      type: "xavier"
    }
    bias_filler {
      type: "constant"
      value: 0.2
    }
  }
}
layer {
  name: "reshape_frames"
  type: "Reshape"
  bottom: "embedded_in_frames"
  top: "embedded_input_frames"
  reshape_param {
    shape {
      dim: 1
      dim: 1
      dim: 500
    }
  }
}
layer {
  name: "reshape_stage_indicator"
  type: "Reshape"
  bottom: "stage_indicator"
  top: "reshaped_stage_indicator"
  reshape_param {
    shape {
      dim: 1
      dim: 1
      dim: 1
    }
  }
}
layer {
  name: "embedding"
  type: "Embed"
  bottom: "input_sentence"
  top: "embedded_input_sentence"
  param {
    lr_mult: 1
  }
  embed_param {
    num_output: 500
    input_dim: 46168
    bias_term: false
    weight_filler {
      type: "uniform"
      min: -0.08
      max: 0.08
    }
  }
}
layer {
  name: "lstm1"
  type: "LSTM"
  bottom: "embedded_input_frames"
  bottom: "cont_sentence"
  top: "lstm1"
  recurrent_param {
    num_output: 1000
    weight_filler {
      type: "uniform"
      min: -0.08
      max: 0.08
    }
    bias_filler {
      type: "constant"
      value: 0
    }
  }
}
layer {
  name: "concat"
  type: "Concat"
  bottom: "lstm1"
  bottom: "embedded_input_sentence"
  bottom: "reshaped_stage_indicator"
  top: "lstm1_video_sequence"
  concat_param {
    concat_dim: 2
  }
}
layer {
  name: "lstm2"
  type: "LSTM"
  bottom: "lstm1_video_sequence"
  bottom: "cont_sentence"
  top: "lstm2"
  recurrent_param {
    num_output: 1000
    weight_filler {
      type: "uniform"
      min: -0.08
      max: 0.08
    }
    bias_filler {
      type: "constant"
      value: 0
    }
  }
}
layer {
  name: "predict"
  type: "InnerProduct"
  bottom: "lstm2"
  top: "predict"
  param {
    lr_mult: 1
    decay_mult: 1
  }
  param {
    lr_mult: 2
    decay_mult: 0
  }
  inner_product_param {
    num_output: 46168
    weight_filler {
      type: "uniform"
      min: -0.08
      max: 0.08
    }
    bias_filler {
      type: "constant"
      value: 0
    }
    axis: 2
  }
}
layer {
  name: "probs"
  type: "Softmax"
  bottom: "predict"
  top: "probs"
  softmax_param {
    axis: 2
  }
}
I0925 20:57:47.463608 11477 net.cpp:49] Initializing net from parameters: 
name: "s2vt:features_to_lstm"
state {
  phase: TEST
}
layer {
  name: "input"
  type: "Input"
  top: "frames_fc7"
  top: "cont_sentence"
  top: "input_sentence"
  top: "stage_indicator"
  input_param {
    shape {
      dim: 1
      dim: 4096
    }
    shape {
      dim: 1
      dim: 1
    }
    shape {
      dim: 1
      dim: 1
    }
    shape {
      dim: 1
      dim: 1
    }
  }
}
layer {
  name: "embed_encoder"
  type: "InnerProduct"
  bottom: "frames_fc7"
  top: "embedded_in_frames"
  param {
    lr_mult: 1
    decay_mult: 1
  }
  param {
    lr_mult: 2
    decay_mult: 0
  }
  inner_product_param {
    num_output: 500
    weight_filler {
      type: "xavier"
    }
    bias_filler {
      type: "constant"
      value: 0.2
    }
  }
}
layer {
  name: "reshape_frames"
  type: "Reshape"
  bottom: "embedded_in_frames"
  top: "embedded_input_frames"
  reshape_param {
    shape {
      dim: 1
      dim: 1
      dim: 500
    }
  }
}
layer {
  name: "reshape_stage_indicator"
  type: "Reshape"
  bottom: "stage_indicator"
  top: "reshaped_stage_indicator"
  reshape_param {
    shape {
      dim: 1
      dim: 1
      dim: 1
    }
  }
}
layer {
  name: "embedding"
  type: "Embed"
  bottom: "input_sentence"
  top: "embedded_input_sentence"
  param {
    lr_mult: 1
  }
  embed_param {
    num_output: 500
    input_dim: 46168
    bias_term: false
    weight_filler {
      type: "uniform"
      min: -0.08
      max: 0.08
    }
  }
}
layer {
  name: "lstm1"
  type: "LSTM"
  bottom: "embedded_input_frames"
  bottom: "cont_sentence"
  top: "lstm1"
  recurrent_param {
    num_output: 1000
    weight_filler {
      type: "uniform"
      min: -0.08
      max: 0.08
    }
    bias_filler {
      type: "constant"
      value: 0
    }
  }
}
layer {
  name: "concat"
  type: "Concat"
  bottom: "lstm1"
  bottom: "embedded_input_sentence"
  bottom: "reshaped_stage_indicator"
  top: "lstm1_video_sequence"
  concat_param {
    concat_dim: 2
  }
}
layer {
  name: "lstm2"
  type: "LSTM"
  bottom: "lstm1_video_sequence"
  bottom: "cont_sentence"
  top: "lstm2"
  recurrent_param {
    num_output: 1000
    weight_filler {
      type: "uniform"
      min: -0.08
      max: 0.08
    }
    bias_filler {
      type: "constant"
      value: 0
    }
  }
}
layer {
  name: "predict"
  type: "InnerProduct"
  bottom: "lstm2"
  top: "predict"
  param {
    lr_mult: 1
    decay_mult: 1
  }
  param {
    lr_mult: 2
    decay_mult: 0
  }
  inner_product_param {
    num_output: 46168
    weight_filler {
      type: "uniform"
      min: -0.08
      max: 0.08
    }
    bias_filler {
      type: "constant"
      value: 0
    }
    axis: 2
  }
}
layer {
  name: "probs"
  type: "Softmax"
  bottom: "predict"
  top: "probs"
  softmax_param {
    axis: 2
  }
}
I0925 20:57:47.463663 11483 layer_factory.hpp:77] Creating layer data
I0925 20:57:47.463706 11483 net.cpp:91] Creating Layer data
I0925 20:57:47.463718 11483 net.cpp:399] data -> data
I0925 20:57:47.463722 11473 layer_factory.hpp:77] Creating layer input
I0925 20:57:47.463726 11477 layer_factory.hpp:77] Creating layer input
I0925 20:57:47.463740 11473 net.cpp:91] Creating Layer input
I0925 20:57:47.463745 11477 net.cpp:91] Creating Layer input
I0925 20:57:47.463749 11473 net.cpp:399] input -> frames_fc7
I0925 20:57:47.463768 11477 net.cpp:399] input -> frames_fc7
I0925 20:57:47.463785 11473 net.cpp:399] input -> cont_sentence
I0925 20:57:47.463785 11477 net.cpp:399] input -> cont_sentence
I0925 20:57:47.463806 11473 net.cpp:399] input -> input_sentence
I0925 20:57:47.463820 11473 net.cpp:399] input -> stage_indicator
I0925 20:57:47.463826 11477 net.cpp:399] input -> input_sentence
I0925 20:57:47.463841 11477 net.cpp:399] input -> stage_indicator
I0925 20:57:48.132879 11483 net.cpp:141] Setting up data
I0925 20:57:48.132992 11483 net.cpp:148] Top shape: 10 3 227 227 (1545870)
I0925 20:57:48.133000 11483 net.cpp:156] Memory required for data: 6183480
I0925 20:57:48.133028 11483 layer_factory.hpp:77] Creating layer conv1
I0925 20:57:48.133065 11483 net.cpp:91] Creating Layer conv1
I0925 20:57:48.133076 11483 net.cpp:425] conv1 <- data
I0925 20:57:48.133091 11483 net.cpp:399] conv1 -> conv1
I0925 20:57:48.133103 11473 net.cpp:141] Setting up input
I0925 20:57:48.133124 11473 net.cpp:148] Top shape: 1 4096 (4096)
I0925 20:57:48.133132 11473 net.cpp:148] Top shape: 1 1 (1)
I0925 20:57:48.133138 11473 net.cpp:148] Top shape: 1 1 (1)
I0925 20:57:48.133144 11473 net.cpp:148] Top shape: 1 1 (1)
I0925 20:57:48.133149 11473 net.cpp:156] Memory required for data: 16396
I0925 20:57:48.133157 11473 layer_factory.hpp:77] Creating layer cont_sentence_input_1_split
I0925 20:57:48.133177 11473 net.cpp:91] Creating Layer cont_sentence_input_1_split
I0925 20:57:48.133184 11473 net.cpp:425] cont_sentence_input_1_split <- cont_sentence
I0925 20:57:48.133210 11473 net.cpp:399] cont_sentence_input_1_split -> cont_sentence_input_1_split_0
I0925 20:57:48.133214 11477 net.cpp:141] Setting up input
I0925 20:57:48.133245 11477 net.cpp:148] Top shape: 1 4096 (4096)
I0925 20:57:48.133222 11473 net.cpp:399] cont_sentence_input_1_split -> cont_sentence_input_1_split_1
I0925 20:57:48.133261 11477 net.cpp:148] Top shape: 1 1 (1)
I0925 20:57:48.133275 11477 net.cpp:148] Top shape: 1 1 (1)
I0925 20:57:48.133285 11477 net.cpp:148] Top shape: 1 1 (1)
I0925 20:57:48.133293 11477 net.cpp:156] Memory required for data: 16396
I0925 20:57:48.133306 11477 layer_factory.hpp:77] Creating layer cont_sentence_input_1_split
I0925 20:57:48.133333 11477 net.cpp:91] Creating Layer cont_sentence_input_1_split
I0925 20:57:48.133347 11477 net.cpp:425] cont_sentence_input_1_split <- cont_sentence
I0925 20:57:48.133363 11477 net.cpp:399] cont_sentence_input_1_split -> cont_sentence_input_1_split_0
I0925 20:57:48.133388 11477 net.cpp:399] cont_sentence_input_1_split -> cont_sentence_input_1_split_1
I0925 20:57:48.133437 11473 net.cpp:141] Setting up cont_sentence_input_1_split
I0925 20:57:48.133458 11473 net.cpp:148] Top shape: 1 1 (1)
I0925 20:57:48.133466 11473 net.cpp:148] Top shape: 1 1 (1)
I0925 20:57:48.133471 11473 net.cpp:156] Memory required for data: 16404
I0925 20:57:48.133477 11473 layer_factory.hpp:77] Creating layer embed_encoder
I0925 20:57:48.133505 11473 net.cpp:91] Creating Layer embed_encoder
I0925 20:57:48.133512 11473 net.cpp:425] embed_encoder <- frames_fc7
I0925 20:57:48.133522 11473 net.cpp:399] embed_encoder -> embedded_in_frames
I0925 20:57:48.134321 11477 net.cpp:141] Setting up cont_sentence_input_1_split
I0925 20:57:48.134346 11477 net.cpp:148] Top shape: 1 1 (1)
I0925 20:57:48.134361 11477 net.cpp:148] Top shape: 1 1 (1)
I0925 20:57:48.134369 11477 net.cpp:156] Memory required for data: 16404
I0925 20:57:48.134380 11477 layer_factory.hpp:77] Creating layer embed_encoder
I0925 20:57:48.134429 11477 net.cpp:91] Creating Layer embed_encoder
I0925 20:57:48.134445 11477 net.cpp:425] embed_encoder <- frames_fc7
I0925 20:57:48.134464 11477 net.cpp:399] embed_encoder -> embedded_in_frames
I0925 20:57:48.161217 11473 net.cpp:141] Setting up embed_encoder
I0925 20:57:48.161273 11473 net.cpp:148] Top shape: 1 500 (500)
I0925 20:57:48.161279 11473 net.cpp:156] Memory required for data: 18404
I0925 20:57:48.161310 11473 layer_factory.hpp:77] Creating layer reshape_frames
I0925 20:57:48.161345 11473 net.cpp:91] Creating Layer reshape_frames
I0925 20:57:48.161353 11473 net.cpp:425] reshape_frames <- embedded_in_frames
I0925 20:57:48.161365 11473 net.cpp:399] reshape_frames -> embedded_input_frames
I0925 20:57:48.161360 11477 net.cpp:141] Setting up embed_encoder
I0925 20:57:48.161386 11477 net.cpp:148] Top shape: 1 500 (500)
I0925 20:57:48.161394 11477 net.cpp:156] Memory required for data: 18404
I0925 20:57:48.161419 11477 layer_factory.hpp:77] Creating layer reshape_frames
I0925 20:57:48.161427 11473 net.cpp:141] Setting up reshape_frames
I0925 20:57:48.161438 11473 net.cpp:148] Top shape: 1 1 500 (500)
I0925 20:57:48.161443 11473 net.cpp:156] Memory required for data: 20404
I0925 20:57:48.161443 11477 net.cpp:91] Creating Layer reshape_frames
I0925 20:57:48.161450 11473 layer_factory.hpp:77] Creating layer reshape_stage_indicator
I0925 20:57:48.161459 11477 net.cpp:425] reshape_frames <- embedded_in_frames
I0925 20:57:48.161463 11473 net.cpp:91] Creating Layer reshape_stage_indicator
I0925 20:57:48.161469 11473 net.cpp:425] reshape_stage_indicator <- stage_indicator
I0925 20:57:48.161473 11477 net.cpp:399] reshape_frames -> embedded_input_frames
I0925 20:57:48.161478 11473 net.cpp:399] reshape_stage_indicator -> reshaped_stage_indicator
I0925 20:57:48.161519 11473 net.cpp:141] Setting up reshape_stage_indicator
I0925 20:57:48.161528 11473 net.cpp:148] Top shape: 1 1 1 (1)
I0925 20:57:48.161533 11473 net.cpp:156] Memory required for data: 20408
I0925 20:57:48.161538 11473 layer_factory.hpp:77] Creating layer embedding
I0925 20:57:48.161552 11473 net.cpp:91] Creating Layer embedding
I0925 20:57:48.161558 11473 net.cpp:425] embedding <- input_sentence
I0925 20:57:48.161567 11473 net.cpp:399] embedding -> embedded_input_sentence
I0925 20:57:48.161574 11477 net.cpp:141] Setting up reshape_frames
I0925 20:57:48.161592 11477 net.cpp:148] Top shape: 1 1 500 (500)
I0925 20:57:48.161602 11477 net.cpp:156] Memory required for data: 20404
I0925 20:57:48.161612 11477 layer_factory.hpp:77] Creating layer reshape_stage_indicator
I0925 20:57:48.161629 11477 net.cpp:91] Creating Layer reshape_stage_indicator
I0925 20:57:48.161641 11477 net.cpp:425] reshape_stage_indicator <- stage_indicator
I0925 20:57:48.161662 11477 net.cpp:399] reshape_stage_indicator -> reshaped_stage_indicator
I0925 20:57:48.206259 11477 net.cpp:141] Setting up reshape_stage_indicator
I0925 20:57:48.206320 11477 net.cpp:148] Top shape: 1 1 1 (1)
I0925 20:57:48.206327 11477 net.cpp:156] Memory required for data: 20408
I0925 20:57:48.206337 11477 layer_factory.hpp:77] Creating layer embedding
I0925 20:57:48.206362 11477 net.cpp:91] Creating Layer embedding
I0925 20:57:48.206370 11477 net.cpp:425] embedding <- input_sentence
I0925 20:57:48.206395 11477 net.cpp:399] embedding -> embedded_input_sentence
I0925 20:57:48.410480 11473 net.cpp:141] Setting up embedding
I0925 20:57:48.410540 11473 net.cpp:148] Top shape: 1 1 500 (500)
I0925 20:57:48.410547 11473 net.cpp:156] Memory required for data: 22408
I0925 20:57:48.410568 11473 layer_factory.hpp:77] Creating layer lstm1
I0925 20:57:48.410593 11473 net.cpp:91] Creating Layer lstm1
I0925 20:57:48.410614 11473 net.cpp:425] lstm1 <- embedded_input_frames
I0925 20:57:48.410624 11473 net.cpp:425] lstm1 <- cont_sentence_input_1_split_0
I0925 20:57:48.410634 11473 net.cpp:399] lstm1 -> lstm1
I0925 20:57:48.410682 11473 recurrent_layer.cpp:20] Initializing recurrent layer: assuming input batch contains 1 timesteps of 1 independent streams.
I0925 20:57:48.411092 11473 net.cpp:49] Initializing net from parameters: 
layer {
  name: "lstm1_"
  type: "Input"
  top: "x"
  top: "cont"
  input_param {
    shape {
      dim: 1
      dim: 1
      dim: 500
    }
    shape {
      dim: 1
      dim: 1
    }
  }
}
layer {
  name: "lstm1_"
  type: "Input"
  top: "c_0"
  top: "h_0"
  input_param {
    shape {
      dim: 1
      dim: 1
      dim: 1000
    }
    shape {
      dim: 1
      dim: 1
      dim: 1000
    }
  }
}
layer {
  name: "lstm1_cont_slice"
  type: "Slice"
  bottom: "cont"
  top: "cont_1"
  slice_param {
    axis: 0
  }
}
layer {
  name: "lstm1_x_transform"
  type: "InnerProduct"
  bottom: "x"
  top: "W_xc_x"
  param {
    name: "W_xc"
  }
  param {
    name: "b_c"
  }
  propagate_down: true
  inner_product_param {
    num_output: 4000
    bias_term: true
    weight_filler {
      type: "uniform"
      min: -0.08
      max: 0.08
    }
    bias_filler {
      type: "constant"
      value: 0
    }
    axis: 2
  }
}
layer {
  name: "lstm1_W_xc_x_slice"
  type: "Slice"
  bottom: "W_xc_x"
  top: "W_xc_x_1"
  slice_param {
    axis: 0
  }
}
layer {
  name: "lstm1_h_conted_0"
  type: "Scale"
  bottom: "h_0"
  bottom: "cont_1"
  top: "h_conted_0"
  scale_param {
    axis: 0
  }
}
layer {
  name: "lstm1_transform_1"
  type: "InnerProduct"
  bottom: "h_conted_0"
  top: "W_hc_h_0"
  param {
    name: "W_hc"
  }
  inner_product_param {
    num_output: 4000
    bias_term: false
    weight_filler {
      type: "uniform"
      min: -0.08
      max: 0.08
    }
    axis: 2
  }
}
layer {
  name: "lstm1_gate_input_1"
  type: "Eltwise"
  bottom: "W_hc_h_0"
  bottom: "W_xc_x_1"
  top: "gate_input_1"
  eltwise_param {
    operation: SUM
  }
}
layer {
  name: "lstm1_unit_1"
  type: "LSTMUnit"
  bottom: "c_0"
  bottom: "gate_input_1"
  bottom: "cont_1"
  top: "c_1"
  top: "h_1"
}
layer {
  name: "lstm1_"
  type: "Split"
  bottom: "c_1"
  top: "c_T"
}
layer {
  name: "lstm1_h_concat"
  type: "Concat"
  bottom: "h_1"
  top: "h"
  concat_param {
    axis: 0
  }
}
layer {
  name: "h_pseudoloss"
  type: "Reduction"
  bottom: "h"
  top: "h_pseudoloss"
  loss_weight: 1
}
I0925 20:57:48.411192 11473 layer_factory.hpp:77] Creating layer lstm1_
I0925 20:57:48.411207 11473 net.cpp:91] Creating Layer lstm1_
I0925 20:57:48.411214 11473 net.cpp:399] lstm1_ -> x
I0925 20:57:48.411227 11473 net.cpp:399] lstm1_ -> cont
I0925 20:57:48.413990 11473 net.cpp:141] Setting up lstm1_
I0925 20:57:48.414010 11473 net.cpp:148] Top shape: 1 1 500 (500)
I0925 20:57:48.414017 11473 net.cpp:148] Top shape: 1 1 (1)
I0925 20:57:48.414021 11473 net.cpp:156] Memory required for data: 2004
I0925 20:57:48.414027 11473 layer_factory.hpp:77] Creating layer lstm1_
I0925 20:57:48.414046 11473 net.cpp:91] Creating Layer lstm1_
I0925 20:57:48.414052 11473 net.cpp:399] lstm1_ -> c_0
I0925 20:57:48.414065 11473 net.cpp:399] lstm1_ -> h_0
I0925 20:57:48.414230 11473 net.cpp:141] Setting up lstm1_
I0925 20:57:48.414242 11473 net.cpp:148] Top shape: 1 1 1000 (1000)
I0925 20:57:48.414249 11473 net.cpp:148] Top shape: 1 1 1000 (1000)
I0925 20:57:48.414253 11473 net.cpp:156] Memory required for data: 10004
I0925 20:57:48.414258 11473 layer_factory.hpp:77] Creating layer lstm1_cont_slice
I0925 20:57:48.414268 11473 net.cpp:91] Creating Layer lstm1_cont_slice
I0925 20:57:48.414273 11473 net.cpp:425] lstm1_cont_slice <- cont
I0925 20:57:48.414284 11473 net.cpp:399] lstm1_cont_slice -> cont_1
I0925 20:57:48.415657 11473 net.cpp:141] Setting up lstm1_cont_slice
I0925 20:57:48.415678 11473 net.cpp:148] Top shape: 1 1 (1)
I0925 20:57:48.415683 11473 net.cpp:156] Memory required for data: 10008
I0925 20:57:48.415688 11473 layer_factory.hpp:77] Creating layer cont_1_lstm1_cont_slice_0_split
I0925 20:57:48.415699 11473 net.cpp:91] Creating Layer cont_1_lstm1_cont_slice_0_split
I0925 20:57:48.415704 11473 net.cpp:425] cont_1_lstm1_cont_slice_0_split <- cont_1
I0925 20:57:48.415712 11473 net.cpp:399] cont_1_lstm1_cont_slice_0_split -> cont_1_lstm1_cont_slice_0_split_0
I0925 20:57:48.415724 11473 net.cpp:399] cont_1_lstm1_cont_slice_0_split -> cont_1_lstm1_cont_slice_0_split_1
I0925 20:57:48.415894 11473 net.cpp:141] Setting up cont_1_lstm1_cont_slice_0_split
I0925 20:57:48.415904 11473 net.cpp:148] Top shape: 1 1 (1)
I0925 20:57:48.415911 11473 net.cpp:148] Top shape: 1 1 (1)
I0925 20:57:48.415915 11473 net.cpp:156] Memory required for data: 10016
I0925 20:57:48.415920 11473 layer_factory.hpp:77] Creating layer lstm1_x_transform
I0925 20:57:48.415938 11473 net.cpp:91] Creating Layer lstm1_x_transform
I0925 20:57:48.415944 11473 net.cpp:425] lstm1_x_transform <- x
I0925 20:57:48.415956 11473 net.cpp:399] lstm1_x_transform -> W_xc_x
I0925 20:57:48.441967 11473 net.cpp:141] Setting up lstm1_x_transform
I0925 20:57:48.442019 11473 net.cpp:148] Top shape: 1 1 4000 (4000)
I0925 20:57:48.442026 11473 net.cpp:156] Memory required for data: 26016
I0925 20:57:48.442052 11473 layer_factory.hpp:77] Creating layer lstm1_W_xc_x_slice
I0925 20:57:48.442072 11473 net.cpp:91] Creating Layer lstm1_W_xc_x_slice
I0925 20:57:48.442080 11473 net.cpp:425] lstm1_W_xc_x_slice <- W_xc_x
I0925 20:57:48.442090 11473 net.cpp:399] lstm1_W_xc_x_slice -> W_xc_x_1
I0925 20:57:48.445590 11473 net.cpp:141] Setting up lstm1_W_xc_x_slice
I0925 20:57:48.445614 11473 net.cpp:148] Top shape: 1 1 4000 (4000)
I0925 20:57:48.445621 11473 net.cpp:156] Memory required for data: 42016
I0925 20:57:48.445626 11473 layer_factory.hpp:77] Creating layer lstm1_h_conted_0
I0925 20:57:48.445649 11473 net.cpp:91] Creating Layer lstm1_h_conted_0
I0925 20:57:48.445657 11473 net.cpp:425] lstm1_h_conted_0 <- h_0
I0925 20:57:48.445663 11473 net.cpp:425] lstm1_h_conted_0 <- cont_1_lstm1_cont_slice_0_split_0
I0925 20:57:48.445672 11473 net.cpp:399] lstm1_h_conted_0 -> h_conted_0
I0925 20:57:48.449858 11473 net.cpp:141] Setting up lstm1_h_conted_0
I0925 20:57:48.449882 11473 net.cpp:148] Top shape: 1 1 1000 (1000)
I0925 20:57:48.449887 11473 net.cpp:156] Memory required for data: 46016
I0925 20:57:48.449893 11473 layer_factory.hpp:77] Creating layer lstm1_transform_1
I0925 20:57:48.449908 11473 net.cpp:91] Creating Layer lstm1_transform_1
I0925 20:57:48.449914 11473 net.cpp:425] lstm1_transform_1 <- h_conted_0
I0925 20:57:48.449924 11473 net.cpp:399] lstm1_transform_1 -> W_hc_h_0
I0925 20:57:48.458220 11477 net.cpp:141] Setting up embedding
I0925 20:57:48.458274 11477 net.cpp:148] Top shape: 1 1 500 (500)
I0925 20:57:48.458281 11477 net.cpp:156] Memory required for data: 22408
I0925 20:57:48.458303 11477 layer_factory.hpp:77] Creating layer lstm1
I0925 20:57:48.458325 11477 net.cpp:91] Creating Layer lstm1
I0925 20:57:48.458333 11477 net.cpp:425] lstm1 <- embedded_input_frames
I0925 20:57:48.458346 11477 net.cpp:425] lstm1 <- cont_sentence_input_1_split_0
I0925 20:57:48.458355 11477 net.cpp:399] lstm1 -> lstm1
I0925 20:57:48.458374 11477 recurrent_layer.cpp:20] Initializing recurrent layer: assuming input batch contains 1 timesteps of 1 independent streams.
I0925 20:57:48.458720 11477 net.cpp:49] Initializing net from parameters: 
layer {
  name: "lstm1_"
  type: "Input"
  top: "x"
  top: "cont"
  input_param {
    shape {
      dim: 1
      dim: 1
      dim: 500
    }
    shape {
      dim: 1
      dim: 1
    }
  }
}
layer {
  name: "lstm1_"
  type: "Input"
  top: "c_0"
  top: "h_0"
  input_param {
    shape {
      dim: 1
      dim: 1
      dim: 1000
    }
    shape {
      dim: 1
      dim: 1
      dim: 1000
    }
  }
}
layer {
  name: "lstm1_cont_slice"
  type: "Slice"
  bottom: "cont"
  top: "cont_1"
  slice_param {
    axis: 0
  }
}
layer {
  name: "lstm1_x_transform"
  type: "InnerProduct"
  bottom: "x"
  top: "W_xc_x"
  param {
    name: "W_xc"
  }
  param {
    name: "b_c"
  }
  propagate_down: true
  inner_product_param {
    num_output: 4000
    bias_term: true
    weight_filler {
      type: "uniform"
      min: -0.08
      max: 0.08
    }
    bias_filler {
      type: "constant"
      value: 0
    }
    axis: 2
  }
}
layer {
  name: "lstm1_W_xc_x_slice"
  type: "Slice"
  bottom: "W_xc_x"
  top: "W_xc_x_1"
  slice_param {
    axis: 0
  }
}
layer {
  name: "lstm1_h_conted_0"
  type: "Scale"
  bottom: "h_0"
  bottom: "cont_1"
  top: "h_conted_0"
  scale_param {
    axis: 0
  }
}
layer {
  name: "lstm1_transform_1"
  type: "InnerProduct"
  bottom: "h_conted_0"
  top: "W_hc_h_0"
  param {
    name: "W_hc"
  }
  inner_product_param {
    num_output: 4000
    bias_term: false
    weight_filler {
      type: "uniform"
      min: -0.08
      max: 0.08
    }
    axis: 2
  }
}
layer {
  name: "lstm1_gate_input_1"
  type: "Eltwise"
  bottom: "W_hc_h_0"
  bottom: "W_xc_x_1"
  top: "gate_input_1"
  eltwise_param {
    operation: SUM
  }
}
layer {
  name: "lstm1_unit_1"
  type: "LSTMUnit"
  bottom: "c_0"
  bottom: "gate_input_1"
  bottom: "cont_1"
  top: "c_1"
  top: "h_1"
}
layer {
  name: "lstm1_"
  type: "Split"
  bottom: "c_1"
  top: "c_T"
}
layer {
  name: "lstm1_h_concat"
  type: "Concat"
  bottom: "h_1"
  top: "h"
  concat_param {
    axis: 0
  }
}
layer {
  name: "h_pseudoloss"
  type: "Reduction"
  bottom: "h"
  top: "h_pseudoloss"
  loss_weight: 1
}
I0925 20:57:48.458828 11477 layer_factory.hpp:77] Creating layer lstm1_
I0925 20:57:48.458843 11477 net.cpp:91] Creating Layer lstm1_
I0925 20:57:48.458850 11477 net.cpp:399] lstm1_ -> x
I0925 20:57:48.458863 11477 net.cpp:399] lstm1_ -> cont
I0925 20:57:48.462721 11477 net.cpp:141] Setting up lstm1_
I0925 20:57:48.462751 11477 net.cpp:148] Top shape: 1 1 500 (500)
I0925 20:57:48.462759 11477 net.cpp:148] Top shape: 1 1 (1)
I0925 20:57:48.462764 11477 net.cpp:156] Memory required for data: 2004
I0925 20:57:48.462771 11477 layer_factory.hpp:77] Creating layer lstm1_
I0925 20:57:48.462813 11477 net.cpp:91] Creating Layer lstm1_
I0925 20:57:48.462824 11477 net.cpp:399] lstm1_ -> c_0
I0925 20:57:48.462839 11477 net.cpp:399] lstm1_ -> h_0
I0925 20:57:48.467126 11477 net.cpp:141] Setting up lstm1_
I0925 20:57:48.467149 11477 net.cpp:148] Top shape: 1 1 1000 (1000)
I0925 20:57:48.467164 11477 net.cpp:148] Top shape: 1 1 1000 (1000)
I0925 20:57:48.467170 11477 net.cpp:156] Memory required for data: 10004
I0925 20:57:48.467175 11477 layer_factory.hpp:77] Creating layer lstm1_cont_slice
I0925 20:57:48.467188 11477 net.cpp:91] Creating Layer lstm1_cont_slice
I0925 20:57:48.467195 11477 net.cpp:425] lstm1_cont_slice <- cont
I0925 20:57:48.467209 11477 net.cpp:399] lstm1_cont_slice -> cont_1
I0925 20:57:48.467507 11477 net.cpp:141] Setting up lstm1_cont_slice
I0925 20:57:48.467520 11477 net.cpp:148] Top shape: 1 1 (1)
I0925 20:57:48.467525 11477 net.cpp:156] Memory required for data: 10008
I0925 20:57:48.467531 11477 layer_factory.hpp:77] Creating layer cont_1_lstm1_cont_slice_0_split
I0925 20:57:48.467547 11477 net.cpp:91] Creating Layer cont_1_lstm1_cont_slice_0_split
I0925 20:57:48.467557 11477 net.cpp:425] cont_1_lstm1_cont_slice_0_split <- cont_1
I0925 20:57:48.467571 11477 net.cpp:399] cont_1_lstm1_cont_slice_0_split -> cont_1_lstm1_cont_slice_0_split_0
I0925 20:57:48.467584 11477 net.cpp:399] cont_1_lstm1_cont_slice_0_split -> cont_1_lstm1_cont_slice_0_split_1
I0925 20:57:48.467739 11477 net.cpp:141] Setting up cont_1_lstm1_cont_slice_0_split
I0925 20:57:48.467757 11477 net.cpp:148] Top shape: 1 1 (1)
I0925 20:57:48.467766 11477 net.cpp:148] Top shape: 1 1 (1)
I0925 20:57:48.467770 11477 net.cpp:156] Memory required for data: 10016
I0925 20:57:48.467775 11477 layer_factory.hpp:77] Creating layer lstm1_x_transform
I0925 20:57:48.467793 11477 net.cpp:91] Creating Layer lstm1_x_transform
I0925 20:57:48.467803 11477 net.cpp:425] lstm1_x_transform <- x
I0925 20:57:48.467814 11477 net.cpp:399] lstm1_x_transform -> W_xc_x
I0925 20:57:48.474506 11483 net.cpp:141] Setting up conv1
I0925 20:57:48.474553 11483 net.cpp:148] Top shape: 10 96 55 55 (2904000)
I0925 20:57:48.474560 11483 net.cpp:156] Memory required for data: 17799480
I0925 20:57:48.474583 11483 layer_factory.hpp:77] Creating layer relu1
I0925 20:57:48.474627 11483 net.cpp:91] Creating Layer relu1
I0925 20:57:48.474642 11483 net.cpp:425] relu1 <- conv1
I0925 20:57:48.474656 11483 net.cpp:386] relu1 -> conv1 (in-place)
I0925 20:57:48.475106 11483 net.cpp:141] Setting up relu1
I0925 20:57:48.475121 11483 net.cpp:148] Top shape: 10 96 55 55 (2904000)
I0925 20:57:48.475126 11483 net.cpp:156] Memory required for data: 29415480
I0925 20:57:48.475132 11483 layer_factory.hpp:77] Creating layer pool1
I0925 20:57:48.475147 11483 net.cpp:91] Creating Layer pool1
I0925 20:57:48.475153 11483 net.cpp:425] pool1 <- conv1
I0925 20:57:48.475162 11483 net.cpp:399] pool1 -> pool1
I0925 20:57:48.475258 11483 net.cpp:141] Setting up pool1
I0925 20:57:48.475271 11483 net.cpp:148] Top shape: 10 96 27 27 (699840)
I0925 20:57:48.475276 11483 net.cpp:156] Memory required for data: 32214840
I0925 20:57:48.475282 11483 layer_factory.hpp:77] Creating layer norm1
I0925 20:57:48.475301 11483 net.cpp:91] Creating Layer norm1
I0925 20:57:48.475306 11483 net.cpp:425] norm1 <- pool1
I0925 20:57:48.475314 11483 net.cpp:399] norm1 -> norm1
I0925 20:57:48.475600 11483 net.cpp:141] Setting up norm1
I0925 20:57:48.475613 11483 net.cpp:148] Top shape: 10 96 27 27 (699840)
I0925 20:57:48.475618 11483 net.cpp:156] Memory required for data: 35014200
I0925 20:57:48.475625 11483 layer_factory.hpp:77] Creating layer conv2
I0925 20:57:48.475641 11483 net.cpp:91] Creating Layer conv2
I0925 20:57:48.475646 11483 net.cpp:425] conv2 <- norm1
I0925 20:57:48.475654 11483 net.cpp:399] conv2 -> conv2
I0925 20:57:48.479027 11483 net.cpp:141] Setting up conv2
I0925 20:57:48.479045 11483 net.cpp:148] Top shape: 10 256 27 27 (1866240)
I0925 20:57:48.479053 11483 net.cpp:156] Memory required for data: 42479160
I0925 20:57:48.479066 11483 layer_factory.hpp:77] Creating layer relu2
I0925 20:57:48.479079 11483 net.cpp:91] Creating Layer relu2
I0925 20:57:48.479089 11483 net.cpp:425] relu2 <- conv2
I0925 20:57:48.479102 11483 net.cpp:386] relu2 -> conv2 (in-place)
I0925 20:57:48.479529 11483 net.cpp:141] Setting up relu2
I0925 20:57:48.479545 11483 net.cpp:148] Top shape: 10 256 27 27 (1866240)
I0925 20:57:48.479550 11483 net.cpp:156] Memory required for data: 49944120
I0925 20:57:48.479557 11483 layer_factory.hpp:77] Creating layer pool2
I0925 20:57:48.479568 11483 net.cpp:91] Creating Layer pool2
I0925 20:57:48.479573 11483 net.cpp:425] pool2 <- conv2
I0925 20:57:48.479583 11483 net.cpp:399] pool2 -> pool2
I0925 20:57:48.479640 11483 net.cpp:141] Setting up pool2
I0925 20:57:48.479651 11483 net.cpp:148] Top shape: 10 256 13 13 (432640)
I0925 20:57:48.479656 11483 net.cpp:156] Memory required for data: 51674680
I0925 20:57:48.479661 11483 layer_factory.hpp:77] Creating layer norm2
I0925 20:57:48.479673 11483 net.cpp:91] Creating Layer norm2
I0925 20:57:48.479679 11483 net.cpp:425] norm2 <- pool2
I0925 20:57:48.479687 11483 net.cpp:399] norm2 -> norm2
I0925 20:57:48.479955 11483 net.cpp:141] Setting up norm2
I0925 20:57:48.479969 11483 net.cpp:148] Top shape: 10 256 13 13 (432640)
I0925 20:57:48.479974 11483 net.cpp:156] Memory required for data: 53405240
I0925 20:57:48.479979 11483 layer_factory.hpp:77] Creating layer conv3
I0925 20:57:48.479992 11483 net.cpp:91] Creating Layer conv3
I0925 20:57:48.479998 11483 net.cpp:425] conv3 <- norm2
I0925 20:57:48.480007 11483 net.cpp:399] conv3 -> conv3
I0925 20:57:48.484447 11483 net.cpp:141] Setting up conv3
I0925 20:57:48.484493 11483 net.cpp:148] Top shape: 10 384 13 13 (648960)
I0925 20:57:48.484499 11483 net.cpp:156] Memory required for data: 56001080
I0925 20:57:48.484520 11483 layer_factory.hpp:77] Creating layer relu3
I0925 20:57:48.484539 11483 net.cpp:91] Creating Layer relu3
I0925 20:57:48.484547 11483 net.cpp:425] relu3 <- conv3
I0925 20:57:48.484833 11483 net.cpp:386] relu3 -> conv3 (in-place)
I0925 20:57:48.485100 11483 net.cpp:141] Setting up relu3
I0925 20:57:48.485113 11483 net.cpp:148] Top shape: 10 384 13 13 (648960)
I0925 20:57:48.485118 11483 net.cpp:156] Memory required for data: 58596920
I0925 20:57:48.485124 11483 layer_factory.hpp:77] Creating layer conv4
I0925 20:57:48.485141 11483 net.cpp:91] Creating Layer conv4
I0925 20:57:48.485146 11483 net.cpp:425] conv4 <- conv3
I0925 20:57:48.485155 11483 net.cpp:399] conv4 -> conv4
I0925 20:57:48.489598 11483 net.cpp:141] Setting up conv4
I0925 20:57:48.489622 11483 net.cpp:148] Top shape: 10 384 13 13 (648960)
I0925 20:57:48.489629 11483 net.cpp:156] Memory required for data: 61192760
I0925 20:57:48.489640 11483 layer_factory.hpp:77] Creating layer relu4
I0925 20:57:48.489655 11483 net.cpp:91] Creating Layer relu4
I0925 20:57:48.489661 11483 net.cpp:425] relu4 <- conv4
I0925 20:57:48.489673 11483 net.cpp:386] relu4 -> conv4 (in-place)
I0925 20:57:48.490113 11483 net.cpp:141] Setting up relu4
I0925 20:57:48.490128 11483 net.cpp:148] Top shape: 10 384 13 13 (648960)
I0925 20:57:48.490134 11483 net.cpp:156] Memory required for data: 63788600
I0925 20:57:48.490139 11483 layer_factory.hpp:77] Creating layer conv5
I0925 20:57:48.490155 11483 net.cpp:91] Creating Layer conv5
I0925 20:57:48.490162 11483 net.cpp:425] conv5 <- conv4
I0925 20:57:48.490170 11483 net.cpp:399] conv5 -> conv5
I0925 20:57:48.491840 11477 net.cpp:141] Setting up lstm1_x_transform
I0925 20:57:48.491883 11477 net.cpp:148] Top shape: 1 1 4000 (4000)
I0925 20:57:48.491888 11477 net.cpp:156] Memory required for data: 26016
I0925 20:57:48.491910 11477 layer_factory.hpp:77] Creating layer lstm1_W_xc_x_slice
I0925 20:57:48.491927 11477 net.cpp:91] Creating Layer lstm1_W_xc_x_slice
I0925 20:57:48.491935 11477 net.cpp:425] lstm1_W_xc_x_slice <- W_xc_x
I0925 20:57:48.491945 11477 net.cpp:399] lstm1_W_xc_x_slice -> W_xc_x_1
I0925 20:57:48.492156 11477 net.cpp:141] Setting up lstm1_W_xc_x_slice
I0925 20:57:48.492169 11477 net.cpp:148] Top shape: 1 1 4000 (4000)
I0925 20:57:48.492173 11477 net.cpp:156] Memory required for data: 42016
I0925 20:57:48.492179 11477 layer_factory.hpp:77] Creating layer lstm1_h_conted_0
I0925 20:57:48.492197 11477 net.cpp:91] Creating Layer lstm1_h_conted_0
I0925 20:57:48.492203 11477 net.cpp:425] lstm1_h_conted_0 <- h_0
I0925 20:57:48.492210 11477 net.cpp:425] lstm1_h_conted_0 <- cont_1_lstm1_cont_slice_0_split_0
I0925 20:57:48.492218 11477 net.cpp:399] lstm1_h_conted_0 -> h_conted_0
I0925 20:57:48.492339 11477 net.cpp:141] Setting up lstm1_h_conted_0
I0925 20:57:48.492349 11477 net.cpp:148] Top shape: 1 1 1000 (1000)
I0925 20:57:48.492354 11477 net.cpp:156] Memory required for data: 46016
I0925 20:57:48.492359 11477 layer_factory.hpp:77] Creating layer lstm1_transform_1
I0925 20:57:48.492380 11477 net.cpp:91] Creating Layer lstm1_transform_1
I0925 20:57:48.492386 11477 net.cpp:425] lstm1_transform_1 <- h_conted_0
I0925 20:57:48.492395 11477 net.cpp:399] lstm1_transform_1 -> W_hc_h_0
I0925 20:57:48.492848 11473 net.cpp:141] Setting up lstm1_transform_1
I0925 20:57:48.492866 11473 net.cpp:148] Top shape: 1 1 4000 (4000)
I0925 20:57:48.492871 11473 net.cpp:156] Memory required for data: 62016
I0925 20:57:48.492883 11473 layer_factory.hpp:77] Creating layer lstm1_gate_input_1
I0925 20:57:48.492902 11473 net.cpp:91] Creating Layer lstm1_gate_input_1
I0925 20:57:48.492908 11473 net.cpp:425] lstm1_gate_input_1 <- W_hc_h_0
I0925 20:57:48.492915 11473 net.cpp:425] lstm1_gate_input_1 <- W_xc_x_1
I0925 20:57:48.492923 11473 net.cpp:399] lstm1_gate_input_1 -> gate_input_1
I0925 20:57:48.501056 11473 net.cpp:141] Setting up lstm1_gate_input_1
I0925 20:57:48.501101 11473 net.cpp:148] Top shape: 1 1 4000 (4000)
I0925 20:57:48.501107 11473 net.cpp:156] Memory required for data: 78016
I0925 20:57:48.501116 11473 layer_factory.hpp:77] Creating layer lstm1_unit_1
I0925 20:57:48.501132 11473 net.cpp:91] Creating Layer lstm1_unit_1
I0925 20:57:48.501140 11473 net.cpp:425] lstm1_unit_1 <- c_0
I0925 20:57:48.501150 11473 net.cpp:425] lstm1_unit_1 <- gate_input_1
I0925 20:57:48.501157 11473 net.cpp:425] lstm1_unit_1 <- cont_1_lstm1_cont_slice_0_split_1
I0925 20:57:48.501164 11473 net.cpp:399] lstm1_unit_1 -> c_1
I0925 20:57:48.501176 11473 net.cpp:399] lstm1_unit_1 -> h_1
I0925 20:57:48.501314 11473 net.cpp:141] Setting up lstm1_unit_1
I0925 20:57:48.501327 11473 net.cpp:148] Top shape: 1 1 1000 (1000)
I0925 20:57:48.501333 11473 net.cpp:148] Top shape: 1 1 1000 (1000)
I0925 20:57:48.501338 11473 net.cpp:156] Memory required for data: 86016
I0925 20:57:48.501343 11473 layer_factory.hpp:77] Creating layer lstm1_
I0925 20:57:48.501355 11473 net.cpp:91] Creating Layer lstm1_
I0925 20:57:48.501360 11473 net.cpp:425] lstm1_ <- c_1
I0925 20:57:48.501368 11473 net.cpp:399] lstm1_ -> c_T
I0925 20:57:48.501718 11473 net.cpp:141] Setting up lstm1_
I0925 20:57:48.501730 11473 net.cpp:148] Top shape: 1 1 1000 (1000)
I0925 20:57:48.501735 11473 net.cpp:156] Memory required for data: 90016
I0925 20:57:48.501740 11473 layer_factory.hpp:77] Creating layer lstm1_h_concat
I0925 20:57:48.501751 11473 net.cpp:91] Creating Layer lstm1_h_concat
I0925 20:57:48.501756 11473 net.cpp:425] lstm1_h_concat <- h_1
I0925 20:57:48.501768 11473 net.cpp:399] lstm1_h_concat -> h
I0925 20:57:48.502177 11473 net.cpp:141] Setting up lstm1_h_concat
I0925 20:57:48.502188 11473 net.cpp:148] Top shape: 1 1 1000 (1000)
I0925 20:57:48.502193 11473 net.cpp:156] Memory required for data: 94016
I0925 20:57:48.502198 11473 layer_factory.hpp:77] Creating layer h_pseudoloss
I0925 20:57:48.502215 11473 net.cpp:91] Creating Layer h_pseudoloss
I0925 20:57:48.502220 11473 net.cpp:425] h_pseudoloss <- h
I0925 20:57:48.502228 11473 net.cpp:399] h_pseudoloss -> h_pseudoloss
I0925 20:57:48.502396 11473 net.cpp:141] Setting up h_pseudoloss
…
I0925 20:57:48.502531 11473 net.cpp:219] lstm1_ does not need backward computation.
I0925 20:57:48.502534 11473 net.cpp:261] This network produces output c_T
I0925 20:57:48.502539 11473 net.cpp:261] This network produces output h_pseudoloss
I0925 20:57:48.502557 11473 net.cpp:274] Network initialization done.
I0925 20:57:48.502640 11473 recurrent_layer.cpp:150] Adding parameter 0: W_xc
I0925 20:57:48.502650 11473 recurrent_layer.cpp:150] Adding parameter 1: b_c
I0925 20:57:48.502655 11473 recurrent_layer.cpp:150] Adding parameter 2: W_hc
I0925 20:57:48.502984 11473 net.cpp:141] Setting up lstm1
I0925 20:57:48.502996 11473 net.cpp:148] Top shape: 1 1 1000 (1000)
I0925 20:57:48.503001 11473 net.cpp:156] Memory required for data: 26408
I0925 20:57:48.503018 11473 layer_factory.hpp:77] Creating layer concat
I0925 20:57:48.503028 11473 net.cpp:91] Creating Layer concat
I0925 20:57:48.503036 11473 net.cpp:425] concat <- lstm1
I0925 20:57:48.503042 11473 net.cpp:425] concat <- embedded_input_sentence
I0925 20:57:48.503048 11473 net.cpp:425] concat <- reshaped_stage_indicator
I0925 20:57:48.503054 11473 net.cpp:399] concat -> lstm1_video_sequence
I0925 20:57:48.503239 11473 net.cpp:141] Setting up concat
I0925 20:57:48.503250 11473 net.cpp:148] Top shape: 1 1 1501 (1501)
I0925 20:57:48.503255 11473 net.cpp:156] Memory required for data: 32412
I0925 20:57:48.503260 11473 layer_factory.hpp:77] Creating layer lstm2
I0925 20:57:48.503275 11473 net.cpp:91] Creating Layer lstm2
I0925 20:57:48.503280 11473 net.cpp:425] lstm2 <- lstm1_video_sequence
I0925 20:57:48.503288 11473 net.cpp:425] lstm2 <- cont_sentence_input_1_split_1
I0925 20:57:48.503295 11473 net.cpp:399] lstm2 -> lstm2
I0925 20:57:48.503307 11473 recurrent_layer.cpp:20] Initializing recurrent layer: assuming input batch contains 1 timesteps of 1 independent streams.
I0925 20:57:48.503504 11483 net.cpp:141] Setting up conv5
I0925 20:57:48.503528 11483 net.cpp:148] Top shape: 10 256 13 13 (432640)
I0925 20:57:48.503535 11483 net.cpp:156] Memory required for data: 65519160
I0925 20:57:48.503556 11483 layer_factory.hpp:77] Creating layer relu5
I0925 20:57:48.503568 11483 net.cpp:91] Creating Layer relu5
I0925 20:57:48.503576 11483 net.cpp:425] relu5 <- conv5
I0925 20:57:48.503582 11483 net.cpp:386] relu5 -> conv5 (in-place)
I0925 20:57:48.503592 11473 net.cpp:49] Initializing net from parameters: 
layer {
  name: "lstm2_"
  type: "Input"
  top: "x"
  top: "cont"
  input_param {
    shape {
      dim: 1
      dim: 1
      dim: 1501
    }
    shape {
      dim: 1
      dim: 1
    }
  }
}
layer {
  name: "lstm2_"
  type: "Input"
  top: "c_0"
  top: "h_0"
  input_param {
    shape {
      dim: 1
      dim: 1
      dim: 1000
    }
    shape {
      dim: 1
      dim: 1
      dim: 1000
    }
  }
}
layer {
  name: "lstm2_cont_slice"
  type: "Slice"
  bottom: "cont"
  top: "cont_1"
  slice_param {
    axis: 0
  }
}
layer {
  name: "lstm2_x_transform"
  type: "InnerProduct"
  bottom: "x"
  top: "W_xc_x"
  param {
    name: "W_xc"
  }
  param {
    name: "b_c"
  }
  propagate_down: true
  inner_product_param {
    num_output: 4000
    bias_term: true
    weight_filler {
      type: "uniform"
      min: -0.08
      max: 0.08
    }
    bias_filler {
      type: "constant"
      value: 0
    }
    axis: 2
  }
}
layer {
  name: "lstm2_W_xc_x_slice"
  type: "Slice"
  bottom: "W_xc_x"
  top: "W_xc_x_1"
  slice_param {
    axis: 0
  }
}
layer {
  name: "lstm2_h_conted_0"
  type: "Scale"
  bottom: "h_0"
  bottom: "cont_1"
  top: "h_conted_0"
  scale_param {
    axis: 0
  }
}
layer {
  name: "lstm2_transform_1"
  type: "InnerProduct"
  bottom: "h_conted_0"
  top: "W_hc_h_0"
  param {
    name: "W_hc"
  }
  inner_product_param {
    num_output: 4000
    bias_term: false
    weight_filler {
      type: "uniform"
      min: -0.08
      max: 0.08
    }
    axis: 2
  }
}
layer {
  name: "lstm2_gate_input_1"
  type: "Eltwise"
  bottom: "W_hc_h_0"
  bottom: "W_xc_x_1"
  top: "gate_input_1"
  eltwise_param {
    operation: SUM
  }
}
layer {
  name: "lstm2_unit_1"
  type: "LSTMUnit"
  bottom: "c_0"
  bottom: "gate_input_1"
  bottom: "cont_1"
  top: "c_1"
  top: "h_1"
}
layer {
  name: "lstm2_"
  type: "Split"
  bottom: "c_1"
  top: "c_T"
}
layer {
  name: "lstm2_h_concat"
  type: "Concat"
  bottom: "h_1"
  top: "h"
  concat_param {
    axis: 0
  }
}
layer {
  name: "h_pseudoloss"
  type: "Reduction"
  bottom: "h"
  top: "h_pseudoloss"
  loss_weight: 1
}
I0925 20:57:48.503691 11473 layer_factory.hpp:77] Creating layer lstm2_
I0925 20:57:48.503705 11473 net.cpp:91] Creating Layer lstm2_
I0925 20:57:48.503711 11473 net.cpp:399] lstm2_ -> x
I0925 20:57:48.503722 11473 net.cpp:399] lstm2_ -> cont
I0925 20:57:48.504060 11473 net.cpp:141] Setting up lstm2_
I0925 20:57:48.504071 11473 net.cpp:148] Top shape: 1 1 1501 (1501)
I0925 20:57:48.504078 11473 net.cpp:148] Top shape: 1 1 (1)
I0925 20:57:48.504082 11473 net.cpp:156] Memory required for data: 6008
I0925 20:57:48.504088 11473 layer_factory.hpp:77] Creating layer lstm2_
I0925 20:57:48.504097 11473 net.cpp:91] Creating Layer lstm2_
I0925 20:57:48.504111 11473 net.cpp:399] lstm2_ -> c_0
I0925 20:57:48.504122 11473 net.cpp:399] lstm2_ -> h_0
I0925 20:57:48.504159 11483 net.cpp:141] Setting up relu5
I0925 20:57:48.504175 11483 net.cpp:148] Top shape: 10 256 13 13 (432640)
I0925 20:57:48.504180 11483 net.cpp:156] Memory required for data: 67249720
I0925 20:57:48.504186 11483 layer_factory.hpp:77] Creating layer pool5
I0925 20:57:48.504202 11483 net.cpp:91] Creating Layer pool5
I0925 20:57:48.504209 11483 net.cpp:425] pool5 <- conv5
I0925 20:57:48.504214 11473 net.cpp:141] Setting up lstm2_
I0925 20:57:48.504220 11483 net.cpp:399] pool5 -> pool5
I0925 20:57:48.504225 11473 net.cpp:148] Top shape: 1 1 1000 (1000)
I0925 20:57:48.504232 11473 net.cpp:148] Top shape: 1 1 1000 (1000)
I0925 20:57:48.504236 11473 net.cpp:156] Memory required for data: 14008
I0925 20:57:48.504241 11473 layer_factory.hpp:77] Creating layer lstm2_cont_slice
I0925 20:57:48.504251 11473 net.cpp:91] Creating Layer lstm2_cont_slice
I0925 20:57:48.504257 11473 net.cpp:425] lstm2_cont_slice <- cont
I0925 20:57:48.504264 11473 net.cpp:399] lstm2_cont_slice -> cont_1
I0925 20:57:48.504328 11473 net.cpp:141] Setting up lstm2_cont_slice
I0925 20:57:48.504338 11473 net.cpp:148] Top shape: 1 1 (1)
I0925 20:57:48.504343 11473 net.cpp:156] Memory required for data: 14012
I0925 20:57:48.504348 11473 layer_factory.hpp:77] Creating layer cont_1_lstm2_cont_slice_0_split
I0925 20:57:48.504357 11473 net.cpp:91] Creating Layer cont_1_lstm2_cont_slice_0_split
I0925 20:57:48.504362 11473 net.cpp:425] cont_1_lstm2_cont_slice_0_split <- cont_1
I0925 20:57:48.504370 11473 net.cpp:399] cont_1_lstm2_cont_slice_0_split -> cont_1_lstm2_cont_slice_0_split_0
I0925 20:57:48.504375 11483 net.cpp:141] Setting up pool5
I0925 20:57:48.504379 11473 net.cpp:399] cont_1_lstm2_cont_slice_0_split -> cont_1_lstm2_cont_slice_0_split_1
I0925 20:57:48.504393 11483 net.cpp:148] Top shape: 10 256 6 6 (92160)
I0925 20:57:48.504398 11483 net.cpp:156] Memory required for data: 67618360
I0925 20:57:48.504405 11483 layer_factory.hpp:77] Creating layer fc6
I0925 20:57:48.504425 11483 net.cpp:91] Creating Layer fc6
I0925 20:57:48.504429 11483 net.cpp:425] fc6 <- pool5
I0925 20:57:48.504437 11483 net.cpp:399] fc6 -> fc6
I0925 20:57:48.504468 11473 net.cpp:141] Setting up cont_1_lstm2_cont_slice_0_split
I0925 20:57:48.504479 11473 net.cpp:148] Top shape: 1 1 (1)
I0925 20:57:48.504485 11473 net.cpp:148] Top shape: 1 1 (1)
I0925 20:57:48.504490 11473 net.cpp:156] Memory required for data: 14020
I0925 20:57:48.504495 11473 layer_factory.hpp:77] Creating layer lstm2_x_transform
I0925 20:57:48.504508 11473 net.cpp:91] Creating Layer lstm2_x_transform
I0925 20:57:48.504514 11473 net.cpp:425] lstm2_x_transform <- x
I0925 20:57:48.504523 11473 net.cpp:399] lstm2_x_transform -> W_xc_x
I0925 20:57:48.580905 11477 net.cpp:141] Setting up lstm1_transform_1
I0925 20:57:48.580961 11477 net.cpp:148] Top shape: 1 1 4000 (4000)
I0925 20:57:48.580968 11477 net.cpp:156] Memory required for data: 62016
I0925 20:57:48.580992 11477 layer_factory.hpp:77] Creating layer lstm1_gate_input_1
I0925 20:57:48.581018 11477 net.cpp:91] Creating Layer lstm1_gate_input_1
I0925 20:57:48.581027 11477 net.cpp:425] lstm1_gate_input_1 <- W_hc_h_0
I0925 20:57:48.581035 11477 net.cpp:425] lstm1_gate_input_1 <- W_xc_x_1
I0925 20:57:48.581043 11477 net.cpp:399] lstm1_gate_input_1 -> gate_input_1
I0925 20:57:48.592844 11477 net.cpp:141] Setting up lstm1_gate_input_1
I0925 20:57:48.592908 11477 net.cpp:148] Top shape: 1 1 4000 (4000)
I0925 20:57:48.592916 11477 net.cpp:156] Memory required for data: 78016
I0925 20:57:48.592926 11477 layer_factory.hpp:77] Creating layer lstm1_unit_1
I0925 20:57:48.592952 11477 net.cpp:91] Creating Layer lstm1_unit_1
I0925 20:57:48.592962 11477 net.cpp:425] lstm1_unit_1 <- c_0
I0925 20:57:48.592974 11477 net.cpp:425] lstm1_unit_1 <- gate_input_1
I0925 20:57:48.592980 11477 net.cpp:425] lstm1_unit_1 <- cont_1_lstm1_cont_slice_0_split_1
I0925 20:57:48.592993 11477 net.cpp:399] lstm1_unit_1 -> c_1
I0925 20:57:48.593008 11477 net.cpp:399] lstm1_unit_1 -> h_1
I0925 20:57:48.593099 11477 net.cpp:141] Setting up lstm1_unit_1
I0925 20:57:48.593111 11477 net.cpp:148] Top shape: 1 1 1000 (1000)
I0925 20:57:48.593117 11477 net.cpp:148] Top shape: 1 1 1000 (1000)
I0925 20:57:48.593122 11477 net.cpp:156] Memory required for data: 86016
I0925 20:57:48.593127 11477 layer_factory.hpp:77] Creating layer lstm1_
I0925 20:57:48.593139 11477 net.cpp:91] Creating Layer lstm1_
I0925 20:57:48.593145 11477 net.cpp:425] lstm1_ <- c_1
I0925 20:57:48.593153 11477 net.cpp:399] lstm1_ -> c_T
I0925 20:57:48.593189 11477 net.cpp:141] Setting up lstm1_
I0925 20:57:48.593197 11477 net.cpp:148] Top shape: 1 1 1000 (1000)
I0925 20:57:48.593202 11477 net.cpp:156] Memory required for data: 90016
I0925 20:57:48.593207 11477 layer_factory.hpp:77] Creating layer lstm1_h_concat
I0925 20:57:48.593219 11477 net.cpp:91] Creating Layer lstm1_h_concat
I0925 20:57:48.593224 11477 net.cpp:425] lstm1_h_concat <- h_1
I0925 20:57:48.593236 11477 net.cpp:399] lstm1_h_concat -> h
I0925 20:57:48.593276 11477 net.cpp:141] Setting up lstm1_h_concat
I0925 20:57:48.593286 11477 net.cpp:148] Top shape: 1 1 1000 (1000)
I0925 20:57:48.593291 11477 net.cpp:156] Memory required for data: 94016
I0925 20:57:48.593296 11477 layer_factory.hpp:77] Creating layer h_pseudoloss
I0925 20:57:48.593305 11477 net.cpp:91] Creating Layer h_pseudoloss
I0925 20:57:48.593310 11477 net.cpp:425] h_pseudoloss <- h
I0925 20:57:48.593317 11477 net.cpp:399] h_pseudoloss -> h_pseudoloss
I0925 20:57:48.593426 11477 net.cpp:141] Setting up h_pseudoloss
…
I0925 20:57:48.593533 11477 net.cpp:219] lstm1_ does not need backward computation.
I0925 20:57:48.593538 11477 net.cpp:261] This network produces output c_T
I0925 20:57:48.593542 11477 net.cpp:261] This network produces output h_pseudoloss
I0925 20:57:48.593561 11477 net.cpp:274] Network initialization done.
I0925 20:57:48.593621 11477 recurrent_layer.cpp:150] Adding parameter 0: W_xc
I0925 20:57:48.593627 11477 recurrent_layer.cpp:150] Adding parameter 1: b_c
I0925 20:57:48.593632 11477 recurrent_layer.cpp:150] Adding parameter 2: W_hc
I0925 20:57:48.593752 11477 net.cpp:141] Setting up lstm1
I0925 20:57:48.593765 11477 net.cpp:148] Top shape: 1 1 1000 (1000)
I0925 20:57:48.593770 11477 net.cpp:156] Memory required for data: 26408
I0925 20:57:48.593786 11477 layer_factory.hpp:77] Creating layer concat
I0925 20:57:48.593796 11477 net.cpp:91] Creating Layer concat
I0925 20:57:48.593803 11477 net.cpp:425] concat <- lstm1
I0925 20:57:48.593811 11477 net.cpp:425] concat <- embedded_input_sentence
I0925 20:57:48.593816 11477 net.cpp:425] concat <- reshaped_stage_indicator
I0925 20:57:48.593823 11477 net.cpp:399] concat -> lstm1_video_sequence
I0925 20:57:48.593860 11477 net.cpp:141] Setting up concat
I0925 20:57:48.593869 11477 net.cpp:148] Top shape: 1 1 1501 (1501)
I0925 20:57:48.593874 11477 net.cpp:156] Memory required for data: 32412
I0925 20:57:48.593881 11477 layer_factory.hpp:77] Creating layer lstm2
I0925 20:57:48.593896 11477 net.cpp:91] Creating Layer lstm2
I0925 20:57:48.593902 11477 net.cpp:425] lstm2 <- lstm1_video_sequence
I0925 20:57:48.593909 11477 net.cpp:425] lstm2 <- cont_sentence_input_1_split_1
I0925 20:57:48.593916 11477 net.cpp:399] lstm2 -> lstm2
I0925 20:57:48.593929 11477 recurrent_layer.cpp:20] Initializing recurrent layer: assuming input batch contains 1 timesteps of 1 independent streams.
I0925 20:57:48.594216 11477 net.cpp:49] Initializing net from parameters: 
layer {
  name: "lstm2_"
  type: "Input"
  top: "x"
  top: "cont"
  input_param {
    shape {
      dim: 1
      dim: 1
      dim: 1501
    }
    shape {
      dim: 1
      dim: 1
    }
  }
}
layer {
  name: "lstm2_"
  type: "Input"
  top: "c_0"
  top: "h_0"
  input_param {
    shape {
      dim: 1
      dim: 1
      dim: 1000
    }
    shape {
      dim: 1
      dim: 1
      dim: 1000
    }
  }
}
layer {
  name: "lstm2_cont_slice"
  type: "Slice"
  bottom: "cont"
  top: "cont_1"
  slice_param {
    axis: 0
  }
}
layer {
  name: "lstm2_x_transform"
  type: "InnerProduct"
  bottom: "x"
  top: "W_xc_x"
  param {
    name: "W_xc"
  }
  param {
    name: "b_c"
  }
  propagate_down: true
  inner_product_param {
    num_output: 4000
    bias_term: true
    weight_filler {
      type: "uniform"
      min: -0.08
      max: 0.08
    }
    bias_filler {
      type: "constant"
      value: 0
    }
    axis: 2
  }
}
layer {
  name: "lstm2_W_xc_x_slice"
  type: "Slice"
  bottom: "W_xc_x"
  top: "W_xc_x_1"
  slice_param {
    axis: 0
  }
}
layer {
  name: "lstm2_h_conted_0"
  type: "Scale"
  bottom: "h_0"
  bottom: "cont_1"
  top: "h_conted_0"
  scale_param {
    axis: 0
  }
}
layer {
  name: "lstm2_transform_1"
  type: "InnerProduct"
  bottom: "h_conted_0"
  top: "W_hc_h_0"
  param {
    name: "W_hc"
  }
  inner_product_param {
    num_output: 4000
    bias_term: false
    weight_filler {
      type: "uniform"
      min: -0.08
      max: 0.08
    }
    axis: 2
  }
}
layer {
  name: "lstm2_gate_input_1"
  type: "Eltwise"
  bottom: "W_hc_h_0"
  bottom: "W_xc_x_1"
  top: "gate_input_1"
  eltwise_param {
    operation: SUM
  }
}
layer {
  name: "lstm2_unit_1"
  type: "LSTMUnit"
  bottom: "c_0"
  bottom: "gate_input_1"
  bottom: "cont_1"
  top: "c_1"
  top: "h_1"
}
layer {
  name: "lstm2_"
  type: "Split"
  bottom: "c_1"
  top: "c_T"
}
layer {
  name: "lstm2_h_concat"
  type: "Concat"
  bottom: "h_1"
  top: "h"
  concat_param {
    axis: 0
  }
}
layer {
  name: "h_pseudoloss"
  type: "Reduction"
  bottom: "h"
  top: "h_pseudoloss"
  loss_weight: 1
}
I0925 20:57:48.594316 11477 layer_factory.hpp:77] Creating layer lstm2_
I0925 20:57:48.594329 11477 net.cpp:91] Creating Layer lstm2_
I0925 20:57:48.594336 11477 net.cpp:399] lstm2_ -> x
I0925 20:57:48.594348 11477 net.cpp:399] lstm2_ -> cont
I0925 20:57:48.594410 11477 net.cpp:141] Setting up lstm2_
I0925 20:57:48.594420 11477 net.cpp:148] Top shape: 1 1 1501 (1501)
I0925 20:57:48.594427 11477 net.cpp:148] Top shape: 1 1 (1)
I0925 20:57:48.594431 11477 net.cpp:156] Memory required for data: 6008
I0925 20:57:48.594437 11477 layer_factory.hpp:77] Creating layer lstm2_
I0925 20:57:48.594452 11477 net.cpp:91] Creating Layer lstm2_
I0925 20:57:48.594460 11477 net.cpp:399] lstm2_ -> c_0
I0925 20:57:48.594470 11477 net.cpp:399] lstm2_ -> h_0
I0925 20:57:48.594550 11477 net.cpp:141] Setting up lstm2_
I0925 20:57:48.594563 11477 net.cpp:148] Top shape: 1 1 1000 (1000)
I0925 20:57:48.594568 11477 net.cpp:148] Top shape: 1 1 1000 (1000)
I0925 20:57:48.594573 11477 net.cpp:156] Memory required for data: 14008
I0925 20:57:48.594578 11477 layer_factory.hpp:77] Creating layer lstm2_cont_slice
I0925 20:57:48.594588 11477 net.cpp:91] Creating Layer lstm2_cont_slice
I0925 20:57:48.594594 11477 net.cpp:425] lstm2_cont_slice <- cont
I0925 20:57:48.594630 11477 net.cpp:399] lstm2_cont_slice -> cont_1
I0925 20:57:48.594679 11477 net.cpp:141] Setting up lstm2_cont_slice
I0925 20:57:48.594689 11477 net.cpp:148] Top shape: 1 1 (1)
I0925 20:57:48.594694 11477 net.cpp:156] Memory required for data: 14012
I0925 20:57:48.594699 11477 layer_factory.hpp:77] Creating layer cont_1_lstm2_cont_slice_0_split
I0925 20:57:48.594707 11477 net.cpp:91] Creating Layer cont_1_lstm2_cont_slice_0_split
I0925 20:57:48.594712 11477 net.cpp:425] cont_1_lstm2_cont_slice_0_split <- cont_1
I0925 20:57:48.594722 11477 net.cpp:399] cont_1_lstm2_cont_slice_0_split -> cont_1_lstm2_cont_slice_0_split_0
I0925 20:57:48.594730 11477 net.cpp:399] cont_1_lstm2_cont_slice_0_split -> cont_1_lstm2_cont_slice_0_split_1
I0925 20:57:48.594784 11477 net.cpp:141] Setting up cont_1_lstm2_cont_slice_0_split
I0925 20:57:48.594794 11477 net.cpp:148] Top shape: 1 1 (1)
I0925 20:57:48.594800 11477 net.cpp:148] Top shape: 1 1 (1)
I0925 20:57:48.594805 11477 net.cpp:156] Memory required for data: 14020
I0925 20:57:48.594810 11477 layer_factory.hpp:77] Creating layer lstm2_x_transform
I0925 20:57:48.594820 11477 net.cpp:91] Creating Layer lstm2_x_transform
I0925 20:57:48.594825 11477 net.cpp:425] lstm2_x_transform <- x
I0925 20:57:48.594837 11477 net.cpp:399] lstm2_x_transform -> W_xc_x
I0925 20:57:48.623330 11483 net.cpp:141] Setting up fc6
I0925 20:57:48.623378 11483 net.cpp:148] Top shape: 10 4096 (40960)
I0925 20:57:48.623385 11483 net.cpp:156] Memory required for data: 67782200
I0925 20:57:48.623400 11483 layer_factory.hpp:77] Creating layer relu6
I0925 20:57:48.623420 11483 net.cpp:91] Creating Layer relu6
I0925 20:57:48.623427 11483 net.cpp:425] relu6 <- fc6
I0925 20:57:48.623440 11483 net.cpp:386] relu6 -> fc6 (in-place)
I0925 20:57:48.623822 11483 net.cpp:141] Setting up relu6
I0925 20:57:48.623836 11483 net.cpp:148] Top shape: 10 4096 (40960)
I0925 20:57:48.623842 11483 net.cpp:156] Memory required for data: 67946040
I0925 20:57:48.623847 11483 layer_factory.hpp:77] Creating layer drop6
I0925 20:57:48.623862 11483 net.cpp:91] Creating Layer drop6
I0925 20:57:48.623868 11483 net.cpp:425] drop6 <- fc6
I0925 20:57:48.623877 11483 net.cpp:386] drop6 -> fc6 (in-place)
I0925 20:57:48.623934 11483 net.cpp:141] Setting up drop6
I0925 20:57:48.623944 11483 net.cpp:148] Top shape: 10 4096 (40960)
I0925 20:57:48.623949 11483 net.cpp:156] Memory required for data: 68109880
I0925 20:57:48.623953 11483 layer_factory.hpp:77] Creating layer fc7
I0925 20:57:48.623965 11483 net.cpp:91] Creating Layer fc7
I0925 20:57:48.623970 11483 net.cpp:425] fc7 <- fc6
I0925 20:57:48.623983 11483 net.cpp:399] fc7 -> fc7
I0925 20:57:48.657084 11473 net.cpp:141] Setting up lstm2_x_transform
I0925 20:57:48.657145 11473 net.cpp:148] Top shape: 1 1 4000 (4000)
I0925 20:57:48.657152 11473 net.cpp:156] Memory required for data: 30020
I0925 20:57:48.657178 11473 layer_factory.hpp:77] Creating layer lstm2_W_xc_x_slice
I0925 20:57:48.657198 11473 net.cpp:91] Creating Layer lstm2_W_xc_x_slice
I0925 20:57:48.657205 11473 net.cpp:425] lstm2_W_xc_x_slice <- W_xc_x
I0925 20:57:48.657215 11473 net.cpp:399] lstm2_W_xc_x_slice -> W_xc_x_1
I0925 20:57:48.657270 11473 net.cpp:141] Setting up lstm2_W_xc_x_slice
I0925 20:57:48.657281 11473 net.cpp:148] Top shape: 1 1 4000 (4000)
I0925 20:57:48.657286 11473 net.cpp:156] Memory required for data: 46020
I0925 20:57:48.657291 11473 layer_factory.hpp:77] Creating layer lstm2_h_conted_0
I0925 20:57:48.657304 11473 net.cpp:91] Creating Layer lstm2_h_conted_0
I0925 20:57:48.657310 11473 net.cpp:425] lstm2_h_conted_0 <- h_0
I0925 20:57:48.657316 11473 net.cpp:425] lstm2_h_conted_0 <- cont_1_lstm2_cont_slice_0_split_0
I0925 20:57:48.657323 11473 net.cpp:399] lstm2_h_conted_0 -> h_conted_0
I0925 20:57:48.657429 11473 net.cpp:141] Setting up lstm2_h_conted_0
I0925 20:57:48.657439 11473 net.cpp:148] Top shape: 1 1 1000 (1000)
I0925 20:57:48.657444 11473 net.cpp:156] Memory required for data: 50020
I0925 20:57:48.657449 11473 layer_factory.hpp:77] Creating layer lstm2_transform_1
I0925 20:57:48.657464 11473 net.cpp:91] Creating Layer lstm2_transform_1
I0925 20:57:48.657469 11473 net.cpp:425] lstm2_transform_1 <- h_conted_0
I0925 20:57:48.657479 11473 net.cpp:399] lstm2_transform_1 -> W_hc_h_0
I0925 20:57:48.665976 11477 net.cpp:141] Setting up lstm2_x_transform
I0925 20:57:48.666036 11477 net.cpp:148] Top shape: 1 1 4000 (4000)
I0925 20:57:48.666044 11477 net.cpp:156] Memory required for data: 30020
I0925 20:57:48.666069 11477 layer_factory.hpp:77] Creating layer lstm2_W_xc_x_slice
I0925 20:57:48.666088 11477 net.cpp:91] Creating Layer lstm2_W_xc_x_slice
I0925 20:57:48.666096 11477 net.cpp:425] lstm2_W_xc_x_slice <- W_xc_x
I0925 20:57:48.666107 11477 net.cpp:399] lstm2_W_xc_x_slice -> W_xc_x_1
I0925 20:57:48.666165 11477 net.cpp:141] Setting up lstm2_W_xc_x_slice
I0925 20:57:48.666177 11477 net.cpp:148] Top shape: 1 1 4000 (4000)
I0925 20:57:48.666182 11477 net.cpp:156] Memory required for data: 46020
I0925 20:57:48.666187 11477 layer_factory.hpp:77] Creating layer lstm2_h_conted_0
I0925 20:57:48.666199 11477 net.cpp:91] Creating Layer lstm2_h_conted_0
I0925 20:57:48.666204 11477 net.cpp:425] lstm2_h_conted_0 <- h_0
I0925 20:57:48.666211 11477 net.cpp:425] lstm2_h_conted_0 <- cont_1_lstm2_cont_slice_0_split_0
I0925 20:57:48.666219 11477 net.cpp:399] lstm2_h_conted_0 -> h_conted_0
I0925 20:57:48.666352 11477 net.cpp:141] Setting up lstm2_h_conted_0
I0925 20:57:48.666364 11477 net.cpp:148] Top shape: 1 1 1000 (1000)
I0925 20:57:48.666368 11477 net.cpp:156] Memory required for data: 50020
I0925 20:57:48.666374 11477 layer_factory.hpp:77] Creating layer lstm2_transform_1
I0925 20:57:48.666388 11477 net.cpp:91] Creating Layer lstm2_transform_1
I0925 20:57:48.666394 11477 net.cpp:425] lstm2_transform_1 <- h_conted_0
I0925 20:57:48.666409 11477 net.cpp:399] lstm2_transform_1 -> W_hc_h_0
I0925 20:57:48.675492 11483 net.cpp:141] Setting up fc7
I0925 20:57:48.675544 11483 net.cpp:148] Top shape: 10 4096 (40960)
I0925 20:57:48.675551 11483 net.cpp:156] Memory required for data: 68273720
I0925 20:57:48.675567 11483 layer_factory.hpp:77] Creating layer relu7
I0925 20:57:48.675590 11483 net.cpp:91] Creating Layer relu7
I0925 20:57:48.675597 11483 net.cpp:425] relu7 <- fc7
I0925 20:57:48.675608 11483 net.cpp:386] relu7 -> fc7 (in-place)
I0925 20:57:48.676344 11483 net.cpp:141] Setting up relu7
I0925 20:57:48.676359 11483 net.cpp:148] Top shape: 10 4096 (40960)
I0925 20:57:48.676365 11483 net.cpp:156] Memory required for data: 68437560
I0925 20:57:48.676370 11483 layer_factory.hpp:77] Creating layer drop7
I0925 20:57:48.676385 11483 net.cpp:91] Creating Layer drop7
I0925 20:57:48.676391 11483 net.cpp:425] drop7 <- fc7
I0925 20:57:48.676398 11483 net.cpp:386] drop7 -> fc7 (in-place)
I0925 20:57:48.676460 11483 net.cpp:141] Setting up drop7
I0925 20:57:48.676477 11483 net.cpp:148] Top shape: 10 4096 (40960)
I0925 20:57:48.676483 11483 net.cpp:156] Memory required for data: 68601400
I0925 20:57:48.676488 11483 layer_factory.hpp:77] Creating layer fc8
I0925 20:57:48.676501 11483 net.cpp:91] Creating Layer fc8
I0925 20:57:48.676506 11483 net.cpp:425] fc8 <- fc7
I0925 20:57:48.676517 11483 net.cpp:399] fc8 -> fc8
I0925 20:57:48.689662 11483 net.cpp:141] Setting up fc8
I0925 20:57:48.689712 11483 net.cpp:148] Top shape: 10 1000 (10000)
I0925 20:57:48.689718 11483 net.cpp:156] Memory required for data: 68641400
I0925 20:57:48.689733 11483 layer_factory.hpp:77] Creating layer prob
I0925 20:57:48.689757 11483 net.cpp:91] Creating Layer prob
I0925 20:57:48.689766 11483 net.cpp:425] prob <- fc8
I0925 20:57:48.689775 11483 net.cpp:399] prob -> prob
I0925 20:57:48.690258 11483 net.cpp:141] Setting up prob
I0925 20:57:48.690271 11483 net.cpp:148] Top shape: 10 1000 (10000)
I0925 20:57:48.690279 11483 net.cpp:156] Memory required for data: 68681400
I0925 20:57:48.690285 11483 net.cpp:219] prob does not need backward computation.
I0925 20:57:48.690290 11483 net.cpp:219] fc8 does not need backward computation.
I0925 20:57:48.690295 11483 net.cpp:219] drop7 does not need backward computation.
I0925 20:57:48.690300 11483 net.cpp:219] relu7 does not need backward computation.
…
I0925 20:57:48.690379 11483 net.cpp:219] norm1 does not need backward computation.
I0925 20:57:48.690385 11483 net.cpp:219] pool1 does not need backward computation.
I0925 20:57:48.690390 11483 net.cpp:219] relu1 does not need backward computation.
I0925 20:57:48.690395 11483 net.cpp:219] conv1 does not need backward computation.
I0925 20:57:48.690400 11483 net.cpp:219] data does not need backward computation.
I0925 20:57:48.690404 11483 net.cpp:261] This network produces output prob
I0925 20:57:48.690428 11483 net.cpp:274] Network initialization done.
I0925 20:57:48.700772 11473 net.cpp:141] Setting up lstm2_transform_1
I0925 20:57:48.700834 11473 net.cpp:148] Top shape: 1 1 4000 (4000)
I0925 20:57:48.700841 11473 net.cpp:156] Memory required for data: 66020
I0925 20:57:48.700863 11473 layer_factory.hpp:77] Creating layer lstm2_gate_input_1
I0925 20:57:48.700886 11473 net.cpp:91] Creating Layer lstm2_gate_input_1
I0925 20:57:48.700892 11473 net.cpp:425] lstm2_gate_input_1 <- W_hc_h_0
I0925 20:57:48.700901 11473 net.cpp:425] lstm2_gate_input_1 <- W_xc_x_1
I0925 20:57:48.700909 11473 net.cpp:399] lstm2_gate_input_1 -> gate_input_1
I0925 20:57:48.700968 11473 net.cpp:141] Setting up lstm2_gate_input_1
I0925 20:57:48.700978 11473 net.cpp:148] Top shape: 1 1 4000 (4000)
I0925 20:57:48.700983 11473 net.cpp:156] Memory required for data: 82020
I0925 20:57:48.700987 11473 layer_factory.hpp:77] Creating layer lstm2_unit_1
I0925 20:57:48.700999 11473 net.cpp:91] Creating Layer lstm2_unit_1
I0925 20:57:48.701005 11473 net.cpp:425] lstm2_unit_1 <- c_0
I0925 20:57:48.701011 11473 net.cpp:425] lstm2_unit_1 <- gate_input_1
I0925 20:57:48.701017 11473 net.cpp:425] lstm2_unit_1 <- cont_1_lstm2_cont_slice_0_split_1
I0925 20:57:48.701025 11473 net.cpp:399] lstm2_unit_1 -> c_1
I0925 20:57:48.701035 11473 net.cpp:399] lstm2_unit_1 -> h_1
I0925 20:57:48.701104 11473 net.cpp:141] Setting up lstm2_unit_1
I0925 20:57:48.701117 11473 net.cpp:148] Top shape: 1 1 1000 (1000)
I0925 20:57:48.701123 11473 net.cpp:148] Top shape: 1 1 1000 (1000)
I0925 20:57:48.701128 11473 net.cpp:156] Memory required for data: 90020
I0925 20:57:48.701133 11473 layer_factory.hpp:77] Creating layer lstm2_
I0925 20:57:48.701141 11473 net.cpp:91] Creating Layer lstm2_
I0925 20:57:48.701146 11473 net.cpp:425] lstm2_ <- c_1
I0925 20:57:48.701154 11473 net.cpp:399] lstm2_ -> c_T
I0925 20:57:48.701189 11473 net.cpp:141] Setting up lstm2_
I0925 20:57:48.701196 11473 net.cpp:148] Top shape: 1 1 1000 (1000)
I0925 20:57:48.701201 11473 net.cpp:156] Memory required for data: 94020
I0925 20:57:48.701206 11473 layer_factory.hpp:77] Creating layer lstm2_h_concat
I0925 20:57:48.701220 11473 net.cpp:91] Creating Layer lstm2_h_concat
I0925 20:57:48.701225 11473 net.cpp:425] lstm2_h_concat <- h_1
I0925 20:57:48.701232 11473 net.cpp:399] lstm2_h_concat -> h
I0925 20:57:48.701273 11473 net.cpp:141] Setting up lstm2_h_concat
I0925 20:57:48.701282 11473 net.cpp:148] Top shape: 1 1 1000 (1000)
I0925 20:57:48.701287 11473 net.cpp:156] Memory required for data: 98020
I0925 20:57:48.701292 11473 layer_factory.hpp:77] Creating layer h_pseudoloss
I0925 20:57:48.701302 11473 net.cpp:91] Creating Layer h_pseudoloss
I0925 20:57:48.701306 11473 net.cpp:425] h_pseudoloss <- h
I0925 20:57:48.701316 11473 net.cpp:399] h_pseudoloss -> h_pseudoloss
I0925 20:57:48.701421 11473 net.cpp:141] Setting up h_pseudoloss
…
I0925 20:57:48.701527 11473 net.cpp:219] lstm2_ does not need backward computation.
I0925 20:57:48.701531 11473 net.cpp:261] This network produces output c_T
I0925 20:57:48.701536 11473 net.cpp:261] This network produces output h_pseudoloss
I0925 20:57:48.701555 11473 net.cpp:274] Network initialization done.
I0925 20:57:48.701607 11473 recurrent_layer.cpp:150] Adding parameter 0: W_xc
I0925 20:57:48.701614 11473 recurrent_layer.cpp:150] Adding parameter 1: b_c
I0925 20:57:48.701619 11473 recurrent_layer.cpp:150] Adding parameter 2: W_hc
I0925 20:57:48.701737 11473 net.cpp:141] Setting up lstm2
I0925 20:57:48.701750 11473 net.cpp:148] Top shape: 1 1 1000 (1000)
I0925 20:57:48.701756 11473 net.cpp:156] Memory required for data: 36412
I0925 20:57:48.701771 11473 layer_factory.hpp:77] Creating layer predict
I0925 20:57:48.701784 11473 net.cpp:91] Creating Layer predict
I0925 20:57:48.701792 11473 net.cpp:425] predict <- lstm2
I0925 20:57:48.701799 11473 net.cpp:399] predict -> predict
I0925 20:57:48.790645 11477 net.cpp:141] Setting up lstm2_transform_1
I0925 20:57:48.790707 11477 net.cpp:148] Top shape: 1 1 4000 (4000)
I0925 20:57:48.790714 11477 net.cpp:156] Memory required for data: 66020
I0925 20:57:48.790741 11477 layer_factory.hpp:77] Creating layer lstm2_gate_input_1
I0925 20:57:48.790765 11477 net.cpp:91] Creating Layer lstm2_gate_input_1
I0925 20:57:48.790772 11477 net.cpp:425] lstm2_gate_input_1 <- W_hc_h_0
I0925 20:57:48.790781 11477 net.cpp:425] lstm2_gate_input_1 <- W_xc_x_1
I0925 20:57:48.790794 11477 net.cpp:399] lstm2_gate_input_1 -> gate_input_1
I0925 20:57:48.790869 11477 net.cpp:141] Setting up lstm2_gate_input_1
I0925 20:57:48.790879 11477 net.cpp:148] Top shape: 1 1 4000 (4000)
I0925 20:57:48.790884 11477 net.cpp:156] Memory required for data: 82020
I0925 20:57:48.790889 11477 layer_factory.hpp:77] Creating layer lstm2_unit_1
I0925 20:57:48.790899 11477 net.cpp:91] Creating Layer lstm2_unit_1
I0925 20:57:48.790904 11477 net.cpp:425] lstm2_unit_1 <- c_0
I0925 20:57:48.790911 11477 net.cpp:425] lstm2_unit_1 <- gate_input_1
I0925 20:57:48.790916 11477 net.cpp:425] lstm2_unit_1 <- cont_1_lstm2_cont_slice_0_split_1
I0925 20:57:48.790928 11477 net.cpp:399] lstm2_unit_1 -> c_1
I0925 20:57:48.790938 11477 net.cpp:399] lstm2_unit_1 -> h_1
I0925 20:57:48.791013 11477 net.cpp:141] Setting up lstm2_unit_1
I0925 20:57:48.791023 11477 net.cpp:148] Top shape: 1 1 1000 (1000)
I0925 20:57:48.791029 11477 net.cpp:148] Top shape: 1 1 1000 (1000)
I0925 20:57:48.791033 11477 net.cpp:156] Memory required for data: 90020
I0925 20:57:48.791038 11477 layer_factory.hpp:77] Creating layer lstm2_
I0925 20:57:48.791048 11477 net.cpp:91] Creating Layer lstm2_
I0925 20:57:48.791052 11477 net.cpp:425] lstm2_ <- c_1
I0925 20:57:48.791060 11477 net.cpp:399] lstm2_ -> c_T
I0925 20:57:48.791100 11477 net.cpp:141] Setting up lstm2_
I0925 20:57:48.791110 11477 net.cpp:148] Top shape: 1 1 1000 (1000)
I0925 20:57:48.791115 11477 net.cpp:156] Memory required for data: 94020
I0925 20:57:48.791121 11477 layer_factory.hpp:77] Creating layer lstm2_h_concat
I0925 20:57:48.791131 11477 net.cpp:91] Creating Layer lstm2_h_concat
I0925 20:57:48.791136 11477 net.cpp:425] lstm2_h_concat <- h_1
I0925 20:57:48.791146 11477 net.cpp:399] lstm2_h_concat -> h
I0925 20:57:48.791184 11477 net.cpp:141] Setting up lstm2_h_concat
I0925 20:57:48.791193 11477 net.cpp:148] Top shape: 1 1 1000 (1000)
I0925 20:57:48.791198 11477 net.cpp:156] Memory required for data: 98020
I0925 20:57:48.791203 11477 layer_factory.hpp:77] Creating layer h_pseudoloss
I0925 20:57:48.791218 11477 net.cpp:91] Creating Layer h_pseudoloss
I0925 20:57:48.791224 11477 net.cpp:425] h_pseudoloss <- h
I0925 20:57:48.791231 11477 net.cpp:399] h_pseudoloss -> h_pseudoloss
I0925 20:57:48.791337 11477 net.cpp:141] Setting up h_pseudoloss
…
I0925 20:57:48.791443 11477 net.cpp:219] lstm2_ does not need backward computation.
I0925 20:57:48.791447 11477 net.cpp:261] This network produces output c_T
I0925 20:57:48.791452 11477 net.cpp:261] This network produces output h_pseudoloss
I0925 20:57:48.791472 11477 net.cpp:274] Network initialization done.
I0925 20:57:48.791529 11477 recurrent_layer.cpp:150] Adding parameter 0: W_xc
I0925 20:57:48.791537 11477 recurrent_layer.cpp:150] Adding parameter 1: b_c
I0925 20:57:48.791541 11477 recurrent_layer.cpp:150] Adding parameter 2: W_hc
I0925 20:57:48.791671 11477 net.cpp:141] Setting up lstm2
I0925 20:57:48.791683 11477 net.cpp:148] Top shape: 1 1 1000 (1000)
I0925 20:57:48.791688 11477 net.cpp:156] Memory required for data: 36412
I0925 20:57:48.791704 11477 layer_factory.hpp:77] Creating layer predict
I0925 20:57:48.791719 11477 net.cpp:91] Creating Layer predict
I0925 20:57:48.791726 11477 net.cpp:425] predict <- lstm2
I0925 20:57:48.791734 11477 net.cpp:399] predict -> predict
I0925 20:57:48.966048 11483 upgrade_proto.cpp:43] Attempting to upgrade input file specified using deprecated transformation parameters: /home/peifeng/work/run/storm102/data/workers/84513b02-b7a9-43b8-9303-5649613a9808/tmp/cvld6161340970181446320/bvlc_reference_caffenet.caffemodel
I0925 20:57:48.966089 11483 upgrade_proto.cpp:46] Successfully upgraded file specified using deprecated data transformation parameters.
W0925 20:57:48.966096 11483 upgrade_proto.cpp:48] Note that future Caffe releases will only support transform_param messages for transformation fields.
I0925 20:57:48.966101 11483 upgrade_proto.cpp:52] Attempting to upgrade input file specified using deprecated V1LayerParameter: /home/peifeng/work/run/storm102/data/workers/84513b02-b7a9-43b8-9303-5649613a9808/tmp/cvld6161340970181446320/bvlc_reference_caffenet.caffemodel
I0925 20:57:49.193042 11473 net.cpp:141] Setting up predict
I0925 20:57:49.193104 11473 net.cpp:148] Top shape: 1 1 46168 (46168)
I0925 20:57:49.193110 11473 net.cpp:156] Memory required for data: 221084
I0925 20:57:49.193126 11473 layer_factory.hpp:77] Creating layer probs
I0925 20:57:49.193146 11473 net.cpp:91] Creating Layer probs
I0925 20:57:49.193156 11473 net.cpp:425] probs <- predict
I0925 20:57:49.193166 11473 net.cpp:399] probs -> probs
I0925 20:57:49.194070 11473 net.cpp:141] Setting up probs
I0925 20:57:49.194087 11473 net.cpp:148] Top shape: 1 1 46168 (46168)
I0925 20:57:49.194092 11473 net.cpp:156] Memory required for data: 405756
I0925 20:57:49.194098 11473 net.cpp:219] probs does not need backward computation.
I0925 20:57:49.194104 11473 net.cpp:219] predict does not need backward computation.
I0925 20:57:49.194109 11473 net.cpp:219] lstm2 does not need backward computation.
I0925 20:57:49.194115 11473 net.cpp:219] concat does not need backward computation.
I0925 20:57:49.194123 11473 net.cpp:219] lstm1 does not need backward computation.
I0925 20:57:49.194129 11473 net.cpp:219] embedding does not need backward computation.
I0925 20:57:49.194134 11473 net.cpp:219] reshape_stage_indicator does not need backward computation.
I0925 20:57:49.194140 11473 net.cpp:219] reshape_frames does not need backward computation.
I0925 20:57:49.194145 11473 net.cpp:219] embed_encoder does not need backward computation.
I0925 20:57:49.194150 11473 net.cpp:219] cont_sentence_input_1_split does not need backward computation.
I0925 20:57:49.194156 11473 net.cpp:219] input does not need backward computation.
I0925 20:57:49.194160 11473 net.cpp:261] This network produces output probs
I0925 20:57:49.194177 11473 net.cpp:274] Network initialization done.
I0925 20:57:49.288311 11477 net.cpp:141] Setting up predict
I0925 20:57:49.288373 11477 net.cpp:148] Top shape: 1 1 46168 (46168)
I0925 20:57:49.288381 11477 net.cpp:156] Memory required for data: 221084
I0925 20:57:49.288398 11477 layer_factory.hpp:77] Creating layer probs
I0925 20:57:49.288419 11477 net.cpp:91] Creating Layer probs
I0925 20:57:49.288427 11477 net.cpp:425] probs <- predict
I0925 20:57:49.288439 11477 net.cpp:399] probs -> probs
I0925 20:57:49.288986 11477 net.cpp:141] Setting up probs
I0925 20:57:49.289000 11477 net.cpp:148] Top shape: 1 1 46168 (46168)
I0925 20:57:49.289005 11477 net.cpp:156] Memory required for data: 405756
I0925 20:57:49.289011 11477 net.cpp:219] probs does not need backward computation.
I0925 20:57:49.289016 11477 net.cpp:219] predict does not need backward computation.
I0925 20:57:49.289022 11477 net.cpp:219] lstm2 does not need backward computation.
I0925 20:57:49.289028 11477 net.cpp:219] concat does not need backward computation.
…
