…
Java HotSpot(TM) 64-Bit Server VM warning: You have loaded library /home/peifeng/work/run/storm102/data/workers/79b73c35-0e81-46ee-9c7f-c7bedacf671a/tmp/cvld6898244448926540461/libopencv_java310.xine1.so which might have disabled stack guard. The VM will try to fix the stack guard now.
It's highly recommended that you fix the library with 'execstack -c <libfile>', or link it with '-z noexecstack'.
WARNING: Logging before InitGoogleLogging() is written to STDERR
I0924 00:17:25.672904 18318 net.cpp:49] Initializing net from parameters: 
name: "GoogleNet"
state {
  phase: TEST
}
layer {
  name: "data"
  type: "Input"
  top: "data"
  input_param {
    shape {
      dim: 10
      dim: 3
      dim: 224
      dim: 224
    }
  }
}
layer {
  name: "conv1/7x7_s2"
  type: "Convolution"
  bottom: "data"
  top: "conv1/7x7_s2"
  param {
    lr_mult: 1
    decay_mult: 1
  }
  param {
    lr_mult: 2
    decay_mult: 0
  }
  convolution_param {
    num_output: 64
    pad: 3
    kernel_size: 7
    stride: 2
    weight_filler {
      type: "xavier"
      std: 0.1
    }
    bias_filler {
      type: "constant"
      value: 0.2
    }
  }
}
layer {
  name: "conv1/relu_7x7"
  type: "ReLU"
  bottom: "conv1/7x7_s2"
  top: "conv1/7x7_s2"
}
layer {
  name: "pool1/3x3_s2"
  type: "Pooling"
  bottom: "conv1/7x7_s2"
  top: "pool1/3x3_s2"
  pooling_param {
    pool: MAX
    kernel_size: 3
    stride: 2
  }
}
layer {
  name: "pool1/norm1"
  type: "LRN"
  bottom: "pool1/3x3_s2"
  top: "pool1/norm1"
  lrn_param {
    local_size: 5
    alpha: 0.0001
    beta: 0.75
  }
}
layer {
  name: "conv2/3x3_reduce"
  type: "Convolution"
  bottom: "pool1/norm1"
  top: "conv2/3x3_reduce"
  param {
    lr_mult: 1
    decay_mult: 1
  }
  param {
    lr_mult: 2
    decay_mult: 0
  }
  convolution_param {
    num_output: 64
    kernel_size: 1
    weight_filler {
      type: "xavier"
      std: 0.1
    }
    bias_filler {
      type: "constant"
      value: 0.2
    }
  }
}
layer {
  name: "conv2/relu_3x3_reduce"
  type: "ReLU"
  bottom: "conv2/3x3_reduce"
  top: "conv2/3x3_reduce"
}
layer {
  name: "conv2/3x3"
  type: "Convolution"
  bottom: "conv2/3x3_reduce"
  top: "conv2/3x3"
  param {
    lr_mult: 1
    decay_mult: 1
  }
  param {
    lr_mult: 2
    decay_mult: 0
  }
  convolution_param {
    num_output: 192
    pad: 1
    kernel_size: 3
    weight_filler {
      type: "xavier"
      std: 0.03
    }
    bias_filler {
      type: "constant"
      value: 0.2
    }
  }
}
layer {
  name: "conv2/relu_3x3"
  type: "ReLU"
  bottom: "conv2/3x3"
  top: "conv2/3x3"
}
layer {
  name: "conv2/norm2"
  type: "LRN"
  bottom: "conv2/3x3"
  top: "conv2/norm2"
  lrn_param {
    local_size: 5
    alpha: 0.0001
    beta: 0.75
  }
}
layer {
  name: "pool2/3x3_s2"
  type: "Pooling"
  bottom: "conv2/norm2"
  top: "pool2/3x3_s2"
  pooling_param {
    pool: MAX
    kernel_size: 3
    stride: 2
  }
}
layer {
  name: "inception_3a/1x1"
  type: "Convolution"
  bottom: "pool2/3x3_s2"
  top: "inception_3a/1x1"
  param {
    lr_mult: 1
    decay_mult: 1
  }
  param {
    lr_mult: 2
    decay_mult: 0
  }
  convolution_param {
    num_output: 64
    kernel_size: 1
    weight_filler {
      type: "xavier"
      std: 0.03
    }
    bias_filler {
      type: "constant"
      value: 0.2
    }
  }
}
layer {
  name: "inception_3a/relu_1x1"
  type: "ReLU"
  bottom: "inception_3a/1x1"
  top: "inception_3a/1x1"
}
layer {
  name: "inception_3a/3x3_reduce"
  type: "Convolution"
  bottom: "pool2/3x3_s2"
  top: "inception_3a/3x3_reduce"
  param {
    lr_mult: 1
    decay_mult: 1
  }
  param {
    lr_mult: 2
    decay_mult: 0
  }
  convolution_param {
    num_output: 96
    kernel_size: 1
    weight_filler {
      type: "xavier"
      std: 0.09
    }
    bias_filler {
      type: "constant"
      value: 0.2
    }
  }
}
layer {
  name: "inception_3a/relu_3x3_reduce"
  type: "ReLU"
  bottom: "inception_3a/3x3_reduce"
  top: "inception_3a/3x3_reduce"
}
layer {
  name: "inception_3a/3x3"
  type: "Convolution"
  bottom: "inception_3a/3x3_reduce"
  top: "inception_3a/3x3"
  param {
    lr_mult: 1
    decay_mult: 1
  }
  param {
    lr_mult: 2
    decay_mult: 0
  }
  convolution_param {
    num_output: 128
    pad: 1
    kernel_size: 3
    weight_filler {
      type: "xavier"
      std: 0.03
    }
    bias_filler {
      type: "constant"
      value: 0.2
    }
  }
}
layer {
  name: "inception_3a/relu_3x3"
  type: "ReLU"
  bottom: "inception_3a/3x3"
  top: "inception_3a/3x3"
}
layer {
  name: "inception_3a/5x5_reduce"
  type: "Convolution"
  bottom: "pool2/3x3_s2"
  top: "inception_3a/5x5_reduce"
  param {
    lr_mult: 1
    decay_mult: 1
  }
  param {
    lr_mult: 2
    decay_mult: 0
  }
  convolution_param {
    num_output: 16
    kernel_size: 1
    weight_filler {
      type: "xavier"
      std: 0.2
    }
    bias_filler {
      type: "constant"
      value: 0.2
    }
  }
}
layer {
  name: "inception_3a/relu_5x5_reduce"
  type: "ReLU"
  bottom: "inception_3a/5x5_reduce"
  top: "inception_3a/5x5_reduce"
}
layer {
  name: "inception_3a/5x5"
  type: "Convolution"
  bottom: "inception_3a/5x5_reduce"
  top: "inception_3a/5x5"
  param {
    lr_mult: 1
    decay_mult: 1
  }
  param {
    lr_mult: 2
    decay_mult: 0
  }
  convolution_param {
    num_output: 32
    pad: 2
    kernel_size: 5
    weight_filler {
      type: "xavier"
      std: 0.03
    }
    bias_filler {
      type: "constant"
      value: 0.2
    }
  }
}
layer {
  name: "inception_3a/relu_5x5"
  type: "ReLU"
  bottom: "inception_3a/5x5"
  top: "inception_3a/5x5"
}
layer {
  name: "inception_3a/pool"
  type: "Pooling"
  bottom: "pool2/3x3_s2"
  top: "inception_3a/pool"
  pooling_param {
    pool: MAX
    kernel_size: 3
    stride: 1
    pad: 1
  }
}
layer {
  name: "inception_3a/pool_proj"
  type: "Convolution"
  bottom: "inception_3a/pool"
  top: "inception_3a/pool_proj"
  param {
    lr_mult: 1
    decay_mult: 1
  }
  param {
    lr_mult: 2
    decay_mult: 0
  }
  convolution_param {
    num_output: 32
    kernel_size: 1
    weight_filler {
      type: "xavier"
      std: 0.1
    }
    bias_filler {
      type: "constant"
      value: 0.2
    }
  }
}
layer {
  name: "inception_3a/relu_pool_proj"
  type: "ReLU"
  bottom: "inception_3a/pool_proj"
  top: "inception_3a/pool_proj"
}
layer {
  name: "inception_3a/output"
  type: "Concat"
  bottom: "inception_3a/1x1"
  bottom: "inception_3a/3x3"
  bottom: "inception_3a/5x5"
  bottom: "inception_3a/pool_proj"
  top: "inception_3a/output"
}
layer {
  name: "inception_3b/1x1"
  type: "Convolution"
  bottom: "inception_3a/output"
  top: "inception_3b/1x1"
  param {
    lr_mult: 1
    decay_mult: 1
  }
  param {
    lr_mult: 2
    decay_mult: 0
  }
  convolution_param {
    num_output: 128
    kernel_size: 1
    weight_filler {
      type: "xavier"
      std: 0.03
    }
    bias_filler {
      type: "constant"
      value: 0.2
    }
  }
}
layer {
  name: "inception_3b/relu_1x1"
  type: "ReLU"
  bottom: "inception_3b/1x1"
  top: "inception_3b/1x1"
}
layer {
  name: "inception_3b/3x3_reduce"
  type: "Convolution"
  bottom: "inception_3a/output"
  top: "inception_3b/3x3_reduce"
  param {
    lr_mult: 1
    decay_mult: 1
  }
  param {
    lr_mult: 2
    decay_mult: 0
  }
  convolution_param {
    num_output: 128
    kernel_size: 1
    weight_filler {
      type: "xavier"
      std: 0.09
    }
    bias_filler {
      type: "constant"
      value: 0.2
    }
  }
}
layer {
  name: "inception_3b/relu_3x3_reduce"
  type: "ReLU"
  bottom: "inception_3b/3x3_reduce"
  top: "inception_3b/3x3_reduce"
}
layer {
  name: "inception_3b/3x3"
  type: "Convolution"
  bottom: "inception_3b/3x3_reduce"
  top: "inception_3b/3x3"
  param {
    lr_mult: 1
    decay_mult: 1
  }
  param {
    lr_mult: 2
    decay_mult: 0
  }
  convolution_param {
    num_output: 192
    pad: 1
    kernel_size: 3
    weight_filler {
      type: "xavier"
      std: 0.03
    }
    bias_filler {
      type: "constant"
      value: 0.2
    }
  }
}
layer {
  name: "inception_3b/relu_3x3"
  type: "ReLU"
  bottom: "inception_3b/3x3"
  top: "inception_3b/3x3"
}
layer {
  name: "inception_3b/5x5_reduce"
  type: "Convolution"
  bottom: "inception_3a/output"
  top: "inception_3b/5x5_reduce"
  param {
    lr_mult: 1
    decay_mult: 1
  }
  param {
    lr_mult: 2
    decay_mult: 0
  }
  convolution_param {
    num_output: 32
    kernel_size: 1
    weight_filler {
      type: "xavier"
      std: 0.2
    }
    bias_filler {
      type: "constant"
      value: 0.2
    }
  }
}
layer {
  name: "inception_3b/relu_5x5_reduce"
  type: "ReLU"
  bottom: "inception_3b/5x5_reduce"
  top: "inception_3b/5x5_reduce"
}
layer {
  name: "inception_3b/5x5"
  type: "Convolution"
  bottom: "inception_3b/5x5_reduce"
  top: "inception_3b/5x5"
  param {
    lr_mult: 1
    decay_mult: 1
  }
  param {
    lr_mult: 2
    decay_mult: 0
  }
  convolution_param {
    num_output: 96
    pad: 2
    kernel_size: 5
    weight_filler {
      type: "xavier"
      std: 0.03
    }
    bias_filler {
      type: "constant"
      value: 0.2
    }
  }
}
layer {
  name: "inception_3b/relu_5x5"
  type: "ReLU"
  bottom: "inception_3b/5x5"
  top: "inception_3b/5x5"
}
layer {
  name: "inception_3b/pool"
  type: "Pooling"
  bottom: "inception_3a/output"
  top: "inception_3b/pool"
  pooling_param {
    pool: MAX
    kernel_size: 3
    stride: 1
    pad: 1
  }
}
layer {
  name: "inception_3b/pool_proj"
  type: "Convolution"
  bottom: "inception_3b/pool"
  top: "inception_3b/pool_proj"
  param {
    lr_mult: 1
    decay_mult: 1
  }
  param {
    lr_mult: 2
    decay_mult: 0
  }
  convolution_param {
    num_output: 64
    kernel_size: 1
    weight_filler {
      type: "xavier"
      std: 0.1
    }
    bias_filler {
      type: "constant"
      value: 0.2
    }
  }
}
layer {
  name: "inception_3b/relu_pool_proj"
  type: "ReLU"
  bottom: "inception_3b/pool_proj"
  top: "inception_3b/pool_proj"
}
layer {
  name: "inception_3b/output"
  type: "Concat"
  bottom: "inception_3b/1x1"
  bottom: "inception_3b/3x3"
  bottom: "inception_3b/5x5"
  bottom: "inception_3b/pool_proj"
  top: "inception_3b/output"
}
layer {
  name: "pool3/3x3_s2"
  type: "Pooling"
  bottom: "inception_3b/output"
  top: "pool3/3x3_s2"
  pooling_param {
    pool: MAX
    kernel_size: 3
    stride: 2
  }
}
layer {
  name: "inception_4a/1x1"
  type: "Convolution"
  bottom: "pool3/3x3_s2"
  top: "inception_4a/1x1"
  param {
    lr_mult: 1
    decay_mult: 1
  }
  param {
    lr_mult: 2
    decay_mult: 0
  }
  convolution_param {
    num_output: 192
    kernel_size: 1
    weight_filler {
      type: "xavier"
      std: 0.03
    }
    bias_filler {
      type: "constant"
      value: 0.2
    }
  }
}
layer {
  name: "inception_4a/relu_1x1"
  type: "ReLU"
  bottom: "inception_4a/1x1"
  top: "inception_4a/1x1"
}
layer {
  name: "inception_4a/3x3_reduce"
  type: "Convolution"
  bottom: "pool3/3x3_s2"
  top: "inception_4a/3x3_reduce"
  param {
    lr_mult: 1
    decay_mult: 1
  }
  param {
    lr_mult: 2
    decay_mult: 0
  }
  convolution_param {
    num_output: 96
    kernel_size: 1
    weight_filler {
      type: "xavier"
      std: 0.09
    }
    bias_filler {
      type: "constant"
      value: 0.2
    }
  }
}
layer {
  name: "inception_4a/relu_3x3_reduce"
  type: "ReLU"
  bottom: "inception_4a/3x3_reduce"
  top: "inception_4a/3x3_reduce"
}
layer {
  name: "inception_4a/3x3"
  type: "Convolution"
  bottom: "inception_4a/3x3_reduce"
  top: "inception_4a/3x3"
  param {
    lr_mult: 1
    decay_mult: 1
  }
  param {
    lr_mult: 2
    decay_mult: 0
  }
  convolution_param {
    num_output: 208
    pad: 1
    kernel_size: 3
    weight_filler {
      type: "xavier"
      std: 0.03
    }
    bias_filler {
      type: "constant"
      value: 0.2
    }
  }
}
layer {
  name: "inception_4a/relu_3x3"
  type: "ReLU"
  bottom: "inception_4a/3x3"
  top: "inception_4a/3x3"
}
layer {
  name: "inception_4a/5x5_reduce"
  type: "Convolution"
  bottom: "pool3/3x3_s2"
  top: "inception_4a/5x5_reduce"
  param {
    lr_mult: 1
    decay_mult: 1
  }
  param {
    lr_mult: 2
    decay_mult: 0
  }
  convolution_param {
    num_output: 16
    kernel_size: 1
    weight_filler {
      type: "xavier"
      std: 0.2
    }
    bias_filler {
      type: "constant"
      value: 0.2
    }
  }
}
layer {
  name: "inception_4a/relu_5x5_reduce"
  type: "ReLU"
  bottom: "inception_4a/5x5_reduce"
  top: "inception_4a/5x5_reduce"
}
layer {
  name: "inception_4a/5x5"
  type: "Convolution"
  bottom: "inception_4a/5x5_reduce"
  top: "inception_4a/5x5"
  param {
    lr_mult: 1
    decay_mult: 1
  }
  param {
    lr_mult: 2
    decay_mult: 0
  }
  convolution_param {
    num_output: 48
    pad: 2
    kernel_size: 5
    weight_filler {
      type: "xavier"
      std: 0.03
    }
    bias_filler {
      type: "constant"
      value: 0.2
    }
  }
}
layer {
  name: "inception_4a/relu_5x5"
  type: "ReLU"
  bottom: "inception_4a/5x5"
  top: "inception_4a/5x5"
}
layer {
  name: "inception_4a/pool"
  type: "Pooling"
  bottom: "pool3/3x3_s2"
  top: "inception_4a/pool"
  pooling_param {
    pool: MAX
    kernel_size: 3
    stride: 1
    pad: 1
  }
}
layer {
  name: "inception_4a/pool_proj"
  type: "Convolution"
  bottom: "inception_4a/pool"
  top: "inception_4a/pool_proj"
  param {
    lr_mult: 1
    decay_mult: 1
  }
  param {
    lr_mult: 2
    decay_mult: 0
  }
  convolution_param {
    num_output: 64
    kernel_size: 1
    weight_filler {
      type: "xavier"
      std: 0.1
    }
    bias_filler {
      type: "constant"
      value: 0.2
    }
  }
}
layer {
  name: "inception_4a/relu_pool_proj"
  type: "ReLU"
  bottom: "inception_4a/pool_proj"
  top: "inception_4a/pool_proj"
}
layer {
  name: "inception_4a/output"
  type: "Concat"
  bottom: "inception_4a/1x1"
  bottom: "inception_4a/3x3"
  bottom: "inception_4a/5x5"
  bottom: "inception_4a/pool_proj"
  top: "inception_4a/output"
}
layer {
  name: "inception_4b/1x1"
  type: "Convolution"
  bottom: "inception_4a/output"
  top: "inception_4b/1x1"
  param {
    lr_mult: 1
    decay_mult: 1
  }
  param {
    lr_mult: 2
    decay_mult: 0
  }
  convolution_param {
    num_output: 160
    kernel_size: 1
    weight_filler {
      type: "xavier"
      std: 0.03
    }
    bias_filler {
      type: "constant"
      value: 0.2
    }
  }
}
layer {
  name: "inception_4b/relu_1x1"
  type: "ReLU"
  bottom: "inception_4b/1x1"
  top: "inception_4b/1x1"
}
layer {
  name: "inception_4b/3x3_reduce"
  type: "Convolution"
  bottom: "inception_4a/output"
  top: "inception_4b/3x3_reduce"
  param {
    lr_mult: 1
    decay_mult: 1
  }
  param {
    lr_mult: 2
    decay_mult: 0
  }
  convolution_param {
    num_output: 112
    kernel_size: 1
    weight_filler {
      type: "xavier"
      std: 0.09
    }
    bias_filler {
      type: "constant"
      value: 0.2
    }
  }
}
layer {
  name: "inception_4b/relu_3x3_reduce"
  type: "ReLU"
  bottom: "inception_4b/3x3_reduce"
  top: "inception_4b/3x3_reduce"
}
layer {
  name: "inception_4b/3x3"
  type: "Convolution"
  bottom: "inception_4b/3x3_reduce"
  top: "inception_4b/3x3"
  param {
    lr_mult: 1
    decay_mult: 1
  }
  param {
    lr_mult: 2
    decay_mult: 0
  }
  convolution_param {
    num_output: 224
    pad: 1
    kernel_size: 3
    weight_filler {
      type: "xavier"
      std: 0.03
    }
    bias_filler {
      type: "constant"
      value: 0.2
    }
  }
}
layer {
  name: "inception_4b/relu_3x3"
  type: "ReLU"
  bottom: "inception_4b/3x3"
  top: "inception_4b/3x3"
}
layer {
  name: "inception_4b/5x5_reduce"
  type: "Convolution"
  bottom: "inception_4a/output"
  top: "inception_4b/5x5_reduce"
  param {
    lr_mult: 1
    decay_mult: 1
  }
  param {
    lr_mult: 2
    decay_mult: 0
  }
  convolution_param {
    num_output: 24
    kernel_size: 1
    weight_filler {
      type: "xavier"
      std: 0.2
    }
    bias_filler {
      type: "constant"
      value: 0.2
    }
  }
}
layer {
  name: "inception_4b/relu_5x5_reduce"
  type: "ReLU"
  bottom: "inception_4b/5x5_reduce"
  top: "inception_4b/5x5_reduce"
}
layer {
  name: "inception_4b/5x5"
  type: "Convolution"
  bottom: "inception_4b/5x5_reduce"
  top: "inception_4b/5x5"
  param {
    lr_mult: 1
    decay_mult: 1
  }
  param {
    lr_mult: 2
    decay_mult: 0
  }
  convolution_param {
    num_output: 64
    pad: 2
    kernel_size: 5
    weight_filler {
      type: "xavier"
      std: 0.03
    }
    bias_filler {
      type: "constant"
      value: 0.2
    }
  }
}
layer {
  name: "inception_4b/relu_5x5"
  type: "ReLU"
  bottom: "inception_4b/5x5"
  top: "inception_4b/5x5"
}
layer {
  name: "inception_4b/pool"
  type: "Pooling"
  bottom: "inception_4a/output"
  top: "inception_4b/pool"
  pooling_param {
    pool: MAX
    kernel_size: 3
    stride: 1
    pad: 1
  }
}
layer {
  name: "inception_4b/pool_proj"
  type: "Convolution"
  bottom: "inception_4b/pool"
  top: "inception_4b/pool_proj"
  param {
    lr_mult: 1
    decay_mult: 1
  }
  param {
    lr_mult: 2
    decay_mult: 0
  }
  convolution_param {
    num_output: 64
    kernel_size: 1
    weight_filler {
      type: "xavier"
      std: 0.1
    }
    bias_filler {
      type: "constant"
      value: 0.2
    }
  }
}
layer {
  name: "inception_4b/relu_pool_proj"
  type: "ReLU"
  bottom: "inception_4b/pool_proj"
  top: "inception_4b/pool_proj"
}
layer {
  name: "inception_4b/output"
  type: "Concat"
  bottom: "inception_4b/1x1"
  bottom: "inception_4b/3x3"
  bottom: "inception_4b/5x5"
  bottom: "inception_4b/pool_proj"
  top: "inception_4b/output"
}
layer {
  name: "inception_4c/1x1"
  type: "Convolution"
  bottom: "inception_4b/output"
  top: "inception_4c/1x1"
  param {
    lr_mult: 1
    decay_mult: 1
  }
  param {
    lr_mult: 2
    decay_mult: 0
  }
  convolution_param {
    num_output: 128
    kernel_size: 1
    weight_filler {
      type: "xavier"
      std: 0.03
    }
    bias_filler {
      type: "constant"
      value: 0.2
    }
  }
}
layer {
  name: "inception_4c/relu_1x1"
  type: "ReLU"
  bottom: "inception_4c/1x1"
  top: "inception_4c/1x1"
}
layer {
  name: "inception_4c/3x3_reduce"
  type: "Convolution"
  bottom: "inception_4b/output"
  top: "inception_4c/3x3_reduce"
  param {
    lr_mult: 1
    decay_mult: 1
  }
  param {
    lr_mult: 2
    decay_mult: 0
  }
  convolution_param {
    num_output: 128
    kernel_size: 1
    weight_filler {
      type: "xavier"
      std: 0.09
    }
    bias_filler {
      type: "constant"
      value: 0.2
    }
  }
}
layer {
  name: "inception_4c/relu_3x3_reduce"
  type: "ReLU"
  bottom: "inception_4c/3x3_reduce"
  top: "inception_4c/3x3_reduce"
}
layer {
  name: "inception_4c/3x3"
  type: "Convolution"
  bottom: "inception_4c/3x3_reduce"
  top: "inception_4c/3x3"
  param {
    lr_mult: 1
    decay_mult: 1
  }
  param {
    lr_mult: 2
    decay_mult: 0
  }
  convolution_param {
    num_output: 256
    pad: 1
    kernel_size: 3
    weight_filler {
      type: "xavier"
      std: 0.03
    }
    bias_filler {
      type: "constant"
      value: 0.2
    }
  }
}
layer {
  name: "inception_4c/relu_3x3"
  type: "ReLU"
  bottom: "inception_4c/3x3"
  top: "inception_4c/3x3"
}
layer {
  name: "inception_4c/5x5_reduce"
  type: "Convolution"
  bottom: "inception_4b/output"
  top: "inception_4c/5x5_reduce"
  param {
    lr_mult: 1
    decay_mult: 1
  }
  param {
    lr_mult: 2
    decay_mult: 0
  }
  convolution_param {
    num_output: 24
    kernel_size: 1
    weight_filler {
      type: "xavier"
      std: 0.2
    }
    bias_filler {
      type: "constant"
      value: 0.2
    }
  }
}
layer {
  name: "inception_4c/relu_5x5_reduce"
  type: "ReLU"
  bottom: "inception_4c/5x5_reduce"
  top: "inception_4c/5x5_reduce"
}
layer {
  name: "inception_4c/5x5"
  type: "Convolution"
  bottom: "inception_4c/5x5_reduce"
  top: "inception_4c/5x5"
  param {
    lr_mult: 1
    decay_mult: 1
  }
  param {
    lr_mult: 2
    decay_mult: 0
  }
  convolution_param {
    num_output: 64
    pad: 2
    kernel_size: 5
    weight_filler {
      type: "xavier"
      std: 0.03
    }
    bias_filler {
      type: "constant"
      value: 0.2
    }
  }
}
layer {
  name: "inception_4c/relu_5x5"
  type: "ReLU"
  bottom: "inception_4c/5x5"
  top: "inception_4c/5x5"
}
layer {
  name: "inception_4c/pool"
  type: "Pooling"
  bottom: "inception_4b/output"
  top: "inception_4c/pool"
  pooling_param {
    pool: MAX
    kernel_size: 3
    stride: 1
    pad: 1
  }
}
layer {
  name: "inception_4c/pool_proj"
  type: "Convolution"
  bottom: "inception_4c/pool"
  top: "inception_4c/pool_proj"
  param {
    lr_mult: 1
    decay_mult: 1
  }
  param {
    lr_mult: 2
    decay_mult: 0
  }
  convolution_param {
    num_output: 64
    kernel_size: 1
    weight_filler {
      type: "xavier"
      std: 0.1
    }
    bias_filler {
      type: "constant"
      value: 0.2
    }
  }
}
layer {
  name: "inception_4c/relu_pool_proj"
  type: "ReLU"
  bottom: "inception_4c/pool_proj"
  top: "inception_4c/pool_proj"
}
layer {
  name: "inception_4c/output"
  type: "Concat"
  bottom: "inception_4c/1x1"
  bottom: "inception_4c/3x3"
  bottom: "inception_4c/5x5"
  bottom: "inception_4c/pool_proj"
  top: "inception_4c/output"
}
layer {
  name: "inception_4d/1x1"
  type: "Convolution"
  bottom: "inception_4c/output"
  top: "inception_4d/1x1"
  param {
    lr_mult: 1
    decay_mult: 1
  }
  param {
    lr_mult: 2
    decay_mult: 0
  }
  convolution_param {
    num_output: 112
    kernel_size: 1
    weight_filler {
      type: "xavier"
      std: 0.03
    }
    bias_filler {
      type: "constant"
      value: 0.2
    }
  }
}
layer {
  name: "inception_4d/relu_1x1"
  type: "ReLU"
  bottom: "inception_4d/1x1"
  top: "inception_4d/1x1"
}
layer {
  name: "inception_4d/3x3_reduce"
  type: "Convolution"
  bottom: "inception_4c/output"
  top: "inception_4d/3x3_reduce"
  param {
    lr_mult: 1
    decay_mult: 1
  }
  param {
    lr_mult: 2
    decay_mult: 0
  }
  convolution_param {
    num_output: 144
    kernel_size: 1
    weight_filler {
      type: "xavier"
      std: 0.09
    }
    bias_filler {
      type: "constant"
      value: 0.2
    }
  }
}
layer {
  name: "inception_4d/relu_3x3_reduce"
  type: "ReLU"
  bottom: "inception_4d/3x3_reduce"
  top: "inception_4d/3x3_reduce"
}
layer {
  name: "inception_4d/3x3"
  type: "Convolution"
  bottom: "inception_4d/3x3_reduce"
  top: "inception_4d/3x3"
  param {
    lr_mult: 1
    decay_mult: 1
  }
  param {
    lr_mult: 2
    decay_mult: 0
  }
  convolution_param {
    num_output: 288
    pad: 1
    kernel_size: 3
    weight_filler {
      type: "xavier"
      std: 0.03
    }
    bias_filler {
      type: "constant"
      value: 0.2
    }
  }
}
layer {
  name: "inception_4d/relu_3x3"
  type: "ReLU"
  bottom: "inception_4d/3x3"
  top: "inception_4d/3x3"
}
layer {
  name: "inception_4d/5x5_reduce"
  type: "Convolution"
  bottom: "inception_4c/output"
  top: "inception_4d/5x5_reduce"
  param {
    lr_mult: 1
    decay_mult: 1
  }
  param {
    lr_mult: 2
    decay_mult: 0
  }
  convolution_param {
    num_output: 32
    kernel_size: 1
    weight_filler {
      type: "xavier"
      std: 0.2
    }
    bias_filler {
      type: "constant"
      value: 0.2
    }
  }
}
layer {
  name: "inception_4d/relu_5x5_reduce"
  type: "ReLU"
  bottom: "inception_4d/5x5_reduce"
  top: "inception_4d/5x5_reduce"
}
layer {
  name: "inception_4d/5x5"
  type: "Convolution"
  bottom: "inception_4d/5x5_reduce"
  top: "inception_4d/5x5"
  param {
    lr_mult: 1
    decay_mult: 1
  }
  param {
    lr_mult: 2
    decay_mult: 0
  }
  convolution_param {
    num_output: 64
    pad: 2
    kernel_size: 5
    weight_filler {
      type: "xavier"
      std: 0.03
    }
    bias_filler {
      type: "constant"
      value: 0.2
    }
  }
}
layer {
  name: "inception_4d/relu_5x5"
  type: "ReLU"
  bottom: "inception_4d/5x5"
  top: "inception_4d/5x5"
}
layer {
  name: "inception_4d/pool"
  type: "Pooling"
  bottom: "inception_4c/output"
  top: "inception_4d/pool"
  pooling_param {
    pool: MAX
    kernel_size: 3
    stride: 1
    pad: 1
  }
}
layer {
  name: "inception_4d/pool_proj"
  type: "Convolution"
  bottom: "inception_4d/pool"
  top: "inception_4d/pool_proj"
  param {
    lr_mult: 1
    decay_mult: 1
  }
  param {
    lr_mult: 2
    decay_mult: 0
  }
  convolution_param {
    num_output: 64
    kernel_size: 1
    weight_filler {
      type: "xavier"
      std: 0.1
    }
    bias_filler {
      type: "constant"
      value: 0.2
    }
  }
}
layer {
  name: "inception_4d/relu_pool_proj"
  type: "ReLU"
  bottom: "inception_4d/pool_proj"
  top: "inception_4d/pool_proj"
}
layer {
  name: "inception_4d/output"
  type: "Concat"
  bottom: "inception_4d/1x1"
  bottom: "inception_4d/3x3"
  bottom: "inception_4d/5x5"
  bottom: "inception_4d/pool_proj"
  top: "inception_4d/output"
}
layer {
  name: "inception_4e/1x1"
  type: "Convolution"
  bottom: "inception_4d/output"
  top: "inception_4e/1x1"
  param {
    lr_mult: 1
    decay_mult: 1
  }
  param {
    lr_mult: 2
    decay_mult: 0
  }
  convolution_param {
    num_output: 256
    kernel_size: 1
    weight_filler {
      type: "xavier"
      std: 0.03
    }
    bias_filler {
      type: "constant"
      value: 0.2
    }
  }
}
layer {
  name: "inception_4e/relu_1x1"
  type: "ReLU"
  bottom: "inception_4e/1x1"
  top: "inception_4e/1x1"
}
layer {
  name: "inception_4e/3x3_reduce"
  type: "Convolution"
  bottom: "inception_4d/output"
  top: "inception_4e/3x3_reduce"
  param {
    lr_mult: 1
    decay_mult: 1
  }
  param {
    lr_mult: 2
    decay_mult: 0
  }
  convolution_param {
    num_output: 160
    kernel_size: 1
    weight_filler {
      type: "xavier"
      std: 0.09
    }
    bias_filler {
      type: "constant"
      value: 0.2
    }
  }
}
layer {
  name: "inception_4e/relu_3x3_reduce"
  type: "ReLU"
  bottom: "inception_4e/3x3_reduce"
  top: "inception_4e/3x3_reduce"
}
layer {
  name: "inception_4e/3x3"
  type: "Convolution"
  bottom: "inception_4e/3x3_reduce"
  top: "inception_4e/3x3"
  param {
    lr_mult: 1
    decay_mult: 1
  }
  param {
    lr_mult: 2
    decay_mult: 0
  }
  convolution_param {
    num_output: 320
    pad: 1
    kernel_size: 3
    weight_filler {
      type: "xavier"
      std: 0.03
    }
    bias_filler {
      type: "constant"
      value: 0.2
    }
  }
}
layer {
  name: "inception_4e/relu_3x3"
  type: "ReLU"
  bottom: "inception_4e/3x3"
  top: "inception_4e/3x3"
}
layer {
  name: "inception_4e/5x5_reduce"
  type: "Convolution"
  bottom: "inception_4d/output"
  top: "inception_4e/5x5_reduce"
  param {
    lr_mult: 1
    decay_mult: 1
  }
  param {
    lr_mult: 2
    decay_mult: 0
  }
  convolution_param {
    num_output: 32
    kernel_size: 1
    weight_filler {
      type: "xavier"
      std: 0.2
    }
    bias_filler {
      type: "constant"
      value: 0.2
    }
  }
}
layer {
  name: "inception_4e/relu_5x5_reduce"
  type: "ReLU"
  bottom: "inception_4e/5x5_reduce"
  top: "inception_4e/5x5_reduce"
}
layer {
  name: "inception_4e/5x5"
  type: "Convolution"
  bottom: "inception_4e/5x5_reduce"
  top: "inception_4e/5x5"
  param {
    lr_mult: 1
    decay_mult: 1
  }
  param {
    lr_mult: 2
    decay_mult: 0
  }
  convolution_param {
    num_output: 128
    pad: 2
    kernel_size: 5
    weight_filler {
      type: "xavier"
      std: 0.03
    }
    bias_filler {
      type: "constant"
      value: 0.2
    }
  }
}
layer {
  name: "inception_4e/relu_5x5"
  type: "ReLU"
  bottom: "inception_4e/5x5"
  top: "inception_4e/5x5"
}
layer {
  name: "inception_4e/pool"
  type: "Pooling"
  bottom: "inception_4d/output"
  top: "inception_4e/pool"
  pooling_param {
    pool: MAX
    kernel_size: 3
    stride: 1
    pad: 1
  }
}
layer {
  name: "inception_4e/pool_proj"
  type: "Convolution"
  bottom: "inception_4e/pool"
  top: "inception_4e/pool_proj"
  param {
    lr_mult: 1
    decay_mult: 1
  }
  param {
    lr_mult: 2
    decay_mult: 0
  }
  convolution_param {
    num_output: 128
    kernel_size: 1
    weight_filler {
      type: "xavier"
      std: 0.1
    }
    bias_filler {
      type: "constant"
      value: 0.2
    }
  }
}
layer {
  name: "inception_4e/relu_pool_proj"
  type: "ReLU"
  bottom: "inception_4e/pool_proj"
  top: "inception_4e/pool_proj"
}
layer {
  name: "inception_4e/output"
  type: "Concat"
  bottom: "inception_4e/1x1"
  bottom: "inception_4e/3x3"
  bottom: "inception_4e/5x5"
  bottom: "inception_4e/pool_proj"
  top: "inception_4e/output"
}
layer {
  name: "pool4/3x3_s2"
  type: "Pooling"
  bottom: "inception_4e/output"
  top: "pool4/3x3_s2"
  pooling_param {
    pool: MAX
    kernel_size: 3
    stride: 2
  }
}
layer {
  name: "inception_5a/1x1"
  type: "Convolution"
  bottom: "pool4/3x3_s2"
  top: "inception_5a/1x1"
  param {
    lr_mult: 1
    decay_mult: 1
  }
  param {
    lr_mult: 2
    decay_mult: 0
  }
  convolution_param {
    num_output: 256
    kernel_size: 1
    weight_filler {
      type: "xavier"
      std: 0.03
    }
    bias_filler {
      type: "constant"
      value: 0.2
    }
  }
}
layer {
  name: "inception_5a/relu_1x1"
  type: "ReLU"
  bottom: "inception_5a/1x1"
  top: "inception_5a/1x1"
}
layer {
  name: "inception_5a/3x3_reduce"
  type: "Convolution"
  bottom: "pool4/3x3_s2"
  top: "inception_5a/3x3_reduce"
  param {
    lr_mult: 1
    decay_mult: 1
  }
  param {
    lr_mult: 2
    decay_mult: 0
  }
  convolution_param {
    num_output: 160
    kernel_size: 1
    weight_filler {
      type: "xavier"
      std: 0.09
    }
    bias_filler {
      type: "constant"
      value: 0.2
    }
  }
}
layer {
  name: "inception_5a/relu_3x3_reduce"
  type: "ReLU"
  bottom: "inception_5a/3x3_reduce"
  top: "inception_5a/3x3_reduce"
}
layer {
  name: "inception_5a/3x3"
  type: "Convolution"
  bottom: "inception_5a/3x3_reduce"
  top: "inception_5a/3x3"
  param {
    lr_mult: 1
    decay_mult: 1
  }
  param {
    lr_mult: 2
    decay_mult: 0
  }
  convolution_param {
    num_output: 320
    pad: 1
    kernel_size: 3
    weight_filler {
      type: "xavier"
      std: 0.03
    }
    bias_filler {
      type: "constant"
      value: 0.2
    }
  }
}
layer {
  name: "inception_5a/relu_3x3"
  type: "ReLU"
  bottom: "inception_5a/3x3"
  top: "inception_5a/3x3"
}
layer {
  name: "inception_5a/5x5_reduce"
  type: "Convolution"
  bottom: "pool4/3x3_s2"
  top: "inception_5a/5x5_reduce"
  param {
    lr_mult: 1
    decay_mult: 1
  }
  param {
    lr_mult: 2
    decay_mult: 0
  }
  convolution_param {
    num_output: 32
    kernel_size: 1
    weight_filler {
      type: "xavier"
      std: 0.2
    }
    bias_filler {
      type: "constant"
      value: 0.2
    }
I0924 00:17:25.673883 18318 layer_factory.hpp:77] Creating layer data
I0924 00:17:25.673915 18318 net.cpp:91] Creating Layer data
I0924 00:17:25.673928 18318 net.cpp:399] data -> data
I0924 00:17:26.224983 18318 net.cpp:141] Setting up data
I0924 00:17:26.225081 18318 net.cpp:148] Top shape: 10 3 224 224 (1505280)
I0924 00:17:26.225090 18318 net.cpp:156] Memory required for data: 6021120
I0924 00:17:26.225116 18318 layer_factory.hpp:77] Creating layer conv1/7x7_s2
I0924 00:17:26.225162 18318 net.cpp:91] Creating Layer conv1/7x7_s2
I0924 00:17:26.225173 18318 net.cpp:425] conv1/7x7_s2 <- data
I0924 00:17:26.225189 18318 net.cpp:399] conv1/7x7_s2 -> conv1/7x7_s2
I0924 00:17:26.419967 18318 net.cpp:141] Setting up conv1/7x7_s2
I0924 00:17:26.420028 18318 net.cpp:148] Top shape: 10 64 112 112 (8028160)
I0924 00:17:26.420037 18318 net.cpp:156] Memory required for data: 38133760
I0924 00:17:26.420063 18318 layer_factory.hpp:77] Creating layer conv1/relu_7x7
I0924 00:17:26.420083 18318 net.cpp:91] Creating Layer conv1/relu_7x7
I0924 00:17:26.420091 18318 net.cpp:425] conv1/relu_7x7 <- conv1/7x7_s2
I0924 00:17:26.420100 18318 net.cpp:386] conv1/relu_7x7 -> conv1/7x7_s2 (in-place)
I0924 00:17:26.420516 18318 net.cpp:141] Setting up conv1/relu_7x7
I0924 00:17:26.420531 18318 net.cpp:148] Top shape: 10 64 112 112 (8028160)
I0924 00:17:26.420536 18318 net.cpp:156] Memory required for data: 70246400
I0924 00:17:26.420542 18318 layer_factory.hpp:77] Creating layer pool1/3x3_s2
I0924 00:17:26.420557 18318 net.cpp:91] Creating Layer pool1/3x3_s2
I0924 00:17:26.420562 18318 net.cpp:425] pool1/3x3_s2 <- conv1/7x7_s2
I0924 00:17:26.420572 18318 net.cpp:399] pool1/3x3_s2 -> pool1/3x3_s2
I0924 00:17:26.420646 18318 net.cpp:141] Setting up pool1/3x3_s2
I0924 00:17:26.420657 18318 net.cpp:148] Top shape: 10 64 56 56 (2007040)
I0924 00:17:26.420663 18318 net.cpp:156] Memory required for data: 78274560
I0924 00:17:26.420670 18318 layer_factory.hpp:77] Creating layer pool1/norm1
I0924 00:17:26.420686 18318 net.cpp:91] Creating Layer pool1/norm1
I0924 00:17:26.420692 18318 net.cpp:425] pool1/norm1 <- pool1/3x3_s2
I0924 00:17:26.420701 18318 net.cpp:399] pool1/norm1 -> pool1/norm1
I0924 00:17:26.420972 18318 net.cpp:141] Setting up pool1/norm1
I0924 00:17:26.420985 18318 net.cpp:148] Top shape: 10 64 56 56 (2007040)
I0924 00:17:26.420991 18318 net.cpp:156] Memory required for data: 86302720
I0924 00:17:26.420997 18318 layer_factory.hpp:77] Creating layer conv2/3x3_reduce
I0924 00:17:26.421017 18318 net.cpp:91] Creating Layer conv2/3x3_reduce
I0924 00:17:26.421025 18318 net.cpp:425] conv2/3x3_reduce <- pool1/norm1
I0924 00:17:26.421033 18318 net.cpp:399] conv2/3x3_reduce -> conv2/3x3_reduce
I0924 00:17:26.423116 18318 net.cpp:141] Setting up conv2/3x3_reduce
I0924 00:17:26.423136 18318 net.cpp:148] Top shape: 10 64 56 56 (2007040)
I0924 00:17:26.423147 18318 net.cpp:156] Memory required for data: 94330880
I0924 00:17:26.423161 18318 layer_factory.hpp:77] Creating layer conv2/relu_3x3_reduce
I0924 00:17:26.423171 18318 net.cpp:91] Creating Layer conv2/relu_3x3_reduce
I0924 00:17:26.423178 18318 net.cpp:425] conv2/relu_3x3_reduce <- conv2/3x3_reduce
I0924 00:17:26.423187 18318 net.cpp:386] conv2/relu_3x3_reduce -> conv2/3x3_reduce (in-place)
I0924 00:17:26.423579 18318 net.cpp:141] Setting up conv2/relu_3x3_reduce
I0924 00:17:26.423594 18318 net.cpp:148] Top shape: 10 64 56 56 (2007040)
I0924 00:17:26.423599 18318 net.cpp:156] Memory required for data: 102359040
I0924 00:17:26.423606 18318 layer_factory.hpp:77] Creating layer conv2/3x3
I0924 00:17:26.423620 18318 net.cpp:91] Creating Layer conv2/3x3
I0924 00:17:26.423626 18318 net.cpp:425] conv2/3x3 <- conv2/3x3_reduce
I0924 00:17:26.423636 18318 net.cpp:399] conv2/3x3 -> conv2/3x3
I0924 00:17:26.426798 18318 net.cpp:141] Setting up conv2/3x3
I0924 00:17:26.426820 18318 net.cpp:148] Top shape: 10 192 56 56 (6021120)
I0924 00:17:26.426831 18318 net.cpp:156] Memory required for data: 126443520
I0924 00:17:26.426844 18318 layer_factory.hpp:77] Creating layer conv2/relu_3x3
I0924 00:17:26.426856 18318 net.cpp:91] Creating Layer conv2/relu_3x3
I0924 00:17:26.426863 18318 net.cpp:425] conv2/relu_3x3 <- conv2/3x3
I0924 00:17:26.426872 18318 net.cpp:386] conv2/relu_3x3 -> conv2/3x3 (in-place)
I0924 00:17:26.427104 18318 net.cpp:141] Setting up conv2/relu_3x3
I0924 00:17:26.427119 18318 net.cpp:148] Top shape: 10 192 56 56 (6021120)
I0924 00:17:26.427124 18318 net.cpp:156] Memory required for data: 150528000
I0924 00:17:26.427130 18318 layer_factory.hpp:77] Creating layer conv2/norm2
I0924 00:17:26.427141 18318 net.cpp:91] Creating Layer conv2/norm2
I0924 00:17:26.427146 18318 net.cpp:425] conv2/norm2 <- conv2/3x3
I0924 00:17:26.427155 18318 net.cpp:399] conv2/norm2 -> conv2/norm2
I0924 00:17:26.427595 18318 net.cpp:141] Setting up conv2/norm2
I0924 00:17:26.427610 18318 net.cpp:148] Top shape: 10 192 56 56 (6021120)
I0924 00:17:26.427615 18318 net.cpp:156] Memory required for data: 174612480
I0924 00:17:26.427623 18318 layer_factory.hpp:77] Creating layer pool2/3x3_s2
I0924 00:17:26.427633 18318 net.cpp:91] Creating Layer pool2/3x3_s2
I0924 00:17:26.427639 18318 net.cpp:425] pool2/3x3_s2 <- conv2/norm2
I0924 00:17:26.427647 18318 net.cpp:399] pool2/3x3_s2 -> pool2/3x3_s2
I0924 00:17:26.427697 18318 net.cpp:141] Setting up pool2/3x3_s2
I0924 00:17:26.427706 18318 net.cpp:148] Top shape: 10 192 28 28 (1505280)
I0924 00:17:26.427712 18318 net.cpp:156] Memory required for data: 180633600
I0924 00:17:26.427717 18318 layer_factory.hpp:77] Creating layer pool2/3x3_s2_pool2/3x3_s2_0_split
I0924 00:17:26.427734 18318 net.cpp:91] Creating Layer pool2/3x3_s2_pool2/3x3_s2_0_split
I0924 00:17:26.427739 18318 net.cpp:425] pool2/3x3_s2_pool2/3x3_s2_0_split <- pool2/3x3_s2
I0924 00:17:26.427747 18318 net.cpp:399] pool2/3x3_s2_pool2/3x3_s2_0_split -> pool2/3x3_s2_pool2/3x3_s2_0_split_0
I0924 00:17:26.427758 18318 net.cpp:399] pool2/3x3_s2_pool2/3x3_s2_0_split -> pool2/3x3_s2_pool2/3x3_s2_0_split_1
I0924 00:17:26.427768 18318 net.cpp:399] pool2/3x3_s2_pool2/3x3_s2_0_split -> pool2/3x3_s2_pool2/3x3_s2_0_split_2
I0924 00:17:26.427778 18318 net.cpp:399] pool2/3x3_s2_pool2/3x3_s2_0_split -> pool2/3x3_s2_pool2/3x3_s2_0_split_3
I0924 00:17:26.427848 18318 net.cpp:141] Setting up pool2/3x3_s2_pool2/3x3_s2_0_split
I0924 00:17:26.427858 18318 net.cpp:148] Top shape: 10 192 28 28 (1505280)
I0924 00:17:26.427865 18318 net.cpp:148] Top shape: 10 192 28 28 (1505280)
I0924 00:17:26.427871 18318 net.cpp:148] Top shape: 10 192 28 28 (1505280)
I0924 00:17:26.427878 18318 net.cpp:148] Top shape: 10 192 28 28 (1505280)
I0924 00:17:26.427882 18318 net.cpp:156] Memory required for data: 204718080
I0924 00:17:26.427888 18318 layer_factory.hpp:77] Creating layer inception_3a/1x1
I0924 00:17:26.427903 18318 net.cpp:91] Creating Layer inception_3a/1x1
I0924 00:17:26.427909 18318 net.cpp:425] inception_3a/1x1 <- pool2/3x3_s2_pool2/3x3_s2_0_split_0
I0924 00:17:26.427930 18318 net.cpp:399] inception_3a/1x1 -> inception_3a/1x1
I0924 00:17:26.429903 18318 net.cpp:141] Setting up inception_3a/1x1
I0924 00:17:26.429921 18318 net.cpp:148] Top shape: 10 64 28 28 (501760)
I0924 00:17:26.429929 18318 net.cpp:156] Memory required for data: 206725120
I0924 00:17:26.429939 18318 layer_factory.hpp:77] Creating layer inception_3a/relu_1x1
I0924 00:17:26.429951 18318 net.cpp:91] Creating Layer inception_3a/relu_1x1
I0924 00:17:26.429958 18318 net.cpp:425] inception_3a/relu_1x1 <- inception_3a/1x1
I0924 00:17:26.429966 18318 net.cpp:386] inception_3a/relu_1x1 -> inception_3a/1x1 (in-place)
I0924 00:17:26.430395 18318 net.cpp:141] Setting up inception_3a/relu_1x1
I0924 00:17:26.430409 18318 net.cpp:148] Top shape: 10 64 28 28 (501760)
I0924 00:17:26.430415 18318 net.cpp:156] Memory required for data: 208732160
I0924 00:17:26.430421 18318 layer_factory.hpp:77] Creating layer inception_3a/3x3_reduce
I0924 00:17:26.430439 18318 net.cpp:91] Creating Layer inception_3a/3x3_reduce
I0924 00:17:26.430446 18318 net.cpp:425] inception_3a/3x3_reduce <- pool2/3x3_s2_pool2/3x3_s2_0_split_1
I0924 00:17:26.430460 18318 net.cpp:399] inception_3a/3x3_reduce -> inception_3a/3x3_reduce
I0924 00:17:26.432986 18318 net.cpp:141] Setting up inception_3a/3x3_reduce
I0924 00:17:26.433006 18318 net.cpp:148] Top shape: 10 96 28 28 (752640)
I0924 00:17:26.433017 18318 net.cpp:156] Memory required for data: 211742720
I0924 00:17:26.433030 18318 layer_factory.hpp:77] Creating layer inception_3a/relu_3x3_reduce
I0924 00:17:26.433045 18318 net.cpp:91] Creating Layer inception_3a/relu_3x3_reduce
I0924 00:17:26.433053 18318 net.cpp:425] inception_3a/relu_3x3_reduce <- inception_3a/3x3_reduce
I0924 00:17:26.433061 18318 net.cpp:386] inception_3a/relu_3x3_reduce -> inception_3a/3x3_reduce (in-place)
I0924 00:17:26.433326 18318 net.cpp:141] Setting up inception_3a/relu_3x3_reduce
I0924 00:17:26.433338 18318 net.cpp:148] Top shape: 10 96 28 28 (752640)
I0924 00:17:26.433344 18318 net.cpp:156] Memory required for data: 214753280
I0924 00:17:26.433351 18318 layer_factory.hpp:77] Creating layer inception_3a/3x3
I0924 00:17:26.433372 18318 net.cpp:91] Creating Layer inception_3a/3x3
I0924 00:17:26.433378 18318 net.cpp:425] inception_3a/3x3 <- inception_3a/3x3_reduce
I0924 00:17:26.433393 18318 net.cpp:399] inception_3a/3x3 -> inception_3a/3x3
I0924 00:17:26.435793 18318 net.cpp:141] Setting up inception_3a/3x3
I0924 00:17:26.435813 18318 net.cpp:148] Top shape: 10 128 28 28 (1003520)
I0924 00:17:26.435819 18318 net.cpp:156] Memory required for data: 218767360
I0924 00:17:26.435829 18318 layer_factory.hpp:77] Creating layer inception_3a/relu_3x3
I0924 00:17:26.435839 18318 net.cpp:91] Creating Layer inception_3a/relu_3x3
I0924 00:17:26.435847 18318 net.cpp:425] inception_3a/relu_3x3 <- inception_3a/3x3
I0924 00:17:26.435858 18318 net.cpp:386] inception_3a/relu_3x3 -> inception_3a/3x3 (in-place)
I0924 00:17:26.436283 18318 net.cpp:141] Setting up inception_3a/relu_3x3
I0924 00:17:26.436298 18318 net.cpp:148] Top shape: 10 128 28 28 (1003520)
I0924 00:17:26.436303 18318 net.cpp:156] Memory required for data: 222781440
I0924 00:17:26.436309 18318 layer_factory.hpp:77] Creating layer inception_3a/5x5_reduce
I0924 00:17:26.436326 18318 net.cpp:91] Creating Layer inception_3a/5x5_reduce
I0924 00:17:26.436333 18318 net.cpp:425] inception_3a/5x5_reduce <- pool2/3x3_s2_pool2/3x3_s2_0_split_2
I0924 00:17:26.436347 18318 net.cpp:399] inception_3a/5x5_reduce -> inception_3a/5x5_reduce
I0924 00:17:26.437691 18318 net.cpp:141] Setting up inception_3a/5x5_reduce
I0924 00:17:26.437711 18318 net.cpp:148] Top shape: 10 16 28 28 (125440)
I0924 00:17:26.437716 18318 net.cpp:156] Memory required for data: 223283200
I0924 00:17:26.437726 18318 layer_factory.hpp:77] Creating layer inception_3a/relu_5x5_reduce
I0924 00:17:26.437741 18318 net.cpp:91] Creating Layer inception_3a/relu_5x5_reduce
I0924 00:17:26.437748 18318 net.cpp:425] inception_3a/relu_5x5_reduce <- inception_3a/5x5_reduce
I0924 00:17:26.437757 18318 net.cpp:386] inception_3a/relu_5x5_reduce -> inception_3a/5x5_reduce (in-place)
I0924 00:17:26.438176 18318 net.cpp:141] Setting up inception_3a/relu_5x5_reduce
I0924 00:17:26.438191 18318 net.cpp:148] Top shape: 10 16 28 28 (125440)
I0924 00:17:26.438196 18318 net.cpp:156] Memory required for data: 223784960
I0924 00:17:26.438202 18318 layer_factory.hpp:77] Creating layer inception_3a/5x5
I0924 00:17:26.438222 18318 net.cpp:91] Creating Layer inception_3a/5x5
I0924 00:17:26.438230 18318 net.cpp:425] inception_3a/5x5 <- inception_3a/5x5_reduce
I0924 00:17:26.438241 18318 net.cpp:399] inception_3a/5x5 -> inception_3a/5x5
I0924 00:17:26.440248 18318 net.cpp:141] Setting up inception_3a/5x5
I0924 00:17:26.440268 18318 net.cpp:148] Top shape: 10 32 28 28 (250880)
I0924 00:17:26.440280 18318 net.cpp:156] Memory required for data: 224788480
I0924 00:17:26.440291 18318 layer_factory.hpp:77] Creating layer inception_3a/relu_5x5
I0924 00:17:26.440301 18318 net.cpp:91] Creating Layer inception_3a/relu_5x5
I0924 00:17:26.440309 18318 net.cpp:425] inception_3a/relu_5x5 <- inception_3a/5x5
I0924 00:17:26.440320 18318 net.cpp:386] inception_3a/relu_5x5 -> inception_3a/5x5 (in-place)
I0924 00:17:26.440588 18318 net.cpp:141] Setting up inception_3a/relu_5x5
I0924 00:17:26.440605 18318 net.cpp:148] Top shape: 10 32 28 28 (250880)
I0924 00:17:26.440610 18318 net.cpp:156] Memory required for data: 225792000
I0924 00:17:26.440618 18318 layer_factory.hpp:77] Creating layer inception_3a/pool
I0924 00:17:26.440626 18318 net.cpp:91] Creating Layer inception_3a/pool
I0924 00:17:26.440632 18318 net.cpp:425] inception_3a/pool <- pool2/3x3_s2_pool2/3x3_s2_0_split_3
I0924 00:17:26.440642 18318 net.cpp:399] inception_3a/pool -> inception_3a/pool
I0924 00:17:26.440709 18318 net.cpp:141] Setting up inception_3a/pool
I0924 00:17:26.440719 18318 net.cpp:148] Top shape: 10 192 28 28 (1505280)
I0924 00:17:26.440724 18318 net.cpp:156] Memory required for data: 231813120
I0924 00:17:26.440731 18318 layer_factory.hpp:77] Creating layer inception_3a/pool_proj
I0924 00:17:26.440747 18318 net.cpp:91] Creating Layer inception_3a/pool_proj
I0924 00:17:26.440754 18318 net.cpp:425] inception_3a/pool_proj <- inception_3a/pool
I0924 00:17:26.440767 18318 net.cpp:399] inception_3a/pool_proj -> inception_3a/pool_proj
I0924 00:17:26.442293 18318 net.cpp:141] Setting up inception_3a/pool_proj
I0924 00:17:26.442312 18318 net.cpp:148] Top shape: 10 32 28 28 (250880)
I0924 00:17:26.442318 18318 net.cpp:156] Memory required for data: 232816640
I0924 00:17:26.442332 18318 layer_factory.hpp:77] Creating layer inception_3a/relu_pool_proj
I0924 00:17:26.442348 18318 net.cpp:91] Creating Layer inception_3a/relu_pool_proj
I0924 00:17:26.442355 18318 net.cpp:425] inception_3a/relu_pool_proj <- inception_3a/pool_proj
I0924 00:17:26.442364 18318 net.cpp:386] inception_3a/relu_pool_proj -> inception_3a/pool_proj (in-place)
I0924 00:17:26.442806 18318 net.cpp:141] Setting up inception_3a/relu_pool_proj
I0924 00:17:26.442819 18318 net.cpp:148] Top shape: 10 32 28 28 (250880)
I0924 00:17:26.442826 18318 net.cpp:156] Memory required for data: 233820160
I0924 00:17:26.442831 18318 layer_factory.hpp:77] Creating layer inception_3a/output
I0924 00:17:26.442852 18318 net.cpp:91] Creating Layer inception_3a/output
I0924 00:17:26.442858 18318 net.cpp:425] inception_3a/output <- inception_3a/1x1
I0924 00:17:26.442867 18318 net.cpp:425] inception_3a/output <- inception_3a/3x3
I0924 00:17:26.442873 18318 net.cpp:425] inception_3a/output <- inception_3a/5x5
I0924 00:17:26.442878 18318 net.cpp:425] inception_3a/output <- inception_3a/pool_proj
I0924 00:17:26.442886 18318 net.cpp:399] inception_3a/output -> inception_3a/output
I0924 00:17:26.442936 18318 net.cpp:141] Setting up inception_3a/output
I0924 00:17:26.442947 18318 net.cpp:148] Top shape: 10 256 28 28 (2007040)
I0924 00:17:26.442952 18318 net.cpp:156] Memory required for data: 241848320
I0924 00:17:26.442958 18318 layer_factory.hpp:77] Creating layer inception_3a/output_inception_3a/output_0_split
I0924 00:17:26.442967 18318 net.cpp:91] Creating Layer inception_3a/output_inception_3a/output_0_split
I0924 00:17:26.442972 18318 net.cpp:425] inception_3a/output_inception_3a/output_0_split <- inception_3a/output
I0924 00:17:26.442984 18318 net.cpp:399] inception_3a/output_inception_3a/output_0_split -> inception_3a/output_inception_3a/output_0_split_0
I0924 00:17:26.442996 18318 net.cpp:399] inception_3a/output_inception_3a/output_0_split -> inception_3a/output_inception_3a/output_0_split_1
I0924 00:17:26.443006 18318 net.cpp:399] inception_3a/output_inception_3a/output_0_split -> inception_3a/output_inception_3a/output_0_split_2
I0924 00:17:26.443014 18318 net.cpp:399] inception_3a/output_inception_3a/output_0_split -> inception_3a/output_inception_3a/output_0_split_3
I0924 00:17:26.443102 18318 net.cpp:141] Setting up inception_3a/output_inception_3a/output_0_split
I0924 00:17:26.443112 18318 net.cpp:148] Top shape: 10 256 28 28 (2007040)
I0924 00:17:26.443120 18318 net.cpp:148] Top shape: 10 256 28 28 (2007040)
I0924 00:17:26.443125 18318 net.cpp:148] Top shape: 10 256 28 28 (2007040)
I0924 00:17:26.443131 18318 net.cpp:148] Top shape: 10 256 28 28 (2007040)
I0924 00:17:26.443136 18318 net.cpp:156] Memory required for data: 273960960
I0924 00:17:26.443141 18318 layer_factory.hpp:77] Creating layer inception_3b/1x1
I0924 00:17:26.443161 18318 net.cpp:91] Creating Layer inception_3b/1x1
I0924 00:17:26.443167 18318 net.cpp:425] inception_3b/1x1 <- inception_3a/output_inception_3a/output_0_split_0
I0924 00:17:26.443177 18318 net.cpp:399] inception_3b/1x1 -> inception_3b/1x1
I0924 00:17:26.444739 18318 net.cpp:141] Setting up inception_3b/1x1
I0924 00:17:26.444756 18318 net.cpp:148] Top shape: 10 128 28 28 (1003520)
I0924 00:17:26.444761 18318 net.cpp:156] Memory required for data: 277975040
I0924 00:17:26.444771 18318 layer_factory.hpp:77] Creating layer inception_3b/relu_1x1
I0924 00:17:26.444780 18318 net.cpp:91] Creating Layer inception_3b/relu_1x1
I0924 00:17:26.444787 18318 net.cpp:425] inception_3b/relu_1x1 <- inception_3b/1x1
I0924 00:17:26.444799 18318 net.cpp:386] inception_3b/relu_1x1 -> inception_3b/1x1 (in-place)
I0924 00:17:26.445220 18318 net.cpp:141] Setting up inception_3b/relu_1x1
I0924 00:17:26.445235 18318 net.cpp:148] Top shape: 10 128 28 28 (1003520)
I0924 00:17:26.445240 18318 net.cpp:156] Memory required for data: 281989120
I0924 00:17:26.445246 18318 layer_factory.hpp:77] Creating layer inception_3b/3x3_reduce
I0924 00:17:26.445264 18318 net.cpp:91] Creating Layer inception_3b/3x3_reduce
I0924 00:17:26.445271 18318 net.cpp:425] inception_3b/3x3_reduce <- inception_3a/output_inception_3a/output_0_split_1
I0924 00:17:26.445284 18318 net.cpp:399] inception_3b/3x3_reduce -> inception_3b/3x3_reduce
I0924 00:17:26.447057 18318 net.cpp:141] Setting up inception_3b/3x3_reduce
I0924 00:17:26.447077 18318 net.cpp:148] Top shape: 10 128 28 28 (1003520)
I0924 00:17:26.447088 18318 net.cpp:156] Memory required for data: 286003200
I0924 00:17:26.447098 18318 layer_factory.hpp:77] Creating layer inception_3b/relu_3x3_reduce
I0924 00:17:26.447108 18318 net.cpp:91] Creating Layer inception_3b/relu_3x3_reduce
I0924 00:17:26.447115 18318 net.cpp:425] inception_3b/relu_3x3_reduce <- inception_3b/3x3_reduce
I0924 00:17:26.447126 18318 net.cpp:386] inception_3b/relu_3x3_reduce -> inception_3b/3x3_reduce (in-place)
I0924 00:17:26.447379 18318 net.cpp:141] Setting up inception_3b/relu_3x3_reduce
I0924 00:17:26.447392 18318 net.cpp:148] Top shape: 10 128 28 28 (1003520)
I0924 00:17:26.447397 18318 net.cpp:156] Memory required for data: 290017280
I0924 00:17:26.447403 18318 layer_factory.hpp:77] Creating layer inception_3b/3x3
I0924 00:17:26.447422 18318 net.cpp:91] Creating Layer inception_3b/3x3
I0924 00:17:26.447427 18318 net.cpp:425] inception_3b/3x3 <- inception_3b/3x3_reduce
I0924 00:17:26.447441 18318 net.cpp:399] inception_3b/3x3 -> inception_3b/3x3
I0924 00:17:26.451548 18318 net.cpp:141] Setting up inception_3b/3x3
I0924 00:17:26.451568 18318 net.cpp:148] Top shape: 10 192 28 28 (1505280)
I0924 00:17:26.451581 18318 net.cpp:156] Memory required for data: 296038400
I0924 00:17:26.451591 18318 layer_factory.hpp:77] Creating layer inception_3b/relu_3x3
I0924 00:17:26.451607 18318 net.cpp:91] Creating Layer inception_3b/relu_3x3
I0924 00:17:26.451614 18318 net.cpp:425] inception_3b/relu_3x3 <- inception_3b/3x3
I0924 00:17:26.451623 18318 net.cpp:386] inception_3b/relu_3x3 -> inception_3b/3x3 (in-place)
I0924 00:17:26.452055 18318 net.cpp:141] Setting up inception_3b/relu_3x3
I0924 00:17:26.452069 18318 net.cpp:148] Top shape: 10 192 28 28 (1505280)
I0924 00:17:26.452075 18318 net.cpp:156] Memory required for data: 302059520
I0924 00:17:26.452081 18318 layer_factory.hpp:77] Creating layer inception_3b/5x5_reduce
I0924 00:17:26.452101 18318 net.cpp:91] Creating Layer inception_3b/5x5_reduce
I0924 00:17:26.452108 18318 net.cpp:425] inception_3b/5x5_reduce <- inception_3a/output_inception_3a/output_0_split_2
I0924 00:17:26.452118 18318 net.cpp:399] inception_3b/5x5_reduce -> inception_3b/5x5_reduce
I0924 00:17:26.453521 18318 net.cpp:141] Setting up inception_3b/5x5_reduce
I0924 00:17:26.453541 18318 net.cpp:148] Top shape: 10 32 28 28 (250880)
I0924 00:17:26.453552 18318 net.cpp:156] Memory required for data: 303063040
I0924 00:17:26.453562 18318 layer_factory.hpp:77] Creating layer inception_3b/relu_5x5_reduce
I0924 00:17:26.453572 18318 net.cpp:91] Creating Layer inception_3b/relu_5x5_reduce
I0924 00:17:26.453578 18318 net.cpp:425] inception_3b/relu_5x5_reduce <- inception_3b/5x5_reduce
I0924 00:17:26.453588 18318 net.cpp:386] inception_3b/relu_5x5_reduce -> inception_3b/5x5_reduce (in-place)
I0924 00:17:26.454015 18318 net.cpp:141] Setting up inception_3b/relu_5x5_reduce
I0924 00:17:26.454028 18318 net.cpp:148] Top shape: 10 32 28 28 (250880)
I0924 00:17:26.454033 18318 net.cpp:156] Memory required for data: 304066560
I0924 00:17:26.454040 18318 layer_factory.hpp:77] Creating layer inception_3b/5x5
I0924 00:17:26.454057 18318 net.cpp:91] Creating Layer inception_3b/5x5
I0924 00:17:26.454066 18318 net.cpp:425] inception_3b/5x5 <- inception_3b/5x5_reduce
I0924 00:17:26.454078 18318 net.cpp:399] inception_3b/5x5 -> inception_3b/5x5
I0924 00:17:26.456943 18318 net.cpp:141] Setting up inception_3b/5x5
I0924 00:17:26.456974 18318 net.cpp:148] Top shape: 10 96 28 28 (752640)
I0924 00:17:26.456979 18318 net.cpp:156] Memory required for data: 307077120
I0924 00:17:26.456990 18318 layer_factory.hpp:77] Creating layer inception_3b/relu_5x5
I0924 00:17:26.457000 18318 net.cpp:91] Creating Layer inception_3b/relu_5x5
I0924 00:17:26.457007 18318 net.cpp:425] inception_3b/relu_5x5 <- inception_3b/5x5
I0924 00:17:26.457018 18318 net.cpp:386] inception_3b/relu_5x5 -> inception_3b/5x5 (in-place)
I0924 00:17:26.457273 18318 net.cpp:141] Setting up inception_3b/relu_5x5
I0924 00:17:26.457285 18318 net.cpp:148] Top shape: 10 96 28 28 (752640)
I0924 00:17:26.457291 18318 net.cpp:156] Memory required for data: 310087680
I0924 00:17:26.457298 18318 layer_factory.hpp:77] Creating layer inception_3b/pool
I0924 00:17:26.457306 18318 net.cpp:91] Creating Layer inception_3b/pool
I0924 00:17:26.457314 18318 net.cpp:425] inception_3b/pool <- inception_3a/output_inception_3a/output_0_split_3
I0924 00:17:26.457326 18318 net.cpp:399] inception_3b/pool -> inception_3b/pool
I0924 00:17:26.457391 18318 net.cpp:141] Setting up inception_3b/pool
I0924 00:17:26.457402 18318 net.cpp:148] Top shape: 10 256 28 28 (2007040)
I0924 00:17:26.457407 18318 net.cpp:156] Memory required for data: 318115840
I0924 00:17:26.457413 18318 layer_factory.hpp:77] Creating layer inception_3b/pool_proj
I0924 00:17:26.457430 18318 net.cpp:91] Creating Layer inception_3b/pool_proj
I0924 00:17:26.457437 18318 net.cpp:425] inception_3b/pool_proj <- inception_3b/pool
I0924 00:17:26.457448 18318 net.cpp:399] inception_3b/pool_proj -> inception_3b/pool_proj
I0924 00:17:26.459127 18318 net.cpp:141] Setting up inception_3b/pool_proj
I0924 00:17:26.459146 18318 net.cpp:148] Top shape: 10 64 28 28 (501760)
I0924 00:17:26.459153 18318 net.cpp:156] Memory required for data: 320122880
I0924 00:17:26.459163 18318 layer_factory.hpp:77] Creating layer inception_3b/relu_pool_proj
I0924 00:17:26.459177 18318 net.cpp:91] Creating Layer inception_3b/relu_pool_proj
I0924 00:17:26.459184 18318 net.cpp:425] inception_3b/relu_pool_proj <- inception_3b/pool_proj
I0924 00:17:26.459193 18318 net.cpp:386] inception_3b/relu_pool_proj -> inception_3b/pool_proj (in-place)
I0924 00:17:26.459655 18318 net.cpp:141] Setting up inception_3b/relu_pool_proj
I0924 00:17:26.459669 18318 net.cpp:148] Top shape: 10 64 28 28 (501760)
I0924 00:17:26.459676 18318 net.cpp:156] Memory required for data: 322129920
I0924 00:17:26.459681 18318 layer_factory.hpp:77] Creating layer inception_3b/output
I0924 00:17:26.459694 18318 net.cpp:91] Creating Layer inception_3b/output
I0924 00:17:26.459702 18318 net.cpp:425] inception_3b/output <- inception_3b/1x1
I0924 00:17:26.459709 18318 net.cpp:425] inception_3b/output <- inception_3b/3x3
I0924 00:17:26.459715 18318 net.cpp:425] inception_3b/output <- inception_3b/5x5
I0924 00:17:26.459722 18318 net.cpp:425] inception_3b/output <- inception_3b/pool_proj
I0924 00:17:26.459729 18318 net.cpp:399] inception_3b/output -> inception_3b/output
I0924 00:17:26.459775 18318 net.cpp:141] Setting up inception_3b/output
I0924 00:17:26.459785 18318 net.cpp:148] Top shape: 10 480 28 28 (3763200)
I0924 00:17:26.459790 18318 net.cpp:156] Memory required for data: 337182720
I0924 00:17:26.459796 18318 layer_factory.hpp:77] Creating layer pool3/3x3_s2
I0924 00:17:26.459805 18318 net.cpp:91] Creating Layer pool3/3x3_s2
I0924 00:17:26.459811 18318 net.cpp:425] pool3/3x3_s2 <- inception_3b/output
I0924 00:17:26.459823 18318 net.cpp:399] pool3/3x3_s2 -> pool3/3x3_s2
I0924 00:17:26.459889 18318 net.cpp:141] Setting up pool3/3x3_s2
I0924 00:17:26.459900 18318 net.cpp:148] Top shape: 10 480 14 14 (940800)
I0924 00:17:26.459905 18318 net.cpp:156] Memory required for data: 340945920
I0924 00:17:26.459911 18318 layer_factory.hpp:77] Creating layer pool3/3x3_s2_pool3/3x3_s2_0_split
I0924 00:17:26.459920 18318 net.cpp:91] Creating Layer pool3/3x3_s2_pool3/3x3_s2_0_split
I0924 00:17:26.459926 18318 net.cpp:425] pool3/3x3_s2_pool3/3x3_s2_0_split <- pool3/3x3_s2
I0924 00:17:26.459936 18318 net.cpp:399] pool3/3x3_s2_pool3/3x3_s2_0_split -> pool3/3x3_s2_pool3/3x3_s2_0_split_0
I0924 00:17:26.459946 18318 net.cpp:399] pool3/3x3_s2_pool3/3x3_s2_0_split -> pool3/3x3_s2_pool3/3x3_s2_0_split_1
I0924 00:17:26.459956 18318 net.cpp:399] pool3/3x3_s2_pool3/3x3_s2_0_split -> pool3/3x3_s2_pool3/3x3_s2_0_split_2
I0924 00:17:26.459965 18318 net.cpp:399] pool3/3x3_s2_pool3/3x3_s2_0_split -> pool3/3x3_s2_pool3/3x3_s2_0_split_3
I0924 00:17:26.460053 18318 net.cpp:141] Setting up pool3/3x3_s2_pool3/3x3_s2_0_split
I0924 00:17:26.460063 18318 net.cpp:148] Top shape: 10 480 14 14 (940800)
I0924 00:17:26.460070 18318 net.cpp:148] Top shape: 10 480 14 14 (940800)
I0924 00:17:26.460077 18318 net.cpp:148] Top shape: 10 480 14 14 (940800)
I0924 00:17:26.460083 18318 net.cpp:148] Top shape: 10 480 14 14 (940800)
I0924 00:17:26.460088 18318 net.cpp:156] Memory required for data: 355998720
I0924 00:17:26.460093 18318 layer_factory.hpp:77] Creating layer inception_4a/1x1
I0924 00:17:26.460109 18318 net.cpp:91] Creating Layer inception_4a/1x1
I0924 00:17:26.460115 18318 net.cpp:425] inception_4a/1x1 <- pool3/3x3_s2_pool3/3x3_s2_0_split_0
I0924 00:17:26.460129 18318 net.cpp:399] inception_4a/1x1 -> inception_4a/1x1
I0924 00:17:26.462430 18318 net.cpp:141] Setting up inception_4a/1x1
I0924 00:17:26.462450 18318 net.cpp:148] Top shape: 10 192 14 14 (376320)
I0924 00:17:26.462455 18318 net.cpp:156] Memory required for data: 357504000
I0924 00:17:26.462466 18318 layer_factory.hpp:77] Creating layer inception_4a/relu_1x1
I0924 00:17:26.462476 18318 net.cpp:91] Creating Layer inception_4a/relu_1x1
I0924 00:17:26.462482 18318 net.cpp:425] inception_4a/relu_1x1 <- inception_4a/1x1
I0924 00:17:26.462494 18318 net.cpp:386] inception_4a/relu_1x1 -> inception_4a/1x1 (in-place)
I0924 00:17:26.462936 18318 net.cpp:141] Setting up inception_4a/relu_1x1
I0924 00:17:26.462951 18318 net.cpp:148] Top shape: 10 192 14 14 (376320)
I0924 00:17:26.462957 18318 net.cpp:156] Memory required for data: 359009280
I0924 00:17:26.462963 18318 layer_factory.hpp:77] Creating layer inception_4a/3x3_reduce
I0924 00:17:26.462982 18318 net.cpp:91] Creating Layer inception_4a/3x3_reduce
I0924 00:17:26.462990 18318 net.cpp:425] inception_4a/3x3_reduce <- pool3/3x3_s2_pool3/3x3_s2_0_split_1
I0924 00:17:26.463002 18318 net.cpp:399] inception_4a/3x3_reduce -> inception_4a/3x3_reduce
I0924 00:17:26.464915 18318 net.cpp:141] Setting up inception_4a/3x3_reduce
I0924 00:17:26.464931 18318 net.cpp:148] Top shape: 10 96 14 14 (188160)
I0924 00:17:26.464937 18318 net.cpp:156] Memory required for data: 359761920
I0924 00:17:26.464958 18318 layer_factory.hpp:77] Creating layer inception_4a/relu_3x3_reduce
I0924 00:17:26.464968 18318 net.cpp:91] Creating Layer inception_4a/relu_3x3_reduce
I0924 00:17:26.464975 18318 net.cpp:425] inception_4a/relu_3x3_reduce <- inception_4a/3x3_reduce
I0924 00:17:26.464983 18318 net.cpp:386] inception_4a/relu_3x3_reduce -> inception_4a/3x3_reduce (in-place)
I0924 00:17:26.465242 18318 net.cpp:141] Setting up inception_4a/relu_3x3_reduce
I0924 00:17:26.465255 18318 net.cpp:148] Top shape: 10 96 14 14 (188160)
I0924 00:17:26.465260 18318 net.cpp:156] Memory required for data: 360514560
I0924 00:17:26.465266 18318 layer_factory.hpp:77] Creating layer inception_4a/3x3
I0924 00:17:26.465283 18318 net.cpp:91] Creating Layer inception_4a/3x3
I0924 00:17:26.465291 18318 net.cpp:425] inception_4a/3x3 <- inception_4a/3x3_reduce
I0924 00:17:26.465303 18318 net.cpp:399] inception_4a/3x3 -> inception_4a/3x3
I0924 00:17:26.468940 18318 net.cpp:141] Setting up inception_4a/3x3
I0924 00:17:26.468957 18318 net.cpp:148] Top shape: 10 208 14 14 (407680)
I0924 00:17:26.468963 18318 net.cpp:156] Memory required for data: 362145280
I0924 00:17:26.468973 18318 layer_factory.hpp:77] Creating layer inception_4a/relu_3x3
I0924 00:17:26.468986 18318 net.cpp:91] Creating Layer inception_4a/relu_3x3
I0924 00:17:26.468992 18318 net.cpp:425] inception_4a/relu_3x3 <- inception_4a/3x3
I0924 00:17:26.469000 18318 net.cpp:386] inception_4a/relu_3x3 -> inception_4a/3x3 (in-place)
I0924 00:17:26.469434 18318 net.cpp:141] Setting up inception_4a/relu_3x3
I0924 00:17:26.469449 18318 net.cpp:148] Top shape: 10 208 14 14 (407680)
I0924 00:17:26.469455 18318 net.cpp:156] Memory required for data: 363776000
I0924 00:17:26.469460 18318 layer_factory.hpp:77] Creating layer inception_4a/5x5_reduce
I0924 00:17:26.469477 18318 net.cpp:91] Creating Layer inception_4a/5x5_reduce
I0924 00:17:26.469485 18318 net.cpp:425] inception_4a/5x5_reduce <- pool3/3x3_s2_pool3/3x3_s2_0_split_2
I0924 00:17:26.469497 18318 net.cpp:399] inception_4a/5x5_reduce -> inception_4a/5x5_reduce
I0924 00:17:26.470916 18318 net.cpp:141] Setting up inception_4a/5x5_reduce
I0924 00:17:26.470932 18318 net.cpp:148] Top shape: 10 16 14 14 (31360)
I0924 00:17:26.470937 18318 net.cpp:156] Memory required for data: 363901440
I0924 00:17:26.470948 18318 layer_factory.hpp:77] Creating layer inception_4a/relu_5x5_reduce
I0924 00:17:26.470958 18318 net.cpp:91] Creating Layer inception_4a/relu_5x5_reduce
I0924 00:17:26.470964 18318 net.cpp:425] inception_4a/relu_5x5_reduce <- inception_4a/5x5_reduce
I0924 00:17:26.470975 18318 net.cpp:386] inception_4a/relu_5x5_reduce -> inception_4a/5x5_reduce (in-place)
I0924 00:17:26.471400 18318 net.cpp:141] Setting up inception_4a/relu_5x5_reduce
I0924 00:17:26.471415 18318 net.cpp:148] Top shape: 10 16 14 14 (31360)
I0924 00:17:26.471421 18318 net.cpp:156] Memory required for data: 364026880
I0924 00:17:26.471426 18318 layer_factory.hpp:77] Creating layer inception_4a/5x5
I0924 00:17:26.471442 18318 net.cpp:91] Creating Layer inception_4a/5x5
I0924 00:17:26.471449 18318 net.cpp:425] inception_4a/5x5 <- inception_4a/5x5_reduce
I0924 00:17:26.471463 18318 net.cpp:399] inception_4a/5x5 -> inception_4a/5x5
I0924 00:17:26.473124 18318 net.cpp:141] Setting up inception_4a/5x5
I0924 00:17:26.473141 18318 net.cpp:148] Top shape: 10 48 14 14 (94080)
I0924 00:17:26.473148 18318 net.cpp:156] Memory required for data: 364403200
I0924 00:17:26.473158 18318 layer_factory.hpp:77] Creating layer inception_4a/relu_5x5
I0924 00:17:26.473167 18318 net.cpp:91] Creating Layer inception_4a/relu_5x5
I0924 00:17:26.473175 18318 net.cpp:425] inception_4a/relu_5x5 <- inception_4a/5x5
I0924 00:17:26.473186 18318 net.cpp:386] inception_4a/relu_5x5 -> inception_4a/5x5 (in-place)
I0924 00:17:26.473436 18318 net.cpp:141] Setting up inception_4a/relu_5x5
I0924 00:17:26.473451 18318 net.cpp:148] Top shape: 10 48 14 14 (94080)
I0924 00:17:26.473456 18318 net.cpp:156] Memory required for data: 364779520
I0924 00:17:26.473464 18318 layer_factory.hpp:77] Creating layer inception_4a/pool
I0924 00:17:26.473472 18318 net.cpp:91] Creating Layer inception_4a/pool
I0924 00:17:26.473479 18318 net.cpp:425] inception_4a/pool <- pool3/3x3_s2_pool3/3x3_s2_0_split_3
I0924 00:17:26.473489 18318 net.cpp:399] inception_4a/pool -> inception_4a/pool
I0924 00:17:26.473556 18318 net.cpp:141] Setting up inception_4a/pool
I0924 00:17:26.473567 18318 net.cpp:148] Top shape: 10 480 14 14 (940800)
I0924 00:17:26.473572 18318 net.cpp:156] Memory required for data: 368542720
I0924 00:17:26.473578 18318 layer_factory.hpp:77] Creating layer inception_4a/pool_proj
I0924 00:17:26.473594 18318 net.cpp:91] Creating Layer inception_4a/pool_proj
I0924 00:17:26.473601 18318 net.cpp:425] inception_4a/pool_proj <- inception_4a/pool
I0924 00:17:26.473613 18318 net.cpp:399] inception_4a/pool_proj -> inception_4a/pool_proj
I0924 00:17:26.475396 18318 net.cpp:141] Setting up inception_4a/pool_proj
I0924 00:17:26.475415 18318 net.cpp:148] Top shape: 10 64 14 14 (125440)
I0924 00:17:26.475421 18318 net.cpp:156] Memory required for data: 369044480
I0924 00:17:26.475431 18318 layer_factory.hpp:77] Creating layer inception_4a/relu_pool_proj
I0924 00:17:26.475445 18318 net.cpp:91] Creating Layer inception_4a/relu_pool_proj
I0924 00:17:26.475453 18318 net.cpp:425] inception_4a/relu_pool_proj <- inception_4a/pool_proj
I0924 00:17:26.475463 18318 net.cpp:386] inception_4a/relu_pool_proj -> inception_4a/pool_proj (in-place)
I0924 00:17:26.475894 18318 net.cpp:141] Setting up inception_4a/relu_pool_proj
I0924 00:17:26.475908 18318 net.cpp:148] Top shape: 10 64 14 14 (125440)
I0924 00:17:26.475914 18318 net.cpp:156] Memory required for data: 369546240
I0924 00:17:26.475920 18318 layer_factory.hpp:77] Creating layer inception_4a/output
I0924 00:17:26.475932 18318 net.cpp:91] Creating Layer inception_4a/output
I0924 00:17:26.475939 18318 net.cpp:425] inception_4a/output <- inception_4a/1x1
I0924 00:17:26.475947 18318 net.cpp:425] inception_4a/output <- inception_4a/3x3
I0924 00:17:26.475953 18318 net.cpp:425] inception_4a/output <- inception_4a/5x5
I0924 00:17:26.475960 18318 net.cpp:425] inception_4a/output <- inception_4a/pool_proj
I0924 00:17:26.475968 18318 net.cpp:399] inception_4a/output -> inception_4a/output
I0924 00:17:26.476014 18318 net.cpp:141] Setting up inception_4a/output
I0924 00:17:26.476025 18318 net.cpp:148] Top shape: 10 512 14 14 (1003520)
I0924 00:17:26.476030 18318 net.cpp:156] Memory required for data: 373560320
I0924 00:17:26.476037 18318 layer_factory.hpp:77] Creating layer inception_4a/output_inception_4a/output_0_split
I0924 00:17:26.476045 18318 net.cpp:91] Creating Layer inception_4a/output_inception_4a/output_0_split
I0924 00:17:26.476052 18318 net.cpp:425] inception_4a/output_inception_4a/output_0_split <- inception_4a/output
I0924 00:17:26.476064 18318 net.cpp:399] inception_4a/output_inception_4a/output_0_split -> inception_4a/output_inception_4a/output_0_split_0
I0924 00:17:26.476075 18318 net.cpp:399] inception_4a/output_inception_4a/output_0_split -> inception_4a/output_inception_4a/output_0_split_1
I0924 00:17:26.476085 18318 net.cpp:399] inception_4a/output_inception_4a/output_0_split -> inception_4a/output_inception_4a/output_0_split_2
I0924 00:17:26.476094 18318 net.cpp:399] inception_4a/output_inception_4a/output_0_split -> inception_4a/output_inception_4a/output_0_split_3
I0924 00:17:26.476188 18318 net.cpp:141] Setting up inception_4a/output_inception_4a/output_0_split
I0924 00:17:26.476198 18318 net.cpp:148] Top shape: 10 512 14 14 (1003520)
I0924 00:17:26.476205 18318 net.cpp:148] Top shape: 10 512 14 14 (1003520)
I0924 00:17:26.476212 18318 net.cpp:148] Top shape: 10 512 14 14 (1003520)
I0924 00:17:26.476218 18318 net.cpp:148] Top shape: 10 512 14 14 (1003520)
I0924 00:17:26.476223 18318 net.cpp:156] Memory required for data: 389616640
I0924 00:17:26.476228 18318 layer_factory.hpp:77] Creating layer inception_4b/1x1
I0924 00:17:26.476246 18318 net.cpp:91] Creating Layer inception_4b/1x1
I0924 00:17:26.476253 18318 net.cpp:425] inception_4b/1x1 <- inception_4a/output_inception_4a/output_0_split_0
I0924 00:17:26.476263 18318 net.cpp:399] inception_4b/1x1 -> inception_4b/1x1
I0924 00:17:26.478271 18318 net.cpp:141] Setting up inception_4b/1x1
I0924 00:17:26.478292 18318 net.cpp:148] Top shape: 10 160 14 14 (313600)
I0924 00:17:26.478298 18318 net.cpp:156] Memory required for data: 390871040
I0924 00:17:26.478308 18318 layer_factory.hpp:77] Creating layer inception_4b/relu_1x1
I0924 00:17:26.478322 18318 net.cpp:91] Creating Layer inception_4b/relu_1x1
I0924 00:17:26.478329 18318 net.cpp:425] inception_4b/relu_1x1 <- inception_4b/1x1
I0924 00:17:26.478338 18318 net.cpp:386] inception_4b/relu_1x1 -> inception_4b/1x1 (in-place)
I0924 00:17:26.478773 18318 net.cpp:141] Setting up inception_4b/relu_1x1
I0924 00:17:26.478788 18318 net.cpp:148] Top shape: 10 160 14 14 (313600)
I0924 00:17:26.478795 18318 net.cpp:156] Memory required for data: 392125440
I0924 00:17:26.478801 18318 layer_factory.hpp:77] Creating layer inception_4b/3x3_reduce
I0924 00:17:26.478817 18318 net.cpp:91] Creating Layer inception_4b/3x3_reduce
I0924 00:17:26.478826 18318 net.cpp:425] inception_4b/3x3_reduce <- inception_4a/output_inception_4a/output_0_split_1
I0924 00:17:26.478837 18318 net.cpp:399] inception_4b/3x3_reduce -> inception_4b/3x3_reduce
I0924 00:17:26.480850 18318 net.cpp:141] Setting up inception_4b/3x3_reduce
I0924 00:17:26.480870 18318 net.cpp:148] Top shape: 10 112 14 14 (219520)
I0924 00:17:26.480875 18318 net.cpp:156] Memory required for data: 393003520
I0924 00:17:26.480885 18318 layer_factory.hpp:77] Creating layer inception_4b/relu_3x3_reduce
I0924 00:17:26.480895 18318 net.cpp:91] Creating Layer inception_4b/relu_3x3_reduce
I0924 00:17:26.480902 18318 net.cpp:425] inception_4b/relu_3x3_reduce <- inception_4b/3x3_reduce
I0924 00:17:26.480914 18318 net.cpp:386] inception_4b/relu_3x3_reduce -> inception_4b/3x3_reduce (in-place)
I0924 00:17:26.481169 18318 net.cpp:141] Setting up inception_4b/relu_3x3_reduce
I0924 00:17:26.481183 18318 net.cpp:148] Top shape: 10 112 14 14 (219520)
I0924 00:17:26.481189 18318 net.cpp:156] Memory required for data: 393881600
I0924 00:17:26.481194 18318 layer_factory.hpp:77] Creating layer inception_4b/3x3
I0924 00:17:26.481209 18318 net.cpp:91] Creating Layer inception_4b/3x3
I0924 00:17:26.481216 18318 net.cpp:425] inception_4b/3x3 <- inception_4b/3x3_reduce
I0924 00:17:26.481230 18318 net.cpp:399] inception_4b/3x3 -> inception_4b/3x3
I0924 00:17:26.485366 18318 net.cpp:141] Setting up inception_4b/3x3
I0924 00:17:26.485388 18318 net.cpp:148] Top shape: 10 224 14 14 (439040)
I0924 00:17:26.485399 18318 net.cpp:156] Memory required for data: 395637760
I0924 00:17:26.485409 18318 layer_factory.hpp:77] Creating layer inception_4b/relu_3x3
I0924 00:17:26.485420 18318 net.cpp:91] Creating Layer inception_4b/relu_3x3
I0924 00:17:26.485427 18318 net.cpp:425] inception_4b/relu_3x3 <- inception_4b/3x3
I0924 00:17:26.485438 18318 net.cpp:386] inception_4b/relu_3x3 -> inception_4b/3x3 (in-place)
I0924 00:17:26.485888 18318 net.cpp:141] Setting up inception_4b/relu_3x3
I0924 00:17:26.485903 18318 net.cpp:148] Top shape: 10 224 14 14 (439040)
I0924 00:17:26.485908 18318 net.cpp:156] Memory required for data: 397393920
I0924 00:17:26.485913 18318 layer_factory.hpp:77] Creating layer inception_4b/5x5_reduce
I0924 00:17:26.485939 18318 net.cpp:91] Creating Layer inception_4b/5x5_reduce
I0924 00:17:26.485946 18318 net.cpp:425] inception_4b/5x5_reduce <- inception_4a/output_inception_4a/output_0_split_2
I0924 00:17:26.485957 18318 net.cpp:399] inception_4b/5x5_reduce -> inception_4b/5x5_reduce
I0924 00:17:26.487454 18318 net.cpp:141] Setting up inception_4b/5x5_reduce
I0924 00:17:26.487475 18318 net.cpp:148] Top shape: 10 24 14 14 (47040)
I0924 00:17:26.487485 18318 net.cpp:156] Memory required for data: 397582080
I0924 00:17:26.487495 18318 layer_factory.hpp:77] Creating layer inception_4b/relu_5x5_reduce
I0924 00:17:26.487505 18318 net.cpp:91] Creating Layer inception_4b/relu_5x5_reduce
I0924 00:17:26.487512 18318 net.cpp:425] inception_4b/relu_5x5_reduce <- inception_4b/5x5_reduce
I0924 00:17:26.487522 18318 net.cpp:386] inception_4b/relu_5x5_reduce -> inception_4b/5x5_reduce (in-place)
I0924 00:17:26.487958 18318 net.cpp:141] Setting up inception_4b/relu_5x5_reduce
I0924 00:17:26.487972 18318 net.cpp:148] Top shape: 10 24 14 14 (47040)
I0924 00:17:26.487978 18318 net.cpp:156] Memory required for data: 397770240
I0924 00:17:26.487984 18318 layer_factory.hpp:77] Creating layer inception_4b/5x5
I0924 00:17:26.488000 18318 net.cpp:91] Creating Layer inception_4b/5x5
I0924 00:17:26.488008 18318 net.cpp:425] inception_4b/5x5 <- inception_4b/5x5_reduce
I0924 00:17:26.488018 18318 net.cpp:399] inception_4b/5x5 -> inception_4b/5x5
I0924 00:17:26.490386 18318 net.cpp:141] Setting up inception_4b/5x5
I0924 00:17:26.490408 18318 net.cpp:148] Top shape: 10 64 14 14 (125440)
I0924 00:17:26.490419 18318 net.cpp:156] Memory required for data: 398272000
I0924 00:17:26.490429 18318 layer_factory.hpp:77] Creating layer inception_4b/relu_5x5
I0924 00:17:26.490439 18318 net.cpp:91] Creating Layer inception_4b/relu_5x5
I0924 00:17:26.490447 18318 net.cpp:425] inception_4b/relu_5x5 <- inception_4b/5x5
I0924 00:17:26.490455 18318 net.cpp:386] inception_4b/relu_5x5 -> inception_4b/5x5 (in-place)
I0924 00:17:26.490746 18318 net.cpp:141] Setting up inception_4b/relu_5x5
I0924 00:17:26.490766 18318 net.cpp:148] Top shape: 10 64 14 14 (125440)
I0924 00:17:26.490772 18318 net.cpp:156] Memory required for data: 398773760
I0924 00:17:26.490777 18318 layer_factory.hpp:77] Creating layer inception_4b/pool
I0924 00:17:26.490787 18318 net.cpp:91] Creating Layer inception_4b/pool
I0924 00:17:26.490794 18318 net.cpp:425] inception_4b/pool <- inception_4a/output_inception_4a/output_0_split_3
I0924 00:17:26.490805 18318 net.cpp:399] inception_4b/pool -> inception_4b/pool
I0924 00:17:26.490880 18318 net.cpp:141] Setting up inception_4b/pool
I0924 00:17:26.490891 18318 net.cpp:148] Top shape: 10 512 14 14 (1003520)
I0924 00:17:26.490896 18318 net.cpp:156] Memory required for data: 402787840
I0924 00:17:26.490903 18318 layer_factory.hpp:77] Creating layer inception_4b/pool_proj
I0924 00:17:26.490919 18318 net.cpp:91] Creating Layer inception_4b/pool_proj
I0924 00:17:26.490926 18318 net.cpp:425] inception_4b/pool_proj <- inception_4b/pool
I0924 00:17:26.490941 18318 net.cpp:399] inception_4b/pool_proj -> inception_4b/pool_proj
I0924 00:17:26.492841 18318 net.cpp:141] Setting up inception_4b/pool_proj
I0924 00:17:26.492866 18318 net.cpp:148] Top shape: 10 64 14 14 (125440)
I0924 00:17:26.492873 18318 net.cpp:156] Memory required for data: 403289600
I0924 00:17:26.492883 18318 layer_factory.hpp:77] Creating layer inception_4b/relu_pool_proj
I0924 00:17:26.492893 18318 net.cpp:91] Creating Layer inception_4b/relu_pool_proj
I0924 00:17:26.492900 18318 net.cpp:425] inception_4b/relu_pool_proj <- inception_4b/pool_proj
I0924 00:17:26.492909 18318 net.cpp:386] inception_4b/relu_pool_proj -> inception_4b/pool_proj (in-place)
I0924 00:17:26.493394 18318 net.cpp:141] Setting up inception_4b/relu_pool_proj
I0924 00:17:26.493412 18318 net.cpp:148] Top shape: 10 64 14 14 (125440)
I0924 00:17:26.493418 18318 net.cpp:156] Memory required for data: 403791360
I0924 00:17:26.493424 18318 layer_factory.hpp:77] Creating layer inception_4b/output
I0924 00:17:26.493434 18318 net.cpp:91] Creating Layer inception_4b/output
I0924 00:17:26.493440 18318 net.cpp:425] inception_4b/output <- inception_4b/1x1
I0924 00:17:26.493448 18318 net.cpp:425] inception_4b/output <- inception_4b/3x3
I0924 00:17:26.493454 18318 net.cpp:425] inception_4b/output <- inception_4b/5x5
I0924 00:17:26.493460 18318 net.cpp:425] inception_4b/output <- inception_4b/pool_proj
I0924 00:17:26.493468 18318 net.cpp:399] inception_4b/output -> inception_4b/output
I0924 00:17:26.493522 18318 net.cpp:141] Setting up inception_4b/output
I0924 00:17:26.493533 18318 net.cpp:148] Top shape: 10 512 14 14 (1003520)
I0924 00:17:26.493538 18318 net.cpp:156] Memory required for data: 407805440
I0924 00:17:26.493544 18318 layer_factory.hpp:77] Creating layer inception_4b/output_inception_4b/output_0_split
I0924 00:17:26.493554 18318 net.cpp:91] Creating Layer inception_4b/output_inception_4b/output_0_split
I0924 00:17:26.493561 18318 net.cpp:425] inception_4b/output_inception_4b/output_0_split <- inception_4b/output
I0924 00:17:26.493571 18318 net.cpp:399] inception_4b/output_inception_4b/output_0_split -> inception_4b/output_inception_4b/output_0_split_0
I0924 00:17:26.493582 18318 net.cpp:399] inception_4b/output_inception_4b/output_0_split -> inception_4b/output_inception_4b/output_0_split_1
I0924 00:17:26.493592 18318 net.cpp:399] inception_4b/output_inception_4b/output_0_split -> inception_4b/output_inception_4b/output_0_split_2
I0924 00:17:26.493602 18318 net.cpp:399] inception_4b/output_inception_4b/output_0_split -> inception_4b/output_inception_4b/output_0_split_3
I0924 00:17:26.493706 18318 net.cpp:141] Setting up inception_4b/output_inception_4b/output_0_split
I0924 00:17:26.493718 18318 net.cpp:148] Top shape: 10 512 14 14 (1003520)
I0924 00:17:26.493726 18318 net.cpp:148] Top shape: 10 512 14 14 (1003520)
I0924 00:17:26.493731 18318 net.cpp:148] Top shape: 10 512 14 14 (1003520)
I0924 00:17:26.493737 18318 net.cpp:148] Top shape: 10 512 14 14 (1003520)
I0924 00:17:26.493742 18318 net.cpp:156] Memory required for data: 423861760
I0924 00:17:26.493747 18318 layer_factory.hpp:77] Creating layer inception_4c/1x1
I0924 00:17:26.493765 18318 net.cpp:91] Creating Layer inception_4c/1x1
I0924 00:17:26.493772 18318 net.cpp:425] inception_4c/1x1 <- inception_4b/output_inception_4b/output_0_split_0
I0924 00:17:26.493788 18318 net.cpp:399] inception_4c/1x1 -> inception_4c/1x1
I0924 00:17:26.495728 18318 net.cpp:141] Setting up inception_4c/1x1
I0924 00:17:26.495748 18318 net.cpp:148] Top shape: 10 128 14 14 (250880)
I0924 00:17:26.495755 18318 net.cpp:156] Memory required for data: 424865280
I0924 00:17:26.495766 18318 layer_factory.hpp:77] Creating layer inception_4c/relu_1x1
I0924 00:17:26.495782 18318 net.cpp:91] Creating Layer inception_4c/relu_1x1
I0924 00:17:26.495790 18318 net.cpp:425] inception_4c/relu_1x1 <- inception_4c/1x1
I0924 00:17:26.495798 18318 net.cpp:386] inception_4c/relu_1x1 -> inception_4c/1x1 (in-place)
I0924 00:17:26.496240 18318 net.cpp:141] Setting up inception_4c/relu_1x1
I0924 00:17:26.496254 18318 net.cpp:148] Top shape: 10 128 14 14 (250880)
I0924 00:17:26.496260 18318 net.cpp:156] Memory required for data: 425868800
I0924 00:17:26.496266 18318 layer_factory.hpp:77] Creating layer inception_4c/3x3_reduce
I0924 00:17:26.496286 18318 net.cpp:91] Creating Layer inception_4c/3x3_reduce
I0924 00:17:26.496294 18318 net.cpp:425] inception_4c/3x3_reduce <- inception_4b/output_inception_4b/output_0_split_1
I0924 00:17:26.496304 18318 net.cpp:399] inception_4c/3x3_reduce -> inception_4c/3x3_reduce
I0924 00:17:26.498455 18318 net.cpp:141] Setting up inception_4c/3x3_reduce
I0924 00:17:26.498473 18318 net.cpp:148] Top shape: 10 128 14 14 (250880)
I0924 00:17:26.498486 18318 net.cpp:156] Memory required for data: 426872320
I0924 00:17:26.498495 18318 layer_factory.hpp:77] Creating layer inception_4c/relu_3x3_reduce
I0924 00:17:26.498504 18318 net.cpp:91] Creating Layer inception_4c/relu_3x3_reduce
I0924 00:17:26.498512 18318 net.cpp:425] inception_4c/relu_3x3_reduce <- inception_4c/3x3_reduce
I0924 00:17:26.498525 18318 net.cpp:386] inception_4c/relu_3x3_reduce -> inception_4c/3x3_reduce (in-place)
I0924 00:17:26.498803 18318 net.cpp:141] Setting up inception_4c/relu_3x3_reduce
I0924 00:17:26.498819 18318 net.cpp:148] Top shape: 10 128 14 14 (250880)
I0924 00:17:26.498826 18318 net.cpp:156] Memory required for data: 427875840
I0924 00:17:26.498831 18318 layer_factory.hpp:77] Creating layer inception_4c/3x3
I0924 00:17:26.498848 18318 net.cpp:91] Creating Layer inception_4c/3x3
I0924 00:17:26.498857 18318 net.cpp:425] inception_4c/3x3 <- inception_4c/3x3_reduce
I0924 00:17:26.498867 18318 net.cpp:399] inception_4c/3x3 -> inception_4c/3x3
I0924 00:17:26.503664 18318 net.cpp:141] Setting up inception_4c/3x3
I0924 00:17:26.503684 18318 net.cpp:148] Top shape: 10 256 14 14 (501760)
I0924 00:17:26.503693 18318 net.cpp:156] Memory required for data: 429882880
I0924 00:17:26.503703 18318 layer_factory.hpp:77] Creating layer inception_4c/relu_3x3
I0924 00:17:26.503716 18318 net.cpp:91] Creating Layer inception_4c/relu_3x3
I0924 00:17:26.503726 18318 net.cpp:425] inception_4c/relu_3x3 <- inception_4c/3x3
I0924 00:17:26.503733 18318 net.cpp:386] inception_4c/relu_3x3 -> inception_4c/3x3 (in-place)
I0924 00:17:26.504187 18318 net.cpp:141] Setting up inception_4c/relu_3x3
I0924 00:17:26.504201 18318 net.cpp:148] Top shape: 10 256 14 14 (501760)
I0924 00:17:26.504207 18318 net.cpp:156] Memory required for data: 431889920
I0924 00:17:26.504215 18318 layer_factory.hpp:77] Creating layer inception_4c/5x5_reduce
I0924 00:17:26.504232 18318 net.cpp:91] Creating Layer inception_4c/5x5_reduce
I0924 00:17:26.504240 18318 net.cpp:425] inception_4c/5x5_reduce <- inception_4b/output_inception_4b/output_0_split_2
I0924 00:17:26.504252 18318 net.cpp:399] inception_4c/5x5_reduce -> inception_4c/5x5_reduce
I0924 00:17:26.505798 18318 net.cpp:141] Setting up inception_4c/5x5_reduce
I0924 00:17:26.505818 18318 net.cpp:148] Top shape: 10 24 14 14 (47040)
I0924 00:17:26.505831 18318 net.cpp:156] Memory required for data: 432078080
I0924 00:17:26.505841 18318 layer_factory.hpp:77] Creating layer inception_4c/relu_5x5_reduce
I0924 00:17:26.505851 18318 net.cpp:91] Creating Layer inception_4c/relu_5x5_reduce
I0924 00:17:26.505857 18318 net.cpp:425] inception_4c/relu_5x5_reduce <- inception_4c/5x5_reduce
I0924 00:17:26.505872 18318 net.cpp:386] inception_4c/relu_5x5_reduce -> inception_4c/5x5_reduce (in-place)
I0924 00:17:26.506325 18318 net.cpp:141] Setting up inception_4c/relu_5x5_reduce
I0924 00:17:26.506340 18318 net.cpp:148] Top shape: 10 24 14 14 (47040)
I0924 00:17:26.506345 18318 net.cpp:156] Memory required for data: 432266240
I0924 00:17:26.506350 18318 layer_factory.hpp:77] Creating layer inception_4c/5x5
I0924 00:17:26.506368 18318 net.cpp:91] Creating Layer inception_4c/5x5
I0924 00:17:26.506376 18318 net.cpp:425] inception_4c/5x5 <- inception_4c/5x5_reduce
I0924 00:17:26.506388 18318 net.cpp:399] inception_4c/5x5 -> inception_4c/5x5
I0924 00:17:26.508513 18318 net.cpp:141] Setting up inception_4c/5x5
I0924 00:17:26.508533 18318 net.cpp:148] Top shape: 10 64 14 14 (125440)
I0924 00:17:26.508539 18318 net.cpp:156] Memory required for data: 432768000
I0924 00:17:26.508549 18318 layer_factory.hpp:77] Creating layer inception_4c/relu_5x5
I0924 00:17:26.508563 18318 net.cpp:91] Creating Layer inception_4c/relu_5x5
I0924 00:17:26.508570 18318 net.cpp:425] inception_4c/relu_5x5 <- inception_4c/5x5
I0924 00:17:26.508579 18318 net.cpp:386] inception_4c/relu_5x5 -> inception_4c/5x5 (in-place)
I0924 00:17:26.508846 18318 net.cpp:141] Setting up inception_4c/relu_5x5
I0924 00:17:26.508859 18318 net.cpp:148] Top shape: 10 64 14 14 (125440)
I0924 00:17:26.508865 18318 net.cpp:156] Memory required for data: 433269760
I0924 00:17:26.508872 18318 layer_factory.hpp:77] Creating layer inception_4c/pool
I0924 00:17:26.508880 18318 net.cpp:91] Creating Layer inception_4c/pool
I0924 00:17:26.508888 18318 net.cpp:425] inception_4c/pool <- inception_4b/output_inception_4b/output_0_split_3
I0924 00:17:26.508900 18318 net.cpp:399] inception_4c/pool -> inception_4c/pool
I0924 00:17:26.508975 18318 net.cpp:141] Setting up inception_4c/pool
I0924 00:17:26.508985 18318 net.cpp:148] Top shape: 10 512 14 14 (1003520)
I0924 00:17:26.508991 18318 net.cpp:156] Memory required for data: 437283840
I0924 00:17:26.508996 18318 layer_factory.hpp:77] Creating layer inception_4c/pool_proj
I0924 00:17:26.509014 18318 net.cpp:91] Creating Layer inception_4c/pool_proj
I0924 00:17:26.509021 18318 net.cpp:425] inception_4c/pool_proj <- inception_4c/pool
I0924 00:17:26.509032 18318 net.cpp:399] inception_4c/pool_proj -> inception_4c/pool_proj
I0924 00:17:26.511615 18318 net.cpp:141] Setting up inception_4c/pool_proj
I0924 00:17:26.511636 18318 net.cpp:148] Top shape: 10 64 14 14 (125440)
I0924 00:17:26.511641 18318 net.cpp:156] Memory required for data: 437785600
I0924 00:17:26.511667 18318 layer_factory.hpp:77] Creating layer inception_4c/relu_pool_proj
I0924 00:17:26.511682 18318 net.cpp:91] Creating Layer inception_4c/relu_pool_proj
I0924 00:17:26.511689 18318 net.cpp:425] inception_4c/relu_pool_proj <- inception_4c/pool_proj
I0924 00:17:26.511698 18318 net.cpp:386] inception_4c/relu_pool_proj -> inception_4c/pool_proj (in-place)
I0924 00:17:26.512147 18318 net.cpp:141] Setting up inception_4c/relu_pool_proj
I0924 00:17:26.512161 18318 net.cpp:148] Top shape: 10 64 14 14 (125440)
I0924 00:17:26.512167 18318 net.cpp:156] Memory required for data: 438287360
I0924 00:17:26.512173 18318 layer_factory.hpp:77] Creating layer inception_4c/output
I0924 00:17:26.512187 18318 net.cpp:91] Creating Layer inception_4c/output
I0924 00:17:26.512194 18318 net.cpp:425] inception_4c/output <- inception_4c/1x1
I0924 00:17:26.512202 18318 net.cpp:425] inception_4c/output <- inception_4c/3x3
I0924 00:17:26.512208 18318 net.cpp:425] inception_4c/output <- inception_4c/5x5
I0924 00:17:26.512214 18318 net.cpp:425] inception_4c/output <- inception_4c/pool_proj
I0924 00:17:26.512223 18318 net.cpp:399] inception_4c/output -> inception_4c/output
I0924 00:17:26.512274 18318 net.cpp:141] Setting up inception_4c/output
I0924 00:17:26.512284 18318 net.cpp:148] Top shape: 10 512 14 14 (1003520)
I0924 00:17:26.512290 18318 net.cpp:156] Memory required for data: 442301440
I0924 00:17:26.512295 18318 layer_factory.hpp:77] Creating layer inception_4c/output_inception_4c/output_0_split
I0924 00:17:26.512303 18318 net.cpp:91] Creating Layer inception_4c/output_inception_4c/output_0_split
I0924 00:17:26.512310 18318 net.cpp:425] inception_4c/output_inception_4c/output_0_split <- inception_4c/output
I0924 00:17:26.512322 18318 net.cpp:399] inception_4c/output_inception_4c/output_0_split -> inception_4c/output_inception_4c/output_0_split_0
I0924 00:17:26.512333 18318 net.cpp:399] inception_4c/output_inception_4c/output_0_split -> inception_4c/output_inception_4c/output_0_split_1
I0924 00:17:26.512343 18318 net.cpp:399] inception_4c/output_inception_4c/output_0_split -> inception_4c/output_inception_4c/output_0_split_2
I0924 00:17:26.512353 18318 net.cpp:399] inception_4c/output_inception_4c/output_0_split -> inception_4c/output_inception_4c/output_0_split_3
I0924 00:17:26.512459 18318 net.cpp:141] Setting up inception_4c/output_inception_4c/output_0_split
I0924 00:17:26.512470 18318 net.cpp:148] Top shape: 10 512 14 14 (1003520)
I0924 00:17:26.512476 18318 net.cpp:148] Top shape: 10 512 14 14 (1003520)
I0924 00:17:26.512482 18318 net.cpp:148] Top shape: 10 512 14 14 (1003520)
I0924 00:17:26.512488 18318 net.cpp:148] Top shape: 10 512 14 14 (1003520)
I0924 00:17:26.512493 18318 net.cpp:156] Memory required for data: 458357760
I0924 00:17:26.512500 18318 layer_factory.hpp:77] Creating layer inception_4d/1x1
I0924 00:17:26.512518 18318 net.cpp:91] Creating Layer inception_4d/1x1
I0924 00:17:26.512526 18318 net.cpp:425] inception_4d/1x1 <- inception_4c/output_inception_4c/output_0_split_0
I0924 00:17:26.512536 18318 net.cpp:399] inception_4d/1x1 -> inception_4d/1x1
I0924 00:17:26.514433 18318 net.cpp:141] Setting up inception_4d/1x1
I0924 00:17:26.514452 18318 net.cpp:148] Top shape: 10 112 14 14 (219520)
I0924 00:17:26.514458 18318 net.cpp:156] Memory required for data: 459235840
I0924 00:17:26.514469 18318 layer_factory.hpp:77] Creating layer inception_4d/relu_1x1
I0924 00:17:26.514479 18318 net.cpp:91] Creating Layer inception_4d/relu_1x1
I0924 00:17:26.514487 18318 net.cpp:425] inception_4d/relu_1x1 <- inception_4d/1x1
I0924 00:17:26.514498 18318 net.cpp:386] inception_4d/relu_1x1 -> inception_4d/1x1 (in-place)
I0924 00:17:26.514957 18318 net.cpp:141] Setting up inception_4d/relu_1x1
I0924 00:17:26.514976 18318 net.cpp:148] Top shape: 10 112 14 14 (219520)
I0924 00:17:26.514982 18318 net.cpp:156] Memory required for data: 460113920
I0924 00:17:26.514989 18318 layer_factory.hpp:77] Creating layer inception_4d/3x3_reduce
I0924 00:17:26.515007 18318 net.cpp:91] Creating Layer inception_4d/3x3_reduce
I0924 00:17:26.515014 18318 net.cpp:425] inception_4d/3x3_reduce <- inception_4c/output_inception_4c/output_0_split_1
I0924 00:17:26.515027 18318 net.cpp:399] inception_4d/3x3_reduce -> inception_4d/3x3_reduce
I0924 00:17:26.517297 18318 net.cpp:141] Setting up inception_4d/3x3_reduce
I0924 00:17:26.517316 18318 net.cpp:148] Top shape: 10 144 14 14 (282240)
I0924 00:17:26.517321 18318 net.cpp:156] Memory required for data: 461242880
I0924 00:17:26.517331 18318 layer_factory.hpp:77] Creating layer inception_4d/relu_3x3_reduce
I0924 00:17:26.517341 18318 net.cpp:91] Creating Layer inception_4d/relu_3x3_reduce
I0924 00:17:26.517349 18318 net.cpp:425] inception_4d/relu_3x3_reduce <- inception_4d/3x3_reduce
I0924 00:17:26.517361 18318 net.cpp:386] inception_4d/relu_3x3_reduce -> inception_4d/3x3_reduce (in-place)
I0924 00:17:26.517627 18318 net.cpp:141] Setting up inception_4d/relu_3x3_reduce
I0924 00:17:26.517642 18318 net.cpp:148] Top shape: 10 144 14 14 (282240)
I0924 00:17:26.517647 18318 net.cpp:156] Memory required for data: 462371840
I0924 00:17:26.517654 18318 layer_factory.hpp:77] Creating layer inception_4d/3x3
I0924 00:17:26.517673 18318 net.cpp:91] Creating Layer inception_4d/3x3
I0924 00:17:26.517679 18318 net.cpp:425] inception_4d/3x3 <- inception_4d/3x3_reduce
I0924 00:17:26.517689 18318 net.cpp:399] inception_4d/3x3 -> inception_4d/3x3
I0924 00:17:26.523811 18318 net.cpp:141] Setting up inception_4d/3x3
I0924 00:17:26.523856 18318 net.cpp:148] Top shape: 10 288 14 14 (564480)
I0924 00:17:26.523864 18318 net.cpp:156] Memory required for data: 464629760
I0924 00:17:26.523879 18318 layer_factory.hpp:77] Creating layer inception_4d/relu_3x3
I0924 00:17:26.523897 18318 net.cpp:91] Creating Layer inception_4d/relu_3x3
I0924 00:17:26.523907 18318 net.cpp:425] inception_4d/relu_3x3 <- inception_4d/3x3
I0924 00:17:26.523921 18318 net.cpp:386] inception_4d/relu_3x3 -> inception_4d/3x3 (in-place)
I0924 00:17:26.524338 18318 net.cpp:141] Setting up inception_4d/relu_3x3
I0924 00:17:26.524351 18318 net.cpp:148] Top shape: 10 288 14 14 (564480)
I0924 00:17:26.524356 18318 net.cpp:156] Memory required for data: 466887680
I0924 00:17:26.524361 18318 layer_factory.hpp:77] Creating layer inception_4d/5x5_reduce
I0924 00:17:26.524387 18318 net.cpp:91] Creating Layer inception_4d/5x5_reduce
I0924 00:17:26.524395 18318 net.cpp:425] inception_4d/5x5_reduce <- inception_4c/output_inception_4c/output_0_split_2
I0924 00:17:26.524407 18318 net.cpp:399] inception_4d/5x5_reduce -> inception_4d/5x5_reduce
I0924 00:17:26.525881 18318 net.cpp:141] Setting up inception_4d/5x5_reduce
I0924 00:17:26.525898 18318 net.cpp:148] Top shape: 10 32 14 14 (62720)
I0924 00:17:26.525903 18318 net.cpp:156] Memory required for data: 467138560
I0924 00:17:26.525913 18318 layer_factory.hpp:77] Creating layer inception_4d/relu_5x5_reduce
I0924 00:17:26.525923 18318 net.cpp:91] Creating Layer inception_4d/relu_5x5_reduce
I0924 00:17:26.525929 18318 net.cpp:425] inception_4d/relu_5x5_reduce <- inception_4d/5x5_reduce
I0924 00:17:26.525936 18318 net.cpp:386] inception_4d/relu_5x5_reduce -> inception_4d/5x5_reduce (in-place)
I0924 00:17:26.526340 18318 net.cpp:141] Setting up inception_4d/relu_5x5_reduce
I0924 00:17:26.526352 18318 net.cpp:148] Top shape: 10 32 14 14 (62720)
I0924 00:17:26.526357 18318 net.cpp:156] Memory required for data: 467389440
I0924 00:17:26.526363 18318 layer_factory.hpp:77] Creating layer inception_4d/5x5
I0924 00:17:26.526381 18318 net.cpp:91] Creating Layer inception_4d/5x5
I0924 00:17:26.526386 18318 net.cpp:425] inception_4d/5x5 <- inception_4d/5x5_reduce
I0924 00:17:26.526398 18318 net.cpp:399] inception_4d/5x5 -> inception_4d/5x5
I0924 00:17:26.528280 18318 net.cpp:141] Setting up inception_4d/5x5
I0924 00:17:26.528298 18318 net.cpp:148] Top shape: 10 64 14 14 (125440)
I0924 00:17:26.528306 18318 net.cpp:156] Memory required for data: 467891200
I0924 00:17:26.528316 18318 layer_factory.hpp:77] Creating layer inception_4d/relu_5x5
I0924 00:17:26.528326 18318 net.cpp:91] Creating Layer inception_4d/relu_5x5
I0924 00:17:26.528331 18318 net.cpp:425] inception_4d/relu_5x5 <- inception_4d/5x5
I0924 00:17:26.528339 18318 net.cpp:386] inception_4d/relu_5x5 -> inception_4d/5x5 (in-place)
I0924 00:17:26.528580 18318 net.cpp:141] Setting up inception_4d/relu_5x5
I0924 00:17:26.528591 18318 net.cpp:148] Top shape: 10 64 14 14 (125440)
I0924 00:17:26.528596 18318 net.cpp:156] Memory required for data: 468392960
I0924 00:17:26.528601 18318 layer_factory.hpp:77] Creating layer inception_4d/pool
I0924 00:17:26.528616 18318 net.cpp:91] Creating Layer inception_4d/pool
I0924 00:17:26.528623 18318 net.cpp:425] inception_4d/pool <- inception_4c/output_inception_4c/output_0_split_3
I0924 00:17:26.528633 18318 net.cpp:399] inception_4d/pool -> inception_4d/pool
I0924 00:17:26.528702 18318 net.cpp:141] Setting up inception_4d/pool
I0924 00:17:26.528712 18318 net.cpp:148] Top shape: 10 512 14 14 (1003520)
I0924 00:17:26.528717 18318 net.cpp:156] Memory required for data: 472407040
I0924 00:17:26.528723 18318 layer_factory.hpp:77] Creating layer inception_4d/pool_proj
I0924 00:17:26.528738 18318 net.cpp:91] Creating Layer inception_4d/pool_proj
I0924 00:17:26.528743 18318 net.cpp:425] inception_4d/pool_proj <- inception_4d/pool
I0924 00:17:26.528755 18318 net.cpp:399] inception_4d/pool_proj -> inception_4d/pool_proj
I0924 00:17:26.530586 18318 net.cpp:141] Setting up inception_4d/pool_proj
I0924 00:17:26.530611 18318 net.cpp:148] Top shape: 10 64 14 14 (125440)
I0924 00:17:26.530617 18318 net.cpp:156] Memory required for data: 472908800
I0924 00:17:26.530627 18318 layer_factory.hpp:77] Creating layer inception_4d/relu_pool_proj
I0924 00:17:26.530637 18318 net.cpp:91] Creating Layer inception_4d/relu_pool_proj
I0924 00:17:26.530647 18318 net.cpp:425] inception_4d/relu_pool_proj <- inception_4d/pool_proj
I0924 00:17:26.530654 18318 net.cpp:386] inception_4d/relu_pool_proj -> inception_4d/pool_proj (in-place)
I0924 00:17:26.531067 18318 net.cpp:141] Setting up inception_4d/relu_pool_proj
I0924 00:17:26.531080 18318 net.cpp:148] Top shape: 10 64 14 14 (125440)
I0924 00:17:26.531085 18318 net.cpp:156] Memory required for data: 473410560
I0924 00:17:26.531090 18318 layer_factory.hpp:77] Creating layer inception_4d/output
I0924 00:17:26.531100 18318 net.cpp:91] Creating Layer inception_4d/output
I0924 00:17:26.531105 18318 net.cpp:425] inception_4d/output <- inception_4d/1x1
I0924 00:17:26.531112 18318 net.cpp:425] inception_4d/output <- inception_4d/3x3
I0924 00:17:26.531126 18318 net.cpp:425] inception_4d/output <- inception_4d/5x5
I0924 00:17:26.531131 18318 net.cpp:425] inception_4d/output <- inception_4d/pool_proj
I0924 00:17:26.531138 18318 net.cpp:399] inception_4d/output -> inception_4d/output
I0924 00:17:26.531183 18318 net.cpp:141] Setting up inception_4d/output
I0924 00:17:26.531193 18318 net.cpp:148] Top shape: 10 528 14 14 (1034880)
I0924 00:17:26.531196 18318 net.cpp:156] Memory required for data: 477550080
I0924 00:17:26.531203 18318 layer_factory.hpp:77] Creating layer inception_4d/output_inception_4d/output_0_split
I0924 00:17:26.531220 18318 net.cpp:91] Creating Layer inception_4d/output_inception_4d/output_0_split
I0924 00:17:26.531231 18318 net.cpp:425] inception_4d/output_inception_4d/output_0_split <- inception_4d/output
I0924 00:17:26.531244 18318 net.cpp:399] inception_4d/output_inception_4d/output_0_split -> inception_4d/output_inception_4d/output_0_split_0
I0924 00:17:26.531257 18318 net.cpp:399] inception_4d/output_inception_4d/output_0_split -> inception_4d/output_inception_4d/output_0_split_1
I0924 00:17:26.531272 18318 net.cpp:399] inception_4d/output_inception_4d/output_0_split -> inception_4d/output_inception_4d/output_0_split_2
I0924 00:17:26.531288 18318 net.cpp:399] inception_4d/output_inception_4d/output_0_split -> inception_4d/output_inception_4d/output_0_split_3
I0924 00:17:26.531394 18318 net.cpp:141] Setting up inception_4d/output_inception_4d/output_0_split
I0924 00:17:26.531404 18318 net.cpp:148] Top shape: 10 528 14 14 (1034880)
I0924 00:17:26.531410 18318 net.cpp:148] Top shape: 10 528 14 14 (1034880)
I0924 00:17:26.531416 18318 net.cpp:148] Top shape: 10 528 14 14 (1034880)
I0924 00:17:26.531421 18318 net.cpp:148] Top shape: 10 528 14 14 (1034880)
I0924 00:17:26.531425 18318 net.cpp:156] Memory required for data: 494108160
I0924 00:17:26.531431 18318 layer_factory.hpp:77] Creating layer inception_4e/1x1
I0924 00:17:26.531446 18318 net.cpp:91] Creating Layer inception_4e/1x1
I0924 00:17:26.531452 18318 net.cpp:425] inception_4e/1x1 <- inception_4d/output_inception_4d/output_0_split_0
I0924 00:17:26.531464 18318 net.cpp:399] inception_4e/1x1 -> inception_4e/1x1
I0924 00:17:26.534703 18318 net.cpp:141] Setting up inception_4e/1x1
I0924 00:17:26.534721 18318 net.cpp:148] Top shape: 10 256 14 14 (501760)
I0924 00:17:26.534728 18318 net.cpp:156] Memory required for data: 496115200
I0924 00:17:26.534736 18318 layer_factory.hpp:77] Creating layer inception_4e/relu_1x1
I0924 00:17:26.534745 18318 net.cpp:91] Creating Layer inception_4e/relu_1x1
I0924 00:17:26.534751 18318 net.cpp:425] inception_4e/relu_1x1 <- inception_4e/1x1
I0924 00:17:26.534764 18318 net.cpp:386] inception_4e/relu_1x1 -> inception_4e/1x1 (in-place)
I0924 00:17:26.535168 18318 net.cpp:141] Setting up inception_4e/relu_1x1
I0924 00:17:26.535181 18318 net.cpp:148] Top shape: 10 256 14 14 (501760)
I0924 00:17:26.535187 18318 net.cpp:156] Memory required for data: 498122240
I0924 00:17:26.535192 18318 layer_factory.hpp:77] Creating layer inception_4e/3x3_reduce
I0924 00:17:26.535209 18318 net.cpp:91] Creating Layer inception_4e/3x3_reduce
I0924 00:17:26.535215 18318 net.cpp:425] inception_4e/3x3_reduce <- inception_4d/output_inception_4d/output_0_split_1
I0924 00:17:26.535228 18318 net.cpp:399] inception_4e/3x3_reduce -> inception_4e/3x3_reduce
I0924 00:17:26.537348 18318 net.cpp:141] Setting up inception_4e/3x3_reduce
I0924 00:17:26.537366 18318 net.cpp:148] Top shape: 10 160 14 14 (313600)
I0924 00:17:26.537371 18318 net.cpp:156] Memory required for data: 499376640
I0924 00:17:26.537380 18318 layer_factory.hpp:77] Creating layer inception_4e/relu_3x3_reduce
I0924 00:17:26.537390 18318 net.cpp:91] Creating Layer inception_4e/relu_3x3_reduce
I0924 00:17:26.537396 18318 net.cpp:425] inception_4e/relu_3x3_reduce <- inception_4e/3x3_reduce
I0924 00:17:26.537405 18318 net.cpp:386] inception_4e/relu_3x3_reduce -> inception_4e/3x3_reduce (in-place)
I0924 00:17:26.537647 18318 net.cpp:141] Setting up inception_4e/relu_3x3_reduce
I0924 00:17:26.537658 18318 net.cpp:148] Top shape: 10 160 14 14 (313600)
I0924 00:17:26.537662 18318 net.cpp:156] Memory required for data: 500631040
I0924 00:17:26.537668 18318 layer_factory.hpp:77] Creating layer inception_4e/3x3
I0924 00:17:26.537684 18318 net.cpp:91] Creating Layer inception_4e/3x3
I0924 00:17:26.537691 18318 net.cpp:425] inception_4e/3x3 <- inception_4e/3x3_reduce
I0924 00:17:26.537703 18318 net.cpp:399] inception_4e/3x3 -> inception_4e/3x3
I0924 00:17:26.543583 18318 net.cpp:141] Setting up inception_4e/3x3
I0924 00:17:26.543602 18318 net.cpp:148] Top shape: 10 320 14 14 (627200)
I0924 00:17:26.543608 18318 net.cpp:156] Memory required for data: 503139840
I0924 00:17:26.543617 18318 layer_factory.hpp:77] Creating layer inception_4e/relu_3x3
I0924 00:17:26.543627 18318 net.cpp:91] Creating Layer inception_4e/relu_3x3
I0924 00:17:26.543633 18318 net.cpp:425] inception_4e/relu_3x3 <- inception_4e/3x3
I0924 00:17:26.543644 18318 net.cpp:386] inception_4e/relu_3x3 -> inception_4e/3x3 (in-place)
I0924 00:17:26.544062 18318 net.cpp:141] Setting up inception_4e/relu_3x3
I0924 00:17:26.544075 18318 net.cpp:148] Top shape: 10 320 14 14 (627200)
I0924 00:17:26.544080 18318 net.cpp:156] Memory required for data: 505648640
I0924 00:17:26.544085 18318 layer_factory.hpp:77] Creating layer inception_4e/5x5_reduce
I0924 00:17:26.544104 18318 net.cpp:91] Creating Layer inception_4e/5x5_reduce
I0924 00:17:26.544113 18318 net.cpp:425] inception_4e/5x5_reduce <- inception_4d/output_inception_4d/output_0_split_2
I0924 00:17:26.544122 18318 net.cpp:399] inception_4e/5x5_reduce -> inception_4e/5x5_reduce
I0924 00:17:26.545584 18318 net.cpp:141] Setting up inception_4e/5x5_reduce
I0924 00:17:26.545601 18318 net.cpp:148] Top shape: 10 32 14 14 (62720)
I0924 00:17:26.545608 18318 net.cpp:156] Memory required for data: 505899520
I0924 00:17:26.545616 18318 layer_factory.hpp:77] Creating layer inception_4e/relu_5x5_reduce
I0924 00:17:26.545626 18318 net.cpp:91] Creating Layer inception_4e/relu_5x5_reduce
I0924 00:17:26.545632 18318 net.cpp:425] inception_4e/relu_5x5_reduce <- inception_4e/5x5_reduce
I0924 00:17:26.545644 18318 net.cpp:386] inception_4e/relu_5x5_reduce -> inception_4e/5x5_reduce (in-place)
I0924 00:17:26.546052 18318 net.cpp:141] Setting up inception_4e/relu_5x5_reduce
I0924 00:17:26.546068 18318 net.cpp:148] Top shape: 10 32 14 14 (62720)
I0924 00:17:26.546073 18318 net.cpp:156] Memory required for data: 506150400
I0924 00:17:26.546079 18318 layer_factory.hpp:77] Creating layer inception_4e/5x5
I0924 00:17:26.546097 18318 net.cpp:91] Creating Layer inception_4e/5x5
I0924 00:17:26.546103 18318 net.cpp:425] inception_4e/5x5 <- inception_4e/5x5_reduce
I0924 00:17:26.546115 18318 net.cpp:399] inception_4e/5x5 -> inception_4e/5x5
I0924 00:17:26.549024 18318 net.cpp:141] Setting up inception_4e/5x5
I0924 00:17:26.549042 18318 net.cpp:148] Top shape: 10 128 14 14 (250880)
I0924 00:17:26.549048 18318 net.cpp:156] Memory required for data: 507153920
I0924 00:17:26.549057 18318 layer_factory.hpp:77] Creating layer inception_4e/relu_5x5
I0924 00:17:26.549067 18318 net.cpp:91] Creating Layer inception_4e/relu_5x5
I0924 00:17:26.549073 18318 net.cpp:425] inception_4e/relu_5x5 <- inception_4e/5x5
I0924 00:17:26.549084 18318 net.cpp:386] inception_4e/relu_5x5 -> inception_4e/5x5 (in-place)
I0924 00:17:26.549326 18318 net.cpp:141] Setting up inception_4e/relu_5x5
I0924 00:17:26.549337 18318 net.cpp:148] Top shape: 10 128 14 14 (250880)
I0924 00:17:26.549342 18318 net.cpp:156] Memory required for data: 508157440
I0924 00:17:26.549347 18318 layer_factory.hpp:77] Creating layer inception_4e/pool
I0924 00:17:26.549360 18318 net.cpp:91] Creating Layer inception_4e/pool
I0924 00:17:26.549366 18318 net.cpp:425] inception_4e/pool <- inception_4d/output_inception_4d/output_0_split_3
I0924 00:17:26.549374 18318 net.cpp:399] inception_4e/pool -> inception_4e/pool
I0924 00:17:26.549448 18318 net.cpp:141] Setting up inception_4e/pool
I0924 00:17:26.549456 18318 net.cpp:148] Top shape: 10 528 14 14 (1034880)
I0924 00:17:26.549461 18318 net.cpp:156] Memory required for data: 512296960
I0924 00:17:26.549466 18318 layer_factory.hpp:77] Creating layer inception_4e/pool_proj
I0924 00:17:26.549484 18318 net.cpp:91] Creating Layer inception_4e/pool_proj
I0924 00:17:26.549489 18318 net.cpp:425] inception_4e/pool_proj <- inception_4e/pool
I0924 00:17:26.549500 18318 net.cpp:399] inception_4e/pool_proj -> inception_4e/pool_proj
I0924 00:17:26.551820 18318 net.cpp:141] Setting up inception_4e/pool_proj
I0924 00:17:26.551839 18318 net.cpp:148] Top shape: 10 128 14 14 (250880)
I0924 00:17:26.551846 18318 net.cpp:156] Memory required for data: 513300480
I0924 00:17:26.551856 18318 layer_factory.hpp:77] Creating layer inception_4e/relu_pool_proj
I0924 00:17:26.551864 18318 net.cpp:91] Creating Layer inception_4e/relu_pool_proj
I0924 00:17:26.551872 18318 net.cpp:425] inception_4e/relu_pool_proj <- inception_4e/pool_proj
I0924 00:17:26.551879 18318 net.cpp:386] inception_4e/relu_pool_proj -> inception_4e/pool_proj (in-place)
I0924 00:17:26.552320 18318 net.cpp:141] Setting up inception_4e/relu_pool_proj
I0924 00:17:26.552335 18318 net.cpp:148] Top shape: 10 128 14 14 (250880)
I0924 00:17:26.552340 18318 net.cpp:156] Memory required for data: 514304000
I0924 00:17:26.552345 18318 layer_factory.hpp:77] Creating layer inception_4e/output
I0924 00:17:26.552355 18318 net.cpp:91] Creating Layer inception_4e/output
I0924 00:17:26.552361 18318 net.cpp:425] inception_4e/output <- inception_4e/1x1
I0924 00:17:26.552367 18318 net.cpp:425] inception_4e/output <- inception_4e/3x3
I0924 00:17:26.552373 18318 net.cpp:425] inception_4e/output <- inception_4e/5x5
I0924 00:17:26.552378 18318 net.cpp:425] inception_4e/output <- inception_4e/pool_proj
I0924 00:17:26.552386 18318 net.cpp:399] inception_4e/output -> inception_4e/output
I0924 00:17:26.552435 18318 net.cpp:141] Setting up inception_4e/output
I0924 00:17:26.552445 18318 net.cpp:148] Top shape: 10 832 14 14 (1630720)
I0924 00:17:26.552453 18318 net.cpp:156] Memory required for data: 520826880
I0924 00:17:26.552458 18318 layer_factory.hpp:77] Creating layer pool4/3x3_s2
I0924 00:17:26.552466 18318 net.cpp:91] Creating Layer pool4/3x3_s2
I0924 00:17:26.552472 18318 net.cpp:425] pool4/3x3_s2 <- inception_4e/output
I0924 00:17:26.552480 18318 net.cpp:399] pool4/3x3_s2 -> pool4/3x3_s2
I0924 00:17:26.552546 18318 net.cpp:141] Setting up pool4/3x3_s2
I0924 00:17:26.552556 18318 net.cpp:148] Top shape: 10 832 7 7 (407680)
I0924 00:17:26.552561 18318 net.cpp:156] Memory required for data: 522457600
I0924 00:17:26.552566 18318 layer_factory.hpp:77] Creating layer pool4/3x3_s2_pool4/3x3_s2_0_split
I0924 00:17:26.552575 18318 net.cpp:91] Creating Layer pool4/3x3_s2_pool4/3x3_s2_0_split
I0924 00:17:26.552580 18318 net.cpp:425] pool4/3x3_s2_pool4/3x3_s2_0_split <- pool4/3x3_s2
I0924 00:17:26.552592 18318 net.cpp:399] pool4/3x3_s2_pool4/3x3_s2_0_split -> pool4/3x3_s2_pool4/3x3_s2_0_split_0
I0924 00:17:26.552600 18318 net.cpp:399] pool4/3x3_s2_pool4/3x3_s2_0_split -> pool4/3x3_s2_pool4/3x3_s2_0_split_1
I0924 00:17:26.552609 18318 net.cpp:399] pool4/3x3_s2_pool4/3x3_s2_0_split -> pool4/3x3_s2_pool4/3x3_s2_0_split_2
I0924 00:17:26.552618 18318 net.cpp:399] pool4/3x3_s2_pool4/3x3_s2_0_split -> pool4/3x3_s2_pool4/3x3_s2_0_split_3
I0924 00:17:26.552714 18318 net.cpp:141] Setting up pool4/3x3_s2_pool4/3x3_s2_0_split
I0924 00:17:26.552723 18318 net.cpp:148] Top shape: 10 832 7 7 (407680)
I0924 00:17:26.552731 18318 net.cpp:148] Top shape: 10 832 7 7 (407680)
I0924 00:17:26.552736 18318 net.cpp:148] Top shape: 10 832 7 7 (407680)
I0924 00:17:26.552742 18318 net.cpp:148] Top shape: 10 832 7 7 (407680)
I0924 00:17:26.552745 18318 net.cpp:156] Memory required for data: 528980480
I0924 00:17:26.552750 18318 layer_factory.hpp:77] Creating layer inception_5a/1x1
I0924 00:17:26.552770 18318 net.cpp:91] Creating Layer inception_5a/1x1
I0924 00:17:26.552778 18318 net.cpp:425] inception_5a/1x1 <- pool4/3x3_s2_pool4/3x3_s2_0_split_0
I0924 00:17:26.552786 18318 net.cpp:399] inception_5a/1x1 -> inception_5a/1x1
I0924 00:17:26.556360 18318 net.cpp:141] Setting up inception_5a/1x1
I0924 00:17:26.556375 18318 net.cpp:148] Top shape: 10 256 7 7 (125440)
I0924 00:17:26.556380 18318 net.cpp:156] Memory required for data: 529482240
I0924 00:17:26.556391 18318 layer_factory.hpp:77] Creating layer inception_5a/relu_1x1
I0924 00:17:26.556399 18318 net.cpp:91] Creating Layer inception_5a/relu_1x1
I0924 00:17:26.556406 18318 net.cpp:425] inception_5a/relu_1x1 <- inception_5a/1x1
I0924 00:17:26.556416 18318 net.cpp:386] inception_5a/relu_1x1 -> inception_5a/1x1 (in-place)
I0924 00:17:26.556823 18318 net.cpp:141] Setting up inception_5a/relu_1x1
I0924 00:17:26.556835 18318 net.cpp:148] Top shape: 10 256 7 7 (125440)
I0924 00:17:26.556840 18318 net.cpp:156] Memory required for data: 529984000
I0924 00:17:26.556845 18318 layer_factory.hpp:77] Creating layer inception_5a/3x3_reduce
I0924 00:17:26.556862 18318 net.cpp:91] Creating Layer inception_5a/3x3_reduce
I0924 00:17:26.556869 18318 net.cpp:425] inception_5a/3x3_reduce <- pool4/3x3_s2_pool4/3x3_s2_0_split_1
I0924 00:17:26.556881 18318 net.cpp:399] inception_5a/3x3_reduce -> inception_5a/3x3_reduce
I0924 00:17:26.560092 18318 net.cpp:141] Setting up inception_5a/3x3_reduce
I0924 00:17:26.560111 18318 net.cpp:148] Top shape: 10 160 7 7 (78400)
I0924 00:17:26.560117 18318 net.cpp:156] Memory required for data: 530297600
I0924 00:17:26.560127 18318 layer_factory.hpp:77] Creating layer inception_5a/relu_3x3_reduce
I0924 00:17:26.560137 18318 net.cpp:91] Creating Layer inception_5a/relu_3x3_reduce
I0924 00:17:26.560143 18318 net.cpp:425] inception_5a/relu_3x3_reduce <- inception_5a/3x3_reduce
I0924 00:17:26.560150 18318 net.cpp:386] inception_5a/relu_3x3_reduce -> inception_5a/3x3_reduce (in-place)
I0924 00:17:26.560402 18318 net.cpp:141] Setting up inception_5a/relu_3x3_reduce
I0924 00:17:26.560415 18318 net.cpp:148] Top shape: 10 160 7 7 (78400)
I0924 00:17:26.560420 18318 net.cpp:156] Memory required for data: 530611200
I0924 00:17:26.560425 18318 layer_factory.hpp:77] Creating layer inception_5a/3x3
I0924 00:17:26.560441 18318 net.cpp:91] Creating Layer inception_5a/3x3
I0924 00:17:26.560447 18318 net.cpp:425] inception_5a/3x3 <- inception_5a/3x3_reduce
I0924 00:17:26.560459 18318 net.cpp:399] inception_5a/3x3 -> inception_5a/3x3
I0924 00:17:26.566633 18318 net.cpp:141] Setting up inception_5a/3x3
I0924 00:17:26.566653 18318 net.cpp:148] Top shape: 10 320 7 7 (156800)
I0924 00:17:26.566658 18318 net.cpp:156] Memory required for data: 531238400
I0924 00:17:26.566668 18318 layer_factory.hpp:77] Creating layer inception_5a/relu_3x3
I0924 00:17:26.566678 18318 net.cpp:91] Creating Layer inception_5a/relu_3x3
I0924 00:17:26.566684 18318 net.cpp:425] inception_5a/relu_3x3 <- inception_5a/3x3
I0924 00:17:26.566691 18318 net.cpp:386] inception_5a/relu_3x3 -> inception_5a/3x3 (in-place)
I0924 00:17:26.567126 18318 net.cpp:141] Setting up inception_5a/relu_3x3
I0924 00:17:26.567138 18318 net.cpp:148] Top shape: 10 320 7 7 (156800)
I0924 00:17:26.567143 18318 net.cpp:156] Memory required for data: 531865600
I0924 00:17:26.567149 18318 layer_factory.hpp:77] Creating layer inception_5a/5x5_reduce
I0924 00:17:26.567167 18318 net.cpp:91] Creating Layer inception_5a/5x5_reduce
I0924 00:17:26.567174 18318 net.cpp:425] inception_5a/5x5_reduce <- pool4/3x3_s2_pool4/3x3_s2_0_split_2
I0924 00:17:26.567186 18318 net.cpp:399] inception_5a/5x5_reduce -> inception_5a/5x5_reduce
I0924 00:17:26.568806 18318 net.cpp:141] Setting up inception_5a/5x5_reduce
I0924 00:17:26.568825 18318 net.cpp:148] Top shape: 10 32 7 7 (15680)
I0924 00:17:26.568830 18318 net.cpp:156] Memory required for data: 531928320
I0924 00:17:26.568840 18318 layer_factory.hpp:77] Creating layer inception_5a/relu_5x5_reduce
I0924 00:17:26.568850 18318 net.cpp:91] Creating Layer inception_5a/relu_5x5_reduce
I0924 00:17:26.568856 18318 net.cpp:425] inception_5a/relu_5x5_reduce <- inception_5a/5x5_reduce
I0924 00:17:26.568866 18318 net.cpp:386] inception_5a/relu_5x5_reduce -> inception_5a/5x5_reduce (in-place)
I0924 00:17:26.569272 18318 net.cpp:141] Setting up inception_5a/relu_5x5_reduce
I0924 00:17:26.569284 18318 net.cpp:148] Top shape: 10 32 7 7 (15680)
I0924 00:17:26.569289 18318 net.cpp:156] Memory required for data: 531991040
I0924 00:17:26.569294 18318 layer_factory.hpp:77] Creating layer inception_5a/5x5
I0924 00:17:26.569310 18318 net.cpp:91] Creating Layer inception_5a/5x5
I0924 00:17:26.569317 18318 net.cpp:425] inception_5a/5x5 <- inception_5a/5x5_reduce
I0924 00:17:26.569329 18318 net.cpp:399] inception_5a/5x5 -> inception_5a/5x5
I0924 00:17:26.571631 18318 net.cpp:141] Setting up inception_5a/5x5
I0924 00:17:26.571650 18318 net.cpp:148] Top shape: 10 128 7 7 (62720)
I0924 00:17:26.571655 18318 net.cpp:156] Memory required for data: 532241920
I0924 00:17:26.571666 18318 layer_factory.hpp:77] Creating layer inception_5a/relu_5x5
I0924 00:17:26.571701 18318 net.cpp:91] Creating Layer inception_5a/relu_5x5
I0924 00:17:26.571707 18318 net.cpp:425] inception_5a/relu_5x5 <- inception_5a/5x5
I0924 00:17:26.571715 18318 net.cpp:386] inception_5a/relu_5x5 -> inception_5a/5x5 (in-place)
I0924 00:17:26.571964 18318 net.cpp:141] Setting up inception_5a/relu_5x5
I0924 00:17:26.571976 18318 net.cpp:148] Top shape: 10 128 7 7 (62720)
I0924 00:17:26.571981 18318 net.cpp:156] Memory required for data: 532492800
I0924 00:17:26.571987 18318 layer_factory.hpp:77] Creating layer inception_5a/pool
I0924 00:17:26.572000 18318 net.cpp:91] Creating Layer inception_5a/pool
I0924 00:17:26.572007 18318 net.cpp:425] inception_5a/pool <- pool4/3x3_s2_pool4/3x3_s2_0_split_3
I0924 00:17:26.572016 18318 net.cpp:399] inception_5a/pool -> inception_5a/pool
I0924 00:17:26.572091 18318 net.cpp:141] Setting up inception_5a/pool
I0924 00:17:26.572101 18318 net.cpp:148] Top shape: 10 832 7 7 (407680)
I0924 00:17:26.572106 18318 net.cpp:156] Memory required for data: 534123520
I0924 00:17:26.572111 18318 layer_factory.hpp:77] Creating layer inception_5a/pool_proj
I0924 00:17:26.572127 18318 net.cpp:91] Creating Layer inception_5a/pool_proj
I0924 00:17:26.572134 18318 net.cpp:425] inception_5a/pool_proj <- inception_5a/pool
I0924 00:17:26.572145 18318 net.cpp:399] inception_5a/pool_proj -> inception_5a/pool_proj
I0924 00:17:26.575137 18318 net.cpp:141] Setting up inception_5a/pool_proj
I0924 00:17:26.575160 18318 net.cpp:148] Top shape: 10 128 7 7 (62720)
I0924 00:17:26.575166 18318 net.cpp:156] Memory required for data: 534374400
I0924 00:17:26.575176 18318 layer_factory.hpp:77] Creating layer inception_5a/relu_pool_proj
I0924 00:17:26.575186 18318 net.cpp:91] Creating Layer inception_5a/relu_pool_proj
I0924 00:17:26.575192 18318 net.cpp:425] inception_5a/relu_pool_proj <- inception_5a/pool_proj
I0924 00:17:26.575201 18318 net.cpp:386] inception_5a/relu_pool_proj -> inception_5a/pool_proj (in-place)
I0924 00:17:26.575620 18318 net.cpp:141] Setting up inception_5a/relu_pool_proj
I0924 00:17:26.575634 18318 net.cpp:148] Top shape: 10 128 7 7 (62720)
I0924 00:17:26.575639 18318 net.cpp:156] Memory required for data: 534625280
I0924 00:17:26.575646 18318 layer_factory.hpp:77] Creating layer inception_5a/output
I0924 00:17:26.575656 18318 net.cpp:91] Creating Layer inception_5a/output
I0924 00:17:26.575662 18318 net.cpp:425] inception_5a/output <- inception_5a/1x1
I0924 00:17:26.575670 18318 net.cpp:425] inception_5a/output <- inception_5a/3x3
I0924 00:17:26.575675 18318 net.cpp:425] inception_5a/output <- inception_5a/5x5
I0924 00:17:26.575680 18318 net.cpp:425] inception_5a/output <- inception_5a/pool_proj
I0924 00:17:26.575690 18318 net.cpp:399] inception_5a/output -> inception_5a/output
I0924 00:17:26.575738 18318 net.cpp:141] Setting up inception_5a/output
I0924 00:17:26.575748 18318 net.cpp:148] Top shape: 10 832 7 7 (407680)
I0924 00:17:26.575752 18318 net.cpp:156] Memory required for data: 536256000
I0924 00:17:26.575758 18318 layer_factory.hpp:77] Creating layer inception_5a/output_inception_5a/output_0_split
I0924 00:17:26.575773 18318 net.cpp:91] Creating Layer inception_5a/output_inception_5a/output_0_split
I0924 00:17:26.575779 18318 net.cpp:425] inception_5a/output_inception_5a/output_0_split <- inception_5a/output
I0924 00:17:26.575788 18318 net.cpp:399] inception_5a/output_inception_5a/output_0_split -> inception_5a/output_inception_5a/output_0_split_0
I0924 00:17:26.575798 18318 net.cpp:399] inception_5a/output_inception_5a/output_0_split -> inception_5a/output_inception_5a/output_0_split_1
I0924 00:17:26.575809 18318 net.cpp:399] inception_5a/output_inception_5a/output_0_split -> inception_5a/output_inception_5a/output_0_split_2
I0924 00:17:26.575819 18318 net.cpp:399] inception_5a/output_inception_5a/output_0_split -> inception_5a/output_inception_5a/output_0_split_3
I0924 00:17:26.575922 18318 net.cpp:141] Setting up inception_5a/output_inception_5a/output_0_split
I0924 00:17:26.575932 18318 net.cpp:148] Top shape: 10 832 7 7 (407680)
I0924 00:17:26.575938 18318 net.cpp:148] Top shape: 10 832 7 7 (407680)
I0924 00:17:26.575943 18318 net.cpp:148] Top shape: 10 832 7 7 (407680)
I0924 00:17:26.575948 18318 net.cpp:148] Top shape: 10 832 7 7 (407680)
I0924 00:17:26.575953 18318 net.cpp:156] Memory required for data: 542778880
I0924 00:17:26.575958 18318 layer_factory.hpp:77] Creating layer inception_5b/1x1
I0924 00:17:26.575974 18318 net.cpp:91] Creating Layer inception_5b/1x1
I0924 00:17:26.575979 18318 net.cpp:425] inception_5b/1x1 <- inception_5a/output_inception_5a/output_0_split_0
I0924 00:17:26.575991 18318 net.cpp:399] inception_5b/1x1 -> inception_5b/1x1
I0924 00:17:26.580452 18318 net.cpp:141] Setting up inception_5b/1x1
I0924 00:17:26.580473 18318 net.cpp:148] Top shape: 10 384 7 7 (188160)
I0924 00:17:26.580479 18318 net.cpp:156] Memory required for data: 543531520
I0924 00:17:26.580489 18318 layer_factory.hpp:77] Creating layer inception_5b/relu_1x1
I0924 00:17:26.580502 18318 net.cpp:91] Creating Layer inception_5b/relu_1x1
I0924 00:17:26.580509 18318 net.cpp:425] inception_5b/relu_1x1 <- inception_5b/1x1
I0924 00:17:26.580518 18318 net.cpp:386] inception_5b/relu_1x1 -> inception_5b/1x1 (in-place)
I0924 00:17:26.580930 18318 net.cpp:141] Setting up inception_5b/relu_1x1
I0924 00:17:26.580943 18318 net.cpp:148] Top shape: 10 384 7 7 (188160)
I0924 00:17:26.580948 18318 net.cpp:156] Memory required for data: 544284160
I0924 00:17:26.580953 18318 layer_factory.hpp:77] Creating layer inception_5b/3x3_reduce
I0924 00:17:26.580971 18318 net.cpp:91] Creating Layer inception_5b/3x3_reduce
I0924 00:17:26.580976 18318 net.cpp:425] inception_5b/3x3_reduce <- inception_5a/output_inception_5a/output_0_split_1
I0924 00:17:26.580988 18318 net.cpp:399] inception_5b/3x3_reduce -> inception_5b/3x3_reduce
I0924 00:17:26.584404 18318 net.cpp:141] Setting up inception_5b/3x3_reduce
I0924 00:17:26.584424 18318 net.cpp:148] Top shape: 10 192 7 7 (94080)
I0924 00:17:26.584429 18318 net.cpp:156] Memory required for data: 544660480
I0924 00:17:26.584439 18318 layer_factory.hpp:77] Creating layer inception_5b/relu_3x3_reduce
I0924 00:17:26.584451 18318 net.cpp:91] Creating Layer inception_5b/relu_3x3_reduce
I0924 00:17:26.584458 18318 net.cpp:425] inception_5b/relu_3x3_reduce <- inception_5b/3x3_reduce
I0924 00:17:26.584466 18318 net.cpp:386] inception_5b/relu_3x3_reduce -> inception_5b/3x3_reduce (in-place)
I0924 00:17:26.584719 18318 net.cpp:141] Setting up inception_5b/relu_3x3_reduce
I0924 00:17:26.584730 18318 net.cpp:148] Top shape: 10 192 7 7 (94080)
I0924 00:17:26.584735 18318 net.cpp:156] Memory required for data: 545036800
I0924 00:17:26.584740 18318 layer_factory.hpp:77] Creating layer inception_5b/3x3
I0924 00:17:26.584758 18318 net.cpp:91] Creating Layer inception_5b/3x3
I0924 00:17:26.584764 18318 net.cpp:425] inception_5b/3x3 <- inception_5b/3x3_reduce
I0924 00:17:26.584775 18318 net.cpp:399] inception_5b/3x3 -> inception_5b/3x3
I0924 00:17:26.592608 18318 net.cpp:141] Setting up inception_5b/3x3
I0924 00:17:26.592631 18318 net.cpp:148] Top shape: 10 384 7 7 (188160)
I0924 00:17:26.592638 18318 net.cpp:156] Memory required for data: 545789440
I0924 00:17:26.592648 18318 layer_factory.hpp:77] Creating layer inception_5b/relu_3x3
I0924 00:17:26.592661 18318 net.cpp:91] Creating Layer inception_5b/relu_3x3
I0924 00:17:26.592669 18318 net.cpp:425] inception_5b/relu_3x3 <- inception_5b/3x3
I0924 00:17:26.592677 18318 net.cpp:386] inception_5b/relu_3x3 -> inception_5b/3x3 (in-place)
I0924 00:17:26.593107 18318 net.cpp:141] Setting up inception_5b/relu_3x3
I0924 00:17:26.593121 18318 net.cpp:148] Top shape: 10 384 7 7 (188160)
I0924 00:17:26.593125 18318 net.cpp:156] Memory required for data: 546542080
I0924 00:17:26.593130 18318 layer_factory.hpp:77] Creating layer inception_5b/5x5_reduce
I0924 00:17:26.593158 18318 net.cpp:91] Creating Layer inception_5b/5x5_reduce
I0924 00:17:26.593170 18318 net.cpp:425] inception_5b/5x5_reduce <- inception_5a/output_inception_5a/output_0_split_2
I0924 00:17:26.593183 18318 net.cpp:399] inception_5b/5x5_reduce -> inception_5b/5x5_reduce
I0924 00:17:26.594946 18318 net.cpp:141] Setting up inception_5b/5x5_reduce
I0924 00:17:26.594964 18318 net.cpp:148] Top shape: 10 48 7 7 (23520)
I0924 00:17:26.594970 18318 net.cpp:156] Memory required for data: 546636160
I0924 00:17:26.594980 18318 layer_factory.hpp:77] Creating layer inception_5b/relu_5x5_reduce
I0924 00:17:26.594990 18318 net.cpp:91] Creating Layer inception_5b/relu_5x5_reduce
I0924 00:17:26.594997 18318 net.cpp:425] inception_5b/relu_5x5_reduce <- inception_5b/5x5_reduce
I0924 00:17:26.595005 18318 net.cpp:386] inception_5b/relu_5x5_reduce -> inception_5b/5x5_reduce (in-place)
I0924 00:17:26.595419 18318 net.cpp:141] Setting up inception_5b/relu_5x5_reduce
I0924 00:17:26.595434 18318 net.cpp:148] Top shape: 10 48 7 7 (23520)
I0924 00:17:26.595439 18318 net.cpp:156] Memory required for data: 546730240
I0924 00:17:26.595445 18318 layer_factory.hpp:77] Creating layer inception_5b/5x5
I0924 00:17:26.595463 18318 net.cpp:91] Creating Layer inception_5b/5x5
I0924 00:17:26.595469 18318 net.cpp:425] inception_5b/5x5 <- inception_5b/5x5_reduce
I0924 00:17:26.595479 18318 net.cpp:399] inception_5b/5x5 -> inception_5b/5x5
I0924 00:17:26.598399 18318 net.cpp:141] Setting up inception_5b/5x5
I0924 00:17:26.598417 18318 net.cpp:148] Top shape: 10 128 7 7 (62720)
I0924 00:17:26.598423 18318 net.cpp:156] Memory required for data: 546981120
I0924 00:17:26.598433 18318 layer_factory.hpp:77] Creating layer inception_5b/relu_5x5
I0924 00:17:26.598443 18318 net.cpp:91] Creating Layer inception_5b/relu_5x5
I0924 00:17:26.598449 18318 net.cpp:425] inception_5b/relu_5x5 <- inception_5b/5x5
I0924 00:17:26.598456 18318 net.cpp:386] inception_5b/relu_5x5 -> inception_5b/5x5 (in-place)
I0924 00:17:26.598734 18318 net.cpp:141] Setting up inception_5b/relu_5x5
I0924 00:17:26.598747 18318 net.cpp:148] Top shape: 10 128 7 7 (62720)
I0924 00:17:26.598752 18318 net.cpp:156] Memory required for data: 547232000
I0924 00:17:26.598757 18318 layer_factory.hpp:77] Creating layer inception_5b/pool
I0924 00:17:26.598772 18318 net.cpp:91] Creating Layer inception_5b/pool
I0924 00:17:26.598778 18318 net.cpp:425] inception_5b/pool <- inception_5a/output_inception_5a/output_0_split_3
I0924 00:17:26.598786 18318 net.cpp:399] inception_5b/pool -> inception_5b/pool
I0924 00:17:26.598866 18318 net.cpp:141] Setting up inception_5b/pool
I0924 00:17:26.598876 18318 net.cpp:148] Top shape: 10 832 7 7 (407680)
I0924 00:17:26.598881 18318 net.cpp:156] Memory required for data: 548862720
I0924 00:17:26.598886 18318 layer_factory.hpp:77] Creating layer inception_5b/pool_proj
I0924 00:17:26.598903 18318 net.cpp:91] Creating Layer inception_5b/pool_proj
I0924 00:17:26.598911 18318 net.cpp:425] inception_5b/pool_proj <- inception_5b/pool
I0924 00:17:26.598924 18318 net.cpp:399] inception_5b/pool_proj -> inception_5b/pool_proj
I0924 00:17:26.602032 18318 net.cpp:141] Setting up inception_5b/pool_proj
I0924 00:17:26.602066 18318 net.cpp:148] Top shape: 10 128 7 7 (62720)
I0924 00:17:26.602072 18318 net.cpp:156] Memory required for data: 549113600
I0924 00:17:26.602085 18318 layer_factory.hpp:77] Creating layer inception_5b/relu_pool_proj
I0924 00:17:26.602103 18318 net.cpp:91] Creating Layer inception_5b/relu_pool_proj
I0924 00:17:26.602113 18318 net.cpp:425] inception_5b/relu_pool_proj <- inception_5b/pool_proj
I0924 00:17:26.602123 18318 net.cpp:386] inception_5b/relu_pool_proj -> inception_5b/pool_proj (in-place)
I0924 00:17:26.602571 18318 net.cpp:141] Setting up inception_5b/relu_pool_proj
I0924 00:17:26.602584 18318 net.cpp:148] Top shape: 10 128 7 7 (62720)
I0924 00:17:26.602588 18318 net.cpp:156] Memory required for data: 549364480
I0924 00:17:26.602604 18318 layer_factory.hpp:77] Creating layer inception_5b/output
I0924 00:17:26.602617 18318 net.cpp:91] Creating Layer inception_5b/output
I0924 00:17:26.602624 18318 net.cpp:425] inception_5b/output <- inception_5b/1x1
I0924 00:17:26.602634 18318 net.cpp:425] inception_5b/output <- inception_5b/3x3
I0924 00:17:26.602641 18318 net.cpp:425] inception_5b/output <- inception_5b/5x5
I0924 00:17:26.602648 18318 net.cpp:425] inception_5b/output <- inception_5b/pool_proj
I0924 00:17:26.602655 18318 net.cpp:399] inception_5b/output -> inception_5b/output
I0924 00:17:26.602713 18318 net.cpp:141] Setting up inception_5b/output
I0924 00:17:26.602723 18318 net.cpp:148] Top shape: 10 1024 7 7 (501760)
I0924 00:17:26.602727 18318 net.cpp:156] Memory required for data: 551371520
I0924 00:17:26.602732 18318 layer_factory.hpp:77] Creating layer pool5/7x7_s1
I0924 00:17:26.602744 18318 net.cpp:91] Creating Layer pool5/7x7_s1
I0924 00:17:26.602751 18318 net.cpp:425] pool5/7x7_s1 <- inception_5b/output
I0924 00:17:26.602763 18318 net.cpp:399] pool5/7x7_s1 -> pool5/7x7_s1
I0924 00:17:26.603080 18318 net.cpp:141] Setting up pool5/7x7_s1
I0924 00:17:26.603092 18318 net.cpp:148] Top shape: 10 1024 1 1 (10240)
I0924 00:17:26.603096 18318 net.cpp:156] Memory required for data: 551412480
I0924 00:17:26.603102 18318 layer_factory.hpp:77] Creating layer pool5/drop_7x7_s1
I0924 00:17:26.603119 18318 net.cpp:91] Creating Layer pool5/drop_7x7_s1
I0924 00:17:26.603127 18318 net.cpp:425] pool5/drop_7x7_s1 <- pool5/7x7_s1
I0924 00:17:26.603132 18318 net.cpp:386] pool5/drop_7x7_s1 -> pool5/7x7_s1 (in-place)
I0924 00:17:26.603188 18318 net.cpp:141] Setting up pool5/drop_7x7_s1
I0924 00:17:26.603196 18318 net.cpp:148] Top shape: 10 1024 1 1 (10240)
I0924 00:17:26.603201 18318 net.cpp:156] Memory required for data: 551453440
I0924 00:17:26.603206 18318 layer_factory.hpp:77] Creating layer loss3/classifier
I0924 00:17:26.603226 18318 net.cpp:91] Creating Layer loss3/classifier
I0924 00:17:26.603231 18318 net.cpp:425] loss3/classifier <- pool5/7x7_s1
I0924 00:17:26.603243 18318 net.cpp:399] loss3/classifier -> loss3/classifier
I0924 00:17:26.613222 18318 net.cpp:141] Setting up loss3/classifier
I0924 00:17:26.613262 18318 net.cpp:148] Top shape: 10 1000 (10000)
I0924 00:17:26.613270 18318 net.cpp:156] Memory required for data: 551493440
I0924 00:17:26.613282 18318 layer_factory.hpp:77] Creating layer prob
I0924 00:17:26.613301 18318 net.cpp:91] Creating Layer prob
I0924 00:17:26.613311 18318 net.cpp:425] prob <- loss3/classifier
I0924 00:17:26.613320 18318 net.cpp:399] prob -> prob
I0924 00:17:26.614081 18318 net.cpp:141] Setting up prob
I0924 00:17:26.614099 18318 net.cpp:148] Top shape: 10 1000 (10000)
I0924 00:17:26.614104 18318 net.cpp:156] Memory required for data: 551533440
I0924 00:17:26.614109 18318 net.cpp:219] prob does not need backward computation.
I0924 00:17:26.614115 18318 net.cpp:219] loss3/classifier does not need backward computation.
I0924 00:17:26.614121 18318 net.cpp:219] pool5/drop_7x7_s1 does not need backward computation.
I0924 00:17:26.614126 18318 net.cpp:219] pool5/7x7_s1 does not need backward computation.
…
