…
Java HotSpot(TM) 64-Bit Server VM warning: You have loaded library /tmp/cvld565728226437499873/libopencv_java310.xine1.so which might have disabled stack guard. The VM will try to fix the stack guard now.
It's highly recommended that you fix the library with 'execstack -c <libfile>', or link it with '-z noexecstack'.
WARNING: Logging before InitGoogleLogging() is written to STDERR
I0714 22:13:55.044194 26661 net.cpp:49] Initializing net from parameters: 
name: "GoogleNet"
state {
  phase: TEST
}
layer {
  name: "data"
  type: "Input"
  top: "data"
  input_param {
    shape {
      dim: 10
      dim: 3
      dim: 224
      dim: 224
    }
  }
}
layer {
  name: "conv1/7x7_s2"
  type: "Convolution"
  bottom: "data"
  top: "conv1/7x7_s2"
  param {
    lr_mult: 1
    decay_mult: 1
  }
  param {
    lr_mult: 2
    decay_mult: 0
  }
  convolution_param {
    num_output: 64
    pad: 3
    kernel_size: 7
    stride: 2
    weight_filler {
      type: "xavier"
      std: 0.1
    }
    bias_filler {
      type: "constant"
      value: 0.2
    }
  }
}
layer {
  name: "conv1/relu_7x7"
  type: "ReLU"
  bottom: "conv1/7x7_s2"
  top: "conv1/7x7_s2"
}
layer {
  name: "pool1/3x3_s2"
  type: "Pooling"
  bottom: "conv1/7x7_s2"
  top: "pool1/3x3_s2"
  pooling_param {
    pool: MAX
    kernel_size: 3
    stride: 2
  }
}
layer {
  name: "pool1/norm1"
  type: "LRN"
  bottom: "pool1/3x3_s2"
  top: "pool1/norm1"
  lrn_param {
    local_size: 5
    alpha: 0.0001
    beta: 0.75
  }
}
layer {
  name: "conv2/3x3_reduce"
  type: "Convolution"
  bottom: "pool1/norm1"
  top: "conv2/3x3_reduce"
  param {
    lr_mult: 1
    decay_mult: 1
  }
  param {
    lr_mult: 2
    decay_mult: 0
  }
  convolution_param {
    num_output: 64
    kernel_size: 1
    weight_filler {
      type: "xavier"
      std: 0.1
    }
    bias_filler {
      type: "constant"
      value: 0.2
    }
  }
}
layer {
  name: "conv2/relu_3x3_reduce"
  type: "ReLU"
  bottom: "conv2/3x3_reduce"
  top: "conv2/3x3_reduce"
}
layer {
  name: "conv2/3x3"
  type: "Convolution"
  bottom: "conv2/3x3_reduce"
  top: "conv2/3x3"
  param {
    lr_mult: 1
    decay_mult: 1
  }
  param {
    lr_mult: 2
    decay_mult: 0
  }
  convolution_param {
    num_output: 192
    pad: 1
    kernel_size: 3
    weight_filler {
      type: "xavier"
      std: 0.03
    }
    bias_filler {
      type: "constant"
      value: 0.2
    }
  }
}
layer {
  name: "conv2/relu_3x3"
  type: "ReLU"
  bottom: "conv2/3x3"
  top: "conv2/3x3"
}
layer {
  name: "conv2/norm2"
  type: "LRN"
  bottom: "conv2/3x3"
  top: "conv2/norm2"
  lrn_param {
    local_size: 5
    alpha: 0.0001
    beta: 0.75
  }
}
layer {
  name: "pool2/3x3_s2"
  type: "Pooling"
  bottom: "conv2/norm2"
  top: "pool2/3x3_s2"
  pooling_param {
    pool: MAX
    kernel_size: 3
    stride: 2
  }
}
layer {
  name: "inception_3a/1x1"
  type: "Convolution"
  bottom: "pool2/3x3_s2"
  top: "inception_3a/1x1"
  param {
    lr_mult: 1
    decay_mult: 1
  }
  param {
    lr_mult: 2
    decay_mult: 0
  }
  convolution_param {
    num_output: 64
    kernel_size: 1
    weight_filler {
      type: "xavier"
      std: 0.03
    }
    bias_filler {
      type: "constant"
      value: 0.2
    }
  }
}
layer {
  name: "inception_3a/relu_1x1"
  type: "ReLU"
  bottom: "inception_3a/1x1"
  top: "inception_3a/1x1"
}
layer {
  name: "inception_3a/3x3_reduce"
  type: "Convolution"
  bottom: "pool2/3x3_s2"
  top: "inception_3a/3x3_reduce"
  param {
    lr_mult: 1
    decay_mult: 1
  }
  param {
    lr_mult: 2
    decay_mult: 0
  }
  convolution_param {
    num_output: 96
    kernel_size: 1
    weight_filler {
      type: "xavier"
      std: 0.09
    }
    bias_filler {
      type: "constant"
      value: 0.2
    }
  }
}
layer {
  name: "inception_3a/relu_3x3_reduce"
  type: "ReLU"
  bottom: "inception_3a/3x3_reduce"
  top: "inception_3a/3x3_reduce"
}
layer {
  name: "inception_3a/3x3"
  type: "Convolution"
  bottom: "inception_3a/3x3_reduce"
  top: "inception_3a/3x3"
  param {
    lr_mult: 1
    decay_mult: 1
  }
  param {
    lr_mult: 2
    decay_mult: 0
  }
  convolution_param {
    num_output: 128
    pad: 1
    kernel_size: 3
    weight_filler {
      type: "xavier"
      std: 0.03
    }
    bias_filler {
      type: "constant"
      value: 0.2
    }
  }
}
layer {
  name: "inception_3a/relu_3x3"
  type: "ReLU"
  bottom: "inception_3a/3x3"
  top: "inception_3a/3x3"
}
layer {
  name: "inception_3a/5x5_reduce"
  type: "Convolution"
  bottom: "pool2/3x3_s2"
  top: "inception_3a/5x5_reduce"
  param {
    lr_mult: 1
    decay_mult: 1
  }
  param {
    lr_mult: 2
    decay_mult: 0
  }
  convolution_param {
    num_output: 16
    kernel_size: 1
    weight_filler {
      type: "xavier"
      std: 0.2
    }
    bias_filler {
      type: "constant"
      value: 0.2
    }
  }
}
layer {
  name: "inception_3a/relu_5x5_reduce"
  type: "ReLU"
  bottom: "inception_3a/5x5_reduce"
  top: "inception_3a/5x5_reduce"
}
layer {
  name: "inception_3a/5x5"
  type: "Convolution"
  bottom: "inception_3a/5x5_reduce"
  top: "inception_3a/5x5"
  param {
    lr_mult: 1
    decay_mult: 1
  }
  param {
    lr_mult: 2
    decay_mult: 0
  }
  convolution_param {
    num_output: 32
    pad: 2
    kernel_size: 5
    weight_filler {
      type: "xavier"
      std: 0.03
    }
    bias_filler {
      type: "constant"
      value: 0.2
    }
  }
}
layer {
  name: "inception_3a/relu_5x5"
  type: "ReLU"
  bottom: "inception_3a/5x5"
  top: "inception_3a/5x5"
}
layer {
  name: "inception_3a/pool"
  type: "Pooling"
  bottom: "pool2/3x3_s2"
  top: "inception_3a/pool"
  pooling_param {
    pool: MAX
    kernel_size: 3
    stride: 1
    pad: 1
  }
}
layer {
  name: "inception_3a/pool_proj"
  type: "Convolution"
  bottom: "inception_3a/pool"
  top: "inception_3a/pool_proj"
  param {
    lr_mult: 1
    decay_mult: 1
  }
  param {
    lr_mult: 2
    decay_mult: 0
  }
  convolution_param {
    num_output: 32
    kernel_size: 1
    weight_filler {
      type: "xavier"
      std: 0.1
    }
    bias_filler {
      type: "constant"
      value: 0.2
    }
  }
}
layer {
  name: "inception_3a/relu_pool_proj"
  type: "ReLU"
  bottom: "inception_3a/pool_proj"
  top: "inception_3a/pool_proj"
}
layer {
  name: "inception_3a/output"
  type: "Concat"
  bottom: "inception_3a/1x1"
  bottom: "inception_3a/3x3"
  bottom: "inception_3a/5x5"
  bottom: "inception_3a/pool_proj"
  top: "inception_3a/output"
}
layer {
  name: "inception_3b/1x1"
  type: "Convolution"
  bottom: "inception_3a/output"
  top: "inception_3b/1x1"
  param {
    lr_mult: 1
    decay_mult: 1
  }
  param {
    lr_mult: 2
    decay_mult: 0
  }
  convolution_param {
    num_output: 128
    kernel_size: 1
    weight_filler {
      type: "xavier"
      std: 0.03
    }
    bias_filler {
      type: "constant"
      value: 0.2
    }
  }
}
layer {
  name: "inception_3b/relu_1x1"
  type: "ReLU"
  bottom: "inception_3b/1x1"
  top: "inception_3b/1x1"
}
layer {
  name: "inception_3b/3x3_reduce"
  type: "Convolution"
  bottom: "inception_3a/output"
  top: "inception_3b/3x3_reduce"
  param {
    lr_mult: 1
    decay_mult: 1
  }
  param {
    lr_mult: 2
    decay_mult: 0
  }
  convolution_param {
    num_output: 128
    kernel_size: 1
    weight_filler {
      type: "xavier"
      std: 0.09
    }
    bias_filler {
      type: "constant"
      value: 0.2
    }
  }
}
layer {
  name: "inception_3b/relu_3x3_reduce"
  type: "ReLU"
  bottom: "inception_3b/3x3_reduce"
  top: "inception_3b/3x3_reduce"
}
layer {
  name: "inception_3b/3x3"
  type: "Convolution"
  bottom: "inception_3b/3x3_reduce"
  top: "inception_3b/3x3"
  param {
    lr_mult: 1
    decay_mult: 1
  }
  param {
    lr_mult: 2
    decay_mult: 0
  }
  convolution_param {
    num_output: 192
    pad: 1
    kernel_size: 3
    weight_filler {
      type: "xavier"
      std: 0.03
    }
    bias_filler {
      type: "constant"
      value: 0.2
    }
  }
}
layer {
  name: "inception_3b/relu_3x3"
  type: "ReLU"
  bottom: "inception_3b/3x3"
  top: "inception_3b/3x3"
}
layer {
  name: "inception_3b/5x5_reduce"
  type: "Convolution"
  bottom: "inception_3a/output"
  top: "inception_3b/5x5_reduce"
  param {
    lr_mult: 1
    decay_mult: 1
  }
  param {
    lr_mult: 2
    decay_mult: 0
  }
  convolution_param {
    num_output: 32
    kernel_size: 1
    weight_filler {
      type: "xavier"
      std: 0.2
    }
    bias_filler {
      type: "constant"
      value: 0.2
    }
  }
}
layer {
  name: "inception_3b/relu_5x5_reduce"
  type: "ReLU"
  bottom: "inception_3b/5x5_reduce"
  top: "inception_3b/5x5_reduce"
}
layer {
  name: "inception_3b/5x5"
  type: "Convolution"
  bottom: "inception_3b/5x5_reduce"
  top: "inception_3b/5x5"
  param {
    lr_mult: 1
    decay_mult: 1
  }
  param {
    lr_mult: 2
    decay_mult: 0
  }
  convolution_param {
    num_output: 96
    pad: 2
    kernel_size: 5
    weight_filler {
      type: "xavier"
      std: 0.03
    }
    bias_filler {
      type: "constant"
      value: 0.2
    }
  }
}
layer {
  name: "inception_3b/relu_5x5"
  type: "ReLU"
  bottom: "inception_3b/5x5"
  top: "inception_3b/5x5"
}
layer {
  name: "inception_3b/pool"
  type: "Pooling"
  bottom: "inception_3a/output"
  top: "inception_3b/pool"
  pooling_param {
    pool: MAX
    kernel_size: 3
    stride: 1
    pad: 1
  }
}
layer {
  name: "inception_3b/pool_proj"
  type: "Convolution"
  bottom: "inception_3b/pool"
  top: "inception_3b/pool_proj"
  param {
    lr_mult: 1
    decay_mult: 1
  }
  param {
    lr_mult: 2
    decay_mult: 0
  }
  convolution_param {
    num_output: 64
    kernel_size: 1
    weight_filler {
      type: "xavier"
      std: 0.1
    }
    bias_filler {
      type: "constant"
      value: 0.2
    }
  }
}
layer {
  name: "inception_3b/relu_pool_proj"
  type: "ReLU"
  bottom: "inception_3b/pool_proj"
  top: "inception_3b/pool_proj"
}
layer {
  name: "inception_3b/output"
  type: "Concat"
  bottom: "inception_3b/1x1"
  bottom: "inception_3b/3x3"
  bottom: "inception_3b/5x5"
  bottom: "inception_3b/pool_proj"
  top: "inception_3b/output"
}
layer {
  name: "pool3/3x3_s2"
  type: "Pooling"
  bottom: "inception_3b/output"
  top: "pool3/3x3_s2"
  pooling_param {
    pool: MAX
    kernel_size: 3
    stride: 2
  }
}
layer {
  name: "inception_4a/1x1"
  type: "Convolution"
  bottom: "pool3/3x3_s2"
  top: "inception_4a/1x1"
  param {
    lr_mult: 1
    decay_mult: 1
  }
  param {
    lr_mult: 2
    decay_mult: 0
  }
  convolution_param {
    num_output: 192
    kernel_size: 1
    weight_filler {
      type: "xavier"
      std: 0.03
    }
    bias_filler {
      type: "constant"
      value: 0.2
    }
  }
}
layer {
  name: "inception_4a/relu_1x1"
  type: "ReLU"
  bottom: "inception_4a/1x1"
  top: "inception_4a/1x1"
}
layer {
  name: "inception_4a/3x3_reduce"
  type: "Convolution"
  bottom: "pool3/3x3_s2"
  top: "inception_4a/3x3_reduce"
  param {
    lr_mult: 1
    decay_mult: 1
  }
  param {
    lr_mult: 2
    decay_mult: 0
  }
  convolution_param {
    num_output: 96
    kernel_size: 1
    weight_filler {
      type: "xavier"
      std: 0.09
    }
    bias_filler {
      type: "constant"
      value: 0.2
    }
  }
}
layer {
  name: "inception_4a/relu_3x3_reduce"
  type: "ReLU"
  bottom: "inception_4a/3x3_reduce"
  top: "inception_4a/3x3_reduce"
}
layer {
  name: "inception_4a/3x3"
  type: "Convolution"
  bottom: "inception_4a/3x3_reduce"
  top: "inception_4a/3x3"
  param {
    lr_mult: 1
    decay_mult: 1
  }
  param {
    lr_mult: 2
    decay_mult: 0
  }
  convolution_param {
    num_output: 208
    pad: 1
    kernel_size: 3
    weight_filler {
      type: "xavier"
      std: 0.03
    }
    bias_filler {
      type: "constant"
      value: 0.2
    }
  }
}
layer {
  name: "inception_4a/relu_3x3"
  type: "ReLU"
  bottom: "inception_4a/3x3"
  top: "inception_4a/3x3"
}
layer {
  name: "inception_4a/5x5_reduce"
  type: "Convolution"
  bottom: "pool3/3x3_s2"
  top: "inception_4a/5x5_reduce"
  param {
    lr_mult: 1
    decay_mult: 1
  }
  param {
    lr_mult: 2
    decay_mult: 0
  }
  convolution_param {
    num_output: 16
    kernel_size: 1
    weight_filler {
      type: "xavier"
      std: 0.2
    }
    bias_filler {
      type: "constant"
      value: 0.2
    }
  }
}
layer {
  name: "inception_4a/relu_5x5_reduce"
  type: "ReLU"
  bottom: "inception_4a/5x5_reduce"
  top: "inception_4a/5x5_reduce"
}
layer {
  name: "inception_4a/5x5"
  type: "Convolution"
  bottom: "inception_4a/5x5_reduce"
  top: "inception_4a/5x5"
  param {
    lr_mult: 1
    decay_mult: 1
  }
  param {
    lr_mult: 2
    decay_mult: 0
  }
  convolution_param {
    num_output: 48
    pad: 2
    kernel_size: 5
    weight_filler {
      type: "xavier"
      std: 0.03
    }
    bias_filler {
      type: "constant"
      value: 0.2
    }
  }
}
layer {
  name: "inception_4a/relu_5x5"
  type: "ReLU"
  bottom: "inception_4a/5x5"
  top: "inception_4a/5x5"
}
layer {
  name: "inception_4a/pool"
  type: "Pooling"
  bottom: "pool3/3x3_s2"
  top: "inception_4a/pool"
  pooling_param {
    pool: MAX
    kernel_size: 3
    stride: 1
    pad: 1
  }
}
layer {
  name: "inception_4a/pool_proj"
  type: "Convolution"
  bottom: "inception_4a/pool"
  top: "inception_4a/pool_proj"
  param {
    lr_mult: 1
    decay_mult: 1
  }
  param {
    lr_mult: 2
    decay_mult: 0
  }
  convolution_param {
    num_output: 64
    kernel_size: 1
    weight_filler {
      type: "xavier"
      std: 0.1
    }
    bias_filler {
      type: "constant"
      value: 0.2
    }
  }
}
layer {
  name: "inception_4a/relu_pool_proj"
  type: "ReLU"
  bottom: "inception_4a/pool_proj"
  top: "inception_4a/pool_proj"
}
layer {
  name: "inception_4a/output"
  type: "Concat"
  bottom: "inception_4a/1x1"
  bottom: "inception_4a/3x3"
  bottom: "inception_4a/5x5"
  bottom: "inception_4a/pool_proj"
  top: "inception_4a/output"
}
layer {
  name: "inception_4b/1x1"
  type: "Convolution"
  bottom: "inception_4a/output"
  top: "inception_4b/1x1"
  param {
    lr_mult: 1
    decay_mult: 1
  }
  param {
    lr_mult: 2
    decay_mult: 0
  }
  convolution_param {
    num_output: 160
    kernel_size: 1
    weight_filler {
      type: "xavier"
      std: 0.03
    }
    bias_filler {
      type: "constant"
      value: 0.2
    }
  }
}
layer {
  name: "inception_4b/relu_1x1"
  type: "ReLU"
  bottom: "inception_4b/1x1"
  top: "inception_4b/1x1"
}
layer {
  name: "inception_4b/3x3_reduce"
  type: "Convolution"
  bottom: "inception_4a/output"
  top: "inception_4b/3x3_reduce"
  param {
    lr_mult: 1
    decay_mult: 1
  }
  param {
    lr_mult: 2
    decay_mult: 0
  }
  convolution_param {
    num_output: 112
    kernel_size: 1
    weight_filler {
      type: "xavier"
      std: 0.09
    }
    bias_filler {
      type: "constant"
      value: 0.2
    }
  }
}
layer {
  name: "inception_4b/relu_3x3_reduce"
  type: "ReLU"
  bottom: "inception_4b/3x3_reduce"
  top: "inception_4b/3x3_reduce"
}
layer {
  name: "inception_4b/3x3"
  type: "Convolution"
  bottom: "inception_4b/3x3_reduce"
  top: "inception_4b/3x3"
  param {
    lr_mult: 1
    decay_mult: 1
  }
  param {
    lr_mult: 2
    decay_mult: 0
  }
  convolution_param {
    num_output: 224
    pad: 1
    kernel_size: 3
    weight_filler {
      type: "xavier"
      std: 0.03
    }
    bias_filler {
      type: "constant"
      value: 0.2
    }
  }
}
layer {
  name: "inception_4b/relu_3x3"
  type: "ReLU"
  bottom: "inception_4b/3x3"
  top: "inception_4b/3x3"
}
layer {
  name: "inception_4b/5x5_reduce"
  type: "Convolution"
  bottom: "inception_4a/output"
  top: "inception_4b/5x5_reduce"
  param {
    lr_mult: 1
    decay_mult: 1
  }
  param {
    lr_mult: 2
    decay_mult: 0
  }
  convolution_param {
    num_output: 24
    kernel_size: 1
    weight_filler {
      type: "xavier"
      std: 0.2
    }
    bias_filler {
      type: "constant"
      value: 0.2
    }
  }
}
layer {
  name: "inception_4b/relu_5x5_reduce"
  type: "ReLU"
  bottom: "inception_4b/5x5_reduce"
  top: "inception_4b/5x5_reduce"
}
layer {
  name: "inception_4b/5x5"
  type: "Convolution"
  bottom: "inception_4b/5x5_reduce"
  top: "inception_4b/5x5"
  param {
    lr_mult: 1
    decay_mult: 1
  }
  param {
    lr_mult: 2
    decay_mult: 0
  }
  convolution_param {
    num_output: 64
    pad: 2
    kernel_size: 5
    weight_filler {
      type: "xavier"
      std: 0.03
    }
    bias_filler {
      type: "constant"
      value: 0.2
    }
  }
}
layer {
  name: "inception_4b/relu_5x5"
  type: "ReLU"
  bottom: "inception_4b/5x5"
  top: "inception_4b/5x5"
}
layer {
  name: "inception_4b/pool"
  type: "Pooling"
  bottom: "inception_4a/output"
  top: "inception_4b/pool"
  pooling_param {
    pool: MAX
    kernel_size: 3
    stride: 1
    pad: 1
  }
}
layer {
  name: "inception_4b/pool_proj"
  type: "Convolution"
  bottom: "inception_4b/pool"
  top: "inception_4b/pool_proj"
  param {
    lr_mult: 1
    decay_mult: 1
  }
  param {
    lr_mult: 2
    decay_mult: 0
  }
  convolution_param {
    num_output: 64
    kernel_size: 1
    weight_filler {
      type: "xavier"
      std: 0.1
    }
    bias_filler {
      type: "constant"
      value: 0.2
    }
  }
}
layer {
  name: "inception_4b/relu_pool_proj"
  type: "ReLU"
  bottom: "inception_4b/pool_proj"
  top: "inception_4b/pool_proj"
}
layer {
  name: "inception_4b/output"
  type: "Concat"
  bottom: "inception_4b/1x1"
  bottom: "inception_4b/3x3"
  bottom: "inception_4b/5x5"
  bottom: "inception_4b/pool_proj"
  top: "inception_4b/output"
}
layer {
  name: "inception_4c/1x1"
  type: "Convolution"
  bottom: "inception_4b/output"
  top: "inception_4c/1x1"
  param {
    lr_mult: 1
    decay_mult: 1
  }
  param {
    lr_mult: 2
    decay_mult: 0
  }
  convolution_param {
    num_output: 128
    kernel_size: 1
    weight_filler {
      type: "xavier"
      std: 0.03
    }
    bias_filler {
      type: "constant"
      value: 0.2
    }
  }
}
layer {
  name: "inception_4c/relu_1x1"
  type: "ReLU"
  bottom: "inception_4c/1x1"
  top: "inception_4c/1x1"
}
layer {
  name: "inception_4c/3x3_reduce"
  type: "Convolution"
  bottom: "inception_4b/output"
  top: "inception_4c/3x3_reduce"
  param {
    lr_mult: 1
    decay_mult: 1
  }
  param {
    lr_mult: 2
    decay_mult: 0
  }
  convolution_param {
    num_output: 128
    kernel_size: 1
    weight_filler {
      type: "xavier"
      std: 0.09
    }
    bias_filler {
      type: "constant"
      value: 0.2
    }
  }
}
layer {
  name: "inception_4c/relu_3x3_reduce"
  type: "ReLU"
  bottom: "inception_4c/3x3_reduce"
  top: "inception_4c/3x3_reduce"
}
layer {
  name: "inception_4c/3x3"
  type: "Convolution"
  bottom: "inception_4c/3x3_reduce"
  top: "inception_4c/3x3"
  param {
    lr_mult: 1
    decay_mult: 1
  }
  param {
    lr_mult: 2
    decay_mult: 0
  }
  convolution_param {
    num_output: 256
    pad: 1
    kernel_size: 3
    weight_filler {
      type: "xavier"
      std: 0.03
    }
    bias_filler {
      type: "constant"
      value: 0.2
    }
  }
}
layer {
  name: "inception_4c/relu_3x3"
  type: "ReLU"
  bottom: "inception_4c/3x3"
  top: "inception_4c/3x3"
}
layer {
  name: "inception_4c/5x5_reduce"
  type: "Convolution"
  bottom: "inception_4b/output"
  top: "inception_4c/5x5_reduce"
  param {
    lr_mult: 1
    decay_mult: 1
  }
  param {
    lr_mult: 2
    decay_mult: 0
  }
  convolution_param {
    num_output: 24
    kernel_size: 1
    weight_filler {
      type: "xavier"
      std: 0.2
    }
    bias_filler {
      type: "constant"
      value: 0.2
    }
  }
}
layer {
  name: "inception_4c/relu_5x5_reduce"
  type: "ReLU"
  bottom: "inception_4c/5x5_reduce"
  top: "inception_4c/5x5_reduce"
}
layer {
  name: "inception_4c/5x5"
  type: "Convolution"
  bottom: "inception_4c/5x5_reduce"
  top: "inception_4c/5x5"
  param {
    lr_mult: 1
    decay_mult: 1
  }
  param {
    lr_mult: 2
    decay_mult: 0
  }
  convolution_param {
    num_output: 64
    pad: 2
    kernel_size: 5
    weight_filler {
      type: "xavier"
      std: 0.03
    }
    bias_filler {
      type: "constant"
      value: 0.2
    }
  }
}
layer {
  name: "inception_4c/relu_5x5"
  type: "ReLU"
  bottom: "inception_4c/5x5"
  top: "inception_4c/5x5"
}
layer {
  name: "inception_4c/pool"
  type: "Pooling"
  bottom: "inception_4b/output"
  top: "inception_4c/pool"
  pooling_param {
    pool: MAX
    kernel_size: 3
    stride: 1
    pad: 1
  }
}
layer {
  name: "inception_4c/pool_proj"
  type: "Convolution"
  bottom: "inception_4c/pool"
  top: "inception_4c/pool_proj"
  param {
    lr_mult: 1
    decay_mult: 1
  }
  param {
    lr_mult: 2
    decay_mult: 0
  }
  convolution_param {
    num_output: 64
    kernel_size: 1
    weight_filler {
      type: "xavier"
      std: 0.1
    }
    bias_filler {
      type: "constant"
      value: 0.2
    }
  }
}
layer {
  name: "inception_4c/relu_pool_proj"
  type: "ReLU"
  bottom: "inception_4c/pool_proj"
  top: "inception_4c/pool_proj"
}
layer {
  name: "inception_4c/output"
  type: "Concat"
  bottom: "inception_4c/1x1"
  bottom: "inception_4c/3x3"
  bottom: "inception_4c/5x5"
  bottom: "inception_4c/pool_proj"
  top: "inception_4c/output"
}
layer {
  name: "inception_4d/1x1"
  type: "Convolution"
  bottom: "inception_4c/output"
  top: "inception_4d/1x1"
  param {
    lr_mult: 1
    decay_mult: 1
  }
  param {
    lr_mult: 2
    decay_mult: 0
  }
  convolution_param {
    num_output: 112
    kernel_size: 1
    weight_filler {
      type: "xavier"
      std: 0.03
    }
    bias_filler {
      type: "constant"
      value: 0.2
    }
  }
}
layer {
  name: "inception_4d/relu_1x1"
  type: "ReLU"
  bottom: "inception_4d/1x1"
  top: "inception_4d/1x1"
}
layer {
  name: "inception_4d/3x3_reduce"
  type: "Convolution"
  bottom: "inception_4c/output"
  top: "inception_4d/3x3_reduce"
  param {
    lr_mult: 1
    decay_mult: 1
  }
  param {
    lr_mult: 2
    decay_mult: 0
  }
  convolution_param {
    num_output: 144
    kernel_size: 1
    weight_filler {
      type: "xavier"
      std: 0.09
    }
    bias_filler {
      type: "constant"
      value: 0.2
    }
  }
}
layer {
  name: "inception_4d/relu_3x3_reduce"
  type: "ReLU"
  bottom: "inception_4d/3x3_reduce"
  top: "inception_4d/3x3_reduce"
}
layer {
  name: "inception_4d/3x3"
  type: "Convolution"
  bottom: "inception_4d/3x3_reduce"
  top: "inception_4d/3x3"
  param {
    lr_mult: 1
    decay_mult: 1
  }
  param {
    lr_mult: 2
    decay_mult: 0
  }
  convolution_param {
    num_output: 288
    pad: 1
    kernel_size: 3
    weight_filler {
      type: "xavier"
      std: 0.03
    }
    bias_filler {
      type: "constant"
      value: 0.2
    }
  }
}
layer {
  name: "inception_4d/relu_3x3"
  type: "ReLU"
  bottom: "inception_4d/3x3"
  top: "inception_4d/3x3"
}
layer {
  name: "inception_4d/5x5_reduce"
  type: "Convolution"
  bottom: "inception_4c/output"
  top: "inception_4d/5x5_reduce"
  param {
    lr_mult: 1
    decay_mult: 1
  }
  param {
    lr_mult: 2
    decay_mult: 0
  }
  convolution_param {
    num_output: 32
    kernel_size: 1
    weight_filler {
      type: "xavier"
      std: 0.2
    }
    bias_filler {
      type: "constant"
      value: 0.2
    }
  }
}
layer {
  name: "inception_4d/relu_5x5_reduce"
  type: "ReLU"
  bottom: "inception_4d/5x5_reduce"
  top: "inception_4d/5x5_reduce"
}
layer {
  name: "inception_4d/5x5"
  type: "Convolution"
  bottom: "inception_4d/5x5_reduce"
  top: "inception_4d/5x5"
  param {
    lr_mult: 1
    decay_mult: 1
  }
  param {
    lr_mult: 2
    decay_mult: 0
  }
  convolution_param {
    num_output: 64
    pad: 2
    kernel_size: 5
    weight_filler {
      type: "xavier"
      std: 0.03
    }
    bias_filler {
      type: "constant"
      value: 0.2
    }
  }
}
layer {
  name: "inception_4d/relu_5x5"
  type: "ReLU"
  bottom: "inception_4d/5x5"
  top: "inception_4d/5x5"
}
layer {
  name: "inception_4d/pool"
  type: "Pooling"
  bottom: "inception_4c/output"
  top: "inception_4d/pool"
  pooling_param {
    pool: MAX
    kernel_size: 3
    stride: 1
    pad: 1
  }
}
layer {
  name: "inception_4d/pool_proj"
  type: "Convolution"
  bottom: "inception_4d/pool"
  top: "inception_4d/pool_proj"
  param {
    lr_mult: 1
    decay_mult: 1
  }
  param {
    lr_mult: 2
    decay_mult: 0
  }
  convolution_param {
    num_output: 64
    kernel_size: 1
    weight_filler {
      type: "xavier"
      std: 0.1
    }
    bias_filler {
      type: "constant"
      value: 0.2
    }
  }
}
layer {
  name: "inception_4d/relu_pool_proj"
  type: "ReLU"
  bottom: "inception_4d/pool_proj"
  top: "inception_4d/pool_proj"
}
layer {
  name: "inception_4d/output"
  type: "Concat"
  bottom: "inception_4d/1x1"
  bottom: "inception_4d/3x3"
  bottom: "inception_4d/5x5"
  bottom: "inception_4d/pool_proj"
  top: "inception_4d/output"
}
layer {
  name: "inception_4e/1x1"
  type: "Convolution"
  bottom: "inception_4d/output"
  top: "inception_4e/1x1"
  param {
    lr_mult: 1
    decay_mult: 1
  }
  param {
    lr_mult: 2
    decay_mult: 0
  }
  convolution_param {
    num_output: 256
    kernel_size: 1
    weight_filler {
      type: "xavier"
      std: 0.03
    }
    bias_filler {
      type: "constant"
      value: 0.2
    }
  }
}
layer {
  name: "inception_4e/relu_1x1"
  type: "ReLU"
  bottom: "inception_4e/1x1"
  top: "inception_4e/1x1"
}
layer {
  name: "inception_4e/3x3_reduce"
  type: "Convolution"
  bottom: "inception_4d/output"
  top: "inception_4e/3x3_reduce"
  param {
    lr_mult: 1
    decay_mult: 1
  }
  param {
    lr_mult: 2
    decay_mult: 0
  }
  convolution_param {
    num_output: 160
    kernel_size: 1
    weight_filler {
      type: "xavier"
      std: 0.09
    }
    bias_filler {
      type: "constant"
      value: 0.2
    }
  }
}
layer {
  name: "inception_4e/relu_3x3_reduce"
  type: "ReLU"
  bottom: "inception_4e/3x3_reduce"
  top: "inception_4e/3x3_reduce"
}
layer {
  name: "inception_4e/3x3"
  type: "Convolution"
  bottom: "inception_4e/3x3_reduce"
  top: "inception_4e/3x3"
  param {
    lr_mult: 1
    decay_mult: 1
  }
  param {
    lr_mult: 2
    decay_mult: 0
  }
  convolution_param {
    num_output: 320
    pad: 1
    kernel_size: 3
    weight_filler {
      type: "xavier"
      std: 0.03
    }
    bias_filler {
      type: "constant"
      value: 0.2
    }
  }
}
layer {
  name: "inception_4e/relu_3x3"
  type: "ReLU"
  bottom: "inception_4e/3x3"
  top: "inception_4e/3x3"
}
layer {
  name: "inception_4e/5x5_reduce"
  type: "Convolution"
  bottom: "inception_4d/output"
  top: "inception_4e/5x5_reduce"
  param {
    lr_mult: 1
    decay_mult: 1
  }
  param {
    lr_mult: 2
    decay_mult: 0
  }
  convolution_param {
    num_output: 32
    kernel_size: 1
    weight_filler {
      type: "xavier"
      std: 0.2
    }
    bias_filler {
      type: "constant"
      value: 0.2
    }
  }
}
layer {
  name: "inception_4e/relu_5x5_reduce"
  type: "ReLU"
  bottom: "inception_4e/5x5_reduce"
  top: "inception_4e/5x5_reduce"
}
layer {
  name: "inception_4e/5x5"
  type: "Convolution"
  bottom: "inception_4e/5x5_reduce"
  top: "inception_4e/5x5"
  param {
    lr_mult: 1
    decay_mult: 1
  }
  param {
    lr_mult: 2
    decay_mult: 0
  }
  convolution_param {
    num_output: 128
    pad: 2
    kernel_size: 5
    weight_filler {
      type: "xavier"
      std: 0.03
    }
    bias_filler {
      type: "constant"
      value: 0.2
    }
  }
}
layer {
  name: "inception_4e/relu_5x5"
  type: "ReLU"
  bottom: "inception_4e/5x5"
  top: "inception_4e/5x5"
}
layer {
  name: "inception_4e/pool"
  type: "Pooling"
  bottom: "inception_4d/output"
  top: "inception_4e/pool"
  pooling_param {
    pool: MAX
    kernel_size: 3
    stride: 1
    pad: 1
  }
}
layer {
  name: "inception_4e/pool_proj"
  type: "Convolution"
  bottom: "inception_4e/pool"
  top: "inception_4e/pool_proj"
  param {
    lr_mult: 1
    decay_mult: 1
  }
  param {
    lr_mult: 2
    decay_mult: 0
  }
  convolution_param {
    num_output: 128
    kernel_size: 1
    weight_filler {
      type: "xavier"
      std: 0.1
    }
    bias_filler {
      type: "constant"
      value: 0.2
    }
  }
}
layer {
  name: "inception_4e/relu_pool_proj"
  type: "ReLU"
  bottom: "inception_4e/pool_proj"
  top: "inception_4e/pool_proj"
}
layer {
  name: "inception_4e/output"
  type: "Concat"
  bottom: "inception_4e/1x1"
  bottom: "inception_4e/3x3"
  bottom: "inception_4e/5x5"
  bottom: "inception_4e/pool_proj"
  top: "inception_4e/output"
}
layer {
  name: "pool4/3x3_s2"
  type: "Pooling"
  bottom: "inception_4e/output"
  top: "pool4/3x3_s2"
  pooling_param {
    pool: MAX
    kernel_size: 3
    stride: 2
  }
}
layer {
  name: "inception_5a/1x1"
  type: "Convolution"
  bottom: "pool4/3x3_s2"
  top: "inception_5a/1x1"
  param {
    lr_mult: 1
    decay_mult: 1
  }
  param {
    lr_mult: 2
    decay_mult: 0
  }
  convolution_param {
    num_output: 256
    kernel_size: 1
    weight_filler {
      type: "xavier"
      std: 0.03
    }
    bias_filler {
      type: "constant"
      value: 0.2
    }
  }
}
layer {
  name: "inception_5a/relu_1x1"
  type: "ReLU"
  bottom: "inception_5a/1x1"
  top: "inception_5a/1x1"
}
layer {
  name: "inception_5a/3x3_reduce"
  type: "Convolution"
  bottom: "pool4/3x3_s2"
  top: "inception_5a/3x3_reduce"
  param {
    lr_mult: 1
    decay_mult: 1
  }
  param {
    lr_mult: 2
    decay_mult: 0
  }
  convolution_param {
    num_output: 160
    kernel_size: 1
    weight_filler {
      type: "xavier"
      std: 0.09
    }
    bias_filler {
      type: "constant"
      value: 0.2
    }
  }
}
layer {
  name: "inception_5a/relu_3x3_reduce"
  type: "ReLU"
  bottom: "inception_5a/3x3_reduce"
  top: "inception_5a/3x3_reduce"
}
layer {
  name: "inception_5a/3x3"
  type: "Convolution"
  bottom: "inception_5a/3x3_reduce"
  top: "inception_5a/3x3"
  param {
    lr_mult: 1
    decay_mult: 1
  }
  param {
    lr_mult: 2
    decay_mult: 0
  }
  convolution_param {
    num_output: 320
    pad: 1
    kernel_size: 3
    weight_filler {
      type: "xavier"
      std: 0.03
    }
    bias_filler {
      type: "constant"
      value: 0.2
    }
  }
}
layer {
  name: "inception_5a/relu_3x3"
  type: "ReLU"
  bottom: "inception_5a/3x3"
  top: "inception_5a/3x3"
}
layer {
  name: "inception_5a/5x5_reduce"
  type: "Convolution"
  bottom: "pool4/3x3_s2"
  top: "inception_5a/5x5_reduce"
  param {
    lr_mult: 1
    decay_mult: 1
  }
  param {
    lr_mult: 2
    decay_mult: 0
  }
  convolution_param {
    num_output: 32
    kernel_size: 1
    weight_filler {
      type: "xavier"
      std: 0.2
    }
    bias_filler {
      type: "constant"
      value: 0.2
    }
I0714 22:13:55.045593 26661 layer_factory.hpp:77] Creating layer data
I0714 22:13:55.045631 26661 net.cpp:91] Creating Layer data
I0714 22:13:55.045650 26661 net.cpp:399] data -> data
I0714 22:13:55.056486 26657 net.cpp:49] Initializing net from parameters: 
name: "GoogleNet"
state {
  phase: TEST
}
layer {
  name: "data"
  type: "Input"
  top: "data"
  input_param {
    shape {
      dim: 10
      dim: 3
      dim: 224
      dim: 224
    }
  }
}
layer {
  name: "conv1/7x7_s2"
  type: "Convolution"
  bottom: "data"
  top: "conv1/7x7_s2"
  param {
    lr_mult: 1
    decay_mult: 1
  }
  param {
    lr_mult: 2
    decay_mult: 0
  }
  convolution_param {
    num_output: 64
    pad: 3
    kernel_size: 7
    stride: 2
    weight_filler {
      type: "xavier"
      std: 0.1
    }
    bias_filler {
      type: "constant"
      value: 0.2
    }
  }
}
layer {
  name: "conv1/relu_7x7"
  type: "ReLU"
  bottom: "conv1/7x7_s2"
  top: "conv1/7x7_s2"
}
layer {
  name: "pool1/3x3_s2"
  type: "Pooling"
  bottom: "conv1/7x7_s2"
  top: "pool1/3x3_s2"
  pooling_param {
    pool: MAX
    kernel_size: 3
    stride: 2
  }
}
layer {
  name: "pool1/norm1"
  type: "LRN"
  bottom: "pool1/3x3_s2"
  top: "pool1/norm1"
  lrn_param {
    local_size: 5
    alpha: 0.0001
    beta: 0.75
  }
}
layer {
  name: "conv2/3x3_reduce"
  type: "Convolution"
  bottom: "pool1/norm1"
  top: "conv2/3x3_reduce"
  param {
    lr_mult: 1
    decay_mult: 1
  }
  param {
    lr_mult: 2
    decay_mult: 0
  }
  convolution_param {
    num_output: 64
    kernel_size: 1
    weight_filler {
      type: "xavier"
      std: 0.1
    }
    bias_filler {
      type: "constant"
      value: 0.2
    }
  }
}
layer {
  name: "conv2/relu_3x3_reduce"
  type: "ReLU"
  bottom: "conv2/3x3_reduce"
  top: "conv2/3x3_reduce"
}
layer {
  name: "conv2/3x3"
  type: "Convolution"
  bottom: "conv2/3x3_reduce"
  top: "conv2/3x3"
  param {
    lr_mult: 1
    decay_mult: 1
  }
  param {
    lr_mult: 2
    decay_mult: 0
  }
  convolution_param {
    num_output: 192
    pad: 1
    kernel_size: 3
    weight_filler {
      type: "xavier"
      std: 0.03
    }
    bias_filler {
      type: "constant"
      value: 0.2
    }
  }
}
layer {
  name: "conv2/relu_3x3"
  type: "ReLU"
  bottom: "conv2/3x3"
  top: "conv2/3x3"
}
layer {
  name: "conv2/norm2"
  type: "LRN"
  bottom: "conv2/3x3"
  top: "conv2/norm2"
  lrn_param {
    local_size: 5
    alpha: 0.0001
    beta: 0.75
  }
}
layer {
  name: "pool2/3x3_s2"
  type: "Pooling"
  bottom: "conv2/norm2"
  top: "pool2/3x3_s2"
  pooling_param {
    pool: MAX
    kernel_size: 3
    stride: 2
  }
}
layer {
  name: "inception_3a/1x1"
  type: "Convolution"
  bottom: "pool2/3x3_s2"
  top: "inception_3a/1x1"
  param {
    lr_mult: 1
    decay_mult: 1
  }
  param {
    lr_mult: 2
    decay_mult: 0
  }
  convolution_param {
    num_output: 64
    kernel_size: 1
    weight_filler {
      type: "xavier"
      std: 0.03
    }
    bias_filler {
      type: "constant"
      value: 0.2
    }
  }
}
layer {
  name: "inception_3a/relu_1x1"
  type: "ReLU"
  bottom: "inception_3a/1x1"
  top: "inception_3a/1x1"
}
layer {
  name: "inception_3a/3x3_reduce"
  type: "Convolution"
  bottom: "pool2/3x3_s2"
  top: "inception_3a/3x3_reduce"
  param {
    lr_mult: 1
    decay_mult: 1
  }
  param {
    lr_mult: 2
    decay_mult: 0
  }
  convolution_param {
    num_output: 96
    kernel_size: 1
    weight_filler {
      type: "xavier"
      std: 0.09
    }
    bias_filler {
      type: "constant"
      value: 0.2
    }
  }
}
layer {
  name: "inception_3a/relu_3x3_reduce"
  type: "ReLU"
  bottom: "inception_3a/3x3_reduce"
  top: "inception_3a/3x3_reduce"
}
layer {
  name: "inception_3a/3x3"
  type: "Convolution"
  bottom: "inception_3a/3x3_reduce"
  top: "inception_3a/3x3"
  param {
    lr_mult: 1
    decay_mult: 1
  }
  param {
    lr_mult: 2
    decay_mult: 0
  }
  convolution_param {
    num_output: 128
    pad: 1
    kernel_size: 3
    weight_filler {
      type: "xavier"
      std: 0.03
    }
    bias_filler {
      type: "constant"
      value: 0.2
    }
  }
}
layer {
  name: "inception_3a/relu_3x3"
  type: "ReLU"
  bottom: "inception_3a/3x3"
  top: "inception_3a/3x3"
}
layer {
  name: "inception_3a/5x5_reduce"
  type: "Convolution"
  bottom: "pool2/3x3_s2"
  top: "inception_3a/5x5_reduce"
  param {
    lr_mult: 1
    decay_mult: 1
  }
  param {
    lr_mult: 2
    decay_mult: 0
  }
  convolution_param {
    num_output: 16
    kernel_size: 1
    weight_filler {
      type: "xavier"
      std: 0.2
    }
    bias_filler {
      type: "constant"
      value: 0.2
    }
  }
}
layer {
  name: "inception_3a/relu_5x5_reduce"
  type: "ReLU"
  bottom: "inception_3a/5x5_reduce"
  top: "inception_3a/5x5_reduce"
}
layer {
  name: "inception_3a/5x5"
  type: "Convolution"
  bottom: "inception_3a/5x5_reduce"
  top: "inception_3a/5x5"
  param {
    lr_mult: 1
    decay_mult: 1
  }
  param {
    lr_mult: 2
    decay_mult: 0
  }
  convolution_param {
    num_output: 32
    pad: 2
    kernel_size: 5
    weight_filler {
      type: "xavier"
      std: 0.03
    }
    bias_filler {
      type: "constant"
      value: 0.2
    }
  }
}
layer {
  name: "inception_3a/relu_5x5"
  type: "ReLU"
  bottom: "inception_3a/5x5"
  top: "inception_3a/5x5"
}
layer {
  name: "inception_3a/pool"
  type: "Pooling"
  bottom: "pool2/3x3_s2"
  top: "inception_3a/pool"
  pooling_param {
    pool: MAX
    kernel_size: 3
    stride: 1
    pad: 1
  }
}
layer {
  name: "inception_3a/pool_proj"
  type: "Convolution"
  bottom: "inception_3a/pool"
  top: "inception_3a/pool_proj"
  param {
    lr_mult: 1
    decay_mult: 1
  }
  param {
    lr_mult: 2
    decay_mult: 0
  }
  convolution_param {
    num_output: 32
    kernel_size: 1
    weight_filler {
      type: "xavier"
      std: 0.1
    }
    bias_filler {
      type: "constant"
      value: 0.2
    }
  }
}
layer {
  name: "inception_3a/relu_pool_proj"
  type: "ReLU"
  bottom: "inception_3a/pool_proj"
  top: "inception_3a/pool_proj"
}
layer {
  name: "inception_3a/output"
  type: "Concat"
  bottom: "inception_3a/1x1"
  bottom: "inception_3a/3x3"
  bottom: "inception_3a/5x5"
  bottom: "inception_3a/pool_proj"
  top: "inception_3a/output"
}
layer {
  name: "inception_3b/1x1"
  type: "Convolution"
  bottom: "inception_3a/output"
  top: "inception_3b/1x1"
  param {
    lr_mult: 1
    decay_mult: 1
  }
  param {
    lr_mult: 2
    decay_mult: 0
  }
  convolution_param {
    num_output: 128
    kernel_size: 1
    weight_filler {
      type: "xavier"
      std: 0.03
    }
    bias_filler {
      type: "constant"
      value: 0.2
    }
  }
}
layer {
  name: "inception_3b/relu_1x1"
  type: "ReLU"
  bottom: "inception_3b/1x1"
  top: "inception_3b/1x1"
}
layer {
  name: "inception_3b/3x3_reduce"
  type: "Convolution"
  bottom: "inception_3a/output"
  top: "inception_3b/3x3_reduce"
  param {
    lr_mult: 1
    decay_mult: 1
  }
  param {
    lr_mult: 2
    decay_mult: 0
  }
  convolution_param {
    num_output: 128
    kernel_size: 1
    weight_filler {
      type: "xavier"
      std: 0.09
    }
    bias_filler {
      type: "constant"
      value: 0.2
    }
  }
}
layer {
  name: "inception_3b/relu_3x3_reduce"
  type: "ReLU"
  bottom: "inception_3b/3x3_reduce"
  top: "inception_3b/3x3_reduce"
}
layer {
  name: "inception_3b/3x3"
  type: "Convolution"
  bottom: "inception_3b/3x3_reduce"
  top: "inception_3b/3x3"
  param {
    lr_mult: 1
    decay_mult: 1
  }
  param {
    lr_mult: 2
    decay_mult: 0
  }
  convolution_param {
    num_output: 192
    pad: 1
    kernel_size: 3
    weight_filler {
      type: "xavier"
      std: 0.03
    }
    bias_filler {
      type: "constant"
      value: 0.2
    }
  }
}
layer {
  name: "inception_3b/relu_3x3"
  type: "ReLU"
  bottom: "inception_3b/3x3"
  top: "inception_3b/3x3"
}
layer {
  name: "inception_3b/5x5_reduce"
  type: "Convolution"
  bottom: "inception_3a/output"
  top: "inception_3b/5x5_reduce"
  param {
    lr_mult: 1
    decay_mult: 1
  }
  param {
    lr_mult: 2
    decay_mult: 0
  }
  convolution_param {
    num_output: 32
    kernel_size: 1
    weight_filler {
      type: "xavier"
      std: 0.2
    }
    bias_filler {
      type: "constant"
      value: 0.2
    }
  }
}
layer {
  name: "inception_3b/relu_5x5_reduce"
  type: "ReLU"
  bottom: "inception_3b/5x5_reduce"
  top: "inception_3b/5x5_reduce"
}
layer {
  name: "inception_3b/5x5"
  type: "Convolution"
  bottom: "inception_3b/5x5_reduce"
  top: "inception_3b/5x5"
  param {
    lr_mult: 1
    decay_mult: 1
  }
  param {
    lr_mult: 2
    decay_mult: 0
  }
  convolution_param {
    num_output: 96
    pad: 2
    kernel_size: 5
    weight_filler {
      type: "xavier"
      std: 0.03
    }
    bias_filler {
      type: "constant"
      value: 0.2
    }
  }
}
layer {
  name: "inception_3b/relu_5x5"
  type: "ReLU"
  bottom: "inception_3b/5x5"
  top: "inception_3b/5x5"
}
layer {
  name: "inception_3b/pool"
  type: "Pooling"
  bottom: "inception_3a/output"
  top: "inception_3b/pool"
  pooling_param {
    pool: MAX
    kernel_size: 3
    stride: 1
    pad: 1
  }
}
layer {
  name: "inception_3b/pool_proj"
  type: "Convolution"
  bottom: "inception_3b/pool"
  top: "inception_3b/pool_proj"
  param {
    lr_mult: 1
    decay_mult: 1
  }
  param {
    lr_mult: 2
    decay_mult: 0
  }
  convolution_param {
    num_output: 64
    kernel_size: 1
    weight_filler {
      type: "xavier"
      std: 0.1
    }
    bias_filler {
      type: "constant"
      value: 0.2
    }
  }
}
layer {
  name: "inception_3b/relu_pool_proj"
  type: "ReLU"
  bottom: "inception_3b/pool_proj"
  top: "inception_3b/pool_proj"
}
layer {
  name: "inception_3b/output"
  type: "Concat"
  bottom: "inception_3b/1x1"
  bottom: "inception_3b/3x3"
  bottom: "inception_3b/5x5"
  bottom: "inception_3b/pool_proj"
  top: "inception_3b/output"
}
layer {
  name: "pool3/3x3_s2"
  type: "Pooling"
  bottom: "inception_3b/output"
  top: "pool3/3x3_s2"
  pooling_param {
    pool: MAX
    kernel_size: 3
    stride: 2
  }
}
layer {
  name: "inception_4a/1x1"
  type: "Convolution"
  bottom: "pool3/3x3_s2"
  top: "inception_4a/1x1"
  param {
    lr_mult: 1
    decay_mult: 1
  }
  param {
    lr_mult: 2
    decay_mult: 0
  }
  convolution_param {
    num_output: 192
    kernel_size: 1
    weight_filler {
      type: "xavier"
      std: 0.03
    }
    bias_filler {
      type: "constant"
      value: 0.2
    }
  }
}
layer {
  name: "inception_4a/relu_1x1"
  type: "ReLU"
  bottom: "inception_4a/1x1"
  top: "inception_4a/1x1"
}
layer {
  name: "inception_4a/3x3_reduce"
  type: "Convolution"
  bottom: "pool3/3x3_s2"
  top: "inception_4a/3x3_reduce"
  param {
    lr_mult: 1
    decay_mult: 1
  }
  param {
    lr_mult: 2
    decay_mult: 0
  }
  convolution_param {
    num_output: 96
    kernel_size: 1
    weight_filler {
      type: "xavier"
      std: 0.09
    }
    bias_filler {
      type: "constant"
      value: 0.2
    }
  }
}
layer {
  name: "inception_4a/relu_3x3_reduce"
  type: "ReLU"
  bottom: "inception_4a/3x3_reduce"
  top: "inception_4a/3x3_reduce"
}
layer {
  name: "inception_4a/3x3"
  type: "Convolution"
  bottom: "inception_4a/3x3_reduce"
  top: "inception_4a/3x3"
  param {
    lr_mult: 1
    decay_mult: 1
  }
  param {
    lr_mult: 2
    decay_mult: 0
  }
  convolution_param {
    num_output: 208
    pad: 1
    kernel_size: 3
    weight_filler {
      type: "xavier"
      std: 0.03
    }
    bias_filler {
      type: "constant"
      value: 0.2
    }
  }
}
layer {
  name: "inception_4a/relu_3x3"
  type: "ReLU"
  bottom: "inception_4a/3x3"
  top: "inception_4a/3x3"
}
layer {
  name: "inception_4a/5x5_reduce"
  type: "Convolution"
  bottom: "pool3/3x3_s2"
  top: "inception_4a/5x5_reduce"
  param {
    lr_mult: 1
    decay_mult: 1
  }
  param {
    lr_mult: 2
    decay_mult: 0
  }
  convolution_param {
    num_output: 16
    kernel_size: 1
    weight_filler {
      type: "xavier"
      std: 0.2
    }
    bias_filler {
      type: "constant"
      value: 0.2
    }
  }
}
layer {
  name: "inception_4a/relu_5x5_reduce"
  type: "ReLU"
  bottom: "inception_4a/5x5_reduce"
  top: "inception_4a/5x5_reduce"
}
layer {
  name: "inception_4a/5x5"
  type: "Convolution"
  bottom: "inception_4a/5x5_reduce"
  top: "inception_4a/5x5"
  param {
    lr_mult: 1
    decay_mult: 1
  }
  param {
    lr_mult: 2
    decay_mult: 0
  }
  convolution_param {
    num_output: 48
    pad: 2
    kernel_size: 5
    weight_filler {
      type: "xavier"
      std: 0.03
    }
    bias_filler {
      type: "constant"
      value: 0.2
    }
  }
}
layer {
  name: "inception_4a/relu_5x5"
  type: "ReLU"
  bottom: "inception_4a/5x5"
  top: "inception_4a/5x5"
}
layer {
  name: "inception_4a/pool"
  type: "Pooling"
  bottom: "pool3/3x3_s2"
  top: "inception_4a/pool"
  pooling_param {
    pool: MAX
    kernel_size: 3
    stride: 1
    pad: 1
  }
}
layer {
  name: "inception_4a/pool_proj"
  type: "Convolution"
  bottom: "inception_4a/pool"
  top: "inception_4a/pool_proj"
  param {
    lr_mult: 1
    decay_mult: 1
  }
  param {
    lr_mult: 2
    decay_mult: 0
  }
  convolution_param {
    num_output: 64
    kernel_size: 1
    weight_filler {
      type: "xavier"
      std: 0.1
    }
    bias_filler {
      type: "constant"
      value: 0.2
    }
  }
}
layer {
  name: "inception_4a/relu_pool_proj"
  type: "ReLU"
  bottom: "inception_4a/pool_proj"
  top: "inception_4a/pool_proj"
}
layer {
  name: "inception_4a/output"
  type: "Concat"
  bottom: "inception_4a/1x1"
  bottom: "inception_4a/3x3"
  bottom: "inception_4a/5x5"
  bottom: "inception_4a/pool_proj"
  top: "inception_4a/output"
}
layer {
  name: "inception_4b/1x1"
  type: "Convolution"
  bottom: "inception_4a/output"
  top: "inception_4b/1x1"
  param {
    lr_mult: 1
    decay_mult: 1
  }
  param {
    lr_mult: 2
    decay_mult: 0
  }
  convolution_param {
    num_output: 160
    kernel_size: 1
    weight_filler {
      type: "xavier"
      std: 0.03
    }
    bias_filler {
      type: "constant"
      value: 0.2
    }
  }
}
layer {
  name: "inception_4b/relu_1x1"
  type: "ReLU"
  bottom: "inception_4b/1x1"
  top: "inception_4b/1x1"
}
layer {
  name: "inception_4b/3x3_reduce"
  type: "Convolution"
  bottom: "inception_4a/output"
  top: "inception_4b/3x3_reduce"
  param {
    lr_mult: 1
    decay_mult: 1
  }
  param {
    lr_mult: 2
    decay_mult: 0
  }
  convolution_param {
    num_output: 112
    kernel_size: 1
    weight_filler {
      type: "xavier"
      std: 0.09
    }
    bias_filler {
      type: "constant"
      value: 0.2
    }
  }
}
layer {
  name: "inception_4b/relu_3x3_reduce"
  type: "ReLU"
  bottom: "inception_4b/3x3_reduce"
  top: "inception_4b/3x3_reduce"
}
layer {
  name: "inception_4b/3x3"
  type: "Convolution"
  bottom: "inception_4b/3x3_reduce"
  top: "inception_4b/3x3"
  param {
    lr_mult: 1
    decay_mult: 1
  }
  param {
    lr_mult: 2
    decay_mult: 0
  }
  convolution_param {
    num_output: 224
    pad: 1
    kernel_size: 3
    weight_filler {
      type: "xavier"
      std: 0.03
    }
    bias_filler {
      type: "constant"
      value: 0.2
    }
  }
}
layer {
  name: "inception_4b/relu_3x3"
  type: "ReLU"
  bottom: "inception_4b/3x3"
  top: "inception_4b/3x3"
}
layer {
  name: "inception_4b/5x5_reduce"
  type: "Convolution"
  bottom: "inception_4a/output"
  top: "inception_4b/5x5_reduce"
  param {
    lr_mult: 1
    decay_mult: 1
  }
  param {
    lr_mult: 2
    decay_mult: 0
  }
  convolution_param {
    num_output: 24
    kernel_size: 1
    weight_filler {
      type: "xavier"
      std: 0.2
    }
    bias_filler {
      type: "constant"
      value: 0.2
    }
  }
}
layer {
  name: "inception_4b/relu_5x5_reduce"
  type: "ReLU"
  bottom: "inception_4b/5x5_reduce"
  top: "inception_4b/5x5_reduce"
}
layer {
  name: "inception_4b/5x5"
  type: "Convolution"
  bottom: "inception_4b/5x5_reduce"
  top: "inception_4b/5x5"
  param {
    lr_mult: 1
    decay_mult: 1
  }
  param {
    lr_mult: 2
    decay_mult: 0
  }
  convolution_param {
    num_output: 64
    pad: 2
    kernel_size: 5
    weight_filler {
      type: "xavier"
      std: 0.03
    }
    bias_filler {
      type: "constant"
      value: 0.2
    }
  }
}
layer {
  name: "inception_4b/relu_5x5"
  type: "ReLU"
  bottom: "inception_4b/5x5"
  top: "inception_4b/5x5"
}
layer {
  name: "inception_4b/pool"
  type: "Pooling"
  bottom: "inception_4a/output"
  top: "inception_4b/pool"
  pooling_param {
    pool: MAX
    kernel_size: 3
    stride: 1
    pad: 1
  }
}
layer {
  name: "inception_4b/pool_proj"
  type: "Convolution"
  bottom: "inception_4b/pool"
  top: "inception_4b/pool_proj"
  param {
    lr_mult: 1
    decay_mult: 1
  }
  param {
    lr_mult: 2
    decay_mult: 0
  }
  convolution_param {
    num_output: 64
    kernel_size: 1
    weight_filler {
      type: "xavier"
      std: 0.1
    }
    bias_filler {
      type: "constant"
      value: 0.2
    }
  }
}
layer {
  name: "inception_4b/relu_pool_proj"
  type: "ReLU"
  bottom: "inception_4b/pool_proj"
  top: "inception_4b/pool_proj"
}
layer {
  name: "inception_4b/output"
  type: "Concat"
  bottom: "inception_4b/1x1"
  bottom: "inception_4b/3x3"
  bottom: "inception_4b/5x5"
  bottom: "inception_4b/pool_proj"
  top: "inception_4b/output"
}
layer {
  name: "inception_4c/1x1"
  type: "Convolution"
  bottom: "inception_4b/output"
  top: "inception_4c/1x1"
  param {
    lr_mult: 1
    decay_mult: 1
  }
  param {
    lr_mult: 2
    decay_mult: 0
  }
  convolution_param {
    num_output: 128
    kernel_size: 1
    weight_filler {
      type: "xavier"
      std: 0.03
    }
    bias_filler {
      type: "constant"
      value: 0.2
    }
  }
}
layer {
  name: "inception_4c/relu_1x1"
  type: "ReLU"
  bottom: "inception_4c/1x1"
  top: "inception_4c/1x1"
}
layer {
  name: "inception_4c/3x3_reduce"
  type: "Convolution"
  bottom: "inception_4b/output"
  top: "inception_4c/3x3_reduce"
  param {
    lr_mult: 1
    decay_mult: 1
  }
  param {
    lr_mult: 2
    decay_mult: 0
  }
  convolution_param {
    num_output: 128
    kernel_size: 1
    weight_filler {
      type: "xavier"
      std: 0.09
    }
    bias_filler {
      type: "constant"
      value: 0.2
    }
  }
}
layer {
  name: "inception_4c/relu_3x3_reduce"
  type: "ReLU"
  bottom: "inception_4c/3x3_reduce"
  top: "inception_4c/3x3_reduce"
}
layer {
  name: "inception_4c/3x3"
  type: "Convolution"
  bottom: "inception_4c/3x3_reduce"
  top: "inception_4c/3x3"
  param {
    lr_mult: 1
    decay_mult: 1
  }
  param {
    lr_mult: 2
    decay_mult: 0
  }
  convolution_param {
    num_output: 256
    pad: 1
    kernel_size: 3
    weight_filler {
      type: "xavier"
      std: 0.03
    }
    bias_filler {
      type: "constant"
      value: 0.2
    }
  }
}
layer {
  name: "inception_4c/relu_3x3"
  type: "ReLU"
  bottom: "inception_4c/3x3"
  top: "inception_4c/3x3"
}
layer {
  name: "inception_4c/5x5_reduce"
  type: "Convolution"
  bottom: "inception_4b/output"
  top: "inception_4c/5x5_reduce"
  param {
    lr_mult: 1
    decay_mult: 1
  }
  param {
    lr_mult: 2
    decay_mult: 0
  }
  convolution_param {
    num_output: 24
    kernel_size: 1
    weight_filler {
      type: "xavier"
      std: 0.2
    }
    bias_filler {
      type: "constant"
      value: 0.2
    }
  }
}
layer {
  name: "inception_4c/relu_5x5_reduce"
  type: "ReLU"
  bottom: "inception_4c/5x5_reduce"
  top: "inception_4c/5x5_reduce"
}
layer {
  name: "inception_4c/5x5"
  type: "Convolution"
  bottom: "inception_4c/5x5_reduce"
  top: "inception_4c/5x5"
  param {
    lr_mult: 1
    decay_mult: 1
  }
  param {
    lr_mult: 2
    decay_mult: 0
  }
  convolution_param {
    num_output: 64
    pad: 2
    kernel_size: 5
    weight_filler {
      type: "xavier"
      std: 0.03
    }
    bias_filler {
      type: "constant"
      value: 0.2
    }
  }
}
layer {
  name: "inception_4c/relu_5x5"
  type: "ReLU"
  bottom: "inception_4c/5x5"
  top: "inception_4c/5x5"
}
layer {
  name: "inception_4c/pool"
  type: "Pooling"
  bottom: "inception_4b/output"
  top: "inception_4c/pool"
  pooling_param {
    pool: MAX
    kernel_size: 3
    stride: 1
    pad: 1
  }
}
layer {
  name: "inception_4c/pool_proj"
  type: "Convolution"
  bottom: "inception_4c/pool"
  top: "inception_4c/pool_proj"
  param {
    lr_mult: 1
    decay_mult: 1
  }
  param {
    lr_mult: 2
    decay_mult: 0
  }
  convolution_param {
    num_output: 64
    kernel_size: 1
    weight_filler {
      type: "xavier"
      std: 0.1
    }
    bias_filler {
      type: "constant"
      value: 0.2
    }
  }
}
layer {
  name: "inception_4c/relu_pool_proj"
  type: "ReLU"
  bottom: "inception_4c/pool_proj"
  top: "inception_4c/pool_proj"
}
layer {
  name: "inception_4c/output"
  type: "Concat"
  bottom: "inception_4c/1x1"
  bottom: "inception_4c/3x3"
  bottom: "inception_4c/5x5"
  bottom: "inception_4c/pool_proj"
  top: "inception_4c/output"
}
layer {
  name: "inception_4d/1x1"
  type: "Convolution"
  bottom: "inception_4c/output"
  top: "inception_4d/1x1"
  param {
    lr_mult: 1
    decay_mult: 1
  }
  param {
    lr_mult: 2
    decay_mult: 0
  }
  convolution_param {
    num_output: 112
    kernel_size: 1
    weight_filler {
      type: "xavier"
      std: 0.03
    }
    bias_filler {
      type: "constant"
      value: 0.2
    }
  }
}
layer {
  name: "inception_4d/relu_1x1"
  type: "ReLU"
  bottom: "inception_4d/1x1"
  top: "inception_4d/1x1"
}
layer {
  name: "inception_4d/3x3_reduce"
  type: "Convolution"
  bottom: "inception_4c/output"
  top: "inception_4d/3x3_reduce"
  param {
    lr_mult: 1
    decay_mult: 1
  }
  param {
    lr_mult: 2
    decay_mult: 0
  }
  convolution_param {
    num_output: 144
    kernel_size: 1
    weight_filler {
      type: "xavier"
      std: 0.09
    }
    bias_filler {
      type: "constant"
      value: 0.2
    }
  }
}
layer {
  name: "inception_4d/relu_3x3_reduce"
  type: "ReLU"
  bottom: "inception_4d/3x3_reduce"
  top: "inception_4d/3x3_reduce"
}
layer {
  name: "inception_4d/3x3"
  type: "Convolution"
  bottom: "inception_4d/3x3_reduce"
  top: "inception_4d/3x3"
  param {
    lr_mult: 1
    decay_mult: 1
  }
  param {
    lr_mult: 2
    decay_mult: 0
  }
  convolution_param {
    num_output: 288
    pad: 1
    kernel_size: 3
    weight_filler {
      type: "xavier"
      std: 0.03
    }
    bias_filler {
      type: "constant"
      value: 0.2
    }
  }
}
layer {
  name: "inception_4d/relu_3x3"
  type: "ReLU"
  bottom: "inception_4d/3x3"
  top: "inception_4d/3x3"
}
layer {
  name: "inception_4d/5x5_reduce"
  type: "Convolution"
  bottom: "inception_4c/output"
  top: "inception_4d/5x5_reduce"
  param {
    lr_mult: 1
    decay_mult: 1
  }
  param {
    lr_mult: 2
    decay_mult: 0
  }
  convolution_param {
    num_output: 32
    kernel_size: 1
    weight_filler {
      type: "xavier"
      std: 0.2
    }
    bias_filler {
      type: "constant"
      value: 0.2
    }
  }
}
layer {
  name: "inception_4d/relu_5x5_reduce"
  type: "ReLU"
  bottom: "inception_4d/5x5_reduce"
  top: "inception_4d/5x5_reduce"
}
layer {
  name: "inception_4d/5x5"
  type: "Convolution"
  bottom: "inception_4d/5x5_reduce"
  top: "inception_4d/5x5"
  param {
    lr_mult: 1
    decay_mult: 1
  }
  param {
    lr_mult: 2
    decay_mult: 0
  }
  convolution_param {
    num_output: 64
    pad: 2
    kernel_size: 5
    weight_filler {
      type: "xavier"
      std: 0.03
    }
    bias_filler {
      type: "constant"
      value: 0.2
    }
  }
}
layer {
  name: "inception_4d/relu_5x5"
  type: "ReLU"
  bottom: "inception_4d/5x5"
  top: "inception_4d/5x5"
}
layer {
  name: "inception_4d/pool"
  type: "Pooling"
  bottom: "inception_4c/output"
  top: "inception_4d/pool"
  pooling_param {
    pool: MAX
    kernel_size: 3
    stride: 1
    pad: 1
  }
}
layer {
  name: "inception_4d/pool_proj"
  type: "Convolution"
  bottom: "inception_4d/pool"
  top: "inception_4d/pool_proj"
  param {
    lr_mult: 1
    decay_mult: 1
  }
  param {
    lr_mult: 2
    decay_mult: 0
  }
  convolution_param {
    num_output: 64
    kernel_size: 1
    weight_filler {
      type: "xavier"
      std: 0.1
    }
    bias_filler {
      type: "constant"
      value: 0.2
    }
  }
}
layer {
  name: "inception_4d/relu_pool_proj"
  type: "ReLU"
  bottom: "inception_4d/pool_proj"
  top: "inception_4d/pool_proj"
}
layer {
  name: "inception_4d/output"
  type: "Concat"
  bottom: "inception_4d/1x1"
  bottom: "inception_4d/3x3"
  bottom: "inception_4d/5x5"
  bottom: "inception_4d/pool_proj"
  top: "inception_4d/output"
}
layer {
  name: "inception_4e/1x1"
  type: "Convolution"
  bottom: "inception_4d/output"
  top: "inception_4e/1x1"
  param {
    lr_mult: 1
    decay_mult: 1
  }
  param {
    lr_mult: 2
    decay_mult: 0
  }
  convolution_param {
    num_output: 256
    kernel_size: 1
    weight_filler {
      type: "xavier"
      std: 0.03
    }
    bias_filler {
      type: "constant"
      value: 0.2
    }
  }
}
layer {
  name: "inception_4e/relu_1x1"
  type: "ReLU"
  bottom: "inception_4e/1x1"
  top: "inception_4e/1x1"
}
layer {
  name: "inception_4e/3x3_reduce"
  type: "Convolution"
  bottom: "inception_4d/output"
  top: "inception_4e/3x3_reduce"
  param {
    lr_mult: 1
    decay_mult: 1
  }
  param {
    lr_mult: 2
    decay_mult: 0
  }
  convolution_param {
    num_output: 160
    kernel_size: 1
    weight_filler {
      type: "xavier"
      std: 0.09
    }
    bias_filler {
      type: "constant"
      value: 0.2
    }
  }
}
layer {
  name: "inception_4e/relu_3x3_reduce"
  type: "ReLU"
  bottom: "inception_4e/3x3_reduce"
  top: "inception_4e/3x3_reduce"
}
layer {
  name: "inception_4e/3x3"
  type: "Convolution"
  bottom: "inception_4e/3x3_reduce"
  top: "inception_4e/3x3"
  param {
    lr_mult: 1
    decay_mult: 1
  }
  param {
    lr_mult: 2
    decay_mult: 0
  }
  convolution_param {
    num_output: 320
    pad: 1
    kernel_size: 3
    weight_filler {
      type: "xavier"
      std: 0.03
    }
    bias_filler {
      type: "constant"
      value: 0.2
    }
  }
}
layer {
  name: "inception_4e/relu_3x3"
  type: "ReLU"
  bottom: "inception_4e/3x3"
  top: "inception_4e/3x3"
}
layer {
  name: "inception_4e/5x5_reduce"
  type: "Convolution"
  bottom: "inception_4d/output"
  top: "inception_4e/5x5_reduce"
  param {
    lr_mult: 1
    decay_mult: 1
  }
  param {
    lr_mult: 2
    decay_mult: 0
  }
  convolution_param {
    num_output: 32
    kernel_size: 1
    weight_filler {
      type: "xavier"
      std: 0.2
    }
    bias_filler {
      type: "constant"
      value: 0.2
    }
  }
}
layer {
  name: "inception_4e/relu_5x5_reduce"
  type: "ReLU"
  bottom: "inception_4e/5x5_reduce"
  top: "inception_4e/5x5_reduce"
}
layer {
  name: "inception_4e/5x5"
  type: "Convolution"
  bottom: "inception_4e/5x5_reduce"
  top: "inception_4e/5x5"
  param {
    lr_mult: 1
    decay_mult: 1
  }
  param {
    lr_mult: 2
    decay_mult: 0
  }
  convolution_param {
    num_output: 128
    pad: 2
    kernel_size: 5
    weight_filler {
      type: "xavier"
      std: 0.03
    }
    bias_filler {
      type: "constant"
      value: 0.2
    }
  }
}
layer {
  name: "inception_4e/relu_5x5"
  type: "ReLU"
  bottom: "inception_4e/5x5"
  top: "inception_4e/5x5"
}
layer {
  name: "inception_4e/pool"
  type: "Pooling"
  bottom: "inception_4d/output"
  top: "inception_4e/pool"
  pooling_param {
    pool: MAX
    kernel_size: 3
    stride: 1
    pad: 1
  }
}
layer {
  name: "inception_4e/pool_proj"
  type: "Convolution"
  bottom: "inception_4e/pool"
  top: "inception_4e/pool_proj"
  param {
    lr_mult: 1
    decay_mult: 1
  }
  param {
    lr_mult: 2
    decay_mult: 0
  }
  convolution_param {
    num_output: 128
    kernel_size: 1
    weight_filler {
      type: "xavier"
      std: 0.1
    }
    bias_filler {
      type: "constant"
      value: 0.2
    }
  }
}
layer {
  name: "inception_4e/relu_pool_proj"
  type: "ReLU"
  bottom: "inception_4e/pool_proj"
  top: "inception_4e/pool_proj"
}
layer {
  name: "inception_4e/output"
  type: "Concat"
  bottom: "inception_4e/1x1"
  bottom: "inception_4e/3x3"
  bottom: "inception_4e/5x5"
  bottom: "inception_4e/pool_proj"
  top: "inception_4e/output"
}
layer {
  name: "pool4/3x3_s2"
  type: "Pooling"
  bottom: "inception_4e/output"
  top: "pool4/3x3_s2"
  pooling_param {
    pool: MAX
    kernel_size: 3
    stride: 2
  }
}
layer {
  name: "inception_5a/1x1"
  type: "Convolution"
  bottom: "pool4/3x3_s2"
  top: "inception_5a/1x1"
  param {
    lr_mult: 1
    decay_mult: 1
  }
  param {
    lr_mult: 2
    decay_mult: 0
  }
  convolution_param {
    num_output: 256
    kernel_size: 1
    weight_filler {
      type: "xavier"
      std: 0.03
    }
    bias_filler {
      type: "constant"
      value: 0.2
    }
  }
}
layer {
  name: "inception_5a/relu_1x1"
  type: "ReLU"
  bottom: "inception_5a/1x1"
  top: "inception_5a/1x1"
}
layer {
  name: "inception_5a/3x3_reduce"
  type: "Convolution"
  bottom: "pool4/3x3_s2"
  top: "inception_5a/3x3_reduce"
  param {
    lr_mult: 1
    decay_mult: 1
  }
  param {
    lr_mult: 2
    decay_mult: 0
  }
  convolution_param {
    num_output: 160
    kernel_size: 1
    weight_filler {
      type: "xavier"
      std: 0.09
    }
    bias_filler {
      type: "constant"
      value: 0.2
    }
  }
}
layer {
  name: "inception_5a/relu_3x3_reduce"
  type: "ReLU"
  bottom: "inception_5a/3x3_reduce"
  top: "inception_5a/3x3_reduce"
}
layer {
  name: "inception_5a/3x3"
  type: "Convolution"
  bottom: "inception_5a/3x3_reduce"
  top: "inception_5a/3x3"
  param {
    lr_mult: 1
    decay_mult: 1
  }
  param {
    lr_mult: 2
    decay_mult: 0
  }
  convolution_param {
    num_output: 320
    pad: 1
    kernel_size: 3
    weight_filler {
      type: "xavier"
      std: 0.03
    }
    bias_filler {
      type: "constant"
      value: 0.2
    }
  }
}
layer {
  name: "inception_5a/relu_3x3"
  type: "ReLU"
  bottom: "inception_5a/3x3"
  top: "inception_5a/3x3"
}
layer {
  name: "inception_5a/5x5_reduce"
  type: "Convolution"
  bottom: "pool4/3x3_s2"
  top: "inception_5a/5x5_reduce"
  param {
    lr_mult: 1
    decay_mult: 1
  }
  param {
    lr_mult: 2
    decay_mult: 0
  }
  convolution_param {
    num_output: 32
    kernel_size: 1
    weight_filler {
      type: "xavier"
      std: 0.2
    }
    bias_filler {
      type: "constant"
      value: 0.2
    }
I0714 22:13:55.057221 26657 layer_factory.hpp:77] Creating layer data
I0714 22:13:55.057238 26657 net.cpp:91] Creating Layer data
I0714 22:13:55.057245 26657 net.cpp:399] data -> data
I0714 22:13:56.092288 26661 net.cpp:141] Setting up data
I0714 22:13:56.092396 26661 net.cpp:148] Top shape: 10 3 224 224 (1505280)
I0714 22:13:56.092406 26661 net.cpp:156] Memory required for data: 6021120
I0714 22:13:56.092435 26661 layer_factory.hpp:77] Creating layer conv1/7x7_s2
I0714 22:13:56.092497 26661 net.cpp:91] Creating Layer conv1/7x7_s2
I0714 22:13:56.092510 26661 net.cpp:425] conv1/7x7_s2 <- data
I0714 22:13:56.092530 26661 net.cpp:399] conv1/7x7_s2 -> conv1/7x7_s2
I0714 22:13:56.097702 26657 net.cpp:141] Setting up data
I0714 22:13:56.097757 26657 net.cpp:148] Top shape: 10 3 224 224 (1505280)
I0714 22:13:56.097764 26657 net.cpp:156] Memory required for data: 6021120
I0714 22:13:56.097774 26657 layer_factory.hpp:77] Creating layer conv1/7x7_s2
I0714 22:13:56.097805 26657 net.cpp:91] Creating Layer conv1/7x7_s2
I0714 22:13:56.097811 26657 net.cpp:425] conv1/7x7_s2 <- data
I0714 22:13:56.097821 26657 net.cpp:399] conv1/7x7_s2 -> conv1/7x7_s2
I0714 22:13:56.488924 26661 net.cpp:141] Setting up conv1/7x7_s2
I0714 22:13:56.488984 26661 net.cpp:148] Top shape: 10 64 112 112 (8028160)
I0714 22:13:56.488991 26661 net.cpp:156] Memory required for data: 38133760
I0714 22:13:56.489017 26661 layer_factory.hpp:77] Creating layer conv1/relu_7x7
I0714 22:13:56.489032 26661 net.cpp:91] Creating Layer conv1/relu_7x7
I0714 22:13:56.489038 26661 net.cpp:425] conv1/relu_7x7 <- conv1/7x7_s2
I0714 22:13:56.489047 26661 net.cpp:386] conv1/relu_7x7 -> conv1/7x7_s2 (in-place)
I0714 22:13:56.489823 26661 net.cpp:141] Setting up conv1/relu_7x7
I0714 22:13:56.489840 26661 net.cpp:148] Top shape: 10 64 112 112 (8028160)
I0714 22:13:56.489845 26661 net.cpp:156] Memory required for data: 70246400
I0714 22:13:56.489850 26661 layer_factory.hpp:77] Creating layer pool1/3x3_s2
I0714 22:13:56.489861 26661 net.cpp:91] Creating Layer pool1/3x3_s2
I0714 22:13:56.489866 26661 net.cpp:425] pool1/3x3_s2 <- conv1/7x7_s2
I0714 22:13:56.489873 26661 net.cpp:399] pool1/3x3_s2 -> pool1/3x3_s2
I0714 22:13:56.493826 26661 net.cpp:141] Setting up pool1/3x3_s2
I0714 22:13:56.493849 26661 net.cpp:148] Top shape: 10 64 56 56 (2007040)
I0714 22:13:56.493854 26661 net.cpp:156] Memory required for data: 78274560
I0714 22:13:56.493860 26661 layer_factory.hpp:77] Creating layer pool1/norm1
I0714 22:13:56.493878 26661 net.cpp:91] Creating Layer pool1/norm1
I0714 22:13:56.493885 26661 net.cpp:425] pool1/norm1 <- pool1/3x3_s2
I0714 22:13:56.493891 26661 net.cpp:399] pool1/norm1 -> pool1/norm1
I0714 22:13:56.495332 26661 net.cpp:141] Setting up pool1/norm1
I0714 22:13:56.495364 26661 net.cpp:148] Top shape: 10 64 56 56 (2007040)
I0714 22:13:56.495370 26661 net.cpp:156] Memory required for data: 86302720
I0714 22:13:56.495375 26661 layer_factory.hpp:77] Creating layer conv2/3x3_reduce
I0714 22:13:56.495393 26661 net.cpp:91] Creating Layer conv2/3x3_reduce
I0714 22:13:56.495399 26661 net.cpp:425] conv2/3x3_reduce <- pool1/norm1
I0714 22:13:56.495409 26661 net.cpp:399] conv2/3x3_reduce -> conv2/3x3_reduce
I0714 22:13:56.497762 26657 net.cpp:141] Setting up conv1/7x7_s2
I0714 22:13:56.497797 26657 net.cpp:148] Top shape: 10 64 112 112 (8028160)
I0714 22:13:56.497805 26657 net.cpp:156] Memory required for data: 38133760
I0714 22:13:56.497820 26657 layer_factory.hpp:77] Creating layer conv1/relu_7x7
I0714 22:13:56.497830 26657 net.cpp:91] Creating Layer conv1/relu_7x7
I0714 22:13:56.497836 26657 net.cpp:425] conv1/relu_7x7 <- conv1/7x7_s2
I0714 22:13:56.497843 26657 net.cpp:386] conv1/relu_7x7 -> conv1/7x7_s2 (in-place)
I0714 22:13:56.498520 26657 net.cpp:141] Setting up conv1/relu_7x7
I0714 22:13:56.498536 26657 net.cpp:148] Top shape: 10 64 112 112 (8028160)
I0714 22:13:56.498541 26657 net.cpp:156] Memory required for data: 70246400
I0714 22:13:56.498546 26657 layer_factory.hpp:77] Creating layer pool1/3x3_s2
I0714 22:13:56.498556 26657 net.cpp:91] Creating Layer pool1/3x3_s2
I0714 22:13:56.498561 26657 net.cpp:425] pool1/3x3_s2 <- conv1/7x7_s2
I0714 22:13:56.498569 26657 net.cpp:399] pool1/3x3_s2 -> pool1/3x3_s2
I0714 22:13:56.498944 26657 net.cpp:141] Setting up pool1/3x3_s2
I0714 22:13:56.498960 26657 net.cpp:148] Top shape: 10 64 56 56 (2007040)
I0714 22:13:56.498965 26657 net.cpp:156] Memory required for data: 78274560
I0714 22:13:56.498970 26657 layer_factory.hpp:77] Creating layer pool1/norm1
I0714 22:13:56.498980 26657 net.cpp:91] Creating Layer pool1/norm1
I0714 22:13:56.498985 26657 net.cpp:425] pool1/norm1 <- pool1/3x3_s2
I0714 22:13:56.498991 26657 net.cpp:399] pool1/norm1 -> pool1/norm1
I0714 22:13:56.500020 26657 net.cpp:141] Setting up pool1/norm1
I0714 22:13:56.500030 26661 net.cpp:141] Setting up conv2/3x3_reduce
I0714 22:13:56.500036 26657 net.cpp:148] Top shape: 10 64 56 56 (2007040)
I0714 22:13:56.500047 26657 net.cpp:156] Memory required for data: 86302720
I0714 22:13:56.500048 26661 net.cpp:148] Top shape: 10 64 56 56 (2007040)
I0714 22:13:56.500053 26657 layer_factory.hpp:77] Creating layer conv2/3x3_reduce
I0714 22:13:56.500054 26661 net.cpp:156] Memory required for data: 94330880
I0714 22:13:56.500072 26657 net.cpp:91] Creating Layer conv2/3x3_reduce
I0714 22:13:56.500077 26657 net.cpp:425] conv2/3x3_reduce <- pool1/norm1
I0714 22:13:56.500077 26661 layer_factory.hpp:77] Creating layer conv2/relu_3x3_reduce
I0714 22:13:56.500087 26657 net.cpp:399] conv2/3x3_reduce -> conv2/3x3_reduce
I0714 22:13:56.500090 26661 net.cpp:91] Creating Layer conv2/relu_3x3_reduce
I0714 22:13:56.500095 26661 net.cpp:425] conv2/relu_3x3_reduce <- conv2/3x3_reduce
I0714 22:13:56.500102 26661 net.cpp:386] conv2/relu_3x3_reduce -> conv2/3x3_reduce (in-place)
I0714 22:13:56.500993 26661 net.cpp:141] Setting up conv2/relu_3x3_reduce
I0714 22:13:56.501010 26661 net.cpp:148] Top shape: 10 64 56 56 (2007040)
I0714 22:13:56.501015 26661 net.cpp:156] Memory required for data: 102359040
I0714 22:13:56.501020 26661 layer_factory.hpp:77] Creating layer conv2/3x3
I0714 22:13:56.501036 26661 net.cpp:91] Creating Layer conv2/3x3
I0714 22:13:56.501041 26661 net.cpp:425] conv2/3x3 <- conv2/3x3_reduce
I0714 22:13:56.501049 26661 net.cpp:399] conv2/3x3 -> conv2/3x3
I0714 22:13:56.505138 26657 net.cpp:141] Setting up conv2/3x3_reduce
I0714 22:13:56.505158 26657 net.cpp:148] Top shape: 10 64 56 56 (2007040)
I0714 22:13:56.505163 26657 net.cpp:156] Memory required for data: 94330880
I0714 22:13:56.505175 26657 layer_factory.hpp:77] Creating layer conv2/relu_3x3_reduce
I0714 22:13:56.505187 26657 net.cpp:91] Creating Layer conv2/relu_3x3_reduce
I0714 22:13:56.505192 26657 net.cpp:425] conv2/relu_3x3_reduce <- conv2/3x3_reduce
I0714 22:13:56.505198 26657 net.cpp:386] conv2/relu_3x3_reduce -> conv2/3x3_reduce (in-place)
I0714 22:13:56.505998 26657 net.cpp:141] Setting up conv2/relu_3x3_reduce
I0714 22:13:56.506026 26657 net.cpp:148] Top shape: 10 64 56 56 (2007040)
I0714 22:13:56.506031 26657 net.cpp:156] Memory required for data: 102359040
I0714 22:13:56.506036 26657 layer_factory.hpp:77] Creating layer conv2/3x3
I0714 22:13:56.506053 26657 net.cpp:91] Creating Layer conv2/3x3
I0714 22:13:56.506058 26657 net.cpp:425] conv2/3x3 <- conv2/3x3_reduce
I0714 22:13:56.506077 26657 net.cpp:399] conv2/3x3 -> conv2/3x3
I0714 22:13:56.510192 26661 net.cpp:141] Setting up conv2/3x3
I0714 22:13:56.510222 26661 net.cpp:148] Top shape: 10 192 56 56 (6021120)
I0714 22:13:56.510227 26661 net.cpp:156] Memory required for data: 126443520
I0714 22:13:56.510241 26661 layer_factory.hpp:77] Creating layer conv2/relu_3x3
I0714 22:13:56.510251 26661 net.cpp:91] Creating Layer conv2/relu_3x3
I0714 22:13:56.510256 26661 net.cpp:425] conv2/relu_3x3 <- conv2/3x3
I0714 22:13:56.510272 26661 net.cpp:386] conv2/relu_3x3 -> conv2/3x3 (in-place)
I0714 22:13:56.510593 26661 net.cpp:141] Setting up conv2/relu_3x3
I0714 22:13:56.510606 26661 net.cpp:148] Top shape: 10 192 56 56 (6021120)
I0714 22:13:56.510609 26661 net.cpp:156] Memory required for data: 150528000
I0714 22:13:56.510614 26661 layer_factory.hpp:77] Creating layer conv2/norm2
I0714 22:13:56.510622 26661 net.cpp:91] Creating Layer conv2/norm2
I0714 22:13:56.510627 26661 net.cpp:425] conv2/norm2 <- conv2/3x3
I0714 22:13:56.510637 26661 net.cpp:399] conv2/norm2 -> conv2/norm2
I0714 22:13:56.512120 26661 net.cpp:141] Setting up conv2/norm2
I0714 22:13:56.512152 26661 net.cpp:148] Top shape: 10 192 56 56 (6021120)
I0714 22:13:56.512161 26661 net.cpp:156] Memory required for data: 174612480
I0714 22:13:56.512166 26661 layer_factory.hpp:77] Creating layer pool2/3x3_s2
I0714 22:13:56.512174 26661 net.cpp:91] Creating Layer pool2/3x3_s2
I0714 22:13:56.512179 26661 net.cpp:425] pool2/3x3_s2 <- conv2/norm2
I0714 22:13:56.512187 26661 net.cpp:399] pool2/3x3_s2 -> pool2/3x3_s2
I0714 22:13:56.512394 26661 net.cpp:141] Setting up pool2/3x3_s2
I0714 22:13:56.512405 26661 net.cpp:148] Top shape: 10 192 28 28 (1505280)
I0714 22:13:56.512410 26661 net.cpp:156] Memory required for data: 180633600
I0714 22:13:56.512414 26661 layer_factory.hpp:77] Creating layer pool2/3x3_s2_pool2/3x3_s2_0_split
I0714 22:13:56.512425 26661 net.cpp:91] Creating Layer pool2/3x3_s2_pool2/3x3_s2_0_split
I0714 22:13:56.512430 26661 net.cpp:425] pool2/3x3_s2_pool2/3x3_s2_0_split <- pool2/3x3_s2
I0714 22:13:56.512436 26661 net.cpp:399] pool2/3x3_s2_pool2/3x3_s2_0_split -> pool2/3x3_s2_pool2/3x3_s2_0_split_0
I0714 22:13:56.512446 26661 net.cpp:399] pool2/3x3_s2_pool2/3x3_s2_0_split -> pool2/3x3_s2_pool2/3x3_s2_0_split_1
I0714 22:13:56.512454 26661 net.cpp:399] pool2/3x3_s2_pool2/3x3_s2_0_split -> pool2/3x3_s2_pool2/3x3_s2_0_split_2
I0714 22:13:56.512471 26661 net.cpp:399] pool2/3x3_s2_pool2/3x3_s2_0_split -> pool2/3x3_s2_pool2/3x3_s2_0_split_3
I0714 22:13:56.513097 26657 net.cpp:141] Setting up conv2/3x3
I0714 22:13:56.513113 26657 net.cpp:148] Top shape: 10 192 56 56 (6021120)
I0714 22:13:56.513118 26657 net.cpp:156] Memory required for data: 126443520
I0714 22:13:56.513130 26657 layer_factory.hpp:77] Creating layer conv2/relu_3x3
I0714 22:13:56.513140 26657 net.cpp:91] Creating Layer conv2/relu_3x3
I0714 22:13:56.513145 26657 net.cpp:425] conv2/relu_3x3 <- conv2/3x3
I0714 22:13:56.513155 26657 net.cpp:386] conv2/relu_3x3 -> conv2/3x3 (in-place)
I0714 22:13:56.513172 26661 net.cpp:141] Setting up pool2/3x3_s2_pool2/3x3_s2_0_split
I0714 22:13:56.513183 26661 net.cpp:148] Top shape: 10 192 28 28 (1505280)
I0714 22:13:56.513190 26661 net.cpp:148] Top shape: 10 192 28 28 (1505280)
I0714 22:13:56.513195 26661 net.cpp:148] Top shape: 10 192 28 28 (1505280)
I0714 22:13:56.513200 26661 net.cpp:148] Top shape: 10 192 28 28 (1505280)
I0714 22:13:56.513202 26661 net.cpp:156] Memory required for data: 204718080
I0714 22:13:56.513207 26661 layer_factory.hpp:77] Creating layer inception_3a/1x1
I0714 22:13:56.513224 26661 net.cpp:91] Creating Layer inception_3a/1x1
I0714 22:13:56.513229 26661 net.cpp:425] inception_3a/1x1 <- pool2/3x3_s2_pool2/3x3_s2_0_split_0
I0714 22:13:56.513254 26661 net.cpp:399] inception_3a/1x1 -> inception_3a/1x1
I0714 22:13:56.513515 26657 net.cpp:141] Setting up conv2/relu_3x3
I0714 22:13:56.513530 26657 net.cpp:148] Top shape: 10 192 56 56 (6021120)
I0714 22:13:56.513535 26657 net.cpp:156] Memory required for data: 150528000
I0714 22:13:56.513538 26657 layer_factory.hpp:77] Creating layer conv2/norm2
I0714 22:13:56.513547 26657 net.cpp:91] Creating Layer conv2/norm2
I0714 22:13:56.513551 26657 net.cpp:425] conv2/norm2 <- conv2/3x3
I0714 22:13:56.513561 26657 net.cpp:399] conv2/norm2 -> conv2/norm2
I0714 22:13:56.514439 26657 net.cpp:141] Setting up conv2/norm2
I0714 22:13:56.514452 26657 net.cpp:148] Top shape: 10 192 56 56 (6021120)
I0714 22:13:56.514456 26657 net.cpp:156] Memory required for data: 174612480
I0714 22:13:56.514461 26657 layer_factory.hpp:77] Creating layer pool2/3x3_s2
I0714 22:13:56.514472 26657 net.cpp:91] Creating Layer pool2/3x3_s2
I0714 22:13:56.514477 26657 net.cpp:425] pool2/3x3_s2 <- conv2/norm2
I0714 22:13:56.514483 26657 net.cpp:399] pool2/3x3_s2 -> pool2/3x3_s2
I0714 22:13:56.514794 26657 net.cpp:141] Setting up pool2/3x3_s2
I0714 22:13:56.514806 26657 net.cpp:148] Top shape: 10 192 28 28 (1505280)
I0714 22:13:56.514811 26657 net.cpp:156] Memory required for data: 180633600
I0714 22:13:56.514814 26657 layer_factory.hpp:77] Creating layer pool2/3x3_s2_pool2/3x3_s2_0_split
I0714 22:13:56.514824 26657 net.cpp:91] Creating Layer pool2/3x3_s2_pool2/3x3_s2_0_split
I0714 22:13:56.514829 26657 net.cpp:425] pool2/3x3_s2_pool2/3x3_s2_0_split <- pool2/3x3_s2
I0714 22:13:56.514835 26657 net.cpp:399] pool2/3x3_s2_pool2/3x3_s2_0_split -> pool2/3x3_s2_pool2/3x3_s2_0_split_0
I0714 22:13:56.514845 26657 net.cpp:399] pool2/3x3_s2_pool2/3x3_s2_0_split -> pool2/3x3_s2_pool2/3x3_s2_0_split_1
I0714 22:13:56.514853 26657 net.cpp:399] pool2/3x3_s2_pool2/3x3_s2_0_split -> pool2/3x3_s2_pool2/3x3_s2_0_split_2
I0714 22:13:56.514860 26657 net.cpp:399] pool2/3x3_s2_pool2/3x3_s2_0_split -> pool2/3x3_s2_pool2/3x3_s2_0_split_3
I0714 22:13:56.515816 26657 net.cpp:141] Setting up pool2/3x3_s2_pool2/3x3_s2_0_split
I0714 22:13:56.515832 26657 net.cpp:148] Top shape: 10 192 28 28 (1505280)
I0714 22:13:56.515838 26657 net.cpp:148] Top shape: 10 192 28 28 (1505280)
I0714 22:13:56.515843 26657 net.cpp:148] Top shape: 10 192 28 28 (1505280)
I0714 22:13:56.515848 26657 net.cpp:148] Top shape: 10 192 28 28 (1505280)
I0714 22:13:56.515851 26657 net.cpp:156] Memory required for data: 204718080
I0714 22:13:56.515856 26657 layer_factory.hpp:77] Creating layer inception_3a/1x1
I0714 22:13:56.515882 26657 net.cpp:91] Creating Layer inception_3a/1x1
I0714 22:13:56.515888 26657 net.cpp:425] inception_3a/1x1 <- pool2/3x3_s2_pool2/3x3_s2_0_split_0
I0714 22:13:56.515897 26657 net.cpp:399] inception_3a/1x1 -> inception_3a/1x1
I0714 22:13:56.519301 26661 net.cpp:141] Setting up inception_3a/1x1
I0714 22:13:56.519320 26661 net.cpp:148] Top shape: 10 64 28 28 (501760)
I0714 22:13:56.519325 26661 net.cpp:156] Memory required for data: 206725120
I0714 22:13:56.519335 26661 layer_factory.hpp:77] Creating layer inception_3a/relu_1x1
I0714 22:13:56.519345 26661 net.cpp:91] Creating Layer inception_3a/relu_1x1
I0714 22:13:56.519350 26661 net.cpp:425] inception_3a/relu_1x1 <- inception_3a/1x1
I0714 22:13:56.519361 26661 net.cpp:386] inception_3a/relu_1x1 -> inception_3a/1x1 (in-place)
I0714 22:13:56.519682 26661 net.cpp:141] Setting up inception_3a/relu_1x1
I0714 22:13:56.519693 26661 net.cpp:148] Top shape: 10 64 28 28 (501760)
I0714 22:13:56.519698 26661 net.cpp:156] Memory required for data: 208732160
I0714 22:13:56.519702 26661 layer_factory.hpp:77] Creating layer inception_3a/3x3_reduce
I0714 22:13:56.519718 26661 net.cpp:91] Creating Layer inception_3a/3x3_reduce
I0714 22:13:56.519723 26661 net.cpp:425] inception_3a/3x3_reduce <- pool2/3x3_s2_pool2/3x3_s2_0_split_1
I0714 22:13:56.519734 26661 net.cpp:399] inception_3a/3x3_reduce -> inception_3a/3x3_reduce
I0714 22:13:56.525317 26657 net.cpp:141] Setting up inception_3a/1x1
I0714 22:13:56.525352 26657 net.cpp:148] Top shape: 10 64 28 28 (501760)
I0714 22:13:56.525357 26657 net.cpp:156] Memory required for data: 206725120
I0714 22:13:56.525367 26657 layer_factory.hpp:77] Creating layer inception_3a/relu_1x1
I0714 22:13:56.525377 26657 net.cpp:91] Creating Layer inception_3a/relu_1x1
I0714 22:13:56.525382 26657 net.cpp:425] inception_3a/relu_1x1 <- inception_3a/1x1
I0714 22:13:56.525393 26657 net.cpp:386] inception_3a/relu_1x1 -> inception_3a/1x1 (in-place)
I0714 22:13:56.525683 26657 net.cpp:141] Setting up inception_3a/relu_1x1
I0714 22:13:56.525701 26657 net.cpp:148] Top shape: 10 64 28 28 (501760)
I0714 22:13:56.525705 26657 net.cpp:156] Memory required for data: 208732160
I0714 22:13:56.525710 26657 layer_factory.hpp:77] Creating layer inception_3a/3x3_reduce
I0714 22:13:56.525725 26657 net.cpp:91] Creating Layer inception_3a/3x3_reduce
I0714 22:13:56.525732 26657 net.cpp:425] inception_3a/3x3_reduce <- pool2/3x3_s2_pool2/3x3_s2_0_split_1
I0714 22:13:56.525740 26657 net.cpp:399] inception_3a/3x3_reduce -> inception_3a/3x3_reduce
I0714 22:13:56.529914 26661 net.cpp:141] Setting up inception_3a/3x3_reduce
I0714 22:13:56.529933 26661 net.cpp:148] Top shape: 10 96 28 28 (752640)
I0714 22:13:56.529938 26661 net.cpp:156] Memory required for data: 211742720
I0714 22:13:56.529952 26661 layer_factory.hpp:77] Creating layer inception_3a/relu_3x3_reduce
I0714 22:13:56.529960 26661 net.cpp:91] Creating Layer inception_3a/relu_3x3_reduce
I0714 22:13:56.529966 26661 net.cpp:425] inception_3a/relu_3x3_reduce <- inception_3a/3x3_reduce
I0714 22:13:56.529973 26661 net.cpp:386] inception_3a/relu_3x3_reduce -> inception_3a/3x3_reduce (in-place)
I0714 22:13:56.530318 26661 net.cpp:141] Setting up inception_3a/relu_3x3_reduce
I0714 22:13:56.530330 26661 net.cpp:148] Top shape: 10 96 28 28 (752640)
I0714 22:13:56.530334 26661 net.cpp:156] Memory required for data: 214753280
I0714 22:13:56.530339 26661 layer_factory.hpp:77] Creating layer inception_3a/3x3
I0714 22:13:56.530359 26661 net.cpp:91] Creating Layer inception_3a/3x3
I0714 22:13:56.530364 26661 net.cpp:425] inception_3a/3x3 <- inception_3a/3x3_reduce
I0714 22:13:56.530374 26661 net.cpp:399] inception_3a/3x3 -> inception_3a/3x3
I0714 22:13:56.531612 26657 net.cpp:141] Setting up inception_3a/3x3_reduce
I0714 22:13:56.531630 26657 net.cpp:148] Top shape: 10 96 28 28 (752640)
I0714 22:13:56.531649 26657 net.cpp:156] Memory required for data: 211742720
I0714 22:13:56.531662 26657 layer_factory.hpp:77] Creating layer inception_3a/relu_3x3_reduce
I0714 22:13:56.531671 26657 net.cpp:91] Creating Layer inception_3a/relu_3x3_reduce
I0714 22:13:56.531677 26657 net.cpp:425] inception_3a/relu_3x3_reduce <- inception_3a/3x3_reduce
I0714 22:13:56.531682 26657 net.cpp:386] inception_3a/relu_3x3_reduce -> inception_3a/3x3_reduce (in-place)
I0714 22:13:56.531924 26657 net.cpp:141] Setting up inception_3a/relu_3x3_reduce
I0714 22:13:56.531935 26657 net.cpp:148] Top shape: 10 96 28 28 (752640)
I0714 22:13:56.531940 26657 net.cpp:156] Memory required for data: 214753280
I0714 22:13:56.531944 26657 layer_factory.hpp:77] Creating layer inception_3a/3x3
I0714 22:13:56.531961 26657 net.cpp:91] Creating Layer inception_3a/3x3
I0714 22:13:56.531966 26657 net.cpp:425] inception_3a/3x3 <- inception_3a/3x3_reduce
I0714 22:13:56.531977 26657 net.cpp:399] inception_3a/3x3 -> inception_3a/3x3
I0714 22:13:56.535146 26661 net.cpp:141] Setting up inception_3a/3x3
I0714 22:13:56.535176 26661 net.cpp:148] Top shape: 10 128 28 28 (1003520)
I0714 22:13:56.535181 26661 net.cpp:156] Memory required for data: 218767360
I0714 22:13:56.535189 26661 layer_factory.hpp:77] Creating layer inception_3a/relu_3x3
I0714 22:13:56.535199 26661 net.cpp:91] Creating Layer inception_3a/relu_3x3
I0714 22:13:56.535204 26661 net.cpp:425] inception_3a/relu_3x3 <- inception_3a/3x3
I0714 22:13:56.535212 26661 net.cpp:386] inception_3a/relu_3x3 -> inception_3a/3x3 (in-place)
I0714 22:13:56.536095 26661 net.cpp:141] Setting up inception_3a/relu_3x3
I0714 22:13:56.536110 26661 net.cpp:148] Top shape: 10 128 28 28 (1003520)
I0714 22:13:56.536115 26661 net.cpp:156] Memory required for data: 222781440
I0714 22:13:56.536119 26661 layer_factory.hpp:77] Creating layer inception_3a/5x5_reduce
I0714 22:13:56.536134 26661 net.cpp:91] Creating Layer inception_3a/5x5_reduce
I0714 22:13:56.536140 26661 net.cpp:425] inception_3a/5x5_reduce <- pool2/3x3_s2_pool2/3x3_s2_0_split_2
I0714 22:13:56.536152 26661 net.cpp:399] inception_3a/5x5_reduce -> inception_3a/5x5_reduce
I0714 22:13:56.536150 26657 net.cpp:141] Setting up inception_3a/3x3
I0714 22:13:56.536165 26657 net.cpp:148] Top shape: 10 128 28 28 (1003520)
I0714 22:13:56.536170 26657 net.cpp:156] Memory required for data: 218767360
I0714 22:13:56.536178 26657 layer_factory.hpp:77] Creating layer inception_3a/relu_3x3
I0714 22:13:56.536186 26657 net.cpp:91] Creating Layer inception_3a/relu_3x3
I0714 22:13:56.536191 26657 net.cpp:425] inception_3a/relu_3x3 <- inception_3a/3x3
I0714 22:13:56.536201 26657 net.cpp:386] inception_3a/relu_3x3 -> inception_3a/3x3 (in-place)
I0714 22:13:56.537042 26657 net.cpp:141] Setting up inception_3a/relu_3x3
I0714 22:13:56.537070 26657 net.cpp:148] Top shape: 10 128 28 28 (1003520)
I0714 22:13:56.537075 26657 net.cpp:156] Memory required for data: 222781440
I0714 22:13:56.537081 26657 layer_factory.hpp:77] Creating layer inception_3a/5x5_reduce
I0714 22:13:56.537093 26657 net.cpp:91] Creating Layer inception_3a/5x5_reduce
I0714 22:13:56.537099 26657 net.cpp:425] inception_3a/5x5_reduce <- pool2/3x3_s2_pool2/3x3_s2_0_split_2
I0714 22:13:56.537111 26657 net.cpp:399] inception_3a/5x5_reduce -> inception_3a/5x5_reduce
I0714 22:13:56.540971 26661 net.cpp:141] Setting up inception_3a/5x5_reduce
I0714 22:13:56.540999 26661 net.cpp:148] Top shape: 10 16 28 28 (125440)
I0714 22:13:56.541005 26661 net.cpp:156] Memory required for data: 223283200
I0714 22:13:56.541013 26661 layer_factory.hpp:77] Creating layer inception_3a/relu_5x5_reduce
I0714 22:13:56.541021 26661 net.cpp:91] Creating Layer inception_3a/relu_5x5_reduce
I0714 22:13:56.541028 26661 net.cpp:425] inception_3a/relu_5x5_reduce <- inception_3a/5x5_reduce
I0714 22:13:56.541034 26661 net.cpp:386] inception_3a/relu_5x5_reduce -> inception_3a/5x5_reduce (in-place)
I0714 22:13:56.541420 26661 net.cpp:141] Setting up inception_3a/relu_5x5_reduce
I0714 22:13:56.541432 26661 net.cpp:148] Top shape: 10 16 28 28 (125440)
I0714 22:13:56.541436 26661 net.cpp:156] Memory required for data: 223784960
I0714 22:13:56.541441 26661 layer_factory.hpp:77] Creating layer inception_3a/5x5
I0714 22:13:56.541456 26661 net.cpp:91] Creating Layer inception_3a/5x5
I0714 22:13:56.541461 26661 net.cpp:425] inception_3a/5x5 <- inception_3a/5x5_reduce
I0714 22:13:56.541473 26661 net.cpp:399] inception_3a/5x5 -> inception_3a/5x5
I0714 22:13:56.541501 26657 net.cpp:141] Setting up inception_3a/5x5_reduce
I0714 22:13:56.541515 26657 net.cpp:148] Top shape: 10 16 28 28 (125440)
I0714 22:13:56.541520 26657 net.cpp:156] Memory required for data: 223283200
I0714 22:13:56.541528 26657 layer_factory.hpp:77] Creating layer inception_3a/relu_5x5_reduce
I0714 22:13:56.541539 26657 net.cpp:91] Creating Layer inception_3a/relu_5x5_reduce
I0714 22:13:56.541544 26657 net.cpp:425] inception_3a/relu_5x5_reduce <- inception_3a/5x5_reduce
I0714 22:13:56.541551 26657 net.cpp:386] inception_3a/relu_5x5_reduce -> inception_3a/5x5_reduce (in-place)
I0714 22:13:56.541923 26657 net.cpp:141] Setting up inception_3a/relu_5x5_reduce
I0714 22:13:56.541937 26657 net.cpp:148] Top shape: 10 16 28 28 (125440)
I0714 22:13:56.541942 26657 net.cpp:156] Memory required for data: 223784960
I0714 22:13:56.541949 26657 layer_factory.hpp:77] Creating layer inception_3a/5x5
I0714 22:13:56.541962 26657 net.cpp:91] Creating Layer inception_3a/5x5
I0714 22:13:56.541968 26657 net.cpp:425] inception_3a/5x5 <- inception_3a/5x5_reduce
I0714 22:13:56.541976 26657 net.cpp:399] inception_3a/5x5 -> inception_3a/5x5
I0714 22:13:56.547039 26661 net.cpp:141] Setting up inception_3a/5x5
I0714 22:13:56.547058 26661 net.cpp:148] Top shape: 10 32 28 28 (250880)
I0714 22:13:56.547063 26661 net.cpp:156] Memory required for data: 224788480
I0714 22:13:56.547075 26661 layer_factory.hpp:77] Creating layer inception_3a/relu_5x5
I0714 22:13:56.547083 26661 net.cpp:91] Creating Layer inception_3a/relu_5x5
I0714 22:13:56.547089 26661 net.cpp:425] inception_3a/relu_5x5 <- inception_3a/5x5
I0714 22:13:56.547096 26661 net.cpp:386] inception_3a/relu_5x5 -> inception_3a/5x5 (in-place)
I0714 22:13:56.547446 26661 net.cpp:141] Setting up inception_3a/relu_5x5
I0714 22:13:56.547456 26661 net.cpp:148] Top shape: 10 32 28 28 (250880)
I0714 22:13:56.547461 26661 net.cpp:156] Memory required for data: 225792000
I0714 22:13:56.547466 26661 layer_factory.hpp:77] Creating layer inception_3a/pool
I0714 22:13:56.547474 26661 net.cpp:91] Creating Layer inception_3a/pool
I0714 22:13:56.547479 26661 net.cpp:425] inception_3a/pool <- pool2/3x3_s2_pool2/3x3_s2_0_split_3
I0714 22:13:56.547490 26661 net.cpp:399] inception_3a/pool -> inception_3a/pool
I0714 22:13:56.548024 26657 net.cpp:141] Setting up inception_3a/5x5
I0714 22:13:56.548041 26657 net.cpp:148] Top shape: 10 32 28 28 (250880)
I0714 22:13:56.548048 26657 net.cpp:156] Memory required for data: 224788480
I0714 22:13:56.548056 26657 layer_factory.hpp:77] Creating layer inception_3a/relu_5x5
I0714 22:13:56.548059 26661 net.cpp:141] Setting up inception_3a/pool
I0714 22:13:56.548068 26657 net.cpp:91] Creating Layer inception_3a/relu_5x5
I0714 22:13:56.548070 26661 net.cpp:148] Top shape: 10 192 28 28 (1505280)
I0714 22:13:56.548074 26657 net.cpp:425] inception_3a/relu_5x5 <- inception_3a/5x5
I0714 22:13:56.548074 26661 net.cpp:156] Memory required for data: 231813120
I0714 22:13:56.548081 26661 layer_factory.hpp:77] Creating layer inception_3a/pool_proj
I0714 22:13:56.548082 26657 net.cpp:386] inception_3a/relu_5x5 -> inception_3a/5x5 (in-place)
I0714 22:13:56.548096 26661 net.cpp:91] Creating Layer inception_3a/pool_proj
I0714 22:13:56.548102 26661 net.cpp:425] inception_3a/pool_proj <- inception_3a/pool
I0714 22:13:56.548112 26661 net.cpp:399] inception_3a/pool_proj -> inception_3a/pool_proj
I0714 22:13:56.548444 26657 net.cpp:141] Setting up inception_3a/relu_5x5
I0714 22:13:56.548457 26657 net.cpp:148] Top shape: 10 32 28 28 (250880)
I0714 22:13:56.548461 26657 net.cpp:156] Memory required for data: 225792000
I0714 22:13:56.548466 26657 layer_factory.hpp:77] Creating layer inception_3a/pool
I0714 22:13:56.548475 26657 net.cpp:91] Creating Layer inception_3a/pool
I0714 22:13:56.548480 26657 net.cpp:425] inception_3a/pool <- pool2/3x3_s2_pool2/3x3_s2_0_split_3
I0714 22:13:56.548490 26657 net.cpp:399] inception_3a/pool -> inception_3a/pool
I0714 22:13:56.548674 26657 net.cpp:141] Setting up inception_3a/pool
I0714 22:13:56.548686 26657 net.cpp:148] Top shape: 10 192 28 28 (1505280)
I0714 22:13:56.548689 26657 net.cpp:156] Memory required for data: 231813120
I0714 22:13:56.548694 26657 layer_factory.hpp:77] Creating layer inception_3a/pool_proj
I0714 22:13:56.548709 26657 net.cpp:91] Creating Layer inception_3a/pool_proj
I0714 22:13:56.548714 26657 net.cpp:425] inception_3a/pool_proj <- inception_3a/pool
I0714 22:13:56.548725 26657 net.cpp:399] inception_3a/pool_proj -> inception_3a/pool_proj
I0714 22:13:56.552371 26661 net.cpp:141] Setting up inception_3a/pool_proj
I0714 22:13:56.552386 26661 net.cpp:148] Top shape: 10 32 28 28 (250880)
I0714 22:13:56.552392 26661 net.cpp:156] Memory required for data: 232816640
I0714 22:13:56.552404 26661 layer_factory.hpp:77] Creating layer inception_3a/relu_pool_proj
I0714 22:13:56.552412 26661 net.cpp:91] Creating Layer inception_3a/relu_pool_proj
I0714 22:13:56.552418 26661 net.cpp:425] inception_3a/relu_pool_proj <- inception_3a/pool_proj
I0714 22:13:56.552435 26661 net.cpp:386] inception_3a/relu_pool_proj -> inception_3a/pool_proj (in-place)
I0714 22:13:56.553338 26661 net.cpp:141] Setting up inception_3a/relu_pool_proj
I0714 22:13:56.553352 26661 net.cpp:148] Top shape: 10 32 28 28 (250880)
I0714 22:13:56.553357 26661 net.cpp:156] Memory required for data: 233820160
I0714 22:13:56.553361 26661 layer_factory.hpp:77] Creating layer inception_3a/output
I0714 22:13:56.553385 26661 net.cpp:91] Creating Layer inception_3a/output
I0714 22:13:56.553390 26661 net.cpp:425] inception_3a/output <- inception_3a/1x1
I0714 22:13:56.553396 26661 net.cpp:425] inception_3a/output <- inception_3a/3x3
I0714 22:13:56.553402 26661 net.cpp:425] inception_3a/output <- inception_3a/5x5
I0714 22:13:56.553407 26661 net.cpp:425] inception_3a/output <- inception_3a/pool_proj
I0714 22:13:56.553413 26661 net.cpp:399] inception_3a/output -> inception_3a/output
I0714 22:13:56.553426 26657 net.cpp:141] Setting up inception_3a/pool_proj
I0714 22:13:56.553442 26657 net.cpp:148] Top shape: 10 32 28 28 (250880)
I0714 22:13:56.553445 26657 net.cpp:156] Memory required for data: 232816640
I0714 22:13:56.553460 26657 layer_factory.hpp:77] Creating layer inception_3a/relu_pool_proj
I0714 22:13:56.553469 26657 net.cpp:91] Creating Layer inception_3a/relu_pool_proj
I0714 22:13:56.553474 26657 net.cpp:425] inception_3a/relu_pool_proj <- inception_3a/pool_proj
I0714 22:13:56.553475 26661 net.cpp:141] Setting up inception_3a/output
I0714 22:13:56.553485 26657 net.cpp:386] inception_3a/relu_pool_proj -> inception_3a/pool_proj (in-place)
I0714 22:13:56.553485 26661 net.cpp:148] Top shape: 10 256 28 28 (2007040)
I0714 22:13:56.553498 26661 net.cpp:156] Memory required for data: 241848320
I0714 22:13:56.553501 26661 layer_factory.hpp:77] Creating layer inception_3a/output_inception_3a/output_0_split
I0714 22:13:56.553514 26661 net.cpp:91] Creating Layer inception_3a/output_inception_3a/output_0_split
I0714 22:13:56.553519 26661 net.cpp:425] inception_3a/output_inception_3a/output_0_split <- inception_3a/output
I0714 22:13:56.553525 26661 net.cpp:399] inception_3a/output_inception_3a/output_0_split -> inception_3a/output_inception_3a/output_0_split_0
I0714 22:13:56.553536 26661 net.cpp:399] inception_3a/output_inception_3a/output_0_split -> inception_3a/output_inception_3a/output_0_split_1
I0714 22:13:56.553545 26661 net.cpp:399] inception_3a/output_inception_3a/output_0_split -> inception_3a/output_inception_3a/output_0_split_2
I0714 22:13:56.553553 26661 net.cpp:399] inception_3a/output_inception_3a/output_0_split -> inception_3a/output_inception_3a/output_0_split_3
I0714 22:13:56.554291 26657 net.cpp:141] Setting up inception_3a/relu_pool_proj
I0714 22:13:56.554303 26657 net.cpp:148] Top shape: 10 32 28 28 (250880)
I0714 22:13:56.554307 26657 net.cpp:156] Memory required for data: 233820160
I0714 22:13:56.554306 26661 net.cpp:141] Setting up inception_3a/output_inception_3a/output_0_split
I0714 22:13:56.554313 26657 layer_factory.hpp:77] Creating layer inception_3a/output
I0714 22:13:56.554318 26661 net.cpp:148] Top shape: 10 256 28 28 (2007040)
I0714 22:13:56.554322 26657 net.cpp:91] Creating Layer inception_3a/output
I0714 22:13:56.554324 26661 net.cpp:148] Top shape: 10 256 28 28 (2007040)
I0714 22:13:56.554327 26657 net.cpp:425] inception_3a/output <- inception_3a/1x1
I0714 22:13:56.554329 26661 net.cpp:148] Top shape: 10 256 28 28 (2007040)
I0714 22:13:56.554332 26657 net.cpp:425] inception_3a/output <- inception_3a/3x3
I0714 22:13:56.554334 26661 net.cpp:148] Top shape: 10 256 28 28 (2007040)
I0714 22:13:56.554338 26657 net.cpp:425] inception_3a/output <- inception_3a/5x5
I0714 22:13:56.554338 26661 net.cpp:156] Memory required for data: 273960960
I0714 22:13:56.554343 26657 net.cpp:425] inception_3a/output <- inception_3a/pool_proj
I0714 22:13:56.554343 26661 layer_factory.hpp:77] Creating layer inception_3b/1x1
I0714 22:13:56.554358 26657 net.cpp:399] inception_3a/output -> inception_3a/output
I0714 22:13:56.554365 26661 net.cpp:91] Creating Layer inception_3b/1x1
I0714 22:13:56.554371 26661 net.cpp:425] inception_3b/1x1 <- inception_3a/output_inception_3a/output_0_split_0
I0714 22:13:56.554383 26661 net.cpp:399] inception_3b/1x1 -> inception_3b/1x1
I0714 22:13:56.554451 26657 net.cpp:141] Setting up inception_3a/output
I0714 22:13:56.554462 26657 net.cpp:148] Top shape: 10 256 28 28 (2007040)
I0714 22:13:56.554466 26657 net.cpp:156] Memory required for data: 241848320
I0714 22:13:56.554471 26657 layer_factory.hpp:77] Creating layer inception_3a/output_inception_3a/output_0_split
I0714 22:13:56.554478 26657 net.cpp:91] Creating Layer inception_3a/output_inception_3a/output_0_split
I0714 22:13:56.554482 26657 net.cpp:425] inception_3a/output_inception_3a/output_0_split <- inception_3a/output
I0714 22:13:56.554497 26657 net.cpp:399] inception_3a/output_inception_3a/output_0_split -> inception_3a/output_inception_3a/output_0_split_0
I0714 22:13:56.554507 26657 net.cpp:399] inception_3a/output_inception_3a/output_0_split -> inception_3a/output_inception_3a/output_0_split_1
I0714 22:13:56.554514 26657 net.cpp:399] inception_3a/output_inception_3a/output_0_split -> inception_3a/output_inception_3a/output_0_split_2
I0714 22:13:56.554522 26657 net.cpp:399] inception_3a/output_inception_3a/output_0_split -> inception_3a/output_inception_3a/output_0_split_3
I0714 22:13:56.554841 26657 net.cpp:141] Setting up inception_3a/output_inception_3a/output_0_split
I0714 22:13:56.554854 26657 net.cpp:148] Top shape: 10 256 28 28 (2007040)
I0714 22:13:56.554859 26657 net.cpp:148] Top shape: 10 256 28 28 (2007040)
I0714 22:13:56.554864 26657 net.cpp:148] Top shape: 10 256 28 28 (2007040)
I0714 22:13:56.554869 26657 net.cpp:148] Top shape: 10 256 28 28 (2007040)
I0714 22:13:56.554873 26657 net.cpp:156] Memory required for data: 273960960
I0714 22:13:56.554877 26657 layer_factory.hpp:77] Creating layer inception_3b/1x1
I0714 22:13:56.554888 26657 net.cpp:91] Creating Layer inception_3b/1x1
I0714 22:13:56.554893 26657 net.cpp:425] inception_3b/1x1 <- inception_3a/output_inception_3a/output_0_split_0
I0714 22:13:56.554904 26657 net.cpp:399] inception_3b/1x1 -> inception_3b/1x1
I0714 22:13:56.557881 26661 net.cpp:141] Setting up inception_3b/1x1
I0714 22:13:56.557898 26661 net.cpp:148] Top shape: 10 128 28 28 (1003520)
I0714 22:13:56.557904 26661 net.cpp:156] Memory required for data: 277975040
I0714 22:13:56.557912 26661 layer_factory.hpp:77] Creating layer inception_3b/relu_1x1
I0714 22:13:56.557922 26661 net.cpp:91] Creating Layer inception_3b/relu_1x1
I0714 22:13:56.557929 26661 net.cpp:425] inception_3b/relu_1x1 <- inception_3b/1x1
I0714 22:13:56.557935 26661 net.cpp:386] inception_3b/relu_1x1 -> inception_3b/1x1 (in-place)
I0714 22:13:56.558226 26657 net.cpp:141] Setting up inception_3b/1x1
I0714 22:13:56.558241 26657 net.cpp:148] Top shape: 10 128 28 28 (1003520)
I0714 22:13:56.558245 26657 net.cpp:156] Memory required for data: 277975040
I0714 22:13:56.558254 26657 layer_factory.hpp:77] Creating layer inception_3b/relu_1x1
I0714 22:13:56.558259 26661 net.cpp:141] Setting up inception_3b/relu_1x1
I0714 22:13:56.558264 26657 net.cpp:91] Creating Layer inception_3b/relu_1x1
I0714 22:13:56.558270 26657 net.cpp:425] inception_3b/relu_1x1 <- inception_3b/1x1
I0714 22:13:56.558270 26661 net.cpp:148] Top shape: 10 128 28 28 (1003520)
I0714 22:13:56.558276 26661 net.cpp:156] Memory required for data: 281989120
I0714 22:13:56.558279 26657 net.cpp:386] inception_3b/relu_1x1 -> inception_3b/1x1 (in-place)
I0714 22:13:56.558281 26661 layer_factory.hpp:77] Creating layer inception_3b/3x3_reduce
I0714 22:13:56.558298 26661 net.cpp:91] Creating Layer inception_3b/3x3_reduce
I0714 22:13:56.558305 26661 net.cpp:425] inception_3b/3x3_reduce <- inception_3a/output_inception_3a/output_0_split_1
I0714 22:13:56.558312 26661 net.cpp:399] inception_3b/3x3_reduce -> inception_3b/3x3_reduce
I0714 22:13:56.558665 26657 net.cpp:141] Setting up inception_3b/relu_1x1
I0714 22:13:56.558676 26657 net.cpp:148] Top shape: 10 128 28 28 (1003520)
I0714 22:13:56.558681 26657 net.cpp:156] Memory required for data: 281989120
I0714 22:13:56.558693 26657 layer_factory.hpp:77] Creating layer inception_3b/3x3_reduce
I0714 22:13:56.558712 26657 net.cpp:91] Creating Layer inception_3b/3x3_reduce
I0714 22:13:56.558717 26657 net.cpp:425] inception_3b/3x3_reduce <- inception_3a/output_inception_3a/output_0_split_1
I0714 22:13:56.558725 26657 net.cpp:399] inception_3b/3x3_reduce -> inception_3b/3x3_reduce
I0714 22:13:56.562067 26661 net.cpp:141] Setting up inception_3b/3x3_reduce
I0714 22:13:56.562084 26661 net.cpp:148] Top shape: 10 128 28 28 (1003520)
I0714 22:13:56.562089 26661 net.cpp:156] Memory required for data: 286003200
I0714 22:13:56.562098 26661 layer_factory.hpp:77] Creating layer inception_3b/relu_3x3_reduce
I0714 22:13:56.562110 26661 net.cpp:91] Creating Layer inception_3b/relu_3x3_reduce
I0714 22:13:56.562116 26661 net.cpp:425] inception_3b/relu_3x3_reduce <- inception_3b/3x3_reduce
I0714 22:13:56.562124 26661 net.cpp:386] inception_3b/relu_3x3_reduce -> inception_3b/3x3_reduce (in-place)
I0714 22:13:56.562381 26657 net.cpp:141] Setting up inception_3b/3x3_reduce
I0714 22:13:56.562394 26657 net.cpp:148] Top shape: 10 128 28 28 (1003520)
I0714 22:13:56.562399 26657 net.cpp:156] Memory required for data: 286003200
I0714 22:13:56.562407 26657 layer_factory.hpp:77] Creating layer inception_3b/relu_3x3_reduce
I0714 22:13:56.562415 26657 net.cpp:91] Creating Layer inception_3b/relu_3x3_reduce
I0714 22:13:56.562422 26657 net.cpp:425] inception_3b/relu_3x3_reduce <- inception_3b/3x3_reduce
I0714 22:13:56.562441 26657 net.cpp:386] inception_3b/relu_3x3_reduce -> inception_3b/3x3_reduce (in-place)
I0714 22:13:56.562443 26661 net.cpp:141] Setting up inception_3b/relu_3x3_reduce
I0714 22:13:56.562455 26661 net.cpp:148] Top shape: 10 128 28 28 (1003520)
I0714 22:13:56.562459 26661 net.cpp:156] Memory required for data: 290017280
I0714 22:13:56.562464 26661 layer_factory.hpp:77] Creating layer inception_3b/3x3
I0714 22:13:56.562479 26661 net.cpp:91] Creating Layer inception_3b/3x3
I0714 22:13:56.562484 26661 net.cpp:425] inception_3b/3x3 <- inception_3b/3x3_reduce
I0714 22:13:56.562494 26661 net.cpp:399] inception_3b/3x3 -> inception_3b/3x3
I0714 22:13:56.562803 26657 net.cpp:141] Setting up inception_3b/relu_3x3_reduce
I0714 22:13:56.562816 26657 net.cpp:148] Top shape: 10 128 28 28 (1003520)
I0714 22:13:56.562821 26657 net.cpp:156] Memory required for data: 290017280
I0714 22:13:56.562825 26657 layer_factory.hpp:77] Creating layer inception_3b/3x3
I0714 22:13:56.562840 26657 net.cpp:91] Creating Layer inception_3b/3x3
I0714 22:13:56.562846 26657 net.cpp:425] inception_3b/3x3 <- inception_3b/3x3_reduce
I0714 22:13:56.562855 26657 net.cpp:399] inception_3b/3x3 -> inception_3b/3x3
I0714 22:13:56.569918 26661 net.cpp:141] Setting up inception_3b/3x3
I0714 22:13:56.569950 26661 net.cpp:148] Top shape: 10 192 28 28 (1505280)
I0714 22:13:56.569955 26661 net.cpp:156] Memory required for data: 296038400
I0714 22:13:56.569964 26661 layer_factory.hpp:77] Creating layer inception_3b/relu_3x3
I0714 22:13:56.569980 26661 net.cpp:91] Creating Layer inception_3b/relu_3x3
I0714 22:13:56.569986 26661 net.cpp:425] inception_3b/relu_3x3 <- inception_3b/3x3
I0714 22:13:56.569993 26661 net.cpp:386] inception_3b/relu_3x3 -> inception_3b/3x3 (in-place)
I0714 22:13:56.570890 26661 net.cpp:141] Setting up inception_3b/relu_3x3
I0714 22:13:56.570905 26661 net.cpp:148] Top shape: 10 192 28 28 (1505280)
I0714 22:13:56.570910 26661 net.cpp:156] Memory required for data: 302059520
I0714 22:13:56.570915 26661 layer_factory.hpp:77] Creating layer inception_3b/5x5_reduce
I0714 22:13:56.570931 26661 net.cpp:91] Creating Layer inception_3b/5x5_reduce
I0714 22:13:56.570937 26661 net.cpp:425] inception_3b/5x5_reduce <- inception_3a/output_inception_3a/output_0_split_2
I0714 22:13:56.570946 26661 net.cpp:399] inception_3b/5x5_reduce -> inception_3b/5x5_reduce
I0714 22:13:56.571013 26657 net.cpp:141] Setting up inception_3b/3x3
I0714 22:13:56.571027 26657 net.cpp:148] Top shape: 10 192 28 28 (1505280)
I0714 22:13:56.571033 26657 net.cpp:156] Memory required for data: 296038400
I0714 22:13:56.571041 26657 layer_factory.hpp:77] Creating layer inception_3b/relu_3x3
I0714 22:13:56.571056 26657 net.cpp:91] Creating Layer inception_3b/relu_3x3
I0714 22:13:56.571063 26657 net.cpp:425] inception_3b/relu_3x3 <- inception_3b/3x3
I0714 22:13:56.571069 26657 net.cpp:386] inception_3b/relu_3x3 -> inception_3b/3x3 (in-place)
I0714 22:13:56.571923 26657 net.cpp:141] Setting up inception_3b/relu_3x3
I0714 22:13:56.571938 26657 net.cpp:148] Top shape: 10 192 28 28 (1505280)
I0714 22:13:56.571945 26657 net.cpp:156] Memory required for data: 302059520
I0714 22:13:56.571950 26657 layer_factory.hpp:77] Creating layer inception_3b/5x5_reduce
I0714 22:13:56.571962 26657 net.cpp:91] Creating Layer inception_3b/5x5_reduce
I0714 22:13:56.571967 26657 net.cpp:425] inception_3b/5x5_reduce <- inception_3a/output_inception_3a/output_0_split_2
I0714 22:13:56.571980 26657 net.cpp:399] inception_3b/5x5_reduce -> inception_3b/5x5_reduce
I0714 22:13:56.575863 26661 net.cpp:141] Setting up inception_3b/5x5_reduce
I0714 22:13:56.575883 26661 net.cpp:148] Top shape: 10 32 28 28 (250880)
I0714 22:13:56.575888 26661 net.cpp:156] Memory required for data: 303063040
I0714 22:13:56.575897 26661 layer_factory.hpp:77] Creating layer inception_3b/relu_5x5_reduce
I0714 22:13:56.575906 26661 net.cpp:91] Creating Layer inception_3b/relu_5x5_reduce
I0714 22:13:56.575911 26661 net.cpp:425] inception_3b/relu_5x5_reduce <- inception_3b/5x5_reduce
I0714 22:13:56.575918 26661 net.cpp:386] inception_3b/relu_5x5_reduce -> inception_3b/5x5_reduce (in-place)
I0714 22:13:56.576315 26661 net.cpp:141] Setting up inception_3b/relu_5x5_reduce
I0714 22:13:56.576329 26661 net.cpp:148] Top shape: 10 32 28 28 (250880)
I0714 22:13:56.576334 26661 net.cpp:156] Memory required for data: 304066560
I0714 22:13:56.576339 26661 layer_factory.hpp:77] Creating layer inception_3b/5x5
I0714 22:13:56.576354 26661 net.cpp:91] Creating Layer inception_3b/5x5
I0714 22:13:56.576359 26661 net.cpp:425] inception_3b/5x5 <- inception_3b/5x5_reduce
I0714 22:13:56.576370 26661 net.cpp:399] inception_3b/5x5 -> inception_3b/5x5
I0714 22:13:56.576401 26657 net.cpp:141] Setting up inception_3b/5x5_reduce
I0714 22:13:56.576416 26657 net.cpp:148] Top shape: 10 32 28 28 (250880)
I0714 22:13:56.576421 26657 net.cpp:156] Memory required for data: 303063040
I0714 22:13:56.576428 26657 layer_factory.hpp:77] Creating layer inception_3b/relu_5x5_reduce
I0714 22:13:56.576439 26657 net.cpp:91] Creating Layer inception_3b/relu_5x5_reduce
I0714 22:13:56.576444 26657 net.cpp:425] inception_3b/relu_5x5_reduce <- inception_3b/5x5_reduce
I0714 22:13:56.576452 26657 net.cpp:386] inception_3b/relu_5x5_reduce -> inception_3b/5x5_reduce (in-place)
I0714 22:13:56.576831 26657 net.cpp:141] Setting up inception_3b/relu_5x5_reduce
I0714 22:13:56.576845 26657 net.cpp:148] Top shape: 10 32 28 28 (250880)
I0714 22:13:56.576850 26657 net.cpp:156] Memory required for data: 304066560
I0714 22:13:56.576855 26657 layer_factory.hpp:77] Creating layer inception_3b/5x5
I0714 22:13:56.576869 26657 net.cpp:91] Creating Layer inception_3b/5x5
I0714 22:13:56.576874 26657 net.cpp:425] inception_3b/5x5 <- inception_3b/5x5_reduce
I0714 22:13:56.576884 26657 net.cpp:399] inception_3b/5x5 -> inception_3b/5x5
I0714 22:13:56.583411 26661 net.cpp:141] Setting up inception_3b/5x5
I0714 22:13:56.583433 26661 net.cpp:148] Top shape: 10 96 28 28 (752640)
I0714 22:13:56.583438 26661 net.cpp:156] Memory required for data: 307077120
I0714 22:13:56.583448 26661 layer_factory.hpp:77] Creating layer inception_3b/relu_5x5
I0714 22:13:56.583461 26661 net.cpp:91] Creating Layer inception_3b/relu_5x5
I0714 22:13:56.583468 26661 net.cpp:425] inception_3b/relu_5x5 <- inception_3b/5x5
I0714 22:13:56.583477 26661 net.cpp:386] inception_3b/relu_5x5 -> inception_3b/5x5 (in-place)
I0714 22:13:56.583535 26657 net.cpp:141] Setting up inception_3b/5x5
I0714 22:13:56.583549 26657 net.cpp:148] Top shape: 10 96 28 28 (752640)
I0714 22:13:56.583554 26657 net.cpp:156] Memory required for data: 307077120
I0714 22:13:56.583564 26657 layer_factory.hpp:77] Creating layer inception_3b/relu_5x5
I0714 22:13:56.583575 26657 net.cpp:91] Creating Layer inception_3b/relu_5x5
I0714 22:13:56.583580 26657 net.cpp:425] inception_3b/relu_5x5 <- inception_3b/5x5
I0714 22:13:56.583587 26657 net.cpp:386] inception_3b/relu_5x5 -> inception_3b/5x5 (in-place)
I0714 22:13:56.583796 26661 net.cpp:141] Setting up inception_3b/relu_5x5
I0714 22:13:56.583808 26661 net.cpp:148] Top shape: 10 96 28 28 (752640)
I0714 22:13:56.583813 26661 net.cpp:156] Memory required for data: 310087680
I0714 22:13:56.583817 26661 layer_factory.hpp:77] Creating layer inception_3b/pool
I0714 22:13:56.583829 26661 net.cpp:91] Creating Layer inception_3b/pool
I0714 22:13:56.583835 26661 net.cpp:425] inception_3b/pool <- inception_3a/output_inception_3a/output_0_split_3
I0714 22:13:56.583843 26661 net.cpp:399] inception_3b/pool -> inception_3b/pool
I0714 22:13:56.583878 26657 net.cpp:141] Setting up inception_3b/relu_5x5
I0714 22:13:56.583889 26657 net.cpp:148] Top shape: 10 96 28 28 (752640)
I0714 22:13:56.583894 26657 net.cpp:156] Memory required for data: 310087680
I0714 22:13:56.583897 26657 layer_factory.hpp:77] Creating layer inception_3b/pool
I0714 22:13:56.583905 26657 net.cpp:91] Creating Layer inception_3b/pool
I0714 22:13:56.583910 26657 net.cpp:425] inception_3b/pool <- inception_3a/output_inception_3a/output_0_split_3
I0714 22:13:56.583921 26657 net.cpp:399] inception_3b/pool -> inception_3b/pool
I0714 22:13:56.583951 26661 net.cpp:141] Setting up inception_3b/pool
I0714 22:13:56.583961 26661 net.cpp:148] Top shape: 10 256 28 28 (2007040)
I0714 22:13:56.583966 26661 net.cpp:156] Memory required for data: 318115840
I0714 22:13:56.583971 26661 layer_factory.hpp:77] Creating layer inception_3b/pool_proj
I0714 22:13:56.583986 26661 net.cpp:91] Creating Layer inception_3b/pool_proj
I0714 22:13:56.583992 26661 net.cpp:425] inception_3b/pool_proj <- inception_3b/pool
I0714 22:13:56.584002 26661 net.cpp:399] inception_3b/pool_proj -> inception_3b/pool_proj
I0714 22:13:56.584074 26657 net.cpp:141] Setting up inception_3b/pool
I0714 22:13:56.584084 26657 net.cpp:148] Top shape: 10 256 28 28 (2007040)
I0714 22:13:56.584089 26657 net.cpp:156] Memory required for data: 318115840
I0714 22:13:56.584094 26657 layer_factory.hpp:77] Creating layer inception_3b/pool_proj
I0714 22:13:56.584111 26657 net.cpp:91] Creating Layer inception_3b/pool_proj
I0714 22:13:56.584117 26657 net.cpp:425] inception_3b/pool_proj <- inception_3b/pool
I0714 22:13:56.584127 26657 net.cpp:399] inception_3b/pool_proj -> inception_3b/pool_proj
I0714 22:13:56.587687 26661 net.cpp:141] Setting up inception_3b/pool_proj
I0714 22:13:56.587713 26661 net.cpp:148] Top shape: 10 64 28 28 (501760)
I0714 22:13:56.587718 26661 net.cpp:156] Memory required for data: 320122880
I0714 22:13:56.587726 26661 layer_factory.hpp:77] Creating layer inception_3b/relu_pool_proj
I0714 22:13:56.587734 26661 net.cpp:91] Creating Layer inception_3b/relu_pool_proj
I0714 22:13:56.587740 26661 net.cpp:425] inception_3b/relu_pool_proj <- inception_3b/pool_proj
I0714 22:13:56.587748 26661 net.cpp:386] inception_3b/relu_pool_proj -> inception_3b/pool_proj (in-place)
I0714 22:13:56.588682 26661 net.cpp:141] Setting up inception_3b/relu_pool_proj
I0714 22:13:56.588697 26661 net.cpp:148] Top shape: 10 64 28 28 (501760)
I0714 22:13:56.588701 26661 net.cpp:156] Memory required for data: 322129920
I0714 22:13:56.588706 26661 layer_factory.hpp:77] Creating layer inception_3b/output
I0714 22:13:56.588714 26661 net.cpp:91] Creating Layer inception_3b/output
I0714 22:13:56.588721 26661 net.cpp:425] inception_3b/output <- inception_3b/1x1
I0714 22:13:56.588726 26661 net.cpp:425] inception_3b/output <- inception_3b/3x3
I0714 22:13:56.588732 26661 net.cpp:425] inception_3b/output <- inception_3b/5x5
I0714 22:13:56.588737 26661 net.cpp:425] inception_3b/output <- inception_3b/pool_proj
I0714 22:13:56.588743 26661 net.cpp:399] inception_3b/output -> inception_3b/output
I0714 22:13:56.588744 26657 net.cpp:141] Setting up inception_3b/pool_proj
I0714 22:13:56.588758 26657 net.cpp:148] Top shape: 10 64 28 28 (501760)
I0714 22:13:56.588763 26657 net.cpp:156] Memory required for data: 320122880
I0714 22:13:56.588771 26657 layer_factory.hpp:77] Creating layer inception_3b/relu_pool_proj
I0714 22:13:56.588783 26657 net.cpp:91] Creating Layer inception_3b/relu_pool_proj
I0714 22:13:56.588788 26657 net.cpp:425] inception_3b/relu_pool_proj <- inception_3b/pool_proj
I0714 22:13:56.588795 26657 net.cpp:386] inception_3b/relu_pool_proj -> inception_3b/pool_proj (in-place)
I0714 22:13:56.588810 26661 net.cpp:141] Setting up inception_3b/output
I0714 22:13:56.588820 26661 net.cpp:148] Top shape: 10 480 28 28 (3763200)
I0714 22:13:56.588825 26661 net.cpp:156] Memory required for data: 337182720
I0714 22:13:56.588829 26661 layer_factory.hpp:77] Creating layer pool3/3x3_s2
I0714 22:13:56.588837 26661 net.cpp:91] Creating Layer pool3/3x3_s2
I0714 22:13:56.588841 26661 net.cpp:425] pool3/3x3_s2 <- inception_3b/output
I0714 22:13:56.588851 26661 net.cpp:399] pool3/3x3_s2 -> pool3/3x3_s2
I0714 22:13:56.589522 26661 net.cpp:141] Setting up pool3/3x3_s2
I0714 22:13:56.589534 26661 net.cpp:148] Top shape: 10 480 14 14 (940800)
I0714 22:13:56.589537 26661 net.cpp:156] Memory required for data: 340945920
I0714 22:13:56.589542 26661 layer_factory.hpp:77] Creating layer pool3/3x3_s2_pool3/3x3_s2_0_split
I0714 22:13:56.589553 26661 net.cpp:91] Creating Layer pool3/3x3_s2_pool3/3x3_s2_0_split
I0714 22:13:56.589558 26661 net.cpp:425] pool3/3x3_s2_pool3/3x3_s2_0_split <- pool3/3x3_s2
I0714 22:13:56.589565 26661 net.cpp:399] pool3/3x3_s2_pool3/3x3_s2_0_split -> pool3/3x3_s2_pool3/3x3_s2_0_split_0
I0714 22:13:56.589573 26661 net.cpp:399] pool3/3x3_s2_pool3/3x3_s2_0_split -> pool3/3x3_s2_pool3/3x3_s2_0_split_1
I0714 22:13:56.589581 26661 net.cpp:399] pool3/3x3_s2_pool3/3x3_s2_0_split -> pool3/3x3_s2_pool3/3x3_s2_0_split_2
I0714 22:13:56.589584 26657 net.cpp:141] Setting up inception_3b/relu_pool_proj
I0714 22:13:56.589591 26661 net.cpp:399] pool3/3x3_s2_pool3/3x3_s2_0_split -> pool3/3x3_s2_pool3/3x3_s2_0_split_3
I0714 22:13:56.589599 26657 net.cpp:148] Top shape: 10 64 28 28 (501760)
I0714 22:13:56.589604 26657 net.cpp:156] Memory required for data: 322129920
I0714 22:13:56.589609 26657 layer_factory.hpp:77] Creating layer inception_3b/output
I0714 22:13:56.589617 26657 net.cpp:91] Creating Layer inception_3b/output
I0714 22:13:56.589622 26657 net.cpp:425] inception_3b/output <- inception_3b/1x1
I0714 22:13:56.589628 26657 net.cpp:425] inception_3b/output <- inception_3b/3x3
I0714 22:13:56.589633 26657 net.cpp:425] inception_3b/output <- inception_3b/5x5
I0714 22:13:56.589638 26657 net.cpp:425] inception_3b/output <- inception_3b/pool_proj
I0714 22:13:56.589644 26657 net.cpp:399] inception_3b/output -> inception_3b/output
I0714 22:13:56.589740 26657 net.cpp:141] Setting up inception_3b/output
I0714 22:13:56.589751 26657 net.cpp:148] Top shape: 10 480 28 28 (3763200)
I0714 22:13:56.589756 26657 net.cpp:156] Memory required for data: 337182720
I0714 22:13:56.589761 26657 layer_factory.hpp:77] Creating layer pool3/3x3_s2
I0714 22:13:56.589768 26657 net.cpp:91] Creating Layer pool3/3x3_s2
I0714 22:13:56.589773 26657 net.cpp:425] pool3/3x3_s2 <- inception_3b/output
I0714 22:13:56.589781 26657 net.cpp:399] pool3/3x3_s2 -> pool3/3x3_s2
I0714 22:13:56.589807 26661 net.cpp:141] Setting up pool3/3x3_s2_pool3/3x3_s2_0_split
I0714 22:13:56.589819 26661 net.cpp:148] Top shape: 10 480 14 14 (940800)
I0714 22:13:56.589824 26661 net.cpp:148] Top shape: 10 480 14 14 (940800)
I0714 22:13:56.589829 26661 net.cpp:148] Top shape: 10 480 14 14 (940800)
I0714 22:13:56.589834 26661 net.cpp:148] Top shape: 10 480 14 14 (940800)
I0714 22:13:56.589838 26661 net.cpp:156] Memory required for data: 355998720
I0714 22:13:56.589843 26661 layer_factory.hpp:77] Creating layer inception_4a/1x1
I0714 22:13:56.589857 26661 net.cpp:91] Creating Layer inception_4a/1x1
I0714 22:13:56.589862 26661 net.cpp:425] inception_4a/1x1 <- pool3/3x3_s2_pool3/3x3_s2_0_split_0
I0714 22:13:56.589871 26661 net.cpp:399] inception_4a/1x1 -> inception_4a/1x1
I0714 22:13:56.589889 26657 net.cpp:141] Setting up pool3/3x3_s2
I0714 22:13:56.589905 26657 net.cpp:148] Top shape: 10 480 14 14 (940800)
I0714 22:13:56.589913 26657 net.cpp:156] Memory required for data: 340945920
I0714 22:13:56.589920 26657 layer_factory.hpp:77] Creating layer pool3/3x3_s2_pool3/3x3_s2_0_split
I0714 22:13:56.589928 26657 net.cpp:91] Creating Layer pool3/3x3_s2_pool3/3x3_s2_0_split
I0714 22:13:56.589933 26657 net.cpp:425] pool3/3x3_s2_pool3/3x3_s2_0_split <- pool3/3x3_s2
I0714 22:13:56.589944 26657 net.cpp:399] pool3/3x3_s2_pool3/3x3_s2_0_split -> pool3/3x3_s2_pool3/3x3_s2_0_split_0
I0714 22:13:56.589953 26657 net.cpp:399] pool3/3x3_s2_pool3/3x3_s2_0_split -> pool3/3x3_s2_pool3/3x3_s2_0_split_1
I0714 22:13:56.589961 26657 net.cpp:399] pool3/3x3_s2_pool3/3x3_s2_0_split -> pool3/3x3_s2_pool3/3x3_s2_0_split_2
I0714 22:13:56.589968 26657 net.cpp:399] pool3/3x3_s2_pool3/3x3_s2_0_split -> pool3/3x3_s2_pool3/3x3_s2_0_split_3
I0714 22:13:56.590301 26657 net.cpp:141] Setting up pool3/3x3_s2_pool3/3x3_s2_0_split
I0714 22:13:56.590312 26657 net.cpp:148] Top shape: 10 480 14 14 (940800)
I0714 22:13:56.590317 26657 net.cpp:148] Top shape: 10 480 14 14 (940800)
I0714 22:13:56.590322 26657 net.cpp:148] Top shape: 10 480 14 14 (940800)
I0714 22:13:56.590327 26657 net.cpp:148] Top shape: 10 480 14 14 (940800)
I0714 22:13:56.590330 26657 net.cpp:156] Memory required for data: 355998720
I0714 22:13:56.590335 26657 layer_factory.hpp:77] Creating layer inception_4a/1x1
I0714 22:13:56.590347 26657 net.cpp:91] Creating Layer inception_4a/1x1
I0714 22:13:56.590351 26657 net.cpp:425] inception_4a/1x1 <- pool3/3x3_s2_pool3/3x3_s2_0_split_0
I0714 22:13:56.590371 26657 net.cpp:399] inception_4a/1x1 -> inception_4a/1x1
I0714 22:13:56.595085 26661 net.cpp:141] Setting up inception_4a/1x1
I0714 22:13:56.595103 26661 net.cpp:148] Top shape: 10 192 14 14 (376320)
I0714 22:13:56.595108 26661 net.cpp:156] Memory required for data: 357504000
I0714 22:13:56.595118 26661 layer_factory.hpp:77] Creating layer inception_4a/relu_1x1
I0714 22:13:56.595129 26661 net.cpp:91] Creating Layer inception_4a/relu_1x1
I0714 22:13:56.595135 26661 net.cpp:425] inception_4a/relu_1x1 <- inception_4a/1x1
I0714 22:13:56.595144 26661 net.cpp:386] inception_4a/relu_1x1 -> inception_4a/1x1 (in-place)
I0714 22:13:56.595208 26657 net.cpp:141] Setting up inception_4a/1x1
I0714 22:13:56.595223 26657 net.cpp:148] Top shape: 10 192 14 14 (376320)
I0714 22:13:56.595227 26657 net.cpp:156] Memory required for data: 357504000
I0714 22:13:56.595237 26657 layer_factory.hpp:77] Creating layer inception_4a/relu_1x1
I0714 22:13:56.595245 26657 net.cpp:91] Creating Layer inception_4a/relu_1x1
I0714 22:13:56.595250 26657 net.cpp:425] inception_4a/relu_1x1 <- inception_4a/1x1
I0714 22:13:56.595260 26657 net.cpp:386] inception_4a/relu_1x1 -> inception_4a/1x1 (in-place)
I0714 22:13:56.595443 26661 net.cpp:141] Setting up inception_4a/relu_1x1
I0714 22:13:56.595454 26661 net.cpp:148] Top shape: 10 192 14 14 (376320)
I0714 22:13:56.595459 26661 net.cpp:156] Memory required for data: 359009280
I0714 22:13:56.595463 26661 layer_factory.hpp:77] Creating layer inception_4a/3x3_reduce
I0714 22:13:56.595479 26661 net.cpp:91] Creating Layer inception_4a/3x3_reduce
I0714 22:13:56.595485 26661 net.cpp:425] inception_4a/3x3_reduce <- pool3/3x3_s2_pool3/3x3_s2_0_split_1
I0714 22:13:56.595504 26661 net.cpp:399] inception_4a/3x3_reduce -> inception_4a/3x3_reduce
I0714 22:13:56.595609 26657 net.cpp:141] Setting up inception_4a/relu_1x1
I0714 22:13:56.595623 26657 net.cpp:148] Top shape: 10 192 14 14 (376320)
I0714 22:13:56.595628 26657 net.cpp:156] Memory required for data: 359009280
I0714 22:13:56.595633 26657 layer_factory.hpp:77] Creating layer inception_4a/3x3_reduce
I0714 22:13:56.595645 26657 net.cpp:91] Creating Layer inception_4a/3x3_reduce
I0714 22:13:56.595651 26657 net.cpp:425] inception_4a/3x3_reduce <- pool3/3x3_s2_pool3/3x3_s2_0_split_1
I0714 22:13:56.595664 26657 net.cpp:399] inception_4a/3x3_reduce -> inception_4a/3x3_reduce
I0714 22:13:56.599514 26661 net.cpp:141] Setting up inception_4a/3x3_reduce
I0714 22:13:56.599532 26661 net.cpp:148] Top shape: 10 96 14 14 (188160)
I0714 22:13:56.599539 26661 net.cpp:156] Memory required for data: 359761920
I0714 22:13:56.599555 26661 layer_factory.hpp:77] Creating layer inception_4a/relu_3x3_reduce
I0714 22:13:56.599566 26661 net.cpp:91] Creating Layer inception_4a/relu_3x3_reduce
I0714 22:13:56.599572 26661 net.cpp:425] inception_4a/relu_3x3_reduce <- inception_4a/3x3_reduce
I0714 22:13:56.599581 26661 net.cpp:386] inception_4a/relu_3x3_reduce -> inception_4a/3x3_reduce (in-place)
I0714 22:13:56.599824 26657 net.cpp:141] Setting up inception_4a/3x3_reduce
I0714 22:13:56.599838 26657 net.cpp:148] Top shape: 10 96 14 14 (188160)
I0714 22:13:56.599843 26657 net.cpp:156] Memory required for data: 359761920
I0714 22:13:56.599861 26657 layer_factory.hpp:77] Creating layer inception_4a/relu_3x3_reduce
I0714 22:13:56.599869 26657 net.cpp:91] Creating Layer inception_4a/relu_3x3_reduce
I0714 22:13:56.599874 26657 net.cpp:425] inception_4a/relu_3x3_reduce <- inception_4a/3x3_reduce
I0714 22:13:56.599892 26657 net.cpp:386] inception_4a/relu_3x3_reduce -> inception_4a/3x3_reduce (in-place)
I0714 22:13:56.599891 26661 net.cpp:141] Setting up inception_4a/relu_3x3_reduce
I0714 22:13:56.599905 26661 net.cpp:148] Top shape: 10 96 14 14 (188160)
I0714 22:13:56.599908 26661 net.cpp:156] Memory required for data: 360514560
I0714 22:13:56.599912 26661 layer_factory.hpp:77] Creating layer inception_4a/3x3
I0714 22:13:56.599931 26661 net.cpp:91] Creating Layer inception_4a/3x3
I0714 22:13:56.599937 26661 net.cpp:425] inception_4a/3x3 <- inception_4a/3x3_reduce
I0714 22:13:56.599948 26661 net.cpp:399] inception_4a/3x3 -> inception_4a/3x3
I0714 22:13:56.600256 26657 net.cpp:141] Setting up inception_4a/relu_3x3_reduce
I0714 22:13:56.600270 26657 net.cpp:148] Top shape: 10 96 14 14 (188160)
I0714 22:13:56.600275 26657 net.cpp:156] Memory required for data: 360514560
I0714 22:13:56.600280 26657 layer_factory.hpp:77] Creating layer inception_4a/3x3
I0714 22:13:56.600294 26657 net.cpp:91] Creating Layer inception_4a/3x3
I0714 22:13:56.600301 26657 net.cpp:425] inception_4a/3x3 <- inception_4a/3x3_reduce
I0714 22:13:56.600308 26657 net.cpp:399] inception_4a/3x3 -> inception_4a/3x3
I0714 22:13:56.607363 26661 net.cpp:141] Setting up inception_4a/3x3
I0714 22:13:56.607388 26661 net.cpp:148] Top shape: 10 208 14 14 (407680)
I0714 22:13:56.607394 26661 net.cpp:156] Memory required for data: 362145280
I0714 22:13:56.607404 26661 layer_factory.hpp:77] Creating layer inception_4a/relu_3x3
I0714 22:13:56.607414 26661 net.cpp:91] Creating Layer inception_4a/relu_3x3
I0714 22:13:56.607420 26661 net.cpp:425] inception_4a/relu_3x3 <- inception_4a/3x3
I0714 22:13:56.607432 26661 net.cpp:386] inception_4a/relu_3x3 -> inception_4a/3x3 (in-place)
I0714 22:13:56.608464 26661 net.cpp:141] Setting up inception_4a/relu_3x3
I0714 22:13:56.608489 26661 net.cpp:148] Top shape: 10 208 14 14 (407680)
I0714 22:13:56.608499 26661 net.cpp:156] Memory required for data: 363776000
I0714 22:13:56.608505 26661 layer_factory.hpp:77] Creating layer inception_4a/5x5_reduce
I0714 22:13:56.608512 26657 net.cpp:141] Setting up inception_4a/3x3
I0714 22:13:56.608523 26661 net.cpp:91] Creating Layer inception_4a/5x5_reduce
I0714 22:13:56.608527 26657 net.cpp:148] Top shape: 10 208 14 14 (407680)
I0714 22:13:56.608530 26661 net.cpp:425] inception_4a/5x5_reduce <- pool3/3x3_s2_pool3/3x3_s2_0_split_2
I0714 22:13:56.608532 26657 net.cpp:156] Memory required for data: 362145280
I0714 22:13:56.608541 26657 layer_factory.hpp:77] Creating layer inception_4a/relu_3x3
I0714 22:13:56.608543 26661 net.cpp:399] inception_4a/5x5_reduce -> inception_4a/5x5_reduce
I0714 22:13:56.608552 26657 net.cpp:91] Creating Layer inception_4a/relu_3x3
I0714 22:13:56.608559 26657 net.cpp:425] inception_4a/relu_3x3 <- inception_4a/3x3
I0714 22:13:56.608566 26657 net.cpp:386] inception_4a/relu_3x3 -> inception_4a/3x3 (in-place)
I0714 22:13:56.609508 26657 net.cpp:141] Setting up inception_4a/relu_3x3
I0714 22:13:56.609526 26657 net.cpp:148] Top shape: 10 208 14 14 (407680)
I0714 22:13:56.609531 26657 net.cpp:156] Memory required for data: 363776000
I0714 22:13:56.609537 26657 layer_factory.hpp:77] Creating layer inception_4a/5x5_reduce
I0714 22:13:56.609554 26657 net.cpp:91] Creating Layer inception_4a/5x5_reduce
I0714 22:13:56.609560 26657 net.cpp:425] inception_4a/5x5_reduce <- pool3/3x3_s2_pool3/3x3_s2_0_split_2
I0714 22:13:56.609570 26657 net.cpp:399] inception_4a/5x5_reduce -> inception_4a/5x5_reduce
I0714 22:13:56.613065 26661 net.cpp:141] Setting up inception_4a/5x5_reduce
I0714 22:13:56.613083 26661 net.cpp:148] Top shape: 10 16 14 14 (31360)
I0714 22:13:56.613090 26661 net.cpp:156] Memory required for data: 363901440
I0714 22:13:56.613098 26661 layer_factory.hpp:77] Creating layer inception_4a/relu_5x5_reduce
I0714 22:13:56.613107 26661 net.cpp:91] Creating Layer inception_4a/relu_5x5_reduce
I0714 22:13:56.613112 26661 net.cpp:425] inception_4a/relu_5x5_reduce <- inception_4a/5x5_reduce
I0714 22:13:56.613124 26661 net.cpp:386] inception_4a/relu_5x5_reduce -> inception_4a/5x5_reduce (in-place)
I0714 22:13:56.613374 26657 net.cpp:141] Setting up inception_4a/5x5_reduce
I0714 22:13:56.613391 26657 net.cpp:148] Top shape: 10 16 14 14 (31360)
I0714 22:13:56.613395 26657 net.cpp:156] Memory required for data: 363901440
I0714 22:13:56.613404 26657 layer_factory.hpp:77] Creating layer inception_4a/relu_5x5_reduce
I0714 22:13:56.613412 26657 net.cpp:91] Creating Layer inception_4a/relu_5x5_reduce
I0714 22:13:56.613418 26657 net.cpp:425] inception_4a/relu_5x5_reduce <- inception_4a/5x5_reduce
I0714 22:13:56.613425 26657 net.cpp:386] inception_4a/relu_5x5_reduce -> inception_4a/5x5_reduce (in-place)
I0714 22:13:56.613435 26661 net.cpp:141] Setting up inception_4a/relu_5x5_reduce
I0714 22:13:56.613450 26661 net.cpp:148] Top shape: 10 16 14 14 (31360)
I0714 22:13:56.613453 26661 net.cpp:156] Memory required for data: 364026880
I0714 22:13:56.613458 26661 layer_factory.hpp:77] Creating layer inception_4a/5x5
I0714 22:13:56.613481 26661 net.cpp:91] Creating Layer inception_4a/5x5
I0714 22:13:56.613487 26661 net.cpp:425] inception_4a/5x5 <- inception_4a/5x5_reduce
I0714 22:13:56.613497 26661 net.cpp:399] inception_4a/5x5 -> inception_4a/5x5
I0714 22:13:56.613807 26657 net.cpp:141] Setting up inception_4a/relu_5x5_reduce
I0714 22:13:56.613818 26657 net.cpp:148] Top shape: 10 16 14 14 (31360)
I0714 22:13:56.613823 26657 net.cpp:156] Memory required for data: 364026880
I0714 22:13:56.613827 26657 layer_factory.hpp:77] Creating layer inception_4a/5x5
I0714 22:13:56.613842 26657 net.cpp:91] Creating Layer inception_4a/5x5
I0714 22:13:56.613847 26657 net.cpp:425] inception_4a/5x5 <- inception_4a/5x5_reduce
I0714 22:13:56.613858 26657 net.cpp:399] inception_4a/5x5 -> inception_4a/5x5
I0714 22:13:56.617390 26661 net.cpp:141] Setting up inception_4a/5x5
I0714 22:13:56.617409 26661 net.cpp:148] Top shape: 10 48 14 14 (94080)
I0714 22:13:56.617414 26661 net.cpp:156] Memory required for data: 364403200
I0714 22:13:56.617424 26661 layer_factory.hpp:77] Creating layer inception_4a/relu_5x5
I0714 22:13:56.617437 26661 net.cpp:91] Creating Layer inception_4a/relu_5x5
I0714 22:13:56.617444 26661 net.cpp:425] inception_4a/relu_5x5 <- inception_4a/5x5
I0714 22:13:56.617450 26661 net.cpp:386] inception_4a/relu_5x5 -> inception_4a/5x5 (in-place)
I0714 22:13:56.617738 26657 net.cpp:141] Setting up inception_4a/5x5
I0714 22:13:56.617751 26657 net.cpp:148] Top shape: 10 48 14 14 (94080)
I0714 22:13:56.617756 26657 net.cpp:156] Memory required for data: 364403200
I0714 22:13:56.617765 26657 layer_factory.hpp:77] Creating layer inception_4a/relu_5x5
I0714 22:13:56.617774 26657 net.cpp:91] Creating Layer inception_4a/relu_5x5
I0714 22:13:56.617779 26657 net.cpp:425] inception_4a/relu_5x5 <- inception_4a/5x5
I0714 22:13:56.617797 26657 net.cpp:386] inception_4a/relu_5x5 -> inception_4a/5x5 (in-place)
I0714 22:13:56.617812 26661 net.cpp:141] Setting up inception_4a/relu_5x5
I0714 22:13:56.617825 26661 net.cpp:148] Top shape: 10 48 14 14 (94080)
I0714 22:13:56.617828 26661 net.cpp:156] Memory required for data: 364779520
I0714 22:13:56.617833 26661 layer_factory.hpp:77] Creating layer inception_4a/pool
I0714 22:13:56.617842 26661 net.cpp:91] Creating Layer inception_4a/pool
I0714 22:13:56.617847 26661 net.cpp:425] inception_4a/pool <- pool3/3x3_s2_pool3/3x3_s2_0_split_3
I0714 22:13:56.617858 26661 net.cpp:399] inception_4a/pool -> inception_4a/pool
I0714 22:13:56.618120 26661 net.cpp:141] Setting up inception_4a/pool
I0714 22:13:56.618131 26661 net.cpp:148] Top shape: 10 480 14 14 (940800)
I0714 22:13:56.618136 26661 net.cpp:156] Memory required for data: 368542720
I0714 22:13:56.618140 26661 layer_factory.hpp:77] Creating layer inception_4a/pool_proj
I0714 22:13:56.618165 26661 net.cpp:91] Creating Layer inception_4a/pool_proj
I0714 22:13:56.618170 26661 net.cpp:425] inception_4a/pool_proj <- inception_4a/pool
I0714 22:13:56.618180 26661 net.cpp:399] inception_4a/pool_proj -> inception_4a/pool_proj
I0714 22:13:56.618178 26657 net.cpp:141] Setting up inception_4a/relu_5x5
I0714 22:13:56.618193 26657 net.cpp:148] Top shape: 10 48 14 14 (94080)
I0714 22:13:56.618197 26657 net.cpp:156] Memory required for data: 364779520
I0714 22:13:56.618202 26657 layer_factory.hpp:77] Creating layer inception_4a/pool
I0714 22:13:56.618211 26657 net.cpp:91] Creating Layer inception_4a/pool
I0714 22:13:56.618216 26657 net.cpp:425] inception_4a/pool <- pool3/3x3_s2_pool3/3x3_s2_0_split_3
I0714 22:13:56.618223 26657 net.cpp:399] inception_4a/pool -> inception_4a/pool
I0714 22:13:56.618451 26657 net.cpp:141] Setting up inception_4a/pool
I0714 22:13:56.618464 26657 net.cpp:148] Top shape: 10 480 14 14 (940800)
I0714 22:13:56.618468 26657 net.cpp:156] Memory required for data: 368542720
I0714 22:13:56.618474 26657 layer_factory.hpp:77] Creating layer inception_4a/pool_proj
I0714 22:13:56.618489 26657 net.cpp:91] Creating Layer inception_4a/pool_proj
I0714 22:13:56.618495 26657 net.cpp:425] inception_4a/pool_proj <- inception_4a/pool
I0714 22:13:56.618504 26657 net.cpp:399] inception_4a/pool_proj -> inception_4a/pool_proj
I0714 22:13:56.622130 26661 net.cpp:141] Setting up inception_4a/pool_proj
I0714 22:13:56.622148 26661 net.cpp:148] Top shape: 10 64 14 14 (125440)
I0714 22:13:56.622153 26661 net.cpp:156] Memory required for data: 369044480
I0714 22:13:56.622162 26661 layer_factory.hpp:77] Creating layer inception_4a/relu_pool_proj
I0714 22:13:56.622170 26661 net.cpp:91] Creating Layer inception_4a/relu_pool_proj
I0714 22:13:56.622176 26661 net.cpp:425] inception_4a/relu_pool_proj <- inception_4a/pool_proj
I0714 22:13:56.622187 26661 net.cpp:386] inception_4a/relu_pool_proj -> inception_4a/pool_proj (in-place)
I0714 22:13:56.623129 26661 net.cpp:141] Setting up inception_4a/relu_pool_proj
I0714 22:13:56.623157 26661 net.cpp:148] Top shape: 10 64 14 14 (125440)
I0714 22:13:56.623162 26661 net.cpp:156] Memory required for data: 369546240
I0714 22:13:56.623167 26661 layer_factory.hpp:77] Creating layer inception_4a/output
I0714 22:13:56.623179 26661 net.cpp:91] Creating Layer inception_4a/output
I0714 22:13:56.623185 26661 net.cpp:425] inception_4a/output <- inception_4a/1x1
I0714 22:13:56.623193 26661 net.cpp:425] inception_4a/output <- inception_4a/3x3
I0714 22:13:56.623198 26661 net.cpp:425] inception_4a/output <- inception_4a/5x5
I0714 22:13:56.623203 26661 net.cpp:425] inception_4a/output <- inception_4a/pool_proj
I0714 22:13:56.623209 26661 net.cpp:399] inception_4a/output -> inception_4a/output
I0714 22:13:56.623225 26657 net.cpp:141] Setting up inception_4a/pool_proj
I0714 22:13:56.623241 26657 net.cpp:148] Top shape: 10 64 14 14 (125440)
I0714 22:13:56.623246 26657 net.cpp:156] Memory required for data: 369044480
I0714 22:13:56.623255 26657 layer_factory.hpp:77] Creating layer inception_4a/relu_pool_proj
I0714 22:13:56.623263 26657 net.cpp:91] Creating Layer inception_4a/relu_pool_proj
I0714 22:13:56.623268 26657 net.cpp:425] inception_4a/relu_pool_proj <- inception_4a/pool_proj
I0714 22:13:56.623275 26657 net.cpp:386] inception_4a/relu_pool_proj -> inception_4a/pool_proj (in-place)
I0714 22:13:56.623278 26661 net.cpp:141] Setting up inception_4a/output
I0714 22:13:56.623289 26661 net.cpp:148] Top shape: 10 512 14 14 (1003520)
I0714 22:13:56.623293 26661 net.cpp:156] Memory required for data: 373560320
I0714 22:13:56.623297 26661 layer_factory.hpp:77] Creating layer inception_4a/output_inception_4a/output_0_split
I0714 22:13:56.623311 26661 net.cpp:91] Creating Layer inception_4a/output_inception_4a/output_0_split
I0714 22:13:56.623316 26661 net.cpp:425] inception_4a/output_inception_4a/output_0_split <- inception_4a/output
I0714 22:13:56.623322 26661 net.cpp:399] inception_4a/output_inception_4a/output_0_split -> inception_4a/output_inception_4a/output_0_split_0
I0714 22:13:56.623333 26661 net.cpp:399] inception_4a/output_inception_4a/output_0_split -> inception_4a/output_inception_4a/output_0_split_1
I0714 22:13:56.623342 26661 net.cpp:399] inception_4a/output_inception_4a/output_0_split -> inception_4a/output_inception_4a/output_0_split_2
I0714 22:13:56.623350 26661 net.cpp:399] inception_4a/output_inception_4a/output_0_split -> inception_4a/output_inception_4a/output_0_split_3
I0714 22:13:56.624158 26661 net.cpp:141] Setting up inception_4a/output_inception_4a/output_0_split
I0714 22:13:56.624171 26661 net.cpp:148] Top shape: 10 512 14 14 (1003520)
I0714 22:13:56.624169 26657 net.cpp:141] Setting up inception_4a/relu_pool_proj
I0714 22:13:56.624176 26661 net.cpp:148] Top shape: 10 512 14 14 (1003520)
I0714 22:13:56.624181 26661 net.cpp:148] Top shape: 10 512 14 14 (1003520)
I0714 22:13:56.624183 26657 net.cpp:148] Top shape: 10 64 14 14 (125440)
I0714 22:13:56.624186 26661 net.cpp:148] Top shape: 10 512 14 14 (1003520)
I0714 22:13:56.624188 26657 net.cpp:156] Memory required for data: 369546240
I0714 22:13:56.624191 26661 net.cpp:156] Memory required for data: 389616640
I0714 22:13:56.624193 26657 layer_factory.hpp:77] Creating layer inception_4a/output
I0714 22:13:56.624196 26661 layer_factory.hpp:77] Creating layer inception_4b/1x1
I0714 22:13:56.624202 26657 net.cpp:91] Creating Layer inception_4a/output
I0714 22:13:56.624207 26657 net.cpp:425] inception_4a/output <- inception_4a/1x1
I0714 22:13:56.624212 26661 net.cpp:91] Creating Layer inception_4b/1x1
I0714 22:13:56.624213 26657 net.cpp:425] inception_4a/output <- inception_4a/3x3
I0714 22:13:56.624217 26661 net.cpp:425] inception_4b/1x1 <- inception_4a/output_inception_4a/output_0_split_0
I0714 22:13:56.624218 26657 net.cpp:425] inception_4a/output <- inception_4a/5x5
I0714 22:13:56.624224 26657 net.cpp:425] inception_4a/output <- inception_4a/pool_proj
I0714 22:13:56.624229 26661 net.cpp:399] inception_4b/1x1 -> inception_4b/1x1
I0714 22:13:56.624230 26657 net.cpp:399] inception_4a/output -> inception_4a/output
I0714 22:13:56.624341 26657 net.cpp:141] Setting up inception_4a/output
I0714 22:13:56.624351 26657 net.cpp:148] Top shape: 10 512 14 14 (1003520)
I0714 22:13:56.624356 26657 net.cpp:156] Memory required for data: 373560320
I0714 22:13:56.624361 26657 layer_factory.hpp:77] Creating layer inception_4a/output_inception_4a/output_0_split
I0714 22:13:56.624368 26657 net.cpp:91] Creating Layer inception_4a/output_inception_4a/output_0_split
I0714 22:13:56.624373 26657 net.cpp:425] inception_4a/output_inception_4a/output_0_split <- inception_4a/output
I0714 22:13:56.624383 26657 net.cpp:399] inception_4a/output_inception_4a/output_0_split -> inception_4a/output_inception_4a/output_0_split_0
I0714 22:13:56.624393 26657 net.cpp:399] inception_4a/output_inception_4a/output_0_split -> inception_4a/output_inception_4a/output_0_split_1
I0714 22:13:56.624402 26657 net.cpp:399] inception_4a/output_inception_4a/output_0_split -> inception_4a/output_inception_4a/output_0_split_2
I0714 22:13:56.624409 26657 net.cpp:399] inception_4a/output_inception_4a/output_0_split -> inception_4a/output_inception_4a/output_0_split_3
I0714 22:13:56.624743 26657 net.cpp:141] Setting up inception_4a/output_inception_4a/output_0_split
I0714 22:13:56.624754 26657 net.cpp:148] Top shape: 10 512 14 14 (1003520)
I0714 22:13:56.624760 26657 net.cpp:148] Top shape: 10 512 14 14 (1003520)
I0714 22:13:56.624764 26657 net.cpp:148] Top shape: 10 512 14 14 (1003520)
I0714 22:13:56.624769 26657 net.cpp:148] Top shape: 10 512 14 14 (1003520)
I0714 22:13:56.624773 26657 net.cpp:156] Memory required for data: 389616640
I0714 22:13:56.624778 26657 layer_factory.hpp:77] Creating layer inception_4b/1x1
I0714 22:13:56.624791 26657 net.cpp:91] Creating Layer inception_4b/1x1
I0714 22:13:56.624797 26657 net.cpp:425] inception_4b/1x1 <- inception_4a/output_inception_4a/output_0_split_0
I0714 22:13:56.624809 26657 net.cpp:399] inception_4b/1x1 -> inception_4b/1x1
I0714 22:13:56.628321 26661 net.cpp:141] Setting up inception_4b/1x1
I0714 22:13:56.628350 26661 net.cpp:148] Top shape: 10 160 14 14 (313600)
I0714 22:13:56.628355 26661 net.cpp:156] Memory required for data: 390871040
I0714 22:13:56.628365 26661 layer_factory.hpp:77] Creating layer inception_4b/relu_1x1
I0714 22:13:56.628372 26661 net.cpp:91] Creating Layer inception_4b/relu_1x1
I0714 22:13:56.628378 26661 net.cpp:425] inception_4b/relu_1x1 <- inception_4b/1x1
I0714 22:13:56.628389 26661 net.cpp:386] inception_4b/relu_1x1 -> inception_4b/1x1 (in-place)
I0714 22:13:56.628690 26657 net.cpp:141] Setting up inception_4b/1x1
I0714 22:13:56.628703 26657 net.cpp:148] Top shape: 10 160 14 14 (313600)
I0714 22:13:56.628708 26657 net.cpp:156] Memory required for data: 390871040
I0714 22:13:56.628716 26657 layer_factory.hpp:77] Creating layer inception_4b/relu_1x1
I0714 22:13:56.628722 26661 net.cpp:141] Setting up inception_4b/relu_1x1
I0714 22:13:56.628727 26657 net.cpp:91] Creating Layer inception_4b/relu_1x1
I0714 22:13:56.628741 26661 net.cpp:148] Top shape: 10 160 14 14 (313600)
I0714 22:13:56.628741 26657 net.cpp:425] inception_4b/relu_1x1 <- inception_4b/1x1
I0714 22:13:56.628746 26661 net.cpp:156] Memory required for data: 392125440
I0714 22:13:56.628749 26657 net.cpp:386] inception_4b/relu_1x1 -> inception_4b/1x1 (in-place)
I0714 22:13:56.628751 26661 layer_factory.hpp:77] Creating layer inception_4b/3x3_reduce
I0714 22:13:56.628772 26661 net.cpp:91] Creating Layer inception_4b/3x3_reduce
I0714 22:13:56.628778 26661 net.cpp:425] inception_4b/3x3_reduce <- inception_4a/output_inception_4a/output_0_split_1
I0714 22:13:56.628790 26661 net.cpp:399] inception_4b/3x3_reduce -> inception_4b/3x3_reduce
I0714 22:13:56.629114 26657 net.cpp:141] Setting up inception_4b/relu_1x1
I0714 22:13:56.629127 26657 net.cpp:148] Top shape: 10 160 14 14 (313600)
I0714 22:13:56.629130 26657 net.cpp:156] Memory required for data: 392125440
I0714 22:13:56.629135 26657 layer_factory.hpp:77] Creating layer inception_4b/3x3_reduce
I0714 22:13:56.629149 26657 net.cpp:91] Creating Layer inception_4b/3x3_reduce
I0714 22:13:56.629154 26657 net.cpp:425] inception_4b/3x3_reduce <- inception_4a/output_inception_4a/output_0_split_1
I0714 22:13:56.629163 26657 net.cpp:399] inception_4b/3x3_reduce -> inception_4b/3x3_reduce
I0714 22:13:56.633013 26661 net.cpp:141] Setting up inception_4b/3x3_reduce
I0714 22:13:56.633033 26661 net.cpp:148] Top shape: 10 112 14 14 (219520)
I0714 22:13:56.633038 26661 net.cpp:156] Memory required for data: 393003520
I0714 22:13:56.633047 26661 layer_factory.hpp:77] Creating layer inception_4b/relu_3x3_reduce
I0714 22:13:56.633055 26661 net.cpp:91] Creating Layer inception_4b/relu_3x3_reduce
I0714 22:13:56.633061 26661 net.cpp:425] inception_4b/relu_3x3_reduce <- inception_4b/3x3_reduce
I0714 22:13:56.633070 26661 net.cpp:386] inception_4b/relu_3x3_reduce -> inception_4b/3x3_reduce (in-place)
I0714 22:13:56.633344 26657 net.cpp:141] Setting up inception_4b/3x3_reduce
I0714 22:13:56.633358 26657 net.cpp:148] Top shape: 10 112 14 14 (219520)
I0714 22:13:56.633363 26657 net.cpp:156] Memory required for data: 393003520
I0714 22:13:56.633371 26657 layer_factory.hpp:77] Creating layer inception_4b/relu_3x3_reduce
I0714 22:13:56.633386 26657 net.cpp:91] Creating Layer inception_4b/relu_3x3_reduce
I0714 22:13:56.633393 26657 net.cpp:425] inception_4b/relu_3x3_reduce <- inception_4b/3x3_reduce
I0714 22:13:56.633399 26657 net.cpp:386] inception_4b/relu_3x3_reduce -> inception_4b/3x3_reduce (in-place)
I0714 22:13:56.633409 26661 net.cpp:141] Setting up inception_4b/relu_3x3_reduce
I0714 22:13:56.633419 26661 net.cpp:148] Top shape: 10 112 14 14 (219520)
I0714 22:13:56.633424 26661 net.cpp:156] Memory required for data: 393881600
I0714 22:13:56.633429 26661 layer_factory.hpp:77] Creating layer inception_4b/3x3
I0714 22:13:56.633446 26661 net.cpp:91] Creating Layer inception_4b/3x3
I0714 22:13:56.633452 26661 net.cpp:425] inception_4b/3x3 <- inception_4b/3x3_reduce
I0714 22:13:56.633461 26661 net.cpp:399] inception_4b/3x3 -> inception_4b/3x3
I0714 22:13:56.633770 26657 net.cpp:141] Setting up inception_4b/relu_3x3_reduce
I0714 22:13:56.633781 26657 net.cpp:148] Top shape: 10 112 14 14 (219520)
I0714 22:13:56.633786 26657 net.cpp:156] Memory required for data: 393881600
I0714 22:13:56.633790 26657 layer_factory.hpp:77] Creating layer inception_4b/3x3
I0714 22:13:56.633805 26657 net.cpp:91] Creating Layer inception_4b/3x3
I0714 22:13:56.633811 26657 net.cpp:425] inception_4b/3x3 <- inception_4b/3x3_reduce
I0714 22:13:56.633822 26657 net.cpp:399] inception_4b/3x3 -> inception_4b/3x3
I0714 22:13:56.641609 26661 net.cpp:141] Setting up inception_4b/3x3
I0714 22:13:56.641629 26661 net.cpp:148] Top shape: 10 224 14 14 (439040)
I0714 22:13:56.641634 26661 net.cpp:156] Memory required for data: 395637760
I0714 22:13:56.641644 26661 layer_factory.hpp:77] Creating layer inception_4b/relu_3x3
I0714 22:13:56.641656 26661 net.cpp:91] Creating Layer inception_4b/relu_3x3
I0714 22:13:56.641662 26661 net.cpp:425] inception_4b/relu_3x3 <- inception_4b/3x3
I0714 22:13:56.641672 26661 net.cpp:386] inception_4b/relu_3x3 -> inception_4b/3x3 (in-place)
I0714 22:13:56.642978 26661 net.cpp:141] Setting up inception_4b/relu_3x3
I0714 22:13:56.642994 26661 net.cpp:148] Top shape: 10 224 14 14 (439040)
I0714 22:13:56.642999 26661 net.cpp:156] Memory required for data: 397393920
I0714 22:13:56.643004 26661 layer_factory.hpp:77] Creating layer inception_4b/5x5_reduce
I0714 22:13:56.643035 26661 net.cpp:91] Creating Layer inception_4b/5x5_reduce
I0714 22:13:56.643041 26661 net.cpp:425] inception_4b/5x5_reduce <- inception_4a/output_inception_4a/output_0_split_2
I0714 22:13:56.643051 26661 net.cpp:399] inception_4b/5x5_reduce -> inception_4b/5x5_reduce
I0714 22:13:56.643110 26657 net.cpp:141] Setting up inception_4b/3x3
I0714 22:13:56.643124 26657 net.cpp:148] Top shape: 10 224 14 14 (439040)
I0714 22:13:56.643128 26657 net.cpp:156] Memory required for data: 395637760
I0714 22:13:56.643137 26657 layer_factory.hpp:77] Creating layer inception_4b/relu_3x3
I0714 22:13:56.643146 26657 net.cpp:91] Creating Layer inception_4b/relu_3x3
I0714 22:13:56.643153 26657 net.cpp:425] inception_4b/relu_3x3 <- inception_4b/3x3
I0714 22:13:56.643164 26657 net.cpp:386] inception_4b/relu_3x3 -> inception_4b/3x3 (in-place)
I0714 22:13:56.644039 26657 net.cpp:141] Setting up inception_4b/relu_3x3
I0714 22:13:56.644067 26657 net.cpp:148] Top shape: 10 224 14 14 (439040)
I0714 22:13:56.644071 26657 net.cpp:156] Memory required for data: 397393920
I0714 22:13:56.644076 26657 layer_factory.hpp:77] Creating layer inception_4b/5x5_reduce
I0714 22:13:56.644104 26657 net.cpp:91] Creating Layer inception_4b/5x5_reduce
I0714 22:13:56.644110 26657 net.cpp:425] inception_4b/5x5_reduce <- inception_4a/output_inception_4a/output_0_split_2
I0714 22:13:56.644122 26657 net.cpp:399] inception_4b/5x5_reduce -> inception_4b/5x5_reduce
I0714 22:13:56.648141 26661 net.cpp:141] Setting up inception_4b/5x5_reduce
I0714 22:13:56.648157 26661 net.cpp:148] Top shape: 10 24 14 14 (47040)
I0714 22:13:56.648162 26661 net.cpp:156] Memory required for data: 397582080
I0714 22:13:56.648171 26661 layer_factory.hpp:77] Creating layer inception_4b/relu_5x5_reduce
I0714 22:13:56.648182 26661 net.cpp:91] Creating Layer inception_4b/relu_5x5_reduce
I0714 22:13:56.648187 26661 net.cpp:425] inception_4b/relu_5x5_reduce <- inception_4b/5x5_reduce
I0714 22:13:56.648195 26661 net.cpp:386] inception_4b/relu_5x5_reduce -> inception_4b/5x5_reduce (in-place)
I0714 22:13:56.648598 26661 net.cpp:141] Setting up inception_4b/relu_5x5_reduce
I0714 22:13:56.648612 26661 net.cpp:148] Top shape: 10 24 14 14 (47040)
I0714 22:13:56.648617 26661 net.cpp:156] Memory required for data: 397770240
I0714 22:13:56.648622 26661 layer_factory.hpp:77] Creating layer inception_4b/5x5
I0714 22:13:56.648648 26661 net.cpp:91] Creating Layer inception_4b/5x5
I0714 22:13:56.648653 26661 net.cpp:425] inception_4b/5x5 <- inception_4b/5x5_reduce
I0714 22:13:56.648663 26661 net.cpp:399] inception_4b/5x5 -> inception_4b/5x5
I0714 22:13:56.648699 26657 net.cpp:141] Setting up inception_4b/5x5_reduce
I0714 22:13:56.648713 26657 net.cpp:148] Top shape: 10 24 14 14 (47040)
I0714 22:13:56.648718 26657 net.cpp:156] Memory required for data: 397582080
I0714 22:13:56.648727 26657 layer_factory.hpp:77] Creating layer inception_4b/relu_5x5_reduce
I0714 22:13:56.648738 26657 net.cpp:91] Creating Layer inception_4b/relu_5x5_reduce
I0714 22:13:56.648744 26657 net.cpp:425] inception_4b/relu_5x5_reduce <- inception_4b/5x5_reduce
I0714 22:13:56.648753 26657 net.cpp:386] inception_4b/relu_5x5_reduce -> inception_4b/5x5_reduce (in-place)
I0714 22:13:56.649128 26657 net.cpp:141] Setting up inception_4b/relu_5x5_reduce
I0714 22:13:56.649140 26657 net.cpp:148] Top shape: 10 24 14 14 (47040)
I0714 22:13:56.649145 26657 net.cpp:156] Memory required for data: 397770240
I0714 22:13:56.649149 26657 layer_factory.hpp:77] Creating layer inception_4b/5x5
I0714 22:13:56.649164 26657 net.cpp:91] Creating Layer inception_4b/5x5
I0714 22:13:56.649170 26657 net.cpp:425] inception_4b/5x5 <- inception_4b/5x5_reduce
I0714 22:13:56.649181 26657 net.cpp:399] inception_4b/5x5 -> inception_4b/5x5
I0714 22:13:56.655874 26661 net.cpp:141] Setting up inception_4b/5x5
I0714 22:13:56.655891 26661 net.cpp:148] Top shape: 10 64 14 14 (125440)
I0714 22:13:56.655896 26661 net.cpp:156] Memory required for data: 398272000
I0714 22:13:56.655905 26661 layer_factory.hpp:77] Creating layer inception_4b/relu_5x5
I0714 22:13:56.655915 26661 net.cpp:91] Creating Layer inception_4b/relu_5x5
I0714 22:13:56.655920 26661 net.cpp:425] inception_4b/relu_5x5 <- inception_4b/5x5
I0714 22:13:56.655930 26661 net.cpp:386] inception_4b/relu_5x5 -> inception_4b/5x5 (in-place)
I0714 22:13:56.656172 26657 net.cpp:141] Setting up inception_4b/5x5
I0714 22:13:56.656188 26657 net.cpp:148] Top shape: 10 64 14 14 (125440)
I0714 22:13:56.656193 26657 net.cpp:156] Memory required for data: 398272000
I0714 22:13:56.656203 26657 layer_factory.hpp:77] Creating layer inception_4b/relu_5x5
I0714 22:13:56.656210 26657 net.cpp:91] Creating Layer inception_4b/relu_5x5
I0714 22:13:56.656215 26657 net.cpp:425] inception_4b/relu_5x5 <- inception_4b/5x5
I0714 22:13:56.656222 26657 net.cpp:386] inception_4b/relu_5x5 -> inception_4b/5x5 (in-place)
I0714 22:13:56.656249 26661 net.cpp:141] Setting up inception_4b/relu_5x5
I0714 22:13:56.656262 26661 net.cpp:148] Top shape: 10 64 14 14 (125440)
I0714 22:13:56.656267 26661 net.cpp:156] Memory required for data: 398773760
I0714 22:13:56.656271 26661 layer_factory.hpp:77] Creating layer inception_4b/pool
I0714 22:13:56.656280 26661 net.cpp:91] Creating Layer inception_4b/pool
I0714 22:13:56.656286 26661 net.cpp:425] inception_4b/pool <- inception_4a/output_inception_4a/output_0_split_3
I0714 22:13:56.656292 26661 net.cpp:399] inception_4b/pool -> inception_4b/pool
I0714 22:13:56.656508 26661 net.cpp:141] Setting up inception_4b/pool
I0714 22:13:56.656520 26661 net.cpp:148] Top shape: 10 512 14 14 (1003520)
I0714 22:13:56.656524 26661 net.cpp:156] Memory required for data: 402787840
I0714 22:13:56.656528 26661 layer_factory.hpp:77] Creating layer inception_4b/pool_proj
I0714 22:13:56.656543 26661 net.cpp:91] Creating Layer inception_4b/pool_proj
I0714 22:13:56.656549 26661 net.cpp:425] inception_4b/pool_proj <- inception_4b/pool
I0714 22:13:56.656563 26661 net.cpp:399] inception_4b/pool_proj -> inception_4b/pool_proj
I0714 22:13:56.656579 26657 net.cpp:141] Setting up inception_4b/relu_5x5
I0714 22:13:56.656591 26657 net.cpp:148] Top shape: 10 64 14 14 (125440)
I0714 22:13:56.656595 26657 net.cpp:156] Memory required for data: 398773760
I0714 22:13:56.656599 26657 layer_factory.hpp:77] Creating layer inception_4b/pool
I0714 22:13:56.656607 26657 net.cpp:91] Creating Layer inception_4b/pool
I0714 22:13:56.656612 26657 net.cpp:425] inception_4b/pool <- inception_4a/output_inception_4a/output_0_split_3
I0714 22:13:56.656622 26657 net.cpp:399] inception_4b/pool -> inception_4b/pool
I0714 22:13:56.656816 26657 net.cpp:141] Setting up inception_4b/pool
I0714 22:13:56.656826 26657 net.cpp:148] Top shape: 10 512 14 14 (1003520)
I0714 22:13:56.656831 26657 net.cpp:156] Memory required for data: 402787840
I0714 22:13:56.656834 26657 layer_factory.hpp:77] Creating layer inception_4b/pool_proj
I0714 22:13:56.656848 26657 net.cpp:91] Creating Layer inception_4b/pool_proj
I0714 22:13:56.656854 26657 net.cpp:425] inception_4b/pool_proj <- inception_4b/pool
I0714 22:13:56.656863 26657 net.cpp:399] inception_4b/pool_proj -> inception_4b/pool_proj
I0714 22:13:56.663590 26661 net.cpp:141] Setting up inception_4b/pool_proj
I0714 22:13:56.663620 26661 net.cpp:148] Top shape: 10 64 14 14 (125440)
I0714 22:13:56.663625 26661 net.cpp:156] Memory required for data: 403289600
I0714 22:13:56.663635 26661 layer_factory.hpp:77] Creating layer inception_4b/relu_pool_proj
I0714 22:13:56.663645 26661 net.cpp:91] Creating Layer inception_4b/relu_pool_proj
I0714 22:13:56.663650 26661 net.cpp:425] inception_4b/relu_pool_proj <- inception_4b/pool_proj
I0714 22:13:56.663657 26661 net.cpp:386] inception_4b/relu_pool_proj -> inception_4b/pool_proj (in-place)
I0714 22:13:56.664726 26661 net.cpp:141] Setting up inception_4b/relu_pool_proj
I0714 22:13:56.664757 26661 net.cpp:148] Top shape: 10 64 14 14 (125440)
I0714 22:13:56.664762 26661 net.cpp:156] Memory required for data: 403791360
I0714 22:13:56.664767 26661 layer_factory.hpp:77] Creating layer inception_4b/output
I0714 22:13:56.664775 26661 net.cpp:91] Creating Layer inception_4b/output
I0714 22:13:56.664782 26661 net.cpp:425] inception_4b/output <- inception_4b/1x1
I0714 22:13:56.664788 26661 net.cpp:425] inception_4b/output <- inception_4b/3x3
I0714 22:13:56.664793 26661 net.cpp:425] inception_4b/output <- inception_4b/5x5
I0714 22:13:56.664798 26661 net.cpp:425] inception_4b/output <- inception_4b/pool_proj
I0714 22:13:56.664805 26661 net.cpp:399] inception_4b/output -> inception_4b/output
I0714 22:13:56.664978 26661 net.cpp:141] Setting up inception_4b/output
I0714 22:13:56.664990 26661 net.cpp:148] Top shape: 10 512 14 14 (1003520)
I0714 22:13:56.664994 26661 net.cpp:156] Memory required for data: 407805440
I0714 22:13:56.664999 26661 layer_factory.hpp:77] Creating layer inception_4b/output_inception_4b/output_0_split
I0714 22:13:56.665006 26661 net.cpp:91] Creating Layer inception_4b/output_inception_4b/output_0_split
I0714 22:13:56.665011 26661 net.cpp:425] inception_4b/output_inception_4b/output_0_split <- inception_4b/output
I0714 22:13:56.665019 26661 net.cpp:399] inception_4b/output_inception_4b/output_0_split -> inception_4b/output_inception_4b/output_0_split_0
I0714 22:13:56.665031 26661 net.cpp:399] inception_4b/output_inception_4b/output_0_split -> inception_4b/output_inception_4b/output_0_split_1
I0714 22:13:56.665040 26661 net.cpp:399] inception_4b/output_inception_4b/output_0_split -> inception_4b/output_inception_4b/output_0_split_2
I0714 22:13:56.665048 26661 net.cpp:399] inception_4b/output_inception_4b/output_0_split -> inception_4b/output_inception_4b/output_0_split_3
I0714 22:13:56.665316 26657 net.cpp:141] Setting up inception_4b/pool_proj
I0714 22:13:56.665354 26657 net.cpp:148] Top shape: 10 64 14 14 (125440)
I0714 22:13:56.665361 26657 net.cpp:156] Memory required for data: 403289600
I0714 22:13:56.665377 26657 layer_factory.hpp:77] Creating layer inception_4b/relu_pool_proj
I0714 22:13:56.665377 26661 net.cpp:141] Setting up inception_4b/output_inception_4b/output_0_split
I0714 22:13:56.665390 26661 net.cpp:148] Top shape: 10 512 14 14 (1003520)
I0714 22:13:56.665395 26661 net.cpp:148] Top shape: 10 512 14 14 (1003520)
I0714 22:13:56.665397 26657 net.cpp:91] Creating Layer inception_4b/relu_pool_proj
I0714 22:13:56.665400 26661 net.cpp:148] Top shape: 10 512 14 14 (1003520)
I0714 22:13:56.665406 26661 net.cpp:148] Top shape: 10 512 14 14 (1003520)
I0714 22:13:56.665408 26657 net.cpp:425] inception_4b/relu_pool_proj <- inception_4b/pool_proj
I0714 22:13:56.665410 26661 net.cpp:156] Memory required for data: 423861760
I0714 22:13:56.665416 26661 layer_factory.hpp:77] Creating layer inception_4c/1x1
I0714 22:13:56.665422 26657 net.cpp:386] inception_4b/relu_pool_proj -> inception_4b/pool_proj (in-place)
I0714 22:13:56.665431 26661 net.cpp:91] Creating Layer inception_4c/1x1
I0714 22:13:56.665436 26661 net.cpp:425] inception_4c/1x1 <- inception_4b/output_inception_4b/output_0_split_0
I0714 22:13:56.665448 26661 net.cpp:399] inception_4c/1x1 -> inception_4c/1x1
I0714 22:13:56.667063 26657 net.cpp:141] Setting up inception_4b/relu_pool_proj
I0714 22:13:56.667098 26657 net.cpp:148] Top shape: 10 64 14 14 (125440)
I0714 22:13:56.667106 26657 net.cpp:156] Memory required for data: 403791360
I0714 22:13:56.667116 26657 layer_factory.hpp:77] Creating layer inception_4b/output
…
I0714 22:13:56.802055 26661 net.cpp:399] pool4/3x3_s2_pool4/3x3_s2_0_split -> pool4/3x3_s2_pool4/3x3_s2_0_split_0
I0714 22:13:56.802063 26661 net.cpp:399] pool4/3x3_s2_pool4/3x3_s2_0_split -> pool4/3x3_s2_pool4/3x3_s2_0_split_1
I0714 22:13:56.802072 26661 net.cpp:399] pool4/3x3_s2_pool4/3x3_s2_0_split -> pool4/3x3_s2_pool4/3x3_s2_0_split_2
I0714 22:13:56.802081 26661 net.cpp:399] pool4/3x3_s2_pool4/3x3_s2_0_split -> pool4/3x3_s2_pool4/3x3_s2_0_split_3
I0714 22:13:56.802616 26661 net.cpp:141] Setting up pool4/3x3_s2_pool4/3x3_s2_0_split
I0714 22:13:56.802628 26661 net.cpp:148] Top shape: 10 832 7 7 (407680)
I0714 22:13:56.802633 26661 net.cpp:148] Top shape: 10 832 7 7 (407680)
I0714 22:13:56.802637 26661 net.cpp:148] Top shape: 10 832 7 7 (407680)
I0714 22:13:56.802642 26661 net.cpp:148] Top shape: 10 832 7 7 (407680)
I0714 22:13:56.802645 26661 net.cpp:156] Memory required for data: 528980480
I0714 22:13:56.802650 26661 layer_factory.hpp:77] Creating layer inception_5a/1x1
I0714 22:13:56.802665 26661 net.cpp:91] Creating Layer inception_5a/1x1
I0714 22:13:56.802671 26661 net.cpp:425] inception_5a/1x1 <- pool4/3x3_s2_pool4/3x3_s2_0_split_0
I0714 22:13:56.802680 26661 net.cpp:399] inception_5a/1x1 -> inception_5a/1x1
I0714 22:13:56.803000 26657 net.cpp:141] Setting up inception_4e/3x3
I0714 22:13:56.803020 26657 net.cpp:148] Top shape: 10 320 14 14 (627200)
I0714 22:13:56.803025 26657 net.cpp:156] Memory required for data: 503139840
I0714 22:13:56.803035 26657 layer_factory.hpp:77] Creating layer inception_4e/relu_3x3
I0714 22:13:56.803048 26657 net.cpp:91] Creating Layer inception_4e/relu_3x3
I0714 22:13:56.803056 26657 net.cpp:425] inception_4e/relu_3x3 <- inception_4e/3x3
I0714 22:13:56.803063 26657 net.cpp:386] inception_4e/relu_3x3 -> inception_4e/3x3 (in-place)
I0714 22:13:56.804113 26657 net.cpp:141] Setting up inception_4e/relu_3x3
I0714 22:13:56.804132 26657 net.cpp:148] Top shape: 10 320 14 14 (627200)
I0714 22:13:56.804137 26657 net.cpp:156] Memory required for data: 505648640
I0714 22:13:56.804143 26657 layer_factory.hpp:77] Creating layer inception_4e/5x5_reduce
I0714 22:13:56.804163 26657 net.cpp:91] Creating Layer inception_4e/5x5_reduce
I0714 22:13:56.804172 26657 net.cpp:425] inception_4e/5x5_reduce <- inception_4d/output_inception_4d/output_0_split_2
I0714 22:13:56.804182 26657 net.cpp:399] inception_4e/5x5_reduce -> inception_4e/5x5_reduce
I0714 22:13:56.810848 26657 net.cpp:141] Setting up inception_4e/5x5_reduce
I0714 22:13:56.810870 26657 net.cpp:148] Top shape: 10 32 14 14 (62720)
I0714 22:13:56.810876 26657 net.cpp:156] Memory required for data: 505899520
I0714 22:13:56.810888 26657 layer_factory.hpp:77] Creating layer inception_4e/relu_5x5_reduce
I0714 22:13:56.810901 26657 net.cpp:91] Creating Layer inception_4e/relu_5x5_reduce
I0714 22:13:56.810909 26657 net.cpp:425] inception_4e/relu_5x5_reduce <- inception_4e/5x5_reduce
I0714 22:13:56.810920 26657 net.cpp:386] inception_4e/relu_5x5_reduce -> inception_4e/5x5_reduce (in-place)
I0714 22:13:56.811422 26657 net.cpp:141] Setting up inception_4e/relu_5x5_reduce
I0714 22:13:56.811439 26657 net.cpp:148] Top shape: 10 32 14 14 (62720)
I0714 22:13:56.811444 26657 net.cpp:156] Memory required for data: 506150400
I0714 22:13:56.811449 26657 layer_factory.hpp:77] Creating layer inception_4e/5x5
I0714 22:13:56.811468 26657 net.cpp:91] Creating Layer inception_4e/5x5
I0714 22:13:56.811475 26657 net.cpp:425] inception_4e/5x5 <- inception_4e/5x5_reduce
I0714 22:13:56.811487 26657 net.cpp:399] inception_4e/5x5 -> inception_4e/5x5
I0714 22:13:56.811511 26661 net.cpp:141] Setting up inception_5a/1x1
I0714 22:13:56.811529 26661 net.cpp:148] Top shape: 10 256 7 7 (125440)
I0714 22:13:56.811534 26661 net.cpp:156] Memory required for data: 529482240
I0714 22:13:56.811543 26661 layer_factory.hpp:77] Creating layer inception_5a/relu_1x1
I0714 22:13:56.811553 26661 net.cpp:91] Creating Layer inception_5a/relu_1x1
I0714 22:13:56.811559 26661 net.cpp:425] inception_5a/relu_1x1 <- inception_5a/1x1
I0714 22:13:56.811570 26661 net.cpp:386] inception_5a/relu_1x1 -> inception_5a/1x1 (in-place)
I0714 22:13:56.812099 26661 net.cpp:141] Setting up inception_5a/relu_1x1
I0714 22:13:56.812113 26661 net.cpp:148] Top shape: 10 256 7 7 (125440)
I0714 22:13:56.812116 26661 net.cpp:156] Memory required for data: 529984000
I0714 22:13:56.812121 26661 layer_factory.hpp:77] Creating layer inception_5a/3x3_reduce
I0714 22:13:56.812139 26661 net.cpp:91] Creating Layer inception_5a/3x3_reduce
I0714 22:13:56.812145 26661 net.cpp:425] inception_5a/3x3_reduce <- pool4/3x3_s2_pool4/3x3_s2_0_split_1
I0714 22:13:56.812155 26661 net.cpp:399] inception_5a/3x3_reduce -> inception_5a/3x3_reduce
I0714 22:13:56.820102 26657 net.cpp:141] Setting up inception_4e/5x5
I0714 22:13:56.820138 26657 net.cpp:148] Top shape: 10 128 14 14 (250880)
I0714 22:13:56.820149 26657 net.cpp:156] Memory required for data: 507153920
I0714 22:13:56.820168 26657 layer_factory.hpp:77] Creating layer inception_4e/relu_5x5
I0714 22:13:56.820191 26657 net.cpp:91] Creating Layer inception_4e/relu_5x5
I0714 22:13:56.820204 26657 net.cpp:425] inception_4e/relu_5x5 <- inception_4e/5x5
I0714 22:13:56.820219 26657 net.cpp:386] inception_4e/relu_5x5 -> inception_4e/5x5 (in-place)
I0714 22:13:56.820746 26657 net.cpp:141] Setting up inception_4e/relu_5x5
I0714 22:13:56.820768 26657 net.cpp:148] Top shape: 10 128 14 14 (250880)
I0714 22:13:56.820778 26657 net.cpp:156] Memory required for data: 508157440
I0714 22:13:56.820790 26657 layer_factory.hpp:77] Creating layer inception_4e/pool
I0714 22:13:56.820808 26657 net.cpp:91] Creating Layer inception_4e/pool
I0714 22:13:56.820823 26657 net.cpp:425] inception_4e/pool <- inception_4d/output_inception_4d/output_0_split_3
I0714 22:13:56.820847 26657 net.cpp:399] inception_4e/pool -> inception_4e/pool
I0714 22:13:56.821302 26657 net.cpp:141] Setting up inception_4e/pool
I0714 22:13:56.821324 26657 net.cpp:148] Top shape: 10 528 14 14 (1034880)
I0714 22:13:56.821334 26657 net.cpp:156] Memory required for data: 512296960
I0714 22:13:56.821346 26657 layer_factory.hpp:77] Creating layer inception_4e/pool_proj
I0714 22:13:56.821379 26657 net.cpp:91] Creating Layer inception_4e/pool_proj
I0714 22:13:56.821394 26657 net.cpp:425] inception_4e/pool_proj <- inception_4e/pool
I0714 22:13:56.821424 26657 net.cpp:399] inception_4e/pool_proj -> inception_4e/pool_proj
I0714 22:13:56.821665 26661 net.cpp:141] Setting up inception_5a/3x3_reduce
I0714 22:13:56.821689 26661 net.cpp:148] Top shape: 10 160 7 7 (78400)
I0714 22:13:56.821694 26661 net.cpp:156] Memory required for data: 530297600
I0714 22:13:56.821705 26661 layer_factory.hpp:77] Creating layer inception_5a/relu_3x3_reduce
I0714 22:13:56.821717 26661 net.cpp:91] Creating Layer inception_5a/relu_3x3_reduce
I0714 22:13:56.821723 26661 net.cpp:425] inception_5a/relu_3x3_reduce <- inception_5a/3x3_reduce
I0714 22:13:56.821732 26661 net.cpp:386] inception_5a/relu_3x3_reduce -> inception_5a/3x3_reduce (in-place)
I0714 22:13:56.822203 26661 net.cpp:141] Setting up inception_5a/relu_3x3_reduce
I0714 22:13:56.822216 26661 net.cpp:148] Top shape: 10 160 7 7 (78400)
I0714 22:13:56.822221 26661 net.cpp:156] Memory required for data: 530611200
I0714 22:13:56.822226 26661 layer_factory.hpp:77] Creating layer inception_5a/3x3
I0714 22:13:56.822242 26661 net.cpp:91] Creating Layer inception_5a/3x3
I0714 22:13:56.822248 26661 net.cpp:425] inception_5a/3x3 <- inception_5a/3x3_reduce
I0714 22:13:56.822281 26661 net.cpp:399] inception_5a/3x3 -> inception_5a/3x3
I0714 22:13:56.828616 26657 net.cpp:141] Setting up inception_4e/pool_proj
I0714 22:13:56.828652 26657 net.cpp:148] Top shape: 10 128 14 14 (250880)
I0714 22:13:56.828663 26657 net.cpp:156] Memory required for data: 513300480
I0714 22:13:56.828682 26657 layer_factory.hpp:77] Creating layer inception_4e/relu_pool_proj
I0714 22:13:56.828701 26657 net.cpp:91] Creating Layer inception_4e/relu_pool_proj
I0714 22:13:56.828712 26657 net.cpp:425] inception_4e/relu_pool_proj <- inception_4e/pool_proj
I0714 22:13:56.828728 26657 net.cpp:386] inception_4e/relu_pool_proj -> inception_4e/pool_proj (in-place)
I0714 22:13:56.830039 26657 net.cpp:141] Setting up inception_4e/relu_pool_proj
I0714 22:13:56.830061 26657 net.cpp:148] Top shape: 10 128 14 14 (250880)
I0714 22:13:56.830071 26657 net.cpp:156] Memory required for data: 514304000
I0714 22:13:56.830082 26657 layer_factory.hpp:77] Creating layer inception_4e/output
I0714 22:13:56.830101 26657 net.cpp:91] Creating Layer inception_4e/output
I0714 22:13:56.830113 26657 net.cpp:425] inception_4e/output <- inception_4e/1x1
I0714 22:13:56.830128 26657 net.cpp:425] inception_4e/output <- inception_4e/3x3
I0714 22:13:56.830140 26657 net.cpp:425] inception_4e/output <- inception_4e/5x5
I0714 22:13:56.830153 26657 net.cpp:425] inception_4e/output <- inception_4e/pool_proj
I0714 22:13:56.830168 26657 net.cpp:399] inception_4e/output -> inception_4e/output
I0714 22:13:56.830765 26657 net.cpp:141] Setting up inception_4e/output
I0714 22:13:56.830786 26657 net.cpp:148] Top shape: 10 832 14 14 (1630720)
I0714 22:13:56.830796 26657 net.cpp:156] Memory required for data: 520826880
I0714 22:13:56.830807 26657 layer_factory.hpp:77] Creating layer pool4/3x3_s2
I0714 22:13:56.830824 26657 net.cpp:91] Creating Layer pool4/3x3_s2
I0714 22:13:56.830837 26657 net.cpp:425] pool4/3x3_s2 <- inception_4e/output
I0714 22:13:56.830860 26657 net.cpp:399] pool4/3x3_s2 -> pool4/3x3_s2
I0714 22:13:56.831809 26657 net.cpp:141] Setting up pool4/3x3_s2
I0714 22:13:56.831830 26657 net.cpp:148] Top shape: 10 832 7 7 (407680)
I0714 22:13:56.831840 26657 net.cpp:156] Memory required for data: 522457600
I0714 22:13:56.831851 26657 layer_factory.hpp:77] Creating layer pool4/3x3_s2_pool4/3x3_s2_0_split
I0714 22:13:56.831868 26657 net.cpp:91] Creating Layer pool4/3x3_s2_pool4/3x3_s2_0_split
I0714 22:13:56.831881 26657 net.cpp:425] pool4/3x3_s2_pool4/3x3_s2_0_split <- pool4/3x3_s2
I0714 22:13:56.831902 26657 net.cpp:399] pool4/3x3_s2_pool4/3x3_s2_0_split -> pool4/3x3_s2_pool4/3x3_s2_0_split_0
I0714 22:13:56.831924 26657 net.cpp:399] pool4/3x3_s2_pool4/3x3_s2_0_split -> pool4/3x3_s2_pool4/3x3_s2_0_split_1
I0714 22:13:56.831944 26657 net.cpp:399] pool4/3x3_s2_pool4/3x3_s2_0_split -> pool4/3x3_s2_pool4/3x3_s2_0_split_2
I0714 22:13:56.831964 26657 net.cpp:399] pool4/3x3_s2_pool4/3x3_s2_0_split -> pool4/3x3_s2_pool4/3x3_s2_0_split_3
I0714 22:13:56.833147 26657 net.cpp:141] Setting up pool4/3x3_s2_pool4/3x3_s2_0_split
I0714 22:13:56.833168 26657 net.cpp:148] Top shape: 10 832 7 7 (407680)
I0714 22:13:56.833180 26657 net.cpp:148] Top shape: 10 832 7 7 (407680)
I0714 22:13:56.833192 26657 net.cpp:148] Top shape: 10 832 7 7 (407680)
I0714 22:13:56.833205 26657 net.cpp:148] Top shape: 10 832 7 7 (407680)
I0714 22:13:56.833214 26657 net.cpp:156] Memory required for data: 528980480
I0714 22:13:56.833223 26657 layer_factory.hpp:77] Creating layer inception_5a/1x1
I0714 22:13:56.833250 26657 net.cpp:91] Creating Layer inception_5a/1x1
I0714 22:13:56.833264 26657 net.cpp:425] inception_5a/1x1 <- pool4/3x3_s2_pool4/3x3_s2_0_split_0
I0714 22:13:56.833294 26657 net.cpp:399] inception_5a/1x1 -> inception_5a/1x1
I0714 22:13:56.835418 26661 net.cpp:141] Setting up inception_5a/3x3
I0714 22:13:56.835443 26661 net.cpp:148] Top shape: 10 320 7 7 (156800)
I0714 22:13:56.835449 26661 net.cpp:156] Memory required for data: 531238400
I0714 22:13:56.835459 26661 layer_factory.hpp:77] Creating layer inception_5a/relu_3x3
I0714 22:13:56.835475 26661 net.cpp:91] Creating Layer inception_5a/relu_3x3
I0714 22:13:56.835482 26661 net.cpp:425] inception_5a/relu_3x3 <- inception_5a/3x3
I0714 22:13:56.835491 26661 net.cpp:386] inception_5a/relu_3x3 -> inception_5a/3x3 (in-place)
I0714 22:13:56.836284 26661 net.cpp:141] Setting up inception_5a/relu_3x3
I0714 22:13:56.836313 26661 net.cpp:148] Top shape: 10 320 7 7 (156800)
I0714 22:13:56.836319 26661 net.cpp:156] Memory required for data: 531865600
I0714 22:13:56.836324 26661 layer_factory.hpp:77] Creating layer inception_5a/5x5_reduce
I0714 22:13:56.836343 26661 net.cpp:91] Creating Layer inception_5a/5x5_reduce
I0714 22:13:56.836349 26661 net.cpp:425] inception_5a/5x5_reduce <- pool4/3x3_s2_pool4/3x3_s2_0_split_2
I0714 22:13:56.836359 26661 net.cpp:399] inception_5a/5x5_reduce -> inception_5a/5x5_reduce
I0714 22:13:56.842191 26661 net.cpp:141] Setting up inception_5a/5x5_reduce
I0714 22:13:56.842208 26661 net.cpp:148] Top shape: 10 32 7 7 (15680)
I0714 22:13:56.842226 26661 net.cpp:156] Memory required for data: 531928320
I0714 22:13:56.842236 26661 layer_factory.hpp:77] Creating layer inception_5a/relu_5x5_reduce
I0714 22:13:56.842247 26661 net.cpp:91] Creating Layer inception_5a/relu_5x5_reduce
I0714 22:13:56.842253 26661 net.cpp:425] inception_5a/relu_5x5_reduce <- inception_5a/5x5_reduce
I0714 22:13:56.842262 26661 net.cpp:386] inception_5a/relu_5x5_reduce -> inception_5a/5x5_reduce (in-place)
I0714 22:13:56.842624 26661 net.cpp:141] Setting up inception_5a/relu_5x5_reduce
I0714 22:13:56.842638 26661 net.cpp:148] Top shape: 10 32 7 7 (15680)
I0714 22:13:56.842643 26661 net.cpp:156] Memory required for data: 531991040
I0714 22:13:56.842648 26661 layer_factory.hpp:77] Creating layer inception_5a/5x5
I0714 22:13:56.842664 26661 net.cpp:91] Creating Layer inception_5a/5x5
I0714 22:13:56.842669 26661 net.cpp:425] inception_5a/5x5 <- inception_5a/5x5_reduce
I0714 22:13:56.842679 26661 net.cpp:399] inception_5a/5x5 -> inception_5a/5x5
I0714 22:13:56.844280 26657 net.cpp:141] Setting up inception_5a/1x1
I0714 22:13:56.844308 26657 net.cpp:148] Top shape: 10 256 7 7 (125440)
I0714 22:13:56.844315 26657 net.cpp:156] Memory required for data: 529482240
I0714 22:13:56.844326 26657 layer_factory.hpp:77] Creating layer inception_5a/relu_1x1
I0714 22:13:56.844341 26657 net.cpp:91] Creating Layer inception_5a/relu_1x1
I0714 22:13:56.844349 26657 net.cpp:425] inception_5a/relu_1x1 <- inception_5a/1x1
I0714 22:13:56.844358 26657 net.cpp:386] inception_5a/relu_1x1 -> inception_5a/1x1 (in-place)
I0714 22:13:56.844668 26657 net.cpp:141] Setting up inception_5a/relu_1x1
I0714 22:13:56.844682 26657 net.cpp:148] Top shape: 10 256 7 7 (125440)
I0714 22:13:56.844686 26657 net.cpp:156] Memory required for data: 529984000
I0714 22:13:56.844692 26657 layer_factory.hpp:77] Creating layer inception_5a/3x3_reduce
I0714 22:13:56.844712 26657 net.cpp:91] Creating Layer inception_5a/3x3_reduce
I0714 22:13:56.844718 26657 net.cpp:425] inception_5a/3x3_reduce <- pool4/3x3_s2_pool4/3x3_s2_0_split_1
I0714 22:13:56.844732 26657 net.cpp:399] inception_5a/3x3_reduce -> inception_5a/3x3_reduce
I0714 22:13:56.849401 26661 net.cpp:141] Setting up inception_5a/5x5
I0714 22:13:56.849426 26661 net.cpp:148] Top shape: 10 128 7 7 (62720)
I0714 22:13:56.849431 26661 net.cpp:156] Memory required for data: 532241920
I0714 22:13:56.849439 26661 layer_factory.hpp:77] Creating layer inception_5a/relu_5x5
I0714 22:13:56.849472 26661 net.cpp:91] Creating Layer inception_5a/relu_5x5
I0714 22:13:56.849478 26661 net.cpp:425] inception_5a/relu_5x5 <- inception_5a/5x5
I0714 22:13:56.849485 26661 net.cpp:386] inception_5a/relu_5x5 -> inception_5a/5x5 (in-place)
I0714 22:13:56.849752 26661 net.cpp:141] Setting up inception_5a/relu_5x5
I0714 22:13:56.849763 26661 net.cpp:148] Top shape: 10 128 7 7 (62720)
I0714 22:13:56.849768 26661 net.cpp:156] Memory required for data: 532492800
I0714 22:13:56.849773 26661 layer_factory.hpp:77] Creating layer inception_5a/pool
I0714 22:13:56.849784 26661 net.cpp:91] Creating Layer inception_5a/pool
I0714 22:13:56.849793 26661 net.cpp:425] inception_5a/pool <- pool4/3x3_s2_pool4/3x3_s2_0_split_3
I0714 22:13:56.849810 26661 net.cpp:399] inception_5a/pool -> inception_5a/pool
I0714 22:13:56.849949 26661 net.cpp:141] Setting up inception_5a/pool
I0714 22:13:56.849961 26661 net.cpp:148] Top shape: 10 832 7 7 (407680)
I0714 22:13:56.849964 26661 net.cpp:156] Memory required for data: 534123520
I0714 22:13:56.849969 26661 layer_factory.hpp:77] Creating layer inception_5a/pool_proj
I0714 22:13:56.849985 26661 net.cpp:91] Creating Layer inception_5a/pool_proj
I0714 22:13:56.849992 26661 net.cpp:425] inception_5a/pool_proj <- inception_5a/pool
I0714 22:13:56.850008 26661 net.cpp:399] inception_5a/pool_proj -> inception_5a/pool_proj
I0714 22:13:56.854600 26657 net.cpp:141] Setting up inception_5a/3x3_reduce
I0714 22:13:56.854635 26657 net.cpp:148] Top shape: 10 160 7 7 (78400)
I0714 22:13:56.854640 26657 net.cpp:156] Memory required for data: 530297600
I0714 22:13:56.854653 26657 layer_factory.hpp:77] Creating layer inception_5a/relu_3x3_reduce
I0714 22:13:56.854668 26657 net.cpp:91] Creating Layer inception_5a/relu_3x3_reduce
I0714 22:13:56.854677 26657 net.cpp:425] inception_5a/relu_3x3_reduce <- inception_5a/3x3_reduce
I0714 22:13:56.854697 26657 net.cpp:386] inception_5a/relu_3x3_reduce -> inception_5a/3x3_reduce (in-place)
I0714 22:13:56.855135 26657 net.cpp:141] Setting up inception_5a/relu_3x3_reduce
I0714 22:13:56.855151 26657 net.cpp:148] Top shape: 10 160 7 7 (78400)
I0714 22:13:56.855156 26657 net.cpp:156] Memory required for data: 530611200
I0714 22:13:56.855161 26657 layer_factory.hpp:77] Creating layer inception_5a/3x3
I0714 22:13:56.855181 26657 net.cpp:91] Creating Layer inception_5a/3x3
I0714 22:13:56.855188 26657 net.cpp:425] inception_5a/3x3 <- inception_5a/3x3_reduce
I0714 22:13:56.855198 26657 net.cpp:399] inception_5a/3x3 -> inception_5a/3x3
I0714 22:13:56.860793 26661 net.cpp:141] Setting up inception_5a/pool_proj
I0714 22:13:56.860816 26661 net.cpp:148] Top shape: 10 128 7 7 (62720)
I0714 22:13:56.860821 26661 net.cpp:156] Memory required for data: 534374400
I0714 22:13:56.860831 26661 layer_factory.hpp:77] Creating layer inception_5a/relu_pool_proj
I0714 22:13:56.860843 26661 net.cpp:91] Creating Layer inception_5a/relu_pool_proj
I0714 22:13:56.860849 26661 net.cpp:425] inception_5a/relu_pool_proj <- inception_5a/pool_proj
I0714 22:13:56.860857 26661 net.cpp:386] inception_5a/relu_pool_proj -> inception_5a/pool_proj (in-place)
I0714 22:13:56.861644 26661 net.cpp:141] Setting up inception_5a/relu_pool_proj
I0714 22:13:56.861656 26661 net.cpp:148] Top shape: 10 128 7 7 (62720)
I0714 22:13:56.861661 26661 net.cpp:156] Memory required for data: 534625280
I0714 22:13:56.861666 26661 layer_factory.hpp:77] Creating layer inception_5a/output
I0714 22:13:56.861676 26661 net.cpp:91] Creating Layer inception_5a/output
I0714 22:13:56.861682 26661 net.cpp:425] inception_5a/output <- inception_5a/1x1
I0714 22:13:56.861688 26661 net.cpp:425] inception_5a/output <- inception_5a/3x3
I0714 22:13:56.861693 26661 net.cpp:425] inception_5a/output <- inception_5a/5x5
I0714 22:13:56.861699 26661 net.cpp:425] inception_5a/output <- inception_5a/pool_proj
I0714 22:13:56.861706 26661 net.cpp:399] inception_5a/output -> inception_5a/output
I0714 22:13:56.861789 26661 net.cpp:141] Setting up inception_5a/output
I0714 22:13:56.861802 26661 net.cpp:148] Top shape: 10 832 7 7 (407680)
I0714 22:13:56.861806 26661 net.cpp:156] Memory required for data: 536256000
I0714 22:13:56.861811 26661 layer_factory.hpp:77] Creating layer inception_5a/output_inception_5a/output_0_split
I0714 22:13:56.861819 26661 net.cpp:91] Creating Layer inception_5a/output_inception_5a/output_0_split
I0714 22:13:56.861824 26661 net.cpp:425] inception_5a/output_inception_5a/output_0_split <- inception_5a/output
I0714 22:13:56.861830 26661 net.cpp:399] inception_5a/output_inception_5a/output_0_split -> inception_5a/output_inception_5a/output_0_split_0
I0714 22:13:56.861840 26661 net.cpp:399] inception_5a/output_inception_5a/output_0_split -> inception_5a/output_inception_5a/output_0_split_1
I0714 22:13:56.861848 26661 net.cpp:399] inception_5a/output_inception_5a/output_0_split -> inception_5a/output_inception_5a/output_0_split_2
I0714 22:13:56.861860 26661 net.cpp:399] inception_5a/output_inception_5a/output_0_split -> inception_5a/output_inception_5a/output_0_split_3
I0714 22:13:56.862066 26661 net.cpp:141] Setting up inception_5a/output_inception_5a/output_0_split
I0714 22:13:56.862077 26661 net.cpp:148] Top shape: 10 832 7 7 (407680)
I0714 22:13:56.862082 26661 net.cpp:148] Top shape: 10 832 7 7 (407680)
I0714 22:13:56.862087 26661 net.cpp:148] Top shape: 10 832 7 7 (407680)
I0714 22:13:56.862092 26661 net.cpp:148] Top shape: 10 832 7 7 (407680)
I0714 22:13:56.862097 26661 net.cpp:156] Memory required for data: 542778880
I0714 22:13:56.862100 26661 layer_factory.hpp:77] Creating layer inception_5b/1x1
I0714 22:13:56.862118 26661 net.cpp:91] Creating Layer inception_5b/1x1
I0714 22:13:56.862124 26661 net.cpp:425] inception_5b/1x1 <- inception_5a/output_inception_5a/output_0_split_0
I0714 22:13:56.862133 26661 net.cpp:399] inception_5b/1x1 -> inception_5b/1x1
I0714 22:13:56.870410 26657 net.cpp:141] Setting up inception_5a/3x3
I0714 22:13:56.870440 26657 net.cpp:148] Top shape: 10 320 7 7 (156800)
I0714 22:13:56.870445 26657 net.cpp:156] Memory required for data: 531238400
I0714 22:13:56.870457 26657 layer_factory.hpp:77] Creating layer inception_5a/relu_3x3
I0714 22:13:56.870468 26657 net.cpp:91] Creating Layer inception_5a/relu_3x3
I0714 22:13:56.870476 26657 net.cpp:425] inception_5a/relu_3x3 <- inception_5a/3x3
I0714 22:13:56.870489 26657 net.cpp:386] inception_5a/relu_3x3 -> inception_5a/3x3 (in-place)
I0714 22:13:56.871587 26657 net.cpp:141] Setting up inception_5a/relu_3x3
I0714 22:13:56.871592 26661 net.cpp:141] Setting up inception_5b/1x1
I0714 22:13:56.871606 26657 net.cpp:148] Top shape: 10 320 7 7 (156800)
I0714 22:13:56.871611 26661 net.cpp:148] Top shape: 10 384 7 7 (188160)
I0714 22:13:56.871613 26657 net.cpp:156] Memory required for data: 531865600
I0714 22:13:56.871618 26661 net.cpp:156] Memory required for data: 543531520
I0714 22:13:56.871619 26657 layer_factory.hpp:77] Creating layer inception_5a/5x5_reduce
I0714 22:13:56.871626 26661 layer_factory.hpp:77] Creating layer inception_5b/relu_1x1
I0714 22:13:56.871636 26661 net.cpp:91] Creating Layer inception_5b/relu_1x1
I0714 22:13:56.871640 26657 net.cpp:91] Creating Layer inception_5a/5x5_reduce
I0714 22:13:56.871641 26661 net.cpp:425] inception_5b/relu_1x1 <- inception_5b/1x1
I0714 22:13:56.871652 26657 net.cpp:425] inception_5a/5x5_reduce <- pool4/3x3_s2_pool4/3x3_s2_0_split_2
I0714 22:13:56.871662 26661 net.cpp:386] inception_5b/relu_1x1 -> inception_5b/1x1 (in-place)
I0714 22:13:56.871667 26657 net.cpp:399] inception_5a/5x5_reduce -> inception_5a/5x5_reduce
I0714 22:13:56.872123 26661 net.cpp:141] Setting up inception_5b/relu_1x1
I0714 22:13:56.872138 26661 net.cpp:148] Top shape: 10 384 7 7 (188160)
I0714 22:13:56.872143 26661 net.cpp:156] Memory required for data: 544284160
I0714 22:13:56.872148 26661 layer_factory.hpp:77] Creating layer inception_5b/3x3_reduce
I0714 22:13:56.872159 26661 net.cpp:91] Creating Layer inception_5b/3x3_reduce
I0714 22:13:56.872164 26661 net.cpp:425] inception_5b/3x3_reduce <- inception_5a/output_inception_5a/output_0_split_1
I0714 22:13:56.872176 26661 net.cpp:399] inception_5b/3x3_reduce -> inception_5b/3x3_reduce
I0714 22:13:56.878861 26657 net.cpp:141] Setting up inception_5a/5x5_reduce
I0714 22:13:56.878881 26657 net.cpp:148] Top shape: 10 32 7 7 (15680)
I0714 22:13:56.878887 26657 net.cpp:156] Memory required for data: 531928320
I0714 22:13:56.878897 26657 layer_factory.hpp:77] Creating layer inception_5a/relu_5x5_reduce
I0714 22:13:56.878907 26657 net.cpp:91] Creating Layer inception_5a/relu_5x5_reduce
I0714 22:13:56.878913 26657 net.cpp:425] inception_5a/relu_5x5_reduce <- inception_5a/5x5_reduce
I0714 22:13:56.878926 26657 net.cpp:386] inception_5a/relu_5x5_reduce -> inception_5a/5x5_reduce (in-place)
I0714 22:13:56.878952 26661 net.cpp:141] Setting up inception_5b/3x3_reduce
I0714 22:13:56.878967 26661 net.cpp:148] Top shape: 10 192 7 7 (94080)
I0714 22:13:56.878971 26661 net.cpp:156] Memory required for data: 544660480
I0714 22:13:56.878980 26661 layer_factory.hpp:77] Creating layer inception_5b/relu_3x3_reduce
I0714 22:13:56.878990 26661 net.cpp:91] Creating Layer inception_5b/relu_3x3_reduce
I0714 22:13:56.878996 26661 net.cpp:425] inception_5b/relu_3x3_reduce <- inception_5b/3x3_reduce
I0714 22:13:56.879004 26661 net.cpp:386] inception_5b/relu_3x3_reduce -> inception_5b/3x3_reduce (in-place)
I0714 22:13:56.879376 26657 net.cpp:141] Setting up inception_5a/relu_5x5_reduce
I0714 22:13:56.879390 26657 net.cpp:148] Top shape: 10 32 7 7 (15680)
I0714 22:13:56.879395 26657 net.cpp:156] Memory required for data: 531991040
I0714 22:13:56.879400 26657 layer_factory.hpp:77] Creating layer inception_5a/5x5
I0714 22:13:56.879401 26661 net.cpp:141] Setting up inception_5b/relu_3x3_reduce
I0714 22:13:56.879427 26657 net.cpp:91] Creating Layer inception_5a/5x5
I0714 22:13:56.879427 26661 net.cpp:148] Top shape: 10 192 7 7 (94080)
I0714 22:13:56.879436 26657 net.cpp:425] inception_5a/5x5 <- inception_5a/5x5_reduce
I0714 22:13:56.879436 26661 net.cpp:156] Memory required for data: 545036800
I0714 22:13:56.879442 26661 layer_factory.hpp:77] Creating layer inception_5b/3x3
I0714 22:13:56.879451 26657 net.cpp:399] inception_5a/5x5 -> inception_5a/5x5
I0714 22:13:56.879457 26661 net.cpp:91] Creating Layer inception_5b/3x3
I0714 22:13:56.879463 26661 net.cpp:425] inception_5b/3x3 <- inception_5b/3x3_reduce
I0714 22:13:56.879472 26661 net.cpp:399] inception_5b/3x3 -> inception_5b/3x3
I0714 22:13:56.886376 26657 net.cpp:141] Setting up inception_5a/5x5
I0714 22:13:56.886404 26657 net.cpp:148] Top shape: 10 128 7 7 (62720)
I0714 22:13:56.886410 26657 net.cpp:156] Memory required for data: 532241920
I0714 22:13:56.886421 26657 layer_factory.hpp:77] Creating layer inception_5a/relu_5x5
I0714 22:13:56.886457 26657 net.cpp:91] Creating Layer inception_5a/relu_5x5
I0714 22:13:56.886466 26657 net.cpp:425] inception_5a/relu_5x5 <- inception_5a/5x5
I0714 22:13:56.886481 26657 net.cpp:386] inception_5a/relu_5x5 -> inception_5a/5x5 (in-place)
I0714 22:13:56.886765 26657 net.cpp:141] Setting up inception_5a/relu_5x5
I0714 22:13:56.886776 26657 net.cpp:148] Top shape: 10 128 7 7 (62720)
I0714 22:13:56.886781 26657 net.cpp:156] Memory required for data: 532492800
I0714 22:13:56.886786 26657 layer_factory.hpp:77] Creating layer inception_5a/pool
I0714 22:13:56.886797 26657 net.cpp:91] Creating Layer inception_5a/pool
I0714 22:13:56.886803 26657 net.cpp:425] inception_5a/pool <- pool4/3x3_s2_pool4/3x3_s2_0_split_3
I0714 22:13:56.886811 26657 net.cpp:399] inception_5a/pool -> inception_5a/pool
I0714 22:13:56.886953 26657 net.cpp:141] Setting up inception_5a/pool
I0714 22:13:56.886963 26657 net.cpp:148] Top shape: 10 832 7 7 (407680)
I0714 22:13:56.886967 26657 net.cpp:156] Memory required for data: 534123520
I0714 22:13:56.886972 26657 layer_factory.hpp:77] Creating layer inception_5a/pool_proj
I0714 22:13:56.886987 26657 net.cpp:91] Creating Layer inception_5a/pool_proj
I0714 22:13:56.886993 26657 net.cpp:425] inception_5a/pool_proj <- inception_5a/pool
I0714 22:13:56.887004 26657 net.cpp:399] inception_5a/pool_proj -> inception_5a/pool_proj
I0714 22:13:56.892359 26661 net.cpp:141] Setting up inception_5b/3x3
I0714 22:13:56.892381 26661 net.cpp:148] Top shape: 10 384 7 7 (188160)
I0714 22:13:56.892386 26661 net.cpp:156] Memory required for data: 545789440
I0714 22:13:56.892396 26661 layer_factory.hpp:77] Creating layer inception_5b/relu_3x3
I0714 22:13:56.892405 26661 net.cpp:91] Creating Layer inception_5b/relu_3x3
I0714 22:13:56.892412 26661 net.cpp:425] inception_5b/relu_3x3 <- inception_5b/3x3
I0714 22:13:56.892424 26661 net.cpp:386] inception_5b/relu_3x3 -> inception_5b/3x3 (in-place)
I0714 22:13:56.893369 26661 net.cpp:141] Setting up inception_5b/relu_3x3
I0714 22:13:56.893384 26661 net.cpp:148] Top shape: 10 384 7 7 (188160)
I0714 22:13:56.893389 26661 net.cpp:156] Memory required for data: 546542080
I0714 22:13:56.893394 26661 layer_factory.hpp:77] Creating layer inception_5b/5x5_reduce
I0714 22:13:56.893410 26661 net.cpp:91] Creating Layer inception_5b/5x5_reduce
I0714 22:13:56.893417 26661 net.cpp:425] inception_5b/5x5_reduce <- inception_5a/output_inception_5a/output_0_split_2
I0714 22:13:56.893429 26661 net.cpp:399] inception_5b/5x5_reduce -> inception_5b/5x5_reduce
I0714 22:13:56.893558 26657 net.cpp:141] Setting up inception_5a/pool_proj
I0714 22:13:56.893574 26657 net.cpp:148] Top shape: 10 128 7 7 (62720)
I0714 22:13:56.893582 26657 net.cpp:156] Memory required for data: 534374400
I0714 22:13:56.893594 26657 layer_factory.hpp:77] Creating layer inception_5a/relu_pool_proj
I0714 22:13:56.893610 26657 net.cpp:91] Creating Layer inception_5a/relu_pool_proj
I0714 22:13:56.893618 26657 net.cpp:425] inception_5a/relu_pool_proj <- inception_5a/pool_proj
I0714 22:13:56.893626 26657 net.cpp:386] inception_5a/relu_pool_proj -> inception_5a/pool_proj (in-place)
I0714 22:13:56.894628 26657 net.cpp:141] Setting up inception_5a/relu_pool_proj
I0714 22:13:56.894642 26657 net.cpp:148] Top shape: 10 128 7 7 (62720)
I0714 22:13:56.894647 26657 net.cpp:156] Memory required for data: 534625280
I0714 22:13:56.894652 26657 layer_factory.hpp:77] Creating layer inception_5a/output
I0714 22:13:56.894664 26657 net.cpp:91] Creating Layer inception_5a/output
I0714 22:13:56.894670 26657 net.cpp:425] inception_5a/output <- inception_5a/1x1
I0714 22:13:56.894676 26657 net.cpp:425] inception_5a/output <- inception_5a/3x3
I0714 22:13:56.894682 26657 net.cpp:425] inception_5a/output <- inception_5a/5x5
I0714 22:13:56.894697 26657 net.cpp:425] inception_5a/output <- inception_5a/pool_proj
I0714 22:13:56.894707 26657 net.cpp:399] inception_5a/output -> inception_5a/output
I0714 22:13:56.894834 26657 net.cpp:141] Setting up inception_5a/output
I0714 22:13:56.894846 26657 net.cpp:148] Top shape: 10 832 7 7 (407680)
I0714 22:13:56.894850 26657 net.cpp:156] Memory required for data: 536256000
I0714 22:13:56.894855 26657 layer_factory.hpp:77] Creating layer inception_5a/output_inception_5a/output_0_split
I0714 22:13:56.894863 26657 net.cpp:91] Creating Layer inception_5a/output_inception_5a/output_0_split
I0714 22:13:56.894868 26657 net.cpp:425] inception_5a/output_inception_5a/output_0_split <- inception_5a/output
I0714 22:13:56.894877 26657 net.cpp:399] inception_5a/output_inception_5a/output_0_split -> inception_5a/output_inception_5a/output_0_split_0
I0714 22:13:56.894886 26657 net.cpp:399] inception_5a/output_inception_5a/output_0_split -> inception_5a/output_inception_5a/output_0_split_1
I0714 22:13:56.894897 26657 net.cpp:399] inception_5a/output_inception_5a/output_0_split -> inception_5a/output_inception_5a/output_0_split_2
I0714 22:13:56.894906 26657 net.cpp:399] inception_5a/output_inception_5a/output_0_split -> inception_5a/output_inception_5a/output_0_split_3
I0714 22:13:56.895140 26657 net.cpp:141] Setting up inception_5a/output_inception_5a/output_0_split
I0714 22:13:56.895151 26657 net.cpp:148] Top shape: 10 832 7 7 (407680)
I0714 22:13:56.895156 26657 net.cpp:148] Top shape: 10 832 7 7 (407680)
I0714 22:13:56.895161 26657 net.cpp:148] Top shape: 10 832 7 7 (407680)
I0714 22:13:56.895166 26657 net.cpp:148] Top shape: 10 832 7 7 (407680)
I0714 22:13:56.895170 26657 net.cpp:156] Memory required for data: 542778880
I0714 22:13:56.895174 26657 layer_factory.hpp:77] Creating layer inception_5b/1x1
I0714 22:13:56.895192 26657 net.cpp:91] Creating Layer inception_5b/1x1
I0714 22:13:56.895198 26657 net.cpp:425] inception_5b/1x1 <- inception_5a/output_inception_5a/output_0_split_0
I0714 22:13:56.895210 26657 net.cpp:399] inception_5b/1x1 -> inception_5b/1x1
I0714 22:13:56.900184 26661 net.cpp:141] Setting up inception_5b/5x5_reduce
I0714 22:13:56.900207 26661 net.cpp:148] Top shape: 10 48 7 7 (23520)
I0714 22:13:56.900212 26661 net.cpp:156] Memory required for data: 546636160
I0714 22:13:56.900221 26661 layer_factory.hpp:77] Creating layer inception_5b/relu_5x5_reduce
I0714 22:13:56.900231 26661 net.cpp:91] Creating Layer inception_5b/relu_5x5_reduce
I0714 22:13:56.900238 26661 net.cpp:425] inception_5b/relu_5x5_reduce <- inception_5b/5x5_reduce
I0714 22:13:56.900249 26661 net.cpp:386] inception_5b/relu_5x5_reduce -> inception_5b/5x5_reduce (in-place)
I0714 22:13:56.900521 26661 net.cpp:141] Setting up inception_5b/relu_5x5_reduce
I0714 22:13:56.900532 26661 net.cpp:148] Top shape: 10 48 7 7 (23520)
I0714 22:13:56.900537 26661 net.cpp:156] Memory required for data: 546730240
I0714 22:13:56.900540 26661 layer_factory.hpp:77] Creating layer inception_5b/5x5
I0714 22:13:56.900555 26661 net.cpp:91] Creating Layer inception_5b/5x5
I0714 22:13:56.900562 26661 net.cpp:425] inception_5b/5x5 <- inception_5b/5x5_reduce
I0714 22:13:56.900573 26661 net.cpp:399] inception_5b/5x5 -> inception_5b/5x5
I0714 22:13:56.906056 26657 net.cpp:141] Setting up inception_5b/1x1
I0714 22:13:56.906081 26657 net.cpp:148] Top shape: 10 384 7 7 (188160)
I0714 22:13:56.906086 26657 net.cpp:156] Memory required for data: 543531520
I0714 22:13:56.906096 26657 layer_factory.hpp:77] Creating layer inception_5b/relu_1x1
I0714 22:13:56.906105 26657 net.cpp:91] Creating Layer inception_5b/relu_1x1
I0714 22:13:56.906111 26657 net.cpp:425] inception_5b/relu_1x1 <- inception_5b/1x1
I0714 22:13:56.906118 26657 net.cpp:386] inception_5b/relu_1x1 -> inception_5b/1x1 (in-place)
I0714 22:13:56.906172 26661 net.cpp:141] Setting up inception_5b/5x5
I0714 22:13:56.906185 26661 net.cpp:148] Top shape: 10 128 7 7 (62720)
I0714 22:13:56.906190 26661 net.cpp:156] Memory required for data: 546981120
I0714 22:13:56.906198 26661 layer_factory.hpp:77] Creating layer inception_5b/relu_5x5
I0714 22:13:56.906208 26661 net.cpp:91] Creating Layer inception_5b/relu_5x5
I0714 22:13:56.906213 26661 net.cpp:425] inception_5b/relu_5x5 <- inception_5b/5x5
I0714 22:13:56.906222 26661 net.cpp:386] inception_5b/relu_5x5 -> inception_5b/5x5 (in-place)
I0714 22:13:56.906477 26657 net.cpp:141] Setting up inception_5b/relu_1x1
I0714 22:13:56.906489 26657 net.cpp:148] Top shape: 10 384 7 7 (188160)
I0714 22:13:56.906494 26657 net.cpp:156] Memory required for data: 544284160
I0714 22:13:56.906499 26657 layer_factory.hpp:77] Creating layer inception_5b/3x3_reduce
I0714 22:13:56.906514 26657 net.cpp:91] Creating Layer inception_5b/3x3_reduce
I0714 22:13:56.906520 26657 net.cpp:425] inception_5b/3x3_reduce <- inception_5a/output_inception_5a/output_0_split_1
I0714 22:13:56.906538 26657 net.cpp:399] inception_5b/3x3_reduce -> inception_5b/3x3_reduce
I0714 22:13:56.906543 26661 net.cpp:141] Setting up inception_5b/relu_5x5
I0714 22:13:56.906555 26661 net.cpp:148] Top shape: 10 128 7 7 (62720)
I0714 22:13:56.906559 26661 net.cpp:156] Memory required for data: 547232000
I0714 22:13:56.906564 26661 layer_factory.hpp:77] Creating layer inception_5b/pool
I0714 22:13:56.906576 26661 net.cpp:91] Creating Layer inception_5b/pool
I0714 22:13:56.906581 26661 net.cpp:425] inception_5b/pool <- inception_5a/output_inception_5a/output_0_split_3
I0714 22:13:56.906589 26661 net.cpp:399] inception_5b/pool -> inception_5b/pool
I0714 22:13:56.906821 26661 net.cpp:141] Setting up inception_5b/pool
I0714 22:13:56.906833 26661 net.cpp:148] Top shape: 10 832 7 7 (407680)
I0714 22:13:56.906837 26661 net.cpp:156] Memory required for data: 548862720
I0714 22:13:56.906842 26661 layer_factory.hpp:77] Creating layer inception_5b/pool_proj
I0714 22:13:56.906859 26661 net.cpp:91] Creating Layer inception_5b/pool_proj
I0714 22:13:56.906864 26661 net.cpp:425] inception_5b/pool_proj <- inception_5b/pool
I0714 22:13:56.906873 26661 net.cpp:399] inception_5b/pool_proj -> inception_5b/pool_proj
I0714 22:13:56.914083 26657 net.cpp:141] Setting up inception_5b/3x3_reduce
I0714 22:13:56.914105 26657 net.cpp:148] Top shape: 10 192 7 7 (94080)
I0714 22:13:56.914110 26657 net.cpp:156] Memory required for data: 544660480
I0714 22:13:56.914120 26657 layer_factory.hpp:77] Creating layer inception_5b/relu_3x3_reduce
I0714 22:13:56.914129 26657 net.cpp:91] Creating Layer inception_5b/relu_3x3_reduce
I0714 22:13:56.914136 26657 net.cpp:425] inception_5b/relu_3x3_reduce <- inception_5b/3x3_reduce
I0714 22:13:56.914147 26657 net.cpp:386] inception_5b/relu_3x3_reduce -> inception_5b/3x3_reduce (in-place)
I0714 22:13:56.914566 26657 net.cpp:141] Setting up inception_5b/relu_3x3_reduce
I0714 22:13:56.914579 26657 net.cpp:148] Top shape: 10 192 7 7 (94080)
I0714 22:13:56.914583 26657 net.cpp:156] Memory required for data: 545036800
I0714 22:13:56.914588 26657 layer_factory.hpp:77] Creating layer inception_5b/3x3
I0714 22:13:56.914608 26657 net.cpp:91] Creating Layer inception_5b/3x3
I0714 22:13:56.914613 26657 net.cpp:425] inception_5b/3x3 <- inception_5b/3x3_reduce
I0714 22:13:56.914623 26657 net.cpp:399] inception_5b/3x3 -> inception_5b/3x3
I0714 22:13:56.914755 26661 net.cpp:141] Setting up inception_5b/pool_proj
I0714 22:13:56.914770 26661 net.cpp:148] Top shape: 10 128 7 7 (62720)
I0714 22:13:56.914775 26661 net.cpp:156] Memory required for data: 549113600
I0714 22:13:56.914784 26661 layer_factory.hpp:77] Creating layer inception_5b/relu_pool_proj
I0714 22:13:56.914795 26661 net.cpp:91] Creating Layer inception_5b/relu_pool_proj
I0714 22:13:56.914801 26661 net.cpp:425] inception_5b/relu_pool_proj <- inception_5b/pool_proj
I0714 22:13:56.914808 26661 net.cpp:386] inception_5b/relu_pool_proj -> inception_5b/pool_proj (in-place)
I0714 22:13:56.915853 26661 net.cpp:141] Setting up inception_5b/relu_pool_proj
I0714 22:13:56.915869 26661 net.cpp:148] Top shape: 10 128 7 7 (62720)
I0714 22:13:56.915876 26661 net.cpp:156] Memory required for data: 549364480
I0714 22:13:56.915880 26661 layer_factory.hpp:77] Creating layer inception_5b/output
I0714 22:13:56.915889 26661 net.cpp:91] Creating Layer inception_5b/output
I0714 22:13:56.915895 26661 net.cpp:425] inception_5b/output <- inception_5b/1x1
I0714 22:13:56.915901 26661 net.cpp:425] inception_5b/output <- inception_5b/3x3
I0714 22:13:56.915906 26661 net.cpp:425] inception_5b/output <- inception_5b/5x5
I0714 22:13:56.915912 26661 net.cpp:425] inception_5b/output <- inception_5b/pool_proj
I0714 22:13:56.915920 26661 net.cpp:399] inception_5b/output -> inception_5b/output
I0714 22:13:56.916048 26661 net.cpp:141] Setting up inception_5b/output
I0714 22:13:56.916059 26661 net.cpp:148] Top shape: 10 1024 7 7 (501760)
I0714 22:13:56.916064 26661 net.cpp:156] Memory required for data: 551371520
I0714 22:13:56.916067 26661 layer_factory.hpp:77] Creating layer pool5/7x7_s1
I0714 22:13:56.916076 26661 net.cpp:91] Creating Layer pool5/7x7_s1
I0714 22:13:56.916080 26661 net.cpp:425] pool5/7x7_s1 <- inception_5b/output
I0714 22:13:56.916088 26661 net.cpp:399] pool5/7x7_s1 -> pool5/7x7_s1
I0714 22:13:56.917984 26661 net.cpp:141] Setting up pool5/7x7_s1
I0714 22:13:56.917999 26661 net.cpp:148] Top shape: 10 1024 1 1 (10240)
I0714 22:13:56.918004 26661 net.cpp:156] Memory required for data: 551412480
I0714 22:13:56.918009 26661 layer_factory.hpp:77] Creating layer pool5/drop_7x7_s1
I0714 22:13:56.918017 26661 net.cpp:91] Creating Layer pool5/drop_7x7_s1
I0714 22:13:56.918023 26661 net.cpp:425] pool5/drop_7x7_s1 <- pool5/7x7_s1
I0714 22:13:56.918032 26661 net.cpp:386] pool5/drop_7x7_s1 -> pool5/7x7_s1 (in-place)
I0714 22:13:56.918630 26661 net.cpp:141] Setting up pool5/drop_7x7_s1
I0714 22:13:56.918643 26661 net.cpp:148] Top shape: 10 1024 1 1 (10240)
I0714 22:13:56.918648 26661 net.cpp:156] Memory required for data: 551453440
I0714 22:13:56.918653 26661 layer_factory.hpp:77] Creating layer loss3/classifier
I0714 22:13:56.918666 26661 net.cpp:91] Creating Layer loss3/classifier
I0714 22:13:56.918671 26661 net.cpp:425] loss3/classifier <- pool5/7x7_s1
I0714 22:13:56.918679 26661 net.cpp:399] loss3/classifier -> loss3/classifier
I0714 22:13:56.926403 26657 net.cpp:141] Setting up inception_5b/3x3
I0714 22:13:56.926434 26657 net.cpp:148] Top shape: 10 384 7 7 (188160)
I0714 22:13:56.926440 26657 net.cpp:156] Memory required for data: 545789440
I0714 22:13:56.926451 26657 layer_factory.hpp:77] Creating layer inception_5b/relu_3x3
I0714 22:13:56.926462 26657 net.cpp:91] Creating Layer inception_5b/relu_3x3
I0714 22:13:56.926470 26657 net.cpp:425] inception_5b/relu_3x3 <- inception_5b/3x3
I0714 22:13:56.926478 26657 net.cpp:386] inception_5b/relu_3x3 -> inception_5b/3x3 (in-place)
I0714 22:13:56.927281 26657 net.cpp:141] Setting up inception_5b/relu_3x3
I0714 22:13:56.927297 26657 net.cpp:148] Top shape: 10 384 7 7 (188160)
I0714 22:13:56.927302 26657 net.cpp:156] Memory required for data: 546542080
I0714 22:13:56.927307 26657 layer_factory.hpp:77] Creating layer inception_5b/5x5_reduce
I0714 22:13:56.927325 26657 net.cpp:91] Creating Layer inception_5b/5x5_reduce
I0714 22:13:56.927331 26657 net.cpp:425] inception_5b/5x5_reduce <- inception_5a/output_inception_5a/output_0_split_2
I0714 22:13:56.927341 26657 net.cpp:399] inception_5b/5x5_reduce -> inception_5b/5x5_reduce
I0714 22:13:56.930474 26661 net.cpp:141] Setting up loss3/classifier
I0714 22:13:56.930491 26661 net.cpp:148] Top shape: 10 1000 (10000)
I0714 22:13:56.930496 26661 net.cpp:156] Memory required for data: 551493440
I0714 22:13:56.930506 26661 layer_factory.hpp:77] Creating layer prob
I0714 22:13:56.930515 26661 net.cpp:91] Creating Layer prob
I0714 22:13:56.930521 26661 net.cpp:425] prob <- loss3/classifier
I0714 22:13:56.930529 26661 net.cpp:399] prob -> prob
I0714 22:13:56.931658 26657 net.cpp:141] Setting up inception_5b/5x5_reduce
I0714 22:13:56.931674 26657 net.cpp:148] Top shape: 10 48 7 7 (23520)
I0714 22:13:56.931679 26657 net.cpp:156] Memory required for data: 546636160
I0714 22:13:56.931689 26657 layer_factory.hpp:77] Creating layer inception_5b/relu_5x5_reduce
I0714 22:13:56.931699 26657 net.cpp:91] Creating Layer inception_5b/relu_5x5_reduce
I0714 22:13:56.931705 26657 net.cpp:425] inception_5b/relu_5x5_reduce <- inception_5b/5x5_reduce
I0714 22:13:56.931712 26657 net.cpp:386] inception_5b/relu_5x5_reduce -> inception_5b/5x5_reduce (in-place)
I0714 22:13:56.932054 26661 net.cpp:141] Setting up prob
I0714 22:13:56.932067 26661 net.cpp:148] Top shape: 10 1000 (10000)
I0714 22:13:56.932071 26661 net.cpp:156] Memory required for data: 551533440
I0714 22:13:56.932076 26661 net.cpp:219] prob does not need backward computation.
I0714 22:13:56.932081 26661 net.cpp:219] loss3/classifier does not need backward computation.
I0714 22:13:56.932085 26661 net.cpp:219] pool5/drop_7x7_s1 does not need backward computation.
I0714 22:13:56.932090 26661 net.cpp:219] pool5/7x7_s1 does not need backward computation.
I0714 22:13:56.932093 26661 net.cpp:219] inception_5b/output does not need backward computation.
I0714 22:13:56.932099 26661 net.cpp:219] inception_5b/relu_pool_proj does not need backward computation.
I0714 22:13:56.932103 26661 net.cpp:219] inception_5b/pool_proj does not need backward computation.
I0714 22:13:56.932107 26661 net.cpp:219] inception_5b/pool does not need backward computation.
I0714 22:13:56.932112 26661 net.cpp:219] inception_5b/relu_5x5 does not need backward computation.
I0714 22:13:56.932116 26661 net.cpp:219] inception_5b/5x5 does not need backward computation.
I0714 22:13:56.932114 26657 net.cpp:141] Setting up inception_5b/relu_5x5_reduce
I0714 22:13:56.932121 26661 net.cpp:219] inception_5b/relu_5x5_reduce does not need backward computation.
I0714 22:13:56.932126 26661 net.cpp:219] inception_5b/5x5_reduce does not need backward computation.
I0714 22:13:56.932128 26657 net.cpp:148] Top shape: 10 48 7 7 (23520)
I0714 22:13:56.932132 26661 net.cpp:219] inception_5b/relu_3x3 does not need backward computation.
I0714 22:13:56.932133 26657 net.cpp:156] Memory required for data: 546730240
I0714 22:13:56.932135 26661 net.cpp:219] inception_5b/3x3 does not need backward computation.
I0714 22:13:56.932138 26657 layer_factory.hpp:77] Creating layer inception_5b/5x5
I0714 22:13:56.932140 26661 net.cpp:219] inception_5b/relu_3x3_reduce does not need backward computation.
…
I0714 22:13:56.932762 26661 net.cpp:219] pool1/3x3_s2 does not need backward computation.
I0714 22:13:56.932767 26661 net.cpp:219] conv1/relu_7x7 does not need backward computation.
I0714 22:13:56.932772 26661 net.cpp:219] conv1/7x7_s2 does not need backward computation.
I0714 22:13:56.932776 26661 net.cpp:219] data does not need backward computation.
I0714 22:13:56.932780 26661 net.cpp:261] This network produces output prob
I0714 22:13:56.932907 26661 net.cpp:274] Network initialization done.
I0714 22:13:56.937086 26657 net.cpp:141] Setting up inception_5b/5x5
I0714 22:13:56.937109 26657 net.cpp:148] Top shape: 10 128 7 7 (62720)
I0714 22:13:56.937114 26657 net.cpp:156] Memory required for data: 546981120
I0714 22:13:56.937125 26657 layer_factory.hpp:77] Creating layer inception_5b/relu_5x5
I0714 22:13:56.937146 26657 net.cpp:91] Creating Layer inception_5b/relu_5x5
I0714 22:13:56.937155 26657 net.cpp:425] inception_5b/relu_5x5 <- inception_5b/5x5
I0714 22:13:56.937163 26657 net.cpp:386] inception_5b/relu_5x5 -> inception_5b/5x5 (in-place)
I0714 22:13:56.937439 26657 net.cpp:141] Setting up inception_5b/relu_5x5
I0714 22:13:56.937450 26657 net.cpp:148] Top shape: 10 128 7 7 (62720)
I0714 22:13:56.937454 26657 net.cpp:156] Memory required for data: 547232000
I0714 22:13:56.937459 26657 layer_factory.hpp:77] Creating layer inception_5b/pool
I0714 22:13:56.937469 26657 net.cpp:91] Creating Layer inception_5b/pool
I0714 22:13:56.937474 26657 net.cpp:425] inception_5b/pool <- inception_5a/output_inception_5a/output_0_split_3
I0714 22:13:56.937485 26657 net.cpp:399] inception_5b/pool -> inception_5b/pool
I0714 22:13:56.937645 26657 net.cpp:141] Setting up inception_5b/pool
I0714 22:13:56.937656 26657 net.cpp:148] Top shape: 10 832 7 7 (407680)
I0714 22:13:56.937661 26657 net.cpp:156] Memory required for data: 548862720
I0714 22:13:56.937665 26657 layer_factory.hpp:77] Creating layer inception_5b/pool_proj
I0714 22:13:56.937682 26657 net.cpp:91] Creating Layer inception_5b/pool_proj
I0714 22:13:56.937688 26657 net.cpp:425] inception_5b/pool_proj <- inception_5b/pool
I0714 22:13:56.937700 26657 net.cpp:399] inception_5b/pool_proj -> inception_5b/pool_proj
I0714 22:13:56.943703 26657 net.cpp:141] Setting up inception_5b/pool_proj
I0714 22:13:56.943742 26657 net.cpp:148] Top shape: 10 128 7 7 (62720)
I0714 22:13:56.943747 26657 net.cpp:156] Memory required for data: 549113600
I0714 22:13:56.943759 26657 layer_factory.hpp:77] Creating layer inception_5b/relu_pool_proj
I0714 22:13:56.943773 26657 net.cpp:91] Creating Layer inception_5b/relu_pool_proj
I0714 22:13:56.943780 26657 net.cpp:425] inception_5b/relu_pool_proj <- inception_5b/pool_proj
I0714 22:13:56.943792 26657 net.cpp:386] inception_5b/relu_pool_proj -> inception_5b/pool_proj (in-place)
I0714 22:13:56.944982 26657 net.cpp:141] Setting up inception_5b/relu_pool_proj
I0714 22:13:56.945001 26657 net.cpp:148] Top shape: 10 128 7 7 (62720)
I0714 22:13:56.945005 26657 net.cpp:156] Memory required for data: 549364480
I0714 22:13:56.945011 26657 layer_factory.hpp:77] Creating layer inception_5b/output
I0714 22:13:56.945021 26657 net.cpp:91] Creating Layer inception_5b/output
I0714 22:13:56.945027 26657 net.cpp:425] inception_5b/output <- inception_5b/1x1
I0714 22:13:56.945034 26657 net.cpp:425] inception_5b/output <- inception_5b/3x3
I0714 22:13:56.945040 26657 net.cpp:425] inception_5b/output <- inception_5b/5x5
I0714 22:13:56.945046 26657 net.cpp:425] inception_5b/output <- inception_5b/pool_proj
I0714 22:13:56.945060 26657 net.cpp:399] inception_5b/output -> inception_5b/output
I0714 22:13:56.945173 26657 net.cpp:141] Setting up inception_5b/output
I0714 22:13:56.945184 26657 net.cpp:148] Top shape: 10 1024 7 7 (501760)
I0714 22:13:56.945188 26657 net.cpp:156] Memory required for data: 551371520
I0714 22:13:56.945193 26657 layer_factory.hpp:77] Creating layer pool5/7x7_s1
I0714 22:13:56.945204 26657 net.cpp:91] Creating Layer pool5/7x7_s1
I0714 22:13:56.945209 26657 net.cpp:425] pool5/7x7_s1 <- inception_5b/output
I0714 22:13:56.945216 26657 net.cpp:399] pool5/7x7_s1 -> pool5/7x7_s1
I0714 22:13:56.945559 26657 net.cpp:141] Setting up pool5/7x7_s1
I0714 22:13:56.945570 26657 net.cpp:148] Top shape: 10 1024 1 1 (10240)
I0714 22:13:56.945574 26657 net.cpp:156] Memory required for data: 551412480
I0714 22:13:56.945580 26657 layer_factory.hpp:77] Creating layer pool5/drop_7x7_s1
I0714 22:13:56.945591 26657 net.cpp:91] Creating Layer pool5/drop_7x7_s1
I0714 22:13:56.945597 26657 net.cpp:425] pool5/drop_7x7_s1 <- pool5/7x7_s1
I0714 22:13:56.945603 26657 net.cpp:386] pool5/drop_7x7_s1 -> pool5/7x7_s1 (in-place)
I0714 22:13:56.945678 26657 net.cpp:141] Setting up pool5/drop_7x7_s1
I0714 22:13:56.945688 26657 net.cpp:148] Top shape: 10 1024 1 1 (10240)
I0714 22:13:56.945693 26657 net.cpp:156] Memory required for data: 551453440
I0714 22:13:56.945696 26657 layer_factory.hpp:77] Creating layer loss3/classifier
I0714 22:13:56.945713 26657 net.cpp:91] Creating Layer loss3/classifier
I0714 22:13:56.945719 26657 net.cpp:425] loss3/classifier <- pool5/7x7_s1
I0714 22:13:56.945727 26657 net.cpp:399] loss3/classifier -> loss3/classifier
I0714 22:13:56.957618 26657 net.cpp:141] Setting up loss3/classifier
I0714 22:13:56.957654 26657 net.cpp:148] Top shape: 10 1000 (10000)
I0714 22:13:56.957659 26657 net.cpp:156] Memory required for data: 551493440
I0714 22:13:56.957672 26657 layer_factory.hpp:77] Creating layer prob
I0714 22:13:56.957685 26657 net.cpp:91] Creating Layer prob
I0714 22:13:56.957693 26657 net.cpp:425] prob <- loss3/classifier
I0714 22:13:56.957702 26657 net.cpp:399] prob -> prob
I0714 22:13:56.960074 26657 net.cpp:141] Setting up prob
I0714 22:13:56.960099 26657 net.cpp:148] Top shape: 10 1000 (10000)
I0714 22:13:56.960104 26657 net.cpp:156] Memory required for data: 551533440
I0714 22:13:56.960111 26657 net.cpp:219] prob does not need backward computation.
I0714 22:13:56.960116 26657 net.cpp:219] loss3/classifier does not need backward computation.
I0714 22:13:56.960121 26657 net.cpp:219] pool5/drop_7x7_s1 does not need backward computation.
I0714 22:13:56.960125 26657 net.cpp:219] pool5/7x7_s1 does not need backward computation.
…
