…
Java HotSpot(TM) 64-Bit Server VM warning: You have loaded library /tmp/cvld5482158691177929214/libopencv_java310.xine1.so which might have disabled stack guard. The VM will try to fix the stack guard now.
It's highly recommended that you fix the library with 'execstack -c <libfile>', or link it with '-z noexecstack'.
WARNING: Logging before InitGoogleLogging() is written to STDERR
I0720 13:57:09.562548  4272 net.cpp:49] Initializing net from parameters: 
name: "CaffeNet"
state {
  phase: TEST
}
layer {
  name: "data"
  type: "Input"
  top: "data"
  input_param {
    shape {
      dim: 10
      dim: 3
      dim: 227
      dim: 227
    }
  }
}
layer {
  name: "conv1"
  type: "Convolution"
  bottom: "data"
  top: "conv1"
  convolution_param {
    num_output: 96
    kernel_size: 11
    stride: 4
  }
}
layer {
  name: "relu1"
  type: "ReLU"
  bottom: "conv1"
  top: "conv1"
}
layer {
  name: "pool1"
  type: "Pooling"
  bottom: "conv1"
  top: "pool1"
  pooling_param {
    pool: MAX
    kernel_size: 3
    stride: 2
  }
}
layer {
  name: "norm1"
  type: "LRN"
  bottom: "pool1"
  top: "norm1"
  lrn_param {
    local_size: 5
    alpha: 0.0001
    beta: 0.75
  }
}
layer {
  name: "conv2"
  type: "Convolution"
  bottom: "norm1"
  top: "conv2"
  convolution_param {
    num_output: 256
    pad: 2
    kernel_size: 5
    group: 2
  }
}
layer {
  name: "relu2"
  type: "ReLU"
  bottom: "conv2"
  top: "conv2"
}
layer {
  name: "pool2"
  type: "Pooling"
  bottom: "conv2"
  top: "pool2"
  pooling_param {
    pool: MAX
    kernel_size: 3
    stride: 2
  }
}
layer {
  name: "norm2"
  type: "LRN"
  bottom: "pool2"
  top: "norm2"
  lrn_param {
    local_size: 5
    alpha: 0.0001
    beta: 0.75
  }
}
layer {
  name: "conv3"
  type: "Convolution"
  bottom: "norm2"
  top: "conv3"
  convolution_param {
    num_output: 384
    pad: 1
    kernel_size: 3
  }
}
layer {
  name: "relu3"
  type: "ReLU"
  bottom: "conv3"
  top: "conv3"
}
layer {
  name: "conv4"
  type: "Convolution"
  bottom: "conv3"
  top: "conv4"
  convolution_param {
    num_output: 384
    pad: 1
    kernel_size: 3
    group: 2
  }
}
layer {
  name: "relu4"
  type: "ReLU"
  bottom: "conv4"
  top: "conv4"
}
layer {
  name: "conv5"
  type: "Convolution"
  bottom: "conv4"
  top: "conv5"
  convolution_param {
    num_output: 256
    pad: 1
    kernel_size: 3
    group: 2
  }
}
layer {
  name: "relu5"
  type: "ReLU"
  bottom: "conv5"
  top: "conv5"
}
layer {
  name: "pool5"
  type: "Pooling"
  bottom: "conv5"
  top: "pool5"
  pooling_param {
    pool: MAX
    kernel_size: 3
    stride: 2
  }
}
layer {
  name: "fc6"
  type: "InnerProduct"
  bottom: "pool5"
  top: "fc6"
  inner_product_param {
    num_output: 4096
  }
}
layer {
  name: "relu6"
  type: "ReLU"
  bottom: "fc6"
  top: "fc6"
}
layer {
  name: "drop6"
  type: "Dropout"
  bottom: "fc6"
  top: "fc6"
  dropout_param {
    dropout_ratio: 0.5
  }
}
layer {
  name: "fc7"
  type: "InnerProduct"
  bottom: "fc6"
  top: "fc7"
  inner_product_param {
    num_output: 4096
  }
}
layer {
  name: "relu7"
  type: "ReLU"
  bottom: "fc7"
  top: "fc7"
}
layer {
  name: "drop7"
  type: "Dropout"
  bottom: "fc7"
  top: "fc7"
  dropout_param {
    dropout_ratio: 0.5
  }
}
layer {
  name: "fc8"
  type: "InnerProduct"
  bottom: "fc7"
  top: "fc8"
  inner_product_param {
    num_output: 1000
  }
}
layer {
  name: "prob"
  type: "Softmax"
  bottom: "fc8"
  top: "prob"
}
I0720 13:57:09.562548  4264 net.cpp:49] Initializing net from parameters: 
name: "CaffeNet"
state {
  phase: TEST
}
layer {
  name: "data"
  type: "Input"
  top: "data"
  input_param {
    shape {
      dim: 10
      dim: 3
      dim: 227
      dim: 227
    }
  }
}
layer {
  name: "conv1"
  type: "Convolution"
  bottom: "data"
  top: "conv1"
  convolution_param {
    num_output: 96
    kernel_size: 11
    stride: 4
  }
}
layer {
  name: "relu1"
  type: "ReLU"
  bottom: "conv1"
  top: "conv1"
}
layer {
  name: "pool1"
  type: "Pooling"
  bottom: "conv1"
  top: "pool1"
  pooling_param {
    pool: MAX
    kernel_size: 3
    stride: 2
  }
}
layer {
  name: "norm1"
  type: "LRN"
  bottom: "pool1"
  top: "norm1"
  lrn_param {
    local_size: 5
    alpha: 0.0001
    beta: 0.75
  }
}
layer {
  name: "conv2"
  type: "Convolution"
  bottom: "norm1"
  top: "conv2"
  convolution_param {
    num_output: 256
    pad: 2
    kernel_size: 5
    group: 2
  }
}
layer {
  name: "relu2"
  type: "ReLU"
  bottom: "conv2"
  top: "conv2"
}
layer {
  name: "pool2"
  type: "Pooling"
  bottom: "conv2"
  top: "pool2"
  pooling_param {
    pool: MAX
    kernel_size: 3
    stride: 2
  }
}
layer {
  name: "norm2"
  type: "LRN"
  bottom: "pool2"
  top: "norm2"
  lrn_param {
    local_size: 5
    alpha: 0.0001
    beta: 0.75
  }
}
layer {
  name: "conv3"
  type: "Convolution"
  bottom: "norm2"
  top: "conv3"
  convolution_param {
    num_output: 384
    pad: 1
    kernel_size: 3
  }
}
layer {
  name: "relu3"
  type: "ReLU"
  bottom: "conv3"
  top: "conv3"
}
layer {
  name: "conv4"
  type: "Convolution"
  bottom: "conv3"
  top: "conv4"
  convolution_param {
    num_output: 384
    pad: 1
    kernel_size: 3
    group: 2
  }
}
layer {
  name: "relu4"
  type: "ReLU"
  bottom: "conv4"
  top: "conv4"
}
layer {
  name: "conv5"
  type: "Convolution"
  bottom: "conv4"
  top: "conv5"
  convolution_param {
    num_output: 256
    pad: 1
    kernel_size: 3
    group: 2
  }
}
layer {
  name: "relu5"
  type: "ReLU"
  bottom: "conv5"
  top: "conv5"
}
layer {
  name: "pool5"
  type: "Pooling"
  bottom: "conv5"
  top: "pool5"
  pooling_param {
    pool: MAX
    kernel_size: 3
    stride: 2
  }
}
layer {
  name: "fc6"
  type: "InnerProduct"
  bottom: "pool5"
  top: "fc6"
  inner_product_param {
    num_output: 4096
  }
}
layer {
  name: "relu6"
  type: "ReLU"
  bottom: "fc6"
  top: "fc6"
}
layer {
  name: "drop6"
  type: "Dropout"
  bottom: "fc6"
  top: "fc6"
  dropout_param {
    dropout_ratio: 0.5
  }
}
layer {
  name: "fc7"
  type: "InnerProduct"
  bottom: "fc6"
  top: "fc7"
  inner_product_param {
    num_output: 4096
  }
}
layer {
  name: "relu7"
  type: "ReLU"
  bottom: "fc7"
  top: "fc7"
}
layer {
  name: "drop7"
  type: "Dropout"
  bottom: "fc7"
  top: "fc7"
  dropout_param {
    dropout_ratio: 0.5
  }
}
layer {
  name: "fc8"
  type: "InnerProduct"
  bottom: "fc7"
  top: "fc8"
  inner_product_param {
    num_output: 1000
  }
}
layer {
  name: "prob"
  type: "Softmax"
  bottom: "fc8"
  top: "prob"
}
I0720 13:57:09.562548  4244 net.cpp:49] Initializing net from parameters: 
name: "CaffeNet"
state {
  phase: TEST
}
layer {
  name: "data"
  type: "Input"
  top: "data"
  input_param {
    shape {
      dim: 10
      dim: 3
      dim: 227
      dim: 227
    }
  }
}
layer {
  name: "conv1"
  type: "Convolution"
  bottom: "data"
  top: "conv1"
  convolution_param {
    num_output: 96
    kernel_size: 11
    stride: 4
  }
}
layer {
  name: "relu1"
  type: "ReLU"
  bottom: "conv1"
  top: "conv1"
}
layer {
  name: "pool1"
  type: "Pooling"
  bottom: "conv1"
  top: "pool1"
  pooling_param {
    pool: MAX
    kernel_size: 3
    stride: 2
  }
}
layer {
  name: "norm1"
  type: "LRN"
  bottom: "pool1"
  top: "norm1"
  lrn_param {
    local_size: 5
    alpha: 0.0001
    beta: 0.75
  }
}
layer {
  name: "conv2"
  type: "Convolution"
  bottom: "norm1"
  top: "conv2"
  convolution_param {
    num_output: 256
    pad: 2
    kernel_size: 5
    group: 2
  }
}
layer {
  name: "relu2"
  type: "ReLU"
  bottom: "conv2"
  top: "conv2"
}
layer {
  name: "pool2"
  type: "Pooling"
  bottom: "conv2"
  top: "pool2"
  pooling_param {
    pool: MAX
    kernel_size: 3
    stride: 2
  }
}
layer {
  name: "norm2"
  type: "LRN"
  bottom: "pool2"
  top: "norm2"
  lrn_param {
    local_size: 5
    alpha: 0.0001
    beta: 0.75
  }
}
layer {
  name: "conv3"
  type: "Convolution"
  bottom: "norm2"
  top: "conv3"
  convolution_param {
    num_output: 384
    pad: 1
    kernel_size: 3
  }
}
layer {
  name: "relu3"
  type: "ReLU"
  bottom: "conv3"
  top: "conv3"
}
layer {
  name: "conv4"
  type: "Convolution"
  bottom: "conv3"
  top: "conv4"
  convolution_param {
    num_output: 384
    pad: 1
    kernel_size: 3
    group: 2
  }
}
layer {
  name: "relu4"
  type: "ReLU"
  bottom: "conv4"
  top: "conv4"
}
layer {
  name: "conv5"
  type: "Convolution"
  bottom: "conv4"
  top: "conv5"
  convolution_param {
    num_output: 256
    pad: 1
    kernel_size: 3
    group: 2
  }
}
layer {
  name: "relu5"
  type: "ReLU"
  bottom: "conv5"
  top: "conv5"
}
layer {
  name: "pool5"
  type: "Pooling"
  bottom: "conv5"
  top: "pool5"
  pooling_param {
    pool: MAX
    kernel_size: 3
    stride: 2
  }
}
layer {
  name: "fc6"
  type: "InnerProduct"
  bottom: "pool5"
  top: "fc6"
  inner_product_param {
    num_output: 4096
  }
}
layer {
  name: "relu6"
  type: "ReLU"
  bottom: "fc6"
  top: "fc6"
}
layer {
  name: "drop6"
  type: "Dropout"
  bottom: "fc6"
  top: "fc6"
  dropout_param {
    dropout_ratio: 0.5
  }
}
layer {
  name: "fc7"
  type: "InnerProduct"
  bottom: "fc6"
  top: "fc7"
  inner_product_param {
    num_output: 4096
  }
}
layer {
  name: "relu7"
  type: "ReLU"
  bottom: "fc7"
  top: "fc7"
}
layer {
  name: "drop7"
  type: "Dropout"
  bottom: "fc7"
  top: "fc7"
  dropout_param {
    dropout_ratio: 0.5
  }
}
layer {
  name: "fc8"
  type: "InnerProduct"
  bottom: "fc7"
  top: "fc8"
  inner_product_param {
    num_output: 1000
  }
}
layer {
  name: "prob"
  type: "Softmax"
  bottom: "fc8"
  top: "prob"
}
I0720 13:57:09.562548  4260 net.cpp:49] Initializing net from parameters: 
name: "CaffeNet"
state {
  phase: TEST
}
layer {
  name: "data"
  type: "Input"
  top: "data"
  input_param {
    shape {
      dim: 10
      dim: 3
      dim: 227
      dim: 227
    }
  }
}
layer {
  name: "conv1"
  type: "Convolution"
  bottom: "data"
  top: "conv1"
  convolution_param {
    num_output: 96
    kernel_size: 11
    stride: 4
  }
}
layer {
  name: "relu1"
  type: "ReLU"
  bottom: "conv1"
  top: "conv1"
}
layer {
  name: "pool1"
  type: "Pooling"
  bottom: "conv1"
  top: "pool1"
  pooling_param {
    pool: MAX
    kernel_size: 3
    stride: 2
  }
}
layer {
  name: "norm1"
  type: "LRN"
  bottom: "pool1"
  top: "norm1"
  lrn_param {
    local_size: 5
    alpha: 0.0001
    beta: 0.75
  }
}
layer {
  name: "conv2"
  type: "Convolution"
  bottom: "norm1"
  top: "conv2"
  convolution_param {
    num_output: 256
    pad: 2
    kernel_size: 5
    group: 2
  }
}
layer {
  name: "relu2"
  type: "ReLU"
  bottom: "conv2"
  top: "conv2"
}
layer {
  name: "pool2"
  type: "Pooling"
  bottom: "conv2"
  top: "pool2"
  pooling_param {
    pool: MAX
    kernel_size: 3
    stride: 2
  }
}
layer {
  name: "norm2"
  type: "LRN"
  bottom: "pool2"
  top: "norm2"
  lrn_param {
    local_size: 5
    alpha: 0.0001
    beta: 0.75
  }
}
layer {
  name: "conv3"
  type: "Convolution"
  bottom: "norm2"
  top: "conv3"
  convolution_param {
    num_output: 384
    pad: 1
    kernel_size: 3
  }
}
layer {
  name: "relu3"
  type: "ReLU"
  bottom: "conv3"
  top: "conv3"
}
layer {
  name: "conv4"
  type: "Convolution"
  bottom: "conv3"
  top: "conv4"
  convolution_param {
    num_output: 384
    pad: 1
    kernel_size: 3
    group: 2
  }
}
layer {
  name: "relu4"
  type: "ReLU"
  bottom: "conv4"
  top: "conv4"
}
layer {
  name: "conv5"
  type: "Convolution"
  bottom: "conv4"
  top: "conv5"
  convolution_param {
    num_output: 256
    pad: 1
    kernel_size: 3
    group: 2
  }
}
layer {
  name: "relu5"
  type: "ReLU"
  bottom: "conv5"
  top: "conv5"
}
layer {
  name: "pool5"
  type: "Pooling"
  bottom: "conv5"
  top: "pool5"
  pooling_param {
    pool: MAX
    kernel_size: 3
    stride: 2
  }
}
layer {
  name: "fc6"
  type: "InnerProduct"
  bottom: "pool5"
  top: "fc6"
  inner_product_param {
    num_output: 4096
  }
}
layer {
  name: "relu6"
  type: "ReLU"
  bottom: "fc6"
  top: "fc6"
}
layer {
  name: "drop6"
  type: "Dropout"
  bottom: "fc6"
  top: "fc6"
  dropout_param {
    dropout_ratio: 0.5
  }
}
layer {
  name: "fc7"
  type: "InnerProduct"
  bottom: "fc6"
  top: "fc7"
  inner_product_param {
    num_output: 4096
  }
}
layer {
  name: "relu7"
  type: "ReLU"
  bottom: "fc7"
  top: "fc7"
}
layer {
  name: "drop7"
  type: "Dropout"
  bottom: "fc7"
  top: "fc7"
  dropout_param {
    dropout_ratio: 0.5
  }
}
layer {
  name: "fc8"
  type: "InnerProduct"
  bottom: "fc7"
  top: "fc8"
  inner_product_param {
    num_output: 1000
  }
}
layer {
  name: "prob"
  type: "Softmax"
  bottom: "fc8"
  top: "prob"
}
I0720 13:57:09.562548  4278 net.cpp:49] Initializing net from parameters: 
name: "CaffeNet"
state {
  phase: TEST
}
layer {
  name: "data"
  type: "Input"
  top: "data"
  input_param {
    shape {
      dim: 10
      dim: 3
      dim: 227
      dim: 227
    }
  }
}
layer {
  name: "conv1"
  type: "Convolution"
  bottom: "data"
  top: "conv1"
  convolution_param {
    num_output: 96
    kernel_size: 11
    stride: 4
  }
}
layer {
  name: "relu1"
  type: "ReLU"
  bottom: "conv1"
  top: "conv1"
}
layer {
  name: "pool1"
  type: "Pooling"
  bottom: "conv1"
  top: "pool1"
  pooling_param {
    pool: MAX
    kernel_size: 3
    stride: 2
  }
}
layer {
  name: "norm1"
  type: "LRN"
  bottom: "pool1"
  top: "norm1"
  lrn_param {
    local_size: 5
    alpha: 0.0001
    beta: 0.75
  }
}
layer {
  name: "conv2"
  type: "Convolution"
  bottom: "norm1"
  top: "conv2"
  convolution_param {
    num_output: 256
    pad: 2
    kernel_size: 5
    group: 2
  }
}
layer {
  name: "relu2"
  type: "ReLU"
  bottom: "conv2"
  top: "conv2"
}
layer {
  name: "pool2"
  type: "Pooling"
  bottom: "conv2"
  top: "pool2"
  pooling_param {
    pool: MAX
    kernel_size: 3
    stride: 2
  }
}
layer {
  name: "norm2"
  type: "LRN"
  bottom: "pool2"
  top: "norm2"
  lrn_param {
    local_size: 5
    alpha: 0.0001
    beta: 0.75
  }
}
layer {
  name: "conv3"
  type: "Convolution"
  bottom: "norm2"
  top: "conv3"
  convolution_param {
    num_output: 384
    pad: 1
    kernel_size: 3
  }
}
layer {
  name: "relu3"
  type: "ReLU"
  bottom: "conv3"
  top: "conv3"
}
layer {
  name: "conv4"
  type: "Convolution"
  bottom: "conv3"
  top: "conv4"
  convolution_param {
    num_output: 384
    pad: 1
    kernel_size: 3
    group: 2
  }
}
layer {
  name: "relu4"
  type: "ReLU"
  bottom: "conv4"
  top: "conv4"
}
layer {
  name: "conv5"
  type: "Convolution"
  bottom: "conv4"
  top: "conv5"
  convolution_param {
    num_output: 256
    pad: 1
    kernel_size: 3
    group: 2
  }
}
layer {
  name: "relu5"
  type: "ReLU"
  bottom: "conv5"
  top: "conv5"
}
layer {
  name: "pool5"
  type: "Pooling"
  bottom: "conv5"
  top: "pool5"
  pooling_param {
    pool: MAX
    kernel_size: 3
    stride: 2
  }
}
layer {
  name: "fc6"
  type: "InnerProduct"
  bottom: "pool5"
  top: "fc6"
  inner_product_param {
    num_output: 4096
  }
}
layer {
  name: "relu6"
  type: "ReLU"
  bottom: "fc6"
  top: "fc6"
}
layer {
  name: "drop6"
  type: "Dropout"
  bottom: "fc6"
  top: "fc6"
  dropout_param {
    dropout_ratio: 0.5
  }
}
layer {
  name: "fc7"
  type: "InnerProduct"
  bottom: "fc6"
  top: "fc7"
  inner_product_param {
    num_output: 4096
  }
}
layer {
  name: "relu7"
  type: "ReLU"
  bottom: "fc7"
  top: "fc7"
}
layer {
  name: "drop7"
  type: "Dropout"
  bottom: "fc7"
  top: "fc7"
  dropout_param {
    dropout_ratio: 0.5
  }
}
layer {
  name: "fc8"
  type: "InnerProduct"
  bottom: "fc7"
  top: "fc8"
  inner_product_param {
    num_output: 1000
  }
}
layer {
  name: "prob"
  type: "Softmax"
  bottom: "fc8"
  top: "prob"
}
I0720 13:57:09.562548  4266 net.cpp:49] Initializing net from parameters: 
name: "CaffeNet"
state {
  phase: TEST
}
layer {
  name: "data"
  type: "Input"
  top: "data"
  input_param {
    shape {
      dim: 10
      dim: 3
      dim: 227
      dim: 227
    }
  }
}
layer {
  name: "conv1"
  type: "Convolution"
  bottom: "data"
  top: "conv1"
  convolution_param {
    num_output: 96
    kernel_size: 11
    stride: 4
  }
}
layer {
  name: "relu1"
  type: "ReLU"
  bottom: "conv1"
  top: "conv1"
}
layer {
  name: "pool1"
  type: "Pooling"
  bottom: "conv1"
  top: "pool1"
  pooling_param {
    pool: MAX
    kernel_size: 3
    stride: 2
  }
}
layer {
  name: "norm1"
  type: "LRN"
  bottom: "pool1"
  top: "norm1"
  lrn_param {
    local_size: 5
    alpha: 0.0001
    beta: 0.75
  }
}
layer {
  name: "conv2"
  type: "Convolution"
  bottom: "norm1"
  top: "conv2"
  convolution_param {
    num_output: 256
    pad: 2
    kernel_size: 5
    group: 2
  }
}
layer {
  name: "relu2"
  type: "ReLU"
  bottom: "conv2"
  top: "conv2"
}
layer {
  name: "pool2"
  type: "Pooling"
  bottom: "conv2"
  top: "pool2"
  pooling_param {
    pool: MAX
    kernel_size: 3
    stride: 2
  }
}
layer {
  name: "norm2"
  type: "LRN"
  bottom: "pool2"
  top: "norm2"
  lrn_param {
    local_size: 5
    alpha: 0.0001
    beta: 0.75
  }
}
layer {
  name: "conv3"
  type: "Convolution"
  bottom: "norm2"
  top: "conv3"
  convolution_param {
    num_output: 384
    pad: 1
    kernel_size: 3
  }
}
layer {
  name: "relu3"
  type: "ReLU"
  bottom: "conv3"
  top: "conv3"
}
layer {
  name: "conv4"
  type: "Convolution"
  bottom: "conv3"
  top: "conv4"
  convolution_param {
    num_output: 384
    pad: 1
    kernel_size: 3
    group: 2
  }
}
layer {
  name: "relu4"
  type: "ReLU"
  bottom: "conv4"
  top: "conv4"
}
layer {
  name: "conv5"
  type: "Convolution"
  bottom: "conv4"
  top: "conv5"
  convolution_param {
    num_output: 256
    pad: 1
    kernel_size: 3
    group: 2
  }
}
layer {
  name: "relu5"
  type: "ReLU"
  bottom: "conv5"
  top: "conv5"
}
layer {
  name: "pool5"
  type: "Pooling"
  bottom: "conv5"
  top: "pool5"
  pooling_param {
    pool: MAX
    kernel_size: 3
    stride: 2
  }
}
layer {
  name: "fc6"
  type: "InnerProduct"
  bottom: "pool5"
  top: "fc6"
  inner_product_param {
    num_output: 4096
  }
}
layer {
  name: "relu6"
  type: "ReLU"
  bottom: "fc6"
  top: "fc6"
}
layer {
  name: "drop6"
  type: "Dropout"
  bottom: "fc6"
  top: "fc6"
  dropout_param {
    dropout_ratio: 0.5
  }
}
layer {
  name: "fc7"
  type: "InnerProduct"
  bottom: "fc6"
  top: "fc7"
  inner_product_param {
    num_output: 4096
  }
}
layer {
  name: "relu7"
  type: "ReLU"
  bottom: "fc7"
  top: "fc7"
}
layer {
  name: "drop7"
  type: "Dropout"
  bottom: "fc7"
  top: "fc7"
  dropout_param {
    dropout_ratio: 0.5
  }
}
layer {
  name: "fc8"
  type: "InnerProduct"
  bottom: "fc7"
  top: "fc8"
  inner_product_param {
    num_output: 1000
  }
}
layer {
  name: "prob"
  type: "Softmax"
  bottom: "fc8"
  top: "prob"
}
I0720 13:57:09.562548  4270 net.cpp:49] Initializing net from parameters: 
name: "CaffeNet"
state {
  phase: TEST
}
layer {
  name: "data"
  type: "Input"
  top: "data"
  input_param {
    shape {
      dim: 10
      dim: 3
      dim: 227
      dim: 227
    }
  }
}
layer {
  name: "conv1"
  type: "Convolution"
  bottom: "data"
  top: "conv1"
  convolution_param {
    num_output: 96
    kernel_size: 11
    stride: 4
  }
}
layer {
  name: "relu1"
  type: "ReLU"
  bottom: "conv1"
  top: "conv1"
}
layer {
  name: "pool1"
  type: "Pooling"
  bottom: "conv1"
  top: "pool1"
  pooling_param {
    pool: MAX
    kernel_size: 3
    stride: 2
  }
}
layer {
  name: "norm1"
  type: "LRN"
  bottom: "pool1"
  top: "norm1"
  lrn_param {
    local_size: 5
    alpha: 0.0001
    beta: 0.75
  }
}
layer {
  name: "conv2"
  type: "Convolution"
  bottom: "norm1"
  top: "conv2"
  convolution_param {
    num_output: 256
    pad: 2
    kernel_size: 5
    group: 2
  }
}
layer {
  name: "relu2"
  type: "ReLU"
  bottom: "conv2"
  top: "conv2"
}
layer {
  name: "pool2"
  type: "Pooling"
  bottom: "conv2"
  top: "pool2"
  pooling_param {
    pool: MAX
    kernel_size: 3
    stride: 2
  }
}
layer {
  name: "norm2"
  type: "LRN"
  bottom: "pool2"
  top: "norm2"
  lrn_param {
    local_size: 5
    alpha: 0.0001
    beta: 0.75
  }
}
layer {
  name: "conv3"
  type: "Convolution"
  bottom: "norm2"
  top: "conv3"
  convolution_param {
    num_output: 384
    pad: 1
    kernel_size: 3
  }
}
layer {
  name: "relu3"
  type: "ReLU"
  bottom: "conv3"
  top: "conv3"
}
layer {
  name: "conv4"
  type: "Convolution"
  bottom: "conv3"
  top: "conv4"
  convolution_param {
    num_output: 384
    pad: 1
    kernel_size: 3
    group: 2
  }
}
layer {
  name: "relu4"
  type: "ReLU"
  bottom: "conv4"
  top: "conv4"
}
layer {
  name: "conv5"
  type: "Convolution"
  bottom: "conv4"
  top: "conv5"
  convolution_param {
    num_output: 256
    pad: 1
    kernel_size: 3
    group: 2
  }
}
layer {
  name: "relu5"
  type: "ReLU"
  bottom: "conv5"
  top: "conv5"
}
layer {
  name: "pool5"
  type: "Pooling"
  bottom: "conv5"
  top: "pool5"
  pooling_param {
    pool: MAX
    kernel_size: 3
    stride: 2
  }
}
layer {
  name: "fc6"
  type: "InnerProduct"
  bottom: "pool5"
  top: "fc6"
  inner_product_param {
    num_output: 4096
  }
}
layer {
  name: "relu6"
  type: "ReLU"
  bottom: "fc6"
  top: "fc6"
}
layer {
  name: "drop6"
  type: "Dropout"
  bottom: "fc6"
  top: "fc6"
  dropout_param {
    dropout_ratio: 0.5
  }
}
layer {
  name: "fc7"
  type: "InnerProduct"
  bottom: "fc6"
  top: "fc7"
  inner_product_param {
    num_output: 4096
  }
}
layer {
  name: "relu7"
  type: "ReLU"
  bottom: "fc7"
  top: "fc7"
}
layer {
  name: "drop7"
  type: "Dropout"
  bottom: "fc7"
  top: "fc7"
  dropout_param {
    dropout_ratio: 0.5
  }
}
layer {
  name: "fc8"
  type: "InnerProduct"
  bottom: "fc7"
  top: "fc8"
  inner_product_param {
    num_output: 1000
  }
}
layer {
  name: "prob"
  type: "Softmax"
  bottom: "fc8"
  top: "prob"
}
I0720 13:57:09.562813  4264 layer_factory.hpp:77] Creating layer data
I0720 13:57:09.562819  4254 net.cpp:49] Initializing net from parameters: 
name: "CaffeNet"
state {
  phase: TEST
}
layer {
  name: "data"
  type: "Input"
  top: "data"
  input_param {
    shape {
      dim: 10
      dim: 3
      dim: 227
      dim: 227
    }
  }
}
layer {
  name: "conv1"
  type: "Convolution"
  bottom: "data"
  top: "conv1"
  convolution_param {
    num_output: 96
    kernel_size: 11
    stride: 4
  }
}
layer {
  name: "relu1"
  type: "ReLU"
  bottom: "conv1"
  top: "conv1"
}
layer {
  name: "pool1"
  type: "Pooling"
  bottom: "conv1"
  top: "pool1"
  pooling_param {
    pool: MAX
    kernel_size: 3
    stride: 2
  }
}
layer {
  name: "norm1"
  type: "LRN"
  bottom: "pool1"
  top: "norm1"
  lrn_param {
    local_size: 5
    alpha: 0.0001
    beta: 0.75
  }
}
layer {
  name: "conv2"
  type: "Convolution"
  bottom: "norm1"
  top: "conv2"
  convolution_param {
    num_output: 256
    pad: 2
    kernel_size: 5
    group: 2
  }
}
layer {
  name: "relu2"
  type: "ReLU"
  bottom: "conv2"
  top: "conv2"
}
layer {
  name: "pool2"
  type: "Pooling"
  bottom: "conv2"
  top: "pool2"
  pooling_param {
    pool: MAX
    kernel_size: 3
    stride: 2
  }
}
layer {
  name: "norm2"
  type: "LRN"
  bottom: "pool2"
  top: "norm2"
  lrn_param {
    local_size: 5
    alpha: 0.0001
    beta: 0.75
  }
}
layer {
  name: "conv3"
  type: "Convolution"
  bottom: "norm2"
  top: "conv3"
  convolution_param {
    num_output: 384
    pad: 1
    kernel_size: 3
  }
}
layer {
  name: "relu3"
  type: "ReLU"
  bottom: "conv3"
  top: "conv3"
}
layer {
  name: "conv4"
  type: "Convolution"
  bottom: "conv3"
  top: "conv4"
  convolution_param {
    num_output: 384
    pad: 1
    kernel_size: 3
    group: 2
  }
}
layer {
  name: "relu4"
  type: "ReLU"
  bottom: "conv4"
  top: "conv4"
}
layer {
  name: "conv5"
  type: "Convolution"
  bottom: "conv4"
  top: "conv5"
  convolution_param {
    num_output: 256
    pad: 1
    kernel_size: 3
    group: 2
  }
}
layer {
  name: "relu5"
  type: "ReLU"
  bottom: "conv5"
  top: "conv5"
}
layer {
  name: "pool5"
  type: "Pooling"
  bottom: "conv5"
  top: "pool5"
  pooling_param {
    pool: MAX
    kernel_size: 3
    stride: 2
  }
}
layer {
  name: "fc6"
  type: "InnerProduct"
  bottom: "pool5"
  top: "fc6"
  inner_product_param {
    num_output: 4096
  }
}
layer {
  name: "relu6"
  type: "ReLU"
  bottom: "fc6"
  top: "fc6"
}
layer {
  name: "drop6"
  type: "Dropout"
  bottom: "fc6"
  top: "fc6"
  dropout_param {
    dropout_ratio: 0.5
  }
}
layer {
  name: "fc7"
  type: "InnerProduct"
  bottom: "fc6"
  top: "fc7"
  inner_product_param {
    num_output: 4096
  }
}
layer {
  name: "relu7"
  type: "ReLU"
  bottom: "fc7"
  top: "fc7"
}
layer {
  name: "drop7"
  type: "Dropout"
  bottom: "fc7"
  top: "fc7"
  dropout_param {
    dropout_ratio: 0.5
  }
}
layer {
  name: "fc8"
  type: "InnerProduct"
  bottom: "fc7"
  top: "fc8"
  inner_product_param {
    num_output: 1000
  }
}
layer {
  name: "prob"
  type: "Softmax"
  bottom: "fc8"
  top: "prob"
}
I0720 13:57:09.562835  4272 layer_factory.hpp:77] Creating layer data
I0720 13:57:09.562841  4244 layer_factory.hpp:77] Creating layer data
I0720 13:57:09.562847  4264 net.cpp:91] Creating Layer data
I0720 13:57:09.562839  4278 layer_factory.hpp:77] Creating layer data
I0720 13:57:09.562822  4276 net.cpp:49] Initializing net from parameters: 
name: "CaffeNet"
state {
  phase: TEST
}
layer {
  name: "data"
  type: "Input"
  top: "data"
  input_param {
    shape {
      dim: 10
      dim: 3
      dim: 227
      dim: 227
    }
  }
}
layer {
  name: "conv1"
  type: "Convolution"
  bottom: "data"
  top: "conv1"
  convolution_param {
    num_output: 96
    kernel_size: 11
    stride: 4
  }
}
layer {
  name: "relu1"
  type: "ReLU"
  bottom: "conv1"
  top: "conv1"
}
layer {
  name: "pool1"
  type: "Pooling"
  bottom: "conv1"
  top: "pool1"
  pooling_param {
    pool: MAX
    kernel_size: 3
    stride: 2
  }
}
layer {
  name: "norm1"
  type: "LRN"
  bottom: "pool1"
  top: "norm1"
  lrn_param {
    local_size: 5
    alpha: 0.0001
    beta: 0.75
  }
}
layer {
  name: "conv2"
  type: "Convolution"
  bottom: "norm1"
  top: "conv2"
  convolution_param {
    num_output: 256
    pad: 2
    kernel_size: 5
    group: 2
  }
}
layer {
  name: "relu2"
  type: "ReLU"
  bottom: "conv2"
  top: "conv2"
}
layer {
  name: "pool2"
  type: "Pooling"
  bottom: "conv2"
  top: "pool2"
  pooling_param {
    pool: MAX
    kernel_size: 3
    stride: 2
  }
}
layer {
  name: "norm2"
  type: "LRN"
  bottom: "pool2"
  top: "norm2"
  lrn_param {
    local_size: 5
    alpha: 0.0001
    beta: 0.75
  }
}
layer {
  name: "conv3"
  type: "Convolution"
  bottom: "norm2"
  top: "conv3"
  convolution_param {
    num_output: 384
    pad: 1
    kernel_size: 3
  }
}
layer {
  name: "relu3"
  type: "ReLU"
  bottom: "conv3"
  top: "conv3"
}
layer {
  name: "conv4"
  type: "Convolution"
  bottom: "conv3"
  top: "conv4"
  convolution_param {
    num_output: 384
    pad: 1
    kernel_size: 3
    group: 2
  }
}
layer {
  name: "relu4"
  type: "ReLU"
  bottom: "conv4"
  top: "conv4"
}
layer {
  name: "conv5"
  type: "Convolution"
  bottom: "conv4"
  top: "conv5"
  convolution_param {
    num_output: 256
    pad: 1
    kernel_size: 3
    group: 2
  }
}
layer {
  name: "relu5"
  type: "ReLU"
  bottom: "conv5"
  top: "conv5"
}
layer {
  name: "pool5"
  type: "Pooling"
  bottom: "conv5"
  top: "pool5"
  pooling_param {
    pool: MAX
    kernel_size: 3
    stride: 2
  }
}
layer {
  name: "fc6"
  type: "InnerProduct"
  bottom: "pool5"
  top: "fc6"
  inner_product_param {
    num_output: 4096
  }
}
layer {
  name: "relu6"
  type: "ReLU"
  bottom: "fc6"
  top: "fc6"
}
layer {
  name: "drop6"
  type: "Dropout"
  bottom: "fc6"
  top: "fc6"
  dropout_param {
    dropout_ratio: 0.5
  }
}
layer {
  name: "fc7"
  type: "InnerProduct"
  bottom: "fc6"
  top: "fc7"
  inner_product_param {
    num_output: 4096
  }
}
layer {
  name: "relu7"
  type: "ReLU"
  bottom: "fc7"
  top: "fc7"
}
layer {
  name: "drop7"
  type: "Dropout"
  bottom: "fc7"
  top: "fc7"
  dropout_param {
    dropout_ratio: 0.5
  }
}
layer {
  name: "fc8"
  type: "InnerProduct"
  bottom: "fc7"
  top: "fc8"
  inner_product_param {
    num_output: 1000
  }
}
layer {
  name: "prob"
  type: "Softmax"
  bottom: "fc8"
  top: "prob"
}
I0720 13:57:09.562862  4272 net.cpp:91] Creating Layer data
I0720 13:57:09.562863  4244 net.cpp:91] Creating Layer data
I0720 13:57:09.562854  4266 layer_factory.hpp:77] Creating layer data
I0720 13:57:09.562849  4260 layer_factory.hpp:77] Creating layer data
I0720 13:57:09.562877  4244 net.cpp:399] data -> data
I0720 13:57:09.562878  4272 net.cpp:399] data -> data
I0720 13:57:09.562847  4270 layer_factory.hpp:77] Creating layer data
I0720 13:57:09.562888  4260 net.cpp:91] Creating Layer data
I0720 13:57:09.562889  4266 net.cpp:91] Creating Layer data
I0720 13:57:09.562870  4264 net.cpp:399] data -> data
I0720 13:57:09.562901  4260 net.cpp:399] data -> data
I0720 13:57:09.562903  4266 net.cpp:399] data -> data
I0720 13:57:09.562906  4270 net.cpp:91] Creating Layer data
I0720 13:57:09.562919  4270 net.cpp:399] data -> data
I0720 13:57:09.562945  4260 net.cpp:141] Setting up data
I0720 13:57:09.562945  4264 net.cpp:141] Setting up data
I0720 13:57:09.562945  4270 net.cpp:141] Setting up data
I0720 13:57:09.562945  4244 net.cpp:141] Setting up data
I0720 13:57:09.562945  4266 net.cpp:141] Setting up data
I0720 13:57:09.562968  4254 layer_factory.hpp:77] Creating layer data
I0720 13:57:09.562945  4272 net.cpp:141] Setting up data
I0720 13:57:09.562993  4276 layer_factory.hpp:77] Creating layer data
I0720 13:57:09.563001  4260 net.cpp:148] Top shape: 10 3 227 227 (1545870)
I0720 13:57:09.563000  4270 net.cpp:148] Top shape: 10 3 227 227 (1545870)
I0720 13:57:09.563000  4264 net.cpp:148] Top shape: 10 3 227 227 (1545870)
I0720 13:57:09.563011  4272 net.cpp:148] Top shape: 10 3 227 227 (1545870)
I0720 13:57:09.563000  4244 net.cpp:148] Top shape: 10 3 227 227 (1545870)
I0720 13:57:09.563021  4276 net.cpp:91] Creating Layer data
I0720 13:57:09.563026  4270 net.cpp:156] Memory required for data: 6183480
I0720 13:57:09.562870  4278 net.cpp:91] Creating Layer data
I0720 13:57:09.563002  4266 net.cpp:148] Top shape: 10 3 227 227 (1545870)
I0720 13:57:09.563048  4276 net.cpp:399] data -> data
I0720 13:57:09.563021  4260 net.cpp:156] Memory required for data: 6183480
I0720 13:57:09.563026  4264 net.cpp:156] Memory required for data: 6183480
I0720 13:57:09.563060  4278 net.cpp:399] data -> data
I0720 13:57:09.563002  4254 net.cpp:91] Creating Layer data
I0720 13:57:09.563056  4270 layer_factory.hpp:77] Creating layer conv1
I0720 13:57:09.563071  4276 net.cpp:141] Setting up data
I0720 13:57:09.563043  4244 net.cpp:156] Memory required for data: 6183480
I0720 13:57:09.563066  4260 layer_factory.hpp:77] Creating layer conv1
I0720 13:57:09.563061  4266 net.cpp:156] Memory required for data: 6183480
I0720 13:57:09.563086  4276 net.cpp:148] Top shape: 10 3 227 227 (1545870)
I0720 13:57:09.563087  4244 layer_factory.hpp:77] Creating layer conv1
I0720 13:57:09.563081  4278 net.cpp:141] Setting up data
I0720 13:57:09.563097  4276 net.cpp:156] Memory required for data: 6183480
I0720 13:57:09.563097  4270 net.cpp:91] Creating Layer conv1
I0720 13:57:09.563094  4266 layer_factory.hpp:77] Creating layer conv1
I0720 13:57:09.563072  4264 layer_factory.hpp:77] Creating layer conv1
I0720 13:57:09.563110  4278 net.cpp:148] Top shape: 10 3 227 227 (1545870)
I0720 13:57:09.563031  4272 net.cpp:156] Memory required for data: 6183480
I0720 13:57:09.563117  4270 net.cpp:425] conv1 <- data
I0720 13:57:09.563108  4276 layer_factory.hpp:77] Creating layer conv1
I0720 13:57:09.563127  4272 layer_factory.hpp:77] Creating layer conv1
I0720 13:57:09.563105  4244 net.cpp:91] Creating Layer conv1
I0720 13:57:09.563122  4278 net.cpp:156] Memory required for data: 6183480
…
I0720 13:57:09.563176  4278 net.cpp:91] Creating Layer conv1
I0720 13:57:09.563156  4260 net.cpp:425] conv1 <- data
I0720 13:57:09.563186  4278 net.cpp:425] conv1 <- data
I0720 13:57:09.563191  4276 net.cpp:399] conv1 -> conv1
I0720 13:57:09.563186  4264 net.cpp:399] conv1 -> conv1
I0720 13:57:09.563175  4272 net.cpp:425] conv1 <- data
I0720 13:57:09.563202  4278 net.cpp:399] conv1 -> conv1
I0720 13:57:09.563210  4272 net.cpp:399] conv1 -> conv1
I0720 13:57:09.563079  4254 net.cpp:399] data -> data
I0720 13:57:09.563238  4254 net.cpp:141] Setting up data
I0720 13:57:09.563253  4254 net.cpp:148] Top shape: 10 3 227 227 (1545870)
I0720 13:57:09.563261  4254 net.cpp:156] Memory required for data: 6183480
I0720 13:57:09.563271  4254 layer_factory.hpp:77] Creating layer conv1
I0720 13:57:09.563285  4254 net.cpp:91] Creating Layer conv1
I0720 13:57:09.563295  4254 net.cpp:425] conv1 <- data
I0720 13:57:09.563308  4254 net.cpp:399] conv1 -> conv1
I0720 13:57:09.563192  4260 net.cpp:399] conv1 -> conv1
I0720 13:57:09.563611  4258 net.cpp:49] Initializing net from parameters: 
name: "CaffeNet"
state {
  phase: TEST
}
layer {
  name: "data"
  type: "Input"
  top: "data"
  input_param {
    shape {
      dim: 10
      dim: 3
      dim: 227
      dim: 227
    }
  }
}
layer {
  name: "conv1"
  type: "Convolution"
  bottom: "data"
  top: "conv1"
  convolution_param {
    num_output: 96
    kernel_size: 11
    stride: 4
  }
}
layer {
  name: "relu1"
  type: "ReLU"
  bottom: "conv1"
  top: "conv1"
}
layer {
  name: "pool1"
  type: "Pooling"
  bottom: "conv1"
  top: "pool1"
  pooling_param {
    pool: MAX
    kernel_size: 3
    stride: 2
  }
}
layer {
  name: "norm1"
  type: "LRN"
  bottom: "pool1"
  top: "norm1"
  lrn_param {
    local_size: 5
    alpha: 0.0001
    beta: 0.75
  }
}
layer {
  name: "conv2"
  type: "Convolution"
  bottom: "norm1"
  top: "conv2"
  convolution_param {
    num_output: 256
    pad: 2
    kernel_size: 5
    group: 2
  }
}
layer {
  name: "relu2"
  type: "ReLU"
  bottom: "conv2"
  top: "conv2"
}
layer {
  name: "pool2"
  type: "Pooling"
  bottom: "conv2"
  top: "pool2"
  pooling_param {
    pool: MAX
    kernel_size: 3
    stride: 2
  }
}
layer {
  name: "norm2"
  type: "LRN"
  bottom: "pool2"
  top: "norm2"
  lrn_param {
    local_size: 5
    alpha: 0.0001
    beta: 0.75
  }
}
layer {
  name: "conv3"
  type: "Convolution"
  bottom: "norm2"
  top: "conv3"
  convolution_param {
    num_output: 384
    pad: 1
    kernel_size: 3
  }
}
layer {
  name: "relu3"
  type: "ReLU"
  bottom: "conv3"
  top: "conv3"
}
layer {
  name: "conv4"
  type: "Convolution"
  bottom: "conv3"
  top: "conv4"
  convolution_param {
    num_output: 384
    pad: 1
    kernel_size: 3
    group: 2
  }
}
layer {
  name: "relu4"
  type: "ReLU"
  bottom: "conv4"
  top: "conv4"
}
layer {
  name: "conv5"
  type: "Convolution"
  bottom: "conv4"
  top: "conv5"
  convolution_param {
    num_output: 256
    pad: 1
    kernel_size: 3
    group: 2
  }
}
layer {
  name: "relu5"
  type: "ReLU"
  bottom: "conv5"
  top: "conv5"
}
layer {
  name: "pool5"
  type: "Pooling"
  bottom: "conv5"
  top: "pool5"
  pooling_param {
    pool: MAX
    kernel_size: 3
    stride: 2
  }
}
layer {
  name: "fc6"
  type: "InnerProduct"
  bottom: "pool5"
  top: "fc6"
  inner_product_param {
    num_output: 4096
  }
}
layer {
  name: "relu6"
  type: "ReLU"
  bottom: "fc6"
  top: "fc6"
}
layer {
  name: "drop6"
  type: "Dropout"
  bottom: "fc6"
  top: "fc6"
  dropout_param {
    dropout_ratio: 0.5
  }
}
layer {
  name: "fc7"
  type: "InnerProduct"
  bottom: "fc6"
  top: "fc7"
  inner_product_param {
    num_output: 4096
  }
}
layer {
  name: "relu7"
  type: "ReLU"
  bottom: "fc7"
  top: "fc7"
}
layer {
  name: "drop7"
  type: "Dropout"
  bottom: "fc7"
  top: "fc7"
  dropout_param {
    dropout_ratio: 0.5
  }
}
layer {
  name: "fc8"
  type: "InnerProduct"
  bottom: "fc7"
  top: "fc8"
  inner_product_param {
    num_output: 1000
  }
}
layer {
  name: "prob"
  type: "Softmax"
  bottom: "fc8"
  top: "prob"
}
I0720 13:57:09.563694  4258 layer_factory.hpp:77] Creating layer data
I0720 13:57:09.563704  4258 net.cpp:91] Creating Layer data
I0720 13:57:09.563710  4258 net.cpp:399] data -> data
I0720 13:57:09.563721  4258 net.cpp:141] Setting up data
I0720 13:57:09.563729  4258 net.cpp:148] Top shape: 10 3 227 227 (1545870)
I0720 13:57:09.563733  4258 net.cpp:156] Memory required for data: 6183480
I0720 13:57:09.563737  4258 layer_factory.hpp:77] Creating layer conv1
I0720 13:57:09.563745  4258 net.cpp:91] Creating Layer conv1
I0720 13:57:09.563750  4258 net.cpp:425] conv1 <- data
I0720 13:57:09.563756  4258 net.cpp:399] conv1 -> conv1
I0720 13:57:10.340224  4272 net.cpp:141] Setting up conv1
I0720 13:57:10.340272  4272 net.cpp:148] Top shape: 10 96 55 55 (2904000)
I0720 13:57:10.340278  4272 net.cpp:156] Memory required for data: 17799480
I0720 13:57:10.340317  4272 layer_factory.hpp:77] Creating layer relu1
I0720 13:57:10.340337  4272 net.cpp:91] Creating Layer relu1
I0720 13:57:10.340343  4272 net.cpp:425] relu1 <- conv1
I0720 13:57:10.340350  4272 net.cpp:386] relu1 -> conv1 (in-place)
I0720 13:57:10.344429  4272 net.cpp:141] Setting up relu1
I0720 13:57:10.344451  4272 net.cpp:148] Top shape: 10 96 55 55 (2904000)
I0720 13:57:10.344456  4272 net.cpp:156] Memory required for data: 29415480
I0720 13:57:10.344461  4272 layer_factory.hpp:77] Creating layer pool1
I0720 13:57:10.344475  4272 net.cpp:91] Creating Layer pool1
I0720 13:57:10.344480  4272 net.cpp:425] pool1 <- conv1
I0720 13:57:10.344490  4272 net.cpp:399] pool1 -> pool1
I0720 13:57:10.344537  4272 net.cpp:141] Setting up pool1
I0720 13:57:10.344545  4272 net.cpp:148] Top shape: 10 96 27 27 (699840)
I0720 13:57:10.344549  4272 net.cpp:156] Memory required for data: 32214840
I0720 13:57:10.344553  4272 layer_factory.hpp:77] Creating layer norm1
I0720 13:57:10.344555  4276 net.cpp:141] Setting up conv1
I0720 13:57:10.344573  4272 net.cpp:91] Creating Layer norm1
I0720 13:57:10.344576  4276 net.cpp:148] Top shape: 10 96 55 55 (2904000)
I0720 13:57:10.344578  4272 net.cpp:425] norm1 <- pool1
I0720 13:57:10.344583  4276 net.cpp:156] Memory required for data: 17799480
I0720 13:57:10.344585  4272 net.cpp:399] norm1 -> norm1
I0720 13:57:10.344596  4276 layer_factory.hpp:77] Creating layer relu1
I0720 13:57:10.344607  4276 net.cpp:91] Creating Layer relu1
I0720 13:57:10.344612  4276 net.cpp:425] relu1 <- conv1
I0720 13:57:10.344619  4276 net.cpp:386] relu1 -> conv1 (in-place)
I0720 13:57:10.344627  4254 net.cpp:141] Setting up conv1
I0720 13:57:10.344645  4254 net.cpp:148] Top shape: 10 96 55 55 (2904000)
I0720 13:57:10.344651  4254 net.cpp:156] Memory required for data: 17799480
I0720 13:57:10.344652  4266 net.cpp:141] Setting up conv1
I0720 13:57:10.344666  4266 net.cpp:148] Top shape: 10 96 55 55 (2904000)
I0720 13:57:10.344669  4254 layer_factory.hpp:77] Creating layer relu1
I0720 13:57:10.344671  4266 net.cpp:156] Memory required for data: 17799480
I0720 13:57:10.344684  4254 net.cpp:91] Creating Layer relu1
I0720 13:57:10.344691  4254 net.cpp:425] relu1 <- conv1
I0720 13:57:10.344701  4266 layer_factory.hpp:77] Creating layer relu1
I0720 13:57:10.344707  4254 net.cpp:386] relu1 -> conv1 (in-place)
I0720 13:57:10.344717  4266 net.cpp:91] Creating Layer relu1
I0720 13:57:10.344727  4266 net.cpp:425] relu1 <- conv1
I0720 13:57:10.344734  4266 net.cpp:386] relu1 -> conv1 (in-place)
I0720 13:57:10.344736  4270 net.cpp:141] Setting up conv1
I0720 13:57:10.344751  4270 net.cpp:148] Top shape: 10 96 55 55 (2904000)
I0720 13:57:10.344756  4270 net.cpp:156] Memory required for data: 17799480
I0720 13:57:10.344771  4270 layer_factory.hpp:77] Creating layer relu1
I0720 13:57:10.344779  4270 net.cpp:91] Creating Layer relu1
I0720 13:57:10.344784  4270 net.cpp:425] relu1 <- conv1
I0720 13:57:10.344792  4270 net.cpp:386] relu1 -> conv1 (in-place)
I0720 13:57:10.344790  4258 net.cpp:141] Setting up conv1
I0720 13:57:10.344805  4258 net.cpp:148] Top shape: 10 96 55 55 (2904000)
I0720 13:57:10.344810  4258 net.cpp:156] Memory required for data: 17799480
I0720 13:57:10.344821  4258 layer_factory.hpp:77] Creating layer relu1
I0720 13:57:10.344832  4258 net.cpp:91] Creating Layer relu1
I0720 13:57:10.344837  4258 net.cpp:425] relu1 <- conv1
I0720 13:57:10.344843  4258 net.cpp:386] relu1 -> conv1 (in-place)
I0720 13:57:10.346422  4278 net.cpp:141] Setting up conv1
I0720 13:57:10.346441  4278 net.cpp:148] Top shape: 10 96 55 55 (2904000)
I0720 13:57:10.346448  4278 net.cpp:156] Memory required for data: 17799480
I0720 13:57:10.346472  4278 layer_factory.hpp:77] Creating layer relu1
I0720 13:57:10.346487  4278 net.cpp:91] Creating Layer relu1
I0720 13:57:10.346495  4278 net.cpp:425] relu1 <- conv1
I0720 13:57:10.346506  4278 net.cpp:386] relu1 -> conv1 (in-place)
I0720 13:57:10.348568  4244 net.cpp:141] Setting up conv1
I0720 13:57:10.348597  4244 net.cpp:148] Top shape: 10 96 55 55 (2904000)
I0720 13:57:10.348603  4244 net.cpp:156] Memory required for data: 17799480
I0720 13:57:10.348628  4244 layer_factory.hpp:77] Creating layer relu1
I0720 13:57:10.348642  4244 net.cpp:91] Creating Layer relu1
I0720 13:57:10.348649  4244 net.cpp:425] relu1 <- conv1
I0720 13:57:10.348661  4244 net.cpp:386] relu1 -> conv1 (in-place)
I0720 13:57:10.348706  4260 net.cpp:141] Setting up conv1
I0720 13:57:10.348721  4260 net.cpp:148] Top shape: 10 96 55 55 (2904000)
I0720 13:57:10.348726  4260 net.cpp:156] Memory required for data: 17799480
I0720 13:57:10.348738  4260 layer_factory.hpp:77] Creating layer relu1
I0720 13:57:10.348749  4260 net.cpp:91] Creating Layer relu1
I0720 13:57:10.348753  4260 net.cpp:425] relu1 <- conv1
I0720 13:57:10.348759  4260 net.cpp:386] relu1 -> conv1 (in-place)
I0720 13:57:10.350065  4260 net.cpp:141] Setting up relu1
I0720 13:57:10.350083  4260 net.cpp:148] Top shape: 10 96 55 55 (2904000)
I0720 13:57:10.350088  4260 net.cpp:156] Memory required for data: 29415480
I0720 13:57:10.350093  4260 layer_factory.hpp:77] Creating layer pool1
I0720 13:57:10.350101  4260 net.cpp:91] Creating Layer pool1
I0720 13:57:10.350106  4260 net.cpp:425] pool1 <- conv1
I0720 13:57:10.350118  4260 net.cpp:399] pool1 -> pool1
I0720 13:57:10.350134  4278 net.cpp:141] Setting up relu1
I0720 13:57:10.350137  4260 net.cpp:141] Setting up pool1
I0720 13:57:10.350150  4278 net.cpp:148] Top shape: 10 96 55 55 (2904000)
I0720 13:57:10.350154  4260 net.cpp:148] Top shape: 10 96 27 27 (699840)
I0720 13:57:10.350157  4278 net.cpp:156] Memory required for data: 29415480
I0720 13:57:10.350158  4260 net.cpp:156] Memory required for data: 32214840
I0720 13:57:10.350162  4278 layer_factory.hpp:77] Creating layer pool1
I0720 13:57:10.350163  4260 layer_factory.hpp:77] Creating layer norm1
I0720 13:57:10.350169  4278 net.cpp:91] Creating Layer pool1
I0720 13:57:10.350175  4260 net.cpp:91] Creating Layer norm1
I0720 13:57:10.350177  4278 net.cpp:425] pool1 <- conv1
I0720 13:57:10.350180  4260 net.cpp:425] norm1 <- pool1
I0720 13:57:10.350178  4264 net.cpp:141] Setting up conv1
I0720 13:57:10.350186  4260 net.cpp:399] norm1 -> norm1
I0720 13:57:10.350190  4278 net.cpp:399] pool1 -> pool1
I0720 13:57:10.350194  4264 net.cpp:148] Top shape: 10 96 55 55 (2904000)
I0720 13:57:10.350200  4264 net.cpp:156] Memory required for data: 17799480
I0720 13:57:10.350210  4278 net.cpp:141] Setting up pool1
I0720 13:57:10.350214  4264 layer_factory.hpp:77] Creating layer relu1
I0720 13:57:10.350220  4278 net.cpp:148] Top shape: 10 96 27 27 (699840)
I0720 13:57:10.350224  4278 net.cpp:156] Memory required for data: 32214840
I0720 13:57:10.350222  4264 net.cpp:91] Creating Layer relu1
I0720 13:57:10.350229  4278 layer_factory.hpp:77] Creating layer norm1
I0720 13:57:10.350230  4264 net.cpp:425] relu1 <- conv1
I0720 13:57:10.350236  4264 net.cpp:386] relu1 -> conv1 (in-place)
I0720 13:57:10.350239  4278 net.cpp:91] Creating Layer norm1
I0720 13:57:10.350244  4278 net.cpp:425] norm1 <- pool1
I0720 13:57:10.350250  4278 net.cpp:399] norm1 -> norm1
I0720 13:57:10.351179  4276 net.cpp:141] Setting up relu1
I0720 13:57:10.351197  4276 net.cpp:148] Top shape: 10 96 55 55 (2904000)
I0720 13:57:10.351202  4276 net.cpp:156] Memory required for data: 29415480
I0720 13:57:10.351207  4276 layer_factory.hpp:77] Creating layer pool1
I0720 13:57:10.351217  4276 net.cpp:91] Creating Layer pool1
I0720 13:57:10.351220  4276 net.cpp:425] pool1 <- conv1
I0720 13:57:10.351228  4276 net.cpp:399] pool1 -> pool1
I0720 13:57:10.351240  4276 net.cpp:141] Setting up pool1
I0720 13:57:10.351248  4276 net.cpp:148] Top shape: 10 96 27 27 (699840)
I0720 13:57:10.351251  4276 net.cpp:156] Memory required for data: 32214840
I0720 13:57:10.351255  4276 layer_factory.hpp:77] Creating layer norm1
I0720 13:57:10.351264  4276 net.cpp:91] Creating Layer norm1
I0720 13:57:10.351269  4276 net.cpp:425] norm1 <- pool1
I0720 13:57:10.351280  4276 net.cpp:399] norm1 -> norm1
I0720 13:57:10.351950  4266 net.cpp:141] Setting up relu1
I0720 13:57:10.351965  4266 net.cpp:148] Top shape: 10 96 55 55 (2904000)
I0720 13:57:10.351974  4266 net.cpp:156] Memory required for data: 29415480
I0720 13:57:10.351979  4266 layer_factory.hpp:77] Creating layer pool1
I0720 13:57:10.351982  4254 net.cpp:141] Setting up relu1
I0720 13:57:10.351990  4266 net.cpp:91] Creating Layer pool1
I0720 13:57:10.352001  4266 net.cpp:425] pool1 <- conv1
I0720 13:57:10.352001  4254 net.cpp:148] Top shape: 10 96 55 55 (2904000)
I0720 13:57:10.352007  4254 net.cpp:156] Memory required for data: 29415480
I0720 13:57:10.352012  4254 layer_factory.hpp:77] Creating layer pool1
I0720 13:57:10.352012  4266 net.cpp:399] pool1 -> pool1
I0720 13:57:10.352023  4254 net.cpp:91] Creating Layer pool1
I0720 13:57:10.352028  4254 net.cpp:425] pool1 <- conv1
I0720 13:57:10.352028  4266 net.cpp:141] Setting up pool1
I0720 13:57:10.352035  4254 net.cpp:399] pool1 -> pool1
I0720 13:57:10.352036  4266 net.cpp:148] Top shape: 10 96 27 27 (699840)
I0720 13:57:10.352041  4266 net.cpp:156] Memory required for data: 32214840
I0720 13:57:10.352046  4266 layer_factory.hpp:77] Creating layer norm1
I0720 13:57:10.352051  4254 net.cpp:141] Setting up pool1
I0720 13:57:10.352056  4266 net.cpp:91] Creating Layer norm1
I0720 13:57:10.352058  4254 net.cpp:148] Top shape: 10 96 27 27 (699840)
I0720 13:57:10.352062  4266 net.cpp:425] norm1 <- pool1
I0720 13:57:10.352062  4254 net.cpp:156] Memory required for data: 32214840
I0720 13:57:10.352067  4254 layer_factory.hpp:77] Creating layer norm1
I0720 13:57:10.352068  4266 net.cpp:399] norm1 -> norm1
I0720 13:57:10.352075  4254 net.cpp:91] Creating Layer norm1
I0720 13:57:10.352079  4254 net.cpp:425] norm1 <- pool1
I0720 13:57:10.352087  4254 net.cpp:399] norm1 -> norm1
I0720 13:57:10.352164  4270 net.cpp:141] Setting up relu1
I0720 13:57:10.352176  4270 net.cpp:148] Top shape: 10 96 55 55 (2904000)
I0720 13:57:10.352180  4270 net.cpp:156] Memory required for data: 29415480
I0720 13:57:10.352185  4270 layer_factory.hpp:77] Creating layer pool1
I0720 13:57:10.352195  4270 net.cpp:91] Creating Layer pool1
I0720 13:57:10.352200  4270 net.cpp:425] pool1 <- conv1
I0720 13:57:10.352205  4270 net.cpp:399] pool1 -> pool1
I0720 13:57:10.352221  4270 net.cpp:141] Setting up pool1
I0720 13:57:10.352231  4270 net.cpp:148] Top shape: 10 96 27 27 (699840)
I0720 13:57:10.352236  4270 net.cpp:156] Memory required for data: 32214840
I0720 13:57:10.352239  4270 layer_factory.hpp:77] Creating layer norm1
I0720 13:57:10.352246  4270 net.cpp:91] Creating Layer norm1
I0720 13:57:10.352252  4270 net.cpp:425] norm1 <- pool1
I0720 13:57:10.352246  4244 net.cpp:141] Setting up relu1
I0720 13:57:10.352263  4270 net.cpp:399] norm1 -> norm1
I0720 13:57:10.352270  4244 net.cpp:148] Top shape: 10 96 55 55 (2904000)
I0720 13:57:10.352277  4244 net.cpp:156] Memory required for data: 29415480
I0720 13:57:10.352284  4244 layer_factory.hpp:77] Creating layer pool1
I0720 13:57:10.352296  4244 net.cpp:91] Creating Layer pool1
I0720 13:57:10.352303  4244 net.cpp:425] pool1 <- conv1
I0720 13:57:10.352316  4244 net.cpp:399] pool1 -> pool1
I0720 13:57:10.352334  4244 net.cpp:141] Setting up pool1
I0720 13:57:10.352344  4244 net.cpp:148] Top shape: 10 96 27 27 (699840)
I0720 13:57:10.352350  4244 net.cpp:156] Memory required for data: 32214840
I0720 13:57:10.352356  4244 layer_factory.hpp:77] Creating layer norm1
I0720 13:57:10.352370  4244 net.cpp:91] Creating Layer norm1
I0720 13:57:10.352377  4244 net.cpp:425] norm1 <- pool1
I0720 13:57:10.352386  4244 net.cpp:399] norm1 -> norm1
I0720 13:57:10.354032  4272 net.cpp:141] Setting up norm1
I0720 13:57:10.354058  4272 net.cpp:148] Top shape: 10 96 27 27 (699840)
I0720 13:57:10.354068  4272 net.cpp:156] Memory required for data: 35014200
I0720 13:57:10.354077  4272 layer_factory.hpp:77] Creating layer conv2
I0720 13:57:10.354106  4272 net.cpp:91] Creating Layer conv2
I0720 13:57:10.354118  4272 net.cpp:425] conv2 <- norm1
I0720 13:57:10.354132  4272 net.cpp:399] conv2 -> conv2
I0720 13:57:10.354300  4278 net.cpp:141] Setting up norm1
I0720 13:57:10.354313  4278 net.cpp:148] Top shape: 10 96 27 27 (699840)
I0720 13:57:10.354310  4258 net.cpp:141] Setting up relu1
I0720 13:57:10.354320  4278 net.cpp:156] Memory required for data: 35014200
I0720 13:57:10.354324  4278 layer_factory.hpp:77] Creating layer conv2
I0720 13:57:10.354328  4258 net.cpp:148] Top shape: 10 96 55 55 (2904000)
I0720 13:57:10.354333  4258 net.cpp:156] Memory required for data: 29415480
I0720 13:57:10.354338  4258 layer_factory.hpp:77] Creating layer pool1
I0720 13:57:10.354341  4278 net.cpp:91] Creating Layer conv2
I0720 13:57:10.354346  4258 net.cpp:91] Creating Layer pool1
I0720 13:57:10.354351  4278 net.cpp:425] conv2 <- norm1
I0720 13:57:10.354362  4278 net.cpp:399] conv2 -> conv2
I0720 13:57:10.354351  4258 net.cpp:425] pool1 <- conv1
I0720 13:57:10.354454  4258 net.cpp:399] pool1 -> pool1
I0720 13:57:10.354470  4258 net.cpp:141] Setting up pool1
I0720 13:57:10.354476  4258 net.cpp:148] Top shape: 10 96 27 27 (699840)
I0720 13:57:10.354481  4258 net.cpp:156] Memory required for data: 32214840
I0720 13:57:10.354490  4258 layer_factory.hpp:77] Creating layer norm1
I0720 13:57:10.354496  4254 net.cpp:141] Setting up norm1
I0720 13:57:10.354512  4254 net.cpp:148] Top shape: 10 96 27 27 (699840)
I0720 13:57:10.354521  4254 net.cpp:156] Memory required for data: 35014200
I0720 13:57:10.354523  4258 net.cpp:91] Creating Layer norm1
I0720 13:57:10.354529  4254 layer_factory.hpp:77] Creating layer conv2
I0720 13:57:10.354540  4258 net.cpp:425] norm1 <- pool1
I0720 13:57:10.354549  4258 net.cpp:399] norm1 -> norm1
I0720 13:57:10.354559  4254 net.cpp:91] Creating Layer conv2
I0720 13:57:10.354568  4254 net.cpp:425] conv2 <- norm1
I0720 13:57:10.354570  4266 net.cpp:141] Setting up norm1
I0720 13:57:10.354580  4254 net.cpp:399] conv2 -> conv2
I0720 13:57:10.354588  4266 net.cpp:148] Top shape: 10 96 27 27 (699840)
I0720 13:57:10.354596  4266 net.cpp:156] Memory required for data: 35014200
I0720 13:57:10.354604  4266 layer_factory.hpp:77] Creating layer conv2
I0720 13:57:10.354616  4266 net.cpp:91] Creating Layer conv2
I0720 13:57:10.354621  4266 net.cpp:425] conv2 <- norm1
I0720 13:57:10.354630  4266 net.cpp:399] conv2 -> conv2
I0720 13:57:10.356554  4270 net.cpp:141] Setting up norm1
I0720 13:57:10.356580  4264 net.cpp:141] Setting up relu1
I0720 13:57:10.356585  4270 net.cpp:148] Top shape: 10 96 27 27 (699840)
I0720 13:57:10.356595  4264 net.cpp:148] Top shape: 10 96 55 55 (2904000)
I0720 13:57:10.356595  4270 net.cpp:156] Memory required for data: 35014200
I0720 13:57:10.356600  4264 net.cpp:156] Memory required for data: 29415480
I0720 13:57:10.356606  4264 layer_factory.hpp:77] Creating layer pool1
I0720 13:57:10.356606  4270 layer_factory.hpp:77] Creating layer conv2
I0720 13:57:10.356618  4264 net.cpp:91] Creating Layer pool1
I0720 13:57:10.356623  4264 net.cpp:425] pool1 <- conv1
I0720 13:57:10.356623  4270 net.cpp:91] Creating Layer conv2
I0720 13:57:10.356629  4270 net.cpp:425] conv2 <- norm1
I0720 13:57:10.356631  4264 net.cpp:399] pool1 -> pool1
I0720 13:57:10.356637  4270 net.cpp:399] conv2 -> conv2
I0720 13:57:10.356647  4264 net.cpp:141] Setting up pool1
I0720 13:57:10.356653  4264 net.cpp:148] Top shape: 10 96 27 27 (699840)
I0720 13:57:10.356657  4264 net.cpp:156] Memory required for data: 32214840
I0720 13:57:10.356662  4264 layer_factory.hpp:77] Creating layer norm1
I0720 13:57:10.356673  4264 net.cpp:91] Creating Layer norm1
I0720 13:57:10.356676  4264 net.cpp:425] norm1 <- pool1
I0720 13:57:10.356686  4264 net.cpp:399] norm1 -> norm1
I0720 13:57:10.358717  4260 net.cpp:141] Setting up norm1
I0720 13:57:10.358741  4260 net.cpp:148] Top shape: 10 96 27 27 (699840)
I0720 13:57:10.358752  4260 net.cpp:156] Memory required for data: 35014200
I0720 13:57:10.358762  4260 layer_factory.hpp:77] Creating layer conv2
I0720 13:57:10.358783  4260 net.cpp:91] Creating Layer conv2
I0720 13:57:10.358793  4260 net.cpp:425] conv2 <- norm1
I0720 13:57:10.358809  4260 net.cpp:399] conv2 -> conv2
I0720 13:57:10.359027  4244 net.cpp:141] Setting up norm1
I0720 13:57:10.359045  4244 net.cpp:148] Top shape: 10 96 27 27 (699840)
I0720 13:57:10.359052  4244 net.cpp:156] Memory required for data: 35014200
I0720 13:57:10.359060  4244 layer_factory.hpp:77] Creating layer conv2
I0720 13:57:10.359086  4244 net.cpp:91] Creating Layer conv2
I0720 13:57:10.359096  4244 net.cpp:425] conv2 <- norm1
I0720 13:57:10.359109  4244 net.cpp:399] conv2 -> conv2
I0720 13:57:10.359203  4258 net.cpp:141] Setting up norm1
I0720 13:57:10.359220  4258 net.cpp:148] Top shape: 10 96 27 27 (699840)
I0720 13:57:10.359225  4258 net.cpp:156] Memory required for data: 35014200
I0720 13:57:10.359230  4258 layer_factory.hpp:77] Creating layer conv2
I0720 13:57:10.359239  4258 net.cpp:91] Creating Layer conv2
I0720 13:57:10.359244  4258 net.cpp:425] conv2 <- norm1
I0720 13:57:10.359262  4258 net.cpp:399] conv2 -> conv2
I0720 13:57:10.359444  4264 net.cpp:141] Setting up norm1
I0720 13:57:10.359467  4264 net.cpp:148] Top shape: 10 96 27 27 (699840)
I0720 13:57:10.359473  4264 net.cpp:156] Memory required for data: 35014200
I0720 13:57:10.359478  4264 layer_factory.hpp:77] Creating layer conv2
I0720 13:57:10.359488  4264 net.cpp:91] Creating Layer conv2
I0720 13:57:10.359494  4264 net.cpp:425] conv2 <- norm1
I0720 13:57:10.359511  4264 net.cpp:399] conv2 -> conv2
I0720 13:57:10.362586  4276 net.cpp:141] Setting up norm1
I0720 13:57:10.362607  4276 net.cpp:148] Top shape: 10 96 27 27 (699840)
I0720 13:57:10.362612  4276 net.cpp:156] Memory required for data: 35014200
I0720 13:57:10.362617  4276 layer_factory.hpp:77] Creating layer conv2
I0720 13:57:10.362637  4276 net.cpp:91] Creating Layer conv2
I0720 13:57:10.362643  4276 net.cpp:425] conv2 <- norm1
I0720 13:57:10.362651  4276 net.cpp:399] conv2 -> conv2
I0720 13:57:10.385663  4266 net.cpp:141] Setting up conv2
I0720 13:57:10.385701  4266 net.cpp:148] Top shape: 10 256 27 27 (1866240)
I0720 13:57:10.385710  4266 net.cpp:156] Memory required for data: 42479160
I0720 13:57:10.385728  4266 layer_factory.hpp:77] Creating layer relu2
I0720 13:57:10.385745  4266 net.cpp:91] Creating Layer relu2
I0720 13:57:10.385751  4266 net.cpp:425] relu2 <- conv2
I0720 13:57:10.385761  4266 net.cpp:386] relu2 -> conv2 (in-place)
I0720 13:57:10.388891  4270 net.cpp:141] Setting up conv2
I0720 13:57:10.388917  4270 net.cpp:148] Top shape: 10 256 27 27 (1866240)
I0720 13:57:10.388923  4270 net.cpp:156] Memory required for data: 42479160
I0720 13:57:10.388937  4270 layer_factory.hpp:77] Creating layer relu2
I0720 13:57:10.388945  4270 net.cpp:91] Creating Layer relu2
I0720 13:57:10.388952  4270 net.cpp:425] relu2 <- conv2
I0720 13:57:10.388957  4270 net.cpp:386] relu2 -> conv2 (in-place)
I0720 13:57:10.390171  4260 net.cpp:141] Setting up conv2
I0720 13:57:10.390190  4260 net.cpp:148] Top shape: 10 256 27 27 (1866240)
I0720 13:57:10.390195  4260 net.cpp:156] Memory required for data: 42479160
I0720 13:57:10.390208  4270 net.cpp:141] Setting up relu2
I0720 13:57:10.390213  4260 layer_factory.hpp:77] Creating layer relu2
I0720 13:57:10.390224  4270 net.cpp:148] Top shape: 10 256 27 27 (1866240)
I0720 13:57:10.390229  4270 net.cpp:156] Memory required for data: 49944120
I0720 13:57:10.390230  4260 net.cpp:91] Creating Layer relu2
I0720 13:57:10.390234  4270 layer_factory.hpp:77] Creating layer pool2
I0720 13:57:10.390235  4260 net.cpp:425] relu2 <- conv2
I0720 13:57:10.390245  4260 net.cpp:386] relu2 -> conv2 (in-place)
I0720 13:57:10.390246  4270 net.cpp:91] Creating Layer pool2
I0720 13:57:10.390251  4270 net.cpp:425] pool2 <- conv2
I0720 13:57:10.390259  4270 net.cpp:399] pool2 -> pool2
I0720 13:57:10.390272  4270 net.cpp:141] Setting up pool2
I0720 13:57:10.390287  4270 net.cpp:148] Top shape: 10 256 13 13 (432640)
I0720 13:57:10.390291  4270 net.cpp:156] Memory required for data: 51674680
I0720 13:57:10.390295  4270 layer_factory.hpp:77] Creating layer norm2
I0720 13:57:10.390310  4270 net.cpp:91] Creating Layer norm2
I0720 13:57:10.390313  4270 net.cpp:425] norm2 <- pool2
I0720 13:57:10.390321  4270 net.cpp:399] norm2 -> norm2
I0720 13:57:10.393080  4272 net.cpp:141] Setting up conv2
I0720 13:57:10.393103  4272 net.cpp:148] Top shape: 10 256 27 27 (1866240)
I0720 13:57:10.393108  4272 net.cpp:156] Memory required for data: 42479160
I0720 13:57:10.393127  4272 layer_factory.hpp:77] Creating layer relu2
I0720 13:57:10.393137  4272 net.cpp:91] Creating Layer relu2
I0720 13:57:10.393142  4272 net.cpp:425] relu2 <- conv2
I0720 13:57:10.393149  4272 net.cpp:386] relu2 -> conv2 (in-place)
I0720 13:57:10.396539  4270 net.cpp:141] Setting up norm2
I0720 13:57:10.396543  4260 net.cpp:141] Setting up relu2
I0720 13:57:10.396569  4270 net.cpp:148] Top shape: 10 256 13 13 (432640)
I0720 13:57:10.396572  4266 net.cpp:141] Setting up relu2
I0720 13:57:10.396575  4270 net.cpp:156] Memory required for data: 53405240
I0720 13:57:10.396589  4266 net.cpp:148] Top shape: 10 256 27 27 (1866240)
I0720 13:57:10.396574  4260 net.cpp:148] Top shape: 10 256 27 27 (1866240)
I0720 13:57:10.396594  4270 layer_factory.hpp:77] Creating layer conv3
I0720 13:57:10.396595  4266 net.cpp:156] Memory required for data: 49944120
I0720 13:57:10.396607  4260 net.cpp:156] Memory required for data: 49944120
I0720 13:57:10.396613  4266 layer_factory.hpp:77] Creating layer pool2
I0720 13:57:10.396620  4270 net.cpp:91] Creating Layer conv3
I0720 13:57:10.396625  4266 net.cpp:91] Creating Layer pool2
I0720 13:57:10.396620  4260 layer_factory.hpp:77] Creating layer pool2
I0720 13:57:10.396631  4266 net.cpp:425] pool2 <- conv2
I0720 13:57:10.396647  4266 net.cpp:399] pool2 -> pool2
I0720 13:57:10.396651  4260 net.cpp:91] Creating Layer pool2
I0720 13:57:10.396661  4260 net.cpp:425] pool2 <- conv2
I0720 13:57:10.396661  4266 net.cpp:141] Setting up pool2
I0720 13:57:10.396669  4266 net.cpp:148] Top shape: 10 256 13 13 (432640)
I0720 13:57:10.396669  4260 net.cpp:399] pool2 -> pool2
I0720 13:57:10.396677  4266 net.cpp:156] Memory required for data: 51674680
I0720 13:57:10.396688  4266 layer_factory.hpp:77] Creating layer norm2
I0720 13:57:10.396690  4260 net.cpp:141] Setting up pool2
I0720 13:57:10.396713  4260 net.cpp:148] Top shape: 10 256 13 13 (432640)
I0720 13:57:10.396718  4260 net.cpp:156] Memory required for data: 51674680
I0720 13:57:10.396719  4266 net.cpp:91] Creating Layer norm2
I0720 13:57:10.396723  4260 layer_factory.hpp:77] Creating layer norm2
I0720 13:57:10.396726  4266 net.cpp:425] norm2 <- pool2
I0720 13:57:10.396631  4270 net.cpp:425] conv3 <- norm2
I0720 13:57:10.396736  4266 net.cpp:399] norm2 -> norm2
I0720 13:57:10.396739  4260 net.cpp:91] Creating Layer norm2
I0720 13:57:10.396745  4270 net.cpp:399] conv3 -> conv3
I0720 13:57:10.396749  4260 net.cpp:425] norm2 <- pool2
I0720 13:57:10.396775  4260 net.cpp:399] norm2 -> norm2
I0720 13:57:10.398710  4278 net.cpp:141] Setting up conv2
I0720 13:57:10.398731  4278 net.cpp:148] Top shape: 10 256 27 27 (1866240)
I0720 13:57:10.398736  4278 net.cpp:156] Memory required for data: 42479160
I0720 13:57:10.398751  4278 layer_factory.hpp:77] Creating layer relu2
I0720 13:57:10.398759  4278 net.cpp:91] Creating Layer relu2
I0720 13:57:10.398764  4278 net.cpp:425] relu2 <- conv2
I0720 13:57:10.398771  4278 net.cpp:386] relu2 -> conv2 (in-place)
I0720 13:57:10.400797  4272 net.cpp:141] Setting up relu2
I0720 13:57:10.400817  4272 net.cpp:148] Top shape: 10 256 27 27 (1866240)
I0720 13:57:10.400827  4272 net.cpp:156] Memory required for data: 49944120
I0720 13:57:10.400833  4272 layer_factory.hpp:77] Creating layer pool2
I0720 13:57:10.400843  4272 net.cpp:91] Creating Layer pool2
I0720 13:57:10.400848  4272 net.cpp:425] pool2 <- conv2
I0720 13:57:10.400846  4254 net.cpp:141] Setting up conv2
I0720 13:57:10.400856  4272 net.cpp:399] pool2 -> pool2
I0720 13:57:10.400866  4254 net.cpp:148] Top shape: 10 256 27 27 (1866240)
I0720 13:57:10.400868  4272 net.cpp:141] Setting up pool2
I0720 13:57:10.400879  4254 net.cpp:156] Memory required for data: 42479160
I0720 13:57:10.400883  4272 net.cpp:148] Top shape: 10 256 13 13 (432640)
I0720 13:57:10.400887  4272 net.cpp:156] Memory required for data: 51674680
I0720 13:57:10.400892  4272 layer_factory.hpp:77] Creating layer norm2
I0720 13:57:10.400907  4254 layer_factory.hpp:77] Creating layer relu2
I0720 13:57:10.400913  4272 net.cpp:91] Creating Layer norm2
I0720 13:57:10.400923  4272 net.cpp:425] norm2 <- pool2
I0720 13:57:10.400924  4254 net.cpp:91] Creating Layer relu2
I0720 13:57:10.400944  4254 net.cpp:425] relu2 <- conv2
I0720 13:57:10.400944  4272 net.cpp:399] norm2 -> norm2
I0720 13:57:10.400964  4254 net.cpp:386] relu2 -> conv2 (in-place)
I0720 13:57:10.402227  4266 net.cpp:141] Setting up norm2
I0720 13:57:10.402252  4266 net.cpp:148] Top shape: 10 256 13 13 (432640)
I0720 13:57:10.402262  4266 net.cpp:156] Memory required for data: 53405240
I0720 13:57:10.402268  4266 layer_factory.hpp:77] Creating layer conv3
I0720 13:57:10.402283  4266 net.cpp:91] Creating Layer conv3
I0720 13:57:10.402289  4266 net.cpp:425] conv3 <- norm2
I0720 13:57:10.402297  4266 net.cpp:399] conv3 -> conv3
I0720 13:57:10.403234  4258 net.cpp:141] Setting up conv2
I0720 13:57:10.403259  4258 net.cpp:148] Top shape: 10 256 27 27 (1866240)
I0720 13:57:10.403270  4258 net.cpp:156] Memory required for data: 42479160
I0720 13:57:10.403292  4258 layer_factory.hpp:77] Creating layer relu2
I0720 13:57:10.403308  4258 net.cpp:91] Creating Layer relu2
I0720 13:57:10.403319  4258 net.cpp:425] relu2 <- conv2
I0720 13:57:10.403343  4258 net.cpp:386] relu2 -> conv2 (in-place)
I0720 13:57:10.403655  4260 net.cpp:141] Setting up norm2
I0720 13:57:10.403674  4260 net.cpp:148] Top shape: 10 256 13 13 (432640)
I0720 13:57:10.403683  4260 net.cpp:156] Memory required for data: 53405240
I0720 13:57:10.403693  4260 layer_factory.hpp:77] Creating layer conv3
I0720 13:57:10.403717  4260 net.cpp:91] Creating Layer conv3
I0720 13:57:10.403728  4260 net.cpp:425] conv3 <- norm2
I0720 13:57:10.403741  4260 net.cpp:399] conv3 -> conv3
I0720 13:57:10.405823  4276 net.cpp:141] Setting up conv2
I0720 13:57:10.405860  4276 net.cpp:148] Top shape: 10 256 27 27 (1866240)
I0720 13:57:10.405869  4276 net.cpp:156] Memory required for data: 42479160
I0720 13:57:10.405892  4276 layer_factory.hpp:77] Creating layer relu2
I0720 13:57:10.405911  4276 net.cpp:91] Creating Layer relu2
I0720 13:57:10.405920  4276 net.cpp:425] relu2 <- conv2
I0720 13:57:10.405928  4276 net.cpp:386] relu2 -> conv2 (in-place)
I0720 13:57:10.408478  4264 net.cpp:141] Setting up conv2
I0720 13:57:10.408507  4264 net.cpp:148] Top shape: 10 256 27 27 (1866240)
I0720 13:57:10.408517  4264 net.cpp:156] Memory required for data: 42479160
I0720 13:57:10.408541  4264 layer_factory.hpp:77] Creating layer relu2
I0720 13:57:10.408558  4264 net.cpp:91] Creating Layer relu2
I0720 13:57:10.408568  4264 net.cpp:425] relu2 <- conv2
I0720 13:57:10.408586  4264 net.cpp:386] relu2 -> conv2 (in-place)
I0720 13:57:10.409596  4272 net.cpp:141] Setting up norm2
I0720 13:57:10.409618  4272 net.cpp:148] Top shape: 10 256 13 13 (432640)
I0720 13:57:10.409627  4272 net.cpp:156] Memory required for data: 53405240
I0720 13:57:10.409637  4272 layer_factory.hpp:77] Creating layer conv3
I0720 13:57:10.409663  4272 net.cpp:91] Creating Layer conv3
I0720 13:57:10.409675  4272 net.cpp:425] conv3 <- norm2
I0720 13:57:10.409690  4272 net.cpp:399] conv3 -> conv3
I0720 13:57:10.411370  4278 net.cpp:141] Setting up relu2
I0720 13:57:10.411406  4278 net.cpp:148] Top shape: 10 256 27 27 (1866240)
I0720 13:57:10.411415  4278 net.cpp:156] Memory required for data: 49944120
I0720 13:57:10.411427  4278 layer_factory.hpp:77] Creating layer pool2
I0720 13:57:10.411445  4278 net.cpp:91] Creating Layer pool2
I0720 13:57:10.411455  4278 net.cpp:425] pool2 <- conv2
I0720 13:57:10.411470  4278 net.cpp:399] pool2 -> pool2
I0720 13:57:10.411478  4276 net.cpp:141] Setting up relu2
I0720 13:57:10.411491  4276 net.cpp:148] Top shape: 10 256 27 27 (1866240)
I0720 13:57:10.411492  4278 net.cpp:141] Setting up pool2
I0720 13:57:10.411496  4276 net.cpp:156] Memory required for data: 49944120
I0720 13:57:10.411502  4276 layer_factory.hpp:77] Creating layer pool2
I0720 13:57:10.411504  4278 net.cpp:148] Top shape: 10 256 13 13 (432640)
I0720 13:57:10.411511  4278 net.cpp:156] Memory required for data: 51674680
I0720 13:57:10.411512  4276 net.cpp:91] Creating Layer pool2
I0720 13:57:10.411520  4278 layer_factory.hpp:77] Creating layer norm2
I0720 13:57:10.411522  4276 net.cpp:425] pool2 <- conv2
I0720 13:57:10.411538  4278 net.cpp:91] Creating Layer norm2
I0720 13:57:10.411542  4276 net.cpp:399] pool2 -> pool2
I0720 13:57:10.411535  4254 net.cpp:141] Setting up relu2
I0720 13:57:10.411557  4276 net.cpp:141] Setting up pool2
I0720 13:57:10.411550  4278 net.cpp:425] norm2 <- pool2
I0720 13:57:10.411564  4276 net.cpp:148] Top shape: 10 256 13 13 (432640)
I0720 13:57:10.411568  4276 net.cpp:156] Memory required for data: 51674680
I0720 13:57:10.411571  4254 net.cpp:148] Top shape: 10 256 27 27 (1866240)
I0720 13:57:10.411573  4278 net.cpp:399] norm2 -> norm2
I0720 13:57:10.411573  4276 layer_factory.hpp:77] Creating layer norm2
I0720 13:57:10.411582  4254 net.cpp:156] Memory required for data: 49944120
I0720 13:57:10.411592  4276 net.cpp:91] Creating Layer norm2
I0720 13:57:10.411592  4254 layer_factory.hpp:77] Creating layer pool2
I0720 13:57:10.411597  4276 net.cpp:425] norm2 <- pool2
I0720 13:57:10.411597  4264 net.cpp:141] Setting up relu2
I0720 13:57:10.411613  4276 net.cpp:399] norm2 -> norm2
I0720 13:57:10.411610  4254 net.cpp:91] Creating Layer pool2
I0720 13:57:10.411623  4254 net.cpp:425] pool2 <- conv2
I0720 13:57:10.411623  4264 net.cpp:148] Top shape: 10 256 27 27 (1866240)
I0720 13:57:10.411638  4254 net.cpp:399] pool2 -> pool2
I0720 13:57:10.411638  4264 net.cpp:156] Memory required for data: 49944120
I0720 13:57:10.411653  4264 layer_factory.hpp:77] Creating layer pool2
I0720 13:57:10.411659  4254 net.cpp:141] Setting up pool2
I0720 13:57:10.411671  4254 net.cpp:148] Top shape: 10 256 13 13 (432640)
I0720 13:57:10.411672  4264 net.cpp:91] Creating Layer pool2
I0720 13:57:10.411679  4254 net.cpp:156] Memory required for data: 51674680
I0720 13:57:10.411680  4264 net.cpp:425] pool2 <- conv2
I0720 13:57:10.411686  4254 layer_factory.hpp:77] Creating layer norm2
I0720 13:57:10.411691  4264 net.cpp:399] pool2 -> pool2
I0720 13:57:10.411705  4254 net.cpp:91] Creating Layer norm2
I0720 13:57:10.411707  4264 net.cpp:141] Setting up pool2
I0720 13:57:10.411715  4254 net.cpp:425] norm2 <- pool2
I0720 13:57:10.411718  4264 net.cpp:148] Top shape: 10 256 13 13 (432640)
I0720 13:57:10.411725  4254 net.cpp:399] norm2 -> norm2
I0720 13:57:10.411725  4264 net.cpp:156] Memory required for data: 51674680
I0720 13:57:10.411741  4264 layer_factory.hpp:77] Creating layer norm2
I0720 13:57:10.411759  4264 net.cpp:91] Creating Layer norm2
I0720 13:57:10.411766  4264 net.cpp:425] norm2 <- pool2
I0720 13:57:10.411774  4264 net.cpp:399] norm2 -> norm2
I0720 13:57:10.416259  4258 net.cpp:141] Setting up relu2
I0720 13:57:10.416285  4258 net.cpp:148] Top shape: 10 256 27 27 (1866240)
I0720 13:57:10.416290  4258 net.cpp:156] Memory required for data: 49944120
I0720 13:57:10.416296  4258 layer_factory.hpp:77] Creating layer pool2
I0720 13:57:10.416311  4258 net.cpp:91] Creating Layer pool2
I0720 13:57:10.416316  4258 net.cpp:425] pool2 <- conv2
I0720 13:57:10.416323  4258 net.cpp:399] pool2 -> pool2
I0720 13:57:10.416337  4258 net.cpp:141] Setting up pool2
I0720 13:57:10.416342  4258 net.cpp:148] Top shape: 10 256 13 13 (432640)
I0720 13:57:10.416347  4258 net.cpp:156] Memory required for data: 51674680
I0720 13:57:10.416350  4258 layer_factory.hpp:77] Creating layer norm2
I0720 13:57:10.416364  4258 net.cpp:91] Creating Layer norm2
I0720 13:57:10.416368  4258 net.cpp:425] norm2 <- pool2
I0720 13:57:10.416378  4258 net.cpp:399] norm2 -> norm2
I0720 13:57:10.416707  4258 net.cpp:141] Setting up norm2
I0720 13:57:10.416720  4258 net.cpp:148] Top shape: 10 256 13 13 (432640)
I0720 13:57:10.416725  4258 net.cpp:156] Memory required for data: 53405240
I0720 13:57:10.416730  4258 layer_factory.hpp:77] Creating layer conv3
I0720 13:57:10.416745  4258 net.cpp:91] Creating Layer conv3
I0720 13:57:10.416750  4258 net.cpp:425] conv3 <- norm2
I0720 13:57:10.416759  4258 net.cpp:399] conv3 -> conv3
I0720 13:57:10.416847  4244 net.cpp:141] Setting up conv2
I0720 13:57:10.416868  4244 net.cpp:148] Top shape: 10 256 27 27 (1866240)
I0720 13:57:10.416877  4244 net.cpp:156] Memory required for data: 42479160
I0720 13:57:10.416899  4244 layer_factory.hpp:77] Creating layer relu2
I0720 13:57:10.416913  4244 net.cpp:91] Creating Layer relu2
I0720 13:57:10.416921  4244 net.cpp:425] relu2 <- conv2
I0720 13:57:10.416947  4244 net.cpp:386] relu2 -> conv2 (in-place)
I0720 13:57:10.420670  4264 net.cpp:141] Setting up norm2
I0720 13:57:10.420696  4278 net.cpp:141] Setting up norm2
I0720 13:57:10.420702  4264 net.cpp:148] Top shape: 10 256 13 13 (432640)
I0720 13:57:10.420719  4264 net.cpp:156] Memory required for data: 53405240
I0720 13:57:10.420722  4278 net.cpp:148] Top shape: 10 256 13 13 (432640)
I0720 13:57:10.420729  4264 layer_factory.hpp:77] Creating layer conv3
I0720 13:57:10.420730  4254 net.cpp:141] Setting up norm2
I0720 13:57:10.420734  4278 net.cpp:156] Memory required for data: 53405240
I0720 13:57:10.420752  4254 net.cpp:148] Top shape: 10 256 13 13 (432640)
I0720 13:57:10.420753  4278 layer_factory.hpp:77] Creating layer conv3
I0720 13:57:10.420753  4264 net.cpp:91] Creating Layer conv3
I0720 13:57:10.420763  4254 net.cpp:156] Memory required for data: 53405240
I0720 13:57:10.420769  4264 net.cpp:425] conv3 <- norm2
I0720 13:57:10.420773  4254 layer_factory.hpp:77] Creating layer conv3
I0720 13:57:10.420769  4278 net.cpp:91] Creating Layer conv3
I0720 13:57:10.420789  4254 net.cpp:91] Creating Layer conv3
I0720 13:57:10.420789  4278 net.cpp:425] conv3 <- norm2
I0720 13:57:10.420800  4254 net.cpp:425] conv3 <- norm2
I0720 13:57:10.420789  4264 net.cpp:399] conv3 -> conv3
I0720 13:57:10.420814  4254 net.cpp:399] conv3 -> conv3
I0720 13:57:10.420822  4278 net.cpp:399] conv3 -> conv3
I0720 13:57:10.420933  4276 net.cpp:141] Setting up norm2
I0720 13:57:10.420958  4276 net.cpp:148] Top shape: 10 256 13 13 (432640)
I0720 13:57:10.420958  4270 net.cpp:141] Setting up conv3
I0720 13:57:10.420970  4276 net.cpp:156] Memory required for data: 53405240
I0720 13:57:10.420979  4270 net.cpp:148] Top shape: 10 384 13 13 (648960)
I0720 13:57:10.420979  4276 layer_factory.hpp:77] Creating layer conv3
I0720 13:57:10.420992  4270 net.cpp:156] Memory required for data: 56001080
I0720 13:57:10.421001  4276 net.cpp:91] Creating Layer conv3
I0720 13:57:10.421010  4276 net.cpp:425] conv3 <- norm2
I0720 13:57:10.421015  4270 layer_factory.hpp:77] Creating layer relu3
I0720 13:57:10.421027  4270 net.cpp:91] Creating Layer relu3
I0720 13:57:10.421036  4270 net.cpp:425] relu3 <- conv3
I0720 13:57:10.421041  4276 net.cpp:399] conv3 -> conv3
I0720 13:57:10.421051  4270 net.cpp:386] relu3 -> conv3 (in-place)
I0720 13:57:10.422076  4260 net.cpp:141] Setting up conv3
I0720 13:57:10.422113  4260 net.cpp:148] Top shape: 10 384 13 13 (648960)
I0720 13:57:10.422124  4260 net.cpp:156] Memory required for data: 56001080
I0720 13:57:10.422150  4260 layer_factory.hpp:77] Creating layer relu3
I0720 13:57:10.422169  4260 net.cpp:91] Creating Layer relu3
I0720 13:57:10.422180  4260 net.cpp:425] relu3 <- conv3
I0720 13:57:10.422194  4260 net.cpp:386] relu3 -> conv3 (in-place)
I0720 13:57:10.426744  4246 upgrade_proto.cpp:66] Attempting to upgrade input file specified using deprecated input fields: /tmp/cvld5482158691177929214/s2vt.words_to_preds.prototxt
I0720 13:57:10.426820  4246 upgrade_proto.cpp:69] Successfully upgraded file specified using deprecated input fields.
W0720 13:57:10.426838  4246 upgrade_proto.cpp:71] Note that future Caffe releases will only support input layers and not input fields.
I0720 13:57:10.427268  4246 net.cpp:49] Initializing net from parameters: 
name: "s2vt:features_to_lstm"
state {
  phase: TEST
}
layer {
  name: "input"
  type: "Input"
  top: "frames_fc7"
  top: "cont_sentence"
  top: "input_sentence"
  top: "stage_indicator"
  input_param {
    shape {
      dim: 1
      dim: 4096
    }
    shape {
      dim: 1
      dim: 1
    }
    shape {
      dim: 1
      dim: 1
    }
    shape {
      dim: 1
      dim: 1
    }
  }
}
layer {
  name: "embed_encoder"
  type: "InnerProduct"
  bottom: "frames_fc7"
  top: "embedded_in_frames"
  param {
    lr_mult: 1
    decay_mult: 1
  }
  param {
    lr_mult: 2
    decay_mult: 0
  }
  inner_product_param {
    num_output: 500
    weight_filler {
      type: "xavier"
    }
    bias_filler {
      type: "constant"
      value: 0.2
    }
  }
}
layer {
  name: "reshape_frames"
  type: "Reshape"
  bottom: "embedded_in_frames"
  top: "embedded_input_frames"
  reshape_param {
    shape {
      dim: 1
      dim: 1
      dim: 500
    }
  }
}
layer {
  name: "reshape_stage_indicator"
  type: "Reshape"
  bottom: "stage_indicator"
  top: "reshaped_stage_indicator"
  reshape_param {
    shape {
      dim: 1
      dim: 1
      dim: 1
    }
  }
}
layer {
  name: "embedding"
  type: "Embed"
  bottom: "input_sentence"
  top: "embedded_input_sentence"
  param {
    lr_mult: 1
  }
  embed_param {
    num_output: 500
    input_dim: 46168
    bias_term: false
    weight_filler {
      type: "uniform"
      min: -0.08
      max: 0.08
    }
  }
}
layer {
  name: "lstm1"
  type: "LSTM"
  bottom: "embedded_input_frames"
  bottom: "cont_sentence"
  top: "lstm1"
  recurrent_param {
    num_output: 1000
    weight_filler {
      type: "uniform"
      min: -0.08
      max: 0.08
    }
    bias_filler {
      type: "constant"
      value: 0
    }
  }
}
layer {
  name: "concat"
  type: "Concat"
  bottom: "lstm1"
  bottom: "embedded_input_sentence"
  bottom: "reshaped_stage_indicator"
  top: "lstm1_video_sequence"
  concat_param {
    concat_dim: 2
  }
}
layer {
  name: "lstm2"
  type: "LSTM"
  bottom: "lstm1_video_sequence"
  bottom: "cont_sentence"
  top: "lstm2"
  recurrent_param {
    num_output: 1000
    weight_filler {
      type: "uniform"
      min: -0.08
      max: 0.08
    }
    bias_filler {
      type: "constant"
      value: 0
    }
  }
}
layer {
  name: "predict"
  type: "InnerProduct"
  bottom: "lstm2"
  top: "predict"
  param {
    lr_mult: 1
    decay_mult: 1
  }
  param {
    lr_mult: 2
    decay_mult: 0
  }
  inner_product_param {
    num_output: 46168
    weight_filler {
      type: "uniform"
      min: -0.08
      max: 0.08
    }
    bias_filler {
      type: "constant"
      value: 0
    }
    axis: 2
  }
}
layer {
  name: "probs"
  type: "Softmax"
  bottom: "predict"
  top: "probs"
  softmax_param {
    axis: 2
  }
}
I0720 13:57:10.427435  4246 layer_factory.hpp:77] Creating layer input
I0720 13:57:10.427459  4246 net.cpp:91] Creating Layer input
I0720 13:57:10.427471  4246 net.cpp:399] input -> frames_fc7
I0720 13:57:10.427500  4246 net.cpp:399] input -> cont_sentence
I0720 13:57:10.427520  4246 net.cpp:399] input -> input_sentence
I0720 13:57:10.427541  4246 net.cpp:399] input -> stage_indicator
I0720 13:57:10.430580  4246 net.cpp:141] Setting up input
I0720 13:57:10.430606  4246 net.cpp:148] Top shape: 1 4096 (4096)
I0720 13:57:10.430620  4246 net.cpp:148] Top shape: 1 1 (1)
I0720 13:57:10.430631  4246 net.cpp:148] Top shape: 1 1 (1)
I0720 13:57:10.430642  4246 net.cpp:148] Top shape: 1 1 (1)
I0720 13:57:10.430650  4246 net.cpp:156] Memory required for data: 16396
I0720 13:57:10.430660  4246 layer_factory.hpp:77] Creating layer cont_sentence_input_1_split
I0720 13:57:10.430699  4246 net.cpp:91] Creating Layer cont_sentence_input_1_split
I0720 13:57:10.430712  4246 net.cpp:425] cont_sentence_input_1_split <- cont_sentence
I0720 13:57:10.430750  4246 net.cpp:399] cont_sentence_input_1_split -> cont_sentence_input_1_split_0
I0720 13:57:10.430774  4246 net.cpp:399] cont_sentence_input_1_split -> cont_sentence_input_1_split_1
I0720 13:57:10.431473  4244 net.cpp:141] Setting up relu2
I0720 13:57:10.431489  4244 net.cpp:148] Top shape: 10 256 27 27 (1866240)
I0720 13:57:10.431493  4244 net.cpp:156] Memory required for data: 49944120
I0720 13:57:10.431499  4244 layer_factory.hpp:77] Creating layer pool2
I0720 13:57:10.431514  4244 net.cpp:91] Creating Layer pool2
I0720 13:57:10.431519  4244 net.cpp:425] pool2 <- conv2
I0720 13:57:10.431526  4244 net.cpp:399] pool2 -> pool2
I0720 13:57:10.431541  4244 net.cpp:141] Setting up pool2
I0720 13:57:10.431547  4244 net.cpp:148] Top shape: 10 256 13 13 (432640)
I0720 13:57:10.431551  4244 net.cpp:156] Memory required for data: 51674680
I0720 13:57:10.431555  4244 layer_factory.hpp:77] Creating layer norm2
I0720 13:57:10.431568  4244 net.cpp:91] Creating Layer norm2
I0720 13:57:10.431572  4244 net.cpp:425] norm2 <- pool2
I0720 13:57:10.431578  4244 net.cpp:399] norm2 -> norm2
I0720 13:57:10.431586  4246 net.cpp:141] Setting up cont_sentence_input_1_split
I0720 13:57:10.431605  4246 net.cpp:148] Top shape: 1 1 (1)
I0720 13:57:10.431617  4246 net.cpp:148] Top shape: 1 1 (1)
I0720 13:57:10.431624  4246 net.cpp:156] Memory required for data: 16404
I0720 13:57:10.431634  4246 layer_factory.hpp:77] Creating layer embed_encoder
I0720 13:57:10.431663  4246 net.cpp:91] Creating Layer embed_encoder
I0720 13:57:10.431675  4246 net.cpp:425] embed_encoder <- frames_fc7
I0720 13:57:10.431694  4246 net.cpp:399] embed_encoder -> embedded_in_frames
I0720 13:57:10.432261  4270 net.cpp:141] Setting up relu3
I0720 13:57:10.432276  4270 net.cpp:148] Top shape: 10 384 13 13 (648960)
I0720 13:57:10.432281  4270 net.cpp:156] Memory required for data: 58596920
I0720 13:57:10.432286  4270 layer_factory.hpp:77] Creating layer conv4
I0720 13:57:10.432301  4270 net.cpp:91] Creating Layer conv4
I0720 13:57:10.432307  4270 net.cpp:425] conv4 <- conv3
I0720 13:57:10.432314  4270 net.cpp:399] conv4 -> conv4
I0720 13:57:10.440985  4266 net.cpp:141] Setting up conv3
I0720 13:57:10.441026  4266 net.cpp:148] Top shape: 10 384 13 13 (648960)
I0720 13:57:10.441031  4266 net.cpp:156] Memory required for data: 56001080
I0720 13:57:10.441051  4266 layer_factory.hpp:77] Creating layer relu3
I0720 13:57:10.441069  4266 net.cpp:91] Creating Layer relu3
I0720 13:57:10.441076  4266 net.cpp:425] relu3 <- conv3
I0720 13:57:10.441084  4266 net.cpp:386] relu3 -> conv3 (in-place)
I0720 13:57:10.443034  4260 net.cpp:141] Setting up relu3
I0720 13:57:10.443063  4260 net.cpp:148] Top shape: 10 384 13 13 (648960)
I0720 13:57:10.443073  4260 net.cpp:156] Memory required for data: 58596920
I0720 13:57:10.443083  4260 layer_factory.hpp:77] Creating layer conv4
I0720 13:57:10.443106  4260 net.cpp:91] Creating Layer conv4
I0720 13:57:10.443114  4260 net.cpp:425] conv4 <- conv3
I0720 13:57:10.443123  4260 net.cpp:399] conv4 -> conv4
I0720 13:57:10.446601  4266 net.cpp:141] Setting up relu3
I0720 13:57:10.446620  4244 net.cpp:141] Setting up norm2
I0720 13:57:10.446630  4266 net.cpp:148] Top shape: 10 384 13 13 (648960)
I0720 13:57:10.446638  4266 net.cpp:156] Memory required for data: 58596920
I0720 13:57:10.446638  4244 net.cpp:148] Top shape: 10 256 13 13 (432640)
I0720 13:57:10.446650  4266 layer_factory.hpp:77] Creating layer conv4
I0720 13:57:10.446653  4244 net.cpp:156] Memory required for data: 53405240
I0720 13:57:10.446661  4244 layer_factory.hpp:77] Creating layer conv3
I0720 13:57:10.446674  4266 net.cpp:91] Creating Layer conv4
I0720 13:57:10.446674  4244 net.cpp:91] Creating Layer conv3
I0720 13:57:10.446697  4266 net.cpp:425] conv4 <- conv3
I0720 13:57:10.446699  4244 net.cpp:425] conv3 <- norm2
I0720 13:57:10.446717  4266 net.cpp:399] conv4 -> conv4
I0720 13:57:10.446722  4244 net.cpp:399] conv3 -> conv3
I0720 13:57:10.448236  4272 net.cpp:141] Setting up conv3
I0720 13:57:10.448253  4258 net.cpp:141] Setting up conv3
I0720 13:57:10.448266  4272 net.cpp:148] Top shape: 10 384 13 13 (648960)
I0720 13:57:10.448272  4272 net.cpp:156] Memory required for data: 56001080
I0720 13:57:10.448276  4258 net.cpp:148] Top shape: 10 384 13 13 (648960)
I0720 13:57:10.448283  4258 net.cpp:156] Memory required for data: 56001080
I0720 13:57:10.448305  4272 layer_factory.hpp:77] Creating layer relu3
I0720 13:57:10.448320  4258 layer_factory.hpp:77] Creating layer relu3
I0720 13:57:10.448320  4272 net.cpp:91] Creating Layer relu3
I0720 13:57:10.448343  4272 net.cpp:425] relu3 <- conv3
I0720 13:57:10.448344  4258 net.cpp:91] Creating Layer relu3
I0720 13:57:10.448354  4272 net.cpp:386] relu3 -> conv3 (in-place)
I0720 13:57:10.448354  4258 net.cpp:425] relu3 <- conv3
I0720 13:57:10.448380  4258 net.cpp:386] relu3 -> conv3 (in-place)
I0720 13:57:10.451304  4276 net.cpp:141] Setting up conv3
I0720 13:57:10.451329  4278 net.cpp:141] Setting up conv3
I0720 13:57:10.451336  4276 net.cpp:148] Top shape: 10 384 13 13 (648960)
I0720 13:57:10.451344  4278 net.cpp:148] Top shape: 10 384 13 13 (648960)
I0720 13:57:10.451347  4276 net.cpp:156] Memory required for data: 56001080
I0720 13:57:10.451349  4278 net.cpp:156] Memory required for data: 56001080
I0720 13:57:10.451365  4278 layer_factory.hpp:77] Creating layer relu3
I0720 13:57:10.451375  4276 layer_factory.hpp:77] Creating layer relu3
I0720 13:57:10.451378  4278 net.cpp:91] Creating Layer relu3
I0720 13:57:10.451392  4278 net.cpp:425] relu3 <- conv3
I0720 13:57:10.451395  4276 net.cpp:91] Creating Layer relu3
I0720 13:57:10.451400  4278 net.cpp:386] relu3 -> conv3 (in-place)
I0720 13:57:10.451403  4276 net.cpp:425] relu3 <- conv3
I0720 13:57:10.451416  4276 net.cpp:386] relu3 -> conv3 (in-place)
I0720 13:57:10.452035  4272 net.cpp:141] Setting up relu3
I0720 13:57:10.452049  4272 net.cpp:148] Top shape: 10 384 13 13 (648960)
I0720 13:57:10.452054  4272 net.cpp:156] Memory required for data: 58596920
I0720 13:57:10.452059  4272 layer_factory.hpp:77] Creating layer conv4
I0720 13:57:10.452076  4272 net.cpp:91] Creating Layer conv4
I0720 13:57:10.452081  4272 net.cpp:425] conv4 <- conv3
I0720 13:57:10.452091  4272 net.cpp:399] conv4 -> conv4
I0720 13:57:10.452122  4254 net.cpp:141] Setting up conv3
I0720 13:57:10.452136  4254 net.cpp:148] Top shape: 10 384 13 13 (648960)
I0720 13:57:10.452142  4254 net.cpp:156] Memory required for data: 56001080
I0720 13:57:10.452153  4254 layer_factory.hpp:77] Creating layer relu3
I0720 13:57:10.452167  4254 net.cpp:91] Creating Layer relu3
I0720 13:57:10.452178  4254 net.cpp:425] relu3 <- conv3
I0720 13:57:10.452190  4254 net.cpp:386] relu3 -> conv3 (in-place)
I0720 13:57:10.453330  4258 net.cpp:141] Setting up relu3
I0720 13:57:10.453347  4258 net.cpp:148] Top shape: 10 384 13 13 (648960)
I0720 13:57:10.453352  4258 net.cpp:156] Memory required for data: 58596920
I0720 13:57:10.453357  4258 layer_factory.hpp:77] Creating layer conv4
I0720 13:57:10.453378  4258 net.cpp:91] Creating Layer conv4
I0720 13:57:10.453390  4258 net.cpp:425] conv4 <- conv3
I0720 13:57:10.453404  4258 net.cpp:399] conv4 -> conv4
I0720 13:57:10.456113  4264 net.cpp:141] Setting up conv3
I0720 13:57:10.456142  4264 net.cpp:148] Top shape: 10 384 13 13 (648960)
I0720 13:57:10.456152  4264 net.cpp:156] Memory required for data: 56001080
I0720 13:57:10.456173  4264 layer_factory.hpp:77] Creating layer relu3
I0720 13:57:10.456189  4264 net.cpp:91] Creating Layer relu3
I0720 13:57:10.456197  4264 net.cpp:425] relu3 <- conv3
I0720 13:57:10.456205  4264 net.cpp:386] relu3 -> conv3 (in-place)
I0720 13:57:10.459676  4246 net.cpp:141] Setting up embed_encoder
I0720 13:57:10.459703  4246 net.cpp:148] Top shape: 1 500 (500)
I0720 13:57:10.459713  4246 net.cpp:156] Memory required for data: 18404
I0720 13:57:10.459738  4246 layer_factory.hpp:77] Creating layer reshape_frames
I0720 13:57:10.459761  4246 net.cpp:91] Creating Layer reshape_frames
I0720 13:57:10.459774  4246 net.cpp:425] reshape_frames <- embedded_in_frames
I0720 13:57:10.459789  4246 net.cpp:399] reshape_frames -> embedded_input_frames
I0720 13:57:10.459801  4276 net.cpp:141] Setting up relu3
I0720 13:57:10.459817  4276 net.cpp:148] Top shape: 10 384 13 13 (648960)
I0720 13:57:10.459821  4276 net.cpp:156] Memory required for data: 58596920
I0720 13:57:10.459826  4276 layer_factory.hpp:77] Creating layer conv4
I0720 13:57:10.459846  4276 net.cpp:91] Creating Layer conv4
I0720 13:57:10.459852  4276 net.cpp:425] conv4 <- conv3
I0720 13:57:10.459861  4276 net.cpp:399] conv4 -> conv4
I0720 13:57:10.460801  4246 net.cpp:141] Setting up reshape_frames
I0720 13:57:10.460824  4246 net.cpp:148] Top shape: 1 1 500 (500)
I0720 13:57:10.460830  4246 net.cpp:156] Memory required for data: 20404
I0720 13:57:10.460835  4246 layer_factory.hpp:77] Creating layer reshape_stage_indicator
I0720 13:57:10.460847  4246 net.cpp:91] Creating Layer reshape_stage_indicator
I0720 13:57:10.460852  4246 net.cpp:425] reshape_stage_indicator <- stage_indicator
I0720 13:57:10.460865  4246 net.cpp:399] reshape_stage_indicator -> reshaped_stage_indicator
I0720 13:57:10.461874  4246 net.cpp:141] Setting up reshape_stage_indicator
I0720 13:57:10.461887  4246 net.cpp:148] Top shape: 1 1 1 (1)
I0720 13:57:10.461892  4246 net.cpp:156] Memory required for data: 20408
I0720 13:57:10.461896  4246 layer_factory.hpp:77] Creating layer embedding
I0720 13:57:10.461908  4246 net.cpp:91] Creating Layer embedding
I0720 13:57:10.461912  4246 net.cpp:425] embedding <- input_sentence
I0720 13:57:10.461923  4246 net.cpp:399] embedding -> embedded_input_sentence
I0720 13:57:10.461984  4254 net.cpp:141] Setting up relu3
I0720 13:57:10.461998  4254 net.cpp:148] Top shape: 10 384 13 13 (648960)
I0720 13:57:10.462003  4254 net.cpp:156] Memory required for data: 58596920
I0720 13:57:10.462008  4254 layer_factory.hpp:77] Creating layer conv4
I0720 13:57:10.462023  4254 net.cpp:91] Creating Layer conv4
I0720 13:57:10.462033  4254 net.cpp:425] conv4 <- conv3
I0720 13:57:10.462043  4254 net.cpp:399] conv4 -> conv4
I0720 13:57:10.506858  4264 net.cpp:141] Setting up relu3
I0720 13:57:10.506917  4264 net.cpp:148] Top shape: 10 384 13 13 (648960)
I0720 13:57:10.506924  4264 net.cpp:156] Memory required for data: 58596920
I0720 13:57:10.506934  4264 layer_factory.hpp:77] Creating layer conv4
I0720 13:57:10.506963  4264 net.cpp:91] Creating Layer conv4
I0720 13:57:10.506969  4264 net.cpp:425] conv4 <- conv3
I0720 13:57:10.506984  4264 net.cpp:399] conv4 -> conv4
I0720 13:57:10.512079  4278 net.cpp:141] Setting up relu3
I0720 13:57:10.512132  4278 net.cpp:148] Top shape: 10 384 13 13 (648960)
I0720 13:57:10.512138  4278 net.cpp:156] Memory required for data: 58596920
I0720 13:57:10.512148  4278 layer_factory.hpp:77] Creating layer conv4
I0720 13:57:10.512178  4278 net.cpp:91] Creating Layer conv4
I0720 13:57:10.512190  4278 net.cpp:425] conv4 <- conv3
I0720 13:57:10.512203  4278 net.cpp:399] conv4 -> conv4
I0720 13:57:10.524919  4244 net.cpp:141] Setting up conv3
I0720 13:57:10.524971  4244 net.cpp:148] Top shape: 10 384 13 13 (648960)
I0720 13:57:10.524979  4244 net.cpp:156] Memory required for data: 56001080
I0720 13:57:10.525009  4244 layer_factory.hpp:77] Creating layer relu3
I0720 13:57:10.525032  4244 net.cpp:91] Creating Layer relu3
I0720 13:57:10.525043  4244 net.cpp:425] relu3 <- conv3
I0720 13:57:10.525058  4244 net.cpp:386] relu3 -> conv3 (in-place)
I0720 13:57:10.535673  4272 net.cpp:141] Setting up conv4
I0720 13:57:10.535727  4272 net.cpp:148] Top shape: 10 384 13 13 (648960)
I0720 13:57:10.535737  4272 net.cpp:156] Memory required for data: 61192760
I0720 13:57:10.535743  4270 net.cpp:141] Setting up conv4
I0720 13:57:10.535759  4270 net.cpp:148] Top shape: 10 384 13 13 (648960)
I0720 13:57:10.535759  4272 layer_factory.hpp:77] Creating layer relu4
I0720 13:57:10.535765  4270 net.cpp:156] Memory required for data: 61192760
I0720 13:57:10.535778  4270 layer_factory.hpp:77] Creating layer relu4
I0720 13:57:10.535785  4270 net.cpp:91] Creating Layer relu4
I0720 13:57:10.535792  4270 net.cpp:425] relu4 <- conv4
I0720 13:57:10.535790  4272 net.cpp:91] Creating Layer relu4
I0720 13:57:10.535802  4272 net.cpp:425] relu4 <- conv4
I0720 13:57:10.535804  4270 net.cpp:386] relu4 -> conv4 (in-place)
I0720 13:57:10.535820  4272 net.cpp:386] relu4 -> conv4 (in-place)
I0720 13:57:10.537901  4266 net.cpp:141] Setting up conv4
I0720 13:57:10.537928  4266 net.cpp:148] Top shape: 10 384 13 13 (648960)
I0720 13:57:10.537938  4266 net.cpp:156] Memory required for data: 61192760
I0720 13:57:10.537956  4266 layer_factory.hpp:77] Creating layer relu4
I0720 13:57:10.537978  4266 net.cpp:91] Creating Layer relu4
I0720 13:57:10.537991  4266 net.cpp:425] relu4 <- conv4
I0720 13:57:10.538003  4266 net.cpp:386] relu4 -> conv4 (in-place)
I0720 13:57:10.538823  4258 net.cpp:141] Setting up conv4
I0720 13:57:10.538848  4258 net.cpp:148] Top shape: 10 384 13 13 (648960)
I0720 13:57:10.538857  4258 net.cpp:156] Memory required for data: 61192760
I0720 13:57:10.538869  4258 layer_factory.hpp:77] Creating layer relu4
I0720 13:57:10.538877  4258 net.cpp:91] Creating Layer relu4
I0720 13:57:10.538882  4258 net.cpp:425] relu4 <- conv4
I0720 13:57:10.538897  4258 net.cpp:386] relu4 -> conv4 (in-place)
I0720 13:57:10.538995  4270 net.cpp:141] Setting up relu4
I0720 13:57:10.539008  4270 net.cpp:148] Top shape: 10 384 13 13 (648960)
I0720 13:57:10.539012  4270 net.cpp:156] Memory required for data: 63788600
I0720 13:57:10.539017  4270 layer_factory.hpp:77] Creating layer conv5
I0720 13:57:10.539036  4270 net.cpp:91] Creating Layer conv5
I0720 13:57:10.539041  4270 net.cpp:425] conv5 <- conv4
I0720 13:57:10.539050  4270 net.cpp:399] conv5 -> conv5
I0720 13:57:10.541728  4244 net.cpp:141] Setting up relu3
I0720 13:57:10.541754  4244 net.cpp:148] Top shape: 10 384 13 13 (648960)
I0720 13:57:10.541759  4244 net.cpp:156] Memory required for data: 58596920
I0720 13:57:10.541769  4244 layer_factory.hpp:77] Creating layer conv4
I0720 13:57:10.541790  4244 net.cpp:91] Creating Layer conv4
I0720 13:57:10.541795  4244 net.cpp:425] conv4 <- conv3
I0720 13:57:10.541807  4244 net.cpp:399] conv4 -> conv4
I0720 13:57:10.541874  4278 net.cpp:141] Setting up conv4
I0720 13:57:10.541893  4278 net.cpp:148] Top shape: 10 384 13 13 (648960)
I0720 13:57:10.541898  4278 net.cpp:156] Memory required for data: 61192760
I0720 13:57:10.541908  4278 layer_factory.hpp:77] Creating layer relu4
I0720 13:57:10.541920  4278 net.cpp:91] Creating Layer relu4
I0720 13:57:10.541929  4278 net.cpp:425] relu4 <- conv4
I0720 13:57:10.541936  4278 net.cpp:386] relu4 -> conv4 (in-place)
I0720 13:57:10.543149  4272 net.cpp:141] Setting up relu4
I0720 13:57:10.543174  4272 net.cpp:148] Top shape: 10 384 13 13 (648960)
I0720 13:57:10.543179  4272 net.cpp:156] Memory required for data: 63788600
I0720 13:57:10.543184  4272 layer_factory.hpp:77] Creating layer conv5
I0720 13:57:10.543200  4272 net.cpp:91] Creating Layer conv5
I0720 13:57:10.543206  4272 net.cpp:425] conv5 <- conv4
I0720 13:57:10.543215  4272 net.cpp:399] conv5 -> conv5
I0720 13:57:10.543426  4276 net.cpp:141] Setting up conv4
I0720 13:57:10.543448  4276 net.cpp:148] Top shape: 10 384 13 13 (648960)
I0720 13:57:10.543457  4276 net.cpp:156] Memory required for data: 61192760
I0720 13:57:10.543475  4276 layer_factory.hpp:77] Creating layer relu4
I0720 13:57:10.543490  4276 net.cpp:91] Creating Layer relu4
I0720 13:57:10.543501  4276 net.cpp:425] relu4 <- conv4
I0720 13:57:10.543526  4276 net.cpp:386] relu4 -> conv4 (in-place)
I0720 13:57:10.546813  4260 net.cpp:141] Setting up conv4
I0720 13:57:10.546844  4260 net.cpp:148] Top shape: 10 384 13 13 (648960)
I0720 13:57:10.546850  4260 net.cpp:156] Memory required for data: 61192760
I0720 13:57:10.546866  4260 layer_factory.hpp:77] Creating layer relu4
I0720 13:57:10.546885  4260 net.cpp:91] Creating Layer relu4
I0720 13:57:10.546893  4260 net.cpp:425] relu4 <- conv4
I0720 13:57:10.546903  4260 net.cpp:386] relu4 -> conv4 (in-place)
I0720 13:57:10.547996  4254 net.cpp:141] Setting up conv4
I0720 13:57:10.548012  4266 net.cpp:141] Setting up relu4
I0720 13:57:10.548027  4254 net.cpp:148] Top shape: 10 384 13 13 (648960)
I0720 13:57:10.548028  4266 net.cpp:148] Top shape: 10 384 13 13 (648960)
I0720 13:57:10.548044  4254 net.cpp:156] Memory required for data: 61192760
I0720 13:57:10.548048  4266 net.cpp:156] Memory required for data: 63788600
I0720 13:57:10.548044  4258 net.cpp:141] Setting up relu4
I0720 13:57:10.548060  4266 layer_factory.hpp:77] Creating layer conv5
I0720 13:57:10.548065  4254 layer_factory.hpp:77] Creating layer relu4
I0720 13:57:10.548079  4266 net.cpp:91] Creating Layer conv5
I0720 13:57:10.548079  4258 net.cpp:148] Top shape: 10 384 13 13 (648960)
I0720 13:57:10.548080  4254 net.cpp:91] Creating Layer relu4
I0720 13:57:10.548099  4258 net.cpp:156] Memory required for data: 63788600
I0720 13:57:10.548089  4266 net.cpp:425] conv5 <- conv4
I0720 13:57:10.548111  4258 layer_factory.hpp:77] Creating layer conv5
I0720 13:57:10.548106  4254 net.cpp:425] relu4 <- conv4
I0720 13:57:10.548122  4258 net.cpp:91] Creating Layer conv5
I0720 13:57:10.548128  4258 net.cpp:425] conv5 <- conv4
I0720 13:57:10.548125  4254 net.cpp:386] relu4 -> conv4 (in-place)
I0720 13:57:10.548133  4266 net.cpp:399] conv5 -> conv5
I0720 13:57:10.548146  4258 net.cpp:399] conv5 -> conv5
I0720 13:57:10.548493  4278 net.cpp:141] Setting up relu4
I0720 13:57:10.548507  4278 net.cpp:148] Top shape: 10 384 13 13 (648960)
I0720 13:57:10.548511  4278 net.cpp:156] Memory required for data: 63788600
I0720 13:57:10.548516  4278 layer_factory.hpp:77] Creating layer conv5
I0720 13:57:10.548547  4278 net.cpp:91] Creating Layer conv5
I0720 13:57:10.548557  4278 net.cpp:425] conv5 <- conv4
I0720 13:57:10.548564  4278 net.cpp:399] conv5 -> conv5
I0720 13:57:10.552610  4276 net.cpp:141] Setting up relu4
I0720 13:57:10.552644  4276 net.cpp:148] Top shape: 10 384 13 13 (648960)
I0720 13:57:10.552649  4276 net.cpp:156] Memory required for data: 63788600
I0720 13:57:10.552656  4276 layer_factory.hpp:77] Creating layer conv5
I0720 13:57:10.552676  4276 net.cpp:91] Creating Layer conv5
I0720 13:57:10.552682  4276 net.cpp:425] conv5 <- conv4
I0720 13:57:10.552695  4276 net.cpp:399] conv5 -> conv5
I0720 13:57:10.554325  4254 net.cpp:141] Setting up relu4
I0720 13:57:10.554352  4254 net.cpp:148] Top shape: 10 384 13 13 (648960)
I0720 13:57:10.554360  4254 net.cpp:156] Memory required for data: 63788600
I0720 13:57:10.554369  4254 layer_factory.hpp:77] Creating layer conv5
I0720 13:57:10.554392  4254 net.cpp:91] Creating Layer conv5
I0720 13:57:10.554404  4254 net.cpp:425] conv5 <- conv4
I0720 13:57:10.554414  4254 net.cpp:399] conv5 -> conv5
I0720 13:57:10.556772  4260 net.cpp:141] Setting up relu4
I0720 13:57:10.556799  4260 net.cpp:148] Top shape: 10 384 13 13 (648960)
I0720 13:57:10.556807  4260 net.cpp:156] Memory required for data: 63788600
I0720 13:57:10.556815  4260 layer_factory.hpp:77] Creating layer conv5
I0720 13:57:10.556836  4260 net.cpp:91] Creating Layer conv5
I0720 13:57:10.556845  4260 net.cpp:425] conv5 <- conv4
I0720 13:57:10.556860  4260 net.cpp:399] conv5 -> conv5
I0720 13:57:10.574578  4244 net.cpp:141] Setting up conv4
I0720 13:57:10.574633  4244 net.cpp:148] Top shape: 10 384 13 13 (648960)
I0720 13:57:10.574648  4244 net.cpp:156] Memory required for data: 61192760
I0720 13:57:10.574664  4244 layer_factory.hpp:77] Creating layer relu4
I0720 13:57:10.574681  4244 net.cpp:91] Creating Layer relu4
I0720 13:57:10.574705  4244 net.cpp:425] relu4 <- conv4
I0720 13:57:10.574714  4244 net.cpp:386] relu4 -> conv4 (in-place)
I0720 13:57:10.576779  4264 net.cpp:141] Setting up conv4
I0720 13:57:10.576802  4264 net.cpp:148] Top shape: 10 384 13 13 (648960)
I0720 13:57:10.576807  4264 net.cpp:156] Memory required for data: 61192760
I0720 13:57:10.576818  4264 layer_factory.hpp:77] Creating layer relu4
I0720 13:57:10.576828  4264 net.cpp:91] Creating Layer relu4
I0720 13:57:10.576833  4264 net.cpp:425] relu4 <- conv4
I0720 13:57:10.576843  4264 net.cpp:386] relu4 -> conv4 (in-place)
I0720 13:57:10.579221  4244 net.cpp:141] Setting up relu4
I0720 13:57:10.579241  4244 net.cpp:148] Top shape: 10 384 13 13 (648960)
I0720 13:57:10.579247  4244 net.cpp:156] Memory required for data: 63788600
I0720 13:57:10.579252  4244 layer_factory.hpp:77] Creating layer conv5
I0720 13:57:10.579267  4244 net.cpp:91] Creating Layer conv5
I0720 13:57:10.579272  4244 net.cpp:425] conv5 <- conv4
I0720 13:57:10.579282  4244 net.cpp:399] conv5 -> conv5
I0720 13:57:10.579999  4270 net.cpp:141] Setting up conv5
I0720 13:57:10.580023  4270 net.cpp:148] Top shape: 10 256 13 13 (432640)
I0720 13:57:10.580030  4270 net.cpp:156] Memory required for data: 65519160
I0720 13:57:10.580050  4270 layer_factory.hpp:77] Creating layer relu5
I0720 13:57:10.580060  4270 net.cpp:91] Creating Layer relu5
I0720 13:57:10.580065  4270 net.cpp:425] relu5 <- conv5
I0720 13:57:10.580071  4270 net.cpp:386] relu5 -> conv5 (in-place)
I0720 13:57:10.580108  4264 net.cpp:141] Setting up relu4
I0720 13:57:10.580124  4264 net.cpp:148] Top shape: 10 384 13 13 (648960)
I0720 13:57:10.580130  4264 net.cpp:156] Memory required for data: 63788600
I0720 13:57:10.580135  4264 layer_factory.hpp:77] Creating layer conv5
I0720 13:57:10.580149  4264 net.cpp:91] Creating Layer conv5
I0720 13:57:10.580154  4264 net.cpp:425] conv5 <- conv4
I0720 13:57:10.580164  4264 net.cpp:399] conv5 -> conv5
I0720 13:57:10.584796  4276 net.cpp:141] Setting up conv5
I0720 13:57:10.584825  4276 net.cpp:148] Top shape: 10 256 13 13 (432640)
I0720 13:57:10.584835  4276 net.cpp:156] Memory required for data: 65519160
I0720 13:57:10.584858  4276 layer_factory.hpp:77] Creating layer relu5
I0720 13:57:10.584875  4276 net.cpp:91] Creating Layer relu5
I0720 13:57:10.584885  4276 net.cpp:425] relu5 <- conv5
I0720 13:57:10.584903  4276 net.cpp:386] relu5 -> conv5 (in-place)
I0720 13:57:10.586170  4266 net.cpp:141] Setting up conv5
I0720 13:57:10.586189  4266 net.cpp:148] Top shape: 10 256 13 13 (432640)
I0720 13:57:10.586194  4266 net.cpp:156] Memory required for data: 65519160
I0720 13:57:10.586216  4266 layer_factory.hpp:77] Creating layer relu5
I0720 13:57:10.586225  4266 net.cpp:91] Creating Layer relu5
I0720 13:57:10.586230  4266 net.cpp:425] relu5 <- conv5
I0720 13:57:10.586236  4266 net.cpp:386] relu5 -> conv5 (in-place)
I0720 13:57:10.588102  4278 net.cpp:141] Setting up conv5
I0720 13:57:10.588121  4278 net.cpp:148] Top shape: 10 256 13 13 (432640)
I0720 13:57:10.588126  4278 net.cpp:156] Memory required for data: 65519160
I0720 13:57:10.588143  4278 layer_factory.hpp:77] Creating layer relu5
I0720 13:57:10.588155  4278 net.cpp:91] Creating Layer relu5
I0720 13:57:10.588161  4278 net.cpp:425] relu5 <- conv5
I0720 13:57:10.588171  4278 net.cpp:386] relu5 -> conv5 (in-place)
I0720 13:57:10.588387  4270 net.cpp:141] Setting up relu5
I0720 13:57:10.588403  4270 net.cpp:148] Top shape: 10 256 13 13 (432640)
I0720 13:57:10.588410  4270 net.cpp:156] Memory required for data: 67249720
I0720 13:57:10.588419  4270 layer_factory.hpp:77] Creating layer pool5
I0720 13:57:10.588435  4270 net.cpp:91] Creating Layer pool5
I0720 13:57:10.588443  4270 net.cpp:425] pool5 <- conv5
I0720 13:57:10.588451  4270 net.cpp:399] pool5 -> pool5
I0720 13:57:10.588469  4270 net.cpp:141] Setting up pool5
I0720 13:57:10.588476  4270 net.cpp:148] Top shape: 10 256 6 6 (92160)
I0720 13:57:10.588480  4270 net.cpp:156] Memory required for data: 67618360
I0720 13:57:10.588485  4270 layer_factory.hpp:77] Creating layer fc6
I0720 13:57:10.588495  4270 net.cpp:91] Creating Layer fc6
I0720 13:57:10.588500  4270 net.cpp:425] fc6 <- pool5
I0720 13:57:10.588508  4270 net.cpp:399] fc6 -> fc6
I0720 13:57:10.591960  4258 net.cpp:141] Setting up conv5
I0720 13:57:10.592012  4258 net.cpp:148] Top shape: 10 256 13 13 (432640)
I0720 13:57:10.592020  4258 net.cpp:156] Memory required for data: 65519160
I0720 13:57:10.592042  4258 layer_factory.hpp:77] Creating layer relu5
I0720 13:57:10.592057  4258 net.cpp:91] Creating Layer relu5
I0720 13:57:10.592063  4258 net.cpp:425] relu5 <- conv5
I0720 13:57:10.592072  4258 net.cpp:386] relu5 -> conv5 (in-place)
I0720 13:57:10.592520  4272 net.cpp:141] Setting up conv5
I0720 13:57:10.592535  4272 net.cpp:148] Top shape: 10 256 13 13 (432640)
I0720 13:57:10.592540  4272 net.cpp:156] Memory required for data: 65519160
I0720 13:57:10.593027  4272 layer_factory.hpp:77] Creating layer relu5
I0720 13:57:10.593042  4272 net.cpp:91] Creating Layer relu5
I0720 13:57:10.593047  4272 net.cpp:425] relu5 <- conv5
I0720 13:57:10.593056  4272 net.cpp:386] relu5 -> conv5 (in-place)
I0720 13:57:10.597738  4278 net.cpp:141] Setting up relu5
I0720 13:57:10.597738  4258 net.cpp:141] Setting up relu5
I0720 13:57:10.597793  4278 net.cpp:148] Top shape: 10 256 13 13 (432640)
I0720 13:57:10.597793  4258 net.cpp:148] Top shape: 10 256 13 13 (432640)
I0720 13:57:10.597807  4278 net.cpp:156] Memory required for data: 67249720
I0720 13:57:10.597807  4258 net.cpp:156] Memory required for data: 67249720
I0720 13:57:10.597826  4278 layer_factory.hpp:77] Creating layer pool5
I0720 13:57:10.597826  4258 layer_factory.hpp:77] Creating layer pool5
I0720 13:57:10.597854  4258 net.cpp:91] Creating Layer pool5
I0720 13:57:10.597863  4258 net.cpp:425] pool5 <- conv5
I0720 13:57:10.598351  4278 net.cpp:91] Creating Layer pool5
I0720 13:57:10.598356  4258 net.cpp:399] pool5 -> pool5
I0720 13:57:10.598373  4278 net.cpp:425] pool5 <- conv5
I0720 13:57:10.598386  4278 net.cpp:399] pool5 -> pool5
I0720 13:57:10.598397  4258 net.cpp:141] Setting up pool5
I0720 13:57:10.598400  4278 net.cpp:141] Setting up pool5
I0720 13:57:10.598410  4278 net.cpp:148] Top shape: 10 256 6 6 (92160)
I0720 13:57:10.598410  4258 net.cpp:148] Top shape: 10 256 6 6 (92160)
I0720 13:57:10.598422  4278 net.cpp:156] Memory required for data: 67618360
I0720 13:57:10.598424  4258 net.cpp:156] Memory required for data: 67618360
I0720 13:57:10.598430  4278 layer_factory.hpp:77] Creating layer fc6
I0720 13:57:10.598430  4258 layer_factory.hpp:77] Creating layer fc6
I0720 13:57:10.598459  4258 net.cpp:91] Creating Layer fc6
I0720 13:57:10.598469  4258 net.cpp:425] fc6 <- pool5
I0720 13:57:10.598477  4258 net.cpp:399] fc6 -> fc6
I0720 13:57:10.598973  4278 net.cpp:91] Creating Layer fc6
I0720 13:57:10.598992  4278 net.cpp:425] fc6 <- pool5
I0720 13:57:10.599015  4278 net.cpp:399] fc6 -> fc6
I0720 13:57:10.607918  4272 net.cpp:141] Setting up relu5
I0720 13:57:10.607974  4272 net.cpp:148] Top shape: 10 256 13 13 (432640)
I0720 13:57:10.607983  4272 net.cpp:156] Memory required for data: 67249720
I0720 13:57:10.607997  4272 layer_factory.hpp:77] Creating layer pool5
I0720 13:57:10.608023  4272 net.cpp:91] Creating Layer pool5
I0720 13:57:10.608036  4272 net.cpp:425] pool5 <- conv5
I0720 13:57:10.608412  4272 net.cpp:399] pool5 -> pool5
I0720 13:57:10.608454  4272 net.cpp:141] Setting up pool5
I0720 13:57:10.608471  4272 net.cpp:148] Top shape: 10 256 6 6 (92160)
I0720 13:57:10.608479  4272 net.cpp:156] Memory required for data: 67618360
I0720 13:57:10.608489  4272 layer_factory.hpp:77] Creating layer fc6
I0720 13:57:10.609206  4272 net.cpp:91] Creating Layer fc6
I0720 13:57:10.609228  4272 net.cpp:425] fc6 <- pool5
I0720 13:57:10.609246  4272 net.cpp:399] fc6 -> fc6
I0720 13:57:10.613590  4266 net.cpp:141] Setting up relu5
I0720 13:57:10.613663  4266 net.cpp:148] Top shape: 10 256 13 13 (432640)
I0720 13:57:10.613672  4266 net.cpp:156] Memory required for data: 67249720
I0720 13:57:10.613682  4266 layer_factory.hpp:77] Creating layer pool5
I0720 13:57:10.614380  4266 net.cpp:91] Creating Layer pool5
I0720 13:57:10.614406  4266 net.cpp:425] pool5 <- conv5
I0720 13:57:10.614428  4266 net.cpp:399] pool5 -> pool5
I0720 13:57:10.614464  4266 net.cpp:141] Setting up pool5
I0720 13:57:10.614480  4266 net.cpp:148] Top shape: 10 256 6 6 (92160)
I0720 13:57:10.614487  4266 net.cpp:156] Memory required for data: 67618360
I0720 13:57:10.614497  4266 layer_factory.hpp:77] Creating layer fc6
I0720 13:57:10.614935  4266 net.cpp:91] Creating Layer fc6
I0720 13:57:10.614964  4266 net.cpp:425] fc6 <- pool5
I0720 13:57:10.614984  4266 net.cpp:399] fc6 -> fc6
I0720 13:57:10.627714  4276 net.cpp:141] Setting up relu5
I0720 13:57:10.629009  4276 net.cpp:148] Top shape: 10 256 13 13 (432640)
I0720 13:57:10.629026  4276 net.cpp:156] Memory required for data: 67249720
I0720 13:57:10.629037  4276 layer_factory.hpp:77] Creating layer pool5
I0720 13:57:10.629056  4276 net.cpp:91] Creating Layer pool5
I0720 13:57:10.629063  4276 net.cpp:425] pool5 <- conv5
I0720 13:57:10.629075  4276 net.cpp:399] pool5 -> pool5
I0720 13:57:10.629094  4276 net.cpp:141] Setting up pool5
I0720 13:57:10.629102  4276 net.cpp:148] Top shape: 10 256 6 6 (92160)
I0720 13:57:10.629106  4276 net.cpp:156] Memory required for data: 67618360
I0720 13:57:10.629111  4276 layer_factory.hpp:77] Creating layer fc6
I0720 13:57:10.629544  4260 net.cpp:141] Setting up conv5
I0720 13:57:10.629567  4260 net.cpp:148] Top shape: 10 256 13 13 (432640)
I0720 13:57:10.629575  4260 net.cpp:156] Memory required for data: 65519160
I0720 13:57:10.629598  4260 layer_factory.hpp:77] Creating layer relu5
I0720 13:57:10.630372  4260 net.cpp:91] Creating Layer relu5
I0720 13:57:10.630372  4276 net.cpp:91] Creating Layer fc6
I0720 13:57:10.630393  4260 net.cpp:425] relu5 <- conv5
I0720 13:57:10.630373  4254 net.cpp:141] Setting up conv5
I0720 13:57:10.630403  4276 net.cpp:425] fc6 <- pool5
I0720 13:57:10.630406  4260 net.cpp:386] relu5 -> conv5 (in-place)
I0720 13:57:10.630419  4254 net.cpp:148] Top shape: 10 256 13 13 (432640)
I0720 13:57:10.630430  4254 net.cpp:156] Memory required for data: 65519160
I0720 13:57:10.630460  4254 layer_factory.hpp:77] Creating layer relu5
I0720 13:57:10.630934  4254 net.cpp:91] Creating Layer relu5
I0720 13:57:10.630949  4276 net.cpp:399] fc6 -> fc6
I0720 13:57:10.630976  4254 net.cpp:425] relu5 <- conv5
I0720 13:57:10.630998  4254 net.cpp:386] relu5 -> conv5 (in-place)
I0720 13:57:10.644528  4260 net.cpp:141] Setting up relu5
I0720 13:57:10.644584  4260 net.cpp:148] Top shape: 10 256 13 13 (432640)
I0720 13:57:10.644593  4260 net.cpp:156] Memory required for data: 67249720
I0720 13:57:10.644604  4260 layer_factory.hpp:77] Creating layer pool5
I0720 13:57:10.644629  4260 net.cpp:91] Creating Layer pool5
I0720 13:57:10.644637  4260 net.cpp:425] pool5 <- conv5
I0720 13:57:10.645357  4260 net.cpp:399] pool5 -> pool5
I0720 13:57:10.645418  4260 net.cpp:141] Setting up pool5
I0720 13:57:10.645433  4260 net.cpp:148] Top shape: 10 256 6 6 (92160)
I0720 13:57:10.645439  4260 net.cpp:156] Memory required for data: 67618360
I0720 13:57:10.645448  4260 layer_factory.hpp:77] Creating layer fc6
I0720 13:57:10.645933  4260 net.cpp:91] Creating Layer fc6
I0720 13:57:10.645952  4260 net.cpp:425] fc6 <- pool5
I0720 13:57:10.645965  4260 net.cpp:399] fc6 -> fc6
I0720 13:57:10.651439  4254 net.cpp:141] Setting up relu5
I0720 13:57:10.651533  4254 net.cpp:148] Top shape: 10 256 13 13 (432640)
I0720 13:57:10.651552  4254 net.cpp:156] Memory required for data: 67249720
I0720 13:57:10.651576  4254 layer_factory.hpp:77] Creating layer pool5
I0720 13:57:10.652055  4254 net.cpp:91] Creating Layer pool5
I0720 13:57:10.652081  4254 net.cpp:425] pool5 <- conv5
I0720 13:57:10.652110  4254 net.cpp:399] pool5 -> pool5
I0720 13:57:10.652158  4254 net.cpp:141] Setting up pool5
I0720 13:57:10.652185  4254 net.cpp:148] Top shape: 10 256 6 6 (92160)
I0720 13:57:10.652199  4254 net.cpp:156] Memory required for data: 67618360
I0720 13:57:10.652211  4254 layer_factory.hpp:77] Creating layer fc6
I0720 13:57:10.653146  4254 net.cpp:91] Creating Layer fc6
I0720 13:57:10.653195  4254 net.cpp:425] fc6 <- pool5
I0720 13:57:10.653235  4254 net.cpp:399] fc6 -> fc6
I0720 13:57:10.676872  4270 net.cpp:141] Setting up fc6
I0720 13:57:10.676946  4270 net.cpp:148] Top shape: 10 4096 (40960)
I0720 13:57:10.676959  4270 net.cpp:156] Memory required for data: 67782200
I0720 13:57:10.676987  4270 layer_factory.hpp:77] Creating layer relu6
I0720 13:57:10.678074  4270 net.cpp:91] Creating Layer relu6
I0720 13:57:10.678112  4270 net.cpp:425] relu6 <- fc6
I0720 13:57:10.678134  4270 net.cpp:386] relu6 -> fc6 (in-place)
I0720 13:57:10.698381  4246 net.cpp:141] Setting up embedding
I0720 13:57:10.698482  4246 net.cpp:148] Top shape: 1 1 500 (500)
I0720 13:57:10.698499  4246 net.cpp:156] Memory required for data: 22408
I0720 13:57:10.698551  4246 layer_factory.hpp:77] Creating layer lstm1
I0720 13:57:10.698606  4246 net.cpp:91] Creating Layer lstm1
I0720 13:57:10.698632  4246 net.cpp:425] lstm1 <- embedded_input_frames
I0720 13:57:10.698659  4246 net.cpp:425] lstm1 <- cont_sentence_input_1_split_0
I0720 13:57:10.699128  4246 net.cpp:399] lstm1 -> lstm1
I0720 13:57:10.699201  4246 recurrent_layer.cpp:20] Initializing recurrent layer: assuming input batch contains 1 timesteps of 1 independent streams.
I0720 13:57:10.702046  4266 net.cpp:141] Setting up fc6
I0720 13:57:10.702114  4266 net.cpp:148] Top shape: 10 4096 (40960)
I0720 13:57:10.702124  4266 net.cpp:156] Memory required for data: 67782200
I0720 13:57:10.702152  4266 layer_factory.hpp:77] Creating layer relu6
I0720 13:57:10.702177  4266 net.cpp:91] Creating Layer relu6
I0720 13:57:10.702188  4266 net.cpp:425] relu6 <- fc6
I0720 13:57:10.702085  4246 net.cpp:49] Initializing net from parameters: 
layer {
  name: "lstm1_"
  type: "Input"
  top: "x"
  top: "cont"
  input_param {
    shape {
      dim: 1
      dim: 1
      dim: 500
    }
    shape {
      dim: 1
      dim: 1
    }
  }
}
layer {
  name: "lstm1_"
  type: "Input"
  top: "c_0"
  top: "h_0"
  input_param {
    shape {
      dim: 1
      dim: 1
      dim: 1000
    }
    shape {
      dim: 1
      dim: 1
      dim: 1000
    }
  }
}
layer {
  name: "lstm1_cont_slice"
  type: "Slice"
  bottom: "cont"
  top: "cont_1"
  slice_param {
    axis: 0
  }
}
layer {
  name: "lstm1_x_transform"
  type: "InnerProduct"
  bottom: "x"
  top: "W_xc_x"
  param {
    name: "W_xc"
  }
  param {
    name: "b_c"
  }
  propagate_down: true
  inner_product_param {
    num_output: 4000
    bias_term: true
    weight_filler {
      type: "uniform"
      min: -0.08
      max: 0.08
    }
    bias_filler {
      type: "constant"
      value: 0
    }
    axis: 2
  }
}
layer {
  name: "lstm1_W_xc_x_slice"
  type: "Slice"
  bottom: "W_xc_x"
  top: "W_xc_x_1"
  slice_param {
    axis: 0
  }
}
layer {
  name: "lstm1_h_conted_0"
  type: "Scale"
  bottom: "h_0"
  bottom: "cont_1"
  top: "h_conted_0"
  scale_param {
    axis: 0
  }
}
layer {
  name: "lstm1_transform_1"
  type: "InnerProduct"
  bottom: "h_conted_0"
  top: "W_hc_h_0"
  param {
    name: "W_hc"
  }
  inner_product_param {
    num_output: 4000
    bias_term: false
    weight_filler {
      type: "uniform"
      min: -0.08
      max: 0.08
    }
    axis: 2
  }
}
layer {
  name: "lstm1_gate_input_1"
  type: "Eltwise"
  bottom: "W_hc_h_0"
  bottom: "W_xc_x_1"
  top: "gate_input_1"
  eltwise_param {
    operation: SUM
  }
}
layer {
  name: "lstm1_unit_1"
  type: "LSTMUnit"
  bottom: "c_0"
  bottom: "gate_input_1"
  bottom: "cont_1"
  top: "c_1"
  top: "h_1"
}
layer {
  name: "lstm1_"
  type: "Split"
  bottom: "c_1"
  top: "c_T"
}
layer {
  name: "lstm1_h_concat"
  type: "Concat"
  bottom: "h_1"
  top: "h"
  concat_param {
    axis: 0
  }
}
layer {
  name: "h_pseudoloss"
  type: "Reduction"
  bottom: "h"
  top: "h_pseudoloss"
  loss_weight: 1
}
I0720 13:57:10.702730  4266 net.cpp:386] relu6 -> fc6 (in-place)
I0720 13:57:10.703620  4246 layer_factory.hpp:77] Creating layer lstm1_
I0720 13:57:10.703676  4246 net.cpp:91] Creating Layer lstm1_
I0720 13:57:10.703693  4246 net.cpp:399] lstm1_ -> x
I0720 13:57:10.703725  4246 net.cpp:399] lstm1_ -> cont
I0720 13:57:10.706758  4246 net.cpp:141] Setting up lstm1_
I0720 13:57:10.706826  4246 net.cpp:148] Top shape: 1 1 500 (500)
I0720 13:57:10.706840  4246 net.cpp:148] Top shape: 1 1 (1)
I0720 13:57:10.706850  4246 net.cpp:156] Memory required for data: 2004
I0720 13:57:10.706867  4246 layer_factory.hpp:77] Creating layer lstm1_
I0720 13:57:10.706905  4246 net.cpp:91] Creating Layer lstm1_
I0720 13:57:10.707190  4246 net.cpp:399] lstm1_ -> c_0
I0720 13:57:10.707240  4246 net.cpp:399] lstm1_ -> h_0
I0720 13:57:10.708575  4244 net.cpp:141] Setting up conv5
I0720 13:57:10.708626  4244 net.cpp:148] Top shape: 10 256 13 13 (432640)
I0720 13:57:10.708631  4244 net.cpp:156] Memory required for data: 65519160
I0720 13:57:10.708655  4244 layer_factory.hpp:77] Creating layer relu5
I0720 13:57:10.708673  4244 net.cpp:91] Creating Layer relu5
I0720 13:57:10.708679  4244 net.cpp:425] relu5 <- conv5
I0720 13:57:10.709882  4270 net.cpp:141] Setting up relu6
I0720 13:57:10.709894  4246 net.cpp:141] Setting up lstm1_
I0720 13:57:10.709930  4270 net.cpp:148] Top shape: 10 4096 (40960)
I0720 13:57:10.709950  4270 net.cpp:156] Memory required for data: 67946040
I0720 13:57:10.709960  4270 layer_factory.hpp:77] Creating layer drop6
I0720 13:57:10.709962  4246 net.cpp:148] Top shape: 1 1 1000 (1000)
I0720 13:57:10.709976  4246 net.cpp:148] Top shape: 1 1 1000 (1000)
I0720 13:57:10.709980  4246 net.cpp:156] Memory required for data: 10004
I0720 13:57:10.709986  4246 layer_factory.hpp:77] Creating layer lstm1_cont_slice
I0720 13:57:10.710003  4246 net.cpp:91] Creating Layer lstm1_cont_slice
I0720 13:57:10.710010  4246 net.cpp:425] lstm1_cont_slice <- cont
I0720 13:57:10.710557  4244 net.cpp:386] relu5 -> conv5 (in-place)
I0720 13:57:10.710578  4246 net.cpp:399] lstm1_cont_slice -> cont_1
I0720 13:57:10.711158  4278 net.cpp:141] Setting up fc6
I0720 13:57:10.711171  4270 net.cpp:91] Creating Layer drop6
I0720 13:57:10.711182  4278 net.cpp:148] Top shape: 10 4096 (40960)
I0720 13:57:10.711200  4270 net.cpp:425] drop6 <- fc6
I0720 13:57:10.711202  4278 net.cpp:156] Memory required for data: 67782200
I0720 13:57:10.711216  4270 net.cpp:386] drop6 -> fc6 (in-place)
I0720 13:57:10.711225  4278 layer_factory.hpp:77] Creating layer relu6
I0720 13:57:10.711241  4278 net.cpp:91] Creating Layer relu6
I0720 13:57:10.711241  4270 net.cpp:141] Setting up drop6
I0720 13:57:10.711248  4278 net.cpp:425] relu6 <- fc6
I0720 13:57:10.711858  4270 net.cpp:148] Top shape: 10 4096 (40960)
I0720 13:57:10.711866  4272 net.cpp:141] Setting up fc6
I0720 13:57:10.711884  4270 net.cpp:156] Memory required for data: 68109880
I0720 13:57:10.711863  4278 net.cpp:386] relu6 -> fc6 (in-place)
I0720 13:57:10.711864  4264 net.cpp:141] Setting up conv5
I0720 13:57:10.711925  4264 net.cpp:148] Top shape: 10 256 13 13 (432640)
I0720 13:57:10.711937  4264 net.cpp:156] Memory required for data: 65519160
I0720 13:57:10.711901  4270 layer_factory.hpp:77] Creating layer fc7
I0720 13:57:10.711897  4272 net.cpp:148] Top shape: 10 4096 (40960)
I0720 13:57:10.711963  4272 net.cpp:156] Memory required for data: 67782200
I0720 13:57:10.711973  4270 net.cpp:91] Creating Layer fc7
I0720 13:57:10.711976  4272 layer_factory.hpp:77] Creating layer relu6
I0720 13:57:10.711992  4270 net.cpp:425] fc7 <- fc6
I0720 13:57:10.712002  4272 net.cpp:91] Creating Layer relu6
I0720 13:57:10.712007  4270 net.cpp:399] fc7 -> fc7
I0720 13:57:10.712008  4272 net.cpp:425] relu6 <- fc6
I0720 13:57:10.712414  4264 layer_factory.hpp:77] Creating layer relu5
I0720 13:57:10.712424  4264 net.cpp:91] Creating Layer relu5
I0720 13:57:10.712430  4264 net.cpp:425] relu5 <- conv5
I0720 13:57:10.712438  4264 net.cpp:386] relu5 -> conv5 (in-place)
I0720 13:57:10.713608  4272 net.cpp:386] relu6 -> fc6 (in-place)
I0720 13:57:10.715581  4246 net.cpp:141] Setting up lstm1_cont_slice
I0720 13:57:10.715631  4246 net.cpp:148] Top shape: 1 1 (1)
I0720 13:57:10.715639  4246 net.cpp:156] Memory required for data: 10008
I0720 13:57:10.715651  4246 layer_factory.hpp:77] Creating layer cont_1_lstm1_cont_slice_0_split
I0720 13:57:10.715889  4246 net.cpp:91] Creating Layer cont_1_lstm1_cont_slice_0_split
I0720 13:57:10.715906  4246 net.cpp:425] cont_1_lstm1_cont_slice_0_split <- cont_1
I0720 13:57:10.715922  4246 net.cpp:399] cont_1_lstm1_cont_slice_0_split -> cont_1_lstm1_cont_slice_0_split_0
I0720 13:57:10.716496  4266 net.cpp:141] Setting up relu6
I0720 13:57:10.716516  4246 net.cpp:399] cont_1_lstm1_cont_slice_0_split -> cont_1_lstm1_cont_slice_0_split_1
I0720 13:57:10.716516  4266 net.cpp:148] Top shape: 10 4096 (40960)
I0720 13:57:10.716549  4266 net.cpp:156] Memory required for data: 67946040
I0720 13:57:10.716557  4266 layer_factory.hpp:77] Creating layer drop6
I0720 13:57:10.717114  4266 net.cpp:91] Creating Layer drop6
I0720 13:57:10.717116  4278 net.cpp:141] Setting up relu6
I0720 13:57:10.717128  4266 net.cpp:425] drop6 <- fc6
I0720 13:57:10.717142  4266 net.cpp:386] drop6 -> fc6 (in-place)
I0720 13:57:10.717142  4278 net.cpp:148] Top shape: 10 4096 (40960)
I0720 13:57:10.717152  4278 net.cpp:156] Memory required for data: 67946040
I0720 13:57:10.717154  4266 net.cpp:141] Setting up drop6
I0720 13:57:10.717159  4278 layer_factory.hpp:77] Creating layer drop6
I0720 13:57:10.717161  4266 net.cpp:148] Top shape: 10 4096 (40960)
I0720 13:57:10.717166  4266 net.cpp:156] Memory required for data: 68109880
I0720 13:57:10.717170  4278 net.cpp:91] Creating Layer drop6
I0720 13:57:10.717170  4266 layer_factory.hpp:77] Creating layer fc7
I0720 13:57:10.717175  4278 net.cpp:425] drop6 <- fc6
I0720 13:57:10.717790  4266 net.cpp:91] Creating Layer fc7
I0720 13:57:10.717803  4266 net.cpp:425] fc7 <- fc6
I0720 13:57:10.717809  4266 net.cpp:399] fc7 -> fc7
I0720 13:57:10.717844  4244 net.cpp:141] Setting up relu5
I0720 13:57:10.717849  4278 net.cpp:386] drop6 -> fc6 (in-place)
I0720 13:57:10.717871  4244 net.cpp:148] Top shape: 10 256 13 13 (432640)
I0720 13:57:10.717880  4278 net.cpp:141] Setting up drop6
I0720 13:57:10.717880  4244 net.cpp:156] Memory required for data: 67249720
I0720 13:57:10.717888  4278 net.cpp:148] Top shape: 10 4096 (40960)
I0720 13:57:10.717893  4278 net.cpp:156] Memory required for data: 68109880
I0720 13:57:10.717891  4244 layer_factory.hpp:77] Creating layer pool5
I0720 13:57:10.717903  4278 layer_factory.hpp:77] Creating layer fc7
I0720 13:57:10.717918  4278 net.cpp:91] Creating Layer fc7
I0720 13:57:10.717923  4278 net.cpp:425] fc7 <- fc6
I0720 13:57:10.718390  4272 net.cpp:141] Setting up relu6
I0720 13:57:10.718412  4272 net.cpp:148] Top shape: 10 4096 (40960)
I0720 13:57:10.718413  4278 net.cpp:399] fc7 -> fc7
I0720 13:57:10.718418  4272 net.cpp:156] Memory required for data: 67946040
I0720 13:57:10.718423  4244 net.cpp:91] Creating Layer pool5
I0720 13:57:10.718423  4264 net.cpp:141] Setting up relu5
I0720 13:57:10.718436  4272 layer_factory.hpp:77] Creating layer drop6
I0720 13:57:10.718442  4244 net.cpp:425] pool5 <- conv5
I0720 13:57:10.718449  4264 net.cpp:148] Top shape: 10 256 13 13 (432640)
I0720 13:57:10.718439  4246 net.cpp:141] Setting up cont_1_lstm1_cont_slice_0_split
I0720 13:57:10.718461  4244 net.cpp:399] pool5 -> pool5
I0720 13:57:10.718452  4272 net.cpp:91] Creating Layer drop6
I0720 13:57:10.718459  4264 net.cpp:156] Memory required for data: 67249720
I0720 13:57:10.718482  4272 net.cpp:425] drop6 <- fc6
I0720 13:57:10.718485  4264 layer_factory.hpp:77] Creating layer pool5
I0720 13:57:10.718482  4246 net.cpp:148] Top shape: 1 1 (1)
I0720 13:57:10.718494  4272 net.cpp:386] drop6 -> fc6 (in-place)
I0720 13:57:10.718499  4246 net.cpp:148] Top shape: 1 1 (1)
I0720 13:57:10.718504  4246 net.cpp:156] Memory required for data: 10016
I0720 13:57:10.718505  4272 net.cpp:141] Setting up drop6
I0720 13:57:10.718513  4272 net.cpp:148] Top shape: 10 4096 (40960)
I0720 13:57:10.718513  4246 layer_factory.hpp:77] Creating layer lstm1_x_transform
I0720 13:57:10.718518  4272 net.cpp:156] Memory required for data: 68109880
I0720 13:57:10.718523  4272 layer_factory.hpp:77] Creating layer fc7
I0720 13:57:10.718536  4246 net.cpp:91] Creating Layer lstm1_x_transform
I0720 13:57:10.718544  4246 net.cpp:425] lstm1_x_transform <- x
I0720 13:57:10.718555  4246 net.cpp:399] lstm1_x_transform -> W_xc_x
I0720 13:57:10.718492  4244 net.cpp:141] Setting up pool5
I0720 13:57:10.719074  4244 net.cpp:148] Top shape: 10 256 6 6 (92160)
I0720 13:57:10.719082  4244 net.cpp:156] Memory required for data: 67618360
I0720 13:57:10.719091  4244 layer_factory.hpp:77] Creating layer fc6
I0720 13:57:10.719112  4244 net.cpp:91] Creating Layer fc6
I0720 13:57:10.719122  4244 net.cpp:425] fc6 <- pool5
I0720 13:57:10.719136  4244 net.cpp:399] fc6 -> fc6
I0720 13:57:10.719643  4264 net.cpp:91] Creating Layer pool5
I0720 13:57:10.719647  4272 net.cpp:91] Creating Layer fc7
I0720 13:57:10.719656  4264 net.cpp:425] pool5 <- conv5
I0720 13:57:10.719663  4272 net.cpp:425] fc7 <- fc6
I0720 13:57:10.719672  4264 net.cpp:399] pool5 -> pool5
I0720 13:57:10.719673  4272 net.cpp:399] fc7 -> fc7
I0720 13:57:10.719696  4264 net.cpp:141] Setting up pool5
I0720 13:57:10.720295  4264 net.cpp:148] Top shape: 10 256 6 6 (92160)
I0720 13:57:10.720309  4264 net.cpp:156] Memory required for data: 67618360
I0720 13:57:10.720321  4264 layer_factory.hpp:77] Creating layer fc6
I0720 13:57:10.720346  4264 net.cpp:91] Creating Layer fc6
I0720 13:57:10.720358  4264 net.cpp:425] fc6 <- pool5
I0720 13:57:10.720373  4264 net.cpp:399] fc6 -> fc6
I0720 13:57:10.725055  4258 net.cpp:141] Setting up fc6
I0720 13:57:10.725126  4258 net.cpp:148] Top shape: 10 4096 (40960)
I0720 13:57:10.725137  4258 net.cpp:156] Memory required for data: 67782200
I0720 13:57:10.725162  4258 layer_factory.hpp:77] Creating layer relu6
I0720 13:57:10.725185  4258 net.cpp:91] Creating Layer relu6
I0720 13:57:10.725195  4258 net.cpp:425] relu6 <- fc6
I0720 13:57:10.725215  4258 net.cpp:386] relu6 -> fc6 (in-place)
I0720 13:57:10.732601  4258 net.cpp:141] Setting up relu6
I0720 13:57:10.733281  4258 net.cpp:148] Top shape: 10 4096 (40960)
I0720 13:57:10.733315  4258 net.cpp:156] Memory required for data: 67946040
I0720 13:57:10.733340  4258 layer_factory.hpp:77] Creating layer drop6
I0720 13:57:10.733376  4258 net.cpp:91] Creating Layer drop6
I0720 13:57:10.733395  4258 net.cpp:425] drop6 <- fc6
I0720 13:57:10.733431  4258 net.cpp:386] drop6 -> fc6 (in-place)
I0720 13:57:10.733474  4258 net.cpp:141] Setting up drop6
I0720 13:57:10.733495  4258 net.cpp:148] Top shape: 10 4096 (40960)
I0720 13:57:10.733508  4258 net.cpp:156] Memory required for data: 68109880
I0720 13:57:10.733522  4258 layer_factory.hpp:77] Creating layer fc7
I0720 13:57:10.733548  4258 net.cpp:91] Creating Layer fc7
I0720 13:57:10.733566  4258 net.cpp:425] fc7 <- fc6
I0720 13:57:10.734848  4258 net.cpp:399] fc7 -> fc7
I0720 13:57:10.746491  4246 net.cpp:141] Setting up lstm1_x_transform
I0720 13:57:10.746589  4246 net.cpp:148] Top shape: 1 1 4000 (4000)
I0720 13:57:10.746597  4246 net.cpp:156] Memory required for data: 26016
I0720 13:57:10.746628  4246 layer_factory.hpp:77] Creating layer lstm1_W_xc_x_slice
I0720 13:57:10.746654  4246 net.cpp:91] Creating Layer lstm1_W_xc_x_slice
I0720 13:57:10.746661  4246 net.cpp:425] lstm1_W_xc_x_slice <- W_xc_x
I0720 13:57:10.746678  4246 net.cpp:399] lstm1_W_xc_x_slice -> W_xc_x_1
I0720 13:57:10.746758  4246 net.cpp:141] Setting up lstm1_W_xc_x_slice
I0720 13:57:10.746772  4246 net.cpp:148] Top shape: 1 1 4000 (4000)
I0720 13:57:10.746775  4246 net.cpp:156] Memory required for data: 42016
I0720 13:57:10.746779  4246 layer_factory.hpp:77] Creating layer lstm1_h_conted_0
I0720 13:57:10.746793  4246 net.cpp:91] Creating Layer lstm1_h_conted_0
I0720 13:57:10.746798  4246 net.cpp:425] lstm1_h_conted_0 <- h_0
I0720 13:57:10.746805  4246 net.cpp:425] lstm1_h_conted_0 <- cont_1_lstm1_cont_slice_0_split_0
I0720 13:57:10.746815  4246 net.cpp:399] lstm1_h_conted_0 -> h_conted_0
I0720 13:57:10.746942  4246 net.cpp:141] Setting up lstm1_h_conted_0
I0720 13:57:10.746953  4246 net.cpp:148] Top shape: 1 1 1000 (1000)
I0720 13:57:10.746956  4246 net.cpp:156] Memory required for data: 46016
I0720 13:57:10.746961  4246 layer_factory.hpp:77] Creating layer lstm1_transform_1
I0720 13:57:10.746979  4246 net.cpp:91] Creating Layer lstm1_transform_1
I0720 13:57:10.746984  4246 net.cpp:425] lstm1_transform_1 <- h_conted_0
I0720 13:57:10.747001  4246 net.cpp:399] lstm1_transform_1 -> W_hc_h_0
I0720 13:57:10.756518  4276 net.cpp:141] Setting up fc6
I0720 13:57:10.756588  4276 net.cpp:148] Top shape: 10 4096 (40960)
I0720 13:57:10.756597  4276 net.cpp:156] Memory required for data: 67782200
I0720 13:57:10.756621  4276 layer_factory.hpp:77] Creating layer relu6
I0720 13:57:10.757388  4276 net.cpp:91] Creating Layer relu6
I0720 13:57:10.757392  4272 net.cpp:141] Setting up fc7
I0720 13:57:10.757392  4266 net.cpp:141] Setting up fc7
I0720 13:57:10.757388  4260 net.cpp:141] Setting up fc6
I0720 13:57:10.757446  4266 net.cpp:148] Top shape: 10 4096 (40960)
I0720 13:57:10.757424  4276 net.cpp:425] relu6 <- fc6
I0720 13:57:10.757439  4272 net.cpp:148] Top shape: 10 4096 (40960)
I0720 13:57:10.757467  4260 net.cpp:148] Top shape: 10 4096 (40960)
I0720 13:57:10.757473  4272 net.cpp:156] Memory required for data: 68273720
I0720 13:57:10.757455  4266 net.cpp:156] Memory required for data: 68273720
I0720 13:57:10.757479  4260 net.cpp:156] Memory required for data: 67782200
I0720 13:57:10.757482  4276 net.cpp:386] relu6 -> fc6 (in-place)
I0720 13:57:10.757491  4272 layer_factory.hpp:77] Creating layer relu7
I0720 13:57:10.757496  4266 layer_factory.hpp:77] Creating layer relu7
I0720 13:57:10.757500  4260 layer_factory.hpp:77] Creating layer relu6
I0720 13:57:10.757509  4272 net.cpp:91] Creating Layer relu7
I0720 13:57:10.757516  4272 net.cpp:425] relu7 <- fc7
I0720 13:57:10.757515  4260 net.cpp:91] Creating Layer relu6
I0720 13:57:10.757526  4260 net.cpp:425] relu6 <- fc6
I0720 13:57:10.758308  4266 net.cpp:91] Creating Layer relu7
I0720 13:57:10.758308  4272 net.cpp:386] relu7 -> fc7 (in-place)
I0720 13:57:10.758332  4266 net.cpp:425] relu7 <- fc7
I0720 13:57:10.758338  4260 net.cpp:386] relu6 -> fc6 (in-place)
I0720 13:57:10.758352  4266 net.cpp:386] relu7 -> fc7 (in-place)
I0720 13:57:10.758997  4270 net.cpp:141] Setting up fc7
I0720 13:57:10.759032  4270 net.cpp:148] Top shape: 10 4096 (40960)
I0720 13:57:10.759039  4270 net.cpp:156] Memory required for data: 68273720
I0720 13:57:10.759059  4270 layer_factory.hpp:77] Creating layer relu7
I0720 13:57:10.759074  4270 net.cpp:91] Creating Layer relu7
I0720 13:57:10.759084  4270 net.cpp:425] relu7 <- fc7
I0720 13:57:10.759100  4270 net.cpp:386] relu7 -> fc7 (in-place)
I0720 13:57:10.767365  4276 net.cpp:141] Setting up relu6
I0720 13:57:10.767365  4260 net.cpp:141] Setting up relu6
I0720 13:57:10.767436  4276 net.cpp:148] Top shape: 10 4096 (40960)
I0720 13:57:10.767436  4260 net.cpp:148] Top shape: 10 4096 (40960)
I0720 13:57:10.767444  4276 net.cpp:156] Memory required for data: 67946040
I0720 13:57:10.767451  4260 net.cpp:156] Memory required for data: 67946040
I0720 13:57:10.767459  4276 layer_factory.hpp:77] Creating layer drop6
I0720 13:57:10.767462  4260 layer_factory.hpp:77] Creating layer drop6
I0720 13:57:10.767484  4260 net.cpp:91] Creating Layer drop6
I0720 13:57:10.767484  4276 net.cpp:91] Creating Layer drop6
I0720 13:57:10.767501  4260 net.cpp:425] drop6 <- fc6
I0720 13:57:10.767505  4276 net.cpp:425] drop6 <- fc6
I0720 13:57:10.767518  4260 net.cpp:386] drop6 -> fc6 (in-place)
I0720 13:57:10.767544  4260 net.cpp:141] Setting up drop6
I0720 13:57:10.767554  4260 net.cpp:148] Top shape: 10 4096 (40960)
I0720 13:57:10.767561  4260 net.cpp:156] Memory required for data: 68109880
I0720 13:57:10.767570  4260 layer_factory.hpp:77] Creating layer fc7
I0720 13:57:10.768520  4260 net.cpp:91] Creating Layer fc7
I0720 13:57:10.768520  4276 net.cpp:386] drop6 -> fc6 (in-place)
I0720 13:57:10.768545  4260 net.cpp:425] fc7 <- fc6
I0720 13:57:10.768559  4260 net.cpp:399] fc7 -> fc7
I0720 13:57:10.768561  4276 net.cpp:141] Setting up drop6
I0720 13:57:10.768578  4276 net.cpp:148] Top shape: 10 4096 (40960)
I0720 13:57:10.768586  4276 net.cpp:156] Memory required for data: 68109880
I0720 13:57:10.768595  4276 layer_factory.hpp:77] Creating layer fc7
I0720 13:57:10.768609  4276 net.cpp:91] Creating Layer fc7
I0720 13:57:10.768617  4276 net.cpp:425] fc7 <- fc6
I0720 13:57:10.769347  4276 net.cpp:399] fc7 -> fc7
I0720 13:57:10.769376  4254 net.cpp:141] Setting up fc6
I0720 13:57:10.769382  4266 net.cpp:141] Setting up relu7
I0720 13:57:10.769397  4254 net.cpp:148] Top shape: 10 4096 (40960)
I0720 13:57:10.769428  4266 net.cpp:148] Top shape: 10 4096 (40960)
I0720 13:57:10.769428  4254 net.cpp:156] Memory required for data: 67782200
I0720 13:57:10.769434  4266 net.cpp:156] Memory required for data: 68437560
I0720 13:57:10.769444  4266 layer_factory.hpp:77] Creating layer drop7
I0720 13:57:10.769448  4254 layer_factory.hpp:77] Creating layer relu6
I0720 13:57:10.769462  4254 net.cpp:91] Creating Layer relu6
I0720 13:57:10.769470  4254 net.cpp:425] relu6 <- fc6
I0720 13:57:10.770540  4254 net.cpp:386] relu6 -> fc6 (in-place)
I0720 13:57:10.770545  4266 net.cpp:91] Creating Layer drop7
I0720 13:57:10.770548  4272 net.cpp:141] Setting up relu7
I0720 13:57:10.770565  4266 net.cpp:425] drop7 <- fc7
I0720 13:57:10.770539  4270 net.cpp:141] Setting up relu7
I0720 13:57:10.770581  4272 net.cpp:148] Top shape: 10 4096 (40960)
I0720 13:57:10.770581  4266 net.cpp:386] drop7 -> fc7 (in-place)
I0720 13:57:10.770589  4272 net.cpp:156] Memory required for data: 68437560
I0720 13:57:10.770592  4270 net.cpp:148] Top shape: 10 4096 (40960)
I0720 13:57:10.770597  4272 layer_factory.hpp:77] Creating layer drop7
I0720 13:57:10.770603  4270 net.cpp:156] Memory required for data: 68437560
I0720 13:57:10.770608  4272 net.cpp:91] Creating Layer drop7
I0720 13:57:10.770617  4272 net.cpp:425] drop7 <- fc7
I0720 13:57:10.770606  4266 net.cpp:141] Setting up drop7
I0720 13:57:10.770618  4270 layer_factory.hpp:77] Creating layer drop7
I0720 13:57:10.770624  4272 net.cpp:386] drop7 -> fc7 (in-place)
I0720 13:57:10.770627  4266 net.cpp:148] Top shape: 10 4096 (40960)
I0720 13:57:10.770632  4266 net.cpp:156] Memory required for data: 68601400
I0720 13:57:10.770635  4272 net.cpp:141] Setting up drop7
I0720 13:57:10.770637  4266 layer_factory.hpp:77] Creating layer fc8
I0720 13:57:10.770642  4272 net.cpp:148] Top shape: 10 4096 (40960)
I0720 13:57:10.770647  4272 net.cpp:156] Memory required for data: 68601400
I0720 13:57:10.770648  4266 net.cpp:91] Creating Layer fc8
I0720 13:57:10.770650  4272 layer_factory.hpp:77] Creating layer fc8
I0720 13:57:10.770653  4266 net.cpp:425] fc8 <- fc7
I0720 13:57:10.770659  4266 net.cpp:399] fc8 -> fc8
I0720 13:57:10.771261  4270 net.cpp:91] Creating Layer drop7
I0720 13:57:10.771265  4272 net.cpp:91] Creating Layer fc8
I0720 13:57:10.771278  4270 net.cpp:425] drop7 <- fc7
I0720 13:57:10.771286  4272 net.cpp:425] fc8 <- fc7
I0720 13:57:10.771293  4270 net.cpp:386] drop7 -> fc7 (in-place)
I0720 13:57:10.771296  4272 net.cpp:399] fc8 -> fc8
I0720 13:57:10.771311  4270 net.cpp:141] Setting up drop7
I0720 13:57:10.771872  4270 net.cpp:148] Top shape: 10 4096 (40960)
I0720 13:57:10.771885  4270 net.cpp:156] Memory required for data: 68601400
I0720 13:57:10.771895  4270 layer_factory.hpp:77] Creating layer fc8
I0720 13:57:10.771910  4270 net.cpp:91] Creating Layer fc8
I0720 13:57:10.771919  4270 net.cpp:425] fc8 <- fc7
I0720 13:57:10.771931  4270 net.cpp:399] fc8 -> fc8
I0720 13:57:10.774575  4254 net.cpp:141] Setting up relu6
I0720 13:57:10.774631  4254 net.cpp:148] Top shape: 10 4096 (40960)
I0720 13:57:10.774638  4254 net.cpp:156] Memory required for data: 67946040
I0720 13:57:10.774651  4254 layer_factory.hpp:77] Creating layer drop6
I0720 13:57:10.775132  4254 net.cpp:91] Creating Layer drop6
I0720 13:57:10.775148  4254 net.cpp:425] drop6 <- fc6
I0720 13:57:10.775164  4254 net.cpp:386] drop6 -> fc6 (in-place)
I0720 13:57:10.775188  4254 net.cpp:141] Setting up drop6
I0720 13:57:10.775202  4254 net.cpp:148] Top shape: 10 4096 (40960)
I0720 13:57:10.775208  4254 net.cpp:156] Memory required for data: 68109880
I0720 13:57:10.775215  4254 layer_factory.hpp:77] Creating layer fc7
I0720 13:57:10.775229  4254 net.cpp:91] Creating Layer fc7
I0720 13:57:10.775236  4254 net.cpp:425] fc7 <- fc6
I0720 13:57:10.775245  4254 net.cpp:399] fc7 -> fc7
I0720 13:57:10.777286  4278 net.cpp:141] Setting up fc7
I0720 13:57:10.777355  4278 net.cpp:148] Top shape: 10 4096 (40960)
I0720 13:57:10.777420  4278 net.cpp:156] Memory required for data: 68273720
I0720 13:57:10.777447  4278 layer_factory.hpp:77] Creating layer relu7
I0720 13:57:10.778060  4278 net.cpp:91] Creating Layer relu7
I0720 13:57:10.778105  4278 net.cpp:425] relu7 <- fc7
I0720 13:57:10.778127  4278 net.cpp:386] relu7 -> fc7 (in-place)
I0720 13:57:10.779963  4278 net.cpp:141] Setting up relu7
I0720 13:57:10.780040  4278 net.cpp:148] Top shape: 10 4096 (40960)
I0720 13:57:10.780050  4278 net.cpp:156] Memory required for data: 68437560
I0720 13:57:10.780067  4278 layer_factory.hpp:77] Creating layer drop7
I0720 13:57:10.780097  4278 net.cpp:91] Creating Layer drop7
I0720 13:57:10.780110  4278 net.cpp:425] drop7 <- fc7
I0720 13:57:10.780633  4278 net.cpp:386] drop7 -> fc7 (in-place)
I0720 13:57:10.780674  4278 net.cpp:141] Setting up drop7
I0720 13:57:10.780685  4278 net.cpp:148] Top shape: 10 4096 (40960)
I0720 13:57:10.780690  4278 net.cpp:156] Memory required for data: 68601400
I0720 13:57:10.780696  4278 layer_factory.hpp:77] Creating layer fc8
I0720 13:57:10.780709  4278 net.cpp:91] Creating Layer fc8
I0720 13:57:10.780714  4278 net.cpp:425] fc8 <- fc7
I0720 13:57:10.781203  4272 net.cpp:141] Setting up fc8
I0720 13:57:10.781224  4272 net.cpp:148] Top shape: 10 1000 (10000)
I0720 13:57:10.781229  4272 net.cpp:156] Memory required for data: 68641400
I0720 13:57:10.781227  4278 net.cpp:399] fc8 -> fc8
I0720 13:57:10.781246  4272 layer_factory.hpp:77] Creating layer prob
I0720 13:57:10.781258  4272 net.cpp:91] Creating Layer prob
I0720 13:57:10.781265  4272 net.cpp:425] prob <- fc8
I0720 13:57:10.782419  4272 net.cpp:399] prob -> prob
I0720 13:57:10.785027  4270 net.cpp:141] Setting up fc8
I0720 13:57:10.785106  4270 net.cpp:148] Top shape: 10 1000 (10000)
I0720 13:57:10.785117  4270 net.cpp:156] Memory required for data: 68641400
I0720 13:57:10.785142  4270 layer_factory.hpp:77] Creating layer prob
I0720 13:57:10.785168  4270 net.cpp:91] Creating Layer prob
I0720 13:57:10.785179  4270 net.cpp:425] prob <- fc8
I0720 13:57:10.785200  4270 net.cpp:399] prob -> prob
I0720 13:57:10.786350  4266 net.cpp:141] Setting up fc8
I0720 13:57:10.786418  4266 net.cpp:148] Top shape: 10 1000 (10000)
I0720 13:57:10.786430  4266 net.cpp:156] Memory required for data: 68641400
I0720 13:57:10.786458  4266 layer_factory.hpp:77] Creating layer prob
I0720 13:57:10.786942  4258 net.cpp:141] Setting up fc7
I0720 13:57:10.786983  4258 net.cpp:148] Top shape: 10 4096 (40960)
I0720 13:57:10.786989  4258 net.cpp:156] Memory required for data: 68273720
I0720 13:57:10.787011  4258 layer_factory.hpp:77] Creating layer relu7
I0720 13:57:10.787036  4258 net.cpp:91] Creating Layer relu7
I0720 13:57:10.787047  4258 net.cpp:425] relu7 <- fc7
I0720 13:57:10.787061  4258 net.cpp:386] relu7 -> fc7 (in-place)
I0720 13:57:10.787875  4266 net.cpp:91] Creating Layer prob
I0720 13:57:10.787916  4266 net.cpp:425] prob <- fc8
I0720 13:57:10.787935  4266 net.cpp:399] prob -> prob
I0720 13:57:10.793409  4278 net.cpp:141] Setting up fc8
I0720 13:57:10.793465  4278 net.cpp:148] Top shape: 10 1000 (10000)
I0720 13:57:10.793472  4278 net.cpp:156] Memory required for data: 68641400
I0720 13:57:10.793486  4278 layer_factory.hpp:77] Creating layer prob
I0720 13:57:10.794448  4278 net.cpp:91] Creating Layer prob
I0720 13:57:10.794479  4278 net.cpp:425] prob <- fc8
I0720 13:57:10.794976  4270 net.cpp:141] Setting up prob
I0720 13:57:10.795047  4270 net.cpp:148] Top shape: 10 1000 (10000)
I0720 13:57:10.794999  4278 net.cpp:399] prob -> prob
I0720 13:57:10.795058  4270 net.cpp:156] Memory required for data: 68681400
I0720 13:57:10.795096  4270 net.cpp:219] prob does not need backward computation.
I0720 13:57:10.795107  4270 net.cpp:219] fc8 does not need backward computation.
I0720 13:57:10.795116  4270 net.cpp:219] drop7 does not need backward computation.
I0720 13:57:10.795123  4270 net.cpp:219] relu7 does not need backward computation.
…
I0720 13:57:10.802404  4278 net.cpp:219] data does not need backward computation.
I0720 13:57:10.802407  4278 net.cpp:261] This network produces output prob
I0720 13:57:10.802898  4246 net.cpp:91] Creating Layer lstm1_gate_input_1
I0720 13:57:10.802924  4246 net.cpp:425] lstm1_gate_input_1 <- W_hc_h_0
I0720 13:57:10.802940  4246 net.cpp:425] lstm1_gate_input_1 <- W_xc_x_1
I0720 13:57:10.802945  4278 net.cpp:274] Network initialization done.
I0720 13:57:10.802958  4246 net.cpp:399] lstm1_gate_input_1 -> gate_input_1
I0720 13:57:10.802978  4244 net.cpp:141] Setting up relu6
I0720 13:57:10.803001  4244 net.cpp:148] Top shape: 10 4096 (40960)
I0720 13:57:10.803007  4244 net.cpp:156] Memory required for data: 67946040
I0720 13:57:10.803014  4244 layer_factory.hpp:77] Creating layer drop6
I0720 13:57:10.803028  4244 net.cpp:91] Creating Layer drop6
I0720 13:57:10.803035  4244 net.cpp:425] drop6 <- fc6
I0720 13:57:10.803041  4244 net.cpp:386] drop6 -> fc6 (in-place)
I0720 13:57:10.803052  4244 net.cpp:141] Setting up drop6
I0720 13:57:10.803058  4244 net.cpp:148] Top shape: 10 4096 (40960)
I0720 13:57:10.803062  4244 net.cpp:156] Memory required for data: 68109880
I0720 13:57:10.803066  4244 layer_factory.hpp:77] Creating layer fc7
I0720 13:57:10.803624  4244 net.cpp:91] Creating Layer fc7
I0720 13:57:10.803640  4244 net.cpp:425] fc7 <- fc6
I0720 13:57:10.803650  4244 net.cpp:399] fc7 -> fc7
I0720 13:57:10.803671  4246 net.cpp:141] Setting up lstm1_gate_input_1
I0720 13:57:10.803706  4246 net.cpp:148] Top shape: 1 1 4000 (4000)
I0720 13:57:10.803715  4246 net.cpp:156] Memory required for data: 78016
I0720 13:57:10.803728  4246 layer_factory.hpp:77] Creating layer lstm1_unit_1
I0720 13:57:10.803748  4246 net.cpp:91] Creating Layer lstm1_unit_1
I0720 13:57:10.803758  4246 net.cpp:425] lstm1_unit_1 <- c_0
I0720 13:57:10.803771  4246 net.cpp:425] lstm1_unit_1 <- gate_input_1
I0720 13:57:10.803781  4246 net.cpp:425] lstm1_unit_1 <- cont_1_lstm1_cont_slice_0_split_1
I0720 13:57:10.803800  4246 net.cpp:399] lstm1_unit_1 -> c_1
I0720 13:57:10.803817  4246 net.cpp:399] lstm1_unit_1 -> h_1
I0720 13:57:10.804343  4246 net.cpp:141] Setting up lstm1_unit_1
I0720 13:57:10.804381  4246 net.cpp:148] Top shape: 1 1 1000 (1000)
I0720 13:57:10.804394  4246 net.cpp:148] Top shape: 1 1 1000 (1000)
I0720 13:57:10.804400  4246 net.cpp:156] Memory required for data: 86016
I0720 13:57:10.804411  4246 layer_factory.hpp:77] Creating layer lstm1_
I0720 13:57:10.804430  4246 net.cpp:91] Creating Layer lstm1_
I0720 13:57:10.804440  4246 net.cpp:425] lstm1_ <- c_1
I0720 13:57:10.804455  4246 net.cpp:399] lstm1_ -> c_T
I0720 13:57:10.804584  4246 net.cpp:141] Setting up lstm1_
I0720 13:57:10.804600  4246 net.cpp:148] Top shape: 1 1 1000 (1000)
I0720 13:57:10.804607  4246 net.cpp:156] Memory required for data: 90016
I0720 13:57:10.804615  4246 layer_factory.hpp:77] Creating layer lstm1_h_concat
I0720 13:57:10.804633  4246 net.cpp:91] Creating Layer lstm1_h_concat
I0720 13:57:10.804642  4246 net.cpp:425] lstm1_h_concat <- h_1
I0720 13:57:10.804656  4246 net.cpp:399] lstm1_h_concat -> h
I0720 13:57:10.804729  4246 net.cpp:141] Setting up lstm1_h_concat
I0720 13:57:10.804744  4246 net.cpp:148] Top shape: 1 1 1000 (1000)
I0720 13:57:10.804754  4246 net.cpp:156] Memory required for data: 94016
I0720 13:57:10.804761  4246 layer_factory.hpp:77] Creating layer h_pseudoloss
I0720 13:57:10.804795  4246 net.cpp:91] Creating Layer h_pseudoloss
I0720 13:57:10.804803  4246 net.cpp:425] h_pseudoloss <- h
I0720 13:57:10.804814  4246 net.cpp:399] h_pseudoloss -> h_pseudoloss
I0720 13:57:10.804982  4246 net.cpp:141] Setting up h_pseudoloss
…
I0720 13:57:10.805240  4246 net.cpp:219] lstm1_ does not need backward computation.
I0720 13:57:10.805253  4246 net.cpp:261] This network produces output c_T
I0720 13:57:10.805269  4246 net.cpp:261] This network produces output h_pseudoloss
I0720 13:57:10.805305  4246 net.cpp:274] Network initialization done.
I0720 13:57:10.805456  4246 recurrent_layer.cpp:150] Adding parameter 0: W_xc
I0720 13:57:10.805477  4246 recurrent_layer.cpp:150] Adding parameter 1: b_c
I0720 13:57:10.805495  4246 recurrent_layer.cpp:150] Adding parameter 2: W_hc
I0720 13:57:10.806020  4246 net.cpp:141] Setting up lstm1
I0720 13:57:10.806064  4246 net.cpp:148] Top shape: 1 1 1000 (1000)
I0720 13:57:10.806082  4246 net.cpp:156] Memory required for data: 26408
I0720 13:57:10.806134  4246 layer_factory.hpp:77] Creating layer concat
I0720 13:57:10.806176  4246 net.cpp:91] Creating Layer concat
I0720 13:57:10.806200  4246 net.cpp:425] concat <- lstm1
I0720 13:57:10.806228  4246 net.cpp:425] concat <- embedded_input_sentence
I0720 13:57:10.806252  4246 net.cpp:425] concat <- reshaped_stage_indicator
I0720 13:57:10.806283  4246 net.cpp:399] concat -> lstm1_video_sequence
I0720 13:57:10.806421  4246 net.cpp:141] Setting up concat
I0720 13:57:10.806449  4246 net.cpp:148] Top shape: 1 1 1501 (1501)
I0720 13:57:10.806465  4246 net.cpp:156] Memory required for data: 32412
I0720 13:57:10.806488  4246 layer_factory.hpp:77] Creating layer lstm2
I0720 13:57:10.806531  4246 net.cpp:91] Creating Layer lstm2
I0720 13:57:10.806552  4246 net.cpp:425] lstm2 <- lstm1_video_sequence
I0720 13:57:10.806576  4246 net.cpp:425] lstm2 <- cont_sentence_input_1_split_1
I0720 13:57:10.806609  4246 net.cpp:399] lstm2 -> lstm2
I0720 13:57:10.806650  4246 recurrent_layer.cpp:20] Initializing recurrent layer: assuming input batch contains 1 timesteps of 1 independent streams.
I0720 13:57:10.807390  4246 net.cpp:49] Initializing net from parameters: 
layer {
  name: "lstm2_"
  type: "Input"
  top: "x"
  top: "cont"
  input_param {
    shape {
      dim: 1
      dim: 1
      dim: 1501
    }
    shape {
      dim: 1
      dim: 1
    }
  }
}
layer {
  name: "lstm2_"
  type: "Input"
  top: "c_0"
  top: "h_0"
  input_param {
    shape {
      dim: 1
      dim: 1
      dim: 1000
    }
    shape {
      dim: 1
      dim: 1
      dim: 1000
    }
  }
}
layer {
  name: "lstm2_cont_slice"
  type: "Slice"
  bottom: "cont"
  top: "cont_1"
  slice_param {
    axis: 0
  }
}
layer {
  name: "lstm2_x_transform"
  type: "InnerProduct"
  bottom: "x"
  top: "W_xc_x"
  param {
    name: "W_xc"
  }
  param {
    name: "b_c"
  }
  propagate_down: true
  inner_product_param {
    num_output: 4000
    bias_term: true
    weight_filler {
      type: "uniform"
      min: -0.08
      max: 0.08
    }
    bias_filler {
      type: "constant"
      value: 0
    }
    axis: 2
  }
}
layer {
  name: "lstm2_W_xc_x_slice"
  type: "Slice"
  bottom: "W_xc_x"
  top: "W_xc_x_1"
  slice_param {
    axis: 0
  }
}
layer {
  name: "lstm2_h_conted_0"
  type: "Scale"
  bottom: "h_0"
  bottom: "cont_1"
  top: "h_conted_0"
  scale_param {
    axis: 0
  }
}
layer {
  name: "lstm2_transform_1"
  type: "InnerProduct"
  bottom: "h_conted_0"
  top: "W_hc_h_0"
  param {
    name: "W_hc"
  }
  inner_product_param {
    num_output: 4000
    bias_term: false
    weight_filler {
      type: "uniform"
      min: -0.08
      max: 0.08
    }
    axis: 2
  }
}
layer {
  name: "lstm2_gate_input_1"
  type: "Eltwise"
  bottom: "W_hc_h_0"
  bottom: "W_xc_x_1"
  top: "gate_input_1"
  eltwise_param {
    operation: SUM
  }
}
layer {
  name: "lstm2_unit_1"
  type: "LSTMUnit"
  bottom: "c_0"
  bottom: "gate_input_1"
  bottom: "cont_1"
  top: "c_1"
  top: "h_1"
}
layer {
  name: "lstm2_"
  type: "Split"
  bottom: "c_1"
  top: "c_T"
}
layer {
  name: "lstm2_h_concat"
  type: "Concat"
  bottom: "h_1"
  top: "h"
  concat_param {
    axis: 0
  }
}
layer {
  name: "h_pseudoloss"
  type: "Reduction"
  bottom: "h"
  top: "h_pseudoloss"
  loss_weight: 1
}
I0720 13:57:10.807628  4246 layer_factory.hpp:77] Creating layer lstm2_
I0720 13:57:10.807665  4246 net.cpp:91] Creating Layer lstm2_
I0720 13:57:10.807690  4246 net.cpp:399] lstm2_ -> x
I0720 13:57:10.807739  4246 net.cpp:399] lstm2_ -> cont
I0720 13:57:10.808076  4246 net.cpp:141] Setting up lstm2_
I0720 13:57:10.808110  4246 net.cpp:148] Top shape: 1 1 1501 (1501)
I0720 13:57:10.808135  4246 net.cpp:148] Top shape: 1 1 (1)
I0720 13:57:10.808149  4246 net.cpp:156] Memory required for data: 6008
I0720 13:57:10.808171  4246 layer_factory.hpp:77] Creating layer lstm2_
I0720 13:57:10.808203  4246 net.cpp:91] Creating Layer lstm2_
I0720 13:57:10.808240  4246 net.cpp:399] lstm2_ -> c_0
I0720 13:57:10.808280  4246 net.cpp:399] lstm2_ -> h_0
I0720 13:57:10.808478  4246 net.cpp:141] Setting up lstm2_
I0720 13:57:10.808511  4246 net.cpp:148] Top shape: 1 1 1000 (1000)
I0720 13:57:10.808531  4246 net.cpp:148] Top shape: 1 1 1000 (1000)
I0720 13:57:10.808545  4246 net.cpp:156] Memory required for data: 14008
I0720 13:57:10.808560  4246 layer_factory.hpp:77] Creating layer lstm2_cont_slice
I0720 13:57:10.808589  4246 net.cpp:91] Creating Layer lstm2_cont_slice
I0720 13:57:10.808607  4246 net.cpp:425] lstm2_cont_slice <- cont
I0720 13:57:10.808631  4246 net.cpp:399] lstm2_cont_slice -> cont_1
I0720 13:57:10.808744  4246 net.cpp:141] Setting up lstm2_cont_slice
I0720 13:57:10.808773  4246 net.cpp:148] Top shape: 1 1 (1)
I0720 13:57:10.808789  4246 net.cpp:156] Memory required for data: 14012
I0720 13:57:10.808804  4246 layer_factory.hpp:77] Creating layer cont_1_lstm2_cont_slice_0_split
I0720 13:57:10.808835  4246 net.cpp:91] Creating Layer cont_1_lstm2_cont_slice_0_split
I0720 13:57:10.808852  4246 net.cpp:425] cont_1_lstm2_cont_slice_0_split <- cont_1
I0720 13:57:10.808876  4246 net.cpp:399] cont_1_lstm2_cont_slice_0_split -> cont_1_lstm2_cont_slice_0_split_0
I0720 13:57:10.808912  4246 net.cpp:399] cont_1_lstm2_cont_slice_0_split -> cont_1_lstm2_cont_slice_0_split_1
I0720 13:57:10.809116  4246 net.cpp:141] Setting up cont_1_lstm2_cont_slice_0_split
I0720 13:57:10.809144  4246 net.cpp:148] Top shape: 1 1 (1)
I0720 13:57:10.809164  4246 net.cpp:148] Top shape: 1 1 (1)
I0720 13:57:10.809176  4246 net.cpp:156] Memory required for data: 14020
I0720 13:57:10.809192  4246 layer_factory.hpp:77] Creating layer lstm2_x_transform
I0720 13:57:10.810861  4246 net.cpp:91] Creating Layer lstm2_x_transform
I0720 13:57:10.810905  4246 net.cpp:425] lstm2_x_transform <- x
I0720 13:57:10.810941  4246 net.cpp:399] lstm2_x_transform -> W_xc_x
I0720 13:57:10.811388  4260 net.cpp:141] Setting up fc7
I0720 13:57:10.811452  4260 net.cpp:148] Top shape: 10 4096 (40960)
I0720 13:57:10.811463  4260 net.cpp:156] Memory required for data: 68273720
I0720 13:57:10.811485  4260 layer_factory.hpp:77] Creating layer relu7
I0720 13:57:10.811488  4258 net.cpp:141] Setting up fc8
I0720 13:57:10.811501  4260 net.cpp:91] Creating Layer relu7
I0720 13:57:10.811511  4260 net.cpp:425] relu7 <- fc7
I0720 13:57:10.811511  4258 net.cpp:148] Top shape: 10 1000 (10000)
I0720 13:57:10.811522  4258 net.cpp:156] Memory required for data: 68641400
I0720 13:57:10.811538  4258 layer_factory.hpp:77] Creating layer prob
I0720 13:57:10.811553  4258 net.cpp:91] Creating Layer prob
I0720 13:57:10.811564  4258 net.cpp:425] prob <- fc8
I0720 13:57:10.822768  4260 net.cpp:386] relu7 -> fc7 (in-place)
I0720 13:57:10.822820  4258 net.cpp:399] prob -> prob
I0720 13:57:10.822825  4276 net.cpp:141] Setting up fc7
I0720 13:57:10.822855  4276 net.cpp:148] Top shape: 10 4096 (40960)
I0720 13:57:10.822861  4276 net.cpp:156] Memory required for data: 68273720
I0720 13:57:10.822876  4276 layer_factory.hpp:77] Creating layer relu7
I0720 13:57:10.823415  4276 net.cpp:91] Creating Layer relu7
I0720 13:57:10.823418  4254 net.cpp:141] Setting up fc7
I0720 13:57:10.823438  4276 net.cpp:425] relu7 <- fc7
I0720 13:57:10.823446  4254 net.cpp:148] Top shape: 10 4096 (40960)
I0720 13:57:10.823453  4254 net.cpp:156] Memory required for data: 68273720
I0720 13:57:10.823457  4276 net.cpp:386] relu7 -> fc7 (in-place)
I0720 13:57:10.823469  4254 layer_factory.hpp:77] Creating layer relu7
I0720 13:57:10.823482  4254 net.cpp:91] Creating Layer relu7
I0720 13:57:10.823489  4254 net.cpp:425] relu7 <- fc7
I0720 13:57:10.823504  4254 net.cpp:386] relu7 -> fc7 (in-place)
I0720 13:57:10.824657  4264 net.cpp:141] Setting up fc6
I0720 13:57:10.824702  4264 net.cpp:148] Top shape: 10 4096 (40960)
I0720 13:57:10.824709  4264 net.cpp:156] Memory required for data: 67782200
I0720 13:57:10.824728  4264 layer_factory.hpp:77] Creating layer relu6
I0720 13:57:10.824750  4264 net.cpp:91] Creating Layer relu6
I0720 13:57:10.824760  4264 net.cpp:425] relu6 <- fc6
I0720 13:57:10.824772  4264 net.cpp:386] relu6 -> fc6 (in-place)
I0720 13:57:10.833268  4264 net.cpp:141] Setting up relu6
I0720 13:57:10.833319  4264 net.cpp:148] Top shape: 10 4096 (40960)
I0720 13:57:10.833328  4264 net.cpp:156] Memory required for data: 67946040
I0720 13:57:10.833340  4264 layer_factory.hpp:77] Creating layer drop6
I0720 13:57:10.833886  4264 net.cpp:91] Creating Layer drop6
I0720 13:57:10.833902  4264 net.cpp:425] drop6 <- fc6
I0720 13:57:10.833892  4254 net.cpp:141] Setting up relu7
I0720 13:57:10.833892  4260 net.cpp:141] Setting up relu7
I0720 13:57:10.833935  4254 net.cpp:148] Top shape: 10 4096 (40960)
I0720 13:57:10.833943  4260 net.cpp:148] Top shape: 10 4096 (40960)
I0720 13:57:10.833943  4254 net.cpp:156] Memory required for data: 68437560
I0720 13:57:10.833959  4260 net.cpp:156] Memory required for data: 68437560
I0720 13:57:10.833966  4260 layer_factory.hpp:77] Creating layer drop7
I0720 13:57:10.833966  4254 layer_factory.hpp:77] Creating layer drop7
I0720 13:57:10.833982  4254 net.cpp:91] Creating Layer drop7
I0720 13:57:10.833992  4254 net.cpp:425] drop7 <- fc7
I0720 13:57:10.834899  4264 net.cpp:386] drop6 -> fc6 (in-place)
I0720 13:57:10.834908  4276 net.cpp:141] Setting up relu7
I0720 13:57:10.834904  4254 net.cpp:386] drop7 -> fc7 (in-place)
I0720 13:57:10.834910  4260 net.cpp:91] Creating Layer drop7
I0720 13:57:10.834930  4276 net.cpp:148] Top shape: 10 4096 (40960)
I0720 13:57:10.834939  4264 net.cpp:141] Setting up drop6
I0720 13:57:10.834910  4258 net.cpp:141] Setting up prob
I0720 13:57:10.834947  4254 net.cpp:141] Setting up drop7
I0720 13:57:10.834949  4276 net.cpp:156] Memory required for data: 68437560
I0720 13:57:10.834969  4258 net.cpp:148] Top shape: 10 1000 (10000)
I0720 13:57:10.834972  4254 net.cpp:148] Top shape: 10 4096 (40960)
I0720 13:57:10.834977  4276 layer_factory.hpp:77] Creating layer drop7
I0720 13:57:10.834949  4260 net.cpp:425] drop7 <- fc7
I0720 13:57:10.834954  4264 net.cpp:148] Top shape: 10 4096 (40960)
I0720 13:57:10.835003  4260 net.cpp:386] drop7 -> fc7 (in-place)
I0720 13:57:10.835010  4264 net.cpp:156] Memory required for data: 68109880
I0720 13:57:10.834982  4258 net.cpp:156] Memory required for data: 68681400
I0720 13:57:10.835023  4264 layer_factory.hpp:77] Creating layer fc7
I0720 13:57:10.835026  4260 net.cpp:141] Setting up drop7
I0720 13:57:10.834983  4254 net.cpp:156] Memory required for data: 68601400
I0720 13:57:10.835034  4258 net.cpp:219] prob does not need backward computation.
I0720 13:57:10.835043  4260 net.cpp:148] Top shape: 10 4096 (40960)
I0720 13:57:10.835047  4254 layer_factory.hpp:77] Creating layer fc8
I0720 13:57:10.835042  4264 net.cpp:91] Creating Layer fc7
I0720 13:57:10.835053  4260 net.cpp:156] Memory required for data: 68601400
I0720 13:57:10.835055  4258 net.cpp:219] fc8 does not need backward computation.
I0720 13:57:10.835067  4260 layer_factory.hpp:77] Creating layer fc8
I0720 13:57:10.835062  4264 net.cpp:425] fc7 <- fc6
…
I0720 13:57:10.835275  4258 net.cpp:219] data does not need backward computation.
I0720 13:57:10.835283  4258 net.cpp:261] This network produces output prob
I0720 13:57:10.835569  4254 net.cpp:399] fc8 -> fc8
I0720 13:57:10.835569  4260 net.cpp:399] fc8 -> fc8
I0720 13:57:10.835575  4276 net.cpp:91] Creating Layer drop7
I0720 13:57:10.835597  4258 net.cpp:274] Network initialization done.
I0720 13:57:10.835608  4276 net.cpp:425] drop7 <- fc7
I0720 13:57:10.835623  4276 net.cpp:386] drop7 -> fc7 (in-place)
I0720 13:57:10.835641  4276 net.cpp:141] Setting up drop7
I0720 13:57:10.836156  4276 net.cpp:148] Top shape: 10 4096 (40960)
I0720 13:57:10.836165  4276 net.cpp:156] Memory required for data: 68601400
I0720 13:57:10.836170  4276 layer_factory.hpp:77] Creating layer fc8
I0720 13:57:10.836180  4276 net.cpp:91] Creating Layer fc8
I0720 13:57:10.836185  4276 net.cpp:425] fc8 <- fc7
I0720 13:57:10.836192  4276 net.cpp:399] fc8 -> fc8
I0720 13:57:10.845209  4254 net.cpp:141] Setting up fc8
I0720 13:57:10.845278  4254 net.cpp:148] Top shape: 10 1000 (10000)
I0720 13:57:10.845288  4254 net.cpp:156] Memory required for data: 68641400
I0720 13:57:10.845309  4254 layer_factory.hpp:77] Creating layer prob
I0720 13:57:10.845336  4254 net.cpp:91] Creating Layer prob
I0720 13:57:10.845345  4254 net.cpp:425] prob <- fc8
I0720 13:57:10.845360  4254 net.cpp:399] prob -> prob
I0720 13:57:10.845883  4260 net.cpp:141] Setting up fc8
I0720 13:57:10.845903  4260 net.cpp:148] Top shape: 10 1000 (10000)
I0720 13:57:10.845908  4260 net.cpp:156] Memory required for data: 68641400
I0720 13:57:10.845919  4260 layer_factory.hpp:77] Creating layer prob
I0720 13:57:10.845927  4260 net.cpp:91] Creating Layer prob
I0720 13:57:10.845932  4260 net.cpp:425] prob <- fc8
I0720 13:57:10.845939  4260 net.cpp:399] prob -> prob
I0720 13:57:10.846979  4276 net.cpp:141] Setting up fc8
I0720 13:57:10.847007  4276 net.cpp:148] Top shape: 10 1000 (10000)
I0720 13:57:10.847013  4276 net.cpp:156] Memory required for data: 68641400
I0720 13:57:10.847030  4276 layer_factory.hpp:77] Creating layer prob
I0720 13:57:10.847043  4276 net.cpp:91] Creating Layer prob
I0720 13:57:10.847053  4276 net.cpp:425] prob <- fc8
I0720 13:57:10.847066  4276 net.cpp:399] prob -> prob
I0720 13:57:10.847811  4244 net.cpp:141] Setting up fc7
I0720 13:57:10.847856  4244 net.cpp:148] Top shape: 10 4096 (40960)
I0720 13:57:10.847862  4244 net.cpp:156] Memory required for data: 68273720
I0720 13:57:10.847877  4244 layer_factory.hpp:77] Creating layer relu7
I0720 13:57:10.847892  4244 net.cpp:91] Creating Layer relu7
I0720 13:57:10.847898  4244 net.cpp:425] relu7 <- fc7
I0720 13:57:10.848381  4244 net.cpp:386] relu7 -> fc7 (in-place)
I0720 13:57:10.851155  4244 net.cpp:141] Setting up relu7
I0720 13:57:10.851202  4244 net.cpp:148] Top shape: 10 4096 (40960)
I0720 13:57:10.851637  4244 net.cpp:156] Memory required for data: 68437560
I0720 13:57:10.851649  4244 layer_factory.hpp:77] Creating layer drop7
I0720 13:57:10.851665  4244 net.cpp:91] Creating Layer drop7
I0720 13:57:10.851673  4244 net.cpp:425] drop7 <- fc7
I0720 13:57:10.851685  4244 net.cpp:386] drop7 -> fc7 (in-place)
I0720 13:57:10.851701  4244 net.cpp:141] Setting up drop7
I0720 13:57:10.851707  4244 net.cpp:148] Top shape: 10 4096 (40960)
I0720 13:57:10.851711  4244 net.cpp:156] Memory required for data: 68601400
I0720 13:57:10.851716  4244 layer_factory.hpp:77] Creating layer fc8
I0720 13:57:10.851725  4244 net.cpp:91] Creating Layer fc8
I0720 13:57:10.851729  4244 net.cpp:425] fc8 <- fc7
I0720 13:57:10.852681  4244 net.cpp:399] fc8 -> fc8
I0720 13:57:10.854101  4260 net.cpp:141] Setting up prob
I0720 13:57:10.854142  4260 net.cpp:148] Top shape: 10 1000 (10000)
I0720 13:57:10.854148  4260 net.cpp:156] Memory required for data: 68681400
I0720 13:57:10.854157  4260 net.cpp:219] prob does not need backward computation.
I0720 13:57:10.854163  4260 net.cpp:219] fc8 does not need backward computation.
I0720 13:57:10.854168  4260 net.cpp:219] drop7 does not need backward computation.
I0720 13:57:10.854172  4260 net.cpp:219] relu7 does not need backward computation.
…
I0720 13:57:10.871584  4244 net.cpp:219] conv2 does not need backward computation.
I0720 13:57:10.871589  4244 net.cpp:219] norm1 does not need backward computation.
I0720 13:57:10.872229  4244 net.cpp:219] pool1 does not need backward computation.
I0720 13:57:10.872246  4244 net.cpp:219] relu1 does not need backward computation.
I0720 13:57:10.872252  4244 net.cpp:219] conv1 does not need backward computation.
I0720 13:57:10.872257  4244 net.cpp:219] data does not need backward computation.
I0720 13:57:10.872262  4244 net.cpp:261] This network produces output prob
I0720 13:57:10.872740  4264 net.cpp:141] Setting up fc7
I0720 13:57:10.872762  4264 net.cpp:148] Top shape: 10 4096 (40960)
I0720 13:57:10.872771  4264 net.cpp:156] Memory required for data: 68273720
I0720 13:57:10.872771  4244 net.cpp:274] Network initialization done.
I0720 13:57:10.872791  4264 layer_factory.hpp:77] Creating layer relu7
I0720 13:57:10.872817  4264 net.cpp:91] Creating Layer relu7
I0720 13:57:10.872826  4264 net.cpp:425] relu7 <- fc7
I0720 13:57:10.872838  4264 net.cpp:386] relu7 -> fc7 (in-place)
I0720 13:57:10.875944  4264 net.cpp:141] Setting up relu7
I0720 13:57:10.875993  4264 net.cpp:148] Top shape: 10 4096 (40960)
I0720 13:57:10.876003  4264 net.cpp:156] Memory required for data: 68437560
I0720 13:57:10.876013  4264 layer_factory.hpp:77] Creating layer drop7
I0720 13:57:10.876451  4264 net.cpp:91] Creating Layer drop7
I0720 13:57:10.876468  4264 net.cpp:425] drop7 <- fc7
I0720 13:57:10.876487  4264 net.cpp:386] drop7 -> fc7 (in-place)
I0720 13:57:10.876519  4264 net.cpp:141] Setting up drop7
I0720 13:57:10.876533  4264 net.cpp:148] Top shape: 10 4096 (40960)
I0720 13:57:10.876540  4264 net.cpp:156] Memory required for data: 68601400
I0720 13:57:10.876549  4264 layer_factory.hpp:77] Creating layer fc8
I0720 13:57:10.876564  4264 net.cpp:91] Creating Layer fc8
I0720 13:57:10.876572  4264 net.cpp:425] fc8 <- fc7
I0720 13:57:10.876585  4264 net.cpp:399] fc8 -> fc8
I0720 13:57:10.880735  4246 net.cpp:141] Setting up lstm2_x_transform
I0720 13:57:10.880792  4246 net.cpp:148] Top shape: 1 1 4000 (4000)
I0720 13:57:10.880801  4246 net.cpp:156] Memory required for data: 30020
I0720 13:57:10.880831  4246 layer_factory.hpp:77] Creating layer lstm2_W_xc_x_slice
I0720 13:57:10.880852  4246 net.cpp:91] Creating Layer lstm2_W_xc_x_slice
I0720 13:57:10.880862  4246 net.cpp:425] lstm2_W_xc_x_slice <- W_xc_x
I0720 13:57:10.880877  4246 net.cpp:399] lstm2_W_xc_x_slice -> W_xc_x_1
I0720 13:57:10.880950  4246 net.cpp:141] Setting up lstm2_W_xc_x_slice
I0720 13:57:10.880967  4246 net.cpp:148] Top shape: 1 1 4000 (4000)
I0720 13:57:10.880973  4246 net.cpp:156] Memory required for data: 46020
I0720 13:57:10.880980  4246 layer_factory.hpp:77] Creating layer lstm2_h_conted_0
I0720 13:57:10.880995  4246 net.cpp:91] Creating Layer lstm2_h_conted_0
I0720 13:57:10.881002  4246 net.cpp:425] lstm2_h_conted_0 <- h_0
I0720 13:57:10.881012  4246 net.cpp:425] lstm2_h_conted_0 <- cont_1_lstm2_cont_slice_0_split_0
I0720 13:57:10.881024  4246 net.cpp:399] lstm2_h_conted_0 -> h_conted_0
I0720 13:57:10.881198  4246 net.cpp:141] Setting up lstm2_h_conted_0
I0720 13:57:10.881217  4246 net.cpp:148] Top shape: 1 1 1000 (1000)
I0720 13:57:10.881225  4246 net.cpp:156] Memory required for data: 50020
I0720 13:57:10.881233  4246 layer_factory.hpp:77] Creating layer lstm2_transform_1
I0720 13:57:10.881253  4246 net.cpp:91] Creating Layer lstm2_transform_1
I0720 13:57:10.881263  4246 net.cpp:425] lstm2_transform_1 <- h_conted_0
I0720 13:57:10.881278  4246 net.cpp:399] lstm2_transform_1 -> W_hc_h_0
I0720 13:57:10.891736  4264 net.cpp:141] Setting up fc8
I0720 13:57:10.891789  4264 net.cpp:148] Top shape: 10 1000 (10000)
I0720 13:57:10.891798  4264 net.cpp:156] Memory required for data: 68641400
I0720 13:57:10.891819  4264 layer_factory.hpp:77] Creating layer prob
I0720 13:57:10.891842  4264 net.cpp:91] Creating Layer prob
I0720 13:57:10.891852  4264 net.cpp:425] prob <- fc8
I0720 13:57:10.891870  4264 net.cpp:399] prob -> prob
I0720 13:57:10.897781  4264 net.cpp:141] Setting up prob
I0720 13:57:10.897840  4264 net.cpp:148] Top shape: 10 1000 (10000)
I0720 13:57:10.897853  4264 net.cpp:156] Memory required for data: 68681400
I0720 13:57:10.897868  4264 net.cpp:219] prob does not need backward computation.
I0720 13:57:10.897882  4264 net.cpp:219] fc8 does not need backward computation.
I0720 13:57:10.897891  4264 net.cpp:219] drop7 does not need backward computation.
I0720 13:57:10.897900  4264 net.cpp:219] relu7 does not need backward computation.
…
I0720 13:57:10.898048  4264 net.cpp:219] norm1 does not need backward computation.
I0720 13:57:10.898056  4264 net.cpp:219] pool1 does not need backward computation.
I0720 13:57:10.898064  4264 net.cpp:219] relu1 does not need backward computation.
I0720 13:57:10.898072  4264 net.cpp:219] conv1 does not need backward computation.
I0720 13:57:10.898080  4264 net.cpp:219] data does not need backward computation.
I0720 13:57:10.898087  4264 net.cpp:261] This network produces output prob
I0720 13:57:10.898599  4264 net.cpp:274] Network initialization done.
I0720 13:57:10.923023  4246 net.cpp:141] Setting up lstm2_transform_1
I0720 13:57:10.923090  4246 net.cpp:148] Top shape: 1 1 4000 (4000)
I0720 13:57:10.923100  4246 net.cpp:156] Memory required for data: 66020
I0720 13:57:10.923130  4246 layer_factory.hpp:77] Creating layer lstm2_gate_input_1
I0720 13:57:10.923157  4246 net.cpp:91] Creating Layer lstm2_gate_input_1
I0720 13:57:10.923168  4246 net.cpp:425] lstm2_gate_input_1 <- W_hc_h_0
I0720 13:57:10.923180  4246 net.cpp:425] lstm2_gate_input_1 <- W_xc_x_1
I0720 13:57:10.923193  4246 net.cpp:399] lstm2_gate_input_1 -> gate_input_1
I0720 13:57:10.923266  4246 net.cpp:141] Setting up lstm2_gate_input_1
I0720 13:57:10.923285  4246 net.cpp:148] Top shape: 1 1 4000 (4000)
I0720 13:57:10.923291  4246 net.cpp:156] Memory required for data: 82020
I0720 13:57:10.923298  4246 layer_factory.hpp:77] Creating layer lstm2_unit_1
I0720 13:57:10.923311  4246 net.cpp:91] Creating Layer lstm2_unit_1
I0720 13:57:10.923319  4246 net.cpp:425] lstm2_unit_1 <- c_0
I0720 13:57:10.923328  4246 net.cpp:425] lstm2_unit_1 <- gate_input_1
I0720 13:57:10.923337  4246 net.cpp:425] lstm2_unit_1 <- cont_1_lstm2_cont_slice_0_split_1
I0720 13:57:10.923349  4246 net.cpp:399] lstm2_unit_1 -> c_1
I0720 13:57:10.923363  4246 net.cpp:399] lstm2_unit_1 -> h_1
I0720 13:57:10.923490  4246 net.cpp:141] Setting up lstm2_unit_1
I0720 13:57:10.923506  4246 net.cpp:148] Top shape: 1 1 1000 (1000)
I0720 13:57:10.923518  4246 net.cpp:148] Top shape: 1 1 1000 (1000)
I0720 13:57:10.923527  4246 net.cpp:156] Memory required for data: 90020
I0720 13:57:10.923535  4246 layer_factory.hpp:77] Creating layer lstm2_
I0720 13:57:10.923549  4246 net.cpp:91] Creating Layer lstm2_
I0720 13:57:10.923558  4246 net.cpp:425] lstm2_ <- c_1
I0720 13:57:10.923573  4246 net.cpp:399] lstm2_ -> c_T
I0720 13:57:10.923634  4246 net.cpp:141] Setting up lstm2_
I0720 13:57:10.923650  4246 net.cpp:148] Top shape: 1 1 1000 (1000)
I0720 13:57:10.923658  4246 net.cpp:156] Memory required for data: 94020
I0720 13:57:10.923667  4246 layer_factory.hpp:77] Creating layer lstm2_h_concat
I0720 13:57:10.923687  4246 net.cpp:91] Creating Layer lstm2_h_concat
I0720 13:57:10.923698  4246 net.cpp:425] lstm2_h_concat <- h_1
I0720 13:57:10.923712  4246 net.cpp:399] lstm2_h_concat -> h
I0720 13:57:10.923781  4246 net.cpp:141] Setting up lstm2_h_concat
I0720 13:57:10.923799  4246 net.cpp:148] Top shape: 1 1 1000 (1000)
I0720 13:57:10.923806  4246 net.cpp:156] Memory required for data: 98020
I0720 13:57:10.923815  4246 layer_factory.hpp:77] Creating layer h_pseudoloss
I0720 13:57:10.923830  4246 net.cpp:91] Creating Layer h_pseudoloss
I0720 13:57:10.923838  4246 net.cpp:425] h_pseudoloss <- h
I0720 13:57:10.923856  4246 net.cpp:399] h_pseudoloss -> h_pseudoloss
I0720 13:57:10.924023  4246 net.cpp:141] Setting up h_pseudoloss
…
