…
W0924 04:15:57.143040 25700 upgrade_proto.cpp:71] Note that future Caffe releases will only support input layers and not input fields.
I0924 04:15:57.143307 25686 net.cpp:49] Initializing net from parameters: 
name: "s2vt:features_to_lstm"
state {
  phase: TEST
}
layer {
  name: "input"
  type: "Input"
  top: "frames_fc7"
  top: "cont_sentence"
  top: "input_sentence"
  top: "stage_indicator"
  input_param {
    shape {
      dim: 1
      dim: 4096
    }
    shape {
      dim: 1
      dim: 1
    }
    shape {
      dim: 1
      dim: 1
    }
    shape {
      dim: 1
      dim: 1
    }
  }
}
layer {
  name: "embed_encoder"
  type: "InnerProduct"
  bottom: "frames_fc7"
  top: "embedded_in_frames"
  param {
    lr_mult: 1
    decay_mult: 1
  }
  param {
    lr_mult: 2
    decay_mult: 0
  }
  inner_product_param {
    num_output: 500
    weight_filler {
      type: "xavier"
    }
    bias_filler {
      type: "constant"
      value: 0.2
    }
  }
}
layer {
  name: "reshape_frames"
  type: "Reshape"
  bottom: "embedded_in_frames"
  top: "embedded_input_frames"
  reshape_param {
    shape {
      dim: 1
      dim: 1
      dim: 500
    }
  }
}
layer {
  name: "reshape_stage_indicator"
  type: "Reshape"
  bottom: "stage_indicator"
  top: "reshaped_stage_indicator"
  reshape_param {
    shape {
      dim: 1
      dim: 1
      dim: 1
    }
  }
}
layer {
  name: "embedding"
  type: "Embed"
  bottom: "input_sentence"
  top: "embedded_input_sentence"
  param {
    lr_mult: 1
  }
  embed_param {
    num_output: 500
    input_dim: 46168
    bias_term: false
    weight_filler {
      type: "uniform"
      min: -0.08
      max: 0.08
    }
  }
}
layer {
  name: "lstm1"
  type: "LSTM"
  bottom: "embedded_input_frames"
  bottom: "cont_sentence"
  top: "lstm1"
  recurrent_param {
    num_output: 1000
    weight_filler {
      type: "uniform"
      min: -0.08
      max: 0.08
    }
    bias_filler {
      type: "constant"
      value: 0
    }
  }
}
layer {
  name: "concat"
  type: "Concat"
  bottom: "lstm1"
  bottom: "embedded_input_sentence"
  bottom: "reshaped_stage_indicator"
  top: "lstm1_video_sequence"
  concat_param {
    concat_dim: 2
  }
}
layer {
  name: "lstm2"
  type: "LSTM"
  bottom: "lstm1_video_sequence"
  bottom: "cont_sentence"
  top: "lstm2"
  recurrent_param {
    num_output: 1000
    weight_filler {
      type: "uniform"
      min: -0.08
      max: 0.08
    }
    bias_filler {
      type: "constant"
      value: 0
    }
  }
}
layer {
  name: "predict"
  type: "InnerProduct"
  bottom: "lstm2"
  top: "predict"
  param {
    lr_mult: 1
    decay_mult: 1
  }
  param {
    lr_mult: 2
    decay_mult: 0
  }
  inner_product_param {
    num_output: 46168
    weight_filler {
      type: "uniform"
      min: -0.08
      max: 0.08
    }
    bias_filler {
      type: "constant"
      value: 0
    }
    axis: 2
  }
}
layer {
  name: "probs"
  type: "Softmax"
  bottom: "predict"
  top: "probs"
  softmax_param {
    axis: 2
  }
}
I0924 04:15:57.143311 25712 net.cpp:49] Initializing net from parameters: 
name: "s2vt:features_to_lstm"
state {
  phase: TEST
}
layer {
  name: "input"
  type: "Input"
  top: "frames_fc7"
  top: "cont_sentence"
  top: "input_sentence"
  top: "stage_indicator"
  input_param {
    shape {
      dim: 1
      dim: 4096
    }
    shape {
      dim: 1
      dim: 1
    }
    shape {
      dim: 1
      dim: 1
    }
    shape {
      dim: 1
      dim: 1
    }
  }
}
layer {
  name: "embed_encoder"
  type: "InnerProduct"
  bottom: "frames_fc7"
  top: "embedded_in_frames"
  param {
    lr_mult: 1
    decay_mult: 1
  }
  param {
    lr_mult: 2
    decay_mult: 0
  }
  inner_product_param {
    num_output: 500
    weight_filler {
      type: "xavier"
    }
    bias_filler {
      type: "constant"
      value: 0.2
    }
  }
}
layer {
  name: "reshape_frames"
  type: "Reshape"
  bottom: "embedded_in_frames"
  top: "embedded_input_frames"
  reshape_param {
    shape {
      dim: 1
      dim: 1
      dim: 500
    }
  }
}
layer {
  name: "reshape_stage_indicator"
  type: "Reshape"
  bottom: "stage_indicator"
  top: "reshaped_stage_indicator"
  reshape_param {
    shape {
      dim: 1
      dim: 1
      dim: 1
    }
  }
}
layer {
  name: "embedding"
  type: "Embed"
  bottom: "input_sentence"
  top: "embedded_input_sentence"
  param {
    lr_mult: 1
  }
  embed_param {
    num_output: 500
    input_dim: 46168
    bias_term: false
    weight_filler {
      type: "uniform"
      min: -0.08
      max: 0.08
    }
  }
}
layer {
  name: "lstm1"
  type: "LSTM"
  bottom: "embedded_input_frames"
  bottom: "cont_sentence"
  top: "lstm1"
  recurrent_param {
    num_output: 1000
    weight_filler {
      type: "uniform"
      min: -0.08
      max: 0.08
    }
    bias_filler {
      type: "constant"
      value: 0
    }
  }
}
layer {
  name: "concat"
  type: "Concat"
  bottom: "lstm1"
  bottom: "embedded_input_sentence"
  bottom: "reshaped_stage_indicator"
  top: "lstm1_video_sequence"
  concat_param {
    concat_dim: 2
  }
}
layer {
  name: "lstm2"
  type: "LSTM"
  bottom: "lstm1_video_sequence"
  bottom: "cont_sentence"
  top: "lstm2"
  recurrent_param {
    num_output: 1000
    weight_filler {
      type: "uniform"
      min: -0.08
      max: 0.08
    }
    bias_filler {
      type: "constant"
      value: 0
    }
  }
}
layer {
  name: "predict"
  type: "InnerProduct"
  bottom: "lstm2"
  top: "predict"
  param {
    lr_mult: 1
    decay_mult: 1
  }
  param {
    lr_mult: 2
    decay_mult: 0
  }
  inner_product_param {
    num_output: 46168
    weight_filler {
      type: "uniform"
      min: -0.08
      max: 0.08
    }
    bias_filler {
      type: "constant"
      value: 0
    }
    axis: 2
  }
}
layer {
  name: "probs"
  type: "Softmax"
  bottom: "predict"
  top: "probs"
  softmax_param {
    axis: 2
  }
}
I0924 04:15:57.143327 25734 net.cpp:49] Initializing net from parameters: 
name: "s2vt:features_to_lstm"
state {
  phase: TEST
}
layer {
  name: "input"
  type: "Input"
  top: "frames_fc7"
  top: "cont_sentence"
  top: "input_sentence"
  top: "stage_indicator"
  input_param {
    shape {
      dim: 1
      dim: 4096
    }
    shape {
      dim: 1
      dim: 1
    }
    shape {
      dim: 1
      dim: 1
    }
    shape {
      dim: 1
      dim: 1
    }
  }
}
layer {
  name: "embed_encoder"
  type: "InnerProduct"
  bottom: "frames_fc7"
  top: "embedded_in_frames"
  param {
    lr_mult: 1
    decay_mult: 1
  }
  param {
    lr_mult: 2
    decay_mult: 0
  }
  inner_product_param {
    num_output: 500
    weight_filler {
      type: "xavier"
    }
    bias_filler {
      type: "constant"
      value: 0.2
    }
  }
}
layer {
  name: "reshape_frames"
  type: "Reshape"
  bottom: "embedded_in_frames"
  top: "embedded_input_frames"
  reshape_param {
    shape {
      dim: 1
      dim: 1
      dim: 500
    }
  }
}
layer {
  name: "reshape_stage_indicator"
  type: "Reshape"
  bottom: "stage_indicator"
  top: "reshaped_stage_indicator"
  reshape_param {
    shape {
      dim: 1
      dim: 1
      dim: 1
    }
  }
}
layer {
  name: "embedding"
  type: "Embed"
  bottom: "input_sentence"
  top: "embedded_input_sentence"
  param {
    lr_mult: 1
  }
  embed_param {
    num_output: 500
    input_dim: 46168
    bias_term: false
    weight_filler {
      type: "uniform"
      min: -0.08
      max: 0.08
    }
  }
}
layer {
  name: "lstm1"
  type: "LSTM"
  bottom: "embedded_input_frames"
  bottom: "cont_sentence"
  top: "lstm1"
  recurrent_param {
    num_output: 1000
    weight_filler {
      type: "uniform"
      min: -0.08
      max: 0.08
    }
    bias_filler {
      type: "constant"
      value: 0
    }
  }
}
layer {
  name: "concat"
  type: "Concat"
  bottom: "lstm1"
  bottom: "embedded_input_sentence"
  bottom: "reshaped_stage_indicator"
  top: "lstm1_video_sequence"
  concat_param {
    concat_dim: 2
  }
}
layer {
  name: "lstm2"
  type: "LSTM"
  bottom: "lstm1_video_sequence"
  bottom: "cont_sentence"
  top: "lstm2"
  recurrent_param {
    num_output: 1000
    weight_filler {
      type: "uniform"
      min: -0.08
      max: 0.08
    }
    bias_filler {
      type: "constant"
      value: 0
    }
  }
}
layer {
  name: "predict"
  type: "InnerProduct"
  bottom: "lstm2"
  top: "predict"
  param {
    lr_mult: 1
    decay_mult: 1
  }
  param {
    lr_mult: 2
    decay_mult: 0
  }
  inner_product_param {
    num_output: 46168
    weight_filler {
      type: "uniform"
      min: -0.08
      max: 0.08
    }
    bias_filler {
      type: "constant"
      value: 0
    }
    axis: 2
  }
}
layer {
  name: "probs"
  type: "Softmax"
  bottom: "predict"
  top: "probs"
  softmax_param {
    axis: 2
  }
}
I0924 04:15:57.143311 25706 net.cpp:49] Initializing net from parameters: 
name: "s2vt:features_to_lstm"
state {
  phase: TEST
}
layer {
  name: "input"
  type: "Input"
  top: "frames_fc7"
  top: "cont_sentence"
  top: "input_sentence"
  top: "stage_indicator"
  input_param {
    shape {
      dim: 1
      dim: 4096
    }
    shape {
      dim: 1
      dim: 1
    }
    shape {
      dim: 1
      dim: 1
    }
    shape {
      dim: 1
      dim: 1
    }
  }
}
layer {
  name: "embed_encoder"
  type: "InnerProduct"
  bottom: "frames_fc7"
  top: "embedded_in_frames"
  param {
    lr_mult: 1
    decay_mult: 1
  }
  param {
    lr_mult: 2
    decay_mult: 0
  }
  inner_product_param {
    num_output: 500
    weight_filler {
      type: "xavier"
    }
    bias_filler {
      type: "constant"
      value: 0.2
    }
  }
}
layer {
  name: "reshape_frames"
  type: "Reshape"
  bottom: "embedded_in_frames"
  top: "embedded_input_frames"
  reshape_param {
    shape {
      dim: 1
      dim: 1
      dim: 500
    }
  }
}
layer {
  name: "reshape_stage_indicator"
  type: "Reshape"
  bottom: "stage_indicator"
  top: "reshaped_stage_indicator"
  reshape_param {
    shape {
      dim: 1
      dim: 1
      dim: 1
    }
  }
}
layer {
  name: "embedding"
  type: "Embed"
  bottom: "input_sentence"
  top: "embedded_input_sentence"
  param {
    lr_mult: 1
  }
  embed_param {
    num_output: 500
    input_dim: 46168
    bias_term: false
    weight_filler {
      type: "uniform"
      min: -0.08
      max: 0.08
    }
  }
}
layer {
  name: "lstm1"
  type: "LSTM"
  bottom: "embedded_input_frames"
  bottom: "cont_sentence"
  top: "lstm1"
  recurrent_param {
    num_output: 1000
    weight_filler {
      type: "uniform"
      min: -0.08
      max: 0.08
    }
    bias_filler {
      type: "constant"
      value: 0
    }
  }
}
layer {
  name: "concat"
  type: "Concat"
  bottom: "lstm1"
  bottom: "embedded_input_sentence"
  bottom: "reshaped_stage_indicator"
  top: "lstm1_video_sequence"
  concat_param {
    concat_dim: 2
  }
}
layer {
  name: "lstm2"
  type: "LSTM"
  bottom: "lstm1_video_sequence"
  bottom: "cont_sentence"
  top: "lstm2"
  recurrent_param {
    num_output: 1000
    weight_filler {
      type: "uniform"
      min: -0.08
      max: 0.08
    }
    bias_filler {
      type: "constant"
      value: 0
    }
  }
}
layer {
  name: "predict"
  type: "InnerProduct"
  bottom: "lstm2"
  top: "predict"
  param {
    lr_mult: 1
    decay_mult: 1
  }
  param {
    lr_mult: 2
    decay_mult: 0
  }
  inner_product_param {
    num_output: 46168
    weight_filler {
      type: "uniform"
      min: -0.08
      max: 0.08
    }
    bias_filler {
      type: "constant"
      value: 0
    }
    axis: 2
  }
}
layer {
  name: "probs"
  type: "Softmax"
  bottom: "predict"
  top: "probs"
  softmax_param {
    axis: 2
  }
}
I0924 04:15:57.143308 25678 net.cpp:49] Initializing net from parameters: 
name: "s2vt:features_to_lstm"
state {
  phase: TEST
}
layer {
  name: "input"
  type: "Input"
  top: "frames_fc7"
  top: "cont_sentence"
  top: "input_sentence"
  top: "stage_indicator"
  input_param {
    shape {
      dim: 1
      dim: 4096
    }
    shape {
      dim: 1
      dim: 1
    }
    shape {
      dim: 1
      dim: 1
    }
    shape {
      dim: 1
      dim: 1
    }
  }
}
layer {
  name: "embed_encoder"
  type: "InnerProduct"
  bottom: "frames_fc7"
  top: "embedded_in_frames"
  param {
    lr_mult: 1
    decay_mult: 1
  }
  param {
    lr_mult: 2
    decay_mult: 0
  }
  inner_product_param {
    num_output: 500
    weight_filler {
      type: "xavier"
    }
    bias_filler {
      type: "constant"
      value: 0.2
    }
  }
}
layer {
  name: "reshape_frames"
  type: "Reshape"
  bottom: "embedded_in_frames"
  top: "embedded_input_frames"
  reshape_param {
    shape {
      dim: 1
      dim: 1
      dim: 500
    }
  }
}
layer {
  name: "reshape_stage_indicator"
  type: "Reshape"
  bottom: "stage_indicator"
  top: "reshaped_stage_indicator"
  reshape_param {
    shape {
      dim: 1
      dim: 1
      dim: 1
    }
  }
}
layer {
  name: "embedding"
  type: "Embed"
  bottom: "input_sentence"
  top: "embedded_input_sentence"
  param {
    lr_mult: 1
  }
  embed_param {
    num_output: 500
    input_dim: 46168
    bias_term: false
    weight_filler {
      type: "uniform"
      min: -0.08
      max: 0.08
    }
  }
}
layer {
  name: "lstm1"
  type: "LSTM"
  bottom: "embedded_input_frames"
  bottom: "cont_sentence"
  top: "lstm1"
  recurrent_param {
    num_output: 1000
    weight_filler {
      type: "uniform"
      min: -0.08
      max: 0.08
    }
    bias_filler {
      type: "constant"
      value: 0
    }
  }
}
layer {
  name: "concat"
  type: "Concat"
  bottom: "lstm1"
  bottom: "embedded_input_sentence"
  bottom: "reshaped_stage_indicator"
  top: "lstm1_video_sequence"
  concat_param {
    concat_dim: 2
  }
}
layer {
  name: "lstm2"
  type: "LSTM"
  bottom: "lstm1_video_sequence"
  bottom: "cont_sentence"
  top: "lstm2"
  recurrent_param {
    num_output: 1000
    weight_filler {
      type: "uniform"
      min: -0.08
      max: 0.08
    }
    bias_filler {
      type: "constant"
      value: 0
    }
  }
}
layer {
  name: "predict"
  type: "InnerProduct"
  bottom: "lstm2"
  top: "predict"
  param {
    lr_mult: 1
    decay_mult: 1
  }
  param {
    lr_mult: 2
    decay_mult: 0
  }
  inner_product_param {
    num_output: 46168
    weight_filler {
      type: "uniform"
      min: -0.08
      max: 0.08
    }
    bias_filler {
      type: "constant"
      value: 0
    }
    axis: 2
  }
}
layer {
  name: "probs"
  type: "Softmax"
  bottom: "predict"
  top: "probs"
  softmax_param {
    axis: 2
  }
}
I0924 04:15:57.143332 25690 net.cpp:49] Initializing net from parameters: 
name: "s2vt:features_to_lstm"
state {
  phase: TEST
}
layer {
  name: "input"
  type: "Input"
  top: "frames_fc7"
  top: "cont_sentence"
  top: "input_sentence"
  top: "stage_indicator"
  input_param {
    shape {
      dim: 1
      dim: 4096
    }
    shape {
      dim: 1
      dim: 1
    }
    shape {
      dim: 1
      dim: 1
    }
    shape {
      dim: 1
      dim: 1
    }
  }
}
layer {
  name: "embed_encoder"
  type: "InnerProduct"
  bottom: "frames_fc7"
  top: "embedded_in_frames"
  param {
    lr_mult: 1
    decay_mult: 1
  }
  param {
    lr_mult: 2
    decay_mult: 0
  }
  inner_product_param {
    num_output: 500
    weight_filler {
      type: "xavier"
    }
    bias_filler {
      type: "constant"
      value: 0.2
    }
  }
}
layer {
  name: "reshape_frames"
  type: "Reshape"
  bottom: "embedded_in_frames"
  top: "embedded_input_frames"
  reshape_param {
    shape {
      dim: 1
      dim: 1
      dim: 500
    }
  }
}
layer {
  name: "reshape_stage_indicator"
  type: "Reshape"
  bottom: "stage_indicator"
  top: "reshaped_stage_indicator"
  reshape_param {
    shape {
      dim: 1
      dim: 1
      dim: 1
    }
  }
}
layer {
  name: "embedding"
  type: "Embed"
  bottom: "input_sentence"
  top: "embedded_input_sentence"
  param {
    lr_mult: 1
  }
  embed_param {
    num_output: 500
    input_dim: 46168
    bias_term: false
    weight_filler {
      type: "uniform"
      min: -0.08
      max: 0.08
    }
  }
}
layer {
  name: "lstm1"
  type: "LSTM"
  bottom: "embedded_input_frames"
  bottom: "cont_sentence"
  top: "lstm1"
  recurrent_param {
    num_output: 1000
    weight_filler {
      type: "uniform"
      min: -0.08
      max: 0.08
    }
    bias_filler {
      type: "constant"
      value: 0
    }
  }
}
layer {
  name: "concat"
  type: "Concat"
  bottom: "lstm1"
  bottom: "embedded_input_sentence"
  bottom: "reshaped_stage_indicator"
  top: "lstm1_video_sequence"
  concat_param {
    concat_dim: 2
  }
}
layer {
  name: "lstm2"
  type: "LSTM"
  bottom: "lstm1_video_sequence"
  bottom: "cont_sentence"
  top: "lstm2"
  recurrent_param {
    num_output: 1000
    weight_filler {
      type: "uniform"
      min: -0.08
      max: 0.08
    }
    bias_filler {
      type: "constant"
      value: 0
    }
  }
}
layer {
  name: "predict"
  type: "InnerProduct"
  bottom: "lstm2"
  top: "predict"
  param {
    lr_mult: 1
    decay_mult: 1
  }
  param {
    lr_mult: 2
    decay_mult: 0
  }
  inner_product_param {
    num_output: 46168
    weight_filler {
      type: "uniform"
      min: -0.08
      max: 0.08
    }
    bias_filler {
      type: "constant"
      value: 0
    }
    axis: 2
  }
}
layer {
  name: "probs"
  type: "Softmax"
  bottom: "predict"
  top: "probs"
  softmax_param {
    axis: 2
  }
}
I0924 04:15:57.143367 25738 net.cpp:49] Initializing net from parameters: 
name: "s2vt:features_to_lstm"
state {
  phase: TEST
}
layer {
  name: "input"
  type: "Input"
  top: "frames_fc7"
  top: "cont_sentence"
  top: "input_sentence"
  top: "stage_indicator"
  input_param {
    shape {
      dim: 1
      dim: 4096
    }
    shape {
      dim: 1
      dim: 1
    }
    shape {
      dim: 1
      dim: 1
    }
    shape {
      dim: 1
      dim: 1
    }
  }
}
layer {
  name: "embed_encoder"
  type: "InnerProduct"
  bottom: "frames_fc7"
  top: "embedded_in_frames"
  param {
    lr_mult: 1
    decay_mult: 1
  }
  param {
    lr_mult: 2
    decay_mult: 0
  }
  inner_product_param {
    num_output: 500
    weight_filler {
      type: "xavier"
    }
    bias_filler {
      type: "constant"
      value: 0.2
    }
  }
}
layer {
  name: "reshape_frames"
  type: "Reshape"
  bottom: "embedded_in_frames"
  top: "embedded_input_frames"
  reshape_param {
    shape {
      dim: 1
      dim: 1
      dim: 500
    }
  }
}
layer {
  name: "reshape_stage_indicator"
  type: "Reshape"
  bottom: "stage_indicator"
  top: "reshaped_stage_indicator"
  reshape_param {
    shape {
      dim: 1
      dim: 1
      dim: 1
    }
  }
}
layer {
  name: "embedding"
  type: "Embed"
  bottom: "input_sentence"
  top: "embedded_input_sentence"
  param {
    lr_mult: 1
  }
  embed_param {
    num_output: 500
    input_dim: 46168
    bias_term: false
    weight_filler {
      type: "uniform"
      min: -0.08
      max: 0.08
    }
  }
}
layer {
  name: "lstm1"
  type: "LSTM"
  bottom: "embedded_input_frames"
  bottom: "cont_sentence"
  top: "lstm1"
  recurrent_param {
    num_output: 1000
    weight_filler {
      type: "uniform"
      min: -0.08
      max: 0.08
    }
    bias_filler {
      type: "constant"
      value: 0
    }
  }
}
layer {
  name: "concat"
  type: "Concat"
  bottom: "lstm1"
  bottom: "embedded_input_sentence"
  bottom: "reshaped_stage_indicator"
  top: "lstm1_video_sequence"
  concat_param {
    concat_dim: 2
  }
}
layer {
  name: "lstm2"
  type: "LSTM"
  bottom: "lstm1_video_sequence"
  bottom: "cont_sentence"
  top: "lstm2"
  recurrent_param {
    num_output: 1000
    weight_filler {
      type: "uniform"
      min: -0.08
      max: 0.08
    }
    bias_filler {
      type: "constant"
      value: 0
    }
  }
}
layer {
  name: "predict"
  type: "InnerProduct"
  bottom: "lstm2"
  top: "predict"
  param {
    lr_mult: 1
    decay_mult: 1
  }
  param {
    lr_mult: 2
    decay_mult: 0
  }
  inner_product_param {
    num_output: 46168
    weight_filler {
      type: "uniform"
      min: -0.08
      max: 0.08
    }
    bias_filler {
      type: "constant"
      value: 0
    }
    axis: 2
  }
}
layer {
  name: "probs"
  type: "Softmax"
  bottom: "predict"
  top: "probs"
  softmax_param {
    axis: 2
  }
}
I0924 04:15:57.143370 25726 net.cpp:49] Initializing net from parameters: 
name: "s2vt:features_to_lstm"
state {
  phase: TEST
}
layer {
  name: "input"
  type: "Input"
  top: "frames_fc7"
  top: "cont_sentence"
  top: "input_sentence"
  top: "stage_indicator"
  input_param {
    shape {
      dim: 1
      dim: 4096
    }
    shape {
      dim: 1
      dim: 1
    }
    shape {
      dim: 1
      dim: 1
    }
    shape {
      dim: 1
      dim: 1
    }
  }
}
layer {
  name: "embed_encoder"
  type: "InnerProduct"
  bottom: "frames_fc7"
  top: "embedded_in_frames"
  param {
    lr_mult: 1
    decay_mult: 1
  }
  param {
    lr_mult: 2
    decay_mult: 0
  }
  inner_product_param {
    num_output: 500
    weight_filler {
      type: "xavier"
    }
    bias_filler {
      type: "constant"
      value: 0.2
    }
  }
}
layer {
  name: "reshape_frames"
  type: "Reshape"
  bottom: "embedded_in_frames"
  top: "embedded_input_frames"
  reshape_param {
    shape {
      dim: 1
      dim: 1
      dim: 500
    }
  }
}
layer {
  name: "reshape_stage_indicator"
  type: "Reshape"
  bottom: "stage_indicator"
  top: "reshaped_stage_indicator"
  reshape_param {
    shape {
      dim: 1
      dim: 1
      dim: 1
    }
  }
}
layer {
  name: "embedding"
  type: "Embed"
  bottom: "input_sentence"
  top: "embedded_input_sentence"
  param {
    lr_mult: 1
  }
  embed_param {
    num_output: 500
    input_dim: 46168
    bias_term: false
    weight_filler {
      type: "uniform"
      min: -0.08
      max: 0.08
    }
  }
}
layer {
  name: "lstm1"
  type: "LSTM"
  bottom: "embedded_input_frames"
  bottom: "cont_sentence"
  top: "lstm1"
  recurrent_param {
    num_output: 1000
    weight_filler {
      type: "uniform"
      min: -0.08
      max: 0.08
    }
    bias_filler {
      type: "constant"
      value: 0
    }
  }
}
layer {
  name: "concat"
  type: "Concat"
  bottom: "lstm1"
  bottom: "embedded_input_sentence"
  bottom: "reshaped_stage_indicator"
  top: "lstm1_video_sequence"
  concat_param {
    concat_dim: 2
  }
}
layer {
  name: "lstm2"
  type: "LSTM"
  bottom: "lstm1_video_sequence"
  bottom: "cont_sentence"
  top: "lstm2"
  recurrent_param {
    num_output: 1000
    weight_filler {
      type: "uniform"
      min: -0.08
      max: 0.08
    }
    bias_filler {
      type: "constant"
      value: 0
    }
  }
}
layer {
  name: "predict"
  type: "InnerProduct"
  bottom: "lstm2"
  top: "predict"
  param {
    lr_mult: 1
    decay_mult: 1
  }
  param {
    lr_mult: 2
    decay_mult: 0
  }
  inner_product_param {
    num_output: 46168
    weight_filler {
      type: "uniform"
      min: -0.08
      max: 0.08
    }
    bias_filler {
      type: "constant"
      value: 0
    }
    axis: 2
  }
}
layer {
  name: "probs"
  type: "Softmax"
  bottom: "predict"
  top: "probs"
  softmax_param {
    axis: 2
  }
}
I0924 04:15:57.143373 25700 net.cpp:49] Initializing net from parameters: 
name: "s2vt:features_to_lstm"
state {
  phase: TEST
}
layer {
  name: "input"
  type: "Input"
  top: "frames_fc7"
  top: "cont_sentence"
  top: "input_sentence"
  top: "stage_indicator"
  input_param {
    shape {
      dim: 1
      dim: 4096
    }
    shape {
      dim: 1
      dim: 1
    }
    shape {
      dim: 1
      dim: 1
    }
    shape {
      dim: 1
      dim: 1
    }
  }
}
layer {
  name: "embed_encoder"
  type: "InnerProduct"
  bottom: "frames_fc7"
  top: "embedded_in_frames"
  param {
    lr_mult: 1
    decay_mult: 1
  }
  param {
    lr_mult: 2
    decay_mult: 0
  }
  inner_product_param {
    num_output: 500
    weight_filler {
      type: "xavier"
    }
    bias_filler {
      type: "constant"
      value: 0.2
    }
  }
}
layer {
  name: "reshape_frames"
  type: "Reshape"
  bottom: "embedded_in_frames"
  top: "embedded_input_frames"
  reshape_param {
    shape {
      dim: 1
      dim: 1
      dim: 500
    }
  }
}
layer {
  name: "reshape_stage_indicator"
  type: "Reshape"
  bottom: "stage_indicator"
  top: "reshaped_stage_indicator"
  reshape_param {
    shape {
      dim: 1
      dim: 1
      dim: 1
    }
  }
}
layer {
  name: "embedding"
  type: "Embed"
  bottom: "input_sentence"
  top: "embedded_input_sentence"
  param {
    lr_mult: 1
  }
  embed_param {
    num_output: 500
    input_dim: 46168
    bias_term: false
    weight_filler {
      type: "uniform"
      min: -0.08
      max: 0.08
    }
  }
}
layer {
  name: "lstm1"
  type: "LSTM"
  bottom: "embedded_input_frames"
  bottom: "cont_sentence"
  top: "lstm1"
  recurrent_param {
    num_output: 1000
    weight_filler {
      type: "uniform"
      min: -0.08
      max: 0.08
    }
    bias_filler {
      type: "constant"
      value: 0
    }
  }
}
layer {
  name: "concat"
  type: "Concat"
  bottom: "lstm1"
  bottom: "embedded_input_sentence"
  bottom: "reshaped_stage_indicator"
  top: "lstm1_video_sequence"
  concat_param {
    concat_dim: 2
  }
}
layer {
  name: "lstm2"
  type: "LSTM"
  bottom: "lstm1_video_sequence"
  bottom: "cont_sentence"
  top: "lstm2"
  recurrent_param {
    num_output: 1000
    weight_filler {
      type: "uniform"
      min: -0.08
      max: 0.08
    }
    bias_filler {
      type: "constant"
      value: 0
    }
  }
}
layer {
  name: "predict"
  type: "InnerProduct"
  bottom: "lstm2"
  top: "predict"
  param {
    lr_mult: 1
    decay_mult: 1
  }
  param {
    lr_mult: 2
    decay_mult: 0
  }
  inner_product_param {
    num_output: 46168
    weight_filler {
      type: "uniform"
      min: -0.08
      max: 0.08
    }
    bias_filler {
      type: "constant"
      value: 0
    }
    axis: 2
  }
}
layer {
  name: "probs"
  type: "Softmax"
  bottom: "predict"
  top: "probs"
  softmax_param {
    axis: 2
  }
}
I0924 04:15:57.143370 25682 net.cpp:49] Initializing net from parameters: 
name: "s2vt:features_to_lstm"
state {
  phase: TEST
}
layer {
  name: "input"
  type: "Input"
  top: "frames_fc7"
  top: "cont_sentence"
  top: "input_sentence"
  top: "stage_indicator"
  input_param {
    shape {
      dim: 1
      dim: 4096
    }
    shape {
      dim: 1
      dim: 1
    }
    shape {
      dim: 1
      dim: 1
    }
    shape {
      dim: 1
      dim: 1
    }
  }
}
layer {
  name: "embed_encoder"
  type: "InnerProduct"
  bottom: "frames_fc7"
  top: "embedded_in_frames"
  param {
    lr_mult: 1
    decay_mult: 1
  }
  param {
    lr_mult: 2
    decay_mult: 0
  }
  inner_product_param {
    num_output: 500
    weight_filler {
      type: "xavier"
    }
    bias_filler {
      type: "constant"
      value: 0.2
    }
  }
}
layer {
  name: "reshape_frames"
  type: "Reshape"
  bottom: "embedded_in_frames"
  top: "embedded_input_frames"
  reshape_param {
    shape {
      dim: 1
      dim: 1
      dim: 500
    }
  }
}
layer {
  name: "reshape_stage_indicator"
  type: "Reshape"
  bottom: "stage_indicator"
  top: "reshaped_stage_indicator"
  reshape_param {
    shape {
      dim: 1
      dim: 1
      dim: 1
    }
  }
}
layer {
  name: "embedding"
  type: "Embed"
  bottom: "input_sentence"
  top: "embedded_input_sentence"
  param {
    lr_mult: 1
  }
  embed_param {
    num_output: 500
    input_dim: 46168
    bias_term: false
    weight_filler {
      type: "uniform"
      min: -0.08
      max: 0.08
    }
  }
}
layer {
  name: "lstm1"
  type: "LSTM"
  bottom: "embedded_input_frames"
  bottom: "cont_sentence"
  top: "lstm1"
  recurrent_param {
    num_output: 1000
    weight_filler {
      type: "uniform"
      min: -0.08
      max: 0.08
    }
    bias_filler {
      type: "constant"
      value: 0
    }
  }
}
layer {
  name: "concat"
  type: "Concat"
  bottom: "lstm1"
  bottom: "embedded_input_sentence"
  bottom: "reshaped_stage_indicator"
  top: "lstm1_video_sequence"
  concat_param {
    concat_dim: 2
  }
}
layer {
  name: "lstm2"
  type: "LSTM"
  bottom: "lstm1_video_sequence"
  bottom: "cont_sentence"
  top: "lstm2"
  recurrent_param {
    num_output: 1000
    weight_filler {
      type: "uniform"
      min: -0.08
      max: 0.08
    }
    bias_filler {
      type: "constant"
      value: 0
    }
  }
}
layer {
  name: "predict"
  type: "InnerProduct"
  bottom: "lstm2"
  top: "predict"
  param {
    lr_mult: 1
    decay_mult: 1
  }
  param {
    lr_mult: 2
    decay_mult: 0
  }
  inner_product_param {
    num_output: 46168
    weight_filler {
      type: "uniform"
      min: -0.08
      max: 0.08
    }
    bias_filler {
      type: "constant"
      value: 0
    }
    axis: 2
  }
}
layer {
  name: "probs"
  type: "Softmax"
  bottom: "predict"
  top: "probs"
  softmax_param {
    axis: 2
  }
}
I0924 04:15:57.143462 25686 layer_factory.hpp:77] Creating layer input
I0924 04:15:57.143465 25712 layer_factory.hpp:77] Creating layer input
I0924 04:15:57.143463 25706 layer_factory.hpp:77] Creating layer input
I0924 04:15:57.143477 25690 layer_factory.hpp:77] Creating layer input
I0924 04:15:57.143481 25734 layer_factory.hpp:77] Creating layer input
…
I0924 04:15:57.143659 25734 net.cpp:399] input -> stage_indicator
I0924 04:15:57.143678 25726 net.cpp:399] input -> input_sentence
I0924 04:15:57.143676 25682 net.cpp:399] input -> input_sentence
I0924 04:15:57.143697 25726 net.cpp:399] input -> stage_indicator
I0924 04:15:57.143707 25682 net.cpp:399] input -> stage_indicator
I0924 04:15:57.143908 25692 net.cpp:49] Initializing net from parameters: 
name: "CaffeNet"
state {
  phase: TEST
}
layer {
  name: "data"
  type: "Input"
  top: "data"
  input_param {
    shape {
      dim: 10
      dim: 3
      dim: 227
      dim: 227
    }
  }
}
layer {
  name: "conv1"
  type: "Convolution"
  bottom: "data"
  top: "conv1"
  convolution_param {
    num_output: 96
    kernel_size: 11
    stride: 4
  }
}
layer {
  name: "relu1"
  type: "ReLU"
  bottom: "conv1"
  top: "conv1"
}
layer {
  name: "pool1"
  type: "Pooling"
  bottom: "conv1"
  top: "pool1"
  pooling_param {
    pool: MAX
    kernel_size: 3
    stride: 2
  }
}
layer {
  name: "norm1"
  type: "LRN"
  bottom: "pool1"
  top: "norm1"
  lrn_param {
    local_size: 5
    alpha: 0.0001
    beta: 0.75
  }
}
layer {
  name: "conv2"
  type: "Convolution"
  bottom: "norm1"
  top: "conv2"
  convolution_param {
    num_output: 256
    pad: 2
    kernel_size: 5
    group: 2
  }
}
layer {
  name: "relu2"
  type: "ReLU"
  bottom: "conv2"
  top: "conv2"
}
layer {
  name: "pool2"
  type: "Pooling"
  bottom: "conv2"
  top: "pool2"
  pooling_param {
    pool: MAX
    kernel_size: 3
    stride: 2
  }
}
layer {
  name: "norm2"
  type: "LRN"
  bottom: "pool2"
  top: "norm2"
  lrn_param {
    local_size: 5
    alpha: 0.0001
    beta: 0.75
  }
}
layer {
  name: "conv3"
  type: "Convolution"
  bottom: "norm2"
  top: "conv3"
  convolution_param {
    num_output: 384
    pad: 1
    kernel_size: 3
  }
}
layer {
  name: "relu3"
  type: "ReLU"
  bottom: "conv3"
  top: "conv3"
}
layer {
  name: "conv4"
  type: "Convolution"
  bottom: "conv3"
  top: "conv4"
  convolution_param {
    num_output: 384
    pad: 1
    kernel_size: 3
    group: 2
  }
}
layer {
  name: "relu4"
  type: "ReLU"
  bottom: "conv4"
  top: "conv4"
}
layer {
  name: "conv5"
  type: "Convolution"
  bottom: "conv4"
  top: "conv5"
  convolution_param {
    num_output: 256
    pad: 1
    kernel_size: 3
    group: 2
  }
}
layer {
  name: "relu5"
  type: "ReLU"
  bottom: "conv5"
  top: "conv5"
}
layer {
  name: "pool5"
  type: "Pooling"
  bottom: "conv5"
  top: "pool5"
  pooling_param {
    pool: MAX
    kernel_size: 3
    stride: 2
  }
}
layer {
  name: "fc6"
  type: "InnerProduct"
  bottom: "pool5"
  top: "fc6"
  inner_product_param {
    num_output: 4096
  }
}
layer {
  name: "relu6"
  type: "ReLU"
  bottom: "fc6"
  top: "fc6"
}
layer {
  name: "drop6"
  type: "Dropout"
  bottom: "fc6"
  top: "fc6"
  dropout_param {
    dropout_ratio: 0.5
  }
}
layer {
  name: "fc7"
  type: "InnerProduct"
  bottom: "fc6"
  top: "fc7"
  inner_product_param {
    num_output: 4096
  }
}
layer {
  name: "relu7"
  type: "ReLU"
  bottom: "fc7"
  top: "fc7"
}
layer {
  name: "drop7"
  type: "Dropout"
  bottom: "fc7"
  top: "fc7"
  dropout_param {
    dropout_ratio: 0.5
  }
}
layer {
  name: "fc8"
  type: "InnerProduct"
  bottom: "fc7"
  top: "fc8"
  inner_product_param {
    num_output: 1000
  }
}
layer {
  name: "prob"
  type: "Softmax"
  bottom: "fc8"
  top: "prob"
}
I0924 04:15:57.144095 25692 layer_factory.hpp:77] Creating layer data
I0924 04:15:57.144114 25692 net.cpp:91] Creating Layer data
I0924 04:15:57.144124 25692 net.cpp:399] data -> data
I0924 04:15:57.960608 25678 net.cpp:141] Setting up input
I0924 04:15:57.960685 25678 net.cpp:148] Top shape: 1 4096 (4096)
I0924 04:15:57.960695 25678 net.cpp:148] Top shape: 1 1 (1)
I0924 04:15:57.960700 25678 net.cpp:148] Top shape: 1 1 (1)
I0924 04:15:57.960706 25678 net.cpp:148] Top shape: 1 1 (1)
I0924 04:15:57.960711 25678 net.cpp:156] Memory required for data: 16396
I0924 04:15:57.960733 25678 layer_factory.hpp:77] Creating layer cont_sentence_input_1_split
I0924 04:15:57.960767 25678 net.cpp:91] Creating Layer cont_sentence_input_1_split
I0924 04:15:57.960777 25678 net.cpp:425] cont_sentence_input_1_split <- cont_sentence
I0924 04:15:57.960803 25678 net.cpp:399] cont_sentence_input_1_split -> cont_sentence_input_1_split_0
I0924 04:15:57.960799 25686 net.cpp:141] Setting up input
I0924 04:15:57.960821 25678 net.cpp:399] cont_sentence_input_1_split -> cont_sentence_input_1_split_1
I0924 04:15:57.960840 25686 net.cpp:148] Top shape: 1 4096 (4096)
I0924 04:15:57.960850 25686 net.cpp:148] Top shape: 1 1 (1)
I0924 04:15:57.960855 25686 net.cpp:148] Top shape: 1 1 (1)
I0924 04:15:57.960860 25686 net.cpp:148] Top shape: 1 1 (1)
I0924 04:15:57.960865 25686 net.cpp:156] Memory required for data: 16396
I0924 04:15:57.960873 25686 layer_factory.hpp:77] Creating layer cont_sentence_input_1_split
I0924 04:15:57.960880 25706 net.cpp:141] Setting up input
I0924 04:15:57.960889 25686 net.cpp:91] Creating Layer cont_sentence_input_1_split
I0924 04:15:57.960904 25686 net.cpp:425] cont_sentence_input_1_split <- cont_sentence
I0924 04:15:57.960904 25706 net.cpp:148] Top shape: 1 4096 (4096)
I0924 04:15:57.960921 25686 net.cpp:399] cont_sentence_input_1_split -> cont_sentence_input_1_split_0
I0924 04:15:57.960921 25706 net.cpp:148] Top shape: 1 1 (1)
I0924 04:15:57.960933 25706 net.cpp:148] Top shape: 1 1 (1)
I0924 04:15:57.960937 25686 net.cpp:399] cont_sentence_input_1_split -> cont_sentence_input_1_split_1
I0924 04:15:57.960939 25706 net.cpp:148] Top shape: 1 1 (1)
I0924 04:15:57.960949 25706 net.cpp:156] Memory required for data: 16396
I0924 04:15:57.960955 25706 layer_factory.hpp:77] Creating layer cont_sentence_input_1_split
I0924 04:15:57.960966 25706 net.cpp:91] Creating Layer cont_sentence_input_1_split
I0924 04:15:57.960973 25706 net.cpp:425] cont_sentence_input_1_split <- cont_sentence
I0924 04:15:57.960970 25678 net.cpp:141] Setting up cont_sentence_input_1_split
I0924 04:15:57.960985 25706 net.cpp:399] cont_sentence_input_1_split -> cont_sentence_input_1_split_0
I0924 04:15:57.960994 25678 net.cpp:148] Top shape: 1 1 (1)
I0924 04:15:57.960997 25706 net.cpp:399] cont_sentence_input_1_split -> cont_sentence_input_1_split_1
I0924 04:15:57.961001 25678 net.cpp:148] Top shape: 1 1 (1)
I0924 04:15:57.961006 25678 net.cpp:156] Memory required for data: 16404
I0924 04:15:57.961011 25678 layer_factory.hpp:77] Creating layer embed_encoder
I0924 04:15:57.961016 25712 net.cpp:141] Setting up input
I0924 04:15:57.961035 25678 net.cpp:91] Creating Layer embed_encoder
I0924 04:15:57.961040 25678 net.cpp:425] embed_encoder <- frames_fc7
I0924 04:15:57.961040 25712 net.cpp:148] Top shape: 1 4096 (4096)
I0924 04:15:57.961050 25678 net.cpp:399] embed_encoder -> embedded_in_frames
I0924 04:15:57.961052 25712 net.cpp:148] Top shape: 1 1 (1)
I0924 04:15:57.961062 25712 net.cpp:148] Top shape: 1 1 (1)
I0924 04:15:57.961071 25712 net.cpp:148] Top shape: 1 1 (1)
I0924 04:15:57.961078 25712 net.cpp:156] Memory required for data: 16396
I0924 04:15:57.961087 25712 layer_factory.hpp:77] Creating layer cont_sentence_input_1_split
I0924 04:15:57.961092 25686 net.cpp:141] Setting up cont_sentence_input_1_split
I0924 04:15:57.961103 25686 net.cpp:148] Top shape: 1 1 (1)
I0924 04:15:57.961107 25712 net.cpp:91] Creating Layer cont_sentence_input_1_split
I0924 04:15:57.961110 25686 net.cpp:148] Top shape: 1 1 (1)
I0924 04:15:57.961123 25712 net.cpp:425] cont_sentence_input_1_split <- cont_sentence
I0924 04:15:57.961129 25686 net.cpp:156] Memory required for data: 16404
I0924 04:15:57.961119 25706 net.cpp:141] Setting up cont_sentence_input_1_split
I0924 04:15:57.961135 25686 layer_factory.hpp:77] Creating layer embed_encoder
I0924 04:15:57.961143 25712 net.cpp:399] cont_sentence_input_1_split -> cont_sentence_input_1_split_0
I0924 04:15:57.961149 25706 net.cpp:148] Top shape: 1 1 (1)
I0924 04:15:57.961158 25706 net.cpp:148] Top shape: 1 1 (1)
I0924 04:15:57.961158 25686 net.cpp:91] Creating Layer embed_encoder
I0924 04:15:57.961161 25706 net.cpp:156] Memory required for data: 16404
I0924 04:15:57.961164 25686 net.cpp:425] embed_encoder <- frames_fc7
I0924 04:15:57.961168 25706 layer_factory.hpp:77] Creating layer embed_encoder
I0924 04:15:57.961176 25686 net.cpp:399] embed_encoder -> embedded_in_frames
I0924 04:15:57.961164 25712 net.cpp:399] cont_sentence_input_1_split -> cont_sentence_input_1_split_1
I0924 04:15:57.961187 25706 net.cpp:91] Creating Layer embed_encoder
I0924 04:15:57.961194 25706 net.cpp:425] embed_encoder <- frames_fc7
I0924 04:15:57.961201 25706 net.cpp:399] embed_encoder -> embedded_in_frames
I0924 04:15:57.965464 25712 net.cpp:141] Setting up cont_sentence_input_1_split
I0924 04:15:57.965510 25712 net.cpp:148] Top shape: 1 1 (1)
I0924 04:15:57.965525 25712 net.cpp:148] Top shape: 1 1 (1)
I0924 04:15:57.965535 25712 net.cpp:156] Memory required for data: 16404
I0924 04:15:57.965548 25712 layer_factory.hpp:77] Creating layer embed_encoder
I0924 04:15:57.965574 25712 net.cpp:91] Creating Layer embed_encoder
I0924 04:15:57.965589 25712 net.cpp:425] embed_encoder <- frames_fc7
I0924 04:15:57.965611 25712 net.cpp:399] embed_encoder -> embedded_in_frames
I0924 04:15:57.965749 25726 net.cpp:141] Setting up input
I0924 04:15:57.965765 25726 net.cpp:148] Top shape: 1 4096 (4096)
I0924 04:15:57.965773 25726 net.cpp:148] Top shape: 1 1 (1)
I0924 04:15:57.965780 25726 net.cpp:148] Top shape: 1 1 (1)
I0924 04:15:57.965785 25726 net.cpp:148] Top shape: 1 1 (1)
I0924 04:15:57.965788 25726 net.cpp:156] Memory required for data: 16396
I0924 04:15:57.965793 25726 layer_factory.hpp:77] Creating layer cont_sentence_input_1_split
I0924 04:15:57.965806 25726 net.cpp:91] Creating Layer cont_sentence_input_1_split
I0924 04:15:57.965812 25726 net.cpp:425] cont_sentence_input_1_split <- cont_sentence
I0924 04:15:57.965819 25726 net.cpp:399] cont_sentence_input_1_split -> cont_sentence_input_1_split_0
I0924 04:15:57.965831 25726 net.cpp:399] cont_sentence_input_1_split -> cont_sentence_input_1_split_1
I0924 04:15:57.973249 25690 net.cpp:141] Setting up input
I0924 04:15:57.973309 25690 net.cpp:148] Top shape: 1 4096 (4096)
I0924 04:15:57.973320 25690 net.cpp:148] Top shape: 1 1 (1)
I0924 04:15:57.973330 25690 net.cpp:148] Top shape: 1 1 (1)
I0924 04:15:57.973338 25690 net.cpp:148] Top shape: 1 1 (1)
I0924 04:15:57.973345 25690 net.cpp:156] Memory required for data: 16396
I0924 04:15:57.973356 25690 layer_factory.hpp:77] Creating layer cont_sentence_input_1_split
I0924 04:15:57.973376 25690 net.cpp:91] Creating Layer cont_sentence_input_1_split
I0924 04:15:57.973386 25690 net.cpp:425] cont_sentence_input_1_split <- cont_sentence
I0924 04:15:57.973399 25690 net.cpp:399] cont_sentence_input_1_split -> cont_sentence_input_1_split_0
I0924 04:15:57.973423 25690 net.cpp:399] cont_sentence_input_1_split -> cont_sentence_input_1_split_1
I0924 04:15:57.977830 25692 net.cpp:141] Setting up data
I0924 04:15:57.977910 25692 net.cpp:148] Top shape: 10 3 227 227 (1545870)
I0924 04:15:57.977928 25692 net.cpp:156] Memory required for data: 6183480
I0924 04:15:57.977952 25692 layer_factory.hpp:77] Creating layer conv1
I0924 04:15:57.978025 25692 net.cpp:91] Creating Layer conv1
I0924 04:15:57.978045 25692 net.cpp:425] conv1 <- data
I0924 04:15:57.978077 25692 net.cpp:399] conv1 -> conv1
I0924 04:15:57.983502 25700 net.cpp:141] Setting up input
I0924 04:15:57.983546 25700 net.cpp:148] Top shape: 1 4096 (4096)
I0924 04:15:57.983558 25700 net.cpp:148] Top shape: 1 1 (1)
I0924 04:15:57.983569 25700 net.cpp:148] Top shape: 1 1 (1)
I0924 04:15:57.983579 25700 net.cpp:148] Top shape: 1 1 (1)
I0924 04:15:57.983587 25700 net.cpp:156] Memory required for data: 16396
I0924 04:15:57.983597 25700 layer_factory.hpp:77] Creating layer cont_sentence_input_1_split
I0924 04:15:57.983623 25700 net.cpp:91] Creating Layer cont_sentence_input_1_split
I0924 04:15:57.983633 25700 net.cpp:425] cont_sentence_input_1_split <- cont_sentence
I0924 04:15:57.983646 25700 net.cpp:399] cont_sentence_input_1_split -> cont_sentence_input_1_split_0
I0924 04:15:57.983664 25700 net.cpp:399] cont_sentence_input_1_split -> cont_sentence_input_1_split_1
I0924 04:15:57.983731 25700 net.cpp:141] Setting up cont_sentence_input_1_split
I0924 04:15:57.983746 25700 net.cpp:148] Top shape: 1 1 (1)
I0924 04:15:57.983754 25700 net.cpp:148] Top shape: 1 1 (1)
I0924 04:15:57.983762 25700 net.cpp:156] Memory required for data: 16404
I0924 04:15:57.983770 25700 layer_factory.hpp:77] Creating layer embed_encoder
I0924 04:15:57.983790 25700 net.cpp:91] Creating Layer embed_encoder
I0924 04:15:57.983798 25700 net.cpp:425] embed_encoder <- frames_fc7
I0924 04:15:57.983814 25700 net.cpp:399] embed_encoder -> embedded_in_frames
I0924 04:15:57.989329 25690 net.cpp:141] Setting up cont_sentence_input_1_split
I0924 04:15:57.989383 25690 net.cpp:148] Top shape: 1 1 (1)
I0924 04:15:57.989394 25690 net.cpp:148] Top shape: 1 1 (1)
I0924 04:15:57.989401 25690 net.cpp:156] Memory required for data: 16404
I0924 04:15:57.989413 25690 layer_factory.hpp:77] Creating layer embed_encoder
I0924 04:15:57.989459 25690 net.cpp:91] Creating Layer embed_encoder
I0924 04:15:57.989470 25690 net.cpp:425] embed_encoder <- frames_fc7
I0924 04:15:57.989485 25690 net.cpp:399] embed_encoder -> embedded_in_frames
I0924 04:15:57.995183 25726 net.cpp:141] Setting up cont_sentence_input_1_split
I0924 04:15:57.995244 25726 net.cpp:148] Top shape: 1 1 (1)
I0924 04:15:57.995255 25726 net.cpp:148] Top shape: 1 1 (1)
I0924 04:15:57.995263 25726 net.cpp:156] Memory required for data: 16404
I0924 04:15:57.995276 25726 layer_factory.hpp:77] Creating layer embed_encoder
I0924 04:15:57.995308 25726 net.cpp:91] Creating Layer embed_encoder
I0924 04:15:57.995319 25726 net.cpp:425] embed_encoder <- frames_fc7
I0924 04:15:57.995404 25726 net.cpp:399] embed_encoder -> embedded_in_frames
I0924 04:15:57.995522 25738 net.cpp:141] Setting up input
I0924 04:15:57.995563 25738 net.cpp:148] Top shape: 1 4096 (4096)
I0924 04:15:57.995575 25738 net.cpp:148] Top shape: 1 1 (1)
I0924 04:15:57.995585 25738 net.cpp:148] Top shape: 1 1 (1)
I0924 04:15:57.995594 25738 net.cpp:148] Top shape: 1 1 (1)
I0924 04:15:57.995601 25738 net.cpp:156] Memory required for data: 16396
I0924 04:15:57.995615 25738 layer_factory.hpp:77] Creating layer cont_sentence_input_1_split
I0924 04:15:57.995637 25738 net.cpp:91] Creating Layer cont_sentence_input_1_split
I0924 04:15:57.995647 25738 net.cpp:425] cont_sentence_input_1_split <- cont_sentence
I0924 04:15:57.995663 25738 net.cpp:399] cont_sentence_input_1_split -> cont_sentence_input_1_split_0
I0924 04:15:57.995685 25738 net.cpp:399] cont_sentence_input_1_split -> cont_sentence_input_1_split_1
I0924 04:15:57.995749 25738 net.cpp:141] Setting up cont_sentence_input_1_split
I0924 04:15:57.995762 25738 net.cpp:148] Top shape: 1 1 (1)
I0924 04:15:57.995772 25738 net.cpp:148] Top shape: 1 1 (1)
I0924 04:15:57.995779 25738 net.cpp:156] Memory required for data: 16404
I0924 04:15:57.995787 25738 layer_factory.hpp:77] Creating layer embed_encoder
I0924 04:15:57.995808 25738 net.cpp:91] Creating Layer embed_encoder
I0924 04:15:57.995816 25738 net.cpp:425] embed_encoder <- frames_fc7
I0924 04:15:57.995831 25738 net.cpp:399] embed_encoder -> embedded_in_frames
I0924 04:15:58.010697 25682 net.cpp:141] Setting up input
I0924 04:15:58.010756 25682 net.cpp:148] Top shape: 1 4096 (4096)
I0924 04:15:58.010769 25682 net.cpp:148] Top shape: 1 1 (1)
I0924 04:15:58.010779 25682 net.cpp:148] Top shape: 1 1 (1)
I0924 04:15:58.010788 25682 net.cpp:148] Top shape: 1 1 (1)
I0924 04:15:58.010795 25682 net.cpp:156] Memory required for data: 16396
I0924 04:15:58.010809 25682 layer_factory.hpp:77] Creating layer cont_sentence_input_1_split
I0924 04:15:58.010836 25682 net.cpp:91] Creating Layer cont_sentence_input_1_split
I0924 04:15:58.010848 25682 net.cpp:425] cont_sentence_input_1_split <- cont_sentence
I0924 04:15:58.010864 25682 net.cpp:399] cont_sentence_input_1_split -> cont_sentence_input_1_split_0
I0924 04:15:58.010886 25682 net.cpp:399] cont_sentence_input_1_split -> cont_sentence_input_1_split_1
I0924 04:15:58.011764 25734 net.cpp:141] Setting up input
I0924 04:15:58.011806 25734 net.cpp:148] Top shape: 1 4096 (4096)
I0924 04:15:58.011817 25734 net.cpp:148] Top shape: 1 1 (1)
I0924 04:15:58.011827 25734 net.cpp:148] Top shape: 1 1 (1)
I0924 04:15:58.011837 25734 net.cpp:148] Top shape: 1 1 (1)
I0924 04:15:58.011843 25734 net.cpp:156] Memory required for data: 16396
I0924 04:15:58.011855 25734 layer_factory.hpp:77] Creating layer cont_sentence_input_1_split
I0924 04:15:58.011889 25734 net.cpp:91] Creating Layer cont_sentence_input_1_split
I0924 04:15:58.011900 25734 net.cpp:425] cont_sentence_input_1_split <- cont_sentence
I0924 04:15:58.011915 25734 net.cpp:399] cont_sentence_input_1_split -> cont_sentence_input_1_split_0
I0924 04:15:58.011937 25734 net.cpp:399] cont_sentence_input_1_split -> cont_sentence_input_1_split_1
I0924 04:15:58.012025 25734 net.cpp:141] Setting up cont_sentence_input_1_split
I0924 04:15:58.012039 25734 net.cpp:148] Top shape: 1 1 (1)
I0924 04:15:58.012049 25734 net.cpp:148] Top shape: 1 1 (1)
I0924 04:15:58.012056 25734 net.cpp:156] Memory required for data: 16404
I0924 04:15:58.012064 25734 layer_factory.hpp:77] Creating layer embed_encoder
I0924 04:15:58.012094 25734 net.cpp:91] Creating Layer embed_encoder
I0924 04:15:58.012104 25734 net.cpp:425] embed_encoder <- frames_fc7
I0924 04:15:58.012121 25734 net.cpp:399] embed_encoder -> embedded_in_frames
I0924 04:15:58.020633 25700 net.cpp:141] Setting up embed_encoder
I0924 04:15:58.020700 25700 net.cpp:148] Top shape: 1 500 (500)
I0924 04:15:58.020707 25700 net.cpp:156] Memory required for data: 18404
I0924 04:15:58.020735 25700 layer_factory.hpp:77] Creating layer reshape_frames
I0924 04:15:58.020766 25700 net.cpp:91] Creating Layer reshape_frames
I0924 04:15:58.020776 25700 net.cpp:425] reshape_frames <- embedded_in_frames
I0924 04:15:58.020790 25700 net.cpp:399] reshape_frames -> embedded_input_frames
I0924 04:15:58.020840 25700 net.cpp:141] Setting up reshape_frames
I0924 04:15:58.020849 25700 net.cpp:148] Top shape: 1 1 500 (500)
I0924 04:15:58.020853 25700 net.cpp:156] Memory required for data: 20404
I0924 04:15:58.020859 25700 layer_factory.hpp:77] Creating layer reshape_stage_indicator
I0924 04:15:58.020874 25700 net.cpp:91] Creating Layer reshape_stage_indicator
I0924 04:15:58.020880 25700 net.cpp:425] reshape_stage_indicator <- stage_indicator
I0924 04:15:58.020889 25700 net.cpp:399] reshape_stage_indicator -> reshaped_stage_indicator
I0924 04:15:58.026399 25700 net.cpp:141] Setting up reshape_stage_indicator
I0924 04:15:58.026478 25700 net.cpp:148] Top shape: 1 1 1 (1)
I0924 04:15:58.026496 25700 net.cpp:156] Memory required for data: 20408
I0924 04:15:58.026500 25682 net.cpp:141] Setting up cont_sentence_input_1_split
I0924 04:15:58.026515 25700 layer_factory.hpp:77] Creating layer embedding
I0924 04:15:58.026567 25682 net.cpp:148] Top shape: 1 1 (1)
I0924 04:15:58.026582 25682 net.cpp:148] Top shape: 1 1 (1)
I0924 04:15:58.026582 25678 net.cpp:141] Setting up embed_encoder
I0924 04:15:58.026605 25700 net.cpp:91] Creating Layer embedding
I0924 04:15:58.026631 25700 net.cpp:425] embedding <- input_sentence
I0924 04:15:58.026640 25678 net.cpp:148] Top shape: 1 500 (500)
I0924 04:15:58.026653 25678 net.cpp:156] Memory required for data: 18404
I0924 04:15:58.026664 25700 net.cpp:399] embedding -> embedded_input_sentence
I0924 04:15:58.026681 25678 layer_factory.hpp:77] Creating layer reshape_frames
I0924 04:15:58.026739 25678 net.cpp:91] Creating Layer reshape_frames
I0924 04:15:58.026754 25678 net.cpp:425] reshape_frames <- embedded_in_frames
I0924 04:15:58.026772 25678 net.cpp:399] reshape_frames -> embedded_input_frames
I0924 04:15:58.026588 25682 net.cpp:156] Memory required for data: 16404
I0924 04:15:58.028465 25682 layer_factory.hpp:77] Creating layer embed_encoder
I0924 04:15:58.028496 25682 net.cpp:91] Creating Layer embed_encoder
I0924 04:15:58.028506 25682 net.cpp:425] embed_encoder <- frames_fc7
I0924 04:15:58.028520 25682 net.cpp:399] embed_encoder -> embedded_in_frames
I0924 04:15:58.078344 25738 net.cpp:141] Setting up embed_encoder
I0924 04:15:58.078409 25738 net.cpp:148] Top shape: 1 500 (500)
I0924 04:15:58.078423 25738 net.cpp:156] Memory required for data: 18404
I0924 04:15:58.078454 25738 layer_factory.hpp:77] Creating layer reshape_frames
I0924 04:15:58.078481 25738 net.cpp:91] Creating Layer reshape_frames
I0924 04:15:58.078495 25738 net.cpp:425] reshape_frames <- embedded_in_frames
I0924 04:15:58.078513 25738 net.cpp:399] reshape_frames -> embedded_input_frames
I0924 04:15:58.078572 25738 net.cpp:141] Setting up reshape_frames
I0924 04:15:58.078583 25738 net.cpp:148] Top shape: 1 1 500 (500)
I0924 04:15:58.078588 25738 net.cpp:156] Memory required for data: 20404
I0924 04:15:58.078593 25738 layer_factory.hpp:77] Creating layer reshape_stage_indicator
I0924 04:15:58.078621 25738 net.cpp:91] Creating Layer reshape_stage_indicator
I0924 04:15:58.078627 25738 net.cpp:425] reshape_stage_indicator <- stage_indicator
I0924 04:15:58.078639 25738 net.cpp:399] reshape_stage_indicator -> reshaped_stage_indicator
I0924 04:15:58.078656 25678 net.cpp:141] Setting up reshape_frames
I0924 04:15:58.078691 25678 net.cpp:148] Top shape: 1 1 500 (500)
I0924 04:15:58.078696 25678 net.cpp:156] Memory required for data: 20404
I0924 04:15:58.078703 25678 layer_factory.hpp:77] Creating layer reshape_stage_indicator
I0924 04:15:58.078724 25678 net.cpp:91] Creating Layer reshape_stage_indicator
I0924 04:15:58.078732 25678 net.cpp:425] reshape_stage_indicator <- stage_indicator
I0924 04:15:58.078765 25678 net.cpp:399] reshape_stage_indicator -> reshaped_stage_indicator
I0924 04:15:58.088043 25712 net.cpp:141] Setting up embed_encoder
I0924 04:15:58.088093 25712 net.cpp:148] Top shape: 1 500 (500)
I0924 04:15:58.088100 25712 net.cpp:156] Memory required for data: 18404
I0924 04:15:58.088131 25712 layer_factory.hpp:77] Creating layer reshape_frames
I0924 04:15:58.088161 25712 net.cpp:91] Creating Layer reshape_frames
I0924 04:15:58.088172 25712 net.cpp:425] reshape_frames <- embedded_in_frames
I0924 04:15:58.088187 25712 net.cpp:399] reshape_frames -> embedded_input_frames
I0924 04:15:58.088266 25712 net.cpp:141] Setting up reshape_frames
I0924 04:15:58.088279 25712 net.cpp:148] Top shape: 1 1 500 (500)
I0924 04:15:58.088285 25712 net.cpp:156] Memory required for data: 20404
I0924 04:15:58.088294 25712 layer_factory.hpp:77] Creating layer reshape_stage_indicator
I0924 04:15:58.088311 25712 net.cpp:91] Creating Layer reshape_stage_indicator
I0924 04:15:58.088320 25712 net.cpp:425] reshape_stage_indicator <- stage_indicator
I0924 04:15:58.088367 25712 net.cpp:399] reshape_stage_indicator -> reshaped_stage_indicator
I0924 04:15:58.088407 25678 net.cpp:141] Setting up reshape_stage_indicator
I0924 04:15:58.088429 25678 net.cpp:148] Top shape: 1 1 1 (1)
I0924 04:15:58.088436 25678 net.cpp:156] Memory required for data: 20408
I0924 04:15:58.088445 25678 layer_factory.hpp:77] Creating layer embedding
I0924 04:15:58.088464 25678 net.cpp:91] Creating Layer embedding
I0924 04:15:58.088472 25678 net.cpp:425] embedding <- input_sentence
I0924 04:15:58.088488 25678 net.cpp:399] embedding -> embedded_input_sentence
I0924 04:15:58.088605 25706 net.cpp:141] Setting up embed_encoder
I0924 04:15:58.088649 25706 net.cpp:148] Top shape: 1 500 (500)
I0924 04:15:58.088657 25706 net.cpp:156] Memory required for data: 18404
I0924 04:15:58.088660 25686 net.cpp:141] Setting up embed_encoder
I0924 04:15:58.088682 25686 net.cpp:148] Top shape: 1 500 (500)
I0924 04:15:58.088682 25706 layer_factory.hpp:77] Creating layer reshape_frames
I0924 04:15:58.088703 25686 net.cpp:156] Memory required for data: 18404
I0924 04:15:58.088723 25706 net.cpp:91] Creating Layer reshape_frames
I0924 04:15:58.088726 25686 layer_factory.hpp:77] Creating layer reshape_frames
I0924 04:15:58.088733 25706 net.cpp:425] reshape_frames <- embedded_in_frames
I0924 04:15:58.088742 25686 net.cpp:91] Creating Layer reshape_frames
I0924 04:15:58.088748 25706 net.cpp:399] reshape_frames -> embedded_input_frames
I0924 04:15:58.088752 25686 net.cpp:425] reshape_frames <- embedded_in_frames
I0924 04:15:58.088763 25686 net.cpp:399] reshape_frames -> embedded_input_frames
I0924 04:15:58.131682 25706 net.cpp:141] Setting up reshape_frames
I0924 04:15:58.131703 25686 net.cpp:141] Setting up reshape_frames
I0924 04:15:58.131742 25706 net.cpp:148] Top shape: 1 1 500 (500)
I0924 04:15:58.131743 25686 net.cpp:148] Top shape: 1 1 500 (500)
I0924 04:15:58.131754 25706 net.cpp:156] Memory required for data: 20404
I0924 04:15:58.131759 25686 net.cpp:156] Memory required for data: 20404
I0924 04:15:58.131767 25686 layer_factory.hpp:77] Creating layer reshape_stage_indicator
I0924 04:15:58.131767 25706 layer_factory.hpp:77] Creating layer reshape_stage_indicator
I0924 04:15:58.131795 25686 net.cpp:91] Creating Layer reshape_stage_indicator
I0924 04:15:58.131796 25706 net.cpp:91] Creating Layer reshape_stage_indicator
I0924 04:15:58.131803 25686 net.cpp:425] reshape_stage_indicator <- stage_indicator
I0924 04:15:58.131801 25712 net.cpp:141] Setting up reshape_stage_indicator
I0924 04:15:58.131815 25686 net.cpp:399] reshape_stage_indicator -> reshaped_stage_indicator
I0924 04:15:58.131808 25706 net.cpp:425] reshape_stage_indicator <- stage_indicator
I0924 04:15:58.131830 25712 net.cpp:148] Top shape: 1 1 1 (1)
I0924 04:15:58.131839 25706 net.cpp:399] reshape_stage_indicator -> reshaped_stage_indicator
I0924 04:15:58.131840 25712 net.cpp:156] Memory required for data: 20408
I0924 04:15:58.131861 25738 net.cpp:141] Setting up reshape_stage_indicator
I0924 04:15:58.131865 25712 layer_factory.hpp:77] Creating layer embedding
I0924 04:15:58.131886 25738 net.cpp:148] Top shape: 1 1 1 (1)
I0924 04:15:58.131896 25738 net.cpp:156] Memory required for data: 20408
I0924 04:15:58.131898 25712 net.cpp:91] Creating Layer embedding
I0924 04:15:58.131907 25712 net.cpp:425] embedding <- input_sentence
I0924 04:15:58.131907 25738 layer_factory.hpp:77] Creating layer embedding
I0924 04:15:58.131937 25712 net.cpp:399] embedding -> embedded_input_sentence
I0924 04:15:58.131944 25734 net.cpp:141] Setting up embed_encoder
I0924 04:15:58.131950 25738 net.cpp:91] Creating Layer embedding
I0924 04:15:58.131974 25734 net.cpp:148] Top shape: 1 500 (500)
I0924 04:15:58.131975 25738 net.cpp:425] embedding <- input_sentence
I0924 04:15:58.131992 25734 net.cpp:156] Memory required for data: 18404
I0924 04:15:58.132004 25738 net.cpp:399] embedding -> embedded_input_sentence
I0924 04:15:58.132016 25734 layer_factory.hpp:77] Creating layer reshape_frames
I0924 04:15:58.132050 25690 net.cpp:141] Setting up embed_encoder
I0924 04:15:58.132052 25734 net.cpp:91] Creating Layer reshape_frames
I0924 04:15:58.132072 25690 net.cpp:148] Top shape: 1 500 (500)
I0924 04:15:58.132079 25734 net.cpp:425] reshape_frames <- embedded_in_frames
I0924 04:15:58.132081 25690 net.cpp:156] Memory required for data: 18404
I0924 04:15:58.132097 25734 net.cpp:399] reshape_frames -> embedded_input_frames
I0924 04:15:58.132097 25686 net.cpp:141] Setting up reshape_stage_indicator
I0924 04:15:58.132104 25690 layer_factory.hpp:77] Creating layer reshape_frames
I0924 04:15:58.132113 25686 net.cpp:148] Top shape: 1 1 1 (1)
I0924 04:15:58.132122 25686 net.cpp:156] Memory required for data: 20408
I0924 04:15:58.132123 25690 net.cpp:91] Creating Layer reshape_frames
I0924 04:15:58.132130 25686 layer_factory.hpp:77] Creating layer embedding
I0924 04:15:58.132133 25690 net.cpp:425] reshape_frames <- embedded_in_frames
I0924 04:15:58.132143 25706 net.cpp:141] Setting up reshape_stage_indicator
I0924 04:15:58.132145 25686 net.cpp:91] Creating Layer embedding
I0924 04:15:58.132163 25706 net.cpp:148] Top shape: 1 1 1 (1)
I0924 04:15:58.132145 25690 net.cpp:399] reshape_frames -> embedded_input_frames
I0924 04:15:58.132175 25706 net.cpp:156] Memory required for data: 20408
I0924 04:15:58.132170 25686 net.cpp:425] embedding <- input_sentence
I0924 04:15:58.132184 25706 layer_factory.hpp:77] Creating layer embedding
I0924 04:15:58.132194 25686 net.cpp:399] embedding -> embedded_input_sentence
I0924 04:15:58.132197 25706 net.cpp:91] Creating Layer embedding
I0924 04:15:58.132206 25706 net.cpp:425] embedding <- input_sentence
I0924 04:15:58.132218 25706 net.cpp:399] embedding -> embedded_input_sentence
I0924 04:15:58.175329 25734 net.cpp:141] Setting up reshape_frames
I0924 04:15:58.175374 25690 net.cpp:141] Setting up reshape_frames
I0924 04:15:58.175387 25734 net.cpp:148] Top shape: 1 1 500 (500)
I0924 04:15:58.175396 25690 net.cpp:148] Top shape: 1 1 500 (500)
I0924 04:15:58.175397 25734 net.cpp:156] Memory required for data: 20404
I0924 04:15:58.175416 25690 net.cpp:156] Memory required for data: 20404
I0924 04:15:58.175426 25734 layer_factory.hpp:77] Creating layer reshape_stage_indicator
I0924 04:15:58.175427 25690 layer_factory.hpp:77] Creating layer reshape_stage_indicator
I0924 04:15:58.175452 25734 net.cpp:91] Creating Layer reshape_stage_indicator
I0924 04:15:58.175473 25734 net.cpp:425] reshape_stage_indicator <- stage_indicator
I0924 04:15:58.175490 25734 net.cpp:399] reshape_stage_indicator -> reshaped_stage_indicator
I0924 04:15:58.175452 25690 net.cpp:91] Creating Layer reshape_stage_indicator
I0924 04:15:58.175530 25690 net.cpp:425] reshape_stage_indicator <- stage_indicator
I0924 04:15:58.175562 25690 net.cpp:399] reshape_stage_indicator -> reshaped_stage_indicator
I0924 04:15:58.278643 25734 net.cpp:141] Setting up reshape_stage_indicator
I0924 04:15:58.278651 25690 net.cpp:141] Setting up reshape_stage_indicator
I0924 04:15:58.278707 25734 net.cpp:148] Top shape: 1 1 1 (1)
I0924 04:15:58.278707 25690 net.cpp:148] Top shape: 1 1 1 (1)
I0924 04:15:58.278728 25734 net.cpp:156] Memory required for data: 20408
I0924 04:15:58.278729 25690 net.cpp:156] Memory required for data: 20408
I0924 04:15:58.278743 25734 layer_factory.hpp:77] Creating layer embedding
I0924 04:15:58.278743 25690 layer_factory.hpp:77] Creating layer embedding
I0924 04:15:58.278774 25690 net.cpp:91] Creating Layer embedding
I0924 04:15:58.278774 25734 net.cpp:91] Creating Layer embedding
I0924 04:15:58.278792 25690 net.cpp:425] embedding <- input_sentence
I0924 04:15:58.278796 25734 net.cpp:425] embedding <- input_sentence
I0924 04:15:58.278811 25734 net.cpp:399] embedding -> embedded_input_sentence
I0924 04:15:58.278817 25690 net.cpp:399] embedding -> embedded_input_sentence
I0924 04:15:58.323647 25682 net.cpp:141] Setting up embed_encoder
I0924 04:15:58.323704 25682 net.cpp:148] Top shape: 1 500 (500)
I0924 04:15:58.323712 25682 net.cpp:156] Memory required for data: 18404
I0924 04:15:58.323743 25682 layer_factory.hpp:77] Creating layer reshape_frames
I0924 04:15:58.323776 25682 net.cpp:91] Creating Layer reshape_frames
I0924 04:15:58.323787 25682 net.cpp:425] reshape_frames <- embedded_in_frames
I0924 04:15:58.323803 25682 net.cpp:399] reshape_frames -> embedded_input_frames
I0924 04:15:58.323921 25726 net.cpp:141] Setting up embed_encoder
I0924 04:15:58.323943 25726 net.cpp:148] Top shape: 1 500 (500)
I0924 04:15:58.323951 25726 net.cpp:156] Memory required for data: 18404
I0924 04:15:58.323966 25726 layer_factory.hpp:77] Creating layer reshape_frames
I0924 04:15:58.323966 25682 net.cpp:141] Setting up reshape_frames
I0924 04:15:58.323982 25726 net.cpp:91] Creating Layer reshape_frames
I0924 04:15:58.323988 25726 net.cpp:425] reshape_frames <- embedded_in_frames
I0924 04:15:58.323989 25682 net.cpp:148] Top shape: 1 1 500 (500)
I0924 04:15:58.323998 25682 net.cpp:156] Memory required for data: 20404
I0924 04:15:58.324000 25726 net.cpp:399] reshape_frames -> embedded_input_frames
I0924 04:15:58.324007 25682 layer_factory.hpp:77] Creating layer reshape_stage_indicator
I0924 04:15:58.324023 25682 net.cpp:91] Creating Layer reshape_stage_indicator
I0924 04:15:58.324031 25682 net.cpp:425] reshape_stage_indicator <- stage_indicator
I0924 04:15:58.324071 25682 net.cpp:399] reshape_stage_indicator -> reshaped_stage_indicator
I0924 04:15:58.446028 25726 net.cpp:141] Setting up reshape_frames
I0924 04:15:58.446060 25678 net.cpp:141] Setting up embedding
I0924 04:15:58.446101 25726 net.cpp:148] Top shape: 1 1 500 (500)
I0924 04:15:58.446101 25678 net.cpp:148] Top shape: 1 1 500 (500)
I0924 04:15:58.446120 25726 net.cpp:156] Memory required for data: 20404
I0924 04:15:58.446122 25678 net.cpp:156] Memory required for data: 22408
I0924 04:15:58.446141 25726 layer_factory.hpp:77] Creating layer reshape_stage_indicator
I0924 04:15:58.446152 25678 layer_factory.hpp:77] Creating layer lstm1
I0924 04:15:58.446176 25678 net.cpp:91] Creating Layer lstm1
I0924 04:15:58.446185 25678 net.cpp:425] lstm1 <- embedded_input_frames
I0924 04:15:58.446184 25726 net.cpp:91] Creating Layer reshape_stage_indicator
I0924 04:15:58.446195 25678 net.cpp:425] lstm1 <- cont_sentence_input_1_split_0
I0924 04:15:58.446211 25678 net.cpp:399] lstm1 -> lstm1
I0924 04:15:58.446195 25700 net.cpp:141] Setting up embedding
I0924 04:15:58.446197 25726 net.cpp:425] reshape_stage_indicator <- stage_indicator
I0924 04:15:58.446254 25700 net.cpp:148] Top shape: 1 1 500 (500)
I0924 04:15:58.446218 25738 net.cpp:141] Setting up embedding
I0924 04:15:58.446271 25678 recurrent_layer.cpp:20] Initializing recurrent layer: assuming input batch contains 1 timesteps of 1 independent streams.
I0924 04:15:58.446262 25700 net.cpp:156] Memory required for data: 22408
I0924 04:15:58.446283 25738 net.cpp:148] Top shape: 1 1 500 (500)
I0924 04:15:58.446286 25686 net.cpp:141] Setting up embedding
I0924 04:15:58.446300 25738 net.cpp:156] Memory required for data: 22408
I0924 04:15:58.446272 25726 net.cpp:399] reshape_stage_indicator -> reshaped_stage_indicator
I0924 04:15:58.446310 25686 net.cpp:148] Top shape: 1 1 500 (500)
I0924 04:15:58.446312 25700 layer_factory.hpp:77] Creating layer lstm1
I0924 04:15:58.446321 25738 layer_factory.hpp:77] Creating layer lstm1
I0924 04:15:58.446317 25686 net.cpp:156] Memory required for data: 22408
I0924 04:15:58.446329 25682 net.cpp:141] Setting up reshape_stage_indicator
I0924 04:15:58.446338 25738 net.cpp:91] Creating Layer lstm1
I0924 04:15:58.446346 25686 layer_factory.hpp:77] Creating layer lstm1
I0924 04:15:58.446348 25682 net.cpp:148] Top shape: 1 1 1 (1)
I0924 04:15:58.446357 25700 net.cpp:91] Creating Layer lstm1
I0924 04:15:58.446359 25686 net.cpp:91] Creating Layer lstm1
I0924 04:15:58.446349 25738 net.cpp:425] lstm1 <- embedded_input_frames
I0924 04:15:58.446370 25682 net.cpp:156] Memory required for data: 20408
I0924 04:15:58.446373 25700 net.cpp:425] lstm1 <- embedded_input_frames
I0924 04:15:58.446378 25738 net.cpp:425] lstm1 <- cont_sentence_input_1_split_0
I0924 04:15:58.446373 25686 net.cpp:425] lstm1 <- embedded_input_frames
I0924 04:15:58.446372 25726 net.cpp:141] Setting up reshape_stage_indicator
I0924 04:15:58.446398 25686 net.cpp:425] lstm1 <- cont_sentence_input_1_split_0
I0924 04:15:58.446399 25700 net.cpp:425] lstm1 <- cont_sentence_input_1_split_0
I0924 04:15:58.446400 25738 net.cpp:399] lstm1 -> lstm1
I0924 04:15:58.446390 25682 layer_factory.hpp:77] Creating layer embedding
I0924 04:15:58.446415 25726 net.cpp:148] Top shape: 1 1 1 (1)
I0924 04:15:58.446419 25700 net.cpp:399] lstm1 -> lstm1
I0924 04:15:58.446422 25738 recurrent_layer.cpp:20] Initializing recurrent layer: assuming input batch contains 1 timesteps of 1 independent streams.
I0924 04:15:58.446411 25686 net.cpp:399] lstm1 -> lstm1
I0924 04:15:58.446422 25726 net.cpp:156] Memory required for data: 20408
I0924 04:15:58.446439 25682 net.cpp:91] Creating Layer embedding
…
I0924 04:15:58.446476 25726 net.cpp:399] embedding -> embedded_input_sentence
I0924 04:15:58.446724 25678 net.cpp:49] Initializing net from parameters: 
layer {
  name: "lstm1_"
  type: "Input"
  top: "x"
  top: "cont"
  input_param {
    shape {
      dim: 1
      dim: 1
      dim: 500
    }
    shape {
      dim: 1
      dim: 1
    }
  }
}
layer {
  name: "lstm1_"
  type: "Input"
  top: "c_0"
  top: "h_0"
  input_param {
    shape {
      dim: 1
      dim: 1
      dim: 1000
    }
    shape {
      dim: 1
      dim: 1
      dim: 1000
    }
  }
}
layer {
  name: "lstm1_cont_slice"
  type: "Slice"
  bottom: "cont"
  top: "cont_1"
  slice_param {
    axis: 0
  }
}
layer {
  name: "lstm1_x_transform"
  type: "InnerProduct"
  bottom: "x"
  top: "W_xc_x"
  param {
    name: "W_xc"
  }
  param {
    name: "b_c"
  }
  propagate_down: true
  inner_product_param {
    num_output: 4000
    bias_term: true
    weight_filler {
      type: "uniform"
      min: -0.08
      max: 0.08
    }
    bias_filler {
      type: "constant"
      value: 0
    }
    axis: 2
  }
}
layer {
  name: "lstm1_W_xc_x_slice"
  type: "Slice"
  bottom: "W_xc_x"
  top: "W_xc_x_1"
  slice_param {
    axis: 0
  }
}
layer {
  name: "lstm1_h_conted_0"
  type: "Scale"
  bottom: "h_0"
  bottom: "cont_1"
  top: "h_conted_0"
  scale_param {
    axis: 0
  }
}
layer {
  name: "lstm1_transform_1"
  type: "InnerProduct"
  bottom: "h_conted_0"
  top: "W_hc_h_0"
  param {
    name: "W_hc"
  }
  inner_product_param {
    num_output: 4000
    bias_term: false
    weight_filler {
      type: "uniform"
      min: -0.08
      max: 0.08
    }
    axis: 2
  }
}
layer {
  name: "lstm1_gate_input_1"
  type: "Eltwise"
  bottom: "W_hc_h_0"
  bottom: "W_xc_x_1"
  top: "gate_input_1"
  eltwise_param {
    operation: SUM
  }
}
layer {
  name: "lstm1_unit_1"
  type: "LSTMUnit"
  bottom: "c_0"
  bottom: "gate_input_1"
  bottom: "cont_1"
  top: "c_1"
  top: "h_1"
}
layer {
  name: "lstm1_"
  type: "Split"
  bottom: "c_1"
  top: "c_T"
}
layer {
  name: "lstm1_h_concat"
  type: "Concat"
  bottom: "h_1"
  top: "h"
  concat_param {
    axis: 0
  }
}
layer {
  name: "h_pseudoloss"
  type: "Reduction"
  bottom: "h"
  top: "h_pseudoloss"
  loss_weight: 1
}
I0924 04:15:58.446743 25738 net.cpp:49] Initializing net from parameters: 
layer {
  name: "lstm1_"
  type: "Input"
  top: "x"
  top: "cont"
  input_param {
    shape {
      dim: 1
      dim: 1
      dim: 500
    }
    shape {
      dim: 1
      dim: 1
    }
  }
}
layer {
  name: "lstm1_"
  type: "Input"
  top: "c_0"
  top: "h_0"
  input_param {
    shape {
      dim: 1
      dim: 1
      dim: 1000
    }
    shape {
      dim: 1
      dim: 1
      dim: 1000
    }
  }
}
layer {
  name: "lstm1_cont_slice"
  type: "Slice"
  bottom: "cont"
  top: "cont_1"
  slice_param {
    axis: 0
  }
}
layer {
  name: "lstm1_x_transform"
  type: "InnerProduct"
  bottom: "x"
  top: "W_xc_x"
  param {
    name: "W_xc"
  }
  param {
    name: "b_c"
  }
  propagate_down: true
  inner_product_param {
    num_output: 4000
    bias_term: true
    weight_filler {
      type: "uniform"
      min: -0.08
      max: 0.08
    }
    bias_filler {
      type: "constant"
      value: 0
    }
    axis: 2
  }
}
layer {
  name: "lstm1_W_xc_x_slice"
  type: "Slice"
  bottom: "W_xc_x"
  top: "W_xc_x_1"
  slice_param {
    axis: 0
  }
}
layer {
  name: "lstm1_h_conted_0"
  type: "Scale"
  bottom: "h_0"
  bottom: "cont_1"
  top: "h_conted_0"
  scale_param {
    axis: 0
  }
}
layer {
  name: "lstm1_transform_1"
  type: "InnerProduct"
  bottom: "h_conted_0"
  top: "W_hc_h_0"
  param {
    name: "W_hc"
  }
  inner_product_param {
    num_output: 4000
    bias_term: false
    weight_filler {
      type: "uniform"
      min: -0.08
      max: 0.08
    }
    axis: 2
  }
}
layer {
  name: "lstm1_gate_input_1"
  type: "Eltwise"
  bottom: "W_hc_h_0"
  bottom: "W_xc_x_1"
  top: "gate_input_1"
  eltwise_param {
    operation: SUM
  }
}
layer {
  name: "lstm1_unit_1"
  type: "LSTMUnit"
  bottom: "c_0"
  bottom: "gate_input_1"
  bottom: "cont_1"
  top: "c_1"
  top: "h_1"
}
layer {
  name: "lstm1_"
  type: "Split"
  bottom: "c_1"
  top: "c_T"
}
layer {
  name: "lstm1_h_concat"
  type: "Concat"
  bottom: "h_1"
  top: "h"
  concat_param {
    axis: 0
  }
}
layer {
  name: "h_pseudoloss"
  type: "Reduction"
  bottom: "h"
  top: "h_pseudoloss"
  loss_weight: 1
}
I0924 04:15:58.446832 25686 net.cpp:49] Initializing net from parameters: 
layer {
  name: "lstm1_"
  type: "Input"
  top: "x"
  top: "cont"
  input_param {
    shape {
      dim: 1
      dim: 1
      dim: 500
    }
    shape {
      dim: 1
      dim: 1
    }
  }
}
layer {
  name: "lstm1_"
  type: "Input"
  top: "c_0"
  top: "h_0"
  input_param {
    shape {
      dim: 1
      dim: 1
      dim: 1000
    }
    shape {
      dim: 1
      dim: 1
      dim: 1000
    }
  }
}
layer {
  name: "lstm1_cont_slice"
  type: "Slice"
  bottom: "cont"
  top: "cont_1"
  slice_param {
    axis: 0
  }
}
layer {
  name: "lstm1_x_transform"
  type: "InnerProduct"
  bottom: "x"
  top: "W_xc_x"
  param {
    name: "W_xc"
  }
  param {
    name: "b_c"
  }
  propagate_down: true
  inner_product_param {
    num_output: 4000
    bias_term: true
    weight_filler {
      type: "uniform"
      min: -0.08
      max: 0.08
    }
    bias_filler {
      type: "constant"
      value: 0
    }
    axis: 2
  }
}
layer {
  name: "lstm1_W_xc_x_slice"
  type: "Slice"
  bottom: "W_xc_x"
  top: "W_xc_x_1"
  slice_param {
    axis: 0
  }
}
layer {
  name: "lstm1_h_conted_0"
  type: "Scale"
  bottom: "h_0"
  bottom: "cont_1"
  top: "h_conted_0"
  scale_param {
    axis: 0
  }
}
layer {
  name: "lstm1_transform_1"
  type: "InnerProduct"
  bottom: "h_conted_0"
  top: "W_hc_h_0"
  param {
    name: "W_hc"
  }
  inner_product_param {
    num_output: 4000
    bias_term: false
    weight_filler {
      type: "uniform"
      min: -0.08
      max: 0.08
    }
    axis: 2
  }
}
layer {
  name: "lstm1_gate_input_1"
  type: "Eltwise"
  bottom: "W_hc_h_0"
  bottom: "W_xc_x_1"
  top: "gate_input_1"
  eltwise_param {
    operation: SUM
  }
}
layer {
  name: "lstm1_unit_1"
  type: "LSTMUnit"
  bottom: "c_0"
  bottom: "gate_input_1"
  bottom: "cont_1"
  top: "c_1"
  top: "h_1"
}
layer {
  name: "lstm1_"
  type: "Split"
  bottom: "c_1"
  top: "c_T"
}
layer {
  name: "lstm1_h_concat"
  type: "Concat"
  bottom: "h_1"
  top: "h"
  concat_param {
    axis: 0
  }
}
layer {
  name: "h_pseudoloss"
  type: "Reduction"
  bottom: "h"
  top: "h_pseudoloss"
  loss_weight: 1
}
I0924 04:15:58.446858 25738 layer_factory.hpp:77] Creating layer lstm1_
I0924 04:15:58.446877 25738 net.cpp:91] Creating Layer lstm1_
I0924 04:15:58.446885 25738 net.cpp:399] lstm1_ -> x
I0924 04:15:58.446903 25738 net.cpp:399] lstm1_ -> cont
I0924 04:15:58.446943 25678 layer_factory.hpp:77] Creating layer lstm1_
I0924 04:15:58.446959 25678 net.cpp:91] Creating Layer lstm1_
I0924 04:15:58.446960 25700 net.cpp:49] Initializing net from parameters: 
layer {
  name: "lstm1_"
  type: "Input"
  top: "x"
  top: "cont"
  input_param {
    shape {
      dim: 1
      dim: 1
      dim: 500
    }
    shape {
      dim: 1
      dim: 1
    }
  }
}
layer {
  name: "lstm1_"
  type: "Input"
  top: "c_0"
  top: "h_0"
  input_param {
    shape {
      dim: 1
      dim: 1
      dim: 1000
    }
    shape {
      dim: 1
      dim: 1
      dim: 1000
    }
  }
}
layer {
  name: "lstm1_cont_slice"
  type: "Slice"
  bottom: "cont"
  top: "cont_1"
  slice_param {
    axis: 0
  }
}
layer {
  name: "lstm1_x_transform"
  type: "InnerProduct"
  bottom: "x"
  top: "W_xc_x"
  param {
    name: "W_xc"
  }
  param {
    name: "b_c"
  }
  propagate_down: true
  inner_product_param {
    num_output: 4000
    bias_term: true
    weight_filler {
      type: "uniform"
      min: -0.08
      max: 0.08
    }
    bias_filler {
      type: "constant"
      value: 0
    }
    axis: 2
  }
}
layer {
  name: "lstm1_W_xc_x_slice"
  type: "Slice"
  bottom: "W_xc_x"
  top: "W_xc_x_1"
  slice_param {
    axis: 0
  }
}
layer {
  name: "lstm1_h_conted_0"
  type: "Scale"
  bottom: "h_0"
  bottom: "cont_1"
  top: "h_conted_0"
  scale_param {
    axis: 0
  }
}
layer {
  name: "lstm1_transform_1"
  type: "InnerProduct"
  bottom: "h_conted_0"
  top: "W_hc_h_0"
  param {
    name: "W_hc"
  }
  inner_product_param {
    num_output: 4000
    bias_term: false
    weight_filler {
      type: "uniform"
      min: -0.08
      max: 0.08
    }
    axis: 2
  }
}
layer {
  name: "lstm1_gate_input_1"
  type: "Eltwise"
  bottom: "W_hc_h_0"
  bottom: "W_xc_x_1"
  top: "gate_input_1"
  eltwise_param {
    operation: SUM
  }
}
layer {
  name: "lstm1_unit_1"
  type: "LSTMUnit"
  bottom: "c_0"
  bottom: "gate_input_1"
  bottom: "cont_1"
  top: "c_1"
  top: "h_1"
}
layer {
  name: "lstm1_"
  type: "Split"
  bottom: "c_1"
  top: "c_T"
}
layer {
  name: "lstm1_h_concat"
  type: "Concat"
  bottom: "h_1"
  top: "h"
  concat_param {
    axis: 0
  }
}
layer {
  name: "h_pseudoloss"
  type: "Reduction"
  bottom: "h"
  top: "h_pseudoloss"
  loss_weight: 1
}
I0924 04:15:58.446966 25678 net.cpp:399] lstm1_ -> x
I0924 04:15:58.446996 25678 net.cpp:399] lstm1_ -> cont
I0924 04:15:58.447123 25700 layer_factory.hpp:77] Creating layer lstm1_
I0924 04:15:58.447140 25700 net.cpp:91] Creating Layer lstm1_
I0924 04:15:58.447147 25700 net.cpp:399] lstm1_ -> x
I0924 04:15:58.447159 25700 net.cpp:399] lstm1_ -> cont
I0924 04:15:58.447206 25686 layer_factory.hpp:77] Creating layer lstm1_
I0924 04:15:58.447216 25686 net.cpp:91] Creating Layer lstm1_
I0924 04:15:58.447221 25686 net.cpp:399] lstm1_ -> x
I0924 04:15:58.447232 25686 net.cpp:399] lstm1_ -> cont
I0924 04:15:58.521719 25700 net.cpp:141] Setting up lstm1_
I0924 04:15:58.521780 25700 net.cpp:148] Top shape: 1 1 500 (500)
I0924 04:15:58.521788 25700 net.cpp:148] Top shape: 1 1 (1)
I0924 04:15:58.521792 25700 net.cpp:156] Memory required for data: 2004
I0924 04:15:58.521803 25700 layer_factory.hpp:77] Creating layer lstm1_
I0924 04:15:58.521831 25700 net.cpp:91] Creating Layer lstm1_
I0924 04:15:58.521839 25700 net.cpp:399] lstm1_ -> c_0
I0924 04:15:58.559442 25700 net.cpp:399] lstm1_ -> h_0
I0924 04:15:58.563254 25712 net.cpp:141] Setting up embedding
I0924 04:15:58.563341 25712 net.cpp:148] Top shape: 1 1 500 (500)
I0924 04:15:58.563355 25712 net.cpp:156] Memory required for data: 22408
I0924 04:15:58.563397 25712 layer_factory.hpp:77] Creating layer lstm1
I0924 04:15:58.563446 25712 net.cpp:91] Creating Layer lstm1
I0924 04:15:58.563467 25712 net.cpp:425] lstm1 <- embedded_input_frames
I0924 04:15:58.563488 25712 net.cpp:425] lstm1 <- cont_sentence_input_1_split_0
I0924 04:15:58.563516 25712 net.cpp:399] lstm1 -> lstm1
I0924 04:15:58.563555 25712 recurrent_layer.cpp:20] Initializing recurrent layer: assuming input batch contains 1 timesteps of 1 independent streams.
I0924 04:15:58.564110 25712 net.cpp:49] Initializing net from parameters: 
layer {
  name: "lstm1_"
  type: "Input"
  top: "x"
  top: "cont"
  input_param {
    shape {
      dim: 1
      dim: 1
      dim: 500
    }
    shape {
      dim: 1
      dim: 1
    }
  }
}
layer {
  name: "lstm1_"
  type: "Input"
  top: "c_0"
  top: "h_0"
  input_param {
    shape {
      dim: 1
      dim: 1
      dim: 1000
    }
    shape {
      dim: 1
      dim: 1
      dim: 1000
    }
  }
}
layer {
  name: "lstm1_cont_slice"
  type: "Slice"
  bottom: "cont"
  top: "cont_1"
  slice_param {
    axis: 0
  }
}
layer {
  name: "lstm1_x_transform"
  type: "InnerProduct"
  bottom: "x"
  top: "W_xc_x"
  param {
    name: "W_xc"
  }
  param {
    name: "b_c"
  }
  propagate_down: true
  inner_product_param {
    num_output: 4000
    bias_term: true
    weight_filler {
      type: "uniform"
      min: -0.08
      max: 0.08
    }
    bias_filler {
      type: "constant"
      value: 0
    }
    axis: 2
  }
}
layer {
  name: "lstm1_W_xc_x_slice"
  type: "Slice"
  bottom: "W_xc_x"
  top: "W_xc_x_1"
  slice_param {
    axis: 0
  }
}
layer {
  name: "lstm1_h_conted_0"
  type: "Scale"
  bottom: "h_0"
  bottom: "cont_1"
  top: "h_conted_0"
  scale_param {
    axis: 0
  }
}
layer {
  name: "lstm1_transform_1"
  type: "InnerProduct"
  bottom: "h_conted_0"
  top: "W_hc_h_0"
  param {
    name: "W_hc"
  }
  inner_product_param {
    num_output: 4000
    bias_term: false
    weight_filler {
      type: "uniform"
      min: -0.08
      max: 0.08
    }
    axis: 2
  }
}
layer {
  name: "lstm1_gate_input_1"
  type: "Eltwise"
  bottom: "W_hc_h_0"
  bottom: "W_xc_x_1"
  top: "gate_input_1"
  eltwise_param {
    operation: SUM
  }
}
layer {
  name: "lstm1_unit_1"
  type: "LSTMUnit"
  bottom: "c_0"
  bottom: "gate_input_1"
  bottom: "cont_1"
  top: "c_1"
  top: "h_1"
}
layer {
  name: "lstm1_"
  type: "Split"
  bottom: "c_1"
  top: "c_T"
}
layer {
  name: "lstm1_h_concat"
  type: "Concat"
  bottom: "h_1"
  top: "h"
  concat_param {
    axis: 0
  }
}
layer {
  name: "h_pseudoloss"
  type: "Reduction"
  bottom: "h"
  top: "h_pseudoloss"
  loss_weight: 1
}
I0924 04:15:58.564302 25712 layer_factory.hpp:77] Creating layer lstm1_
I0924 04:15:58.564333 25712 net.cpp:91] Creating Layer lstm1_
I0924 04:15:58.564348 25712 net.cpp:399] lstm1_ -> x
I0924 04:15:58.564375 25712 net.cpp:399] lstm1_ -> cont
I0924 04:15:58.564575 25712 net.cpp:141] Setting up lstm1_
I0924 04:15:58.564602 25712 net.cpp:148] Top shape: 1 1 500 (500)
I0924 04:15:58.564617 25712 net.cpp:148] Top shape: 1 1 (1)
I0924 04:15:58.564627 25712 net.cpp:156] Memory required for data: 2004
I0924 04:15:58.564640 25712 layer_factory.hpp:77] Creating layer lstm1_
I0924 04:15:58.564658 25712 net.cpp:91] Creating Layer lstm1_
I0924 04:15:58.564677 25712 net.cpp:399] lstm1_ -> c_0
I0924 04:15:58.564697 25712 net.cpp:399] lstm1_ -> h_0
I0924 04:15:58.564788 25712 net.cpp:141] Setting up lstm1_
I0924 04:15:58.564805 25712 net.cpp:148] Top shape: 1 1 1000 (1000)
I0924 04:15:58.564813 25712 net.cpp:148] Top shape: 1 1 1000 (1000)
I0924 04:15:58.564820 25712 net.cpp:156] Memory required for data: 10004
I0924 04:15:58.564826 25712 layer_factory.hpp:77] Creating layer lstm1_cont_slice
I0924 04:15:58.564841 25712 net.cpp:91] Creating Layer lstm1_cont_slice
I0924 04:15:58.564851 25712 net.cpp:425] lstm1_cont_slice <- cont
I0924 04:15:58.564862 25712 net.cpp:399] lstm1_cont_slice -> cont_1
I0924 04:15:58.564911 25712 net.cpp:141] Setting up lstm1_cont_slice
I0924 04:15:58.564924 25712 net.cpp:148] Top shape: 1 1 (1)
I0924 04:15:58.564929 25712 net.cpp:156] Memory required for data: 10008
I0924 04:15:58.564936 25712 layer_factory.hpp:77] Creating layer cont_1_lstm1_cont_slice_0_split
I0924 04:15:58.564947 25712 net.cpp:91] Creating Layer cont_1_lstm1_cont_slice_0_split
I0924 04:15:58.564957 25712 net.cpp:425] cont_1_lstm1_cont_slice_0_split <- cont_1
I0924 04:15:58.564968 25712 net.cpp:399] cont_1_lstm1_cont_slice_0_split -> cont_1_lstm1_cont_slice_0_split_0
I0924 04:15:58.564981 25712 net.cpp:399] cont_1_lstm1_cont_slice_0_split -> cont_1_lstm1_cont_slice_0_split_1
I0924 04:15:58.565012 25678 net.cpp:141] Setting up lstm1_
I0924 04:15:58.565033 25678 net.cpp:148] Top shape: 1 1 500 (500)
I0924 04:15:58.565044 25678 net.cpp:148] Top shape: 1 1 (1)
I0924 04:15:58.565050 25678 net.cpp:156] Memory required for data: 2004
I0924 04:15:58.565059 25678 layer_factory.hpp:77] Creating layer lstm1_
I0924 04:15:58.565062 25712 net.cpp:141] Setting up cont_1_lstm1_cont_slice_0_split
I0924 04:15:58.565075 25712 net.cpp:148] Top shape: 1 1 (1)
I0924 04:15:58.565075 25678 net.cpp:91] Creating Layer lstm1_
I0924 04:15:58.565084 25712 net.cpp:148] Top shape: 1 1 (1)
I0924 04:15:58.565091 25712 net.cpp:156] Memory required for data: 10016
I0924 04:15:58.565099 25712 layer_factory.hpp:77] Creating layer lstm1_x_transform
I0924 04:15:58.565104 25678 net.cpp:399] lstm1_ -> c_0
I0924 04:15:58.565115 25712 net.cpp:91] Creating Layer lstm1_x_transform
I0924 04:15:58.565120 25678 net.cpp:399] lstm1_ -> h_0
I0924 04:15:58.565122 25712 net.cpp:425] lstm1_x_transform <- x
I0924 04:15:58.565138 25712 net.cpp:399] lstm1_x_transform -> W_xc_x
I0924 04:15:58.565196 25706 net.cpp:141] Setting up embedding
I0924 04:15:58.565243 25706 net.cpp:148] Top shape: 1 1 500 (500)
I0924 04:15:58.565250 25706 net.cpp:156] Memory required for data: 22408
I0924 04:15:58.565273 25706 layer_factory.hpp:77] Creating layer lstm1
I0924 04:15:58.565295 25706 net.cpp:91] Creating Layer lstm1
I0924 04:15:58.565305 25706 net.cpp:425] lstm1 <- embedded_input_frames
I0924 04:15:58.565316 25706 net.cpp:425] lstm1 <- cont_sentence_input_1_split_0
I0924 04:15:58.565331 25706 net.cpp:399] lstm1 -> lstm1
I0924 04:15:58.565352 25706 recurrent_layer.cpp:20] Initializing recurrent layer: assuming input batch contains 1 timesteps of 1 independent streams.
I0924 04:15:58.565745 25706 net.cpp:49] Initializing net from parameters: 
layer {
  name: "lstm1_"
  type: "Input"
  top: "x"
  top: "cont"
  input_param {
    shape {
      dim: 1
      dim: 1
      dim: 500
    }
    shape {
      dim: 1
      dim: 1
    }
  }
}
layer {
  name: "lstm1_"
  type: "Input"
  top: "c_0"
  top: "h_0"
  input_param {
    shape {
      dim: 1
      dim: 1
      dim: 1000
    }
    shape {
      dim: 1
      dim: 1
      dim: 1000
    }
  }
}
layer {
  name: "lstm1_cont_slice"
  type: "Slice"
  bottom: "cont"
  top: "cont_1"
  slice_param {
    axis: 0
  }
}
layer {
  name: "lstm1_x_transform"
  type: "InnerProduct"
  bottom: "x"
  top: "W_xc_x"
  param {
    name: "W_xc"
  }
  param {
    name: "b_c"
  }
  propagate_down: true
  inner_product_param {
    num_output: 4000
    bias_term: true
    weight_filler {
      type: "uniform"
      min: -0.08
      max: 0.08
    }
    bias_filler {
      type: "constant"
      value: 0
    }
    axis: 2
  }
}
layer {
  name: "lstm1_W_xc_x_slice"
  type: "Slice"
  bottom: "W_xc_x"
  top: "W_xc_x_1"
  slice_param {
    axis: 0
  }
}
layer {
  name: "lstm1_h_conted_0"
  type: "Scale"
  bottom: "h_0"
  bottom: "cont_1"
  top: "h_conted_0"
  scale_param {
    axis: 0
  }
}
layer {
  name: "lstm1_transform_1"
  type: "InnerProduct"
  bottom: "h_conted_0"
  top: "W_hc_h_0"
  param {
    name: "W_hc"
  }
  inner_product_param {
    num_output: 4000
    bias_term: false
    weight_filler {
      type: "uniform"
      min: -0.08
      max: 0.08
    }
    axis: 2
  }
}
layer {
  name: "lstm1_gate_input_1"
  type: "Eltwise"
  bottom: "W_hc_h_0"
  bottom: "W_xc_x_1"
  top: "gate_input_1"
  eltwise_param {
    operation: SUM
  }
}
layer {
  name: "lstm1_unit_1"
  type: "LSTMUnit"
  bottom: "c_0"
  bottom: "gate_input_1"
  bottom: "cont_1"
  top: "c_1"
  top: "h_1"
}
layer {
  name: "lstm1_"
  type: "Split"
  bottom: "c_1"
  top: "c_T"
}
layer {
  name: "lstm1_h_concat"
  type: "Concat"
  bottom: "h_1"
  top: "h"
  concat_param {
    axis: 0
  }
}
layer {
  name: "h_pseudoloss"
  type: "Reduction"
  bottom: "h"
  top: "h_pseudoloss"
  loss_weight: 1
}
I0924 04:15:58.565866 25706 layer_factory.hpp:77] Creating layer lstm1_
I0924 04:15:58.565882 25706 net.cpp:91] Creating Layer lstm1_
I0924 04:15:58.565891 25706 net.cpp:399] lstm1_ -> x
I0924 04:15:58.565907 25706 net.cpp:399] lstm1_ -> cont
I0924 04:15:58.570652 25686 net.cpp:141] Setting up lstm1_
I0924 04:15:58.570694 25686 net.cpp:148] Top shape: 1 1 500 (500)
I0924 04:15:58.570706 25686 net.cpp:148] Top shape: 1 1 (1)
I0924 04:15:58.570713 25686 net.cpp:156] Memory required for data: 2004
I0924 04:15:58.570724 25686 layer_factory.hpp:77] Creating layer lstm1_
I0924 04:15:58.570758 25686 net.cpp:91] Creating Layer lstm1_
I0924 04:15:58.570771 25686 net.cpp:399] lstm1_ -> c_0
I0924 04:15:58.570792 25686 net.cpp:399] lstm1_ -> h_0
I0924 04:15:58.570890 25700 net.cpp:141] Setting up lstm1_
I0924 04:15:58.570933 25700 net.cpp:148] Top shape: 1 1 1000 (1000)
I0924 04:15:58.570945 25700 net.cpp:148] Top shape: 1 1 1000 (1000)
I0924 04:15:58.570950 25700 net.cpp:156] Memory required for data: 10004
I0924 04:15:58.570960 25700 layer_factory.hpp:77] Creating layer lstm1_cont_slice
I0924 04:15:58.570978 25706 net.cpp:141] Setting up lstm1_
I0924 04:15:58.570996 25700 net.cpp:91] Creating Layer lstm1_cont_slice
I0924 04:15:58.570996 25706 net.cpp:148] Top shape: 1 1 500 (500)
I0924 04:15:58.571022 25700 net.cpp:425] lstm1_cont_slice <- cont
I0924 04:15:58.571030 25706 net.cpp:148] Top shape: 1 1 (1)
I0924 04:15:58.571038 25700 net.cpp:399] lstm1_cont_slice -> cont_1
I0924 04:15:58.571038 25706 net.cpp:156] Memory required for data: 2004
I0924 04:15:58.571055 25686 net.cpp:141] Setting up lstm1_
I0924 04:15:58.571064 25706 layer_factory.hpp:77] Creating layer lstm1_
I0924 04:15:58.571074 25686 net.cpp:148] Top shape: 1 1 1000 (1000)
I0924 04:15:58.571085 25686 net.cpp:148] Top shape: 1 1 1000 (1000)
I0924 04:15:58.571080 25706 net.cpp:91] Creating Layer lstm1_
I0924 04:15:58.571094 25686 net.cpp:156] Memory required for data: 10004
I0924 04:15:58.571097 25706 net.cpp:399] lstm1_ -> c_0
I0924 04:15:58.571102 25686 layer_factory.hpp:77] Creating layer lstm1_cont_slice
I0924 04:15:58.571111 25678 net.cpp:141] Setting up lstm1_
I0924 04:15:58.571115 25706 net.cpp:399] lstm1_ -> h_0
I0924 04:15:58.571135 25678 net.cpp:148] Top shape: 1 1 1000 (1000)
I0924 04:15:58.571117 25686 net.cpp:91] Creating Layer lstm1_cont_slice
I0924 04:15:58.571146 25678 net.cpp:148] Top shape: 1 1 1000 (1000)
I0924 04:15:58.571148 25686 net.cpp:425] lstm1_cont_slice <- cont
I0924 04:15:58.571156 25678 net.cpp:156] Memory required for data: 10004
I0924 04:15:58.571163 25686 net.cpp:399] lstm1_cont_slice -> cont_1
I0924 04:15:58.571194 25738 net.cpp:141] Setting up lstm1_
I0924 04:15:58.571231 25738 net.cpp:148] Top shape: 1 1 500 (500)
I0924 04:15:58.571246 25686 net.cpp:141] Setting up lstm1_cont_slice
I0924 04:15:58.571255 25738 net.cpp:148] Top shape: 1 1 (1)
I0924 04:15:58.571262 25686 net.cpp:148] Top shape: 1 1 (1)
I0924 04:15:58.571271 25686 net.cpp:156] Memory required for data: 10008
I0924 04:15:58.571272 25738 net.cpp:156] Memory required for data: 2004
I0924 04:15:58.571280 25686 layer_factory.hpp:77] Creating layer cont_1_lstm1_cont_slice_0_split
I0924 04:15:58.571164 25678 layer_factory.hpp:77] Creating layer lstm1_cont_slice
I0924 04:15:58.571291 25738 layer_factory.hpp:77] Creating layer lstm1_
I0924 04:15:58.571292 25686 net.cpp:91] Creating Layer cont_1_lstm1_cont_slice_0_split
I0924 04:15:58.571316 25706 net.cpp:141] Setting up lstm1_
I0924 04:15:58.571319 25686 net.cpp:425] cont_1_lstm1_cont_slice_0_split <- cont_1
I0924 04:15:58.571337 25706 net.cpp:148] Top shape: 1 1 1000 (1000)
I0924 04:15:58.571338 25738 net.cpp:91] Creating Layer lstm1_
I0924 04:15:58.571348 25706 net.cpp:148] Top shape: 1 1 1000 (1000)
I0924 04:15:58.571348 25686 net.cpp:399] cont_1_lstm1_cont_slice_0_split -> cont_1_lstm1_cont_slice_0_split_0
I0924 04:15:58.571355 25706 net.cpp:156] Memory required for data: 10004
I0924 04:15:58.571363 25706 layer_factory.hpp:77] Creating layer lstm1_cont_slice
I0924 04:15:58.571367 25686 net.cpp:399] cont_1_lstm1_cont_slice_0_split -> cont_1_lstm1_cont_slice_0_split_1
I0924 04:15:58.571367 25738 net.cpp:399] lstm1_ -> c_0
I0924 04:15:58.571377 25706 net.cpp:91] Creating Layer lstm1_cont_slice
I0924 04:15:58.571378 25700 net.cpp:141] Setting up lstm1_cont_slice
I0924 04:15:58.571384 25706 net.cpp:425] lstm1_cont_slice <- cont
I0924 04:15:58.571394 25700 net.cpp:148] Top shape: 1 1 (1)
I0924 04:15:58.571398 25706 net.cpp:399] lstm1_cont_slice -> cont_1
I0924 04:15:58.571403 25700 net.cpp:156] Memory required for data: 10008
I0924 04:15:58.571406 25738 net.cpp:399] lstm1_ -> h_0
I0924 04:15:58.571413 25700 layer_factory.hpp:77] Creating layer cont_1_lstm1_cont_slice_0_split
I0924 04:15:58.571317 25678 net.cpp:91] Creating Layer lstm1_cont_slice
I0924 04:15:58.571441 25700 net.cpp:91] Creating Layer cont_1_lstm1_cont_slice_0_split
I0924 04:15:58.571449 25700 net.cpp:425] cont_1_lstm1_cont_slice_0_split <- cont_1
I0924 04:15:58.571473 25700 net.cpp:399] cont_1_lstm1_cont_slice_0_split -> cont_1_lstm1_cont_slice_0_split_0
I0924 04:15:58.571483 25686 net.cpp:141] Setting up cont_1_lstm1_cont_slice_0_split
I0924 04:15:58.571490 25700 net.cpp:399] cont_1_lstm1_cont_slice_0_split -> cont_1_lstm1_cont_slice_0_split_1
I0924 04:15:58.571506 25686 net.cpp:148] Top shape: 1 1 (1)
I0924 04:15:58.571513 25706 net.cpp:141] Setting up lstm1_cont_slice
I0924 04:15:58.571517 25686 net.cpp:148] Top shape: 1 1 (1)
I0924 04:15:58.571537 25686 net.cpp:156] Memory required for data: 10016
I0924 04:15:58.571538 25706 net.cpp:148] Top shape: 1 1 (1)
I0924 04:15:58.571545 25686 layer_factory.hpp:77] Creating layer lstm1_x_transform
I0924 04:15:58.571547 25706 net.cpp:156] Memory required for data: 10008
I0924 04:15:58.571449 25678 net.cpp:425] lstm1_cont_slice <- cont
I0924 04:15:58.571576 25686 net.cpp:91] Creating Layer lstm1_x_transform
I0924 04:15:58.571569 25706 layer_factory.hpp:77] Creating layer cont_1_lstm1_cont_slice_0_split
I0924 04:15:58.571588 25686 net.cpp:425] lstm1_x_transform <- x
I0924 04:15:58.571597 25706 net.cpp:91] Creating Layer cont_1_lstm1_cont_slice_0_split
I0924 04:15:58.571606 25700 net.cpp:141] Setting up cont_1_lstm1_cont_slice_0_split
I0924 04:15:58.571612 25706 net.cpp:425] cont_1_lstm1_cont_slice_0_split <- cont_1
I0924 04:15:58.571621 25700 net.cpp:148] Top shape: 1 1 (1)
I0924 04:15:58.571630 25706 net.cpp:399] cont_1_lstm1_cont_slice_0_split -> cont_1_lstm1_cont_slice_0_split_0
I0924 04:15:58.571611 25686 net.cpp:399] lstm1_x_transform -> W_xc_x
I0924 04:15:58.571637 25700 net.cpp:148] Top shape: 1 1 (1)
I0924 04:15:58.571645 25706 net.cpp:399] cont_1_lstm1_cont_slice_0_split -> cont_1_lstm1_cont_slice_0_split_1
I0924 04:15:58.571645 25700 net.cpp:156] Memory required for data: 10016
I0924 04:15:58.571666 25700 layer_factory.hpp:77] Creating layer lstm1_x_transform
I0924 04:15:58.571691 25700 net.cpp:91] Creating Layer lstm1_x_transform
I0924 04:15:58.571699 25700 net.cpp:425] lstm1_x_transform <- x
I0924 04:15:58.571713 25700 net.cpp:399] lstm1_x_transform -> W_xc_x
I0924 04:15:58.571595 25678 net.cpp:399] lstm1_cont_slice -> cont_1
I0924 04:15:58.577885 25706 net.cpp:141] Setting up cont_1_lstm1_cont_slice_0_split
I0924 04:15:58.577965 25706 net.cpp:148] Top shape: 1 1 (1)
I0924 04:15:58.577980 25706 net.cpp:148] Top shape: 1 1 (1)
I0924 04:15:58.577988 25706 net.cpp:156] Memory required for data: 10016
I0924 04:15:58.578001 25706 layer_factory.hpp:77] Creating layer lstm1_x_transform
I0924 04:15:58.578014 25678 net.cpp:141] Setting up lstm1_cont_slice
I0924 04:15:58.578037 25706 net.cpp:91] Creating Layer lstm1_x_transform
I0924 04:15:58.578052 25678 net.cpp:148] Top shape: 1 1 (1)
I0924 04:15:58.578052 25706 net.cpp:425] lstm1_x_transform <- x
I0924 04:15:58.578058 25678 net.cpp:156] Memory required for data: 10008
I0924 04:15:58.578069 25678 layer_factory.hpp:77] Creating layer cont_1_lstm1_cont_slice_0_split
I0924 04:15:58.578070 25738 net.cpp:141] Setting up lstm1_
I0924 04:15:58.578073 25706 net.cpp:399] lstm1_x_transform -> W_xc_x
I0924 04:15:58.578106 25738 net.cpp:148] Top shape: 1 1 1000 (1000)
I0924 04:15:58.578100 25678 net.cpp:91] Creating Layer cont_1_lstm1_cont_slice_0_split
I0924 04:15:58.578119 25738 net.cpp:148] Top shape: 1 1 1000 (1000)
I0924 04:15:58.578137 25678 net.cpp:425] cont_1_lstm1_cont_slice_0_split <- cont_1
I0924 04:15:58.578138 25738 net.cpp:156] Memory required for data: 10004
I0924 04:15:58.578158 25738 layer_factory.hpp:77] Creating layer lstm1_cont_slice
I0924 04:15:58.578160 25678 net.cpp:399] cont_1_lstm1_cont_slice_0_split -> cont_1_lstm1_cont_slice_0_split_0
I0924 04:15:58.578176 25738 net.cpp:91] Creating Layer lstm1_cont_slice
I0924 04:15:58.578177 25678 net.cpp:399] cont_1_lstm1_cont_slice_0_split -> cont_1_lstm1_cont_slice_0_split_1
I0924 04:15:58.578196 25738 net.cpp:425] lstm1_cont_slice <- cont
I0924 04:15:58.578209 25738 net.cpp:399] lstm1_cont_slice -> cont_1
I0924 04:15:58.646145 25738 net.cpp:141] Setting up lstm1_cont_slice
I0924 04:15:58.646203 25738 net.cpp:148] Top shape: 1 1 (1)
I0924 04:15:58.646212 25738 net.cpp:156] Memory required for data: 10008
I0924 04:15:58.646225 25738 layer_factory.hpp:77] Creating layer cont_1_lstm1_cont_slice_0_split
I0924 04:15:58.646246 25738 net.cpp:91] Creating Layer cont_1_lstm1_cont_slice_0_split
I0924 04:15:58.646255 25738 net.cpp:425] cont_1_lstm1_cont_slice_0_split <- cont_1
I0924 04:15:58.646271 25738 net.cpp:399] cont_1_lstm1_cont_slice_0_split -> cont_1_lstm1_cont_slice_0_split_0
I0924 04:15:58.646291 25738 net.cpp:399] cont_1_lstm1_cont_slice_0_split -> cont_1_lstm1_cont_slice_0_split_1
I0924 04:15:58.647428 25690 net.cpp:141] Setting up embedding
I0924 04:15:58.647480 25690 net.cpp:148] Top shape: 1 1 500 (500)
I0924 04:15:58.647488 25690 net.cpp:156] Memory required for data: 22408
I0924 04:15:58.647511 25690 layer_factory.hpp:77] Creating layer lstm1
I0924 04:15:58.647534 25690 net.cpp:91] Creating Layer lstm1
I0924 04:15:58.647547 25690 net.cpp:425] lstm1 <- embedded_input_frames
I0924 04:15:58.647562 25690 net.cpp:425] lstm1 <- cont_sentence_input_1_split_0
I0924 04:15:58.647579 25690 net.cpp:399] lstm1 -> lstm1
I0924 04:15:58.647601 25690 recurrent_layer.cpp:20] Initializing recurrent layer: assuming input batch contains 1 timesteps of 1 independent streams.
I0924 04:15:58.648049 25690 net.cpp:49] Initializing net from parameters: 
layer {
  name: "lstm1_"
  type: "Input"
  top: "x"
  top: "cont"
  input_param {
    shape {
      dim: 1
      dim: 1
      dim: 500
    }
    shape {
      dim: 1
      dim: 1
    }
  }
}
layer {
  name: "lstm1_"
  type: "Input"
  top: "c_0"
  top: "h_0"
  input_param {
    shape {
      dim: 1
      dim: 1
      dim: 1000
    }
    shape {
      dim: 1
      dim: 1
      dim: 1000
    }
  }
}
layer {
  name: "lstm1_cont_slice"
  type: "Slice"
  bottom: "cont"
  top: "cont_1"
  slice_param {
    axis: 0
  }
}
layer {
  name: "lstm1_x_transform"
  type: "InnerProduct"
  bottom: "x"
  top: "W_xc_x"
  param {
    name: "W_xc"
  }
  param {
    name: "b_c"
  }
  propagate_down: true
  inner_product_param {
    num_output: 4000
    bias_term: true
    weight_filler {
      type: "uniform"
      min: -0.08
      max: 0.08
    }
    bias_filler {
      type: "constant"
      value: 0
    }
    axis: 2
  }
}
layer {
  name: "lstm1_W_xc_x_slice"
  type: "Slice"
  bottom: "W_xc_x"
  top: "W_xc_x_1"
  slice_param {
    axis: 0
  }
}
layer {
  name: "lstm1_h_conted_0"
  type: "Scale"
  bottom: "h_0"
  bottom: "cont_1"
  top: "h_conted_0"
  scale_param {
    axis: 0
  }
}
layer {
  name: "lstm1_transform_1"
  type: "InnerProduct"
  bottom: "h_conted_0"
  top: "W_hc_h_0"
  param {
    name: "W_hc"
  }
  inner_product_param {
    num_output: 4000
    bias_term: false
    weight_filler {
      type: "uniform"
      min: -0.08
      max: 0.08
    }
    axis: 2
  }
}
layer {
  name: "lstm1_gate_input_1"
  type: "Eltwise"
  bottom: "W_hc_h_0"
  bottom: "W_xc_x_1"
  top: "gate_input_1"
  eltwise_param {
    operation: SUM
  }
}
layer {
  name: "lstm1_unit_1"
  type: "LSTMUnit"
  bottom: "c_0"
  bottom: "gate_input_1"
  bottom: "cont_1"
  top: "c_1"
  top: "h_1"
}
layer {
  name: "lstm1_"
  type: "Split"
  bottom: "c_1"
  top: "c_T"
}
layer {
  name: "lstm1_h_concat"
  type: "Concat"
  bottom: "h_1"
  top: "h"
  concat_param {
    axis: 0
  }
}
layer {
  name: "h_pseudoloss"
  type: "Reduction"
  bottom: "h"
  top: "h_pseudoloss"
  loss_weight: 1
}
I0924 04:15:58.648197 25690 layer_factory.hpp:77] Creating layer lstm1_
I0924 04:15:58.648219 25690 net.cpp:91] Creating Layer lstm1_
I0924 04:15:58.648232 25690 net.cpp:399] lstm1_ -> x
I0924 04:15:58.648252 25690 net.cpp:399] lstm1_ -> cont
I0924 04:15:58.651937 25712 net.cpp:141] Setting up lstm1_x_transform
I0924 04:15:58.651974 25712 net.cpp:148] Top shape: 1 1 4000 (4000)
I0924 04:15:58.651980 25712 net.cpp:156] Memory required for data: 26016
I0924 04:15:58.651984 25678 net.cpp:141] Setting up cont_1_lstm1_cont_slice_0_split
I0924 04:15:58.652004 25712 layer_factory.hpp:77] Creating layer lstm1_W_xc_x_slice
I0924 04:15:58.652009 25678 net.cpp:148] Top shape: 1 1 (1)
I0924 04:15:58.652019 25678 net.cpp:148] Top shape: 1 1 (1)
I0924 04:15:58.652024 25712 net.cpp:91] Creating Layer lstm1_W_xc_x_slice
I0924 04:15:58.652027 25678 net.cpp:156] Memory required for data: 10016
I0924 04:15:58.652032 25712 net.cpp:425] lstm1_W_xc_x_slice <- W_xc_x
I0924 04:15:58.652036 25678 layer_factory.hpp:77] Creating layer lstm1_x_transform
I0924 04:15:58.652042 25712 net.cpp:399] lstm1_W_xc_x_slice -> W_xc_x_1
I0924 04:15:58.652060 25678 net.cpp:91] Creating Layer lstm1_x_transform
I0924 04:15:58.652070 25678 net.cpp:425] lstm1_x_transform <- x
I0924 04:15:58.652084 25678 net.cpp:399] lstm1_x_transform -> W_xc_x
I0924 04:15:58.652088 25712 net.cpp:141] Setting up lstm1_W_xc_x_slice
I0924 04:15:58.652098 25712 net.cpp:148] Top shape: 1 1 4000 (4000)
I0924 04:15:58.652102 25712 net.cpp:156] Memory required for data: 42016
I0924 04:15:58.652107 25712 layer_factory.hpp:77] Creating layer lstm1_h_conted_0
I0924 04:15:58.652129 25712 net.cpp:91] Creating Layer lstm1_h_conted_0
I0924 04:15:58.652134 25712 net.cpp:425] lstm1_h_conted_0 <- h_0
I0924 04:15:58.652143 25712 net.cpp:425] lstm1_h_conted_0 <- cont_1_lstm1_cont_slice_0_split_0
I0924 04:15:58.652151 25712 net.cpp:399] lstm1_h_conted_0 -> h_conted_0
I0924 04:15:58.657790 25690 net.cpp:141] Setting up lstm1_
I0924 04:15:58.657847 25690 net.cpp:148] Top shape: 1 1 500 (500)
I0924 04:15:58.657862 25690 net.cpp:148] Top shape: 1 1 (1)
I0924 04:15:58.657871 25690 net.cpp:156] Memory required for data: 2004
I0924 04:15:58.657883 25690 layer_factory.hpp:77] Creating layer lstm1_
I0924 04:15:58.657878 25738 net.cpp:141] Setting up cont_1_lstm1_cont_slice_0_split
I0924 04:15:58.657913 25690 net.cpp:91] Creating Layer lstm1_
I0924 04:15:58.657925 25738 net.cpp:148] Top shape: 1 1 (1)
I0924 04:15:58.657937 25738 net.cpp:148] Top shape: 1 1 (1)
I0924 04:15:58.657943 25690 net.cpp:399] lstm1_ -> c_0
I0924 04:15:58.657944 25738 net.cpp:156] Memory required for data: 10016
I0924 04:15:58.657980 25738 layer_factory.hpp:77] Creating layer lstm1_x_transform
I0924 04:15:58.657985 25690 net.cpp:399] lstm1_ -> h_0
I0924 04:15:58.658018 25738 net.cpp:91] Creating Layer lstm1_x_transform
I0924 04:15:58.658030 25738 net.cpp:425] lstm1_x_transform <- x
I0924 04:15:58.658053 25738 net.cpp:399] lstm1_x_transform -> W_xc_x
I0924 04:15:58.658120 25690 net.cpp:141] Setting up lstm1_
I0924 04:15:58.658139 25690 net.cpp:148] Top shape: 1 1 1000 (1000)
I0924 04:15:58.658151 25690 net.cpp:148] Top shape: 1 1 1000 (1000)
I0924 04:15:58.658159 25690 net.cpp:156] Memory required for data: 10004
I0924 04:15:58.658167 25690 layer_factory.hpp:77] Creating layer lstm1_cont_slice
I0924 04:15:58.658185 25690 net.cpp:91] Creating Layer lstm1_cont_slice
I0924 04:15:58.658196 25690 net.cpp:425] lstm1_cont_slice <- cont
I0924 04:15:58.658216 25690 net.cpp:399] lstm1_cont_slice -> cont_1
I0924 04:15:58.658277 25734 net.cpp:141] Setting up embedding
I0924 04:15:58.658334 25734 net.cpp:148] Top shape: 1 1 500 (500)
I0924 04:15:58.658340 25734 net.cpp:156] Memory required for data: 22408
I0924 04:15:58.658354 25734 layer_factory.hpp:77] Creating layer lstm1
I0924 04:15:58.658367 25734 net.cpp:91] Creating Layer lstm1
I0924 04:15:58.658375 25734 net.cpp:425] lstm1 <- embedded_input_frames
I0924 04:15:58.658382 25734 net.cpp:425] lstm1 <- cont_sentence_input_1_split_0
I0924 04:15:58.658390 25700 net.cpp:141] Setting up lstm1_x_transform
I0924 04:15:58.658411 25734 net.cpp:399] lstm1 -> lstm1
I0924 04:15:58.658414 25700 net.cpp:148] Top shape: 1 1 4000 (4000)
I0924 04:15:58.658423 25700 net.cpp:156] Memory required for data: 26016
I0924 04:15:58.658426 25734 recurrent_layer.cpp:20] Initializing recurrent layer: assuming input batch contains 1 timesteps of 1 independent streams.
I0924 04:15:58.658444 25700 layer_factory.hpp:77] Creating layer lstm1_W_xc_x_slice
I0924 04:15:58.658468 25700 net.cpp:91] Creating Layer lstm1_W_xc_x_slice
I0924 04:15:58.658478 25700 net.cpp:425] lstm1_W_xc_x_slice <- W_xc_x
I0924 04:15:58.658489 25700 net.cpp:399] lstm1_W_xc_x_slice -> W_xc_x_1
I0924 04:15:58.658838 25734 net.cpp:49] Initializing net from parameters: 
layer {
  name: "lstm1_"
  type: "Input"
  top: "x"
  top: "cont"
  input_param {
    shape {
      dim: 1
      dim: 1
      dim: 500
    }
    shape {
      dim: 1
      dim: 1
    }
  }
}
layer {
  name: "lstm1_"
  type: "Input"
  top: "c_0"
  top: "h_0"
  input_param {
    shape {
      dim: 1
      dim: 1
      dim: 1000
    }
    shape {
      dim: 1
      dim: 1
      dim: 1000
    }
  }
}
layer {
  name: "lstm1_cont_slice"
  type: "Slice"
  bottom: "cont"
  top: "cont_1"
  slice_param {
    axis: 0
  }
}
layer {
  name: "lstm1_x_transform"
  type: "InnerProduct"
  bottom: "x"
  top: "W_xc_x"
  param {
    name: "W_xc"
  }
  param {
    name: "b_c"
  }
  propagate_down: true
  inner_product_param {
    num_output: 4000
    bias_term: true
    weight_filler {
      type: "uniform"
      min: -0.08
      max: 0.08
    }
    bias_filler {
      type: "constant"
      value: 0
    }
    axis: 2
  }
}
layer {
  name: "lstm1_W_xc_x_slice"
  type: "Slice"
  bottom: "W_xc_x"
  top: "W_xc_x_1"
  slice_param {
    axis: 0
  }
}
layer {
  name: "lstm1_h_conted_0"
  type: "Scale"
  bottom: "h_0"
  bottom: "cont_1"
  top: "h_conted_0"
  scale_param {
    axis: 0
  }
}
layer {
  name: "lstm1_transform_1"
  type: "InnerProduct"
  bottom: "h_conted_0"
  top: "W_hc_h_0"
  param {
    name: "W_hc"
  }
  inner_product_param {
    num_output: 4000
    bias_term: false
    weight_filler {
      type: "uniform"
      min: -0.08
      max: 0.08
    }
    axis: 2
  }
}
layer {
  name: "lstm1_gate_input_1"
  type: "Eltwise"
  bottom: "W_hc_h_0"
  bottom: "W_xc_x_1"
  top: "gate_input_1"
  eltwise_param {
    operation: SUM
  }
}
layer {
  name: "lstm1_unit_1"
  type: "LSTMUnit"
  bottom: "c_0"
  bottom: "gate_input_1"
  bottom: "cont_1"
  top: "c_1"
  top: "h_1"
}
layer {
  name: "lstm1_"
  type: "Split"
  bottom: "c_1"
  top: "c_T"
}
layer {
  name: "lstm1_h_concat"
  type: "Concat"
  bottom: "h_1"
  top: "h"
  concat_param {
    axis: 0
  }
}
layer {
  name: "h_pseudoloss"
  type: "Reduction"
  bottom: "h"
  top: "h_pseudoloss"
  loss_weight: 1
}
I0924 04:15:58.658969 25734 layer_factory.hpp:77] Creating layer lstm1_
I0924 04:15:58.658982 25734 net.cpp:91] Creating Layer lstm1_
I0924 04:15:58.658988 25734 net.cpp:399] lstm1_ -> x
I0924 04:15:58.658999 25734 net.cpp:399] lstm1_ -> cont
I0924 04:15:58.663836 25686 net.cpp:141] Setting up lstm1_x_transform
I0924 04:15:58.663868 25686 net.cpp:148] Top shape: 1 1 4000 (4000)
I0924 04:15:58.663875 25686 net.cpp:156] Memory required for data: 26016
I0924 04:15:58.663897 25686 layer_factory.hpp:77] Creating layer lstm1_W_xc_x_slice
I0924 04:15:58.663913 25686 net.cpp:91] Creating Layer lstm1_W_xc_x_slice
I0924 04:15:58.663907 25700 net.cpp:141] Setting up lstm1_W_xc_x_slice
I0924 04:15:58.663921 25686 net.cpp:425] lstm1_W_xc_x_slice <- W_xc_x
I0924 04:15:58.663949 25700 net.cpp:148] Top shape: 1 1 4000 (4000)
I0924 04:15:58.663950 25686 net.cpp:399] lstm1_W_xc_x_slice -> W_xc_x_1
I0924 04:15:58.663959 25700 net.cpp:156] Memory required for data: 42016
I0924 04:15:58.663969 25700 layer_factory.hpp:77] Creating layer lstm1_h_conted_0
I0924 04:15:58.664002 25700 net.cpp:91] Creating Layer lstm1_h_conted_0
I0924 04:15:58.664013 25700 net.cpp:425] lstm1_h_conted_0 <- h_0
I0924 04:15:58.664021 25686 net.cpp:141] Setting up lstm1_W_xc_x_slice
I0924 04:15:58.664026 25700 net.cpp:425] lstm1_h_conted_0 <- cont_1_lstm1_cont_slice_0_split_0
I0924 04:15:58.664036 25686 net.cpp:148] Top shape: 1 1 4000 (4000)
I0924 04:15:58.664038 25700 net.cpp:399] lstm1_h_conted_0 -> h_conted_0
I0924 04:15:58.664042 25686 net.cpp:156] Memory required for data: 42016
I0924 04:15:58.664050 25686 layer_factory.hpp:77] Creating layer lstm1_h_conted_0
I0924 04:15:58.664063 25686 net.cpp:91] Creating Layer lstm1_h_conted_0
I0924 04:15:58.664070 25686 net.cpp:425] lstm1_h_conted_0 <- h_0
I0924 04:15:58.664079 25686 net.cpp:425] lstm1_h_conted_0 <- cont_1_lstm1_cont_slice_0_split_0
I0924 04:15:58.664089 25686 net.cpp:399] lstm1_h_conted_0 -> h_conted_0
I0924 04:15:58.664113 25690 net.cpp:141] Setting up lstm1_cont_slice
I0924 04:15:58.664125 25690 net.cpp:148] Top shape: 1 1 (1)
I0924 04:15:58.664131 25690 net.cpp:156] Memory required for data: 10008
I0924 04:15:58.664139 25690 layer_factory.hpp:77] Creating layer cont_1_lstm1_cont_slice_0_split
I0924 04:15:58.664156 25690 net.cpp:91] Creating Layer cont_1_lstm1_cont_slice_0_split
I0924 04:15:58.664165 25690 net.cpp:425] cont_1_lstm1_cont_slice_0_split <- cont_1
I0924 04:15:58.664175 25690 net.cpp:399] cont_1_lstm1_cont_slice_0_split -> cont_1_lstm1_cont_slice_0_split_0
I0924 04:15:58.664186 25690 net.cpp:399] cont_1_lstm1_cont_slice_0_split -> cont_1_lstm1_cont_slice_0_split_1
I0924 04:15:58.664230 25700 net.cpp:141] Setting up lstm1_h_conted_0
I0924 04:15:58.664245 25700 net.cpp:148] Top shape: 1 1 1000 (1000)
I0924 04:15:58.664252 25700 net.cpp:156] Memory required for data: 46016
I0924 04:15:58.664259 25700 layer_factory.hpp:77] Creating layer lstm1_transform_1
I0924 04:15:58.664281 25700 net.cpp:91] Creating Layer lstm1_transform_1
I0924 04:15:58.664289 25700 net.cpp:425] lstm1_transform_1 <- h_conted_0
I0924 04:15:58.664301 25700 net.cpp:399] lstm1_transform_1 -> W_hc_h_0
I0924 04:15:58.664463 25690 net.cpp:141] Setting up cont_1_lstm1_cont_slice_0_split
I0924 04:15:58.664477 25690 net.cpp:148] Top shape: 1 1 (1)
I0924 04:15:58.664486 25690 net.cpp:148] Top shape: 1 1 (1)
I0924 04:15:58.664494 25690 net.cpp:156] Memory required for data: 10016
I0924 04:15:58.664500 25690 layer_factory.hpp:77] Creating layer lstm1_x_transform
I0924 04:15:58.664517 25690 net.cpp:91] Creating Layer lstm1_x_transform
I0924 04:15:58.664525 25690 net.cpp:425] lstm1_x_transform <- x
I0924 04:15:58.664536 25690 net.cpp:399] lstm1_x_transform -> W_xc_x
I0924 04:15:58.669023 25712 net.cpp:141] Setting up lstm1_h_conted_0
I0924 04:15:58.669077 25712 net.cpp:148] Top shape: 1 1 1000 (1000)
I0924 04:15:58.669090 25712 net.cpp:156] Memory required for data: 46016
I0924 04:15:58.669104 25712 layer_factory.hpp:77] Creating layer lstm1_transform_1
I0924 04:15:58.669142 25712 net.cpp:91] Creating Layer lstm1_transform_1
I0924 04:15:58.669158 25712 net.cpp:425] lstm1_transform_1 <- h_conted_0
I0924 04:15:58.669180 25712 net.cpp:399] lstm1_transform_1 -> W_hc_h_0
I0924 04:15:58.678508 25686 net.cpp:141] Setting up lstm1_h_conted_0
I0924 04:15:58.678563 25686 net.cpp:148] Top shape: 1 1 1000 (1000)
I0924 04:15:58.678572 25686 net.cpp:156] Memory required for data: 46016
I0924 04:15:58.678584 25686 layer_factory.hpp:77] Creating layer lstm1_transform_1
I0924 04:15:58.678625 25686 net.cpp:91] Creating Layer lstm1_transform_1
I0924 04:15:58.678637 25686 net.cpp:425] lstm1_transform_1 <- h_conted_0
I0924 04:15:58.678690 25686 net.cpp:399] lstm1_transform_1 -> W_hc_h_0
I0924 04:15:58.699170 25734 net.cpp:141] Setting up lstm1_
I0924 04:15:58.699722 25734 net.cpp:148] Top shape: 1 1 500 (500)
I0924 04:15:58.699879 25734 net.cpp:148] Top shape: 1 1 (1)
I0924 04:15:58.700042 25734 net.cpp:156] Memory required for data: 2004
I0924 04:15:58.700237 25734 layer_factory.hpp:77] Creating layer lstm1_
I0924 04:15:58.700404 25734 net.cpp:91] Creating Layer lstm1_
I0924 04:15:58.700598 25734 net.cpp:399] lstm1_ -> c_0
I0924 04:15:58.700765 25734 net.cpp:399] lstm1_ -> h_0
I0924 04:15:58.701097 25734 net.cpp:141] Setting up lstm1_
I0924 04:15:58.701367 25734 net.cpp:148] Top shape: 1 1 1000 (1000)
I0924 04:15:58.701513 25734 net.cpp:148] Top shape: 1 1 1000 (1000)
I0924 04:15:58.701653 25734 net.cpp:156] Memory required for data: 10004
I0924 04:15:58.701794 25734 layer_factory.hpp:77] Creating layer lstm1_cont_slice
I0924 04:15:58.701961 25734 net.cpp:91] Creating Layer lstm1_cont_slice
I0924 04:15:58.702105 25734 net.cpp:425] lstm1_cont_slice <- cont
I0924 04:15:58.702307 25734 net.cpp:399] lstm1_cont_slice -> cont_1
I0924 04:15:58.702554 25734 net.cpp:141] Setting up lstm1_cont_slice
I0924 04:15:58.702723 25734 net.cpp:148] Top shape: 1 1 (1)
I0924 04:15:58.705018 25734 net.cpp:156] Memory required for data: 10008
I0924 04:15:58.703393 25738 net.cpp:141] Setting up lstm1_x_transform
I0924 04:15:58.705035 25734 layer_factory.hpp:77] Creating layer cont_1_lstm1_cont_slice_0_split
I0924 04:15:58.705080 25738 net.cpp:148] Top shape: 1 1 4000 (4000)
I0924 04:15:58.705085 25734 net.cpp:91] Creating Layer cont_1_lstm1_cont_slice_0_split
I0924 04:15:58.705103 25738 net.cpp:156] Memory required for data: 26016
I0924 04:15:58.705107 25734 net.cpp:425] cont_1_lstm1_cont_slice_0_split <- cont_1
I0924 04:15:58.705147 25738 layer_factory.hpp:77] Creating layer lstm1_W_xc_x_slice
I0924 04:15:58.705162 25738 net.cpp:91] Creating Layer lstm1_W_xc_x_slice
I0924 04:15:58.705168 25738 net.cpp:425] lstm1_W_xc_x_slice <- W_xc_x
I0924 04:15:58.705178 25738 net.cpp:399] lstm1_W_xc_x_slice -> W_xc_x_1
I0924 04:15:58.705247 25734 net.cpp:399] cont_1_lstm1_cont_slice_0_split -> cont_1_lstm1_cont_slice_0_split_0
I0924 04:15:58.705268 25734 net.cpp:399] cont_1_lstm1_cont_slice_0_split -> cont_1_lstm1_cont_slice_0_split_1
I0924 04:15:58.705404 25734 net.cpp:141] Setting up cont_1_lstm1_cont_slice_0_split
I0924 04:15:58.705421 25734 net.cpp:148] Top shape: 1 1 (1)
I0924 04:15:58.705432 25734 net.cpp:148] Top shape: 1 1 (1)
I0924 04:15:58.705440 25734 net.cpp:156] Memory required for data: 10016
I0924 04:15:58.705448 25734 layer_factory.hpp:77] Creating layer lstm1_x_transform
I0924 04:15:58.705477 25734 net.cpp:91] Creating Layer lstm1_x_transform
I0924 04:15:58.705488 25734 net.cpp:425] lstm1_x_transform <- x
I0924 04:15:58.705505 25734 net.cpp:399] lstm1_x_transform -> W_xc_x
I0924 04:15:58.711504 25690 net.cpp:141] Setting up lstm1_x_transform
I0924 04:15:58.711531 25738 net.cpp:141] Setting up lstm1_W_xc_x_slice
I0924 04:15:58.712021 25690 net.cpp:148] Top shape: 1 1 4000 (4000)
I0924 04:15:58.712034 25690 net.cpp:156] Memory required for data: 26016
I0924 04:15:58.712036 25738 net.cpp:148] Top shape: 1 1 4000 (4000)
I0924 04:15:58.712049 25738 net.cpp:156] Memory required for data: 42016
I0924 04:15:58.712061 25738 layer_factory.hpp:77] Creating layer lstm1_h_conted_0
I0924 04:15:58.712061 25690 layer_factory.hpp:77] Creating layer lstm1_W_xc_x_slice
I0924 04:15:58.712071 25678 net.cpp:141] Setting up lstm1_x_transform
I0924 04:15:58.712100 25690 net.cpp:91] Creating Layer lstm1_W_xc_x_slice
I0924 04:15:58.712102 25738 net.cpp:91] Creating Layer lstm1_h_conted_0
I0924 04:15:58.712112 25690 net.cpp:425] lstm1_W_xc_x_slice <- W_xc_x
I0924 04:15:58.712116 25738 net.cpp:425] lstm1_h_conted_0 <- h_0
I0924 04:15:58.712119 25678 net.cpp:148] Top shape: 1 1 4000 (4000)
I0924 04:15:58.712126 25690 net.cpp:399] lstm1_W_xc_x_slice -> W_xc_x_1
I0924 04:15:58.712131 25738 net.cpp:425] lstm1_h_conted_0 <- cont_1_lstm1_cont_slice_0_split_0
I0924 04:15:58.712131 25678 net.cpp:156] Memory required for data: 26016
I0924 04:15:58.712146 25738 net.cpp:399] lstm1_h_conted_0 -> h_conted_0
I0924 04:15:58.712162 25678 layer_factory.hpp:77] Creating layer lstm1_W_xc_x_slice
I0924 04:15:58.712184 25678 net.cpp:91] Creating Layer lstm1_W_xc_x_slice
I0924 04:15:58.712195 25678 net.cpp:425] lstm1_W_xc_x_slice <- W_xc_x
I0924 04:15:58.712209 25678 net.cpp:399] lstm1_W_xc_x_slice -> W_xc_x_1
I0924 04:15:58.712213 25690 net.cpp:141] Setting up lstm1_W_xc_x_slice
I0924 04:15:58.712229 25690 net.cpp:148] Top shape: 1 1 4000 (4000)
I0924 04:15:58.712237 25690 net.cpp:156] Memory required for data: 42016
I0924 04:15:58.712245 25690 layer_factory.hpp:77] Creating layer lstm1_h_conted_0
I0924 04:15:58.712257 25690 net.cpp:91] Creating Layer lstm1_h_conted_0
I0924 04:15:58.712265 25690 net.cpp:425] lstm1_h_conted_0 <- h_0
I0924 04:15:58.712275 25690 net.cpp:425] lstm1_h_conted_0 <- cont_1_lstm1_cont_slice_0_split_0
I0924 04:15:58.712285 25690 net.cpp:399] lstm1_h_conted_0 -> h_conted_0
I0924 04:15:58.713698 25678 net.cpp:141] Setting up lstm1_W_xc_x_slice
I0924 04:15:58.713717 25678 net.cpp:148] Top shape: 1 1 4000 (4000)
I0924 04:15:58.713726 25678 net.cpp:156] Memory required for data: 42016
I0924 04:15:58.713733 25678 layer_factory.hpp:77] Creating layer lstm1_h_conted_0
I0924 04:15:58.713748 25678 net.cpp:91] Creating Layer lstm1_h_conted_0
I0924 04:15:58.713758 25678 net.cpp:425] lstm1_h_conted_0 <- h_0
I0924 04:15:58.713769 25678 net.cpp:425] lstm1_h_conted_0 <- cont_1_lstm1_cont_slice_0_split_0
I0924 04:15:58.713781 25678 net.cpp:399] lstm1_h_conted_0 -> h_conted_0
I0924 04:15:58.714128 25690 net.cpp:141] Setting up lstm1_h_conted_0
I0924 04:15:58.714151 25690 net.cpp:148] Top shape: 1 1 1000 (1000)
I0924 04:15:58.714159 25690 net.cpp:156] Memory required for data: 46016
I0924 04:15:58.714167 25690 layer_factory.hpp:77] Creating layer lstm1_transform_1
I0924 04:15:58.714169 25738 net.cpp:141] Setting up lstm1_h_conted_0
I0924 04:15:58.714186 25690 net.cpp:91] Creating Layer lstm1_transform_1
I0924 04:15:58.714192 25738 net.cpp:148] Top shape: 1 1 1000 (1000)
I0924 04:15:58.714195 25690 net.cpp:425] lstm1_transform_1 <- h_conted_0
I0924 04:15:58.714203 25738 net.cpp:156] Memory required for data: 46016
I0924 04:15:58.714210 25690 net.cpp:399] lstm1_transform_1 -> W_hc_h_0
I0924 04:15:58.714215 25738 layer_factory.hpp:77] Creating layer lstm1_transform_1
I0924 04:15:58.714231 25678 net.cpp:141] Setting up lstm1_h_conted_0
I0924 04:15:58.714236 25738 net.cpp:91] Creating Layer lstm1_transform_1
I0924 04:15:58.714249 25678 net.cpp:148] Top shape: 1 1 1000 (1000)
I0924 04:15:58.714251 25738 net.cpp:425] lstm1_transform_1 <- h_conted_0
I0924 04:15:58.714258 25678 net.cpp:156] Memory required for data: 46016
I0924 04:15:58.714267 25678 layer_factory.hpp:77] Creating layer lstm1_transform_1
I0924 04:15:58.714272 25738 net.cpp:399] lstm1_transform_1 -> W_hc_h_0
I0924 04:15:58.714285 25678 net.cpp:91] Creating Layer lstm1_transform_1
I0924 04:15:58.714295 25678 net.cpp:425] lstm1_transform_1 <- h_conted_0
I0924 04:15:58.714309 25678 net.cpp:399] lstm1_transform_1 -> W_hc_h_0
I0924 04:15:58.711900 25706 net.cpp:141] Setting up lstm1_x_transform
I0924 04:15:58.715461 25706 net.cpp:148] Top shape: 1 1 4000 (4000)
I0924 04:15:58.715473 25706 net.cpp:156] Memory required for data: 26016
I0924 04:15:58.715498 25706 layer_factory.hpp:77] Creating layer lstm1_W_xc_x_slice
I0924 04:15:58.715517 25706 net.cpp:91] Creating Layer lstm1_W_xc_x_slice
I0924 04:15:58.715528 25706 net.cpp:425] lstm1_W_xc_x_slice <- W_xc_x
I0924 04:15:58.722946 25706 net.cpp:399] lstm1_W_xc_x_slice -> W_xc_x_1
I0924 04:15:58.724879 25712 net.cpp:141] Setting up lstm1_transform_1
I0924 04:15:58.725256 25712 net.cpp:148] Top shape: 1 1 4000 (4000)
I0924 04:15:58.725471 25712 net.cpp:156] Memory required for data: 62016
I0924 04:15:58.725652 25712 layer_factory.hpp:77] Creating layer lstm1_gate_input_1
I0924 04:15:58.725841 25712 net.cpp:91] Creating Layer lstm1_gate_input_1
I0924 04:15:58.726028 25712 net.cpp:425] lstm1_gate_input_1 <- W_hc_h_0
I0924 04:15:58.726291 25712 net.cpp:425] lstm1_gate_input_1 <- W_xc_x_1
I0924 04:15:58.726328 25712 net.cpp:399] lstm1_gate_input_1 -> gate_input_1
I0924 04:15:58.726518 25712 net.cpp:141] Setting up lstm1_gate_input_1
I0924 04:15:58.726544 25712 net.cpp:148] Top shape: 1 1 4000 (4000)
I0924 04:15:58.726552 25712 net.cpp:156] Memory required for data: 78016
I0924 04:15:58.726563 25712 layer_factory.hpp:77] Creating layer lstm1_unit_1
I0924 04:15:58.726619 25712 net.cpp:91] Creating Layer lstm1_unit_1
I0924 04:15:58.726632 25712 net.cpp:425] lstm1_unit_1 <- c_0
I0924 04:15:58.726645 25712 net.cpp:425] lstm1_unit_1 <- gate_input_1
I0924 04:15:58.726660 25712 net.cpp:425] lstm1_unit_1 <- cont_1_lstm1_cont_slice_0_split_1
I0924 04:15:58.726675 25712 net.cpp:399] lstm1_unit_1 -> c_1
I0924 04:15:58.726697 25712 net.cpp:399] lstm1_unit_1 -> h_1
I0924 04:15:58.726852 25712 net.cpp:141] Setting up lstm1_unit_1
I0924 04:15:58.726873 25712 net.cpp:148] Top shape: 1 1 1000 (1000)
I0924 04:15:58.726887 25712 net.cpp:148] Top shape: 1 1 1000 (1000)
I0924 04:15:58.726897 25712 net.cpp:156] Memory required for data: 86016
I0924 04:15:58.726908 25712 layer_factory.hpp:77] Creating layer lstm1_
I0924 04:15:58.726928 25712 net.cpp:91] Creating Layer lstm1_
I0924 04:15:58.726940 25712 net.cpp:425] lstm1_ <- c_1
I0924 04:15:58.726963 25712 net.cpp:399] lstm1_ -> c_T
I0924 04:15:58.727041 25712 net.cpp:141] Setting up lstm1_
I0924 04:15:58.727061 25712 net.cpp:148] Top shape: 1 1 1000 (1000)
I0924 04:15:58.727072 25712 net.cpp:156] Memory required for data: 90016
I0924 04:15:58.727084 25712 layer_factory.hpp:77] Creating layer lstm1_h_concat
I0924 04:15:58.727104 25712 net.cpp:91] Creating Layer lstm1_h_concat
I0924 04:15:58.727118 25712 net.cpp:425] lstm1_h_concat <- h_1
I0924 04:15:58.727133 25712 net.cpp:399] lstm1_h_concat -> h
I0924 04:15:58.727226 25712 net.cpp:141] Setting up lstm1_h_concat
I0924 04:15:58.727246 25712 net.cpp:148] Top shape: 1 1 1000 (1000)
I0924 04:15:58.727255 25712 net.cpp:156] Memory required for data: 94016
I0924 04:15:58.727267 25712 layer_factory.hpp:77] Creating layer h_pseudoloss
I0924 04:15:58.727294 25712 net.cpp:91] Creating Layer h_pseudoloss
I0924 04:15:58.727308 25712 net.cpp:425] h_pseudoloss <- h
I0924 04:15:58.727324 25712 net.cpp:399] h_pseudoloss -> h_pseudoloss
I0924 04:15:58.737198 25706 net.cpp:141] Setting up lstm1_W_xc_x_slice
I0924 04:15:58.737298 25706 net.cpp:148] Top shape: 1 1 4000 (4000)
I0924 04:15:58.737311 25706 net.cpp:156] Memory required for data: 42016
I0924 04:15:58.737326 25706 layer_factory.hpp:77] Creating layer lstm1_h_conted_0
I0924 04:15:58.737375 25706 net.cpp:91] Creating Layer lstm1_h_conted_0
I0924 04:15:58.737391 25706 net.cpp:425] lstm1_h_conted_0 <- h_0
I0924 04:15:58.737428 25706 net.cpp:425] lstm1_h_conted_0 <- cont_1_lstm1_cont_slice_0_split_0
I0924 04:15:58.737488 25706 net.cpp:399] lstm1_h_conted_0 -> h_conted_0
I0924 04:15:58.739343 25686 net.cpp:141] Setting up lstm1_transform_1
I0924 04:15:58.739393 25686 net.cpp:148] Top shape: 1 1 4000 (4000)
I0924 04:15:58.739403 25686 net.cpp:156] Memory required for data: 62016
I0924 04:15:58.739425 25686 layer_factory.hpp:77] Creating layer lstm1_gate_input_1
I0924 04:15:58.739449 25686 net.cpp:91] Creating Layer lstm1_gate_input_1
I0924 04:15:58.739459 25686 net.cpp:425] lstm1_gate_input_1 <- W_hc_h_0
I0924 04:15:58.739470 25686 net.cpp:425] lstm1_gate_input_1 <- W_xc_x_1
I0924 04:15:58.739491 25686 net.cpp:399] lstm1_gate_input_1 -> gate_input_1
I0924 04:15:58.739562 25686 net.cpp:141] Setting up lstm1_gate_input_1
I0924 04:15:58.739575 25686 net.cpp:148] Top shape: 1 1 4000 (4000)
I0924 04:15:58.739583 25686 net.cpp:156] Memory required for data: 78016
I0924 04:15:58.739590 25686 layer_factory.hpp:77] Creating layer lstm1_unit_1
I0924 04:15:58.739603 25686 net.cpp:91] Creating Layer lstm1_unit_1
I0924 04:15:58.739609 25686 net.cpp:425] lstm1_unit_1 <- c_0
I0924 04:15:58.739619 25686 net.cpp:425] lstm1_unit_1 <- gate_input_1
I0924 04:15:58.739627 25686 net.cpp:425] lstm1_unit_1 <- cont_1_lstm1_cont_slice_0_split_1
I0924 04:15:58.739644 25686 net.cpp:399] lstm1_unit_1 -> c_1
I0924 04:15:58.739658 25686 net.cpp:399] lstm1_unit_1 -> h_1
I0924 04:15:58.739763 25686 net.cpp:141] Setting up lstm1_unit_1
I0924 04:15:58.739776 25686 net.cpp:148] Top shape: 1 1 1000 (1000)
I0924 04:15:58.739787 25686 net.cpp:148] Top shape: 1 1 1000 (1000)
I0924 04:15:58.739794 25686 net.cpp:156] Memory required for data: 86016
I0924 04:15:58.739802 25686 layer_factory.hpp:77] Creating layer lstm1_
I0924 04:15:58.739815 25686 net.cpp:91] Creating Layer lstm1_
I0924 04:15:58.739822 25686 net.cpp:425] lstm1_ <- c_1
I0924 04:15:58.739833 25686 net.cpp:399] lstm1_ -> c_T
I0924 04:15:58.741188 25686 net.cpp:141] Setting up lstm1_
I0924 04:15:58.741205 25686 net.cpp:148] Top shape: 1 1 1000 (1000)
I0924 04:15:58.741214 25686 net.cpp:156] Memory required for data: 90016
I0924 04:15:58.741222 25686 layer_factory.hpp:77] Creating layer lstm1_h_concat
I0924 04:15:58.741235 25686 net.cpp:91] Creating Layer lstm1_h_concat
I0924 04:15:58.741242 25686 net.cpp:425] lstm1_h_concat <- h_1
I0924 04:15:58.742149 25700 net.cpp:141] Setting up lstm1_transform_1
I0924 04:15:58.742169 25700 net.cpp:148] Top shape: 1 1 4000 (4000)
I0924 04:15:58.742161 25682 net.cpp:141] Setting up embedding
I0924 04:15:58.742197 25686 net.cpp:399] lstm1_h_concat -> h
I0924 04:15:58.742204 25682 net.cpp:148] Top shape: 1 1 500 (500)
I0924 04:15:58.742214 25682 net.cpp:156] Memory required for data: 22408
I0924 04:15:58.742238 25682 layer_factory.hpp:77] Creating layer lstm1
I0924 04:15:58.742261 25682 net.cpp:91] Creating Layer lstm1
I0924 04:15:58.742269 25686 net.cpp:141] Setting up lstm1_h_concat
I0924 04:15:58.742277 25734 net.cpp:141] Setting up lstm1_x_transform
I0924 04:15:58.742300 25686 net.cpp:148] Top shape: 1 1 1000 (1000)
I0924 04:15:58.742305 25734 net.cpp:148] Top shape: 1 1 4000 (4000)
I0924 04:15:58.742308 25686 net.cpp:156] Memory required for data: 94016
I0924 04:15:58.742316 25734 net.cpp:156] Memory required for data: 26016
I0924 04:15:58.742177 25700 net.cpp:156] Memory required for data: 62016
I0924 04:15:58.742339 25700 layer_factory.hpp:77] Creating layer lstm1_gate_input_1
I0924 04:15:58.742347 25734 layer_factory.hpp:77] Creating layer lstm1_W_xc_x_slice
…
I0924 04:15:58.752415 25682 recurrent_layer.cpp:20] Initializing recurrent layer: assuming input batch contains 1 timesteps of 1 independent streams.
I0924 04:15:58.755218 25682 net.cpp:49] Initializing net from parameters: 
layer {
  name: "lstm1_"
  type: "Input"
  top: "x"
  top: "cont"
  input_param {
    shape {
      dim: 1
      dim: 1
      dim: 500
    }
    shape {
      dim: 1
      dim: 1
    }
  }
}
layer {
  name: "lstm1_"
  type: "Input"
  top: "c_0"
  top: "h_0"
  input_param {
    shape {
      dim: 1
      dim: 1
      dim: 1000
    }
    shape {
      dim: 1
      dim: 1
      dim: 1000
    }
  }
}
layer {
  name: "lstm1_cont_slice"
  type: "Slice"
  bottom: "cont"
  top: "cont_1"
  slice_param {
    axis: 0
  }
}
layer {
  name: "lstm1_x_transform"
  type: "InnerProduct"
  bottom: "x"
  top: "W_xc_x"
  param {
    name: "W_xc"
  }
  param {
    name: "b_c"
  }
  propagate_down: true
  inner_product_param {
    num_output: 4000
    bias_term: true
    weight_filler {
      type: "uniform"
      min: -0.08
      max: 0.08
    }
    bias_filler {
      type: "constant"
      value: 0
    }
    axis: 2
  }
}
layer {
  name: "lstm1_W_xc_x_slice"
  type: "Slice"
  bottom: "W_xc_x"
  top: "W_xc_x_1"
  slice_param {
    axis: 0
  }
}
layer {
  name: "lstm1_h_conted_0"
  type: "Scale"
  bottom: "h_0"
  bottom: "cont_1"
  top: "h_conted_0"
  scale_param {
    axis: 0
  }
}
layer {
  name: "lstm1_transform_1"
  type: "InnerProduct"
  bottom: "h_conted_0"
  top: "W_hc_h_0"
  param {
    name: "W_hc"
  }
  inner_product_param {
    num_output: 4000
    bias_term: false
    weight_filler {
      type: "uniform"
      min: -0.08
      max: 0.08
    }
    axis: 2
  }
}
layer {
  name: "lstm1_gate_input_1"
  type: "Eltwise"
  bottom: "W_hc_h_0"
  bottom: "W_xc_x_1"
  top: "gate_input_1"
  eltwise_param {
    operation: SUM
  }
}
layer {
  name: "lstm1_unit_1"
  type: "LSTMUnit"
  bottom: "c_0"
  bottom: "gate_input_1"
  bottom: "cont_1"
  top: "c_1"
  top: "h_1"
}
layer {
  name: "lstm1_"
  type: "Split"
  bottom: "c_1"
  top: "c_T"
}
layer {
  name: "lstm1_h_concat"
  type: "Concat"
  bottom: "h_1"
  top: "h"
  concat_param {
    axis: 0
  }
}
layer {
  name: "h_pseudoloss"
  type: "Reduction"
  bottom: "h"
  top: "h_pseudoloss"
  loss_weight: 1
}
I0924 04:15:58.755434 25682 layer_factory.hpp:77] Creating layer lstm1_
I0924 04:15:58.755456 25682 net.cpp:91] Creating Layer lstm1_
I0924 04:15:58.755467 25682 net.cpp:399] lstm1_ -> x
I0924 04:15:58.755493 25682 net.cpp:399] lstm1_ -> cont
I0924 04:15:58.783586 25706 net.cpp:141] Setting up lstm1_h_conted_0
I0924 04:15:58.783641 25712 net.cpp:141] Setting up h_pseudoloss
I0924 04:15:58.783644 25706 net.cpp:148] Top shape: 1 1 1000 (1000)
I0924 04:15:58.783665 25712 net.cpp:148] Top shape: (1)
I0924 04:15:58.783666 25706 net.cpp:156] Memory required for data: 46016
I0924 04:15:58.783680 25706 layer_factory.hpp:77] Creating layer lstm1_transform_1
I0924 04:15:58.783671 25712 net.cpp:151]     with loss weight 1
I0924 04:15:58.783713 25712 net.cpp:156] Memory required for data: 94020
I0924 04:15:58.783712 25706 net.cpp:91] Creating Layer lstm1_transform_1
I0924 04:15:58.783720 25712 net.cpp:217] h_pseudoloss needs backward computation.
I0924 04:15:58.783726 25706 net.cpp:425] lstm1_transform_1 <- h_conted_0
I0924 04:15:58.783736 25682 net.cpp:141] Setting up lstm1_
I0924 04:15:58.783727 25712 net.cpp:217] lstm1_h_concat needs backward computation.
I0924 04:15:58.783763 25712 net.cpp:219] lstm1_ does not need backward computation.
I0924 04:15:58.783771 25712 net.cpp:217] lstm1_unit_1 needs backward computation.
I0924 04:15:58.783764 25682 net.cpp:148] Top shape: 1 1 500 (500)
I0924 04:15:58.783764 25706 net.cpp:399] lstm1_transform_1 -> W_hc_h_0
I0924 04:15:58.783782 25712 net.cpp:217] lstm1_gate_input_1 needs backward computation.
I0924 04:15:58.783788 25682 net.cpp:148] Top shape: 1 1 (1)
I0924 04:15:58.783795 25712 net.cpp:217] lstm1_transform_1 needs backward computation.
I0924 04:15:58.783798 25682 net.cpp:156] Memory required for data: 2004
I0924 04:15:58.783802 25712 net.cpp:219] lstm1_h_conted_0 does not need backward computation.
I0924 04:15:58.783809 25712 net.cpp:217] lstm1_W_xc_x_slice needs backward computation.
I0924 04:15:58.783810 25682 layer_factory.hpp:77] Creating layer lstm1_
I0924 04:15:58.783814 25712 net.cpp:217] lstm1_x_transform needs backward computation.
I0924 04:15:58.783820 25712 net.cpp:219] cont_1_lstm1_cont_slice_0_split does not need backward computation.
I0924 04:15:58.783825 25712 net.cpp:219] lstm1_cont_slice does not need backward computation.
I0924 04:15:58.783831 25712 net.cpp:219] lstm1_ does not need backward computation.
I0924 04:15:58.783833 25682 net.cpp:91] Creating Layer lstm1_
I0924 04:15:58.783835 25712 net.cpp:219] lstm1_ does not need backward computation.
I0924 04:15:58.783850 25712 net.cpp:261] This network produces output c_T
I0924 04:15:58.783857 25712 net.cpp:261] This network produces output h_pseudoloss
I0924 04:15:58.783859 25682 net.cpp:399] lstm1_ -> c_0
I0924 04:15:58.783877 25712 net.cpp:274] Network initialization done.
I0924 04:15:58.783875 25738 net.cpp:141] Setting up lstm1_transform_1
I0924 04:15:58.783884 25682 net.cpp:399] lstm1_ -> h_0
I0924 04:15:58.783895 25738 net.cpp:148] Top shape: 1 1 4000 (4000)
I0924 04:15:58.783903 25738 net.cpp:156] Memory required for data: 62016
I0924 04:15:58.783922 25738 layer_factory.hpp:77] Creating layer lstm1_gate_input_1
I0924 04:15:58.783943 25712 recurrent_layer.cpp:150] Adding parameter 0: W_xc
I0924 04:15:58.783944 25738 net.cpp:91] Creating Layer lstm1_gate_input_1
I0924 04:15:58.783951 25712 recurrent_layer.cpp:150] Adding parameter 1: b_c
I0924 04:15:58.783957 25712 recurrent_layer.cpp:150] Adding parameter 2: W_hc
I0924 04:15:58.783956 25738 net.cpp:425] lstm1_gate_input_1 <- W_hc_h_0
I0924 04:15:58.783978 25682 net.cpp:141] Setting up lstm1_
I0924 04:15:58.783985 25738 net.cpp:425] lstm1_gate_input_1 <- W_xc_x_1
I0924 04:15:58.783995 25682 net.cpp:148] Top shape: 1 1 1000 (1000)
I0924 04:15:58.784003 25738 net.cpp:399] lstm1_gate_input_1 -> gate_input_1
I0924 04:15:58.784006 25682 net.cpp:148] Top shape: 1 1 1000 (1000)
I0924 04:15:58.784015 25682 net.cpp:156] Memory required for data: 10004
I0924 04:15:58.784024 25682 layer_factory.hpp:77] Creating layer lstm1_cont_slice
I0924 04:15:58.784040 25682 net.cpp:91] Creating Layer lstm1_cont_slice
I0924 04:15:58.784050 25682 net.cpp:425] lstm1_cont_slice <- cont
I0924 04:15:58.784065 25682 net.cpp:399] lstm1_cont_slice -> cont_1
I0924 04:15:58.784171 25700 net.cpp:141] Setting up lstm1_gate_input_1
I0924 04:15:58.784216 25700 net.cpp:148] Top shape: 1 1 4000 (4000)
I0924 04:15:58.784216 25734 net.cpp:141] Setting up lstm1_W_xc_x_slice
I0924 04:15:58.784229 25700 net.cpp:156] Memory required for data: 78016
I0924 04:15:58.784240 25734 net.cpp:148] Top shape: 1 1 4000 (4000)
I0924 04:15:58.784240 25700 layer_factory.hpp:77] Creating layer lstm1_unit_1
I0924 04:15:58.784266 25734 net.cpp:156] Memory required for data: 42016
I0924 04:15:58.784277 25734 layer_factory.hpp:77] Creating layer lstm1_h_conted_0
I0924 04:15:58.784298 25700 net.cpp:91] Creating Layer lstm1_unit_1
I0924 04:15:58.784310 25700 net.cpp:425] lstm1_unit_1 <- c_0
I0924 04:15:58.784317 25734 net.cpp:91] Creating Layer lstm1_h_conted_0
I0924 04:15:58.784319 25700 net.cpp:425] lstm1_unit_1 <- gate_input_1
I0924 04:15:58.784327 25690 net.cpp:141] Setting up lstm1_transform_1
I0924 04:15:58.784333 25734 net.cpp:425] lstm1_h_conted_0 <- h_0
I0924 04:15:58.784355 25690 net.cpp:148] Top shape: 1 1 4000 (4000)
I0924 04:15:58.784363 25734 net.cpp:425] lstm1_h_conted_0 <- cont_1_lstm1_cont_slice_0_split_0
I0924 04:15:58.784334 25700 net.cpp:425] lstm1_unit_1 <- cont_1_lstm1_cont_slice_0_split_1
I0924 04:15:58.784365 25690 net.cpp:156] Memory required for data: 62016
I0924 04:15:58.784390 25700 net.cpp:399] lstm1_unit_1 -> c_1
I0924 04:15:58.784400 25734 net.cpp:399] lstm1_h_conted_0 -> h_conted_0
I0924 04:15:58.784404 25700 net.cpp:399] lstm1_unit_1 -> h_1
I0924 04:15:58.784406 25690 layer_factory.hpp:77] Creating layer lstm1_gate_input_1
I0924 04:15:58.784435 25690 net.cpp:91] Creating Layer lstm1_gate_input_1
I0924 04:15:58.784446 25690 net.cpp:425] lstm1_gate_input_1 <- W_hc_h_0
I0924 04:15:58.784457 25690 net.cpp:425] lstm1_gate_input_1 <- W_xc_x_1
I0924 04:15:58.784471 25690 net.cpp:399] lstm1_gate_input_1 -> gate_input_1
I0924 04:15:58.793721 25712 net.cpp:141] Setting up lstm1
I0924 04:15:58.793756 25682 net.cpp:141] Setting up lstm1_cont_slice
I0924 04:15:58.793771 25712 net.cpp:148] Top shape: 1 1 1000 (1000)
I0924 04:15:58.793776 25682 net.cpp:148] Top shape: 1 1 (1)
I0924 04:15:58.793778 25712 net.cpp:156] Memory required for data: 26408
I0924 04:15:58.793783 25682 net.cpp:156] Memory required for data: 10008
I0924 04:15:58.793793 25682 layer_factory.hpp:77] Creating layer cont_1_lstm1_cont_slice_0_split
I0924 04:15:58.793802 25712 layer_factory.hpp:77] Creating layer concat
I0924 04:15:58.793817 25712 net.cpp:91] Creating Layer concat
I0924 04:15:58.793823 25712 net.cpp:425] concat <- lstm1
I0924 04:15:58.793828 25682 net.cpp:91] Creating Layer cont_1_lstm1_cont_slice_0_split
I0924 04:15:58.793831 25712 net.cpp:425] concat <- embedded_input_sentence
I0924 04:15:58.793838 25712 net.cpp:425] concat <- reshaped_stage_indicator
I0924 04:15:58.793839 25682 net.cpp:425] cont_1_lstm1_cont_slice_0_split <- cont_1
I0924 04:15:58.793846 25712 net.cpp:399] concat -> lstm1_video_sequence
I0924 04:15:58.793851 25682 net.cpp:399] cont_1_lstm1_cont_slice_0_split -> cont_1_lstm1_cont_slice_0_split_0
I0924 04:15:58.793865 25682 net.cpp:399] cont_1_lstm1_cont_slice_0_split -> cont_1_lstm1_cont_slice_0_split_1
I0924 04:15:58.793898 25712 net.cpp:141] Setting up concat
I0924 04:15:58.793907 25712 net.cpp:148] Top shape: 1 1 1501 (1501)
I0924 04:15:58.793912 25712 net.cpp:156] Memory required for data: 32412
I0924 04:15:58.793916 25712 layer_factory.hpp:77] Creating layer lstm2
I0924 04:15:58.793931 25712 net.cpp:91] Creating Layer lstm2
I0924 04:15:58.793936 25712 net.cpp:425] lstm2 <- lstm1_video_sequence
I0924 04:15:58.793943 25712 net.cpp:425] lstm2 <- cont_sentence_input_1_split_1
I0924 04:15:58.793951 25712 net.cpp:399] lstm2 -> lstm2
I0924 04:15:58.793963 25712 recurrent_layer.cpp:20] Initializing recurrent layer: assuming input batch contains 1 timesteps of 1 independent streams.
I0924 04:15:58.794070 25738 net.cpp:141] Setting up lstm1_gate_input_1
I0924 04:15:58.794092 25738 net.cpp:148] Top shape: 1 1 4000 (4000)
I0924 04:15:58.794101 25738 net.cpp:156] Memory required for data: 78016
I0924 04:15:58.794111 25738 layer_factory.hpp:77] Creating layer lstm1_unit_1
I0924 04:15:58.794142 25738 net.cpp:91] Creating Layer lstm1_unit_1
I0924 04:15:58.794152 25738 net.cpp:425] lstm1_unit_1 <- c_0
I0924 04:15:58.794162 25738 net.cpp:425] lstm1_unit_1 <- gate_input_1
I0924 04:15:58.794172 25738 net.cpp:425] lstm1_unit_1 <- cont_1_lstm1_cont_slice_0_split_1
I0924 04:15:58.794183 25738 net.cpp:399] lstm1_unit_1 -> c_1
I0924 04:15:58.794199 25738 net.cpp:399] lstm1_unit_1 -> h_1
I0924 04:15:58.794267 25690 net.cpp:141] Setting up lstm1_gate_input_1
I0924 04:15:58.794312 25690 net.cpp:148] Top shape: 1 1 4000 (4000)
I0924 04:15:58.794322 25678 net.cpp:141] Setting up lstm1_transform_1
I0924 04:15:58.794327 25690 net.cpp:156] Memory required for data: 78016
I0924 04:15:58.794306 25712 net.cpp:49] Initializing net from parameters: 
layer {
  name: "lstm2_"
  type: "Input"
  top: "x"
  top: "cont"
  input_param {
    shape {
      dim: 1
      dim: 1
      dim: 1501
    }
    shape {
      dim: 1
      dim: 1
    }
  }
}
layer {
  name: "lstm2_"
  type: "Input"
  top: "c_0"
  top: "h_0"
  input_param {
    shape {
      dim: 1
      dim: 1
      dim: 1000
    }
    shape {
      dim: 1
      dim: 1
      dim: 1000
    }
  }
}
layer {
  name: "lstm2_cont_slice"
  type: "Slice"
  bottom: "cont"
  top: "cont_1"
  slice_param {
    axis: 0
  }
}
layer {
  name: "lstm2_x_transform"
  type: "InnerProduct"
  bottom: "x"
  top: "W_xc_x"
  param {
    name: "W_xc"
  }
  param {
    name: "b_c"
  }
  propagate_down: true
  inner_product_param {
    num_output: 4000
    bias_term: true
    weight_filler {
      type: "uniform"
      min: -0.08
      max: 0.08
    }
    bias_filler {
      type: "constant"
      value: 0
    }
    axis: 2
  }
}
layer {
  name: "lstm2_W_xc_x_slice"
  type: "Slice"
  bottom: "W_xc_x"
  top: "W_xc_x_1"
  slice_param {
    axis: 0
  }
}
layer {
  name: "lstm2_h_conted_0"
  type: "Scale"
  bottom: "h_0"
  bottom: "cont_1"
  top: "h_conted_0"
  scale_param {
    axis: 0
  }
}
layer {
  name: "lstm2_transform_1"
  type: "InnerProduct"
  bottom: "h_conted_0"
  top: "W_hc_h_0"
  param {
    name: "W_hc"
  }
  inner_product_param {
    num_output: 4000
    bias_term: false
    weight_filler {
      type: "uniform"
      min: -0.08
      max: 0.08
    }
    axis: 2
  }
}
layer {
  name: "lstm2_gate_input_1"
  type: "Eltwise"
  bottom: "W_hc_h_0"
  bottom: "W_xc_x_1"
  top: "gate_input_1"
  eltwise_param {
    operation: SUM
  }
}
layer {
  name: "lstm2_unit_1"
  type: "LSTMUnit"
  bottom: "c_0"
  bottom: "gate_input_1"
  bottom: "cont_1"
  top: "c_1"
  top: "h_1"
}
layer {
  name: "lstm2_"
  type: "Split"
  bottom: "c_1"
  top: "c_T"
}
layer {
  name: "lstm2_h_concat"
  type: "Concat"
  bottom: "h_1"
  top: "h"
  concat_param {
    axis: 0
  }
}
layer {
  name: "h_pseudoloss"
  type: "Reduction"
  bottom: "h"
  top: "h_pseudoloss"
  loss_weight: 1
}
I0924 04:15:58.794370 25690 layer_factory.hpp:77] Creating layer lstm1_unit_1
I0924 04:15:58.794353 25678 net.cpp:148] Top shape: 1 1 4000 (4000)
I0924 04:15:58.794386 25678 net.cpp:156] Memory required for data: 62016
I0924 04:15:58.794394 25690 net.cpp:91] Creating Layer lstm1_unit_1
I0924 04:15:58.794405 25690 net.cpp:425] lstm1_unit_1 <- c_0
I0924 04:15:58.794412 25678 layer_factory.hpp:77] Creating layer lstm1_gate_input_1
I0924 04:15:58.794417 25690 net.cpp:425] lstm1_unit_1 <- gate_input_1
I0924 04:15:58.794428 25690 net.cpp:425] lstm1_unit_1 <- cont_1_lstm1_cont_slice_0_split_1
I0924 04:15:58.794436 25678 net.cpp:91] Creating Layer lstm1_gate_input_1
I0924 04:15:58.794440 25690 net.cpp:399] lstm1_unit_1 -> c_1
I0924 04:15:58.794448 25678 net.cpp:425] lstm1_gate_input_1 <- W_hc_h_0
I0924 04:15:58.794461 25690 net.cpp:399] lstm1_unit_1 -> h_1
I0924 04:15:58.794462 25678 net.cpp:425] lstm1_gate_input_1 <- W_xc_x_1
I0924 04:15:58.794479 25678 net.cpp:399] lstm1_gate_input_1 -> gate_input_1
I0924 04:15:58.794387 25682 net.cpp:141] Setting up cont_1_lstm1_cont_slice_0_split
I0924 04:15:58.794498 25682 net.cpp:148] Top shape: 1 1 (1)
I0924 04:15:58.794505 25682 net.cpp:148] Top shape: 1 1 (1)
I0924 04:15:58.794510 25682 net.cpp:156] Memory required for data: 10016
I0924 04:15:58.794515 25682 layer_factory.hpp:77] Creating layer lstm1_x_transform
I0924 04:15:58.794514 25712 layer_factory.hpp:77] Creating layer lstm2_
I0924 04:15:58.794529 25682 net.cpp:91] Creating Layer lstm1_x_transform
I0924 04:15:58.794531 25712 net.cpp:91] Creating Layer lstm2_
I0924 04:15:58.794535 25682 net.cpp:425] lstm1_x_transform <- x
I0924 04:15:58.794538 25712 net.cpp:399] lstm2_ -> x
I0924 04:15:58.794544 25682 net.cpp:399] lstm1_x_transform -> W_xc_x
I0924 04:15:58.794551 25712 net.cpp:399] lstm2_ -> cont
I0924 04:15:58.794683 25700 net.cpp:141] Setting up lstm1_unit_1
I0924 04:15:58.794703 25700 net.cpp:148] Top shape: 1 1 1000 (1000)
I0924 04:15:58.794711 25700 net.cpp:148] Top shape: 1 1 1000 (1000)
I0924 04:15:58.794718 25700 net.cpp:156] Memory required for data: 86016
I0924 04:15:58.794725 25700 layer_factory.hpp:77] Creating layer lstm1_
I0924 04:15:58.794737 25700 net.cpp:91] Creating Layer lstm1_
I0924 04:15:58.794745 25700 net.cpp:425] lstm1_ <- c_1
I0924 04:15:58.794762 25700 net.cpp:399] lstm1_ -> c_T
I0924 04:15:58.794790 25690 net.cpp:141] Setting up lstm1_unit_1
I0924 04:15:58.794800 25690 net.cpp:148] Top shape: 1 1 1000 (1000)
I0924 04:15:58.794809 25690 net.cpp:148] Top shape: 1 1 1000 (1000)
I0924 04:15:58.794816 25690 net.cpp:156] Memory required for data: 86016
I0924 04:15:58.794823 25690 layer_factory.hpp:77] Creating layer lstm1_
I0924 04:15:58.794836 25690 net.cpp:91] Creating Layer lstm1_
I0924 04:15:58.794833 25734 net.cpp:141] Setting up lstm1_h_conted_0
I0924 04:15:58.794844 25690 net.cpp:425] lstm1_ <- c_1
I0924 04:15:58.794855 25690 net.cpp:399] lstm1_ -> c_T
I0924 04:15:58.794857 25734 net.cpp:148] Top shape: 1 1 1000 (1000)
I0924 04:15:58.794863 25678 net.cpp:141] Setting up lstm1_gate_input_1
I0924 04:15:58.794885 25678 net.cpp:148] Top shape: 1 1 4000 (4000)
I0924 04:15:58.794890 25678 net.cpp:156] Memory required for data: 78016
I0924 04:15:58.794895 25678 layer_factory.hpp:77] Creating layer lstm1_unit_1
I0924 04:15:58.794904 25678 net.cpp:91] Creating Layer lstm1_unit_1
I0924 04:15:58.794909 25678 net.cpp:425] lstm1_unit_1 <- c_0
I0924 04:15:58.794912 25690 net.cpp:141] Setting up lstm1_
I0924 04:15:58.794915 25678 net.cpp:425] lstm1_unit_1 <- gate_input_1
I0924 04:15:58.794935 25690 net.cpp:148] Top shape: 1 1 1000 (1000)
I0924 04:15:58.794939 25678 net.cpp:425] lstm1_unit_1 <- cont_1_lstm1_cont_slice_0_split_1
I0924 04:15:58.794944 25690 net.cpp:156] Memory required for data: 90016
I0924 04:15:58.794948 25678 net.cpp:399] lstm1_unit_1 -> c_1
I0924 04:15:58.794951 25690 layer_factory.hpp:77] Creating layer lstm1_h_concat
I0924 04:15:58.794958 25678 net.cpp:399] lstm1_unit_1 -> h_1
I0924 04:15:58.794965 25690 net.cpp:91] Creating Layer lstm1_h_concat
I0924 04:15:58.794975 25690 net.cpp:425] lstm1_h_concat <- h_1
I0924 04:15:58.794989 25690 net.cpp:399] lstm1_h_concat -> h
I0924 04:15:58.795065 25678 net.cpp:141] Setting up lstm1_unit_1
I0924 04:15:58.795081 25678 net.cpp:148] Top shape: 1 1 1000 (1000)
I0924 04:15:58.795094 25678 net.cpp:148] Top shape: 1 1 1000 (1000)
I0924 04:15:58.795101 25678 net.cpp:156] Memory required for data: 86016
I0924 04:15:58.795109 25678 layer_factory.hpp:77] Creating layer lstm1_
I0924 04:15:58.795125 25678 net.cpp:91] Creating Layer lstm1_
I0924 04:15:58.795135 25678 net.cpp:425] lstm1_ <- c_1
I0924 04:15:58.795146 25678 net.cpp:399] lstm1_ -> c_T
I0924 04:15:58.795183 25686 net.cpp:141] Setting up h_pseudoloss
I0924 04:15:58.795207 25686 net.cpp:148] Top shape: (1)
I0924 04:15:58.795215 25678 net.cpp:141] Setting up lstm1_
I0924 04:15:58.795213 25686 net.cpp:151]     with loss weight 1
I0924 04:15:58.795231 25678 net.cpp:148] Top shape: 1 1 1000 (1000)
I0924 04:15:58.795238 25686 net.cpp:156] Memory required for data: 94020
I0924 04:15:58.795241 25678 net.cpp:156] Memory required for data: 90016
I0924 04:15:58.795248 25686 net.cpp:217] h_pseudoloss needs backward computation.
I0924 04:15:58.795251 25678 layer_factory.hpp:77] Creating layer lstm1_h_concat
I0924 04:15:58.795258 25686 net.cpp:217] lstm1_h_concat needs backward computation.
…
I0924 04:15:58.795359 25686 net.cpp:219] lstm1_h_conted_0 does not need backward computation.
I0924 04:15:58.795372 25686 net.cpp:217] lstm1_W_xc_x_slice needs backward computation.
I0924 04:15:58.795372 25678 net.cpp:141] Setting up lstm1_h_concat
I0924 04:15:58.795379 25686 net.cpp:217] lstm1_x_transform needs backward computation.
I0924 04:15:58.794867 25734 net.cpp:156] Memory required for data: 46016
I0924 04:15:58.795389 25686 net.cpp:219] cont_1_lstm1_cont_slice_0_split does not need backward computation.
I0924 04:15:58.795400 25734 layer_factory.hpp:77] Creating layer lstm1_transform_1
I0924 04:15:58.795388 25678 net.cpp:148] Top shape: 1 1 1000 (1000)
I0924 04:15:58.795413 25686 net.cpp:219] lstm1_cont_slice does not need backward computation.
I0924 04:15:58.795420 25678 net.cpp:156] Memory required for data: 94016
I0924 04:15:58.795424 25686 net.cpp:219] lstm1_ does not need backward computation.
I0924 04:15:58.795431 25678 layer_factory.hpp:77] Creating layer h_pseudoloss
I0924 04:15:58.795435 25686 net.cpp:219] lstm1_ does not need backward computation.
I0924 04:15:58.795439 25734 net.cpp:91] Creating Layer lstm1_transform_1
I0924 04:15:58.795444 25686 net.cpp:261] This network produces output c_T
I0924 04:15:58.795447 25678 net.cpp:91] Creating Layer h_pseudoloss
I0924 04:15:58.795454 25686 net.cpp:261] This network produces output h_pseudoloss
I0924 04:15:58.795456 25678 net.cpp:425] h_pseudoloss <- h
I0924 04:15:58.795469 25678 net.cpp:399] h_pseudoloss -> h_pseudoloss
I0924 04:15:58.795451 25734 net.cpp:425] lstm1_transform_1 <- h_conted_0
I0924 04:15:58.795490 25734 net.cpp:399] lstm1_transform_1 -> W_hc_h_0
I0924 04:15:58.795492 25686 net.cpp:274] Network initialization done.
I0924 04:15:58.795539 25726 net.cpp:141] Setting up embedding
I0924 04:15:58.795557 25726 net.cpp:148] Top shape: 1 1 500 (500)
I0924 04:15:58.795562 25726 net.cpp:156] Memory required for data: 22408
I0924 04:15:58.795560 25686 recurrent_layer.cpp:150] Adding parameter 0: W_xc
I0924 04:15:58.795568 25686 recurrent_layer.cpp:150] Adding parameter 1: b_c
I0924 04:15:58.795573 25686 recurrent_layer.cpp:150] Adding parameter 2: W_hc
I0924 04:15:58.795577 25726 layer_factory.hpp:77] Creating layer lstm1
I0924 04:15:58.795593 25726 net.cpp:91] Creating Layer lstm1
I0924 04:15:58.795601 25726 net.cpp:425] lstm1 <- embedded_input_frames
I0924 04:15:58.795608 25726 net.cpp:425] lstm1 <- cont_sentence_input_1_split_0
I0924 04:15:58.795621 25726 net.cpp:399] lstm1 -> lstm1
I0924 04:15:58.795634 25726 recurrent_layer.cpp:20] Initializing recurrent layer: assuming input batch contains 1 timesteps of 1 independent streams.
I0924 04:15:58.795959 25726 net.cpp:49] Initializing net from parameters: 
layer {
  name: "lstm1_"
  type: "Input"
  top: "x"
  top: "cont"
  input_param {
    shape {
      dim: 1
      dim: 1
      dim: 500
    }
    shape {
      dim: 1
      dim: 1
    }
  }
}
layer {
  name: "lstm1_"
  type: "Input"
  top: "c_0"
  top: "h_0"
  input_param {
    shape {
      dim: 1
      dim: 1
      dim: 1000
    }
    shape {
      dim: 1
      dim: 1
      dim: 1000
    }
  }
}
layer {
  name: "lstm1_cont_slice"
  type: "Slice"
  bottom: "cont"
  top: "cont_1"
  slice_param {
    axis: 0
  }
}
layer {
  name: "lstm1_x_transform"
  type: "InnerProduct"
  bottom: "x"
  top: "W_xc_x"
  param {
    name: "W_xc"
  }
  param {
    name: "b_c"
  }
  propagate_down: true
  inner_product_param {
    num_output: 4000
    bias_term: true
    weight_filler {
      type: "uniform"
      min: -0.08
      max: 0.08
    }
    bias_filler {
      type: "constant"
      value: 0
    }
    axis: 2
  }
}
layer {
  name: "lstm1_W_xc_x_slice"
  type: "Slice"
  bottom: "W_xc_x"
  top: "W_xc_x_1"
  slice_param {
    axis: 0
  }
}
layer {
  name: "lstm1_h_conted_0"
  type: "Scale"
  bottom: "h_0"
  bottom: "cont_1"
  top: "h_conted_0"
  scale_param {
    axis: 0
  }
}
layer {
  name: "lstm1_transform_1"
  type: "InnerProduct"
  bottom: "h_conted_0"
  top: "W_hc_h_0"
  param {
    name: "W_hc"
  }
  inner_product_param {
    num_output: 4000
    bias_term: false
    weight_filler {
      type: "uniform"
      min: -0.08
      max: 0.08
    }
    axis: 2
  }
}
layer {
  name: "lstm1_gate_input_1"
  type: "Eltwise"
  bottom: "W_hc_h_0"
  bottom: "W_xc_x_1"
  top: "gate_input_1"
  eltwise_param {
    operation: SUM
  }
}
layer {
  name: "lstm1_unit_1"
  type: "LSTMUnit"
  bottom: "c_0"
  bottom: "gate_input_1"
  bottom: "cont_1"
  top: "c_1"
  top: "h_1"
}
layer {
  name: "lstm1_"
  type: "Split"
  bottom: "c_1"
  top: "c_T"
}
layer {
  name: "lstm1_h_concat"
  type: "Concat"
  bottom: "h_1"
  top: "h"
  concat_param {
    axis: 0
  }
}
layer {
  name: "h_pseudoloss"
  type: "Reduction"
  bottom: "h"
  top: "h_pseudoloss"
  loss_weight: 1
}
I0924 04:15:58.796052 25726 layer_factory.hpp:77] Creating layer lstm1_
I0924 04:15:58.796064 25726 net.cpp:91] Creating Layer lstm1_
I0924 04:15:58.796072 25726 net.cpp:399] lstm1_ -> x
I0924 04:15:58.796082 25726 net.cpp:399] lstm1_ -> cont
I0924 04:15:58.815243 25678 net.cpp:141] Setting up h_pseudoloss
I0924 04:15:58.815295 25678 net.cpp:148] Top shape: (1)
…
I0924 04:15:58.815456 25678 net.cpp:219] lstm1_ does not need backward computation.
I0924 04:15:58.815462 25678 net.cpp:261] This network produces output c_T
I0924 04:15:58.815472 25678 net.cpp:261] This network produces output h_pseudoloss
I0924 04:15:58.815496 25678 net.cpp:274] Network initialization done.
I0924 04:15:58.815572 25678 recurrent_layer.cpp:150] Adding parameter 0: W_xc
I0924 04:15:58.815582 25678 recurrent_layer.cpp:150] Adding parameter 1: b_c
I0924 04:15:58.815590 25678 recurrent_layer.cpp:150] Adding parameter 2: W_hc
I0924 04:15:58.815743 25678 net.cpp:141] Setting up lstm1
I0924 04:15:58.815773 25678 net.cpp:148] Top shape: 1 1 1000 (1000)
I0924 04:15:58.815781 25678 net.cpp:156] Memory required for data: 26408
I0924 04:15:58.815805 25678 layer_factory.hpp:77] Creating layer concat
I0924 04:15:58.815827 25678 net.cpp:91] Creating Layer concat
I0924 04:15:58.815837 25678 net.cpp:425] concat <- lstm1
I0924 04:15:58.815848 25678 net.cpp:425] concat <- embedded_input_sentence
I0924 04:15:58.815856 25678 net.cpp:425] concat <- reshaped_stage_indicator
I0924 04:15:58.815870 25678 net.cpp:399] concat -> lstm1_video_sequence
I0924 04:15:58.815930 25678 net.cpp:141] Setting up concat
I0924 04:15:58.815945 25678 net.cpp:148] Top shape: 1 1 1501 (1501)
I0924 04:15:58.815953 25678 net.cpp:156] Memory required for data: 32412
I0924 04:15:58.815960 25678 layer_factory.hpp:77] Creating layer lstm2
I0924 04:15:58.815979 25678 net.cpp:91] Creating Layer lstm2
I0924 04:15:58.815989 25678 net.cpp:425] lstm2 <- lstm1_video_sequence
I0924 04:15:58.815999 25678 net.cpp:425] lstm2 <- cont_sentence_input_1_split_1
I0924 04:15:58.816009 25678 net.cpp:399] lstm2 -> lstm2
I0924 04:15:58.816026 25678 recurrent_layer.cpp:20] Initializing recurrent layer: assuming input batch contains 1 timesteps of 1 independent streams.
I0924 04:15:58.816427 25678 net.cpp:49] Initializing net from parameters: 
layer {
  name: "lstm2_"
  type: "Input"
  top: "x"
  top: "cont"
  input_param {
    shape {
      dim: 1
      dim: 1
      dim: 1501
    }
    shape {
      dim: 1
      dim: 1
    }
  }
}
layer {
  name: "lstm2_"
  type: "Input"
  top: "c_0"
  top: "h_0"
  input_param {
    shape {
      dim: 1
      dim: 1
      dim: 1000
    }
    shape {
      dim: 1
      dim: 1
      dim: 1000
    }
  }
}
layer {
  name: "lstm2_cont_slice"
  type: "Slice"
  bottom: "cont"
  top: "cont_1"
  slice_param {
    axis: 0
  }
}
layer {
  name: "lstm2_x_transform"
  type: "InnerProduct"
  bottom: "x"
  top: "W_xc_x"
  param {
    name: "W_xc"
  }
  param {
    name: "b_c"
  }
  propagate_down: true
  inner_product_param {
    num_output: 4000
    bias_term: true
    weight_filler {
      type: "uniform"
      min: -0.08
      max: 0.08
    }
    bias_filler {
      type: "constant"
      value: 0
    }
    axis: 2
  }
}
layer {
  name: "lstm2_W_xc_x_slice"
  type: "Slice"
  bottom: "W_xc_x"
  top: "W_xc_x_1"
  slice_param {
    axis: 0
  }
}
layer {
  name: "lstm2_h_conted_0"
  type: "Scale"
  bottom: "h_0"
  bottom: "cont_1"
  top: "h_conted_0"
  scale_param {
    axis: 0
  }
}
layer {
  name: "lstm2_transform_1"
  type: "InnerProduct"
  bottom: "h_conted_0"
  top: "W_hc_h_0"
  param {
    name: "W_hc"
  }
  inner_product_param {
    num_output: 4000
    bias_term: false
    weight_filler {
      type: "uniform"
      min: -0.08
      max: 0.08
    }
    axis: 2
  }
}
layer {
  name: "lstm2_gate_input_1"
  type: "Eltwise"
  bottom: "W_hc_h_0"
  bottom: "W_xc_x_1"
  top: "gate_input_1"
  eltwise_param {
    operation: SUM
  }
}
layer {
  name: "lstm2_unit_1"
  type: "LSTMUnit"
  bottom: "c_0"
  bottom: "gate_input_1"
  bottom: "cont_1"
  top: "c_1"
  top: "h_1"
}
layer {
  name: "lstm2_"
  type: "Split"
  bottom: "c_1"
  top: "c_T"
}
layer {
  name: "lstm2_h_concat"
  type: "Concat"
  bottom: "h_1"
  top: "h"
  concat_param {
    axis: 0
  }
}
layer {
  name: "h_pseudoloss"
  type: "Reduction"
  bottom: "h"
  top: "h_pseudoloss"
…
I0924 04:17:21.846576 26129 net.cpp:399] lstm2_ -> x
I0924 04:17:21.846587 26121 net.cpp:91] Creating Layer lstm2_h_concat
I0924 04:17:21.846592 26129 net.cpp:399] lstm2_ -> cont
I0924 04:17:21.846619 26121 net.cpp:425] lstm2_h_concat <- h_1
I0924 04:17:21.846635 26121 net.cpp:399] lstm2_h_concat -> h
I0924 04:17:21.846634 26077 net.cpp:141] Setting up lstm2_h_conted_0
I0924 04:17:21.846642 26073 recurrent_layer.cpp:150] Adding parameter 0: W_xc
I0924 04:17:21.846664 26073 recurrent_layer.cpp:150] Adding parameter 1: b_c
I0924 04:17:21.846668 26077 net.cpp:148] Top shape: 1 1 1000 (1000)
I0924 04:17:21.846673 26073 recurrent_layer.cpp:150] Adding parameter 2: W_hc
I0924 04:17:21.846681 26077 net.cpp:156] Memory required for data: 50020
I0924 04:17:21.846683 26133 net.cpp:141] Setting up lstm2_h_concat
I0924 04:17:21.846653 26081 net.cpp:141] Setting up lstm2_x_transform
I0924 04:17:21.846693 26077 layer_factory.hpp:77] Creating layer lstm2_transform_1
I0924 04:17:21.846700 26133 net.cpp:148] Top shape: 1 1 1000 (1000)
I0924 04:17:21.846704 26081 net.cpp:148] Top shape: 1 1 4000 (4000)
I0924 04:17:21.846709 26133 net.cpp:156] Memory required for data: 98020
I0924 04:17:21.846714 26081 net.cpp:156] Memory required for data: 30020
I0924 04:17:21.846719 26133 layer_factory.hpp:77] Creating layer h_pseudoloss
I0924 04:17:21.846727 26077 net.cpp:91] Creating Layer lstm2_transform_1
I0924 04:17:21.846734 26133 net.cpp:91] Creating Layer h_pseudoloss
I0924 04:17:21.846743 26077 net.cpp:425] lstm2_transform_1 <- h_conted_0
I0924 04:17:21.846735 26081 layer_factory.hpp:77] Creating layer lstm2_W_xc_x_slice
I0924 04:17:21.846750 26133 net.cpp:425] h_pseudoloss <- h
I0924 04:17:21.846771 26081 net.cpp:91] Creating Layer lstm2_W_xc_x_slice
I0924 04:17:21.846763 26077 net.cpp:399] lstm2_transform_1 -> W_hc_h_0
I0924 04:17:21.846786 26133 net.cpp:399] h_pseudoloss -> h_pseudoloss
I0924 04:17:21.846786 26129 net.cpp:141] Setting up lstm2_
I0924 04:17:21.846802 26129 net.cpp:148] Top shape: 1 1 1501 (1501)
I0924 04:17:21.846813 26129 net.cpp:148] Top shape: 1 1 (1)
I0924 04:17:21.846822 26129 net.cpp:156] Memory required for data: 6008
I0924 04:17:21.846829 26129 layer_factory.hpp:77] Creating layer lstm2_
I0924 04:17:21.846845 26129 net.cpp:91] Creating Layer lstm2_
I0924 04:17:21.846851 26081 net.cpp:425] lstm2_W_xc_x_slice <- W_xc_x
I0924 04:17:21.846856 26129 net.cpp:399] lstm2_ -> c_0
I0924 04:17:21.846874 26129 net.cpp:399] lstm2_ -> h_0
I0924 04:17:21.846876 26081 net.cpp:399] lstm2_W_xc_x_slice -> W_xc_x_1
I0924 04:17:21.846920 26121 net.cpp:141] Setting up lstm2_h_concat
I0924 04:17:21.846936 26121 net.cpp:148] Top shape: 1 1 1000 (1000)
I0924 04:17:21.846945 26121 net.cpp:156] Memory required for data: 98020
I0924 04:17:21.846952 26121 layer_factory.hpp:77] Creating layer h_pseudoloss
I0924 04:17:21.846964 26121 net.cpp:91] Creating Layer h_pseudoloss
I0924 04:17:21.846973 26121 net.cpp:425] h_pseudoloss <- h
I0924 04:17:21.846985 26121 net.cpp:399] h_pseudoloss -> h_pseudoloss
I0924 04:17:21.847131 26133 net.cpp:141] Setting up h_pseudoloss
…
I0924 04:17:21.942951 26121 net.cpp:219] lstm2_ does not need backward computation.
I0924 04:17:21.942958 26121 net.cpp:261] This network produces output c_T
I0924 04:17:21.942968 26121 net.cpp:261] This network produces output h_pseudoloss
I0924 04:17:21.942993 26121 net.cpp:274] Network initialization done.
I0924 04:17:21.943073 26121 recurrent_layer.cpp:150] Adding parameter 0: W_xc
I0924 04:17:21.943084 26121 recurrent_layer.cpp:150] Adding parameter 1: b_c
I0924 04:17:21.943091 26121 recurrent_layer.cpp:150] Adding parameter 2: W_hc
I0924 04:17:21.943274 26121 net.cpp:141] Setting up lstm2
I0924 04:17:21.943290 26121 net.cpp:148] Top shape: 1 1 1000 (1000)
I0924 04:17:21.943297 26121 net.cpp:156] Memory required for data: 36412
I0924 04:17:21.943322 26121 layer_factory.hpp:77] Creating layer predict
I0924 04:17:21.943346 26121 net.cpp:91] Creating Layer predict
I0924 04:17:21.943357 26121 net.cpp:425] predict <- lstm2
I0924 04:17:21.943369 26121 net.cpp:399] predict -> predict
I0924 04:17:22.040108 26129 net.cpp:141] Setting up lstm2_
I0924 04:17:22.040158 26129 net.cpp:148] Top shape: 1 1 1000 (1000)
I0924 04:17:22.040170 26129 net.cpp:148] Top shape: 1 1 1000 (1000)
I0924 04:17:22.040179 26129 net.cpp:156] Memory required for data: 14008
I0924 04:17:22.040190 26129 layer_factory.hpp:77] Creating layer lstm2_cont_slice
I0924 04:17:22.040216 26129 net.cpp:91] Creating Layer lstm2_cont_slice
I0924 04:17:22.040226 26129 net.cpp:425] lstm2_cont_slice <- cont
I0924 04:17:22.040241 26129 net.cpp:399] lstm2_cont_slice -> cont_1
I0924 04:17:22.040328 26077 net.cpp:141] Setting up lstm2_transform_1
I0924 04:17:22.040379 26073 net.cpp:141] Setting up lstm2
I0924 04:17:22.040392 26077 net.cpp:148] Top shape: 1 1 4000 (4000)
I0924 04:17:22.040397 26073 net.cpp:148] Top shape: 1 1 1000 (1000)
I0924 04:17:22.040403 26077 net.cpp:156] Memory required for data: 66020
I0924 04:17:22.040405 26073 net.cpp:156] Memory required for data: 36412
I0924 04:17:22.040426 26077 layer_factory.hpp:77] Creating layer lstm2_gate_input_1
I0924 04:17:22.040428 26073 layer_factory.hpp:77] Creating layer predict
I0924 04:17:22.040459 26077 net.cpp:91] Creating Layer lstm2_gate_input_1
I0924 04:17:22.040472 26077 net.cpp:425] lstm2_gate_input_1 <- W_hc_h_0
I0924 04:17:22.040472 26073 net.cpp:91] Creating Layer predict
I0924 04:17:22.040482 26073 net.cpp:425] predict <- lstm2
I0924 04:17:22.040482 26077 net.cpp:425] lstm2_gate_input_1 <- W_xc_x_1
I0924 04:17:22.040513 26073 net.cpp:399] predict -> predict
I0924 04:17:22.040513 26101 net.cpp:141] Setting up lstm2_
I0924 04:17:22.040519 26077 net.cpp:399] lstm2_gate_input_1 -> gate_input_1
I0924 04:17:22.040540 26101 net.cpp:148] Top shape: 1 1 1000 (1000)
I0924 04:17:22.040547 26101 net.cpp:156] Memory required for data: 94020
I0924 04:17:22.040554 26101 layer_factory.hpp:77] Creating layer lstm2_h_concat
I0924 04:17:22.040566 26101 net.cpp:91] Creating Layer lstm2_h_concat
I0924 04:17:22.040572 26101 net.cpp:425] lstm2_h_concat <- h_1
I0924 04:17:22.040586 26101 net.cpp:399] lstm2_h_concat -> h
I0924 04:17:22.040606 26077 net.cpp:141] Setting up lstm2_gate_input_1
I0924 04:17:22.040618 26077 net.cpp:148] Top shape: 1 1 4000 (4000)
I0924 04:17:22.040622 26077 net.cpp:156] Memory required for data: 82020
I0924 04:17:22.040627 26077 layer_factory.hpp:77] Creating layer lstm2_unit_1
I0924 04:17:22.040640 26077 net.cpp:91] Creating Layer lstm2_unit_1
I0924 04:17:22.040647 26077 net.cpp:425] lstm2_unit_1 <- c_0
I0924 04:17:22.040652 26101 net.cpp:141] Setting up lstm2_h_concat
I0924 04:17:22.040657 26077 net.cpp:425] lstm2_unit_1 <- gate_input_1
I0924 04:17:22.040663 26101 net.cpp:148] Top shape: 1 1 1000 (1000)
I0924 04:17:22.040668 26101 net.cpp:156] Memory required for data: 98020
I0924 04:17:22.040681 26101 layer_factory.hpp:77] Creating layer h_pseudoloss
I0924 04:17:22.040668 26077 net.cpp:425] lstm2_unit_1 <- cont_1_lstm2_cont_slice_0_split_1
I0924 04:17:22.040691 26101 net.cpp:91] Creating Layer h_pseudoloss
I0924 04:17:22.040698 26101 net.cpp:425] h_pseudoloss <- h
I0924 04:17:22.040696 26077 net.cpp:399] lstm2_unit_1 -> c_1
I0924 04:17:22.040707 26101 net.cpp:399] h_pseudoloss -> h_pseudoloss
I0924 04:17:22.040714 26077 net.cpp:399] lstm2_unit_1 -> h_1
I0924 04:17:22.040946 26129 net.cpp:141] Setting up lstm2_cont_slice
I0924 04:17:22.040962 26129 net.cpp:148] Top shape: 1 1 (1)
I0924 04:17:22.040969 26129 net.cpp:156] Memory required for data: 14012
I0924 04:17:22.040977 26129 layer_factory.hpp:77] Creating layer cont_1_lstm2_cont_slice_0_split
I0924 04:17:22.040992 26129 net.cpp:91] Creating Layer cont_1_lstm2_cont_slice_0_split
I0924 04:17:22.041000 26129 net.cpp:425] cont_1_lstm2_cont_slice_0_split <- cont_1
I0924 04:17:22.041002 26133 net.cpp:141] Setting up lstm2
I0924 04:17:22.041013 26129 net.cpp:399] cont_1_lstm2_cont_slice_0_split -> cont_1_lstm2_cont_slice_0_split_0
I0924 04:17:22.041025 26133 net.cpp:148] Top shape: 1 1 1000 (1000)
I0924 04:17:22.041028 26129 net.cpp:399] cont_1_lstm2_cont_slice_0_split -> cont_1_lstm2_cont_slice_0_split_1
I0924 04:17:22.041033 26133 net.cpp:156] Memory required for data: 36412
I0924 04:17:22.041057 26133 layer_factory.hpp:77] Creating layer predict
I0924 04:17:22.041075 26133 net.cpp:91] Creating Layer predict
I0924 04:17:22.041085 26133 net.cpp:425] predict <- lstm2
I0924 04:17:22.041097 26133 net.cpp:399] predict -> predict
…
I0924 04:17:22.041235 26101 net.cpp:219] lstm2_ does not need backward computation.
I0924 04:17:22.041239 26101 net.cpp:261] This network produces output c_T
I0924 04:17:22.041245 26101 net.cpp:261] This network produces output h_pseudoloss
I0924 04:17:22.041262 26101 net.cpp:274] Network initialization done.
I0924 04:17:22.041312 26101 recurrent_layer.cpp:150] Adding parameter 0: W_xc
I0924 04:17:22.041318 26101 recurrent_layer.cpp:150] Adding parameter 1: b_c
I0924 04:17:22.041323 26101 recurrent_layer.cpp:150] Adding parameter 2: W_hc
I0924 04:17:22.127687 26081 net.cpp:141] Setting up lstm2_h_conted_0
I0924 04:17:22.127737 26081 net.cpp:148] Top shape: 1 1 1000 (1000)
I0924 04:17:22.127743 26081 net.cpp:156] Memory required for data: 50020
I0924 04:17:22.127751 26081 layer_factory.hpp:77] Creating layer lstm2_transform_1
I0924 04:17:22.127770 26081 net.cpp:91] Creating Layer lstm2_transform_1
I0924 04:17:22.127779 26081 net.cpp:425] lstm2_transform_1 <- h_conted_0
I0924 04:17:22.127799 26081 net.cpp:399] lstm2_transform_1 -> W_hc_h_0
I0924 04:17:22.127809 26129 net.cpp:141] Setting up cont_1_lstm2_cont_slice_0_split
I0924 04:17:22.127851 26129 net.cpp:148] Top shape: 1 1 (1)
I0924 04:17:22.127861 26129 net.cpp:148] Top shape: 1 1 (1)
I0924 04:17:22.127868 26129 net.cpp:156] Memory required for data: 14020
I0924 04:17:22.127879 26129 layer_factory.hpp:77] Creating layer lstm2_x_transform
I0924 04:17:22.127910 26129 net.cpp:91] Creating Layer lstm2_x_transform
I0924 04:17:22.127920 26129 net.cpp:425] lstm2_x_transform <- x
I0924 04:17:22.127938 26129 net.cpp:399] lstm2_x_transform -> W_xc_x
I0924 04:17:22.244601 26077 net.cpp:141] Setting up lstm2_unit_1
I0924 04:17:22.244657 26077 net.cpp:148] Top shape: 1 1 1000 (1000)
I0924 04:17:22.244670 26077 net.cpp:148] Top shape: 1 1 1000 (1000)
I0924 04:17:22.244678 26077 net.cpp:156] Memory required for data: 90020
I0924 04:17:22.244688 26077 layer_factory.hpp:77] Creating layer lstm2_
I0924 04:17:22.244709 26077 net.cpp:91] Creating Layer lstm2_
I0924 04:17:22.244720 26077 net.cpp:425] lstm2_ <- c_1
I0924 04:17:22.244743 26077 net.cpp:399] lstm2_ -> c_T
I0924 04:17:22.251922 26101 net.cpp:141] Setting up lstm2
I0924 04:17:22.251978 26101 net.cpp:148] Top shape: 1 1 1000 (1000)
I0924 04:17:22.251987 26101 net.cpp:156] Memory required for data: 36412
I0924 04:17:22.251994 26077 net.cpp:141] Setting up lstm2_
I0924 04:17:22.252017 26077 net.cpp:148] Top shape: 1 1 1000 (1000)
I0924 04:17:22.252019 26101 layer_factory.hpp:77] Creating layer predict
I0924 04:17:22.252024 26077 net.cpp:156] Memory required for data: 94020
I0924 04:17:22.252034 26077 layer_factory.hpp:77] Creating layer lstm2_h_concat
I0924 04:17:22.252046 26101 net.cpp:91] Creating Layer predict
I0924 04:17:22.252049 26077 net.cpp:91] Creating Layer lstm2_h_concat
I0924 04:17:22.252058 26101 net.cpp:425] predict <- lstm2
I0924 04:17:22.252059 26077 net.cpp:425] lstm2_h_concat <- h_1
I0924 04:17:22.252074 26101 net.cpp:399] predict -> predict
I0924 04:17:22.252074 26077 net.cpp:399] lstm2_h_concat -> h
I0924 04:17:22.252297 26095 net.cpp:141] Setting up predict
I0924 04:17:22.252336 26095 net.cpp:148] Top shape: 1 1 46168 (46168)
I0924 04:17:22.252342 26095 net.cpp:156] Memory required for data: 221084
I0924 04:17:22.252362 26095 layer_factory.hpp:77] Creating layer probs
I0924 04:17:22.252380 26095 net.cpp:91] Creating Layer probs
I0924 04:17:22.252388 26095 net.cpp:425] probs <- predict
I0924 04:17:22.252398 26095 net.cpp:399] probs -> probs
I0924 04:17:22.342422 26077 net.cpp:141] Setting up lstm2_h_concat
I0924 04:17:22.342483 26077 net.cpp:148] Top shape: 1 1 1000 (1000)
I0924 04:17:22.342491 26077 net.cpp:156] Memory required for data: 98020
I0924 04:17:22.342504 26077 layer_factory.hpp:77] Creating layer h_pseudoloss
I0924 04:17:22.342526 26077 net.cpp:91] Creating Layer h_pseudoloss
I0924 04:17:22.342536 26077 net.cpp:425] h_pseudoloss <- h
I0924 04:17:22.342551 26077 net.cpp:399] h_pseudoloss -> h_pseudoloss
I0924 04:17:22.345654 26107 net.cpp:141] Setting up predict
I0924 04:17:22.345721 26107 net.cpp:148] Top shape: 1 1 46168 (46168)
I0924 04:17:22.345731 26107 net.cpp:156] Memory required for data: 221084
I0924 04:17:22.345755 26107 layer_factory.hpp:77] Creating layer probs
I0924 04:17:22.345780 26107 net.cpp:91] Creating Layer probs
I0924 04:17:22.345793 26107 net.cpp:425] probs <- predict
I0924 04:17:22.345808 26107 net.cpp:399] probs -> probs
I0924 04:17:22.345808 26081 net.cpp:141] Setting up lstm2_transform_1
I0924 04:17:22.345856 26081 net.cpp:148] Top shape: 1 1 4000 (4000)
I0924 04:17:22.345863 26081 net.cpp:156] Memory required for data: 66020
I0924 04:17:22.345883 26081 layer_factory.hpp:77] Creating layer lstm2_gate_input_1
I0924 04:17:22.345909 26081 net.cpp:91] Creating Layer lstm2_gate_input_1
I0924 04:17:22.345917 26081 net.cpp:425] lstm2_gate_input_1 <- W_hc_h_0
I0924 04:17:22.345926 26081 net.cpp:425] lstm2_gate_input_1 <- W_xc_x_1
I0924 04:17:22.345933 26081 net.cpp:399] lstm2_gate_input_1 -> gate_input_1
I0924 04:17:22.346931 26085 net.cpp:141] Setting up predict
I0924 04:17:22.346963 26085 net.cpp:148] Top shape: 1 1 46168 (46168)
I0924 04:17:22.346972 26085 net.cpp:156] Memory required for data: 221084
I0924 04:17:22.346992 26085 layer_factory.hpp:77] Creating layer probs
I0924 04:17:22.347010 26085 net.cpp:91] Creating Layer probs
I0924 04:17:22.347019 26085 net.cpp:425] probs <- predict
I0924 04:17:22.347033 26085 net.cpp:399] probs -> probs
I0924 04:17:22.347043 26077 net.cpp:141] Setting up h_pseudoloss
…
I0924 04:17:22.347223 26077 net.cpp:219] lstm2_ does not need backward computation.
I0924 04:17:22.347229 26077 net.cpp:261] This network produces output c_T
I0924 04:17:22.347239 26077 net.cpp:261] This network produces output h_pseudoloss
I0924 04:17:22.347265 26077 net.cpp:274] Network initialization done.
I0924 04:17:22.347347 26077 recurrent_layer.cpp:150] Adding parameter 0: W_xc
I0924 04:17:22.347359 26077 recurrent_layer.cpp:150] Adding parameter 1: b_c
I0924 04:17:22.347368 26077 recurrent_layer.cpp:150] Adding parameter 2: W_hc
I0924 04:17:22.347549 26077 net.cpp:141] Setting up lstm2
I0924 04:17:22.347568 26077 net.cpp:148] Top shape: 1 1 1000 (1000)
I0924 04:17:22.347575 26077 net.cpp:156] Memory required for data: 36412
I0924 04:17:22.347599 26077 layer_factory.hpp:77] Creating layer predict
I0924 04:17:22.347617 26077 net.cpp:91] Creating Layer predict
I0924 04:17:22.347626 26077 net.cpp:425] predict <- lstm2
I0924 04:17:22.347640 26077 net.cpp:399] predict -> predict
I0924 04:17:22.441756 26129 net.cpp:141] Setting up lstm2_x_transform
I0924 04:17:22.441836 26129 net.cpp:148] Top shape: 1 1 4000 (4000)
I0924 04:17:22.441848 26129 net.cpp:156] Memory required for data: 30020
I0924 04:17:22.441884 26129 layer_factory.hpp:77] Creating layer lstm2_W_xc_x_slice
I0924 04:17:22.441885 26081 net.cpp:141] Setting up lstm2_gate_input_1
I0924 04:17:22.441910 26129 net.cpp:91] Creating Layer lstm2_W_xc_x_slice
I0924 04:17:22.441947 26081 net.cpp:148] Top shape: 1 1 4000 (4000)
I0924 04:17:22.441954 26081 net.cpp:156] Memory required for data: 82020
I0924 04:17:22.441957 26129 net.cpp:425] lstm2_W_xc_x_slice <- W_xc_x
I0924 04:17:22.441963 26081 layer_factory.hpp:77] Creating layer lstm2_unit_1
I0924 04:17:22.441978 26129 net.cpp:399] lstm2_W_xc_x_slice -> W_xc_x_1
I0924 04:17:22.441982 26081 net.cpp:91] Creating Layer lstm2_unit_1
I0924 04:17:22.442006 26081 net.cpp:425] lstm2_unit_1 <- c_0
I0924 04:17:22.442018 26081 net.cpp:425] lstm2_unit_1 <- gate_input_1
I0924 04:17:22.442023 26081 net.cpp:425] lstm2_unit_1 <- cont_1_lstm2_cont_slice_0_split_1
I0924 04:17:22.442035 26081 net.cpp:399] lstm2_unit_1 -> c_1
I0924 04:17:22.442049 26081 net.cpp:399] lstm2_unit_1 -> h_1
I0924 04:17:22.450214 26129 net.cpp:141] Setting up lstm2_W_xc_x_slice
I0924 04:17:22.450273 26129 net.cpp:148] Top shape: 1 1 4000 (4000)
I0924 04:17:22.450280 26129 net.cpp:156] Memory required for data: 46020
I0924 04:17:22.450290 26129 layer_factory.hpp:77] Creating layer lstm2_h_conted_0
I0924 04:17:22.450310 26129 net.cpp:91] Creating Layer lstm2_h_conted_0
I0924 04:17:22.450317 26129 net.cpp:425] lstm2_h_conted_0 <- h_0
I0924 04:17:22.450327 26129 net.cpp:425] lstm2_h_conted_0 <- cont_1_lstm2_cont_slice_0_split_0
I0924 04:17:22.450337 26129 net.cpp:399] lstm2_h_conted_0 -> h_conted_0
I0924 04:17:22.450422 26081 net.cpp:141] Setting up lstm2_unit_1
I0924 04:17:22.450465 26081 net.cpp:148] Top shape: 1 1 1000 (1000)
I0924 04:17:22.450477 26081 net.cpp:148] Top shape: 1 1 1000 (1000)
I0924 04:17:22.450485 26081 net.cpp:156] Memory required for data: 90020
I0924 04:17:22.450494 26081 layer_factory.hpp:77] Creating layer lstm2_
I0924 04:17:22.450508 26081 net.cpp:91] Creating Layer lstm2_
I0924 04:17:22.450515 26081 net.cpp:425] lstm2_ <- c_1
I0924 04:17:22.450525 26081 net.cpp:399] lstm2_ -> c_T
I0924 04:17:22.450588 26121 net.cpp:141] Setting up predict
I0924 04:17:22.450619 26121 net.cpp:148] Top shape: 1 1 46168 (46168)
I0924 04:17:22.450624 26121 net.cpp:156] Memory required for data: 221084
I0924 04:17:22.450637 26121 layer_factory.hpp:77] Creating layer probs
I0924 04:17:22.450649 26121 net.cpp:91] Creating Layer probs
I0924 04:17:22.450655 26121 net.cpp:425] probs <- predict
I0924 04:17:22.450659 26081 net.cpp:141] Setting up lstm2_
I0924 04:17:22.450664 26121 net.cpp:399] probs -> probs
I0924 04:17:22.450670 26081 net.cpp:148] Top shape: 1 1 1000 (1000)
I0924 04:17:22.450675 26081 net.cpp:156] Memory required for data: 94020
I0924 04:17:22.450680 26081 layer_factory.hpp:77] Creating layer lstm2_h_concat
I0924 04:17:22.450691 26081 net.cpp:91] Creating Layer lstm2_h_concat
I0924 04:17:22.450696 26081 net.cpp:425] lstm2_h_concat <- h_1
I0924 04:17:22.450703 26081 net.cpp:399] lstm2_h_concat -> h
I0924 04:17:22.450779 26129 net.cpp:141] Setting up lstm2_h_conted_0
I0924 04:17:22.450793 26129 net.cpp:148] Top shape: 1 1 1000 (1000)
I0924 04:17:22.450798 26129 net.cpp:156] Memory required for data: 50020
I0924 04:17:22.450803 26129 layer_factory.hpp:77] Creating layer lstm2_transform_1
I0924 04:17:22.450819 26129 net.cpp:91] Creating Layer lstm2_transform_1
I0924 04:17:22.450824 26129 net.cpp:425] lstm2_transform_1 <- h_conted_0
I0924 04:17:22.450829 26081 net.cpp:141] Setting up lstm2_h_concat
I0924 04:17:22.450834 26129 net.cpp:399] lstm2_transform_1 -> W_hc_h_0
I0924 04:17:22.450840 26081 net.cpp:148] Top shape: 1 1 1000 (1000)
I0924 04:17:22.450845 26081 net.cpp:156] Memory required for data: 98020
I0924 04:17:22.450850 26081 layer_factory.hpp:77] Creating layer h_pseudoloss
I0924 04:17:22.450860 26081 net.cpp:91] Creating Layer h_pseudoloss
I0924 04:17:22.450865 26081 net.cpp:425] h_pseudoloss <- h
I0924 04:17:22.450873 26081 net.cpp:399] h_pseudoloss -> h_pseudoloss
I0924 04:17:22.451020 26081 net.cpp:141] Setting up h_pseudoloss
…
I0924 04:17:22.451125 26081 net.cpp:219] lstm2_ does not need backward computation.
I0924 04:17:22.451128 26081 net.cpp:261] This network produces output c_T
I0924 04:17:22.451133 26081 net.cpp:261] This network produces output h_pseudoloss
I0924 04:17:22.451148 26081 net.cpp:274] Network initialization done.
I0924 04:17:22.451197 26081 recurrent_layer.cpp:150] Adding parameter 0: W_xc
I0924 04:17:22.451203 26081 recurrent_layer.cpp:150] Adding parameter 1: b_c
I0924 04:17:22.451207 26081 recurrent_layer.cpp:150] Adding parameter 2: W_hc
I0924 04:17:22.459167 26081 net.cpp:141] Setting up lstm2
I0924 04:17:22.459193 26081 net.cpp:148] Top shape: 1 1 1000 (1000)
I0924 04:17:22.459203 26081 net.cpp:156] Memory required for data: 36412
I0924 04:17:22.459225 26081 layer_factory.hpp:77] Creating layer predict
I0924 04:17:22.459246 26081 net.cpp:91] Creating Layer predict
I0924 04:17:22.459257 26081 net.cpp:425] predict <- lstm2
I0924 04:17:22.459271 26081 net.cpp:399] predict -> predict
I0924 04:17:22.548310 26129 net.cpp:141] Setting up lstm2_transform_1
I0924 04:17:22.548369 26129 net.cpp:148] Top shape: 1 1 4000 (4000)
I0924 04:17:22.548378 26129 net.cpp:156] Memory required for data: 66020
I0924 04:17:22.548408 26129 layer_factory.hpp:77] Creating layer lstm2_gate_input_1
I0924 04:17:22.548434 26129 net.cpp:91] Creating Layer lstm2_gate_input_1
I0924 04:17:22.548444 26129 net.cpp:425] lstm2_gate_input_1 <- W_hc_h_0
I0924 04:17:22.548454 26129 net.cpp:425] lstm2_gate_input_1 <- W_xc_x_1
I0924 04:17:22.548466 26129 net.cpp:399] lstm2_gate_input_1 -> gate_input_1
I0924 04:17:22.548547 26129 net.cpp:141] Setting up lstm2_gate_input_1
I0924 04:17:22.548562 26129 net.cpp:148] Top shape: 1 1 4000 (4000)
I0924 04:17:22.548568 26129 net.cpp:156] Memory required for data: 82020
I0924 04:17:22.548576 26129 layer_factory.hpp:77] Creating layer lstm2_unit_1
I0924 04:17:22.548590 26129 net.cpp:91] Creating Layer lstm2_unit_1
I0924 04:17:22.548598 26129 net.cpp:425] lstm2_unit_1 <- c_0
I0924 04:17:22.548607 26129 net.cpp:425] lstm2_unit_1 <- gate_input_1
I0924 04:17:22.548615 26129 net.cpp:425] lstm2_unit_1 <- cont_1_lstm2_cont_slice_0_split_1
I0924 04:17:22.548627 26129 net.cpp:399] lstm2_unit_1 -> c_1
I0924 04:17:22.548640 26129 net.cpp:399] lstm2_unit_1 -> h_1
I0924 04:17:22.548743 26129 net.cpp:141] Setting up lstm2_unit_1
I0924 04:17:22.548755 26129 net.cpp:148] Top shape: 1 1 1000 (1000)
I0924 04:17:22.548764 26129 net.cpp:148] Top shape: 1 1 1000 (1000)
I0924 04:17:22.548771 26129 net.cpp:156] Memory required for data: 90020
I0924 04:17:22.548779 26129 layer_factory.hpp:77] Creating layer lstm2_
I0924 04:17:22.548790 26129 net.cpp:91] Creating Layer lstm2_
I0924 04:17:22.548797 26129 net.cpp:425] lstm2_ <- c_1
I0924 04:17:22.548809 26129 net.cpp:399] lstm2_ -> c_T
I0924 04:17:22.548856 26129 net.cpp:141] Setting up lstm2_
I0924 04:17:22.548869 26129 net.cpp:148] Top shape: 1 1 1000 (1000)
I0924 04:17:22.548877 26129 net.cpp:156] Memory required for data: 94020
I0924 04:17:22.548883 26129 layer_factory.hpp:77] Creating layer lstm2_h_concat
I0924 04:17:22.548897 26129 net.cpp:91] Creating Layer lstm2_h_concat
I0924 04:17:22.548904 26129 net.cpp:425] lstm2_h_concat <- h_1
I0924 04:17:22.548914 26129 net.cpp:399] lstm2_h_concat -> h
I0924 04:17:22.548969 26129 net.cpp:141] Setting up lstm2_h_concat
I0924 04:17:22.548982 26129 net.cpp:148] Top shape: 1 1 1000 (1000)
I0924 04:17:22.548990 26129 net.cpp:156] Memory required for data: 98020
I0924 04:17:22.548996 26129 layer_factory.hpp:77] Creating layer h_pseudoloss
I0924 04:17:22.549010 26129 net.cpp:91] Creating Layer h_pseudoloss
I0924 04:17:22.549016 26129 net.cpp:425] h_pseudoloss <- h
I0924 04:17:22.549028 26129 net.cpp:399] h_pseudoloss -> h_pseudoloss
I0924 04:17:22.549165 26129 net.cpp:141] Setting up h_pseudoloss
…
I0924 04:17:22.549311 26129 net.cpp:219] lstm2_ does not need backward computation.
I0924 04:17:22.549317 26129 net.cpp:261] This network produces output c_T
I0924 04:17:22.549324 26129 net.cpp:261] This network produces output h_pseudoloss
I0924 04:17:22.549347 26129 net.cpp:274] Network initialization done.
I0924 04:17:22.549408 26129 recurrent_layer.cpp:150] Adding parameter 0: W_xc
I0924 04:17:22.549417 26129 recurrent_layer.cpp:150] Adding parameter 1: b_c
I0924 04:17:22.549424 26129 recurrent_layer.cpp:150] Adding parameter 2: W_hc
I0924 04:17:22.549576 26129 net.cpp:141] Setting up lstm2
I0924 04:17:22.549592 26129 net.cpp:148] Top shape: 1 1 1000 (1000)
I0924 04:17:22.549598 26129 net.cpp:156] Memory required for data: 36412
I0924 04:17:22.549618 26129 layer_factory.hpp:77] Creating layer predict
I0924 04:17:22.549635 26129 net.cpp:91] Creating Layer predict
I0924 04:17:22.549643 26129 net.cpp:425] predict <- lstm2
I0924 04:17:22.549654 26129 net.cpp:399] predict -> predict
I0924 04:17:22.636157 26073 net.cpp:141] Setting up predict
I0924 04:17:22.636276 26133 net.cpp:141] Setting up predict
I0924 04:17:22.636595 26073 net.cpp:148] Top shape: 1 1 46168 (46168)
I0924 04:17:22.636839 26133 net.cpp:148] Top shape: 1 1 46168 (46168)
I0924 04:17:22.636975 26073 net.cpp:156] Memory required for data: 221084
I0924 04:17:22.637208 26133 net.cpp:156] Memory required for data: 221084
I0924 04:17:22.637401 26073 layer_factory.hpp:77] Creating layer probs
I0924 04:17:22.637547 26133 layer_factory.hpp:77] Creating layer probs
I0924 04:17:22.637686 26073 net.cpp:91] Creating Layer probs
I0924 04:17:22.637820 26133 net.cpp:91] Creating Layer probs
I0924 04:17:22.637823 26073 net.cpp:425] probs <- predict
I0924 04:17:22.637836 26133 net.cpp:425] probs <- predict
I0924 04:17:22.637845 26073 net.cpp:399] probs -> probs
I0924 04:17:22.637852 26133 net.cpp:399] probs -> probs
I0924 04:17:22.747745 26101 net.cpp:141] Setting up predict
I0924 04:17:22.747799 26101 net.cpp:148] Top shape: 1 1 46168 (46168)
I0924 04:17:22.747809 26101 net.cpp:156] Memory required for data: 221084
I0924 04:17:22.747830 26101 layer_factory.hpp:77] Creating layer probs
I0924 04:17:22.747853 26101 net.cpp:91] Creating Layer probs
I0924 04:17:22.747864 26101 net.cpp:425] probs <- predict
I0924 04:17:22.747879 26101 net.cpp:399] probs -> probs
I0924 04:17:22.858860 26077 net.cpp:141] Setting up predict
I0924 04:17:22.858919 26077 net.cpp:148] Top shape: 1 1 46168 (46168)
I0924 04:17:22.858930 26077 net.cpp:156] Memory required for data: 221084
I0924 04:17:22.858953 26077 layer_factory.hpp:77] Creating layer probs
I0924 04:17:22.858978 26077 net.cpp:91] Creating Layer probs
I0924 04:17:22.858991 26077 net.cpp:425] probs <- predict
I0924 04:17:22.859006 26077 net.cpp:399] probs -> probs
I0924 04:17:22.864943 26095 net.cpp:141] Setting up probs
I0924 04:17:22.864989 26095 net.cpp:148] Top shape: 1 1 46168 (46168)
I0924 04:17:22.864998 26095 net.cpp:156] Memory required for data: 405756
I0924 04:17:22.865011 26095 net.cpp:219] probs does not need backward computation.
I0924 04:17:22.865022 26095 net.cpp:219] predict does not need backward computation.
I0924 04:17:22.865032 26095 net.cpp:219] lstm2 does not need backward computation.
I0924 04:17:22.865042 26095 net.cpp:219] concat does not need backward computation.
I0924 04:17:22.865052 26095 net.cpp:219] lstm1 does not need backward computation.
I0924 04:17:22.865062 26095 net.cpp:219] embedding does not need backward computation.
I0924 04:17:22.865072 26095 net.cpp:219] reshape_stage_indicator does not need backward computation.
I0924 04:17:22.865082 26095 net.cpp:219] reshape_frames does not need backward computation.
I0924 04:17:22.865092 26095 net.cpp:219] embed_encoder does not need backward computation.
I0924 04:17:22.865100 26095 net.cpp:219] cont_sentence_input_1_split does not need backward computation.
I0924 04:17:22.865108 26095 net.cpp:219] input does not need backward computation.
I0924 04:17:22.865115 26095 net.cpp:261] This network produces output probs
I0924 04:17:22.865144 26095 net.cpp:274] Network initialization done.
I0924 04:17:22.872968 26085 net.cpp:141] Setting up probs
I0924 04:17:22.873025 26085 net.cpp:148] Top shape: 1 1 46168 (46168)
I0924 04:17:22.873034 26085 net.cpp:156] Memory required for data: 405756
I0924 04:17:22.873044 26085 net.cpp:219] probs does not need backward computation.
I0924 04:17:22.873051 26085 net.cpp:219] predict does not need backward computation.
I0924 04:17:22.873057 26085 net.cpp:219] lstm2 does not need backward computation.
I0924 04:17:22.873064 26085 net.cpp:219] concat does not need backward computation.
I0924 04:17:22.873070 26085 net.cpp:219] lstm1 does not need backward computation.
I0924 04:17:22.873076 26085 net.cpp:219] embedding does not need backward computation.
I0924 04:17:22.873081 26085 net.cpp:219] reshape_stage_indicator does not need backward computation.
I0924 04:17:22.873086 26085 net.cpp:219] reshape_frames does not need backward computation.
I0924 04:17:22.873091 26085 net.cpp:219] embed_encoder does not need backward computation.
I0924 04:17:22.873097 26085 net.cpp:219] cont_sentence_input_1_split does not need backward computation.
I0924 04:17:22.873102 26085 net.cpp:219] input does not need backward computation.
I0924 04:17:22.873106 26085 net.cpp:261] This network produces output probs
I0924 04:17:22.873124 26085 net.cpp:274] Network initialization done.
I0924 04:17:22.873410 26107 net.cpp:141] Setting up probs
I0924 04:17:22.873430 26107 net.cpp:148] Top shape: 1 1 46168 (46168)
I0924 04:17:22.873435 26107 net.cpp:156] Memory required for data: 405756
I0924 04:17:22.873441 26107 net.cpp:219] probs does not need backward computation.
I0924 04:17:22.873446 26107 net.cpp:219] predict does not need backward computation.
I0924 04:17:22.873451 26107 net.cpp:219] lstm2 does not need backward computation.
I0924 04:17:22.873457 26107 net.cpp:219] concat does not need backward computation.
I0924 04:17:22.873463 26107 net.cpp:219] lstm1 does not need backward computation.
I0924 04:17:22.873469 26107 net.cpp:219] embedding does not need backward computation.
I0924 04:17:22.873474 26107 net.cpp:219] reshape_stage_indicator does not need backward computation.
I0924 04:17:22.873481 26107 net.cpp:219] reshape_frames does not need backward computation.
I0924 04:17:22.873484 26107 net.cpp:219] embed_encoder does not need backward computation.
I0924 04:17:22.873489 26107 net.cpp:219] cont_sentence_input_1_split does not need backward computation.
I0924 04:17:22.873495 26107 net.cpp:219] input does not need backward computation.
I0924 04:17:22.873499 26107 net.cpp:261] This network produces output probs
I0924 04:17:22.873515 26107 net.cpp:274] Network initialization done.
I0924 04:17:22.874179 26077 net.cpp:141] Setting up probs
I0924 04:17:22.874203 26077 net.cpp:148] Top shape: 1 1 46168 (46168)
I0924 04:17:22.874213 26077 net.cpp:156] Memory required for data: 405756
I0924 04:17:22.874222 26077 net.cpp:219] probs does not need backward computation.
I0924 04:17:22.874231 26077 net.cpp:219] predict does not need backward computation.
I0924 04:17:22.874238 26077 net.cpp:219] lstm2 does not need backward computation.
I0924 04:17:22.874244 26077 net.cpp:219] concat does not need backward computation.
I0924 04:17:22.874250 26077 net.cpp:219] lstm1 does not need backward computation.
I0924 04:17:22.874255 26077 net.cpp:219] embedding does not need backward computation.
I0924 04:17:22.874260 26077 net.cpp:219] reshape_stage_indicator does not need backward computation.
I0924 04:17:22.874265 26077 net.cpp:219] reshape_frames does not need backward computation.
I0924 04:17:22.874271 26077 net.cpp:219] embed_encoder does not need backward computation.
I0924 04:17:22.874276 26077 net.cpp:219] cont_sentence_input_1_split does not need backward computation.
I0924 04:17:22.874281 26077 net.cpp:219] input does not need backward computation.
I0924 04:17:22.874285 26077 net.cpp:261] This network produces output probs
I0924 04:17:22.874300 26077 net.cpp:274] Network initialization done.
I0924 04:17:22.874361 26121 net.cpp:141] Setting up probs
I0924 04:17:22.874400 26121 net.cpp:148] Top shape: 1 1 46168 (46168)
I0924 04:17:22.874406 26121 net.cpp:156] Memory required for data: 405756
I0924 04:17:22.874415 26121 net.cpp:219] probs does not need backward computation.
I0924 04:17:22.874423 26121 net.cpp:219] predict does not need backward computation.
I0924 04:17:22.874428 26121 net.cpp:219] lstm2 does not need backward computation.
I0924 04:17:22.874433 26121 net.cpp:219] concat does not need backward computation.
I0924 04:17:22.874440 26121 net.cpp:219] lstm1 does not need backward computation.
I0924 04:17:22.874446 26121 net.cpp:219] embedding does not need backward computation.
I0924 04:17:22.874451 26121 net.cpp:219] reshape_stage_indicator does not need backward computation.
I0924 04:17:22.874456 26121 net.cpp:219] reshape_frames does not need backward computation.
I0924 04:17:22.874461 26121 net.cpp:219] embed_encoder does not need backward computation.
I0924 04:17:22.874466 26121 net.cpp:219] cont_sentence_input_1_split does not need backward computation.
I0924 04:17:22.874472 26121 net.cpp:219] input does not need backward computation.
I0924 04:17:22.874476 26121 net.cpp:261] This network produces output probs
I0924 04:17:22.874929 26121 net.cpp:274] Network initialization done.
I0924 04:17:22.875464 26101 net.cpp:141] Setting up probs
I0924 04:17:22.875483 26101 net.cpp:148] Top shape: 1 1 46168 (46168)
I0924 04:17:22.875488 26101 net.cpp:156] Memory required for data: 405756
I0924 04:17:22.875497 26101 net.cpp:219] probs does not need backward computation.
I0924 04:17:22.875506 26101 net.cpp:219] predict does not need backward computation.
I0924 04:17:22.875515 26101 net.cpp:219] lstm2 does not need backward computation.
I0924 04:17:22.875524 26101 net.cpp:219] concat does not need backward computation.
I0924 04:17:22.875535 26101 net.cpp:219] lstm1 does not need backward computation.
I0924 04:17:22.875545 26101 net.cpp:219] embedding does not need backward computation.
I0924 04:17:22.875555 26101 net.cpp:219] reshape_stage_indicator does not need backward computation.
I0924 04:17:22.875566 26101 net.cpp:219] reshape_frames does not need backward computation.
I0924 04:17:22.875576 26101 net.cpp:219] embed_encoder does not need backward computation.
I0924 04:17:22.875587 26101 net.cpp:219] cont_sentence_input_1_split does not need backward computation.
I0924 04:17:22.875598 26101 net.cpp:219] input does not need backward computation.
I0924 04:17:22.875607 26101 net.cpp:261] This network produces output probs
I0924 04:17:22.875636 26101 net.cpp:274] Network initialization done.
I0924 04:17:22.876699 26073 net.cpp:141] Setting up probs
I0924 04:17:22.876729 26073 net.cpp:148] Top shape: 1 1 46168 (46168)
I0924 04:17:22.876737 26073 net.cpp:156] Memory required for data: 405756
I0924 04:17:22.876747 26073 net.cpp:219] probs does not need backward computation.
I0924 04:17:22.876756 26073 net.cpp:219] predict does not need backward computation.
I0924 04:17:22.876765 26073 net.cpp:219] lstm2 does not need backward computation.
I0924 04:17:22.876776 26073 net.cpp:219] concat does not need backward computation.
I0924 04:17:22.876790 26073 net.cpp:219] lstm1 does not need backward computation.
I0924 04:17:22.876799 26073 net.cpp:219] embedding does not need backward computation.
I0924 04:17:22.876809 26073 net.cpp:219] reshape_stage_indicator does not need backward computation.
I0924 04:17:22.876818 26073 net.cpp:219] reshape_frames does not need backward computation.
I0924 04:17:22.876816 26133 net.cpp:141] Setting up probs
I0924 04:17:22.876828 26073 net.cpp:219] embed_encoder does not need backward computation.
I0924 04:17:22.876852 26133 net.cpp:148] Top shape: 1 1 46168 (46168)
I0924 04:17:22.876852 26073 net.cpp:219] cont_sentence_input_1_split does not need backward computation.
I0924 04:17:22.876865 26133 net.cpp:156] Memory required for data: 405756
I0924 04:17:22.876873 26073 net.cpp:219] input does not need backward computation.
I0924 04:17:22.876874 26133 net.cpp:219] probs does not need backward computation.
I0924 04:17:22.876878 26073 net.cpp:261] This network produces output probs
…
I0924 04:17:22.876958 26133 net.cpp:219] reshape_frames does not need backward computation.
I0924 04:17:22.876966 26133 net.cpp:219] embed_encoder does not need backward computation.
I0924 04:17:22.876976 26133 net.cpp:219] cont_sentence_input_1_split does not need backward computation.
I0924 04:17:22.876984 26133 net.cpp:219] input does not need backward computation.
I0924 04:17:22.876991 26133 net.cpp:261] This network produces output probs
I0924 04:17:22.877014 26133 net.cpp:274] Network initialization done.
I0924 04:17:22.878855 26087 net.cpp:141] Setting up conv1
I0924 04:17:22.878906 26087 net.cpp:148] Top shape: 10 96 55 55 (2904000)
I0924 04:17:22.878916 26087 net.cpp:156] Memory required for data: 17799480
I0924 04:17:22.878942 26087 layer_factory.hpp:77] Creating layer relu1
I0924 04:17:22.878967 26087 net.cpp:91] Creating Layer relu1
I0924 04:17:22.878976 26087 net.cpp:425] relu1 <- conv1
I0924 04:17:22.878989 26087 net.cpp:386] relu1 -> conv1 (in-place)
I0924 04:17:22.879362 26087 net.cpp:141] Setting up relu1
I0924 04:17:22.879379 26087 net.cpp:148] Top shape: 10 96 55 55 (2904000)
I0924 04:17:22.879387 26087 net.cpp:156] Memory required for data: 29415480
I0924 04:17:22.879395 26087 layer_factory.hpp:77] Creating layer pool1
I0924 04:17:22.879415 26087 net.cpp:91] Creating Layer pool1
I0924 04:17:22.879423 26087 net.cpp:425] pool1 <- conv1
I0924 04:17:22.879436 26087 net.cpp:399] pool1 -> pool1
I0924 04:17:22.879560 26087 net.cpp:141] Setting up pool1
I0924 04:17:22.879577 26087 net.cpp:148] Top shape: 10 96 27 27 (699840)
I0924 04:17:22.879585 26087 net.cpp:156] Memory required for data: 32214840
I0924 04:17:22.879593 26087 layer_factory.hpp:77] Creating layer norm1
I0924 04:17:22.879616 26087 net.cpp:91] Creating Layer norm1
I0924 04:17:22.879626 26087 net.cpp:425] norm1 <- pool1
I0924 04:17:22.879637 26087 net.cpp:399] norm1 -> norm1
I0924 04:17:22.880291 26087 net.cpp:141] Setting up norm1
I0924 04:17:22.880316 26087 net.cpp:148] Top shape: 10 96 27 27 (699840)
I0924 04:17:22.880323 26087 net.cpp:156] Memory required for data: 35014200
I0924 04:17:22.880332 26087 layer_factory.hpp:77] Creating layer conv2
I0924 04:17:22.880353 26087 net.cpp:91] Creating Layer conv2
I0924 04:17:22.880362 26087 net.cpp:425] conv2 <- norm1
I0924 04:17:22.880374 26087 net.cpp:399] conv2 -> conv2
I0924 04:17:22.957885 26081 net.cpp:141] Setting up predict
I0924 04:17:22.958348 26081 net.cpp:148] Top shape: 1 1 46168 (46168)
I0924 04:17:22.958510 26081 net.cpp:156] Memory required for data: 221084
I0924 04:17:22.958662 26081 layer_factory.hpp:77] Creating layer probs
I0924 04:17:22.958798 26081 net.cpp:91] Creating Layer probs
I0924 04:17:22.958920 26081 net.cpp:425] probs <- predict
I0924 04:17:22.959046 26081 net.cpp:399] probs -> probs
I0924 04:17:22.960569 26081 net.cpp:141] Setting up probs
I0924 04:17:22.960961 26081 net.cpp:148] Top shape: 1 1 46168 (46168)
I0924 04:17:22.961086 26081 net.cpp:156] Memory required for data: 405756
I0924 04:17:22.961246 26081 net.cpp:219] probs does not need backward computation.
I0924 04:17:22.961369 26081 net.cpp:219] predict does not need backward computation.
I0924 04:17:22.961485 26081 net.cpp:219] lstm2 does not need backward computation.
I0924 04:17:22.961603 26081 net.cpp:219] concat does not need backward computation.
I0924 04:17:22.961748 26081 net.cpp:219] lstm1 does not need backward computation.
I0924 04:17:22.961879 26081 net.cpp:219] embedding does not need backward computation.
I0924 04:17:22.961992 26081 net.cpp:219] reshape_stage_indicator does not need backward computation.
I0924 04:17:22.962151 26081 net.cpp:219] reshape_frames does not need backward computation.
I0924 04:17:22.962268 26081 net.cpp:219] embed_encoder does not need backward computation.
I0924 04:17:22.962386 26081 net.cpp:219] cont_sentence_input_1_split does not need backward computation.
I0924 04:17:22.962515 26081 net.cpp:219] input does not need backward computation.
I0924 04:17:22.962646 26081 net.cpp:261] This network produces output probs
I0924 04:17:22.962782 26081 net.cpp:274] Network initialization done.
I0924 04:17:22.965157 26087 net.cpp:141] Setting up conv2
I0924 04:17:22.965212 26087 net.cpp:148] Top shape: 10 256 27 27 (1866240)
I0924 04:17:22.965222 26087 net.cpp:156] Memory required for data: 42479160
I0924 04:17:22.965252 26087 layer_factory.hpp:77] Creating layer relu2
I0924 04:17:22.965275 26087 net.cpp:91] Creating Layer relu2
I0924 04:17:22.965283 26087 net.cpp:425] relu2 <- conv2
I0924 04:17:22.965836 26087 net.cpp:386] relu2 -> conv2 (in-place)
I0924 04:17:22.969614 26087 net.cpp:141] Setting up relu2
I0924 04:17:22.969676 26087 net.cpp:148] Top shape: 10 256 27 27 (1866240)
I0924 04:17:22.969686 26087 net.cpp:156] Memory required for data: 49944120
I0924 04:17:22.969699 26087 layer_factory.hpp:77] Creating layer pool2
I0924 04:17:22.970667 26087 net.cpp:91] Creating Layer pool2
I0924 04:17:22.970703 26087 net.cpp:425] pool2 <- conv2
I0924 04:17:22.970728 26087 net.cpp:399] pool2 -> pool2
I0924 04:17:22.971645 26087 net.cpp:141] Setting up pool2
I0924 04:17:22.971674 26087 net.cpp:148] Top shape: 10 256 13 13 (432640)
I0924 04:17:22.971683 26087 net.cpp:156] Memory required for data: 51674680
I0924 04:17:22.971694 26087 layer_factory.hpp:77] Creating layer norm2
I0924 04:17:22.971724 26087 net.cpp:91] Creating Layer norm2
I0924 04:17:22.971735 26087 net.cpp:425] norm2 <- pool2
I0924 04:17:22.971746 26087 net.cpp:399] norm2 -> norm2
I0924 04:17:22.973353 26087 net.cpp:141] Setting up norm2
I0924 04:17:22.973384 26087 net.cpp:148] Top shape: 10 256 13 13 (432640)
I0924 04:17:22.973390 26087 net.cpp:156] Memory required for data: 53405240
I0924 04:17:22.973397 26087 layer_factory.hpp:77] Creating layer conv3
I0924 04:17:22.973420 26087 net.cpp:91] Creating Layer conv3
I0924 04:17:22.973428 26087 net.cpp:425] conv3 <- norm2
I0924 04:17:22.973933 26087 net.cpp:399] conv3 -> conv3
I0924 04:17:23.012528 26087 net.cpp:141] Setting up conv3
I0924 04:17:23.012598 26087 net.cpp:148] Top shape: 10 384 13 13 (648960)
I0924 04:17:23.012609 26087 net.cpp:156] Memory required for data: 56001080
I0924 04:17:23.012645 26087 layer_factory.hpp:77] Creating layer relu3
I0924 04:17:23.012671 26087 net.cpp:91] Creating Layer relu3
I0924 04:17:23.012682 26087 net.cpp:425] relu3 <- conv3
I0924 04:17:23.012696 26087 net.cpp:386] relu3 -> conv3 (in-place)
I0924 04:17:23.013263 26087 net.cpp:141] Setting up relu3
I0924 04:17:23.013281 26087 net.cpp:148] Top shape: 10 384 13 13 (648960)
I0924 04:17:23.013289 26087 net.cpp:156] Memory required for data: 58596920
I0924 04:17:23.013298 26087 layer_factory.hpp:77] Creating layer conv4
I0924 04:17:23.013321 26087 net.cpp:91] Creating Layer conv4
I0924 04:17:23.013329 26087 net.cpp:425] conv4 <- conv3
I0924 04:17:23.013341 26087 net.cpp:399] conv4 -> conv4
I0924 04:17:23.037652 26087 net.cpp:141] Setting up conv4
I0924 04:17:23.037715 26087 net.cpp:148] Top shape: 10 384 13 13 (648960)
I0924 04:17:23.037726 26087 net.cpp:156] Memory required for data: 61192760
I0924 04:17:23.037750 26087 layer_factory.hpp:77] Creating layer relu4
I0924 04:17:23.037773 26087 net.cpp:91] Creating Layer relu4
I0924 04:17:23.037783 26087 net.cpp:425] relu4 <- conv4
I0924 04:17:23.038172 26087 net.cpp:386] relu4 -> conv4 (in-place)
I0924 04:17:23.039263 26087 net.cpp:141] Setting up relu4
I0924 04:17:23.039316 26087 net.cpp:148] Top shape: 10 384 13 13 (648960)
I0924 04:17:23.039327 26087 net.cpp:156] Memory required for data: 63788600
I0924 04:17:23.039342 26087 layer_factory.hpp:77] Creating layer conv5
I0924 04:17:23.039373 26087 net.cpp:91] Creating Layer conv5
I0924 04:17:23.039386 26087 net.cpp:425] conv5 <- conv4
I0924 04:17:23.039801 26087 net.cpp:399] conv5 -> conv5
I0924 04:17:23.068184 26129 net.cpp:141] Setting up predict
I0924 04:17:23.068264 26129 net.cpp:148] Top shape: 1 1 46168 (46168)
I0924 04:17:23.068271 26129 net.cpp:156] Memory required for data: 221084
I0924 04:17:23.068292 26129 layer_factory.hpp:77] Creating layer probs
I0924 04:17:23.068322 26129 net.cpp:91] Creating Layer probs
I0924 04:17:23.068333 26129 net.cpp:425] probs <- predict
I0924 04:17:23.068348 26129 net.cpp:399] probs -> probs
I0924 04:17:23.070452 26129 net.cpp:141] Setting up probs
I0924 04:17:23.070518 26129 net.cpp:148] Top shape: 1 1 46168 (46168)
I0924 04:17:23.070526 26129 net.cpp:156] Memory required for data: 405756
I0924 04:17:23.070539 26129 net.cpp:219] probs does not need backward computation.
I0924 04:17:23.070549 26129 net.cpp:219] predict does not need backward computation.
I0924 04:17:23.070557 26129 net.cpp:219] lstm2 does not need backward computation.
I0924 04:17:23.070564 26129 net.cpp:219] concat does not need backward computation.
I0924 04:17:23.070572 26129 net.cpp:219] lstm1 does not need backward computation.
I0924 04:17:23.070580 26129 net.cpp:219] embedding does not need backward computation.
I0924 04:17:23.070585 26129 net.cpp:219] reshape_stage_indicator does not need backward computation.
I0924 04:17:23.070591 26129 net.cpp:219] reshape_frames does not need backward computation.
I0924 04:17:23.070614 26129 net.cpp:219] embed_encoder does not need backward computation.
I0924 04:17:23.070621 26129 net.cpp:219] cont_sentence_input_1_split does not need backward computation.
I0924 04:17:23.070628 26129 net.cpp:219] input does not need backward computation.
I0924 04:17:23.070632 26129 net.cpp:261] This network produces output probs
I0924 04:17:23.070657 26129 net.cpp:274] Network initialization done.
I0924 04:17:23.119016 26087 net.cpp:141] Setting up conv5
I0924 04:17:23.119086 26087 net.cpp:148] Top shape: 10 256 13 13 (432640)
I0924 04:17:23.119096 26087 net.cpp:156] Memory required for data: 65519160
I0924 04:17:23.119132 26087 layer_factory.hpp:77] Creating layer relu5
I0924 04:17:23.119160 26087 net.cpp:91] Creating Layer relu5
I0924 04:17:23.119176 26087 net.cpp:425] relu5 <- conv5
I0924 04:17:23.119190 26087 net.cpp:386] relu5 -> conv5 (in-place)
I0924 04:17:23.120225 26087 net.cpp:141] Setting up relu5
I0924 04:17:23.120278 26087 net.cpp:148] Top shape: 10 256 13 13 (432640)
I0924 04:17:23.120287 26087 net.cpp:156] Memory required for data: 67249720
I0924 04:17:23.120301 26087 layer_factory.hpp:77] Creating layer pool5
I0924 04:17:23.120357 26087 net.cpp:91] Creating Layer pool5
I0924 04:17:23.120368 26087 net.cpp:425] pool5 <- conv5
I0924 04:17:23.120384 26087 net.cpp:399] pool5 -> pool5
I0924 04:17:23.121235 26087 net.cpp:141] Setting up pool5
I0924 04:17:23.121273 26087 net.cpp:148] Top shape: 10 256 6 6 (92160)
I0924 04:17:23.121282 26087 net.cpp:156] Memory required for data: 67618360
I0924 04:17:23.121292 26087 layer_factory.hpp:77] Creating layer fc6
I0924 04:17:23.121322 26087 net.cpp:91] Creating Layer fc6
I0924 04:17:23.121332 26087 net.cpp:425] fc6 <- pool5
I0924 04:17:23.121346 26087 net.cpp:399] fc6 -> fc6
I0924 04:17:23.247521 26087 net.cpp:141] Setting up fc6
I0924 04:17:23.247577 26087 net.cpp:148] Top shape: 10 4096 (40960)
I0924 04:17:23.247583 26087 net.cpp:156] Memory required for data: 67782200
I0924 04:17:23.247599 26087 layer_factory.hpp:77] Creating layer relu6
I0924 04:17:23.247619 26087 net.cpp:91] Creating Layer relu6
I0924 04:17:23.247627 26087 net.cpp:425] relu6 <- fc6
I0924 04:17:23.247639 26087 net.cpp:386] relu6 -> fc6 (in-place)
I0924 04:17:23.250299 26087 net.cpp:141] Setting up relu6
I0924 04:17:23.250351 26087 net.cpp:148] Top shape: 10 4096 (40960)
I0924 04:17:23.250358 26087 net.cpp:156] Memory required for data: 67946040
I0924 04:17:23.250368 26087 layer_factory.hpp:77] Creating layer drop6
I0924 04:17:23.250792 26087 net.cpp:91] Creating Layer drop6
I0924 04:17:23.250808 26087 net.cpp:425] drop6 <- fc6
I0924 04:17:23.250826 26087 net.cpp:386] drop6 -> fc6 (in-place)
I0924 04:17:23.250993 26087 net.cpp:141] Setting up drop6
I0924 04:17:23.251008 26087 net.cpp:148] Top shape: 10 4096 (40960)
I0924 04:17:23.251013 26087 net.cpp:156] Memory required for data: 68109880
I0924 04:17:23.251019 26087 layer_factory.hpp:77] Creating layer fc7
I0924 04:17:23.251673 26087 net.cpp:91] Creating Layer fc7
I0924 04:17:23.251705 26087 net.cpp:425] fc7 <- fc6
I0924 04:17:23.251720 26087 net.cpp:399] fc7 -> fc7
I0924 04:17:23.314388 26087 net.cpp:141] Setting up fc7
I0924 04:17:23.314455 26087 net.cpp:148] Top shape: 10 4096 (40960)
I0924 04:17:23.314467 26087 net.cpp:156] Memory required for data: 68273720
I0924 04:17:23.314494 26087 layer_factory.hpp:77] Creating layer relu7
I0924 04:17:23.314524 26087 net.cpp:91] Creating Layer relu7
I0924 04:17:23.314538 26087 net.cpp:425] relu7 <- fc7
I0924 04:17:23.314553 26087 net.cpp:386] relu7 -> fc7 (in-place)
I0924 04:17:23.334738 26087 net.cpp:141] Setting up relu7
I0924 04:17:23.334797 26087 net.cpp:148] Top shape: 10 4096 (40960)
I0924 04:17:23.334805 26087 net.cpp:156] Memory required for data: 68437560
I0924 04:17:23.334815 26087 layer_factory.hpp:77] Creating layer drop7
I0924 04:17:23.335834 26087 net.cpp:91] Creating Layer drop7
I0924 04:17:23.335855 26087 net.cpp:425] drop7 <- fc7
I0924 04:17:23.335873 26087 net.cpp:386] drop7 -> fc7 (in-place)
I0924 04:17:23.336100 26087 net.cpp:141] Setting up drop7
I0924 04:17:23.336118 26087 net.cpp:148] Top shape: 10 4096 (40960)
I0924 04:17:23.336127 26087 net.cpp:156] Memory required for data: 68601400
I0924 04:17:23.336135 26087 layer_factory.hpp:77] Creating layer fc8
I0924 04:17:23.336151 26087 net.cpp:91] Creating Layer fc8
I0924 04:17:23.336160 26087 net.cpp:425] fc8 <- fc7
I0924 04:17:23.336684 26087 net.cpp:399] fc8 -> fc8
I0924 04:17:23.353127 26087 net.cpp:141] Setting up fc8
I0924 04:17:23.353207 26087 net.cpp:148] Top shape: 10 1000 (10000)
I0924 04:17:23.353220 26087 net.cpp:156] Memory required for data: 68641400
I0924 04:17:23.353253 26087 layer_factory.hpp:77] Creating layer prob
I0924 04:17:23.353286 26087 net.cpp:91] Creating Layer prob
I0924 04:17:23.353304 26087 net.cpp:425] prob <- fc8
I0924 04:17:23.353325 26087 net.cpp:399] prob -> prob
I0924 04:17:23.359571 26087 net.cpp:141] Setting up prob
I0924 04:17:23.359645 26087 net.cpp:148] Top shape: 10 1000 (10000)
I0924 04:17:23.359658 26087 net.cpp:156] Memory required for data: 68681400
I0924 04:17:23.359675 26087 net.cpp:219] prob does not need backward computation.
I0924 04:17:23.359689 26087 net.cpp:219] fc8 does not need backward computation.
I0924 04:17:23.359701 26087 net.cpp:219] drop7 does not need backward computation.
I0924 04:17:23.359711 26087 net.cpp:219] relu7 does not need backward computation.
…
