…
Java HotSpot(TM) 64-Bit Server VM warning: You have loaded library /home/peifeng/work/run/storm102/data/workers/0a70e408-ddf1-4c67-aaf6-dc342513ec62/tmp/cvld6202040070447515794/libopencv_java310.xine1.so which might have disabled stack guard. The VM will try to fix the stack guard now.
It's highly recommended that you fix the library with 'execstack -c <libfile>', or link it with '-z noexecstack'.
WARNING: Logging before InitGoogleLogging() is written to STDERR
I0913 20:11:49.601279 32511 net.cpp:49] Initializing net from parameters: 
name: "GoogleNet"
state {
  phase: TEST
}
layer {
  name: "data"
  type: "Input"
  top: "data"
  input_param {
    shape {
      dim: 10
      dim: 3
      dim: 224
      dim: 224
    }
  }
}
layer {
  name: "conv1/7x7_s2"
  type: "Convolution"
  bottom: "data"
  top: "conv1/7x7_s2"
  param {
    lr_mult: 1
    decay_mult: 1
  }
  param {
    lr_mult: 2
    decay_mult: 0
  }
  convolution_param {
    num_output: 64
    pad: 3
    kernel_size: 7
    stride: 2
    weight_filler {
      type: "xavier"
      std: 0.1
    }
    bias_filler {
      type: "constant"
      value: 0.2
    }
  }
}
layer {
  name: "conv1/relu_7x7"
  type: "ReLU"
  bottom: "conv1/7x7_s2"
  top: "conv1/7x7_s2"
}
layer {
  name: "pool1/3x3_s2"
  type: "Pooling"
  bottom: "conv1/7x7_s2"
  top: "pool1/3x3_s2"
  pooling_param {
    pool: MAX
    kernel_size: 3
    stride: 2
  }
}
layer {
  name: "pool1/norm1"
  type: "LRN"
  bottom: "pool1/3x3_s2"
  top: "pool1/norm1"
  lrn_param {
    local_size: 5
    alpha: 0.0001
    beta: 0.75
  }
}
layer {
  name: "conv2/3x3_reduce"
  type: "Convolution"
  bottom: "pool1/norm1"
  top: "conv2/3x3_reduce"
  param {
    lr_mult: 1
    decay_mult: 1
  }
  param {
    lr_mult: 2
    decay_mult: 0
  }
  convolution_param {
    num_output: 64
    kernel_size: 1
    weight_filler {
      type: "xavier"
      std: 0.1
    }
    bias_filler {
      type: "constant"
      value: 0.2
    }
  }
}
layer {
  name: "conv2/relu_3x3_reduce"
  type: "ReLU"
  bottom: "conv2/3x3_reduce"
  top: "conv2/3x3_reduce"
}
layer {
  name: "conv2/3x3"
  type: "Convolution"
  bottom: "conv2/3x3_reduce"
  top: "conv2/3x3"
  param {
    lr_mult: 1
    decay_mult: 1
  }
  param {
    lr_mult: 2
    decay_mult: 0
  }
  convolution_param {
    num_output: 192
    pad: 1
    kernel_size: 3
    weight_filler {
      type: "xavier"
      std: 0.03
    }
    bias_filler {
      type: "constant"
      value: 0.2
    }
  }
}
layer {
  name: "conv2/relu_3x3"
  type: "ReLU"
  bottom: "conv2/3x3"
  top: "conv2/3x3"
}
layer {
  name: "conv2/norm2"
  type: "LRN"
  bottom: "conv2/3x3"
  top: "conv2/norm2"
  lrn_param {
    local_size: 5
    alpha: 0.0001
    beta: 0.75
  }
}
layer {
  name: "pool2/3x3_s2"
  type: "Pooling"
  bottom: "conv2/norm2"
  top: "pool2/3x3_s2"
  pooling_param {
    pool: MAX
    kernel_size: 3
    stride: 2
  }
}
layer {
  name: "inception_3a/1x1"
  type: "Convolution"
  bottom: "pool2/3x3_s2"
  top: "inception_3a/1x1"
  param {
    lr_mult: 1
    decay_mult: 1
  }
  param {
    lr_mult: 2
    decay_mult: 0
  }
  convolution_param {
    num_output: 64
    kernel_size: 1
    weight_filler {
      type: "xavier"
      std: 0.03
    }
    bias_filler {
      type: "constant"
      value: 0.2
    }
  }
}
layer {
  name: "inception_3a/relu_1x1"
  type: "ReLU"
  bottom: "inception_3a/1x1"
  top: "inception_3a/1x1"
}
layer {
  name: "inception_3a/3x3_reduce"
  type: "Convolution"
  bottom: "pool2/3x3_s2"
  top: "inception_3a/3x3_reduce"
  param {
    lr_mult: 1
    decay_mult: 1
  }
  param {
    lr_mult: 2
    decay_mult: 0
  }
  convolution_param {
    num_output: 96
    kernel_size: 1
    weight_filler {
      type: "xavier"
      std: 0.09
    }
    bias_filler {
      type: "constant"
      value: 0.2
    }
  }
}
layer {
  name: "inception_3a/relu_3x3_reduce"
  type: "ReLU"
  bottom: "inception_3a/3x3_reduce"
  top: "inception_3a/3x3_reduce"
}
layer {
  name: "inception_3a/3x3"
  type: "Convolution"
  bottom: "inception_3a/3x3_reduce"
  top: "inception_3a/3x3"
  param {
    lr_mult: 1
    decay_mult: 1
  }
  param {
    lr_mult: 2
    decay_mult: 0
  }
  convolution_param {
    num_output: 128
    pad: 1
    kernel_size: 3
    weight_filler {
      type: "xavier"
      std: 0.03
    }
    bias_filler {
      type: "constant"
      value: 0.2
    }
  }
}
layer {
  name: "inception_3a/relu_3x3"
  type: "ReLU"
  bottom: "inception_3a/3x3"
  top: "inception_3a/3x3"
}
layer {
  name: "inception_3a/5x5_reduce"
  type: "Convolution"
  bottom: "pool2/3x3_s2"
  top: "inception_3a/5x5_reduce"
  param {
    lr_mult: 1
    decay_mult: 1
  }
  param {
    lr_mult: 2
    decay_mult: 0
  }
  convolution_param {
    num_output: 16
    kernel_size: 1
    weight_filler {
      type: "xavier"
      std: 0.2
    }
    bias_filler {
      type: "constant"
      value: 0.2
    }
  }
}
layer {
  name: "inception_3a/relu_5x5_reduce"
  type: "ReLU"
  bottom: "inception_3a/5x5_reduce"
  top: "inception_3a/5x5_reduce"
}
layer {
  name: "inception_3a/5x5"
  type: "Convolution"
  bottom: "inception_3a/5x5_reduce"
  top: "inception_3a/5x5"
  param {
    lr_mult: 1
    decay_mult: 1
  }
  param {
    lr_mult: 2
    decay_mult: 0
  }
  convolution_param {
    num_output: 32
    pad: 2
    kernel_size: 5
    weight_filler {
      type: "xavier"
      std: 0.03
    }
    bias_filler {
      type: "constant"
      value: 0.2
    }
  }
}
layer {
  name: "inception_3a/relu_5x5"
  type: "ReLU"
  bottom: "inception_3a/5x5"
  top: "inception_3a/5x5"
}
layer {
  name: "inception_3a/pool"
  type: "Pooling"
  bottom: "pool2/3x3_s2"
  top: "inception_3a/pool"
  pooling_param {
    pool: MAX
    kernel_size: 3
    stride: 1
    pad: 1
  }
}
layer {
  name: "inception_3a/pool_proj"
  type: "Convolution"
  bottom: "inception_3a/pool"
  top: "inception_3a/pool_proj"
  param {
    lr_mult: 1
    decay_mult: 1
  }
  param {
    lr_mult: 2
    decay_mult: 0
  }
  convolution_param {
    num_output: 32
    kernel_size: 1
    weight_filler {
      type: "xavier"
      std: 0.1
    }
    bias_filler {
      type: "constant"
      value: 0.2
    }
  }
}
layer {
  name: "inception_3a/relu_pool_proj"
  type: "ReLU"
  bottom: "inception_3a/pool_proj"
  top: "inception_3a/pool_proj"
}
layer {
  name: "inception_3a/output"
  type: "Concat"
  bottom: "inception_3a/1x1"
  bottom: "inception_3a/3x3"
  bottom: "inception_3a/5x5"
  bottom: "inception_3a/pool_proj"
  top: "inception_3a/output"
}
layer {
  name: "inception_3b/1x1"
  type: "Convolution"
  bottom: "inception_3a/output"
  top: "inception_3b/1x1"
  param {
    lr_mult: 1
    decay_mult: 1
  }
  param {
    lr_mult: 2
    decay_mult: 0
  }
  convolution_param {
    num_output: 128
    kernel_size: 1
    weight_filler {
      type: "xavier"
      std: 0.03
    }
    bias_filler {
      type: "constant"
      value: 0.2
    }
  }
}
layer {
  name: "inception_3b/relu_1x1"
  type: "ReLU"
  bottom: "inception_3b/1x1"
  top: "inception_3b/1x1"
}
layer {
  name: "inception_3b/3x3_reduce"
  type: "Convolution"
  bottom: "inception_3a/output"
  top: "inception_3b/3x3_reduce"
  param {
    lr_mult: 1
    decay_mult: 1
  }
  param {
    lr_mult: 2
    decay_mult: 0
  }
  convolution_param {
    num_output: 128
    kernel_size: 1
    weight_filler {
      type: "xavier"
      std: 0.09
    }
    bias_filler {
      type: "constant"
      value: 0.2
    }
  }
}
layer {
  name: "inception_3b/relu_3x3_reduce"
  type: "ReLU"
  bottom: "inception_3b/3x3_reduce"
  top: "inception_3b/3x3_reduce"
}
layer {
  name: "inception_3b/3x3"
  type: "Convolution"
  bottom: "inception_3b/3x3_reduce"
  top: "inception_3b/3x3"
  param {
    lr_mult: 1
    decay_mult: 1
  }
  param {
    lr_mult: 2
    decay_mult: 0
  }
  convolution_param {
    num_output: 192
    pad: 1
    kernel_size: 3
    weight_filler {
      type: "xavier"
      std: 0.03
    }
    bias_filler {
      type: "constant"
      value: 0.2
    }
  }
}
layer {
  name: "inception_3b/relu_3x3"
  type: "ReLU"
  bottom: "inception_3b/3x3"
  top: "inception_3b/3x3"
}
layer {
  name: "inception_3b/5x5_reduce"
  type: "Convolution"
  bottom: "inception_3a/output"
  top: "inception_3b/5x5_reduce"
  param {
    lr_mult: 1
    decay_mult: 1
  }
  param {
    lr_mult: 2
    decay_mult: 0
  }
  convolution_param {
    num_output: 32
    kernel_size: 1
    weight_filler {
      type: "xavier"
      std: 0.2
    }
    bias_filler {
      type: "constant"
      value: 0.2
    }
  }
}
layer {
  name: "inception_3b/relu_5x5_reduce"
  type: "ReLU"
  bottom: "inception_3b/5x5_reduce"
  top: "inception_3b/5x5_reduce"
}
layer {
  name: "inception_3b/5x5"
  type: "Convolution"
  bottom: "inception_3b/5x5_reduce"
  top: "inception_3b/5x5"
  param {
    lr_mult: 1
    decay_mult: 1
  }
  param {
    lr_mult: 2
    decay_mult: 0
  }
  convolution_param {
    num_output: 96
    pad: 2
    kernel_size: 5
    weight_filler {
      type: "xavier"
      std: 0.03
    }
    bias_filler {
      type: "constant"
      value: 0.2
    }
  }
}
layer {
  name: "inception_3b/relu_5x5"
  type: "ReLU"
  bottom: "inception_3b/5x5"
  top: "inception_3b/5x5"
}
layer {
  name: "inception_3b/pool"
  type: "Pooling"
  bottom: "inception_3a/output"
  top: "inception_3b/pool"
  pooling_param {
    pool: MAX
    kernel_size: 3
    stride: 1
    pad: 1
  }
}
layer {
  name: "inception_3b/pool_proj"
  type: "Convolution"
  bottom: "inception_3b/pool"
  top: "inception_3b/pool_proj"
  param {
    lr_mult: 1
    decay_mult: 1
  }
  param {
    lr_mult: 2
    decay_mult: 0
  }
  convolution_param {
    num_output: 64
    kernel_size: 1
    weight_filler {
      type: "xavier"
      std: 0.1
    }
    bias_filler {
      type: "constant"
      value: 0.2
    }
  }
}
layer {
  name: "inception_3b/relu_pool_proj"
  type: "ReLU"
  bottom: "inception_3b/pool_proj"
  top: "inception_3b/pool_proj"
}
layer {
  name: "inception_3b/output"
  type: "Concat"
  bottom: "inception_3b/1x1"
  bottom: "inception_3b/3x3"
  bottom: "inception_3b/5x5"
  bottom: "inception_3b/pool_proj"
  top: "inception_3b/output"
}
layer {
  name: "pool3/3x3_s2"
  type: "Pooling"
  bottom: "inception_3b/output"
  top: "pool3/3x3_s2"
  pooling_param {
    pool: MAX
    kernel_size: 3
    stride: 2
  }
}
layer {
  name: "inception_4a/1x1"
  type: "Convolution"
  bottom: "pool3/3x3_s2"
  top: "inception_4a/1x1"
  param {
    lr_mult: 1
    decay_mult: 1
  }
  param {
    lr_mult: 2
    decay_mult: 0
  }
  convolution_param {
    num_output: 192
    kernel_size: 1
    weight_filler {
      type: "xavier"
      std: 0.03
    }
    bias_filler {
      type: "constant"
      value: 0.2
    }
  }
}
layer {
  name: "inception_4a/relu_1x1"
  type: "ReLU"
  bottom: "inception_4a/1x1"
  top: "inception_4a/1x1"
}
layer {
  name: "inception_4a/3x3_reduce"
  type: "Convolution"
  bottom: "pool3/3x3_s2"
  top: "inception_4a/3x3_reduce"
  param {
    lr_mult: 1
    decay_mult: 1
  }
  param {
    lr_mult: 2
    decay_mult: 0
  }
  convolution_param {
    num_output: 96
    kernel_size: 1
    weight_filler {
      type: "xavier"
      std: 0.09
    }
    bias_filler {
      type: "constant"
      value: 0.2
    }
  }
}
layer {
  name: "inception_4a/relu_3x3_reduce"
  type: "ReLU"
  bottom: "inception_4a/3x3_reduce"
  top: "inception_4a/3x3_reduce"
}
layer {
  name: "inception_4a/3x3"
  type: "Convolution"
  bottom: "inception_4a/3x3_reduce"
  top: "inception_4a/3x3"
  param {
    lr_mult: 1
    decay_mult: 1
  }
  param {
    lr_mult: 2
    decay_mult: 0
  }
  convolution_param {
    num_output: 208
    pad: 1
    kernel_size: 3
    weight_filler {
      type: "xavier"
      std: 0.03
    }
    bias_filler {
      type: "constant"
      value: 0.2
    }
  }
}
layer {
  name: "inception_4a/relu_3x3"
  type: "ReLU"
  bottom: "inception_4a/3x3"
  top: "inception_4a/3x3"
}
layer {
  name: "inception_4a/5x5_reduce"
  type: "Convolution"
  bottom: "pool3/3x3_s2"
  top: "inception_4a/5x5_reduce"
  param {
    lr_mult: 1
    decay_mult: 1
  }
  param {
    lr_mult: 2
    decay_mult: 0
  }
  convolution_param {
    num_output: 16
    kernel_size: 1
    weight_filler {
      type: "xavier"
      std: 0.2
    }
    bias_filler {
      type: "constant"
      value: 0.2
    }
  }
}
layer {
  name: "inception_4a/relu_5x5_reduce"
  type: "ReLU"
  bottom: "inception_4a/5x5_reduce"
  top: "inception_4a/5x5_reduce"
}
layer {
  name: "inception_4a/5x5"
  type: "Convolution"
  bottom: "inception_4a/5x5_reduce"
  top: "inception_4a/5x5"
  param {
    lr_mult: 1
    decay_mult: 1
  }
  param {
    lr_mult: 2
    decay_mult: 0
  }
  convolution_param {
    num_output: 48
    pad: 2
    kernel_size: 5
    weight_filler {
      type: "xavier"
      std: 0.03
    }
    bias_filler {
      type: "constant"
      value: 0.2
    }
  }
}
layer {
  name: "inception_4a/relu_5x5"
  type: "ReLU"
  bottom: "inception_4a/5x5"
  top: "inception_4a/5x5"
}
layer {
  name: "inception_4a/pool"
  type: "Pooling"
  bottom: "pool3/3x3_s2"
  top: "inception_4a/pool"
  pooling_param {
    pool: MAX
    kernel_size: 3
    stride: 1
    pad: 1
  }
}
layer {
  name: "inception_4a/pool_proj"
  type: "Convolution"
  bottom: "inception_4a/pool"
  top: "inception_4a/pool_proj"
  param {
    lr_mult: 1
    decay_mult: 1
  }
  param {
    lr_mult: 2
    decay_mult: 0
  }
  convolution_param {
    num_output: 64
    kernel_size: 1
    weight_filler {
      type: "xavier"
      std: 0.1
    }
    bias_filler {
      type: "constant"
      value: 0.2
    }
  }
}
layer {
  name: "inception_4a/relu_pool_proj"
  type: "ReLU"
  bottom: "inception_4a/pool_proj"
  top: "inception_4a/pool_proj"
}
layer {
  name: "inception_4a/output"
  type: "Concat"
  bottom: "inception_4a/1x1"
  bottom: "inception_4a/3x3"
  bottom: "inception_4a/5x5"
  bottom: "inception_4a/pool_proj"
  top: "inception_4a/output"
}
layer {
  name: "inception_4b/1x1"
  type: "Convolution"
  bottom: "inception_4a/output"
  top: "inception_4b/1x1"
  param {
    lr_mult: 1
    decay_mult: 1
  }
  param {
    lr_mult: 2
    decay_mult: 0
  }
  convolution_param {
    num_output: 160
    kernel_size: 1
    weight_filler {
      type: "xavier"
      std: 0.03
    }
    bias_filler {
      type: "constant"
      value: 0.2
    }
  }
}
layer {
  name: "inception_4b/relu_1x1"
  type: "ReLU"
  bottom: "inception_4b/1x1"
  top: "inception_4b/1x1"
}
layer {
  name: "inception_4b/3x3_reduce"
  type: "Convolution"
  bottom: "inception_4a/output"
  top: "inception_4b/3x3_reduce"
  param {
    lr_mult: 1
    decay_mult: 1
  }
  param {
    lr_mult: 2
    decay_mult: 0
  }
  convolution_param {
    num_output: 112
    kernel_size: 1
    weight_filler {
      type: "xavier"
      std: 0.09
    }
    bias_filler {
      type: "constant"
      value: 0.2
    }
  }
}
layer {
  name: "inception_4b/relu_3x3_reduce"
  type: "ReLU"
  bottom: "inception_4b/3x3_reduce"
  top: "inception_4b/3x3_reduce"
}
layer {
  name: "inception_4b/3x3"
  type: "Convolution"
  bottom: "inception_4b/3x3_reduce"
  top: "inception_4b/3x3"
  param {
    lr_mult: 1
    decay_mult: 1
  }
  param {
    lr_mult: 2
    decay_mult: 0
  }
  convolution_param {
    num_output: 224
    pad: 1
    kernel_size: 3
    weight_filler {
      type: "xavier"
      std: 0.03
    }
    bias_filler {
      type: "constant"
      value: 0.2
    }
  }
}
layer {
  name: "inception_4b/relu_3x3"
  type: "ReLU"
  bottom: "inception_4b/3x3"
  top: "inception_4b/3x3"
}
layer {
  name: "inception_4b/5x5_reduce"
  type: "Convolution"
  bottom: "inception_4a/output"
  top: "inception_4b/5x5_reduce"
  param {
    lr_mult: 1
    decay_mult: 1
  }
  param {
    lr_mult: 2
    decay_mult: 0
  }
  convolution_param {
    num_output: 24
    kernel_size: 1
    weight_filler {
      type: "xavier"
      std: 0.2
    }
    bias_filler {
      type: "constant"
      value: 0.2
    }
  }
}
layer {
  name: "inception_4b/relu_5x5_reduce"
  type: "ReLU"
  bottom: "inception_4b/5x5_reduce"
  top: "inception_4b/5x5_reduce"
}
layer {
  name: "inception_4b/5x5"
  type: "Convolution"
  bottom: "inception_4b/5x5_reduce"
  top: "inception_4b/5x5"
  param {
    lr_mult: 1
    decay_mult: 1
  }
  param {
    lr_mult: 2
    decay_mult: 0
  }
  convolution_param {
    num_output: 64
    pad: 2
    kernel_size: 5
    weight_filler {
      type: "xavier"
      std: 0.03
    }
    bias_filler {
      type: "constant"
      value: 0.2
    }
  }
}
layer {
  name: "inception_4b/relu_5x5"
  type: "ReLU"
  bottom: "inception_4b/5x5"
  top: "inception_4b/5x5"
}
layer {
  name: "inception_4b/pool"
  type: "Pooling"
  bottom: "inception_4a/output"
  top: "inception_4b/pool"
  pooling_param {
    pool: MAX
    kernel_size: 3
    stride: 1
    pad: 1
  }
}
layer {
  name: "inception_4b/pool_proj"
  type: "Convolution"
  bottom: "inception_4b/pool"
  top: "inception_4b/pool_proj"
  param {
    lr_mult: 1
    decay_mult: 1
  }
  param {
    lr_mult: 2
    decay_mult: 0
  }
  convolution_param {
    num_output: 64
    kernel_size: 1
    weight_filler {
      type: "xavier"
      std: 0.1
    }
    bias_filler {
      type: "constant"
      value: 0.2
    }
  }
}
layer {
  name: "inception_4b/relu_pool_proj"
  type: "ReLU"
  bottom: "inception_4b/pool_proj"
  top: "inception_4b/pool_proj"
}
layer {
  name: "inception_4b/output"
  type: "Concat"
  bottom: "inception_4b/1x1"
  bottom: "inception_4b/3x3"
  bottom: "inception_4b/5x5"
  bottom: "inception_4b/pool_proj"
  top: "inception_4b/output"
}
layer {
  name: "inception_4c/1x1"
  type: "Convolution"
  bottom: "inception_4b/output"
  top: "inception_4c/1x1"
  param {
    lr_mult: 1
    decay_mult: 1
  }
  param {
    lr_mult: 2
    decay_mult: 0
  }
  convolution_param {
    num_output: 128
    kernel_size: 1
    weight_filler {
      type: "xavier"
      std: 0.03
    }
    bias_filler {
      type: "constant"
      value: 0.2
    }
  }
}
layer {
  name: "inception_4c/relu_1x1"
  type: "ReLU"
  bottom: "inception_4c/1x1"
  top: "inception_4c/1x1"
}
layer {
  name: "inception_4c/3x3_reduce"
  type: "Convolution"
  bottom: "inception_4b/output"
  top: "inception_4c/3x3_reduce"
  param {
    lr_mult: 1
    decay_mult: 1
  }
  param {
    lr_mult: 2
    decay_mult: 0
  }
  convolution_param {
    num_output: 128
    kernel_size: 1
    weight_filler {
      type: "xavier"
      std: 0.09
    }
    bias_filler {
      type: "constant"
      value: 0.2
    }
  }
}
layer {
  name: "inception_4c/relu_3x3_reduce"
  type: "ReLU"
  bottom: "inception_4c/3x3_reduce"
  top: "inception_4c/3x3_reduce"
}
layer {
  name: "inception_4c/3x3"
  type: "Convolution"
  bottom: "inception_4c/3x3_reduce"
  top: "inception_4c/3x3"
  param {
    lr_mult: 1
    decay_mult: 1
  }
  param {
    lr_mult: 2
    decay_mult: 0
  }
  convolution_param {
    num_output: 256
    pad: 1
    kernel_size: 3
    weight_filler {
      type: "xavier"
      std: 0.03
    }
    bias_filler {
      type: "constant"
      value: 0.2
    }
  }
}
layer {
  name: "inception_4c/relu_3x3"
  type: "ReLU"
  bottom: "inception_4c/3x3"
  top: "inception_4c/3x3"
}
layer {
  name: "inception_4c/5x5_reduce"
  type: "Convolution"
  bottom: "inception_4b/output"
  top: "inception_4c/5x5_reduce"
  param {
    lr_mult: 1
    decay_mult: 1
  }
  param {
    lr_mult: 2
    decay_mult: 0
  }
  convolution_param {
    num_output: 24
    kernel_size: 1
    weight_filler {
      type: "xavier"
      std: 0.2
    }
    bias_filler {
      type: "constant"
      value: 0.2
    }
  }
}
layer {
  name: "inception_4c/relu_5x5_reduce"
  type: "ReLU"
  bottom: "inception_4c/5x5_reduce"
  top: "inception_4c/5x5_reduce"
}
layer {
  name: "inception_4c/5x5"
  type: "Convolution"
  bottom: "inception_4c/5x5_reduce"
  top: "inception_4c/5x5"
  param {
    lr_mult: 1
    decay_mult: 1
  }
  param {
    lr_mult: 2
    decay_mult: 0
  }
  convolution_param {
    num_output: 64
    pad: 2
    kernel_size: 5
    weight_filler {
      type: "xavier"
      std: 0.03
    }
    bias_filler {
      type: "constant"
      value: 0.2
    }
  }
}
layer {
  name: "inception_4c/relu_5x5"
  type: "ReLU"
  bottom: "inception_4c/5x5"
  top: "inception_4c/5x5"
}
layer {
  name: "inception_4c/pool"
  type: "Pooling"
  bottom: "inception_4b/output"
  top: "inception_4c/pool"
  pooling_param {
    pool: MAX
    kernel_size: 3
    stride: 1
    pad: 1
  }
}
layer {
  name: "inception_4c/pool_proj"
  type: "Convolution"
  bottom: "inception_4c/pool"
  top: "inception_4c/pool_proj"
  param {
    lr_mult: 1
    decay_mult: 1
  }
  param {
    lr_mult: 2
    decay_mult: 0
  }
  convolution_param {
    num_output: 64
    kernel_size: 1
    weight_filler {
      type: "xavier"
      std: 0.1
    }
    bias_filler {
      type: "constant"
      value: 0.2
    }
  }
}
layer {
  name: "inception_4c/relu_pool_proj"
  type: "ReLU"
  bottom: "inception_4c/pool_proj"
  top: "inception_4c/pool_proj"
}
layer {
  name: "inception_4c/output"
  type: "Concat"
  bottom: "inception_4c/1x1"
  bottom: "inception_4c/3x3"
  bottom: "inception_4c/5x5"
  bottom: "inception_4c/pool_proj"
  top: "inception_4c/output"
}
layer {
  name: "inception_4d/1x1"
  type: "Convolution"
  bottom: "inception_4c/output"
  top: "inception_4d/1x1"
  param {
    lr_mult: 1
    decay_mult: 1
  }
  param {
    lr_mult: 2
    decay_mult: 0
  }
  convolution_param {
    num_output: 112
    kernel_size: 1
    weight_filler {
      type: "xavier"
      std: 0.03
    }
    bias_filler {
      type: "constant"
      value: 0.2
    }
  }
}
layer {
  name: "inception_4d/relu_1x1"
  type: "ReLU"
  bottom: "inception_4d/1x1"
  top: "inception_4d/1x1"
}
layer {
  name: "inception_4d/3x3_reduce"
  type: "Convolution"
  bottom: "inception_4c/output"
  top: "inception_4d/3x3_reduce"
  param {
    lr_mult: 1
    decay_mult: 1
  }
  param {
    lr_mult: 2
    decay_mult: 0
  }
  convolution_param {
    num_output: 144
    kernel_size: 1
    weight_filler {
      type: "xavier"
      std: 0.09
    }
    bias_filler {
      type: "constant"
      value: 0.2
    }
  }
}
layer {
  name: "inception_4d/relu_3x3_reduce"
  type: "ReLU"
  bottom: "inception_4d/3x3_reduce"
  top: "inception_4d/3x3_reduce"
}
layer {
  name: "inception_4d/3x3"
  type: "Convolution"
  bottom: "inception_4d/3x3_reduce"
  top: "inception_4d/3x3"
  param {
    lr_mult: 1
    decay_mult: 1
  }
  param {
    lr_mult: 2
    decay_mult: 0
  }
  convolution_param {
    num_output: 288
    pad: 1
    kernel_size: 3
    weight_filler {
      type: "xavier"
      std: 0.03
    }
    bias_filler {
      type: "constant"
      value: 0.2
    }
  }
}
layer {
  name: "inception_4d/relu_3x3"
  type: "ReLU"
  bottom: "inception_4d/3x3"
  top: "inception_4d/3x3"
}
layer {
  name: "inception_4d/5x5_reduce"
  type: "Convolution"
  bottom: "inception_4c/output"
  top: "inception_4d/5x5_reduce"
  param {
    lr_mult: 1
    decay_mult: 1
  }
  param {
    lr_mult: 2
    decay_mult: 0
  }
  convolution_param {
    num_output: 32
    kernel_size: 1
    weight_filler {
      type: "xavier"
      std: 0.2
    }
    bias_filler {
      type: "constant"
      value: 0.2
    }
  }
}
layer {
  name: "inception_4d/relu_5x5_reduce"
  type: "ReLU"
  bottom: "inception_4d/5x5_reduce"
  top: "inception_4d/5x5_reduce"
}
layer {
  name: "inception_4d/5x5"
  type: "Convolution"
  bottom: "inception_4d/5x5_reduce"
  top: "inception_4d/5x5"
  param {
    lr_mult: 1
    decay_mult: 1
  }
  param {
    lr_mult: 2
    decay_mult: 0
  }
  convolution_param {
    num_output: 64
    pad: 2
    kernel_size: 5
    weight_filler {
      type: "xavier"
      std: 0.03
    }
    bias_filler {
      type: "constant"
      value: 0.2
    }
  }
}
layer {
  name: "inception_4d/relu_5x5"
  type: "ReLU"
  bottom: "inception_4d/5x5"
  top: "inception_4d/5x5"
}
layer {
  name: "inception_4d/pool"
  type: "Pooling"
  bottom: "inception_4c/output"
  top: "inception_4d/pool"
  pooling_param {
    pool: MAX
    kernel_size: 3
    stride: 1
    pad: 1
  }
}
layer {
  name: "inception_4d/pool_proj"
  type: "Convolution"
  bottom: "inception_4d/pool"
  top: "inception_4d/pool_proj"
  param {
    lr_mult: 1
    decay_mult: 1
  }
  param {
    lr_mult: 2
    decay_mult: 0
  }
  convolution_param {
    num_output: 64
    kernel_size: 1
    weight_filler {
      type: "xavier"
      std: 0.1
    }
    bias_filler {
      type: "constant"
      value: 0.2
    }
  }
}
layer {
  name: "inception_4d/relu_pool_proj"
  type: "ReLU"
  bottom: "inception_4d/pool_proj"
  top: "inception_4d/pool_proj"
}
layer {
  name: "inception_4d/output"
  type: "Concat"
  bottom: "inception_4d/1x1"
  bottom: "inception_4d/3x3"
  bottom: "inception_4d/5x5"
  bottom: "inception_4d/pool_proj"
  top: "inception_4d/output"
}
layer {
  name: "inception_4e/1x1"
  type: "Convolution"
  bottom: "inception_4d/output"
  top: "inception_4e/1x1"
  param {
    lr_mult: 1
    decay_mult: 1
  }
  param {
    lr_mult: 2
    decay_mult: 0
  }
  convolution_param {
    num_output: 256
    kernel_size: 1
    weight_filler {
      type: "xavier"
      std: 0.03
    }
    bias_filler {
      type: "constant"
      value: 0.2
    }
  }
}
layer {
  name: "inception_4e/relu_1x1"
  type: "ReLU"
  bottom: "inception_4e/1x1"
  top: "inception_4e/1x1"
}
layer {
  name: "inception_4e/3x3_reduce"
  type: "Convolution"
  bottom: "inception_4d/output"
  top: "inception_4e/3x3_reduce"
  param {
    lr_mult: 1
    decay_mult: 1
  }
  param {
    lr_mult: 2
    decay_mult: 0
  }
  convolution_param {
    num_output: 160
    kernel_size: 1
    weight_filler {
      type: "xavier"
      std: 0.09
    }
    bias_filler {
      type: "constant"
      value: 0.2
    }
  }
}
layer {
  name: "inception_4e/relu_3x3_reduce"
  type: "ReLU"
  bottom: "inception_4e/3x3_reduce"
  top: "inception_4e/3x3_reduce"
}
layer {
  name: "inception_4e/3x3"
  type: "Convolution"
  bottom: "inception_4e/3x3_reduce"
  top: "inception_4e/3x3"
  param {
    lr_mult: 1
    decay_mult: 1
  }
  param {
    lr_mult: 2
    decay_mult: 0
  }
  convolution_param {
    num_output: 320
    pad: 1
    kernel_size: 3
    weight_filler {
      type: "xavier"
      std: 0.03
    }
    bias_filler {
      type: "constant"
      value: 0.2
    }
  }
}
layer {
  name: "inception_4e/relu_3x3"
  type: "ReLU"
  bottom: "inception_4e/3x3"
  top: "inception_4e/3x3"
}
layer {
  name: "inception_4e/5x5_reduce"
  type: "Convolution"
  bottom: "inception_4d/output"
  top: "inception_4e/5x5_reduce"
  param {
    lr_mult: 1
    decay_mult: 1
  }
  param {
    lr_mult: 2
    decay_mult: 0
  }
  convolution_param {
    num_output: 32
    kernel_size: 1
    weight_filler {
      type: "xavier"
      std: 0.2
    }
    bias_filler {
      type: "constant"
      value: 0.2
    }
  }
}
layer {
  name: "inception_4e/relu_5x5_reduce"
  type: "ReLU"
  bottom: "inception_4e/5x5_reduce"
  top: "inception_4e/5x5_reduce"
}
layer {
  name: "inception_4e/5x5"
  type: "Convolution"
  bottom: "inception_4e/5x5_reduce"
  top: "inception_4e/5x5"
  param {
    lr_mult: 1
    decay_mult: 1
  }
  param {
    lr_mult: 2
    decay_mult: 0
  }
  convolution_param {
    num_output: 128
    pad: 2
    kernel_size: 5
    weight_filler {
      type: "xavier"
      std: 0.03
    }
    bias_filler {
      type: "constant"
      value: 0.2
    }
  }
}
layer {
  name: "inception_4e/relu_5x5"
  type: "ReLU"
  bottom: "inception_4e/5x5"
  top: "inception_4e/5x5"
}
layer {
  name: "inception_4e/pool"
  type: "Pooling"
  bottom: "inception_4d/output"
  top: "inception_4e/pool"
  pooling_param {
    pool: MAX
    kernel_size: 3
    stride: 1
    pad: 1
  }
}
layer {
  name: "inception_4e/pool_proj"
  type: "Convolution"
  bottom: "inception_4e/pool"
  top: "inception_4e/pool_proj"
  param {
    lr_mult: 1
    decay_mult: 1
  }
  param {
    lr_mult: 2
    decay_mult: 0
  }
  convolution_param {
    num_output: 128
    kernel_size: 1
    weight_filler {
      type: "xavier"
      std: 0.1
    }
    bias_filler {
      type: "constant"
      value: 0.2
    }
  }
}
layer {
  name: "inception_4e/relu_pool_proj"
  type: "ReLU"
  bottom: "inception_4e/pool_proj"
  top: "inception_4e/pool_proj"
}
layer {
  name: "inception_4e/output"
  type: "Concat"
  bottom: "inception_4e/1x1"
  bottom: "inception_4e/3x3"
  bottom: "inception_4e/5x5"
  bottom: "inception_4e/pool_proj"
  top: "inception_4e/output"
}
layer {
  name: "pool4/3x3_s2"
  type: "Pooling"
  bottom: "inception_4e/output"
  top: "pool4/3x3_s2"
  pooling_param {
    pool: MAX
    kernel_size: 3
    stride: 2
  }
}
layer {
  name: "inception_5a/1x1"
  type: "Convolution"
  bottom: "pool4/3x3_s2"
  top: "inception_5a/1x1"
  param {
    lr_mult: 1
    decay_mult: 1
  }
  param {
    lr_mult: 2
    decay_mult: 0
  }
  convolution_param {
    num_output: 256
    kernel_size: 1
    weight_filler {
      type: "xavier"
      std: 0.03
    }
    bias_filler {
      type: "constant"
      value: 0.2
    }
  }
}
layer {
  name: "inception_5a/relu_1x1"
  type: "ReLU"
  bottom: "inception_5a/1x1"
  top: "inception_5a/1x1"
}
layer {
  name: "inception_5a/3x3_reduce"
  type: "Convolution"
  bottom: "pool4/3x3_s2"
  top: "inception_5a/3x3_reduce"
  param {
    lr_mult: 1
    decay_mult: 1
  }
  param {
    lr_mult: 2
    decay_mult: 0
  }
  convolution_param {
    num_output: 160
    kernel_size: 1
    weight_filler {
      type: "xavier"
      std: 0.09
    }
    bias_filler {
      type: "constant"
      value: 0.2
    }
  }
}
layer {
  name: "inception_5a/relu_3x3_reduce"
  type: "ReLU"
  bottom: "inception_5a/3x3_reduce"
  top: "inception_5a/3x3_reduce"
}
layer {
  name: "inception_5a/3x3"
  type: "Convolution"
  bottom: "inception_5a/3x3_reduce"
  top: "inception_5a/3x3"
  param {
    lr_mult: 1
    decay_mult: 1
  }
  param {
    lr_mult: 2
    decay_mult: 0
  }
  convolution_param {
    num_output: 320
    pad: 1
    kernel_size: 3
    weight_filler {
      type: "xavier"
      std: 0.03
    }
    bias_filler {
      type: "constant"
      value: 0.2
    }
  }
}
layer {
  name: "inception_5a/relu_3x3"
  type: "ReLU"
  bottom: "inception_5a/3x3"
  top: "inception_5a/3x3"
}
layer {
  name: "inception_5a/5x5_reduce"
  type: "Convolution"
  bottom: "pool4/3x3_s2"
  top: "inception_5a/5x5_reduce"
  param {
    lr_mult: 1
    decay_mult: 1
  }
  param {
    lr_mult: 2
    decay_mult: 0
  }
  convolution_param {
    num_output: 32
    kernel_size: 1
    weight_filler {
      type: "xavier"
      std: 0.2
    }
    bias_filler {
      type: "constant"
      value: 0.2
    }
I0913 20:11:49.602581 32511 layer_factory.hpp:77] Creating layer data
I0913 20:11:49.602622 32511 net.cpp:91] Creating Layer data
I0913 20:11:49.602641 32511 net.cpp:399] data -> data
I0913 20:11:50.103873 32511 net.cpp:141] Setting up data
I0913 20:11:50.103961 32511 net.cpp:148] Top shape: 10 3 224 224 (1505280)
I0913 20:11:50.103968 32511 net.cpp:156] Memory required for data: 6021120
I0913 20:11:50.103991 32511 layer_factory.hpp:77] Creating layer conv1/7x7_s2
I0913 20:11:50.104033 32511 net.cpp:91] Creating Layer conv1/7x7_s2
I0913 20:11:50.104043 32511 net.cpp:425] conv1/7x7_s2 <- data
I0913 20:11:50.104058 32511 net.cpp:399] conv1/7x7_s2 -> conv1/7x7_s2
I0913 20:11:50.288916 32511 net.cpp:141] Setting up conv1/7x7_s2
I0913 20:11:50.288964 32511 net.cpp:148] Top shape: 10 64 112 112 (8028160)
I0913 20:11:50.288970 32511 net.cpp:156] Memory required for data: 38133760
I0913 20:11:50.288996 32511 layer_factory.hpp:77] Creating layer conv1/relu_7x7
I0913 20:11:50.289016 32511 net.cpp:91] Creating Layer conv1/relu_7x7
I0913 20:11:50.289022 32511 net.cpp:425] conv1/relu_7x7 <- conv1/7x7_s2
I0913 20:11:50.289031 32511 net.cpp:386] conv1/relu_7x7 -> conv1/7x7_s2 (in-place)
I0913 20:11:50.289419 32511 net.cpp:141] Setting up conv1/relu_7x7
I0913 20:11:50.289433 32511 net.cpp:148] Top shape: 10 64 112 112 (8028160)
I0913 20:11:50.289438 32511 net.cpp:156] Memory required for data: 70246400
I0913 20:11:50.289443 32511 layer_factory.hpp:77] Creating layer pool1/3x3_s2
I0913 20:11:50.289455 32511 net.cpp:91] Creating Layer pool1/3x3_s2
I0913 20:11:50.289460 32511 net.cpp:425] pool1/3x3_s2 <- conv1/7x7_s2
I0913 20:11:50.289468 32511 net.cpp:399] pool1/3x3_s2 -> pool1/3x3_s2
I0913 20:11:50.289530 32511 net.cpp:141] Setting up pool1/3x3_s2
I0913 20:11:50.289541 32511 net.cpp:148] Top shape: 10 64 56 56 (2007040)
I0913 20:11:50.289544 32511 net.cpp:156] Memory required for data: 78274560
I0913 20:11:50.289549 32511 layer_factory.hpp:77] Creating layer pool1/norm1
I0913 20:11:50.289564 32511 net.cpp:91] Creating Layer pool1/norm1
I0913 20:11:50.289569 32511 net.cpp:425] pool1/norm1 <- pool1/3x3_s2
I0913 20:11:50.289575 32511 net.cpp:399] pool1/norm1 -> pool1/norm1
I0913 20:11:50.289814 32511 net.cpp:141] Setting up pool1/norm1
I0913 20:11:50.289826 32511 net.cpp:148] Top shape: 10 64 56 56 (2007040)
I0913 20:11:50.289831 32511 net.cpp:156] Memory required for data: 86302720
I0913 20:11:50.289836 32511 layer_factory.hpp:77] Creating layer conv2/3x3_reduce
I0913 20:11:50.289855 32511 net.cpp:91] Creating Layer conv2/3x3_reduce
I0913 20:11:50.289860 32511 net.cpp:425] conv2/3x3_reduce <- pool1/norm1
I0913 20:11:50.289867 32511 net.cpp:399] conv2/3x3_reduce -> conv2/3x3_reduce
I0913 20:11:50.291821 32511 net.cpp:141] Setting up conv2/3x3_reduce
I0913 20:11:50.291838 32511 net.cpp:148] Top shape: 10 64 56 56 (2007040)
I0913 20:11:50.291843 32511 net.cpp:156] Memory required for data: 94330880
I0913 20:11:50.291856 32511 layer_factory.hpp:77] Creating layer conv2/relu_3x3_reduce
I0913 20:11:50.291864 32511 net.cpp:91] Creating Layer conv2/relu_3x3_reduce
I0913 20:11:50.291869 32511 net.cpp:425] conv2/relu_3x3_reduce <- conv2/3x3_reduce
I0913 20:11:50.291877 32511 net.cpp:386] conv2/relu_3x3_reduce -> conv2/3x3_reduce (in-place)
I0913 20:11:50.292239 32511 net.cpp:141] Setting up conv2/relu_3x3_reduce
I0913 20:11:50.292253 32511 net.cpp:148] Top shape: 10 64 56 56 (2007040)
I0913 20:11:50.292258 32511 net.cpp:156] Memory required for data: 102359040
I0913 20:11:50.292263 32511 layer_factory.hpp:77] Creating layer conv2/3x3
I0913 20:11:50.292276 32511 net.cpp:91] Creating Layer conv2/3x3
I0913 20:11:50.292281 32511 net.cpp:425] conv2/3x3 <- conv2/3x3_reduce
I0913 20:11:50.292290 32511 net.cpp:399] conv2/3x3 -> conv2/3x3
I0913 20:11:50.295295 32511 net.cpp:141] Setting up conv2/3x3
I0913 20:11:50.295311 32511 net.cpp:148] Top shape: 10 192 56 56 (6021120)
I0913 20:11:50.295316 32511 net.cpp:156] Memory required for data: 126443520
I0913 20:11:50.295328 32511 layer_factory.hpp:77] Creating layer conv2/relu_3x3
I0913 20:11:50.295341 32511 net.cpp:91] Creating Layer conv2/relu_3x3
I0913 20:11:50.295347 32511 net.cpp:425] conv2/relu_3x3 <- conv2/3x3
I0913 20:11:50.295353 32511 net.cpp:386] conv2/relu_3x3 -> conv2/3x3 (in-place)
I0913 20:11:50.295578 32511 net.cpp:141] Setting up conv2/relu_3x3
I0913 20:11:50.295588 32511 net.cpp:148] Top shape: 10 192 56 56 (6021120)
I0913 20:11:50.295593 32511 net.cpp:156] Memory required for data: 150528000
I0913 20:11:50.295598 32511 layer_factory.hpp:77] Creating layer conv2/norm2
I0913 20:11:50.295606 32511 net.cpp:91] Creating Layer conv2/norm2
I0913 20:11:50.295610 32511 net.cpp:425] conv2/norm2 <- conv2/3x3
I0913 20:11:50.295620 32511 net.cpp:399] conv2/norm2 -> conv2/norm2
I0913 20:11:50.296032 32511 net.cpp:141] Setting up conv2/norm2
I0913 20:11:50.296044 32511 net.cpp:148] Top shape: 10 192 56 56 (6021120)
I0913 20:11:50.296049 32511 net.cpp:156] Memory required for data: 174612480
I0913 20:11:50.296054 32511 layer_factory.hpp:77] Creating layer pool2/3x3_s2
I0913 20:11:50.296066 32511 net.cpp:91] Creating Layer pool2/3x3_s2
I0913 20:11:50.296077 32511 net.cpp:425] pool2/3x3_s2 <- conv2/norm2
I0913 20:11:50.296085 32511 net.cpp:399] pool2/3x3_s2 -> pool2/3x3_s2
I0913 20:11:50.296136 32511 net.cpp:141] Setting up pool2/3x3_s2
I0913 20:11:50.296144 32511 net.cpp:148] Top shape: 10 192 28 28 (1505280)
I0913 20:11:50.296149 32511 net.cpp:156] Memory required for data: 180633600
I0913 20:11:50.296154 32511 layer_factory.hpp:77] Creating layer pool2/3x3_s2_pool2/3x3_s2_0_split
I0913 20:11:50.296170 32511 net.cpp:91] Creating Layer pool2/3x3_s2_pool2/3x3_s2_0_split
I0913 20:11:50.296175 32511 net.cpp:425] pool2/3x3_s2_pool2/3x3_s2_0_split <- pool2/3x3_s2
I0913 20:11:50.296182 32511 net.cpp:399] pool2/3x3_s2_pool2/3x3_s2_0_split -> pool2/3x3_s2_pool2/3x3_s2_0_split_0
I0913 20:11:50.296191 32511 net.cpp:399] pool2/3x3_s2_pool2/3x3_s2_0_split -> pool2/3x3_s2_pool2/3x3_s2_0_split_1
I0913 20:11:50.296200 32511 net.cpp:399] pool2/3x3_s2_pool2/3x3_s2_0_split -> pool2/3x3_s2_pool2/3x3_s2_0_split_2
I0913 20:11:50.296206 32511 net.cpp:399] pool2/3x3_s2_pool2/3x3_s2_0_split -> pool2/3x3_s2_pool2/3x3_s2_0_split_3
I0913 20:11:50.296275 32511 net.cpp:141] Setting up pool2/3x3_s2_pool2/3x3_s2_0_split
I0913 20:11:50.296283 32511 net.cpp:148] Top shape: 10 192 28 28 (1505280)
I0913 20:11:50.296289 32511 net.cpp:148] Top shape: 10 192 28 28 (1505280)
I0913 20:11:50.296295 32511 net.cpp:148] Top shape: 10 192 28 28 (1505280)
I0913 20:11:50.296300 32511 net.cpp:148] Top shape: 10 192 28 28 (1505280)
I0913 20:11:50.296304 32511 net.cpp:156] Memory required for data: 204718080
I0913 20:11:50.296309 32511 layer_factory.hpp:77] Creating layer inception_3a/1x1
I0913 20:11:50.296324 32511 net.cpp:91] Creating Layer inception_3a/1x1
I0913 20:11:50.296329 32511 net.cpp:425] inception_3a/1x1 <- pool2/3x3_s2_pool2/3x3_s2_0_split_0
I0913 20:11:50.296352 32511 net.cpp:399] inception_3a/1x1 -> inception_3a/1x1
I0913 20:11:50.298246 32511 net.cpp:141] Setting up inception_3a/1x1
I0913 20:11:50.298265 32511 net.cpp:148] Top shape: 10 64 28 28 (501760)
I0913 20:11:50.298270 32511 net.cpp:156] Memory required for data: 206725120
I0913 20:11:50.298280 32511 layer_factory.hpp:77] Creating layer inception_3a/relu_1x1
I0913 20:11:50.298287 32511 net.cpp:91] Creating Layer inception_3a/relu_1x1
I0913 20:11:50.298292 32511 net.cpp:425] inception_3a/relu_1x1 <- inception_3a/1x1
I0913 20:11:50.298300 32511 net.cpp:386] inception_3a/relu_1x1 -> inception_3a/1x1 (in-place)
I0913 20:11:50.298681 32511 net.cpp:141] Setting up inception_3a/relu_1x1
I0913 20:11:50.298692 32511 net.cpp:148] Top shape: 10 64 28 28 (501760)
I0913 20:11:50.298696 32511 net.cpp:156] Memory required for data: 208732160
I0913 20:11:50.298702 32511 layer_factory.hpp:77] Creating layer inception_3a/3x3_reduce
I0913 20:11:50.298717 32511 net.cpp:91] Creating Layer inception_3a/3x3_reduce
I0913 20:11:50.298722 32511 net.cpp:425] inception_3a/3x3_reduce <- pool2/3x3_s2_pool2/3x3_s2_0_split_1
I0913 20:11:50.298733 32511 net.cpp:399] inception_3a/3x3_reduce -> inception_3a/3x3_reduce
I0913 20:11:50.301095 32511 net.cpp:141] Setting up inception_3a/3x3_reduce
I0913 20:11:50.301113 32511 net.cpp:148] Top shape: 10 96 28 28 (752640)
I0913 20:11:50.301118 32511 net.cpp:156] Memory required for data: 211742720
I0913 20:11:50.301131 32511 layer_factory.hpp:77] Creating layer inception_3a/relu_3x3_reduce
I0913 20:11:50.301143 32511 net.cpp:91] Creating Layer inception_3a/relu_3x3_reduce
I0913 20:11:50.301149 32511 net.cpp:425] inception_3a/relu_3x3_reduce <- inception_3a/3x3_reduce
I0913 20:11:50.301156 32511 net.cpp:386] inception_3a/relu_3x3_reduce -> inception_3a/3x3_reduce (in-place)
I0913 20:11:50.301388 32511 net.cpp:141] Setting up inception_3a/relu_3x3_reduce
I0913 20:11:50.301398 32511 net.cpp:148] Top shape: 10 96 28 28 (752640)
I0913 20:11:50.301403 32511 net.cpp:156] Memory required for data: 214753280
I0913 20:11:50.301409 32511 layer_factory.hpp:77] Creating layer inception_3a/3x3
I0913 20:11:50.301426 32511 net.cpp:91] Creating Layer inception_3a/3x3
I0913 20:11:50.301432 32511 net.cpp:425] inception_3a/3x3 <- inception_3a/3x3_reduce
I0913 20:11:50.301440 32511 net.cpp:399] inception_3a/3x3 -> inception_3a/3x3
I0913 20:11:50.303558 32511 net.cpp:141] Setting up inception_3a/3x3
I0913 20:11:50.303575 32511 net.cpp:148] Top shape: 10 128 28 28 (1003520)
I0913 20:11:50.303580 32511 net.cpp:156] Memory required for data: 218767360
I0913 20:11:50.303588 32511 layer_factory.hpp:77] Creating layer inception_3a/relu_3x3
I0913 20:11:50.303596 32511 net.cpp:91] Creating Layer inception_3a/relu_3x3
I0913 20:11:50.303602 32511 net.cpp:425] inception_3a/relu_3x3 <- inception_3a/3x3
I0913 20:11:50.303611 32511 net.cpp:386] inception_3a/relu_3x3 -> inception_3a/3x3 (in-place)
I0913 20:11:50.303985 32511 net.cpp:141] Setting up inception_3a/relu_3x3
I0913 20:11:50.303997 32511 net.cpp:148] Top shape: 10 128 28 28 (1003520)
I0913 20:11:50.304003 32511 net.cpp:156] Memory required for data: 222781440
I0913 20:11:50.304008 32511 layer_factory.hpp:77] Creating layer inception_3a/5x5_reduce
I0913 20:11:50.304023 32511 net.cpp:91] Creating Layer inception_3a/5x5_reduce
I0913 20:11:50.304028 32511 net.cpp:425] inception_3a/5x5_reduce <- pool2/3x3_s2_pool2/3x3_s2_0_split_2
I0913 20:11:50.304039 32511 net.cpp:399] inception_3a/5x5_reduce -> inception_3a/5x5_reduce
I0913 20:11:50.305266 32511 net.cpp:141] Setting up inception_3a/5x5_reduce
I0913 20:11:50.305284 32511 net.cpp:148] Top shape: 10 16 28 28 (125440)
I0913 20:11:50.305287 32511 net.cpp:156] Memory required for data: 223283200
I0913 20:11:50.305296 32511 layer_factory.hpp:77] Creating layer inception_3a/relu_5x5_reduce
I0913 20:11:50.305306 32511 net.cpp:91] Creating Layer inception_3a/relu_5x5_reduce
I0913 20:11:50.305312 32511 net.cpp:425] inception_3a/relu_5x5_reduce <- inception_3a/5x5_reduce
I0913 20:11:50.305320 32511 net.cpp:386] inception_3a/relu_5x5_reduce -> inception_3a/5x5_reduce (in-place)
I0913 20:11:50.305697 32511 net.cpp:141] Setting up inception_3a/relu_5x5_reduce
I0913 20:11:50.305709 32511 net.cpp:148] Top shape: 10 16 28 28 (125440)
I0913 20:11:50.305713 32511 net.cpp:156] Memory required for data: 223784960
I0913 20:11:50.305718 32511 layer_factory.hpp:77] Creating layer inception_3a/5x5
I0913 20:11:50.305733 32511 net.cpp:91] Creating Layer inception_3a/5x5
I0913 20:11:50.305738 32511 net.cpp:425] inception_3a/5x5 <- inception_3a/5x5_reduce
I0913 20:11:50.305750 32511 net.cpp:399] inception_3a/5x5 -> inception_3a/5x5
I0913 20:11:50.307624 32511 net.cpp:141] Setting up inception_3a/5x5
I0913 20:11:50.307643 32511 net.cpp:148] Top shape: 10 32 28 28 (250880)
I0913 20:11:50.307648 32511 net.cpp:156] Memory required for data: 224788480
I0913 20:11:50.307657 32511 layer_factory.hpp:77] Creating layer inception_3a/relu_5x5
I0913 20:11:50.307667 32511 net.cpp:91] Creating Layer inception_3a/relu_5x5
I0913 20:11:50.307672 32511 net.cpp:425] inception_3a/relu_5x5 <- inception_3a/5x5
I0913 20:11:50.307679 32511 net.cpp:386] inception_3a/relu_5x5 -> inception_3a/5x5 (in-place)
I0913 20:11:50.307909 32511 net.cpp:141] Setting up inception_3a/relu_5x5
I0913 20:11:50.307920 32511 net.cpp:148] Top shape: 10 32 28 28 (250880)
I0913 20:11:50.307924 32511 net.cpp:156] Memory required for data: 225792000
I0913 20:11:50.307929 32511 layer_factory.hpp:77] Creating layer inception_3a/pool
I0913 20:11:50.307941 32511 net.cpp:91] Creating Layer inception_3a/pool
I0913 20:11:50.307946 32511 net.cpp:425] inception_3a/pool <- pool2/3x3_s2_pool2/3x3_s2_0_split_3
I0913 20:11:50.307953 32511 net.cpp:399] inception_3a/pool -> inception_3a/pool
I0913 20:11:50.308010 32511 net.cpp:141] Setting up inception_3a/pool
I0913 20:11:50.308019 32511 net.cpp:148] Top shape: 10 192 28 28 (1505280)
I0913 20:11:50.308023 32511 net.cpp:156] Memory required for data: 231813120
I0913 20:11:50.308028 32511 layer_factory.hpp:77] Creating layer inception_3a/pool_proj
I0913 20:11:50.308043 32511 net.cpp:91] Creating Layer inception_3a/pool_proj
I0913 20:11:50.308048 32511 net.cpp:425] inception_3a/pool_proj <- inception_3a/pool
I0913 20:11:50.308058 32511 net.cpp:399] inception_3a/pool_proj -> inception_3a/pool_proj
I0913 20:11:50.309458 32511 net.cpp:141] Setting up inception_3a/pool_proj
I0913 20:11:50.309475 32511 net.cpp:148] Top shape: 10 32 28 28 (250880)
I0913 20:11:50.309480 32511 net.cpp:156] Memory required for data: 232816640
I0913 20:11:50.309495 32511 layer_factory.hpp:77] Creating layer inception_3a/relu_pool_proj
I0913 20:11:50.309504 32511 net.cpp:91] Creating Layer inception_3a/relu_pool_proj
I0913 20:11:50.309510 32511 net.cpp:425] inception_3a/relu_pool_proj <- inception_3a/pool_proj
I0913 20:11:50.309521 32511 net.cpp:386] inception_3a/relu_pool_proj -> inception_3a/pool_proj (in-place)
I0913 20:11:50.309902 32511 net.cpp:141] Setting up inception_3a/relu_pool_proj
I0913 20:11:50.309914 32511 net.cpp:148] Top shape: 10 32 28 28 (250880)
I0913 20:11:50.309919 32511 net.cpp:156] Memory required for data: 233820160
I0913 20:11:50.309924 32511 layer_factory.hpp:77] Creating layer inception_3a/output
I0913 20:11:50.309942 32511 net.cpp:91] Creating Layer inception_3a/output
I0913 20:11:50.309947 32511 net.cpp:425] inception_3a/output <- inception_3a/1x1
I0913 20:11:50.309954 32511 net.cpp:425] inception_3a/output <- inception_3a/3x3
I0913 20:11:50.309959 32511 net.cpp:425] inception_3a/output <- inception_3a/5x5
I0913 20:11:50.309964 32511 net.cpp:425] inception_3a/output <- inception_3a/pool_proj
I0913 20:11:50.309973 32511 net.cpp:399] inception_3a/output -> inception_3a/output
I0913 20:11:50.310010 32511 net.cpp:141] Setting up inception_3a/output
I0913 20:11:50.310019 32511 net.cpp:148] Top shape: 10 256 28 28 (2007040)
I0913 20:11:50.310024 32511 net.cpp:156] Memory required for data: 241848320
I0913 20:11:50.310029 32511 layer_factory.hpp:77] Creating layer inception_3a/output_inception_3a/output_0_split
I0913 20:11:50.310042 32511 net.cpp:91] Creating Layer inception_3a/output_inception_3a/output_0_split
I0913 20:11:50.310047 32511 net.cpp:425] inception_3a/output_inception_3a/output_0_split <- inception_3a/output
I0913 20:11:50.310055 32511 net.cpp:399] inception_3a/output_inception_3a/output_0_split -> inception_3a/output_inception_3a/output_0_split_0
I0913 20:11:50.310065 32511 net.cpp:399] inception_3a/output_inception_3a/output_0_split -> inception_3a/output_inception_3a/output_0_split_1
I0913 20:11:50.310075 32511 net.cpp:399] inception_3a/output_inception_3a/output_0_split -> inception_3a/output_inception_3a/output_0_split_2
I0913 20:11:50.310082 32511 net.cpp:399] inception_3a/output_inception_3a/output_0_split -> inception_3a/output_inception_3a/output_0_split_3
I0913 20:11:50.310155 32511 net.cpp:141] Setting up inception_3a/output_inception_3a/output_0_split
I0913 20:11:50.310164 32511 net.cpp:148] Top shape: 10 256 28 28 (2007040)
I0913 20:11:50.310170 32511 net.cpp:148] Top shape: 10 256 28 28 (2007040)
I0913 20:11:50.310175 32511 net.cpp:148] Top shape: 10 256 28 28 (2007040)
I0913 20:11:50.310180 32511 net.cpp:148] Top shape: 10 256 28 28 (2007040)
I0913 20:11:50.310184 32511 net.cpp:156] Memory required for data: 273960960
I0913 20:11:50.310189 32511 layer_factory.hpp:77] Creating layer inception_3b/1x1
I0913 20:11:50.310202 32511 net.cpp:91] Creating Layer inception_3b/1x1
I0913 20:11:50.310209 32511 net.cpp:425] inception_3b/1x1 <- inception_3a/output_inception_3a/output_0_split_0
I0913 20:11:50.310220 32511 net.cpp:399] inception_3b/1x1 -> inception_3b/1x1
I0913 20:11:50.311645 32511 net.cpp:141] Setting up inception_3b/1x1
I0913 20:11:50.311661 32511 net.cpp:148] Top shape: 10 128 28 28 (1003520)
I0913 20:11:50.311666 32511 net.cpp:156] Memory required for data: 277975040
I0913 20:11:50.311676 32511 layer_factory.hpp:77] Creating layer inception_3b/relu_1x1
I0913 20:11:50.311687 32511 net.cpp:91] Creating Layer inception_3b/relu_1x1
I0913 20:11:50.311692 32511 net.cpp:425] inception_3b/relu_1x1 <- inception_3b/1x1
I0913 20:11:50.311699 32511 net.cpp:386] inception_3b/relu_1x1 -> inception_3b/1x1 (in-place)
I0913 20:11:50.312083 32511 net.cpp:141] Setting up inception_3b/relu_1x1
I0913 20:11:50.312096 32511 net.cpp:148] Top shape: 10 128 28 28 (1003520)
I0913 20:11:50.312100 32511 net.cpp:156] Memory required for data: 281989120
I0913 20:11:50.312106 32511 layer_factory.hpp:77] Creating layer inception_3b/3x3_reduce
I0913 20:11:50.312121 32511 net.cpp:91] Creating Layer inception_3b/3x3_reduce
I0913 20:11:50.312127 32511 net.cpp:425] inception_3b/3x3_reduce <- inception_3a/output_inception_3a/output_0_split_1
I0913 20:11:50.312139 32511 net.cpp:399] inception_3b/3x3_reduce -> inception_3b/3x3_reduce
I0913 20:11:50.313730 32511 net.cpp:141] Setting up inception_3b/3x3_reduce
I0913 20:11:50.313746 32511 net.cpp:148] Top shape: 10 128 28 28 (1003520)
I0913 20:11:50.313751 32511 net.cpp:156] Memory required for data: 286003200
I0913 20:11:50.313760 32511 layer_factory.hpp:77] Creating layer inception_3b/relu_3x3_reduce
I0913 20:11:50.313767 32511 net.cpp:91] Creating Layer inception_3b/relu_3x3_reduce
I0913 20:11:50.313772 32511 net.cpp:425] inception_3b/relu_3x3_reduce <- inception_3b/3x3_reduce
I0913 20:11:50.313779 32511 net.cpp:386] inception_3b/relu_3x3_reduce -> inception_3b/3x3_reduce (in-place)
I0913 20:11:50.314005 32511 net.cpp:141] Setting up inception_3b/relu_3x3_reduce
I0913 20:11:50.314016 32511 net.cpp:148] Top shape: 10 128 28 28 (1003520)
I0913 20:11:50.314021 32511 net.cpp:156] Memory required for data: 290017280
I0913 20:11:50.314026 32511 layer_factory.hpp:77] Creating layer inception_3b/3x3
I0913 20:11:50.314040 32511 net.cpp:91] Creating Layer inception_3b/3x3
I0913 20:11:50.314046 32511 net.cpp:425] inception_3b/3x3 <- inception_3b/3x3_reduce
I0913 20:11:50.314057 32511 net.cpp:399] inception_3b/3x3 -> inception_3b/3x3
I0913 20:11:50.317718 32511 net.cpp:141] Setting up inception_3b/3x3
I0913 20:11:50.317735 32511 net.cpp:148] Top shape: 10 192 28 28 (1505280)
I0913 20:11:50.317740 32511 net.cpp:156] Memory required for data: 296038400
I0913 20:11:50.317750 32511 layer_factory.hpp:77] Creating layer inception_3b/relu_3x3
I0913 20:11:50.317769 32511 net.cpp:91] Creating Layer inception_3b/relu_3x3
I0913 20:11:50.317775 32511 net.cpp:425] inception_3b/relu_3x3 <- inception_3b/3x3
I0913 20:11:50.317781 32511 net.cpp:386] inception_3b/relu_3x3 -> inception_3b/3x3 (in-place)
I0913 20:11:50.318162 32511 net.cpp:141] Setting up inception_3b/relu_3x3
I0913 20:11:50.318174 32511 net.cpp:148] Top shape: 10 192 28 28 (1505280)
I0913 20:11:50.318179 32511 net.cpp:156] Memory required for data: 302059520
I0913 20:11:50.318183 32511 layer_factory.hpp:77] Creating layer inception_3b/5x5_reduce
I0913 20:11:50.318198 32511 net.cpp:91] Creating Layer inception_3b/5x5_reduce
I0913 20:11:50.318204 32511 net.cpp:425] inception_3b/5x5_reduce <- inception_3a/output_inception_3a/output_0_split_2
I0913 20:11:50.318217 32511 net.cpp:399] inception_3b/5x5_reduce -> inception_3b/5x5_reduce
I0913 20:11:50.319434 32511 net.cpp:141] Setting up inception_3b/5x5_reduce
I0913 20:11:50.319452 32511 net.cpp:148] Top shape: 10 32 28 28 (250880)
I0913 20:11:50.319455 32511 net.cpp:156] Memory required for data: 303063040
I0913 20:11:50.319463 32511 layer_factory.hpp:77] Creating layer inception_3b/relu_5x5_reduce
I0913 20:11:50.319478 32511 net.cpp:91] Creating Layer inception_3b/relu_5x5_reduce
I0913 20:11:50.319483 32511 net.cpp:425] inception_3b/relu_5x5_reduce <- inception_3b/5x5_reduce
I0913 20:11:50.319490 32511 net.cpp:386] inception_3b/relu_5x5_reduce -> inception_3b/5x5_reduce (in-place)
I0913 20:11:50.319866 32511 net.cpp:141] Setting up inception_3b/relu_5x5_reduce
I0913 20:11:50.319881 32511 net.cpp:148] Top shape: 10 32 28 28 (250880)
I0913 20:11:50.319886 32511 net.cpp:156] Memory required for data: 304066560
I0913 20:11:50.319891 32511 layer_factory.hpp:77] Creating layer inception_3b/5x5
I0913 20:11:50.319906 32511 net.cpp:91] Creating Layer inception_3b/5x5
I0913 20:11:50.319912 32511 net.cpp:425] inception_3b/5x5 <- inception_3b/5x5_reduce
I0913 20:11:50.319921 32511 net.cpp:399] inception_3b/5x5 -> inception_3b/5x5
I0913 20:11:50.322491 32511 net.cpp:141] Setting up inception_3b/5x5
I0913 20:11:50.322509 32511 net.cpp:148] Top shape: 10 96 28 28 (752640)
I0913 20:11:50.322513 32511 net.cpp:156] Memory required for data: 307077120
I0913 20:11:50.322522 32511 layer_factory.hpp:77] Creating layer inception_3b/relu_5x5
I0913 20:11:50.322533 32511 net.cpp:91] Creating Layer inception_3b/relu_5x5
I0913 20:11:50.322540 32511 net.cpp:425] inception_3b/relu_5x5 <- inception_3b/5x5
I0913 20:11:50.322546 32511 net.cpp:386] inception_3b/relu_5x5 -> inception_3b/5x5 (in-place)
I0913 20:11:50.322770 32511 net.cpp:141] Setting up inception_3b/relu_5x5
I0913 20:11:50.322782 32511 net.cpp:148] Top shape: 10 96 28 28 (752640)
I0913 20:11:50.322785 32511 net.cpp:156] Memory required for data: 310087680
I0913 20:11:50.322790 32511 layer_factory.hpp:77] Creating layer inception_3b/pool
I0913 20:11:50.322803 32511 net.cpp:91] Creating Layer inception_3b/pool
I0913 20:11:50.322809 32511 net.cpp:425] inception_3b/pool <- inception_3a/output_inception_3a/output_0_split_3
I0913 20:11:50.322818 32511 net.cpp:399] inception_3b/pool -> inception_3b/pool
I0913 20:11:50.322875 32511 net.cpp:141] Setting up inception_3b/pool
I0913 20:11:50.322885 32511 net.cpp:148] Top shape: 10 256 28 28 (2007040)
I0913 20:11:50.322888 32511 net.cpp:156] Memory required for data: 318115840
I0913 20:11:50.322893 32511 layer_factory.hpp:77] Creating layer inception_3b/pool_proj
I0913 20:11:50.322906 32511 net.cpp:91] Creating Layer inception_3b/pool_proj
I0913 20:11:50.322911 32511 net.cpp:425] inception_3b/pool_proj <- inception_3b/pool
I0913 20:11:50.322922 32511 net.cpp:399] inception_3b/pool_proj -> inception_3b/pool_proj
I0913 20:11:50.324380 32511 net.cpp:141] Setting up inception_3b/pool_proj
I0913 20:11:50.324398 32511 net.cpp:148] Top shape: 10 64 28 28 (501760)
I0913 20:11:50.324404 32511 net.cpp:156] Memory required for data: 320122880
I0913 20:11:50.324412 32511 layer_factory.hpp:77] Creating layer inception_3b/relu_pool_proj
I0913 20:11:50.324420 32511 net.cpp:91] Creating Layer inception_3b/relu_pool_proj
I0913 20:11:50.324425 32511 net.cpp:425] inception_3b/relu_pool_proj <- inception_3b/pool_proj
I0913 20:11:50.324432 32511 net.cpp:386] inception_3b/relu_pool_proj -> inception_3b/pool_proj (in-place)
I0913 20:11:50.324816 32511 net.cpp:141] Setting up inception_3b/relu_pool_proj
I0913 20:11:50.324828 32511 net.cpp:148] Top shape: 10 64 28 28 (501760)
I0913 20:11:50.324832 32511 net.cpp:156] Memory required for data: 322129920
I0913 20:11:50.324837 32511 layer_factory.hpp:77] Creating layer inception_3b/output
I0913 20:11:50.324846 32511 net.cpp:91] Creating Layer inception_3b/output
I0913 20:11:50.324851 32511 net.cpp:425] inception_3b/output <- inception_3b/1x1
I0913 20:11:50.324858 32511 net.cpp:425] inception_3b/output <- inception_3b/3x3
I0913 20:11:50.324863 32511 net.cpp:425] inception_3b/output <- inception_3b/5x5
I0913 20:11:50.324868 32511 net.cpp:425] inception_3b/output <- inception_3b/pool_proj
I0913 20:11:50.324874 32511 net.cpp:399] inception_3b/output -> inception_3b/output
I0913 20:11:50.324916 32511 net.cpp:141] Setting up inception_3b/output
I0913 20:11:50.324925 32511 net.cpp:148] Top shape: 10 480 28 28 (3763200)
I0913 20:11:50.324933 32511 net.cpp:156] Memory required for data: 337182720
I0913 20:11:50.324937 32511 layer_factory.hpp:77] Creating layer pool3/3x3_s2
I0913 20:11:50.324945 32511 net.cpp:91] Creating Layer pool3/3x3_s2
I0913 20:11:50.324950 32511 net.cpp:425] pool3/3x3_s2 <- inception_3b/output
I0913 20:11:50.324957 32511 net.cpp:399] pool3/3x3_s2 -> pool3/3x3_s2
I0913 20:11:50.325014 32511 net.cpp:141] Setting up pool3/3x3_s2
I0913 20:11:50.325024 32511 net.cpp:148] Top shape: 10 480 14 14 (940800)
I0913 20:11:50.325028 32511 net.cpp:156] Memory required for data: 340945920
I0913 20:11:50.325032 32511 layer_factory.hpp:77] Creating layer pool3/3x3_s2_pool3/3x3_s2_0_split
I0913 20:11:50.325045 32511 net.cpp:91] Creating Layer pool3/3x3_s2_pool3/3x3_s2_0_split
I0913 20:11:50.325050 32511 net.cpp:425] pool3/3x3_s2_pool3/3x3_s2_0_split <- pool3/3x3_s2
I0913 20:11:50.325057 32511 net.cpp:399] pool3/3x3_s2_pool3/3x3_s2_0_split -> pool3/3x3_s2_pool3/3x3_s2_0_split_0
I0913 20:11:50.325064 32511 net.cpp:399] pool3/3x3_s2_pool3/3x3_s2_0_split -> pool3/3x3_s2_pool3/3x3_s2_0_split_1
I0913 20:11:50.325074 32511 net.cpp:399] pool3/3x3_s2_pool3/3x3_s2_0_split -> pool3/3x3_s2_pool3/3x3_s2_0_split_2
I0913 20:11:50.325083 32511 net.cpp:399] pool3/3x3_s2_pool3/3x3_s2_0_split -> pool3/3x3_s2_pool3/3x3_s2_0_split_3
I0913 20:11:50.325155 32511 net.cpp:141] Setting up pool3/3x3_s2_pool3/3x3_s2_0_split
I0913 20:11:50.325163 32511 net.cpp:148] Top shape: 10 480 14 14 (940800)
I0913 20:11:50.325170 32511 net.cpp:148] Top shape: 10 480 14 14 (940800)
I0913 20:11:50.325175 32511 net.cpp:148] Top shape: 10 480 14 14 (940800)
I0913 20:11:50.325179 32511 net.cpp:148] Top shape: 10 480 14 14 (940800)
I0913 20:11:50.325183 32511 net.cpp:156] Memory required for data: 355998720
I0913 20:11:50.325187 32511 layer_factory.hpp:77] Creating layer inception_4a/1x1
I0913 20:11:50.325201 32511 net.cpp:91] Creating Layer inception_4a/1x1
I0913 20:11:50.325206 32511 net.cpp:425] inception_4a/1x1 <- pool3/3x3_s2_pool3/3x3_s2_0_split_0
I0913 20:11:50.325220 32511 net.cpp:399] inception_4a/1x1 -> inception_4a/1x1
I0913 20:11:50.327311 32511 net.cpp:141] Setting up inception_4a/1x1
I0913 20:11:50.327327 32511 net.cpp:148] Top shape: 10 192 14 14 (376320)
I0913 20:11:50.327332 32511 net.cpp:156] Memory required for data: 357504000
I0913 20:11:50.327340 32511 layer_factory.hpp:77] Creating layer inception_4a/relu_1x1
I0913 20:11:50.327348 32511 net.cpp:91] Creating Layer inception_4a/relu_1x1
I0913 20:11:50.327354 32511 net.cpp:425] inception_4a/relu_1x1 <- inception_4a/1x1
I0913 20:11:50.327364 32511 net.cpp:386] inception_4a/relu_1x1 -> inception_4a/1x1 (in-place)
I0913 20:11:50.327751 32511 net.cpp:141] Setting up inception_4a/relu_1x1
I0913 20:11:50.327764 32511 net.cpp:148] Top shape: 10 192 14 14 (376320)
I0913 20:11:50.327769 32511 net.cpp:156] Memory required for data: 359009280
I0913 20:11:50.327774 32511 layer_factory.hpp:77] Creating layer inception_4a/3x3_reduce
I0913 20:11:50.327788 32511 net.cpp:91] Creating Layer inception_4a/3x3_reduce
I0913 20:11:50.327795 32511 net.cpp:425] inception_4a/3x3_reduce <- pool3/3x3_s2_pool3/3x3_s2_0_split_1
I0913 20:11:50.327805 32511 net.cpp:399] inception_4a/3x3_reduce -> inception_4a/3x3_reduce
I0913 20:11:50.329507 32511 net.cpp:141] Setting up inception_4a/3x3_reduce
I0913 20:11:50.329521 32511 net.cpp:148] Top shape: 10 96 14 14 (188160)
I0913 20:11:50.329525 32511 net.cpp:156] Memory required for data: 359761920
I0913 20:11:50.329546 32511 layer_factory.hpp:77] Creating layer inception_4a/relu_3x3_reduce
I0913 20:11:50.329555 32511 net.cpp:91] Creating Layer inception_4a/relu_3x3_reduce
I0913 20:11:50.329561 32511 net.cpp:425] inception_4a/relu_3x3_reduce <- inception_4a/3x3_reduce
I0913 20:11:50.329567 32511 net.cpp:386] inception_4a/relu_3x3_reduce -> inception_4a/3x3_reduce (in-place)
I0913 20:11:50.329783 32511 net.cpp:141] Setting up inception_4a/relu_3x3_reduce
I0913 20:11:50.329794 32511 net.cpp:148] Top shape: 10 96 14 14 (188160)
I0913 20:11:50.329798 32511 net.cpp:156] Memory required for data: 360514560
I0913 20:11:50.329803 32511 layer_factory.hpp:77] Creating layer inception_4a/3x3
I0913 20:11:50.329818 32511 net.cpp:91] Creating Layer inception_4a/3x3
I0913 20:11:50.329823 32511 net.cpp:425] inception_4a/3x3 <- inception_4a/3x3_reduce
I0913 20:11:50.329834 32511 net.cpp:399] inception_4a/3x3 -> inception_4a/3x3
I0913 20:11:50.333223 32511 net.cpp:141] Setting up inception_4a/3x3
I0913 20:11:50.333237 32511 net.cpp:148] Top shape: 10 208 14 14 (407680)
I0913 20:11:50.333242 32511 net.cpp:156] Memory required for data: 362145280
I0913 20:11:50.333250 32511 layer_factory.hpp:77] Creating layer inception_4a/relu_3x3
I0913 20:11:50.333259 32511 net.cpp:91] Creating Layer inception_4a/relu_3x3
I0913 20:11:50.333264 32511 net.cpp:425] inception_4a/relu_3x3 <- inception_4a/3x3
I0913 20:11:50.333273 32511 net.cpp:386] inception_4a/relu_3x3 -> inception_4a/3x3 (in-place)
I0913 20:11:50.333657 32511 net.cpp:141] Setting up inception_4a/relu_3x3
I0913 20:11:50.333668 32511 net.cpp:148] Top shape: 10 208 14 14 (407680)
I0913 20:11:50.333673 32511 net.cpp:156] Memory required for data: 363776000
I0913 20:11:50.333678 32511 layer_factory.hpp:77] Creating layer inception_4a/5x5_reduce
I0913 20:11:50.333693 32511 net.cpp:91] Creating Layer inception_4a/5x5_reduce
I0913 20:11:50.333698 32511 net.cpp:425] inception_4a/5x5_reduce <- pool3/3x3_s2_pool3/3x3_s2_0_split_2
I0913 20:11:50.333710 32511 net.cpp:399] inception_4a/5x5_reduce -> inception_4a/5x5_reduce
I0913 20:11:50.334954 32511 net.cpp:141] Setting up inception_4a/5x5_reduce
I0913 20:11:50.334971 32511 net.cpp:148] Top shape: 10 16 14 14 (31360)
I0913 20:11:50.334976 32511 net.cpp:156] Memory required for data: 363901440
I0913 20:11:50.334985 32511 layer_factory.hpp:77] Creating layer inception_4a/relu_5x5_reduce
I0913 20:11:50.334995 32511 net.cpp:91] Creating Layer inception_4a/relu_5x5_reduce
I0913 20:11:50.335001 32511 net.cpp:425] inception_4a/relu_5x5_reduce <- inception_4a/5x5_reduce
I0913 20:11:50.335008 32511 net.cpp:386] inception_4a/relu_5x5_reduce -> inception_4a/5x5_reduce (in-place)
I0913 20:11:50.335388 32511 net.cpp:141] Setting up inception_4a/relu_5x5_reduce
I0913 20:11:50.335405 32511 net.cpp:148] Top shape: 10 16 14 14 (31360)
I0913 20:11:50.335410 32511 net.cpp:156] Memory required for data: 364026880
I0913 20:11:50.335415 32511 layer_factory.hpp:77] Creating layer inception_4a/5x5
I0913 20:11:50.335433 32511 net.cpp:91] Creating Layer inception_4a/5x5
I0913 20:11:50.335438 32511 net.cpp:425] inception_4a/5x5 <- inception_4a/5x5_reduce
I0913 20:11:50.335446 32511 net.cpp:399] inception_4a/5x5 -> inception_4a/5x5
I0913 20:11:50.336933 32511 net.cpp:141] Setting up inception_4a/5x5
I0913 20:11:50.336951 32511 net.cpp:148] Top shape: 10 48 14 14 (94080)
I0913 20:11:50.336959 32511 net.cpp:156] Memory required for data: 364403200
I0913 20:11:50.336968 32511 layer_factory.hpp:77] Creating layer inception_4a/relu_5x5
I0913 20:11:50.336977 32511 net.cpp:91] Creating Layer inception_4a/relu_5x5
I0913 20:11:50.336982 32511 net.cpp:425] inception_4a/relu_5x5 <- inception_4a/5x5
I0913 20:11:50.336989 32511 net.cpp:386] inception_4a/relu_5x5 -> inception_4a/5x5 (in-place)
I0913 20:11:50.337213 32511 net.cpp:141] Setting up inception_4a/relu_5x5
I0913 20:11:50.337224 32511 net.cpp:148] Top shape: 10 48 14 14 (94080)
I0913 20:11:50.337229 32511 net.cpp:156] Memory required for data: 364779520
I0913 20:11:50.337234 32511 layer_factory.hpp:77] Creating layer inception_4a/pool
I0913 20:11:50.337241 32511 net.cpp:91] Creating Layer inception_4a/pool
I0913 20:11:50.337246 32511 net.cpp:425] inception_4a/pool <- pool3/3x3_s2_pool3/3x3_s2_0_split_3
I0913 20:11:50.337256 32511 net.cpp:399] inception_4a/pool -> inception_4a/pool
I0913 20:11:50.337313 32511 net.cpp:141] Setting up inception_4a/pool
I0913 20:11:50.337323 32511 net.cpp:148] Top shape: 10 480 14 14 (940800)
I0913 20:11:50.337328 32511 net.cpp:156] Memory required for data: 368542720
I0913 20:11:50.337332 32511 layer_factory.hpp:77] Creating layer inception_4a/pool_proj
I0913 20:11:50.337347 32511 net.cpp:91] Creating Layer inception_4a/pool_proj
I0913 20:11:50.337352 32511 net.cpp:425] inception_4a/pool_proj <- inception_4a/pool
I0913 20:11:50.337360 32511 net.cpp:399] inception_4a/pool_proj -> inception_4a/pool_proj
I0913 20:11:50.338922 32511 net.cpp:141] Setting up inception_4a/pool_proj
I0913 20:11:50.338938 32511 net.cpp:148] Top shape: 10 64 14 14 (125440)
I0913 20:11:50.338943 32511 net.cpp:156] Memory required for data: 369044480
I0913 20:11:50.338951 32511 layer_factory.hpp:77] Creating layer inception_4a/relu_pool_proj
I0913 20:11:50.338963 32511 net.cpp:91] Creating Layer inception_4a/relu_pool_proj
I0913 20:11:50.338969 32511 net.cpp:425] inception_4a/relu_pool_proj <- inception_4a/pool_proj
I0913 20:11:50.338976 32511 net.cpp:386] inception_4a/relu_pool_proj -> inception_4a/pool_proj (in-place)
I0913 20:11:50.339360 32511 net.cpp:141] Setting up inception_4a/relu_pool_proj
I0913 20:11:50.339372 32511 net.cpp:148] Top shape: 10 64 14 14 (125440)
I0913 20:11:50.339376 32511 net.cpp:156] Memory required for data: 369546240
I0913 20:11:50.339381 32511 layer_factory.hpp:77] Creating layer inception_4a/output
I0913 20:11:50.339397 32511 net.cpp:91] Creating Layer inception_4a/output
I0913 20:11:50.339402 32511 net.cpp:425] inception_4a/output <- inception_4a/1x1
I0913 20:11:50.339408 32511 net.cpp:425] inception_4a/output <- inception_4a/3x3
I0913 20:11:50.339414 32511 net.cpp:425] inception_4a/output <- inception_4a/5x5
I0913 20:11:50.339419 32511 net.cpp:425] inception_4a/output <- inception_4a/pool_proj
I0913 20:11:50.339426 32511 net.cpp:399] inception_4a/output -> inception_4a/output
I0913 20:11:50.339467 32511 net.cpp:141] Setting up inception_4a/output
I0913 20:11:50.339474 32511 net.cpp:148] Top shape: 10 512 14 14 (1003520)
I0913 20:11:50.339479 32511 net.cpp:156] Memory required for data: 373560320
I0913 20:11:50.339483 32511 layer_factory.hpp:77] Creating layer inception_4a/output_inception_4a/output_0_split
I0913 20:11:50.339493 32511 net.cpp:91] Creating Layer inception_4a/output_inception_4a/output_0_split
I0913 20:11:50.339498 32511 net.cpp:425] inception_4a/output_inception_4a/output_0_split <- inception_4a/output
I0913 20:11:50.339509 32511 net.cpp:399] inception_4a/output_inception_4a/output_0_split -> inception_4a/output_inception_4a/output_0_split_0
I0913 20:11:50.339517 32511 net.cpp:399] inception_4a/output_inception_4a/output_0_split -> inception_4a/output_inception_4a/output_0_split_1
I0913 20:11:50.339525 32511 net.cpp:399] inception_4a/output_inception_4a/output_0_split -> inception_4a/output_inception_4a/output_0_split_2
I0913 20:11:50.339534 32511 net.cpp:399] inception_4a/output_inception_4a/output_0_split -> inception_4a/output_inception_4a/output_0_split_3
I0913 20:11:50.339615 32511 net.cpp:141] Setting up inception_4a/output_inception_4a/output_0_split
I0913 20:11:50.339624 32511 net.cpp:148] Top shape: 10 512 14 14 (1003520)
I0913 20:11:50.339630 32511 net.cpp:148] Top shape: 10 512 14 14 (1003520)
I0913 20:11:50.339635 32511 net.cpp:148] Top shape: 10 512 14 14 (1003520)
I0913 20:11:50.339640 32511 net.cpp:148] Top shape: 10 512 14 14 (1003520)
I0913 20:11:50.339643 32511 net.cpp:156] Memory required for data: 389616640
I0913 20:11:50.339648 32511 layer_factory.hpp:77] Creating layer inception_4b/1x1
I0913 20:11:50.339661 32511 net.cpp:91] Creating Layer inception_4b/1x1
I0913 20:11:50.339668 32511 net.cpp:425] inception_4b/1x1 <- inception_4a/output_inception_4a/output_0_split_0
I0913 20:11:50.339679 32511 net.cpp:399] inception_4b/1x1 -> inception_4b/1x1
I0913 20:11:50.341460 32511 net.cpp:141] Setting up inception_4b/1x1
I0913 20:11:50.341477 32511 net.cpp:148] Top shape: 10 160 14 14 (313600)
I0913 20:11:50.341481 32511 net.cpp:156] Memory required for data: 390871040
I0913 20:11:50.341490 32511 layer_factory.hpp:77] Creating layer inception_4b/relu_1x1
I0913 20:11:50.341501 32511 net.cpp:91] Creating Layer inception_4b/relu_1x1
I0913 20:11:50.341507 32511 net.cpp:425] inception_4b/relu_1x1 <- inception_4b/1x1
I0913 20:11:50.341514 32511 net.cpp:386] inception_4b/relu_1x1 -> inception_4b/1x1 (in-place)
I0913 20:11:50.341900 32511 net.cpp:141] Setting up inception_4b/relu_1x1
I0913 20:11:50.341913 32511 net.cpp:148] Top shape: 10 160 14 14 (313600)
I0913 20:11:50.341917 32511 net.cpp:156] Memory required for data: 392125440
I0913 20:11:50.341922 32511 layer_factory.hpp:77] Creating layer inception_4b/3x3_reduce
I0913 20:11:50.341936 32511 net.cpp:91] Creating Layer inception_4b/3x3_reduce
I0913 20:11:50.341943 32511 net.cpp:425] inception_4b/3x3_reduce <- inception_4a/output_inception_4a/output_0_split_1
I0913 20:11:50.341954 32511 net.cpp:399] inception_4b/3x3_reduce -> inception_4b/3x3_reduce
I0913 20:11:50.343757 32511 net.cpp:141] Setting up inception_4b/3x3_reduce
I0913 20:11:50.343773 32511 net.cpp:148] Top shape: 10 112 14 14 (219520)
I0913 20:11:50.343778 32511 net.cpp:156] Memory required for data: 393003520
I0913 20:11:50.343786 32511 layer_factory.hpp:77] Creating layer inception_4b/relu_3x3_reduce
I0913 20:11:50.343794 32511 net.cpp:91] Creating Layer inception_4b/relu_3x3_reduce
I0913 20:11:50.343801 32511 net.cpp:425] inception_4b/relu_3x3_reduce <- inception_4b/3x3_reduce
I0913 20:11:50.343808 32511 net.cpp:386] inception_4b/relu_3x3_reduce -> inception_4b/3x3_reduce (in-place)
I0913 20:11:50.344038 32511 net.cpp:141] Setting up inception_4b/relu_3x3_reduce
I0913 20:11:50.344048 32511 net.cpp:148] Top shape: 10 112 14 14 (219520)
I0913 20:11:50.344053 32511 net.cpp:156] Memory required for data: 393881600
I0913 20:11:50.344058 32511 layer_factory.hpp:77] Creating layer inception_4b/3x3
I0913 20:11:50.344079 32511 net.cpp:91] Creating Layer inception_4b/3x3
I0913 20:11:50.344085 32511 net.cpp:425] inception_4b/3x3 <- inception_4b/3x3_reduce
I0913 20:11:50.344096 32511 net.cpp:399] inception_4b/3x3 -> inception_4b/3x3
I0913 20:11:50.348130 32511 net.cpp:141] Setting up inception_4b/3x3
I0913 20:11:50.348147 32511 net.cpp:148] Top shape: 10 224 14 14 (439040)
I0913 20:11:50.348155 32511 net.cpp:156] Memory required for data: 395637760
I0913 20:11:50.348165 32511 layer_factory.hpp:77] Creating layer inception_4b/relu_3x3
I0913 20:11:50.348173 32511 net.cpp:91] Creating Layer inception_4b/relu_3x3
I0913 20:11:50.348178 32511 net.cpp:425] inception_4b/relu_3x3 <- inception_4b/3x3
I0913 20:11:50.348186 32511 net.cpp:386] inception_4b/relu_3x3 -> inception_4b/3x3 (in-place)
I0913 20:11:50.348589 32511 net.cpp:141] Setting up inception_4b/relu_3x3
I0913 20:11:50.348603 32511 net.cpp:148] Top shape: 10 224 14 14 (439040)
I0913 20:11:50.348608 32511 net.cpp:156] Memory required for data: 397393920
I0913 20:11:50.348613 32511 layer_factory.hpp:77] Creating layer inception_4b/5x5_reduce
I0913 20:11:50.348639 32511 net.cpp:91] Creating Layer inception_4b/5x5_reduce
I0913 20:11:50.348644 32511 net.cpp:425] inception_4b/5x5_reduce <- inception_4a/output_inception_4a/output_0_split_2
I0913 20:11:50.348654 32511 net.cpp:399] inception_4b/5x5_reduce -> inception_4b/5x5_reduce
I0913 20:11:50.350049 32511 net.cpp:141] Setting up inception_4b/5x5_reduce
I0913 20:11:50.350065 32511 net.cpp:148] Top shape: 10 24 14 14 (47040)
I0913 20:11:50.350070 32511 net.cpp:156] Memory required for data: 397582080
I0913 20:11:50.350080 32511 layer_factory.hpp:77] Creating layer inception_4b/relu_5x5_reduce
I0913 20:11:50.350087 32511 net.cpp:91] Creating Layer inception_4b/relu_5x5_reduce
I0913 20:11:50.350093 32511 net.cpp:425] inception_4b/relu_5x5_reduce <- inception_4b/5x5_reduce
I0913 20:11:50.350106 32511 net.cpp:386] inception_4b/relu_5x5_reduce -> inception_4b/5x5_reduce (in-place)
I0913 20:11:50.350495 32511 net.cpp:141] Setting up inception_4b/relu_5x5_reduce
I0913 20:11:50.350507 32511 net.cpp:148] Top shape: 10 24 14 14 (47040)
I0913 20:11:50.350512 32511 net.cpp:156] Memory required for data: 397770240
I0913 20:11:50.350517 32511 layer_factory.hpp:77] Creating layer inception_4b/5x5
I0913 20:11:50.350534 32511 net.cpp:91] Creating Layer inception_4b/5x5
I0913 20:11:50.350540 32511 net.cpp:425] inception_4b/5x5 <- inception_4b/5x5_reduce
I0913 20:11:50.350549 32511 net.cpp:399] inception_4b/5x5 -> inception_4b/5x5
I0913 20:11:50.352891 32511 net.cpp:141] Setting up inception_4b/5x5
I0913 20:11:50.352912 32511 net.cpp:148] Top shape: 10 64 14 14 (125440)
I0913 20:11:50.352917 32511 net.cpp:156] Memory required for data: 398272000
I0913 20:11:50.352926 32511 layer_factory.hpp:77] Creating layer inception_4b/relu_5x5
I0913 20:11:50.352934 32511 net.cpp:91] Creating Layer inception_4b/relu_5x5
I0913 20:11:50.352941 32511 net.cpp:425] inception_4b/relu_5x5 <- inception_4b/5x5
I0913 20:11:50.352946 32511 net.cpp:386] inception_4b/relu_5x5 -> inception_4b/5x5 (in-place)
I0913 20:11:50.353173 32511 net.cpp:141] Setting up inception_4b/relu_5x5
I0913 20:11:50.353185 32511 net.cpp:148] Top shape: 10 64 14 14 (125440)
I0913 20:11:50.353189 32511 net.cpp:156] Memory required for data: 398773760
I0913 20:11:50.353194 32511 layer_factory.hpp:77] Creating layer inception_4b/pool
I0913 20:11:50.353209 32511 net.cpp:91] Creating Layer inception_4b/pool
I0913 20:11:50.353215 32511 net.cpp:425] inception_4b/pool <- inception_4a/output_inception_4a/output_0_split_3
I0913 20:11:50.353222 32511 net.cpp:399] inception_4b/pool -> inception_4b/pool
I0913 20:11:50.353286 32511 net.cpp:141] Setting up inception_4b/pool
I0913 20:11:50.353296 32511 net.cpp:148] Top shape: 10 512 14 14 (1003520)
I0913 20:11:50.353299 32511 net.cpp:156] Memory required for data: 402787840
I0913 20:11:50.353303 32511 layer_factory.hpp:77] Creating layer inception_4b/pool_proj
I0913 20:11:50.353318 32511 net.cpp:91] Creating Layer inception_4b/pool_proj
I0913 20:11:50.353323 32511 net.cpp:425] inception_4b/pool_proj <- inception_4b/pool
I0913 20:11:50.353333 32511 net.cpp:399] inception_4b/pool_proj -> inception_4b/pool_proj
I0913 20:11:50.354929 32511 net.cpp:141] Setting up inception_4b/pool_proj
I0913 20:11:50.354945 32511 net.cpp:148] Top shape: 10 64 14 14 (125440)
I0913 20:11:50.354950 32511 net.cpp:156] Memory required for data: 403289600
I0913 20:11:50.354959 32511 layer_factory.hpp:77] Creating layer inception_4b/relu_pool_proj
I0913 20:11:50.354970 32511 net.cpp:91] Creating Layer inception_4b/relu_pool_proj
I0913 20:11:50.354976 32511 net.cpp:425] inception_4b/relu_pool_proj <- inception_4b/pool_proj
I0913 20:11:50.354984 32511 net.cpp:386] inception_4b/relu_pool_proj -> inception_4b/pool_proj (in-place)
I0913 20:11:50.355376 32511 net.cpp:141] Setting up inception_4b/relu_pool_proj
I0913 20:11:50.355389 32511 net.cpp:148] Top shape: 10 64 14 14 (125440)
I0913 20:11:50.355393 32511 net.cpp:156] Memory required for data: 403791360
I0913 20:11:50.355398 32511 layer_factory.hpp:77] Creating layer inception_4b/output
I0913 20:11:50.355410 32511 net.cpp:91] Creating Layer inception_4b/output
I0913 20:11:50.355417 32511 net.cpp:425] inception_4b/output <- inception_4b/1x1
I0913 20:11:50.355422 32511 net.cpp:425] inception_4b/output <- inception_4b/3x3
I0913 20:11:50.355427 32511 net.cpp:425] inception_4b/output <- inception_4b/5x5
I0913 20:11:50.355433 32511 net.cpp:425] inception_4b/output <- inception_4b/pool_proj
I0913 20:11:50.355439 32511 net.cpp:399] inception_4b/output -> inception_4b/output
I0913 20:11:50.355482 32511 net.cpp:141] Setting up inception_4b/output
I0913 20:11:50.355492 32511 net.cpp:148] Top shape: 10 512 14 14 (1003520)
I0913 20:11:50.355496 32511 net.cpp:156] Memory required for data: 407805440
I0913 20:11:50.355500 32511 layer_factory.hpp:77] Creating layer inception_4b/output_inception_4b/output_0_split
I0913 20:11:50.355509 32511 net.cpp:91] Creating Layer inception_4b/output_inception_4b/output_0_split
I0913 20:11:50.355515 32511 net.cpp:425] inception_4b/output_inception_4b/output_0_split <- inception_4b/output
I0913 20:11:50.355525 32511 net.cpp:399] inception_4b/output_inception_4b/output_0_split -> inception_4b/output_inception_4b/output_0_split_0
I0913 20:11:50.355533 32511 net.cpp:399] inception_4b/output_inception_4b/output_0_split -> inception_4b/output_inception_4b/output_0_split_1
I0913 20:11:50.355541 32511 net.cpp:399] inception_4b/output_inception_4b/output_0_split -> inception_4b/output_inception_4b/output_0_split_2
I0913 20:11:50.355548 32511 net.cpp:399] inception_4b/output_inception_4b/output_0_split -> inception_4b/output_inception_4b/output_0_split_3
I0913 20:11:50.355636 32511 net.cpp:141] Setting up inception_4b/output_inception_4b/output_0_split
I0913 20:11:50.355644 32511 net.cpp:148] Top shape: 10 512 14 14 (1003520)
I0913 20:11:50.355650 32511 net.cpp:148] Top shape: 10 512 14 14 (1003520)
I0913 20:11:50.355655 32511 net.cpp:148] Top shape: 10 512 14 14 (1003520)
I0913 20:11:50.355660 32511 net.cpp:148] Top shape: 10 512 14 14 (1003520)
I0913 20:11:50.355664 32511 net.cpp:156] Memory required for data: 423861760
I0913 20:11:50.355669 32511 layer_factory.hpp:77] Creating layer inception_4c/1x1
I0913 20:11:50.355681 32511 net.cpp:91] Creating Layer inception_4c/1x1
I0913 20:11:50.355687 32511 net.cpp:425] inception_4c/1x1 <- inception_4b/output_inception_4b/output_0_split_0
I0913 20:11:50.355698 32511 net.cpp:399] inception_4c/1x1 -> inception_4c/1x1
I0913 20:11:50.357389 32511 net.cpp:141] Setting up inception_4c/1x1
I0913 20:11:50.357406 32511 net.cpp:148] Top shape: 10 128 14 14 (250880)
I0913 20:11:50.357411 32511 net.cpp:156] Memory required for data: 424865280
I0913 20:11:50.357419 32511 layer_factory.hpp:77] Creating layer inception_4c/relu_1x1
I0913 20:11:50.357431 32511 net.cpp:91] Creating Layer inception_4c/relu_1x1
I0913 20:11:50.357437 32511 net.cpp:425] inception_4c/relu_1x1 <- inception_4c/1x1
I0913 20:11:50.357445 32511 net.cpp:386] inception_4c/relu_1x1 -> inception_4c/1x1 (in-place)
I0913 20:11:50.357836 32511 net.cpp:141] Setting up inception_4c/relu_1x1
I0913 20:11:50.357847 32511 net.cpp:148] Top shape: 10 128 14 14 (250880)
I0913 20:11:50.357852 32511 net.cpp:156] Memory required for data: 425868800
I0913 20:11:50.357857 32511 layer_factory.hpp:77] Creating layer inception_4c/3x3_reduce
I0913 20:11:50.357874 32511 net.cpp:91] Creating Layer inception_4c/3x3_reduce
I0913 20:11:50.357880 32511 net.cpp:425] inception_4c/3x3_reduce <- inception_4b/output_inception_4b/output_0_split_1
I0913 20:11:50.357889 32511 net.cpp:399] inception_4c/3x3_reduce -> inception_4c/3x3_reduce
I0913 20:11:50.359767 32511 net.cpp:141] Setting up inception_4c/3x3_reduce
I0913 20:11:50.359784 32511 net.cpp:148] Top shape: 10 128 14 14 (250880)
I0913 20:11:50.359789 32511 net.cpp:156] Memory required for data: 426872320
I0913 20:11:50.359797 32511 layer_factory.hpp:77] Creating layer inception_4c/relu_3x3_reduce
I0913 20:11:50.359805 32511 net.cpp:91] Creating Layer inception_4c/relu_3x3_reduce
I0913 20:11:50.359812 32511 net.cpp:425] inception_4c/relu_3x3_reduce <- inception_4c/3x3_reduce
I0913 20:11:50.359819 32511 net.cpp:386] inception_4c/relu_3x3_reduce -> inception_4c/3x3_reduce (in-place)
I0913 20:11:50.360044 32511 net.cpp:141] Setting up inception_4c/relu_3x3_reduce
I0913 20:11:50.360054 32511 net.cpp:148] Top shape: 10 128 14 14 (250880)
I0913 20:11:50.360059 32511 net.cpp:156] Memory required for data: 427875840
I0913 20:11:50.360064 32511 layer_factory.hpp:77] Creating layer inception_4c/3x3
I0913 20:11:50.360088 32511 net.cpp:91] Creating Layer inception_4c/3x3
I0913 20:11:50.360095 32511 net.cpp:425] inception_4c/3x3 <- inception_4c/3x3_reduce
I0913 20:11:50.360105 32511 net.cpp:399] inception_4c/3x3 -> inception_4c/3x3
I0913 20:11:50.364405 32511 net.cpp:141] Setting up inception_4c/3x3
I0913 20:11:50.364423 32511 net.cpp:148] Top shape: 10 256 14 14 (501760)
I0913 20:11:50.364428 32511 net.cpp:156] Memory required for data: 429882880
I0913 20:11:50.364436 32511 layer_factory.hpp:77] Creating layer inception_4c/relu_3x3
I0913 20:11:50.364444 32511 net.cpp:91] Creating Layer inception_4c/relu_3x3
I0913 20:11:50.364450 32511 net.cpp:425] inception_4c/relu_3x3 <- inception_4c/3x3
I0913 20:11:50.364457 32511 net.cpp:386] inception_4c/relu_3x3 -> inception_4c/3x3 (in-place)
I0913 20:11:50.364853 32511 net.cpp:141] Setting up inception_4c/relu_3x3
I0913 20:11:50.364866 32511 net.cpp:148] Top shape: 10 256 14 14 (501760)
I0913 20:11:50.364871 32511 net.cpp:156] Memory required for data: 431889920
I0913 20:11:50.364876 32511 layer_factory.hpp:77] Creating layer inception_4c/5x5_reduce
I0913 20:11:50.364889 32511 net.cpp:91] Creating Layer inception_4c/5x5_reduce
I0913 20:11:50.364895 32511 net.cpp:425] inception_4c/5x5_reduce <- inception_4b/output_inception_4b/output_0_split_2
I0913 20:11:50.364907 32511 net.cpp:399] inception_4c/5x5_reduce -> inception_4c/5x5_reduce
I0913 20:11:50.366237 32511 net.cpp:141] Setting up inception_4c/5x5_reduce
I0913 20:11:50.366255 32511 net.cpp:148] Top shape: 10 24 14 14 (47040)
I0913 20:11:50.366260 32511 net.cpp:156] Memory required for data: 432078080
I0913 20:11:50.366268 32511 layer_factory.hpp:77] Creating layer inception_4c/relu_5x5_reduce
I0913 20:11:50.366281 32511 net.cpp:91] Creating Layer inception_4c/relu_5x5_reduce
I0913 20:11:50.366287 32511 net.cpp:425] inception_4c/relu_5x5_reduce <- inception_4c/5x5_reduce
I0913 20:11:50.366293 32511 net.cpp:386] inception_4c/relu_5x5_reduce -> inception_4c/5x5_reduce (in-place)
I0913 20:11:50.366684 32511 net.cpp:141] Setting up inception_4c/relu_5x5_reduce
I0913 20:11:50.366696 32511 net.cpp:148] Top shape: 10 24 14 14 (47040)
I0913 20:11:50.366701 32511 net.cpp:156] Memory required for data: 432266240
I0913 20:11:50.366706 32511 layer_factory.hpp:77] Creating layer inception_4c/5x5
I0913 20:11:50.366724 32511 net.cpp:91] Creating Layer inception_4c/5x5
I0913 20:11:50.366729 32511 net.cpp:425] inception_4c/5x5 <- inception_4c/5x5_reduce
I0913 20:11:50.366739 32511 net.cpp:399] inception_4c/5x5 -> inception_4c/5x5
I0913 20:11:50.368674 32511 net.cpp:141] Setting up inception_4c/5x5
I0913 20:11:50.368690 32511 net.cpp:148] Top shape: 10 64 14 14 (125440)
I0913 20:11:50.368697 32511 net.cpp:156] Memory required for data: 432768000
I0913 20:11:50.368705 32511 layer_factory.hpp:77] Creating layer inception_4c/relu_5x5
I0913 20:11:50.368715 32511 net.cpp:91] Creating Layer inception_4c/relu_5x5
I0913 20:11:50.368721 32511 net.cpp:425] inception_4c/relu_5x5 <- inception_4c/5x5
I0913 20:11:50.368726 32511 net.cpp:386] inception_4c/relu_5x5 -> inception_4c/5x5 (in-place)
I0913 20:11:50.368959 32511 net.cpp:141] Setting up inception_4c/relu_5x5
I0913 20:11:50.368970 32511 net.cpp:148] Top shape: 10 64 14 14 (125440)
I0913 20:11:50.368974 32511 net.cpp:156] Memory required for data: 433269760
I0913 20:11:50.368979 32511 layer_factory.hpp:77] Creating layer inception_4c/pool
I0913 20:11:50.368990 32511 net.cpp:91] Creating Layer inception_4c/pool
I0913 20:11:50.368995 32511 net.cpp:425] inception_4c/pool <- inception_4b/output_inception_4b/output_0_split_3
I0913 20:11:50.369005 32511 net.cpp:399] inception_4c/pool -> inception_4c/pool
I0913 20:11:50.369071 32511 net.cpp:141] Setting up inception_4c/pool
I0913 20:11:50.369081 32511 net.cpp:148] Top shape: 10 512 14 14 (1003520)
I0913 20:11:50.369086 32511 net.cpp:156] Memory required for data: 437283840
I0913 20:11:50.369091 32511 layer_factory.hpp:77] Creating layer inception_4c/pool_proj
I0913 20:11:50.369104 32511 net.cpp:91] Creating Layer inception_4c/pool_proj
I0913 20:11:50.369110 32511 net.cpp:425] inception_4c/pool_proj <- inception_4c/pool
I0913 20:11:50.369118 32511 net.cpp:399] inception_4c/pool_proj -> inception_4c/pool_proj
I0913 20:11:50.371471 32511 net.cpp:141] Setting up inception_4c/pool_proj
I0913 20:11:50.371489 32511 net.cpp:148] Top shape: 10 64 14 14 (125440)
I0913 20:11:50.371493 32511 net.cpp:156] Memory required for data: 437785600
I0913 20:11:50.371520 32511 layer_factory.hpp:77] Creating layer inception_4c/relu_pool_proj
I0913 20:11:50.371531 32511 net.cpp:91] Creating Layer inception_4c/relu_pool_proj
I0913 20:11:50.371537 32511 net.cpp:425] inception_4c/relu_pool_proj <- inception_4c/pool_proj
I0913 20:11:50.371544 32511 net.cpp:386] inception_4c/relu_pool_proj -> inception_4c/pool_proj (in-place)
I0913 20:11:50.371947 32511 net.cpp:141] Setting up inception_4c/relu_pool_proj
I0913 20:11:50.371959 32511 net.cpp:148] Top shape: 10 64 14 14 (125440)
I0913 20:11:50.371963 32511 net.cpp:156] Memory required for data: 438287360
I0913 20:11:50.371968 32511 layer_factory.hpp:77] Creating layer inception_4c/output
I0913 20:11:50.371980 32511 net.cpp:91] Creating Layer inception_4c/output
I0913 20:11:50.371986 32511 net.cpp:425] inception_4c/output <- inception_4c/1x1
I0913 20:11:50.371992 32511 net.cpp:425] inception_4c/output <- inception_4c/3x3
I0913 20:11:50.371997 32511 net.cpp:425] inception_4c/output <- inception_4c/5x5
I0913 20:11:50.372004 32511 net.cpp:425] inception_4c/output <- inception_4c/pool_proj
I0913 20:11:50.372009 32511 net.cpp:399] inception_4c/output -> inception_4c/output
I0913 20:11:50.372054 32511 net.cpp:141] Setting up inception_4c/output
I0913 20:11:50.372063 32511 net.cpp:148] Top shape: 10 512 14 14 (1003520)
I0913 20:11:50.372067 32511 net.cpp:156] Memory required for data: 442301440
I0913 20:11:50.372081 32511 layer_factory.hpp:77] Creating layer inception_4c/output_inception_4c/output_0_split
I0913 20:11:50.372089 32511 net.cpp:91] Creating Layer inception_4c/output_inception_4c/output_0_split
I0913 20:11:50.372094 32511 net.cpp:425] inception_4c/output_inception_4c/output_0_split <- inception_4c/output
I0913 20:11:50.372105 32511 net.cpp:399] inception_4c/output_inception_4c/output_0_split -> inception_4c/output_inception_4c/output_0_split_0
I0913 20:11:50.372114 32511 net.cpp:399] inception_4c/output_inception_4c/output_0_split -> inception_4c/output_inception_4c/output_0_split_1
I0913 20:11:50.372123 32511 net.cpp:399] inception_4c/output_inception_4c/output_0_split -> inception_4c/output_inception_4c/output_0_split_2
I0913 20:11:50.372130 32511 net.cpp:399] inception_4c/output_inception_4c/output_0_split -> inception_4c/output_inception_4c/output_0_split_3
I0913 20:11:50.372220 32511 net.cpp:141] Setting up inception_4c/output_inception_4c/output_0_split
I0913 20:11:50.372228 32511 net.cpp:148] Top shape: 10 512 14 14 (1003520)
I0913 20:11:50.372233 32511 net.cpp:148] Top shape: 10 512 14 14 (1003520)
I0913 20:11:50.372238 32511 net.cpp:148] Top shape: 10 512 14 14 (1003520)
I0913 20:11:50.372243 32511 net.cpp:148] Top shape: 10 512 14 14 (1003520)
I0913 20:11:50.372247 32511 net.cpp:156] Memory required for data: 458357760
I0913 20:11:50.372251 32511 layer_factory.hpp:77] Creating layer inception_4d/1x1
I0913 20:11:50.372267 32511 net.cpp:91] Creating Layer inception_4d/1x1
I0913 20:11:50.372273 32511 net.cpp:425] inception_4d/1x1 <- inception_4c/output_inception_4c/output_0_split_0
I0913 20:11:50.372282 32511 net.cpp:399] inception_4d/1x1 -> inception_4d/1x1
I0913 20:11:50.373930 32511 net.cpp:141] Setting up inception_4d/1x1
I0913 20:11:50.373947 32511 net.cpp:148] Top shape: 10 112 14 14 (219520)
I0913 20:11:50.373952 32511 net.cpp:156] Memory required for data: 459235840
I0913 20:11:50.373963 32511 layer_factory.hpp:77] Creating layer inception_4d/relu_1x1
I0913 20:11:50.373972 32511 net.cpp:91] Creating Layer inception_4d/relu_1x1
I0913 20:11:50.373977 32511 net.cpp:425] inception_4d/relu_1x1 <- inception_4d/1x1
I0913 20:11:50.373987 32511 net.cpp:386] inception_4d/relu_1x1 -> inception_4d/1x1 (in-place)
I0913 20:11:50.374382 32511 net.cpp:141] Setting up inception_4d/relu_1x1
I0913 20:11:50.374393 32511 net.cpp:148] Top shape: 10 112 14 14 (219520)
I0913 20:11:50.374397 32511 net.cpp:156] Memory required for data: 460113920
I0913 20:11:50.374402 32511 layer_factory.hpp:77] Creating layer inception_4d/3x3_reduce
I0913 20:11:50.374416 32511 net.cpp:91] Creating Layer inception_4d/3x3_reduce
I0913 20:11:50.374423 32511 net.cpp:425] inception_4d/3x3_reduce <- inception_4c/output_inception_4c/output_0_split_1
I0913 20:11:50.374434 32511 net.cpp:399] inception_4d/3x3_reduce -> inception_4d/3x3_reduce
I0913 20:11:50.376435 32511 net.cpp:141] Setting up inception_4d/3x3_reduce
I0913 20:11:50.376459 32511 net.cpp:148] Top shape: 10 144 14 14 (282240)
I0913 20:11:50.376463 32511 net.cpp:156] Memory required for data: 461242880
I0913 20:11:50.376472 32511 layer_factory.hpp:77] Creating layer inception_4d/relu_3x3_reduce
I0913 20:11:50.376480 32511 net.cpp:91] Creating Layer inception_4d/relu_3x3_reduce
I0913 20:11:50.376487 32511 net.cpp:425] inception_4d/relu_3x3_reduce <- inception_4d/3x3_reduce
I0913 20:11:50.376493 32511 net.cpp:386] inception_4d/relu_3x3_reduce -> inception_4d/3x3_reduce (in-place)
I0913 20:11:50.376731 32511 net.cpp:141] Setting up inception_4d/relu_3x3_reduce
I0913 20:11:50.376742 32511 net.cpp:148] Top shape: 10 144 14 14 (282240)
I0913 20:11:50.376746 32511 net.cpp:156] Memory required for data: 462371840
I0913 20:11:50.376751 32511 layer_factory.hpp:77] Creating layer inception_4d/3x3
I0913 20:11:50.376765 32511 net.cpp:91] Creating Layer inception_4d/3x3
I0913 20:11:50.376771 32511 net.cpp:425] inception_4d/3x3 <- inception_4d/3x3_reduce
I0913 20:11:50.376782 32511 net.cpp:399] inception_4d/3x3 -> inception_4d/3x3
I0913 20:11:50.381819 32511 net.cpp:141] Setting up inception_4d/3x3
I0913 20:11:50.381837 32511 net.cpp:148] Top shape: 10 288 14 14 (564480)
I0913 20:11:50.381842 32511 net.cpp:156] Memory required for data: 464629760
I0913 20:11:50.381850 32511 layer_factory.hpp:77] Creating layer inception_4d/relu_3x3
I0913 20:11:50.381862 32511 net.cpp:91] Creating Layer inception_4d/relu_3x3
I0913 20:11:50.381868 32511 net.cpp:425] inception_4d/relu_3x3 <- inception_4d/3x3
I0913 20:11:50.381876 32511 net.cpp:386] inception_4d/relu_3x3 -> inception_4d/3x3 (in-place)
I0913 20:11:50.382275 32511 net.cpp:141] Setting up inception_4d/relu_3x3
I0913 20:11:50.382287 32511 net.cpp:148] Top shape: 10 288 14 14 (564480)
I0913 20:11:50.382292 32511 net.cpp:156] Memory required for data: 466887680
I0913 20:11:50.382297 32511 layer_factory.hpp:77] Creating layer inception_4d/5x5_reduce
I0913 20:11:50.382315 32511 net.cpp:91] Creating Layer inception_4d/5x5_reduce
I0913 20:11:50.382321 32511 net.cpp:425] inception_4d/5x5_reduce <- inception_4c/output_inception_4c/output_0_split_2
I0913 20:11:50.382329 32511 net.cpp:399] inception_4d/5x5_reduce -> inception_4d/5x5_reduce
I0913 20:11:50.383733 32511 net.cpp:141] Setting up inception_4d/5x5_reduce
I0913 20:11:50.383749 32511 net.cpp:148] Top shape: 10 32 14 14 (62720)
I0913 20:11:50.383754 32511 net.cpp:156] Memory required for data: 467138560
I0913 20:11:50.383762 32511 layer_factory.hpp:77] Creating layer inception_4d/relu_5x5_reduce
I0913 20:11:50.383770 32511 net.cpp:91] Creating Layer inception_4d/relu_5x5_reduce
I0913 20:11:50.383776 32511 net.cpp:425] inception_4d/relu_5x5_reduce <- inception_4d/5x5_reduce
I0913 20:11:50.383785 32511 net.cpp:386] inception_4d/relu_5x5_reduce -> inception_4d/5x5_reduce (in-place)
I0913 20:11:50.384194 32511 net.cpp:141] Setting up inception_4d/relu_5x5_reduce
I0913 20:11:50.384207 32511 net.cpp:148] Top shape: 10 32 14 14 (62720)
I0913 20:11:50.384212 32511 net.cpp:156] Memory required for data: 467389440
I0913 20:11:50.384217 32511 layer_factory.hpp:77] Creating layer inception_4d/5x5
I0913 20:11:50.384230 32511 net.cpp:91] Creating Layer inception_4d/5x5
I0913 20:11:50.384237 32511 net.cpp:425] inception_4d/5x5 <- inception_4d/5x5_reduce
I0913 20:11:50.384248 32511 net.cpp:399] inception_4d/5x5 -> inception_4d/5x5
I0913 20:11:50.386056 32511 net.cpp:141] Setting up inception_4d/5x5
I0913 20:11:50.386072 32511 net.cpp:148] Top shape: 10 64 14 14 (125440)
I0913 20:11:50.386076 32511 net.cpp:156] Memory required for data: 467891200
I0913 20:11:50.386085 32511 layer_factory.hpp:77] Creating layer inception_4d/relu_5x5
I0913 20:11:50.386096 32511 net.cpp:91] Creating Layer inception_4d/relu_5x5
I0913 20:11:50.386101 32511 net.cpp:425] inception_4d/relu_5x5 <- inception_4d/5x5
I0913 20:11:50.386108 32511 net.cpp:386] inception_4d/relu_5x5 -> inception_4d/5x5 (in-place)
I0913 20:11:50.386343 32511 net.cpp:141] Setting up inception_4d/relu_5x5
I0913 20:11:50.386355 32511 net.cpp:148] Top shape: 10 64 14 14 (125440)
I0913 20:11:50.386360 32511 net.cpp:156] Memory required for data: 468392960
I0913 20:11:50.386364 32511 layer_factory.hpp:77] Creating layer inception_4d/pool
I0913 20:11:50.386374 32511 net.cpp:91] Creating Layer inception_4d/pool
I0913 20:11:50.386379 32511 net.cpp:425] inception_4d/pool <- inception_4c/output_inception_4c/output_0_split_3
I0913 20:11:50.386389 32511 net.cpp:399] inception_4d/pool -> inception_4d/pool
I0913 20:11:50.386454 32511 net.cpp:141] Setting up inception_4d/pool
I0913 20:11:50.386466 32511 net.cpp:148] Top shape: 10 512 14 14 (1003520)
I0913 20:11:50.386471 32511 net.cpp:156] Memory required for data: 472407040
I0913 20:11:50.386474 32511 layer_factory.hpp:77] Creating layer inception_4d/pool_proj
I0913 20:11:50.386487 32511 net.cpp:91] Creating Layer inception_4d/pool_proj
I0913 20:11:50.386492 32511 net.cpp:425] inception_4d/pool_proj <- inception_4d/pool
I0913 20:11:50.386502 32511 net.cpp:399] inception_4d/pool_proj -> inception_4d/pool_proj
I0913 20:11:50.388206 32511 net.cpp:141] Setting up inception_4d/pool_proj
I0913 20:11:50.388223 32511 net.cpp:148] Top shape: 10 64 14 14 (125440)
I0913 20:11:50.388228 32511 net.cpp:156] Memory required for data: 472908800
I0913 20:11:50.388236 32511 layer_factory.hpp:77] Creating layer inception_4d/relu_pool_proj
I0913 20:11:50.388245 32511 net.cpp:91] Creating Layer inception_4d/relu_pool_proj
I0913 20:11:50.388250 32511 net.cpp:425] inception_4d/relu_pool_proj <- inception_4d/pool_proj
I0913 20:11:50.388257 32511 net.cpp:386] inception_4d/relu_pool_proj -> inception_4d/pool_proj (in-place)
I0913 20:11:50.388669 32511 net.cpp:141] Setting up inception_4d/relu_pool_proj
I0913 20:11:50.388681 32511 net.cpp:148] Top shape: 10 64 14 14 (125440)
I0913 20:11:50.388686 32511 net.cpp:156] Memory required for data: 473410560
I0913 20:11:50.388691 32511 layer_factory.hpp:77] Creating layer inception_4d/output
I0913 20:11:50.388700 32511 net.cpp:91] Creating Layer inception_4d/output
I0913 20:11:50.388705 32511 net.cpp:425] inception_4d/output <- inception_4d/1x1
I0913 20:11:50.388711 32511 net.cpp:425] inception_4d/output <- inception_4d/3x3
I0913 20:11:50.388717 32511 net.cpp:425] inception_4d/output <- inception_4d/5x5
I0913 20:11:50.388722 32511 net.cpp:425] inception_4d/output <- inception_4d/pool_proj
I0913 20:11:50.388732 32511 net.cpp:399] inception_4d/output -> inception_4d/output
I0913 20:11:50.388774 32511 net.cpp:141] Setting up inception_4d/output
I0913 20:11:50.388787 32511 net.cpp:148] Top shape: 10 528 14 14 (1034880)
I0913 20:11:50.388790 32511 net.cpp:156] Memory required for data: 477550080
I0913 20:11:50.388795 32511 layer_factory.hpp:77] Creating layer inception_4d/output_inception_4d/output_0_split
I0913 20:11:50.388803 32511 net.cpp:91] Creating Layer inception_4d/output_inception_4d/output_0_split
I0913 20:11:50.388808 32511 net.cpp:425] inception_4d/output_inception_4d/output_0_split <- inception_4d/output
I0913 20:11:50.388815 32511 net.cpp:399] inception_4d/output_inception_4d/output_0_split -> inception_4d/output_inception_4d/output_0_split_0
I0913 20:11:50.388823 32511 net.cpp:399] inception_4d/output_inception_4d/output_0_split -> inception_4d/output_inception_4d/output_0_split_1
I0913 20:11:50.388831 32511 net.cpp:399] inception_4d/output_inception_4d/output_0_split -> inception_4d/output_inception_4d/output_0_split_2
I0913 20:11:50.388844 32511 net.cpp:399] inception_4d/output_inception_4d/output_0_split -> inception_4d/output_inception_4d/output_0_split_3
I0913 20:11:50.388936 32511 net.cpp:141] Setting up inception_4d/output_inception_4d/output_0_split
I0913 20:11:50.388945 32511 net.cpp:148] Top shape: 10 528 14 14 (1034880)
I0913 20:11:50.388950 32511 net.cpp:148] Top shape: 10 528 14 14 (1034880)
I0913 20:11:50.388955 32511 net.cpp:148] Top shape: 10 528 14 14 (1034880)
I0913 20:11:50.388960 32511 net.cpp:148] Top shape: 10 528 14 14 (1034880)
I0913 20:11:50.388964 32511 net.cpp:156] Memory required for data: 494108160
I0913 20:11:50.388969 32511 layer_factory.hpp:77] Creating layer inception_4e/1x1
I0913 20:11:50.388983 32511 net.cpp:91] Creating Layer inception_4e/1x1
I0913 20:11:50.388988 32511 net.cpp:425] inception_4e/1x1 <- inception_4d/output_inception_4d/output_0_split_0
I0913 20:11:50.388998 32511 net.cpp:399] inception_4e/1x1 -> inception_4e/1x1
I0913 20:11:50.392238 32511 net.cpp:141] Setting up inception_4e/1x1
I0913 20:11:50.392258 32511 net.cpp:148] Top shape: 10 256 14 14 (501760)
I0913 20:11:50.392263 32511 net.cpp:156] Memory required for data: 496115200
I0913 20:11:50.392272 32511 layer_factory.hpp:77] Creating layer inception_4e/relu_1x1
I0913 20:11:50.392280 32511 net.cpp:91] Creating Layer inception_4e/relu_1x1
I0913 20:11:50.392287 32511 net.cpp:425] inception_4e/relu_1x1 <- inception_4e/1x1
I0913 20:11:50.392293 32511 net.cpp:386] inception_4e/relu_1x1 -> inception_4e/1x1 (in-place)
I0913 20:11:50.392699 32511 net.cpp:141] Setting up inception_4e/relu_1x1
I0913 20:11:50.392712 32511 net.cpp:148] Top shape: 10 256 14 14 (501760)
I0913 20:11:50.392716 32511 net.cpp:156] Memory required for data: 498122240
I0913 20:11:50.392721 32511 layer_factory.hpp:77] Creating layer inception_4e/3x3_reduce
I0913 20:11:50.392737 32511 net.cpp:91] Creating Layer inception_4e/3x3_reduce
I0913 20:11:50.392743 32511 net.cpp:425] inception_4e/3x3_reduce <- inception_4d/output_inception_4d/output_0_split_1
I0913 20:11:50.392752 32511 net.cpp:399] inception_4e/3x3_reduce -> inception_4e/3x3_reduce
I0913 20:11:50.394847 32511 net.cpp:141] Setting up inception_4e/3x3_reduce
I0913 20:11:50.394863 32511 net.cpp:148] Top shape: 10 160 14 14 (313600)
I0913 20:11:50.394868 32511 net.cpp:156] Memory required for data: 499376640
I0913 20:11:50.394877 32511 layer_factory.hpp:77] Creating layer inception_4e/relu_3x3_reduce
I0913 20:11:50.394886 32511 net.cpp:91] Creating Layer inception_4e/relu_3x3_reduce
I0913 20:11:50.394891 32511 net.cpp:425] inception_4e/relu_3x3_reduce <- inception_4e/3x3_reduce
I0913 20:11:50.394901 32511 net.cpp:386] inception_4e/relu_3x3_reduce -> inception_4e/3x3_reduce (in-place)
I0913 20:11:50.395138 32511 net.cpp:141] Setting up inception_4e/relu_3x3_reduce
I0913 20:11:50.395149 32511 net.cpp:148] Top shape: 10 160 14 14 (313600)
I0913 20:11:50.395153 32511 net.cpp:156] Memory required for data: 500631040
I0913 20:11:50.395159 32511 layer_factory.hpp:77] Creating layer inception_4e/3x3
I0913 20:11:50.395172 32511 net.cpp:91] Creating Layer inception_4e/3x3
I0913 20:11:50.395179 32511 net.cpp:425] inception_4e/3x3 <- inception_4e/3x3_reduce
I0913 20:11:50.395186 32511 net.cpp:399] inception_4e/3x3 -> inception_4e/3x3
I0913 20:11:50.401139 32511 net.cpp:141] Setting up inception_4e/3x3
I0913 20:11:50.401155 32511 net.cpp:148] Top shape: 10 320 14 14 (627200)
I0913 20:11:50.401160 32511 net.cpp:156] Memory required for data: 503139840
I0913 20:11:50.401168 32511 layer_factory.hpp:77] Creating layer inception_4e/relu_3x3
I0913 20:11:50.401180 32511 net.cpp:91] Creating Layer inception_4e/relu_3x3
I0913 20:11:50.401185 32511 net.cpp:425] inception_4e/relu_3x3 <- inception_4e/3x3
I0913 20:11:50.401192 32511 net.cpp:386] inception_4e/relu_3x3 -> inception_4e/3x3 (in-place)
I0913 20:11:50.401619 32511 net.cpp:141] Setting up inception_4e/relu_3x3
I0913 20:11:50.401638 32511 net.cpp:148] Top shape: 10 320 14 14 (627200)
I0913 20:11:50.401643 32511 net.cpp:156] Memory required for data: 505648640
I0913 20:11:50.401648 32511 layer_factory.hpp:77] Creating layer inception_4e/5x5_reduce
I0913 20:11:50.401664 32511 net.cpp:91] Creating Layer inception_4e/5x5_reduce
I0913 20:11:50.401669 32511 net.cpp:425] inception_4e/5x5_reduce <- inception_4d/output_inception_4d/output_0_split_2
I0913 20:11:50.401679 32511 net.cpp:399] inception_4e/5x5_reduce -> inception_4e/5x5_reduce
I0913 20:11:50.403129 32511 net.cpp:141] Setting up inception_4e/5x5_reduce
I0913 20:11:50.403147 32511 net.cpp:148] Top shape: 10 32 14 14 (62720)
I0913 20:11:50.403151 32511 net.cpp:156] Memory required for data: 505899520
I0913 20:11:50.403161 32511 layer_factory.hpp:77] Creating layer inception_4e/relu_5x5_reduce
I0913 20:11:50.403168 32511 net.cpp:91] Creating Layer inception_4e/relu_5x5_reduce
I0913 20:11:50.403174 32511 net.cpp:425] inception_4e/relu_5x5_reduce <- inception_4e/5x5_reduce
I0913 20:11:50.403184 32511 net.cpp:386] inception_4e/relu_5x5_reduce -> inception_4e/5x5_reduce (in-place)
I0913 20:11:50.403586 32511 net.cpp:141] Setting up inception_4e/relu_5x5_reduce
I0913 20:11:50.403599 32511 net.cpp:148] Top shape: 10 32 14 14 (62720)
I0913 20:11:50.403602 32511 net.cpp:156] Memory required for data: 506150400
I0913 20:11:50.403609 32511 layer_factory.hpp:77] Creating layer inception_4e/5x5
I0913 20:11:50.403623 32511 net.cpp:91] Creating Layer inception_4e/5x5
I0913 20:11:50.403630 32511 net.cpp:425] inception_4e/5x5 <- inception_4e/5x5_reduce
I0913 20:11:50.403640 32511 net.cpp:399] inception_4e/5x5 -> inception_4e/5x5
I0913 20:11:50.406579 32511 net.cpp:141] Setting up inception_4e/5x5
I0913 20:11:50.406595 32511 net.cpp:148] Top shape: 10 128 14 14 (250880)
I0913 20:11:50.406600 32511 net.cpp:156] Memory required for data: 507153920
I0913 20:11:50.406608 32511 layer_factory.hpp:77] Creating layer inception_4e/relu_5x5
I0913 20:11:50.406620 32511 net.cpp:91] Creating Layer inception_4e/relu_5x5
I0913 20:11:50.406626 32511 net.cpp:425] inception_4e/relu_5x5 <- inception_4e/5x5
I0913 20:11:50.406635 32511 net.cpp:386] inception_4e/relu_5x5 -> inception_4e/5x5 (in-place)
I0913 20:11:50.406872 32511 net.cpp:141] Setting up inception_4e/relu_5x5
I0913 20:11:50.406883 32511 net.cpp:148] Top shape: 10 128 14 14 (250880)
I0913 20:11:50.406888 32511 net.cpp:156] Memory required for data: 508157440
I0913 20:11:50.406893 32511 layer_factory.hpp:77] Creating layer inception_4e/pool
I0913 20:11:50.406903 32511 net.cpp:91] Creating Layer inception_4e/pool
I0913 20:11:50.406908 32511 net.cpp:425] inception_4e/pool <- inception_4d/output_inception_4d/output_0_split_3
I0913 20:11:50.406919 32511 net.cpp:399] inception_4e/pool -> inception_4e/pool
I0913 20:11:50.406988 32511 net.cpp:141] Setting up inception_4e/pool
I0913 20:11:50.406998 32511 net.cpp:148] Top shape: 10 528 14 14 (1034880)
I0913 20:11:50.407002 32511 net.cpp:156] Memory required for data: 512296960
I0913 20:11:50.407007 32511 layer_factory.hpp:77] Creating layer inception_4e/pool_proj
I0913 20:11:50.407023 32511 net.cpp:91] Creating Layer inception_4e/pool_proj
I0913 20:11:50.407029 32511 net.cpp:425] inception_4e/pool_proj <- inception_4e/pool
I0913 20:11:50.407037 32511 net.cpp:399] inception_4e/pool_proj -> inception_4e/pool_proj
I0913 20:11:50.409018 32511 net.cpp:141] Setting up inception_4e/pool_proj
I0913 20:11:50.409035 32511 net.cpp:148] Top shape: 10 128 14 14 (250880)
I0913 20:11:50.409042 32511 net.cpp:156] Memory required for data: 513300480
I0913 20:11:50.409051 32511 layer_factory.hpp:77] Creating layer inception_4e/relu_pool_proj
I0913 20:11:50.409060 32511 net.cpp:91] Creating Layer inception_4e/relu_pool_proj
I0913 20:11:50.409065 32511 net.cpp:425] inception_4e/relu_pool_proj <- inception_4e/pool_proj
I0913 20:11:50.409072 32511 net.cpp:386] inception_4e/relu_pool_proj -> inception_4e/pool_proj (in-place)
I0913 20:11:50.409488 32511 net.cpp:141] Setting up inception_4e/relu_pool_proj
I0913 20:11:50.409502 32511 net.cpp:148] Top shape: 10 128 14 14 (250880)
I0913 20:11:50.409507 32511 net.cpp:156] Memory required for data: 514304000
I0913 20:11:50.409512 32511 layer_factory.hpp:77] Creating layer inception_4e/output
I0913 20:11:50.409520 32511 net.cpp:91] Creating Layer inception_4e/output
I0913 20:11:50.409526 32511 net.cpp:425] inception_4e/output <- inception_4e/1x1
I0913 20:11:50.409533 32511 net.cpp:425] inception_4e/output <- inception_4e/3x3
I0913 20:11:50.409538 32511 net.cpp:425] inception_4e/output <- inception_4e/5x5
I0913 20:11:50.409543 32511 net.cpp:425] inception_4e/output <- inception_4e/pool_proj
I0913 20:11:50.409549 32511 net.cpp:399] inception_4e/output -> inception_4e/output
I0913 20:11:50.409598 32511 net.cpp:141] Setting up inception_4e/output
I0913 20:11:50.409607 32511 net.cpp:148] Top shape: 10 832 14 14 (1630720)
I0913 20:11:50.409611 32511 net.cpp:156] Memory required for data: 520826880
I0913 20:11:50.409616 32511 layer_factory.hpp:77] Creating layer pool4/3x3_s2
I0913 20:11:50.409626 32511 net.cpp:91] Creating Layer pool4/3x3_s2
I0913 20:11:50.409632 32511 net.cpp:425] pool4/3x3_s2 <- inception_4e/output
I0913 20:11:50.409638 32511 net.cpp:399] pool4/3x3_s2 -> pool4/3x3_s2
I0913 20:11:50.409703 32511 net.cpp:141] Setting up pool4/3x3_s2
I0913 20:11:50.409711 32511 net.cpp:148] Top shape: 10 832 7 7 (407680)
I0913 20:11:50.409715 32511 net.cpp:156] Memory required for data: 522457600
I0913 20:11:50.409720 32511 layer_factory.hpp:77] Creating layer pool4/3x3_s2_pool4/3x3_s2_0_split
I0913 20:11:50.409729 32511 net.cpp:91] Creating Layer pool4/3x3_s2_pool4/3x3_s2_0_split
I0913 20:11:50.409734 32511 net.cpp:425] pool4/3x3_s2_pool4/3x3_s2_0_split <- pool4/3x3_s2
I0913 20:11:50.409739 32511 net.cpp:399] pool4/3x3_s2_pool4/3x3_s2_0_split -> pool4/3x3_s2_pool4/3x3_s2_0_split_0
I0913 20:11:50.409750 32511 net.cpp:399] pool4/3x3_s2_pool4/3x3_s2_0_split -> pool4/3x3_s2_pool4/3x3_s2_0_split_1
I0913 20:11:50.409759 32511 net.cpp:399] pool4/3x3_s2_pool4/3x3_s2_0_split -> pool4/3x3_s2_pool4/3x3_s2_0_split_2
I0913 20:11:50.409767 32511 net.cpp:399] pool4/3x3_s2_pool4/3x3_s2_0_split -> pool4/3x3_s2_pool4/3x3_s2_0_split_3
I0913 20:11:50.409862 32511 net.cpp:141] Setting up pool4/3x3_s2_pool4/3x3_s2_0_split
I0913 20:11:50.409871 32511 net.cpp:148] Top shape: 10 832 7 7 (407680)
I0913 20:11:50.409876 32511 net.cpp:148] Top shape: 10 832 7 7 (407680)
I0913 20:11:50.409883 32511 net.cpp:148] Top shape: 10 832 7 7 (407680)
I0913 20:11:50.409888 32511 net.cpp:148] Top shape: 10 832 7 7 (407680)
I0913 20:11:50.409891 32511 net.cpp:156] Memory required for data: 528980480
I0913 20:11:50.409896 32511 layer_factory.hpp:77] Creating layer inception_5a/1x1
I0913 20:11:50.409912 32511 net.cpp:91] Creating Layer inception_5a/1x1
I0913 20:11:50.409919 32511 net.cpp:425] inception_5a/1x1 <- pool4/3x3_s2_pool4/3x3_s2_0_split_0
I0913 20:11:50.409926 32511 net.cpp:399] inception_5a/1x1 -> inception_5a/1x1
I0913 20:11:50.413502 32511 net.cpp:141] Setting up inception_5a/1x1
I0913 20:11:50.413521 32511 net.cpp:148] Top shape: 10 256 7 7 (125440)
I0913 20:11:50.413528 32511 net.cpp:156] Memory required for data: 529482240
I0913 20:11:50.413538 32511 layer_factory.hpp:77] Creating layer inception_5a/relu_1x1
I0913 20:11:50.413547 32511 net.cpp:91] Creating Layer inception_5a/relu_1x1
I0913 20:11:50.413552 32511 net.cpp:425] inception_5a/relu_1x1 <- inception_5a/1x1
I0913 20:11:50.413558 32511 net.cpp:386] inception_5a/relu_1x1 -> inception_5a/1x1 (in-place)
I0913 20:11:50.413964 32511 net.cpp:141] Setting up inception_5a/relu_1x1
I0913 20:11:50.413980 32511 net.cpp:148] Top shape: 10 256 7 7 (125440)
I0913 20:11:50.413985 32511 net.cpp:156] Memory required for data: 529984000
I0913 20:11:50.413990 32511 layer_factory.hpp:77] Creating layer inception_5a/3x3_reduce
I0913 20:11:50.414008 32511 net.cpp:91] Creating Layer inception_5a/3x3_reduce
I0913 20:11:50.414014 32511 net.cpp:425] inception_5a/3x3_reduce <- pool4/3x3_s2_pool4/3x3_s2_0_split_1
I0913 20:11:50.414023 32511 net.cpp:399] inception_5a/3x3_reduce -> inception_5a/3x3_reduce
I0913 20:11:50.417192 32511 net.cpp:141] Setting up inception_5a/3x3_reduce
I0913 20:11:50.417210 32511 net.cpp:148] Top shape: 10 160 7 7 (78400)
I0913 20:11:50.417215 32511 net.cpp:156] Memory required for data: 530297600
I0913 20:11:50.417223 32511 layer_factory.hpp:77] Creating layer inception_5a/relu_3x3_reduce
I0913 20:11:50.417232 32511 net.cpp:91] Creating Layer inception_5a/relu_3x3_reduce
I0913 20:11:50.417240 32511 net.cpp:425] inception_5a/relu_3x3_reduce <- inception_5a/3x3_reduce
I0913 20:11:50.417248 32511 net.cpp:386] inception_5a/relu_3x3_reduce -> inception_5a/3x3_reduce (in-place)
I0913 20:11:50.417490 32511 net.cpp:141] Setting up inception_5a/relu_3x3_reduce
I0913 20:11:50.417501 32511 net.cpp:148] Top shape: 10 160 7 7 (78400)
I0913 20:11:50.417505 32511 net.cpp:156] Memory required for data: 530611200
I0913 20:11:50.417510 32511 layer_factory.hpp:77] Creating layer inception_5a/3x3
I0913 20:11:50.417527 32511 net.cpp:91] Creating Layer inception_5a/3x3
I0913 20:11:50.417533 32511 net.cpp:425] inception_5a/3x3 <- inception_5a/3x3_reduce
I0913 20:11:50.417541 32511 net.cpp:399] inception_5a/3x3 -> inception_5a/3x3
I0913 20:11:50.423933 32511 net.cpp:141] Setting up inception_5a/3x3
I0913 20:11:50.423951 32511 net.cpp:148] Top shape: 10 320 7 7 (156800)
I0913 20:11:50.423956 32511 net.cpp:156] Memory required for data: 531238400
I0913 20:11:50.423965 32511 layer_factory.hpp:77] Creating layer inception_5a/relu_3x3
I0913 20:11:50.423974 32511 net.cpp:91] Creating Layer inception_5a/relu_3x3
I0913 20:11:50.423980 32511 net.cpp:425] inception_5a/relu_3x3 <- inception_5a/3x3
I0913 20:11:50.423987 32511 net.cpp:386] inception_5a/relu_3x3 -> inception_5a/3x3 (in-place)
I0913 20:11:50.424422 32511 net.cpp:141] Setting up inception_5a/relu_3x3
I0913 20:11:50.424434 32511 net.cpp:148] Top shape: 10 320 7 7 (156800)
I0913 20:11:50.424439 32511 net.cpp:156] Memory required for data: 531865600
I0913 20:11:50.424444 32511 layer_factory.hpp:77] Creating layer inception_5a/5x5_reduce
I0913 20:11:50.424459 32511 net.cpp:91] Creating Layer inception_5a/5x5_reduce
I0913 20:11:50.424466 32511 net.cpp:425] inception_5a/5x5_reduce <- pool4/3x3_s2_pool4/3x3_s2_0_split_2
I0913 20:11:50.424477 32511 net.cpp:399] inception_5a/5x5_reduce -> inception_5a/5x5_reduce
I0913 20:11:50.426028 32511 net.cpp:141] Setting up inception_5a/5x5_reduce
I0913 20:11:50.426043 32511 net.cpp:148] Top shape: 10 32 7 7 (15680)
I0913 20:11:50.426048 32511 net.cpp:156] Memory required for data: 531928320
I0913 20:11:50.426057 32511 layer_factory.hpp:77] Creating layer inception_5a/relu_5x5_reduce
I0913 20:11:50.426065 32511 net.cpp:91] Creating Layer inception_5a/relu_5x5_reduce
I0913 20:11:50.426071 32511 net.cpp:425] inception_5a/relu_5x5_reduce <- inception_5a/5x5_reduce
I0913 20:11:50.426079 32511 net.cpp:386] inception_5a/relu_5x5_reduce -> inception_5a/5x5_reduce (in-place)
I0913 20:11:50.426491 32511 net.cpp:141] Setting up inception_5a/relu_5x5_reduce
I0913 20:11:50.426502 32511 net.cpp:148] Top shape: 10 32 7 7 (15680)
I0913 20:11:50.426506 32511 net.cpp:156] Memory required for data: 531991040
I0913 20:11:50.426512 32511 layer_factory.hpp:77] Creating layer inception_5a/5x5
I0913 20:11:50.426528 32511 net.cpp:91] Creating Layer inception_5a/5x5
I0913 20:11:50.426534 32511 net.cpp:425] inception_5a/5x5 <- inception_5a/5x5_reduce
I0913 20:11:50.426545 32511 net.cpp:399] inception_5a/5x5 -> inception_5a/5x5
I0913 20:11:50.428793 32511 net.cpp:141] Setting up inception_5a/5x5
I0913 20:11:50.428810 32511 net.cpp:148] Top shape: 10 128 7 7 (62720)
I0913 20:11:50.428814 32511 net.cpp:156] Memory required for data: 532241920
I0913 20:11:50.428823 32511 layer_factory.hpp:77] Creating layer inception_5a/relu_5x5
I0913 20:11:50.428859 32511 net.cpp:91] Creating Layer inception_5a/relu_5x5
I0913 20:11:50.428865 32511 net.cpp:425] inception_5a/relu_5x5 <- inception_5a/5x5
I0913 20:11:50.428874 32511 net.cpp:386] inception_5a/relu_5x5 -> inception_5a/5x5 (in-place)
I0913 20:11:50.429112 32511 net.cpp:141] Setting up inception_5a/relu_5x5
I0913 20:11:50.429123 32511 net.cpp:148] Top shape: 10 128 7 7 (62720)
I0913 20:11:50.429127 32511 net.cpp:156] Memory required for data: 532492800
I0913 20:11:50.429133 32511 layer_factory.hpp:77] Creating layer inception_5a/pool
I0913 20:11:50.429143 32511 net.cpp:91] Creating Layer inception_5a/pool
I0913 20:11:50.429152 32511 net.cpp:425] inception_5a/pool <- pool4/3x3_s2_pool4/3x3_s2_0_split_3
I0913 20:11:50.429158 32511 net.cpp:399] inception_5a/pool -> inception_5a/pool
I0913 20:11:50.429240 32511 net.cpp:141] Setting up inception_5a/pool
I0913 20:11:50.429250 32511 net.cpp:148] Top shape: 10 832 7 7 (407680)
I0913 20:11:50.429255 32511 net.cpp:156] Memory required for data: 534123520
I0913 20:11:50.429258 32511 layer_factory.hpp:77] Creating layer inception_5a/pool_proj
I0913 20:11:50.429273 32511 net.cpp:91] Creating Layer inception_5a/pool_proj
I0913 20:11:50.429280 32511 net.cpp:425] inception_5a/pool_proj <- inception_5a/pool
I0913 20:11:50.429287 32511 net.cpp:399] inception_5a/pool_proj -> inception_5a/pool_proj
I0913 20:11:50.432512 32511 net.cpp:141] Setting up inception_5a/pool_proj
I0913 20:11:50.432531 32511 net.cpp:148] Top shape: 10 128 7 7 (62720)
I0913 20:11:50.432536 32511 net.cpp:156] Memory required for data: 534374400
I0913 20:11:50.432544 32511 layer_factory.hpp:77] Creating layer inception_5a/relu_pool_proj
I0913 20:11:50.432555 32511 net.cpp:91] Creating Layer inception_5a/relu_pool_proj
I0913 20:11:50.432562 32511 net.cpp:425] inception_5a/relu_pool_proj <- inception_5a/pool_proj
I0913 20:11:50.432569 32511 net.cpp:386] inception_5a/relu_pool_proj -> inception_5a/pool_proj (in-place)
I0913 20:11:50.432991 32511 net.cpp:141] Setting up inception_5a/relu_pool_proj
I0913 20:11:50.433002 32511 net.cpp:148] Top shape: 10 128 7 7 (62720)
I0913 20:11:50.433008 32511 net.cpp:156] Memory required for data: 534625280
I0913 20:11:50.433013 32511 layer_factory.hpp:77] Creating layer inception_5a/output
I0913 20:11:50.433022 32511 net.cpp:91] Creating Layer inception_5a/output
I0913 20:11:50.433028 32511 net.cpp:425] inception_5a/output <- inception_5a/1x1
I0913 20:11:50.433034 32511 net.cpp:425] inception_5a/output <- inception_5a/3x3
I0913 20:11:50.433039 32511 net.cpp:425] inception_5a/output <- inception_5a/5x5
I0913 20:11:50.433044 32511 net.cpp:425] inception_5a/output <- inception_5a/pool_proj
I0913 20:11:50.433051 32511 net.cpp:399] inception_5a/output -> inception_5a/output
I0913 20:11:50.433104 32511 net.cpp:141] Setting up inception_5a/output
I0913 20:11:50.433112 32511 net.cpp:148] Top shape: 10 832 7 7 (407680)
I0913 20:11:50.433116 32511 net.cpp:156] Memory required for data: 536256000
I0913 20:11:50.433120 32511 layer_factory.hpp:77] Creating layer inception_5a/output_inception_5a/output_0_split
I0913 20:11:50.433130 32511 net.cpp:91] Creating Layer inception_5a/output_inception_5a/output_0_split
I0913 20:11:50.433135 32511 net.cpp:425] inception_5a/output_inception_5a/output_0_split <- inception_5a/output
I0913 20:11:50.433143 32511 net.cpp:399] inception_5a/output_inception_5a/output_0_split -> inception_5a/output_inception_5a/output_0_split_0
I0913 20:11:50.433152 32511 net.cpp:399] inception_5a/output_inception_5a/output_0_split -> inception_5a/output_inception_5a/output_0_split_1
I0913 20:11:50.433161 32511 net.cpp:399] inception_5a/output_inception_5a/output_0_split -> inception_5a/output_inception_5a/output_0_split_2
I0913 20:11:50.433168 32511 net.cpp:399] inception_5a/output_inception_5a/output_0_split -> inception_5a/output_inception_5a/output_0_split_3
I0913 20:11:50.433271 32511 net.cpp:141] Setting up inception_5a/output_inception_5a/output_0_split
I0913 20:11:50.433281 32511 net.cpp:148] Top shape: 10 832 7 7 (407680)
I0913 20:11:50.433287 32511 net.cpp:148] Top shape: 10 832 7 7 (407680)
I0913 20:11:50.433292 32511 net.cpp:148] Top shape: 10 832 7 7 (407680)
I0913 20:11:50.433297 32511 net.cpp:148] Top shape: 10 832 7 7 (407680)
I0913 20:11:50.433301 32511 net.cpp:156] Memory required for data: 542778880
I0913 20:11:50.433306 32511 layer_factory.hpp:77] Creating layer inception_5b/1x1
I0913 20:11:50.433321 32511 net.cpp:91] Creating Layer inception_5b/1x1
I0913 20:11:50.433327 32511 net.cpp:425] inception_5b/1x1 <- inception_5a/output_inception_5a/output_0_split_0
I0913 20:11:50.433336 32511 net.cpp:399] inception_5b/1x1 -> inception_5b/1x1
I0913 20:11:50.437822 32511 net.cpp:141] Setting up inception_5b/1x1
I0913 20:11:50.437841 32511 net.cpp:148] Top shape: 10 384 7 7 (188160)
I0913 20:11:50.437846 32511 net.cpp:156] Memory required for data: 543531520
I0913 20:11:50.437855 32511 layer_factory.hpp:77] Creating layer inception_5b/relu_1x1
I0913 20:11:50.437868 32511 net.cpp:91] Creating Layer inception_5b/relu_1x1
I0913 20:11:50.437875 32511 net.cpp:425] inception_5b/relu_1x1 <- inception_5b/1x1
I0913 20:11:50.437881 32511 net.cpp:386] inception_5b/relu_1x1 -> inception_5b/1x1 (in-place)
I0913 20:11:50.438302 32511 net.cpp:141] Setting up inception_5b/relu_1x1
I0913 20:11:50.438315 32511 net.cpp:148] Top shape: 10 384 7 7 (188160)
I0913 20:11:50.438319 32511 net.cpp:156] Memory required for data: 544284160
I0913 20:11:50.438324 32511 layer_factory.hpp:77] Creating layer inception_5b/3x3_reduce
I0913 20:11:50.438341 32511 net.cpp:91] Creating Layer inception_5b/3x3_reduce
I0913 20:11:50.438347 32511 net.cpp:425] inception_5b/3x3_reduce <- inception_5a/output_inception_5a/output_0_split_1
I0913 20:11:50.438356 32511 net.cpp:399] inception_5b/3x3_reduce -> inception_5b/3x3_reduce
I0913 20:11:50.441763 32511 net.cpp:141] Setting up inception_5b/3x3_reduce
I0913 20:11:50.441781 32511 net.cpp:148] Top shape: 10 192 7 7 (94080)
I0913 20:11:50.441787 32511 net.cpp:156] Memory required for data: 544660480
I0913 20:11:50.441794 32511 layer_factory.hpp:77] Creating layer inception_5b/relu_3x3_reduce
I0913 20:11:50.441807 32511 net.cpp:91] Creating Layer inception_5b/relu_3x3_reduce
I0913 20:11:50.441814 32511 net.cpp:425] inception_5b/relu_3x3_reduce <- inception_5b/3x3_reduce
I0913 20:11:50.441822 32511 net.cpp:386] inception_5b/relu_3x3_reduce -> inception_5b/3x3_reduce (in-place)
I0913 20:11:50.442062 32511 net.cpp:141] Setting up inception_5b/relu_3x3_reduce
I0913 20:11:50.442075 32511 net.cpp:148] Top shape: 10 192 7 7 (94080)
I0913 20:11:50.442078 32511 net.cpp:156] Memory required for data: 545036800
I0913 20:11:50.442083 32511 layer_factory.hpp:77] Creating layer inception_5b/3x3
I0913 20:11:50.442098 32511 net.cpp:91] Creating Layer inception_5b/3x3
I0913 20:11:50.442104 32511 net.cpp:425] inception_5b/3x3 <- inception_5b/3x3_reduce
I0913 20:11:50.442114 32511 net.cpp:399] inception_5b/3x3 -> inception_5b/3x3
I0913 20:11:50.450026 32511 net.cpp:141] Setting up inception_5b/3x3
I0913 20:11:50.450052 32511 net.cpp:148] Top shape: 10 384 7 7 (188160)
I0913 20:11:50.450057 32511 net.cpp:156] Memory required for data: 545789440
I0913 20:11:50.450067 32511 layer_factory.hpp:77] Creating layer inception_5b/relu_3x3
I0913 20:11:50.450076 32511 net.cpp:91] Creating Layer inception_5b/relu_3x3
I0913 20:11:50.450083 32511 net.cpp:425] inception_5b/relu_3x3 <- inception_5b/3x3
I0913 20:11:50.450091 32511 net.cpp:386] inception_5b/relu_3x3 -> inception_5b/3x3 (in-place)
I0913 20:11:50.450533 32511 net.cpp:141] Setting up inception_5b/relu_3x3
I0913 20:11:50.450546 32511 net.cpp:148] Top shape: 10 384 7 7 (188160)
I0913 20:11:50.450551 32511 net.cpp:156] Memory required for data: 546542080
I0913 20:11:50.450556 32511 layer_factory.hpp:77] Creating layer inception_5b/5x5_reduce
I0913 20:11:50.450574 32511 net.cpp:91] Creating Layer inception_5b/5x5_reduce
I0913 20:11:50.450582 32511 net.cpp:425] inception_5b/5x5_reduce <- inception_5a/output_inception_5a/output_0_split_2
I0913 20:11:50.450590 32511 net.cpp:399] inception_5b/5x5_reduce -> inception_5b/5x5_reduce
I0913 20:11:50.452337 32511 net.cpp:141] Setting up inception_5b/5x5_reduce
I0913 20:11:50.452355 32511 net.cpp:148] Top shape: 10 48 7 7 (23520)
I0913 20:11:50.452361 32511 net.cpp:156] Memory required for data: 546636160
I0913 20:11:50.452369 32511 layer_factory.hpp:77] Creating layer inception_5b/relu_5x5_reduce
I0913 20:11:50.452378 32511 net.cpp:91] Creating Layer inception_5b/relu_5x5_reduce
I0913 20:11:50.452384 32511 net.cpp:425] inception_5b/relu_5x5_reduce <- inception_5b/5x5_reduce
I0913 20:11:50.452391 32511 net.cpp:386] inception_5b/relu_5x5_reduce -> inception_5b/5x5_reduce (in-place)
I0913 20:11:50.452800 32511 net.cpp:141] Setting up inception_5b/relu_5x5_reduce
I0913 20:11:50.452811 32511 net.cpp:148] Top shape: 10 48 7 7 (23520)
I0913 20:11:50.452816 32511 net.cpp:156] Memory required for data: 546730240
I0913 20:11:50.452821 32511 layer_factory.hpp:77] Creating layer inception_5b/5x5
I0913 20:11:50.452836 32511 net.cpp:91] Creating Layer inception_5b/5x5
I0913 20:11:50.452841 32511 net.cpp:425] inception_5b/5x5 <- inception_5b/5x5_reduce
I0913 20:11:50.452853 32511 net.cpp:399] inception_5b/5x5 -> inception_5b/5x5
I0913 20:11:50.455817 32511 net.cpp:141] Setting up inception_5b/5x5
I0913 20:11:50.455834 32511 net.cpp:148] Top shape: 10 128 7 7 (62720)
I0913 20:11:50.455839 32511 net.cpp:156] Memory required for data: 546981120
I0913 20:11:50.455848 32511 layer_factory.hpp:77] Creating layer inception_5b/relu_5x5
I0913 20:11:50.455862 32511 net.cpp:91] Creating Layer inception_5b/relu_5x5
I0913 20:11:50.455868 32511 net.cpp:425] inception_5b/relu_5x5 <- inception_5b/5x5
I0913 20:11:50.455874 32511 net.cpp:386] inception_5b/relu_5x5 -> inception_5b/5x5 (in-place)
I0913 20:11:50.456133 32511 net.cpp:141] Setting up inception_5b/relu_5x5
I0913 20:11:50.456146 32511 net.cpp:148] Top shape: 10 128 7 7 (62720)
I0913 20:11:50.456151 32511 net.cpp:156] Memory required for data: 547232000
I0913 20:11:50.456154 32511 layer_factory.hpp:77] Creating layer inception_5b/pool
I0913 20:11:50.456166 32511 net.cpp:91] Creating Layer inception_5b/pool
I0913 20:11:50.456171 32511 net.cpp:425] inception_5b/pool <- inception_5a/output_inception_5a/output_0_split_3
I0913 20:11:50.456182 32511 net.cpp:399] inception_5b/pool -> inception_5b/pool
I0913 20:11:50.456256 32511 net.cpp:141] Setting up inception_5b/pool
I0913 20:11:50.456265 32511 net.cpp:148] Top shape: 10 832 7 7 (407680)
I0913 20:11:50.456269 32511 net.cpp:156] Memory required for data: 548862720
I0913 20:11:50.456274 32511 layer_factory.hpp:77] Creating layer inception_5b/pool_proj
I0913 20:11:50.456291 32511 net.cpp:91] Creating Layer inception_5b/pool_proj
I0913 20:11:50.456297 32511 net.cpp:425] inception_5b/pool_proj <- inception_5b/pool
I0913 20:11:50.456305 32511 net.cpp:399] inception_5b/pool_proj -> inception_5b/pool_proj
I0913 20:11:50.459355 32511 net.cpp:141] Setting up inception_5b/pool_proj
I0913 20:11:50.459375 32511 net.cpp:148] Top shape: 10 128 7 7 (62720)
I0913 20:11:50.459380 32511 net.cpp:156] Memory required for data: 549113600
I0913 20:11:50.459389 32511 layer_factory.hpp:77] Creating layer inception_5b/relu_pool_proj
I0913 20:11:50.459398 32511 net.cpp:91] Creating Layer inception_5b/relu_pool_proj
I0913 20:11:50.459403 32511 net.cpp:425] inception_5b/relu_pool_proj <- inception_5b/pool_proj
I0913 20:11:50.459410 32511 net.cpp:386] inception_5b/relu_pool_proj -> inception_5b/pool_proj (in-place)
I0913 20:11:50.459836 32511 net.cpp:141] Setting up inception_5b/relu_pool_proj
I0913 20:11:50.459848 32511 net.cpp:148] Top shape: 10 128 7 7 (62720)
I0913 20:11:50.459852 32511 net.cpp:156] Memory required for data: 549364480
I0913 20:11:50.459857 32511 layer_factory.hpp:77] Creating layer inception_5b/output
I0913 20:11:50.459867 32511 net.cpp:91] Creating Layer inception_5b/output
I0913 20:11:50.459872 32511 net.cpp:425] inception_5b/output <- inception_5b/1x1
I0913 20:11:50.459878 32511 net.cpp:425] inception_5b/output <- inception_5b/3x3
I0913 20:11:50.459883 32511 net.cpp:425] inception_5b/output <- inception_5b/5x5
I0913 20:11:50.459888 32511 net.cpp:425] inception_5b/output <- inception_5b/pool_proj
I0913 20:11:50.459895 32511 net.cpp:399] inception_5b/output -> inception_5b/output
I0913 20:11:50.459947 32511 net.cpp:141] Setting up inception_5b/output
I0913 20:11:50.459956 32511 net.cpp:148] Top shape: 10 1024 7 7 (501760)
I0913 20:11:50.459960 32511 net.cpp:156] Memory required for data: 551371520
I0913 20:11:50.459965 32511 layer_factory.hpp:77] Creating layer pool5/7x7_s1
I0913 20:11:50.459975 32511 net.cpp:91] Creating Layer pool5/7x7_s1
I0913 20:11:50.459980 32511 net.cpp:425] pool5/7x7_s1 <- inception_5b/output
I0913 20:11:50.459988 32511 net.cpp:399] pool5/7x7_s1 -> pool5/7x7_s1
I0913 20:11:50.460299 32511 net.cpp:141] Setting up pool5/7x7_s1
I0913 20:11:50.460310 32511 net.cpp:148] Top shape: 10 1024 1 1 (10240)
I0913 20:11:50.460315 32511 net.cpp:156] Memory required for data: 551412480
I0913 20:11:50.460319 32511 layer_factory.hpp:77] Creating layer pool5/drop_7x7_s1
I0913 20:11:50.460330 32511 net.cpp:91] Creating Layer pool5/drop_7x7_s1
I0913 20:11:50.460335 32511 net.cpp:425] pool5/drop_7x7_s1 <- pool5/7x7_s1
I0913 20:11:50.460343 32511 net.cpp:386] pool5/drop_7x7_s1 -> pool5/7x7_s1 (in-place)
I0913 20:11:50.460391 32511 net.cpp:141] Setting up pool5/drop_7x7_s1
I0913 20:11:50.460403 32511 net.cpp:148] Top shape: 10 1024 1 1 (10240)
I0913 20:11:50.460407 32511 net.cpp:156] Memory required for data: 551453440
I0913 20:11:50.460412 32511 layer_factory.hpp:77] Creating layer loss3/classifier
I0913 20:11:50.460427 32511 net.cpp:91] Creating Layer loss3/classifier
I0913 20:11:50.460433 32511 net.cpp:425] loss3/classifier <- pool5/7x7_s1
I0913 20:11:50.460444 32511 net.cpp:399] loss3/classifier -> loss3/classifier
I0913 20:11:50.470470 32511 net.cpp:141] Setting up loss3/classifier
I0913 20:11:50.470527 32511 net.cpp:148] Top shape: 10 1000 (10000)
I0913 20:11:50.470536 32511 net.cpp:156] Memory required for data: 551493440
I0913 20:11:50.470558 32511 layer_factory.hpp:77] Creating layer prob
I0913 20:11:50.470580 32511 net.cpp:91] Creating Layer prob
I0913 20:11:50.470594 32511 net.cpp:425] prob <- loss3/classifier
I0913 20:11:50.470620 32511 net.cpp:399] prob -> prob
I0913 20:11:50.471740 32511 net.cpp:141] Setting up prob
I0913 20:11:50.471761 32511 net.cpp:148] Top shape: 10 1000 (10000)
I0913 20:11:50.471771 32511 net.cpp:156] Memory required for data: 551533440
I0913 20:11:50.471781 32511 net.cpp:219] prob does not need backward computation.
I0913 20:11:50.471789 32511 net.cpp:219] loss3/classifier does not need backward computation.
I0913 20:11:50.471798 32511 net.cpp:219] pool5/drop_7x7_s1 does not need backward computation.
I0913 20:11:50.471807 32511 net.cpp:219] pool5/7x7_s1 does not need backward computation.
…
