…
Java HotSpot(TM) 64-Bit Server VM warning: You have loaded library /tmp/cvld4965051927667509893/libopencv_java310.xine1.so which might have disabled stack guard. The VM will try to fix the stack guard now.
It's highly recommended that you fix the library with 'execstack -c <libfile>', or link it with '-z noexecstack'.
WARNING: Logging before InitGoogleLogging() is written to STDERR
I0802 07:01:46.483122 29663 net.cpp:49] Initializing net from parameters: 
name: "CaffeNet"
state {
  phase: TEST
}
layer {
  name: "data"
  type: "Input"
  top: "data"
  input_param {
    shape {
      dim: 10
      dim: 3
      dim: 227
      dim: 227
    }
  }
}
layer {
  name: "conv1"
  type: "Convolution"
  bottom: "data"
  top: "conv1"
  convolution_param {
    num_output: 96
    kernel_size: 11
    stride: 4
  }
}
layer {
  name: "relu1"
  type: "ReLU"
  bottom: "conv1"
  top: "conv1"
}
layer {
  name: "pool1"
  type: "Pooling"
  bottom: "conv1"
  top: "pool1"
  pooling_param {
    pool: MAX
    kernel_size: 3
    stride: 2
  }
}
layer {
  name: "norm1"
  type: "LRN"
  bottom: "pool1"
  top: "norm1"
  lrn_param {
    local_size: 5
    alpha: 0.0001
    beta: 0.75
  }
}
layer {
  name: "conv2"
  type: "Convolution"
  bottom: "norm1"
  top: "conv2"
  convolution_param {
    num_output: 256
    pad: 2
    kernel_size: 5
    group: 2
  }
}
layer {
  name: "relu2"
  type: "ReLU"
  bottom: "conv2"
  top: "conv2"
}
layer {
  name: "pool2"
  type: "Pooling"
  bottom: "conv2"
  top: "pool2"
  pooling_param {
    pool: MAX
    kernel_size: 3
    stride: 2
  }
}
layer {
  name: "norm2"
  type: "LRN"
  bottom: "pool2"
  top: "norm2"
  lrn_param {
    local_size: 5
    alpha: 0.0001
    beta: 0.75
  }
}
layer {
  name: "conv3"
  type: "Convolution"
  bottom: "norm2"
  top: "conv3"
  convolution_param {
    num_output: 384
    pad: 1
    kernel_size: 3
  }
}
layer {
  name: "relu3"
  type: "ReLU"
  bottom: "conv3"
  top: "conv3"
}
layer {
  name: "conv4"
  type: "Convolution"
  bottom: "conv3"
  top: "conv4"
  convolution_param {
    num_output: 384
    pad: 1
    kernel_size: 3
    group: 2
  }
}
layer {
  name: "relu4"
  type: "ReLU"
  bottom: "conv4"
  top: "conv4"
}
layer {
  name: "conv5"
  type: "Convolution"
  bottom: "conv4"
  top: "conv5"
  convolution_param {
    num_output: 256
    pad: 1
    kernel_size: 3
    group: 2
  }
}
layer {
  name: "relu5"
  type: "ReLU"
  bottom: "conv5"
  top: "conv5"
}
layer {
  name: "pool5"
  type: "Pooling"
  bottom: "conv5"
  top: "pool5"
  pooling_param {
    pool: MAX
    kernel_size: 3
    stride: 2
  }
}
layer {
  name: "fc6"
  type: "InnerProduct"
  bottom: "pool5"
  top: "fc6"
  inner_product_param {
    num_output: 4096
  }
}
layer {
  name: "relu6"
  type: "ReLU"
  bottom: "fc6"
  top: "fc6"
}
layer {
  name: "drop6"
  type: "Dropout"
  bottom: "fc6"
  top: "fc6"
  dropout_param {
    dropout_ratio: 0.5
  }
}
layer {
  name: "fc7"
  type: "InnerProduct"
  bottom: "fc6"
  top: "fc7"
  inner_product_param {
    num_output: 4096
  }
}
layer {
  name: "relu7"
  type: "ReLU"
  bottom: "fc7"
  top: "fc7"
}
layer {
  name: "drop7"
  type: "Dropout"
  bottom: "fc7"
  top: "fc7"
  dropout_param {
    dropout_ratio: 0.5
  }
}
layer {
  name: "fc8"
  type: "InnerProduct"
  bottom: "fc7"
  top: "fc8"
  inner_product_param {
    num_output: 1000
  }
}
layer {
  name: "prob"
  type: "Softmax"
  bottom: "fc8"
  top: "prob"
}
I0802 07:01:46.483325 29663 layer_factory.hpp:77] Creating layer data
I0802 07:01:46.483355 29663 net.cpp:91] Creating Layer data
I0802 07:01:46.483364 29663 net.cpp:399] data -> data
I0802 07:01:46.985162 29663 net.cpp:141] Setting up data
I0802 07:01:46.985276 29663 net.cpp:148] Top shape: 10 3 227 227 (1545870)
I0802 07:01:46.985285 29663 net.cpp:156] Memory required for data: 6183480
I0802 07:01:46.985303 29663 layer_factory.hpp:77] Creating layer conv1
I0802 07:01:46.985334 29663 net.cpp:91] Creating Layer conv1
I0802 07:01:46.985343 29663 net.cpp:425] conv1 <- data
I0802 07:01:46.985359 29663 net.cpp:399] conv1 -> conv1
I0802 07:01:47.125921 29653 upgrade_proto.cpp:66] Attempting to upgrade input file specified using deprecated input fields: /tmp/cvld4965051927667509893/s2vt.words_to_preds.prototxt
I0802 07:01:47.125975 29653 upgrade_proto.cpp:69] Successfully upgraded file specified using deprecated input fields.
W0802 07:01:47.125983 29653 upgrade_proto.cpp:71] Note that future Caffe releases will only support input layers and not input fields.
I0802 07:01:47.126245 29653 net.cpp:49] Initializing net from parameters: 
name: "s2vt:features_to_lstm"
state {
  phase: TEST
}
layer {
  name: "input"
  type: "Input"
  top: "frames_fc7"
  top: "cont_sentence"
  top: "input_sentence"
  top: "stage_indicator"
  input_param {
    shape {
      dim: 1
      dim: 4096
    }
    shape {
      dim: 1
      dim: 1
    }
    shape {
      dim: 1
      dim: 1
    }
    shape {
      dim: 1
      dim: 1
    }
  }
}
layer {
  name: "embed_encoder"
  type: "InnerProduct"
  bottom: "frames_fc7"
  top: "embedded_in_frames"
  param {
    lr_mult: 1
    decay_mult: 1
  }
  param {
    lr_mult: 2
    decay_mult: 0
  }
  inner_product_param {
    num_output: 500
    weight_filler {
      type: "xavier"
    }
    bias_filler {
      type: "constant"
      value: 0.2
    }
  }
}
layer {
  name: "reshape_frames"
  type: "Reshape"
  bottom: "embedded_in_frames"
  top: "embedded_input_frames"
  reshape_param {
    shape {
      dim: 1
      dim: 1
      dim: 500
    }
  }
}
layer {
  name: "reshape_stage_indicator"
  type: "Reshape"
  bottom: "stage_indicator"
  top: "reshaped_stage_indicator"
  reshape_param {
    shape {
      dim: 1
      dim: 1
      dim: 1
    }
  }
}
layer {
  name: "embedding"
  type: "Embed"
  bottom: "input_sentence"
  top: "embedded_input_sentence"
  param {
    lr_mult: 1
  }
  embed_param {
    num_output: 500
    input_dim: 46168
    bias_term: false
    weight_filler {
      type: "uniform"
      min: -0.08
      max: 0.08
    }
  }
}
layer {
  name: "lstm1"
  type: "LSTM"
  bottom: "embedded_input_frames"
  bottom: "cont_sentence"
  top: "lstm1"
  recurrent_param {
    num_output: 1000
    weight_filler {
      type: "uniform"
      min: -0.08
      max: 0.08
    }
    bias_filler {
      type: "constant"
      value: 0
    }
  }
}
layer {
  name: "concat"
  type: "Concat"
  bottom: "lstm1"
  bottom: "embedded_input_sentence"
  bottom: "reshaped_stage_indicator"
  top: "lstm1_video_sequence"
  concat_param {
    concat_dim: 2
  }
}
layer {
  name: "lstm2"
  type: "LSTM"
  bottom: "lstm1_video_sequence"
  bottom: "cont_sentence"
  top: "lstm2"
  recurrent_param {
    num_output: 1000
    weight_filler {
      type: "uniform"
      min: -0.08
      max: 0.08
    }
    bias_filler {
      type: "constant"
      value: 0
    }
  }
}
layer {
  name: "predict"
  type: "InnerProduct"
  bottom: "lstm2"
  top: "predict"
  param {
    lr_mult: 1
    decay_mult: 1
  }
  param {
    lr_mult: 2
    decay_mult: 0
  }
  inner_product_param {
    num_output: 46168
    weight_filler {
      type: "uniform"
      min: -0.08
      max: 0.08
    }
    bias_filler {
      type: "constant"
      value: 0
    }
    axis: 2
  }
}
layer {
  name: "probs"
  type: "Softmax"
  bottom: "predict"
  top: "probs"
  softmax_param {
    axis: 2
  }
}
I0802 07:01:47.126344 29653 layer_factory.hpp:77] Creating layer input
I0802 07:01:47.126361 29653 net.cpp:91] Creating Layer input
I0802 07:01:47.126369 29653 net.cpp:399] input -> frames_fc7
I0802 07:01:47.126386 29653 net.cpp:399] input -> cont_sentence
I0802 07:01:47.126396 29653 net.cpp:399] input -> input_sentence
I0802 07:01:47.126406 29653 net.cpp:399] input -> stage_indicator
I0802 07:01:47.129439 29653 net.cpp:141] Setting up input
I0802 07:01:47.129458 29653 net.cpp:148] Top shape: 1 4096 (4096)
I0802 07:01:47.129465 29653 net.cpp:148] Top shape: 1 1 (1)
I0802 07:01:47.129472 29653 net.cpp:148] Top shape: 1 1 (1)
I0802 07:01:47.129477 29653 net.cpp:148] Top shape: 1 1 (1)
I0802 07:01:47.129480 29653 net.cpp:156] Memory required for data: 16396
I0802 07:01:47.129485 29653 layer_factory.hpp:77] Creating layer cont_sentence_input_1_split
I0802 07:01:47.129503 29653 net.cpp:91] Creating Layer cont_sentence_input_1_split
I0802 07:01:47.129509 29653 net.cpp:425] cont_sentence_input_1_split <- cont_sentence
I0802 07:01:47.129529 29653 net.cpp:399] cont_sentence_input_1_split -> cont_sentence_input_1_split_0
I0802 07:01:47.129540 29653 net.cpp:399] cont_sentence_input_1_split -> cont_sentence_input_1_split_1
I0802 07:01:47.131937 29653 net.cpp:141] Setting up cont_sentence_input_1_split
I0802 07:01:47.131954 29653 net.cpp:148] Top shape: 1 1 (1)
I0802 07:01:47.131960 29653 net.cpp:148] Top shape: 1 1 (1)
I0802 07:01:47.131964 29653 net.cpp:156] Memory required for data: 16404
I0802 07:01:47.131969 29653 layer_factory.hpp:77] Creating layer embed_encoder
I0802 07:01:47.131983 29653 net.cpp:91] Creating Layer embed_encoder
I0802 07:01:47.131988 29653 net.cpp:425] embed_encoder <- frames_fc7
I0802 07:01:47.131996 29653 net.cpp:399] embed_encoder -> embedded_in_frames
I0802 07:01:47.158243 29653 net.cpp:141] Setting up embed_encoder
I0802 07:01:47.158289 29653 net.cpp:148] Top shape: 1 500 (500)
I0802 07:01:47.158295 29653 net.cpp:156] Memory required for data: 18404
I0802 07:01:47.158324 29653 layer_factory.hpp:77] Creating layer reshape_frames
I0802 07:01:47.158351 29653 net.cpp:91] Creating Layer reshape_frames
I0802 07:01:47.158360 29653 net.cpp:425] reshape_frames <- embedded_in_frames
I0802 07:01:47.158372 29653 net.cpp:399] reshape_frames -> embedded_input_frames
I0802 07:01:47.159131 29653 net.cpp:141] Setting up reshape_frames
I0802 07:01:47.159142 29653 net.cpp:148] Top shape: 1 1 500 (500)
I0802 07:01:47.159147 29653 net.cpp:156] Memory required for data: 20404
I0802 07:01:47.159152 29653 layer_factory.hpp:77] Creating layer reshape_stage_indicator
I0802 07:01:47.159162 29653 net.cpp:91] Creating Layer reshape_stage_indicator
I0802 07:01:47.159168 29653 net.cpp:425] reshape_stage_indicator <- stage_indicator
I0802 07:01:47.159180 29653 net.cpp:399] reshape_stage_indicator -> reshaped_stage_indicator
I0802 07:01:47.159459 29653 net.cpp:141] Setting up reshape_stage_indicator
I0802 07:01:47.159471 29653 net.cpp:148] Top shape: 1 1 1 (1)
I0802 07:01:47.159474 29653 net.cpp:156] Memory required for data: 20408
I0802 07:01:47.159479 29653 layer_factory.hpp:77] Creating layer embedding
I0802 07:01:47.159492 29653 net.cpp:91] Creating Layer embedding
I0802 07:01:47.159497 29653 net.cpp:425] embedding <- input_sentence
I0802 07:01:47.159505 29653 net.cpp:399] embedding -> embedded_input_sentence
I0802 07:01:47.245532 29663 net.cpp:141] Setting up conv1
I0802 07:01:47.245592 29663 net.cpp:148] Top shape: 10 96 55 55 (2904000)
I0802 07:01:47.245599 29663 net.cpp:156] Memory required for data: 17799480
I0802 07:01:47.245620 29663 layer_factory.hpp:77] Creating layer relu1
I0802 07:01:47.245640 29663 net.cpp:91] Creating Layer relu1
I0802 07:01:47.245646 29663 net.cpp:425] relu1 <- conv1
I0802 07:01:47.245653 29663 net.cpp:386] relu1 -> conv1 (in-place)
I0802 07:01:47.246099 29663 net.cpp:141] Setting up relu1
I0802 07:01:47.246112 29663 net.cpp:148] Top shape: 10 96 55 55 (2904000)
I0802 07:01:47.246116 29663 net.cpp:156] Memory required for data: 29415480
I0802 07:01:47.246121 29663 layer_factory.hpp:77] Creating layer pool1
I0802 07:01:47.246135 29663 net.cpp:91] Creating Layer pool1
I0802 07:01:47.246141 29663 net.cpp:425] pool1 <- conv1
I0802 07:01:47.246148 29663 net.cpp:399] pool1 -> pool1
I0802 07:01:47.246217 29663 net.cpp:141] Setting up pool1
I0802 07:01:47.246227 29663 net.cpp:148] Top shape: 10 96 27 27 (699840)
I0802 07:01:47.246230 29663 net.cpp:156] Memory required for data: 32214840
I0802 07:01:47.246235 29663 layer_factory.hpp:77] Creating layer norm1
I0802 07:01:47.246254 29663 net.cpp:91] Creating Layer norm1
I0802 07:01:47.246259 29663 net.cpp:425] norm1 <- pool1
I0802 07:01:47.246266 29663 net.cpp:399] norm1 -> norm1
I0802 07:01:47.246739 29663 net.cpp:141] Setting up norm1
I0802 07:01:47.246752 29663 net.cpp:148] Top shape: 10 96 27 27 (699840)
I0802 07:01:47.246757 29663 net.cpp:156] Memory required for data: 35014200
I0802 07:01:47.246762 29663 layer_factory.hpp:77] Creating layer conv2
I0802 07:01:47.246778 29663 net.cpp:91] Creating Layer conv2
I0802 07:01:47.246784 29663 net.cpp:425] conv2 <- norm1
I0802 07:01:47.246794 29663 net.cpp:399] conv2 -> conv2
I0802 07:01:47.250025 29663 net.cpp:141] Setting up conv2
I0802 07:01:47.250056 29663 net.cpp:148] Top shape: 10 256 27 27 (1866240)
I0802 07:01:47.250061 29663 net.cpp:156] Memory required for data: 42479160
I0802 07:01:47.250075 29663 layer_factory.hpp:77] Creating layer relu2
I0802 07:01:47.250084 29663 net.cpp:91] Creating Layer relu2
I0802 07:01:47.250089 29663 net.cpp:425] relu2 <- conv2
I0802 07:01:47.250095 29663 net.cpp:386] relu2 -> conv2 (in-place)
I0802 07:01:47.250538 29663 net.cpp:141] Setting up relu2
I0802 07:01:47.250551 29663 net.cpp:148] Top shape: 10 256 27 27 (1866240)
I0802 07:01:47.250555 29663 net.cpp:156] Memory required for data: 49944120
I0802 07:01:47.250560 29663 layer_factory.hpp:77] Creating layer pool2
I0802 07:01:47.250569 29663 net.cpp:91] Creating Layer pool2
I0802 07:01:47.250573 29663 net.cpp:425] pool2 <- conv2
I0802 07:01:47.250581 29663 net.cpp:399] pool2 -> pool2
I0802 07:01:47.250636 29663 net.cpp:141] Setting up pool2
I0802 07:01:47.250645 29663 net.cpp:148] Top shape: 10 256 13 13 (432640)
I0802 07:01:47.250649 29663 net.cpp:156] Memory required for data: 51674680
I0802 07:01:47.250654 29663 layer_factory.hpp:77] Creating layer norm2
I0802 07:01:47.250665 29663 net.cpp:91] Creating Layer norm2
I0802 07:01:47.250670 29663 net.cpp:425] norm2 <- pool2
I0802 07:01:47.250679 29663 net.cpp:399] norm2 -> norm2
I0802 07:01:47.250928 29663 net.cpp:141] Setting up norm2
I0802 07:01:47.250939 29663 net.cpp:148] Top shape: 10 256 13 13 (432640)
I0802 07:01:47.250944 29663 net.cpp:156] Memory required for data: 53405240
I0802 07:01:47.250949 29663 layer_factory.hpp:77] Creating layer conv3
I0802 07:01:47.250962 29663 net.cpp:91] Creating Layer conv3
I0802 07:01:47.250967 29663 net.cpp:425] conv3 <- norm2
I0802 07:01:47.250977 29663 net.cpp:399] conv3 -> conv3
I0802 07:01:47.254606 29663 net.cpp:141] Setting up conv3
I0802 07:01:47.254622 29663 net.cpp:148] Top shape: 10 384 13 13 (648960)
I0802 07:01:47.254642 29663 net.cpp:156] Memory required for data: 56001080
I0802 07:01:47.254657 29663 layer_factory.hpp:77] Creating layer relu3
I0802 07:01:47.254665 29663 net.cpp:91] Creating Layer relu3
I0802 07:01:47.254670 29663 net.cpp:425] relu3 <- conv3
I0802 07:01:47.254676 29663 net.cpp:386] relu3 -> conv3 (in-place)
I0802 07:01:47.255107 29663 net.cpp:141] Setting up relu3
I0802 07:01:47.255122 29663 net.cpp:148] Top shape: 10 384 13 13 (648960)
I0802 07:01:47.255127 29663 net.cpp:156] Memory required for data: 58596920
I0802 07:01:47.255132 29663 layer_factory.hpp:77] Creating layer conv4
I0802 07:01:47.255141 29663 net.cpp:91] Creating Layer conv4
I0802 07:01:47.255146 29663 net.cpp:425] conv4 <- conv3
I0802 07:01:47.255157 29663 net.cpp:399] conv4 -> conv4
I0802 07:01:47.259167 29663 net.cpp:141] Setting up conv4
I0802 07:01:47.259198 29663 net.cpp:148] Top shape: 10 384 13 13 (648960)
I0802 07:01:47.259204 29663 net.cpp:156] Memory required for data: 61192760
I0802 07:01:47.259213 29663 layer_factory.hpp:77] Creating layer relu4
I0802 07:01:47.259227 29663 net.cpp:91] Creating Layer relu4
I0802 07:01:47.259232 29663 net.cpp:425] relu4 <- conv4
I0802 07:01:47.259238 29663 net.cpp:386] relu4 -> conv4 (in-place)
I0802 07:01:47.259678 29663 net.cpp:141] Setting up relu4
I0802 07:01:47.259691 29663 net.cpp:148] Top shape: 10 384 13 13 (648960)
I0802 07:01:47.259696 29663 net.cpp:156] Memory required for data: 63788600
I0802 07:01:47.259701 29663 layer_factory.hpp:77] Creating layer conv5
I0802 07:01:47.259716 29663 net.cpp:91] Creating Layer conv5
I0802 07:01:47.259721 29663 net.cpp:425] conv5 <- conv4
I0802 07:01:47.259728 29663 net.cpp:399] conv5 -> conv5
I0802 07:01:47.263485 29663 net.cpp:141] Setting up conv5
I0802 07:01:47.263515 29663 net.cpp:148] Top shape: 10 256 13 13 (432640)
I0802 07:01:47.263520 29663 net.cpp:156] Memory required for data: 65519160
I0802 07:01:47.263536 29663 layer_factory.hpp:77] Creating layer relu5
I0802 07:01:47.263545 29663 net.cpp:91] Creating Layer relu5
I0802 07:01:47.263550 29663 net.cpp:425] relu5 <- conv5
I0802 07:01:47.263556 29663 net.cpp:386] relu5 -> conv5 (in-place)
I0802 07:01:47.264003 29663 net.cpp:141] Setting up relu5
I0802 07:01:47.264024 29663 net.cpp:148] Top shape: 10 256 13 13 (432640)
I0802 07:01:47.264029 29663 net.cpp:156] Memory required for data: 67249720
I0802 07:01:47.264034 29663 layer_factory.hpp:77] Creating layer pool5
I0802 07:01:47.264044 29663 net.cpp:91] Creating Layer pool5
I0802 07:01:47.264047 29663 net.cpp:425] pool5 <- conv5
I0802 07:01:47.264060 29663 net.cpp:399] pool5 -> pool5
I0802 07:01:47.264118 29663 net.cpp:141] Setting up pool5
I0802 07:01:47.264129 29663 net.cpp:148] Top shape: 10 256 6 6 (92160)
I0802 07:01:47.264134 29663 net.cpp:156] Memory required for data: 67618360
I0802 07:01:47.264138 29663 layer_factory.hpp:77] Creating layer fc6
I0802 07:01:47.264150 29663 net.cpp:91] Creating Layer fc6
I0802 07:01:47.264154 29663 net.cpp:425] fc6 <- pool5
I0802 07:01:47.264161 29663 net.cpp:399] fc6 -> fc6
I0802 07:01:47.361196 29663 net.cpp:141] Setting up fc6
I0802 07:01:47.361255 29663 net.cpp:148] Top shape: 10 4096 (40960)
I0802 07:01:47.361263 29663 net.cpp:156] Memory required for data: 67782200
I0802 07:01:47.361276 29663 layer_factory.hpp:77] Creating layer relu6
I0802 07:01:47.361294 29663 net.cpp:91] Creating Layer relu6
I0802 07:01:47.361300 29663 net.cpp:425] relu6 <- fc6
I0802 07:01:47.361309 29663 net.cpp:386] relu6 -> fc6 (in-place)
I0802 07:01:47.361642 29663 net.cpp:141] Setting up relu6
I0802 07:01:47.361654 29663 net.cpp:148] Top shape: 10 4096 (40960)
I0802 07:01:47.361659 29663 net.cpp:156] Memory required for data: 67946040
I0802 07:01:47.361663 29663 layer_factory.hpp:77] Creating layer drop6
I0802 07:01:47.361676 29663 net.cpp:91] Creating Layer drop6
I0802 07:01:47.361681 29663 net.cpp:425] drop6 <- fc6
I0802 07:01:47.361688 29663 net.cpp:386] drop6 -> fc6 (in-place)
I0802 07:01:47.361750 29663 net.cpp:141] Setting up drop6
I0802 07:01:47.361759 29663 net.cpp:148] Top shape: 10 4096 (40960)
I0802 07:01:47.361764 29663 net.cpp:156] Memory required for data: 68109880
I0802 07:01:47.361768 29663 layer_factory.hpp:77] Creating layer fc7
I0802 07:01:47.361778 29663 net.cpp:91] Creating Layer fc7
I0802 07:01:47.361783 29663 net.cpp:425] fc7 <- fc6
I0802 07:01:47.361794 29663 net.cpp:399] fc7 -> fc7
I0802 07:01:47.389834 29653 net.cpp:141] Setting up embedding
I0802 07:01:47.389894 29653 net.cpp:148] Top shape: 1 1 500 (500)
I0802 07:01:47.389899 29653 net.cpp:156] Memory required for data: 22408
I0802 07:01:47.389919 29653 layer_factory.hpp:77] Creating layer lstm1
I0802 07:01:47.389940 29653 net.cpp:91] Creating Layer lstm1
I0802 07:01:47.389948 29653 net.cpp:425] lstm1 <- embedded_input_frames
I0802 07:01:47.389957 29653 net.cpp:425] lstm1 <- cont_sentence_input_1_split_0
I0802 07:01:47.389969 29653 net.cpp:399] lstm1 -> lstm1
I0802 07:01:47.389997 29653 recurrent_layer.cpp:20] Initializing recurrent layer: assuming input batch contains 1 timesteps of 1 independent streams.
I0802 07:01:47.390385 29653 net.cpp:49] Initializing net from parameters: 
layer {
  name: "lstm1_"
  type: "Input"
  top: "x"
  top: "cont"
  input_param {
    shape {
      dim: 1
      dim: 1
      dim: 500
    }
    shape {
      dim: 1
      dim: 1
    }
  }
}
layer {
  name: "lstm1_"
  type: "Input"
  top: "c_0"
  top: "h_0"
  input_param {
    shape {
      dim: 1
      dim: 1
      dim: 1000
    }
    shape {
      dim: 1
      dim: 1
      dim: 1000
    }
  }
}
layer {
  name: "lstm1_cont_slice"
  type: "Slice"
  bottom: "cont"
  top: "cont_1"
  slice_param {
    axis: 0
  }
}
layer {
  name: "lstm1_x_transform"
  type: "InnerProduct"
  bottom: "x"
  top: "W_xc_x"
  param {
    name: "W_xc"
  }
  param {
    name: "b_c"
  }
  propagate_down: true
  inner_product_param {
    num_output: 4000
    bias_term: true
    weight_filler {
      type: "uniform"
      min: -0.08
      max: 0.08
    }
    bias_filler {
      type: "constant"
      value: 0
    }
    axis: 2
  }
}
layer {
  name: "lstm1_W_xc_x_slice"
  type: "Slice"
  bottom: "W_xc_x"
  top: "W_xc_x_1"
  slice_param {
    axis: 0
  }
}
layer {
  name: "lstm1_h_conted_0"
  type: "Scale"
  bottom: "h_0"
  bottom: "cont_1"
  top: "h_conted_0"
  scale_param {
    axis: 0
  }
}
layer {
  name: "lstm1_transform_1"
  type: "InnerProduct"
  bottom: "h_conted_0"
  top: "W_hc_h_0"
  param {
    name: "W_hc"
  }
  inner_product_param {
    num_output: 4000
    bias_term: false
    weight_filler {
      type: "uniform"
      min: -0.08
      max: 0.08
    }
    axis: 2
  }
}
layer {
  name: "lstm1_gate_input_1"
  type: "Eltwise"
  bottom: "W_hc_h_0"
  bottom: "W_xc_x_1"
  top: "gate_input_1"
  eltwise_param {
    operation: SUM
  }
}
layer {
  name: "lstm1_unit_1"
  type: "LSTMUnit"
  bottom: "c_0"
  bottom: "gate_input_1"
  bottom: "cont_1"
  top: "c_1"
  top: "h_1"
}
layer {
  name: "lstm1_"
  type: "Split"
  bottom: "c_1"
  top: "c_T"
}
layer {
  name: "lstm1_h_concat"
  type: "Concat"
  bottom: "h_1"
  top: "h"
  concat_param {
    axis: 0
  }
}
layer {
  name: "h_pseudoloss"
  type: "Reduction"
  bottom: "h"
  top: "h_pseudoloss"
  loss_weight: 1
}
I0802 07:01:47.390483 29653 layer_factory.hpp:77] Creating layer lstm1_
I0802 07:01:47.390496 29653 net.cpp:91] Creating Layer lstm1_
I0802 07:01:47.390501 29653 net.cpp:399] lstm1_ -> x
I0802 07:01:47.390512 29653 net.cpp:399] lstm1_ -> cont
I0802 07:01:47.390573 29653 net.cpp:141] Setting up lstm1_
I0802 07:01:47.390583 29653 net.cpp:148] Top shape: 1 1 500 (500)
I0802 07:01:47.390588 29653 net.cpp:148] Top shape: 1 1 (1)
I0802 07:01:47.390593 29653 net.cpp:156] Memory required for data: 2004
I0802 07:01:47.390597 29653 layer_factory.hpp:77] Creating layer lstm1_
I0802 07:01:47.390604 29653 net.cpp:91] Creating Layer lstm1_
I0802 07:01:47.390614 29653 net.cpp:399] lstm1_ -> c_0
I0802 07:01:47.390624 29653 net.cpp:399] lstm1_ -> h_0
I0802 07:01:47.390671 29653 net.cpp:141] Setting up lstm1_
I0802 07:01:47.390678 29653 net.cpp:148] Top shape: 1 1 1000 (1000)
I0802 07:01:47.390684 29653 net.cpp:148] Top shape: 1 1 1000 (1000)
I0802 07:01:47.390688 29653 net.cpp:156] Memory required for data: 10004
I0802 07:01:47.390692 29653 layer_factory.hpp:77] Creating layer lstm1_cont_slice
I0802 07:01:47.390717 29653 net.cpp:91] Creating Layer lstm1_cont_slice
I0802 07:01:47.390722 29653 net.cpp:425] lstm1_cont_slice <- cont
I0802 07:01:47.390732 29653 net.cpp:399] lstm1_cont_slice -> cont_1
I0802 07:01:47.390764 29653 net.cpp:141] Setting up lstm1_cont_slice
I0802 07:01:47.390774 29653 net.cpp:148] Top shape: 1 1 (1)
I0802 07:01:47.390777 29653 net.cpp:156] Memory required for data: 10008
I0802 07:01:47.390782 29653 layer_factory.hpp:77] Creating layer cont_1_lstm1_cont_slice_0_split
I0802 07:01:47.390789 29653 net.cpp:91] Creating Layer cont_1_lstm1_cont_slice_0_split
I0802 07:01:47.390794 29653 net.cpp:425] cont_1_lstm1_cont_slice_0_split <- cont_1
I0802 07:01:47.390805 29653 net.cpp:399] cont_1_lstm1_cont_slice_0_split -> cont_1_lstm1_cont_slice_0_split_0
I0802 07:01:47.390812 29653 net.cpp:399] cont_1_lstm1_cont_slice_0_split -> cont_1_lstm1_cont_slice_0_split_1
I0802 07:01:47.390858 29653 net.cpp:141] Setting up cont_1_lstm1_cont_slice_0_split
I0802 07:01:47.390867 29653 net.cpp:148] Top shape: 1 1 (1)
I0802 07:01:47.390872 29653 net.cpp:148] Top shape: 1 1 (1)
I0802 07:01:47.390877 29653 net.cpp:156] Memory required for data: 10016
I0802 07:01:47.390880 29653 layer_factory.hpp:77] Creating layer lstm1_x_transform
I0802 07:01:47.390890 29653 net.cpp:91] Creating Layer lstm1_x_transform
I0802 07:01:47.390895 29653 net.cpp:425] lstm1_x_transform <- x
I0802 07:01:47.390902 29653 net.cpp:399] lstm1_x_transform -> W_xc_x
I0802 07:01:47.406092 29663 net.cpp:141] Setting up fc7
I0802 07:01:47.406132 29663 net.cpp:148] Top shape: 10 4096 (40960)
I0802 07:01:47.406138 29663 net.cpp:156] Memory required for data: 68273720
I0802 07:01:47.406152 29663 layer_factory.hpp:77] Creating layer relu7
I0802 07:01:47.406170 29663 net.cpp:91] Creating Layer relu7
I0802 07:01:47.406177 29663 net.cpp:425] relu7 <- fc7
I0802 07:01:47.406186 29663 net.cpp:386] relu7 -> fc7 (in-place)
I0802 07:01:47.406931 29663 net.cpp:141] Setting up relu7
I0802 07:01:47.406944 29663 net.cpp:148] Top shape: 10 4096 (40960)
I0802 07:01:47.406949 29663 net.cpp:156] Memory required for data: 68437560
I0802 07:01:47.406954 29663 layer_factory.hpp:77] Creating layer drop7
I0802 07:01:47.406966 29663 net.cpp:91] Creating Layer drop7
I0802 07:01:47.406971 29663 net.cpp:425] drop7 <- fc7
I0802 07:01:47.406977 29663 net.cpp:386] drop7 -> fc7 (in-place)
I0802 07:01:47.407021 29663 net.cpp:141] Setting up drop7
I0802 07:01:47.407029 29663 net.cpp:148] Top shape: 10 4096 (40960)
I0802 07:01:47.407033 29663 net.cpp:156] Memory required for data: 68601400
I0802 07:01:47.407038 29663 layer_factory.hpp:77] Creating layer fc8
I0802 07:01:47.407048 29663 net.cpp:91] Creating Layer fc8
I0802 07:01:47.407052 29663 net.cpp:425] fc8 <- fc7
I0802 07:01:47.407061 29663 net.cpp:399] fc8 -> fc8
I0802 07:01:47.419970 29653 net.cpp:141] Setting up lstm1_x_transform
I0802 07:01:47.420045 29653 net.cpp:148] Top shape: 1 1 4000 (4000)
I0802 07:01:47.420073 29653 net.cpp:156] Memory required for data: 26016
I0802 07:01:47.420104 29653 layer_factory.hpp:77] Creating layer lstm1_W_xc_x_slice
I0802 07:01:47.420130 29653 net.cpp:91] Creating Layer lstm1_W_xc_x_slice
I0802 07:01:47.420142 29653 net.cpp:425] lstm1_W_xc_x_slice <- W_xc_x
I0802 07:01:47.420157 29653 net.cpp:399] lstm1_W_xc_x_slice -> W_xc_x_1
I0802 07:01:47.420222 29653 net.cpp:141] Setting up lstm1_W_xc_x_slice
I0802 07:01:47.420238 29653 net.cpp:148] Top shape: 1 1 4000 (4000)
I0802 07:01:47.420245 29653 net.cpp:156] Memory required for data: 42016
I0802 07:01:47.420253 29653 layer_factory.hpp:77] Creating layer lstm1_h_conted_0
I0802 07:01:47.420274 29653 net.cpp:91] Creating Layer lstm1_h_conted_0
I0802 07:01:47.420282 29653 net.cpp:425] lstm1_h_conted_0 <- h_0
I0802 07:01:47.420292 29653 net.cpp:425] lstm1_h_conted_0 <- cont_1_lstm1_cont_slice_0_split_0
I0802 07:01:47.420305 29653 net.cpp:399] lstm1_h_conted_0 -> h_conted_0
I0802 07:01:47.420581 29653 net.cpp:141] Setting up lstm1_h_conted_0
I0802 07:01:47.420601 29653 net.cpp:148] Top shape: 1 1 1000 (1000)
I0802 07:01:47.420609 29653 net.cpp:156] Memory required for data: 46016
I0802 07:01:47.420617 29653 layer_factory.hpp:77] Creating layer lstm1_transform_1
I0802 07:01:47.420642 29653 net.cpp:91] Creating Layer lstm1_transform_1
I0802 07:01:47.420652 29653 net.cpp:425] lstm1_transform_1 <- h_conted_0
I0802 07:01:47.420667 29653 net.cpp:399] lstm1_transform_1 -> W_hc_h_0
I0802 07:01:47.420730 29663 net.cpp:141] Setting up fc8
I0802 07:01:47.420773 29663 net.cpp:148] Top shape: 10 1000 (10000)
I0802 07:01:47.420783 29663 net.cpp:156] Memory required for data: 68641400
I0802 07:01:47.420806 29663 layer_factory.hpp:77] Creating layer prob
I0802 07:01:47.420830 29663 net.cpp:91] Creating Layer prob
I0802 07:01:47.420840 29663 net.cpp:425] prob <- fc8
I0802 07:01:47.420873 29663 net.cpp:399] prob -> prob
I0802 07:01:47.431814 29663 net.cpp:141] Setting up prob
I0802 07:01:47.431835 29663 net.cpp:148] Top shape: 10 1000 (10000)
I0802 07:01:47.431840 29663 net.cpp:156] Memory required for data: 68681400
I0802 07:01:47.431846 29663 net.cpp:219] prob does not need backward computation.
I0802 07:01:47.431851 29663 net.cpp:219] fc8 does not need backward computation.
I0802 07:01:47.431856 29663 net.cpp:219] drop7 does not need backward computation.
I0802 07:01:47.431860 29663 net.cpp:219] relu7 does not need backward computation.
…
I0802 07:01:47.431927 29663 net.cpp:219] norm1 does not need backward computation.
I0802 07:01:47.431932 29663 net.cpp:219] pool1 does not need backward computation.
I0802 07:01:47.431939 29663 net.cpp:219] relu1 does not need backward computation.
I0802 07:01:47.431943 29663 net.cpp:219] conv1 does not need backward computation.
I0802 07:01:47.431948 29663 net.cpp:219] data does not need backward computation.
I0802 07:01:47.431952 29663 net.cpp:261] This network produces output prob
I0802 07:01:47.431975 29663 net.cpp:274] Network initialization done.
I0802 07:01:47.461617 29653 net.cpp:141] Setting up lstm1_transform_1
I0802 07:01:47.461681 29653 net.cpp:148] Top shape: 1 1 4000 (4000)
I0802 07:01:47.461688 29653 net.cpp:156] Memory required for data: 62016
I0802 07:01:47.461709 29653 layer_factory.hpp:77] Creating layer lstm1_gate_input_1
I0802 07:01:47.461732 29653 net.cpp:91] Creating Layer lstm1_gate_input_1
I0802 07:01:47.461740 29653 net.cpp:425] lstm1_gate_input_1 <- W_hc_h_0
I0802 07:01:47.461747 29653 net.cpp:425] lstm1_gate_input_1 <- W_xc_x_1
I0802 07:01:47.461757 29653 net.cpp:399] lstm1_gate_input_1 -> gate_input_1
I0802 07:01:47.461812 29653 net.cpp:141] Setting up lstm1_gate_input_1
I0802 07:01:47.461822 29653 net.cpp:148] Top shape: 1 1 4000 (4000)
I0802 07:01:47.461825 29653 net.cpp:156] Memory required for data: 78016
I0802 07:01:47.461830 29653 layer_factory.hpp:77] Creating layer lstm1_unit_1
I0802 07:01:47.461841 29653 net.cpp:91] Creating Layer lstm1_unit_1
I0802 07:01:47.461846 29653 net.cpp:425] lstm1_unit_1 <- c_0
I0802 07:01:47.461853 29653 net.cpp:425] lstm1_unit_1 <- gate_input_1
I0802 07:01:47.461858 29653 net.cpp:425] lstm1_unit_1 <- cont_1_lstm1_cont_slice_0_split_1
I0802 07:01:47.461863 29653 net.cpp:399] lstm1_unit_1 -> c_1
I0802 07:01:47.461872 29653 net.cpp:399] lstm1_unit_1 -> h_1
I0802 07:01:47.461932 29653 net.cpp:141] Setting up lstm1_unit_1
I0802 07:01:47.461941 29653 net.cpp:148] Top shape: 1 1 1000 (1000)
I0802 07:01:47.461946 29653 net.cpp:148] Top shape: 1 1 1000 (1000)
I0802 07:01:47.461951 29653 net.cpp:156] Memory required for data: 86016
I0802 07:01:47.461956 29653 layer_factory.hpp:77] Creating layer lstm1_
I0802 07:01:47.461963 29653 net.cpp:91] Creating Layer lstm1_
I0802 07:01:47.461967 29653 net.cpp:425] lstm1_ <- c_1
I0802 07:01:47.461977 29653 net.cpp:399] lstm1_ -> c_T
I0802 07:01:47.462005 29653 net.cpp:141] Setting up lstm1_
I0802 07:01:47.462013 29653 net.cpp:148] Top shape: 1 1 1000 (1000)
I0802 07:01:47.462018 29653 net.cpp:156] Memory required for data: 90016
I0802 07:01:47.462021 29653 layer_factory.hpp:77] Creating layer lstm1_h_concat
I0802 07:01:47.462043 29653 net.cpp:91] Creating Layer lstm1_h_concat
I0802 07:01:47.462046 29653 net.cpp:425] lstm1_h_concat <- h_1
I0802 07:01:47.462054 29653 net.cpp:399] lstm1_h_concat -> h
I0802 07:01:47.462090 29653 net.cpp:141] Setting up lstm1_h_concat
I0802 07:01:47.462098 29653 net.cpp:148] Top shape: 1 1 1000 (1000)
I0802 07:01:47.462102 29653 net.cpp:156] Memory required for data: 94016
I0802 07:01:47.462106 29653 layer_factory.hpp:77] Creating layer h_pseudoloss
I0802 07:01:47.462116 29653 net.cpp:91] Creating Layer h_pseudoloss
I0802 07:01:47.462121 29653 net.cpp:425] h_pseudoloss <- h
I0802 07:01:47.462126 29653 net.cpp:399] h_pseudoloss -> h_pseudoloss
I0802 07:01:47.462229 29653 net.cpp:141] Setting up h_pseudoloss
…
I0802 07:01:47.462348 29653 net.cpp:219] lstm1_ does not need backward computation.
I0802 07:01:47.462352 29653 net.cpp:261] This network produces output c_T
I0802 07:01:47.462357 29653 net.cpp:261] This network produces output h_pseudoloss
I0802 07:01:47.462373 29653 net.cpp:274] Network initialization done.
I0802 07:01:47.462437 29653 recurrent_layer.cpp:150] Adding parameter 0: W_xc
I0802 07:01:47.462445 29653 recurrent_layer.cpp:150] Adding parameter 1: b_c
I0802 07:01:47.462450 29653 recurrent_layer.cpp:150] Adding parameter 2: W_hc
I0802 07:01:47.462556 29653 net.cpp:141] Setting up lstm1
I0802 07:01:47.462568 29653 net.cpp:148] Top shape: 1 1 1000 (1000)
I0802 07:01:47.462574 29653 net.cpp:156] Memory required for data: 26408
I0802 07:01:47.462586 29653 layer_factory.hpp:77] Creating layer concat
I0802 07:01:47.462596 29653 net.cpp:91] Creating Layer concat
I0802 07:01:47.462602 29653 net.cpp:425] concat <- lstm1
I0802 07:01:47.462610 29653 net.cpp:425] concat <- embedded_input_sentence
I0802 07:01:47.462615 29653 net.cpp:425] concat <- reshaped_stage_indicator
I0802 07:01:47.462621 29653 net.cpp:399] concat -> lstm1_video_sequence
I0802 07:01:47.462654 29653 net.cpp:141] Setting up concat
I0802 07:01:47.462662 29653 net.cpp:148] Top shape: 1 1 1501 (1501)
I0802 07:01:47.462666 29653 net.cpp:156] Memory required for data: 32412
I0802 07:01:47.462671 29653 layer_factory.hpp:77] Creating layer lstm2
I0802 07:01:47.462684 29653 net.cpp:91] Creating Layer lstm2
I0802 07:01:47.462689 29653 net.cpp:425] lstm2 <- lstm1_video_sequence
I0802 07:01:47.462695 29653 net.cpp:425] lstm2 <- cont_sentence_input_1_split_1
I0802 07:01:47.462702 29653 net.cpp:399] lstm2 -> lstm2
I0802 07:01:47.462712 29653 recurrent_layer.cpp:20] Initializing recurrent layer: assuming input batch contains 1 timesteps of 1 independent streams.
I0802 07:01:47.462986 29653 net.cpp:49] Initializing net from parameters: 
layer {
  name: "lstm2_"
  type: "Input"
  top: "x"
  top: "cont"
  input_param {
    shape {
      dim: 1
      dim: 1
      dim: 1501
    }
    shape {
      dim: 1
      dim: 1
    }
  }
}
layer {
  name: "lstm2_"
  type: "Input"
  top: "c_0"
  top: "h_0"
  input_param {
    shape {
      dim: 1
      dim: 1
      dim: 1000
    }
    shape {
      dim: 1
      dim: 1
      dim: 1000
    }
  }
}
layer {
  name: "lstm2_cont_slice"
  type: "Slice"
  bottom: "cont"
  top: "cont_1"
  slice_param {
    axis: 0
  }
}
layer {
  name: "lstm2_x_transform"
  type: "InnerProduct"
  bottom: "x"
  top: "W_xc_x"
  param {
    name: "W_xc"
  }
  param {
    name: "b_c"
  }
  propagate_down: true
  inner_product_param {
    num_output: 4000
    bias_term: true
    weight_filler {
      type: "uniform"
      min: -0.08
      max: 0.08
    }
    bias_filler {
      type: "constant"
      value: 0
    }
    axis: 2
  }
}
layer {
  name: "lstm2_W_xc_x_slice"
  type: "Slice"
  bottom: "W_xc_x"
  top: "W_xc_x_1"
  slice_param {
    axis: 0
  }
}
layer {
  name: "lstm2_h_conted_0"
  type: "Scale"
  bottom: "h_0"
  bottom: "cont_1"
  top: "h_conted_0"
  scale_param {
    axis: 0
  }
}
layer {
  name: "lstm2_transform_1"
  type: "InnerProduct"
  bottom: "h_conted_0"
  top: "W_hc_h_0"
  param {
    name: "W_hc"
  }
  inner_product_param {
    num_output: 4000
    bias_term: false
    weight_filler {
      type: "uniform"
      min: -0.08
      max: 0.08
    }
    axis: 2
  }
}
layer {
  name: "lstm2_gate_input_1"
  type: "Eltwise"
  bottom: "W_hc_h_0"
  bottom: "W_xc_x_1"
  top: "gate_input_1"
  eltwise_param {
    operation: SUM
  }
}
layer {
  name: "lstm2_unit_1"
  type: "LSTMUnit"
  bottom: "c_0"
  bottom: "gate_input_1"
  bottom: "cont_1"
  top: "c_1"
  top: "h_1"
}
layer {
  name: "lstm2_"
  type: "Split"
  bottom: "c_1"
  top: "c_T"
}
layer {
  name: "lstm2_h_concat"
  type: "Concat"
  bottom: "h_1"
  top: "h"
  concat_param {
    axis: 0
  }
}
layer {
  name: "h_pseudoloss"
  type: "Reduction"
  bottom: "h"
  top: "h_pseudoloss"
  loss_weight: 1
}
I0802 07:01:47.463073 29653 layer_factory.hpp:77] Creating layer lstm2_
I0802 07:01:47.463083 29653 net.cpp:91] Creating Layer lstm2_
I0802 07:01:47.463089 29653 net.cpp:399] lstm2_ -> x
I0802 07:01:47.463099 29653 net.cpp:399] lstm2_ -> cont
I0802 07:01:47.463150 29653 net.cpp:141] Setting up lstm2_
I0802 07:01:47.463160 29653 net.cpp:148] Top shape: 1 1 1501 (1501)
I0802 07:01:47.463165 29653 net.cpp:148] Top shape: 1 1 (1)
I0802 07:01:47.463170 29653 net.cpp:156] Memory required for data: 6008
I0802 07:01:47.463174 29653 layer_factory.hpp:77] Creating layer lstm2_
I0802 07:01:47.463186 29653 net.cpp:91] Creating Layer lstm2_
I0802 07:01:47.463192 29653 net.cpp:399] lstm2_ -> c_0
I0802 07:01:47.463201 29653 net.cpp:399] lstm2_ -> h_0
I0802 07:01:47.463251 29653 net.cpp:141] Setting up lstm2_
I0802 07:01:47.463266 29653 net.cpp:148] Top shape: 1 1 1000 (1000)
I0802 07:01:47.463277 29653 net.cpp:148] Top shape: 1 1 1000 (1000)
I0802 07:01:47.463284 29653 net.cpp:156] Memory required for data: 14008
I0802 07:01:47.463291 29653 layer_factory.hpp:77] Creating layer lstm2_cont_slice
I0802 07:01:47.463304 29653 net.cpp:91] Creating Layer lstm2_cont_slice
I0802 07:01:47.463310 29653 net.cpp:425] lstm2_cont_slice <- cont
I0802 07:01:47.463320 29653 net.cpp:399] lstm2_cont_slice -> cont_1
I0802 07:01:47.463373 29653 net.cpp:141] Setting up lstm2_cont_slice
I0802 07:01:47.463389 29653 net.cpp:148] Top shape: 1 1 (1)
I0802 07:01:47.463397 29653 net.cpp:156] Memory required for data: 14012
I0802 07:01:47.463404 29653 layer_factory.hpp:77] Creating layer cont_1_lstm2_cont_slice_0_split
I0802 07:01:47.463415 29653 net.cpp:91] Creating Layer cont_1_lstm2_cont_slice_0_split
I0802 07:01:47.463423 29653 net.cpp:425] cont_1_lstm2_cont_slice_0_split <- cont_1
I0802 07:01:47.463438 29653 net.cpp:399] cont_1_lstm2_cont_slice_0_split -> cont_1_lstm2_cont_slice_0_split_0
I0802 07:01:47.463452 29653 net.cpp:399] cont_1_lstm2_cont_slice_0_split -> cont_1_lstm2_cont_slice_0_split_1
I0802 07:01:47.463524 29653 net.cpp:141] Setting up cont_1_lstm2_cont_slice_0_split
I0802 07:01:47.463541 29653 net.cpp:148] Top shape: 1 1 (1)
I0802 07:01:47.463551 29653 net.cpp:148] Top shape: 1 1 (1)
I0802 07:01:47.463558 29653 net.cpp:156] Memory required for data: 14020
I0802 07:01:47.463567 29653 layer_factory.hpp:77] Creating layer lstm2_x_transform
I0802 07:01:47.463585 29653 net.cpp:91] Creating Layer lstm2_x_transform
I0802 07:01:47.463593 29653 net.cpp:425] lstm2_x_transform <- x
I0802 07:01:47.463609 29653 net.cpp:399] lstm2_x_transform -> W_xc_x
I0802 07:01:47.518404 29653 net.cpp:141] Setting up lstm2_x_transform
I0802 07:01:47.518471 29653 net.cpp:148] Top shape: 1 1 4000 (4000)
I0802 07:01:47.518478 29653 net.cpp:156] Memory required for data: 30020
I0802 07:01:47.518502 29653 layer_factory.hpp:77] Creating layer lstm2_W_xc_x_slice
I0802 07:01:47.518519 29653 net.cpp:91] Creating Layer lstm2_W_xc_x_slice
I0802 07:01:47.518527 29653 net.cpp:425] lstm2_W_xc_x_slice <- W_xc_x
I0802 07:01:47.518535 29653 net.cpp:399] lstm2_W_xc_x_slice -> W_xc_x_1
I0802 07:01:47.518585 29653 net.cpp:141] Setting up lstm2_W_xc_x_slice
I0802 07:01:47.518596 29653 net.cpp:148] Top shape: 1 1 4000 (4000)
I0802 07:01:47.518600 29653 net.cpp:156] Memory required for data: 46020
I0802 07:01:47.518605 29653 layer_factory.hpp:77] Creating layer lstm2_h_conted_0
I0802 07:01:47.518615 29653 net.cpp:91] Creating Layer lstm2_h_conted_0
I0802 07:01:47.518633 29653 net.cpp:425] lstm2_h_conted_0 <- h_0
I0802 07:01:47.518640 29653 net.cpp:425] lstm2_h_conted_0 <- cont_1_lstm2_cont_slice_0_split_0
I0802 07:01:47.518646 29653 net.cpp:399] lstm2_h_conted_0 -> h_conted_0
I0802 07:01:47.518735 29653 net.cpp:141] Setting up lstm2_h_conted_0
I0802 07:01:47.518744 29653 net.cpp:148] Top shape: 1 1 1000 (1000)
I0802 07:01:47.518748 29653 net.cpp:156] Memory required for data: 50020
I0802 07:01:47.518753 29653 layer_factory.hpp:77] Creating layer lstm2_transform_1
I0802 07:01:47.518765 29653 net.cpp:91] Creating Layer lstm2_transform_1
I0802 07:01:47.518770 29653 net.cpp:425] lstm2_transform_1 <- h_conted_0
I0802 07:01:47.518777 29653 net.cpp:399] lstm2_transform_1 -> W_hc_h_0
I0802 07:01:47.555881 29653 net.cpp:141] Setting up lstm2_transform_1
I0802 07:01:47.555943 29653 net.cpp:148] Top shape: 1 1 4000 (4000)
I0802 07:01:47.555949 29653 net.cpp:156] Memory required for data: 66020
I0802 07:01:47.555969 29653 layer_factory.hpp:77] Creating layer lstm2_gate_input_1
I0802 07:01:47.555989 29653 net.cpp:91] Creating Layer lstm2_gate_input_1
I0802 07:01:47.555996 29653 net.cpp:425] lstm2_gate_input_1 <- W_hc_h_0
I0802 07:01:47.556005 29653 net.cpp:425] lstm2_gate_input_1 <- W_xc_x_1
I0802 07:01:47.556020 29653 net.cpp:399] lstm2_gate_input_1 -> gate_input_1
I0802 07:01:47.556071 29653 net.cpp:141] Setting up lstm2_gate_input_1
I0802 07:01:47.556082 29653 net.cpp:148] Top shape: 1 1 4000 (4000)
I0802 07:01:47.556087 29653 net.cpp:156] Memory required for data: 82020
I0802 07:01:47.556092 29653 layer_factory.hpp:77] Creating layer lstm2_unit_1
I0802 07:01:47.556100 29653 net.cpp:91] Creating Layer lstm2_unit_1
I0802 07:01:47.556105 29653 net.cpp:425] lstm2_unit_1 <- c_0
I0802 07:01:47.556110 29653 net.cpp:425] lstm2_unit_1 <- gate_input_1
I0802 07:01:47.556116 29653 net.cpp:425] lstm2_unit_1 <- cont_1_lstm2_cont_slice_0_split_1
I0802 07:01:47.556123 29653 net.cpp:399] lstm2_unit_1 -> c_1
I0802 07:01:47.556130 29653 net.cpp:399] lstm2_unit_1 -> h_1
I0802 07:01:47.556190 29653 net.cpp:141] Setting up lstm2_unit_1
I0802 07:01:47.556198 29653 net.cpp:148] Top shape: 1 1 1000 (1000)
I0802 07:01:47.556205 29653 net.cpp:148] Top shape: 1 1 1000 (1000)
I0802 07:01:47.556208 29653 net.cpp:156] Memory required for data: 90020
I0802 07:01:47.556213 29653 layer_factory.hpp:77] Creating layer lstm2_
I0802 07:01:47.556221 29653 net.cpp:91] Creating Layer lstm2_
I0802 07:01:47.556226 29653 net.cpp:425] lstm2_ <- c_1
I0802 07:01:47.556233 29653 net.cpp:399] lstm2_ -> c_T
I0802 07:01:47.556262 29653 net.cpp:141] Setting up lstm2_
I0802 07:01:47.556273 29653 net.cpp:148] Top shape: 1 1 1000 (1000)
I0802 07:01:47.556278 29653 net.cpp:156] Memory required for data: 94020
I0802 07:01:47.556282 29653 layer_factory.hpp:77] Creating layer lstm2_h_concat
I0802 07:01:47.556293 29653 net.cpp:91] Creating Layer lstm2_h_concat
I0802 07:01:47.556298 29653 net.cpp:425] lstm2_h_concat <- h_1
I0802 07:01:47.556306 29653 net.cpp:399] lstm2_h_concat -> h
I0802 07:01:47.556340 29653 net.cpp:141] Setting up lstm2_h_concat
I0802 07:01:47.556349 29653 net.cpp:148] Top shape: 1 1 1000 (1000)
I0802 07:01:47.556352 29653 net.cpp:156] Memory required for data: 98020
I0802 07:01:47.556356 29653 layer_factory.hpp:77] Creating layer h_pseudoloss
I0802 07:01:47.556368 29653 net.cpp:91] Creating Layer h_pseudoloss
I0802 07:01:47.556373 29653 net.cpp:425] h_pseudoloss <- h
I0802 07:01:47.556380 29653 net.cpp:399] h_pseudoloss -> h_pseudoloss
I0802 07:01:47.556471 29653 net.cpp:141] Setting up h_pseudoloss
…
