…
I0802 20:56:20.775800  9243 upgrade_proto.cpp:66] Attempting to upgrade input file specified using deprecated input fields: /tmp/cvld3322720569581621734/s2vt.words_to_preds.prototxt
I0802 20:56:20.775948  9243 upgrade_proto.cpp:69] Successfully upgraded file specified using deprecated input fields.
W0802 20:56:20.775965  9243 upgrade_proto.cpp:71] Note that future Caffe releases will only support input layers and not input fields.
I0802 20:56:20.776233  9253 net.cpp:49] Initializing net from parameters: 
name: "CaffeNet"
state {
  phase: TEST
}
layer {
  name: "data"
  type: "Input"
  top: "data"
  input_param {
    shape {
      dim: 10
      dim: 3
      dim: 227
      dim: 227
    }
  }
}
layer {
  name: "conv1"
  type: "Convolution"
  bottom: "data"
  top: "conv1"
  convolution_param {
    num_output: 96
    kernel_size: 11
    stride: 4
  }
}
layer {
  name: "relu1"
  type: "ReLU"
  bottom: "conv1"
  top: "conv1"
}
layer {
  name: "pool1"
  type: "Pooling"
  bottom: "conv1"
  top: "pool1"
  pooling_param {
    pool: MAX
    kernel_size: 3
    stride: 2
  }
}
layer {
  name: "norm1"
  type: "LRN"
  bottom: "pool1"
  top: "norm1"
  lrn_param {
    local_size: 5
    alpha: 0.0001
    beta: 0.75
  }
}
layer {
  name: "conv2"
  type: "Convolution"
  bottom: "norm1"
  top: "conv2"
  convolution_param {
    num_output: 256
    pad: 2
    kernel_size: 5
    group: 2
  }
}
layer {
  name: "relu2"
  type: "ReLU"
  bottom: "conv2"
  top: "conv2"
}
layer {
  name: "pool2"
  type: "Pooling"
  bottom: "conv2"
  top: "pool2"
  pooling_param {
    pool: MAX
    kernel_size: 3
    stride: 2
  }
}
layer {
  name: "norm2"
  type: "LRN"
  bottom: "pool2"
  top: "norm2"
  lrn_param {
    local_size: 5
    alpha: 0.0001
    beta: 0.75
  }
}
layer {
  name: "conv3"
  type: "Convolution"
  bottom: "norm2"
  top: "conv3"
  convolution_param {
    num_output: 384
    pad: 1
    kernel_size: 3
  }
}
layer {
  name: "relu3"
  type: "ReLU"
  bottom: "conv3"
  top: "conv3"
}
layer {
  name: "conv4"
  type: "Convolution"
  bottom: "conv3"
  top: "conv4"
  convolution_param {
    num_output: 384
    pad: 1
    kernel_size: 3
    group: 2
  }
}
layer {
  name: "relu4"
  type: "ReLU"
  bottom: "conv4"
  top: "conv4"
}
layer {
  name: "conv5"
  type: "Convolution"
  bottom: "conv4"
  top: "conv5"
  convolution_param {
    num_output: 256
    pad: 1
    kernel_size: 3
    group: 2
  }
}
layer {
  name: "relu5"
  type: "ReLU"
  bottom: "conv5"
  top: "conv5"
}
layer {
  name: "pool5"
  type: "Pooling"
  bottom: "conv5"
  top: "pool5"
  pooling_param {
    pool: MAX
    kernel_size: 3
    stride: 2
  }
}
layer {
  name: "fc6"
  type: "InnerProduct"
  bottom: "pool5"
  top: "fc6"
  inner_product_param {
    num_output: 4096
  }
}
layer {
  name: "relu6"
  type: "ReLU"
  bottom: "fc6"
  top: "fc6"
}
layer {
  name: "drop6"
  type: "Dropout"
  bottom: "fc6"
  top: "fc6"
  dropout_param {
    dropout_ratio: 0.5
  }
}
layer {
  name: "fc7"
  type: "InnerProduct"
  bottom: "fc6"
  top: "fc7"
  inner_product_param {
    num_output: 4096
  }
}
layer {
  name: "relu7"
  type: "ReLU"
  bottom: "fc7"
  top: "fc7"
}
layer {
  name: "drop7"
  type: "Dropout"
  bottom: "fc7"
  top: "fc7"
  dropout_param {
    dropout_ratio: 0.5
  }
}
layer {
  name: "fc8"
  type: "InnerProduct"
  bottom: "fc7"
  top: "fc8"
  inner_product_param {
    num_output: 1000
  }
}
layer {
  name: "prob"
  type: "Softmax"
  bottom: "fc8"
  top: "prob"
}
I0802 20:56:20.776376  9253 layer_factory.hpp:77] Creating layer data
I0802 20:56:20.776376  9243 net.cpp:49] Initializing net from parameters: 
name: "s2vt:features_to_lstm"
state {
  phase: TEST
}
layer {
  name: "input"
  type: "Input"
  top: "frames_fc7"
  top: "cont_sentence"
  top: "input_sentence"
  top: "stage_indicator"
  input_param {
    shape {
      dim: 1
      dim: 4096
    }
    shape {
      dim: 1
      dim: 1
    }
    shape {
      dim: 1
      dim: 1
    }
    shape {
      dim: 1
      dim: 1
    }
  }
}
layer {
  name: "embed_encoder"
  type: "InnerProduct"
  bottom: "frames_fc7"
  top: "embedded_in_frames"
  param {
    lr_mult: 1
    decay_mult: 1
  }
  param {
    lr_mult: 2
    decay_mult: 0
  }
  inner_product_param {
    num_output: 500
    weight_filler {
      type: "xavier"
    }
    bias_filler {
      type: "constant"
      value: 0.2
    }
  }
}
layer {
  name: "reshape_frames"
  type: "Reshape"
  bottom: "embedded_in_frames"
  top: "embedded_input_frames"
  reshape_param {
    shape {
      dim: 1
      dim: 1
      dim: 500
    }
  }
}
layer {
  name: "reshape_stage_indicator"
  type: "Reshape"
  bottom: "stage_indicator"
  top: "reshaped_stage_indicator"
  reshape_param {
    shape {
      dim: 1
      dim: 1
      dim: 1
    }
  }
}
layer {
  name: "embedding"
  type: "Embed"
  bottom: "input_sentence"
  top: "embedded_input_sentence"
  param {
    lr_mult: 1
  }
  embed_param {
    num_output: 500
    input_dim: 46168
    bias_term: false
    weight_filler {
      type: "uniform"
      min: -0.08
      max: 0.08
    }
  }
}
layer {
  name: "lstm1"
  type: "LSTM"
  bottom: "embedded_input_frames"
  bottom: "cont_sentence"
  top: "lstm1"
  recurrent_param {
    num_output: 1000
    weight_filler {
      type: "uniform"
      min: -0.08
      max: 0.08
    }
    bias_filler {
      type: "constant"
      value: 0
    }
  }
}
layer {
  name: "concat"
  type: "Concat"
  bottom: "lstm1"
  bottom: "embedded_input_sentence"
  bottom: "reshaped_stage_indicator"
  top: "lstm1_video_sequence"
  concat_param {
    concat_dim: 2
  }
}
layer {
  name: "lstm2"
  type: "LSTM"
  bottom: "lstm1_video_sequence"
  bottom: "cont_sentence"
  top: "lstm2"
  recurrent_param {
    num_output: 1000
    weight_filler {
      type: "uniform"
      min: -0.08
      max: 0.08
    }
    bias_filler {
      type: "constant"
      value: 0
    }
  }
}
layer {
  name: "predict"
  type: "InnerProduct"
  bottom: "lstm2"
  top: "predict"
  param {
    lr_mult: 1
    decay_mult: 1
  }
  param {
    lr_mult: 2
    decay_mult: 0
  }
  inner_product_param {
    num_output: 46168
    weight_filler {
      type: "uniform"
      min: -0.08
      max: 0.08
    }
    bias_filler {
      type: "constant"
      value: 0
    }
    axis: 2
  }
}
layer {
  name: "probs"
  type: "Softmax"
  bottom: "predict"
  top: "probs"
  softmax_param {
    axis: 2
  }
}
I0802 20:56:20.776410  9253 net.cpp:91] Creating Layer data
I0802 20:56:20.776420  9253 net.cpp:399] data -> data
I0802 20:56:20.776553  9243 layer_factory.hpp:77] Creating layer input
I0802 20:56:20.776573  9243 net.cpp:91] Creating Layer input
I0802 20:56:20.776587  9243 net.cpp:399] input -> frames_fc7
I0802 20:56:20.776607  9243 net.cpp:399] input -> cont_sentence
I0802 20:56:20.776626  9243 net.cpp:399] input -> input_sentence
I0802 20:56:20.776645  9243 net.cpp:399] input -> stage_indicator
I0802 20:56:21.361189  9253 net.cpp:141] Setting up data
I0802 20:56:21.361260  9243 net.cpp:141] Setting up input
I0802 20:56:21.361275  9253 net.cpp:148] Top shape: 10 3 227 227 (1545870)
I0802 20:56:21.361279  9243 net.cpp:148] Top shape: 1 4096 (4096)
I0802 20:56:21.361294  9243 net.cpp:148] Top shape: 1 1 (1)
I0802 20:56:21.361300  9243 net.cpp:148] Top shape: 1 1 (1)
I0802 20:56:21.361291  9253 net.cpp:156] Memory required for data: 6183480
I0802 20:56:21.361306  9243 net.cpp:148] Top shape: 1 1 (1)
I0802 20:56:21.361311  9243 net.cpp:156] Memory required for data: 16396
I0802 20:56:21.361322  9243 layer_factory.hpp:77] Creating layer cont_sentence_input_1_split
I0802 20:56:21.361323  9253 layer_factory.hpp:77] Creating layer conv1
I0802 20:56:21.361351  9243 net.cpp:91] Creating Layer cont_sentence_input_1_split
I0802 20:56:21.361362  9243 net.cpp:425] cont_sentence_input_1_split <- cont_sentence
I0802 20:56:21.361361  9253 net.cpp:91] Creating Layer conv1
I0802 20:56:21.361372  9253 net.cpp:425] conv1 <- data
I0802 20:56:21.361387  9243 net.cpp:399] cont_sentence_input_1_split -> cont_sentence_input_1_split_0
I0802 20:56:21.361389  9253 net.cpp:399] conv1 -> conv1
I0802 20:56:21.361403  9243 net.cpp:399] cont_sentence_input_1_split -> cont_sentence_input_1_split_1
I0802 20:56:21.361449  9243 net.cpp:141] Setting up cont_sentence_input_1_split
I0802 20:56:21.361459  9243 net.cpp:148] Top shape: 1 1 (1)
I0802 20:56:21.361464  9243 net.cpp:148] Top shape: 1 1 (1)
I0802 20:56:21.361467  9243 net.cpp:156] Memory required for data: 16404
I0802 20:56:21.361472  9243 layer_factory.hpp:77] Creating layer embed_encoder
I0802 20:56:21.361495  9243 net.cpp:91] Creating Layer embed_encoder
I0802 20:56:21.361500  9243 net.cpp:425] embed_encoder <- frames_fc7
I0802 20:56:21.361510  9243 net.cpp:399] embed_encoder -> embedded_in_frames
I0802 20:56:21.390895  9243 net.cpp:141] Setting up embed_encoder
I0802 20:56:21.390946  9243 net.cpp:148] Top shape: 1 500 (500)
I0802 20:56:21.390952  9243 net.cpp:156] Memory required for data: 18404
I0802 20:56:21.390982  9243 layer_factory.hpp:77] Creating layer reshape_frames
I0802 20:56:21.391016  9243 net.cpp:91] Creating Layer reshape_frames
I0802 20:56:21.391023  9243 net.cpp:425] reshape_frames <- embedded_in_frames
I0802 20:56:21.391036  9243 net.cpp:399] reshape_frames -> embedded_input_frames
I0802 20:56:21.391104  9243 net.cpp:141] Setting up reshape_frames
I0802 20:56:21.391114  9243 net.cpp:148] Top shape: 1 1 500 (500)
I0802 20:56:21.391119  9243 net.cpp:156] Memory required for data: 20404
I0802 20:56:21.391124  9243 layer_factory.hpp:77] Creating layer reshape_stage_indicator
I0802 20:56:21.391134  9243 net.cpp:91] Creating Layer reshape_stage_indicator
I0802 20:56:21.391139  9243 net.cpp:425] reshape_stage_indicator <- stage_indicator
I0802 20:56:21.391149  9243 net.cpp:399] reshape_stage_indicator -> reshaped_stage_indicator
I0802 20:56:21.391197  9243 net.cpp:141] Setting up reshape_stage_indicator
I0802 20:56:21.391208  9243 net.cpp:148] Top shape: 1 1 1 (1)
I0802 20:56:21.391212  9243 net.cpp:156] Memory required for data: 20408
I0802 20:56:21.391216  9243 layer_factory.hpp:77] Creating layer embedding
I0802 20:56:21.391228  9243 net.cpp:91] Creating Layer embedding
I0802 20:56:21.391233  9243 net.cpp:425] embedding <- input_sentence
I0802 20:56:21.391243  9243 net.cpp:399] embedding -> embedded_input_sentence
I0802 20:56:21.611558  9243 net.cpp:141] Setting up embedding
I0802 20:56:21.611610  9243 net.cpp:148] Top shape: 1 1 500 (500)
I0802 20:56:21.611620  9243 net.cpp:156] Memory required for data: 22408
I0802 20:56:21.611646  9243 layer_factory.hpp:77] Creating layer lstm1
I0802 20:56:21.611686  9243 net.cpp:91] Creating Layer lstm1
I0802 20:56:21.611699  9243 net.cpp:425] lstm1 <- embedded_input_frames
I0802 20:56:21.611711  9243 net.cpp:425] lstm1 <- cont_sentence_input_1_split_0
I0802 20:56:21.611726  9243 net.cpp:399] lstm1 -> lstm1
I0802 20:56:21.611758  9243 recurrent_layer.cpp:20] Initializing recurrent layer: assuming input batch contains 1 timesteps of 1 independent streams.
I0802 20:56:21.612311  9243 net.cpp:49] Initializing net from parameters: 
layer {
  name: "lstm1_"
  type: "Input"
  top: "x"
  top: "cont"
  input_param {
    shape {
      dim: 1
      dim: 1
      dim: 500
    }
    shape {
      dim: 1
      dim: 1
    }
  }
}
layer {
  name: "lstm1_"
  type: "Input"
  top: "c_0"
  top: "h_0"
  input_param {
    shape {
      dim: 1
      dim: 1
      dim: 1000
    }
    shape {
      dim: 1
      dim: 1
      dim: 1000
    }
  }
}
layer {
  name: "lstm1_cont_slice"
  type: "Slice"
  bottom: "cont"
  top: "cont_1"
  slice_param {
    axis: 0
  }
}
layer {
  name: "lstm1_x_transform"
  type: "InnerProduct"
  bottom: "x"
  top: "W_xc_x"
  param {
    name: "W_xc"
  }
  param {
    name: "b_c"
  }
  propagate_down: true
  inner_product_param {
    num_output: 4000
    bias_term: true
    weight_filler {
      type: "uniform"
      min: -0.08
      max: 0.08
    }
    bias_filler {
      type: "constant"
      value: 0
    }
    axis: 2
  }
}
layer {
  name: "lstm1_W_xc_x_slice"
  type: "Slice"
  bottom: "W_xc_x"
  top: "W_xc_x_1"
  slice_param {
    axis: 0
  }
}
layer {
  name: "lstm1_h_conted_0"
  type: "Scale"
  bottom: "h_0"
  bottom: "cont_1"
  top: "h_conted_0"
  scale_param {
    axis: 0
  }
}
layer {
  name: "lstm1_transform_1"
  type: "InnerProduct"
  bottom: "h_conted_0"
  top: "W_hc_h_0"
  param {
    name: "W_hc"
  }
  inner_product_param {
    num_output: 4000
    bias_term: false
    weight_filler {
      type: "uniform"
      min: -0.08
      max: 0.08
    }
    axis: 2
  }
}
layer {
  name: "lstm1_gate_input_1"
  type: "Eltwise"
  bottom: "W_hc_h_0"
  bottom: "W_xc_x_1"
  top: "gate_input_1"
  eltwise_param {
    operation: SUM
  }
}
layer {
  name: "lstm1_unit_1"
  type: "LSTMUnit"
  bottom: "c_0"
  bottom: "gate_input_1"
  bottom: "cont_1"
  top: "c_1"
  top: "h_1"
}
layer {
  name: "lstm1_"
  type: "Split"
  bottom: "c_1"
  top: "c_T"
}
layer {
  name: "lstm1_h_concat"
  type: "Concat"
  bottom: "h_1"
  top: "h"
  concat_param {
    axis: 0
  }
}
layer {
  name: "h_pseudoloss"
  type: "Reduction"
  bottom: "h"
  top: "h_pseudoloss"
  loss_weight: 1
}
I0802 20:56:21.612455  9243 layer_factory.hpp:77] Creating layer lstm1_
I0802 20:56:21.612478  9243 net.cpp:91] Creating Layer lstm1_
I0802 20:56:21.612491  9243 net.cpp:399] lstm1_ -> x
I0802 20:56:21.612509  9243 net.cpp:399] lstm1_ -> cont
I0802 20:56:21.612704  9243 net.cpp:141] Setting up lstm1_
I0802 20:56:21.612721  9243 net.cpp:148] Top shape: 1 1 500 (500)
I0802 20:56:21.612732  9243 net.cpp:148] Top shape: 1 1 (1)
I0802 20:56:21.612740  9243 net.cpp:156] Memory required for data: 2004
I0802 20:56:21.612747  9243 layer_factory.hpp:77] Creating layer lstm1_
I0802 20:56:21.612771  9243 net.cpp:91] Creating Layer lstm1_
I0802 20:56:21.612782  9243 net.cpp:399] lstm1_ -> c_0
I0802 20:56:21.612797  9243 net.cpp:399] lstm1_ -> h_0
I0802 20:56:21.618402  9243 net.cpp:141] Setting up lstm1_
I0802 20:56:21.618425  9243 net.cpp:148] Top shape: 1 1 1000 (1000)
I0802 20:56:21.618432  9243 net.cpp:148] Top shape: 1 1 1000 (1000)
I0802 20:56:21.618435  9243 net.cpp:156] Memory required for data: 10004
I0802 20:56:21.618440  9243 layer_factory.hpp:77] Creating layer lstm1_cont_slice
I0802 20:56:21.618451  9243 net.cpp:91] Creating Layer lstm1_cont_slice
I0802 20:56:21.618456  9243 net.cpp:425] lstm1_cont_slice <- cont
I0802 20:56:21.618466  9243 net.cpp:399] lstm1_cont_slice -> cont_1
I0802 20:56:21.618511  9243 net.cpp:141] Setting up lstm1_cont_slice
I0802 20:56:21.618520  9243 net.cpp:148] Top shape: 1 1 (1)
I0802 20:56:21.618525  9243 net.cpp:156] Memory required for data: 10008
I0802 20:56:21.618528  9243 layer_factory.hpp:77] Creating layer cont_1_lstm1_cont_slice_0_split
I0802 20:56:21.618540  9243 net.cpp:91] Creating Layer cont_1_lstm1_cont_slice_0_split
I0802 20:56:21.618544  9243 net.cpp:425] cont_1_lstm1_cont_slice_0_split <- cont_1
I0802 20:56:21.618551  9243 net.cpp:399] cont_1_lstm1_cont_slice_0_split -> cont_1_lstm1_cont_slice_0_split_0
I0802 20:56:21.618559  9243 net.cpp:399] cont_1_lstm1_cont_slice_0_split -> cont_1_lstm1_cont_slice_0_split_1
I0802 20:56:21.618634  9243 net.cpp:141] Setting up cont_1_lstm1_cont_slice_0_split
I0802 20:56:21.618643  9243 net.cpp:148] Top shape: 1 1 (1)
I0802 20:56:21.618649  9243 net.cpp:148] Top shape: 1 1 (1)
I0802 20:56:21.618652  9243 net.cpp:156] Memory required for data: 10016
I0802 20:56:21.618656  9243 layer_factory.hpp:77] Creating layer lstm1_x_transform
I0802 20:56:21.618670  9243 net.cpp:91] Creating Layer lstm1_x_transform
I0802 20:56:21.618674  9243 net.cpp:425] lstm1_x_transform <- x
I0802 20:56:21.618685  9243 net.cpp:399] lstm1_x_transform -> W_xc_x
I0802 20:56:21.625659  9253 net.cpp:141] Setting up conv1
I0802 20:56:21.625705  9253 net.cpp:148] Top shape: 10 96 55 55 (2904000)
I0802 20:56:21.625710  9253 net.cpp:156] Memory required for data: 17799480
I0802 20:56:21.625735  9253 layer_factory.hpp:77] Creating layer relu1
I0802 20:56:21.625752  9253 net.cpp:91] Creating Layer relu1
I0802 20:56:21.625759  9253 net.cpp:425] relu1 <- conv1
I0802 20:56:21.625767  9253 net.cpp:386] relu1 -> conv1 (in-place)
I0802 20:56:21.626140  9253 net.cpp:141] Setting up relu1
I0802 20:56:21.626153  9253 net.cpp:148] Top shape: 10 96 55 55 (2904000)
I0802 20:56:21.626158  9253 net.cpp:156] Memory required for data: 29415480
I0802 20:56:21.626163  9253 layer_factory.hpp:77] Creating layer pool1
I0802 20:56:21.626176  9253 net.cpp:91] Creating Layer pool1
I0802 20:56:21.626180  9253 net.cpp:425] pool1 <- conv1
I0802 20:56:21.626188  9253 net.cpp:399] pool1 -> pool1
I0802 20:56:21.626263  9253 net.cpp:141] Setting up pool1
I0802 20:56:21.626274  9253 net.cpp:148] Top shape: 10 96 27 27 (699840)
I0802 20:56:21.626278  9253 net.cpp:156] Memory required for data: 32214840
I0802 20:56:21.626282  9253 layer_factory.hpp:77] Creating layer norm1
I0802 20:56:21.626301  9253 net.cpp:91] Creating Layer norm1
I0802 20:56:21.626305  9253 net.cpp:425] norm1 <- pool1
I0802 20:56:21.626312  9253 net.cpp:399] norm1 -> norm1
I0802 20:56:21.626727  9253 net.cpp:141] Setting up norm1
I0802 20:56:21.626740  9253 net.cpp:148] Top shape: 10 96 27 27 (699840)
I0802 20:56:21.626745  9253 net.cpp:156] Memory required for data: 35014200
I0802 20:56:21.626750  9253 layer_factory.hpp:77] Creating layer conv2
I0802 20:56:21.626765  9253 net.cpp:91] Creating Layer conv2
I0802 20:56:21.626770  9253 net.cpp:425] conv2 <- norm1
I0802 20:56:21.626777  9253 net.cpp:399] conv2 -> conv2
I0802 20:56:21.629649  9253 net.cpp:141] Setting up conv2
I0802 20:56:21.629665  9253 net.cpp:148] Top shape: 10 256 27 27 (1866240)
I0802 20:56:21.629669  9253 net.cpp:156] Memory required for data: 42479160
I0802 20:56:21.629681  9253 layer_factory.hpp:77] Creating layer relu2
I0802 20:56:21.629693  9253 net.cpp:91] Creating Layer relu2
I0802 20:56:21.629698  9253 net.cpp:425] relu2 <- conv2
I0802 20:56:21.629703  9253 net.cpp:386] relu2 -> conv2 (in-place)
I0802 20:56:21.630084  9253 net.cpp:141] Setting up relu2
I0802 20:56:21.630096  9253 net.cpp:148] Top shape: 10 256 27 27 (1866240)
I0802 20:56:21.630100  9253 net.cpp:156] Memory required for data: 49944120
I0802 20:56:21.630105  9253 layer_factory.hpp:77] Creating layer pool2
I0802 20:56:21.630116  9253 net.cpp:91] Creating Layer pool2
I0802 20:56:21.630121  9253 net.cpp:425] pool2 <- conv2
I0802 20:56:21.630130  9253 net.cpp:399] pool2 -> pool2
I0802 20:56:21.630184  9253 net.cpp:141] Setting up pool2
I0802 20:56:21.630193  9253 net.cpp:148] Top shape: 10 256 13 13 (432640)
I0802 20:56:21.630198  9253 net.cpp:156] Memory required for data: 51674680
I0802 20:56:21.630201  9253 layer_factory.hpp:77] Creating layer norm2
I0802 20:56:21.630211  9253 net.cpp:91] Creating Layer norm2
I0802 20:56:21.630216  9253 net.cpp:425] norm2 <- pool2
I0802 20:56:21.630225  9253 net.cpp:399] norm2 -> norm2
I0802 20:56:21.630470  9253 net.cpp:141] Setting up norm2
I0802 20:56:21.630480  9253 net.cpp:148] Top shape: 10 256 13 13 (432640)
I0802 20:56:21.630483  9253 net.cpp:156] Memory required for data: 53405240
I0802 20:56:21.630488  9253 layer_factory.hpp:77] Creating layer conv3
I0802 20:56:21.630499  9253 net.cpp:91] Creating Layer conv3
I0802 20:56:21.630504  9253 net.cpp:425] conv3 <- norm2
I0802 20:56:21.630511  9253 net.cpp:399] conv3 -> conv3
I0802 20:56:21.633957  9253 net.cpp:141] Setting up conv3
I0802 20:56:21.633973  9253 net.cpp:148] Top shape: 10 384 13 13 (648960)
I0802 20:56:21.633978  9253 net.cpp:156] Memory required for data: 56001080
I0802 20:56:21.633992  9253 layer_factory.hpp:77] Creating layer relu3
I0802 20:56:21.634001  9253 net.cpp:91] Creating Layer relu3
I0802 20:56:21.634006  9253 net.cpp:425] relu3 <- conv3
I0802 20:56:21.634012  9253 net.cpp:386] relu3 -> conv3 (in-place)
I0802 20:56:21.634389  9253 net.cpp:141] Setting up relu3
I0802 20:56:21.634403  9253 net.cpp:148] Top shape: 10 384 13 13 (648960)
I0802 20:56:21.634408  9253 net.cpp:156] Memory required for data: 58596920
I0802 20:56:21.634413  9253 layer_factory.hpp:77] Creating layer conv4
I0802 20:56:21.634423  9253 net.cpp:91] Creating Layer conv4
I0802 20:56:21.634428  9253 net.cpp:425] conv4 <- conv3
I0802 20:56:21.634438  9253 net.cpp:399] conv4 -> conv4
I0802 20:56:21.638020  9243 net.cpp:141] Setting up lstm1_x_transform
I0802 20:56:21.638041  9243 net.cpp:148] Top shape: 1 1 4000 (4000)
I0802 20:56:21.638046  9243 net.cpp:156] Memory required for data: 26016
I0802 20:56:21.638059  9243 layer_factory.hpp:77] Creating layer lstm1_W_xc_x_slice
I0802 20:56:21.638072  9243 net.cpp:91] Creating Layer lstm1_W_xc_x_slice
I0802 20:56:21.638078  9243 net.cpp:425] lstm1_W_xc_x_slice <- W_xc_x
I0802 20:56:21.638085  9243 net.cpp:399] lstm1_W_xc_x_slice -> W_xc_x_1
I0802 20:56:21.638231  9243 net.cpp:141] Setting up lstm1_W_xc_x_slice
I0802 20:56:21.638242  9243 net.cpp:148] Top shape: 1 1 4000 (4000)
I0802 20:56:21.638247  9243 net.cpp:156] Memory required for data: 42016
I0802 20:56:21.638250  9243 layer_factory.hpp:77] Creating layer lstm1_h_conted_0
I0802 20:56:21.638264  9243 net.cpp:91] Creating Layer lstm1_h_conted_0
I0802 20:56:21.638269  9243 net.cpp:425] lstm1_h_conted_0 <- h_0
I0802 20:56:21.638275  9243 net.cpp:425] lstm1_h_conted_0 <- cont_1_lstm1_cont_slice_0_split_0
I0802 20:56:21.638281  9243 net.cpp:399] lstm1_h_conted_0 -> h_conted_0
I0802 20:56:21.638468  9243 net.cpp:141] Setting up lstm1_h_conted_0
I0802 20:56:21.638478  9243 net.cpp:148] Top shape: 1 1 1000 (1000)
I0802 20:56:21.638483  9243 net.cpp:156] Memory required for data: 46016
I0802 20:56:21.638486  9243 layer_factory.hpp:77] Creating layer lstm1_transform_1
I0802 20:56:21.638509  9243 net.cpp:91] Creating Layer lstm1_transform_1
I0802 20:56:21.638514  9243 net.cpp:425] lstm1_transform_1 <- h_conted_0
I0802 20:56:21.638521  9243 net.cpp:399] lstm1_transform_1 -> W_hc_h_0
I0802 20:56:21.638551  9253 net.cpp:141] Setting up conv4
I0802 20:56:21.638569  9253 net.cpp:148] Top shape: 10 384 13 13 (648960)
I0802 20:56:21.638574  9253 net.cpp:156] Memory required for data: 61192760
I0802 20:56:21.638582  9253 layer_factory.hpp:77] Creating layer relu4
I0802 20:56:21.638591  9253 net.cpp:91] Creating Layer relu4
I0802 20:56:21.638595  9253 net.cpp:425] relu4 <- conv4
I0802 20:56:21.638602  9253 net.cpp:386] relu4 -> conv4 (in-place)
I0802 20:56:21.646018  9253 net.cpp:141] Setting up relu4
I0802 20:56:21.646061  9253 net.cpp:148] Top shape: 10 384 13 13 (648960)
I0802 20:56:21.646066  9253 net.cpp:156] Memory required for data: 63788600
I0802 20:56:21.646075  9253 layer_factory.hpp:77] Creating layer conv5
I0802 20:56:21.646098  9253 net.cpp:91] Creating Layer conv5
I0802 20:56:21.646105  9253 net.cpp:425] conv5 <- conv4
I0802 20:56:21.646119  9253 net.cpp:399] conv5 -> conv5
I0802 20:56:21.649873  9253 net.cpp:141] Setting up conv5
I0802 20:56:21.649904  9253 net.cpp:148] Top shape: 10 256 13 13 (432640)
I0802 20:56:21.649909  9253 net.cpp:156] Memory required for data: 65519160
I0802 20:56:21.649926  9253 layer_factory.hpp:77] Creating layer relu5
I0802 20:56:21.649940  9253 net.cpp:91] Creating Layer relu5
I0802 20:56:21.649945  9253 net.cpp:425] relu5 <- conv5
I0802 20:56:21.649955  9253 net.cpp:386] relu5 -> conv5 (in-place)
I0802 20:56:21.650353  9253 net.cpp:141] Setting up relu5
I0802 20:56:21.650365  9253 net.cpp:148] Top shape: 10 256 13 13 (432640)
I0802 20:56:21.650369  9253 net.cpp:156] Memory required for data: 67249720
I0802 20:56:21.650374  9253 layer_factory.hpp:77] Creating layer pool5
I0802 20:56:21.650388  9253 net.cpp:91] Creating Layer pool5
I0802 20:56:21.650393  9253 net.cpp:425] pool5 <- conv5
I0802 20:56:21.650398  9253 net.cpp:399] pool5 -> pool5
I0802 20:56:21.650465  9253 net.cpp:141] Setting up pool5
I0802 20:56:21.650475  9253 net.cpp:148] Top shape: 10 256 6 6 (92160)
I0802 20:56:21.650478  9253 net.cpp:156] Memory required for data: 67618360
I0802 20:56:21.650482  9253 layer_factory.hpp:77] Creating layer fc6
I0802 20:56:21.650496  9253 net.cpp:91] Creating Layer fc6
I0802 20:56:21.650501  9253 net.cpp:425] fc6 <- pool5
I0802 20:56:21.650507  9253 net.cpp:399] fc6 -> fc6
I0802 20:56:21.714118  9243 net.cpp:141] Setting up lstm1_transform_1
I0802 20:56:21.714166  9243 net.cpp:148] Top shape: 1 1 4000 (4000)
I0802 20:56:21.714171  9243 net.cpp:156] Memory required for data: 62016
I0802 20:56:21.714196  9243 layer_factory.hpp:77] Creating layer lstm1_gate_input_1
I0802 20:56:21.714217  9243 net.cpp:91] Creating Layer lstm1_gate_input_1
I0802 20:56:21.714226  9243 net.cpp:425] lstm1_gate_input_1 <- W_hc_h_0
I0802 20:56:21.714233  9243 net.cpp:425] lstm1_gate_input_1 <- W_xc_x_1
I0802 20:56:21.714243  9243 net.cpp:399] lstm1_gate_input_1 -> gate_input_1
I0802 20:56:21.714310  9243 net.cpp:141] Setting up lstm1_gate_input_1
I0802 20:56:21.714319  9243 net.cpp:148] Top shape: 1 1 4000 (4000)
I0802 20:56:21.714323  9243 net.cpp:156] Memory required for data: 78016
I0802 20:56:21.714328  9243 layer_factory.hpp:77] Creating layer lstm1_unit_1
I0802 20:56:21.714340  9243 net.cpp:91] Creating Layer lstm1_unit_1
I0802 20:56:21.714344  9243 net.cpp:425] lstm1_unit_1 <- c_0
I0802 20:56:21.714350  9243 net.cpp:425] lstm1_unit_1 <- gate_input_1
I0802 20:56:21.714354  9243 net.cpp:425] lstm1_unit_1 <- cont_1_lstm1_cont_slice_0_split_1
I0802 20:56:21.714362  9243 net.cpp:399] lstm1_unit_1 -> c_1
I0802 20:56:21.714370  9243 net.cpp:399] lstm1_unit_1 -> h_1
I0802 20:56:21.714434  9243 net.cpp:141] Setting up lstm1_unit_1
I0802 20:56:21.714443  9243 net.cpp:148] Top shape: 1 1 1000 (1000)
I0802 20:56:21.714448  9243 net.cpp:148] Top shape: 1 1 1000 (1000)
I0802 20:56:21.714452  9243 net.cpp:156] Memory required for data: 86016
I0802 20:56:21.714457  9243 layer_factory.hpp:77] Creating layer lstm1_
I0802 20:56:21.714464  9243 net.cpp:91] Creating Layer lstm1_
I0802 20:56:21.714469  9243 net.cpp:425] lstm1_ <- c_1
I0802 20:56:21.714478  9243 net.cpp:399] lstm1_ -> c_T
I0802 20:56:21.714509  9243 net.cpp:141] Setting up lstm1_
I0802 20:56:21.714516  9243 net.cpp:148] Top shape: 1 1 1000 (1000)
I0802 20:56:21.714520  9243 net.cpp:156] Memory required for data: 90016
I0802 20:56:21.714524  9243 layer_factory.hpp:77] Creating layer lstm1_h_concat
I0802 20:56:21.714535  9243 net.cpp:91] Creating Layer lstm1_h_concat
I0802 20:56:21.714540  9243 net.cpp:425] lstm1_h_concat <- h_1
I0802 20:56:21.714545  9243 net.cpp:399] lstm1_h_concat -> h
I0802 20:56:21.714582  9243 net.cpp:141] Setting up lstm1_h_concat
I0802 20:56:21.714591  9243 net.cpp:148] Top shape: 1 1 1000 (1000)
I0802 20:56:21.714596  9243 net.cpp:156] Memory required for data: 94016
I0802 20:56:21.714599  9243 layer_factory.hpp:77] Creating layer h_pseudoloss
I0802 20:56:21.714619  9243 net.cpp:91] Creating Layer h_pseudoloss
I0802 20:56:21.714623  9243 net.cpp:425] h_pseudoloss <- h
I0802 20:56:21.714630  9243 net.cpp:399] h_pseudoloss -> h_pseudoloss
I0802 20:56:21.714720  9243 net.cpp:141] Setting up h_pseudoloss
…
I0802 20:56:21.714834  9243 net.cpp:219] lstm1_ does not need backward computation.
I0802 20:56:21.714838  9243 net.cpp:261] This network produces output c_T
I0802 20:56:21.714843  9243 net.cpp:261] This network produces output h_pseudoloss
I0802 20:56:21.714857  9243 net.cpp:274] Network initialization done.
I0802 20:56:21.714920  9243 recurrent_layer.cpp:150] Adding parameter 0: W_xc
I0802 20:56:21.714926  9243 recurrent_layer.cpp:150] Adding parameter 1: b_c
I0802 20:56:21.714929  9243 recurrent_layer.cpp:150] Adding parameter 2: W_hc
I0802 20:56:21.715039  9243 net.cpp:141] Setting up lstm1
I0802 20:56:21.715049  9243 net.cpp:148] Top shape: 1 1 1000 (1000)
I0802 20:56:21.715054  9243 net.cpp:156] Memory required for data: 26408
I0802 20:56:21.715065  9243 layer_factory.hpp:77] Creating layer concat
I0802 20:56:21.715073  9243 net.cpp:91] Creating Layer concat
I0802 20:56:21.715078  9243 net.cpp:425] concat <- lstm1
I0802 20:56:21.715085  9243 net.cpp:425] concat <- embedded_input_sentence
I0802 20:56:21.715090  9243 net.cpp:425] concat <- reshaped_stage_indicator
I0802 20:56:21.715095  9243 net.cpp:399] concat -> lstm1_video_sequence
I0802 20:56:21.715127  9243 net.cpp:141] Setting up concat
I0802 20:56:21.715136  9243 net.cpp:148] Top shape: 1 1 1501 (1501)
I0802 20:56:21.715139  9243 net.cpp:156] Memory required for data: 32412
I0802 20:56:21.715143  9243 layer_factory.hpp:77] Creating layer lstm2
I0802 20:56:21.715155  9243 net.cpp:91] Creating Layer lstm2
I0802 20:56:21.715159  9243 net.cpp:425] lstm2 <- lstm1_video_sequence
I0802 20:56:21.715165  9243 net.cpp:425] lstm2 <- cont_sentence_input_1_split_1
I0802 20:56:21.715172  9243 net.cpp:399] lstm2 -> lstm2
I0802 20:56:21.715181  9243 recurrent_layer.cpp:20] Initializing recurrent layer: assuming input batch contains 1 timesteps of 1 independent streams.
I0802 20:56:21.715445  9243 net.cpp:49] Initializing net from parameters: 
layer {
  name: "lstm2_"
  type: "Input"
  top: "x"
  top: "cont"
  input_param {
    shape {
      dim: 1
      dim: 1
      dim: 1501
    }
    shape {
      dim: 1
      dim: 1
    }
  }
}
layer {
  name: "lstm2_"
  type: "Input"
  top: "c_0"
  top: "h_0"
  input_param {
    shape {
      dim: 1
      dim: 1
      dim: 1000
    }
    shape {
      dim: 1
      dim: 1
      dim: 1000
    }
  }
}
layer {
  name: "lstm2_cont_slice"
  type: "Slice"
  bottom: "cont"
  top: "cont_1"
  slice_param {
    axis: 0
  }
}
layer {
  name: "lstm2_x_transform"
  type: "InnerProduct"
  bottom: "x"
  top: "W_xc_x"
  param {
    name: "W_xc"
  }
  param {
    name: "b_c"
  }
  propagate_down: true
  inner_product_param {
    num_output: 4000
    bias_term: true
    weight_filler {
      type: "uniform"
      min: -0.08
      max: 0.08
    }
    bias_filler {
      type: "constant"
      value: 0
    }
    axis: 2
  }
}
layer {
  name: "lstm2_W_xc_x_slice"
  type: "Slice"
  bottom: "W_xc_x"
  top: "W_xc_x_1"
  slice_param {
    axis: 0
  }
}
layer {
  name: "lstm2_h_conted_0"
  type: "Scale"
  bottom: "h_0"
  bottom: "cont_1"
  top: "h_conted_0"
  scale_param {
    axis: 0
  }
}
layer {
  name: "lstm2_transform_1"
  type: "InnerProduct"
  bottom: "h_conted_0"
  top: "W_hc_h_0"
  param {
    name: "W_hc"
  }
  inner_product_param {
    num_output: 4000
    bias_term: false
    weight_filler {
      type: "uniform"
      min: -0.08
      max: 0.08
    }
    axis: 2
  }
}
layer {
  name: "lstm2_gate_input_1"
  type: "Eltwise"
  bottom: "W_hc_h_0"
  bottom: "W_xc_x_1"
  top: "gate_input_1"
  eltwise_param {
    operation: SUM
  }
}
layer {
  name: "lstm2_unit_1"
  type: "LSTMUnit"
  bottom: "c_0"
  bottom: "gate_input_1"
  bottom: "cont_1"
  top: "c_1"
  top: "h_1"
}
layer {
  name: "lstm2_"
  type: "Split"
  bottom: "c_1"
  top: "c_T"
}
layer {
  name: "lstm2_h_concat"
  type: "Concat"
  bottom: "h_1"
  top: "h"
  concat_param {
    axis: 0
  }
}
layer {
  name: "h_pseudoloss"
  type: "Reduction"
  bottom: "h"
  top: "h_pseudoloss"
  loss_weight: 1
}
I0802 20:56:21.715531  9243 layer_factory.hpp:77] Creating layer lstm2_
I0802 20:56:21.715543  9243 net.cpp:91] Creating Layer lstm2_
I0802 20:56:21.715548  9243 net.cpp:399] lstm2_ -> x
I0802 20:56:21.715559  9243 net.cpp:399] lstm2_ -> cont
I0802 20:56:21.715611  9243 net.cpp:141] Setting up lstm2_
I0802 20:56:21.715620  9243 net.cpp:148] Top shape: 1 1 1501 (1501)
I0802 20:56:21.715626  9243 net.cpp:148] Top shape: 1 1 (1)
I0802 20:56:21.715631  9243 net.cpp:156] Memory required for data: 6008
I0802 20:56:21.715634  9243 layer_factory.hpp:77] Creating layer lstm2_
I0802 20:56:21.715646  9243 net.cpp:91] Creating Layer lstm2_
I0802 20:56:21.715651  9243 net.cpp:399] lstm2_ -> c_0
I0802 20:56:21.715661  9243 net.cpp:399] lstm2_ -> h_0
I0802 20:56:21.715710  9243 net.cpp:141] Setting up lstm2_
I0802 20:56:21.715718  9243 net.cpp:148] Top shape: 1 1 1000 (1000)
I0802 20:56:21.715724  9243 net.cpp:148] Top shape: 1 1 1000 (1000)
I0802 20:56:21.715728  9243 net.cpp:156] Memory required for data: 14008
I0802 20:56:21.715731  9243 layer_factory.hpp:77] Creating layer lstm2_cont_slice
I0802 20:56:21.715739  9243 net.cpp:91] Creating Layer lstm2_cont_slice
I0802 20:56:21.715744  9243 net.cpp:425] lstm2_cont_slice <- cont
I0802 20:56:21.715750  9243 net.cpp:399] lstm2_cont_slice -> cont_1
I0802 20:56:21.715786  9243 net.cpp:141] Setting up lstm2_cont_slice
I0802 20:56:21.715795  9243 net.cpp:148] Top shape: 1 1 (1)
I0802 20:56:21.715800  9243 net.cpp:156] Memory required for data: 14012
I0802 20:56:21.715803  9243 layer_factory.hpp:77] Creating layer cont_1_lstm2_cont_slice_0_split
I0802 20:56:21.715809  9243 net.cpp:91] Creating Layer cont_1_lstm2_cont_slice_0_split
I0802 20:56:21.715813  9243 net.cpp:425] cont_1_lstm2_cont_slice_0_split <- cont_1
I0802 20:56:21.715821  9243 net.cpp:399] cont_1_lstm2_cont_slice_0_split -> cont_1_lstm2_cont_slice_0_split_0
I0802 20:56:21.715828  9243 net.cpp:399] cont_1_lstm2_cont_slice_0_split -> cont_1_lstm2_cont_slice_0_split_1
I0802 20:56:21.715875  9243 net.cpp:141] Setting up cont_1_lstm2_cont_slice_0_split
I0802 20:56:21.715886  9243 net.cpp:148] Top shape: 1 1 (1)
I0802 20:56:21.715891  9243 net.cpp:148] Top shape: 1 1 (1)
I0802 20:56:21.715895  9243 net.cpp:156] Memory required for data: 14020
I0802 20:56:21.715899  9243 layer_factory.hpp:77] Creating layer lstm2_x_transform
I0802 20:56:21.715909  9243 net.cpp:91] Creating Layer lstm2_x_transform
I0802 20:56:21.715914  9243 net.cpp:425] lstm2_x_transform <- x
I0802 20:56:21.715924  9243 net.cpp:399] lstm2_x_transform -> W_xc_x
I0802 20:56:21.750699  9253 net.cpp:141] Setting up fc6
I0802 20:56:21.750744  9253 net.cpp:148] Top shape: 10 4096 (40960)
I0802 20:56:21.750749  9253 net.cpp:156] Memory required for data: 67782200
I0802 20:56:21.750764  9253 layer_factory.hpp:77] Creating layer relu6
I0802 20:56:21.750783  9253 net.cpp:91] Creating Layer relu6
I0802 20:56:21.750790  9253 net.cpp:425] relu6 <- fc6
I0802 20:56:21.750799  9253 net.cpp:386] relu6 -> fc6 (in-place)
I0802 20:56:21.751121  9253 net.cpp:141] Setting up relu6
I0802 20:56:21.751130  9253 net.cpp:148] Top shape: 10 4096 (40960)
I0802 20:56:21.751134  9253 net.cpp:156] Memory required for data: 67946040
I0802 20:56:21.751139  9253 layer_factory.hpp:77] Creating layer drop6
I0802 20:56:21.751160  9253 net.cpp:91] Creating Layer drop6
I0802 20:56:21.751164  9253 net.cpp:425] drop6 <- fc6
I0802 20:56:21.751174  9253 net.cpp:386] drop6 -> fc6 (in-place)
I0802 20:56:21.751221  9253 net.cpp:141] Setting up drop6
I0802 20:56:21.751232  9253 net.cpp:148] Top shape: 10 4096 (40960)
I0802 20:56:21.751236  9253 net.cpp:156] Memory required for data: 68109880
I0802 20:56:21.751241  9253 layer_factory.hpp:77] Creating layer fc7
I0802 20:56:21.751250  9253 net.cpp:91] Creating Layer fc7
I0802 20:56:21.751255  9253 net.cpp:425] fc7 <- fc6
I0802 20:56:21.751260  9253 net.cpp:399] fc7 -> fc7
I0802 20:56:21.780236  9243 net.cpp:141] Setting up lstm2_x_transform
I0802 20:56:21.780282  9243 net.cpp:148] Top shape: 1 1 4000 (4000)
I0802 20:56:21.780287  9243 net.cpp:156] Memory required for data: 30020
I0802 20:56:21.780311  9243 layer_factory.hpp:77] Creating layer lstm2_W_xc_x_slice
I0802 20:56:21.780328  9243 net.cpp:91] Creating Layer lstm2_W_xc_x_slice
I0802 20:56:21.780334  9243 net.cpp:425] lstm2_W_xc_x_slice <- W_xc_x
I0802 20:56:21.780344  9243 net.cpp:399] lstm2_W_xc_x_slice -> W_xc_x_1
I0802 20:56:21.780388  9243 net.cpp:141] Setting up lstm2_W_xc_x_slice
I0802 20:56:21.780397  9243 net.cpp:148] Top shape: 1 1 4000 (4000)
I0802 20:56:21.780401  9243 net.cpp:156] Memory required for data: 46020
I0802 20:56:21.780405  9243 layer_factory.hpp:77] Creating layer lstm2_h_conted_0
I0802 20:56:21.780421  9243 net.cpp:91] Creating Layer lstm2_h_conted_0
I0802 20:56:21.780426  9243 net.cpp:425] lstm2_h_conted_0 <- h_0
I0802 20:56:21.780431  9243 net.cpp:425] lstm2_h_conted_0 <- cont_1_lstm2_cont_slice_0_split_0
I0802 20:56:21.780437  9243 net.cpp:399] lstm2_h_conted_0 -> h_conted_0
I0802 20:56:21.780532  9243 net.cpp:141] Setting up lstm2_h_conted_0
I0802 20:56:21.780541  9243 net.cpp:148] Top shape: 1 1 1000 (1000)
I0802 20:56:21.780545  9243 net.cpp:156] Memory required for data: 50020
I0802 20:56:21.780550  9243 layer_factory.hpp:77] Creating layer lstm2_transform_1
I0802 20:56:21.780561  9243 net.cpp:91] Creating Layer lstm2_transform_1
I0802 20:56:21.780565  9243 net.cpp:425] lstm2_transform_1 <- h_conted_0
I0802 20:56:21.780572  9243 net.cpp:399] lstm2_transform_1 -> W_hc_h_0
I0802 20:56:21.796896  9253 net.cpp:141] Setting up fc7
I0802 20:56:21.796941  9253 net.cpp:148] Top shape: 10 4096 (40960)
I0802 20:56:21.796947  9253 net.cpp:156] Memory required for data: 68273720
I0802 20:56:21.796962  9253 layer_factory.hpp:77] Creating layer relu7
I0802 20:56:21.796977  9253 net.cpp:91] Creating Layer relu7
I0802 20:56:21.796984  9253 net.cpp:425] relu7 <- fc7
I0802 20:56:21.796995  9253 net.cpp:386] relu7 -> fc7 (in-place)
I0802 20:56:21.797643  9253 net.cpp:141] Setting up relu7
I0802 20:56:21.797657  9253 net.cpp:148] Top shape: 10 4096 (40960)
I0802 20:56:21.797662  9253 net.cpp:156] Memory required for data: 68437560
I0802 20:56:21.797667  9253 layer_factory.hpp:77] Creating layer drop7
I0802 20:56:21.797675  9253 net.cpp:91] Creating Layer drop7
I0802 20:56:21.797679  9253 net.cpp:425] drop7 <- fc7
I0802 20:56:21.797688  9253 net.cpp:386] drop7 -> fc7 (in-place)
I0802 20:56:21.797727  9253 net.cpp:141] Setting up drop7
I0802 20:56:21.797734  9253 net.cpp:148] Top shape: 10 4096 (40960)
I0802 20:56:21.797739  9253 net.cpp:156] Memory required for data: 68601400
I0802 20:56:21.797742  9253 layer_factory.hpp:77] Creating layer fc8
I0802 20:56:21.797755  9253 net.cpp:91] Creating Layer fc8
I0802 20:56:21.797760  9253 net.cpp:425] fc8 <- fc7
I0802 20:56:21.797767  9253 net.cpp:399] fc8 -> fc8
I0802 20:56:21.809139  9253 net.cpp:141] Setting up fc8
I0802 20:56:21.809186  9253 net.cpp:148] Top shape: 10 1000 (10000)
I0802 20:56:21.809191  9253 net.cpp:156] Memory required for data: 68641400
I0802 20:56:21.809206  9253 layer_factory.hpp:77] Creating layer prob
I0802 20:56:21.809223  9253 net.cpp:91] Creating Layer prob
I0802 20:56:21.809229  9253 net.cpp:425] prob <- fc8
I0802 20:56:21.809245  9253 net.cpp:399] prob -> prob
I0802 20:56:21.809665  9253 net.cpp:141] Setting up prob
I0802 20:56:21.809676  9253 net.cpp:148] Top shape: 10 1000 (10000)
I0802 20:56:21.809681  9253 net.cpp:156] Memory required for data: 68681400
I0802 20:56:21.809686  9253 net.cpp:219] prob does not need backward computation.
I0802 20:56:21.809691  9253 net.cpp:219] fc8 does not need backward computation.
I0802 20:56:21.809695  9253 net.cpp:219] drop7 does not need backward computation.
I0802 20:56:21.809700  9253 net.cpp:219] relu7 does not need backward computation.
…
I0802 20:56:21.809762  9253 net.cpp:219] norm1 does not need backward computation.
I0802 20:56:21.809765  9253 net.cpp:219] pool1 does not need backward computation.
I0802 20:56:21.809769  9253 net.cpp:219] relu1 does not need backward computation.
I0802 20:56:21.809773  9253 net.cpp:219] conv1 does not need backward computation.
I0802 20:56:21.809777  9253 net.cpp:219] data does not need backward computation.
I0802 20:56:21.809780  9253 net.cpp:261] This network produces output prob
I0802 20:56:21.809798  9253 net.cpp:274] Network initialization done.
I0802 20:56:21.818578  9243 net.cpp:141] Setting up lstm2_transform_1
I0802 20:56:21.818593  9243 net.cpp:148] Top shape: 1 1 4000 (4000)
I0802 20:56:21.818598  9243 net.cpp:156] Memory required for data: 66020
I0802 20:56:21.818609  9243 layer_factory.hpp:77] Creating layer lstm2_gate_input_1
I0802 20:56:21.818625  9243 net.cpp:91] Creating Layer lstm2_gate_input_1
I0802 20:56:21.818630  9243 net.cpp:425] lstm2_gate_input_1 <- W_hc_h_0
I0802 20:56:21.818636  9243 net.cpp:425] lstm2_gate_input_1 <- W_xc_x_1
I0802 20:56:21.818645  9243 net.cpp:399] lstm2_gate_input_1 -> gate_input_1
I0802 20:56:21.818686  9243 net.cpp:141] Setting up lstm2_gate_input_1
I0802 20:56:21.818693  9243 net.cpp:148] Top shape: 1 1 4000 (4000)
I0802 20:56:21.818697  9243 net.cpp:156] Memory required for data: 82020
I0802 20:56:21.818701  9243 layer_factory.hpp:77] Creating layer lstm2_unit_1
I0802 20:56:21.818714  9243 net.cpp:91] Creating Layer lstm2_unit_1
I0802 20:56:21.818719  9243 net.cpp:425] lstm2_unit_1 <- c_0
I0802 20:56:21.818724  9243 net.cpp:425] lstm2_unit_1 <- gate_input_1
I0802 20:56:21.818729  9243 net.cpp:425] lstm2_unit_1 <- cont_1_lstm2_cont_slice_0_split_1
I0802 20:56:21.818735  9243 net.cpp:399] lstm2_unit_1 -> c_1
I0802 20:56:21.818743  9243 net.cpp:399] lstm2_unit_1 -> h_1
I0802 20:56:21.818806  9243 net.cpp:141] Setting up lstm2_unit_1
I0802 20:56:21.818815  9243 net.cpp:148] Top shape: 1 1 1000 (1000)
I0802 20:56:21.818821  9243 net.cpp:148] Top shape: 1 1 1000 (1000)
I0802 20:56:21.818825  9243 net.cpp:156] Memory required for data: 90020
I0802 20:56:21.818830  9243 layer_factory.hpp:77] Creating layer lstm2_
I0802 20:56:21.818836  9243 net.cpp:91] Creating Layer lstm2_
I0802 20:56:21.818840  9243 net.cpp:425] lstm2_ <- c_1
I0802 20:56:21.818850  9243 net.cpp:399] lstm2_ -> c_T
I0802 20:56:21.818879  9243 net.cpp:141] Setting up lstm2_
I0802 20:56:21.818887  9243 net.cpp:148] Top shape: 1 1 1000 (1000)
I0802 20:56:21.818892  9243 net.cpp:156] Memory required for data: 94020
I0802 20:56:21.818895  9243 layer_factory.hpp:77] Creating layer lstm2_h_concat
I0802 20:56:21.818903  9243 net.cpp:91] Creating Layer lstm2_h_concat
I0802 20:56:21.818907  9243 net.cpp:425] lstm2_h_concat <- h_1
I0802 20:56:21.818917  9243 net.cpp:399] lstm2_h_concat -> h
I0802 20:56:21.818950  9243 net.cpp:141] Setting up lstm2_h_concat
I0802 20:56:21.818958  9243 net.cpp:148] Top shape: 1 1 1000 (1000)
I0802 20:56:21.818961  9243 net.cpp:156] Memory required for data: 98020
I0802 20:56:21.818966  9243 layer_factory.hpp:77] Creating layer h_pseudoloss
I0802 20:56:21.818974  9243 net.cpp:91] Creating Layer h_pseudoloss
I0802 20:56:21.818977  9243 net.cpp:425] h_pseudoloss <- h
I0802 20:56:21.818984  9243 net.cpp:399] h_pseudoloss -> h_pseudoloss
I0802 20:56:21.819061  9243 net.cpp:141] Setting up h_pseudoloss
…
