…
2016-07-31 23:50:10.614 n.t.s.b.CVParticleBolt [INFO] [Timing] RequestID: 0 StreamID: home/peifeng/work/data/frame.320x240.jpg SequenceNr: 132 Leaving scale: 1470023410614 Size: 3530
2016-07-31 23:50:10.617 n.t.s.b.CVParticleBolt [INFO] [Timing] RequestID: 0 StreamID: home/peifeng/work/data/frame.320x240.jpg SequenceNr: 133 Leaving scale: 1470023410617 Size: 3530
2016-07-31 23:50:10.639 STDERR [INFO] I0731 23:50:10.639549 29944 net.cpp:141] Setting up data
2016-07-31 23:50:10.640 STDERR [INFO] I0731 23:50:10.639628 29934 net.cpp:141] Setting up input
2016-07-31 23:50:10.640 STDERR [INFO] I0731 23:50:10.639643 29944 net.cpp:148] Top shape: 10 3 227 227 (1545870)
2016-07-31 23:50:10.640 STDERR [INFO] I0731 23:50:10.639648 29934 net.cpp:148] Top shape: 1 4096 (4096)
2016-07-31 23:50:10.640 STDERR [INFO] I0731 23:50:10.639660 29934 net.cpp:148] Top shape: 1 1 (1)
2016-07-31 23:50:10.640 STDERR [INFO] I0731 23:50:10.639657 29944 net.cpp:156] Memory required for data: 6183480
2016-07-31 23:50:10.640 STDERR [INFO] I0731 23:50:10.639672 29934 net.cpp:148] Top shape: 1 1 (1)
2016-07-31 23:50:10.641 STDERR [INFO] I0731 23:50:10.639681 29934 net.cpp:148] Top shape: 1 1 (1)
2016-07-31 23:50:10.641 STDERR [INFO] I0731 23:50:10.639688 29934 net.cpp:156] Memory required for data: 16396
2016-07-31 23:50:10.641 STDERR [INFO] I0731 23:50:10.639688 29944 layer_factory.hpp:77] Creating layer conv1
2016-07-31 23:50:10.641 STDERR [INFO] I0731 23:50:10.639706 29934 layer_factory.hpp:77] Creating layer cont_sentence_input_1_split
2016-07-31 23:50:10.641 STDERR [INFO] I0731 23:50:10.639739 29934 net.cpp:91] Creating Layer cont_sentence_input_1_split
2016-07-31 23:50:10.641 STDERR [INFO] I0731 23:50:10.639742 29944 net.cpp:91] Creating Layer conv1
2016-07-31 23:50:10.641 STDERR [INFO] I0731 23:50:10.639755 29944 net.cpp:425] conv1 <- data
2016-07-31 23:50:10.641 STDERR [INFO] I0731 23:50:10.639755 29934 net.cpp:425] cont_sentence_input_1_split <- cont_sentence
2016-07-31 23:50:10.641 STDERR [INFO] I0731 23:50:10.639783 29944 net.cpp:399] conv1 -> conv1
2016-07-31 23:50:10.641 STDERR [INFO] I0731 23:50:10.639801 29934 net.cpp:399] cont_sentence_input_1_split -> cont_sentence_input_1_split_0
2016-07-31 23:50:10.641 STDERR [INFO] I0731 23:50:10.639819 29934 net.cpp:399] cont_sentence_input_1_split -> cont_sentence_input_1_split_1
2016-07-31 23:50:10.642 STDERR [INFO] I0731 23:50:10.639941 29934 net.cpp:141] Setting up cont_sentence_input_1_split
2016-07-31 23:50:10.642 STDERR [INFO] I0731 23:50:10.639964 29934 net.cpp:148] Top shape: 1 1 (1)
2016-07-31 23:50:10.642 STDERR [INFO] I0731 23:50:10.639977 29934 net.cpp:148] Top shape: 1 1 (1)
2016-07-31 23:50:10.642 STDERR [INFO] I0731 23:50:10.639986 29934 net.cpp:156] Memory required for data: 16404
2016-07-31 23:50:10.642 STDERR [INFO] I0731 23:50:10.639997 29934 layer_factory.hpp:77] Creating layer embed_encoder
2016-07-31 23:50:10.642 STDERR [INFO] I0731 23:50:10.640041 29934 net.cpp:91] Creating Layer embed_encoder
2016-07-31 23:50:10.642 STDERR [INFO] I0731 23:50:10.640055 29934 net.cpp:425] embed_encoder <- frames_fc7
2016-07-31 23:50:10.642 STDERR [INFO] I0731 23:50:10.640074 29934 net.cpp:399] embed_encoder -> embedded_in_frames
2016-07-31 23:50:10.676 STDERR [INFO] I0731 23:50:10.676522 29934 net.cpp:141] Setting up embed_encoder
2016-07-31 23:50:10.677 STDERR [INFO] I0731 23:50:10.676580 29934 net.cpp:148] Top shape: 1 500 (500)
2016-07-31 23:50:10.677 STDERR [INFO] I0731 23:50:10.676594 29934 net.cpp:156] Memory required for data: 18404
2016-07-31 23:50:10.677 STDERR [INFO] I0731 23:50:10.676636 29934 layer_factory.hpp:77] Creating layer reshape_frames
2016-07-31 23:50:10.677 STDERR [INFO] I0731 23:50:10.676671 29934 net.cpp:91] Creating Layer reshape_frames
2016-07-31 23:50:10.677 STDERR [INFO] I0731 23:50:10.676682 29934 net.cpp:425] reshape_frames <- embedded_in_frames
2016-07-31 23:50:10.677 STDERR [INFO] I0731 23:50:10.676698 29934 net.cpp:399] reshape_frames -> embedded_input_frames
2016-07-31 23:50:10.678 STDERR [INFO] I0731 23:50:10.678241 29934 net.cpp:141] Setting up reshape_frames
2016-07-31 23:50:10.678 STDERR [INFO] I0731 23:50:10.678264 29934 net.cpp:148] Top shape: 1 1 500 (500)
2016-07-31 23:50:10.678 STDERR [INFO] I0731 23:50:10.678273 29934 net.cpp:156] Memory required for data: 20404
2016-07-31 23:50:10.678 STDERR [INFO] I0731 23:50:10.678283 29934 layer_factory.hpp:77] Creating layer reshape_stage_indicator
2016-07-31 23:50:10.678 STDERR [INFO] I0731 23:50:10.678306 29934 net.cpp:91] Creating Layer reshape_stage_indicator
2016-07-31 23:50:10.678 STDERR [INFO] I0731 23:50:10.678318 29934 net.cpp:425] reshape_stage_indicator <- stage_indicator
2016-07-31 23:50:10.678 STDERR [INFO] I0731 23:50:10.678333 29934 net.cpp:399] reshape_stage_indicator -> reshaped_stage_indicator
2016-07-31 23:50:10.679 STDERR [INFO] I0731 23:50:10.678627 29934 net.cpp:141] Setting up reshape_stage_indicator
2016-07-31 23:50:10.679 STDERR [INFO] I0731 23:50:10.678647 29934 net.cpp:148] Top shape: 1 1 1 (1)
2016-07-31 23:50:10.679 STDERR [INFO] I0731 23:50:10.678656 29934 net.cpp:156] Memory required for data: 20408
2016-07-31 23:50:10.679 STDERR [INFO] I0731 23:50:10.678665 29934 layer_factory.hpp:77] Creating layer embedding
2016-07-31 23:50:10.680 STDERR [INFO] I0731 23:50:10.678684 29934 net.cpp:91] Creating Layer embedding
2016-07-31 23:50:10.680 STDERR [INFO] I0731 23:50:10.678694 29934 net.cpp:425] embedding <- input_sentence
…
2016-07-31 23:50:10.950 STDERR [INFO] }
2016-07-31 23:50:10.950 STDERR [INFO] I0731 23:50:10.936336 29934 layer_factory.hpp:77] Creating layer lstm1_
2016-07-31 23:50:10.950 STDERR [INFO] I0731 23:50:10.936350 29934 net.cpp:91] Creating Layer lstm1_
2016-07-31 23:50:10.950 STDERR [INFO] I0731 23:50:10.936357 29934 net.cpp:399] lstm1_ -> x
2016-07-31 23:50:10.950 STDERR [INFO] I0731 23:50:10.936369 29934 net.cpp:399] lstm1_ -> cont
2016-07-31 23:50:10.951 STDERR [INFO] I0731 23:50:10.936518 29934 net.cpp:141] Setting up lstm1_
2016-07-31 23:50:10.951 STDERR [INFO] I0731 23:50:10.936532 29934 net.cpp:148] Top shape: 1 1 500 (500)
2016-07-31 23:50:10.951 STDERR [INFO] I0731 23:50:10.936538 29934 net.cpp:148] Top shape: 1 1 (1)
2016-07-31 23:50:10.951 STDERR [INFO] I0731 23:50:10.936542 29934 net.cpp:156] Memory required for data: 2004
2016-07-31 23:50:10.951 STDERR [INFO] I0731 23:50:10.936548 29934 layer_factory.hpp:77] Creating layer lstm1_
2016-07-31 23:50:10.951 STDERR [INFO] I0731 23:50:10.936561 29934 net.cpp:91] Creating Layer lstm1_
2016-07-31 23:50:10.951 STDERR [INFO] I0731 23:50:10.936569 29934 net.cpp:399] lstm1_ -> c_0
2016-07-31 23:50:10.951 STDERR [INFO] I0731 23:50:10.936583 29934 net.cpp:399] lstm1_ -> h_0
2016-07-31 23:50:10.951 STDERR [INFO] I0731 23:50:10.936642 29934 net.cpp:141] Setting up lstm1_
2016-07-31 23:50:10.951 STDERR [INFO] I0731 23:50:10.936653 29934 net.cpp:148] Top shape: 1 1 1000 (1000)
2016-07-31 23:50:10.951 STDERR [INFO] I0731 23:50:10.936660 29934 net.cpp:148] Top shape: 1 1 1000 (1000)
2016-07-31 23:50:10.952 STDERR [INFO] I0731 23:50:10.936663 29934 net.cpp:156] Memory required for data: 10004
2016-07-31 23:50:10.952 STDERR [INFO] I0731 23:50:10.936668 29934 layer_factory.hpp:77] Creating layer lstm1_cont_slice
2016-07-31 23:50:10.952 STDERR [INFO] I0731 23:50:10.936681 29934 net.cpp:91] Creating Layer lstm1_cont_slice
2016-07-31 23:50:10.952 STDERR [INFO] I0731 23:50:10.936686 29934 net.cpp:425] lstm1_cont_slice <- cont
2016-07-31 23:50:10.952 STDERR [INFO] I0731 23:50:10.936694 29934 net.cpp:399] lstm1_cont_slice -> cont_1
2016-07-31 23:50:10.952 STDERR [INFO] I0731 23:50:10.936738 29934 net.cpp:141] Setting up lstm1_cont_slice
2016-07-31 23:50:10.952 STDERR [INFO] I0731 23:50:10.936748 29934 net.cpp:148] Top shape: 1 1 (1)
2016-07-31 23:50:10.952 STDERR [INFO] I0731 23:50:10.936753 29934 net.cpp:156] Memory required for data: 10008
2016-07-31 23:50:10.952 STDERR [INFO] I0731 23:50:10.936758 29934 layer_factory.hpp:77] Creating layer cont_1_lstm1_cont_slice_0_split
2016-07-31 23:50:10.952 STDERR [INFO] I0731 23:50:10.936765 29934 net.cpp:91] Creating Layer cont_1_lstm1_cont_slice_0_split
2016-07-31 23:50:10.952 STDERR [INFO] I0731 23:50:10.936770 29934 net.cpp:425] cont_1_lstm1_cont_slice_0_split <- cont_1
2016-07-31 23:50:10.952 STDERR [INFO] I0731 23:50:10.936779 29934 net.cpp:399] cont_1_lstm1_cont_slice_0_split -> cont_1_lstm1_cont_slice_0_split_0
2016-07-31 23:50:10.953 STDERR [INFO] I0731 23:50:10.936789 29934 net.cpp:399] cont_1_lstm1_cont_slice_0_split -> cont_1_lstm1_cont_slice_0_split_1
2016-07-31 23:50:10.953 STDERR [INFO] I0731 23:50:10.936934 29934 net.cpp:141] Setting up cont_1_lstm1_cont_slice_0_split
2016-07-31 23:50:10.953 STDERR [INFO] I0731 23:50:10.936945 29934 net.cpp:148] Top shape: 1 1 (1)
2016-07-31 23:50:10.953 STDERR [INFO] I0731 23:50:10.936951 29934 net.cpp:148] Top shape: 1 1 (1)
2016-07-31 23:50:10.953 STDERR [INFO] I0731 23:50:10.936955 29934 net.cpp:156] Memory required for data: 10016
2016-07-31 23:50:10.953 STDERR [INFO] I0731 23:50:10.936961 29934 layer_factory.hpp:77] Creating layer lstm1_x_transform
2016-07-31 23:50:10.953 STDERR [INFO] I0731 23:50:10.936975 29934 net.cpp:91] Creating Layer lstm1_x_transform
2016-07-31 23:50:10.953 STDERR [INFO] I0731 23:50:10.936980 29934 net.cpp:425] lstm1_x_transform <- x
2016-07-31 23:50:10.953 STDERR [INFO] I0731 23:50:10.936988 29934 net.cpp:399] lstm1_x_transform -> W_xc_x
2016-07-31 23:50:10.954 STDERR [INFO] I0731 23:50:10.942556 29944 net.cpp:141] Setting up conv1
2016-07-31 23:50:10.954 STDERR [INFO] I0731 23:50:10.942591 29944 net.cpp:148] Top shape: 10 96 55 55 (2904000)
2016-07-31 23:50:10.954 STDERR [INFO] I0731 23:50:10.942598 29944 net.cpp:156] Memory required for data: 17799480
2016-07-31 23:50:10.954 STDERR [INFO] I0731 23:50:10.942618 29944 layer_factory.hpp:77] Creating layer relu1
2016-07-31 23:50:10.954 STDERR [INFO] I0731 23:50:10.942632 29944 net.cpp:91] Creating Layer relu1
2016-07-31 23:50:10.954 STDERR [INFO] I0731 23:50:10.942638 29944 net.cpp:425] relu1 <- conv1
2016-07-31 23:50:10.954 STDERR [INFO] I0731 23:50:10.942647 29944 net.cpp:386] relu1 -> conv1 (in-place)
2016-07-31 23:50:10.954 STDERR [INFO] I0731 23:50:10.943181 29944 net.cpp:141] Setting up relu1
2016-07-31 23:50:10.954 STDERR [INFO] I0731 23:50:10.943195 29944 net.cpp:148] Top shape: 10 96 55 55 (2904000)
2016-07-31 23:50:10.954 STDERR [INFO] I0731 23:50:10.943200 29944 net.cpp:156] Memory required for data: 29415480
2016-07-31 23:50:10.955 STDERR [INFO] I0731 23:50:10.943207 29944 layer_factory.hpp:77] Creating layer pool1
2016-07-31 23:50:10.955 STDERR [INFO] I0731 23:50:10.943219 29944 net.cpp:91] Creating Layer pool1
2016-07-31 23:50:10.955 STDERR [INFO] I0731 23:50:10.943225 29944 net.cpp:425] pool1 <- conv1
2016-07-31 23:50:10.955 STDERR [INFO] I0731 23:50:10.943236 29944 net.cpp:399] pool1 -> pool1
2016-07-31 23:50:10.955 STDERR [INFO] I0731 23:50:10.943313 29944 net.cpp:141] Setting up pool1
2016-07-31 23:50:10.955 STDERR [INFO] I0731 23:50:10.943325 29944 net.cpp:148] Top shape: 10 96 27 27 (699840)
2016-07-31 23:50:10.955 STDERR [INFO] I0731 23:50:10.943330 29944 net.cpp:156] Memory required for data: 32214840
2016-07-31 23:50:10.955 STDERR [INFO] I0731 23:50:10.943334 29944 layer_factory.hpp:77] Creating layer norm1
2016-07-31 23:50:10.955 STDERR [INFO] I0731 23:50:10.943356 29944 net.cpp:91] Creating Layer norm1
2016-07-31 23:50:10.955 STDERR [INFO] I0731 23:50:10.943362 29944 net.cpp:425] norm1 <- pool1
2016-07-31 23:50:10.955 STDERR [INFO] I0731 23:50:10.943369 29944 net.cpp:399] norm1 -> norm1
2016-07-31 23:50:10.956 STDERR [INFO] I0731 23:50:10.943912 29944 net.cpp:141] Setting up norm1
2016-07-31 23:50:10.956 STDERR [INFO] I0731 23:50:10.943927 29944 net.cpp:148] Top shape: 10 96 27 27 (699840)
2016-07-31 23:50:10.956 STDERR [INFO] I0731 23:50:10.943931 29944 net.cpp:156] Memory required for data: 35014200
2016-07-31 23:50:10.956 STDERR [INFO] I0731 23:50:10.943938 29944 layer_factory.hpp:77] Creating layer conv2
2016-07-31 23:50:10.956 STDERR [INFO] I0731 23:50:10.943955 29944 net.cpp:91] Creating Layer conv2
2016-07-31 23:50:10.956 STDERR [INFO] I0731 23:50:10.943961 29944 net.cpp:425] conv2 <- norm1
2016-07-31 23:50:10.956 STDERR [INFO] I0731 23:50:10.943974 29944 net.cpp:399] conv2 -> conv2
2016-07-31 23:50:10.956 STDERR [INFO] I0731 23:50:10.947648 29944 net.cpp:141] Setting up conv2
2016-07-31 23:50:10.956 STDERR [INFO] I0731 23:50:10.947665 29944 net.cpp:148] Top shape: 10 256 27 27 (1866240)
2016-07-31 23:50:10.956 STDERR [INFO] I0731 23:50:10.947670 29944 net.cpp:156] Memory required for data: 42479160
2016-07-31 23:50:10.956 STDERR [INFO] I0731 23:50:10.947685 29944 layer_factory.hpp:77] Creating layer relu2
2016-07-31 23:50:10.956 STDERR [INFO] I0731 23:50:10.947695 29944 net.cpp:91] Creating Layer relu2
2016-07-31 23:50:10.957 STDERR [INFO] I0731 23:50:10.947700 29944 net.cpp:425] relu2 <- conv2
2016-07-31 23:50:10.957 STDERR [INFO] I0731 23:50:10.947711 29944 net.cpp:386] relu2 -> conv2 (in-place)
2016-07-31 23:50:10.957 STDERR [INFO] I0731 23:50:10.948225 29944 net.cpp:141] Setting up relu2
2016-07-31 23:50:10.957 STDERR [INFO] I0731 23:50:10.948240 29944 net.cpp:148] Top shape: 10 256 27 27 (1866240)
2016-07-31 23:50:10.957 STDERR [INFO] I0731 23:50:10.948246 29944 net.cpp:156] Memory required for data: 49944120
2016-07-31 23:50:10.957 STDERR [INFO] I0731 23:50:10.948251 29944 layer_factory.hpp:77] Creating layer pool2
2016-07-31 23:50:10.957 STDERR [INFO] I0731 23:50:10.948266 29944 net.cpp:91] Creating Layer pool2
2016-07-31 23:50:10.957 STDERR [INFO] I0731 23:50:10.948271 29944 net.cpp:425] pool2 <- conv2
2016-07-31 23:50:10.957 STDERR [INFO] I0731 23:50:10.948278 29944 net.cpp:399] pool2 -> pool2
2016-07-31 23:50:10.957 STDERR [INFO] I0731 23:50:10.948341 29944 net.cpp:141] Setting up pool2
2016-07-31 23:50:10.957 STDERR [INFO] I0731 23:50:10.948353 29944 net.cpp:148] Top shape: 10 256 13 13 (432640)
2016-07-31 23:50:10.957 STDERR [INFO] I0731 23:50:10.948356 29944 net.cpp:156] Memory required for data: 51674680
2016-07-31 23:50:10.958 STDERR [INFO] I0731 23:50:10.948361 29944 layer_factory.hpp:77] Creating layer norm2
2016-07-31 23:50:10.958 STDERR [INFO] I0731 23:50:10.948375 29944 net.cpp:91] Creating Layer norm2
2016-07-31 23:50:10.958 STDERR [INFO] I0731 23:50:10.948380 29944 net.cpp:425] norm2 <- pool2
2016-07-31 23:50:10.958 STDERR [INFO] I0731 23:50:10.948387 29944 net.cpp:399] norm2 -> norm2
2016-07-31 23:50:10.958 STDERR [INFO] I0731 23:50:10.948674 29944 net.cpp:141] Setting up norm2
2016-07-31 23:50:10.958 STDERR [INFO] I0731 23:50:10.948686 29944 net.cpp:148] Top shape: 10 256 13 13 (432640)
2016-07-31 23:50:10.958 STDERR [INFO] I0731 23:50:10.948691 29944 net.cpp:156] Memory required for data: 53405240
2016-07-31 23:50:10.958 STDERR [INFO] I0731 23:50:10.948698 29944 layer_factory.hpp:77] Creating layer conv3
2016-07-31 23:50:10.958 STDERR [INFO] I0731 23:50:10.948711 29944 net.cpp:91] Creating Layer conv3
2016-07-31 23:50:10.958 STDERR [INFO] I0731 23:50:10.948716 29944 net.cpp:425] conv3 <- norm2
2016-07-31 23:50:10.958 STDERR [INFO] I0731 23:50:10.948724 29944 net.cpp:399] conv3 -> conv3
2016-07-31 23:50:10.959 STDERR [INFO] I0731 23:50:10.952842 29944 net.cpp:141] Setting up conv3
2016-07-31 23:50:10.959 STDERR [INFO] I0731 23:50:10.952863 29944 net.cpp:148] Top shape: 10 384 13 13 (648960)
2016-07-31 23:50:10.959 STDERR [INFO] I0731 23:50:10.952868 29944 net.cpp:156] Memory required for data: 56001080
2016-07-31 23:50:10.959 STDERR [INFO] I0731 23:50:10.952883 29944 layer_factory.hpp:77] Creating layer relu3
2016-07-31 23:50:10.959 STDERR [INFO] I0731 23:50:10.952893 29944 net.cpp:91] Creating Layer relu3
2016-07-31 23:50:10.959 STDERR [INFO] I0731 23:50:10.952899 29944 net.cpp:425] relu3 <- conv3
2016-07-31 23:50:10.959 STDERR [INFO] I0731 23:50:10.952911 29944 net.cpp:386] relu3 -> conv3 (in-place)
2016-07-31 23:50:10.959 STDERR [INFO] I0731 23:50:10.953393 29944 net.cpp:141] Setting up relu3
2016-07-31 23:50:10.959 STDERR [INFO] I0731 23:50:10.953408 29944 net.cpp:148] Top shape: 10 384 13 13 (648960)
2016-07-31 23:50:10.959 STDERR [INFO] I0731 23:50:10.953413 29944 net.cpp:156] Memory required for data: 58596920
2016-07-31 23:50:10.959 STDERR [INFO] I0731 23:50:10.953418 29944 layer_factory.hpp:77] Creating layer conv4
2016-07-31 23:50:10.959 STDERR [INFO] I0731 23:50:10.953435 29944 net.cpp:91] Creating Layer conv4
2016-07-31 23:50:10.960 STDERR [INFO] I0731 23:50:10.953441 29944 net.cpp:425] conv4 <- conv3
2016-07-31 23:50:10.960 STDERR [INFO] I0731 23:50:10.953451 29944 net.cpp:399] conv4 -> conv4
2016-07-31 23:50:10.960 STDERR [INFO] I0731 23:50:10.957959 29944 net.cpp:141] Setting up conv4
2016-07-31 23:50:10.960 STDERR [INFO] I0731 23:50:10.957981 29944 net.cpp:148] Top shape: 10 384 13 13 (648960)
2016-07-31 23:50:10.960 STDERR [INFO] I0731 23:50:10.957988 29944 net.cpp:156] Memory required for data: 61192760
2016-07-31 23:50:10.960 STDERR [INFO] I0731 23:50:10.957998 29944 layer_factory.hpp:77] Creating layer relu4
2016-07-31 23:50:10.960 STDERR [INFO] I0731 23:50:10.958012 29944 net.cpp:91] Creating Layer relu4
2016-07-31 23:50:10.960 STDERR [INFO] I0731 23:50:10.958019 29944 net.cpp:425] relu4 <- conv4
2016-07-31 23:50:10.960 STDERR [INFO] I0731 23:50:10.958026 29944 net.cpp:386] relu4 -> conv4 (in-place)
2016-07-31 23:50:10.960 STDERR [INFO] I0731 23:50:10.958631 29934 net.cpp:141] Setting up lstm1_x_transform
2016-07-31 23:50:10.961 STDERR [INFO] I0731 23:50:10.958648 29934 net.cpp:148] Top shape: 1 1 4000 (4000)
2016-07-31 23:50:10.961 STDERR [INFO] I0731 23:50:10.958653 29934 net.cpp:156] Memory required for data: 26016
2016-07-31 23:50:10.961 STDERR [INFO] I0731 23:50:10.958667 29934 layer_factory.hpp:77] Creating layer lstm1_W_xc_x_slice
2016-07-31 23:50:10.961 STDERR [INFO] I0731 23:50:10.958679 29934 net.cpp:91] Creating Layer lstm1_W_xc_x_slice
2016-07-31 23:50:10.961 STDERR [INFO] I0731 23:50:10.958685 29934 net.cpp:425] lstm1_W_xc_x_slice <- W_xc_x
2016-07-31 23:50:10.961 STDERR [INFO] I0731 23:50:10.958689 29944 net.cpp:141] Setting up relu4
2016-07-31 23:50:10.961 STDERR [INFO] I0731 23:50:10.958694 29934 net.cpp:399] lstm1_W_xc_x_slice -> W_xc_x_1
2016-07-31 23:50:10.962 STDERR [INFO] I0731 23:50:10.958711 29944 net.cpp:148] Top shape: 10 384 13 13 (648960)
2016-07-31 23:50:10.962 STDERR [INFO] I0731 23:50:10.958716 29944 net.cpp:156] Memory required for data: 63788600
2016-07-31 23:50:10.962 STDERR [INFO] I0731 23:50:10.958722 29944 layer_factory.hpp:77] Creating layer conv5
2016-07-31 23:50:10.962 STDERR [INFO] I0731 23:50:10.958735 29944 net.cpp:91] Creating Layer conv5
2016-07-31 23:50:10.962 STDERR [INFO] I0731 23:50:10.958741 29944 net.cpp:425] conv5 <- conv4
2016-07-31 23:50:10.962 STDERR [INFO] I0731 23:50:10.958750 29934 net.cpp:141] Setting up lstm1_W_xc_x_slice
2016-07-31 23:50:10.962 STDERR [INFO] I0731 23:50:10.958753 29944 net.cpp:399] conv5 -> conv5
2016-07-31 23:50:10.962 STDERR [INFO] I0731 23:50:10.958761 29934 net.cpp:148] Top shape: 1 1 4000 (4000)
2016-07-31 23:50:10.962 STDERR [INFO] I0731 23:50:10.958766 29934 net.cpp:156] Memory required for data: 42016
2016-07-31 23:50:10.962 STDERR [INFO] I0731 23:50:10.958771 29934 layer_factory.hpp:77] Creating layer lstm1_h_conted_0
2016-07-31 23:50:10.963 STDERR [INFO] I0731 23:50:10.958781 29934 net.cpp:91] Creating Layer lstm1_h_conted_0
2016-07-31 23:50:10.963 STDERR [INFO] I0731 23:50:10.958787 29934 net.cpp:425] lstm1_h_conted_0 <- h_0
2016-07-31 23:50:10.963 STDERR [INFO] I0731 23:50:10.958793 29934 net.cpp:425] lstm1_h_conted_0 <- cont_1_lstm1_cont_slice_0_split_0
2016-07-31 23:50:10.963 STDERR [INFO] I0731 23:50:10.958801 29934 net.cpp:399] lstm1_h_conted_0 -> h_conted_0
2016-07-31 23:50:10.963 STDERR [INFO] I0731 23:50:10.960271 29934 net.cpp:141] Setting up lstm1_h_conted_0
2016-07-31 23:50:10.963 STDERR [INFO] I0731 23:50:10.960283 29934 net.cpp:148] Top shape: 1 1 1000 (1000)
2016-07-31 23:50:10.963 STDERR [INFO] I0731 23:50:10.960289 29934 net.cpp:156] Memory required for data: 46016
2016-07-31 23:50:10.963 STDERR [INFO] I0731 23:50:10.960294 29934 layer_factory.hpp:77] Creating layer lstm1_transform_1
2016-07-31 23:50:10.963 STDERR [INFO] I0731 23:50:10.960306 29934 net.cpp:91] Creating Layer lstm1_transform_1
2016-07-31 23:50:10.963 STDERR [INFO] I0731 23:50:10.960311 29934 net.cpp:425] lstm1_transform_1 <- h_conted_0
2016-07-31 23:50:10.963 STDERR [INFO] I0731 23:50:10.960320 29934 net.cpp:399] lstm1_transform_1 -> W_hc_h_0
2016-07-31 23:50:10.971 STDERR [INFO] I0731 23:50:10.971349 29944 net.cpp:141] Setting up conv5
2016-07-31 23:50:10.972 STDERR [INFO] I0731 23:50:10.971402 29944 net.cpp:148] Top shape: 10 256 13 13 (432640)
2016-07-31 23:50:10.972 STDERR [INFO] I0731 23:50:10.971410 29944 net.cpp:156] Memory required for data: 65519160
2016-07-31 23:50:10.972 STDERR [INFO] I0731 23:50:10.971434 29944 layer_factory.hpp:77] Creating layer relu5
2016-07-31 23:50:10.972 STDERR [INFO] I0731 23:50:10.971451 29944 net.cpp:91] Creating Layer relu5
2016-07-31 23:50:10.972 STDERR [INFO] I0731 23:50:10.971457 29944 net.cpp:425] relu5 <- conv5
2016-07-31 23:50:10.972 STDERR [INFO] I0731 23:50:10.971467 29944 net.cpp:386] relu5 -> conv5 (in-place)
2016-07-31 23:50:10.972 STDERR [INFO] I0731 23:50:10.971977 29944 net.cpp:141] Setting up relu5
2016-07-31 23:50:10.972 STDERR [INFO] I0731 23:50:10.971993 29944 net.cpp:148] Top shape: 10 256 13 13 (432640)
2016-07-31 23:50:10.972 STDERR [INFO] I0731 23:50:10.971999 29944 net.cpp:156] Memory required for data: 67249720
2016-07-31 23:50:10.973 STDERR [INFO] I0731 23:50:10.972004 29944 layer_factory.hpp:77] Creating layer pool5
2016-07-31 23:50:10.973 STDERR [INFO] I0731 23:50:10.972035 29944 net.cpp:91] Creating Layer pool5
2016-07-31 23:50:10.973 STDERR [INFO] I0731 23:50:10.972040 29944 net.cpp:425] pool5 <- conv5
2016-07-31 23:50:10.973 STDERR [INFO] I0731 23:50:10.972049 29944 net.cpp:399] pool5 -> pool5
2016-07-31 23:50:10.973 STDERR [INFO] I0731 23:50:10.972122 29944 net.cpp:141] Setting up pool5
2016-07-31 23:50:10.973 STDERR [INFO] I0731 23:50:10.972133 29944 net.cpp:148] Top shape: 10 256 6 6 (92160)
2016-07-31 23:50:10.973 STDERR [INFO] I0731 23:50:10.972137 29944 net.cpp:156] Memory required for data: 67618360
2016-07-31 23:50:10.973 STDERR [INFO] I0731 23:50:10.972142 29944 layer_factory.hpp:77] Creating layer fc6
2016-07-31 23:50:10.973 STDERR [INFO] I0731 23:50:10.972160 29944 net.cpp:91] Creating Layer fc6
2016-07-31 23:50:10.973 STDERR [INFO] I0731 23:50:10.972165 29944 net.cpp:425] fc6 <- pool5
…
2016-07-31 23:50:11.015 n.t.s.b.CVParticleBolt [INFO] [Timing] RequestID: 0 StreamID: home/peifeng/work/data/frame.320x240.jpg SequenceNr: 140 Leaving scale: 1470023411015 Size: 3530
2016-07-31 23:50:11.015 n.t.s.b.CVParticleBolt [INFO] [Timing] RequestID: 0 StreamID: home/peifeng/work/data/frame.320x240.jpg SequenceNr: 141 Entering scale: 1470023411015
2016-07-31 23:50:11.020 n.t.s.b.CVParticleBolt [INFO] [Timing] RequestID: 0 StreamID: home/peifeng/work/data/frame.320x240.jpg SequenceNr: 141 Leaving scale: 1470023411020 Size: 3530
2016-07-31 23:50:11.042 STDERR [INFO] I0731 23:50:11.041820 29934 net.cpp:141] Setting up lstm1_transform_1
2016-07-31 23:50:11.042 STDERR [INFO] I0731 23:50:11.041872 29934 net.cpp:148] Top shape: 1 1 4000 (4000)
2016-07-31 23:50:11.042 STDERR [INFO] I0731 23:50:11.041878 29934 net.cpp:156] Memory required for data: 62016
2016-07-31 23:50:11.042 STDERR [INFO] I0731 23:50:11.041901 29934 layer_factory.hpp:77] Creating layer lstm1_gate_input_1
2016-07-31 23:50:11.043 STDERR [INFO] I0731 23:50:11.041923 29934 net.cpp:91] Creating Layer lstm1_gate_input_1
2016-07-31 23:50:11.043 STDERR [INFO] I0731 23:50:11.041930 29934 net.cpp:425] lstm1_gate_input_1 <- W_hc_h_0
2016-07-31 23:50:11.043 STDERR [INFO] I0731 23:50:11.041939 29934 net.cpp:425] lstm1_gate_input_1 <- W_xc_x_1
2016-07-31 23:50:11.043 STDERR [INFO] I0731 23:50:11.041947 29934 net.cpp:399] lstm1_gate_input_1 -> gate_input_1
2016-07-31 23:50:11.043 STDERR [INFO] I0731 23:50:11.042016 29934 net.cpp:141] Setting up lstm1_gate_input_1
2016-07-31 23:50:11.043 STDERR [INFO] I0731 23:50:11.042026 29934 net.cpp:148] Top shape: 1 1 4000 (4000)
2016-07-31 23:50:11.043 STDERR [INFO] I0731 23:50:11.042032 29934 net.cpp:156] Memory required for data: 78016
2016-07-31 23:50:11.044 STDERR [INFO] I0731 23:50:11.042037 29934 layer_factory.hpp:77] Creating layer lstm1_unit_1
2016-07-31 23:50:11.044 STDERR [INFO] I0731 23:50:11.042047 29934 net.cpp:91] Creating Layer lstm1_unit_1
2016-07-31 23:50:11.044 STDERR [INFO] I0731 23:50:11.042052 29934 net.cpp:425] lstm1_unit_1 <- c_0
2016-07-31 23:50:11.044 STDERR [INFO] I0731 23:50:11.042057 29934 net.cpp:425] lstm1_unit_1 <- gate_input_1
2016-07-31 23:50:11.044 STDERR [INFO] I0731 23:50:11.042063 29934 net.cpp:425] lstm1_unit_1 <- cont_1_lstm1_cont_slice_0_split_1
2016-07-31 23:50:11.044 STDERR [INFO] I0731 23:50:11.042073 29934 net.cpp:399] lstm1_unit_1 -> c_1
2016-07-31 23:50:11.044 STDERR [INFO] I0731 23:50:11.042083 29934 net.cpp:399] lstm1_unit_1 -> h_1
2016-07-31 23:50:11.045 STDERR [INFO] I0731 23:50:11.042150 29934 net.cpp:141] Setting up lstm1_unit_1
2016-07-31 23:50:11.046 STDERR [INFO] I0731 23:50:11.042160 29934 net.cpp:148] Top shape: 1 1 1000 (1000)
2016-07-31 23:50:11.046 STDERR [INFO] I0731 23:50:11.042165 29934 net.cpp:148] Top shape: 1 1 1000 (1000)
2016-07-31 23:50:11.046 STDERR [INFO] I0731 23:50:11.042171 29934 net.cpp:156] Memory required for data: 86016
2016-07-31 23:50:11.046 STDERR [INFO] I0731 23:50:11.042176 29934 layer_factory.hpp:77] Creating layer lstm1_
2016-07-31 23:50:11.046 STDERR [INFO] I0731 23:50:11.042186 29934 net.cpp:91] Creating Layer lstm1_
2016-07-31 23:50:11.046 STDERR [INFO] I0731 23:50:11.042191 29934 net.cpp:425] lstm1_ <- c_1
2016-07-31 23:50:11.047 STDERR [INFO] I0731 23:50:11.042198 29934 net.cpp:399] lstm1_ -> c_T
2016-07-31 23:50:11.047 STDERR [INFO] I0731 23:50:11.042229 29934 net.cpp:141] Setting up lstm1_
2016-07-31 23:50:11.047 STDERR [INFO] I0731 23:50:11.042238 29934 net.cpp:148] Top shape: 1 1 1000 (1000)
2016-07-31 23:50:11.047 STDERR [INFO] I0731 23:50:11.042243 29934 net.cpp:156] Memory required for data: 90016
2016-07-31 23:50:11.047 STDERR [INFO] I0731 23:50:11.042248 29934 layer_factory.hpp:77] Creating layer lstm1_h_concat
2016-07-31 23:50:11.047 STDERR [INFO] I0731 23:50:11.042258 29934 net.cpp:91] Creating Layer lstm1_h_concat
2016-07-31 23:50:11.047 STDERR [INFO] I0731 23:50:11.042261 29934 net.cpp:425] lstm1_h_concat <- h_1
2016-07-31 23:50:11.047 STDERR [INFO] I0731 23:50:11.042274 29934 net.cpp:399] lstm1_h_concat -> h
2016-07-31 23:50:11.047 STDERR [INFO] I0731 23:50:11.042318 29934 net.cpp:141] Setting up lstm1_h_concat
2016-07-31 23:50:11.047 STDERR [INFO] I0731 23:50:11.042327 29934 net.cpp:148] Top shape: 1 1 1000 (1000)
2016-07-31 23:50:11.047 STDERR [INFO] I0731 23:50:11.042332 29934 net.cpp:156] Memory required for data: 94016
2016-07-31 23:50:11.048 STDERR [INFO] I0731 23:50:11.042337 29934 layer_factory.hpp:77] Creating layer h_pseudoloss
2016-07-31 23:50:11.048 STDERR [INFO] I0731 23:50:11.042351 29934 net.cpp:91] Creating Layer h_pseudoloss
2016-07-31 23:50:11.048 STDERR [INFO] I0731 23:50:11.042356 29934 net.cpp:425] h_pseudoloss <- h
…
2016-07-31 23:50:11.064 STDERR [INFO] }
2016-07-31 23:50:11.064 STDERR [INFO] I0731 23:50:11.043342 29934 layer_factory.hpp:77] Creating layer lstm2_
2016-07-31 23:50:11.064 STDERR [INFO] I0731 23:50:11.043355 29934 net.cpp:91] Creating Layer lstm2_
2016-07-31 23:50:11.064 STDERR [INFO] I0731 23:50:11.043362 29934 net.cpp:399] lstm2_ -> x
2016-07-31 23:50:11.064 STDERR [INFO] I0731 23:50:11.043375 29934 net.cpp:399] lstm2_ -> cont
2016-07-31 23:50:11.065 STDERR [INFO] I0731 23:50:11.043437 29934 net.cpp:141] Setting up lstm2_
2016-07-31 23:50:11.065 STDERR [INFO] I0731 23:50:11.043447 29934 net.cpp:148] Top shape: 1 1 1501 (1501)
2016-07-31 23:50:11.065 STDERR [INFO] I0731 23:50:11.043454 29934 net.cpp:148] Top shape: 1 1 (1)
2016-07-31 23:50:11.065 STDERR [INFO] I0731 23:50:11.043458 29934 net.cpp:156] Memory required for data: 6008
2016-07-31 23:50:11.065 STDERR [INFO] I0731 23:50:11.043463 29934 layer_factory.hpp:77] Creating layer lstm2_
2016-07-31 23:50:11.065 STDERR [INFO] I0731 23:50:11.043473 29934 net.cpp:91] Creating Layer lstm2_
2016-07-31 23:50:11.065 STDERR [INFO] I0731 23:50:11.043484 29934 net.cpp:399] lstm2_ -> c_0
2016-07-31 23:50:11.066 STDERR [INFO] I0731 23:50:11.043495 29934 net.cpp:399] lstm2_ -> h_0
2016-07-31 23:50:11.066 STDERR [INFO] I0731 23:50:11.043548 29934 net.cpp:141] Setting up lstm2_
2016-07-31 23:50:11.066 STDERR [INFO] I0731 23:50:11.043558 29934 net.cpp:148] Top shape: 1 1 1000 (1000)
2016-07-31 23:50:11.066 STDERR [INFO] I0731 23:50:11.043565 29934 net.cpp:148] Top shape: 1 1 1000 (1000)
2016-07-31 23:50:11.066 STDERR [INFO] I0731 23:50:11.043568 29934 net.cpp:156] Memory required for data: 14008
2016-07-31 23:50:11.066 STDERR [INFO] I0731 23:50:11.043573 29934 layer_factory.hpp:77] Creating layer lstm2_cont_slice
2016-07-31 23:50:11.066 STDERR [INFO] I0731 23:50:11.043582 29934 net.cpp:91] Creating Layer lstm2_cont_slice
2016-07-31 23:50:11.066 STDERR [INFO] I0731 23:50:11.043587 29934 net.cpp:425] lstm2_cont_slice <- cont
2016-07-31 23:50:11.066 STDERR [INFO] I0731 23:50:11.043596 29934 net.cpp:399] lstm2_cont_slice -> cont_1
2016-07-31 23:50:11.066 STDERR [INFO] I0731 23:50:11.043632 29934 net.cpp:141] Setting up lstm2_cont_slice
2016-07-31 23:50:11.067 STDERR [INFO] I0731 23:50:11.043643 29934 net.cpp:148] Top shape: 1 1 (1)
2016-07-31 23:50:11.067 STDERR [INFO] I0731 23:50:11.043649 29934 net.cpp:156] Memory required for data: 14012
2016-07-31 23:50:11.067 STDERR [INFO] I0731 23:50:11.043654 29934 layer_factory.hpp:77] Creating layer cont_1_lstm2_cont_slice_0_split
2016-07-31 23:50:11.067 STDERR [INFO] I0731 23:50:11.043661 29934 net.cpp:91] Creating Layer cont_1_lstm2_cont_slice_0_split
2016-07-31 23:50:11.067 STDERR [INFO] I0731 23:50:11.043666 29934 net.cpp:425] cont_1_lstm2_cont_slice_0_split <- cont_1
2016-07-31 23:50:11.067 STDERR [INFO] I0731 23:50:11.043674 29934 net.cpp:399] cont_1_lstm2_cont_slice_0_split -> cont_1_lstm2_cont_slice_0_split_0
2016-07-31 23:50:11.067 STDERR [INFO] I0731 23:50:11.043683 29934 net.cpp:399] cont_1_lstm2_cont_slice_0_split -> cont_1_lstm2_cont_slice_0_split_1
2016-07-31 23:50:11.068 STDERR [INFO] I0731 23:50:11.043733 29934 net.cpp:141] Setting up cont_1_lstm2_cont_slice_0_split
2016-07-31 23:50:11.068 STDERR [INFO] I0731 23:50:11.043742 29934 net.cpp:148] Top shape: 1 1 (1)
2016-07-31 23:50:11.068 STDERR [INFO] I0731 23:50:11.043748 29934 net.cpp:148] Top shape: 1 1 (1)
2016-07-31 23:50:11.068 STDERR [INFO] I0731 23:50:11.043753 29934 net.cpp:156] Memory required for data: 14020
2016-07-31 23:50:11.068 STDERR [INFO] I0731 23:50:11.043758 29934 layer_factory.hpp:77] Creating layer lstm2_x_transform
2016-07-31 23:50:11.068 STDERR [INFO] I0731 23:50:11.043771 29934 net.cpp:91] Creating Layer lstm2_x_transform
2016-07-31 23:50:11.068 STDERR [INFO] I0731 23:50:11.043776 29934 net.cpp:425] lstm2_x_transform <- x
2016-07-31 23:50:11.068 STDERR [INFO] I0731 23:50:11.043784 29934 net.cpp:399] lstm2_x_transform -> W_xc_x
2016-07-31 23:50:11.083 STDERR [INFO] I0731 23:50:11.083539 29944 net.cpp:141] Setting up fc6
2016-07-31 23:50:11.084 STDERR [INFO] I0731 23:50:11.083590 29944 net.cpp:148] Top shape: 10 4096 (40960)
2016-07-31 23:50:11.084 STDERR [INFO] I0731 23:50:11.083597 29944 net.cpp:156] Memory required for data: 67782200
2016-07-31 23:50:11.084 STDERR [INFO] I0731 23:50:11.083612 29944 layer_factory.hpp:77] Creating layer relu6
2016-07-31 23:50:11.084 STDERR [INFO] I0731 23:50:11.083629 29944 net.cpp:91] Creating Layer relu6
2016-07-31 23:50:11.084 STDERR [INFO] I0731 23:50:11.083636 29944 net.cpp:425] relu6 <- fc6
2016-07-31 23:50:11.084 STDERR [INFO] I0731 23:50:11.083650 29944 net.cpp:386] relu6 -> fc6 (in-place)
2016-07-31 23:50:11.084 STDERR [INFO] I0731 23:50:11.084022 29944 net.cpp:141] Setting up relu6
2016-07-31 23:50:11.085 STDERR [INFO] I0731 23:50:11.084038 29944 net.cpp:148] Top shape: 10 4096 (40960)
2016-07-31 23:50:11.085 STDERR [INFO] I0731 23:50:11.084043 29944 net.cpp:156] Memory required for data: 67946040
2016-07-31 23:50:11.085 STDERR [INFO] I0731 23:50:11.084049 29944 layer_factory.hpp:77] Creating layer drop6
2016-07-31 23:50:11.085 STDERR [INFO] I0731 23:50:11.084069 29944 net.cpp:91] Creating Layer drop6
2016-07-31 23:50:11.085 STDERR [INFO] I0731 23:50:11.084075 29944 net.cpp:425] drop6 <- fc6
2016-07-31 23:50:11.085 STDERR [INFO] I0731 23:50:11.084082 29944 net.cpp:386] drop6 -> fc6 (in-place)
2016-07-31 23:50:11.085 STDERR [INFO] I0731 23:50:11.084139 29944 net.cpp:141] Setting up drop6
2016-07-31 23:50:11.085 STDERR [INFO] I0731 23:50:11.084148 29944 net.cpp:148] Top shape: 10 4096 (40960)
2016-07-31 23:50:11.085 STDERR [INFO] I0731 23:50:11.084153 29944 net.cpp:156] Memory required for data: 68109880
2016-07-31 23:50:11.085 STDERR [INFO] I0731 23:50:11.084158 29944 layer_factory.hpp:77] Creating layer fc7
2016-07-31 23:50:11.086 STDERR [INFO] I0731 23:50:11.084169 29944 net.cpp:91] Creating Layer fc7
2016-07-31 23:50:11.086 STDERR [INFO] I0731 23:50:11.084173 29944 net.cpp:425] fc7 <- fc6
2016-07-31 23:50:11.086 STDERR [INFO] I0731 23:50:11.084183 29944 net.cpp:399] fc7 -> fc7
2016-07-31 23:50:11.116 STDERR [INFO] I0731 23:50:11.115854 29934 net.cpp:141] Setting up lstm2_x_transform
2016-07-31 23:50:11.116 STDERR [INFO] I0731 23:50:11.115921 29934 net.cpp:148] Top shape: 1 1 4000 (4000)
2016-07-31 23:50:11.116 STDERR [INFO] I0731 23:50:11.115927 29934 net.cpp:156] Memory required for data: 30020
2016-07-31 23:50:11.116 STDERR [INFO] I0731 23:50:11.115957 29934 layer_factory.hpp:77] Creating layer lstm2_W_xc_x_slice
2016-07-31 23:50:11.116 STDERR [INFO] I0731 23:50:11.115978 29934 net.cpp:91] Creating Layer lstm2_W_xc_x_slice
2016-07-31 23:50:11.116 STDERR [INFO] I0731 23:50:11.115986 29934 net.cpp:425] lstm2_W_xc_x_slice <- W_xc_x
2016-07-31 23:50:11.116 STDERR [INFO] I0731 23:50:11.115998 29934 net.cpp:399] lstm2_W_xc_x_slice -> W_xc_x_1
2016-07-31 23:50:11.117 STDERR [INFO] I0731 23:50:11.116065 29934 net.cpp:141] Setting up lstm2_W_xc_x_slice
2016-07-31 23:50:11.117 STDERR [INFO] I0731 23:50:11.116078 29934 net.cpp:148] Top shape: 1 1 4000 (4000)
2016-07-31 23:50:11.117 STDERR [INFO] I0731 23:50:11.116082 29934 net.cpp:156] Memory required for data: 46020
2016-07-31 23:50:11.117 STDERR [INFO] I0731 23:50:11.116087 29934 layer_factory.hpp:77] Creating layer lstm2_h_conted_0
2016-07-31 23:50:11.117 STDERR [INFO] I0731 23:50:11.116101 29934 net.cpp:91] Creating Layer lstm2_h_conted_0
2016-07-31 23:50:11.117 STDERR [INFO] I0731 23:50:11.116106 29934 net.cpp:425] lstm2_h_conted_0 <- h_0
2016-07-31 23:50:11.117 STDERR [INFO] I0731 23:50:11.116113 29934 net.cpp:425] lstm2_h_conted_0 <- cont_1_lstm2_cont_slice_0_split_0
2016-07-31 23:50:11.117 STDERR [INFO] I0731 23:50:11.116122 29934 net.cpp:399] lstm2_h_conted_0 -> h_conted_0
2016-07-31 23:50:11.117 STDERR [INFO] I0731 23:50:11.116242 29934 net.cpp:141] Setting up lstm2_h_conted_0
2016-07-31 23:50:11.117 STDERR [INFO] I0731 23:50:11.116252 29934 net.cpp:148] Top shape: 1 1 1000 (1000)
2016-07-31 23:50:11.117 STDERR [INFO] I0731 23:50:11.116257 29934 net.cpp:156] Memory required for data: 50020
2016-07-31 23:50:11.118 STDERR [INFO] I0731 23:50:11.116262 29934 layer_factory.hpp:77] Creating layer lstm2_transform_1
2016-07-31 23:50:11.118 STDERR [INFO] I0731 23:50:11.116279 29934 net.cpp:91] Creating Layer lstm2_transform_1
2016-07-31 23:50:11.118 STDERR [INFO] I0731 23:50:11.116286 29934 net.cpp:425] lstm2_transform_1 <- h_conted_0
2016-07-31 23:50:11.118 STDERR [INFO] I0731 23:50:11.116297 29934 net.cpp:399] lstm2_transform_1 -> W_hc_h_0
2016-07-31 23:50:11.134 STDERR [INFO] I0731 23:50:11.133962 29944 net.cpp:141] Setting up fc7
2016-07-31 23:50:11.134 STDERR [INFO] I0731 23:50:11.134014 29944 net.cpp:148] Top shape: 10 4096 (40960)
2016-07-31 23:50:11.134 STDERR [INFO] I0731 23:50:11.134021 29944 net.cpp:156] Memory required for data: 68273720
2016-07-31 23:50:11.134 STDERR [INFO] I0731 23:50:11.134039 29944 layer_factory.hpp:77] Creating layer relu7
2016-07-31 23:50:11.134 STDERR [INFO] I0731 23:50:11.134064 29944 net.cpp:91] Creating Layer relu7
2016-07-31 23:50:11.134 STDERR [INFO] I0731 23:50:11.134073 29944 net.cpp:425] relu7 <- fc7
2016-07-31 23:50:11.135 STDERR [INFO] I0731 23:50:11.134083 29944 net.cpp:386] relu7 -> fc7 (in-place)
2016-07-31 23:50:11.135 STDERR [INFO] I0731 23:50:11.134930 29944 net.cpp:141] Setting up relu7
2016-07-31 23:50:11.135 STDERR [INFO] I0731 23:50:11.134944 29944 net.cpp:148] Top shape: 10 4096 (40960)
2016-07-31 23:50:11.135 STDERR [INFO] I0731 23:50:11.134949 29944 net.cpp:156] Memory required for data: 68437560
2016-07-31 23:50:11.135 STDERR [INFO] I0731 23:50:11.134955 29944 layer_factory.hpp:77] Creating layer drop7
2016-07-31 23:50:11.135 STDERR [INFO] I0731 23:50:11.134969 29944 net.cpp:91] Creating Layer drop7
2016-07-31 23:50:11.135 STDERR [INFO] I0731 23:50:11.134975 29944 net.cpp:425] drop7 <- fc7
2016-07-31 23:50:11.135 STDERR [INFO] I0731 23:50:11.134984 29944 net.cpp:386] drop7 -> fc7 (in-place)
2016-07-31 23:50:11.135 STDERR [INFO] I0731 23:50:11.135026 29944 net.cpp:141] Setting up drop7
2016-07-31 23:50:11.135 STDERR [INFO] I0731 23:50:11.135035 29944 net.cpp:148] Top shape: 10 4096 (40960)
2016-07-31 23:50:11.135 STDERR [INFO] I0731 23:50:11.135040 29944 net.cpp:156] Memory required for data: 68601400
2016-07-31 23:50:11.136 STDERR [INFO] I0731 23:50:11.135045 29944 layer_factory.hpp:77] Creating layer fc8
2016-07-31 23:50:11.136 STDERR [INFO] I0731 23:50:11.135059 29944 net.cpp:91] Creating Layer fc8
2016-07-31 23:50:11.136 STDERR [INFO] I0731 23:50:11.135066 29944 net.cpp:425] fc8 <- fc7
2016-07-31 23:50:11.136 STDERR [INFO] I0731 23:50:11.135072 29944 net.cpp:399] fc8 -> fc8
2016-07-31 23:50:11.147 STDERR [INFO] I0731 23:50:11.147446 29944 net.cpp:141] Setting up fc8
2016-07-31 23:50:11.148 STDERR [INFO] I0731 23:50:11.147495 29944 net.cpp:148] Top shape: 10 1000 (10000)
2016-07-31 23:50:11.148 STDERR [INFO] I0731 23:50:11.147500 29944 net.cpp:156] Memory required for data: 68641400
2016-07-31 23:50:11.148 STDERR [INFO] I0731 23:50:11.147516 29944 layer_factory.hpp:77] Creating layer prob
2016-07-31 23:50:11.148 STDERR [INFO] I0731 23:50:11.147533 29944 net.cpp:91] Creating Layer prob
2016-07-31 23:50:11.148 STDERR [INFO] I0731 23:50:11.147541 29944 net.cpp:425] prob <- fc8
2016-07-31 23:50:11.148 STDERR [INFO] I0731 23:50:11.147557 29944 net.cpp:399] prob -> prob
2016-07-31 23:50:11.148 STDERR [INFO] I0731 23:50:11.148031 29944 net.cpp:141] Setting up prob
2016-07-31 23:50:11.148 STDERR [INFO] I0731 23:50:11.148044 29944 net.cpp:148] Top shape: 10 1000 (10000)
2016-07-31 23:50:11.148 STDERR [INFO] I0731 23:50:11.148049 29944 net.cpp:156] Memory required for data: 68681400
2016-07-31 23:50:11.149 STDERR [INFO] I0731 23:50:11.148056 29944 net.cpp:219] prob does not need backward computation.
2016-07-31 23:50:11.149 STDERR [INFO] I0731 23:50:11.148061 29944 net.cpp:219] fc8 does not need backward computation.
2016-07-31 23:50:11.149 STDERR [INFO] I0731 23:50:11.148066 29944 net.cpp:219] drop7 does not need backward computation.
…
