…
I0731 23:50:10.093369 29934 upgrade_proto.cpp:66] Attempting to upgrade input file specified using deprecated input fields: /tmp/cvld885827050448803401/s2vt.words_to_preds.prototxt
I0731 23:50:10.093557 29934 upgrade_proto.cpp:69] Successfully upgraded file specified using deprecated input fields.
W0731 23:50:10.093569 29934 upgrade_proto.cpp:71] Note that future Caffe releases will only support input layers and not input fields.
I0731 23:50:10.093571 29944 net.cpp:49] Initializing net from parameters: 
name: "CaffeNet"
state {
  phase: TEST
}
layer {
  name: "data"
  type: "Input"
  top: "data"
  input_param {
    shape {
      dim: 10
      dim: 3
      dim: 227
      dim: 227
    }
  }
}
layer {
  name: "conv1"
  type: "Convolution"
  bottom: "data"
  top: "conv1"
  convolution_param {
    num_output: 96
    kernel_size: 11
    stride: 4
  }
}
layer {
  name: "relu1"
  type: "ReLU"
  bottom: "conv1"
  top: "conv1"
}
layer {
  name: "pool1"
  type: "Pooling"
  bottom: "conv1"
  top: "pool1"
  pooling_param {
    pool: MAX
    kernel_size: 3
    stride: 2
  }
}
layer {
  name: "norm1"
  type: "LRN"
  bottom: "pool1"
  top: "norm1"
  lrn_param {
    local_size: 5
    alpha: 0.0001
    beta: 0.75
  }
}
layer {
  name: "conv2"
  type: "Convolution"
  bottom: "norm1"
  top: "conv2"
  convolution_param {
    num_output: 256
    pad: 2
    kernel_size: 5
    group: 2
  }
}
layer {
  name: "relu2"
  type: "ReLU"
  bottom: "conv2"
  top: "conv2"
}
layer {
  name: "pool2"
  type: "Pooling"
  bottom: "conv2"
  top: "pool2"
  pooling_param {
    pool: MAX
    kernel_size: 3
    stride: 2
  }
}
layer {
  name: "norm2"
  type: "LRN"
  bottom: "pool2"
  top: "norm2"
  lrn_param {
    local_size: 5
    alpha: 0.0001
    beta: 0.75
  }
}
layer {
  name: "conv3"
  type: "Convolution"
  bottom: "norm2"
  top: "conv3"
  convolution_param {
    num_output: 384
    pad: 1
    kernel_size: 3
  }
}
layer {
  name: "relu3"
  type: "ReLU"
  bottom: "conv3"
  top: "conv3"
}
layer {
  name: "conv4"
  type: "Convolution"
  bottom: "conv3"
  top: "conv4"
  convolution_param {
    num_output: 384
    pad: 1
    kernel_size: 3
    group: 2
  }
}
layer {
  name: "relu4"
  type: "ReLU"
  bottom: "conv4"
  top: "conv4"
}
layer {
  name: "conv5"
  type: "Convolution"
  bottom: "conv4"
  top: "conv5"
  convolution_param {
    num_output: 256
    pad: 1
    kernel_size: 3
    group: 2
  }
}
layer {
  name: "relu5"
  type: "ReLU"
  bottom: "conv5"
  top: "conv5"
}
layer {
  name: "pool5"
  type: "Pooling"
  bottom: "conv5"
  top: "pool5"
  pooling_param {
    pool: MAX
    kernel_size: 3
    stride: 2
  }
}
layer {
  name: "fc6"
  type: "InnerProduct"
  bottom: "pool5"
  top: "fc6"
  inner_product_param {
    num_output: 4096
  }
}
layer {
  name: "relu6"
  type: "ReLU"
  bottom: "fc6"
  top: "fc6"
}
layer {
  name: "drop6"
  type: "Dropout"
  bottom: "fc6"
  top: "fc6"
  dropout_param {
    dropout_ratio: 0.5
  }
}
layer {
  name: "fc7"
  type: "InnerProduct"
  bottom: "fc6"
  top: "fc7"
  inner_product_param {
    num_output: 4096
  }
}
layer {
  name: "relu7"
  type: "ReLU"
  bottom: "fc7"
  top: "fc7"
}
layer {
  name: "drop7"
  type: "Dropout"
  bottom: "fc7"
  top: "fc7"
  dropout_param {
    dropout_ratio: 0.5
  }
}
layer {
  name: "fc8"
  type: "InnerProduct"
  bottom: "fc7"
  top: "fc8"
  inner_product_param {
    num_output: 1000
  }
}
layer {
  name: "prob"
  type: "Softmax"
  bottom: "fc8"
  top: "prob"
}
I0731 23:50:10.093721 29944 layer_factory.hpp:77] Creating layer data
I0731 23:50:10.093750 29944 net.cpp:91] Creating Layer data
I0731 23:50:10.093761 29944 net.cpp:399] data -> data
I0731 23:50:10.093840 29934 net.cpp:49] Initializing net from parameters: 
name: "s2vt:features_to_lstm"
state {
  phase: TEST
}
layer {
  name: "input"
  type: "Input"
  top: "frames_fc7"
  top: "cont_sentence"
  top: "input_sentence"
  top: "stage_indicator"
  input_param {
    shape {
      dim: 1
      dim: 4096
    }
    shape {
      dim: 1
      dim: 1
    }
    shape {
      dim: 1
      dim: 1
    }
    shape {
      dim: 1
      dim: 1
    }
  }
}
layer {
  name: "embed_encoder"
  type: "InnerProduct"
  bottom: "frames_fc7"
  top: "embedded_in_frames"
  param {
    lr_mult: 1
    decay_mult: 1
  }
  param {
    lr_mult: 2
    decay_mult: 0
  }
  inner_product_param {
    num_output: 500
    weight_filler {
      type: "xavier"
    }
    bias_filler {
      type: "constant"
      value: 0.2
    }
  }
}
layer {
  name: "reshape_frames"
  type: "Reshape"
  bottom: "embedded_in_frames"
  top: "embedded_input_frames"
  reshape_param {
    shape {
      dim: 1
      dim: 1
      dim: 500
    }
  }
}
layer {
  name: "reshape_stage_indicator"
  type: "Reshape"
  bottom: "stage_indicator"
  top: "reshaped_stage_indicator"
  reshape_param {
    shape {
      dim: 1
      dim: 1
      dim: 1
    }
  }
}
layer {
  name: "embedding"
  type: "Embed"
  bottom: "input_sentence"
  top: "embedded_input_sentence"
  param {
    lr_mult: 1
  }
  embed_param {
    num_output: 500
    input_dim: 46168
    bias_term: false
    weight_filler {
      type: "uniform"
      min: -0.08
      max: 0.08
    }
  }
}
layer {
  name: "lstm1"
  type: "LSTM"
  bottom: "embedded_input_frames"
  bottom: "cont_sentence"
  top: "lstm1"
  recurrent_param {
    num_output: 1000
    weight_filler {
      type: "uniform"
      min: -0.08
      max: 0.08
    }
    bias_filler {
      type: "constant"
      value: 0
    }
  }
}
layer {
  name: "concat"
  type: "Concat"
  bottom: "lstm1"
  bottom: "embedded_input_sentence"
  bottom: "reshaped_stage_indicator"
  top: "lstm1_video_sequence"
  concat_param {
    concat_dim: 2
  }
}
layer {
  name: "lstm2"
  type: "LSTM"
  bottom: "lstm1_video_sequence"
  bottom: "cont_sentence"
  top: "lstm2"
  recurrent_param {
    num_output: 1000
    weight_filler {
      type: "uniform"
      min: -0.08
      max: 0.08
    }
    bias_filler {
      type: "constant"
      value: 0
    }
  }
}
layer {
  name: "predict"
  type: "InnerProduct"
  bottom: "lstm2"
  top: "predict"
  param {
    lr_mult: 1
    decay_mult: 1
  }
  param {
    lr_mult: 2
    decay_mult: 0
  }
  inner_product_param {
    num_output: 46168
    weight_filler {
      type: "uniform"
      min: -0.08
      max: 0.08
    }
    bias_filler {
      type: "constant"
      value: 0
    }
    axis: 2
  }
}
layer {
  name: "probs"
  type: "Softmax"
  bottom: "predict"
  top: "probs"
  softmax_param {
    axis: 2
  }
}
I0731 23:50:10.093981 29934 layer_factory.hpp:77] Creating layer input
I0731 23:50:10.093999 29934 net.cpp:91] Creating Layer input
I0731 23:50:10.094007 29934 net.cpp:399] input -> frames_fc7
I0731 23:50:10.094025 29934 net.cpp:399] input -> cont_sentence
I0731 23:50:10.094038 29934 net.cpp:399] input -> input_sentence
I0731 23:50:10.094049 29934 net.cpp:399] input -> stage_indicator
I0731 23:50:10.639549 29944 net.cpp:141] Setting up data
I0731 23:50:10.639628 29934 net.cpp:141] Setting up input
I0731 23:50:10.639643 29944 net.cpp:148] Top shape: 10 3 227 227 (1545870)
I0731 23:50:10.639648 29934 net.cpp:148] Top shape: 1 4096 (4096)
I0731 23:50:10.639660 29934 net.cpp:148] Top shape: 1 1 (1)
I0731 23:50:10.639657 29944 net.cpp:156] Memory required for data: 6183480
I0731 23:50:10.639672 29934 net.cpp:148] Top shape: 1 1 (1)
I0731 23:50:10.639681 29934 net.cpp:148] Top shape: 1 1 (1)
I0731 23:50:10.639688 29934 net.cpp:156] Memory required for data: 16396
I0731 23:50:10.639688 29944 layer_factory.hpp:77] Creating layer conv1
I0731 23:50:10.639706 29934 layer_factory.hpp:77] Creating layer cont_sentence_input_1_split
I0731 23:50:10.639739 29934 net.cpp:91] Creating Layer cont_sentence_input_1_split
I0731 23:50:10.639742 29944 net.cpp:91] Creating Layer conv1
I0731 23:50:10.639755 29944 net.cpp:425] conv1 <- data
I0731 23:50:10.639755 29934 net.cpp:425] cont_sentence_input_1_split <- cont_sentence
I0731 23:50:10.639783 29944 net.cpp:399] conv1 -> conv1
I0731 23:50:10.639801 29934 net.cpp:399] cont_sentence_input_1_split -> cont_sentence_input_1_split_0
I0731 23:50:10.639819 29934 net.cpp:399] cont_sentence_input_1_split -> cont_sentence_input_1_split_1
I0731 23:50:10.639941 29934 net.cpp:141] Setting up cont_sentence_input_1_split
I0731 23:50:10.639964 29934 net.cpp:148] Top shape: 1 1 (1)
I0731 23:50:10.639977 29934 net.cpp:148] Top shape: 1 1 (1)
I0731 23:50:10.639986 29934 net.cpp:156] Memory required for data: 16404
I0731 23:50:10.639997 29934 layer_factory.hpp:77] Creating layer embed_encoder
I0731 23:50:10.640041 29934 net.cpp:91] Creating Layer embed_encoder
I0731 23:50:10.640055 29934 net.cpp:425] embed_encoder <- frames_fc7
I0731 23:50:10.640074 29934 net.cpp:399] embed_encoder -> embedded_in_frames
I0731 23:50:10.676522 29934 net.cpp:141] Setting up embed_encoder
I0731 23:50:10.676580 29934 net.cpp:148] Top shape: 1 500 (500)
I0731 23:50:10.676594 29934 net.cpp:156] Memory required for data: 18404
I0731 23:50:10.676636 29934 layer_factory.hpp:77] Creating layer reshape_frames
I0731 23:50:10.676671 29934 net.cpp:91] Creating Layer reshape_frames
I0731 23:50:10.676682 29934 net.cpp:425] reshape_frames <- embedded_in_frames
I0731 23:50:10.676698 29934 net.cpp:399] reshape_frames -> embedded_input_frames
I0731 23:50:10.678241 29934 net.cpp:141] Setting up reshape_frames
I0731 23:50:10.678264 29934 net.cpp:148] Top shape: 1 1 500 (500)
I0731 23:50:10.678273 29934 net.cpp:156] Memory required for data: 20404
I0731 23:50:10.678283 29934 layer_factory.hpp:77] Creating layer reshape_stage_indicator
I0731 23:50:10.678306 29934 net.cpp:91] Creating Layer reshape_stage_indicator
I0731 23:50:10.678318 29934 net.cpp:425] reshape_stage_indicator <- stage_indicator
I0731 23:50:10.678333 29934 net.cpp:399] reshape_stage_indicator -> reshaped_stage_indicator
I0731 23:50:10.678627 29934 net.cpp:141] Setting up reshape_stage_indicator
I0731 23:50:10.678647 29934 net.cpp:148] Top shape: 1 1 1 (1)
I0731 23:50:10.678656 29934 net.cpp:156] Memory required for data: 20408
I0731 23:50:10.678665 29934 layer_factory.hpp:77] Creating layer embedding
I0731 23:50:10.678684 29934 net.cpp:91] Creating Layer embedding
I0731 23:50:10.678694 29934 net.cpp:425] embedding <- input_sentence
I0731 23:50:10.678722 29934 net.cpp:399] embedding -> embedded_input_sentence
I0731 23:50:10.935698 29934 net.cpp:141] Setting up embedding
I0731 23:50:10.935750 29934 net.cpp:148] Top shape: 1 1 500 (500)
I0731 23:50:10.935757 29934 net.cpp:156] Memory required for data: 22408
I0731 23:50:10.935775 29934 layer_factory.hpp:77] Creating layer lstm1
I0731 23:50:10.935797 29934 net.cpp:91] Creating Layer lstm1
I0731 23:50:10.935806 29934 net.cpp:425] lstm1 <- embedded_input_frames
I0731 23:50:10.935814 29934 net.cpp:425] lstm1 <- cont_sentence_input_1_split_0
I0731 23:50:10.935823 29934 net.cpp:399] lstm1 -> lstm1
I0731 23:50:10.935858 29934 recurrent_layer.cpp:20] Initializing recurrent layer: assuming input batch contains 1 timesteps of 1 independent streams.
I0731 23:50:10.936236 29934 net.cpp:49] Initializing net from parameters: 
layer {
  name: "lstm1_"
  type: "Input"
  top: "x"
  top: "cont"
  input_param {
    shape {
      dim: 1
      dim: 1
      dim: 500
    }
    shape {
      dim: 1
      dim: 1
    }
  }
}
layer {
  name: "lstm1_"
  type: "Input"
  top: "c_0"
  top: "h_0"
  input_param {
    shape {
      dim: 1
      dim: 1
      dim: 1000
    }
    shape {
      dim: 1
      dim: 1
      dim: 1000
    }
  }
}
layer {
  name: "lstm1_cont_slice"
  type: "Slice"
  bottom: "cont"
  top: "cont_1"
  slice_param {
    axis: 0
  }
}
layer {
  name: "lstm1_x_transform"
  type: "InnerProduct"
  bottom: "x"
  top: "W_xc_x"
  param {
    name: "W_xc"
  }
  param {
    name: "b_c"
  }
  propagate_down: true
  inner_product_param {
    num_output: 4000
    bias_term: true
    weight_filler {
      type: "uniform"
      min: -0.08
      max: 0.08
    }
    bias_filler {
      type: "constant"
      value: 0
    }
    axis: 2
  }
}
layer {
  name: "lstm1_W_xc_x_slice"
  type: "Slice"
  bottom: "W_xc_x"
  top: "W_xc_x_1"
  slice_param {
    axis: 0
  }
}
layer {
  name: "lstm1_h_conted_0"
  type: "Scale"
  bottom: "h_0"
  bottom: "cont_1"
  top: "h_conted_0"
  scale_param {
    axis: 0
  }
}
layer {
  name: "lstm1_transform_1"
  type: "InnerProduct"
  bottom: "h_conted_0"
  top: "W_hc_h_0"
  param {
    name: "W_hc"
  }
  inner_product_param {
    num_output: 4000
    bias_term: false
    weight_filler {
      type: "uniform"
      min: -0.08
      max: 0.08
    }
    axis: 2
  }
}
layer {
  name: "lstm1_gate_input_1"
  type: "Eltwise"
  bottom: "W_hc_h_0"
  bottom: "W_xc_x_1"
  top: "gate_input_1"
  eltwise_param {
    operation: SUM
  }
}
layer {
  name: "lstm1_unit_1"
  type: "LSTMUnit"
  bottom: "c_0"
  bottom: "gate_input_1"
  bottom: "cont_1"
  top: "c_1"
  top: "h_1"
}
layer {
  name: "lstm1_"
  type: "Split"
  bottom: "c_1"
  top: "c_T"
}
layer {
  name: "lstm1_h_concat"
  type: "Concat"
  bottom: "h_1"
  top: "h"
  concat_param {
    axis: 0
  }
}
layer {
  name: "h_pseudoloss"
  type: "Reduction"
  bottom: "h"
  top: "h_pseudoloss"
  loss_weight: 1
}
I0731 23:50:10.936336 29934 layer_factory.hpp:77] Creating layer lstm1_
I0731 23:50:10.936350 29934 net.cpp:91] Creating Layer lstm1_
I0731 23:50:10.936357 29934 net.cpp:399] lstm1_ -> x
I0731 23:50:10.936369 29934 net.cpp:399] lstm1_ -> cont
I0731 23:50:10.936518 29934 net.cpp:141] Setting up lstm1_
I0731 23:50:10.936532 29934 net.cpp:148] Top shape: 1 1 500 (500)
I0731 23:50:10.936538 29934 net.cpp:148] Top shape: 1 1 (1)
I0731 23:50:10.936542 29934 net.cpp:156] Memory required for data: 2004
I0731 23:50:10.936548 29934 layer_factory.hpp:77] Creating layer lstm1_
I0731 23:50:10.936561 29934 net.cpp:91] Creating Layer lstm1_
I0731 23:50:10.936569 29934 net.cpp:399] lstm1_ -> c_0
I0731 23:50:10.936583 29934 net.cpp:399] lstm1_ -> h_0
I0731 23:50:10.936642 29934 net.cpp:141] Setting up lstm1_
I0731 23:50:10.936653 29934 net.cpp:148] Top shape: 1 1 1000 (1000)
I0731 23:50:10.936660 29934 net.cpp:148] Top shape: 1 1 1000 (1000)
I0731 23:50:10.936663 29934 net.cpp:156] Memory required for data: 10004
I0731 23:50:10.936668 29934 layer_factory.hpp:77] Creating layer lstm1_cont_slice
I0731 23:50:10.936681 29934 net.cpp:91] Creating Layer lstm1_cont_slice
I0731 23:50:10.936686 29934 net.cpp:425] lstm1_cont_slice <- cont
I0731 23:50:10.936694 29934 net.cpp:399] lstm1_cont_slice -> cont_1
I0731 23:50:10.936738 29934 net.cpp:141] Setting up lstm1_cont_slice
I0731 23:50:10.936748 29934 net.cpp:148] Top shape: 1 1 (1)
I0731 23:50:10.936753 29934 net.cpp:156] Memory required for data: 10008
I0731 23:50:10.936758 29934 layer_factory.hpp:77] Creating layer cont_1_lstm1_cont_slice_0_split
I0731 23:50:10.936765 29934 net.cpp:91] Creating Layer cont_1_lstm1_cont_slice_0_split
I0731 23:50:10.936770 29934 net.cpp:425] cont_1_lstm1_cont_slice_0_split <- cont_1
I0731 23:50:10.936779 29934 net.cpp:399] cont_1_lstm1_cont_slice_0_split -> cont_1_lstm1_cont_slice_0_split_0
I0731 23:50:10.936789 29934 net.cpp:399] cont_1_lstm1_cont_slice_0_split -> cont_1_lstm1_cont_slice_0_split_1
I0731 23:50:10.936934 29934 net.cpp:141] Setting up cont_1_lstm1_cont_slice_0_split
I0731 23:50:10.936945 29934 net.cpp:148] Top shape: 1 1 (1)
I0731 23:50:10.936951 29934 net.cpp:148] Top shape: 1 1 (1)
I0731 23:50:10.936955 29934 net.cpp:156] Memory required for data: 10016
I0731 23:50:10.936961 29934 layer_factory.hpp:77] Creating layer lstm1_x_transform
I0731 23:50:10.936975 29934 net.cpp:91] Creating Layer lstm1_x_transform
I0731 23:50:10.936980 29934 net.cpp:425] lstm1_x_transform <- x
I0731 23:50:10.936988 29934 net.cpp:399] lstm1_x_transform -> W_xc_x
I0731 23:50:10.942556 29944 net.cpp:141] Setting up conv1
I0731 23:50:10.942591 29944 net.cpp:148] Top shape: 10 96 55 55 (2904000)
I0731 23:50:10.942598 29944 net.cpp:156] Memory required for data: 17799480
I0731 23:50:10.942618 29944 layer_factory.hpp:77] Creating layer relu1
I0731 23:50:10.942632 29944 net.cpp:91] Creating Layer relu1
I0731 23:50:10.942638 29944 net.cpp:425] relu1 <- conv1
I0731 23:50:10.942647 29944 net.cpp:386] relu1 -> conv1 (in-place)
I0731 23:50:10.943181 29944 net.cpp:141] Setting up relu1
I0731 23:50:10.943195 29944 net.cpp:148] Top shape: 10 96 55 55 (2904000)
I0731 23:50:10.943200 29944 net.cpp:156] Memory required for data: 29415480
I0731 23:50:10.943207 29944 layer_factory.hpp:77] Creating layer pool1
I0731 23:50:10.943219 29944 net.cpp:91] Creating Layer pool1
I0731 23:50:10.943225 29944 net.cpp:425] pool1 <- conv1
I0731 23:50:10.943236 29944 net.cpp:399] pool1 -> pool1
I0731 23:50:10.943313 29944 net.cpp:141] Setting up pool1
I0731 23:50:10.943325 29944 net.cpp:148] Top shape: 10 96 27 27 (699840)
I0731 23:50:10.943330 29944 net.cpp:156] Memory required for data: 32214840
I0731 23:50:10.943334 29944 layer_factory.hpp:77] Creating layer norm1
I0731 23:50:10.943356 29944 net.cpp:91] Creating Layer norm1
I0731 23:50:10.943362 29944 net.cpp:425] norm1 <- pool1
I0731 23:50:10.943369 29944 net.cpp:399] norm1 -> norm1
I0731 23:50:10.943912 29944 net.cpp:141] Setting up norm1
I0731 23:50:10.943927 29944 net.cpp:148] Top shape: 10 96 27 27 (699840)
I0731 23:50:10.943931 29944 net.cpp:156] Memory required for data: 35014200
I0731 23:50:10.943938 29944 layer_factory.hpp:77] Creating layer conv2
I0731 23:50:10.943955 29944 net.cpp:91] Creating Layer conv2
I0731 23:50:10.943961 29944 net.cpp:425] conv2 <- norm1
I0731 23:50:10.943974 29944 net.cpp:399] conv2 -> conv2
I0731 23:50:10.947648 29944 net.cpp:141] Setting up conv2
I0731 23:50:10.947665 29944 net.cpp:148] Top shape: 10 256 27 27 (1866240)
I0731 23:50:10.947670 29944 net.cpp:156] Memory required for data: 42479160
I0731 23:50:10.947685 29944 layer_factory.hpp:77] Creating layer relu2
I0731 23:50:10.947695 29944 net.cpp:91] Creating Layer relu2
I0731 23:50:10.947700 29944 net.cpp:425] relu2 <- conv2
I0731 23:50:10.947711 29944 net.cpp:386] relu2 -> conv2 (in-place)
I0731 23:50:10.948225 29944 net.cpp:141] Setting up relu2
I0731 23:50:10.948240 29944 net.cpp:148] Top shape: 10 256 27 27 (1866240)
I0731 23:50:10.948246 29944 net.cpp:156] Memory required for data: 49944120
I0731 23:50:10.948251 29944 layer_factory.hpp:77] Creating layer pool2
I0731 23:50:10.948266 29944 net.cpp:91] Creating Layer pool2
I0731 23:50:10.948271 29944 net.cpp:425] pool2 <- conv2
I0731 23:50:10.948278 29944 net.cpp:399] pool2 -> pool2
I0731 23:50:10.948341 29944 net.cpp:141] Setting up pool2
I0731 23:50:10.948353 29944 net.cpp:148] Top shape: 10 256 13 13 (432640)
I0731 23:50:10.948356 29944 net.cpp:156] Memory required for data: 51674680
I0731 23:50:10.948361 29944 layer_factory.hpp:77] Creating layer norm2
I0731 23:50:10.948375 29944 net.cpp:91] Creating Layer norm2
I0731 23:50:10.948380 29944 net.cpp:425] norm2 <- pool2
I0731 23:50:10.948387 29944 net.cpp:399] norm2 -> norm2
I0731 23:50:10.948674 29944 net.cpp:141] Setting up norm2
I0731 23:50:10.948686 29944 net.cpp:148] Top shape: 10 256 13 13 (432640)
I0731 23:50:10.948691 29944 net.cpp:156] Memory required for data: 53405240
I0731 23:50:10.948698 29944 layer_factory.hpp:77] Creating layer conv3
I0731 23:50:10.948711 29944 net.cpp:91] Creating Layer conv3
I0731 23:50:10.948716 29944 net.cpp:425] conv3 <- norm2
I0731 23:50:10.948724 29944 net.cpp:399] conv3 -> conv3
I0731 23:50:10.952842 29944 net.cpp:141] Setting up conv3
I0731 23:50:10.952863 29944 net.cpp:148] Top shape: 10 384 13 13 (648960)
I0731 23:50:10.952868 29944 net.cpp:156] Memory required for data: 56001080
I0731 23:50:10.952883 29944 layer_factory.hpp:77] Creating layer relu3
I0731 23:50:10.952893 29944 net.cpp:91] Creating Layer relu3
I0731 23:50:10.952899 29944 net.cpp:425] relu3 <- conv3
I0731 23:50:10.952911 29944 net.cpp:386] relu3 -> conv3 (in-place)
I0731 23:50:10.953393 29944 net.cpp:141] Setting up relu3
I0731 23:50:10.953408 29944 net.cpp:148] Top shape: 10 384 13 13 (648960)
I0731 23:50:10.953413 29944 net.cpp:156] Memory required for data: 58596920
I0731 23:50:10.953418 29944 layer_factory.hpp:77] Creating layer conv4
I0731 23:50:10.953435 29944 net.cpp:91] Creating Layer conv4
I0731 23:50:10.953441 29944 net.cpp:425] conv4 <- conv3
I0731 23:50:10.953451 29944 net.cpp:399] conv4 -> conv4
I0731 23:50:10.957959 29944 net.cpp:141] Setting up conv4
I0731 23:50:10.957981 29944 net.cpp:148] Top shape: 10 384 13 13 (648960)
I0731 23:50:10.957988 29944 net.cpp:156] Memory required for data: 61192760
I0731 23:50:10.957998 29944 layer_factory.hpp:77] Creating layer relu4
I0731 23:50:10.958012 29944 net.cpp:91] Creating Layer relu4
I0731 23:50:10.958019 29944 net.cpp:425] relu4 <- conv4
I0731 23:50:10.958026 29944 net.cpp:386] relu4 -> conv4 (in-place)
I0731 23:50:10.958631 29934 net.cpp:141] Setting up lstm1_x_transform
I0731 23:50:10.958648 29934 net.cpp:148] Top shape: 1 1 4000 (4000)
I0731 23:50:10.958653 29934 net.cpp:156] Memory required for data: 26016
I0731 23:50:10.958667 29934 layer_factory.hpp:77] Creating layer lstm1_W_xc_x_slice
I0731 23:50:10.958679 29934 net.cpp:91] Creating Layer lstm1_W_xc_x_slice
I0731 23:50:10.958685 29934 net.cpp:425] lstm1_W_xc_x_slice <- W_xc_x
I0731 23:50:10.958689 29944 net.cpp:141] Setting up relu4
I0731 23:50:10.958694 29934 net.cpp:399] lstm1_W_xc_x_slice -> W_xc_x_1
I0731 23:50:10.958711 29944 net.cpp:148] Top shape: 10 384 13 13 (648960)
I0731 23:50:10.958716 29944 net.cpp:156] Memory required for data: 63788600
I0731 23:50:10.958722 29944 layer_factory.hpp:77] Creating layer conv5
I0731 23:50:10.958735 29944 net.cpp:91] Creating Layer conv5
I0731 23:50:10.958741 29944 net.cpp:425] conv5 <- conv4
I0731 23:50:10.958750 29934 net.cpp:141] Setting up lstm1_W_xc_x_slice
I0731 23:50:10.958753 29944 net.cpp:399] conv5 -> conv5
I0731 23:50:10.958761 29934 net.cpp:148] Top shape: 1 1 4000 (4000)
I0731 23:50:10.958766 29934 net.cpp:156] Memory required for data: 42016
I0731 23:50:10.958771 29934 layer_factory.hpp:77] Creating layer lstm1_h_conted_0
I0731 23:50:10.958781 29934 net.cpp:91] Creating Layer lstm1_h_conted_0
I0731 23:50:10.958787 29934 net.cpp:425] lstm1_h_conted_0 <- h_0
I0731 23:50:10.958793 29934 net.cpp:425] lstm1_h_conted_0 <- cont_1_lstm1_cont_slice_0_split_0
I0731 23:50:10.958801 29934 net.cpp:399] lstm1_h_conted_0 -> h_conted_0
I0731 23:50:10.960271 29934 net.cpp:141] Setting up lstm1_h_conted_0
I0731 23:50:10.960283 29934 net.cpp:148] Top shape: 1 1 1000 (1000)
I0731 23:50:10.960289 29934 net.cpp:156] Memory required for data: 46016
I0731 23:50:10.960294 29934 layer_factory.hpp:77] Creating layer lstm1_transform_1
I0731 23:50:10.960306 29934 net.cpp:91] Creating Layer lstm1_transform_1
I0731 23:50:10.960311 29934 net.cpp:425] lstm1_transform_1 <- h_conted_0
I0731 23:50:10.960320 29934 net.cpp:399] lstm1_transform_1 -> W_hc_h_0
I0731 23:50:10.971349 29944 net.cpp:141] Setting up conv5
I0731 23:50:10.971402 29944 net.cpp:148] Top shape: 10 256 13 13 (432640)
I0731 23:50:10.971410 29944 net.cpp:156] Memory required for data: 65519160
I0731 23:50:10.971434 29944 layer_factory.hpp:77] Creating layer relu5
I0731 23:50:10.971451 29944 net.cpp:91] Creating Layer relu5
I0731 23:50:10.971457 29944 net.cpp:425] relu5 <- conv5
I0731 23:50:10.971467 29944 net.cpp:386] relu5 -> conv5 (in-place)
I0731 23:50:10.971977 29944 net.cpp:141] Setting up relu5
I0731 23:50:10.971993 29944 net.cpp:148] Top shape: 10 256 13 13 (432640)
I0731 23:50:10.971999 29944 net.cpp:156] Memory required for data: 67249720
I0731 23:50:10.972004 29944 layer_factory.hpp:77] Creating layer pool5
I0731 23:50:10.972035 29944 net.cpp:91] Creating Layer pool5
I0731 23:50:10.972040 29944 net.cpp:425] pool5 <- conv5
I0731 23:50:10.972049 29944 net.cpp:399] pool5 -> pool5
I0731 23:50:10.972122 29944 net.cpp:141] Setting up pool5
I0731 23:50:10.972133 29944 net.cpp:148] Top shape: 10 256 6 6 (92160)
I0731 23:50:10.972137 29944 net.cpp:156] Memory required for data: 67618360
I0731 23:50:10.972142 29944 layer_factory.hpp:77] Creating layer fc6
I0731 23:50:10.972160 29944 net.cpp:91] Creating Layer fc6
I0731 23:50:10.972165 29944 net.cpp:425] fc6 <- pool5
I0731 23:50:10.972173 29944 net.cpp:399] fc6 -> fc6
I0731 23:50:11.041820 29934 net.cpp:141] Setting up lstm1_transform_1
I0731 23:50:11.041872 29934 net.cpp:148] Top shape: 1 1 4000 (4000)
I0731 23:50:11.041878 29934 net.cpp:156] Memory required for data: 62016
I0731 23:50:11.041901 29934 layer_factory.hpp:77] Creating layer lstm1_gate_input_1
I0731 23:50:11.041923 29934 net.cpp:91] Creating Layer lstm1_gate_input_1
I0731 23:50:11.041930 29934 net.cpp:425] lstm1_gate_input_1 <- W_hc_h_0
I0731 23:50:11.041939 29934 net.cpp:425] lstm1_gate_input_1 <- W_xc_x_1
I0731 23:50:11.041947 29934 net.cpp:399] lstm1_gate_input_1 -> gate_input_1
I0731 23:50:11.042016 29934 net.cpp:141] Setting up lstm1_gate_input_1
I0731 23:50:11.042026 29934 net.cpp:148] Top shape: 1 1 4000 (4000)
I0731 23:50:11.042032 29934 net.cpp:156] Memory required for data: 78016
I0731 23:50:11.042037 29934 layer_factory.hpp:77] Creating layer lstm1_unit_1
I0731 23:50:11.042047 29934 net.cpp:91] Creating Layer lstm1_unit_1
I0731 23:50:11.042052 29934 net.cpp:425] lstm1_unit_1 <- c_0
I0731 23:50:11.042057 29934 net.cpp:425] lstm1_unit_1 <- gate_input_1
I0731 23:50:11.042063 29934 net.cpp:425] lstm1_unit_1 <- cont_1_lstm1_cont_slice_0_split_1
I0731 23:50:11.042073 29934 net.cpp:399] lstm1_unit_1 -> c_1
I0731 23:50:11.042083 29934 net.cpp:399] lstm1_unit_1 -> h_1
I0731 23:50:11.042150 29934 net.cpp:141] Setting up lstm1_unit_1
I0731 23:50:11.042160 29934 net.cpp:148] Top shape: 1 1 1000 (1000)
I0731 23:50:11.042165 29934 net.cpp:148] Top shape: 1 1 1000 (1000)
I0731 23:50:11.042171 29934 net.cpp:156] Memory required for data: 86016
I0731 23:50:11.042176 29934 layer_factory.hpp:77] Creating layer lstm1_
I0731 23:50:11.042186 29934 net.cpp:91] Creating Layer lstm1_
I0731 23:50:11.042191 29934 net.cpp:425] lstm1_ <- c_1
I0731 23:50:11.042198 29934 net.cpp:399] lstm1_ -> c_T
I0731 23:50:11.042229 29934 net.cpp:141] Setting up lstm1_
I0731 23:50:11.042238 29934 net.cpp:148] Top shape: 1 1 1000 (1000)
I0731 23:50:11.042243 29934 net.cpp:156] Memory required for data: 90016
I0731 23:50:11.042248 29934 layer_factory.hpp:77] Creating layer lstm1_h_concat
I0731 23:50:11.042258 29934 net.cpp:91] Creating Layer lstm1_h_concat
I0731 23:50:11.042261 29934 net.cpp:425] lstm1_h_concat <- h_1
I0731 23:50:11.042274 29934 net.cpp:399] lstm1_h_concat -> h
I0731 23:50:11.042318 29934 net.cpp:141] Setting up lstm1_h_concat
I0731 23:50:11.042327 29934 net.cpp:148] Top shape: 1 1 1000 (1000)
I0731 23:50:11.042332 29934 net.cpp:156] Memory required for data: 94016
I0731 23:50:11.042337 29934 layer_factory.hpp:77] Creating layer h_pseudoloss
I0731 23:50:11.042351 29934 net.cpp:91] Creating Layer h_pseudoloss
I0731 23:50:11.042356 29934 net.cpp:425] h_pseudoloss <- h
I0731 23:50:11.042363 29934 net.cpp:399] h_pseudoloss -> h_pseudoloss
I0731 23:50:11.042462 29934 net.cpp:141] Setting up h_pseudoloss
…
I0731 23:50:11.042592 29934 net.cpp:219] lstm1_ does not need backward computation.
I0731 23:50:11.042595 29934 net.cpp:261] This network produces output c_T
I0731 23:50:11.042600 29934 net.cpp:261] This network produces output h_pseudoloss
I0731 23:50:11.042618 29934 net.cpp:274] Network initialization done.
I0731 23:50:11.042681 29934 recurrent_layer.cpp:150] Adding parameter 0: W_xc
I0731 23:50:11.042688 29934 recurrent_layer.cpp:150] Adding parameter 1: b_c
I0731 23:50:11.042693 29934 recurrent_layer.cpp:150] Adding parameter 2: W_hc
I0731 23:50:11.042817 29934 net.cpp:141] Setting up lstm1
I0731 23:50:11.042830 29934 net.cpp:148] Top shape: 1 1 1000 (1000)
I0731 23:50:11.042835 29934 net.cpp:156] Memory required for data: 26408
I0731 23:50:11.042850 29934 layer_factory.hpp:77] Creating layer concat
I0731 23:50:11.042858 29934 net.cpp:91] Creating Layer concat
I0731 23:50:11.042865 29934 net.cpp:425] concat <- lstm1
I0731 23:50:11.042872 29934 net.cpp:425] concat <- embedded_input_sentence
I0731 23:50:11.042878 29934 net.cpp:425] concat <- reshaped_stage_indicator
I0731 23:50:11.042886 29934 net.cpp:399] concat -> lstm1_video_sequence
I0731 23:50:11.042922 29934 net.cpp:141] Setting up concat
I0731 23:50:11.042930 29934 net.cpp:148] Top shape: 1 1 1501 (1501)
I0731 23:50:11.042935 29934 net.cpp:156] Memory required for data: 32412
I0731 23:50:11.042942 29934 layer_factory.hpp:77] Creating layer lstm2
I0731 23:50:11.042954 29934 net.cpp:91] Creating Layer lstm2
I0731 23:50:11.042959 29934 net.cpp:425] lstm2 <- lstm1_video_sequence
I0731 23:50:11.042966 29934 net.cpp:425] lstm2 <- cont_sentence_input_1_split_1
I0731 23:50:11.042973 29934 net.cpp:399] lstm2 -> lstm2
I0731 23:50:11.042984 29934 recurrent_layer.cpp:20] Initializing recurrent layer: assuming input batch contains 1 timesteps of 1 independent streams.
I0731 23:50:11.043251 29934 net.cpp:49] Initializing net from parameters: 
layer {
  name: "lstm2_"
  type: "Input"
  top: "x"
  top: "cont"
  input_param {
    shape {
      dim: 1
      dim: 1
      dim: 1501
    }
    shape {
      dim: 1
      dim: 1
    }
  }
}
layer {
  name: "lstm2_"
  type: "Input"
  top: "c_0"
  top: "h_0"
  input_param {
    shape {
      dim: 1
      dim: 1
      dim: 1000
    }
    shape {
      dim: 1
      dim: 1
      dim: 1000
    }
  }
}
layer {
  name: "lstm2_cont_slice"
  type: "Slice"
  bottom: "cont"
  top: "cont_1"
  slice_param {
    axis: 0
  }
}
layer {
  name: "lstm2_x_transform"
  type: "InnerProduct"
  bottom: "x"
  top: "W_xc_x"
  param {
    name: "W_xc"
  }
  param {
    name: "b_c"
  }
  propagate_down: true
  inner_product_param {
    num_output: 4000
    bias_term: true
    weight_filler {
      type: "uniform"
      min: -0.08
      max: 0.08
    }
    bias_filler {
      type: "constant"
      value: 0
    }
    axis: 2
  }
}
layer {
  name: "lstm2_W_xc_x_slice"
  type: "Slice"
  bottom: "W_xc_x"
  top: "W_xc_x_1"
  slice_param {
    axis: 0
  }
}
layer {
  name: "lstm2_h_conted_0"
  type: "Scale"
  bottom: "h_0"
  bottom: "cont_1"
  top: "h_conted_0"
  scale_param {
    axis: 0
  }
}
layer {
  name: "lstm2_transform_1"
  type: "InnerProduct"
  bottom: "h_conted_0"
  top: "W_hc_h_0"
  param {
    name: "W_hc"
  }
  inner_product_param {
    num_output: 4000
    bias_term: false
    weight_filler {
      type: "uniform"
      min: -0.08
      max: 0.08
    }
    axis: 2
  }
}
layer {
  name: "lstm2_gate_input_1"
  type: "Eltwise"
  bottom: "W_hc_h_0"
  bottom: "W_xc_x_1"
  top: "gate_input_1"
  eltwise_param {
    operation: SUM
  }
}
layer {
  name: "lstm2_unit_1"
  type: "LSTMUnit"
  bottom: "c_0"
  bottom: "gate_input_1"
  bottom: "cont_1"
  top: "c_1"
  top: "h_1"
}
layer {
  name: "lstm2_"
  type: "Split"
  bottom: "c_1"
  top: "c_T"
}
layer {
  name: "lstm2_h_concat"
  type: "Concat"
  bottom: "h_1"
  top: "h"
  concat_param {
    axis: 0
  }
}
layer {
  name: "h_pseudoloss"
  type: "Reduction"
  bottom: "h"
  top: "h_pseudoloss"
  loss_weight: 1
}
I0731 23:50:11.043342 29934 layer_factory.hpp:77] Creating layer lstm2_
I0731 23:50:11.043355 29934 net.cpp:91] Creating Layer lstm2_
I0731 23:50:11.043362 29934 net.cpp:399] lstm2_ -> x
I0731 23:50:11.043375 29934 net.cpp:399] lstm2_ -> cont
I0731 23:50:11.043437 29934 net.cpp:141] Setting up lstm2_
I0731 23:50:11.043447 29934 net.cpp:148] Top shape: 1 1 1501 (1501)
I0731 23:50:11.043454 29934 net.cpp:148] Top shape: 1 1 (1)
I0731 23:50:11.043458 29934 net.cpp:156] Memory required for data: 6008
I0731 23:50:11.043463 29934 layer_factory.hpp:77] Creating layer lstm2_
I0731 23:50:11.043473 29934 net.cpp:91] Creating Layer lstm2_
I0731 23:50:11.043484 29934 net.cpp:399] lstm2_ -> c_0
I0731 23:50:11.043495 29934 net.cpp:399] lstm2_ -> h_0
I0731 23:50:11.043548 29934 net.cpp:141] Setting up lstm2_
I0731 23:50:11.043558 29934 net.cpp:148] Top shape: 1 1 1000 (1000)
I0731 23:50:11.043565 29934 net.cpp:148] Top shape: 1 1 1000 (1000)
I0731 23:50:11.043568 29934 net.cpp:156] Memory required for data: 14008
I0731 23:50:11.043573 29934 layer_factory.hpp:77] Creating layer lstm2_cont_slice
I0731 23:50:11.043582 29934 net.cpp:91] Creating Layer lstm2_cont_slice
I0731 23:50:11.043587 29934 net.cpp:425] lstm2_cont_slice <- cont
I0731 23:50:11.043596 29934 net.cpp:399] lstm2_cont_slice -> cont_1
I0731 23:50:11.043632 29934 net.cpp:141] Setting up lstm2_cont_slice
I0731 23:50:11.043643 29934 net.cpp:148] Top shape: 1 1 (1)
I0731 23:50:11.043649 29934 net.cpp:156] Memory required for data: 14012
I0731 23:50:11.043654 29934 layer_factory.hpp:77] Creating layer cont_1_lstm2_cont_slice_0_split
I0731 23:50:11.043661 29934 net.cpp:91] Creating Layer cont_1_lstm2_cont_slice_0_split
I0731 23:50:11.043666 29934 net.cpp:425] cont_1_lstm2_cont_slice_0_split <- cont_1
I0731 23:50:11.043674 29934 net.cpp:399] cont_1_lstm2_cont_slice_0_split -> cont_1_lstm2_cont_slice_0_split_0
I0731 23:50:11.043683 29934 net.cpp:399] cont_1_lstm2_cont_slice_0_split -> cont_1_lstm2_cont_slice_0_split_1
I0731 23:50:11.043733 29934 net.cpp:141] Setting up cont_1_lstm2_cont_slice_0_split
I0731 23:50:11.043742 29934 net.cpp:148] Top shape: 1 1 (1)
I0731 23:50:11.043748 29934 net.cpp:148] Top shape: 1 1 (1)
I0731 23:50:11.043753 29934 net.cpp:156] Memory required for data: 14020
I0731 23:50:11.043758 29934 layer_factory.hpp:77] Creating layer lstm2_x_transform
I0731 23:50:11.043771 29934 net.cpp:91] Creating Layer lstm2_x_transform
I0731 23:50:11.043776 29934 net.cpp:425] lstm2_x_transform <- x
I0731 23:50:11.043784 29934 net.cpp:399] lstm2_x_transform -> W_xc_x
I0731 23:50:11.083539 29944 net.cpp:141] Setting up fc6
I0731 23:50:11.083590 29944 net.cpp:148] Top shape: 10 4096 (40960)
I0731 23:50:11.083597 29944 net.cpp:156] Memory required for data: 67782200
I0731 23:50:11.083612 29944 layer_factory.hpp:77] Creating layer relu6
I0731 23:50:11.083629 29944 net.cpp:91] Creating Layer relu6
I0731 23:50:11.083636 29944 net.cpp:425] relu6 <- fc6
I0731 23:50:11.083650 29944 net.cpp:386] relu6 -> fc6 (in-place)
I0731 23:50:11.084022 29944 net.cpp:141] Setting up relu6
I0731 23:50:11.084038 29944 net.cpp:148] Top shape: 10 4096 (40960)
I0731 23:50:11.084043 29944 net.cpp:156] Memory required for data: 67946040
I0731 23:50:11.084049 29944 layer_factory.hpp:77] Creating layer drop6
I0731 23:50:11.084069 29944 net.cpp:91] Creating Layer drop6
I0731 23:50:11.084075 29944 net.cpp:425] drop6 <- fc6
I0731 23:50:11.084082 29944 net.cpp:386] drop6 -> fc6 (in-place)
I0731 23:50:11.084139 29944 net.cpp:141] Setting up drop6
I0731 23:50:11.084148 29944 net.cpp:148] Top shape: 10 4096 (40960)
I0731 23:50:11.084153 29944 net.cpp:156] Memory required for data: 68109880
I0731 23:50:11.084158 29944 layer_factory.hpp:77] Creating layer fc7
I0731 23:50:11.084169 29944 net.cpp:91] Creating Layer fc7
I0731 23:50:11.084173 29944 net.cpp:425] fc7 <- fc6
I0731 23:50:11.084183 29944 net.cpp:399] fc7 -> fc7
I0731 23:50:11.115854 29934 net.cpp:141] Setting up lstm2_x_transform
I0731 23:50:11.115921 29934 net.cpp:148] Top shape: 1 1 4000 (4000)
I0731 23:50:11.115927 29934 net.cpp:156] Memory required for data: 30020
I0731 23:50:11.115957 29934 layer_factory.hpp:77] Creating layer lstm2_W_xc_x_slice
I0731 23:50:11.115978 29934 net.cpp:91] Creating Layer lstm2_W_xc_x_slice
I0731 23:50:11.115986 29934 net.cpp:425] lstm2_W_xc_x_slice <- W_xc_x
I0731 23:50:11.115998 29934 net.cpp:399] lstm2_W_xc_x_slice -> W_xc_x_1
I0731 23:50:11.116065 29934 net.cpp:141] Setting up lstm2_W_xc_x_slice
I0731 23:50:11.116078 29934 net.cpp:148] Top shape: 1 1 4000 (4000)
I0731 23:50:11.116082 29934 net.cpp:156] Memory required for data: 46020
I0731 23:50:11.116087 29934 layer_factory.hpp:77] Creating layer lstm2_h_conted_0
I0731 23:50:11.116101 29934 net.cpp:91] Creating Layer lstm2_h_conted_0
I0731 23:50:11.116106 29934 net.cpp:425] lstm2_h_conted_0 <- h_0
I0731 23:50:11.116113 29934 net.cpp:425] lstm2_h_conted_0 <- cont_1_lstm2_cont_slice_0_split_0
I0731 23:50:11.116122 29934 net.cpp:399] lstm2_h_conted_0 -> h_conted_0
I0731 23:50:11.116242 29934 net.cpp:141] Setting up lstm2_h_conted_0
I0731 23:50:11.116252 29934 net.cpp:148] Top shape: 1 1 1000 (1000)
I0731 23:50:11.116257 29934 net.cpp:156] Memory required for data: 50020
I0731 23:50:11.116262 29934 layer_factory.hpp:77] Creating layer lstm2_transform_1
I0731 23:50:11.116279 29934 net.cpp:91] Creating Layer lstm2_transform_1
I0731 23:50:11.116286 29934 net.cpp:425] lstm2_transform_1 <- h_conted_0
I0731 23:50:11.116297 29934 net.cpp:399] lstm2_transform_1 -> W_hc_h_0
I0731 23:50:11.133962 29944 net.cpp:141] Setting up fc7
I0731 23:50:11.134014 29944 net.cpp:148] Top shape: 10 4096 (40960)
I0731 23:50:11.134021 29944 net.cpp:156] Memory required for data: 68273720
I0731 23:50:11.134039 29944 layer_factory.hpp:77] Creating layer relu7
I0731 23:50:11.134064 29944 net.cpp:91] Creating Layer relu7
I0731 23:50:11.134073 29944 net.cpp:425] relu7 <- fc7
I0731 23:50:11.134083 29944 net.cpp:386] relu7 -> fc7 (in-place)
I0731 23:50:11.134930 29944 net.cpp:141] Setting up relu7
I0731 23:50:11.134944 29944 net.cpp:148] Top shape: 10 4096 (40960)
I0731 23:50:11.134949 29944 net.cpp:156] Memory required for data: 68437560
I0731 23:50:11.134955 29944 layer_factory.hpp:77] Creating layer drop7
I0731 23:50:11.134969 29944 net.cpp:91] Creating Layer drop7
I0731 23:50:11.134975 29944 net.cpp:425] drop7 <- fc7
I0731 23:50:11.134984 29944 net.cpp:386] drop7 -> fc7 (in-place)
I0731 23:50:11.135026 29944 net.cpp:141] Setting up drop7
I0731 23:50:11.135035 29944 net.cpp:148] Top shape: 10 4096 (40960)
I0731 23:50:11.135040 29944 net.cpp:156] Memory required for data: 68601400
I0731 23:50:11.135045 29944 layer_factory.hpp:77] Creating layer fc8
I0731 23:50:11.135059 29944 net.cpp:91] Creating Layer fc8
I0731 23:50:11.135066 29944 net.cpp:425] fc8 <- fc7
I0731 23:50:11.135072 29944 net.cpp:399] fc8 -> fc8
I0731 23:50:11.147446 29944 net.cpp:141] Setting up fc8
I0731 23:50:11.147495 29944 net.cpp:148] Top shape: 10 1000 (10000)
I0731 23:50:11.147500 29944 net.cpp:156] Memory required for data: 68641400
I0731 23:50:11.147516 29944 layer_factory.hpp:77] Creating layer prob
I0731 23:50:11.147533 29944 net.cpp:91] Creating Layer prob
I0731 23:50:11.147541 29944 net.cpp:425] prob <- fc8
I0731 23:50:11.147557 29944 net.cpp:399] prob -> prob
I0731 23:50:11.148031 29944 net.cpp:141] Setting up prob
I0731 23:50:11.148044 29944 net.cpp:148] Top shape: 10 1000 (10000)
I0731 23:50:11.148049 29944 net.cpp:156] Memory required for data: 68681400
I0731 23:50:11.148056 29944 net.cpp:219] prob does not need backward computation.
I0731 23:50:11.148061 29944 net.cpp:219] fc8 does not need backward computation.
I0731 23:50:11.148066 29944 net.cpp:219] drop7 does not need backward computation.
I0731 23:50:11.148072 29944 net.cpp:219] relu7 does not need backward computation.
…
I0731 23:50:11.148147 29944 net.cpp:219] norm1 does not need backward computation.
I0731 23:50:11.148152 29944 net.cpp:219] pool1 does not need backward computation.
I0731 23:50:11.148157 29944 net.cpp:219] relu1 does not need backward computation.
I0731 23:50:11.148162 29944 net.cpp:219] conv1 does not need backward computation.
I0731 23:50:11.148167 29944 net.cpp:219] data does not need backward computation.
I0731 23:50:11.148171 29944 net.cpp:261] This network produces output prob
I0731 23:50:11.148191 29944 net.cpp:274] Network initialization done.
I0731 23:50:11.159549 29934 net.cpp:141] Setting up lstm2_transform_1
I0731 23:50:11.159603 29934 net.cpp:148] Top shape: 1 1 4000 (4000)
I0731 23:50:11.159610 29934 net.cpp:156] Memory required for data: 66020
I0731 23:50:11.159633 29934 layer_factory.hpp:77] Creating layer lstm2_gate_input_1
I0731 23:50:11.159657 29934 net.cpp:91] Creating Layer lstm2_gate_input_1
I0731 23:50:11.159663 29934 net.cpp:425] lstm2_gate_input_1 <- W_hc_h_0
I0731 23:50:11.159673 29934 net.cpp:425] lstm2_gate_input_1 <- W_xc_x_1
I0731 23:50:11.159682 29934 net.cpp:399] lstm2_gate_input_1 -> gate_input_1
I0731 23:50:11.159740 29934 net.cpp:141] Setting up lstm2_gate_input_1
I0731 23:50:11.159751 29934 net.cpp:148] Top shape: 1 1 4000 (4000)
I0731 23:50:11.159755 29934 net.cpp:156] Memory required for data: 82020
I0731 23:50:11.159760 29934 layer_factory.hpp:77] Creating layer lstm2_unit_1
I0731 23:50:11.159773 29934 net.cpp:91] Creating Layer lstm2_unit_1
I0731 23:50:11.159778 29934 net.cpp:425] lstm2_unit_1 <- c_0
I0731 23:50:11.159785 29934 net.cpp:425] lstm2_unit_1 <- gate_input_1
I0731 23:50:11.159790 29934 net.cpp:425] lstm2_unit_1 <- cont_1_lstm2_cont_slice_0_split_1
I0731 23:50:11.159798 29934 net.cpp:399] lstm2_unit_1 -> c_1
I0731 23:50:11.159807 29934 net.cpp:399] lstm2_unit_1 -> h_1
I0731 23:50:11.159876 29934 net.cpp:141] Setting up lstm2_unit_1
I0731 23:50:11.159886 29934 net.cpp:148] Top shape: 1 1 1000 (1000)
I0731 23:50:11.159893 29934 net.cpp:148] Top shape: 1 1 1000 (1000)
I0731 23:50:11.159898 29934 net.cpp:156] Memory required for data: 90020
I0731 23:50:11.159903 29934 layer_factory.hpp:77] Creating layer lstm2_
I0731 23:50:11.159911 29934 net.cpp:91] Creating Layer lstm2_
I0731 23:50:11.159916 29934 net.cpp:425] lstm2_ <- c_1
I0731 23:50:11.159924 29934 net.cpp:399] lstm2_ -> c_T
I0731 23:50:11.159955 29934 net.cpp:141] Setting up lstm2_
I0731 23:50:11.159965 29934 net.cpp:148] Top shape: 1 1 1000 (1000)
I0731 23:50:11.159970 29934 net.cpp:156] Memory required for data: 94020
I0731 23:50:11.159975 29934 layer_factory.hpp:77] Creating layer lstm2_h_concat
I0731 23:50:11.159988 29934 net.cpp:91] Creating Layer lstm2_h_concat
I0731 23:50:11.159994 29934 net.cpp:425] lstm2_h_concat <- h_1
I0731 23:50:11.160001 29934 net.cpp:399] lstm2_h_concat -> h
I0731 23:50:11.160049 29934 net.cpp:141] Setting up lstm2_h_concat
I0731 23:50:11.160059 29934 net.cpp:148] Top shape: 1 1 1000 (1000)
I0731 23:50:11.160063 29934 net.cpp:156] Memory required for data: 98020
I0731 23:50:11.160068 29934 layer_factory.hpp:77] Creating layer h_pseudoloss
I0731 23:50:11.160079 29934 net.cpp:91] Creating Layer h_pseudoloss
I0731 23:50:11.160084 29934 net.cpp:425] h_pseudoloss <- h
I0731 23:50:11.160094 29934 net.cpp:399] h_pseudoloss -> h_pseudoloss
I0731 23:50:11.160192 29934 net.cpp:141] Setting up h_pseudoloss
…
